…
I0508 05:16:34.195955 32717 solver.cpp:93] Creating training net from train_net file: ./Prototxt/experiment_16/RTSD/imajust/trial_1/train.prototxt
I0508 05:16:34.196383 32717 net.cpp:58] Initializing net from parameters: 
state {
  phase: TRAIN
  level: 0
  stage: ""
}
layer {
  name: "data"
  type: "Data"
  top: "data"
  top: "label"
  include {
    phase: TRAIN
  }
  transform_param {
    scale: 0.0039215689
    mirror: false
    crop_size: 48
    mean_value: 119
    mean_value: 113
    mean_value: 114
  }
  data_param {
    source: "../local_data/lmdb/RTSD/imajust/train/lmdb"
    batch_size: 1024
    backend: LMDB
  }
}
layer {
  name: "conv1"
  type: "Convolution"
  bottom: "data"
  top: "conv1"
  convolution_param {
    num_output: 100
    pad: 0
    kernel_size: 7
    group: 1
    stride: 1
    weight_filler {
      type: "xavier"
    }
  }
}
layer {
  name: "conv1_relu"
  type: "ReLU"
  bottom: "conv1"
  top: "conv1"
}
layer {
  name: "pool1"
  type: "Pooling"
  bottom: "conv1"
  top: "pool1"
  pooling_param {
    pool: MAX
    kernel_size: 2
    stride: 2
  }
}
layer {
  name: "conv2"
  type: "Convolution"
  bottom: "pool1"
  top: "conv2"
  convolution_param {
    num_output: 150
    pad: 0
    kernel_size: 4
    group: 2
    stride: 1
    weight_filler {
      type: "xavier"
    }
  }
}
layer {
  name: "conv2_relu"
  type: "ReLU"
  bottom: "conv2"
  top: "conv2"
}
layer {
  name: "pool2"
  type: "Pooling"
  bottom: "conv2"
  top: "pool2"
  pooling_param {
    pool: MAX
    kernel_size: 2
    stride: 2
  }
}
layer {
  name: "conv3"
  type: "Convolution"
  bottom: "pool2"
  top: "conv3"
  convolution_param {
    num_output: 250
    pad: 0
    kernel_size: 4
    group: 2
    stride: 1
    weight_filler {
      type: "xavier"
    }
  }
}
layer {
  name: "conv3_relu"
  type: "ReLU"
  bottom: "conv3"
  top: "conv3"
}
layer {
  name: "pool3"
  type: "Pooling"
  bottom: "conv3"
  top: "pool3"
  pooling_param {
    pool: MAX
    kernel_size: 2
    stride: 2
  }
}
layer {
  name: "fc4_300"
  type: "InnerProduct"
  bottom: "pool3"
  top: "fc4_300"
  inner_product_param {
    num_output: 300
    weight_filler {
      type: "xavier"
    }
  }
}
layer {
  name: "fc4_relu"
  type: "ReLU"
  bottom: "fc4_300"
  top: "fc4_300"
}
layer {
  name: "fc5_116"
  type: "InnerProduct"
  bottom: "fc4_300"
  top: "fc5_classes"
  inner_product_param {
    num_output: 116
    weight_filler {
      type: "xavier"
    }
  }
}
layer {
  name: "softmax"
  type: "Softmax"
  bottom: "fc5_classes"
  top: "softmax"
}
layer {
  name: "loss"
  type: "MultinomialLogisticLoss"
  bottom: "softmax"
  bottom: "label"
  top: "loss"
}
layer {
  name: "accuracy_1"
  type: "Accuracy"
  bottom: "fc5_classes"
  bottom: "label"
  top: "accuracy_1"
  accuracy_param {
    top_k: 1
  }
}
layer {
  name: "accuracy_5"
  type: "Accuracy"
  bottom: "fc5_classes"
  bottom: "label"
  top: "accuracy_5"
  accuracy_param {
    top_k: 5
  }
}
layer {
  name: "silence"
  type: "Silence"
  bottom: "accuracy_1"
  bottom: "accuracy_5"
}
I0508 05:16:34.196535 32717 layer_factory.hpp:77] Creating layer data
I0508 05:16:34.197871 32717 net.cpp:100] Creating Layer data
I0508 05:16:34.197891 32717 net.cpp:408] data -> data
I0508 05:16:34.197918 32717 net.cpp:408] data -> label
I0508 05:16:34.645496   372 db_lmdb.cpp:35] Opened lmdb ../local_data/lmdb/RTSD/imajust/train/lmdb
I0508 05:16:34.698137 32717 data_layer.cpp:41] output data size: 1024,3,48,48
I0508 05:16:34.767910 32717 net.cpp:150] Setting up data
I0508 05:16:34.767968 32717 net.cpp:157] Top shape: 1024 3 48 48 (7077888)
I0508 05:16:34.767976 32717 net.cpp:157] Top shape: 1024 (1024)
I0508 05:16:34.767980 32717 net.cpp:165] Memory required for data: 28315648
I0508 05:16:34.767994 32717 layer_factory.hpp:77] Creating layer label_data_1_split
I0508 05:16:34.768018 32717 net.cpp:100] Creating Layer label_data_1_split
I0508 05:16:34.768028 32717 net.cpp:434] label_data_1_split <- label
I0508 05:16:34.768046 32717 net.cpp:408] label_data_1_split -> label_data_1_split_0
I0508 05:16:34.768064 32717 net.cpp:408] label_data_1_split -> label_data_1_split_1
I0508 05:16:34.768074 32717 net.cpp:408] label_data_1_split -> label_data_1_split_2
I0508 05:16:34.768154 32717 net.cpp:150] Setting up label_data_1_split
I0508 05:16:34.768164 32717 net.cpp:157] Top shape: 1024 (1024)
I0508 05:16:34.768169 32717 net.cpp:157] Top shape: 1024 (1024)
I0508 05:16:34.768174 32717 net.cpp:157] Top shape: 1024 (1024)
I0508 05:16:34.768178 32717 net.cpp:165] Memory required for data: 28327936
I0508 05:16:34.768182 32717 layer_factory.hpp:77] Creating layer conv1
I0508 05:16:34.768204 32717 net.cpp:100] Creating Layer conv1
I0508 05:16:34.768211 32717 net.cpp:434] conv1 <- data
I0508 05:16:34.768219 32717 net.cpp:408] conv1 -> conv1
I0508 05:16:34.836148   420 blocking_queue.cpp:50] Waiting for data
I0508 05:16:35.121520 32717 net.cpp:150] Setting up conv1
I0508 05:16:35.121547 32717 net.cpp:157] Top shape: 1024 100 42 42 (180633600)
I0508 05:16:35.121551 32717 net.cpp:165] Memory required for data: 750862336
I0508 05:16:35.121573 32717 layer_factory.hpp:77] Creating layer conv1_relu
I0508 05:16:35.121584 32717 net.cpp:100] Creating Layer conv1_relu
I0508 05:16:35.121590 32717 net.cpp:434] conv1_relu <- conv1
I0508 05:16:35.121598 32717 net.cpp:395] conv1_relu -> conv1 (in-place)
I0508 05:16:35.121799 32717 net.cpp:150] Setting up conv1_relu
I0508 05:16:35.121812 32717 net.cpp:157] Top shape: 1024 100 42 42 (180633600)
I0508 05:16:35.121817 32717 net.cpp:165] Memory required for data: 1473396736
I0508 05:16:35.121821 32717 layer_factory.hpp:77] Creating layer pool1
I0508 05:16:35.121830 32717 net.cpp:100] Creating Layer pool1
I0508 05:16:35.121836 32717 net.cpp:434] pool1 <- conv1
I0508 05:16:35.121841 32717 net.cpp:408] pool1 -> pool1
I0508 05:16:35.121896 32717 net.cpp:150] Setting up pool1
I0508 05:16:35.121904 32717 net.cpp:157] Top shape: 1024 100 21 21 (45158400)
I0508 05:16:35.121909 32717 net.cpp:165] Memory required for data: 1654030336
I0508 05:16:35.121913 32717 layer_factory.hpp:77] Creating layer conv2
I0508 05:16:35.121923 32717 net.cpp:100] Creating Layer conv2
I0508 05:16:35.121928 32717 net.cpp:434] conv2 <- pool1
I0508 05:16:35.121934 32717 net.cpp:408] conv2 -> conv2
I0508 05:16:35.128373 32717 net.cpp:150] Setting up conv2
I0508 05:16:35.128392 32717 net.cpp:157] Top shape: 1024 150 18 18 (49766400)
I0508 05:16:35.128396 32717 net.cpp:165] Memory required for data: 1853095936
I0508 05:16:35.128407 32717 layer_factory.hpp:77] Creating layer conv2_relu
I0508 05:16:35.128417 32717 net.cpp:100] Creating Layer conv2_relu
I0508 05:16:35.128420 32717 net.cpp:434] conv2_relu <- conv2
I0508 05:16:35.128427 32717 net.cpp:395] conv2_relu -> conv2 (in-place)
I0508 05:16:35.128614 32717 net.cpp:150] Setting up conv2_relu
I0508 05:16:35.128626 32717 net.cpp:157] Top shape: 1024 150 18 18 (49766400)
I0508 05:16:35.128631 32717 net.cpp:165] Memory required for data: 2052161536
I0508 05:16:35.128635 32717 layer_factory.hpp:77] Creating layer pool2
I0508 05:16:35.128641 32717 net.cpp:100] Creating Layer pool2
I0508 05:16:35.128646 32717 net.cpp:434] pool2 <- conv2
I0508 05:16:35.128653 32717 net.cpp:408] pool2 -> pool2
I0508 05:16:35.128697 32717 net.cpp:150] Setting up pool2
I0508 05:16:35.128705 32717 net.cpp:157] Top shape: 1024 150 9 9 (12441600)
I0508 05:16:35.128710 32717 net.cpp:165] Memory required for data: 2101927936
I0508 05:16:35.128712 32717 layer_factory.hpp:77] Creating layer conv3
I0508 05:16:35.128722 32717 net.cpp:100] Creating Layer conv3
I0508 05:16:35.128727 32717 net.cpp:434] conv3 <- pool2
I0508 05:16:35.128752 32717 net.cpp:408] conv3 -> conv3
I0508 05:16:35.134577 32717 net.cpp:150] Setting up conv3
I0508 05:16:35.134594 32717 net.cpp:157] Top shape: 1024 250 6 6 (9216000)
I0508 05:16:35.134599 32717 net.cpp:165] Memory required for data: 2138791936
I0508 05:16:35.134610 32717 layer_factory.hpp:77] Creating layer conv3_relu
I0508 05:16:35.134620 32717 net.cpp:100] Creating Layer conv3_relu
I0508 05:16:35.134625 32717 net.cpp:434] conv3_relu <- conv3
I0508 05:16:35.134631 32717 net.cpp:395] conv3_relu -> conv3 (in-place)
I0508 05:16:35.134811 32717 net.cpp:150] Setting up conv3_relu
I0508 05:16:35.134824 32717 net.cpp:157] Top shape: 1024 250 6 6 (9216000)
I0508 05:16:35.134829 32717 net.cpp:165] Memory required for data: 2175655936
I0508 05:16:35.134832 32717 layer_factory.hpp:77] Creating layer pool3
I0508 05:16:35.134838 32717 net.cpp:100] Creating Layer pool3
I0508 05:16:35.134843 32717 net.cpp:434] pool3 <- conv3
I0508 05:16:35.134850 32717 net.cpp:408] pool3 -> pool3
I0508 05:16:35.134892 32717 net.cpp:150] Setting up pool3
I0508 05:16:35.134899 32717 net.cpp:157] Top shape: 1024 250 3 3 (2304000)
I0508 05:16:35.134902 32717 net.cpp:165] Memory required for data: 2184871936
I0508 05:16:35.134907 32717 layer_factory.hpp:77] Creating layer fc4_300
I0508 05:16:35.134913 32717 net.cpp:100] Creating Layer fc4_300
I0508 05:16:35.134918 32717 net.cpp:434] fc4_300 <- pool3
I0508 05:16:35.134923 32717 net.cpp:408] fc4_300 -> fc4_300
I0508 05:16:35.141317 32717 net.cpp:150] Setting up fc4_300
I0508 05:16:35.141335 32717 net.cpp:157] Top shape: 1024 300 (307200)
I0508 05:16:35.141340 32717 net.cpp:165] Memory required for data: 2186100736
I0508 05:16:35.141347 32717 layer_factory.hpp:77] Creating layer fc4_relu
I0508 05:16:35.141356 32717 net.cpp:100] Creating Layer fc4_relu
I0508 05:16:35.141362 32717 net.cpp:434] fc4_relu <- fc4_300
I0508 05:16:35.141367 32717 net.cpp:395] fc4_relu -> fc4_300 (in-place)
I0508 05:16:35.142472 32717 net.cpp:150] Setting up fc4_relu
I0508 05:16:35.142488 32717 net.cpp:157] Top shape: 1024 300 (307200)
I0508 05:16:35.142491 32717 net.cpp:165] Memory required for data: 2187329536
I0508 05:16:35.142495 32717 layer_factory.hpp:77] Creating layer fc5_116
I0508 05:16:35.142503 32717 net.cpp:100] Creating Layer fc5_116
I0508 05:16:35.142506 32717 net.cpp:434] fc5_116 <- fc4_300
I0508 05:16:35.142513 32717 net.cpp:408] fc5_116 -> fc5_classes
I0508 05:16:35.146872 32717 net.cpp:150] Setting up fc5_116
I0508 05:16:35.146888 32717 net.cpp:157] Top shape: 1024 116 (118784)
I0508 05:16:35.146891 32717 net.cpp:165] Memory required for data: 2187804672
I0508 05:16:35.146903 32717 layer_factory.hpp:77] Creating layer fc5_classes_fc5_116_0_split
I0508 05:16:35.146910 32717 net.cpp:100] Creating Layer fc5_classes_fc5_116_0_split
I0508 05:16:35.146914 32717 net.cpp:434] fc5_classes_fc5_116_0_split <- fc5_classes
I0508 05:16:35.146920 32717 net.cpp:408] fc5_classes_fc5_116_0_split -> fc5_classes_fc5_116_0_split_0
I0508 05:16:35.146929 32717 net.cpp:408] fc5_classes_fc5_116_0_split -> fc5_classes_fc5_116_0_split_1
I0508 05:16:35.146936 32717 net.cpp:408] fc5_classes_fc5_116_0_split -> fc5_classes_fc5_116_0_split_2
I0508 05:16:35.146986 32717 net.cpp:150] Setting up fc5_classes_fc5_116_0_split
I0508 05:16:35.146994 32717 net.cpp:157] Top shape: 1024 116 (118784)
I0508 05:16:35.146998 32717 net.cpp:157] Top shape: 1024 116 (118784)
I0508 05:16:35.147002 32717 net.cpp:157] Top shape: 1024 116 (118784)
I0508 05:16:35.147006 32717 net.cpp:165] Memory required for data: 2189230080
I0508 05:16:35.147009 32717 layer_factory.hpp:77] Creating layer softmax
I0508 05:16:35.147016 32717 net.cpp:100] Creating Layer softmax
I0508 05:16:35.147020 32717 net.cpp:434] softmax <- fc5_classes_fc5_116_0_split_0
I0508 05:16:35.147027 32717 net.cpp:408] softmax -> softmax
I0508 05:16:35.147276 32717 net.cpp:150] Setting up softmax
I0508 05:16:35.147289 32717 net.cpp:157] Top shape: 1024 116 (118784)
I0508 05:16:35.147292 32717 net.cpp:165] Memory required for data: 2189705216
I0508 05:16:35.147311 32717 layer_factory.hpp:77] Creating layer loss
I0508 05:16:35.147321 32717 net.cpp:100] Creating Layer loss
I0508 05:16:35.147325 32717 net.cpp:434] loss <- softmax
I0508 05:16:35.147330 32717 net.cpp:434] loss <- label_data_1_split_0
I0508 05:16:35.147336 32717 net.cpp:408] loss -> loss
…
