…
I0507 08:10:14.475486  4745 solver.cpp:93] Creating training net from train_net file: ./Prototxt/experiment_14/RTSD/imajust/trial_3/train.prototxt
I0507 08:10:14.475833  4745 net.cpp:58] Initializing net from parameters: 
state {
  phase: TRAIN
  level: 0
  stage: ""
}
layer {
  name: "data"
  type: "Data"
  top: "data"
  top: "label"
  include {
    phase: TRAIN
  }
  transform_param {
    scale: 0.0039215689
    mirror: false
    crop_size: 48
    mean_value: 119
    mean_value: 113
    mean_value: 114
  }
  data_param {
    source: "../local_data/lmdb/RTSD/imajust/train/lmdb"
    batch_size: 512
    backend: LMDB
  }
}
layer {
  name: "conv1"
  type: "Convolution"
  bottom: "data"
  top: "conv1"
  convolution_param {
    num_output: 100
    pad: 0
    kernel_size: 7
    group: 1
    stride: 1
    weight_filler {
      type: "xavier"
    }
  }
}
layer {
  name: "conv1_relu"
  type: "ReLU"
  bottom: "conv1"
  top: "conv1"
}
layer {
  name: "pool1"
  type: "Pooling"
  bottom: "conv1"
  top: "pool1"
  pooling_param {
    pool: MAX
    kernel_size: 2
    stride: 2
  }
}
layer {
  name: "conv2"
  type: "Convolution"
  bottom: "pool1"
  top: "conv2"
  convolution_param {
    num_output: 150
    pad: 0
    kernel_size: 4
    group: 1
    stride: 1
    weight_filler {
      type: "xavier"
    }
  }
}
layer {
  name: "conv2_relu"
  type: "ReLU"
  bottom: "conv2"
  top: "conv2"
}
layer {
  name: "pool2"
  type: "Pooling"
  bottom: "conv2"
  top: "pool2"
  pooling_param {
    pool: MAX
    kernel_size: 2
    stride: 2
  }
}
layer {
  name: "conv3"
  type: "Convolution"
  bottom: "pool2"
  top: "conv3"
  convolution_param {
    num_output: 250
    pad: 0
    kernel_size: 4
    group: 1
    stride: 1
    weight_filler {
      type: "xavier"
    }
  }
}
layer {
  name: "conv3_relu"
  type: "ReLU"
  bottom: "conv3"
  top: "conv3"
}
layer {
  name: "pool3"
  type: "Pooling"
  bottom: "conv3"
  top: "pool3"
  pooling_param {
    pool: MAX
    kernel_size: 2
    stride: 2
  }
}
layer {
  name: "fc4_300"
  type: "InnerProduct"
  bottom: "pool3"
  top: "fc4_300"
  inner_product_param {
    num_output: 300
    weight_filler {
      type: "xavier"
    }
  }
}
layer {
  name: "fc4_relu"
  type: "ReLU"
  bottom: "fc4_300"
  top: "fc4_300"
}
layer {
  name: "fc5_116"
  type: "InnerProduct"
  bottom: "fc4_300"
  top: "fc5_classes"
  inner_product_param {
    num_output: 116
    weight_filler {
      type: "xavier"
    }
  }
}
layer {
  name: "softmax"
  type: "Softmax"
  bottom: "fc5_classes"
  top: "softmax"
}
layer {
  name: "loss"
  type: "MultinomialLogisticLoss"
  bottom: "softmax"
  bottom: "label"
  top: "loss"
}
layer {
  name: "accuracy_1"
  type: "Accuracy"
  bottom: "fc5_classes"
  bottom: "label"
  top: "accuracy_1"
  accuracy_param {
    top_k: 1
  }
}
layer {
  name: "accuracy_5"
  type: "Accuracy"
  bottom: "fc5_classes"
  bottom: "label"
  top: "accuracy_5"
  accuracy_param {
    top_k: 5
  }
}
layer {
  name: "silence"
  type: "Silence"
  bottom: "accuracy_1"
  bottom: "accuracy_5"
}
I0507 08:10:14.475966  4745 layer_factory.hpp:77] Creating layer data
I0507 08:10:14.476732  4745 net.cpp:100] Creating Layer data
I0507 08:10:14.476753  4745 net.cpp:408] data -> data
I0507 08:10:14.476778  4745 net.cpp:408] data -> label
I0507 08:10:14.482336  4896 db_lmdb.cpp:35] Opened lmdb ../local_data/lmdb/RTSD/imajust/train/lmdb
I0507 08:10:14.501471  4745 data_layer.cpp:41] output data size: 512,3,48,48
I0507 08:10:14.543720  4745 net.cpp:150] Setting up data
I0507 08:10:14.543787  4745 net.cpp:157] Top shape: 512 3 48 48 (3538944)
I0507 08:10:14.543794  4745 net.cpp:157] Top shape: 512 (512)
I0507 08:10:14.543797  4745 net.cpp:165] Memory required for data: 14157824
I0507 08:10:14.543808  4745 layer_factory.hpp:77] Creating layer label_data_1_split
I0507 08:10:14.543823  4745 net.cpp:100] Creating Layer label_data_1_split
I0507 08:10:14.543829  4745 net.cpp:434] label_data_1_split <- label
I0507 08:10:14.543843  4745 net.cpp:408] label_data_1_split -> label_data_1_split_0
I0507 08:10:14.543858  4745 net.cpp:408] label_data_1_split -> label_data_1_split_1
I0507 08:10:14.543864  4745 net.cpp:408] label_data_1_split -> label_data_1_split_2
I0507 08:10:14.543936  4745 net.cpp:150] Setting up label_data_1_split
I0507 08:10:14.543947  4745 net.cpp:157] Top shape: 512 (512)
I0507 08:10:14.543952  4745 net.cpp:157] Top shape: 512 (512)
I0507 08:10:14.543956  4745 net.cpp:157] Top shape: 512 (512)
I0507 08:10:14.543958  4745 net.cpp:165] Memory required for data: 14163968
I0507 08:10:14.543962  4745 layer_factory.hpp:77] Creating layer conv1
I0507 08:10:14.543979  4745 net.cpp:100] Creating Layer conv1
I0507 08:10:14.543984  4745 net.cpp:434] conv1 <- data
I0507 08:10:14.543990  4745 net.cpp:408] conv1 -> conv1
I0507 08:10:15.323951  4745 net.cpp:150] Setting up conv1
I0507 08:10:15.323978  4745 net.cpp:157] Top shape: 512 100 42 42 (90316800)
I0507 08:10:15.323982  4745 net.cpp:165] Memory required for data: 375431168
I0507 08:10:15.324004  4745 layer_factory.hpp:77] Creating layer conv1_relu
I0507 08:10:15.324015  4745 net.cpp:100] Creating Layer conv1_relu
I0507 08:10:15.324023  4745 net.cpp:434] conv1_relu <- conv1
I0507 08:10:15.324029  4745 net.cpp:395] conv1_relu -> conv1 (in-place)
I0507 08:10:15.324224  4745 net.cpp:150] Setting up conv1_relu
I0507 08:10:15.324236  4745 net.cpp:157] Top shape: 512 100 42 42 (90316800)
I0507 08:10:15.324239  4745 net.cpp:165] Memory required for data: 736698368
I0507 08:10:15.324244  4745 layer_factory.hpp:77] Creating layer pool1
I0507 08:10:15.324252  4745 net.cpp:100] Creating Layer pool1
I0507 08:10:15.324257  4745 net.cpp:434] pool1 <- conv1
I0507 08:10:15.324264  4745 net.cpp:408] pool1 -> pool1
I0507 08:10:15.324316  4745 net.cpp:150] Setting up pool1
I0507 08:10:15.324324  4745 net.cpp:157] Top shape: 512 100 21 21 (22579200)
I0507 08:10:15.324328  4745 net.cpp:165] Memory required for data: 827015168
I0507 08:10:15.324331  4745 layer_factory.hpp:77] Creating layer conv2
I0507 08:10:15.324342  4745 net.cpp:100] Creating Layer conv2
I0507 08:10:15.324347  4745 net.cpp:434] conv2 <- pool1
I0507 08:10:15.324352  4745 net.cpp:408] conv2 -> conv2
I0507 08:10:15.341809  4745 net.cpp:150] Setting up conv2
I0507 08:10:15.341827  4745 net.cpp:157] Top shape: 512 150 18 18 (24883200)
I0507 08:10:15.341831  4745 net.cpp:165] Memory required for data: 926547968
I0507 08:10:15.341841  4745 layer_factory.hpp:77] Creating layer conv2_relu
I0507 08:10:15.341848  4745 net.cpp:100] Creating Layer conv2_relu
I0507 08:10:15.341852  4745 net.cpp:434] conv2_relu <- conv2
I0507 08:10:15.341858  4745 net.cpp:395] conv2_relu -> conv2 (in-place)
I0507 08:10:15.342931  4745 net.cpp:150] Setting up conv2_relu
I0507 08:10:15.342947  4745 net.cpp:157] Top shape: 512 150 18 18 (24883200)
I0507 08:10:15.342952  4745 net.cpp:165] Memory required for data: 1026080768
I0507 08:10:15.342954  4745 layer_factory.hpp:77] Creating layer pool2
I0507 08:10:15.342962  4745 net.cpp:100] Creating Layer pool2
I0507 08:10:15.342965  4745 net.cpp:434] pool2 <- conv2
I0507 08:10:15.342972  4745 net.cpp:408] pool2 -> pool2
I0507 08:10:15.343019  4745 net.cpp:150] Setting up pool2
I0507 08:10:15.343027  4745 net.cpp:157] Top shape: 512 150 9 9 (6220800)
I0507 08:10:15.343031  4745 net.cpp:165] Memory required for data: 1050963968
I0507 08:10:15.343034  4745 layer_factory.hpp:77] Creating layer conv3
I0507 08:10:15.343044  4745 net.cpp:100] Creating Layer conv3
I0507 08:10:15.343050  4745 net.cpp:434] conv3 <- pool2
I0507 08:10:15.343055  4745 net.cpp:408] conv3 -> conv3
I0507 08:10:15.349927  4745 net.cpp:150] Setting up conv3
I0507 08:10:15.349946  4745 net.cpp:157] Top shape: 512 250 6 6 (4608000)
I0507 08:10:15.349951  4745 net.cpp:165] Memory required for data: 1069395968
I0507 08:10:15.349961  4745 layer_factory.hpp:77] Creating layer conv3_relu
I0507 08:10:15.349967  4745 net.cpp:100] Creating Layer conv3_relu
I0507 08:10:15.349970  4745 net.cpp:434] conv3_relu <- conv3
I0507 08:10:15.349977  4745 net.cpp:395] conv3_relu -> conv3 (in-place)
I0507 08:10:15.353570  4745 net.cpp:150] Setting up conv3_relu
I0507 08:10:15.353588  4745 net.cpp:157] Top shape: 512 250 6 6 (4608000)
I0507 08:10:15.353592  4745 net.cpp:165] Memory required for data: 1087827968
I0507 08:10:15.353596  4745 layer_factory.hpp:77] Creating layer pool3
I0507 08:10:15.353603  4745 net.cpp:100] Creating Layer pool3
I0507 08:10:15.353607  4745 net.cpp:434] pool3 <- conv3
I0507 08:10:15.353615  4745 net.cpp:408] pool3 -> pool3
I0507 08:10:15.353667  4745 net.cpp:150] Setting up pool3
I0507 08:10:15.353680  4745 net.cpp:157] Top shape: 512 250 3 3 (1152000)
I0507 08:10:15.353683  4745 net.cpp:165] Memory required for data: 1092435968
I0507 08:10:15.353687  4745 layer_factory.hpp:77] Creating layer fc4_300
I0507 08:10:15.353694  4745 net.cpp:100] Creating Layer fc4_300
I0507 08:10:15.353698  4745 net.cpp:434] fc4_300 <- pool3
I0507 08:10:15.353704  4745 net.cpp:408] fc4_300 -> fc4_300
I0507 08:10:15.360571  4745 net.cpp:150] Setting up fc4_300
I0507 08:10:15.360589  4745 net.cpp:157] Top shape: 512 300 (153600)
I0507 08:10:15.360592  4745 net.cpp:165] Memory required for data: 1093050368
I0507 08:10:15.360600  4745 layer_factory.hpp:77] Creating layer fc4_relu
I0507 08:10:15.360606  4745 net.cpp:100] Creating Layer fc4_relu
I0507 08:10:15.360611  4745 net.cpp:434] fc4_relu <- fc4_300
I0507 08:10:15.360616  4745 net.cpp:395] fc4_relu -> fc4_300 (in-place)
I0507 08:10:15.360807  4745 net.cpp:150] Setting up fc4_relu
I0507 08:10:15.360819  4745 net.cpp:157] Top shape: 512 300 (153600)
I0507 08:10:15.360824  4745 net.cpp:165] Memory required for data: 1093664768
I0507 08:10:15.360828  4745 layer_factory.hpp:77] Creating layer fc5_116
I0507 08:10:15.360834  4745 net.cpp:100] Creating Layer fc5_116
I0507 08:10:15.360838  4745 net.cpp:434] fc5_116 <- fc4_300
I0507 08:10:15.360846  4745 net.cpp:408] fc5_116 -> fc5_classes
I0507 08:10:15.374699  4745 net.cpp:150] Setting up fc5_116
I0507 08:10:15.374722  4745 net.cpp:157] Top shape: 512 116 (59392)
I0507 08:10:15.374727  4745 net.cpp:165] Memory required for data: 1093902336
I0507 08:10:15.374738  4745 layer_factory.hpp:77] Creating layer fc5_classes_fc5_116_0_split
I0507 08:10:15.374749  4745 net.cpp:100] Creating Layer fc5_classes_fc5_116_0_split
I0507 08:10:15.374755  4745 net.cpp:434] fc5_classes_fc5_116_0_split <- fc5_classes
I0507 08:10:15.374763  4745 net.cpp:408] fc5_classes_fc5_116_0_split -> fc5_classes_fc5_116_0_split_0
I0507 08:10:15.374773  4745 net.cpp:408] fc5_classes_fc5_116_0_split -> fc5_classes_fc5_116_0_split_1
I0507 08:10:15.374781  4745 net.cpp:408] fc5_classes_fc5_116_0_split -> fc5_classes_fc5_116_0_split_2
I0507 08:10:15.374836  4745 net.cpp:150] Setting up fc5_classes_fc5_116_0_split
I0507 08:10:15.374843  4745 net.cpp:157] Top shape: 512 116 (59392)
I0507 08:10:15.374847  4745 net.cpp:157] Top shape: 512 116 (59392)
I0507 08:10:15.374850  4745 net.cpp:157] Top shape: 512 116 (59392)
I0507 08:10:15.374853  4745 net.cpp:165] Memory required for data: 1094615040
I0507 08:10:15.374856  4745 layer_factory.hpp:77] Creating layer softmax
I0507 08:10:15.374862  4745 net.cpp:100] Creating Layer softmax
I0507 08:10:15.374866  4745 net.cpp:434] softmax <- fc5_classes_fc5_116_0_split_0
I0507 08:10:15.374873  4745 net.cpp:408] softmax -> softmax
I0507 08:10:15.375146  4745 net.cpp:150] Setting up softmax
I0507 08:10:15.375159  4745 net.cpp:157] Top shape: 512 116 (59392)
I0507 08:10:15.375162  4745 net.cpp:165] Memory required for data: 1094852608
I0507 08:10:15.375166  4745 layer_factory.hpp:77] Creating layer loss
I0507 08:10:15.375177  4745 net.cpp:100] Creating Layer loss
I0507 08:10:15.375201  4745 net.cpp:434] loss <- softmax
I0507 08:10:15.375207  4745 net.cpp:434] loss <- label_data_1_split_0
I0507 08:10:15.375213  4745 net.cpp:408] loss -> loss
…
