…
I0414 12:29:35.933943 27694 solver.cpp:93] Creating training net from train_net file: ./Prototxt/experiment_11/rtsd-r3/AHE/trial_2/train.prototxt
I0414 12:29:35.934648 27694 net.cpp:58] Initializing net from parameters: 
state {
  phase: TRAIN
  level: 0
  stage: ""
}
layer {
  name: "data"
  type: "Data"
  top: "data"
  top: "label"
  include {
    phase: TRAIN
  }
  transform_param {
    scale: 0.0039215689
    mirror: false
    crop_size: 48
    mean_value: 133
    mean_value: 126
    mean_value: 125
  }
  data_param {
    source: "../local_data/lmdb/rtsd-r3/AHE/train/lmdb"
    batch_size: 1024
    backend: LMDB
  }
}
layer {
  name: "conv1"
  type: "Convolution"
  bottom: "data"
  top: "conv1"
  convolution_param {
    num_output: 100
    pad: 0
    kernel_size: 7
    group: 1
    stride: 1
    weight_filler {
      type: "xavier"
    }
  }
}
layer {
  name: "conv1_prescale"
  type: "Scale"
  bottom: "conv1"
  top: "conv1"
  param {
    lr_mult: 0
    decay_mult: 0
  }
  scale_param {
    filler {
      value: 0.6666
    }
    bias_term: false
  }
}
layer {
  name: "conv1_sTanH"
  type: "TanH"
  bottom: "conv1"
  top: "conv1"
}
layer {
  name: "conv1_postscale"
  type: "Scale"
  bottom: "conv1"
  top: "conv1"
  param {
    lr_mult: 0
    decay_mult: 0
  }
  scale_param {
    filler {
      value: 1.7159
    }
    bias_term: false
  }
}
layer {
  name: "pool1"
  type: "Pooling"
  bottom: "conv1"
  top: "pool1"
  pooling_param {
    pool: MAX
    kernel_size: 2
    stride: 2
  }
}
layer {
  name: "conv2"
  type: "Convolution"
  bottom: "pool1"
  top: "conv2"
  convolution_param {
    num_output: 150
    pad: 0
    kernel_size: 4
    group: 1
    stride: 1
    weight_filler {
      type: "xavier"
    }
  }
}
layer {
  name: "conv2_prescale"
  type: "Scale"
  bottom: "conv2"
  top: "conv2"
  param {
    lr_mult: 0
    decay_mult: 0
  }
  scale_param {
    filler {
      value: 0.6666
    }
    bias_term: false
  }
}
layer {
  name: "conv2_sTanH"
  type: "TanH"
  bottom: "conv2"
  top: "conv2"
}
layer {
  name: "conv2_postscale"
  type: "Scale"
  bottom: "conv2"
  top: "conv2"
  param {
    lr_mult: 0
    decay_mult: 0
  }
  scale_param {
    filler {
      value: 1.7159
    }
    bias_term: false
  }
}
layer {
  name: "pool2"
  type: "Pooling"
  bottom: "conv2"
  top: "pool2"
  pooling_param {
    pool: MAX
    kernel_size: 2
    stride: 2
  }
}
layer {
  name: "conv3"
  type: "Convolution"
  bottom: "pool2"
  top: "conv3"
  convolution_param {
    num_output: 250
    pad: 0
    kernel_size: 4
    group: 1
    stride: 1
    weight_filler {
      type: "xavier"
    }
  }
}
layer {
  name: "conv3_prescale"
  type: "Scale"
  bottom: "conv3"
  top: "conv3"
  param {
    lr_mult: 0
    decay_mult: 0
  }
  scale_param {
    filler {
      value: 0.6666
    }
    bias_term: false
  }
}
layer {
  name: "conv3_sTanH"
  type: "TanH"
  bottom: "conv3"
  top: "conv3"
}
layer {
  name: "conv3_postscale"
  type: "Scale"
  bottom: "conv3"
  top: "conv3"
  param {
    lr_mult: 0
    decay_mult: 0
  }
  scale_param {
    filler {
      value: 1.7159
    }
    bias_term: false
  }
}
layer {
  name: "pool3"
  type: "Pooling"
  bottom: "conv3"
  top: "pool3"
  pooling_param {
    pool: MAX
    kernel_size: 2
    stride: 2
  }
}
layer {
  name: "fc4_300"
  type: "InnerProduct"
  bottom: "pool3"
  top: "fc4_300"
  inner_product_param {
    num_output: 300
    weight_filler {
      type: "xavier"
    }
  }
}
layer {
  name: "fc4_prescale"
  type: "Scale"
  bottom: "fc4_300"
  top: "fc4_300"
  param {
    lr_mult: 0
    decay_mult: 0
  }
  scale_param {
    filler {
      value: 0.6666
    }
    bias_term: false
  }
}
layer {
  name: "fc4_sTanH"
  type: "TanH"
  bottom: "fc4_300"
  top: "fc4_300"
}
layer {
  name: "fc4_postscale"
  type: "Scale"
  bottom: "fc4_300"
  top: "fc4_300"
  param {
    lr_mult: 0
    decay_mult: 0
  }
  scale_param {
    filler {
      value: 1.7159
    }
    bias_term: false
  }
}
layer {
  name: "fc5_106"
  type: "InnerProduct"
  bottom: "fc4_300"
  top: "fc5_classes"
  inner_product_param {
    num_output: 106
    weight_filler {
      type: "xavier"
    }
  }
}
layer {
  name: "softmax"
  type: "Softmax"
  bottom: "fc5_classes"
  top: "softmax"
}
layer {
  name: "loss"
  type: "MultinomialLogisticLoss"
  bottom: "softmax"
  bottom: "label"
  top: "loss"
}
layer {
  name: "accuracy_1"
  type: "Accuracy"
  bottom: "fc5_classes"
  bottom: "label"
  top: "accuracy_1"
  accuracy_param {
    top_k: 1
  }
}
layer {
  name: "accuracy_5"
  type: "Accuracy"
  bottom: "fc5_classes"
  bottom: "label"
  top: "accuracy_5"
  accuracy_param {
    top_k: 5
  }
}
layer {
  name: "silence"
  type: "Silence"
  bottom: "accuracy_1"
  bottom: "accuracy_5"
}
I0414 12:29:35.934883 27694 layer_factory.hpp:77] Creating layer data
I0414 12:29:35.936542 27694 net.cpp:100] Creating Layer data
I0414 12:29:35.936565 27694 net.cpp:408] data -> data
I0414 12:29:35.936599 27694 net.cpp:408] data -> label
I0414 12:29:35.941162 27796 db_lmdb.cpp:35] Opened lmdb ../local_data/lmdb/rtsd-r3/AHE/train/lmdb
I0414 12:29:35.964824 27694 data_layer.cpp:41] output data size: 1024,3,48,48
I0414 12:29:36.011857 27694 net.cpp:150] Setting up data
I0414 12:29:36.011898 27694 net.cpp:157] Top shape: 1024 3 48 48 (7077888)
I0414 12:29:36.011905 27694 net.cpp:157] Top shape: 1024 (1024)
I0414 12:29:36.011909 27694 net.cpp:165] Memory required for data: 28315648
I0414 12:29:36.011920 27694 layer_factory.hpp:77] Creating layer label_data_1_split
I0414 12:29:36.011935 27694 net.cpp:100] Creating Layer label_data_1_split
I0414 12:29:36.011941 27694 net.cpp:434] label_data_1_split <- label
I0414 12:29:36.011972 27694 net.cpp:408] label_data_1_split -> label_data_1_split_0
I0414 12:29:36.011988 27694 net.cpp:408] label_data_1_split -> label_data_1_split_1
I0414 12:29:36.011998 27694 net.cpp:408] label_data_1_split -> label_data_1_split_2
I0414 12:29:36.012096 27694 net.cpp:150] Setting up label_data_1_split
I0414 12:29:36.012106 27694 net.cpp:157] Top shape: 1024 (1024)
I0414 12:29:36.012110 27694 net.cpp:157] Top shape: 1024 (1024)
I0414 12:29:36.012115 27694 net.cpp:157] Top shape: 1024 (1024)
I0414 12:29:36.012117 27694 net.cpp:165] Memory required for data: 28327936
I0414 12:29:36.012121 27694 layer_factory.hpp:77] Creating layer conv1
I0414 12:29:36.012140 27694 net.cpp:100] Creating Layer conv1
I0414 12:29:36.012145 27694 net.cpp:434] conv1 <- data
I0414 12:29:36.012152 27694 net.cpp:408] conv1 -> conv1
I0414 12:29:36.389645 27694 net.cpp:150] Setting up conv1
I0414 12:29:36.389675 27694 net.cpp:157] Top shape: 1024 100 42 42 (180633600)
I0414 12:29:36.389679 27694 net.cpp:165] Memory required for data: 750862336
I0414 12:29:36.389700 27694 layer_factory.hpp:77] Creating layer conv1_prescale
I0414 12:29:36.389714 27694 net.cpp:100] Creating Layer conv1_prescale
I0414 12:29:36.389717 27694 net.cpp:434] conv1_prescale <- conv1
I0414 12:29:36.389724 27694 net.cpp:395] conv1_prescale -> conv1 (in-place)
I0414 12:29:36.389832 27694 net.cpp:150] Setting up conv1_prescale
I0414 12:29:36.389842 27694 net.cpp:157] Top shape: 1024 100 42 42 (180633600)
I0414 12:29:36.389847 27694 net.cpp:165] Memory required for data: 1473396736
I0414 12:29:36.389853 27694 layer_factory.hpp:77] Creating layer conv1_sTanH
I0414 12:29:36.389861 27694 net.cpp:100] Creating Layer conv1_sTanH
I0414 12:29:36.389866 27694 net.cpp:434] conv1_sTanH <- conv1
I0414 12:29:36.389871 27694 net.cpp:395] conv1_sTanH -> conv1 (in-place)
I0414 12:29:36.390065 27694 net.cpp:150] Setting up conv1_sTanH
I0414 12:29:36.390077 27694 net.cpp:157] Top shape: 1024 100 42 42 (180633600)
I0414 12:29:36.390102 27694 net.cpp:165] Memory required for data: 2195931136
I0414 12:29:36.390107 27694 layer_factory.hpp:77] Creating layer conv1_postscale
I0414 12:29:36.390115 27694 net.cpp:100] Creating Layer conv1_postscale
I0414 12:29:36.390120 27694 net.cpp:434] conv1_postscale <- conv1
I0414 12:29:36.390125 27694 net.cpp:395] conv1_postscale -> conv1 (in-place)
I0414 12:29:36.390220 27694 net.cpp:150] Setting up conv1_postscale
I0414 12:29:36.390228 27694 net.cpp:157] Top shape: 1024 100 42 42 (180633600)
I0414 12:29:36.390231 27694 net.cpp:165] Memory required for data: 2918465536
I0414 12:29:36.390238 27694 layer_factory.hpp:77] Creating layer pool1
I0414 12:29:36.390244 27694 net.cpp:100] Creating Layer pool1
I0414 12:29:36.390249 27694 net.cpp:434] pool1 <- conv1
I0414 12:29:36.390254 27694 net.cpp:408] pool1 -> pool1
I0414 12:29:36.390300 27694 net.cpp:150] Setting up pool1
I0414 12:29:36.390307 27694 net.cpp:157] Top shape: 1024 100 21 21 (45158400)
I0414 12:29:36.390311 27694 net.cpp:165] Memory required for data: 3099099136
I0414 12:29:36.390313 27694 layer_factory.hpp:77] Creating layer conv2
I0414 12:29:36.390323 27694 net.cpp:100] Creating Layer conv2
I0414 12:29:36.390327 27694 net.cpp:434] conv2 <- pool1
I0414 12:29:36.390333 27694 net.cpp:408] conv2 -> conv2
I0414 12:29:36.403057 27694 net.cpp:150] Setting up conv2
I0414 12:29:36.403075 27694 net.cpp:157] Top shape: 1024 150 18 18 (49766400)
I0414 12:29:36.403079 27694 net.cpp:165] Memory required for data: 3298164736
I0414 12:29:36.403090 27694 layer_factory.hpp:77] Creating layer conv2_prescale
I0414 12:29:36.403100 27694 net.cpp:100] Creating Layer conv2_prescale
I0414 12:29:36.403106 27694 net.cpp:434] conv2_prescale <- conv2
I0414 12:29:36.403112 27694 net.cpp:395] conv2_prescale -> conv2 (in-place)
I0414 12:29:36.403220 27694 net.cpp:150] Setting up conv2_prescale
I0414 12:29:36.403229 27694 net.cpp:157] Top shape: 1024 150 18 18 (49766400)
I0414 12:29:36.403233 27694 net.cpp:165] Memory required for data: 3497230336
I0414 12:29:36.403237 27694 layer_factory.hpp:77] Creating layer conv2_sTanH
I0414 12:29:36.403242 27694 net.cpp:100] Creating Layer conv2_sTanH
I0414 12:29:36.403245 27694 net.cpp:434] conv2_sTanH <- conv2
I0414 12:29:36.403250 27694 net.cpp:395] conv2_sTanH -> conv2 (in-place)
I0414 12:29:36.405262 27694 net.cpp:150] Setting up conv2_sTanH
I0414 12:29:36.405282 27694 net.cpp:157] Top shape: 1024 150 18 18 (49766400)
I0414 12:29:36.405287 27694 net.cpp:165] Memory required for data: 3696295936
I0414 12:29:36.405289 27694 layer_factory.hpp:77] Creating layer conv2_postscale
I0414 12:29:36.405297 27694 net.cpp:100] Creating Layer conv2_postscale
I0414 12:29:36.405302 27694 net.cpp:434] conv2_postscale <- conv2
I0414 12:29:36.405308 27694 net.cpp:395] conv2_postscale -> conv2 (in-place)
I0414 12:29:36.405410 27694 net.cpp:150] Setting up conv2_postscale
I0414 12:29:36.405418 27694 net.cpp:157] Top shape: 1024 150 18 18 (49766400)
I0414 12:29:36.405421 27694 net.cpp:165] Memory required for data: 3895361536
I0414 12:29:36.405426 27694 layer_factory.hpp:77] Creating layer pool2
I0414 12:29:36.405433 27694 net.cpp:100] Creating Layer pool2
I0414 12:29:36.405438 27694 net.cpp:434] pool2 <- conv2
I0414 12:29:36.405443 27694 net.cpp:408] pool2 -> pool2
I0414 12:29:36.405488 27694 net.cpp:150] Setting up pool2
I0414 12:29:36.405495 27694 net.cpp:157] Top shape: 1024 150 9 9 (12441600)
I0414 12:29:36.405499 27694 net.cpp:165] Memory required for data: 3945127936
I0414 12:29:36.405503 27694 layer_factory.hpp:77] Creating layer conv3
I0414 12:29:36.405510 27694 net.cpp:100] Creating Layer conv3
I0414 12:29:36.405515 27694 net.cpp:434] conv3 <- pool2
I0414 12:29:36.405522 27694 net.cpp:408] conv3 -> conv3
I0414 12:29:36.412253 27694 net.cpp:150] Setting up conv3
I0414 12:29:36.412272 27694 net.cpp:157] Top shape: 1024 250 6 6 (9216000)
I0414 12:29:36.412276 27694 net.cpp:165] Memory required for data: 3981991936
I0414 12:29:36.412288 27694 layer_factory.hpp:77] Creating layer conv3_prescale
I0414 12:29:36.412308 27694 net.cpp:100] Creating Layer conv3_prescale
I0414 12:29:36.412313 27694 net.cpp:434] conv3_prescale <- conv3
I0414 12:29:36.412320 27694 net.cpp:395] conv3_prescale -> conv3 (in-place)
I0414 12:29:36.412417 27694 net.cpp:150] Setting up conv3_prescale
I0414 12:29:36.412427 27694 net.cpp:157] Top shape: 1024 250 6 6 (9216000)
I0414 12:29:36.412431 27694 net.cpp:165] Memory required for data: 4018855936
I0414 12:29:36.412434 27694 layer_factory.hpp:77] Creating layer conv3_sTanH
I0414 12:29:36.412444 27694 net.cpp:100] Creating Layer conv3_sTanH
I0414 12:29:36.412449 27694 net.cpp:434] conv3_sTanH <- conv3
I0414 12:29:36.412456 27694 net.cpp:395] conv3_sTanH -> conv3 (in-place)
I0414 12:29:36.416239 27694 net.cpp:150] Setting up conv3_sTanH
I0414 12:29:36.416255 27694 net.cpp:157] Top shape: 1024 250 6 6 (9216000)
I0414 12:29:36.416260 27694 net.cpp:165] Memory required for data: 4055719936
I0414 12:29:36.416263 27694 layer_factory.hpp:77] Creating layer conv3_postscale
I0414 12:29:36.416271 27694 net.cpp:100] Creating Layer conv3_postscale
I0414 12:29:36.416275 27694 net.cpp:434] conv3_postscale <- conv3
I0414 12:29:36.416283 27694 net.cpp:395] conv3_postscale -> conv3 (in-place)
I0414 12:29:36.416386 27694 net.cpp:150] Setting up conv3_postscale
I0414 12:29:36.416395 27694 net.cpp:157] Top shape: 1024 250 6 6 (9216000)
I0414 12:29:36.416399 27694 net.cpp:165] Memory required for data: 4092583936
I0414 12:29:36.416404 27694 layer_factory.hpp:77] Creating layer pool3
I0414 12:29:36.416414 27694 net.cpp:100] Creating Layer pool3
I0414 12:29:36.416417 27694 net.cpp:434] pool3 <- conv3
I0414 12:29:36.416424 27694 net.cpp:408] pool3 -> pool3
I0414 12:29:36.416463 27694 net.cpp:150] Setting up pool3
I0414 12:29:36.416471 27694 net.cpp:157] Top shape: 1024 250 3 3 (2304000)
I0414 12:29:36.416474 27694 net.cpp:165] Memory required for data: 4101799936
I0414 12:29:36.416477 27694 layer_factory.hpp:77] Creating layer fc4_300
I0414 12:29:36.416484 27694 net.cpp:100] Creating Layer fc4_300
I0414 12:29:36.416487 27694 net.cpp:434] fc4_300 <- pool3
I0414 12:29:36.416494 27694 net.cpp:408] fc4_300 -> fc4_300
I0414 12:29:36.422853 27694 net.cpp:150] Setting up fc4_300
I0414 12:29:36.422870 27694 net.cpp:157] Top shape: 1024 300 (307200)
I0414 12:29:36.422874 27694 net.cpp:165] Memory required for data: 4103028736
I0414 12:29:36.422881 27694 layer_factory.hpp:77] Creating layer fc4_prescale
I0414 12:29:36.422891 27694 net.cpp:100] Creating Layer fc4_prescale
I0414 12:29:36.422895 27694 net.cpp:434] fc4_prescale <- fc4_300
I0414 12:29:36.422902 27694 net.cpp:395] fc4_prescale -> fc4_300 (in-place)
I0414 12:29:36.422993 27694 net.cpp:150] Setting up fc4_prescale
I0414 12:29:36.423002 27694 net.cpp:157] Top shape: 1024 300 (307200)
I0414 12:29:36.423005 27694 net.cpp:165] Memory required for data: 4104257536
I0414 12:29:36.423010 27694 layer_factory.hpp:77] Creating layer fc4_sTanH
I0414 12:29:36.423017 27694 net.cpp:100] Creating Layer fc4_sTanH
I0414 12:29:36.423022 27694 net.cpp:434] fc4_sTanH <- fc4_300
I0414 12:29:36.423027 27694 net.cpp:395] fc4_sTanH -> fc4_300 (in-place)
I0414 12:29:36.423218 27694 net.cpp:150] Setting up fc4_sTanH
I0414 12:29:36.423228 27694 net.cpp:157] Top shape: 1024 300 (307200)
I0414 12:29:36.423233 27694 net.cpp:165] Memory required for data: 4105486336
I0414 12:29:36.423236 27694 layer_factory.hpp:77] Creating layer fc4_postscale
I0414 12:29:36.423245 27694 net.cpp:100] Creating Layer fc4_postscale
I0414 12:29:36.423250 27694 net.cpp:434] fc4_postscale <- fc4_300
I0414 12:29:36.423256 27694 net.cpp:395] fc4_postscale -> fc4_300 (in-place)
I0414 12:29:36.423353 27694 net.cpp:150] Setting up fc4_postscale
I0414 12:29:36.423362 27694 net.cpp:157] Top shape: 1024 300 (307200)
I0414 12:29:36.423364 27694 net.cpp:165] Memory required for data: 4106715136
I0414 12:29:36.423368 27694 layer_factory.hpp:77] Creating layer fc5_106
I0414 12:29:36.423382 27694 net.cpp:100] Creating Layer fc5_106
I0414 12:29:36.423387 27694 net.cpp:434] fc5_106 <- fc4_300
I0414 12:29:36.423391 27694 net.cpp:408] fc5_106 -> fc5_classes
I0414 12:29:36.425887 27694 net.cpp:150] Setting up fc5_106
I0414 12:29:36.425905 27694 net.cpp:157] Top shape: 1024 106 (108544)
I0414 12:29:36.425909 27694 net.cpp:165] Memory required for data: 4107149312
I0414 12:29:36.425921 27694 layer_factory.hpp:77] Creating layer fc5_classes_fc5_106_0_split
I0414 12:29:36.425930 27694 net.cpp:100] Creating Layer fc5_classes_fc5_106_0_split
I0414 12:29:36.425933 27694 net.cpp:434] fc5_classes_fc5_106_0_split <- fc5_classes
I0414 12:29:36.425938 27694 net.cpp:408] fc5_classes_fc5_106_0_split -> fc5_classes_fc5_106_0_split_0
I0414 12:29:36.425946 27694 net.cpp:408] fc5_classes_fc5_106_0_split -> fc5_classes_fc5_106_0_split_1
I0414 12:29:36.425956 27694 net.cpp:408] fc5_classes_fc5_106_0_split -> fc5_classes_fc5_106_0_split_2
I0414 12:29:36.426012 27694 net.cpp:150] Setting up fc5_classes_fc5_106_0_split
I0414 12:29:36.426020 27694 net.cpp:157] Top shape: 1024 106 (108544)
I0414 12:29:36.426024 27694 net.cpp:157] Top shape: 1024 106 (108544)
I0414 12:29:36.426028 27694 net.cpp:157] Top shape: 1024 106 (108544)
I0414 12:29:36.426030 27694 net.cpp:165] Memory required for data: 4108451840
I0414 12:29:36.426034 27694 layer_factory.hpp:77] Creating layer softmax
I0414 12:29:36.426040 27694 net.cpp:100] Creating Layer softmax
I0414 12:29:36.426044 27694 net.cpp:434] softmax <- fc5_classes_fc5_106_0_split_0
I0414 12:29:36.426049 27694 net.cpp:408] softmax -> softmax
I0414 12:29:36.426307 27694 net.cpp:150] Setting up softmax
I0414 12:29:36.426321 27694 net.cpp:157] Top shape: 1024 106 (108544)
I0414 12:29:36.426323 27694 net.cpp:165] Memory required for data: 4108886016
I0414 12:29:36.426326 27694 layer_factory.hpp:77] Creating layer loss
I0414 12:29:36.426334 27694 net.cpp:100] Creating Layer loss
I0414 12:29:36.426337 27694 net.cpp:434] loss <- softmax
I0414 12:29:36.426342 27694 net.cpp:434] loss <- label_data_1_split_0
I0414 12:29:36.426347 27694 net.cpp:408] loss -> loss
…
