…
I0528 01:10:06.920974 15959 solver.cpp:81] Creating training net from train_net file: ./Prototxt/experiment_20/RTSD/histeq/trial_1/train.prototxt
I0528 01:10:06.921398 15959 net.cpp:58] Initializing net from parameters: 
state {
  phase: TRAIN
  level: 0
  stage: ""
}
layer {
  name: "data"
  type: "Data"
  top: "data"
  top: "label"
  include {
    phase: TRAIN
  }
  transform_param {
    scale: 0.0039215689
    mirror: false
    crop_size: 48
    mean_value: 134
    mean_value: 128
    mean_value: 128
  }
  data_param {
    source: "../local_data/lmdb/RTSD/histeq/train/lmdb"
    batch_size: 1024
    backend: LMDB
  }
}
layer {
  name: "conv1"
  type: "Convolution"
  bottom: "data"
  top: "conv1"
  convolution_param {
    num_output: 100
    pad: 0
    kernel_size: 7
    group: 1
    stride: 1
    weight_filler {
      type: "xavier"
    }
  }
}
layer {
  name: "conv1_relu"
  type: "ReLU"
  bottom: "conv1"
  top: "conv1"
}
layer {
  name: "pool1"
  type: "Pooling"
  bottom: "conv1"
  top: "pool1"
  pooling_param {
    pool: MAX
    kernel_size: 2
    stride: 2
  }
}
layer {
  name: "conv2"
  type: "Convolution"
  bottom: "pool1"
  top: "conv2"
  convolution_param {
    num_output: 150
    pad: 0
    kernel_size: 4
    group: 1
    stride: 1
    weight_filler {
      type: "xavier"
    }
  }
}
layer {
  name: "conv2_relu"
  type: "ReLU"
  bottom: "conv2"
  top: "conv2"
}
layer {
  name: "pool2"
  type: "Pooling"
  bottom: "conv2"
  top: "pool2"
  pooling_param {
    pool: MAX
    kernel_size: 2
    stride: 2
  }
}
layer {
  name: "conv3"
  type: "Convolution"
  bottom: "pool2"
  top: "conv3"
  convolution_param {
    num_output: 250
    pad: 0
    kernel_size: 4
    group: 1
    stride: 1
    weight_filler {
      type: "xavier"
    }
  }
}
layer {
  name: "conv3_relu"
  type: "ReLU"
  bottom: "conv3"
  top: "conv3"
}
layer {
  name: "pool3"
  type: "Pooling"
  bottom: "conv3"
  top: "pool3"
  pooling_param {
    pool: MAX
    kernel_size: 2
    stride: 2
  }
}
layer {
  name: "fc4_300"
  type: "InnerProduct"
  bottom: "pool3"
  top: "fc4_300"
  inner_product_param {
    num_output: 300
    weight_filler {
      type: "xavier"
    }
  }
}
layer {
  name: "fc4_relu"
  type: "ReLU"
  bottom: "fc4_300"
  top: "fc4_300"
}
layer {
  name: "fc5_116"
  type: "InnerProduct"
  bottom: "fc4_300"
  top: "fc5_classes"
  inner_product_param {
    num_output: 116
    weight_filler {
      type: "xavier"
    }
  }
}
layer {
  name: "softmax"
  type: "Softmax"
  bottom: "fc5_classes"
  top: "softmax"
}
layer {
  name: "loss"
  type: "MultinomialLogisticLoss"
  bottom: "softmax"
  bottom: "label"
  top: "loss"
}
layer {
  name: "accuracy_1"
  type: "Accuracy"
  bottom: "fc5_classes"
  bottom: "label"
  top: "accuracy_1"
  accuracy_param {
    top_k: 1
  }
}
layer {
  name: "accuracy_5"
  type: "Accuracy"
  bottom: "fc5_classes"
  bottom: "label"
  top: "accuracy_5"
  accuracy_param {
    top_k: 5
  }
}
layer {
  name: "silence"
  type: "Silence"
  bottom: "accuracy_1"
  bottom: "accuracy_5"
}
I0528 01:10:06.921555 15959 layer_factory.hpp:77] Creating layer data
I0528 01:10:06.922564 15959 net.cpp:100] Creating Layer data
I0528 01:10:06.922579 15959 net.cpp:408] data -> data
I0528 01:10:06.922607 15959 net.cpp:408] data -> label
I0528 01:10:06.923872 15994 db_lmdb.cpp:35] Opened lmdb ../local_data/lmdb/RTSD/histeq/train/lmdb
I0528 01:10:06.939836 15959 data_layer.cpp:41] output data size: 1024,3,48,48
I0528 01:10:06.985157 15959 net.cpp:150] Setting up data
I0528 01:10:06.985213 15959 net.cpp:157] Top shape: 1024 3 48 48 (7077888)
I0528 01:10:06.985224 15959 net.cpp:157] Top shape: 1024 (1024)
I0528 01:10:06.985229 15959 net.cpp:165] Memory required for data: 28315648
I0528 01:10:06.985244 15959 layer_factory.hpp:77] Creating layer label_data_1_split
I0528 01:10:06.985260 15959 net.cpp:100] Creating Layer label_data_1_split
I0528 01:10:06.985271 15959 net.cpp:434] label_data_1_split <- label
I0528 01:10:06.985291 15959 net.cpp:408] label_data_1_split -> label_data_1_split_0
I0528 01:10:06.985308 15959 net.cpp:408] label_data_1_split -> label_data_1_split_1
I0528 01:10:06.985324 15959 net.cpp:408] label_data_1_split -> label_data_1_split_2
I0528 01:10:06.985384 15959 net.cpp:150] Setting up label_data_1_split
I0528 01:10:06.985396 15959 net.cpp:157] Top shape: 1024 (1024)
I0528 01:10:06.985404 15959 net.cpp:157] Top shape: 1024 (1024)
I0528 01:10:06.985410 15959 net.cpp:157] Top shape: 1024 (1024)
I0528 01:10:06.985416 15959 net.cpp:165] Memory required for data: 28327936
I0528 01:10:06.985422 15959 layer_factory.hpp:77] Creating layer conv1
I0528 01:10:06.985445 15959 net.cpp:100] Creating Layer conv1
I0528 01:10:06.985455 15959 net.cpp:434] conv1 <- data
I0528 01:10:06.985466 15959 net.cpp:408] conv1 -> conv1
I0528 01:10:07.315012 15959 net.cpp:150] Setting up conv1
I0528 01:10:07.315044 15959 net.cpp:157] Top shape: 1024 100 42 42 (180633600)
I0528 01:10:07.315052 15959 net.cpp:165] Memory required for data: 750862336
I0528 01:10:07.315071 15959 layer_factory.hpp:77] Creating layer conv1_relu
I0528 01:10:07.315086 15959 net.cpp:100] Creating Layer conv1_relu
I0528 01:10:07.315094 15959 net.cpp:434] conv1_relu <- conv1
I0528 01:10:07.315104 15959 net.cpp:395] conv1_relu -> conv1 (in-place)
I0528 01:10:07.315274 15959 net.cpp:150] Setting up conv1_relu
I0528 01:10:07.315287 15959 net.cpp:157] Top shape: 1024 100 42 42 (180633600)
I0528 01:10:07.315294 15959 net.cpp:165] Memory required for data: 1473396736
I0528 01:10:07.315301 15959 layer_factory.hpp:77] Creating layer pool1
I0528 01:10:07.315315 15959 net.cpp:100] Creating Layer pool1
I0528 01:10:07.315325 15959 net.cpp:434] pool1 <- conv1
I0528 01:10:07.315335 15959 net.cpp:408] pool1 -> pool1
I0528 01:10:07.315384 15959 net.cpp:150] Setting up pool1
I0528 01:10:07.315395 15959 net.cpp:157] Top shape: 1024 100 21 21 (45158400)
I0528 01:10:07.315402 15959 net.cpp:165] Memory required for data: 1654030336
I0528 01:10:07.315408 15959 layer_factory.hpp:77] Creating layer conv2
I0528 01:10:07.315423 15959 net.cpp:100] Creating Layer conv2
I0528 01:10:07.315433 15959 net.cpp:434] conv2 <- pool1
I0528 01:10:07.315443 15959 net.cpp:408] conv2 -> conv2
I0528 01:10:07.318491 15959 net.cpp:150] Setting up conv2
I0528 01:10:07.318511 15959 net.cpp:157] Top shape: 1024 150 18 18 (49766400)
I0528 01:10:07.318517 15959 net.cpp:165] Memory required for data: 1853095936
I0528 01:10:07.318531 15959 layer_factory.hpp:77] Creating layer conv2_relu
I0528 01:10:07.318543 15959 net.cpp:100] Creating Layer conv2_relu
I0528 01:10:07.318550 15959 net.cpp:434] conv2_relu <- conv2
I0528 01:10:07.318560 15959 net.cpp:395] conv2_relu -> conv2 (in-place)
I0528 01:10:07.318704 15959 net.cpp:150] Setting up conv2_relu
I0528 01:10:07.318718 15959 net.cpp:157] Top shape: 1024 150 18 18 (49766400)
I0528 01:10:07.318725 15959 net.cpp:165] Memory required for data: 2052161536
I0528 01:10:07.318732 15959 layer_factory.hpp:77] Creating layer pool2
I0528 01:10:07.318742 15959 net.cpp:100] Creating Layer pool2
I0528 01:10:07.318749 15959 net.cpp:434] pool2 <- conv2
I0528 01:10:07.318758 15959 net.cpp:408] pool2 -> pool2
I0528 01:10:07.318804 15959 net.cpp:150] Setting up pool2
I0528 01:10:07.318816 15959 net.cpp:157] Top shape: 1024 150 9 9 (12441600)
I0528 01:10:07.318822 15959 net.cpp:165] Memory required for data: 2101927936
I0528 01:10:07.318830 15959 layer_factory.hpp:77] Creating layer conv3
I0528 01:10:07.318845 15959 net.cpp:100] Creating Layer conv3
I0528 01:10:07.318855 15959 net.cpp:434] conv3 <- pool2
I0528 01:10:07.318864 15959 net.cpp:408] conv3 -> conv3
I0528 01:10:07.323853 15959 net.cpp:150] Setting up conv3
I0528 01:10:07.323874 15959 net.cpp:157] Top shape: 1024 250 6 6 (9216000)
I0528 01:10:07.323881 15959 net.cpp:165] Memory required for data: 2138791936
I0528 01:10:07.323896 15959 layer_factory.hpp:77] Creating layer conv3_relu
I0528 01:10:07.323907 15959 net.cpp:100] Creating Layer conv3_relu
I0528 01:10:07.323915 15959 net.cpp:434] conv3_relu <- conv3
I0528 01:10:07.323923 15959 net.cpp:395] conv3_relu -> conv3 (in-place)
I0528 01:10:07.324285 15959 net.cpp:150] Setting up conv3_relu
I0528 01:10:07.324301 15959 net.cpp:157] Top shape: 1024 250 6 6 (9216000)
I0528 01:10:07.324307 15959 net.cpp:165] Memory required for data: 2175655936
I0528 01:10:07.324314 15959 layer_factory.hpp:77] Creating layer pool3
I0528 01:10:07.324324 15959 net.cpp:100] Creating Layer pool3
I0528 01:10:07.324331 15959 net.cpp:434] pool3 <- conv3
I0528 01:10:07.324340 15959 net.cpp:408] pool3 -> pool3
I0528 01:10:07.324390 15959 net.cpp:150] Setting up pool3
I0528 01:10:07.324401 15959 net.cpp:157] Top shape: 1024 250 3 3 (2304000)
I0528 01:10:07.324409 15959 net.cpp:165] Memory required for data: 2184871936
I0528 01:10:07.324414 15959 layer_factory.hpp:77] Creating layer fc4_300
I0528 01:10:07.324425 15959 net.cpp:100] Creating Layer fc4_300
I0528 01:10:07.324432 15959 net.cpp:434] fc4_300 <- pool3
I0528 01:10:07.324442 15959 net.cpp:408] fc4_300 -> fc4_300
I0528 01:10:07.329026 15959 net.cpp:150] Setting up fc4_300
I0528 01:10:07.329042 15959 net.cpp:157] Top shape: 1024 300 (307200)
I0528 01:10:07.329048 15959 net.cpp:165] Memory required for data: 2186100736
I0528 01:10:07.329059 15959 layer_factory.hpp:77] Creating layer fc4_relu
I0528 01:10:07.329071 15959 net.cpp:100] Creating Layer fc4_relu
I0528 01:10:07.329077 15959 net.cpp:434] fc4_relu <- fc4_300
I0528 01:10:07.329085 15959 net.cpp:395] fc4_relu -> fc4_300 (in-place)
I0528 01:10:07.329229 15959 net.cpp:150] Setting up fc4_relu
I0528 01:10:07.329242 15959 net.cpp:157] Top shape: 1024 300 (307200)
I0528 01:10:07.329248 15959 net.cpp:165] Memory required for data: 2187329536
I0528 01:10:07.329255 15959 layer_factory.hpp:77] Creating layer fc5_116
I0528 01:10:07.329267 15959 net.cpp:100] Creating Layer fc5_116
I0528 01:10:07.329272 15959 net.cpp:434] fc5_116 <- fc4_300
I0528 01:10:07.329282 15959 net.cpp:408] fc5_116 -> fc5_classes
I0528 01:10:07.331151 15959 net.cpp:150] Setting up fc5_116
I0528 01:10:07.331169 15959 net.cpp:157] Top shape: 1024 116 (118784)
I0528 01:10:07.331176 15959 net.cpp:165] Memory required for data: 2187804672
I0528 01:10:07.331192 15959 layer_factory.hpp:77] Creating layer fc5_classes_fc5_116_0_split
I0528 01:10:07.331203 15959 net.cpp:100] Creating Layer fc5_classes_fc5_116_0_split
I0528 01:10:07.331218 15959 net.cpp:434] fc5_classes_fc5_116_0_split <- fc5_classes
I0528 01:10:07.331228 15959 net.cpp:408] fc5_classes_fc5_116_0_split -> fc5_classes_fc5_116_0_split_0
I0528 01:10:07.331239 15959 net.cpp:408] fc5_classes_fc5_116_0_split -> fc5_classes_fc5_116_0_split_1
I0528 01:10:07.331251 15959 net.cpp:408] fc5_classes_fc5_116_0_split -> fc5_classes_fc5_116_0_split_2
I0528 01:10:07.331300 15959 net.cpp:150] Setting up fc5_classes_fc5_116_0_split
I0528 01:10:07.331310 15959 net.cpp:157] Top shape: 1024 116 (118784)
I0528 01:10:07.331318 15959 net.cpp:157] Top shape: 1024 116 (118784)
I0528 01:10:07.331326 15959 net.cpp:157] Top shape: 1024 116 (118784)
I0528 01:10:07.331332 15959 net.cpp:165] Memory required for data: 2189230080
I0528 01:10:07.331339 15959 layer_factory.hpp:77] Creating layer softmax
I0528 01:10:07.331348 15959 net.cpp:100] Creating Layer softmax
I0528 01:10:07.331356 15959 net.cpp:434] softmax <- fc5_classes_fc5_116_0_split_0
I0528 01:10:07.331369 15959 net.cpp:408] softmax -> softmax
I0528 01:10:07.331567 15959 net.cpp:150] Setting up softmax
I0528 01:10:07.331581 15959 net.cpp:157] Top shape: 1024 116 (118784)
I0528 01:10:07.331588 15959 net.cpp:165] Memory required for data: 2189705216
I0528 01:10:07.331595 15959 layer_factory.hpp:77] Creating layer loss
I0528 01:10:07.331624 15959 net.cpp:100] Creating Layer loss
I0528 01:10:07.331632 15959 net.cpp:434] loss <- softmax
I0528 01:10:07.331641 15959 net.cpp:434] loss <- label_data_1_split_0
I0528 01:10:07.331650 15959 net.cpp:408] loss -> loss
…
