…
I0528 05:03:05.078068 30245 solver.cpp:81] Creating training net from train_net file: ./Prototxt/experiment_21/RTSD/histeq/trial_2/train.prototxt
I0528 05:03:05.078452 30245 net.cpp:58] Initializing net from parameters: 
state {
  phase: TRAIN
  level: 0
  stage: ""
}
layer {
  name: "data"
  type: "Data"
  top: "data"
  top: "label"
  include {
    phase: TRAIN
  }
  transform_param {
    scale: 0.0039215689
    mirror: false
    crop_size: 48
    mean_value: 135
    mean_value: 128
    mean_value: 128
  }
  data_param {
    source: "../local_data/lmdb/RTSD/histeq/train/lmdb"
    batch_size: 1024
    backend: LMDB
  }
}
layer {
  name: "conv1"
  type: "Convolution"
  bottom: "data"
  top: "conv1"
  convolution_param {
    num_output: 100
    pad: 0
    kernel_size: 7
    group: 1
    stride: 1
    weight_filler {
      type: "xavier"
    }
  }
}
layer {
  name: "conv1_relu"
  type: "ReLU"
  bottom: "conv1"
  top: "conv1"
}
layer {
  name: "pool1"
  type: "Pooling"
  bottom: "conv1"
  top: "pool1"
  pooling_param {
    pool: MAX
    kernel_size: 2
    stride: 2
  }
}
layer {
  name: "conv2"
  type: "Convolution"
  bottom: "pool1"
  top: "conv2"
  convolution_param {
    num_output: 150
    pad: 0
    kernel_size: 4
    group: 1
    stride: 1
    weight_filler {
      type: "xavier"
    }
  }
}
layer {
  name: "conv2_relu"
  type: "ReLU"
  bottom: "conv2"
  top: "conv2"
}
layer {
  name: "pool2"
  type: "Pooling"
  bottom: "conv2"
  top: "pool2"
  pooling_param {
    pool: MAX
    kernel_size: 2
    stride: 2
  }
}
layer {
  name: "conv3"
  type: "Convolution"
  bottom: "pool2"
  top: "conv3"
  convolution_param {
    num_output: 250
    pad: 0
    kernel_size: 4
    group: 1
    stride: 1
    weight_filler {
      type: "xavier"
    }
  }
}
layer {
  name: "conv3_relu"
  type: "ReLU"
  bottom: "conv3"
  top: "conv3"
}
layer {
  name: "pool3"
  type: "Pooling"
  bottom: "conv3"
  top: "pool3"
  pooling_param {
    pool: MAX
    kernel_size: 2
    stride: 2
  }
}
layer {
  name: "fc4_300"
  type: "InnerProduct"
  bottom: "pool3"
  top: "fc4_300"
  inner_product_param {
    num_output: 300
    weight_filler {
      type: "xavier"
    }
  }
}
layer {
  name: "fc4_relu"
  type: "ReLU"
  bottom: "fc4_300"
  top: "fc4_300"
}
layer {
  name: "fc5_116"
  type: "InnerProduct"
  bottom: "fc4_300"
  top: "fc5_classes"
  inner_product_param {
    num_output: 116
    weight_filler {
      type: "xavier"
    }
  }
}
layer {
  name: "softmax"
  type: "Softmax"
  bottom: "fc5_classes"
  top: "softmax"
}
layer {
  name: "loss"
  type: "MultinomialLogisticLoss"
  bottom: "softmax"
  bottom: "label"
  top: "loss"
}
layer {
  name: "accuracy_1"
  type: "Accuracy"
  bottom: "fc5_classes"
  bottom: "label"
  top: "accuracy_1"
  accuracy_param {
    top_k: 1
  }
}
layer {
  name: "accuracy_5"
  type: "Accuracy"
  bottom: "fc5_classes"
  bottom: "label"
  top: "accuracy_5"
  accuracy_param {
    top_k: 5
  }
}
layer {
  name: "silence"
  type: "Silence"
  bottom: "accuracy_1"
  bottom: "accuracy_5"
}
I0528 05:03:05.078560 30245 layer_factory.hpp:77] Creating layer data
I0528 05:03:05.079514 30245 net.cpp:100] Creating Layer data
I0528 05:03:05.079527 30245 net.cpp:408] data -> data
I0528 05:03:05.079553 30245 net.cpp:408] data -> label
I0528 05:03:05.082895 30282 db_lmdb.cpp:35] Opened lmdb ../local_data/lmdb/RTSD/histeq/train/lmdb
I0528 05:03:05.114423 30245 data_layer.cpp:41] output data size: 1024,3,48,48
I0528 05:03:05.191784 30245 net.cpp:150] Setting up data
I0528 05:03:05.191856 30245 net.cpp:157] Top shape: 1024 3 48 48 (7077888)
I0528 05:03:05.191867 30245 net.cpp:157] Top shape: 1024 (1024)
I0528 05:03:05.191874 30245 net.cpp:165] Memory required for data: 28315648
I0528 05:03:05.191887 30245 layer_factory.hpp:77] Creating layer label_data_1_split
I0528 05:03:05.191907 30245 net.cpp:100] Creating Layer label_data_1_split
I0528 05:03:05.191918 30245 net.cpp:434] label_data_1_split <- label
I0528 05:03:05.191936 30245 net.cpp:408] label_data_1_split -> label_data_1_split_0
I0528 05:03:05.191957 30245 net.cpp:408] label_data_1_split -> label_data_1_split_1
I0528 05:03:05.191975 30245 net.cpp:408] label_data_1_split -> label_data_1_split_2
I0528 05:03:05.192044 30245 net.cpp:150] Setting up label_data_1_split
I0528 05:03:05.192059 30245 net.cpp:157] Top shape: 1024 (1024)
I0528 05:03:05.192070 30245 net.cpp:157] Top shape: 1024 (1024)
I0528 05:03:05.192080 30245 net.cpp:157] Top shape: 1024 (1024)
I0528 05:03:05.192087 30245 net.cpp:165] Memory required for data: 28327936
I0528 05:03:05.192095 30245 layer_factory.hpp:77] Creating layer conv1
I0528 05:03:05.192119 30245 net.cpp:100] Creating Layer conv1
I0528 05:03:05.192131 30245 net.cpp:434] conv1 <- data
I0528 05:03:05.192144 30245 net.cpp:408] conv1 -> conv1
I0528 05:03:05.791856 30245 net.cpp:150] Setting up conv1
I0528 05:03:05.791903 30245 net.cpp:157] Top shape: 1024 100 42 42 (180633600)
I0528 05:03:05.791908 30245 net.cpp:165] Memory required for data: 750862336
I0528 05:03:05.791939 30245 layer_factory.hpp:77] Creating layer conv1_relu
I0528 05:03:05.791961 30245 net.cpp:100] Creating Layer conv1_relu
I0528 05:03:05.791970 30245 net.cpp:434] conv1_relu <- conv1
I0528 05:03:05.792001 30245 net.cpp:395] conv1_relu -> conv1 (in-place)
I0528 05:03:05.792196 30245 net.cpp:150] Setting up conv1_relu
I0528 05:03:05.792215 30245 net.cpp:157] Top shape: 1024 100 42 42 (180633600)
I0528 05:03:05.792220 30245 net.cpp:165] Memory required for data: 1473396736
I0528 05:03:05.792224 30245 layer_factory.hpp:77] Creating layer pool1
I0528 05:03:05.792243 30245 net.cpp:100] Creating Layer pool1
I0528 05:03:05.792250 30245 net.cpp:434] pool1 <- conv1
I0528 05:03:05.792256 30245 net.cpp:408] pool1 -> pool1
I0528 05:03:05.792312 30245 net.cpp:150] Setting up pool1
I0528 05:03:05.792320 30245 net.cpp:157] Top shape: 1024 100 21 21 (45158400)
I0528 05:03:05.792325 30245 net.cpp:165] Memory required for data: 1654030336
I0528 05:03:05.792330 30245 layer_factory.hpp:77] Creating layer conv2
I0528 05:03:05.792341 30245 net.cpp:100] Creating Layer conv2
I0528 05:03:05.792346 30245 net.cpp:434] conv2 <- pool1
I0528 05:03:05.792351 30245 net.cpp:408] conv2 -> conv2
I0528 05:03:05.795958 30245 net.cpp:150] Setting up conv2
I0528 05:03:05.795989 30245 net.cpp:157] Top shape: 1024 150 18 18 (49766400)
I0528 05:03:05.795994 30245 net.cpp:165] Memory required for data: 1853095936
I0528 05:03:05.796010 30245 layer_factory.hpp:77] Creating layer conv2_relu
I0528 05:03:05.796016 30245 net.cpp:100] Creating Layer conv2_relu
I0528 05:03:05.796020 30245 net.cpp:434] conv2_relu <- conv2
I0528 05:03:05.796025 30245 net.cpp:395] conv2_relu -> conv2 (in-place)
I0528 05:03:05.796157 30245 net.cpp:150] Setting up conv2_relu
I0528 05:03:05.796167 30245 net.cpp:157] Top shape: 1024 150 18 18 (49766400)
I0528 05:03:05.796171 30245 net.cpp:165] Memory required for data: 2052161536
I0528 05:03:05.796176 30245 layer_factory.hpp:77] Creating layer pool2
I0528 05:03:05.796183 30245 net.cpp:100] Creating Layer pool2
I0528 05:03:05.796187 30245 net.cpp:434] pool2 <- conv2
I0528 05:03:05.796192 30245 net.cpp:408] pool2 -> pool2
I0528 05:03:05.796224 30245 net.cpp:150] Setting up pool2
I0528 05:03:05.796231 30245 net.cpp:157] Top shape: 1024 150 9 9 (12441600)
I0528 05:03:05.796236 30245 net.cpp:165] Memory required for data: 2101927936
I0528 05:03:05.796239 30245 layer_factory.hpp:77] Creating layer conv3
I0528 05:03:05.796257 30245 net.cpp:100] Creating Layer conv3
I0528 05:03:05.796262 30245 net.cpp:434] conv3 <- pool2
I0528 05:03:05.796267 30245 net.cpp:408] conv3 -> conv3
I0528 05:03:05.804415 30245 net.cpp:150] Setting up conv3
I0528 05:03:05.804476 30245 net.cpp:157] Top shape: 1024 250 6 6 (9216000)
I0528 05:03:05.804497 30245 net.cpp:165] Memory required for data: 2138791936
I0528 05:03:05.804525 30245 layer_factory.hpp:77] Creating layer conv3_relu
I0528 05:03:05.804550 30245 net.cpp:100] Creating Layer conv3_relu
I0528 05:03:05.804558 30245 net.cpp:434] conv3_relu <- conv3
I0528 05:03:05.804584 30245 net.cpp:395] conv3_relu -> conv3 (in-place)
I0528 05:03:05.805097 30245 net.cpp:150] Setting up conv3_relu
I0528 05:03:05.805125 30245 net.cpp:157] Top shape: 1024 250 6 6 (9216000)
I0528 05:03:05.805131 30245 net.cpp:165] Memory required for data: 2175655936
I0528 05:03:05.805137 30245 layer_factory.hpp:77] Creating layer pool3
I0528 05:03:05.805156 30245 net.cpp:100] Creating Layer pool3
I0528 05:03:05.805162 30245 net.cpp:434] pool3 <- conv3
I0528 05:03:05.805181 30245 net.cpp:408] pool3 -> pool3
I0528 05:03:05.805236 30245 net.cpp:150] Setting up pool3
I0528 05:03:05.805246 30245 net.cpp:157] Top shape: 1024 250 3 3 (2304000)
I0528 05:03:05.805250 30245 net.cpp:165] Memory required for data: 2184871936
I0528 05:03:05.805256 30245 layer_factory.hpp:77] Creating layer fc4_300
I0528 05:03:05.805275 30245 net.cpp:100] Creating Layer fc4_300
I0528 05:03:05.805284 30245 net.cpp:434] fc4_300 <- pool3
I0528 05:03:05.805290 30245 net.cpp:408] fc4_300 -> fc4_300
I0528 05:03:05.811384 30245 net.cpp:150] Setting up fc4_300
I0528 05:03:05.811411 30245 net.cpp:157] Top shape: 1024 300 (307200)
I0528 05:03:05.811419 30245 net.cpp:165] Memory required for data: 2186100736
I0528 05:03:05.811429 30245 layer_factory.hpp:77] Creating layer fc4_relu
I0528 05:03:05.811440 30245 net.cpp:100] Creating Layer fc4_relu
I0528 05:03:05.811446 30245 net.cpp:434] fc4_relu <- fc4_300
I0528 05:03:05.811453 30245 net.cpp:395] fc4_relu -> fc4_300 (in-place)
I0528 05:03:05.811682 30245 net.cpp:150] Setting up fc4_relu
I0528 05:03:05.811709 30245 net.cpp:157] Top shape: 1024 300 (307200)
I0528 05:03:05.811717 30245 net.cpp:165] Memory required for data: 2187329536
I0528 05:03:05.811722 30245 layer_factory.hpp:77] Creating layer fc5_116
I0528 05:03:05.811733 30245 net.cpp:100] Creating Layer fc5_116
I0528 05:03:05.811738 30245 net.cpp:434] fc5_116 <- fc4_300
I0528 05:03:05.811748 30245 net.cpp:408] fc5_116 -> fc5_classes
I0528 05:03:05.813170 30245 net.cpp:150] Setting up fc5_116
I0528 05:03:05.813207 30245 net.cpp:157] Top shape: 1024 116 (118784)
I0528 05:03:05.813216 30245 net.cpp:165] Memory required for data: 2187804672
I0528 05:03:05.813238 30245 layer_factory.hpp:77] Creating layer fc5_classes_fc5_116_0_split
I0528 05:03:05.813258 30245 net.cpp:100] Creating Layer fc5_classes_fc5_116_0_split
I0528 05:03:05.813268 30245 net.cpp:434] fc5_classes_fc5_116_0_split <- fc5_classes
I0528 05:03:05.813283 30245 net.cpp:408] fc5_classes_fc5_116_0_split -> fc5_classes_fc5_116_0_split_0
I0528 05:03:05.813295 30245 net.cpp:408] fc5_classes_fc5_116_0_split -> fc5_classes_fc5_116_0_split_1
I0528 05:03:05.813316 30245 net.cpp:408] fc5_classes_fc5_116_0_split -> fc5_classes_fc5_116_0_split_2
I0528 05:03:05.813403 30245 net.cpp:150] Setting up fc5_classes_fc5_116_0_split
I0528 05:03:05.813419 30245 net.cpp:157] Top shape: 1024 116 (118784)
I0528 05:03:05.813426 30245 net.cpp:157] Top shape: 1024 116 (118784)
I0528 05:03:05.813432 30245 net.cpp:157] Top shape: 1024 116 (118784)
I0528 05:03:05.813437 30245 net.cpp:165] Memory required for data: 2189230080
I0528 05:03:05.813444 30245 layer_factory.hpp:77] Creating layer softmax
I0528 05:03:05.813453 30245 net.cpp:100] Creating Layer softmax
I0528 05:03:05.813473 30245 net.cpp:434] softmax <- fc5_classes_fc5_116_0_split_0
I0528 05:03:05.813491 30245 net.cpp:408] softmax -> softmax
I0528 05:03:05.813791 30245 net.cpp:150] Setting up softmax
I0528 05:03:05.813819 30245 net.cpp:157] Top shape: 1024 116 (118784)
I0528 05:03:05.813827 30245 net.cpp:165] Memory required for data: 2189705216
I0528 05:03:05.813833 30245 layer_factory.hpp:77] Creating layer loss
I0528 05:03:05.813877 30245 net.cpp:100] Creating Layer loss
I0528 05:03:05.813889 30245 net.cpp:434] loss <- softmax
I0528 05:03:05.813897 30245 net.cpp:434] loss <- label_data_1_split_0
I0528 05:03:05.813906 30245 net.cpp:408] loss -> loss
…
