…
I0508 08:19:57.493470 10284 solver.cpp:93] Creating training net from train_net file: ./Prototxt/experiment_15/RTSD/histeq/trial_4/train.prototxt
I0508 08:19:57.493937 10284 net.cpp:58] Initializing net from parameters: 
state {
  phase: TRAIN
  level: 0
  stage: ""
}
layer {
  name: "data"
  type: "Data"
  top: "data"
  top: "label"
  include {
    phase: TRAIN
  }
  transform_param {
    scale: 0.0039215689
    mirror: false
    crop_size: 48
    mean_value: 134
    mean_value: 128
    mean_value: 128
  }
  data_param {
    source: "../local_data/lmdb/RTSD/histeq/train/lmdb"
    batch_size: 1024
    backend: LMDB
  }
}
layer {
  name: "conv1"
  type: "Convolution"
  bottom: "data"
  top: "conv1"
  convolution_param {
    num_output: 100
    pad: 0
    kernel_size: 7
    group: 1
    stride: 1
    weight_filler {
      type: "xavier"
    }
  }
}
layer {
  name: "conv1_prescale"
  type: "Scale"
  bottom: "conv1"
  top: "conv1"
  param {
    lr_mult: 0
    decay_mult: 0
  }
  scale_param {
    filler {
      value: 0.6666
    }
    bias_term: false
  }
}
layer {
  name: "conv1_sTanH"
  type: "TanH"
  bottom: "conv1"
  top: "conv1"
}
layer {
  name: "conv1_postscale"
  type: "Scale"
  bottom: "conv1"
  top: "conv1"
  param {
    lr_mult: 0
    decay_mult: 0
  }
  scale_param {
    filler {
      value: 1.7159
    }
    bias_term: false
  }
}
layer {
  name: "pool1"
  type: "Pooling"
  bottom: "conv1"
  top: "pool1"
  pooling_param {
    pool: MAX
    kernel_size: 2
    stride: 2
  }
}
layer {
  name: "conv2"
  type: "Convolution"
  bottom: "pool1"
  top: "conv2"
  convolution_param {
    num_output: 150
    pad: 0
    kernel_size: 4
    group: 2
    stride: 1
    weight_filler {
      type: "xavier"
    }
  }
}
layer {
  name: "conv2_prescale"
  type: "Scale"
  bottom: "conv2"
  top: "conv2"
  param {
    lr_mult: 0
    decay_mult: 0
  }
  scale_param {
    filler {
      value: 0.6666
    }
    bias_term: false
  }
}
layer {
  name: "conv2_sTanH"
  type: "TanH"
  bottom: "conv2"
  top: "conv2"
}
layer {
  name: "conv2_postscale"
  type: "Scale"
  bottom: "conv2"
  top: "conv2"
  param {
    lr_mult: 0
    decay_mult: 0
  }
  scale_param {
    filler {
      value: 1.7159
    }
    bias_term: false
  }
}
layer {
  name: "pool2"
  type: "Pooling"
  bottom: "conv2"
  top: "pool2"
  pooling_param {
    pool: MAX
    kernel_size: 2
    stride: 2
  }
}
layer {
  name: "conv3"
  type: "Convolution"
  bottom: "pool2"
  top: "conv3"
  convolution_param {
    num_output: 250
    pad: 0
    kernel_size: 4
    group: 2
    stride: 1
    weight_filler {
      type: "xavier"
    }
  }
}
layer {
  name: "conv3_prescale"
  type: "Scale"
  bottom: "conv3"
  top: "conv3"
  param {
    lr_mult: 0
    decay_mult: 0
  }
  scale_param {
    filler {
      value: 0.6666
    }
    bias_term: false
  }
}
layer {
  name: "conv3_sTanH"
  type: "TanH"
  bottom: "conv3"
  top: "conv3"
}
layer {
  name: "conv3_postscale"
  type: "Scale"
  bottom: "conv3"
  top: "conv3"
  param {
    lr_mult: 0
    decay_mult: 0
  }
  scale_param {
    filler {
      value: 1.7159
    }
    bias_term: false
  }
}
layer {
  name: "pool3"
  type: "Pooling"
  bottom: "conv3"
  top: "pool3"
  pooling_param {
    pool: MAX
    kernel_size: 2
    stride: 2
  }
}
layer {
  name: "fc4_300"
  type: "InnerProduct"
  bottom: "pool3"
  top: "fc4_300"
  inner_product_param {
    num_output: 300
    weight_filler {
      type: "xavier"
    }
  }
}
layer {
  name: "fc4_prescale"
  type: "Scale"
  bottom: "fc4_300"
  top: "fc4_300"
  param {
    lr_mult: 0
    decay_mult: 0
  }
  scale_param {
    filler {
      value: 0.6666
    }
    bias_term: false
  }
}
layer {
  name: "fc4_sTanH"
  type: "TanH"
  bottom: "fc4_300"
  top: "fc4_300"
}
layer {
  name: "fc4_postscale"
  type: "Scale"
  bottom: "fc4_300"
  top: "fc4_300"
  param {
    lr_mult: 0
    decay_mult: 0
  }
  scale_param {
    filler {
      value: 1.7159
    }
    bias_term: false
  }
}
layer {
  name: "fc5_116"
  type: "InnerProduct"
  bottom: "fc4_300"
  top: "fc5_classes"
  inner_product_param {
    num_output: 116
    weight_filler {
      type: "xavier"
    }
  }
}
layer {
  name: "softmax"
  type: "Softmax"
  bottom: "fc5_classes"
  top: "softmax"
}
layer {
  name: "loss"
  type: "MultinomialLogisticLoss"
  bottom: "softmax"
  bottom: "label"
  top: "loss"
}
layer {
  name: "accuracy_1"
  type: "Accuracy"
  bottom: "fc5_classes"
  bottom: "label"
  top: "accuracy_1"
  accuracy_param {
    top_k: 1
  }
}
layer {
  name: "accuracy_5"
  type: "Accuracy"
  bottom: "fc5_classes"
  bottom: "label"
  top: "accuracy_5"
  accuracy_param {
    top_k: 5
  }
}
layer {
  name: "silence"
  type: "Silence"
  bottom: "accuracy_1"
  bottom: "accuracy_5"
}
I0508 08:19:57.494096 10284 layer_factory.hpp:77] Creating layer data
I0508 08:19:57.495388 10284 net.cpp:100] Creating Layer data
I0508 08:19:57.495404 10284 net.cpp:408] data -> data
I0508 08:19:57.495426 10284 net.cpp:408] data -> label
I0508 08:19:57.496453 10397 db_lmdb.cpp:35] Opened lmdb ../local_data/lmdb/RTSD/histeq/train/lmdb
I0508 08:19:57.514055 10284 data_layer.cpp:41] output data size: 1024,3,48,48
I0508 08:19:57.578554 10284 net.cpp:150] Setting up data
I0508 08:19:57.578583 10284 net.cpp:157] Top shape: 1024 3 48 48 (7077888)
I0508 08:19:57.578588 10284 net.cpp:157] Top shape: 1024 (1024)
I0508 08:19:57.578590 10284 net.cpp:165] Memory required for data: 28315648
I0508 08:19:57.578601 10284 layer_factory.hpp:77] Creating layer label_data_1_split
I0508 08:19:57.578616 10284 net.cpp:100] Creating Layer label_data_1_split
I0508 08:19:57.578622 10284 net.cpp:434] label_data_1_split <- label
I0508 08:19:57.578639 10284 net.cpp:408] label_data_1_split -> label_data_1_split_0
I0508 08:19:57.578651 10284 net.cpp:408] label_data_1_split -> label_data_1_split_1
I0508 08:19:57.578660 10284 net.cpp:408] label_data_1_split -> label_data_1_split_2
I0508 08:19:57.578727 10284 net.cpp:150] Setting up label_data_1_split
I0508 08:19:57.578734 10284 net.cpp:157] Top shape: 1024 (1024)
I0508 08:19:57.578738 10284 net.cpp:157] Top shape: 1024 (1024)
I0508 08:19:57.578742 10284 net.cpp:157] Top shape: 1024 (1024)
I0508 08:19:57.578744 10284 net.cpp:165] Memory required for data: 28327936
I0508 08:19:57.578747 10284 layer_factory.hpp:77] Creating layer conv1
I0508 08:19:57.578765 10284 net.cpp:100] Creating Layer conv1
I0508 08:19:57.578770 10284 net.cpp:434] conv1 <- data
I0508 08:19:57.578776 10284 net.cpp:408] conv1 -> conv1
I0508 08:19:57.963500 10284 net.cpp:150] Setting up conv1
I0508 08:19:57.963529 10284 net.cpp:157] Top shape: 1024 100 42 42 (180633600)
I0508 08:19:57.963533 10284 net.cpp:165] Memory required for data: 750862336
I0508 08:19:57.963556 10284 layer_factory.hpp:77] Creating layer conv1_prescale
I0508 08:19:57.963569 10284 net.cpp:100] Creating Layer conv1_prescale
I0508 08:19:57.963575 10284 net.cpp:434] conv1_prescale <- conv1
I0508 08:19:57.963582 10284 net.cpp:395] conv1_prescale -> conv1 (in-place)
I0508 08:19:57.963688 10284 net.cpp:150] Setting up conv1_prescale
I0508 08:19:57.963697 10284 net.cpp:157] Top shape: 1024 100 42 42 (180633600)
I0508 08:19:57.963701 10284 net.cpp:165] Memory required for data: 1473396736
I0508 08:19:57.963706 10284 layer_factory.hpp:77] Creating layer conv1_sTanH
I0508 08:19:57.963716 10284 net.cpp:100] Creating Layer conv1_sTanH
I0508 08:19:57.963721 10284 net.cpp:434] conv1_sTanH <- conv1
I0508 08:19:57.963726 10284 net.cpp:395] conv1_sTanH -> conv1 (in-place)
I0508 08:19:57.963937 10284 net.cpp:150] Setting up conv1_sTanH
I0508 08:19:57.963950 10284 net.cpp:157] Top shape: 1024 100 42 42 (180633600)
I0508 08:19:57.963973 10284 net.cpp:165] Memory required for data: 2195931136
I0508 08:19:57.963977 10284 layer_factory.hpp:77] Creating layer conv1_postscale
I0508 08:19:57.963984 10284 net.cpp:100] Creating Layer conv1_postscale
I0508 08:19:57.963989 10284 net.cpp:434] conv1_postscale <- conv1
I0508 08:19:57.963995 10284 net.cpp:395] conv1_postscale -> conv1 (in-place)
I0508 08:19:57.964089 10284 net.cpp:150] Setting up conv1_postscale
I0508 08:19:57.964097 10284 net.cpp:157] Top shape: 1024 100 42 42 (180633600)
I0508 08:19:57.964100 10284 net.cpp:165] Memory required for data: 2918465536
I0508 08:19:57.964105 10284 layer_factory.hpp:77] Creating layer pool1
I0508 08:19:57.964112 10284 net.cpp:100] Creating Layer pool1
I0508 08:19:57.964118 10284 net.cpp:434] pool1 <- conv1
I0508 08:19:57.964121 10284 net.cpp:408] pool1 -> pool1
I0508 08:19:57.964166 10284 net.cpp:150] Setting up pool1
I0508 08:19:57.964174 10284 net.cpp:157] Top shape: 1024 100 21 21 (45158400)
I0508 08:19:57.964177 10284 net.cpp:165] Memory required for data: 3099099136
I0508 08:19:57.964180 10284 layer_factory.hpp:77] Creating layer conv2
I0508 08:19:57.964190 10284 net.cpp:100] Creating Layer conv2
I0508 08:19:57.964195 10284 net.cpp:434] conv2 <- pool1
I0508 08:19:57.964200 10284 net.cpp:408] conv2 -> conv2
I0508 08:19:57.970180 10284 net.cpp:150] Setting up conv2
I0508 08:19:57.970197 10284 net.cpp:157] Top shape: 1024 150 18 18 (49766400)
I0508 08:19:57.970202 10284 net.cpp:165] Memory required for data: 3298164736
I0508 08:19:57.970212 10284 layer_factory.hpp:77] Creating layer conv2_prescale
I0508 08:19:57.970223 10284 net.cpp:100] Creating Layer conv2_prescale
I0508 08:19:57.970228 10284 net.cpp:434] conv2_prescale <- conv2
I0508 08:19:57.970234 10284 net.cpp:395] conv2_prescale -> conv2 (in-place)
I0508 08:19:57.970327 10284 net.cpp:150] Setting up conv2_prescale
I0508 08:19:57.970336 10284 net.cpp:157] Top shape: 1024 150 18 18 (49766400)
I0508 08:19:57.970340 10284 net.cpp:165] Memory required for data: 3497230336
I0508 08:19:57.970343 10284 layer_factory.hpp:77] Creating layer conv2_sTanH
I0508 08:19:57.970348 10284 net.cpp:100] Creating Layer conv2_sTanH
I0508 08:19:57.970353 10284 net.cpp:434] conv2_sTanH <- conv2
I0508 08:19:57.970358 10284 net.cpp:395] conv2_sTanH -> conv2 (in-place)
I0508 08:19:57.970527 10284 net.cpp:150] Setting up conv2_sTanH
I0508 08:19:57.970538 10284 net.cpp:157] Top shape: 1024 150 18 18 (49766400)
I0508 08:19:57.970541 10284 net.cpp:165] Memory required for data: 3696295936
I0508 08:19:57.970546 10284 layer_factory.hpp:77] Creating layer conv2_postscale
I0508 08:19:57.970551 10284 net.cpp:100] Creating Layer conv2_postscale
I0508 08:19:57.970556 10284 net.cpp:434] conv2_postscale <- conv2
I0508 08:19:57.970561 10284 net.cpp:395] conv2_postscale -> conv2 (in-place)
I0508 08:19:57.970649 10284 net.cpp:150] Setting up conv2_postscale
I0508 08:19:57.970657 10284 net.cpp:157] Top shape: 1024 150 18 18 (49766400)
I0508 08:19:57.970660 10284 net.cpp:165] Memory required for data: 3895361536
I0508 08:19:57.970664 10284 layer_factory.hpp:77] Creating layer pool2
I0508 08:19:57.970670 10284 net.cpp:100] Creating Layer pool2
I0508 08:19:57.970675 10284 net.cpp:434] pool2 <- conv2
I0508 08:19:57.970679 10284 net.cpp:408] pool2 -> pool2
I0508 08:19:57.970718 10284 net.cpp:150] Setting up pool2
I0508 08:19:57.970726 10284 net.cpp:157] Top shape: 1024 150 9 9 (12441600)
I0508 08:19:57.970729 10284 net.cpp:165] Memory required for data: 3945127936
I0508 08:19:57.970732 10284 layer_factory.hpp:77] Creating layer conv3
I0508 08:19:57.970741 10284 net.cpp:100] Creating Layer conv3
I0508 08:19:57.970744 10284 net.cpp:434] conv3 <- pool2
I0508 08:19:57.970749 10284 net.cpp:408] conv3 -> conv3
I0508 08:19:57.981840 10284 net.cpp:150] Setting up conv3
I0508 08:19:57.981860 10284 net.cpp:157] Top shape: 1024 250 6 6 (9216000)
I0508 08:19:57.981865 10284 net.cpp:165] Memory required for data: 3981991936
I0508 08:19:57.981876 10284 layer_factory.hpp:77] Creating layer conv3_prescale
I0508 08:19:57.981900 10284 net.cpp:100] Creating Layer conv3_prescale
I0508 08:19:57.981907 10284 net.cpp:434] conv3_prescale <- conv3
I0508 08:19:57.981914 10284 net.cpp:395] conv3_prescale -> conv3 (in-place)
I0508 08:19:57.982002 10284 net.cpp:150] Setting up conv3_prescale
I0508 08:19:57.982010 10284 net.cpp:157] Top shape: 1024 250 6 6 (9216000)
I0508 08:19:57.982013 10284 net.cpp:165] Memory required for data: 4018855936
I0508 08:19:57.982018 10284 layer_factory.hpp:77] Creating layer conv3_sTanH
I0508 08:19:57.982023 10284 net.cpp:100] Creating Layer conv3_sTanH
I0508 08:19:57.982028 10284 net.cpp:434] conv3_sTanH <- conv3
I0508 08:19:57.982033 10284 net.cpp:395] conv3_sTanH -> conv3 (in-place)
I0508 08:19:57.982205 10284 net.cpp:150] Setting up conv3_sTanH
I0508 08:19:57.982216 10284 net.cpp:157] Top shape: 1024 250 6 6 (9216000)
I0508 08:19:57.982219 10284 net.cpp:165] Memory required for data: 4055719936
I0508 08:19:57.982223 10284 layer_factory.hpp:77] Creating layer conv3_postscale
I0508 08:19:57.982229 10284 net.cpp:100] Creating Layer conv3_postscale
I0508 08:19:57.982234 10284 net.cpp:434] conv3_postscale <- conv3
I0508 08:19:57.982242 10284 net.cpp:395] conv3_postscale -> conv3 (in-place)
I0508 08:19:57.982327 10284 net.cpp:150] Setting up conv3_postscale
I0508 08:19:57.982336 10284 net.cpp:157] Top shape: 1024 250 6 6 (9216000)
I0508 08:19:57.982338 10284 net.cpp:165] Memory required for data: 4092583936
I0508 08:19:57.982342 10284 layer_factory.hpp:77] Creating layer pool3
I0508 08:19:57.982352 10284 net.cpp:100] Creating Layer pool3
I0508 08:19:57.982355 10284 net.cpp:434] pool3 <- conv3
I0508 08:19:57.982360 10284 net.cpp:408] pool3 -> pool3
I0508 08:19:57.982396 10284 net.cpp:150] Setting up pool3
I0508 08:19:57.982403 10284 net.cpp:157] Top shape: 1024 250 3 3 (2304000)
I0508 08:19:57.982406 10284 net.cpp:165] Memory required for data: 4101799936
I0508 08:19:57.982409 10284 layer_factory.hpp:77] Creating layer fc4_300
I0508 08:19:57.982415 10284 net.cpp:100] Creating Layer fc4_300
I0508 08:19:57.982420 10284 net.cpp:434] fc4_300 <- pool3
I0508 08:19:57.982424 10284 net.cpp:408] fc4_300 -> fc4_300
I0508 08:19:57.989061 10284 net.cpp:150] Setting up fc4_300
I0508 08:19:57.989080 10284 net.cpp:157] Top shape: 1024 300 (307200)
I0508 08:19:57.989089 10284 net.cpp:165] Memory required for data: 4103028736
I0508 08:19:57.989100 10284 layer_factory.hpp:77] Creating layer fc4_prescale
I0508 08:19:57.989110 10284 net.cpp:100] Creating Layer fc4_prescale
I0508 08:19:57.989118 10284 net.cpp:434] fc4_prescale <- fc4_300
I0508 08:19:57.989126 10284 net.cpp:395] fc4_prescale -> fc4_300 (in-place)
I0508 08:19:57.989223 10284 net.cpp:150] Setting up fc4_prescale
I0508 08:19:57.989231 10284 net.cpp:157] Top shape: 1024 300 (307200)
I0508 08:19:57.989238 10284 net.cpp:165] Memory required for data: 4104257536
I0508 08:19:57.989245 10284 layer_factory.hpp:77] Creating layer fc4_sTanH
I0508 08:19:57.989254 10284 net.cpp:100] Creating Layer fc4_sTanH
I0508 08:19:57.989261 10284 net.cpp:434] fc4_sTanH <- fc4_300
I0508 08:19:57.989267 10284 net.cpp:395] fc4_sTanH -> fc4_300 (in-place)
I0508 08:19:57.994153 10284 net.cpp:150] Setting up fc4_sTanH
I0508 08:19:57.994170 10284 net.cpp:157] Top shape: 1024 300 (307200)
I0508 08:19:57.994177 10284 net.cpp:165] Memory required for data: 4105486336
I0508 08:19:57.994184 10284 layer_factory.hpp:77] Creating layer fc4_postscale
I0508 08:19:57.994195 10284 net.cpp:100] Creating Layer fc4_postscale
I0508 08:19:57.994200 10284 net.cpp:434] fc4_postscale <- fc4_300
I0508 08:19:57.994206 10284 net.cpp:395] fc4_postscale -> fc4_300 (in-place)
I0508 08:19:57.994304 10284 net.cpp:150] Setting up fc4_postscale
I0508 08:19:57.994313 10284 net.cpp:157] Top shape: 1024 300 (307200)
I0508 08:19:57.994315 10284 net.cpp:165] Memory required for data: 4106715136
I0508 08:19:57.994320 10284 layer_factory.hpp:77] Creating layer fc5_116
I0508 08:19:57.994326 10284 net.cpp:100] Creating Layer fc5_116
I0508 08:19:57.994331 10284 net.cpp:434] fc5_116 <- fc4_300
I0508 08:19:57.994336 10284 net.cpp:408] fc5_116 -> fc5_classes
I0508 08:19:58.000654 10284 net.cpp:150] Setting up fc5_116
I0508 08:19:58.000670 10284 net.cpp:157] Top shape: 1024 116 (118784)
I0508 08:19:58.000675 10284 net.cpp:165] Memory required for data: 4107190272
I0508 08:19:58.000686 10284 layer_factory.hpp:77] Creating layer fc5_classes_fc5_116_0_split
I0508 08:19:58.000695 10284 net.cpp:100] Creating Layer fc5_classes_fc5_116_0_split
I0508 08:19:58.000700 10284 net.cpp:434] fc5_classes_fc5_116_0_split <- fc5_classes
I0508 08:19:58.000706 10284 net.cpp:408] fc5_classes_fc5_116_0_split -> fc5_classes_fc5_116_0_split_0
I0508 08:19:58.000715 10284 net.cpp:408] fc5_classes_fc5_116_0_split -> fc5_classes_fc5_116_0_split_1
I0508 08:19:58.000721 10284 net.cpp:408] fc5_classes_fc5_116_0_split -> fc5_classes_fc5_116_0_split_2
I0508 08:19:58.000769 10284 net.cpp:150] Setting up fc5_classes_fc5_116_0_split
I0508 08:19:58.000777 10284 net.cpp:157] Top shape: 1024 116 (118784)
I0508 08:19:58.000780 10284 net.cpp:157] Top shape: 1024 116 (118784)
I0508 08:19:58.000784 10284 net.cpp:157] Top shape: 1024 116 (118784)
I0508 08:19:58.000787 10284 net.cpp:165] Memory required for data: 4108615680
I0508 08:19:58.000789 10284 layer_factory.hpp:77] Creating layer softmax
I0508 08:19:58.000795 10284 net.cpp:100] Creating Layer softmax
I0508 08:19:58.000800 10284 net.cpp:434] softmax <- fc5_classes_fc5_116_0_split_0
I0508 08:19:58.000805 10284 net.cpp:408] softmax -> softmax
I0508 08:19:58.001044 10284 net.cpp:150] Setting up softmax
I0508 08:19:58.001056 10284 net.cpp:157] Top shape: 1024 116 (118784)
I0508 08:19:58.001061 10284 net.cpp:165] Memory required for data: 4109090816
I0508 08:19:58.001065 10284 layer_factory.hpp:77] Creating layer loss
I0508 08:19:58.001071 10284 net.cpp:100] Creating Layer loss
I0508 08:19:58.001075 10284 net.cpp:434] loss <- softmax
I0508 08:19:58.001080 10284 net.cpp:434] loss <- label_data_1_split_0
I0508 08:19:58.001083 10284 net.cpp:408] loss -> loss
…
