…
I0410 01:15:28.361207 26615 net.cpp:322] The NetState phase (0) differed from the phase (1) specified by a rule in layer accuracy_5
I0410 01:15:28.361317 26615 net.cpp:58] Initializing net from parameters: 
state {
  phase: TRAIN
  level: 0
  stage: ""
}
layer {
  name: "data"
  type: "Data"
  top: "data"
  top: "label"
  include {
    phase: TRAIN
  }
  transform_param {
    mirror: false
    crop_size: 48
    mean_value: 130
    mean_value: 123
    mean_value: 137
  }
  data_param {
    source: "../local_data/lmdb/rtsd-r1/histeq/train/lmdb"
    batch_size: 1024
    backend: LMDB
  }
}
layer {
  name: "conv1"
  type: "Convolution"
  bottom: "data"
  top: "conv1"
  convolution_param {
    num_output: 100
    pad: 0
    kernel_size: 7
    group: 1
    stride: 1
    weight_filler {
      type: "xavier"
    }
  }
}
layer {
  name: "conv1_sTanH"
  type: "TanH"
  bottom: "conv1"
  top: "conv1"
}
layer {
  name: "pool1"
  type: "Pooling"
  bottom: "conv1"
  top: "pool1"
  pooling_param {
    pool: MAX
    kernel_size: 2
    stride: 2
  }
}
layer {
  name: "conv2"
  type: "Convolution"
  bottom: "pool1"
  top: "conv2"
  convolution_param {
    num_output: 150
    pad: 0
    kernel_size: 4
    group: 1
    stride: 1
    weight_filler {
      type: "xavier"
    }
  }
}
layer {
  name: "conv2_sTanH"
  type: "TanH"
  bottom: "conv2"
  top: "conv2"
}
layer {
  name: "pool2"
  type: "Pooling"
  bottom: "conv2"
  top: "pool2"
  pooling_param {
    pool: MAX
    kernel_size: 2
    stride: 2
  }
}
layer {
  name: "conv3"
  type: "Convolution"
  bottom: "pool2"
  top: "conv3"
  convolution_param {
    num_output: 250
    pad: 0
    kernel_size: 4
    group: 1
    stride: 1
    weight_filler {
      type: "xavier"
    }
  }
}
layer {
  name: "conv3_sTanH"
  type: "TanH"
  bottom: "conv3"
  top: "conv3"
}
layer {
  name: "pool3"
  type: "Pooling"
  bottom: "conv3"
  top: "pool3"
  pooling_param {
    pool: MAX
    kernel_size: 2
    stride: 2
  }
}
layer {
  name: "fc4_300"
  type: "InnerProduct"
  bottom: "pool3"
  top: "fc4_300"
  inner_product_param {
    num_output: 300
    weight_filler {
      type: "xavier"
    }
  }
}
layer {
  name: "fc4_sTanH"
  type: "TanH"
  bottom: "fc4_300"
  top: "fc4_300"
}
layer {
  name: "drop4"
  type: "Dropout"
  bottom: "fc4_300"
  top: "fc4_300"
  dropout_param {
    dropout_ratio: 0.4
  }
}
layer {
  name: "fc5_67"
  type: "InnerProduct"
  bottom: "fc4_300"
  top: "fc5_classes"
  inner_product_param {
    num_output: 67
    weight_filler {
      type: "xavier"
    }
  }
}
layer {
  name: "loss"
  type: "SoftmaxWithLoss"
  bottom: "fc5_classes"
  bottom: "label"
  top: "loss"
}
I0410 01:15:28.361407 26615 layer_factory.hpp:77] Creating layer data
I0410 01:15:28.362910 26615 net.cpp:100] Creating Layer data
I0410 01:15:28.362927 26615 net.cpp:408] data -> data
I0410 01:15:28.362952 26615 net.cpp:408] data -> label
I0410 01:15:28.365183 26675 db_lmdb.cpp:35] Opened lmdb ../local_data/lmdb/rtsd-r1/histeq/train/lmdb
I0410 01:15:28.387961 26615 data_layer.cpp:41] output data size: 1024,3,48,48
I0410 01:15:28.442423 26615 net.cpp:150] Setting up data
I0410 01:15:28.442461 26615 net.cpp:157] Top shape: 1024 3 48 48 (7077888)
I0410 01:15:28.442497 26615 net.cpp:157] Top shape: 1024 (1024)
I0410 01:15:28.442502 26615 net.cpp:165] Memory required for data: 28315648
I0410 01:15:28.442514 26615 layer_factory.hpp:77] Creating layer conv1
I0410 01:15:28.442543 26615 net.cpp:100] Creating Layer conv1
I0410 01:15:28.442553 26615 net.cpp:434] conv1 <- data
I0410 01:15:28.442569 26615 net.cpp:408] conv1 -> conv1
I0410 01:15:28.771000 26615 net.cpp:150] Setting up conv1
I0410 01:15:28.771031 26615 net.cpp:157] Top shape: 1024 100 42 42 (180633600)
I0410 01:15:28.771036 26615 net.cpp:165] Memory required for data: 750850048
I0410 01:15:28.771060 26615 layer_factory.hpp:77] Creating layer conv1_sTanH
I0410 01:15:28.771075 26615 net.cpp:100] Creating Layer conv1_sTanH
I0410 01:15:28.771080 26615 net.cpp:434] conv1_sTanH <- conv1
I0410 01:15:28.771087 26615 net.cpp:395] conv1_sTanH -> conv1 (in-place)
I0410 01:15:28.771313 26615 net.cpp:150] Setting up conv1_sTanH
I0410 01:15:28.771327 26615 net.cpp:157] Top shape: 1024 100 42 42 (180633600)
I0410 01:15:28.771332 26615 net.cpp:165] Memory required for data: 1473384448
I0410 01:15:28.771335 26615 layer_factory.hpp:77] Creating layer pool1
I0410 01:15:28.771345 26615 net.cpp:100] Creating Layer pool1
I0410 01:15:28.771349 26615 net.cpp:434] pool1 <- conv1
I0410 01:15:28.771356 26615 net.cpp:408] pool1 -> pool1
I0410 01:15:28.771416 26615 net.cpp:150] Setting up pool1
I0410 01:15:28.771426 26615 net.cpp:157] Top shape: 1024 100 21 21 (45158400)
I0410 01:15:28.771430 26615 net.cpp:165] Memory required for data: 1654018048
I0410 01:15:28.771435 26615 layer_factory.hpp:77] Creating layer conv2
I0410 01:15:28.771447 26615 net.cpp:100] Creating Layer conv2
I0410 01:15:28.771453 26615 net.cpp:434] conv2 <- pool1
I0410 01:15:28.771461 26615 net.cpp:408] conv2 -> conv2
I0410 01:15:28.776486 26615 net.cpp:150] Setting up conv2
I0410 01:15:28.776505 26615 net.cpp:157] Top shape: 1024 150 18 18 (49766400)
I0410 01:15:28.776510 26615 net.cpp:165] Memory required for data: 1853083648
I0410 01:15:28.776521 26615 layer_factory.hpp:77] Creating layer conv2_sTanH
I0410 01:15:28.776530 26615 net.cpp:100] Creating Layer conv2_sTanH
I0410 01:15:28.776533 26615 net.cpp:434] conv2_sTanH <- conv2
I0410 01:15:28.776540 26615 net.cpp:395] conv2_sTanH -> conv2 (in-place)
I0410 01:15:28.777359 26615 net.cpp:150] Setting up conv2_sTanH
I0410 01:15:28.777376 26615 net.cpp:157] Top shape: 1024 150 18 18 (49766400)
I0410 01:15:28.777380 26615 net.cpp:165] Memory required for data: 2052149248
I0410 01:15:28.777385 26615 layer_factory.hpp:77] Creating layer pool2
I0410 01:15:28.777392 26615 net.cpp:100] Creating Layer pool2
I0410 01:15:28.777396 26615 net.cpp:434] pool2 <- conv2
I0410 01:15:28.777403 26615 net.cpp:408] pool2 -> pool2
I0410 01:15:28.777453 26615 net.cpp:150] Setting up pool2
I0410 01:15:28.777463 26615 net.cpp:157] Top shape: 1024 150 9 9 (12441600)
I0410 01:15:28.777467 26615 net.cpp:165] Memory required for data: 2101915648
I0410 01:15:28.777470 26615 layer_factory.hpp:77] Creating layer conv3
I0410 01:15:28.777480 26615 net.cpp:100] Creating Layer conv3
I0410 01:15:28.777487 26615 net.cpp:434] conv3 <- pool2
I0410 01:15:28.777493 26615 net.cpp:408] conv3 -> conv3
I0410 01:15:28.783584 26615 net.cpp:150] Setting up conv3
I0410 01:15:28.783602 26615 net.cpp:157] Top shape: 1024 250 6 6 (9216000)
I0410 01:15:28.783607 26615 net.cpp:165] Memory required for data: 2138779648
I0410 01:15:28.783618 26615 layer_factory.hpp:77] Creating layer conv3_sTanH
I0410 01:15:28.783627 26615 net.cpp:100] Creating Layer conv3_sTanH
I0410 01:15:28.783632 26615 net.cpp:434] conv3_sTanH <- conv3
I0410 01:15:28.783638 26615 net.cpp:395] conv3_sTanH -> conv3 (in-place)
I0410 01:15:28.784477 26615 net.cpp:150] Setting up conv3_sTanH
I0410 01:15:28.784494 26615 net.cpp:157] Top shape: 1024 250 6 6 (9216000)
I0410 01:15:28.784498 26615 net.cpp:165] Memory required for data: 2175643648
I0410 01:15:28.784503 26615 layer_factory.hpp:77] Creating layer pool3
I0410 01:15:28.784510 26615 net.cpp:100] Creating Layer pool3
I0410 01:15:28.784514 26615 net.cpp:434] pool3 <- conv3
I0410 01:15:28.784541 26615 net.cpp:408] pool3 -> pool3
I0410 01:15:28.784595 26615 net.cpp:150] Setting up pool3
I0410 01:15:28.784603 26615 net.cpp:157] Top shape: 1024 250 3 3 (2304000)
I0410 01:15:28.784607 26615 net.cpp:165] Memory required for data: 2184859648
I0410 01:15:28.784612 26615 layer_factory.hpp:77] Creating layer fc4_300
I0410 01:15:28.784621 26615 net.cpp:100] Creating Layer fc4_300
I0410 01:15:28.784624 26615 net.cpp:434] fc4_300 <- pool3
I0410 01:15:28.784631 26615 net.cpp:408] fc4_300 -> fc4_300
I0410 01:15:28.790524 26615 net.cpp:150] Setting up fc4_300
I0410 01:15:28.790541 26615 net.cpp:157] Top shape: 1024 300 (307200)
I0410 01:15:28.790545 26615 net.cpp:165] Memory required for data: 2186088448
I0410 01:15:28.790554 26615 layer_factory.hpp:77] Creating layer fc4_sTanH
I0410 01:15:28.790560 26615 net.cpp:100] Creating Layer fc4_sTanH
I0410 01:15:28.790565 26615 net.cpp:434] fc4_sTanH <- fc4_300
I0410 01:15:28.790570 26615 net.cpp:395] fc4_sTanH -> fc4_300 (in-place)
I0410 01:15:28.790766 26615 net.cpp:150] Setting up fc4_sTanH
I0410 01:15:28.790778 26615 net.cpp:157] Top shape: 1024 300 (307200)
I0410 01:15:28.790782 26615 net.cpp:165] Memory required for data: 2187317248
I0410 01:15:28.790786 26615 layer_factory.hpp:77] Creating layer drop4
I0410 01:15:28.790794 26615 net.cpp:100] Creating Layer drop4
I0410 01:15:28.790802 26615 net.cpp:434] drop4 <- fc4_300
I0410 01:15:28.790807 26615 net.cpp:395] drop4 -> fc4_300 (in-place)
I0410 01:15:28.790840 26615 net.cpp:150] Setting up drop4
I0410 01:15:28.790848 26615 net.cpp:157] Top shape: 1024 300 (307200)
I0410 01:15:28.790851 26615 net.cpp:165] Memory required for data: 2188546048
I0410 01:15:28.790855 26615 layer_factory.hpp:77] Creating layer fc5_67
I0410 01:15:28.790863 26615 net.cpp:100] Creating Layer fc5_67
I0410 01:15:28.790865 26615 net.cpp:434] fc5_67 <- fc4_300
I0410 01:15:28.790871 26615 net.cpp:408] fc5_67 -> fc5_classes
I0410 01:15:28.792127 26615 net.cpp:150] Setting up fc5_67
I0410 01:15:28.792143 26615 net.cpp:157] Top shape: 1024 67 (68608)
I0410 01:15:28.792147 26615 net.cpp:165] Memory required for data: 2188820480
I0410 01:15:28.792158 26615 layer_factory.hpp:77] Creating layer loss
I0410 01:15:28.792166 26615 net.cpp:100] Creating Layer loss
I0410 01:15:28.792171 26615 net.cpp:434] loss <- fc5_classes
I0410 01:15:28.792176 26615 net.cpp:434] loss <- label
I0410 01:15:28.792182 26615 net.cpp:408] loss -> loss
I0410 01:15:28.792196 26615 layer_factory.hpp:77] Creating layer loss
…
I0410 01:15:28.792882 26615 solver.cpp:193] Creating test net (#0) specified by test_net file: ./Prototxt/experiment_7/rtsd-r1/histeq/trial_2/test.prototxt
I0410 01:15:28.793017 26615 net.cpp:58] Initializing net from parameters: 
state {
  phase: TEST
}
layer {
  name: "data"
  type: "Data"
  top: "data"
  top: "label"
  include {
    phase: TEST
  }
  transform_param {
    mirror: false
    crop_size: 48
    mean_value: 124
    mean_value: 121
    mean_value: 142
  }
  data_param {
    source: "../local_data/lmdb/rtsd-r1/histeq/test/lmdb"
    batch_size: 1024
    backend: LMDB
  }
}
layer {
  name: "conv1"
  type: "Convolution"
  bottom: "data"
  top: "conv1"
  convolution_param {
    num_output: 100
    pad: 0
    kernel_size: 7
    group: 1
    stride: 1
    weight_filler {
      type: "xavier"
    }
  }
}
layer {
  name: "conv1_sTanH"
  type: "TanH"
  bottom: "conv1"
  top: "conv1"
}
layer {
  name: "pool1"
  type: "Pooling"
  bottom: "conv1"
  top: "pool1"
  pooling_param {
    pool: MAX
    kernel_size: 2
    stride: 2
  }
}
layer {
  name: "conv2"
  type: "Convolution"
  bottom: "pool1"
  top: "conv2"
  convolution_param {
    num_output: 150
    pad: 0
    kernel_size: 4
    group: 1
    stride: 1
    weight_filler {
      type: "xavier"
    }
  }
}
layer {
  name: "conv2_sTanH"
  type: "TanH"
  bottom: "conv2"
  top: "conv2"
}
layer {
  name: "pool2"
  type: "Pooling"
  bottom: "conv2"
  top: "pool2"
  pooling_param {
    pool: MAX
    kernel_size: 2
    stride: 2
  }
}
layer {
  name: "conv3"
  type: "Convolution"
  bottom: "pool2"
  top: "conv3"
  convolution_param {
    num_output: 250
    pad: 0
    kernel_size: 4
    group: 1
    stride: 1
    weight_filler {
      type: "xavier"
    }
  }
}
layer {
  name: "conv3_sTanH"
  type: "TanH"
  bottom: "conv3"
  top: "conv3"
}
layer {
  name: "pool3"
  type: "Pooling"
  bottom: "conv3"
  top: "pool3"
  pooling_param {
    pool: MAX
    kernel_size: 2
    stride: 2
  }
}
layer {
  name: "fc4_300"
  type: "InnerProduct"
  bottom: "pool3"
  top: "fc4_300"
  inner_product_param {
    num_output: 300
    weight_filler {
      type: "xavier"
    }
  }
}
layer {
  name: "fc4_sTanH"
  type: "TanH"
  bottom: "fc4_300"
  top: "fc4_300"
}
layer {
  name: "drop4"
  type: "Dropout"
  bottom: "fc4_300"
  top: "fc4_300"
  dropout_param {
    dropout_ratio: 0.4
  }
}
layer {
  name: "fc5_67"
  type: "InnerProduct"
  bottom: "fc4_300"
  top: "fc5_classes"
  inner_product_param {
    num_output: 67
    weight_filler {
      type: "xavier"
    }
  }
}
layer {
  name: "loss"
  type: "SoftmaxWithLoss"
  bottom: "fc5_classes"
  bottom: "label"
  top: "loss"
}
layer {
  name: "accuracy_1"
  type: "Accuracy"
  bottom: "fc5_classes"
  bottom: "label"
  top: "accuracy_1"
  include {
    phase: TEST
  }
  accuracy_param {
    top_k: 1
  }
}
layer {
  name: "accuracy_5"
  type: "Accuracy"
  bottom: "fc5_classes"
  bottom: "label"
  top: "accuracy_5"
  include {
    phase: TEST
  }
  accuracy_param {
    top_k: 5
  }
}
I0410 01:15:28.793103 26615 layer_factory.hpp:77] Creating layer data
I0410 01:15:28.793707 26615 net.cpp:100] Creating Layer data
I0410 01:15:28.793718 26615 net.cpp:408] data -> data
I0410 01:15:28.793730 26615 net.cpp:408] data -> label
I0410 01:15:28.795509 26707 db_lmdb.cpp:35] Opened lmdb ../local_data/lmdb/rtsd-r1/histeq/test/lmdb
I0410 01:15:28.795672 26615 data_layer.cpp:41] output data size: 1024,3,48,48
I0410 01:15:28.837316 26615 net.cpp:150] Setting up data
I0410 01:15:28.837347 26615 net.cpp:157] Top shape: 1024 3 48 48 (7077888)
I0410 01:15:28.837354 26615 net.cpp:157] Top shape: 1024 (1024)
I0410 01:15:28.837357 26615 net.cpp:165] Memory required for data: 28315648
I0410 01:15:28.837364 26615 layer_factory.hpp:77] Creating layer label_data_1_split
I0410 01:15:28.837378 26615 net.cpp:100] Creating Layer label_data_1_split
I0410 01:15:28.837383 26615 net.cpp:434] label_data_1_split <- label
I0410 01:15:28.837390 26615 net.cpp:408] label_data_1_split -> label_data_1_split_0
I0410 01:15:28.837400 26615 net.cpp:408] label_data_1_split -> label_data_1_split_1
I0410 01:15:28.837409 26615 net.cpp:408] label_data_1_split -> label_data_1_split_2
I0410 01:15:28.837595 26615 net.cpp:150] Setting up label_data_1_split
I0410 01:15:28.837605 26615 net.cpp:157] Top shape: 1024 (1024)
I0410 01:15:28.837610 26615 net.cpp:157] Top shape: 1024 (1024)
I0410 01:15:28.837615 26615 net.cpp:157] Top shape: 1024 (1024)
I0410 01:15:28.837617 26615 net.cpp:165] Memory required for data: 28327936
I0410 01:15:28.837620 26615 layer_factory.hpp:77] Creating layer conv1
I0410 01:15:28.837635 26615 net.cpp:100] Creating Layer conv1
I0410 01:15:28.837640 26615 net.cpp:434] conv1 <- data
I0410 01:15:28.837646 26615 net.cpp:408] conv1 -> conv1
I0410 01:15:28.839537 26615 net.cpp:150] Setting up conv1
I0410 01:15:28.839552 26615 net.cpp:157] Top shape: 1024 100 42 42 (180633600)
I0410 01:15:28.839557 26615 net.cpp:165] Memory required for data: 750862336
I0410 01:15:28.839568 26615 layer_factory.hpp:77] Creating layer conv1_sTanH
I0410 01:15:28.839581 26615 net.cpp:100] Creating Layer conv1_sTanH
I0410 01:15:28.839586 26615 net.cpp:434] conv1_sTanH <- conv1
I0410 01:15:28.839591 26615 net.cpp:395] conv1_sTanH -> conv1 (in-place)
I0410 01:15:28.839867 26615 net.cpp:150] Setting up conv1_sTanH
I0410 01:15:28.839891 26615 net.cpp:157] Top shape: 1024 100 42 42 (180633600)
I0410 01:15:28.839896 26615 net.cpp:165] Memory required for data: 1473396736
I0410 01:15:28.839900 26615 layer_factory.hpp:77] Creating layer pool1
I0410 01:15:28.839912 26615 net.cpp:100] Creating Layer pool1
I0410 01:15:28.839916 26615 net.cpp:434] pool1 <- conv1
I0410 01:15:28.839925 26615 net.cpp:408] pool1 -> pool1
I0410 01:15:28.842144 26615 net.cpp:150] Setting up pool1
I0410 01:15:28.842154 26615 net.cpp:157] Top shape: 1024 100 21 21 (45158400)
I0410 01:15:28.842159 26615 net.cpp:165] Memory required for data: 1654030336
I0410 01:15:28.842161 26615 layer_factory.hpp:77] Creating layer conv2
I0410 01:15:28.842181 26615 net.cpp:100] Creating Layer conv2
I0410 01:15:28.842186 26615 net.cpp:434] conv2 <- pool1
I0410 01:15:28.842193 26615 net.cpp:408] conv2 -> conv2
I0410 01:15:28.847733 26615 net.cpp:150] Setting up conv2
I0410 01:15:28.847751 26615 net.cpp:157] Top shape: 1024 150 18 18 (49766400)
I0410 01:15:28.847756 26615 net.cpp:165] Memory required for data: 1853095936
I0410 01:15:28.847767 26615 layer_factory.hpp:77] Creating layer conv2_sTanH
I0410 01:15:28.847775 26615 net.cpp:100] Creating Layer conv2_sTanH
I0410 01:15:28.847779 26615 net.cpp:434] conv2_sTanH <- conv2
I0410 01:15:28.847786 26615 net.cpp:395] conv2_sTanH -> conv2 (in-place)
I0410 01:15:28.849597 26615 net.cpp:150] Setting up conv2_sTanH
I0410 01:15:28.849614 26615 net.cpp:157] Top shape: 1024 150 18 18 (49766400)
I0410 01:15:28.849618 26615 net.cpp:165] Memory required for data: 2052161536
I0410 01:15:28.849623 26615 layer_factory.hpp:77] Creating layer pool2
I0410 01:15:28.849632 26615 net.cpp:100] Creating Layer pool2
I0410 01:15:28.849637 26615 net.cpp:434] pool2 <- conv2
I0410 01:15:28.849645 26615 net.cpp:408] pool2 -> pool2
I0410 01:15:28.849702 26615 net.cpp:150] Setting up pool2
I0410 01:15:28.849712 26615 net.cpp:157] Top shape: 1024 150 9 9 (12441600)
I0410 01:15:28.849716 26615 net.cpp:165] Memory required for data: 2101927936
I0410 01:15:28.849720 26615 layer_factory.hpp:77] Creating layer conv3
I0410 01:15:28.849732 26615 net.cpp:100] Creating Layer conv3
I0410 01:15:28.849738 26615 net.cpp:434] conv3 <- pool2
I0410 01:15:28.849745 26615 net.cpp:408] conv3 -> conv3
I0410 01:15:28.855698 26615 net.cpp:150] Setting up conv3
I0410 01:15:28.855717 26615 net.cpp:157] Top shape: 1024 250 6 6 (9216000)
I0410 01:15:28.855721 26615 net.cpp:165] Memory required for data: 2138791936
I0410 01:15:28.855732 26615 layer_factory.hpp:77] Creating layer conv3_sTanH
I0410 01:15:28.855741 26615 net.cpp:100] Creating Layer conv3_sTanH
I0410 01:15:28.855744 26615 net.cpp:434] conv3_sTanH <- conv3
I0410 01:15:28.855749 26615 net.cpp:395] conv3_sTanH -> conv3 (in-place)
I0410 01:15:28.858239 26615 net.cpp:150] Setting up conv3_sTanH
I0410 01:15:28.858255 26615 net.cpp:157] Top shape: 1024 250 6 6 (9216000)
I0410 01:15:28.858275 26615 net.cpp:165] Memory required for data: 2175655936
I0410 01:15:28.858280 26615 layer_factory.hpp:77] Creating layer pool3
I0410 01:15:28.858289 26615 net.cpp:100] Creating Layer pool3
I0410 01:15:28.858292 26615 net.cpp:434] pool3 <- conv3
I0410 01:15:28.858300 26615 net.cpp:408] pool3 -> pool3
I0410 01:15:28.858352 26615 net.cpp:150] Setting up pool3
I0410 01:15:28.858364 26615 net.cpp:157] Top shape: 1024 250 3 3 (2304000)
I0410 01:15:28.858369 26615 net.cpp:165] Memory required for data: 2184871936
I0410 01:15:28.858372 26615 layer_factory.hpp:77] Creating layer fc4_300
I0410 01:15:28.858379 26615 net.cpp:100] Creating Layer fc4_300
I0410 01:15:28.858383 26615 net.cpp:434] fc4_300 <- pool3
I0410 01:15:28.858388 26615 net.cpp:408] fc4_300 -> fc4_300
I0410 01:15:28.864154 26615 net.cpp:150] Setting up fc4_300
I0410 01:15:28.864173 26615 net.cpp:157] Top shape: 1024 300 (307200)
I0410 01:15:28.864178 26615 net.cpp:165] Memory required for data: 2186100736
I0410 01:15:28.864186 26615 layer_factory.hpp:77] Creating layer fc4_sTanH
I0410 01:15:28.864194 26615 net.cpp:100] Creating Layer fc4_sTanH
I0410 01:15:28.864200 26615 net.cpp:434] fc4_sTanH <- fc4_300
I0410 01:15:28.864205 26615 net.cpp:395] fc4_sTanH -> fc4_300 (in-place)
I0410 01:15:28.864406 26615 net.cpp:150] Setting up fc4_sTanH
I0410 01:15:28.864419 26615 net.cpp:157] Top shape: 1024 300 (307200)
I0410 01:15:28.864423 26615 net.cpp:165] Memory required for data: 2187329536
I0410 01:15:28.864426 26615 layer_factory.hpp:77] Creating layer drop4
I0410 01:15:28.864434 26615 net.cpp:100] Creating Layer drop4
I0410 01:15:28.864439 26615 net.cpp:434] drop4 <- fc4_300
I0410 01:15:28.864444 26615 net.cpp:395] drop4 -> fc4_300 (in-place)
I0410 01:15:28.864476 26615 net.cpp:150] Setting up drop4
I0410 01:15:28.864485 26615 net.cpp:157] Top shape: 1024 300 (307200)
I0410 01:15:28.864487 26615 net.cpp:165] Memory required for data: 2188558336
I0410 01:15:28.864490 26615 layer_factory.hpp:77] Creating layer fc5_67
I0410 01:15:28.864498 26615 net.cpp:100] Creating Layer fc5_67
I0410 01:15:28.864504 26615 net.cpp:434] fc5_67 <- fc4_300
I0410 01:15:28.864511 26615 net.cpp:408] fc5_67 -> fc5_classes
I0410 01:15:28.864768 26615 net.cpp:150] Setting up fc5_67
I0410 01:15:28.864780 26615 net.cpp:157] Top shape: 1024 67 (68608)
I0410 01:15:28.864784 26615 net.cpp:165] Memory required for data: 2188832768
I0410 01:15:28.864792 26615 layer_factory.hpp:77] Creating layer fc5_classes_fc5_67_0_split
I0410 01:15:28.864802 26615 net.cpp:100] Creating Layer fc5_classes_fc5_67_0_split
I0410 01:15:28.864809 26615 net.cpp:434] fc5_classes_fc5_67_0_split <- fc5_classes
I0410 01:15:28.864814 26615 net.cpp:408] fc5_classes_fc5_67_0_split -> fc5_classes_fc5_67_0_split_0
I0410 01:15:28.864822 26615 net.cpp:408] fc5_classes_fc5_67_0_split -> fc5_classes_fc5_67_0_split_1
I0410 01:15:28.864838 26615 net.cpp:408] fc5_classes_fc5_67_0_split -> fc5_classes_fc5_67_0_split_2
I0410 01:15:28.864894 26615 net.cpp:150] Setting up fc5_classes_fc5_67_0_split
I0410 01:15:28.864902 26615 net.cpp:157] Top shape: 1024 67 (68608)
I0410 01:15:28.864905 26615 net.cpp:157] Top shape: 1024 67 (68608)
I0410 01:15:28.864908 26615 net.cpp:157] Top shape: 1024 67 (68608)
I0410 01:15:28.864912 26615 net.cpp:165] Memory required for data: 2189656064
I0410 01:15:28.864928 26615 layer_factory.hpp:77] Creating layer loss
I0410 01:15:28.864938 26615 net.cpp:100] Creating Layer loss
I0410 01:15:28.864943 26615 net.cpp:434] loss <- fc5_classes_fc5_67_0_split_0
I0410 01:15:28.864948 26615 net.cpp:434] loss <- label_data_1_split_0
I0410 01:15:28.864954 26615 net.cpp:408] loss -> loss
…
