…
I0414 08:56:46.850294 31061 solver.cpp:93] Creating training net from train_net file: ./Prototxt/experiment_11/rtsd-r3/CoNorm/trial_4/train.prototxt
I0414 08:56:46.850864 31061 net.cpp:58] Initializing net from parameters: 
state {
  phase: TRAIN
  level: 0
  stage: ""
}
layer {
  name: "data"
  type: "Data"
  top: "data"
  top: "label"
  include {
    phase: TRAIN
  }
  transform_param {
    scale: 0.0039215689
    mirror: false
    crop_size: 48
    mean_value: 135
    mean_value: 134
    mean_value: 134
  }
  data_param {
    source: "../local_data/lmdb/rtsd-r3/CoNorm/train/lmdb"
    batch_size: 1024
    backend: LMDB
  }
}
layer {
  name: "conv1"
  type: "Convolution"
  bottom: "data"
  top: "conv1"
  convolution_param {
    num_output: 100
    pad: 0
    kernel_size: 7
    group: 1
    stride: 1
    weight_filler {
      type: "xavier"
    }
  }
}
layer {
  name: "conv1_prescale"
  type: "Scale"
  bottom: "conv1"
  top: "conv1"
  param {
    lr_mult: 0
    decay_mult: 0
  }
  scale_param {
    filler {
      value: 0.6666
    }
    bias_term: false
  }
}
layer {
  name: "conv1_sTanH"
  type: "TanH"
  bottom: "conv1"
  top: "conv1"
}
layer {
  name: "conv1_postscale"
  type: "Scale"
  bottom: "conv1"
  top: "conv1"
  param {
    lr_mult: 0
    decay_mult: 0
  }
  scale_param {
    filler {
      value: 1.7159
    }
    bias_term: false
  }
}
layer {
  name: "pool1"
  type: "Pooling"
  bottom: "conv1"
  top: "pool1"
  pooling_param {
    pool: MAX
    kernel_size: 2
    stride: 2
  }
}
layer {
  name: "conv2"
  type: "Convolution"
  bottom: "pool1"
  top: "conv2"
  convolution_param {
    num_output: 150
    pad: 0
    kernel_size: 4
    group: 1
    stride: 1
    weight_filler {
      type: "xavier"
    }
  }
}
layer {
  name: "conv2_prescale"
  type: "Scale"
  bottom: "conv2"
  top: "conv2"
  param {
    lr_mult: 0
    decay_mult: 0
  }
  scale_param {
    filler {
      value: 0.6666
    }
    bias_term: false
  }
}
layer {
  name: "conv2_sTanH"
  type: "TanH"
  bottom: "conv2"
  top: "conv2"
}
layer {
  name: "conv2_postscale"
  type: "Scale"
  bottom: "conv2"
  top: "conv2"
  param {
    lr_mult: 0
    decay_mult: 0
  }
  scale_param {
    filler {
      value: 1.7159
    }
    bias_term: false
  }
}
layer {
  name: "pool2"
  type: "Pooling"
  bottom: "conv2"
  top: "pool2"
  pooling_param {
    pool: MAX
    kernel_size: 2
    stride: 2
  }
}
layer {
  name: "conv3"
  type: "Convolution"
  bottom: "pool2"
  top: "conv3"
  convolution_param {
    num_output: 250
    pad: 0
    kernel_size: 4
    group: 1
    stride: 1
    weight_filler {
      type: "xavier"
    }
  }
}
layer {
  name: "conv3_prescale"
  type: "Scale"
  bottom: "conv3"
  top: "conv3"
  param {
    lr_mult: 0
    decay_mult: 0
  }
  scale_param {
    filler {
      value: 0.6666
    }
    bias_term: false
  }
}
layer {
  name: "conv3_sTanH"
  type: "TanH"
  bottom: "conv3"
  top: "conv3"
}
layer {
  name: "conv3_postscale"
  type: "Scale"
  bottom: "conv3"
  top: "conv3"
  param {
    lr_mult: 0
    decay_mult: 0
  }
  scale_param {
    filler {
      value: 1.7159
    }
    bias_term: false
  }
}
layer {
  name: "pool3"
  type: "Pooling"
  bottom: "conv3"
  top: "pool3"
  pooling_param {
    pool: MAX
    kernel_size: 2
    stride: 2
  }
}
layer {
  name: "fc4_300"
  type: "InnerProduct"
  bottom: "pool3"
  top: "fc4_300"
  inner_product_param {
    num_output: 300
    weight_filler {
      type: "xavier"
    }
  }
}
layer {
  name: "fc4_prescale"
  type: "Scale"
  bottom: "fc4_300"
  top: "fc4_300"
  param {
    lr_mult: 0
    decay_mult: 0
  }
  scale_param {
    filler {
      value: 0.6666
    }
    bias_term: false
  }
}
layer {
  name: "fc4_sTanH"
  type: "TanH"
  bottom: "fc4_300"
  top: "fc4_300"
}
layer {
  name: "fc4_postscale"
  type: "Scale"
  bottom: "fc4_300"
  top: "fc4_300"
  param {
    lr_mult: 0
    decay_mult: 0
  }
  scale_param {
    filler {
      value: 1.7159
    }
    bias_term: false
  }
}
layer {
  name: "fc5_106"
  type: "InnerProduct"
  bottom: "fc4_300"
  top: "fc5_classes"
  inner_product_param {
    num_output: 106
    weight_filler {
      type: "xavier"
    }
  }
}
layer {
  name: "softmax"
  type: "Softmax"
  bottom: "fc5_classes"
  top: "softmax"
}
layer {
  name: "loss"
  type: "MultinomialLogisticLoss"
  bottom: "softmax"
  bottom: "label"
  top: "loss"
}
layer {
  name: "accuracy_1"
  type: "Accuracy"
  bottom: "fc5_classes"
  bottom: "label"
  top: "accuracy_1"
  accuracy_param {
    top_k: 1
  }
}
layer {
  name: "accuracy_5"
  type: "Accuracy"
  bottom: "fc5_classes"
  bottom: "label"
  top: "accuracy_5"
  accuracy_param {
    top_k: 5
  }
}
layer {
  name: "silence"
  type: "Silence"
  bottom: "accuracy_1"
  bottom: "accuracy_5"
}
I0414 08:56:46.851047 31061 layer_factory.hpp:77] Creating layer data
I0414 08:56:46.852332 31061 net.cpp:100] Creating Layer data
I0414 08:56:46.852350 31061 net.cpp:408] data -> data
I0414 08:56:46.852377 31061 net.cpp:408] data -> label
I0414 08:56:46.857245 31178 db_lmdb.cpp:35] Opened lmdb ../local_data/lmdb/rtsd-r3/CoNorm/train/lmdb
I0414 08:56:46.877823 31061 data_layer.cpp:41] output data size: 1024,3,48,48
I0414 08:56:46.940007 31061 net.cpp:150] Setting up data
I0414 08:56:46.940037 31061 net.cpp:157] Top shape: 1024 3 48 48 (7077888)
I0414 08:56:46.940043 31061 net.cpp:157] Top shape: 1024 (1024)
I0414 08:56:46.940047 31061 net.cpp:165] Memory required for data: 28315648
I0414 08:56:46.940057 31061 layer_factory.hpp:77] Creating layer label_data_1_split
I0414 08:56:46.940073 31061 net.cpp:100] Creating Layer label_data_1_split
I0414 08:56:46.940078 31061 net.cpp:434] label_data_1_split <- label
I0414 08:56:46.940091 31061 net.cpp:408] label_data_1_split -> label_data_1_split_0
I0414 08:56:46.940104 31061 net.cpp:408] label_data_1_split -> label_data_1_split_1
I0414 08:56:46.940114 31061 net.cpp:408] label_data_1_split -> label_data_1_split_2
I0414 08:56:46.940188 31061 net.cpp:150] Setting up label_data_1_split
I0414 08:56:46.940197 31061 net.cpp:157] Top shape: 1024 (1024)
I0414 08:56:46.940201 31061 net.cpp:157] Top shape: 1024 (1024)
I0414 08:56:46.940204 31061 net.cpp:157] Top shape: 1024 (1024)
I0414 08:56:46.940207 31061 net.cpp:165] Memory required for data: 28327936
I0414 08:56:46.940210 31061 layer_factory.hpp:77] Creating layer conv1
I0414 08:56:46.940228 31061 net.cpp:100] Creating Layer conv1
I0414 08:56:46.940234 31061 net.cpp:434] conv1 <- data
I0414 08:56:46.940243 31061 net.cpp:408] conv1 -> conv1
I0414 08:56:47.354727 31061 net.cpp:150] Setting up conv1
I0414 08:56:47.354759 31061 net.cpp:157] Top shape: 1024 100 42 42 (180633600)
I0414 08:56:47.354764 31061 net.cpp:165] Memory required for data: 750862336
I0414 08:56:47.354789 31061 layer_factory.hpp:77] Creating layer conv1_prescale
I0414 08:56:47.354805 31061 net.cpp:100] Creating Layer conv1_prescale
I0414 08:56:47.354812 31061 net.cpp:434] conv1_prescale <- conv1
I0414 08:56:47.354821 31061 net.cpp:395] conv1_prescale -> conv1 (in-place)
I0414 08:56:47.354948 31061 net.cpp:150] Setting up conv1_prescale
I0414 08:56:47.354959 31061 net.cpp:157] Top shape: 1024 100 42 42 (180633600)
I0414 08:56:47.354964 31061 net.cpp:165] Memory required for data: 1473396736
I0414 08:56:47.354972 31061 layer_factory.hpp:77] Creating layer conv1_sTanH
I0414 08:56:47.354984 31061 net.cpp:100] Creating Layer conv1_sTanH
I0414 08:56:47.354990 31061 net.cpp:434] conv1_sTanH <- conv1
I0414 08:56:47.354995 31061 net.cpp:395] conv1_sTanH -> conv1 (in-place)
I0414 08:56:47.355223 31061 net.cpp:150] Setting up conv1_sTanH
I0414 08:56:47.355259 31061 net.cpp:157] Top shape: 1024 100 42 42 (180633600)
I0414 08:56:47.355264 31061 net.cpp:165] Memory required for data: 2195931136
I0414 08:56:47.355269 31061 layer_factory.hpp:77] Creating layer conv1_postscale
I0414 08:56:47.355278 31061 net.cpp:100] Creating Layer conv1_postscale
I0414 08:56:47.355283 31061 net.cpp:434] conv1_postscale <- conv1
I0414 08:56:47.355289 31061 net.cpp:395] conv1_postscale -> conv1 (in-place)
I0414 08:56:47.355406 31061 net.cpp:150] Setting up conv1_postscale
I0414 08:56:47.355415 31061 net.cpp:157] Top shape: 1024 100 42 42 (180633600)
I0414 08:56:47.355419 31061 net.cpp:165] Memory required for data: 2918465536
I0414 08:56:47.355425 31061 layer_factory.hpp:77] Creating layer pool1
I0414 08:56:47.355434 31061 net.cpp:100] Creating Layer pool1
I0414 08:56:47.355440 31061 net.cpp:434] pool1 <- conv1
I0414 08:56:47.355445 31061 net.cpp:408] pool1 -> pool1
I0414 08:56:47.355499 31061 net.cpp:150] Setting up pool1
I0414 08:56:47.355509 31061 net.cpp:157] Top shape: 1024 100 21 21 (45158400)
I0414 08:56:47.355515 31061 net.cpp:165] Memory required for data: 3099099136
I0414 08:56:47.355518 31061 layer_factory.hpp:77] Creating layer conv2
I0414 08:56:47.355530 31061 net.cpp:100] Creating Layer conv2
I0414 08:56:47.355536 31061 net.cpp:434] conv2 <- pool1
I0414 08:56:47.355542 31061 net.cpp:408] conv2 -> conv2
I0414 08:56:47.362864 31061 net.cpp:150] Setting up conv2
I0414 08:56:47.362884 31061 net.cpp:157] Top shape: 1024 150 18 18 (49766400)
I0414 08:56:47.362889 31061 net.cpp:165] Memory required for data: 3298164736
I0414 08:56:47.362900 31061 layer_factory.hpp:77] Creating layer conv2_prescale
I0414 08:56:47.362913 31061 net.cpp:100] Creating Layer conv2_prescale
I0414 08:56:47.362920 31061 net.cpp:434] conv2_prescale <- conv2
I0414 08:56:47.362926 31061 net.cpp:395] conv2_prescale -> conv2 (in-place)
I0414 08:56:47.363049 31061 net.cpp:150] Setting up conv2_prescale
I0414 08:56:47.363059 31061 net.cpp:157] Top shape: 1024 150 18 18 (49766400)
I0414 08:56:47.363064 31061 net.cpp:165] Memory required for data: 3497230336
I0414 08:56:47.363070 31061 layer_factory.hpp:77] Creating layer conv2_sTanH
I0414 08:56:47.363077 31061 net.cpp:100] Creating Layer conv2_sTanH
I0414 08:56:47.363081 31061 net.cpp:434] conv2_sTanH <- conv2
I0414 08:56:47.363086 31061 net.cpp:395] conv2_sTanH -> conv2 (in-place)
I0414 08:56:47.365581 31061 net.cpp:150] Setting up conv2_sTanH
I0414 08:56:47.365603 31061 net.cpp:157] Top shape: 1024 150 18 18 (49766400)
I0414 08:56:47.365608 31061 net.cpp:165] Memory required for data: 3696295936
I0414 08:56:47.365612 31061 layer_factory.hpp:77] Creating layer conv2_postscale
I0414 08:56:47.365622 31061 net.cpp:100] Creating Layer conv2_postscale
I0414 08:56:47.365627 31061 net.cpp:434] conv2_postscale <- conv2
I0414 08:56:47.365633 31061 net.cpp:395] conv2_postscale -> conv2 (in-place)
I0414 08:56:47.365749 31061 net.cpp:150] Setting up conv2_postscale
I0414 08:56:47.365761 31061 net.cpp:157] Top shape: 1024 150 18 18 (49766400)
I0414 08:56:47.365763 31061 net.cpp:165] Memory required for data: 3895361536
I0414 08:56:47.365770 31061 layer_factory.hpp:77] Creating layer pool2
I0414 08:56:47.365779 31061 net.cpp:100] Creating Layer pool2
I0414 08:56:47.365784 31061 net.cpp:434] pool2 <- conv2
I0414 08:56:47.365790 31061 net.cpp:408] pool2 -> pool2
I0414 08:56:47.365839 31061 net.cpp:150] Setting up pool2
I0414 08:56:47.365849 31061 net.cpp:157] Top shape: 1024 150 9 9 (12441600)
I0414 08:56:47.365851 31061 net.cpp:165] Memory required for data: 3945127936
I0414 08:56:47.365855 31061 layer_factory.hpp:77] Creating layer conv3
I0414 08:56:47.365864 31061 net.cpp:100] Creating Layer conv3
I0414 08:56:47.365872 31061 net.cpp:434] conv3 <- pool2
I0414 08:56:47.365878 31061 net.cpp:408] conv3 -> conv3
I0414 08:56:47.376962 31061 net.cpp:150] Setting up conv3
I0414 08:56:47.376986 31061 net.cpp:157] Top shape: 1024 250 6 6 (9216000)
I0414 08:56:47.376991 31061 net.cpp:165] Memory required for data: 3981991936
I0414 08:56:47.377004 31061 layer_factory.hpp:77] Creating layer conv3_prescale
I0414 08:56:47.377030 31061 net.cpp:100] Creating Layer conv3_prescale
I0414 08:56:47.377038 31061 net.cpp:434] conv3_prescale <- conv3
I0414 08:56:47.377046 31061 net.cpp:395] conv3_prescale -> conv3 (in-place)
I0414 08:56:47.377166 31061 net.cpp:150] Setting up conv3_prescale
I0414 08:56:47.377177 31061 net.cpp:157] Top shape: 1024 250 6 6 (9216000)
I0414 08:56:47.377182 31061 net.cpp:165] Memory required for data: 4018855936
I0414 08:56:47.377187 31061 layer_factory.hpp:77] Creating layer conv3_sTanH
I0414 08:56:47.377195 31061 net.cpp:100] Creating Layer conv3_sTanH
I0414 08:56:47.377200 31061 net.cpp:434] conv3_sTanH <- conv3
I0414 08:56:47.377209 31061 net.cpp:395] conv3_sTanH -> conv3 (in-place)
I0414 08:56:47.385442 31061 net.cpp:150] Setting up conv3_sTanH
I0414 08:56:47.385466 31061 net.cpp:157] Top shape: 1024 250 6 6 (9216000)
I0414 08:56:47.385471 31061 net.cpp:165] Memory required for data: 4055719936
I0414 08:56:47.385475 31061 layer_factory.hpp:77] Creating layer conv3_postscale
I0414 08:56:47.385486 31061 net.cpp:100] Creating Layer conv3_postscale
I0414 08:56:47.385491 31061 net.cpp:434] conv3_postscale <- conv3
I0414 08:56:47.385499 31061 net.cpp:395] conv3_postscale -> conv3 (in-place)
I0414 08:56:47.385627 31061 net.cpp:150] Setting up conv3_postscale
I0414 08:56:47.385637 31061 net.cpp:157] Top shape: 1024 250 6 6 (9216000)
I0414 08:56:47.385643 31061 net.cpp:165] Memory required for data: 4092583936
I0414 08:56:47.385648 31061 layer_factory.hpp:77] Creating layer pool3
I0414 08:56:47.385661 31061 net.cpp:100] Creating Layer pool3
I0414 08:56:47.385668 31061 net.cpp:434] pool3 <- conv3
I0414 08:56:47.385674 31061 net.cpp:408] pool3 -> pool3
I0414 08:56:47.385725 31061 net.cpp:150] Setting up pool3
I0414 08:56:47.385733 31061 net.cpp:157] Top shape: 1024 250 3 3 (2304000)
I0414 08:56:47.385737 31061 net.cpp:165] Memory required for data: 4101799936
I0414 08:56:47.385740 31061 layer_factory.hpp:77] Creating layer fc4_300
I0414 08:56:47.385748 31061 net.cpp:100] Creating Layer fc4_300
I0414 08:56:47.385753 31061 net.cpp:434] fc4_300 <- pool3
I0414 08:56:47.385762 31061 net.cpp:408] fc4_300 -> fc4_300
I0414 08:56:47.392834 31061 net.cpp:150] Setting up fc4_300
I0414 08:56:47.392859 31061 net.cpp:157] Top shape: 1024 300 (307200)
I0414 08:56:47.392864 31061 net.cpp:165] Memory required for data: 4103028736
I0414 08:56:47.392874 31061 layer_factory.hpp:77] Creating layer fc4_prescale
I0414 08:56:47.392885 31061 net.cpp:100] Creating Layer fc4_prescale
I0414 08:56:47.392891 31061 net.cpp:434] fc4_prescale <- fc4_300
I0414 08:56:47.392900 31061 net.cpp:395] fc4_prescale -> fc4_300 (in-place)
I0414 08:56:47.393014 31061 net.cpp:150] Setting up fc4_prescale
I0414 08:56:47.393023 31061 net.cpp:157] Top shape: 1024 300 (307200)
I0414 08:56:47.393028 31061 net.cpp:165] Memory required for data: 4104257536
I0414 08:56:47.393033 31061 layer_factory.hpp:77] Creating layer fc4_sTanH
I0414 08:56:47.393039 31061 net.cpp:100] Creating Layer fc4_sTanH
I0414 08:56:47.393043 31061 net.cpp:434] fc4_sTanH <- fc4_300
I0414 08:56:47.393049 31061 net.cpp:395] fc4_sTanH -> fc4_300 (in-place)
I0414 08:56:47.393296 31061 net.cpp:150] Setting up fc4_sTanH
I0414 08:56:47.393309 31061 net.cpp:157] Top shape: 1024 300 (307200)
I0414 08:56:47.393312 31061 net.cpp:165] Memory required for data: 4105486336
I0414 08:56:47.393316 31061 layer_factory.hpp:77] Creating layer fc4_postscale
I0414 08:56:47.393324 31061 net.cpp:100] Creating Layer fc4_postscale
I0414 08:56:47.393328 31061 net.cpp:434] fc4_postscale <- fc4_300
I0414 08:56:47.393337 31061 net.cpp:395] fc4_postscale -> fc4_300 (in-place)
I0414 08:56:47.393456 31061 net.cpp:150] Setting up fc4_postscale
I0414 08:56:47.393467 31061 net.cpp:157] Top shape: 1024 300 (307200)
I0414 08:56:47.393471 31061 net.cpp:165] Memory required for data: 4106715136
I0414 08:56:47.393476 31061 layer_factory.hpp:77] Creating layer fc5_106
I0414 08:56:47.393483 31061 net.cpp:100] Creating Layer fc5_106
I0414 08:56:47.393488 31061 net.cpp:434] fc5_106 <- fc4_300
I0414 08:56:47.393494 31061 net.cpp:408] fc5_106 -> fc5_classes
I0414 08:56:47.395408 31061 net.cpp:150] Setting up fc5_106
I0414 08:56:47.395426 31061 net.cpp:157] Top shape: 1024 106 (108544)
I0414 08:56:47.395431 31061 net.cpp:165] Memory required for data: 4107149312
I0414 08:56:47.395444 31061 layer_factory.hpp:77] Creating layer fc5_classes_fc5_106_0_split
I0414 08:56:47.395454 31061 net.cpp:100] Creating Layer fc5_classes_fc5_106_0_split
I0414 08:56:47.395460 31061 net.cpp:434] fc5_classes_fc5_106_0_split <- fc5_classes
I0414 08:56:47.395469 31061 net.cpp:408] fc5_classes_fc5_106_0_split -> fc5_classes_fc5_106_0_split_0
I0414 08:56:47.395480 31061 net.cpp:408] fc5_classes_fc5_106_0_split -> fc5_classes_fc5_106_0_split_1
I0414 08:56:47.395489 31061 net.cpp:408] fc5_classes_fc5_106_0_split -> fc5_classes_fc5_106_0_split_2
I0414 08:56:47.395553 31061 net.cpp:150] Setting up fc5_classes_fc5_106_0_split
I0414 08:56:47.395562 31061 net.cpp:157] Top shape: 1024 106 (108544)
I0414 08:56:47.395568 31061 net.cpp:157] Top shape: 1024 106 (108544)
I0414 08:56:47.395572 31061 net.cpp:157] Top shape: 1024 106 (108544)
I0414 08:56:47.395576 31061 net.cpp:165] Memory required for data: 4108451840
I0414 08:56:47.395579 31061 layer_factory.hpp:77] Creating layer softmax
I0414 08:56:47.395586 31061 net.cpp:100] Creating Layer softmax
I0414 08:56:47.395591 31061 net.cpp:434] softmax <- fc5_classes_fc5_106_0_split_0
I0414 08:56:47.395601 31061 net.cpp:408] softmax -> softmax
I0414 08:56:47.395928 31061 net.cpp:150] Setting up softmax
I0414 08:56:47.395943 31061 net.cpp:157] Top shape: 1024 106 (108544)
I0414 08:56:47.395948 31061 net.cpp:165] Memory required for data: 4108886016
I0414 08:56:47.395952 31061 layer_factory.hpp:77] Creating layer loss
I0414 08:56:47.395961 31061 net.cpp:100] Creating Layer loss
I0414 08:56:47.395967 31061 net.cpp:434] loss <- softmax
I0414 08:56:47.395972 31061 net.cpp:434] loss <- label_data_1_split_0
I0414 08:56:47.395980 31061 net.cpp:408] loss -> loss
…
