…
I0528 21:10:46.363544 31984 solver.cpp:81] Creating training net from train_net file: ./Prototxt/experiment_22/RTSD/CoNorm/trial_2/train.prototxt
I0528 21:10:46.364007 31984 net.cpp:58] Initializing net from parameters: 
state {
  phase: TRAIN
  level: 0
  stage: ""
}
layer {
  name: "data"
  type: "Data"
  top: "data"
  top: "label"
  include {
    phase: TRAIN
  }
  transform_param {
    scale: 0.0039215689
    mirror: false
    crop_size: 48
    mean_value: 135
    mean_value: 135
    mean_value: 134
  }
  data_param {
    source: "../local_data/lmdb/RTSD/CoNorm/train/lmdb"
    batch_size: 1024
    backend: LMDB
  }
}
layer {
  name: "conv1"
  type: "Convolution"
  bottom: "data"
  top: "conv1"
  convolution_param {
    num_output: 100
    pad: 0
    kernel_size: 7
    group: 1
    stride: 1
    weight_filler {
      type: "xavier"
    }
  }
}
layer {
  name: "conv1_relu"
  type: "ReLU"
  bottom: "conv1"
  top: "conv1"
}
layer {
  name: "pool1"
  type: "Pooling"
  bottom: "conv1"
  top: "pool1"
  pooling_param {
    pool: MAX
    kernel_size: 2
    stride: 2
  }
}
layer {
  name: "conv2"
  type: "Convolution"
  bottom: "pool1"
  top: "conv2"
  convolution_param {
    num_output: 150
    pad: 0
    kernel_size: 4
    group: 1
    stride: 1
    weight_filler {
      type: "xavier"
    }
  }
}
layer {
  name: "conv2_relu"
  type: "ReLU"
  bottom: "conv2"
  top: "conv2"
}
layer {
  name: "pool2"
  type: "Pooling"
  bottom: "conv2"
  top: "pool2"
  pooling_param {
    pool: MAX
    kernel_size: 2
    stride: 2
  }
}
layer {
  name: "conv3"
  type: "Convolution"
  bottom: "pool2"
  top: "conv3"
  convolution_param {
    num_output: 250
    pad: 0
    kernel_size: 4
    group: 1
    stride: 1
    weight_filler {
      type: "xavier"
    }
  }
}
layer {
  name: "conv3_relu"
  type: "ReLU"
  bottom: "conv3"
  top: "conv3"
}
layer {
  name: "pool3"
  type: "Pooling"
  bottom: "conv3"
  top: "pool3"
  pooling_param {
    pool: MAX
    kernel_size: 2
    stride: 2
  }
}
layer {
  name: "fc4_300"
  type: "InnerProduct"
  bottom: "pool3"
  top: "fc4_300"
  inner_product_param {
    num_output: 300
    weight_filler {
      type: "xavier"
    }
  }
}
layer {
  name: "fc4_relu"
  type: "ReLU"
  bottom: "fc4_300"
  top: "fc4_300"
}
layer {
  name: "fc5_116"
  type: "InnerProduct"
  bottom: "fc4_300"
  top: "fc5_classes"
  inner_product_param {
    num_output: 116
    weight_filler {
      type: "xavier"
    }
  }
}
layer {
  name: "softmax"
  type: "Softmax"
  bottom: "fc5_classes"
  top: "softmax"
}
layer {
  name: "loss"
  type: "MultinomialLogisticLoss"
  bottom: "softmax"
  bottom: "label"
  top: "loss"
}
layer {
  name: "accuracy_1"
  type: "Accuracy"
  bottom: "fc5_classes"
  bottom: "label"
  top: "accuracy_1"
  accuracy_param {
    top_k: 1
  }
}
layer {
  name: "accuracy_5"
  type: "Accuracy"
  bottom: "fc5_classes"
  bottom: "label"
  top: "accuracy_5"
  accuracy_param {
    top_k: 5
  }
}
layer {
  name: "silence"
  type: "Silence"
  bottom: "accuracy_1"
  bottom: "accuracy_5"
}
I0528 21:10:46.365140 31984 layer_factory.hpp:77] Creating layer data
I0528 21:10:46.366080 31984 net.cpp:100] Creating Layer data
I0528 21:10:46.366097 31984 net.cpp:408] data -> data
I0528 21:10:46.366124 31984 net.cpp:408] data -> label
I0528 21:10:46.368886 32022 db_lmdb.cpp:35] Opened lmdb ../local_data/lmdb/RTSD/CoNorm/train/lmdb
I0528 21:10:46.404362 31984 data_layer.cpp:41] output data size: 1024,3,48,48
I0528 21:10:46.465009 31984 net.cpp:150] Setting up data
I0528 21:10:46.465064 31984 net.cpp:157] Top shape: 1024 3 48 48 (7077888)
I0528 21:10:46.465075 31984 net.cpp:157] Top shape: 1024 (1024)
I0528 21:10:46.465082 31984 net.cpp:165] Memory required for data: 28315648
I0528 21:10:46.465095 31984 layer_factory.hpp:77] Creating layer label_data_1_split
I0528 21:10:46.465132 31984 net.cpp:100] Creating Layer label_data_1_split
I0528 21:10:46.465158 31984 net.cpp:434] label_data_1_split <- label
I0528 21:10:46.465188 31984 net.cpp:408] label_data_1_split -> label_data_1_split_0
I0528 21:10:46.465216 31984 net.cpp:408] label_data_1_split -> label_data_1_split_1
I0528 21:10:46.465245 31984 net.cpp:408] label_data_1_split -> label_data_1_split_2
I0528 21:10:46.465317 31984 net.cpp:150] Setting up label_data_1_split
I0528 21:10:46.465343 31984 net.cpp:157] Top shape: 1024 (1024)
I0528 21:10:46.465363 31984 net.cpp:157] Top shape: 1024 (1024)
I0528 21:10:46.465385 31984 net.cpp:157] Top shape: 1024 (1024)
I0528 21:10:46.465407 31984 net.cpp:165] Memory required for data: 28327936
I0528 21:10:46.465430 31984 layer_factory.hpp:77] Creating layer conv1
I0528 21:10:46.465466 31984 net.cpp:100] Creating Layer conv1
I0528 21:10:46.465487 31984 net.cpp:434] conv1 <- data
I0528 21:10:46.465510 31984 net.cpp:408] conv1 -> conv1
I0528 21:10:46.750483 31984 net.cpp:150] Setting up conv1
I0528 21:10:46.750514 31984 net.cpp:157] Top shape: 1024 100 42 42 (180633600)
I0528 21:10:46.750522 31984 net.cpp:165] Memory required for data: 750862336
I0528 21:10:46.750545 31984 layer_factory.hpp:77] Creating layer conv1_relu
I0528 21:10:46.750566 31984 net.cpp:100] Creating Layer conv1_relu
I0528 21:10:46.750572 31984 net.cpp:434] conv1_relu <- conv1
I0528 21:10:46.750581 31984 net.cpp:395] conv1_relu -> conv1 (in-place)
I0528 21:10:46.750807 31984 net.cpp:150] Setting up conv1_relu
I0528 21:10:46.750847 31984 net.cpp:157] Top shape: 1024 100 42 42 (180633600)
I0528 21:10:46.750870 31984 net.cpp:165] Memory required for data: 1473396736
I0528 21:10:46.750890 31984 layer_factory.hpp:77] Creating layer pool1
I0528 21:10:46.750917 31984 net.cpp:100] Creating Layer pool1
I0528 21:10:46.750941 31984 net.cpp:434] pool1 <- conv1
I0528 21:10:46.750962 31984 net.cpp:408] pool1 -> pool1
I0528 21:10:46.751039 31984 net.cpp:150] Setting up pool1
I0528 21:10:46.751075 31984 net.cpp:157] Top shape: 1024 100 21 21 (45158400)
I0528 21:10:46.751101 31984 net.cpp:165] Memory required for data: 1654030336
I0528 21:10:46.751132 31984 layer_factory.hpp:77] Creating layer conv2
I0528 21:10:46.751168 31984 net.cpp:100] Creating Layer conv2
I0528 21:10:46.751196 31984 net.cpp:434] conv2 <- pool1
I0528 21:10:46.751224 31984 net.cpp:408] conv2 -> conv2
I0528 21:10:46.762444 31984 net.cpp:150] Setting up conv2
I0528 21:10:46.762478 31984 net.cpp:157] Top shape: 1024 150 18 18 (49766400)
I0528 21:10:46.762485 31984 net.cpp:165] Memory required for data: 1853095936
I0528 21:10:46.762503 31984 layer_factory.hpp:77] Creating layer conv2_relu
I0528 21:10:46.762518 31984 net.cpp:100] Creating Layer conv2_relu
I0528 21:10:46.762528 31984 net.cpp:434] conv2_relu <- conv2
I0528 21:10:46.762538 31984 net.cpp:395] conv2_relu -> conv2 (in-place)
I0528 21:10:46.762758 31984 net.cpp:150] Setting up conv2_relu
I0528 21:10:46.762792 31984 net.cpp:157] Top shape: 1024 150 18 18 (49766400)
I0528 21:10:46.762814 31984 net.cpp:165] Memory required for data: 2052161536
I0528 21:10:46.762830 31984 layer_factory.hpp:77] Creating layer pool2
I0528 21:10:46.762852 31984 net.cpp:100] Creating Layer pool2
I0528 21:10:46.762872 31984 net.cpp:434] pool2 <- conv2
I0528 21:10:46.762899 31984 net.cpp:408] pool2 -> pool2
I0528 21:10:46.762967 31984 net.cpp:150] Setting up pool2
I0528 21:10:46.763003 31984 net.cpp:157] Top shape: 1024 150 9 9 (12441600)
I0528 21:10:46.763026 31984 net.cpp:165] Memory required for data: 2101927936
I0528 21:10:46.763046 31984 layer_factory.hpp:77] Creating layer conv3
I0528 21:10:46.763082 31984 net.cpp:100] Creating Layer conv3
I0528 21:10:46.763106 31984 net.cpp:434] conv3 <- pool2
I0528 21:10:46.763137 31984 net.cpp:408] conv3 -> conv3
I0528 21:10:46.768368 31984 net.cpp:150] Setting up conv3
I0528 21:10:46.768388 31984 net.cpp:157] Top shape: 1024 250 6 6 (9216000)
I0528 21:10:46.768393 31984 net.cpp:165] Memory required for data: 2138791936
I0528 21:10:46.768404 31984 layer_factory.hpp:77] Creating layer conv3_relu
I0528 21:10:46.768419 31984 net.cpp:100] Creating Layer conv3_relu
I0528 21:10:46.768429 31984 net.cpp:434] conv3_relu <- conv3
I0528 21:10:46.768438 31984 net.cpp:395] conv3_relu -> conv3 (in-place)
I0528 21:10:46.768971 31984 net.cpp:150] Setting up conv3_relu
I0528 21:10:46.768993 31984 net.cpp:157] Top shape: 1024 250 6 6 (9216000)
I0528 21:10:46.769001 31984 net.cpp:165] Memory required for data: 2175655936
I0528 21:10:46.769009 31984 layer_factory.hpp:77] Creating layer pool3
I0528 21:10:46.769033 31984 net.cpp:100] Creating Layer pool3
I0528 21:10:46.769040 31984 net.cpp:434] pool3 <- conv3
I0528 21:10:46.769049 31984 net.cpp:408] pool3 -> pool3
I0528 21:10:46.769105 31984 net.cpp:150] Setting up pool3
I0528 21:10:46.769119 31984 net.cpp:157] Top shape: 1024 250 3 3 (2304000)
I0528 21:10:46.769124 31984 net.cpp:165] Memory required for data: 2184871936
I0528 21:10:46.769131 31984 layer_factory.hpp:77] Creating layer fc4_300
I0528 21:10:46.769143 31984 net.cpp:100] Creating Layer fc4_300
I0528 21:10:46.769150 31984 net.cpp:434] fc4_300 <- pool3
I0528 21:10:46.769163 31984 net.cpp:408] fc4_300 -> fc4_300
I0528 21:10:46.773847 31984 net.cpp:150] Setting up fc4_300
I0528 21:10:46.773875 31984 net.cpp:157] Top shape: 1024 300 (307200)
I0528 21:10:46.773880 31984 net.cpp:165] Memory required for data: 2186100736
I0528 21:10:46.773890 31984 layer_factory.hpp:77] Creating layer fc4_relu
I0528 21:10:46.773900 31984 net.cpp:100] Creating Layer fc4_relu
I0528 21:10:46.773907 31984 net.cpp:434] fc4_relu <- fc4_300
I0528 21:10:46.773928 31984 net.cpp:395] fc4_relu -> fc4_300 (in-place)
I0528 21:10:46.774152 31984 net.cpp:150] Setting up fc4_relu
I0528 21:10:46.774168 31984 net.cpp:157] Top shape: 1024 300 (307200)
I0528 21:10:46.774174 31984 net.cpp:165] Memory required for data: 2187329536
I0528 21:10:46.774183 31984 layer_factory.hpp:77] Creating layer fc5_116
I0528 21:10:46.774199 31984 net.cpp:100] Creating Layer fc5_116
I0528 21:10:46.774214 31984 net.cpp:434] fc5_116 <- fc4_300
I0528 21:10:46.774230 31984 net.cpp:408] fc5_116 -> fc5_classes
I0528 21:10:46.775442 31984 net.cpp:150] Setting up fc5_116
I0528 21:10:46.775459 31984 net.cpp:157] Top shape: 1024 116 (118784)
I0528 21:10:46.775462 31984 net.cpp:165] Memory required for data: 2187804672
I0528 21:10:46.775473 31984 layer_factory.hpp:77] Creating layer fc5_classes_fc5_116_0_split
I0528 21:10:46.775481 31984 net.cpp:100] Creating Layer fc5_classes_fc5_116_0_split
I0528 21:10:46.775492 31984 net.cpp:434] fc5_classes_fc5_116_0_split <- fc5_classes
I0528 21:10:46.775506 31984 net.cpp:408] fc5_classes_fc5_116_0_split -> fc5_classes_fc5_116_0_split_0
I0528 21:10:46.775521 31984 net.cpp:408] fc5_classes_fc5_116_0_split -> fc5_classes_fc5_116_0_split_1
I0528 21:10:46.775534 31984 net.cpp:408] fc5_classes_fc5_116_0_split -> fc5_classes_fc5_116_0_split_2
I0528 21:10:46.775594 31984 net.cpp:150] Setting up fc5_classes_fc5_116_0_split
I0528 21:10:46.775610 31984 net.cpp:157] Top shape: 1024 116 (118784)
I0528 21:10:46.775620 31984 net.cpp:157] Top shape: 1024 116 (118784)
I0528 21:10:46.775630 31984 net.cpp:157] Top shape: 1024 116 (118784)
I0528 21:10:46.775640 31984 net.cpp:165] Memory required for data: 2189230080
I0528 21:10:46.775647 31984 layer_factory.hpp:77] Creating layer softmax
I0528 21:10:46.775655 31984 net.cpp:100] Creating Layer softmax
I0528 21:10:46.775665 31984 net.cpp:434] softmax <- fc5_classes_fc5_116_0_split_0
I0528 21:10:46.775676 31984 net.cpp:408] softmax -> softmax
I0528 21:10:46.775948 31984 net.cpp:150] Setting up softmax
I0528 21:10:46.775966 31984 net.cpp:157] Top shape: 1024 116 (118784)
I0528 21:10:46.775974 31984 net.cpp:165] Memory required for data: 2189705216
I0528 21:10:46.775985 31984 layer_factory.hpp:77] Creating layer loss
I0528 21:10:46.776017 31984 net.cpp:100] Creating Layer loss
I0528 21:10:46.776026 31984 net.cpp:434] loss <- softmax
I0528 21:10:46.776034 31984 net.cpp:434] loss <- label_data_1_split_0
I0528 21:10:46.776048 31984 net.cpp:408] loss -> loss
…
