…
I0414 16:56:08.685719 17965 solver.cpp:93] Creating training net from train_net file: ./Prototxt/experiment_11/rtsd-r3/imajust/trial_2/train.prototxt
I0414 16:56:08.704917 17965 net.cpp:58] Initializing net from parameters: 
state {
  phase: TRAIN
  level: 0
  stage: ""
}
layer {
  name: "data"
  type: "Data"
  top: "data"
  top: "label"
  include {
    phase: TRAIN
  }
  transform_param {
    scale: 0.0039215689
    mirror: false
    crop_size: 48
    mean_value: 118
    mean_value: 112
    mean_value: 112
  }
  data_param {
    source: "../local_data/lmdb/rtsd-r3/imajust/train/lmdb"
    batch_size: 1024
    backend: LMDB
  }
}
layer {
  name: "conv1"
  type: "Convolution"
  bottom: "data"
  top: "conv1"
  convolution_param {
    num_output: 100
    pad: 0
    kernel_size: 7
    group: 1
    stride: 1
    weight_filler {
      type: "xavier"
    }
  }
}
layer {
  name: "conv1_prescale"
  type: "Scale"
  bottom: "conv1"
  top: "conv1"
  param {
    lr_mult: 0
    decay_mult: 0
  }
  scale_param {
    filler {
      value: 0.6666
    }
    bias_term: false
  }
}
layer {
  name: "conv1_sTanH"
  type: "TanH"
  bottom: "conv1"
  top: "conv1"
}
layer {
  name: "conv1_postscale"
  type: "Scale"
  bottom: "conv1"
  top: "conv1"
  param {
    lr_mult: 0
    decay_mult: 0
  }
  scale_param {
    filler {
      value: 1.7159
    }
    bias_term: false
  }
}
layer {
  name: "pool1"
  type: "Pooling"
  bottom: "conv1"
  top: "pool1"
  pooling_param {
    pool: MAX
    kernel_size: 2
    stride: 2
  }
}
layer {
  name: "conv2"
  type: "Convolution"
  bottom: "pool1"
  top: "conv2"
  convolution_param {
    num_output: 150
    pad: 0
    kernel_size: 4
    group: 1
    stride: 1
    weight_filler {
      type: "xavier"
    }
  }
}
layer {
  name: "conv2_prescale"
  type: "Scale"
  bottom: "conv2"
  top: "conv2"
  param {
    lr_mult: 0
    decay_mult: 0
  }
  scale_param {
    filler {
      value: 0.6666
    }
    bias_term: false
  }
}
layer {
  name: "conv2_sTanH"
  type: "TanH"
  bottom: "conv2"
  top: "conv2"
}
layer {
  name: "conv2_postscale"
  type: "Scale"
  bottom: "conv2"
  top: "conv2"
  param {
    lr_mult: 0
    decay_mult: 0
  }
  scale_param {
    filler {
      value: 1.7159
    }
    bias_term: false
  }
}
layer {
  name: "pool2"
  type: "Pooling"
  bottom: "conv2"
  top: "pool2"
  pooling_param {
    pool: MAX
    kernel_size: 2
    stride: 2
  }
}
layer {
  name: "conv3"
  type: "Convolution"
  bottom: "pool2"
  top: "conv3"
  convolution_param {
    num_output: 250
    pad: 0
    kernel_size: 4
    group: 1
    stride: 1
    weight_filler {
      type: "xavier"
    }
  }
}
layer {
  name: "conv3_prescale"
  type: "Scale"
  bottom: "conv3"
  top: "conv3"
  param {
    lr_mult: 0
    decay_mult: 0
  }
  scale_param {
    filler {
      value: 0.6666
    }
    bias_term: false
  }
}
layer {
  name: "conv3_sTanH"
  type: "TanH"
  bottom: "conv3"
  top: "conv3"
}
layer {
  name: "conv3_postscale"
  type: "Scale"
  bottom: "conv3"
  top: "conv3"
  param {
    lr_mult: 0
    decay_mult: 0
  }
  scale_param {
    filler {
      value: 1.7159
    }
    bias_term: false
  }
}
layer {
  name: "pool3"
  type: "Pooling"
  bottom: "conv3"
  top: "pool3"
  pooling_param {
    pool: MAX
    kernel_size: 2
    stride: 2
  }
}
layer {
  name: "fc4_300"
  type: "InnerProduct"
  bottom: "pool3"
  top: "fc4_300"
  inner_product_param {
    num_output: 300
    weight_filler {
      type: "xavier"
    }
  }
}
layer {
  name: "fc4_prescale"
  type: "Scale"
  bottom: "fc4_300"
  top: "fc4_300"
  param {
    lr_mult: 0
    decay_mult: 0
  }
  scale_param {
    filler {
      value: 0.6666
    }
    bias_term: false
  }
}
layer {
  name: "fc4_sTanH"
  type: "TanH"
  bottom: "fc4_300"
  top: "fc4_300"
}
layer {
  name: "fc4_postscale"
  type: "Scale"
  bottom: "fc4_300"
  top: "fc4_300"
  param {
    lr_mult: 0
    decay_mult: 0
  }
  scale_param {
    filler {
      value: 1.7159
    }
    bias_term: false
  }
}
layer {
  name: "fc5_106"
  type: "InnerProduct"
  bottom: "fc4_300"
  top: "fc5_classes"
  inner_product_param {
    num_output: 106
    weight_filler {
      type: "xavier"
    }
  }
}
layer {
  name: "softmax"
  type: "Softmax"
  bottom: "fc5_classes"
  top: "softmax"
}
layer {
  name: "loss"
  type: "MultinomialLogisticLoss"
  bottom: "softmax"
  bottom: "label"
  top: "loss"
}
layer {
  name: "accuracy_1"
  type: "Accuracy"
  bottom: "fc5_classes"
  bottom: "label"
  top: "accuracy_1"
  accuracy_param {
    top_k: 1
  }
}
layer {
  name: "accuracy_5"
  type: "Accuracy"
  bottom: "fc5_classes"
  bottom: "label"
  top: "accuracy_5"
  accuracy_param {
    top_k: 5
  }
}
layer {
  name: "silence"
  type: "Silence"
  bottom: "accuracy_1"
  bottom: "accuracy_5"
}
I0414 16:56:08.705080 17965 layer_factory.hpp:77] Creating layer data
I0414 16:56:08.706141 17965 net.cpp:100] Creating Layer data
I0414 16:56:08.706158 17965 net.cpp:408] data -> data
I0414 16:56:08.706181 17965 net.cpp:408] data -> label
I0414 16:56:08.717983 18071 db_lmdb.cpp:35] Opened lmdb ../local_data/lmdb/rtsd-r3/imajust/train/lmdb
I0414 16:56:08.737459 17965 data_layer.cpp:41] output data size: 1024,3,48,48
I0414 16:56:08.807571 17965 net.cpp:150] Setting up data
I0414 16:56:08.807603 17965 net.cpp:157] Top shape: 1024 3 48 48 (7077888)
I0414 16:56:08.807608 17965 net.cpp:157] Top shape: 1024 (1024)
I0414 16:56:08.807611 17965 net.cpp:165] Memory required for data: 28315648
I0414 16:56:08.807622 17965 layer_factory.hpp:77] Creating layer label_data_1_split
I0414 16:56:08.807636 17965 net.cpp:100] Creating Layer label_data_1_split
I0414 16:56:08.807643 17965 net.cpp:434] label_data_1_split <- label
I0414 16:56:08.807657 17965 net.cpp:408] label_data_1_split -> label_data_1_split_0
I0414 16:56:08.807687 17965 net.cpp:408] label_data_1_split -> label_data_1_split_1
I0414 16:56:08.807695 17965 net.cpp:408] label_data_1_split -> label_data_1_split_2
I0414 16:56:08.807761 17965 net.cpp:150] Setting up label_data_1_split
I0414 16:56:08.807770 17965 net.cpp:157] Top shape: 1024 (1024)
I0414 16:56:08.807773 17965 net.cpp:157] Top shape: 1024 (1024)
I0414 16:56:08.807777 17965 net.cpp:157] Top shape: 1024 (1024)
I0414 16:56:08.807780 17965 net.cpp:165] Memory required for data: 28327936
I0414 16:56:08.807782 17965 layer_factory.hpp:77] Creating layer conv1
I0414 16:56:08.807798 17965 net.cpp:100] Creating Layer conv1
I0414 16:56:08.807803 17965 net.cpp:434] conv1 <- data
I0414 16:56:08.807809 17965 net.cpp:408] conv1 -> conv1
I0414 16:56:09.288763 17965 net.cpp:150] Setting up conv1
I0414 16:56:09.288789 17965 net.cpp:157] Top shape: 1024 100 42 42 (180633600)
I0414 16:56:09.288794 17965 net.cpp:165] Memory required for data: 750862336
I0414 16:56:09.288815 17965 layer_factory.hpp:77] Creating layer conv1_prescale
I0414 16:56:09.288828 17965 net.cpp:100] Creating Layer conv1_prescale
I0414 16:56:09.288839 17965 net.cpp:434] conv1_prescale <- conv1
I0414 16:56:09.288846 17965 net.cpp:395] conv1_prescale -> conv1 (in-place)
I0414 16:56:09.288954 17965 net.cpp:150] Setting up conv1_prescale
I0414 16:56:09.288964 17965 net.cpp:157] Top shape: 1024 100 42 42 (180633600)
I0414 16:56:09.288966 17965 net.cpp:165] Memory required for data: 1473396736
I0414 16:56:09.288974 17965 layer_factory.hpp:77] Creating layer conv1_sTanH
I0414 16:56:09.288982 17965 net.cpp:100] Creating Layer conv1_sTanH
I0414 16:56:09.288987 17965 net.cpp:434] conv1_sTanH <- conv1
I0414 16:56:09.288991 17965 net.cpp:395] conv1_sTanH -> conv1 (in-place)
I0414 16:56:09.289185 17965 net.cpp:150] Setting up conv1_sTanH
I0414 16:56:09.289217 17965 net.cpp:157] Top shape: 1024 100 42 42 (180633600)
I0414 16:56:09.289222 17965 net.cpp:165] Memory required for data: 2195931136
I0414 16:56:09.289227 17965 layer_factory.hpp:77] Creating layer conv1_postscale
I0414 16:56:09.289233 17965 net.cpp:100] Creating Layer conv1_postscale
I0414 16:56:09.289237 17965 net.cpp:434] conv1_postscale <- conv1
I0414 16:56:09.289242 17965 net.cpp:395] conv1_postscale -> conv1 (in-place)
I0414 16:56:09.289345 17965 net.cpp:150] Setting up conv1_postscale
I0414 16:56:09.289353 17965 net.cpp:157] Top shape: 1024 100 42 42 (180633600)
I0414 16:56:09.289357 17965 net.cpp:165] Memory required for data: 2918465536
I0414 16:56:09.289363 17965 layer_factory.hpp:77] Creating layer pool1
I0414 16:56:09.289371 17965 net.cpp:100] Creating Layer pool1
I0414 16:56:09.289374 17965 net.cpp:434] pool1 <- conv1
I0414 16:56:09.289379 17965 net.cpp:408] pool1 -> pool1
I0414 16:56:09.289427 17965 net.cpp:150] Setting up pool1
I0414 16:56:09.289434 17965 net.cpp:157] Top shape: 1024 100 21 21 (45158400)
I0414 16:56:09.289439 17965 net.cpp:165] Memory required for data: 3099099136
I0414 16:56:09.289443 17965 layer_factory.hpp:77] Creating layer conv2
I0414 16:56:09.289451 17965 net.cpp:100] Creating Layer conv2
I0414 16:56:09.289456 17965 net.cpp:434] conv2 <- pool1
I0414 16:56:09.289461 17965 net.cpp:408] conv2 -> conv2
I0414 16:56:09.301327 17965 net.cpp:150] Setting up conv2
I0414 16:56:09.301347 17965 net.cpp:157] Top shape: 1024 150 18 18 (49766400)
I0414 16:56:09.301350 17965 net.cpp:165] Memory required for data: 3298164736
I0414 16:56:09.301360 17965 layer_factory.hpp:77] Creating layer conv2_prescale
I0414 16:56:09.301373 17965 net.cpp:100] Creating Layer conv2_prescale
I0414 16:56:09.301378 17965 net.cpp:434] conv2_prescale <- conv2
I0414 16:56:09.301385 17965 net.cpp:395] conv2_prescale -> conv2 (in-place)
I0414 16:56:09.301502 17965 net.cpp:150] Setting up conv2_prescale
I0414 16:56:09.301512 17965 net.cpp:157] Top shape: 1024 150 18 18 (49766400)
I0414 16:56:09.301515 17965 net.cpp:165] Memory required for data: 3497230336
I0414 16:56:09.301520 17965 layer_factory.hpp:77] Creating layer conv2_sTanH
I0414 16:56:09.301528 17965 net.cpp:100] Creating Layer conv2_sTanH
I0414 16:56:09.301533 17965 net.cpp:434] conv2_sTanH <- conv2
I0414 16:56:09.301537 17965 net.cpp:395] conv2_sTanH -> conv2 (in-place)
I0414 16:56:09.302399 17965 net.cpp:150] Setting up conv2_sTanH
I0414 16:56:09.302414 17965 net.cpp:157] Top shape: 1024 150 18 18 (49766400)
I0414 16:56:09.302418 17965 net.cpp:165] Memory required for data: 3696295936
I0414 16:56:09.302422 17965 layer_factory.hpp:77] Creating layer conv2_postscale
I0414 16:56:09.302428 17965 net.cpp:100] Creating Layer conv2_postscale
I0414 16:56:09.302431 17965 net.cpp:434] conv2_postscale <- conv2
I0414 16:56:09.302438 17965 net.cpp:395] conv2_postscale -> conv2 (in-place)
I0414 16:56:09.302541 17965 net.cpp:150] Setting up conv2_postscale
I0414 16:56:09.302549 17965 net.cpp:157] Top shape: 1024 150 18 18 (49766400)
I0414 16:56:09.302552 17965 net.cpp:165] Memory required for data: 3895361536
I0414 16:56:09.302557 17965 layer_factory.hpp:77] Creating layer pool2
I0414 16:56:09.302563 17965 net.cpp:100] Creating Layer pool2
I0414 16:56:09.302567 17965 net.cpp:434] pool2 <- conv2
I0414 16:56:09.302572 17965 net.cpp:408] pool2 -> pool2
I0414 16:56:09.302618 17965 net.cpp:150] Setting up pool2
I0414 16:56:09.302625 17965 net.cpp:157] Top shape: 1024 150 9 9 (12441600)
I0414 16:56:09.302628 17965 net.cpp:165] Memory required for data: 3945127936
I0414 16:56:09.302631 17965 layer_factory.hpp:77] Creating layer conv3
I0414 16:56:09.302642 17965 net.cpp:100] Creating Layer conv3
I0414 16:56:09.302647 17965 net.cpp:434] conv3 <- pool2
I0414 16:56:09.302654 17965 net.cpp:408] conv3 -> conv3
I0414 16:56:09.308270 17965 net.cpp:150] Setting up conv3
I0414 16:56:09.308287 17965 net.cpp:157] Top shape: 1024 250 6 6 (9216000)
I0414 16:56:09.308291 17965 net.cpp:165] Memory required for data: 3981991936
I0414 16:56:09.308305 17965 layer_factory.hpp:77] Creating layer conv3_prescale
I0414 16:56:09.308327 17965 net.cpp:100] Creating Layer conv3_prescale
I0414 16:56:09.308334 17965 net.cpp:434] conv3_prescale <- conv3
I0414 16:56:09.308341 17965 net.cpp:395] conv3_prescale -> conv3 (in-place)
I0414 16:56:09.308441 17965 net.cpp:150] Setting up conv3_prescale
I0414 16:56:09.308451 17965 net.cpp:157] Top shape: 1024 250 6 6 (9216000)
I0414 16:56:09.308454 17965 net.cpp:165] Memory required for data: 4018855936
I0414 16:56:09.308459 17965 layer_factory.hpp:77] Creating layer conv3_sTanH
I0414 16:56:09.308465 17965 net.cpp:100] Creating Layer conv3_sTanH
I0414 16:56:09.308470 17965 net.cpp:434] conv3_sTanH <- conv3
I0414 16:56:09.308475 17965 net.cpp:395] conv3_sTanH -> conv3 (in-place)
I0414 16:56:09.309286 17965 net.cpp:150] Setting up conv3_sTanH
I0414 16:56:09.309304 17965 net.cpp:157] Top shape: 1024 250 6 6 (9216000)
I0414 16:56:09.309307 17965 net.cpp:165] Memory required for data: 4055719936
I0414 16:56:09.309311 17965 layer_factory.hpp:77] Creating layer conv3_postscale
I0414 16:56:09.309319 17965 net.cpp:100] Creating Layer conv3_postscale
I0414 16:56:09.309321 17965 net.cpp:434] conv3_postscale <- conv3
I0414 16:56:09.309329 17965 net.cpp:395] conv3_postscale -> conv3 (in-place)
I0414 16:56:09.309427 17965 net.cpp:150] Setting up conv3_postscale
I0414 16:56:09.309437 17965 net.cpp:157] Top shape: 1024 250 6 6 (9216000)
I0414 16:56:09.309439 17965 net.cpp:165] Memory required for data: 4092583936
I0414 16:56:09.309444 17965 layer_factory.hpp:77] Creating layer pool3
I0414 16:56:09.309456 17965 net.cpp:100] Creating Layer pool3
I0414 16:56:09.309461 17965 net.cpp:434] pool3 <- conv3
I0414 16:56:09.309466 17965 net.cpp:408] pool3 -> pool3
I0414 16:56:09.309506 17965 net.cpp:150] Setting up pool3
I0414 16:56:09.309514 17965 net.cpp:157] Top shape: 1024 250 3 3 (2304000)
I0414 16:56:09.309520 17965 net.cpp:165] Memory required for data: 4101799936
I0414 16:56:09.309521 17965 layer_factory.hpp:77] Creating layer fc4_300
I0414 16:56:09.309528 17965 net.cpp:100] Creating Layer fc4_300
I0414 16:56:09.309533 17965 net.cpp:434] fc4_300 <- pool3
I0414 16:56:09.309537 17965 net.cpp:408] fc4_300 -> fc4_300
I0414 16:56:09.315261 17965 net.cpp:150] Setting up fc4_300
I0414 16:56:09.315279 17965 net.cpp:157] Top shape: 1024 300 (307200)
I0414 16:56:09.315281 17965 net.cpp:165] Memory required for data: 4103028736
I0414 16:56:09.315289 17965 layer_factory.hpp:77] Creating layer fc4_prescale
I0414 16:56:09.315299 17965 net.cpp:100] Creating Layer fc4_prescale
I0414 16:56:09.315304 17965 net.cpp:434] fc4_prescale <- fc4_300
I0414 16:56:09.315310 17965 net.cpp:395] fc4_prescale -> fc4_300 (in-place)
I0414 16:56:09.315399 17965 net.cpp:150] Setting up fc4_prescale
I0414 16:56:09.315407 17965 net.cpp:157] Top shape: 1024 300 (307200)
I0414 16:56:09.315410 17965 net.cpp:165] Memory required for data: 4104257536
I0414 16:56:09.315415 17965 layer_factory.hpp:77] Creating layer fc4_sTanH
I0414 16:56:09.315420 17965 net.cpp:100] Creating Layer fc4_sTanH
I0414 16:56:09.315424 17965 net.cpp:434] fc4_sTanH <- fc4_300
I0414 16:56:09.315428 17965 net.cpp:395] fc4_sTanH -> fc4_300 (in-place)
I0414 16:56:09.315625 17965 net.cpp:150] Setting up fc4_sTanH
I0414 16:56:09.315637 17965 net.cpp:157] Top shape: 1024 300 (307200)
I0414 16:56:09.315642 17965 net.cpp:165] Memory required for data: 4105486336
I0414 16:56:09.315645 17965 layer_factory.hpp:77] Creating layer fc4_postscale
I0414 16:56:09.315652 17965 net.cpp:100] Creating Layer fc4_postscale
I0414 16:56:09.315657 17965 net.cpp:434] fc4_postscale <- fc4_300
I0414 16:56:09.315662 17965 net.cpp:395] fc4_postscale -> fc4_300 (in-place)
I0414 16:56:09.315770 17965 net.cpp:150] Setting up fc4_postscale
I0414 16:56:09.315778 17965 net.cpp:157] Top shape: 1024 300 (307200)
I0414 16:56:09.315781 17965 net.cpp:165] Memory required for data: 4106715136
I0414 16:56:09.315785 17965 layer_factory.hpp:77] Creating layer fc5_106
I0414 16:56:09.315793 17965 net.cpp:100] Creating Layer fc5_106
I0414 16:56:09.315799 17965 net.cpp:434] fc5_106 <- fc4_300
I0414 16:56:09.315804 17965 net.cpp:408] fc5_106 -> fc5_classes
I0414 16:56:09.317293 17965 net.cpp:150] Setting up fc5_106
I0414 16:56:09.317309 17965 net.cpp:157] Top shape: 1024 106 (108544)
I0414 16:56:09.317313 17965 net.cpp:165] Memory required for data: 4107149312
I0414 16:56:09.317324 17965 layer_factory.hpp:77] Creating layer fc5_classes_fc5_106_0_split
I0414 16:56:09.317333 17965 net.cpp:100] Creating Layer fc5_classes_fc5_106_0_split
I0414 16:56:09.317338 17965 net.cpp:434] fc5_classes_fc5_106_0_split <- fc5_classes
I0414 16:56:09.317344 17965 net.cpp:408] fc5_classes_fc5_106_0_split -> fc5_classes_fc5_106_0_split_0
I0414 16:56:09.317354 17965 net.cpp:408] fc5_classes_fc5_106_0_split -> fc5_classes_fc5_106_0_split_1
I0414 16:56:09.317363 17965 net.cpp:408] fc5_classes_fc5_106_0_split -> fc5_classes_fc5_106_0_split_2
I0414 16:56:09.317417 17965 net.cpp:150] Setting up fc5_classes_fc5_106_0_split
I0414 16:56:09.317426 17965 net.cpp:157] Top shape: 1024 106 (108544)
I0414 16:56:09.317431 17965 net.cpp:157] Top shape: 1024 106 (108544)
I0414 16:56:09.317435 17965 net.cpp:157] Top shape: 1024 106 (108544)
I0414 16:56:09.317437 17965 net.cpp:165] Memory required for data: 4108451840
I0414 16:56:09.317440 17965 layer_factory.hpp:77] Creating layer softmax
I0414 16:56:09.317446 17965 net.cpp:100] Creating Layer softmax
I0414 16:56:09.317451 17965 net.cpp:434] softmax <- fc5_classes_fc5_106_0_split_0
I0414 16:56:09.317456 17965 net.cpp:408] softmax -> softmax
I0414 16:56:09.317719 17965 net.cpp:150] Setting up softmax
I0414 16:56:09.317734 17965 net.cpp:157] Top shape: 1024 106 (108544)
I0414 16:56:09.317739 17965 net.cpp:165] Memory required for data: 4108886016
I0414 16:56:09.317741 17965 layer_factory.hpp:77] Creating layer loss
I0414 16:56:09.317749 17965 net.cpp:100] Creating Layer loss
I0414 16:56:09.317752 17965 net.cpp:434] loss <- softmax
I0414 16:56:09.317757 17965 net.cpp:434] loss <- label_data_1_split_0
I0414 16:56:09.317764 17965 net.cpp:408] loss -> loss
…
