…
I0506 23:34:34.018415 24772 solver.cpp:93] Creating training net from train_net file: ./Prototxt/experiment_14/RTSD/orig/trial_4/train.prototxt
I0506 23:34:34.018750 24772 net.cpp:58] Initializing net from parameters: 
state {
  phase: TRAIN
  level: 0
  stage: ""
}
layer {
  name: "data"
  type: "Data"
  top: "data"
  top: "label"
  include {
    phase: TRAIN
  }
  transform_param {
    scale: 0.0039215689
    mirror: false
    crop_size: 48
    mean_value: 119
    mean_value: 113
    mean_value: 113
  }
  data_param {
    source: "../local_data/lmdb/RTSD/orig/train/lmdb"
    batch_size: 512
    backend: LMDB
  }
}
layer {
  name: "conv1"
  type: "Convolution"
  bottom: "data"
  top: "conv1"
  convolution_param {
    num_output: 100
    pad: 0
    kernel_size: 7
    group: 1
    stride: 1
    weight_filler {
      type: "xavier"
    }
  }
}
layer {
  name: "conv1_relu"
  type: "ReLU"
  bottom: "conv1"
  top: "conv1"
}
layer {
  name: "pool1"
  type: "Pooling"
  bottom: "conv1"
  top: "pool1"
  pooling_param {
    pool: MAX
    kernel_size: 2
    stride: 2
  }
}
layer {
  name: "conv2"
  type: "Convolution"
  bottom: "pool1"
  top: "conv2"
  convolution_param {
    num_output: 150
    pad: 0
    kernel_size: 4
    group: 1
    stride: 1
    weight_filler {
      type: "xavier"
    }
  }
}
layer {
  name: "conv2_relu"
  type: "ReLU"
  bottom: "conv2"
  top: "conv2"
}
layer {
  name: "pool2"
  type: "Pooling"
  bottom: "conv2"
  top: "pool2"
  pooling_param {
    pool: MAX
    kernel_size: 2
    stride: 2
  }
}
layer {
  name: "conv3"
  type: "Convolution"
  bottom: "pool2"
  top: "conv3"
  convolution_param {
    num_output: 250
    pad: 0
    kernel_size: 4
    group: 1
    stride: 1
    weight_filler {
      type: "xavier"
    }
  }
}
layer {
  name: "conv3_relu"
  type: "ReLU"
  bottom: "conv3"
  top: "conv3"
}
layer {
  name: "pool3"
  type: "Pooling"
  bottom: "conv3"
  top: "pool3"
  pooling_param {
    pool: MAX
    kernel_size: 2
    stride: 2
  }
}
layer {
  name: "fc4_300"
  type: "InnerProduct"
  bottom: "pool3"
  top: "fc4_300"
  inner_product_param {
    num_output: 300
    weight_filler {
      type: "xavier"
    }
  }
}
layer {
  name: "fc4_relu"
  type: "ReLU"
  bottom: "fc4_300"
  top: "fc4_300"
}
layer {
  name: "fc5_116"
  type: "InnerProduct"
  bottom: "fc4_300"
  top: "fc5_classes"
  inner_product_param {
    num_output: 116
    weight_filler {
      type: "xavier"
    }
  }
}
layer {
  name: "softmax"
  type: "Softmax"
  bottom: "fc5_classes"
  top: "softmax"
}
layer {
  name: "loss"
  type: "MultinomialLogisticLoss"
  bottom: "softmax"
  bottom: "label"
  top: "loss"
}
layer {
  name: "accuracy_1"
  type: "Accuracy"
  bottom: "fc5_classes"
  bottom: "label"
  top: "accuracy_1"
  accuracy_param {
    top_k: 1
  }
}
layer {
  name: "accuracy_5"
  type: "Accuracy"
  bottom: "fc5_classes"
  bottom: "label"
  top: "accuracy_5"
  accuracy_param {
    top_k: 5
  }
}
layer {
  name: "silence"
  type: "Silence"
  bottom: "accuracy_1"
  bottom: "accuracy_5"
}
I0506 23:34:34.018867 24772 layer_factory.hpp:77] Creating layer data
I0506 23:34:34.019659 24772 net.cpp:100] Creating Layer data
I0506 23:34:34.019686 24772 net.cpp:408] data -> data
I0506 23:34:34.019717 24772 net.cpp:408] data -> label
I0506 23:34:34.024914 24934 db_lmdb.cpp:35] Opened lmdb ../local_data/lmdb/RTSD/orig/train/lmdb
I0506 23:34:34.042240 24772 data_layer.cpp:41] output data size: 512,3,48,48
I0506 23:34:34.079253 24772 net.cpp:150] Setting up data
I0506 23:34:34.079308 24772 net.cpp:157] Top shape: 512 3 48 48 (3538944)
I0506 23:34:34.079314 24772 net.cpp:157] Top shape: 512 (512)
I0506 23:34:34.079318 24772 net.cpp:165] Memory required for data: 14157824
I0506 23:34:34.079329 24772 layer_factory.hpp:77] Creating layer label_data_1_split
I0506 23:34:34.079342 24772 net.cpp:100] Creating Layer label_data_1_split
I0506 23:34:34.079349 24772 net.cpp:434] label_data_1_split <- label
I0506 23:34:34.079362 24772 net.cpp:408] label_data_1_split -> label_data_1_split_0
I0506 23:34:34.079373 24772 net.cpp:408] label_data_1_split -> label_data_1_split_1
I0506 23:34:34.079382 24772 net.cpp:408] label_data_1_split -> label_data_1_split_2
I0506 23:34:34.079485 24772 net.cpp:150] Setting up label_data_1_split
I0506 23:34:34.079495 24772 net.cpp:157] Top shape: 512 (512)
I0506 23:34:34.079499 24772 net.cpp:157] Top shape: 512 (512)
I0506 23:34:34.079502 24772 net.cpp:157] Top shape: 512 (512)
I0506 23:34:34.079505 24772 net.cpp:165] Memory required for data: 14163968
I0506 23:34:34.079509 24772 layer_factory.hpp:77] Creating layer conv1
I0506 23:34:34.079526 24772 net.cpp:100] Creating Layer conv1
I0506 23:34:34.079532 24772 net.cpp:434] conv1 <- data
I0506 23:34:34.079538 24772 net.cpp:408] conv1 -> conv1
I0506 23:34:34.583380 24772 net.cpp:150] Setting up conv1
I0506 23:34:34.583412 24772 net.cpp:157] Top shape: 512 100 42 42 (90316800)
I0506 23:34:34.583417 24772 net.cpp:165] Memory required for data: 375431168
I0506 23:34:34.583442 24772 layer_factory.hpp:77] Creating layer conv1_relu
I0506 23:34:34.583456 24772 net.cpp:100] Creating Layer conv1_relu
I0506 23:34:34.583461 24772 net.cpp:434] conv1_relu <- conv1
I0506 23:34:34.583467 24772 net.cpp:395] conv1_relu -> conv1 (in-place)
I0506 23:34:34.583706 24772 net.cpp:150] Setting up conv1_relu
I0506 23:34:34.583720 24772 net.cpp:157] Top shape: 512 100 42 42 (90316800)
I0506 23:34:34.583724 24772 net.cpp:165] Memory required for data: 736698368
I0506 23:34:34.583729 24772 layer_factory.hpp:77] Creating layer pool1
I0506 23:34:34.583740 24772 net.cpp:100] Creating Layer pool1
I0506 23:34:34.583746 24772 net.cpp:434] pool1 <- conv1
I0506 23:34:34.583752 24772 net.cpp:408] pool1 -> pool1
I0506 23:34:34.583818 24772 net.cpp:150] Setting up pool1
I0506 23:34:34.583828 24772 net.cpp:157] Top shape: 512 100 21 21 (22579200)
I0506 23:34:34.583833 24772 net.cpp:165] Memory required for data: 827015168
I0506 23:34:34.583837 24772 layer_factory.hpp:77] Creating layer conv2
I0506 23:34:34.583849 24772 net.cpp:100] Creating Layer conv2
I0506 23:34:34.583855 24772 net.cpp:434] conv2 <- pool1
I0506 23:34:34.583861 24772 net.cpp:408] conv2 -> conv2
I0506 23:34:34.598431 24772 net.cpp:150] Setting up conv2
I0506 23:34:34.598454 24772 net.cpp:157] Top shape: 512 150 18 18 (24883200)
I0506 23:34:34.598459 24772 net.cpp:165] Memory required for data: 926547968
I0506 23:34:34.598471 24772 layer_factory.hpp:77] Creating layer conv2_relu
I0506 23:34:34.598480 24772 net.cpp:100] Creating Layer conv2_relu
I0506 23:34:34.598484 24772 net.cpp:434] conv2_relu <- conv2
I0506 23:34:34.598492 24772 net.cpp:395] conv2_relu -> conv2 (in-place)
I0506 23:34:34.599928 24772 net.cpp:150] Setting up conv2_relu
I0506 23:34:34.599954 24772 net.cpp:157] Top shape: 512 150 18 18 (24883200)
I0506 23:34:34.599964 24772 net.cpp:165] Memory required for data: 1026080768
I0506 23:34:34.599974 24772 layer_factory.hpp:77] Creating layer pool2
I0506 23:34:34.599988 24772 net.cpp:100] Creating Layer pool2
I0506 23:34:34.599998 24772 net.cpp:434] pool2 <- conv2
I0506 23:34:34.600011 24772 net.cpp:408] pool2 -> pool2
I0506 23:34:34.600096 24772 net.cpp:150] Setting up pool2
I0506 23:34:34.600113 24772 net.cpp:157] Top shape: 512 150 9 9 (6220800)
I0506 23:34:34.600121 24772 net.cpp:165] Memory required for data: 1050963968
I0506 23:34:34.600129 24772 layer_factory.hpp:77] Creating layer conv3
I0506 23:34:34.600149 24772 net.cpp:100] Creating Layer conv3
I0506 23:34:34.600159 24772 net.cpp:434] conv3 <- pool2
I0506 23:34:34.600172 24772 net.cpp:408] conv3 -> conv3
I0506 23:34:34.608306 24772 net.cpp:150] Setting up conv3
I0506 23:34:34.608328 24772 net.cpp:157] Top shape: 512 250 6 6 (4608000)
I0506 23:34:34.608333 24772 net.cpp:165] Memory required for data: 1069395968
I0506 23:34:34.608346 24772 layer_factory.hpp:77] Creating layer conv3_relu
I0506 23:34:34.608355 24772 net.cpp:100] Creating Layer conv3_relu
I0506 23:34:34.608358 24772 net.cpp:434] conv3_relu <- conv3
I0506 23:34:34.608366 24772 net.cpp:395] conv3_relu -> conv3 (in-place)
I0506 23:34:34.617190 24772 net.cpp:150] Setting up conv3_relu
I0506 23:34:34.617213 24772 net.cpp:157] Top shape: 512 250 6 6 (4608000)
I0506 23:34:34.617218 24772 net.cpp:165] Memory required for data: 1087827968
I0506 23:34:34.617223 24772 layer_factory.hpp:77] Creating layer pool3
I0506 23:34:34.617231 24772 net.cpp:100] Creating Layer pool3
I0506 23:34:34.617236 24772 net.cpp:434] pool3 <- conv3
I0506 23:34:34.617244 24772 net.cpp:408] pool3 -> pool3
I0506 23:34:34.617303 24772 net.cpp:150] Setting up pool3
I0506 23:34:34.617313 24772 net.cpp:157] Top shape: 512 250 3 3 (1152000)
I0506 23:34:34.617318 24772 net.cpp:165] Memory required for data: 1092435968
I0506 23:34:34.617322 24772 layer_factory.hpp:77] Creating layer fc4_300
I0506 23:34:34.617331 24772 net.cpp:100] Creating Layer fc4_300
I0506 23:34:34.617336 24772 net.cpp:434] fc4_300 <- pool3
I0506 23:34:34.617342 24772 net.cpp:408] fc4_300 -> fc4_300
I0506 23:34:34.624748 24772 net.cpp:150] Setting up fc4_300
I0506 23:34:34.624769 24772 net.cpp:157] Top shape: 512 300 (153600)
I0506 23:34:34.624774 24772 net.cpp:165] Memory required for data: 1093050368
I0506 23:34:34.624783 24772 layer_factory.hpp:77] Creating layer fc4_relu
I0506 23:34:34.624792 24772 net.cpp:100] Creating Layer fc4_relu
I0506 23:34:34.624799 24772 net.cpp:434] fc4_relu <- fc4_300
I0506 23:34:34.624805 24772 net.cpp:395] fc4_relu -> fc4_300 (in-place)
I0506 23:34:34.625033 24772 net.cpp:150] Setting up fc4_relu
I0506 23:34:34.625047 24772 net.cpp:157] Top shape: 512 300 (153600)
I0506 23:34:34.625052 24772 net.cpp:165] Memory required for data: 1093664768
I0506 23:34:34.625057 24772 layer_factory.hpp:77] Creating layer fc5_116
I0506 23:34:34.625067 24772 net.cpp:100] Creating Layer fc5_116
I0506 23:34:34.625073 24772 net.cpp:434] fc5_116 <- fc4_300
I0506 23:34:34.625080 24772 net.cpp:408] fc5_116 -> fc5_classes
I0506 23:34:34.627192 24772 net.cpp:150] Setting up fc5_116
I0506 23:34:34.627213 24772 net.cpp:157] Top shape: 512 116 (59392)
I0506 23:34:34.627216 24772 net.cpp:165] Memory required for data: 1093902336
I0506 23:34:34.627229 24772 layer_factory.hpp:77] Creating layer fc5_classes_fc5_116_0_split
I0506 23:34:34.627240 24772 net.cpp:100] Creating Layer fc5_classes_fc5_116_0_split
I0506 23:34:34.627251 24772 net.cpp:434] fc5_classes_fc5_116_0_split <- fc5_classes
I0506 23:34:34.627259 24772 net.cpp:408] fc5_classes_fc5_116_0_split -> fc5_classes_fc5_116_0_split_0
I0506 23:34:34.627269 24772 net.cpp:408] fc5_classes_fc5_116_0_split -> fc5_classes_fc5_116_0_split_1
I0506 23:34:34.627279 24772 net.cpp:408] fc5_classes_fc5_116_0_split -> fc5_classes_fc5_116_0_split_2
I0506 23:34:34.627339 24772 net.cpp:150] Setting up fc5_classes_fc5_116_0_split
I0506 23:34:34.627348 24772 net.cpp:157] Top shape: 512 116 (59392)
I0506 23:34:34.627352 24772 net.cpp:157] Top shape: 512 116 (59392)
I0506 23:34:34.627357 24772 net.cpp:157] Top shape: 512 116 (59392)
I0506 23:34:34.627360 24772 net.cpp:165] Memory required for data: 1094615040
I0506 23:34:34.627364 24772 layer_factory.hpp:77] Creating layer softmax
I0506 23:34:34.627372 24772 net.cpp:100] Creating Layer softmax
I0506 23:34:34.627378 24772 net.cpp:434] softmax <- fc5_classes_fc5_116_0_split_0
I0506 23:34:34.627384 24772 net.cpp:408] softmax -> softmax
I0506 23:34:34.627687 24772 net.cpp:150] Setting up softmax
I0506 23:34:34.627701 24772 net.cpp:157] Top shape: 512 116 (59392)
I0506 23:34:34.627706 24772 net.cpp:165] Memory required for data: 1094852608
I0506 23:34:34.627710 24772 layer_factory.hpp:77] Creating layer loss
I0506 23:34:34.627720 24772 net.cpp:100] Creating Layer loss
I0506 23:34:34.627744 24772 net.cpp:434] loss <- softmax
I0506 23:34:34.627753 24772 net.cpp:434] loss <- label_data_1_split_0
I0506 23:34:34.627760 24772 net.cpp:408] loss -> loss
…
