…
I0411 06:50:02.404263 20966 net.cpp:322] The NetState phase (0) differed from the phase (1) specified by a rule in layer accuracy_5
I0411 06:50:02.404407 20966 net.cpp:58] Initializing net from parameters: 
state {
  phase: TRAIN
  level: 0
  stage: ""
}
layer {
  name: "data"
  type: "Data"
  top: "data"
  top: "label"
  include {
    phase: TRAIN
  }
  transform_param {
    scale: 0.0039215689
    mirror: false
    crop_size: 48
    mean_value: 130
    mean_value: 123
    mean_value: 137
  }
  data_param {
    source: "../local_data/lmdb/rtsd-r1/histeq/train/lmdb"
    batch_size: 1024
    backend: LMDB
  }
}
layer {
  name: "conv1"
  type: "Convolution"
  bottom: "data"
  top: "conv1"
  convolution_param {
    num_output: 100
    pad: 0
    kernel_size: 7
    group: 1
    stride: 1
    weight_filler {
      type: "xavier"
    }
  }
}
layer {
  name: "conv1_prescale"
  type: "Scale"
  bottom: "conv1"
  top: "conv1"
  param {
    lr_mult: 0
    decay_mult: 0
  }
  scale_param {
    filler {
      value: 0.6666
    }
    bias_term: false
  }
}
layer {
  name: "conv1_sTanH"
  type: "TanH"
  bottom: "conv1"
  top: "conv1"
}
layer {
  name: "conv1_postscale"
  type: "Scale"
  bottom: "conv1"
  top: "conv1"
  param {
    lr_mult: 0
    decay_mult: 0
  }
  scale_param {
    filler {
      value: 1.7159
    }
    bias_term: false
  }
}
layer {
  name: "pool1"
  type: "Pooling"
  bottom: "conv1"
  top: "pool1"
  pooling_param {
    pool: MAX
    kernel_size: 2
    stride: 2
  }
}
layer {
  name: "conv2"
  type: "Convolution"
  bottom: "pool1"
  top: "conv2"
  convolution_param {
    num_output: 150
    pad: 0
    kernel_size: 4
    group: 1
    stride: 1
    weight_filler {
      type: "xavier"
    }
  }
}
layer {
  name: "conv2_prescale"
  type: "Scale"
  bottom: "conv2"
  top: "conv2"
  param {
    lr_mult: 0
    decay_mult: 0
  }
  scale_param {
    filler {
      value: 0.6666
    }
    bias_term: false
  }
}
layer {
  name: "conv2_sTanH"
  type: "TanH"
  bottom: "conv2"
  top: "conv2"
}
layer {
  name: "conv2_postscale"
  type: "Scale"
  bottom: "conv2"
  top: "conv2"
  param {
    lr_mult: 0
    decay_mult: 0
  }
  scale_param {
    filler {
      value: 1.7159
    }
    bias_term: false
  }
}
layer {
  name: "pool2"
  type: "Pooling"
  bottom: "conv2"
  top: "pool2"
  pooling_param {
    pool: MAX
    kernel_size: 2
    stride: 2
  }
}
layer {
  name: "conv3"
  type: "Convolution"
  bottom: "pool2"
  top: "conv3"
  convolution_param {
    num_output: 250
    pad: 0
    kernel_size: 4
    group: 1
    stride: 1
    weight_filler {
      type: "xavier"
    }
  }
}
layer {
  name: "conv3_prescale"
  type: "Scale"
  bottom: "conv3"
  top: "conv3"
  param {
    lr_mult: 0
    decay_mult: 0
  }
  scale_param {
    filler {
      value: 0.6666
    }
    bias_term: false
  }
}
layer {
  name: "conv3_sTanH"
  type: "TanH"
  bottom: "conv3"
  top: "conv3"
}
layer {
  name: "conv3_postscale"
  type: "Scale"
  bottom: "conv3"
  top: "conv3"
  param {
    lr_mult: 0
    decay_mult: 0
  }
  scale_param {
    filler {
      value: 1.7159
    }
    bias_term: false
  }
}
layer {
  name: "pool3"
  type: "Pooling"
  bottom: "conv3"
  top: "pool3"
  pooling_param {
    pool: MAX
    kernel_size: 2
    stride: 2
  }
}
layer {
  name: "fc4_300"
  type: "InnerProduct"
  bottom: "pool3"
  top: "fc4_300"
  inner_product_param {
    num_output: 300
    weight_filler {
      type: "xavier"
    }
  }
}
layer {
  name: "fc4_prescale"
  type: "Scale"
  bottom: "fc4_300"
  top: "fc4_300"
  param {
    lr_mult: 0
    decay_mult: 0
  }
  scale_param {
    filler {
      value: 0.6666
    }
    bias_term: false
  }
}
layer {
  name: "fc4_sTanH"
  type: "TanH"
  bottom: "fc4_300"
  top: "fc4_300"
}
layer {
  name: "fc4_postscale"
  type: "Scale"
  bottom: "fc4_300"
  top: "fc4_300"
  param {
    lr_mult: 0
    decay_mult: 0
  }
  scale_param {
    filler {
      value: 1.7159
    }
    bias_term: false
  }
}
layer {
  name: "fc5_67"
  type: "InnerProduct"
  bottom: "fc4_300"
  top: "fc5_classes"
  inner_product_param {
    num_output: 67
    weight_filler {
      type: "xavier"
    }
  }
}
layer {
  name: "loss"
  type: "SoftmaxWithLoss"
  bottom: "fc5_classes"
  bottom: "label"
  top: "loss"
}
I0411 06:50:02.404508 20966 layer_factory.hpp:77] Creating layer data
I0411 06:50:02.405782 20966 net.cpp:100] Creating Layer data
I0411 06:50:02.405798 20966 net.cpp:408] data -> data
I0411 06:50:02.405823 20966 net.cpp:408] data -> label
I0411 06:50:02.407043 21070 db_lmdb.cpp:35] Opened lmdb ../local_data/lmdb/rtsd-r1/histeq/train/lmdb
I0411 06:50:02.423195 20966 data_layer.cpp:41] output data size: 1024,3,48,48
I0411 06:50:02.472120 20966 net.cpp:150] Setting up data
I0411 06:50:02.472163 20966 net.cpp:157] Top shape: 1024 3 48 48 (7077888)
I0411 06:50:02.472174 20966 net.cpp:157] Top shape: 1024 (1024)
I0411 06:50:02.472179 20966 net.cpp:165] Memory required for data: 28315648
I0411 06:50:02.472193 20966 layer_factory.hpp:77] Creating layer conv1
I0411 06:50:02.472226 20966 net.cpp:100] Creating Layer conv1
I0411 06:50:02.472239 20966 net.cpp:434] conv1 <- data
I0411 06:50:02.472260 20966 net.cpp:408] conv1 -> conv1
I0411 06:50:02.752638 20966 net.cpp:150] Setting up conv1
I0411 06:50:02.752677 20966 net.cpp:157] Top shape: 1024 100 42 42 (180633600)
I0411 06:50:02.752681 20966 net.cpp:165] Memory required for data: 750850048
I0411 06:50:02.752707 20966 layer_factory.hpp:77] Creating layer conv1_prescale
I0411 06:50:02.752722 20966 net.cpp:100] Creating Layer conv1_prescale
I0411 06:50:02.752727 20966 net.cpp:434] conv1_prescale <- conv1
I0411 06:50:02.752732 20966 net.cpp:395] conv1_prescale -> conv1 (in-place)
I0411 06:50:02.752841 20966 net.cpp:150] Setting up conv1_prescale
I0411 06:50:02.752851 20966 net.cpp:157] Top shape: 1024 100 42 42 (180633600)
I0411 06:50:02.752853 20966 net.cpp:165] Memory required for data: 1473384448
I0411 06:50:02.752861 20966 layer_factory.hpp:77] Creating layer conv1_sTanH
I0411 06:50:02.752868 20966 net.cpp:100] Creating Layer conv1_sTanH
I0411 06:50:02.752872 20966 net.cpp:434] conv1_sTanH <- conv1
I0411 06:50:02.752876 20966 net.cpp:395] conv1_sTanH -> conv1 (in-place)
I0411 06:50:02.753068 20966 net.cpp:150] Setting up conv1_sTanH
I0411 06:50:02.753080 20966 net.cpp:157] Top shape: 1024 100 42 42 (180633600)
I0411 06:50:02.753084 20966 net.cpp:165] Memory required for data: 2195918848
I0411 06:50:02.753088 20966 layer_factory.hpp:77] Creating layer conv1_postscale
I0411 06:50:02.753096 20966 net.cpp:100] Creating Layer conv1_postscale
I0411 06:50:02.753101 20966 net.cpp:434] conv1_postscale <- conv1
I0411 06:50:02.753106 20966 net.cpp:395] conv1_postscale -> conv1 (in-place)
I0411 06:50:02.753198 20966 net.cpp:150] Setting up conv1_postscale
I0411 06:50:02.753206 20966 net.cpp:157] Top shape: 1024 100 42 42 (180633600)
I0411 06:50:02.753209 20966 net.cpp:165] Memory required for data: 2918453248
I0411 06:50:02.753214 20966 layer_factory.hpp:77] Creating layer pool1
I0411 06:50:02.753221 20966 net.cpp:100] Creating Layer pool1
I0411 06:50:02.753226 20966 net.cpp:434] pool1 <- conv1
I0411 06:50:02.753231 20966 net.cpp:408] pool1 -> pool1
I0411 06:50:02.753276 20966 net.cpp:150] Setting up pool1
I0411 06:50:02.753283 20966 net.cpp:157] Top shape: 1024 100 21 21 (45158400)
I0411 06:50:02.753304 20966 net.cpp:165] Memory required for data: 3099086848
I0411 06:50:02.753309 20966 layer_factory.hpp:77] Creating layer conv2
I0411 06:50:02.753319 20966 net.cpp:100] Creating Layer conv2
I0411 06:50:02.753324 20966 net.cpp:434] conv2 <- pool1
I0411 06:50:02.753329 20966 net.cpp:408] conv2 -> conv2
I0411 06:50:02.760149 20966 net.cpp:150] Setting up conv2
I0411 06:50:02.760164 20966 net.cpp:157] Top shape: 1024 150 18 18 (49766400)
I0411 06:50:02.760169 20966 net.cpp:165] Memory required for data: 3298152448
I0411 06:50:02.760179 20966 layer_factory.hpp:77] Creating layer conv2_prescale
I0411 06:50:02.760186 20966 net.cpp:100] Creating Layer conv2_prescale
I0411 06:50:02.760190 20966 net.cpp:434] conv2_prescale <- conv2
I0411 06:50:02.760195 20966 net.cpp:395] conv2_prescale -> conv2 (in-place)
I0411 06:50:02.760300 20966 net.cpp:150] Setting up conv2_prescale
I0411 06:50:02.760309 20966 net.cpp:157] Top shape: 1024 150 18 18 (49766400)
I0411 06:50:02.760313 20966 net.cpp:165] Memory required for data: 3497218048
I0411 06:50:02.760318 20966 layer_factory.hpp:77] Creating layer conv2_sTanH
I0411 06:50:02.760324 20966 net.cpp:100] Creating Layer conv2_sTanH
I0411 06:50:02.760327 20966 net.cpp:434] conv2_sTanH <- conv2
I0411 06:50:02.760332 20966 net.cpp:395] conv2_sTanH -> conv2 (in-place)
I0411 06:50:02.761389 20966 net.cpp:150] Setting up conv2_sTanH
I0411 06:50:02.761404 20966 net.cpp:157] Top shape: 1024 150 18 18 (49766400)
I0411 06:50:02.761407 20966 net.cpp:165] Memory required for data: 3696283648
I0411 06:50:02.761410 20966 layer_factory.hpp:77] Creating layer conv2_postscale
I0411 06:50:02.761418 20966 net.cpp:100] Creating Layer conv2_postscale
I0411 06:50:02.761421 20966 net.cpp:434] conv2_postscale <- conv2
I0411 06:50:02.761426 20966 net.cpp:395] conv2_postscale -> conv2 (in-place)
I0411 06:50:02.761520 20966 net.cpp:150] Setting up conv2_postscale
I0411 06:50:02.761528 20966 net.cpp:157] Top shape: 1024 150 18 18 (49766400)
I0411 06:50:02.761531 20966 net.cpp:165] Memory required for data: 3895349248
I0411 06:50:02.761536 20966 layer_factory.hpp:77] Creating layer pool2
I0411 06:50:02.761543 20966 net.cpp:100] Creating Layer pool2
I0411 06:50:02.761548 20966 net.cpp:434] pool2 <- conv2
I0411 06:50:02.761553 20966 net.cpp:408] pool2 -> pool2
I0411 06:50:02.761590 20966 net.cpp:150] Setting up pool2
I0411 06:50:02.761597 20966 net.cpp:157] Top shape: 1024 150 9 9 (12441600)
I0411 06:50:02.761600 20966 net.cpp:165] Memory required for data: 3945115648
I0411 06:50:02.761602 20966 layer_factory.hpp:77] Creating layer conv3
I0411 06:50:02.761610 20966 net.cpp:100] Creating Layer conv3
I0411 06:50:02.761615 20966 net.cpp:434] conv3 <- pool2
I0411 06:50:02.761620 20966 net.cpp:408] conv3 -> conv3
I0411 06:50:02.769029 20966 net.cpp:150] Setting up conv3
I0411 06:50:02.769045 20966 net.cpp:157] Top shape: 1024 250 6 6 (9216000)
I0411 06:50:02.769049 20966 net.cpp:165] Memory required for data: 3981979648
I0411 06:50:02.769059 20966 layer_factory.hpp:77] Creating layer conv3_prescale
I0411 06:50:02.769068 20966 net.cpp:100] Creating Layer conv3_prescale
I0411 06:50:02.769071 20966 net.cpp:434] conv3_prescale <- conv3
I0411 06:50:02.769076 20966 net.cpp:395] conv3_prescale -> conv3 (in-place)
I0411 06:50:02.769166 20966 net.cpp:150] Setting up conv3_prescale
I0411 06:50:02.769174 20966 net.cpp:157] Top shape: 1024 250 6 6 (9216000)
I0411 06:50:02.769177 20966 net.cpp:165] Memory required for data: 4018843648
I0411 06:50:02.769182 20966 layer_factory.hpp:77] Creating layer conv3_sTanH
I0411 06:50:02.769187 20966 net.cpp:100] Creating Layer conv3_sTanH
I0411 06:50:02.769192 20966 net.cpp:434] conv3_sTanH <- conv3
I0411 06:50:02.769196 20966 net.cpp:395] conv3_sTanH -> conv3 (in-place)
I0411 06:50:02.770058 20966 net.cpp:150] Setting up conv3_sTanH
I0411 06:50:02.770073 20966 net.cpp:157] Top shape: 1024 250 6 6 (9216000)
I0411 06:50:02.770088 20966 net.cpp:165] Memory required for data: 4055707648
I0411 06:50:02.770092 20966 layer_factory.hpp:77] Creating layer conv3_postscale
I0411 06:50:02.770112 20966 net.cpp:100] Creating Layer conv3_postscale
I0411 06:50:02.770117 20966 net.cpp:434] conv3_postscale <- conv3
I0411 06:50:02.770123 20966 net.cpp:395] conv3_postscale -> conv3 (in-place)
I0411 06:50:02.770217 20966 net.cpp:150] Setting up conv3_postscale
I0411 06:50:02.770226 20966 net.cpp:157] Top shape: 1024 250 6 6 (9216000)
I0411 06:50:02.770229 20966 net.cpp:165] Memory required for data: 4092571648
I0411 06:50:02.770234 20966 layer_factory.hpp:77] Creating layer pool3
I0411 06:50:02.770241 20966 net.cpp:100] Creating Layer pool3
I0411 06:50:02.770243 20966 net.cpp:434] pool3 <- conv3
I0411 06:50:02.770247 20966 net.cpp:408] pool3 -> pool3
I0411 06:50:02.770289 20966 net.cpp:150] Setting up pool3
I0411 06:50:02.770297 20966 net.cpp:157] Top shape: 1024 250 3 3 (2304000)
I0411 06:50:02.770299 20966 net.cpp:165] Memory required for data: 4101787648
I0411 06:50:02.770303 20966 layer_factory.hpp:77] Creating layer fc4_300
I0411 06:50:02.770310 20966 net.cpp:100] Creating Layer fc4_300
I0411 06:50:02.770315 20966 net.cpp:434] fc4_300 <- pool3
I0411 06:50:02.770320 20966 net.cpp:408] fc4_300 -> fc4_300
I0411 06:50:02.776876 20966 net.cpp:150] Setting up fc4_300
I0411 06:50:02.776892 20966 net.cpp:157] Top shape: 1024 300 (307200)
I0411 06:50:02.776908 20966 net.cpp:165] Memory required for data: 4103016448
I0411 06:50:02.776916 20966 layer_factory.hpp:77] Creating layer fc4_prescale
I0411 06:50:02.776922 20966 net.cpp:100] Creating Layer fc4_prescale
I0411 06:50:02.776926 20966 net.cpp:434] fc4_prescale <- fc4_300
I0411 06:50:02.776932 20966 net.cpp:395] fc4_prescale -> fc4_300 (in-place)
I0411 06:50:02.777016 20966 net.cpp:150] Setting up fc4_prescale
I0411 06:50:02.777025 20966 net.cpp:157] Top shape: 1024 300 (307200)
I0411 06:50:02.777029 20966 net.cpp:165] Memory required for data: 4104245248
I0411 06:50:02.777032 20966 layer_factory.hpp:77] Creating layer fc4_sTanH
I0411 06:50:02.777037 20966 net.cpp:100] Creating Layer fc4_sTanH
I0411 06:50:02.777040 20966 net.cpp:434] fc4_sTanH <- fc4_300
I0411 06:50:02.777045 20966 net.cpp:395] fc4_sTanH -> fc4_300 (in-place)
I0411 06:50:02.777223 20966 net.cpp:150] Setting up fc4_sTanH
I0411 06:50:02.777235 20966 net.cpp:157] Top shape: 1024 300 (307200)
I0411 06:50:02.777237 20966 net.cpp:165] Memory required for data: 4105474048
I0411 06:50:02.777240 20966 layer_factory.hpp:77] Creating layer fc4_postscale
I0411 06:50:02.777247 20966 net.cpp:100] Creating Layer fc4_postscale
I0411 06:50:02.777251 20966 net.cpp:434] fc4_postscale <- fc4_300
I0411 06:50:02.777256 20966 net.cpp:395] fc4_postscale -> fc4_300 (in-place)
I0411 06:50:02.777345 20966 net.cpp:150] Setting up fc4_postscale
I0411 06:50:02.777354 20966 net.cpp:157] Top shape: 1024 300 (307200)
I0411 06:50:02.777356 20966 net.cpp:165] Memory required for data: 4106702848
I0411 06:50:02.777361 20966 layer_factory.hpp:77] Creating layer fc5_67
I0411 06:50:02.777367 20966 net.cpp:100] Creating Layer fc5_67
I0411 06:50:02.777370 20966 net.cpp:434] fc5_67 <- fc4_300
I0411 06:50:02.777375 20966 net.cpp:408] fc5_67 -> fc5_classes
I0411 06:50:02.778534 20966 net.cpp:150] Setting up fc5_67
I0411 06:50:02.778549 20966 net.cpp:157] Top shape: 1024 67 (68608)
I0411 06:50:02.778553 20966 net.cpp:165] Memory required for data: 4106977280
I0411 06:50:02.778563 20966 layer_factory.hpp:77] Creating layer loss
I0411 06:50:02.778569 20966 net.cpp:100] Creating Layer loss
I0411 06:50:02.778573 20966 net.cpp:434] loss <- fc5_classes
I0411 06:50:02.778578 20966 net.cpp:434] loss <- label
I0411 06:50:02.778584 20966 net.cpp:408] loss -> loss
I0411 06:50:02.778595 20966 layer_factory.hpp:77] Creating layer loss
…
I0411 06:50:02.779316 20966 solver.cpp:193] Creating test net (#0) specified by test_net file: ./Prototxt/experiment_8/rtsd-r1/histeq/trial_4/test.prototxt
I0411 06:50:02.779495 20966 net.cpp:58] Initializing net from parameters: 
state {
  phase: TEST
}
layer {
  name: "data"
  type: "Data"
  top: "data"
  top: "label"
  include {
    phase: TEST
  }
  transform_param {
    scale: 0.0039215689
    mirror: false
    crop_size: 48
    mean_value: 124
    mean_value: 121
    mean_value: 142
  }
  data_param {
    source: "../local_data/lmdb/rtsd-r1/histeq/test/lmdb"
    batch_size: 1024
    backend: LMDB
  }
}
layer {
  name: "conv1"
  type: "Convolution"
  bottom: "data"
  top: "conv1"
  convolution_param {
    num_output: 100
    pad: 0
    kernel_size: 7
    group: 1
    stride: 1
    weight_filler {
      type: "xavier"
    }
  }
}
layer {
  name: "conv1_prescale"
  type: "Scale"
  bottom: "conv1"
  top: "conv1"
  param {
    lr_mult: 0
    decay_mult: 0
  }
  scale_param {
    filler {
      value: 0.6666
    }
    bias_term: false
  }
}
layer {
  name: "conv1_sTanH"
  type: "TanH"
  bottom: "conv1"
  top: "conv1"
}
layer {
  name: "conv1_postscale"
  type: "Scale"
  bottom: "conv1"
  top: "conv1"
  param {
    lr_mult: 0
    decay_mult: 0
  }
  scale_param {
    filler {
      value: 1.7159
    }
    bias_term: false
  }
}
layer {
  name: "pool1"
  type: "Pooling"
  bottom: "conv1"
  top: "pool1"
  pooling_param {
    pool: MAX
    kernel_size: 2
    stride: 2
  }
}
layer {
  name: "conv2"
  type: "Convolution"
  bottom: "pool1"
  top: "conv2"
  convolution_param {
    num_output: 150
    pad: 0
    kernel_size: 4
    group: 1
    stride: 1
    weight_filler {
      type: "xavier"
    }
  }
}
layer {
  name: "conv2_prescale"
  type: "Scale"
  bottom: "conv2"
  top: "conv2"
  param {
    lr_mult: 0
    decay_mult: 0
  }
  scale_param {
    filler {
      value: 0.6666
    }
    bias_term: false
  }
}
layer {
  name: "conv2_sTanH"
  type: "TanH"
  bottom: "conv2"
  top: "conv2"
}
layer {
  name: "conv2_postscale"
  type: "Scale"
  bottom: "conv2"
  top: "conv2"
  param {
    lr_mult: 0
    decay_mult: 0
  }
  scale_param {
    filler {
      value: 1.7159
    }
    bias_term: false
  }
}
layer {
  name: "pool2"
  type: "Pooling"
  bottom: "conv2"
  top: "pool2"
  pooling_param {
    pool: MAX
    kernel_size: 2
    stride: 2
  }
}
layer {
  name: "conv3"
  type: "Convolution"
  bottom: "pool2"
  top: "conv3"
  convolution_param {
    num_output: 250
    pad: 0
    kernel_size: 4
    group: 1
    stride: 1
    weight_filler {
      type: "xavier"
    }
  }
}
layer {
  name: "conv3_prescale"
  type: "Scale"
  bottom: "conv3"
  top: "conv3"
  param {
    lr_mult: 0
    decay_mult: 0
  }
  scale_param {
    filler {
      value: 0.6666
    }
    bias_term: false
  }
}
layer {
  name: "conv3_sTanH"
  type: "TanH"
  bottom: "conv3"
  top: "conv3"
}
layer {
  name: "conv3_postscale"
  type: "Scale"
  bottom: "conv3"
  top: "conv3"
  param {
    lr_mult: 0
    decay_mult: 0
  }
  scale_param {
    filler {
      value: 1.7159
    }
    bias_term: false
  }
}
layer {
  name: "pool3"
  type: "Pooling"
  bottom: "conv3"
  top: "pool3"
  pooling_param {
    pool: MAX
    kernel_size: 2
    stride: 2
  }
}
layer {
  name: "fc4_300"
  type: "InnerProduct"
  bottom: "pool3"
  top: "fc4_300"
  inner_product_param {
    num_output: 300
    weight_filler {
      type: "xavier"
    }
  }
}
layer {
  name: "fc4_prescale"
  type: "Scale"
  bottom: "fc4_300"
  top: "fc4_300"
  param {
    lr_mult: 0
    decay_mult: 0
  }
  scale_param {
    filler {
      value: 0.6666
    }
    bias_term: false
  }
}
layer {
  name: "fc4_sTanH"
  type: "TanH"
  bottom: "fc4_300"
  top: "fc4_300"
}
layer {
  name: "fc4_postscale"
  type: "Scale"
  bottom: "fc4_300"
  top: "fc4_300"
  param {
    lr_mult: 0
    decay_mult: 0
  }
  scale_param {
    filler {
      value: 1.7159
    }
    bias_term: false
  }
}
layer {
  name: "fc5_67"
  type: "InnerProduct"
  bottom: "fc4_300"
  top: "fc5_classes"
  inner_product_param {
    num_output: 67
    weight_filler {
      type: "xavier"
    }
  }
}
layer {
  name: "loss"
  type: "SoftmaxWithLoss"
  bottom: "fc5_classes"
  bottom: "label"
  top: "loss"
}
layer {
  name: "accuracy_1"
  type: "Accuracy"
  bottom: "fc5_classes"
  bottom: "label"
  top: "accuracy_1"
  include {
    phase: TEST
  }
  accuracy_param {
    top_k: 1
  }
}
layer {
  name: "accuracy_5"
  type: "Accuracy"
  bottom: "fc5_classes"
  bottom: "label"
  top: "accuracy_5"
  include {
    phase: TEST
  }
  accuracy_param {
    top_k: 5
  }
}
I0411 06:50:02.779610 20966 layer_factory.hpp:77] Creating layer data
I0411 06:50:02.780282 20966 net.cpp:100] Creating Layer data
I0411 06:50:02.780294 20966 net.cpp:408] data -> data
I0411 06:50:02.780305 20966 net.cpp:408] data -> label
I0411 06:50:02.781592 21106 db_lmdb.cpp:35] Opened lmdb ../local_data/lmdb/rtsd-r1/histeq/test/lmdb
I0411 06:50:02.781759 20966 data_layer.cpp:41] output data size: 1024,3,48,48
I0411 06:50:02.835875 20966 net.cpp:150] Setting up data
I0411 06:50:02.835914 20966 net.cpp:157] Top shape: 1024 3 48 48 (7077888)
I0411 06:50:02.835921 20966 net.cpp:157] Top shape: 1024 (1024)
I0411 06:50:02.835923 20966 net.cpp:165] Memory required for data: 28315648
I0411 06:50:02.835929 20966 layer_factory.hpp:77] Creating layer label_data_1_split
I0411 06:50:02.835948 20966 net.cpp:100] Creating Layer label_data_1_split
I0411 06:50:02.835954 20966 net.cpp:434] label_data_1_split <- label
I0411 06:50:02.835963 20966 net.cpp:408] label_data_1_split -> label_data_1_split_0
I0411 06:50:02.835975 20966 net.cpp:408] label_data_1_split -> label_data_1_split_1
I0411 06:50:02.835984 20966 net.cpp:408] label_data_1_split -> label_data_1_split_2
I0411 06:50:02.836086 20966 net.cpp:150] Setting up label_data_1_split
I0411 06:50:02.836094 20966 net.cpp:157] Top shape: 1024 (1024)
I0411 06:50:02.836098 20966 net.cpp:157] Top shape: 1024 (1024)
I0411 06:50:02.836102 20966 net.cpp:157] Top shape: 1024 (1024)
I0411 06:50:02.836104 20966 net.cpp:165] Memory required for data: 28327936
I0411 06:50:02.836108 20966 layer_factory.hpp:77] Creating layer conv1
I0411 06:50:02.836124 20966 net.cpp:100] Creating Layer conv1
I0411 06:50:02.836130 20966 net.cpp:434] conv1 <- data
I0411 06:50:02.836135 20966 net.cpp:408] conv1 -> conv1
I0411 06:50:02.840246 20966 net.cpp:150] Setting up conv1
I0411 06:50:02.840265 20966 net.cpp:157] Top shape: 1024 100 42 42 (180633600)
I0411 06:50:02.840286 20966 net.cpp:165] Memory required for data: 750862336
I0411 06:50:02.840299 20966 layer_factory.hpp:77] Creating layer conv1_prescale
I0411 06:50:02.840312 20966 net.cpp:100] Creating Layer conv1_prescale
I0411 06:50:02.840317 20966 net.cpp:434] conv1_prescale <- conv1
I0411 06:50:02.840322 20966 net.cpp:395] conv1_prescale -> conv1 (in-place)
I0411 06:50:02.840432 20966 net.cpp:150] Setting up conv1_prescale
I0411 06:50:02.840441 20966 net.cpp:157] Top shape: 1024 100 42 42 (180633600)
I0411 06:50:02.840445 20966 net.cpp:165] Memory required for data: 1473396736
I0411 06:50:02.840451 20966 layer_factory.hpp:77] Creating layer conv1_sTanH
I0411 06:50:02.840461 20966 net.cpp:100] Creating Layer conv1_sTanH
I0411 06:50:02.840466 20966 net.cpp:434] conv1_sTanH <- conv1
I0411 06:50:02.840471 20966 net.cpp:395] conv1_sTanH -> conv1 (in-place)
I0411 06:50:02.840672 20966 net.cpp:150] Setting up conv1_sTanH
I0411 06:50:02.840683 20966 net.cpp:157] Top shape: 1024 100 42 42 (180633600)
I0411 06:50:02.840688 20966 net.cpp:165] Memory required for data: 2195931136
I0411 06:50:02.840692 20966 layer_factory.hpp:77] Creating layer conv1_postscale
I0411 06:50:02.840698 20966 net.cpp:100] Creating Layer conv1_postscale
I0411 06:50:02.840703 20966 net.cpp:434] conv1_postscale <- conv1
I0411 06:50:02.840710 20966 net.cpp:395] conv1_postscale -> conv1 (in-place)
I0411 06:50:02.840823 20966 net.cpp:150] Setting up conv1_postscale
I0411 06:50:02.840832 20966 net.cpp:157] Top shape: 1024 100 42 42 (180633600)
I0411 06:50:02.840836 20966 net.cpp:165] Memory required for data: 2918465536
I0411 06:50:02.840840 20966 layer_factory.hpp:77] Creating layer pool1
I0411 06:50:02.840850 20966 net.cpp:100] Creating Layer pool1
I0411 06:50:02.840855 20966 net.cpp:434] pool1 <- conv1
I0411 06:50:02.840862 20966 net.cpp:408] pool1 -> pool1
I0411 06:50:02.840905 20966 net.cpp:150] Setting up pool1
I0411 06:50:02.840912 20966 net.cpp:157] Top shape: 1024 100 21 21 (45158400)
I0411 06:50:02.840915 20966 net.cpp:165] Memory required for data: 3099099136
I0411 06:50:02.840919 20966 layer_factory.hpp:77] Creating layer conv2
I0411 06:50:02.840929 20966 net.cpp:100] Creating Layer conv2
I0411 06:50:02.840934 20966 net.cpp:434] conv2 <- pool1
I0411 06:50:02.840939 20966 net.cpp:408] conv2 -> conv2
I0411 06:50:02.847265 20966 net.cpp:150] Setting up conv2
I0411 06:50:02.847281 20966 net.cpp:157] Top shape: 1024 150 18 18 (49766400)
I0411 06:50:02.847301 20966 net.cpp:165] Memory required for data: 3298164736
I0411 06:50:02.847313 20966 layer_factory.hpp:77] Creating layer conv2_prescale
I0411 06:50:02.847323 20966 net.cpp:100] Creating Layer conv2_prescale
I0411 06:50:02.847329 20966 net.cpp:434] conv2_prescale <- conv2
I0411 06:50:02.847337 20966 net.cpp:395] conv2_prescale -> conv2 (in-place)
I0411 06:50:02.847451 20966 net.cpp:150] Setting up conv2_prescale
I0411 06:50:02.847460 20966 net.cpp:157] Top shape: 1024 150 18 18 (49766400)
I0411 06:50:02.847463 20966 net.cpp:165] Memory required for data: 3497230336
I0411 06:50:02.847467 20966 layer_factory.hpp:77] Creating layer conv2_sTanH
I0411 06:50:02.847473 20966 net.cpp:100] Creating Layer conv2_sTanH
I0411 06:50:02.847478 20966 net.cpp:434] conv2_sTanH <- conv2
I0411 06:50:02.847484 20966 net.cpp:395] conv2_sTanH -> conv2 (in-place)
I0411 06:50:02.848996 20966 net.cpp:150] Setting up conv2_sTanH
I0411 06:50:02.849025 20966 net.cpp:157] Top shape: 1024 150 18 18 (49766400)
I0411 06:50:02.849030 20966 net.cpp:165] Memory required for data: 3696295936
I0411 06:50:02.849033 20966 layer_factory.hpp:77] Creating layer conv2_postscale
I0411 06:50:02.849042 20966 net.cpp:100] Creating Layer conv2_postscale
I0411 06:50:02.849046 20966 net.cpp:434] conv2_postscale <- conv2
I0411 06:50:02.849052 20966 net.cpp:395] conv2_postscale -> conv2 (in-place)
I0411 06:50:02.849160 20966 net.cpp:150] Setting up conv2_postscale
I0411 06:50:02.849170 20966 net.cpp:157] Top shape: 1024 150 18 18 (49766400)
I0411 06:50:02.849174 20966 net.cpp:165] Memory required for data: 3895361536
I0411 06:50:02.849195 20966 layer_factory.hpp:77] Creating layer pool2
I0411 06:50:02.849202 20966 net.cpp:100] Creating Layer pool2
I0411 06:50:02.849205 20966 net.cpp:434] pool2 <- conv2
I0411 06:50:02.849212 20966 net.cpp:408] pool2 -> pool2
I0411 06:50:02.849263 20966 net.cpp:150] Setting up pool2
I0411 06:50:02.849272 20966 net.cpp:157] Top shape: 1024 150 9 9 (12441600)
I0411 06:50:02.849274 20966 net.cpp:165] Memory required for data: 3945127936
I0411 06:50:02.849277 20966 layer_factory.hpp:77] Creating layer conv3
I0411 06:50:02.849299 20966 net.cpp:100] Creating Layer conv3
I0411 06:50:02.849305 20966 net.cpp:434] conv3 <- pool2
I0411 06:50:02.849310 20966 net.cpp:408] conv3 -> conv3
I0411 06:50:02.855111 20966 net.cpp:150] Setting up conv3
I0411 06:50:02.855129 20966 net.cpp:157] Top shape: 1024 250 6 6 (9216000)
I0411 06:50:02.855131 20966 net.cpp:165] Memory required for data: 3981991936
I0411 06:50:02.855141 20966 layer_factory.hpp:77] Creating layer conv3_prescale
I0411 06:50:02.855151 20966 net.cpp:100] Creating Layer conv3_prescale
I0411 06:50:02.855154 20966 net.cpp:434] conv3_prescale <- conv3
I0411 06:50:02.855159 20966 net.cpp:395] conv3_prescale -> conv3 (in-place)
I0411 06:50:02.855273 20966 net.cpp:150] Setting up conv3_prescale
I0411 06:50:02.855283 20966 net.cpp:157] Top shape: 1024 250 6 6 (9216000)
I0411 06:50:02.855285 20966 net.cpp:165] Memory required for data: 4018855936
I0411 06:50:02.855305 20966 layer_factory.hpp:77] Creating layer conv3_sTanH
I0411 06:50:02.855312 20966 net.cpp:100] Creating Layer conv3_sTanH
I0411 06:50:02.855319 20966 net.cpp:434] conv3_sTanH <- conv3
I0411 06:50:02.855324 20966 net.cpp:395] conv3_sTanH -> conv3 (in-place)
I0411 06:50:02.856125 20966 net.cpp:150] Setting up conv3_sTanH
I0411 06:50:02.856140 20966 net.cpp:157] Top shape: 1024 250 6 6 (9216000)
I0411 06:50:02.856144 20966 net.cpp:165] Memory required for data: 4055719936
I0411 06:50:02.856148 20966 layer_factory.hpp:77] Creating layer conv3_postscale
I0411 06:50:02.856158 20966 net.cpp:100] Creating Layer conv3_postscale
I0411 06:50:02.856163 20966 net.cpp:434] conv3_postscale <- conv3
I0411 06:50:02.856168 20966 net.cpp:395] conv3_postscale -> conv3 (in-place)
I0411 06:50:02.856278 20966 net.cpp:150] Setting up conv3_postscale
I0411 06:50:02.856287 20966 net.cpp:157] Top shape: 1024 250 6 6 (9216000)
I0411 06:50:02.856290 20966 net.cpp:165] Memory required for data: 4092583936
I0411 06:50:02.856300 20966 layer_factory.hpp:77] Creating layer pool3
I0411 06:50:02.856312 20966 net.cpp:100] Creating Layer pool3
I0411 06:50:02.856317 20966 net.cpp:434] pool3 <- conv3
I0411 06:50:02.856322 20966 net.cpp:408] pool3 -> pool3
I0411 06:50:02.856364 20966 net.cpp:150] Setting up pool3
I0411 06:50:02.856370 20966 net.cpp:157] Top shape: 1024 250 3 3 (2304000)
I0411 06:50:02.856382 20966 net.cpp:165] Memory required for data: 4101799936
I0411 06:50:02.856385 20966 layer_factory.hpp:77] Creating layer fc4_300
I0411 06:50:02.856393 20966 net.cpp:100] Creating Layer fc4_300
I0411 06:50:02.856398 20966 net.cpp:434] fc4_300 <- pool3
I0411 06:50:02.856403 20966 net.cpp:408] fc4_300 -> fc4_300
I0411 06:50:02.861699 20966 net.cpp:150] Setting up fc4_300
I0411 06:50:02.861714 20966 net.cpp:157] Top shape: 1024 300 (307200)
I0411 06:50:02.861718 20966 net.cpp:165] Memory required for data: 4103028736
I0411 06:50:02.861724 20966 layer_factory.hpp:77] Creating layer fc4_prescale
I0411 06:50:02.861732 20966 net.cpp:100] Creating Layer fc4_prescale
I0411 06:50:02.861734 20966 net.cpp:434] fc4_prescale <- fc4_300
I0411 06:50:02.861742 20966 net.cpp:395] fc4_prescale -> fc4_300 (in-place)
I0411 06:50:02.861855 20966 net.cpp:150] Setting up fc4_prescale
I0411 06:50:02.861865 20966 net.cpp:157] Top shape: 1024 300 (307200)
I0411 06:50:02.861871 20966 net.cpp:165] Memory required for data: 4104257536
I0411 06:50:02.861876 20966 layer_factory.hpp:77] Creating layer fc4_sTanH
I0411 06:50:02.861881 20966 net.cpp:100] Creating Layer fc4_sTanH
I0411 06:50:02.861884 20966 net.cpp:434] fc4_sTanH <- fc4_300
I0411 06:50:02.861889 20966 net.cpp:395] fc4_sTanH -> fc4_300 (in-place)
I0411 06:50:02.862102 20966 net.cpp:150] Setting up fc4_sTanH
I0411 06:50:02.862113 20966 net.cpp:157] Top shape: 1024 300 (307200)
I0411 06:50:02.862118 20966 net.cpp:165] Memory required for data: 4105486336
I0411 06:50:02.862123 20966 layer_factory.hpp:77] Creating layer fc4_postscale
I0411 06:50:02.862129 20966 net.cpp:100] Creating Layer fc4_postscale
I0411 06:50:02.862134 20966 net.cpp:434] fc4_postscale <- fc4_300
I0411 06:50:02.862141 20966 net.cpp:395] fc4_postscale -> fc4_300 (in-place)
I0411 06:50:02.862246 20966 net.cpp:150] Setting up fc4_postscale
I0411 06:50:02.862253 20966 net.cpp:157] Top shape: 1024 300 (307200)
I0411 06:50:02.862257 20966 net.cpp:165] Memory required for data: 4106715136
I0411 06:50:02.862262 20966 layer_factory.hpp:77] Creating layer fc5_67
I0411 06:50:02.862268 20966 net.cpp:100] Creating Layer fc5_67
I0411 06:50:02.862272 20966 net.cpp:434] fc5_67 <- fc4_300
I0411 06:50:02.862279 20966 net.cpp:408] fc5_67 -> fc5_classes
I0411 06:50:02.862534 20966 net.cpp:150] Setting up fc5_67
I0411 06:50:02.862542 20966 net.cpp:157] Top shape: 1024 67 (68608)
I0411 06:50:02.862545 20966 net.cpp:165] Memory required for data: 4106989568
I0411 06:50:02.862567 20966 layer_factory.hpp:77] Creating layer fc5_classes_fc5_67_0_split
I0411 06:50:02.862576 20966 net.cpp:100] Creating Layer fc5_classes_fc5_67_0_split
I0411 06:50:02.862581 20966 net.cpp:434] fc5_classes_fc5_67_0_split <- fc5_classes
I0411 06:50:02.862586 20966 net.cpp:408] fc5_classes_fc5_67_0_split -> fc5_classes_fc5_67_0_split_0
I0411 06:50:02.862592 20966 net.cpp:408] fc5_classes_fc5_67_0_split -> fc5_classes_fc5_67_0_split_1
I0411 06:50:02.862601 20966 net.cpp:408] fc5_classes_fc5_67_0_split -> fc5_classes_fc5_67_0_split_2
I0411 06:50:02.862655 20966 net.cpp:150] Setting up fc5_classes_fc5_67_0_split
I0411 06:50:02.862663 20966 net.cpp:157] Top shape: 1024 67 (68608)
I0411 06:50:02.862665 20966 net.cpp:157] Top shape: 1024 67 (68608)
I0411 06:50:02.862668 20966 net.cpp:157] Top shape: 1024 67 (68608)
I0411 06:50:02.862671 20966 net.cpp:165] Memory required for data: 4107812864
I0411 06:50:02.862673 20966 layer_factory.hpp:77] Creating layer loss
I0411 06:50:02.862685 20966 net.cpp:100] Creating Layer loss
I0411 06:50:02.862690 20966 net.cpp:434] loss <- fc5_classes_fc5_67_0_split_0
I0411 06:50:02.862694 20966 net.cpp:434] loss <- label_data_1_split_0
I0411 06:50:02.862699 20966 net.cpp:408] loss -> loss
…
