…
I0414 06:51:50.465364  9457 solver.cpp:93] Creating training net from train_net file: ./Prototxt/experiment_10/rtsd-r1/histeq/trial_1/train.prototxt
I0414 06:51:50.465693  9457 net.cpp:58] Initializing net from parameters: 
state {
  phase: TRAIN
  level: 0
  stage: ""
}
layer {
  name: "data"
  type: "Data"
  top: "data"
  top: "label"
  include {
    phase: TRAIN
  }
  transform_param {
    scale: 0.0039215689
    mirror: false
    crop_size: 48
    mean_value: 130
    mean_value: 123
    mean_value: 137
  }
  data_param {
    source: "../local_data/lmdb/rtsd-r1/histeq/train/lmdb"
    batch_size: 1024
    backend: LMDB
  }
}
layer {
  name: "conv1"
  type: "Convolution"
  bottom: "data"
  top: "conv1"
  convolution_param {
    num_output: 100
    pad: 0
    kernel_size: 7
    group: 1
    stride: 1
    weight_filler {
      type: "xavier"
    }
  }
}
layer {
  name: "conv1_relu"
  type: "ReLU"
  bottom: "conv1"
  top: "conv1"
}
layer {
  name: "pool1"
  type: "Pooling"
  bottom: "conv1"
  top: "pool1"
  pooling_param {
    pool: MAX
    kernel_size: 2
    stride: 2
  }
}
layer {
  name: "conv2"
  type: "Convolution"
  bottom: "pool1"
  top: "conv2"
  convolution_param {
    num_output: 150
    pad: 0
    kernel_size: 4
    group: 1
    stride: 1
    weight_filler {
      type: "xavier"
    }
  }
}
layer {
  name: "conv2_relu"
  type: "ReLU"
  bottom: "conv2"
  top: "conv2"
}
layer {
  name: "pool2"
  type: "Pooling"
  bottom: "conv2"
  top: "pool2"
  pooling_param {
    pool: MAX
    kernel_size: 2
    stride: 2
  }
}
layer {
  name: "conv3"
  type: "Convolution"
  bottom: "pool2"
  top: "conv3"
  convolution_param {
    num_output: 250
    pad: 0
    kernel_size: 4
    group: 1
    stride: 1
    weight_filler {
      type: "xavier"
    }
  }
}
layer {
  name: "conv3_relu"
  type: "ReLU"
  bottom: "conv3"
  top: "conv3"
}
layer {
  name: "pool3"
  type: "Pooling"
  bottom: "conv3"
  top: "pool3"
  pooling_param {
    pool: MAX
    kernel_size: 2
    stride: 2
  }
}
layer {
  name: "fc4_300"
  type: "InnerProduct"
  bottom: "pool3"
  top: "fc4_300"
  inner_product_param {
    num_output: 300
    weight_filler {
      type: "xavier"
    }
  }
}
layer {
  name: "fc4_relu"
  type: "ReLU"
  bottom: "fc4_300"
  top: "fc4_300"
}
layer {
  name: "fc5_67"
  type: "InnerProduct"
  bottom: "fc4_300"
  top: "fc5_classes"
  inner_product_param {
    num_output: 67
    weight_filler {
      type: "xavier"
    }
  }
}
layer {
  name: "softmax"
  type: "Softmax"
  bottom: "fc5_classes"
  top: "softmax"
}
layer {
  name: "loss"
  type: "MultinomialLogisticLoss"
  bottom: "softmax"
  bottom: "label"
  top: "loss"
}
layer {
  name: "accuracy_1"
  type: "Accuracy"
  bottom: "fc5_classes"
  bottom: "label"
  top: "accuracy_1"
  accuracy_param {
    top_k: 1
  }
}
layer {
  name: "accuracy_5"
  type: "Accuracy"
  bottom: "fc5_classes"
  bottom: "label"
  top: "accuracy_5"
  accuracy_param {
    top_k: 5
  }
}
layer {
  name: "silence"
  type: "Silence"
  bottom: "accuracy_1"
  bottom: "accuracy_5"
}
I0414 06:51:50.465812  9457 layer_factory.hpp:77] Creating layer data
I0414 06:51:50.467087  9457 net.cpp:100] Creating Layer data
I0414 06:51:50.467100  9457 net.cpp:408] data -> data
I0414 06:51:50.467123  9457 net.cpp:408] data -> label
I0414 06:51:50.477044  9573 db_lmdb.cpp:35] Opened lmdb ../local_data/lmdb/rtsd-r1/histeq/train/lmdb
I0414 06:51:50.495923  9457 data_layer.cpp:41] output data size: 1024,3,48,48
I0414 06:51:50.562980  9457 net.cpp:150] Setting up data
I0414 06:51:50.563040  9457 net.cpp:157] Top shape: 1024 3 48 48 (7077888)
I0414 06:51:50.563051  9457 net.cpp:157] Top shape: 1024 (1024)
I0414 06:51:50.563056  9457 net.cpp:165] Memory required for data: 28315648
I0414 06:51:50.563076  9457 layer_factory.hpp:77] Creating layer label_data_1_split
I0414 06:51:50.563096  9457 net.cpp:100] Creating Layer label_data_1_split
I0414 06:51:50.563105  9457 net.cpp:434] label_data_1_split <- label
I0414 06:51:50.563125  9457 net.cpp:408] label_data_1_split -> label_data_1_split_0
I0414 06:51:50.563143  9457 net.cpp:408] label_data_1_split -> label_data_1_split_1
I0414 06:51:50.563158  9457 net.cpp:408] label_data_1_split -> label_data_1_split_2
I0414 06:51:50.563241  9457 net.cpp:150] Setting up label_data_1_split
I0414 06:51:50.563252  9457 net.cpp:157] Top shape: 1024 (1024)
I0414 06:51:50.563261  9457 net.cpp:157] Top shape: 1024 (1024)
I0414 06:51:50.563267  9457 net.cpp:157] Top shape: 1024 (1024)
I0414 06:51:50.563273  9457 net.cpp:165] Memory required for data: 28327936
I0414 06:51:50.563278  9457 layer_factory.hpp:77] Creating layer conv1
I0414 06:51:50.563302  9457 net.cpp:100] Creating Layer conv1
I0414 06:51:50.563309  9457 net.cpp:434] conv1 <- data
I0414 06:51:50.563319  9457 net.cpp:408] conv1 -> conv1
I0414 06:51:50.926753  9457 net.cpp:150] Setting up conv1
I0414 06:51:50.926785  9457 net.cpp:157] Top shape: 1024 100 42 42 (180633600)
I0414 06:51:50.926792  9457 net.cpp:165] Memory required for data: 750862336
I0414 06:51:50.926822  9457 layer_factory.hpp:77] Creating layer conv1_relu
I0414 06:51:50.926838  9457 net.cpp:100] Creating Layer conv1_relu
I0414 06:51:50.926846  9457 net.cpp:434] conv1_relu <- conv1
I0414 06:51:50.926856  9457 net.cpp:395] conv1_relu -> conv1 (in-place)
I0414 06:51:50.927125  9457 net.cpp:150] Setting up conv1_relu
I0414 06:51:50.927144  9457 net.cpp:157] Top shape: 1024 100 42 42 (180633600)
I0414 06:51:50.927148  9457 net.cpp:165] Memory required for data: 1473396736
I0414 06:51:50.927155  9457 layer_factory.hpp:77] Creating layer pool1
I0414 06:51:50.927168  9457 net.cpp:100] Creating Layer pool1
I0414 06:51:50.927177  9457 net.cpp:434] pool1 <- conv1
I0414 06:51:50.927186  9457 net.cpp:408] pool1 -> pool1
I0414 06:51:50.927258  9457 net.cpp:150] Setting up pool1
I0414 06:51:50.927273  9457 net.cpp:157] Top shape: 1024 100 21 21 (45158400)
I0414 06:51:50.927278  9457 net.cpp:165] Memory required for data: 1654030336
I0414 06:51:50.927284  9457 layer_factory.hpp:77] Creating layer conv2
I0414 06:51:50.927299  9457 net.cpp:100] Creating Layer conv2
I0414 06:51:50.927307  9457 net.cpp:434] conv2 <- pool1
I0414 06:51:50.927315  9457 net.cpp:408] conv2 -> conv2
I0414 06:51:50.933607  9457 net.cpp:150] Setting up conv2
I0414 06:51:50.933624  9457 net.cpp:157] Top shape: 1024 150 18 18 (49766400)
I0414 06:51:50.933627  9457 net.cpp:165] Memory required for data: 1853095936
I0414 06:51:50.933637  9457 layer_factory.hpp:77] Creating layer conv2_relu
I0414 06:51:50.933645  9457 net.cpp:100] Creating Layer conv2_relu
I0414 06:51:50.933647  9457 net.cpp:434] conv2_relu <- conv2
I0414 06:51:50.933652  9457 net.cpp:395] conv2_relu -> conv2 (in-place)
I0414 06:51:50.934514  9457 net.cpp:150] Setting up conv2_relu
I0414 06:51:50.934528  9457 net.cpp:157] Top shape: 1024 150 18 18 (49766400)
I0414 06:51:50.934532  9457 net.cpp:165] Memory required for data: 2052161536
I0414 06:51:50.934535  9457 layer_factory.hpp:77] Creating layer pool2
I0414 06:51:50.934542  9457 net.cpp:100] Creating Layer pool2
I0414 06:51:50.934546  9457 net.cpp:434] pool2 <- conv2
I0414 06:51:50.934551  9457 net.cpp:408] pool2 -> pool2
I0414 06:51:50.934599  9457 net.cpp:150] Setting up pool2
I0414 06:51:50.934608  9457 net.cpp:157] Top shape: 1024 150 9 9 (12441600)
I0414 06:51:50.934612  9457 net.cpp:165] Memory required for data: 2101927936
I0414 06:51:50.934614  9457 layer_factory.hpp:77] Creating layer conv3
I0414 06:51:50.934623  9457 net.cpp:100] Creating Layer conv3
I0414 06:51:50.934628  9457 net.cpp:434] conv3 <- pool2
I0414 06:51:50.934633  9457 net.cpp:408] conv3 -> conv3
I0414 06:51:50.940209  9457 net.cpp:150] Setting up conv3
I0414 06:51:50.940227  9457 net.cpp:157] Top shape: 1024 250 6 6 (9216000)
I0414 06:51:50.940230  9457 net.cpp:165] Memory required for data: 2138791936
I0414 06:51:50.940240  9457 layer_factory.hpp:77] Creating layer conv3_relu
I0414 06:51:50.940248  9457 net.cpp:100] Creating Layer conv3_relu
I0414 06:51:50.940251  9457 net.cpp:434] conv3_relu <- conv3
I0414 06:51:50.940255  9457 net.cpp:395] conv3_relu -> conv3 (in-place)
I0414 06:51:50.945442  9457 net.cpp:150] Setting up conv3_relu
I0414 06:51:50.945459  9457 net.cpp:157] Top shape: 1024 250 6 6 (9216000)
I0414 06:51:50.945462  9457 net.cpp:165] Memory required for data: 2175655936
I0414 06:51:50.945466  9457 layer_factory.hpp:77] Creating layer pool3
I0414 06:51:50.945472  9457 net.cpp:100] Creating Layer pool3
I0414 06:51:50.945477  9457 net.cpp:434] pool3 <- conv3
I0414 06:51:50.945482  9457 net.cpp:408] pool3 -> pool3
I0414 06:51:50.945528  9457 net.cpp:150] Setting up pool3
I0414 06:51:50.945535  9457 net.cpp:157] Top shape: 1024 250 3 3 (2304000)
I0414 06:51:50.945538  9457 net.cpp:165] Memory required for data: 2184871936
I0414 06:51:50.945541  9457 layer_factory.hpp:77] Creating layer fc4_300
I0414 06:51:50.945549  9457 net.cpp:100] Creating Layer fc4_300
I0414 06:51:50.945551  9457 net.cpp:434] fc4_300 <- pool3
I0414 06:51:50.945556  9457 net.cpp:408] fc4_300 -> fc4_300
I0414 06:51:50.951987  9457 net.cpp:150] Setting up fc4_300
I0414 06:51:50.952004  9457 net.cpp:157] Top shape: 1024 300 (307200)
I0414 06:51:50.952008  9457 net.cpp:165] Memory required for data: 2186100736
I0414 06:51:50.952015  9457 layer_factory.hpp:77] Creating layer fc4_relu
I0414 06:51:50.952021  9457 net.cpp:100] Creating Layer fc4_relu
I0414 06:51:50.952025  9457 net.cpp:434] fc4_relu <- fc4_300
I0414 06:51:50.952030  9457 net.cpp:395] fc4_relu -> fc4_300 (in-place)
I0414 06:51:50.952210  9457 net.cpp:150] Setting up fc4_relu
I0414 06:51:50.952222  9457 net.cpp:157] Top shape: 1024 300 (307200)
I0414 06:51:50.952225  9457 net.cpp:165] Memory required for data: 2187329536
I0414 06:51:50.952229  9457 layer_factory.hpp:77] Creating layer fc5_67
I0414 06:51:50.952234  9457 net.cpp:100] Creating Layer fc5_67
I0414 06:51:50.952239  9457 net.cpp:434] fc5_67 <- fc4_300
I0414 06:51:50.952244  9457 net.cpp:408] fc5_67 -> fc5_classes
I0414 06:51:50.953563  9457 net.cpp:150] Setting up fc5_67
I0414 06:51:50.953578  9457 net.cpp:157] Top shape: 1024 67 (68608)
I0414 06:51:50.953582  9457 net.cpp:165] Memory required for data: 2187603968
I0414 06:51:50.953591  9457 layer_factory.hpp:77] Creating layer fc5_classes_fc5_67_0_split
I0414 06:51:50.953598  9457 net.cpp:100] Creating Layer fc5_classes_fc5_67_0_split
I0414 06:51:50.953603  9457 net.cpp:434] fc5_classes_fc5_67_0_split <- fc5_classes
I0414 06:51:50.953608  9457 net.cpp:408] fc5_classes_fc5_67_0_split -> fc5_classes_fc5_67_0_split_0
I0414 06:51:50.953615  9457 net.cpp:408] fc5_classes_fc5_67_0_split -> fc5_classes_fc5_67_0_split_1
I0414 06:51:50.953621  9457 net.cpp:408] fc5_classes_fc5_67_0_split -> fc5_classes_fc5_67_0_split_2
I0414 06:51:50.953670  9457 net.cpp:150] Setting up fc5_classes_fc5_67_0_split
I0414 06:51:50.953677  9457 net.cpp:157] Top shape: 1024 67 (68608)
I0414 06:51:50.953681  9457 net.cpp:157] Top shape: 1024 67 (68608)
I0414 06:51:50.953685  9457 net.cpp:157] Top shape: 1024 67 (68608)
I0414 06:51:50.953686  9457 net.cpp:165] Memory required for data: 2188427264
I0414 06:51:50.953689  9457 layer_factory.hpp:77] Creating layer softmax
I0414 06:51:50.953696  9457 net.cpp:100] Creating Layer softmax
I0414 06:51:50.953698  9457 net.cpp:434] softmax <- fc5_classes_fc5_67_0_split_0
I0414 06:51:50.953704  9457 net.cpp:408] softmax -> softmax
I0414 06:51:50.953946  9457 net.cpp:150] Setting up softmax
I0414 06:51:50.953958  9457 net.cpp:157] Top shape: 1024 67 (68608)
I0414 06:51:50.953961  9457 net.cpp:165] Memory required for data: 2188701696
I0414 06:51:50.953964  9457 layer_factory.hpp:77] Creating layer loss
I0414 06:51:50.953974  9457 net.cpp:100] Creating Layer loss
I0414 06:51:50.953990  9457 net.cpp:434] loss <- softmax
I0414 06:51:50.953996  9457 net.cpp:434] loss <- label_data_1_split_0
I0414 06:51:50.954001  9457 net.cpp:408] loss -> loss
…
