…
I0412 07:40:16.702494 21929 solver.cpp:93] Creating training net from train_net file: ./Prototxt/experiment_10/rtsd-r1/histeq/trial_1/train.prototxt
I0412 07:40:16.702893 21929 net.cpp:58] Initializing net from parameters: 
state {
  phase: TRAIN
  level: 0
  stage: ""
}
layer {
  name: "data"
  type: "Data"
  top: "data"
  top: "label"
  include {
    phase: TRAIN
  }
  transform_param {
    scale: 0.0039215689
    mirror: false
    crop_size: 48
    mean_value: 130
    mean_value: 123
    mean_value: 137
  }
  data_param {
    source: "../local_data/lmdb/rtsd-r1/histeq/train/lmdb"
    batch_size: 1024
    backend: LMDB
  }
}
layer {
  name: "conv1"
  type: "Convolution"
  bottom: "data"
  top: "conv1"
  convolution_param {
    num_output: 100
    pad: 0
    kernel_size: 7
    group: 1
    stride: 1
    weight_filler {
      type: "xavier"
    }
  }
}
layer {
  name: "conv1_relu"
  type: "ReLU"
  bottom: "conv1"
  top: "conv1"
}
layer {
  name: "pool1"
  type: "Pooling"
  bottom: "conv1"
  top: "pool1"
  pooling_param {
    pool: MAX
    kernel_size: 2
    stride: 2
  }
}
layer {
  name: "conv2"
  type: "Convolution"
  bottom: "pool1"
  top: "conv2"
  convolution_param {
    num_output: 150
    pad: 0
    kernel_size: 4
    group: 1
    stride: 1
    weight_filler {
      type: "xavier"
    }
  }
}
layer {
  name: "conv2_relu"
  type: "ReLU"
  bottom: "conv2"
  top: "conv2"
}
layer {
  name: "pool2"
  type: "Pooling"
  bottom: "conv2"
  top: "pool2"
  pooling_param {
    pool: MAX
    kernel_size: 2
    stride: 2
  }
}
layer {
  name: "conv3"
  type: "Convolution"
  bottom: "pool2"
  top: "conv3"
  convolution_param {
    num_output: 250
    pad: 0
    kernel_size: 4
    group: 1
    stride: 1
    weight_filler {
      type: "xavier"
    }
  }
}
layer {
  name: "conv3_relu"
  type: "ReLU"
  bottom: "conv3"
  top: "conv3"
}
layer {
  name: "pool3"
  type: "Pooling"
  bottom: "conv3"
  top: "pool3"
  pooling_param {
    pool: MAX
    kernel_size: 2
    stride: 2
  }
}
layer {
  name: "fc4_300"
  type: "InnerProduct"
  bottom: "pool3"
  top: "fc4_300"
  inner_product_param {
    num_output: 300
    weight_filler {
      type: "xavier"
    }
  }
}
layer {
  name: "fc4_relu"
  type: "ReLU"
  bottom: "fc4_300"
  top: "fc4_300"
}
layer {
  name: "drop4"
  type: "Dropout"
  bottom: "fc4_300"
  top: "fc4_300"
  dropout_param {
    dropout_ratio: 0.4
  }
}
layer {
  name: "fc5_67"
  type: "InnerProduct"
  bottom: "fc4_300"
  top: "fc5_classes"
  inner_product_param {
    num_output: 67
    weight_filler {
      type: "xavier"
    }
  }
}
layer {
  name: "softmax"
  type: "Softmax"
  bottom: "fc5_classes"
  top: "softmax"
}
layer {
  name: "loss"
  type: "MultinomialLogisticLoss"
  bottom: "softmax"
  bottom: "label"
  top: "loss"
}
layer {
  name: "accuracy_1"
  type: "Accuracy"
  bottom: "fc5_classes"
  bottom: "label"
  top: "accuracy_1"
  accuracy_param {
    top_k: 1
  }
}
layer {
  name: "accuracy_5"
  type: "Accuracy"
  bottom: "fc5_classes"
  bottom: "label"
  top: "accuracy_5"
  accuracy_param {
    top_k: 5
  }
}
I0412 07:40:16.703032 21929 layer_factory.hpp:77] Creating layer data
I0412 07:40:16.704324 21929 net.cpp:100] Creating Layer data
I0412 07:40:16.704344 21929 net.cpp:408] data -> data
I0412 07:40:16.704371 21929 net.cpp:408] data -> label
I0412 07:40:16.707159 22051 db_lmdb.cpp:35] Opened lmdb ../local_data/lmdb/rtsd-r1/histeq/train/lmdb
I0412 07:40:16.727690 21929 data_layer.cpp:41] output data size: 1024,3,48,48
I0412 07:40:16.783469 21929 net.cpp:150] Setting up data
I0412 07:40:16.783499 21929 net.cpp:157] Top shape: 1024 3 48 48 (7077888)
I0412 07:40:16.783505 21929 net.cpp:157] Top shape: 1024 (1024)
I0412 07:40:16.783509 21929 net.cpp:165] Memory required for data: 28315648
I0412 07:40:16.783524 21929 layer_factory.hpp:77] Creating layer label_data_1_split
I0412 07:40:16.783538 21929 net.cpp:100] Creating Layer label_data_1_split
I0412 07:40:16.783547 21929 net.cpp:434] label_data_1_split <- label
I0412 07:40:16.783565 21929 net.cpp:408] label_data_1_split -> label_data_1_split_0
I0412 07:40:16.783581 21929 net.cpp:408] label_data_1_split -> label_data_1_split_1
I0412 07:40:16.783591 21929 net.cpp:408] label_data_1_split -> label_data_1_split_2
I0412 07:40:16.783674 21929 net.cpp:150] Setting up label_data_1_split
I0412 07:40:16.783682 21929 net.cpp:157] Top shape: 1024 (1024)
I0412 07:40:16.783687 21929 net.cpp:157] Top shape: 1024 (1024)
I0412 07:40:16.783694 21929 net.cpp:157] Top shape: 1024 (1024)
I0412 07:40:16.783699 21929 net.cpp:165] Memory required for data: 28327936
I0412 07:40:16.783702 21929 layer_factory.hpp:77] Creating layer conv1
I0412 07:40:16.783721 21929 net.cpp:100] Creating Layer conv1
I0412 07:40:16.783728 21929 net.cpp:434] conv1 <- data
I0412 07:40:16.783736 21929 net.cpp:408] conv1 -> conv1
I0412 07:40:17.107843 21929 net.cpp:150] Setting up conv1
I0412 07:40:17.107873 21929 net.cpp:157] Top shape: 1024 100 42 42 (180633600)
I0412 07:40:17.107884 21929 net.cpp:165] Memory required for data: 750862336
I0412 07:40:17.107908 21929 layer_factory.hpp:77] Creating layer conv1_relu
I0412 07:40:17.107920 21929 net.cpp:100] Creating Layer conv1_relu
I0412 07:40:17.107924 21929 net.cpp:434] conv1_relu <- conv1
I0412 07:40:17.107931 21929 net.cpp:395] conv1_relu -> conv1 (in-place)
I0412 07:40:17.108129 21929 net.cpp:150] Setting up conv1_relu
I0412 07:40:17.108141 21929 net.cpp:157] Top shape: 1024 100 42 42 (180633600)
I0412 07:40:17.108145 21929 net.cpp:165] Memory required for data: 1473396736
I0412 07:40:17.108150 21929 layer_factory.hpp:77] Creating layer pool1
I0412 07:40:17.108158 21929 net.cpp:100] Creating Layer pool1
I0412 07:40:17.108165 21929 net.cpp:434] pool1 <- conv1
I0412 07:40:17.108170 21929 net.cpp:408] pool1 -> pool1
I0412 07:40:17.108227 21929 net.cpp:150] Setting up pool1
I0412 07:40:17.108235 21929 net.cpp:157] Top shape: 1024 100 21 21 (45158400)
I0412 07:40:17.108239 21929 net.cpp:165] Memory required for data: 1654030336
I0412 07:40:17.108242 21929 layer_factory.hpp:77] Creating layer conv2
I0412 07:40:17.108254 21929 net.cpp:100] Creating Layer conv2
I0412 07:40:17.108260 21929 net.cpp:434] conv2 <- pool1
I0412 07:40:17.108266 21929 net.cpp:408] conv2 -> conv2
I0412 07:40:17.112823 21929 net.cpp:150] Setting up conv2
I0412 07:40:17.112840 21929 net.cpp:157] Top shape: 1024 150 18 18 (49766400)
I0412 07:40:17.112844 21929 net.cpp:165] Memory required for data: 1853095936
I0412 07:40:17.112855 21929 layer_factory.hpp:77] Creating layer conv2_relu
I0412 07:40:17.112862 21929 net.cpp:100] Creating Layer conv2_relu
I0412 07:40:17.112865 21929 net.cpp:434] conv2_relu <- conv2
I0412 07:40:17.112870 21929 net.cpp:395] conv2_relu -> conv2 (in-place)
I0412 07:40:17.113679 21929 net.cpp:150] Setting up conv2_relu
I0412 07:40:17.113695 21929 net.cpp:157] Top shape: 1024 150 18 18 (49766400)
I0412 07:40:17.113698 21929 net.cpp:165] Memory required for data: 2052161536
I0412 07:40:17.113703 21929 layer_factory.hpp:77] Creating layer pool2
I0412 07:40:17.113709 21929 net.cpp:100] Creating Layer pool2
I0412 07:40:17.113713 21929 net.cpp:434] pool2 <- conv2
I0412 07:40:17.113718 21929 net.cpp:408] pool2 -> pool2
I0412 07:40:17.113778 21929 net.cpp:150] Setting up pool2
I0412 07:40:17.113787 21929 net.cpp:157] Top shape: 1024 150 9 9 (12441600)
I0412 07:40:17.113790 21929 net.cpp:165] Memory required for data: 2101927936
I0412 07:40:17.113793 21929 layer_factory.hpp:77] Creating layer conv3
I0412 07:40:17.113803 21929 net.cpp:100] Creating Layer conv3
I0412 07:40:17.113809 21929 net.cpp:434] conv3 <- pool2
I0412 07:40:17.113837 21929 net.cpp:408] conv3 -> conv3
I0412 07:40:17.119388 21929 net.cpp:150] Setting up conv3
I0412 07:40:17.119405 21929 net.cpp:157] Top shape: 1024 250 6 6 (9216000)
I0412 07:40:17.119410 21929 net.cpp:165] Memory required for data: 2138791936
I0412 07:40:17.119420 21929 layer_factory.hpp:77] Creating layer conv3_relu
I0412 07:40:17.119426 21929 net.cpp:100] Creating Layer conv3_relu
I0412 07:40:17.119431 21929 net.cpp:434] conv3_relu <- conv3
I0412 07:40:17.119436 21929 net.cpp:395] conv3_relu -> conv3 (in-place)
I0412 07:40:17.120362 21929 net.cpp:150] Setting up conv3_relu
I0412 07:40:17.120378 21929 net.cpp:157] Top shape: 1024 250 6 6 (9216000)
I0412 07:40:17.120381 21929 net.cpp:165] Memory required for data: 2175655936
I0412 07:40:17.120385 21929 layer_factory.hpp:77] Creating layer pool3
I0412 07:40:17.120404 21929 net.cpp:100] Creating Layer pool3
I0412 07:40:17.120409 21929 net.cpp:434] pool3 <- conv3
I0412 07:40:17.120415 21929 net.cpp:408] pool3 -> pool3
I0412 07:40:17.120462 21929 net.cpp:150] Setting up pool3
I0412 07:40:17.120471 21929 net.cpp:157] Top shape: 1024 250 3 3 (2304000)
I0412 07:40:17.120473 21929 net.cpp:165] Memory required for data: 2184871936
I0412 07:40:17.120477 21929 layer_factory.hpp:77] Creating layer fc4_300
I0412 07:40:17.120484 21929 net.cpp:100] Creating Layer fc4_300
I0412 07:40:17.120488 21929 net.cpp:434] fc4_300 <- pool3
I0412 07:40:17.120493 21929 net.cpp:408] fc4_300 -> fc4_300
I0412 07:40:17.126008 21929 net.cpp:150] Setting up fc4_300
I0412 07:40:17.126024 21929 net.cpp:157] Top shape: 1024 300 (307200)
I0412 07:40:17.126026 21929 net.cpp:165] Memory required for data: 2186100736
I0412 07:40:17.126034 21929 layer_factory.hpp:77] Creating layer fc4_relu
I0412 07:40:17.126040 21929 net.cpp:100] Creating Layer fc4_relu
I0412 07:40:17.126049 21929 net.cpp:434] fc4_relu <- fc4_300
I0412 07:40:17.126055 21929 net.cpp:395] fc4_relu -> fc4_300 (in-place)
I0412 07:40:17.126255 21929 net.cpp:150] Setting up fc4_relu
I0412 07:40:17.126267 21929 net.cpp:157] Top shape: 1024 300 (307200)
I0412 07:40:17.126271 21929 net.cpp:165] Memory required for data: 2187329536
I0412 07:40:17.126274 21929 layer_factory.hpp:77] Creating layer drop4
I0412 07:40:17.126281 21929 net.cpp:100] Creating Layer drop4
I0412 07:40:17.126286 21929 net.cpp:434] drop4 <- fc4_300
I0412 07:40:17.126291 21929 net.cpp:395] drop4 -> fc4_300 (in-place)
I0412 07:40:17.126322 21929 net.cpp:150] Setting up drop4
I0412 07:40:17.126340 21929 net.cpp:157] Top shape: 1024 300 (307200)
I0412 07:40:17.126343 21929 net.cpp:165] Memory required for data: 2188558336
I0412 07:40:17.126346 21929 layer_factory.hpp:77] Creating layer fc5_67
I0412 07:40:17.126353 21929 net.cpp:100] Creating Layer fc5_67
I0412 07:40:17.126356 21929 net.cpp:434] fc5_67 <- fc4_300
I0412 07:40:17.126360 21929 net.cpp:408] fc5_67 -> fc5_classes
I0412 07:40:17.128175 21929 net.cpp:150] Setting up fc5_67
I0412 07:40:17.128190 21929 net.cpp:157] Top shape: 1024 67 (68608)
I0412 07:40:17.128193 21929 net.cpp:165] Memory required for data: 2188832768
I0412 07:40:17.128204 21929 layer_factory.hpp:77] Creating layer fc5_classes_fc5_67_0_split
I0412 07:40:17.128212 21929 net.cpp:100] Creating Layer fc5_classes_fc5_67_0_split
I0412 07:40:17.128217 21929 net.cpp:434] fc5_classes_fc5_67_0_split <- fc5_classes
I0412 07:40:17.128223 21929 net.cpp:408] fc5_classes_fc5_67_0_split -> fc5_classes_fc5_67_0_split_0
I0412 07:40:17.128232 21929 net.cpp:408] fc5_classes_fc5_67_0_split -> fc5_classes_fc5_67_0_split_1
I0412 07:40:17.128237 21929 net.cpp:408] fc5_classes_fc5_67_0_split -> fc5_classes_fc5_67_0_split_2
I0412 07:40:17.128286 21929 net.cpp:150] Setting up fc5_classes_fc5_67_0_split
I0412 07:40:17.128294 21929 net.cpp:157] Top shape: 1024 67 (68608)
I0412 07:40:17.128298 21929 net.cpp:157] Top shape: 1024 67 (68608)
I0412 07:40:17.128301 21929 net.cpp:157] Top shape: 1024 67 (68608)
I0412 07:40:17.128304 21929 net.cpp:165] Memory required for data: 2189656064
I0412 07:40:17.128307 21929 layer_factory.hpp:77] Creating layer softmax
I0412 07:40:17.128335 21929 net.cpp:100] Creating Layer softmax
I0412 07:40:17.128340 21929 net.cpp:434] softmax <- fc5_classes_fc5_67_0_split_0
I0412 07:40:17.128346 21929 net.cpp:408] softmax -> softmax
I0412 07:40:17.128598 21929 net.cpp:150] Setting up softmax
I0412 07:40:17.128612 21929 net.cpp:157] Top shape: 1024 67 (68608)
I0412 07:40:17.128614 21929 net.cpp:165] Memory required for data: 2189930496
I0412 07:40:17.128618 21929 layer_factory.hpp:77] Creating layer loss
I0412 07:40:17.128624 21929 net.cpp:100] Creating Layer loss
I0412 07:40:17.128628 21929 net.cpp:434] loss <- softmax
I0412 07:40:17.128633 21929 net.cpp:434] loss <- label_data_1_split_0
I0412 07:40:17.128638 21929 net.cpp:408] loss -> loss
…
