…
I0411 05:56:46.857419 13033 net.cpp:322] The NetState phase (0) differed from the phase (1) specified by a rule in layer accuracy_5
I0411 05:56:46.857599 13033 net.cpp:58] Initializing net from parameters: 
state {
  phase: TRAIN
  level: 0
  stage: ""
}
layer {
  name: "data"
  type: "Data"
  top: "data"
  top: "label"
  include {
    phase: TRAIN
  }
  transform_param {
    scale: 0.0039215689
    mirror: false
    crop_size: 48
    mean_value: 130
    mean_value: 123
    mean_value: 137
  }
  data_param {
    source: "../local_data/lmdb/rtsd-r1/histeq/train/lmdb"
    batch_size: 1024
    backend: LMDB
  }
}
layer {
  name: "conv1"
  type: "Convolution"
  bottom: "data"
  top: "conv1"
  convolution_param {
    num_output: 100
    pad: 0
    kernel_size: 7
    group: 1
    stride: 1
    weight_filler {
      type: "xavier"
    }
  }
}
layer {
  name: "conv1_prescale"
  type: "Scale"
  bottom: "conv1"
  top: "conv1"
  param {
    lr_mult: 0
    decay_mult: 0
  }
  scale_param {
    filler {
      value: 0.6666
    }
    bias_term: false
  }
}
layer {
  name: "conv1_sTanH"
  type: "TanH"
  bottom: "conv1"
  top: "conv1"
}
layer {
  name: "conv1_postscale"
  type: "Scale"
  bottom: "conv1"
  top: "conv1"
  param {
    lr_mult: 0
    decay_mult: 0
  }
  scale_param {
    filler {
      value: 1.7159
    }
    bias_term: false
  }
}
layer {
  name: "pool1"
  type: "Pooling"
  bottom: "conv1"
  top: "pool1"
  pooling_param {
    pool: MAX
    kernel_size: 2
    stride: 2
  }
}
layer {
  name: "conv2"
  type: "Convolution"
  bottom: "pool1"
  top: "conv2"
  convolution_param {
    num_output: 150
    pad: 0
    kernel_size: 4
    group: 1
    stride: 1
    weight_filler {
      type: "xavier"
    }
  }
}
layer {
  name: "conv2_prescale"
  type: "Scale"
  bottom: "conv2"
  top: "conv2"
  param {
    lr_mult: 0
    decay_mult: 0
  }
  scale_param {
    filler {
      value: 0.6666
    }
    bias_term: false
  }
}
layer {
  name: "conv2_sTanH"
  type: "TanH"
  bottom: "conv2"
  top: "conv2"
}
layer {
  name: "conv2_postscale"
  type: "Scale"
  bottom: "conv2"
  top: "conv2"
  param {
    lr_mult: 0
    decay_mult: 0
  }
  scale_param {
    filler {
      value: 1.7159
    }
    bias_term: false
  }
}
layer {
  name: "pool2"
  type: "Pooling"
  bottom: "conv2"
  top: "pool2"
  pooling_param {
    pool: MAX
    kernel_size: 2
    stride: 2
  }
}
layer {
  name: "conv3"
  type: "Convolution"
  bottom: "pool2"
  top: "conv3"
  convolution_param {
    num_output: 250
    pad: 0
    kernel_size: 4
    group: 1
    stride: 1
    weight_filler {
      type: "xavier"
    }
  }
}
layer {
  name: "conv3_prescale"
  type: "Scale"
  bottom: "conv3"
  top: "conv3"
  param {
    lr_mult: 0
    decay_mult: 0
  }
  scale_param {
    filler {
      value: 0.6666
    }
    bias_term: false
  }
}
layer {
  name: "conv3_sTanH"
  type: "TanH"
  bottom: "conv3"
  top: "conv3"
}
layer {
  name: "conv3_postscale"
  type: "Scale"
  bottom: "conv3"
  top: "conv3"
  param {
    lr_mult: 0
    decay_mult: 0
  }
  scale_param {
    filler {
      value: 1.7159
    }
    bias_term: false
  }
}
layer {
  name: "pool3"
  type: "Pooling"
  bottom: "conv3"
  top: "pool3"
  pooling_param {
    pool: MAX
    kernel_size: 2
    stride: 2
  }
}
layer {
  name: "fc4_300"
  type: "InnerProduct"
  bottom: "pool3"
  top: "fc4_300"
  inner_product_param {
    num_output: 300
    weight_filler {
      type: "xavier"
    }
  }
}
layer {
  name: "fc4_prescale"
  type: "Scale"
  bottom: "fc4_300"
  top: "fc4_300"
  param {
    lr_mult: 0
    decay_mult: 0
  }
  scale_param {
    filler {
      value: 0.6666
    }
    bias_term: false
  }
}
layer {
  name: "fc4_sTanH"
  type: "TanH"
  bottom: "fc4_300"
  top: "fc4_300"
}
layer {
  name: "fc4_postscale"
  type: "Scale"
  bottom: "fc4_300"
  top: "fc4_300"
  param {
    lr_mult: 0
    decay_mult: 0
  }
  scale_param {
    filler {
      value: 1.7159
    }
    bias_term: false
  }
}
layer {
  name: "fc5_67"
  type: "InnerProduct"
  bottom: "fc4_300"
  top: "fc5_classes"
  inner_product_param {
    num_output: 67
    weight_filler {
      type: "xavier"
    }
  }
}
layer {
  name: "loss"
  type: "SoftmaxWithLoss"
  bottom: "fc5_classes"
  bottom: "label"
  top: "loss"
}
I0411 05:56:46.857724 13033 layer_factory.hpp:77] Creating layer data
I0411 05:56:46.858984 13033 net.cpp:100] Creating Layer data
I0411 05:56:46.859004 13033 net.cpp:408] data -> data
I0411 05:56:46.859031 13033 net.cpp:408] data -> label
I0411 05:56:46.860245 13127 db_lmdb.cpp:35] Opened lmdb ../local_data/lmdb/rtsd-r1/histeq/train/lmdb
I0411 05:56:46.880275 13033 data_layer.cpp:41] output data size: 1024,3,48,48
I0411 05:56:46.932377 13033 net.cpp:150] Setting up data
I0411 05:56:46.932411 13033 net.cpp:157] Top shape: 1024 3 48 48 (7077888)
I0411 05:56:46.932418 13033 net.cpp:157] Top shape: 1024 (1024)
I0411 05:56:46.932422 13033 net.cpp:165] Memory required for data: 28315648
I0411 05:56:46.932433 13033 layer_factory.hpp:77] Creating layer conv1
I0411 05:56:46.932458 13033 net.cpp:100] Creating Layer conv1
I0411 05:56:46.932467 13033 net.cpp:434] conv1 <- data
I0411 05:56:46.932484 13033 net.cpp:408] conv1 -> conv1
I0411 05:56:47.261982 13033 net.cpp:150] Setting up conv1
I0411 05:56:47.262027 13033 net.cpp:157] Top shape: 1024 100 42 42 (180633600)
I0411 05:56:47.262035 13033 net.cpp:165] Memory required for data: 750850048
I0411 05:56:47.262071 13033 layer_factory.hpp:77] Creating layer conv1_prescale
I0411 05:56:47.262099 13033 net.cpp:100] Creating Layer conv1_prescale
I0411 05:56:47.262109 13033 net.cpp:434] conv1_prescale <- conv1
I0411 05:56:47.262121 13033 net.cpp:395] conv1_prescale -> conv1 (in-place)
I0411 05:56:47.262282 13033 net.cpp:150] Setting up conv1_prescale
I0411 05:56:47.262293 13033 net.cpp:157] Top shape: 1024 100 42 42 (180633600)
I0411 05:56:47.262297 13033 net.cpp:165] Memory required for data: 1473384448
I0411 05:56:47.262306 13033 layer_factory.hpp:77] Creating layer conv1_sTanH
I0411 05:56:47.262313 13033 net.cpp:100] Creating Layer conv1_sTanH
I0411 05:56:47.262317 13033 net.cpp:434] conv1_sTanH <- conv1
I0411 05:56:47.262322 13033 net.cpp:395] conv1_sTanH -> conv1 (in-place)
I0411 05:56:47.262558 13033 net.cpp:150] Setting up conv1_sTanH
I0411 05:56:47.262573 13033 net.cpp:157] Top shape: 1024 100 42 42 (180633600)
I0411 05:56:47.262576 13033 net.cpp:165] Memory required for data: 2195918848
I0411 05:56:47.262581 13033 layer_factory.hpp:77] Creating layer conv1_postscale
I0411 05:56:47.262590 13033 net.cpp:100] Creating Layer conv1_postscale
I0411 05:56:47.262594 13033 net.cpp:434] conv1_postscale <- conv1
I0411 05:56:47.262600 13033 net.cpp:395] conv1_postscale -> conv1 (in-place)
I0411 05:56:47.262711 13033 net.cpp:150] Setting up conv1_postscale
I0411 05:56:47.262720 13033 net.cpp:157] Top shape: 1024 100 42 42 (180633600)
I0411 05:56:47.262724 13033 net.cpp:165] Memory required for data: 2918453248
I0411 05:56:47.262732 13033 layer_factory.hpp:77] Creating layer pool1
I0411 05:56:47.262739 13033 net.cpp:100] Creating Layer pool1
I0411 05:56:47.262743 13033 net.cpp:434] pool1 <- conv1
I0411 05:56:47.262748 13033 net.cpp:408] pool1 -> pool1
I0411 05:56:47.262801 13033 net.cpp:150] Setting up pool1
I0411 05:56:47.262811 13033 net.cpp:157] Top shape: 1024 100 21 21 (45158400)
I0411 05:56:47.262835 13033 net.cpp:165] Memory required for data: 3099086848
I0411 05:56:47.262840 13033 layer_factory.hpp:77] Creating layer conv2
I0411 05:56:47.262852 13033 net.cpp:100] Creating Layer conv2
I0411 05:56:47.262858 13033 net.cpp:434] conv2 <- pool1
I0411 05:56:47.262864 13033 net.cpp:408] conv2 -> conv2
I0411 05:56:47.272707 13033 net.cpp:150] Setting up conv2
I0411 05:56:47.272728 13033 net.cpp:157] Top shape: 1024 150 18 18 (49766400)
I0411 05:56:47.272733 13033 net.cpp:165] Memory required for data: 3298152448
I0411 05:56:47.272745 13033 layer_factory.hpp:77] Creating layer conv2_prescale
I0411 05:56:47.272758 13033 net.cpp:100] Creating Layer conv2_prescale
I0411 05:56:47.272765 13033 net.cpp:434] conv2_prescale <- conv2
I0411 05:56:47.272773 13033 net.cpp:395] conv2_prescale -> conv2 (in-place)
I0411 05:56:47.272896 13033 net.cpp:150] Setting up conv2_prescale
I0411 05:56:47.272907 13033 net.cpp:157] Top shape: 1024 150 18 18 (49766400)
I0411 05:56:47.272909 13033 net.cpp:165] Memory required for data: 3497218048
I0411 05:56:47.272917 13033 layer_factory.hpp:77] Creating layer conv2_sTanH
I0411 05:56:47.272925 13033 net.cpp:100] Creating Layer conv2_sTanH
I0411 05:56:47.272930 13033 net.cpp:434] conv2_sTanH <- conv2
I0411 05:56:47.272936 13033 net.cpp:395] conv2_sTanH -> conv2 (in-place)
I0411 05:56:47.273913 13033 net.cpp:150] Setting up conv2_sTanH
I0411 05:56:47.273936 13033 net.cpp:157] Top shape: 1024 150 18 18 (49766400)
I0411 05:56:47.273941 13033 net.cpp:165] Memory required for data: 3696283648
I0411 05:56:47.273946 13033 layer_factory.hpp:77] Creating layer conv2_postscale
I0411 05:56:47.273954 13033 net.cpp:100] Creating Layer conv2_postscale
I0411 05:56:47.273958 13033 net.cpp:434] conv2_postscale <- conv2
I0411 05:56:47.273965 13033 net.cpp:395] conv2_postscale -> conv2 (in-place)
I0411 05:56:47.274077 13033 net.cpp:150] Setting up conv2_postscale
I0411 05:56:47.274088 13033 net.cpp:157] Top shape: 1024 150 18 18 (49766400)
I0411 05:56:47.274091 13033 net.cpp:165] Memory required for data: 3895349248
I0411 05:56:47.274098 13033 layer_factory.hpp:77] Creating layer pool2
I0411 05:56:47.274106 13033 net.cpp:100] Creating Layer pool2
I0411 05:56:47.274109 13033 net.cpp:434] pool2 <- conv2
I0411 05:56:47.274116 13033 net.cpp:408] pool2 -> pool2
I0411 05:56:47.274160 13033 net.cpp:150] Setting up pool2
I0411 05:56:47.274169 13033 net.cpp:157] Top shape: 1024 150 9 9 (12441600)
I0411 05:56:47.274173 13033 net.cpp:165] Memory required for data: 3945115648
I0411 05:56:47.274178 13033 layer_factory.hpp:77] Creating layer conv3
I0411 05:56:47.274186 13033 net.cpp:100] Creating Layer conv3
I0411 05:56:47.274193 13033 net.cpp:434] conv3 <- pool2
I0411 05:56:47.274199 13033 net.cpp:408] conv3 -> conv3
I0411 05:56:47.282295 13033 net.cpp:150] Setting up conv3
I0411 05:56:47.282316 13033 net.cpp:157] Top shape: 1024 250 6 6 (9216000)
I0411 05:56:47.282321 13033 net.cpp:165] Memory required for data: 3981979648
I0411 05:56:47.282333 13033 layer_factory.hpp:77] Creating layer conv3_prescale
I0411 05:56:47.282342 13033 net.cpp:100] Creating Layer conv3_prescale
I0411 05:56:47.282346 13033 net.cpp:434] conv3_prescale <- conv3
I0411 05:56:47.282353 13033 net.cpp:395] conv3_prescale -> conv3 (in-place)
I0411 05:56:47.282462 13033 net.cpp:150] Setting up conv3_prescale
I0411 05:56:47.282472 13033 net.cpp:157] Top shape: 1024 250 6 6 (9216000)
I0411 05:56:47.282476 13033 net.cpp:165] Memory required for data: 4018843648
I0411 05:56:47.282482 13033 layer_factory.hpp:77] Creating layer conv3_sTanH
I0411 05:56:47.282488 13033 net.cpp:100] Creating Layer conv3_sTanH
I0411 05:56:47.282492 13033 net.cpp:434] conv3_sTanH <- conv3
I0411 05:56:47.282497 13033 net.cpp:395] conv3_sTanH -> conv3 (in-place)
I0411 05:56:47.283680 13033 net.cpp:150] Setting up conv3_sTanH
I0411 05:56:47.283699 13033 net.cpp:157] Top shape: 1024 250 6 6 (9216000)
I0411 05:56:47.283702 13033 net.cpp:165] Memory required for data: 4055707648
I0411 05:56:47.283706 13033 layer_factory.hpp:77] Creating layer conv3_postscale
I0411 05:56:47.283730 13033 net.cpp:100] Creating Layer conv3_postscale
I0411 05:56:47.283735 13033 net.cpp:434] conv3_postscale <- conv3
I0411 05:56:47.283742 13033 net.cpp:395] conv3_postscale -> conv3 (in-place)
I0411 05:56:47.283859 13033 net.cpp:150] Setting up conv3_postscale
I0411 05:56:47.283869 13033 net.cpp:157] Top shape: 1024 250 6 6 (9216000)
I0411 05:56:47.283872 13033 net.cpp:165] Memory required for data: 4092571648
I0411 05:56:47.283891 13033 layer_factory.hpp:77] Creating layer pool3
I0411 05:56:47.283900 13033 net.cpp:100] Creating Layer pool3
I0411 05:56:47.283903 13033 net.cpp:434] pool3 <- conv3
I0411 05:56:47.283910 13033 net.cpp:408] pool3 -> pool3
I0411 05:56:47.283957 13033 net.cpp:150] Setting up pool3
I0411 05:56:47.283965 13033 net.cpp:157] Top shape: 1024 250 3 3 (2304000)
I0411 05:56:47.283969 13033 net.cpp:165] Memory required for data: 4101787648
I0411 05:56:47.283972 13033 layer_factory.hpp:77] Creating layer fc4_300
I0411 05:56:47.283983 13033 net.cpp:100] Creating Layer fc4_300
I0411 05:56:47.283987 13033 net.cpp:434] fc4_300 <- pool3
I0411 05:56:47.283993 13033 net.cpp:408] fc4_300 -> fc4_300
I0411 05:56:47.290702 13033 net.cpp:150] Setting up fc4_300
I0411 05:56:47.290720 13033 net.cpp:157] Top shape: 1024 300 (307200)
I0411 05:56:47.290725 13033 net.cpp:165] Memory required for data: 4103016448
I0411 05:56:47.290733 13033 layer_factory.hpp:77] Creating layer fc4_prescale
I0411 05:56:47.290742 13033 net.cpp:100] Creating Layer fc4_prescale
I0411 05:56:47.290746 13033 net.cpp:434] fc4_prescale <- fc4_300
I0411 05:56:47.290753 13033 net.cpp:395] fc4_prescale -> fc4_300 (in-place)
I0411 05:56:47.290856 13033 net.cpp:150] Setting up fc4_prescale
I0411 05:56:47.290866 13033 net.cpp:157] Top shape: 1024 300 (307200)
I0411 05:56:47.290870 13033 net.cpp:165] Memory required for data: 4104245248
I0411 05:56:47.290876 13033 layer_factory.hpp:77] Creating layer fc4_sTanH
I0411 05:56:47.290882 13033 net.cpp:100] Creating Layer fc4_sTanH
I0411 05:56:47.290886 13033 net.cpp:434] fc4_sTanH <- fc4_300
I0411 05:56:47.290892 13033 net.cpp:395] fc4_sTanH -> fc4_300 (in-place)
I0411 05:56:47.291108 13033 net.cpp:150] Setting up fc4_sTanH
I0411 05:56:47.291121 13033 net.cpp:157] Top shape: 1024 300 (307200)
I0411 05:56:47.291124 13033 net.cpp:165] Memory required for data: 4105474048
I0411 05:56:47.291128 13033 layer_factory.hpp:77] Creating layer fc4_postscale
I0411 05:56:47.291136 13033 net.cpp:100] Creating Layer fc4_postscale
I0411 05:56:47.291142 13033 net.cpp:434] fc4_postscale <- fc4_300
I0411 05:56:47.291148 13033 net.cpp:395] fc4_postscale -> fc4_300 (in-place)
I0411 05:56:47.291261 13033 net.cpp:150] Setting up fc4_postscale
I0411 05:56:47.291270 13033 net.cpp:157] Top shape: 1024 300 (307200)
I0411 05:56:47.291275 13033 net.cpp:165] Memory required for data: 4106702848
I0411 05:56:47.291280 13033 layer_factory.hpp:77] Creating layer fc5_67
I0411 05:56:47.291287 13033 net.cpp:100] Creating Layer fc5_67
I0411 05:56:47.291290 13033 net.cpp:434] fc5_67 <- fc4_300
I0411 05:56:47.291296 13033 net.cpp:408] fc5_67 -> fc5_classes
I0411 05:56:47.292670 13033 net.cpp:150] Setting up fc5_67
I0411 05:56:47.292688 13033 net.cpp:157] Top shape: 1024 67 (68608)
I0411 05:56:47.292692 13033 net.cpp:165] Memory required for data: 4106977280
I0411 05:56:47.292706 13033 layer_factory.hpp:77] Creating layer loss
I0411 05:56:47.292713 13033 net.cpp:100] Creating Layer loss
I0411 05:56:47.292717 13033 net.cpp:434] loss <- fc5_classes
I0411 05:56:47.292723 13033 net.cpp:434] loss <- label
I0411 05:56:47.292731 13033 net.cpp:408] loss -> loss
I0411 05:56:47.292745 13033 layer_factory.hpp:77] Creating layer loss
…
I0411 05:56:47.293611 13033 solver.cpp:193] Creating test net (#0) specified by test_net file: ./Prototxt/experiment_8/rtsd-r1/histeq/trial_1/test.prototxt
I0411 05:56:47.293830 13033 net.cpp:58] Initializing net from parameters: 
state {
  phase: TEST
}
layer {
  name: "data"
  type: "Data"
  top: "data"
  top: "label"
  include {
    phase: TEST
  }
  transform_param {
    scale: 0.0039215689
    mirror: false
    crop_size: 48
    mean_value: 124
    mean_value: 121
    mean_value: 142
  }
  data_param {
    source: "../local_data/lmdb/rtsd-r1/histeq/test/lmdb"
    batch_size: 1024
    backend: LMDB
  }
}
layer {
  name: "conv1"
  type: "Convolution"
  bottom: "data"
  top: "conv1"
  convolution_param {
    num_output: 100
    pad: 0
    kernel_size: 7
    group: 1
    stride: 1
    weight_filler {
      type: "xavier"
    }
  }
}
layer {
  name: "conv1_prescale"
  type: "Scale"
  bottom: "conv1"
  top: "conv1"
  param {
    lr_mult: 0
    decay_mult: 0
  }
  scale_param {
    filler {
      value: 0.6666
    }
    bias_term: false
  }
}
layer {
  name: "conv1_sTanH"
  type: "TanH"
  bottom: "conv1"
  top: "conv1"
}
layer {
  name: "conv1_postscale"
  type: "Scale"
  bottom: "conv1"
  top: "conv1"
  param {
    lr_mult: 0
    decay_mult: 0
  }
  scale_param {
    filler {
      value: 1.7159
    }
    bias_term: false
  }
}
layer {
  name: "pool1"
  type: "Pooling"
  bottom: "conv1"
  top: "pool1"
  pooling_param {
    pool: MAX
    kernel_size: 2
    stride: 2
  }
}
layer {
  name: "conv2"
  type: "Convolution"
  bottom: "pool1"
  top: "conv2"
  convolution_param {
    num_output: 150
    pad: 0
    kernel_size: 4
    group: 1
    stride: 1
    weight_filler {
      type: "xavier"
    }
  }
}
layer {
  name: "conv2_prescale"
  type: "Scale"
  bottom: "conv2"
  top: "conv2"
  param {
    lr_mult: 0
    decay_mult: 0
  }
  scale_param {
    filler {
      value: 0.6666
    }
    bias_term: false
  }
}
layer {
  name: "conv2_sTanH"
  type: "TanH"
  bottom: "conv2"
  top: "conv2"
}
layer {
  name: "conv2_postscale"
  type: "Scale"
  bottom: "conv2"
  top: "conv2"
  param {
    lr_mult: 0
    decay_mult: 0
  }
  scale_param {
    filler {
      value: 1.7159
    }
    bias_term: false
  }
}
layer {
  name: "pool2"
  type: "Pooling"
  bottom: "conv2"
  top: "pool2"
  pooling_param {
    pool: MAX
    kernel_size: 2
    stride: 2
  }
}
layer {
  name: "conv3"
  type: "Convolution"
  bottom: "pool2"
  top: "conv3"
  convolution_param {
    num_output: 250
    pad: 0
    kernel_size: 4
    group: 1
    stride: 1
    weight_filler {
      type: "xavier"
    }
  }
}
layer {
  name: "conv3_prescale"
  type: "Scale"
  bottom: "conv3"
  top: "conv3"
  param {
    lr_mult: 0
    decay_mult: 0
  }
  scale_param {
    filler {
      value: 0.6666
    }
    bias_term: false
  }
}
layer {
  name: "conv3_sTanH"
  type: "TanH"
  bottom: "conv3"
  top: "conv3"
}
layer {
  name: "conv3_postscale"
  type: "Scale"
  bottom: "conv3"
  top: "conv3"
  param {
    lr_mult: 0
    decay_mult: 0
  }
  scale_param {
    filler {
      value: 1.7159
    }
    bias_term: false
  }
}
layer {
  name: "pool3"
  type: "Pooling"
  bottom: "conv3"
  top: "pool3"
  pooling_param {
    pool: MAX
    kernel_size: 2
    stride: 2
  }
}
layer {
  name: "fc4_300"
  type: "InnerProduct"
  bottom: "pool3"
  top: "fc4_300"
  inner_product_param {
    num_output: 300
    weight_filler {
      type: "xavier"
    }
  }
}
layer {
  name: "fc4_prescale"
  type: "Scale"
  bottom: "fc4_300"
  top: "fc4_300"
  param {
    lr_mult: 0
    decay_mult: 0
  }
  scale_param {
    filler {
      value: 0.6666
    }
    bias_term: false
  }
}
layer {
  name: "fc4_sTanH"
  type: "TanH"
  bottom: "fc4_300"
  top: "fc4_300"
}
layer {
  name: "fc4_postscale"
  type: "Scale"
  bottom: "fc4_300"
  top: "fc4_300"
  param {
    lr_mult: 0
    decay_mult: 0
  }
  scale_param {
    filler {
      value: 1.7159
    }
    bias_term: false
  }
}
layer {
  name: "fc5_67"
  type: "InnerProduct"
  bottom: "fc4_300"
  top: "fc5_classes"
  inner_product_param {
    num_output: 67
    weight_filler {
      type: "xavier"
    }
  }
}
layer {
  name: "loss"
  type: "SoftmaxWithLoss"
  bottom: "fc5_classes"
  bottom: "label"
  top: "loss"
}
layer {
  name: "accuracy_1"
  type: "Accuracy"
  bottom: "fc5_classes"
  bottom: "label"
  top: "accuracy_1"
  include {
    phase: TEST
  }
  accuracy_param {
    top_k: 1
  }
}
layer {
  name: "accuracy_5"
  type: "Accuracy"
  bottom: "fc5_classes"
  bottom: "label"
  top: "accuracy_5"
  include {
    phase: TEST
  }
  accuracy_param {
    top_k: 5
  }
}
I0411 05:56:47.293964 13033 layer_factory.hpp:77] Creating layer data
I0411 05:56:47.294685 13033 net.cpp:100] Creating Layer data
I0411 05:56:47.294698 13033 net.cpp:408] data -> data
I0411 05:56:47.294709 13033 net.cpp:408] data -> label
I0411 05:56:47.318503 13169 db_lmdb.cpp:35] Opened lmdb ../local_data/lmdb/rtsd-r1/histeq/test/lmdb
I0411 05:56:47.322418 13033 data_layer.cpp:41] output data size: 1024,3,48,48
I0411 05:56:47.369916 13033 net.cpp:150] Setting up data
I0411 05:56:47.369947 13033 net.cpp:157] Top shape: 1024 3 48 48 (7077888)
I0411 05:56:47.369954 13033 net.cpp:157] Top shape: 1024 (1024)
I0411 05:56:47.369958 13033 net.cpp:165] Memory required for data: 28315648
I0411 05:56:47.369966 13033 layer_factory.hpp:77] Creating layer label_data_1_split
I0411 05:56:47.369982 13033 net.cpp:100] Creating Layer label_data_1_split
I0411 05:56:47.369987 13033 net.cpp:434] label_data_1_split <- label
I0411 05:56:47.369995 13033 net.cpp:408] label_data_1_split -> label_data_1_split_0
I0411 05:56:47.370007 13033 net.cpp:408] label_data_1_split -> label_data_1_split_1
I0411 05:56:47.370018 13033 net.cpp:408] label_data_1_split -> label_data_1_split_2
I0411 05:56:47.370167 13033 net.cpp:150] Setting up label_data_1_split
I0411 05:56:47.370178 13033 net.cpp:157] Top shape: 1024 (1024)
I0411 05:56:47.370183 13033 net.cpp:157] Top shape: 1024 (1024)
I0411 05:56:47.370188 13033 net.cpp:157] Top shape: 1024 (1024)
I0411 05:56:47.370192 13033 net.cpp:165] Memory required for data: 28327936
I0411 05:56:47.370195 13033 layer_factory.hpp:77] Creating layer conv1
I0411 05:56:47.370211 13033 net.cpp:100] Creating Layer conv1
I0411 05:56:47.370218 13033 net.cpp:434] conv1 <- data
I0411 05:56:47.370224 13033 net.cpp:408] conv1 -> conv1
I0411 05:56:47.374575 13033 net.cpp:150] Setting up conv1
I0411 05:56:47.374596 13033 net.cpp:157] Top shape: 1024 100 42 42 (180633600)
I0411 05:56:47.374631 13033 net.cpp:165] Memory required for data: 750862336
I0411 05:56:47.374651 13033 layer_factory.hpp:77] Creating layer conv1_prescale
I0411 05:56:47.374662 13033 net.cpp:100] Creating Layer conv1_prescale
I0411 05:56:47.374667 13033 net.cpp:434] conv1_prescale <- conv1
I0411 05:56:47.374675 13033 net.cpp:395] conv1_prescale -> conv1 (in-place)
I0411 05:56:47.374810 13033 net.cpp:150] Setting up conv1_prescale
I0411 05:56:47.374821 13033 net.cpp:157] Top shape: 1024 100 42 42 (180633600)
I0411 05:56:47.374825 13033 net.cpp:165] Memory required for data: 1473396736
I0411 05:56:47.374835 13033 layer_factory.hpp:77] Creating layer conv1_sTanH
I0411 05:56:47.374843 13033 net.cpp:100] Creating Layer conv1_sTanH
I0411 05:56:47.374850 13033 net.cpp:434] conv1_sTanH <- conv1
I0411 05:56:47.374855 13033 net.cpp:395] conv1_sTanH -> conv1 (in-place)
I0411 05:56:47.375102 13033 net.cpp:150] Setting up conv1_sTanH
I0411 05:56:47.375115 13033 net.cpp:157] Top shape: 1024 100 42 42 (180633600)
I0411 05:56:47.375119 13033 net.cpp:165] Memory required for data: 2195931136
I0411 05:56:47.375123 13033 layer_factory.hpp:77] Creating layer conv1_postscale
I0411 05:56:47.375133 13033 net.cpp:100] Creating Layer conv1_postscale
I0411 05:56:47.375136 13033 net.cpp:434] conv1_postscale <- conv1
I0411 05:56:47.375143 13033 net.cpp:395] conv1_postscale -> conv1 (in-place)
I0411 05:56:47.375272 13033 net.cpp:150] Setting up conv1_postscale
I0411 05:56:47.375283 13033 net.cpp:157] Top shape: 1024 100 42 42 (180633600)
I0411 05:56:47.375286 13033 net.cpp:165] Memory required for data: 2918465536
I0411 05:56:47.375293 13033 layer_factory.hpp:77] Creating layer pool1
I0411 05:56:47.375301 13033 net.cpp:100] Creating Layer pool1
I0411 05:56:47.375308 13033 net.cpp:434] pool1 <- conv1
I0411 05:56:47.375313 13033 net.cpp:408] pool1 -> pool1
I0411 05:56:47.375365 13033 net.cpp:150] Setting up pool1
I0411 05:56:47.375375 13033 net.cpp:157] Top shape: 1024 100 21 21 (45158400)
I0411 05:56:47.375378 13033 net.cpp:165] Memory required for data: 3099099136
I0411 05:56:47.375382 13033 layer_factory.hpp:77] Creating layer conv2
I0411 05:56:47.375392 13033 net.cpp:100] Creating Layer conv2
I0411 05:56:47.375398 13033 net.cpp:434] conv2 <- pool1
I0411 05:56:47.375406 13033 net.cpp:408] conv2 -> conv2
I0411 05:56:47.384480 13033 net.cpp:150] Setting up conv2
I0411 05:56:47.384506 13033 net.cpp:157] Top shape: 1024 150 18 18 (49766400)
I0411 05:56:47.384516 13033 net.cpp:165] Memory required for data: 3298164736
I0411 05:56:47.384538 13033 layer_factory.hpp:77] Creating layer conv2_prescale
I0411 05:56:47.384553 13033 net.cpp:100] Creating Layer conv2_prescale
I0411 05:56:47.384562 13033 net.cpp:434] conv2_prescale <- conv2
I0411 05:56:47.384570 13033 net.cpp:395] conv2_prescale -> conv2 (in-place)
I0411 05:56:47.384713 13033 net.cpp:150] Setting up conv2_prescale
I0411 05:56:47.384726 13033 net.cpp:157] Top shape: 1024 150 18 18 (49766400)
I0411 05:56:47.384729 13033 net.cpp:165] Memory required for data: 3497230336
I0411 05:56:47.384734 13033 layer_factory.hpp:77] Creating layer conv2_sTanH
I0411 05:56:47.384742 13033 net.cpp:100] Creating Layer conv2_sTanH
I0411 05:56:47.384748 13033 net.cpp:434] conv2_sTanH <- conv2
I0411 05:56:47.384754 13033 net.cpp:395] conv2_sTanH -> conv2 (in-place)
I0411 05:56:47.385836 13033 net.cpp:150] Setting up conv2_sTanH
I0411 05:56:47.385856 13033 net.cpp:157] Top shape: 1024 150 18 18 (49766400)
I0411 05:56:47.385860 13033 net.cpp:165] Memory required for data: 3696295936
I0411 05:56:47.385865 13033 layer_factory.hpp:77] Creating layer conv2_postscale
I0411 05:56:47.385875 13033 net.cpp:100] Creating Layer conv2_postscale
I0411 05:56:47.385880 13033 net.cpp:434] conv2_postscale <- conv2
I0411 05:56:47.385887 13033 net.cpp:395] conv2_postscale -> conv2 (in-place)
I0411 05:56:47.386016 13033 net.cpp:150] Setting up conv2_postscale
I0411 05:56:47.386029 13033 net.cpp:157] Top shape: 1024 150 18 18 (49766400)
I0411 05:56:47.386031 13033 net.cpp:165] Memory required for data: 3895361536
I0411 05:56:47.386056 13033 layer_factory.hpp:77] Creating layer pool2
I0411 05:56:47.386067 13033 net.cpp:100] Creating Layer pool2
I0411 05:56:47.386071 13033 net.cpp:434] pool2 <- conv2
I0411 05:56:47.386078 13033 net.cpp:408] pool2 -> pool2
I0411 05:56:47.386138 13033 net.cpp:150] Setting up pool2
I0411 05:56:47.386148 13033 net.cpp:157] Top shape: 1024 150 9 9 (12441600)
I0411 05:56:47.386152 13033 net.cpp:165] Memory required for data: 3945127936
I0411 05:56:47.386157 13033 layer_factory.hpp:77] Creating layer conv3
I0411 05:56:47.386168 13033 net.cpp:100] Creating Layer conv3
I0411 05:56:47.386173 13033 net.cpp:434] conv3 <- pool2
I0411 05:56:47.386186 13033 net.cpp:408] conv3 -> conv3
I0411 05:56:47.394032 13033 net.cpp:150] Setting up conv3
I0411 05:56:47.394053 13033 net.cpp:157] Top shape: 1024 250 6 6 (9216000)
I0411 05:56:47.394062 13033 net.cpp:165] Memory required for data: 3981991936
I0411 05:56:47.394080 13033 layer_factory.hpp:77] Creating layer conv3_prescale
I0411 05:56:47.394090 13033 net.cpp:100] Creating Layer conv3_prescale
I0411 05:56:47.394095 13033 net.cpp:434] conv3_prescale <- conv3
I0411 05:56:47.394104 13033 net.cpp:395] conv3_prescale -> conv3 (in-place)
I0411 05:56:47.394228 13033 net.cpp:150] Setting up conv3_prescale
I0411 05:56:47.394243 13033 net.cpp:157] Top shape: 1024 250 6 6 (9216000)
I0411 05:56:47.394246 13033 net.cpp:165] Memory required for data: 4018855936
I0411 05:56:47.394253 13033 layer_factory.hpp:77] Creating layer conv3_sTanH
I0411 05:56:47.394259 13033 net.cpp:100] Creating Layer conv3_sTanH
I0411 05:56:47.394263 13033 net.cpp:434] conv3_sTanH <- conv3
I0411 05:56:47.394269 13033 net.cpp:395] conv3_sTanH -> conv3 (in-place)
I0411 05:56:47.395573 13033 net.cpp:150] Setting up conv3_sTanH
I0411 05:56:47.395596 13033 net.cpp:157] Top shape: 1024 250 6 6 (9216000)
I0411 05:56:47.395601 13033 net.cpp:165] Memory required for data: 4055719936
I0411 05:56:47.395606 13033 layer_factory.hpp:77] Creating layer conv3_postscale
I0411 05:56:47.395613 13033 net.cpp:100] Creating Layer conv3_postscale
I0411 05:56:47.395618 13033 net.cpp:434] conv3_postscale <- conv3
I0411 05:56:47.395632 13033 net.cpp:395] conv3_postscale -> conv3 (in-place)
I0411 05:56:47.395757 13033 net.cpp:150] Setting up conv3_postscale
I0411 05:56:47.395768 13033 net.cpp:157] Top shape: 1024 250 6 6 (9216000)
I0411 05:56:47.395772 13033 net.cpp:165] Memory required for data: 4092583936
I0411 05:56:47.395779 13033 layer_factory.hpp:77] Creating layer pool3
I0411 05:56:47.395792 13033 net.cpp:100] Creating Layer pool3
I0411 05:56:47.395798 13033 net.cpp:434] pool3 <- conv3
I0411 05:56:47.395805 13033 net.cpp:408] pool3 -> pool3
I0411 05:56:47.395856 13033 net.cpp:150] Setting up pool3
I0411 05:56:47.395867 13033 net.cpp:157] Top shape: 1024 250 3 3 (2304000)
I0411 05:56:47.395871 13033 net.cpp:165] Memory required for data: 4101799936
I0411 05:56:47.395875 13033 layer_factory.hpp:77] Creating layer fc4_300
I0411 05:56:47.395898 13033 net.cpp:100] Creating Layer fc4_300
I0411 05:56:47.395903 13033 net.cpp:434] fc4_300 <- pool3
I0411 05:56:47.395911 13033 net.cpp:408] fc4_300 -> fc4_300
I0411 05:56:47.403578 13033 net.cpp:150] Setting up fc4_300
I0411 05:56:47.403599 13033 net.cpp:157] Top shape: 1024 300 (307200)
I0411 05:56:47.403602 13033 net.cpp:165] Memory required for data: 4103028736
I0411 05:56:47.403610 13033 layer_factory.hpp:77] Creating layer fc4_prescale
I0411 05:56:47.403622 13033 net.cpp:100] Creating Layer fc4_prescale
I0411 05:56:47.403627 13033 net.cpp:434] fc4_prescale <- fc4_300
I0411 05:56:47.403635 13033 net.cpp:395] fc4_prescale -> fc4_300 (in-place)
I0411 05:56:47.403751 13033 net.cpp:150] Setting up fc4_prescale
I0411 05:56:47.403762 13033 net.cpp:157] Top shape: 1024 300 (307200)
I0411 05:56:47.403766 13033 net.cpp:165] Memory required for data: 4104257536
I0411 05:56:47.403772 13033 layer_factory.hpp:77] Creating layer fc4_sTanH
I0411 05:56:47.403779 13033 net.cpp:100] Creating Layer fc4_sTanH
I0411 05:56:47.403782 13033 net.cpp:434] fc4_sTanH <- fc4_300
I0411 05:56:47.403789 13033 net.cpp:395] fc4_sTanH -> fc4_300 (in-place)
I0411 05:56:47.404063 13033 net.cpp:150] Setting up fc4_sTanH
I0411 05:56:47.404081 13033 net.cpp:157] Top shape: 1024 300 (307200)
I0411 05:56:47.404086 13033 net.cpp:165] Memory required for data: 4105486336
I0411 05:56:47.404096 13033 layer_factory.hpp:77] Creating layer fc4_postscale
I0411 05:56:47.404106 13033 net.cpp:100] Creating Layer fc4_postscale
I0411 05:56:47.404110 13033 net.cpp:434] fc4_postscale <- fc4_300
I0411 05:56:47.404117 13033 net.cpp:395] fc4_postscale -> fc4_300 (in-place)
I0411 05:56:47.404245 13033 net.cpp:150] Setting up fc4_postscale
I0411 05:56:47.404256 13033 net.cpp:157] Top shape: 1024 300 (307200)
I0411 05:56:47.404260 13033 net.cpp:165] Memory required for data: 4106715136
I0411 05:56:47.404266 13033 layer_factory.hpp:77] Creating layer fc5_67
I0411 05:56:47.404275 13033 net.cpp:100] Creating Layer fc5_67
I0411 05:56:47.404281 13033 net.cpp:434] fc5_67 <- fc4_300
I0411 05:56:47.404287 13033 net.cpp:408] fc5_67 -> fc5_classes
I0411 05:56:47.404597 13033 net.cpp:150] Setting up fc5_67
I0411 05:56:47.404608 13033 net.cpp:157] Top shape: 1024 67 (68608)
I0411 05:56:47.404611 13033 net.cpp:165] Memory required for data: 4106989568
I0411 05:56:47.404625 13033 layer_factory.hpp:77] Creating layer fc5_classes_fc5_67_0_split
I0411 05:56:47.404633 13033 net.cpp:100] Creating Layer fc5_classes_fc5_67_0_split
I0411 05:56:47.404637 13033 net.cpp:434] fc5_classes_fc5_67_0_split <- fc5_classes
I0411 05:56:47.404644 13033 net.cpp:408] fc5_classes_fc5_67_0_split -> fc5_classes_fc5_67_0_split_0
I0411 05:56:47.404652 13033 net.cpp:408] fc5_classes_fc5_67_0_split -> fc5_classes_fc5_67_0_split_1
I0411 05:56:47.404659 13033 net.cpp:408] fc5_classes_fc5_67_0_split -> fc5_classes_fc5_67_0_split_2
I0411 05:56:47.404745 13033 net.cpp:150] Setting up fc5_classes_fc5_67_0_split
I0411 05:56:47.404754 13033 net.cpp:157] Top shape: 1024 67 (68608)
I0411 05:56:47.404759 13033 net.cpp:157] Top shape: 1024 67 (68608)
I0411 05:56:47.404763 13033 net.cpp:157] Top shape: 1024 67 (68608)
I0411 05:56:47.404767 13033 net.cpp:165] Memory required for data: 4107812864
I0411 05:56:47.404769 13033 layer_factory.hpp:77] Creating layer loss
I0411 05:56:47.404778 13033 net.cpp:100] Creating Layer loss
I0411 05:56:47.404783 13033 net.cpp:434] loss <- fc5_classes_fc5_67_0_split_0
I0411 05:56:47.404789 13033 net.cpp:434] loss <- label_data_1_split_0
I0411 05:56:47.404796 13033 net.cpp:408] loss -> loss
…
