…
I0410 02:15:42.900614  1844 net.cpp:322] The NetState phase (0) differed from the phase (1) specified by a rule in layer accuracy_5
I0410 02:15:42.900707  1844 net.cpp:58] Initializing net from parameters: 
state {
  phase: TRAIN
  level: 0
  stage: ""
}
layer {
  name: "data"
  type: "Data"
  top: "data"
  top: "label"
  include {
    phase: TRAIN
  }
  transform_param {
    mirror: false
    crop_size: 48
    mean_value: 115
    mean_value: 108
    mean_value: 122
  }
  data_param {
    source: "../local_data/lmdb/rtsd-r1/imajust/train/lmdb"
    batch_size: 1024
    backend: LMDB
  }
}
layer {
  name: "conv1"
  type: "Convolution"
  bottom: "data"
  top: "conv1"
  convolution_param {
    num_output: 100
    pad: 0
    kernel_size: 7
    group: 1
    stride: 1
    weight_filler {
      type: "xavier"
    }
  }
}
layer {
  name: "conv1_sTanH"
  type: "TanH"
  bottom: "conv1"
  top: "conv1"
}
layer {
  name: "pool1"
  type: "Pooling"
  bottom: "conv1"
  top: "pool1"
  pooling_param {
    pool: MAX
    kernel_size: 2
    stride: 2
  }
}
layer {
  name: "conv2"
  type: "Convolution"
  bottom: "pool1"
  top: "conv2"
  convolution_param {
    num_output: 150
    pad: 0
    kernel_size: 4
    group: 1
    stride: 1
    weight_filler {
      type: "xavier"
    }
  }
}
layer {
  name: "conv2_sTanH"
  type: "TanH"
  bottom: "conv2"
  top: "conv2"
}
layer {
  name: "pool2"
  type: "Pooling"
  bottom: "conv2"
  top: "pool2"
  pooling_param {
    pool: MAX
    kernel_size: 2
    stride: 2
  }
}
layer {
  name: "conv3"
  type: "Convolution"
  bottom: "pool2"
  top: "conv3"
  convolution_param {
    num_output: 250
    pad: 0
    kernel_size: 4
    group: 1
    stride: 1
    weight_filler {
      type: "xavier"
    }
  }
}
layer {
  name: "conv3_sTanH"
  type: "TanH"
  bottom: "conv3"
  top: "conv3"
}
layer {
  name: "pool3"
  type: "Pooling"
  bottom: "conv3"
  top: "pool3"
  pooling_param {
    pool: MAX
    kernel_size: 2
    stride: 2
  }
}
layer {
  name: "fc4_300"
  type: "InnerProduct"
  bottom: "pool3"
  top: "fc4_300"
  inner_product_param {
    num_output: 300
    weight_filler {
      type: "xavier"
    }
  }
}
layer {
  name: "fc4_sTanH"
  type: "TanH"
  bottom: "fc4_300"
  top: "fc4_300"
}
layer {
  name: "drop4"
  type: "Dropout"
  bottom: "fc4_300"
  top: "fc4_300"
  dropout_param {
    dropout_ratio: 0.4
  }
}
layer {
  name: "fc5_67"
  type: "InnerProduct"
  bottom: "fc4_300"
  top: "fc5_classes"
  inner_product_param {
    num_output: 67
    weight_filler {
      type: "xavier"
    }
  }
}
layer {
  name: "loss"
  type: "SoftmaxWithLoss"
  bottom: "fc5_classes"
  bottom: "label"
  top: "loss"
}
I0410 02:15:42.900782  1844 layer_factory.hpp:77] Creating layer data
I0410 02:15:42.901828  1844 net.cpp:100] Creating Layer data
I0410 02:15:42.901841  1844 net.cpp:408] data -> data
I0410 02:15:42.901862  1844 net.cpp:408] data -> label
I0410 02:15:42.903059  1930 db_lmdb.cpp:35] Opened lmdb ../local_data/lmdb/rtsd-r1/imajust/train/lmdb
I0410 02:15:42.920248  1844 data_layer.cpp:41] output data size: 1024,3,48,48
I0410 02:15:42.963990  1844 net.cpp:150] Setting up data
I0410 02:15:42.964023  1844 net.cpp:157] Top shape: 1024 3 48 48 (7077888)
I0410 02:15:42.964061  1844 net.cpp:157] Top shape: 1024 (1024)
I0410 02:15:42.964063  1844 net.cpp:165] Memory required for data: 28315648
I0410 02:15:42.964074  1844 layer_factory.hpp:77] Creating layer conv1
I0410 02:15:42.964097  1844 net.cpp:100] Creating Layer conv1
I0410 02:15:42.964102  1844 net.cpp:434] conv1 <- data
I0410 02:15:42.964115  1844 net.cpp:408] conv1 -> conv1
I0410 02:15:43.233903  1844 net.cpp:150] Setting up conv1
I0410 02:15:43.233932  1844 net.cpp:157] Top shape: 1024 100 42 42 (180633600)
I0410 02:15:43.233937  1844 net.cpp:165] Memory required for data: 750850048
I0410 02:15:43.233958  1844 layer_factory.hpp:77] Creating layer conv1_sTanH
I0410 02:15:43.233968  1844 net.cpp:100] Creating Layer conv1_sTanH
I0410 02:15:43.233973  1844 net.cpp:434] conv1_sTanH <- conv1
I0410 02:15:43.233990  1844 net.cpp:395] conv1_sTanH -> conv1 (in-place)
I0410 02:15:43.234190  1844 net.cpp:150] Setting up conv1_sTanH
I0410 02:15:43.234203  1844 net.cpp:157] Top shape: 1024 100 42 42 (180633600)
I0410 02:15:43.234206  1844 net.cpp:165] Memory required for data: 1473384448
I0410 02:15:43.234210  1844 layer_factory.hpp:77] Creating layer pool1
I0410 02:15:43.234218  1844 net.cpp:100] Creating Layer pool1
I0410 02:15:43.234221  1844 net.cpp:434] pool1 <- conv1
I0410 02:15:43.234226  1844 net.cpp:408] pool1 -> pool1
I0410 02:15:43.234278  1844 net.cpp:150] Setting up pool1
I0410 02:15:43.234287  1844 net.cpp:157] Top shape: 1024 100 21 21 (45158400)
I0410 02:15:43.234290  1844 net.cpp:165] Memory required for data: 1654018048
I0410 02:15:43.234293  1844 layer_factory.hpp:77] Creating layer conv2
I0410 02:15:43.234305  1844 net.cpp:100] Creating Layer conv2
I0410 02:15:43.234310  1844 net.cpp:434] conv2 <- pool1
I0410 02:15:43.234315  1844 net.cpp:408] conv2 -> conv2
I0410 02:15:43.238486  1844 net.cpp:150] Setting up conv2
I0410 02:15:43.238503  1844 net.cpp:157] Top shape: 1024 150 18 18 (49766400)
I0410 02:15:43.238507  1844 net.cpp:165] Memory required for data: 1853083648
I0410 02:15:43.238517  1844 layer_factory.hpp:77] Creating layer conv2_sTanH
I0410 02:15:43.238523  1844 net.cpp:100] Creating Layer conv2_sTanH
I0410 02:15:43.238526  1844 net.cpp:434] conv2_sTanH <- conv2
I0410 02:15:43.238533  1844 net.cpp:395] conv2_sTanH -> conv2 (in-place)
I0410 02:15:43.239272  1844 net.cpp:150] Setting up conv2_sTanH
I0410 02:15:43.239287  1844 net.cpp:157] Top shape: 1024 150 18 18 (49766400)
I0410 02:15:43.239291  1844 net.cpp:165] Memory required for data: 2052149248
I0410 02:15:43.239295  1844 layer_factory.hpp:77] Creating layer pool2
I0410 02:15:43.239301  1844 net.cpp:100] Creating Layer pool2
I0410 02:15:43.239305  1844 net.cpp:434] pool2 <- conv2
I0410 02:15:43.239310  1844 net.cpp:408] pool2 -> pool2
I0410 02:15:43.239356  1844 net.cpp:150] Setting up pool2
I0410 02:15:43.239365  1844 net.cpp:157] Top shape: 1024 150 9 9 (12441600)
I0410 02:15:43.239368  1844 net.cpp:165] Memory required for data: 2101915648
I0410 02:15:43.239372  1844 layer_factory.hpp:77] Creating layer conv3
I0410 02:15:43.239379  1844 net.cpp:100] Creating Layer conv3
I0410 02:15:43.239383  1844 net.cpp:434] conv3 <- pool2
I0410 02:15:43.239387  1844 net.cpp:408] conv3 -> conv3
I0410 02:15:43.244776  1844 net.cpp:150] Setting up conv3
I0410 02:15:43.244802  1844 net.cpp:157] Top shape: 1024 250 6 6 (9216000)
I0410 02:15:43.244807  1844 net.cpp:165] Memory required for data: 2138779648
I0410 02:15:43.244817  1844 layer_factory.hpp:77] Creating layer conv3_sTanH
I0410 02:15:43.244827  1844 net.cpp:100] Creating Layer conv3_sTanH
I0410 02:15:43.244832  1844 net.cpp:434] conv3_sTanH <- conv3
I0410 02:15:43.244837  1844 net.cpp:395] conv3_sTanH -> conv3 (in-place)
I0410 02:15:43.245638  1844 net.cpp:150] Setting up conv3_sTanH
I0410 02:15:43.245654  1844 net.cpp:157] Top shape: 1024 250 6 6 (9216000)
I0410 02:15:43.245657  1844 net.cpp:165] Memory required for data: 2175643648
I0410 02:15:43.245661  1844 layer_factory.hpp:77] Creating layer pool3
I0410 02:15:43.245667  1844 net.cpp:100] Creating Layer pool3
I0410 02:15:43.245671  1844 net.cpp:434] pool3 <- conv3
I0410 02:15:43.245697  1844 net.cpp:408] pool3 -> pool3
I0410 02:15:43.245749  1844 net.cpp:150] Setting up pool3
I0410 02:15:43.245759  1844 net.cpp:157] Top shape: 1024 250 3 3 (2304000)
I0410 02:15:43.245761  1844 net.cpp:165] Memory required for data: 2184859648
I0410 02:15:43.245765  1844 layer_factory.hpp:77] Creating layer fc4_300
I0410 02:15:43.245774  1844 net.cpp:100] Creating Layer fc4_300
I0410 02:15:43.245777  1844 net.cpp:434] fc4_300 <- pool3
I0410 02:15:43.245784  1844 net.cpp:408] fc4_300 -> fc4_300
I0410 02:15:43.250916  1844 net.cpp:150] Setting up fc4_300
I0410 02:15:43.250941  1844 net.cpp:157] Top shape: 1024 300 (307200)
I0410 02:15:43.250944  1844 net.cpp:165] Memory required for data: 2186088448
I0410 02:15:43.250952  1844 layer_factory.hpp:77] Creating layer fc4_sTanH
I0410 02:15:43.250959  1844 net.cpp:100] Creating Layer fc4_sTanH
I0410 02:15:43.250962  1844 net.cpp:434] fc4_sTanH <- fc4_300
I0410 02:15:43.250967  1844 net.cpp:395] fc4_sTanH -> fc4_300 (in-place)
I0410 02:15:43.251168  1844 net.cpp:150] Setting up fc4_sTanH
I0410 02:15:43.251179  1844 net.cpp:157] Top shape: 1024 300 (307200)
I0410 02:15:43.251183  1844 net.cpp:165] Memory required for data: 2187317248
I0410 02:15:43.251185  1844 layer_factory.hpp:77] Creating layer drop4
I0410 02:15:43.251193  1844 net.cpp:100] Creating Layer drop4
I0410 02:15:43.251196  1844 net.cpp:434] drop4 <- fc4_300
I0410 02:15:43.251204  1844 net.cpp:395] drop4 -> fc4_300 (in-place)
I0410 02:15:43.251235  1844 net.cpp:150] Setting up drop4
I0410 02:15:43.251242  1844 net.cpp:157] Top shape: 1024 300 (307200)
I0410 02:15:43.251245  1844 net.cpp:165] Memory required for data: 2188546048
I0410 02:15:43.251248  1844 layer_factory.hpp:77] Creating layer fc5_67
I0410 02:15:43.251256  1844 net.cpp:100] Creating Layer fc5_67
I0410 02:15:43.251260  1844 net.cpp:434] fc5_67 <- fc4_300
I0410 02:15:43.251266  1844 net.cpp:408] fc5_67 -> fc5_classes
I0410 02:15:43.252462  1844 net.cpp:150] Setting up fc5_67
I0410 02:15:43.252477  1844 net.cpp:157] Top shape: 1024 67 (68608)
I0410 02:15:43.252492  1844 net.cpp:165] Memory required for data: 2188820480
I0410 02:15:43.252502  1844 layer_factory.hpp:77] Creating layer loss
I0410 02:15:43.252511  1844 net.cpp:100] Creating Layer loss
I0410 02:15:43.252514  1844 net.cpp:434] loss <- fc5_classes
I0410 02:15:43.252519  1844 net.cpp:434] loss <- label
I0410 02:15:43.252524  1844 net.cpp:408] loss -> loss
I0410 02:15:43.252538  1844 layer_factory.hpp:77] Creating layer loss
…
I0410 02:15:43.253221  1844 solver.cpp:193] Creating test net (#0) specified by test_net file: ./Prototxt/experiment_7/rtsd-r1/imajust/trial_1/test.prototxt
I0410 02:15:43.253347  1844 net.cpp:58] Initializing net from parameters: 
state {
  phase: TEST
}
layer {
  name: "data"
  type: "Data"
  top: "data"
  top: "label"
  include {
    phase: TEST
  }
  transform_param {
    mirror: false
    crop_size: 48
    mean_value: 109
    mean_value: 106
    mean_value: 126
  }
  data_param {
    source: "../local_data/lmdb/rtsd-r1/imajust/test/lmdb"
    batch_size: 1024
    backend: LMDB
  }
}
layer {
  name: "conv1"
  type: "Convolution"
  bottom: "data"
  top: "conv1"
  convolution_param {
    num_output: 100
    pad: 0
    kernel_size: 7
    group: 1
    stride: 1
    weight_filler {
      type: "xavier"
    }
  }
}
layer {
  name: "conv1_sTanH"
  type: "TanH"
  bottom: "conv1"
  top: "conv1"
}
layer {
  name: "pool1"
  type: "Pooling"
  bottom: "conv1"
  top: "pool1"
  pooling_param {
    pool: MAX
    kernel_size: 2
    stride: 2
  }
}
layer {
  name: "conv2"
  type: "Convolution"
  bottom: "pool1"
  top: "conv2"
  convolution_param {
    num_output: 150
    pad: 0
    kernel_size: 4
    group: 1
    stride: 1
    weight_filler {
      type: "xavier"
    }
  }
}
layer {
  name: "conv2_sTanH"
  type: "TanH"
  bottom: "conv2"
  top: "conv2"
}
layer {
  name: "pool2"
  type: "Pooling"
  bottom: "conv2"
  top: "pool2"
  pooling_param {
    pool: MAX
    kernel_size: 2
    stride: 2
  }
}
layer {
  name: "conv3"
  type: "Convolution"
  bottom: "pool2"
  top: "conv3"
  convolution_param {
    num_output: 250
    pad: 0
    kernel_size: 4
    group: 1
    stride: 1
    weight_filler {
      type: "xavier"
    }
  }
}
layer {
  name: "conv3_sTanH"
  type: "TanH"
  bottom: "conv3"
  top: "conv3"
}
layer {
  name: "pool3"
  type: "Pooling"
  bottom: "conv3"
  top: "pool3"
  pooling_param {
    pool: MAX
    kernel_size: 2
    stride: 2
  }
}
layer {
  name: "fc4_300"
  type: "InnerProduct"
  bottom: "pool3"
  top: "fc4_300"
  inner_product_param {
    num_output: 300
    weight_filler {
      type: "xavier"
    }
  }
}
layer {
  name: "fc4_sTanH"
  type: "TanH"
  bottom: "fc4_300"
  top: "fc4_300"
}
layer {
  name: "drop4"
  type: "Dropout"
  bottom: "fc4_300"
  top: "fc4_300"
  dropout_param {
    dropout_ratio: 0.4
  }
}
layer {
  name: "fc5_67"
  type: "InnerProduct"
  bottom: "fc4_300"
  top: "fc5_classes"
  inner_product_param {
    num_output: 67
    weight_filler {
      type: "xavier"
    }
  }
}
layer {
  name: "loss"
  type: "SoftmaxWithLoss"
  bottom: "fc5_classes"
  bottom: "label"
  top: "loss"
}
layer {
  name: "accuracy_1"
  type: "Accuracy"
  bottom: "fc5_classes"
  bottom: "label"
  top: "accuracy_1"
  include {
    phase: TEST
  }
  accuracy_param {
    top_k: 1
  }
}
layer {
  name: "accuracy_5"
  type: "Accuracy"
  bottom: "fc5_classes"
  bottom: "label"
  top: "accuracy_5"
  include {
    phase: TEST
  }
  accuracy_param {
    top_k: 5
  }
}
I0410 02:15:43.253435  1844 layer_factory.hpp:77] Creating layer data
I0410 02:15:43.254102  1844 net.cpp:100] Creating Layer data
I0410 02:15:43.254115  1844 net.cpp:408] data -> data
I0410 02:15:43.254125  1844 net.cpp:408] data -> label
I0410 02:15:43.255693  1953 db_lmdb.cpp:35] Opened lmdb ../local_data/lmdb/rtsd-r1/imajust/test/lmdb
I0410 02:15:43.255874  1844 data_layer.cpp:41] output data size: 1024,3,48,48
I0410 02:15:43.306643  1844 net.cpp:150] Setting up data
I0410 02:15:43.306674  1844 net.cpp:157] Top shape: 1024 3 48 48 (7077888)
I0410 02:15:43.306679  1844 net.cpp:157] Top shape: 1024 (1024)
I0410 02:15:43.306682  1844 net.cpp:165] Memory required for data: 28315648
I0410 02:15:43.306689  1844 layer_factory.hpp:77] Creating layer label_data_1_split
I0410 02:15:43.306704  1844 net.cpp:100] Creating Layer label_data_1_split
I0410 02:15:43.306707  1844 net.cpp:434] label_data_1_split <- label
I0410 02:15:43.306716  1844 net.cpp:408] label_data_1_split -> label_data_1_split_0
I0410 02:15:43.306728  1844 net.cpp:408] label_data_1_split -> label_data_1_split_1
I0410 02:15:43.306757  1844 net.cpp:408] label_data_1_split -> label_data_1_split_2
I0410 02:15:43.306843  1844 net.cpp:150] Setting up label_data_1_split
I0410 02:15:43.306852  1844 net.cpp:157] Top shape: 1024 (1024)
I0410 02:15:43.306856  1844 net.cpp:157] Top shape: 1024 (1024)
I0410 02:15:43.306859  1844 net.cpp:157] Top shape: 1024 (1024)
I0410 02:15:43.306862  1844 net.cpp:165] Memory required for data: 28327936
I0410 02:15:43.306865  1844 layer_factory.hpp:77] Creating layer conv1
I0410 02:15:43.306885  1844 net.cpp:100] Creating Layer conv1
I0410 02:15:43.306891  1844 net.cpp:434] conv1 <- data
I0410 02:15:43.306897  1844 net.cpp:408] conv1 -> conv1
I0410 02:15:43.308786  1844 net.cpp:150] Setting up conv1
I0410 02:15:43.308804  1844 net.cpp:157] Top shape: 1024 100 42 42 (180633600)
I0410 02:15:43.308809  1844 net.cpp:165] Memory required for data: 750862336
I0410 02:15:43.308820  1844 layer_factory.hpp:77] Creating layer conv1_sTanH
I0410 02:15:43.308827  1844 net.cpp:100] Creating Layer conv1_sTanH
I0410 02:15:43.308831  1844 net.cpp:434] conv1_sTanH <- conv1
I0410 02:15:43.308838  1844 net.cpp:395] conv1_sTanH -> conv1 (in-place)
I0410 02:15:43.309105  1844 net.cpp:150] Setting up conv1_sTanH
I0410 02:15:43.309124  1844 net.cpp:157] Top shape: 1024 100 42 42 (180633600)
I0410 02:15:43.309128  1844 net.cpp:165] Memory required for data: 1473396736
I0410 02:15:43.309132  1844 layer_factory.hpp:77] Creating layer pool1
I0410 02:15:43.309144  1844 net.cpp:100] Creating Layer pool1
I0410 02:15:43.309149  1844 net.cpp:434] pool1 <- conv1
I0410 02:15:43.309155  1844 net.cpp:408] pool1 -> pool1
I0410 02:15:43.311365  1844 net.cpp:150] Setting up pool1
I0410 02:15:43.311377  1844 net.cpp:157] Top shape: 1024 100 21 21 (45158400)
I0410 02:15:43.311379  1844 net.cpp:165] Memory required for data: 1654030336
I0410 02:15:43.311383  1844 layer_factory.hpp:77] Creating layer conv2
I0410 02:15:43.311393  1844 net.cpp:100] Creating Layer conv2
I0410 02:15:43.311396  1844 net.cpp:434] conv2 <- pool1
I0410 02:15:43.311403  1844 net.cpp:408] conv2 -> conv2
I0410 02:15:43.315286  1844 net.cpp:150] Setting up conv2
I0410 02:15:43.315304  1844 net.cpp:157] Top shape: 1024 150 18 18 (49766400)
I0410 02:15:43.315307  1844 net.cpp:165] Memory required for data: 1853095936
I0410 02:15:43.315316  1844 layer_factory.hpp:77] Creating layer conv2_sTanH
I0410 02:15:43.315327  1844 net.cpp:100] Creating Layer conv2_sTanH
I0410 02:15:43.315331  1844 net.cpp:434] conv2_sTanH <- conv2
I0410 02:15:43.315336  1844 net.cpp:395] conv2_sTanH -> conv2 (in-place)
I0410 02:15:43.316120  1844 net.cpp:150] Setting up conv2_sTanH
I0410 02:15:43.316138  1844 net.cpp:157] Top shape: 1024 150 18 18 (49766400)
I0410 02:15:43.316141  1844 net.cpp:165] Memory required for data: 2052161536
I0410 02:15:43.316144  1844 layer_factory.hpp:77] Creating layer pool2
I0410 02:15:43.316155  1844 net.cpp:100] Creating Layer pool2
I0410 02:15:43.316159  1844 net.cpp:434] pool2 <- conv2
I0410 02:15:43.316166  1844 net.cpp:408] pool2 -> pool2
I0410 02:15:43.316220  1844 net.cpp:150] Setting up pool2
I0410 02:15:43.316229  1844 net.cpp:157] Top shape: 1024 150 9 9 (12441600)
I0410 02:15:43.316232  1844 net.cpp:165] Memory required for data: 2101927936
I0410 02:15:43.316236  1844 layer_factory.hpp:77] Creating layer conv3
I0410 02:15:43.316248  1844 net.cpp:100] Creating Layer conv3
I0410 02:15:43.316252  1844 net.cpp:434] conv3 <- pool2
I0410 02:15:43.316258  1844 net.cpp:408] conv3 -> conv3
I0410 02:15:43.321797  1844 net.cpp:150] Setting up conv3
I0410 02:15:43.321815  1844 net.cpp:157] Top shape: 1024 250 6 6 (9216000)
I0410 02:15:43.321820  1844 net.cpp:165] Memory required for data: 2138791936
I0410 02:15:43.321828  1844 layer_factory.hpp:77] Creating layer conv3_sTanH
I0410 02:15:43.321837  1844 net.cpp:100] Creating Layer conv3_sTanH
I0410 02:15:43.321841  1844 net.cpp:434] conv3_sTanH <- conv3
I0410 02:15:43.321846  1844 net.cpp:395] conv3_sTanH -> conv3 (in-place)
I0410 02:15:43.322685  1844 net.cpp:150] Setting up conv3_sTanH
I0410 02:15:43.322700  1844 net.cpp:157] Top shape: 1024 250 6 6 (9216000)
I0410 02:15:43.322721  1844 net.cpp:165] Memory required for data: 2175655936
I0410 02:15:43.322726  1844 layer_factory.hpp:77] Creating layer pool3
I0410 02:15:43.322734  1844 net.cpp:100] Creating Layer pool3
I0410 02:15:43.322738  1844 net.cpp:434] pool3 <- conv3
I0410 02:15:43.322744  1844 net.cpp:408] pool3 -> pool3
I0410 02:15:43.322798  1844 net.cpp:150] Setting up pool3
I0410 02:15:43.322808  1844 net.cpp:157] Top shape: 1024 250 3 3 (2304000)
I0410 02:15:43.322813  1844 net.cpp:165] Memory required for data: 2184871936
I0410 02:15:43.322815  1844 layer_factory.hpp:77] Creating layer fc4_300
I0410 02:15:43.322823  1844 net.cpp:100] Creating Layer fc4_300
I0410 02:15:43.322825  1844 net.cpp:434] fc4_300 <- pool3
I0410 02:15:43.322832  1844 net.cpp:408] fc4_300 -> fc4_300
I0410 02:15:43.329010  1844 net.cpp:150] Setting up fc4_300
I0410 02:15:43.329027  1844 net.cpp:157] Top shape: 1024 300 (307200)
I0410 02:15:43.329031  1844 net.cpp:165] Memory required for data: 2186100736
I0410 02:15:43.329038  1844 layer_factory.hpp:77] Creating layer fc4_sTanH
I0410 02:15:43.329046  1844 net.cpp:100] Creating Layer fc4_sTanH
I0410 02:15:43.329049  1844 net.cpp:434] fc4_sTanH <- fc4_300
I0410 02:15:43.329056  1844 net.cpp:395] fc4_sTanH -> fc4_300 (in-place)
I0410 02:15:43.329255  1844 net.cpp:150] Setting up fc4_sTanH
I0410 02:15:43.329267  1844 net.cpp:157] Top shape: 1024 300 (307200)
I0410 02:15:43.329270  1844 net.cpp:165] Memory required for data: 2187329536
I0410 02:15:43.329273  1844 layer_factory.hpp:77] Creating layer drop4
I0410 02:15:43.329282  1844 net.cpp:100] Creating Layer drop4
I0410 02:15:43.329284  1844 net.cpp:434] drop4 <- fc4_300
I0410 02:15:43.329291  1844 net.cpp:395] drop4 -> fc4_300 (in-place)
I0410 02:15:43.329321  1844 net.cpp:150] Setting up drop4
I0410 02:15:43.329329  1844 net.cpp:157] Top shape: 1024 300 (307200)
I0410 02:15:43.329332  1844 net.cpp:165] Memory required for data: 2188558336
I0410 02:15:43.329335  1844 layer_factory.hpp:77] Creating layer fc5_67
I0410 02:15:43.329344  1844 net.cpp:100] Creating Layer fc5_67
I0410 02:15:43.329349  1844 net.cpp:434] fc5_67 <- fc4_300
I0410 02:15:43.329355  1844 net.cpp:408] fc5_67 -> fc5_classes
I0410 02:15:43.329614  1844 net.cpp:150] Setting up fc5_67
I0410 02:15:43.329624  1844 net.cpp:157] Top shape: 1024 67 (68608)
I0410 02:15:43.329627  1844 net.cpp:165] Memory required for data: 2188832768
I0410 02:15:43.329638  1844 layer_factory.hpp:77] Creating layer fc5_classes_fc5_67_0_split
I0410 02:15:43.329648  1844 net.cpp:100] Creating Layer fc5_classes_fc5_67_0_split
I0410 02:15:43.329653  1844 net.cpp:434] fc5_classes_fc5_67_0_split <- fc5_classes
I0410 02:15:43.329660  1844 net.cpp:408] fc5_classes_fc5_67_0_split -> fc5_classes_fc5_67_0_split_0
I0410 02:15:43.329668  1844 net.cpp:408] fc5_classes_fc5_67_0_split -> fc5_classes_fc5_67_0_split_1
I0410 02:15:43.329680  1844 net.cpp:408] fc5_classes_fc5_67_0_split -> fc5_classes_fc5_67_0_split_2
I0410 02:15:43.329735  1844 net.cpp:150] Setting up fc5_classes_fc5_67_0_split
I0410 02:15:43.329741  1844 net.cpp:157] Top shape: 1024 67 (68608)
I0410 02:15:43.329746  1844 net.cpp:157] Top shape: 1024 67 (68608)
I0410 02:15:43.329748  1844 net.cpp:157] Top shape: 1024 67 (68608)
I0410 02:15:43.329751  1844 net.cpp:165] Memory required for data: 2189656064
I0410 02:15:43.329756  1844 layer_factory.hpp:77] Creating layer loss
I0410 02:15:43.329766  1844 net.cpp:100] Creating Layer loss
I0410 02:15:43.329769  1844 net.cpp:434] loss <- fc5_classes_fc5_67_0_split_0
I0410 02:15:43.329773  1844 net.cpp:434] loss <- label_data_1_split_0
I0410 02:15:43.329778  1844 net.cpp:408] loss -> loss
…
