…
I0414 08:30:11.828971 31821 solver.cpp:93] Creating training net from train_net file: ./Prototxt/experiment_11/rtsd-r3/CoNorm/trial_3/train.prototxt
I0414 08:30:11.829809 31821 net.cpp:58] Initializing net from parameters: 
state {
  phase: TRAIN
  level: 0
  stage: ""
}
layer {
  name: "data"
  type: "Data"
  top: "data"
  top: "label"
  include {
    phase: TRAIN
  }
  transform_param {
    scale: 0.0039215689
    mirror: false
    crop_size: 48
    mean_value: 135
    mean_value: 134
    mean_value: 134
  }
  data_param {
    source: "../local_data/lmdb/rtsd-r3/CoNorm/train/lmdb"
    batch_size: 1024
    backend: LMDB
  }
}
layer {
  name: "conv1"
  type: "Convolution"
  bottom: "data"
  top: "conv1"
  convolution_param {
    num_output: 100
    pad: 0
    kernel_size: 7
    group: 1
    stride: 1
    weight_filler {
      type: "xavier"
    }
  }
}
layer {
  name: "conv1_prescale"
  type: "Scale"
  bottom: "conv1"
  top: "conv1"
  param {
    lr_mult: 0
    decay_mult: 0
  }
  scale_param {
    filler {
      value: 0.6666
    }
    bias_term: false
  }
}
layer {
  name: "conv1_sTanH"
  type: "TanH"
  bottom: "conv1"
  top: "conv1"
}
layer {
  name: "conv1_postscale"
  type: "Scale"
  bottom: "conv1"
  top: "conv1"
  param {
    lr_mult: 0
    decay_mult: 0
  }
  scale_param {
    filler {
      value: 1.7159
    }
    bias_term: false
  }
}
layer {
  name: "pool1"
  type: "Pooling"
  bottom: "conv1"
  top: "pool1"
  pooling_param {
    pool: MAX
    kernel_size: 2
    stride: 2
  }
}
layer {
  name: "conv2"
  type: "Convolution"
  bottom: "pool1"
  top: "conv2"
  convolution_param {
    num_output: 150
    pad: 0
    kernel_size: 4
    group: 1
    stride: 1
    weight_filler {
      type: "xavier"
    }
  }
}
layer {
  name: "conv2_prescale"
  type: "Scale"
  bottom: "conv2"
  top: "conv2"
  param {
    lr_mult: 0
    decay_mult: 0
  }
  scale_param {
    filler {
      value: 0.6666
    }
    bias_term: false
  }
}
layer {
  name: "conv2_sTanH"
  type: "TanH"
  bottom: "conv2"
  top: "conv2"
}
layer {
  name: "conv2_postscale"
  type: "Scale"
  bottom: "conv2"
  top: "conv2"
  param {
    lr_mult: 0
    decay_mult: 0
  }
  scale_param {
    filler {
      value: 1.7159
    }
    bias_term: false
  }
}
layer {
  name: "pool2"
  type: "Pooling"
  bottom: "conv2"
  top: "pool2"
  pooling_param {
    pool: MAX
    kernel_size: 2
    stride: 2
  }
}
layer {
  name: "conv3"
  type: "Convolution"
  bottom: "pool2"
  top: "conv3"
  convolution_param {
    num_output: 250
    pad: 0
    kernel_size: 4
    group: 1
    stride: 1
    weight_filler {
      type: "xavier"
    }
  }
}
layer {
  name: "conv3_prescale"
  type: "Scale"
  bottom: "conv3"
  top: "conv3"
  param {
    lr_mult: 0
    decay_mult: 0
  }
  scale_param {
    filler {
      value: 0.6666
    }
    bias_term: false
  }
}
layer {
  name: "conv3_sTanH"
  type: "TanH"
  bottom: "conv3"
  top: "conv3"
}
layer {
  name: "conv3_postscale"
  type: "Scale"
  bottom: "conv3"
  top: "conv3"
  param {
    lr_mult: 0
    decay_mult: 0
  }
  scale_param {
    filler {
      value: 1.7159
    }
    bias_term: false
  }
}
layer {
  name: "pool3"
  type: "Pooling"
  bottom: "conv3"
  top: "pool3"
  pooling_param {
    pool: MAX
    kernel_size: 2
    stride: 2
  }
}
layer {
  name: "fc4_300"
  type: "InnerProduct"
  bottom: "pool3"
  top: "fc4_300"
  inner_product_param {
    num_output: 300
    weight_filler {
      type: "xavier"
    }
  }
}
layer {
  name: "fc4_prescale"
  type: "Scale"
  bottom: "fc4_300"
  top: "fc4_300"
  param {
    lr_mult: 0
    decay_mult: 0
  }
  scale_param {
    filler {
      value: 0.6666
    }
    bias_term: false
  }
}
layer {
  name: "fc4_sTanH"
  type: "TanH"
  bottom: "fc4_300"
  top: "fc4_300"
}
layer {
  name: "fc4_postscale"
  type: "Scale"
  bottom: "fc4_300"
  top: "fc4_300"
  param {
    lr_mult: 0
    decay_mult: 0
  }
  scale_param {
    filler {
      value: 1.7159
    }
    bias_term: false
  }
}
layer {
  name: "fc5_106"
  type: "InnerProduct"
  bottom: "fc4_300"
  top: "fc5_classes"
  inner_product_param {
    num_output: 106
    weight_filler {
      type: "xavier"
    }
  }
}
layer {
  name: "softmax"
  type: "Softmax"
  bottom: "fc5_classes"
  top: "softmax"
}
layer {
  name: "loss"
  type: "MultinomialLogisticLoss"
  bottom: "softmax"
  bottom: "label"
  top: "loss"
}
layer {
  name: "accuracy_1"
  type: "Accuracy"
  bottom: "fc5_classes"
  bottom: "label"
  top: "accuracy_1"
  accuracy_param {
    top_k: 1
  }
}
layer {
  name: "accuracy_5"
  type: "Accuracy"
  bottom: "fc5_classes"
  bottom: "label"
  top: "accuracy_5"
  accuracy_param {
    top_k: 5
  }
}
layer {
  name: "silence"
  type: "Silence"
  bottom: "accuracy_1"
  bottom: "accuracy_5"
}
I0414 08:30:11.830088 31821 layer_factory.hpp:77] Creating layer data
I0414 08:30:11.832002 31821 net.cpp:100] Creating Layer data
I0414 08:30:11.832031 31821 net.cpp:408] data -> data
I0414 08:30:11.832073 31821 net.cpp:408] data -> label
I0414 08:30:11.847290 31939 db_lmdb.cpp:35] Opened lmdb ../local_data/lmdb/rtsd-r3/CoNorm/train/lmdb
I0414 08:30:11.876818 31821 data_layer.cpp:41] output data size: 1024,3,48,48
I0414 08:30:11.936867 31821 net.cpp:150] Setting up data
I0414 08:30:11.936897 31821 net.cpp:157] Top shape: 1024 3 48 48 (7077888)
I0414 08:30:11.936904 31821 net.cpp:157] Top shape: 1024 (1024)
I0414 08:30:11.936908 31821 net.cpp:165] Memory required for data: 28315648
I0414 08:30:11.936921 31821 layer_factory.hpp:77] Creating layer label_data_1_split
I0414 08:30:11.936938 31821 net.cpp:100] Creating Layer label_data_1_split
I0414 08:30:11.936946 31821 net.cpp:434] label_data_1_split <- label
I0414 08:30:11.936964 31821 net.cpp:408] label_data_1_split -> label_data_1_split_0
I0414 08:30:11.936978 31821 net.cpp:408] label_data_1_split -> label_data_1_split_1
I0414 08:30:11.936991 31821 net.cpp:408] label_data_1_split -> label_data_1_split_2
I0414 08:30:11.937108 31821 net.cpp:150] Setting up label_data_1_split
I0414 08:30:11.937119 31821 net.cpp:157] Top shape: 1024 (1024)
I0414 08:30:11.937124 31821 net.cpp:157] Top shape: 1024 (1024)
I0414 08:30:11.937127 31821 net.cpp:157] Top shape: 1024 (1024)
I0414 08:30:11.937131 31821 net.cpp:165] Memory required for data: 28327936
I0414 08:30:11.937135 31821 layer_factory.hpp:77] Creating layer conv1
I0414 08:30:11.937156 31821 net.cpp:100] Creating Layer conv1
I0414 08:30:11.937162 31821 net.cpp:434] conv1 <- data
I0414 08:30:11.937171 31821 net.cpp:408] conv1 -> conv1
I0414 08:30:12.436224 31821 net.cpp:150] Setting up conv1
I0414 08:30:12.436254 31821 net.cpp:157] Top shape: 1024 100 42 42 (180633600)
I0414 08:30:12.436259 31821 net.cpp:165] Memory required for data: 750862336
I0414 08:30:12.436285 31821 layer_factory.hpp:77] Creating layer conv1_prescale
I0414 08:30:12.436302 31821 net.cpp:100] Creating Layer conv1_prescale
I0414 08:30:12.436309 31821 net.cpp:434] conv1_prescale <- conv1
I0414 08:30:12.436317 31821 net.cpp:395] conv1_prescale -> conv1 (in-place)
I0414 08:30:12.436446 31821 net.cpp:150] Setting up conv1_prescale
I0414 08:30:12.436458 31821 net.cpp:157] Top shape: 1024 100 42 42 (180633600)
I0414 08:30:12.436462 31821 net.cpp:165] Memory required for data: 1473396736
I0414 08:30:12.436470 31821 layer_factory.hpp:77] Creating layer conv1_sTanH
I0414 08:30:12.436480 31821 net.cpp:100] Creating Layer conv1_sTanH
I0414 08:30:12.436483 31821 net.cpp:434] conv1_sTanH <- conv1
I0414 08:30:12.436488 31821 net.cpp:395] conv1_sTanH -> conv1 (in-place)
I0414 08:30:12.436717 31821 net.cpp:150] Setting up conv1_sTanH
I0414 08:30:12.436754 31821 net.cpp:157] Top shape: 1024 100 42 42 (180633600)
I0414 08:30:12.436759 31821 net.cpp:165] Memory required for data: 2195931136
I0414 08:30:12.436764 31821 layer_factory.hpp:77] Creating layer conv1_postscale
I0414 08:30:12.436771 31821 net.cpp:100] Creating Layer conv1_postscale
I0414 08:30:12.436777 31821 net.cpp:434] conv1_postscale <- conv1
I0414 08:30:12.436784 31821 net.cpp:395] conv1_postscale -> conv1 (in-place)
I0414 08:30:12.436898 31821 net.cpp:150] Setting up conv1_postscale
I0414 08:30:12.436908 31821 net.cpp:157] Top shape: 1024 100 42 42 (180633600)
I0414 08:30:12.436913 31821 net.cpp:165] Memory required for data: 2918465536
I0414 08:30:12.436919 31821 layer_factory.hpp:77] Creating layer pool1
I0414 08:30:12.436928 31821 net.cpp:100] Creating Layer pool1
I0414 08:30:12.436934 31821 net.cpp:434] pool1 <- conv1
I0414 08:30:12.436940 31821 net.cpp:408] pool1 -> pool1
I0414 08:30:12.436995 31821 net.cpp:150] Setting up pool1
I0414 08:30:12.437003 31821 net.cpp:157] Top shape: 1024 100 21 21 (45158400)
I0414 08:30:12.437010 31821 net.cpp:165] Memory required for data: 3099099136
I0414 08:30:12.437012 31821 layer_factory.hpp:77] Creating layer conv2
I0414 08:30:12.437024 31821 net.cpp:100] Creating Layer conv2
I0414 08:30:12.437031 31821 net.cpp:434] conv2 <- pool1
I0414 08:30:12.437036 31821 net.cpp:408] conv2 -> conv2
I0414 08:30:12.442889 31821 net.cpp:150] Setting up conv2
I0414 08:30:12.442909 31821 net.cpp:157] Top shape: 1024 150 18 18 (49766400)
I0414 08:30:12.442914 31821 net.cpp:165] Memory required for data: 3298164736
I0414 08:30:12.442925 31821 layer_factory.hpp:77] Creating layer conv2_prescale
I0414 08:30:12.442937 31821 net.cpp:100] Creating Layer conv2_prescale
I0414 08:30:12.442944 31821 net.cpp:434] conv2_prescale <- conv2
I0414 08:30:12.442952 31821 net.cpp:395] conv2_prescale -> conv2 (in-place)
I0414 08:30:12.443079 31821 net.cpp:150] Setting up conv2_prescale
I0414 08:30:12.443090 31821 net.cpp:157] Top shape: 1024 150 18 18 (49766400)
I0414 08:30:12.443095 31821 net.cpp:165] Memory required for data: 3497230336
I0414 08:30:12.443101 31821 layer_factory.hpp:77] Creating layer conv2_sTanH
I0414 08:30:12.443109 31821 net.cpp:100] Creating Layer conv2_sTanH
I0414 08:30:12.443114 31821 net.cpp:434] conv2_sTanH <- conv2
I0414 08:30:12.443120 31821 net.cpp:395] conv2_sTanH -> conv2 (in-place)
I0414 08:30:12.445497 31821 net.cpp:150] Setting up conv2_sTanH
I0414 08:30:12.445518 31821 net.cpp:157] Top shape: 1024 150 18 18 (49766400)
I0414 08:30:12.445524 31821 net.cpp:165] Memory required for data: 3696295936
I0414 08:30:12.445529 31821 layer_factory.hpp:77] Creating layer conv2_postscale
I0414 08:30:12.445539 31821 net.cpp:100] Creating Layer conv2_postscale
I0414 08:30:12.445545 31821 net.cpp:434] conv2_postscale <- conv2
I0414 08:30:12.445552 31821 net.cpp:395] conv2_postscale -> conv2 (in-place)
I0414 08:30:12.445670 31821 net.cpp:150] Setting up conv2_postscale
I0414 08:30:12.445680 31821 net.cpp:157] Top shape: 1024 150 18 18 (49766400)
I0414 08:30:12.445685 31821 net.cpp:165] Memory required for data: 3895361536
I0414 08:30:12.445693 31821 layer_factory.hpp:77] Creating layer pool2
I0414 08:30:12.445701 31821 net.cpp:100] Creating Layer pool2
I0414 08:30:12.445706 31821 net.cpp:434] pool2 <- conv2
I0414 08:30:12.445713 31821 net.cpp:408] pool2 -> pool2
I0414 08:30:12.445762 31821 net.cpp:150] Setting up pool2
I0414 08:30:12.445771 31821 net.cpp:157] Top shape: 1024 150 9 9 (12441600)
I0414 08:30:12.445777 31821 net.cpp:165] Memory required for data: 3945127936
I0414 08:30:12.445780 31821 layer_factory.hpp:77] Creating layer conv3
I0414 08:30:12.445791 31821 net.cpp:100] Creating Layer conv3
I0414 08:30:12.445796 31821 net.cpp:434] conv3 <- pool2
I0414 08:30:12.445803 31821 net.cpp:408] conv3 -> conv3
I0414 08:30:12.453069 31821 net.cpp:150] Setting up conv3
I0414 08:30:12.453089 31821 net.cpp:157] Top shape: 1024 250 6 6 (9216000)
I0414 08:30:12.453094 31821 net.cpp:165] Memory required for data: 3981991936
I0414 08:30:12.453106 31821 layer_factory.hpp:77] Creating layer conv3_prescale
I0414 08:30:12.453131 31821 net.cpp:100] Creating Layer conv3_prescale
I0414 08:30:12.453138 31821 net.cpp:434] conv3_prescale <- conv3
I0414 08:30:12.453145 31821 net.cpp:395] conv3_prescale -> conv3 (in-place)
I0414 08:30:12.453258 31821 net.cpp:150] Setting up conv3_prescale
I0414 08:30:12.453269 31821 net.cpp:157] Top shape: 1024 250 6 6 (9216000)
I0414 08:30:12.453274 31821 net.cpp:165] Memory required for data: 4018855936
I0414 08:30:12.453279 31821 layer_factory.hpp:77] Creating layer conv3_sTanH
I0414 08:30:12.453286 31821 net.cpp:100] Creating Layer conv3_sTanH
I0414 08:30:12.453292 31821 net.cpp:434] conv3_sTanH <- conv3
I0414 08:30:12.453297 31821 net.cpp:395] conv3_sTanH -> conv3 (in-place)
I0414 08:30:12.454367 31821 net.cpp:150] Setting up conv3_sTanH
I0414 08:30:12.454385 31821 net.cpp:157] Top shape: 1024 250 6 6 (9216000)
I0414 08:30:12.454391 31821 net.cpp:165] Memory required for data: 4055719936
I0414 08:30:12.454396 31821 layer_factory.hpp:77] Creating layer conv3_postscale
I0414 08:30:12.454406 31821 net.cpp:100] Creating Layer conv3_postscale
I0414 08:30:12.454411 31821 net.cpp:434] conv3_postscale <- conv3
I0414 08:30:12.454418 31821 net.cpp:395] conv3_postscale -> conv3 (in-place)
I0414 08:30:12.454532 31821 net.cpp:150] Setting up conv3_postscale
I0414 08:30:12.454542 31821 net.cpp:157] Top shape: 1024 250 6 6 (9216000)
I0414 08:30:12.454547 31821 net.cpp:165] Memory required for data: 4092583936
I0414 08:30:12.454553 31821 layer_factory.hpp:77] Creating layer pool3
I0414 08:30:12.454565 31821 net.cpp:100] Creating Layer pool3
I0414 08:30:12.454571 31821 net.cpp:434] pool3 <- conv3
I0414 08:30:12.454576 31821 net.cpp:408] pool3 -> pool3
I0414 08:30:12.454622 31821 net.cpp:150] Setting up pool3
I0414 08:30:12.454629 31821 net.cpp:157] Top shape: 1024 250 3 3 (2304000)
I0414 08:30:12.454634 31821 net.cpp:165] Memory required for data: 4101799936
I0414 08:30:12.454638 31821 layer_factory.hpp:77] Creating layer fc4_300
I0414 08:30:12.454645 31821 net.cpp:100] Creating Layer fc4_300
I0414 08:30:12.454656 31821 net.cpp:434] fc4_300 <- pool3
I0414 08:30:12.454663 31821 net.cpp:408] fc4_300 -> fc4_300
I0414 08:30:12.461328 31821 net.cpp:150] Setting up fc4_300
I0414 08:30:12.461346 31821 net.cpp:157] Top shape: 1024 300 (307200)
I0414 08:30:12.461350 31821 net.cpp:165] Memory required for data: 4103028736
I0414 08:30:12.461359 31821 layer_factory.hpp:77] Creating layer fc4_prescale
I0414 08:30:12.461369 31821 net.cpp:100] Creating Layer fc4_prescale
I0414 08:30:12.461375 31821 net.cpp:434] fc4_prescale <- fc4_300
I0414 08:30:12.461382 31821 net.cpp:395] fc4_prescale -> fc4_300 (in-place)
I0414 08:30:12.461488 31821 net.cpp:150] Setting up fc4_prescale
I0414 08:30:12.461498 31821 net.cpp:157] Top shape: 1024 300 (307200)
I0414 08:30:12.461503 31821 net.cpp:165] Memory required for data: 4104257536
I0414 08:30:12.461508 31821 layer_factory.hpp:77] Creating layer fc4_sTanH
I0414 08:30:12.461515 31821 net.cpp:100] Creating Layer fc4_sTanH
I0414 08:30:12.461520 31821 net.cpp:434] fc4_sTanH <- fc4_300
I0414 08:30:12.461526 31821 net.cpp:395] fc4_sTanH -> fc4_300 (in-place)
I0414 08:30:12.461745 31821 net.cpp:150] Setting up fc4_sTanH
I0414 08:30:12.461756 31821 net.cpp:157] Top shape: 1024 300 (307200)
I0414 08:30:12.461760 31821 net.cpp:165] Memory required for data: 4105486336
I0414 08:30:12.461765 31821 layer_factory.hpp:77] Creating layer fc4_postscale
I0414 08:30:12.461772 31821 net.cpp:100] Creating Layer fc4_postscale
I0414 08:30:12.461778 31821 net.cpp:434] fc4_postscale <- fc4_300
I0414 08:30:12.461784 31821 net.cpp:395] fc4_postscale -> fc4_300 (in-place)
I0414 08:30:12.461896 31821 net.cpp:150] Setting up fc4_postscale
I0414 08:30:12.461910 31821 net.cpp:157] Top shape: 1024 300 (307200)
I0414 08:30:12.461916 31821 net.cpp:165] Memory required for data: 4106715136
I0414 08:30:12.461921 31821 layer_factory.hpp:77] Creating layer fc5_106
I0414 08:30:12.461930 31821 net.cpp:100] Creating Layer fc5_106
I0414 08:30:12.461935 31821 net.cpp:434] fc5_106 <- fc4_300
I0414 08:30:12.461941 31821 net.cpp:408] fc5_106 -> fc5_classes
I0414 08:30:12.463410 31821 net.cpp:150] Setting up fc5_106
I0414 08:30:12.463428 31821 net.cpp:157] Top shape: 1024 106 (108544)
I0414 08:30:12.463434 31821 net.cpp:165] Memory required for data: 4107149312
I0414 08:30:12.463448 31821 layer_factory.hpp:77] Creating layer fc5_classes_fc5_106_0_split
I0414 08:30:12.463457 31821 net.cpp:100] Creating Layer fc5_classes_fc5_106_0_split
I0414 08:30:12.463464 31821 net.cpp:434] fc5_classes_fc5_106_0_split <- fc5_classes
I0414 08:30:12.463469 31821 net.cpp:408] fc5_classes_fc5_106_0_split -> fc5_classes_fc5_106_0_split_0
I0414 08:30:12.463480 31821 net.cpp:408] fc5_classes_fc5_106_0_split -> fc5_classes_fc5_106_0_split_1
I0414 08:30:12.463490 31821 net.cpp:408] fc5_classes_fc5_106_0_split -> fc5_classes_fc5_106_0_split_2
I0414 08:30:12.463549 31821 net.cpp:150] Setting up fc5_classes_fc5_106_0_split
I0414 08:30:12.463557 31821 net.cpp:157] Top shape: 1024 106 (108544)
I0414 08:30:12.463563 31821 net.cpp:157] Top shape: 1024 106 (108544)
I0414 08:30:12.463568 31821 net.cpp:157] Top shape: 1024 106 (108544)
I0414 08:30:12.463573 31821 net.cpp:165] Memory required for data: 4108451840
I0414 08:30:12.463577 31821 layer_factory.hpp:77] Creating layer softmax
I0414 08:30:12.463583 31821 net.cpp:100] Creating Layer softmax
I0414 08:30:12.463589 31821 net.cpp:434] softmax <- fc5_classes_fc5_106_0_split_0
I0414 08:30:12.463600 31821 net.cpp:408] softmax -> softmax
I0414 08:30:12.463913 31821 net.cpp:150] Setting up softmax
I0414 08:30:12.463932 31821 net.cpp:157] Top shape: 1024 106 (108544)
I0414 08:30:12.463938 31821 net.cpp:165] Memory required for data: 4108886016
I0414 08:30:12.463943 31821 layer_factory.hpp:77] Creating layer loss
I0414 08:30:12.463951 31821 net.cpp:100] Creating Layer loss
I0414 08:30:12.463958 31821 net.cpp:434] loss <- softmax
I0414 08:30:12.463963 31821 net.cpp:434] loss <- label_data_1_split_0
I0414 08:30:12.463970 31821 net.cpp:408] loss -> loss
…
