…
I0528 07:18:15.862423 22767 solver.cpp:81] Creating training net from train_net file: ./Prototxt/experiment_21/RTSD/imajust/trial_5/train.prototxt
I0528 07:18:15.862803 22767 net.cpp:58] Initializing net from parameters: 
state {
  phase: TRAIN
  level: 0
  stage: ""
}
layer {
  name: "data"
  type: "Data"
  top: "data"
  top: "label"
  include {
    phase: TRAIN
  }
  transform_param {
    scale: 0.0039215689
    mirror: false
    crop_size: 48
    mean_value: 119
    mean_value: 113
    mean_value: 113
  }
  data_param {
    source: "../local_data/lmdb/RTSD/imajust/train/lmdb"
    batch_size: 1024
    backend: LMDB
  }
}
layer {
  name: "conv1"
  type: "Convolution"
  bottom: "data"
  top: "conv1"
  convolution_param {
    num_output: 100
    pad: 0
    kernel_size: 7
    group: 1
    stride: 1
    weight_filler {
      type: "xavier"
    }
  }
}
layer {
  name: "conv1_relu"
  type: "ReLU"
  bottom: "conv1"
  top: "conv1"
}
layer {
  name: "pool1"
  type: "Pooling"
  bottom: "conv1"
  top: "pool1"
  pooling_param {
    pool: MAX
    kernel_size: 2
    stride: 2
  }
}
layer {
  name: "conv2"
  type: "Convolution"
  bottom: "pool1"
  top: "conv2"
  convolution_param {
    num_output: 150
    pad: 0
    kernel_size: 4
    group: 1
    stride: 1
    weight_filler {
      type: "xavier"
    }
  }
}
layer {
  name: "conv2_relu"
  type: "ReLU"
  bottom: "conv2"
  top: "conv2"
}
layer {
  name: "pool2"
  type: "Pooling"
  bottom: "conv2"
  top: "pool2"
  pooling_param {
    pool: MAX
    kernel_size: 2
    stride: 2
  }
}
layer {
  name: "conv3"
  type: "Convolution"
  bottom: "pool2"
  top: "conv3"
  convolution_param {
    num_output: 250
    pad: 0
    kernel_size: 4
    group: 1
    stride: 1
    weight_filler {
      type: "xavier"
    }
  }
}
layer {
  name: "conv3_relu"
  type: "ReLU"
  bottom: "conv3"
  top: "conv3"
}
layer {
  name: "pool3"
  type: "Pooling"
  bottom: "conv3"
  top: "pool3"
  pooling_param {
    pool: MAX
    kernel_size: 2
    stride: 2
  }
}
layer {
  name: "fc4_300"
  type: "InnerProduct"
  bottom: "pool3"
  top: "fc4_300"
  inner_product_param {
    num_output: 300
    weight_filler {
      type: "xavier"
    }
  }
}
layer {
  name: "fc4_relu"
  type: "ReLU"
  bottom: "fc4_300"
  top: "fc4_300"
}
layer {
  name: "fc5_116"
  type: "InnerProduct"
  bottom: "fc4_300"
  top: "fc5_classes"
  inner_product_param {
    num_output: 116
    weight_filler {
      type: "xavier"
    }
  }
}
layer {
  name: "softmax"
  type: "Softmax"
  bottom: "fc5_classes"
  top: "softmax"
}
layer {
  name: "loss"
  type: "MultinomialLogisticLoss"
  bottom: "softmax"
  bottom: "label"
  top: "loss"
}
layer {
  name: "accuracy_1"
  type: "Accuracy"
  bottom: "fc5_classes"
  bottom: "label"
  top: "accuracy_1"
  accuracy_param {
    top_k: 1
  }
}
layer {
  name: "accuracy_5"
  type: "Accuracy"
  bottom: "fc5_classes"
  bottom: "label"
  top: "accuracy_5"
  accuracy_param {
    top_k: 5
  }
}
layer {
  name: "silence"
  type: "Silence"
  bottom: "accuracy_1"
  bottom: "accuracy_5"
}
I0528 07:18:15.862949 22767 layer_factory.hpp:77] Creating layer data
I0528 07:18:15.895851 22767 net.cpp:100] Creating Layer data
I0528 07:18:15.895910 22767 net.cpp:408] data -> data
I0528 07:18:15.895965 22767 net.cpp:408] data -> label
I0528 07:18:15.897363 22847 db_lmdb.cpp:35] Opened lmdb ../local_data/lmdb/RTSD/imajust/train/lmdb
I0528 07:18:15.915292 22767 data_layer.cpp:41] output data size: 1024,3,48,48
I0528 07:18:15.960837 22767 net.cpp:150] Setting up data
I0528 07:18:15.960897 22767 net.cpp:157] Top shape: 1024 3 48 48 (7077888)
I0528 07:18:15.960908 22767 net.cpp:157] Top shape: 1024 (1024)
I0528 07:18:15.960916 22767 net.cpp:165] Memory required for data: 28315648
I0528 07:18:15.960932 22767 layer_factory.hpp:77] Creating layer label_data_1_split
I0528 07:18:15.960950 22767 net.cpp:100] Creating Layer label_data_1_split
I0528 07:18:15.960983 22767 net.cpp:434] label_data_1_split <- label
I0528 07:18:15.961021 22767 net.cpp:408] label_data_1_split -> label_data_1_split_0
I0528 07:18:15.961056 22767 net.cpp:408] label_data_1_split -> label_data_1_split_1
I0528 07:18:15.961091 22767 net.cpp:408] label_data_1_split -> label_data_1_split_2
I0528 07:18:15.961175 22767 net.cpp:150] Setting up label_data_1_split
I0528 07:18:15.961194 22767 net.cpp:157] Top shape: 1024 (1024)
I0528 07:18:15.961205 22767 net.cpp:157] Top shape: 1024 (1024)
I0528 07:18:15.961212 22767 net.cpp:157] Top shape: 1024 (1024)
I0528 07:18:15.961221 22767 net.cpp:165] Memory required for data: 28327936
I0528 07:18:15.961230 22767 layer_factory.hpp:77] Creating layer conv1
I0528 07:18:15.961256 22767 net.cpp:100] Creating Layer conv1
I0528 07:18:15.961268 22767 net.cpp:434] conv1 <- data
I0528 07:18:15.961282 22767 net.cpp:408] conv1 -> conv1
I0528 07:18:17.255303 22767 net.cpp:150] Setting up conv1
I0528 07:18:17.255384 22767 net.cpp:157] Top shape: 1024 100 42 42 (180633600)
I0528 07:18:17.255406 22767 net.cpp:165] Memory required for data: 750862336
I0528 07:18:17.255439 22767 layer_factory.hpp:77] Creating layer conv1_relu
I0528 07:18:17.255467 22767 net.cpp:100] Creating Layer conv1_relu
I0528 07:18:17.255486 22767 net.cpp:434] conv1_relu <- conv1
I0528 07:18:17.255508 22767 net.cpp:395] conv1_relu -> conv1 (in-place)
I0528 07:18:17.255717 22767 net.cpp:150] Setting up conv1_relu
I0528 07:18:17.255749 22767 net.cpp:157] Top shape: 1024 100 42 42 (180633600)
I0528 07:18:17.255769 22767 net.cpp:165] Memory required for data: 1473396736
I0528 07:18:17.255786 22767 layer_factory.hpp:77] Creating layer pool1
I0528 07:18:17.255810 22767 net.cpp:100] Creating Layer pool1
I0528 07:18:17.255830 22767 net.cpp:434] pool1 <- conv1
I0528 07:18:17.255849 22767 net.cpp:408] pool1 -> pool1
I0528 07:18:17.255915 22767 net.cpp:150] Setting up pool1
I0528 07:18:17.255940 22767 net.cpp:157] Top shape: 1024 100 21 21 (45158400)
I0528 07:18:17.255959 22767 net.cpp:165] Memory required for data: 1654030336
I0528 07:18:17.255981 22767 layer_factory.hpp:77] Creating layer conv2
I0528 07:18:17.256017 22767 net.cpp:100] Creating Layer conv2
I0528 07:18:17.256043 22767 net.cpp:434] conv2 <- pool1
I0528 07:18:17.256073 22767 net.cpp:408] conv2 -> conv2
I0528 07:18:17.262326 22767 net.cpp:150] Setting up conv2
I0528 07:18:17.262358 22767 net.cpp:157] Top shape: 1024 150 18 18 (49766400)
I0528 07:18:17.262369 22767 net.cpp:165] Memory required for data: 1853095936
I0528 07:18:17.262387 22767 layer_factory.hpp:77] Creating layer conv2_relu
I0528 07:18:17.262405 22767 net.cpp:100] Creating Layer conv2_relu
I0528 07:18:17.262414 22767 net.cpp:434] conv2_relu <- conv2
I0528 07:18:17.262428 22767 net.cpp:395] conv2_relu -> conv2 (in-place)
I0528 07:18:17.262614 22767 net.cpp:150] Setting up conv2_relu
I0528 07:18:17.262629 22767 net.cpp:157] Top shape: 1024 150 18 18 (49766400)
I0528 07:18:17.262636 22767 net.cpp:165] Memory required for data: 2052161536
I0528 07:18:17.262642 22767 layer_factory.hpp:77] Creating layer pool2
I0528 07:18:17.262652 22767 net.cpp:100] Creating Layer pool2
I0528 07:18:17.262658 22767 net.cpp:434] pool2 <- conv2
I0528 07:18:17.262667 22767 net.cpp:408] pool2 -> pool2
I0528 07:18:17.262712 22767 net.cpp:150] Setting up pool2
I0528 07:18:17.262723 22767 net.cpp:157] Top shape: 1024 150 9 9 (12441600)
I0528 07:18:17.262728 22767 net.cpp:165] Memory required for data: 2101927936
I0528 07:18:17.262733 22767 layer_factory.hpp:77] Creating layer conv3
I0528 07:18:17.262748 22767 net.cpp:100] Creating Layer conv3
I0528 07:18:17.262754 22767 net.cpp:434] conv3 <- pool2
I0528 07:18:17.262763 22767 net.cpp:408] conv3 -> conv3
I0528 07:18:17.269448 22767 net.cpp:150] Setting up conv3
I0528 07:18:17.269487 22767 net.cpp:157] Top shape: 1024 250 6 6 (9216000)
I0528 07:18:17.269495 22767 net.cpp:165] Memory required for data: 2138791936
I0528 07:18:17.269515 22767 layer_factory.hpp:77] Creating layer conv3_relu
I0528 07:18:17.269533 22767 net.cpp:100] Creating Layer conv3_relu
I0528 07:18:17.269541 22767 net.cpp:434] conv3_relu <- conv3
I0528 07:18:17.269548 22767 net.cpp:395] conv3_relu -> conv3 (in-place)
I0528 07:18:17.270061 22767 net.cpp:150] Setting up conv3_relu
I0528 07:18:17.270092 22767 net.cpp:157] Top shape: 1024 250 6 6 (9216000)
I0528 07:18:17.270098 22767 net.cpp:165] Memory required for data: 2175655936
I0528 07:18:17.270104 22767 layer_factory.hpp:77] Creating layer pool3
I0528 07:18:17.270114 22767 net.cpp:100] Creating Layer pool3
I0528 07:18:17.270120 22767 net.cpp:434] pool3 <- conv3
I0528 07:18:17.270128 22767 net.cpp:408] pool3 -> pool3
I0528 07:18:17.270182 22767 net.cpp:150] Setting up pool3
I0528 07:18:17.270191 22767 net.cpp:157] Top shape: 1024 250 3 3 (2304000)
I0528 07:18:17.270205 22767 net.cpp:165] Memory required for data: 2184871936
I0528 07:18:17.270210 22767 layer_factory.hpp:77] Creating layer fc4_300
I0528 07:18:17.270226 22767 net.cpp:100] Creating Layer fc4_300
I0528 07:18:17.270231 22767 net.cpp:434] fc4_300 <- pool3
I0528 07:18:17.270248 22767 net.cpp:408] fc4_300 -> fc4_300
I0528 07:18:17.276293 22767 net.cpp:150] Setting up fc4_300
I0528 07:18:17.276335 22767 net.cpp:157] Top shape: 1024 300 (307200)
I0528 07:18:17.276341 22767 net.cpp:165] Memory required for data: 2186100736
I0528 07:18:17.276361 22767 layer_factory.hpp:77] Creating layer fc4_relu
I0528 07:18:17.276371 22767 net.cpp:100] Creating Layer fc4_relu
I0528 07:18:17.276377 22767 net.cpp:434] fc4_relu <- fc4_300
I0528 07:18:17.276393 22767 net.cpp:395] fc4_relu -> fc4_300 (in-place)
I0528 07:18:17.276598 22767 net.cpp:150] Setting up fc4_relu
I0528 07:18:17.276617 22767 net.cpp:157] Top shape: 1024 300 (307200)
I0528 07:18:17.276623 22767 net.cpp:165] Memory required for data: 2187329536
I0528 07:18:17.276629 22767 layer_factory.hpp:77] Creating layer fc5_116
I0528 07:18:17.276639 22767 net.cpp:100] Creating Layer fc5_116
I0528 07:18:17.276646 22767 net.cpp:434] fc5_116 <- fc4_300
I0528 07:18:17.276654 22767 net.cpp:408] fc5_116 -> fc5_classes
I0528 07:18:17.278067 22767 net.cpp:150] Setting up fc5_116
I0528 07:18:17.278093 22767 net.cpp:157] Top shape: 1024 116 (118784)
I0528 07:18:17.278100 22767 net.cpp:165] Memory required for data: 2187804672
I0528 07:18:17.278122 22767 layer_factory.hpp:77] Creating layer fc5_classes_fc5_116_0_split
I0528 07:18:17.278139 22767 net.cpp:100] Creating Layer fc5_classes_fc5_116_0_split
I0528 07:18:17.278144 22767 net.cpp:434] fc5_classes_fc5_116_0_split <- fc5_classes
I0528 07:18:17.278162 22767 net.cpp:408] fc5_classes_fc5_116_0_split -> fc5_classes_fc5_116_0_split_0
I0528 07:18:17.278178 22767 net.cpp:408] fc5_classes_fc5_116_0_split -> fc5_classes_fc5_116_0_split_1
I0528 07:18:17.278187 22767 net.cpp:408] fc5_classes_fc5_116_0_split -> fc5_classes_fc5_116_0_split_2
I0528 07:18:17.278247 22767 net.cpp:150] Setting up fc5_classes_fc5_116_0_split
I0528 07:18:17.278259 22767 net.cpp:157] Top shape: 1024 116 (118784)
I0528 07:18:17.278264 22767 net.cpp:157] Top shape: 1024 116 (118784)
I0528 07:18:17.278270 22767 net.cpp:157] Top shape: 1024 116 (118784)
I0528 07:18:17.278275 22767 net.cpp:165] Memory required for data: 2189230080
I0528 07:18:17.278281 22767 layer_factory.hpp:77] Creating layer softmax
I0528 07:18:17.278298 22767 net.cpp:100] Creating Layer softmax
I0528 07:18:17.278303 22767 net.cpp:434] softmax <- fc5_classes_fc5_116_0_split_0
I0528 07:18:17.278311 22767 net.cpp:408] softmax -> softmax
I0528 07:18:17.278586 22767 net.cpp:150] Setting up softmax
I0528 07:18:17.278601 22767 net.cpp:157] Top shape: 1024 116 (118784)
I0528 07:18:17.278607 22767 net.cpp:165] Memory required for data: 2189705216
I0528 07:18:17.278612 22767 layer_factory.hpp:77] Creating layer loss
I0528 07:18:17.278654 22767 net.cpp:100] Creating Layer loss
I0528 07:18:17.278661 22767 net.cpp:434] loss <- softmax
I0528 07:18:17.278668 22767 net.cpp:434] loss <- label_data_1_split_0
I0528 07:18:17.278676 22767 net.cpp:408] loss -> loss
…
