…
I0412 09:53:03.253073 22674 solver.cpp:93] Creating training net from train_net file: ./Prototxt/experiment_10/rtsd-r1/imajust/trial_5/train.prototxt
I0412 09:53:03.253410 22674 net.cpp:58] Initializing net from parameters: 
state {
  phase: TRAIN
  level: 0
  stage: ""
}
layer {
  name: "data"
  type: "Data"
  top: "data"
  top: "label"
  include {
    phase: TRAIN
  }
  transform_param {
    scale: 0.0039215689
    mirror: false
    crop_size: 48
    mean_value: 115
    mean_value: 108
    mean_value: 122
  }
  data_param {
    source: "../local_data/lmdb/rtsd-r1/imajust/train/lmdb"
    batch_size: 1024
    backend: LMDB
  }
}
layer {
  name: "conv1"
  type: "Convolution"
  bottom: "data"
  top: "conv1"
  convolution_param {
    num_output: 100
    pad: 0
    kernel_size: 7
    group: 1
    stride: 1
    weight_filler {
      type: "xavier"
    }
  }
}
layer {
  name: "conv1_relu"
  type: "ReLU"
  bottom: "conv1"
  top: "conv1"
}
layer {
  name: "pool1"
  type: "Pooling"
  bottom: "conv1"
  top: "pool1"
  pooling_param {
    pool: MAX
    kernel_size: 2
    stride: 2
  }
}
layer {
  name: "conv2"
  type: "Convolution"
  bottom: "pool1"
  top: "conv2"
  convolution_param {
    num_output: 150
    pad: 0
    kernel_size: 4
    group: 1
    stride: 1
    weight_filler {
      type: "xavier"
    }
  }
}
layer {
  name: "conv2_relu"
  type: "ReLU"
  bottom: "conv2"
  top: "conv2"
}
layer {
  name: "pool2"
  type: "Pooling"
  bottom: "conv2"
  top: "pool2"
  pooling_param {
    pool: MAX
    kernel_size: 2
    stride: 2
  }
}
layer {
  name: "conv3"
  type: "Convolution"
  bottom: "pool2"
  top: "conv3"
  convolution_param {
    num_output: 250
    pad: 0
    kernel_size: 4
    group: 1
    stride: 1
    weight_filler {
      type: "xavier"
    }
  }
}
layer {
  name: "conv3_relu"
  type: "ReLU"
  bottom: "conv3"
  top: "conv3"
}
layer {
  name: "pool3"
  type: "Pooling"
  bottom: "conv3"
  top: "pool3"
  pooling_param {
    pool: MAX
    kernel_size: 2
    stride: 2
  }
}
layer {
  name: "fc4_300"
  type: "InnerProduct"
  bottom: "pool3"
  top: "fc4_300"
  inner_product_param {
    num_output: 300
    weight_filler {
      type: "xavier"
    }
  }
}
layer {
  name: "fc4_relu"
  type: "ReLU"
  bottom: "fc4_300"
  top: "fc4_300"
}
layer {
  name: "drop4"
  type: "Dropout"
  bottom: "fc4_300"
  top: "fc4_300"
  dropout_param {
    dropout_ratio: 0.4
  }
}
layer {
  name: "fc5_67"
  type: "InnerProduct"
  bottom: "fc4_300"
  top: "fc5_classes"
  inner_product_param {
    num_output: 67
    weight_filler {
      type: "xavier"
    }
  }
}
layer {
  name: "softmax"
  type: "Softmax"
  bottom: "fc5_classes"
  top: "softmax"
}
layer {
  name: "loss"
  type: "MultinomialLogisticLoss"
  bottom: "softmax"
  bottom: "label"
  top: "loss"
}
layer {
  name: "accuracy_1"
  type: "Accuracy"
  bottom: "fc5_classes"
  bottom: "label"
  top: "accuracy_1"
  accuracy_param {
    top_k: 1
  }
}
layer {
  name: "accuracy_5"
  type: "Accuracy"
  bottom: "fc5_classes"
  bottom: "label"
  top: "accuracy_5"
  accuracy_param {
    top_k: 5
  }
}
I0412 09:53:03.253527 22674 layer_factory.hpp:77] Creating layer data
I0412 09:53:03.254819 22674 net.cpp:100] Creating Layer data
I0412 09:53:03.254848 22674 net.cpp:408] data -> data
I0412 09:53:03.254874 22674 net.cpp:408] data -> label
I0412 09:53:03.258957 22799 db_lmdb.cpp:35] Opened lmdb ../local_data/lmdb/rtsd-r1/imajust/train/lmdb
I0412 09:53:03.281224 22674 data_layer.cpp:41] output data size: 1024,3,48,48
I0412 09:53:03.327472 22674 net.cpp:150] Setting up data
I0412 09:53:03.327502 22674 net.cpp:157] Top shape: 1024 3 48 48 (7077888)
I0412 09:53:03.327507 22674 net.cpp:157] Top shape: 1024 (1024)
I0412 09:53:03.327510 22674 net.cpp:165] Memory required for data: 28315648
I0412 09:53:03.327520 22674 layer_factory.hpp:77] Creating layer label_data_1_split
I0412 09:53:03.327546 22674 net.cpp:100] Creating Layer label_data_1_split
I0412 09:53:03.327553 22674 net.cpp:434] label_data_1_split <- label
I0412 09:53:03.327570 22674 net.cpp:408] label_data_1_split -> label_data_1_split_0
I0412 09:53:03.327584 22674 net.cpp:408] label_data_1_split -> label_data_1_split_1
I0412 09:53:03.327591 22674 net.cpp:408] label_data_1_split -> label_data_1_split_2
I0412 09:53:03.327656 22674 net.cpp:150] Setting up label_data_1_split
I0412 09:53:03.327664 22674 net.cpp:157] Top shape: 1024 (1024)
I0412 09:53:03.327668 22674 net.cpp:157] Top shape: 1024 (1024)
I0412 09:53:03.327672 22674 net.cpp:157] Top shape: 1024 (1024)
I0412 09:53:03.327675 22674 net.cpp:165] Memory required for data: 28327936
I0412 09:53:03.327679 22674 layer_factory.hpp:77] Creating layer conv1
I0412 09:53:03.327695 22674 net.cpp:100] Creating Layer conv1
I0412 09:53:03.327702 22674 net.cpp:434] conv1 <- data
I0412 09:53:03.327708 22674 net.cpp:408] conv1 -> conv1
I0412 09:53:03.665046 22674 net.cpp:150] Setting up conv1
I0412 09:53:03.665079 22674 net.cpp:157] Top shape: 1024 100 42 42 (180633600)
I0412 09:53:03.665084 22674 net.cpp:165] Memory required for data: 750862336
I0412 09:53:03.665112 22674 layer_factory.hpp:77] Creating layer conv1_relu
I0412 09:53:03.665125 22674 net.cpp:100] Creating Layer conv1_relu
I0412 09:53:03.665132 22674 net.cpp:434] conv1_relu <- conv1
I0412 09:53:03.665140 22674 net.cpp:395] conv1_relu -> conv1 (in-place)
I0412 09:53:03.665385 22674 net.cpp:150] Setting up conv1_relu
I0412 09:53:03.665400 22674 net.cpp:157] Top shape: 1024 100 42 42 (180633600)
I0412 09:53:03.665405 22674 net.cpp:165] Memory required for data: 1473396736
I0412 09:53:03.665410 22674 layer_factory.hpp:77] Creating layer pool1
I0412 09:53:03.665422 22674 net.cpp:100] Creating Layer pool1
I0412 09:53:03.665428 22674 net.cpp:434] pool1 <- conv1
I0412 09:53:03.665436 22674 net.cpp:408] pool1 -> pool1
I0412 09:53:03.665503 22674 net.cpp:150] Setting up pool1
I0412 09:53:03.665515 22674 net.cpp:157] Top shape: 1024 100 21 21 (45158400)
I0412 09:53:03.665519 22674 net.cpp:165] Memory required for data: 1654030336
I0412 09:53:03.665524 22674 layer_factory.hpp:77] Creating layer conv2
I0412 09:53:03.665537 22674 net.cpp:100] Creating Layer conv2
I0412 09:53:03.665544 22674 net.cpp:434] conv2 <- pool1
I0412 09:53:03.665551 22674 net.cpp:408] conv2 -> conv2
I0412 09:53:03.671962 22674 net.cpp:150] Setting up conv2
I0412 09:53:03.671983 22674 net.cpp:157] Top shape: 1024 150 18 18 (49766400)
I0412 09:53:03.671988 22674 net.cpp:165] Memory required for data: 1853095936
I0412 09:53:03.672006 22674 layer_factory.hpp:77] Creating layer conv2_relu
I0412 09:53:03.672015 22674 net.cpp:100] Creating Layer conv2_relu
I0412 09:53:03.672020 22674 net.cpp:434] conv2_relu <- conv2
I0412 09:53:03.672027 22674 net.cpp:395] conv2_relu -> conv2 (in-place)
I0412 09:53:03.673305 22674 net.cpp:150] Setting up conv2_relu
I0412 09:53:03.673326 22674 net.cpp:157] Top shape: 1024 150 18 18 (49766400)
I0412 09:53:03.673331 22674 net.cpp:165] Memory required for data: 2052161536
I0412 09:53:03.673336 22674 layer_factory.hpp:77] Creating layer pool2
I0412 09:53:03.673346 22674 net.cpp:100] Creating Layer pool2
I0412 09:53:03.673352 22674 net.cpp:434] pool2 <- conv2
I0412 09:53:03.673359 22674 net.cpp:408] pool2 -> pool2
I0412 09:53:03.673424 22674 net.cpp:150] Setting up pool2
I0412 09:53:03.673435 22674 net.cpp:157] Top shape: 1024 150 9 9 (12441600)
I0412 09:53:03.673440 22674 net.cpp:165] Memory required for data: 2101927936
I0412 09:53:03.673444 22674 layer_factory.hpp:77] Creating layer conv3
I0412 09:53:03.673460 22674 net.cpp:100] Creating Layer conv3
I0412 09:53:03.673465 22674 net.cpp:434] conv3 <- pool2
I0412 09:53:03.673497 22674 net.cpp:408] conv3 -> conv3
I0412 09:53:03.680649 22674 net.cpp:150] Setting up conv3
I0412 09:53:03.680671 22674 net.cpp:157] Top shape: 1024 250 6 6 (9216000)
I0412 09:53:03.680676 22674 net.cpp:165] Memory required for data: 2138791936
I0412 09:53:03.680688 22674 layer_factory.hpp:77] Creating layer conv3_relu
I0412 09:53:03.680697 22674 net.cpp:100] Creating Layer conv3_relu
I0412 09:53:03.680702 22674 net.cpp:434] conv3_relu <- conv3
I0412 09:53:03.680713 22674 net.cpp:395] conv3_relu -> conv3 (in-place)
I0412 09:53:03.682487 22674 net.cpp:150] Setting up conv3_relu
I0412 09:53:03.682507 22674 net.cpp:157] Top shape: 1024 250 6 6 (9216000)
I0412 09:53:03.682512 22674 net.cpp:165] Memory required for data: 2175655936
I0412 09:53:03.682516 22674 layer_factory.hpp:77] Creating layer pool3
I0412 09:53:03.682528 22674 net.cpp:100] Creating Layer pool3
I0412 09:53:03.682535 22674 net.cpp:434] pool3 <- conv3
I0412 09:53:03.682543 22674 net.cpp:408] pool3 -> pool3
I0412 09:53:03.682607 22674 net.cpp:150] Setting up pool3
I0412 09:53:03.682618 22674 net.cpp:157] Top shape: 1024 250 3 3 (2304000)
I0412 09:53:03.682622 22674 net.cpp:165] Memory required for data: 2184871936
I0412 09:53:03.682627 22674 layer_factory.hpp:77] Creating layer fc4_300
I0412 09:53:03.682636 22674 net.cpp:100] Creating Layer fc4_300
I0412 09:53:03.682642 22674 net.cpp:434] fc4_300 <- pool3
I0412 09:53:03.682652 22674 net.cpp:408] fc4_300 -> fc4_300
I0412 09:53:03.692322 22674 net.cpp:150] Setting up fc4_300
I0412 09:53:03.692342 22674 net.cpp:157] Top shape: 1024 300 (307200)
I0412 09:53:03.692347 22674 net.cpp:165] Memory required for data: 2186100736
I0412 09:53:03.692355 22674 layer_factory.hpp:77] Creating layer fc4_relu
I0412 09:53:03.692363 22674 net.cpp:100] Creating Layer fc4_relu
I0412 09:53:03.692368 22674 net.cpp:434] fc4_relu <- fc4_300
I0412 09:53:03.692378 22674 net.cpp:395] fc4_relu -> fc4_300 (in-place)
I0412 09:53:03.692625 22674 net.cpp:150] Setting up fc4_relu
I0412 09:53:03.692641 22674 net.cpp:157] Top shape: 1024 300 (307200)
I0412 09:53:03.692646 22674 net.cpp:165] Memory required for data: 2187329536
I0412 09:53:03.692651 22674 layer_factory.hpp:77] Creating layer drop4
I0412 09:53:03.692662 22674 net.cpp:100] Creating Layer drop4
I0412 09:53:03.692667 22674 net.cpp:434] drop4 <- fc4_300
I0412 09:53:03.692677 22674 net.cpp:395] drop4 -> fc4_300 (in-place)
I0412 09:53:03.692721 22674 net.cpp:150] Setting up drop4
I0412 09:53:03.692731 22674 net.cpp:157] Top shape: 1024 300 (307200)
I0412 09:53:03.692736 22674 net.cpp:165] Memory required for data: 2188558336
I0412 09:53:03.692740 22674 layer_factory.hpp:77] Creating layer fc5_67
I0412 09:53:03.692749 22674 net.cpp:100] Creating Layer fc5_67
I0412 09:53:03.692755 22674 net.cpp:434] fc5_67 <- fc4_300
I0412 09:53:03.692765 22674 net.cpp:408] fc5_67 -> fc5_classes
I0412 09:53:03.696116 22674 net.cpp:150] Setting up fc5_67
I0412 09:53:03.696137 22674 net.cpp:157] Top shape: 1024 67 (68608)
I0412 09:53:03.696142 22674 net.cpp:165] Memory required for data: 2188832768
I0412 09:53:03.696156 22674 layer_factory.hpp:77] Creating layer fc5_classes_fc5_67_0_split
I0412 09:53:03.696166 22674 net.cpp:100] Creating Layer fc5_classes_fc5_67_0_split
I0412 09:53:03.696173 22674 net.cpp:434] fc5_classes_fc5_67_0_split <- fc5_classes
I0412 09:53:03.696183 22674 net.cpp:408] fc5_classes_fc5_67_0_split -> fc5_classes_fc5_67_0_split_0
I0412 09:53:03.696195 22674 net.cpp:408] fc5_classes_fc5_67_0_split -> fc5_classes_fc5_67_0_split_1
I0412 09:53:03.696205 22674 net.cpp:408] fc5_classes_fc5_67_0_split -> fc5_classes_fc5_67_0_split_2
I0412 09:53:03.696276 22674 net.cpp:150] Setting up fc5_classes_fc5_67_0_split
I0412 09:53:03.696286 22674 net.cpp:157] Top shape: 1024 67 (68608)
I0412 09:53:03.696291 22674 net.cpp:157] Top shape: 1024 67 (68608)
I0412 09:53:03.696296 22674 net.cpp:157] Top shape: 1024 67 (68608)
I0412 09:53:03.696300 22674 net.cpp:165] Memory required for data: 2189656064
I0412 09:53:03.696305 22674 layer_factory.hpp:77] Creating layer softmax
I0412 09:53:03.696334 22674 net.cpp:100] Creating Layer softmax
I0412 09:53:03.696342 22674 net.cpp:434] softmax <- fc5_classes_fc5_67_0_split_0
I0412 09:53:03.696351 22674 net.cpp:408] softmax -> softmax
I0412 09:53:03.696679 22674 net.cpp:150] Setting up softmax
I0412 09:53:03.696696 22674 net.cpp:157] Top shape: 1024 67 (68608)
I0412 09:53:03.696699 22674 net.cpp:165] Memory required for data: 2189930496
I0412 09:53:03.696705 22674 layer_factory.hpp:77] Creating layer loss
I0412 09:53:03.696715 22674 net.cpp:100] Creating Layer loss
I0412 09:53:03.696722 22674 net.cpp:434] loss <- softmax
I0412 09:53:03.696728 22674 net.cpp:434] loss <- label_data_1_split_0
I0412 09:53:03.696735 22674 net.cpp:408] loss -> loss
…
