…
I0414 09:12:32.998397 13813 solver.cpp:93] Creating training net from train_net file: ./Prototxt/experiment_10/rtsd-r1/imajust/trial_5/train.prototxt
I0414 09:12:32.998808 13813 net.cpp:58] Initializing net from parameters: 
state {
  phase: TRAIN
  level: 0
  stage: ""
}
layer {
  name: "data"
  type: "Data"
  top: "data"
  top: "label"
  include {
    phase: TRAIN
  }
  transform_param {
    scale: 0.0039215689
    mirror: false
    crop_size: 48
    mean_value: 115
    mean_value: 108
    mean_value: 122
  }
  data_param {
    source: "../local_data/lmdb/rtsd-r1/imajust/train/lmdb"
    batch_size: 1024
    backend: LMDB
  }
}
layer {
  name: "conv1"
  type: "Convolution"
  bottom: "data"
  top: "conv1"
  convolution_param {
    num_output: 100
    pad: 0
    kernel_size: 7
    group: 1
    stride: 1
    weight_filler {
      type: "xavier"
    }
  }
}
layer {
  name: "conv1_relu"
  type: "ReLU"
  bottom: "conv1"
  top: "conv1"
}
layer {
  name: "pool1"
  type: "Pooling"
  bottom: "conv1"
  top: "pool1"
  pooling_param {
    pool: MAX
    kernel_size: 2
    stride: 2
  }
}
layer {
  name: "conv2"
  type: "Convolution"
  bottom: "pool1"
  top: "conv2"
  convolution_param {
    num_output: 150
    pad: 0
    kernel_size: 4
    group: 1
    stride: 1
    weight_filler {
      type: "xavier"
    }
  }
}
layer {
  name: "conv2_relu"
  type: "ReLU"
  bottom: "conv2"
  top: "conv2"
}
layer {
  name: "pool2"
  type: "Pooling"
  bottom: "conv2"
  top: "pool2"
  pooling_param {
    pool: MAX
    kernel_size: 2
    stride: 2
  }
}
layer {
  name: "conv3"
  type: "Convolution"
  bottom: "pool2"
  top: "conv3"
  convolution_param {
    num_output: 250
    pad: 0
    kernel_size: 4
    group: 1
    stride: 1
    weight_filler {
      type: "xavier"
    }
  }
}
layer {
  name: "conv3_relu"
  type: "ReLU"
  bottom: "conv3"
  top: "conv3"
}
layer {
  name: "pool3"
  type: "Pooling"
  bottom: "conv3"
  top: "pool3"
  pooling_param {
    pool: MAX
    kernel_size: 2
    stride: 2
  }
}
layer {
  name: "fc4_300"
  type: "InnerProduct"
  bottom: "pool3"
  top: "fc4_300"
  inner_product_param {
    num_output: 300
    weight_filler {
      type: "xavier"
    }
  }
}
layer {
  name: "fc4_relu"
  type: "ReLU"
  bottom: "fc4_300"
  top: "fc4_300"
}
layer {
  name: "fc5_67"
  type: "InnerProduct"
  bottom: "fc4_300"
  top: "fc5_classes"
  inner_product_param {
    num_output: 67
    weight_filler {
      type: "xavier"
    }
  }
}
layer {
  name: "softmax"
  type: "Softmax"
  bottom: "fc5_classes"
  top: "softmax"
}
layer {
  name: "loss"
  type: "MultinomialLogisticLoss"
  bottom: "softmax"
  bottom: "label"
  top: "loss"
}
layer {
  name: "accuracy_1"
  type: "Accuracy"
  bottom: "fc5_classes"
  bottom: "label"
  top: "accuracy_1"
  accuracy_param {
    top_k: 1
  }
}
layer {
  name: "accuracy_5"
  type: "Accuracy"
  bottom: "fc5_classes"
  bottom: "label"
  top: "accuracy_5"
  accuracy_param {
    top_k: 5
  }
}
layer {
  name: "silence"
  type: "Silence"
  bottom: "accuracy_1"
  bottom: "accuracy_5"
}
I0414 09:12:32.998975 13813 layer_factory.hpp:77] Creating layer data
I0414 09:12:33.000303 13813 net.cpp:100] Creating Layer data
I0414 09:12:33.000322 13813 net.cpp:408] data -> data
I0414 09:12:33.000352 13813 net.cpp:408] data -> label
I0414 09:12:33.002521 13909 db_lmdb.cpp:35] Opened lmdb ../local_data/lmdb/rtsd-r1/imajust/train/lmdb
I0414 09:12:33.023767 13813 data_layer.cpp:41] output data size: 1024,3,48,48
I0414 09:12:33.076896 13813 net.cpp:150] Setting up data
I0414 09:12:33.076958 13813 net.cpp:157] Top shape: 1024 3 48 48 (7077888)
I0414 09:12:33.076967 13813 net.cpp:157] Top shape: 1024 (1024)
I0414 09:12:33.076970 13813 net.cpp:165] Memory required for data: 28315648
I0414 09:12:33.076982 13813 layer_factory.hpp:77] Creating layer label_data_1_split
I0414 09:12:33.076998 13813 net.cpp:100] Creating Layer label_data_1_split
I0414 09:12:33.077008 13813 net.cpp:434] label_data_1_split <- label
I0414 09:12:33.077023 13813 net.cpp:408] label_data_1_split -> label_data_1_split_0
I0414 09:12:33.077039 13813 net.cpp:408] label_data_1_split -> label_data_1_split_1
I0414 09:12:33.077049 13813 net.cpp:408] label_data_1_split -> label_data_1_split_2
I0414 09:12:33.077126 13813 net.cpp:150] Setting up label_data_1_split
I0414 09:12:33.077136 13813 net.cpp:157] Top shape: 1024 (1024)
I0414 09:12:33.077141 13813 net.cpp:157] Top shape: 1024 (1024)
I0414 09:12:33.077145 13813 net.cpp:157] Top shape: 1024 (1024)
I0414 09:12:33.077148 13813 net.cpp:165] Memory required for data: 28327936
I0414 09:12:33.077152 13813 layer_factory.hpp:77] Creating layer conv1
I0414 09:12:33.077172 13813 net.cpp:100] Creating Layer conv1
I0414 09:12:33.077178 13813 net.cpp:434] conv1 <- data
I0414 09:12:33.077184 13813 net.cpp:408] conv1 -> conv1
I0414 09:12:33.394714 13813 net.cpp:150] Setting up conv1
I0414 09:12:33.394743 13813 net.cpp:157] Top shape: 1024 100 42 42 (180633600)
I0414 09:12:33.394747 13813 net.cpp:165] Memory required for data: 750862336
I0414 09:12:33.394770 13813 layer_factory.hpp:77] Creating layer conv1_relu
I0414 09:12:33.394781 13813 net.cpp:100] Creating Layer conv1_relu
I0414 09:12:33.394785 13813 net.cpp:434] conv1_relu <- conv1
I0414 09:12:33.394791 13813 net.cpp:395] conv1_relu -> conv1 (in-place)
I0414 09:12:33.394985 13813 net.cpp:150] Setting up conv1_relu
I0414 09:12:33.394999 13813 net.cpp:157] Top shape: 1024 100 42 42 (180633600)
I0414 09:12:33.395002 13813 net.cpp:165] Memory required for data: 1473396736
I0414 09:12:33.395007 13813 layer_factory.hpp:77] Creating layer pool1
I0414 09:12:33.395017 13813 net.cpp:100] Creating Layer pool1
I0414 09:12:33.395023 13813 net.cpp:434] pool1 <- conv1
I0414 09:12:33.395028 13813 net.cpp:408] pool1 -> pool1
I0414 09:12:33.395082 13813 net.cpp:150] Setting up pool1
I0414 09:12:33.395092 13813 net.cpp:157] Top shape: 1024 100 21 21 (45158400)
I0414 09:12:33.395102 13813 net.cpp:165] Memory required for data: 1654030336
I0414 09:12:33.395104 13813 layer_factory.hpp:77] Creating layer conv2
I0414 09:12:33.395115 13813 net.cpp:100] Creating Layer conv2
I0414 09:12:33.395119 13813 net.cpp:434] conv2 <- pool1
I0414 09:12:33.395125 13813 net.cpp:408] conv2 -> conv2
I0414 09:12:33.416417 13813 net.cpp:150] Setting up conv2
I0414 09:12:33.416435 13813 net.cpp:157] Top shape: 1024 150 18 18 (49766400)
I0414 09:12:33.416438 13813 net.cpp:165] Memory required for data: 1853095936
I0414 09:12:33.416448 13813 layer_factory.hpp:77] Creating layer conv2_relu
I0414 09:12:33.416455 13813 net.cpp:100] Creating Layer conv2_relu
I0414 09:12:33.416458 13813 net.cpp:434] conv2_relu <- conv2
I0414 09:12:33.416463 13813 net.cpp:395] conv2_relu -> conv2 (in-place)
I0414 09:12:33.417429 13813 net.cpp:150] Setting up conv2_relu
I0414 09:12:33.417446 13813 net.cpp:157] Top shape: 1024 150 18 18 (49766400)
I0414 09:12:33.417449 13813 net.cpp:165] Memory required for data: 2052161536
I0414 09:12:33.417454 13813 layer_factory.hpp:77] Creating layer pool2
I0414 09:12:33.417459 13813 net.cpp:100] Creating Layer pool2
I0414 09:12:33.417464 13813 net.cpp:434] pool2 <- conv2
I0414 09:12:33.417469 13813 net.cpp:408] pool2 -> pool2
I0414 09:12:33.417518 13813 net.cpp:150] Setting up pool2
I0414 09:12:33.417527 13813 net.cpp:157] Top shape: 1024 150 9 9 (12441600)
I0414 09:12:33.417531 13813 net.cpp:165] Memory required for data: 2101927936
I0414 09:12:33.417533 13813 layer_factory.hpp:77] Creating layer conv3
I0414 09:12:33.417543 13813 net.cpp:100] Creating Layer conv3
I0414 09:12:33.417548 13813 net.cpp:434] conv3 <- pool2
I0414 09:12:33.417577 13813 net.cpp:408] conv3 -> conv3
I0414 09:12:33.423245 13813 net.cpp:150] Setting up conv3
I0414 09:12:33.423264 13813 net.cpp:157] Top shape: 1024 250 6 6 (9216000)
I0414 09:12:33.423267 13813 net.cpp:165] Memory required for data: 2138791936
I0414 09:12:33.423277 13813 layer_factory.hpp:77] Creating layer conv3_relu
I0414 09:12:33.423285 13813 net.cpp:100] Creating Layer conv3_relu
I0414 09:12:33.423287 13813 net.cpp:434] conv3_relu <- conv3
I0414 09:12:33.423292 13813 net.cpp:395] conv3_relu -> conv3 (in-place)
I0414 09:12:33.424329 13813 net.cpp:150] Setting up conv3_relu
I0414 09:12:33.424345 13813 net.cpp:157] Top shape: 1024 250 6 6 (9216000)
I0414 09:12:33.424350 13813 net.cpp:165] Memory required for data: 2175655936
I0414 09:12:33.424352 13813 layer_factory.hpp:77] Creating layer pool3
I0414 09:12:33.424360 13813 net.cpp:100] Creating Layer pool3
I0414 09:12:33.424362 13813 net.cpp:434] pool3 <- conv3
I0414 09:12:33.424368 13813 net.cpp:408] pool3 -> pool3
I0414 09:12:33.424414 13813 net.cpp:150] Setting up pool3
I0414 09:12:33.424423 13813 net.cpp:157] Top shape: 1024 250 3 3 (2304000)
I0414 09:12:33.424427 13813 net.cpp:165] Memory required for data: 2184871936
I0414 09:12:33.424429 13813 layer_factory.hpp:77] Creating layer fc4_300
I0414 09:12:33.424437 13813 net.cpp:100] Creating Layer fc4_300
I0414 09:12:33.424440 13813 net.cpp:434] fc4_300 <- pool3
I0414 09:12:33.424445 13813 net.cpp:408] fc4_300 -> fc4_300
I0414 09:12:33.431115 13813 net.cpp:150] Setting up fc4_300
I0414 09:12:33.431131 13813 net.cpp:157] Top shape: 1024 300 (307200)
I0414 09:12:33.431135 13813 net.cpp:165] Memory required for data: 2186100736
I0414 09:12:33.431143 13813 layer_factory.hpp:77] Creating layer fc4_relu
I0414 09:12:33.431149 13813 net.cpp:100] Creating Layer fc4_relu
I0414 09:12:33.431152 13813 net.cpp:434] fc4_relu <- fc4_300
I0414 09:12:33.431157 13813 net.cpp:395] fc4_relu -> fc4_300 (in-place)
I0414 09:12:33.431340 13813 net.cpp:150] Setting up fc4_relu
I0414 09:12:33.431352 13813 net.cpp:157] Top shape: 1024 300 (307200)
I0414 09:12:33.431355 13813 net.cpp:165] Memory required for data: 2187329536
I0414 09:12:33.431358 13813 layer_factory.hpp:77] Creating layer fc5_67
I0414 09:12:33.431365 13813 net.cpp:100] Creating Layer fc5_67
I0414 09:12:33.431368 13813 net.cpp:434] fc5_67 <- fc4_300
I0414 09:12:33.431373 13813 net.cpp:408] fc5_67 -> fc5_classes
I0414 09:12:33.435197 13813 net.cpp:150] Setting up fc5_67
I0414 09:12:33.435212 13813 net.cpp:157] Top shape: 1024 67 (68608)
I0414 09:12:33.435215 13813 net.cpp:165] Memory required for data: 2187603968
I0414 09:12:33.435225 13813 layer_factory.hpp:77] Creating layer fc5_classes_fc5_67_0_split
I0414 09:12:33.435232 13813 net.cpp:100] Creating Layer fc5_classes_fc5_67_0_split
I0414 09:12:33.435236 13813 net.cpp:434] fc5_classes_fc5_67_0_split <- fc5_classes
I0414 09:12:33.435242 13813 net.cpp:408] fc5_classes_fc5_67_0_split -> fc5_classes_fc5_67_0_split_0
I0414 09:12:33.435250 13813 net.cpp:408] fc5_classes_fc5_67_0_split -> fc5_classes_fc5_67_0_split_1
I0414 09:12:33.435256 13813 net.cpp:408] fc5_classes_fc5_67_0_split -> fc5_classes_fc5_67_0_split_2
I0414 09:12:33.435305 13813 net.cpp:150] Setting up fc5_classes_fc5_67_0_split
I0414 09:12:33.435312 13813 net.cpp:157] Top shape: 1024 67 (68608)
I0414 09:12:33.435317 13813 net.cpp:157] Top shape: 1024 67 (68608)
I0414 09:12:33.435319 13813 net.cpp:157] Top shape: 1024 67 (68608)
I0414 09:12:33.435322 13813 net.cpp:165] Memory required for data: 2188427264
I0414 09:12:33.435325 13813 layer_factory.hpp:77] Creating layer softmax
I0414 09:12:33.435331 13813 net.cpp:100] Creating Layer softmax
I0414 09:12:33.435334 13813 net.cpp:434] softmax <- fc5_classes_fc5_67_0_split_0
I0414 09:12:33.435339 13813 net.cpp:408] softmax -> softmax
I0414 09:12:33.435585 13813 net.cpp:150] Setting up softmax
I0414 09:12:33.435597 13813 net.cpp:157] Top shape: 1024 67 (68608)
I0414 09:12:33.435600 13813 net.cpp:165] Memory required for data: 2188701696
I0414 09:12:33.435605 13813 layer_factory.hpp:77] Creating layer loss
I0414 09:12:33.435612 13813 net.cpp:100] Creating Layer loss
I0414 09:12:33.435631 13813 net.cpp:434] loss <- softmax
I0414 09:12:33.435637 13813 net.cpp:434] loss <- label_data_1_split_0
I0414 09:12:33.435643 13813 net.cpp:408] loss -> loss
…
