…
I0406 15:58:12.219532 21552 net.cpp:322] The NetState phase (0) differed from the phase (1) specified by a rule in layer accuracy_5
I0406 15:58:12.219795 21552 net.cpp:58] Initializing net from parameters: 
state {
  phase: TRAIN
  level: 0
  stage: ""
}
layer {
  name: "data"
  type: "Data"
  top: "data"
  top: "label"
  include {
    phase: TRAIN
  }
  transform_param {
    mirror: false
    crop_size: 48
    mean_value: 111
    mean_value: 104
    mean_value: 105
  }
  data_param {
    source: "../local_data/lmdb/rtsd-r3/imajust/train/lmdb"
    batch_size: 1024
    backend: LMDB
  }
}
layer {
  name: "conv1"
  type: "Convolution"
  bottom: "data"
  top: "conv1"
  convolution_param {
    num_output: 100
    pad: 0
    kernel_size: 7
    group: 1
    stride: 1
    weight_filler {
      type: "xavier"
    }
  }
}
layer {
  name: "conv1_prescale"
  type: "Scale"
  bottom: "conv1"
  top: "conv1"
  param {
    lr_mult: 0
    decay_mult: 0
  }
  scale_param {
    filler {
      value: 0.6666
    }
  }
}
layer {
  name: "conv1_sTanH"
  type: "TanH"
  bottom: "conv1"
  top: "conv1"
}
layer {
  name: "conv1_postscale"
  type: "Scale"
  bottom: "conv1"
  top: "conv1"
  param {
    lr_mult: 0
    decay_mult: 0
  }
  scale_param {
    filler {
      value: 1.7159
    }
  }
}
layer {
  name: "pool1"
  type: "Pooling"
  bottom: "conv1"
  top: "pool1"
  pooling_param {
    pool: MAX
    kernel_size: 2
    stride: 2
  }
}
layer {
  name: "conv2"
  type: "Convolution"
  bottom: "pool1"
  top: "conv2"
  convolution_param {
    num_output: 150
    pad: 0
    kernel_size: 4
    group: 1
    stride: 1
    weight_filler {
      type: "xavier"
    }
  }
}
layer {
  name: "conv2_prescale"
  type: "Scale"
  bottom: "conv2"
  top: "conv2"
  param {
    lr_mult: 0
    decay_mult: 0
  }
  scale_param {
    filler {
      value: 0.6666
    }
  }
}
layer {
  name: "conv2_sTanH"
  type: "TanH"
  bottom: "conv2"
  top: "conv2"
}
layer {
  name: "conv2_postscale"
  type: "Scale"
  bottom: "conv2"
  top: "conv2"
  param {
    lr_mult: 0
    decay_mult: 0
  }
  scale_param {
    filler {
      value: 1.7159
    }
  }
}
layer {
  name: "pool2"
  type: "Pooling"
  bottom: "conv2"
  top: "pool2"
  pooling_param {
    pool: MAX
    kernel_size: 2
    stride: 2
  }
}
layer {
  name: "conv3"
  type: "Convolution"
  bottom: "pool2"
  top: "conv3"
  convolution_param {
    num_output: 250
    pad: 0
    kernel_size: 4
    group: 1
    stride: 1
    weight_filler {
      type: "xavier"
    }
  }
}
layer {
  name: "conv3_prescale"
  type: "Scale"
  bottom: "conv3"
  top: "conv3"
  param {
    lr_mult: 0
    decay_mult: 0
  }
  scale_param {
    filler {
      value: 0.6666
    }
  }
}
layer {
  name: "conv3_sTanH"
  type: "TanH"
  bottom: "conv3"
  top: "conv3"
}
layer {
  name: "conv3_postscale"
  type: "Scale"
  bottom: "conv3"
  top: "conv3"
  param {
    lr_mult: 0
    decay_mult: 0
  }
  scale_param {
    filler {
      value: 1.7159
    }
  }
}
layer {
  name: "pool3"
  type: "Pooling"
  bottom: "conv3"
  top: "pool3"
  pooling_param {
    pool: MAX
    kernel_size: 2
    stride: 2
  }
}
layer {
  name: "fc4_300"
  type: "InnerProduct"
  bottom: "pool3"
  top: "fc4_300"
  inner_product_param {
    num_output: 300
    weight_filler {
      type: "xavier"
    }
  }
}
layer {
  name: "fc4_relu"
  type: "ReLU"
  bottom: "fc4_300"
  top: "fc4_300"
}
layer {
  name: "drop4"
  type: "Dropout"
  bottom: "fc4_300"
  top: "fc4_300"
  dropout_param {
    dropout_ratio: 0.4
  }
}
layer {
  name: "fc5_106"
  type: "InnerProduct"
  bottom: "fc4_300"
  top: "fc5_classes"
  inner_product_param {
    num_output: 106
    weight_filler {
      type: "xavier"
    }
  }
}
layer {
  name: "loss"
  type: "SoftmaxWithLoss"
  bottom: "fc5_classes"
  bottom: "label"
  top: "loss"
}
I0406 15:58:12.219980 21552 layer_factory.hpp:77] Creating layer data
I0406 15:58:12.222018 21552 net.cpp:100] Creating Layer data
I0406 15:58:12.222051 21552 net.cpp:408] data -> data
I0406 15:58:12.222090 21552 net.cpp:408] data -> label
I0406 15:58:12.230085 21617 db_lmdb.cpp:35] Opened lmdb ../local_data/lmdb/rtsd-r3/imajust/train/lmdb
I0406 15:58:12.290566 21552 data_layer.cpp:41] output data size: 1024,3,48,48
I0406 15:58:12.345500 21552 net.cpp:150] Setting up data
I0406 15:58:12.345538 21552 net.cpp:157] Top shape: 1024 3 48 48 (7077888)
I0406 15:58:12.345546 21552 net.cpp:157] Top shape: 1024 (1024)
I0406 15:58:12.345549 21552 net.cpp:165] Memory required for data: 28315648
I0406 15:58:12.345561 21552 layer_factory.hpp:77] Creating layer conv1
I0406 15:58:12.345587 21552 net.cpp:100] Creating Layer conv1
I0406 15:58:12.345594 21552 net.cpp:434] conv1 <- data
I0406 15:58:12.345610 21552 net.cpp:408] conv1 -> conv1
I0406 15:58:12.388731 21621 blocking_queue.cpp:50] Waiting for data
I0406 15:58:12.659517 21552 net.cpp:150] Setting up conv1
I0406 15:58:12.659545 21552 net.cpp:157] Top shape: 1024 100 42 42 (180633600)
I0406 15:58:12.659550 21552 net.cpp:165] Memory required for data: 750850048
I0406 15:58:12.659575 21552 layer_factory.hpp:77] Creating layer conv1_prescale
I0406 15:58:12.659592 21552 net.cpp:100] Creating Layer conv1_prescale
I0406 15:58:12.659596 21552 net.cpp:434] conv1_prescale <- conv1
I0406 15:58:12.659605 21552 net.cpp:395] conv1_prescale -> conv1 (in-place)
I0406 15:58:12.659731 21552 net.cpp:150] Setting up conv1_prescale
I0406 15:58:12.659742 21552 net.cpp:157] Top shape: 1024 100 42 42 (180633600)
I0406 15:58:12.659745 21552 net.cpp:165] Memory required for data: 1473384448
I0406 15:58:12.659754 21552 layer_factory.hpp:77] Creating layer conv1_sTanH
I0406 15:58:12.659760 21552 net.cpp:100] Creating Layer conv1_sTanH
I0406 15:58:12.659766 21552 net.cpp:434] conv1_sTanH <- conv1
I0406 15:58:12.659772 21552 net.cpp:395] conv1_sTanH -> conv1 (in-place)
I0406 15:58:12.659997 21552 net.cpp:150] Setting up conv1_sTanH
I0406 15:58:12.660012 21552 net.cpp:157] Top shape: 1024 100 42 42 (180633600)
I0406 15:58:12.660015 21552 net.cpp:165] Memory required for data: 2195918848
I0406 15:58:12.660019 21552 layer_factory.hpp:77] Creating layer conv1_postscale
I0406 15:58:12.660028 21552 net.cpp:100] Creating Layer conv1_postscale
I0406 15:58:12.660032 21552 net.cpp:434] conv1_postscale <- conv1
I0406 15:58:12.660038 21552 net.cpp:395] conv1_postscale -> conv1 (in-place)
I0406 15:58:12.660152 21552 net.cpp:150] Setting up conv1_postscale
I0406 15:58:12.660162 21552 net.cpp:157] Top shape: 1024 100 42 42 (180633600)
I0406 15:58:12.660166 21552 net.cpp:165] Memory required for data: 2918453248
I0406 15:58:12.660171 21552 layer_factory.hpp:77] Creating layer pool1
I0406 15:58:12.660179 21552 net.cpp:100] Creating Layer pool1
I0406 15:58:12.660182 21552 net.cpp:434] pool1 <- conv1
I0406 15:58:12.660188 21552 net.cpp:408] pool1 -> pool1
I0406 15:58:12.660259 21552 net.cpp:150] Setting up pool1
I0406 15:58:12.660271 21552 net.cpp:157] Top shape: 1024 100 21 21 (45158400)
I0406 15:58:12.660275 21552 net.cpp:165] Memory required for data: 3099086848
I0406 15:58:12.660279 21552 layer_factory.hpp:77] Creating layer conv2
I0406 15:58:12.660290 21552 net.cpp:100] Creating Layer conv2
I0406 15:58:12.660295 21552 net.cpp:434] conv2 <- pool1
I0406 15:58:12.660300 21552 net.cpp:408] conv2 -> conv2
I0406 15:58:12.665871 21552 net.cpp:150] Setting up conv2
I0406 15:58:12.665910 21552 net.cpp:157] Top shape: 1024 150 18 18 (49766400)
I0406 15:58:12.665915 21552 net.cpp:165] Memory required for data: 3298152448
I0406 15:58:12.665927 21552 layer_factory.hpp:77] Creating layer conv2_prescale
I0406 15:58:12.665936 21552 net.cpp:100] Creating Layer conv2_prescale
I0406 15:58:12.665941 21552 net.cpp:434] conv2_prescale <- conv2
I0406 15:58:12.665947 21552 net.cpp:395] conv2_prescale -> conv2 (in-place)
I0406 15:58:12.666074 21552 net.cpp:150] Setting up conv2_prescale
I0406 15:58:12.666085 21552 net.cpp:157] Top shape: 1024 150 18 18 (49766400)
I0406 15:58:12.666090 21552 net.cpp:165] Memory required for data: 3497218048
I0406 15:58:12.666095 21552 layer_factory.hpp:77] Creating layer conv2_sTanH
I0406 15:58:12.666103 21552 net.cpp:100] Creating Layer conv2_sTanH
I0406 15:58:12.666106 21552 net.cpp:434] conv2_sTanH <- conv2
I0406 15:58:12.666111 21552 net.cpp:395] conv2_sTanH -> conv2 (in-place)
I0406 15:58:12.667284 21552 net.cpp:150] Setting up conv2_sTanH
I0406 15:58:12.667301 21552 net.cpp:157] Top shape: 1024 150 18 18 (49766400)
I0406 15:58:12.667305 21552 net.cpp:165] Memory required for data: 3696283648
I0406 15:58:12.667309 21552 layer_factory.hpp:77] Creating layer conv2_postscale
I0406 15:58:12.667318 21552 net.cpp:100] Creating Layer conv2_postscale
I0406 15:58:12.667323 21552 net.cpp:434] conv2_postscale <- conv2
I0406 15:58:12.667330 21552 net.cpp:395] conv2_postscale -> conv2 (in-place)
I0406 15:58:12.667439 21552 net.cpp:150] Setting up conv2_postscale
I0406 15:58:12.667449 21552 net.cpp:157] Top shape: 1024 150 18 18 (49766400)
I0406 15:58:12.667453 21552 net.cpp:165] Memory required for data: 3895349248
I0406 15:58:12.667459 21552 layer_factory.hpp:77] Creating layer pool2
I0406 15:58:12.667467 21552 net.cpp:100] Creating Layer pool2
I0406 15:58:12.667470 21552 net.cpp:434] pool2 <- conv2
I0406 15:58:12.667477 21552 net.cpp:408] pool2 -> pool2
I0406 15:58:12.667521 21552 net.cpp:150] Setting up pool2
I0406 15:58:12.667531 21552 net.cpp:157] Top shape: 1024 150 9 9 (12441600)
I0406 15:58:12.667534 21552 net.cpp:165] Memory required for data: 3945115648
I0406 15:58:12.667538 21552 layer_factory.hpp:77] Creating layer conv3
I0406 15:58:12.667547 21552 net.cpp:100] Creating Layer conv3
I0406 15:58:12.667552 21552 net.cpp:434] conv3 <- pool2
I0406 15:58:12.667558 21552 net.cpp:408] conv3 -> conv3
I0406 15:58:12.674556 21552 net.cpp:150] Setting up conv3
I0406 15:58:12.674576 21552 net.cpp:157] Top shape: 1024 250 6 6 (9216000)
I0406 15:58:12.674582 21552 net.cpp:165] Memory required for data: 3981979648
I0406 15:58:12.674593 21552 layer_factory.hpp:77] Creating layer conv3_prescale
I0406 15:58:12.674603 21552 net.cpp:100] Creating Layer conv3_prescale
I0406 15:58:12.674607 21552 net.cpp:434] conv3_prescale <- conv3
I0406 15:58:12.674613 21552 net.cpp:395] conv3_prescale -> conv3 (in-place)
I0406 15:58:12.674722 21552 net.cpp:150] Setting up conv3_prescale
I0406 15:58:12.674733 21552 net.cpp:157] Top shape: 1024 250 6 6 (9216000)
I0406 15:58:12.674736 21552 net.cpp:165] Memory required for data: 4018843648
I0406 15:58:12.674742 21552 layer_factory.hpp:77] Creating layer conv3_sTanH
I0406 15:58:12.674748 21552 net.cpp:100] Creating Layer conv3_sTanH
I0406 15:58:12.674751 21552 net.cpp:434] conv3_sTanH <- conv3
I0406 15:58:12.674757 21552 net.cpp:395] conv3_sTanH -> conv3 (in-place)
I0406 15:58:12.675837 21552 net.cpp:150] Setting up conv3_sTanH
I0406 15:58:12.675855 21552 net.cpp:157] Top shape: 1024 250 6 6 (9216000)
I0406 15:58:12.675859 21552 net.cpp:165] Memory required for data: 4055707648
I0406 15:58:12.675863 21552 layer_factory.hpp:77] Creating layer conv3_postscale
I0406 15:58:12.675873 21552 net.cpp:100] Creating Layer conv3_postscale
I0406 15:58:12.675876 21552 net.cpp:434] conv3_postscale <- conv3
I0406 15:58:12.675884 21552 net.cpp:395] conv3_postscale -> conv3 (in-place)
I0406 15:58:12.676002 21552 net.cpp:150] Setting up conv3_postscale
I0406 15:58:12.676012 21552 net.cpp:157] Top shape: 1024 250 6 6 (9216000)
I0406 15:58:12.676015 21552 net.cpp:165] Memory required for data: 4092571648
I0406 15:58:12.676036 21552 layer_factory.hpp:77] Creating layer pool3
I0406 15:58:12.676044 21552 net.cpp:100] Creating Layer pool3
I0406 15:58:12.676048 21552 net.cpp:434] pool3 <- conv3
I0406 15:58:12.676054 21552 net.cpp:408] pool3 -> pool3
I0406 15:58:12.676100 21552 net.cpp:150] Setting up pool3
I0406 15:58:12.676110 21552 net.cpp:157] Top shape: 1024 250 3 3 (2304000)
I0406 15:58:12.676112 21552 net.cpp:165] Memory required for data: 4101787648
I0406 15:58:12.676116 21552 layer_factory.hpp:77] Creating layer fc4_300
I0406 15:58:12.676126 21552 net.cpp:100] Creating Layer fc4_300
I0406 15:58:12.676129 21552 net.cpp:434] fc4_300 <- pool3
I0406 15:58:12.676136 21552 net.cpp:408] fc4_300 -> fc4_300
I0406 15:58:12.682936 21552 net.cpp:150] Setting up fc4_300
I0406 15:58:12.682956 21552 net.cpp:157] Top shape: 1024 300 (307200)
I0406 15:58:12.682960 21552 net.cpp:165] Memory required for data: 4103016448
I0406 15:58:12.682968 21552 layer_factory.hpp:77] Creating layer fc4_relu
I0406 15:58:12.682976 21552 net.cpp:100] Creating Layer fc4_relu
I0406 15:58:12.682981 21552 net.cpp:434] fc4_relu <- fc4_300
I0406 15:58:12.682986 21552 net.cpp:395] fc4_relu -> fc4_300 (in-place)
I0406 15:58:12.683203 21552 net.cpp:150] Setting up fc4_relu
I0406 15:58:12.683217 21552 net.cpp:157] Top shape: 1024 300 (307200)
I0406 15:58:12.683220 21552 net.cpp:165] Memory required for data: 4104245248
I0406 15:58:12.683224 21552 layer_factory.hpp:77] Creating layer drop4
I0406 15:58:12.683231 21552 net.cpp:100] Creating Layer drop4
I0406 15:58:12.683235 21552 net.cpp:434] drop4 <- fc4_300
I0406 15:58:12.683241 21552 net.cpp:395] drop4 -> fc4_300 (in-place)
I0406 15:58:12.683276 21552 net.cpp:150] Setting up drop4
I0406 15:58:12.683285 21552 net.cpp:157] Top shape: 1024 300 (307200)
I0406 15:58:12.683289 21552 net.cpp:165] Memory required for data: 4105474048
I0406 15:58:12.683292 21552 layer_factory.hpp:77] Creating layer fc5_106
I0406 15:58:12.683300 21552 net.cpp:100] Creating Layer fc5_106
I0406 15:58:12.683302 21552 net.cpp:434] fc5_106 <- fc4_300
I0406 15:58:12.683308 21552 net.cpp:408] fc5_106 -> fc5_classes
I0406 15:58:12.690660 21552 net.cpp:150] Setting up fc5_106
I0406 15:58:12.690681 21552 net.cpp:157] Top shape: 1024 106 (108544)
I0406 15:58:12.690686 21552 net.cpp:165] Memory required for data: 4105908224
I0406 15:58:12.690696 21552 layer_factory.hpp:77] Creating layer loss
I0406 15:58:12.690703 21552 net.cpp:100] Creating Layer loss
I0406 15:58:12.690707 21552 net.cpp:434] loss <- fc5_classes
I0406 15:58:12.690712 21552 net.cpp:434] loss <- label
I0406 15:58:12.690719 21552 net.cpp:408] loss -> loss
I0406 15:58:12.690734 21552 layer_factory.hpp:77] Creating layer loss
…
I0406 15:58:12.692909 21552 solver.cpp:193] Creating test net (#0) specified by test_net file: ./Prototxt/experiment_5/rtsd-r3/imajust/test.prototxt
I0406 15:58:12.693114 21552 net.cpp:58] Initializing net from parameters: 
state {
  phase: TEST
}
layer {
  name: "data"
  type: "Data"
  top: "data"
  top: "label"
  include {
    phase: TEST
  }
  transform_param {
    mirror: false
    crop_size: 48
    mean_value: 106
    mean_value: 101
    mean_value: 102
  }
  data_param {
    source: "../local_data/lmdb/rtsd-r3/imajust/test/lmdb"
    batch_size: 1024
    backend: LMDB
  }
}
layer {
  name: "conv1"
  type: "Convolution"
  bottom: "data"
  top: "conv1"
  convolution_param {
    num_output: 100
    pad: 0
    kernel_size: 7
    group: 1
    stride: 1
    weight_filler {
      type: "xavier"
    }
  }
}
layer {
  name: "conv1_prescale"
  type: "Scale"
  bottom: "conv1"
  top: "conv1"
  param {
    lr_mult: 0
    decay_mult: 0
  }
  scale_param {
    filler {
      value: 0.6666
    }
  }
}
layer {
  name: "conv1_sTanH"
  type: "TanH"
  bottom: "conv1"
  top: "conv1"
}
layer {
  name: "conv1_postscale"
  type: "Scale"
  bottom: "conv1"
  top: "conv1"
  param {
    lr_mult: 0
    decay_mult: 0
  }
  scale_param {
    filler {
      value: 1.7159
    }
  }
}
layer {
  name: "pool1"
  type: "Pooling"
  bottom: "conv1"
  top: "pool1"
  pooling_param {
    pool: MAX
    kernel_size: 2
    stride: 2
  }
}
layer {
  name: "conv2"
  type: "Convolution"
  bottom: "pool1"
  top: "conv2"
  convolution_param {
    num_output: 150
    pad: 0
    kernel_size: 4
    group: 1
    stride: 1
    weight_filler {
      type: "xavier"
    }
  }
}
layer {
  name: "conv2_prescale"
  type: "Scale"
  bottom: "conv2"
  top: "conv2"
  param {
    lr_mult: 0
    decay_mult: 0
  }
  scale_param {
    filler {
      value: 0.6666
    }
  }
}
layer {
  name: "conv2_sTanH"
  type: "TanH"
  bottom: "conv2"
  top: "conv2"
}
layer {
  name: "conv2_postscale"
  type: "Scale"
  bottom: "conv2"
  top: "conv2"
  param {
    lr_mult: 0
    decay_mult: 0
  }
  scale_param {
    filler {
      value: 1.7159
    }
  }
}
layer {
  name: "pool2"
  type: "Pooling"
  bottom: "conv2"
  top: "pool2"
  pooling_param {
    pool: MAX
    kernel_size: 2
    stride: 2
  }
}
layer {
  name: "conv3"
  type: "Convolution"
  bottom: "pool2"
  top: "conv3"
  convolution_param {
    num_output: 250
    pad: 0
    kernel_size: 4
    group: 1
    stride: 1
    weight_filler {
      type: "xavier"
    }
  }
}
layer {
  name: "conv3_prescale"
  type: "Scale"
  bottom: "conv3"
  top: "conv3"
  param {
    lr_mult: 0
    decay_mult: 0
  }
  scale_param {
    filler {
      value: 0.6666
    }
  }
}
layer {
  name: "conv3_sTanH"
  type: "TanH"
  bottom: "conv3"
  top: "conv3"
}
layer {
  name: "conv3_postscale"
  type: "Scale"
  bottom: "conv3"
  top: "conv3"
  param {
    lr_mult: 0
    decay_mult: 0
  }
  scale_param {
    filler {
      value: 1.7159
    }
  }
}
layer {
  name: "pool3"
  type: "Pooling"
  bottom: "conv3"
  top: "pool3"
  pooling_param {
    pool: MAX
    kernel_size: 2
    stride: 2
  }
}
layer {
  name: "fc4_300"
  type: "InnerProduct"
  bottom: "pool3"
  top: "fc4_300"
  inner_product_param {
    num_output: 300
    weight_filler {
      type: "xavier"
    }
  }
}
layer {
  name: "fc4_relu"
  type: "ReLU"
  bottom: "fc4_300"
  top: "fc4_300"
}
layer {
  name: "drop4"
  type: "Dropout"
  bottom: "fc4_300"
  top: "fc4_300"
  dropout_param {
    dropout_ratio: 0.4
  }
}
layer {
  name: "fc5_106"
  type: "InnerProduct"
  bottom: "fc4_300"
  top: "fc5_classes"
  inner_product_param {
    num_output: 106
    weight_filler {
      type: "xavier"
    }
  }
}
layer {
  name: "loss"
  type: "SoftmaxWithLoss"
  bottom: "fc5_classes"
  bottom: "label"
  top: "loss"
}
layer {
  name: "accuracy_1"
  type: "Accuracy"
  bottom: "fc5_classes"
  bottom: "label"
  top: "accuracy_1"
  include {
    phase: TEST
  }
  accuracy_param {
    top_k: 1
  }
}
layer {
  name: "accuracy_5"
  type: "Accuracy"
  bottom: "fc5_classes"
  bottom: "label"
  top: "accuracy_5"
  include {
    phase: TEST
  }
  accuracy_param {
    top_k: 5
  }
}
I0406 15:58:12.693241 21552 layer_factory.hpp:77] Creating layer data
I0406 15:58:12.694231 21552 net.cpp:100] Creating Layer data
I0406 15:58:12.694245 21552 net.cpp:408] data -> data
I0406 15:58:12.694259 21552 net.cpp:408] data -> label
I0406 15:58:12.901795 21641 db_lmdb.cpp:35] Opened lmdb ../local_data/lmdb/rtsd-r3/imajust/test/lmdb
I0406 15:58:12.939429 21552 data_layer.cpp:41] output data size: 1024,3,48,48
I0406 15:58:13.008658 21552 net.cpp:150] Setting up data
I0406 15:58:13.008697 21552 net.cpp:157] Top shape: 1024 3 48 48 (7077888)
I0406 15:58:13.008705 21552 net.cpp:157] Top shape: 1024 (1024)
I0406 15:58:13.008709 21552 net.cpp:165] Memory required for data: 28315648
I0406 15:58:13.008718 21552 layer_factory.hpp:77] Creating layer label_data_1_split
I0406 15:58:13.008736 21552 net.cpp:100] Creating Layer label_data_1_split
I0406 15:58:13.008744 21552 net.cpp:434] label_data_1_split <- label
I0406 15:58:13.008759 21552 net.cpp:408] label_data_1_split -> label_data_1_split_0
I0406 15:58:13.008777 21552 net.cpp:408] label_data_1_split -> label_data_1_split_1
I0406 15:58:13.008790 21552 net.cpp:408] label_data_1_split -> label_data_1_split_2
I0406 15:58:13.008970 21552 net.cpp:150] Setting up label_data_1_split
I0406 15:58:13.008983 21552 net.cpp:157] Top shape: 1024 (1024)
I0406 15:58:13.008992 21552 net.cpp:157] Top shape: 1024 (1024)
I0406 15:58:13.008997 21552 net.cpp:157] Top shape: 1024 (1024)
I0406 15:58:13.009001 21552 net.cpp:165] Memory required for data: 28327936
I0406 15:58:13.009006 21552 layer_factory.hpp:77] Creating layer conv1
I0406 15:58:13.009026 21552 net.cpp:100] Creating Layer conv1
I0406 15:58:13.009032 21552 net.cpp:434] conv1 <- data
I0406 15:58:13.009042 21552 net.cpp:408] conv1 -> conv1
I0406 15:58:13.013761 21552 net.cpp:150] Setting up conv1
I0406 15:58:13.013788 21552 net.cpp:157] Top shape: 1024 100 42 42 (180633600)
I0406 15:58:13.013795 21552 net.cpp:165] Memory required for data: 750862336
I0406 15:58:13.013813 21552 layer_factory.hpp:77] Creating layer conv1_prescale
I0406 15:58:13.013829 21552 net.cpp:100] Creating Layer conv1_prescale
I0406 15:58:13.013837 21552 net.cpp:434] conv1_prescale <- conv1
I0406 15:58:13.013844 21552 net.cpp:395] conv1_prescale -> conv1 (in-place)
I0406 15:58:13.013996 21552 net.cpp:150] Setting up conv1_prescale
I0406 15:58:13.014009 21552 net.cpp:157] Top shape: 1024 100 42 42 (180633600)
I0406 15:58:13.014014 21552 net.cpp:165] Memory required for data: 1473396736
I0406 15:58:13.014025 21552 layer_factory.hpp:77] Creating layer conv1_sTanH
I0406 15:58:13.014037 21552 net.cpp:100] Creating Layer conv1_sTanH
I0406 15:58:13.014044 21552 net.cpp:434] conv1_sTanH <- conv1
I0406 15:58:13.014050 21552 net.cpp:395] conv1_sTanH -> conv1 (in-place)
I0406 15:58:13.014320 21552 net.cpp:150] Setting up conv1_sTanH
I0406 15:58:13.014335 21552 net.cpp:157] Top shape: 1024 100 42 42 (180633600)
I0406 15:58:13.014340 21552 net.cpp:165] Memory required for data: 2195931136
I0406 15:58:13.014345 21552 layer_factory.hpp:77] Creating layer conv1_postscale
I0406 15:58:13.014356 21552 net.cpp:100] Creating Layer conv1_postscale
I0406 15:58:13.014363 21552 net.cpp:434] conv1_postscale <- conv1
I0406 15:58:13.014369 21552 net.cpp:395] conv1_postscale -> conv1 (in-place)
I0406 15:58:13.014552 21552 net.cpp:150] Setting up conv1_postscale
I0406 15:58:13.014587 21552 net.cpp:157] Top shape: 1024 100 42 42 (180633600)
I0406 15:58:13.014597 21552 net.cpp:165] Memory required for data: 2918465536
I0406 15:58:13.014616 21552 layer_factory.hpp:77] Creating layer pool1
I0406 15:58:13.014631 21552 net.cpp:100] Creating Layer pool1
I0406 15:58:13.014637 21552 net.cpp:434] pool1 <- conv1
I0406 15:58:13.014644 21552 net.cpp:408] pool1 -> pool1
I0406 15:58:13.014719 21552 net.cpp:150] Setting up pool1
I0406 15:58:13.014730 21552 net.cpp:157] Top shape: 1024 100 21 21 (45158400)
I0406 15:58:13.014736 21552 net.cpp:165] Memory required for data: 3099099136
I0406 15:58:13.014741 21552 layer_factory.hpp:77] Creating layer conv2
I0406 15:58:13.014753 21552 net.cpp:100] Creating Layer conv2
I0406 15:58:13.014760 21552 net.cpp:434] conv2 <- pool1
I0406 15:58:13.014767 21552 net.cpp:408] conv2 -> conv2
I0406 15:58:13.020206 21552 net.cpp:150] Setting up conv2
I0406 15:58:13.020234 21552 net.cpp:157] Top shape: 1024 150 18 18 (49766400)
I0406 15:58:13.020258 21552 net.cpp:165] Memory required for data: 3298164736
I0406 15:58:13.020275 21552 layer_factory.hpp:77] Creating layer conv2_prescale
I0406 15:58:13.020292 21552 net.cpp:100] Creating Layer conv2_prescale
I0406 15:58:13.020299 21552 net.cpp:434] conv2_prescale <- conv2
I0406 15:58:13.020308 21552 net.cpp:395] conv2_prescale -> conv2 (in-place)
I0406 15:58:13.020467 21552 net.cpp:150] Setting up conv2_prescale
I0406 15:58:13.020483 21552 net.cpp:157] Top shape: 1024 150 18 18 (49766400)
I0406 15:58:13.020489 21552 net.cpp:165] Memory required for data: 3497230336
I0406 15:58:13.020495 21552 layer_factory.hpp:77] Creating layer conv2_sTanH
I0406 15:58:13.020503 21552 net.cpp:100] Creating Layer conv2_sTanH
I0406 15:58:13.020511 21552 net.cpp:434] conv2_sTanH <- conv2
I0406 15:58:13.020519 21552 net.cpp:395] conv2_sTanH -> conv2 (in-place)
I0406 15:58:13.021595 21552 net.cpp:150] Setting up conv2_sTanH
I0406 15:58:13.021617 21552 net.cpp:157] Top shape: 1024 150 18 18 (49766400)
I0406 15:58:13.021626 21552 net.cpp:165] Memory required for data: 3696295936
I0406 15:58:13.021632 21552 layer_factory.hpp:77] Creating layer conv2_postscale
I0406 15:58:13.021644 21552 net.cpp:100] Creating Layer conv2_postscale
I0406 15:58:13.021651 21552 net.cpp:434] conv2_postscale <- conv2
I0406 15:58:13.021661 21552 net.cpp:395] conv2_postscale -> conv2 (in-place)
I0406 15:58:13.021811 21552 net.cpp:150] Setting up conv2_postscale
I0406 15:58:13.021822 21552 net.cpp:157] Top shape: 1024 150 18 18 (49766400)
I0406 15:58:13.021826 21552 net.cpp:165] Memory required for data: 3895361536
I0406 15:58:13.021833 21552 layer_factory.hpp:77] Creating layer pool2
I0406 15:58:13.021847 21552 net.cpp:100] Creating Layer pool2
I0406 15:58:13.021852 21552 net.cpp:434] pool2 <- conv2
I0406 15:58:13.021859 21552 net.cpp:408] pool2 -> pool2
I0406 15:58:13.021924 21552 net.cpp:150] Setting up pool2
I0406 15:58:13.021934 21552 net.cpp:157] Top shape: 1024 150 9 9 (12441600)
I0406 15:58:13.021940 21552 net.cpp:165] Memory required for data: 3945127936
I0406 15:58:13.021944 21552 layer_factory.hpp:77] Creating layer conv3
I0406 15:58:13.021957 21552 net.cpp:100] Creating Layer conv3
I0406 15:58:13.021965 21552 net.cpp:434] conv3 <- pool2
I0406 15:58:13.021972 21552 net.cpp:408] conv3 -> conv3
I0406 15:58:13.029903 21552 net.cpp:150] Setting up conv3
I0406 15:58:13.029930 21552 net.cpp:157] Top shape: 1024 250 6 6 (9216000)
I0406 15:58:13.029937 21552 net.cpp:165] Memory required for data: 3981991936
I0406 15:58:13.029952 21552 layer_factory.hpp:77] Creating layer conv3_prescale
I0406 15:58:13.029966 21552 net.cpp:100] Creating Layer conv3_prescale
I0406 15:58:13.029973 21552 net.cpp:434] conv3_prescale <- conv3
I0406 15:58:13.029980 21552 net.cpp:395] conv3_prescale -> conv3 (in-place)
I0406 15:58:13.030122 21552 net.cpp:150] Setting up conv3_prescale
I0406 15:58:13.030134 21552 net.cpp:157] Top shape: 1024 250 6 6 (9216000)
I0406 15:58:13.030144 21552 net.cpp:165] Memory required for data: 4018855936
I0406 15:58:13.030151 21552 layer_factory.hpp:77] Creating layer conv3_sTanH
I0406 15:58:13.030177 21552 net.cpp:100] Creating Layer conv3_sTanH
I0406 15:58:13.030186 21552 net.cpp:434] conv3_sTanH <- conv3
I0406 15:58:13.030195 21552 net.cpp:395] conv3_sTanH -> conv3 (in-place)
I0406 15:58:13.031272 21552 net.cpp:150] Setting up conv3_sTanH
I0406 15:58:13.031293 21552 net.cpp:157] Top shape: 1024 250 6 6 (9216000)
I0406 15:58:13.031301 21552 net.cpp:165] Memory required for data: 4055719936
I0406 15:58:13.031306 21552 layer_factory.hpp:77] Creating layer conv3_postscale
I0406 15:58:13.031319 21552 net.cpp:100] Creating Layer conv3_postscale
I0406 15:58:13.031327 21552 net.cpp:434] conv3_postscale <- conv3
I0406 15:58:13.031335 21552 net.cpp:395] conv3_postscale -> conv3 (in-place)
I0406 15:58:13.031486 21552 net.cpp:150] Setting up conv3_postscale
I0406 15:58:13.031498 21552 net.cpp:157] Top shape: 1024 250 6 6 (9216000)
I0406 15:58:13.031507 21552 net.cpp:165] Memory required for data: 4092583936
I0406 15:58:13.031514 21552 layer_factory.hpp:77] Creating layer pool3
I0406 15:58:13.031530 21552 net.cpp:100] Creating Layer pool3
I0406 15:58:13.031536 21552 net.cpp:434] pool3 <- conv3
I0406 15:58:13.031544 21552 net.cpp:408] pool3 -> pool3
I0406 15:58:13.031608 21552 net.cpp:150] Setting up pool3
I0406 15:58:13.031620 21552 net.cpp:157] Top shape: 1024 250 3 3 (2304000)
I0406 15:58:13.031625 21552 net.cpp:165] Memory required for data: 4101799936
I0406 15:58:13.031630 21552 layer_factory.hpp:77] Creating layer fc4_300
I0406 15:58:13.031641 21552 net.cpp:100] Creating Layer fc4_300
I0406 15:58:13.031646 21552 net.cpp:434] fc4_300 <- pool3
I0406 15:58:13.031653 21552 net.cpp:408] fc4_300 -> fc4_300
I0406 15:58:13.039180 21552 net.cpp:150] Setting up fc4_300
I0406 15:58:13.039201 21552 net.cpp:157] Top shape: 1024 300 (307200)
I0406 15:58:13.039208 21552 net.cpp:165] Memory required for data: 4103028736
I0406 15:58:13.039218 21552 layer_factory.hpp:77] Creating layer fc4_relu
I0406 15:58:13.039228 21552 net.cpp:100] Creating Layer fc4_relu
I0406 15:58:13.039235 21552 net.cpp:434] fc4_relu <- fc4_300
I0406 15:58:13.039245 21552 net.cpp:395] fc4_relu -> fc4_300 (in-place)
I0406 15:58:13.039516 21552 net.cpp:150] Setting up fc4_relu
I0406 15:58:13.039530 21552 net.cpp:157] Top shape: 1024 300 (307200)
I0406 15:58:13.039536 21552 net.cpp:165] Memory required for data: 4104257536
I0406 15:58:13.039541 21552 layer_factory.hpp:77] Creating layer drop4
I0406 15:58:13.039551 21552 net.cpp:100] Creating Layer drop4
I0406 15:58:13.039557 21552 net.cpp:434] drop4 <- fc4_300
I0406 15:58:13.039564 21552 net.cpp:395] drop4 -> fc4_300 (in-place)
I0406 15:58:13.039603 21552 net.cpp:150] Setting up drop4
I0406 15:58:13.039613 21552 net.cpp:157] Top shape: 1024 300 (307200)
I0406 15:58:13.039616 21552 net.cpp:165] Memory required for data: 4105486336
I0406 15:58:13.039620 21552 layer_factory.hpp:77] Creating layer fc5_106
I0406 15:58:13.039628 21552 net.cpp:100] Creating Layer fc5_106
I0406 15:58:13.039633 21552 net.cpp:434] fc5_106 <- fc4_300
I0406 15:58:13.039644 21552 net.cpp:408] fc5_106 -> fc5_classes
I0406 15:58:13.040084 21552 net.cpp:150] Setting up fc5_106
I0406 15:58:13.040096 21552 net.cpp:157] Top shape: 1024 106 (108544)
I0406 15:58:13.040101 21552 net.cpp:165] Memory required for data: 4105920512
I0406 15:58:13.040107 21552 layer_factory.hpp:77] Creating layer fc5_classes_fc5_106_0_split
I0406 15:58:13.040119 21552 net.cpp:100] Creating Layer fc5_classes_fc5_106_0_split
I0406 15:58:13.040125 21552 net.cpp:434] fc5_classes_fc5_106_0_split <- fc5_classes
I0406 15:58:13.040134 21552 net.cpp:408] fc5_classes_fc5_106_0_split -> fc5_classes_fc5_106_0_split_0
I0406 15:58:13.040145 21552 net.cpp:408] fc5_classes_fc5_106_0_split -> fc5_classes_fc5_106_0_split_1
I0406 15:58:13.040155 21552 net.cpp:408] fc5_classes_fc5_106_0_split -> fc5_classes_fc5_106_0_split_2
I0406 15:58:13.040227 21552 net.cpp:150] Setting up fc5_classes_fc5_106_0_split
I0406 15:58:13.040236 21552 net.cpp:157] Top shape: 1024 106 (108544)
I0406 15:58:13.040249 21552 net.cpp:157] Top shape: 1024 106 (108544)
I0406 15:58:13.040254 21552 net.cpp:157] Top shape: 1024 106 (108544)
I0406 15:58:13.040280 21552 net.cpp:165] Memory required for data: 4107223040
I0406 15:58:13.040288 21552 layer_factory.hpp:77] Creating layer loss
I0406 15:58:13.040297 21552 net.cpp:100] Creating Layer loss
I0406 15:58:13.040302 21552 net.cpp:434] loss <- fc5_classes_fc5_106_0_split_0
I0406 15:58:13.040308 21552 net.cpp:434] loss <- label_data_1_split_0
I0406 15:58:13.040314 21552 net.cpp:408] loss -> loss
…
