…
I0414 17:22:44.851670 32142 solver.cpp:93] Creating training net from train_net file: ./Prototxt/experiment_11/rtsd-r3/imajust/trial_3/train.prototxt
I0414 17:22:44.868185 32142 net.cpp:58] Initializing net from parameters: 
state {
  phase: TRAIN
  level: 0
  stage: ""
}
layer {
  name: "data"
  type: "Data"
  top: "data"
  top: "label"
  include {
    phase: TRAIN
  }
  transform_param {
    scale: 0.0039215689
    mirror: false
    crop_size: 48
    mean_value: 118
    mean_value: 112
    mean_value: 112
  }
  data_param {
    source: "../local_data/lmdb/rtsd-r3/imajust/train/lmdb"
    batch_size: 1024
    backend: LMDB
  }
}
layer {
  name: "conv1"
  type: "Convolution"
  bottom: "data"
  top: "conv1"
  convolution_param {
    num_output: 100
    pad: 0
    kernel_size: 7
    group: 1
    stride: 1
    weight_filler {
      type: "xavier"
    }
  }
}
layer {
  name: "conv1_prescale"
  type: "Scale"
  bottom: "conv1"
  top: "conv1"
  param {
    lr_mult: 0
    decay_mult: 0
  }
  scale_param {
    filler {
      value: 0.6666
    }
    bias_term: false
  }
}
layer {
  name: "conv1_sTanH"
  type: "TanH"
  bottom: "conv1"
  top: "conv1"
}
layer {
  name: "conv1_postscale"
  type: "Scale"
  bottom: "conv1"
  top: "conv1"
  param {
    lr_mult: 0
    decay_mult: 0
  }
  scale_param {
    filler {
      value: 1.7159
    }
    bias_term: false
  }
}
layer {
  name: "pool1"
  type: "Pooling"
  bottom: "conv1"
  top: "pool1"
  pooling_param {
    pool: MAX
    kernel_size: 2
    stride: 2
  }
}
layer {
  name: "conv2"
  type: "Convolution"
  bottom: "pool1"
  top: "conv2"
  convolution_param {
    num_output: 150
    pad: 0
    kernel_size: 4
    group: 1
    stride: 1
    weight_filler {
      type: "xavier"
    }
  }
}
layer {
  name: "conv2_prescale"
  type: "Scale"
  bottom: "conv2"
  top: "conv2"
  param {
    lr_mult: 0
    decay_mult: 0
  }
  scale_param {
    filler {
      value: 0.6666
    }
    bias_term: false
  }
}
layer {
  name: "conv2_sTanH"
  type: "TanH"
  bottom: "conv2"
  top: "conv2"
}
layer {
  name: "conv2_postscale"
  type: "Scale"
  bottom: "conv2"
  top: "conv2"
  param {
    lr_mult: 0
    decay_mult: 0
  }
  scale_param {
    filler {
      value: 1.7159
    }
    bias_term: false
  }
}
layer {
  name: "pool2"
  type: "Pooling"
  bottom: "conv2"
  top: "pool2"
  pooling_param {
    pool: MAX
    kernel_size: 2
    stride: 2
  }
}
layer {
  name: "conv3"
  type: "Convolution"
  bottom: "pool2"
  top: "conv3"
  convolution_param {
    num_output: 250
    pad: 0
    kernel_size: 4
    group: 1
    stride: 1
    weight_filler {
      type: "xavier"
    }
  }
}
layer {
  name: "conv3_prescale"
  type: "Scale"
  bottom: "conv3"
  top: "conv3"
  param {
    lr_mult: 0
    decay_mult: 0
  }
  scale_param {
    filler {
      value: 0.6666
    }
    bias_term: false
  }
}
layer {
  name: "conv3_sTanH"
  type: "TanH"
  bottom: "conv3"
  top: "conv3"
}
layer {
  name: "conv3_postscale"
  type: "Scale"
  bottom: "conv3"
  top: "conv3"
  param {
    lr_mult: 0
    decay_mult: 0
  }
  scale_param {
    filler {
      value: 1.7159
    }
    bias_term: false
  }
}
layer {
  name: "pool3"
  type: "Pooling"
  bottom: "conv3"
  top: "pool3"
  pooling_param {
    pool: MAX
    kernel_size: 2
    stride: 2
  }
}
layer {
  name: "fc4_300"
  type: "InnerProduct"
  bottom: "pool3"
  top: "fc4_300"
  inner_product_param {
    num_output: 300
    weight_filler {
      type: "xavier"
    }
  }
}
layer {
  name: "fc4_prescale"
  type: "Scale"
  bottom: "fc4_300"
  top: "fc4_300"
  param {
    lr_mult: 0
    decay_mult: 0
  }
  scale_param {
    filler {
      value: 0.6666
    }
    bias_term: false
  }
}
layer {
  name: "fc4_sTanH"
  type: "TanH"
  bottom: "fc4_300"
  top: "fc4_300"
}
layer {
  name: "fc4_postscale"
  type: "Scale"
  bottom: "fc4_300"
  top: "fc4_300"
  param {
    lr_mult: 0
    decay_mult: 0
  }
  scale_param {
    filler {
      value: 1.7159
    }
    bias_term: false
  }
}
layer {
  name: "fc5_106"
  type: "InnerProduct"
  bottom: "fc4_300"
  top: "fc5_classes"
  inner_product_param {
    num_output: 106
    weight_filler {
      type: "xavier"
    }
  }
}
layer {
  name: "softmax"
  type: "Softmax"
  bottom: "fc5_classes"
  top: "softmax"
}
layer {
  name: "loss"
  type: "MultinomialLogisticLoss"
  bottom: "softmax"
  bottom: "label"
  top: "loss"
}
layer {
  name: "accuracy_1"
  type: "Accuracy"
  bottom: "fc5_classes"
  bottom: "label"
  top: "accuracy_1"
  accuracy_param {
    top_k: 1
  }
}
layer {
  name: "accuracy_5"
  type: "Accuracy"
  bottom: "fc5_classes"
  bottom: "label"
  top: "accuracy_5"
  accuracy_param {
    top_k: 5
  }
}
layer {
  name: "silence"
  type: "Silence"
  bottom: "accuracy_1"
  bottom: "accuracy_5"
}
I0414 17:22:44.868391 32142 layer_factory.hpp:77] Creating layer data
I0414 17:22:44.869535 32142 net.cpp:100] Creating Layer data
I0414 17:22:44.869554 32142 net.cpp:408] data -> data
I0414 17:22:44.869582 32142 net.cpp:408] data -> label
I0414 17:22:44.870575 32253 db_lmdb.cpp:35] Opened lmdb ../local_data/lmdb/rtsd-r3/imajust/train/lmdb
I0414 17:22:44.898231 32142 data_layer.cpp:41] output data size: 1024,3,48,48
I0414 17:22:44.979475 32142 net.cpp:150] Setting up data
I0414 17:22:44.979506 32142 net.cpp:157] Top shape: 1024 3 48 48 (7077888)
I0414 17:22:44.979516 32142 net.cpp:157] Top shape: 1024 (1024)
I0414 17:22:44.979519 32142 net.cpp:165] Memory required for data: 28315648
I0414 17:22:44.979534 32142 layer_factory.hpp:77] Creating layer label_data_1_split
I0414 17:22:44.979554 32142 net.cpp:100] Creating Layer label_data_1_split
I0414 17:22:44.979564 32142 net.cpp:434] label_data_1_split <- label
I0414 17:22:44.979584 32142 net.cpp:408] label_data_1_split -> label_data_1_split_0
I0414 17:22:44.979600 32142 net.cpp:408] label_data_1_split -> label_data_1_split_1
I0414 17:22:44.979610 32142 net.cpp:408] label_data_1_split -> label_data_1_split_2
I0414 17:22:44.979679 32142 net.cpp:150] Setting up label_data_1_split
I0414 17:22:44.979691 32142 net.cpp:157] Top shape: 1024 (1024)
I0414 17:22:44.979697 32142 net.cpp:157] Top shape: 1024 (1024)
I0414 17:22:44.979707 32142 net.cpp:157] Top shape: 1024 (1024)
I0414 17:22:44.979712 32142 net.cpp:165] Memory required for data: 28327936
I0414 17:22:44.979718 32142 layer_factory.hpp:77] Creating layer conv1
I0414 17:22:44.979738 32142 net.cpp:100] Creating Layer conv1
I0414 17:22:44.979744 32142 net.cpp:434] conv1 <- data
I0414 17:22:44.979753 32142 net.cpp:408] conv1 -> conv1
I0414 17:22:45.422914 32142 net.cpp:150] Setting up conv1
I0414 17:22:45.422945 32142 net.cpp:157] Top shape: 1024 100 42 42 (180633600)
I0414 17:22:45.422951 32142 net.cpp:165] Memory required for data: 750862336
I0414 17:22:45.422981 32142 layer_factory.hpp:77] Creating layer conv1_prescale
I0414 17:22:45.422999 32142 net.cpp:100] Creating Layer conv1_prescale
I0414 17:22:45.423007 32142 net.cpp:434] conv1_prescale <- conv1
I0414 17:22:45.423017 32142 net.cpp:395] conv1_prescale -> conv1 (in-place)
I0414 17:22:45.423131 32142 net.cpp:150] Setting up conv1_prescale
I0414 17:22:45.423143 32142 net.cpp:157] Top shape: 1024 100 42 42 (180633600)
I0414 17:22:45.423148 32142 net.cpp:165] Memory required for data: 1473396736
I0414 17:22:45.423159 32142 layer_factory.hpp:77] Creating layer conv1_sTanH
I0414 17:22:45.423185 32142 net.cpp:100] Creating Layer conv1_sTanH
I0414 17:22:45.423192 32142 net.cpp:434] conv1_sTanH <- conv1
I0414 17:22:45.423199 32142 net.cpp:395] conv1_sTanH -> conv1 (in-place)
I0414 17:22:45.423408 32142 net.cpp:150] Setting up conv1_sTanH
I0414 17:22:45.423440 32142 net.cpp:157] Top shape: 1024 100 42 42 (180633600)
I0414 17:22:45.423446 32142 net.cpp:165] Memory required for data: 2195931136
I0414 17:22:45.423452 32142 layer_factory.hpp:77] Creating layer conv1_postscale
I0414 17:22:45.423462 32142 net.cpp:100] Creating Layer conv1_postscale
I0414 17:22:45.423470 32142 net.cpp:434] conv1_postscale <- conv1
I0414 17:22:45.423478 32142 net.cpp:395] conv1_postscale -> conv1 (in-place)
I0414 17:22:45.423580 32142 net.cpp:150] Setting up conv1_postscale
I0414 17:22:45.423593 32142 net.cpp:157] Top shape: 1024 100 42 42 (180633600)
I0414 17:22:45.423598 32142 net.cpp:165] Memory required for data: 2918465536
I0414 17:22:45.423605 32142 layer_factory.hpp:77] Creating layer pool1
I0414 17:22:45.423616 32142 net.cpp:100] Creating Layer pool1
I0414 17:22:45.423622 32142 net.cpp:434] pool1 <- conv1
I0414 17:22:45.423630 32142 net.cpp:408] pool1 -> pool1
I0414 17:22:45.423686 32142 net.cpp:150] Setting up pool1
I0414 17:22:45.423696 32142 net.cpp:157] Top shape: 1024 100 21 21 (45158400)
I0414 17:22:45.423702 32142 net.cpp:165] Memory required for data: 3099099136
I0414 17:22:45.423707 32142 layer_factory.hpp:77] Creating layer conv2
I0414 17:22:45.423722 32142 net.cpp:100] Creating Layer conv2
I0414 17:22:45.423727 32142 net.cpp:434] conv2 <- pool1
I0414 17:22:45.423735 32142 net.cpp:408] conv2 -> conv2
I0414 17:22:45.429339 32142 net.cpp:150] Setting up conv2
I0414 17:22:45.429361 32142 net.cpp:157] Top shape: 1024 150 18 18 (49766400)
I0414 17:22:45.429368 32142 net.cpp:165] Memory required for data: 3298164736
I0414 17:22:45.429383 32142 layer_factory.hpp:77] Creating layer conv2_prescale
I0414 17:22:45.429407 32142 net.cpp:100] Creating Layer conv2_prescale
I0414 17:22:45.429415 32142 net.cpp:434] conv2_prescale <- conv2
I0414 17:22:45.429425 32142 net.cpp:395] conv2_prescale -> conv2 (in-place)
I0414 17:22:45.429540 32142 net.cpp:150] Setting up conv2_prescale
I0414 17:22:45.429553 32142 net.cpp:157] Top shape: 1024 150 18 18 (49766400)
I0414 17:22:45.429558 32142 net.cpp:165] Memory required for data: 3497230336
I0414 17:22:45.429565 32142 layer_factory.hpp:77] Creating layer conv2_sTanH
I0414 17:22:45.429576 32142 net.cpp:100] Creating Layer conv2_sTanH
I0414 17:22:45.429584 32142 net.cpp:434] conv2_sTanH <- conv2
I0414 17:22:45.429592 32142 net.cpp:395] conv2_sTanH -> conv2 (in-place)
I0414 17:22:45.430830 32142 net.cpp:150] Setting up conv2_sTanH
I0414 17:22:45.430845 32142 net.cpp:157] Top shape: 1024 150 18 18 (49766400)
I0414 17:22:45.430851 32142 net.cpp:165] Memory required for data: 3696295936
I0414 17:22:45.430857 32142 layer_factory.hpp:77] Creating layer conv2_postscale
I0414 17:22:45.430869 32142 net.cpp:100] Creating Layer conv2_postscale
I0414 17:22:45.430876 32142 net.cpp:434] conv2_postscale <- conv2
I0414 17:22:45.430887 32142 net.cpp:395] conv2_postscale -> conv2 (in-place)
I0414 17:22:45.430994 32142 net.cpp:150] Setting up conv2_postscale
I0414 17:22:45.431005 32142 net.cpp:157] Top shape: 1024 150 18 18 (49766400)
I0414 17:22:45.431010 32142 net.cpp:165] Memory required for data: 3895361536
I0414 17:22:45.431017 32142 layer_factory.hpp:77] Creating layer pool2
I0414 17:22:45.431032 32142 net.cpp:100] Creating Layer pool2
I0414 17:22:45.431038 32142 net.cpp:434] pool2 <- conv2
I0414 17:22:45.431046 32142 net.cpp:408] pool2 -> pool2
I0414 17:22:45.431102 32142 net.cpp:150] Setting up pool2
I0414 17:22:45.431113 32142 net.cpp:157] Top shape: 1024 150 9 9 (12441600)
I0414 17:22:45.431118 32142 net.cpp:165] Memory required for data: 3945127936
I0414 17:22:45.431123 32142 layer_factory.hpp:77] Creating layer conv3
I0414 17:22:45.431138 32142 net.cpp:100] Creating Layer conv3
I0414 17:22:45.431143 32142 net.cpp:434] conv3 <- pool2
I0414 17:22:45.431154 32142 net.cpp:408] conv3 -> conv3
I0414 17:22:45.437223 32142 net.cpp:150] Setting up conv3
I0414 17:22:45.437247 32142 net.cpp:157] Top shape: 1024 250 6 6 (9216000)
I0414 17:22:45.437253 32142 net.cpp:165] Memory required for data: 3981991936
I0414 17:22:45.437268 32142 layer_factory.hpp:77] Creating layer conv3_prescale
I0414 17:22:45.437299 32142 net.cpp:100] Creating Layer conv3_prescale
I0414 17:22:45.437307 32142 net.cpp:434] conv3_prescale <- conv3
I0414 17:22:45.437322 32142 net.cpp:395] conv3_prescale -> conv3 (in-place)
I0414 17:22:45.437430 32142 net.cpp:150] Setting up conv3_prescale
I0414 17:22:45.437443 32142 net.cpp:157] Top shape: 1024 250 6 6 (9216000)
I0414 17:22:45.437448 32142 net.cpp:165] Memory required for data: 4018855936
I0414 17:22:45.437455 32142 layer_factory.hpp:77] Creating layer conv3_sTanH
I0414 17:22:45.437466 32142 net.cpp:100] Creating Layer conv3_sTanH
I0414 17:22:45.437474 32142 net.cpp:434] conv3_sTanH <- conv3
I0414 17:22:45.437484 32142 net.cpp:395] conv3_sTanH -> conv3 (in-place)
I0414 17:22:45.438311 32142 net.cpp:150] Setting up conv3_sTanH
I0414 17:22:45.438328 32142 net.cpp:157] Top shape: 1024 250 6 6 (9216000)
I0414 17:22:45.438333 32142 net.cpp:165] Memory required for data: 4055719936
I0414 17:22:45.438339 32142 layer_factory.hpp:77] Creating layer conv3_postscale
I0414 17:22:45.438352 32142 net.cpp:100] Creating Layer conv3_postscale
I0414 17:22:45.438359 32142 net.cpp:434] conv3_postscale <- conv3
I0414 17:22:45.438369 32142 net.cpp:395] conv3_postscale -> conv3 (in-place)
I0414 17:22:45.438479 32142 net.cpp:150] Setting up conv3_postscale
I0414 17:22:45.438493 32142 net.cpp:157] Top shape: 1024 250 6 6 (9216000)
I0414 17:22:45.438496 32142 net.cpp:165] Memory required for data: 4092583936
I0414 17:22:45.438505 32142 layer_factory.hpp:77] Creating layer pool3
I0414 17:22:45.438522 32142 net.cpp:100] Creating Layer pool3
I0414 17:22:45.438529 32142 net.cpp:434] pool3 <- conv3
I0414 17:22:45.438536 32142 net.cpp:408] pool3 -> pool3
I0414 17:22:45.438590 32142 net.cpp:150] Setting up pool3
I0414 17:22:45.438601 32142 net.cpp:157] Top shape: 1024 250 3 3 (2304000)
I0414 17:22:45.438606 32142 net.cpp:165] Memory required for data: 4101799936
I0414 17:22:45.438611 32142 layer_factory.hpp:77] Creating layer fc4_300
I0414 17:22:45.438621 32142 net.cpp:100] Creating Layer fc4_300
I0414 17:22:45.438627 32142 net.cpp:434] fc4_300 <- pool3
I0414 17:22:45.438637 32142 net.cpp:408] fc4_300 -> fc4_300
I0414 17:22:45.444089 32142 net.cpp:150] Setting up fc4_300
I0414 17:22:45.444108 32142 net.cpp:157] Top shape: 1024 300 (307200)
I0414 17:22:45.444113 32142 net.cpp:165] Memory required for data: 4103028736
I0414 17:22:45.444124 32142 layer_factory.hpp:77] Creating layer fc4_prescale
I0414 17:22:45.444136 32142 net.cpp:100] Creating Layer fc4_prescale
I0414 17:22:45.444144 32142 net.cpp:434] fc4_prescale <- fc4_300
I0414 17:22:45.444155 32142 net.cpp:395] fc4_prescale -> fc4_300 (in-place)
I0414 17:22:45.444255 32142 net.cpp:150] Setting up fc4_prescale
I0414 17:22:45.444267 32142 net.cpp:157] Top shape: 1024 300 (307200)
I0414 17:22:45.444272 32142 net.cpp:165] Memory required for data: 4104257536
I0414 17:22:45.444278 32142 layer_factory.hpp:77] Creating layer fc4_sTanH
I0414 17:22:45.444288 32142 net.cpp:100] Creating Layer fc4_sTanH
I0414 17:22:45.444293 32142 net.cpp:434] fc4_sTanH <- fc4_300
I0414 17:22:45.444301 32142 net.cpp:395] fc4_sTanH -> fc4_300 (in-place)
I0414 17:22:45.444499 32142 net.cpp:150] Setting up fc4_sTanH
I0414 17:22:45.444512 32142 net.cpp:157] Top shape: 1024 300 (307200)
I0414 17:22:45.444517 32142 net.cpp:165] Memory required for data: 4105486336
I0414 17:22:45.444524 32142 layer_factory.hpp:77] Creating layer fc4_postscale
I0414 17:22:45.444532 32142 net.cpp:100] Creating Layer fc4_postscale
I0414 17:22:45.444540 32142 net.cpp:434] fc4_postscale <- fc4_300
I0414 17:22:45.444551 32142 net.cpp:395] fc4_postscale -> fc4_300 (in-place)
I0414 17:22:45.444659 32142 net.cpp:150] Setting up fc4_postscale
I0414 17:22:45.444671 32142 net.cpp:157] Top shape: 1024 300 (307200)
I0414 17:22:45.444676 32142 net.cpp:165] Memory required for data: 4106715136
I0414 17:22:45.444684 32142 layer_factory.hpp:77] Creating layer fc5_106
I0414 17:22:45.444695 32142 net.cpp:100] Creating Layer fc5_106
I0414 17:22:45.444702 32142 net.cpp:434] fc5_106 <- fc4_300
I0414 17:22:45.444710 32142 net.cpp:408] fc5_106 -> fc5_classes
I0414 17:22:45.457269 32142 net.cpp:150] Setting up fc5_106
I0414 17:22:45.457293 32142 net.cpp:157] Top shape: 1024 106 (108544)
I0414 17:22:45.457299 32142 net.cpp:165] Memory required for data: 4107149312
I0414 17:22:45.457316 32142 layer_factory.hpp:77] Creating layer fc5_classes_fc5_106_0_split
I0414 17:22:45.457327 32142 net.cpp:100] Creating Layer fc5_classes_fc5_106_0_split
I0414 17:22:45.457336 32142 net.cpp:434] fc5_classes_fc5_106_0_split <- fc5_classes
I0414 17:22:45.457345 32142 net.cpp:408] fc5_classes_fc5_106_0_split -> fc5_classes_fc5_106_0_split_0
I0414 17:22:45.457355 32142 net.cpp:408] fc5_classes_fc5_106_0_split -> fc5_classes_fc5_106_0_split_1
I0414 17:22:45.457362 32142 net.cpp:408] fc5_classes_fc5_106_0_split -> fc5_classes_fc5_106_0_split_2
I0414 17:22:45.457417 32142 net.cpp:150] Setting up fc5_classes_fc5_106_0_split
I0414 17:22:45.457425 32142 net.cpp:157] Top shape: 1024 106 (108544)
I0414 17:22:45.457428 32142 net.cpp:157] Top shape: 1024 106 (108544)
I0414 17:22:45.457432 32142 net.cpp:157] Top shape: 1024 106 (108544)
I0414 17:22:45.457434 32142 net.cpp:165] Memory required for data: 4108451840
I0414 17:22:45.457437 32142 layer_factory.hpp:77] Creating layer softmax
I0414 17:22:45.457443 32142 net.cpp:100] Creating Layer softmax
I0414 17:22:45.457448 32142 net.cpp:434] softmax <- fc5_classes_fc5_106_0_split_0
I0414 17:22:45.457456 32142 net.cpp:408] softmax -> softmax
I0414 17:22:45.457720 32142 net.cpp:150] Setting up softmax
I0414 17:22:45.457731 32142 net.cpp:157] Top shape: 1024 106 (108544)
I0414 17:22:45.457736 32142 net.cpp:165] Memory required for data: 4108886016
I0414 17:22:45.457739 32142 layer_factory.hpp:77] Creating layer loss
I0414 17:22:45.457747 32142 net.cpp:100] Creating Layer loss
I0414 17:22:45.457752 32142 net.cpp:434] loss <- softmax
I0414 17:22:45.457756 32142 net.cpp:434] loss <- label_data_1_split_0
I0414 17:22:45.457762 32142 net.cpp:408] loss -> loss
…
