…
I0508 10:41:48.217310 28641 solver.cpp:93] Creating training net from train_net file: ./Prototxt/experiment_15/RTSD/imajust/trial_5/train.prototxt
I0508 10:41:48.217803 28641 net.cpp:58] Initializing net from parameters: 
state {
  phase: TRAIN
  level: 0
  stage: ""
}
layer {
  name: "data"
  type: "Data"
  top: "data"
  top: "label"
  include {
    phase: TRAIN
  }
  transform_param {
    scale: 0.0039215689
    mirror: false
    crop_size: 48
    mean_value: 119
    mean_value: 113
    mean_value: 114
  }
  data_param {
    source: "../local_data/lmdb/RTSD/imajust/train/lmdb"
    batch_size: 1024
    backend: LMDB
  }
}
layer {
  name: "conv1"
  type: "Convolution"
  bottom: "data"
  top: "conv1"
  convolution_param {
    num_output: 100
    pad: 0
    kernel_size: 7
    group: 1
    stride: 1
    weight_filler {
      type: "xavier"
    }
  }
}
layer {
  name: "conv1_prescale"
  type: "Scale"
  bottom: "conv1"
  top: "conv1"
  param {
    lr_mult: 0
    decay_mult: 0
  }
  scale_param {
    filler {
      value: 0.6666
    }
    bias_term: false
  }
}
layer {
  name: "conv1_sTanH"
  type: "TanH"
  bottom: "conv1"
  top: "conv1"
}
layer {
  name: "conv1_postscale"
  type: "Scale"
  bottom: "conv1"
  top: "conv1"
  param {
    lr_mult: 0
    decay_mult: 0
  }
  scale_param {
    filler {
      value: 1.7159
    }
    bias_term: false
  }
}
layer {
  name: "pool1"
  type: "Pooling"
  bottom: "conv1"
  top: "pool1"
  pooling_param {
    pool: MAX
    kernel_size: 2
    stride: 2
  }
}
layer {
  name: "conv2"
  type: "Convolution"
  bottom: "pool1"
  top: "conv2"
  convolution_param {
    num_output: 150
    pad: 0
    kernel_size: 4
    group: 2
    stride: 1
    weight_filler {
      type: "xavier"
    }
  }
}
layer {
  name: "conv2_prescale"
  type: "Scale"
  bottom: "conv2"
  top: "conv2"
  param {
    lr_mult: 0
    decay_mult: 0
  }
  scale_param {
    filler {
      value: 0.6666
    }
    bias_term: false
  }
}
layer {
  name: "conv2_sTanH"
  type: "TanH"
  bottom: "conv2"
  top: "conv2"
}
layer {
  name: "conv2_postscale"
  type: "Scale"
  bottom: "conv2"
  top: "conv2"
  param {
    lr_mult: 0
    decay_mult: 0
  }
  scale_param {
    filler {
      value: 1.7159
    }
    bias_term: false
  }
}
layer {
  name: "pool2"
  type: "Pooling"
  bottom: "conv2"
  top: "pool2"
  pooling_param {
    pool: MAX
    kernel_size: 2
    stride: 2
  }
}
layer {
  name: "conv3"
  type: "Convolution"
  bottom: "pool2"
  top: "conv3"
  convolution_param {
    num_output: 250
    pad: 0
    kernel_size: 4
    group: 2
    stride: 1
    weight_filler {
      type: "xavier"
    }
  }
}
layer {
  name: "conv3_prescale"
  type: "Scale"
  bottom: "conv3"
  top: "conv3"
  param {
    lr_mult: 0
    decay_mult: 0
  }
  scale_param {
    filler {
      value: 0.6666
    }
    bias_term: false
  }
}
layer {
  name: "conv3_sTanH"
  type: "TanH"
  bottom: "conv3"
  top: "conv3"
}
layer {
  name: "conv3_postscale"
  type: "Scale"
  bottom: "conv3"
  top: "conv3"
  param {
    lr_mult: 0
    decay_mult: 0
  }
  scale_param {
    filler {
      value: 1.7159
    }
    bias_term: false
  }
}
layer {
  name: "pool3"
  type: "Pooling"
  bottom: "conv3"
  top: "pool3"
  pooling_param {
    pool: MAX
    kernel_size: 2
    stride: 2
  }
}
layer {
  name: "fc4_300"
  type: "InnerProduct"
  bottom: "pool3"
  top: "fc4_300"
  inner_product_param {
    num_output: 300
    weight_filler {
      type: "xavier"
    }
  }
}
layer {
  name: "fc4_prescale"
  type: "Scale"
  bottom: "fc4_300"
  top: "fc4_300"
  param {
    lr_mult: 0
    decay_mult: 0
  }
  scale_param {
    filler {
      value: 0.6666
    }
    bias_term: false
  }
}
layer {
  name: "fc4_sTanH"
  type: "TanH"
  bottom: "fc4_300"
  top: "fc4_300"
}
layer {
  name: "fc4_postscale"
  type: "Scale"
  bottom: "fc4_300"
  top: "fc4_300"
  param {
    lr_mult: 0
    decay_mult: 0
  }
  scale_param {
    filler {
      value: 1.7159
    }
    bias_term: false
  }
}
layer {
  name: "fc5_116"
  type: "InnerProduct"
  bottom: "fc4_300"
  top: "fc5_classes"
  inner_product_param {
    num_output: 116
    weight_filler {
      type: "xavier"
    }
  }
}
layer {
  name: "softmax"
  type: "Softmax"
  bottom: "fc5_classes"
  top: "softmax"
}
layer {
  name: "loss"
  type: "MultinomialLogisticLoss"
  bottom: "softmax"
  bottom: "label"
  top: "loss"
}
layer {
  name: "accuracy_1"
  type: "Accuracy"
  bottom: "fc5_classes"
  bottom: "label"
  top: "accuracy_1"
  accuracy_param {
    top_k: 1
  }
}
layer {
  name: "accuracy_5"
  type: "Accuracy"
  bottom: "fc5_classes"
  bottom: "label"
  top: "accuracy_5"
  accuracy_param {
    top_k: 5
  }
}
layer {
  name: "silence"
  type: "Silence"
  bottom: "accuracy_1"
  bottom: "accuracy_5"
}
I0508 10:41:48.217958 28641 layer_factory.hpp:77] Creating layer data
I0508 10:41:48.219024 28641 net.cpp:100] Creating Layer data
I0508 10:41:48.219040 28641 net.cpp:408] data -> data
I0508 10:41:48.219063 28641 net.cpp:408] data -> label
I0508 10:41:48.222710 28750 db_lmdb.cpp:35] Opened lmdb ../local_data/lmdb/RTSD/imajust/train/lmdb
I0508 10:41:48.250687 28641 data_layer.cpp:41] output data size: 1024,3,48,48
I0508 10:41:48.327651 28641 net.cpp:150] Setting up data
I0508 10:41:48.327680 28641 net.cpp:157] Top shape: 1024 3 48 48 (7077888)
I0508 10:41:48.327687 28641 net.cpp:157] Top shape: 1024 (1024)
I0508 10:41:48.327692 28641 net.cpp:165] Memory required for data: 28315648
I0508 10:41:48.327702 28641 layer_factory.hpp:77] Creating layer label_data_1_split
I0508 10:41:48.327718 28641 net.cpp:100] Creating Layer label_data_1_split
I0508 10:41:48.327726 28641 net.cpp:434] label_data_1_split <- label
I0508 10:41:48.327744 28641 net.cpp:408] label_data_1_split -> label_data_1_split_0
I0508 10:41:48.327757 28641 net.cpp:408] label_data_1_split -> label_data_1_split_1
I0508 10:41:48.327766 28641 net.cpp:408] label_data_1_split -> label_data_1_split_2
I0508 10:41:48.327903 28641 net.cpp:150] Setting up label_data_1_split
I0508 10:41:48.327920 28641 net.cpp:157] Top shape: 1024 (1024)
I0508 10:41:48.327929 28641 net.cpp:157] Top shape: 1024 (1024)
I0508 10:41:48.327939 28641 net.cpp:157] Top shape: 1024 (1024)
I0508 10:41:48.327945 28641 net.cpp:165] Memory required for data: 28327936
I0508 10:41:48.327952 28641 layer_factory.hpp:77] Creating layer conv1
I0508 10:41:48.327983 28641 net.cpp:100] Creating Layer conv1
I0508 10:41:48.327991 28641 net.cpp:434] conv1 <- data
I0508 10:41:48.328006 28641 net.cpp:408] conv1 -> conv1
I0508 10:41:48.737467 28641 net.cpp:150] Setting up conv1
I0508 10:41:48.737493 28641 net.cpp:157] Top shape: 1024 100 42 42 (180633600)
I0508 10:41:48.737498 28641 net.cpp:165] Memory required for data: 750862336
I0508 10:41:48.737520 28641 layer_factory.hpp:77] Creating layer conv1_prescale
I0508 10:41:48.737536 28641 net.cpp:100] Creating Layer conv1_prescale
I0508 10:41:48.737542 28641 net.cpp:434] conv1_prescale <- conv1
I0508 10:41:48.737550 28641 net.cpp:395] conv1_prescale -> conv1 (in-place)
I0508 10:41:48.737659 28641 net.cpp:150] Setting up conv1_prescale
I0508 10:41:48.737668 28641 net.cpp:157] Top shape: 1024 100 42 42 (180633600)
I0508 10:41:48.737673 28641 net.cpp:165] Memory required for data: 1473396736
I0508 10:41:48.737681 28641 layer_factory.hpp:77] Creating layer conv1_sTanH
I0508 10:41:48.737691 28641 net.cpp:100] Creating Layer conv1_sTanH
I0508 10:41:48.737696 28641 net.cpp:434] conv1_sTanH <- conv1
I0508 10:41:48.737702 28641 net.cpp:395] conv1_sTanH -> conv1 (in-place)
I0508 10:41:48.737893 28641 net.cpp:150] Setting up conv1_sTanH
I0508 10:41:48.737906 28641 net.cpp:157] Top shape: 1024 100 42 42 (180633600)
I0508 10:41:48.737929 28641 net.cpp:165] Memory required for data: 2195931136
I0508 10:41:48.737934 28641 layer_factory.hpp:77] Creating layer conv1_postscale
I0508 10:41:48.737944 28641 net.cpp:100] Creating Layer conv1_postscale
I0508 10:41:48.737949 28641 net.cpp:434] conv1_postscale <- conv1
I0508 10:41:48.737956 28641 net.cpp:395] conv1_postscale -> conv1 (in-place)
I0508 10:41:48.738054 28641 net.cpp:150] Setting up conv1_postscale
I0508 10:41:48.738062 28641 net.cpp:157] Top shape: 1024 100 42 42 (180633600)
I0508 10:41:48.738067 28641 net.cpp:165] Memory required for data: 2918465536
I0508 10:41:48.738073 28641 layer_factory.hpp:77] Creating layer pool1
I0508 10:41:48.738082 28641 net.cpp:100] Creating Layer pool1
I0508 10:41:48.738087 28641 net.cpp:434] pool1 <- conv1
I0508 10:41:48.738093 28641 net.cpp:408] pool1 -> pool1
I0508 10:41:48.738143 28641 net.cpp:150] Setting up pool1
I0508 10:41:48.738152 28641 net.cpp:157] Top shape: 1024 100 21 21 (45158400)
I0508 10:41:48.738157 28641 net.cpp:165] Memory required for data: 3099099136
I0508 10:41:48.738162 28641 layer_factory.hpp:77] Creating layer conv2
I0508 10:41:48.738171 28641 net.cpp:100] Creating Layer conv2
I0508 10:41:48.738176 28641 net.cpp:434] conv2 <- pool1
I0508 10:41:48.738183 28641 net.cpp:408] conv2 -> conv2
I0508 10:41:48.745234 28641 net.cpp:150] Setting up conv2
I0508 10:41:48.745250 28641 net.cpp:157] Top shape: 1024 150 18 18 (49766400)
I0508 10:41:48.745255 28641 net.cpp:165] Memory required for data: 3298164736
I0508 10:41:48.745266 28641 layer_factory.hpp:77] Creating layer conv2_prescale
I0508 10:41:48.745276 28641 net.cpp:100] Creating Layer conv2_prescale
I0508 10:41:48.745280 28641 net.cpp:434] conv2_prescale <- conv2
I0508 10:41:48.745286 28641 net.cpp:395] conv2_prescale -> conv2 (in-place)
I0508 10:41:48.745384 28641 net.cpp:150] Setting up conv2_prescale
I0508 10:41:48.745394 28641 net.cpp:157] Top shape: 1024 150 18 18 (49766400)
I0508 10:41:48.745400 28641 net.cpp:165] Memory required for data: 3497230336
I0508 10:41:48.745406 28641 layer_factory.hpp:77] Creating layer conv2_sTanH
I0508 10:41:48.745414 28641 net.cpp:100] Creating Layer conv2_sTanH
I0508 10:41:48.745419 28641 net.cpp:434] conv2_sTanH <- conv2
I0508 10:41:48.745424 28641 net.cpp:395] conv2_sTanH -> conv2 (in-place)
I0508 10:41:48.745597 28641 net.cpp:150] Setting up conv2_sTanH
I0508 10:41:48.745609 28641 net.cpp:157] Top shape: 1024 150 18 18 (49766400)
I0508 10:41:48.745615 28641 net.cpp:165] Memory required for data: 3696295936
I0508 10:41:48.745618 28641 layer_factory.hpp:77] Creating layer conv2_postscale
I0508 10:41:48.745625 28641 net.cpp:100] Creating Layer conv2_postscale
I0508 10:41:48.745628 28641 net.cpp:434] conv2_postscale <- conv2
I0508 10:41:48.745635 28641 net.cpp:395] conv2_postscale -> conv2 (in-place)
I0508 10:41:48.745728 28641 net.cpp:150] Setting up conv2_postscale
I0508 10:41:48.745738 28641 net.cpp:157] Top shape: 1024 150 18 18 (49766400)
I0508 10:41:48.745743 28641 net.cpp:165] Memory required for data: 3895361536
I0508 10:41:48.745748 28641 layer_factory.hpp:77] Creating layer pool2
I0508 10:41:48.745755 28641 net.cpp:100] Creating Layer pool2
I0508 10:41:48.745760 28641 net.cpp:434] pool2 <- conv2
I0508 10:41:48.745765 28641 net.cpp:408] pool2 -> pool2
I0508 10:41:48.745807 28641 net.cpp:150] Setting up pool2
I0508 10:41:48.745816 28641 net.cpp:157] Top shape: 1024 150 9 9 (12441600)
I0508 10:41:48.745822 28641 net.cpp:165] Memory required for data: 3945127936
I0508 10:41:48.745826 28641 layer_factory.hpp:77] Creating layer conv3
I0508 10:41:48.745836 28641 net.cpp:100] Creating Layer conv3
I0508 10:41:48.745841 28641 net.cpp:434] conv3 <- pool2
I0508 10:41:48.745846 28641 net.cpp:408] conv3 -> conv3
I0508 10:41:48.754804 28641 net.cpp:150] Setting up conv3
I0508 10:41:48.754822 28641 net.cpp:157] Top shape: 1024 250 6 6 (9216000)
I0508 10:41:48.754827 28641 net.cpp:165] Memory required for data: 3981991936
I0508 10:41:48.754837 28641 layer_factory.hpp:77] Creating layer conv3_prescale
I0508 10:41:48.754863 28641 net.cpp:100] Creating Layer conv3_prescale
I0508 10:41:48.754868 28641 net.cpp:434] conv3_prescale <- conv3
I0508 10:41:48.754875 28641 net.cpp:395] conv3_prescale -> conv3 (in-place)
I0508 10:41:48.754966 28641 net.cpp:150] Setting up conv3_prescale
I0508 10:41:48.754974 28641 net.cpp:157] Top shape: 1024 250 6 6 (9216000)
I0508 10:41:48.754978 28641 net.cpp:165] Memory required for data: 4018855936
I0508 10:41:48.754984 28641 layer_factory.hpp:77] Creating layer conv3_sTanH
I0508 10:41:48.754992 28641 net.cpp:100] Creating Layer conv3_sTanH
I0508 10:41:48.754997 28641 net.cpp:434] conv3_sTanH <- conv3
I0508 10:41:48.755002 28641 net.cpp:395] conv3_sTanH -> conv3 (in-place)
I0508 10:41:48.755179 28641 net.cpp:150] Setting up conv3_sTanH
I0508 10:41:48.755192 28641 net.cpp:157] Top shape: 1024 250 6 6 (9216000)
I0508 10:41:48.755197 28641 net.cpp:165] Memory required for data: 4055719936
I0508 10:41:48.755200 28641 layer_factory.hpp:77] Creating layer conv3_postscale
I0508 10:41:48.755208 28641 net.cpp:100] Creating Layer conv3_postscale
I0508 10:41:48.755213 28641 net.cpp:434] conv3_postscale <- conv3
I0508 10:41:48.755219 28641 net.cpp:395] conv3_postscale -> conv3 (in-place)
I0508 10:41:48.755313 28641 net.cpp:150] Setting up conv3_postscale
I0508 10:41:48.755322 28641 net.cpp:157] Top shape: 1024 250 6 6 (9216000)
I0508 10:41:48.755327 28641 net.cpp:165] Memory required for data: 4092583936
I0508 10:41:48.755332 28641 layer_factory.hpp:77] Creating layer pool3
I0508 10:41:48.755343 28641 net.cpp:100] Creating Layer pool3
I0508 10:41:48.755348 28641 net.cpp:434] pool3 <- conv3
I0508 10:41:48.755354 28641 net.cpp:408] pool3 -> pool3
I0508 10:41:48.755394 28641 net.cpp:150] Setting up pool3
I0508 10:41:48.755404 28641 net.cpp:157] Top shape: 1024 250 3 3 (2304000)
I0508 10:41:48.755409 28641 net.cpp:165] Memory required for data: 4101799936
I0508 10:41:48.755412 28641 layer_factory.hpp:77] Creating layer fc4_300
I0508 10:41:48.755419 28641 net.cpp:100] Creating Layer fc4_300
I0508 10:41:48.755424 28641 net.cpp:434] fc4_300 <- pool3
I0508 10:41:48.755429 28641 net.cpp:408] fc4_300 -> fc4_300
I0508 10:41:48.761185 28641 net.cpp:150] Setting up fc4_300
I0508 10:41:48.761203 28641 net.cpp:157] Top shape: 1024 300 (307200)
I0508 10:41:48.761206 28641 net.cpp:165] Memory required for data: 4103028736
I0508 10:41:48.761214 28641 layer_factory.hpp:77] Creating layer fc4_prescale
I0508 10:41:48.761222 28641 net.cpp:100] Creating Layer fc4_prescale
I0508 10:41:48.761226 28641 net.cpp:434] fc4_prescale <- fc4_300
I0508 10:41:48.761232 28641 net.cpp:395] fc4_prescale -> fc4_300 (in-place)
I0508 10:41:48.761320 28641 net.cpp:150] Setting up fc4_prescale
I0508 10:41:48.761329 28641 net.cpp:157] Top shape: 1024 300 (307200)
I0508 10:41:48.761333 28641 net.cpp:165] Memory required for data: 4104257536
I0508 10:41:48.761338 28641 layer_factory.hpp:77] Creating layer fc4_sTanH
I0508 10:41:48.761346 28641 net.cpp:100] Creating Layer fc4_sTanH
I0508 10:41:48.761351 28641 net.cpp:434] fc4_sTanH <- fc4_300
I0508 10:41:48.761356 28641 net.cpp:395] fc4_sTanH -> fc4_300 (in-place)
I0508 10:41:48.762404 28641 net.cpp:150] Setting up fc4_sTanH
I0508 10:41:48.762418 28641 net.cpp:157] Top shape: 1024 300 (307200)
I0508 10:41:48.762423 28641 net.cpp:165] Memory required for data: 4105486336
I0508 10:41:48.762428 28641 layer_factory.hpp:77] Creating layer fc4_postscale
I0508 10:41:48.762434 28641 net.cpp:100] Creating Layer fc4_postscale
I0508 10:41:48.762439 28641 net.cpp:434] fc4_postscale <- fc4_300
I0508 10:41:48.762445 28641 net.cpp:395] fc4_postscale -> fc4_300 (in-place)
I0508 10:41:48.762545 28641 net.cpp:150] Setting up fc4_postscale
I0508 10:41:48.762555 28641 net.cpp:157] Top shape: 1024 300 (307200)
I0508 10:41:48.762559 28641 net.cpp:165] Memory required for data: 4106715136
I0508 10:41:48.762565 28641 layer_factory.hpp:77] Creating layer fc5_116
I0508 10:41:48.762573 28641 net.cpp:100] Creating Layer fc5_116
I0508 10:41:48.762576 28641 net.cpp:434] fc5_116 <- fc4_300
I0508 10:41:48.762581 28641 net.cpp:408] fc5_116 -> fc5_classes
I0508 10:41:48.765228 28641 net.cpp:150] Setting up fc5_116
I0508 10:41:48.765244 28641 net.cpp:157] Top shape: 1024 116 (118784)
I0508 10:41:48.765247 28641 net.cpp:165] Memory required for data: 4107190272
I0508 10:41:48.765260 28641 layer_factory.hpp:77] Creating layer fc5_classes_fc5_116_0_split
I0508 10:41:48.765269 28641 net.cpp:100] Creating Layer fc5_classes_fc5_116_0_split
I0508 10:41:48.765272 28641 net.cpp:434] fc5_classes_fc5_116_0_split <- fc5_classes
I0508 10:41:48.765278 28641 net.cpp:408] fc5_classes_fc5_116_0_split -> fc5_classes_fc5_116_0_split_0
I0508 10:41:48.765286 28641 net.cpp:408] fc5_classes_fc5_116_0_split -> fc5_classes_fc5_116_0_split_1
I0508 10:41:48.765295 28641 net.cpp:408] fc5_classes_fc5_116_0_split -> fc5_classes_fc5_116_0_split_2
I0508 10:41:48.765347 28641 net.cpp:150] Setting up fc5_classes_fc5_116_0_split
I0508 10:41:48.765355 28641 net.cpp:157] Top shape: 1024 116 (118784)
I0508 10:41:48.765360 28641 net.cpp:157] Top shape: 1024 116 (118784)
I0508 10:41:48.765367 28641 net.cpp:157] Top shape: 1024 116 (118784)
I0508 10:41:48.765369 28641 net.cpp:165] Memory required for data: 4108615680
I0508 10:41:48.765373 28641 layer_factory.hpp:77] Creating layer softmax
I0508 10:41:48.765380 28641 net.cpp:100] Creating Layer softmax
I0508 10:41:48.765385 28641 net.cpp:434] softmax <- fc5_classes_fc5_116_0_split_0
I0508 10:41:48.765393 28641 net.cpp:408] softmax -> softmax
I0508 10:41:48.765640 28641 net.cpp:150] Setting up softmax
I0508 10:41:48.765653 28641 net.cpp:157] Top shape: 1024 116 (118784)
I0508 10:41:48.765656 28641 net.cpp:165] Memory required for data: 4109090816
I0508 10:41:48.765661 28641 layer_factory.hpp:77] Creating layer loss
I0508 10:41:48.765667 28641 net.cpp:100] Creating Layer loss
I0508 10:41:48.765671 28641 net.cpp:434] loss <- softmax
I0508 10:41:48.765677 28641 net.cpp:434] loss <- label_data_1_split_0
I0508 10:41:48.765682 28641 net.cpp:408] loss -> loss
…
