…
I0411 03:52:16.143780 22990 net.cpp:322] The NetState phase (0) differed from the phase (1) specified by a rule in layer accuracy_5
I0411 03:52:16.143980 22990 net.cpp:58] Initializing net from parameters: 
state {
  phase: TRAIN
  level: 0
  stage: ""
}
layer {
  name: "data"
  type: "Data"
  top: "data"
  top: "label"
  include {
    phase: TRAIN
  }
  transform_param {
    scale: 0.0039215689
    mirror: false
    crop_size: 48
    mean_value: 122
    mean_value: 115
    mean_value: 129
  }
  data_param {
    source: "../local_data/lmdb/rtsd-r1/orig/train/lmdb"
    batch_size: 1024
    backend: LMDB
  }
}
layer {
  name: "conv1"
  type: "Convolution"
  bottom: "data"
  top: "conv1"
  convolution_param {
    num_output: 100
    pad: 0
    kernel_size: 7
    group: 1
    stride: 1
    weight_filler {
      type: "xavier"
    }
  }
}
layer {
  name: "conv1_prescale"
  type: "Scale"
  bottom: "conv1"
  top: "conv1"
  param {
    lr_mult: 0
    decay_mult: 0
  }
  scale_param {
    filler {
      value: 0.6666
    }
    bias_term: false
  }
}
layer {
  name: "conv1_sTanH"
  type: "TanH"
  bottom: "conv1"
  top: "conv1"
}
layer {
  name: "conv1_postscale"
  type: "Scale"
  bottom: "conv1"
  top: "conv1"
  param {
    lr_mult: 0
    decay_mult: 0
  }
  scale_param {
    filler {
      value: 1.7159
    }
    bias_term: false
  }
}
layer {
  name: "pool1"
  type: "Pooling"
  bottom: "conv1"
  top: "pool1"
  pooling_param {
    pool: MAX
    kernel_size: 2
    stride: 2
  }
}
layer {
  name: "conv2"
  type: "Convolution"
  bottom: "pool1"
  top: "conv2"
  convolution_param {
    num_output: 150
    pad: 0
    kernel_size: 4
    group: 1
    stride: 1
    weight_filler {
      type: "xavier"
    }
  }
}
layer {
  name: "conv2_prescale"
  type: "Scale"
  bottom: "conv2"
  top: "conv2"
  param {
    lr_mult: 0
    decay_mult: 0
  }
  scale_param {
    filler {
      value: 0.6666
    }
    bias_term: false
  }
}
layer {
  name: "conv2_sTanH"
  type: "TanH"
  bottom: "conv2"
  top: "conv2"
}
layer {
  name: "conv2_postscale"
  type: "Scale"
  bottom: "conv2"
  top: "conv2"
  param {
    lr_mult: 0
    decay_mult: 0
  }
  scale_param {
    filler {
      value: 1.7159
    }
    bias_term: false
  }
}
layer {
  name: "pool2"
  type: "Pooling"
  bottom: "conv2"
  top: "pool2"
  pooling_param {
    pool: MAX
    kernel_size: 2
    stride: 2
  }
}
layer {
  name: "conv3"
  type: "Convolution"
  bottom: "pool2"
  top: "conv3"
  convolution_param {
    num_output: 250
    pad: 0
    kernel_size: 4
    group: 1
    stride: 1
    weight_filler {
      type: "xavier"
    }
  }
}
layer {
  name: "conv3_prescale"
  type: "Scale"
  bottom: "conv3"
  top: "conv3"
  param {
    lr_mult: 0
    decay_mult: 0
  }
  scale_param {
    filler {
      value: 0.6666
    }
    bias_term: false
  }
}
layer {
  name: "conv3_sTanH"
  type: "TanH"
  bottom: "conv3"
  top: "conv3"
}
layer {
  name: "conv3_postscale"
  type: "Scale"
  bottom: "conv3"
  top: "conv3"
  param {
    lr_mult: 0
    decay_mult: 0
  }
  scale_param {
    filler {
      value: 1.7159
    }
    bias_term: false
  }
}
layer {
  name: "pool3"
  type: "Pooling"
  bottom: "conv3"
  top: "pool3"
  pooling_param {
    pool: MAX
    kernel_size: 2
    stride: 2
  }
}
layer {
  name: "fc4_300"
  type: "InnerProduct"
  bottom: "pool3"
  top: "fc4_300"
  inner_product_param {
    num_output: 300
    weight_filler {
      type: "xavier"
    }
  }
}
layer {
  name: "fc4_prescale"
  type: "Scale"
  bottom: "fc4_300"
  top: "fc4_300"
  param {
    lr_mult: 0
    decay_mult: 0
  }
  scale_param {
    filler {
      value: 0.6666
    }
    bias_term: false
  }
}
layer {
  name: "fc4_sTanH"
  type: "TanH"
  bottom: "fc4_300"
  top: "fc4_300"
}
layer {
  name: "fc4_postscale"
  type: "Scale"
  bottom: "fc4_300"
  top: "fc4_300"
  param {
    lr_mult: 0
    decay_mult: 0
  }
  scale_param {
    filler {
      value: 1.7159
    }
    bias_term: false
  }
}
layer {
  name: "fc5_67"
  type: "InnerProduct"
  bottom: "fc4_300"
  top: "fc5_classes"
  inner_product_param {
    num_output: 67
    weight_filler {
      type: "xavier"
    }
  }
}
layer {
  name: "loss"
  type: "SoftmaxWithLoss"
  bottom: "fc5_classes"
  bottom: "label"
  top: "loss"
}
I0411 03:52:16.144115 22990 layer_factory.hpp:77] Creating layer data
I0411 03:52:16.145396 22990 net.cpp:100] Creating Layer data
I0411 03:52:16.145418 22990 net.cpp:408] data -> data
I0411 03:52:16.145452 22990 net.cpp:408] data -> label
I0411 03:52:16.149425 23109 db_lmdb.cpp:35] Opened lmdb ../local_data/lmdb/rtsd-r1/orig/train/lmdb
I0411 03:52:16.173362 22990 data_layer.cpp:41] output data size: 1024,3,48,48
I0411 03:52:16.238512 22990 net.cpp:150] Setting up data
I0411 03:52:16.238548 22990 net.cpp:157] Top shape: 1024 3 48 48 (7077888)
I0411 03:52:16.238555 22990 net.cpp:157] Top shape: 1024 (1024)
I0411 03:52:16.238559 22990 net.cpp:165] Memory required for data: 28315648
I0411 03:52:16.238571 22990 layer_factory.hpp:77] Creating layer conv1
I0411 03:52:16.238600 22990 net.cpp:100] Creating Layer conv1
I0411 03:52:16.238610 22990 net.cpp:434] conv1 <- data
I0411 03:52:16.238625 22990 net.cpp:408] conv1 -> conv1
I0411 03:52:16.576195 22990 net.cpp:150] Setting up conv1
I0411 03:52:16.576233 22990 net.cpp:157] Top shape: 1024 100 42 42 (180633600)
I0411 03:52:16.576238 22990 net.cpp:165] Memory required for data: 750850048
I0411 03:52:16.576263 22990 layer_factory.hpp:77] Creating layer conv1_prescale
I0411 03:52:16.576282 22990 net.cpp:100] Creating Layer conv1_prescale
I0411 03:52:16.576288 22990 net.cpp:434] conv1_prescale <- conv1
I0411 03:52:16.576297 22990 net.cpp:395] conv1_prescale -> conv1 (in-place)
I0411 03:52:16.576426 22990 net.cpp:150] Setting up conv1_prescale
I0411 03:52:16.576437 22990 net.cpp:157] Top shape: 1024 100 42 42 (180633600)
I0411 03:52:16.576441 22990 net.cpp:165] Memory required for data: 1473384448
I0411 03:52:16.576448 22990 layer_factory.hpp:77] Creating layer conv1_sTanH
I0411 03:52:16.576455 22990 net.cpp:100] Creating Layer conv1_sTanH
I0411 03:52:16.576460 22990 net.cpp:434] conv1_sTanH <- conv1
I0411 03:52:16.576467 22990 net.cpp:395] conv1_sTanH -> conv1 (in-place)
I0411 03:52:16.576701 22990 net.cpp:150] Setting up conv1_sTanH
I0411 03:52:16.576715 22990 net.cpp:157] Top shape: 1024 100 42 42 (180633600)
I0411 03:52:16.576726 22990 net.cpp:165] Memory required for data: 2195918848
I0411 03:52:16.576730 22990 layer_factory.hpp:77] Creating layer conv1_postscale
I0411 03:52:16.576740 22990 net.cpp:100] Creating Layer conv1_postscale
I0411 03:52:16.576745 22990 net.cpp:434] conv1_postscale <- conv1
I0411 03:52:16.576751 22990 net.cpp:395] conv1_postscale -> conv1 (in-place)
I0411 03:52:16.576866 22990 net.cpp:150] Setting up conv1_postscale
I0411 03:52:16.576876 22990 net.cpp:157] Top shape: 1024 100 42 42 (180633600)
I0411 03:52:16.576880 22990 net.cpp:165] Memory required for data: 2918453248
I0411 03:52:16.576886 22990 layer_factory.hpp:77] Creating layer pool1
I0411 03:52:16.576901 22990 net.cpp:100] Creating Layer pool1
I0411 03:52:16.576907 22990 net.cpp:434] pool1 <- conv1
I0411 03:52:16.576913 22990 net.cpp:408] pool1 -> pool1
I0411 03:52:16.576969 22990 net.cpp:150] Setting up pool1
I0411 03:52:16.576978 22990 net.cpp:157] Top shape: 1024 100 21 21 (45158400)
I0411 03:52:16.577008 22990 net.cpp:165] Memory required for data: 3099086848
I0411 03:52:16.577013 22990 layer_factory.hpp:77] Creating layer conv2
I0411 03:52:16.577023 22990 net.cpp:100] Creating Layer conv2
I0411 03:52:16.577029 22990 net.cpp:434] conv2 <- pool1
I0411 03:52:16.577035 22990 net.cpp:408] conv2 -> conv2
I0411 03:52:16.583668 22990 net.cpp:150] Setting up conv2
I0411 03:52:16.583688 22990 net.cpp:157] Top shape: 1024 150 18 18 (49766400)
I0411 03:52:16.583693 22990 net.cpp:165] Memory required for data: 3298152448
I0411 03:52:16.583705 22990 layer_factory.hpp:77] Creating layer conv2_prescale
I0411 03:52:16.583721 22990 net.cpp:100] Creating Layer conv2_prescale
I0411 03:52:16.583727 22990 net.cpp:434] conv2_prescale <- conv2
I0411 03:52:16.583737 22990 net.cpp:395] conv2_prescale -> conv2 (in-place)
I0411 03:52:16.583866 22990 net.cpp:150] Setting up conv2_prescale
I0411 03:52:16.583889 22990 net.cpp:157] Top shape: 1024 150 18 18 (49766400)
I0411 03:52:16.583894 22990 net.cpp:165] Memory required for data: 3497218048
I0411 03:52:16.583900 22990 layer_factory.hpp:77] Creating layer conv2_sTanH
I0411 03:52:16.583910 22990 net.cpp:100] Creating Layer conv2_sTanH
I0411 03:52:16.583916 22990 net.cpp:434] conv2_sTanH <- conv2
I0411 03:52:16.583925 22990 net.cpp:395] conv2_sTanH -> conv2 (in-place)
I0411 03:52:16.586104 22990 net.cpp:150] Setting up conv2_sTanH
I0411 03:52:16.586122 22990 net.cpp:157] Top shape: 1024 150 18 18 (49766400)
I0411 03:52:16.586127 22990 net.cpp:165] Memory required for data: 3696283648
I0411 03:52:16.586132 22990 layer_factory.hpp:77] Creating layer conv2_postscale
I0411 03:52:16.586140 22990 net.cpp:100] Creating Layer conv2_postscale
I0411 03:52:16.586144 22990 net.cpp:434] conv2_postscale <- conv2
I0411 03:52:16.586153 22990 net.cpp:395] conv2_postscale -> conv2 (in-place)
I0411 03:52:16.586278 22990 net.cpp:150] Setting up conv2_postscale
I0411 03:52:16.586288 22990 net.cpp:157] Top shape: 1024 150 18 18 (49766400)
I0411 03:52:16.586292 22990 net.cpp:165] Memory required for data: 3895349248
I0411 03:52:16.586297 22990 layer_factory.hpp:77] Creating layer pool2
I0411 03:52:16.586304 22990 net.cpp:100] Creating Layer pool2
I0411 03:52:16.586308 22990 net.cpp:434] pool2 <- conv2
I0411 03:52:16.586315 22990 net.cpp:408] pool2 -> pool2
I0411 03:52:16.586364 22990 net.cpp:150] Setting up pool2
I0411 03:52:16.586372 22990 net.cpp:157] Top shape: 1024 150 9 9 (12441600)
I0411 03:52:16.586376 22990 net.cpp:165] Memory required for data: 3945115648
I0411 03:52:16.586380 22990 layer_factory.hpp:77] Creating layer conv3
I0411 03:52:16.586392 22990 net.cpp:100] Creating Layer conv3
I0411 03:52:16.586397 22990 net.cpp:434] conv3 <- pool2
I0411 03:52:16.586403 22990 net.cpp:408] conv3 -> conv3
I0411 03:52:16.593185 22990 net.cpp:150] Setting up conv3
I0411 03:52:16.593206 22990 net.cpp:157] Top shape: 1024 250 6 6 (9216000)
I0411 03:52:16.593212 22990 net.cpp:165] Memory required for data: 3981979648
I0411 03:52:16.593227 22990 layer_factory.hpp:77] Creating layer conv3_prescale
I0411 03:52:16.593238 22990 net.cpp:100] Creating Layer conv3_prescale
I0411 03:52:16.593243 22990 net.cpp:434] conv3_prescale <- conv3
I0411 03:52:16.593250 22990 net.cpp:395] conv3_prescale -> conv3 (in-place)
I0411 03:52:16.593369 22990 net.cpp:150] Setting up conv3_prescale
I0411 03:52:16.593379 22990 net.cpp:157] Top shape: 1024 250 6 6 (9216000)
I0411 03:52:16.593381 22990 net.cpp:165] Memory required for data: 4018843648
I0411 03:52:16.593387 22990 layer_factory.hpp:77] Creating layer conv3_sTanH
I0411 03:52:16.593395 22990 net.cpp:100] Creating Layer conv3_sTanH
I0411 03:52:16.593399 22990 net.cpp:434] conv3_sTanH <- conv3
I0411 03:52:16.593403 22990 net.cpp:395] conv3_sTanH -> conv3 (in-place)
I0411 03:52:16.594522 22990 net.cpp:150] Setting up conv3_sTanH
I0411 03:52:16.594540 22990 net.cpp:157] Top shape: 1024 250 6 6 (9216000)
I0411 03:52:16.594547 22990 net.cpp:165] Memory required for data: 4055707648
I0411 03:52:16.594550 22990 layer_factory.hpp:77] Creating layer conv3_postscale
I0411 03:52:16.594560 22990 net.cpp:100] Creating Layer conv3_postscale
I0411 03:52:16.594581 22990 net.cpp:434] conv3_postscale <- conv3
I0411 03:52:16.594591 22990 net.cpp:395] conv3_postscale -> conv3 (in-place)
I0411 03:52:16.594718 22990 net.cpp:150] Setting up conv3_postscale
I0411 03:52:16.594729 22990 net.cpp:157] Top shape: 1024 250 6 6 (9216000)
I0411 03:52:16.594732 22990 net.cpp:165] Memory required for data: 4092571648
I0411 03:52:16.594738 22990 layer_factory.hpp:77] Creating layer pool3
I0411 03:52:16.594748 22990 net.cpp:100] Creating Layer pool3
I0411 03:52:16.594753 22990 net.cpp:434] pool3 <- conv3
I0411 03:52:16.594758 22990 net.cpp:408] pool3 -> pool3
I0411 03:52:16.594806 22990 net.cpp:150] Setting up pool3
I0411 03:52:16.594815 22990 net.cpp:157] Top shape: 1024 250 3 3 (2304000)
I0411 03:52:16.594818 22990 net.cpp:165] Memory required for data: 4101787648
I0411 03:52:16.594822 22990 layer_factory.hpp:77] Creating layer fc4_300
I0411 03:52:16.594833 22990 net.cpp:100] Creating Layer fc4_300
I0411 03:52:16.594840 22990 net.cpp:434] fc4_300 <- pool3
I0411 03:52:16.594846 22990 net.cpp:408] fc4_300 -> fc4_300
I0411 03:52:16.601464 22990 net.cpp:150] Setting up fc4_300
I0411 03:52:16.601483 22990 net.cpp:157] Top shape: 1024 300 (307200)
I0411 03:52:16.601487 22990 net.cpp:165] Memory required for data: 4103016448
I0411 03:52:16.601496 22990 layer_factory.hpp:77] Creating layer fc4_prescale
I0411 03:52:16.601508 22990 net.cpp:100] Creating Layer fc4_prescale
I0411 03:52:16.601513 22990 net.cpp:434] fc4_prescale <- fc4_300
I0411 03:52:16.601521 22990 net.cpp:395] fc4_prescale -> fc4_300 (in-place)
I0411 03:52:16.601630 22990 net.cpp:150] Setting up fc4_prescale
I0411 03:52:16.601639 22990 net.cpp:157] Top shape: 1024 300 (307200)
I0411 03:52:16.601644 22990 net.cpp:165] Memory required for data: 4104245248
I0411 03:52:16.601649 22990 layer_factory.hpp:77] Creating layer fc4_sTanH
I0411 03:52:16.601655 22990 net.cpp:100] Creating Layer fc4_sTanH
I0411 03:52:16.601658 22990 net.cpp:434] fc4_sTanH <- fc4_300
I0411 03:52:16.601663 22990 net.cpp:395] fc4_sTanH -> fc4_300 (in-place)
I0411 03:52:16.601897 22990 net.cpp:150] Setting up fc4_sTanH
I0411 03:52:16.601910 22990 net.cpp:157] Top shape: 1024 300 (307200)
I0411 03:52:16.601914 22990 net.cpp:165] Memory required for data: 4105474048
I0411 03:52:16.601917 22990 layer_factory.hpp:77] Creating layer fc4_postscale
I0411 03:52:16.601927 22990 net.cpp:100] Creating Layer fc4_postscale
I0411 03:52:16.601930 22990 net.cpp:434] fc4_postscale <- fc4_300
I0411 03:52:16.601936 22990 net.cpp:395] fc4_postscale -> fc4_300 (in-place)
I0411 03:52:16.602056 22990 net.cpp:150] Setting up fc4_postscale
I0411 03:52:16.602064 22990 net.cpp:157] Top shape: 1024 300 (307200)
I0411 03:52:16.602068 22990 net.cpp:165] Memory required for data: 4106702848
I0411 03:52:16.602073 22990 layer_factory.hpp:77] Creating layer fc5_67
I0411 03:52:16.602082 22990 net.cpp:100] Creating Layer fc5_67
I0411 03:52:16.602085 22990 net.cpp:434] fc5_67 <- fc4_300
I0411 03:52:16.602092 22990 net.cpp:408] fc5_67 -> fc5_classes
I0411 03:52:16.604753 22990 net.cpp:150] Setting up fc5_67
I0411 03:52:16.604771 22990 net.cpp:157] Top shape: 1024 67 (68608)
I0411 03:52:16.604775 22990 net.cpp:165] Memory required for data: 4106977280
I0411 03:52:16.604787 22990 layer_factory.hpp:77] Creating layer loss
I0411 03:52:16.604797 22990 net.cpp:100] Creating Layer loss
I0411 03:52:16.604801 22990 net.cpp:434] loss <- fc5_classes
I0411 03:52:16.604806 22990 net.cpp:434] loss <- label
I0411 03:52:16.604813 22990 net.cpp:408] loss -> loss
I0411 03:52:16.604830 22990 layer_factory.hpp:77] Creating layer loss
…
I0411 03:52:16.605727 22990 solver.cpp:193] Creating test net (#0) specified by test_net file: ./Prototxt/experiment_8/rtsd-r1/orig/trial_4/test.prototxt
I0411 03:52:16.605942 22990 net.cpp:58] Initializing net from parameters: 
state {
  phase: TEST
}
layer {
  name: "data"
  type: "Data"
  top: "data"
  top: "label"
  include {
    phase: TEST
  }
  transform_param {
    scale: 0.0039215689
    mirror: false
    crop_size: 48
    mean_value: 113
    mean_value: 110
    mean_value: 132
  }
  data_param {
    source: "../local_data/lmdb/rtsd-r1/orig/test/lmdb"
    batch_size: 1024
    backend: LMDB
  }
}
layer {
  name: "conv1"
  type: "Convolution"
  bottom: "data"
  top: "conv1"
  convolution_param {
    num_output: 100
    pad: 0
    kernel_size: 7
    group: 1
    stride: 1
    weight_filler {
      type: "xavier"
    }
  }
}
layer {
  name: "conv1_prescale"
  type: "Scale"
  bottom: "conv1"
  top: "conv1"
  param {
    lr_mult: 0
    decay_mult: 0
  }
  scale_param {
    filler {
      value: 0.6666
    }
    bias_term: false
  }
}
layer {
  name: "conv1_sTanH"
  type: "TanH"
  bottom: "conv1"
  top: "conv1"
}
layer {
  name: "conv1_postscale"
  type: "Scale"
  bottom: "conv1"
  top: "conv1"
  param {
    lr_mult: 0
    decay_mult: 0
  }
  scale_param {
    filler {
      value: 1.7159
    }
    bias_term: false
  }
}
layer {
  name: "pool1"
  type: "Pooling"
  bottom: "conv1"
  top: "pool1"
  pooling_param {
    pool: MAX
    kernel_size: 2
    stride: 2
  }
}
layer {
  name: "conv2"
  type: "Convolution"
  bottom: "pool1"
  top: "conv2"
  convolution_param {
    num_output: 150
    pad: 0
    kernel_size: 4
    group: 1
    stride: 1
    weight_filler {
      type: "xavier"
    }
  }
}
layer {
  name: "conv2_prescale"
  type: "Scale"
  bottom: "conv2"
  top: "conv2"
  param {
    lr_mult: 0
    decay_mult: 0
  }
  scale_param {
    filler {
      value: 0.6666
    }
    bias_term: false
  }
}
layer {
  name: "conv2_sTanH"
  type: "TanH"
  bottom: "conv2"
  top: "conv2"
}
layer {
  name: "conv2_postscale"
  type: "Scale"
  bottom: "conv2"
  top: "conv2"
  param {
    lr_mult: 0
    decay_mult: 0
  }
  scale_param {
    filler {
      value: 1.7159
    }
    bias_term: false
  }
}
layer {
  name: "pool2"
  type: "Pooling"
  bottom: "conv2"
  top: "pool2"
  pooling_param {
    pool: MAX
    kernel_size: 2
    stride: 2
  }
}
layer {
  name: "conv3"
  type: "Convolution"
  bottom: "pool2"
  top: "conv3"
  convolution_param {
    num_output: 250
    pad: 0
    kernel_size: 4
    group: 1
    stride: 1
    weight_filler {
      type: "xavier"
    }
  }
}
layer {
  name: "conv3_prescale"
  type: "Scale"
  bottom: "conv3"
  top: "conv3"
  param {
    lr_mult: 0
    decay_mult: 0
  }
  scale_param {
    filler {
      value: 0.6666
    }
    bias_term: false
  }
}
layer {
  name: "conv3_sTanH"
  type: "TanH"
  bottom: "conv3"
  top: "conv3"
}
layer {
  name: "conv3_postscale"
  type: "Scale"
  bottom: "conv3"
  top: "conv3"
  param {
    lr_mult: 0
    decay_mult: 0
  }
  scale_param {
    filler {
      value: 1.7159
    }
    bias_term: false
  }
}
layer {
  name: "pool3"
  type: "Pooling"
  bottom: "conv3"
  top: "pool3"
  pooling_param {
    pool: MAX
    kernel_size: 2
    stride: 2
  }
}
layer {
  name: "fc4_300"
  type: "InnerProduct"
  bottom: "pool3"
  top: "fc4_300"
  inner_product_param {
    num_output: 300
    weight_filler {
      type: "xavier"
    }
  }
}
layer {
  name: "fc4_prescale"
  type: "Scale"
  bottom: "fc4_300"
  top: "fc4_300"
  param {
    lr_mult: 0
    decay_mult: 0
  }
  scale_param {
    filler {
      value: 0.6666
    }
    bias_term: false
  }
}
layer {
  name: "fc4_sTanH"
  type: "TanH"
  bottom: "fc4_300"
  top: "fc4_300"
}
layer {
  name: "fc4_postscale"
  type: "Scale"
  bottom: "fc4_300"
  top: "fc4_300"
  param {
    lr_mult: 0
    decay_mult: 0
  }
  scale_param {
    filler {
      value: 1.7159
    }
    bias_term: false
  }
}
layer {
  name: "fc5_67"
  type: "InnerProduct"
  bottom: "fc4_300"
  top: "fc5_classes"
  inner_product_param {
    num_output: 67
    weight_filler {
      type: "xavier"
    }
  }
}
layer {
  name: "loss"
  type: "SoftmaxWithLoss"
  bottom: "fc5_classes"
  bottom: "label"
  top: "loss"
}
layer {
  name: "accuracy_1"
  type: "Accuracy"
  bottom: "fc5_classes"
  bottom: "label"
  top: "accuracy_1"
  include {
    phase: TEST
  }
  accuracy_param {
    top_k: 1
  }
}
layer {
  name: "accuracy_5"
  type: "Accuracy"
  bottom: "fc5_classes"
  bottom: "label"
  top: "accuracy_5"
  include {
    phase: TEST
  }
  accuracy_param {
    top_k: 5
  }
}
I0411 03:52:16.606086 22990 layer_factory.hpp:77] Creating layer data
I0411 03:52:16.606902 22990 net.cpp:100] Creating Layer data
I0411 03:52:16.606916 22990 net.cpp:408] data -> data
I0411 03:52:16.606930 22990 net.cpp:408] data -> label
I0411 03:52:16.608486 23154 db_lmdb.cpp:35] Opened lmdb ../local_data/lmdb/rtsd-r1/orig/test/lmdb
I0411 03:52:16.608677 22990 data_layer.cpp:41] output data size: 1024,3,48,48
I0411 03:52:16.658105 22990 net.cpp:150] Setting up data
I0411 03:52:16.658136 22990 net.cpp:157] Top shape: 1024 3 48 48 (7077888)
I0411 03:52:16.658145 22990 net.cpp:157] Top shape: 1024 (1024)
I0411 03:52:16.658150 22990 net.cpp:165] Memory required for data: 28315648
I0411 03:52:16.658161 22990 layer_factory.hpp:77] Creating layer label_data_1_split
I0411 03:52:16.658184 22990 net.cpp:100] Creating Layer label_data_1_split
I0411 03:52:16.658190 22990 net.cpp:434] label_data_1_split <- label
I0411 03:52:16.658202 22990 net.cpp:408] label_data_1_split -> label_data_1_split_0
I0411 03:52:16.658221 22990 net.cpp:408] label_data_1_split -> label_data_1_split_1
I0411 03:52:16.658233 22990 net.cpp:408] label_data_1_split -> label_data_1_split_2
I0411 03:52:16.658409 22990 net.cpp:150] Setting up label_data_1_split
I0411 03:52:16.658421 22990 net.cpp:157] Top shape: 1024 (1024)
I0411 03:52:16.658430 22990 net.cpp:157] Top shape: 1024 (1024)
I0411 03:52:16.658440 22990 net.cpp:157] Top shape: 1024 (1024)
I0411 03:52:16.658444 22990 net.cpp:165] Memory required for data: 28327936
I0411 03:52:16.658452 22990 layer_factory.hpp:77] Creating layer conv1
I0411 03:52:16.658471 22990 net.cpp:100] Creating Layer conv1
I0411 03:52:16.658478 22990 net.cpp:434] conv1 <- data
I0411 03:52:16.658494 22990 net.cpp:408] conv1 -> conv1
I0411 03:52:16.667011 22990 net.cpp:150] Setting up conv1
I0411 03:52:16.667032 22990 net.cpp:157] Top shape: 1024 100 42 42 (180633600)
I0411 03:52:16.667063 22990 net.cpp:165] Memory required for data: 750862336
I0411 03:52:16.667086 22990 layer_factory.hpp:77] Creating layer conv1_prescale
I0411 03:52:16.667100 22990 net.cpp:100] Creating Layer conv1_prescale
I0411 03:52:16.667109 22990 net.cpp:434] conv1_prescale <- conv1
I0411 03:52:16.667119 22990 net.cpp:395] conv1_prescale -> conv1 (in-place)
I0411 03:52:16.667259 22990 net.cpp:150] Setting up conv1_prescale
I0411 03:52:16.667270 22990 net.cpp:157] Top shape: 1024 100 42 42 (180633600)
I0411 03:52:16.667279 22990 net.cpp:165] Memory required for data: 1473396736
I0411 03:52:16.667291 22990 layer_factory.hpp:77] Creating layer conv1_sTanH
I0411 03:52:16.667302 22990 net.cpp:100] Creating Layer conv1_sTanH
I0411 03:52:16.667310 22990 net.cpp:434] conv1_sTanH <- conv1
I0411 03:52:16.667321 22990 net.cpp:395] conv1_sTanH -> conv1 (in-place)
I0411 03:52:16.667567 22990 net.cpp:150] Setting up conv1_sTanH
I0411 03:52:16.667582 22990 net.cpp:157] Top shape: 1024 100 42 42 (180633600)
I0411 03:52:16.667589 22990 net.cpp:165] Memory required for data: 2195931136
I0411 03:52:16.667595 22990 layer_factory.hpp:77] Creating layer conv1_postscale
I0411 03:52:16.667611 22990 net.cpp:100] Creating Layer conv1_postscale
I0411 03:52:16.667619 22990 net.cpp:434] conv1_postscale <- conv1
I0411 03:52:16.667628 22990 net.cpp:395] conv1_postscale -> conv1 (in-place)
I0411 03:52:16.667770 22990 net.cpp:150] Setting up conv1_postscale
I0411 03:52:16.667781 22990 net.cpp:157] Top shape: 1024 100 42 42 (180633600)
I0411 03:52:16.667789 22990 net.cpp:165] Memory required for data: 2918465536
I0411 03:52:16.667798 22990 layer_factory.hpp:77] Creating layer pool1
I0411 03:52:16.667814 22990 net.cpp:100] Creating Layer pool1
I0411 03:52:16.667821 22990 net.cpp:434] pool1 <- conv1
I0411 03:52:16.667829 22990 net.cpp:408] pool1 -> pool1
I0411 03:52:16.667904 22990 net.cpp:150] Setting up pool1
I0411 03:52:16.667917 22990 net.cpp:157] Top shape: 1024 100 21 21 (45158400)
I0411 03:52:16.667922 22990 net.cpp:165] Memory required for data: 3099099136
I0411 03:52:16.667927 22990 layer_factory.hpp:77] Creating layer conv2
I0411 03:52:16.667948 22990 net.cpp:100] Creating Layer conv2
I0411 03:52:16.667953 22990 net.cpp:434] conv2 <- pool1
I0411 03:52:16.667963 22990 net.cpp:408] conv2 -> conv2
I0411 03:52:16.679744 22990 net.cpp:150] Setting up conv2
I0411 03:52:16.679766 22990 net.cpp:157] Top shape: 1024 150 18 18 (49766400)
I0411 03:52:16.679775 22990 net.cpp:165] Memory required for data: 3298164736
I0411 03:52:16.679793 22990 layer_factory.hpp:77] Creating layer conv2_prescale
I0411 03:52:16.679812 22990 net.cpp:100] Creating Layer conv2_prescale
I0411 03:52:16.679819 22990 net.cpp:434] conv2_prescale <- conv2
I0411 03:52:16.679828 22990 net.cpp:395] conv2_prescale -> conv2 (in-place)
I0411 03:52:16.679992 22990 net.cpp:150] Setting up conv2_prescale
I0411 03:52:16.680006 22990 net.cpp:157] Top shape: 1024 150 18 18 (49766400)
I0411 03:52:16.680011 22990 net.cpp:165] Memory required for data: 3497230336
I0411 03:52:16.680021 22990 layer_factory.hpp:77] Creating layer conv2_sTanH
I0411 03:52:16.680030 22990 net.cpp:100] Creating Layer conv2_sTanH
I0411 03:52:16.680037 22990 net.cpp:434] conv2_sTanH <- conv2
I0411 03:52:16.680044 22990 net.cpp:395] conv2_sTanH -> conv2 (in-place)
I0411 03:52:16.682652 22990 net.cpp:150] Setting up conv2_sTanH
I0411 03:52:16.682675 22990 net.cpp:157] Top shape: 1024 150 18 18 (49766400)
I0411 03:52:16.682682 22990 net.cpp:165] Memory required for data: 3696295936
I0411 03:52:16.682685 22990 layer_factory.hpp:77] Creating layer conv2_postscale
I0411 03:52:16.682695 22990 net.cpp:100] Creating Layer conv2_postscale
I0411 03:52:16.682699 22990 net.cpp:434] conv2_postscale <- conv2
I0411 03:52:16.682708 22990 net.cpp:395] conv2_postscale -> conv2 (in-place)
I0411 03:52:16.682842 22990 net.cpp:150] Setting up conv2_postscale
I0411 03:52:16.682860 22990 net.cpp:157] Top shape: 1024 150 18 18 (49766400)
I0411 03:52:16.682867 22990 net.cpp:165] Memory required for data: 3895361536
I0411 03:52:16.682873 22990 layer_factory.hpp:77] Creating layer pool2
I0411 03:52:16.682896 22990 net.cpp:100] Creating Layer pool2
I0411 03:52:16.682904 22990 net.cpp:434] pool2 <- conv2
I0411 03:52:16.682909 22990 net.cpp:408] pool2 -> pool2
I0411 03:52:16.682971 22990 net.cpp:150] Setting up pool2
I0411 03:52:16.682981 22990 net.cpp:157] Top shape: 1024 150 9 9 (12441600)
I0411 03:52:16.682984 22990 net.cpp:165] Memory required for data: 3945127936
I0411 03:52:16.682987 22990 layer_factory.hpp:77] Creating layer conv3
I0411 03:52:16.682999 22990 net.cpp:100] Creating Layer conv3
I0411 03:52:16.683006 22990 net.cpp:434] conv3 <- pool2
I0411 03:52:16.683014 22990 net.cpp:408] conv3 -> conv3
I0411 03:52:16.690157 22990 net.cpp:150] Setting up conv3
I0411 03:52:16.690178 22990 net.cpp:157] Top shape: 1024 250 6 6 (9216000)
I0411 03:52:16.690184 22990 net.cpp:165] Memory required for data: 3981991936
I0411 03:52:16.690199 22990 layer_factory.hpp:77] Creating layer conv3_prescale
I0411 03:52:16.690210 22990 net.cpp:100] Creating Layer conv3_prescale
I0411 03:52:16.690217 22990 net.cpp:434] conv3_prescale <- conv3
I0411 03:52:16.690225 22990 net.cpp:395] conv3_prescale -> conv3 (in-place)
I0411 03:52:16.690348 22990 net.cpp:150] Setting up conv3_prescale
I0411 03:52:16.690358 22990 net.cpp:157] Top shape: 1024 250 6 6 (9216000)
I0411 03:52:16.690361 22990 net.cpp:165] Memory required for data: 4018855936
I0411 03:52:16.690367 22990 layer_factory.hpp:77] Creating layer conv3_sTanH
I0411 03:52:16.690376 22990 net.cpp:100] Creating Layer conv3_sTanH
I0411 03:52:16.690382 22990 net.cpp:434] conv3_sTanH <- conv3
I0411 03:52:16.690388 22990 net.cpp:395] conv3_sTanH -> conv3 (in-place)
I0411 03:52:16.692322 22990 net.cpp:150] Setting up conv3_sTanH
I0411 03:52:16.692342 22990 net.cpp:157] Top shape: 1024 250 6 6 (9216000)
I0411 03:52:16.692348 22990 net.cpp:165] Memory required for data: 4055719936
I0411 03:52:16.692353 22990 layer_factory.hpp:77] Creating layer conv3_postscale
I0411 03:52:16.692361 22990 net.cpp:100] Creating Layer conv3_postscale
I0411 03:52:16.692365 22990 net.cpp:434] conv3_postscale <- conv3
I0411 03:52:16.692375 22990 net.cpp:395] conv3_postscale -> conv3 (in-place)
I0411 03:52:16.692507 22990 net.cpp:150] Setting up conv3_postscale
I0411 03:52:16.692524 22990 net.cpp:157] Top shape: 1024 250 6 6 (9216000)
I0411 03:52:16.692528 22990 net.cpp:165] Memory required for data: 4092583936
I0411 03:52:16.692533 22990 layer_factory.hpp:77] Creating layer pool3
I0411 03:52:16.692544 22990 net.cpp:100] Creating Layer pool3
I0411 03:52:16.692550 22990 net.cpp:434] pool3 <- conv3
I0411 03:52:16.692556 22990 net.cpp:408] pool3 -> pool3
I0411 03:52:16.692606 22990 net.cpp:150] Setting up pool3
I0411 03:52:16.692615 22990 net.cpp:157] Top shape: 1024 250 3 3 (2304000)
I0411 03:52:16.692620 22990 net.cpp:165] Memory required for data: 4101799936
I0411 03:52:16.692623 22990 layer_factory.hpp:77] Creating layer fc4_300
I0411 03:52:16.692631 22990 net.cpp:100] Creating Layer fc4_300
I0411 03:52:16.692634 22990 net.cpp:434] fc4_300 <- pool3
I0411 03:52:16.692641 22990 net.cpp:408] fc4_300 -> fc4_300
I0411 03:52:16.700474 22990 net.cpp:150] Setting up fc4_300
I0411 03:52:16.700492 22990 net.cpp:157] Top shape: 1024 300 (307200)
I0411 03:52:16.700496 22990 net.cpp:165] Memory required for data: 4103028736
I0411 03:52:16.700505 22990 layer_factory.hpp:77] Creating layer fc4_prescale
I0411 03:52:16.700516 22990 net.cpp:100] Creating Layer fc4_prescale
I0411 03:52:16.700522 22990 net.cpp:434] fc4_prescale <- fc4_300
I0411 03:52:16.700531 22990 net.cpp:395] fc4_prescale -> fc4_300 (in-place)
I0411 03:52:16.700649 22990 net.cpp:150] Setting up fc4_prescale
I0411 03:52:16.700664 22990 net.cpp:157] Top shape: 1024 300 (307200)
I0411 03:52:16.700666 22990 net.cpp:165] Memory required for data: 4104257536
I0411 03:52:16.700672 22990 layer_factory.hpp:77] Creating layer fc4_sTanH
I0411 03:52:16.700680 22990 net.cpp:100] Creating Layer fc4_sTanH
I0411 03:52:16.700683 22990 net.cpp:434] fc4_sTanH <- fc4_300
I0411 03:52:16.700688 22990 net.cpp:395] fc4_sTanH -> fc4_300 (in-place)
I0411 03:52:16.700949 22990 net.cpp:150] Setting up fc4_sTanH
I0411 03:52:16.700963 22990 net.cpp:157] Top shape: 1024 300 (307200)
I0411 03:52:16.700966 22990 net.cpp:165] Memory required for data: 4105486336
I0411 03:52:16.700970 22990 layer_factory.hpp:77] Creating layer fc4_postscale
I0411 03:52:16.700980 22990 net.cpp:100] Creating Layer fc4_postscale
I0411 03:52:16.700986 22990 net.cpp:434] fc4_postscale <- fc4_300
I0411 03:52:16.700995 22990 net.cpp:395] fc4_postscale -> fc4_300 (in-place)
I0411 03:52:16.701122 22990 net.cpp:150] Setting up fc4_postscale
I0411 03:52:16.701130 22990 net.cpp:157] Top shape: 1024 300 (307200)
I0411 03:52:16.701133 22990 net.cpp:165] Memory required for data: 4106715136
I0411 03:52:16.701139 22990 layer_factory.hpp:77] Creating layer fc5_67
I0411 03:52:16.701148 22990 net.cpp:100] Creating Layer fc5_67
I0411 03:52:16.701151 22990 net.cpp:434] fc5_67 <- fc4_300
I0411 03:52:16.701158 22990 net.cpp:408] fc5_67 -> fc5_classes
I0411 03:52:16.701460 22990 net.cpp:150] Setting up fc5_67
I0411 03:52:16.701470 22990 net.cpp:157] Top shape: 1024 67 (68608)
I0411 03:52:16.701473 22990 net.cpp:165] Memory required for data: 4106989568
I0411 03:52:16.701485 22990 layer_factory.hpp:77] Creating layer fc5_classes_fc5_67_0_split
I0411 03:52:16.701494 22990 net.cpp:100] Creating Layer fc5_classes_fc5_67_0_split
I0411 03:52:16.701498 22990 net.cpp:434] fc5_classes_fc5_67_0_split <- fc5_classes
I0411 03:52:16.701508 22990 net.cpp:408] fc5_classes_fc5_67_0_split -> fc5_classes_fc5_67_0_split_0
I0411 03:52:16.701517 22990 net.cpp:408] fc5_classes_fc5_67_0_split -> fc5_classes_fc5_67_0_split_1
I0411 03:52:16.701525 22990 net.cpp:408] fc5_classes_fc5_67_0_split -> fc5_classes_fc5_67_0_split_2
I0411 03:52:16.701589 22990 net.cpp:150] Setting up fc5_classes_fc5_67_0_split
I0411 03:52:16.701601 22990 net.cpp:157] Top shape: 1024 67 (68608)
I0411 03:52:16.701606 22990 net.cpp:157] Top shape: 1024 67 (68608)
I0411 03:52:16.701609 22990 net.cpp:157] Top shape: 1024 67 (68608)
I0411 03:52:16.701612 22990 net.cpp:165] Memory required for data: 4107812864
I0411 03:52:16.701616 22990 layer_factory.hpp:77] Creating layer loss
I0411 03:52:16.701622 22990 net.cpp:100] Creating Layer loss
I0411 03:52:16.701627 22990 net.cpp:434] loss <- fc5_classes_fc5_67_0_split_0
I0411 03:52:16.701632 22990 net.cpp:434] loss <- label_data_1_split_0
I0411 03:52:16.701638 22990 net.cpp:408] loss -> loss
…
