…
I0414 03:34:20.231256 27656 solver.cpp:93] Creating training net from train_net file: ./Prototxt/experiment_10/rtsd-r1/CoNorm/trial_3/train.prototxt
I0414 03:34:20.231806 27656 net.cpp:58] Initializing net from parameters: 
state {
  phase: TRAIN
  level: 0
  stage: ""
}
layer {
  name: "data"
  type: "Data"
  top: "data"
  top: "label"
  include {
    phase: TRAIN
  }
  transform_param {
    scale: 0.0039215689
    mirror: false
    crop_size: 48
    mean_value: 132
    mean_value: 132
    mean_value: 131
  }
  data_param {
    source: "../local_data/lmdb/rtsd-r1/CoNorm/train/lmdb"
    batch_size: 1024
    backend: LMDB
  }
}
layer {
  name: "conv1"
  type: "Convolution"
  bottom: "data"
  top: "conv1"
  convolution_param {
    num_output: 100
    pad: 0
    kernel_size: 7
    group: 1
    stride: 1
    weight_filler {
      type: "xavier"
    }
  }
}
layer {
  name: "conv1_relu"
  type: "ReLU"
  bottom: "conv1"
  top: "conv1"
}
layer {
  name: "pool1"
  type: "Pooling"
  bottom: "conv1"
  top: "pool1"
  pooling_param {
    pool: MAX
    kernel_size: 2
    stride: 2
  }
}
layer {
  name: "conv2"
  type: "Convolution"
  bottom: "pool1"
  top: "conv2"
  convolution_param {
    num_output: 150
    pad: 0
    kernel_size: 4
    group: 1
    stride: 1
    weight_filler {
      type: "xavier"
    }
  }
}
layer {
  name: "conv2_relu"
  type: "ReLU"
  bottom: "conv2"
  top: "conv2"
}
layer {
  name: "pool2"
  type: "Pooling"
  bottom: "conv2"
  top: "pool2"
  pooling_param {
    pool: MAX
    kernel_size: 2
    stride: 2
  }
}
layer {
  name: "conv3"
  type: "Convolution"
  bottom: "pool2"
  top: "conv3"
  convolution_param {
    num_output: 250
    pad: 0
    kernel_size: 4
    group: 1
    stride: 1
    weight_filler {
      type: "xavier"
    }
  }
}
layer {
  name: "conv3_relu"
  type: "ReLU"
  bottom: "conv3"
  top: "conv3"
}
layer {
  name: "pool3"
  type: "Pooling"
  bottom: "conv3"
  top: "pool3"
  pooling_param {
    pool: MAX
    kernel_size: 2
    stride: 2
  }
}
layer {
  name: "fc4_300"
  type: "InnerProduct"
  bottom: "pool3"
  top: "fc4_300"
  inner_product_param {
    num_output: 300
    weight_filler {
      type: "xavier"
    }
  }
}
layer {
  name: "fc4_relu"
  type: "ReLU"
  bottom: "fc4_300"
  top: "fc4_300"
}
layer {
  name: "fc5_67"
  type: "InnerProduct"
  bottom: "fc4_300"
  top: "fc5_classes"
  inner_product_param {
    num_output: 67
    weight_filler {
      type: "xavier"
    }
  }
}
layer {
  name: "softmax"
  type: "Softmax"
  bottom: "fc5_classes"
  top: "softmax"
}
layer {
  name: "loss"
  type: "MultinomialLogisticLoss"
  bottom: "softmax"
  bottom: "label"
  top: "loss"
}
layer {
  name: "accuracy_1"
  type: "Accuracy"
  bottom: "fc5_classes"
  bottom: "label"
  top: "accuracy_1"
  accuracy_param {
    top_k: 1
  }
}
layer {
  name: "accuracy_5"
  type: "Accuracy"
  bottom: "fc5_classes"
  bottom: "label"
  top: "accuracy_5"
  accuracy_param {
    top_k: 5
  }
}
layer {
  name: "silence"
  type: "Silence"
  bottom: "accuracy_1"
  bottom: "accuracy_5"
}
I0414 03:34:20.232002 27656 layer_factory.hpp:77] Creating layer data
I0414 03:34:20.233630 27656 net.cpp:100] Creating Layer data
I0414 03:34:20.233650 27656 net.cpp:408] data -> data
I0414 03:34:20.233685 27656 net.cpp:408] data -> label
I0414 03:34:20.236596 27774 db_lmdb.cpp:35] Opened lmdb ../local_data/lmdb/rtsd-r1/CoNorm/train/lmdb
I0414 03:34:20.257863 27656 data_layer.cpp:41] output data size: 1024,3,48,48
I0414 03:34:20.323628 27656 net.cpp:150] Setting up data
I0414 03:34:20.323686 27656 net.cpp:157] Top shape: 1024 3 48 48 (7077888)
I0414 03:34:20.323693 27656 net.cpp:157] Top shape: 1024 (1024)
I0414 03:34:20.323696 27656 net.cpp:165] Memory required for data: 28315648
I0414 03:34:20.323710 27656 layer_factory.hpp:77] Creating layer label_data_1_split
I0414 03:34:20.323726 27656 net.cpp:100] Creating Layer label_data_1_split
I0414 03:34:20.323734 27656 net.cpp:434] label_data_1_split <- label
I0414 03:34:20.323748 27656 net.cpp:408] label_data_1_split -> label_data_1_split_0
I0414 03:34:20.323761 27656 net.cpp:408] label_data_1_split -> label_data_1_split_1
I0414 03:34:20.323770 27656 net.cpp:408] label_data_1_split -> label_data_1_split_2
I0414 03:34:20.323830 27656 net.cpp:150] Setting up label_data_1_split
I0414 03:34:20.323838 27656 net.cpp:157] Top shape: 1024 (1024)
I0414 03:34:20.323843 27656 net.cpp:157] Top shape: 1024 (1024)
I0414 03:34:20.323845 27656 net.cpp:157] Top shape: 1024 (1024)
I0414 03:34:20.323848 27656 net.cpp:165] Memory required for data: 28327936
I0414 03:34:20.323851 27656 layer_factory.hpp:77] Creating layer conv1
I0414 03:34:20.323868 27656 net.cpp:100] Creating Layer conv1
I0414 03:34:20.323871 27656 net.cpp:434] conv1 <- data
I0414 03:34:20.323891 27656 net.cpp:408] conv1 -> conv1
I0414 03:34:20.716743 27656 net.cpp:150] Setting up conv1
I0414 03:34:20.716769 27656 net.cpp:157] Top shape: 1024 100 42 42 (180633600)
I0414 03:34:20.716773 27656 net.cpp:165] Memory required for data: 750862336
I0414 03:34:20.716795 27656 layer_factory.hpp:77] Creating layer conv1_relu
I0414 03:34:20.716807 27656 net.cpp:100] Creating Layer conv1_relu
I0414 03:34:20.716811 27656 net.cpp:434] conv1_relu <- conv1
I0414 03:34:20.716817 27656 net.cpp:395] conv1_relu -> conv1 (in-place)
I0414 03:34:20.717005 27656 net.cpp:150] Setting up conv1_relu
I0414 03:34:20.717017 27656 net.cpp:157] Top shape: 1024 100 42 42 (180633600)
I0414 03:34:20.717020 27656 net.cpp:165] Memory required for data: 1473396736
I0414 03:34:20.717025 27656 layer_factory.hpp:77] Creating layer pool1
I0414 03:34:20.717034 27656 net.cpp:100] Creating Layer pool1
I0414 03:34:20.717037 27656 net.cpp:434] pool1 <- conv1
I0414 03:34:20.717042 27656 net.cpp:408] pool1 -> pool1
I0414 03:34:20.717095 27656 net.cpp:150] Setting up pool1
I0414 03:34:20.717103 27656 net.cpp:157] Top shape: 1024 100 21 21 (45158400)
I0414 03:34:20.717106 27656 net.cpp:165] Memory required for data: 1654030336
I0414 03:34:20.717109 27656 layer_factory.hpp:77] Creating layer conv2
I0414 03:34:20.717120 27656 net.cpp:100] Creating Layer conv2
I0414 03:34:20.717123 27656 net.cpp:434] conv2 <- pool1
I0414 03:34:20.717128 27656 net.cpp:408] conv2 -> conv2
I0414 03:34:20.722647 27656 net.cpp:150] Setting up conv2
I0414 03:34:20.722673 27656 net.cpp:157] Top shape: 1024 150 18 18 (49766400)
I0414 03:34:20.722679 27656 net.cpp:165] Memory required for data: 1853095936
I0414 03:34:20.722694 27656 layer_factory.hpp:77] Creating layer conv2_relu
I0414 03:34:20.722707 27656 net.cpp:100] Creating Layer conv2_relu
I0414 03:34:20.722715 27656 net.cpp:434] conv2_relu <- conv2
I0414 03:34:20.722723 27656 net.cpp:395] conv2_relu -> conv2 (in-place)
I0414 03:34:20.725083 27656 net.cpp:150] Setting up conv2_relu
I0414 03:34:20.725107 27656 net.cpp:157] Top shape: 1024 150 18 18 (49766400)
I0414 03:34:20.725113 27656 net.cpp:165] Memory required for data: 2052161536
I0414 03:34:20.725119 27656 layer_factory.hpp:77] Creating layer pool2
I0414 03:34:20.725128 27656 net.cpp:100] Creating Layer pool2
I0414 03:34:20.725134 27656 net.cpp:434] pool2 <- conv2
I0414 03:34:20.725143 27656 net.cpp:408] pool2 -> pool2
I0414 03:34:20.725211 27656 net.cpp:150] Setting up pool2
I0414 03:34:20.725229 27656 net.cpp:157] Top shape: 1024 150 9 9 (12441600)
I0414 03:34:20.725237 27656 net.cpp:165] Memory required for data: 2101927936
I0414 03:34:20.725244 27656 layer_factory.hpp:77] Creating layer conv3
I0414 03:34:20.725260 27656 net.cpp:100] Creating Layer conv3
I0414 03:34:20.725267 27656 net.cpp:434] conv3 <- pool2
I0414 03:34:20.725276 27656 net.cpp:408] conv3 -> conv3
I0414 03:34:20.733099 27656 net.cpp:150] Setting up conv3
I0414 03:34:20.733119 27656 net.cpp:157] Top shape: 1024 250 6 6 (9216000)
I0414 03:34:20.733122 27656 net.cpp:165] Memory required for data: 2138791936
I0414 03:34:20.733132 27656 layer_factory.hpp:77] Creating layer conv3_relu
I0414 03:34:20.733144 27656 net.cpp:100] Creating Layer conv3_relu
I0414 03:34:20.733147 27656 net.cpp:434] conv3_relu <- conv3
I0414 03:34:20.733153 27656 net.cpp:395] conv3_relu -> conv3 (in-place)
I0414 03:34:20.736169 27656 net.cpp:150] Setting up conv3_relu
I0414 03:34:20.736192 27656 net.cpp:157] Top shape: 1024 250 6 6 (9216000)
I0414 03:34:20.736197 27656 net.cpp:165] Memory required for data: 2175655936
I0414 03:34:20.736203 27656 layer_factory.hpp:77] Creating layer pool3
I0414 03:34:20.736212 27656 net.cpp:100] Creating Layer pool3
I0414 03:34:20.736218 27656 net.cpp:434] pool3 <- conv3
I0414 03:34:20.736232 27656 net.cpp:408] pool3 -> pool3
I0414 03:34:20.736297 27656 net.cpp:150] Setting up pool3
I0414 03:34:20.736309 27656 net.cpp:157] Top shape: 1024 250 3 3 (2304000)
I0414 03:34:20.736312 27656 net.cpp:165] Memory required for data: 2184871936
I0414 03:34:20.736316 27656 layer_factory.hpp:77] Creating layer fc4_300
I0414 03:34:20.736325 27656 net.cpp:100] Creating Layer fc4_300
I0414 03:34:20.736330 27656 net.cpp:434] fc4_300 <- pool3
I0414 03:34:20.736337 27656 net.cpp:408] fc4_300 -> fc4_300
I0414 03:34:20.744809 27656 net.cpp:150] Setting up fc4_300
I0414 03:34:20.744828 27656 net.cpp:157] Top shape: 1024 300 (307200)
I0414 03:34:20.744832 27656 net.cpp:165] Memory required for data: 2186100736
I0414 03:34:20.744839 27656 layer_factory.hpp:77] Creating layer fc4_relu
I0414 03:34:20.744848 27656 net.cpp:100] Creating Layer fc4_relu
I0414 03:34:20.744853 27656 net.cpp:434] fc4_relu <- fc4_300
I0414 03:34:20.744858 27656 net.cpp:395] fc4_relu -> fc4_300 (in-place)
I0414 03:34:20.745085 27656 net.cpp:150] Setting up fc4_relu
I0414 03:34:20.745100 27656 net.cpp:157] Top shape: 1024 300 (307200)
I0414 03:34:20.745113 27656 net.cpp:165] Memory required for data: 2187329536
I0414 03:34:20.745116 27656 layer_factory.hpp:77] Creating layer fc5_67
I0414 03:34:20.745126 27656 net.cpp:100] Creating Layer fc5_67
I0414 03:34:20.745129 27656 net.cpp:434] fc5_67 <- fc4_300
I0414 03:34:20.745136 27656 net.cpp:408] fc5_67 -> fc5_classes
I0414 03:34:20.746779 27656 net.cpp:150] Setting up fc5_67
I0414 03:34:20.746796 27656 net.cpp:157] Top shape: 1024 67 (68608)
I0414 03:34:20.746799 27656 net.cpp:165] Memory required for data: 2187603968
I0414 03:34:20.746814 27656 layer_factory.hpp:77] Creating layer fc5_classes_fc5_67_0_split
I0414 03:34:20.746826 27656 net.cpp:100] Creating Layer fc5_classes_fc5_67_0_split
I0414 03:34:20.746832 27656 net.cpp:434] fc5_classes_fc5_67_0_split <- fc5_classes
I0414 03:34:20.746842 27656 net.cpp:408] fc5_classes_fc5_67_0_split -> fc5_classes_fc5_67_0_split_0
I0414 03:34:20.746855 27656 net.cpp:408] fc5_classes_fc5_67_0_split -> fc5_classes_fc5_67_0_split_1
I0414 03:34:20.746867 27656 net.cpp:408] fc5_classes_fc5_67_0_split -> fc5_classes_fc5_67_0_split_2
I0414 03:34:20.746929 27656 net.cpp:150] Setting up fc5_classes_fc5_67_0_split
I0414 03:34:20.746938 27656 net.cpp:157] Top shape: 1024 67 (68608)
I0414 03:34:20.746942 27656 net.cpp:157] Top shape: 1024 67 (68608)
I0414 03:34:20.746944 27656 net.cpp:157] Top shape: 1024 67 (68608)
I0414 03:34:20.746947 27656 net.cpp:165] Memory required for data: 2188427264
I0414 03:34:20.746949 27656 layer_factory.hpp:77] Creating layer softmax
I0414 03:34:20.746958 27656 net.cpp:100] Creating Layer softmax
I0414 03:34:20.746963 27656 net.cpp:434] softmax <- fc5_classes_fc5_67_0_split_0
I0414 03:34:20.746968 27656 net.cpp:408] softmax -> softmax
I0414 03:34:20.747280 27656 net.cpp:150] Setting up softmax
I0414 03:34:20.747300 27656 net.cpp:157] Top shape: 1024 67 (68608)
I0414 03:34:20.747305 27656 net.cpp:165] Memory required for data: 2188701696
I0414 03:34:20.747310 27656 layer_factory.hpp:77] Creating layer loss
I0414 03:34:20.747323 27656 net.cpp:100] Creating Layer loss
I0414 03:34:20.747350 27656 net.cpp:434] loss <- softmax
I0414 03:34:20.747359 27656 net.cpp:434] loss <- label_data_1_split_0
I0414 03:34:20.747366 27656 net.cpp:408] loss -> loss
…
