…
I0412 04:28:26.299453 11894 solver.cpp:93] Creating training net from train_net file: ./Prototxt/experiment_10/rtsd-r1/CoNorm/trial_3/train.prototxt
I0412 04:28:26.299790 11894 net.cpp:58] Initializing net from parameters: 
state {
  phase: TRAIN
  level: 0
  stage: ""
}
layer {
  name: "data"
  type: "Data"
  top: "data"
  top: "label"
  include {
    phase: TRAIN
  }
  transform_param {
    scale: 0.0039215689
    mirror: false
    crop_size: 48
    mean_value: 132
    mean_value: 132
    mean_value: 131
  }
  data_param {
    source: "../local_data/lmdb/rtsd-r1/CoNorm/train/lmdb"
    batch_size: 1024
    backend: LMDB
  }
}
layer {
  name: "conv1"
  type: "Convolution"
  bottom: "data"
  top: "conv1"
  convolution_param {
    num_output: 100
    pad: 0
    kernel_size: 7
    group: 1
    stride: 1
    weight_filler {
      type: "xavier"
    }
  }
}
layer {
  name: "conv1_relu"
  type: "ReLU"
  bottom: "conv1"
  top: "conv1"
}
layer {
  name: "pool1"
  type: "Pooling"
  bottom: "conv1"
  top: "pool1"
  pooling_param {
    pool: MAX
    kernel_size: 2
    stride: 2
  }
}
layer {
  name: "conv2"
  type: "Convolution"
  bottom: "pool1"
  top: "conv2"
  convolution_param {
    num_output: 150
    pad: 0
    kernel_size: 4
    group: 1
    stride: 1
    weight_filler {
      type: "xavier"
    }
  }
}
layer {
  name: "conv2_relu"
  type: "ReLU"
  bottom: "conv2"
  top: "conv2"
}
layer {
  name: "pool2"
  type: "Pooling"
  bottom: "conv2"
  top: "pool2"
  pooling_param {
    pool: MAX
    kernel_size: 2
    stride: 2
  }
}
layer {
  name: "conv3"
  type: "Convolution"
  bottom: "pool2"
  top: "conv3"
  convolution_param {
    num_output: 250
    pad: 0
    kernel_size: 4
    group: 1
    stride: 1
    weight_filler {
      type: "xavier"
    }
  }
}
layer {
  name: "conv3_relu"
  type: "ReLU"
  bottom: "conv3"
  top: "conv3"
}
layer {
  name: "pool3"
  type: "Pooling"
  bottom: "conv3"
  top: "pool3"
  pooling_param {
    pool: MAX
    kernel_size: 2
    stride: 2
  }
}
layer {
  name: "fc4_300"
  type: "InnerProduct"
  bottom: "pool3"
  top: "fc4_300"
  inner_product_param {
    num_output: 300
    weight_filler {
      type: "xavier"
    }
  }
}
layer {
  name: "fc4_relu"
  type: "ReLU"
  bottom: "fc4_300"
  top: "fc4_300"
}
layer {
  name: "drop4"
  type: "Dropout"
  bottom: "fc4_300"
  top: "fc4_300"
  dropout_param {
    dropout_ratio: 0.4
  }
}
layer {
  name: "fc5_67"
  type: "InnerProduct"
  bottom: "fc4_300"
  top: "fc5_classes"
  inner_product_param {
    num_output: 67
    weight_filler {
      type: "xavier"
    }
  }
}
layer {
  name: "softmax"
  type: "Softmax"
  bottom: "fc5_classes"
  top: "softmax"
}
layer {
  name: "loss"
  type: "MultinomialLogisticLoss"
  bottom: "softmax"
  bottom: "label"
  top: "loss"
}
layer {
  name: "accuracy_1"
  type: "Accuracy"
  bottom: "fc5_classes"
  bottom: "label"
  top: "accuracy_1"
  accuracy_param {
    top_k: 1
  }
}
layer {
  name: "accuracy_5"
  type: "Accuracy"
  bottom: "fc5_classes"
  bottom: "label"
  top: "accuracy_5"
  accuracy_param {
    top_k: 5
  }
}
I0412 04:28:26.299926 11894 layer_factory.hpp:77] Creating layer data
I0412 04:28:26.300971 11894 net.cpp:100] Creating Layer data
I0412 04:28:26.300986 11894 net.cpp:408] data -> data
I0412 04:28:26.301009 11894 net.cpp:408] data -> label
I0412 04:28:26.305846 11997 db_lmdb.cpp:35] Opened lmdb ../local_data/lmdb/rtsd-r1/CoNorm/train/lmdb
I0412 04:28:26.323503 11894 data_layer.cpp:41] output data size: 1024,3,48,48
I0412 04:28:26.375607 11894 net.cpp:150] Setting up data
I0412 04:28:26.375636 11894 net.cpp:157] Top shape: 1024 3 48 48 (7077888)
I0412 04:28:26.375643 11894 net.cpp:157] Top shape: 1024 (1024)
I0412 04:28:26.375645 11894 net.cpp:165] Memory required for data: 28315648
I0412 04:28:26.375658 11894 layer_factory.hpp:77] Creating layer label_data_1_split
I0412 04:28:26.375670 11894 net.cpp:100] Creating Layer label_data_1_split
I0412 04:28:26.375679 11894 net.cpp:434] label_data_1_split <- label
I0412 04:28:26.375691 11894 net.cpp:408] label_data_1_split -> label_data_1_split_0
I0412 04:28:26.375705 11894 net.cpp:408] label_data_1_split -> label_data_1_split_1
I0412 04:28:26.375712 11894 net.cpp:408] label_data_1_split -> label_data_1_split_2
I0412 04:28:26.375773 11894 net.cpp:150] Setting up label_data_1_split
I0412 04:28:26.375782 11894 net.cpp:157] Top shape: 1024 (1024)
I0412 04:28:26.375785 11894 net.cpp:157] Top shape: 1024 (1024)
I0412 04:28:26.375789 11894 net.cpp:157] Top shape: 1024 (1024)
I0412 04:28:26.375792 11894 net.cpp:165] Memory required for data: 28327936
I0412 04:28:26.375795 11894 layer_factory.hpp:77] Creating layer conv1
I0412 04:28:26.375811 11894 net.cpp:100] Creating Layer conv1
I0412 04:28:26.375816 11894 net.cpp:434] conv1 <- data
I0412 04:28:26.375823 11894 net.cpp:408] conv1 -> conv1
I0412 04:28:26.681485 11894 net.cpp:150] Setting up conv1
I0412 04:28:26.681514 11894 net.cpp:157] Top shape: 1024 100 42 42 (180633600)
I0412 04:28:26.681519 11894 net.cpp:165] Memory required for data: 750862336
I0412 04:28:26.681540 11894 layer_factory.hpp:77] Creating layer conv1_relu
I0412 04:28:26.681552 11894 net.cpp:100] Creating Layer conv1_relu
I0412 04:28:26.681556 11894 net.cpp:434] conv1_relu <- conv1
I0412 04:28:26.681562 11894 net.cpp:395] conv1_relu -> conv1 (in-place)
I0412 04:28:26.681761 11894 net.cpp:150] Setting up conv1_relu
I0412 04:28:26.681773 11894 net.cpp:157] Top shape: 1024 100 42 42 (180633600)
I0412 04:28:26.681777 11894 net.cpp:165] Memory required for data: 1473396736
I0412 04:28:26.681780 11894 layer_factory.hpp:77] Creating layer pool1
I0412 04:28:26.681789 11894 net.cpp:100] Creating Layer pool1
I0412 04:28:26.681795 11894 net.cpp:434] pool1 <- conv1
I0412 04:28:26.681802 11894 net.cpp:408] pool1 -> pool1
I0412 04:28:26.681855 11894 net.cpp:150] Setting up pool1
I0412 04:28:26.681864 11894 net.cpp:157] Top shape: 1024 100 21 21 (45158400)
I0412 04:28:26.681867 11894 net.cpp:165] Memory required for data: 1654030336
I0412 04:28:26.681871 11894 layer_factory.hpp:77] Creating layer conv2
I0412 04:28:26.681882 11894 net.cpp:100] Creating Layer conv2
I0412 04:28:26.681887 11894 net.cpp:434] conv2 <- pool1
I0412 04:28:26.681892 11894 net.cpp:408] conv2 -> conv2
I0412 04:28:26.700685 11894 net.cpp:150] Setting up conv2
I0412 04:28:26.700706 11894 net.cpp:157] Top shape: 1024 150 18 18 (49766400)
I0412 04:28:26.700711 11894 net.cpp:165] Memory required for data: 1853095936
I0412 04:28:26.700722 11894 layer_factory.hpp:77] Creating layer conv2_relu
I0412 04:28:26.700731 11894 net.cpp:100] Creating Layer conv2_relu
I0412 04:28:26.700734 11894 net.cpp:434] conv2_relu <- conv2
I0412 04:28:26.700739 11894 net.cpp:395] conv2_relu -> conv2 (in-place)
I0412 04:28:26.701632 11894 net.cpp:150] Setting up conv2_relu
I0412 04:28:26.701647 11894 net.cpp:157] Top shape: 1024 150 18 18 (49766400)
I0412 04:28:26.701652 11894 net.cpp:165] Memory required for data: 2052161536
I0412 04:28:26.701655 11894 layer_factory.hpp:77] Creating layer pool2
I0412 04:28:26.701663 11894 net.cpp:100] Creating Layer pool2
I0412 04:28:26.701665 11894 net.cpp:434] pool2 <- conv2
I0412 04:28:26.701671 11894 net.cpp:408] pool2 -> pool2
I0412 04:28:26.701719 11894 net.cpp:150] Setting up pool2
I0412 04:28:26.701727 11894 net.cpp:157] Top shape: 1024 150 9 9 (12441600)
I0412 04:28:26.701730 11894 net.cpp:165] Memory required for data: 2101927936
I0412 04:28:26.701735 11894 layer_factory.hpp:77] Creating layer conv3
I0412 04:28:26.701745 11894 net.cpp:100] Creating Layer conv3
I0412 04:28:26.701750 11894 net.cpp:434] conv3 <- pool2
I0412 04:28:26.701774 11894 net.cpp:408] conv3 -> conv3
I0412 04:28:26.707795 11894 net.cpp:150] Setting up conv3
I0412 04:28:26.707815 11894 net.cpp:157] Top shape: 1024 250 6 6 (9216000)
I0412 04:28:26.707819 11894 net.cpp:165] Memory required for data: 2138791936
I0412 04:28:26.707830 11894 layer_factory.hpp:77] Creating layer conv3_relu
I0412 04:28:26.707839 11894 net.cpp:100] Creating Layer conv3_relu
I0412 04:28:26.707842 11894 net.cpp:434] conv3_relu <- conv3
I0412 04:28:26.707847 11894 net.cpp:395] conv3_relu -> conv3 (in-place)
I0412 04:28:26.710093 11894 net.cpp:150] Setting up conv3_relu
I0412 04:28:26.710109 11894 net.cpp:157] Top shape: 1024 250 6 6 (9216000)
I0412 04:28:26.710114 11894 net.cpp:165] Memory required for data: 2175655936
I0412 04:28:26.710117 11894 layer_factory.hpp:77] Creating layer pool3
I0412 04:28:26.710124 11894 net.cpp:100] Creating Layer pool3
I0412 04:28:26.710127 11894 net.cpp:434] pool3 <- conv3
I0412 04:28:26.710134 11894 net.cpp:408] pool3 -> pool3
I0412 04:28:26.710180 11894 net.cpp:150] Setting up pool3
I0412 04:28:26.710188 11894 net.cpp:157] Top shape: 1024 250 3 3 (2304000)
I0412 04:28:26.710191 11894 net.cpp:165] Memory required for data: 2184871936
I0412 04:28:26.710194 11894 layer_factory.hpp:77] Creating layer fc4_300
I0412 04:28:26.710201 11894 net.cpp:100] Creating Layer fc4_300
I0412 04:28:26.710206 11894 net.cpp:434] fc4_300 <- pool3
I0412 04:28:26.710211 11894 net.cpp:408] fc4_300 -> fc4_300
I0412 04:28:26.716711 11894 net.cpp:150] Setting up fc4_300
I0412 04:28:26.716744 11894 net.cpp:157] Top shape: 1024 300 (307200)
I0412 04:28:26.716750 11894 net.cpp:165] Memory required for data: 2186100736
I0412 04:28:26.716763 11894 layer_factory.hpp:77] Creating layer fc4_relu
I0412 04:28:26.716774 11894 net.cpp:100] Creating Layer fc4_relu
I0412 04:28:26.716780 11894 net.cpp:434] fc4_relu <- fc4_300
I0412 04:28:26.716789 11894 net.cpp:395] fc4_relu -> fc4_300 (in-place)
I0412 04:28:26.717092 11894 net.cpp:150] Setting up fc4_relu
I0412 04:28:26.717118 11894 net.cpp:157] Top shape: 1024 300 (307200)
I0412 04:28:26.717125 11894 net.cpp:165] Memory required for data: 2187329536
I0412 04:28:26.717133 11894 layer_factory.hpp:77] Creating layer drop4
I0412 04:28:26.717144 11894 net.cpp:100] Creating Layer drop4
I0412 04:28:26.717149 11894 net.cpp:434] drop4 <- fc4_300
I0412 04:28:26.717159 11894 net.cpp:395] drop4 -> fc4_300 (in-place)
I0412 04:28:26.717207 11894 net.cpp:150] Setting up drop4
I0412 04:28:26.717218 11894 net.cpp:157] Top shape: 1024 300 (307200)
I0412 04:28:26.717223 11894 net.cpp:165] Memory required for data: 2188558336
I0412 04:28:26.717229 11894 layer_factory.hpp:77] Creating layer fc5_67
I0412 04:28:26.717239 11894 net.cpp:100] Creating Layer fc5_67
I0412 04:28:26.717245 11894 net.cpp:434] fc5_67 <- fc4_300
I0412 04:28:26.717253 11894 net.cpp:408] fc5_67 -> fc5_classes
I0412 04:28:26.719357 11894 net.cpp:150] Setting up fc5_67
I0412 04:28:26.719377 11894 net.cpp:157] Top shape: 1024 67 (68608)
I0412 04:28:26.719383 11894 net.cpp:165] Memory required for data: 2188832768
I0412 04:28:26.719398 11894 layer_factory.hpp:77] Creating layer fc5_classes_fc5_67_0_split
I0412 04:28:26.719409 11894 net.cpp:100] Creating Layer fc5_classes_fc5_67_0_split
I0412 04:28:26.719415 11894 net.cpp:434] fc5_classes_fc5_67_0_split <- fc5_classes
I0412 04:28:26.719424 11894 net.cpp:408] fc5_classes_fc5_67_0_split -> fc5_classes_fc5_67_0_split_0
I0412 04:28:26.719435 11894 net.cpp:408] fc5_classes_fc5_67_0_split -> fc5_classes_fc5_67_0_split_1
I0412 04:28:26.719445 11894 net.cpp:408] fc5_classes_fc5_67_0_split -> fc5_classes_fc5_67_0_split_2
I0412 04:28:26.719538 11894 net.cpp:150] Setting up fc5_classes_fc5_67_0_split
I0412 04:28:26.719549 11894 net.cpp:157] Top shape: 1024 67 (68608)
I0412 04:28:26.719557 11894 net.cpp:157] Top shape: 1024 67 (68608)
I0412 04:28:26.719563 11894 net.cpp:157] Top shape: 1024 67 (68608)
I0412 04:28:26.719566 11894 net.cpp:165] Memory required for data: 2189656064
I0412 04:28:26.719571 11894 layer_factory.hpp:77] Creating layer softmax
I0412 04:28:26.719614 11894 net.cpp:100] Creating Layer softmax
I0412 04:28:26.719620 11894 net.cpp:434] softmax <- fc5_classes_fc5_67_0_split_0
I0412 04:28:26.719630 11894 net.cpp:408] softmax -> softmax
I0412 04:28:26.719985 11894 net.cpp:150] Setting up softmax
I0412 04:28:26.720000 11894 net.cpp:157] Top shape: 1024 67 (68608)
I0412 04:28:26.720003 11894 net.cpp:165] Memory required for data: 2189930496
I0412 04:28:26.720007 11894 layer_factory.hpp:77] Creating layer loss
I0412 04:28:26.720015 11894 net.cpp:100] Creating Layer loss
I0412 04:28:26.720017 11894 net.cpp:434] loss <- softmax
I0412 04:28:26.720022 11894 net.cpp:434] loss <- label_data_1_split_0
I0412 04:28:26.720029 11894 net.cpp:408] loss -> loss
…
