…
I0417 17:04:58.112445   415 solver.cpp:93] Creating training net from train_net file: ./Prototxt/experiment_11/rtsd-r1/CoNorm/trial_5/train.prototxt
I0417 17:04:58.113386   415 net.cpp:58] Initializing net from parameters: 
state {
  phase: TRAIN
  level: 0
  stage: ""
}
layer {
  name: "data"
  type: "Data"
  top: "data"
  top: "label"
  include {
    phase: TRAIN
  }
  transform_param {
    scale: 0.0039215689
    mirror: false
    crop_size: 48
    mean_value: 132
    mean_value: 132
    mean_value: 131
  }
  data_param {
    source: "../local_data/lmdb/rtsd-r1/CoNorm/train/lmdb"
    batch_size: 1024
    backend: LMDB
  }
}
layer {
  name: "conv1"
  type: "Convolution"
  bottom: "data"
  top: "conv1"
  convolution_param {
    num_output: 100
    pad: 0
    kernel_size: 7
    group: 1
    stride: 1
    weight_filler {
      type: "xavier"
    }
  }
}
layer {
  name: "conv1_prescale"
  type: "Scale"
  bottom: "conv1"
  top: "conv1"
  param {
    lr_mult: 0
    decay_mult: 0
  }
  scale_param {
    filler {
      value: 0.6666
    }
    bias_term: false
  }
}
layer {
  name: "conv1_sTanH"
  type: "TanH"
  bottom: "conv1"
  top: "conv1"
}
layer {
  name: "conv1_postscale"
  type: "Scale"
  bottom: "conv1"
  top: "conv1"
  param {
    lr_mult: 0
    decay_mult: 0
  }
  scale_param {
    filler {
      value: 1.7159
    }
    bias_term: false
  }
}
layer {
  name: "pool1"
  type: "Pooling"
  bottom: "conv1"
  top: "pool1"
  pooling_param {
    pool: MAX
    kernel_size: 2
    stride: 2
  }
}
layer {
  name: "conv2"
  type: "Convolution"
  bottom: "pool1"
  top: "conv2"
  convolution_param {
    num_output: 150
    pad: 0
    kernel_size: 4
    group: 1
    stride: 1
    weight_filler {
      type: "xavier"
    }
  }
}
layer {
  name: "conv2_prescale"
  type: "Scale"
  bottom: "conv2"
  top: "conv2"
  param {
    lr_mult: 0
    decay_mult: 0
  }
  scale_param {
    filler {
      value: 0.6666
    }
    bias_term: false
  }
}
layer {
  name: "conv2_sTanH"
  type: "TanH"
  bottom: "conv2"
  top: "conv2"
}
layer {
  name: "conv2_postscale"
  type: "Scale"
  bottom: "conv2"
  top: "conv2"
  param {
    lr_mult: 0
    decay_mult: 0
  }
  scale_param {
    filler {
      value: 1.7159
    }
    bias_term: false
  }
}
layer {
  name: "pool2"
  type: "Pooling"
  bottom: "conv2"
  top: "pool2"
  pooling_param {
    pool: MAX
    kernel_size: 2
    stride: 2
  }
}
layer {
  name: "conv3"
  type: "Convolution"
  bottom: "pool2"
  top: "conv3"
  convolution_param {
    num_output: 250
    pad: 0
    kernel_size: 4
    group: 1
    stride: 1
    weight_filler {
      type: "xavier"
    }
  }
}
layer {
  name: "conv3_prescale"
  type: "Scale"
  bottom: "conv3"
  top: "conv3"
  param {
    lr_mult: 0
    decay_mult: 0
  }
  scale_param {
    filler {
      value: 0.6666
    }
    bias_term: false
  }
}
layer {
  name: "conv3_sTanH"
  type: "TanH"
  bottom: "conv3"
  top: "conv3"
}
layer {
  name: "conv3_postscale"
  type: "Scale"
  bottom: "conv3"
  top: "conv3"
  param {
    lr_mult: 0
    decay_mult: 0
  }
  scale_param {
    filler {
      value: 1.7159
    }
    bias_term: false
  }
}
layer {
  name: "pool3"
  type: "Pooling"
  bottom: "conv3"
  top: "pool3"
  pooling_param {
    pool: MAX
    kernel_size: 2
    stride: 2
  }
}
layer {
  name: "fc4_300"
  type: "InnerProduct"
  bottom: "pool3"
  top: "fc4_300"
  inner_product_param {
    num_output: 300
    weight_filler {
      type: "xavier"
    }
  }
}
layer {
  name: "fc4_prescale"
  type: "Scale"
  bottom: "fc4_300"
  top: "fc4_300"
  param {
    lr_mult: 0
    decay_mult: 0
  }
  scale_param {
    filler {
      value: 0.6666
    }
    bias_term: false
  }
}
layer {
  name: "fc4_sTanH"
  type: "TanH"
  bottom: "fc4_300"
  top: "fc4_300"
}
layer {
  name: "fc4_postscale"
  type: "Scale"
  bottom: "fc4_300"
  top: "fc4_300"
  param {
    lr_mult: 0
    decay_mult: 0
  }
  scale_param {
    filler {
      value: 1.7159
    }
    bias_term: false
  }
}
layer {
  name: "fc5_67"
  type: "InnerProduct"
  bottom: "fc4_300"
  top: "fc5_classes"
  inner_product_param {
    num_output: 67
    weight_filler {
      type: "xavier"
    }
  }
}
layer {
  name: "softmax"
  type: "Softmax"
  bottom: "fc5_classes"
  top: "softmax"
}
layer {
  name: "loss"
  type: "MultinomialLogisticLoss"
  bottom: "softmax"
  bottom: "label"
  top: "loss"
}
layer {
  name: "accuracy_1"
  type: "Accuracy"
  bottom: "fc5_classes"
  bottom: "label"
  top: "accuracy_1"
  accuracy_param {
    top_k: 1
  }
}
layer {
  name: "accuracy_5"
  type: "Accuracy"
  bottom: "fc5_classes"
  bottom: "label"
  top: "accuracy_5"
  accuracy_param {
    top_k: 5
  }
}
layer {
  name: "silence"
  type: "Silence"
  bottom: "accuracy_1"
  bottom: "accuracy_5"
}
I0417 17:04:58.113674   415 layer_factory.hpp:77] Creating layer data
I0417 17:04:58.115916   415 net.cpp:100] Creating Layer data
I0417 17:04:58.115944   415 net.cpp:408] data -> data
I0417 17:04:58.115983   415 net.cpp:408] data -> label
I0417 17:04:58.137295   548 db_lmdb.cpp:35] Opened lmdb ../local_data/lmdb/rtsd-r1/CoNorm/train/lmdb
I0417 17:04:58.166344   415 data_layer.cpp:41] output data size: 1024,3,48,48
I0417 17:04:58.240181   415 net.cpp:150] Setting up data
I0417 17:04:58.240216   415 net.cpp:157] Top shape: 1024 3 48 48 (7077888)
I0417 17:04:58.240223   415 net.cpp:157] Top shape: 1024 (1024)
I0417 17:04:58.240227   415 net.cpp:165] Memory required for data: 28315648
I0417 17:04:58.240239   415 layer_factory.hpp:77] Creating layer label_data_1_split
I0417 17:04:58.240255   415 net.cpp:100] Creating Layer label_data_1_split
I0417 17:04:58.240263   415 net.cpp:434] label_data_1_split <- label
I0417 17:04:58.240278   415 net.cpp:408] label_data_1_split -> label_data_1_split_0
I0417 17:04:58.240300   415 net.cpp:408] label_data_1_split -> label_data_1_split_1
I0417 17:04:58.240311   415 net.cpp:408] label_data_1_split -> label_data_1_split_2
I0417 17:04:58.240396   415 net.cpp:150] Setting up label_data_1_split
I0417 17:04:58.240407   415 net.cpp:157] Top shape: 1024 (1024)
I0417 17:04:58.240412   415 net.cpp:157] Top shape: 1024 (1024)
I0417 17:04:58.240417   415 net.cpp:157] Top shape: 1024 (1024)
I0417 17:04:58.240422   415 net.cpp:165] Memory required for data: 28327936
I0417 17:04:58.240425   415 layer_factory.hpp:77] Creating layer conv1
I0417 17:04:58.240444   415 net.cpp:100] Creating Layer conv1
I0417 17:04:58.240450   415 net.cpp:434] conv1 <- data
I0417 17:04:58.240459   415 net.cpp:408] conv1 -> conv1
I0417 17:04:58.645611   415 net.cpp:150] Setting up conv1
I0417 17:04:58.645639   415 net.cpp:157] Top shape: 1024 100 42 42 (180633600)
I0417 17:04:58.645644   415 net.cpp:165] Memory required for data: 750862336
I0417 17:04:58.645666   415 layer_factory.hpp:77] Creating layer conv1_prescale
I0417 17:04:58.645679   415 net.cpp:100] Creating Layer conv1_prescale
I0417 17:04:58.645684   415 net.cpp:434] conv1_prescale <- conv1
I0417 17:04:58.645692   415 net.cpp:395] conv1_prescale -> conv1 (in-place)
I0417 17:04:58.645807   415 net.cpp:150] Setting up conv1_prescale
I0417 17:04:58.645818   415 net.cpp:157] Top shape: 1024 100 42 42 (180633600)
I0417 17:04:58.645822   415 net.cpp:165] Memory required for data: 1473396736
I0417 17:04:58.645828   415 layer_factory.hpp:77] Creating layer conv1_sTanH
I0417 17:04:58.645840   415 net.cpp:100] Creating Layer conv1_sTanH
I0417 17:04:58.645845   415 net.cpp:434] conv1_sTanH <- conv1
I0417 17:04:58.645850   415 net.cpp:395] conv1_sTanH -> conv1 (in-place)
I0417 17:04:58.646054   415 net.cpp:150] Setting up conv1_sTanH
I0417 17:04:58.646086   415 net.cpp:157] Top shape: 1024 100 42 42 (180633600)
I0417 17:04:58.646090   415 net.cpp:165] Memory required for data: 2195931136
I0417 17:04:58.646095   415 layer_factory.hpp:77] Creating layer conv1_postscale
I0417 17:04:58.646103   415 net.cpp:100] Creating Layer conv1_postscale
I0417 17:04:58.646107   415 net.cpp:434] conv1_postscale <- conv1
I0417 17:04:58.646112   415 net.cpp:395] conv1_postscale -> conv1 (in-place)
I0417 17:04:58.646214   415 net.cpp:150] Setting up conv1_postscale
I0417 17:04:58.646224   415 net.cpp:157] Top shape: 1024 100 42 42 (180633600)
I0417 17:04:58.646226   415 net.cpp:165] Memory required for data: 2918465536
I0417 17:04:58.646232   415 layer_factory.hpp:77] Creating layer pool1
I0417 17:04:58.646239   415 net.cpp:100] Creating Layer pool1
I0417 17:04:58.646245   415 net.cpp:434] pool1 <- conv1
I0417 17:04:58.646250   415 net.cpp:408] pool1 -> pool1
I0417 17:04:58.646301   415 net.cpp:150] Setting up pool1
I0417 17:04:58.646309   415 net.cpp:157] Top shape: 1024 100 21 21 (45158400)
I0417 17:04:58.646312   415 net.cpp:165] Memory required for data: 3099099136
I0417 17:04:58.646316   415 layer_factory.hpp:77] Creating layer conv2
I0417 17:04:58.646327   415 net.cpp:100] Creating Layer conv2
I0417 17:04:58.646332   415 net.cpp:434] conv2 <- pool1
I0417 17:04:58.646342   415 net.cpp:408] conv2 -> conv2
I0417 17:04:58.656244   415 net.cpp:150] Setting up conv2
I0417 17:04:58.656260   415 net.cpp:157] Top shape: 1024 150 18 18 (49766400)
I0417 17:04:58.656265   415 net.cpp:165] Memory required for data: 3298164736
I0417 17:04:58.656275   415 layer_factory.hpp:77] Creating layer conv2_prescale
I0417 17:04:58.656292   415 net.cpp:100] Creating Layer conv2_prescale
I0417 17:04:58.656299   415 net.cpp:434] conv2_prescale <- conv2
I0417 17:04:58.656304   415 net.cpp:395] conv2_prescale -> conv2 (in-place)
I0417 17:04:58.656409   415 net.cpp:150] Setting up conv2_prescale
I0417 17:04:58.656417   415 net.cpp:157] Top shape: 1024 150 18 18 (49766400)
I0417 17:04:58.656421   415 net.cpp:165] Memory required for data: 3497230336
I0417 17:04:58.656426   415 layer_factory.hpp:77] Creating layer conv2_sTanH
I0417 17:04:58.656431   415 net.cpp:100] Creating Layer conv2_sTanH
I0417 17:04:58.656436   415 net.cpp:434] conv2_sTanH <- conv2
I0417 17:04:58.656441   415 net.cpp:395] conv2_sTanH -> conv2 (in-place)
I0417 17:04:58.658632   415 net.cpp:150] Setting up conv2_sTanH
I0417 17:04:58.658648   415 net.cpp:157] Top shape: 1024 150 18 18 (49766400)
I0417 17:04:58.658651   415 net.cpp:165] Memory required for data: 3696295936
I0417 17:04:58.658655   415 layer_factory.hpp:77] Creating layer conv2_postscale
I0417 17:04:58.658663   415 net.cpp:100] Creating Layer conv2_postscale
I0417 17:04:58.658666   415 net.cpp:434] conv2_postscale <- conv2
I0417 17:04:58.658673   415 net.cpp:395] conv2_postscale -> conv2 (in-place)
I0417 17:04:58.658766   415 net.cpp:150] Setting up conv2_postscale
I0417 17:04:58.658773   415 net.cpp:157] Top shape: 1024 150 18 18 (49766400)
I0417 17:04:58.658777   415 net.cpp:165] Memory required for data: 3895361536
I0417 17:04:58.658782   415 layer_factory.hpp:77] Creating layer pool2
I0417 17:04:58.658789   415 net.cpp:100] Creating Layer pool2
I0417 17:04:58.658795   415 net.cpp:434] pool2 <- conv2
I0417 17:04:58.658800   415 net.cpp:408] pool2 -> pool2
I0417 17:04:58.658841   415 net.cpp:150] Setting up pool2
I0417 17:04:58.658849   415 net.cpp:157] Top shape: 1024 150 9 9 (12441600)
I0417 17:04:58.658852   415 net.cpp:165] Memory required for data: 3945127936
I0417 17:04:58.658855   415 layer_factory.hpp:77] Creating layer conv3
I0417 17:04:58.658864   415 net.cpp:100] Creating Layer conv3
I0417 17:04:58.658869   415 net.cpp:434] conv3 <- pool2
I0417 17:04:58.658874   415 net.cpp:408] conv3 -> conv3
I0417 17:04:58.668618   415 net.cpp:150] Setting up conv3
I0417 17:04:58.668635   415 net.cpp:157] Top shape: 1024 250 6 6 (9216000)
I0417 17:04:58.668639   415 net.cpp:165] Memory required for data: 3981991936
I0417 17:04:58.668649   415 layer_factory.hpp:77] Creating layer conv3_prescale
I0417 17:04:58.668670   415 net.cpp:100] Creating Layer conv3_prescale
I0417 17:04:58.668675   415 net.cpp:434] conv3_prescale <- conv3
I0417 17:04:58.668681   415 net.cpp:395] conv3_prescale -> conv3 (in-place)
I0417 17:04:58.668773   415 net.cpp:150] Setting up conv3_prescale
I0417 17:04:58.668783   415 net.cpp:157] Top shape: 1024 250 6 6 (9216000)
I0417 17:04:58.668787   415 net.cpp:165] Memory required for data: 4018855936
I0417 17:04:58.668792   415 layer_factory.hpp:77] Creating layer conv3_sTanH
I0417 17:04:58.668797   415 net.cpp:100] Creating Layer conv3_sTanH
I0417 17:04:58.668802   415 net.cpp:434] conv3_sTanH <- conv3
I0417 17:04:58.668807   415 net.cpp:395] conv3_sTanH -> conv3 (in-place)
I0417 17:04:58.670279   415 net.cpp:150] Setting up conv3_sTanH
I0417 17:04:58.670295   415 net.cpp:157] Top shape: 1024 250 6 6 (9216000)
I0417 17:04:58.670298   415 net.cpp:165] Memory required for data: 4055719936
I0417 17:04:58.670302   415 layer_factory.hpp:77] Creating layer conv3_postscale
I0417 17:04:58.670310   415 net.cpp:100] Creating Layer conv3_postscale
I0417 17:04:58.670315   415 net.cpp:434] conv3_postscale <- conv3
I0417 17:04:58.670321   415 net.cpp:395] conv3_postscale -> conv3 (in-place)
I0417 17:04:58.670418   415 net.cpp:150] Setting up conv3_postscale
I0417 17:04:58.670425   415 net.cpp:157] Top shape: 1024 250 6 6 (9216000)
I0417 17:04:58.670428   415 net.cpp:165] Memory required for data: 4092583936
I0417 17:04:58.670433   415 layer_factory.hpp:77] Creating layer pool3
I0417 17:04:58.670442   415 net.cpp:100] Creating Layer pool3
I0417 17:04:58.670447   415 net.cpp:434] pool3 <- conv3
I0417 17:04:58.670452   415 net.cpp:408] pool3 -> pool3
I0417 17:04:58.670490   415 net.cpp:150] Setting up pool3
I0417 17:04:58.670496   415 net.cpp:157] Top shape: 1024 250 3 3 (2304000)
I0417 17:04:58.670500   415 net.cpp:165] Memory required for data: 4101799936
I0417 17:04:58.670503   415 layer_factory.hpp:77] Creating layer fc4_300
I0417 17:04:58.670511   415 net.cpp:100] Creating Layer fc4_300
I0417 17:04:58.670516   415 net.cpp:434] fc4_300 <- pool3
I0417 17:04:58.670521   415 net.cpp:408] fc4_300 -> fc4_300
I0417 17:04:58.677301   415 net.cpp:150] Setting up fc4_300
I0417 17:04:58.677316   415 net.cpp:157] Top shape: 1024 300 (307200)
I0417 17:04:58.677320   415 net.cpp:165] Memory required for data: 4103028736
I0417 17:04:58.677327   415 layer_factory.hpp:77] Creating layer fc4_prescale
I0417 17:04:58.677335   415 net.cpp:100] Creating Layer fc4_prescale
I0417 17:04:58.677338   415 net.cpp:434] fc4_prescale <- fc4_300
I0417 17:04:58.677345   415 net.cpp:395] fc4_prescale -> fc4_300 (in-place)
I0417 17:04:58.677428   415 net.cpp:150] Setting up fc4_prescale
I0417 17:04:58.677436   415 net.cpp:157] Top shape: 1024 300 (307200)
I0417 17:04:58.677440   415 net.cpp:165] Memory required for data: 4104257536
I0417 17:04:58.677445   415 layer_factory.hpp:77] Creating layer fc4_sTanH
I0417 17:04:58.677450   415 net.cpp:100] Creating Layer fc4_sTanH
I0417 17:04:58.677454   415 net.cpp:434] fc4_sTanH <- fc4_300
I0417 17:04:58.677459   415 net.cpp:395] fc4_sTanH -> fc4_300 (in-place)
I0417 17:04:58.677639   415 net.cpp:150] Setting up fc4_sTanH
I0417 17:04:58.677651   415 net.cpp:157] Top shape: 1024 300 (307200)
I0417 17:04:58.677655   415 net.cpp:165] Memory required for data: 4105486336
I0417 17:04:58.677659   415 layer_factory.hpp:77] Creating layer fc4_postscale
I0417 17:04:58.677665   415 net.cpp:100] Creating Layer fc4_postscale
I0417 17:04:58.677670   415 net.cpp:434] fc4_postscale <- fc4_300
I0417 17:04:58.677675   415 net.cpp:395] fc4_postscale -> fc4_300 (in-place)
I0417 17:04:58.677769   415 net.cpp:150] Setting up fc4_postscale
I0417 17:04:58.677778   415 net.cpp:157] Top shape: 1024 300 (307200)
I0417 17:04:58.677780   415 net.cpp:165] Memory required for data: 4106715136
I0417 17:04:58.677785   415 layer_factory.hpp:77] Creating layer fc5_67
I0417 17:04:58.677791   415 net.cpp:100] Creating Layer fc5_67
I0417 17:04:58.677796   415 net.cpp:434] fc5_67 <- fc4_300
I0417 17:04:58.677801   415 net.cpp:408] fc5_67 -> fc5_classes
I0417 17:04:58.680737   415 net.cpp:150] Setting up fc5_67
I0417 17:04:58.680752   415 net.cpp:157] Top shape: 1024 67 (68608)
I0417 17:04:58.680755   415 net.cpp:165] Memory required for data: 4106989568
I0417 17:04:58.680765   415 layer_factory.hpp:77] Creating layer fc5_classes_fc5_67_0_split
I0417 17:04:58.680773   415 net.cpp:100] Creating Layer fc5_classes_fc5_67_0_split
I0417 17:04:58.680776   415 net.cpp:434] fc5_classes_fc5_67_0_split <- fc5_classes
I0417 17:04:58.680783   415 net.cpp:408] fc5_classes_fc5_67_0_split -> fc5_classes_fc5_67_0_split_0
I0417 17:04:58.680790   415 net.cpp:408] fc5_classes_fc5_67_0_split -> fc5_classes_fc5_67_0_split_1
I0417 17:04:58.680797   415 net.cpp:408] fc5_classes_fc5_67_0_split -> fc5_classes_fc5_67_0_split_2
I0417 17:04:58.680846   415 net.cpp:150] Setting up fc5_classes_fc5_67_0_split
I0417 17:04:58.680855   415 net.cpp:157] Top shape: 1024 67 (68608)
I0417 17:04:58.680858   415 net.cpp:157] Top shape: 1024 67 (68608)
I0417 17:04:58.680862   415 net.cpp:157] Top shape: 1024 67 (68608)
I0417 17:04:58.680865   415 net.cpp:165] Memory required for data: 4107812864
I0417 17:04:58.680868   415 layer_factory.hpp:77] Creating layer softmax
I0417 17:04:58.680874   415 net.cpp:100] Creating Layer softmax
I0417 17:04:58.680879   415 net.cpp:434] softmax <- fc5_classes_fc5_67_0_split_0
I0417 17:04:58.680884   415 net.cpp:408] softmax -> softmax
I0417 17:04:58.681130   415 net.cpp:150] Setting up softmax
I0417 17:04:58.681143   415 net.cpp:157] Top shape: 1024 67 (68608)
I0417 17:04:58.681145   415 net.cpp:165] Memory required for data: 4108087296
I0417 17:04:58.681149   415 layer_factory.hpp:77] Creating layer loss
I0417 17:04:58.681156   415 net.cpp:100] Creating Layer loss
I0417 17:04:58.681160   415 net.cpp:434] loss <- softmax
I0417 17:04:58.681164   415 net.cpp:434] loss <- label_data_1_split_0
I0417 17:04:58.681170   415 net.cpp:408] loss -> loss
…
