…
I0414 04:16:40.182374 32285 solver.cpp:93] Creating training net from train_net file: ./Prototxt/experiment_11/rtsd-r1/CoNorm/trial_5/train.prototxt
I0414 04:16:40.182828 32285 net.cpp:58] Initializing net from parameters: 
state {
  phase: TRAIN
  level: 0
  stage: ""
}
layer {
  name: "data"
  type: "Data"
  top: "data"
  top: "label"
  include {
    phase: TRAIN
  }
  transform_param {
    scale: 0.0039215689
    mirror: false
    crop_size: 48
    mean_value: 132
    mean_value: 132
    mean_value: 131
  }
  data_param {
    source: "../local_data/lmdb/rtsd-r1/CoNorm/train/lmdb"
    batch_size: 1024
    backend: LMDB
  }
}
layer {
  name: "conv1"
  type: "Convolution"
  bottom: "data"
  top: "conv1"
  convolution_param {
    num_output: 100
    pad: 0
    kernel_size: 7
    group: 1
    stride: 1
    weight_filler {
      type: "xavier"
    }
  }
}
layer {
  name: "conv1_prescale"
  type: "Scale"
  bottom: "conv1"
  top: "conv1"
  param {
    lr_mult: 0
    decay_mult: 0
  }
  scale_param {
    filler {
      value: 0.6666
    }
    bias_term: false
  }
}
layer {
  name: "conv1_sTanH"
  type: "TanH"
  bottom: "conv1"
  top: "conv1"
}
layer {
  name: "conv1_postscale"
  type: "Scale"
  bottom: "conv1"
  top: "conv1"
  param {
    lr_mult: 0
    decay_mult: 0
  }
  scale_param {
    filler {
      value: 1.7159
    }
    bias_term: false
  }
}
layer {
  name: "pool1"
  type: "Pooling"
  bottom: "conv1"
  top: "pool1"
  pooling_param {
    pool: MAX
    kernel_size: 2
    stride: 2
  }
}
layer {
  name: "conv2"
  type: "Convolution"
  bottom: "pool1"
  top: "conv2"
  convolution_param {
    num_output: 150
    pad: 0
    kernel_size: 4
    group: 1
    stride: 1
    weight_filler {
      type: "xavier"
    }
  }
}
layer {
  name: "conv2_prescale"
  type: "Scale"
  bottom: "conv2"
  top: "conv2"
  param {
    lr_mult: 0
    decay_mult: 0
  }
  scale_param {
    filler {
      value: 0.6666
    }
    bias_term: false
  }
}
layer {
  name: "conv2_sTanH"
  type: "TanH"
  bottom: "conv2"
  top: "conv2"
}
layer {
  name: "conv2_postscale"
  type: "Scale"
  bottom: "conv2"
  top: "conv2"
  param {
    lr_mult: 0
    decay_mult: 0
  }
  scale_param {
    filler {
      value: 1.7159
    }
    bias_term: false
  }
}
layer {
  name: "pool2"
  type: "Pooling"
  bottom: "conv2"
  top: "pool2"
  pooling_param {
    pool: MAX
    kernel_size: 2
    stride: 2
  }
}
layer {
  name: "conv3"
  type: "Convolution"
  bottom: "pool2"
  top: "conv3"
  convolution_param {
    num_output: 250
    pad: 0
    kernel_size: 4
    group: 1
    stride: 1
    weight_filler {
      type: "xavier"
    }
  }
}
layer {
  name: "conv3_prescale"
  type: "Scale"
  bottom: "conv3"
  top: "conv3"
  param {
    lr_mult: 0
    decay_mult: 0
  }
  scale_param {
    filler {
      value: 0.6666
    }
    bias_term: false
  }
}
layer {
  name: "conv3_sTanH"
  type: "TanH"
  bottom: "conv3"
  top: "conv3"
}
layer {
  name: "conv3_postscale"
  type: "Scale"
  bottom: "conv3"
  top: "conv3"
  param {
    lr_mult: 0
    decay_mult: 0
  }
  scale_param {
    filler {
      value: 1.7159
    }
    bias_term: false
  }
}
layer {
  name: "pool3"
  type: "Pooling"
  bottom: "conv3"
  top: "pool3"
  pooling_param {
    pool: MAX
    kernel_size: 2
    stride: 2
  }
}
layer {
  name: "fc4_300"
  type: "InnerProduct"
  bottom: "pool3"
  top: "fc4_300"
  inner_product_param {
    num_output: 300
    weight_filler {
      type: "xavier"
    }
  }
}
layer {
  name: "fc4_prescale"
  type: "Scale"
  bottom: "fc4_300"
  top: "fc4_300"
  param {
    lr_mult: 0
    decay_mult: 0
  }
  scale_param {
    filler {
      value: 0.6666
    }
    bias_term: false
  }
}
layer {
  name: "fc4_sTanH"
  type: "TanH"
  bottom: "fc4_300"
  top: "fc4_300"
}
layer {
  name: "fc4_postscale"
  type: "Scale"
  bottom: "fc4_300"
  top: "fc4_300"
  param {
    lr_mult: 0
    decay_mult: 0
  }
  scale_param {
    filler {
      value: 1.7159
    }
    bias_term: false
  }
}
layer {
  name: "fc5_67"
  type: "InnerProduct"
  bottom: "fc4_300"
  top: "fc5_classes"
  inner_product_param {
    num_output: 67
    weight_filler {
      type: "xavier"
    }
  }
}
layer {
  name: "softmax"
  type: "Softmax"
  bottom: "fc5_classes"
  top: "softmax"
}
layer {
  name: "loss"
  type: "MultinomialLogisticLoss"
  bottom: "softmax"
  bottom: "label"
  top: "loss"
}
layer {
  name: "accuracy_1"
  type: "Accuracy"
  bottom: "fc5_classes"
  bottom: "label"
  top: "accuracy_1"
  accuracy_param {
    top_k: 1
  }
}
layer {
  name: "accuracy_5"
  type: "Accuracy"
  bottom: "fc5_classes"
  bottom: "label"
  top: "accuracy_5"
  accuracy_param {
    top_k: 5
  }
}
layer {
  name: "silence"
  type: "Silence"
  bottom: "accuracy_1"
  bottom: "accuracy_5"
}
I0414 04:16:40.182979 32285 layer_factory.hpp:77] Creating layer data
I0414 04:16:40.184062 32285 net.cpp:100] Creating Layer data
I0414 04:16:40.184078 32285 net.cpp:408] data -> data
I0414 04:16:40.184100 32285 net.cpp:408] data -> label
I0414 04:16:40.185278 32382 db_lmdb.cpp:35] Opened lmdb ../local_data/lmdb/rtsd-r1/CoNorm/train/lmdb
I0414 04:16:40.202373 32285 data_layer.cpp:41] output data size: 1024,3,48,48
I0414 04:16:40.258529 32285 net.cpp:150] Setting up data
I0414 04:16:40.258559 32285 net.cpp:157] Top shape: 1024 3 48 48 (7077888)
I0414 04:16:40.258564 32285 net.cpp:157] Top shape: 1024 (1024)
I0414 04:16:40.258569 32285 net.cpp:165] Memory required for data: 28315648
I0414 04:16:40.258579 32285 layer_factory.hpp:77] Creating layer label_data_1_split
I0414 04:16:40.258594 32285 net.cpp:100] Creating Layer label_data_1_split
I0414 04:16:40.258601 32285 net.cpp:434] label_data_1_split <- label
I0414 04:16:40.258615 32285 net.cpp:408] label_data_1_split -> label_data_1_split_0
I0414 04:16:40.258630 32285 net.cpp:408] label_data_1_split -> label_data_1_split_1
I0414 04:16:40.258638 32285 net.cpp:408] label_data_1_split -> label_data_1_split_2
I0414 04:16:40.258705 32285 net.cpp:150] Setting up label_data_1_split
I0414 04:16:40.258716 32285 net.cpp:157] Top shape: 1024 (1024)
I0414 04:16:40.258719 32285 net.cpp:157] Top shape: 1024 (1024)
I0414 04:16:40.258723 32285 net.cpp:157] Top shape: 1024 (1024)
I0414 04:16:40.258726 32285 net.cpp:165] Memory required for data: 28327936
I0414 04:16:40.258729 32285 layer_factory.hpp:77] Creating layer conv1
I0414 04:16:40.258744 32285 net.cpp:100] Creating Layer conv1
I0414 04:16:40.258749 32285 net.cpp:434] conv1 <- data
I0414 04:16:40.258757 32285 net.cpp:408] conv1 -> conv1
I0414 04:16:40.646714 32285 net.cpp:150] Setting up conv1
I0414 04:16:40.646742 32285 net.cpp:157] Top shape: 1024 100 42 42 (180633600)
I0414 04:16:40.646746 32285 net.cpp:165] Memory required for data: 750862336
I0414 04:16:40.646770 32285 layer_factory.hpp:77] Creating layer conv1_prescale
I0414 04:16:40.646783 32285 net.cpp:100] Creating Layer conv1_prescale
I0414 04:16:40.646788 32285 net.cpp:434] conv1_prescale <- conv1
I0414 04:16:40.646795 32285 net.cpp:395] conv1_prescale -> conv1 (in-place)
I0414 04:16:40.646901 32285 net.cpp:150] Setting up conv1_prescale
I0414 04:16:40.646910 32285 net.cpp:157] Top shape: 1024 100 42 42 (180633600)
I0414 04:16:40.646915 32285 net.cpp:165] Memory required for data: 1473396736
I0414 04:16:40.646921 32285 layer_factory.hpp:77] Creating layer conv1_sTanH
I0414 04:16:40.646931 32285 net.cpp:100] Creating Layer conv1_sTanH
I0414 04:16:40.646935 32285 net.cpp:434] conv1_sTanH <- conv1
I0414 04:16:40.646940 32285 net.cpp:395] conv1_sTanH -> conv1 (in-place)
I0414 04:16:40.647133 32285 net.cpp:150] Setting up conv1_sTanH
I0414 04:16:40.647166 32285 net.cpp:157] Top shape: 1024 100 42 42 (180633600)
I0414 04:16:40.647169 32285 net.cpp:165] Memory required for data: 2195931136
I0414 04:16:40.647173 32285 layer_factory.hpp:77] Creating layer conv1_postscale
I0414 04:16:40.647181 32285 net.cpp:100] Creating Layer conv1_postscale
I0414 04:16:40.647184 32285 net.cpp:434] conv1_postscale <- conv1
I0414 04:16:40.647191 32285 net.cpp:395] conv1_postscale -> conv1 (in-place)
I0414 04:16:40.647286 32285 net.cpp:150] Setting up conv1_postscale
I0414 04:16:40.647295 32285 net.cpp:157] Top shape: 1024 100 42 42 (180633600)
I0414 04:16:40.647300 32285 net.cpp:165] Memory required for data: 2918465536
I0414 04:16:40.647305 32285 layer_factory.hpp:77] Creating layer pool1
I0414 04:16:40.647312 32285 net.cpp:100] Creating Layer pool1
I0414 04:16:40.647316 32285 net.cpp:434] pool1 <- conv1
I0414 04:16:40.647321 32285 net.cpp:408] pool1 -> pool1
I0414 04:16:40.647368 32285 net.cpp:150] Setting up pool1
I0414 04:16:40.647377 32285 net.cpp:157] Top shape: 1024 100 21 21 (45158400)
I0414 04:16:40.647380 32285 net.cpp:165] Memory required for data: 3099099136
I0414 04:16:40.647383 32285 layer_factory.hpp:77] Creating layer conv2
I0414 04:16:40.647392 32285 net.cpp:100] Creating Layer conv2
I0414 04:16:40.647397 32285 net.cpp:434] conv2 <- pool1
I0414 04:16:40.647403 32285 net.cpp:408] conv2 -> conv2
I0414 04:16:40.651675 32285 net.cpp:150] Setting up conv2
I0414 04:16:40.651692 32285 net.cpp:157] Top shape: 1024 150 18 18 (49766400)
I0414 04:16:40.651695 32285 net.cpp:165] Memory required for data: 3298164736
I0414 04:16:40.651705 32285 layer_factory.hpp:77] Creating layer conv2_prescale
I0414 04:16:40.651715 32285 net.cpp:100] Creating Layer conv2_prescale
I0414 04:16:40.651720 32285 net.cpp:434] conv2_prescale <- conv2
I0414 04:16:40.651724 32285 net.cpp:395] conv2_prescale -> conv2 (in-place)
I0414 04:16:40.651832 32285 net.cpp:150] Setting up conv2_prescale
I0414 04:16:40.651841 32285 net.cpp:157] Top shape: 1024 150 18 18 (49766400)
I0414 04:16:40.651845 32285 net.cpp:165] Memory required for data: 3497230336
I0414 04:16:40.651850 32285 layer_factory.hpp:77] Creating layer conv2_sTanH
I0414 04:16:40.651857 32285 net.cpp:100] Creating Layer conv2_sTanH
I0414 04:16:40.651861 32285 net.cpp:434] conv2_sTanH <- conv2
I0414 04:16:40.651866 32285 net.cpp:395] conv2_sTanH -> conv2 (in-place)
I0414 04:16:40.652601 32285 net.cpp:150] Setting up conv2_sTanH
I0414 04:16:40.652618 32285 net.cpp:157] Top shape: 1024 150 18 18 (49766400)
I0414 04:16:40.652622 32285 net.cpp:165] Memory required for data: 3696295936
I0414 04:16:40.652626 32285 layer_factory.hpp:77] Creating layer conv2_postscale
I0414 04:16:40.652632 32285 net.cpp:100] Creating Layer conv2_postscale
I0414 04:16:40.652637 32285 net.cpp:434] conv2_postscale <- conv2
I0414 04:16:40.652642 32285 net.cpp:395] conv2_postscale -> conv2 (in-place)
I0414 04:16:40.652734 32285 net.cpp:150] Setting up conv2_postscale
I0414 04:16:40.652741 32285 net.cpp:157] Top shape: 1024 150 18 18 (49766400)
I0414 04:16:40.652745 32285 net.cpp:165] Memory required for data: 3895361536
I0414 04:16:40.652750 32285 layer_factory.hpp:77] Creating layer pool2
I0414 04:16:40.652755 32285 net.cpp:100] Creating Layer pool2
I0414 04:16:40.652760 32285 net.cpp:434] pool2 <- conv2
I0414 04:16:40.652765 32285 net.cpp:408] pool2 -> pool2
I0414 04:16:40.652803 32285 net.cpp:150] Setting up pool2
I0414 04:16:40.652812 32285 net.cpp:157] Top shape: 1024 150 9 9 (12441600)
I0414 04:16:40.652814 32285 net.cpp:165] Memory required for data: 3945127936
I0414 04:16:40.652817 32285 layer_factory.hpp:77] Creating layer conv3
I0414 04:16:40.652825 32285 net.cpp:100] Creating Layer conv3
I0414 04:16:40.652829 32285 net.cpp:434] conv3 <- pool2
I0414 04:16:40.652834 32285 net.cpp:408] conv3 -> conv3
I0414 04:16:40.658251 32285 net.cpp:150] Setting up conv3
I0414 04:16:40.658267 32285 net.cpp:157] Top shape: 1024 250 6 6 (9216000)
I0414 04:16:40.658272 32285 net.cpp:165] Memory required for data: 3981991936
I0414 04:16:40.658282 32285 layer_factory.hpp:77] Creating layer conv3_prescale
I0414 04:16:40.658303 32285 net.cpp:100] Creating Layer conv3_prescale
I0414 04:16:40.658309 32285 net.cpp:434] conv3_prescale <- conv3
I0414 04:16:40.658315 32285 net.cpp:395] conv3_prescale -> conv3 (in-place)
I0414 04:16:40.658406 32285 net.cpp:150] Setting up conv3_prescale
I0414 04:16:40.658414 32285 net.cpp:157] Top shape: 1024 250 6 6 (9216000)
I0414 04:16:40.658418 32285 net.cpp:165] Memory required for data: 4018855936
I0414 04:16:40.658422 32285 layer_factory.hpp:77] Creating layer conv3_sTanH
I0414 04:16:40.658428 32285 net.cpp:100] Creating Layer conv3_sTanH
I0414 04:16:40.658432 32285 net.cpp:434] conv3_sTanH <- conv3
I0414 04:16:40.658437 32285 net.cpp:395] conv3_sTanH -> conv3 (in-place)
I0414 04:16:40.659320 32285 net.cpp:150] Setting up conv3_sTanH
I0414 04:16:40.659335 32285 net.cpp:157] Top shape: 1024 250 6 6 (9216000)
I0414 04:16:40.659338 32285 net.cpp:165] Memory required for data: 4055719936
I0414 04:16:40.659343 32285 layer_factory.hpp:77] Creating layer conv3_postscale
I0414 04:16:40.659349 32285 net.cpp:100] Creating Layer conv3_postscale
I0414 04:16:40.659353 32285 net.cpp:434] conv3_postscale <- conv3
I0414 04:16:40.659358 32285 net.cpp:395] conv3_postscale -> conv3 (in-place)
I0414 04:16:40.659451 32285 net.cpp:150] Setting up conv3_postscale
I0414 04:16:40.659459 32285 net.cpp:157] Top shape: 1024 250 6 6 (9216000)
I0414 04:16:40.659462 32285 net.cpp:165] Memory required for data: 4092583936
I0414 04:16:40.659467 32285 layer_factory.hpp:77] Creating layer pool3
I0414 04:16:40.659476 32285 net.cpp:100] Creating Layer pool3
I0414 04:16:40.659481 32285 net.cpp:434] pool3 <- conv3
I0414 04:16:40.659485 32285 net.cpp:408] pool3 -> pool3
I0414 04:16:40.659520 32285 net.cpp:150] Setting up pool3
I0414 04:16:40.659528 32285 net.cpp:157] Top shape: 1024 250 3 3 (2304000)
I0414 04:16:40.659531 32285 net.cpp:165] Memory required for data: 4101799936
I0414 04:16:40.659534 32285 layer_factory.hpp:77] Creating layer fc4_300
I0414 04:16:40.659540 32285 net.cpp:100] Creating Layer fc4_300
I0414 04:16:40.659545 32285 net.cpp:434] fc4_300 <- pool3
I0414 04:16:40.659550 32285 net.cpp:408] fc4_300 -> fc4_300
I0414 04:16:40.666972 32285 net.cpp:150] Setting up fc4_300
I0414 04:16:40.666990 32285 net.cpp:157] Top shape: 1024 300 (307200)
I0414 04:16:40.666995 32285 net.cpp:165] Memory required for data: 4103028736
I0414 04:16:40.667001 32285 layer_factory.hpp:77] Creating layer fc4_prescale
I0414 04:16:40.667009 32285 net.cpp:100] Creating Layer fc4_prescale
I0414 04:16:40.667013 32285 net.cpp:434] fc4_prescale <- fc4_300
I0414 04:16:40.667018 32285 net.cpp:395] fc4_prescale -> fc4_300 (in-place)
I0414 04:16:40.667105 32285 net.cpp:150] Setting up fc4_prescale
I0414 04:16:40.667114 32285 net.cpp:157] Top shape: 1024 300 (307200)
I0414 04:16:40.667116 32285 net.cpp:165] Memory required for data: 4104257536
I0414 04:16:40.667121 32285 layer_factory.hpp:77] Creating layer fc4_sTanH
I0414 04:16:40.667126 32285 net.cpp:100] Creating Layer fc4_sTanH
I0414 04:16:40.667130 32285 net.cpp:434] fc4_sTanH <- fc4_300
I0414 04:16:40.667135 32285 net.cpp:395] fc4_sTanH -> fc4_300 (in-place)
I0414 04:16:40.667315 32285 net.cpp:150] Setting up fc4_sTanH
I0414 04:16:40.667326 32285 net.cpp:157] Top shape: 1024 300 (307200)
I0414 04:16:40.667330 32285 net.cpp:165] Memory required for data: 4105486336
I0414 04:16:40.667333 32285 layer_factory.hpp:77] Creating layer fc4_postscale
I0414 04:16:40.667340 32285 net.cpp:100] Creating Layer fc4_postscale
I0414 04:16:40.667345 32285 net.cpp:434] fc4_postscale <- fc4_300
I0414 04:16:40.667351 32285 net.cpp:395] fc4_postscale -> fc4_300 (in-place)
I0414 04:16:40.667440 32285 net.cpp:150] Setting up fc4_postscale
I0414 04:16:40.667448 32285 net.cpp:157] Top shape: 1024 300 (307200)
I0414 04:16:40.667450 32285 net.cpp:165] Memory required for data: 4106715136
I0414 04:16:40.667455 32285 layer_factory.hpp:77] Creating layer fc5_67
I0414 04:16:40.667462 32285 net.cpp:100] Creating Layer fc5_67
I0414 04:16:40.667466 32285 net.cpp:434] fc5_67 <- fc4_300
I0414 04:16:40.667471 32285 net.cpp:408] fc5_67 -> fc5_classes
I0414 04:16:40.671063 32285 net.cpp:150] Setting up fc5_67
I0414 04:16:40.671078 32285 net.cpp:157] Top shape: 1024 67 (68608)
I0414 04:16:40.671082 32285 net.cpp:165] Memory required for data: 4106989568
I0414 04:16:40.671092 32285 layer_factory.hpp:77] Creating layer fc5_classes_fc5_67_0_split
I0414 04:16:40.671102 32285 net.cpp:100] Creating Layer fc5_classes_fc5_67_0_split
I0414 04:16:40.671106 32285 net.cpp:434] fc5_classes_fc5_67_0_split <- fc5_classes
I0414 04:16:40.671111 32285 net.cpp:408] fc5_classes_fc5_67_0_split -> fc5_classes_fc5_67_0_split_0
I0414 04:16:40.671120 32285 net.cpp:408] fc5_classes_fc5_67_0_split -> fc5_classes_fc5_67_0_split_1
I0414 04:16:40.671128 32285 net.cpp:408] fc5_classes_fc5_67_0_split -> fc5_classes_fc5_67_0_split_2
I0414 04:16:40.671176 32285 net.cpp:150] Setting up fc5_classes_fc5_67_0_split
I0414 04:16:40.671183 32285 net.cpp:157] Top shape: 1024 67 (68608)
I0414 04:16:40.671186 32285 net.cpp:157] Top shape: 1024 67 (68608)
I0414 04:16:40.671191 32285 net.cpp:157] Top shape: 1024 67 (68608)
I0414 04:16:40.671195 32285 net.cpp:165] Memory required for data: 4107812864
I0414 04:16:40.671198 32285 layer_factory.hpp:77] Creating layer softmax
I0414 04:16:40.671205 32285 net.cpp:100] Creating Layer softmax
I0414 04:16:40.671208 32285 net.cpp:434] softmax <- fc5_classes_fc5_67_0_split_0
I0414 04:16:40.671214 32285 net.cpp:408] softmax -> softmax
I0414 04:16:40.671459 32285 net.cpp:150] Setting up softmax
I0414 04:16:40.671471 32285 net.cpp:157] Top shape: 1024 67 (68608)
I0414 04:16:40.671475 32285 net.cpp:165] Memory required for data: 4108087296
I0414 04:16:40.671478 32285 layer_factory.hpp:77] Creating layer loss
I0414 04:16:40.671485 32285 net.cpp:100] Creating Layer loss
I0414 04:16:40.671489 32285 net.cpp:434] loss <- softmax
I0414 04:16:40.671494 32285 net.cpp:434] loss <- label_data_1_split_0
I0414 04:16:40.671499 32285 net.cpp:408] loss -> loss
…
