…
I0417 20:26:56.822737  5582 solver.cpp:93] Creating training net from train_net file: ./Prototxt/experiment_11/rtsd-r1/imajust/trial_3/train.prototxt
I0417 20:26:56.823236  5582 net.cpp:58] Initializing net from parameters: 
state {
  phase: TRAIN
  level: 0
  stage: ""
}
layer {
  name: "data"
  type: "Data"
  top: "data"
  top: "label"
  include {
    phase: TRAIN
  }
  transform_param {
    scale: 0.0039215689
    mirror: false
    crop_size: 48
    mean_value: 115
    mean_value: 108
    mean_value: 122
  }
  data_param {
    source: "../local_data/lmdb/rtsd-r1/imajust/train/lmdb"
    batch_size: 1024
    backend: LMDB
  }
}
layer {
  name: "conv1"
  type: "Convolution"
  bottom: "data"
  top: "conv1"
  convolution_param {
    num_output: 100
    pad: 0
    kernel_size: 7
    group: 1
    stride: 1
    weight_filler {
      type: "xavier"
    }
  }
}
layer {
  name: "conv1_prescale"
  type: "Scale"
  bottom: "conv1"
  top: "conv1"
  param {
    lr_mult: 0
    decay_mult: 0
  }
  scale_param {
    filler {
      value: 0.6666
    }
    bias_term: false
  }
}
layer {
  name: "conv1_sTanH"
  type: "TanH"
  bottom: "conv1"
  top: "conv1"
}
layer {
  name: "conv1_postscale"
  type: "Scale"
  bottom: "conv1"
  top: "conv1"
  param {
    lr_mult: 0
    decay_mult: 0
  }
  scale_param {
    filler {
      value: 1.7159
    }
    bias_term: false
  }
}
layer {
  name: "pool1"
  type: "Pooling"
  bottom: "conv1"
  top: "pool1"
  pooling_param {
    pool: MAX
    kernel_size: 2
    stride: 2
  }
}
layer {
  name: "conv2"
  type: "Convolution"
  bottom: "pool1"
  top: "conv2"
  convolution_param {
    num_output: 150
    pad: 0
    kernel_size: 4
    group: 1
    stride: 1
    weight_filler {
      type: "xavier"
    }
  }
}
layer {
  name: "conv2_prescale"
  type: "Scale"
  bottom: "conv2"
  top: "conv2"
  param {
    lr_mult: 0
    decay_mult: 0
  }
  scale_param {
    filler {
      value: 0.6666
    }
    bias_term: false
  }
}
layer {
  name: "conv2_sTanH"
  type: "TanH"
  bottom: "conv2"
  top: "conv2"
}
layer {
  name: "conv2_postscale"
  type: "Scale"
  bottom: "conv2"
  top: "conv2"
  param {
    lr_mult: 0
    decay_mult: 0
  }
  scale_param {
    filler {
      value: 1.7159
    }
    bias_term: false
  }
}
layer {
  name: "pool2"
  type: "Pooling"
  bottom: "conv2"
  top: "pool2"
  pooling_param {
    pool: MAX
    kernel_size: 2
    stride: 2
  }
}
layer {
  name: "conv3"
  type: "Convolution"
  bottom: "pool2"
  top: "conv3"
  convolution_param {
    num_output: 250
    pad: 0
    kernel_size: 4
    group: 1
    stride: 1
    weight_filler {
      type: "xavier"
    }
  }
}
layer {
  name: "conv3_prescale"
  type: "Scale"
  bottom: "conv3"
  top: "conv3"
  param {
    lr_mult: 0
    decay_mult: 0
  }
  scale_param {
    filler {
      value: 0.6666
    }
    bias_term: false
  }
}
layer {
  name: "conv3_sTanH"
  type: "TanH"
  bottom: "conv3"
  top: "conv3"
}
layer {
  name: "conv3_postscale"
  type: "Scale"
  bottom: "conv3"
  top: "conv3"
  param {
    lr_mult: 0
    decay_mult: 0
  }
  scale_param {
    filler {
      value: 1.7159
    }
    bias_term: false
  }
}
layer {
  name: "pool3"
  type: "Pooling"
  bottom: "conv3"
  top: "pool3"
  pooling_param {
    pool: MAX
    kernel_size: 2
    stride: 2
  }
}
layer {
  name: "fc4_300"
  type: "InnerProduct"
  bottom: "pool3"
  top: "fc4_300"
  inner_product_param {
    num_output: 300
    weight_filler {
      type: "xavier"
    }
  }
}
layer {
  name: "fc4_prescale"
  type: "Scale"
  bottom: "fc4_300"
  top: "fc4_300"
  param {
    lr_mult: 0
    decay_mult: 0
  }
  scale_param {
    filler {
      value: 0.6666
    }
    bias_term: false
  }
}
layer {
  name: "fc4_sTanH"
  type: "TanH"
  bottom: "fc4_300"
  top: "fc4_300"
}
layer {
  name: "fc4_postscale"
  type: "Scale"
  bottom: "fc4_300"
  top: "fc4_300"
  param {
    lr_mult: 0
    decay_mult: 0
  }
  scale_param {
    filler {
      value: 1.7159
    }
    bias_term: false
  }
}
layer {
  name: "fc5_67"
  type: "InnerProduct"
  bottom: "fc4_300"
  top: "fc5_classes"
  inner_product_param {
    num_output: 67
    weight_filler {
      type: "xavier"
    }
  }
}
layer {
  name: "softmax"
  type: "Softmax"
  bottom: "fc5_classes"
  top: "softmax"
}
layer {
  name: "loss"
  type: "MultinomialLogisticLoss"
  bottom: "softmax"
  bottom: "label"
  top: "loss"
}
layer {
  name: "accuracy_1"
  type: "Accuracy"
  bottom: "fc5_classes"
  bottom: "label"
  top: "accuracy_1"
  accuracy_param {
    top_k: 1
  }
}
layer {
  name: "accuracy_5"
  type: "Accuracy"
  bottom: "fc5_classes"
  bottom: "label"
  top: "accuracy_5"
  accuracy_param {
    top_k: 5
  }
}
layer {
  name: "silence"
  type: "Silence"
  bottom: "accuracy_1"
  bottom: "accuracy_5"
}
I0417 20:26:56.823390  5582 layer_factory.hpp:77] Creating layer data
I0417 20:26:56.824484  5582 net.cpp:100] Creating Layer data
I0417 20:26:56.824501  5582 net.cpp:408] data -> data
I0417 20:26:56.824523  5582 net.cpp:408] data -> label
I0417 20:26:56.828989  5707 db_lmdb.cpp:35] Opened lmdb ../local_data/lmdb/rtsd-r1/imajust/train/lmdb
I0417 20:26:56.846410  5582 data_layer.cpp:41] output data size: 1024,3,48,48
I0417 20:26:56.903242  5582 net.cpp:150] Setting up data
I0417 20:26:56.903272  5582 net.cpp:157] Top shape: 1024 3 48 48 (7077888)
I0417 20:26:56.903277  5582 net.cpp:157] Top shape: 1024 (1024)
I0417 20:26:56.903281  5582 net.cpp:165] Memory required for data: 28315648
I0417 20:26:56.903291  5582 layer_factory.hpp:77] Creating layer label_data_1_split
I0417 20:26:56.903306  5582 net.cpp:100] Creating Layer label_data_1_split
I0417 20:26:56.903312  5582 net.cpp:434] label_data_1_split <- label
I0417 20:26:56.903331  5582 net.cpp:408] label_data_1_split -> label_data_1_split_0
I0417 20:26:56.903343  5582 net.cpp:408] label_data_1_split -> label_data_1_split_1
I0417 20:26:56.903352  5582 net.cpp:408] label_data_1_split -> label_data_1_split_2
I0417 20:26:56.903421  5582 net.cpp:150] Setting up label_data_1_split
I0417 20:26:56.903429  5582 net.cpp:157] Top shape: 1024 (1024)
I0417 20:26:56.903432  5582 net.cpp:157] Top shape: 1024 (1024)
I0417 20:26:56.903436  5582 net.cpp:157] Top shape: 1024 (1024)
I0417 20:26:56.903439  5582 net.cpp:165] Memory required for data: 28327936
I0417 20:26:56.903442  5582 layer_factory.hpp:77] Creating layer conv1
I0417 20:26:56.903463  5582 net.cpp:100] Creating Layer conv1
I0417 20:26:56.903470  5582 net.cpp:434] conv1 <- data
I0417 20:26:56.903477  5582 net.cpp:408] conv1 -> conv1
I0417 20:26:57.586606  5582 net.cpp:150] Setting up conv1
I0417 20:26:57.586642  5582 net.cpp:157] Top shape: 1024 100 42 42 (180633600)
I0417 20:26:57.586650  5582 net.cpp:165] Memory required for data: 750862336
I0417 20:26:57.586683  5582 layer_factory.hpp:77] Creating layer conv1_prescale
I0417 20:26:57.586704  5582 net.cpp:100] Creating Layer conv1_prescale
I0417 20:26:57.586716  5582 net.cpp:434] conv1_prescale <- conv1
I0417 20:26:57.586730  5582 net.cpp:395] conv1_prescale -> conv1 (in-place)
I0417 20:26:57.586896  5582 net.cpp:150] Setting up conv1_prescale
I0417 20:26:57.586913  5582 net.cpp:157] Top shape: 1024 100 42 42 (180633600)
I0417 20:26:57.586921  5582 net.cpp:165] Memory required for data: 1473396736
I0417 20:26:57.586933  5582 layer_factory.hpp:77] Creating layer conv1_sTanH
I0417 20:26:57.586949  5582 net.cpp:100] Creating Layer conv1_sTanH
I0417 20:26:57.586958  5582 net.cpp:434] conv1_sTanH <- conv1
I0417 20:26:57.586967  5582 net.cpp:395] conv1_sTanH -> conv1 (in-place)
I0417 20:26:57.587262  5582 net.cpp:150] Setting up conv1_sTanH
I0417 20:26:57.587308  5582 net.cpp:157] Top shape: 1024 100 42 42 (180633600)
I0417 20:26:57.587319  5582 net.cpp:165] Memory required for data: 2195931136
I0417 20:26:57.587328  5582 layer_factory.hpp:77] Creating layer conv1_postscale
I0417 20:26:57.587342  5582 net.cpp:100] Creating Layer conv1_postscale
I0417 20:26:57.587350  5582 net.cpp:434] conv1_postscale <- conv1
I0417 20:26:57.587359  5582 net.cpp:395] conv1_postscale -> conv1 (in-place)
I0417 20:26:57.587509  5582 net.cpp:150] Setting up conv1_postscale
I0417 20:26:57.587525  5582 net.cpp:157] Top shape: 1024 100 42 42 (180633600)
I0417 20:26:57.587533  5582 net.cpp:165] Memory required for data: 2918465536
I0417 20:26:57.587543  5582 layer_factory.hpp:77] Creating layer pool1
I0417 20:26:57.587555  5582 net.cpp:100] Creating Layer pool1
I0417 20:26:57.587563  5582 net.cpp:434] pool1 <- conv1
I0417 20:26:57.587573  5582 net.cpp:408] pool1 -> pool1
I0417 20:26:57.587648  5582 net.cpp:150] Setting up pool1
I0417 20:26:57.587663  5582 net.cpp:157] Top shape: 1024 100 21 21 (45158400)
I0417 20:26:57.587671  5582 net.cpp:165] Memory required for data: 3099099136
I0417 20:26:57.587677  5582 layer_factory.hpp:77] Creating layer conv2
I0417 20:26:57.587694  5582 net.cpp:100] Creating Layer conv2
I0417 20:26:57.587703  5582 net.cpp:434] conv2 <- pool1
I0417 20:26:57.587715  5582 net.cpp:408] conv2 -> conv2
I0417 20:26:57.599979  5582 net.cpp:150] Setting up conv2
I0417 20:26:57.600003  5582 net.cpp:157] Top shape: 1024 150 18 18 (49766400)
I0417 20:26:57.600009  5582 net.cpp:165] Memory required for data: 3298164736
I0417 20:26:57.600028  5582 layer_factory.hpp:77] Creating layer conv2_prescale
I0417 20:26:57.600049  5582 net.cpp:100] Creating Layer conv2_prescale
I0417 20:26:57.600059  5582 net.cpp:434] conv2_prescale <- conv2
I0417 20:26:57.600075  5582 net.cpp:395] conv2_prescale -> conv2 (in-place)
I0417 20:26:57.600247  5582 net.cpp:150] Setting up conv2_prescale
I0417 20:26:57.600263  5582 net.cpp:157] Top shape: 1024 150 18 18 (49766400)
I0417 20:26:57.600271  5582 net.cpp:165] Memory required for data: 3497230336
I0417 20:26:57.600281  5582 layer_factory.hpp:77] Creating layer conv2_sTanH
I0417 20:26:57.600294  5582 net.cpp:100] Creating Layer conv2_sTanH
I0417 20:26:57.600303  5582 net.cpp:434] conv2_sTanH <- conv2
I0417 20:26:57.600313  5582 net.cpp:395] conv2_sTanH -> conv2 (in-place)
I0417 20:26:57.603615  5582 net.cpp:150] Setting up conv2_sTanH
I0417 20:26:57.603636  5582 net.cpp:157] Top shape: 1024 150 18 18 (49766400)
I0417 20:26:57.603644  5582 net.cpp:165] Memory required for data: 3696295936
I0417 20:26:57.603653  5582 layer_factory.hpp:77] Creating layer conv2_postscale
I0417 20:26:57.603667  5582 net.cpp:100] Creating Layer conv2_postscale
I0417 20:26:57.603675  5582 net.cpp:434] conv2_postscale <- conv2
I0417 20:26:57.603690  5582 net.cpp:395] conv2_postscale -> conv2 (in-place)
I0417 20:26:57.603852  5582 net.cpp:150] Setting up conv2_postscale
I0417 20:26:57.603869  5582 net.cpp:157] Top shape: 1024 150 18 18 (49766400)
I0417 20:26:57.603891  5582 net.cpp:165] Memory required for data: 3895361536
I0417 20:26:57.603904  5582 layer_factory.hpp:77] Creating layer pool2
I0417 20:26:57.603919  5582 net.cpp:100] Creating Layer pool2
I0417 20:26:57.603926  5582 net.cpp:434] pool2 <- conv2
I0417 20:26:57.603940  5582 net.cpp:408] pool2 -> pool2
I0417 20:26:57.604015  5582 net.cpp:150] Setting up pool2
I0417 20:26:57.604030  5582 net.cpp:157] Top shape: 1024 150 9 9 (12441600)
I0417 20:26:57.604038  5582 net.cpp:165] Memory required for data: 3945127936
I0417 20:26:57.604046  5582 layer_factory.hpp:77] Creating layer conv3
I0417 20:26:57.604068  5582 net.cpp:100] Creating Layer conv3
I0417 20:26:57.604076  5582 net.cpp:434] conv3 <- pool2
I0417 20:26:57.604089  5582 net.cpp:408] conv3 -> conv3
I0417 20:26:57.614780  5582 net.cpp:150] Setting up conv3
I0417 20:26:57.614805  5582 net.cpp:157] Top shape: 1024 250 6 6 (9216000)
I0417 20:26:57.614814  5582 net.cpp:165] Memory required for data: 3981991936
I0417 20:26:57.614836  5582 layer_factory.hpp:77] Creating layer conv3_prescale
I0417 20:26:57.614872  5582 net.cpp:100] Creating Layer conv3_prescale
I0417 20:26:57.614883  5582 net.cpp:434] conv3_prescale <- conv3
I0417 20:26:57.614895  5582 net.cpp:395] conv3_prescale -> conv3 (in-place)
I0417 20:26:57.615047  5582 net.cpp:150] Setting up conv3_prescale
I0417 20:26:57.615064  5582 net.cpp:157] Top shape: 1024 250 6 6 (9216000)
I0417 20:26:57.615072  5582 net.cpp:165] Memory required for data: 4018855936
I0417 20:26:57.615083  5582 layer_factory.hpp:77] Creating layer conv3_sTanH
I0417 20:26:57.615097  5582 net.cpp:100] Creating Layer conv3_sTanH
I0417 20:26:57.615105  5582 net.cpp:434] conv3_sTanH <- conv3
I0417 20:26:57.615116  5582 net.cpp:395] conv3_sTanH -> conv3 (in-place)
I0417 20:26:57.618093  5582 net.cpp:150] Setting up conv3_sTanH
I0417 20:26:57.618119  5582 net.cpp:157] Top shape: 1024 250 6 6 (9216000)
I0417 20:26:57.618129  5582 net.cpp:165] Memory required for data: 4055719936
I0417 20:26:57.618137  5582 layer_factory.hpp:77] Creating layer conv3_postscale
I0417 20:26:57.618150  5582 net.cpp:100] Creating Layer conv3_postscale
I0417 20:26:57.618158  5582 net.cpp:434] conv3_postscale <- conv3
I0417 20:26:57.618176  5582 net.cpp:395] conv3_postscale -> conv3 (in-place)
I0417 20:26:57.618336  5582 net.cpp:150] Setting up conv3_postscale
I0417 20:26:57.618351  5582 net.cpp:157] Top shape: 1024 250 6 6 (9216000)
I0417 20:26:57.618360  5582 net.cpp:165] Memory required for data: 4092583936
I0417 20:26:57.618371  5582 layer_factory.hpp:77] Creating layer pool3
I0417 20:26:57.618393  5582 net.cpp:100] Creating Layer pool3
I0417 20:26:57.618402  5582 net.cpp:434] pool3 <- conv3
I0417 20:26:57.618414  5582 net.cpp:408] pool3 -> pool3
I0417 20:26:57.618481  5582 net.cpp:150] Setting up pool3
I0417 20:26:57.618499  5582 net.cpp:157] Top shape: 1024 250 3 3 (2304000)
I0417 20:26:57.618506  5582 net.cpp:165] Memory required for data: 4101799936
I0417 20:26:57.618511  5582 layer_factory.hpp:77] Creating layer fc4_300
I0417 20:26:57.618525  5582 net.cpp:100] Creating Layer fc4_300
I0417 20:26:57.618533  5582 net.cpp:434] fc4_300 <- pool3
I0417 20:26:57.618544  5582 net.cpp:408] fc4_300 -> fc4_300
I0417 20:26:57.627008  5582 net.cpp:150] Setting up fc4_300
I0417 20:26:57.627027  5582 net.cpp:157] Top shape: 1024 300 (307200)
I0417 20:26:57.627033  5582 net.cpp:165] Memory required for data: 4103028736
I0417 20:26:57.627040  5582 layer_factory.hpp:77] Creating layer fc4_prescale
I0417 20:26:57.627051  5582 net.cpp:100] Creating Layer fc4_prescale
I0417 20:26:57.627058  5582 net.cpp:434] fc4_prescale <- fc4_300
I0417 20:26:57.627063  5582 net.cpp:395] fc4_prescale -> fc4_300 (in-place)
I0417 20:26:57.627157  5582 net.cpp:150] Setting up fc4_prescale
I0417 20:26:57.627166  5582 net.cpp:157] Top shape: 1024 300 (307200)
I0417 20:26:57.627169  5582 net.cpp:165] Memory required for data: 4104257536
I0417 20:26:57.627174  5582 layer_factory.hpp:77] Creating layer fc4_sTanH
I0417 20:26:57.627180  5582 net.cpp:100] Creating Layer fc4_sTanH
I0417 20:26:57.627185  5582 net.cpp:434] fc4_sTanH <- fc4_300
I0417 20:26:57.627190  5582 net.cpp:395] fc4_sTanH -> fc4_300 (in-place)
I0417 20:26:57.627387  5582 net.cpp:150] Setting up fc4_sTanH
I0417 20:26:57.627398  5582 net.cpp:157] Top shape: 1024 300 (307200)
I0417 20:26:57.627403  5582 net.cpp:165] Memory required for data: 4105486336
I0417 20:26:57.627406  5582 layer_factory.hpp:77] Creating layer fc4_postscale
I0417 20:26:57.627413  5582 net.cpp:100] Creating Layer fc4_postscale
I0417 20:26:57.627418  5582 net.cpp:434] fc4_postscale <- fc4_300
I0417 20:26:57.627424  5582 net.cpp:395] fc4_postscale -> fc4_300 (in-place)
I0417 20:26:57.627524  5582 net.cpp:150] Setting up fc4_postscale
I0417 20:26:57.627532  5582 net.cpp:157] Top shape: 1024 300 (307200)
I0417 20:26:57.627535  5582 net.cpp:165] Memory required for data: 4106715136
I0417 20:26:57.627539  5582 layer_factory.hpp:77] Creating layer fc5_67
I0417 20:26:57.627549  5582 net.cpp:100] Creating Layer fc5_67
I0417 20:26:57.627554  5582 net.cpp:434] fc5_67 <- fc4_300
I0417 20:26:57.627559  5582 net.cpp:408] fc5_67 -> fc5_classes
I0417 20:26:57.631454  5582 net.cpp:150] Setting up fc5_67
I0417 20:26:57.631472  5582 net.cpp:157] Top shape: 1024 67 (68608)
I0417 20:26:57.631477  5582 net.cpp:165] Memory required for data: 4106989568
I0417 20:26:57.631489  5582 layer_factory.hpp:77] Creating layer fc5_classes_fc5_67_0_split
I0417 20:26:57.631498  5582 net.cpp:100] Creating Layer fc5_classes_fc5_67_0_split
I0417 20:26:57.631503  5582 net.cpp:434] fc5_classes_fc5_67_0_split <- fc5_classes
I0417 20:26:57.631510  5582 net.cpp:408] fc5_classes_fc5_67_0_split -> fc5_classes_fc5_67_0_split_0
I0417 20:26:57.631521  5582 net.cpp:408] fc5_classes_fc5_67_0_split -> fc5_classes_fc5_67_0_split_1
I0417 20:26:57.631530  5582 net.cpp:408] fc5_classes_fc5_67_0_split -> fc5_classes_fc5_67_0_split_2
I0417 20:26:57.631585  5582 net.cpp:150] Setting up fc5_classes_fc5_67_0_split
I0417 20:26:57.631594  5582 net.cpp:157] Top shape: 1024 67 (68608)
I0417 20:26:57.631599  5582 net.cpp:157] Top shape: 1024 67 (68608)
I0417 20:26:57.631603  5582 net.cpp:157] Top shape: 1024 67 (68608)
I0417 20:26:57.631605  5582 net.cpp:165] Memory required for data: 4107812864
I0417 20:26:57.631608  5582 layer_factory.hpp:77] Creating layer softmax
I0417 20:26:57.631614  5582 net.cpp:100] Creating Layer softmax
I0417 20:26:57.631618  5582 net.cpp:434] softmax <- fc5_classes_fc5_67_0_split_0
I0417 20:26:57.631623  5582 net.cpp:408] softmax -> softmax
I0417 20:26:57.631911  5582 net.cpp:150] Setting up softmax
I0417 20:26:57.631930  5582 net.cpp:157] Top shape: 1024 67 (68608)
I0417 20:26:57.631937  5582 net.cpp:165] Memory required for data: 4108087296
I0417 20:26:57.631942  5582 layer_factory.hpp:77] Creating layer loss
I0417 20:26:57.631954  5582 net.cpp:100] Creating Layer loss
I0417 20:26:57.631961  5582 net.cpp:434] loss <- softmax
I0417 20:26:57.631970  5582 net.cpp:434] loss <- label_data_1_split_0
I0417 20:26:57.631983  5582 net.cpp:408] loss -> loss
…
