…
I0414 07:08:21.669739   842 solver.cpp:93] Creating training net from train_net file: ./Prototxt/experiment_11/rtsd-r1/imajust/trial_3/train.prototxt
I0414 07:08:21.670289   842 net.cpp:58] Initializing net from parameters: 
state {
  phase: TRAIN
  level: 0
  stage: ""
}
layer {
  name: "data"
  type: "Data"
  top: "data"
  top: "label"
  include {
    phase: TRAIN
  }
  transform_param {
    scale: 0.0039215689
    mirror: false
    crop_size: 48
    mean_value: 115
    mean_value: 108
    mean_value: 122
  }
  data_param {
    source: "../local_data/lmdb/rtsd-r1/imajust/train/lmdb"
    batch_size: 1024
    backend: LMDB
  }
}
layer {
  name: "conv1"
  type: "Convolution"
  bottom: "data"
  top: "conv1"
  convolution_param {
    num_output: 100
    pad: 0
    kernel_size: 7
    group: 1
    stride: 1
    weight_filler {
      type: "xavier"
    }
  }
}
layer {
  name: "conv1_prescale"
  type: "Scale"
  bottom: "conv1"
  top: "conv1"
  param {
    lr_mult: 0
    decay_mult: 0
  }
  scale_param {
    filler {
      value: 0.6666
    }
    bias_term: false
  }
}
layer {
  name: "conv1_sTanH"
  type: "TanH"
  bottom: "conv1"
  top: "conv1"
}
layer {
  name: "conv1_postscale"
  type: "Scale"
  bottom: "conv1"
  top: "conv1"
  param {
    lr_mult: 0
    decay_mult: 0
  }
  scale_param {
    filler {
      value: 1.7159
    }
    bias_term: false
  }
}
layer {
  name: "pool1"
  type: "Pooling"
  bottom: "conv1"
  top: "pool1"
  pooling_param {
    pool: MAX
    kernel_size: 2
    stride: 2
  }
}
layer {
  name: "conv2"
  type: "Convolution"
  bottom: "pool1"
  top: "conv2"
  convolution_param {
    num_output: 150
    pad: 0
    kernel_size: 4
    group: 1
    stride: 1
    weight_filler {
      type: "xavier"
    }
  }
}
layer {
  name: "conv2_prescale"
  type: "Scale"
  bottom: "conv2"
  top: "conv2"
  param {
    lr_mult: 0
    decay_mult: 0
  }
  scale_param {
    filler {
      value: 0.6666
    }
    bias_term: false
  }
}
layer {
  name: "conv2_sTanH"
  type: "TanH"
  bottom: "conv2"
  top: "conv2"
}
layer {
  name: "conv2_postscale"
  type: "Scale"
  bottom: "conv2"
  top: "conv2"
  param {
    lr_mult: 0
    decay_mult: 0
  }
  scale_param {
    filler {
      value: 1.7159
    }
    bias_term: false
  }
}
layer {
  name: "pool2"
  type: "Pooling"
  bottom: "conv2"
  top: "pool2"
  pooling_param {
    pool: MAX
    kernel_size: 2
    stride: 2
  }
}
layer {
  name: "conv3"
  type: "Convolution"
  bottom: "pool2"
  top: "conv3"
  convolution_param {
    num_output: 250
    pad: 0
    kernel_size: 4
    group: 1
    stride: 1
    weight_filler {
      type: "xavier"
    }
  }
}
layer {
  name: "conv3_prescale"
  type: "Scale"
  bottom: "conv3"
  top: "conv3"
  param {
    lr_mult: 0
    decay_mult: 0
  }
  scale_param {
    filler {
      value: 0.6666
    }
    bias_term: false
  }
}
layer {
  name: "conv3_sTanH"
  type: "TanH"
  bottom: "conv3"
  top: "conv3"
}
layer {
  name: "conv3_postscale"
  type: "Scale"
  bottom: "conv3"
  top: "conv3"
  param {
    lr_mult: 0
    decay_mult: 0
  }
  scale_param {
    filler {
      value: 1.7159
    }
    bias_term: false
  }
}
layer {
  name: "pool3"
  type: "Pooling"
  bottom: "conv3"
  top: "pool3"
  pooling_param {
    pool: MAX
    kernel_size: 2
    stride: 2
  }
}
layer {
  name: "fc4_300"
  type: "InnerProduct"
  bottom: "pool3"
  top: "fc4_300"
  inner_product_param {
    num_output: 300
    weight_filler {
      type: "xavier"
    }
  }
}
layer {
  name: "fc4_prescale"
  type: "Scale"
  bottom: "fc4_300"
  top: "fc4_300"
  param {
    lr_mult: 0
    decay_mult: 0
  }
  scale_param {
    filler {
      value: 0.6666
    }
    bias_term: false
  }
}
layer {
  name: "fc4_sTanH"
  type: "TanH"
  bottom: "fc4_300"
  top: "fc4_300"
}
layer {
  name: "fc4_postscale"
  type: "Scale"
  bottom: "fc4_300"
  top: "fc4_300"
  param {
    lr_mult: 0
    decay_mult: 0
  }
  scale_param {
    filler {
      value: 1.7159
    }
    bias_term: false
  }
}
layer {
  name: "fc5_67"
  type: "InnerProduct"
  bottom: "fc4_300"
  top: "fc5_classes"
  inner_product_param {
    num_output: 67
    weight_filler {
      type: "xavier"
    }
  }
}
layer {
  name: "softmax"
  type: "Softmax"
  bottom: "fc5_classes"
  top: "softmax"
}
layer {
  name: "loss"
  type: "MultinomialLogisticLoss"
  bottom: "softmax"
  bottom: "label"
  top: "loss"
}
layer {
  name: "accuracy_1"
  type: "Accuracy"
  bottom: "fc5_classes"
  bottom: "label"
  top: "accuracy_1"
  accuracy_param {
    top_k: 1
  }
}
layer {
  name: "accuracy_5"
  type: "Accuracy"
  bottom: "fc5_classes"
  bottom: "label"
  top: "accuracy_5"
  accuracy_param {
    top_k: 5
  }
}
layer {
  name: "silence"
  type: "Silence"
  bottom: "accuracy_1"
  bottom: "accuracy_5"
}
I0414 07:08:21.670442   842 layer_factory.hpp:77] Creating layer data
I0414 07:08:21.671602   842 net.cpp:100] Creating Layer data
I0414 07:08:21.671617   842 net.cpp:408] data -> data
I0414 07:08:21.671639   842 net.cpp:408] data -> label
I0414 07:08:21.673946   959 db_lmdb.cpp:35] Opened lmdb ../local_data/lmdb/rtsd-r1/imajust/train/lmdb
I0414 07:08:21.690990   842 data_layer.cpp:41] output data size: 1024,3,48,48
I0414 07:08:21.753089   842 net.cpp:150] Setting up data
I0414 07:08:21.753120   842 net.cpp:157] Top shape: 1024 3 48 48 (7077888)
I0414 07:08:21.753125   842 net.cpp:157] Top shape: 1024 (1024)
I0414 07:08:21.753129   842 net.cpp:165] Memory required for data: 28315648
I0414 07:08:21.753141   842 layer_factory.hpp:77] Creating layer label_data_1_split
I0414 07:08:21.753159   842 net.cpp:100] Creating Layer label_data_1_split
I0414 07:08:21.753166   842 net.cpp:434] label_data_1_split <- label
I0414 07:08:21.753181   842 net.cpp:408] label_data_1_split -> label_data_1_split_0
I0414 07:08:21.753196   842 net.cpp:408] label_data_1_split -> label_data_1_split_1
I0414 07:08:21.753203   842 net.cpp:408] label_data_1_split -> label_data_1_split_2
I0414 07:08:21.753268   842 net.cpp:150] Setting up label_data_1_split
I0414 07:08:21.753274   842 net.cpp:157] Top shape: 1024 (1024)
I0414 07:08:21.753278   842 net.cpp:157] Top shape: 1024 (1024)
I0414 07:08:21.753283   842 net.cpp:157] Top shape: 1024 (1024)
I0414 07:08:21.753284   842 net.cpp:165] Memory required for data: 28327936
I0414 07:08:21.753288   842 layer_factory.hpp:77] Creating layer conv1
I0414 07:08:21.753305   842 net.cpp:100] Creating Layer conv1
I0414 07:08:21.753310   842 net.cpp:434] conv1 <- data
I0414 07:08:21.753315   842 net.cpp:408] conv1 -> conv1
I0414 07:08:22.163821   842 net.cpp:150] Setting up conv1
I0414 07:08:22.163849   842 net.cpp:157] Top shape: 1024 100 42 42 (180633600)
I0414 07:08:22.163853   842 net.cpp:165] Memory required for data: 750862336
I0414 07:08:22.163875   842 layer_factory.hpp:77] Creating layer conv1_prescale
I0414 07:08:22.163902   842 net.cpp:100] Creating Layer conv1_prescale
I0414 07:08:22.163908   842 net.cpp:434] conv1_prescale <- conv1
I0414 07:08:22.163913   842 net.cpp:395] conv1_prescale -> conv1 (in-place)
I0414 07:08:22.164019   842 net.cpp:150] Setting up conv1_prescale
I0414 07:08:22.164029   842 net.cpp:157] Top shape: 1024 100 42 42 (180633600)
I0414 07:08:22.164032   842 net.cpp:165] Memory required for data: 1473396736
I0414 07:08:22.164039   842 layer_factory.hpp:77] Creating layer conv1_sTanH
I0414 07:08:22.164047   842 net.cpp:100] Creating Layer conv1_sTanH
I0414 07:08:22.164050   842 net.cpp:434] conv1_sTanH <- conv1
I0414 07:08:22.164055   842 net.cpp:395] conv1_sTanH -> conv1 (in-place)
I0414 07:08:22.164254   842 net.cpp:150] Setting up conv1_sTanH
I0414 07:08:22.164284   842 net.cpp:157] Top shape: 1024 100 42 42 (180633600)
I0414 07:08:22.164288   842 net.cpp:165] Memory required for data: 2195931136
I0414 07:08:22.164293   842 layer_factory.hpp:77] Creating layer conv1_postscale
I0414 07:08:22.164299   842 net.cpp:100] Creating Layer conv1_postscale
I0414 07:08:22.164302   842 net.cpp:434] conv1_postscale <- conv1
I0414 07:08:22.164309   842 net.cpp:395] conv1_postscale -> conv1 (in-place)
I0414 07:08:22.164403   842 net.cpp:150] Setting up conv1_postscale
I0414 07:08:22.164412   842 net.cpp:157] Top shape: 1024 100 42 42 (180633600)
I0414 07:08:22.164415   842 net.cpp:165] Memory required for data: 2918465536
I0414 07:08:22.164420   842 layer_factory.hpp:77] Creating layer pool1
I0414 07:08:22.164427   842 net.cpp:100] Creating Layer pool1
I0414 07:08:22.164430   842 net.cpp:434] pool1 <- conv1
I0414 07:08:22.164435   842 net.cpp:408] pool1 -> pool1
I0414 07:08:22.164482   842 net.cpp:150] Setting up pool1
I0414 07:08:22.164490   842 net.cpp:157] Top shape: 1024 100 21 21 (45158400)
I0414 07:08:22.164494   842 net.cpp:165] Memory required for data: 3099099136
I0414 07:08:22.164496   842 layer_factory.hpp:77] Creating layer conv2
I0414 07:08:22.164506   842 net.cpp:100] Creating Layer conv2
I0414 07:08:22.164511   842 net.cpp:434] conv2 <- pool1
I0414 07:08:22.164516   842 net.cpp:408] conv2 -> conv2
I0414 07:08:22.183630   842 net.cpp:150] Setting up conv2
I0414 07:08:22.183655   842 net.cpp:157] Top shape: 1024 150 18 18 (49766400)
I0414 07:08:22.183660   842 net.cpp:165] Memory required for data: 3298164736
I0414 07:08:22.183671   842 layer_factory.hpp:77] Creating layer conv2_prescale
I0414 07:08:22.183688   842 net.cpp:100] Creating Layer conv2_prescale
I0414 07:08:22.183696   842 net.cpp:434] conv2_prescale <- conv2
I0414 07:08:22.183703   842 net.cpp:395] conv2_prescale -> conv2 (in-place)
I0414 07:08:22.183832   842 net.cpp:150] Setting up conv2_prescale
I0414 07:08:22.183846   842 net.cpp:157] Top shape: 1024 150 18 18 (49766400)
I0414 07:08:22.183852   842 net.cpp:165] Memory required for data: 3497230336
I0414 07:08:22.183857   842 layer_factory.hpp:77] Creating layer conv2_sTanH
I0414 07:08:22.183864   842 net.cpp:100] Creating Layer conv2_sTanH
I0414 07:08:22.183872   842 net.cpp:434] conv2_sTanH <- conv2
I0414 07:08:22.183889   842 net.cpp:395] conv2_sTanH -> conv2 (in-place)
I0414 07:08:22.187764   842 net.cpp:150] Setting up conv2_sTanH
I0414 07:08:22.187785   842 net.cpp:157] Top shape: 1024 150 18 18 (49766400)
I0414 07:08:22.187789   842 net.cpp:165] Memory required for data: 3696295936
I0414 07:08:22.187794   842 layer_factory.hpp:77] Creating layer conv2_postscale
I0414 07:08:22.187803   842 net.cpp:100] Creating Layer conv2_postscale
I0414 07:08:22.187809   842 net.cpp:434] conv2_postscale <- conv2
I0414 07:08:22.187816   842 net.cpp:395] conv2_postscale -> conv2 (in-place)
I0414 07:08:22.187937   842 net.cpp:150] Setting up conv2_postscale
I0414 07:08:22.187948   842 net.cpp:157] Top shape: 1024 150 18 18 (49766400)
I0414 07:08:22.187952   842 net.cpp:165] Memory required for data: 3895361536
I0414 07:08:22.187957   842 layer_factory.hpp:77] Creating layer pool2
I0414 07:08:22.187968   842 net.cpp:100] Creating Layer pool2
I0414 07:08:22.187971   842 net.cpp:434] pool2 <- conv2
I0414 07:08:22.187978   842 net.cpp:408] pool2 -> pool2
I0414 07:08:22.188022   842 net.cpp:150] Setting up pool2
I0414 07:08:22.188031   842 net.cpp:157] Top shape: 1024 150 9 9 (12441600)
I0414 07:08:22.188035   842 net.cpp:165] Memory required for data: 3945127936
I0414 07:08:22.188042   842 layer_factory.hpp:77] Creating layer conv3
I0414 07:08:22.188052   842 net.cpp:100] Creating Layer conv3
I0414 07:08:22.188055   842 net.cpp:434] conv3 <- pool2
I0414 07:08:22.188060   842 net.cpp:408] conv3 -> conv3
I0414 07:08:22.194017   842 net.cpp:150] Setting up conv3
I0414 07:08:22.194036   842 net.cpp:157] Top shape: 1024 250 6 6 (9216000)
I0414 07:08:22.194039   842 net.cpp:165] Memory required for data: 3981991936
I0414 07:08:22.194051   842 layer_factory.hpp:77] Creating layer conv3_prescale
I0414 07:08:22.194079   842 net.cpp:100] Creating Layer conv3_prescale
I0414 07:08:22.194085   842 net.cpp:434] conv3_prescale <- conv3
I0414 07:08:22.194092   842 net.cpp:395] conv3_prescale -> conv3 (in-place)
I0414 07:08:22.194185   842 net.cpp:150] Setting up conv3_prescale
I0414 07:08:22.194195   842 net.cpp:157] Top shape: 1024 250 6 6 (9216000)
I0414 07:08:22.194198   842 net.cpp:165] Memory required for data: 4018855936
I0414 07:08:22.194202   842 layer_factory.hpp:77] Creating layer conv3_sTanH
I0414 07:08:22.194208   842 net.cpp:100] Creating Layer conv3_sTanH
I0414 07:08:22.194211   842 net.cpp:434] conv3_sTanH <- conv3
I0414 07:08:22.194216   842 net.cpp:395] conv3_sTanH -> conv3 (in-place)
I0414 07:08:22.200660   842 net.cpp:150] Setting up conv3_sTanH
I0414 07:08:22.200681   842 net.cpp:157] Top shape: 1024 250 6 6 (9216000)
I0414 07:08:22.200685   842 net.cpp:165] Memory required for data: 4055719936
I0414 07:08:22.200690   842 layer_factory.hpp:77] Creating layer conv3_postscale
I0414 07:08:22.200698   842 net.cpp:100] Creating Layer conv3_postscale
I0414 07:08:22.200702   842 net.cpp:434] conv3_postscale <- conv3
I0414 07:08:22.200709   842 net.cpp:395] conv3_postscale -> conv3 (in-place)
I0414 07:08:22.200814   842 net.cpp:150] Setting up conv3_postscale
I0414 07:08:22.200824   842 net.cpp:157] Top shape: 1024 250 6 6 (9216000)
I0414 07:08:22.200826   842 net.cpp:165] Memory required for data: 4092583936
I0414 07:08:22.200831   842 layer_factory.hpp:77] Creating layer pool3
I0414 07:08:22.200841   842 net.cpp:100] Creating Layer pool3
I0414 07:08:22.200846   842 net.cpp:434] pool3 <- conv3
I0414 07:08:22.200852   842 net.cpp:408] pool3 -> pool3
I0414 07:08:22.200898   842 net.cpp:150] Setting up pool3
I0414 07:08:22.200906   842 net.cpp:157] Top shape: 1024 250 3 3 (2304000)
I0414 07:08:22.200909   842 net.cpp:165] Memory required for data: 4101799936
I0414 07:08:22.200912   842 layer_factory.hpp:77] Creating layer fc4_300
I0414 07:08:22.200919   842 net.cpp:100] Creating Layer fc4_300
I0414 07:08:22.200924   842 net.cpp:434] fc4_300 <- pool3
I0414 07:08:22.200929   842 net.cpp:408] fc4_300 -> fc4_300
I0414 07:08:22.235232   842 net.cpp:150] Setting up fc4_300
I0414 07:08:22.235255   842 net.cpp:157] Top shape: 1024 300 (307200)
I0414 07:08:22.235260   842 net.cpp:165] Memory required for data: 4103028736
I0414 07:08:22.235270   842 layer_factory.hpp:77] Creating layer fc4_prescale
I0414 07:08:22.235278   842 net.cpp:100] Creating Layer fc4_prescale
I0414 07:08:22.235282   842 net.cpp:434] fc4_prescale <- fc4_300
I0414 07:08:22.235290   842 net.cpp:395] fc4_prescale -> fc4_300 (in-place)
I0414 07:08:22.235383   842 net.cpp:150] Setting up fc4_prescale
I0414 07:08:22.235391   842 net.cpp:157] Top shape: 1024 300 (307200)
I0414 07:08:22.235394   842 net.cpp:165] Memory required for data: 4104257536
I0414 07:08:22.235399   842 layer_factory.hpp:77] Creating layer fc4_sTanH
I0414 07:08:22.235405   842 net.cpp:100] Creating Layer fc4_sTanH
I0414 07:08:22.235409   842 net.cpp:434] fc4_sTanH <- fc4_300
I0414 07:08:22.235414   842 net.cpp:395] fc4_sTanH -> fc4_300 (in-place)
I0414 07:08:22.235613   842 net.cpp:150] Setting up fc4_sTanH
I0414 07:08:22.235626   842 net.cpp:157] Top shape: 1024 300 (307200)
I0414 07:08:22.235630   842 net.cpp:165] Memory required for data: 4105486336
I0414 07:08:22.235632   842 layer_factory.hpp:77] Creating layer fc4_postscale
I0414 07:08:22.235640   842 net.cpp:100] Creating Layer fc4_postscale
I0414 07:08:22.235643   842 net.cpp:434] fc4_postscale <- fc4_300
I0414 07:08:22.235648   842 net.cpp:395] fc4_postscale -> fc4_300 (in-place)
I0414 07:08:22.235744   842 net.cpp:150] Setting up fc4_postscale
I0414 07:08:22.235752   842 net.cpp:157] Top shape: 1024 300 (307200)
I0414 07:08:22.235755   842 net.cpp:165] Memory required for data: 4106715136
I0414 07:08:22.235759   842 layer_factory.hpp:77] Creating layer fc5_67
I0414 07:08:22.235766   842 net.cpp:100] Creating Layer fc5_67
I0414 07:08:22.235770   842 net.cpp:434] fc5_67 <- fc4_300
I0414 07:08:22.235775   842 net.cpp:408] fc5_67 -> fc5_classes
I0414 07:08:22.238206   842 net.cpp:150] Setting up fc5_67
I0414 07:08:22.238224   842 net.cpp:157] Top shape: 1024 67 (68608)
I0414 07:08:22.238229   842 net.cpp:165] Memory required for data: 4106989568
I0414 07:08:22.238242   842 layer_factory.hpp:77] Creating layer fc5_classes_fc5_67_0_split
I0414 07:08:22.238255   842 net.cpp:100] Creating Layer fc5_classes_fc5_67_0_split
I0414 07:08:22.238260   842 net.cpp:434] fc5_classes_fc5_67_0_split <- fc5_classes
I0414 07:08:22.238265   842 net.cpp:408] fc5_classes_fc5_67_0_split -> fc5_classes_fc5_67_0_split_0
I0414 07:08:22.238273   842 net.cpp:408] fc5_classes_fc5_67_0_split -> fc5_classes_fc5_67_0_split_1
I0414 07:08:22.238282   842 net.cpp:408] fc5_classes_fc5_67_0_split -> fc5_classes_fc5_67_0_split_2
I0414 07:08:22.238333   842 net.cpp:150] Setting up fc5_classes_fc5_67_0_split
I0414 07:08:22.238340   842 net.cpp:157] Top shape: 1024 67 (68608)
I0414 07:08:22.238344   842 net.cpp:157] Top shape: 1024 67 (68608)
I0414 07:08:22.238348   842 net.cpp:157] Top shape: 1024 67 (68608)
I0414 07:08:22.238350   842 net.cpp:165] Memory required for data: 4107812864
I0414 07:08:22.238353   842 layer_factory.hpp:77] Creating layer softmax
I0414 07:08:22.238359   842 net.cpp:100] Creating Layer softmax
I0414 07:08:22.238363   842 net.cpp:434] softmax <- fc5_classes_fc5_67_0_split_0
I0414 07:08:22.238368   842 net.cpp:408] softmax -> softmax
I0414 07:08:22.238616   842 net.cpp:150] Setting up softmax
I0414 07:08:22.238628   842 net.cpp:157] Top shape: 1024 67 (68608)
I0414 07:08:22.238631   842 net.cpp:165] Memory required for data: 4108087296
I0414 07:08:22.238636   842 layer_factory.hpp:77] Creating layer loss
I0414 07:08:22.238641   842 net.cpp:100] Creating Layer loss
I0414 07:08:22.238646   842 net.cpp:434] loss <- softmax
I0414 07:08:22.238651   842 net.cpp:434] loss <- label_data_1_split_0
I0414 07:08:22.238656   842 net.cpp:408] loss -> loss
…
