…
I0409 07:14:46.862635 26919 net.cpp:322] The NetState phase (0) differed from the phase (1) specified by a rule in layer accuracy_5
I0409 07:14:46.862730 26919 net.cpp:58] Initializing net from parameters: 
state {
  phase: TRAIN
  level: 0
  stage: ""
}
layer {
  name: "data"
  type: "Data"
  top: "data"
  top: "label"
  include {
    phase: TRAIN
  }
  transform_param {
    mirror: false
    crop_size: 48
    mean_value: 132
    mean_value: 126
    mean_value: 140
  }
  data_param {
    source: "../local_data/lmdb/rtsd-r1/AHE/train/lmdb"
    batch_size: 1024
    backend: LMDB
  }
}
layer {
  name: "conv1"
  type: "Convolution"
  bottom: "data"
  top: "conv1"
  convolution_param {
    num_output: 100
    pad: 0
    kernel_size: 7
    group: 1
    stride: 1
    weight_filler {
      type: "xavier"
    }
  }
}
layer {
  name: "conv1_relu"
  type: "ReLU"
  bottom: "conv1"
  top: "conv1"
}
layer {
  name: "pool1"
  type: "Pooling"
  bottom: "conv1"
  top: "pool1"
  pooling_param {
    pool: MAX
    kernel_size: 2
    stride: 2
  }
}
layer {
  name: "conv2"
  type: "Convolution"
  bottom: "pool1"
  top: "conv2"
  convolution_param {
    num_output: 150
    pad: 0
    kernel_size: 4
    group: 1
    stride: 1
    weight_filler {
      type: "xavier"
    }
  }
}
layer {
  name: "conv2_relu"
  type: "ReLU"
  bottom: "conv2"
  top: "conv2"
}
layer {
  name: "pool2"
  type: "Pooling"
  bottom: "conv2"
  top: "pool2"
  pooling_param {
    pool: MAX
    kernel_size: 2
    stride: 2
  }
}
layer {
  name: "conv3"
  type: "Convolution"
  bottom: "pool2"
  top: "conv3"
  convolution_param {
    num_output: 250
    pad: 0
    kernel_size: 4
    group: 1
    stride: 1
    weight_filler {
      type: "xavier"
    }
  }
}
layer {
  name: "conv3_relu"
  type: "ReLU"
  bottom: "conv3"
  top: "conv3"
}
layer {
  name: "pool3"
  type: "Pooling"
  bottom: "conv3"
  top: "pool3"
  pooling_param {
    pool: MAX
    kernel_size: 2
    stride: 2
  }
}
layer {
  name: "fc4_300"
  type: "InnerProduct"
  bottom: "pool3"
  top: "fc4_300"
  inner_product_param {
    num_output: 300
    weight_filler {
      type: "xavier"
    }
  }
}
layer {
  name: "fc4_relu"
  type: "ReLU"
  bottom: "fc4_300"
  top: "fc4_300"
}
layer {
  name: "drop4"
  type: "Dropout"
  bottom: "fc4_300"
  top: "fc4_300"
  dropout_param {
    dropout_ratio: 0.4
  }
}
layer {
  name: "fc5_67"
  type: "InnerProduct"
  bottom: "fc4_300"
  top: "fc5_classes"
  inner_product_param {
    num_output: 67
    weight_filler {
      type: "xavier"
    }
  }
}
layer {
  name: "loss"
  type: "SoftmaxWithLoss"
  bottom: "fc5_classes"
  bottom: "label"
  top: "loss"
}
I0409 07:14:46.862838 26919 layer_factory.hpp:77] Creating layer data
I0409 07:14:46.863929 26919 net.cpp:100] Creating Layer data
I0409 07:14:46.863945 26919 net.cpp:408] data -> data
I0409 07:14:46.863968 26919 net.cpp:408] data -> label
I0409 07:14:46.865653 26975 db_lmdb.cpp:35] Opened lmdb ../local_data/lmdb/rtsd-r1/AHE/train/lmdb
I0409 07:14:46.883036 26919 data_layer.cpp:41] output data size: 1024,3,48,48
I0409 07:14:46.925500 26919 net.cpp:150] Setting up data
I0409 07:14:46.925534 26919 net.cpp:157] Top shape: 1024 3 48 48 (7077888)
I0409 07:14:46.925540 26919 net.cpp:157] Top shape: 1024 (1024)
I0409 07:14:46.925566 26919 net.cpp:165] Memory required for data: 28315648
I0409 07:14:46.925576 26919 layer_factory.hpp:77] Creating layer conv1
I0409 07:14:46.925599 26919 net.cpp:100] Creating Layer conv1
I0409 07:14:46.925607 26919 net.cpp:434] conv1 <- data
I0409 07:14:46.925624 26919 net.cpp:408] conv1 -> conv1
I0409 07:14:47.213537 26919 net.cpp:150] Setting up conv1
I0409 07:14:47.213582 26919 net.cpp:157] Top shape: 1024 100 42 42 (180633600)
I0409 07:14:47.213585 26919 net.cpp:165] Memory required for data: 750850048
I0409 07:14:47.213608 26919 layer_factory.hpp:77] Creating layer conv1_relu
I0409 07:14:47.213620 26919 net.cpp:100] Creating Layer conv1_relu
I0409 07:14:47.213626 26919 net.cpp:434] conv1_relu <- conv1
I0409 07:14:47.213632 26919 net.cpp:395] conv1_relu -> conv1 (in-place)
I0409 07:14:47.213827 26919 net.cpp:150] Setting up conv1_relu
I0409 07:14:47.213840 26919 net.cpp:157] Top shape: 1024 100 42 42 (180633600)
I0409 07:14:47.213843 26919 net.cpp:165] Memory required for data: 1473384448
I0409 07:14:47.213847 26919 layer_factory.hpp:77] Creating layer pool1
I0409 07:14:47.213855 26919 net.cpp:100] Creating Layer pool1
I0409 07:14:47.213860 26919 net.cpp:434] pool1 <- conv1
I0409 07:14:47.213865 26919 net.cpp:408] pool1 -> pool1
I0409 07:14:47.213918 26919 net.cpp:150] Setting up pool1
I0409 07:14:47.213927 26919 net.cpp:157] Top shape: 1024 100 21 21 (45158400)
I0409 07:14:47.213929 26919 net.cpp:165] Memory required for data: 1654018048
I0409 07:14:47.213933 26919 layer_factory.hpp:77] Creating layer conv2
I0409 07:14:47.213944 26919 net.cpp:100] Creating Layer conv2
I0409 07:14:47.213949 26919 net.cpp:434] conv2 <- pool1
I0409 07:14:47.213954 26919 net.cpp:408] conv2 -> conv2
I0409 07:14:47.218209 26919 net.cpp:150] Setting up conv2
I0409 07:14:47.218228 26919 net.cpp:157] Top shape: 1024 150 18 18 (49766400)
I0409 07:14:47.218245 26919 net.cpp:165] Memory required for data: 1853083648
I0409 07:14:47.218255 26919 layer_factory.hpp:77] Creating layer conv2_relu
I0409 07:14:47.218261 26919 net.cpp:100] Creating Layer conv2_relu
I0409 07:14:47.218264 26919 net.cpp:434] conv2_relu <- conv2
I0409 07:14:47.218269 26919 net.cpp:395] conv2_relu -> conv2 (in-place)
I0409 07:14:47.219022 26919 net.cpp:150] Setting up conv2_relu
I0409 07:14:47.219038 26919 net.cpp:157] Top shape: 1024 150 18 18 (49766400)
I0409 07:14:47.219053 26919 net.cpp:165] Memory required for data: 2052149248
I0409 07:14:47.219058 26919 layer_factory.hpp:77] Creating layer pool2
I0409 07:14:47.219064 26919 net.cpp:100] Creating Layer pool2
I0409 07:14:47.219068 26919 net.cpp:434] pool2 <- conv2
I0409 07:14:47.219074 26919 net.cpp:408] pool2 -> pool2
I0409 07:14:47.219118 26919 net.cpp:150] Setting up pool2
I0409 07:14:47.219126 26919 net.cpp:157] Top shape: 1024 150 9 9 (12441600)
I0409 07:14:47.219130 26919 net.cpp:165] Memory required for data: 2101915648
I0409 07:14:47.219133 26919 layer_factory.hpp:77] Creating layer conv3
I0409 07:14:47.219141 26919 net.cpp:100] Creating Layer conv3
I0409 07:14:47.219146 26919 net.cpp:434] conv3 <- pool2
I0409 07:14:47.219151 26919 net.cpp:408] conv3 -> conv3
I0409 07:14:47.224755 26919 net.cpp:150] Setting up conv3
I0409 07:14:47.224772 26919 net.cpp:157] Top shape: 1024 250 6 6 (9216000)
I0409 07:14:47.224776 26919 net.cpp:165] Memory required for data: 2138779648
I0409 07:14:47.224786 26919 layer_factory.hpp:77] Creating layer conv3_relu
I0409 07:14:47.224795 26919 net.cpp:100] Creating Layer conv3_relu
I0409 07:14:47.224798 26919 net.cpp:434] conv3_relu <- conv3
I0409 07:14:47.224804 26919 net.cpp:395] conv3_relu -> conv3 (in-place)
I0409 07:14:47.226478 26919 net.cpp:150] Setting up conv3_relu
I0409 07:14:47.226497 26919 net.cpp:157] Top shape: 1024 250 6 6 (9216000)
I0409 07:14:47.226501 26919 net.cpp:165] Memory required for data: 2175643648
I0409 07:14:47.226505 26919 layer_factory.hpp:77] Creating layer pool3
I0409 07:14:47.226513 26919 net.cpp:100] Creating Layer pool3
I0409 07:14:47.226517 26919 net.cpp:434] pool3 <- conv3
I0409 07:14:47.226523 26919 net.cpp:408] pool3 -> pool3
I0409 07:14:47.226601 26919 net.cpp:150] Setting up pool3
I0409 07:14:47.226613 26919 net.cpp:157] Top shape: 1024 250 3 3 (2304000)
I0409 07:14:47.226615 26919 net.cpp:165] Memory required for data: 2184859648
I0409 07:14:47.226619 26919 layer_factory.hpp:77] Creating layer fc4_300
I0409 07:14:47.226625 26919 net.cpp:100] Creating Layer fc4_300
I0409 07:14:47.226629 26919 net.cpp:434] fc4_300 <- pool3
I0409 07:14:47.226635 26919 net.cpp:408] fc4_300 -> fc4_300
I0409 07:14:47.232973 26919 net.cpp:150] Setting up fc4_300
I0409 07:14:47.232992 26919 net.cpp:157] Top shape: 1024 300 (307200)
I0409 07:14:47.232996 26919 net.cpp:165] Memory required for data: 2186088448
I0409 07:14:47.233003 26919 layer_factory.hpp:77] Creating layer fc4_relu
I0409 07:14:47.233011 26919 net.cpp:100] Creating Layer fc4_relu
I0409 07:14:47.233014 26919 net.cpp:434] fc4_relu <- fc4_300
I0409 07:14:47.233021 26919 net.cpp:395] fc4_relu -> fc4_300 (in-place)
I0409 07:14:47.233217 26919 net.cpp:150] Setting up fc4_relu
I0409 07:14:47.233230 26919 net.cpp:157] Top shape: 1024 300 (307200)
I0409 07:14:47.233233 26919 net.cpp:165] Memory required for data: 2187317248
I0409 07:14:47.233237 26919 layer_factory.hpp:77] Creating layer drop4
I0409 07:14:47.233245 26919 net.cpp:100] Creating Layer drop4
I0409 07:14:47.233250 26919 net.cpp:434] drop4 <- fc4_300
I0409 07:14:47.233255 26919 net.cpp:395] drop4 -> fc4_300 (in-place)
I0409 07:14:47.233289 26919 net.cpp:150] Setting up drop4
I0409 07:14:47.233297 26919 net.cpp:157] Top shape: 1024 300 (307200)
I0409 07:14:47.233301 26919 net.cpp:165] Memory required for data: 2188546048
I0409 07:14:47.233304 26919 layer_factory.hpp:77] Creating layer fc5_67
I0409 07:14:47.233310 26919 net.cpp:100] Creating Layer fc5_67
I0409 07:14:47.233314 26919 net.cpp:434] fc5_67 <- fc4_300
I0409 07:14:47.233320 26919 net.cpp:408] fc5_67 -> fc5_classes
I0409 07:14:47.234693 26919 net.cpp:150] Setting up fc5_67
I0409 07:14:47.234709 26919 net.cpp:157] Top shape: 1024 67 (68608)
I0409 07:14:47.234712 26919 net.cpp:165] Memory required for data: 2188820480
I0409 07:14:47.234724 26919 layer_factory.hpp:77] Creating layer loss
I0409 07:14:47.234730 26919 net.cpp:100] Creating Layer loss
I0409 07:14:47.234733 26919 net.cpp:434] loss <- fc5_classes
I0409 07:14:47.234737 26919 net.cpp:434] loss <- label
I0409 07:14:47.234745 26919 net.cpp:408] loss -> loss
I0409 07:14:47.234757 26919 layer_factory.hpp:77] Creating layer loss
…
I0409 07:14:47.235415 26919 solver.cpp:193] Creating test net (#0) specified by test_net file: ./Prototxt/experiment_6/rtsd-r1/AHE/trial_1/test.prototxt
I0409 07:14:47.235558 26919 net.cpp:58] Initializing net from parameters: 
state {
  phase: TEST
}
layer {
  name: "data"
  type: "Data"
  top: "data"
  top: "label"
  include {
    phase: TEST
  }
  transform_param {
    mirror: false
    crop_size: 48
    mean_value: 126
    mean_value: 124
    mean_value: 145
  }
  data_param {
    source: "../local_data/lmdb/rtsd-r1/AHE/test/lmdb"
    batch_size: 1024
    backend: LMDB
  }
}
layer {
  name: "conv1"
  type: "Convolution"
  bottom: "data"
  top: "conv1"
  convolution_param {
    num_output: 100
    pad: 0
    kernel_size: 7
    group: 1
    stride: 1
    weight_filler {
      type: "xavier"
    }
  }
}
layer {
  name: "conv1_relu"
  type: "ReLU"
  bottom: "conv1"
  top: "conv1"
}
layer {
  name: "pool1"
  type: "Pooling"
  bottom: "conv1"
  top: "pool1"
  pooling_param {
    pool: MAX
    kernel_size: 2
    stride: 2
  }
}
layer {
  name: "conv2"
  type: "Convolution"
  bottom: "pool1"
  top: "conv2"
  convolution_param {
    num_output: 150
    pad: 0
    kernel_size: 4
    group: 1
    stride: 1
    weight_filler {
      type: "xavier"
    }
  }
}
layer {
  name: "conv2_relu"
  type: "ReLU"
  bottom: "conv2"
  top: "conv2"
}
layer {
  name: "pool2"
  type: "Pooling"
  bottom: "conv2"
  top: "pool2"
  pooling_param {
    pool: MAX
    kernel_size: 2
    stride: 2
  }
}
layer {
  name: "conv3"
  type: "Convolution"
  bottom: "pool2"
  top: "conv3"
  convolution_param {
    num_output: 250
    pad: 0
    kernel_size: 4
    group: 1
    stride: 1
    weight_filler {
      type: "xavier"
    }
  }
}
layer {
  name: "conv3_relu"
  type: "ReLU"
  bottom: "conv3"
  top: "conv3"
}
layer {
  name: "pool3"
  type: "Pooling"
  bottom: "conv3"
  top: "pool3"
  pooling_param {
    pool: MAX
    kernel_size: 2
    stride: 2
  }
}
layer {
  name: "fc4_300"
  type: "InnerProduct"
  bottom: "pool3"
  top: "fc4_300"
  inner_product_param {
    num_output: 300
    weight_filler {
      type: "xavier"
    }
  }
}
layer {
  name: "fc4_relu"
  type: "ReLU"
  bottom: "fc4_300"
  top: "fc4_300"
}
layer {
  name: "drop4"
  type: "Dropout"
  bottom: "fc4_300"
  top: "fc4_300"
  dropout_param {
    dropout_ratio: 0.4
  }
}
layer {
  name: "fc5_67"
  type: "InnerProduct"
  bottom: "fc4_300"
  top: "fc5_classes"
  inner_product_param {
    num_output: 67
    weight_filler {
      type: "xavier"
    }
  }
}
layer {
  name: "loss"
  type: "SoftmaxWithLoss"
  bottom: "fc5_classes"
  bottom: "label"
  top: "loss"
}
layer {
  name: "accuracy_1"
  type: "Accuracy"
  bottom: "fc5_classes"
  bottom: "label"
  top: "accuracy_1"
  include {
    phase: TEST
  }
  accuracy_param {
    top_k: 1
  }
}
layer {
  name: "accuracy_5"
  type: "Accuracy"
  bottom: "fc5_classes"
  bottom: "label"
  top: "accuracy_5"
  include {
    phase: TEST
  }
  accuracy_param {
    top_k: 5
  }
}
I0409 07:14:47.235654 26919 layer_factory.hpp:77] Creating layer data
I0409 07:14:47.236340 26919 net.cpp:100] Creating Layer data
I0409 07:14:47.236353 26919 net.cpp:408] data -> data
I0409 07:14:47.236364 26919 net.cpp:408] data -> label
I0409 07:14:47.240701 26988 db_lmdb.cpp:35] Opened lmdb ../local_data/lmdb/rtsd-r1/AHE/test/lmdb
I0409 07:14:47.240891 26919 data_layer.cpp:41] output data size: 1024,3,48,48
I0409 07:14:47.285567 26919 net.cpp:150] Setting up data
I0409 07:14:47.285598 26919 net.cpp:157] Top shape: 1024 3 48 48 (7077888)
I0409 07:14:47.285604 26919 net.cpp:157] Top shape: 1024 (1024)
I0409 07:14:47.285607 26919 net.cpp:165] Memory required for data: 28315648
I0409 07:14:47.285614 26919 layer_factory.hpp:77] Creating layer label_data_1_split
I0409 07:14:47.285629 26919 net.cpp:100] Creating Layer label_data_1_split
I0409 07:14:47.285632 26919 net.cpp:434] label_data_1_split <- label
I0409 07:14:47.285640 26919 net.cpp:408] label_data_1_split -> label_data_1_split_0
I0409 07:14:47.285651 26919 net.cpp:408] label_data_1_split -> label_data_1_split_1
I0409 07:14:47.285665 26919 net.cpp:408] label_data_1_split -> label_data_1_split_2
I0409 07:14:47.285802 26919 net.cpp:150] Setting up label_data_1_split
I0409 07:14:47.285814 26919 net.cpp:157] Top shape: 1024 (1024)
I0409 07:14:47.285817 26919 net.cpp:157] Top shape: 1024 (1024)
I0409 07:14:47.285820 26919 net.cpp:157] Top shape: 1024 (1024)
I0409 07:14:47.285823 26919 net.cpp:165] Memory required for data: 28327936
I0409 07:14:47.285826 26919 layer_factory.hpp:77] Creating layer conv1
I0409 07:14:47.285851 26919 net.cpp:100] Creating Layer conv1
I0409 07:14:47.285856 26919 net.cpp:434] conv1 <- data
I0409 07:14:47.285864 26919 net.cpp:408] conv1 -> conv1
I0409 07:14:47.287820 26919 net.cpp:150] Setting up conv1
I0409 07:14:47.287837 26919 net.cpp:157] Top shape: 1024 100 42 42 (180633600)
I0409 07:14:47.287842 26919 net.cpp:165] Memory required for data: 750862336
I0409 07:14:47.287855 26919 layer_factory.hpp:77] Creating layer conv1_relu
I0409 07:14:47.287863 26919 net.cpp:100] Creating Layer conv1_relu
I0409 07:14:47.287865 26919 net.cpp:434] conv1_relu <- conv1
I0409 07:14:47.287871 26919 net.cpp:395] conv1_relu -> conv1 (in-place)
I0409 07:14:47.288089 26919 net.cpp:150] Setting up conv1_relu
I0409 07:14:47.288101 26919 net.cpp:157] Top shape: 1024 100 42 42 (180633600)
I0409 07:14:47.288105 26919 net.cpp:165] Memory required for data: 1473396736
I0409 07:14:47.288108 26919 layer_factory.hpp:77] Creating layer pool1
I0409 07:14:47.288118 26919 net.cpp:100] Creating Layer pool1
I0409 07:14:47.288125 26919 net.cpp:434] pool1 <- conv1
I0409 07:14:47.288130 26919 net.cpp:408] pool1 -> pool1
I0409 07:14:47.288182 26919 net.cpp:150] Setting up pool1
I0409 07:14:47.288190 26919 net.cpp:157] Top shape: 1024 100 21 21 (45158400)
I0409 07:14:47.288193 26919 net.cpp:165] Memory required for data: 1654030336
I0409 07:14:47.288197 26919 layer_factory.hpp:77] Creating layer conv2
I0409 07:14:47.288213 26919 net.cpp:100] Creating Layer conv2
I0409 07:14:47.288219 26919 net.cpp:434] conv2 <- pool1
I0409 07:14:47.288225 26919 net.cpp:408] conv2 -> conv2
I0409 07:14:47.293085 26919 net.cpp:150] Setting up conv2
I0409 07:14:47.293108 26919 net.cpp:157] Top shape: 1024 150 18 18 (49766400)
I0409 07:14:47.293112 26919 net.cpp:165] Memory required for data: 1853095936
I0409 07:14:47.293126 26919 layer_factory.hpp:77] Creating layer conv2_relu
I0409 07:14:47.293135 26919 net.cpp:100] Creating Layer conv2_relu
I0409 07:14:47.293139 26919 net.cpp:434] conv2_relu <- conv2
I0409 07:14:47.293145 26919 net.cpp:395] conv2_relu -> conv2 (in-place)
I0409 07:14:47.293951 26919 net.cpp:150] Setting up conv2_relu
I0409 07:14:47.293969 26919 net.cpp:157] Top shape: 1024 150 18 18 (49766400)
I0409 07:14:47.293973 26919 net.cpp:165] Memory required for data: 2052161536
I0409 07:14:47.293977 26919 layer_factory.hpp:77] Creating layer pool2
I0409 07:14:47.293984 26919 net.cpp:100] Creating Layer pool2
I0409 07:14:47.293987 26919 net.cpp:434] pool2 <- conv2
I0409 07:14:47.293998 26919 net.cpp:408] pool2 -> pool2
I0409 07:14:47.294060 26919 net.cpp:150] Setting up pool2
I0409 07:14:47.294070 26919 net.cpp:157] Top shape: 1024 150 9 9 (12441600)
I0409 07:14:47.294073 26919 net.cpp:165] Memory required for data: 2101927936
I0409 07:14:47.294076 26919 layer_factory.hpp:77] Creating layer conv3
I0409 07:14:47.294088 26919 net.cpp:100] Creating Layer conv3
I0409 07:14:47.294093 26919 net.cpp:434] conv3 <- pool2
I0409 07:14:47.294101 26919 net.cpp:408] conv3 -> conv3
I0409 07:14:47.299789 26919 net.cpp:150] Setting up conv3
I0409 07:14:47.299809 26919 net.cpp:157] Top shape: 1024 250 6 6 (9216000)
I0409 07:14:47.299813 26919 net.cpp:165] Memory required for data: 2138791936
I0409 07:14:47.299824 26919 layer_factory.hpp:77] Creating layer conv3_relu
I0409 07:14:47.299834 26919 net.cpp:100] Creating Layer conv3_relu
I0409 07:14:47.299839 26919 net.cpp:434] conv3_relu <- conv3
I0409 07:14:47.299844 26919 net.cpp:395] conv3_relu -> conv3 (in-place)
I0409 07:14:47.300673 26919 net.cpp:150] Setting up conv3_relu
I0409 07:14:47.300690 26919 net.cpp:157] Top shape: 1024 250 6 6 (9216000)
I0409 07:14:47.300693 26919 net.cpp:165] Memory required for data: 2175655936
I0409 07:14:47.300714 26919 layer_factory.hpp:77] Creating layer pool3
I0409 07:14:47.300721 26919 net.cpp:100] Creating Layer pool3
I0409 07:14:47.300726 26919 net.cpp:434] pool3 <- conv3
I0409 07:14:47.300734 26919 net.cpp:408] pool3 -> pool3
I0409 07:14:47.300787 26919 net.cpp:150] Setting up pool3
I0409 07:14:47.300796 26919 net.cpp:157] Top shape: 1024 250 3 3 (2304000)
I0409 07:14:47.300801 26919 net.cpp:165] Memory required for data: 2184871936
I0409 07:14:47.300803 26919 layer_factory.hpp:77] Creating layer fc4_300
I0409 07:14:47.300812 26919 net.cpp:100] Creating Layer fc4_300
I0409 07:14:47.300817 26919 net.cpp:434] fc4_300 <- pool3
I0409 07:14:47.300822 26919 net.cpp:408] fc4_300 -> fc4_300
I0409 07:14:47.306227 26919 net.cpp:150] Setting up fc4_300
I0409 07:14:47.306246 26919 net.cpp:157] Top shape: 1024 300 (307200)
I0409 07:14:47.306248 26919 net.cpp:165] Memory required for data: 2186100736
I0409 07:14:47.306257 26919 layer_factory.hpp:77] Creating layer fc4_relu
I0409 07:14:47.306264 26919 net.cpp:100] Creating Layer fc4_relu
I0409 07:14:47.306268 26919 net.cpp:434] fc4_relu <- fc4_300
I0409 07:14:47.306273 26919 net.cpp:395] fc4_relu -> fc4_300 (in-place)
I0409 07:14:47.306475 26919 net.cpp:150] Setting up fc4_relu
I0409 07:14:47.306488 26919 net.cpp:157] Top shape: 1024 300 (307200)
I0409 07:14:47.306490 26919 net.cpp:165] Memory required for data: 2187329536
I0409 07:14:47.306493 26919 layer_factory.hpp:77] Creating layer drop4
I0409 07:14:47.306501 26919 net.cpp:100] Creating Layer drop4
I0409 07:14:47.306506 26919 net.cpp:434] drop4 <- fc4_300
I0409 07:14:47.306511 26919 net.cpp:395] drop4 -> fc4_300 (in-place)
I0409 07:14:47.306545 26919 net.cpp:150] Setting up drop4
I0409 07:14:47.306552 26919 net.cpp:157] Top shape: 1024 300 (307200)
I0409 07:14:47.306555 26919 net.cpp:165] Memory required for data: 2188558336
I0409 07:14:47.306558 26919 layer_factory.hpp:77] Creating layer fc5_67
I0409 07:14:47.306565 26919 net.cpp:100] Creating Layer fc5_67
I0409 07:14:47.306568 26919 net.cpp:434] fc5_67 <- fc4_300
I0409 07:14:47.306574 26919 net.cpp:408] fc5_67 -> fc5_classes
I0409 07:14:47.306839 26919 net.cpp:150] Setting up fc5_67
I0409 07:14:47.306849 26919 net.cpp:157] Top shape: 1024 67 (68608)
I0409 07:14:47.306854 26919 net.cpp:165] Memory required for data: 2188832768
I0409 07:14:47.306862 26919 layer_factory.hpp:77] Creating layer fc5_classes_fc5_67_0_split
I0409 07:14:47.306871 26919 net.cpp:100] Creating Layer fc5_classes_fc5_67_0_split
I0409 07:14:47.306876 26919 net.cpp:434] fc5_classes_fc5_67_0_split <- fc5_classes
I0409 07:14:47.306882 26919 net.cpp:408] fc5_classes_fc5_67_0_split -> fc5_classes_fc5_67_0_split_0
I0409 07:14:47.306888 26919 net.cpp:408] fc5_classes_fc5_67_0_split -> fc5_classes_fc5_67_0_split_1
I0409 07:14:47.306896 26919 net.cpp:408] fc5_classes_fc5_67_0_split -> fc5_classes_fc5_67_0_split_2
I0409 07:14:47.306949 26919 net.cpp:150] Setting up fc5_classes_fc5_67_0_split
I0409 07:14:47.306957 26919 net.cpp:157] Top shape: 1024 67 (68608)
I0409 07:14:47.306962 26919 net.cpp:157] Top shape: 1024 67 (68608)
I0409 07:14:47.306964 26919 net.cpp:157] Top shape: 1024 67 (68608)
I0409 07:14:47.306967 26919 net.cpp:165] Memory required for data: 2189656064
I0409 07:14:47.306969 26919 layer_factory.hpp:77] Creating layer loss
I0409 07:14:47.306977 26919 net.cpp:100] Creating Layer loss
I0409 07:14:47.306982 26919 net.cpp:434] loss <- fc5_classes_fc5_67_0_split_0
I0409 07:14:47.306985 26919 net.cpp:434] loss <- label_data_1_split_0
I0409 07:14:47.306990 26919 net.cpp:408] loss -> loss
…
