…
I0507 06:22:10.182168  2792 solver.cpp:93] Creating training net from train_net file: ./Prototxt/experiment_14/RTSD/histeq/trial_4/train.prototxt
I0507 06:22:10.182626  2792 net.cpp:58] Initializing net from parameters: 
state {
  phase: TRAIN
  level: 0
  stage: ""
}
layer {
  name: "data"
  type: "Data"
  top: "data"
  top: "label"
  include {
    phase: TRAIN
  }
  transform_param {
    scale: 0.0039215689
    mirror: false
    crop_size: 48
    mean_value: 134
    mean_value: 128
    mean_value: 128
  }
  data_param {
    source: "../local_data/lmdb/RTSD/histeq/train/lmdb"
    batch_size: 512
    backend: LMDB
  }
}
layer {
  name: "conv1"
  type: "Convolution"
  bottom: "data"
  top: "conv1"
  convolution_param {
    num_output: 100
    pad: 0
    kernel_size: 7
    group: 1
    stride: 1
    weight_filler {
      type: "xavier"
    }
  }
}
layer {
  name: "conv1_relu"
  type: "ReLU"
  bottom: "conv1"
  top: "conv1"
}
layer {
  name: "pool1"
  type: "Pooling"
  bottom: "conv1"
  top: "pool1"
  pooling_param {
    pool: MAX
    kernel_size: 2
    stride: 2
  }
}
layer {
  name: "conv2"
  type: "Convolution"
  bottom: "pool1"
  top: "conv2"
  convolution_param {
    num_output: 150
    pad: 0
    kernel_size: 4
    group: 1
    stride: 1
    weight_filler {
      type: "xavier"
    }
  }
}
layer {
  name: "conv2_relu"
  type: "ReLU"
  bottom: "conv2"
  top: "conv2"
}
layer {
  name: "pool2"
  type: "Pooling"
  bottom: "conv2"
  top: "pool2"
  pooling_param {
    pool: MAX
    kernel_size: 2
    stride: 2
  }
}
layer {
  name: "conv3"
  type: "Convolution"
  bottom: "pool2"
  top: "conv3"
  convolution_param {
    num_output: 250
    pad: 0
    kernel_size: 4
    group: 1
    stride: 1
    weight_filler {
      type: "xavier"
    }
  }
}
layer {
  name: "conv3_relu"
  type: "ReLU"
  bottom: "conv3"
  top: "conv3"
}
layer {
  name: "pool3"
  type: "Pooling"
  bottom: "conv3"
  top: "pool3"
  pooling_param {
    pool: MAX
    kernel_size: 2
    stride: 2
  }
}
layer {
  name: "fc4_300"
  type: "InnerProduct"
  bottom: "pool3"
  top: "fc4_300"
  inner_product_param {
    num_output: 300
    weight_filler {
      type: "xavier"
    }
  }
}
layer {
  name: "fc4_relu"
  type: "ReLU"
  bottom: "fc4_300"
  top: "fc4_300"
}
layer {
  name: "fc5_116"
  type: "InnerProduct"
  bottom: "fc4_300"
  top: "fc5_classes"
  inner_product_param {
    num_output: 116
    weight_filler {
      type: "xavier"
    }
  }
}
layer {
  name: "softmax"
  type: "Softmax"
  bottom: "fc5_classes"
  top: "softmax"
}
layer {
  name: "loss"
  type: "MultinomialLogisticLoss"
  bottom: "softmax"
  bottom: "label"
  top: "loss"
}
layer {
  name: "accuracy_1"
  type: "Accuracy"
  bottom: "fc5_classes"
  bottom: "label"
  top: "accuracy_1"
  accuracy_param {
    top_k: 1
  }
}
layer {
  name: "accuracy_5"
  type: "Accuracy"
  bottom: "fc5_classes"
  bottom: "label"
  top: "accuracy_5"
  accuracy_param {
    top_k: 5
  }
}
layer {
  name: "silence"
  type: "Silence"
  bottom: "accuracy_1"
  bottom: "accuracy_5"
}
I0507 06:22:10.182778  2792 layer_factory.hpp:77] Creating layer data
I0507 06:22:10.183794  2792 net.cpp:100] Creating Layer data
I0507 06:22:10.183812  2792 net.cpp:408] data -> data
I0507 06:22:10.183843  2792 net.cpp:408] data -> label
I0507 06:22:10.201021  2925 db_lmdb.cpp:35] Opened lmdb ../local_data/lmdb/RTSD/histeq/train/lmdb
I0507 06:22:10.230094  2792 data_layer.cpp:41] output data size: 512,3,48,48
I0507 06:22:10.286813  2792 net.cpp:150] Setting up data
I0507 06:22:10.286876  2792 net.cpp:157] Top shape: 512 3 48 48 (3538944)
I0507 06:22:10.286885  2792 net.cpp:157] Top shape: 512 (512)
I0507 06:22:10.286887  2792 net.cpp:165] Memory required for data: 14157824
I0507 06:22:10.286898  2792 layer_factory.hpp:77] Creating layer label_data_1_split
I0507 06:22:10.286914  2792 net.cpp:100] Creating Layer label_data_1_split
I0507 06:22:10.286923  2792 net.cpp:434] label_data_1_split <- label
I0507 06:22:10.286938  2792 net.cpp:408] label_data_1_split -> label_data_1_split_0
I0507 06:22:10.286955  2792 net.cpp:408] label_data_1_split -> label_data_1_split_1
I0507 06:22:10.286964  2792 net.cpp:408] label_data_1_split -> label_data_1_split_2
I0507 06:22:10.287040  2792 net.cpp:150] Setting up label_data_1_split
I0507 06:22:10.287050  2792 net.cpp:157] Top shape: 512 (512)
I0507 06:22:10.287053  2792 net.cpp:157] Top shape: 512 (512)
I0507 06:22:10.287058  2792 net.cpp:157] Top shape: 512 (512)
I0507 06:22:10.287061  2792 net.cpp:165] Memory required for data: 14163968
I0507 06:22:10.287065  2792 layer_factory.hpp:77] Creating layer conv1
I0507 06:22:10.287083  2792 net.cpp:100] Creating Layer conv1
I0507 06:22:10.287091  2792 net.cpp:434] conv1 <- data
I0507 06:22:10.287097  2792 net.cpp:408] conv1 -> conv1
I0507 06:22:10.733660  2792 net.cpp:150] Setting up conv1
I0507 06:22:10.733692  2792 net.cpp:157] Top shape: 512 100 42 42 (90316800)
I0507 06:22:10.733697  2792 net.cpp:165] Memory required for data: 375431168
I0507 06:22:10.733722  2792 layer_factory.hpp:77] Creating layer conv1_relu
I0507 06:22:10.733738  2792 net.cpp:100] Creating Layer conv1_relu
I0507 06:22:10.733748  2792 net.cpp:434] conv1_relu <- conv1
I0507 06:22:10.733757  2792 net.cpp:395] conv1_relu -> conv1 (in-place)
I0507 06:22:10.733999  2792 net.cpp:150] Setting up conv1_relu
I0507 06:22:10.734014  2792 net.cpp:157] Top shape: 512 100 42 42 (90316800)
I0507 06:22:10.734019  2792 net.cpp:165] Memory required for data: 736698368
I0507 06:22:10.734025  2792 layer_factory.hpp:77] Creating layer pool1
I0507 06:22:10.734040  2792 net.cpp:100] Creating Layer pool1
I0507 06:22:10.734046  2792 net.cpp:434] pool1 <- conv1
I0507 06:22:10.734053  2792 net.cpp:408] pool1 -> pool1
I0507 06:22:10.734117  2792 net.cpp:150] Setting up pool1
I0507 06:22:10.734127  2792 net.cpp:157] Top shape: 512 100 21 21 (22579200)
I0507 06:22:10.734132  2792 net.cpp:165] Memory required for data: 827015168
I0507 06:22:10.734135  2792 layer_factory.hpp:77] Creating layer conv2
I0507 06:22:10.734148  2792 net.cpp:100] Creating Layer conv2
I0507 06:22:10.734153  2792 net.cpp:434] conv2 <- pool1
I0507 06:22:10.734158  2792 net.cpp:408] conv2 -> conv2
I0507 06:22:10.757710  2792 net.cpp:150] Setting up conv2
I0507 06:22:10.757740  2792 net.cpp:157] Top shape: 512 150 18 18 (24883200)
I0507 06:22:10.757743  2792 net.cpp:165] Memory required for data: 926547968
I0507 06:22:10.757761  2792 layer_factory.hpp:77] Creating layer conv2_relu
I0507 06:22:10.757771  2792 net.cpp:100] Creating Layer conv2_relu
I0507 06:22:10.757777  2792 net.cpp:434] conv2_relu <- conv2
I0507 06:22:10.757784  2792 net.cpp:395] conv2_relu -> conv2 (in-place)
I0507 06:22:10.763036  2792 net.cpp:150] Setting up conv2_relu
I0507 06:22:10.763056  2792 net.cpp:157] Top shape: 512 150 18 18 (24883200)
I0507 06:22:10.763062  2792 net.cpp:165] Memory required for data: 1026080768
I0507 06:22:10.763067  2792 layer_factory.hpp:77] Creating layer pool2
I0507 06:22:10.763075  2792 net.cpp:100] Creating Layer pool2
I0507 06:22:10.763082  2792 net.cpp:434] pool2 <- conv2
I0507 06:22:10.763088  2792 net.cpp:408] pool2 -> pool2
I0507 06:22:10.763152  2792 net.cpp:150] Setting up pool2
I0507 06:22:10.763164  2792 net.cpp:157] Top shape: 512 150 9 9 (6220800)
I0507 06:22:10.763167  2792 net.cpp:165] Memory required for data: 1050963968
I0507 06:22:10.763173  2792 layer_factory.hpp:77] Creating layer conv3
I0507 06:22:10.763192  2792 net.cpp:100] Creating Layer conv3
I0507 06:22:10.763200  2792 net.cpp:434] conv3 <- pool2
I0507 06:22:10.763206  2792 net.cpp:408] conv3 -> conv3
I0507 06:22:10.779037  2792 net.cpp:150] Setting up conv3
I0507 06:22:10.779059  2792 net.cpp:157] Top shape: 512 250 6 6 (4608000)
I0507 06:22:10.779064  2792 net.cpp:165] Memory required for data: 1069395968
I0507 06:22:10.779083  2792 layer_factory.hpp:77] Creating layer conv3_relu
I0507 06:22:10.779094  2792 net.cpp:100] Creating Layer conv3_relu
I0507 06:22:10.779103  2792 net.cpp:434] conv3_relu <- conv3
I0507 06:22:10.779112  2792 net.cpp:395] conv3_relu -> conv3 (in-place)
I0507 06:22:10.781571  2792 net.cpp:150] Setting up conv3_relu
I0507 06:22:10.781594  2792 net.cpp:157] Top shape: 512 250 6 6 (4608000)
I0507 06:22:10.781599  2792 net.cpp:165] Memory required for data: 1087827968
I0507 06:22:10.781606  2792 layer_factory.hpp:77] Creating layer pool3
I0507 06:22:10.781618  2792 net.cpp:100] Creating Layer pool3
I0507 06:22:10.781622  2792 net.cpp:434] pool3 <- conv3
I0507 06:22:10.781632  2792 net.cpp:408] pool3 -> pool3
I0507 06:22:10.781694  2792 net.cpp:150] Setting up pool3
I0507 06:22:10.781704  2792 net.cpp:157] Top shape: 512 250 3 3 (1152000)
I0507 06:22:10.781708  2792 net.cpp:165] Memory required for data: 1092435968
I0507 06:22:10.781711  2792 layer_factory.hpp:77] Creating layer fc4_300
I0507 06:22:10.781719  2792 net.cpp:100] Creating Layer fc4_300
I0507 06:22:10.781723  2792 net.cpp:434] fc4_300 <- pool3
I0507 06:22:10.781729  2792 net.cpp:408] fc4_300 -> fc4_300
I0507 06:22:10.788753  2792 net.cpp:150] Setting up fc4_300
I0507 06:22:10.788774  2792 net.cpp:157] Top shape: 512 300 (153600)
I0507 06:22:10.788777  2792 net.cpp:165] Memory required for data: 1093050368
I0507 06:22:10.788785  2792 layer_factory.hpp:77] Creating layer fc4_relu
I0507 06:22:10.788794  2792 net.cpp:100] Creating Layer fc4_relu
I0507 06:22:10.788800  2792 net.cpp:434] fc4_relu <- fc4_300
I0507 06:22:10.788807  2792 net.cpp:395] fc4_relu -> fc4_300 (in-place)
I0507 06:22:10.789053  2792 net.cpp:150] Setting up fc4_relu
I0507 06:22:10.789067  2792 net.cpp:157] Top shape: 512 300 (153600)
I0507 06:22:10.789073  2792 net.cpp:165] Memory required for data: 1093664768
I0507 06:22:10.789089  2792 layer_factory.hpp:77] Creating layer fc5_116
I0507 06:22:10.789099  2792 net.cpp:100] Creating Layer fc5_116
I0507 06:22:10.789103  2792 net.cpp:434] fc5_116 <- fc4_300
I0507 06:22:10.789109  2792 net.cpp:408] fc5_116 -> fc5_classes
I0507 06:22:10.791702  2792 net.cpp:150] Setting up fc5_116
I0507 06:22:10.791723  2792 net.cpp:157] Top shape: 512 116 (59392)
I0507 06:22:10.791728  2792 net.cpp:165] Memory required for data: 1093902336
I0507 06:22:10.791739  2792 layer_factory.hpp:77] Creating layer fc5_classes_fc5_116_0_split
I0507 06:22:10.791750  2792 net.cpp:100] Creating Layer fc5_classes_fc5_116_0_split
I0507 06:22:10.791756  2792 net.cpp:434] fc5_classes_fc5_116_0_split <- fc5_classes
I0507 06:22:10.791764  2792 net.cpp:408] fc5_classes_fc5_116_0_split -> fc5_classes_fc5_116_0_split_0
I0507 06:22:10.791774  2792 net.cpp:408] fc5_classes_fc5_116_0_split -> fc5_classes_fc5_116_0_split_1
I0507 06:22:10.791782  2792 net.cpp:408] fc5_classes_fc5_116_0_split -> fc5_classes_fc5_116_0_split_2
I0507 06:22:10.791844  2792 net.cpp:150] Setting up fc5_classes_fc5_116_0_split
I0507 06:22:10.791853  2792 net.cpp:157] Top shape: 512 116 (59392)
I0507 06:22:10.791857  2792 net.cpp:157] Top shape: 512 116 (59392)
I0507 06:22:10.791862  2792 net.cpp:157] Top shape: 512 116 (59392)
I0507 06:22:10.791864  2792 net.cpp:165] Memory required for data: 1094615040
I0507 06:22:10.791868  2792 layer_factory.hpp:77] Creating layer softmax
I0507 06:22:10.791874  2792 net.cpp:100] Creating Layer softmax
I0507 06:22:10.791893  2792 net.cpp:434] softmax <- fc5_classes_fc5_116_0_split_0
I0507 06:22:10.791899  2792 net.cpp:408] softmax -> softmax
I0507 06:22:10.792212  2792 net.cpp:150] Setting up softmax
I0507 06:22:10.792227  2792 net.cpp:157] Top shape: 512 116 (59392)
I0507 06:22:10.792230  2792 net.cpp:165] Memory required for data: 1094852608
I0507 06:22:10.792234  2792 layer_factory.hpp:77] Creating layer loss
I0507 06:22:10.792245  2792 net.cpp:100] Creating Layer loss
I0507 06:22:10.792268  2792 net.cpp:434] loss <- softmax
I0507 06:22:10.792281  2792 net.cpp:434] loss <- label_data_1_split_0
I0507 06:22:10.792289  2792 net.cpp:408] loss -> loss
…
