…
I0508 02:45:12.631110 25184 solver.cpp:93] Creating training net from train_net file: ./Prototxt/experiment_16/RTSD/CoNorm/trial_2/train.prototxt
I0508 02:45:12.631582 25184 net.cpp:58] Initializing net from parameters: 
state {
  phase: TRAIN
  level: 0
  stage: ""
}
layer {
  name: "data"
  type: "Data"
  top: "data"
  top: "label"
  include {
    phase: TRAIN
  }
  transform_param {
    scale: 0.0039215689
    mirror: false
    crop_size: 48
    mean_value: 135
    mean_value: 135
    mean_value: 134
  }
  data_param {
    source: "../local_data/lmdb/RTSD/CoNorm/train/lmdb"
    batch_size: 1024
    backend: LMDB
  }
}
layer {
  name: "conv1"
  type: "Convolution"
  bottom: "data"
  top: "conv1"
  convolution_param {
    num_output: 100
    pad: 0
    kernel_size: 7
    group: 1
    stride: 1
    weight_filler {
      type: "xavier"
    }
  }
}
layer {
  name: "conv1_relu"
  type: "ReLU"
  bottom: "conv1"
  top: "conv1"
}
layer {
  name: "pool1"
  type: "Pooling"
  bottom: "conv1"
  top: "pool1"
  pooling_param {
    pool: MAX
    kernel_size: 2
    stride: 2
  }
}
layer {
  name: "conv2"
  type: "Convolution"
  bottom: "pool1"
  top: "conv2"
  convolution_param {
    num_output: 150
    pad: 0
    kernel_size: 4
    group: 2
    stride: 1
    weight_filler {
      type: "xavier"
    }
  }
}
layer {
  name: "conv2_relu"
  type: "ReLU"
  bottom: "conv2"
  top: "conv2"
}
layer {
  name: "pool2"
  type: "Pooling"
  bottom: "conv2"
  top: "pool2"
  pooling_param {
    pool: MAX
    kernel_size: 2
    stride: 2
  }
}
layer {
  name: "conv3"
  type: "Convolution"
  bottom: "pool2"
  top: "conv3"
  convolution_param {
    num_output: 250
    pad: 0
    kernel_size: 4
    group: 2
    stride: 1
    weight_filler {
      type: "xavier"
    }
  }
}
layer {
  name: "conv3_relu"
  type: "ReLU"
  bottom: "conv3"
  top: "conv3"
}
layer {
  name: "pool3"
  type: "Pooling"
  bottom: "conv3"
  top: "pool3"
  pooling_param {
    pool: MAX
    kernel_size: 2
    stride: 2
  }
}
layer {
  name: "fc4_300"
  type: "InnerProduct"
  bottom: "pool3"
  top: "fc4_300"
  inner_product_param {
    num_output: 300
    weight_filler {
      type: "xavier"
    }
  }
}
layer {
  name: "fc4_relu"
  type: "ReLU"
  bottom: "fc4_300"
  top: "fc4_300"
}
layer {
  name: "fc5_116"
  type: "InnerProduct"
  bottom: "fc4_300"
  top: "fc5_classes"
  inner_product_param {
    num_output: 116
    weight_filler {
      type: "xavier"
    }
  }
}
layer {
  name: "softmax"
  type: "Softmax"
  bottom: "fc5_classes"
  top: "softmax"
}
layer {
  name: "loss"
  type: "MultinomialLogisticLoss"
  bottom: "softmax"
  bottom: "label"
  top: "loss"
}
layer {
  name: "accuracy_1"
  type: "Accuracy"
  bottom: "fc5_classes"
  bottom: "label"
  top: "accuracy_1"
  accuracy_param {
    top_k: 1
  }
}
layer {
  name: "accuracy_5"
  type: "Accuracy"
  bottom: "fc5_classes"
  bottom: "label"
  top: "accuracy_5"
  accuracy_param {
    top_k: 5
  }
}
layer {
  name: "silence"
  type: "Silence"
  bottom: "accuracy_1"
  bottom: "accuracy_5"
}
I0508 02:45:12.631729 25184 layer_factory.hpp:77] Creating layer data
I0508 02:45:12.633154 25184 net.cpp:100] Creating Layer data
I0508 02:45:12.633186 25184 net.cpp:408] data -> data
I0508 02:45:12.633216 25184 net.cpp:408] data -> label
I0508 02:45:12.636569 25292 db_lmdb.cpp:35] Opened lmdb ../local_data/lmdb/RTSD/CoNorm/train/lmdb
I0508 02:45:12.654964 25184 data_layer.cpp:41] output data size: 1024,3,48,48
I0508 02:45:12.713498 25184 net.cpp:150] Setting up data
I0508 02:45:12.713557 25184 net.cpp:157] Top shape: 1024 3 48 48 (7077888)
I0508 02:45:12.713563 25184 net.cpp:157] Top shape: 1024 (1024)
I0508 02:45:12.713567 25184 net.cpp:165] Memory required for data: 28315648
I0508 02:45:12.713577 25184 layer_factory.hpp:77] Creating layer label_data_1_split
I0508 02:45:12.713593 25184 net.cpp:100] Creating Layer label_data_1_split
I0508 02:45:12.713598 25184 net.cpp:434] label_data_1_split <- label
I0508 02:45:12.713613 25184 net.cpp:408] label_data_1_split -> label_data_1_split_0
I0508 02:45:12.713631 25184 net.cpp:408] label_data_1_split -> label_data_1_split_1
I0508 02:45:12.713644 25184 net.cpp:408] label_data_1_split -> label_data_1_split_2
I0508 02:45:12.713727 25184 net.cpp:150] Setting up label_data_1_split
I0508 02:45:12.713742 25184 net.cpp:157] Top shape: 1024 (1024)
I0508 02:45:12.713750 25184 net.cpp:157] Top shape: 1024 (1024)
I0508 02:45:12.713759 25184 net.cpp:157] Top shape: 1024 (1024)
I0508 02:45:12.713765 25184 net.cpp:165] Memory required for data: 28327936
I0508 02:45:12.713771 25184 layer_factory.hpp:77] Creating layer conv1
I0508 02:45:12.713796 25184 net.cpp:100] Creating Layer conv1
I0508 02:45:12.713804 25184 net.cpp:434] conv1 <- data
I0508 02:45:12.713815 25184 net.cpp:408] conv1 -> conv1
I0508 02:45:13.095271 25184 net.cpp:150] Setting up conv1
I0508 02:45:13.095299 25184 net.cpp:157] Top shape: 1024 100 42 42 (180633600)
I0508 02:45:13.095304 25184 net.cpp:165] Memory required for data: 750862336
I0508 02:45:13.095324 25184 layer_factory.hpp:77] Creating layer conv1_relu
I0508 02:45:13.095337 25184 net.cpp:100] Creating Layer conv1_relu
I0508 02:45:13.095343 25184 net.cpp:434] conv1_relu <- conv1
I0508 02:45:13.095350 25184 net.cpp:395] conv1_relu -> conv1 (in-place)
I0508 02:45:13.095552 25184 net.cpp:150] Setting up conv1_relu
I0508 02:45:13.095564 25184 net.cpp:157] Top shape: 1024 100 42 42 (180633600)
I0508 02:45:13.095569 25184 net.cpp:165] Memory required for data: 1473396736
I0508 02:45:13.095573 25184 layer_factory.hpp:77] Creating layer pool1
I0508 02:45:13.095583 25184 net.cpp:100] Creating Layer pool1
I0508 02:45:13.095588 25184 net.cpp:434] pool1 <- conv1
I0508 02:45:13.095594 25184 net.cpp:408] pool1 -> pool1
I0508 02:45:13.095650 25184 net.cpp:150] Setting up pool1
I0508 02:45:13.095659 25184 net.cpp:157] Top shape: 1024 100 21 21 (45158400)
I0508 02:45:13.095664 25184 net.cpp:165] Memory required for data: 1654030336
I0508 02:45:13.095666 25184 layer_factory.hpp:77] Creating layer conv2
I0508 02:45:13.095677 25184 net.cpp:100] Creating Layer conv2
I0508 02:45:13.095682 25184 net.cpp:434] conv2 <- pool1
I0508 02:45:13.095687 25184 net.cpp:408] conv2 -> conv2
I0508 02:45:13.111553 25184 net.cpp:150] Setting up conv2
I0508 02:45:13.111572 25184 net.cpp:157] Top shape: 1024 150 18 18 (49766400)
I0508 02:45:13.111577 25184 net.cpp:165] Memory required for data: 1853095936
I0508 02:45:13.111587 25184 layer_factory.hpp:77] Creating layer conv2_relu
I0508 02:45:13.111594 25184 net.cpp:100] Creating Layer conv2_relu
I0508 02:45:13.111599 25184 net.cpp:434] conv2_relu <- conv2
I0508 02:45:13.111604 25184 net.cpp:395] conv2_relu -> conv2 (in-place)
I0508 02:45:13.111785 25184 net.cpp:150] Setting up conv2_relu
I0508 02:45:13.111798 25184 net.cpp:157] Top shape: 1024 150 18 18 (49766400)
I0508 02:45:13.111802 25184 net.cpp:165] Memory required for data: 2052161536
I0508 02:45:13.111806 25184 layer_factory.hpp:77] Creating layer pool2
I0508 02:45:13.111812 25184 net.cpp:100] Creating Layer pool2
I0508 02:45:13.111817 25184 net.cpp:434] pool2 <- conv2
I0508 02:45:13.111824 25184 net.cpp:408] pool2 -> pool2
I0508 02:45:13.111872 25184 net.cpp:150] Setting up pool2
I0508 02:45:13.111894 25184 net.cpp:157] Top shape: 1024 150 9 9 (12441600)
I0508 02:45:13.111898 25184 net.cpp:165] Memory required for data: 2101927936
I0508 02:45:13.111901 25184 layer_factory.hpp:77] Creating layer conv3
I0508 02:45:13.111912 25184 net.cpp:100] Creating Layer conv3
I0508 02:45:13.111917 25184 net.cpp:434] conv3 <- pool2
I0508 02:45:13.111922 25184 net.cpp:408] conv3 -> conv3
I0508 02:45:13.117314 25184 net.cpp:150] Setting up conv3
I0508 02:45:13.117332 25184 net.cpp:157] Top shape: 1024 250 6 6 (9216000)
I0508 02:45:13.117337 25184 net.cpp:165] Memory required for data: 2138791936
I0508 02:45:13.117349 25184 layer_factory.hpp:77] Creating layer conv3_relu
I0508 02:45:13.117358 25184 net.cpp:100] Creating Layer conv3_relu
I0508 02:45:13.117363 25184 net.cpp:434] conv3_relu <- conv3
I0508 02:45:13.117369 25184 net.cpp:395] conv3_relu -> conv3 (in-place)
I0508 02:45:13.117573 25184 net.cpp:150] Setting up conv3_relu
I0508 02:45:13.117585 25184 net.cpp:157] Top shape: 1024 250 6 6 (9216000)
I0508 02:45:13.117590 25184 net.cpp:165] Memory required for data: 2175655936
I0508 02:45:13.117594 25184 layer_factory.hpp:77] Creating layer pool3
I0508 02:45:13.117602 25184 net.cpp:100] Creating Layer pool3
I0508 02:45:13.117609 25184 net.cpp:434] pool3 <- conv3
I0508 02:45:13.117614 25184 net.cpp:408] pool3 -> pool3
I0508 02:45:13.117664 25184 net.cpp:150] Setting up pool3
I0508 02:45:13.117672 25184 net.cpp:157] Top shape: 1024 250 3 3 (2304000)
I0508 02:45:13.117677 25184 net.cpp:165] Memory required for data: 2184871936
I0508 02:45:13.117681 25184 layer_factory.hpp:77] Creating layer fc4_300
I0508 02:45:13.117687 25184 net.cpp:100] Creating Layer fc4_300
I0508 02:45:13.117692 25184 net.cpp:434] fc4_300 <- pool3
I0508 02:45:13.117699 25184 net.cpp:408] fc4_300 -> fc4_300
I0508 02:45:13.123757 25184 net.cpp:150] Setting up fc4_300
I0508 02:45:13.123775 25184 net.cpp:157] Top shape: 1024 300 (307200)
I0508 02:45:13.123780 25184 net.cpp:165] Memory required for data: 2186100736
I0508 02:45:13.123786 25184 layer_factory.hpp:77] Creating layer fc4_relu
I0508 02:45:13.123795 25184 net.cpp:100] Creating Layer fc4_relu
I0508 02:45:13.123800 25184 net.cpp:434] fc4_relu <- fc4_300
I0508 02:45:13.123805 25184 net.cpp:395] fc4_relu -> fc4_300 (in-place)
I0508 02:45:13.125955 25184 net.cpp:150] Setting up fc4_relu
I0508 02:45:13.125974 25184 net.cpp:157] Top shape: 1024 300 (307200)
I0508 02:45:13.125977 25184 net.cpp:165] Memory required for data: 2187329536
I0508 02:45:13.125982 25184 layer_factory.hpp:77] Creating layer fc5_116
I0508 02:45:13.125989 25184 net.cpp:100] Creating Layer fc5_116
I0508 02:45:13.125994 25184 net.cpp:434] fc5_116 <- fc4_300
I0508 02:45:13.126003 25184 net.cpp:408] fc5_116 -> fc5_classes
I0508 02:45:13.129192 25184 net.cpp:150] Setting up fc5_116
I0508 02:45:13.129210 25184 net.cpp:157] Top shape: 1024 116 (118784)
I0508 02:45:13.129215 25184 net.cpp:165] Memory required for data: 2187804672
I0508 02:45:13.129227 25184 layer_factory.hpp:77] Creating layer fc5_classes_fc5_116_0_split
I0508 02:45:13.129237 25184 net.cpp:100] Creating Layer fc5_classes_fc5_116_0_split
I0508 02:45:13.129242 25184 net.cpp:434] fc5_classes_fc5_116_0_split <- fc5_classes
I0508 02:45:13.129251 25184 net.cpp:408] fc5_classes_fc5_116_0_split -> fc5_classes_fc5_116_0_split_0
I0508 02:45:13.129261 25184 net.cpp:408] fc5_classes_fc5_116_0_split -> fc5_classes_fc5_116_0_split_1
I0508 02:45:13.129268 25184 net.cpp:408] fc5_classes_fc5_116_0_split -> fc5_classes_fc5_116_0_split_2
I0508 02:45:13.129325 25184 net.cpp:150] Setting up fc5_classes_fc5_116_0_split
I0508 02:45:13.129333 25184 net.cpp:157] Top shape: 1024 116 (118784)
I0508 02:45:13.129338 25184 net.cpp:157] Top shape: 1024 116 (118784)
I0508 02:45:13.129343 25184 net.cpp:157] Top shape: 1024 116 (118784)
I0508 02:45:13.129345 25184 net.cpp:165] Memory required for data: 2189230080
I0508 02:45:13.129348 25184 layer_factory.hpp:77] Creating layer softmax
I0508 02:45:13.129355 25184 net.cpp:100] Creating Layer softmax
I0508 02:45:13.129360 25184 net.cpp:434] softmax <- fc5_classes_fc5_116_0_split_0
I0508 02:45:13.129365 25184 net.cpp:408] softmax -> softmax
I0508 02:45:13.129626 25184 net.cpp:150] Setting up softmax
I0508 02:45:13.129640 25184 net.cpp:157] Top shape: 1024 116 (118784)
I0508 02:45:13.129645 25184 net.cpp:165] Memory required for data: 2189705216
I0508 02:45:13.129649 25184 layer_factory.hpp:77] Creating layer loss
I0508 02:45:13.129673 25184 net.cpp:100] Creating Layer loss
I0508 02:45:13.129679 25184 net.cpp:434] loss <- softmax
I0508 02:45:13.129684 25184 net.cpp:434] loss <- label_data_1_split_0
I0508 02:45:13.129689 25184 net.cpp:408] loss -> loss
…
