…
I0414 13:11:21.617656 23760 solver.cpp:93] Creating training net from train_net file: ./Prototxt/experiment_10/rtsd-r3/orig/trial_1/train.prototxt
I0414 13:11:21.618145 23760 net.cpp:58] Initializing net from parameters: 
state {
  phase: TRAIN
  level: 0
  stage: ""
}
layer {
  name: "data"
  type: "Data"
  top: "data"
  top: "label"
  include {
    phase: TRAIN
  }
  transform_param {
    scale: 0.0039215689
    mirror: false
    crop_size: 48
    mean_value: 120
    mean_value: 113
    mean_value: 112
  }
  data_param {
    source: "../local_data/lmdb/rtsd-r3/orig/train/lmdb"
    batch_size: 1024
    backend: LMDB
  }
}
layer {
  name: "conv1"
  type: "Convolution"
  bottom: "data"
  top: "conv1"
  convolution_param {
    num_output: 100
    pad: 0
    kernel_size: 7
    group: 1
    stride: 1
    weight_filler {
      type: "xavier"
    }
  }
}
layer {
  name: "conv1_relu"
  type: "ReLU"
  bottom: "conv1"
  top: "conv1"
}
layer {
  name: "pool1"
  type: "Pooling"
  bottom: "conv1"
  top: "pool1"
  pooling_param {
    pool: MAX
    kernel_size: 2
    stride: 2
  }
}
layer {
  name: "conv2"
  type: "Convolution"
  bottom: "pool1"
  top: "conv2"
  convolution_param {
    num_output: 150
    pad: 0
    kernel_size: 4
    group: 1
    stride: 1
    weight_filler {
      type: "xavier"
    }
  }
}
layer {
  name: "conv2_relu"
  type: "ReLU"
  bottom: "conv2"
  top: "conv2"
}
layer {
  name: "pool2"
  type: "Pooling"
  bottom: "conv2"
  top: "pool2"
  pooling_param {
    pool: MAX
    kernel_size: 2
    stride: 2
  }
}
layer {
  name: "conv3"
  type: "Convolution"
  bottom: "pool2"
  top: "conv3"
  convolution_param {
    num_output: 250
    pad: 0
    kernel_size: 4
    group: 1
    stride: 1
    weight_filler {
      type: "xavier"
    }
  }
}
layer {
  name: "conv3_relu"
  type: "ReLU"
  bottom: "conv3"
  top: "conv3"
}
layer {
  name: "pool3"
  type: "Pooling"
  bottom: "conv3"
  top: "pool3"
  pooling_param {
    pool: MAX
    kernel_size: 2
    stride: 2
  }
}
layer {
  name: "fc4_300"
  type: "InnerProduct"
  bottom: "pool3"
  top: "fc4_300"
  inner_product_param {
    num_output: 300
    weight_filler {
      type: "xavier"
    }
  }
}
layer {
  name: "fc4_relu"
  type: "ReLU"
  bottom: "fc4_300"
  top: "fc4_300"
}
layer {
  name: "fc5_106"
  type: "InnerProduct"
  bottom: "fc4_300"
  top: "fc5_classes"
  inner_product_param {
    num_output: 106
    weight_filler {
      type: "xavier"
    }
  }
}
layer {
  name: "softmax"
  type: "Softmax"
  bottom: "fc5_classes"
  top: "softmax"
}
layer {
  name: "loss"
  type: "MultinomialLogisticLoss"
  bottom: "softmax"
  bottom: "label"
  top: "loss"
}
layer {
  name: "accuracy_1"
  type: "Accuracy"
  bottom: "fc5_classes"
  bottom: "label"
  top: "accuracy_1"
  accuracy_param {
    top_k: 1
  }
}
layer {
  name: "accuracy_5"
  type: "Accuracy"
  bottom: "fc5_classes"
  bottom: "label"
  top: "accuracy_5"
  accuracy_param {
    top_k: 5
  }
}
layer {
  name: "silence"
  type: "Silence"
  bottom: "accuracy_1"
  bottom: "accuracy_5"
}
I0414 13:11:21.618324 23760 layer_factory.hpp:77] Creating layer data
I0414 13:11:21.620023 23760 net.cpp:100] Creating Layer data
I0414 13:11:21.620048 23760 net.cpp:408] data -> data
I0414 13:11:21.620081 23760 net.cpp:408] data -> label
I0414 13:11:21.640825 23865 db_lmdb.cpp:35] Opened lmdb ../local_data/lmdb/rtsd-r3/orig/train/lmdb
I0414 13:11:21.665000 23760 data_layer.cpp:41] output data size: 1024,3,48,48
I0414 13:11:21.772665 23760 net.cpp:150] Setting up data
I0414 13:11:21.772727 23760 net.cpp:157] Top shape: 1024 3 48 48 (7077888)
I0414 13:11:21.772735 23760 net.cpp:157] Top shape: 1024 (1024)
I0414 13:11:21.772738 23760 net.cpp:165] Memory required for data: 28315648
I0414 13:11:21.772750 23760 layer_factory.hpp:77] Creating layer label_data_1_split
I0414 13:11:21.772765 23760 net.cpp:100] Creating Layer label_data_1_split
I0414 13:11:21.772775 23760 net.cpp:434] label_data_1_split <- label
I0414 13:11:21.772791 23760 net.cpp:408] label_data_1_split -> label_data_1_split_0
I0414 13:11:21.772806 23760 net.cpp:408] label_data_1_split -> label_data_1_split_1
I0414 13:11:21.772816 23760 net.cpp:408] label_data_1_split -> label_data_1_split_2
I0414 13:11:21.772928 23760 net.cpp:150] Setting up label_data_1_split
I0414 13:11:21.772940 23760 net.cpp:157] Top shape: 1024 (1024)
I0414 13:11:21.772944 23760 net.cpp:157] Top shape: 1024 (1024)
I0414 13:11:21.772948 23760 net.cpp:157] Top shape: 1024 (1024)
I0414 13:11:21.772951 23760 net.cpp:165] Memory required for data: 28327936
I0414 13:11:21.772956 23760 layer_factory.hpp:77] Creating layer conv1
I0414 13:11:21.772976 23760 net.cpp:100] Creating Layer conv1
I0414 13:11:21.772984 23760 net.cpp:434] conv1 <- data
I0414 13:11:21.772990 23760 net.cpp:408] conv1 -> conv1
I0414 13:11:22.250933 23760 net.cpp:150] Setting up conv1
I0414 13:11:22.250965 23760 net.cpp:157] Top shape: 1024 100 42 42 (180633600)
I0414 13:11:22.250969 23760 net.cpp:165] Memory required for data: 750862336
I0414 13:11:22.250996 23760 layer_factory.hpp:77] Creating layer conv1_relu
I0414 13:11:22.251011 23760 net.cpp:100] Creating Layer conv1_relu
I0414 13:11:22.251019 23760 net.cpp:434] conv1_relu <- conv1
I0414 13:11:22.251025 23760 net.cpp:395] conv1_relu -> conv1 (in-place)
I0414 13:11:22.251281 23760 net.cpp:150] Setting up conv1_relu
I0414 13:11:22.251296 23760 net.cpp:157] Top shape: 1024 100 42 42 (180633600)
I0414 13:11:22.251301 23760 net.cpp:165] Memory required for data: 1473396736
I0414 13:11:22.251304 23760 layer_factory.hpp:77] Creating layer pool1
I0414 13:11:22.251315 23760 net.cpp:100] Creating Layer pool1
I0414 13:11:22.251320 23760 net.cpp:434] pool1 <- conv1
I0414 13:11:22.251327 23760 net.cpp:408] pool1 -> pool1
I0414 13:11:22.251389 23760 net.cpp:150] Setting up pool1
I0414 13:11:22.251399 23760 net.cpp:157] Top shape: 1024 100 21 21 (45158400)
I0414 13:11:22.251405 23760 net.cpp:165] Memory required for data: 1654030336
I0414 13:11:22.251408 23760 layer_factory.hpp:77] Creating layer conv2
I0414 13:11:22.251420 23760 net.cpp:100] Creating Layer conv2
I0414 13:11:22.251425 23760 net.cpp:434] conv2 <- pool1
I0414 13:11:22.251431 23760 net.cpp:408] conv2 -> conv2
I0414 13:11:22.258441 23760 net.cpp:150] Setting up conv2
I0414 13:11:22.258460 23760 net.cpp:157] Top shape: 1024 150 18 18 (49766400)
I0414 13:11:22.258465 23760 net.cpp:165] Memory required for data: 1853095936
I0414 13:11:22.258476 23760 layer_factory.hpp:77] Creating layer conv2_relu
I0414 13:11:22.258486 23760 net.cpp:100] Creating Layer conv2_relu
I0414 13:11:22.258492 23760 net.cpp:434] conv2_relu <- conv2
I0414 13:11:22.258498 23760 net.cpp:395] conv2_relu -> conv2 (in-place)
I0414 13:11:22.262459 23760 net.cpp:150] Setting up conv2_relu
I0414 13:11:22.262477 23760 net.cpp:157] Top shape: 1024 150 18 18 (49766400)
I0414 13:11:22.262481 23760 net.cpp:165] Memory required for data: 2052161536
I0414 13:11:22.262486 23760 layer_factory.hpp:77] Creating layer pool2
I0414 13:11:22.262495 23760 net.cpp:100] Creating Layer pool2
I0414 13:11:22.262501 23760 net.cpp:434] pool2 <- conv2
I0414 13:11:22.262508 23760 net.cpp:408] pool2 -> pool2
I0414 13:11:22.262568 23760 net.cpp:150] Setting up pool2
I0414 13:11:22.262578 23760 net.cpp:157] Top shape: 1024 150 9 9 (12441600)
I0414 13:11:22.262583 23760 net.cpp:165] Memory required for data: 2101927936
I0414 13:11:22.262586 23760 layer_factory.hpp:77] Creating layer conv3
I0414 13:11:22.262598 23760 net.cpp:100] Creating Layer conv3
I0414 13:11:22.262603 23760 net.cpp:434] conv3 <- pool2
I0414 13:11:22.262609 23760 net.cpp:408] conv3 -> conv3
I0414 13:11:22.269552 23760 net.cpp:150] Setting up conv3
I0414 13:11:22.269572 23760 net.cpp:157] Top shape: 1024 250 6 6 (9216000)
I0414 13:11:22.269577 23760 net.cpp:165] Memory required for data: 2138791936
I0414 13:11:22.269589 23760 layer_factory.hpp:77] Creating layer conv3_relu
I0414 13:11:22.269598 23760 net.cpp:100] Creating Layer conv3_relu
I0414 13:11:22.269601 23760 net.cpp:434] conv3_relu <- conv3
I0414 13:11:22.269608 23760 net.cpp:395] conv3_relu -> conv3 (in-place)
I0414 13:11:22.278378 23760 net.cpp:150] Setting up conv3_relu
I0414 13:11:22.278400 23760 net.cpp:157] Top shape: 1024 250 6 6 (9216000)
I0414 13:11:22.278404 23760 net.cpp:165] Memory required for data: 2175655936
I0414 13:11:22.278409 23760 layer_factory.hpp:77] Creating layer pool3
I0414 13:11:22.278419 23760 net.cpp:100] Creating Layer pool3
I0414 13:11:22.278424 23760 net.cpp:434] pool3 <- conv3
I0414 13:11:22.278431 23760 net.cpp:408] pool3 -> pool3
I0414 13:11:22.278491 23760 net.cpp:150] Setting up pool3
I0414 13:11:22.278499 23760 net.cpp:157] Top shape: 1024 250 3 3 (2304000)
I0414 13:11:22.278503 23760 net.cpp:165] Memory required for data: 2184871936
I0414 13:11:22.278507 23760 layer_factory.hpp:77] Creating layer fc4_300
I0414 13:11:22.278515 23760 net.cpp:100] Creating Layer fc4_300
I0414 13:11:22.278520 23760 net.cpp:434] fc4_300 <- pool3
I0414 13:11:22.278527 23760 net.cpp:408] fc4_300 -> fc4_300
I0414 13:11:22.289535 23760 net.cpp:150] Setting up fc4_300
I0414 13:11:22.289556 23760 net.cpp:157] Top shape: 1024 300 (307200)
I0414 13:11:22.289561 23760 net.cpp:165] Memory required for data: 2186100736
I0414 13:11:22.289571 23760 layer_factory.hpp:77] Creating layer fc4_relu
I0414 13:11:22.289578 23760 net.cpp:100] Creating Layer fc4_relu
I0414 13:11:22.289584 23760 net.cpp:434] fc4_relu <- fc4_300
I0414 13:11:22.289590 23760 net.cpp:395] fc4_relu -> fc4_300 (in-place)
I0414 13:11:22.289819 23760 net.cpp:150] Setting up fc4_relu
I0414 13:11:22.289834 23760 net.cpp:157] Top shape: 1024 300 (307200)
I0414 13:11:22.289837 23760 net.cpp:165] Memory required for data: 2187329536
I0414 13:11:22.289841 23760 layer_factory.hpp:77] Creating layer fc5_106
I0414 13:11:22.289849 23760 net.cpp:100] Creating Layer fc5_106
I0414 13:11:22.289854 23760 net.cpp:434] fc5_106 <- fc4_300
I0414 13:11:22.289860 23760 net.cpp:408] fc5_106 -> fc5_classes
I0414 13:11:22.306443 23760 net.cpp:150] Setting up fc5_106
I0414 13:11:22.306465 23760 net.cpp:157] Top shape: 1024 106 (108544)
I0414 13:11:22.306470 23760 net.cpp:165] Memory required for data: 2187763712
I0414 13:11:22.306483 23760 layer_factory.hpp:77] Creating layer fc5_classes_fc5_106_0_split
I0414 13:11:22.306494 23760 net.cpp:100] Creating Layer fc5_classes_fc5_106_0_split
I0414 13:11:22.306501 23760 net.cpp:434] fc5_classes_fc5_106_0_split <- fc5_classes
I0414 13:11:22.306509 23760 net.cpp:408] fc5_classes_fc5_106_0_split -> fc5_classes_fc5_106_0_split_0
I0414 13:11:22.306519 23760 net.cpp:408] fc5_classes_fc5_106_0_split -> fc5_classes_fc5_106_0_split_1
I0414 13:11:22.306526 23760 net.cpp:408] fc5_classes_fc5_106_0_split -> fc5_classes_fc5_106_0_split_2
I0414 13:11:22.306588 23760 net.cpp:150] Setting up fc5_classes_fc5_106_0_split
I0414 13:11:22.306597 23760 net.cpp:157] Top shape: 1024 106 (108544)
I0414 13:11:22.306602 23760 net.cpp:157] Top shape: 1024 106 (108544)
I0414 13:11:22.306607 23760 net.cpp:157] Top shape: 1024 106 (108544)
I0414 13:11:22.306610 23760 net.cpp:165] Memory required for data: 2189066240
I0414 13:11:22.306614 23760 layer_factory.hpp:77] Creating layer softmax
I0414 13:11:22.306622 23760 net.cpp:100] Creating Layer softmax
I0414 13:11:22.306625 23760 net.cpp:434] softmax <- fc5_classes_fc5_106_0_split_0
I0414 13:11:22.306632 23760 net.cpp:408] softmax -> softmax
I0414 13:11:22.306933 23760 net.cpp:150] Setting up softmax
I0414 13:11:22.306948 23760 net.cpp:157] Top shape: 1024 106 (108544)
I0414 13:11:22.306952 23760 net.cpp:165] Memory required for data: 2189500416
I0414 13:11:22.306957 23760 layer_factory.hpp:77] Creating layer loss
I0414 13:11:22.306985 23760 net.cpp:100] Creating Layer loss
I0414 13:11:22.306990 23760 net.cpp:434] loss <- softmax
I0414 13:11:22.306996 23760 net.cpp:434] loss <- label_data_1_split_0
I0414 13:11:22.307003 23760 net.cpp:408] loss -> loss
…
