…
I0508 00:47:18.138880 17805 solver.cpp:93] Creating training net from train_net file: ./Prototxt/experiment_15/RTSD/orig/trial_1/train.prototxt
I0508 00:47:18.139345 17805 net.cpp:58] Initializing net from parameters: 
state {
  phase: TRAIN
  level: 0
  stage: ""
}
layer {
  name: "data"
  type: "Data"
  top: "data"
  top: "label"
  include {
    phase: TRAIN
  }
  transform_param {
    scale: 0.0039215689
    mirror: false
    crop_size: 48
    mean_value: 119
    mean_value: 113
    mean_value: 113
  }
  data_param {
    source: "../local_data/lmdb/RTSD/orig/train/lmdb"
    batch_size: 1024
    backend: LMDB
  }
}
layer {
  name: "conv1"
  type: "Convolution"
  bottom: "data"
  top: "conv1"
  convolution_param {
    num_output: 100
    pad: 0
    kernel_size: 7
    group: 1
    stride: 1
    weight_filler {
      type: "xavier"
    }
  }
}
layer {
  name: "conv1_prescale"
  type: "Scale"
  bottom: "conv1"
  top: "conv1"
  param {
    lr_mult: 0
    decay_mult: 0
  }
  scale_param {
    filler {
      value: 0.6666
    }
    bias_term: false
  }
}
layer {
  name: "conv1_sTanH"
  type: "TanH"
  bottom: "conv1"
  top: "conv1"
}
layer {
  name: "conv1_postscale"
  type: "Scale"
  bottom: "conv1"
  top: "conv1"
  param {
    lr_mult: 0
    decay_mult: 0
  }
  scale_param {
    filler {
      value: 1.7159
    }
    bias_term: false
  }
}
layer {
  name: "pool1"
  type: "Pooling"
  bottom: "conv1"
  top: "pool1"
  pooling_param {
    pool: MAX
    kernel_size: 2
    stride: 2
  }
}
layer {
  name: "conv2"
  type: "Convolution"
  bottom: "pool1"
  top: "conv2"
  convolution_param {
    num_output: 150
    pad: 0
    kernel_size: 4
    group: 2
    stride: 1
    weight_filler {
      type: "xavier"
    }
  }
}
layer {
  name: "conv2_prescale"
  type: "Scale"
  bottom: "conv2"
  top: "conv2"
  param {
    lr_mult: 0
    decay_mult: 0
  }
  scale_param {
    filler {
      value: 0.6666
    }
    bias_term: false
  }
}
layer {
  name: "conv2_sTanH"
  type: "TanH"
  bottom: "conv2"
  top: "conv2"
}
layer {
  name: "conv2_postscale"
  type: "Scale"
  bottom: "conv2"
  top: "conv2"
  param {
    lr_mult: 0
    decay_mult: 0
  }
  scale_param {
    filler {
      value: 1.7159
    }
    bias_term: false
  }
}
layer {
  name: "pool2"
  type: "Pooling"
  bottom: "conv2"
  top: "pool2"
  pooling_param {
    pool: MAX
    kernel_size: 2
    stride: 2
  }
}
layer {
  name: "conv3"
  type: "Convolution"
  bottom: "pool2"
  top: "conv3"
  convolution_param {
    num_output: 250
    pad: 0
    kernel_size: 4
    group: 2
    stride: 1
    weight_filler {
      type: "xavier"
    }
  }
}
layer {
  name: "conv3_prescale"
  type: "Scale"
  bottom: "conv3"
  top: "conv3"
  param {
    lr_mult: 0
    decay_mult: 0
  }
  scale_param {
    filler {
      value: 0.6666
    }
    bias_term: false
  }
}
layer {
  name: "conv3_sTanH"
  type: "TanH"
  bottom: "conv3"
  top: "conv3"
}
layer {
  name: "conv3_postscale"
  type: "Scale"
  bottom: "conv3"
  top: "conv3"
  param {
    lr_mult: 0
    decay_mult: 0
  }
  scale_param {
    filler {
      value: 1.7159
    }
    bias_term: false
  }
}
layer {
  name: "pool3"
  type: "Pooling"
  bottom: "conv3"
  top: "pool3"
  pooling_param {
    pool: MAX
    kernel_size: 2
    stride: 2
  }
}
layer {
  name: "fc4_300"
  type: "InnerProduct"
  bottom: "pool3"
  top: "fc4_300"
  inner_product_param {
    num_output: 300
    weight_filler {
      type: "xavier"
    }
  }
}
layer {
  name: "fc4_prescale"
  type: "Scale"
  bottom: "fc4_300"
  top: "fc4_300"
  param {
    lr_mult: 0
    decay_mult: 0
  }
  scale_param {
    filler {
      value: 0.6666
    }
    bias_term: false
  }
}
layer {
  name: "fc4_sTanH"
  type: "TanH"
  bottom: "fc4_300"
  top: "fc4_300"
}
layer {
  name: "fc4_postscale"
  type: "Scale"
  bottom: "fc4_300"
  top: "fc4_300"
  param {
    lr_mult: 0
    decay_mult: 0
  }
  scale_param {
    filler {
      value: 1.7159
    }
    bias_term: false
  }
}
layer {
  name: "fc5_116"
  type: "InnerProduct"
  bottom: "fc4_300"
  top: "fc5_classes"
  inner_product_param {
    num_output: 116
    weight_filler {
      type: "xavier"
    }
  }
}
layer {
  name: "softmax"
  type: "Softmax"
  bottom: "fc5_classes"
  top: "softmax"
}
layer {
  name: "loss"
  type: "MultinomialLogisticLoss"
  bottom: "softmax"
  bottom: "label"
  top: "loss"
}
layer {
  name: "accuracy_1"
  type: "Accuracy"
  bottom: "fc5_classes"
  bottom: "label"
  top: "accuracy_1"
  accuracy_param {
    top_k: 1
  }
}
layer {
  name: "accuracy_5"
  type: "Accuracy"
  bottom: "fc5_classes"
  bottom: "label"
  top: "accuracy_5"
  accuracy_param {
    top_k: 5
  }
}
layer {
  name: "silence"
  type: "Silence"
  bottom: "accuracy_1"
  bottom: "accuracy_5"
}
I0508 00:47:18.139539 17805 layer_factory.hpp:77] Creating layer data
I0508 00:47:18.140697 17805 net.cpp:100] Creating Layer data
I0508 00:47:18.140715 17805 net.cpp:408] data -> data
I0508 00:47:18.140744 17805 net.cpp:408] data -> label
I0508 00:47:18.142381 17912 db_lmdb.cpp:35] Opened lmdb ../local_data/lmdb/RTSD/orig/train/lmdb
I0508 00:47:18.163064 17805 data_layer.cpp:41] output data size: 1024,3,48,48
I0508 00:47:18.212096 17805 net.cpp:150] Setting up data
I0508 00:47:18.212127 17805 net.cpp:157] Top shape: 1024 3 48 48 (7077888)
I0508 00:47:18.212136 17805 net.cpp:157] Top shape: 1024 (1024)
I0508 00:47:18.212141 17805 net.cpp:165] Memory required for data: 28315648
I0508 00:47:18.212157 17805 layer_factory.hpp:77] Creating layer label_data_1_split
I0508 00:47:18.212175 17805 net.cpp:100] Creating Layer label_data_1_split
I0508 00:47:18.212183 17805 net.cpp:434] label_data_1_split <- label
I0508 00:47:18.212200 17805 net.cpp:408] label_data_1_split -> label_data_1_split_0
I0508 00:47:18.212215 17805 net.cpp:408] label_data_1_split -> label_data_1_split_1
I0508 00:47:18.212224 17805 net.cpp:408] label_data_1_split -> label_data_1_split_2
I0508 00:47:18.212291 17805 net.cpp:150] Setting up label_data_1_split
I0508 00:47:18.212299 17805 net.cpp:157] Top shape: 1024 (1024)
I0508 00:47:18.212304 17805 net.cpp:157] Top shape: 1024 (1024)
I0508 00:47:18.212311 17805 net.cpp:157] Top shape: 1024 (1024)
I0508 00:47:18.212316 17805 net.cpp:165] Memory required for data: 28327936
I0508 00:47:18.212321 17805 layer_factory.hpp:77] Creating layer conv1
I0508 00:47:18.212338 17805 net.cpp:100] Creating Layer conv1
I0508 00:47:18.212344 17805 net.cpp:434] conv1 <- data
I0508 00:47:18.212352 17805 net.cpp:408] conv1 -> conv1
I0508 00:47:18.595211 17805 net.cpp:150] Setting up conv1
I0508 00:47:18.595242 17805 net.cpp:157] Top shape: 1024 100 42 42 (180633600)
I0508 00:47:18.595245 17805 net.cpp:165] Memory required for data: 750862336
I0508 00:47:18.595268 17805 layer_factory.hpp:77] Creating layer conv1_prescale
I0508 00:47:18.595283 17805 net.cpp:100] Creating Layer conv1_prescale
I0508 00:47:18.595289 17805 net.cpp:434] conv1_prescale <- conv1
I0508 00:47:18.595296 17805 net.cpp:395] conv1_prescale -> conv1 (in-place)
I0508 00:47:18.595408 17805 net.cpp:150] Setting up conv1_prescale
I0508 00:47:18.595418 17805 net.cpp:157] Top shape: 1024 100 42 42 (180633600)
I0508 00:47:18.595422 17805 net.cpp:165] Memory required for data: 1473396736
I0508 00:47:18.595428 17805 layer_factory.hpp:77] Creating layer conv1_sTanH
I0508 00:47:18.595438 17805 net.cpp:100] Creating Layer conv1_sTanH
I0508 00:47:18.595443 17805 net.cpp:434] conv1_sTanH <- conv1
I0508 00:47:18.595448 17805 net.cpp:395] conv1_sTanH -> conv1 (in-place)
I0508 00:47:18.595650 17805 net.cpp:150] Setting up conv1_sTanH
I0508 00:47:18.595662 17805 net.cpp:157] Top shape: 1024 100 42 42 (180633600)
I0508 00:47:18.595685 17805 net.cpp:165] Memory required for data: 2195931136
I0508 00:47:18.595688 17805 layer_factory.hpp:77] Creating layer conv1_postscale
I0508 00:47:18.595698 17805 net.cpp:100] Creating Layer conv1_postscale
I0508 00:47:18.595703 17805 net.cpp:434] conv1_postscale <- conv1
I0508 00:47:18.595710 17805 net.cpp:395] conv1_postscale -> conv1 (in-place)
I0508 00:47:18.595813 17805 net.cpp:150] Setting up conv1_postscale
I0508 00:47:18.595824 17805 net.cpp:157] Top shape: 1024 100 42 42 (180633600)
I0508 00:47:18.595826 17805 net.cpp:165] Memory required for data: 2918465536
I0508 00:47:18.595831 17805 layer_factory.hpp:77] Creating layer pool1
I0508 00:47:18.595839 17805 net.cpp:100] Creating Layer pool1
I0508 00:47:18.595844 17805 net.cpp:434] pool1 <- conv1
I0508 00:47:18.595849 17805 net.cpp:408] pool1 -> pool1
I0508 00:47:18.595919 17805 net.cpp:150] Setting up pool1
I0508 00:47:18.595930 17805 net.cpp:157] Top shape: 1024 100 21 21 (45158400)
I0508 00:47:18.595933 17805 net.cpp:165] Memory required for data: 3099099136
I0508 00:47:18.595937 17805 layer_factory.hpp:77] Creating layer conv2
I0508 00:47:18.595947 17805 net.cpp:100] Creating Layer conv2
I0508 00:47:18.595953 17805 net.cpp:434] conv2 <- pool1
I0508 00:47:18.595959 17805 net.cpp:408] conv2 -> conv2
I0508 00:47:18.601227 17805 net.cpp:150] Setting up conv2
I0508 00:47:18.601244 17805 net.cpp:157] Top shape: 1024 150 18 18 (49766400)
I0508 00:47:18.601248 17805 net.cpp:165] Memory required for data: 3298164736
I0508 00:47:18.601259 17805 layer_factory.hpp:77] Creating layer conv2_prescale
I0508 00:47:18.601271 17805 net.cpp:100] Creating Layer conv2_prescale
I0508 00:47:18.601277 17805 net.cpp:434] conv2_prescale <- conv2
I0508 00:47:18.601284 17805 net.cpp:395] conv2_prescale -> conv2 (in-place)
I0508 00:47:18.601388 17805 net.cpp:150] Setting up conv2_prescale
I0508 00:47:18.601398 17805 net.cpp:157] Top shape: 1024 150 18 18 (49766400)
I0508 00:47:18.601402 17805 net.cpp:165] Memory required for data: 3497230336
I0508 00:47:18.601407 17805 layer_factory.hpp:77] Creating layer conv2_sTanH
I0508 00:47:18.601413 17805 net.cpp:100] Creating Layer conv2_sTanH
I0508 00:47:18.601416 17805 net.cpp:434] conv2_sTanH <- conv2
I0508 00:47:18.601421 17805 net.cpp:395] conv2_sTanH -> conv2 (in-place)
I0508 00:47:18.601605 17805 net.cpp:150] Setting up conv2_sTanH
I0508 00:47:18.601618 17805 net.cpp:157] Top shape: 1024 150 18 18 (49766400)
I0508 00:47:18.601620 17805 net.cpp:165] Memory required for data: 3696295936
I0508 00:47:18.601624 17805 layer_factory.hpp:77] Creating layer conv2_postscale
I0508 00:47:18.601631 17805 net.cpp:100] Creating Layer conv2_postscale
I0508 00:47:18.601636 17805 net.cpp:434] conv2_postscale <- conv2
I0508 00:47:18.601644 17805 net.cpp:395] conv2_postscale -> conv2 (in-place)
I0508 00:47:18.601745 17805 net.cpp:150] Setting up conv2_postscale
I0508 00:47:18.601754 17805 net.cpp:157] Top shape: 1024 150 18 18 (49766400)
I0508 00:47:18.601758 17805 net.cpp:165] Memory required for data: 3895361536
I0508 00:47:18.601761 17805 layer_factory.hpp:77] Creating layer pool2
I0508 00:47:18.601769 17805 net.cpp:100] Creating Layer pool2
I0508 00:47:18.601774 17805 net.cpp:434] pool2 <- conv2
I0508 00:47:18.601780 17805 net.cpp:408] pool2 -> pool2
I0508 00:47:18.601826 17805 net.cpp:150] Setting up pool2
I0508 00:47:18.601836 17805 net.cpp:157] Top shape: 1024 150 9 9 (12441600)
I0508 00:47:18.601840 17805 net.cpp:165] Memory required for data: 3945127936
I0508 00:47:18.601843 17805 layer_factory.hpp:77] Creating layer conv3
I0508 00:47:18.601852 17805 net.cpp:100] Creating Layer conv3
I0508 00:47:18.601855 17805 net.cpp:434] conv3 <- pool2
I0508 00:47:18.601861 17805 net.cpp:408] conv3 -> conv3
I0508 00:47:18.607568 17805 net.cpp:150] Setting up conv3
I0508 00:47:18.607587 17805 net.cpp:157] Top shape: 1024 250 6 6 (9216000)
I0508 00:47:18.607595 17805 net.cpp:165] Memory required for data: 3981991936
I0508 00:47:18.607609 17805 layer_factory.hpp:77] Creating layer conv3_prescale
I0508 00:47:18.607642 17805 net.cpp:100] Creating Layer conv3_prescale
I0508 00:47:18.607650 17805 net.cpp:434] conv3_prescale <- conv3
I0508 00:47:18.607657 17805 net.cpp:395] conv3_prescale -> conv3 (in-place)
I0508 00:47:18.607759 17805 net.cpp:150] Setting up conv3_prescale
I0508 00:47:18.607769 17805 net.cpp:157] Top shape: 1024 250 6 6 (9216000)
I0508 00:47:18.607772 17805 net.cpp:165] Memory required for data: 4018855936
I0508 00:47:18.607780 17805 layer_factory.hpp:77] Creating layer conv3_sTanH
I0508 00:47:18.607789 17805 net.cpp:100] Creating Layer conv3_sTanH
I0508 00:47:18.607795 17805 net.cpp:434] conv3_sTanH <- conv3
I0508 00:47:18.607802 17805 net.cpp:395] conv3_sTanH -> conv3 (in-place)
I0508 00:47:18.608012 17805 net.cpp:150] Setting up conv3_sTanH
I0508 00:47:18.608026 17805 net.cpp:157] Top shape: 1024 250 6 6 (9216000)
I0508 00:47:18.608031 17805 net.cpp:165] Memory required for data: 4055719936
I0508 00:47:18.608036 17805 layer_factory.hpp:77] Creating layer conv3_postscale
I0508 00:47:18.608048 17805 net.cpp:100] Creating Layer conv3_postscale
I0508 00:47:18.608053 17805 net.cpp:434] conv3_postscale <- conv3
I0508 00:47:18.608060 17805 net.cpp:395] conv3_postscale -> conv3 (in-place)
I0508 00:47:18.608160 17805 net.cpp:150] Setting up conv3_postscale
I0508 00:47:18.608170 17805 net.cpp:157] Top shape: 1024 250 6 6 (9216000)
I0508 00:47:18.608173 17805 net.cpp:165] Memory required for data: 4092583936
I0508 00:47:18.608181 17805 layer_factory.hpp:77] Creating layer pool3
I0508 00:47:18.608197 17805 net.cpp:100] Creating Layer pool3
I0508 00:47:18.608202 17805 net.cpp:434] pool3 <- conv3
I0508 00:47:18.608209 17805 net.cpp:408] pool3 -> pool3
I0508 00:47:18.608258 17805 net.cpp:150] Setting up pool3
I0508 00:47:18.608268 17805 net.cpp:157] Top shape: 1024 250 3 3 (2304000)
I0508 00:47:18.608273 17805 net.cpp:165] Memory required for data: 4101799936
I0508 00:47:18.608291 17805 layer_factory.hpp:77] Creating layer fc4_300
I0508 00:47:18.608305 17805 net.cpp:100] Creating Layer fc4_300
I0508 00:47:18.608310 17805 net.cpp:434] fc4_300 <- pool3
I0508 00:47:18.608316 17805 net.cpp:408] fc4_300 -> fc4_300
I0508 00:47:18.613935 17805 net.cpp:150] Setting up fc4_300
I0508 00:47:18.613952 17805 net.cpp:157] Top shape: 1024 300 (307200)
I0508 00:47:18.613960 17805 net.cpp:165] Memory required for data: 4103028736
I0508 00:47:18.613970 17805 layer_factory.hpp:77] Creating layer fc4_prescale
I0508 00:47:18.613981 17805 net.cpp:100] Creating Layer fc4_prescale
I0508 00:47:18.613988 17805 net.cpp:434] fc4_prescale <- fc4_300
I0508 00:47:18.613998 17805 net.cpp:395] fc4_prescale -> fc4_300 (in-place)
I0508 00:47:18.614097 17805 net.cpp:150] Setting up fc4_prescale
I0508 00:47:18.614106 17805 net.cpp:157] Top shape: 1024 300 (307200)
I0508 00:47:18.614110 17805 net.cpp:165] Memory required for data: 4104257536
I0508 00:47:18.614117 17805 layer_factory.hpp:77] Creating layer fc4_sTanH
I0508 00:47:18.614125 17805 net.cpp:100] Creating Layer fc4_sTanH
I0508 00:47:18.614131 17805 net.cpp:434] fc4_sTanH <- fc4_300
I0508 00:47:18.614137 17805 net.cpp:395] fc4_sTanH -> fc4_300 (in-place)
I0508 00:47:18.615394 17805 net.cpp:150] Setting up fc4_sTanH
I0508 00:47:18.615411 17805 net.cpp:157] Top shape: 1024 300 (307200)
I0508 00:47:18.615418 17805 net.cpp:165] Memory required for data: 4105486336
I0508 00:47:18.615423 17805 layer_factory.hpp:77] Creating layer fc4_postscale
I0508 00:47:18.615437 17805 net.cpp:100] Creating Layer fc4_postscale
I0508 00:47:18.615442 17805 net.cpp:434] fc4_postscale <- fc4_300
I0508 00:47:18.615449 17805 net.cpp:395] fc4_postscale -> fc4_300 (in-place)
I0508 00:47:18.615561 17805 net.cpp:150] Setting up fc4_postscale
I0508 00:47:18.615569 17805 net.cpp:157] Top shape: 1024 300 (307200)
I0508 00:47:18.615573 17805 net.cpp:165] Memory required for data: 4106715136
I0508 00:47:18.615581 17805 layer_factory.hpp:77] Creating layer fc5_116
I0508 00:47:18.615591 17805 net.cpp:100] Creating Layer fc5_116
I0508 00:47:18.615597 17805 net.cpp:434] fc5_116 <- fc4_300
I0508 00:47:18.615607 17805 net.cpp:408] fc5_116 -> fc5_classes
I0508 00:47:18.617532 17805 net.cpp:150] Setting up fc5_116
I0508 00:47:18.617547 17805 net.cpp:157] Top shape: 1024 116 (118784)
I0508 00:47:18.617552 17805 net.cpp:165] Memory required for data: 4107190272
I0508 00:47:18.617568 17805 layer_factory.hpp:77] Creating layer fc5_classes_fc5_116_0_split
I0508 00:47:18.617578 17805 net.cpp:100] Creating Layer fc5_classes_fc5_116_0_split
I0508 00:47:18.617586 17805 net.cpp:434] fc5_classes_fc5_116_0_split <- fc5_classes
I0508 00:47:18.617594 17805 net.cpp:408] fc5_classes_fc5_116_0_split -> fc5_classes_fc5_116_0_split_0
I0508 00:47:18.617604 17805 net.cpp:408] fc5_classes_fc5_116_0_split -> fc5_classes_fc5_116_0_split_1
I0508 00:47:18.617615 17805 net.cpp:408] fc5_classes_fc5_116_0_split -> fc5_classes_fc5_116_0_split_2
I0508 00:47:18.617674 17805 net.cpp:150] Setting up fc5_classes_fc5_116_0_split
I0508 00:47:18.617682 17805 net.cpp:157] Top shape: 1024 116 (118784)
I0508 00:47:18.617687 17805 net.cpp:157] Top shape: 1024 116 (118784)
I0508 00:47:18.617694 17805 net.cpp:157] Top shape: 1024 116 (118784)
I0508 00:47:18.617698 17805 net.cpp:165] Memory required for data: 4108615680
I0508 00:47:18.617703 17805 layer_factory.hpp:77] Creating layer softmax
I0508 00:47:18.617712 17805 net.cpp:100] Creating Layer softmax
I0508 00:47:18.617718 17805 net.cpp:434] softmax <- fc5_classes_fc5_116_0_split_0
I0508 00:47:18.617725 17805 net.cpp:408] softmax -> softmax
I0508 00:47:18.617987 17805 net.cpp:150] Setting up softmax
I0508 00:47:18.618003 17805 net.cpp:157] Top shape: 1024 116 (118784)
I0508 00:47:18.618010 17805 net.cpp:165] Memory required for data: 4109090816
I0508 00:47:18.618013 17805 layer_factory.hpp:77] Creating layer loss
I0508 00:47:18.618023 17805 net.cpp:100] Creating Layer loss
I0508 00:47:18.618028 17805 net.cpp:434] loss <- softmax
I0508 00:47:18.618036 17805 net.cpp:434] loss <- label_data_1_split_0
I0508 00:47:18.618044 17805 net.cpp:408] loss -> loss
…
