…
I0508 00:32:27.679982 17394 solver.cpp:93] Creating training net from train_net file: ./Prototxt/experiment_15/RTSD/orig/trial_1/train.prototxt
I0508 00:32:27.680461 17394 net.cpp:58] Initializing net from parameters: 
state {
  phase: TRAIN
  level: 0
  stage: ""
}
layer {
  name: "data"
  type: "Data"
  top: "data"
  top: "label"
  include {
    phase: TRAIN
  }
  transform_param {
    scale: 0.0039215689
    mirror: false
    crop_size: 48
    mean_value: 119
    mean_value: 113
    mean_value: 113
  }
  data_param {
    source: "../local_data/lmdb/RTSD/orig/train/lmdb"
    batch_size: 1024
    backend: LMDB
  }
}
layer {
  name: "conv1"
  type: "Convolution"
  bottom: "data"
  top: "conv1"
  convolution_param {
    num_output: 100
    pad: 0
    kernel_size: 7
    group: 1
    stride: 1
    weight_filler {
      type: "xavier"
    }
  }
}
layer {
  name: "conv1_prescale"
  type: "Scale"
  bottom: "conv1"
  top: "conv1"
  param {
    lr_mult: 0
    decay_mult: 0
  }
  scale_param {
    filler {
      value: 0.6666
    }
    bias_term: false
  }
}
layer {
  name: "conv1_sTanH"
  type: "TanH"
  bottom: "conv1"
  top: "conv1"
}
layer {
  name: "conv1_postscale"
  type: "Scale"
  bottom: "conv1"
  top: "conv1"
  param {
    lr_mult: 0
    decay_mult: 0
  }
  scale_param {
    filler {
      value: 1.7159
    }
    bias_term: false
  }
}
layer {
  name: "pool1"
  type: "Pooling"
  bottom: "conv1"
  top: "pool1"
  pooling_param {
    pool: MAX
    kernel_size: 2
    stride: 2
  }
}
layer {
  name: "conv2"
  type: "Convolution"
  bottom: "pool1"
  top: "conv2"
  convolution_param {
    num_output: 150
    pad: 0
    kernel_size: 4
    group: 1
    stride: 1
    weight_filler {
      type: "xavier"
    }
  }
}
layer {
  name: "conv2_prescale"
  type: "Scale"
  bottom: "conv2"
  top: "conv2"
  param {
    lr_mult: 0
    decay_mult: 0
  }
  scale_param {
    filler {
      value: 0.6666
    }
    bias_term: false
  }
}
layer {
  name: "conv2_sTanH"
  type: "TanH"
  bottom: "conv2"
  top: "conv2"
}
layer {
  name: "conv2_postscale"
  type: "Scale"
  bottom: "conv2"
  top: "conv2"
  param {
    lr_mult: 0
    decay_mult: 0
  }
  scale_param {
    filler {
      value: 1.7159
    }
    bias_term: false
  }
}
layer {
  name: "pool2"
  type: "Pooling"
  bottom: "conv2"
  top: "pool2"
  pooling_param {
    pool: MAX
    kernel_size: 2
    stride: 2
  }
}
layer {
  name: "conv3"
  type: "Convolution"
  bottom: "pool2"
  top: "conv3"
  convolution_param {
    num_output: 250
    pad: 0
    kernel_size: 4
    group: 1
    stride: 1
    weight_filler {
      type: "xavier"
    }
  }
}
layer {
  name: "conv3_prescale"
  type: "Scale"
  bottom: "conv3"
  top: "conv3"
  param {
    lr_mult: 0
    decay_mult: 0
  }
  scale_param {
    filler {
      value: 0.6666
    }
    bias_term: false
  }
}
layer {
  name: "conv3_sTanH"
  type: "TanH"
  bottom: "conv3"
  top: "conv3"
}
layer {
  name: "conv3_postscale"
  type: "Scale"
  bottom: "conv3"
  top: "conv3"
  param {
    lr_mult: 0
    decay_mult: 0
  }
  scale_param {
    filler {
      value: 1.7159
    }
    bias_term: false
  }
}
layer {
  name: "pool3"
  type: "Pooling"
  bottom: "conv3"
  top: "pool3"
  pooling_param {
    pool: MAX
    kernel_size: 2
    stride: 2
  }
}
layer {
  name: "fc4_300"
  type: "InnerProduct"
  bottom: "pool3"
  top: "fc4_300"
  inner_product_param {
    num_output: 300
    weight_filler {
      type: "xavier"
    }
  }
}
layer {
  name: "fc4_prescale"
  type: "Scale"
  bottom: "fc4_300"
  top: "fc4_300"
  param {
    lr_mult: 0
    decay_mult: 0
  }
  scale_param {
    filler {
      value: 0.6666
    }
    bias_term: false
  }
}
layer {
  name: "fc4_sTanH"
  type: "TanH"
  bottom: "fc4_300"
  top: "fc4_300"
}
layer {
  name: "fc4_postscale"
  type: "Scale"
  bottom: "fc4_300"
  top: "fc4_300"
  param {
    lr_mult: 0
    decay_mult: 0
  }
  scale_param {
    filler {
      value: 1.7159
    }
    bias_term: false
  }
}
layer {
  name: "fc5_116"
  type: "InnerProduct"
  bottom: "fc4_300"
  top: "fc5_classes"
  inner_product_param {
    num_output: 116
    weight_filler {
      type: "xavier"
    }
  }
}
layer {
  name: "softmax"
  type: "Softmax"
  bottom: "fc5_classes"
  top: "softmax"
}
layer {
  name: "loss"
  type: "MultinomialLogisticLoss"
  bottom: "softmax"
  bottom: "label"
  top: "loss"
}
layer {
  name: "accuracy_1"
  type: "Accuracy"
  bottom: "fc5_classes"
  bottom: "label"
  top: "accuracy_1"
  accuracy_param {
    top_k: 1
  }
}
layer {
  name: "accuracy_5"
  type: "Accuracy"
  bottom: "fc5_classes"
  bottom: "label"
  top: "accuracy_5"
  accuracy_param {
    top_k: 5
  }
}
layer {
  name: "silence"
  type: "Silence"
  bottom: "accuracy_1"
  bottom: "accuracy_5"
}
I0508 00:32:27.680624 17394 layer_factory.hpp:77] Creating layer data
I0508 00:32:27.681707 17394 net.cpp:100] Creating Layer data
I0508 00:32:27.681725 17394 net.cpp:408] data -> data
I0508 00:32:27.681748 17394 net.cpp:408] data -> label
I0508 00:32:27.684973 17506 db_lmdb.cpp:35] Opened lmdb ../local_data/lmdb/RTSD/orig/train/lmdb
I0508 00:32:27.704252 17394 data_layer.cpp:41] output data size: 1024,3,48,48
I0508 00:32:27.755391 17394 net.cpp:150] Setting up data
I0508 00:32:27.755420 17394 net.cpp:157] Top shape: 1024 3 48 48 (7077888)
I0508 00:32:27.755425 17394 net.cpp:157] Top shape: 1024 (1024)
I0508 00:32:27.755429 17394 net.cpp:165] Memory required for data: 28315648
I0508 00:32:27.755440 17394 layer_factory.hpp:77] Creating layer label_data_1_split
I0508 00:32:27.755455 17394 net.cpp:100] Creating Layer label_data_1_split
I0508 00:32:27.755460 17394 net.cpp:434] label_data_1_split <- label
I0508 00:32:27.755473 17394 net.cpp:408] label_data_1_split -> label_data_1_split_0
I0508 00:32:27.755486 17394 net.cpp:408] label_data_1_split -> label_data_1_split_1
I0508 00:32:27.755494 17394 net.cpp:408] label_data_1_split -> label_data_1_split_2
I0508 00:32:27.755564 17394 net.cpp:150] Setting up label_data_1_split
I0508 00:32:27.755573 17394 net.cpp:157] Top shape: 1024 (1024)
I0508 00:32:27.755576 17394 net.cpp:157] Top shape: 1024 (1024)
I0508 00:32:27.755580 17394 net.cpp:157] Top shape: 1024 (1024)
I0508 00:32:27.755584 17394 net.cpp:165] Memory required for data: 28327936
I0508 00:32:27.755586 17394 layer_factory.hpp:77] Creating layer conv1
I0508 00:32:27.755604 17394 net.cpp:100] Creating Layer conv1
I0508 00:32:27.755609 17394 net.cpp:434] conv1 <- data
I0508 00:32:27.755614 17394 net.cpp:408] conv1 -> conv1
I0508 00:32:28.184576 17394 net.cpp:150] Setting up conv1
I0508 00:32:28.184602 17394 net.cpp:157] Top shape: 1024 100 42 42 (180633600)
I0508 00:32:28.184607 17394 net.cpp:165] Memory required for data: 750862336
I0508 00:32:28.184628 17394 layer_factory.hpp:77] Creating layer conv1_prescale
I0508 00:32:28.184640 17394 net.cpp:100] Creating Layer conv1_prescale
I0508 00:32:28.184644 17394 net.cpp:434] conv1_prescale <- conv1
I0508 00:32:28.184651 17394 net.cpp:395] conv1_prescale -> conv1 (in-place)
I0508 00:32:28.184759 17394 net.cpp:150] Setting up conv1_prescale
I0508 00:32:28.184768 17394 net.cpp:157] Top shape: 1024 100 42 42 (180633600)
I0508 00:32:28.184772 17394 net.cpp:165] Memory required for data: 1473396736
I0508 00:32:28.184778 17394 layer_factory.hpp:77] Creating layer conv1_sTanH
I0508 00:32:28.184787 17394 net.cpp:100] Creating Layer conv1_sTanH
I0508 00:32:28.184792 17394 net.cpp:434] conv1_sTanH <- conv1
I0508 00:32:28.184795 17394 net.cpp:395] conv1_sTanH -> conv1 (in-place)
I0508 00:32:28.184990 17394 net.cpp:150] Setting up conv1_sTanH
I0508 00:32:28.185001 17394 net.cpp:157] Top shape: 1024 100 42 42 (180633600)
I0508 00:32:28.185024 17394 net.cpp:165] Memory required for data: 2195931136
I0508 00:32:28.185029 17394 layer_factory.hpp:77] Creating layer conv1_postscale
I0508 00:32:28.185035 17394 net.cpp:100] Creating Layer conv1_postscale
I0508 00:32:28.185039 17394 net.cpp:434] conv1_postscale <- conv1
I0508 00:32:28.185045 17394 net.cpp:395] conv1_postscale -> conv1 (in-place)
I0508 00:32:28.185142 17394 net.cpp:150] Setting up conv1_postscale
I0508 00:32:28.185150 17394 net.cpp:157] Top shape: 1024 100 42 42 (180633600)
I0508 00:32:28.185153 17394 net.cpp:165] Memory required for data: 2918465536
I0508 00:32:28.185158 17394 layer_factory.hpp:77] Creating layer pool1
I0508 00:32:28.185166 17394 net.cpp:100] Creating Layer pool1
I0508 00:32:28.185171 17394 net.cpp:434] pool1 <- conv1
I0508 00:32:28.185176 17394 net.cpp:408] pool1 -> pool1
I0508 00:32:28.185223 17394 net.cpp:150] Setting up pool1
I0508 00:32:28.185230 17394 net.cpp:157] Top shape: 1024 100 21 21 (45158400)
I0508 00:32:28.185233 17394 net.cpp:165] Memory required for data: 3099099136
I0508 00:32:28.185236 17394 layer_factory.hpp:77] Creating layer conv2
I0508 00:32:28.185247 17394 net.cpp:100] Creating Layer conv2
I0508 00:32:28.185251 17394 net.cpp:434] conv2 <- pool1
I0508 00:32:28.185256 17394 net.cpp:408] conv2 -> conv2
I0508 00:32:28.190573 17394 net.cpp:150] Setting up conv2
I0508 00:32:28.190589 17394 net.cpp:157] Top shape: 1024 150 18 18 (49766400)
I0508 00:32:28.190593 17394 net.cpp:165] Memory required for data: 3298164736
I0508 00:32:28.190603 17394 layer_factory.hpp:77] Creating layer conv2_prescale
I0508 00:32:28.190614 17394 net.cpp:100] Creating Layer conv2_prescale
I0508 00:32:28.190618 17394 net.cpp:434] conv2_prescale <- conv2
I0508 00:32:28.190623 17394 net.cpp:395] conv2_prescale -> conv2 (in-place)
I0508 00:32:28.190729 17394 net.cpp:150] Setting up conv2_prescale
I0508 00:32:28.190737 17394 net.cpp:157] Top shape: 1024 150 18 18 (49766400)
I0508 00:32:28.190740 17394 net.cpp:165] Memory required for data: 3497230336
I0508 00:32:28.190745 17394 layer_factory.hpp:77] Creating layer conv2_sTanH
I0508 00:32:28.190753 17394 net.cpp:100] Creating Layer conv2_sTanH
I0508 00:32:28.190757 17394 net.cpp:434] conv2_sTanH <- conv2
I0508 00:32:28.190762 17394 net.cpp:395] conv2_sTanH -> conv2 (in-place)
I0508 00:32:28.192235 17394 net.cpp:150] Setting up conv2_sTanH
I0508 00:32:28.192251 17394 net.cpp:157] Top shape: 1024 150 18 18 (49766400)
I0508 00:32:28.192255 17394 net.cpp:165] Memory required for data: 3696295936
I0508 00:32:28.192258 17394 layer_factory.hpp:77] Creating layer conv2_postscale
I0508 00:32:28.192265 17394 net.cpp:100] Creating Layer conv2_postscale
I0508 00:32:28.192270 17394 net.cpp:434] conv2_postscale <- conv2
I0508 00:32:28.192275 17394 net.cpp:395] conv2_postscale -> conv2 (in-place)
I0508 00:32:28.192369 17394 net.cpp:150] Setting up conv2_postscale
I0508 00:32:28.192378 17394 net.cpp:157] Top shape: 1024 150 18 18 (49766400)
I0508 00:32:28.192380 17394 net.cpp:165] Memory required for data: 3895361536
I0508 00:32:28.192385 17394 layer_factory.hpp:77] Creating layer pool2
I0508 00:32:28.192394 17394 net.cpp:100] Creating Layer pool2
I0508 00:32:28.192397 17394 net.cpp:434] pool2 <- conv2
I0508 00:32:28.192402 17394 net.cpp:408] pool2 -> pool2
I0508 00:32:28.192443 17394 net.cpp:150] Setting up pool2
I0508 00:32:28.192451 17394 net.cpp:157] Top shape: 1024 150 9 9 (12441600)
I0508 00:32:28.192454 17394 net.cpp:165] Memory required for data: 3945127936
I0508 00:32:28.192457 17394 layer_factory.hpp:77] Creating layer conv3
I0508 00:32:28.192466 17394 net.cpp:100] Creating Layer conv3
I0508 00:32:28.192471 17394 net.cpp:434] conv3 <- pool2
I0508 00:32:28.192476 17394 net.cpp:408] conv3 -> conv3
I0508 00:32:28.204690 17394 net.cpp:150] Setting up conv3
I0508 00:32:28.204710 17394 net.cpp:157] Top shape: 1024 250 6 6 (9216000)
I0508 00:32:28.204713 17394 net.cpp:165] Memory required for data: 3981991936
I0508 00:32:28.204725 17394 layer_factory.hpp:77] Creating layer conv3_prescale
I0508 00:32:28.204756 17394 net.cpp:100] Creating Layer conv3_prescale
I0508 00:32:28.204761 17394 net.cpp:434] conv3_prescale <- conv3
I0508 00:32:28.204766 17394 net.cpp:395] conv3_prescale -> conv3 (in-place)
I0508 00:32:28.204860 17394 net.cpp:150] Setting up conv3_prescale
I0508 00:32:28.204869 17394 net.cpp:157] Top shape: 1024 250 6 6 (9216000)
I0508 00:32:28.204872 17394 net.cpp:165] Memory required for data: 4018855936
I0508 00:32:28.204877 17394 layer_factory.hpp:77] Creating layer conv3_sTanH
I0508 00:32:28.204885 17394 net.cpp:100] Creating Layer conv3_sTanH
I0508 00:32:28.204890 17394 net.cpp:434] conv3_sTanH <- conv3
I0508 00:32:28.204895 17394 net.cpp:395] conv3_sTanH -> conv3 (in-place)
I0508 00:32:28.205829 17394 net.cpp:150] Setting up conv3_sTanH
I0508 00:32:28.205845 17394 net.cpp:157] Top shape: 1024 250 6 6 (9216000)
I0508 00:32:28.205848 17394 net.cpp:165] Memory required for data: 4055719936
I0508 00:32:28.205852 17394 layer_factory.hpp:77] Creating layer conv3_postscale
I0508 00:32:28.205859 17394 net.cpp:100] Creating Layer conv3_postscale
I0508 00:32:28.205862 17394 net.cpp:434] conv3_postscale <- conv3
I0508 00:32:28.205868 17394 net.cpp:395] conv3_postscale -> conv3 (in-place)
I0508 00:32:28.205965 17394 net.cpp:150] Setting up conv3_postscale
I0508 00:32:28.205973 17394 net.cpp:157] Top shape: 1024 250 6 6 (9216000)
I0508 00:32:28.205976 17394 net.cpp:165] Memory required for data: 4092583936
I0508 00:32:28.205981 17394 layer_factory.hpp:77] Creating layer pool3
I0508 00:32:28.205996 17394 net.cpp:100] Creating Layer pool3
I0508 00:32:28.206001 17394 net.cpp:434] pool3 <- conv3
I0508 00:32:28.206007 17394 net.cpp:408] pool3 -> pool3
I0508 00:32:28.206046 17394 net.cpp:150] Setting up pool3
I0508 00:32:28.206053 17394 net.cpp:157] Top shape: 1024 250 3 3 (2304000)
I0508 00:32:28.206056 17394 net.cpp:165] Memory required for data: 4101799936
I0508 00:32:28.206059 17394 layer_factory.hpp:77] Creating layer fc4_300
I0508 00:32:28.206066 17394 net.cpp:100] Creating Layer fc4_300
I0508 00:32:28.206069 17394 net.cpp:434] fc4_300 <- pool3
I0508 00:32:28.206073 17394 net.cpp:408] fc4_300 -> fc4_300
I0508 00:32:28.211908 17394 net.cpp:150] Setting up fc4_300
I0508 00:32:28.211925 17394 net.cpp:157] Top shape: 1024 300 (307200)
I0508 00:32:28.211928 17394 net.cpp:165] Memory required for data: 4103028736
I0508 00:32:28.211935 17394 layer_factory.hpp:77] Creating layer fc4_prescale
I0508 00:32:28.211942 17394 net.cpp:100] Creating Layer fc4_prescale
I0508 00:32:28.211947 17394 net.cpp:434] fc4_prescale <- fc4_300
I0508 00:32:28.211952 17394 net.cpp:395] fc4_prescale -> fc4_300 (in-place)
I0508 00:32:28.212039 17394 net.cpp:150] Setting up fc4_prescale
I0508 00:32:28.212046 17394 net.cpp:157] Top shape: 1024 300 (307200)
I0508 00:32:28.212049 17394 net.cpp:165] Memory required for data: 4104257536
I0508 00:32:28.212054 17394 layer_factory.hpp:77] Creating layer fc4_sTanH
I0508 00:32:28.212059 17394 net.cpp:100] Creating Layer fc4_sTanH
I0508 00:32:28.212064 17394 net.cpp:434] fc4_sTanH <- fc4_300
I0508 00:32:28.212069 17394 net.cpp:395] fc4_sTanH -> fc4_300 (in-place)
I0508 00:32:28.212250 17394 net.cpp:150] Setting up fc4_sTanH
I0508 00:32:28.212260 17394 net.cpp:157] Top shape: 1024 300 (307200)
I0508 00:32:28.212265 17394 net.cpp:165] Memory required for data: 4105486336
I0508 00:32:28.212268 17394 layer_factory.hpp:77] Creating layer fc4_postscale
I0508 00:32:28.212275 17394 net.cpp:100] Creating Layer fc4_postscale
I0508 00:32:28.212278 17394 net.cpp:434] fc4_postscale <- fc4_300
I0508 00:32:28.212283 17394 net.cpp:395] fc4_postscale -> fc4_300 (in-place)
I0508 00:32:28.212450 17394 net.cpp:150] Setting up fc4_postscale
I0508 00:32:28.212460 17394 net.cpp:157] Top shape: 1024 300 (307200)
I0508 00:32:28.212465 17394 net.cpp:165] Memory required for data: 4106715136
I0508 00:32:28.212469 17394 layer_factory.hpp:77] Creating layer fc5_116
I0508 00:32:28.212476 17394 net.cpp:100] Creating Layer fc5_116
I0508 00:32:28.212481 17394 net.cpp:434] fc5_116 <- fc4_300
I0508 00:32:28.212486 17394 net.cpp:408] fc5_116 -> fc5_classes
I0508 00:32:28.214176 17394 net.cpp:150] Setting up fc5_116
I0508 00:32:28.214192 17394 net.cpp:157] Top shape: 1024 116 (118784)
I0508 00:32:28.214197 17394 net.cpp:165] Memory required for data: 4107190272
I0508 00:32:28.214208 17394 layer_factory.hpp:77] Creating layer fc5_classes_fc5_116_0_split
I0508 00:32:28.214216 17394 net.cpp:100] Creating Layer fc5_classes_fc5_116_0_split
I0508 00:32:28.214221 17394 net.cpp:434] fc5_classes_fc5_116_0_split <- fc5_classes
I0508 00:32:28.214226 17394 net.cpp:408] fc5_classes_fc5_116_0_split -> fc5_classes_fc5_116_0_split_0
I0508 00:32:28.214236 17394 net.cpp:408] fc5_classes_fc5_116_0_split -> fc5_classes_fc5_116_0_split_1
I0508 00:32:28.214243 17394 net.cpp:408] fc5_classes_fc5_116_0_split -> fc5_classes_fc5_116_0_split_2
I0508 00:32:28.214293 17394 net.cpp:150] Setting up fc5_classes_fc5_116_0_split
I0508 00:32:28.214300 17394 net.cpp:157] Top shape: 1024 116 (118784)
I0508 00:32:28.214304 17394 net.cpp:157] Top shape: 1024 116 (118784)
I0508 00:32:28.214308 17394 net.cpp:157] Top shape: 1024 116 (118784)
I0508 00:32:28.214311 17394 net.cpp:165] Memory required for data: 4108615680
I0508 00:32:28.214313 17394 layer_factory.hpp:77] Creating layer softmax
I0508 00:32:28.214319 17394 net.cpp:100] Creating Layer softmax
I0508 00:32:28.214323 17394 net.cpp:434] softmax <- fc5_classes_fc5_116_0_split_0
I0508 00:32:28.214329 17394 net.cpp:408] softmax -> softmax
I0508 00:32:28.214576 17394 net.cpp:150] Setting up softmax
I0508 00:32:28.214588 17394 net.cpp:157] Top shape: 1024 116 (118784)
I0508 00:32:28.214592 17394 net.cpp:165] Memory required for data: 4109090816
I0508 00:32:28.214596 17394 layer_factory.hpp:77] Creating layer loss
I0508 00:32:28.214603 17394 net.cpp:100] Creating Layer loss
I0508 00:32:28.214607 17394 net.cpp:434] loss <- softmax
I0508 00:32:28.214612 17394 net.cpp:434] loss <- label_data_1_split_0
I0508 00:32:28.214617 17394 net.cpp:408] loss -> loss
…
