…
I0508 00:31:41.619789 12373 solver.cpp:93] Creating training net from train_net file: ./Prototxt/experiment_15/RTSD/orig/trial_1/train.prototxt
I0508 00:31:41.620256 12373 net.cpp:58] Initializing net from parameters: 
state {
  phase: TRAIN
  level: 0
  stage: ""
}
layer {
  name: "data"
  type: "Data"
  top: "data"
  top: "label"
  include {
    phase: TRAIN
  }
  transform_param {
    scale: 0.0039215689
    mirror: false
    crop_size: 48
    mean_value: 119
    mean_value: 113
    mean_value: 113
  }
  data_param {
    source: "../local_data/lmdb/RTSD/orig/train/lmdb"
    batch_size: 1024
    backend: LMDB
  }
}
layer {
  name: "conv1"
  type: "Convolution"
  bottom: "data"
  top: "conv1"
  convolution_param {
    num_output: 100
    pad: 0
    kernel_size: 7
    group: 1
    stride: 1
    weight_filler {
      type: "xavier"
    }
  }
}
layer {
  name: "conv1_prescale"
  type: "Scale"
  bottom: "conv1"
  top: "conv1"
  param {
    lr_mult: 0
    decay_mult: 0
  }
  scale_param {
    filler {
      value: 0.6666
    }
    bias_term: false
  }
}
layer {
  name: "conv1_sTanH"
  type: "TanH"
  bottom: "conv1"
  top: "conv1"
}
layer {
  name: "conv1_postscale"
  type: "Scale"
  bottom: "conv1"
  top: "conv1"
  param {
    lr_mult: 0
    decay_mult: 0
  }
  scale_param {
    filler {
      value: 1.7159
    }
    bias_term: false
  }
}
layer {
  name: "pool1"
  type: "Pooling"
  bottom: "conv1"
  top: "pool1"
  pooling_param {
    pool: MAX
    kernel_size: 2
    stride: 2
  }
}
layer {
  name: "conv2"
  type: "Convolution"
  bottom: "pool1"
  top: "conv2"
  convolution_param {
    num_output: 150
    pad: 0
    kernel_size: 4
    group: 1
    stride: 1
    weight_filler {
      type: "xavier"
    }
  }
}
layer {
  name: "conv2_prescale"
  type: "Scale"
  bottom: "conv2"
  top: "conv2"
  param {
    lr_mult: 0
    decay_mult: 0
  }
  scale_param {
    filler {
      value: 0.6666
    }
    bias_term: false
  }
}
layer {
  name: "conv2_sTanH"
  type: "TanH"
  bottom: "conv2"
  top: "conv2"
}
layer {
  name: "conv2_postscale"
  type: "Scale"
  bottom: "conv2"
  top: "conv2"
  param {
    lr_mult: 0
    decay_mult: 0
  }
  scale_param {
    filler {
      value: 1.7159
    }
    bias_term: false
  }
}
layer {
  name: "pool2"
  type: "Pooling"
  bottom: "conv2"
  top: "pool2"
  pooling_param {
    pool: MAX
    kernel_size: 2
    stride: 2
  }
}
layer {
  name: "conv3"
  type: "Convolution"
  bottom: "pool2"
  top: "conv3"
  convolution_param {
    num_output: 250
    pad: 0
    kernel_size: 4
    group: 1
    stride: 1
    weight_filler {
      type: "xavier"
    }
  }
}
layer {
  name: "conv3_prescale"
  type: "Scale"
  bottom: "conv3"
  top: "conv3"
  param {
    lr_mult: 0
    decay_mult: 0
  }
  scale_param {
    filler {
      value: 0.6666
    }
    bias_term: false
  }
}
layer {
  name: "conv3_sTanH"
  type: "TanH"
  bottom: "conv3"
  top: "conv3"
}
layer {
  name: "conv3_postscale"
  type: "Scale"
  bottom: "conv3"
  top: "conv3"
  param {
    lr_mult: 0
    decay_mult: 0
  }
  scale_param {
    filler {
      value: 1.7159
    }
    bias_term: false
  }
}
layer {
  name: "pool3"
  type: "Pooling"
  bottom: "conv3"
  top: "pool3"
  pooling_param {
    pool: MAX
    kernel_size: 2
    stride: 2
  }
}
layer {
  name: "fc4_300"
  type: "InnerProduct"
  bottom: "pool3"
  top: "fc4_300"
  inner_product_param {
    num_output: 300
    weight_filler {
      type: "xavier"
    }
  }
}
layer {
  name: "fc4_prescale"
  type: "Scale"
  bottom: "fc4_300"
  top: "fc4_300"
  param {
    lr_mult: 0
    decay_mult: 0
  }
  scale_param {
    filler {
      value: 0.6666
    }
    bias_term: false
  }
}
layer {
  name: "fc4_sTanH"
  type: "TanH"
  bottom: "fc4_300"
  top: "fc4_300"
}
layer {
  name: "fc4_postscale"
  type: "Scale"
  bottom: "fc4_300"
  top: "fc4_300"
  param {
    lr_mult: 0
    decay_mult: 0
  }
  scale_param {
    filler {
      value: 1.7159
    }
    bias_term: false
  }
}
layer {
  name: "fc5_116"
  type: "InnerProduct"
  bottom: "fc4_300"
  top: "fc5_classes"
  inner_product_param {
    num_output: 116
    weight_filler {
      type: "xavier"
    }
  }
}
layer {
  name: "softmax"
  type: "Softmax"
  bottom: "fc5_classes"
  top: "softmax"
}
layer {
  name: "loss"
  type: "MultinomialLogisticLoss"
  bottom: "softmax"
  bottom: "label"
  top: "loss"
}
layer {
  name: "accuracy_1"
  type: "Accuracy"
  bottom: "fc5_classes"
  bottom: "label"
  top: "accuracy_1"
  accuracy_param {
    top_k: 1
  }
}
layer {
  name: "accuracy_5"
  type: "Accuracy"
  bottom: "fc5_classes"
  bottom: "label"
  top: "accuracy_5"
  accuracy_param {
    top_k: 5
  }
}
layer {
  name: "silence"
  type: "Silence"
  bottom: "accuracy_1"
  bottom: "accuracy_5"
}
I0508 00:31:41.620416 12373 layer_factory.hpp:77] Creating layer data
I0508 00:31:41.621485 12373 net.cpp:100] Creating Layer data
I0508 00:31:41.621500 12373 net.cpp:408] data -> data
I0508 00:31:41.621522 12373 net.cpp:408] data -> label
I0508 00:31:41.909550 12504 db_lmdb.cpp:35] Opened lmdb ../local_data/lmdb/RTSD/orig/train/lmdb
I0508 00:31:41.994755 12373 data_layer.cpp:41] output data size: 1024,3,48,48
I0508 00:31:42.050626 12373 net.cpp:150] Setting up data
I0508 00:31:42.050657 12373 net.cpp:157] Top shape: 1024 3 48 48 (7077888)
I0508 00:31:42.050662 12373 net.cpp:157] Top shape: 1024 (1024)
I0508 00:31:42.050665 12373 net.cpp:165] Memory required for data: 28315648
I0508 00:31:42.050676 12373 layer_factory.hpp:77] Creating layer label_data_1_split
I0508 00:31:42.050699 12373 net.cpp:100] Creating Layer label_data_1_split
I0508 00:31:42.050707 12373 net.cpp:434] label_data_1_split <- label
I0508 00:31:42.050721 12373 net.cpp:408] label_data_1_split -> label_data_1_split_0
I0508 00:31:42.050734 12373 net.cpp:408] label_data_1_split -> label_data_1_split_1
I0508 00:31:42.050742 12373 net.cpp:408] label_data_1_split -> label_data_1_split_2
I0508 00:31:42.050813 12373 net.cpp:150] Setting up label_data_1_split
I0508 00:31:42.050822 12373 net.cpp:157] Top shape: 1024 (1024)
I0508 00:31:42.050828 12373 net.cpp:157] Top shape: 1024 (1024)
I0508 00:31:42.050832 12373 net.cpp:157] Top shape: 1024 (1024)
I0508 00:31:42.050835 12373 net.cpp:165] Memory required for data: 28327936
I0508 00:31:42.050838 12373 layer_factory.hpp:77] Creating layer conv1
I0508 00:31:42.050855 12373 net.cpp:100] Creating Layer conv1
I0508 00:31:42.050860 12373 net.cpp:434] conv1 <- data
I0508 00:31:42.050868 12373 net.cpp:408] conv1 -> conv1
I0508 00:31:42.059259 12548 blocking_queue.cpp:50] Waiting for data
I0508 00:31:42.414968 12373 net.cpp:150] Setting up conv1
I0508 00:31:42.414999 12373 net.cpp:157] Top shape: 1024 100 42 42 (180633600)
I0508 00:31:42.415004 12373 net.cpp:165] Memory required for data: 750862336
I0508 00:31:42.415029 12373 layer_factory.hpp:77] Creating layer conv1_prescale
I0508 00:31:42.415042 12373 net.cpp:100] Creating Layer conv1_prescale
I0508 00:31:42.415046 12373 net.cpp:434] conv1_prescale <- conv1
I0508 00:31:42.415055 12373 net.cpp:395] conv1_prescale -> conv1 (in-place)
I0508 00:31:42.415179 12373 net.cpp:150] Setting up conv1_prescale
I0508 00:31:42.415189 12373 net.cpp:157] Top shape: 1024 100 42 42 (180633600)
I0508 00:31:42.415192 12373 net.cpp:165] Memory required for data: 1473396736
I0508 00:31:42.415200 12373 layer_factory.hpp:77] Creating layer conv1_sTanH
I0508 00:31:42.415210 12373 net.cpp:100] Creating Layer conv1_sTanH
I0508 00:31:42.415215 12373 net.cpp:434] conv1_sTanH <- conv1
I0508 00:31:42.415220 12373 net.cpp:395] conv1_sTanH -> conv1 (in-place)
I0508 00:31:42.415432 12373 net.cpp:150] Setting up conv1_sTanH
I0508 00:31:42.415468 12373 net.cpp:157] Top shape: 1024 100 42 42 (180633600)
I0508 00:31:42.415474 12373 net.cpp:165] Memory required for data: 2195931136
I0508 00:31:42.415478 12373 layer_factory.hpp:77] Creating layer conv1_postscale
I0508 00:31:42.415485 12373 net.cpp:100] Creating Layer conv1_postscale
I0508 00:31:42.415491 12373 net.cpp:434] conv1_postscale <- conv1
I0508 00:31:42.415498 12373 net.cpp:395] conv1_postscale -> conv1 (in-place)
I0508 00:31:42.415597 12373 net.cpp:150] Setting up conv1_postscale
I0508 00:31:42.415606 12373 net.cpp:157] Top shape: 1024 100 42 42 (180633600)
I0508 00:31:42.415611 12373 net.cpp:165] Memory required for data: 2918465536
I0508 00:31:42.415616 12373 layer_factory.hpp:77] Creating layer pool1
I0508 00:31:42.415624 12373 net.cpp:100] Creating Layer pool1
I0508 00:31:42.415629 12373 net.cpp:434] pool1 <- conv1
I0508 00:31:42.415634 12373 net.cpp:408] pool1 -> pool1
I0508 00:31:42.415685 12373 net.cpp:150] Setting up pool1
I0508 00:31:42.415693 12373 net.cpp:157] Top shape: 1024 100 21 21 (45158400)
I0508 00:31:42.415698 12373 net.cpp:165] Memory required for data: 3099099136
I0508 00:31:42.415701 12373 layer_factory.hpp:77] Creating layer conv2
I0508 00:31:42.415711 12373 net.cpp:100] Creating Layer conv2
I0508 00:31:42.415716 12373 net.cpp:434] conv2 <- pool1
I0508 00:31:42.415721 12373 net.cpp:408] conv2 -> conv2
I0508 00:31:42.423130 12373 net.cpp:150] Setting up conv2
I0508 00:31:42.423149 12373 net.cpp:157] Top shape: 1024 150 18 18 (49766400)
I0508 00:31:42.423153 12373 net.cpp:165] Memory required for data: 3298164736
I0508 00:31:42.423166 12373 layer_factory.hpp:77] Creating layer conv2_prescale
I0508 00:31:42.423177 12373 net.cpp:100] Creating Layer conv2_prescale
I0508 00:31:42.423180 12373 net.cpp:434] conv2_prescale <- conv2
I0508 00:31:42.423187 12373 net.cpp:395] conv2_prescale -> conv2 (in-place)
I0508 00:31:42.423300 12373 net.cpp:150] Setting up conv2_prescale
I0508 00:31:42.423310 12373 net.cpp:157] Top shape: 1024 150 18 18 (49766400)
I0508 00:31:42.423323 12373 net.cpp:165] Memory required for data: 3497230336
I0508 00:31:42.423329 12373 layer_factory.hpp:77] Creating layer conv2_sTanH
I0508 00:31:42.423336 12373 net.cpp:100] Creating Layer conv2_sTanH
I0508 00:31:42.423338 12373 net.cpp:434] conv2_sTanH <- conv2
I0508 00:31:42.423343 12373 net.cpp:395] conv2_sTanH -> conv2 (in-place)
I0508 00:31:42.424249 12373 net.cpp:150] Setting up conv2_sTanH
I0508 00:31:42.424266 12373 net.cpp:157] Top shape: 1024 150 18 18 (49766400)
I0508 00:31:42.424270 12373 net.cpp:165] Memory required for data: 3696295936
I0508 00:31:42.424275 12373 layer_factory.hpp:77] Creating layer conv2_postscale
I0508 00:31:42.424283 12373 net.cpp:100] Creating Layer conv2_postscale
I0508 00:31:42.424288 12373 net.cpp:434] conv2_postscale <- conv2
I0508 00:31:42.424293 12373 net.cpp:395] conv2_postscale -> conv2 (in-place)
I0508 00:31:42.424394 12373 net.cpp:150] Setting up conv2_postscale
I0508 00:31:42.424403 12373 net.cpp:157] Top shape: 1024 150 18 18 (49766400)
I0508 00:31:42.424408 12373 net.cpp:165] Memory required for data: 3895361536
I0508 00:31:42.424413 12373 layer_factory.hpp:77] Creating layer pool2
I0508 00:31:42.424422 12373 net.cpp:100] Creating Layer pool2
I0508 00:31:42.424427 12373 net.cpp:434] pool2 <- conv2
I0508 00:31:42.424432 12373 net.cpp:408] pool2 -> pool2
I0508 00:31:42.424476 12373 net.cpp:150] Setting up pool2
I0508 00:31:42.424485 12373 net.cpp:157] Top shape: 1024 150 9 9 (12441600)
I0508 00:31:42.424489 12373 net.cpp:165] Memory required for data: 3945127936
I0508 00:31:42.424494 12373 layer_factory.hpp:77] Creating layer conv3
I0508 00:31:42.424502 12373 net.cpp:100] Creating Layer conv3
I0508 00:31:42.424507 12373 net.cpp:434] conv3 <- pool2
I0508 00:31:42.424512 12373 net.cpp:408] conv3 -> conv3
I0508 00:31:42.431483 12373 net.cpp:150] Setting up conv3
I0508 00:31:42.431501 12373 net.cpp:157] Top shape: 1024 250 6 6 (9216000)
I0508 00:31:42.431506 12373 net.cpp:165] Memory required for data: 3981991936
I0508 00:31:42.431517 12373 layer_factory.hpp:77] Creating layer conv3_prescale
I0508 00:31:42.431543 12373 net.cpp:100] Creating Layer conv3_prescale
I0508 00:31:42.431550 12373 net.cpp:434] conv3_prescale <- conv3
I0508 00:31:42.431555 12373 net.cpp:395] conv3_prescale -> conv3 (in-place)
I0508 00:31:42.431650 12373 net.cpp:150] Setting up conv3_prescale
I0508 00:31:42.431660 12373 net.cpp:157] Top shape: 1024 250 6 6 (9216000)
I0508 00:31:42.431664 12373 net.cpp:165] Memory required for data: 4018855936
I0508 00:31:42.431670 12373 layer_factory.hpp:77] Creating layer conv3_sTanH
I0508 00:31:42.431676 12373 net.cpp:100] Creating Layer conv3_sTanH
I0508 00:31:42.431681 12373 net.cpp:434] conv3_sTanH <- conv3
I0508 00:31:42.431686 12373 net.cpp:395] conv3_sTanH -> conv3 (in-place)
I0508 00:31:42.432518 12373 net.cpp:150] Setting up conv3_sTanH
I0508 00:31:42.432534 12373 net.cpp:157] Top shape: 1024 250 6 6 (9216000)
I0508 00:31:42.432539 12373 net.cpp:165] Memory required for data: 4055719936
I0508 00:31:42.432543 12373 layer_factory.hpp:77] Creating layer conv3_postscale
I0508 00:31:42.432551 12373 net.cpp:100] Creating Layer conv3_postscale
I0508 00:31:42.432556 12373 net.cpp:434] conv3_postscale <- conv3
I0508 00:31:42.432562 12373 net.cpp:395] conv3_postscale -> conv3 (in-place)
I0508 00:31:42.432659 12373 net.cpp:150] Setting up conv3_postscale
I0508 00:31:42.432668 12373 net.cpp:157] Top shape: 1024 250 6 6 (9216000)
I0508 00:31:42.432672 12373 net.cpp:165] Memory required for data: 4092583936
I0508 00:31:42.432678 12373 layer_factory.hpp:77] Creating layer pool3
I0508 00:31:42.432688 12373 net.cpp:100] Creating Layer pool3
I0508 00:31:42.432693 12373 net.cpp:434] pool3 <- conv3
I0508 00:31:42.432698 12373 net.cpp:408] pool3 -> pool3
I0508 00:31:42.432739 12373 net.cpp:150] Setting up pool3
I0508 00:31:42.432746 12373 net.cpp:157] Top shape: 1024 250 3 3 (2304000)
I0508 00:31:42.432750 12373 net.cpp:165] Memory required for data: 4101799936
I0508 00:31:42.432754 12373 layer_factory.hpp:77] Creating layer fc4_300
I0508 00:31:42.432760 12373 net.cpp:100] Creating Layer fc4_300
I0508 00:31:42.432765 12373 net.cpp:434] fc4_300 <- pool3
I0508 00:31:42.432770 12373 net.cpp:408] fc4_300 -> fc4_300
I0508 00:31:42.441058 12373 net.cpp:150] Setting up fc4_300
I0508 00:31:42.441077 12373 net.cpp:157] Top shape: 1024 300 (307200)
I0508 00:31:42.441082 12373 net.cpp:165] Memory required for data: 4103028736
I0508 00:31:42.441089 12373 layer_factory.hpp:77] Creating layer fc4_prescale
I0508 00:31:42.441099 12373 net.cpp:100] Creating Layer fc4_prescale
I0508 00:31:42.441104 12373 net.cpp:434] fc4_prescale <- fc4_300
I0508 00:31:42.441112 12373 net.cpp:395] fc4_prescale -> fc4_300 (in-place)
I0508 00:31:42.441200 12373 net.cpp:150] Setting up fc4_prescale
I0508 00:31:42.441210 12373 net.cpp:157] Top shape: 1024 300 (307200)
I0508 00:31:42.441215 12373 net.cpp:165] Memory required for data: 4104257536
I0508 00:31:42.441220 12373 layer_factory.hpp:77] Creating layer fc4_sTanH
I0508 00:31:42.441224 12373 net.cpp:100] Creating Layer fc4_sTanH
I0508 00:31:42.441229 12373 net.cpp:434] fc4_sTanH <- fc4_300
I0508 00:31:42.441234 12373 net.cpp:395] fc4_sTanH -> fc4_300 (in-place)
I0508 00:31:42.441431 12373 net.cpp:150] Setting up fc4_sTanH
I0508 00:31:42.441443 12373 net.cpp:157] Top shape: 1024 300 (307200)
I0508 00:31:42.441448 12373 net.cpp:165] Memory required for data: 4105486336
I0508 00:31:42.441452 12373 layer_factory.hpp:77] Creating layer fc4_postscale
I0508 00:31:42.441458 12373 net.cpp:100] Creating Layer fc4_postscale
I0508 00:31:42.441463 12373 net.cpp:434] fc4_postscale <- fc4_300
I0508 00:31:42.441469 12373 net.cpp:395] fc4_postscale -> fc4_300 (in-place)
I0508 00:31:42.441565 12373 net.cpp:150] Setting up fc4_postscale
I0508 00:31:42.441573 12373 net.cpp:157] Top shape: 1024 300 (307200)
I0508 00:31:42.441577 12373 net.cpp:165] Memory required for data: 4106715136
I0508 00:31:42.441582 12373 layer_factory.hpp:77] Creating layer fc5_116
I0508 00:31:42.441591 12373 net.cpp:100] Creating Layer fc5_116
I0508 00:31:42.441596 12373 net.cpp:434] fc5_116 <- fc4_300
I0508 00:31:42.441620 12373 net.cpp:408] fc5_116 -> fc5_classes
I0508 00:31:42.448060 12373 net.cpp:150] Setting up fc5_116
I0508 00:31:42.448078 12373 net.cpp:157] Top shape: 1024 116 (118784)
I0508 00:31:42.448083 12373 net.cpp:165] Memory required for data: 4107190272
I0508 00:31:42.448096 12373 layer_factory.hpp:77] Creating layer fc5_classes_fc5_116_0_split
I0508 00:31:42.448107 12373 net.cpp:100] Creating Layer fc5_classes_fc5_116_0_split
I0508 00:31:42.448112 12373 net.cpp:434] fc5_classes_fc5_116_0_split <- fc5_classes
I0508 00:31:42.448118 12373 net.cpp:408] fc5_classes_fc5_116_0_split -> fc5_classes_fc5_116_0_split_0
I0508 00:31:42.448127 12373 net.cpp:408] fc5_classes_fc5_116_0_split -> fc5_classes_fc5_116_0_split_1
I0508 00:31:42.448135 12373 net.cpp:408] fc5_classes_fc5_116_0_split -> fc5_classes_fc5_116_0_split_2
I0508 00:31:42.448189 12373 net.cpp:150] Setting up fc5_classes_fc5_116_0_split
I0508 00:31:42.448197 12373 net.cpp:157] Top shape: 1024 116 (118784)
I0508 00:31:42.448202 12373 net.cpp:157] Top shape: 1024 116 (118784)
I0508 00:31:42.448206 12373 net.cpp:157] Top shape: 1024 116 (118784)
I0508 00:31:42.448210 12373 net.cpp:165] Memory required for data: 4108615680
I0508 00:31:42.448213 12373 layer_factory.hpp:77] Creating layer softmax
I0508 00:31:42.448220 12373 net.cpp:100] Creating Layer softmax
I0508 00:31:42.448225 12373 net.cpp:434] softmax <- fc5_classes_fc5_116_0_split_0
I0508 00:31:42.448230 12373 net.cpp:408] softmax -> softmax
I0508 00:31:42.448503 12373 net.cpp:150] Setting up softmax
I0508 00:31:42.448515 12373 net.cpp:157] Top shape: 1024 116 (118784)
I0508 00:31:42.448520 12373 net.cpp:165] Memory required for data: 4109090816
I0508 00:31:42.448524 12373 layer_factory.hpp:77] Creating layer loss
I0508 00:31:42.448530 12373 net.cpp:100] Creating Layer loss
I0508 00:31:42.448535 12373 net.cpp:434] loss <- softmax
I0508 00:31:42.448540 12373 net.cpp:434] loss <- label_data_1_split_0
I0508 00:31:42.448547 12373 net.cpp:408] loss -> loss
…
