…
I0508 00:56:42.830024 10875 solver.cpp:93] Creating training net from train_net file: ./Prototxt/experiment_15/RTSD/orig/trial_1/train.prototxt
I0508 00:56:42.830502 10875 net.cpp:58] Initializing net from parameters: 
state {
  phase: TRAIN
  level: 0
  stage: ""
}
layer {
  name: "data"
  type: "Data"
  top: "data"
  top: "label"
  include {
    phase: TRAIN
  }
  transform_param {
    scale: 0.0039215689
    mirror: false
    crop_size: 48
    mean_value: 119
    mean_value: 113
    mean_value: 113
  }
  data_param {
    source: "../local_data/lmdb/RTSD/orig/train/lmdb"
    batch_size: 1024
    backend: LMDB
  }
}
layer {
  name: "conv1"
  type: "Convolution"
  bottom: "data"
  top: "conv1"
  convolution_param {
    num_output: 100
    pad: 0
    kernel_size: 7
    group: 1
    stride: 1
    weight_filler {
      type: "xavier"
    }
  }
}
layer {
  name: "conv1_prescale"
  type: "Scale"
  bottom: "conv1"
  top: "conv1"
  param {
    lr_mult: 0
    decay_mult: 0
  }
  scale_param {
    filler {
      value: 0.6666
    }
    bias_term: false
  }
}
layer {
  name: "conv1_sTanH"
  type: "TanH"
  bottom: "conv1"
  top: "conv1"
}
layer {
  name: "conv1_postscale"
  type: "Scale"
  bottom: "conv1"
  top: "conv1"
  param {
    lr_mult: 0
    decay_mult: 0
  }
  scale_param {
    filler {
      value: 1.7159
    }
    bias_term: false
  }
}
layer {
  name: "pool1"
  type: "Pooling"
  bottom: "conv1"
  top: "pool1"
  pooling_param {
    pool: MAX
    kernel_size: 2
    stride: 2
  }
}
layer {
  name: "conv2"
  type: "Convolution"
  bottom: "pool1"
  top: "conv2"
  convolution_param {
    num_output: 150
    pad: 0
    kernel_size: 4
    group: 2
    stride: 1
    weight_filler {
      type: "xavier"
    }
  }
}
layer {
  name: "conv2_prescale"
  type: "Scale"
  bottom: "conv2"
  top: "conv2"
  param {
    lr_mult: 0
    decay_mult: 0
  }
  scale_param {
    filler {
      value: 0.6666
    }
    bias_term: false
  }
}
layer {
  name: "conv2_sTanH"
  type: "TanH"
  bottom: "conv2"
  top: "conv2"
}
layer {
  name: "conv2_postscale"
  type: "Scale"
  bottom: "conv2"
  top: "conv2"
  param {
    lr_mult: 0
    decay_mult: 0
  }
  scale_param {
    filler {
      value: 1.7159
    }
    bias_term: false
  }
}
layer {
  name: "pool2"
  type: "Pooling"
  bottom: "conv2"
  top: "pool2"
  pooling_param {
    pool: MAX
    kernel_size: 2
    stride: 2
  }
}
layer {
  name: "conv3"
  type: "Convolution"
  bottom: "pool2"
  top: "conv3"
  convolution_param {
    num_output: 250
    pad: 0
    kernel_size: 4
    group: 2
    stride: 1
    weight_filler {
      type: "xavier"
    }
  }
}
layer {
  name: "conv3_prescale"
  type: "Scale"
  bottom: "conv3"
  top: "conv3"
  param {
    lr_mult: 0
    decay_mult: 0
  }
  scale_param {
    filler {
      value: 0.6666
    }
    bias_term: false
  }
}
layer {
  name: "conv3_sTanH"
  type: "TanH"
  bottom: "conv3"
  top: "conv3"
}
layer {
  name: "conv3_postscale"
  type: "Scale"
  bottom: "conv3"
  top: "conv3"
  param {
    lr_mult: 0
    decay_mult: 0
  }
  scale_param {
    filler {
      value: 1.7159
    }
    bias_term: false
  }
}
layer {
  name: "pool3"
  type: "Pooling"
  bottom: "conv3"
  top: "pool3"
  pooling_param {
    pool: MAX
    kernel_size: 2
    stride: 2
  }
}
layer {
  name: "fc4_300"
  type: "InnerProduct"
  bottom: "pool3"
  top: "fc4_300"
  inner_product_param {
    num_output: 300
    weight_filler {
      type: "xavier"
    }
  }
}
layer {
  name: "fc4_prescale"
  type: "Scale"
  bottom: "fc4_300"
  top: "fc4_300"
  param {
    lr_mult: 0
    decay_mult: 0
  }
  scale_param {
    filler {
      value: 0.6666
    }
    bias_term: false
  }
}
layer {
  name: "fc4_sTanH"
  type: "TanH"
  bottom: "fc4_300"
  top: "fc4_300"
}
layer {
  name: "fc4_postscale"
  type: "Scale"
  bottom: "fc4_300"
  top: "fc4_300"
  param {
    lr_mult: 0
    decay_mult: 0
  }
  scale_param {
    filler {
      value: 1.7159
    }
    bias_term: false
  }
}
layer {
  name: "fc5_116"
  type: "InnerProduct"
  bottom: "fc4_300"
  top: "fc5_classes"
  inner_product_param {
    num_output: 116
    weight_filler {
      type: "xavier"
    }
  }
}
layer {
  name: "softmax"
  type: "Softmax"
  bottom: "fc5_classes"
  top: "softmax"
}
layer {
  name: "loss"
  type: "MultinomialLogisticLoss"
  bottom: "softmax"
  bottom: "label"
  top: "loss"
}
layer {
  name: "accuracy_1"
  type: "Accuracy"
  bottom: "fc5_classes"
  bottom: "label"
  top: "accuracy_1"
  accuracy_param {
    top_k: 1
  }
}
layer {
  name: "accuracy_5"
  type: "Accuracy"
  bottom: "fc5_classes"
  bottom: "label"
  top: "accuracy_5"
  accuracy_param {
    top_k: 5
  }
}
layer {
  name: "silence"
  type: "Silence"
  bottom: "accuracy_1"
  bottom: "accuracy_5"
}
I0508 00:56:42.830664 10875 layer_factory.hpp:77] Creating layer data
I0508 00:56:42.831756 10875 net.cpp:100] Creating Layer data
I0508 00:56:42.831774 10875 net.cpp:408] data -> data
I0508 00:56:42.831799 10875 net.cpp:408] data -> label
I0508 00:56:42.836647 10998 db_lmdb.cpp:35] Opened lmdb ../local_data/lmdb/RTSD/orig/train/lmdb
I0508 00:56:42.854542 10875 data_layer.cpp:41] output data size: 1024,3,48,48
I0508 00:56:42.924521 10875 net.cpp:150] Setting up data
I0508 00:56:42.924553 10875 net.cpp:157] Top shape: 1024 3 48 48 (7077888)
I0508 00:56:42.924559 10875 net.cpp:157] Top shape: 1024 (1024)
I0508 00:56:42.924562 10875 net.cpp:165] Memory required for data: 28315648
I0508 00:56:42.924573 10875 layer_factory.hpp:77] Creating layer label_data_1_split
I0508 00:56:42.924588 10875 net.cpp:100] Creating Layer label_data_1_split
I0508 00:56:42.924597 10875 net.cpp:434] label_data_1_split <- label
I0508 00:56:42.924609 10875 net.cpp:408] label_data_1_split -> label_data_1_split_0
I0508 00:56:42.924623 10875 net.cpp:408] label_data_1_split -> label_data_1_split_1
I0508 00:56:42.924630 10875 net.cpp:408] label_data_1_split -> label_data_1_split_2
I0508 00:56:42.924731 10875 net.cpp:150] Setting up label_data_1_split
I0508 00:56:42.924741 10875 net.cpp:157] Top shape: 1024 (1024)
I0508 00:56:42.924744 10875 net.cpp:157] Top shape: 1024 (1024)
I0508 00:56:42.924748 10875 net.cpp:157] Top shape: 1024 (1024)
I0508 00:56:42.924751 10875 net.cpp:165] Memory required for data: 28327936
I0508 00:56:42.924753 10875 layer_factory.hpp:77] Creating layer conv1
I0508 00:56:42.924772 10875 net.cpp:100] Creating Layer conv1
I0508 00:56:42.924777 10875 net.cpp:434] conv1 <- data
I0508 00:56:42.924783 10875 net.cpp:408] conv1 -> conv1
I0508 00:56:43.292197 10875 net.cpp:150] Setting up conv1
I0508 00:56:43.292224 10875 net.cpp:157] Top shape: 1024 100 42 42 (180633600)
I0508 00:56:43.292228 10875 net.cpp:165] Memory required for data: 750862336
I0508 00:56:43.292250 10875 layer_factory.hpp:77] Creating layer conv1_prescale
I0508 00:56:43.292263 10875 net.cpp:100] Creating Layer conv1_prescale
I0508 00:56:43.292268 10875 net.cpp:434] conv1_prescale <- conv1
I0508 00:56:43.292275 10875 net.cpp:395] conv1_prescale -> conv1 (in-place)
I0508 00:56:43.292381 10875 net.cpp:150] Setting up conv1_prescale
I0508 00:56:43.292389 10875 net.cpp:157] Top shape: 1024 100 42 42 (180633600)
I0508 00:56:43.292392 10875 net.cpp:165] Memory required for data: 1473396736
I0508 00:56:43.292398 10875 layer_factory.hpp:77] Creating layer conv1_sTanH
I0508 00:56:43.292407 10875 net.cpp:100] Creating Layer conv1_sTanH
I0508 00:56:43.292412 10875 net.cpp:434] conv1_sTanH <- conv1
I0508 00:56:43.292417 10875 net.cpp:395] conv1_sTanH -> conv1 (in-place)
I0508 00:56:43.292606 10875 net.cpp:150] Setting up conv1_sTanH
I0508 00:56:43.292618 10875 net.cpp:157] Top shape: 1024 100 42 42 (180633600)
I0508 00:56:43.292640 10875 net.cpp:165] Memory required for data: 2195931136
I0508 00:56:43.292645 10875 layer_factory.hpp:77] Creating layer conv1_postscale
I0508 00:56:43.292652 10875 net.cpp:100] Creating Layer conv1_postscale
I0508 00:56:43.292655 10875 net.cpp:434] conv1_postscale <- conv1
I0508 00:56:43.292660 10875 net.cpp:395] conv1_postscale -> conv1 (in-place)
I0508 00:56:43.292754 10875 net.cpp:150] Setting up conv1_postscale
I0508 00:56:43.292762 10875 net.cpp:157] Top shape: 1024 100 42 42 (180633600)
I0508 00:56:43.292765 10875 net.cpp:165] Memory required for data: 2918465536
I0508 00:56:43.292770 10875 layer_factory.hpp:77] Creating layer pool1
I0508 00:56:43.292776 10875 net.cpp:100] Creating Layer pool1
I0508 00:56:43.292780 10875 net.cpp:434] pool1 <- conv1
I0508 00:56:43.292785 10875 net.cpp:408] pool1 -> pool1
I0508 00:56:43.292830 10875 net.cpp:150] Setting up pool1
I0508 00:56:43.292839 10875 net.cpp:157] Top shape: 1024 100 21 21 (45158400)
I0508 00:56:43.292840 10875 net.cpp:165] Memory required for data: 3099099136
I0508 00:56:43.292843 10875 layer_factory.hpp:77] Creating layer conv2
I0508 00:56:43.292853 10875 net.cpp:100] Creating Layer conv2
I0508 00:56:43.292858 10875 net.cpp:434] conv2 <- pool1
I0508 00:56:43.292863 10875 net.cpp:408] conv2 -> conv2
I0508 00:56:43.303768 10875 net.cpp:150] Setting up conv2
I0508 00:56:43.303786 10875 net.cpp:157] Top shape: 1024 150 18 18 (49766400)
I0508 00:56:43.303791 10875 net.cpp:165] Memory required for data: 3298164736
I0508 00:56:43.303800 10875 layer_factory.hpp:77] Creating layer conv2_prescale
I0508 00:56:43.303812 10875 net.cpp:100] Creating Layer conv2_prescale
I0508 00:56:43.303817 10875 net.cpp:434] conv2_prescale <- conv2
I0508 00:56:43.303822 10875 net.cpp:395] conv2_prescale -> conv2 (in-place)
I0508 00:56:43.303935 10875 net.cpp:150] Setting up conv2_prescale
I0508 00:56:43.303943 10875 net.cpp:157] Top shape: 1024 150 18 18 (49766400)
I0508 00:56:43.303946 10875 net.cpp:165] Memory required for data: 3497230336
I0508 00:56:43.303951 10875 layer_factory.hpp:77] Creating layer conv2_sTanH
I0508 00:56:43.303964 10875 net.cpp:100] Creating Layer conv2_sTanH
I0508 00:56:43.303967 10875 net.cpp:434] conv2_sTanH <- conv2
I0508 00:56:43.303972 10875 net.cpp:395] conv2_sTanH -> conv2 (in-place)
I0508 00:56:43.304149 10875 net.cpp:150] Setting up conv2_sTanH
I0508 00:56:43.304160 10875 net.cpp:157] Top shape: 1024 150 18 18 (49766400)
I0508 00:56:43.304162 10875 net.cpp:165] Memory required for data: 3696295936
I0508 00:56:43.304167 10875 layer_factory.hpp:77] Creating layer conv2_postscale
I0508 00:56:43.304172 10875 net.cpp:100] Creating Layer conv2_postscale
I0508 00:56:43.304177 10875 net.cpp:434] conv2_postscale <- conv2
I0508 00:56:43.304183 10875 net.cpp:395] conv2_postscale -> conv2 (in-place)
I0508 00:56:43.304272 10875 net.cpp:150] Setting up conv2_postscale
I0508 00:56:43.304280 10875 net.cpp:157] Top shape: 1024 150 18 18 (49766400)
I0508 00:56:43.304282 10875 net.cpp:165] Memory required for data: 3895361536
I0508 00:56:43.304287 10875 layer_factory.hpp:77] Creating layer pool2
I0508 00:56:43.304293 10875 net.cpp:100] Creating Layer pool2
I0508 00:56:43.304296 10875 net.cpp:434] pool2 <- conv2
I0508 00:56:43.304301 10875 net.cpp:408] pool2 -> pool2
I0508 00:56:43.304340 10875 net.cpp:150] Setting up pool2
I0508 00:56:43.304348 10875 net.cpp:157] Top shape: 1024 150 9 9 (12441600)
I0508 00:56:43.304350 10875 net.cpp:165] Memory required for data: 3945127936
I0508 00:56:43.304354 10875 layer_factory.hpp:77] Creating layer conv3
I0508 00:56:43.304361 10875 net.cpp:100] Creating Layer conv3
I0508 00:56:43.304366 10875 net.cpp:434] conv3 <- pool2
I0508 00:56:43.304371 10875 net.cpp:408] conv3 -> conv3
I0508 00:56:43.310479 10875 net.cpp:150] Setting up conv3
I0508 00:56:43.310499 10875 net.cpp:157] Top shape: 1024 250 6 6 (9216000)
I0508 00:56:43.310503 10875 net.cpp:165] Memory required for data: 3981991936
I0508 00:56:43.310513 10875 layer_factory.hpp:77] Creating layer conv3_prescale
I0508 00:56:43.310539 10875 net.cpp:100] Creating Layer conv3_prescale
I0508 00:56:43.310542 10875 net.cpp:434] conv3_prescale <- conv3
I0508 00:56:43.310549 10875 net.cpp:395] conv3_prescale -> conv3 (in-place)
I0508 00:56:43.310642 10875 net.cpp:150] Setting up conv3_prescale
I0508 00:56:43.310650 10875 net.cpp:157] Top shape: 1024 250 6 6 (9216000)
I0508 00:56:43.310653 10875 net.cpp:165] Memory required for data: 4018855936
I0508 00:56:43.310658 10875 layer_factory.hpp:77] Creating layer conv3_sTanH
I0508 00:56:43.310664 10875 net.cpp:100] Creating Layer conv3_sTanH
I0508 00:56:43.310667 10875 net.cpp:434] conv3_sTanH <- conv3
I0508 00:56:43.310672 10875 net.cpp:395] conv3_sTanH -> conv3 (in-place)
I0508 00:56:43.310852 10875 net.cpp:150] Setting up conv3_sTanH
I0508 00:56:43.310863 10875 net.cpp:157] Top shape: 1024 250 6 6 (9216000)
I0508 00:56:43.310866 10875 net.cpp:165] Memory required for data: 4055719936
I0508 00:56:43.310869 10875 layer_factory.hpp:77] Creating layer conv3_postscale
I0508 00:56:43.310875 10875 net.cpp:100] Creating Layer conv3_postscale
I0508 00:56:43.310880 10875 net.cpp:434] conv3_postscale <- conv3
I0508 00:56:43.310885 10875 net.cpp:395] conv3_postscale -> conv3 (in-place)
I0508 00:56:43.310973 10875 net.cpp:150] Setting up conv3_postscale
I0508 00:56:43.310981 10875 net.cpp:157] Top shape: 1024 250 6 6 (9216000)
I0508 00:56:43.310983 10875 net.cpp:165] Memory required for data: 4092583936
I0508 00:56:43.310987 10875 layer_factory.hpp:77] Creating layer pool3
I0508 00:56:43.310997 10875 net.cpp:100] Creating Layer pool3
I0508 00:56:43.311000 10875 net.cpp:434] pool3 <- conv3
I0508 00:56:43.311007 10875 net.cpp:408] pool3 -> pool3
I0508 00:56:43.311041 10875 net.cpp:150] Setting up pool3
I0508 00:56:43.311048 10875 net.cpp:157] Top shape: 1024 250 3 3 (2304000)
I0508 00:56:43.311051 10875 net.cpp:165] Memory required for data: 4101799936
I0508 00:56:43.311054 10875 layer_factory.hpp:77] Creating layer fc4_300
I0508 00:56:43.311060 10875 net.cpp:100] Creating Layer fc4_300
I0508 00:56:43.311065 10875 net.cpp:434] fc4_300 <- pool3
I0508 00:56:43.311070 10875 net.cpp:408] fc4_300 -> fc4_300
I0508 00:56:43.316529 10875 net.cpp:150] Setting up fc4_300
I0508 00:56:43.316545 10875 net.cpp:157] Top shape: 1024 300 (307200)
I0508 00:56:43.316550 10875 net.cpp:165] Memory required for data: 4103028736
I0508 00:56:43.316556 10875 layer_factory.hpp:77] Creating layer fc4_prescale
I0508 00:56:43.316563 10875 net.cpp:100] Creating Layer fc4_prescale
I0508 00:56:43.316566 10875 net.cpp:434] fc4_prescale <- fc4_300
I0508 00:56:43.316571 10875 net.cpp:395] fc4_prescale -> fc4_300 (in-place)
I0508 00:56:43.316660 10875 net.cpp:150] Setting up fc4_prescale
I0508 00:56:43.316668 10875 net.cpp:157] Top shape: 1024 300 (307200)
I0508 00:56:43.316670 10875 net.cpp:165] Memory required for data: 4104257536
I0508 00:56:43.316675 10875 layer_factory.hpp:77] Creating layer fc4_sTanH
I0508 00:56:43.316680 10875 net.cpp:100] Creating Layer fc4_sTanH
I0508 00:56:43.316684 10875 net.cpp:434] fc4_sTanH <- fc4_300
I0508 00:56:43.316689 10875 net.cpp:395] fc4_sTanH -> fc4_300 (in-place)
I0508 00:56:43.323614 10875 net.cpp:150] Setting up fc4_sTanH
I0508 00:56:43.323632 10875 net.cpp:157] Top shape: 1024 300 (307200)
I0508 00:56:43.323635 10875 net.cpp:165] Memory required for data: 4105486336
I0508 00:56:43.323639 10875 layer_factory.hpp:77] Creating layer fc4_postscale
I0508 00:56:43.323647 10875 net.cpp:100] Creating Layer fc4_postscale
I0508 00:56:43.323652 10875 net.cpp:434] fc4_postscale <- fc4_300
I0508 00:56:43.323657 10875 net.cpp:395] fc4_postscale -> fc4_300 (in-place)
I0508 00:56:43.323757 10875 net.cpp:150] Setting up fc4_postscale
I0508 00:56:43.323766 10875 net.cpp:157] Top shape: 1024 300 (307200)
I0508 00:56:43.323770 10875 net.cpp:165] Memory required for data: 4106715136
I0508 00:56:43.323774 10875 layer_factory.hpp:77] Creating layer fc5_116
I0508 00:56:43.323782 10875 net.cpp:100] Creating Layer fc5_116
I0508 00:56:43.323786 10875 net.cpp:434] fc5_116 <- fc4_300
I0508 00:56:43.323791 10875 net.cpp:408] fc5_116 -> fc5_classes
I0508 00:56:43.325562 10875 net.cpp:150] Setting up fc5_116
I0508 00:56:43.325579 10875 net.cpp:157] Top shape: 1024 116 (118784)
I0508 00:56:43.325583 10875 net.cpp:165] Memory required for data: 4107190272
I0508 00:56:43.325595 10875 layer_factory.hpp:77] Creating layer fc5_classes_fc5_116_0_split
I0508 00:56:43.325603 10875 net.cpp:100] Creating Layer fc5_classes_fc5_116_0_split
I0508 00:56:43.325606 10875 net.cpp:434] fc5_classes_fc5_116_0_split <- fc5_classes
I0508 00:56:43.325613 10875 net.cpp:408] fc5_classes_fc5_116_0_split -> fc5_classes_fc5_116_0_split_0
I0508 00:56:43.325623 10875 net.cpp:408] fc5_classes_fc5_116_0_split -> fc5_classes_fc5_116_0_split_1
I0508 00:56:43.325630 10875 net.cpp:408] fc5_classes_fc5_116_0_split -> fc5_classes_fc5_116_0_split_2
I0508 00:56:43.325681 10875 net.cpp:150] Setting up fc5_classes_fc5_116_0_split
I0508 00:56:43.325688 10875 net.cpp:157] Top shape: 1024 116 (118784)
I0508 00:56:43.325692 10875 net.cpp:157] Top shape: 1024 116 (118784)
I0508 00:56:43.325695 10875 net.cpp:157] Top shape: 1024 116 (118784)
I0508 00:56:43.325698 10875 net.cpp:165] Memory required for data: 4108615680
I0508 00:56:43.325701 10875 layer_factory.hpp:77] Creating layer softmax
I0508 00:56:43.325707 10875 net.cpp:100] Creating Layer softmax
I0508 00:56:43.325711 10875 net.cpp:434] softmax <- fc5_classes_fc5_116_0_split_0
I0508 00:56:43.325716 10875 net.cpp:408] softmax -> softmax
I0508 00:56:43.325963 10875 net.cpp:150] Setting up softmax
I0508 00:56:43.325974 10875 net.cpp:157] Top shape: 1024 116 (118784)
I0508 00:56:43.325978 10875 net.cpp:165] Memory required for data: 4109090816
I0508 00:56:43.325983 10875 layer_factory.hpp:77] Creating layer loss
I0508 00:56:43.325989 10875 net.cpp:100] Creating Layer loss
I0508 00:56:43.325994 10875 net.cpp:434] loss <- softmax
I0508 00:56:43.325997 10875 net.cpp:434] loss <- label_data_1_split_0
I0508 00:56:43.326002 10875 net.cpp:408] loss -> loss
…
