…
I0508 01:08:08.323184 13579 solver.cpp:93] Creating training net from train_net file: ./Prototxt/experiment_15/RTSD/orig/trial_1/train.prototxt
I0508 01:08:08.323676 13579 net.cpp:58] Initializing net from parameters: 
state {
  phase: TRAIN
  level: 0
  stage: ""
}
layer {
  name: "data"
  type: "Data"
  top: "data"
  top: "label"
  include {
    phase: TRAIN
  }
  transform_param {
    scale: 0.0039215689
    mirror: false
    crop_size: 48
    mean_value: 119
    mean_value: 113
    mean_value: 113
  }
  data_param {
    source: "../local_data/lmdb/RTSD/orig/train/lmdb"
    batch_size: 1024
    backend: LMDB
  }
}
layer {
  name: "conv1"
  type: "Convolution"
  bottom: "data"
  top: "conv1"
  convolution_param {
    num_output: 100
    pad: 0
    kernel_size: 7
    group: 1
    stride: 1
    weight_filler {
      type: "xavier"
    }
  }
}
layer {
  name: "conv1_prescale"
  type: "Scale"
  bottom: "conv1"
  top: "conv1"
  param {
    lr_mult: 0
    decay_mult: 0
  }
  scale_param {
    filler {
      value: 0.6666
    }
    bias_term: false
  }
}
layer {
  name: "conv1_sTanH"
  type: "TanH"
  bottom: "conv1"
  top: "conv1"
}
layer {
  name: "conv1_postscale"
  type: "Scale"
  bottom: "conv1"
  top: "conv1"
  param {
    lr_mult: 0
    decay_mult: 0
  }
  scale_param {
    filler {
      value: 1.7159
    }
    bias_term: false
  }
}
layer {
  name: "pool1"
  type: "Pooling"
  bottom: "conv1"
  top: "pool1"
  pooling_param {
    pool: MAX
    kernel_size: 2
    stride: 2
  }
}
layer {
  name: "conv2"
  type: "Convolution"
  bottom: "pool1"
  top: "conv2"
  convolution_param {
    num_output: 150
    pad: 0
    kernel_size: 4
    group: 2
    stride: 1
    weight_filler {
      type: "xavier"
    }
  }
}
layer {
  name: "conv2_prescale"
  type: "Scale"
  bottom: "conv2"
  top: "conv2"
  param {
    lr_mult: 0
    decay_mult: 0
  }
  scale_param {
    filler {
      value: 0.6666
    }
    bias_term: false
  }
}
layer {
  name: "conv2_sTanH"
  type: "TanH"
  bottom: "conv2"
  top: "conv2"
}
layer {
  name: "conv2_postscale"
  type: "Scale"
  bottom: "conv2"
  top: "conv2"
  param {
    lr_mult: 0
    decay_mult: 0
  }
  scale_param {
    filler {
      value: 1.7159
    }
    bias_term: false
  }
}
layer {
  name: "pool2"
  type: "Pooling"
  bottom: "conv2"
  top: "pool2"
  pooling_param {
    pool: MAX
    kernel_size: 2
    stride: 2
  }
}
layer {
  name: "conv3"
  type: "Convolution"
  bottom: "pool2"
  top: "conv3"
  convolution_param {
    num_output: 250
    pad: 0
    kernel_size: 4
    group: 2
    stride: 1
    weight_filler {
      type: "xavier"
    }
  }
}
layer {
  name: "conv3_prescale"
  type: "Scale"
  bottom: "conv3"
  top: "conv3"
  param {
    lr_mult: 0
    decay_mult: 0
  }
  scale_param {
    filler {
      value: 0.6666
    }
    bias_term: false
  }
}
layer {
  name: "conv3_sTanH"
  type: "TanH"
  bottom: "conv3"
  top: "conv3"
}
layer {
  name: "conv3_postscale"
  type: "Scale"
  bottom: "conv3"
  top: "conv3"
  param {
    lr_mult: 0
    decay_mult: 0
  }
  scale_param {
    filler {
      value: 1.7159
    }
    bias_term: false
  }
}
layer {
  name: "pool3"
  type: "Pooling"
  bottom: "conv3"
  top: "pool3"
  pooling_param {
    pool: MAX
    kernel_size: 2
    stride: 2
  }
}
layer {
  name: "fc4_300"
  type: "InnerProduct"
  bottom: "pool3"
  top: "fc4_300"
  inner_product_param {
    num_output: 300
    weight_filler {
      type: "xavier"
    }
  }
}
layer {
  name: "fc4_prescale"
  type: "Scale"
  bottom: "fc4_300"
  top: "fc4_300"
  param {
    lr_mult: 0
    decay_mult: 0
  }
  scale_param {
    filler {
      value: 0.6666
    }
    bias_term: false
  }
}
layer {
  name: "fc4_sTanH"
  type: "TanH"
  bottom: "fc4_300"
  top: "fc4_300"
}
layer {
  name: "fc4_postscale"
  type: "Scale"
  bottom: "fc4_300"
  top: "fc4_300"
  param {
    lr_mult: 0
    decay_mult: 0
  }
  scale_param {
    filler {
      value: 1.7159
    }
    bias_term: false
  }
}
layer {
  name: "fc5_116"
  type: "InnerProduct"
  bottom: "fc4_300"
  top: "fc5_classes"
  inner_product_param {
    num_output: 116
    weight_filler {
      type: "xavier"
    }
  }
}
layer {
  name: "softmax"
  type: "Softmax"
  bottom: "fc5_classes"
  top: "softmax"
}
layer {
  name: "loss"
  type: "MultinomialLogisticLoss"
  bottom: "softmax"
  bottom: "label"
  top: "loss"
}
layer {
  name: "accuracy_1"
  type: "Accuracy"
  bottom: "fc5_classes"
  bottom: "label"
  top: "accuracy_1"
  accuracy_param {
    top_k: 1
  }
}
layer {
  name: "accuracy_5"
  type: "Accuracy"
  bottom: "fc5_classes"
  bottom: "label"
  top: "accuracy_5"
  accuracy_param {
    top_k: 5
  }
}
layer {
  name: "silence"
  type: "Silence"
  bottom: "accuracy_1"
  bottom: "accuracy_5"
}
I0508 01:08:08.323909 13579 layer_factory.hpp:77] Creating layer data
I0508 01:08:08.325049 13579 net.cpp:100] Creating Layer data
I0508 01:08:08.325069 13579 net.cpp:408] data -> data
I0508 01:08:08.325103 13579 net.cpp:408] data -> label
I0508 01:08:08.330592 13713 db_lmdb.cpp:35] Opened lmdb ../local_data/lmdb/RTSD/orig/train/lmdb
I0508 01:08:08.347961 13579 data_layer.cpp:41] output data size: 1024,3,48,48
I0508 01:08:08.417053 13579 net.cpp:150] Setting up data
I0508 01:08:08.417086 13579 net.cpp:157] Top shape: 1024 3 48 48 (7077888)
I0508 01:08:08.417095 13579 net.cpp:157] Top shape: 1024 (1024)
I0508 01:08:08.417100 13579 net.cpp:165] Memory required for data: 28315648
I0508 01:08:08.417119 13579 layer_factory.hpp:77] Creating layer label_data_1_split
I0508 01:08:08.417138 13579 net.cpp:100] Creating Layer label_data_1_split
I0508 01:08:08.417147 13579 net.cpp:434] label_data_1_split <- label
I0508 01:08:08.417167 13579 net.cpp:408] label_data_1_split -> label_data_1_split_0
I0508 01:08:08.417184 13579 net.cpp:408] label_data_1_split -> label_data_1_split_1
I0508 01:08:08.417194 13579 net.cpp:408] label_data_1_split -> label_data_1_split_2
I0508 01:08:08.417261 13579 net.cpp:150] Setting up label_data_1_split
I0508 01:08:08.417273 13579 net.cpp:157] Top shape: 1024 (1024)
I0508 01:08:08.417279 13579 net.cpp:157] Top shape: 1024 (1024)
I0508 01:08:08.417287 13579 net.cpp:157] Top shape: 1024 (1024)
I0508 01:08:08.417294 13579 net.cpp:165] Memory required for data: 28327936
I0508 01:08:08.417300 13579 layer_factory.hpp:77] Creating layer conv1
I0508 01:08:08.417320 13579 net.cpp:100] Creating Layer conv1
I0508 01:08:08.417327 13579 net.cpp:434] conv1 <- data
I0508 01:08:08.417336 13579 net.cpp:408] conv1 -> conv1
I0508 01:08:08.847136 13579 net.cpp:150] Setting up conv1
I0508 01:08:08.847167 13579 net.cpp:157] Top shape: 1024 100 42 42 (180633600)
I0508 01:08:08.847174 13579 net.cpp:165] Memory required for data: 750862336
I0508 01:08:08.847205 13579 layer_factory.hpp:77] Creating layer conv1_prescale
I0508 01:08:08.847225 13579 net.cpp:100] Creating Layer conv1_prescale
I0508 01:08:08.847232 13579 net.cpp:434] conv1_prescale <- conv1
I0508 01:08:08.847244 13579 net.cpp:395] conv1_prescale -> conv1 (in-place)
I0508 01:08:08.847358 13579 net.cpp:150] Setting up conv1_prescale
I0508 01:08:08.847371 13579 net.cpp:157] Top shape: 1024 100 42 42 (180633600)
I0508 01:08:08.847376 13579 net.cpp:165] Memory required for data: 1473396736
I0508 01:08:08.847388 13579 layer_factory.hpp:77] Creating layer conv1_sTanH
I0508 01:08:08.847414 13579 net.cpp:100] Creating Layer conv1_sTanH
I0508 01:08:08.847422 13579 net.cpp:434] conv1_sTanH <- conv1
I0508 01:08:08.847430 13579 net.cpp:395] conv1_sTanH -> conv1 (in-place)
I0508 01:08:08.847635 13579 net.cpp:150] Setting up conv1_sTanH
I0508 01:08:08.847650 13579 net.cpp:157] Top shape: 1024 100 42 42 (180633600)
I0508 01:08:08.847674 13579 net.cpp:165] Memory required for data: 2195931136
I0508 01:08:08.847683 13579 layer_factory.hpp:77] Creating layer conv1_postscale
I0508 01:08:08.847697 13579 net.cpp:100] Creating Layer conv1_postscale
I0508 01:08:08.847702 13579 net.cpp:434] conv1_postscale <- conv1
I0508 01:08:08.847712 13579 net.cpp:395] conv1_postscale -> conv1 (in-place)
I0508 01:08:08.847815 13579 net.cpp:150] Setting up conv1_postscale
I0508 01:08:08.847826 13579 net.cpp:157] Top shape: 1024 100 42 42 (180633600)
I0508 01:08:08.847831 13579 net.cpp:165] Memory required for data: 2918465536
I0508 01:08:08.847841 13579 layer_factory.hpp:77] Creating layer pool1
I0508 01:08:08.847852 13579 net.cpp:100] Creating Layer pool1
I0508 01:08:08.847859 13579 net.cpp:434] pool1 <- conv1
I0508 01:08:08.847869 13579 net.cpp:408] pool1 -> pool1
I0508 01:08:08.847944 13579 net.cpp:150] Setting up pool1
I0508 01:08:08.847956 13579 net.cpp:157] Top shape: 1024 100 21 21 (45158400)
I0508 01:08:08.847965 13579 net.cpp:165] Memory required for data: 3099099136
I0508 01:08:08.847971 13579 layer_factory.hpp:77] Creating layer conv2
I0508 01:08:08.847987 13579 net.cpp:100] Creating Layer conv2
I0508 01:08:08.847993 13579 net.cpp:434] conv2 <- pool1
I0508 01:08:08.848002 13579 net.cpp:408] conv2 -> conv2
I0508 01:08:08.856598 13579 net.cpp:150] Setting up conv2
I0508 01:08:08.856619 13579 net.cpp:157] Top shape: 1024 150 18 18 (49766400)
I0508 01:08:08.856626 13579 net.cpp:165] Memory required for data: 3298164736
I0508 01:08:08.856642 13579 layer_factory.hpp:77] Creating layer conv2_prescale
I0508 01:08:08.856659 13579 net.cpp:100] Creating Layer conv2_prescale
I0508 01:08:08.856667 13579 net.cpp:434] conv2_prescale <- conv2
I0508 01:08:08.856676 13579 net.cpp:395] conv2_prescale -> conv2 (in-place)
I0508 01:08:08.856791 13579 net.cpp:150] Setting up conv2_prescale
I0508 01:08:08.856803 13579 net.cpp:157] Top shape: 1024 150 18 18 (49766400)
I0508 01:08:08.856808 13579 net.cpp:165] Memory required for data: 3497230336
I0508 01:08:08.856817 13579 layer_factory.hpp:77] Creating layer conv2_sTanH
I0508 01:08:08.856835 13579 net.cpp:100] Creating Layer conv2_sTanH
I0508 01:08:08.856845 13579 net.cpp:434] conv2_sTanH <- conv2
I0508 01:08:08.856854 13579 net.cpp:395] conv2_sTanH -> conv2 (in-place)
I0508 01:08:08.857041 13579 net.cpp:150] Setting up conv2_sTanH
I0508 01:08:08.857061 13579 net.cpp:157] Top shape: 1024 150 18 18 (49766400)
I0508 01:08:08.857066 13579 net.cpp:165] Memory required for data: 3696295936
I0508 01:08:08.857072 13579 layer_factory.hpp:77] Creating layer conv2_postscale
I0508 01:08:08.857082 13579 net.cpp:100] Creating Layer conv2_postscale
I0508 01:08:08.857090 13579 net.cpp:434] conv2_postscale <- conv2
I0508 01:08:08.857100 13579 net.cpp:395] conv2_postscale -> conv2 (in-place)
I0508 01:08:08.857199 13579 net.cpp:150] Setting up conv2_postscale
I0508 01:08:08.857210 13579 net.cpp:157] Top shape: 1024 150 18 18 (49766400)
I0508 01:08:08.857216 13579 net.cpp:165] Memory required for data: 3895361536
I0508 01:08:08.857224 13579 layer_factory.hpp:77] Creating layer pool2
I0508 01:08:08.857235 13579 net.cpp:100] Creating Layer pool2
I0508 01:08:08.857242 13579 net.cpp:434] pool2 <- conv2
I0508 01:08:08.857251 13579 net.cpp:408] pool2 -> pool2
I0508 01:08:08.857300 13579 net.cpp:150] Setting up pool2
I0508 01:08:08.857311 13579 net.cpp:157] Top shape: 1024 150 9 9 (12441600)
I0508 01:08:08.857316 13579 net.cpp:165] Memory required for data: 3945127936
I0508 01:08:08.857321 13579 layer_factory.hpp:77] Creating layer conv3
I0508 01:08:08.857336 13579 net.cpp:100] Creating Layer conv3
I0508 01:08:08.857341 13579 net.cpp:434] conv3 <- pool2
I0508 01:08:08.857349 13579 net.cpp:408] conv3 -> conv3
I0508 01:08:08.862061 13579 net.cpp:150] Setting up conv3
I0508 01:08:08.862081 13579 net.cpp:157] Top shape: 1024 250 6 6 (9216000)
I0508 01:08:08.862087 13579 net.cpp:165] Memory required for data: 3981991936
I0508 01:08:08.862103 13579 layer_factory.hpp:77] Creating layer conv3_prescale
I0508 01:08:08.862133 13579 net.cpp:100] Creating Layer conv3_prescale
I0508 01:08:08.862141 13579 net.cpp:434] conv3_prescale <- conv3
I0508 01:08:08.862150 13579 net.cpp:395] conv3_prescale -> conv3 (in-place)
I0508 01:08:08.862252 13579 net.cpp:150] Setting up conv3_prescale
I0508 01:08:08.862264 13579 net.cpp:157] Top shape: 1024 250 6 6 (9216000)
I0508 01:08:08.862269 13579 net.cpp:165] Memory required for data: 4018855936
I0508 01:08:08.862278 13579 layer_factory.hpp:77] Creating layer conv3_sTanH
I0508 01:08:08.862288 13579 net.cpp:100] Creating Layer conv3_sTanH
I0508 01:08:08.862295 13579 net.cpp:434] conv3_sTanH <- conv3
I0508 01:08:08.862304 13579 net.cpp:395] conv3_sTanH -> conv3 (in-place)
I0508 01:08:08.862489 13579 net.cpp:150] Setting up conv3_sTanH
I0508 01:08:08.862502 13579 net.cpp:157] Top shape: 1024 250 6 6 (9216000)
I0508 01:08:08.862507 13579 net.cpp:165] Memory required for data: 4055719936
I0508 01:08:08.862514 13579 layer_factory.hpp:77] Creating layer conv3_postscale
I0508 01:08:08.862524 13579 net.cpp:100] Creating Layer conv3_postscale
I0508 01:08:08.862531 13579 net.cpp:434] conv3_postscale <- conv3
I0508 01:08:08.862540 13579 net.cpp:395] conv3_postscale -> conv3 (in-place)
I0508 01:08:08.862640 13579 net.cpp:150] Setting up conv3_postscale
I0508 01:08:08.862651 13579 net.cpp:157] Top shape: 1024 250 6 6 (9216000)
I0508 01:08:08.862656 13579 net.cpp:165] Memory required for data: 4092583936
I0508 01:08:08.862664 13579 layer_factory.hpp:77] Creating layer pool3
I0508 01:08:08.862679 13579 net.cpp:100] Creating Layer pool3
I0508 01:08:08.862685 13579 net.cpp:434] pool3 <- conv3
I0508 01:08:08.862694 13579 net.cpp:408] pool3 -> pool3
I0508 01:08:08.862740 13579 net.cpp:150] Setting up pool3
I0508 01:08:08.862751 13579 net.cpp:157] Top shape: 1024 250 3 3 (2304000)
I0508 01:08:08.862756 13579 net.cpp:165] Memory required for data: 4101799936
I0508 01:08:08.862761 13579 layer_factory.hpp:77] Creating layer fc4_300
I0508 01:08:08.862772 13579 net.cpp:100] Creating Layer fc4_300
I0508 01:08:08.862778 13579 net.cpp:434] fc4_300 <- pool3
I0508 01:08:08.862787 13579 net.cpp:408] fc4_300 -> fc4_300
I0508 01:08:08.868180 13579 net.cpp:150] Setting up fc4_300
I0508 01:08:08.868198 13579 net.cpp:157] Top shape: 1024 300 (307200)
I0508 01:08:08.868204 13579 net.cpp:165] Memory required for data: 4103028736
I0508 01:08:08.868216 13579 layer_factory.hpp:77] Creating layer fc4_prescale
I0508 01:08:08.868229 13579 net.cpp:100] Creating Layer fc4_prescale
I0508 01:08:08.868238 13579 net.cpp:434] fc4_prescale <- fc4_300
I0508 01:08:08.868247 13579 net.cpp:395] fc4_prescale -> fc4_300 (in-place)
I0508 01:08:08.868346 13579 net.cpp:150] Setting up fc4_prescale
I0508 01:08:08.868357 13579 net.cpp:157] Top shape: 1024 300 (307200)
I0508 01:08:08.868362 13579 net.cpp:165] Memory required for data: 4104257536
I0508 01:08:08.868371 13579 layer_factory.hpp:77] Creating layer fc4_sTanH
I0508 01:08:08.868381 13579 net.cpp:100] Creating Layer fc4_sTanH
I0508 01:08:08.868387 13579 net.cpp:434] fc4_sTanH <- fc4_300
I0508 01:08:08.868396 13579 net.cpp:395] fc4_sTanH -> fc4_300 (in-place)
I0508 01:08:08.869148 13579 net.cpp:150] Setting up fc4_sTanH
I0508 01:08:08.869164 13579 net.cpp:157] Top shape: 1024 300 (307200)
I0508 01:08:08.869170 13579 net.cpp:165] Memory required for data: 4105486336
I0508 01:08:08.869176 13579 layer_factory.hpp:77] Creating layer fc4_postscale
I0508 01:08:08.869187 13579 net.cpp:100] Creating Layer fc4_postscale
I0508 01:08:08.869195 13579 net.cpp:434] fc4_postscale <- fc4_300
I0508 01:08:08.869204 13579 net.cpp:395] fc4_postscale -> fc4_300 (in-place)
I0508 01:08:08.869312 13579 net.cpp:150] Setting up fc4_postscale
I0508 01:08:08.869323 13579 net.cpp:157] Top shape: 1024 300 (307200)
I0508 01:08:08.869328 13579 net.cpp:165] Memory required for data: 4106715136
I0508 01:08:08.869336 13579 layer_factory.hpp:77] Creating layer fc5_116
I0508 01:08:08.869348 13579 net.cpp:100] Creating Layer fc5_116
I0508 01:08:08.869355 13579 net.cpp:434] fc5_116 <- fc4_300
I0508 01:08:08.869364 13579 net.cpp:408] fc5_116 -> fc5_classes
I0508 01:08:08.871181 13579 net.cpp:150] Setting up fc5_116
I0508 01:08:08.871197 13579 net.cpp:157] Top shape: 1024 116 (118784)
I0508 01:08:08.871203 13579 net.cpp:165] Memory required for data: 4107190272
I0508 01:08:08.871220 13579 layer_factory.hpp:77] Creating layer fc5_classes_fc5_116_0_split
I0508 01:08:08.871232 13579 net.cpp:100] Creating Layer fc5_classes_fc5_116_0_split
I0508 01:08:08.871240 13579 net.cpp:434] fc5_classes_fc5_116_0_split <- fc5_classes
I0508 01:08:08.871250 13579 net.cpp:408] fc5_classes_fc5_116_0_split -> fc5_classes_fc5_116_0_split_0
I0508 01:08:08.871264 13579 net.cpp:408] fc5_classes_fc5_116_0_split -> fc5_classes_fc5_116_0_split_1
I0508 01:08:08.871276 13579 net.cpp:408] fc5_classes_fc5_116_0_split -> fc5_classes_fc5_116_0_split_2
I0508 01:08:08.871335 13579 net.cpp:150] Setting up fc5_classes_fc5_116_0_split
I0508 01:08:08.871346 13579 net.cpp:157] Top shape: 1024 116 (118784)
I0508 01:08:08.871353 13579 net.cpp:157] Top shape: 1024 116 (118784)
I0508 01:08:08.871361 13579 net.cpp:157] Top shape: 1024 116 (118784)
I0508 01:08:08.871368 13579 net.cpp:165] Memory required for data: 4108615680
I0508 01:08:08.871374 13579 layer_factory.hpp:77] Creating layer softmax
I0508 01:08:08.871383 13579 net.cpp:100] Creating Layer softmax
I0508 01:08:08.871390 13579 net.cpp:434] softmax <- fc5_classes_fc5_116_0_split_0
I0508 01:08:08.871399 13579 net.cpp:408] softmax -> softmax
I0508 01:08:08.871651 13579 net.cpp:150] Setting up softmax
I0508 01:08:08.871666 13579 net.cpp:157] Top shape: 1024 116 (118784)
I0508 01:08:08.871671 13579 net.cpp:165] Memory required for data: 4109090816
I0508 01:08:08.871677 13579 layer_factory.hpp:77] Creating layer loss
I0508 01:08:08.871687 13579 net.cpp:100] Creating Layer loss
I0508 01:08:08.871695 13579 net.cpp:434] loss <- softmax
I0508 01:08:08.871702 13579 net.cpp:434] loss <- label_data_1_split_0
I0508 01:08:08.871712 13579 net.cpp:408] loss -> loss
…
