…
I0508 00:49:35.373172 32230 solver.cpp:93] Creating training net from train_net file: ./Prototxt/experiment_15/RTSD/orig/trial_1/train.prototxt
I0508 00:49:35.373636 32230 net.cpp:58] Initializing net from parameters: 
state {
  phase: TRAIN
  level: 0
  stage: ""
}
layer {
  name: "data"
  type: "Data"
  top: "data"
  top: "label"
  include {
    phase: TRAIN
  }
  transform_param {
    scale: 0.0039215689
    mirror: false
    crop_size: 48
    mean_value: 119
    mean_value: 113
    mean_value: 113
  }
  data_param {
    source: "../local_data/lmdb/RTSD/orig/train/lmdb"
    batch_size: 1024
    backend: LMDB
  }
}
layer {
  name: "conv1"
  type: "Convolution"
  bottom: "data"
  top: "conv1"
  convolution_param {
    num_output: 100
    pad: 0
    kernel_size: 7
    group: 1
    stride: 1
    weight_filler {
      type: "xavier"
    }
  }
}
layer {
  name: "conv1_prescale"
  type: "Scale"
  bottom: "conv1"
  top: "conv1"
  param {
    lr_mult: 0
    decay_mult: 0
  }
  scale_param {
    filler {
      value: 0.6666
    }
    bias_term: false
  }
}
layer {
  name: "conv1_sTanH"
  type: "TanH"
  bottom: "conv1"
  top: "conv1"
}
layer {
  name: "conv1_postscale"
  type: "Scale"
  bottom: "conv1"
  top: "conv1"
  param {
    lr_mult: 0
    decay_mult: 0
  }
  scale_param {
    filler {
      value: 1.7159
    }
    bias_term: false
  }
}
layer {
  name: "pool1"
  type: "Pooling"
  bottom: "conv1"
  top: "pool1"
  pooling_param {
    pool: MAX
    kernel_size: 2
    stride: 2
  }
}
layer {
  name: "conv2"
  type: "Convolution"
  bottom: "pool1"
  top: "conv2"
  convolution_param {
    num_output: 150
    pad: 0
    kernel_size: 4
    group: 2
    stride: 1
    weight_filler {
      type: "xavier"
    }
  }
}
layer {
  name: "conv2_prescale"
  type: "Scale"
  bottom: "conv2"
  top: "conv2"
  param {
    lr_mult: 0
    decay_mult: 0
  }
  scale_param {
    filler {
      value: 0.6666
    }
    bias_term: false
  }
}
layer {
  name: "conv2_sTanH"
  type: "TanH"
  bottom: "conv2"
  top: "conv2"
}
layer {
  name: "conv2_postscale"
  type: "Scale"
  bottom: "conv2"
  top: "conv2"
  param {
    lr_mult: 0
    decay_mult: 0
  }
  scale_param {
    filler {
      value: 1.7159
    }
    bias_term: false
  }
}
layer {
  name: "pool2"
  type: "Pooling"
  bottom: "conv2"
  top: "pool2"
  pooling_param {
    pool: MAX
    kernel_size: 2
    stride: 2
  }
}
layer {
  name: "conv3"
  type: "Convolution"
  bottom: "pool2"
  top: "conv3"
  convolution_param {
    num_output: 250
    pad: 0
    kernel_size: 4
    group: 2
    stride: 1
    weight_filler {
      type: "xavier"
    }
  }
}
layer {
  name: "conv3_prescale"
  type: "Scale"
  bottom: "conv3"
  top: "conv3"
  param {
    lr_mult: 0
    decay_mult: 0
  }
  scale_param {
    filler {
      value: 0.6666
    }
    bias_term: false
  }
}
layer {
  name: "conv3_sTanH"
  type: "TanH"
  bottom: "conv3"
  top: "conv3"
}
layer {
  name: "conv3_postscale"
  type: "Scale"
  bottom: "conv3"
  top: "conv3"
  param {
    lr_mult: 0
    decay_mult: 0
  }
  scale_param {
    filler {
      value: 1.7159
    }
    bias_term: false
  }
}
layer {
  name: "pool3"
  type: "Pooling"
  bottom: "conv3"
  top: "pool3"
  pooling_param {
    pool: MAX
    kernel_size: 2
    stride: 2
  }
}
layer {
  name: "fc4_300"
  type: "InnerProduct"
  bottom: "pool3"
  top: "fc4_300"
  inner_product_param {
    num_output: 300
    weight_filler {
      type: "xavier"
    }
  }
}
layer {
  name: "fc4_prescale"
  type: "Scale"
  bottom: "fc4_300"
  top: "fc4_300"
  param {
    lr_mult: 0
    decay_mult: 0
  }
  scale_param {
    filler {
      value: 0.6666
    }
    bias_term: false
  }
}
layer {
  name: "fc4_sTanH"
  type: "TanH"
  bottom: "fc4_300"
  top: "fc4_300"
}
layer {
  name: "fc4_postscale"
  type: "Scale"
  bottom: "fc4_300"
  top: "fc4_300"
  param {
    lr_mult: 0
    decay_mult: 0
  }
  scale_param {
    filler {
      value: 1.7159
    }
    bias_term: false
  }
}
layer {
  name: "fc5_116"
  type: "InnerProduct"
  bottom: "fc4_300"
  top: "fc5_classes"
  inner_product_param {
    num_output: 116
    weight_filler {
      type: "xavier"
    }
  }
}
layer {
  name: "softmax"
  type: "Softmax"
  bottom: "fc5_classes"
  top: "softmax"
}
layer {
  name: "loss"
  type: "MultinomialLogisticLoss"
  bottom: "softmax"
  bottom: "label"
  top: "loss"
}
layer {
  name: "accuracy_1"
  type: "Accuracy"
  bottom: "fc5_classes"
  bottom: "label"
  top: "accuracy_1"
  accuracy_param {
    top_k: 1
  }
}
layer {
  name: "accuracy_5"
  type: "Accuracy"
  bottom: "fc5_classes"
  bottom: "label"
  top: "accuracy_5"
  accuracy_param {
    top_k: 5
  }
}
layer {
  name: "silence"
  type: "Silence"
  bottom: "accuracy_1"
  bottom: "accuracy_5"
}
I0508 00:49:35.373790 32230 layer_factory.hpp:77] Creating layer data
I0508 00:49:35.374861 32230 net.cpp:100] Creating Layer data
I0508 00:49:35.374876 32230 net.cpp:408] data -> data
I0508 00:49:35.374899 32230 net.cpp:408] data -> label
I0508 00:49:35.378237 32339 db_lmdb.cpp:35] Opened lmdb ../local_data/lmdb/RTSD/orig/train/lmdb
I0508 00:49:35.395030 32230 data_layer.cpp:41] output data size: 1024,3,48,48
I0508 00:49:35.454169 32230 net.cpp:150] Setting up data
I0508 00:49:35.454198 32230 net.cpp:157] Top shape: 1024 3 48 48 (7077888)
I0508 00:49:35.454205 32230 net.cpp:157] Top shape: 1024 (1024)
I0508 00:49:35.454207 32230 net.cpp:165] Memory required for data: 28315648
I0508 00:49:35.454219 32230 layer_factory.hpp:77] Creating layer label_data_1_split
I0508 00:49:35.454234 32230 net.cpp:100] Creating Layer label_data_1_split
I0508 00:49:35.454242 32230 net.cpp:434] label_data_1_split <- label
I0508 00:49:35.454258 32230 net.cpp:408] label_data_1_split -> label_data_1_split_0
I0508 00:49:35.454272 32230 net.cpp:408] label_data_1_split -> label_data_1_split_1
I0508 00:49:35.454279 32230 net.cpp:408] label_data_1_split -> label_data_1_split_2
I0508 00:49:35.454346 32230 net.cpp:150] Setting up label_data_1_split
I0508 00:49:35.454355 32230 net.cpp:157] Top shape: 1024 (1024)
I0508 00:49:35.454358 32230 net.cpp:157] Top shape: 1024 (1024)
I0508 00:49:35.454362 32230 net.cpp:157] Top shape: 1024 (1024)
I0508 00:49:35.454365 32230 net.cpp:165] Memory required for data: 28327936
I0508 00:49:35.454368 32230 layer_factory.hpp:77] Creating layer conv1
I0508 00:49:35.454385 32230 net.cpp:100] Creating Layer conv1
I0508 00:49:35.454391 32230 net.cpp:434] conv1 <- data
I0508 00:49:35.454398 32230 net.cpp:408] conv1 -> conv1
I0508 00:49:35.793370 32230 net.cpp:150] Setting up conv1
I0508 00:49:35.793397 32230 net.cpp:157] Top shape: 1024 100 42 42 (180633600)
I0508 00:49:35.793401 32230 net.cpp:165] Memory required for data: 750862336
I0508 00:49:35.793426 32230 layer_factory.hpp:77] Creating layer conv1_prescale
I0508 00:49:35.793437 32230 net.cpp:100] Creating Layer conv1_prescale
I0508 00:49:35.793442 32230 net.cpp:434] conv1_prescale <- conv1
I0508 00:49:35.793448 32230 net.cpp:395] conv1_prescale -> conv1 (in-place)
I0508 00:49:35.793555 32230 net.cpp:150] Setting up conv1_prescale
I0508 00:49:35.793565 32230 net.cpp:157] Top shape: 1024 100 42 42 (180633600)
I0508 00:49:35.793567 32230 net.cpp:165] Memory required for data: 1473396736
I0508 00:49:35.793575 32230 layer_factory.hpp:77] Creating layer conv1_sTanH
I0508 00:49:35.793581 32230 net.cpp:100] Creating Layer conv1_sTanH
I0508 00:49:35.793586 32230 net.cpp:434] conv1_sTanH <- conv1
I0508 00:49:35.793591 32230 net.cpp:395] conv1_sTanH -> conv1 (in-place)
I0508 00:49:35.793781 32230 net.cpp:150] Setting up conv1_sTanH
I0508 00:49:35.793793 32230 net.cpp:157] Top shape: 1024 100 42 42 (180633600)
I0508 00:49:35.793818 32230 net.cpp:165] Memory required for data: 2195931136
I0508 00:49:35.793823 32230 layer_factory.hpp:77] Creating layer conv1_postscale
I0508 00:49:35.793830 32230 net.cpp:100] Creating Layer conv1_postscale
I0508 00:49:35.793834 32230 net.cpp:434] conv1_postscale <- conv1
I0508 00:49:35.793840 32230 net.cpp:395] conv1_postscale -> conv1 (in-place)
I0508 00:49:35.793934 32230 net.cpp:150] Setting up conv1_postscale
I0508 00:49:35.793942 32230 net.cpp:157] Top shape: 1024 100 42 42 (180633600)
I0508 00:49:35.793946 32230 net.cpp:165] Memory required for data: 2918465536
I0508 00:49:35.793951 32230 layer_factory.hpp:77] Creating layer pool1
I0508 00:49:35.793957 32230 net.cpp:100] Creating Layer pool1
I0508 00:49:35.793962 32230 net.cpp:434] pool1 <- conv1
I0508 00:49:35.793967 32230 net.cpp:408] pool1 -> pool1
I0508 00:49:35.794018 32230 net.cpp:150] Setting up pool1
I0508 00:49:35.794026 32230 net.cpp:157] Top shape: 1024 100 21 21 (45158400)
I0508 00:49:35.794030 32230 net.cpp:165] Memory required for data: 3099099136
I0508 00:49:35.794034 32230 layer_factory.hpp:77] Creating layer conv2
I0508 00:49:35.794044 32230 net.cpp:100] Creating Layer conv2
I0508 00:49:35.794047 32230 net.cpp:434] conv2 <- pool1
I0508 00:49:35.794054 32230 net.cpp:408] conv2 -> conv2
I0508 00:49:35.810565 32230 net.cpp:150] Setting up conv2
I0508 00:49:35.810587 32230 net.cpp:157] Top shape: 1024 150 18 18 (49766400)
I0508 00:49:35.810591 32230 net.cpp:165] Memory required for data: 3298164736
I0508 00:49:35.810602 32230 layer_factory.hpp:77] Creating layer conv2_prescale
I0508 00:49:35.810616 32230 net.cpp:100] Creating Layer conv2_prescale
I0508 00:49:35.810619 32230 net.cpp:434] conv2_prescale <- conv2
I0508 00:49:35.810626 32230 net.cpp:395] conv2_prescale -> conv2 (in-place)
I0508 00:49:35.810729 32230 net.cpp:150] Setting up conv2_prescale
I0508 00:49:35.810739 32230 net.cpp:157] Top shape: 1024 150 18 18 (49766400)
I0508 00:49:35.810741 32230 net.cpp:165] Memory required for data: 3497230336
I0508 00:49:35.810746 32230 layer_factory.hpp:77] Creating layer conv2_sTanH
I0508 00:49:35.810753 32230 net.cpp:100] Creating Layer conv2_sTanH
I0508 00:49:35.810758 32230 net.cpp:434] conv2_sTanH <- conv2
I0508 00:49:35.810762 32230 net.cpp:395] conv2_sTanH -> conv2 (in-place)
I0508 00:49:35.810947 32230 net.cpp:150] Setting up conv2_sTanH
I0508 00:49:35.810958 32230 net.cpp:157] Top shape: 1024 150 18 18 (49766400)
I0508 00:49:35.810961 32230 net.cpp:165] Memory required for data: 3696295936
I0508 00:49:35.810964 32230 layer_factory.hpp:77] Creating layer conv2_postscale
I0508 00:49:35.810972 32230 net.cpp:100] Creating Layer conv2_postscale
I0508 00:49:35.810977 32230 net.cpp:434] conv2_postscale <- conv2
I0508 00:49:35.810982 32230 net.cpp:395] conv2_postscale -> conv2 (in-place)
I0508 00:49:35.811077 32230 net.cpp:150] Setting up conv2_postscale
I0508 00:49:35.811085 32230 net.cpp:157] Top shape: 1024 150 18 18 (49766400)
I0508 00:49:35.811089 32230 net.cpp:165] Memory required for data: 3895361536
I0508 00:49:35.811094 32230 layer_factory.hpp:77] Creating layer pool2
I0508 00:49:35.811100 32230 net.cpp:100] Creating Layer pool2
I0508 00:49:35.811102 32230 net.cpp:434] pool2 <- conv2
I0508 00:49:35.811108 32230 net.cpp:408] pool2 -> pool2
I0508 00:49:35.811151 32230 net.cpp:150] Setting up pool2
I0508 00:49:35.811158 32230 net.cpp:157] Top shape: 1024 150 9 9 (12441600)
I0508 00:49:35.811161 32230 net.cpp:165] Memory required for data: 3945127936
I0508 00:49:35.811164 32230 layer_factory.hpp:77] Creating layer conv3
I0508 00:49:35.811174 32230 net.cpp:100] Creating Layer conv3
I0508 00:49:35.811179 32230 net.cpp:434] conv3 <- pool2
I0508 00:49:35.811184 32230 net.cpp:408] conv3 -> conv3
I0508 00:49:35.815457 32230 net.cpp:150] Setting up conv3
I0508 00:49:35.815475 32230 net.cpp:157] Top shape: 1024 250 6 6 (9216000)
I0508 00:49:35.815479 32230 net.cpp:165] Memory required for data: 3981991936
I0508 00:49:35.815490 32230 layer_factory.hpp:77] Creating layer conv3_prescale
I0508 00:49:35.815521 32230 net.cpp:100] Creating Layer conv3_prescale
I0508 00:49:35.815531 32230 net.cpp:434] conv3_prescale <- conv3
I0508 00:49:35.815536 32230 net.cpp:395] conv3_prescale -> conv3 (in-place)
I0508 00:49:35.815634 32230 net.cpp:150] Setting up conv3_prescale
I0508 00:49:35.815642 32230 net.cpp:157] Top shape: 1024 250 6 6 (9216000)
I0508 00:49:35.815645 32230 net.cpp:165] Memory required for data: 4018855936
I0508 00:49:35.815650 32230 layer_factory.hpp:77] Creating layer conv3_sTanH
I0508 00:49:35.815656 32230 net.cpp:100] Creating Layer conv3_sTanH
I0508 00:49:35.815659 32230 net.cpp:434] conv3_sTanH <- conv3
I0508 00:49:35.815665 32230 net.cpp:395] conv3_sTanH -> conv3 (in-place)
I0508 00:49:35.815848 32230 net.cpp:150] Setting up conv3_sTanH
I0508 00:49:35.815858 32230 net.cpp:157] Top shape: 1024 250 6 6 (9216000)
I0508 00:49:35.815861 32230 net.cpp:165] Memory required for data: 4055719936
I0508 00:49:35.815865 32230 layer_factory.hpp:77] Creating layer conv3_postscale
I0508 00:49:35.815872 32230 net.cpp:100] Creating Layer conv3_postscale
I0508 00:49:35.815886 32230 net.cpp:434] conv3_postscale <- conv3
I0508 00:49:35.815892 32230 net.cpp:395] conv3_postscale -> conv3 (in-place)
I0508 00:49:35.815989 32230 net.cpp:150] Setting up conv3_postscale
I0508 00:49:35.815996 32230 net.cpp:157] Top shape: 1024 250 6 6 (9216000)
I0508 00:49:35.815999 32230 net.cpp:165] Memory required for data: 4092583936
I0508 00:49:35.816004 32230 layer_factory.hpp:77] Creating layer pool3
I0508 00:49:35.816014 32230 net.cpp:100] Creating Layer pool3
I0508 00:49:35.816018 32230 net.cpp:434] pool3 <- conv3
I0508 00:49:35.816023 32230 net.cpp:408] pool3 -> pool3
I0508 00:49:35.816064 32230 net.cpp:150] Setting up pool3
I0508 00:49:35.816071 32230 net.cpp:157] Top shape: 1024 250 3 3 (2304000)
I0508 00:49:35.816074 32230 net.cpp:165] Memory required for data: 4101799936
I0508 00:49:35.816077 32230 layer_factory.hpp:77] Creating layer fc4_300
I0508 00:49:35.816085 32230 net.cpp:100] Creating Layer fc4_300
I0508 00:49:35.816090 32230 net.cpp:434] fc4_300 <- pool3
I0508 00:49:35.816095 32230 net.cpp:408] fc4_300 -> fc4_300
I0508 00:49:35.821560 32230 net.cpp:150] Setting up fc4_300
I0508 00:49:35.821586 32230 net.cpp:157] Top shape: 1024 300 (307200)
I0508 00:49:35.821590 32230 net.cpp:165] Memory required for data: 4103028736
I0508 00:49:35.821599 32230 layer_factory.hpp:77] Creating layer fc4_prescale
I0508 00:49:35.821609 32230 net.cpp:100] Creating Layer fc4_prescale
I0508 00:49:35.821614 32230 net.cpp:434] fc4_prescale <- fc4_300
I0508 00:49:35.821624 32230 net.cpp:395] fc4_prescale -> fc4_300 (in-place)
I0508 00:49:35.821718 32230 net.cpp:150] Setting up fc4_prescale
I0508 00:49:35.821727 32230 net.cpp:157] Top shape: 1024 300 (307200)
I0508 00:49:35.821729 32230 net.cpp:165] Memory required for data: 4104257536
I0508 00:49:35.821733 32230 layer_factory.hpp:77] Creating layer fc4_sTanH
I0508 00:49:35.821739 32230 net.cpp:100] Creating Layer fc4_sTanH
I0508 00:49:35.821743 32230 net.cpp:434] fc4_sTanH <- fc4_300
I0508 00:49:35.821748 32230 net.cpp:395] fc4_sTanH -> fc4_300 (in-place)
I0508 00:49:35.824401 32230 net.cpp:150] Setting up fc4_sTanH
I0508 00:49:35.824417 32230 net.cpp:157] Top shape: 1024 300 (307200)
I0508 00:49:35.824421 32230 net.cpp:165] Memory required for data: 4105486336
I0508 00:49:35.824426 32230 layer_factory.hpp:77] Creating layer fc4_postscale
I0508 00:49:35.824434 32230 net.cpp:100] Creating Layer fc4_postscale
I0508 00:49:35.824439 32230 net.cpp:434] fc4_postscale <- fc4_300
I0508 00:49:35.824445 32230 net.cpp:395] fc4_postscale -> fc4_300 (in-place)
I0508 00:49:35.824558 32230 net.cpp:150] Setting up fc4_postscale
I0508 00:49:35.824568 32230 net.cpp:157] Top shape: 1024 300 (307200)
I0508 00:49:35.824569 32230 net.cpp:165] Memory required for data: 4106715136
I0508 00:49:35.824574 32230 layer_factory.hpp:77] Creating layer fc5_116
I0508 00:49:35.824581 32230 net.cpp:100] Creating Layer fc5_116
I0508 00:49:35.824584 32230 net.cpp:434] fc5_116 <- fc4_300
I0508 00:49:35.824591 32230 net.cpp:408] fc5_116 -> fc5_classes
I0508 00:49:35.826239 32230 net.cpp:150] Setting up fc5_116
I0508 00:49:35.826254 32230 net.cpp:157] Top shape: 1024 116 (118784)
I0508 00:49:35.826258 32230 net.cpp:165] Memory required for data: 4107190272
I0508 00:49:35.826273 32230 layer_factory.hpp:77] Creating layer fc5_classes_fc5_116_0_split
I0508 00:49:35.826282 32230 net.cpp:100] Creating Layer fc5_classes_fc5_116_0_split
I0508 00:49:35.826285 32230 net.cpp:434] fc5_classes_fc5_116_0_split <- fc5_classes
I0508 00:49:35.826290 32230 net.cpp:408] fc5_classes_fc5_116_0_split -> fc5_classes_fc5_116_0_split_0
I0508 00:49:35.826298 32230 net.cpp:408] fc5_classes_fc5_116_0_split -> fc5_classes_fc5_116_0_split_1
I0508 00:49:35.826310 32230 net.cpp:408] fc5_classes_fc5_116_0_split -> fc5_classes_fc5_116_0_split_2
I0508 00:49:35.826364 32230 net.cpp:150] Setting up fc5_classes_fc5_116_0_split
I0508 00:49:35.826372 32230 net.cpp:157] Top shape: 1024 116 (118784)
I0508 00:49:35.826375 32230 net.cpp:157] Top shape: 1024 116 (118784)
I0508 00:49:35.826380 32230 net.cpp:157] Top shape: 1024 116 (118784)
I0508 00:49:35.826382 32230 net.cpp:165] Memory required for data: 4108615680
I0508 00:49:35.826385 32230 layer_factory.hpp:77] Creating layer softmax
I0508 00:49:35.826391 32230 net.cpp:100] Creating Layer softmax
I0508 00:49:35.826395 32230 net.cpp:434] softmax <- fc5_classes_fc5_116_0_split_0
I0508 00:49:35.826400 32230 net.cpp:408] softmax -> softmax
I0508 00:49:35.826654 32230 net.cpp:150] Setting up softmax
I0508 00:49:35.826668 32230 net.cpp:157] Top shape: 1024 116 (118784)
I0508 00:49:35.826670 32230 net.cpp:165] Memory required for data: 4109090816
I0508 00:49:35.826674 32230 layer_factory.hpp:77] Creating layer loss
I0508 00:49:35.826680 32230 net.cpp:100] Creating Layer loss
I0508 00:49:35.826683 32230 net.cpp:434] loss <- softmax
I0508 00:49:35.826689 32230 net.cpp:434] loss <- label_data_1_split_0
I0508 00:49:35.826692 32230 net.cpp:408] loss -> loss
…
