…
I0508 00:46:37.162148 13487 solver.cpp:93] Creating training net from train_net file: ./Prototxt/experiment_15/RTSD/orig/trial_1/train.prototxt
I0508 00:46:37.162608 13487 net.cpp:58] Initializing net from parameters: 
state {
  phase: TRAIN
  level: 0
  stage: ""
}
layer {
  name: "data"
  type: "Data"
  top: "data"
  top: "label"
  include {
    phase: TRAIN
  }
  transform_param {
    scale: 0.0039215689
    mirror: false
    crop_size: 48
    mean_value: 119
    mean_value: 113
    mean_value: 113
  }
  data_param {
    source: "../local_data/lmdb/RTSD/orig/train/lmdb"
    batch_size: 512
    backend: LMDB
  }
}
layer {
  name: "conv1"
  type: "Convolution"
  bottom: "data"
  top: "conv1"
  convolution_param {
    num_output: 100
    pad: 0
    kernel_size: 7
    group: 1
    stride: 1
    weight_filler {
      type: "xavier"
    }
  }
}
layer {
  name: "conv1_prescale"
  type: "Scale"
  bottom: "conv1"
  top: "conv1"
  param {
    lr_mult: 0
    decay_mult: 0
  }
  scale_param {
    filler {
      value: 0.6666
    }
    bias_term: false
  }
}
layer {
  name: "conv1_sTanH"
  type: "TanH"
  bottom: "conv1"
  top: "conv1"
}
layer {
  name: "conv1_postscale"
  type: "Scale"
  bottom: "conv1"
  top: "conv1"
  param {
    lr_mult: 0
    decay_mult: 0
  }
  scale_param {
    filler {
      value: 1.7159
    }
    bias_term: false
  }
}
layer {
  name: "pool1"
  type: "Pooling"
  bottom: "conv1"
  top: "pool1"
  pooling_param {
    pool: MAX
    kernel_size: 2
    stride: 2
  }
}
layer {
  name: "conv2"
  type: "Convolution"
  bottom: "pool1"
  top: "conv2"
  convolution_param {
    num_output: 150
    pad: 0
    kernel_size: 4
    group: 2
    stride: 1
    weight_filler {
      type: "xavier"
    }
  }
}
layer {
  name: "conv2_prescale"
  type: "Scale"
  bottom: "conv2"
  top: "conv2"
  param {
    lr_mult: 0
    decay_mult: 0
  }
  scale_param {
    filler {
      value: 0.6666
    }
    bias_term: false
  }
}
layer {
  name: "conv2_sTanH"
  type: "TanH"
  bottom: "conv2"
  top: "conv2"
}
layer {
  name: "conv2_postscale"
  type: "Scale"
  bottom: "conv2"
  top: "conv2"
  param {
    lr_mult: 0
    decay_mult: 0
  }
  scale_param {
    filler {
      value: 1.7159
    }
    bias_term: false
  }
}
layer {
  name: "pool2"
  type: "Pooling"
  bottom: "conv2"
  top: "pool2"
  pooling_param {
    pool: MAX
    kernel_size: 2
    stride: 2
  }
}
layer {
  name: "conv3"
  type: "Convolution"
  bottom: "pool2"
  top: "conv3"
  convolution_param {
    num_output: 250
    pad: 0
    kernel_size: 4
    group: 2
    stride: 1
    weight_filler {
      type: "xavier"
    }
  }
}
layer {
  name: "conv3_prescale"
  type: "Scale"
  bottom: "conv3"
  top: "conv3"
  param {
    lr_mult: 0
    decay_mult: 0
  }
  scale_param {
    filler {
      value: 0.6666
    }
    bias_term: false
  }
}
layer {
  name: "conv3_sTanH"
  type: "TanH"
  bottom: "conv3"
  top: "conv3"
}
layer {
  name: "conv3_postscale"
  type: "Scale"
  bottom: "conv3"
  top: "conv3"
  param {
    lr_mult: 0
    decay_mult: 0
  }
  scale_param {
    filler {
      value: 1.7159
    }
    bias_term: false
  }
}
layer {
  name: "pool3"
  type: "Pooling"
  bottom: "conv3"
  top: "pool3"
  pooling_param {
    pool: MAX
    kernel_size: 2
    stride: 2
  }
}
layer {
  name: "fc4_300"
  type: "InnerProduct"
  bottom: "pool3"
  top: "fc4_300"
  inner_product_param {
    num_output: 300
    weight_filler {
      type: "xavier"
    }
  }
}
layer {
  name: "fc4_prescale"
  type: "Scale"
  bottom: "fc4_300"
  top: "fc4_300"
  param {
    lr_mult: 0
    decay_mult: 0
  }
  scale_param {
    filler {
      value: 0.6666
    }
    bias_term: false
  }
}
layer {
  name: "fc4_sTanH"
  type: "TanH"
  bottom: "fc4_300"
  top: "fc4_300"
}
layer {
  name: "fc4_postscale"
  type: "Scale"
  bottom: "fc4_300"
  top: "fc4_300"
  param {
    lr_mult: 0
    decay_mult: 0
  }
  scale_param {
    filler {
      value: 1.7159
    }
    bias_term: false
  }
}
layer {
  name: "fc5_116"
  type: "InnerProduct"
  bottom: "fc4_300"
  top: "fc5_classes"
  inner_product_param {
    num_output: 116
    weight_filler {
      type: "xavier"
    }
  }
}
layer {
  name: "softmax"
  type: "Softmax"
  bottom: "fc5_classes"
  top: "softmax"
}
layer {
  name: "loss"
  type: "MultinomialLogisticLoss"
  bottom: "softmax"
  bottom: "label"
  top: "loss"
}
layer {
  name: "accuracy_1"
  type: "Accuracy"
  bottom: "fc5_classes"
  bottom: "label"
  top: "accuracy_1"
  accuracy_param {
    top_k: 1
  }
}
layer {
  name: "accuracy_5"
  type: "Accuracy"
  bottom: "fc5_classes"
  bottom: "label"
  top: "accuracy_5"
  accuracy_param {
    top_k: 5
  }
}
layer {
  name: "silence"
  type: "Silence"
  bottom: "accuracy_1"
  bottom: "accuracy_5"
}
I0508 00:46:37.162806 13487 layer_factory.hpp:77] Creating layer data
I0508 00:46:37.163592 13487 net.cpp:100] Creating Layer data
I0508 00:46:37.163607 13487 net.cpp:408] data -> data
I0508 00:46:37.163630 13487 net.cpp:408] data -> label
I0508 00:46:37.169622 13600 db_lmdb.cpp:35] Opened lmdb ../local_data/lmdb/RTSD/orig/train/lmdb
I0508 00:46:37.187410 13487 data_layer.cpp:41] output data size: 512,3,48,48
I0508 00:46:37.227139 13487 net.cpp:150] Setting up data
I0508 00:46:37.227169 13487 net.cpp:157] Top shape: 512 3 48 48 (3538944)
I0508 00:46:37.227175 13487 net.cpp:157] Top shape: 512 (512)
I0508 00:46:37.227179 13487 net.cpp:165] Memory required for data: 14157824
I0508 00:46:37.227196 13487 layer_factory.hpp:77] Creating layer label_data_1_split
I0508 00:46:37.227214 13487 net.cpp:100] Creating Layer label_data_1_split
I0508 00:46:37.227226 13487 net.cpp:434] label_data_1_split <- label
I0508 00:46:37.227247 13487 net.cpp:408] label_data_1_split -> label_data_1_split_0
I0508 00:46:37.227263 13487 net.cpp:408] label_data_1_split -> label_data_1_split_1
I0508 00:46:37.227273 13487 net.cpp:408] label_data_1_split -> label_data_1_split_2
I0508 00:46:37.227345 13487 net.cpp:150] Setting up label_data_1_split
I0508 00:46:37.227355 13487 net.cpp:157] Top shape: 512 (512)
I0508 00:46:37.227362 13487 net.cpp:157] Top shape: 512 (512)
I0508 00:46:37.227370 13487 net.cpp:157] Top shape: 512 (512)
I0508 00:46:37.227376 13487 net.cpp:165] Memory required for data: 14163968
I0508 00:46:37.227381 13487 layer_factory.hpp:77] Creating layer conv1
I0508 00:46:37.227403 13487 net.cpp:100] Creating Layer conv1
I0508 00:46:37.227409 13487 net.cpp:434] conv1 <- data
I0508 00:46:37.227419 13487 net.cpp:408] conv1 -> conv1
I0508 00:46:37.568702 13487 net.cpp:150] Setting up conv1
I0508 00:46:37.568733 13487 net.cpp:157] Top shape: 512 100 42 42 (90316800)
I0508 00:46:37.568738 13487 net.cpp:165] Memory required for data: 375431168
I0508 00:46:37.568759 13487 layer_factory.hpp:77] Creating layer conv1_prescale
I0508 00:46:37.568774 13487 net.cpp:100] Creating Layer conv1_prescale
I0508 00:46:37.568780 13487 net.cpp:434] conv1_prescale <- conv1
I0508 00:46:37.568787 13487 net.cpp:395] conv1_prescale -> conv1 (in-place)
I0508 00:46:37.568899 13487 net.cpp:150] Setting up conv1_prescale
I0508 00:46:37.568909 13487 net.cpp:157] Top shape: 512 100 42 42 (90316800)
I0508 00:46:37.568912 13487 net.cpp:165] Memory required for data: 736698368
I0508 00:46:37.568919 13487 layer_factory.hpp:77] Creating layer conv1_sTanH
I0508 00:46:37.568929 13487 net.cpp:100] Creating Layer conv1_sTanH
I0508 00:46:37.568934 13487 net.cpp:434] conv1_sTanH <- conv1
I0508 00:46:37.568939 13487 net.cpp:395] conv1_sTanH -> conv1 (in-place)
I0508 00:46:37.569139 13487 net.cpp:150] Setting up conv1_sTanH
I0508 00:46:37.569151 13487 net.cpp:157] Top shape: 512 100 42 42 (90316800)
I0508 00:46:37.569172 13487 net.cpp:165] Memory required for data: 1097965568
I0508 00:46:37.569176 13487 layer_factory.hpp:77] Creating layer conv1_postscale
I0508 00:46:37.569185 13487 net.cpp:100] Creating Layer conv1_postscale
I0508 00:46:37.569188 13487 net.cpp:434] conv1_postscale <- conv1
I0508 00:46:37.569195 13487 net.cpp:395] conv1_postscale -> conv1 (in-place)
I0508 00:46:37.569288 13487 net.cpp:150] Setting up conv1_postscale
I0508 00:46:37.569296 13487 net.cpp:157] Top shape: 512 100 42 42 (90316800)
I0508 00:46:37.569299 13487 net.cpp:165] Memory required for data: 1459232768
I0508 00:46:37.569305 13487 layer_factory.hpp:77] Creating layer pool1
I0508 00:46:37.569313 13487 net.cpp:100] Creating Layer pool1
I0508 00:46:37.569317 13487 net.cpp:434] pool1 <- conv1
I0508 00:46:37.569322 13487 net.cpp:408] pool1 -> pool1
I0508 00:46:37.569370 13487 net.cpp:150] Setting up pool1
I0508 00:46:37.569377 13487 net.cpp:157] Top shape: 512 100 21 21 (22579200)
I0508 00:46:37.569380 13487 net.cpp:165] Memory required for data: 1549549568
I0508 00:46:37.569384 13487 layer_factory.hpp:77] Creating layer conv2
I0508 00:46:37.569393 13487 net.cpp:100] Creating Layer conv2
I0508 00:46:37.569398 13487 net.cpp:434] conv2 <- pool1
I0508 00:46:37.569404 13487 net.cpp:408] conv2 -> conv2
I0508 00:46:37.574133 13487 net.cpp:150] Setting up conv2
I0508 00:46:37.574151 13487 net.cpp:157] Top shape: 512 150 18 18 (24883200)
I0508 00:46:37.574154 13487 net.cpp:165] Memory required for data: 1649082368
I0508 00:46:37.574165 13487 layer_factory.hpp:77] Creating layer conv2_prescale
I0508 00:46:37.574177 13487 net.cpp:100] Creating Layer conv2_prescale
I0508 00:46:37.574183 13487 net.cpp:434] conv2_prescale <- conv2
I0508 00:46:37.574189 13487 net.cpp:395] conv2_prescale -> conv2 (in-place)
I0508 00:46:37.574292 13487 net.cpp:150] Setting up conv2_prescale
I0508 00:46:37.574302 13487 net.cpp:157] Top shape: 512 150 18 18 (24883200)
I0508 00:46:37.574306 13487 net.cpp:165] Memory required for data: 1748615168
I0508 00:46:37.574311 13487 layer_factory.hpp:77] Creating layer conv2_sTanH
I0508 00:46:37.574316 13487 net.cpp:100] Creating Layer conv2_sTanH
I0508 00:46:37.574319 13487 net.cpp:434] conv2_sTanH <- conv2
I0508 00:46:37.574326 13487 net.cpp:395] conv2_sTanH -> conv2 (in-place)
I0508 00:46:37.574519 13487 net.cpp:150] Setting up conv2_sTanH
I0508 00:46:37.574532 13487 net.cpp:157] Top shape: 512 150 18 18 (24883200)
I0508 00:46:37.574537 13487 net.cpp:165] Memory required for data: 1848147968
I0508 00:46:37.574540 13487 layer_factory.hpp:77] Creating layer conv2_postscale
I0508 00:46:37.574548 13487 net.cpp:100] Creating Layer conv2_postscale
I0508 00:46:37.574553 13487 net.cpp:434] conv2_postscale <- conv2
I0508 00:46:37.574558 13487 net.cpp:395] conv2_postscale -> conv2 (in-place)
I0508 00:46:37.574656 13487 net.cpp:150] Setting up conv2_postscale
I0508 00:46:37.574663 13487 net.cpp:157] Top shape: 512 150 18 18 (24883200)
I0508 00:46:37.574666 13487 net.cpp:165] Memory required for data: 1947680768
I0508 00:46:37.574671 13487 layer_factory.hpp:77] Creating layer pool2
I0508 00:46:37.574679 13487 net.cpp:100] Creating Layer pool2
I0508 00:46:37.574684 13487 net.cpp:434] pool2 <- conv2
I0508 00:46:37.574690 13487 net.cpp:408] pool2 -> pool2
I0508 00:46:37.574733 13487 net.cpp:150] Setting up pool2
I0508 00:46:37.574743 13487 net.cpp:157] Top shape: 512 150 9 9 (6220800)
I0508 00:46:37.574748 13487 net.cpp:165] Memory required for data: 1972563968
I0508 00:46:37.574750 13487 layer_factory.hpp:77] Creating layer conv3
I0508 00:46:37.574759 13487 net.cpp:100] Creating Layer conv3
I0508 00:46:37.574762 13487 net.cpp:434] conv3 <- pool2
I0508 00:46:37.574772 13487 net.cpp:408] conv3 -> conv3
I0508 00:46:37.579711 13487 net.cpp:150] Setting up conv3
I0508 00:46:37.579730 13487 net.cpp:157] Top shape: 512 250 6 6 (4608000)
I0508 00:46:37.579735 13487 net.cpp:165] Memory required for data: 1990995968
I0508 00:46:37.579746 13487 layer_factory.hpp:77] Creating layer conv3_prescale
I0508 00:46:37.579754 13487 net.cpp:100] Creating Layer conv3_prescale
I0508 00:46:37.579774 13487 net.cpp:434] conv3_prescale <- conv3
I0508 00:46:37.579783 13487 net.cpp:395] conv3_prescale -> conv3 (in-place)
I0508 00:46:37.579895 13487 net.cpp:150] Setting up conv3_prescale
I0508 00:46:37.579906 13487 net.cpp:157] Top shape: 512 250 6 6 (4608000)
I0508 00:46:37.579910 13487 net.cpp:165] Memory required for data: 2009427968
I0508 00:46:37.579916 13487 layer_factory.hpp:77] Creating layer conv3_sTanH
I0508 00:46:37.579923 13487 net.cpp:100] Creating Layer conv3_sTanH
I0508 00:46:37.579928 13487 net.cpp:434] conv3_sTanH <- conv3
I0508 00:46:37.579933 13487 net.cpp:395] conv3_sTanH -> conv3 (in-place)
I0508 00:46:37.580129 13487 net.cpp:150] Setting up conv3_sTanH
I0508 00:46:37.580142 13487 net.cpp:157] Top shape: 512 250 6 6 (4608000)
I0508 00:46:37.580145 13487 net.cpp:165] Memory required for data: 2027859968
I0508 00:46:37.580149 13487 layer_factory.hpp:77] Creating layer conv3_postscale
I0508 00:46:37.580157 13487 net.cpp:100] Creating Layer conv3_postscale
I0508 00:46:37.580163 13487 net.cpp:434] conv3_postscale <- conv3
I0508 00:46:37.580168 13487 net.cpp:395] conv3_postscale -> conv3 (in-place)
I0508 00:46:37.580262 13487 net.cpp:150] Setting up conv3_postscale
I0508 00:46:37.580272 13487 net.cpp:157] Top shape: 512 250 6 6 (4608000)
I0508 00:46:37.580276 13487 net.cpp:165] Memory required for data: 2046291968
I0508 00:46:37.580281 13487 layer_factory.hpp:77] Creating layer pool3
I0508 00:46:37.580293 13487 net.cpp:100] Creating Layer pool3
I0508 00:46:37.580298 13487 net.cpp:434] pool3 <- conv3
I0508 00:46:37.580304 13487 net.cpp:408] pool3 -> pool3
I0508 00:46:37.580345 13487 net.cpp:150] Setting up pool3
I0508 00:46:37.580353 13487 net.cpp:157] Top shape: 512 250 3 3 (1152000)
I0508 00:46:37.580358 13487 net.cpp:165] Memory required for data: 2050899968
I0508 00:46:37.580361 13487 layer_factory.hpp:77] Creating layer fc4_300
I0508 00:46:37.580368 13487 net.cpp:100] Creating Layer fc4_300
I0508 00:46:37.580374 13487 net.cpp:434] fc4_300 <- pool3
I0508 00:46:37.580380 13487 net.cpp:408] fc4_300 -> fc4_300
I0508 00:46:37.585834 13487 net.cpp:150] Setting up fc4_300
I0508 00:46:37.585851 13487 net.cpp:157] Top shape: 512 300 (153600)
I0508 00:46:37.585855 13487 net.cpp:165] Memory required for data: 2051514368
I0508 00:46:37.585862 13487 layer_factory.hpp:77] Creating layer fc4_prescale
I0508 00:46:37.585871 13487 net.cpp:100] Creating Layer fc4_prescale
I0508 00:46:37.585877 13487 net.cpp:434] fc4_prescale <- fc4_300
I0508 00:46:37.585885 13487 net.cpp:395] fc4_prescale -> fc4_300 (in-place)
I0508 00:46:37.585975 13487 net.cpp:150] Setting up fc4_prescale
I0508 00:46:37.585983 13487 net.cpp:157] Top shape: 512 300 (153600)
I0508 00:46:37.585988 13487 net.cpp:165] Memory required for data: 2052128768
I0508 00:46:37.585994 13487 layer_factory.hpp:77] Creating layer fc4_sTanH
I0508 00:46:37.586000 13487 net.cpp:100] Creating Layer fc4_sTanH
I0508 00:46:37.586005 13487 net.cpp:434] fc4_sTanH <- fc4_300
I0508 00:46:37.586010 13487 net.cpp:395] fc4_sTanH -> fc4_300 (in-place)
I0508 00:46:37.586891 13487 net.cpp:150] Setting up fc4_sTanH
I0508 00:46:37.586910 13487 net.cpp:157] Top shape: 512 300 (153600)
I0508 00:46:37.586915 13487 net.cpp:165] Memory required for data: 2052743168
I0508 00:46:37.586918 13487 layer_factory.hpp:77] Creating layer fc4_postscale
I0508 00:46:37.586925 13487 net.cpp:100] Creating Layer fc4_postscale
I0508 00:46:37.586930 13487 net.cpp:434] fc4_postscale <- fc4_300
I0508 00:46:37.586938 13487 net.cpp:395] fc4_postscale -> fc4_300 (in-place)
I0508 00:46:37.587040 13487 net.cpp:150] Setting up fc4_postscale
I0508 00:46:37.587049 13487 net.cpp:157] Top shape: 512 300 (153600)
I0508 00:46:37.587054 13487 net.cpp:165] Memory required for data: 2053357568
I0508 00:46:37.587059 13487 layer_factory.hpp:77] Creating layer fc5_116
I0508 00:46:37.587069 13487 net.cpp:100] Creating Layer fc5_116
I0508 00:46:37.587074 13487 net.cpp:434] fc5_116 <- fc4_300
I0508 00:46:37.587081 13487 net.cpp:408] fc5_116 -> fc5_classes
I0508 00:46:37.591485 13487 net.cpp:150] Setting up fc5_116
I0508 00:46:37.591516 13487 net.cpp:157] Top shape: 512 116 (59392)
I0508 00:46:37.591519 13487 net.cpp:165] Memory required for data: 2053595136
I0508 00:46:37.591536 13487 layer_factory.hpp:77] Creating layer fc5_classes_fc5_116_0_split
I0508 00:46:37.591544 13487 net.cpp:100] Creating Layer fc5_classes_fc5_116_0_split
I0508 00:46:37.591548 13487 net.cpp:434] fc5_classes_fc5_116_0_split <- fc5_classes
I0508 00:46:37.591554 13487 net.cpp:408] fc5_classes_fc5_116_0_split -> fc5_classes_fc5_116_0_split_0
I0508 00:46:37.591564 13487 net.cpp:408] fc5_classes_fc5_116_0_split -> fc5_classes_fc5_116_0_split_1
I0508 00:46:37.591572 13487 net.cpp:408] fc5_classes_fc5_116_0_split -> fc5_classes_fc5_116_0_split_2
I0508 00:46:37.591629 13487 net.cpp:150] Setting up fc5_classes_fc5_116_0_split
I0508 00:46:37.591636 13487 net.cpp:157] Top shape: 512 116 (59392)
I0508 00:46:37.591640 13487 net.cpp:157] Top shape: 512 116 (59392)
I0508 00:46:37.591645 13487 net.cpp:157] Top shape: 512 116 (59392)
I0508 00:46:37.591647 13487 net.cpp:165] Memory required for data: 2054307840
I0508 00:46:37.591650 13487 layer_factory.hpp:77] Creating layer softmax
I0508 00:46:37.591656 13487 net.cpp:100] Creating Layer softmax
I0508 00:46:37.591661 13487 net.cpp:434] softmax <- fc5_classes_fc5_116_0_split_0
I0508 00:46:37.591666 13487 net.cpp:408] softmax -> softmax
I0508 00:46:37.591943 13487 net.cpp:150] Setting up softmax
I0508 00:46:37.591958 13487 net.cpp:157] Top shape: 512 116 (59392)
I0508 00:46:37.591961 13487 net.cpp:165] Memory required for data: 2054545408
I0508 00:46:37.591964 13487 layer_factory.hpp:77] Creating layer loss
I0508 00:46:37.591974 13487 net.cpp:100] Creating Layer loss
I0508 00:46:37.591979 13487 net.cpp:434] loss <- softmax
I0508 00:46:37.591984 13487 net.cpp:434] loss <- label_data_1_split_0
I0508 00:46:37.591990 13487 net.cpp:408] loss -> loss
…
