…
I0410 03:11:52.429949 17431 net.cpp:322] The NetState phase (0) differed from the phase (1) specified by a rule in layer accuracy_5
I0410 03:11:52.430114 17431 net.cpp:58] Initializing net from parameters: 
state {
  phase: TRAIN
  level: 0
  stage: ""
}
layer {
  name: "data"
  type: "Data"
  top: "data"
  top: "label"
  include {
    phase: TRAIN
  }
  transform_param {
    mirror: false
    crop_size: 48
    mean_value: 115
    mean_value: 108
    mean_value: 122
  }
  data_param {
    source: "../local_data/lmdb/rtsd-r1/imajust/train/lmdb"
    batch_size: 1024
    backend: LMDB
  }
}
layer {
  name: "conv1"
  type: "Convolution"
  bottom: "data"
  top: "conv1"
  convolution_param {
    num_output: 100
    pad: 0
    kernel_size: 7
    group: 1
    stride: 1
    weight_filler {
      type: "xavier"
    }
  }
}
layer {
  name: "conv1_sTanH"
  type: "TanH"
  bottom: "conv1"
  top: "conv1"
}
layer {
  name: "pool1"
  type: "Pooling"
  bottom: "conv1"
  top: "pool1"
  pooling_param {
    pool: MAX
    kernel_size: 2
    stride: 2
  }
}
layer {
  name: "conv2"
  type: "Convolution"
  bottom: "pool1"
  top: "conv2"
  convolution_param {
    num_output: 150
    pad: 0
    kernel_size: 4
    group: 1
    stride: 1
    weight_filler {
      type: "xavier"
    }
  }
}
layer {
  name: "conv2_sTanH"
  type: "TanH"
  bottom: "conv2"
  top: "conv2"
}
layer {
  name: "pool2"
  type: "Pooling"
  bottom: "conv2"
  top: "pool2"
  pooling_param {
    pool: MAX
    kernel_size: 2
    stride: 2
  }
}
layer {
  name: "conv3"
  type: "Convolution"
  bottom: "pool2"
  top: "conv3"
  convolution_param {
    num_output: 250
    pad: 0
    kernel_size: 4
    group: 1
    stride: 1
    weight_filler {
      type: "xavier"
    }
  }
}
layer {
  name: "conv3_sTanH"
  type: "TanH"
  bottom: "conv3"
  top: "conv3"
}
layer {
  name: "pool3"
  type: "Pooling"
  bottom: "conv3"
  top: "pool3"
  pooling_param {
    pool: MAX
    kernel_size: 2
    stride: 2
  }
}
layer {
  name: "fc4_300"
  type: "InnerProduct"
  bottom: "pool3"
  top: "fc4_300"
  inner_product_param {
    num_output: 300
    weight_filler {
      type: "xavier"
    }
  }
}
layer {
  name: "fc4_sTanH"
  type: "TanH"
  bottom: "fc4_300"
  top: "fc4_300"
}
layer {
  name: "drop4"
  type: "Dropout"
  bottom: "fc4_300"
  top: "fc4_300"
  dropout_param {
    dropout_ratio: 0.4
  }
}
layer {
  name: "fc5_67"
  type: "InnerProduct"
  bottom: "fc4_300"
  top: "fc5_classes"
  inner_product_param {
    num_output: 67
    weight_filler {
      type: "xavier"
    }
  }
}
layer {
  name: "loss"
  type: "SoftmaxWithLoss"
  bottom: "fc5_classes"
  bottom: "label"
  top: "loss"
}
I0410 03:11:52.430232 17431 layer_factory.hpp:77] Creating layer data
I0410 03:11:52.432355 17431 net.cpp:100] Creating Layer data
I0410 03:11:52.432384 17431 net.cpp:408] data -> data
I0410 03:11:52.432422 17431 net.cpp:408] data -> label
I0410 03:11:52.433639 17501 db_lmdb.cpp:35] Opened lmdb ../local_data/lmdb/rtsd-r1/imajust/train/lmdb
I0410 03:11:52.463414 17431 data_layer.cpp:41] output data size: 1024,3,48,48
I0410 03:11:52.519636 17431 net.cpp:150] Setting up data
I0410 03:11:52.519675 17431 net.cpp:157] Top shape: 1024 3 48 48 (7077888)
I0410 03:11:52.519717 17431 net.cpp:157] Top shape: 1024 (1024)
I0410 03:11:52.519722 17431 net.cpp:165] Memory required for data: 28315648
I0410 03:11:52.519734 17431 layer_factory.hpp:77] Creating layer conv1
I0410 03:11:52.519762 17431 net.cpp:100] Creating Layer conv1
I0410 03:11:52.519769 17431 net.cpp:434] conv1 <- data
I0410 03:11:52.519785 17431 net.cpp:408] conv1 -> conv1
I0410 03:11:52.848804 17431 net.cpp:150] Setting up conv1
I0410 03:11:52.848839 17431 net.cpp:157] Top shape: 1024 100 42 42 (180633600)
I0410 03:11:52.848842 17431 net.cpp:165] Memory required for data: 750850048
I0410 03:11:52.848867 17431 layer_factory.hpp:77] Creating layer conv1_sTanH
I0410 03:11:52.848881 17431 net.cpp:100] Creating Layer conv1_sTanH
I0410 03:11:52.848886 17431 net.cpp:434] conv1_sTanH <- conv1
I0410 03:11:52.848892 17431 net.cpp:395] conv1_sTanH -> conv1 (in-place)
I0410 03:11:52.849130 17431 net.cpp:150] Setting up conv1_sTanH
I0410 03:11:52.849145 17431 net.cpp:157] Top shape: 1024 100 42 42 (180633600)
I0410 03:11:52.849148 17431 net.cpp:165] Memory required for data: 1473384448
I0410 03:11:52.849153 17431 layer_factory.hpp:77] Creating layer pool1
I0410 03:11:52.849162 17431 net.cpp:100] Creating Layer pool1
I0410 03:11:52.849166 17431 net.cpp:434] pool1 <- conv1
I0410 03:11:52.849172 17431 net.cpp:408] pool1 -> pool1
I0410 03:11:52.849236 17431 net.cpp:150] Setting up pool1
I0410 03:11:52.849247 17431 net.cpp:157] Top shape: 1024 100 21 21 (45158400)
I0410 03:11:52.849251 17431 net.cpp:165] Memory required for data: 1654018048
I0410 03:11:52.849256 17431 layer_factory.hpp:77] Creating layer conv2
I0410 03:11:52.849269 17431 net.cpp:100] Creating Layer conv2
I0410 03:11:52.849275 17431 net.cpp:434] conv2 <- pool1
I0410 03:11:52.849282 17431 net.cpp:408] conv2 -> conv2
I0410 03:11:52.865419 17431 net.cpp:150] Setting up conv2
I0410 03:11:52.865440 17431 net.cpp:157] Top shape: 1024 150 18 18 (49766400)
I0410 03:11:52.865445 17431 net.cpp:165] Memory required for data: 1853083648
I0410 03:11:52.865458 17431 layer_factory.hpp:77] Creating layer conv2_sTanH
I0410 03:11:52.865465 17431 net.cpp:100] Creating Layer conv2_sTanH
I0410 03:11:52.865471 17431 net.cpp:434] conv2_sTanH <- conv2
I0410 03:11:52.865478 17431 net.cpp:395] conv2_sTanH -> conv2 (in-place)
I0410 03:11:52.866541 17431 net.cpp:150] Setting up conv2_sTanH
I0410 03:11:52.866561 17431 net.cpp:157] Top shape: 1024 150 18 18 (49766400)
I0410 03:11:52.866565 17431 net.cpp:165] Memory required for data: 2052149248
I0410 03:11:52.866569 17431 layer_factory.hpp:77] Creating layer pool2
I0410 03:11:52.866577 17431 net.cpp:100] Creating Layer pool2
I0410 03:11:52.866582 17431 net.cpp:434] pool2 <- conv2
I0410 03:11:52.866588 17431 net.cpp:408] pool2 -> pool2
I0410 03:11:52.866646 17431 net.cpp:150] Setting up pool2
I0410 03:11:52.866655 17431 net.cpp:157] Top shape: 1024 150 9 9 (12441600)
I0410 03:11:52.866658 17431 net.cpp:165] Memory required for data: 2101915648
I0410 03:11:52.866662 17431 layer_factory.hpp:77] Creating layer conv3
I0410 03:11:52.866672 17431 net.cpp:100] Creating Layer conv3
I0410 03:11:52.866677 17431 net.cpp:434] conv3 <- pool2
I0410 03:11:52.866683 17431 net.cpp:408] conv3 -> conv3
I0410 03:11:52.873586 17431 net.cpp:150] Setting up conv3
I0410 03:11:52.873607 17431 net.cpp:157] Top shape: 1024 250 6 6 (9216000)
I0410 03:11:52.873611 17431 net.cpp:165] Memory required for data: 2138779648
I0410 03:11:52.873623 17431 layer_factory.hpp:77] Creating layer conv3_sTanH
I0410 03:11:52.873632 17431 net.cpp:100] Creating Layer conv3_sTanH
I0410 03:11:52.873636 17431 net.cpp:434] conv3_sTanH <- conv3
I0410 03:11:52.873642 17431 net.cpp:395] conv3_sTanH -> conv3 (in-place)
I0410 03:11:52.874733 17431 net.cpp:150] Setting up conv3_sTanH
I0410 03:11:52.874752 17431 net.cpp:157] Top shape: 1024 250 6 6 (9216000)
I0410 03:11:52.874757 17431 net.cpp:165] Memory required for data: 2175643648
I0410 03:11:52.874760 17431 layer_factory.hpp:77] Creating layer pool3
I0410 03:11:52.874768 17431 net.cpp:100] Creating Layer pool3
I0410 03:11:52.874773 17431 net.cpp:434] pool3 <- conv3
I0410 03:11:52.874802 17431 net.cpp:408] pool3 -> pool3
I0410 03:11:52.874862 17431 net.cpp:150] Setting up pool3
I0410 03:11:52.874873 17431 net.cpp:157] Top shape: 1024 250 3 3 (2304000)
I0410 03:11:52.874876 17431 net.cpp:165] Memory required for data: 2184859648
I0410 03:11:52.874881 17431 layer_factory.hpp:77] Creating layer fc4_300
I0410 03:11:52.874888 17431 net.cpp:100] Creating Layer fc4_300
I0410 03:11:52.874892 17431 net.cpp:434] fc4_300 <- pool3
I0410 03:11:52.874898 17431 net.cpp:408] fc4_300 -> fc4_300
I0410 03:11:52.881615 17431 net.cpp:150] Setting up fc4_300
I0410 03:11:52.881634 17431 net.cpp:157] Top shape: 1024 300 (307200)
I0410 03:11:52.881639 17431 net.cpp:165] Memory required for data: 2186088448
I0410 03:11:52.881646 17431 layer_factory.hpp:77] Creating layer fc4_sTanH
I0410 03:11:52.881654 17431 net.cpp:100] Creating Layer fc4_sTanH
I0410 03:11:52.881659 17431 net.cpp:434] fc4_sTanH <- fc4_300
I0410 03:11:52.881669 17431 net.cpp:395] fc4_sTanH -> fc4_300 (in-place)
I0410 03:11:52.881906 17431 net.cpp:150] Setting up fc4_sTanH
I0410 03:11:52.881919 17431 net.cpp:157] Top shape: 1024 300 (307200)
I0410 03:11:52.881923 17431 net.cpp:165] Memory required for data: 2187317248
I0410 03:11:52.881927 17431 layer_factory.hpp:77] Creating layer drop4
I0410 03:11:52.881937 17431 net.cpp:100] Creating Layer drop4
I0410 03:11:52.881942 17431 net.cpp:434] drop4 <- fc4_300
I0410 03:11:52.881947 17431 net.cpp:395] drop4 -> fc4_300 (in-place)
I0410 03:11:52.881989 17431 net.cpp:150] Setting up drop4
I0410 03:11:52.881999 17431 net.cpp:157] Top shape: 1024 300 (307200)
I0410 03:11:52.882001 17431 net.cpp:165] Memory required for data: 2188546048
I0410 03:11:52.882005 17431 layer_factory.hpp:77] Creating layer fc5_67
I0410 03:11:52.882012 17431 net.cpp:100] Creating Layer fc5_67
I0410 03:11:52.882016 17431 net.cpp:434] fc5_67 <- fc4_300
I0410 03:11:52.882025 17431 net.cpp:408] fc5_67 -> fc5_classes
I0410 03:11:52.884479 17431 net.cpp:150] Setting up fc5_67
I0410 03:11:52.884498 17431 net.cpp:157] Top shape: 1024 67 (68608)
I0410 03:11:52.884502 17431 net.cpp:165] Memory required for data: 2188820480
I0410 03:11:52.884515 17431 layer_factory.hpp:77] Creating layer loss
I0410 03:11:52.884522 17431 net.cpp:100] Creating Layer loss
I0410 03:11:52.884526 17431 net.cpp:434] loss <- fc5_classes
I0410 03:11:52.884532 17431 net.cpp:434] loss <- label
I0410 03:11:52.884541 17431 net.cpp:408] loss -> loss
I0410 03:11:52.884557 17431 layer_factory.hpp:77] Creating layer loss
…
I0410 03:11:52.885351 17431 solver.cpp:193] Creating test net (#0) specified by test_net file: ./Prototxt/experiment_7/rtsd-r1/imajust/trial_4/test.prototxt
I0410 03:11:52.885510 17431 net.cpp:58] Initializing net from parameters: 
state {
  phase: TEST
}
layer {
  name: "data"
  type: "Data"
  top: "data"
  top: "label"
  include {
    phase: TEST
  }
  transform_param {
    mirror: false
    crop_size: 48
    mean_value: 109
    mean_value: 106
    mean_value: 126
  }
  data_param {
    source: "../local_data/lmdb/rtsd-r1/imajust/test/lmdb"
    batch_size: 1024
    backend: LMDB
  }
}
layer {
  name: "conv1"
  type: "Convolution"
  bottom: "data"
  top: "conv1"
  convolution_param {
    num_output: 100
    pad: 0
    kernel_size: 7
    group: 1
    stride: 1
    weight_filler {
      type: "xavier"
    }
  }
}
layer {
  name: "conv1_sTanH"
  type: "TanH"
  bottom: "conv1"
  top: "conv1"
}
layer {
  name: "pool1"
  type: "Pooling"
  bottom: "conv1"
  top: "pool1"
  pooling_param {
    pool: MAX
    kernel_size: 2
    stride: 2
  }
}
layer {
  name: "conv2"
  type: "Convolution"
  bottom: "pool1"
  top: "conv2"
  convolution_param {
    num_output: 150
    pad: 0
    kernel_size: 4
    group: 1
    stride: 1
    weight_filler {
      type: "xavier"
    }
  }
}
layer {
  name: "conv2_sTanH"
  type: "TanH"
  bottom: "conv2"
  top: "conv2"
}
layer {
  name: "pool2"
  type: "Pooling"
  bottom: "conv2"
  top: "pool2"
  pooling_param {
    pool: MAX
    kernel_size: 2
    stride: 2
  }
}
layer {
  name: "conv3"
  type: "Convolution"
  bottom: "pool2"
  top: "conv3"
  convolution_param {
    num_output: 250
    pad: 0
    kernel_size: 4
    group: 1
    stride: 1
    weight_filler {
      type: "xavier"
    }
  }
}
layer {
  name: "conv3_sTanH"
  type: "TanH"
  bottom: "conv3"
  top: "conv3"
}
layer {
  name: "pool3"
  type: "Pooling"
  bottom: "conv3"
  top: "pool3"
  pooling_param {
    pool: MAX
    kernel_size: 2
    stride: 2
  }
}
layer {
  name: "fc4_300"
  type: "InnerProduct"
  bottom: "pool3"
  top: "fc4_300"
  inner_product_param {
    num_output: 300
    weight_filler {
      type: "xavier"
    }
  }
}
layer {
  name: "fc4_sTanH"
  type: "TanH"
  bottom: "fc4_300"
  top: "fc4_300"
}
layer {
  name: "drop4"
  type: "Dropout"
  bottom: "fc4_300"
  top: "fc4_300"
  dropout_param {
    dropout_ratio: 0.4
  }
}
layer {
  name: "fc5_67"
  type: "InnerProduct"
  bottom: "fc4_300"
  top: "fc5_classes"
  inner_product_param {
    num_output: 67
    weight_filler {
      type: "xavier"
    }
  }
}
layer {
  name: "loss"
  type: "SoftmaxWithLoss"
  bottom: "fc5_classes"
  bottom: "label"
  top: "loss"
}
layer {
  name: "accuracy_1"
  type: "Accuracy"
  bottom: "fc5_classes"
  bottom: "label"
  top: "accuracy_1"
  include {
    phase: TEST
  }
  accuracy_param {
    top_k: 1
  }
}
layer {
  name: "accuracy_5"
  type: "Accuracy"
  bottom: "fc5_classes"
  bottom: "label"
  top: "accuracy_5"
  include {
    phase: TEST
  }
  accuracy_param {
    top_k: 5
  }
}
I0410 03:11:52.885630 17431 layer_factory.hpp:77] Creating layer data
I0410 03:11:52.886445 17431 net.cpp:100] Creating Layer data
I0410 03:11:52.886458 17431 net.cpp:408] data -> data
I0410 03:11:52.886471 17431 net.cpp:408] data -> label
I0410 03:11:52.890482 17534 db_lmdb.cpp:35] Opened lmdb ../local_data/lmdb/rtsd-r1/imajust/test/lmdb
I0410 03:11:52.890669 17431 data_layer.cpp:41] output data size: 1024,3,48,48
I0410 03:11:52.936733 17431 net.cpp:150] Setting up data
I0410 03:11:52.936769 17431 net.cpp:157] Top shape: 1024 3 48 48 (7077888)
I0410 03:11:52.936774 17431 net.cpp:157] Top shape: 1024 (1024)
I0410 03:11:52.936779 17431 net.cpp:165] Memory required for data: 28315648
I0410 03:11:52.936785 17431 layer_factory.hpp:77] Creating layer label_data_1_split
I0410 03:11:52.936801 17431 net.cpp:100] Creating Layer label_data_1_split
I0410 03:11:52.936806 17431 net.cpp:434] label_data_1_split <- label
I0410 03:11:52.936817 17431 net.cpp:408] label_data_1_split -> label_data_1_split_0
I0410 03:11:52.936836 17431 net.cpp:408] label_data_1_split -> label_data_1_split_1
I0410 03:11:52.936868 17431 net.cpp:408] label_data_1_split -> label_data_1_split_2
I0410 03:11:52.936983 17431 net.cpp:150] Setting up label_data_1_split
I0410 03:11:52.936995 17431 net.cpp:157] Top shape: 1024 (1024)
I0410 03:11:52.937000 17431 net.cpp:157] Top shape: 1024 (1024)
I0410 03:11:52.937003 17431 net.cpp:157] Top shape: 1024 (1024)
I0410 03:11:52.937007 17431 net.cpp:165] Memory required for data: 28327936
I0410 03:11:52.937011 17431 layer_factory.hpp:77] Creating layer conv1
I0410 03:11:52.937026 17431 net.cpp:100] Creating Layer conv1
I0410 03:11:52.937033 17431 net.cpp:434] conv1 <- data
I0410 03:11:52.937041 17431 net.cpp:408] conv1 -> conv1
I0410 03:11:52.941354 17431 net.cpp:150] Setting up conv1
I0410 03:11:52.941377 17431 net.cpp:157] Top shape: 1024 100 42 42 (180633600)
I0410 03:11:52.941382 17431 net.cpp:165] Memory required for data: 750862336
I0410 03:11:52.941397 17431 layer_factory.hpp:77] Creating layer conv1_sTanH
I0410 03:11:52.941406 17431 net.cpp:100] Creating Layer conv1_sTanH
I0410 03:11:52.941411 17431 net.cpp:434] conv1_sTanH <- conv1
I0410 03:11:52.941418 17431 net.cpp:395] conv1_sTanH -> conv1 (in-place)
I0410 03:11:52.941664 17431 net.cpp:150] Setting up conv1_sTanH
I0410 03:11:52.941678 17431 net.cpp:157] Top shape: 1024 100 42 42 (180633600)
I0410 03:11:52.941681 17431 net.cpp:165] Memory required for data: 1473396736
I0410 03:11:52.941685 17431 layer_factory.hpp:77] Creating layer pool1
I0410 03:11:52.941699 17431 net.cpp:100] Creating Layer pool1
I0410 03:11:52.941704 17431 net.cpp:434] pool1 <- conv1
I0410 03:11:52.941710 17431 net.cpp:408] pool1 -> pool1
I0410 03:11:52.941776 17431 net.cpp:150] Setting up pool1
I0410 03:11:52.941786 17431 net.cpp:157] Top shape: 1024 100 21 21 (45158400)
I0410 03:11:52.941788 17431 net.cpp:165] Memory required for data: 1654030336
I0410 03:11:52.941792 17431 layer_factory.hpp:77] Creating layer conv2
I0410 03:11:52.941804 17431 net.cpp:100] Creating Layer conv2
I0410 03:11:52.941809 17431 net.cpp:434] conv2 <- pool1
I0410 03:11:52.941826 17431 net.cpp:408] conv2 -> conv2
I0410 03:11:52.946655 17431 net.cpp:150] Setting up conv2
I0410 03:11:52.946676 17431 net.cpp:157] Top shape: 1024 150 18 18 (49766400)
I0410 03:11:52.946681 17431 net.cpp:165] Memory required for data: 1853095936
I0410 03:11:52.946693 17431 layer_factory.hpp:77] Creating layer conv2_sTanH
I0410 03:11:52.946703 17431 net.cpp:100] Creating Layer conv2_sTanH
I0410 03:11:52.946708 17431 net.cpp:434] conv2_sTanH <- conv2
I0410 03:11:52.946715 17431 net.cpp:395] conv2_sTanH -> conv2 (in-place)
I0410 03:11:52.947695 17431 net.cpp:150] Setting up conv2_sTanH
I0410 03:11:52.947715 17431 net.cpp:157] Top shape: 1024 150 18 18 (49766400)
I0410 03:11:52.947718 17431 net.cpp:165] Memory required for data: 2052161536
I0410 03:11:52.947722 17431 layer_factory.hpp:77] Creating layer pool2
I0410 03:11:52.947737 17431 net.cpp:100] Creating Layer pool2
I0410 03:11:52.947742 17431 net.cpp:434] pool2 <- conv2
I0410 03:11:52.947749 17431 net.cpp:408] pool2 -> pool2
I0410 03:11:52.947818 17431 net.cpp:150] Setting up pool2
I0410 03:11:52.947827 17431 net.cpp:157] Top shape: 1024 150 9 9 (12441600)
I0410 03:11:52.947831 17431 net.cpp:165] Memory required for data: 2101927936
I0410 03:11:52.947834 17431 layer_factory.hpp:77] Creating layer conv3
I0410 03:11:52.947847 17431 net.cpp:100] Creating Layer conv3
I0410 03:11:52.947851 17431 net.cpp:434] conv3 <- pool2
I0410 03:11:52.947860 17431 net.cpp:408] conv3 -> conv3
I0410 03:11:52.954818 17431 net.cpp:150] Setting up conv3
I0410 03:11:52.954841 17431 net.cpp:157] Top shape: 1024 250 6 6 (9216000)
I0410 03:11:52.954845 17431 net.cpp:165] Memory required for data: 2138791936
I0410 03:11:52.954860 17431 layer_factory.hpp:77] Creating layer conv3_sTanH
I0410 03:11:52.954869 17431 net.cpp:100] Creating Layer conv3_sTanH
I0410 03:11:52.954874 17431 net.cpp:434] conv3_sTanH <- conv3
I0410 03:11:52.954880 17431 net.cpp:395] conv3_sTanH -> conv3 (in-place)
I0410 03:11:52.955866 17431 net.cpp:150] Setting up conv3_sTanH
I0410 03:11:52.955901 17431 net.cpp:157] Top shape: 1024 250 6 6 (9216000)
I0410 03:11:52.955929 17431 net.cpp:165] Memory required for data: 2175655936
I0410 03:11:52.955934 17431 layer_factory.hpp:77] Creating layer pool3
I0410 03:11:52.955942 17431 net.cpp:100] Creating Layer pool3
I0410 03:11:52.955952 17431 net.cpp:434] pool3 <- conv3
I0410 03:11:52.955961 17431 net.cpp:408] pool3 -> pool3
I0410 03:11:52.956029 17431 net.cpp:150] Setting up pool3
I0410 03:11:52.956040 17431 net.cpp:157] Top shape: 1024 250 3 3 (2304000)
I0410 03:11:52.956043 17431 net.cpp:165] Memory required for data: 2184871936
I0410 03:11:52.956048 17431 layer_factory.hpp:77] Creating layer fc4_300
I0410 03:11:52.956055 17431 net.cpp:100] Creating Layer fc4_300
I0410 03:11:52.956059 17431 net.cpp:434] fc4_300 <- pool3
I0410 03:11:52.956068 17431 net.cpp:408] fc4_300 -> fc4_300
I0410 03:11:52.962718 17431 net.cpp:150] Setting up fc4_300
I0410 03:11:52.962738 17431 net.cpp:157] Top shape: 1024 300 (307200)
I0410 03:11:52.962743 17431 net.cpp:165] Memory required for data: 2186100736
I0410 03:11:52.962754 17431 layer_factory.hpp:77] Creating layer fc4_sTanH
I0410 03:11:52.962765 17431 net.cpp:100] Creating Layer fc4_sTanH
I0410 03:11:52.962772 17431 net.cpp:434] fc4_sTanH <- fc4_300
I0410 03:11:52.962779 17431 net.cpp:395] fc4_sTanH -> fc4_300 (in-place)
I0410 03:11:52.963029 17431 net.cpp:150] Setting up fc4_sTanH
I0410 03:11:52.963043 17431 net.cpp:157] Top shape: 1024 300 (307200)
I0410 03:11:52.963047 17431 net.cpp:165] Memory required for data: 2187329536
I0410 03:11:52.963052 17431 layer_factory.hpp:77] Creating layer drop4
I0410 03:11:52.963063 17431 net.cpp:100] Creating Layer drop4
I0410 03:11:52.963066 17431 net.cpp:434] drop4 <- fc4_300
I0410 03:11:52.963073 17431 net.cpp:395] drop4 -> fc4_300 (in-place)
I0410 03:11:52.963114 17431 net.cpp:150] Setting up drop4
I0410 03:11:52.963121 17431 net.cpp:157] Top shape: 1024 300 (307200)
I0410 03:11:52.963125 17431 net.cpp:165] Memory required for data: 2188558336
I0410 03:11:52.963129 17431 layer_factory.hpp:77] Creating layer fc5_67
I0410 03:11:52.963140 17431 net.cpp:100] Creating Layer fc5_67
I0410 03:11:52.963143 17431 net.cpp:434] fc5_67 <- fc4_300
I0410 03:11:52.963150 17431 net.cpp:408] fc5_67 -> fc5_classes
I0410 03:11:52.963466 17431 net.cpp:150] Setting up fc5_67
I0410 03:11:52.963477 17431 net.cpp:157] Top shape: 1024 67 (68608)
I0410 03:11:52.963481 17431 net.cpp:165] Memory required for data: 2188832768
I0410 03:11:52.963495 17431 layer_factory.hpp:77] Creating layer fc5_classes_fc5_67_0_split
I0410 03:11:52.963503 17431 net.cpp:100] Creating Layer fc5_classes_fc5_67_0_split
I0410 03:11:52.963507 17431 net.cpp:434] fc5_classes_fc5_67_0_split <- fc5_classes
I0410 03:11:52.963515 17431 net.cpp:408] fc5_classes_fc5_67_0_split -> fc5_classes_fc5_67_0_split_0
I0410 03:11:52.963522 17431 net.cpp:408] fc5_classes_fc5_67_0_split -> fc5_classes_fc5_67_0_split_1
I0410 03:11:52.963534 17431 net.cpp:408] fc5_classes_fc5_67_0_split -> fc5_classes_fc5_67_0_split_2
I0410 03:11:52.963601 17431 net.cpp:150] Setting up fc5_classes_fc5_67_0_split
I0410 03:11:52.963610 17431 net.cpp:157] Top shape: 1024 67 (68608)
I0410 03:11:52.963614 17431 net.cpp:157] Top shape: 1024 67 (68608)
I0410 03:11:52.963618 17431 net.cpp:157] Top shape: 1024 67 (68608)
I0410 03:11:52.963621 17431 net.cpp:165] Memory required for data: 2189656064
I0410 03:11:52.963624 17431 layer_factory.hpp:77] Creating layer loss
I0410 03:11:52.963635 17431 net.cpp:100] Creating Layer loss
I0410 03:11:52.963639 17431 net.cpp:434] loss <- fc5_classes_fc5_67_0_split_0
I0410 03:11:52.963644 17431 net.cpp:434] loss <- label_data_1_split_0
I0410 03:11:52.963651 17431 net.cpp:408] loss -> loss
…
