…
I0508 06:46:56.672961 23565 solver.cpp:93] Creating training net from train_net file: ./Prototxt/experiment_15/RTSD/AHE/trial_5/train.prototxt
I0508 06:46:56.673496 23565 net.cpp:58] Initializing net from parameters: 
state {
  phase: TRAIN
  level: 0
  stage: ""
}
layer {
  name: "data"
  type: "Data"
  top: "data"
  top: "label"
  include {
    phase: TRAIN
  }
  transform_param {
    scale: 0.0039215689
    mirror: false
    crop_size: 48
    mean_value: 133
    mean_value: 127
    mean_value: 126
  }
  data_param {
    source: "../local_data/lmdb/RTSD/AHE/train/lmdb"
    batch_size: 1024
    backend: LMDB
  }
}
layer {
  name: "conv1"
  type: "Convolution"
  bottom: "data"
  top: "conv1"
  convolution_param {
    num_output: 100
    pad: 0
    kernel_size: 7
    group: 1
    stride: 1
    weight_filler {
      type: "xavier"
    }
  }
}
layer {
  name: "conv1_prescale"
  type: "Scale"
  bottom: "conv1"
  top: "conv1"
  param {
    lr_mult: 0
    decay_mult: 0
  }
  scale_param {
    filler {
      value: 0.6666
    }
    bias_term: false
  }
}
layer {
  name: "conv1_sTanH"
  type: "TanH"
  bottom: "conv1"
  top: "conv1"
}
layer {
  name: "conv1_postscale"
  type: "Scale"
  bottom: "conv1"
  top: "conv1"
  param {
    lr_mult: 0
    decay_mult: 0
  }
  scale_param {
    filler {
      value: 1.7159
    }
    bias_term: false
  }
}
layer {
  name: "pool1"
  type: "Pooling"
  bottom: "conv1"
  top: "pool1"
  pooling_param {
    pool: MAX
    kernel_size: 2
    stride: 2
  }
}
layer {
  name: "conv2"
  type: "Convolution"
  bottom: "pool1"
  top: "conv2"
  convolution_param {
    num_output: 150
    pad: 0
    kernel_size: 4
    group: 2
    stride: 1
    weight_filler {
      type: "xavier"
    }
  }
}
layer {
  name: "conv2_prescale"
  type: "Scale"
  bottom: "conv2"
  top: "conv2"
  param {
    lr_mult: 0
    decay_mult: 0
  }
  scale_param {
    filler {
      value: 0.6666
    }
    bias_term: false
  }
}
layer {
  name: "conv2_sTanH"
  type: "TanH"
  bottom: "conv2"
  top: "conv2"
}
layer {
  name: "conv2_postscale"
  type: "Scale"
  bottom: "conv2"
  top: "conv2"
  param {
    lr_mult: 0
    decay_mult: 0
  }
  scale_param {
    filler {
      value: 1.7159
    }
    bias_term: false
  }
}
layer {
  name: "pool2"
  type: "Pooling"
  bottom: "conv2"
  top: "pool2"
  pooling_param {
    pool: MAX
    kernel_size: 2
    stride: 2
  }
}
layer {
  name: "conv3"
  type: "Convolution"
  bottom: "pool2"
  top: "conv3"
  convolution_param {
    num_output: 250
    pad: 0
    kernel_size: 4
    group: 2
    stride: 1
    weight_filler {
      type: "xavier"
    }
  }
}
layer {
  name: "conv3_prescale"
  type: "Scale"
  bottom: "conv3"
  top: "conv3"
  param {
    lr_mult: 0
    decay_mult: 0
  }
  scale_param {
    filler {
      value: 0.6666
    }
    bias_term: false
  }
}
layer {
  name: "conv3_sTanH"
  type: "TanH"
  bottom: "conv3"
  top: "conv3"
}
layer {
  name: "conv3_postscale"
  type: "Scale"
  bottom: "conv3"
  top: "conv3"
  param {
    lr_mult: 0
    decay_mult: 0
  }
  scale_param {
    filler {
      value: 1.7159
    }
    bias_term: false
  }
}
layer {
  name: "pool3"
  type: "Pooling"
  bottom: "conv3"
  top: "pool3"
  pooling_param {
    pool: MAX
    kernel_size: 2
    stride: 2
  }
}
layer {
  name: "fc4_300"
  type: "InnerProduct"
  bottom: "pool3"
  top: "fc4_300"
  inner_product_param {
    num_output: 300
    weight_filler {
      type: "xavier"
    }
  }
}
layer {
  name: "fc4_prescale"
  type: "Scale"
  bottom: "fc4_300"
  top: "fc4_300"
  param {
    lr_mult: 0
    decay_mult: 0
  }
  scale_param {
    filler {
      value: 0.6666
    }
    bias_term: false
  }
}
layer {
  name: "fc4_sTanH"
  type: "TanH"
  bottom: "fc4_300"
  top: "fc4_300"
}
layer {
  name: "fc4_postscale"
  type: "Scale"
  bottom: "fc4_300"
  top: "fc4_300"
  param {
    lr_mult: 0
    decay_mult: 0
  }
  scale_param {
    filler {
      value: 1.7159
    }
    bias_term: false
  }
}
layer {
  name: "fc5_116"
  type: "InnerProduct"
  bottom: "fc4_300"
  top: "fc5_classes"
  inner_product_param {
    num_output: 116
    weight_filler {
      type: "xavier"
    }
  }
}
layer {
  name: "softmax"
  type: "Softmax"
  bottom: "fc5_classes"
  top: "softmax"
}
layer {
  name: "loss"
  type: "MultinomialLogisticLoss"
  bottom: "softmax"
  bottom: "label"
  top: "loss"
}
layer {
  name: "accuracy_1"
  type: "Accuracy"
  bottom: "fc5_classes"
  bottom: "label"
  top: "accuracy_1"
  accuracy_param {
    top_k: 1
  }
}
layer {
  name: "accuracy_5"
  type: "Accuracy"
  bottom: "fc5_classes"
  bottom: "label"
  top: "accuracy_5"
  accuracy_param {
    top_k: 5
  }
}
layer {
  name: "silence"
  type: "Silence"
  bottom: "accuracy_1"
  bottom: "accuracy_5"
}
I0508 06:46:56.673678 23565 layer_factory.hpp:77] Creating layer data
I0508 06:46:56.674967 23565 net.cpp:100] Creating Layer data
I0508 06:46:56.674988 23565 net.cpp:408] data -> data
I0508 06:46:56.675015 23565 net.cpp:408] data -> label
I0508 06:46:56.682883 23676 db_lmdb.cpp:35] Opened lmdb ../local_data/lmdb/RTSD/AHE/train/lmdb
I0508 06:46:56.708716 23565 data_layer.cpp:41] output data size: 1024,3,48,48
I0508 06:46:56.806805 23565 net.cpp:150] Setting up data
I0508 06:46:56.806836 23565 net.cpp:157] Top shape: 1024 3 48 48 (7077888)
I0508 06:46:56.806843 23565 net.cpp:157] Top shape: 1024 (1024)
I0508 06:46:56.806846 23565 net.cpp:165] Memory required for data: 28315648
I0508 06:46:56.806859 23565 layer_factory.hpp:77] Creating layer label_data_1_split
I0508 06:46:56.806875 23565 net.cpp:100] Creating Layer label_data_1_split
I0508 06:46:56.806884 23565 net.cpp:434] label_data_1_split <- label
I0508 06:46:56.806900 23565 net.cpp:408] label_data_1_split -> label_data_1_split_0
I0508 06:46:56.806917 23565 net.cpp:408] label_data_1_split -> label_data_1_split_1
I0508 06:46:56.806926 23565 net.cpp:408] label_data_1_split -> label_data_1_split_2
I0508 06:46:56.807030 23565 net.cpp:150] Setting up label_data_1_split
I0508 06:46:56.807041 23565 net.cpp:157] Top shape: 1024 (1024)
I0508 06:46:56.807045 23565 net.cpp:157] Top shape: 1024 (1024)
I0508 06:46:56.807050 23565 net.cpp:157] Top shape: 1024 (1024)
I0508 06:46:56.807056 23565 net.cpp:165] Memory required for data: 28327936
I0508 06:46:56.807060 23565 layer_factory.hpp:77] Creating layer conv1
I0508 06:46:56.807080 23565 net.cpp:100] Creating Layer conv1
I0508 06:46:56.807086 23565 net.cpp:434] conv1 <- data
I0508 06:46:56.807093 23565 net.cpp:408] conv1 -> conv1
I0508 06:46:57.215023 23565 net.cpp:150] Setting up conv1
I0508 06:46:57.215049 23565 net.cpp:157] Top shape: 1024 100 42 42 (180633600)
I0508 06:46:57.215054 23565 net.cpp:165] Memory required for data: 750862336
I0508 06:46:57.215075 23565 layer_factory.hpp:77] Creating layer conv1_prescale
I0508 06:46:57.215090 23565 net.cpp:100] Creating Layer conv1_prescale
I0508 06:46:57.215095 23565 net.cpp:434] conv1_prescale <- conv1
I0508 06:46:57.215101 23565 net.cpp:395] conv1_prescale -> conv1 (in-place)
I0508 06:46:57.215209 23565 net.cpp:150] Setting up conv1_prescale
I0508 06:46:57.215217 23565 net.cpp:157] Top shape: 1024 100 42 42 (180633600)
I0508 06:46:57.215219 23565 net.cpp:165] Memory required for data: 1473396736
I0508 06:46:57.215230 23565 layer_factory.hpp:77] Creating layer conv1_sTanH
I0508 06:46:57.215240 23565 net.cpp:100] Creating Layer conv1_sTanH
I0508 06:46:57.215245 23565 net.cpp:434] conv1_sTanH <- conv1
I0508 06:46:57.215250 23565 net.cpp:395] conv1_sTanH -> conv1 (in-place)
I0508 06:46:57.215459 23565 net.cpp:150] Setting up conv1_sTanH
I0508 06:46:57.215471 23565 net.cpp:157] Top shape: 1024 100 42 42 (180633600)
I0508 06:46:57.215492 23565 net.cpp:165] Memory required for data: 2195931136
I0508 06:46:57.215497 23565 layer_factory.hpp:77] Creating layer conv1_postscale
I0508 06:46:57.215502 23565 net.cpp:100] Creating Layer conv1_postscale
I0508 06:46:57.215507 23565 net.cpp:434] conv1_postscale <- conv1
I0508 06:46:57.215513 23565 net.cpp:395] conv1_postscale -> conv1 (in-place)
I0508 06:46:57.215616 23565 net.cpp:150] Setting up conv1_postscale
I0508 06:46:57.215625 23565 net.cpp:157] Top shape: 1024 100 42 42 (180633600)
I0508 06:46:57.215628 23565 net.cpp:165] Memory required for data: 2918465536
I0508 06:46:57.215633 23565 layer_factory.hpp:77] Creating layer pool1
I0508 06:46:57.215641 23565 net.cpp:100] Creating Layer pool1
I0508 06:46:57.215644 23565 net.cpp:434] pool1 <- conv1
I0508 06:46:57.215651 23565 net.cpp:408] pool1 -> pool1
I0508 06:46:57.215701 23565 net.cpp:150] Setting up pool1
I0508 06:46:57.215710 23565 net.cpp:157] Top shape: 1024 100 21 21 (45158400)
I0508 06:46:57.215715 23565 net.cpp:165] Memory required for data: 3099099136
I0508 06:46:57.215718 23565 layer_factory.hpp:77] Creating layer conv2
I0508 06:46:57.215730 23565 net.cpp:100] Creating Layer conv2
I0508 06:46:57.215735 23565 net.cpp:434] conv2 <- pool1
I0508 06:46:57.215740 23565 net.cpp:408] conv2 -> conv2
I0508 06:46:57.220284 23565 net.cpp:150] Setting up conv2
I0508 06:46:57.220301 23565 net.cpp:157] Top shape: 1024 150 18 18 (49766400)
I0508 06:46:57.220306 23565 net.cpp:165] Memory required for data: 3298164736
I0508 06:46:57.220316 23565 layer_factory.hpp:77] Creating layer conv2_prescale
I0508 06:46:57.220331 23565 net.cpp:100] Creating Layer conv2_prescale
I0508 06:46:57.220336 23565 net.cpp:434] conv2_prescale <- conv2
I0508 06:46:57.220342 23565 net.cpp:395] conv2_prescale -> conv2 (in-place)
I0508 06:46:57.220448 23565 net.cpp:150] Setting up conv2_prescale
I0508 06:46:57.220458 23565 net.cpp:157] Top shape: 1024 150 18 18 (49766400)
I0508 06:46:57.220461 23565 net.cpp:165] Memory required for data: 3497230336
I0508 06:46:57.220465 23565 layer_factory.hpp:77] Creating layer conv2_sTanH
I0508 06:46:57.220471 23565 net.cpp:100] Creating Layer conv2_sTanH
I0508 06:46:57.220475 23565 net.cpp:434] conv2_sTanH <- conv2
I0508 06:46:57.220481 23565 net.cpp:395] conv2_sTanH -> conv2 (in-place)
I0508 06:46:57.220664 23565 net.cpp:150] Setting up conv2_sTanH
I0508 06:46:57.220675 23565 net.cpp:157] Top shape: 1024 150 18 18 (49766400)
I0508 06:46:57.220679 23565 net.cpp:165] Memory required for data: 3696295936
I0508 06:46:57.220682 23565 layer_factory.hpp:77] Creating layer conv2_postscale
I0508 06:46:57.220690 23565 net.cpp:100] Creating Layer conv2_postscale
I0508 06:46:57.220695 23565 net.cpp:434] conv2_postscale <- conv2
I0508 06:46:57.220701 23565 net.cpp:395] conv2_postscale -> conv2 (in-place)
I0508 06:46:57.220798 23565 net.cpp:150] Setting up conv2_postscale
I0508 06:46:57.220805 23565 net.cpp:157] Top shape: 1024 150 18 18 (49766400)
I0508 06:46:57.220808 23565 net.cpp:165] Memory required for data: 3895361536
I0508 06:46:57.220813 23565 layer_factory.hpp:77] Creating layer pool2
I0508 06:46:57.220821 23565 net.cpp:100] Creating Layer pool2
I0508 06:46:57.220825 23565 net.cpp:434] pool2 <- conv2
I0508 06:46:57.220830 23565 net.cpp:408] pool2 -> pool2
I0508 06:46:57.220873 23565 net.cpp:150] Setting up pool2
I0508 06:46:57.220881 23565 net.cpp:157] Top shape: 1024 150 9 9 (12441600)
I0508 06:46:57.220885 23565 net.cpp:165] Memory required for data: 3945127936
I0508 06:46:57.220888 23565 layer_factory.hpp:77] Creating layer conv3
I0508 06:46:57.220896 23565 net.cpp:100] Creating Layer conv3
I0508 06:46:57.220901 23565 net.cpp:434] conv3 <- pool2
I0508 06:46:57.220907 23565 net.cpp:408] conv3 -> conv3
I0508 06:46:57.243098 23565 net.cpp:150] Setting up conv3
I0508 06:46:57.243119 23565 net.cpp:157] Top shape: 1024 250 6 6 (9216000)
I0508 06:46:57.243121 23565 net.cpp:165] Memory required for data: 3981991936
I0508 06:46:57.243134 23565 layer_factory.hpp:77] Creating layer conv3_prescale
I0508 06:46:57.243144 23565 net.cpp:100] Creating Layer conv3_prescale
I0508 06:46:57.243160 23565 net.cpp:434] conv3_prescale <- conv3
I0508 06:46:57.243168 23565 net.cpp:395] conv3_prescale -> conv3 (in-place)
I0508 06:46:57.243266 23565 net.cpp:150] Setting up conv3_prescale
I0508 06:46:57.243275 23565 net.cpp:157] Top shape: 1024 250 6 6 (9216000)
I0508 06:46:57.243278 23565 net.cpp:165] Memory required for data: 4018855936
I0508 06:46:57.243283 23565 layer_factory.hpp:77] Creating layer conv3_sTanH
I0508 06:46:57.243290 23565 net.cpp:100] Creating Layer conv3_sTanH
I0508 06:46:57.243295 23565 net.cpp:434] conv3_sTanH <- conv3
I0508 06:46:57.243299 23565 net.cpp:395] conv3_sTanH -> conv3 (in-place)
I0508 06:46:57.243494 23565 net.cpp:150] Setting up conv3_sTanH
I0508 06:46:57.243505 23565 net.cpp:157] Top shape: 1024 250 6 6 (9216000)
I0508 06:46:57.243506 23565 net.cpp:165] Memory required for data: 4055719936
I0508 06:46:57.243510 23565 layer_factory.hpp:77] Creating layer conv3_postscale
I0508 06:46:57.243517 23565 net.cpp:100] Creating Layer conv3_postscale
I0508 06:46:57.243522 23565 net.cpp:434] conv3_postscale <- conv3
I0508 06:46:57.243526 23565 net.cpp:395] conv3_postscale -> conv3 (in-place)
I0508 06:46:57.243620 23565 net.cpp:150] Setting up conv3_postscale
I0508 06:46:57.243628 23565 net.cpp:157] Top shape: 1024 250 6 6 (9216000)
I0508 06:46:57.243631 23565 net.cpp:165] Memory required for data: 4092583936
I0508 06:46:57.243635 23565 layer_factory.hpp:77] Creating layer pool3
I0508 06:46:57.243645 23565 net.cpp:100] Creating Layer pool3
I0508 06:46:57.243649 23565 net.cpp:434] pool3 <- conv3
I0508 06:46:57.243655 23565 net.cpp:408] pool3 -> pool3
I0508 06:46:57.243695 23565 net.cpp:150] Setting up pool3
I0508 06:46:57.243703 23565 net.cpp:157] Top shape: 1024 250 3 3 (2304000)
I0508 06:46:57.243705 23565 net.cpp:165] Memory required for data: 4101799936
I0508 06:46:57.243708 23565 layer_factory.hpp:77] Creating layer fc4_300
I0508 06:46:57.243716 23565 net.cpp:100] Creating Layer fc4_300
I0508 06:46:57.243718 23565 net.cpp:434] fc4_300 <- pool3
I0508 06:46:57.243724 23565 net.cpp:408] fc4_300 -> fc4_300
I0508 06:46:57.249689 23565 net.cpp:150] Setting up fc4_300
I0508 06:46:57.249707 23565 net.cpp:157] Top shape: 1024 300 (307200)
I0508 06:46:57.249711 23565 net.cpp:165] Memory required for data: 4103028736
I0508 06:46:57.249718 23565 layer_factory.hpp:77] Creating layer fc4_prescale
I0508 06:46:57.249725 23565 net.cpp:100] Creating Layer fc4_prescale
I0508 06:46:57.249728 23565 net.cpp:434] fc4_prescale <- fc4_300
I0508 06:46:57.249737 23565 net.cpp:395] fc4_prescale -> fc4_300 (in-place)
I0508 06:46:57.249833 23565 net.cpp:150] Setting up fc4_prescale
I0508 06:46:57.249841 23565 net.cpp:157] Top shape: 1024 300 (307200)
I0508 06:46:57.249845 23565 net.cpp:165] Memory required for data: 4104257536
I0508 06:46:57.249850 23565 layer_factory.hpp:77] Creating layer fc4_sTanH
I0508 06:46:57.249855 23565 net.cpp:100] Creating Layer fc4_sTanH
I0508 06:46:57.249857 23565 net.cpp:434] fc4_sTanH <- fc4_300
I0508 06:46:57.249862 23565 net.cpp:395] fc4_sTanH -> fc4_300 (in-place)
I0508 06:46:57.251492 23565 net.cpp:150] Setting up fc4_sTanH
I0508 06:46:57.251513 23565 net.cpp:157] Top shape: 1024 300 (307200)
I0508 06:46:57.251516 23565 net.cpp:165] Memory required for data: 4105486336
I0508 06:46:57.251520 23565 layer_factory.hpp:77] Creating layer fc4_postscale
I0508 06:46:57.251528 23565 net.cpp:100] Creating Layer fc4_postscale
I0508 06:46:57.251531 23565 net.cpp:434] fc4_postscale <- fc4_300
I0508 06:46:57.251541 23565 net.cpp:395] fc4_postscale -> fc4_300 (in-place)
I0508 06:46:57.251655 23565 net.cpp:150] Setting up fc4_postscale
I0508 06:46:57.251665 23565 net.cpp:157] Top shape: 1024 300 (307200)
I0508 06:46:57.251668 23565 net.cpp:165] Memory required for data: 4106715136
I0508 06:46:57.251673 23565 layer_factory.hpp:77] Creating layer fc5_116
I0508 06:46:57.251683 23565 net.cpp:100] Creating Layer fc5_116
I0508 06:46:57.251688 23565 net.cpp:434] fc5_116 <- fc4_300
I0508 06:46:57.251695 23565 net.cpp:408] fc5_116 -> fc5_classes
I0508 06:46:57.261238 23565 net.cpp:150] Setting up fc5_116
I0508 06:46:57.261257 23565 net.cpp:157] Top shape: 1024 116 (118784)
I0508 06:46:57.261260 23565 net.cpp:165] Memory required for data: 4107190272
I0508 06:46:57.261276 23565 layer_factory.hpp:77] Creating layer fc5_classes_fc5_116_0_split
I0508 06:46:57.261283 23565 net.cpp:100] Creating Layer fc5_classes_fc5_116_0_split
I0508 06:46:57.261287 23565 net.cpp:434] fc5_classes_fc5_116_0_split <- fc5_classes
I0508 06:46:57.261293 23565 net.cpp:408] fc5_classes_fc5_116_0_split -> fc5_classes_fc5_116_0_split_0
I0508 06:46:57.261302 23565 net.cpp:408] fc5_classes_fc5_116_0_split -> fc5_classes_fc5_116_0_split_1
I0508 06:46:57.261310 23565 net.cpp:408] fc5_classes_fc5_116_0_split -> fc5_classes_fc5_116_0_split_2
I0508 06:46:57.261365 23565 net.cpp:150] Setting up fc5_classes_fc5_116_0_split
I0508 06:46:57.261373 23565 net.cpp:157] Top shape: 1024 116 (118784)
I0508 06:46:57.261378 23565 net.cpp:157] Top shape: 1024 116 (118784)
I0508 06:46:57.261381 23565 net.cpp:157] Top shape: 1024 116 (118784)
I0508 06:46:57.261384 23565 net.cpp:165] Memory required for data: 4108615680
I0508 06:46:57.261386 23565 layer_factory.hpp:77] Creating layer softmax
I0508 06:46:57.261392 23565 net.cpp:100] Creating Layer softmax
I0508 06:46:57.261396 23565 net.cpp:434] softmax <- fc5_classes_fc5_116_0_split_0
I0508 06:46:57.261401 23565 net.cpp:408] softmax -> softmax
I0508 06:46:57.261673 23565 net.cpp:150] Setting up softmax
I0508 06:46:57.261687 23565 net.cpp:157] Top shape: 1024 116 (118784)
I0508 06:46:57.261689 23565 net.cpp:165] Memory required for data: 4109090816
I0508 06:46:57.261693 23565 layer_factory.hpp:77] Creating layer loss
I0508 06:46:57.261701 23565 net.cpp:100] Creating Layer loss
I0508 06:46:57.261704 23565 net.cpp:434] loss <- softmax
I0508 06:46:57.261709 23565 net.cpp:434] loss <- label_data_1_split_0
I0508 06:46:57.261714 23565 net.cpp:408] loss -> loss
…
