…
I0415 17:55:13.661321 15960 solver.cpp:93] Creating training net from train_net file: ./Prototxt/experiment_12/rtsd-r3/histeq/trial_1/train.prototxt
I0415 17:55:13.679724 15960 net.cpp:58] Initializing net from parameters: 
state {
  phase: TRAIN
  level: 0
  stage: ""
}
layer {
  name: "data"
  type: "Data"
  top: "data"
  top: "label"
  include {
    phase: TRAIN
  }
  transform_param {
    scale: 0.0039215689
    mirror: false
    crop_size: 48
    mean_value: 135
    mean_value: 128
    mean_value: 128
  }
  data_param {
    source: "../local_data/lmdb/rtsd-r3/histeq/train/lmdb"
    batch_size: 1024
    backend: LMDB
  }
}
layer {
  name: "conv1"
  type: "Convolution"
  bottom: "data"
  top: "conv1"
  convolution_param {
    num_output: 100
    pad: 0
    kernel_size: 7
    group: 1
    stride: 1
    weight_filler {
      type: "xavier"
    }
  }
}
layer {
  name: "conv1_relu"
  type: "ReLU"
  bottom: "conv1"
  top: "conv1"
}
layer {
  name: "pool1"
  type: "Pooling"
  bottom: "conv1"
  top: "pool1"
  pooling_param {
    pool: MAX
    kernel_size: 2
    stride: 2
  }
}
layer {
  name: "conv2"
  type: "Convolution"
  bottom: "pool1"
  top: "conv2"
  convolution_param {
    num_output: 150
    pad: 0
    kernel_size: 4
    group: 1
    stride: 1
    weight_filler {
      type: "xavier"
    }
  }
}
layer {
  name: "conv2_relu"
  type: "ReLU"
  bottom: "conv2"
  top: "conv2"
}
layer {
  name: "pool2"
  type: "Pooling"
  bottom: "conv2"
  top: "pool2"
  pooling_param {
    pool: MAX
    kernel_size: 2
    stride: 2
  }
}
layer {
  name: "conv3"
  type: "Convolution"
  bottom: "pool2"
  top: "conv3"
  convolution_param {
    num_output: 250
    pad: 0
    kernel_size: 4
    group: 1
    stride: 1
    weight_filler {
      type: "xavier"
    }
  }
}
layer {
  name: "conv3_relu"
  type: "ReLU"
  bottom: "conv3"
  top: "conv3"
}
layer {
  name: "pool3"
  type: "Pooling"
  bottom: "conv3"
  top: "pool3"
  pooling_param {
    pool: MAX
    kernel_size: 2
    stride: 2
  }
}
layer {
  name: "fc4_300"
  type: "InnerProduct"
  bottom: "pool3"
  top: "fc4_300"
  inner_product_param {
    num_output: 300
    weight_filler {
      type: "xavier"
    }
  }
}
layer {
  name: "fc4_relu"
  type: "ReLU"
  bottom: "fc4_300"
  top: "fc4_300"
}
layer {
  name: "drop4"
  type: "Dropout"
  bottom: "fc4_300"
  top: "fc4_300"
  dropout_param {
    dropout_ratio: 0.5
  }
}
layer {
  name: "fc5_106"
  type: "InnerProduct"
  bottom: "fc4_300"
  top: "fc5_classes"
  inner_product_param {
    num_output: 106
    weight_filler {
      type: "xavier"
    }
  }
}
layer {
  name: "softmax"
  type: "Softmax"
  bottom: "fc5_classes"
  top: "softmax"
}
layer {
  name: "loss"
  type: "MultinomialLogisticLoss"
  bottom: "softmax"
  bottom: "label"
  top: "loss"
}
layer {
  name: "accuracy_1"
  type: "Accuracy"
  bottom: "fc5_classes"
  bottom: "label"
  top: "accuracy_1"
  accuracy_param {
    top_k: 1
  }
}
layer {
  name: "accuracy_5"
  type: "Accuracy"
  bottom: "fc5_classes"
  bottom: "label"
  top: "accuracy_5"
  accuracy_param {
    top_k: 5
  }
}
layer {
  name: "silence"
  type: "Silence"
  bottom: "accuracy_1"
  bottom: "accuracy_5"
}
I0415 17:55:13.679888 15960 layer_factory.hpp:77] Creating layer data
I0415 17:55:13.681613 15960 net.cpp:100] Creating Layer data
I0415 17:55:13.681632 15960 net.cpp:408] data -> data
I0415 17:55:13.681655 15960 net.cpp:408] data -> label
I0415 17:55:13.724830 16189 db_lmdb.cpp:35] Opened lmdb ../local_data/lmdb/rtsd-r3/histeq/train/lmdb
I0415 17:55:13.758474 15960 data_layer.cpp:41] output data size: 1024,3,48,48
I0415 17:55:13.817203 15960 net.cpp:150] Setting up data
I0415 17:55:13.817239 15960 net.cpp:157] Top shape: 1024 3 48 48 (7077888)
I0415 17:55:13.817245 15960 net.cpp:157] Top shape: 1024 (1024)
I0415 17:55:13.817247 15960 net.cpp:165] Memory required for data: 28315648
I0415 17:55:13.817260 15960 layer_factory.hpp:77] Creating layer label_data_1_split
I0415 17:55:13.817278 15960 net.cpp:100] Creating Layer label_data_1_split
I0415 17:55:13.817287 15960 net.cpp:434] label_data_1_split <- label
I0415 17:55:13.817306 15960 net.cpp:408] label_data_1_split -> label_data_1_split_0
I0415 17:55:13.817322 15960 net.cpp:408] label_data_1_split -> label_data_1_split_1
I0415 17:55:13.817334 15960 net.cpp:408] label_data_1_split -> label_data_1_split_2
I0415 17:55:13.817446 15960 net.cpp:150] Setting up label_data_1_split
I0415 17:55:13.817461 15960 net.cpp:157] Top shape: 1024 (1024)
I0415 17:55:13.817466 15960 net.cpp:157] Top shape: 1024 (1024)
I0415 17:55:13.817471 15960 net.cpp:157] Top shape: 1024 (1024)
I0415 17:55:13.817473 15960 net.cpp:165] Memory required for data: 28327936
I0415 17:55:13.817478 15960 layer_factory.hpp:77] Creating layer conv1
I0415 17:55:13.817507 15960 net.cpp:100] Creating Layer conv1
I0415 17:55:13.817518 15960 net.cpp:434] conv1 <- data
I0415 17:55:13.817535 15960 net.cpp:408] conv1 -> conv1
I0415 17:55:13.939761 16205 blocking_queue.cpp:50] Waiting for data
I0415 17:55:14.298317 15960 net.cpp:150] Setting up conv1
I0415 17:55:14.298349 15960 net.cpp:157] Top shape: 1024 100 42 42 (180633600)
I0415 17:55:14.298354 15960 net.cpp:165] Memory required for data: 750862336
I0415 17:55:14.298377 15960 layer_factory.hpp:77] Creating layer conv1_relu
I0415 17:55:14.298388 15960 net.cpp:100] Creating Layer conv1_relu
I0415 17:55:14.298394 15960 net.cpp:434] conv1_relu <- conv1
I0415 17:55:14.298401 15960 net.cpp:395] conv1_relu -> conv1 (in-place)
I0415 17:55:14.298606 15960 net.cpp:150] Setting up conv1_relu
I0415 17:55:14.298620 15960 net.cpp:157] Top shape: 1024 100 42 42 (180633600)
I0415 17:55:14.298624 15960 net.cpp:165] Memory required for data: 1473396736
I0415 17:55:14.298626 15960 layer_factory.hpp:77] Creating layer pool1
I0415 17:55:14.298637 15960 net.cpp:100] Creating Layer pool1
I0415 17:55:14.298642 15960 net.cpp:434] pool1 <- conv1
I0415 17:55:14.298648 15960 net.cpp:408] pool1 -> pool1
I0415 17:55:14.298722 15960 net.cpp:150] Setting up pool1
I0415 17:55:14.298734 15960 net.cpp:157] Top shape: 1024 100 21 21 (45158400)
I0415 17:55:14.298738 15960 net.cpp:165] Memory required for data: 1654030336
I0415 17:55:14.298740 15960 layer_factory.hpp:77] Creating layer conv2
I0415 17:55:14.298754 15960 net.cpp:100] Creating Layer conv2
I0415 17:55:14.298759 15960 net.cpp:434] conv2 <- pool1
I0415 17:55:14.298770 15960 net.cpp:408] conv2 -> conv2
I0415 17:55:14.304810 15960 net.cpp:150] Setting up conv2
I0415 17:55:14.304828 15960 net.cpp:157] Top shape: 1024 150 18 18 (49766400)
I0415 17:55:14.304832 15960 net.cpp:165] Memory required for data: 1853095936
I0415 17:55:14.304843 15960 layer_factory.hpp:77] Creating layer conv2_relu
I0415 17:55:14.304852 15960 net.cpp:100] Creating Layer conv2_relu
I0415 17:55:14.304857 15960 net.cpp:434] conv2_relu <- conv2
I0415 17:55:14.304862 15960 net.cpp:395] conv2_relu -> conv2 (in-place)
I0415 17:55:14.305668 15960 net.cpp:150] Setting up conv2_relu
I0415 17:55:14.305690 15960 net.cpp:157] Top shape: 1024 150 18 18 (49766400)
I0415 17:55:14.305694 15960 net.cpp:165] Memory required for data: 2052161536
I0415 17:55:14.305698 15960 layer_factory.hpp:77] Creating layer pool2
I0415 17:55:14.305706 15960 net.cpp:100] Creating Layer pool2
I0415 17:55:14.305711 15960 net.cpp:434] pool2 <- conv2
I0415 17:55:14.305717 15960 net.cpp:408] pool2 -> pool2
I0415 17:55:14.305773 15960 net.cpp:150] Setting up pool2
I0415 17:55:14.305783 15960 net.cpp:157] Top shape: 1024 150 9 9 (12441600)
I0415 17:55:14.305785 15960 net.cpp:165] Memory required for data: 2101927936
I0415 17:55:14.305817 15960 layer_factory.hpp:77] Creating layer conv3
I0415 17:55:14.305830 15960 net.cpp:100] Creating Layer conv3
I0415 17:55:14.305835 15960 net.cpp:434] conv3 <- pool2
I0415 17:55:14.305841 15960 net.cpp:408] conv3 -> conv3
I0415 17:55:14.312687 15960 net.cpp:150] Setting up conv3
I0415 17:55:14.312712 15960 net.cpp:157] Top shape: 1024 250 6 6 (9216000)
I0415 17:55:14.312716 15960 net.cpp:165] Memory required for data: 2138791936
I0415 17:55:14.312727 15960 layer_factory.hpp:77] Creating layer conv3_relu
I0415 17:55:14.312737 15960 net.cpp:100] Creating Layer conv3_relu
I0415 17:55:14.312742 15960 net.cpp:434] conv3_relu <- conv3
I0415 17:55:14.312748 15960 net.cpp:395] conv3_relu -> conv3 (in-place)
I0415 17:55:14.315245 15960 net.cpp:150] Setting up conv3_relu
I0415 17:55:14.315271 15960 net.cpp:157] Top shape: 1024 250 6 6 (9216000)
I0415 17:55:14.315275 15960 net.cpp:165] Memory required for data: 2175655936
I0415 17:55:14.315279 15960 layer_factory.hpp:77] Creating layer pool3
I0415 17:55:14.315285 15960 net.cpp:100] Creating Layer pool3
I0415 17:55:14.315289 15960 net.cpp:434] pool3 <- conv3
I0415 17:55:14.315299 15960 net.cpp:408] pool3 -> pool3
I0415 17:55:14.315363 15960 net.cpp:150] Setting up pool3
I0415 17:55:14.315372 15960 net.cpp:157] Top shape: 1024 250 3 3 (2304000)
I0415 17:55:14.315376 15960 net.cpp:165] Memory required for data: 2184871936
I0415 17:55:14.315379 15960 layer_factory.hpp:77] Creating layer fc4_300
I0415 17:55:14.315389 15960 net.cpp:100] Creating Layer fc4_300
I0415 17:55:14.315394 15960 net.cpp:434] fc4_300 <- pool3
I0415 17:55:14.315403 15960 net.cpp:408] fc4_300 -> fc4_300
I0415 17:55:14.322679 15960 net.cpp:150] Setting up fc4_300
I0415 17:55:14.322700 15960 net.cpp:157] Top shape: 1024 300 (307200)
I0415 17:55:14.322703 15960 net.cpp:165] Memory required for data: 2186100736
I0415 17:55:14.322710 15960 layer_factory.hpp:77] Creating layer fc4_relu
I0415 17:55:14.322716 15960 net.cpp:100] Creating Layer fc4_relu
I0415 17:55:14.322721 15960 net.cpp:434] fc4_relu <- fc4_300
I0415 17:55:14.322726 15960 net.cpp:395] fc4_relu -> fc4_300 (in-place)
I0415 17:55:14.322932 15960 net.cpp:150] Setting up fc4_relu
I0415 17:55:14.322947 15960 net.cpp:157] Top shape: 1024 300 (307200)
I0415 17:55:14.322952 15960 net.cpp:165] Memory required for data: 2187329536
I0415 17:55:14.322955 15960 layer_factory.hpp:77] Creating layer drop4
I0415 17:55:14.322962 15960 net.cpp:100] Creating Layer drop4
I0415 17:55:14.322966 15960 net.cpp:434] drop4 <- fc4_300
I0415 17:55:14.322975 15960 net.cpp:395] drop4 -> fc4_300 (in-place)
I0415 17:55:14.323012 15960 net.cpp:150] Setting up drop4
I0415 17:55:14.323021 15960 net.cpp:157] Top shape: 1024 300 (307200)
I0415 17:55:14.323027 15960 net.cpp:165] Memory required for data: 2188558336
I0415 17:55:14.323034 15960 layer_factory.hpp:77] Creating layer fc5_106
I0415 17:55:14.323040 15960 net.cpp:100] Creating Layer fc5_106
I0415 17:55:14.323046 15960 net.cpp:434] fc5_106 <- fc4_300
I0415 17:55:14.323055 15960 net.cpp:408] fc5_106 -> fc5_classes
I0415 17:55:14.324456 15960 net.cpp:150] Setting up fc5_106
I0415 17:55:14.324473 15960 net.cpp:157] Top shape: 1024 106 (108544)
I0415 17:55:14.324478 15960 net.cpp:165] Memory required for data: 2188992512
I0415 17:55:14.324488 15960 layer_factory.hpp:77] Creating layer fc5_classes_fc5_106_0_split
I0415 17:55:14.324498 15960 net.cpp:100] Creating Layer fc5_classes_fc5_106_0_split
I0415 17:55:14.324503 15960 net.cpp:434] fc5_classes_fc5_106_0_split <- fc5_classes
I0415 17:55:14.324509 15960 net.cpp:408] fc5_classes_fc5_106_0_split -> fc5_classes_fc5_106_0_split_0
I0415 17:55:14.324519 15960 net.cpp:408] fc5_classes_fc5_106_0_split -> fc5_classes_fc5_106_0_split_1
I0415 17:55:14.324527 15960 net.cpp:408] fc5_classes_fc5_106_0_split -> fc5_classes_fc5_106_0_split_2
I0415 17:55:14.324579 15960 net.cpp:150] Setting up fc5_classes_fc5_106_0_split
I0415 17:55:14.324587 15960 net.cpp:157] Top shape: 1024 106 (108544)
I0415 17:55:14.324592 15960 net.cpp:157] Top shape: 1024 106 (108544)
I0415 17:55:14.324596 15960 net.cpp:157] Top shape: 1024 106 (108544)
I0415 17:55:14.324615 15960 net.cpp:165] Memory required for data: 2190295040
I0415 17:55:14.324620 15960 layer_factory.hpp:77] Creating layer softmax
I0415 17:55:14.324628 15960 net.cpp:100] Creating Layer softmax
I0415 17:55:14.324635 15960 net.cpp:434] softmax <- fc5_classes_fc5_106_0_split_0
I0415 17:55:14.324640 15960 net.cpp:408] softmax -> softmax
I0415 17:55:14.324895 15960 net.cpp:150] Setting up softmax
I0415 17:55:14.324908 15960 net.cpp:157] Top shape: 1024 106 (108544)
I0415 17:55:14.324913 15960 net.cpp:165] Memory required for data: 2190729216
I0415 17:55:14.324916 15960 layer_factory.hpp:77] Creating layer loss
I0415 17:55:14.324923 15960 net.cpp:100] Creating Layer loss
I0415 17:55:14.324928 15960 net.cpp:434] loss <- softmax
I0415 17:55:14.324934 15960 net.cpp:434] loss <- label_data_1_split_0
I0415 17:55:14.324940 15960 net.cpp:408] loss -> loss
…
