…
I0411 08:01:07.277806 32337 net.cpp:322] The NetState phase (0) differed from the phase (1) specified by a rule in layer accuracy_5
I0411 08:01:07.277959 32337 net.cpp:58] Initializing net from parameters: 
state {
  phase: TRAIN
  level: 0
  stage: ""
}
layer {
  name: "data"
  type: "Data"
  top: "data"
  top: "label"
  include {
    phase: TRAIN
  }
  transform_param {
    scale: 0.0039215689
    mirror: false
    crop_size: 48
    mean_value: 115
    mean_value: 108
    mean_value: 122
  }
  data_param {
    source: "../local_data/lmdb/rtsd-r1/imajust/train/lmdb"
    batch_size: 1024
    backend: LMDB
  }
}
layer {
  name: "conv1"
  type: "Convolution"
  bottom: "data"
  top: "conv1"
  convolution_param {
    num_output: 100
    pad: 0
    kernel_size: 7
    group: 1
    stride: 1
    weight_filler {
      type: "xavier"
    }
  }
}
layer {
  name: "conv1_prescale"
  type: "Scale"
  bottom: "conv1"
  top: "conv1"
  param {
    lr_mult: 0
    decay_mult: 0
  }
  scale_param {
    filler {
      value: 0.6666
    }
    bias_term: false
  }
}
layer {
  name: "conv1_sTanH"
  type: "TanH"
  bottom: "conv1"
  top: "conv1"
}
layer {
  name: "conv1_postscale"
  type: "Scale"
  bottom: "conv1"
  top: "conv1"
  param {
    lr_mult: 0
    decay_mult: 0
  }
  scale_param {
    filler {
      value: 1.7159
    }
    bias_term: false
  }
}
layer {
  name: "pool1"
  type: "Pooling"
  bottom: "conv1"
  top: "pool1"
  pooling_param {
    pool: MAX
    kernel_size: 2
    stride: 2
  }
}
layer {
  name: "conv2"
  type: "Convolution"
  bottom: "pool1"
  top: "conv2"
  convolution_param {
    num_output: 150
    pad: 0
    kernel_size: 4
    group: 1
    stride: 1
    weight_filler {
      type: "xavier"
    }
  }
}
layer {
  name: "conv2_prescale"
  type: "Scale"
  bottom: "conv2"
  top: "conv2"
  param {
    lr_mult: 0
    decay_mult: 0
  }
  scale_param {
    filler {
      value: 0.6666
    }
    bias_term: false
  }
}
layer {
  name: "conv2_sTanH"
  type: "TanH"
  bottom: "conv2"
  top: "conv2"
}
layer {
  name: "conv2_postscale"
  type: "Scale"
  bottom: "conv2"
  top: "conv2"
  param {
    lr_mult: 0
    decay_mult: 0
  }
  scale_param {
    filler {
      value: 1.7159
    }
    bias_term: false
  }
}
layer {
  name: "pool2"
  type: "Pooling"
  bottom: "conv2"
  top: "pool2"
  pooling_param {
    pool: MAX
    kernel_size: 2
    stride: 2
  }
}
layer {
  name: "conv3"
  type: "Convolution"
  bottom: "pool2"
  top: "conv3"
  convolution_param {
    num_output: 250
    pad: 0
    kernel_size: 4
    group: 1
    stride: 1
    weight_filler {
      type: "xavier"
    }
  }
}
layer {
  name: "conv3_prescale"
  type: "Scale"
  bottom: "conv3"
  top: "conv3"
  param {
    lr_mult: 0
    decay_mult: 0
  }
  scale_param {
    filler {
      value: 0.6666
    }
    bias_term: false
  }
}
layer {
  name: "conv3_sTanH"
  type: "TanH"
  bottom: "conv3"
  top: "conv3"
}
layer {
  name: "conv3_postscale"
  type: "Scale"
  bottom: "conv3"
  top: "conv3"
  param {
    lr_mult: 0
    decay_mult: 0
  }
  scale_param {
    filler {
      value: 1.7159
    }
    bias_term: false
  }
}
layer {
  name: "pool3"
  type: "Pooling"
  bottom: "conv3"
  top: "pool3"
  pooling_param {
    pool: MAX
    kernel_size: 2
    stride: 2
  }
}
layer {
  name: "fc4_300"
  type: "InnerProduct"
  bottom: "pool3"
  top: "fc4_300"
  inner_product_param {
    num_output: 300
    weight_filler {
      type: "xavier"
    }
  }
}
layer {
  name: "fc4_prescale"
  type: "Scale"
  bottom: "fc4_300"
  top: "fc4_300"
  param {
    lr_mult: 0
    decay_mult: 0
  }
  scale_param {
    filler {
      value: 0.6666
    }
    bias_term: false
  }
}
layer {
  name: "fc4_sTanH"
  type: "TanH"
  bottom: "fc4_300"
  top: "fc4_300"
}
layer {
  name: "fc4_postscale"
  type: "Scale"
  bottom: "fc4_300"
  top: "fc4_300"
  param {
    lr_mult: 0
    decay_mult: 0
  }
  scale_param {
    filler {
      value: 1.7159
    }
    bias_term: false
  }
}
layer {
  name: "fc5_67"
  type: "InnerProduct"
  bottom: "fc4_300"
  top: "fc5_classes"
  inner_product_param {
    num_output: 67
    weight_filler {
      type: "xavier"
    }
  }
}
layer {
  name: "loss"
  type: "SoftmaxWithLoss"
  bottom: "fc5_classes"
  bottom: "label"
  top: "loss"
}
I0411 08:01:07.278084 32337 layer_factory.hpp:77] Creating layer data
I0411 08:01:07.279466 32337 net.cpp:100] Creating Layer data
I0411 08:01:07.279482 32337 net.cpp:408] data -> data
I0411 08:01:07.279506 32337 net.cpp:408] data -> label
I0411 08:01:07.291667 32444 db_lmdb.cpp:35] Opened lmdb ../local_data/lmdb/rtsd-r1/imajust/train/lmdb
I0411 08:01:07.308636 32337 data_layer.cpp:41] output data size: 1024,3,48,48
I0411 08:01:07.350603 32337 net.cpp:150] Setting up data
I0411 08:01:07.350634 32337 net.cpp:157] Top shape: 1024 3 48 48 (7077888)
I0411 08:01:07.350641 32337 net.cpp:157] Top shape: 1024 (1024)
I0411 08:01:07.350643 32337 net.cpp:165] Memory required for data: 28315648
I0411 08:01:07.350652 32337 layer_factory.hpp:77] Creating layer conv1
I0411 08:01:07.350675 32337 net.cpp:100] Creating Layer conv1
I0411 08:01:07.350682 32337 net.cpp:434] conv1 <- data
I0411 08:01:07.350694 32337 net.cpp:408] conv1 -> conv1
I0411 08:01:07.630632 32337 net.cpp:150] Setting up conv1
I0411 08:01:07.630672 32337 net.cpp:157] Top shape: 1024 100 42 42 (180633600)
I0411 08:01:07.630676 32337 net.cpp:165] Memory required for data: 750850048
I0411 08:01:07.630698 32337 layer_factory.hpp:77] Creating layer conv1_prescale
I0411 08:01:07.630712 32337 net.cpp:100] Creating Layer conv1_prescale
I0411 08:01:07.630717 32337 net.cpp:434] conv1_prescale <- conv1
I0411 08:01:07.630723 32337 net.cpp:395] conv1_prescale -> conv1 (in-place)
I0411 08:01:07.630831 32337 net.cpp:150] Setting up conv1_prescale
I0411 08:01:07.630841 32337 net.cpp:157] Top shape: 1024 100 42 42 (180633600)
I0411 08:01:07.630843 32337 net.cpp:165] Memory required for data: 1473384448
I0411 08:01:07.630851 32337 layer_factory.hpp:77] Creating layer conv1_sTanH
I0411 08:01:07.630856 32337 net.cpp:100] Creating Layer conv1_sTanH
I0411 08:01:07.630861 32337 net.cpp:434] conv1_sTanH <- conv1
I0411 08:01:07.630866 32337 net.cpp:395] conv1_sTanH -> conv1 (in-place)
I0411 08:01:07.631059 32337 net.cpp:150] Setting up conv1_sTanH
I0411 08:01:07.631072 32337 net.cpp:157] Top shape: 1024 100 42 42 (180633600)
I0411 08:01:07.631074 32337 net.cpp:165] Memory required for data: 2195918848
I0411 08:01:07.631078 32337 layer_factory.hpp:77] Creating layer conv1_postscale
I0411 08:01:07.631085 32337 net.cpp:100] Creating Layer conv1_postscale
I0411 08:01:07.631090 32337 net.cpp:434] conv1_postscale <- conv1
I0411 08:01:07.631095 32337 net.cpp:395] conv1_postscale -> conv1 (in-place)
I0411 08:01:07.631189 32337 net.cpp:150] Setting up conv1_postscale
I0411 08:01:07.631197 32337 net.cpp:157] Top shape: 1024 100 42 42 (180633600)
I0411 08:01:07.631201 32337 net.cpp:165] Memory required for data: 2918453248
I0411 08:01:07.631206 32337 layer_factory.hpp:77] Creating layer pool1
I0411 08:01:07.631211 32337 net.cpp:100] Creating Layer pool1
I0411 08:01:07.631217 32337 net.cpp:434] pool1 <- conv1
I0411 08:01:07.631220 32337 net.cpp:408] pool1 -> pool1
I0411 08:01:07.631268 32337 net.cpp:150] Setting up pool1
I0411 08:01:07.631275 32337 net.cpp:157] Top shape: 1024 100 21 21 (45158400)
I0411 08:01:07.631296 32337 net.cpp:165] Memory required for data: 3099086848
I0411 08:01:07.631300 32337 layer_factory.hpp:77] Creating layer conv2
I0411 08:01:07.631310 32337 net.cpp:100] Creating Layer conv2
I0411 08:01:07.631315 32337 net.cpp:434] conv2 <- pool1
I0411 08:01:07.631320 32337 net.cpp:408] conv2 -> conv2
I0411 08:01:07.637434 32337 net.cpp:150] Setting up conv2
I0411 08:01:07.637454 32337 net.cpp:157] Top shape: 1024 150 18 18 (49766400)
I0411 08:01:07.637456 32337 net.cpp:165] Memory required for data: 3298152448
I0411 08:01:07.637466 32337 layer_factory.hpp:77] Creating layer conv2_prescale
I0411 08:01:07.637476 32337 net.cpp:100] Creating Layer conv2_prescale
I0411 08:01:07.637481 32337 net.cpp:434] conv2_prescale <- conv2
I0411 08:01:07.637487 32337 net.cpp:395] conv2_prescale -> conv2 (in-place)
I0411 08:01:07.637604 32337 net.cpp:150] Setting up conv2_prescale
I0411 08:01:07.637614 32337 net.cpp:157] Top shape: 1024 150 18 18 (49766400)
I0411 08:01:07.637617 32337 net.cpp:165] Memory required for data: 3497218048
I0411 08:01:07.637622 32337 layer_factory.hpp:77] Creating layer conv2_sTanH
I0411 08:01:07.637630 32337 net.cpp:100] Creating Layer conv2_sTanH
I0411 08:01:07.637635 32337 net.cpp:434] conv2_sTanH <- conv2
I0411 08:01:07.637641 32337 net.cpp:395] conv2_sTanH -> conv2 (in-place)
I0411 08:01:07.638687 32337 net.cpp:150] Setting up conv2_sTanH
I0411 08:01:07.638703 32337 net.cpp:157] Top shape: 1024 150 18 18 (49766400)
I0411 08:01:07.638707 32337 net.cpp:165] Memory required for data: 3696283648
I0411 08:01:07.638710 32337 layer_factory.hpp:77] Creating layer conv2_postscale
I0411 08:01:07.638718 32337 net.cpp:100] Creating Layer conv2_postscale
I0411 08:01:07.638721 32337 net.cpp:434] conv2_postscale <- conv2
I0411 08:01:07.638728 32337 net.cpp:395] conv2_postscale -> conv2 (in-place)
I0411 08:01:07.638844 32337 net.cpp:150] Setting up conv2_postscale
I0411 08:01:07.638859 32337 net.cpp:157] Top shape: 1024 150 18 18 (49766400)
I0411 08:01:07.638864 32337 net.cpp:165] Memory required for data: 3895349248
I0411 08:01:07.638872 32337 layer_factory.hpp:77] Creating layer pool2
I0411 08:01:07.638882 32337 net.cpp:100] Creating Layer pool2
I0411 08:01:07.638890 32337 net.cpp:434] pool2 <- conv2
I0411 08:01:07.638900 32337 net.cpp:408] pool2 -> pool2
I0411 08:01:07.638968 32337 net.cpp:150] Setting up pool2
I0411 08:01:07.638980 32337 net.cpp:157] Top shape: 1024 150 9 9 (12441600)
I0411 08:01:07.638983 32337 net.cpp:165] Memory required for data: 3945115648
I0411 08:01:07.638986 32337 layer_factory.hpp:77] Creating layer conv3
I0411 08:01:07.638998 32337 net.cpp:100] Creating Layer conv3
I0411 08:01:07.639003 32337 net.cpp:434] conv3 <- pool2
I0411 08:01:07.639008 32337 net.cpp:408] conv3 -> conv3
I0411 08:01:07.644721 32337 net.cpp:150] Setting up conv3
I0411 08:01:07.644739 32337 net.cpp:157] Top shape: 1024 250 6 6 (9216000)
I0411 08:01:07.644742 32337 net.cpp:165] Memory required for data: 3981979648
I0411 08:01:07.644754 32337 layer_factory.hpp:77] Creating layer conv3_prescale
I0411 08:01:07.644762 32337 net.cpp:100] Creating Layer conv3_prescale
I0411 08:01:07.644767 32337 net.cpp:434] conv3_prescale <- conv3
I0411 08:01:07.644771 32337 net.cpp:395] conv3_prescale -> conv3 (in-place)
I0411 08:01:07.644870 32337 net.cpp:150] Setting up conv3_prescale
I0411 08:01:07.644878 32337 net.cpp:157] Top shape: 1024 250 6 6 (9216000)
I0411 08:01:07.644881 32337 net.cpp:165] Memory required for data: 4018843648
I0411 08:01:07.644886 32337 layer_factory.hpp:77] Creating layer conv3_sTanH
I0411 08:01:07.644892 32337 net.cpp:100] Creating Layer conv3_sTanH
I0411 08:01:07.644896 32337 net.cpp:434] conv3_sTanH <- conv3
I0411 08:01:07.644901 32337 net.cpp:395] conv3_sTanH -> conv3 (in-place)
I0411 08:01:07.645793 32337 net.cpp:150] Setting up conv3_sTanH
I0411 08:01:07.645809 32337 net.cpp:157] Top shape: 1024 250 6 6 (9216000)
I0411 08:01:07.645812 32337 net.cpp:165] Memory required for data: 4055707648
I0411 08:01:07.645817 32337 layer_factory.hpp:77] Creating layer conv3_postscale
I0411 08:01:07.645839 32337 net.cpp:100] Creating Layer conv3_postscale
I0411 08:01:07.645844 32337 net.cpp:434] conv3_postscale <- conv3
I0411 08:01:07.645851 32337 net.cpp:395] conv3_postscale -> conv3 (in-place)
I0411 08:01:07.645958 32337 net.cpp:150] Setting up conv3_postscale
I0411 08:01:07.645968 32337 net.cpp:157] Top shape: 1024 250 6 6 (9216000)
I0411 08:01:07.645972 32337 net.cpp:165] Memory required for data: 4092571648
I0411 08:01:07.645977 32337 layer_factory.hpp:77] Creating layer pool3
I0411 08:01:07.645983 32337 net.cpp:100] Creating Layer pool3
I0411 08:01:07.645988 32337 net.cpp:434] pool3 <- conv3
I0411 08:01:07.645993 32337 net.cpp:408] pool3 -> pool3
I0411 08:01:07.646035 32337 net.cpp:150] Setting up pool3
I0411 08:01:07.646044 32337 net.cpp:157] Top shape: 1024 250 3 3 (2304000)
I0411 08:01:07.646046 32337 net.cpp:165] Memory required for data: 4101787648
I0411 08:01:07.646049 32337 layer_factory.hpp:77] Creating layer fc4_300
I0411 08:01:07.646059 32337 net.cpp:100] Creating Layer fc4_300
I0411 08:01:07.646064 32337 net.cpp:434] fc4_300 <- pool3
I0411 08:01:07.646070 32337 net.cpp:408] fc4_300 -> fc4_300
I0411 08:01:07.652076 32337 net.cpp:150] Setting up fc4_300
I0411 08:01:07.652093 32337 net.cpp:157] Top shape: 1024 300 (307200)
I0411 08:01:07.652096 32337 net.cpp:165] Memory required for data: 4103016448
I0411 08:01:07.652103 32337 layer_factory.hpp:77] Creating layer fc4_prescale
I0411 08:01:07.652112 32337 net.cpp:100] Creating Layer fc4_prescale
I0411 08:01:07.652115 32337 net.cpp:434] fc4_prescale <- fc4_300
I0411 08:01:07.652122 32337 net.cpp:395] fc4_prescale -> fc4_300 (in-place)
I0411 08:01:07.652225 32337 net.cpp:150] Setting up fc4_prescale
I0411 08:01:07.652240 32337 net.cpp:157] Top shape: 1024 300 (307200)
I0411 08:01:07.652246 32337 net.cpp:165] Memory required for data: 4104245248
I0411 08:01:07.652254 32337 layer_factory.hpp:77] Creating layer fc4_sTanH
I0411 08:01:07.652264 32337 net.cpp:100] Creating Layer fc4_sTanH
I0411 08:01:07.652271 32337 net.cpp:434] fc4_sTanH <- fc4_300
I0411 08:01:07.652276 32337 net.cpp:395] fc4_sTanH -> fc4_300 (in-place)
I0411 08:01:07.652472 32337 net.cpp:150] Setting up fc4_sTanH
I0411 08:01:07.652483 32337 net.cpp:157] Top shape: 1024 300 (307200)
I0411 08:01:07.652487 32337 net.cpp:165] Memory required for data: 4105474048
I0411 08:01:07.652489 32337 layer_factory.hpp:77] Creating layer fc4_postscale
I0411 08:01:07.652498 32337 net.cpp:100] Creating Layer fc4_postscale
I0411 08:01:07.652503 32337 net.cpp:434] fc4_postscale <- fc4_300
I0411 08:01:07.652508 32337 net.cpp:395] fc4_postscale -> fc4_300 (in-place)
I0411 08:01:07.652607 32337 net.cpp:150] Setting up fc4_postscale
I0411 08:01:07.652616 32337 net.cpp:157] Top shape: 1024 300 (307200)
I0411 08:01:07.652617 32337 net.cpp:165] Memory required for data: 4106702848
I0411 08:01:07.652622 32337 layer_factory.hpp:77] Creating layer fc5_67
I0411 08:01:07.652629 32337 net.cpp:100] Creating Layer fc5_67
I0411 08:01:07.652634 32337 net.cpp:434] fc5_67 <- fc4_300
I0411 08:01:07.652639 32337 net.cpp:408] fc5_67 -> fc5_classes
I0411 08:01:07.654251 32337 net.cpp:150] Setting up fc5_67
I0411 08:01:07.654268 32337 net.cpp:157] Top shape: 1024 67 (68608)
I0411 08:01:07.654270 32337 net.cpp:165] Memory required for data: 4106977280
I0411 08:01:07.654280 32337 layer_factory.hpp:77] Creating layer loss
I0411 08:01:07.654287 32337 net.cpp:100] Creating Layer loss
I0411 08:01:07.654291 32337 net.cpp:434] loss <- fc5_classes
I0411 08:01:07.654295 32337 net.cpp:434] loss <- label
I0411 08:01:07.654301 32337 net.cpp:408] loss -> loss
I0411 08:01:07.654314 32337 layer_factory.hpp:77] Creating layer loss
…
I0411 08:01:07.655066 32337 solver.cpp:193] Creating test net (#0) specified by test_net file: ./Prototxt/experiment_8/rtsd-r1/imajust/trial_3/test.prototxt
I0411 08:01:07.655242 32337 net.cpp:58] Initializing net from parameters: 
state {
  phase: TEST
}
layer {
  name: "data"
  type: "Data"
  top: "data"
  top: "label"
  include {
    phase: TEST
  }
  transform_param {
    scale: 0.0039215689
    mirror: false
    crop_size: 48
    mean_value: 109
    mean_value: 106
    mean_value: 126
  }
  data_param {
    source: "../local_data/lmdb/rtsd-r1/imajust/test/lmdb"
    batch_size: 1024
    backend: LMDB
  }
}
layer {
  name: "conv1"
  type: "Convolution"
  bottom: "data"
  top: "conv1"
  convolution_param {
    num_output: 100
    pad: 0
    kernel_size: 7
    group: 1
    stride: 1
    weight_filler {
      type: "xavier"
    }
  }
}
layer {
  name: "conv1_prescale"
  type: "Scale"
  bottom: "conv1"
  top: "conv1"
  param {
    lr_mult: 0
    decay_mult: 0
  }
  scale_param {
    filler {
      value: 0.6666
    }
    bias_term: false
  }
}
layer {
  name: "conv1_sTanH"
  type: "TanH"
  bottom: "conv1"
  top: "conv1"
}
layer {
  name: "conv1_postscale"
  type: "Scale"
  bottom: "conv1"
  top: "conv1"
  param {
    lr_mult: 0
    decay_mult: 0
  }
  scale_param {
    filler {
      value: 1.7159
    }
    bias_term: false
  }
}
layer {
  name: "pool1"
  type: "Pooling"
  bottom: "conv1"
  top: "pool1"
  pooling_param {
    pool: MAX
    kernel_size: 2
    stride: 2
  }
}
layer {
  name: "conv2"
  type: "Convolution"
  bottom: "pool1"
  top: "conv2"
  convolution_param {
    num_output: 150
    pad: 0
    kernel_size: 4
    group: 1
    stride: 1
    weight_filler {
      type: "xavier"
    }
  }
}
layer {
  name: "conv2_prescale"
  type: "Scale"
  bottom: "conv2"
  top: "conv2"
  param {
    lr_mult: 0
    decay_mult: 0
  }
  scale_param {
    filler {
      value: 0.6666
    }
    bias_term: false
  }
}
layer {
  name: "conv2_sTanH"
  type: "TanH"
  bottom: "conv2"
  top: "conv2"
}
layer {
  name: "conv2_postscale"
  type: "Scale"
  bottom: "conv2"
  top: "conv2"
  param {
    lr_mult: 0
    decay_mult: 0
  }
  scale_param {
    filler {
      value: 1.7159
    }
    bias_term: false
  }
}
layer {
  name: "pool2"
  type: "Pooling"
  bottom: "conv2"
  top: "pool2"
  pooling_param {
    pool: MAX
    kernel_size: 2
    stride: 2
  }
}
layer {
  name: "conv3"
  type: "Convolution"
  bottom: "pool2"
  top: "conv3"
  convolution_param {
    num_output: 250
    pad: 0
    kernel_size: 4
    group: 1
    stride: 1
    weight_filler {
      type: "xavier"
    }
  }
}
layer {
  name: "conv3_prescale"
  type: "Scale"
  bottom: "conv3"
  top: "conv3"
  param {
    lr_mult: 0
    decay_mult: 0
  }
  scale_param {
    filler {
      value: 0.6666
    }
    bias_term: false
  }
}
layer {
  name: "conv3_sTanH"
  type: "TanH"
  bottom: "conv3"
  top: "conv3"
}
layer {
  name: "conv3_postscale"
  type: "Scale"
  bottom: "conv3"
  top: "conv3"
  param {
    lr_mult: 0
    decay_mult: 0
  }
  scale_param {
    filler {
      value: 1.7159
    }
    bias_term: false
  }
}
layer {
  name: "pool3"
  type: "Pooling"
  bottom: "conv3"
  top: "pool3"
  pooling_param {
    pool: MAX
    kernel_size: 2
    stride: 2
  }
}
layer {
  name: "fc4_300"
  type: "InnerProduct"
  bottom: "pool3"
  top: "fc4_300"
  inner_product_param {
    num_output: 300
    weight_filler {
      type: "xavier"
    }
  }
}
layer {
  name: "fc4_prescale"
  type: "Scale"
  bottom: "fc4_300"
  top: "fc4_300"
  param {
    lr_mult: 0
    decay_mult: 0
  }
  scale_param {
    filler {
      value: 0.6666
    }
    bias_term: false
  }
}
layer {
  name: "fc4_sTanH"
  type: "TanH"
  bottom: "fc4_300"
  top: "fc4_300"
}
layer {
  name: "fc4_postscale"
  type: "Scale"
  bottom: "fc4_300"
  top: "fc4_300"
  param {
    lr_mult: 0
    decay_mult: 0
  }
  scale_param {
    filler {
      value: 1.7159
    }
    bias_term: false
  }
}
layer {
  name: "fc5_67"
  type: "InnerProduct"
  bottom: "fc4_300"
  top: "fc5_classes"
  inner_product_param {
    num_output: 67
    weight_filler {
      type: "xavier"
    }
  }
}
layer {
  name: "loss"
  type: "SoftmaxWithLoss"
  bottom: "fc5_classes"
  bottom: "label"
  top: "loss"
}
layer {
  name: "accuracy_1"
  type: "Accuracy"
  bottom: "fc5_classes"
  bottom: "label"
  top: "accuracy_1"
  include {
    phase: TEST
  }
  accuracy_param {
    top_k: 1
  }
}
layer {
  name: "accuracy_5"
  type: "Accuracy"
  bottom: "fc5_classes"
  bottom: "label"
  top: "accuracy_5"
  include {
    phase: TEST
  }
  accuracy_param {
    top_k: 5
  }
}
I0411 08:01:07.655364 32337 layer_factory.hpp:77] Creating layer data
I0411 08:01:07.656035 32337 net.cpp:100] Creating Layer data
I0411 08:01:07.656059 32337 net.cpp:408] data -> data
I0411 08:01:07.656070 32337 net.cpp:408] data -> label
I0411 08:01:07.659406 32480 db_lmdb.cpp:35] Opened lmdb ../local_data/lmdb/rtsd-r1/imajust/test/lmdb
I0411 08:01:07.659564 32337 data_layer.cpp:41] output data size: 1024,3,48,48
I0411 08:01:07.703022 32337 net.cpp:150] Setting up data
I0411 08:01:07.703049 32337 net.cpp:157] Top shape: 1024 3 48 48 (7077888)
I0411 08:01:07.703054 32337 net.cpp:157] Top shape: 1024 (1024)
I0411 08:01:07.703058 32337 net.cpp:165] Memory required for data: 28315648
I0411 08:01:07.703063 32337 layer_factory.hpp:77] Creating layer label_data_1_split
I0411 08:01:07.703078 32337 net.cpp:100] Creating Layer label_data_1_split
I0411 08:01:07.703081 32337 net.cpp:434] label_data_1_split <- label
I0411 08:01:07.703088 32337 net.cpp:408] label_data_1_split -> label_data_1_split_0
I0411 08:01:07.703100 32337 net.cpp:408] label_data_1_split -> label_data_1_split_1
I0411 08:01:07.703106 32337 net.cpp:408] label_data_1_split -> label_data_1_split_2
I0411 08:01:07.703194 32337 net.cpp:150] Setting up label_data_1_split
I0411 08:01:07.703203 32337 net.cpp:157] Top shape: 1024 (1024)
I0411 08:01:07.703207 32337 net.cpp:157] Top shape: 1024 (1024)
I0411 08:01:07.703210 32337 net.cpp:157] Top shape: 1024 (1024)
I0411 08:01:07.703212 32337 net.cpp:165] Memory required for data: 28327936
I0411 08:01:07.703215 32337 layer_factory.hpp:77] Creating layer conv1
I0411 08:01:07.703228 32337 net.cpp:100] Creating Layer conv1
I0411 08:01:07.703233 32337 net.cpp:434] conv1 <- data
I0411 08:01:07.703238 32337 net.cpp:408] conv1 -> conv1
I0411 08:01:07.705896 32337 net.cpp:150] Setting up conv1
I0411 08:01:07.705914 32337 net.cpp:157] Top shape: 1024 100 42 42 (180633600)
I0411 08:01:07.705935 32337 net.cpp:165] Memory required for data: 750862336
I0411 08:01:07.705947 32337 layer_factory.hpp:77] Creating layer conv1_prescale
I0411 08:01:07.705960 32337 net.cpp:100] Creating Layer conv1_prescale
I0411 08:01:07.705965 32337 net.cpp:434] conv1_prescale <- conv1
I0411 08:01:07.705970 32337 net.cpp:395] conv1_prescale -> conv1 (in-place)
I0411 08:01:07.706085 32337 net.cpp:150] Setting up conv1_prescale
I0411 08:01:07.706094 32337 net.cpp:157] Top shape: 1024 100 42 42 (180633600)
I0411 08:01:07.706099 32337 net.cpp:165] Memory required for data: 1473396736
I0411 08:01:07.706105 32337 layer_factory.hpp:77] Creating layer conv1_sTanH
I0411 08:01:07.706113 32337 net.cpp:100] Creating Layer conv1_sTanH
I0411 08:01:07.706117 32337 net.cpp:434] conv1_sTanH <- conv1
I0411 08:01:07.706121 32337 net.cpp:395] conv1_sTanH -> conv1 (in-place)
I0411 08:01:07.706324 32337 net.cpp:150] Setting up conv1_sTanH
I0411 08:01:07.706337 32337 net.cpp:157] Top shape: 1024 100 42 42 (180633600)
I0411 08:01:07.706341 32337 net.cpp:165] Memory required for data: 2195931136
I0411 08:01:07.706344 32337 layer_factory.hpp:77] Creating layer conv1_postscale
I0411 08:01:07.706351 32337 net.cpp:100] Creating Layer conv1_postscale
I0411 08:01:07.706353 32337 net.cpp:434] conv1_postscale <- conv1
I0411 08:01:07.706360 32337 net.cpp:395] conv1_postscale -> conv1 (in-place)
I0411 08:01:07.706477 32337 net.cpp:150] Setting up conv1_postscale
I0411 08:01:07.706486 32337 net.cpp:157] Top shape: 1024 100 42 42 (180633600)
I0411 08:01:07.706490 32337 net.cpp:165] Memory required for data: 2918465536
I0411 08:01:07.706495 32337 layer_factory.hpp:77] Creating layer pool1
I0411 08:01:07.706501 32337 net.cpp:100] Creating Layer pool1
I0411 08:01:07.706503 32337 net.cpp:434] pool1 <- conv1
I0411 08:01:07.706511 32337 net.cpp:408] pool1 -> pool1
I0411 08:01:07.706553 32337 net.cpp:150] Setting up pool1
I0411 08:01:07.706563 32337 net.cpp:157] Top shape: 1024 100 21 21 (45158400)
I0411 08:01:07.706567 32337 net.cpp:165] Memory required for data: 3099099136
I0411 08:01:07.706569 32337 layer_factory.hpp:77] Creating layer conv2
I0411 08:01:07.706576 32337 net.cpp:100] Creating Layer conv2
I0411 08:01:07.706579 32337 net.cpp:434] conv2 <- pool1
I0411 08:01:07.706586 32337 net.cpp:408] conv2 -> conv2
I0411 08:01:07.712620 32337 net.cpp:150] Setting up conv2
I0411 08:01:07.712641 32337 net.cpp:157] Top shape: 1024 150 18 18 (49766400)
I0411 08:01:07.712644 32337 net.cpp:165] Memory required for data: 3298164736
I0411 08:01:07.712654 32337 layer_factory.hpp:77] Creating layer conv2_prescale
I0411 08:01:07.712666 32337 net.cpp:100] Creating Layer conv2_prescale
I0411 08:01:07.712672 32337 net.cpp:434] conv2_prescale <- conv2
I0411 08:01:07.712678 32337 net.cpp:395] conv2_prescale -> conv2 (in-place)
I0411 08:01:07.712797 32337 net.cpp:150] Setting up conv2_prescale
I0411 08:01:07.712806 32337 net.cpp:157] Top shape: 1024 150 18 18 (49766400)
I0411 08:01:07.712810 32337 net.cpp:165] Memory required for data: 3497230336
I0411 08:01:07.712815 32337 layer_factory.hpp:77] Creating layer conv2_sTanH
I0411 08:01:07.712822 32337 net.cpp:100] Creating Layer conv2_sTanH
I0411 08:01:07.712826 32337 net.cpp:434] conv2_sTanH <- conv2
I0411 08:01:07.712831 32337 net.cpp:395] conv2_sTanH -> conv2 (in-place)
I0411 08:01:07.714193 32337 net.cpp:150] Setting up conv2_sTanH
I0411 08:01:07.714211 32337 net.cpp:157] Top shape: 1024 150 18 18 (49766400)
I0411 08:01:07.714215 32337 net.cpp:165] Memory required for data: 3696295936
I0411 08:01:07.714218 32337 layer_factory.hpp:77] Creating layer conv2_postscale
I0411 08:01:07.714226 32337 net.cpp:100] Creating Layer conv2_postscale
I0411 08:01:07.714229 32337 net.cpp:434] conv2_postscale <- conv2
I0411 08:01:07.714236 32337 net.cpp:395] conv2_postscale -> conv2 (in-place)
I0411 08:01:07.714349 32337 net.cpp:150] Setting up conv2_postscale
I0411 08:01:07.714359 32337 net.cpp:157] Top shape: 1024 150 18 18 (49766400)
I0411 08:01:07.714361 32337 net.cpp:165] Memory required for data: 3895361536
I0411 08:01:07.714380 32337 layer_factory.hpp:77] Creating layer pool2
I0411 08:01:07.714390 32337 net.cpp:100] Creating Layer pool2
I0411 08:01:07.714393 32337 net.cpp:434] pool2 <- conv2
I0411 08:01:07.714398 32337 net.cpp:408] pool2 -> pool2
I0411 08:01:07.714457 32337 net.cpp:150] Setting up pool2
I0411 08:01:07.714467 32337 net.cpp:157] Top shape: 1024 150 9 9 (12441600)
I0411 08:01:07.714469 32337 net.cpp:165] Memory required for data: 3945127936
I0411 08:01:07.714473 32337 layer_factory.hpp:77] Creating layer conv3
I0411 08:01:07.714481 32337 net.cpp:100] Creating Layer conv3
I0411 08:01:07.714484 32337 net.cpp:434] conv3 <- pool2
I0411 08:01:07.714494 32337 net.cpp:408] conv3 -> conv3
I0411 08:01:07.720932 32337 net.cpp:150] Setting up conv3
I0411 08:01:07.720957 32337 net.cpp:157] Top shape: 1024 250 6 6 (9216000)
I0411 08:01:07.720962 32337 net.cpp:165] Memory required for data: 3981991936
I0411 08:01:07.720973 32337 layer_factory.hpp:77] Creating layer conv3_prescale
I0411 08:01:07.720980 32337 net.cpp:100] Creating Layer conv3_prescale
I0411 08:01:07.720985 32337 net.cpp:434] conv3_prescale <- conv3
I0411 08:01:07.720991 32337 net.cpp:395] conv3_prescale -> conv3 (in-place)
I0411 08:01:07.721093 32337 net.cpp:150] Setting up conv3_prescale
I0411 08:01:07.721103 32337 net.cpp:157] Top shape: 1024 250 6 6 (9216000)
I0411 08:01:07.721107 32337 net.cpp:165] Memory required for data: 4018855936
I0411 08:01:07.721110 32337 layer_factory.hpp:77] Creating layer conv3_sTanH
I0411 08:01:07.721117 32337 net.cpp:100] Creating Layer conv3_sTanH
I0411 08:01:07.721119 32337 net.cpp:434] conv3_sTanH <- conv3
I0411 08:01:07.721125 32337 net.cpp:395] conv3_sTanH -> conv3 (in-place)
I0411 08:01:07.725473 32337 net.cpp:150] Setting up conv3_sTanH
I0411 08:01:07.725492 32337 net.cpp:157] Top shape: 1024 250 6 6 (9216000)
I0411 08:01:07.725497 32337 net.cpp:165] Memory required for data: 4055719936
I0411 08:01:07.725499 32337 layer_factory.hpp:77] Creating layer conv3_postscale
I0411 08:01:07.725507 32337 net.cpp:100] Creating Layer conv3_postscale
I0411 08:01:07.725512 32337 net.cpp:434] conv3_postscale <- conv3
I0411 08:01:07.725533 32337 net.cpp:395] conv3_postscale -> conv3 (in-place)
I0411 08:01:07.725649 32337 net.cpp:150] Setting up conv3_postscale
I0411 08:01:07.725659 32337 net.cpp:157] Top shape: 1024 250 6 6 (9216000)
I0411 08:01:07.725662 32337 net.cpp:165] Memory required for data: 4092583936
I0411 08:01:07.725667 32337 layer_factory.hpp:77] Creating layer pool3
I0411 08:01:07.725678 32337 net.cpp:100] Creating Layer pool3
I0411 08:01:07.725682 32337 net.cpp:434] pool3 <- conv3
I0411 08:01:07.725687 32337 net.cpp:408] pool3 -> pool3
I0411 08:01:07.725731 32337 net.cpp:150] Setting up pool3
I0411 08:01:07.725739 32337 net.cpp:157] Top shape: 1024 250 3 3 (2304000)
I0411 08:01:07.725742 32337 net.cpp:165] Memory required for data: 4101799936
I0411 08:01:07.725744 32337 layer_factory.hpp:77] Creating layer fc4_300
I0411 08:01:07.725751 32337 net.cpp:100] Creating Layer fc4_300
I0411 08:01:07.725754 32337 net.cpp:434] fc4_300 <- pool3
I0411 08:01:07.725761 32337 net.cpp:408] fc4_300 -> fc4_300
I0411 08:01:07.736954 32337 net.cpp:150] Setting up fc4_300
I0411 08:01:07.736975 32337 net.cpp:157] Top shape: 1024 300 (307200)
I0411 08:01:07.736979 32337 net.cpp:165] Memory required for data: 4103028736
I0411 08:01:07.736986 32337 layer_factory.hpp:77] Creating layer fc4_prescale
I0411 08:01:07.736997 32337 net.cpp:100] Creating Layer fc4_prescale
I0411 08:01:07.737001 32337 net.cpp:434] fc4_prescale <- fc4_300
I0411 08:01:07.737009 32337 net.cpp:395] fc4_prescale -> fc4_300 (in-place)
I0411 08:01:07.737107 32337 net.cpp:150] Setting up fc4_prescale
I0411 08:01:07.737116 32337 net.cpp:157] Top shape: 1024 300 (307200)
I0411 08:01:07.737118 32337 net.cpp:165] Memory required for data: 4104257536
I0411 08:01:07.737136 32337 layer_factory.hpp:77] Creating layer fc4_sTanH
I0411 08:01:07.737148 32337 net.cpp:100] Creating Layer fc4_sTanH
I0411 08:01:07.737151 32337 net.cpp:434] fc4_sTanH <- fc4_300
I0411 08:01:07.737156 32337 net.cpp:395] fc4_sTanH -> fc4_300 (in-place)
I0411 08:01:07.737390 32337 net.cpp:150] Setting up fc4_sTanH
I0411 08:01:07.737402 32337 net.cpp:157] Top shape: 1024 300 (307200)
I0411 08:01:07.737406 32337 net.cpp:165] Memory required for data: 4105486336
I0411 08:01:07.737409 32337 layer_factory.hpp:77] Creating layer fc4_postscale
I0411 08:01:07.737417 32337 net.cpp:100] Creating Layer fc4_postscale
I0411 08:01:07.737421 32337 net.cpp:434] fc4_postscale <- fc4_300
I0411 08:01:07.737428 32337 net.cpp:395] fc4_postscale -> fc4_300 (in-place)
I0411 08:01:07.737531 32337 net.cpp:150] Setting up fc4_postscale
I0411 08:01:07.737543 32337 net.cpp:157] Top shape: 1024 300 (307200)
I0411 08:01:07.737546 32337 net.cpp:165] Memory required for data: 4106715136
I0411 08:01:07.737551 32337 layer_factory.hpp:77] Creating layer fc5_67
I0411 08:01:07.737560 32337 net.cpp:100] Creating Layer fc5_67
I0411 08:01:07.737562 32337 net.cpp:434] fc5_67 <- fc4_300
I0411 08:01:07.737567 32337 net.cpp:408] fc5_67 -> fc5_classes
I0411 08:01:07.737825 32337 net.cpp:150] Setting up fc5_67
I0411 08:01:07.737835 32337 net.cpp:157] Top shape: 1024 67 (68608)
I0411 08:01:07.737838 32337 net.cpp:165] Memory required for data: 4106989568
I0411 08:01:07.737848 32337 layer_factory.hpp:77] Creating layer fc5_classes_fc5_67_0_split
I0411 08:01:07.737855 32337 net.cpp:100] Creating Layer fc5_classes_fc5_67_0_split
I0411 08:01:07.737859 32337 net.cpp:434] fc5_classes_fc5_67_0_split <- fc5_classes
I0411 08:01:07.737865 32337 net.cpp:408] fc5_classes_fc5_67_0_split -> fc5_classes_fc5_67_0_split_0
I0411 08:01:07.737872 32337 net.cpp:408] fc5_classes_fc5_67_0_split -> fc5_classes_fc5_67_0_split_1
I0411 08:01:07.737879 32337 net.cpp:408] fc5_classes_fc5_67_0_split -> fc5_classes_fc5_67_0_split_2
I0411 08:01:07.737932 32337 net.cpp:150] Setting up fc5_classes_fc5_67_0_split
I0411 08:01:07.737939 32337 net.cpp:157] Top shape: 1024 67 (68608)
I0411 08:01:07.737943 32337 net.cpp:157] Top shape: 1024 67 (68608)
I0411 08:01:07.737946 32337 net.cpp:157] Top shape: 1024 67 (68608)
I0411 08:01:07.737948 32337 net.cpp:165] Memory required for data: 4107812864
I0411 08:01:07.737951 32337 layer_factory.hpp:77] Creating layer loss
I0411 08:01:07.737965 32337 net.cpp:100] Creating Layer loss
I0411 08:01:07.737968 32337 net.cpp:434] loss <- fc5_classes_fc5_67_0_split_0
I0411 08:01:07.737973 32337 net.cpp:434] loss <- label_data_1_split_0
I0411 08:01:07.737979 32337 net.cpp:408] loss -> loss
…
