…
I0412 04:57:10.328765 29142 net.cpp:322] The NetState phase (0) differed from the phase (1) specified by a rule in layer accuracy_5
I0412 04:57:10.328929 29142 net.cpp:58] Initializing net from parameters: 
state {
  phase: TRAIN
  level: 0
  stage: ""
}
layer {
  name: "data"
  type: "Data"
  top: "data"
  top: "label"
  include {
    phase: TRAIN
  }
  transform_param {
    scale: 0.0039215689
    mirror: false
    crop_size: 48
    mean_value: 115
    mean_value: 108
    mean_value: 122
  }
  data_param {
    source: "../local_data/lmdb/rtsd-r1/imajust/train/lmdb"
    batch_size: 1024
    backend: LMDB
  }
}
layer {
  name: "conv1"
  type: "Convolution"
  bottom: "data"
  top: "conv1"
  convolution_param {
    num_output: 100
    pad: 0
    kernel_size: 7
    group: 1
    stride: 1
    weight_filler {
      type: "xavier"
    }
  }
}
layer {
  name: "conv1_prescale"
  type: "Scale"
  bottom: "conv1"
  top: "conv1"
  param {
    lr_mult: 0
    decay_mult: 0
  }
  scale_param {
    filler {
      value: 0.6666
    }
    bias_term: false
  }
}
layer {
  name: "conv1_sTanH"
  type: "TanH"
  bottom: "conv1"
  top: "conv1"
}
layer {
  name: "conv1_postscale"
  type: "Scale"
  bottom: "conv1"
  top: "conv1"
  param {
    lr_mult: 0
    decay_mult: 0
  }
  scale_param {
    filler {
      value: 1.7159
    }
    bias_term: false
  }
}
layer {
  name: "pool1"
  type: "Pooling"
  bottom: "conv1"
  top: "pool1"
  pooling_param {
    pool: MAX
    kernel_size: 2
    stride: 2
  }
}
layer {
  name: "conv2"
  type: "Convolution"
  bottom: "pool1"
  top: "conv2"
  convolution_param {
    num_output: 150
    pad: 0
    kernel_size: 4
    group: 1
    stride: 1
    weight_filler {
      type: "xavier"
    }
  }
}
layer {
  name: "conv2_prescale"
  type: "Scale"
  bottom: "conv2"
  top: "conv2"
  param {
    lr_mult: 0
    decay_mult: 0
  }
  scale_param {
    filler {
      value: 0.6666
    }
    bias_term: false
  }
}
layer {
  name: "conv2_sTanH"
  type: "TanH"
  bottom: "conv2"
  top: "conv2"
}
layer {
  name: "conv2_postscale"
  type: "Scale"
  bottom: "conv2"
  top: "conv2"
  param {
    lr_mult: 0
    decay_mult: 0
  }
  scale_param {
    filler {
      value: 1.7159
    }
    bias_term: false
  }
}
layer {
  name: "pool2"
  type: "Pooling"
  bottom: "conv2"
  top: "pool2"
  pooling_param {
    pool: MAX
    kernel_size: 2
    stride: 2
  }
}
layer {
  name: "conv3"
  type: "Convolution"
  bottom: "pool2"
  top: "conv3"
  convolution_param {
    num_output: 250
    pad: 0
    kernel_size: 4
    group: 1
    stride: 1
    weight_filler {
      type: "xavier"
    }
  }
}
layer {
  name: "conv3_prescale"
  type: "Scale"
  bottom: "conv3"
  top: "conv3"
  param {
    lr_mult: 0
    decay_mult: 0
  }
  scale_param {
    filler {
      value: 0.6666
    }
    bias_term: false
  }
}
layer {
  name: "conv3_sTanH"
  type: "TanH"
  bottom: "conv3"
  top: "conv3"
}
layer {
  name: "conv3_postscale"
  type: "Scale"
  bottom: "conv3"
  top: "conv3"
  param {
    lr_mult: 0
    decay_mult: 0
  }
  scale_param {
    filler {
      value: 1.7159
    }
    bias_term: false
  }
}
layer {
  name: "pool3"
  type: "Pooling"
  bottom: "conv3"
  top: "pool3"
  pooling_param {
    pool: MAX
    kernel_size: 2
    stride: 2
  }
}
layer {
  name: "fc4_300"
  type: "InnerProduct"
  bottom: "pool3"
  top: "fc4_300"
  inner_product_param {
    num_output: 300
    weight_filler {
      type: "xavier"
    }
  }
}
layer {
  name: "fc4_prescale"
  type: "Scale"
  bottom: "fc4_300"
  top: "fc4_300"
  param {
    lr_mult: 0
    decay_mult: 0
  }
  scale_param {
    filler {
      value: 0.6666
    }
    bias_term: false
  }
}
layer {
  name: "fc4_sTanH"
  type: "TanH"
  bottom: "fc4_300"
  top: "fc4_300"
}
layer {
  name: "fc4_postscale"
  type: "Scale"
  bottom: "fc4_300"
  top: "fc4_300"
  param {
    lr_mult: 0
    decay_mult: 0
  }
  scale_param {
    filler {
      value: 1.7159
    }
    bias_term: false
  }
}
layer {
  name: "drop4"
  type: "Dropout"
  bottom: "fc4_300"
  top: "fc4_300"
  dropout_param {
    dropout_ratio: 0.1
  }
}
layer {
  name: "fc5_67"
  type: "InnerProduct"
  bottom: "fc4_300"
  top: "fc5_classes"
  inner_product_param {
    num_output: 67
    weight_filler {
      type: "xavier"
    }
  }
}
layer {
  name: "loss"
  type: "SoftmaxWithLoss"
  bottom: "fc5_classes"
  bottom: "label"
  top: "loss"
}
I0412 04:57:10.329046 29142 layer_factory.hpp:77] Creating layer data
I0412 04:57:10.330132 29142 net.cpp:100] Creating Layer data
I0412 04:57:10.330147 29142 net.cpp:408] data -> data
I0412 04:57:10.330173 29142 net.cpp:408] data -> label
I0412 04:57:10.334475 29266 db_lmdb.cpp:35] Opened lmdb ../local_data/lmdb/rtsd-r1/imajust/train/lmdb
I0412 04:57:10.351979 29142 data_layer.cpp:41] output data size: 1024,3,48,48
I0412 04:57:10.404834 29142 net.cpp:150] Setting up data
I0412 04:57:10.404866 29142 net.cpp:157] Top shape: 1024 3 48 48 (7077888)
I0412 04:57:10.404872 29142 net.cpp:157] Top shape: 1024 (1024)
I0412 04:57:10.404875 29142 net.cpp:165] Memory required for data: 28315648
I0412 04:57:10.404886 29142 layer_factory.hpp:77] Creating layer conv1
I0412 04:57:10.404913 29142 net.cpp:100] Creating Layer conv1
I0412 04:57:10.404925 29142 net.cpp:434] conv1 <- data
I0412 04:57:10.404939 29142 net.cpp:408] conv1 -> conv1
I0412 04:57:10.751366 29142 net.cpp:150] Setting up conv1
I0412 04:57:10.751395 29142 net.cpp:157] Top shape: 1024 100 42 42 (180633600)
I0412 04:57:10.751400 29142 net.cpp:165] Memory required for data: 750850048
I0412 04:57:10.751422 29142 layer_factory.hpp:77] Creating layer conv1_prescale
I0412 04:57:10.751436 29142 net.cpp:100] Creating Layer conv1_prescale
I0412 04:57:10.751441 29142 net.cpp:434] conv1_prescale <- conv1
I0412 04:57:10.751448 29142 net.cpp:395] conv1_prescale -> conv1 (in-place)
I0412 04:57:10.751557 29142 net.cpp:150] Setting up conv1_prescale
I0412 04:57:10.751567 29142 net.cpp:157] Top shape: 1024 100 42 42 (180633600)
I0412 04:57:10.751571 29142 net.cpp:165] Memory required for data: 1473384448
I0412 04:57:10.751579 29142 layer_factory.hpp:77] Creating layer conv1_sTanH
I0412 04:57:10.751585 29142 net.cpp:100] Creating Layer conv1_sTanH
I0412 04:57:10.751587 29142 net.cpp:434] conv1_sTanH <- conv1
I0412 04:57:10.751592 29142 net.cpp:395] conv1_sTanH -> conv1 (in-place)
I0412 04:57:10.751793 29142 net.cpp:150] Setting up conv1_sTanH
I0412 04:57:10.751806 29142 net.cpp:157] Top shape: 1024 100 42 42 (180633600)
I0412 04:57:10.751809 29142 net.cpp:165] Memory required for data: 2195918848
I0412 04:57:10.751814 29142 layer_factory.hpp:77] Creating layer conv1_postscale
I0412 04:57:10.751822 29142 net.cpp:100] Creating Layer conv1_postscale
I0412 04:57:10.751826 29142 net.cpp:434] conv1_postscale <- conv1
I0412 04:57:10.751830 29142 net.cpp:395] conv1_postscale -> conv1 (in-place)
I0412 04:57:10.751945 29142 net.cpp:150] Setting up conv1_postscale
I0412 04:57:10.751955 29142 net.cpp:157] Top shape: 1024 100 42 42 (180633600)
I0412 04:57:10.751958 29142 net.cpp:165] Memory required for data: 2918453248
I0412 04:57:10.751963 29142 layer_factory.hpp:77] Creating layer pool1
I0412 04:57:10.751971 29142 net.cpp:100] Creating Layer pool1
I0412 04:57:10.751973 29142 net.cpp:434] pool1 <- conv1
I0412 04:57:10.751978 29142 net.cpp:408] pool1 -> pool1
I0412 04:57:10.752058 29142 net.cpp:150] Setting up pool1
I0412 04:57:10.752068 29142 net.cpp:157] Top shape: 1024 100 21 21 (45158400)
I0412 04:57:10.752070 29142 net.cpp:165] Memory required for data: 3099086848
I0412 04:57:10.752074 29142 layer_factory.hpp:77] Creating layer conv2
I0412 04:57:10.752084 29142 net.cpp:100] Creating Layer conv2
I0412 04:57:10.752087 29142 net.cpp:434] conv2 <- pool1
I0412 04:57:10.752094 29142 net.cpp:408] conv2 -> conv2
I0412 04:57:10.756439 29142 net.cpp:150] Setting up conv2
I0412 04:57:10.756458 29142 net.cpp:157] Top shape: 1024 150 18 18 (49766400)
I0412 04:57:10.756461 29142 net.cpp:165] Memory required for data: 3298152448
I0412 04:57:10.756472 29142 layer_factory.hpp:77] Creating layer conv2_prescale
I0412 04:57:10.756480 29142 net.cpp:100] Creating Layer conv2_prescale
I0412 04:57:10.756484 29142 net.cpp:434] conv2_prescale <- conv2
I0412 04:57:10.756490 29142 net.cpp:395] conv2_prescale -> conv2 (in-place)
I0412 04:57:10.756597 29142 net.cpp:150] Setting up conv2_prescale
I0412 04:57:10.756606 29142 net.cpp:157] Top shape: 1024 150 18 18 (49766400)
I0412 04:57:10.756609 29142 net.cpp:165] Memory required for data: 3497218048
I0412 04:57:10.756614 29142 layer_factory.hpp:77] Creating layer conv2_sTanH
I0412 04:57:10.756621 29142 net.cpp:100] Creating Layer conv2_sTanH
I0412 04:57:10.756626 29142 net.cpp:434] conv2_sTanH <- conv2
I0412 04:57:10.756631 29142 net.cpp:395] conv2_sTanH -> conv2 (in-place)
I0412 04:57:10.757376 29142 net.cpp:150] Setting up conv2_sTanH
I0412 04:57:10.757393 29142 net.cpp:157] Top shape: 1024 150 18 18 (49766400)
I0412 04:57:10.757396 29142 net.cpp:165] Memory required for data: 3696283648
I0412 04:57:10.757400 29142 layer_factory.hpp:77] Creating layer conv2_postscale
I0412 04:57:10.757407 29142 net.cpp:100] Creating Layer conv2_postscale
I0412 04:57:10.757411 29142 net.cpp:434] conv2_postscale <- conv2
I0412 04:57:10.757416 29142 net.cpp:395] conv2_postscale -> conv2 (in-place)
I0412 04:57:10.757513 29142 net.cpp:150] Setting up conv2_postscale
I0412 04:57:10.757522 29142 net.cpp:157] Top shape: 1024 150 18 18 (49766400)
I0412 04:57:10.757525 29142 net.cpp:165] Memory required for data: 3895349248
I0412 04:57:10.757530 29142 layer_factory.hpp:77] Creating layer pool2
I0412 04:57:10.757537 29142 net.cpp:100] Creating Layer pool2
I0412 04:57:10.757540 29142 net.cpp:434] pool2 <- conv2
I0412 04:57:10.757545 29142 net.cpp:408] pool2 -> pool2
I0412 04:57:10.757585 29142 net.cpp:150] Setting up pool2
I0412 04:57:10.757592 29142 net.cpp:157] Top shape: 1024 150 9 9 (12441600)
I0412 04:57:10.757596 29142 net.cpp:165] Memory required for data: 3945115648
I0412 04:57:10.757598 29142 layer_factory.hpp:77] Creating layer conv3
I0412 04:57:10.757606 29142 net.cpp:100] Creating Layer conv3
I0412 04:57:10.757611 29142 net.cpp:434] conv3 <- pool2
I0412 04:57:10.757616 29142 net.cpp:408] conv3 -> conv3
I0412 04:57:10.763141 29142 net.cpp:150] Setting up conv3
I0412 04:57:10.763161 29142 net.cpp:157] Top shape: 1024 250 6 6 (9216000)
I0412 04:57:10.763167 29142 net.cpp:165] Memory required for data: 3981979648
I0412 04:57:10.763178 29142 layer_factory.hpp:77] Creating layer conv3_prescale
I0412 04:57:10.763187 29142 net.cpp:100] Creating Layer conv3_prescale
I0412 04:57:10.763193 29142 net.cpp:434] conv3_prescale <- conv3
I0412 04:57:10.763198 29142 net.cpp:395] conv3_prescale -> conv3 (in-place)
I0412 04:57:10.763295 29142 net.cpp:150] Setting up conv3_prescale
I0412 04:57:10.763303 29142 net.cpp:157] Top shape: 1024 250 6 6 (9216000)
I0412 04:57:10.763308 29142 net.cpp:165] Memory required for data: 4018843648
I0412 04:57:10.763312 29142 layer_factory.hpp:77] Creating layer conv3_sTanH
I0412 04:57:10.763317 29142 net.cpp:100] Creating Layer conv3_sTanH
I0412 04:57:10.763322 29142 net.cpp:434] conv3_sTanH <- conv3
I0412 04:57:10.763326 29142 net.cpp:395] conv3_sTanH -> conv3 (in-place)
I0412 04:57:10.764201 29142 net.cpp:150] Setting up conv3_sTanH
I0412 04:57:10.764219 29142 net.cpp:157] Top shape: 1024 250 6 6 (9216000)
I0412 04:57:10.764225 29142 net.cpp:165] Memory required for data: 4055707648
I0412 04:57:10.764245 29142 layer_factory.hpp:77] Creating layer conv3_postscale
I0412 04:57:10.764255 29142 net.cpp:100] Creating Layer conv3_postscale
I0412 04:57:10.764259 29142 net.cpp:434] conv3_postscale <- conv3
I0412 04:57:10.764266 29142 net.cpp:395] conv3_postscale -> conv3 (in-place)
I0412 04:57:10.764365 29142 net.cpp:150] Setting up conv3_postscale
I0412 04:57:10.764374 29142 net.cpp:157] Top shape: 1024 250 6 6 (9216000)
I0412 04:57:10.764379 29142 net.cpp:165] Memory required for data: 4092571648
I0412 04:57:10.764384 29142 layer_factory.hpp:77] Creating layer pool3
I0412 04:57:10.764390 29142 net.cpp:100] Creating Layer pool3
I0412 04:57:10.764394 29142 net.cpp:434] pool3 <- conv3
I0412 04:57:10.764400 29142 net.cpp:408] pool3 -> pool3
I0412 04:57:10.764442 29142 net.cpp:150] Setting up pool3
I0412 04:57:10.764449 29142 net.cpp:157] Top shape: 1024 250 3 3 (2304000)
I0412 04:57:10.764454 29142 net.cpp:165] Memory required for data: 4101787648
I0412 04:57:10.764457 29142 layer_factory.hpp:77] Creating layer fc4_300
I0412 04:57:10.764467 29142 net.cpp:100] Creating Layer fc4_300
I0412 04:57:10.764472 29142 net.cpp:434] fc4_300 <- pool3
I0412 04:57:10.764477 29142 net.cpp:408] fc4_300 -> fc4_300
I0412 04:57:10.769976 29142 net.cpp:150] Setting up fc4_300
I0412 04:57:10.769995 29142 net.cpp:157] Top shape: 1024 300 (307200)
I0412 04:57:10.770000 29142 net.cpp:165] Memory required for data: 4103016448
I0412 04:57:10.770007 29142 layer_factory.hpp:77] Creating layer fc4_prescale
I0412 04:57:10.770016 29142 net.cpp:100] Creating Layer fc4_prescale
I0412 04:57:10.770021 29142 net.cpp:434] fc4_prescale <- fc4_300
I0412 04:57:10.770027 29142 net.cpp:395] fc4_prescale -> fc4_300 (in-place)
I0412 04:57:10.770117 29142 net.cpp:150] Setting up fc4_prescale
I0412 04:57:10.770126 29142 net.cpp:157] Top shape: 1024 300 (307200)
I0412 04:57:10.770130 29142 net.cpp:165] Memory required for data: 4104245248
I0412 04:57:10.770135 29142 layer_factory.hpp:77] Creating layer fc4_sTanH
I0412 04:57:10.770140 29142 net.cpp:100] Creating Layer fc4_sTanH
I0412 04:57:10.770144 29142 net.cpp:434] fc4_sTanH <- fc4_300
I0412 04:57:10.770149 29142 net.cpp:395] fc4_sTanH -> fc4_300 (in-place)
I0412 04:57:10.770340 29142 net.cpp:150] Setting up fc4_sTanH
I0412 04:57:10.770351 29142 net.cpp:157] Top shape: 1024 300 (307200)
I0412 04:57:10.770356 29142 net.cpp:165] Memory required for data: 4105474048
I0412 04:57:10.770359 29142 layer_factory.hpp:77] Creating layer fc4_postscale
I0412 04:57:10.770366 29142 net.cpp:100] Creating Layer fc4_postscale
I0412 04:57:10.770371 29142 net.cpp:434] fc4_postscale <- fc4_300
I0412 04:57:10.770377 29142 net.cpp:395] fc4_postscale -> fc4_300 (in-place)
I0412 04:57:10.770470 29142 net.cpp:150] Setting up fc4_postscale
I0412 04:57:10.770478 29142 net.cpp:157] Top shape: 1024 300 (307200)
I0412 04:57:10.770481 29142 net.cpp:165] Memory required for data: 4106702848
I0412 04:57:10.770486 29142 layer_factory.hpp:77] Creating layer drop4
I0412 04:57:10.770494 29142 net.cpp:100] Creating Layer drop4
I0412 04:57:10.770498 29142 net.cpp:434] drop4 <- fc4_300
I0412 04:57:10.770503 29142 net.cpp:395] drop4 -> fc4_300 (in-place)
I0412 04:57:10.770529 29142 net.cpp:150] Setting up drop4
I0412 04:57:10.770536 29142 net.cpp:157] Top shape: 1024 300 (307200)
I0412 04:57:10.770539 29142 net.cpp:165] Memory required for data: 4107931648
I0412 04:57:10.770542 29142 layer_factory.hpp:77] Creating layer fc5_67
I0412 04:57:10.770548 29142 net.cpp:100] Creating Layer fc5_67
I0412 04:57:10.770552 29142 net.cpp:434] fc5_67 <- fc4_300
I0412 04:57:10.770557 29142 net.cpp:408] fc5_67 -> fc5_classes
I0412 04:57:10.771906 29142 net.cpp:150] Setting up fc5_67
I0412 04:57:10.771924 29142 net.cpp:157] Top shape: 1024 67 (68608)
I0412 04:57:10.771927 29142 net.cpp:165] Memory required for data: 4108206080
I0412 04:57:10.771939 29142 layer_factory.hpp:77] Creating layer loss
I0412 04:57:10.771947 29142 net.cpp:100] Creating Layer loss
I0412 04:57:10.771952 29142 net.cpp:434] loss <- fc5_classes
I0412 04:57:10.771975 29142 net.cpp:434] loss <- label
I0412 04:57:10.771982 29142 net.cpp:408] loss -> loss
I0412 04:57:10.771998 29142 layer_factory.hpp:77] Creating layer loss
…
I0412 04:57:10.773001 29142 solver.cpp:193] Creating test net (#0) specified by test_net file: ./Prototxt/experiment_9/rtsd-r1/imajust/trial_5/test.prototxt
I0412 04:57:10.773306 29142 net.cpp:58] Initializing net from parameters: 
state {
  phase: TEST
}
layer {
  name: "data"
  type: "Data"
  top: "data"
  top: "label"
  include {
    phase: TEST
  }
  transform_param {
    scale: 0.0039215689
    mirror: false
    crop_size: 48
    mean_value: 109
    mean_value: 106
    mean_value: 126
  }
  data_param {
    source: "../local_data/lmdb/rtsd-r1/imajust/test/lmdb"
    batch_size: 1024
    backend: LMDB
  }
}
layer {
  name: "conv1"
  type: "Convolution"
  bottom: "data"
  top: "conv1"
  convolution_param {
    num_output: 100
    pad: 0
    kernel_size: 7
    group: 1
    stride: 1
    weight_filler {
      type: "xavier"
    }
  }
}
layer {
  name: "conv1_prescale"
  type: "Scale"
  bottom: "conv1"
  top: "conv1"
  param {
    lr_mult: 0
    decay_mult: 0
  }
  scale_param {
    filler {
      value: 0.6666
    }
    bias_term: false
  }
}
layer {
  name: "conv1_sTanH"
  type: "TanH"
  bottom: "conv1"
  top: "conv1"
}
layer {
  name: "conv1_postscale"
  type: "Scale"
  bottom: "conv1"
  top: "conv1"
  param {
    lr_mult: 0
    decay_mult: 0
  }
  scale_param {
    filler {
      value: 1.7159
    }
    bias_term: false
  }
}
layer {
  name: "pool1"
  type: "Pooling"
  bottom: "conv1"
  top: "pool1"
  pooling_param {
    pool: MAX
    kernel_size: 2
    stride: 2
  }
}
layer {
  name: "conv2"
  type: "Convolution"
  bottom: "pool1"
  top: "conv2"
  convolution_param {
    num_output: 150
    pad: 0
    kernel_size: 4
    group: 1
    stride: 1
    weight_filler {
      type: "xavier"
    }
  }
}
layer {
  name: "conv2_prescale"
  type: "Scale"
  bottom: "conv2"
  top: "conv2"
  param {
    lr_mult: 0
    decay_mult: 0
  }
  scale_param {
    filler {
      value: 0.6666
    }
    bias_term: false
  }
}
layer {
  name: "conv2_sTanH"
  type: "TanH"
  bottom: "conv2"
  top: "conv2"
}
layer {
  name: "conv2_postscale"
  type: "Scale"
  bottom: "conv2"
  top: "conv2"
  param {
    lr_mult: 0
    decay_mult: 0
  }
  scale_param {
    filler {
      value: 1.7159
    }
    bias_term: false
  }
}
layer {
  name: "pool2"
  type: "Pooling"
  bottom: "conv2"
  top: "pool2"
  pooling_param {
    pool: MAX
    kernel_size: 2
    stride: 2
  }
}
layer {
  name: "conv3"
  type: "Convolution"
  bottom: "pool2"
  top: "conv3"
  convolution_param {
    num_output: 250
    pad: 0
    kernel_size: 4
    group: 1
    stride: 1
    weight_filler {
      type: "xavier"
    }
  }
}
layer {
  name: "conv3_prescale"
  type: "Scale"
  bottom: "conv3"
  top: "conv3"
  param {
    lr_mult: 0
    decay_mult: 0
  }
  scale_param {
    filler {
      value: 0.6666
    }
    bias_term: false
  }
}
layer {
  name: "conv3_sTanH"
  type: "TanH"
  bottom: "conv3"
  top: "conv3"
}
layer {
  name: "conv3_postscale"
  type: "Scale"
  bottom: "conv3"
  top: "conv3"
  param {
    lr_mult: 0
    decay_mult: 0
  }
  scale_param {
    filler {
      value: 1.7159
    }
    bias_term: false
  }
}
layer {
  name: "pool3"
  type: "Pooling"
  bottom: "conv3"
  top: "pool3"
  pooling_param {
    pool: MAX
    kernel_size: 2
    stride: 2
  }
}
layer {
  name: "fc4_300"
  type: "InnerProduct"
  bottom: "pool3"
  top: "fc4_300"
  inner_product_param {
    num_output: 300
    weight_filler {
      type: "xavier"
    }
  }
}
layer {
  name: "fc4_prescale"
  type: "Scale"
  bottom: "fc4_300"
  top: "fc4_300"
  param {
    lr_mult: 0
    decay_mult: 0
  }
  scale_param {
    filler {
      value: 0.6666
    }
    bias_term: false
  }
}
layer {
  name: "fc4_sTanH"
  type: "TanH"
  bottom: "fc4_300"
  top: "fc4_300"
}
layer {
  name: "fc4_postscale"
  type: "Scale"
  bottom: "fc4_300"
  top: "fc4_300"
  param {
    lr_mult: 0
    decay_mult: 0
  }
  scale_param {
    filler {
      value: 1.7159
    }
    bias_term: false
  }
}
layer {
  name: "drop4"
  type: "Dropout"
  bottom: "fc4_300"
  top: "fc4_300"
  dropout_param {
    dropout_ratio: 0.1
  }
}
layer {
  name: "fc5_67"
  type: "InnerProduct"
  bottom: "fc4_300"
  top: "fc5_classes"
  inner_product_param {
    num_output: 67
    weight_filler {
      type: "xavier"
    }
  }
}
layer {
  name: "loss"
  type: "SoftmaxWithLoss"
  bottom: "fc5_classes"
  bottom: "label"
  top: "loss"
}
layer {
  name: "accuracy_1"
  type: "Accuracy"
  bottom: "fc5_classes"
  bottom: "label"
  top: "accuracy_1"
  include {
    phase: TEST
  }
  accuracy_param {
    top_k: 1
  }
}
layer {
  name: "accuracy_5"
  type: "Accuracy"
  bottom: "fc5_classes"
  bottom: "label"
  top: "accuracy_5"
  include {
    phase: TEST
  }
  accuracy_param {
    top_k: 5
  }
}
I0412 04:57:10.773488 29142 layer_factory.hpp:77] Creating layer data
I0412 04:57:10.774420 29142 net.cpp:100] Creating Layer data
I0412 04:57:10.774437 29142 net.cpp:408] data -> data
I0412 04:57:10.774454 29142 net.cpp:408] data -> label
I0412 04:57:10.776096 29304 db_lmdb.cpp:35] Opened lmdb ../local_data/lmdb/rtsd-r1/imajust/test/lmdb
I0412 04:57:10.776286 29142 data_layer.cpp:41] output data size: 1024,3,48,48
I0412 04:57:10.837690 29142 net.cpp:150] Setting up data
I0412 04:57:10.837721 29142 net.cpp:157] Top shape: 1024 3 48 48 (7077888)
I0412 04:57:10.837728 29142 net.cpp:157] Top shape: 1024 (1024)
I0412 04:57:10.837733 29142 net.cpp:165] Memory required for data: 28315648
I0412 04:57:10.837739 29142 layer_factory.hpp:77] Creating layer label_data_1_split
I0412 04:57:10.837757 29142 net.cpp:100] Creating Layer label_data_1_split
I0412 04:57:10.837764 29142 net.cpp:434] label_data_1_split <- label
I0412 04:57:10.837772 29142 net.cpp:408] label_data_1_split -> label_data_1_split_0
I0412 04:57:10.837785 29142 net.cpp:408] label_data_1_split -> label_data_1_split_1
I0412 04:57:10.837815 29142 net.cpp:408] label_data_1_split -> label_data_1_split_2
I0412 04:57:10.837908 29142 net.cpp:150] Setting up label_data_1_split
I0412 04:57:10.837916 29142 net.cpp:157] Top shape: 1024 (1024)
I0412 04:57:10.837923 29142 net.cpp:157] Top shape: 1024 (1024)
I0412 04:57:10.837927 29142 net.cpp:157] Top shape: 1024 (1024)
I0412 04:57:10.837932 29142 net.cpp:165] Memory required for data: 28327936
I0412 04:57:10.837936 29142 layer_factory.hpp:77] Creating layer conv1
I0412 04:57:10.837950 29142 net.cpp:100] Creating Layer conv1
I0412 04:57:10.837956 29142 net.cpp:434] conv1 <- data
I0412 04:57:10.837963 29142 net.cpp:408] conv1 -> conv1
I0412 04:57:10.842222 29142 net.cpp:150] Setting up conv1
I0412 04:57:10.842245 29142 net.cpp:157] Top shape: 1024 100 42 42 (180633600)
I0412 04:57:10.842250 29142 net.cpp:165] Memory required for data: 750862336
I0412 04:57:10.842267 29142 layer_factory.hpp:77] Creating layer conv1_prescale
I0412 04:57:10.842279 29142 net.cpp:100] Creating Layer conv1_prescale
I0412 04:57:10.842285 29142 net.cpp:434] conv1_prescale <- conv1
I0412 04:57:10.842293 29142 net.cpp:395] conv1_prescale -> conv1 (in-place)
I0412 04:57:10.842420 29142 net.cpp:150] Setting up conv1_prescale
I0412 04:57:10.842430 29142 net.cpp:157] Top shape: 1024 100 42 42 (180633600)
I0412 04:57:10.842434 29142 net.cpp:165] Memory required for data: 1473396736
I0412 04:57:10.842442 29142 layer_factory.hpp:77] Creating layer conv1_sTanH
I0412 04:57:10.842453 29142 net.cpp:100] Creating Layer conv1_sTanH
I0412 04:57:10.842458 29142 net.cpp:434] conv1_sTanH <- conv1
I0412 04:57:10.842464 29142 net.cpp:395] conv1_sTanH -> conv1 (in-place)
I0412 04:57:10.842684 29142 net.cpp:150] Setting up conv1_sTanH
I0412 04:57:10.842697 29142 net.cpp:157] Top shape: 1024 100 42 42 (180633600)
I0412 04:57:10.842702 29142 net.cpp:165] Memory required for data: 2195931136
I0412 04:57:10.842706 29142 layer_factory.hpp:77] Creating layer conv1_postscale
I0412 04:57:10.842715 29142 net.cpp:100] Creating Layer conv1_postscale
I0412 04:57:10.842720 29142 net.cpp:434] conv1_postscale <- conv1
I0412 04:57:10.842727 29142 net.cpp:395] conv1_postscale -> conv1 (in-place)
I0412 04:57:10.842852 29142 net.cpp:150] Setting up conv1_postscale
I0412 04:57:10.842862 29142 net.cpp:157] Top shape: 1024 100 42 42 (180633600)
I0412 04:57:10.842867 29142 net.cpp:165] Memory required for data: 2918465536
I0412 04:57:10.842874 29142 layer_factory.hpp:77] Creating layer pool1
I0412 04:57:10.842883 29142 net.cpp:100] Creating Layer pool1
I0412 04:57:10.842888 29142 net.cpp:434] pool1 <- conv1
I0412 04:57:10.842895 29142 net.cpp:408] pool1 -> pool1
I0412 04:57:10.842942 29142 net.cpp:150] Setting up pool1
I0412 04:57:10.842952 29142 net.cpp:157] Top shape: 1024 100 21 21 (45158400)
I0412 04:57:10.842955 29142 net.cpp:165] Memory required for data: 3099099136
I0412 04:57:10.842958 29142 layer_factory.hpp:77] Creating layer conv2
I0412 04:57:10.842968 29142 net.cpp:100] Creating Layer conv2
I0412 04:57:10.842973 29142 net.cpp:434] conv2 <- pool1
I0412 04:57:10.842980 29142 net.cpp:408] conv2 -> conv2
I0412 04:57:10.851856 29142 net.cpp:150] Setting up conv2
I0412 04:57:10.851899 29142 net.cpp:157] Top shape: 1024 150 18 18 (49766400)
I0412 04:57:10.851907 29142 net.cpp:165] Memory required for data: 3298164736
I0412 04:57:10.851920 29142 layer_factory.hpp:77] Creating layer conv2_prescale
I0412 04:57:10.851935 29142 net.cpp:100] Creating Layer conv2_prescale
I0412 04:57:10.851941 29142 net.cpp:434] conv2_prescale <- conv2
I0412 04:57:10.851948 29142 net.cpp:395] conv2_prescale -> conv2 (in-place)
I0412 04:57:10.852077 29142 net.cpp:150] Setting up conv2_prescale
I0412 04:57:10.852087 29142 net.cpp:157] Top shape: 1024 150 18 18 (49766400)
I0412 04:57:10.852092 29142 net.cpp:165] Memory required for data: 3497230336
I0412 04:57:10.852097 29142 layer_factory.hpp:77] Creating layer conv2_sTanH
I0412 04:57:10.852107 29142 net.cpp:100] Creating Layer conv2_sTanH
I0412 04:57:10.852111 29142 net.cpp:434] conv2_sTanH <- conv2
I0412 04:57:10.852118 29142 net.cpp:395] conv2_sTanH -> conv2 (in-place)
I0412 04:57:10.853289 29142 net.cpp:150] Setting up conv2_sTanH
I0412 04:57:10.853309 29142 net.cpp:157] Top shape: 1024 150 18 18 (49766400)
I0412 04:57:10.853313 29142 net.cpp:165] Memory required for data: 3696295936
I0412 04:57:10.853317 29142 layer_factory.hpp:77] Creating layer conv2_postscale
I0412 04:57:10.853327 29142 net.cpp:100] Creating Layer conv2_postscale
I0412 04:57:10.853332 29142 net.cpp:434] conv2_postscale <- conv2
I0412 04:57:10.853339 29142 net.cpp:395] conv2_postscale -> conv2 (in-place)
I0412 04:57:10.853458 29142 net.cpp:150] Setting up conv2_postscale
I0412 04:57:10.853469 29142 net.cpp:157] Top shape: 1024 150 18 18 (49766400)
I0412 04:57:10.853473 29142 net.cpp:165] Memory required for data: 3895361536
I0412 04:57:10.853480 29142 layer_factory.hpp:77] Creating layer pool2
I0412 04:57:10.853487 29142 net.cpp:100] Creating Layer pool2
I0412 04:57:10.853492 29142 net.cpp:434] pool2 <- conv2
I0412 04:57:10.853498 29142 net.cpp:408] pool2 -> pool2
I0412 04:57:10.853550 29142 net.cpp:150] Setting up pool2
I0412 04:57:10.853560 29142 net.cpp:157] Top shape: 1024 150 9 9 (12441600)
I0412 04:57:10.853565 29142 net.cpp:165] Memory required for data: 3945127936
I0412 04:57:10.853569 29142 layer_factory.hpp:77] Creating layer conv3
I0412 04:57:10.853579 29142 net.cpp:100] Creating Layer conv3
I0412 04:57:10.853585 29142 net.cpp:434] conv3 <- pool2
I0412 04:57:10.853592 29142 net.cpp:408] conv3 -> conv3
I0412 04:57:10.860937 29142 net.cpp:150] Setting up conv3
I0412 04:57:10.860960 29142 net.cpp:157] Top shape: 1024 250 6 6 (9216000)
I0412 04:57:10.860965 29142 net.cpp:165] Memory required for data: 3981991936
I0412 04:57:10.860978 29142 layer_factory.hpp:77] Creating layer conv3_prescale
I0412 04:57:10.860991 29142 net.cpp:100] Creating Layer conv3_prescale
I0412 04:57:10.860996 29142 net.cpp:434] conv3_prescale <- conv3
I0412 04:57:10.861003 29142 net.cpp:395] conv3_prescale -> conv3 (in-place)
I0412 04:57:10.861124 29142 net.cpp:150] Setting up conv3_prescale
I0412 04:57:10.861133 29142 net.cpp:157] Top shape: 1024 250 6 6 (9216000)
I0412 04:57:10.861136 29142 net.cpp:165] Memory required for data: 4018855936
I0412 04:57:10.861142 29142 layer_factory.hpp:77] Creating layer conv3_sTanH
I0412 04:57:10.861155 29142 net.cpp:100] Creating Layer conv3_sTanH
I0412 04:57:10.861158 29142 net.cpp:434] conv3_sTanH <- conv3
I0412 04:57:10.861165 29142 net.cpp:395] conv3_sTanH -> conv3 (in-place)
I0412 04:57:10.862938 29142 net.cpp:150] Setting up conv3_sTanH
I0412 04:57:10.862958 29142 net.cpp:157] Top shape: 1024 250 6 6 (9216000)
I0412 04:57:10.862962 29142 net.cpp:165] Memory required for data: 4055719936
I0412 04:57:10.862967 29142 layer_factory.hpp:77] Creating layer conv3_postscale
I0412 04:57:10.862978 29142 net.cpp:100] Creating Layer conv3_postscale
I0412 04:57:10.862983 29142 net.cpp:434] conv3_postscale <- conv3
I0412 04:57:10.862990 29142 net.cpp:395] conv3_postscale -> conv3 (in-place)
I0412 04:57:10.863112 29142 net.cpp:150] Setting up conv3_postscale
I0412 04:57:10.863121 29142 net.cpp:157] Top shape: 1024 250 6 6 (9216000)
I0412 04:57:10.863126 29142 net.cpp:165] Memory required for data: 4092583936
I0412 04:57:10.863132 29142 layer_factory.hpp:77] Creating layer pool3
I0412 04:57:10.863148 29142 net.cpp:100] Creating Layer pool3
I0412 04:57:10.863153 29142 net.cpp:434] pool3 <- conv3
I0412 04:57:10.863160 29142 net.cpp:408] pool3 -> pool3
I0412 04:57:10.863209 29142 net.cpp:150] Setting up pool3
I0412 04:57:10.863220 29142 net.cpp:157] Top shape: 1024 250 3 3 (2304000)
I0412 04:57:10.863224 29142 net.cpp:165] Memory required for data: 4101799936
I0412 04:57:10.863229 29142 layer_factory.hpp:77] Creating layer fc4_300
I0412 04:57:10.863235 29142 net.cpp:100] Creating Layer fc4_300
I0412 04:57:10.863240 29142 net.cpp:434] fc4_300 <- pool3
I0412 04:57:10.863245 29142 net.cpp:408] fc4_300 -> fc4_300
I0412 04:57:10.870893 29142 net.cpp:150] Setting up fc4_300
I0412 04:57:10.870924 29142 net.cpp:157] Top shape: 1024 300 (307200)
I0412 04:57:10.870929 29142 net.cpp:165] Memory required for data: 4103028736
I0412 04:57:10.870966 29142 layer_factory.hpp:77] Creating layer fc4_prescale
I0412 04:57:10.870982 29142 net.cpp:100] Creating Layer fc4_prescale
I0412 04:57:10.870988 29142 net.cpp:434] fc4_prescale <- fc4_300
I0412 04:57:10.870997 29142 net.cpp:395] fc4_prescale -> fc4_300 (in-place)
I0412 04:57:10.871122 29142 net.cpp:150] Setting up fc4_prescale
I0412 04:57:10.871134 29142 net.cpp:157] Top shape: 1024 300 (307200)
I0412 04:57:10.871139 29142 net.cpp:165] Memory required for data: 4104257536
I0412 04:57:10.871145 29142 layer_factory.hpp:77] Creating layer fc4_sTanH
I0412 04:57:10.871155 29142 net.cpp:100] Creating Layer fc4_sTanH
I0412 04:57:10.871160 29142 net.cpp:434] fc4_sTanH <- fc4_300
I0412 04:57:10.871165 29142 net.cpp:395] fc4_sTanH -> fc4_300 (in-place)
I0412 04:57:10.871433 29142 net.cpp:150] Setting up fc4_sTanH
I0412 04:57:10.871446 29142 net.cpp:157] Top shape: 1024 300 (307200)
I0412 04:57:10.871453 29142 net.cpp:165] Memory required for data: 4105486336
I0412 04:57:10.871456 29142 layer_factory.hpp:77] Creating layer fc4_postscale
I0412 04:57:10.871464 29142 net.cpp:100] Creating Layer fc4_postscale
I0412 04:57:10.871470 29142 net.cpp:434] fc4_postscale <- fc4_300
I0412 04:57:10.871477 29142 net.cpp:395] fc4_postscale -> fc4_300 (in-place)
I0412 04:57:10.871595 29142 net.cpp:150] Setting up fc4_postscale
I0412 04:57:10.871605 29142 net.cpp:157] Top shape: 1024 300 (307200)
I0412 04:57:10.871610 29142 net.cpp:165] Memory required for data: 4106715136
I0412 04:57:10.871618 29142 layer_factory.hpp:77] Creating layer drop4
I0412 04:57:10.871628 29142 net.cpp:100] Creating Layer drop4
I0412 04:57:10.871634 29142 net.cpp:434] drop4 <- fc4_300
I0412 04:57:10.871639 29142 net.cpp:395] drop4 -> fc4_300 (in-place)
I0412 04:57:10.871670 29142 net.cpp:150] Setting up drop4
I0412 04:57:10.871677 29142 net.cpp:157] Top shape: 1024 300 (307200)
I0412 04:57:10.871683 29142 net.cpp:165] Memory required for data: 4107943936
I0412 04:57:10.871687 29142 layer_factory.hpp:77] Creating layer fc5_67
I0412 04:57:10.871695 29142 net.cpp:100] Creating Layer fc5_67
I0412 04:57:10.871701 29142 net.cpp:434] fc5_67 <- fc4_300
I0412 04:57:10.871706 29142 net.cpp:408] fc5_67 -> fc5_classes
I0412 04:57:10.872021 29142 net.cpp:150] Setting up fc5_67
I0412 04:57:10.872033 29142 net.cpp:157] Top shape: 1024 67 (68608)
I0412 04:57:10.872036 29142 net.cpp:165] Memory required for data: 4108218368
I0412 04:57:10.872051 29142 layer_factory.hpp:77] Creating layer fc5_classes_fc5_67_0_split
I0412 04:57:10.872059 29142 net.cpp:100] Creating Layer fc5_classes_fc5_67_0_split
I0412 04:57:10.872066 29142 net.cpp:434] fc5_classes_fc5_67_0_split <- fc5_classes
I0412 04:57:10.872071 29142 net.cpp:408] fc5_classes_fc5_67_0_split -> fc5_classes_fc5_67_0_split_0
I0412 04:57:10.872081 29142 net.cpp:408] fc5_classes_fc5_67_0_split -> fc5_classes_fc5_67_0_split_1
I0412 04:57:10.872089 29142 net.cpp:408] fc5_classes_fc5_67_0_split -> fc5_classes_fc5_67_0_split_2
I0412 04:57:10.872154 29142 net.cpp:150] Setting up fc5_classes_fc5_67_0_split
I0412 04:57:10.872162 29142 net.cpp:157] Top shape: 1024 67 (68608)
I0412 04:57:10.872167 29142 net.cpp:157] Top shape: 1024 67 (68608)
I0412 04:57:10.872171 29142 net.cpp:157] Top shape: 1024 67 (68608)
I0412 04:57:10.872175 29142 net.cpp:165] Memory required for data: 4109041664
I0412 04:57:10.872179 29142 layer_factory.hpp:77] Creating layer loss
I0412 04:57:10.872186 29142 net.cpp:100] Creating Layer loss
I0412 04:57:10.872191 29142 net.cpp:434] loss <- fc5_classes_fc5_67_0_split_0
I0412 04:57:10.872197 29142 net.cpp:434] loss <- label_data_1_split_0
I0412 04:57:10.872205 29142 net.cpp:408] loss -> loss
…
