…
I0508 02:12:45.567708 19724 solver.cpp:93] Creating training net from train_net file: ./Prototxt/experiment_16/RTSD/orig/trial_4/train.prototxt
I0508 02:12:45.568120 19724 net.cpp:58] Initializing net from parameters: 
state {
  phase: TRAIN
  level: 0
  stage: ""
}
layer {
  name: "data"
  type: "Data"
  top: "data"
  top: "label"
  include {
    phase: TRAIN
  }
  transform_param {
    scale: 0.0039215689
    mirror: false
    crop_size: 48
    mean_value: 119
    mean_value: 113
    mean_value: 113
  }
  data_param {
    source: "../local_data/lmdb/RTSD/orig/train/lmdb"
    batch_size: 1024
    backend: LMDB
  }
}
layer {
  name: "conv1"
  type: "Convolution"
  bottom: "data"
  top: "conv1"
  convolution_param {
    num_output: 100
    pad: 0
    kernel_size: 7
    group: 1
    stride: 1
    weight_filler {
      type: "xavier"
    }
  }
}
layer {
  name: "conv1_relu"
  type: "ReLU"
  bottom: "conv1"
  top: "conv1"
}
layer {
  name: "pool1"
  type: "Pooling"
  bottom: "conv1"
  top: "pool1"
  pooling_param {
    pool: MAX
    kernel_size: 2
    stride: 2
  }
}
layer {
  name: "conv2"
  type: "Convolution"
  bottom: "pool1"
  top: "conv2"
  convolution_param {
    num_output: 150
    pad: 0
    kernel_size: 4
    group: 2
    stride: 1
    weight_filler {
      type: "xavier"
    }
  }
}
layer {
  name: "conv2_relu"
  type: "ReLU"
  bottom: "conv2"
  top: "conv2"
}
layer {
  name: "pool2"
  type: "Pooling"
  bottom: "conv2"
  top: "pool2"
  pooling_param {
    pool: MAX
    kernel_size: 2
    stride: 2
  }
}
layer {
  name: "conv3"
  type: "Convolution"
  bottom: "pool2"
  top: "conv3"
  convolution_param {
    num_output: 250
    pad: 0
    kernel_size: 4
    group: 2
    stride: 1
    weight_filler {
      type: "xavier"
    }
  }
}
layer {
  name: "conv3_relu"
  type: "ReLU"
  bottom: "conv3"
  top: "conv3"
}
layer {
  name: "pool3"
  type: "Pooling"
  bottom: "conv3"
  top: "pool3"
  pooling_param {
    pool: MAX
    kernel_size: 2
    stride: 2
  }
}
layer {
  name: "fc4_300"
  type: "InnerProduct"
  bottom: "pool3"
  top: "fc4_300"
  inner_product_param {
    num_output: 300
    weight_filler {
      type: "xavier"
    }
  }
}
layer {
  name: "fc4_relu"
  type: "ReLU"
  bottom: "fc4_300"
  top: "fc4_300"
}
layer {
  name: "fc5_116"
  type: "InnerProduct"
  bottom: "fc4_300"
  top: "fc5_classes"
  inner_product_param {
    num_output: 116
    weight_filler {
      type: "xavier"
    }
  }
}
layer {
  name: "softmax"
  type: "Softmax"
  bottom: "fc5_classes"
  top: "softmax"
}
layer {
  name: "loss"
  type: "MultinomialLogisticLoss"
  bottom: "softmax"
  bottom: "label"
  top: "loss"
}
layer {
  name: "accuracy_1"
  type: "Accuracy"
  bottom: "fc5_classes"
  bottom: "label"
  top: "accuracy_1"
  accuracy_param {
    top_k: 1
  }
}
layer {
  name: "accuracy_5"
  type: "Accuracy"
  bottom: "fc5_classes"
  bottom: "label"
  top: "accuracy_5"
  accuracy_param {
    top_k: 5
  }
}
layer {
  name: "silence"
  type: "Silence"
  bottom: "accuracy_1"
  bottom: "accuracy_5"
}
I0508 02:12:45.568261 19724 layer_factory.hpp:77] Creating layer data
I0508 02:12:45.569545 19724 net.cpp:100] Creating Layer data
I0508 02:12:45.569561 19724 net.cpp:408] data -> data
I0508 02:12:45.569586 19724 net.cpp:408] data -> label
I0508 02:12:45.572510 19849 db_lmdb.cpp:35] Opened lmdb ../local_data/lmdb/RTSD/orig/train/lmdb
I0508 02:12:45.597242 19724 data_layer.cpp:41] output data size: 1024,3,48,48
I0508 02:12:45.668985 19724 net.cpp:150] Setting up data
I0508 02:12:45.669039 19724 net.cpp:157] Top shape: 1024 3 48 48 (7077888)
I0508 02:12:45.669047 19724 net.cpp:157] Top shape: 1024 (1024)
I0508 02:12:45.669050 19724 net.cpp:165] Memory required for data: 28315648
I0508 02:12:45.669061 19724 layer_factory.hpp:77] Creating layer label_data_1_split
I0508 02:12:45.669080 19724 net.cpp:100] Creating Layer label_data_1_split
I0508 02:12:45.669088 19724 net.cpp:434] label_data_1_split <- label
I0508 02:12:45.669106 19724 net.cpp:408] label_data_1_split -> label_data_1_split_0
I0508 02:12:45.669121 19724 net.cpp:408] label_data_1_split -> label_data_1_split_1
I0508 02:12:45.669131 19724 net.cpp:408] label_data_1_split -> label_data_1_split_2
I0508 02:12:45.669208 19724 net.cpp:150] Setting up label_data_1_split
I0508 02:12:45.669216 19724 net.cpp:157] Top shape: 1024 (1024)
I0508 02:12:45.669224 19724 net.cpp:157] Top shape: 1024 (1024)
I0508 02:12:45.669227 19724 net.cpp:157] Top shape: 1024 (1024)
I0508 02:12:45.669230 19724 net.cpp:165] Memory required for data: 28327936
I0508 02:12:45.669234 19724 layer_factory.hpp:77] Creating layer conv1
I0508 02:12:45.669255 19724 net.cpp:100] Creating Layer conv1
I0508 02:12:45.669261 19724 net.cpp:434] conv1 <- data
I0508 02:12:45.669268 19724 net.cpp:408] conv1 -> conv1
I0508 02:12:46.105410 19724 net.cpp:150] Setting up conv1
I0508 02:12:46.105440 19724 net.cpp:157] Top shape: 1024 100 42 42 (180633600)
I0508 02:12:46.105445 19724 net.cpp:165] Memory required for data: 750862336
I0508 02:12:46.105470 19724 layer_factory.hpp:77] Creating layer conv1_relu
I0508 02:12:46.105487 19724 net.cpp:100] Creating Layer conv1_relu
I0508 02:12:46.105494 19724 net.cpp:434] conv1_relu <- conv1
I0508 02:12:46.105500 19724 net.cpp:395] conv1_relu -> conv1 (in-place)
I0508 02:12:46.105736 19724 net.cpp:150] Setting up conv1_relu
I0508 02:12:46.105751 19724 net.cpp:157] Top shape: 1024 100 42 42 (180633600)
I0508 02:12:46.105754 19724 net.cpp:165] Memory required for data: 1473396736
I0508 02:12:46.105758 19724 layer_factory.hpp:77] Creating layer pool1
I0508 02:12:46.105769 19724 net.cpp:100] Creating Layer pool1
I0508 02:12:46.105775 19724 net.cpp:434] pool1 <- conv1
I0508 02:12:46.105782 19724 net.cpp:408] pool1 -> pool1
I0508 02:12:46.105844 19724 net.cpp:150] Setting up pool1
I0508 02:12:46.105854 19724 net.cpp:157] Top shape: 1024 100 21 21 (45158400)
I0508 02:12:46.105856 19724 net.cpp:165] Memory required for data: 1654030336
I0508 02:12:46.105860 19724 layer_factory.hpp:77] Creating layer conv2
I0508 02:12:46.105873 19724 net.cpp:100] Creating Layer conv2
I0508 02:12:46.105880 19724 net.cpp:434] conv2 <- pool1
I0508 02:12:46.105893 19724 net.cpp:408] conv2 -> conv2
I0508 02:12:46.116238 19724 net.cpp:150] Setting up conv2
I0508 02:12:46.116259 19724 net.cpp:157] Top shape: 1024 150 18 18 (49766400)
I0508 02:12:46.116264 19724 net.cpp:165] Memory required for data: 1853095936
I0508 02:12:46.116276 19724 layer_factory.hpp:77] Creating layer conv2_relu
I0508 02:12:46.116284 19724 net.cpp:100] Creating Layer conv2_relu
I0508 02:12:46.116288 19724 net.cpp:434] conv2_relu <- conv2
I0508 02:12:46.116297 19724 net.cpp:395] conv2_relu -> conv2 (in-place)
I0508 02:12:46.116528 19724 net.cpp:150] Setting up conv2_relu
I0508 02:12:46.116541 19724 net.cpp:157] Top shape: 1024 150 18 18 (49766400)
I0508 02:12:46.116545 19724 net.cpp:165] Memory required for data: 2052161536
I0508 02:12:46.116549 19724 layer_factory.hpp:77] Creating layer pool2
I0508 02:12:46.116559 19724 net.cpp:100] Creating Layer pool2
I0508 02:12:46.116562 19724 net.cpp:434] pool2 <- conv2
I0508 02:12:46.116569 19724 net.cpp:408] pool2 -> pool2
I0508 02:12:46.116627 19724 net.cpp:150] Setting up pool2
I0508 02:12:46.116636 19724 net.cpp:157] Top shape: 1024 150 9 9 (12441600)
I0508 02:12:46.116641 19724 net.cpp:165] Memory required for data: 2101927936
I0508 02:12:46.116643 19724 layer_factory.hpp:77] Creating layer conv3
I0508 02:12:46.116662 19724 net.cpp:100] Creating Layer conv3
I0508 02:12:46.116667 19724 net.cpp:434] conv3 <- pool2
I0508 02:12:46.116674 19724 net.cpp:408] conv3 -> conv3
I0508 02:12:46.122238 19724 net.cpp:150] Setting up conv3
I0508 02:12:46.122259 19724 net.cpp:157] Top shape: 1024 250 6 6 (9216000)
I0508 02:12:46.122263 19724 net.cpp:165] Memory required for data: 2138791936
I0508 02:12:46.122275 19724 layer_factory.hpp:77] Creating layer conv3_relu
I0508 02:12:46.122283 19724 net.cpp:100] Creating Layer conv3_relu
I0508 02:12:46.122287 19724 net.cpp:434] conv3_relu <- conv3
I0508 02:12:46.122293 19724 net.cpp:395] conv3_relu -> conv3 (in-place)
I0508 02:12:46.122525 19724 net.cpp:150] Setting up conv3_relu
I0508 02:12:46.122539 19724 net.cpp:157] Top shape: 1024 250 6 6 (9216000)
I0508 02:12:46.122541 19724 net.cpp:165] Memory required for data: 2175655936
I0508 02:12:46.122545 19724 layer_factory.hpp:77] Creating layer pool3
I0508 02:12:46.122553 19724 net.cpp:100] Creating Layer pool3
I0508 02:12:46.122557 19724 net.cpp:434] pool3 <- conv3
I0508 02:12:46.122565 19724 net.cpp:408] pool3 -> pool3
I0508 02:12:46.122620 19724 net.cpp:150] Setting up pool3
I0508 02:12:46.122629 19724 net.cpp:157] Top shape: 1024 250 3 3 (2304000)
I0508 02:12:46.122632 19724 net.cpp:165] Memory required for data: 2184871936
I0508 02:12:46.122637 19724 layer_factory.hpp:77] Creating layer fc4_300
I0508 02:12:46.122645 19724 net.cpp:100] Creating Layer fc4_300
I0508 02:12:46.122650 19724 net.cpp:434] fc4_300 <- pool3
I0508 02:12:46.122658 19724 net.cpp:408] fc4_300 -> fc4_300
I0508 02:12:46.135943 19724 net.cpp:150] Setting up fc4_300
I0508 02:12:46.135964 19724 net.cpp:157] Top shape: 1024 300 (307200)
I0508 02:12:46.135968 19724 net.cpp:165] Memory required for data: 2186100736
I0508 02:12:46.135977 19724 layer_factory.hpp:77] Creating layer fc4_relu
I0508 02:12:46.135987 19724 net.cpp:100] Creating Layer fc4_relu
I0508 02:12:46.135992 19724 net.cpp:434] fc4_relu <- fc4_300
I0508 02:12:46.135998 19724 net.cpp:395] fc4_relu -> fc4_300 (in-place)
I0508 02:12:46.137709 19724 net.cpp:150] Setting up fc4_relu
I0508 02:12:46.137729 19724 net.cpp:157] Top shape: 1024 300 (307200)
I0508 02:12:46.137734 19724 net.cpp:165] Memory required for data: 2187329536
I0508 02:12:46.137738 19724 layer_factory.hpp:77] Creating layer fc5_116
I0508 02:12:46.137748 19724 net.cpp:100] Creating Layer fc5_116
I0508 02:12:46.137751 19724 net.cpp:434] fc5_116 <- fc4_300
I0508 02:12:46.137760 19724 net.cpp:408] fc5_116 -> fc5_classes
I0508 02:12:46.139955 19724 net.cpp:150] Setting up fc5_116
I0508 02:12:46.139976 19724 net.cpp:157] Top shape: 1024 116 (118784)
I0508 02:12:46.139979 19724 net.cpp:165] Memory required for data: 2187804672
I0508 02:12:46.139991 19724 layer_factory.hpp:77] Creating layer fc5_classes_fc5_116_0_split
I0508 02:12:46.140000 19724 net.cpp:100] Creating Layer fc5_classes_fc5_116_0_split
I0508 02:12:46.140005 19724 net.cpp:434] fc5_classes_fc5_116_0_split <- fc5_classes
I0508 02:12:46.140014 19724 net.cpp:408] fc5_classes_fc5_116_0_split -> fc5_classes_fc5_116_0_split_0
I0508 02:12:46.140029 19724 net.cpp:408] fc5_classes_fc5_116_0_split -> fc5_classes_fc5_116_0_split_1
I0508 02:12:46.140038 19724 net.cpp:408] fc5_classes_fc5_116_0_split -> fc5_classes_fc5_116_0_split_2
I0508 02:12:46.140105 19724 net.cpp:150] Setting up fc5_classes_fc5_116_0_split
I0508 02:12:46.140113 19724 net.cpp:157] Top shape: 1024 116 (118784)
I0508 02:12:46.140118 19724 net.cpp:157] Top shape: 1024 116 (118784)
I0508 02:12:46.140122 19724 net.cpp:157] Top shape: 1024 116 (118784)
I0508 02:12:46.140126 19724 net.cpp:165] Memory required for data: 2189230080
I0508 02:12:46.140130 19724 layer_factory.hpp:77] Creating layer softmax
I0508 02:12:46.140136 19724 net.cpp:100] Creating Layer softmax
I0508 02:12:46.140142 19724 net.cpp:434] softmax <- fc5_classes_fc5_116_0_split_0
I0508 02:12:46.140151 19724 net.cpp:408] softmax -> softmax
I0508 02:12:46.140467 19724 net.cpp:150] Setting up softmax
I0508 02:12:46.140481 19724 net.cpp:157] Top shape: 1024 116 (118784)
I0508 02:12:46.140486 19724 net.cpp:165] Memory required for data: 2189705216
I0508 02:12:46.140488 19724 layer_factory.hpp:77] Creating layer loss
I0508 02:12:46.140499 19724 net.cpp:100] Creating Layer loss
I0508 02:12:46.140518 19724 net.cpp:434] loss <- softmax
I0508 02:12:46.140525 19724 net.cpp:434] loss <- label_data_1_split_0
I0508 02:12:46.140532 19724 net.cpp:408] loss -> loss
…
