…
I0507 03:40:15.875463 15038 solver.cpp:93] Creating training net from train_net file: ./Prototxt/experiment_14/RTSD/AHE/trial_3/train.prototxt
I0507 03:40:15.875819 15038 net.cpp:58] Initializing net from parameters: 
state {
  phase: TRAIN
  level: 0
  stage: ""
}
layer {
  name: "data"
  type: "Data"
  top: "data"
  top: "label"
  include {
    phase: TRAIN
  }
  transform_param {
    scale: 0.0039215689
    mirror: false
    crop_size: 48
    mean_value: 133
    mean_value: 127
    mean_value: 126
  }
  data_param {
    source: "../local_data/lmdb/RTSD/AHE/train/lmdb"
    batch_size: 512
    backend: LMDB
  }
}
layer {
  name: "conv1"
  type: "Convolution"
  bottom: "data"
  top: "conv1"
  convolution_param {
    num_output: 100
    pad: 0
    kernel_size: 7
    group: 1
    stride: 1
    weight_filler {
      type: "xavier"
    }
  }
}
layer {
  name: "conv1_relu"
  type: "ReLU"
  bottom: "conv1"
  top: "conv1"
}
layer {
  name: "pool1"
  type: "Pooling"
  bottom: "conv1"
  top: "pool1"
  pooling_param {
    pool: MAX
    kernel_size: 2
    stride: 2
  }
}
layer {
  name: "conv2"
  type: "Convolution"
  bottom: "pool1"
  top: "conv2"
  convolution_param {
    num_output: 150
    pad: 0
    kernel_size: 4
    group: 1
    stride: 1
    weight_filler {
      type: "xavier"
    }
  }
}
layer {
  name: "conv2_relu"
  type: "ReLU"
  bottom: "conv2"
  top: "conv2"
}
layer {
  name: "pool2"
  type: "Pooling"
  bottom: "conv2"
  top: "pool2"
  pooling_param {
    pool: MAX
    kernel_size: 2
    stride: 2
  }
}
layer {
  name: "conv3"
  type: "Convolution"
  bottom: "pool2"
  top: "conv3"
  convolution_param {
    num_output: 250
    pad: 0
    kernel_size: 4
    group: 1
    stride: 1
    weight_filler {
      type: "xavier"
    }
  }
}
layer {
  name: "conv3_relu"
  type: "ReLU"
  bottom: "conv3"
  top: "conv3"
}
layer {
  name: "pool3"
  type: "Pooling"
  bottom: "conv3"
  top: "pool3"
  pooling_param {
    pool: MAX
    kernel_size: 2
    stride: 2
  }
}
layer {
  name: "fc4_300"
  type: "InnerProduct"
  bottom: "pool3"
  top: "fc4_300"
  inner_product_param {
    num_output: 300
    weight_filler {
      type: "xavier"
    }
  }
}
layer {
  name: "fc4_relu"
  type: "ReLU"
  bottom: "fc4_300"
  top: "fc4_300"
}
layer {
  name: "fc5_116"
  type: "InnerProduct"
  bottom: "fc4_300"
  top: "fc5_classes"
  inner_product_param {
    num_output: 116
    weight_filler {
      type: "xavier"
    }
  }
}
layer {
  name: "softmax"
  type: "Softmax"
  bottom: "fc5_classes"
  top: "softmax"
}
layer {
  name: "loss"
  type: "MultinomialLogisticLoss"
  bottom: "softmax"
  bottom: "label"
  top: "loss"
}
layer {
  name: "accuracy_1"
  type: "Accuracy"
  bottom: "fc5_classes"
  bottom: "label"
  top: "accuracy_1"
  accuracy_param {
    top_k: 1
  }
}
layer {
  name: "accuracy_5"
  type: "Accuracy"
  bottom: "fc5_classes"
  bottom: "label"
  top: "accuracy_5"
  accuracy_param {
    top_k: 5
  }
}
layer {
  name: "silence"
  type: "Silence"
  bottom: "accuracy_1"
  bottom: "accuracy_5"
}
I0507 03:40:15.875946 15038 layer_factory.hpp:77] Creating layer data
I0507 03:40:15.876699 15038 net.cpp:100] Creating Layer data
I0507 03:40:15.876718 15038 net.cpp:408] data -> data
I0507 03:40:15.876739 15038 net.cpp:408] data -> label
I0507 03:40:15.888553 15166 db_lmdb.cpp:35] Opened lmdb ../local_data/lmdb/RTSD/AHE/train/lmdb
I0507 03:40:15.907840 15038 data_layer.cpp:41] output data size: 512,3,48,48
I0507 03:40:15.951611 15038 net.cpp:150] Setting up data
I0507 03:40:15.951669 15038 net.cpp:157] Top shape: 512 3 48 48 (3538944)
I0507 03:40:15.951676 15038 net.cpp:157] Top shape: 512 (512)
I0507 03:40:15.951680 15038 net.cpp:165] Memory required for data: 14157824
I0507 03:40:15.951694 15038 layer_factory.hpp:77] Creating layer label_data_1_split
I0507 03:40:15.951709 15038 net.cpp:100] Creating Layer label_data_1_split
I0507 03:40:15.951717 15038 net.cpp:434] label_data_1_split <- label
I0507 03:40:15.951735 15038 net.cpp:408] label_data_1_split -> label_data_1_split_0
I0507 03:40:15.951750 15038 net.cpp:408] label_data_1_split -> label_data_1_split_1
I0507 03:40:15.951761 15038 net.cpp:408] label_data_1_split -> label_data_1_split_2
I0507 03:40:15.951838 15038 net.cpp:150] Setting up label_data_1_split
I0507 03:40:15.951848 15038 net.cpp:157] Top shape: 512 (512)
I0507 03:40:15.951854 15038 net.cpp:157] Top shape: 512 (512)
I0507 03:40:15.951858 15038 net.cpp:157] Top shape: 512 (512)
I0507 03:40:15.951863 15038 net.cpp:165] Memory required for data: 14163968
I0507 03:40:15.951866 15038 layer_factory.hpp:77] Creating layer conv1
I0507 03:40:15.951905 15038 net.cpp:100] Creating Layer conv1
I0507 03:40:15.951912 15038 net.cpp:434] conv1 <- data
I0507 03:40:15.951921 15038 net.cpp:408] conv1 -> conv1
I0507 03:40:16.363920 15038 net.cpp:150] Setting up conv1
I0507 03:40:16.363951 15038 net.cpp:157] Top shape: 512 100 42 42 (90316800)
I0507 03:40:16.363957 15038 net.cpp:165] Memory required for data: 375431168
I0507 03:40:16.363986 15038 layer_factory.hpp:77] Creating layer conv1_relu
I0507 03:40:16.364003 15038 net.cpp:100] Creating Layer conv1_relu
I0507 03:40:16.364012 15038 net.cpp:434] conv1_relu <- conv1
I0507 03:40:16.364023 15038 net.cpp:395] conv1_relu -> conv1 (in-place)
I0507 03:40:16.364260 15038 net.cpp:150] Setting up conv1_relu
I0507 03:40:16.364276 15038 net.cpp:157] Top shape: 512 100 42 42 (90316800)
I0507 03:40:16.364280 15038 net.cpp:165] Memory required for data: 736698368
I0507 03:40:16.364284 15038 layer_factory.hpp:77] Creating layer pool1
I0507 03:40:16.364295 15038 net.cpp:100] Creating Layer pool1
I0507 03:40:16.364300 15038 net.cpp:434] pool1 <- conv1
I0507 03:40:16.364305 15038 net.cpp:408] pool1 -> pool1
I0507 03:40:16.364372 15038 net.cpp:150] Setting up pool1
I0507 03:40:16.364385 15038 net.cpp:157] Top shape: 512 100 21 21 (22579200)
I0507 03:40:16.364393 15038 net.cpp:165] Memory required for data: 827015168
I0507 03:40:16.364398 15038 layer_factory.hpp:77] Creating layer conv2
I0507 03:40:16.364414 15038 net.cpp:100] Creating Layer conv2
I0507 03:40:16.364423 15038 net.cpp:434] conv2 <- pool1
I0507 03:40:16.364430 15038 net.cpp:408] conv2 -> conv2
I0507 03:40:16.371928 15038 net.cpp:150] Setting up conv2
I0507 03:40:16.371948 15038 net.cpp:157] Top shape: 512 150 18 18 (24883200)
I0507 03:40:16.371950 15038 net.cpp:165] Memory required for data: 926547968
I0507 03:40:16.371961 15038 layer_factory.hpp:77] Creating layer conv2_relu
I0507 03:40:16.371969 15038 net.cpp:100] Creating Layer conv2_relu
I0507 03:40:16.371973 15038 net.cpp:434] conv2_relu <- conv2
I0507 03:40:16.371978 15038 net.cpp:395] conv2_relu -> conv2 (in-place)
I0507 03:40:16.374177 15038 net.cpp:150] Setting up conv2_relu
I0507 03:40:16.374193 15038 net.cpp:157] Top shape: 512 150 18 18 (24883200)
I0507 03:40:16.374197 15038 net.cpp:165] Memory required for data: 1026080768
I0507 03:40:16.374200 15038 layer_factory.hpp:77] Creating layer pool2
I0507 03:40:16.374207 15038 net.cpp:100] Creating Layer pool2
I0507 03:40:16.374212 15038 net.cpp:434] pool2 <- conv2
I0507 03:40:16.374218 15038 net.cpp:408] pool2 -> pool2
I0507 03:40:16.374266 15038 net.cpp:150] Setting up pool2
I0507 03:40:16.374274 15038 net.cpp:157] Top shape: 512 150 9 9 (6220800)
I0507 03:40:16.374277 15038 net.cpp:165] Memory required for data: 1050963968
I0507 03:40:16.374280 15038 layer_factory.hpp:77] Creating layer conv3
I0507 03:40:16.374290 15038 net.cpp:100] Creating Layer conv3
I0507 03:40:16.374294 15038 net.cpp:434] conv3 <- pool2
I0507 03:40:16.374300 15038 net.cpp:408] conv3 -> conv3
I0507 03:40:16.381582 15038 net.cpp:150] Setting up conv3
I0507 03:40:16.381629 15038 net.cpp:157] Top shape: 512 250 6 6 (4608000)
I0507 03:40:16.381634 15038 net.cpp:165] Memory required for data: 1069395968
I0507 03:40:16.381644 15038 layer_factory.hpp:77] Creating layer conv3_relu
I0507 03:40:16.381654 15038 net.cpp:100] Creating Layer conv3_relu
I0507 03:40:16.381659 15038 net.cpp:434] conv3_relu <- conv3
I0507 03:40:16.381664 15038 net.cpp:395] conv3_relu -> conv3 (in-place)
I0507 03:40:16.393117 15038 net.cpp:150] Setting up conv3_relu
I0507 03:40:16.393137 15038 net.cpp:157] Top shape: 512 250 6 6 (4608000)
I0507 03:40:16.393141 15038 net.cpp:165] Memory required for data: 1087827968
I0507 03:40:16.393144 15038 layer_factory.hpp:77] Creating layer pool3
I0507 03:40:16.393152 15038 net.cpp:100] Creating Layer pool3
I0507 03:40:16.393157 15038 net.cpp:434] pool3 <- conv3
I0507 03:40:16.393165 15038 net.cpp:408] pool3 -> pool3
I0507 03:40:16.393221 15038 net.cpp:150] Setting up pool3
I0507 03:40:16.393230 15038 net.cpp:157] Top shape: 512 250 3 3 (1152000)
I0507 03:40:16.393234 15038 net.cpp:165] Memory required for data: 1092435968
I0507 03:40:16.393236 15038 layer_factory.hpp:77] Creating layer fc4_300
I0507 03:40:16.393245 15038 net.cpp:100] Creating Layer fc4_300
I0507 03:40:16.393249 15038 net.cpp:434] fc4_300 <- pool3
I0507 03:40:16.393254 15038 net.cpp:408] fc4_300 -> fc4_300
I0507 03:40:16.402318 15038 net.cpp:150] Setting up fc4_300
I0507 03:40:16.402338 15038 net.cpp:157] Top shape: 512 300 (153600)
I0507 03:40:16.402343 15038 net.cpp:165] Memory required for data: 1093050368
I0507 03:40:16.402355 15038 layer_factory.hpp:77] Creating layer fc4_relu
I0507 03:40:16.402365 15038 net.cpp:100] Creating Layer fc4_relu
I0507 03:40:16.402371 15038 net.cpp:434] fc4_relu <- fc4_300
I0507 03:40:16.402377 15038 net.cpp:395] fc4_relu -> fc4_300 (in-place)
I0507 03:40:16.402585 15038 net.cpp:150] Setting up fc4_relu
I0507 03:40:16.402596 15038 net.cpp:157] Top shape: 512 300 (153600)
I0507 03:40:16.402600 15038 net.cpp:165] Memory required for data: 1093664768
I0507 03:40:16.402603 15038 layer_factory.hpp:77] Creating layer fc5_116
I0507 03:40:16.402611 15038 net.cpp:100] Creating Layer fc5_116
I0507 03:40:16.402616 15038 net.cpp:434] fc5_116 <- fc4_300
I0507 03:40:16.402621 15038 net.cpp:408] fc5_116 -> fc5_classes
I0507 03:40:16.410717 15038 net.cpp:150] Setting up fc5_116
I0507 03:40:16.410732 15038 net.cpp:157] Top shape: 512 116 (59392)
I0507 03:40:16.410735 15038 net.cpp:165] Memory required for data: 1093902336
I0507 03:40:16.410747 15038 layer_factory.hpp:77] Creating layer fc5_classes_fc5_116_0_split
I0507 03:40:16.410756 15038 net.cpp:100] Creating Layer fc5_classes_fc5_116_0_split
I0507 03:40:16.410760 15038 net.cpp:434] fc5_classes_fc5_116_0_split <- fc5_classes
I0507 03:40:16.410768 15038 net.cpp:408] fc5_classes_fc5_116_0_split -> fc5_classes_fc5_116_0_split_0
I0507 03:40:16.410776 15038 net.cpp:408] fc5_classes_fc5_116_0_split -> fc5_classes_fc5_116_0_split_1
I0507 03:40:16.410784 15038 net.cpp:408] fc5_classes_fc5_116_0_split -> fc5_classes_fc5_116_0_split_2
I0507 03:40:16.410838 15038 net.cpp:150] Setting up fc5_classes_fc5_116_0_split
I0507 03:40:16.410846 15038 net.cpp:157] Top shape: 512 116 (59392)
I0507 03:40:16.410850 15038 net.cpp:157] Top shape: 512 116 (59392)
I0507 03:40:16.410852 15038 net.cpp:157] Top shape: 512 116 (59392)
I0507 03:40:16.410856 15038 net.cpp:165] Memory required for data: 1094615040
I0507 03:40:16.410857 15038 layer_factory.hpp:77] Creating layer softmax
I0507 03:40:16.410866 15038 net.cpp:100] Creating Layer softmax
I0507 03:40:16.410868 15038 net.cpp:434] softmax <- fc5_classes_fc5_116_0_split_0
I0507 03:40:16.410873 15038 net.cpp:408] softmax -> softmax
I0507 03:40:16.411134 15038 net.cpp:150] Setting up softmax
I0507 03:40:16.411147 15038 net.cpp:157] Top shape: 512 116 (59392)
I0507 03:40:16.411150 15038 net.cpp:165] Memory required for data: 1094852608
I0507 03:40:16.411154 15038 layer_factory.hpp:77] Creating layer loss
I0507 03:40:16.411164 15038 net.cpp:100] Creating Layer loss
I0507 03:40:16.411186 15038 net.cpp:434] loss <- softmax
I0507 03:40:16.411192 15038 net.cpp:434] loss <- label_data_1_split_0
I0507 03:40:16.411197 15038 net.cpp:408] loss -> loss
…
