…
I0414 06:58:50.228974 14687 solver.cpp:93] Creating training net from train_net file: ./Prototxt/experiment_11/rtsd-r1/imajust/trial_2/train.prototxt
I0414 06:58:50.229447 14687 net.cpp:58] Initializing net from parameters: 
state {
  phase: TRAIN
  level: 0
  stage: ""
}
layer {
  name: "data"
  type: "Data"
  top: "data"
  top: "label"
  include {
    phase: TRAIN
  }
  transform_param {
    scale: 0.0039215689
    mirror: false
    crop_size: 48
    mean_value: 115
    mean_value: 108
    mean_value: 122
  }
  data_param {
    source: "../local_data/lmdb/rtsd-r1/imajust/train/lmdb"
    batch_size: 1024
    backend: LMDB
  }
}
layer {
  name: "conv1"
  type: "Convolution"
  bottom: "data"
  top: "conv1"
  convolution_param {
    num_output: 100
    pad: 0
    kernel_size: 7
    group: 1
    stride: 1
    weight_filler {
      type: "xavier"
    }
  }
}
layer {
  name: "conv1_prescale"
  type: "Scale"
  bottom: "conv1"
  top: "conv1"
  param {
    lr_mult: 0
    decay_mult: 0
  }
  scale_param {
    filler {
      value: 0.6666
    }
    bias_term: false
  }
}
layer {
  name: "conv1_sTanH"
  type: "TanH"
  bottom: "conv1"
  top: "conv1"
}
layer {
  name: "conv1_postscale"
  type: "Scale"
  bottom: "conv1"
  top: "conv1"
  param {
    lr_mult: 0
    decay_mult: 0
  }
  scale_param {
    filler {
      value: 1.7159
    }
    bias_term: false
  }
}
layer {
  name: "pool1"
  type: "Pooling"
  bottom: "conv1"
  top: "pool1"
  pooling_param {
    pool: MAX
    kernel_size: 2
    stride: 2
  }
}
layer {
  name: "conv2"
  type: "Convolution"
  bottom: "pool1"
  top: "conv2"
  convolution_param {
    num_output: 150
    pad: 0
    kernel_size: 4
    group: 1
    stride: 1
    weight_filler {
      type: "xavier"
    }
  }
}
layer {
  name: "conv2_prescale"
  type: "Scale"
  bottom: "conv2"
  top: "conv2"
  param {
    lr_mult: 0
    decay_mult: 0
  }
  scale_param {
    filler {
      value: 0.6666
    }
    bias_term: false
  }
}
layer {
  name: "conv2_sTanH"
  type: "TanH"
  bottom: "conv2"
  top: "conv2"
}
layer {
  name: "conv2_postscale"
  type: "Scale"
  bottom: "conv2"
  top: "conv2"
  param {
    lr_mult: 0
    decay_mult: 0
  }
  scale_param {
    filler {
      value: 1.7159
    }
    bias_term: false
  }
}
layer {
  name: "pool2"
  type: "Pooling"
  bottom: "conv2"
  top: "pool2"
  pooling_param {
    pool: MAX
    kernel_size: 2
    stride: 2
  }
}
layer {
  name: "conv3"
  type: "Convolution"
  bottom: "pool2"
  top: "conv3"
  convolution_param {
    num_output: 250
    pad: 0
    kernel_size: 4
    group: 1
    stride: 1
    weight_filler {
      type: "xavier"
    }
  }
}
layer {
  name: "conv3_prescale"
  type: "Scale"
  bottom: "conv3"
  top: "conv3"
  param {
    lr_mult: 0
    decay_mult: 0
  }
  scale_param {
    filler {
      value: 0.6666
    }
    bias_term: false
  }
}
layer {
  name: "conv3_sTanH"
  type: "TanH"
  bottom: "conv3"
  top: "conv3"
}
layer {
  name: "conv3_postscale"
  type: "Scale"
  bottom: "conv3"
  top: "conv3"
  param {
    lr_mult: 0
    decay_mult: 0
  }
  scale_param {
    filler {
      value: 1.7159
    }
    bias_term: false
  }
}
layer {
  name: "pool3"
  type: "Pooling"
  bottom: "conv3"
  top: "pool3"
  pooling_param {
    pool: MAX
    kernel_size: 2
    stride: 2
  }
}
layer {
  name: "fc4_300"
  type: "InnerProduct"
  bottom: "pool3"
  top: "fc4_300"
  inner_product_param {
    num_output: 300
    weight_filler {
      type: "xavier"
    }
  }
}
layer {
  name: "fc4_prescale"
  type: "Scale"
  bottom: "fc4_300"
  top: "fc4_300"
  param {
    lr_mult: 0
    decay_mult: 0
  }
  scale_param {
    filler {
      value: 0.6666
    }
    bias_term: false
  }
}
layer {
  name: "fc4_sTanH"
  type: "TanH"
  bottom: "fc4_300"
  top: "fc4_300"
}
layer {
  name: "fc4_postscale"
  type: "Scale"
  bottom: "fc4_300"
  top: "fc4_300"
  param {
    lr_mult: 0
    decay_mult: 0
  }
  scale_param {
    filler {
      value: 1.7159
    }
    bias_term: false
  }
}
layer {
  name: "fc5_67"
  type: "InnerProduct"
  bottom: "fc4_300"
  top: "fc5_classes"
  inner_product_param {
    num_output: 67
    weight_filler {
      type: "xavier"
    }
  }
}
layer {
  name: "softmax"
  type: "Softmax"
  bottom: "fc5_classes"
  top: "softmax"
}
layer {
  name: "loss"
  type: "MultinomialLogisticLoss"
  bottom: "softmax"
  bottom: "label"
  top: "loss"
}
layer {
  name: "accuracy_1"
  type: "Accuracy"
  bottom: "fc5_classes"
  bottom: "label"
  top: "accuracy_1"
  accuracy_param {
    top_k: 1
  }
}
layer {
  name: "accuracy_5"
  type: "Accuracy"
  bottom: "fc5_classes"
  bottom: "label"
  top: "accuracy_5"
  accuracy_param {
    top_k: 5
  }
}
layer {
  name: "silence"
  type: "Silence"
  bottom: "accuracy_1"
  bottom: "accuracy_5"
}
I0414 06:58:50.229614 14687 layer_factory.hpp:77] Creating layer data
I0414 06:58:50.230727 14687 net.cpp:100] Creating Layer data
I0414 06:58:50.230744 14687 net.cpp:408] data -> data
I0414 06:58:50.230768 14687 net.cpp:408] data -> label
I0414 06:58:50.232050 14801 db_lmdb.cpp:35] Opened lmdb ../local_data/lmdb/rtsd-r1/imajust/train/lmdb
I0414 06:58:50.250001 14687 data_layer.cpp:41] output data size: 1024,3,48,48
I0414 06:58:50.313136 14687 net.cpp:150] Setting up data
I0414 06:58:50.313169 14687 net.cpp:157] Top shape: 1024 3 48 48 (7077888)
I0414 06:58:50.313174 14687 net.cpp:157] Top shape: 1024 (1024)
I0414 06:58:50.313176 14687 net.cpp:165] Memory required for data: 28315648
I0414 06:58:50.313189 14687 layer_factory.hpp:77] Creating layer label_data_1_split
I0414 06:58:50.313204 14687 net.cpp:100] Creating Layer label_data_1_split
I0414 06:58:50.313210 14687 net.cpp:434] label_data_1_split <- label
I0414 06:58:50.313223 14687 net.cpp:408] label_data_1_split -> label_data_1_split_0
I0414 06:58:50.313237 14687 net.cpp:408] label_data_1_split -> label_data_1_split_1
I0414 06:58:50.313246 14687 net.cpp:408] label_data_1_split -> label_data_1_split_2
I0414 06:58:50.313318 14687 net.cpp:150] Setting up label_data_1_split
I0414 06:58:50.313326 14687 net.cpp:157] Top shape: 1024 (1024)
I0414 06:58:50.313330 14687 net.cpp:157] Top shape: 1024 (1024)
I0414 06:58:50.313333 14687 net.cpp:157] Top shape: 1024 (1024)
I0414 06:58:50.313336 14687 net.cpp:165] Memory required for data: 28327936
I0414 06:58:50.313339 14687 layer_factory.hpp:77] Creating layer conv1
I0414 06:58:50.313355 14687 net.cpp:100] Creating Layer conv1
I0414 06:58:50.313360 14687 net.cpp:434] conv1 <- data
I0414 06:58:50.313365 14687 net.cpp:408] conv1 -> conv1
I0414 06:58:50.728677 14687 net.cpp:150] Setting up conv1
I0414 06:58:50.728704 14687 net.cpp:157] Top shape: 1024 100 42 42 (180633600)
I0414 06:58:50.728708 14687 net.cpp:165] Memory required for data: 750862336
I0414 06:58:50.728729 14687 layer_factory.hpp:77] Creating layer conv1_prescale
I0414 06:58:50.728744 14687 net.cpp:100] Creating Layer conv1_prescale
I0414 06:58:50.728750 14687 net.cpp:434] conv1_prescale <- conv1
I0414 06:58:50.728756 14687 net.cpp:395] conv1_prescale -> conv1 (in-place)
I0414 06:58:50.728863 14687 net.cpp:150] Setting up conv1_prescale
I0414 06:58:50.728873 14687 net.cpp:157] Top shape: 1024 100 42 42 (180633600)
I0414 06:58:50.728876 14687 net.cpp:165] Memory required for data: 1473396736
I0414 06:58:50.728883 14687 layer_factory.hpp:77] Creating layer conv1_sTanH
I0414 06:58:50.728893 14687 net.cpp:100] Creating Layer conv1_sTanH
I0414 06:58:50.728898 14687 net.cpp:434] conv1_sTanH <- conv1
I0414 06:58:50.728902 14687 net.cpp:395] conv1_sTanH -> conv1 (in-place)
I0414 06:58:50.729099 14687 net.cpp:150] Setting up conv1_sTanH
I0414 06:58:50.729135 14687 net.cpp:157] Top shape: 1024 100 42 42 (180633600)
I0414 06:58:50.729141 14687 net.cpp:165] Memory required for data: 2195931136
I0414 06:58:50.729146 14687 layer_factory.hpp:77] Creating layer conv1_postscale
I0414 06:58:50.729152 14687 net.cpp:100] Creating Layer conv1_postscale
I0414 06:58:50.729156 14687 net.cpp:434] conv1_postscale <- conv1
I0414 06:58:50.729161 14687 net.cpp:395] conv1_postscale -> conv1 (in-place)
I0414 06:58:50.729262 14687 net.cpp:150] Setting up conv1_postscale
I0414 06:58:50.729272 14687 net.cpp:157] Top shape: 1024 100 42 42 (180633600)
I0414 06:58:50.729274 14687 net.cpp:165] Memory required for data: 2918465536
I0414 06:58:50.729280 14687 layer_factory.hpp:77] Creating layer pool1
I0414 06:58:50.729286 14687 net.cpp:100] Creating Layer pool1
I0414 06:58:50.729291 14687 net.cpp:434] pool1 <- conv1
I0414 06:58:50.729298 14687 net.cpp:408] pool1 -> pool1
I0414 06:58:50.729349 14687 net.cpp:150] Setting up pool1
I0414 06:58:50.729358 14687 net.cpp:157] Top shape: 1024 100 21 21 (45158400)
I0414 06:58:50.729362 14687 net.cpp:165] Memory required for data: 3099099136
I0414 06:58:50.729364 14687 layer_factory.hpp:77] Creating layer conv2
I0414 06:58:50.729375 14687 net.cpp:100] Creating Layer conv2
I0414 06:58:50.729380 14687 net.cpp:434] conv2 <- pool1
I0414 06:58:50.729388 14687 net.cpp:408] conv2 -> conv2
I0414 06:58:50.737504 14687 net.cpp:150] Setting up conv2
I0414 06:58:50.737524 14687 net.cpp:157] Top shape: 1024 150 18 18 (49766400)
I0414 06:58:50.737529 14687 net.cpp:165] Memory required for data: 3298164736
I0414 06:58:50.737540 14687 layer_factory.hpp:77] Creating layer conv2_prescale
I0414 06:58:50.737555 14687 net.cpp:100] Creating Layer conv2_prescale
I0414 06:58:50.737561 14687 net.cpp:434] conv2_prescale <- conv2
I0414 06:58:50.737567 14687 net.cpp:395] conv2_prescale -> conv2 (in-place)
I0414 06:58:50.737687 14687 net.cpp:150] Setting up conv2_prescale
I0414 06:58:50.737697 14687 net.cpp:157] Top shape: 1024 150 18 18 (49766400)
I0414 06:58:50.737699 14687 net.cpp:165] Memory required for data: 3497230336
I0414 06:58:50.737705 14687 layer_factory.hpp:77] Creating layer conv2_sTanH
I0414 06:58:50.737710 14687 net.cpp:100] Creating Layer conv2_sTanH
I0414 06:58:50.737715 14687 net.cpp:434] conv2_sTanH <- conv2
I0414 06:58:50.737721 14687 net.cpp:395] conv2_sTanH -> conv2 (in-place)
I0414 06:58:50.739779 14687 net.cpp:150] Setting up conv2_sTanH
I0414 06:58:50.739797 14687 net.cpp:157] Top shape: 1024 150 18 18 (49766400)
I0414 06:58:50.739801 14687 net.cpp:165] Memory required for data: 3696295936
I0414 06:58:50.739805 14687 layer_factory.hpp:77] Creating layer conv2_postscale
I0414 06:58:50.739814 14687 net.cpp:100] Creating Layer conv2_postscale
I0414 06:58:50.739820 14687 net.cpp:434] conv2_postscale <- conv2
I0414 06:58:50.739826 14687 net.cpp:395] conv2_postscale -> conv2 (in-place)
I0414 06:58:50.739948 14687 net.cpp:150] Setting up conv2_postscale
I0414 06:58:50.739960 14687 net.cpp:157] Top shape: 1024 150 18 18 (49766400)
I0414 06:58:50.739964 14687 net.cpp:165] Memory required for data: 3895361536
I0414 06:58:50.739969 14687 layer_factory.hpp:77] Creating layer pool2
I0414 06:58:50.739979 14687 net.cpp:100] Creating Layer pool2
I0414 06:58:50.739984 14687 net.cpp:434] pool2 <- conv2
I0414 06:58:50.739989 14687 net.cpp:408] pool2 -> pool2
I0414 06:58:50.740034 14687 net.cpp:150] Setting up pool2
I0414 06:58:50.740043 14687 net.cpp:157] Top shape: 1024 150 9 9 (12441600)
I0414 06:58:50.740046 14687 net.cpp:165] Memory required for data: 3945127936
I0414 06:58:50.740051 14687 layer_factory.hpp:77] Creating layer conv3
I0414 06:58:50.740061 14687 net.cpp:100] Creating Layer conv3
I0414 06:58:50.740064 14687 net.cpp:434] conv3 <- pool2
I0414 06:58:50.740070 14687 net.cpp:408] conv3 -> conv3
I0414 06:58:50.745950 14687 net.cpp:150] Setting up conv3
I0414 06:58:50.745970 14687 net.cpp:157] Top shape: 1024 250 6 6 (9216000)
I0414 06:58:50.745975 14687 net.cpp:165] Memory required for data: 3981991936
I0414 06:58:50.745985 14687 layer_factory.hpp:77] Creating layer conv3_prescale
I0414 06:58:50.746011 14687 net.cpp:100] Creating Layer conv3_prescale
I0414 06:58:50.746016 14687 net.cpp:434] conv3_prescale <- conv3
I0414 06:58:50.746021 14687 net.cpp:395] conv3_prescale -> conv3 (in-place)
I0414 06:58:50.746119 14687 net.cpp:150] Setting up conv3_prescale
I0414 06:58:50.746129 14687 net.cpp:157] Top shape: 1024 250 6 6 (9216000)
I0414 06:58:50.746132 14687 net.cpp:165] Memory required for data: 4018855936
I0414 06:58:50.746137 14687 layer_factory.hpp:77] Creating layer conv3_sTanH
I0414 06:58:50.746152 14687 net.cpp:100] Creating Layer conv3_sTanH
I0414 06:58:50.746168 14687 net.cpp:434] conv3_sTanH <- conv3
I0414 06:58:50.746181 14687 net.cpp:395] conv3_sTanH -> conv3 (in-place)
I0414 06:58:50.747540 14687 net.cpp:150] Setting up conv3_sTanH
I0414 06:58:50.747556 14687 net.cpp:157] Top shape: 1024 250 6 6 (9216000)
I0414 06:58:50.747560 14687 net.cpp:165] Memory required for data: 4055719936
I0414 06:58:50.747563 14687 layer_factory.hpp:77] Creating layer conv3_postscale
I0414 06:58:50.747572 14687 net.cpp:100] Creating Layer conv3_postscale
I0414 06:58:50.747577 14687 net.cpp:434] conv3_postscale <- conv3
I0414 06:58:50.747582 14687 net.cpp:395] conv3_postscale -> conv3 (in-place)
I0414 06:58:50.747684 14687 net.cpp:150] Setting up conv3_postscale
I0414 06:58:50.747692 14687 net.cpp:157] Top shape: 1024 250 6 6 (9216000)
I0414 06:58:50.747695 14687 net.cpp:165] Memory required for data: 4092583936
I0414 06:58:50.747701 14687 layer_factory.hpp:77] Creating layer pool3
I0414 06:58:50.747711 14687 net.cpp:100] Creating Layer pool3
I0414 06:58:50.747716 14687 net.cpp:434] pool3 <- conv3
I0414 06:58:50.747721 14687 net.cpp:408] pool3 -> pool3
I0414 06:58:50.747762 14687 net.cpp:150] Setting up pool3
I0414 06:58:50.747771 14687 net.cpp:157] Top shape: 1024 250 3 3 (2304000)
I0414 06:58:50.747773 14687 net.cpp:165] Memory required for data: 4101799936
I0414 06:58:50.747776 14687 layer_factory.hpp:77] Creating layer fc4_300
I0414 06:58:50.747783 14687 net.cpp:100] Creating Layer fc4_300
I0414 06:58:50.747786 14687 net.cpp:434] fc4_300 <- pool3
I0414 06:58:50.747793 14687 net.cpp:408] fc4_300 -> fc4_300
I0414 06:58:50.754801 14687 net.cpp:150] Setting up fc4_300
I0414 06:58:50.754819 14687 net.cpp:157] Top shape: 1024 300 (307200)
I0414 06:58:50.754823 14687 net.cpp:165] Memory required for data: 4103028736
I0414 06:58:50.754830 14687 layer_factory.hpp:77] Creating layer fc4_prescale
I0414 06:58:50.754840 14687 net.cpp:100] Creating Layer fc4_prescale
I0414 06:58:50.754844 14687 net.cpp:434] fc4_prescale <- fc4_300
I0414 06:58:50.754850 14687 net.cpp:395] fc4_prescale -> fc4_300 (in-place)
I0414 06:58:50.754942 14687 net.cpp:150] Setting up fc4_prescale
I0414 06:58:50.754952 14687 net.cpp:157] Top shape: 1024 300 (307200)
I0414 06:58:50.754954 14687 net.cpp:165] Memory required for data: 4104257536
I0414 06:58:50.754959 14687 layer_factory.hpp:77] Creating layer fc4_sTanH
I0414 06:58:50.754966 14687 net.cpp:100] Creating Layer fc4_sTanH
I0414 06:58:50.754971 14687 net.cpp:434] fc4_sTanH <- fc4_300
I0414 06:58:50.754976 14687 net.cpp:395] fc4_sTanH -> fc4_300 (in-place)
I0414 06:58:50.755169 14687 net.cpp:150] Setting up fc4_sTanH
I0414 06:58:50.755182 14687 net.cpp:157] Top shape: 1024 300 (307200)
I0414 06:58:50.755187 14687 net.cpp:165] Memory required for data: 4105486336
I0414 06:58:50.755190 14687 layer_factory.hpp:77] Creating layer fc4_postscale
I0414 06:58:50.755198 14687 net.cpp:100] Creating Layer fc4_postscale
I0414 06:58:50.755203 14687 net.cpp:434] fc4_postscale <- fc4_300
I0414 06:58:50.755209 14687 net.cpp:395] fc4_postscale -> fc4_300 (in-place)
I0414 06:58:50.755308 14687 net.cpp:150] Setting up fc4_postscale
I0414 06:58:50.755317 14687 net.cpp:157] Top shape: 1024 300 (307200)
I0414 06:58:50.755319 14687 net.cpp:165] Memory required for data: 4106715136
I0414 06:58:50.755324 14687 layer_factory.hpp:77] Creating layer fc5_67
I0414 06:58:50.755332 14687 net.cpp:100] Creating Layer fc5_67
I0414 06:58:50.755337 14687 net.cpp:434] fc5_67 <- fc4_300
I0414 06:58:50.755344 14687 net.cpp:408] fc5_67 -> fc5_classes
I0414 06:58:50.757268 14687 net.cpp:150] Setting up fc5_67
I0414 06:58:50.757287 14687 net.cpp:157] Top shape: 1024 67 (68608)
I0414 06:58:50.757289 14687 net.cpp:165] Memory required for data: 4106989568
I0414 06:58:50.757302 14687 layer_factory.hpp:77] Creating layer fc5_classes_fc5_67_0_split
I0414 06:58:50.757310 14687 net.cpp:100] Creating Layer fc5_classes_fc5_67_0_split
I0414 06:58:50.757314 14687 net.cpp:434] fc5_classes_fc5_67_0_split <- fc5_classes
I0414 06:58:50.757319 14687 net.cpp:408] fc5_classes_fc5_67_0_split -> fc5_classes_fc5_67_0_split_0
I0414 06:58:50.757328 14687 net.cpp:408] fc5_classes_fc5_67_0_split -> fc5_classes_fc5_67_0_split_1
I0414 06:58:50.757333 14687 net.cpp:408] fc5_classes_fc5_67_0_split -> fc5_classes_fc5_67_0_split_2
I0414 06:58:50.757387 14687 net.cpp:150] Setting up fc5_classes_fc5_67_0_split
I0414 06:58:50.757395 14687 net.cpp:157] Top shape: 1024 67 (68608)
I0414 06:58:50.757398 14687 net.cpp:157] Top shape: 1024 67 (68608)
I0414 06:58:50.757402 14687 net.cpp:157] Top shape: 1024 67 (68608)
I0414 06:58:50.757405 14687 net.cpp:165] Memory required for data: 4107812864
I0414 06:58:50.757407 14687 layer_factory.hpp:77] Creating layer softmax
I0414 06:58:50.757413 14687 net.cpp:100] Creating Layer softmax
I0414 06:58:50.757418 14687 net.cpp:434] softmax <- fc5_classes_fc5_67_0_split_0
I0414 06:58:50.757424 14687 net.cpp:408] softmax -> softmax
I0414 06:58:50.757688 14687 net.cpp:150] Setting up softmax
I0414 06:58:50.757701 14687 net.cpp:157] Top shape: 1024 67 (68608)
I0414 06:58:50.757704 14687 net.cpp:165] Memory required for data: 4108087296
I0414 06:58:50.757707 14687 layer_factory.hpp:77] Creating layer loss
I0414 06:58:50.757716 14687 net.cpp:100] Creating Layer loss
I0414 06:58:50.757720 14687 net.cpp:434] loss <- softmax
I0414 06:58:50.757725 14687 net.cpp:434] loss <- label_data_1_split_0
I0414 06:58:50.757730 14687 net.cpp:408] loss -> loss
…
