…
I0417 20:15:40.001430 27050 solver.cpp:93] Creating training net from train_net file: ./Prototxt/experiment_11/rtsd-r1/imajust/trial_2/train.prototxt
I0417 20:15:40.001966 27050 net.cpp:58] Initializing net from parameters: 
state {
  phase: TRAIN
  level: 0
  stage: ""
}
layer {
  name: "data"
  type: "Data"
  top: "data"
  top: "label"
  include {
    phase: TRAIN
  }
  transform_param {
    scale: 0.0039215689
    mirror: false
    crop_size: 48
    mean_value: 115
    mean_value: 108
    mean_value: 122
  }
  data_param {
    source: "../local_data/lmdb/rtsd-r1/imajust/train/lmdb"
    batch_size: 1024
    backend: LMDB
  }
}
layer {
  name: "conv1"
  type: "Convolution"
  bottom: "data"
  top: "conv1"
  convolution_param {
    num_output: 100
    pad: 0
    kernel_size: 7
    group: 1
    stride: 1
    weight_filler {
      type: "xavier"
    }
  }
}
layer {
  name: "conv1_prescale"
  type: "Scale"
  bottom: "conv1"
  top: "conv1"
  param {
    lr_mult: 0
    decay_mult: 0
  }
  scale_param {
    filler {
      value: 0.6666
    }
    bias_term: false
  }
}
layer {
  name: "conv1_sTanH"
  type: "TanH"
  bottom: "conv1"
  top: "conv1"
}
layer {
  name: "conv1_postscale"
  type: "Scale"
  bottom: "conv1"
  top: "conv1"
  param {
    lr_mult: 0
    decay_mult: 0
  }
  scale_param {
    filler {
      value: 1.7159
    }
    bias_term: false
  }
}
layer {
  name: "pool1"
  type: "Pooling"
  bottom: "conv1"
  top: "pool1"
  pooling_param {
    pool: MAX
    kernel_size: 2
    stride: 2
  }
}
layer {
  name: "conv2"
  type: "Convolution"
  bottom: "pool1"
  top: "conv2"
  convolution_param {
    num_output: 150
    pad: 0
    kernel_size: 4
    group: 1
    stride: 1
    weight_filler {
      type: "xavier"
    }
  }
}
layer {
  name: "conv2_prescale"
  type: "Scale"
  bottom: "conv2"
  top: "conv2"
  param {
    lr_mult: 0
    decay_mult: 0
  }
  scale_param {
    filler {
      value: 0.6666
    }
    bias_term: false
  }
}
layer {
  name: "conv2_sTanH"
  type: "TanH"
  bottom: "conv2"
  top: "conv2"
}
layer {
  name: "conv2_postscale"
  type: "Scale"
  bottom: "conv2"
  top: "conv2"
  param {
    lr_mult: 0
    decay_mult: 0
  }
  scale_param {
    filler {
      value: 1.7159
    }
    bias_term: false
  }
}
layer {
  name: "pool2"
  type: "Pooling"
  bottom: "conv2"
  top: "pool2"
  pooling_param {
    pool: MAX
    kernel_size: 2
    stride: 2
  }
}
layer {
  name: "conv3"
  type: "Convolution"
  bottom: "pool2"
  top: "conv3"
  convolution_param {
    num_output: 250
    pad: 0
    kernel_size: 4
    group: 1
    stride: 1
    weight_filler {
      type: "xavier"
    }
  }
}
layer {
  name: "conv3_prescale"
  type: "Scale"
  bottom: "conv3"
  top: "conv3"
  param {
    lr_mult: 0
    decay_mult: 0
  }
  scale_param {
    filler {
      value: 0.6666
    }
    bias_term: false
  }
}
layer {
  name: "conv3_sTanH"
  type: "TanH"
  bottom: "conv3"
  top: "conv3"
}
layer {
  name: "conv3_postscale"
  type: "Scale"
  bottom: "conv3"
  top: "conv3"
  param {
    lr_mult: 0
    decay_mult: 0
  }
  scale_param {
    filler {
      value: 1.7159
    }
    bias_term: false
  }
}
layer {
  name: "pool3"
  type: "Pooling"
  bottom: "conv3"
  top: "pool3"
  pooling_param {
    pool: MAX
    kernel_size: 2
    stride: 2
  }
}
layer {
  name: "fc4_300"
  type: "InnerProduct"
  bottom: "pool3"
  top: "fc4_300"
  inner_product_param {
    num_output: 300
    weight_filler {
      type: "xavier"
    }
  }
}
layer {
  name: "fc4_prescale"
  type: "Scale"
  bottom: "fc4_300"
  top: "fc4_300"
  param {
    lr_mult: 0
    decay_mult: 0
  }
  scale_param {
    filler {
      value: 0.6666
    }
    bias_term: false
  }
}
layer {
  name: "fc4_sTanH"
  type: "TanH"
  bottom: "fc4_300"
  top: "fc4_300"
}
layer {
  name: "fc4_postscale"
  type: "Scale"
  bottom: "fc4_300"
  top: "fc4_300"
  param {
    lr_mult: 0
    decay_mult: 0
  }
  scale_param {
    filler {
      value: 1.7159
    }
    bias_term: false
  }
}
layer {
  name: "fc5_67"
  type: "InnerProduct"
  bottom: "fc4_300"
  top: "fc5_classes"
  inner_product_param {
    num_output: 67
    weight_filler {
      type: "xavier"
    }
  }
}
layer {
  name: "softmax"
  type: "Softmax"
  bottom: "fc5_classes"
  top: "softmax"
}
layer {
  name: "loss"
  type: "MultinomialLogisticLoss"
  bottom: "softmax"
  bottom: "label"
  top: "loss"
}
layer {
  name: "accuracy_1"
  type: "Accuracy"
  bottom: "fc5_classes"
  bottom: "label"
  top: "accuracy_1"
  accuracy_param {
    top_k: 1
  }
}
layer {
  name: "accuracy_5"
  type: "Accuracy"
  bottom: "fc5_classes"
  bottom: "label"
  top: "accuracy_5"
  accuracy_param {
    top_k: 5
  }
}
layer {
  name: "silence"
  type: "Silence"
  bottom: "accuracy_1"
  bottom: "accuracy_5"
}
I0417 20:15:40.002133 27050 layer_factory.hpp:77] Creating layer data
I0417 20:15:40.003271 27050 net.cpp:100] Creating Layer data
I0417 20:15:40.003288 27050 net.cpp:408] data -> data
I0417 20:15:40.003314 27050 net.cpp:408] data -> label
I0417 20:15:40.006806 27182 db_lmdb.cpp:35] Opened lmdb ../local_data/lmdb/rtsd-r1/imajust/train/lmdb
I0417 20:15:40.024852 27050 data_layer.cpp:41] output data size: 1024,3,48,48
I0417 20:15:40.075208 27050 net.cpp:150] Setting up data
I0417 20:15:40.075248 27050 net.cpp:157] Top shape: 1024 3 48 48 (7077888)
I0417 20:15:40.075253 27050 net.cpp:157] Top shape: 1024 (1024)
I0417 20:15:40.075256 27050 net.cpp:165] Memory required for data: 28315648
I0417 20:15:40.075268 27050 layer_factory.hpp:77] Creating layer label_data_1_split
I0417 20:15:40.075283 27050 net.cpp:100] Creating Layer label_data_1_split
I0417 20:15:40.075290 27050 net.cpp:434] label_data_1_split <- label
I0417 20:15:40.075304 27050 net.cpp:408] label_data_1_split -> label_data_1_split_0
I0417 20:15:40.075315 27050 net.cpp:408] label_data_1_split -> label_data_1_split_1
I0417 20:15:40.075326 27050 net.cpp:408] label_data_1_split -> label_data_1_split_2
I0417 20:15:40.075417 27050 net.cpp:150] Setting up label_data_1_split
I0417 20:15:40.075426 27050 net.cpp:157] Top shape: 1024 (1024)
I0417 20:15:40.075430 27050 net.cpp:157] Top shape: 1024 (1024)
I0417 20:15:40.075434 27050 net.cpp:157] Top shape: 1024 (1024)
I0417 20:15:40.075438 27050 net.cpp:165] Memory required for data: 28327936
I0417 20:15:40.075440 27050 layer_factory.hpp:77] Creating layer conv1
I0417 20:15:40.075459 27050 net.cpp:100] Creating Layer conv1
I0417 20:15:40.075464 27050 net.cpp:434] conv1 <- data
I0417 20:15:40.075470 27050 net.cpp:408] conv1 -> conv1
I0417 20:15:40.530840 27050 net.cpp:150] Setting up conv1
I0417 20:15:40.530869 27050 net.cpp:157] Top shape: 1024 100 42 42 (180633600)
I0417 20:15:40.530874 27050 net.cpp:165] Memory required for data: 750862336
I0417 20:15:40.530896 27050 layer_factory.hpp:77] Creating layer conv1_prescale
I0417 20:15:40.530910 27050 net.cpp:100] Creating Layer conv1_prescale
I0417 20:15:40.530916 27050 net.cpp:434] conv1_prescale <- conv1
I0417 20:15:40.530923 27050 net.cpp:395] conv1_prescale -> conv1 (in-place)
I0417 20:15:40.531030 27050 net.cpp:150] Setting up conv1_prescale
I0417 20:15:40.531040 27050 net.cpp:157] Top shape: 1024 100 42 42 (180633600)
I0417 20:15:40.531044 27050 net.cpp:165] Memory required for data: 1473396736
I0417 20:15:40.531051 27050 layer_factory.hpp:77] Creating layer conv1_sTanH
I0417 20:15:40.531061 27050 net.cpp:100] Creating Layer conv1_sTanH
I0417 20:15:40.531066 27050 net.cpp:434] conv1_sTanH <- conv1
I0417 20:15:40.531071 27050 net.cpp:395] conv1_sTanH -> conv1 (in-place)
I0417 20:15:40.531265 27050 net.cpp:150] Setting up conv1_sTanH
I0417 20:15:40.531296 27050 net.cpp:157] Top shape: 1024 100 42 42 (180633600)
I0417 20:15:40.531299 27050 net.cpp:165] Memory required for data: 2195931136
I0417 20:15:40.531303 27050 layer_factory.hpp:77] Creating layer conv1_postscale
I0417 20:15:40.531311 27050 net.cpp:100] Creating Layer conv1_postscale
I0417 20:15:40.531316 27050 net.cpp:434] conv1_postscale <- conv1
I0417 20:15:40.531322 27050 net.cpp:395] conv1_postscale -> conv1 (in-place)
I0417 20:15:40.531417 27050 net.cpp:150] Setting up conv1_postscale
I0417 20:15:40.531426 27050 net.cpp:157] Top shape: 1024 100 42 42 (180633600)
I0417 20:15:40.531430 27050 net.cpp:165] Memory required for data: 2918465536
I0417 20:15:40.531436 27050 layer_factory.hpp:77] Creating layer pool1
I0417 20:15:40.531443 27050 net.cpp:100] Creating Layer pool1
I0417 20:15:40.531448 27050 net.cpp:434] pool1 <- conv1
I0417 20:15:40.531453 27050 net.cpp:408] pool1 -> pool1
I0417 20:15:40.531502 27050 net.cpp:150] Setting up pool1
I0417 20:15:40.531509 27050 net.cpp:157] Top shape: 1024 100 21 21 (45158400)
I0417 20:15:40.531513 27050 net.cpp:165] Memory required for data: 3099099136
I0417 20:15:40.531517 27050 layer_factory.hpp:77] Creating layer conv2
I0417 20:15:40.531527 27050 net.cpp:100] Creating Layer conv2
I0417 20:15:40.531532 27050 net.cpp:434] conv2 <- pool1
I0417 20:15:40.531538 27050 net.cpp:408] conv2 -> conv2
I0417 20:15:40.544667 27050 net.cpp:150] Setting up conv2
I0417 20:15:40.544685 27050 net.cpp:157] Top shape: 1024 150 18 18 (49766400)
I0417 20:15:40.544689 27050 net.cpp:165] Memory required for data: 3298164736
I0417 20:15:40.544703 27050 layer_factory.hpp:77] Creating layer conv2_prescale
I0417 20:15:40.544715 27050 net.cpp:100] Creating Layer conv2_prescale
I0417 20:15:40.544723 27050 net.cpp:434] conv2_prescale <- conv2
I0417 20:15:40.544734 27050 net.cpp:395] conv2_prescale -> conv2 (in-place)
I0417 20:15:40.544857 27050 net.cpp:150] Setting up conv2_prescale
I0417 20:15:40.544868 27050 net.cpp:157] Top shape: 1024 150 18 18 (49766400)
I0417 20:15:40.544873 27050 net.cpp:165] Memory required for data: 3497230336
I0417 20:15:40.544879 27050 layer_factory.hpp:77] Creating layer conv2_sTanH
I0417 20:15:40.544886 27050 net.cpp:100] Creating Layer conv2_sTanH
I0417 20:15:40.544891 27050 net.cpp:434] conv2_sTanH <- conv2
I0417 20:15:40.544896 27050 net.cpp:395] conv2_sTanH -> conv2 (in-place)
I0417 20:15:40.546327 27050 net.cpp:150] Setting up conv2_sTanH
I0417 20:15:40.546349 27050 net.cpp:157] Top shape: 1024 150 18 18 (49766400)
I0417 20:15:40.546353 27050 net.cpp:165] Memory required for data: 3696295936
I0417 20:15:40.546357 27050 layer_factory.hpp:77] Creating layer conv2_postscale
I0417 20:15:40.546366 27050 net.cpp:100] Creating Layer conv2_postscale
I0417 20:15:40.546370 27050 net.cpp:434] conv2_postscale <- conv2
I0417 20:15:40.546377 27050 net.cpp:395] conv2_postscale -> conv2 (in-place)
I0417 20:15:40.546478 27050 net.cpp:150] Setting up conv2_postscale
I0417 20:15:40.546486 27050 net.cpp:157] Top shape: 1024 150 18 18 (49766400)
I0417 20:15:40.546489 27050 net.cpp:165] Memory required for data: 3895361536
I0417 20:15:40.546495 27050 layer_factory.hpp:77] Creating layer pool2
I0417 20:15:40.546502 27050 net.cpp:100] Creating Layer pool2
I0417 20:15:40.546509 27050 net.cpp:434] pool2 <- conv2
I0417 20:15:40.546514 27050 net.cpp:408] pool2 -> pool2
I0417 20:15:40.546561 27050 net.cpp:150] Setting up pool2
I0417 20:15:40.546574 27050 net.cpp:157] Top shape: 1024 150 9 9 (12441600)
I0417 20:15:40.546581 27050 net.cpp:165] Memory required for data: 3945127936
I0417 20:15:40.546586 27050 layer_factory.hpp:77] Creating layer conv3
I0417 20:15:40.546600 27050 net.cpp:100] Creating Layer conv3
I0417 20:15:40.546609 27050 net.cpp:434] conv3 <- pool2
I0417 20:15:40.546615 27050 net.cpp:408] conv3 -> conv3
I0417 20:15:40.553342 27050 net.cpp:150] Setting up conv3
I0417 20:15:40.553361 27050 net.cpp:157] Top shape: 1024 250 6 6 (9216000)
I0417 20:15:40.553369 27050 net.cpp:165] Memory required for data: 3981991936
I0417 20:15:40.553381 27050 layer_factory.hpp:77] Creating layer conv3_prescale
I0417 20:15:40.553406 27050 net.cpp:100] Creating Layer conv3_prescale
I0417 20:15:40.553413 27050 net.cpp:434] conv3_prescale <- conv3
I0417 20:15:40.553421 27050 net.cpp:395] conv3_prescale -> conv3 (in-place)
I0417 20:15:40.553522 27050 net.cpp:150] Setting up conv3_prescale
I0417 20:15:40.553532 27050 net.cpp:157] Top shape: 1024 250 6 6 (9216000)
I0417 20:15:40.553537 27050 net.cpp:165] Memory required for data: 4018855936
I0417 20:15:40.553542 27050 layer_factory.hpp:77] Creating layer conv3_sTanH
I0417 20:15:40.553550 27050 net.cpp:100] Creating Layer conv3_sTanH
I0417 20:15:40.553555 27050 net.cpp:434] conv3_sTanH <- conv3
I0417 20:15:40.553558 27050 net.cpp:395] conv3_sTanH -> conv3 (in-place)
I0417 20:15:40.558349 27050 net.cpp:150] Setting up conv3_sTanH
I0417 20:15:40.558368 27050 net.cpp:157] Top shape: 1024 250 6 6 (9216000)
I0417 20:15:40.558372 27050 net.cpp:165] Memory required for data: 4055719936
I0417 20:15:40.558377 27050 layer_factory.hpp:77] Creating layer conv3_postscale
I0417 20:15:40.558384 27050 net.cpp:100] Creating Layer conv3_postscale
I0417 20:15:40.558389 27050 net.cpp:434] conv3_postscale <- conv3
I0417 20:15:40.558398 27050 net.cpp:395] conv3_postscale -> conv3 (in-place)
I0417 20:15:40.558500 27050 net.cpp:150] Setting up conv3_postscale
I0417 20:15:40.558508 27050 net.cpp:157] Top shape: 1024 250 6 6 (9216000)
I0417 20:15:40.558513 27050 net.cpp:165] Memory required for data: 4092583936
I0417 20:15:40.558518 27050 layer_factory.hpp:77] Creating layer pool3
I0417 20:15:40.558531 27050 net.cpp:100] Creating Layer pool3
I0417 20:15:40.558537 27050 net.cpp:434] pool3 <- conv3
I0417 20:15:40.558542 27050 net.cpp:408] pool3 -> pool3
I0417 20:15:40.558588 27050 net.cpp:150] Setting up pool3
I0417 20:15:40.558603 27050 net.cpp:157] Top shape: 1024 250 3 3 (2304000)
I0417 20:15:40.558609 27050 net.cpp:165] Memory required for data: 4101799936
I0417 20:15:40.558617 27050 layer_factory.hpp:77] Creating layer fc4_300
I0417 20:15:40.558629 27050 net.cpp:100] Creating Layer fc4_300
I0417 20:15:40.558635 27050 net.cpp:434] fc4_300 <- pool3
I0417 20:15:40.558645 27050 net.cpp:408] fc4_300 -> fc4_300
I0417 20:15:40.565461 27050 net.cpp:150] Setting up fc4_300
I0417 20:15:40.565479 27050 net.cpp:157] Top shape: 1024 300 (307200)
I0417 20:15:40.565485 27050 net.cpp:165] Memory required for data: 4103028736
I0417 20:15:40.565491 27050 layer_factory.hpp:77] Creating layer fc4_prescale
I0417 20:15:40.565503 27050 net.cpp:100] Creating Layer fc4_prescale
I0417 20:15:40.565510 27050 net.cpp:434] fc4_prescale <- fc4_300
I0417 20:15:40.565515 27050 net.cpp:395] fc4_prescale -> fc4_300 (in-place)
I0417 20:15:40.565613 27050 net.cpp:150] Setting up fc4_prescale
I0417 20:15:40.565621 27050 net.cpp:157] Top shape: 1024 300 (307200)
I0417 20:15:40.565625 27050 net.cpp:165] Memory required for data: 4104257536
I0417 20:15:40.565630 27050 layer_factory.hpp:77] Creating layer fc4_sTanH
I0417 20:15:40.565636 27050 net.cpp:100] Creating Layer fc4_sTanH
I0417 20:15:40.565640 27050 net.cpp:434] fc4_sTanH <- fc4_300
I0417 20:15:40.565645 27050 net.cpp:395] fc4_sTanH -> fc4_300 (in-place)
I0417 20:15:40.565840 27050 net.cpp:150] Setting up fc4_sTanH
I0417 20:15:40.565850 27050 net.cpp:157] Top shape: 1024 300 (307200)
I0417 20:15:40.565855 27050 net.cpp:165] Memory required for data: 4105486336
I0417 20:15:40.565860 27050 layer_factory.hpp:77] Creating layer fc4_postscale
I0417 20:15:40.565873 27050 net.cpp:100] Creating Layer fc4_postscale
I0417 20:15:40.565881 27050 net.cpp:434] fc4_postscale <- fc4_300
I0417 20:15:40.565891 27050 net.cpp:395] fc4_postscale -> fc4_300 (in-place)
I0417 20:15:40.566007 27050 net.cpp:150] Setting up fc4_postscale
I0417 20:15:40.566020 27050 net.cpp:157] Top shape: 1024 300 (307200)
I0417 20:15:40.566026 27050 net.cpp:165] Memory required for data: 4106715136
I0417 20:15:40.566035 27050 layer_factory.hpp:77] Creating layer fc5_67
I0417 20:15:40.566046 27050 net.cpp:100] Creating Layer fc5_67
I0417 20:15:40.566054 27050 net.cpp:434] fc5_67 <- fc4_300
I0417 20:15:40.566064 27050 net.cpp:408] fc5_67 -> fc5_classes
I0417 20:15:40.568130 27050 net.cpp:150] Setting up fc5_67
I0417 20:15:40.568148 27050 net.cpp:157] Top shape: 1024 67 (68608)
I0417 20:15:40.568153 27050 net.cpp:165] Memory required for data: 4106989568
I0417 20:15:40.568164 27050 layer_factory.hpp:77] Creating layer fc5_classes_fc5_67_0_split
I0417 20:15:40.568173 27050 net.cpp:100] Creating Layer fc5_classes_fc5_67_0_split
I0417 20:15:40.568179 27050 net.cpp:434] fc5_classes_fc5_67_0_split <- fc5_classes
I0417 20:15:40.568186 27050 net.cpp:408] fc5_classes_fc5_67_0_split -> fc5_classes_fc5_67_0_split_0
I0417 20:15:40.568197 27050 net.cpp:408] fc5_classes_fc5_67_0_split -> fc5_classes_fc5_67_0_split_1
I0417 20:15:40.568205 27050 net.cpp:408] fc5_classes_fc5_67_0_split -> fc5_classes_fc5_67_0_split_2
I0417 20:15:40.568267 27050 net.cpp:150] Setting up fc5_classes_fc5_67_0_split
I0417 20:15:40.568282 27050 net.cpp:157] Top shape: 1024 67 (68608)
I0417 20:15:40.568290 27050 net.cpp:157] Top shape: 1024 67 (68608)
I0417 20:15:40.568298 27050 net.cpp:157] Top shape: 1024 67 (68608)
I0417 20:15:40.568305 27050 net.cpp:165] Memory required for data: 4107812864
I0417 20:15:40.568310 27050 layer_factory.hpp:77] Creating layer softmax
I0417 20:15:40.568320 27050 net.cpp:100] Creating Layer softmax
I0417 20:15:40.568327 27050 net.cpp:434] softmax <- fc5_classes_fc5_67_0_split_0
I0417 20:15:40.568337 27050 net.cpp:408] softmax -> softmax
I0417 20:15:40.568631 27050 net.cpp:150] Setting up softmax
I0417 20:15:40.568645 27050 net.cpp:157] Top shape: 1024 67 (68608)
I0417 20:15:40.568650 27050 net.cpp:165] Memory required for data: 4108087296
I0417 20:15:40.568653 27050 layer_factory.hpp:77] Creating layer loss
I0417 20:15:40.568660 27050 net.cpp:100] Creating Layer loss
I0417 20:15:40.568665 27050 net.cpp:434] loss <- softmax
I0417 20:15:40.568670 27050 net.cpp:434] loss <- label_data_1_split_0
I0417 20:15:40.568678 27050 net.cpp:408] loss -> loss
…
