…
I0529 01:08:06.774608 19214 solver.cpp:81] Creating training net from train_net file: ./Prototxt/experiment_22/RTSD/imajust/trial_3/train.prototxt
I0529 01:08:06.775040 19214 net.cpp:58] Initializing net from parameters: 
state {
  phase: TRAIN
  level: 0
  stage: ""
}
layer {
  name: "data"
  type: "Data"
  top: "data"
  top: "label"
  include {
    phase: TRAIN
  }
  transform_param {
    scale: 0.0039215689
    mirror: false
    crop_size: 48
    mean_value: 119
    mean_value: 113
    mean_value: 114
  }
  data_param {
    source: "../local_data/lmdb/RTSD/imajust/train/lmdb"
    batch_size: 1024
    backend: LMDB
  }
}
layer {
  name: "conv1"
  type: "Convolution"
  bottom: "data"
  top: "conv1"
  convolution_param {
    num_output: 100
    pad: 0
    kernel_size: 7
    group: 1
    stride: 1
    weight_filler {
      type: "xavier"
    }
  }
}
layer {
  name: "conv1_relu"
  type: "ReLU"
  bottom: "conv1"
  top: "conv1"
}
layer {
  name: "pool1"
  type: "Pooling"
  bottom: "conv1"
  top: "pool1"
  pooling_param {
    pool: MAX
    kernel_size: 2
    stride: 2
  }
}
layer {
  name: "conv2"
  type: "Convolution"
  bottom: "pool1"
  top: "conv2"
  convolution_param {
    num_output: 150
    pad: 0
    kernel_size: 4
    group: 1
    stride: 1
    weight_filler {
      type: "xavier"
    }
  }
}
layer {
  name: "conv2_relu"
  type: "ReLU"
  bottom: "conv2"
  top: "conv2"
}
layer {
  name: "pool2"
  type: "Pooling"
  bottom: "conv2"
  top: "pool2"
  pooling_param {
    pool: MAX
    kernel_size: 2
    stride: 2
  }
}
layer {
  name: "conv3"
  type: "Convolution"
  bottom: "pool2"
  top: "conv3"
  convolution_param {
    num_output: 250
    pad: 0
    kernel_size: 4
    group: 1
    stride: 1
    weight_filler {
      type: "xavier"
    }
  }
}
layer {
  name: "conv3_relu"
  type: "ReLU"
  bottom: "conv3"
  top: "conv3"
}
layer {
  name: "pool3"
  type: "Pooling"
  bottom: "conv3"
  top: "pool3"
  pooling_param {
    pool: MAX
    kernel_size: 2
    stride: 2
  }
}
layer {
  name: "fc4_300"
  type: "InnerProduct"
  bottom: "pool3"
  top: "fc4_300"
  inner_product_param {
    num_output: 300
    weight_filler {
      type: "xavier"
    }
  }
}
layer {
  name: "fc4_relu"
  type: "ReLU"
  bottom: "fc4_300"
  top: "fc4_300"
}
layer {
  name: "fc5_116"
  type: "InnerProduct"
  bottom: "fc4_300"
  top: "fc5_classes"
  inner_product_param {
    num_output: 116
    weight_filler {
      type: "xavier"
    }
  }
}
layer {
  name: "softmax"
  type: "Softmax"
  bottom: "fc5_classes"
  top: "softmax"
}
layer {
  name: "loss"
  type: "MultinomialLogisticLoss"
  bottom: "softmax"
  bottom: "label"
  top: "loss"
}
layer {
  name: "accuracy_1"
  type: "Accuracy"
  bottom: "fc5_classes"
  bottom: "label"
  top: "accuracy_1"
  accuracy_param {
    top_k: 1
  }
}
layer {
  name: "accuracy_5"
  type: "Accuracy"
  bottom: "fc5_classes"
  bottom: "label"
  top: "accuracy_5"
  accuracy_param {
    top_k: 5
  }
}
layer {
  name: "silence"
  type: "Silence"
  bottom: "accuracy_1"
  bottom: "accuracy_5"
}
I0529 01:08:06.775137 19214 layer_factory.hpp:77] Creating layer data
I0529 01:08:06.775890 19214 net.cpp:100] Creating Layer data
I0529 01:08:06.775905 19214 net.cpp:408] data -> data
I0529 01:08:06.775926 19214 net.cpp:408] data -> label
I0529 01:08:06.778256 19255 db_lmdb.cpp:35] Opened lmdb ../local_data/lmdb/RTSD/imajust/train/lmdb
I0529 01:08:06.803508 19214 data_layer.cpp:41] output data size: 1024,3,48,48
I0529 01:08:06.840862 19214 net.cpp:150] Setting up data
I0529 01:08:06.840935 19214 net.cpp:157] Top shape: 1024 3 48 48 (7077888)
I0529 01:08:06.840945 19214 net.cpp:157] Top shape: 1024 (1024)
I0529 01:08:06.840950 19214 net.cpp:165] Memory required for data: 28315648
I0529 01:08:06.840961 19214 layer_factory.hpp:77] Creating layer label_data_1_split
I0529 01:08:06.840979 19214 net.cpp:100] Creating Layer label_data_1_split
I0529 01:08:06.840991 19214 net.cpp:434] label_data_1_split <- label
I0529 01:08:06.841017 19214 net.cpp:408] label_data_1_split -> label_data_1_split_0
I0529 01:08:06.841033 19214 net.cpp:408] label_data_1_split -> label_data_1_split_1
I0529 01:08:06.841044 19214 net.cpp:408] label_data_1_split -> label_data_1_split_2
I0529 01:08:06.841122 19214 net.cpp:150] Setting up label_data_1_split
I0529 01:08:06.841135 19214 net.cpp:157] Top shape: 1024 (1024)
I0529 01:08:06.841145 19214 net.cpp:157] Top shape: 1024 (1024)
I0529 01:08:06.841150 19214 net.cpp:157] Top shape: 1024 (1024)
I0529 01:08:06.841158 19214 net.cpp:165] Memory required for data: 28327936
I0529 01:08:06.841164 19214 layer_factory.hpp:77] Creating layer conv1
I0529 01:08:06.841184 19214 net.cpp:100] Creating Layer conv1
I0529 01:08:06.841193 19214 net.cpp:434] conv1 <- data
I0529 01:08:06.841202 19214 net.cpp:408] conv1 -> conv1
I0529 01:08:07.103971 19214 net.cpp:150] Setting up conv1
I0529 01:08:07.104005 19214 net.cpp:157] Top shape: 1024 100 42 42 (180633600)
I0529 01:08:07.104010 19214 net.cpp:165] Memory required for data: 750862336
I0529 01:08:07.104033 19214 layer_factory.hpp:77] Creating layer conv1_relu
I0529 01:08:07.104053 19214 net.cpp:100] Creating Layer conv1_relu
I0529 01:08:07.104063 19214 net.cpp:434] conv1_relu <- conv1
I0529 01:08:07.104080 19214 net.cpp:395] conv1_relu -> conv1 (in-place)
I0529 01:08:07.104293 19214 net.cpp:150] Setting up conv1_relu
I0529 01:08:07.104321 19214 net.cpp:157] Top shape: 1024 100 42 42 (180633600)
I0529 01:08:07.104326 19214 net.cpp:165] Memory required for data: 1473396736
I0529 01:08:07.104332 19214 layer_factory.hpp:77] Creating layer pool1
I0529 01:08:07.104346 19214 net.cpp:100] Creating Layer pool1
I0529 01:08:07.104354 19214 net.cpp:434] pool1 <- conv1
I0529 01:08:07.104370 19214 net.cpp:408] pool1 -> pool1
I0529 01:08:07.104436 19214 net.cpp:150] Setting up pool1
I0529 01:08:07.104451 19214 net.cpp:157] Top shape: 1024 100 21 21 (45158400)
I0529 01:08:07.104460 19214 net.cpp:165] Memory required for data: 1654030336
I0529 01:08:07.104465 19214 layer_factory.hpp:77] Creating layer conv2
I0529 01:08:07.104480 19214 net.cpp:100] Creating Layer conv2
I0529 01:08:07.104488 19214 net.cpp:434] conv2 <- pool1
I0529 01:08:07.104506 19214 net.cpp:408] conv2 -> conv2
I0529 01:08:07.109962 19214 net.cpp:150] Setting up conv2
I0529 01:08:07.109977 19214 net.cpp:157] Top shape: 1024 150 18 18 (49766400)
I0529 01:08:07.109983 19214 net.cpp:165] Memory required for data: 1853095936
I0529 01:08:07.109999 19214 layer_factory.hpp:77] Creating layer conv2_relu
I0529 01:08:07.110013 19214 net.cpp:100] Creating Layer conv2_relu
I0529 01:08:07.110024 19214 net.cpp:434] conv2_relu <- conv2
I0529 01:08:07.110036 19214 net.cpp:395] conv2_relu -> conv2 (in-place)
I0529 01:08:07.110230 19214 net.cpp:150] Setting up conv2_relu
I0529 01:08:07.110247 19214 net.cpp:157] Top shape: 1024 150 18 18 (49766400)
I0529 01:08:07.110257 19214 net.cpp:165] Memory required for data: 2052161536
I0529 01:08:07.110265 19214 layer_factory.hpp:77] Creating layer pool2
I0529 01:08:07.110280 19214 net.cpp:100] Creating Layer pool2
I0529 01:08:07.110290 19214 net.cpp:434] pool2 <- conv2
I0529 01:08:07.110301 19214 net.cpp:408] pool2 -> pool2
I0529 01:08:07.110355 19214 net.cpp:150] Setting up pool2
I0529 01:08:07.110369 19214 net.cpp:157] Top shape: 1024 150 9 9 (12441600)
I0529 01:08:07.110378 19214 net.cpp:165] Memory required for data: 2101927936
I0529 01:08:07.110385 19214 layer_factory.hpp:77] Creating layer conv3
I0529 01:08:07.110404 19214 net.cpp:100] Creating Layer conv3
I0529 01:08:07.110412 19214 net.cpp:434] conv3 <- pool2
I0529 01:08:07.110424 19214 net.cpp:408] conv3 -> conv3
I0529 01:08:07.120172 19214 net.cpp:150] Setting up conv3
I0529 01:08:07.120190 19214 net.cpp:157] Top shape: 1024 250 6 6 (9216000)
I0529 01:08:07.120195 19214 net.cpp:165] Memory required for data: 2138791936
I0529 01:08:07.120206 19214 layer_factory.hpp:77] Creating layer conv3_relu
I0529 01:08:07.120215 19214 net.cpp:100] Creating Layer conv3_relu
I0529 01:08:07.120221 19214 net.cpp:434] conv3_relu <- conv3
I0529 01:08:07.120229 19214 net.cpp:395] conv3_relu -> conv3 (in-place)
I0529 01:08:07.120857 19214 net.cpp:150] Setting up conv3_relu
I0529 01:08:07.120872 19214 net.cpp:157] Top shape: 1024 250 6 6 (9216000)
I0529 01:08:07.120878 19214 net.cpp:165] Memory required for data: 2175655936
I0529 01:08:07.120884 19214 layer_factory.hpp:77] Creating layer pool3
I0529 01:08:07.120895 19214 net.cpp:100] Creating Layer pool3
I0529 01:08:07.120906 19214 net.cpp:434] pool3 <- conv3
I0529 01:08:07.120918 19214 net.cpp:408] pool3 -> pool3
I0529 01:08:07.120971 19214 net.cpp:150] Setting up pool3
I0529 01:08:07.120985 19214 net.cpp:157] Top shape: 1024 250 3 3 (2304000)
I0529 01:08:07.120993 19214 net.cpp:165] Memory required for data: 2184871936
I0529 01:08:07.121000 19214 layer_factory.hpp:77] Creating layer fc4_300
I0529 01:08:07.121012 19214 net.cpp:100] Creating Layer fc4_300
I0529 01:08:07.121021 19214 net.cpp:434] fc4_300 <- pool3
I0529 01:08:07.121031 19214 net.cpp:408] fc4_300 -> fc4_300
I0529 01:08:07.125751 19214 net.cpp:150] Setting up fc4_300
I0529 01:08:07.125766 19214 net.cpp:157] Top shape: 1024 300 (307200)
I0529 01:08:07.125771 19214 net.cpp:165] Memory required for data: 2186100736
I0529 01:08:07.125782 19214 layer_factory.hpp:77] Creating layer fc4_relu
I0529 01:08:07.125797 19214 net.cpp:100] Creating Layer fc4_relu
I0529 01:08:07.125808 19214 net.cpp:434] fc4_relu <- fc4_300
I0529 01:08:07.125815 19214 net.cpp:395] fc4_relu -> fc4_300 (in-place)
I0529 01:08:07.126011 19214 net.cpp:150] Setting up fc4_relu
I0529 01:08:07.126026 19214 net.cpp:157] Top shape: 1024 300 (307200)
I0529 01:08:07.126034 19214 net.cpp:165] Memory required for data: 2187329536
I0529 01:08:07.126041 19214 layer_factory.hpp:77] Creating layer fc5_116
I0529 01:08:07.126055 19214 net.cpp:100] Creating Layer fc5_116
I0529 01:08:07.126065 19214 net.cpp:434] fc5_116 <- fc4_300
I0529 01:08:07.126075 19214 net.cpp:408] fc5_116 -> fc5_classes
I0529 01:08:07.127239 19214 net.cpp:150] Setting up fc5_116
I0529 01:08:07.127254 19214 net.cpp:157] Top shape: 1024 116 (118784)
I0529 01:08:07.127259 19214 net.cpp:165] Memory required for data: 2187804672
I0529 01:08:07.127274 19214 layer_factory.hpp:77] Creating layer fc5_classes_fc5_116_0_split
I0529 01:08:07.127288 19214 net.cpp:100] Creating Layer fc5_classes_fc5_116_0_split
I0529 01:08:07.127298 19214 net.cpp:434] fc5_classes_fc5_116_0_split <- fc5_classes
I0529 01:08:07.127307 19214 net.cpp:408] fc5_classes_fc5_116_0_split -> fc5_classes_fc5_116_0_split_0
I0529 01:08:07.127320 19214 net.cpp:408] fc5_classes_fc5_116_0_split -> fc5_classes_fc5_116_0_split_1
I0529 01:08:07.127331 19214 net.cpp:408] fc5_classes_fc5_116_0_split -> fc5_classes_fc5_116_0_split_2
I0529 01:08:07.127394 19214 net.cpp:150] Setting up fc5_classes_fc5_116_0_split
I0529 01:08:07.127408 19214 net.cpp:157] Top shape: 1024 116 (118784)
I0529 01:08:07.127416 19214 net.cpp:157] Top shape: 1024 116 (118784)
I0529 01:08:07.127424 19214 net.cpp:157] Top shape: 1024 116 (118784)
I0529 01:08:07.127431 19214 net.cpp:165] Memory required for data: 2189230080
I0529 01:08:07.127437 19214 layer_factory.hpp:77] Creating layer softmax
I0529 01:08:07.127449 19214 net.cpp:100] Creating Layer softmax
I0529 01:08:07.127456 19214 net.cpp:434] softmax <- fc5_classes_fc5_116_0_split_0
I0529 01:08:07.127465 19214 net.cpp:408] softmax -> softmax
I0529 01:08:07.127740 19214 net.cpp:150] Setting up softmax
I0529 01:08:07.127758 19214 net.cpp:157] Top shape: 1024 116 (118784)
I0529 01:08:07.127768 19214 net.cpp:165] Memory required for data: 2189705216
I0529 01:08:07.127775 19214 layer_factory.hpp:77] Creating layer loss
I0529 01:08:07.127804 19214 net.cpp:100] Creating Layer loss
I0529 01:08:07.127815 19214 net.cpp:434] loss <- softmax
I0529 01:08:07.127822 19214 net.cpp:434] loss <- label_data_1_split_0
I0529 01:08:07.127832 19214 net.cpp:408] loss -> loss
…
