…
I0528 01:41:26.660125 10092 solver.cpp:81] Creating training net from train_net file: ./Prototxt/experiment_21/RTSD/CoNorm/trial_1/train.prototxt
I0528 01:41:26.660719 10092 net.cpp:58] Initializing net from parameters: 
state {
  phase: TRAIN
  level: 0
  stage: ""
}
layer {
  name: "data"
  type: "Data"
  top: "data"
  top: "label"
  include {
    phase: TRAIN
  }
  transform_param {
    scale: 0.0039215689
    mirror: false
    crop_size: 48
    mean_value: 135
    mean_value: 135
    mean_value: 134
  }
  data_param {
    source: "../local_data/lmdb/RTSD/CoNorm/train/lmdb"
    batch_size: 1024
    backend: LMDB
  }
}
layer {
  name: "conv1"
  type: "Convolution"
  bottom: "data"
  top: "conv1"
  convolution_param {
    num_output: 100
    pad: 0
    kernel_size: 7
    group: 1
    stride: 1
    weight_filler {
      type: "xavier"
    }
  }
}
layer {
  name: "conv1_relu"
  type: "ReLU"
  bottom: "conv1"
  top: "conv1"
}
layer {
  name: "pool1"
  type: "Pooling"
  bottom: "conv1"
  top: "pool1"
  pooling_param {
    pool: MAX
    kernel_size: 2
    stride: 2
  }
}
layer {
  name: "conv2"
  type: "Convolution"
  bottom: "pool1"
  top: "conv2"
  convolution_param {
    num_output: 150
    pad: 0
    kernel_size: 4
    group: 1
    stride: 1
    weight_filler {
      type: "xavier"
    }
  }
}
layer {
  name: "conv2_relu"
  type: "ReLU"
  bottom: "conv2"
  top: "conv2"
}
layer {
  name: "pool2"
  type: "Pooling"
  bottom: "conv2"
  top: "pool2"
  pooling_param {
    pool: MAX
    kernel_size: 2
    stride: 2
  }
}
layer {
  name: "conv3"
  type: "Convolution"
  bottom: "pool2"
  top: "conv3"
  convolution_param {
    num_output: 250
    pad: 0
    kernel_size: 4
    group: 1
    stride: 1
    weight_filler {
      type: "xavier"
    }
  }
}
layer {
  name: "conv3_relu"
  type: "ReLU"
  bottom: "conv3"
  top: "conv3"
}
layer {
  name: "pool3"
  type: "Pooling"
  bottom: "conv3"
  top: "pool3"
  pooling_param {
    pool: MAX
    kernel_size: 2
    stride: 2
  }
}
layer {
  name: "fc4_300"
  type: "InnerProduct"
  bottom: "pool3"
  top: "fc4_300"
  inner_product_param {
    num_output: 300
    weight_filler {
      type: "xavier"
    }
  }
}
layer {
  name: "fc4_relu"
  type: "ReLU"
  bottom: "fc4_300"
  top: "fc4_300"
}
layer {
  name: "fc5_116"
  type: "InnerProduct"
  bottom: "fc4_300"
  top: "fc5_classes"
  inner_product_param {
    num_output: 116
    weight_filler {
      type: "xavier"
    }
  }
}
layer {
  name: "softmax"
  type: "Softmax"
  bottom: "fc5_classes"
  top: "softmax"
}
layer {
  name: "loss"
  type: "MultinomialLogisticLoss"
  bottom: "softmax"
  bottom: "label"
  top: "loss"
}
layer {
  name: "accuracy_1"
  type: "Accuracy"
  bottom: "fc5_classes"
  bottom: "label"
  top: "accuracy_1"
  accuracy_param {
    top_k: 1
  }
}
layer {
  name: "accuracy_5"
  type: "Accuracy"
  bottom: "fc5_classes"
  bottom: "label"
  top: "accuracy_5"
  accuracy_param {
    top_k: 5
  }
}
layer {
  name: "silence"
  type: "Silence"
  bottom: "accuracy_1"
  bottom: "accuracy_5"
}
I0528 01:41:26.660874 10092 layer_factory.hpp:77] Creating layer data
I0528 01:41:26.662050 10092 net.cpp:100] Creating Layer data
I0528 01:41:26.662109 10092 net.cpp:408] data -> data
I0528 01:41:26.662170 10092 net.cpp:408] data -> label
I0528 01:41:26.662875 10121 db_lmdb.cpp:35] Opened lmdb ../local_data/lmdb/RTSD/CoNorm/train/lmdb
I0528 01:41:26.689932 10092 data_layer.cpp:41] output data size: 1024,3,48,48
I0528 01:41:26.738029 10092 net.cpp:150] Setting up data
I0528 01:41:26.738080 10092 net.cpp:157] Top shape: 1024 3 48 48 (7077888)
I0528 01:41:26.738087 10092 net.cpp:157] Top shape: 1024 (1024)
I0528 01:41:26.738091 10092 net.cpp:165] Memory required for data: 28315648
I0528 01:41:26.738101 10092 layer_factory.hpp:77] Creating layer label_data_1_split
I0528 01:41:26.738112 10092 net.cpp:100] Creating Layer label_data_1_split
I0528 01:41:26.738118 10092 net.cpp:434] label_data_1_split <- label
I0528 01:41:26.738131 10092 net.cpp:408] label_data_1_split -> label_data_1_split_0
I0528 01:41:26.738140 10092 net.cpp:408] label_data_1_split -> label_data_1_split_1
I0528 01:41:26.738145 10092 net.cpp:408] label_data_1_split -> label_data_1_split_2
I0528 01:41:26.738188 10092 net.cpp:150] Setting up label_data_1_split
I0528 01:41:26.738198 10092 net.cpp:157] Top shape: 1024 (1024)
I0528 01:41:26.738203 10092 net.cpp:157] Top shape: 1024 (1024)
I0528 01:41:26.738206 10092 net.cpp:157] Top shape: 1024 (1024)
I0528 01:41:26.738209 10092 net.cpp:165] Memory required for data: 28327936
I0528 01:41:26.738214 10092 layer_factory.hpp:77] Creating layer conv1
I0528 01:41:26.738234 10092 net.cpp:100] Creating Layer conv1
I0528 01:41:26.738240 10092 net.cpp:434] conv1 <- data
I0528 01:41:26.738246 10092 net.cpp:408] conv1 -> conv1
I0528 01:41:27.021622 10092 net.cpp:150] Setting up conv1
I0528 01:41:27.021661 10092 net.cpp:157] Top shape: 1024 100 42 42 (180633600)
I0528 01:41:27.021667 10092 net.cpp:165] Memory required for data: 750862336
I0528 01:41:27.021690 10092 layer_factory.hpp:77] Creating layer conv1_relu
I0528 01:41:27.021709 10092 net.cpp:100] Creating Layer conv1_relu
I0528 01:41:27.021714 10092 net.cpp:434] conv1_relu <- conv1
I0528 01:41:27.021720 10092 net.cpp:395] conv1_relu -> conv1 (in-place)
I0528 01:41:27.021881 10092 net.cpp:150] Setting up conv1_relu
I0528 01:41:27.021901 10092 net.cpp:157] Top shape: 1024 100 42 42 (180633600)
I0528 01:41:27.021908 10092 net.cpp:165] Memory required for data: 1473396736
I0528 01:41:27.021914 10092 layer_factory.hpp:77] Creating layer pool1
I0528 01:41:27.021934 10092 net.cpp:100] Creating Layer pool1
I0528 01:41:27.021941 10092 net.cpp:434] pool1 <- conv1
I0528 01:41:27.021957 10092 net.cpp:408] pool1 -> pool1
I0528 01:41:27.022023 10092 net.cpp:150] Setting up pool1
I0528 01:41:27.022035 10092 net.cpp:157] Top shape: 1024 100 21 21 (45158400)
I0528 01:41:27.022040 10092 net.cpp:165] Memory required for data: 1654030336
I0528 01:41:27.022047 10092 layer_factory.hpp:77] Creating layer conv2
I0528 01:41:27.022070 10092 net.cpp:100] Creating Layer conv2
I0528 01:41:27.022078 10092 net.cpp:434] conv2 <- pool1
I0528 01:41:27.022094 10092 net.cpp:408] conv2 -> conv2
I0528 01:41:27.025213 10092 net.cpp:150] Setting up conv2
I0528 01:41:27.025243 10092 net.cpp:157] Top shape: 1024 150 18 18 (49766400)
I0528 01:41:27.025249 10092 net.cpp:165] Memory required for data: 1853095936
I0528 01:41:27.025272 10092 layer_factory.hpp:77] Creating layer conv2_relu
I0528 01:41:27.025292 10092 net.cpp:100] Creating Layer conv2_relu
I0528 01:41:27.025300 10092 net.cpp:434] conv2_relu <- conv2
I0528 01:41:27.025317 10092 net.cpp:395] conv2_relu -> conv2 (in-place)
I0528 01:41:27.025477 10092 net.cpp:150] Setting up conv2_relu
I0528 01:41:27.025491 10092 net.cpp:157] Top shape: 1024 150 18 18 (49766400)
I0528 01:41:27.025497 10092 net.cpp:165] Memory required for data: 2052161536
I0528 01:41:27.025504 10092 layer_factory.hpp:77] Creating layer pool2
I0528 01:41:27.025516 10092 net.cpp:100] Creating Layer pool2
I0528 01:41:27.025522 10092 net.cpp:434] pool2 <- conv2
I0528 01:41:27.025537 10092 net.cpp:408] pool2 -> pool2
I0528 01:41:27.025591 10092 net.cpp:150] Setting up pool2
I0528 01:41:27.025602 10092 net.cpp:157] Top shape: 1024 150 9 9 (12441600)
I0528 01:41:27.025609 10092 net.cpp:165] Memory required for data: 2101927936
I0528 01:41:27.025614 10092 layer_factory.hpp:77] Creating layer conv3
I0528 01:41:27.025640 10092 net.cpp:100] Creating Layer conv3
I0528 01:41:27.025650 10092 net.cpp:434] conv3 <- pool2
I0528 01:41:27.025666 10092 net.cpp:408] conv3 -> conv3
I0528 01:41:27.035624 10092 net.cpp:150] Setting up conv3
I0528 01:41:27.035681 10092 net.cpp:157] Top shape: 1024 250 6 6 (9216000)
I0528 01:41:27.035688 10092 net.cpp:165] Memory required for data: 2138791936
I0528 01:41:27.035715 10092 layer_factory.hpp:77] Creating layer conv3_relu
I0528 01:41:27.035737 10092 net.cpp:100] Creating Layer conv3_relu
I0528 01:41:27.035744 10092 net.cpp:434] conv3_relu <- conv3
I0528 01:41:27.035764 10092 net.cpp:395] conv3_relu -> conv3 (in-place)
I0528 01:41:27.036341 10092 net.cpp:150] Setting up conv3_relu
I0528 01:41:27.036371 10092 net.cpp:157] Top shape: 1024 250 6 6 (9216000)
I0528 01:41:27.036377 10092 net.cpp:165] Memory required for data: 2175655936
I0528 01:41:27.036383 10092 layer_factory.hpp:77] Creating layer pool3
I0528 01:41:27.036394 10092 net.cpp:100] Creating Layer pool3
I0528 01:41:27.036401 10092 net.cpp:434] pool3 <- conv3
I0528 01:41:27.036417 10092 net.cpp:408] pool3 -> pool3
I0528 01:41:27.036468 10092 net.cpp:150] Setting up pool3
I0528 01:41:27.036480 10092 net.cpp:157] Top shape: 1024 250 3 3 (2304000)
I0528 01:41:27.036485 10092 net.cpp:165] Memory required for data: 2184871936
I0528 01:41:27.036490 10092 layer_factory.hpp:77] Creating layer fc4_300
I0528 01:41:27.036507 10092 net.cpp:100] Creating Layer fc4_300
I0528 01:41:27.036512 10092 net.cpp:434] fc4_300 <- pool3
I0528 01:41:27.036530 10092 net.cpp:408] fc4_300 -> fc4_300
I0528 01:41:27.042721 10092 net.cpp:150] Setting up fc4_300
I0528 01:41:27.042757 10092 net.cpp:157] Top shape: 1024 300 (307200)
I0528 01:41:27.042763 10092 net.cpp:165] Memory required for data: 2186100736
I0528 01:41:27.042778 10092 layer_factory.hpp:77] Creating layer fc4_relu
I0528 01:41:27.042789 10092 net.cpp:100] Creating Layer fc4_relu
I0528 01:41:27.042796 10092 net.cpp:434] fc4_relu <- fc4_300
I0528 01:41:27.042805 10092 net.cpp:395] fc4_relu -> fc4_300 (in-place)
I0528 01:41:27.043031 10092 net.cpp:150] Setting up fc4_relu
I0528 01:41:27.043046 10092 net.cpp:157] Top shape: 1024 300 (307200)
I0528 01:41:27.043053 10092 net.cpp:165] Memory required for data: 2187329536
I0528 01:41:27.043066 10092 layer_factory.hpp:77] Creating layer fc5_116
I0528 01:41:27.043077 10092 net.cpp:100] Creating Layer fc5_116
I0528 01:41:27.043088 10092 net.cpp:434] fc5_116 <- fc4_300
I0528 01:41:27.043098 10092 net.cpp:408] fc5_116 -> fc5_classes
I0528 01:41:27.044574 10092 net.cpp:150] Setting up fc5_116
I0528 01:41:27.044595 10092 net.cpp:157] Top shape: 1024 116 (118784)
I0528 01:41:27.044605 10092 net.cpp:165] Memory required for data: 2187804672
I0528 01:41:27.044621 10092 layer_factory.hpp:77] Creating layer fc5_classes_fc5_116_0_split
I0528 01:41:27.044633 10092 net.cpp:100] Creating Layer fc5_classes_fc5_116_0_split
I0528 01:41:27.044641 10092 net.cpp:434] fc5_classes_fc5_116_0_split <- fc5_classes
I0528 01:41:27.044661 10092 net.cpp:408] fc5_classes_fc5_116_0_split -> fc5_classes_fc5_116_0_split_0
I0528 01:41:27.044672 10092 net.cpp:408] fc5_classes_fc5_116_0_split -> fc5_classes_fc5_116_0_split_1
I0528 01:41:27.044683 10092 net.cpp:408] fc5_classes_fc5_116_0_split -> fc5_classes_fc5_116_0_split_2
I0528 01:41:27.044775 10092 net.cpp:150] Setting up fc5_classes_fc5_116_0_split
I0528 01:41:27.044790 10092 net.cpp:157] Top shape: 1024 116 (118784)
I0528 01:41:27.044798 10092 net.cpp:157] Top shape: 1024 116 (118784)
I0528 01:41:27.044808 10092 net.cpp:157] Top shape: 1024 116 (118784)
I0528 01:41:27.044816 10092 net.cpp:165] Memory required for data: 2189230080
I0528 01:41:27.044824 10092 layer_factory.hpp:77] Creating layer softmax
I0528 01:41:27.044833 10092 net.cpp:100] Creating Layer softmax
I0528 01:41:27.044844 10092 net.cpp:434] softmax <- fc5_classes_fc5_116_0_split_0
I0528 01:41:27.044854 10092 net.cpp:408] softmax -> softmax
I0528 01:41:27.045141 10092 net.cpp:150] Setting up softmax
I0528 01:41:27.045161 10092 net.cpp:157] Top shape: 1024 116 (118784)
I0528 01:41:27.045166 10092 net.cpp:165] Memory required for data: 2189705216
I0528 01:41:27.045172 10092 layer_factory.hpp:77] Creating layer loss
I0528 01:41:27.045207 10092 net.cpp:100] Creating Layer loss
I0528 01:41:27.045214 10092 net.cpp:434] loss <- softmax
I0528 01:41:27.045222 10092 net.cpp:434] loss <- label_data_1_split_0
I0528 01:41:27.045233 10092 net.cpp:408] loss -> loss
…
