…
I0411 17:51:51.487540 10492 net.cpp:322] The NetState phase (0) differed from the phase (1) specified by a rule in layer accuracy_5
I0411 17:51:51.487699 10492 net.cpp:58] Initializing net from parameters: 
state {
  phase: TRAIN
  level: 0
  stage: ""
}
layer {
  name: "data"
  type: "Data"
  top: "data"
  top: "label"
  include {
    phase: TRAIN
  }
  transform_param {
    scale: 0.0039215689
    mirror: false
    crop_size: 48
    mean_value: 122
    mean_value: 115
    mean_value: 129
  }
  data_param {
    source: "../local_data/lmdb/rtsd-r1/orig/train/lmdb"
    batch_size: 1024
    backend: LMDB
  }
}
layer {
  name: "conv1"
  type: "Convolution"
  bottom: "data"
  top: "conv1"
  convolution_param {
    num_output: 100
    pad: 0
    kernel_size: 7
    group: 1
    stride: 1
    weight_filler {
      type: "xavier"
    }
  }
}
layer {
  name: "conv1_prescale"
  type: "Scale"
  bottom: "conv1"
  top: "conv1"
  param {
    lr_mult: 0
    decay_mult: 0
  }
  scale_param {
    filler {
      value: 0.6666
    }
    bias_term: false
  }
}
layer {
  name: "conv1_sTanH"
  type: "TanH"
  bottom: "conv1"
  top: "conv1"
}
layer {
  name: "conv1_postscale"
  type: "Scale"
  bottom: "conv1"
  top: "conv1"
  param {
    lr_mult: 0
    decay_mult: 0
  }
  scale_param {
    filler {
      value: 1.7159
    }
    bias_term: false
  }
}
layer {
  name: "pool1"
  type: "Pooling"
  bottom: "conv1"
  top: "pool1"
  pooling_param {
    pool: MAX
    kernel_size: 2
    stride: 2
  }
}
layer {
  name: "conv2"
  type: "Convolution"
  bottom: "pool1"
  top: "conv2"
  convolution_param {
    num_output: 150
    pad: 0
    kernel_size: 4
    group: 1
    stride: 1
    weight_filler {
      type: "xavier"
    }
  }
}
layer {
  name: "conv2_prescale"
  type: "Scale"
  bottom: "conv2"
  top: "conv2"
  param {
    lr_mult: 0
    decay_mult: 0
  }
  scale_param {
    filler {
      value: 0.6666
    }
    bias_term: false
  }
}
layer {
  name: "conv2_sTanH"
  type: "TanH"
  bottom: "conv2"
  top: "conv2"
}
layer {
  name: "conv2_postscale"
  type: "Scale"
  bottom: "conv2"
  top: "conv2"
  param {
    lr_mult: 0
    decay_mult: 0
  }
  scale_param {
    filler {
      value: 1.7159
    }
    bias_term: false
  }
}
layer {
  name: "pool2"
  type: "Pooling"
  bottom: "conv2"
  top: "pool2"
  pooling_param {
    pool: MAX
    kernel_size: 2
    stride: 2
  }
}
layer {
  name: "conv3"
  type: "Convolution"
  bottom: "pool2"
  top: "conv3"
  convolution_param {
    num_output: 250
    pad: 0
    kernel_size: 4
    group: 1
    stride: 1
    weight_filler {
      type: "xavier"
    }
  }
}
layer {
  name: "conv3_prescale"
  type: "Scale"
  bottom: "conv3"
  top: "conv3"
  param {
    lr_mult: 0
    decay_mult: 0
  }
  scale_param {
    filler {
      value: 0.6666
    }
    bias_term: false
  }
}
layer {
  name: "conv3_sTanH"
  type: "TanH"
  bottom: "conv3"
  top: "conv3"
}
layer {
  name: "conv3_postscale"
  type: "Scale"
  bottom: "conv3"
  top: "conv3"
  param {
    lr_mult: 0
    decay_mult: 0
  }
  scale_param {
    filler {
      value: 1.7159
    }
    bias_term: false
  }
}
layer {
  name: "pool3"
  type: "Pooling"
  bottom: "conv3"
  top: "pool3"
  pooling_param {
    pool: MAX
    kernel_size: 2
    stride: 2
  }
}
layer {
  name: "fc4_300"
  type: "InnerProduct"
  bottom: "pool3"
  top: "fc4_300"
  inner_product_param {
    num_output: 300
    weight_filler {
      type: "xavier"
    }
  }
}
layer {
  name: "fc4_prescale"
  type: "Scale"
  bottom: "fc4_300"
  top: "fc4_300"
  param {
    lr_mult: 0
    decay_mult: 0
  }
  scale_param {
    filler {
      value: 0.6666
    }
    bias_term: false
  }
}
layer {
  name: "fc4_sTanH"
  type: "TanH"
  bottom: "fc4_300"
  top: "fc4_300"
}
layer {
  name: "fc4_postscale"
  type: "Scale"
  bottom: "fc4_300"
  top: "fc4_300"
  param {
    lr_mult: 0
    decay_mult: 0
  }
  scale_param {
    filler {
      value: 1.7159
    }
    bias_term: false
  }
}
layer {
  name: "drop4"
  type: "Dropout"
  bottom: "fc4_300"
  top: "fc4_300"
  dropout_param {
    dropout_ratio: 0.1
  }
}
layer {
  name: "fc5_67"
  type: "InnerProduct"
  bottom: "fc4_300"
  top: "fc5_classes"
  inner_product_param {
    num_output: 67
    weight_filler {
      type: "xavier"
    }
  }
}
layer {
  name: "loss"
  type: "SoftmaxWithLoss"
  bottom: "fc5_classes"
  bottom: "label"
  top: "loss"
}
I0411 17:51:51.487804 10492 layer_factory.hpp:77] Creating layer data
I0411 17:51:51.488879 10492 net.cpp:100] Creating Layer data
I0411 17:51:51.488899 10492 net.cpp:408] data -> data
I0411 17:51:51.488922 10492 net.cpp:408] data -> label
I0411 17:51:51.490237 10611 db_lmdb.cpp:35] Opened lmdb ../local_data/lmdb/rtsd-r1/orig/train/lmdb
I0411 17:51:51.508137 10492 data_layer.cpp:41] output data size: 1024,3,48,48
I0411 17:51:51.562533 10492 net.cpp:150] Setting up data
I0411 17:51:51.562562 10492 net.cpp:157] Top shape: 1024 3 48 48 (7077888)
I0411 17:51:51.562568 10492 net.cpp:157] Top shape: 1024 (1024)
I0411 17:51:51.562572 10492 net.cpp:165] Memory required for data: 28315648
I0411 17:51:51.562580 10492 layer_factory.hpp:77] Creating layer conv1
I0411 17:51:51.562602 10492 net.cpp:100] Creating Layer conv1
I0411 17:51:51.562609 10492 net.cpp:434] conv1 <- data
I0411 17:51:51.562623 10492 net.cpp:408] conv1 -> conv1
I0411 17:51:51.848088 10492 net.cpp:150] Setting up conv1
I0411 17:51:51.848116 10492 net.cpp:157] Top shape: 1024 100 42 42 (180633600)
I0411 17:51:51.848120 10492 net.cpp:165] Memory required for data: 750850048
I0411 17:51:51.848143 10492 layer_factory.hpp:77] Creating layer conv1_prescale
I0411 17:51:51.848157 10492 net.cpp:100] Creating Layer conv1_prescale
I0411 17:51:51.848163 10492 net.cpp:434] conv1_prescale <- conv1
I0411 17:51:51.848170 10492 net.cpp:395] conv1_prescale -> conv1 (in-place)
I0411 17:51:51.848284 10492 net.cpp:150] Setting up conv1_prescale
I0411 17:51:51.848294 10492 net.cpp:157] Top shape: 1024 100 42 42 (180633600)
I0411 17:51:51.848296 10492 net.cpp:165] Memory required for data: 1473384448
I0411 17:51:51.848302 10492 layer_factory.hpp:77] Creating layer conv1_sTanH
I0411 17:51:51.848310 10492 net.cpp:100] Creating Layer conv1_sTanH
I0411 17:51:51.848315 10492 net.cpp:434] conv1_sTanH <- conv1
I0411 17:51:51.848320 10492 net.cpp:395] conv1_sTanH -> conv1 (in-place)
I0411 17:51:51.848536 10492 net.cpp:150] Setting up conv1_sTanH
I0411 17:51:51.848549 10492 net.cpp:157] Top shape: 1024 100 42 42 (180633600)
I0411 17:51:51.848553 10492 net.cpp:165] Memory required for data: 2195918848
I0411 17:51:51.848556 10492 layer_factory.hpp:77] Creating layer conv1_postscale
I0411 17:51:51.848564 10492 net.cpp:100] Creating Layer conv1_postscale
I0411 17:51:51.848567 10492 net.cpp:434] conv1_postscale <- conv1
I0411 17:51:51.848574 10492 net.cpp:395] conv1_postscale -> conv1 (in-place)
I0411 17:51:51.848676 10492 net.cpp:150] Setting up conv1_postscale
I0411 17:51:51.848685 10492 net.cpp:157] Top shape: 1024 100 42 42 (180633600)
I0411 17:51:51.848688 10492 net.cpp:165] Memory required for data: 2918453248
I0411 17:51:51.848693 10492 layer_factory.hpp:77] Creating layer pool1
I0411 17:51:51.848701 10492 net.cpp:100] Creating Layer pool1
I0411 17:51:51.848703 10492 net.cpp:434] pool1 <- conv1
I0411 17:51:51.848709 10492 net.cpp:408] pool1 -> pool1
I0411 17:51:51.848783 10492 net.cpp:150] Setting up pool1
I0411 17:51:51.848795 10492 net.cpp:157] Top shape: 1024 100 21 21 (45158400)
I0411 17:51:51.848798 10492 net.cpp:165] Memory required for data: 3099086848
I0411 17:51:51.848801 10492 layer_factory.hpp:77] Creating layer conv2
I0411 17:51:51.848814 10492 net.cpp:100] Creating Layer conv2
I0411 17:51:51.848819 10492 net.cpp:434] conv2 <- pool1
I0411 17:51:51.848824 10492 net.cpp:408] conv2 -> conv2
I0411 17:51:51.853360 10492 net.cpp:150] Setting up conv2
I0411 17:51:51.853379 10492 net.cpp:157] Top shape: 1024 150 18 18 (49766400)
I0411 17:51:51.853381 10492 net.cpp:165] Memory required for data: 3298152448
I0411 17:51:51.853391 10492 layer_factory.hpp:77] Creating layer conv2_prescale
I0411 17:51:51.853400 10492 net.cpp:100] Creating Layer conv2_prescale
I0411 17:51:51.853404 10492 net.cpp:434] conv2_prescale <- conv2
I0411 17:51:51.853410 10492 net.cpp:395] conv2_prescale -> conv2 (in-place)
I0411 17:51:51.853521 10492 net.cpp:150] Setting up conv2_prescale
I0411 17:51:51.853531 10492 net.cpp:157] Top shape: 1024 150 18 18 (49766400)
I0411 17:51:51.853534 10492 net.cpp:165] Memory required for data: 3497218048
I0411 17:51:51.853538 10492 layer_factory.hpp:77] Creating layer conv2_sTanH
I0411 17:51:51.853548 10492 net.cpp:100] Creating Layer conv2_sTanH
I0411 17:51:51.853551 10492 net.cpp:434] conv2_sTanH <- conv2
I0411 17:51:51.853556 10492 net.cpp:395] conv2_sTanH -> conv2 (in-place)
I0411 17:51:51.854308 10492 net.cpp:150] Setting up conv2_sTanH
I0411 17:51:51.854326 10492 net.cpp:157] Top shape: 1024 150 18 18 (49766400)
I0411 17:51:51.854329 10492 net.cpp:165] Memory required for data: 3696283648
I0411 17:51:51.854332 10492 layer_factory.hpp:77] Creating layer conv2_postscale
I0411 17:51:51.854339 10492 net.cpp:100] Creating Layer conv2_postscale
I0411 17:51:51.854342 10492 net.cpp:434] conv2_postscale <- conv2
I0411 17:51:51.854351 10492 net.cpp:395] conv2_postscale -> conv2 (in-place)
I0411 17:51:51.854454 10492 net.cpp:150] Setting up conv2_postscale
I0411 17:51:51.854465 10492 net.cpp:157] Top shape: 1024 150 18 18 (49766400)
I0411 17:51:51.854468 10492 net.cpp:165] Memory required for data: 3895349248
I0411 17:51:51.854475 10492 layer_factory.hpp:77] Creating layer pool2
I0411 17:51:51.854480 10492 net.cpp:100] Creating Layer pool2
I0411 17:51:51.854483 10492 net.cpp:434] pool2 <- conv2
I0411 17:51:51.854487 10492 net.cpp:408] pool2 -> pool2
I0411 17:51:51.854531 10492 net.cpp:150] Setting up pool2
I0411 17:51:51.854538 10492 net.cpp:157] Top shape: 1024 150 9 9 (12441600)
I0411 17:51:51.854542 10492 net.cpp:165] Memory required for data: 3945115648
I0411 17:51:51.854544 10492 layer_factory.hpp:77] Creating layer conv3
I0411 17:51:51.854553 10492 net.cpp:100] Creating Layer conv3
I0411 17:51:51.854558 10492 net.cpp:434] conv3 <- pool2
I0411 17:51:51.854564 10492 net.cpp:408] conv3 -> conv3
I0411 17:51:51.860077 10492 net.cpp:150] Setting up conv3
I0411 17:51:51.860097 10492 net.cpp:157] Top shape: 1024 250 6 6 (9216000)
I0411 17:51:51.860101 10492 net.cpp:165] Memory required for data: 3981979648
I0411 17:51:51.860111 10492 layer_factory.hpp:77] Creating layer conv3_prescale
I0411 17:51:51.860121 10492 net.cpp:100] Creating Layer conv3_prescale
I0411 17:51:51.860127 10492 net.cpp:434] conv3_prescale <- conv3
I0411 17:51:51.860133 10492 net.cpp:395] conv3_prescale -> conv3 (in-place)
I0411 17:51:51.860231 10492 net.cpp:150] Setting up conv3_prescale
I0411 17:51:51.860244 10492 net.cpp:157] Top shape: 1024 250 6 6 (9216000)
I0411 17:51:51.860246 10492 net.cpp:165] Memory required for data: 4018843648
I0411 17:51:51.860251 10492 layer_factory.hpp:77] Creating layer conv3_sTanH
I0411 17:51:51.860256 10492 net.cpp:100] Creating Layer conv3_sTanH
I0411 17:51:51.860260 10492 net.cpp:434] conv3_sTanH <- conv3
I0411 17:51:51.860265 10492 net.cpp:395] conv3_sTanH -> conv3 (in-place)
I0411 17:51:51.861027 10492 net.cpp:150] Setting up conv3_sTanH
I0411 17:51:51.861044 10492 net.cpp:157] Top shape: 1024 250 6 6 (9216000)
I0411 17:51:51.861047 10492 net.cpp:165] Memory required for data: 4055707648
I0411 17:51:51.861063 10492 layer_factory.hpp:77] Creating layer conv3_postscale
I0411 17:51:51.861073 10492 net.cpp:100] Creating Layer conv3_postscale
I0411 17:51:51.861078 10492 net.cpp:434] conv3_postscale <- conv3
I0411 17:51:51.861083 10492 net.cpp:395] conv3_postscale -> conv3 (in-place)
I0411 17:51:51.861187 10492 net.cpp:150] Setting up conv3_postscale
I0411 17:51:51.861196 10492 net.cpp:157] Top shape: 1024 250 6 6 (9216000)
I0411 17:51:51.861199 10492 net.cpp:165] Memory required for data: 4092571648
I0411 17:51:51.861204 10492 layer_factory.hpp:77] Creating layer pool3
I0411 17:51:51.861210 10492 net.cpp:100] Creating Layer pool3
I0411 17:51:51.861213 10492 net.cpp:434] pool3 <- conv3
I0411 17:51:51.861222 10492 net.cpp:408] pool3 -> pool3
I0411 17:51:51.861264 10492 net.cpp:150] Setting up pool3
I0411 17:51:51.861273 10492 net.cpp:157] Top shape: 1024 250 3 3 (2304000)
I0411 17:51:51.861275 10492 net.cpp:165] Memory required for data: 4101787648
I0411 17:51:51.861279 10492 layer_factory.hpp:77] Creating layer fc4_300
I0411 17:51:51.861289 10492 net.cpp:100] Creating Layer fc4_300
I0411 17:51:51.861294 10492 net.cpp:434] fc4_300 <- pool3
I0411 17:51:51.861299 10492 net.cpp:408] fc4_300 -> fc4_300
I0411 17:51:51.866636 10492 net.cpp:150] Setting up fc4_300
I0411 17:51:51.866652 10492 net.cpp:157] Top shape: 1024 300 (307200)
I0411 17:51:51.866667 10492 net.cpp:165] Memory required for data: 4103016448
I0411 17:51:51.866673 10492 layer_factory.hpp:77] Creating layer fc4_prescale
I0411 17:51:51.866680 10492 net.cpp:100] Creating Layer fc4_prescale
I0411 17:51:51.866685 10492 net.cpp:434] fc4_prescale <- fc4_300
I0411 17:51:51.866690 10492 net.cpp:395] fc4_prescale -> fc4_300 (in-place)
I0411 17:51:51.866782 10492 net.cpp:150] Setting up fc4_prescale
I0411 17:51:51.866791 10492 net.cpp:157] Top shape: 1024 300 (307200)
I0411 17:51:51.866793 10492 net.cpp:165] Memory required for data: 4104245248
I0411 17:51:51.866798 10492 layer_factory.hpp:77] Creating layer fc4_sTanH
I0411 17:51:51.866803 10492 net.cpp:100] Creating Layer fc4_sTanH
I0411 17:51:51.866806 10492 net.cpp:434] fc4_sTanH <- fc4_300
I0411 17:51:51.866811 10492 net.cpp:395] fc4_sTanH -> fc4_300 (in-place)
I0411 17:51:51.867002 10492 net.cpp:150] Setting up fc4_sTanH
I0411 17:51:51.867014 10492 net.cpp:157] Top shape: 1024 300 (307200)
I0411 17:51:51.867017 10492 net.cpp:165] Memory required for data: 4105474048
I0411 17:51:51.867020 10492 layer_factory.hpp:77] Creating layer fc4_postscale
I0411 17:51:51.867027 10492 net.cpp:100] Creating Layer fc4_postscale
I0411 17:51:51.867032 10492 net.cpp:434] fc4_postscale <- fc4_300
I0411 17:51:51.867035 10492 net.cpp:395] fc4_postscale -> fc4_300 (in-place)
I0411 17:51:51.867138 10492 net.cpp:150] Setting up fc4_postscale
I0411 17:51:51.867146 10492 net.cpp:157] Top shape: 1024 300 (307200)
I0411 17:51:51.867149 10492 net.cpp:165] Memory required for data: 4106702848
I0411 17:51:51.867153 10492 layer_factory.hpp:77] Creating layer drop4
I0411 17:51:51.867161 10492 net.cpp:100] Creating Layer drop4
I0411 17:51:51.867163 10492 net.cpp:434] drop4 <- fc4_300
I0411 17:51:51.867169 10492 net.cpp:395] drop4 -> fc4_300 (in-place)
I0411 17:51:51.867197 10492 net.cpp:150] Setting up drop4
I0411 17:51:51.867203 10492 net.cpp:157] Top shape: 1024 300 (307200)
I0411 17:51:51.867207 10492 net.cpp:165] Memory required for data: 4107931648
I0411 17:51:51.867209 10492 layer_factory.hpp:77] Creating layer fc5_67
I0411 17:51:51.867216 10492 net.cpp:100] Creating Layer fc5_67
I0411 17:51:51.867221 10492 net.cpp:434] fc5_67 <- fc4_300
I0411 17:51:51.867226 10492 net.cpp:408] fc5_67 -> fc5_classes
I0411 17:51:51.868453 10492 net.cpp:150] Setting up fc5_67
I0411 17:51:51.868468 10492 net.cpp:157] Top shape: 1024 67 (68608)
I0411 17:51:51.868471 10492 net.cpp:165] Memory required for data: 4108206080
I0411 17:51:51.868484 10492 layer_factory.hpp:77] Creating layer loss
I0411 17:51:51.868490 10492 net.cpp:100] Creating Layer loss
I0411 17:51:51.868494 10492 net.cpp:434] loss <- fc5_classes
I0411 17:51:51.868497 10492 net.cpp:434] loss <- label
I0411 17:51:51.868517 10492 net.cpp:408] loss -> loss
I0411 17:51:51.868531 10492 layer_factory.hpp:77] Creating layer loss
…
I0411 17:51:51.869271 10492 solver.cpp:193] Creating test net (#0) specified by test_net file: ./Prototxt/experiment_9/rtsd-r1/orig/trial_2/test.prototxt
I0411 17:51:51.869452 10492 net.cpp:58] Initializing net from parameters: 
state {
  phase: TEST
}
layer {
  name: "data"
  type: "Data"
  top: "data"
  top: "label"
  include {
    phase: TEST
  }
  transform_param {
    scale: 0.0039215689
    mirror: false
    crop_size: 48
    mean_value: 113
    mean_value: 110
    mean_value: 132
  }
  data_param {
    source: "../local_data/lmdb/rtsd-r1/orig/test/lmdb"
    batch_size: 1024
    backend: LMDB
  }
}
layer {
  name: "conv1"
  type: "Convolution"
  bottom: "data"
  top: "conv1"
  convolution_param {
    num_output: 100
    pad: 0
    kernel_size: 7
    group: 1
    stride: 1
    weight_filler {
      type: "xavier"
    }
  }
}
layer {
  name: "conv1_prescale"
  type: "Scale"
  bottom: "conv1"
  top: "conv1"
  param {
    lr_mult: 0
    decay_mult: 0
  }
  scale_param {
    filler {
      value: 0.6666
    }
    bias_term: false
  }
}
layer {
  name: "conv1_sTanH"
  type: "TanH"
  bottom: "conv1"
  top: "conv1"
}
layer {
  name: "conv1_postscale"
  type: "Scale"
  bottom: "conv1"
  top: "conv1"
  param {
    lr_mult: 0
    decay_mult: 0
  }
  scale_param {
    filler {
      value: 1.7159
    }
    bias_term: false
  }
}
layer {
  name: "pool1"
  type: "Pooling"
  bottom: "conv1"
  top: "pool1"
  pooling_param {
    pool: MAX
    kernel_size: 2
    stride: 2
  }
}
layer {
  name: "conv2"
  type: "Convolution"
  bottom: "pool1"
  top: "conv2"
  convolution_param {
    num_output: 150
    pad: 0
    kernel_size: 4
    group: 1
    stride: 1
    weight_filler {
      type: "xavier"
    }
  }
}
layer {
  name: "conv2_prescale"
  type: "Scale"
  bottom: "conv2"
  top: "conv2"
  param {
    lr_mult: 0
    decay_mult: 0
  }
  scale_param {
    filler {
      value: 0.6666
    }
    bias_term: false
  }
}
layer {
  name: "conv2_sTanH"
  type: "TanH"
  bottom: "conv2"
  top: "conv2"
}
layer {
  name: "conv2_postscale"
  type: "Scale"
  bottom: "conv2"
  top: "conv2"
  param {
    lr_mult: 0
    decay_mult: 0
  }
  scale_param {
    filler {
      value: 1.7159
    }
    bias_term: false
  }
}
layer {
  name: "pool2"
  type: "Pooling"
  bottom: "conv2"
  top: "pool2"
  pooling_param {
    pool: MAX
    kernel_size: 2
    stride: 2
  }
}
layer {
  name: "conv3"
  type: "Convolution"
  bottom: "pool2"
  top: "conv3"
  convolution_param {
    num_output: 250
    pad: 0
    kernel_size: 4
    group: 1
    stride: 1
    weight_filler {
      type: "xavier"
    }
  }
}
layer {
  name: "conv3_prescale"
  type: "Scale"
  bottom: "conv3"
  top: "conv3"
  param {
    lr_mult: 0
    decay_mult: 0
  }
  scale_param {
    filler {
      value: 0.6666
    }
    bias_term: false
  }
}
layer {
  name: "conv3_sTanH"
  type: "TanH"
  bottom: "conv3"
  top: "conv3"
}
layer {
  name: "conv3_postscale"
  type: "Scale"
  bottom: "conv3"
  top: "conv3"
  param {
    lr_mult: 0
    decay_mult: 0
  }
  scale_param {
    filler {
      value: 1.7159
    }
    bias_term: false
  }
}
layer {
  name: "pool3"
  type: "Pooling"
  bottom: "conv3"
  top: "pool3"
  pooling_param {
    pool: MAX
    kernel_size: 2
    stride: 2
  }
}
layer {
  name: "fc4_300"
  type: "InnerProduct"
  bottom: "pool3"
  top: "fc4_300"
  inner_product_param {
    num_output: 300
    weight_filler {
      type: "xavier"
    }
  }
}
layer {
  name: "fc4_prescale"
  type: "Scale"
  bottom: "fc4_300"
  top: "fc4_300"
  param {
    lr_mult: 0
    decay_mult: 0
  }
  scale_param {
    filler {
      value: 0.6666
    }
    bias_term: false
  }
}
layer {
  name: "fc4_sTanH"
  type: "TanH"
  bottom: "fc4_300"
  top: "fc4_300"
}
layer {
  name: "fc4_postscale"
  type: "Scale"
  bottom: "fc4_300"
  top: "fc4_300"
  param {
    lr_mult: 0
    decay_mult: 0
  }
  scale_param {
    filler {
      value: 1.7159
    }
    bias_term: false
  }
}
layer {
  name: "drop4"
  type: "Dropout"
  bottom: "fc4_300"
  top: "fc4_300"
  dropout_param {
    dropout_ratio: 0.1
  }
}
layer {
  name: "fc5_67"
  type: "InnerProduct"
  bottom: "fc4_300"
  top: "fc5_classes"
  inner_product_param {
    num_output: 67
    weight_filler {
      type: "xavier"
    }
  }
}
layer {
  name: "loss"
  type: "SoftmaxWithLoss"
  bottom: "fc5_classes"
  bottom: "label"
  top: "loss"
}
layer {
  name: "accuracy_1"
  type: "Accuracy"
  bottom: "fc5_classes"
  bottom: "label"
  top: "accuracy_1"
  include {
    phase: TEST
  }
  accuracy_param {
    top_k: 1
  }
}
layer {
  name: "accuracy_5"
  type: "Accuracy"
  bottom: "fc5_classes"
  bottom: "label"
  top: "accuracy_5"
  include {
    phase: TEST
  }
  accuracy_param {
    top_k: 5
  }
}
I0411 17:51:51.869576 10492 layer_factory.hpp:77] Creating layer data
I0411 17:51:51.870244 10492 net.cpp:100] Creating Layer data
I0411 17:51:51.870256 10492 net.cpp:408] data -> data
I0411 17:51:51.870267 10492 net.cpp:408] data -> label
I0411 17:51:51.871744 10661 db_lmdb.cpp:35] Opened lmdb ../local_data/lmdb/rtsd-r1/orig/test/lmdb
I0411 17:51:51.871928 10492 data_layer.cpp:41] output data size: 1024,3,48,48
I0411 17:51:51.919975 10492 net.cpp:150] Setting up data
I0411 17:51:51.920002 10492 net.cpp:157] Top shape: 1024 3 48 48 (7077888)
I0411 17:51:51.920007 10492 net.cpp:157] Top shape: 1024 (1024)
I0411 17:51:51.920011 10492 net.cpp:165] Memory required for data: 28315648
I0411 17:51:51.920017 10492 layer_factory.hpp:77] Creating layer label_data_1_split
I0411 17:51:51.920032 10492 net.cpp:100] Creating Layer label_data_1_split
I0411 17:51:51.920037 10492 net.cpp:434] label_data_1_split <- label
I0411 17:51:51.920045 10492 net.cpp:408] label_data_1_split -> label_data_1_split_0
I0411 17:51:51.920058 10492 net.cpp:408] label_data_1_split -> label_data_1_split_1
I0411 17:51:51.920089 10492 net.cpp:408] label_data_1_split -> label_data_1_split_2
I0411 17:51:51.920217 10492 net.cpp:150] Setting up label_data_1_split
I0411 17:51:51.920227 10492 net.cpp:157] Top shape: 1024 (1024)
I0411 17:51:51.920229 10492 net.cpp:157] Top shape: 1024 (1024)
I0411 17:51:51.920233 10492 net.cpp:157] Top shape: 1024 (1024)
I0411 17:51:51.920235 10492 net.cpp:165] Memory required for data: 28327936
I0411 17:51:51.920239 10492 layer_factory.hpp:77] Creating layer conv1
I0411 17:51:51.920255 10492 net.cpp:100] Creating Layer conv1
I0411 17:51:51.920260 10492 net.cpp:434] conv1 <- data
I0411 17:51:51.920266 10492 net.cpp:408] conv1 -> conv1
I0411 17:51:51.922626 10492 net.cpp:150] Setting up conv1
I0411 17:51:51.922643 10492 net.cpp:157] Top shape: 1024 100 42 42 (180633600)
I0411 17:51:51.922647 10492 net.cpp:165] Memory required for data: 750862336
I0411 17:51:51.922659 10492 layer_factory.hpp:77] Creating layer conv1_prescale
I0411 17:51:51.922674 10492 net.cpp:100] Creating Layer conv1_prescale
I0411 17:51:51.922679 10492 net.cpp:434] conv1_prescale <- conv1
I0411 17:51:51.922684 10492 net.cpp:395] conv1_prescale -> conv1 (in-place)
I0411 17:51:51.922796 10492 net.cpp:150] Setting up conv1_prescale
I0411 17:51:51.922806 10492 net.cpp:157] Top shape: 1024 100 42 42 (180633600)
I0411 17:51:51.922808 10492 net.cpp:165] Memory required for data: 1473396736
I0411 17:51:51.922816 10492 layer_factory.hpp:77] Creating layer conv1_sTanH
I0411 17:51:51.922827 10492 net.cpp:100] Creating Layer conv1_sTanH
I0411 17:51:51.922832 10492 net.cpp:434] conv1_sTanH <- conv1
I0411 17:51:51.922837 10492 net.cpp:395] conv1_sTanH -> conv1 (in-place)
I0411 17:51:51.923099 10492 net.cpp:150] Setting up conv1_sTanH
I0411 17:51:51.923110 10492 net.cpp:157] Top shape: 1024 100 42 42 (180633600)
I0411 17:51:51.923115 10492 net.cpp:165] Memory required for data: 2195931136
I0411 17:51:51.923120 10492 layer_factory.hpp:77] Creating layer conv1_postscale
I0411 17:51:51.923125 10492 net.cpp:100] Creating Layer conv1_postscale
I0411 17:51:51.923128 10492 net.cpp:434] conv1_postscale <- conv1
I0411 17:51:51.923133 10492 net.cpp:395] conv1_postscale -> conv1 (in-place)
I0411 17:51:51.925546 10492 net.cpp:150] Setting up conv1_postscale
I0411 17:51:51.925561 10492 net.cpp:157] Top shape: 1024 100 42 42 (180633600)
I0411 17:51:51.925565 10492 net.cpp:165] Memory required for data: 2918465536
I0411 17:51:51.925570 10492 layer_factory.hpp:77] Creating layer pool1
I0411 17:51:51.925580 10492 net.cpp:100] Creating Layer pool1
I0411 17:51:51.925583 10492 net.cpp:434] pool1 <- conv1
I0411 17:51:51.925588 10492 net.cpp:408] pool1 -> pool1
I0411 17:51:51.925637 10492 net.cpp:150] Setting up pool1
I0411 17:51:51.925645 10492 net.cpp:157] Top shape: 1024 100 21 21 (45158400)
I0411 17:51:51.925648 10492 net.cpp:165] Memory required for data: 3099099136
I0411 17:51:51.925652 10492 layer_factory.hpp:77] Creating layer conv2
I0411 17:51:51.925662 10492 net.cpp:100] Creating Layer conv2
I0411 17:51:51.925668 10492 net.cpp:434] conv2 <- pool1
I0411 17:51:51.925673 10492 net.cpp:408] conv2 -> conv2
I0411 17:51:51.939123 10492 net.cpp:150] Setting up conv2
I0411 17:51:51.939147 10492 net.cpp:157] Top shape: 1024 150 18 18 (49766400)
I0411 17:51:51.939151 10492 net.cpp:165] Memory required for data: 3298164736
I0411 17:51:51.939164 10492 layer_factory.hpp:77] Creating layer conv2_prescale
I0411 17:51:51.939177 10492 net.cpp:100] Creating Layer conv2_prescale
I0411 17:51:51.939180 10492 net.cpp:434] conv2_prescale <- conv2
I0411 17:51:51.939188 10492 net.cpp:395] conv2_prescale -> conv2 (in-place)
I0411 17:51:51.939311 10492 net.cpp:150] Setting up conv2_prescale
I0411 17:51:51.939321 10492 net.cpp:157] Top shape: 1024 150 18 18 (49766400)
I0411 17:51:51.939323 10492 net.cpp:165] Memory required for data: 3497230336
I0411 17:51:51.939327 10492 layer_factory.hpp:77] Creating layer conv2_sTanH
I0411 17:51:51.939333 10492 net.cpp:100] Creating Layer conv2_sTanH
I0411 17:51:51.939337 10492 net.cpp:434] conv2_sTanH <- conv2
I0411 17:51:51.939342 10492 net.cpp:395] conv2_sTanH -> conv2 (in-place)
I0411 17:51:51.945253 10492 net.cpp:150] Setting up conv2_sTanH
I0411 17:51:51.945274 10492 net.cpp:157] Top shape: 1024 150 18 18 (49766400)
I0411 17:51:51.945278 10492 net.cpp:165] Memory required for data: 3696295936
I0411 17:51:51.945281 10492 layer_factory.hpp:77] Creating layer conv2_postscale
I0411 17:51:51.945291 10492 net.cpp:100] Creating Layer conv2_postscale
I0411 17:51:51.945297 10492 net.cpp:434] conv2_postscale <- conv2
I0411 17:51:51.945303 10492 net.cpp:395] conv2_postscale -> conv2 (in-place)
I0411 17:51:51.945417 10492 net.cpp:150] Setting up conv2_postscale
I0411 17:51:51.945426 10492 net.cpp:157] Top shape: 1024 150 18 18 (49766400)
I0411 17:51:51.945430 10492 net.cpp:165] Memory required for data: 3895361536
I0411 17:51:51.945435 10492 layer_factory.hpp:77] Creating layer pool2
I0411 17:51:51.945441 10492 net.cpp:100] Creating Layer pool2
I0411 17:51:51.945447 10492 net.cpp:434] pool2 <- conv2
I0411 17:51:51.945453 10492 net.cpp:408] pool2 -> pool2
I0411 17:51:51.945504 10492 net.cpp:150] Setting up pool2
I0411 17:51:51.945513 10492 net.cpp:157] Top shape: 1024 150 9 9 (12441600)
I0411 17:51:51.945516 10492 net.cpp:165] Memory required for data: 3945127936
I0411 17:51:51.945519 10492 layer_factory.hpp:77] Creating layer conv3
I0411 17:51:51.945529 10492 net.cpp:100] Creating Layer conv3
I0411 17:51:51.945534 10492 net.cpp:434] conv3 <- pool2
I0411 17:51:51.945539 10492 net.cpp:408] conv3 -> conv3
I0411 17:51:51.951294 10492 net.cpp:150] Setting up conv3
I0411 17:51:51.951313 10492 net.cpp:157] Top shape: 1024 250 6 6 (9216000)
I0411 17:51:51.951318 10492 net.cpp:165] Memory required for data: 3981991936
I0411 17:51:51.951329 10492 layer_factory.hpp:77] Creating layer conv3_prescale
I0411 17:51:51.951339 10492 net.cpp:100] Creating Layer conv3_prescale
I0411 17:51:51.951344 10492 net.cpp:434] conv3_prescale <- conv3
I0411 17:51:51.951349 10492 net.cpp:395] conv3_prescale -> conv3 (in-place)
I0411 17:51:51.951453 10492 net.cpp:150] Setting up conv3_prescale
I0411 17:51:51.951465 10492 net.cpp:157] Top shape: 1024 250 6 6 (9216000)
I0411 17:51:51.951468 10492 net.cpp:165] Memory required for data: 4018855936
I0411 17:51:51.951473 10492 layer_factory.hpp:77] Creating layer conv3_sTanH
I0411 17:51:51.951478 10492 net.cpp:100] Creating Layer conv3_sTanH
I0411 17:51:51.951481 10492 net.cpp:434] conv3_sTanH <- conv3
I0411 17:51:51.951488 10492 net.cpp:395] conv3_sTanH -> conv3 (in-place)
I0411 17:51:51.952930 10492 net.cpp:150] Setting up conv3_sTanH
I0411 17:51:51.952949 10492 net.cpp:157] Top shape: 1024 250 6 6 (9216000)
I0411 17:51:51.952952 10492 net.cpp:165] Memory required for data: 4055719936
I0411 17:51:51.952956 10492 layer_factory.hpp:77] Creating layer conv3_postscale
I0411 17:51:51.952965 10492 net.cpp:100] Creating Layer conv3_postscale
I0411 17:51:51.952971 10492 net.cpp:434] conv3_postscale <- conv3
I0411 17:51:51.952976 10492 net.cpp:395] conv3_postscale -> conv3 (in-place)
I0411 17:51:51.953095 10492 net.cpp:150] Setting up conv3_postscale
I0411 17:51:51.953104 10492 net.cpp:157] Top shape: 1024 250 6 6 (9216000)
I0411 17:51:51.953107 10492 net.cpp:165] Memory required for data: 4092583936
I0411 17:51:51.953112 10492 layer_factory.hpp:77] Creating layer pool3
I0411 17:51:51.953122 10492 net.cpp:100] Creating Layer pool3
I0411 17:51:51.953127 10492 net.cpp:434] pool3 <- conv3
I0411 17:51:51.953133 10492 net.cpp:408] pool3 -> pool3
I0411 17:51:51.953178 10492 net.cpp:150] Setting up pool3
I0411 17:51:51.953186 10492 net.cpp:157] Top shape: 1024 250 3 3 (2304000)
I0411 17:51:51.953189 10492 net.cpp:165] Memory required for data: 4101799936
I0411 17:51:51.953192 10492 layer_factory.hpp:77] Creating layer fc4_300
I0411 17:51:51.953200 10492 net.cpp:100] Creating Layer fc4_300
I0411 17:51:51.953205 10492 net.cpp:434] fc4_300 <- pool3
I0411 17:51:51.953210 10492 net.cpp:408] fc4_300 -> fc4_300
I0411 17:51:51.960253 10492 net.cpp:150] Setting up fc4_300
I0411 17:51:51.960269 10492 net.cpp:157] Top shape: 1024 300 (307200)
I0411 17:51:51.960273 10492 net.cpp:165] Memory required for data: 4103028736
I0411 17:51:51.960297 10492 layer_factory.hpp:77] Creating layer fc4_prescale
I0411 17:51:51.960310 10492 net.cpp:100] Creating Layer fc4_prescale
I0411 17:51:51.960315 10492 net.cpp:434] fc4_prescale <- fc4_300
I0411 17:51:51.960322 10492 net.cpp:395] fc4_prescale -> fc4_300 (in-place)
I0411 17:51:51.960428 10492 net.cpp:150] Setting up fc4_prescale
I0411 17:51:51.960438 10492 net.cpp:157] Top shape: 1024 300 (307200)
I0411 17:51:51.960443 10492 net.cpp:165] Memory required for data: 4104257536
I0411 17:51:51.960448 10492 layer_factory.hpp:77] Creating layer fc4_sTanH
I0411 17:51:51.960453 10492 net.cpp:100] Creating Layer fc4_sTanH
I0411 17:51:51.960456 10492 net.cpp:434] fc4_sTanH <- fc4_300
I0411 17:51:51.960460 10492 net.cpp:395] fc4_sTanH -> fc4_300 (in-place)
I0411 17:51:51.960667 10492 net.cpp:150] Setting up fc4_sTanH
I0411 17:51:51.960680 10492 net.cpp:157] Top shape: 1024 300 (307200)
I0411 17:51:51.960683 10492 net.cpp:165] Memory required for data: 4105486336
I0411 17:51:51.960686 10492 layer_factory.hpp:77] Creating layer fc4_postscale
I0411 17:51:51.960692 10492 net.cpp:100] Creating Layer fc4_postscale
I0411 17:51:51.960696 10492 net.cpp:434] fc4_postscale <- fc4_300
I0411 17:51:51.960702 10492 net.cpp:395] fc4_postscale -> fc4_300 (in-place)
I0411 17:51:51.960810 10492 net.cpp:150] Setting up fc4_postscale
I0411 17:51:51.960819 10492 net.cpp:157] Top shape: 1024 300 (307200)
I0411 17:51:51.960822 10492 net.cpp:165] Memory required for data: 4106715136
I0411 17:51:51.960827 10492 layer_factory.hpp:77] Creating layer drop4
I0411 17:51:51.960834 10492 net.cpp:100] Creating Layer drop4
I0411 17:51:51.960839 10492 net.cpp:434] drop4 <- fc4_300
I0411 17:51:51.960844 10492 net.cpp:395] drop4 -> fc4_300 (in-place)
I0411 17:51:51.960870 10492 net.cpp:150] Setting up drop4
I0411 17:51:51.960878 10492 net.cpp:157] Top shape: 1024 300 (307200)
I0411 17:51:51.960881 10492 net.cpp:165] Memory required for data: 4107943936
I0411 17:51:51.960885 10492 layer_factory.hpp:77] Creating layer fc5_67
I0411 17:51:51.960891 10492 net.cpp:100] Creating Layer fc5_67
I0411 17:51:51.960893 10492 net.cpp:434] fc5_67 <- fc4_300
I0411 17:51:51.960898 10492 net.cpp:408] fc5_67 -> fc5_classes
I0411 17:51:51.961156 10492 net.cpp:150] Setting up fc5_67
I0411 17:51:51.961165 10492 net.cpp:157] Top shape: 1024 67 (68608)
I0411 17:51:51.961168 10492 net.cpp:165] Memory required for data: 4108218368
I0411 17:51:51.961179 10492 layer_factory.hpp:77] Creating layer fc5_classes_fc5_67_0_split
I0411 17:51:51.961187 10492 net.cpp:100] Creating Layer fc5_classes_fc5_67_0_split
I0411 17:51:51.961194 10492 net.cpp:434] fc5_classes_fc5_67_0_split <- fc5_classes
I0411 17:51:51.961199 10492 net.cpp:408] fc5_classes_fc5_67_0_split -> fc5_classes_fc5_67_0_split_0
I0411 17:51:51.961205 10492 net.cpp:408] fc5_classes_fc5_67_0_split -> fc5_classes_fc5_67_0_split_1
I0411 17:51:51.961213 10492 net.cpp:408] fc5_classes_fc5_67_0_split -> fc5_classes_fc5_67_0_split_2
I0411 17:51:51.961269 10492 net.cpp:150] Setting up fc5_classes_fc5_67_0_split
I0411 17:51:51.961277 10492 net.cpp:157] Top shape: 1024 67 (68608)
I0411 17:51:51.961280 10492 net.cpp:157] Top shape: 1024 67 (68608)
I0411 17:51:51.961283 10492 net.cpp:157] Top shape: 1024 67 (68608)
I0411 17:51:51.961287 10492 net.cpp:165] Memory required for data: 4109041664
I0411 17:51:51.961290 10492 layer_factory.hpp:77] Creating layer loss
I0411 17:51:51.961297 10492 net.cpp:100] Creating Layer loss
I0411 17:51:51.961302 10492 net.cpp:434] loss <- fc5_classes_fc5_67_0_split_0
I0411 17:51:51.961305 10492 net.cpp:434] loss <- label_data_1_split_0
I0411 17:51:51.961310 10492 net.cpp:408] loss -> loss
…
