…
I0412 00:40:14.841598  1463 net.cpp:322] The NetState phase (0) differed from the phase (1) specified by a rule in layer accuracy_5
I0412 00:40:14.841753  1463 net.cpp:58] Initializing net from parameters: 
state {
  phase: TRAIN
  level: 0
  stage: ""
}
layer {
  name: "data"
  type: "Data"
  top: "data"
  top: "label"
  include {
    phase: TRAIN
  }
  transform_param {
    scale: 0.0039215689
    mirror: false
    crop_size: 48
    mean_value: 130
    mean_value: 123
    mean_value: 137
  }
  data_param {
    source: "../local_data/lmdb/rtsd-r1/histeq/train/lmdb"
    batch_size: 1024
    backend: LMDB
  }
}
layer {
  name: "conv1"
  type: "Convolution"
  bottom: "data"
  top: "conv1"
  convolution_param {
    num_output: 100
    pad: 0
    kernel_size: 7
    group: 1
    stride: 1
    weight_filler {
      type: "xavier"
    }
  }
}
layer {
  name: "conv1_prescale"
  type: "Scale"
  bottom: "conv1"
  top: "conv1"
  param {
    lr_mult: 0
    decay_mult: 0
  }
  scale_param {
    filler {
      value: 0.6666
    }
    bias_term: false
  }
}
layer {
  name: "conv1_sTanH"
  type: "TanH"
  bottom: "conv1"
  top: "conv1"
}
layer {
  name: "conv1_postscale"
  type: "Scale"
  bottom: "conv1"
  top: "conv1"
  param {
    lr_mult: 0
    decay_mult: 0
  }
  scale_param {
    filler {
      value: 1.7159
    }
    bias_term: false
  }
}
layer {
  name: "pool1"
  type: "Pooling"
  bottom: "conv1"
  top: "pool1"
  pooling_param {
    pool: MAX
    kernel_size: 2
    stride: 2
  }
}
layer {
  name: "conv2"
  type: "Convolution"
  bottom: "pool1"
  top: "conv2"
  convolution_param {
    num_output: 150
    pad: 0
    kernel_size: 4
    group: 1
    stride: 1
    weight_filler {
      type: "xavier"
    }
  }
}
layer {
  name: "conv2_prescale"
  type: "Scale"
  bottom: "conv2"
  top: "conv2"
  param {
    lr_mult: 0
    decay_mult: 0
  }
  scale_param {
    filler {
      value: 0.6666
    }
    bias_term: false
  }
}
layer {
  name: "conv2_sTanH"
  type: "TanH"
  bottom: "conv2"
  top: "conv2"
}
layer {
  name: "conv2_postscale"
  type: "Scale"
  bottom: "conv2"
  top: "conv2"
  param {
    lr_mult: 0
    decay_mult: 0
  }
  scale_param {
    filler {
      value: 1.7159
    }
    bias_term: false
  }
}
layer {
  name: "pool2"
  type: "Pooling"
  bottom: "conv2"
  top: "pool2"
  pooling_param {
    pool: MAX
    kernel_size: 2
    stride: 2
  }
}
layer {
  name: "conv3"
  type: "Convolution"
  bottom: "pool2"
  top: "conv3"
  convolution_param {
    num_output: 250
    pad: 0
    kernel_size: 4
    group: 1
    stride: 1
    weight_filler {
      type: "xavier"
    }
  }
}
layer {
  name: "conv3_prescale"
  type: "Scale"
  bottom: "conv3"
  top: "conv3"
  param {
    lr_mult: 0
    decay_mult: 0
  }
  scale_param {
    filler {
      value: 0.6666
    }
    bias_term: false
  }
}
layer {
  name: "conv3_sTanH"
  type: "TanH"
  bottom: "conv3"
  top: "conv3"
}
layer {
  name: "conv3_postscale"
  type: "Scale"
  bottom: "conv3"
  top: "conv3"
  param {
    lr_mult: 0
    decay_mult: 0
  }
  scale_param {
    filler {
      value: 1.7159
    }
    bias_term: false
  }
}
layer {
  name: "pool3"
  type: "Pooling"
  bottom: "conv3"
  top: "pool3"
  pooling_param {
    pool: MAX
    kernel_size: 2
    stride: 2
  }
}
layer {
  name: "fc4_300"
  type: "InnerProduct"
  bottom: "pool3"
  top: "fc4_300"
  inner_product_param {
    num_output: 300
    weight_filler {
      type: "xavier"
    }
  }
}
layer {
  name: "fc4_prescale"
  type: "Scale"
  bottom: "fc4_300"
  top: "fc4_300"
  param {
    lr_mult: 0
    decay_mult: 0
  }
  scale_param {
    filler {
      value: 0.6666
    }
    bias_term: false
  }
}
layer {
  name: "fc4_sTanH"
  type: "TanH"
  bottom: "fc4_300"
  top: "fc4_300"
}
layer {
  name: "fc4_postscale"
  type: "Scale"
  bottom: "fc4_300"
  top: "fc4_300"
  param {
    lr_mult: 0
    decay_mult: 0
  }
  scale_param {
    filler {
      value: 1.7159
    }
    bias_term: false
  }
}
layer {
  name: "drop4"
  type: "Dropout"
  bottom: "fc4_300"
  top: "fc4_300"
  dropout_param {
    dropout_ratio: 0.1
  }
}
layer {
  name: "fc5_67"
  type: "InnerProduct"
  bottom: "fc4_300"
  top: "fc5_classes"
  inner_product_param {
    num_output: 67
    weight_filler {
      type: "xavier"
    }
  }
}
layer {
  name: "loss"
  type: "SoftmaxWithLoss"
  bottom: "fc5_classes"
  bottom: "label"
  top: "loss"
}
I0412 00:40:14.841861  1463 layer_factory.hpp:77] Creating layer data
I0412 00:40:14.843147  1463 net.cpp:100] Creating Layer data
I0412 00:40:14.843161  1463 net.cpp:408] data -> data
I0412 00:40:14.843183  1463 net.cpp:408] data -> label
I0412 00:40:14.846065  1595 db_lmdb.cpp:35] Opened lmdb ../local_data/lmdb/rtsd-r1/histeq/train/lmdb
I0412 00:40:14.862946  1463 data_layer.cpp:41] output data size: 1024,3,48,48
I0412 00:40:14.909021  1463 net.cpp:150] Setting up data
I0412 00:40:14.909054  1463 net.cpp:157] Top shape: 1024 3 48 48 (7077888)
I0412 00:40:14.909060  1463 net.cpp:157] Top shape: 1024 (1024)
I0412 00:40:14.909062  1463 net.cpp:165] Memory required for data: 28315648
I0412 00:40:14.909071  1463 layer_factory.hpp:77] Creating layer conv1
I0412 00:40:14.909096  1463 net.cpp:100] Creating Layer conv1
I0412 00:40:14.909104  1463 net.cpp:434] conv1 <- data
I0412 00:40:14.909116  1463 net.cpp:408] conv1 -> conv1
I0412 00:40:15.220352  1463 net.cpp:150] Setting up conv1
I0412 00:40:15.220407  1463 net.cpp:157] Top shape: 1024 100 42 42 (180633600)
I0412 00:40:15.220438  1463 net.cpp:165] Memory required for data: 750850048
I0412 00:40:15.220468  1463 layer_factory.hpp:77] Creating layer conv1_prescale
I0412 00:40:15.220489  1463 net.cpp:100] Creating Layer conv1_prescale
I0412 00:40:15.220497  1463 net.cpp:434] conv1_prescale <- conv1
I0412 00:40:15.220510  1463 net.cpp:395] conv1_prescale -> conv1 (in-place)
I0412 00:40:15.220672  1463 net.cpp:150] Setting up conv1_prescale
I0412 00:40:15.220690  1463 net.cpp:157] Top shape: 1024 100 42 42 (180633600)
I0412 00:40:15.220697  1463 net.cpp:165] Memory required for data: 1473384448
I0412 00:40:15.220711  1463 layer_factory.hpp:77] Creating layer conv1_sTanH
I0412 00:40:15.220723  1463 net.cpp:100] Creating Layer conv1_sTanH
I0412 00:40:15.220732  1463 net.cpp:434] conv1_sTanH <- conv1
I0412 00:40:15.220741  1463 net.cpp:395] conv1_sTanH -> conv1 (in-place)
I0412 00:40:15.221034  1463 net.cpp:150] Setting up conv1_sTanH
I0412 00:40:15.221048  1463 net.cpp:157] Top shape: 1024 100 42 42 (180633600)
I0412 00:40:15.221052  1463 net.cpp:165] Memory required for data: 2195918848
I0412 00:40:15.221056  1463 layer_factory.hpp:77] Creating layer conv1_postscale
I0412 00:40:15.221065  1463 net.cpp:100] Creating Layer conv1_postscale
I0412 00:40:15.221071  1463 net.cpp:434] conv1_postscale <- conv1
I0412 00:40:15.221076  1463 net.cpp:395] conv1_postscale -> conv1 (in-place)
I0412 00:40:15.221171  1463 net.cpp:150] Setting up conv1_postscale
I0412 00:40:15.221180  1463 net.cpp:157] Top shape: 1024 100 42 42 (180633600)
I0412 00:40:15.221184  1463 net.cpp:165] Memory required for data: 2918453248
I0412 00:40:15.221189  1463 layer_factory.hpp:77] Creating layer pool1
I0412 00:40:15.221194  1463 net.cpp:100] Creating Layer pool1
I0412 00:40:15.221197  1463 net.cpp:434] pool1 <- conv1
I0412 00:40:15.221202  1463 net.cpp:408] pool1 -> pool1
I0412 00:40:15.221268  1463 net.cpp:150] Setting up pool1
I0412 00:40:15.221276  1463 net.cpp:157] Top shape: 1024 100 21 21 (45158400)
I0412 00:40:15.221279  1463 net.cpp:165] Memory required for data: 3099086848
I0412 00:40:15.221282  1463 layer_factory.hpp:77] Creating layer conv2
I0412 00:40:15.221292  1463 net.cpp:100] Creating Layer conv2
I0412 00:40:15.221297  1463 net.cpp:434] conv2 <- pool1
I0412 00:40:15.221302  1463 net.cpp:408] conv2 -> conv2
I0412 00:40:15.227705  1463 net.cpp:150] Setting up conv2
I0412 00:40:15.227721  1463 net.cpp:157] Top shape: 1024 150 18 18 (49766400)
I0412 00:40:15.227725  1463 net.cpp:165] Memory required for data: 3298152448
I0412 00:40:15.227735  1463 layer_factory.hpp:77] Creating layer conv2_prescale
I0412 00:40:15.227746  1463 net.cpp:100] Creating Layer conv2_prescale
I0412 00:40:15.227751  1463 net.cpp:434] conv2_prescale <- conv2
I0412 00:40:15.227756  1463 net.cpp:395] conv2_prescale -> conv2 (in-place)
I0412 00:40:15.227869  1463 net.cpp:150] Setting up conv2_prescale
I0412 00:40:15.227890  1463 net.cpp:157] Top shape: 1024 150 18 18 (49766400)
I0412 00:40:15.227895  1463 net.cpp:165] Memory required for data: 3497218048
I0412 00:40:15.227900  1463 layer_factory.hpp:77] Creating layer conv2_sTanH
I0412 00:40:15.227915  1463 net.cpp:100] Creating Layer conv2_sTanH
I0412 00:40:15.227919  1463 net.cpp:434] conv2_sTanH <- conv2
I0412 00:40:15.227924  1463 net.cpp:395] conv2_sTanH -> conv2 (in-place)
I0412 00:40:15.230407  1463 net.cpp:150] Setting up conv2_sTanH
I0412 00:40:15.230425  1463 net.cpp:157] Top shape: 1024 150 18 18 (49766400)
I0412 00:40:15.230428  1463 net.cpp:165] Memory required for data: 3696283648
I0412 00:40:15.230432  1463 layer_factory.hpp:77] Creating layer conv2_postscale
I0412 00:40:15.230439  1463 net.cpp:100] Creating Layer conv2_postscale
I0412 00:40:15.230443  1463 net.cpp:434] conv2_postscale <- conv2
I0412 00:40:15.230450  1463 net.cpp:395] conv2_postscale -> conv2 (in-place)
I0412 00:40:15.230554  1463 net.cpp:150] Setting up conv2_postscale
I0412 00:40:15.230563  1463 net.cpp:157] Top shape: 1024 150 18 18 (49766400)
I0412 00:40:15.230566  1463 net.cpp:165] Memory required for data: 3895349248
I0412 00:40:15.230571  1463 layer_factory.hpp:77] Creating layer pool2
I0412 00:40:15.230577  1463 net.cpp:100] Creating Layer pool2
I0412 00:40:15.230581  1463 net.cpp:434] pool2 <- conv2
I0412 00:40:15.230584  1463 net.cpp:408] pool2 -> pool2
I0412 00:40:15.230626  1463 net.cpp:150] Setting up pool2
I0412 00:40:15.230634  1463 net.cpp:157] Top shape: 1024 150 9 9 (12441600)
I0412 00:40:15.230636  1463 net.cpp:165] Memory required for data: 3945115648
I0412 00:40:15.230639  1463 layer_factory.hpp:77] Creating layer conv3
I0412 00:40:15.230648  1463 net.cpp:100] Creating Layer conv3
I0412 00:40:15.230654  1463 net.cpp:434] conv3 <- pool2
I0412 00:40:15.230659  1463 net.cpp:408] conv3 -> conv3
I0412 00:40:15.236564  1463 net.cpp:150] Setting up conv3
I0412 00:40:15.236582  1463 net.cpp:157] Top shape: 1024 250 6 6 (9216000)
I0412 00:40:15.236587  1463 net.cpp:165] Memory required for data: 3981979648
I0412 00:40:15.236596  1463 layer_factory.hpp:77] Creating layer conv3_prescale
I0412 00:40:15.236608  1463 net.cpp:100] Creating Layer conv3_prescale
I0412 00:40:15.236613  1463 net.cpp:434] conv3_prescale <- conv3
I0412 00:40:15.236618  1463 net.cpp:395] conv3_prescale -> conv3 (in-place)
I0412 00:40:15.236716  1463 net.cpp:150] Setting up conv3_prescale
I0412 00:40:15.236724  1463 net.cpp:157] Top shape: 1024 250 6 6 (9216000)
I0412 00:40:15.236727  1463 net.cpp:165] Memory required for data: 4018843648
I0412 00:40:15.236732  1463 layer_factory.hpp:77] Creating layer conv3_sTanH
I0412 00:40:15.236737  1463 net.cpp:100] Creating Layer conv3_sTanH
I0412 00:40:15.236740  1463 net.cpp:434] conv3_sTanH <- conv3
I0412 00:40:15.236745  1463 net.cpp:395] conv3_sTanH -> conv3 (in-place)
I0412 00:40:15.238243  1463 net.cpp:150] Setting up conv3_sTanH
I0412 00:40:15.238258  1463 net.cpp:157] Top shape: 1024 250 6 6 (9216000)
I0412 00:40:15.238262  1463 net.cpp:165] Memory required for data: 4055707648
I0412 00:40:15.238279  1463 layer_factory.hpp:77] Creating layer conv3_postscale
I0412 00:40:15.238289  1463 net.cpp:100] Creating Layer conv3_postscale
I0412 00:40:15.238296  1463 net.cpp:434] conv3_postscale <- conv3
I0412 00:40:15.238301  1463 net.cpp:395] conv3_postscale -> conv3 (in-place)
I0412 00:40:15.238404  1463 net.cpp:150] Setting up conv3_postscale
I0412 00:40:15.238412  1463 net.cpp:157] Top shape: 1024 250 6 6 (9216000)
I0412 00:40:15.238415  1463 net.cpp:165] Memory required for data: 4092571648
I0412 00:40:15.238420  1463 layer_factory.hpp:77] Creating layer pool3
I0412 00:40:15.238425  1463 net.cpp:100] Creating Layer pool3
I0412 00:40:15.238430  1463 net.cpp:434] pool3 <- conv3
I0412 00:40:15.238436  1463 net.cpp:408] pool3 -> pool3
I0412 00:40:15.238482  1463 net.cpp:150] Setting up pool3
I0412 00:40:15.238489  1463 net.cpp:157] Top shape: 1024 250 3 3 (2304000)
I0412 00:40:15.238492  1463 net.cpp:165] Memory required for data: 4101787648
I0412 00:40:15.238494  1463 layer_factory.hpp:77] Creating layer fc4_300
I0412 00:40:15.238504  1463 net.cpp:100] Creating Layer fc4_300
I0412 00:40:15.238508  1463 net.cpp:434] fc4_300 <- pool3
I0412 00:40:15.238513  1463 net.cpp:408] fc4_300 -> fc4_300
I0412 00:40:15.244767  1463 net.cpp:150] Setting up fc4_300
I0412 00:40:15.244783  1463 net.cpp:157] Top shape: 1024 300 (307200)
I0412 00:40:15.244786  1463 net.cpp:165] Memory required for data: 4103016448
I0412 00:40:15.244793  1463 layer_factory.hpp:77] Creating layer fc4_prescale
I0412 00:40:15.244801  1463 net.cpp:100] Creating Layer fc4_prescale
I0412 00:40:15.244806  1463 net.cpp:434] fc4_prescale <- fc4_300
I0412 00:40:15.244810  1463 net.cpp:395] fc4_prescale -> fc4_300 (in-place)
I0412 00:40:15.244899  1463 net.cpp:150] Setting up fc4_prescale
I0412 00:40:15.244907  1463 net.cpp:157] Top shape: 1024 300 (307200)
I0412 00:40:15.244910  1463 net.cpp:165] Memory required for data: 4104245248
I0412 00:40:15.244915  1463 layer_factory.hpp:77] Creating layer fc4_sTanH
I0412 00:40:15.244920  1463 net.cpp:100] Creating Layer fc4_sTanH
I0412 00:40:15.244922  1463 net.cpp:434] fc4_sTanH <- fc4_300
I0412 00:40:15.244926  1463 net.cpp:395] fc4_sTanH -> fc4_300 (in-place)
I0412 00:40:15.245113  1463 net.cpp:150] Setting up fc4_sTanH
I0412 00:40:15.245124  1463 net.cpp:157] Top shape: 1024 300 (307200)
I0412 00:40:15.245127  1463 net.cpp:165] Memory required for data: 4105474048
I0412 00:40:15.245131  1463 layer_factory.hpp:77] Creating layer fc4_postscale
I0412 00:40:15.245137  1463 net.cpp:100] Creating Layer fc4_postscale
I0412 00:40:15.245142  1463 net.cpp:434] fc4_postscale <- fc4_300
I0412 00:40:15.245147  1463 net.cpp:395] fc4_postscale -> fc4_300 (in-place)
I0412 00:40:15.245242  1463 net.cpp:150] Setting up fc4_postscale
I0412 00:40:15.245250  1463 net.cpp:157] Top shape: 1024 300 (307200)
I0412 00:40:15.245254  1463 net.cpp:165] Memory required for data: 4106702848
I0412 00:40:15.245257  1463 layer_factory.hpp:77] Creating layer drop4
I0412 00:40:15.245263  1463 net.cpp:100] Creating Layer drop4
I0412 00:40:15.245266  1463 net.cpp:434] drop4 <- fc4_300
I0412 00:40:15.245271  1463 net.cpp:395] drop4 -> fc4_300 (in-place)
I0412 00:40:15.245297  1463 net.cpp:150] Setting up drop4
I0412 00:40:15.245304  1463 net.cpp:157] Top shape: 1024 300 (307200)
I0412 00:40:15.245307  1463 net.cpp:165] Memory required for data: 4107931648
I0412 00:40:15.245311  1463 layer_factory.hpp:77] Creating layer fc5_67
I0412 00:40:15.245317  1463 net.cpp:100] Creating Layer fc5_67
I0412 00:40:15.245321  1463 net.cpp:434] fc5_67 <- fc4_300
I0412 00:40:15.245326  1463 net.cpp:408] fc5_67 -> fc5_classes
I0412 00:40:15.253770  1463 net.cpp:150] Setting up fc5_67
I0412 00:40:15.253788  1463 net.cpp:157] Top shape: 1024 67 (68608)
I0412 00:40:15.253792  1463 net.cpp:165] Memory required for data: 4108206080
I0412 00:40:15.253804  1463 layer_factory.hpp:77] Creating layer loss
I0412 00:40:15.253815  1463 net.cpp:100] Creating Layer loss
I0412 00:40:15.253820  1463 net.cpp:434] loss <- fc5_classes
I0412 00:40:15.253839  1463 net.cpp:434] loss <- label
I0412 00:40:15.253849  1463 net.cpp:408] loss -> loss
I0412 00:40:15.253861  1463 layer_factory.hpp:77] Creating layer loss
…
I0412 00:40:15.254709  1463 solver.cpp:193] Creating test net (#0) specified by test_net file: ./Prototxt/experiment_9/rtsd-r1/histeq/trial_3/test.prototxt
I0412 00:40:15.254897  1463 net.cpp:58] Initializing net from parameters: 
state {
  phase: TEST
}
layer {
  name: "data"
  type: "Data"
  top: "data"
  top: "label"
  include {
    phase: TEST
  }
  transform_param {
    scale: 0.0039215689
    mirror: false
    crop_size: 48
    mean_value: 124
    mean_value: 121
    mean_value: 142
  }
  data_param {
    source: "../local_data/lmdb/rtsd-r1/histeq/test/lmdb"
    batch_size: 1024
    backend: LMDB
  }
}
layer {
  name: "conv1"
  type: "Convolution"
  bottom: "data"
  top: "conv1"
  convolution_param {
    num_output: 100
    pad: 0
    kernel_size: 7
    group: 1
    stride: 1
    weight_filler {
      type: "xavier"
    }
  }
}
layer {
  name: "conv1_prescale"
  type: "Scale"
  bottom: "conv1"
  top: "conv1"
  param {
    lr_mult: 0
    decay_mult: 0
  }
  scale_param {
    filler {
      value: 0.6666
    }
    bias_term: false
  }
}
layer {
  name: "conv1_sTanH"
  type: "TanH"
  bottom: "conv1"
  top: "conv1"
}
layer {
  name: "conv1_postscale"
  type: "Scale"
  bottom: "conv1"
  top: "conv1"
  param {
    lr_mult: 0
    decay_mult: 0
  }
  scale_param {
    filler {
      value: 1.7159
    }
    bias_term: false
  }
}
layer {
  name: "pool1"
  type: "Pooling"
  bottom: "conv1"
  top: "pool1"
  pooling_param {
    pool: MAX
    kernel_size: 2
    stride: 2
  }
}
layer {
  name: "conv2"
  type: "Convolution"
  bottom: "pool1"
  top: "conv2"
  convolution_param {
    num_output: 150
    pad: 0
    kernel_size: 4
    group: 1
    stride: 1
    weight_filler {
      type: "xavier"
    }
  }
}
layer {
  name: "conv2_prescale"
  type: "Scale"
  bottom: "conv2"
  top: "conv2"
  param {
    lr_mult: 0
    decay_mult: 0
  }
  scale_param {
    filler {
      value: 0.6666
    }
    bias_term: false
  }
}
layer {
  name: "conv2_sTanH"
  type: "TanH"
  bottom: "conv2"
  top: "conv2"
}
layer {
  name: "conv2_postscale"
  type: "Scale"
  bottom: "conv2"
  top: "conv2"
  param {
    lr_mult: 0
    decay_mult: 0
  }
  scale_param {
    filler {
      value: 1.7159
    }
    bias_term: false
  }
}
layer {
  name: "pool2"
  type: "Pooling"
  bottom: "conv2"
  top: "pool2"
  pooling_param {
    pool: MAX
    kernel_size: 2
    stride: 2
  }
}
layer {
  name: "conv3"
  type: "Convolution"
  bottom: "pool2"
  top: "conv3"
  convolution_param {
    num_output: 250
    pad: 0
    kernel_size: 4
    group: 1
    stride: 1
    weight_filler {
      type: "xavier"
    }
  }
}
layer {
  name: "conv3_prescale"
  type: "Scale"
  bottom: "conv3"
  top: "conv3"
  param {
    lr_mult: 0
    decay_mult: 0
  }
  scale_param {
    filler {
      value: 0.6666
    }
    bias_term: false
  }
}
layer {
  name: "conv3_sTanH"
  type: "TanH"
  bottom: "conv3"
  top: "conv3"
}
layer {
  name: "conv3_postscale"
  type: "Scale"
  bottom: "conv3"
  top: "conv3"
  param {
    lr_mult: 0
    decay_mult: 0
  }
  scale_param {
    filler {
      value: 1.7159
    }
    bias_term: false
  }
}
layer {
  name: "pool3"
  type: "Pooling"
  bottom: "conv3"
  top: "pool3"
  pooling_param {
    pool: MAX
    kernel_size: 2
    stride: 2
  }
}
layer {
  name: "fc4_300"
  type: "InnerProduct"
  bottom: "pool3"
  top: "fc4_300"
  inner_product_param {
    num_output: 300
    weight_filler {
      type: "xavier"
    }
  }
}
layer {
  name: "fc4_prescale"
  type: "Scale"
  bottom: "fc4_300"
  top: "fc4_300"
  param {
    lr_mult: 0
    decay_mult: 0
  }
  scale_param {
    filler {
      value: 0.6666
    }
    bias_term: false
  }
}
layer {
  name: "fc4_sTanH"
  type: "TanH"
  bottom: "fc4_300"
  top: "fc4_300"
}
layer {
  name: "fc4_postscale"
  type: "Scale"
  bottom: "fc4_300"
  top: "fc4_300"
  param {
    lr_mult: 0
    decay_mult: 0
  }
  scale_param {
    filler {
      value: 1.7159
    }
    bias_term: false
  }
}
layer {
  name: "drop4"
  type: "Dropout"
  bottom: "fc4_300"
  top: "fc4_300"
  dropout_param {
    dropout_ratio: 0.1
  }
}
layer {
  name: "fc5_67"
  type: "InnerProduct"
  bottom: "fc4_300"
  top: "fc5_classes"
  inner_product_param {
    num_output: 67
    weight_filler {
      type: "xavier"
    }
  }
}
layer {
  name: "loss"
  type: "SoftmaxWithLoss"
  bottom: "fc5_classes"
  bottom: "label"
  top: "loss"
}
layer {
  name: "accuracy_1"
  type: "Accuracy"
  bottom: "fc5_classes"
  bottom: "label"
  top: "accuracy_1"
  include {
    phase: TEST
  }
  accuracy_param {
    top_k: 1
  }
}
layer {
  name: "accuracy_5"
  type: "Accuracy"
  bottom: "fc5_classes"
  bottom: "label"
  top: "accuracy_5"
  include {
    phase: TEST
  }
  accuracy_param {
    top_k: 5
  }
}
I0412 00:40:15.255022  1463 layer_factory.hpp:77] Creating layer data
I0412 00:40:15.255677  1463 net.cpp:100] Creating Layer data
I0412 00:40:15.255689  1463 net.cpp:408] data -> data
I0412 00:40:15.255699  1463 net.cpp:408] data -> label
I0412 00:40:15.260073  1636 db_lmdb.cpp:35] Opened lmdb ../local_data/lmdb/rtsd-r1/histeq/test/lmdb
I0412 00:40:15.260221  1463 data_layer.cpp:41] output data size: 1024,3,48,48
I0412 00:40:15.301162  1463 net.cpp:150] Setting up data
I0412 00:40:15.301201  1463 net.cpp:157] Top shape: 1024 3 48 48 (7077888)
I0412 00:40:15.301206  1463 net.cpp:157] Top shape: 1024 (1024)
I0412 00:40:15.301209  1463 net.cpp:165] Memory required for data: 28315648
I0412 00:40:15.301215  1463 layer_factory.hpp:77] Creating layer label_data_1_split
I0412 00:40:15.301229  1463 net.cpp:100] Creating Layer label_data_1_split
I0412 00:40:15.301234  1463 net.cpp:434] label_data_1_split <- label
I0412 00:40:15.301245  1463 net.cpp:408] label_data_1_split -> label_data_1_split_0
I0412 00:40:15.301259  1463 net.cpp:408] label_data_1_split -> label_data_1_split_1
I0412 00:40:15.301285  1463 net.cpp:408] label_data_1_split -> label_data_1_split_2
I0412 00:40:15.301409  1463 net.cpp:150] Setting up label_data_1_split
I0412 00:40:15.301417  1463 net.cpp:157] Top shape: 1024 (1024)
I0412 00:40:15.301421  1463 net.cpp:157] Top shape: 1024 (1024)
I0412 00:40:15.301425  1463 net.cpp:157] Top shape: 1024 (1024)
I0412 00:40:15.301427  1463 net.cpp:165] Memory required for data: 28327936
I0412 00:40:15.301430  1463 layer_factory.hpp:77] Creating layer conv1
I0412 00:40:15.301446  1463 net.cpp:100] Creating Layer conv1
I0412 00:40:15.301451  1463 net.cpp:434] conv1 <- data
I0412 00:40:15.301457  1463 net.cpp:408] conv1 -> conv1
I0412 00:40:15.303431  1463 net.cpp:150] Setting up conv1
I0412 00:40:15.303457  1463 net.cpp:157] Top shape: 1024 100 42 42 (180633600)
I0412 00:40:15.303460  1463 net.cpp:165] Memory required for data: 750862336
I0412 00:40:15.303472  1463 layer_factory.hpp:77] Creating layer conv1_prescale
I0412 00:40:15.303483  1463 net.cpp:100] Creating Layer conv1_prescale
I0412 00:40:15.303486  1463 net.cpp:434] conv1_prescale <- conv1
I0412 00:40:15.303495  1463 net.cpp:395] conv1_prescale -> conv1 (in-place)
I0412 00:40:15.305757  1463 net.cpp:150] Setting up conv1_prescale
I0412 00:40:15.305769  1463 net.cpp:157] Top shape: 1024 100 42 42 (180633600)
I0412 00:40:15.305773  1463 net.cpp:165] Memory required for data: 1473396736
I0412 00:40:15.305780  1463 layer_factory.hpp:77] Creating layer conv1_sTanH
I0412 00:40:15.305788  1463 net.cpp:100] Creating Layer conv1_sTanH
I0412 00:40:15.305793  1463 net.cpp:434] conv1_sTanH <- conv1
I0412 00:40:15.305799  1463 net.cpp:395] conv1_sTanH -> conv1 (in-place)
I0412 00:40:15.306004  1463 net.cpp:150] Setting up conv1_sTanH
I0412 00:40:15.306015  1463 net.cpp:157] Top shape: 1024 100 42 42 (180633600)
I0412 00:40:15.306020  1463 net.cpp:165] Memory required for data: 2195931136
I0412 00:40:15.306022  1463 layer_factory.hpp:77] Creating layer conv1_postscale
I0412 00:40:15.306030  1463 net.cpp:100] Creating Layer conv1_postscale
I0412 00:40:15.306035  1463 net.cpp:434] conv1_postscale <- conv1
I0412 00:40:15.306041  1463 net.cpp:395] conv1_postscale -> conv1 (in-place)
I0412 00:40:15.306149  1463 net.cpp:150] Setting up conv1_postscale
I0412 00:40:15.306156  1463 net.cpp:157] Top shape: 1024 100 42 42 (180633600)
I0412 00:40:15.306159  1463 net.cpp:165] Memory required for data: 2918465536
I0412 00:40:15.306164  1463 layer_factory.hpp:77] Creating layer pool1
I0412 00:40:15.306174  1463 net.cpp:100] Creating Layer pool1
I0412 00:40:15.306177  1463 net.cpp:434] pool1 <- conv1
I0412 00:40:15.306182  1463 net.cpp:408] pool1 -> pool1
I0412 00:40:15.306227  1463 net.cpp:150] Setting up pool1
I0412 00:40:15.306234  1463 net.cpp:157] Top shape: 1024 100 21 21 (45158400)
I0412 00:40:15.306236  1463 net.cpp:165] Memory required for data: 3099099136
I0412 00:40:15.306239  1463 layer_factory.hpp:77] Creating layer conv2
I0412 00:40:15.306251  1463 net.cpp:100] Creating Layer conv2
I0412 00:40:15.306255  1463 net.cpp:434] conv2 <- pool1
I0412 00:40:15.306262  1463 net.cpp:408] conv2 -> conv2
I0412 00:40:15.310340  1463 net.cpp:150] Setting up conv2
I0412 00:40:15.310359  1463 net.cpp:157] Top shape: 1024 150 18 18 (49766400)
I0412 00:40:15.310361  1463 net.cpp:165] Memory required for data: 3298164736
I0412 00:40:15.310372  1463 layer_factory.hpp:77] Creating layer conv2_prescale
I0412 00:40:15.310385  1463 net.cpp:100] Creating Layer conv2_prescale
I0412 00:40:15.310390  1463 net.cpp:434] conv2_prescale <- conv2
I0412 00:40:15.310395  1463 net.cpp:395] conv2_prescale -> conv2 (in-place)
I0412 00:40:15.310508  1463 net.cpp:150] Setting up conv2_prescale
I0412 00:40:15.310520  1463 net.cpp:157] Top shape: 1024 150 18 18 (49766400)
I0412 00:40:15.310524  1463 net.cpp:165] Memory required for data: 3497230336
I0412 00:40:15.310529  1463 layer_factory.hpp:77] Creating layer conv2_sTanH
I0412 00:40:15.310535  1463 net.cpp:100] Creating Layer conv2_sTanH
I0412 00:40:15.310539  1463 net.cpp:434] conv2_sTanH <- conv2
I0412 00:40:15.310544  1463 net.cpp:395] conv2_sTanH -> conv2 (in-place)
I0412 00:40:15.311486  1463 net.cpp:150] Setting up conv2_sTanH
I0412 00:40:15.311501  1463 net.cpp:157] Top shape: 1024 150 18 18 (49766400)
I0412 00:40:15.311504  1463 net.cpp:165] Memory required for data: 3696295936
I0412 00:40:15.311507  1463 layer_factory.hpp:77] Creating layer conv2_postscale
I0412 00:40:15.311518  1463 net.cpp:100] Creating Layer conv2_postscale
I0412 00:40:15.311522  1463 net.cpp:434] conv2_postscale <- conv2
I0412 00:40:15.311528  1463 net.cpp:395] conv2_postscale -> conv2 (in-place)
I0412 00:40:15.311637  1463 net.cpp:150] Setting up conv2_postscale
I0412 00:40:15.311645  1463 net.cpp:157] Top shape: 1024 150 18 18 (49766400)
I0412 00:40:15.311648  1463 net.cpp:165] Memory required for data: 3895361536
I0412 00:40:15.311655  1463 layer_factory.hpp:77] Creating layer pool2
I0412 00:40:15.311661  1463 net.cpp:100] Creating Layer pool2
I0412 00:40:15.311666  1463 net.cpp:434] pool2 <- conv2
I0412 00:40:15.311673  1463 net.cpp:408] pool2 -> pool2
I0412 00:40:15.311723  1463 net.cpp:150] Setting up pool2
I0412 00:40:15.311733  1463 net.cpp:157] Top shape: 1024 150 9 9 (12441600)
I0412 00:40:15.311738  1463 net.cpp:165] Memory required for data: 3945127936
I0412 00:40:15.311741  1463 layer_factory.hpp:77] Creating layer conv3
I0412 00:40:15.311753  1463 net.cpp:100] Creating Layer conv3
I0412 00:40:15.311756  1463 net.cpp:434] conv3 <- pool2
I0412 00:40:15.311761  1463 net.cpp:408] conv3 -> conv3
I0412 00:40:15.320211  1463 net.cpp:150] Setting up conv3
I0412 00:40:15.320233  1463 net.cpp:157] Top shape: 1024 250 6 6 (9216000)
I0412 00:40:15.320236  1463 net.cpp:165] Memory required for data: 3981991936
I0412 00:40:15.320247  1463 layer_factory.hpp:77] Creating layer conv3_prescale
I0412 00:40:15.320258  1463 net.cpp:100] Creating Layer conv3_prescale
I0412 00:40:15.320264  1463 net.cpp:434] conv3_prescale <- conv3
I0412 00:40:15.320272  1463 net.cpp:395] conv3_prescale -> conv3 (in-place)
I0412 00:40:15.320374  1463 net.cpp:150] Setting up conv3_prescale
I0412 00:40:15.320382  1463 net.cpp:157] Top shape: 1024 250 6 6 (9216000)
I0412 00:40:15.320384  1463 net.cpp:165] Memory required for data: 4018855936
I0412 00:40:15.320389  1463 layer_factory.hpp:77] Creating layer conv3_sTanH
I0412 00:40:15.320394  1463 net.cpp:100] Creating Layer conv3_sTanH
I0412 00:40:15.320399  1463 net.cpp:434] conv3_sTanH <- conv3
I0412 00:40:15.320415  1463 net.cpp:395] conv3_sTanH -> conv3 (in-place)
I0412 00:40:15.321362  1463 net.cpp:150] Setting up conv3_sTanH
I0412 00:40:15.321379  1463 net.cpp:157] Top shape: 1024 250 6 6 (9216000)
I0412 00:40:15.321382  1463 net.cpp:165] Memory required for data: 4055719936
I0412 00:40:15.321386  1463 layer_factory.hpp:77] Creating layer conv3_postscale
I0412 00:40:15.321393  1463 net.cpp:100] Creating Layer conv3_postscale
I0412 00:40:15.321396  1463 net.cpp:434] conv3_postscale <- conv3
I0412 00:40:15.321404  1463 net.cpp:395] conv3_postscale -> conv3 (in-place)
I0412 00:40:15.321507  1463 net.cpp:150] Setting up conv3_postscale
I0412 00:40:15.321516  1463 net.cpp:157] Top shape: 1024 250 6 6 (9216000)
I0412 00:40:15.321519  1463 net.cpp:165] Memory required for data: 4092583936
I0412 00:40:15.321524  1463 layer_factory.hpp:77] Creating layer pool3
I0412 00:40:15.321535  1463 net.cpp:100] Creating Layer pool3
I0412 00:40:15.321539  1463 net.cpp:434] pool3 <- conv3
I0412 00:40:15.321547  1463 net.cpp:408] pool3 -> pool3
I0412 00:40:15.321588  1463 net.cpp:150] Setting up pool3
I0412 00:40:15.321594  1463 net.cpp:157] Top shape: 1024 250 3 3 (2304000)
I0412 00:40:15.321597  1463 net.cpp:165] Memory required for data: 4101799936
I0412 00:40:15.321599  1463 layer_factory.hpp:77] Creating layer fc4_300
I0412 00:40:15.321609  1463 net.cpp:100] Creating Layer fc4_300
I0412 00:40:15.321614  1463 net.cpp:434] fc4_300 <- pool3
I0412 00:40:15.321617  1463 net.cpp:408] fc4_300 -> fc4_300
I0412 00:40:15.328963  1463 net.cpp:150] Setting up fc4_300
I0412 00:40:15.328979  1463 net.cpp:157] Top shape: 1024 300 (307200)
I0412 00:40:15.328982  1463 net.cpp:165] Memory required for data: 4103028736
I0412 00:40:15.329005  1463 layer_factory.hpp:77] Creating layer fc4_prescale
I0412 00:40:15.329015  1463 net.cpp:100] Creating Layer fc4_prescale
I0412 00:40:15.329020  1463 net.cpp:434] fc4_prescale <- fc4_300
I0412 00:40:15.329025  1463 net.cpp:395] fc4_prescale -> fc4_300 (in-place)
I0412 00:40:15.329123  1463 net.cpp:150] Setting up fc4_prescale
I0412 00:40:15.329133  1463 net.cpp:157] Top shape: 1024 300 (307200)
I0412 00:40:15.329134  1463 net.cpp:165] Memory required for data: 4104257536
I0412 00:40:15.329139  1463 layer_factory.hpp:77] Creating layer fc4_sTanH
I0412 00:40:15.329144  1463 net.cpp:100] Creating Layer fc4_sTanH
I0412 00:40:15.329147  1463 net.cpp:434] fc4_sTanH <- fc4_300
I0412 00:40:15.329154  1463 net.cpp:395] fc4_sTanH -> fc4_300 (in-place)
I0412 00:40:15.329349  1463 net.cpp:150] Setting up fc4_sTanH
I0412 00:40:15.329360  1463 net.cpp:157] Top shape: 1024 300 (307200)
I0412 00:40:15.329362  1463 net.cpp:165] Memory required for data: 4105486336
I0412 00:40:15.329365  1463 layer_factory.hpp:77] Creating layer fc4_postscale
I0412 00:40:15.329375  1463 net.cpp:100] Creating Layer fc4_postscale
I0412 00:40:15.329380  1463 net.cpp:434] fc4_postscale <- fc4_300
I0412 00:40:15.329385  1463 net.cpp:395] fc4_postscale -> fc4_300 (in-place)
I0412 00:40:15.329484  1463 net.cpp:150] Setting up fc4_postscale
I0412 00:40:15.329493  1463 net.cpp:157] Top shape: 1024 300 (307200)
I0412 00:40:15.329495  1463 net.cpp:165] Memory required for data: 4106715136
I0412 00:40:15.329502  1463 layer_factory.hpp:77] Creating layer drop4
I0412 00:40:15.329512  1463 net.cpp:100] Creating Layer drop4
I0412 00:40:15.329515  1463 net.cpp:434] drop4 <- fc4_300
I0412 00:40:15.329521  1463 net.cpp:395] drop4 -> fc4_300 (in-place)
I0412 00:40:15.329545  1463 net.cpp:150] Setting up drop4
I0412 00:40:15.329552  1463 net.cpp:157] Top shape: 1024 300 (307200)
I0412 00:40:15.329555  1463 net.cpp:165] Memory required for data: 4107943936
I0412 00:40:15.329558  1463 layer_factory.hpp:77] Creating layer fc5_67
I0412 00:40:15.329565  1463 net.cpp:100] Creating Layer fc5_67
I0412 00:40:15.329567  1463 net.cpp:434] fc5_67 <- fc4_300
I0412 00:40:15.329572  1463 net.cpp:408] fc5_67 -> fc5_classes
I0412 00:40:15.329824  1463 net.cpp:150] Setting up fc5_67
I0412 00:40:15.329833  1463 net.cpp:157] Top shape: 1024 67 (68608)
I0412 00:40:15.329835  1463 net.cpp:165] Memory required for data: 4108218368
I0412 00:40:15.329846  1463 layer_factory.hpp:77] Creating layer fc5_classes_fc5_67_0_split
I0412 00:40:15.329854  1463 net.cpp:100] Creating Layer fc5_classes_fc5_67_0_split
I0412 00:40:15.329856  1463 net.cpp:434] fc5_classes_fc5_67_0_split <- fc5_classes
I0412 00:40:15.329861  1463 net.cpp:408] fc5_classes_fc5_67_0_split -> fc5_classes_fc5_67_0_split_0
I0412 00:40:15.329869  1463 net.cpp:408] fc5_classes_fc5_67_0_split -> fc5_classes_fc5_67_0_split_1
I0412 00:40:15.329876  1463 net.cpp:408] fc5_classes_fc5_67_0_split -> fc5_classes_fc5_67_0_split_2
I0412 00:40:15.329931  1463 net.cpp:150] Setting up fc5_classes_fc5_67_0_split
I0412 00:40:15.329937  1463 net.cpp:157] Top shape: 1024 67 (68608)
I0412 00:40:15.329941  1463 net.cpp:157] Top shape: 1024 67 (68608)
I0412 00:40:15.329943  1463 net.cpp:157] Top shape: 1024 67 (68608)
I0412 00:40:15.329946  1463 net.cpp:165] Memory required for data: 4109041664
I0412 00:40:15.329948  1463 layer_factory.hpp:77] Creating layer loss
I0412 00:40:15.329955  1463 net.cpp:100] Creating Layer loss
I0412 00:40:15.329958  1463 net.cpp:434] loss <- fc5_classes_fc5_67_0_split_0
I0412 00:40:15.329962  1463 net.cpp:434] loss <- label_data_1_split_0
I0412 00:40:15.329967  1463 net.cpp:408] loss -> loss
…
