…
I0326 16:41:55.908287  4234 net.cpp:322] The NetState phase (0) differed from the phase (1) specified by a rule in layer accuracy_5
I0326 16:41:55.908396  4234 net.cpp:58] Initializing net from parameters: 
state {
  phase: TRAIN
  level: 0
  stage: ""
}
layer {
  name: "data"
  type: "Data"
  top: "data"
  top: "label"
  include {
    phase: TRAIN
  }
  transform_param {
    mirror: false
    crop_size: 48
    mean_value: 115
    mean_value: 108
    mean_value: 122
  }
  data_param {
    source: "../local_data/lmdb/rtsd-r1/imajust/train/lmdb"
    batch_size: 512
    backend: LMDB
  }
}
layer {
  name: "conv1"
  type: "Convolution"
  bottom: "data"
  top: "conv1"
  convolution_param {
    num_output: 100
    pad: 0
    kernel_size: 7
    group: 1
    stride: 1
    weight_filler {
      type: "xavier"
    }
  }
}
layer {
  name: "conv1_relu"
  type: "ReLU"
  bottom: "conv1"
  top: "conv1"
}
layer {
  name: "pool1"
  type: "Pooling"
  bottom: "conv1"
  top: "pool1"
  pooling_param {
    pool: MAX
    kernel_size: 2
    stride: 2
  }
}
layer {
  name: "conv2"
  type: "Convolution"
  bottom: "pool1"
  top: "conv2"
  convolution_param {
    num_output: 150
    pad: 0
    kernel_size: 4
    group: 1
    stride: 1
    weight_filler {
      type: "xavier"
    }
  }
}
layer {
  name: "conv2_relu"
  type: "ReLU"
  bottom: "conv2"
  top: "conv2"
}
layer {
  name: "pool2"
  type: "Pooling"
  bottom: "conv2"
  top: "pool2"
  pooling_param {
    pool: MAX
    kernel_size: 2
    stride: 2
  }
}
layer {
  name: "conv3"
  type: "Convolution"
  bottom: "pool2"
  top: "conv3"
  convolution_param {
    num_output: 250
    pad: 0
    kernel_size: 4
    group: 1
    stride: 1
    weight_filler {
      type: "xavier"
    }
  }
}
layer {
  name: "conv3_relu"
  type: "ReLU"
  bottom: "conv3"
  top: "conv3"
}
layer {
  name: "pool3"
  type: "Pooling"
  bottom: "conv3"
  top: "pool3"
  pooling_param {
    pool: MAX
    kernel_size: 2
    stride: 2
  }
}
layer {
  name: "fc4_300"
  type: "InnerProduct"
  bottom: "pool3"
  top: "fc4_300"
  inner_product_param {
    num_output: 300
    weight_filler {
      type: "xavier"
    }
  }
}
layer {
  name: "fc4_relu"
  type: "ReLU"
  bottom: "fc4_300"
  top: "fc4_300"
}
layer {
  name: "drop4"
  type: "Dropout"
  bottom: "fc4_300"
  top: "fc4_300"
  dropout_param {
    dropout_ratio: 0.4
  }
}
layer {
  name: "fc5_67"
  type: "InnerProduct"
  bottom: "fc4_300"
  top: "fc5_classes"
  inner_product_param {
    num_output: 67
    weight_filler {
      type: "xavier"
    }
  }
}
layer {
  name: "loss"
  type: "SoftmaxWithLoss"
  bottom: "fc5_classes"
  bottom: "label"
  top: "loss"
}
I0326 16:41:55.908483  4234 layer_factory.hpp:77] Creating layer data
I0326 16:41:55.909379  4234 net.cpp:100] Creating Layer data
I0326 16:41:55.909394  4234 net.cpp:408] data -> data
I0326 16:41:55.909420  4234 net.cpp:408] data -> label
I0326 16:41:55.910784  4314 db_lmdb.cpp:35] Opened lmdb ../local_data/lmdb/rtsd-r1/imajust/train/lmdb
I0326 16:41:55.980048  4234 data_layer.cpp:41] output data size: 512,3,48,48
I0326 16:41:56.030438  4234 net.cpp:150] Setting up data
I0326 16:41:56.030474  4234 net.cpp:157] Top shape: 512 3 48 48 (3538944)
I0326 16:41:56.030480  4234 net.cpp:157] Top shape: 512 (512)
I0326 16:41:56.030484  4234 net.cpp:165] Memory required for data: 14157824
I0326 16:41:56.030517  4234 layer_factory.hpp:77] Creating layer conv1
I0326 16:41:56.030547  4234 net.cpp:100] Creating Layer conv1
I0326 16:41:56.030556  4234 net.cpp:434] conv1 <- data
I0326 16:41:56.030572  4234 net.cpp:408] conv1 -> conv1
I0326 16:41:56.483500  4234 net.cpp:150] Setting up conv1
I0326 16:41:56.483530  4234 net.cpp:157] Top shape: 512 100 42 42 (90316800)
I0326 16:41:56.483533  4234 net.cpp:165] Memory required for data: 375425024
I0326 16:41:56.483556  4234 layer_factory.hpp:77] Creating layer conv1_relu
I0326 16:41:56.483570  4234 net.cpp:100] Creating Layer conv1_relu
I0326 16:41:56.483574  4234 net.cpp:434] conv1_relu <- conv1
I0326 16:41:56.483580  4234 net.cpp:395] conv1_relu -> conv1 (in-place)
I0326 16:41:56.484311  4234 net.cpp:150] Setting up conv1_relu
I0326 16:41:56.484325  4234 net.cpp:157] Top shape: 512 100 42 42 (90316800)
I0326 16:41:56.484328  4234 net.cpp:165] Memory required for data: 736692224
I0326 16:41:56.484331  4234 layer_factory.hpp:77] Creating layer pool1
I0326 16:41:56.484339  4234 net.cpp:100] Creating Layer pool1
I0326 16:41:56.484342  4234 net.cpp:434] pool1 <- conv1
I0326 16:41:56.484347  4234 net.cpp:408] pool1 -> pool1
I0326 16:41:56.484402  4234 net.cpp:150] Setting up pool1
I0326 16:41:56.484411  4234 net.cpp:157] Top shape: 512 100 21 21 (22579200)
I0326 16:41:56.484421  4234 net.cpp:165] Memory required for data: 827009024
I0326 16:41:56.484424  4234 layer_factory.hpp:77] Creating layer conv2
I0326 16:41:56.484436  4234 net.cpp:100] Creating Layer conv2
I0326 16:41:56.484441  4234 net.cpp:434] conv2 <- pool1
I0326 16:41:56.484447  4234 net.cpp:408] conv2 -> conv2
I0326 16:41:56.491681  4234 net.cpp:150] Setting up conv2
I0326 16:41:56.491699  4234 net.cpp:157] Top shape: 512 150 18 18 (24883200)
I0326 16:41:56.491703  4234 net.cpp:165] Memory required for data: 926541824
I0326 16:41:56.491714  4234 layer_factory.hpp:77] Creating layer conv2_relu
I0326 16:41:56.491720  4234 net.cpp:100] Creating Layer conv2_relu
I0326 16:41:56.491724  4234 net.cpp:434] conv2_relu <- conv2
I0326 16:41:56.491729  4234 net.cpp:395] conv2_relu -> conv2 (in-place)
I0326 16:41:56.493333  4234 net.cpp:150] Setting up conv2_relu
I0326 16:41:56.493350  4234 net.cpp:157] Top shape: 512 150 18 18 (24883200)
I0326 16:41:56.493353  4234 net.cpp:165] Memory required for data: 1026074624
I0326 16:41:56.493357  4234 layer_factory.hpp:77] Creating layer pool2
I0326 16:41:56.493365  4234 net.cpp:100] Creating Layer pool2
I0326 16:41:56.493368  4234 net.cpp:434] pool2 <- conv2
I0326 16:41:56.493374  4234 net.cpp:408] pool2 -> pool2
I0326 16:41:56.493418  4234 net.cpp:150] Setting up pool2
I0326 16:41:56.493427  4234 net.cpp:157] Top shape: 512 150 9 9 (6220800)
I0326 16:41:56.493430  4234 net.cpp:165] Memory required for data: 1050957824
I0326 16:41:56.493434  4234 layer_factory.hpp:77] Creating layer conv3
I0326 16:41:56.493443  4234 net.cpp:100] Creating Layer conv3
I0326 16:41:56.493445  4234 net.cpp:434] conv3 <- pool2
I0326 16:41:56.493450  4234 net.cpp:408] conv3 -> conv3
I0326 16:41:56.502293  4234 net.cpp:150] Setting up conv3
I0326 16:41:56.502311  4234 net.cpp:157] Top shape: 512 250 6 6 (4608000)
I0326 16:41:56.502315  4234 net.cpp:165] Memory required for data: 1069389824
I0326 16:41:56.502326  4234 layer_factory.hpp:77] Creating layer conv3_relu
I0326 16:41:56.502333  4234 net.cpp:100] Creating Layer conv3_relu
I0326 16:41:56.502338  4234 net.cpp:434] conv3_relu <- conv3
I0326 16:41:56.502343  4234 net.cpp:395] conv3_relu -> conv3 (in-place)
I0326 16:41:56.504443  4234 net.cpp:150] Setting up conv3_relu
I0326 16:41:56.504459  4234 net.cpp:157] Top shape: 512 250 6 6 (4608000)
I0326 16:41:56.504463  4234 net.cpp:165] Memory required for data: 1087821824
I0326 16:41:56.504467  4234 layer_factory.hpp:77] Creating layer pool3
I0326 16:41:56.504475  4234 net.cpp:100] Creating Layer pool3
I0326 16:41:56.504478  4234 net.cpp:434] pool3 <- conv3
I0326 16:41:56.504484  4234 net.cpp:408] pool3 -> pool3
I0326 16:41:56.504532  4234 net.cpp:150] Setting up pool3
I0326 16:41:56.504559  4234 net.cpp:157] Top shape: 512 250 3 3 (1152000)
I0326 16:41:56.504564  4234 net.cpp:165] Memory required for data: 1092429824
I0326 16:41:56.504566  4234 layer_factory.hpp:77] Creating layer fc4_300
I0326 16:41:56.504575  4234 net.cpp:100] Creating Layer fc4_300
I0326 16:41:56.504580  4234 net.cpp:434] fc4_300 <- pool3
I0326 16:41:56.504586  4234 net.cpp:408] fc4_300 -> fc4_300
I0326 16:41:56.509976  4234 net.cpp:150] Setting up fc4_300
I0326 16:41:56.509994  4234 net.cpp:157] Top shape: 512 300 (153600)
I0326 16:41:56.509997  4234 net.cpp:165] Memory required for data: 1093044224
I0326 16:41:56.510010  4234 layer_factory.hpp:77] Creating layer fc4_relu
I0326 16:41:56.510020  4234 net.cpp:100] Creating Layer fc4_relu
I0326 16:41:56.510025  4234 net.cpp:434] fc4_relu <- fc4_300
I0326 16:41:56.510030  4234 net.cpp:395] fc4_relu -> fc4_300 (in-place)
I0326 16:41:56.510224  4234 net.cpp:150] Setting up fc4_relu
I0326 16:41:56.510241  4234 net.cpp:157] Top shape: 512 300 (153600)
I0326 16:41:56.510246  4234 net.cpp:165] Memory required for data: 1093658624
I0326 16:41:56.510248  4234 layer_factory.hpp:77] Creating layer drop4
I0326 16:41:56.510255  4234 net.cpp:100] Creating Layer drop4
I0326 16:41:56.510258  4234 net.cpp:434] drop4 <- fc4_300
I0326 16:41:56.510264  4234 net.cpp:395] drop4 -> fc4_300 (in-place)
I0326 16:41:56.510299  4234 net.cpp:150] Setting up drop4
I0326 16:41:56.510308  4234 net.cpp:157] Top shape: 512 300 (153600)
I0326 16:41:56.510310  4234 net.cpp:165] Memory required for data: 1094273024
I0326 16:41:56.510314  4234 layer_factory.hpp:77] Creating layer fc5_67
I0326 16:41:56.510320  4234 net.cpp:100] Creating Layer fc5_67
I0326 16:41:56.510327  4234 net.cpp:434] fc5_67 <- fc4_300
I0326 16:41:56.510332  4234 net.cpp:408] fc5_67 -> fc5_classes
I0326 16:41:56.511550  4234 net.cpp:150] Setting up fc5_67
I0326 16:41:56.511565  4234 net.cpp:157] Top shape: 512 67 (34304)
I0326 16:41:56.511569  4234 net.cpp:165] Memory required for data: 1094410240
I0326 16:41:56.511579  4234 layer_factory.hpp:77] Creating layer loss
I0326 16:41:56.511595  4234 net.cpp:100] Creating Layer loss
I0326 16:41:56.511598  4234 net.cpp:434] loss <- fc5_classes
I0326 16:41:56.511603  4234 net.cpp:434] loss <- label
I0326 16:41:56.511608  4234 net.cpp:408] loss -> loss
I0326 16:41:56.511621  4234 layer_factory.hpp:77] Creating layer loss
…
I0326 16:41:56.512271  4234 solver.cpp:193] Creating test net (#0) specified by test_net file: ./Prototxt/rtsd-r1/imajust/test.prototxt
I0326 16:41:56.512416  4234 net.cpp:58] Initializing net from parameters: 
state {
  phase: TEST
}
layer {
  name: "data"
  type: "Data"
  top: "data"
  top: "label"
  include {
    phase: TEST
  }
  transform_param {
    mirror: false
    crop_size: 48
    mean_value: 109
    mean_value: 106
    mean_value: 126
  }
  data_param {
    source: "../local_data/lmdb/rtsd-r1/imajust/test/lmdb"
    batch_size: 512
    backend: LMDB
  }
}
layer {
  name: "conv1"
  type: "Convolution"
  bottom: "data"
  top: "conv1"
  convolution_param {
    num_output: 100
    pad: 0
    kernel_size: 7
    group: 1
    stride: 1
    weight_filler {
      type: "xavier"
    }
  }
}
layer {
  name: "conv1_relu"
  type: "ReLU"
  bottom: "conv1"
  top: "conv1"
}
layer {
  name: "pool1"
  type: "Pooling"
  bottom: "conv1"
  top: "pool1"
  pooling_param {
    pool: MAX
    kernel_size: 2
    stride: 2
  }
}
layer {
  name: "conv2"
  type: "Convolution"
  bottom: "pool1"
  top: "conv2"
  convolution_param {
    num_output: 150
    pad: 0
    kernel_size: 4
    group: 1
    stride: 1
    weight_filler {
      type: "xavier"
    }
  }
}
layer {
  name: "conv2_relu"
  type: "ReLU"
  bottom: "conv2"
  top: "conv2"
}
layer {
  name: "pool2"
  type: "Pooling"
  bottom: "conv2"
  top: "pool2"
  pooling_param {
    pool: MAX
    kernel_size: 2
    stride: 2
  }
}
layer {
  name: "conv3"
  type: "Convolution"
  bottom: "pool2"
  top: "conv3"
  convolution_param {
    num_output: 250
    pad: 0
    kernel_size: 4
    group: 1
    stride: 1
    weight_filler {
      type: "xavier"
    }
  }
}
layer {
  name: "conv3_relu"
  type: "ReLU"
  bottom: "conv3"
  top: "conv3"
}
layer {
  name: "pool3"
  type: "Pooling"
  bottom: "conv3"
  top: "pool3"
  pooling_param {
    pool: MAX
    kernel_size: 2
    stride: 2
  }
}
layer {
  name: "fc4_300"
  type: "InnerProduct"
  bottom: "pool3"
  top: "fc4_300"
  inner_product_param {
    num_output: 300
    weight_filler {
      type: "xavier"
    }
  }
}
layer {
  name: "fc4_relu"
  type: "ReLU"
  bottom: "fc4_300"
  top: "fc4_300"
}
layer {
  name: "drop4"
  type: "Dropout"
  bottom: "fc4_300"
  top: "fc4_300"
  dropout_param {
    dropout_ratio: 0.4
  }
}
layer {
  name: "fc5_67"
  type: "InnerProduct"
  bottom: "fc4_300"
  top: "fc5_classes"
  inner_product_param {
    num_output: 67
    weight_filler {
      type: "xavier"
    }
  }
}
layer {
  name: "loss"
  type: "SoftmaxWithLoss"
  bottom: "fc5_classes"
  bottom: "label"
  top: "loss"
}
layer {
  name: "accuracy_1"
  type: "Accuracy"
  bottom: "fc5_classes"
  bottom: "label"
  top: "accuracy_1"
  include {
    phase: TEST
  }
  accuracy_param {
    top_k: 1
  }
}
layer {
  name: "accuracy_5"
  type: "Accuracy"
  bottom: "fc5_classes"
  bottom: "label"
  top: "accuracy_5"
  include {
    phase: TEST
  }
  accuracy_param {
    top_k: 5
  }
}
I0326 16:41:56.512509  4234 layer_factory.hpp:77] Creating layer data
I0326 16:41:56.512881  4234 net.cpp:100] Creating Layer data
I0326 16:41:56.512892  4234 net.cpp:408] data -> data
I0326 16:41:56.512902  4234 net.cpp:408] data -> label
I0326 16:41:56.514539  4341 db_lmdb.cpp:35] Opened lmdb ../local_data/lmdb/rtsd-r1/imajust/test/lmdb
I0326 16:41:56.514693  4234 data_layer.cpp:41] output data size: 512,3,48,48
I0326 16:41:56.539371  4234 net.cpp:150] Setting up data
I0326 16:41:56.539402  4234 net.cpp:157] Top shape: 512 3 48 48 (3538944)
I0326 16:41:56.539407  4234 net.cpp:157] Top shape: 512 (512)
I0326 16:41:56.539410  4234 net.cpp:165] Memory required for data: 14157824
I0326 16:41:56.539417  4234 layer_factory.hpp:77] Creating layer label_data_1_split
I0326 16:41:56.539430  4234 net.cpp:100] Creating Layer label_data_1_split
I0326 16:41:56.539434  4234 net.cpp:434] label_data_1_split <- label
I0326 16:41:56.539448  4234 net.cpp:408] label_data_1_split -> label_data_1_split_0
I0326 16:41:56.539463  4234 net.cpp:408] label_data_1_split -> label_data_1_split_1
I0326 16:41:56.539469  4234 net.cpp:408] label_data_1_split -> label_data_1_split_2
I0326 16:41:56.539616  4234 net.cpp:150] Setting up label_data_1_split
I0326 16:41:56.539626  4234 net.cpp:157] Top shape: 512 (512)
I0326 16:41:56.539647  4234 net.cpp:157] Top shape: 512 (512)
I0326 16:41:56.539652  4234 net.cpp:157] Top shape: 512 (512)
I0326 16:41:56.539654  4234 net.cpp:165] Memory required for data: 14163968
I0326 16:41:56.539659  4234 layer_factory.hpp:77] Creating layer conv1
I0326 16:41:56.539674  4234 net.cpp:100] Creating Layer conv1
I0326 16:41:56.539677  4234 net.cpp:434] conv1 <- data
I0326 16:41:56.539683  4234 net.cpp:408] conv1 -> conv1
I0326 16:41:56.545255  4234 net.cpp:150] Setting up conv1
I0326 16:41:56.545275  4234 net.cpp:157] Top shape: 512 100 42 42 (90316800)
I0326 16:41:56.545279  4234 net.cpp:165] Memory required for data: 375431168
I0326 16:41:56.545291  4234 layer_factory.hpp:77] Creating layer conv1_relu
I0326 16:41:56.545300  4234 net.cpp:100] Creating Layer conv1_relu
I0326 16:41:56.545305  4234 net.cpp:434] conv1_relu <- conv1
I0326 16:41:56.545311  4234 net.cpp:395] conv1_relu -> conv1 (in-place)
I0326 16:41:56.545506  4234 net.cpp:150] Setting up conv1_relu
I0326 16:41:56.545519  4234 net.cpp:157] Top shape: 512 100 42 42 (90316800)
I0326 16:41:56.545523  4234 net.cpp:165] Memory required for data: 736698368
I0326 16:41:56.545526  4234 layer_factory.hpp:77] Creating layer pool1
I0326 16:41:56.545537  4234 net.cpp:100] Creating Layer pool1
I0326 16:41:56.545542  4234 net.cpp:434] pool1 <- conv1
I0326 16:41:56.545547  4234 net.cpp:408] pool1 -> pool1
I0326 16:41:56.545601  4234 net.cpp:150] Setting up pool1
I0326 16:41:56.545610  4234 net.cpp:157] Top shape: 512 100 21 21 (22579200)
I0326 16:41:56.545614  4234 net.cpp:165] Memory required for data: 827015168
I0326 16:41:56.545617  4234 layer_factory.hpp:77] Creating layer conv2
I0326 16:41:56.545627  4234 net.cpp:100] Creating Layer conv2
I0326 16:41:56.545631  4234 net.cpp:434] conv2 <- pool1
I0326 16:41:56.545639  4234 net.cpp:408] conv2 -> conv2
I0326 16:41:56.548549  4234 net.cpp:150] Setting up conv2
I0326 16:41:56.548566  4234 net.cpp:157] Top shape: 512 150 18 18 (24883200)
I0326 16:41:56.548570  4234 net.cpp:165] Memory required for data: 926547968
I0326 16:41:56.548579  4234 layer_factory.hpp:77] Creating layer conv2_relu
I0326 16:41:56.548586  4234 net.cpp:100] Creating Layer conv2_relu
I0326 16:41:56.548589  4234 net.cpp:434] conv2_relu <- conv2
I0326 16:41:56.548595  4234 net.cpp:395] conv2_relu -> conv2 (in-place)
I0326 16:41:56.549326  4234 net.cpp:150] Setting up conv2_relu
I0326 16:41:56.549345  4234 net.cpp:157] Top shape: 512 150 18 18 (24883200)
I0326 16:41:56.549348  4234 net.cpp:165] Memory required for data: 1026080768
I0326 16:41:56.549352  4234 layer_factory.hpp:77] Creating layer pool2
I0326 16:41:56.549358  4234 net.cpp:100] Creating Layer pool2
I0326 16:41:56.549363  4234 net.cpp:434] pool2 <- conv2
I0326 16:41:56.549372  4234 net.cpp:408] pool2 -> pool2
I0326 16:41:56.549428  4234 net.cpp:150] Setting up pool2
I0326 16:41:56.549440  4234 net.cpp:157] Top shape: 512 150 9 9 (6220800)
I0326 16:41:56.549443  4234 net.cpp:165] Memory required for data: 1050963968
I0326 16:41:56.549446  4234 layer_factory.hpp:77] Creating layer conv3
I0326 16:41:56.549458  4234 net.cpp:100] Creating Layer conv3
I0326 16:41:56.549463  4234 net.cpp:434] conv3 <- pool2
I0326 16:41:56.549470  4234 net.cpp:408] conv3 -> conv3
I0326 16:41:56.555095  4234 net.cpp:150] Setting up conv3
I0326 16:41:56.555116  4234 net.cpp:157] Top shape: 512 250 6 6 (4608000)
I0326 16:41:56.555120  4234 net.cpp:165] Memory required for data: 1069395968
I0326 16:41:56.555130  4234 layer_factory.hpp:77] Creating layer conv3_relu
I0326 16:41:56.555138  4234 net.cpp:100] Creating Layer conv3_relu
I0326 16:41:56.555145  4234 net.cpp:434] conv3_relu <- conv3
I0326 16:41:56.555150  4234 net.cpp:395] conv3_relu -> conv3 (in-place)
I0326 16:41:56.556198  4234 net.cpp:150] Setting up conv3_relu
I0326 16:41:56.556215  4234 net.cpp:157] Top shape: 512 250 6 6 (4608000)
I0326 16:41:56.556218  4234 net.cpp:165] Memory required for data: 1087827968
I0326 16:41:56.556221  4234 layer_factory.hpp:77] Creating layer pool3
I0326 16:41:56.556229  4234 net.cpp:100] Creating Layer pool3
I0326 16:41:56.556264  4234 net.cpp:434] pool3 <- conv3
I0326 16:41:56.556273  4234 net.cpp:408] pool3 -> pool3
I0326 16:41:56.556329  4234 net.cpp:150] Setting up pool3
I0326 16:41:56.556339  4234 net.cpp:157] Top shape: 512 250 3 3 (1152000)
I0326 16:41:56.556341  4234 net.cpp:165] Memory required for data: 1092435968
I0326 16:41:56.556345  4234 layer_factory.hpp:77] Creating layer fc4_300
I0326 16:41:56.556355  4234 net.cpp:100] Creating Layer fc4_300
I0326 16:41:56.556358  4234 net.cpp:434] fc4_300 <- pool3
I0326 16:41:56.556363  4234 net.cpp:408] fc4_300 -> fc4_300
I0326 16:41:56.561781  4234 net.cpp:150] Setting up fc4_300
I0326 16:41:56.561800  4234 net.cpp:157] Top shape: 512 300 (153600)
I0326 16:41:56.561805  4234 net.cpp:165] Memory required for data: 1093050368
I0326 16:41:56.561812  4234 layer_factory.hpp:77] Creating layer fc4_relu
I0326 16:41:56.561820  4234 net.cpp:100] Creating Layer fc4_relu
I0326 16:41:56.561825  4234 net.cpp:434] fc4_relu <- fc4_300
I0326 16:41:56.561833  4234 net.cpp:395] fc4_relu -> fc4_300 (in-place)
I0326 16:41:56.563263  4234 net.cpp:150] Setting up fc4_relu
I0326 16:41:56.563282  4234 net.cpp:157] Top shape: 512 300 (153600)
I0326 16:41:56.563287  4234 net.cpp:165] Memory required for data: 1093664768
I0326 16:41:56.563290  4234 layer_factory.hpp:77] Creating layer drop4
I0326 16:41:56.563300  4234 net.cpp:100] Creating Layer drop4
I0326 16:41:56.563307  4234 net.cpp:434] drop4 <- fc4_300
I0326 16:41:56.563313  4234 net.cpp:395] drop4 -> fc4_300 (in-place)
I0326 16:41:56.563352  4234 net.cpp:150] Setting up drop4
I0326 16:41:56.563361  4234 net.cpp:157] Top shape: 512 300 (153600)
I0326 16:41:56.563364  4234 net.cpp:165] Memory required for data: 1094279168
I0326 16:41:56.563367  4234 layer_factory.hpp:77] Creating layer fc5_67
I0326 16:41:56.563375  4234 net.cpp:100] Creating Layer fc5_67
I0326 16:41:56.563380  4234 net.cpp:434] fc5_67 <- fc4_300
I0326 16:41:56.563387  4234 net.cpp:408] fc5_67 -> fc5_classes
I0326 16:41:56.563645  4234 net.cpp:150] Setting up fc5_67
I0326 16:41:56.563655  4234 net.cpp:157] Top shape: 512 67 (34304)
I0326 16:41:56.563658  4234 net.cpp:165] Memory required for data: 1094416384
I0326 16:41:56.563673  4234 layer_factory.hpp:77] Creating layer fc5_classes_fc5_67_0_split
I0326 16:41:56.563683  4234 net.cpp:100] Creating Layer fc5_classes_fc5_67_0_split
I0326 16:41:56.563689  4234 net.cpp:434] fc5_classes_fc5_67_0_split <- fc5_classes
I0326 16:41:56.563697  4234 net.cpp:408] fc5_classes_fc5_67_0_split -> fc5_classes_fc5_67_0_split_0
I0326 16:41:56.563704  4234 net.cpp:408] fc5_classes_fc5_67_0_split -> fc5_classes_fc5_67_0_split_1
I0326 16:41:56.563711  4234 net.cpp:408] fc5_classes_fc5_67_0_split -> fc5_classes_fc5_67_0_split_2
I0326 16:41:56.563769  4234 net.cpp:150] Setting up fc5_classes_fc5_67_0_split
I0326 16:41:56.563777  4234 net.cpp:157] Top shape: 512 67 (34304)
I0326 16:41:56.563781  4234 net.cpp:157] Top shape: 512 67 (34304)
I0326 16:41:56.563792  4234 net.cpp:157] Top shape: 512 67 (34304)
I0326 16:41:56.563794  4234 net.cpp:165] Memory required for data: 1094828032
I0326 16:41:56.563797  4234 layer_factory.hpp:77] Creating layer loss
I0326 16:41:56.563809  4234 net.cpp:100] Creating Layer loss
I0326 16:41:56.563814  4234 net.cpp:434] loss <- fc5_classes_fc5_67_0_split_0
I0326 16:41:56.563819  4234 net.cpp:434] loss <- label_data_1_split_0
I0326 16:41:56.563824  4234 net.cpp:408] loss -> loss
…
