…
I0409 20:01:12.089277  9650 net.cpp:322] The NetState phase (0) differed from the phase (1) specified by a rule in layer accuracy_5
I0409 20:01:12.089385  9650 net.cpp:58] Initializing net from parameters: 
state {
  phase: TRAIN
  level: 0
  stage: ""
}
layer {
  name: "data"
  type: "Data"
  top: "data"
  top: "label"
  include {
    phase: TRAIN
  }
  transform_param {
    mirror: false
    crop_size: 48
    mean_value: 132
    mean_value: 132
    mean_value: 131
  }
  data_param {
    source: "../local_data/lmdb/rtsd-r1/CoNorm/train/lmdb"
    batch_size: 1024
    backend: LMDB
  }
}
layer {
  name: "conv1"
  type: "Convolution"
  bottom: "data"
  top: "conv1"
  convolution_param {
    num_output: 100
    pad: 0
    kernel_size: 7
    group: 1
    stride: 1
    weight_filler {
      type: "xavier"
    }
  }
}
layer {
  name: "conv1_sTanH"
  type: "TanH"
  bottom: "conv1"
  top: "conv1"
}
layer {
  name: "pool1"
  type: "Pooling"
  bottom: "conv1"
  top: "pool1"
  pooling_param {
    pool: MAX
    kernel_size: 2
    stride: 2
  }
}
layer {
  name: "conv2"
  type: "Convolution"
  bottom: "pool1"
  top: "conv2"
  convolution_param {
    num_output: 150
    pad: 0
    kernel_size: 4
    group: 1
    stride: 1
    weight_filler {
      type: "xavier"
    }
  }
}
layer {
  name: "conv2_sTanH"
  type: "TanH"
  bottom: "conv2"
  top: "conv2"
}
layer {
  name: "pool2"
  type: "Pooling"
  bottom: "conv2"
  top: "pool2"
  pooling_param {
    pool: MAX
    kernel_size: 2
    stride: 2
  }
}
layer {
  name: "conv3"
  type: "Convolution"
  bottom: "pool2"
  top: "conv3"
  convolution_param {
    num_output: 250
    pad: 0
    kernel_size: 4
    group: 1
    stride: 1
    weight_filler {
      type: "xavier"
    }
  }
}
layer {
  name: "conv3_sTanH"
  type: "TanH"
  bottom: "conv3"
  top: "conv3"
}
layer {
  name: "pool3"
  type: "Pooling"
  bottom: "conv3"
  top: "pool3"
  pooling_param {
    pool: MAX
    kernel_size: 2
    stride: 2
  }
}
layer {
  name: "fc4_300"
  type: "InnerProduct"
  bottom: "pool3"
  top: "fc4_300"
  inner_product_param {
    num_output: 300
    weight_filler {
      type: "xavier"
    }
  }
}
layer {
  name: "fc4_sTanH"
  type: "TanH"
  bottom: "fc4_300"
  top: "fc4_300"
}
layer {
  name: "drop4"
  type: "Dropout"
  bottom: "fc4_300"
  top: "fc4_300"
  dropout_param {
    dropout_ratio: 0.4
  }
}
layer {
  name: "fc5_67"
  type: "InnerProduct"
  bottom: "fc4_300"
  top: "fc5_classes"
  inner_product_param {
    num_output: 67
    weight_filler {
      type: "xavier"
    }
  }
}
layer {
  name: "loss"
  type: "SoftmaxWithLoss"
  bottom: "fc5_classes"
  bottom: "label"
  top: "loss"
}
I0409 20:01:12.089468  9650 layer_factory.hpp:77] Creating layer data
I0409 20:01:12.091007  9650 net.cpp:100] Creating Layer data
I0409 20:01:12.091025  9650 net.cpp:408] data -> data
I0409 20:01:12.091050  9650 net.cpp:408] data -> label
I0409 20:01:12.092679  9723 db_lmdb.cpp:35] Opened lmdb ../local_data/lmdb/rtsd-r1/CoNorm/train/lmdb
I0409 20:01:12.113266  9650 data_layer.cpp:41] output data size: 1024,3,48,48
I0409 20:01:12.180387  9650 net.cpp:150] Setting up data
I0409 20:01:12.180421  9650 net.cpp:157] Top shape: 1024 3 48 48 (7077888)
I0409 20:01:12.180456  9650 net.cpp:157] Top shape: 1024 (1024)
I0409 20:01:12.180460  9650 net.cpp:165] Memory required for data: 28315648
I0409 20:01:12.180472  9650 layer_factory.hpp:77] Creating layer conv1
I0409 20:01:12.180497  9650 net.cpp:100] Creating Layer conv1
I0409 20:01:12.180507  9650 net.cpp:434] conv1 <- data
I0409 20:01:12.180522  9650 net.cpp:408] conv1 -> conv1
I0409 20:01:12.470499  9650 net.cpp:150] Setting up conv1
I0409 20:01:12.470530  9650 net.cpp:157] Top shape: 1024 100 42 42 (180633600)
I0409 20:01:12.470535  9650 net.cpp:165] Memory required for data: 750850048
I0409 20:01:12.470562  9650 layer_factory.hpp:77] Creating layer conv1_sTanH
I0409 20:01:12.470580  9650 net.cpp:100] Creating Layer conv1_sTanH
I0409 20:01:12.470587  9650 net.cpp:434] conv1_sTanH <- conv1
I0409 20:01:12.470594  9650 net.cpp:395] conv1_sTanH -> conv1 (in-place)
I0409 20:01:12.470796  9650 net.cpp:150] Setting up conv1_sTanH
I0409 20:01:12.470809  9650 net.cpp:157] Top shape: 1024 100 42 42 (180633600)
I0409 20:01:12.470815  9650 net.cpp:165] Memory required for data: 1473384448
I0409 20:01:12.470821  9650 layer_factory.hpp:77] Creating layer pool1
I0409 20:01:12.470832  9650 net.cpp:100] Creating Layer pool1
I0409 20:01:12.470837  9650 net.cpp:434] pool1 <- conv1
I0409 20:01:12.470844  9650 net.cpp:408] pool1 -> pool1
I0409 20:01:12.470902  9650 net.cpp:150] Setting up pool1
I0409 20:01:12.470911  9650 net.cpp:157] Top shape: 1024 100 21 21 (45158400)
I0409 20:01:12.470916  9650 net.cpp:165] Memory required for data: 1654018048
I0409 20:01:12.470921  9650 layer_factory.hpp:77] Creating layer conv2
I0409 20:01:12.470937  9650 net.cpp:100] Creating Layer conv2
I0409 20:01:12.470942  9650 net.cpp:434] conv2 <- pool1
I0409 20:01:12.470948  9650 net.cpp:408] conv2 -> conv2
I0409 20:01:12.475383  9650 net.cpp:150] Setting up conv2
I0409 20:01:12.475402  9650 net.cpp:157] Top shape: 1024 150 18 18 (49766400)
I0409 20:01:12.475407  9650 net.cpp:165] Memory required for data: 1853083648
I0409 20:01:12.475421  9650 layer_factory.hpp:77] Creating layer conv2_sTanH
I0409 20:01:12.475430  9650 net.cpp:100] Creating Layer conv2_sTanH
I0409 20:01:12.475433  9650 net.cpp:434] conv2_sTanH <- conv2
I0409 20:01:12.475442  9650 net.cpp:395] conv2_sTanH -> conv2 (in-place)
I0409 20:01:12.476209  9650 net.cpp:150] Setting up conv2_sTanH
I0409 20:01:12.476225  9650 net.cpp:157] Top shape: 1024 150 18 18 (49766400)
I0409 20:01:12.476228  9650 net.cpp:165] Memory required for data: 2052149248
I0409 20:01:12.476233  9650 layer_factory.hpp:77] Creating layer pool2
I0409 20:01:12.476239  9650 net.cpp:100] Creating Layer pool2
I0409 20:01:12.476244  9650 net.cpp:434] pool2 <- conv2
I0409 20:01:12.476253  9650 net.cpp:408] pool2 -> pool2
I0409 20:01:12.476310  9650 net.cpp:150] Setting up pool2
I0409 20:01:12.476318  9650 net.cpp:157] Top shape: 1024 150 9 9 (12441600)
I0409 20:01:12.476321  9650 net.cpp:165] Memory required for data: 2101915648
I0409 20:01:12.476327  9650 layer_factory.hpp:77] Creating layer conv3
I0409 20:01:12.476343  9650 net.cpp:100] Creating Layer conv3
I0409 20:01:12.476349  9650 net.cpp:434] conv3 <- pool2
I0409 20:01:12.476356  9650 net.cpp:408] conv3 -> conv3
I0409 20:01:12.485592  9650 net.cpp:150] Setting up conv3
I0409 20:01:12.485616  9650 net.cpp:157] Top shape: 1024 250 6 6 (9216000)
I0409 20:01:12.485627  9650 net.cpp:165] Memory required for data: 2138779648
I0409 20:01:12.485648  9650 layer_factory.hpp:77] Creating layer conv3_sTanH
I0409 20:01:12.485664  9650 net.cpp:100] Creating Layer conv3_sTanH
I0409 20:01:12.485673  9650 net.cpp:434] conv3_sTanH <- conv3
I0409 20:01:12.485682  9650 net.cpp:395] conv3_sTanH -> conv3 (in-place)
I0409 20:01:12.487679  9650 net.cpp:150] Setting up conv3_sTanH
I0409 20:01:12.487700  9650 net.cpp:157] Top shape: 1024 250 6 6 (9216000)
I0409 20:01:12.487709  9650 net.cpp:165] Memory required for data: 2175643648
I0409 20:01:12.487716  9650 layer_factory.hpp:77] Creating layer pool3
I0409 20:01:12.487726  9650 net.cpp:100] Creating Layer pool3
I0409 20:01:12.487735  9650 net.cpp:434] pool3 <- conv3
I0409 20:01:12.487778  9650 net.cpp:408] pool3 -> pool3
I0409 20:01:12.487854  9650 net.cpp:150] Setting up pool3
I0409 20:01:12.487874  9650 net.cpp:157] Top shape: 1024 250 3 3 (2304000)
I0409 20:01:12.487898  9650 net.cpp:165] Memory required for data: 2184859648
I0409 20:01:12.487905  9650 layer_factory.hpp:77] Creating layer fc4_300
I0409 20:01:12.487917  9650 net.cpp:100] Creating Layer fc4_300
I0409 20:01:12.487926  9650 net.cpp:434] fc4_300 <- pool3
I0409 20:01:12.487936  9650 net.cpp:408] fc4_300 -> fc4_300
I0409 20:01:12.498078  9650 net.cpp:150] Setting up fc4_300
I0409 20:01:12.498102  9650 net.cpp:157] Top shape: 1024 300 (307200)
I0409 20:01:12.498111  9650 net.cpp:165] Memory required for data: 2186088448
I0409 20:01:12.498123  9650 layer_factory.hpp:77] Creating layer fc4_sTanH
I0409 20:01:12.498136  9650 net.cpp:100] Creating Layer fc4_sTanH
I0409 20:01:12.498144  9650 net.cpp:434] fc4_sTanH <- fc4_300
I0409 20:01:12.498153  9650 net.cpp:395] fc4_sTanH -> fc4_300 (in-place)
I0409 20:01:12.498441  9650 net.cpp:150] Setting up fc4_sTanH
I0409 20:01:12.498459  9650 net.cpp:157] Top shape: 1024 300 (307200)
I0409 20:01:12.498467  9650 net.cpp:165] Memory required for data: 2187317248
I0409 20:01:12.498474  9650 layer_factory.hpp:77] Creating layer drop4
I0409 20:01:12.498486  9650 net.cpp:100] Creating Layer drop4
I0409 20:01:12.498495  9650 net.cpp:434] drop4 <- fc4_300
I0409 20:01:12.498505  9650 net.cpp:395] drop4 -> fc4_300 (in-place)
I0409 20:01:12.498553  9650 net.cpp:150] Setting up drop4
I0409 20:01:12.498570  9650 net.cpp:157] Top shape: 1024 300 (307200)
I0409 20:01:12.498579  9650 net.cpp:165] Memory required for data: 2188546048
I0409 20:01:12.498584  9650 layer_factory.hpp:77] Creating layer fc5_67
I0409 20:01:12.498594  9650 net.cpp:100] Creating Layer fc5_67
I0409 20:01:12.498602  9650 net.cpp:434] fc5_67 <- fc4_300
I0409 20:01:12.498611  9650 net.cpp:408] fc5_67 -> fc5_classes
I0409 20:01:12.500653  9650 net.cpp:150] Setting up fc5_67
I0409 20:01:12.500674  9650 net.cpp:157] Top shape: 1024 67 (68608)
I0409 20:01:12.500682  9650 net.cpp:165] Memory required for data: 2188820480
I0409 20:01:12.500700  9650 layer_factory.hpp:77] Creating layer loss
I0409 20:01:12.500715  9650 net.cpp:100] Creating Layer loss
I0409 20:01:12.500722  9650 net.cpp:434] loss <- fc5_classes
I0409 20:01:12.500730  9650 net.cpp:434] loss <- label
I0409 20:01:12.500742  9650 net.cpp:408] loss -> loss
I0409 20:01:12.500763  9650 layer_factory.hpp:77] Creating layer loss
…
I0409 20:01:12.501791  9650 solver.cpp:193] Creating test net (#0) specified by test_net file: ./Prototxt/experiment_7/rtsd-r1/CoNorm/trial_1/test.prototxt
I0409 20:01:12.502013  9650 net.cpp:58] Initializing net from parameters: 
state {
  phase: TEST
}
layer {
  name: "data"
  type: "Data"
  top: "data"
  top: "label"
  include {
    phase: TEST
  }
  transform_param {
    mirror: false
    crop_size: 48
    mean_value: 133
    mean_value: 133
    mean_value: 132
  }
  data_param {
    source: "../local_data/lmdb/rtsd-r1/CoNorm/test/lmdb"
    batch_size: 1024
    backend: LMDB
  }
}
layer {
  name: "conv1"
  type: "Convolution"
  bottom: "data"
  top: "conv1"
  convolution_param {
    num_output: 100
    pad: 0
    kernel_size: 7
    group: 1
    stride: 1
    weight_filler {
      type: "xavier"
    }
  }
}
layer {
  name: "conv1_sTanH"
  type: "TanH"
  bottom: "conv1"
  top: "conv1"
}
layer {
  name: "pool1"
  type: "Pooling"
  bottom: "conv1"
  top: "pool1"
  pooling_param {
    pool: MAX
    kernel_size: 2
    stride: 2
  }
}
layer {
  name: "conv2"
  type: "Convolution"
  bottom: "pool1"
  top: "conv2"
  convolution_param {
    num_output: 150
    pad: 0
    kernel_size: 4
    group: 1
    stride: 1
    weight_filler {
      type: "xavier"
    }
  }
}
layer {
  name: "conv2_sTanH"
  type: "TanH"
  bottom: "conv2"
  top: "conv2"
}
layer {
  name: "pool2"
  type: "Pooling"
  bottom: "conv2"
  top: "pool2"
  pooling_param {
    pool: MAX
    kernel_size: 2
    stride: 2
  }
}
layer {
  name: "conv3"
  type: "Convolution"
  bottom: "pool2"
  top: "conv3"
  convolution_param {
    num_output: 250
    pad: 0
    kernel_size: 4
    group: 1
    stride: 1
    weight_filler {
      type: "xavier"
    }
  }
}
layer {
  name: "conv3_sTanH"
  type: "TanH"
  bottom: "conv3"
  top: "conv3"
}
layer {
  name: "pool3"
  type: "Pooling"
  bottom: "conv3"
  top: "pool3"
  pooling_param {
    pool: MAX
    kernel_size: 2
    stride: 2
  }
}
layer {
  name: "fc4_300"
  type: "InnerProduct"
  bottom: "pool3"
  top: "fc4_300"
  inner_product_param {
    num_output: 300
    weight_filler {
      type: "xavier"
    }
  }
}
layer {
  name: "fc4_sTanH"
  type: "TanH"
  bottom: "fc4_300"
  top: "fc4_300"
}
layer {
  name: "drop4"
  type: "Dropout"
  bottom: "fc4_300"
  top: "fc4_300"
  dropout_param {
    dropout_ratio: 0.4
  }
}
layer {
  name: "fc5_67"
  type: "InnerProduct"
  bottom: "fc4_300"
  top: "fc5_classes"
  inner_product_param {
    num_output: 67
    weight_filler {
      type: "xavier"
    }
  }
}
layer {
  name: "loss"
  type: "SoftmaxWithLoss"
  bottom: "fc5_classes"
  bottom: "label"
  top: "loss"
}
layer {
  name: "accuracy_1"
  type: "Accuracy"
  bottom: "fc5_classes"
  bottom: "label"
  top: "accuracy_1"
  include {
    phase: TEST
  }
  accuracy_param {
    top_k: 1
  }
}
layer {
  name: "accuracy_5"
  type: "Accuracy"
  bottom: "fc5_classes"
  bottom: "label"
  top: "accuracy_5"
  include {
    phase: TEST
  }
  accuracy_param {
    top_k: 5
  }
}
I0409 20:01:12.502162  9650 layer_factory.hpp:77] Creating layer data
I0409 20:01:12.503196  9650 net.cpp:100] Creating Layer data
I0409 20:01:12.503216  9650 net.cpp:408] data -> data
I0409 20:01:12.503233  9650 net.cpp:408] data -> label
I0409 20:01:12.504483  9746 db_lmdb.cpp:35] Opened lmdb ../local_data/lmdb/rtsd-r1/CoNorm/test/lmdb
I0409 20:01:12.504670  9650 data_layer.cpp:41] output data size: 1024,3,48,48
I0409 20:01:12.549897  9650 net.cpp:150] Setting up data
I0409 20:01:12.549926  9650 net.cpp:157] Top shape: 1024 3 48 48 (7077888)
I0409 20:01:12.549932  9650 net.cpp:157] Top shape: 1024 (1024)
I0409 20:01:12.549935  9650 net.cpp:165] Memory required for data: 28315648
I0409 20:01:12.549943  9650 layer_factory.hpp:77] Creating layer label_data_1_split
I0409 20:01:12.549957  9650 net.cpp:100] Creating Layer label_data_1_split
I0409 20:01:12.549962  9650 net.cpp:434] label_data_1_split <- label
I0409 20:01:12.549969  9650 net.cpp:408] label_data_1_split -> label_data_1_split_0
I0409 20:01:12.549989  9650 net.cpp:408] label_data_1_split -> label_data_1_split_1
I0409 20:01:12.549998  9650 net.cpp:408] label_data_1_split -> label_data_1_split_2
I0409 20:01:12.550127  9650 net.cpp:150] Setting up label_data_1_split
I0409 20:01:12.550137  9650 net.cpp:157] Top shape: 1024 (1024)
I0409 20:01:12.550142  9650 net.cpp:157] Top shape: 1024 (1024)
I0409 20:01:12.550145  9650 net.cpp:157] Top shape: 1024 (1024)
I0409 20:01:12.550148  9650 net.cpp:165] Memory required for data: 28327936
I0409 20:01:12.550151  9650 layer_factory.hpp:77] Creating layer conv1
I0409 20:01:12.550165  9650 net.cpp:100] Creating Layer conv1
I0409 20:01:12.550170  9650 net.cpp:434] conv1 <- data
I0409 20:01:12.550178  9650 net.cpp:408] conv1 -> conv1
I0409 20:01:12.554173  9650 net.cpp:150] Setting up conv1
I0409 20:01:12.554193  9650 net.cpp:157] Top shape: 1024 100 42 42 (180633600)
I0409 20:01:12.554200  9650 net.cpp:165] Memory required for data: 750862336
I0409 20:01:12.554214  9650 layer_factory.hpp:77] Creating layer conv1_sTanH
I0409 20:01:12.554222  9650 net.cpp:100] Creating Layer conv1_sTanH
I0409 20:01:12.554226  9650 net.cpp:434] conv1_sTanH <- conv1
I0409 20:01:12.554231  9650 net.cpp:395] conv1_sTanH -> conv1 (in-place)
I0409 20:01:12.554437  9650 net.cpp:150] Setting up conv1_sTanH
I0409 20:01:12.554452  9650 net.cpp:157] Top shape: 1024 100 42 42 (180633600)
I0409 20:01:12.554456  9650 net.cpp:165] Memory required for data: 1473396736
I0409 20:01:12.554460  9650 layer_factory.hpp:77] Creating layer pool1
I0409 20:01:12.554468  9650 net.cpp:100] Creating Layer pool1
I0409 20:01:12.554472  9650 net.cpp:434] pool1 <- conv1
I0409 20:01:12.554479  9650 net.cpp:408] pool1 -> pool1
I0409 20:01:12.554529  9650 net.cpp:150] Setting up pool1
I0409 20:01:12.554538  9650 net.cpp:157] Top shape: 1024 100 21 21 (45158400)
I0409 20:01:12.554540  9650 net.cpp:165] Memory required for data: 1654030336
I0409 20:01:12.554543  9650 layer_factory.hpp:77] Creating layer conv2
I0409 20:01:12.554555  9650 net.cpp:100] Creating Layer conv2
I0409 20:01:12.554559  9650 net.cpp:434] conv2 <- pool1
I0409 20:01:12.554564  9650 net.cpp:408] conv2 -> conv2
I0409 20:01:12.558491  9650 net.cpp:150] Setting up conv2
I0409 20:01:12.558511  9650 net.cpp:157] Top shape: 1024 150 18 18 (49766400)
I0409 20:01:12.558514  9650 net.cpp:165] Memory required for data: 1853095936
I0409 20:01:12.558524  9650 layer_factory.hpp:77] Creating layer conv2_sTanH
I0409 20:01:12.558531  9650 net.cpp:100] Creating Layer conv2_sTanH
I0409 20:01:12.558534  9650 net.cpp:434] conv2_sTanH <- conv2
I0409 20:01:12.558540  9650 net.cpp:395] conv2_sTanH -> conv2 (in-place)
I0409 20:01:12.559319  9650 net.cpp:150] Setting up conv2_sTanH
I0409 20:01:12.559335  9650 net.cpp:157] Top shape: 1024 150 18 18 (49766400)
I0409 20:01:12.559339  9650 net.cpp:165] Memory required for data: 2052161536
I0409 20:01:12.559342  9650 layer_factory.hpp:77] Creating layer pool2
I0409 20:01:12.559350  9650 net.cpp:100] Creating Layer pool2
I0409 20:01:12.559353  9650 net.cpp:434] pool2 <- conv2
I0409 20:01:12.559370  9650 net.cpp:408] pool2 -> pool2
I0409 20:01:12.559427  9650 net.cpp:150] Setting up pool2
I0409 20:01:12.559437  9650 net.cpp:157] Top shape: 1024 150 9 9 (12441600)
I0409 20:01:12.559440  9650 net.cpp:165] Memory required for data: 2101927936
I0409 20:01:12.559443  9650 layer_factory.hpp:77] Creating layer conv3
I0409 20:01:12.559454  9650 net.cpp:100] Creating Layer conv3
I0409 20:01:12.559460  9650 net.cpp:434] conv3 <- pool2
I0409 20:01:12.559466  9650 net.cpp:408] conv3 -> conv3
I0409 20:01:12.565140  9650 net.cpp:150] Setting up conv3
I0409 20:01:12.565157  9650 net.cpp:157] Top shape: 1024 250 6 6 (9216000)
I0409 20:01:12.565161  9650 net.cpp:165] Memory required for data: 2138791936
I0409 20:01:12.565171  9650 layer_factory.hpp:77] Creating layer conv3_sTanH
I0409 20:01:12.565188  9650 net.cpp:100] Creating Layer conv3_sTanH
I0409 20:01:12.565192  9650 net.cpp:434] conv3_sTanH <- conv3
I0409 20:01:12.565199  9650 net.cpp:395] conv3_sTanH -> conv3 (in-place)
I0409 20:01:12.566023  9650 net.cpp:150] Setting up conv3_sTanH
I0409 20:01:12.566038  9650 net.cpp:157] Top shape: 1024 250 6 6 (9216000)
I0409 20:01:12.566058  9650 net.cpp:165] Memory required for data: 2175655936
I0409 20:01:12.566062  9650 layer_factory.hpp:77] Creating layer pool3
I0409 20:01:12.566071  9650 net.cpp:100] Creating Layer pool3
I0409 20:01:12.566076  9650 net.cpp:434] pool3 <- conv3
I0409 20:01:12.566082  9650 net.cpp:408] pool3 -> pool3
I0409 20:01:12.566135  9650 net.cpp:150] Setting up pool3
I0409 20:01:12.566149  9650 net.cpp:157] Top shape: 1024 250 3 3 (2304000)
I0409 20:01:12.566153  9650 net.cpp:165] Memory required for data: 2184871936
I0409 20:01:12.566155  9650 layer_factory.hpp:77] Creating layer fc4_300
I0409 20:01:12.566162  9650 net.cpp:100] Creating Layer fc4_300
I0409 20:01:12.566165  9650 net.cpp:434] fc4_300 <- pool3
I0409 20:01:12.566174  9650 net.cpp:408] fc4_300 -> fc4_300
I0409 20:01:12.571602  9650 net.cpp:150] Setting up fc4_300
I0409 20:01:12.571619  9650 net.cpp:157] Top shape: 1024 300 (307200)
I0409 20:01:12.571621  9650 net.cpp:165] Memory required for data: 2186100736
I0409 20:01:12.571637  9650 layer_factory.hpp:77] Creating layer fc4_sTanH
I0409 20:01:12.571643  9650 net.cpp:100] Creating Layer fc4_sTanH
I0409 20:01:12.571647  9650 net.cpp:434] fc4_sTanH <- fc4_300
I0409 20:01:12.571656  9650 net.cpp:395] fc4_sTanH -> fc4_300 (in-place)
I0409 20:01:12.571857  9650 net.cpp:150] Setting up fc4_sTanH
I0409 20:01:12.571869  9650 net.cpp:157] Top shape: 1024 300 (307200)
I0409 20:01:12.571872  9650 net.cpp:165] Memory required for data: 2187329536
I0409 20:01:12.571887  9650 layer_factory.hpp:77] Creating layer drop4
I0409 20:01:12.571903  9650 net.cpp:100] Creating Layer drop4
I0409 20:01:12.571907  9650 net.cpp:434] drop4 <- fc4_300
I0409 20:01:12.571914  9650 net.cpp:395] drop4 -> fc4_300 (in-place)
I0409 20:01:12.571950  9650 net.cpp:150] Setting up drop4
I0409 20:01:12.571959  9650 net.cpp:157] Top shape: 1024 300 (307200)
I0409 20:01:12.571961  9650 net.cpp:165] Memory required for data: 2188558336
I0409 20:01:12.571964  9650 layer_factory.hpp:77] Creating layer fc5_67
I0409 20:01:12.571970  9650 net.cpp:100] Creating Layer fc5_67
I0409 20:01:12.571974  9650 net.cpp:434] fc5_67 <- fc4_300
I0409 20:01:12.571985  9650 net.cpp:408] fc5_67 -> fc5_classes
I0409 20:01:12.572240  9650 net.cpp:150] Setting up fc5_67
I0409 20:01:12.572249  9650 net.cpp:157] Top shape: 1024 67 (68608)
I0409 20:01:12.572252  9650 net.cpp:165] Memory required for data: 2188832768
I0409 20:01:12.572263  9650 layer_factory.hpp:77] Creating layer fc5_classes_fc5_67_0_split
I0409 20:01:12.572270  9650 net.cpp:100] Creating Layer fc5_classes_fc5_67_0_split
I0409 20:01:12.572274  9650 net.cpp:434] fc5_classes_fc5_67_0_split <- fc5_classes
I0409 20:01:12.572281  9650 net.cpp:408] fc5_classes_fc5_67_0_split -> fc5_classes_fc5_67_0_split_0
I0409 20:01:12.572288  9650 net.cpp:408] fc5_classes_fc5_67_0_split -> fc5_classes_fc5_67_0_split_1
I0409 20:01:12.572294  9650 net.cpp:408] fc5_classes_fc5_67_0_split -> fc5_classes_fc5_67_0_split_2
I0409 20:01:12.572350  9650 net.cpp:150] Setting up fc5_classes_fc5_67_0_split
I0409 20:01:12.572356  9650 net.cpp:157] Top shape: 1024 67 (68608)
I0409 20:01:12.572360  9650 net.cpp:157] Top shape: 1024 67 (68608)
I0409 20:01:12.572365  9650 net.cpp:157] Top shape: 1024 67 (68608)
I0409 20:01:12.572367  9650 net.cpp:165] Memory required for data: 2189656064
I0409 20:01:12.572371  9650 layer_factory.hpp:77] Creating layer loss
I0409 20:01:12.572378  9650 net.cpp:100] Creating Layer loss
I0409 20:01:12.572381  9650 net.cpp:434] loss <- fc5_classes_fc5_67_0_split_0
I0409 20:01:12.572386  9650 net.cpp:434] loss <- label_data_1_split_0
I0409 20:01:12.572391  9650 net.cpp:408] loss -> loss
…
