…
I0409 19:27:11.709308  8061 net.cpp:322] The NetState phase (0) differed from the phase (1) specified by a rule in layer accuracy_5
I0409 19:27:11.709453  8061 net.cpp:58] Initializing net from parameters: 
state {
  phase: TRAIN
  level: 0
  stage: ""
}
layer {
  name: "data"
  type: "Data"
  top: "data"
  top: "label"
  include {
    phase: TRAIN
  }
  transform_param {
    mirror: false
    crop_size: 48
    mean_value: 132
    mean_value: 132
    mean_value: 131
  }
  data_param {
    source: "../local_data/lmdb/rtsd-r1/CoNorm/train/lmdb"
    batch_size: 1024
    backend: LMDB
  }
}
layer {
  name: "conv1"
  type: "Convolution"
  bottom: "data"
  top: "conv1"
  convolution_param {
    num_output: 100
    pad: 0
    kernel_size: 7
    group: 1
    stride: 1
    weight_filler {
      type: "xavier"
    }
  }
}
layer {
  name: "conv1_prescale"
  type: "Scale"
  bottom: "conv1"
  top: "conv1"
  param {
    lr_mult: 0
    decay_mult: 0
  }
  scale_param {
    filler {
      value: 0.6666
    }
  }
}
layer {
  name: "conv1_sTanH"
  type: "TanH"
  bottom: "conv1"
  top: "conv1"
}
layer {
  name: "conv1_postscale"
  type: "Scale"
  bottom: "conv1"
  top: "conv1"
  param {
    lr_mult: 0
    decay_mult: 0
  }
  scale_param {
    filler {
      value: 1.7159
    }
  }
}
layer {
  name: "pool1"
  type: "Pooling"
  bottom: "conv1"
  top: "pool1"
  pooling_param {
    pool: MAX
    kernel_size: 2
    stride: 2
  }
}
layer {
  name: "conv2"
  type: "Convolution"
  bottom: "pool1"
  top: "conv2"
  convolution_param {
    num_output: 150
    pad: 0
    kernel_size: 4
    group: 1
    stride: 1
    weight_filler {
      type: "xavier"
    }
  }
}
layer {
  name: "conv2_prescale"
  type: "Scale"
  bottom: "conv2"
  top: "conv2"
  param {
    lr_mult: 0
    decay_mult: 0
  }
  scale_param {
    filler {
      value: 0.6666
    }
  }
}
layer {
  name: "conv2_sTanH"
  type: "TanH"
  bottom: "conv2"
  top: "conv2"
}
layer {
  name: "conv2_postscale"
  type: "Scale"
  bottom: "conv2"
  top: "conv2"
  param {
    lr_mult: 0
    decay_mult: 0
  }
  scale_param {
    filler {
      value: 1.7159
    }
  }
}
layer {
  name: "pool2"
  type: "Pooling"
  bottom: "conv2"
  top: "pool2"
  pooling_param {
    pool: MAX
    kernel_size: 2
    stride: 2
  }
}
layer {
  name: "conv3"
  type: "Convolution"
  bottom: "pool2"
  top: "conv3"
  convolution_param {
    num_output: 250
    pad: 0
    kernel_size: 4
    group: 1
    stride: 1
    weight_filler {
      type: "xavier"
    }
  }
}
layer {
  name: "conv3_prescale"
  type: "Scale"
  bottom: "conv3"
  top: "conv3"
  param {
    lr_mult: 0
    decay_mult: 0
  }
  scale_param {
    filler {
      value: 0.6666
    }
  }
}
layer {
  name: "conv3_sTanH"
  type: "TanH"
  bottom: "conv3"
  top: "conv3"
}
layer {
  name: "conv3_postscale"
  type: "Scale"
  bottom: "conv3"
  top: "conv3"
  param {
    lr_mult: 0
    decay_mult: 0
  }
  scale_param {
    filler {
      value: 1.7159
    }
  }
}
layer {
  name: "pool3"
  type: "Pooling"
  bottom: "conv3"
  top: "pool3"
  pooling_param {
    pool: MAX
    kernel_size: 2
    stride: 2
  }
}
layer {
  name: "fc4_300"
  type: "InnerProduct"
  bottom: "pool3"
  top: "fc4_300"
  inner_product_param {
    num_output: 300
    weight_filler {
      type: "xavier"
    }
  }
}
layer {
  name: "fc4_prescale"
  type: "Scale"
  bottom: "fc4_300"
  top: "fc4_300"
  param {
    lr_mult: 0
    decay_mult: 0
  }
  scale_param {
    filler {
      value: 0.6666
    }
  }
}
layer {
  name: "fc4_sTanH"
  type: "TanH"
  bottom: "fc4_300"
  top: "fc4_300"
}
layer {
  name: "fc4_postscale"
  type: "Scale"
  bottom: "fc4_300"
  top: "fc4_300"
  param {
    lr_mult: 0
    decay_mult: 0
  }
  scale_param {
    filler {
      value: 1.7159
    }
  }
}
layer {
  name: "drop4"
  type: "Dropout"
  bottom: "fc4_300"
  top: "fc4_300"
  dropout_param {
    dropout_ratio: 0.4
  }
}
layer {
  name: "fc5_67"
  type: "InnerProduct"
  bottom: "fc4_300"
  top: "fc5_classes"
  inner_product_param {
    num_output: 67
    weight_filler {
      type: "xavier"
    }
  }
}
layer {
  name: "loss"
  type: "SoftmaxWithLoss"
  bottom: "fc5_classes"
  bottom: "label"
  top: "loss"
}
I0409 19:27:11.709576  8061 layer_factory.hpp:77] Creating layer data
I0409 19:27:11.710687  8061 net.cpp:100] Creating Layer data
I0409 19:27:11.710702  8061 net.cpp:408] data -> data
I0409 19:27:11.710726  8061 net.cpp:408] data -> label
I0409 19:27:11.711822  8247 db_lmdb.cpp:35] Opened lmdb ../local_data/lmdb/rtsd-r1/CoNorm/train/lmdb
I0409 19:27:12.327246  8061 data_layer.cpp:41] output data size: 1024,3,48,48
I0409 19:27:12.389255  8061 net.cpp:150] Setting up data
I0409 19:27:12.389293  8061 net.cpp:157] Top shape: 1024 3 48 48 (7077888)
I0409 19:27:12.389302  8061 net.cpp:157] Top shape: 1024 (1024)
I0409 19:27:12.389307  8061 net.cpp:165] Memory required for data: 28315648
I0409 19:27:12.389319  8061 layer_factory.hpp:77] Creating layer conv1
I0409 19:27:12.389365  8061 net.cpp:100] Creating Layer conv1
I0409 19:27:12.389375  8061 net.cpp:434] conv1 <- data
I0409 19:27:12.389396  8061 net.cpp:408] conv1 -> conv1
I0409 19:27:12.937319  8061 net.cpp:150] Setting up conv1
I0409 19:27:12.937356  8061 net.cpp:157] Top shape: 1024 100 42 42 (180633600)
I0409 19:27:12.937361  8061 net.cpp:165] Memory required for data: 750850048
I0409 19:27:12.937396  8061 layer_factory.hpp:77] Creating layer conv1_prescale
I0409 19:27:12.937410  8061 net.cpp:100] Creating Layer conv1_prescale
I0409 19:27:12.937425  8061 net.cpp:434] conv1_prescale <- conv1
I0409 19:27:12.937433  8061 net.cpp:395] conv1_prescale -> conv1 (in-place)
I0409 19:27:12.937544  8061 net.cpp:150] Setting up conv1_prescale
I0409 19:27:12.937554  8061 net.cpp:157] Top shape: 1024 100 42 42 (180633600)
I0409 19:27:12.937557  8061 net.cpp:165] Memory required for data: 1473384448
I0409 19:27:12.937564  8061 layer_factory.hpp:77] Creating layer conv1_sTanH
I0409 19:27:12.937572  8061 net.cpp:100] Creating Layer conv1_sTanH
I0409 19:27:12.937577  8061 net.cpp:434] conv1_sTanH <- conv1
I0409 19:27:12.937582  8061 net.cpp:395] conv1_sTanH -> conv1 (in-place)
I0409 19:27:12.937788  8061 net.cpp:150] Setting up conv1_sTanH
I0409 19:27:12.937800  8061 net.cpp:157] Top shape: 1024 100 42 42 (180633600)
I0409 19:27:12.937804  8061 net.cpp:165] Memory required for data: 2195918848
I0409 19:27:12.937808  8061 layer_factory.hpp:77] Creating layer conv1_postscale
I0409 19:27:12.937816  8061 net.cpp:100] Creating Layer conv1_postscale
I0409 19:27:12.937821  8061 net.cpp:434] conv1_postscale <- conv1
I0409 19:27:12.937826  8061 net.cpp:395] conv1_postscale -> conv1 (in-place)
I0409 19:27:12.937923  8061 net.cpp:150] Setting up conv1_postscale
I0409 19:27:12.937932  8061 net.cpp:157] Top shape: 1024 100 42 42 (180633600)
I0409 19:27:12.937934  8061 net.cpp:165] Memory required for data: 2918453248
I0409 19:27:12.937940  8061 layer_factory.hpp:77] Creating layer pool1
I0409 19:27:12.937948  8061 net.cpp:100] Creating Layer pool1
I0409 19:27:12.937952  8061 net.cpp:434] pool1 <- conv1
I0409 19:27:12.937958  8061 net.cpp:408] pool1 -> pool1
I0409 19:27:12.938006  8061 net.cpp:150] Setting up pool1
I0409 19:27:12.938014  8061 net.cpp:157] Top shape: 1024 100 21 21 (45158400)
I0409 19:27:12.938019  8061 net.cpp:165] Memory required for data: 3099086848
I0409 19:27:12.938046  8061 layer_factory.hpp:77] Creating layer conv2
I0409 19:27:12.938058  8061 net.cpp:100] Creating Layer conv2
I0409 19:27:12.938062  8061 net.cpp:434] conv2 <- pool1
I0409 19:27:12.938068  8061 net.cpp:408] conv2 -> conv2
I0409 19:27:12.942487  8061 net.cpp:150] Setting up conv2
I0409 19:27:12.942505  8061 net.cpp:157] Top shape: 1024 150 18 18 (49766400)
I0409 19:27:12.942509  8061 net.cpp:165] Memory required for data: 3298152448
I0409 19:27:12.942519  8061 layer_factory.hpp:77] Creating layer conv2_prescale
I0409 19:27:12.942528  8061 net.cpp:100] Creating Layer conv2_prescale
I0409 19:27:12.942538  8061 net.cpp:434] conv2_prescale <- conv2
I0409 19:27:12.942543  8061 net.cpp:395] conv2_prescale -> conv2 (in-place)
I0409 19:27:12.942665  8061 net.cpp:150] Setting up conv2_prescale
I0409 19:27:12.942674  8061 net.cpp:157] Top shape: 1024 150 18 18 (49766400)
I0409 19:27:12.942679  8061 net.cpp:165] Memory required for data: 3497218048
I0409 19:27:12.942683  8061 layer_factory.hpp:77] Creating layer conv2_sTanH
I0409 19:27:12.942690  8061 net.cpp:100] Creating Layer conv2_sTanH
I0409 19:27:12.942695  8061 net.cpp:434] conv2_sTanH <- conv2
I0409 19:27:12.942699  8061 net.cpp:395] conv2_sTanH -> conv2 (in-place)
I0409 19:27:12.943471  8061 net.cpp:150] Setting up conv2_sTanH
I0409 19:27:12.943488  8061 net.cpp:157] Top shape: 1024 150 18 18 (49766400)
I0409 19:27:12.943491  8061 net.cpp:165] Memory required for data: 3696283648
I0409 19:27:12.943495  8061 layer_factory.hpp:77] Creating layer conv2_postscale
I0409 19:27:12.943506  8061 net.cpp:100] Creating Layer conv2_postscale
I0409 19:27:12.943511  8061 net.cpp:434] conv2_postscale <- conv2
I0409 19:27:12.943516  8061 net.cpp:395] conv2_postscale -> conv2 (in-place)
I0409 19:27:12.943626  8061 net.cpp:150] Setting up conv2_postscale
I0409 19:27:12.943635  8061 net.cpp:157] Top shape: 1024 150 18 18 (49766400)
I0409 19:27:12.943639  8061 net.cpp:165] Memory required for data: 3895349248
I0409 19:27:12.943644  8061 layer_factory.hpp:77] Creating layer pool2
I0409 19:27:12.943650  8061 net.cpp:100] Creating Layer pool2
I0409 19:27:12.943655  8061 net.cpp:434] pool2 <- conv2
I0409 19:27:12.943660  8061 net.cpp:408] pool2 -> pool2
I0409 19:27:12.943699  8061 net.cpp:150] Setting up pool2
I0409 19:27:12.943707  8061 net.cpp:157] Top shape: 1024 150 9 9 (12441600)
I0409 19:27:12.943712  8061 net.cpp:165] Memory required for data: 3945115648
I0409 19:27:12.943716  8061 layer_factory.hpp:77] Creating layer conv3
I0409 19:27:12.943723  8061 net.cpp:100] Creating Layer conv3
I0409 19:27:12.943727  8061 net.cpp:434] conv3 <- pool2
I0409 19:27:12.943732  8061 net.cpp:408] conv3 -> conv3
I0409 19:27:12.949213  8061 net.cpp:150] Setting up conv3
I0409 19:27:12.949232  8061 net.cpp:157] Top shape: 1024 250 6 6 (9216000)
I0409 19:27:12.949235  8061 net.cpp:165] Memory required for data: 3981979648
I0409 19:27:12.949249  8061 layer_factory.hpp:77] Creating layer conv3_prescale
I0409 19:27:12.949257  8061 net.cpp:100] Creating Layer conv3_prescale
I0409 19:27:12.949261  8061 net.cpp:434] conv3_prescale <- conv3
I0409 19:27:12.949278  8061 net.cpp:395] conv3_prescale -> conv3 (in-place)
I0409 19:27:12.949400  8061 net.cpp:150] Setting up conv3_prescale
I0409 19:27:12.949409  8061 net.cpp:157] Top shape: 1024 250 6 6 (9216000)
I0409 19:27:12.949412  8061 net.cpp:165] Memory required for data: 4018843648
I0409 19:27:12.949417  8061 layer_factory.hpp:77] Creating layer conv3_sTanH
I0409 19:27:12.949424  8061 net.cpp:100] Creating Layer conv3_sTanH
I0409 19:27:12.949427  8061 net.cpp:434] conv3_sTanH <- conv3
I0409 19:27:12.949431  8061 net.cpp:395] conv3_sTanH -> conv3 (in-place)
I0409 19:27:12.950196  8061 net.cpp:150] Setting up conv3_sTanH
I0409 19:27:12.950212  8061 net.cpp:157] Top shape: 1024 250 6 6 (9216000)
I0409 19:27:12.950215  8061 net.cpp:165] Memory required for data: 4055707648
I0409 19:27:12.950219  8061 layer_factory.hpp:77] Creating layer conv3_postscale
I0409 19:27:12.950227  8061 net.cpp:100] Creating Layer conv3_postscale
I0409 19:27:12.950253  8061 net.cpp:434] conv3_postscale <- conv3
I0409 19:27:12.950261  8061 net.cpp:395] conv3_postscale -> conv3 (in-place)
I0409 19:27:12.950373  8061 net.cpp:150] Setting up conv3_postscale
I0409 19:27:12.950383  8061 net.cpp:157] Top shape: 1024 250 6 6 (9216000)
I0409 19:27:12.950387  8061 net.cpp:165] Memory required for data: 4092571648
I0409 19:27:12.950392  8061 layer_factory.hpp:77] Creating layer pool3
I0409 19:27:12.950398  8061 net.cpp:100] Creating Layer pool3
I0409 19:27:12.950402  8061 net.cpp:434] pool3 <- conv3
I0409 19:27:12.950407  8061 net.cpp:408] pool3 -> pool3
I0409 19:27:12.950446  8061 net.cpp:150] Setting up pool3
I0409 19:27:12.950454  8061 net.cpp:157] Top shape: 1024 250 3 3 (2304000)
I0409 19:27:12.950458  8061 net.cpp:165] Memory required for data: 4101787648
I0409 19:27:12.950459  8061 layer_factory.hpp:77] Creating layer fc4_300
I0409 19:27:12.950469  8061 net.cpp:100] Creating Layer fc4_300
I0409 19:27:12.950472  8061 net.cpp:434] fc4_300 <- pool3
I0409 19:27:12.950477  8061 net.cpp:408] fc4_300 -> fc4_300
I0409 19:27:12.955870  8061 net.cpp:150] Setting up fc4_300
I0409 19:27:12.955910  8061 net.cpp:157] Top shape: 1024 300 (307200)
I0409 19:27:12.955915  8061 net.cpp:165] Memory required for data: 4103016448
I0409 19:27:12.955922  8061 layer_factory.hpp:77] Creating layer fc4_prescale
I0409 19:27:12.955929  8061 net.cpp:100] Creating Layer fc4_prescale
I0409 19:27:12.955934  8061 net.cpp:434] fc4_prescale <- fc4_300
I0409 19:27:12.955938  8061 net.cpp:395] fc4_prescale -> fc4_300 (in-place)
I0409 19:27:12.956032  8061 net.cpp:150] Setting up fc4_prescale
I0409 19:27:12.956040  8061 net.cpp:157] Top shape: 1024 300 (307200)
I0409 19:27:12.956043  8061 net.cpp:165] Memory required for data: 4104245248
I0409 19:27:12.956048  8061 layer_factory.hpp:77] Creating layer fc4_sTanH
I0409 19:27:12.956053  8061 net.cpp:100] Creating Layer fc4_sTanH
I0409 19:27:12.956058  8061 net.cpp:434] fc4_sTanH <- fc4_300
I0409 19:27:12.956063  8061 net.cpp:395] fc4_sTanH -> fc4_300 (in-place)
I0409 19:27:12.956251  8061 net.cpp:150] Setting up fc4_sTanH
I0409 19:27:12.956264  8061 net.cpp:157] Top shape: 1024 300 (307200)
I0409 19:27:12.956267  8061 net.cpp:165] Memory required for data: 4105474048
I0409 19:27:12.956271  8061 layer_factory.hpp:77] Creating layer fc4_postscale
I0409 19:27:12.956279  8061 net.cpp:100] Creating Layer fc4_postscale
I0409 19:27:12.956282  8061 net.cpp:434] fc4_postscale <- fc4_300
I0409 19:27:12.956288  8061 net.cpp:395] fc4_postscale -> fc4_300 (in-place)
I0409 19:27:12.956382  8061 net.cpp:150] Setting up fc4_postscale
I0409 19:27:12.956392  8061 net.cpp:157] Top shape: 1024 300 (307200)
I0409 19:27:12.956394  8061 net.cpp:165] Memory required for data: 4106702848
I0409 19:27:12.956399  8061 layer_factory.hpp:77] Creating layer drop4
I0409 19:27:12.956406  8061 net.cpp:100] Creating Layer drop4
I0409 19:27:12.956411  8061 net.cpp:434] drop4 <- fc4_300
I0409 19:27:12.956415  8061 net.cpp:395] drop4 -> fc4_300 (in-place)
I0409 19:27:12.956442  8061 net.cpp:150] Setting up drop4
I0409 19:27:12.956449  8061 net.cpp:157] Top shape: 1024 300 (307200)
I0409 19:27:12.956452  8061 net.cpp:165] Memory required for data: 4107931648
I0409 19:27:12.956455  8061 layer_factory.hpp:77] Creating layer fc5_67
I0409 19:27:12.956461  8061 net.cpp:100] Creating Layer fc5_67
I0409 19:27:12.956465  8061 net.cpp:434] fc5_67 <- fc4_300
I0409 19:27:12.956470  8061 net.cpp:408] fc5_67 -> fc5_classes
I0409 19:27:12.957737  8061 net.cpp:150] Setting up fc5_67
I0409 19:27:12.957753  8061 net.cpp:157] Top shape: 1024 67 (68608)
I0409 19:27:12.957758  8061 net.cpp:165] Memory required for data: 4108206080
I0409 19:27:12.957769  8061 layer_factory.hpp:77] Creating layer loss
I0409 19:27:12.957777  8061 net.cpp:100] Creating Layer loss
I0409 19:27:12.957782  8061 net.cpp:434] loss <- fc5_classes
I0409 19:27:12.957787  8061 net.cpp:434] loss <- label
I0409 19:27:12.957793  8061 net.cpp:408] loss -> loss
I0409 19:27:12.957806  8061 layer_factory.hpp:77] Creating layer loss
…
I0409 19:27:12.958561  8061 solver.cpp:193] Creating test net (#0) specified by test_net file: ./Prototxt/experiment_7/rtsd-r1/CoNorm/trial_1/test.prototxt
I0409 19:27:12.958744  8061 net.cpp:58] Initializing net from parameters: 
state {
  phase: TEST
}
layer {
  name: "data"
  type: "Data"
  top: "data"
  top: "label"
  include {
    phase: TEST
  }
  transform_param {
    mirror: false
    crop_size: 48
    mean_value: 133
    mean_value: 133
    mean_value: 132
  }
  data_param {
    source: "../local_data/lmdb/rtsd-r1/CoNorm/test/lmdb"
    batch_size: 1024
    backend: LMDB
  }
}
layer {
  name: "conv1"
  type: "Convolution"
  bottom: "data"
  top: "conv1"
  convolution_param {
    num_output: 100
    pad: 0
    kernel_size: 7
    group: 1
    stride: 1
    weight_filler {
      type: "xavier"
    }
  }
}
layer {
  name: "conv1_prescale"
  type: "Scale"
  bottom: "conv1"
  top: "conv1"
  param {
    lr_mult: 0
    decay_mult: 0
  }
  scale_param {
    filler {
      value: 0.6666
    }
  }
}
layer {
  name: "conv1_sTanH"
  type: "TanH"
  bottom: "conv1"
  top: "conv1"
}
layer {
  name: "conv1_postscale"
  type: "Scale"
  bottom: "conv1"
  top: "conv1"
  param {
    lr_mult: 0
    decay_mult: 0
  }
  scale_param {
    filler {
      value: 1.7159
    }
  }
}
layer {
  name: "pool1"
  type: "Pooling"
  bottom: "conv1"
  top: "pool1"
  pooling_param {
    pool: MAX
    kernel_size: 2
    stride: 2
  }
}
layer {
  name: "conv2"
  type: "Convolution"
  bottom: "pool1"
  top: "conv2"
  convolution_param {
    num_output: 150
    pad: 0
    kernel_size: 4
    group: 1
    stride: 1
    weight_filler {
      type: "xavier"
    }
  }
}
layer {
  name: "conv2_prescale"
  type: "Scale"
  bottom: "conv2"
  top: "conv2"
  param {
    lr_mult: 0
    decay_mult: 0
  }
  scale_param {
    filler {
      value: 0.6666
    }
  }
}
layer {
  name: "conv2_sTanH"
  type: "TanH"
  bottom: "conv2"
  top: "conv2"
}
layer {
  name: "conv2_postscale"
  type: "Scale"
  bottom: "conv2"
  top: "conv2"
  param {
    lr_mult: 0
    decay_mult: 0
  }
  scale_param {
    filler {
      value: 1.7159
    }
  }
}
layer {
  name: "pool2"
  type: "Pooling"
  bottom: "conv2"
  top: "pool2"
  pooling_param {
    pool: MAX
    kernel_size: 2
    stride: 2
  }
}
layer {
  name: "conv3"
  type: "Convolution"
  bottom: "pool2"
  top: "conv3"
  convolution_param {
    num_output: 250
    pad: 0
    kernel_size: 4
    group: 1
    stride: 1
    weight_filler {
      type: "xavier"
    }
  }
}
layer {
  name: "conv3_prescale"
  type: "Scale"
  bottom: "conv3"
  top: "conv3"
  param {
    lr_mult: 0
    decay_mult: 0
  }
  scale_param {
    filler {
      value: 0.6666
    }
  }
}
layer {
  name: "conv3_sTanH"
  type: "TanH"
  bottom: "conv3"
  top: "conv3"
}
layer {
  name: "conv3_postscale"
  type: "Scale"
  bottom: "conv3"
  top: "conv3"
  param {
    lr_mult: 0
    decay_mult: 0
  }
  scale_param {
    filler {
      value: 1.7159
    }
  }
}
layer {
  name: "pool3"
  type: "Pooling"
  bottom: "conv3"
  top: "pool3"
  pooling_param {
    pool: MAX
    kernel_size: 2
    stride: 2
  }
}
layer {
  name: "fc4_300"
  type: "InnerProduct"
  bottom: "pool3"
  top: "fc4_300"
  inner_product_param {
    num_output: 300
    weight_filler {
      type: "xavier"
    }
  }
}
layer {
  name: "fc4_prescale"
  type: "Scale"
  bottom: "fc4_300"
  top: "fc4_300"
  param {
    lr_mult: 0
    decay_mult: 0
  }
  scale_param {
    filler {
      value: 0.6666
    }
  }
}
layer {
  name: "fc4_sTanH"
  type: "TanH"
  bottom: "fc4_300"
  top: "fc4_300"
}
layer {
  name: "fc4_postscale"
  type: "Scale"
  bottom: "fc4_300"
  top: "fc4_300"
  param {
    lr_mult: 0
    decay_mult: 0
  }
  scale_param {
    filler {
      value: 1.7159
    }
  }
}
layer {
  name: "drop4"
  type: "Dropout"
  bottom: "fc4_300"
  top: "fc4_300"
  dropout_param {
    dropout_ratio: 0.4
  }
}
layer {
  name: "fc5_67"
  type: "InnerProduct"
  bottom: "fc4_300"
  top: "fc5_classes"
  inner_product_param {
    num_output: 67
    weight_filler {
      type: "xavier"
    }
  }
}
layer {
  name: "loss"
  type: "SoftmaxWithLoss"
  bottom: "fc5_classes"
  bottom: "label"
  top: "loss"
}
layer {
  name: "accuracy_1"
  type: "Accuracy"
  bottom: "fc5_classes"
  bottom: "label"
  top: "accuracy_1"
  include {
    phase: TEST
  }
  accuracy_param {
    top_k: 1
  }
}
layer {
  name: "accuracy_5"
  type: "Accuracy"
  bottom: "fc5_classes"
  bottom: "label"
  top: "accuracy_5"
  include {
    phase: TEST
  }
  accuracy_param {
    top_k: 5
  }
}
I0409 19:27:12.958855  8061 layer_factory.hpp:77] Creating layer data
I0409 19:27:12.963629  8061 net.cpp:100] Creating Layer data
I0409 19:27:12.963646  8061 net.cpp:408] data -> data
I0409 19:27:12.963667  8061 net.cpp:408] data -> label
I0409 19:27:12.964788  8648 db_lmdb.cpp:35] Opened lmdb ../local_data/lmdb/rtsd-r1/CoNorm/test/lmdb
I0409 19:27:12.964953  8061 data_layer.cpp:41] output data size: 1024,3,48,48
I0409 19:27:13.009753  8061 net.cpp:150] Setting up data
I0409 19:27:13.009781  8061 net.cpp:157] Top shape: 1024 3 48 48 (7077888)
I0409 19:27:13.009786  8061 net.cpp:157] Top shape: 1024 (1024)
I0409 19:27:13.009789  8061 net.cpp:165] Memory required for data: 28315648
I0409 19:27:13.009796  8061 layer_factory.hpp:77] Creating layer label_data_1_split
I0409 19:27:13.009817  8061 net.cpp:100] Creating Layer label_data_1_split
I0409 19:27:13.009834  8061 net.cpp:434] label_data_1_split <- label
I0409 19:27:13.009841  8061 net.cpp:408] label_data_1_split -> label_data_1_split_0
I0409 19:27:13.009855  8061 net.cpp:408] label_data_1_split -> label_data_1_split_1
I0409 19:27:13.009861  8061 net.cpp:408] label_data_1_split -> label_data_1_split_2
I0409 19:27:13.009971  8061 net.cpp:150] Setting up label_data_1_split
I0409 19:27:13.009981  8061 net.cpp:157] Top shape: 1024 (1024)
I0409 19:27:13.009986  8061 net.cpp:157] Top shape: 1024 (1024)
I0409 19:27:13.009990  8061 net.cpp:157] Top shape: 1024 (1024)
I0409 19:27:13.009992  8061 net.cpp:165] Memory required for data: 28327936
I0409 19:27:13.010015  8061 layer_factory.hpp:77] Creating layer conv1
I0409 19:27:13.010030  8061 net.cpp:100] Creating Layer conv1
I0409 19:27:13.010035  8061 net.cpp:434] conv1 <- data
I0409 19:27:13.010040  8061 net.cpp:408] conv1 -> conv1
I0409 19:27:13.014122  8061 net.cpp:150] Setting up conv1
I0409 19:27:13.014204  8061 net.cpp:157] Top shape: 1024 100 42 42 (180633600)
I0409 19:27:13.014231  8061 net.cpp:165] Memory required for data: 750862336
I0409 19:27:13.014262  8061 layer_factory.hpp:77] Creating layer conv1_prescale
I0409 19:27:13.014291  8061 net.cpp:100] Creating Layer conv1_prescale
I0409 19:27:13.014309  8061 net.cpp:434] conv1_prescale <- conv1
I0409 19:27:13.014330  8061 net.cpp:395] conv1_prescale -> conv1 (in-place)
I0409 19:27:13.014567  8061 net.cpp:150] Setting up conv1_prescale
I0409 19:27:13.014601  8061 net.cpp:157] Top shape: 1024 100 42 42 (180633600)
I0409 19:27:13.014609  8061 net.cpp:165] Memory required for data: 1473396736
I0409 19:27:13.014621  8061 layer_factory.hpp:77] Creating layer conv1_sTanH
I0409 19:27:13.014632  8061 net.cpp:100] Creating Layer conv1_sTanH
I0409 19:27:13.014662  8061 net.cpp:434] conv1_sTanH <- conv1
I0409 19:27:13.014684  8061 net.cpp:395] conv1_sTanH -> conv1 (in-place)
I0409 19:27:13.014997  8061 net.cpp:150] Setting up conv1_sTanH
I0409 19:27:13.015017  8061 net.cpp:157] Top shape: 1024 100 42 42 (180633600)
I0409 19:27:13.015022  8061 net.cpp:165] Memory required for data: 2195931136
I0409 19:27:13.015029  8061 layer_factory.hpp:77] Creating layer conv1_postscale
I0409 19:27:13.015041  8061 net.cpp:100] Creating Layer conv1_postscale
I0409 19:27:13.015049  8061 net.cpp:434] conv1_postscale <- conv1
I0409 19:27:13.015058  8061 net.cpp:395] conv1_postscale -> conv1 (in-place)
I0409 19:27:13.015211  8061 net.cpp:150] Setting up conv1_postscale
I0409 19:27:13.015226  8061 net.cpp:157] Top shape: 1024 100 42 42 (180633600)
I0409 19:27:13.015234  8061 net.cpp:165] Memory required for data: 2918465536
I0409 19:27:13.015242  8061 layer_factory.hpp:77] Creating layer pool1
I0409 19:27:13.015254  8061 net.cpp:100] Creating Layer pool1
I0409 19:27:13.015259  8061 net.cpp:434] pool1 <- conv1
I0409 19:27:13.015266  8061 net.cpp:408] pool1 -> pool1
I0409 19:27:13.015329  8061 net.cpp:150] Setting up pool1
I0409 19:27:13.015364  8061 net.cpp:157] Top shape: 1024 100 21 21 (45158400)
I0409 19:27:13.015374  8061 net.cpp:165] Memory required for data: 3099099136
I0409 19:27:13.015379  8061 layer_factory.hpp:77] Creating layer conv2
I0409 19:27:13.015393  8061 net.cpp:100] Creating Layer conv2
I0409 19:27:13.015422  8061 net.cpp:434] conv2 <- pool1
I0409 19:27:13.015445  8061 net.cpp:408] conv2 -> conv2
I0409 19:27:13.019888  8061 net.cpp:150] Setting up conv2
I0409 19:27:13.019917  8061 net.cpp:157] Top shape: 1024 150 18 18 (49766400)
I0409 19:27:13.019922  8061 net.cpp:165] Memory required for data: 3298164736
I0409 19:27:13.019932  8061 layer_factory.hpp:77] Creating layer conv2_prescale
I0409 19:27:13.019942  8061 net.cpp:100] Creating Layer conv2_prescale
I0409 19:27:13.019948  8061 net.cpp:434] conv2_prescale <- conv2
I0409 19:27:13.019954  8061 net.cpp:395] conv2_prescale -> conv2 (in-place)
I0409 19:27:13.020069  8061 net.cpp:150] Setting up conv2_prescale
I0409 19:27:13.020079  8061 net.cpp:157] Top shape: 1024 150 18 18 (49766400)
I0409 19:27:13.020083  8061 net.cpp:165] Memory required for data: 3497230336
I0409 19:27:13.020089  8061 layer_factory.hpp:77] Creating layer conv2_sTanH
I0409 19:27:13.020095  8061 net.cpp:100] Creating Layer conv2_sTanH
I0409 19:27:13.020099  8061 net.cpp:434] conv2_sTanH <- conv2
I0409 19:27:13.020104  8061 net.cpp:395] conv2_sTanH -> conv2 (in-place)
I0409 19:27:13.020898  8061 net.cpp:150] Setting up conv2_sTanH
I0409 19:27:13.020916  8061 net.cpp:157] Top shape: 1024 150 18 18 (49766400)
I0409 19:27:13.020920  8061 net.cpp:165] Memory required for data: 3696295936
I0409 19:27:13.020923  8061 layer_factory.hpp:77] Creating layer conv2_postscale
I0409 19:27:13.020932  8061 net.cpp:100] Creating Layer conv2_postscale
I0409 19:27:13.020957  8061 net.cpp:434] conv2_postscale <- conv2
I0409 19:27:13.020965  8061 net.cpp:395] conv2_postscale -> conv2 (in-place)
I0409 19:27:13.021075  8061 net.cpp:150] Setting up conv2_postscale
I0409 19:27:13.021083  8061 net.cpp:157] Top shape: 1024 150 18 18 (49766400)
I0409 19:27:13.021087  8061 net.cpp:165] Memory required for data: 3895361536
I0409 19:27:13.021092  8061 layer_factory.hpp:77] Creating layer pool2
I0409 19:27:13.021101  8061 net.cpp:100] Creating Layer pool2
I0409 19:27:13.021107  8061 net.cpp:434] pool2 <- conv2
I0409 19:27:13.021112  8061 net.cpp:408] pool2 -> pool2
I0409 19:27:13.021160  8061 net.cpp:150] Setting up pool2
I0409 19:27:13.021172  8061 net.cpp:157] Top shape: 1024 150 9 9 (12441600)
I0409 19:27:13.021176  8061 net.cpp:165] Memory required for data: 3945127936
I0409 19:27:13.021180  8061 layer_factory.hpp:77] Creating layer conv3
I0409 19:27:13.021189  8061 net.cpp:100] Creating Layer conv3
I0409 19:27:13.021194  8061 net.cpp:434] conv3 <- pool2
I0409 19:27:13.021199  8061 net.cpp:408] conv3 -> conv3
I0409 19:27:13.026917  8061 net.cpp:150] Setting up conv3
I0409 19:27:13.026940  8061 net.cpp:157] Top shape: 1024 250 6 6 (9216000)
I0409 19:27:13.026944  8061 net.cpp:165] Memory required for data: 3981991936
I0409 19:27:13.026955  8061 layer_factory.hpp:77] Creating layer conv3_prescale
I0409 19:27:13.026963  8061 net.cpp:100] Creating Layer conv3_prescale
I0409 19:27:13.026968  8061 net.cpp:434] conv3_prescale <- conv3
I0409 19:27:13.026973  8061 net.cpp:395] conv3_prescale -> conv3 (in-place)
I0409 19:27:13.027070  8061 net.cpp:150] Setting up conv3_prescale
I0409 19:27:13.027081  8061 net.cpp:157] Top shape: 1024 250 6 6 (9216000)
I0409 19:27:13.027086  8061 net.cpp:165] Memory required for data: 4018855936
I0409 19:27:13.027091  8061 layer_factory.hpp:77] Creating layer conv3_sTanH
I0409 19:27:13.027096  8061 net.cpp:100] Creating Layer conv3_sTanH
I0409 19:27:13.027102  8061 net.cpp:434] conv3_sTanH <- conv3
I0409 19:27:13.027107  8061 net.cpp:395] conv3_sTanH -> conv3 (in-place)
I0409 19:27:13.027920  8061 net.cpp:150] Setting up conv3_sTanH
I0409 19:27:13.027940  8061 net.cpp:157] Top shape: 1024 250 6 6 (9216000)
I0409 19:27:13.027942  8061 net.cpp:165] Memory required for data: 4055719936
I0409 19:27:13.027946  8061 layer_factory.hpp:77] Creating layer conv3_postscale
I0409 19:27:13.027953  8061 net.cpp:100] Creating Layer conv3_postscale
I0409 19:27:13.027958  8061 net.cpp:434] conv3_postscale <- conv3
I0409 19:27:13.027966  8061 net.cpp:395] conv3_postscale -> conv3 (in-place)
I0409 19:27:13.028069  8061 net.cpp:150] Setting up conv3_postscale
I0409 19:27:13.028077  8061 net.cpp:157] Top shape: 1024 250 6 6 (9216000)
I0409 19:27:13.028082  8061 net.cpp:165] Memory required for data: 4092583936
I0409 19:27:13.028087  8061 layer_factory.hpp:77] Creating layer pool3
I0409 19:27:13.028096  8061 net.cpp:100] Creating Layer pool3
I0409 19:27:13.028101  8061 net.cpp:434] pool3 <- conv3
I0409 19:27:13.028107  8061 net.cpp:408] pool3 -> pool3
I0409 19:27:13.028151  8061 net.cpp:150] Setting up pool3
I0409 19:27:13.028161  8061 net.cpp:157] Top shape: 1024 250 3 3 (2304000)
I0409 19:27:13.028164  8061 net.cpp:165] Memory required for data: 4101799936
I0409 19:27:13.028167  8061 layer_factory.hpp:77] Creating layer fc4_300
I0409 19:27:13.028175  8061 net.cpp:100] Creating Layer fc4_300
I0409 19:27:13.028180  8061 net.cpp:434] fc4_300 <- pool3
I0409 19:27:13.028185  8061 net.cpp:408] fc4_300 -> fc4_300
I0409 19:27:13.033743  8061 net.cpp:150] Setting up fc4_300
I0409 19:27:13.033771  8061 net.cpp:157] Top shape: 1024 300 (307200)
I0409 19:27:13.033774  8061 net.cpp:165] Memory required for data: 4103028736
I0409 19:27:13.033783  8061 layer_factory.hpp:77] Creating layer fc4_prescale
I0409 19:27:13.033795  8061 net.cpp:100] Creating Layer fc4_prescale
I0409 19:27:13.033802  8061 net.cpp:434] fc4_prescale <- fc4_300
I0409 19:27:13.033809  8061 net.cpp:395] fc4_prescale -> fc4_300 (in-place)
I0409 19:27:13.033910  8061 net.cpp:150] Setting up fc4_prescale
I0409 19:27:13.033941  8061 net.cpp:157] Top shape: 1024 300 (307200)
I0409 19:27:13.033946  8061 net.cpp:165] Memory required for data: 4104257536
I0409 19:27:13.033951  8061 layer_factory.hpp:77] Creating layer fc4_sTanH
I0409 19:27:13.033957  8061 net.cpp:100] Creating Layer fc4_sTanH
I0409 19:27:13.033962  8061 net.cpp:434] fc4_sTanH <- fc4_300
I0409 19:27:13.033968  8061 net.cpp:395] fc4_sTanH -> fc4_300 (in-place)
I0409 19:27:13.034204  8061 net.cpp:150] Setting up fc4_sTanH
I0409 19:27:13.034216  8061 net.cpp:157] Top shape: 1024 300 (307200)
I0409 19:27:13.034221  8061 net.cpp:165] Memory required for data: 4105486336
I0409 19:27:13.034224  8061 layer_factory.hpp:77] Creating layer fc4_postscale
I0409 19:27:13.034231  8061 net.cpp:100] Creating Layer fc4_postscale
I0409 19:27:13.034236  8061 net.cpp:434] fc4_postscale <- fc4_300
I0409 19:27:13.034242  8061 net.cpp:395] fc4_postscale -> fc4_300 (in-place)
I0409 19:27:13.034345  8061 net.cpp:150] Setting up fc4_postscale
I0409 19:27:13.034354  8061 net.cpp:157] Top shape: 1024 300 (307200)
I0409 19:27:13.034358  8061 net.cpp:165] Memory required for data: 4106715136
I0409 19:27:13.034363  8061 layer_factory.hpp:77] Creating layer drop4
I0409 19:27:13.034373  8061 net.cpp:100] Creating Layer drop4
I0409 19:27:13.034379  8061 net.cpp:434] drop4 <- fc4_300
I0409 19:27:13.034384  8061 net.cpp:395] drop4 -> fc4_300 (in-place)
I0409 19:27:13.034423  8061 net.cpp:150] Setting up drop4
I0409 19:27:13.034431  8061 net.cpp:157] Top shape: 1024 300 (307200)
I0409 19:27:13.034435  8061 net.cpp:165] Memory required for data: 4107943936
I0409 19:27:13.034437  8061 layer_factory.hpp:77] Creating layer fc5_67
I0409 19:27:13.034443  8061 net.cpp:100] Creating Layer fc5_67
I0409 19:27:13.034448  8061 net.cpp:434] fc5_67 <- fc4_300
I0409 19:27:13.034454  8061 net.cpp:408] fc5_67 -> fc5_classes
I0409 19:27:13.034715  8061 net.cpp:150] Setting up fc5_67
I0409 19:27:13.034724  8061 net.cpp:157] Top shape: 1024 67 (68608)
I0409 19:27:13.034728  8061 net.cpp:165] Memory required for data: 4108218368
I0409 19:27:13.034739  8061 layer_factory.hpp:77] Creating layer fc5_classes_fc5_67_0_split
I0409 19:27:13.034746  8061 net.cpp:100] Creating Layer fc5_classes_fc5_67_0_split
I0409 19:27:13.034751  8061 net.cpp:434] fc5_classes_fc5_67_0_split <- fc5_classes
I0409 19:27:13.034756  8061 net.cpp:408] fc5_classes_fc5_67_0_split -> fc5_classes_fc5_67_0_split_0
I0409 19:27:13.034766  8061 net.cpp:408] fc5_classes_fc5_67_0_split -> fc5_classes_fc5_67_0_split_1
I0409 19:27:13.034775  8061 net.cpp:408] fc5_classes_fc5_67_0_split -> fc5_classes_fc5_67_0_split_2
I0409 19:27:13.034829  8061 net.cpp:150] Setting up fc5_classes_fc5_67_0_split
I0409 19:27:13.034837  8061 net.cpp:157] Top shape: 1024 67 (68608)
I0409 19:27:13.034840  8061 net.cpp:157] Top shape: 1024 67 (68608)
I0409 19:27:13.034843  8061 net.cpp:157] Top shape: 1024 67 (68608)
I0409 19:27:13.034847  8061 net.cpp:165] Memory required for data: 4109041664
I0409 19:27:13.034849  8061 layer_factory.hpp:77] Creating layer loss
I0409 19:27:13.034855  8061 net.cpp:100] Creating Layer loss
I0409 19:27:13.034860  8061 net.cpp:434] loss <- fc5_classes_fc5_67_0_split_0
I0409 19:27:13.034865  8061 net.cpp:434] loss <- label_data_1_split_0
I0409 19:27:13.034870  8061 net.cpp:408] loss -> loss
…
