…
I0409 20:01:44.600095 11469 net.cpp:322] The NetState phase (0) differed from the phase (1) specified by a rule in layer accuracy_5
I0409 20:01:44.600189 11469 net.cpp:58] Initializing net from parameters: 
state {
  phase: TRAIN
  level: 0
  stage: ""
}
layer {
  name: "data"
  type: "Data"
  top: "data"
  top: "label"
  include {
    phase: TRAIN
  }
  transform_param {
    mirror: false
    crop_size: 48
    mean_value: 132
    mean_value: 132
    mean_value: 131
  }
  data_param {
    source: "../local_data/lmdb/rtsd-r1/CoNorm/train/lmdb"
    batch_size: 1024
    backend: LMDB
  }
}
layer {
  name: "conv1"
  type: "Convolution"
  bottom: "data"
  top: "conv1"
  convolution_param {
    num_output: 100
    pad: 0
    kernel_size: 7
    group: 1
    stride: 1
    weight_filler {
      type: "xavier"
    }
  }
}
layer {
  name: "conv1_sTanH"
  type: "TanH"
  bottom: "conv1"
  top: "conv1"
}
layer {
  name: "pool1"
  type: "Pooling"
  bottom: "conv1"
  top: "pool1"
  pooling_param {
    pool: MAX
    kernel_size: 2
    stride: 2
  }
}
layer {
  name: "conv2"
  type: "Convolution"
  bottom: "pool1"
  top: "conv2"
  convolution_param {
    num_output: 150
    pad: 0
    kernel_size: 4
    group: 1
    stride: 1
    weight_filler {
      type: "xavier"
    }
  }
}
layer {
  name: "conv2_sTanH"
  type: "TanH"
  bottom: "conv2"
  top: "conv2"
}
layer {
  name: "pool2"
  type: "Pooling"
  bottom: "conv2"
  top: "pool2"
  pooling_param {
    pool: MAX
    kernel_size: 2
    stride: 2
  }
}
layer {
  name: "conv3"
  type: "Convolution"
  bottom: "pool2"
  top: "conv3"
  convolution_param {
    num_output: 250
    pad: 0
    kernel_size: 4
    group: 1
    stride: 1
    weight_filler {
      type: "xavier"
    }
  }
}
layer {
  name: "conv3_sTanH"
  type: "TanH"
  bottom: "conv3"
  top: "conv3"
}
layer {
  name: "pool3"
  type: "Pooling"
  bottom: "conv3"
  top: "pool3"
  pooling_param {
    pool: MAX
    kernel_size: 2
    stride: 2
  }
}
layer {
  name: "fc4_300"
  type: "InnerProduct"
  bottom: "pool3"
  top: "fc4_300"
  inner_product_param {
    num_output: 300
    weight_filler {
      type: "xavier"
    }
  }
}
layer {
  name: "fc4_sTanH"
  type: "TanH"
  bottom: "fc4_300"
  top: "fc4_300"
}
layer {
  name: "drop4"
  type: "Dropout"
  bottom: "fc4_300"
  top: "fc4_300"
  dropout_param {
    dropout_ratio: 0.4
  }
}
layer {
  name: "fc5_67"
  type: "InnerProduct"
  bottom: "fc4_300"
  top: "fc5_classes"
  inner_product_param {
    num_output: 67
    weight_filler {
      type: "xavier"
    }
  }
}
layer {
  name: "loss"
  type: "SoftmaxWithLoss"
  bottom: "fc5_classes"
  bottom: "label"
  top: "loss"
}
I0409 20:01:44.600287 11469 layer_factory.hpp:77] Creating layer data
I0409 20:01:44.601353 11469 net.cpp:100] Creating Layer data
I0409 20:01:44.601367 11469 net.cpp:408] data -> data
I0409 20:01:44.601389 11469 net.cpp:408] data -> label
I0409 20:01:44.602594 11540 db_lmdb.cpp:35] Opened lmdb ../local_data/lmdb/rtsd-r1/CoNorm/train/lmdb
I0409 20:01:44.620496 11469 data_layer.cpp:41] output data size: 1024,3,48,48
I0409 20:01:44.663949 11469 net.cpp:150] Setting up data
I0409 20:01:44.663981 11469 net.cpp:157] Top shape: 1024 3 48 48 (7077888)
I0409 20:01:44.664011 11469 net.cpp:157] Top shape: 1024 (1024)
I0409 20:01:44.664014 11469 net.cpp:165] Memory required for data: 28315648
I0409 20:01:44.664024 11469 layer_factory.hpp:77] Creating layer conv1
I0409 20:01:44.664048 11469 net.cpp:100] Creating Layer conv1
I0409 20:01:44.664055 11469 net.cpp:434] conv1 <- data
I0409 20:01:44.664067 11469 net.cpp:408] conv1 -> conv1
I0409 20:01:44.932591 11469 net.cpp:150] Setting up conv1
I0409 20:01:44.932627 11469 net.cpp:157] Top shape: 1024 100 42 42 (180633600)
I0409 20:01:44.932631 11469 net.cpp:165] Memory required for data: 750850048
I0409 20:01:44.932653 11469 layer_factory.hpp:77] Creating layer conv1_sTanH
I0409 20:01:44.932677 11469 net.cpp:100] Creating Layer conv1_sTanH
I0409 20:01:44.932682 11469 net.cpp:434] conv1_sTanH <- conv1
I0409 20:01:44.932687 11469 net.cpp:395] conv1_sTanH -> conv1 (in-place)
I0409 20:01:44.932886 11469 net.cpp:150] Setting up conv1_sTanH
I0409 20:01:44.932898 11469 net.cpp:157] Top shape: 1024 100 42 42 (180633600)
I0409 20:01:44.932901 11469 net.cpp:165] Memory required for data: 1473384448
I0409 20:01:44.932904 11469 layer_factory.hpp:77] Creating layer pool1
I0409 20:01:44.932911 11469 net.cpp:100] Creating Layer pool1
I0409 20:01:44.932916 11469 net.cpp:434] pool1 <- conv1
I0409 20:01:44.932921 11469 net.cpp:408] pool1 -> pool1
I0409 20:01:44.932973 11469 net.cpp:150] Setting up pool1
I0409 20:01:44.932981 11469 net.cpp:157] Top shape: 1024 100 21 21 (45158400)
I0409 20:01:44.932984 11469 net.cpp:165] Memory required for data: 1654018048
I0409 20:01:44.932988 11469 layer_factory.hpp:77] Creating layer conv2
I0409 20:01:44.932999 11469 net.cpp:100] Creating Layer conv2
I0409 20:01:44.933004 11469 net.cpp:434] conv2 <- pool1
I0409 20:01:44.933009 11469 net.cpp:408] conv2 -> conv2
I0409 20:01:44.937351 11469 net.cpp:150] Setting up conv2
I0409 20:01:44.937368 11469 net.cpp:157] Top shape: 1024 150 18 18 (49766400)
I0409 20:01:44.937372 11469 net.cpp:165] Memory required for data: 1853083648
I0409 20:01:44.937381 11469 layer_factory.hpp:77] Creating layer conv2_sTanH
I0409 20:01:44.937387 11469 net.cpp:100] Creating Layer conv2_sTanH
I0409 20:01:44.937391 11469 net.cpp:434] conv2_sTanH <- conv2
I0409 20:01:44.937396 11469 net.cpp:395] conv2_sTanH -> conv2 (in-place)
I0409 20:01:44.938174 11469 net.cpp:150] Setting up conv2_sTanH
I0409 20:01:44.938189 11469 net.cpp:157] Top shape: 1024 150 18 18 (49766400)
I0409 20:01:44.938191 11469 net.cpp:165] Memory required for data: 2052149248
I0409 20:01:44.938194 11469 layer_factory.hpp:77] Creating layer pool2
I0409 20:01:44.938201 11469 net.cpp:100] Creating Layer pool2
I0409 20:01:44.938205 11469 net.cpp:434] pool2 <- conv2
I0409 20:01:44.938211 11469 net.cpp:408] pool2 -> pool2
I0409 20:01:44.938257 11469 net.cpp:150] Setting up pool2
I0409 20:01:44.938267 11469 net.cpp:157] Top shape: 1024 150 9 9 (12441600)
I0409 20:01:44.938271 11469 net.cpp:165] Memory required for data: 2101915648
I0409 20:01:44.938273 11469 layer_factory.hpp:77] Creating layer conv3
I0409 20:01:44.938282 11469 net.cpp:100] Creating Layer conv3
I0409 20:01:44.938284 11469 net.cpp:434] conv3 <- pool2
I0409 20:01:44.938290 11469 net.cpp:408] conv3 -> conv3
I0409 20:01:44.943830 11469 net.cpp:150] Setting up conv3
I0409 20:01:44.943845 11469 net.cpp:157] Top shape: 1024 250 6 6 (9216000)
I0409 20:01:44.943861 11469 net.cpp:165] Memory required for data: 2138779648
I0409 20:01:44.943869 11469 layer_factory.hpp:77] Creating layer conv3_sTanH
I0409 20:01:44.943894 11469 net.cpp:100] Creating Layer conv3_sTanH
I0409 20:01:44.943900 11469 net.cpp:434] conv3_sTanH <- conv3
I0409 20:01:44.943905 11469 net.cpp:395] conv3_sTanH -> conv3 (in-place)
I0409 20:01:44.944696 11469 net.cpp:150] Setting up conv3_sTanH
I0409 20:01:44.944713 11469 net.cpp:157] Top shape: 1024 250 6 6 (9216000)
I0409 20:01:44.944717 11469 net.cpp:165] Memory required for data: 2175643648
I0409 20:01:44.944720 11469 layer_factory.hpp:77] Creating layer pool3
I0409 20:01:44.944726 11469 net.cpp:100] Creating Layer pool3
I0409 20:01:44.944730 11469 net.cpp:434] pool3 <- conv3
I0409 20:01:44.944753 11469 net.cpp:408] pool3 -> pool3
I0409 20:01:44.944804 11469 net.cpp:150] Setting up pool3
I0409 20:01:44.944813 11469 net.cpp:157] Top shape: 1024 250 3 3 (2304000)
I0409 20:01:44.944816 11469 net.cpp:165] Memory required for data: 2184859648
I0409 20:01:44.944818 11469 layer_factory.hpp:77] Creating layer fc4_300
I0409 20:01:44.944828 11469 net.cpp:100] Creating Layer fc4_300
I0409 20:01:44.944831 11469 net.cpp:434] fc4_300 <- pool3
I0409 20:01:44.944836 11469 net.cpp:408] fc4_300 -> fc4_300
I0409 20:01:44.950161 11469 net.cpp:150] Setting up fc4_300
I0409 20:01:44.950177 11469 net.cpp:157] Top shape: 1024 300 (307200)
I0409 20:01:44.950181 11469 net.cpp:165] Memory required for data: 2186088448
I0409 20:01:44.950187 11469 layer_factory.hpp:77] Creating layer fc4_sTanH
I0409 20:01:44.950196 11469 net.cpp:100] Creating Layer fc4_sTanH
I0409 20:01:44.950198 11469 net.cpp:434] fc4_sTanH <- fc4_300
I0409 20:01:44.950203 11469 net.cpp:395] fc4_sTanH -> fc4_300 (in-place)
I0409 20:01:44.950404 11469 net.cpp:150] Setting up fc4_sTanH
I0409 20:01:44.950415 11469 net.cpp:157] Top shape: 1024 300 (307200)
I0409 20:01:44.950418 11469 net.cpp:165] Memory required for data: 2187317248
I0409 20:01:44.950422 11469 layer_factory.hpp:77] Creating layer drop4
I0409 20:01:44.950429 11469 net.cpp:100] Creating Layer drop4
I0409 20:01:44.950433 11469 net.cpp:434] drop4 <- fc4_300
I0409 20:01:44.950438 11469 net.cpp:395] drop4 -> fc4_300 (in-place)
I0409 20:01:44.950469 11469 net.cpp:150] Setting up drop4
I0409 20:01:44.950476 11469 net.cpp:157] Top shape: 1024 300 (307200)
I0409 20:01:44.950479 11469 net.cpp:165] Memory required for data: 2188546048
I0409 20:01:44.950482 11469 layer_factory.hpp:77] Creating layer fc5_67
I0409 20:01:44.950490 11469 net.cpp:100] Creating Layer fc5_67
I0409 20:01:44.950494 11469 net.cpp:434] fc5_67 <- fc4_300
I0409 20:01:44.950498 11469 net.cpp:408] fc5_67 -> fc5_classes
I0409 20:01:44.951759 11469 net.cpp:150] Setting up fc5_67
I0409 20:01:44.951774 11469 net.cpp:157] Top shape: 1024 67 (68608)
I0409 20:01:44.951776 11469 net.cpp:165] Memory required for data: 2188820480
I0409 20:01:44.951786 11469 layer_factory.hpp:77] Creating layer loss
I0409 20:01:44.951794 11469 net.cpp:100] Creating Layer loss
I0409 20:01:44.951798 11469 net.cpp:434] loss <- fc5_classes
I0409 20:01:44.951802 11469 net.cpp:434] loss <- label
I0409 20:01:44.951808 11469 net.cpp:408] loss -> loss
I0409 20:01:44.951820 11469 layer_factory.hpp:77] Creating layer loss
…
I0409 20:01:44.952492 11469 solver.cpp:193] Creating test net (#0) specified by test_net file: ./Prototxt/experiment_7/rtsd-r1/CoNorm/trial_1/test.prototxt
I0409 20:01:44.952625 11469 net.cpp:58] Initializing net from parameters: 
state {
  phase: TEST
}
layer {
  name: "data"
  type: "Data"
  top: "data"
  top: "label"
  include {
    phase: TEST
  }
  transform_param {
    mirror: false
    crop_size: 48
    mean_value: 133
    mean_value: 133
    mean_value: 132
  }
  data_param {
    source: "../local_data/lmdb/rtsd-r1/CoNorm/test/lmdb"
    batch_size: 1024
    backend: LMDB
  }
}
layer {
  name: "conv1"
  type: "Convolution"
  bottom: "data"
  top: "conv1"
  convolution_param {
    num_output: 100
    pad: 0
    kernel_size: 7
    group: 1
    stride: 1
    weight_filler {
      type: "xavier"
    }
  }
}
layer {
  name: "conv1_sTanH"
  type: "TanH"
  bottom: "conv1"
  top: "conv1"
}
layer {
  name: "pool1"
  type: "Pooling"
  bottom: "conv1"
  top: "pool1"
  pooling_param {
    pool: MAX
    kernel_size: 2
    stride: 2
  }
}
layer {
  name: "conv2"
  type: "Convolution"
  bottom: "pool1"
  top: "conv2"
  convolution_param {
    num_output: 150
    pad: 0
    kernel_size: 4
    group: 1
    stride: 1
    weight_filler {
      type: "xavier"
    }
  }
}
layer {
  name: "conv2_sTanH"
  type: "TanH"
  bottom: "conv2"
  top: "conv2"
}
layer {
  name: "pool2"
  type: "Pooling"
  bottom: "conv2"
  top: "pool2"
  pooling_param {
    pool: MAX
    kernel_size: 2
    stride: 2
  }
}
layer {
  name: "conv3"
  type: "Convolution"
  bottom: "pool2"
  top: "conv3"
  convolution_param {
    num_output: 250
    pad: 0
    kernel_size: 4
    group: 1
    stride: 1
    weight_filler {
      type: "xavier"
    }
  }
}
layer {
  name: "conv3_sTanH"
  type: "TanH"
  bottom: "conv3"
  top: "conv3"
}
layer {
  name: "pool3"
  type: "Pooling"
  bottom: "conv3"
  top: "pool3"
  pooling_param {
    pool: MAX
    kernel_size: 2
    stride: 2
  }
}
layer {
  name: "fc4_300"
  type: "InnerProduct"
  bottom: "pool3"
  top: "fc4_300"
  inner_product_param {
    num_output: 300
    weight_filler {
      type: "xavier"
    }
  }
}
layer {
  name: "fc4_sTanH"
  type: "TanH"
  bottom: "fc4_300"
  top: "fc4_300"
}
layer {
  name: "drop4"
  type: "Dropout"
  bottom: "fc4_300"
  top: "fc4_300"
  dropout_param {
    dropout_ratio: 0.4
  }
}
layer {
  name: "fc5_67"
  type: "InnerProduct"
  bottom: "fc4_300"
  top: "fc5_classes"
  inner_product_param {
    num_output: 67
    weight_filler {
      type: "xavier"
    }
  }
}
layer {
  name: "loss"
  type: "SoftmaxWithLoss"
  bottom: "fc5_classes"
  bottom: "label"
  top: "loss"
}
layer {
  name: "accuracy_1"
  type: "Accuracy"
  bottom: "fc5_classes"
  bottom: "label"
  top: "accuracy_1"
  include {
    phase: TEST
  }
  accuracy_param {
    top_k: 1
  }
}
layer {
  name: "accuracy_5"
  type: "Accuracy"
  bottom: "fc5_classes"
  bottom: "label"
  top: "accuracy_5"
  include {
    phase: TEST
  }
  accuracy_param {
    top_k: 5
  }
}
I0409 20:01:44.952718 11469 layer_factory.hpp:77] Creating layer data
I0409 20:01:44.953393 11469 net.cpp:100] Creating Layer data
I0409 20:01:44.953409 11469 net.cpp:408] data -> data
I0409 20:01:44.953419 11469 net.cpp:408] data -> label
I0409 20:01:44.954629 11558 db_lmdb.cpp:35] Opened lmdb ../local_data/lmdb/rtsd-r1/CoNorm/test/lmdb
I0409 20:01:44.954871 11469 data_layer.cpp:41] output data size: 1024,3,48,48
I0409 20:01:45.007038 11469 net.cpp:150] Setting up data
I0409 20:01:45.007067 11469 net.cpp:157] Top shape: 1024 3 48 48 (7077888)
I0409 20:01:45.007072 11469 net.cpp:157] Top shape: 1024 (1024)
I0409 20:01:45.007076 11469 net.cpp:165] Memory required for data: 28315648
I0409 20:01:45.007082 11469 layer_factory.hpp:77] Creating layer label_data_1_split
I0409 20:01:45.007097 11469 net.cpp:100] Creating Layer label_data_1_split
I0409 20:01:45.007102 11469 net.cpp:434] label_data_1_split <- label
I0409 20:01:45.007108 11469 net.cpp:408] label_data_1_split -> label_data_1_split_0
I0409 20:01:45.007118 11469 net.cpp:408] label_data_1_split -> label_data_1_split_1
I0409 20:01:45.007124 11469 net.cpp:408] label_data_1_split -> label_data_1_split_2
I0409 20:01:45.007239 11469 net.cpp:150] Setting up label_data_1_split
I0409 20:01:45.007249 11469 net.cpp:157] Top shape: 1024 (1024)
I0409 20:01:45.007253 11469 net.cpp:157] Top shape: 1024 (1024)
I0409 20:01:45.007257 11469 net.cpp:157] Top shape: 1024 (1024)
I0409 20:01:45.007259 11469 net.cpp:165] Memory required for data: 28327936
I0409 20:01:45.007263 11469 layer_factory.hpp:77] Creating layer conv1
I0409 20:01:45.007279 11469 net.cpp:100] Creating Layer conv1
I0409 20:01:45.007285 11469 net.cpp:434] conv1 <- data
I0409 20:01:45.007292 11469 net.cpp:408] conv1 -> conv1
I0409 20:01:45.009344 11469 net.cpp:150] Setting up conv1
I0409 20:01:45.009361 11469 net.cpp:157] Top shape: 1024 100 42 42 (180633600)
I0409 20:01:45.009364 11469 net.cpp:165] Memory required for data: 750862336
I0409 20:01:45.009377 11469 layer_factory.hpp:77] Creating layer conv1_sTanH
I0409 20:01:45.009383 11469 net.cpp:100] Creating Layer conv1_sTanH
I0409 20:01:45.009387 11469 net.cpp:434] conv1_sTanH <- conv1
I0409 20:01:45.009393 11469 net.cpp:395] conv1_sTanH -> conv1 (in-place)
I0409 20:01:45.009601 11469 net.cpp:150] Setting up conv1_sTanH
I0409 20:01:45.009613 11469 net.cpp:157] Top shape: 1024 100 42 42 (180633600)
I0409 20:01:45.009618 11469 net.cpp:165] Memory required for data: 1473396736
I0409 20:01:45.009620 11469 layer_factory.hpp:77] Creating layer pool1
I0409 20:01:45.009630 11469 net.cpp:100] Creating Layer pool1
I0409 20:01:45.009634 11469 net.cpp:434] pool1 <- conv1
I0409 20:01:45.009639 11469 net.cpp:408] pool1 -> pool1
I0409 20:01:45.009696 11469 net.cpp:150] Setting up pool1
I0409 20:01:45.009703 11469 net.cpp:157] Top shape: 1024 100 21 21 (45158400)
I0409 20:01:45.009706 11469 net.cpp:165] Memory required for data: 1654030336
I0409 20:01:45.009709 11469 layer_factory.hpp:77] Creating layer conv2
I0409 20:01:45.009718 11469 net.cpp:100] Creating Layer conv2
I0409 20:01:45.009722 11469 net.cpp:434] conv2 <- pool1
I0409 20:01:45.009727 11469 net.cpp:408] conv2 -> conv2
I0409 20:01:45.017220 11469 net.cpp:150] Setting up conv2
I0409 20:01:45.017241 11469 net.cpp:157] Top shape: 1024 150 18 18 (49766400)
I0409 20:01:45.017244 11469 net.cpp:165] Memory required for data: 1853095936
I0409 20:01:45.017254 11469 layer_factory.hpp:77] Creating layer conv2_sTanH
I0409 20:01:45.017263 11469 net.cpp:100] Creating Layer conv2_sTanH
I0409 20:01:45.017267 11469 net.cpp:434] conv2_sTanH <- conv2
I0409 20:01:45.017272 11469 net.cpp:395] conv2_sTanH -> conv2 (in-place)
I0409 20:01:45.018599 11469 net.cpp:150] Setting up conv2_sTanH
I0409 20:01:45.018613 11469 net.cpp:157] Top shape: 1024 150 18 18 (49766400)
I0409 20:01:45.018632 11469 net.cpp:165] Memory required for data: 2052161536
I0409 20:01:45.018636 11469 layer_factory.hpp:77] Creating layer pool2
I0409 20:01:45.018643 11469 net.cpp:100] Creating Layer pool2
I0409 20:01:45.018646 11469 net.cpp:434] pool2 <- conv2
I0409 20:01:45.018652 11469 net.cpp:408] pool2 -> pool2
I0409 20:01:45.018705 11469 net.cpp:150] Setting up pool2
I0409 20:01:45.018714 11469 net.cpp:157] Top shape: 1024 150 9 9 (12441600)
I0409 20:01:45.018718 11469 net.cpp:165] Memory required for data: 2101927936
I0409 20:01:45.018720 11469 layer_factory.hpp:77] Creating layer conv3
I0409 20:01:45.018733 11469 net.cpp:100] Creating Layer conv3
I0409 20:01:45.018736 11469 net.cpp:434] conv3 <- pool2
I0409 20:01:45.018743 11469 net.cpp:408] conv3 -> conv3
I0409 20:01:45.025244 11469 net.cpp:150] Setting up conv3
I0409 20:01:45.025276 11469 net.cpp:157] Top shape: 1024 250 6 6 (9216000)
I0409 20:01:45.025280 11469 net.cpp:165] Memory required for data: 2138791936
I0409 20:01:45.025290 11469 layer_factory.hpp:77] Creating layer conv3_sTanH
I0409 20:01:45.025297 11469 net.cpp:100] Creating Layer conv3_sTanH
I0409 20:01:45.025300 11469 net.cpp:434] conv3_sTanH <- conv3
I0409 20:01:45.025308 11469 net.cpp:395] conv3_sTanH -> conv3 (in-place)
I0409 20:01:45.026258 11469 net.cpp:150] Setting up conv3_sTanH
I0409 20:01:45.026276 11469 net.cpp:157] Top shape: 1024 250 6 6 (9216000)
I0409 20:01:45.026295 11469 net.cpp:165] Memory required for data: 2175655936
I0409 20:01:45.026299 11469 layer_factory.hpp:77] Creating layer pool3
I0409 20:01:45.026306 11469 net.cpp:100] Creating Layer pool3
I0409 20:01:45.026309 11469 net.cpp:434] pool3 <- conv3
I0409 20:01:45.026317 11469 net.cpp:408] pool3 -> pool3
I0409 20:01:45.026371 11469 net.cpp:150] Setting up pool3
I0409 20:01:45.026378 11469 net.cpp:157] Top shape: 1024 250 3 3 (2304000)
I0409 20:01:45.026384 11469 net.cpp:165] Memory required for data: 2184871936
I0409 20:01:45.026387 11469 layer_factory.hpp:77] Creating layer fc4_300
I0409 20:01:45.026397 11469 net.cpp:100] Creating Layer fc4_300
I0409 20:01:45.026401 11469 net.cpp:434] fc4_300 <- pool3
I0409 20:01:45.026407 11469 net.cpp:408] fc4_300 -> fc4_300
I0409 20:01:45.031936 11469 net.cpp:150] Setting up fc4_300
I0409 20:01:45.031954 11469 net.cpp:157] Top shape: 1024 300 (307200)
I0409 20:01:45.031956 11469 net.cpp:165] Memory required for data: 2186100736
I0409 20:01:45.031963 11469 layer_factory.hpp:77] Creating layer fc4_sTanH
I0409 20:01:45.031971 11469 net.cpp:100] Creating Layer fc4_sTanH
I0409 20:01:45.031975 11469 net.cpp:434] fc4_sTanH <- fc4_300
I0409 20:01:45.031980 11469 net.cpp:395] fc4_sTanH -> fc4_300 (in-place)
I0409 20:01:45.032174 11469 net.cpp:150] Setting up fc4_sTanH
I0409 20:01:45.032186 11469 net.cpp:157] Top shape: 1024 300 (307200)
I0409 20:01:45.032189 11469 net.cpp:165] Memory required for data: 2187329536
I0409 20:01:45.032192 11469 layer_factory.hpp:77] Creating layer drop4
I0409 20:01:45.032208 11469 net.cpp:100] Creating Layer drop4
I0409 20:01:45.032212 11469 net.cpp:434] drop4 <- fc4_300
I0409 20:01:45.032219 11469 net.cpp:395] drop4 -> fc4_300 (in-place)
I0409 20:01:45.032248 11469 net.cpp:150] Setting up drop4
I0409 20:01:45.032263 11469 net.cpp:157] Top shape: 1024 300 (307200)
I0409 20:01:45.032265 11469 net.cpp:165] Memory required for data: 2188558336
I0409 20:01:45.032269 11469 layer_factory.hpp:77] Creating layer fc5_67
I0409 20:01:45.032277 11469 net.cpp:100] Creating Layer fc5_67
I0409 20:01:45.032280 11469 net.cpp:434] fc5_67 <- fc4_300
I0409 20:01:45.032285 11469 net.cpp:408] fc5_67 -> fc5_classes
I0409 20:01:45.032538 11469 net.cpp:150] Setting up fc5_67
I0409 20:01:45.032547 11469 net.cpp:157] Top shape: 1024 67 (68608)
I0409 20:01:45.032551 11469 net.cpp:165] Memory required for data: 2188832768
I0409 20:01:45.032560 11469 layer_factory.hpp:77] Creating layer fc5_classes_fc5_67_0_split
I0409 20:01:45.032567 11469 net.cpp:100] Creating Layer fc5_classes_fc5_67_0_split
I0409 20:01:45.032579 11469 net.cpp:434] fc5_classes_fc5_67_0_split <- fc5_classes
I0409 20:01:45.032585 11469 net.cpp:408] fc5_classes_fc5_67_0_split -> fc5_classes_fc5_67_0_split_0
I0409 20:01:45.032594 11469 net.cpp:408] fc5_classes_fc5_67_0_split -> fc5_classes_fc5_67_0_split_1
I0409 20:01:45.032600 11469 net.cpp:408] fc5_classes_fc5_67_0_split -> fc5_classes_fc5_67_0_split_2
I0409 20:01:45.032654 11469 net.cpp:150] Setting up fc5_classes_fc5_67_0_split
I0409 20:01:45.032660 11469 net.cpp:157] Top shape: 1024 67 (68608)
I0409 20:01:45.032663 11469 net.cpp:157] Top shape: 1024 67 (68608)
I0409 20:01:45.032666 11469 net.cpp:157] Top shape: 1024 67 (68608)
I0409 20:01:45.032670 11469 net.cpp:165] Memory required for data: 2189656064
I0409 20:01:45.032671 11469 layer_factory.hpp:77] Creating layer loss
I0409 20:01:45.032681 11469 net.cpp:100] Creating Layer loss
I0409 20:01:45.032685 11469 net.cpp:434] loss <- fc5_classes_fc5_67_0_split_0
I0409 20:01:45.032690 11469 net.cpp:434] loss <- label_data_1_split_0
I0409 20:01:45.032694 11469 net.cpp:408] loss -> loss
…
