…
I0409 19:45:42.139132 23760 net.cpp:322] The NetState phase (0) differed from the phase (1) specified by a rule in layer accuracy_5
I0409 19:45:42.139305 23760 net.cpp:58] Initializing net from parameters: 
state {
  phase: TRAIN
  level: 0
  stage: ""
}
layer {
  name: "data"
  type: "Data"
  top: "data"
  top: "label"
  include {
    phase: TRAIN
  }
  transform_param {
    mirror: false
    crop_size: 48
    mean_value: 132
    mean_value: 132
    mean_value: 131
  }
  data_param {
    source: "../local_data/lmdb/rtsd-r1/CoNorm/train/lmdb"
    batch_size: 1024
    backend: LMDB
  }
}
layer {
  name: "conv1"
  type: "Convolution"
  bottom: "data"
  top: "conv1"
  convolution_param {
    num_output: 100
    pad: 0
    kernel_size: 7
    group: 1
    stride: 1
    weight_filler {
      type: "xavier"
    }
  }
}
layer {
  name: "conv1_prescale"
  type: "Scale"
  bottom: "conv1"
  top: "conv1"
  param {
    lr_mult: 0
    decay_mult: 0
  }
  scale_param {
    filler {
      value: 0.6666
    }
  }
}
layer {
  name: "conv1_sTanH"
  type: "TanH"
  bottom: "conv1"
  top: "conv1"
}
layer {
  name: "conv1_postscale"
  type: "Scale"
  bottom: "conv1"
  top: "conv1"
  param {
    lr_mult: 0
    decay_mult: 0
  }
  scale_param {
    filler {
      value: 1.7159
    }
  }
}
layer {
  name: "pool1"
  type: "Pooling"
  bottom: "conv1"
  top: "pool1"
  pooling_param {
    pool: MAX
    kernel_size: 2
    stride: 2
  }
}
layer {
  name: "conv2"
  type: "Convolution"
  bottom: "pool1"
  top: "conv2"
  convolution_param {
    num_output: 150
    pad: 0
    kernel_size: 4
    group: 1
    stride: 1
    weight_filler {
      type: "xavier"
    }
  }
}
layer {
  name: "conv2_prescale"
  type: "Scale"
  bottom: "conv2"
  top: "conv2"
  param {
    lr_mult: 0
    decay_mult: 0
  }
  scale_param {
    filler {
      value: 0.6666
    }
  }
}
layer {
  name: "conv2_sTanH"
  type: "TanH"
  bottom: "conv2"
  top: "conv2"
}
layer {
  name: "conv2_postscale"
  type: "Scale"
  bottom: "conv2"
  top: "conv2"
  param {
    lr_mult: 0
    decay_mult: 0
  }
  scale_param {
    filler {
      value: 1.7159
    }
  }
}
layer {
  name: "pool2"
  type: "Pooling"
  bottom: "conv2"
  top: "pool2"
  pooling_param {
    pool: MAX
    kernel_size: 2
    stride: 2
  }
}
layer {
  name: "conv3"
  type: "Convolution"
  bottom: "pool2"
  top: "conv3"
  convolution_param {
    num_output: 250
    pad: 0
    kernel_size: 4
    group: 1
    stride: 1
    weight_filler {
      type: "xavier"
    }
  }
}
layer {
  name: "conv3_prescale"
  type: "Scale"
  bottom: "conv3"
  top: "conv3"
  param {
    lr_mult: 0
    decay_mult: 0
  }
  scale_param {
    filler {
      value: 0.6666
    }
  }
}
layer {
  name: "conv3_sTanH"
  type: "TanH"
  bottom: "conv3"
  top: "conv3"
}
layer {
  name: "conv3_postscale"
  type: "Scale"
  bottom: "conv3"
  top: "conv3"
  param {
    lr_mult: 0
    decay_mult: 0
  }
  scale_param {
    filler {
      value: 1.7159
    }
  }
}
layer {
  name: "pool3"
  type: "Pooling"
  bottom: "conv3"
  top: "pool3"
  pooling_param {
    pool: MAX
    kernel_size: 2
    stride: 2
  }
}
layer {
  name: "fc4_300"
  type: "InnerProduct"
  bottom: "pool3"
  top: "fc4_300"
  inner_product_param {
    num_output: 300
    weight_filler {
      type: "xavier"
    }
  }
}
layer {
  name: "fc4_prescale"
  type: "Scale"
  bottom: "fc4_300"
  top: "fc4_300"
  param {
    lr_mult: 0
    decay_mult: 0
  }
  scale_param {
    filler {
      value: 0.6666
    }
  }
}
layer {
  name: "fc4_sTanH"
  type: "TanH"
  bottom: "fc4_300"
  top: "fc4_300"
}
layer {
  name: "fc4_postscale"
  type: "Scale"
  bottom: "fc4_300"
  top: "fc4_300"
  param {
    lr_mult: 0
    decay_mult: 0
  }
  scale_param {
    filler {
      value: 1.7159
    }
  }
}
layer {
  name: "drop4"
  type: "Dropout"
  bottom: "fc4_300"
  top: "fc4_300"
  dropout_param {
    dropout_ratio: 0.4
  }
}
layer {
  name: "fc5_67"
  type: "InnerProduct"
  bottom: "fc4_300"
  top: "fc5_classes"
  inner_product_param {
    num_output: 67
    weight_filler {
      type: "xavier"
    }
  }
}
layer {
  name: "loss"
  type: "SoftmaxWithLoss"
  bottom: "fc5_classes"
  bottom: "label"
  top: "loss"
}
I0409 19:45:42.139436 23760 layer_factory.hpp:77] Creating layer data
I0409 19:45:42.140949 23760 net.cpp:100] Creating Layer data
I0409 19:45:42.140972 23760 net.cpp:408] data -> data
I0409 19:45:42.141000 23760 net.cpp:408] data -> label
I0409 19:45:42.142570 23826 db_lmdb.cpp:35] Opened lmdb ../local_data/lmdb/rtsd-r1/CoNorm/train/lmdb
I0409 19:45:42.163099 23760 data_layer.cpp:41] output data size: 1024,3,48,48
I0409 19:45:42.214380 23760 net.cpp:150] Setting up data
I0409 19:45:42.214417 23760 net.cpp:157] Top shape: 1024 3 48 48 (7077888)
I0409 19:45:42.214423 23760 net.cpp:157] Top shape: 1024 (1024)
I0409 19:45:42.214426 23760 net.cpp:165] Memory required for data: 28315648
I0409 19:45:42.214437 23760 layer_factory.hpp:77] Creating layer conv1
I0409 19:45:42.214462 23760 net.cpp:100] Creating Layer conv1
I0409 19:45:42.214469 23760 net.cpp:434] conv1 <- data
I0409 19:45:42.214483 23760 net.cpp:408] conv1 -> conv1
I0409 19:45:42.477531 23760 net.cpp:150] Setting up conv1
I0409 19:45:42.477560 23760 net.cpp:157] Top shape: 1024 100 42 42 (180633600)
I0409 19:45:42.477563 23760 net.cpp:165] Memory required for data: 750850048
I0409 19:45:42.477584 23760 layer_factory.hpp:77] Creating layer conv1_prescale
I0409 19:45:42.477599 23760 net.cpp:100] Creating Layer conv1_prescale
I0409 19:45:42.477603 23760 net.cpp:434] conv1_prescale <- conv1
I0409 19:45:42.477609 23760 net.cpp:395] conv1_prescale -> conv1 (in-place)
I0409 19:45:42.477716 23760 net.cpp:150] Setting up conv1_prescale
I0409 19:45:42.477725 23760 net.cpp:157] Top shape: 1024 100 42 42 (180633600)
I0409 19:45:42.477728 23760 net.cpp:165] Memory required for data: 1473384448
I0409 19:45:42.477735 23760 layer_factory.hpp:77] Creating layer conv1_sTanH
I0409 19:45:42.477741 23760 net.cpp:100] Creating Layer conv1_sTanH
I0409 19:45:42.477744 23760 net.cpp:434] conv1_sTanH <- conv1
I0409 19:45:42.477748 23760 net.cpp:395] conv1_sTanH -> conv1 (in-place)
I0409 19:45:42.477936 23760 net.cpp:150] Setting up conv1_sTanH
I0409 19:45:42.477948 23760 net.cpp:157] Top shape: 1024 100 42 42 (180633600)
I0409 19:45:42.477952 23760 net.cpp:165] Memory required for data: 2195918848
I0409 19:45:42.477955 23760 layer_factory.hpp:77] Creating layer conv1_postscale
I0409 19:45:42.477963 23760 net.cpp:100] Creating Layer conv1_postscale
I0409 19:45:42.477967 23760 net.cpp:434] conv1_postscale <- conv1
I0409 19:45:42.477972 23760 net.cpp:395] conv1_postscale -> conv1 (in-place)
I0409 19:45:42.478065 23760 net.cpp:150] Setting up conv1_postscale
I0409 19:45:42.478072 23760 net.cpp:157] Top shape: 1024 100 42 42 (180633600)
I0409 19:45:42.478075 23760 net.cpp:165] Memory required for data: 2918453248
I0409 19:45:42.478080 23760 layer_factory.hpp:77] Creating layer pool1
I0409 19:45:42.478087 23760 net.cpp:100] Creating Layer pool1
I0409 19:45:42.478091 23760 net.cpp:434] pool1 <- conv1
I0409 19:45:42.478096 23760 net.cpp:408] pool1 -> pool1
I0409 19:45:42.478142 23760 net.cpp:150] Setting up pool1
I0409 19:45:42.478149 23760 net.cpp:157] Top shape: 1024 100 21 21 (45158400)
I0409 19:45:42.478152 23760 net.cpp:165] Memory required for data: 3099086848
I0409 19:45:42.478173 23760 layer_factory.hpp:77] Creating layer conv2
I0409 19:45:42.478183 23760 net.cpp:100] Creating Layer conv2
I0409 19:45:42.478191 23760 net.cpp:434] conv2 <- pool1
I0409 19:45:42.478196 23760 net.cpp:408] conv2 -> conv2
I0409 19:45:42.496294 23760 net.cpp:150] Setting up conv2
I0409 19:45:42.496310 23760 net.cpp:157] Top shape: 1024 150 18 18 (49766400)
I0409 19:45:42.496315 23760 net.cpp:165] Memory required for data: 3298152448
I0409 19:45:42.496325 23760 layer_factory.hpp:77] Creating layer conv2_prescale
I0409 19:45:42.496333 23760 net.cpp:100] Creating Layer conv2_prescale
I0409 19:45:42.496338 23760 net.cpp:434] conv2_prescale <- conv2
I0409 19:45:42.496345 23760 net.cpp:395] conv2_prescale -> conv2 (in-place)
I0409 19:45:42.496445 23760 net.cpp:150] Setting up conv2_prescale
I0409 19:45:42.496454 23760 net.cpp:157] Top shape: 1024 150 18 18 (49766400)
I0409 19:45:42.496457 23760 net.cpp:165] Memory required for data: 3497218048
I0409 19:45:42.496462 23760 layer_factory.hpp:77] Creating layer conv2_sTanH
I0409 19:45:42.496470 23760 net.cpp:100] Creating Layer conv2_sTanH
I0409 19:45:42.496474 23760 net.cpp:434] conv2_sTanH <- conv2
I0409 19:45:42.496479 23760 net.cpp:395] conv2_sTanH -> conv2 (in-place)
I0409 19:45:42.497597 23760 net.cpp:150] Setting up conv2_sTanH
I0409 19:45:42.497612 23760 net.cpp:157] Top shape: 1024 150 18 18 (49766400)
I0409 19:45:42.497615 23760 net.cpp:165] Memory required for data: 3696283648
I0409 19:45:42.497618 23760 layer_factory.hpp:77] Creating layer conv2_postscale
I0409 19:45:42.497625 23760 net.cpp:100] Creating Layer conv2_postscale
I0409 19:45:42.497628 23760 net.cpp:434] conv2_postscale <- conv2
I0409 19:45:42.497634 23760 net.cpp:395] conv2_postscale -> conv2 (in-place)
I0409 19:45:42.497725 23760 net.cpp:150] Setting up conv2_postscale
I0409 19:45:42.497735 23760 net.cpp:157] Top shape: 1024 150 18 18 (49766400)
I0409 19:45:42.497736 23760 net.cpp:165] Memory required for data: 3895349248
I0409 19:45:42.497741 23760 layer_factory.hpp:77] Creating layer pool2
I0409 19:45:42.497747 23760 net.cpp:100] Creating Layer pool2
I0409 19:45:42.497751 23760 net.cpp:434] pool2 <- conv2
I0409 19:45:42.497756 23760 net.cpp:408] pool2 -> pool2
I0409 19:45:42.497793 23760 net.cpp:150] Setting up pool2
I0409 19:45:42.497802 23760 net.cpp:157] Top shape: 1024 150 9 9 (12441600)
I0409 19:45:42.497804 23760 net.cpp:165] Memory required for data: 3945115648
I0409 19:45:42.497807 23760 layer_factory.hpp:77] Creating layer conv3
I0409 19:45:42.497814 23760 net.cpp:100] Creating Layer conv3
I0409 19:45:42.497819 23760 net.cpp:434] conv3 <- pool2
I0409 19:45:42.497824 23760 net.cpp:408] conv3 -> conv3
I0409 19:45:42.503347 23760 net.cpp:150] Setting up conv3
I0409 19:45:42.503365 23760 net.cpp:157] Top shape: 1024 250 6 6 (9216000)
I0409 19:45:42.503368 23760 net.cpp:165] Memory required for data: 3981979648
I0409 19:45:42.503377 23760 layer_factory.hpp:77] Creating layer conv3_prescale
I0409 19:45:42.503386 23760 net.cpp:100] Creating Layer conv3_prescale
I0409 19:45:42.503388 23760 net.cpp:434] conv3_prescale <- conv3
I0409 19:45:42.503393 23760 net.cpp:395] conv3_prescale -> conv3 (in-place)
I0409 19:45:42.503482 23760 net.cpp:150] Setting up conv3_prescale
I0409 19:45:42.503491 23760 net.cpp:157] Top shape: 1024 250 6 6 (9216000)
I0409 19:45:42.503494 23760 net.cpp:165] Memory required for data: 4018843648
I0409 19:45:42.503499 23760 layer_factory.hpp:77] Creating layer conv3_sTanH
I0409 19:45:42.503504 23760 net.cpp:100] Creating Layer conv3_sTanH
I0409 19:45:42.503509 23760 net.cpp:434] conv3_sTanH <- conv3
I0409 19:45:42.503512 23760 net.cpp:395] conv3_sTanH -> conv3 (in-place)
I0409 19:45:42.504335 23760 net.cpp:150] Setting up conv3_sTanH
I0409 19:45:42.504350 23760 net.cpp:157] Top shape: 1024 250 6 6 (9216000)
I0409 19:45:42.504354 23760 net.cpp:165] Memory required for data: 4055707648
I0409 19:45:42.504357 23760 layer_factory.hpp:77] Creating layer conv3_postscale
I0409 19:45:42.504364 23760 net.cpp:100] Creating Layer conv3_postscale
I0409 19:45:42.504387 23760 net.cpp:434] conv3_postscale <- conv3
I0409 19:45:42.504393 23760 net.cpp:395] conv3_postscale -> conv3 (in-place)
I0409 19:45:42.504488 23760 net.cpp:150] Setting up conv3_postscale
I0409 19:45:42.504497 23760 net.cpp:157] Top shape: 1024 250 6 6 (9216000)
I0409 19:45:42.504499 23760 net.cpp:165] Memory required for data: 4092571648
I0409 19:45:42.504504 23760 layer_factory.hpp:77] Creating layer pool3
I0409 19:45:42.504510 23760 net.cpp:100] Creating Layer pool3
I0409 19:45:42.504514 23760 net.cpp:434] pool3 <- conv3
I0409 19:45:42.504519 23760 net.cpp:408] pool3 -> pool3
I0409 19:45:42.504555 23760 net.cpp:150] Setting up pool3
I0409 19:45:42.504562 23760 net.cpp:157] Top shape: 1024 250 3 3 (2304000)
I0409 19:45:42.504565 23760 net.cpp:165] Memory required for data: 4101787648
I0409 19:45:42.504567 23760 layer_factory.hpp:77] Creating layer fc4_300
I0409 19:45:42.504575 23760 net.cpp:100] Creating Layer fc4_300
I0409 19:45:42.504580 23760 net.cpp:434] fc4_300 <- pool3
I0409 19:45:42.504585 23760 net.cpp:408] fc4_300 -> fc4_300
I0409 19:45:42.510601 23760 net.cpp:150] Setting up fc4_300
I0409 19:45:42.510617 23760 net.cpp:157] Top shape: 1024 300 (307200)
I0409 19:45:42.510622 23760 net.cpp:165] Memory required for data: 4103016448
I0409 19:45:42.510627 23760 layer_factory.hpp:77] Creating layer fc4_prescale
I0409 19:45:42.510634 23760 net.cpp:100] Creating Layer fc4_prescale
I0409 19:45:42.510638 23760 net.cpp:434] fc4_prescale <- fc4_300
I0409 19:45:42.510643 23760 net.cpp:395] fc4_prescale -> fc4_300 (in-place)
I0409 19:45:42.510728 23760 net.cpp:150] Setting up fc4_prescale
I0409 19:45:42.510736 23760 net.cpp:157] Top shape: 1024 300 (307200)
I0409 19:45:42.510740 23760 net.cpp:165] Memory required for data: 4104245248
I0409 19:45:42.510743 23760 layer_factory.hpp:77] Creating layer fc4_sTanH
I0409 19:45:42.510748 23760 net.cpp:100] Creating Layer fc4_sTanH
I0409 19:45:42.510752 23760 net.cpp:434] fc4_sTanH <- fc4_300
I0409 19:45:42.510756 23760 net.cpp:395] fc4_sTanH -> fc4_300 (in-place)
I0409 19:45:42.510929 23760 net.cpp:150] Setting up fc4_sTanH
I0409 19:45:42.510939 23760 net.cpp:157] Top shape: 1024 300 (307200)
I0409 19:45:42.510942 23760 net.cpp:165] Memory required for data: 4105474048
I0409 19:45:42.510946 23760 layer_factory.hpp:77] Creating layer fc4_postscale
I0409 19:45:42.510951 23760 net.cpp:100] Creating Layer fc4_postscale
I0409 19:45:42.510957 23760 net.cpp:434] fc4_postscale <- fc4_300
I0409 19:45:42.510962 23760 net.cpp:395] fc4_postscale -> fc4_300 (in-place)
I0409 19:45:42.511055 23760 net.cpp:150] Setting up fc4_postscale
I0409 19:45:42.511062 23760 net.cpp:157] Top shape: 1024 300 (307200)
I0409 19:45:42.511065 23760 net.cpp:165] Memory required for data: 4106702848
I0409 19:45:42.511070 23760 layer_factory.hpp:77] Creating layer drop4
I0409 19:45:42.511075 23760 net.cpp:100] Creating Layer drop4
I0409 19:45:42.511080 23760 net.cpp:434] drop4 <- fc4_300
I0409 19:45:42.511083 23760 net.cpp:395] drop4 -> fc4_300 (in-place)
I0409 19:45:42.511108 23760 net.cpp:150] Setting up drop4
I0409 19:45:42.511114 23760 net.cpp:157] Top shape: 1024 300 (307200)
I0409 19:45:42.511117 23760 net.cpp:165] Memory required for data: 4107931648
I0409 19:45:42.511121 23760 layer_factory.hpp:77] Creating layer fc5_67
I0409 19:45:42.511126 23760 net.cpp:100] Creating Layer fc5_67
I0409 19:45:42.511131 23760 net.cpp:434] fc5_67 <- fc4_300
I0409 19:45:42.511134 23760 net.cpp:408] fc5_67 -> fc5_classes
I0409 19:45:42.512675 23760 net.cpp:150] Setting up fc5_67
I0409 19:45:42.512689 23760 net.cpp:157] Top shape: 1024 67 (68608)
I0409 19:45:42.512693 23760 net.cpp:165] Memory required for data: 4108206080
I0409 19:45:42.512703 23760 layer_factory.hpp:77] Creating layer loss
I0409 19:45:42.512709 23760 net.cpp:100] Creating Layer loss
I0409 19:45:42.512713 23760 net.cpp:434] loss <- fc5_classes
I0409 19:45:42.512717 23760 net.cpp:434] loss <- label
I0409 19:45:42.512722 23760 net.cpp:408] loss -> loss
I0409 19:45:42.512734 23760 layer_factory.hpp:77] Creating layer loss
…
I0409 19:45:42.513447 23760 solver.cpp:193] Creating test net (#0) specified by test_net file: ./Prototxt/experiment_7/rtsd-r1/CoNorm/trial_1/test.prototxt
I0409 19:45:42.513626 23760 net.cpp:58] Initializing net from parameters: 
state {
  phase: TEST
}
layer {
  name: "data"
  type: "Data"
  top: "data"
  top: "label"
  include {
    phase: TEST
  }
  transform_param {
    mirror: false
    crop_size: 48
    mean_value: 133
    mean_value: 133
    mean_value: 132
  }
  data_param {
    source: "../local_data/lmdb/rtsd-r1/CoNorm/test/lmdb"
    batch_size: 1024
    backend: LMDB
  }
}
layer {
  name: "conv1"
  type: "Convolution"
  bottom: "data"
  top: "conv1"
  convolution_param {
    num_output: 100
    pad: 0
    kernel_size: 7
    group: 1
    stride: 1
    weight_filler {
      type: "xavier"
    }
  }
}
layer {
  name: "conv1_prescale"
  type: "Scale"
  bottom: "conv1"
  top: "conv1"
  param {
    lr_mult: 0
    decay_mult: 0
  }
  scale_param {
    filler {
      value: 0.6666
    }
  }
}
layer {
  name: "conv1_sTanH"
  type: "TanH"
  bottom: "conv1"
  top: "conv1"
}
layer {
  name: "conv1_postscale"
  type: "Scale"
  bottom: "conv1"
  top: "conv1"
  param {
    lr_mult: 0
    decay_mult: 0
  }
  scale_param {
    filler {
      value: 1.7159
    }
  }
}
layer {
  name: "pool1"
  type: "Pooling"
  bottom: "conv1"
  top: "pool1"
  pooling_param {
    pool: MAX
    kernel_size: 2
    stride: 2
  }
}
layer {
  name: "conv2"
  type: "Convolution"
  bottom: "pool1"
  top: "conv2"
  convolution_param {
    num_output: 150
    pad: 0
    kernel_size: 4
    group: 1
    stride: 1
    weight_filler {
      type: "xavier"
    }
  }
}
layer {
  name: "conv2_prescale"
  type: "Scale"
  bottom: "conv2"
  top: "conv2"
  param {
    lr_mult: 0
    decay_mult: 0
  }
  scale_param {
    filler {
      value: 0.6666
    }
  }
}
layer {
  name: "conv2_sTanH"
  type: "TanH"
  bottom: "conv2"
  top: "conv2"
}
layer {
  name: "conv2_postscale"
  type: "Scale"
  bottom: "conv2"
  top: "conv2"
  param {
    lr_mult: 0
    decay_mult: 0
  }
  scale_param {
    filler {
      value: 1.7159
    }
  }
}
layer {
  name: "pool2"
  type: "Pooling"
  bottom: "conv2"
  top: "pool2"
  pooling_param {
    pool: MAX
    kernel_size: 2
    stride: 2
  }
}
layer {
  name: "conv3"
  type: "Convolution"
  bottom: "pool2"
  top: "conv3"
  convolution_param {
    num_output: 250
    pad: 0
    kernel_size: 4
    group: 1
    stride: 1
    weight_filler {
      type: "xavier"
    }
  }
}
layer {
  name: "conv3_prescale"
  type: "Scale"
  bottom: "conv3"
  top: "conv3"
  param {
    lr_mult: 0
    decay_mult: 0
  }
  scale_param {
    filler {
      value: 0.6666
    }
  }
}
layer {
  name: "conv3_sTanH"
  type: "TanH"
  bottom: "conv3"
  top: "conv3"
}
layer {
  name: "conv3_postscale"
  type: "Scale"
  bottom: "conv3"
  top: "conv3"
  param {
    lr_mult: 0
    decay_mult: 0
  }
  scale_param {
    filler {
      value: 1.7159
    }
  }
}
layer {
  name: "pool3"
  type: "Pooling"
  bottom: "conv3"
  top: "pool3"
  pooling_param {
    pool: MAX
    kernel_size: 2
    stride: 2
  }
}
layer {
  name: "fc4_300"
  type: "InnerProduct"
  bottom: "pool3"
  top: "fc4_300"
  inner_product_param {
    num_output: 300
    weight_filler {
      type: "xavier"
    }
  }
}
layer {
  name: "fc4_prescale"
  type: "Scale"
  bottom: "fc4_300"
  top: "fc4_300"
  param {
    lr_mult: 0
    decay_mult: 0
  }
  scale_param {
    filler {
      value: 0.6666
    }
  }
}
layer {
  name: "fc4_sTanH"
  type: "TanH"
  bottom: "fc4_300"
  top: "fc4_300"
}
layer {
  name: "fc4_postscale"
  type: "Scale"
  bottom: "fc4_300"
  top: "fc4_300"
  param {
    lr_mult: 0
    decay_mult: 0
  }
  scale_param {
    filler {
      value: 1.7159
    }
  }
}
layer {
  name: "drop4"
  type: "Dropout"
  bottom: "fc4_300"
  top: "fc4_300"
  dropout_param {
    dropout_ratio: 0.4
  }
}
layer {
  name: "fc5_67"
  type: "InnerProduct"
  bottom: "fc4_300"
  top: "fc5_classes"
  inner_product_param {
    num_output: 67
    weight_filler {
      type: "xavier"
    }
  }
}
layer {
  name: "loss"
  type: "SoftmaxWithLoss"
  bottom: "fc5_classes"
  bottom: "label"
  top: "loss"
}
layer {
  name: "accuracy_1"
  type: "Accuracy"
  bottom: "fc5_classes"
  bottom: "label"
  top: "accuracy_1"
  include {
    phase: TEST
  }
  accuracy_param {
    top_k: 1
  }
}
layer {
  name: "accuracy_5"
  type: "Accuracy"
  bottom: "fc5_classes"
  bottom: "label"
  top: "accuracy_5"
  include {
    phase: TEST
  }
  accuracy_param {
    top_k: 5
  }
}
I0409 19:45:42.513736 23760 layer_factory.hpp:77] Creating layer data
I0409 19:45:42.514294 23760 net.cpp:100] Creating Layer data
I0409 19:45:42.514305 23760 net.cpp:408] data -> data
I0409 19:45:42.514315 23760 net.cpp:408] data -> label
I0409 19:45:42.518240 23846 db_lmdb.cpp:35] Opened lmdb ../local_data/lmdb/rtsd-r1/CoNorm/test/lmdb
I0409 19:45:42.518412 23760 data_layer.cpp:41] output data size: 1024,3,48,48
I0409 19:45:42.559363 23760 net.cpp:150] Setting up data
I0409 19:45:42.559404 23760 net.cpp:157] Top shape: 1024 3 48 48 (7077888)
I0409 19:45:42.559411 23760 net.cpp:157] Top shape: 1024 (1024)
I0409 19:45:42.559412 23760 net.cpp:165] Memory required for data: 28315648
I0409 19:45:42.559419 23760 layer_factory.hpp:77] Creating layer label_data_1_split
I0409 19:45:42.559433 23760 net.cpp:100] Creating Layer label_data_1_split
I0409 19:45:42.559437 23760 net.cpp:434] label_data_1_split <- label
I0409 19:45:42.559444 23760 net.cpp:408] label_data_1_split -> label_data_1_split_0
I0409 19:45:42.559456 23760 net.cpp:408] label_data_1_split -> label_data_1_split_1
I0409 19:45:42.559464 23760 net.cpp:408] label_data_1_split -> label_data_1_split_2
I0409 19:45:42.559543 23760 net.cpp:150] Setting up label_data_1_split
I0409 19:45:42.559551 23760 net.cpp:157] Top shape: 1024 (1024)
I0409 19:45:42.559556 23760 net.cpp:157] Top shape: 1024 (1024)
I0409 19:45:42.559559 23760 net.cpp:157] Top shape: 1024 (1024)
I0409 19:45:42.559561 23760 net.cpp:165] Memory required for data: 28327936
I0409 19:45:42.559582 23760 layer_factory.hpp:77] Creating layer conv1
I0409 19:45:42.559595 23760 net.cpp:100] Creating Layer conv1
I0409 19:45:42.559599 23760 net.cpp:434] conv1 <- data
I0409 19:45:42.559605 23760 net.cpp:408] conv1 -> conv1
I0409 19:45:42.561426 23760 net.cpp:150] Setting up conv1
I0409 19:45:42.561442 23760 net.cpp:157] Top shape: 1024 100 42 42 (180633600)
I0409 19:45:42.561458 23760 net.cpp:165] Memory required for data: 750862336
I0409 19:45:42.561470 23760 layer_factory.hpp:77] Creating layer conv1_prescale
I0409 19:45:42.561478 23760 net.cpp:100] Creating Layer conv1_prescale
I0409 19:45:42.561481 23760 net.cpp:434] conv1_prescale <- conv1
I0409 19:45:42.561487 23760 net.cpp:395] conv1_prescale -> conv1 (in-place)
I0409 19:45:42.561597 23760 net.cpp:150] Setting up conv1_prescale
I0409 19:45:42.561606 23760 net.cpp:157] Top shape: 1024 100 42 42 (180633600)
I0409 19:45:42.561609 23760 net.cpp:165] Memory required for data: 1473396736
I0409 19:45:42.561616 23760 layer_factory.hpp:77] Creating layer conv1_sTanH
I0409 19:45:42.561624 23760 net.cpp:100] Creating Layer conv1_sTanH
I0409 19:45:42.561628 23760 net.cpp:434] conv1_sTanH <- conv1
I0409 19:45:42.561633 23760 net.cpp:395] conv1_sTanH -> conv1 (in-place)
I0409 19:45:42.564070 23760 net.cpp:150] Setting up conv1_sTanH
I0409 19:45:42.564085 23760 net.cpp:157] Top shape: 1024 100 42 42 (180633600)
I0409 19:45:42.564088 23760 net.cpp:165] Memory required for data: 2195931136
I0409 19:45:42.564092 23760 layer_factory.hpp:77] Creating layer conv1_postscale
I0409 19:45:42.564100 23760 net.cpp:100] Creating Layer conv1_postscale
I0409 19:45:42.564102 23760 net.cpp:434] conv1_postscale <- conv1
I0409 19:45:42.564107 23760 net.cpp:395] conv1_postscale -> conv1 (in-place)
I0409 19:45:42.564211 23760 net.cpp:150] Setting up conv1_postscale
I0409 19:45:42.564220 23760 net.cpp:157] Top shape: 1024 100 42 42 (180633600)
I0409 19:45:42.564224 23760 net.cpp:165] Memory required for data: 2918465536
I0409 19:45:42.564229 23760 layer_factory.hpp:77] Creating layer pool1
I0409 19:45:42.564234 23760 net.cpp:100] Creating Layer pool1
I0409 19:45:42.564237 23760 net.cpp:434] pool1 <- conv1
I0409 19:45:42.564250 23760 net.cpp:408] pool1 -> pool1
I0409 19:45:42.564291 23760 net.cpp:150] Setting up pool1
I0409 19:45:42.564298 23760 net.cpp:157] Top shape: 1024 100 21 21 (45158400)
I0409 19:45:42.564301 23760 net.cpp:165] Memory required for data: 3099099136
I0409 19:45:42.564303 23760 layer_factory.hpp:77] Creating layer conv2
I0409 19:45:42.564312 23760 net.cpp:100] Creating Layer conv2
I0409 19:45:42.564316 23760 net.cpp:434] conv2 <- pool1
I0409 19:45:42.564321 23760 net.cpp:408] conv2 -> conv2
I0409 19:45:42.568238 23760 net.cpp:150] Setting up conv2
I0409 19:45:42.568266 23760 net.cpp:157] Top shape: 1024 150 18 18 (49766400)
I0409 19:45:42.568270 23760 net.cpp:165] Memory required for data: 3298164736
I0409 19:45:42.568280 23760 layer_factory.hpp:77] Creating layer conv2_prescale
I0409 19:45:42.568289 23760 net.cpp:100] Creating Layer conv2_prescale
I0409 19:45:42.568294 23760 net.cpp:434] conv2_prescale <- conv2
I0409 19:45:42.568298 23760 net.cpp:395] conv2_prescale -> conv2 (in-place)
I0409 19:45:42.568408 23760 net.cpp:150] Setting up conv2_prescale
I0409 19:45:42.568416 23760 net.cpp:157] Top shape: 1024 150 18 18 (49766400)
I0409 19:45:42.568419 23760 net.cpp:165] Memory required for data: 3497230336
I0409 19:45:42.568423 23760 layer_factory.hpp:77] Creating layer conv2_sTanH
I0409 19:45:42.568429 23760 net.cpp:100] Creating Layer conv2_sTanH
I0409 19:45:42.568433 23760 net.cpp:434] conv2_sTanH <- conv2
I0409 19:45:42.568436 23760 net.cpp:395] conv2_sTanH -> conv2 (in-place)
I0409 19:45:42.569213 23760 net.cpp:150] Setting up conv2_sTanH
I0409 19:45:42.569228 23760 net.cpp:157] Top shape: 1024 150 18 18 (49766400)
I0409 19:45:42.569232 23760 net.cpp:165] Memory required for data: 3696295936
I0409 19:45:42.569236 23760 layer_factory.hpp:77] Creating layer conv2_postscale
I0409 19:45:42.569242 23760 net.cpp:100] Creating Layer conv2_postscale
I0409 19:45:42.569262 23760 net.cpp:434] conv2_postscale <- conv2
I0409 19:45:42.569268 23760 net.cpp:395] conv2_postscale -> conv2 (in-place)
I0409 19:45:42.569365 23760 net.cpp:150] Setting up conv2_postscale
I0409 19:45:42.569375 23760 net.cpp:157] Top shape: 1024 150 18 18 (49766400)
I0409 19:45:42.569377 23760 net.cpp:165] Memory required for data: 3895361536
I0409 19:45:42.569382 23760 layer_factory.hpp:77] Creating layer pool2
I0409 19:45:42.569388 23760 net.cpp:100] Creating Layer pool2
I0409 19:45:42.569391 23760 net.cpp:434] pool2 <- conv2
I0409 19:45:42.569396 23760 net.cpp:408] pool2 -> pool2
I0409 19:45:42.569438 23760 net.cpp:150] Setting up pool2
I0409 19:45:42.569447 23760 net.cpp:157] Top shape: 1024 150 9 9 (12441600)
I0409 19:45:42.569449 23760 net.cpp:165] Memory required for data: 3945127936
I0409 19:45:42.569453 23760 layer_factory.hpp:77] Creating layer conv3
I0409 19:45:42.569461 23760 net.cpp:100] Creating Layer conv3
I0409 19:45:42.569464 23760 net.cpp:434] conv3 <- pool2
I0409 19:45:42.569469 23760 net.cpp:408] conv3 -> conv3
I0409 19:45:42.575006 23760 net.cpp:150] Setting up conv3
I0409 19:45:42.575023 23760 net.cpp:157] Top shape: 1024 250 6 6 (9216000)
I0409 19:45:42.575026 23760 net.cpp:165] Memory required for data: 3981991936
I0409 19:45:42.575037 23760 layer_factory.hpp:77] Creating layer conv3_prescale
I0409 19:45:42.575045 23760 net.cpp:100] Creating Layer conv3_prescale
I0409 19:45:42.575048 23760 net.cpp:434] conv3_prescale <- conv3
I0409 19:45:42.575054 23760 net.cpp:395] conv3_prescale -> conv3 (in-place)
I0409 19:45:42.575145 23760 net.cpp:150] Setting up conv3_prescale
I0409 19:45:42.575155 23760 net.cpp:157] Top shape: 1024 250 6 6 (9216000)
I0409 19:45:42.575158 23760 net.cpp:165] Memory required for data: 4018855936
I0409 19:45:42.575163 23760 layer_factory.hpp:77] Creating layer conv3_sTanH
I0409 19:45:42.575168 23760 net.cpp:100] Creating Layer conv3_sTanH
I0409 19:45:42.575171 23760 net.cpp:434] conv3_sTanH <- conv3
I0409 19:45:42.575176 23760 net.cpp:395] conv3_sTanH -> conv3 (in-place)
I0409 19:45:42.575955 23760 net.cpp:150] Setting up conv3_sTanH
I0409 19:45:42.575971 23760 net.cpp:157] Top shape: 1024 250 6 6 (9216000)
I0409 19:45:42.575974 23760 net.cpp:165] Memory required for data: 4055719936
I0409 19:45:42.575979 23760 layer_factory.hpp:77] Creating layer conv3_postscale
I0409 19:45:42.575986 23760 net.cpp:100] Creating Layer conv3_postscale
I0409 19:45:42.575989 23760 net.cpp:434] conv3_postscale <- conv3
I0409 19:45:42.575995 23760 net.cpp:395] conv3_postscale -> conv3 (in-place)
I0409 19:45:42.576089 23760 net.cpp:150] Setting up conv3_postscale
I0409 19:45:42.576098 23760 net.cpp:157] Top shape: 1024 250 6 6 (9216000)
I0409 19:45:42.576102 23760 net.cpp:165] Memory required for data: 4092583936
I0409 19:45:42.576107 23760 layer_factory.hpp:77] Creating layer pool3
I0409 19:45:42.576115 23760 net.cpp:100] Creating Layer pool3
I0409 19:45:42.576120 23760 net.cpp:434] pool3 <- conv3
I0409 19:45:42.576125 23760 net.cpp:408] pool3 -> pool3
I0409 19:45:42.576164 23760 net.cpp:150] Setting up pool3
I0409 19:45:42.576171 23760 net.cpp:157] Top shape: 1024 250 3 3 (2304000)
I0409 19:45:42.576174 23760 net.cpp:165] Memory required for data: 4101799936
I0409 19:45:42.576177 23760 layer_factory.hpp:77] Creating layer fc4_300
I0409 19:45:42.576184 23760 net.cpp:100] Creating Layer fc4_300
I0409 19:45:42.576187 23760 net.cpp:434] fc4_300 <- pool3
I0409 19:45:42.576192 23760 net.cpp:408] fc4_300 -> fc4_300
I0409 19:45:42.581497 23760 net.cpp:150] Setting up fc4_300
I0409 19:45:42.581527 23760 net.cpp:157] Top shape: 1024 300 (307200)
I0409 19:45:42.581531 23760 net.cpp:165] Memory required for data: 4103028736
I0409 19:45:42.581537 23760 layer_factory.hpp:77] Creating layer fc4_prescale
I0409 19:45:42.581545 23760 net.cpp:100] Creating Layer fc4_prescale
I0409 19:45:42.581549 23760 net.cpp:434] fc4_prescale <- fc4_300
I0409 19:45:42.581554 23760 net.cpp:395] fc4_prescale -> fc4_300 (in-place)
I0409 19:45:42.581643 23760 net.cpp:150] Setting up fc4_prescale
I0409 19:45:42.581666 23760 net.cpp:157] Top shape: 1024 300 (307200)
I0409 19:45:42.581670 23760 net.cpp:165] Memory required for data: 4104257536
I0409 19:45:42.581676 23760 layer_factory.hpp:77] Creating layer fc4_sTanH
I0409 19:45:42.581681 23760 net.cpp:100] Creating Layer fc4_sTanH
I0409 19:45:42.581683 23760 net.cpp:434] fc4_sTanH <- fc4_300
I0409 19:45:42.581688 23760 net.cpp:395] fc4_sTanH -> fc4_300 (in-place)
I0409 19:45:42.581871 23760 net.cpp:150] Setting up fc4_sTanH
I0409 19:45:42.581882 23760 net.cpp:157] Top shape: 1024 300 (307200)
I0409 19:45:42.581889 23760 net.cpp:165] Memory required for data: 4105486336
I0409 19:45:42.581902 23760 layer_factory.hpp:77] Creating layer fc4_postscale
I0409 19:45:42.581909 23760 net.cpp:100] Creating Layer fc4_postscale
I0409 19:45:42.581912 23760 net.cpp:434] fc4_postscale <- fc4_300
I0409 19:45:42.581918 23760 net.cpp:395] fc4_postscale -> fc4_300 (in-place)
I0409 19:45:42.582010 23760 net.cpp:150] Setting up fc4_postscale
I0409 19:45:42.582020 23760 net.cpp:157] Top shape: 1024 300 (307200)
I0409 19:45:42.582022 23760 net.cpp:165] Memory required for data: 4106715136
I0409 19:45:42.582028 23760 layer_factory.hpp:77] Creating layer drop4
I0409 19:45:42.582036 23760 net.cpp:100] Creating Layer drop4
I0409 19:45:42.582038 23760 net.cpp:434] drop4 <- fc4_300
I0409 19:45:42.582042 23760 net.cpp:395] drop4 -> fc4_300 (in-place)
I0409 19:45:42.582065 23760 net.cpp:150] Setting up drop4
I0409 19:45:42.582075 23760 net.cpp:157] Top shape: 1024 300 (307200)
I0409 19:45:42.582078 23760 net.cpp:165] Memory required for data: 4107943936
I0409 19:45:42.582082 23760 layer_factory.hpp:77] Creating layer fc5_67
I0409 19:45:42.582087 23760 net.cpp:100] Creating Layer fc5_67
I0409 19:45:42.582089 23760 net.cpp:434] fc5_67 <- fc4_300
I0409 19:45:42.582094 23760 net.cpp:408] fc5_67 -> fc5_classes
I0409 19:45:42.582334 23760 net.cpp:150] Setting up fc5_67
I0409 19:45:42.582343 23760 net.cpp:157] Top shape: 1024 67 (68608)
I0409 19:45:42.582346 23760 net.cpp:165] Memory required for data: 4108218368
I0409 19:45:42.582355 23760 layer_factory.hpp:77] Creating layer fc5_classes_fc5_67_0_split
I0409 19:45:42.582365 23760 net.cpp:100] Creating Layer fc5_classes_fc5_67_0_split
I0409 19:45:42.582368 23760 net.cpp:434] fc5_classes_fc5_67_0_split <- fc5_classes
I0409 19:45:42.582373 23760 net.cpp:408] fc5_classes_fc5_67_0_split -> fc5_classes_fc5_67_0_split_0
I0409 19:45:42.582379 23760 net.cpp:408] fc5_classes_fc5_67_0_split -> fc5_classes_fc5_67_0_split_1
I0409 19:45:42.582386 23760 net.cpp:408] fc5_classes_fc5_67_0_split -> fc5_classes_fc5_67_0_split_2
I0409 19:45:42.582433 23760 net.cpp:150] Setting up fc5_classes_fc5_67_0_split
I0409 19:45:42.582440 23760 net.cpp:157] Top shape: 1024 67 (68608)
I0409 19:45:42.582444 23760 net.cpp:157] Top shape: 1024 67 (68608)
I0409 19:45:42.582448 23760 net.cpp:157] Top shape: 1024 67 (68608)
I0409 19:45:42.582449 23760 net.cpp:165] Memory required for data: 4109041664
I0409 19:45:42.582453 23760 layer_factory.hpp:77] Creating layer loss
I0409 19:45:42.582458 23760 net.cpp:100] Creating Layer loss
I0409 19:45:42.582461 23760 net.cpp:434] loss <- fc5_classes_fc5_67_0_split_0
I0409 19:45:42.582466 23760 net.cpp:434] loss <- label_data_1_split_0
I0409 19:45:42.582470 23760 net.cpp:408] loss -> loss
…
