…
I0409 19:43:58.536409 12838 net.cpp:322] The NetState phase (0) differed from the phase (1) specified by a rule in layer accuracy_5
I0409 19:43:58.536554 12838 net.cpp:58] Initializing net from parameters: 
state {
  phase: TRAIN
  level: 0
  stage: ""
}
layer {
  name: "data"
  type: "Data"
  top: "data"
  top: "label"
  include {
    phase: TRAIN
  }
  transform_param {
    mirror: false
    crop_size: 48
    mean_value: 132
    mean_value: 132
    mean_value: 131
  }
  data_param {
    source: "../local_data/lmdb/rtsd-r1/CoNorm/train/lmdb"
    batch_size: 1024
    backend: LMDB
  }
}
layer {
  name: "conv1"
  type: "Convolution"
  bottom: "data"
  top: "conv1"
  convolution_param {
    num_output: 100
    pad: 0
    kernel_size: 7
    group: 1
    stride: 1
    weight_filler {
      type: "xavier"
    }
  }
}
layer {
  name: "conv1_prescale"
  type: "Scale"
  bottom: "conv1"
  top: "conv1"
  param {
    lr_mult: 0
    decay_mult: 0
  }
  scale_param {
    filler {
      value: 0.6666
    }
  }
}
layer {
  name: "conv1_sTanH"
  type: "TanH"
  bottom: "conv1"
  top: "conv1"
}
layer {
  name: "conv1_postscale"
  type: "Scale"
  bottom: "conv1"
  top: "conv1"
  param {
    lr_mult: 0
    decay_mult: 0
  }
  scale_param {
    filler {
      value: 1.7159
    }
  }
}
layer {
  name: "pool1"
  type: "Pooling"
  bottom: "conv1"
  top: "pool1"
  pooling_param {
    pool: MAX
    kernel_size: 2
    stride: 2
  }
}
layer {
  name: "conv2"
  type: "Convolution"
  bottom: "pool1"
  top: "conv2"
  convolution_param {
    num_output: 150
    pad: 0
    kernel_size: 4
    group: 1
    stride: 1
    weight_filler {
      type: "xavier"
    }
  }
}
layer {
  name: "conv2_prescale"
  type: "Scale"
  bottom: "conv2"
  top: "conv2"
  param {
    lr_mult: 0
    decay_mult: 0
  }
  scale_param {
    filler {
      value: 0.6666
    }
  }
}
layer {
  name: "conv2_sTanH"
  type: "TanH"
  bottom: "conv2"
  top: "conv2"
}
layer {
  name: "conv2_postscale"
  type: "Scale"
  bottom: "conv2"
  top: "conv2"
  param {
    lr_mult: 0
    decay_mult: 0
  }
  scale_param {
    filler {
      value: 1.7159
    }
  }
}
layer {
  name: "pool2"
  type: "Pooling"
  bottom: "conv2"
  top: "pool2"
  pooling_param {
    pool: MAX
    kernel_size: 2
    stride: 2
  }
}
layer {
  name: "conv3"
  type: "Convolution"
  bottom: "pool2"
  top: "conv3"
  convolution_param {
    num_output: 250
    pad: 0
    kernel_size: 4
    group: 1
    stride: 1
    weight_filler {
      type: "xavier"
    }
  }
}
layer {
  name: "conv3_prescale"
  type: "Scale"
  bottom: "conv3"
  top: "conv3"
  param {
    lr_mult: 0
    decay_mult: 0
  }
  scale_param {
    filler {
      value: 0.6666
    }
  }
}
layer {
  name: "conv3_sTanH"
  type: "TanH"
  bottom: "conv3"
  top: "conv3"
}
layer {
  name: "conv3_postscale"
  type: "Scale"
  bottom: "conv3"
  top: "conv3"
  param {
    lr_mult: 0
    decay_mult: 0
  }
  scale_param {
    filler {
      value: 1.7159
    }
  }
}
layer {
  name: "pool3"
  type: "Pooling"
  bottom: "conv3"
  top: "pool3"
  pooling_param {
    pool: MAX
    kernel_size: 2
    stride: 2
  }
}
layer {
  name: "fc4_300"
  type: "InnerProduct"
  bottom: "pool3"
  top: "fc4_300"
  inner_product_param {
    num_output: 300
    weight_filler {
      type: "xavier"
    }
  }
}
layer {
  name: "fc4_prescale"
  type: "Scale"
  bottom: "fc4_300"
  top: "fc4_300"
  param {
    lr_mult: 0
    decay_mult: 0
  }
  scale_param {
    filler {
      value: 0.6666
    }
  }
}
layer {
  name: "fc4_sTanH"
  type: "TanH"
  bottom: "fc4_300"
  top: "fc4_300"
}
layer {
  name: "fc4_postscale"
  type: "Scale"
  bottom: "fc4_300"
  top: "fc4_300"
  param {
    lr_mult: 0
    decay_mult: 0
  }
  scale_param {
    filler {
      value: 1.7159
    }
  }
}
layer {
  name: "drop4"
  type: "Dropout"
  bottom: "fc4_300"
  top: "fc4_300"
  dropout_param {
    dropout_ratio: 0.4
  }
}
layer {
  name: "fc5_67"
  type: "InnerProduct"
  bottom: "fc4_300"
  top: "fc5_classes"
  inner_product_param {
    num_output: 67
    weight_filler {
      type: "xavier"
    }
  }
}
layer {
  name: "loss"
  type: "SoftmaxWithLoss"
  bottom: "fc5_classes"
  bottom: "label"
  top: "loss"
}
I0409 19:43:58.536659 12838 layer_factory.hpp:77] Creating layer data
I0409 19:43:58.537716 12838 net.cpp:100] Creating Layer data
I0409 19:43:58.537737 12838 net.cpp:408] data -> data
I0409 19:43:58.537760 12838 net.cpp:408] data -> label
I0409 19:43:58.539038 13074 db_lmdb.cpp:35] Opened lmdb ../local_data/lmdb/rtsd-r1/CoNorm/train/lmdb
I0409 19:43:58.555785 12838 data_layer.cpp:41] output data size: 1024,3,48,48
I0409 19:43:58.601109 12838 net.cpp:150] Setting up data
I0409 19:43:58.601140 12838 net.cpp:157] Top shape: 1024 3 48 48 (7077888)
I0409 19:43:58.601145 12838 net.cpp:157] Top shape: 1024 (1024)
I0409 19:43:58.601147 12838 net.cpp:165] Memory required for data: 28315648
I0409 19:43:58.601157 12838 layer_factory.hpp:77] Creating layer conv1
I0409 19:43:58.601181 12838 net.cpp:100] Creating Layer conv1
I0409 19:43:58.601186 12838 net.cpp:434] conv1 <- data
I0409 19:43:58.601199 12838 net.cpp:408] conv1 -> conv1
I0409 19:43:58.900387 12838 net.cpp:150] Setting up conv1
I0409 19:43:58.900416 12838 net.cpp:157] Top shape: 1024 100 42 42 (180633600)
I0409 19:43:58.900420 12838 net.cpp:165] Memory required for data: 750850048
I0409 19:43:58.900442 12838 layer_factory.hpp:77] Creating layer conv1_prescale
I0409 19:43:58.900457 12838 net.cpp:100] Creating Layer conv1_prescale
I0409 19:43:58.900473 12838 net.cpp:434] conv1_prescale <- conv1
I0409 19:43:58.900480 12838 net.cpp:395] conv1_prescale -> conv1 (in-place)
I0409 19:43:58.900591 12838 net.cpp:150] Setting up conv1_prescale
I0409 19:43:58.900600 12838 net.cpp:157] Top shape: 1024 100 42 42 (180633600)
I0409 19:43:58.900610 12838 net.cpp:165] Memory required for data: 1473384448
I0409 19:43:58.900617 12838 layer_factory.hpp:77] Creating layer conv1_sTanH
I0409 19:43:58.900624 12838 net.cpp:100] Creating Layer conv1_sTanH
I0409 19:43:58.900629 12838 net.cpp:434] conv1_sTanH <- conv1
I0409 19:43:58.900634 12838 net.cpp:395] conv1_sTanH -> conv1 (in-place)
I0409 19:43:58.900830 12838 net.cpp:150] Setting up conv1_sTanH
I0409 19:43:58.900841 12838 net.cpp:157] Top shape: 1024 100 42 42 (180633600)
I0409 19:43:58.900846 12838 net.cpp:165] Memory required for data: 2195918848
I0409 19:43:58.900849 12838 layer_factory.hpp:77] Creating layer conv1_postscale
I0409 19:43:58.900857 12838 net.cpp:100] Creating Layer conv1_postscale
I0409 19:43:58.900861 12838 net.cpp:434] conv1_postscale <- conv1
I0409 19:43:58.900867 12838 net.cpp:395] conv1_postscale -> conv1 (in-place)
I0409 19:43:58.900962 12838 net.cpp:150] Setting up conv1_postscale
I0409 19:43:58.900970 12838 net.cpp:157] Top shape: 1024 100 42 42 (180633600)
I0409 19:43:58.900974 12838 net.cpp:165] Memory required for data: 2918453248
I0409 19:43:58.900979 12838 layer_factory.hpp:77] Creating layer pool1
I0409 19:43:58.900986 12838 net.cpp:100] Creating Layer pool1
I0409 19:43:58.900991 12838 net.cpp:434] pool1 <- conv1
I0409 19:43:58.900996 12838 net.cpp:408] pool1 -> pool1
I0409 19:43:58.901042 12838 net.cpp:150] Setting up pool1
I0409 19:43:58.901051 12838 net.cpp:157] Top shape: 1024 100 21 21 (45158400)
I0409 19:43:58.901056 12838 net.cpp:165] Memory required for data: 3099086848
I0409 19:43:58.901079 12838 layer_factory.hpp:77] Creating layer conv2
I0409 19:43:58.901090 12838 net.cpp:100] Creating Layer conv2
I0409 19:43:58.901095 12838 net.cpp:434] conv2 <- pool1
I0409 19:43:58.901100 12838 net.cpp:408] conv2 -> conv2
I0409 19:43:58.905936 12838 net.cpp:150] Setting up conv2
I0409 19:43:58.905953 12838 net.cpp:157] Top shape: 1024 150 18 18 (49766400)
I0409 19:43:58.905971 12838 net.cpp:165] Memory required for data: 3298152448
I0409 19:43:58.905980 12838 layer_factory.hpp:77] Creating layer conv2_prescale
I0409 19:43:58.905990 12838 net.cpp:100] Creating Layer conv2_prescale
I0409 19:43:58.905995 12838 net.cpp:434] conv2_prescale <- conv2
I0409 19:43:58.906002 12838 net.cpp:395] conv2_prescale -> conv2 (in-place)
I0409 19:43:58.906111 12838 net.cpp:150] Setting up conv2_prescale
I0409 19:43:58.906119 12838 net.cpp:157] Top shape: 1024 150 18 18 (49766400)
I0409 19:43:58.906123 12838 net.cpp:165] Memory required for data: 3497218048
I0409 19:43:58.906128 12838 layer_factory.hpp:77] Creating layer conv2_sTanH
I0409 19:43:58.906136 12838 net.cpp:100] Creating Layer conv2_sTanH
I0409 19:43:58.906141 12838 net.cpp:434] conv2_sTanH <- conv2
I0409 19:43:58.906144 12838 net.cpp:395] conv2_sTanH -> conv2 (in-place)
I0409 19:43:58.908428 12838 net.cpp:150] Setting up conv2_sTanH
I0409 19:43:58.908444 12838 net.cpp:157] Top shape: 1024 150 18 18 (49766400)
I0409 19:43:58.908450 12838 net.cpp:165] Memory required for data: 3696283648
I0409 19:43:58.908453 12838 layer_factory.hpp:77] Creating layer conv2_postscale
I0409 19:43:58.908462 12838 net.cpp:100] Creating Layer conv2_postscale
I0409 19:43:58.908466 12838 net.cpp:434] conv2_postscale <- conv2
I0409 19:43:58.908473 12838 net.cpp:395] conv2_postscale -> conv2 (in-place)
I0409 19:43:58.908568 12838 net.cpp:150] Setting up conv2_postscale
I0409 19:43:58.908577 12838 net.cpp:157] Top shape: 1024 150 18 18 (49766400)
I0409 19:43:58.908581 12838 net.cpp:165] Memory required for data: 3895349248
I0409 19:43:58.908586 12838 layer_factory.hpp:77] Creating layer pool2
I0409 19:43:58.908593 12838 net.cpp:100] Creating Layer pool2
I0409 19:43:58.908598 12838 net.cpp:434] pool2 <- conv2
I0409 19:43:58.908603 12838 net.cpp:408] pool2 -> pool2
I0409 19:43:58.908643 12838 net.cpp:150] Setting up pool2
I0409 19:43:58.908649 12838 net.cpp:157] Top shape: 1024 150 9 9 (12441600)
I0409 19:43:58.908654 12838 net.cpp:165] Memory required for data: 3945115648
I0409 19:43:58.908658 12838 layer_factory.hpp:77] Creating layer conv3
I0409 19:43:58.908665 12838 net.cpp:100] Creating Layer conv3
I0409 19:43:58.908670 12838 net.cpp:434] conv3 <- pool2
I0409 19:43:58.908675 12838 net.cpp:408] conv3 -> conv3
I0409 19:43:58.914206 12838 net.cpp:150] Setting up conv3
I0409 19:43:58.914223 12838 net.cpp:157] Top shape: 1024 250 6 6 (9216000)
I0409 19:43:58.914228 12838 net.cpp:165] Memory required for data: 3981979648
I0409 19:43:58.914245 12838 layer_factory.hpp:77] Creating layer conv3_prescale
I0409 19:43:58.914254 12838 net.cpp:100] Creating Layer conv3_prescale
I0409 19:43:58.914271 12838 net.cpp:434] conv3_prescale <- conv3
I0409 19:43:58.914276 12838 net.cpp:395] conv3_prescale -> conv3 (in-place)
I0409 19:43:58.914371 12838 net.cpp:150] Setting up conv3_prescale
I0409 19:43:58.914379 12838 net.cpp:157] Top shape: 1024 250 6 6 (9216000)
I0409 19:43:58.914384 12838 net.cpp:165] Memory required for data: 4018843648
I0409 19:43:58.914389 12838 layer_factory.hpp:77] Creating layer conv3_sTanH
I0409 19:43:58.914394 12838 net.cpp:100] Creating Layer conv3_sTanH
I0409 19:43:58.914399 12838 net.cpp:434] conv3_sTanH <- conv3
I0409 19:43:58.914403 12838 net.cpp:395] conv3_sTanH -> conv3 (in-place)
I0409 19:43:58.916626 12838 net.cpp:150] Setting up conv3_sTanH
I0409 19:43:58.916643 12838 net.cpp:157] Top shape: 1024 250 6 6 (9216000)
I0409 19:43:58.916647 12838 net.cpp:165] Memory required for data: 4055707648
I0409 19:43:58.916651 12838 layer_factory.hpp:77] Creating layer conv3_postscale
I0409 19:43:58.916664 12838 net.cpp:100] Creating Layer conv3_postscale
I0409 19:43:58.916694 12838 net.cpp:434] conv3_postscale <- conv3
I0409 19:43:58.916702 12838 net.cpp:395] conv3_postscale -> conv3 (in-place)
I0409 19:43:58.916800 12838 net.cpp:150] Setting up conv3_postscale
I0409 19:43:58.916808 12838 net.cpp:157] Top shape: 1024 250 6 6 (9216000)
I0409 19:43:58.916811 12838 net.cpp:165] Memory required for data: 4092571648
I0409 19:43:58.916816 12838 layer_factory.hpp:77] Creating layer pool3
I0409 19:43:58.916823 12838 net.cpp:100] Creating Layer pool3
I0409 19:43:58.916828 12838 net.cpp:434] pool3 <- conv3
I0409 19:43:58.916833 12838 net.cpp:408] pool3 -> pool3
I0409 19:43:58.916872 12838 net.cpp:150] Setting up pool3
I0409 19:43:58.916878 12838 net.cpp:157] Top shape: 1024 250 3 3 (2304000)
I0409 19:43:58.916882 12838 net.cpp:165] Memory required for data: 4101787648
I0409 19:43:58.916884 12838 layer_factory.hpp:77] Creating layer fc4_300
I0409 19:43:58.916893 12838 net.cpp:100] Creating Layer fc4_300
I0409 19:43:58.916898 12838 net.cpp:434] fc4_300 <- pool3
I0409 19:43:58.916903 12838 net.cpp:408] fc4_300 -> fc4_300
I0409 19:43:58.922900 12838 net.cpp:150] Setting up fc4_300
I0409 19:43:58.922917 12838 net.cpp:157] Top shape: 1024 300 (307200)
I0409 19:43:58.922920 12838 net.cpp:165] Memory required for data: 4103016448
I0409 19:43:58.922929 12838 layer_factory.hpp:77] Creating layer fc4_prescale
I0409 19:43:58.922937 12838 net.cpp:100] Creating Layer fc4_prescale
I0409 19:43:58.922942 12838 net.cpp:434] fc4_prescale <- fc4_300
I0409 19:43:58.922947 12838 net.cpp:395] fc4_prescale -> fc4_300 (in-place)
I0409 19:43:58.923034 12838 net.cpp:150] Setting up fc4_prescale
I0409 19:43:58.923043 12838 net.cpp:157] Top shape: 1024 300 (307200)
I0409 19:43:58.923045 12838 net.cpp:165] Memory required for data: 4104245248
I0409 19:43:58.923054 12838 layer_factory.hpp:77] Creating layer fc4_sTanH
I0409 19:43:58.923060 12838 net.cpp:100] Creating Layer fc4_sTanH
I0409 19:43:58.923063 12838 net.cpp:434] fc4_sTanH <- fc4_300
I0409 19:43:58.923068 12838 net.cpp:395] fc4_sTanH -> fc4_300 (in-place)
I0409 19:43:58.923246 12838 net.cpp:150] Setting up fc4_sTanH
I0409 19:43:58.923259 12838 net.cpp:157] Top shape: 1024 300 (307200)
I0409 19:43:58.923264 12838 net.cpp:165] Memory required for data: 4105474048
I0409 19:43:58.923266 12838 layer_factory.hpp:77] Creating layer fc4_postscale
I0409 19:43:58.923274 12838 net.cpp:100] Creating Layer fc4_postscale
I0409 19:43:58.923279 12838 net.cpp:434] fc4_postscale <- fc4_300
I0409 19:43:58.923283 12838 net.cpp:395] fc4_postscale -> fc4_300 (in-place)
I0409 19:43:58.923374 12838 net.cpp:150] Setting up fc4_postscale
I0409 19:43:58.923382 12838 net.cpp:157] Top shape: 1024 300 (307200)
I0409 19:43:58.923385 12838 net.cpp:165] Memory required for data: 4106702848
I0409 19:43:58.923390 12838 layer_factory.hpp:77] Creating layer drop4
I0409 19:43:58.923398 12838 net.cpp:100] Creating Layer drop4
I0409 19:43:58.923403 12838 net.cpp:434] drop4 <- fc4_300
I0409 19:43:58.923408 12838 net.cpp:395] drop4 -> fc4_300 (in-place)
I0409 19:43:58.923434 12838 net.cpp:150] Setting up drop4
I0409 19:43:58.923440 12838 net.cpp:157] Top shape: 1024 300 (307200)
I0409 19:43:58.923444 12838 net.cpp:165] Memory required for data: 4107931648
I0409 19:43:58.923446 12838 layer_factory.hpp:77] Creating layer fc5_67
I0409 19:43:58.923452 12838 net.cpp:100] Creating Layer fc5_67
I0409 19:43:58.923456 12838 net.cpp:434] fc5_67 <- fc4_300
I0409 19:43:58.923461 12838 net.cpp:408] fc5_67 -> fc5_classes
I0409 19:43:58.931100 12838 net.cpp:150] Setting up fc5_67
I0409 19:43:58.931119 12838 net.cpp:157] Top shape: 1024 67 (68608)
I0409 19:43:58.931124 12838 net.cpp:165] Memory required for data: 4108206080
I0409 19:43:58.931136 12838 layer_factory.hpp:77] Creating layer loss
I0409 19:43:58.931145 12838 net.cpp:100] Creating Layer loss
I0409 19:43:58.931150 12838 net.cpp:434] loss <- fc5_classes
I0409 19:43:58.931155 12838 net.cpp:434] loss <- label
I0409 19:43:58.931161 12838 net.cpp:408] loss -> loss
I0409 19:43:58.931175 12838 layer_factory.hpp:77] Creating layer loss
…
I0409 19:43:58.931952 12838 solver.cpp:193] Creating test net (#0) specified by test_net file: ./Prototxt/experiment_7/rtsd-r1/CoNorm/trial_1/test.prototxt
I0409 19:43:58.932142 12838 net.cpp:58] Initializing net from parameters: 
state {
  phase: TEST
}
layer {
  name: "data"
  type: "Data"
  top: "data"
  top: "label"
  include {
    phase: TEST
  }
  transform_param {
    mirror: false
    crop_size: 48
    mean_value: 133
    mean_value: 133
    mean_value: 132
  }
  data_param {
    source: "../local_data/lmdb/rtsd-r1/CoNorm/test/lmdb"
    batch_size: 1024
    backend: LMDB
  }
}
layer {
  name: "conv1"
  type: "Convolution"
  bottom: "data"
  top: "conv1"
  convolution_param {
    num_output: 100
    pad: 0
    kernel_size: 7
    group: 1
    stride: 1
    weight_filler {
      type: "xavier"
    }
  }
}
layer {
  name: "conv1_prescale"
  type: "Scale"
  bottom: "conv1"
  top: "conv1"
  param {
    lr_mult: 0
    decay_mult: 0
  }
  scale_param {
    filler {
      value: 0.6666
    }
  }
}
layer {
  name: "conv1_sTanH"
  type: "TanH"
  bottom: "conv1"
  top: "conv1"
}
layer {
  name: "conv1_postscale"
  type: "Scale"
  bottom: "conv1"
  top: "conv1"
  param {
    lr_mult: 0
    decay_mult: 0
  }
  scale_param {
    filler {
      value: 1.7159
    }
  }
}
layer {
  name: "pool1"
  type: "Pooling"
  bottom: "conv1"
  top: "pool1"
  pooling_param {
    pool: MAX
    kernel_size: 2
    stride: 2
  }
}
layer {
  name: "conv2"
  type: "Convolution"
  bottom: "pool1"
  top: "conv2"
  convolution_param {
    num_output: 150
    pad: 0
    kernel_size: 4
    group: 1
    stride: 1
    weight_filler {
      type: "xavier"
    }
  }
}
layer {
  name: "conv2_prescale"
  type: "Scale"
  bottom: "conv2"
  top: "conv2"
  param {
    lr_mult: 0
    decay_mult: 0
  }
  scale_param {
    filler {
      value: 0.6666
    }
  }
}
layer {
  name: "conv2_sTanH"
  type: "TanH"
  bottom: "conv2"
  top: "conv2"
}
layer {
  name: "conv2_postscale"
  type: "Scale"
  bottom: "conv2"
  top: "conv2"
  param {
    lr_mult: 0
    decay_mult: 0
  }
  scale_param {
    filler {
      value: 1.7159
    }
  }
}
layer {
  name: "pool2"
  type: "Pooling"
  bottom: "conv2"
  top: "pool2"
  pooling_param {
    pool: MAX
    kernel_size: 2
    stride: 2
  }
}
layer {
  name: "conv3"
  type: "Convolution"
  bottom: "pool2"
  top: "conv3"
  convolution_param {
    num_output: 250
    pad: 0
    kernel_size: 4
    group: 1
    stride: 1
    weight_filler {
      type: "xavier"
    }
  }
}
layer {
  name: "conv3_prescale"
  type: "Scale"
  bottom: "conv3"
  top: "conv3"
  param {
    lr_mult: 0
    decay_mult: 0
  }
  scale_param {
    filler {
      value: 0.6666
    }
  }
}
layer {
  name: "conv3_sTanH"
  type: "TanH"
  bottom: "conv3"
  top: "conv3"
}
layer {
  name: "conv3_postscale"
  type: "Scale"
  bottom: "conv3"
  top: "conv3"
  param {
    lr_mult: 0
    decay_mult: 0
  }
  scale_param {
    filler {
      value: 1.7159
    }
  }
}
layer {
  name: "pool3"
  type: "Pooling"
  bottom: "conv3"
  top: "pool3"
  pooling_param {
    pool: MAX
    kernel_size: 2
    stride: 2
  }
}
layer {
  name: "fc4_300"
  type: "InnerProduct"
  bottom: "pool3"
  top: "fc4_300"
  inner_product_param {
    num_output: 300
    weight_filler {
      type: "xavier"
    }
  }
}
layer {
  name: "fc4_prescale"
  type: "Scale"
  bottom: "fc4_300"
  top: "fc4_300"
  param {
    lr_mult: 0
    decay_mult: 0
  }
  scale_param {
    filler {
      value: 0.6666
    }
  }
}
layer {
  name: "fc4_sTanH"
  type: "TanH"
  bottom: "fc4_300"
  top: "fc4_300"
}
layer {
  name: "fc4_postscale"
  type: "Scale"
  bottom: "fc4_300"
  top: "fc4_300"
  param {
    lr_mult: 0
    decay_mult: 0
  }
  scale_param {
    filler {
      value: 1.7159
    }
  }
}
layer {
  name: "drop4"
  type: "Dropout"
  bottom: "fc4_300"
  top: "fc4_300"
  dropout_param {
    dropout_ratio: 0.4
  }
}
layer {
  name: "fc5_67"
  type: "InnerProduct"
  bottom: "fc4_300"
  top: "fc5_classes"
  inner_product_param {
    num_output: 67
    weight_filler {
      type: "xavier"
    }
  }
}
layer {
  name: "loss"
  type: "SoftmaxWithLoss"
  bottom: "fc5_classes"
  bottom: "label"
  top: "loss"
}
layer {
  name: "accuracy_1"
  type: "Accuracy"
  bottom: "fc5_classes"
  bottom: "label"
  top: "accuracy_1"
  include {
    phase: TEST
  }
  accuracy_param {
    top_k: 1
  }
}
layer {
  name: "accuracy_5"
  type: "Accuracy"
  bottom: "fc5_classes"
  bottom: "label"
  top: "accuracy_5"
  include {
    phase: TEST
  }
  accuracy_param {
    top_k: 5
  }
}
I0409 19:43:58.932256 12838 layer_factory.hpp:77] Creating layer data
I0409 19:43:58.932842 12838 net.cpp:100] Creating Layer data
I0409 19:43:58.932854 12838 net.cpp:408] data -> data
I0409 19:43:58.932864 12838 net.cpp:408] data -> label
I0409 19:43:58.938213 13254 db_lmdb.cpp:35] Opened lmdb ../local_data/lmdb/rtsd-r1/CoNorm/test/lmdb
I0409 19:43:58.938364 12838 data_layer.cpp:41] output data size: 1024,3,48,48
I0409 19:43:58.982969 12838 net.cpp:150] Setting up data
I0409 19:43:58.982996 12838 net.cpp:157] Top shape: 1024 3 48 48 (7077888)
I0409 19:43:58.983002 12838 net.cpp:157] Top shape: 1024 (1024)
I0409 19:43:58.983005 12838 net.cpp:165] Memory required for data: 28315648
I0409 19:43:58.983011 12838 layer_factory.hpp:77] Creating layer label_data_1_split
I0409 19:43:58.983024 12838 net.cpp:100] Creating Layer label_data_1_split
I0409 19:43:58.983031 12838 net.cpp:434] label_data_1_split <- label
I0409 19:43:58.983038 12838 net.cpp:408] label_data_1_split -> label_data_1_split_0
I0409 19:43:58.983049 12838 net.cpp:408] label_data_1_split -> label_data_1_split_1
I0409 19:43:58.983057 12838 net.cpp:408] label_data_1_split -> label_data_1_split_2
I0409 19:43:58.983198 12838 net.cpp:150] Setting up label_data_1_split
I0409 19:43:58.983208 12838 net.cpp:157] Top shape: 1024 (1024)
I0409 19:43:58.983212 12838 net.cpp:157] Top shape: 1024 (1024)
I0409 19:43:58.983217 12838 net.cpp:157] Top shape: 1024 (1024)
I0409 19:43:58.983218 12838 net.cpp:165] Memory required for data: 28327936
I0409 19:43:58.983238 12838 layer_factory.hpp:77] Creating layer conv1
I0409 19:43:58.983253 12838 net.cpp:100] Creating Layer conv1
I0409 19:43:58.983258 12838 net.cpp:434] conv1 <- data
I0409 19:43:58.983264 12838 net.cpp:408] conv1 -> conv1
I0409 19:43:58.985965 12838 net.cpp:150] Setting up conv1
I0409 19:43:58.985982 12838 net.cpp:157] Top shape: 1024 100 42 42 (180633600)
I0409 19:43:58.985986 12838 net.cpp:165] Memory required for data: 750862336
I0409 19:43:58.985998 12838 layer_factory.hpp:77] Creating layer conv1_prescale
I0409 19:43:58.986009 12838 net.cpp:100] Creating Layer conv1_prescale
I0409 19:43:58.986014 12838 net.cpp:434] conv1_prescale <- conv1
I0409 19:43:58.986021 12838 net.cpp:395] conv1_prescale -> conv1 (in-place)
I0409 19:43:58.986127 12838 net.cpp:150] Setting up conv1_prescale
I0409 19:43:58.986136 12838 net.cpp:157] Top shape: 1024 100 42 42 (180633600)
I0409 19:43:58.986140 12838 net.cpp:165] Memory required for data: 1473396736
I0409 19:43:58.986146 12838 layer_factory.hpp:77] Creating layer conv1_sTanH
I0409 19:43:58.986155 12838 net.cpp:100] Creating Layer conv1_sTanH
I0409 19:43:58.986160 12838 net.cpp:434] conv1_sTanH <- conv1
I0409 19:43:58.986166 12838 net.cpp:395] conv1_sTanH -> conv1 (in-place)
I0409 19:43:58.986351 12838 net.cpp:150] Setting up conv1_sTanH
I0409 19:43:58.986363 12838 net.cpp:157] Top shape: 1024 100 42 42 (180633600)
I0409 19:43:58.986366 12838 net.cpp:165] Memory required for data: 2195931136
I0409 19:43:58.986369 12838 layer_factory.hpp:77] Creating layer conv1_postscale
I0409 19:43:58.986377 12838 net.cpp:100] Creating Layer conv1_postscale
I0409 19:43:58.986382 12838 net.cpp:434] conv1_postscale <- conv1
I0409 19:43:58.986388 12838 net.cpp:395] conv1_postscale -> conv1 (in-place)
I0409 19:43:58.986493 12838 net.cpp:150] Setting up conv1_postscale
I0409 19:43:58.986502 12838 net.cpp:157] Top shape: 1024 100 42 42 (180633600)
I0409 19:43:58.986505 12838 net.cpp:165] Memory required for data: 2918465536
I0409 19:43:58.986510 12838 layer_factory.hpp:77] Creating layer pool1
I0409 19:43:58.986517 12838 net.cpp:100] Creating Layer pool1
I0409 19:43:58.986521 12838 net.cpp:434] pool1 <- conv1
I0409 19:43:58.986526 12838 net.cpp:408] pool1 -> pool1
I0409 19:43:58.986567 12838 net.cpp:150] Setting up pool1
I0409 19:43:58.986574 12838 net.cpp:157] Top shape: 1024 100 21 21 (45158400)
I0409 19:43:58.986579 12838 net.cpp:165] Memory required for data: 3099099136
I0409 19:43:58.986582 12838 layer_factory.hpp:77] Creating layer conv2
I0409 19:43:58.986590 12838 net.cpp:100] Creating Layer conv2
I0409 19:43:58.986595 12838 net.cpp:434] conv2 <- pool1
I0409 19:43:58.986600 12838 net.cpp:408] conv2 -> conv2
I0409 19:43:58.992684 12838 net.cpp:150] Setting up conv2
I0409 19:43:58.992707 12838 net.cpp:157] Top shape: 1024 150 18 18 (49766400)
I0409 19:43:58.992710 12838 net.cpp:165] Memory required for data: 3298164736
I0409 19:43:58.992722 12838 layer_factory.hpp:77] Creating layer conv2_prescale
I0409 19:43:58.992735 12838 net.cpp:100] Creating Layer conv2_prescale
I0409 19:43:58.992741 12838 net.cpp:434] conv2_prescale <- conv2
I0409 19:43:58.992748 12838 net.cpp:395] conv2_prescale -> conv2 (in-place)
I0409 19:43:58.992859 12838 net.cpp:150] Setting up conv2_prescale
I0409 19:43:58.992868 12838 net.cpp:157] Top shape: 1024 150 18 18 (49766400)
I0409 19:43:58.992871 12838 net.cpp:165] Memory required for data: 3497230336
I0409 19:43:58.992877 12838 layer_factory.hpp:77] Creating layer conv2_sTanH
I0409 19:43:58.992883 12838 net.cpp:100] Creating Layer conv2_sTanH
I0409 19:43:58.992887 12838 net.cpp:434] conv2_sTanH <- conv2
I0409 19:43:58.992890 12838 net.cpp:395] conv2_sTanH -> conv2 (in-place)
I0409 19:43:58.993904 12838 net.cpp:150] Setting up conv2_sTanH
I0409 19:43:58.993921 12838 net.cpp:157] Top shape: 1024 150 18 18 (49766400)
I0409 19:43:58.993923 12838 net.cpp:165] Memory required for data: 3696295936
I0409 19:43:58.993927 12838 layer_factory.hpp:77] Creating layer conv2_postscale
I0409 19:43:58.993935 12838 net.cpp:100] Creating Layer conv2_postscale
I0409 19:43:58.993955 12838 net.cpp:434] conv2_postscale <- conv2
I0409 19:43:58.993963 12838 net.cpp:395] conv2_postscale -> conv2 (in-place)
I0409 19:43:58.994071 12838 net.cpp:150] Setting up conv2_postscale
I0409 19:43:58.994079 12838 net.cpp:157] Top shape: 1024 150 18 18 (49766400)
I0409 19:43:58.994082 12838 net.cpp:165] Memory required for data: 3895361536
I0409 19:43:58.994088 12838 layer_factory.hpp:77] Creating layer pool2
I0409 19:43:58.994094 12838 net.cpp:100] Creating Layer pool2
I0409 19:43:58.994110 12838 net.cpp:434] pool2 <- conv2
I0409 19:43:58.994117 12838 net.cpp:408] pool2 -> pool2
I0409 19:43:58.994163 12838 net.cpp:150] Setting up pool2
I0409 19:43:58.994171 12838 net.cpp:157] Top shape: 1024 150 9 9 (12441600)
I0409 19:43:58.994175 12838 net.cpp:165] Memory required for data: 3945127936
I0409 19:43:58.994179 12838 layer_factory.hpp:77] Creating layer conv3
I0409 19:43:58.994187 12838 net.cpp:100] Creating Layer conv3
I0409 19:43:58.994192 12838 net.cpp:434] conv3 <- pool2
I0409 19:43:58.994197 12838 net.cpp:408] conv3 -> conv3
I0409 19:43:59.000182 12838 net.cpp:150] Setting up conv3
I0409 19:43:59.000202 12838 net.cpp:157] Top shape: 1024 250 6 6 (9216000)
I0409 19:43:59.000206 12838 net.cpp:165] Memory required for data: 3981991936
I0409 19:43:59.000217 12838 layer_factory.hpp:77] Creating layer conv3_prescale
I0409 19:43:59.000226 12838 net.cpp:100] Creating Layer conv3_prescale
I0409 19:43:59.000236 12838 net.cpp:434] conv3_prescale <- conv3
I0409 19:43:59.000241 12838 net.cpp:395] conv3_prescale -> conv3 (in-place)
I0409 19:43:59.000339 12838 net.cpp:150] Setting up conv3_prescale
I0409 19:43:59.000347 12838 net.cpp:157] Top shape: 1024 250 6 6 (9216000)
I0409 19:43:59.000350 12838 net.cpp:165] Memory required for data: 4018855936
I0409 19:43:59.000355 12838 layer_factory.hpp:77] Creating layer conv3_sTanH
I0409 19:43:59.000361 12838 net.cpp:100] Creating Layer conv3_sTanH
I0409 19:43:59.000365 12838 net.cpp:434] conv3_sTanH <- conv3
I0409 19:43:59.000370 12838 net.cpp:395] conv3_sTanH -> conv3 (in-place)
I0409 19:43:59.001152 12838 net.cpp:150] Setting up conv3_sTanH
I0409 19:43:59.001169 12838 net.cpp:157] Top shape: 1024 250 6 6 (9216000)
I0409 19:43:59.001173 12838 net.cpp:165] Memory required for data: 4055719936
I0409 19:43:59.001178 12838 layer_factory.hpp:77] Creating layer conv3_postscale
I0409 19:43:59.001185 12838 net.cpp:100] Creating Layer conv3_postscale
I0409 19:43:59.001191 12838 net.cpp:434] conv3_postscale <- conv3
I0409 19:43:59.001197 12838 net.cpp:395] conv3_postscale -> conv3 (in-place)
I0409 19:43:59.001296 12838 net.cpp:150] Setting up conv3_postscale
I0409 19:43:59.001305 12838 net.cpp:157] Top shape: 1024 250 6 6 (9216000)
I0409 19:43:59.001308 12838 net.cpp:165] Memory required for data: 4092583936
I0409 19:43:59.001313 12838 layer_factory.hpp:77] Creating layer pool3
I0409 19:43:59.001322 12838 net.cpp:100] Creating Layer pool3
I0409 19:43:59.001327 12838 net.cpp:434] pool3 <- conv3
I0409 19:43:59.001332 12838 net.cpp:408] pool3 -> pool3
I0409 19:43:59.001372 12838 net.cpp:150] Setting up pool3
I0409 19:43:59.001380 12838 net.cpp:157] Top shape: 1024 250 3 3 (2304000)
I0409 19:43:59.001384 12838 net.cpp:165] Memory required for data: 4101799936
I0409 19:43:59.001386 12838 layer_factory.hpp:77] Creating layer fc4_300
I0409 19:43:59.001394 12838 net.cpp:100] Creating Layer fc4_300
I0409 19:43:59.001396 12838 net.cpp:434] fc4_300 <- pool3
I0409 19:43:59.001401 12838 net.cpp:408] fc4_300 -> fc4_300
I0409 19:43:59.006862 12838 net.cpp:150] Setting up fc4_300
I0409 19:43:59.006882 12838 net.cpp:157] Top shape: 1024 300 (307200)
I0409 19:43:59.006886 12838 net.cpp:165] Memory required for data: 4103028736
I0409 19:43:59.006893 12838 layer_factory.hpp:77] Creating layer fc4_prescale
I0409 19:43:59.006901 12838 net.cpp:100] Creating Layer fc4_prescale
I0409 19:43:59.006906 12838 net.cpp:434] fc4_prescale <- fc4_300
I0409 19:43:59.006911 12838 net.cpp:395] fc4_prescale -> fc4_300 (in-place)
I0409 19:43:59.007006 12838 net.cpp:150] Setting up fc4_prescale
I0409 19:43:59.007033 12838 net.cpp:157] Top shape: 1024 300 (307200)
I0409 19:43:59.007037 12838 net.cpp:165] Memory required for data: 4104257536
I0409 19:43:59.007042 12838 layer_factory.hpp:77] Creating layer fc4_sTanH
I0409 19:43:59.007048 12838 net.cpp:100] Creating Layer fc4_sTanH
I0409 19:43:59.007052 12838 net.cpp:434] fc4_sTanH <- fc4_300
I0409 19:43:59.007057 12838 net.cpp:395] fc4_sTanH -> fc4_300 (in-place)
I0409 19:43:59.007256 12838 net.cpp:150] Setting up fc4_sTanH
I0409 19:43:59.007266 12838 net.cpp:157] Top shape: 1024 300 (307200)
I0409 19:43:59.007269 12838 net.cpp:165] Memory required for data: 4105486336
I0409 19:43:59.007272 12838 layer_factory.hpp:77] Creating layer fc4_postscale
I0409 19:43:59.007279 12838 net.cpp:100] Creating Layer fc4_postscale
I0409 19:43:59.007283 12838 net.cpp:434] fc4_postscale <- fc4_300
I0409 19:43:59.007288 12838 net.cpp:395] fc4_postscale -> fc4_300 (in-place)
I0409 19:43:59.007398 12838 net.cpp:150] Setting up fc4_postscale
I0409 19:43:59.007407 12838 net.cpp:157] Top shape: 1024 300 (307200)
I0409 19:43:59.007411 12838 net.cpp:165] Memory required for data: 4106715136
I0409 19:43:59.007416 12838 layer_factory.hpp:77] Creating layer drop4
I0409 19:43:59.007421 12838 net.cpp:100] Creating Layer drop4
I0409 19:43:59.007424 12838 net.cpp:434] drop4 <- fc4_300
I0409 19:43:59.007429 12838 net.cpp:395] drop4 -> fc4_300 (in-place)
I0409 19:43:59.007453 12838 net.cpp:150] Setting up drop4
I0409 19:43:59.007460 12838 net.cpp:157] Top shape: 1024 300 (307200)
I0409 19:43:59.007463 12838 net.cpp:165] Memory required for data: 4107943936
I0409 19:43:59.007467 12838 layer_factory.hpp:77] Creating layer fc5_67
I0409 19:43:59.007472 12838 net.cpp:100] Creating Layer fc5_67
I0409 19:43:59.007475 12838 net.cpp:434] fc5_67 <- fc4_300
I0409 19:43:59.007480 12838 net.cpp:408] fc5_67 -> fc5_classes
I0409 19:43:59.007730 12838 net.cpp:150] Setting up fc5_67
I0409 19:43:59.007740 12838 net.cpp:157] Top shape: 1024 67 (68608)
I0409 19:43:59.007743 12838 net.cpp:165] Memory required for data: 4108218368
I0409 19:43:59.007753 12838 layer_factory.hpp:77] Creating layer fc5_classes_fc5_67_0_split
I0409 19:43:59.007762 12838 net.cpp:100] Creating Layer fc5_classes_fc5_67_0_split
I0409 19:43:59.007766 12838 net.cpp:434] fc5_classes_fc5_67_0_split <- fc5_classes
I0409 19:43:59.007771 12838 net.cpp:408] fc5_classes_fc5_67_0_split -> fc5_classes_fc5_67_0_split_0
I0409 19:43:59.007778 12838 net.cpp:408] fc5_classes_fc5_67_0_split -> fc5_classes_fc5_67_0_split_1
I0409 19:43:59.007784 12838 net.cpp:408] fc5_classes_fc5_67_0_split -> fc5_classes_fc5_67_0_split_2
I0409 19:43:59.007844 12838 net.cpp:150] Setting up fc5_classes_fc5_67_0_split
I0409 19:43:59.007853 12838 net.cpp:157] Top shape: 1024 67 (68608)
I0409 19:43:59.007856 12838 net.cpp:157] Top shape: 1024 67 (68608)
I0409 19:43:59.007860 12838 net.cpp:157] Top shape: 1024 67 (68608)
I0409 19:43:59.007863 12838 net.cpp:165] Memory required for data: 4109041664
I0409 19:43:59.007866 12838 layer_factory.hpp:77] Creating layer loss
I0409 19:43:59.007872 12838 net.cpp:100] Creating Layer loss
I0409 19:43:59.007875 12838 net.cpp:434] loss <- fc5_classes_fc5_67_0_split_0
I0409 19:43:59.007897 12838 net.cpp:434] loss <- label_data_1_split_0
I0409 19:43:59.007905 12838 net.cpp:408] loss -> loss
…
