…
I0409 19:56:34.770509 22874 net.cpp:322] The NetState phase (0) differed from the phase (1) specified by a rule in layer accuracy_5
I0409 19:56:34.770604 22874 net.cpp:58] Initializing net from parameters: 
state {
  phase: TRAIN
  level: 0
  stage: ""
}
layer {
  name: "data"
  type: "Data"
  top: "data"
  top: "label"
  include {
    phase: TRAIN
  }
  transform_param {
    mirror: false
    crop_size: 48
    mean_value: 132
    mean_value: 132
    mean_value: 131
  }
  data_param {
    source: "../local_data/lmdb/rtsd-r1/CoNorm/train/lmdb"
    batch_size: 1024
    backend: LMDB
  }
}
layer {
  name: "conv1"
  type: "Convolution"
  bottom: "data"
  top: "conv1"
  convolution_param {
    num_output: 100
    pad: 0
    kernel_size: 7
    group: 1
    stride: 1
    weight_filler {
      type: "xavier"
    }
  }
}
layer {
  name: "conv1_sTanH"
  type: "TanH"
  bottom: "conv1"
  top: "conv1"
}
layer {
  name: "pool1"
  type: "Pooling"
  bottom: "conv1"
  top: "pool1"
  pooling_param {
    pool: MAX
    kernel_size: 2
    stride: 2
  }
}
layer {
  name: "conv2"
  type: "Convolution"
  bottom: "pool1"
  top: "conv2"
  convolution_param {
    num_output: 150
    pad: 0
    kernel_size: 4
    group: 1
    stride: 1
    weight_filler {
      type: "xavier"
    }
  }
}
layer {
  name: "conv2_sTanH"
  type: "TanH"
  bottom: "conv2"
  top: "conv2"
}
layer {
  name: "pool2"
  type: "Pooling"
  bottom: "conv2"
  top: "pool2"
  pooling_param {
    pool: MAX
    kernel_size: 2
    stride: 2
  }
}
layer {
  name: "conv3"
  type: "Convolution"
  bottom: "pool2"
  top: "conv3"
  convolution_param {
    num_output: 250
    pad: 0
    kernel_size: 4
    group: 1
    stride: 1
    weight_filler {
      type: "xavier"
    }
  }
}
layer {
  name: "conv3_sTanH"
  type: "TanH"
  bottom: "conv3"
  top: "conv3"
}
layer {
  name: "pool3"
  type: "Pooling"
  bottom: "conv3"
  top: "pool3"
  pooling_param {
    pool: MAX
    kernel_size: 2
    stride: 2
  }
}
layer {
  name: "fc4_300"
  type: "InnerProduct"
  bottom: "pool3"
  top: "fc4_300"
  inner_product_param {
    num_output: 300
    weight_filler {
      type: "xavier"
    }
  }
}
layer {
  name: "fc4_sTanH"
  type: "TanH"
  bottom: "fc4_300"
  top: "fc4_300"
}
layer {
  name: "drop4"
  type: "Dropout"
  bottom: "fc4_300"
  top: "fc4_300"
  dropout_param {
    dropout_ratio: 0.4
  }
}
layer {
  name: "fc5_67"
  type: "InnerProduct"
  bottom: "fc4_300"
  top: "fc5_classes"
  inner_product_param {
    num_output: 67
    weight_filler {
      type: "xavier"
    }
  }
}
layer {
  name: "loss"
  type: "SoftmaxWithLoss"
  bottom: "fc5_classes"
  bottom: "label"
  top: "loss"
}
I0409 19:56:34.770678 22874 layer_factory.hpp:77] Creating layer data
I0409 19:56:34.771737 22874 net.cpp:100] Creating Layer data
I0409 19:56:34.771752 22874 net.cpp:408] data -> data
I0409 19:56:34.771777 22874 net.cpp:408] data -> label
I0409 19:56:34.772979 22947 db_lmdb.cpp:35] Opened lmdb ../local_data/lmdb/rtsd-r1/CoNorm/train/lmdb
I0409 19:56:34.789669 22874 data_layer.cpp:41] output data size: 1024,3,48,48
I0409 19:56:34.834082 22874 net.cpp:150] Setting up data
I0409 19:56:34.834127 22874 net.cpp:157] Top shape: 1024 3 48 48 (7077888)
I0409 19:56:34.834156 22874 net.cpp:157] Top shape: 1024 (1024)
I0409 19:56:34.834161 22874 net.cpp:165] Memory required for data: 28315648
I0409 19:56:34.834170 22874 layer_factory.hpp:77] Creating layer conv1
I0409 19:56:34.834197 22874 net.cpp:100] Creating Layer conv1
I0409 19:56:34.834205 22874 net.cpp:434] conv1 <- data
I0409 19:56:34.834219 22874 net.cpp:408] conv1 -> conv1
I0409 19:56:35.114341 22874 net.cpp:150] Setting up conv1
I0409 19:56:35.114372 22874 net.cpp:157] Top shape: 1024 100 42 42 (180633600)
I0409 19:56:35.114377 22874 net.cpp:165] Memory required for data: 750850048
I0409 19:56:35.114399 22874 layer_factory.hpp:77] Creating layer conv1_sTanH
I0409 19:56:35.114413 22874 net.cpp:100] Creating Layer conv1_sTanH
I0409 19:56:35.114416 22874 net.cpp:434] conv1_sTanH <- conv1
I0409 19:56:35.114423 22874 net.cpp:395] conv1_sTanH -> conv1 (in-place)
I0409 19:56:35.114621 22874 net.cpp:150] Setting up conv1_sTanH
I0409 19:56:35.114634 22874 net.cpp:157] Top shape: 1024 100 42 42 (180633600)
I0409 19:56:35.114636 22874 net.cpp:165] Memory required for data: 1473384448
I0409 19:56:35.114640 22874 layer_factory.hpp:77] Creating layer pool1
I0409 19:56:35.114648 22874 net.cpp:100] Creating Layer pool1
I0409 19:56:35.114652 22874 net.cpp:434] pool1 <- conv1
I0409 19:56:35.114658 22874 net.cpp:408] pool1 -> pool1
I0409 19:56:35.114711 22874 net.cpp:150] Setting up pool1
I0409 19:56:35.114720 22874 net.cpp:157] Top shape: 1024 100 21 21 (45158400)
I0409 19:56:35.114724 22874 net.cpp:165] Memory required for data: 1654018048
I0409 19:56:35.114727 22874 layer_factory.hpp:77] Creating layer conv2
I0409 19:56:35.114745 22874 net.cpp:100] Creating Layer conv2
I0409 19:56:35.114749 22874 net.cpp:434] conv2 <- pool1
I0409 19:56:35.114755 22874 net.cpp:408] conv2 -> conv2
I0409 19:56:35.119107 22874 net.cpp:150] Setting up conv2
I0409 19:56:35.119124 22874 net.cpp:157] Top shape: 1024 150 18 18 (49766400)
I0409 19:56:35.119128 22874 net.cpp:165] Memory required for data: 1853083648
I0409 19:56:35.119138 22874 layer_factory.hpp:77] Creating layer conv2_sTanH
I0409 19:56:35.119145 22874 net.cpp:100] Creating Layer conv2_sTanH
I0409 19:56:35.119149 22874 net.cpp:434] conv2_sTanH <- conv2
I0409 19:56:35.119155 22874 net.cpp:395] conv2_sTanH -> conv2 (in-place)
I0409 19:56:35.119894 22874 net.cpp:150] Setting up conv2_sTanH
I0409 19:56:35.119909 22874 net.cpp:157] Top shape: 1024 150 18 18 (49766400)
I0409 19:56:35.119912 22874 net.cpp:165] Memory required for data: 2052149248
I0409 19:56:35.119916 22874 layer_factory.hpp:77] Creating layer pool2
I0409 19:56:35.119923 22874 net.cpp:100] Creating Layer pool2
I0409 19:56:35.119927 22874 net.cpp:434] pool2 <- conv2
I0409 19:56:35.119933 22874 net.cpp:408] pool2 -> pool2
I0409 19:56:35.119979 22874 net.cpp:150] Setting up pool2
I0409 19:56:35.119989 22874 net.cpp:157] Top shape: 1024 150 9 9 (12441600)
I0409 19:56:35.119992 22874 net.cpp:165] Memory required for data: 2101915648
I0409 19:56:35.119995 22874 layer_factory.hpp:77] Creating layer conv3
I0409 19:56:35.120004 22874 net.cpp:100] Creating Layer conv3
I0409 19:56:35.120009 22874 net.cpp:434] conv3 <- pool2
I0409 19:56:35.120014 22874 net.cpp:408] conv3 -> conv3
I0409 19:56:35.125823 22874 net.cpp:150] Setting up conv3
I0409 19:56:35.125841 22874 net.cpp:157] Top shape: 1024 250 6 6 (9216000)
I0409 19:56:35.125845 22874 net.cpp:165] Memory required for data: 2138779648
I0409 19:56:35.125857 22874 layer_factory.hpp:77] Creating layer conv3_sTanH
I0409 19:56:35.125867 22874 net.cpp:100] Creating Layer conv3_sTanH
I0409 19:56:35.125871 22874 net.cpp:434] conv3_sTanH <- conv3
I0409 19:56:35.125876 22874 net.cpp:395] conv3_sTanH -> conv3 (in-place)
I0409 19:56:35.126660 22874 net.cpp:150] Setting up conv3_sTanH
I0409 19:56:35.126677 22874 net.cpp:157] Top shape: 1024 250 6 6 (9216000)
I0409 19:56:35.126682 22874 net.cpp:165] Memory required for data: 2175643648
I0409 19:56:35.126685 22874 layer_factory.hpp:77] Creating layer pool3
I0409 19:56:35.126693 22874 net.cpp:100] Creating Layer pool3
I0409 19:56:35.126696 22874 net.cpp:434] pool3 <- conv3
I0409 19:56:35.126719 22874 net.cpp:408] pool3 -> pool3
I0409 19:56:35.126771 22874 net.cpp:150] Setting up pool3
I0409 19:56:35.126781 22874 net.cpp:157] Top shape: 1024 250 3 3 (2304000)
I0409 19:56:35.126788 22874 net.cpp:165] Memory required for data: 2184859648
I0409 19:56:35.126791 22874 layer_factory.hpp:77] Creating layer fc4_300
I0409 19:56:35.126801 22874 net.cpp:100] Creating Layer fc4_300
I0409 19:56:35.126804 22874 net.cpp:434] fc4_300 <- pool3
I0409 19:56:35.126809 22874 net.cpp:408] fc4_300 -> fc4_300
I0409 19:56:35.131992 22874 net.cpp:150] Setting up fc4_300
I0409 19:56:35.132010 22874 net.cpp:157] Top shape: 1024 300 (307200)
I0409 19:56:35.132014 22874 net.cpp:165] Memory required for data: 2186088448
I0409 19:56:35.132021 22874 layer_factory.hpp:77] Creating layer fc4_sTanH
I0409 19:56:35.132027 22874 net.cpp:100] Creating Layer fc4_sTanH
I0409 19:56:35.132031 22874 net.cpp:434] fc4_sTanH <- fc4_300
I0409 19:56:35.132037 22874 net.cpp:395] fc4_sTanH -> fc4_300 (in-place)
I0409 19:56:35.132236 22874 net.cpp:150] Setting up fc4_sTanH
I0409 19:56:35.132248 22874 net.cpp:157] Top shape: 1024 300 (307200)
I0409 19:56:35.132252 22874 net.cpp:165] Memory required for data: 2187317248
I0409 19:56:35.132256 22874 layer_factory.hpp:77] Creating layer drop4
I0409 19:56:35.132262 22874 net.cpp:100] Creating Layer drop4
I0409 19:56:35.132268 22874 net.cpp:434] drop4 <- fc4_300
I0409 19:56:35.132273 22874 net.cpp:395] drop4 -> fc4_300 (in-place)
I0409 19:56:35.132306 22874 net.cpp:150] Setting up drop4
I0409 19:56:35.132315 22874 net.cpp:157] Top shape: 1024 300 (307200)
I0409 19:56:35.132318 22874 net.cpp:165] Memory required for data: 2188546048
I0409 19:56:35.132321 22874 layer_factory.hpp:77] Creating layer fc5_67
I0409 19:56:35.132329 22874 net.cpp:100] Creating Layer fc5_67
I0409 19:56:35.132335 22874 net.cpp:434] fc5_67 <- fc4_300
I0409 19:56:35.132340 22874 net.cpp:408] fc5_67 -> fc5_classes
I0409 19:56:35.133579 22874 net.cpp:150] Setting up fc5_67
I0409 19:56:35.133594 22874 net.cpp:157] Top shape: 1024 67 (68608)
I0409 19:56:35.133597 22874 net.cpp:165] Memory required for data: 2188820480
I0409 19:56:35.133610 22874 layer_factory.hpp:77] Creating layer loss
I0409 19:56:35.133616 22874 net.cpp:100] Creating Layer loss
I0409 19:56:35.133620 22874 net.cpp:434] loss <- fc5_classes
I0409 19:56:35.133625 22874 net.cpp:434] loss <- label
I0409 19:56:35.133631 22874 net.cpp:408] loss -> loss
I0409 19:56:35.133643 22874 layer_factory.hpp:77] Creating layer loss
…
I0409 19:56:35.134341 22874 solver.cpp:193] Creating test net (#0) specified by test_net file: ./Prototxt/experiment_7/rtsd-r1/CoNorm/trial_1/test.prototxt
I0409 19:56:35.134465 22874 net.cpp:58] Initializing net from parameters: 
state {
  phase: TEST
}
layer {
  name: "data"
  type: "Data"
  top: "data"
  top: "label"
  include {
    phase: TEST
  }
  transform_param {
    mirror: false
    crop_size: 48
    mean_value: 133
    mean_value: 133
    mean_value: 132
  }
  data_param {
    source: "../local_data/lmdb/rtsd-r1/CoNorm/test/lmdb"
    batch_size: 1024
    backend: LMDB
  }
}
layer {
  name: "conv1"
  type: "Convolution"
  bottom: "data"
  top: "conv1"
  convolution_param {
    num_output: 100
    pad: 0
    kernel_size: 7
    group: 1
    stride: 1
    weight_filler {
      type: "xavier"
    }
  }
}
layer {
  name: "conv1_sTanH"
  type: "TanH"
  bottom: "conv1"
  top: "conv1"
}
layer {
  name: "pool1"
  type: "Pooling"
  bottom: "conv1"
  top: "pool1"
  pooling_param {
    pool: MAX
    kernel_size: 2
    stride: 2
  }
}
layer {
  name: "conv2"
  type: "Convolution"
  bottom: "pool1"
  top: "conv2"
  convolution_param {
    num_output: 150
    pad: 0
    kernel_size: 4
    group: 1
    stride: 1
    weight_filler {
      type: "xavier"
    }
  }
}
layer {
  name: "conv2_sTanH"
  type: "TanH"
  bottom: "conv2"
  top: "conv2"
}
layer {
  name: "pool2"
  type: "Pooling"
  bottom: "conv2"
  top: "pool2"
  pooling_param {
    pool: MAX
    kernel_size: 2
    stride: 2
  }
}
layer {
  name: "conv3"
  type: "Convolution"
  bottom: "pool2"
  top: "conv3"
  convolution_param {
    num_output: 250
    pad: 0
    kernel_size: 4
    group: 1
    stride: 1
    weight_filler {
      type: "xavier"
    }
  }
}
layer {
  name: "conv3_sTanH"
  type: "TanH"
  bottom: "conv3"
  top: "conv3"
}
layer {
  name: "pool3"
  type: "Pooling"
  bottom: "conv3"
  top: "pool3"
  pooling_param {
    pool: MAX
    kernel_size: 2
    stride: 2
  }
}
layer {
  name: "fc4_300"
  type: "InnerProduct"
  bottom: "pool3"
  top: "fc4_300"
  inner_product_param {
    num_output: 300
    weight_filler {
      type: "xavier"
    }
  }
}
layer {
  name: "fc4_sTanH"
  type: "TanH"
  bottom: "fc4_300"
  top: "fc4_300"
}
layer {
  name: "drop4"
  type: "Dropout"
  bottom: "fc4_300"
  top: "fc4_300"
  dropout_param {
    dropout_ratio: 0.4
  }
}
layer {
  name: "fc5_67"
  type: "InnerProduct"
  bottom: "fc4_300"
  top: "fc5_classes"
  inner_product_param {
    num_output: 67
    weight_filler {
      type: "xavier"
    }
  }
}
layer {
  name: "loss"
  type: "SoftmaxWithLoss"
  bottom: "fc5_classes"
  bottom: "label"
  top: "loss"
}
layer {
  name: "accuracy_1"
  type: "Accuracy"
  bottom: "fc5_classes"
  bottom: "label"
  top: "accuracy_1"
  include {
    phase: TEST
  }
  accuracy_param {
    top_k: 1
  }
}
layer {
  name: "accuracy_5"
  type: "Accuracy"
  bottom: "fc5_classes"
  bottom: "label"
  top: "accuracy_5"
  include {
    phase: TEST
  }
  accuracy_param {
    top_k: 5
  }
}
I0409 19:56:35.134559 22874 layer_factory.hpp:77] Creating layer data
I0409 19:56:35.135238 22874 net.cpp:100] Creating Layer data
I0409 19:56:35.135251 22874 net.cpp:408] data -> data
I0409 19:56:35.135262 22874 net.cpp:408] data -> label
I0409 19:56:35.137320 22971 db_lmdb.cpp:35] Opened lmdb ../local_data/lmdb/rtsd-r1/CoNorm/test/lmdb
I0409 19:56:35.137522 22874 data_layer.cpp:41] output data size: 1024,3,48,48
I0409 19:56:35.190321 22874 net.cpp:150] Setting up data
I0409 19:56:35.190348 22874 net.cpp:157] Top shape: 1024 3 48 48 (7077888)
I0409 19:56:35.190354 22874 net.cpp:157] Top shape: 1024 (1024)
I0409 19:56:35.190358 22874 net.cpp:165] Memory required for data: 28315648
I0409 19:56:35.190366 22874 layer_factory.hpp:77] Creating layer label_data_1_split
I0409 19:56:35.190381 22874 net.cpp:100] Creating Layer label_data_1_split
I0409 19:56:35.190385 22874 net.cpp:434] label_data_1_split <- label
I0409 19:56:35.190395 22874 net.cpp:408] label_data_1_split -> label_data_1_split_0
I0409 19:56:35.190407 22874 net.cpp:408] label_data_1_split -> label_data_1_split_1
I0409 19:56:35.190418 22874 net.cpp:408] label_data_1_split -> label_data_1_split_2
I0409 19:56:35.190522 22874 net.cpp:150] Setting up label_data_1_split
I0409 19:56:35.190532 22874 net.cpp:157] Top shape: 1024 (1024)
I0409 19:56:35.190536 22874 net.cpp:157] Top shape: 1024 (1024)
I0409 19:56:35.190541 22874 net.cpp:157] Top shape: 1024 (1024)
I0409 19:56:35.190548 22874 net.cpp:165] Memory required for data: 28327936
I0409 19:56:35.190551 22874 layer_factory.hpp:77] Creating layer conv1
I0409 19:56:35.190565 22874 net.cpp:100] Creating Layer conv1
I0409 19:56:35.190570 22874 net.cpp:434] conv1 <- data
I0409 19:56:35.190582 22874 net.cpp:408] conv1 -> conv1
I0409 19:56:35.192525 22874 net.cpp:150] Setting up conv1
I0409 19:56:35.192543 22874 net.cpp:157] Top shape: 1024 100 42 42 (180633600)
I0409 19:56:35.192546 22874 net.cpp:165] Memory required for data: 750862336
I0409 19:56:35.192559 22874 layer_factory.hpp:77] Creating layer conv1_sTanH
I0409 19:56:35.192567 22874 net.cpp:100] Creating Layer conv1_sTanH
I0409 19:56:35.192571 22874 net.cpp:434] conv1_sTanH <- conv1
I0409 19:56:35.192577 22874 net.cpp:395] conv1_sTanH -> conv1 (in-place)
I0409 19:56:35.192796 22874 net.cpp:150] Setting up conv1_sTanH
I0409 19:56:35.192809 22874 net.cpp:157] Top shape: 1024 100 42 42 (180633600)
I0409 19:56:35.192813 22874 net.cpp:165] Memory required for data: 1473396736
I0409 19:56:35.192817 22874 layer_factory.hpp:77] Creating layer pool1
I0409 19:56:35.192826 22874 net.cpp:100] Creating Layer pool1
I0409 19:56:35.192831 22874 net.cpp:434] pool1 <- conv1
I0409 19:56:35.192838 22874 net.cpp:408] pool1 -> pool1
I0409 19:56:35.192893 22874 net.cpp:150] Setting up pool1
I0409 19:56:35.192901 22874 net.cpp:157] Top shape: 1024 100 21 21 (45158400)
I0409 19:56:35.192905 22874 net.cpp:165] Memory required for data: 1654030336
I0409 19:56:35.192909 22874 layer_factory.hpp:77] Creating layer conv2
I0409 19:56:35.192919 22874 net.cpp:100] Creating Layer conv2
I0409 19:56:35.192924 22874 net.cpp:434] conv2 <- pool1
I0409 19:56:35.192932 22874 net.cpp:408] conv2 -> conv2
I0409 19:56:35.200603 22874 net.cpp:150] Setting up conv2
I0409 19:56:35.200628 22874 net.cpp:157] Top shape: 1024 150 18 18 (49766400)
I0409 19:56:35.200631 22874 net.cpp:165] Memory required for data: 1853095936
I0409 19:56:35.200641 22874 layer_factory.hpp:77] Creating layer conv2_sTanH
I0409 19:56:35.200649 22874 net.cpp:100] Creating Layer conv2_sTanH
I0409 19:56:35.200654 22874 net.cpp:434] conv2_sTanH <- conv2
I0409 19:56:35.200660 22874 net.cpp:395] conv2_sTanH -> conv2 (in-place)
I0409 19:56:35.201570 22874 net.cpp:150] Setting up conv2_sTanH
I0409 19:56:35.201586 22874 net.cpp:157] Top shape: 1024 150 18 18 (49766400)
I0409 19:56:35.201591 22874 net.cpp:165] Memory required for data: 2052161536
I0409 19:56:35.201593 22874 layer_factory.hpp:77] Creating layer pool2
I0409 19:56:35.201603 22874 net.cpp:100] Creating Layer pool2
I0409 19:56:35.201607 22874 net.cpp:434] pool2 <- conv2
I0409 19:56:35.201613 22874 net.cpp:408] pool2 -> pool2
I0409 19:56:35.201668 22874 net.cpp:150] Setting up pool2
I0409 19:56:35.201678 22874 net.cpp:157] Top shape: 1024 150 9 9 (12441600)
I0409 19:56:35.201683 22874 net.cpp:165] Memory required for data: 2101927936
I0409 19:56:35.201685 22874 layer_factory.hpp:77] Creating layer conv3
I0409 19:56:35.201697 22874 net.cpp:100] Creating Layer conv3
I0409 19:56:35.201702 22874 net.cpp:434] conv3 <- pool2
I0409 19:56:35.201710 22874 net.cpp:408] conv3 -> conv3
I0409 19:56:35.207466 22874 net.cpp:150] Setting up conv3
I0409 19:56:35.207484 22874 net.cpp:157] Top shape: 1024 250 6 6 (9216000)
I0409 19:56:35.207489 22874 net.cpp:165] Memory required for data: 2138791936
I0409 19:56:35.207499 22874 layer_factory.hpp:77] Creating layer conv3_sTanH
I0409 19:56:35.207509 22874 net.cpp:100] Creating Layer conv3_sTanH
I0409 19:56:35.207512 22874 net.cpp:434] conv3_sTanH <- conv3
I0409 19:56:35.207520 22874 net.cpp:395] conv3_sTanH -> conv3 (in-place)
I0409 19:56:35.209517 22874 net.cpp:150] Setting up conv3_sTanH
I0409 19:56:35.209533 22874 net.cpp:157] Top shape: 1024 250 6 6 (9216000)
I0409 19:56:35.209552 22874 net.cpp:165] Memory required for data: 2175655936
I0409 19:56:35.209556 22874 layer_factory.hpp:77] Creating layer pool3
I0409 19:56:35.209565 22874 net.cpp:100] Creating Layer pool3
I0409 19:56:35.209570 22874 net.cpp:434] pool3 <- conv3
I0409 19:56:35.209576 22874 net.cpp:408] pool3 -> pool3
I0409 19:56:35.209631 22874 net.cpp:150] Setting up pool3
I0409 19:56:35.209641 22874 net.cpp:157] Top shape: 1024 250 3 3 (2304000)
I0409 19:56:35.209645 22874 net.cpp:165] Memory required for data: 2184871936
I0409 19:56:35.209648 22874 layer_factory.hpp:77] Creating layer fc4_300
I0409 19:56:35.209656 22874 net.cpp:100] Creating Layer fc4_300
I0409 19:56:35.209659 22874 net.cpp:434] fc4_300 <- pool3
I0409 19:56:35.209668 22874 net.cpp:408] fc4_300 -> fc4_300
I0409 19:56:35.215109 22874 net.cpp:150] Setting up fc4_300
I0409 19:56:35.215126 22874 net.cpp:157] Top shape: 1024 300 (307200)
I0409 19:56:35.215129 22874 net.cpp:165] Memory required for data: 2186100736
I0409 19:56:35.215137 22874 layer_factory.hpp:77] Creating layer fc4_sTanH
I0409 19:56:35.215143 22874 net.cpp:100] Creating Layer fc4_sTanH
I0409 19:56:35.215147 22874 net.cpp:434] fc4_sTanH <- fc4_300
I0409 19:56:35.215152 22874 net.cpp:395] fc4_sTanH -> fc4_300 (in-place)
I0409 19:56:35.215353 22874 net.cpp:150] Setting up fc4_sTanH
I0409 19:56:35.215365 22874 net.cpp:157] Top shape: 1024 300 (307200)
I0409 19:56:35.215368 22874 net.cpp:165] Memory required for data: 2187329536
I0409 19:56:35.215373 22874 layer_factory.hpp:77] Creating layer drop4
I0409 19:56:35.215379 22874 net.cpp:100] Creating Layer drop4
I0409 19:56:35.215385 22874 net.cpp:434] drop4 <- fc4_300
I0409 19:56:35.215394 22874 net.cpp:395] drop4 -> fc4_300 (in-place)
I0409 19:56:35.215423 22874 net.cpp:150] Setting up drop4
I0409 19:56:35.215435 22874 net.cpp:157] Top shape: 1024 300 (307200)
I0409 19:56:35.215438 22874 net.cpp:165] Memory required for data: 2188558336
I0409 19:56:35.215442 22874 layer_factory.hpp:77] Creating layer fc5_67
I0409 19:56:35.215450 22874 net.cpp:100] Creating Layer fc5_67
I0409 19:56:35.215452 22874 net.cpp:434] fc5_67 <- fc4_300
I0409 19:56:35.215458 22874 net.cpp:408] fc5_67 -> fc5_classes
I0409 19:56:35.215723 22874 net.cpp:150] Setting up fc5_67
I0409 19:56:35.215734 22874 net.cpp:157] Top shape: 1024 67 (68608)
I0409 19:56:35.215736 22874 net.cpp:165] Memory required for data: 2188832768
I0409 19:56:35.215747 22874 layer_factory.hpp:77] Creating layer fc5_classes_fc5_67_0_split
I0409 19:56:35.215756 22874 net.cpp:100] Creating Layer fc5_classes_fc5_67_0_split
I0409 19:56:35.215760 22874 net.cpp:434] fc5_classes_fc5_67_0_split <- fc5_classes
I0409 19:56:35.215768 22874 net.cpp:408] fc5_classes_fc5_67_0_split -> fc5_classes_fc5_67_0_split_0
I0409 19:56:35.215778 22874 net.cpp:408] fc5_classes_fc5_67_0_split -> fc5_classes_fc5_67_0_split_1
I0409 19:56:35.215788 22874 net.cpp:408] fc5_classes_fc5_67_0_split -> fc5_classes_fc5_67_0_split_2
I0409 19:56:35.215842 22874 net.cpp:150] Setting up fc5_classes_fc5_67_0_split
I0409 19:56:35.215852 22874 net.cpp:157] Top shape: 1024 67 (68608)
I0409 19:56:35.215855 22874 net.cpp:157] Top shape: 1024 67 (68608)
I0409 19:56:35.215859 22874 net.cpp:157] Top shape: 1024 67 (68608)
I0409 19:56:35.215862 22874 net.cpp:165] Memory required for data: 2189656064
I0409 19:56:35.215865 22874 layer_factory.hpp:77] Creating layer loss
I0409 19:56:35.215875 22874 net.cpp:100] Creating Layer loss
I0409 19:56:35.215888 22874 net.cpp:434] loss <- fc5_classes_fc5_67_0_split_0
I0409 19:56:35.215893 22874 net.cpp:434] loss <- label_data_1_split_0
I0409 19:56:35.215899 22874 net.cpp:408] loss -> loss
…
