…
I0409 19:57:28.534359 25612 net.cpp:322] The NetState phase (0) differed from the phase (1) specified by a rule in layer accuracy_5
I0409 19:57:28.534451 25612 net.cpp:58] Initializing net from parameters: 
state {
  phase: TRAIN
  level: 0
  stage: ""
}
layer {
  name: "data"
  type: "Data"
  top: "data"
  top: "label"
  include {
    phase: TRAIN
  }
  transform_param {
    mirror: false
    crop_size: 48
    mean_value: 132
    mean_value: 132
    mean_value: 131
  }
  data_param {
    source: "../local_data/lmdb/rtsd-r1/CoNorm/train/lmdb"
    batch_size: 1024
    backend: LMDB
  }
}
layer {
  name: "conv1"
  type: "Convolution"
  bottom: "data"
  top: "conv1"
  convolution_param {
    num_output: 100
    pad: 0
    kernel_size: 7
    group: 1
    stride: 1
    weight_filler {
      type: "xavier"
    }
  }
}
layer {
  name: "conv1_sTanH"
  type: "TanH"
  bottom: "conv1"
  top: "conv1"
}
layer {
  name: "pool1"
  type: "Pooling"
  bottom: "conv1"
  top: "pool1"
  pooling_param {
    pool: MAX
    kernel_size: 2
    stride: 2
  }
}
layer {
  name: "conv2"
  type: "Convolution"
  bottom: "pool1"
  top: "conv2"
  convolution_param {
    num_output: 150
    pad: 0
    kernel_size: 4
    group: 1
    stride: 1
    weight_filler {
      type: "xavier"
    }
  }
}
layer {
  name: "conv2_sTanH"
  type: "TanH"
  bottom: "conv2"
  top: "conv2"
}
layer {
  name: "pool2"
  type: "Pooling"
  bottom: "conv2"
  top: "pool2"
  pooling_param {
    pool: MAX
    kernel_size: 2
    stride: 2
  }
}
layer {
  name: "conv3"
  type: "Convolution"
  bottom: "pool2"
  top: "conv3"
  convolution_param {
    num_output: 250
    pad: 0
    kernel_size: 4
    group: 1
    stride: 1
    weight_filler {
      type: "xavier"
    }
  }
}
layer {
  name: "conv3_sTanH"
  type: "TanH"
  bottom: "conv3"
  top: "conv3"
}
layer {
  name: "pool3"
  type: "Pooling"
  bottom: "conv3"
  top: "pool3"
  pooling_param {
    pool: MAX
    kernel_size: 2
    stride: 2
  }
}
layer {
  name: "fc4_300"
  type: "InnerProduct"
  bottom: "pool3"
  top: "fc4_300"
  inner_product_param {
    num_output: 300
    weight_filler {
      type: "xavier"
    }
  }
}
layer {
  name: "fc4_sTanH"
  type: "TanH"
  bottom: "fc4_300"
  top: "fc4_300"
}
layer {
  name: "drop4"
  type: "Dropout"
  bottom: "fc4_300"
  top: "fc4_300"
  dropout_param {
    dropout_ratio: 0.4
  }
}
layer {
  name: "fc5_67"
  type: "InnerProduct"
  bottom: "fc4_300"
  top: "fc5_classes"
  inner_product_param {
    num_output: 67
    weight_filler {
      type: "xavier"
    }
  }
}
layer {
  name: "loss"
  type: "SoftmaxWithLoss"
  bottom: "fc5_classes"
  bottom: "label"
  top: "loss"
}
I0409 19:57:28.534523 25612 layer_factory.hpp:77] Creating layer data
I0409 19:57:28.535604 25612 net.cpp:100] Creating Layer data
I0409 19:57:28.535619 25612 net.cpp:408] data -> data
I0409 19:57:28.535640 25612 net.cpp:408] data -> label
I0409 19:57:28.537014 25690 db_lmdb.cpp:35] Opened lmdb ../local_data/lmdb/rtsd-r1/CoNorm/train/lmdb
I0409 19:57:28.553486 25612 data_layer.cpp:41] output data size: 1024,3,48,48
I0409 19:57:28.598695 25612 net.cpp:150] Setting up data
I0409 19:57:28.598737 25612 net.cpp:157] Top shape: 1024 3 48 48 (7077888)
I0409 19:57:28.598770 25612 net.cpp:157] Top shape: 1024 (1024)
I0409 19:57:28.598774 25612 net.cpp:165] Memory required for data: 28315648
I0409 19:57:28.598785 25612 layer_factory.hpp:77] Creating layer conv1
I0409 19:57:28.598808 25612 net.cpp:100] Creating Layer conv1
I0409 19:57:28.598814 25612 net.cpp:434] conv1 <- data
I0409 19:57:28.598827 25612 net.cpp:408] conv1 -> conv1
I0409 19:57:28.871450 25612 net.cpp:150] Setting up conv1
I0409 19:57:28.871480 25612 net.cpp:157] Top shape: 1024 100 42 42 (180633600)
I0409 19:57:28.871484 25612 net.cpp:165] Memory required for data: 750850048
I0409 19:57:28.871505 25612 layer_factory.hpp:77] Creating layer conv1_sTanH
I0409 19:57:28.871516 25612 net.cpp:100] Creating Layer conv1_sTanH
I0409 19:57:28.871520 25612 net.cpp:434] conv1_sTanH <- conv1
I0409 19:57:28.871529 25612 net.cpp:395] conv1_sTanH -> conv1 (in-place)
I0409 19:57:28.871731 25612 net.cpp:150] Setting up conv1_sTanH
I0409 19:57:28.871742 25612 net.cpp:157] Top shape: 1024 100 42 42 (180633600)
I0409 19:57:28.871745 25612 net.cpp:165] Memory required for data: 1473384448
I0409 19:57:28.871748 25612 layer_factory.hpp:77] Creating layer pool1
I0409 19:57:28.871757 25612 net.cpp:100] Creating Layer pool1
I0409 19:57:28.871759 25612 net.cpp:434] pool1 <- conv1
I0409 19:57:28.871764 25612 net.cpp:408] pool1 -> pool1
I0409 19:57:28.871816 25612 net.cpp:150] Setting up pool1
I0409 19:57:28.871824 25612 net.cpp:157] Top shape: 1024 100 21 21 (45158400)
I0409 19:57:28.871827 25612 net.cpp:165] Memory required for data: 1654018048
I0409 19:57:28.871831 25612 layer_factory.hpp:77] Creating layer conv2
I0409 19:57:28.871842 25612 net.cpp:100] Creating Layer conv2
I0409 19:57:28.871846 25612 net.cpp:434] conv2 <- pool1
I0409 19:57:28.871851 25612 net.cpp:408] conv2 -> conv2
I0409 19:57:28.876147 25612 net.cpp:150] Setting up conv2
I0409 19:57:28.876163 25612 net.cpp:157] Top shape: 1024 150 18 18 (49766400)
I0409 19:57:28.876166 25612 net.cpp:165] Memory required for data: 1853083648
I0409 19:57:28.876178 25612 layer_factory.hpp:77] Creating layer conv2_sTanH
I0409 19:57:28.876184 25612 net.cpp:100] Creating Layer conv2_sTanH
I0409 19:57:28.876188 25612 net.cpp:434] conv2_sTanH <- conv2
I0409 19:57:28.876204 25612 net.cpp:395] conv2_sTanH -> conv2 (in-place)
I0409 19:57:28.876996 25612 net.cpp:150] Setting up conv2_sTanH
I0409 19:57:28.877010 25612 net.cpp:157] Top shape: 1024 150 18 18 (49766400)
I0409 19:57:28.877013 25612 net.cpp:165] Memory required for data: 2052149248
I0409 19:57:28.877017 25612 layer_factory.hpp:77] Creating layer pool2
I0409 19:57:28.877024 25612 net.cpp:100] Creating Layer pool2
I0409 19:57:28.877027 25612 net.cpp:434] pool2 <- conv2
I0409 19:57:28.877032 25612 net.cpp:408] pool2 -> pool2
I0409 19:57:28.877081 25612 net.cpp:150] Setting up pool2
I0409 19:57:28.877101 25612 net.cpp:157] Top shape: 1024 150 9 9 (12441600)
I0409 19:57:28.877106 25612 net.cpp:165] Memory required for data: 2101915648
I0409 19:57:28.877110 25612 layer_factory.hpp:77] Creating layer conv3
I0409 19:57:28.877118 25612 net.cpp:100] Creating Layer conv3
I0409 19:57:28.877123 25612 net.cpp:434] conv3 <- pool2
I0409 19:57:28.877130 25612 net.cpp:408] conv3 -> conv3
I0409 19:57:28.882622 25612 net.cpp:150] Setting up conv3
I0409 19:57:28.882639 25612 net.cpp:157] Top shape: 1024 250 6 6 (9216000)
I0409 19:57:28.882643 25612 net.cpp:165] Memory required for data: 2138779648
I0409 19:57:28.882652 25612 layer_factory.hpp:77] Creating layer conv3_sTanH
I0409 19:57:28.882659 25612 net.cpp:100] Creating Layer conv3_sTanH
I0409 19:57:28.882663 25612 net.cpp:434] conv3_sTanH <- conv3
I0409 19:57:28.882669 25612 net.cpp:395] conv3_sTanH -> conv3 (in-place)
I0409 19:57:28.883467 25612 net.cpp:150] Setting up conv3_sTanH
I0409 19:57:28.883483 25612 net.cpp:157] Top shape: 1024 250 6 6 (9216000)
I0409 19:57:28.883486 25612 net.cpp:165] Memory required for data: 2175643648
I0409 19:57:28.883489 25612 layer_factory.hpp:77] Creating layer pool3
I0409 19:57:28.883502 25612 net.cpp:100] Creating Layer pool3
I0409 19:57:28.883504 25612 net.cpp:434] pool3 <- conv3
I0409 19:57:28.883538 25612 net.cpp:408] pool3 -> pool3
I0409 19:57:28.883611 25612 net.cpp:150] Setting up pool3
I0409 19:57:28.883620 25612 net.cpp:157] Top shape: 1024 250 3 3 (2304000)
I0409 19:57:28.883623 25612 net.cpp:165] Memory required for data: 2184859648
I0409 19:57:28.883626 25612 layer_factory.hpp:77] Creating layer fc4_300
I0409 19:57:28.883633 25612 net.cpp:100] Creating Layer fc4_300
I0409 19:57:28.883636 25612 net.cpp:434] fc4_300 <- pool3
I0409 19:57:28.883643 25612 net.cpp:408] fc4_300 -> fc4_300
I0409 19:57:28.888891 25612 net.cpp:150] Setting up fc4_300
I0409 19:57:28.888906 25612 net.cpp:157] Top shape: 1024 300 (307200)
I0409 19:57:28.888911 25612 net.cpp:165] Memory required for data: 2186088448
I0409 19:57:28.888916 25612 layer_factory.hpp:77] Creating layer fc4_sTanH
I0409 19:57:28.888922 25612 net.cpp:100] Creating Layer fc4_sTanH
I0409 19:57:28.888926 25612 net.cpp:434] fc4_sTanH <- fc4_300
I0409 19:57:28.888931 25612 net.cpp:395] fc4_sTanH -> fc4_300 (in-place)
I0409 19:57:28.889128 25612 net.cpp:150] Setting up fc4_sTanH
I0409 19:57:28.889140 25612 net.cpp:157] Top shape: 1024 300 (307200)
I0409 19:57:28.889143 25612 net.cpp:165] Memory required for data: 2187317248
I0409 19:57:28.889147 25612 layer_factory.hpp:77] Creating layer drop4
I0409 19:57:28.889153 25612 net.cpp:100] Creating Layer drop4
I0409 19:57:28.889155 25612 net.cpp:434] drop4 <- fc4_300
I0409 19:57:28.889161 25612 net.cpp:395] drop4 -> fc4_300 (in-place)
I0409 19:57:28.889194 25612 net.cpp:150] Setting up drop4
I0409 19:57:28.889200 25612 net.cpp:157] Top shape: 1024 300 (307200)
I0409 19:57:28.889204 25612 net.cpp:165] Memory required for data: 2188546048
I0409 19:57:28.889206 25612 layer_factory.hpp:77] Creating layer fc5_67
I0409 19:57:28.889212 25612 net.cpp:100] Creating Layer fc5_67
I0409 19:57:28.889215 25612 net.cpp:434] fc5_67 <- fc4_300
I0409 19:57:28.889222 25612 net.cpp:408] fc5_67 -> fc5_classes
I0409 19:57:28.890471 25612 net.cpp:150] Setting up fc5_67
I0409 19:57:28.890486 25612 net.cpp:157] Top shape: 1024 67 (68608)
I0409 19:57:28.890489 25612 net.cpp:165] Memory required for data: 2188820480
I0409 19:57:28.890498 25612 layer_factory.hpp:77] Creating layer loss
I0409 19:57:28.890504 25612 net.cpp:100] Creating Layer loss
I0409 19:57:28.890508 25612 net.cpp:434] loss <- fc5_classes
I0409 19:57:28.890511 25612 net.cpp:434] loss <- label
I0409 19:57:28.890518 25612 net.cpp:408] loss -> loss
I0409 19:57:28.890532 25612 layer_factory.hpp:77] Creating layer loss
…
I0409 19:57:28.891204 25612 solver.cpp:193] Creating test net (#0) specified by test_net file: ./Prototxt/experiment_7/rtsd-r1/CoNorm/trial_1/test.prototxt
I0409 19:57:28.891330 25612 net.cpp:58] Initializing net from parameters: 
state {
  phase: TEST
}
layer {
  name: "data"
  type: "Data"
  top: "data"
  top: "label"
  include {
    phase: TEST
  }
  transform_param {
    mirror: false
    crop_size: 48
    mean_value: 133
    mean_value: 133
    mean_value: 132
  }
  data_param {
    source: "../local_data/lmdb/rtsd-r1/CoNorm/test/lmdb"
    batch_size: 1024
    backend: LMDB
  }
}
layer {
  name: "conv1"
  type: "Convolution"
  bottom: "data"
  top: "conv1"
  convolution_param {
    num_output: 100
    pad: 0
    kernel_size: 7
    group: 1
    stride: 1
    weight_filler {
      type: "xavier"
    }
  }
}
layer {
  name: "conv1_sTanH"
  type: "TanH"
  bottom: "conv1"
  top: "conv1"
}
layer {
  name: "pool1"
  type: "Pooling"
  bottom: "conv1"
  top: "pool1"
  pooling_param {
    pool: MAX
    kernel_size: 2
    stride: 2
  }
}
layer {
  name: "conv2"
  type: "Convolution"
  bottom: "pool1"
  top: "conv2"
  convolution_param {
    num_output: 150
    pad: 0
    kernel_size: 4
    group: 1
    stride: 1
    weight_filler {
      type: "xavier"
    }
  }
}
layer {
  name: "conv2_sTanH"
  type: "TanH"
  bottom: "conv2"
  top: "conv2"
}
layer {
  name: "pool2"
  type: "Pooling"
  bottom: "conv2"
  top: "pool2"
  pooling_param {
    pool: MAX
    kernel_size: 2
    stride: 2
  }
}
layer {
  name: "conv3"
  type: "Convolution"
  bottom: "pool2"
  top: "conv3"
  convolution_param {
    num_output: 250
    pad: 0
    kernel_size: 4
    group: 1
    stride: 1
    weight_filler {
      type: "xavier"
    }
  }
}
layer {
  name: "conv3_sTanH"
  type: "TanH"
  bottom: "conv3"
  top: "conv3"
}
layer {
  name: "pool3"
  type: "Pooling"
  bottom: "conv3"
  top: "pool3"
  pooling_param {
    pool: MAX
    kernel_size: 2
    stride: 2
  }
}
layer {
  name: "fc4_300"
  type: "InnerProduct"
  bottom: "pool3"
  top: "fc4_300"
  inner_product_param {
    num_output: 300
    weight_filler {
      type: "xavier"
    }
  }
}
layer {
  name: "fc4_sTanH"
  type: "TanH"
  bottom: "fc4_300"
  top: "fc4_300"
}
layer {
  name: "drop4"
  type: "Dropout"
  bottom: "fc4_300"
  top: "fc4_300"
  dropout_param {
    dropout_ratio: 0.4
  }
}
layer {
  name: "fc5_67"
  type: "InnerProduct"
  bottom: "fc4_300"
  top: "fc5_classes"
  inner_product_param {
    num_output: 67
    weight_filler {
      type: "xavier"
    }
  }
}
layer {
  name: "loss"
  type: "SoftmaxWithLoss"
  bottom: "fc5_classes"
  bottom: "label"
  top: "loss"
}
layer {
  name: "accuracy_1"
  type: "Accuracy"
  bottom: "fc5_classes"
  bottom: "label"
  top: "accuracy_1"
  include {
    phase: TEST
  }
  accuracy_param {
    top_k: 1
  }
}
layer {
  name: "accuracy_5"
  type: "Accuracy"
  bottom: "fc5_classes"
  bottom: "label"
  top: "accuracy_5"
  include {
    phase: TEST
  }
  accuracy_param {
    top_k: 5
  }
}
I0409 19:57:28.891425 25612 layer_factory.hpp:77] Creating layer data
I0409 19:57:28.892107 25612 net.cpp:100] Creating Layer data
I0409 19:57:28.892119 25612 net.cpp:408] data -> data
I0409 19:57:28.892128 25612 net.cpp:408] data -> label
I0409 19:57:28.894093 25707 db_lmdb.cpp:35] Opened lmdb ../local_data/lmdb/rtsd-r1/CoNorm/test/lmdb
I0409 19:57:28.894290 25612 data_layer.cpp:41] output data size: 1024,3,48,48
I0409 19:57:28.939015 25612 net.cpp:150] Setting up data
I0409 19:57:28.939044 25612 net.cpp:157] Top shape: 1024 3 48 48 (7077888)
I0409 19:57:28.939050 25612 net.cpp:157] Top shape: 1024 (1024)
I0409 19:57:28.939054 25612 net.cpp:165] Memory required for data: 28315648
I0409 19:57:28.939060 25612 layer_factory.hpp:77] Creating layer label_data_1_split
I0409 19:57:28.939074 25612 net.cpp:100] Creating Layer label_data_1_split
I0409 19:57:28.939077 25612 net.cpp:434] label_data_1_split <- label
I0409 19:57:28.939086 25612 net.cpp:408] label_data_1_split -> label_data_1_split_0
I0409 19:57:28.939097 25612 net.cpp:408] label_data_1_split -> label_data_1_split_1
I0409 19:57:28.939103 25612 net.cpp:408] label_data_1_split -> label_data_1_split_2
I0409 19:57:28.939208 25612 net.cpp:150] Setting up label_data_1_split
I0409 19:57:28.939218 25612 net.cpp:157] Top shape: 1024 (1024)
I0409 19:57:28.939221 25612 net.cpp:157] Top shape: 1024 (1024)
I0409 19:57:28.939225 25612 net.cpp:157] Top shape: 1024 (1024)
I0409 19:57:28.939229 25612 net.cpp:165] Memory required for data: 28327936
I0409 19:57:28.939231 25612 layer_factory.hpp:77] Creating layer conv1
I0409 19:57:28.939246 25612 net.cpp:100] Creating Layer conv1
I0409 19:57:28.939251 25612 net.cpp:434] conv1 <- data
I0409 19:57:28.939257 25612 net.cpp:408] conv1 -> conv1
I0409 19:57:28.947741 25612 net.cpp:150] Setting up conv1
I0409 19:57:28.947760 25612 net.cpp:157] Top shape: 1024 100 42 42 (180633600)
I0409 19:57:28.947764 25612 net.cpp:165] Memory required for data: 750862336
I0409 19:57:28.947777 25612 layer_factory.hpp:77] Creating layer conv1_sTanH
I0409 19:57:28.947784 25612 net.cpp:100] Creating Layer conv1_sTanH
I0409 19:57:28.947788 25612 net.cpp:434] conv1_sTanH <- conv1
I0409 19:57:28.947795 25612 net.cpp:395] conv1_sTanH -> conv1 (in-place)
I0409 19:57:28.948009 25612 net.cpp:150] Setting up conv1_sTanH
I0409 19:57:28.948022 25612 net.cpp:157] Top shape: 1024 100 42 42 (180633600)
I0409 19:57:28.948025 25612 net.cpp:165] Memory required for data: 1473396736
I0409 19:57:28.948029 25612 layer_factory.hpp:77] Creating layer pool1
I0409 19:57:28.948040 25612 net.cpp:100] Creating Layer pool1
I0409 19:57:28.948045 25612 net.cpp:434] pool1 <- conv1
I0409 19:57:28.948050 25612 net.cpp:408] pool1 -> pool1
I0409 19:57:28.948104 25612 net.cpp:150] Setting up pool1
I0409 19:57:28.948113 25612 net.cpp:157] Top shape: 1024 100 21 21 (45158400)
I0409 19:57:28.948117 25612 net.cpp:165] Memory required for data: 1654030336
I0409 19:57:28.948119 25612 layer_factory.hpp:77] Creating layer conv2
I0409 19:57:28.948134 25612 net.cpp:100] Creating Layer conv2
I0409 19:57:28.948139 25612 net.cpp:434] conv2 <- pool1
I0409 19:57:28.948146 25612 net.cpp:408] conv2 -> conv2
I0409 19:57:28.961113 25612 net.cpp:150] Setting up conv2
I0409 19:57:28.961138 25612 net.cpp:157] Top shape: 1024 150 18 18 (49766400)
I0409 19:57:28.961140 25612 net.cpp:165] Memory required for data: 1853095936
I0409 19:57:28.961151 25612 layer_factory.hpp:77] Creating layer conv2_sTanH
I0409 19:57:28.961160 25612 net.cpp:100] Creating Layer conv2_sTanH
I0409 19:57:28.961164 25612 net.cpp:434] conv2_sTanH <- conv2
I0409 19:57:28.961170 25612 net.cpp:395] conv2_sTanH -> conv2 (in-place)
I0409 19:57:28.962247 25612 net.cpp:150] Setting up conv2_sTanH
I0409 19:57:28.962266 25612 net.cpp:157] Top shape: 1024 150 18 18 (49766400)
I0409 19:57:28.962270 25612 net.cpp:165] Memory required for data: 2052161536
I0409 19:57:28.962273 25612 layer_factory.hpp:77] Creating layer pool2
I0409 19:57:28.962280 25612 net.cpp:100] Creating Layer pool2
I0409 19:57:28.962285 25612 net.cpp:434] pool2 <- conv2
I0409 19:57:28.962290 25612 net.cpp:408] pool2 -> pool2
I0409 19:57:28.962348 25612 net.cpp:150] Setting up pool2
I0409 19:57:28.962358 25612 net.cpp:157] Top shape: 1024 150 9 9 (12441600)
I0409 19:57:28.962362 25612 net.cpp:165] Memory required for data: 2101927936
I0409 19:57:28.962364 25612 layer_factory.hpp:77] Creating layer conv3
I0409 19:57:28.962378 25612 net.cpp:100] Creating Layer conv3
I0409 19:57:28.962383 25612 net.cpp:434] conv3 <- pool2
I0409 19:57:28.962388 25612 net.cpp:408] conv3 -> conv3
I0409 19:57:28.968780 25612 net.cpp:150] Setting up conv3
I0409 19:57:28.968797 25612 net.cpp:157] Top shape: 1024 250 6 6 (9216000)
I0409 19:57:28.968801 25612 net.cpp:165] Memory required for data: 2138791936
I0409 19:57:28.968811 25612 layer_factory.hpp:77] Creating layer conv3_sTanH
I0409 19:57:28.968819 25612 net.cpp:100] Creating Layer conv3_sTanH
I0409 19:57:28.968823 25612 net.cpp:434] conv3_sTanH <- conv3
I0409 19:57:28.968828 25612 net.cpp:395] conv3_sTanH -> conv3 (in-place)
I0409 19:57:28.969707 25612 net.cpp:150] Setting up conv3_sTanH
I0409 19:57:28.969723 25612 net.cpp:157] Top shape: 1024 250 6 6 (9216000)
I0409 19:57:28.969743 25612 net.cpp:165] Memory required for data: 2175655936
I0409 19:57:28.969748 25612 layer_factory.hpp:77] Creating layer pool3
I0409 19:57:28.969754 25612 net.cpp:100] Creating Layer pool3
I0409 19:57:28.969758 25612 net.cpp:434] pool3 <- conv3
I0409 19:57:28.969765 25612 net.cpp:408] pool3 -> pool3
I0409 19:57:28.969816 25612 net.cpp:150] Setting up pool3
I0409 19:57:28.969825 25612 net.cpp:157] Top shape: 1024 250 3 3 (2304000)
I0409 19:57:28.969827 25612 net.cpp:165] Memory required for data: 2184871936
I0409 19:57:28.969830 25612 layer_factory.hpp:77] Creating layer fc4_300
I0409 19:57:28.969841 25612 net.cpp:100] Creating Layer fc4_300
I0409 19:57:28.969846 25612 net.cpp:434] fc4_300 <- pool3
I0409 19:57:28.969851 25612 net.cpp:408] fc4_300 -> fc4_300
I0409 19:57:28.975424 25612 net.cpp:150] Setting up fc4_300
I0409 19:57:28.975438 25612 net.cpp:157] Top shape: 1024 300 (307200)
I0409 19:57:28.975441 25612 net.cpp:165] Memory required for data: 2186100736
I0409 19:57:28.975448 25612 layer_factory.hpp:77] Creating layer fc4_sTanH
I0409 19:57:28.975455 25612 net.cpp:100] Creating Layer fc4_sTanH
I0409 19:57:28.975457 25612 net.cpp:434] fc4_sTanH <- fc4_300
I0409 19:57:28.975466 25612 net.cpp:395] fc4_sTanH -> fc4_300 (in-place)
I0409 19:57:28.975661 25612 net.cpp:150] Setting up fc4_sTanH
I0409 19:57:28.975672 25612 net.cpp:157] Top shape: 1024 300 (307200)
I0409 19:57:28.975677 25612 net.cpp:165] Memory required for data: 2187329536
I0409 19:57:28.975679 25612 layer_factory.hpp:77] Creating layer drop4
I0409 19:57:28.975688 25612 net.cpp:100] Creating Layer drop4
I0409 19:57:28.975692 25612 net.cpp:434] drop4 <- fc4_300
I0409 19:57:28.975697 25612 net.cpp:395] drop4 -> fc4_300 (in-place)
I0409 19:57:28.975728 25612 net.cpp:150] Setting up drop4
I0409 19:57:28.975733 25612 net.cpp:157] Top shape: 1024 300 (307200)
I0409 19:57:28.975736 25612 net.cpp:165] Memory required for data: 2188558336
I0409 19:57:28.975739 25612 layer_factory.hpp:77] Creating layer fc5_67
I0409 19:57:28.975745 25612 net.cpp:100] Creating Layer fc5_67
I0409 19:57:28.975749 25612 net.cpp:434] fc5_67 <- fc4_300
I0409 19:57:28.975755 25612 net.cpp:408] fc5_67 -> fc5_classes
I0409 19:57:28.976022 25612 net.cpp:150] Setting up fc5_67
I0409 19:57:28.976032 25612 net.cpp:157] Top shape: 1024 67 (68608)
I0409 19:57:28.976035 25612 net.cpp:165] Memory required for data: 2188832768
I0409 19:57:28.976045 25612 layer_factory.hpp:77] Creating layer fc5_classes_fc5_67_0_split
I0409 19:57:28.976054 25612 net.cpp:100] Creating Layer fc5_classes_fc5_67_0_split
I0409 19:57:28.976060 25612 net.cpp:434] fc5_classes_fc5_67_0_split <- fc5_classes
I0409 19:57:28.976066 25612 net.cpp:408] fc5_classes_fc5_67_0_split -> fc5_classes_fc5_67_0_split_0
I0409 19:57:28.976073 25612 net.cpp:408] fc5_classes_fc5_67_0_split -> fc5_classes_fc5_67_0_split_1
I0409 19:57:28.976078 25612 net.cpp:408] fc5_classes_fc5_67_0_split -> fc5_classes_fc5_67_0_split_2
I0409 19:57:28.976131 25612 net.cpp:150] Setting up fc5_classes_fc5_67_0_split
I0409 19:57:28.976138 25612 net.cpp:157] Top shape: 1024 67 (68608)
I0409 19:57:28.976141 25612 net.cpp:157] Top shape: 1024 67 (68608)
I0409 19:57:28.976145 25612 net.cpp:157] Top shape: 1024 67 (68608)
I0409 19:57:28.976147 25612 net.cpp:165] Memory required for data: 2189656064
I0409 19:57:28.976150 25612 layer_factory.hpp:77] Creating layer loss
I0409 19:57:28.976157 25612 net.cpp:100] Creating Layer loss
I0409 19:57:28.976161 25612 net.cpp:434] loss <- fc5_classes_fc5_67_0_split_0
I0409 19:57:28.976166 25612 net.cpp:434] loss <- label_data_1_split_0
I0409 19:57:28.976171 25612 net.cpp:408] loss -> loss
…
