…
I0409 20:21:11.080302 14130 net.cpp:322] The NetState phase (0) differed from the phase (1) specified by a rule in layer accuracy_5
I0409 20:21:11.080391 14130 net.cpp:58] Initializing net from parameters: 
state {
  phase: TRAIN
  level: 0
  stage: ""
}
layer {
  name: "data"
  type: "Data"
  top: "data"
  top: "label"
  include {
    phase: TRAIN
  }
  transform_param {
    mirror: false
    crop_size: 48
    mean_value: 132
    mean_value: 132
    mean_value: 131
  }
  data_param {
    source: "../local_data/lmdb/rtsd-r1/CoNorm/train/lmdb"
    batch_size: 1024
    backend: LMDB
  }
}
layer {
  name: "conv1"
  type: "Convolution"
  bottom: "data"
  top: "conv1"
  convolution_param {
    num_output: 100
    pad: 0
    kernel_size: 7
    group: 1
    stride: 1
    weight_filler {
      type: "xavier"
    }
  }
}
layer {
  name: "conv1_sTanH"
  type: "TanH"
  bottom: "conv1"
  top: "conv1"
}
layer {
  name: "pool1"
  type: "Pooling"
  bottom: "conv1"
  top: "pool1"
  pooling_param {
    pool: MAX
    kernel_size: 2
    stride: 2
  }
}
layer {
  name: "conv2"
  type: "Convolution"
  bottom: "pool1"
  top: "conv2"
  convolution_param {
    num_output: 150
    pad: 0
    kernel_size: 4
    group: 1
    stride: 1
    weight_filler {
      type: "xavier"
    }
  }
}
layer {
  name: "conv2_sTanH"
  type: "TanH"
  bottom: "conv2"
  top: "conv2"
}
layer {
  name: "pool2"
  type: "Pooling"
  bottom: "conv2"
  top: "pool2"
  pooling_param {
    pool: MAX
    kernel_size: 2
    stride: 2
  }
}
layer {
  name: "conv3"
  type: "Convolution"
  bottom: "pool2"
  top: "conv3"
  convolution_param {
    num_output: 250
    pad: 0
    kernel_size: 4
    group: 1
    stride: 1
    weight_filler {
      type: "xavier"
    }
  }
}
layer {
  name: "conv3_sTanH"
  type: "TanH"
  bottom: "conv3"
  top: "conv3"
}
layer {
  name: "pool3"
  type: "Pooling"
  bottom: "conv3"
  top: "pool3"
  pooling_param {
    pool: MAX
    kernel_size: 2
    stride: 2
  }
}
layer {
  name: "fc4_300"
  type: "InnerProduct"
  bottom: "pool3"
  top: "fc4_300"
  inner_product_param {
    num_output: 300
    weight_filler {
      type: "xavier"
    }
  }
}
layer {
  name: "fc4_sTanH"
  type: "TanH"
  bottom: "fc4_300"
  top: "fc4_300"
}
layer {
  name: "drop4"
  type: "Dropout"
  bottom: "fc4_300"
  top: "fc4_300"
  dropout_param {
    dropout_ratio: 0.4
  }
}
layer {
  name: "fc5_67"
  type: "InnerProduct"
  bottom: "fc4_300"
  top: "fc5_classes"
  inner_product_param {
    num_output: 67
    weight_filler {
      type: "xavier"
    }
  }
}
layer {
  name: "loss"
  type: "SoftmaxWithLoss"
  bottom: "fc5_classes"
  bottom: "label"
  top: "loss"
}
I0409 20:21:11.080482 14130 layer_factory.hpp:77] Creating layer data
I0409 20:21:11.081647 14130 net.cpp:100] Creating Layer data
I0409 20:21:11.081662 14130 net.cpp:408] data -> data
I0409 20:21:11.081686 14130 net.cpp:408] data -> label
I0409 20:21:11.083290 14203 db_lmdb.cpp:35] Opened lmdb ../local_data/lmdb/rtsd-r1/CoNorm/train/lmdb
I0409 20:21:11.100589 14130 data_layer.cpp:41] output data size: 1024,3,48,48
I0409 20:21:11.149793 14130 net.cpp:150] Setting up data
I0409 20:21:11.149827 14130 net.cpp:157] Top shape: 1024 3 48 48 (7077888)
I0409 20:21:11.149870 14130 net.cpp:157] Top shape: 1024 (1024)
I0409 20:21:11.149874 14130 net.cpp:165] Memory required for data: 28315648
I0409 20:21:11.149885 14130 layer_factory.hpp:77] Creating layer conv1
I0409 20:21:11.149910 14130 net.cpp:100] Creating Layer conv1
I0409 20:21:11.149919 14130 net.cpp:434] conv1 <- data
I0409 20:21:11.149932 14130 net.cpp:408] conv1 -> conv1
I0409 20:21:11.425644 14130 net.cpp:150] Setting up conv1
I0409 20:21:11.425674 14130 net.cpp:157] Top shape: 1024 100 42 42 (180633600)
I0409 20:21:11.425678 14130 net.cpp:165] Memory required for data: 750850048
I0409 20:21:11.425700 14130 layer_factory.hpp:77] Creating layer conv1_sTanH
I0409 20:21:11.425724 14130 net.cpp:100] Creating Layer conv1_sTanH
I0409 20:21:11.425729 14130 net.cpp:434] conv1_sTanH <- conv1
I0409 20:21:11.425739 14130 net.cpp:395] conv1_sTanH -> conv1 (in-place)
I0409 20:21:11.425941 14130 net.cpp:150] Setting up conv1_sTanH
I0409 20:21:11.425956 14130 net.cpp:157] Top shape: 1024 100 42 42 (180633600)
I0409 20:21:11.425958 14130 net.cpp:165] Memory required for data: 1473384448
I0409 20:21:11.425962 14130 layer_factory.hpp:77] Creating layer pool1
I0409 20:21:11.425969 14130 net.cpp:100] Creating Layer pool1
I0409 20:21:11.425972 14130 net.cpp:434] pool1 <- conv1
I0409 20:21:11.425978 14130 net.cpp:408] pool1 -> pool1
I0409 20:21:11.426033 14130 net.cpp:150] Setting up pool1
I0409 20:21:11.426043 14130 net.cpp:157] Top shape: 1024 100 21 21 (45158400)
I0409 20:21:11.426045 14130 net.cpp:165] Memory required for data: 1654018048
I0409 20:21:11.426048 14130 layer_factory.hpp:77] Creating layer conv2
I0409 20:21:11.426060 14130 net.cpp:100] Creating Layer conv2
I0409 20:21:11.426065 14130 net.cpp:434] conv2 <- pool1
I0409 20:21:11.426071 14130 net.cpp:408] conv2 -> conv2
I0409 20:21:11.430542 14130 net.cpp:150] Setting up conv2
I0409 20:21:11.430562 14130 net.cpp:157] Top shape: 1024 150 18 18 (49766400)
I0409 20:21:11.430564 14130 net.cpp:165] Memory required for data: 1853083648
I0409 20:21:11.430574 14130 layer_factory.hpp:77] Creating layer conv2_sTanH
I0409 20:21:11.430584 14130 net.cpp:100] Creating Layer conv2_sTanH
I0409 20:21:11.430588 14130 net.cpp:434] conv2_sTanH <- conv2
I0409 20:21:11.430594 14130 net.cpp:395] conv2_sTanH -> conv2 (in-place)
I0409 20:21:11.431358 14130 net.cpp:150] Setting up conv2_sTanH
I0409 20:21:11.431375 14130 net.cpp:157] Top shape: 1024 150 18 18 (49766400)
I0409 20:21:11.431377 14130 net.cpp:165] Memory required for data: 2052149248
I0409 20:21:11.431381 14130 layer_factory.hpp:77] Creating layer pool2
I0409 20:21:11.431390 14130 net.cpp:100] Creating Layer pool2
I0409 20:21:11.431393 14130 net.cpp:434] pool2 <- conv2
I0409 20:21:11.431401 14130 net.cpp:408] pool2 -> pool2
I0409 20:21:11.431452 14130 net.cpp:150] Setting up pool2
I0409 20:21:11.431460 14130 net.cpp:157] Top shape: 1024 150 9 9 (12441600)
I0409 20:21:11.431463 14130 net.cpp:165] Memory required for data: 2101915648
I0409 20:21:11.431466 14130 layer_factory.hpp:77] Creating layer conv3
I0409 20:21:11.431475 14130 net.cpp:100] Creating Layer conv3
I0409 20:21:11.431480 14130 net.cpp:434] conv3 <- pool2
I0409 20:21:11.431486 14130 net.cpp:408] conv3 -> conv3
I0409 20:21:11.437005 14130 net.cpp:150] Setting up conv3
I0409 20:21:11.437036 14130 net.cpp:157] Top shape: 1024 250 6 6 (9216000)
I0409 20:21:11.437041 14130 net.cpp:165] Memory required for data: 2138779648
I0409 20:21:11.437049 14130 layer_factory.hpp:77] Creating layer conv3_sTanH
I0409 20:21:11.437057 14130 net.cpp:100] Creating Layer conv3_sTanH
I0409 20:21:11.437062 14130 net.cpp:434] conv3_sTanH <- conv3
I0409 20:21:11.437068 14130 net.cpp:395] conv3_sTanH -> conv3 (in-place)
I0409 20:21:11.437857 14130 net.cpp:150] Setting up conv3_sTanH
I0409 20:21:11.437873 14130 net.cpp:157] Top shape: 1024 250 6 6 (9216000)
I0409 20:21:11.437877 14130 net.cpp:165] Memory required for data: 2175643648
I0409 20:21:11.437880 14130 layer_factory.hpp:77] Creating layer pool3
I0409 20:21:11.437887 14130 net.cpp:100] Creating Layer pool3
I0409 20:21:11.437891 14130 net.cpp:434] pool3 <- conv3
I0409 20:21:11.437917 14130 net.cpp:408] pool3 -> pool3
I0409 20:21:11.437973 14130 net.cpp:150] Setting up pool3
I0409 20:21:11.437981 14130 net.cpp:157] Top shape: 1024 250 3 3 (2304000)
I0409 20:21:11.437984 14130 net.cpp:165] Memory required for data: 2184859648
I0409 20:21:11.437988 14130 layer_factory.hpp:77] Creating layer fc4_300
I0409 20:21:11.437994 14130 net.cpp:100] Creating Layer fc4_300
I0409 20:21:11.437999 14130 net.cpp:434] fc4_300 <- pool3
I0409 20:21:11.438004 14130 net.cpp:408] fc4_300 -> fc4_300
I0409 20:21:11.443331 14130 net.cpp:150] Setting up fc4_300
I0409 20:21:11.443348 14130 net.cpp:157] Top shape: 1024 300 (307200)
I0409 20:21:11.443363 14130 net.cpp:165] Memory required for data: 2186088448
I0409 20:21:11.443370 14130 layer_factory.hpp:77] Creating layer fc4_sTanH
I0409 20:21:11.443377 14130 net.cpp:100] Creating Layer fc4_sTanH
I0409 20:21:11.443382 14130 net.cpp:434] fc4_sTanH <- fc4_300
I0409 20:21:11.443387 14130 net.cpp:395] fc4_sTanH -> fc4_300 (in-place)
I0409 20:21:11.443584 14130 net.cpp:150] Setting up fc4_sTanH
I0409 20:21:11.443596 14130 net.cpp:157] Top shape: 1024 300 (307200)
I0409 20:21:11.443599 14130 net.cpp:165] Memory required for data: 2187317248
I0409 20:21:11.443603 14130 layer_factory.hpp:77] Creating layer drop4
I0409 20:21:11.443609 14130 net.cpp:100] Creating Layer drop4
I0409 20:21:11.443612 14130 net.cpp:434] drop4 <- fc4_300
I0409 20:21:11.443619 14130 net.cpp:395] drop4 -> fc4_300 (in-place)
I0409 20:21:11.443652 14130 net.cpp:150] Setting up drop4
I0409 20:21:11.443662 14130 net.cpp:157] Top shape: 1024 300 (307200)
I0409 20:21:11.443665 14130 net.cpp:165] Memory required for data: 2188546048
I0409 20:21:11.443668 14130 layer_factory.hpp:77] Creating layer fc5_67
I0409 20:21:11.443675 14130 net.cpp:100] Creating Layer fc5_67
I0409 20:21:11.443677 14130 net.cpp:434] fc5_67 <- fc4_300
I0409 20:21:11.443682 14130 net.cpp:408] fc5_67 -> fc5_classes
I0409 20:21:11.444962 14130 net.cpp:150] Setting up fc5_67
I0409 20:21:11.444979 14130 net.cpp:157] Top shape: 1024 67 (68608)
I0409 20:21:11.444983 14130 net.cpp:165] Memory required for data: 2188820480
I0409 20:21:11.444994 14130 layer_factory.hpp:77] Creating layer loss
I0409 20:21:11.445001 14130 net.cpp:100] Creating Layer loss
I0409 20:21:11.445005 14130 net.cpp:434] loss <- fc5_classes
I0409 20:21:11.445010 14130 net.cpp:434] loss <- label
I0409 20:21:11.445016 14130 net.cpp:408] loss -> loss
I0409 20:21:11.445030 14130 layer_factory.hpp:77] Creating layer loss
…
I0409 20:21:11.445704 14130 solver.cpp:193] Creating test net (#0) specified by test_net file: ./Prototxt/experiment_7/rtsd-r1/CoNorm/trial_1/test.prototxt
I0409 20:21:11.445835 14130 net.cpp:58] Initializing net from parameters: 
state {
  phase: TEST
}
layer {
  name: "data"
  type: "Data"
  top: "data"
  top: "label"
  include {
    phase: TEST
  }
  transform_param {
    mirror: false
    crop_size: 48
    mean_value: 133
    mean_value: 133
    mean_value: 132
  }
  data_param {
    source: "../local_data/lmdb/rtsd-r1/CoNorm/test/lmdb"
    batch_size: 1024
    backend: LMDB
  }
}
layer {
  name: "conv1"
  type: "Convolution"
  bottom: "data"
  top: "conv1"
  convolution_param {
    num_output: 100
    pad: 0
    kernel_size: 7
    group: 1
    stride: 1
    weight_filler {
      type: "xavier"
    }
  }
}
layer {
  name: "conv1_sTanH"
  type: "TanH"
  bottom: "conv1"
  top: "conv1"
}
layer {
  name: "pool1"
  type: "Pooling"
  bottom: "conv1"
  top: "pool1"
  pooling_param {
    pool: MAX
    kernel_size: 2
    stride: 2
  }
}
layer {
  name: "conv2"
  type: "Convolution"
  bottom: "pool1"
  top: "conv2"
  convolution_param {
    num_output: 150
    pad: 0
    kernel_size: 4
    group: 1
    stride: 1
    weight_filler {
      type: "xavier"
    }
  }
}
layer {
  name: "conv2_sTanH"
  type: "TanH"
  bottom: "conv2"
  top: "conv2"
}
layer {
  name: "pool2"
  type: "Pooling"
  bottom: "conv2"
  top: "pool2"
  pooling_param {
    pool: MAX
    kernel_size: 2
    stride: 2
  }
}
layer {
  name: "conv3"
  type: "Convolution"
  bottom: "pool2"
  top: "conv3"
  convolution_param {
    num_output: 250
    pad: 0
    kernel_size: 4
    group: 1
    stride: 1
    weight_filler {
      type: "xavier"
    }
  }
}
layer {
  name: "conv3_sTanH"
  type: "TanH"
  bottom: "conv3"
  top: "conv3"
}
layer {
  name: "pool3"
  type: "Pooling"
  bottom: "conv3"
  top: "pool3"
  pooling_param {
    pool: MAX
    kernel_size: 2
    stride: 2
  }
}
layer {
  name: "fc4_300"
  type: "InnerProduct"
  bottom: "pool3"
  top: "fc4_300"
  inner_product_param {
    num_output: 300
    weight_filler {
      type: "xavier"
    }
  }
}
layer {
  name: "fc4_sTanH"
  type: "TanH"
  bottom: "fc4_300"
  top: "fc4_300"
}
layer {
  name: "drop4"
  type: "Dropout"
  bottom: "fc4_300"
  top: "fc4_300"
  dropout_param {
    dropout_ratio: 0.4
  }
}
layer {
  name: "fc5_67"
  type: "InnerProduct"
  bottom: "fc4_300"
  top: "fc5_classes"
  inner_product_param {
    num_output: 67
    weight_filler {
      type: "xavier"
    }
  }
}
layer {
  name: "loss"
  type: "SoftmaxWithLoss"
  bottom: "fc5_classes"
  bottom: "label"
  top: "loss"
}
layer {
  name: "accuracy_1"
  type: "Accuracy"
  bottom: "fc5_classes"
  bottom: "label"
  top: "accuracy_1"
  include {
    phase: TEST
  }
  accuracy_param {
    top_k: 1
  }
}
layer {
  name: "accuracy_5"
  type: "Accuracy"
  bottom: "fc5_classes"
  bottom: "label"
  top: "accuracy_5"
  include {
    phase: TEST
  }
  accuracy_param {
    top_k: 5
  }
}
I0409 20:21:11.445932 14130 layer_factory.hpp:77] Creating layer data
I0409 20:21:11.446615 14130 net.cpp:100] Creating Layer data
I0409 20:21:11.446627 14130 net.cpp:408] data -> data
I0409 20:21:11.446636 14130 net.cpp:408] data -> label
I0409 20:21:11.447815 14222 db_lmdb.cpp:35] Opened lmdb ../local_data/lmdb/rtsd-r1/CoNorm/test/lmdb
I0409 20:21:11.448087 14130 data_layer.cpp:41] output data size: 1024,3,48,48
I0409 20:21:11.502115 14130 net.cpp:150] Setting up data
I0409 20:21:11.502146 14130 net.cpp:157] Top shape: 1024 3 48 48 (7077888)
I0409 20:21:11.502151 14130 net.cpp:157] Top shape: 1024 (1024)
I0409 20:21:11.502154 14130 net.cpp:165] Memory required for data: 28315648
I0409 20:21:11.502161 14130 layer_factory.hpp:77] Creating layer label_data_1_split
I0409 20:21:11.502177 14130 net.cpp:100] Creating Layer label_data_1_split
I0409 20:21:11.502182 14130 net.cpp:434] label_data_1_split <- label
I0409 20:21:11.502192 14130 net.cpp:408] label_data_1_split -> label_data_1_split_0
I0409 20:21:11.502204 14130 net.cpp:408] label_data_1_split -> label_data_1_split_1
I0409 20:21:11.502213 14130 net.cpp:408] label_data_1_split -> label_data_1_split_2
I0409 20:21:11.502343 14130 net.cpp:150] Setting up label_data_1_split
I0409 20:21:11.502354 14130 net.cpp:157] Top shape: 1024 (1024)
I0409 20:21:11.502358 14130 net.cpp:157] Top shape: 1024 (1024)
I0409 20:21:11.502362 14130 net.cpp:157] Top shape: 1024 (1024)
I0409 20:21:11.502364 14130 net.cpp:165] Memory required for data: 28327936
I0409 20:21:11.502368 14130 layer_factory.hpp:77] Creating layer conv1
I0409 20:21:11.502384 14130 net.cpp:100] Creating Layer conv1
I0409 20:21:11.502389 14130 net.cpp:434] conv1 <- data
I0409 20:21:11.502395 14130 net.cpp:408] conv1 -> conv1
I0409 20:21:11.504379 14130 net.cpp:150] Setting up conv1
I0409 20:21:11.504398 14130 net.cpp:157] Top shape: 1024 100 42 42 (180633600)
I0409 20:21:11.504403 14130 net.cpp:165] Memory required for data: 750862336
I0409 20:21:11.504415 14130 layer_factory.hpp:77] Creating layer conv1_sTanH
I0409 20:21:11.504421 14130 net.cpp:100] Creating Layer conv1_sTanH
I0409 20:21:11.504426 14130 net.cpp:434] conv1_sTanH <- conv1
I0409 20:21:11.504431 14130 net.cpp:395] conv1_sTanH -> conv1 (in-place)
I0409 20:21:11.507014 14130 net.cpp:150] Setting up conv1_sTanH
I0409 20:21:11.507046 14130 net.cpp:157] Top shape: 1024 100 42 42 (180633600)
I0409 20:21:11.507053 14130 net.cpp:165] Memory required for data: 1473396736
I0409 20:21:11.507061 14130 layer_factory.hpp:77] Creating layer pool1
I0409 20:21:11.507089 14130 net.cpp:100] Creating Layer pool1
I0409 20:21:11.507107 14130 net.cpp:434] pool1 <- conv1
I0409 20:21:11.507122 14130 net.cpp:408] pool1 -> pool1
I0409 20:21:11.507230 14130 net.cpp:150] Setting up pool1
I0409 20:21:11.507249 14130 net.cpp:157] Top shape: 1024 100 21 21 (45158400)
I0409 20:21:11.507271 14130 net.cpp:165] Memory required for data: 1654030336
I0409 20:21:11.507273 14130 layer_factory.hpp:77] Creating layer conv2
I0409 20:21:11.507283 14130 net.cpp:100] Creating Layer conv2
I0409 20:21:11.507287 14130 net.cpp:434] conv2 <- pool1
I0409 20:21:11.507292 14130 net.cpp:408] conv2 -> conv2
I0409 20:21:11.511600 14130 net.cpp:150] Setting up conv2
I0409 20:21:11.511622 14130 net.cpp:157] Top shape: 1024 150 18 18 (49766400)
I0409 20:21:11.511626 14130 net.cpp:165] Memory required for data: 1853095936
I0409 20:21:11.511636 14130 layer_factory.hpp:77] Creating layer conv2_sTanH
I0409 20:21:11.511643 14130 net.cpp:100] Creating Layer conv2_sTanH
I0409 20:21:11.511646 14130 net.cpp:434] conv2_sTanH <- conv2
I0409 20:21:11.511652 14130 net.cpp:395] conv2_sTanH -> conv2 (in-place)
I0409 20:21:11.512697 14130 net.cpp:150] Setting up conv2_sTanH
I0409 20:21:11.512717 14130 net.cpp:157] Top shape: 1024 150 18 18 (49766400)
I0409 20:21:11.512720 14130 net.cpp:165] Memory required for data: 2052161536
I0409 20:21:11.512723 14130 layer_factory.hpp:77] Creating layer pool2
I0409 20:21:11.512732 14130 net.cpp:100] Creating Layer pool2
I0409 20:21:11.512734 14130 net.cpp:434] pool2 <- conv2
I0409 20:21:11.512742 14130 net.cpp:408] pool2 -> pool2
I0409 20:21:11.512796 14130 net.cpp:150] Setting up pool2
I0409 20:21:11.512811 14130 net.cpp:157] Top shape: 1024 150 9 9 (12441600)
I0409 20:21:11.512815 14130 net.cpp:165] Memory required for data: 2101927936
I0409 20:21:11.512818 14130 layer_factory.hpp:77] Creating layer conv3
I0409 20:21:11.512830 14130 net.cpp:100] Creating Layer conv3
I0409 20:21:11.512835 14130 net.cpp:434] conv3 <- pool2
I0409 20:21:11.512841 14130 net.cpp:408] conv3 -> conv3
I0409 20:21:11.520321 14130 net.cpp:150] Setting up conv3
I0409 20:21:11.520344 14130 net.cpp:157] Top shape: 1024 250 6 6 (9216000)
I0409 20:21:11.520347 14130 net.cpp:165] Memory required for data: 2138791936
I0409 20:21:11.520357 14130 layer_factory.hpp:77] Creating layer conv3_sTanH
I0409 20:21:11.520366 14130 net.cpp:100] Creating Layer conv3_sTanH
I0409 20:21:11.520370 14130 net.cpp:434] conv3_sTanH <- conv3
I0409 20:21:11.520375 14130 net.cpp:395] conv3_sTanH -> conv3 (in-place)
I0409 20:21:11.521467 14130 net.cpp:150] Setting up conv3_sTanH
I0409 20:21:11.521487 14130 net.cpp:157] Top shape: 1024 250 6 6 (9216000)
I0409 20:21:11.521507 14130 net.cpp:165] Memory required for data: 2175655936
I0409 20:21:11.521514 14130 layer_factory.hpp:77] Creating layer pool3
I0409 20:21:11.521522 14130 net.cpp:100] Creating Layer pool3
I0409 20:21:11.521525 14130 net.cpp:434] pool3 <- conv3
I0409 20:21:11.521530 14130 net.cpp:408] pool3 -> pool3
I0409 20:21:11.521586 14130 net.cpp:150] Setting up pool3
I0409 20:21:11.521595 14130 net.cpp:157] Top shape: 1024 250 3 3 (2304000)
I0409 20:21:11.521598 14130 net.cpp:165] Memory required for data: 2184871936
I0409 20:21:11.521601 14130 layer_factory.hpp:77] Creating layer fc4_300
I0409 20:21:11.521608 14130 net.cpp:100] Creating Layer fc4_300
I0409 20:21:11.521613 14130 net.cpp:434] fc4_300 <- pool3
I0409 20:21:11.521621 14130 net.cpp:408] fc4_300 -> fc4_300
I0409 20:21:11.527287 14130 net.cpp:150] Setting up fc4_300
I0409 20:21:11.527308 14130 net.cpp:157] Top shape: 1024 300 (307200)
I0409 20:21:11.527312 14130 net.cpp:165] Memory required for data: 2186100736
I0409 20:21:11.527319 14130 layer_factory.hpp:77] Creating layer fc4_sTanH
I0409 20:21:11.527325 14130 net.cpp:100] Creating Layer fc4_sTanH
I0409 20:21:11.527329 14130 net.cpp:434] fc4_sTanH <- fc4_300
I0409 20:21:11.527336 14130 net.cpp:395] fc4_sTanH -> fc4_300 (in-place)
I0409 20:21:11.527545 14130 net.cpp:150] Setting up fc4_sTanH
I0409 20:21:11.527557 14130 net.cpp:157] Top shape: 1024 300 (307200)
I0409 20:21:11.527561 14130 net.cpp:165] Memory required for data: 2187329536
I0409 20:21:11.527565 14130 layer_factory.hpp:77] Creating layer drop4
I0409 20:21:11.527571 14130 net.cpp:100] Creating Layer drop4
I0409 20:21:11.527575 14130 net.cpp:434] drop4 <- fc4_300
I0409 20:21:11.527581 14130 net.cpp:395] drop4 -> fc4_300 (in-place)
I0409 20:21:11.527616 14130 net.cpp:150] Setting up drop4
I0409 20:21:11.527623 14130 net.cpp:157] Top shape: 1024 300 (307200)
I0409 20:21:11.527626 14130 net.cpp:165] Memory required for data: 2188558336
I0409 20:21:11.527629 14130 layer_factory.hpp:77] Creating layer fc5_67
I0409 20:21:11.527636 14130 net.cpp:100] Creating Layer fc5_67
I0409 20:21:11.527642 14130 net.cpp:434] fc5_67 <- fc4_300
I0409 20:21:11.527649 14130 net.cpp:408] fc5_67 -> fc5_classes
I0409 20:21:11.527920 14130 net.cpp:150] Setting up fc5_67
I0409 20:21:11.527930 14130 net.cpp:157] Top shape: 1024 67 (68608)
I0409 20:21:11.527933 14130 net.cpp:165] Memory required for data: 2188832768
I0409 20:21:11.527945 14130 layer_factory.hpp:77] Creating layer fc5_classes_fc5_67_0_split
I0409 20:21:11.527953 14130 net.cpp:100] Creating Layer fc5_classes_fc5_67_0_split
I0409 20:21:11.527957 14130 net.cpp:434] fc5_classes_fc5_67_0_split <- fc5_classes
I0409 20:21:11.527964 14130 net.cpp:408] fc5_classes_fc5_67_0_split -> fc5_classes_fc5_67_0_split_0
I0409 20:21:11.527977 14130 net.cpp:408] fc5_classes_fc5_67_0_split -> fc5_classes_fc5_67_0_split_1
I0409 20:21:11.527987 14130 net.cpp:408] fc5_classes_fc5_67_0_split -> fc5_classes_fc5_67_0_split_2
I0409 20:21:11.528043 14130 net.cpp:150] Setting up fc5_classes_fc5_67_0_split
I0409 20:21:11.528050 14130 net.cpp:157] Top shape: 1024 67 (68608)
I0409 20:21:11.528053 14130 net.cpp:157] Top shape: 1024 67 (68608)
I0409 20:21:11.528057 14130 net.cpp:157] Top shape: 1024 67 (68608)
I0409 20:21:11.528059 14130 net.cpp:165] Memory required for data: 2189656064
I0409 20:21:11.528062 14130 layer_factory.hpp:77] Creating layer loss
I0409 20:21:11.528070 14130 net.cpp:100] Creating Layer loss
I0409 20:21:11.528075 14130 net.cpp:434] loss <- fc5_classes_fc5_67_0_split_0
I0409 20:21:11.528080 14130 net.cpp:434] loss <- label_data_1_split_0
I0409 20:21:11.528085 14130 net.cpp:408] loss -> loss
…
