…
I0409 19:55:51.658092 20605 net.cpp:322] The NetState phase (0) differed from the phase (1) specified by a rule in layer accuracy_5
I0409 19:55:51.658187 20605 net.cpp:58] Initializing net from parameters: 
state {
  phase: TRAIN
  level: 0
  stage: ""
}
layer {
  name: "data"
  type: "Data"
  top: "data"
  top: "label"
  include {
    phase: TRAIN
  }
  transform_param {
    mirror: false
    crop_size: 48
    mean_value: 132
    mean_value: 132
    mean_value: 131
  }
  data_param {
    source: "../local_data/lmdb/rtsd-r1/CoNorm/train/lmdb"
    batch_size: 1024
    backend: LMDB
  }
}
layer {
  name: "conv1"
  type: "Convolution"
  bottom: "data"
  top: "conv1"
  convolution_param {
    num_output: 100
    pad: 0
    kernel_size: 7
    group: 1
    stride: 1
    weight_filler {
      type: "xavier"
    }
  }
}
layer {
  name: "conv1_sTanH"
  type: "TanH"
  bottom: "conv1"
  top: "conv1"
}
layer {
  name: "pool1"
  type: "Pooling"
  bottom: "conv1"
  top: "pool1"
  pooling_param {
    pool: MAX
    kernel_size: 2
    stride: 2
  }
}
layer {
  name: "conv2"
  type: "Convolution"
  bottom: "pool1"
  top: "conv2"
  convolution_param {
    num_output: 150
    pad: 0
    kernel_size: 4
    group: 1
    stride: 1
    weight_filler {
      type: "xavier"
    }
  }
}
layer {
  name: "conv2_sTanH"
  type: "TanH"
  bottom: "conv2"
  top: "conv2"
}
layer {
  name: "pool2"
  type: "Pooling"
  bottom: "conv2"
  top: "pool2"
  pooling_param {
    pool: MAX
    kernel_size: 2
    stride: 2
  }
}
layer {
  name: "conv3"
  type: "Convolution"
  bottom: "pool2"
  top: "conv3"
  convolution_param {
    num_output: 250
    pad: 0
    kernel_size: 4
    group: 1
    stride: 1
    weight_filler {
      type: "xavier"
    }
  }
}
layer {
  name: "conv3_sTanH"
  type: "TanH"
  bottom: "conv3"
  top: "conv3"
}
layer {
  name: "pool3"
  type: "Pooling"
  bottom: "conv3"
  top: "pool3"
  pooling_param {
    pool: MAX
    kernel_size: 2
    stride: 2
  }
}
layer {
  name: "fc4_300"
  type: "InnerProduct"
  bottom: "pool3"
  top: "fc4_300"
  inner_product_param {
    num_output: 300
    weight_filler {
      type: "xavier"
    }
  }
}
layer {
  name: "fc4_sTanH"
  type: "TanH"
  bottom: "fc4_300"
  top: "fc4_300"
}
layer {
  name: "drop4"
  type: "Dropout"
  bottom: "fc4_300"
  top: "fc4_300"
  dropout_param {
    dropout_ratio: 0.4
  }
}
layer {
  name: "fc5_67"
  type: "InnerProduct"
  bottom: "fc4_300"
  top: "fc5_classes"
  inner_product_param {
    num_output: 67
    weight_filler {
      type: "xavier"
    }
  }
}
layer {
  name: "loss"
  type: "SoftmaxWithLoss"
  bottom: "fc5_classes"
  bottom: "label"
  top: "loss"
}
I0409 19:55:51.658272 20605 layer_factory.hpp:77] Creating layer data
I0409 19:55:51.659338 20605 net.cpp:100] Creating Layer data
I0409 19:55:51.659353 20605 net.cpp:408] data -> data
I0409 19:55:51.659390 20605 net.cpp:408] data -> label
I0409 19:55:51.660979 20685 db_lmdb.cpp:35] Opened lmdb ../local_data/lmdb/rtsd-r1/CoNorm/train/lmdb
I0409 19:55:51.677130 20605 data_layer.cpp:41] output data size: 1024,3,48,48
I0409 19:55:51.722375 20605 net.cpp:150] Setting up data
I0409 19:55:51.722409 20605 net.cpp:157] Top shape: 1024 3 48 48 (7077888)
I0409 19:55:51.722453 20605 net.cpp:157] Top shape: 1024 (1024)
I0409 19:55:51.722457 20605 net.cpp:165] Memory required for data: 28315648
I0409 19:55:51.722467 20605 layer_factory.hpp:77] Creating layer conv1
I0409 19:55:51.722488 20605 net.cpp:100] Creating Layer conv1
I0409 19:55:51.722496 20605 net.cpp:434] conv1 <- data
I0409 19:55:51.722512 20605 net.cpp:408] conv1 -> conv1
I0409 19:55:51.995779 20605 net.cpp:150] Setting up conv1
I0409 19:55:51.995808 20605 net.cpp:157] Top shape: 1024 100 42 42 (180633600)
I0409 19:55:51.995812 20605 net.cpp:165] Memory required for data: 750850048
I0409 19:55:51.995834 20605 layer_factory.hpp:77] Creating layer conv1_sTanH
I0409 19:55:51.995847 20605 net.cpp:100] Creating Layer conv1_sTanH
I0409 19:55:51.995865 20605 net.cpp:434] conv1_sTanH <- conv1
I0409 19:55:51.995872 20605 net.cpp:395] conv1_sTanH -> conv1 (in-place)
I0409 19:55:51.996075 20605 net.cpp:150] Setting up conv1_sTanH
I0409 19:55:51.996088 20605 net.cpp:157] Top shape: 1024 100 42 42 (180633600)
I0409 19:55:51.996091 20605 net.cpp:165] Memory required for data: 1473384448
I0409 19:55:51.996095 20605 layer_factory.hpp:77] Creating layer pool1
I0409 19:55:51.996104 20605 net.cpp:100] Creating Layer pool1
I0409 19:55:51.996107 20605 net.cpp:434] pool1 <- conv1
I0409 19:55:51.996114 20605 net.cpp:408] pool1 -> pool1
I0409 19:55:51.996165 20605 net.cpp:150] Setting up pool1
I0409 19:55:51.996175 20605 net.cpp:157] Top shape: 1024 100 21 21 (45158400)
I0409 19:55:51.996177 20605 net.cpp:165] Memory required for data: 1654018048
I0409 19:55:51.996181 20605 layer_factory.hpp:77] Creating layer conv2
I0409 19:55:51.996191 20605 net.cpp:100] Creating Layer conv2
I0409 19:55:51.996196 20605 net.cpp:434] conv2 <- pool1
I0409 19:55:51.996201 20605 net.cpp:408] conv2 -> conv2
I0409 19:55:52.000567 20605 net.cpp:150] Setting up conv2
I0409 19:55:52.000586 20605 net.cpp:157] Top shape: 1024 150 18 18 (49766400)
I0409 19:55:52.000591 20605 net.cpp:165] Memory required for data: 1853083648
I0409 19:55:52.000612 20605 layer_factory.hpp:77] Creating layer conv2_sTanH
I0409 19:55:52.000620 20605 net.cpp:100] Creating Layer conv2_sTanH
I0409 19:55:52.000625 20605 net.cpp:434] conv2_sTanH <- conv2
I0409 19:55:52.000630 20605 net.cpp:395] conv2_sTanH -> conv2 (in-place)
I0409 19:55:52.001338 20605 net.cpp:150] Setting up conv2_sTanH
I0409 19:55:52.001353 20605 net.cpp:157] Top shape: 1024 150 18 18 (49766400)
I0409 19:55:52.001358 20605 net.cpp:165] Memory required for data: 2052149248
I0409 19:55:52.001363 20605 layer_factory.hpp:77] Creating layer pool2
I0409 19:55:52.001369 20605 net.cpp:100] Creating Layer pool2
I0409 19:55:52.001372 20605 net.cpp:434] pool2 <- conv2
I0409 19:55:52.001379 20605 net.cpp:408] pool2 -> pool2
I0409 19:55:52.001422 20605 net.cpp:150] Setting up pool2
I0409 19:55:52.001430 20605 net.cpp:157] Top shape: 1024 150 9 9 (12441600)
I0409 19:55:52.001433 20605 net.cpp:165] Memory required for data: 2101915648
I0409 19:55:52.001436 20605 layer_factory.hpp:77] Creating layer conv3
I0409 19:55:52.001446 20605 net.cpp:100] Creating Layer conv3
I0409 19:55:52.001449 20605 net.cpp:434] conv3 <- pool2
I0409 19:55:52.001454 20605 net.cpp:408] conv3 -> conv3
I0409 19:55:52.006893 20605 net.cpp:150] Setting up conv3
I0409 19:55:52.006911 20605 net.cpp:157] Top shape: 1024 250 6 6 (9216000)
I0409 19:55:52.006916 20605 net.cpp:165] Memory required for data: 2138779648
I0409 19:55:52.006937 20605 layer_factory.hpp:77] Creating layer conv3_sTanH
I0409 19:55:52.006945 20605 net.cpp:100] Creating Layer conv3_sTanH
I0409 19:55:52.006950 20605 net.cpp:434] conv3_sTanH <- conv3
I0409 19:55:52.006955 20605 net.cpp:395] conv3_sTanH -> conv3 (in-place)
I0409 19:55:52.007705 20605 net.cpp:150] Setting up conv3_sTanH
I0409 19:55:52.007721 20605 net.cpp:157] Top shape: 1024 250 6 6 (9216000)
I0409 19:55:52.007725 20605 net.cpp:165] Memory required for data: 2175643648
I0409 19:55:52.007730 20605 layer_factory.hpp:77] Creating layer pool3
I0409 19:55:52.007736 20605 net.cpp:100] Creating Layer pool3
I0409 19:55:52.007740 20605 net.cpp:434] pool3 <- conv3
I0409 19:55:52.007763 20605 net.cpp:408] pool3 -> pool3
I0409 19:55:52.007812 20605 net.cpp:150] Setting up pool3
I0409 19:55:52.007820 20605 net.cpp:157] Top shape: 1024 250 3 3 (2304000)
I0409 19:55:52.007823 20605 net.cpp:165] Memory required for data: 2184859648
I0409 19:55:52.007827 20605 layer_factory.hpp:77] Creating layer fc4_300
I0409 19:55:52.007833 20605 net.cpp:100] Creating Layer fc4_300
I0409 19:55:52.007839 20605 net.cpp:434] fc4_300 <- pool3
I0409 19:55:52.007844 20605 net.cpp:408] fc4_300 -> fc4_300
I0409 19:55:52.013165 20605 net.cpp:150] Setting up fc4_300
I0409 19:55:52.013181 20605 net.cpp:157] Top shape: 1024 300 (307200)
I0409 19:55:52.013185 20605 net.cpp:165] Memory required for data: 2186088448
I0409 19:55:52.013203 20605 layer_factory.hpp:77] Creating layer fc4_sTanH
I0409 19:55:52.013211 20605 net.cpp:100] Creating Layer fc4_sTanH
I0409 19:55:52.013214 20605 net.cpp:434] fc4_sTanH <- fc4_300
I0409 19:55:52.013219 20605 net.cpp:395] fc4_sTanH -> fc4_300 (in-place)
I0409 19:55:52.013406 20605 net.cpp:150] Setting up fc4_sTanH
I0409 19:55:52.013417 20605 net.cpp:157] Top shape: 1024 300 (307200)
I0409 19:55:52.013422 20605 net.cpp:165] Memory required for data: 2187317248
I0409 19:55:52.013424 20605 layer_factory.hpp:77] Creating layer drop4
I0409 19:55:52.013432 20605 net.cpp:100] Creating Layer drop4
I0409 19:55:52.013435 20605 net.cpp:434] drop4 <- fc4_300
I0409 19:55:52.013440 20605 net.cpp:395] drop4 -> fc4_300 (in-place)
I0409 19:55:52.013469 20605 net.cpp:150] Setting up drop4
I0409 19:55:52.013476 20605 net.cpp:157] Top shape: 1024 300 (307200)
I0409 19:55:52.013479 20605 net.cpp:165] Memory required for data: 2188546048
I0409 19:55:52.013483 20605 layer_factory.hpp:77] Creating layer fc5_67
I0409 19:55:52.013489 20605 net.cpp:100] Creating Layer fc5_67
I0409 19:55:52.013491 20605 net.cpp:434] fc5_67 <- fc4_300
I0409 19:55:52.013496 20605 net.cpp:408] fc5_67 -> fc5_classes
I0409 19:55:52.014731 20605 net.cpp:150] Setting up fc5_67
I0409 19:55:52.014746 20605 net.cpp:157] Top shape: 1024 67 (68608)
I0409 19:55:52.014751 20605 net.cpp:165] Memory required for data: 2188820480
I0409 19:55:52.014773 20605 layer_factory.hpp:77] Creating layer loss
I0409 19:55:52.014781 20605 net.cpp:100] Creating Layer loss
I0409 19:55:52.014786 20605 net.cpp:434] loss <- fc5_classes
I0409 19:55:52.014789 20605 net.cpp:434] loss <- label
I0409 19:55:52.014796 20605 net.cpp:408] loss -> loss
I0409 19:55:52.014808 20605 layer_factory.hpp:77] Creating layer loss
…
I0409 19:55:52.015447 20605 solver.cpp:193] Creating test net (#0) specified by test_net file: ./Prototxt/experiment_7/rtsd-r1/CoNorm/trial_1/test.prototxt
I0409 19:55:52.015571 20605 net.cpp:58] Initializing net from parameters: 
state {
  phase: TEST
}
layer {
  name: "data"
  type: "Data"
  top: "data"
  top: "label"
  include {
    phase: TEST
  }
  transform_param {
    mirror: false
    crop_size: 48
    mean_value: 133
    mean_value: 133
    mean_value: 132
  }
  data_param {
    source: "../local_data/lmdb/rtsd-r1/CoNorm/test/lmdb"
    batch_size: 1024
    backend: LMDB
  }
}
layer {
  name: "conv1"
  type: "Convolution"
  bottom: "data"
  top: "conv1"
  convolution_param {
    num_output: 100
    pad: 0
    kernel_size: 7
    group: 1
    stride: 1
    weight_filler {
      type: "xavier"
    }
  }
}
layer {
  name: "conv1_sTanH"
  type: "TanH"
  bottom: "conv1"
  top: "conv1"
}
layer {
  name: "pool1"
  type: "Pooling"
  bottom: "conv1"
  top: "pool1"
  pooling_param {
    pool: MAX
    kernel_size: 2
    stride: 2
  }
}
layer {
  name: "conv2"
  type: "Convolution"
  bottom: "pool1"
  top: "conv2"
  convolution_param {
    num_output: 150
    pad: 0
    kernel_size: 4
    group: 1
    stride: 1
    weight_filler {
      type: "xavier"
    }
  }
}
layer {
  name: "conv2_sTanH"
  type: "TanH"
  bottom: "conv2"
  top: "conv2"
}
layer {
  name: "pool2"
  type: "Pooling"
  bottom: "conv2"
  top: "pool2"
  pooling_param {
    pool: MAX
    kernel_size: 2
    stride: 2
  }
}
layer {
  name: "conv3"
  type: "Convolution"
  bottom: "pool2"
  top: "conv3"
  convolution_param {
    num_output: 250
    pad: 0
    kernel_size: 4
    group: 1
    stride: 1
    weight_filler {
      type: "xavier"
    }
  }
}
layer {
  name: "conv3_sTanH"
  type: "TanH"
  bottom: "conv3"
  top: "conv3"
}
layer {
  name: "pool3"
  type: "Pooling"
  bottom: "conv3"
  top: "pool3"
  pooling_param {
    pool: MAX
    kernel_size: 2
    stride: 2
  }
}
layer {
  name: "fc4_300"
  type: "InnerProduct"
  bottom: "pool3"
  top: "fc4_300"
  inner_product_param {
    num_output: 300
    weight_filler {
      type: "xavier"
    }
  }
}
layer {
  name: "fc4_sTanH"
  type: "TanH"
  bottom: "fc4_300"
  top: "fc4_300"
}
layer {
  name: "drop4"
  type: "Dropout"
  bottom: "fc4_300"
  top: "fc4_300"
  dropout_param {
    dropout_ratio: 0.4
  }
}
layer {
  name: "fc5_67"
  type: "InnerProduct"
  bottom: "fc4_300"
  top: "fc5_classes"
  inner_product_param {
    num_output: 67
    weight_filler {
      type: "xavier"
    }
  }
}
layer {
  name: "loss"
  type: "SoftmaxWithLoss"
  bottom: "fc5_classes"
  bottom: "label"
  top: "loss"
}
layer {
  name: "accuracy_1"
  type: "Accuracy"
  bottom: "fc5_classes"
  bottom: "label"
  top: "accuracy_1"
  include {
    phase: TEST
  }
  accuracy_param {
    top_k: 1
  }
}
layer {
  name: "accuracy_5"
  type: "Accuracy"
  bottom: "fc5_classes"
  bottom: "label"
  top: "accuracy_5"
  include {
    phase: TEST
  }
  accuracy_param {
    top_k: 5
  }
}
I0409 19:55:52.015652 20605 layer_factory.hpp:77] Creating layer data
I0409 19:55:52.016255 20605 net.cpp:100] Creating Layer data
I0409 19:55:52.016268 20605 net.cpp:408] data -> data
I0409 19:55:52.016276 20605 net.cpp:408] data -> label
I0409 19:55:52.017452 20702 db_lmdb.cpp:35] Opened lmdb ../local_data/lmdb/rtsd-r1/CoNorm/test/lmdb
I0409 19:55:52.017607 20605 data_layer.cpp:41] output data size: 1024,3,48,48
I0409 19:55:52.063727 20605 net.cpp:150] Setting up data
I0409 19:55:52.063755 20605 net.cpp:157] Top shape: 1024 3 48 48 (7077888)
I0409 19:55:52.063760 20605 net.cpp:157] Top shape: 1024 (1024)
I0409 19:55:52.063762 20605 net.cpp:165] Memory required for data: 28315648
I0409 19:55:52.063768 20605 layer_factory.hpp:77] Creating layer label_data_1_split
I0409 19:55:52.063792 20605 net.cpp:100] Creating Layer label_data_1_split
I0409 19:55:52.063796 20605 net.cpp:434] label_data_1_split <- label
I0409 19:55:52.063804 20605 net.cpp:408] label_data_1_split -> label_data_1_split_0
I0409 19:55:52.063814 20605 net.cpp:408] label_data_1_split -> label_data_1_split_1
I0409 19:55:52.063822 20605 net.cpp:408] label_data_1_split -> label_data_1_split_2
I0409 19:55:52.063994 20605 net.cpp:150] Setting up label_data_1_split
I0409 19:55:52.064005 20605 net.cpp:157] Top shape: 1024 (1024)
I0409 19:55:52.064009 20605 net.cpp:157] Top shape: 1024 (1024)
I0409 19:55:52.064013 20605 net.cpp:157] Top shape: 1024 (1024)
I0409 19:55:52.064015 20605 net.cpp:165] Memory required for data: 28327936
I0409 19:55:52.064019 20605 layer_factory.hpp:77] Creating layer conv1
I0409 19:55:52.064031 20605 net.cpp:100] Creating Layer conv1
I0409 19:55:52.064035 20605 net.cpp:434] conv1 <- data
I0409 19:55:52.064041 20605 net.cpp:408] conv1 -> conv1
I0409 19:55:52.072418 20605 net.cpp:150] Setting up conv1
I0409 19:55:52.072435 20605 net.cpp:157] Top shape: 1024 100 42 42 (180633600)
I0409 19:55:52.072439 20605 net.cpp:165] Memory required for data: 750862336
I0409 19:55:52.072453 20605 layer_factory.hpp:77] Creating layer conv1_sTanH
I0409 19:55:52.072459 20605 net.cpp:100] Creating Layer conv1_sTanH
I0409 19:55:52.072463 20605 net.cpp:434] conv1_sTanH <- conv1
I0409 19:55:52.072468 20605 net.cpp:395] conv1_sTanH -> conv1 (in-place)
I0409 19:55:52.072644 20605 net.cpp:150] Setting up conv1_sTanH
I0409 19:55:52.072656 20605 net.cpp:157] Top shape: 1024 100 42 42 (180633600)
I0409 19:55:52.072659 20605 net.cpp:165] Memory required for data: 1473396736
I0409 19:55:52.072664 20605 layer_factory.hpp:77] Creating layer pool1
I0409 19:55:52.072671 20605 net.cpp:100] Creating Layer pool1
I0409 19:55:52.072676 20605 net.cpp:434] pool1 <- conv1
I0409 19:55:52.072682 20605 net.cpp:408] pool1 -> pool1
I0409 19:55:52.072727 20605 net.cpp:150] Setting up pool1
I0409 19:55:52.072736 20605 net.cpp:157] Top shape: 1024 100 21 21 (45158400)
I0409 19:55:52.072738 20605 net.cpp:165] Memory required for data: 1654030336
I0409 19:55:52.072741 20605 layer_factory.hpp:77] Creating layer conv2
I0409 19:55:52.072751 20605 net.cpp:100] Creating Layer conv2
I0409 19:55:52.072755 20605 net.cpp:434] conv2 <- pool1
I0409 19:55:52.072760 20605 net.cpp:408] conv2 -> conv2
I0409 19:55:52.084988 20605 net.cpp:150] Setting up conv2
I0409 19:55:52.085008 20605 net.cpp:157] Top shape: 1024 150 18 18 (49766400)
I0409 19:55:52.085012 20605 net.cpp:165] Memory required for data: 1853095936
I0409 19:55:52.085022 20605 layer_factory.hpp:77] Creating layer conv2_sTanH
I0409 19:55:52.085031 20605 net.cpp:100] Creating Layer conv2_sTanH
I0409 19:55:52.085058 20605 net.cpp:434] conv2_sTanH <- conv2
I0409 19:55:52.085063 20605 net.cpp:395] conv2_sTanH -> conv2 (in-place)
I0409 19:55:52.085825 20605 net.cpp:150] Setting up conv2_sTanH
I0409 19:55:52.085844 20605 net.cpp:157] Top shape: 1024 150 18 18 (49766400)
I0409 19:55:52.085849 20605 net.cpp:165] Memory required for data: 2052161536
I0409 19:55:52.085852 20605 layer_factory.hpp:77] Creating layer pool2
I0409 19:55:52.085860 20605 net.cpp:100] Creating Layer pool2
I0409 19:55:52.085862 20605 net.cpp:434] pool2 <- conv2
I0409 19:55:52.085867 20605 net.cpp:408] pool2 -> pool2
I0409 19:55:52.085917 20605 net.cpp:150] Setting up pool2
I0409 19:55:52.085928 20605 net.cpp:157] Top shape: 1024 150 9 9 (12441600)
I0409 19:55:52.085932 20605 net.cpp:165] Memory required for data: 2101927936
I0409 19:55:52.085934 20605 layer_factory.hpp:77] Creating layer conv3
I0409 19:55:52.085945 20605 net.cpp:100] Creating Layer conv3
I0409 19:55:52.085949 20605 net.cpp:434] conv3 <- pool2
I0409 19:55:52.085954 20605 net.cpp:408] conv3 -> conv3
I0409 19:55:52.091545 20605 net.cpp:150] Setting up conv3
I0409 19:55:52.091564 20605 net.cpp:157] Top shape: 1024 250 6 6 (9216000)
I0409 19:55:52.091568 20605 net.cpp:165] Memory required for data: 2138791936
I0409 19:55:52.091578 20605 layer_factory.hpp:77] Creating layer conv3_sTanH
I0409 19:55:52.091585 20605 net.cpp:100] Creating Layer conv3_sTanH
I0409 19:55:52.091589 20605 net.cpp:434] conv3_sTanH <- conv3
I0409 19:55:52.091594 20605 net.cpp:395] conv3_sTanH -> conv3 (in-place)
I0409 19:55:52.093101 20605 net.cpp:150] Setting up conv3_sTanH
I0409 19:55:52.093120 20605 net.cpp:157] Top shape: 1024 250 6 6 (9216000)
I0409 19:55:52.093143 20605 net.cpp:165] Memory required for data: 2175655936
I0409 19:55:52.093147 20605 layer_factory.hpp:77] Creating layer pool3
I0409 19:55:52.093155 20605 net.cpp:100] Creating Layer pool3
I0409 19:55:52.093159 20605 net.cpp:434] pool3 <- conv3
I0409 19:55:52.093165 20605 net.cpp:408] pool3 -> pool3
I0409 19:55:52.093215 20605 net.cpp:150] Setting up pool3
I0409 19:55:52.093225 20605 net.cpp:157] Top shape: 1024 250 3 3 (2304000)
I0409 19:55:52.093227 20605 net.cpp:165] Memory required for data: 2184871936
I0409 19:55:52.093230 20605 layer_factory.hpp:77] Creating layer fc4_300
I0409 19:55:52.093237 20605 net.cpp:100] Creating Layer fc4_300
I0409 19:55:52.093241 20605 net.cpp:434] fc4_300 <- pool3
I0409 19:55:52.093246 20605 net.cpp:408] fc4_300 -> fc4_300
I0409 19:55:52.098778 20605 net.cpp:150] Setting up fc4_300
I0409 19:55:52.098796 20605 net.cpp:157] Top shape: 1024 300 (307200)
I0409 19:55:52.098799 20605 net.cpp:165] Memory required for data: 2186100736
I0409 19:55:52.098806 20605 layer_factory.hpp:77] Creating layer fc4_sTanH
I0409 19:55:52.098812 20605 net.cpp:100] Creating Layer fc4_sTanH
I0409 19:55:52.098816 20605 net.cpp:434] fc4_sTanH <- fc4_300
I0409 19:55:52.098822 20605 net.cpp:395] fc4_sTanH -> fc4_300 (in-place)
I0409 19:55:52.099012 20605 net.cpp:150] Setting up fc4_sTanH
I0409 19:55:52.099023 20605 net.cpp:157] Top shape: 1024 300 (307200)
I0409 19:55:52.099026 20605 net.cpp:165] Memory required for data: 2187329536
I0409 19:55:52.099030 20605 layer_factory.hpp:77] Creating layer drop4
I0409 19:55:52.099036 20605 net.cpp:100] Creating Layer drop4
I0409 19:55:52.099040 20605 net.cpp:434] drop4 <- fc4_300
I0409 19:55:52.099045 20605 net.cpp:395] drop4 -> fc4_300 (in-place)
I0409 19:55:52.099074 20605 net.cpp:150] Setting up drop4
I0409 19:55:52.099081 20605 net.cpp:157] Top shape: 1024 300 (307200)
I0409 19:55:52.099086 20605 net.cpp:165] Memory required for data: 2188558336
I0409 19:55:52.099103 20605 layer_factory.hpp:77] Creating layer fc5_67
I0409 19:55:52.099110 20605 net.cpp:100] Creating Layer fc5_67
I0409 19:55:52.099113 20605 net.cpp:434] fc5_67 <- fc4_300
I0409 19:55:52.099118 20605 net.cpp:408] fc5_67 -> fc5_classes
I0409 19:55:52.099367 20605 net.cpp:150] Setting up fc5_67
I0409 19:55:52.099375 20605 net.cpp:157] Top shape: 1024 67 (68608)
I0409 19:55:52.099378 20605 net.cpp:165] Memory required for data: 2188832768
I0409 19:55:52.099388 20605 layer_factory.hpp:77] Creating layer fc5_classes_fc5_67_0_split
I0409 19:55:52.099395 20605 net.cpp:100] Creating Layer fc5_classes_fc5_67_0_split
I0409 19:55:52.099398 20605 net.cpp:434] fc5_classes_fc5_67_0_split <- fc5_classes
I0409 19:55:52.099403 20605 net.cpp:408] fc5_classes_fc5_67_0_split -> fc5_classes_fc5_67_0_split_0
I0409 19:55:52.099414 20605 net.cpp:408] fc5_classes_fc5_67_0_split -> fc5_classes_fc5_67_0_split_1
I0409 19:55:52.099421 20605 net.cpp:408] fc5_classes_fc5_67_0_split -> fc5_classes_fc5_67_0_split_2
I0409 19:55:52.099468 20605 net.cpp:150] Setting up fc5_classes_fc5_67_0_split
I0409 19:55:52.099474 20605 net.cpp:157] Top shape: 1024 67 (68608)
I0409 19:55:52.099478 20605 net.cpp:157] Top shape: 1024 67 (68608)
I0409 19:55:52.099481 20605 net.cpp:157] Top shape: 1024 67 (68608)
I0409 19:55:52.099483 20605 net.cpp:165] Memory required for data: 2189656064
I0409 19:55:52.099486 20605 layer_factory.hpp:77] Creating layer loss
I0409 19:55:52.099494 20605 net.cpp:100] Creating Layer loss
I0409 19:55:52.099498 20605 net.cpp:434] loss <- fc5_classes_fc5_67_0_split_0
I0409 19:55:52.099514 20605 net.cpp:434] loss <- label_data_1_split_0
I0409 19:55:52.099519 20605 net.cpp:408] loss -> loss
…
