…
I0409 20:19:12.307802  8369 net.cpp:322] The NetState phase (0) differed from the phase (1) specified by a rule in layer accuracy_5
I0409 20:19:12.307942  8369 net.cpp:58] Initializing net from parameters: 
state {
  phase: TRAIN
  level: 0
  stage: ""
}
layer {
  name: "data"
  type: "Data"
  top: "data"
  top: "label"
  include {
    phase: TRAIN
  }
  transform_param {
    mirror: false
    crop_size: 48
    mean_value: 132
    mean_value: 132
    mean_value: 131
  }
  data_param {
    source: "../local_data/lmdb/rtsd-r1/CoNorm/train/lmdb"
    batch_size: 1024
    backend: LMDB
  }
}
layer {
  name: "conv1"
  type: "Convolution"
  bottom: "data"
  top: "conv1"
  convolution_param {
    num_output: 100
    pad: 0
    kernel_size: 7
    group: 1
    stride: 1
    weight_filler {
      type: "xavier"
    }
  }
}
layer {
  name: "conv1_sTanH"
  type: "TanH"
  bottom: "conv1"
  top: "conv1"
}
layer {
  name: "pool1"
  type: "Pooling"
  bottom: "conv1"
  top: "pool1"
  pooling_param {
    pool: MAX
    kernel_size: 2
    stride: 2
  }
}
layer {
  name: "conv2"
  type: "Convolution"
  bottom: "pool1"
  top: "conv2"
  convolution_param {
    num_output: 150
    pad: 0
    kernel_size: 4
    group: 1
    stride: 1
    weight_filler {
      type: "xavier"
    }
  }
}
layer {
  name: "conv2_sTanH"
  type: "TanH"
  bottom: "conv2"
  top: "conv2"
}
layer {
  name: "pool2"
  type: "Pooling"
  bottom: "conv2"
  top: "pool2"
  pooling_param {
    pool: MAX
    kernel_size: 2
    stride: 2
  }
}
layer {
  name: "conv3"
  type: "Convolution"
  bottom: "pool2"
  top: "conv3"
  convolution_param {
    num_output: 250
    pad: 0
    kernel_size: 4
    group: 1
    stride: 1
    weight_filler {
      type: "xavier"
    }
  }
}
layer {
  name: "conv3_sTanH"
  type: "TanH"
  bottom: "conv3"
  top: "conv3"
}
layer {
  name: "pool3"
  type: "Pooling"
  bottom: "conv3"
  top: "pool3"
  pooling_param {
    pool: MAX
    kernel_size: 2
    stride: 2
  }
}
layer {
  name: "fc4_300"
  type: "InnerProduct"
  bottom: "pool3"
  top: "fc4_300"
  inner_product_param {
    num_output: 300
    weight_filler {
      type: "xavier"
    }
  }
}
layer {
  name: "fc4_sTanH"
  type: "TanH"
  bottom: "fc4_300"
  top: "fc4_300"
}
layer {
  name: "drop4"
  type: "Dropout"
  bottom: "fc4_300"
  top: "fc4_300"
  dropout_param {
    dropout_ratio: 0.4
  }
}
layer {
  name: "fc5_67"
  type: "InnerProduct"
  bottom: "fc4_300"
  top: "fc5_classes"
  inner_product_param {
    num_output: 67
    weight_filler {
      type: "xavier"
    }
  }
}
layer {
  name: "loss"
  type: "SoftmaxWithLoss"
  bottom: "fc5_classes"
  bottom: "label"
  top: "loss"
}
I0409 20:19:12.308030  8369 layer_factory.hpp:77] Creating layer data
I0409 20:19:12.309334  8369 net.cpp:100] Creating Layer data
I0409 20:19:12.309351  8369 net.cpp:408] data -> data
I0409 20:19:12.309381  8369 net.cpp:408] data -> label
I0409 20:19:12.312654  8443 db_lmdb.cpp:35] Opened lmdb ../local_data/lmdb/rtsd-r1/CoNorm/train/lmdb
I0409 20:19:12.333025  8369 data_layer.cpp:41] output data size: 1024,3,48,48
I0409 20:19:12.393646  8369 net.cpp:150] Setting up data
I0409 20:19:12.393682  8369 net.cpp:157] Top shape: 1024 3 48 48 (7077888)
I0409 20:19:12.393714  8369 net.cpp:157] Top shape: 1024 (1024)
I0409 20:19:12.393719  8369 net.cpp:165] Memory required for data: 28315648
I0409 20:19:12.393730  8369 layer_factory.hpp:77] Creating layer conv1
I0409 20:19:12.393757  8369 net.cpp:100] Creating Layer conv1
I0409 20:19:12.393766  8369 net.cpp:434] conv1 <- data
I0409 20:19:12.393784  8369 net.cpp:408] conv1 -> conv1
I0409 20:19:12.717566  8369 net.cpp:150] Setting up conv1
I0409 20:19:12.717602  8369 net.cpp:157] Top shape: 1024 100 42 42 (180633600)
I0409 20:19:12.717607  8369 net.cpp:165] Memory required for data: 750850048
I0409 20:19:12.717633  8369 layer_factory.hpp:77] Creating layer conv1_sTanH
I0409 20:19:12.717651  8369 net.cpp:100] Creating Layer conv1_sTanH
I0409 20:19:12.717656  8369 net.cpp:434] conv1_sTanH <- conv1
I0409 20:19:12.717667  8369 net.cpp:395] conv1_sTanH -> conv1 (in-place)
I0409 20:19:12.717913  8369 net.cpp:150] Setting up conv1_sTanH
I0409 20:19:12.717929  8369 net.cpp:157] Top shape: 1024 100 42 42 (180633600)
I0409 20:19:12.717932  8369 net.cpp:165] Memory required for data: 1473384448
I0409 20:19:12.717937  8369 layer_factory.hpp:77] Creating layer pool1
I0409 20:19:12.717947  8369 net.cpp:100] Creating Layer pool1
I0409 20:19:12.717952  8369 net.cpp:434] pool1 <- conv1
I0409 20:19:12.717958  8369 net.cpp:408] pool1 -> pool1
I0409 20:19:12.718021  8369 net.cpp:150] Setting up pool1
I0409 20:19:12.718031  8369 net.cpp:157] Top shape: 1024 100 21 21 (45158400)
I0409 20:19:12.718035  8369 net.cpp:165] Memory required for data: 1654018048
I0409 20:19:12.718039  8369 layer_factory.hpp:77] Creating layer conv2
I0409 20:19:12.718053  8369 net.cpp:100] Creating Layer conv2
I0409 20:19:12.718058  8369 net.cpp:434] conv2 <- pool1
I0409 20:19:12.718065  8369 net.cpp:408] conv2 -> conv2
I0409 20:19:12.723386  8369 net.cpp:150] Setting up conv2
I0409 20:19:12.723407  8369 net.cpp:157] Top shape: 1024 150 18 18 (49766400)
I0409 20:19:12.723410  8369 net.cpp:165] Memory required for data: 1853083648
I0409 20:19:12.723423  8369 layer_factory.hpp:77] Creating layer conv2_sTanH
I0409 20:19:12.723430  8369 net.cpp:100] Creating Layer conv2_sTanH
I0409 20:19:12.723434  8369 net.cpp:434] conv2_sTanH <- conv2
I0409 20:19:12.723440  8369 net.cpp:395] conv2_sTanH -> conv2 (in-place)
I0409 20:19:12.724351  8369 net.cpp:150] Setting up conv2_sTanH
I0409 20:19:12.724371  8369 net.cpp:157] Top shape: 1024 150 18 18 (49766400)
I0409 20:19:12.724375  8369 net.cpp:165] Memory required for data: 2052149248
I0409 20:19:12.724380  8369 layer_factory.hpp:77] Creating layer pool2
I0409 20:19:12.724388  8369 net.cpp:100] Creating Layer pool2
I0409 20:19:12.724391  8369 net.cpp:434] pool2 <- conv2
I0409 20:19:12.724398  8369 net.cpp:408] pool2 -> pool2
I0409 20:19:12.724454  8369 net.cpp:150] Setting up pool2
I0409 20:19:12.724464  8369 net.cpp:157] Top shape: 1024 150 9 9 (12441600)
I0409 20:19:12.724467  8369 net.cpp:165] Memory required for data: 2101915648
I0409 20:19:12.724472  8369 layer_factory.hpp:77] Creating layer conv3
I0409 20:19:12.724480  8369 net.cpp:100] Creating Layer conv3
I0409 20:19:12.724486  8369 net.cpp:434] conv3 <- pool2
I0409 20:19:12.724491  8369 net.cpp:408] conv3 -> conv3
I0409 20:19:12.731279  8369 net.cpp:150] Setting up conv3
I0409 20:19:12.731300  8369 net.cpp:157] Top shape: 1024 250 6 6 (9216000)
I0409 20:19:12.731304  8369 net.cpp:165] Memory required for data: 2138779648
I0409 20:19:12.731317  8369 layer_factory.hpp:77] Creating layer conv3_sTanH
I0409 20:19:12.731326  8369 net.cpp:100] Creating Layer conv3_sTanH
I0409 20:19:12.731330  8369 net.cpp:434] conv3_sTanH <- conv3
I0409 20:19:12.731336  8369 net.cpp:395] conv3_sTanH -> conv3 (in-place)
I0409 20:19:12.732290  8369 net.cpp:150] Setting up conv3_sTanH
I0409 20:19:12.732311  8369 net.cpp:157] Top shape: 1024 250 6 6 (9216000)
I0409 20:19:12.732316  8369 net.cpp:165] Memory required for data: 2175643648
I0409 20:19:12.732321  8369 layer_factory.hpp:77] Creating layer pool3
I0409 20:19:12.732328  8369 net.cpp:100] Creating Layer pool3
I0409 20:19:12.732332  8369 net.cpp:434] pool3 <- conv3
I0409 20:19:12.732359  8369 net.cpp:408] pool3 -> pool3
I0409 20:19:12.732424  8369 net.cpp:150] Setting up pool3
I0409 20:19:12.732434  8369 net.cpp:157] Top shape: 1024 250 3 3 (2304000)
I0409 20:19:12.732439  8369 net.cpp:165] Memory required for data: 2184859648
I0409 20:19:12.732442  8369 layer_factory.hpp:77] Creating layer fc4_300
I0409 20:19:12.732452  8369 net.cpp:100] Creating Layer fc4_300
I0409 20:19:12.732456  8369 net.cpp:434] fc4_300 <- pool3
I0409 20:19:12.732461  8369 net.cpp:408] fc4_300 -> fc4_300
I0409 20:19:12.739145  8369 net.cpp:150] Setting up fc4_300
I0409 20:19:12.739164  8369 net.cpp:157] Top shape: 1024 300 (307200)
I0409 20:19:12.739168  8369 net.cpp:165] Memory required for data: 2186088448
I0409 20:19:12.739176  8369 layer_factory.hpp:77] Creating layer fc4_sTanH
I0409 20:19:12.739186  8369 net.cpp:100] Creating Layer fc4_sTanH
I0409 20:19:12.739189  8369 net.cpp:434] fc4_sTanH <- fc4_300
I0409 20:19:12.739195  8369 net.cpp:395] fc4_sTanH -> fc4_300 (in-place)
I0409 20:19:12.739434  8369 net.cpp:150] Setting up fc4_sTanH
I0409 20:19:12.739449  8369 net.cpp:157] Top shape: 1024 300 (307200)
I0409 20:19:12.739454  8369 net.cpp:165] Memory required for data: 2187317248
I0409 20:19:12.739459  8369 layer_factory.hpp:77] Creating layer drop4
I0409 20:19:12.739469  8369 net.cpp:100] Creating Layer drop4
I0409 20:19:12.739473  8369 net.cpp:434] drop4 <- fc4_300
I0409 20:19:12.739480  8369 net.cpp:395] drop4 -> fc4_300 (in-place)
I0409 20:19:12.739519  8369 net.cpp:150] Setting up drop4
I0409 20:19:12.739528  8369 net.cpp:157] Top shape: 1024 300 (307200)
I0409 20:19:12.739531  8369 net.cpp:165] Memory required for data: 2188546048
I0409 20:19:12.739536  8369 layer_factory.hpp:77] Creating layer fc5_67
I0409 20:19:12.739542  8369 net.cpp:100] Creating Layer fc5_67
I0409 20:19:12.739547  8369 net.cpp:434] fc5_67 <- fc4_300
I0409 20:19:12.739557  8369 net.cpp:408] fc5_67 -> fc5_classes
I0409 20:19:12.741073  8369 net.cpp:150] Setting up fc5_67
I0409 20:19:12.741093  8369 net.cpp:157] Top shape: 1024 67 (68608)
I0409 20:19:12.741096  8369 net.cpp:165] Memory required for data: 2188820480
I0409 20:19:12.741108  8369 layer_factory.hpp:77] Creating layer loss
I0409 20:19:12.741119  8369 net.cpp:100] Creating Layer loss
I0409 20:19:12.741123  8369 net.cpp:434] loss <- fc5_classes
I0409 20:19:12.741128  8369 net.cpp:434] loss <- label
I0409 20:19:12.741135  8369 net.cpp:408] loss -> loss
I0409 20:19:12.741153  8369 layer_factory.hpp:77] Creating layer loss
…
I0409 20:19:12.741958  8369 solver.cpp:193] Creating test net (#0) specified by test_net file: ./Prototxt/experiment_7/rtsd-r1/CoNorm/trial_1/test.prototxt
I0409 20:19:12.742115  8369 net.cpp:58] Initializing net from parameters: 
state {
  phase: TEST
}
layer {
  name: "data"
  type: "Data"
  top: "data"
  top: "label"
  include {
    phase: TEST
  }
  transform_param {
    mirror: false
    crop_size: 48
    mean_value: 133
    mean_value: 133
    mean_value: 132
  }
  data_param {
    source: "../local_data/lmdb/rtsd-r1/CoNorm/test/lmdb"
    batch_size: 1024
    backend: LMDB
  }
}
layer {
  name: "conv1"
  type: "Convolution"
  bottom: "data"
  top: "conv1"
  convolution_param {
    num_output: 100
    pad: 0
    kernel_size: 7
    group: 1
    stride: 1
    weight_filler {
      type: "xavier"
    }
  }
}
layer {
  name: "conv1_sTanH"
  type: "TanH"
  bottom: "conv1"
  top: "conv1"
}
layer {
  name: "pool1"
  type: "Pooling"
  bottom: "conv1"
  top: "pool1"
  pooling_param {
    pool: MAX
    kernel_size: 2
    stride: 2
  }
}
layer {
  name: "conv2"
  type: "Convolution"
  bottom: "pool1"
  top: "conv2"
  convolution_param {
    num_output: 150
    pad: 0
    kernel_size: 4
    group: 1
    stride: 1
    weight_filler {
      type: "xavier"
    }
  }
}
layer {
  name: "conv2_sTanH"
  type: "TanH"
  bottom: "conv2"
  top: "conv2"
}
layer {
  name: "pool2"
  type: "Pooling"
  bottom: "conv2"
  top: "pool2"
  pooling_param {
    pool: MAX
    kernel_size: 2
    stride: 2
  }
}
layer {
  name: "conv3"
  type: "Convolution"
  bottom: "pool2"
  top: "conv3"
  convolution_param {
    num_output: 250
    pad: 0
    kernel_size: 4
    group: 1
    stride: 1
    weight_filler {
      type: "xavier"
    }
  }
}
layer {
  name: "conv3_sTanH"
  type: "TanH"
  bottom: "conv3"
  top: "conv3"
}
layer {
  name: "pool3"
  type: "Pooling"
  bottom: "conv3"
  top: "pool3"
  pooling_param {
    pool: MAX
    kernel_size: 2
    stride: 2
  }
}
layer {
  name: "fc4_300"
  type: "InnerProduct"
  bottom: "pool3"
  top: "fc4_300"
  inner_product_param {
    num_output: 300
    weight_filler {
      type: "xavier"
    }
  }
}
layer {
  name: "fc4_sTanH"
  type: "TanH"
  bottom: "fc4_300"
  top: "fc4_300"
}
layer {
  name: "drop4"
  type: "Dropout"
  bottom: "fc4_300"
  top: "fc4_300"
  dropout_param {
    dropout_ratio: 0.4
  }
}
layer {
  name: "fc5_67"
  type: "InnerProduct"
  bottom: "fc4_300"
  top: "fc5_classes"
  inner_product_param {
    num_output: 67
    weight_filler {
      type: "xavier"
    }
  }
}
layer {
  name: "loss"
  type: "SoftmaxWithLoss"
  bottom: "fc5_classes"
  bottom: "label"
  top: "loss"
}
layer {
  name: "accuracy_1"
  type: "Accuracy"
  bottom: "fc5_classes"
  bottom: "label"
  top: "accuracy_1"
  include {
    phase: TEST
  }
  accuracy_param {
    top_k: 1
  }
}
layer {
  name: "accuracy_5"
  type: "Accuracy"
  bottom: "fc5_classes"
  bottom: "label"
  top: "accuracy_5"
  include {
    phase: TEST
  }
  accuracy_param {
    top_k: 5
  }
}
I0409 20:19:12.742230  8369 layer_factory.hpp:77] Creating layer data
I0409 20:19:12.743314  8369 net.cpp:100] Creating Layer data
I0409 20:19:12.743330  8369 net.cpp:408] data -> data
I0409 20:19:12.743342  8369 net.cpp:408] data -> label
I0409 20:19:12.745043  8463 db_lmdb.cpp:35] Opened lmdb ../local_data/lmdb/rtsd-r1/CoNorm/test/lmdb
I0409 20:19:12.745229  8369 data_layer.cpp:41] output data size: 1024,3,48,48
I0409 20:19:12.795271  8369 net.cpp:150] Setting up data
I0409 20:19:12.795303  8369 net.cpp:157] Top shape: 1024 3 48 48 (7077888)
I0409 20:19:12.795310  8369 net.cpp:157] Top shape: 1024 (1024)
I0409 20:19:12.795312  8369 net.cpp:165] Memory required for data: 28315648
I0409 20:19:12.795320  8369 layer_factory.hpp:77] Creating layer label_data_1_split
I0409 20:19:12.795336  8369 net.cpp:100] Creating Layer label_data_1_split
I0409 20:19:12.795341  8369 net.cpp:434] label_data_1_split <- label
I0409 20:19:12.795351  8369 net.cpp:408] label_data_1_split -> label_data_1_split_0
I0409 20:19:12.795363  8369 net.cpp:408] label_data_1_split -> label_data_1_split_1
I0409 20:19:12.795370  8369 net.cpp:408] label_data_1_split -> label_data_1_split_2
I0409 20:19:12.795553  8369 net.cpp:150] Setting up label_data_1_split
I0409 20:19:12.795567  8369 net.cpp:157] Top shape: 1024 (1024)
I0409 20:19:12.795572  8369 net.cpp:157] Top shape: 1024 (1024)
I0409 20:19:12.795578  8369 net.cpp:157] Top shape: 1024 (1024)
I0409 20:19:12.795580  8369 net.cpp:165] Memory required for data: 28327936
I0409 20:19:12.795584  8369 layer_factory.hpp:77] Creating layer conv1
I0409 20:19:12.795599  8369 net.cpp:100] Creating Layer conv1
I0409 20:19:12.795606  8369 net.cpp:434] conv1 <- data
I0409 20:19:12.795613  8369 net.cpp:408] conv1 -> conv1
I0409 20:19:12.799566  8369 net.cpp:150] Setting up conv1
I0409 20:19:12.799587  8369 net.cpp:157] Top shape: 1024 100 42 42 (180633600)
I0409 20:19:12.799592  8369 net.cpp:165] Memory required for data: 750862336
I0409 20:19:12.799605  8369 layer_factory.hpp:77] Creating layer conv1_sTanH
I0409 20:19:12.799616  8369 net.cpp:100] Creating Layer conv1_sTanH
I0409 20:19:12.799620  8369 net.cpp:434] conv1_sTanH <- conv1
I0409 20:19:12.799626  8369 net.cpp:395] conv1_sTanH -> conv1 (in-place)
I0409 20:19:12.799870  8369 net.cpp:150] Setting up conv1_sTanH
I0409 20:19:12.799898  8369 net.cpp:157] Top shape: 1024 100 42 42 (180633600)
I0409 20:19:12.799903  8369 net.cpp:165] Memory required for data: 1473396736
I0409 20:19:12.799907  8369 layer_factory.hpp:77] Creating layer pool1
I0409 20:19:12.799918  8369 net.cpp:100] Creating Layer pool1
I0409 20:19:12.799924  8369 net.cpp:434] pool1 <- conv1
I0409 20:19:12.799932  8369 net.cpp:408] pool1 -> pool1
I0409 20:19:12.799993  8369 net.cpp:150] Setting up pool1
I0409 20:19:12.800005  8369 net.cpp:157] Top shape: 1024 100 21 21 (45158400)
I0409 20:19:12.800009  8369 net.cpp:165] Memory required for data: 1654030336
I0409 20:19:12.800012  8369 layer_factory.hpp:77] Creating layer conv2
I0409 20:19:12.800021  8369 net.cpp:100] Creating Layer conv2
I0409 20:19:12.800029  8369 net.cpp:434] conv2 <- pool1
I0409 20:19:12.800036  8369 net.cpp:408] conv2 -> conv2
I0409 20:19:12.807766  8369 net.cpp:150] Setting up conv2
I0409 20:19:12.807792  8369 net.cpp:157] Top shape: 1024 150 18 18 (49766400)
I0409 20:19:12.807797  8369 net.cpp:165] Memory required for data: 1853095936
I0409 20:19:12.807809  8369 layer_factory.hpp:77] Creating layer conv2_sTanH
I0409 20:19:12.807818  8369 net.cpp:100] Creating Layer conv2_sTanH
I0409 20:19:12.807821  8369 net.cpp:434] conv2_sTanH <- conv2
I0409 20:19:12.807828  8369 net.cpp:395] conv2_sTanH -> conv2 (in-place)
I0409 20:19:12.809056  8369 net.cpp:150] Setting up conv2_sTanH
I0409 20:19:12.809075  8369 net.cpp:157] Top shape: 1024 150 18 18 (49766400)
I0409 20:19:12.809079  8369 net.cpp:165] Memory required for data: 2052161536
I0409 20:19:12.809084  8369 layer_factory.hpp:77] Creating layer pool2
I0409 20:19:12.809094  8369 net.cpp:100] Creating Layer pool2
I0409 20:19:12.809100  8369 net.cpp:434] pool2 <- conv2
I0409 20:19:12.809108  8369 net.cpp:408] pool2 -> pool2
I0409 20:19:12.809175  8369 net.cpp:150] Setting up pool2
I0409 20:19:12.809185  8369 net.cpp:157] Top shape: 1024 150 9 9 (12441600)
I0409 20:19:12.809188  8369 net.cpp:165] Memory required for data: 2101927936
I0409 20:19:12.809192  8369 layer_factory.hpp:77] Creating layer conv3
I0409 20:19:12.809206  8369 net.cpp:100] Creating Layer conv3
I0409 20:19:12.809211  8369 net.cpp:434] conv3 <- pool2
I0409 20:19:12.809232  8369 net.cpp:408] conv3 -> conv3
I0409 20:19:12.823144  8369 net.cpp:150] Setting up conv3
I0409 20:19:12.823173  8369 net.cpp:157] Top shape: 1024 250 6 6 (9216000)
I0409 20:19:12.823177  8369 net.cpp:165] Memory required for data: 2138791936
I0409 20:19:12.823191  8369 layer_factory.hpp:77] Creating layer conv3_sTanH
I0409 20:19:12.823201  8369 net.cpp:100] Creating Layer conv3_sTanH
I0409 20:19:12.823205  8369 net.cpp:434] conv3_sTanH <- conv3
I0409 20:19:12.823215  8369 net.cpp:395] conv3_sTanH -> conv3 (in-place)
I0409 20:19:12.826128  8369 net.cpp:150] Setting up conv3_sTanH
I0409 20:19:12.826151  8369 net.cpp:157] Top shape: 1024 250 6 6 (9216000)
I0409 20:19:12.826179  8369 net.cpp:165] Memory required for data: 2175655936
I0409 20:19:12.826187  8369 layer_factory.hpp:77] Creating layer pool3
I0409 20:19:12.826196  8369 net.cpp:100] Creating Layer pool3
I0409 20:19:12.826202  8369 net.cpp:434] pool3 <- conv3
I0409 20:19:12.826212  8369 net.cpp:408] pool3 -> pool3
I0409 20:19:12.826280  8369 net.cpp:150] Setting up pool3
I0409 20:19:12.826292  8369 net.cpp:157] Top shape: 1024 250 3 3 (2304000)
I0409 20:19:12.826295  8369 net.cpp:165] Memory required for data: 2184871936
I0409 20:19:12.826299  8369 layer_factory.hpp:77] Creating layer fc4_300
I0409 20:19:12.826309  8369 net.cpp:100] Creating Layer fc4_300
I0409 20:19:12.826315  8369 net.cpp:434] fc4_300 <- pool3
I0409 20:19:12.826323  8369 net.cpp:408] fc4_300 -> fc4_300
I0409 20:19:12.833333  8369 net.cpp:150] Setting up fc4_300
I0409 20:19:12.833353  8369 net.cpp:157] Top shape: 1024 300 (307200)
I0409 20:19:12.833358  8369 net.cpp:165] Memory required for data: 2186100736
I0409 20:19:12.833365  8369 layer_factory.hpp:77] Creating layer fc4_sTanH
I0409 20:19:12.833375  8369 net.cpp:100] Creating Layer fc4_sTanH
I0409 20:19:12.833382  8369 net.cpp:434] fc4_sTanH <- fc4_300
I0409 20:19:12.833389  8369 net.cpp:395] fc4_sTanH -> fc4_300 (in-place)
I0409 20:19:12.833639  8369 net.cpp:150] Setting up fc4_sTanH
I0409 20:19:12.833653  8369 net.cpp:157] Top shape: 1024 300 (307200)
I0409 20:19:12.833657  8369 net.cpp:165] Memory required for data: 2187329536
I0409 20:19:12.833662  8369 layer_factory.hpp:77] Creating layer drop4
I0409 20:19:12.833669  8369 net.cpp:100] Creating Layer drop4
I0409 20:19:12.833673  8369 net.cpp:434] drop4 <- fc4_300
I0409 20:19:12.833681  8369 net.cpp:395] drop4 -> fc4_300 (in-place)
I0409 20:19:12.833720  8369 net.cpp:150] Setting up drop4
I0409 20:19:12.833734  8369 net.cpp:157] Top shape: 1024 300 (307200)
I0409 20:19:12.833737  8369 net.cpp:165] Memory required for data: 2188558336
I0409 20:19:12.833740  8369 layer_factory.hpp:77] Creating layer fc5_67
I0409 20:19:12.833750  8369 net.cpp:100] Creating Layer fc5_67
I0409 20:19:12.833753  8369 net.cpp:434] fc5_67 <- fc4_300
I0409 20:19:12.833760  8369 net.cpp:408] fc5_67 -> fc5_classes
I0409 20:19:12.834076  8369 net.cpp:150] Setting up fc5_67
I0409 20:19:12.834089  8369 net.cpp:157] Top shape: 1024 67 (68608)
I0409 20:19:12.834091  8369 net.cpp:165] Memory required for data: 2188832768
I0409 20:19:12.834105  8369 layer_factory.hpp:77] Creating layer fc5_classes_fc5_67_0_split
I0409 20:19:12.834115  8369 net.cpp:100] Creating Layer fc5_classes_fc5_67_0_split
I0409 20:19:12.834118  8369 net.cpp:434] fc5_classes_fc5_67_0_split <- fc5_classes
I0409 20:19:12.834125  8369 net.cpp:408] fc5_classes_fc5_67_0_split -> fc5_classes_fc5_67_0_split_0
I0409 20:19:12.834136  8369 net.cpp:408] fc5_classes_fc5_67_0_split -> fc5_classes_fc5_67_0_split_1
I0409 20:19:12.834146  8369 net.cpp:408] fc5_classes_fc5_67_0_split -> fc5_classes_fc5_67_0_split_2
I0409 20:19:12.834213  8369 net.cpp:150] Setting up fc5_classes_fc5_67_0_split
I0409 20:19:12.834226  8369 net.cpp:157] Top shape: 1024 67 (68608)
I0409 20:19:12.834236  8369 net.cpp:157] Top shape: 1024 67 (68608)
I0409 20:19:12.834240  8369 net.cpp:157] Top shape: 1024 67 (68608)
I0409 20:19:12.834244  8369 net.cpp:165] Memory required for data: 2189656064
I0409 20:19:12.834246  8369 layer_factory.hpp:77] Creating layer loss
I0409 20:19:12.834259  8369 net.cpp:100] Creating Layer loss
I0409 20:19:12.834264  8369 net.cpp:434] loss <- fc5_classes_fc5_67_0_split_0
I0409 20:19:12.834270  8369 net.cpp:434] loss <- label_data_1_split_0
I0409 20:19:12.834276  8369 net.cpp:408] loss -> loss
…
