…
I0409 21:14:17.354195  3225 net.cpp:322] The NetState phase (0) differed from the phase (1) specified by a rule in layer accuracy_5
I0409 21:14:17.354292  3225 net.cpp:58] Initializing net from parameters: 
state {
  phase: TRAIN
  level: 0
  stage: ""
}
layer {
  name: "data"
  type: "Data"
  top: "data"
  top: "label"
  include {
    phase: TRAIN
  }
  transform_param {
    mirror: false
    crop_size: 48
    mean_value: 132
    mean_value: 132
    mean_value: 131
  }
  data_param {
    source: "../local_data/lmdb/rtsd-r1/CoNorm/train/lmdb"
    batch_size: 1024
    backend: LMDB
  }
}
layer {
  name: "conv1"
  type: "Convolution"
  bottom: "data"
  top: "conv1"
  convolution_param {
    num_output: 100
    pad: 0
    kernel_size: 7
    group: 1
    stride: 1
    weight_filler {
      type: "xavier"
    }
  }
}
layer {
  name: "conv1_sTanH"
  type: "TanH"
  bottom: "conv1"
  top: "conv1"
}
layer {
  name: "pool1"
  type: "Pooling"
  bottom: "conv1"
  top: "pool1"
  pooling_param {
    pool: MAX
    kernel_size: 2
    stride: 2
  }
}
layer {
  name: "conv2"
  type: "Convolution"
  bottom: "pool1"
  top: "conv2"
  convolution_param {
    num_output: 150
    pad: 0
    kernel_size: 4
    group: 1
    stride: 1
    weight_filler {
      type: "xavier"
    }
  }
}
layer {
  name: "conv2_sTanH"
  type: "TanH"
  bottom: "conv2"
  top: "conv2"
}
layer {
  name: "pool2"
  type: "Pooling"
  bottom: "conv2"
  top: "pool2"
  pooling_param {
    pool: MAX
    kernel_size: 2
    stride: 2
  }
}
layer {
  name: "conv3"
  type: "Convolution"
  bottom: "pool2"
  top: "conv3"
  convolution_param {
    num_output: 250
    pad: 0
    kernel_size: 4
    group: 1
    stride: 1
    weight_filler {
      type: "xavier"
    }
  }
}
layer {
  name: "conv3_sTanH"
  type: "TanH"
  bottom: "conv3"
  top: "conv3"
}
layer {
  name: "pool3"
  type: "Pooling"
  bottom: "conv3"
  top: "pool3"
  pooling_param {
    pool: MAX
    kernel_size: 2
    stride: 2
  }
}
layer {
  name: "fc4_300"
  type: "InnerProduct"
  bottom: "pool3"
  top: "fc4_300"
  inner_product_param {
    num_output: 300
    weight_filler {
      type: "xavier"
    }
  }
}
layer {
  name: "fc4_sTanH"
  type: "TanH"
  bottom: "fc4_300"
  top: "fc4_300"
}
layer {
  name: "drop4"
  type: "Dropout"
  bottom: "fc4_300"
  top: "fc4_300"
  dropout_param {
    dropout_ratio: 0.4
  }
}
layer {
  name: "fc5_67"
  type: "InnerProduct"
  bottom: "fc4_300"
  top: "fc5_classes"
  inner_product_param {
    num_output: 67
    weight_filler {
      type: "xavier"
    }
  }
}
layer {
  name: "loss"
  type: "SoftmaxWithLoss"
  bottom: "fc5_classes"
  bottom: "label"
  top: "loss"
}
I0409 21:14:17.354373  3225 layer_factory.hpp:77] Creating layer data
I0409 21:14:17.355489  3225 net.cpp:100] Creating Layer data
I0409 21:14:17.355515  3225 net.cpp:408] data -> data
I0409 21:14:17.355558  3225 net.cpp:408] data -> label
I0409 21:14:17.357036  3293 db_lmdb.cpp:35] Opened lmdb ../local_data/lmdb/rtsd-r1/CoNorm/train/lmdb
I0409 21:14:17.373926  3225 data_layer.cpp:41] output data size: 1024,3,48,48
I0409 21:14:17.422247  3225 net.cpp:150] Setting up data
I0409 21:14:17.422281  3225 net.cpp:157] Top shape: 1024 3 48 48 (7077888)
I0409 21:14:17.422322  3225 net.cpp:157] Top shape: 1024 (1024)
I0409 21:14:17.422327  3225 net.cpp:165] Memory required for data: 28315648
I0409 21:14:17.422336  3225 layer_factory.hpp:77] Creating layer conv1
I0409 21:14:17.422360  3225 net.cpp:100] Creating Layer conv1
I0409 21:14:17.422369  3225 net.cpp:434] conv1 <- data
I0409 21:14:17.422381  3225 net.cpp:408] conv1 -> conv1
I0409 21:14:17.690297  3225 net.cpp:150] Setting up conv1
I0409 21:14:17.690332  3225 net.cpp:157] Top shape: 1024 100 42 42 (180633600)
I0409 21:14:17.690336  3225 net.cpp:165] Memory required for data: 750850048
I0409 21:14:17.690357  3225 layer_factory.hpp:77] Creating layer conv1_sTanH
I0409 21:14:17.690374  3225 net.cpp:100] Creating Layer conv1_sTanH
I0409 21:14:17.690378  3225 net.cpp:434] conv1_sTanH <- conv1
I0409 21:14:17.690394  3225 net.cpp:395] conv1_sTanH -> conv1 (in-place)
I0409 21:14:17.690601  3225 net.cpp:150] Setting up conv1_sTanH
I0409 21:14:17.690615  3225 net.cpp:157] Top shape: 1024 100 42 42 (180633600)
I0409 21:14:17.690618  3225 net.cpp:165] Memory required for data: 1473384448
I0409 21:14:17.690623  3225 layer_factory.hpp:77] Creating layer pool1
I0409 21:14:17.690631  3225 net.cpp:100] Creating Layer pool1
I0409 21:14:17.690636  3225 net.cpp:434] pool1 <- conv1
I0409 21:14:17.690642  3225 net.cpp:408] pool1 -> pool1
I0409 21:14:17.690698  3225 net.cpp:150] Setting up pool1
I0409 21:14:17.690707  3225 net.cpp:157] Top shape: 1024 100 21 21 (45158400)
I0409 21:14:17.690711  3225 net.cpp:165] Memory required for data: 1654018048
I0409 21:14:17.690714  3225 layer_factory.hpp:77] Creating layer conv2
I0409 21:14:17.690726  3225 net.cpp:100] Creating Layer conv2
I0409 21:14:17.690732  3225 net.cpp:434] conv2 <- pool1
I0409 21:14:17.690738  3225 net.cpp:408] conv2 -> conv2
I0409 21:14:17.695130  3225 net.cpp:150] Setting up conv2
I0409 21:14:17.695150  3225 net.cpp:157] Top shape: 1024 150 18 18 (49766400)
I0409 21:14:17.695154  3225 net.cpp:165] Memory required for data: 1853083648
I0409 21:14:17.695163  3225 layer_factory.hpp:77] Creating layer conv2_sTanH
I0409 21:14:17.695170  3225 net.cpp:100] Creating Layer conv2_sTanH
I0409 21:14:17.695173  3225 net.cpp:434] conv2_sTanH <- conv2
I0409 21:14:17.695179  3225 net.cpp:395] conv2_sTanH -> conv2 (in-place)
I0409 21:14:17.695981  3225 net.cpp:150] Setting up conv2_sTanH
I0409 21:14:17.695998  3225 net.cpp:157] Top shape: 1024 150 18 18 (49766400)
I0409 21:14:17.696002  3225 net.cpp:165] Memory required for data: 2052149248
I0409 21:14:17.696007  3225 layer_factory.hpp:77] Creating layer pool2
I0409 21:14:17.696013  3225 net.cpp:100] Creating Layer pool2
I0409 21:14:17.696017  3225 net.cpp:434] pool2 <- conv2
I0409 21:14:17.696024  3225 net.cpp:408] pool2 -> pool2
I0409 21:14:17.696077  3225 net.cpp:150] Setting up pool2
I0409 21:14:17.696086  3225 net.cpp:157] Top shape: 1024 150 9 9 (12441600)
I0409 21:14:17.696089  3225 net.cpp:165] Memory required for data: 2101915648
I0409 21:14:17.696092  3225 layer_factory.hpp:77] Creating layer conv3
I0409 21:14:17.696102  3225 net.cpp:100] Creating Layer conv3
I0409 21:14:17.696108  3225 net.cpp:434] conv3 <- pool2
I0409 21:14:17.696115  3225 net.cpp:408] conv3 -> conv3
I0409 21:14:17.701660  3225 net.cpp:150] Setting up conv3
I0409 21:14:17.701678  3225 net.cpp:157] Top shape: 1024 250 6 6 (9216000)
I0409 21:14:17.701683  3225 net.cpp:165] Memory required for data: 2138779648
I0409 21:14:17.701691  3225 layer_factory.hpp:77] Creating layer conv3_sTanH
I0409 21:14:17.701701  3225 net.cpp:100] Creating Layer conv3_sTanH
I0409 21:14:17.701704  3225 net.cpp:434] conv3_sTanH <- conv3
I0409 21:14:17.701710  3225 net.cpp:395] conv3_sTanH -> conv3 (in-place)
I0409 21:14:17.702541  3225 net.cpp:150] Setting up conv3_sTanH
I0409 21:14:17.702561  3225 net.cpp:157] Top shape: 1024 250 6 6 (9216000)
I0409 21:14:17.702565  3225 net.cpp:165] Memory required for data: 2175643648
I0409 21:14:17.702569  3225 layer_factory.hpp:77] Creating layer pool3
I0409 21:14:17.702575  3225 net.cpp:100] Creating Layer pool3
I0409 21:14:17.702579  3225 net.cpp:434] pool3 <- conv3
I0409 21:14:17.702603  3225 net.cpp:408] pool3 -> pool3
I0409 21:14:17.702669  3225 net.cpp:150] Setting up pool3
I0409 21:14:17.702679  3225 net.cpp:157] Top shape: 1024 250 3 3 (2304000)
I0409 21:14:17.702682  3225 net.cpp:165] Memory required for data: 2184859648
I0409 21:14:17.702685  3225 layer_factory.hpp:77] Creating layer fc4_300
I0409 21:14:17.702695  3225 net.cpp:100] Creating Layer fc4_300
I0409 21:14:17.702700  3225 net.cpp:434] fc4_300 <- pool3
I0409 21:14:17.702705  3225 net.cpp:408] fc4_300 -> fc4_300
I0409 21:14:17.708070  3225 net.cpp:150] Setting up fc4_300
I0409 21:14:17.708087  3225 net.cpp:157] Top shape: 1024 300 (307200)
I0409 21:14:17.708091  3225 net.cpp:165] Memory required for data: 2186088448
I0409 21:14:17.708097  3225 layer_factory.hpp:77] Creating layer fc4_sTanH
I0409 21:14:17.708106  3225 net.cpp:100] Creating Layer fc4_sTanH
I0409 21:14:17.708109  3225 net.cpp:434] fc4_sTanH <- fc4_300
I0409 21:14:17.708115  3225 net.cpp:395] fc4_sTanH -> fc4_300 (in-place)
I0409 21:14:17.708312  3225 net.cpp:150] Setting up fc4_sTanH
I0409 21:14:17.708325  3225 net.cpp:157] Top shape: 1024 300 (307200)
I0409 21:14:17.708330  3225 net.cpp:165] Memory required for data: 2187317248
I0409 21:14:17.708333  3225 layer_factory.hpp:77] Creating layer drop4
I0409 21:14:17.708340  3225 net.cpp:100] Creating Layer drop4
I0409 21:14:17.708344  3225 net.cpp:434] drop4 <- fc4_300
I0409 21:14:17.708349  3225 net.cpp:395] drop4 -> fc4_300 (in-place)
I0409 21:14:17.708384  3225 net.cpp:150] Setting up drop4
I0409 21:14:17.708391  3225 net.cpp:157] Top shape: 1024 300 (307200)
I0409 21:14:17.708395  3225 net.cpp:165] Memory required for data: 2188546048
I0409 21:14:17.708397  3225 layer_factory.hpp:77] Creating layer fc5_67
I0409 21:14:17.708405  3225 net.cpp:100] Creating Layer fc5_67
I0409 21:14:17.708410  3225 net.cpp:434] fc5_67 <- fc4_300
I0409 21:14:17.708415  3225 net.cpp:408] fc5_67 -> fc5_classes
I0409 21:14:17.709655  3225 net.cpp:150] Setting up fc5_67
I0409 21:14:17.709669  3225 net.cpp:157] Top shape: 1024 67 (68608)
I0409 21:14:17.709686  3225 net.cpp:165] Memory required for data: 2188820480
I0409 21:14:17.709695  3225 layer_factory.hpp:77] Creating layer loss
I0409 21:14:17.709703  3225 net.cpp:100] Creating Layer loss
I0409 21:14:17.709707  3225 net.cpp:434] loss <- fc5_classes
I0409 21:14:17.709712  3225 net.cpp:434] loss <- label
I0409 21:14:17.709718  3225 net.cpp:408] loss -> loss
I0409 21:14:17.709730  3225 layer_factory.hpp:77] Creating layer loss
…
I0409 21:14:17.710454  3225 solver.cpp:193] Creating test net (#0) specified by test_net file: ./Prototxt/experiment_7/rtsd-r1/CoNorm/trial_1/test.prototxt
I0409 21:14:17.710582  3225 net.cpp:58] Initializing net from parameters: 
state {
  phase: TEST
}
layer {
  name: "data"
  type: "Data"
  top: "data"
  top: "label"
  include {
    phase: TEST
  }
  transform_param {
    mirror: false
    crop_size: 48
    mean_value: 133
    mean_value: 133
    mean_value: 132
  }
  data_param {
    source: "../local_data/lmdb/rtsd-r1/CoNorm/test/lmdb"
    batch_size: 1024
    backend: LMDB
  }
}
layer {
  name: "conv1"
  type: "Convolution"
  bottom: "data"
  top: "conv1"
  convolution_param {
    num_output: 100
    pad: 0
    kernel_size: 7
    group: 1
    stride: 1
    weight_filler {
      type: "xavier"
    }
  }
}
layer {
  name: "conv1_sTanH"
  type: "TanH"
  bottom: "conv1"
  top: "conv1"
}
layer {
  name: "pool1"
  type: "Pooling"
  bottom: "conv1"
  top: "pool1"
  pooling_param {
    pool: MAX
    kernel_size: 2
    stride: 2
  }
}
layer {
  name: "conv2"
  type: "Convolution"
  bottom: "pool1"
  top: "conv2"
  convolution_param {
    num_output: 150
    pad: 0
    kernel_size: 4
    group: 1
    stride: 1
    weight_filler {
      type: "xavier"
    }
  }
}
layer {
  name: "conv2_sTanH"
  type: "TanH"
  bottom: "conv2"
  top: "conv2"
}
layer {
  name: "pool2"
  type: "Pooling"
  bottom: "conv2"
  top: "pool2"
  pooling_param {
    pool: MAX
    kernel_size: 2
    stride: 2
  }
}
layer {
  name: "conv3"
  type: "Convolution"
  bottom: "pool2"
  top: "conv3"
  convolution_param {
    num_output: 250
    pad: 0
    kernel_size: 4
    group: 1
    stride: 1
    weight_filler {
      type: "xavier"
    }
  }
}
layer {
  name: "conv3_sTanH"
  type: "TanH"
  bottom: "conv3"
  top: "conv3"
}
layer {
  name: "pool3"
  type: "Pooling"
  bottom: "conv3"
  top: "pool3"
  pooling_param {
    pool: MAX
    kernel_size: 2
    stride: 2
  }
}
layer {
  name: "fc4_300"
  type: "InnerProduct"
  bottom: "pool3"
  top: "fc4_300"
  inner_product_param {
    num_output: 300
    weight_filler {
      type: "xavier"
    }
  }
}
layer {
  name: "fc4_sTanH"
  type: "TanH"
  bottom: "fc4_300"
  top: "fc4_300"
}
layer {
  name: "drop4"
  type: "Dropout"
  bottom: "fc4_300"
  top: "fc4_300"
  dropout_param {
    dropout_ratio: 0.4
  }
}
layer {
  name: "fc5_67"
  type: "InnerProduct"
  bottom: "fc4_300"
  top: "fc5_classes"
  inner_product_param {
    num_output: 67
    weight_filler {
      type: "xavier"
    }
  }
}
layer {
  name: "loss"
  type: "SoftmaxWithLoss"
  bottom: "fc5_classes"
  bottom: "label"
  top: "loss"
}
layer {
  name: "accuracy_1"
  type: "Accuracy"
  bottom: "fc5_classes"
  bottom: "label"
  top: "accuracy_1"
  include {
    phase: TEST
  }
  accuracy_param {
    top_k: 1
  }
}
layer {
  name: "accuracy_5"
  type: "Accuracy"
  bottom: "fc5_classes"
  bottom: "label"
  top: "accuracy_5"
  include {
    phase: TEST
  }
  accuracy_param {
    top_k: 5
  }
}
I0409 21:14:17.710676  3225 layer_factory.hpp:77] Creating layer data
I0409 21:14:17.711340  3225 net.cpp:100] Creating Layer data
I0409 21:14:17.711354  3225 net.cpp:408] data -> data
I0409 21:14:17.711364  3225 net.cpp:408] data -> label
I0409 21:14:17.713078  3310 db_lmdb.cpp:35] Opened lmdb ../local_data/lmdb/rtsd-r1/CoNorm/test/lmdb
I0409 21:14:17.713243  3225 data_layer.cpp:41] output data size: 1024,3,48,48
I0409 21:14:17.762830  3225 net.cpp:150] Setting up data
I0409 21:14:17.762871  3225 net.cpp:157] Top shape: 1024 3 48 48 (7077888)
I0409 21:14:17.762877  3225 net.cpp:157] Top shape: 1024 (1024)
I0409 21:14:17.762881  3225 net.cpp:165] Memory required for data: 28315648
I0409 21:14:17.762887  3225 layer_factory.hpp:77] Creating layer label_data_1_split
I0409 21:14:17.762900  3225 net.cpp:100] Creating Layer label_data_1_split
I0409 21:14:17.762905  3225 net.cpp:434] label_data_1_split <- label
I0409 21:14:17.762913  3225 net.cpp:408] label_data_1_split -> label_data_1_split_0
I0409 21:14:17.762930  3225 net.cpp:408] label_data_1_split -> label_data_1_split_1
I0409 21:14:17.762938  3225 net.cpp:408] label_data_1_split -> label_data_1_split_2
I0409 21:14:17.763082  3225 net.cpp:150] Setting up label_data_1_split
I0409 21:14:17.763103  3225 net.cpp:157] Top shape: 1024 (1024)
I0409 21:14:17.763106  3225 net.cpp:157] Top shape: 1024 (1024)
I0409 21:14:17.763109  3225 net.cpp:157] Top shape: 1024 (1024)
I0409 21:14:17.763113  3225 net.cpp:165] Memory required for data: 28327936
I0409 21:14:17.763116  3225 layer_factory.hpp:77] Creating layer conv1
I0409 21:14:17.763131  3225 net.cpp:100] Creating Layer conv1
I0409 21:14:17.763136  3225 net.cpp:434] conv1 <- data
I0409 21:14:17.763142  3225 net.cpp:408] conv1 -> conv1
I0409 21:14:17.767083  3225 net.cpp:150] Setting up conv1
I0409 21:14:17.767113  3225 net.cpp:157] Top shape: 1024 100 42 42 (180633600)
I0409 21:14:17.767118  3225 net.cpp:165] Memory required for data: 750862336
I0409 21:14:17.767130  3225 layer_factory.hpp:77] Creating layer conv1_sTanH
I0409 21:14:17.767138  3225 net.cpp:100] Creating Layer conv1_sTanH
I0409 21:14:17.767145  3225 net.cpp:434] conv1_sTanH <- conv1
I0409 21:14:17.767165  3225 net.cpp:395] conv1_sTanH -> conv1 (in-place)
I0409 21:14:17.767383  3225 net.cpp:150] Setting up conv1_sTanH
I0409 21:14:17.767397  3225 net.cpp:157] Top shape: 1024 100 42 42 (180633600)
I0409 21:14:17.767400  3225 net.cpp:165] Memory required for data: 1473396736
I0409 21:14:17.767405  3225 layer_factory.hpp:77] Creating layer pool1
I0409 21:14:17.767416  3225 net.cpp:100] Creating Layer pool1
I0409 21:14:17.767418  3225 net.cpp:434] pool1 <- conv1
I0409 21:14:17.767424  3225 net.cpp:408] pool1 -> pool1
I0409 21:14:17.767477  3225 net.cpp:150] Setting up pool1
I0409 21:14:17.767488  3225 net.cpp:157] Top shape: 1024 100 21 21 (45158400)
I0409 21:14:17.767490  3225 net.cpp:165] Memory required for data: 1654030336
I0409 21:14:17.767496  3225 layer_factory.hpp:77] Creating layer conv2
I0409 21:14:17.767508  3225 net.cpp:100] Creating Layer conv2
I0409 21:14:17.767513  3225 net.cpp:434] conv2 <- pool1
I0409 21:14:17.767519  3225 net.cpp:408] conv2 -> conv2
I0409 21:14:17.771520  3225 net.cpp:150] Setting up conv2
I0409 21:14:17.771538  3225 net.cpp:157] Top shape: 1024 150 18 18 (49766400)
I0409 21:14:17.771543  3225 net.cpp:165] Memory required for data: 1853095936
I0409 21:14:17.771553  3225 layer_factory.hpp:77] Creating layer conv2_sTanH
I0409 21:14:17.771559  3225 net.cpp:100] Creating Layer conv2_sTanH
I0409 21:14:17.771562  3225 net.cpp:434] conv2_sTanH <- conv2
I0409 21:14:17.771570  3225 net.cpp:395] conv2_sTanH -> conv2 (in-place)
I0409 21:14:17.772390  3225 net.cpp:150] Setting up conv2_sTanH
I0409 21:14:17.772408  3225 net.cpp:157] Top shape: 1024 150 18 18 (49766400)
I0409 21:14:17.772411  3225 net.cpp:165] Memory required for data: 2052161536
I0409 21:14:17.772414  3225 layer_factory.hpp:77] Creating layer pool2
I0409 21:14:17.772423  3225 net.cpp:100] Creating Layer pool2
I0409 21:14:17.772428  3225 net.cpp:434] pool2 <- conv2
I0409 21:14:17.772433  3225 net.cpp:408] pool2 -> pool2
I0409 21:14:17.772488  3225 net.cpp:150] Setting up pool2
I0409 21:14:17.772498  3225 net.cpp:157] Top shape: 1024 150 9 9 (12441600)
I0409 21:14:17.772502  3225 net.cpp:165] Memory required for data: 2101927936
I0409 21:14:17.772505  3225 layer_factory.hpp:77] Creating layer conv3
I0409 21:14:17.772528  3225 net.cpp:100] Creating Layer conv3
I0409 21:14:17.772536  3225 net.cpp:434] conv3 <- pool2
I0409 21:14:17.772542  3225 net.cpp:408] conv3 -> conv3
I0409 21:14:17.778167  3225 net.cpp:150] Setting up conv3
I0409 21:14:17.778184  3225 net.cpp:157] Top shape: 1024 250 6 6 (9216000)
I0409 21:14:17.778203  3225 net.cpp:165] Memory required for data: 2138791936
I0409 21:14:17.778214  3225 layer_factory.hpp:77] Creating layer conv3_sTanH
I0409 21:14:17.778221  3225 net.cpp:100] Creating Layer conv3_sTanH
I0409 21:14:17.778225  3225 net.cpp:434] conv3_sTanH <- conv3
I0409 21:14:17.778234  3225 net.cpp:395] conv3_sTanH -> conv3 (in-place)
I0409 21:14:17.779050  3225 net.cpp:150] Setting up conv3_sTanH
I0409 21:14:17.779067  3225 net.cpp:157] Top shape: 1024 250 6 6 (9216000)
I0409 21:14:17.779088  3225 net.cpp:165] Memory required for data: 2175655936
I0409 21:14:17.779093  3225 layer_factory.hpp:77] Creating layer pool3
I0409 21:14:17.779101  3225 net.cpp:100] Creating Layer pool3
I0409 21:14:17.779105  3225 net.cpp:434] pool3 <- conv3
I0409 21:14:17.779111  3225 net.cpp:408] pool3 -> pool3
I0409 21:14:17.779167  3225 net.cpp:150] Setting up pool3
I0409 21:14:17.779177  3225 net.cpp:157] Top shape: 1024 250 3 3 (2304000)
I0409 21:14:17.779181  3225 net.cpp:165] Memory required for data: 2184871936
I0409 21:14:17.779184  3225 layer_factory.hpp:77] Creating layer fc4_300
I0409 21:14:17.779191  3225 net.cpp:100] Creating Layer fc4_300
I0409 21:14:17.779196  3225 net.cpp:434] fc4_300 <- pool3
I0409 21:14:17.779201  3225 net.cpp:408] fc4_300 -> fc4_300
I0409 21:14:17.784642  3225 net.cpp:150] Setting up fc4_300
I0409 21:14:17.784664  3225 net.cpp:157] Top shape: 1024 300 (307200)
I0409 21:14:17.784668  3225 net.cpp:165] Memory required for data: 2186100736
I0409 21:14:17.784675  3225 layer_factory.hpp:77] Creating layer fc4_sTanH
I0409 21:14:17.784682  3225 net.cpp:100] Creating Layer fc4_sTanH
I0409 21:14:17.784685  3225 net.cpp:434] fc4_sTanH <- fc4_300
I0409 21:14:17.784692  3225 net.cpp:395] fc4_sTanH -> fc4_300 (in-place)
I0409 21:14:17.784898  3225 net.cpp:150] Setting up fc4_sTanH
I0409 21:14:17.784910  3225 net.cpp:157] Top shape: 1024 300 (307200)
I0409 21:14:17.784914  3225 net.cpp:165] Memory required for data: 2187329536
I0409 21:14:17.784917  3225 layer_factory.hpp:77] Creating layer drop4
I0409 21:14:17.784924  3225 net.cpp:100] Creating Layer drop4
I0409 21:14:17.784927  3225 net.cpp:434] drop4 <- fc4_300
I0409 21:14:17.784934  3225 net.cpp:395] drop4 -> fc4_300 (in-place)
I0409 21:14:17.784965  3225 net.cpp:150] Setting up drop4
I0409 21:14:17.784976  3225 net.cpp:157] Top shape: 1024 300 (307200)
I0409 21:14:17.784979  3225 net.cpp:165] Memory required for data: 2188558336
I0409 21:14:17.784982  3225 layer_factory.hpp:77] Creating layer fc5_67
I0409 21:14:17.784988  3225 net.cpp:100] Creating Layer fc5_67
I0409 21:14:17.784991  3225 net.cpp:434] fc5_67 <- fc4_300
I0409 21:14:17.784997  3225 net.cpp:408] fc5_67 -> fc5_classes
I0409 21:14:17.785255  3225 net.cpp:150] Setting up fc5_67
I0409 21:14:17.785265  3225 net.cpp:157] Top shape: 1024 67 (68608)
I0409 21:14:17.785269  3225 net.cpp:165] Memory required for data: 2188832768
I0409 21:14:17.785279  3225 layer_factory.hpp:77] Creating layer fc5_classes_fc5_67_0_split
I0409 21:14:17.785289  3225 net.cpp:100] Creating Layer fc5_classes_fc5_67_0_split
I0409 21:14:17.785291  3225 net.cpp:434] fc5_classes_fc5_67_0_split <- fc5_classes
I0409 21:14:17.785298  3225 net.cpp:408] fc5_classes_fc5_67_0_split -> fc5_classes_fc5_67_0_split_0
I0409 21:14:17.785306  3225 net.cpp:408] fc5_classes_fc5_67_0_split -> fc5_classes_fc5_67_0_split_1
I0409 21:14:17.785315  3225 net.cpp:408] fc5_classes_fc5_67_0_split -> fc5_classes_fc5_67_0_split_2
I0409 21:14:17.785368  3225 net.cpp:150] Setting up fc5_classes_fc5_67_0_split
I0409 21:14:17.785377  3225 net.cpp:157] Top shape: 1024 67 (68608)
I0409 21:14:17.785380  3225 net.cpp:157] Top shape: 1024 67 (68608)
I0409 21:14:17.785383  3225 net.cpp:157] Top shape: 1024 67 (68608)
I0409 21:14:17.785387  3225 net.cpp:165] Memory required for data: 2189656064
I0409 21:14:17.785389  3225 layer_factory.hpp:77] Creating layer loss
I0409 21:14:17.785399  3225 net.cpp:100] Creating Layer loss
I0409 21:14:17.785405  3225 net.cpp:434] loss <- fc5_classes_fc5_67_0_split_0
I0409 21:14:17.785410  3225 net.cpp:434] loss <- label_data_1_split_0
I0409 21:14:17.785415  3225 net.cpp:408] loss -> loss
…
