…
I0409 19:42:39.613852  2560 net.cpp:322] The NetState phase (0) differed from the phase (1) specified by a rule in layer accuracy_5
I0409 19:42:39.613991  2560 net.cpp:58] Initializing net from parameters: 
state {
  phase: TRAIN
  level: 0
  stage: ""
}
layer {
  name: "data"
  type: "Data"
  top: "data"
  top: "label"
  include {
    phase: TRAIN
  }
  transform_param {
    mirror: false
    crop_size: 48
    mean_value: 132
    mean_value: 132
    mean_value: 131
  }
  data_param {
    source: "../local_data/lmdb/rtsd-r1/CoNorm/train/lmdb"
    batch_size: 1024
    backend: LMDB
  }
}
layer {
  name: "conv1"
  type: "Convolution"
  bottom: "data"
  top: "conv1"
  convolution_param {
    num_output: 100
    pad: 0
    kernel_size: 7
    group: 1
    stride: 1
    weight_filler {
      type: "xavier"
    }
  }
}
layer {
  name: "conv1_prescale"
  type: "Scale"
  bottom: "conv1"
  top: "conv1"
  param {
    lr_mult: 0
    decay_mult: 0
  }
  scale_param {
    filler {
      value: 0.6666
    }
  }
}
layer {
  name: "conv1_sTanH"
  type: "TanH"
  bottom: "conv1"
  top: "conv1"
}
layer {
  name: "conv1_postscale"
  type: "Scale"
  bottom: "conv1"
  top: "conv1"
  param {
    lr_mult: 0
    decay_mult: 0
  }
  scale_param {
    filler {
      value: 1.7159
    }
  }
}
layer {
  name: "pool1"
  type: "Pooling"
  bottom: "conv1"
  top: "pool1"
  pooling_param {
    pool: MAX
    kernel_size: 2
    stride: 2
  }
}
layer {
  name: "conv2"
  type: "Convolution"
  bottom: "pool1"
  top: "conv2"
  convolution_param {
    num_output: 150
    pad: 0
    kernel_size: 4
    group: 1
    stride: 1
    weight_filler {
      type: "xavier"
    }
  }
}
layer {
  name: "conv2_prescale"
  type: "Scale"
  bottom: "conv2"
  top: "conv2"
  param {
    lr_mult: 0
    decay_mult: 0
  }
  scale_param {
    filler {
      value: 0.6666
    }
  }
}
layer {
  name: "conv2_sTanH"
  type: "TanH"
  bottom: "conv2"
  top: "conv2"
}
layer {
  name: "conv2_postscale"
  type: "Scale"
  bottom: "conv2"
  top: "conv2"
  param {
    lr_mult: 0
    decay_mult: 0
  }
  scale_param {
    filler {
      value: 1.7159
    }
  }
}
layer {
  name: "pool2"
  type: "Pooling"
  bottom: "conv2"
  top: "pool2"
  pooling_param {
    pool: MAX
    kernel_size: 2
    stride: 2
  }
}
layer {
  name: "conv3"
  type: "Convolution"
  bottom: "pool2"
  top: "conv3"
  convolution_param {
    num_output: 250
    pad: 0
    kernel_size: 4
    group: 1
    stride: 1
    weight_filler {
      type: "xavier"
    }
  }
}
layer {
  name: "conv3_prescale"
  type: "Scale"
  bottom: "conv3"
  top: "conv3"
  param {
    lr_mult: 0
    decay_mult: 0
  }
  scale_param {
    filler {
      value: 0.6666
    }
  }
}
layer {
  name: "conv3_sTanH"
  type: "TanH"
  bottom: "conv3"
  top: "conv3"
}
layer {
  name: "conv3_postscale"
  type: "Scale"
  bottom: "conv3"
  top: "conv3"
  param {
    lr_mult: 0
    decay_mult: 0
  }
  scale_param {
    filler {
      value: 1.7159
    }
  }
}
layer {
  name: "pool3"
  type: "Pooling"
  bottom: "conv3"
  top: "pool3"
  pooling_param {
    pool: MAX
    kernel_size: 2
    stride: 2
  }
}
layer {
  name: "fc4_300"
  type: "InnerProduct"
  bottom: "pool3"
  top: "fc4_300"
  inner_product_param {
    num_output: 300
    weight_filler {
      type: "xavier"
    }
  }
}
layer {
  name: "fc4_prescale"
  type: "Scale"
  bottom: "fc4_300"
  top: "fc4_300"
  param {
    lr_mult: 0
    decay_mult: 0
  }
  scale_param {
    filler {
      value: 0.6666
    }
  }
}
layer {
  name: "fc4_sTanH"
  type: "TanH"
  bottom: "fc4_300"
  top: "fc4_300"
}
layer {
  name: "fc4_postscale"
  type: "Scale"
  bottom: "fc4_300"
  top: "fc4_300"
  param {
    lr_mult: 0
    decay_mult: 0
  }
  scale_param {
    filler {
      value: 1.7159
    }
  }
}
layer {
  name: "drop4"
  type: "Dropout"
  bottom: "fc4_300"
  top: "fc4_300"
  dropout_param {
    dropout_ratio: 0.4
  }
}
layer {
  name: "fc5_67"
  type: "InnerProduct"
  bottom: "fc4_300"
  top: "fc5_classes"
  inner_product_param {
    num_output: 67
    weight_filler {
      type: "xavier"
    }
  }
}
layer {
  name: "loss"
  type: "SoftmaxWithLoss"
  bottom: "fc5_classes"
  bottom: "label"
  top: "loss"
}
I0409 19:42:39.614109  2560 layer_factory.hpp:77] Creating layer data
I0409 19:42:39.615170  2560 net.cpp:100] Creating Layer data
I0409 19:42:39.615195  2560 net.cpp:408] data -> data
I0409 19:42:39.615217  2560 net.cpp:408] data -> label
I0409 19:42:39.616554  2660 db_lmdb.cpp:35] Opened lmdb ../local_data/lmdb/rtsd-r1/CoNorm/train/lmdb
I0409 19:42:39.633693  2560 data_layer.cpp:41] output data size: 1024,3,48,48
I0409 19:42:39.678738  2560 net.cpp:150] Setting up data
I0409 19:42:39.678771  2560 net.cpp:157] Top shape: 1024 3 48 48 (7077888)
I0409 19:42:39.678776  2560 net.cpp:157] Top shape: 1024 (1024)
I0409 19:42:39.678778  2560 net.cpp:165] Memory required for data: 28315648
I0409 19:42:39.678788  2560 layer_factory.hpp:77] Creating layer conv1
I0409 19:42:39.678809  2560 net.cpp:100] Creating Layer conv1
I0409 19:42:39.678828  2560 net.cpp:434] conv1 <- data
I0409 19:42:39.678839  2560 net.cpp:408] conv1 -> conv1
I0409 19:42:39.955901  2560 net.cpp:150] Setting up conv1
I0409 19:42:39.955932  2560 net.cpp:157] Top shape: 1024 100 42 42 (180633600)
I0409 19:42:39.955937  2560 net.cpp:165] Memory required for data: 750850048
I0409 19:42:39.955960  2560 layer_factory.hpp:77] Creating layer conv1_prescale
I0409 19:42:39.955973  2560 net.cpp:100] Creating Layer conv1_prescale
I0409 19:42:39.955981  2560 net.cpp:434] conv1_prescale <- conv1
I0409 19:42:39.955987  2560 net.cpp:395] conv1_prescale -> conv1 (in-place)
I0409 19:42:39.956097  2560 net.cpp:150] Setting up conv1_prescale
I0409 19:42:39.956106  2560 net.cpp:157] Top shape: 1024 100 42 42 (180633600)
I0409 19:42:39.956110  2560 net.cpp:165] Memory required for data: 1473384448
I0409 19:42:39.956116  2560 layer_factory.hpp:77] Creating layer conv1_sTanH
I0409 19:42:39.956123  2560 net.cpp:100] Creating Layer conv1_sTanH
I0409 19:42:39.956126  2560 net.cpp:434] conv1_sTanH <- conv1
I0409 19:42:39.956130  2560 net.cpp:395] conv1_sTanH -> conv1 (in-place)
I0409 19:42:39.956321  2560 net.cpp:150] Setting up conv1_sTanH
I0409 19:42:39.956332  2560 net.cpp:157] Top shape: 1024 100 42 42 (180633600)
I0409 19:42:39.956336  2560 net.cpp:165] Memory required for data: 2195918848
I0409 19:42:39.956339  2560 layer_factory.hpp:77] Creating layer conv1_postscale
I0409 19:42:39.956347  2560 net.cpp:100] Creating Layer conv1_postscale
I0409 19:42:39.956351  2560 net.cpp:434] conv1_postscale <- conv1
I0409 19:42:39.956356  2560 net.cpp:395] conv1_postscale -> conv1 (in-place)
I0409 19:42:39.956449  2560 net.cpp:150] Setting up conv1_postscale
I0409 19:42:39.956459  2560 net.cpp:157] Top shape: 1024 100 42 42 (180633600)
I0409 19:42:39.956461  2560 net.cpp:165] Memory required for data: 2918453248
I0409 19:42:39.956466  2560 layer_factory.hpp:77] Creating layer pool1
I0409 19:42:39.956472  2560 net.cpp:100] Creating Layer pool1
I0409 19:42:39.956475  2560 net.cpp:434] pool1 <- conv1
I0409 19:42:39.956480  2560 net.cpp:408] pool1 -> pool1
I0409 19:42:39.956526  2560 net.cpp:150] Setting up pool1
I0409 19:42:39.956535  2560 net.cpp:157] Top shape: 1024 100 21 21 (45158400)
I0409 19:42:39.956538  2560 net.cpp:165] Memory required for data: 3099086848
I0409 19:42:39.956562  2560 layer_factory.hpp:77] Creating layer conv2
I0409 19:42:39.956573  2560 net.cpp:100] Creating Layer conv2
I0409 19:42:39.956578  2560 net.cpp:434] conv2 <- pool1
I0409 19:42:39.956583  2560 net.cpp:408] conv2 -> conv2
I0409 19:42:39.960938  2560 net.cpp:150] Setting up conv2
I0409 19:42:39.960957  2560 net.cpp:157] Top shape: 1024 150 18 18 (49766400)
I0409 19:42:39.960960  2560 net.cpp:165] Memory required for data: 3298152448
I0409 19:42:39.960983  2560 layer_factory.hpp:77] Creating layer conv2_prescale
I0409 19:42:39.960993  2560 net.cpp:100] Creating Layer conv2_prescale
I0409 19:42:39.960995  2560 net.cpp:434] conv2_prescale <- conv2
I0409 19:42:39.961001  2560 net.cpp:395] conv2_prescale -> conv2 (in-place)
I0409 19:42:39.961107  2560 net.cpp:150] Setting up conv2_prescale
I0409 19:42:39.961117  2560 net.cpp:157] Top shape: 1024 150 18 18 (49766400)
I0409 19:42:39.961119  2560 net.cpp:165] Memory required for data: 3497218048
I0409 19:42:39.961124  2560 layer_factory.hpp:77] Creating layer conv2_sTanH
I0409 19:42:39.961130  2560 net.cpp:100] Creating Layer conv2_sTanH
I0409 19:42:39.961134  2560 net.cpp:434] conv2_sTanH <- conv2
I0409 19:42:39.961138  2560 net.cpp:395] conv2_sTanH -> conv2 (in-place)
I0409 19:42:39.961884  2560 net.cpp:150] Setting up conv2_sTanH
I0409 19:42:39.961900  2560 net.cpp:157] Top shape: 1024 150 18 18 (49766400)
I0409 19:42:39.961904  2560 net.cpp:165] Memory required for data: 3696283648
I0409 19:42:39.961907  2560 layer_factory.hpp:77] Creating layer conv2_postscale
I0409 19:42:39.961915  2560 net.cpp:100] Creating Layer conv2_postscale
I0409 19:42:39.961918  2560 net.cpp:434] conv2_postscale <- conv2
I0409 19:42:39.961925  2560 net.cpp:395] conv2_postscale -> conv2 (in-place)
I0409 19:42:39.962018  2560 net.cpp:150] Setting up conv2_postscale
I0409 19:42:39.962026  2560 net.cpp:157] Top shape: 1024 150 18 18 (49766400)
I0409 19:42:39.962029  2560 net.cpp:165] Memory required for data: 3895349248
I0409 19:42:39.962034  2560 layer_factory.hpp:77] Creating layer pool2
I0409 19:42:39.962040  2560 net.cpp:100] Creating Layer pool2
I0409 19:42:39.962044  2560 net.cpp:434] pool2 <- conv2
I0409 19:42:39.962049  2560 net.cpp:408] pool2 -> pool2
I0409 19:42:39.962086  2560 net.cpp:150] Setting up pool2
I0409 19:42:39.962095  2560 net.cpp:157] Top shape: 1024 150 9 9 (12441600)
I0409 19:42:39.962097  2560 net.cpp:165] Memory required for data: 3945115648
I0409 19:42:39.962100  2560 layer_factory.hpp:77] Creating layer conv3
I0409 19:42:39.962108  2560 net.cpp:100] Creating Layer conv3
I0409 19:42:39.962111  2560 net.cpp:434] conv3 <- pool2
I0409 19:42:39.962116  2560 net.cpp:408] conv3 -> conv3
I0409 19:42:39.967516  2560 net.cpp:150] Setting up conv3
I0409 19:42:39.967535  2560 net.cpp:157] Top shape: 1024 250 6 6 (9216000)
I0409 19:42:39.967537  2560 net.cpp:165] Memory required for data: 3981979648
I0409 19:42:39.967547  2560 layer_factory.hpp:77] Creating layer conv3_prescale
I0409 19:42:39.967557  2560 net.cpp:100] Creating Layer conv3_prescale
I0409 19:42:39.967561  2560 net.cpp:434] conv3_prescale <- conv3
I0409 19:42:39.967566  2560 net.cpp:395] conv3_prescale -> conv3 (in-place)
I0409 19:42:39.967672  2560 net.cpp:150] Setting up conv3_prescale
I0409 19:42:39.967680  2560 net.cpp:157] Top shape: 1024 250 6 6 (9216000)
I0409 19:42:39.967684  2560 net.cpp:165] Memory required for data: 4018843648
I0409 19:42:39.967689  2560 layer_factory.hpp:77] Creating layer conv3_sTanH
I0409 19:42:39.967694  2560 net.cpp:100] Creating Layer conv3_sTanH
I0409 19:42:39.967696  2560 net.cpp:434] conv3_sTanH <- conv3
I0409 19:42:39.967700  2560 net.cpp:395] conv3_sTanH -> conv3 (in-place)
I0409 19:42:39.968485  2560 net.cpp:150] Setting up conv3_sTanH
I0409 19:42:39.968502  2560 net.cpp:157] Top shape: 1024 250 6 6 (9216000)
I0409 19:42:39.968507  2560 net.cpp:165] Memory required for data: 4055707648
I0409 19:42:39.968510  2560 layer_factory.hpp:77] Creating layer conv3_postscale
I0409 19:42:39.968518  2560 net.cpp:100] Creating Layer conv3_postscale
I0409 19:42:39.968536  2560 net.cpp:434] conv3_postscale <- conv3
I0409 19:42:39.968544  2560 net.cpp:395] conv3_postscale -> conv3 (in-place)
I0409 19:42:39.968643  2560 net.cpp:150] Setting up conv3_postscale
I0409 19:42:39.968652  2560 net.cpp:157] Top shape: 1024 250 6 6 (9216000)
I0409 19:42:39.968655  2560 net.cpp:165] Memory required for data: 4092571648
I0409 19:42:39.968660  2560 layer_factory.hpp:77] Creating layer pool3
I0409 19:42:39.968667  2560 net.cpp:100] Creating Layer pool3
I0409 19:42:39.968669  2560 net.cpp:434] pool3 <- conv3
I0409 19:42:39.968674  2560 net.cpp:408] pool3 -> pool3
I0409 19:42:39.968711  2560 net.cpp:150] Setting up pool3
I0409 19:42:39.968719  2560 net.cpp:157] Top shape: 1024 250 3 3 (2304000)
I0409 19:42:39.968721  2560 net.cpp:165] Memory required for data: 4101787648
I0409 19:42:39.968724  2560 layer_factory.hpp:77] Creating layer fc4_300
I0409 19:42:39.968734  2560 net.cpp:100] Creating Layer fc4_300
I0409 19:42:39.968737  2560 net.cpp:434] fc4_300 <- pool3
I0409 19:42:39.968742  2560 net.cpp:408] fc4_300 -> fc4_300
I0409 19:42:39.974078  2560 net.cpp:150] Setting up fc4_300
I0409 19:42:39.974095  2560 net.cpp:157] Top shape: 1024 300 (307200)
I0409 19:42:39.974098  2560 net.cpp:165] Memory required for data: 4103016448
I0409 19:42:39.974107  2560 layer_factory.hpp:77] Creating layer fc4_prescale
I0409 19:42:39.974113  2560 net.cpp:100] Creating Layer fc4_prescale
I0409 19:42:39.974119  2560 net.cpp:434] fc4_prescale <- fc4_300
I0409 19:42:39.974124  2560 net.cpp:395] fc4_prescale -> fc4_300 (in-place)
I0409 19:42:39.974222  2560 net.cpp:150] Setting up fc4_prescale
I0409 19:42:39.974231  2560 net.cpp:157] Top shape: 1024 300 (307200)
I0409 19:42:39.974234  2560 net.cpp:165] Memory required for data: 4104245248
I0409 19:42:39.974238  2560 layer_factory.hpp:77] Creating layer fc4_sTanH
I0409 19:42:39.974244  2560 net.cpp:100] Creating Layer fc4_sTanH
I0409 19:42:39.974247  2560 net.cpp:434] fc4_sTanH <- fc4_300
I0409 19:42:39.974251  2560 net.cpp:395] fc4_sTanH -> fc4_300 (in-place)
I0409 19:42:39.974436  2560 net.cpp:150] Setting up fc4_sTanH
I0409 19:42:39.974447  2560 net.cpp:157] Top shape: 1024 300 (307200)
I0409 19:42:39.974450  2560 net.cpp:165] Memory required for data: 4105474048
I0409 19:42:39.974453  2560 layer_factory.hpp:77] Creating layer fc4_postscale
I0409 19:42:39.974460  2560 net.cpp:100] Creating Layer fc4_postscale
I0409 19:42:39.974463  2560 net.cpp:434] fc4_postscale <- fc4_300
I0409 19:42:39.974468  2560 net.cpp:395] fc4_postscale -> fc4_300 (in-place)
I0409 19:42:39.974560  2560 net.cpp:150] Setting up fc4_postscale
I0409 19:42:39.974570  2560 net.cpp:157] Top shape: 1024 300 (307200)
I0409 19:42:39.974572  2560 net.cpp:165] Memory required for data: 4106702848
I0409 19:42:39.974576  2560 layer_factory.hpp:77] Creating layer drop4
I0409 19:42:39.974583  2560 net.cpp:100] Creating Layer drop4
I0409 19:42:39.974586  2560 net.cpp:434] drop4 <- fc4_300
I0409 19:42:39.974591  2560 net.cpp:395] drop4 -> fc4_300 (in-place)
I0409 19:42:39.974617  2560 net.cpp:150] Setting up drop4
I0409 19:42:39.974623  2560 net.cpp:157] Top shape: 1024 300 (307200)
I0409 19:42:39.974627  2560 net.cpp:165] Memory required for data: 4107931648
I0409 19:42:39.974630  2560 layer_factory.hpp:77] Creating layer fc5_67
I0409 19:42:39.974635  2560 net.cpp:100] Creating Layer fc5_67
I0409 19:42:39.974638  2560 net.cpp:434] fc5_67 <- fc4_300
I0409 19:42:39.974643  2560 net.cpp:408] fc5_67 -> fc5_classes
I0409 19:42:39.975888  2560 net.cpp:150] Setting up fc5_67
I0409 19:42:39.975904  2560 net.cpp:157] Top shape: 1024 67 (68608)
I0409 19:42:39.975908  2560 net.cpp:165] Memory required for data: 4108206080
I0409 19:42:39.975919  2560 layer_factory.hpp:77] Creating layer loss
I0409 19:42:39.975925  2560 net.cpp:100] Creating Layer loss
I0409 19:42:39.975929  2560 net.cpp:434] loss <- fc5_classes
I0409 19:42:39.975934  2560 net.cpp:434] loss <- label
I0409 19:42:39.975939  2560 net.cpp:408] loss -> loss
I0409 19:42:39.975951  2560 layer_factory.hpp:77] Creating layer loss
…
I0409 19:42:39.976716  2560 solver.cpp:193] Creating test net (#0) specified by test_net file: ./Prototxt/experiment_7/rtsd-r1/CoNorm/trial_1/test.prototxt
I0409 19:42:39.976897  2560 net.cpp:58] Initializing net from parameters: 
state {
  phase: TEST
}
layer {
  name: "data"
  type: "Data"
  top: "data"
  top: "label"
  include {
    phase: TEST
  }
  transform_param {
    mirror: false
    crop_size: 48
    mean_value: 133
    mean_value: 133
    mean_value: 132
  }
  data_param {
    source: "../local_data/lmdb/rtsd-r1/CoNorm/test/lmdb"
    batch_size: 1024
    backend: LMDB
  }
}
layer {
  name: "conv1"
  type: "Convolution"
  bottom: "data"
  top: "conv1"
  convolution_param {
    num_output: 100
    pad: 0
    kernel_size: 7
    group: 1
    stride: 1
    weight_filler {
      type: "xavier"
    }
  }
}
layer {
  name: "conv1_prescale"
  type: "Scale"
  bottom: "conv1"
  top: "conv1"
  param {
    lr_mult: 0
    decay_mult: 0
  }
  scale_param {
    filler {
      value: 0.6666
    }
  }
}
layer {
  name: "conv1_sTanH"
  type: "TanH"
  bottom: "conv1"
  top: "conv1"
}
layer {
  name: "conv1_postscale"
  type: "Scale"
  bottom: "conv1"
  top: "conv1"
  param {
    lr_mult: 0
    decay_mult: 0
  }
  scale_param {
    filler {
      value: 1.7159
    }
  }
}
layer {
  name: "pool1"
  type: "Pooling"
  bottom: "conv1"
  top: "pool1"
  pooling_param {
    pool: MAX
    kernel_size: 2
    stride: 2
  }
}
layer {
  name: "conv2"
  type: "Convolution"
  bottom: "pool1"
  top: "conv2"
  convolution_param {
    num_output: 150
    pad: 0
    kernel_size: 4
    group: 1
    stride: 1
    weight_filler {
      type: "xavier"
    }
  }
}
layer {
  name: "conv2_prescale"
  type: "Scale"
  bottom: "conv2"
  top: "conv2"
  param {
    lr_mult: 0
    decay_mult: 0
  }
  scale_param {
    filler {
      value: 0.6666
    }
  }
}
layer {
  name: "conv2_sTanH"
  type: "TanH"
  bottom: "conv2"
  top: "conv2"
}
layer {
  name: "conv2_postscale"
  type: "Scale"
  bottom: "conv2"
  top: "conv2"
  param {
    lr_mult: 0
    decay_mult: 0
  }
  scale_param {
    filler {
      value: 1.7159
    }
  }
}
layer {
  name: "pool2"
  type: "Pooling"
  bottom: "conv2"
  top: "pool2"
  pooling_param {
    pool: MAX
    kernel_size: 2
    stride: 2
  }
}
layer {
  name: "conv3"
  type: "Convolution"
  bottom: "pool2"
  top: "conv3"
  convolution_param {
    num_output: 250
    pad: 0
    kernel_size: 4
    group: 1
    stride: 1
    weight_filler {
      type: "xavier"
    }
  }
}
layer {
  name: "conv3_prescale"
  type: "Scale"
  bottom: "conv3"
  top: "conv3"
  param {
    lr_mult: 0
    decay_mult: 0
  }
  scale_param {
    filler {
      value: 0.6666
    }
  }
}
layer {
  name: "conv3_sTanH"
  type: "TanH"
  bottom: "conv3"
  top: "conv3"
}
layer {
  name: "conv3_postscale"
  type: "Scale"
  bottom: "conv3"
  top: "conv3"
  param {
    lr_mult: 0
    decay_mult: 0
  }
  scale_param {
    filler {
      value: 1.7159
    }
  }
}
layer {
  name: "pool3"
  type: "Pooling"
  bottom: "conv3"
  top: "pool3"
  pooling_param {
    pool: MAX
    kernel_size: 2
    stride: 2
  }
}
layer {
  name: "fc4_300"
  type: "InnerProduct"
  bottom: "pool3"
  top: "fc4_300"
  inner_product_param {
    num_output: 300
    weight_filler {
      type: "xavier"
    }
  }
}
layer {
  name: "fc4_prescale"
  type: "Scale"
  bottom: "fc4_300"
  top: "fc4_300"
  param {
    lr_mult: 0
    decay_mult: 0
  }
  scale_param {
    filler {
      value: 0.6666
    }
  }
}
layer {
  name: "fc4_sTanH"
  type: "TanH"
  bottom: "fc4_300"
  top: "fc4_300"
}
layer {
  name: "fc4_postscale"
  type: "Scale"
  bottom: "fc4_300"
  top: "fc4_300"
  param {
    lr_mult: 0
    decay_mult: 0
  }
  scale_param {
    filler {
      value: 1.7159
    }
  }
}
layer {
  name: "drop4"
  type: "Dropout"
  bottom: "fc4_300"
  top: "fc4_300"
  dropout_param {
    dropout_ratio: 0.4
  }
}
layer {
  name: "fc5_67"
  type: "InnerProduct"
  bottom: "fc4_300"
  top: "fc5_classes"
  inner_product_param {
    num_output: 67
    weight_filler {
      type: "xavier"
    }
  }
}
layer {
  name: "loss"
  type: "SoftmaxWithLoss"
  bottom: "fc5_classes"
  bottom: "label"
  top: "loss"
}
layer {
  name: "accuracy_1"
  type: "Accuracy"
  bottom: "fc5_classes"
  bottom: "label"
  top: "accuracy_1"
  include {
    phase: TEST
  }
  accuracy_param {
    top_k: 1
  }
}
layer {
  name: "accuracy_5"
  type: "Accuracy"
  bottom: "fc5_classes"
  bottom: "label"
  top: "accuracy_5"
  include {
    phase: TEST
  }
  accuracy_param {
    top_k: 5
  }
}
I0409 19:42:39.977008  2560 layer_factory.hpp:77] Creating layer data
I0409 19:42:39.977808  2560 net.cpp:100] Creating Layer data
I0409 19:42:39.977819  2560 net.cpp:408] data -> data
I0409 19:42:39.977828  2560 net.cpp:408] data -> label
I0409 19:42:39.979439  2681 db_lmdb.cpp:35] Opened lmdb ../local_data/lmdb/rtsd-r1/CoNorm/test/lmdb
I0409 19:42:39.979688  2560 data_layer.cpp:41] output data size: 1024,3,48,48
I0409 19:42:40.036885  2560 net.cpp:150] Setting up data
I0409 19:42:40.036913  2560 net.cpp:157] Top shape: 1024 3 48 48 (7077888)
I0409 19:42:40.036919  2560 net.cpp:157] Top shape: 1024 (1024)
I0409 19:42:40.036922  2560 net.cpp:165] Memory required for data: 28315648
I0409 19:42:40.036928  2560 layer_factory.hpp:77] Creating layer label_data_1_split
I0409 19:42:40.036942  2560 net.cpp:100] Creating Layer label_data_1_split
I0409 19:42:40.036947  2560 net.cpp:434] label_data_1_split <- label
I0409 19:42:40.036953  2560 net.cpp:408] label_data_1_split -> label_data_1_split_0
I0409 19:42:40.036963  2560 net.cpp:408] label_data_1_split -> label_data_1_split_1
I0409 19:42:40.036969  2560 net.cpp:408] label_data_1_split -> label_data_1_split_2
I0409 19:42:40.037099  2560 net.cpp:150] Setting up label_data_1_split
I0409 19:42:40.037109  2560 net.cpp:157] Top shape: 1024 (1024)
I0409 19:42:40.037113  2560 net.cpp:157] Top shape: 1024 (1024)
I0409 19:42:40.037117  2560 net.cpp:157] Top shape: 1024 (1024)
I0409 19:42:40.037120  2560 net.cpp:165] Memory required for data: 28327936
I0409 19:42:40.037142  2560 layer_factory.hpp:77] Creating layer conv1
I0409 19:42:40.037156  2560 net.cpp:100] Creating Layer conv1
I0409 19:42:40.037161  2560 net.cpp:434] conv1 <- data
I0409 19:42:40.037168  2560 net.cpp:408] conv1 -> conv1
I0409 19:42:40.039265  2560 net.cpp:150] Setting up conv1
I0409 19:42:40.039284  2560 net.cpp:157] Top shape: 1024 100 42 42 (180633600)
I0409 19:42:40.039288  2560 net.cpp:165] Memory required for data: 750862336
I0409 19:42:40.039300  2560 layer_factory.hpp:77] Creating layer conv1_prescale
I0409 19:42:40.039309  2560 net.cpp:100] Creating Layer conv1_prescale
I0409 19:42:40.039314  2560 net.cpp:434] conv1_prescale <- conv1
I0409 19:42:40.039319  2560 net.cpp:395] conv1_prescale -> conv1 (in-place)
I0409 19:42:40.041616  2560 net.cpp:150] Setting up conv1_prescale
I0409 19:42:40.041637  2560 net.cpp:157] Top shape: 1024 100 42 42 (180633600)
I0409 19:42:40.041642  2560 net.cpp:165] Memory required for data: 1473396736
I0409 19:42:40.041651  2560 layer_factory.hpp:77] Creating layer conv1_sTanH
I0409 19:42:40.041661  2560 net.cpp:100] Creating Layer conv1_sTanH
I0409 19:42:40.041666  2560 net.cpp:434] conv1_sTanH <- conv1
I0409 19:42:40.041671  2560 net.cpp:395] conv1_sTanH -> conv1 (in-place)
I0409 19:42:40.041875  2560 net.cpp:150] Setting up conv1_sTanH
I0409 19:42:40.041888  2560 net.cpp:157] Top shape: 1024 100 42 42 (180633600)
I0409 19:42:40.041893  2560 net.cpp:165] Memory required for data: 2195931136
I0409 19:42:40.041895  2560 layer_factory.hpp:77] Creating layer conv1_postscale
I0409 19:42:40.041903  2560 net.cpp:100] Creating Layer conv1_postscale
I0409 19:42:40.041908  2560 net.cpp:434] conv1_postscale <- conv1
I0409 19:42:40.041913  2560 net.cpp:395] conv1_postscale -> conv1 (in-place)
I0409 19:42:40.042017  2560 net.cpp:150] Setting up conv1_postscale
I0409 19:42:40.042026  2560 net.cpp:157] Top shape: 1024 100 42 42 (180633600)
I0409 19:42:40.042031  2560 net.cpp:165] Memory required for data: 2918465536
I0409 19:42:40.042035  2560 layer_factory.hpp:77] Creating layer pool1
I0409 19:42:40.042042  2560 net.cpp:100] Creating Layer pool1
I0409 19:42:40.042045  2560 net.cpp:434] pool1 <- conv1
I0409 19:42:40.042052  2560 net.cpp:408] pool1 -> pool1
I0409 19:42:40.042093  2560 net.cpp:150] Setting up pool1
I0409 19:42:40.042100  2560 net.cpp:157] Top shape: 1024 100 21 21 (45158400)
I0409 19:42:40.042104  2560 net.cpp:165] Memory required for data: 3099099136
I0409 19:42:40.042106  2560 layer_factory.hpp:77] Creating layer conv2
I0409 19:42:40.042114  2560 net.cpp:100] Creating Layer conv2
I0409 19:42:40.042117  2560 net.cpp:434] conv2 <- pool1
I0409 19:42:40.042124  2560 net.cpp:408] conv2 -> conv2
I0409 19:42:40.046674  2560 net.cpp:150] Setting up conv2
I0409 19:42:40.046694  2560 net.cpp:157] Top shape: 1024 150 18 18 (49766400)
I0409 19:42:40.046697  2560 net.cpp:165] Memory required for data: 3298164736
I0409 19:42:40.046708  2560 layer_factory.hpp:77] Creating layer conv2_prescale
I0409 19:42:40.046718  2560 net.cpp:100] Creating Layer conv2_prescale
I0409 19:42:40.046721  2560 net.cpp:434] conv2_prescale <- conv2
I0409 19:42:40.046727  2560 net.cpp:395] conv2_prescale -> conv2 (in-place)
I0409 19:42:40.046838  2560 net.cpp:150] Setting up conv2_prescale
I0409 19:42:40.046847  2560 net.cpp:157] Top shape: 1024 150 18 18 (49766400)
I0409 19:42:40.046851  2560 net.cpp:165] Memory required for data: 3497230336
I0409 19:42:40.046856  2560 layer_factory.hpp:77] Creating layer conv2_sTanH
I0409 19:42:40.046862  2560 net.cpp:100] Creating Layer conv2_sTanH
I0409 19:42:40.046866  2560 net.cpp:434] conv2_sTanH <- conv2
I0409 19:42:40.046870  2560 net.cpp:395] conv2_sTanH -> conv2 (in-place)
I0409 19:42:40.048671  2560 net.cpp:150] Setting up conv2_sTanH
I0409 19:42:40.048687  2560 net.cpp:157] Top shape: 1024 150 18 18 (49766400)
I0409 19:42:40.048691  2560 net.cpp:165] Memory required for data: 3696295936
I0409 19:42:40.048694  2560 layer_factory.hpp:77] Creating layer conv2_postscale
I0409 19:42:40.048703  2560 net.cpp:100] Creating Layer conv2_postscale
I0409 19:42:40.048722  2560 net.cpp:434] conv2_postscale <- conv2
I0409 19:42:40.048729  2560 net.cpp:395] conv2_postscale -> conv2 (in-place)
I0409 19:42:40.048833  2560 net.cpp:150] Setting up conv2_postscale
I0409 19:42:40.048843  2560 net.cpp:157] Top shape: 1024 150 18 18 (49766400)
I0409 19:42:40.048846  2560 net.cpp:165] Memory required for data: 3895361536
I0409 19:42:40.048852  2560 layer_factory.hpp:77] Creating layer pool2
I0409 19:42:40.048858  2560 net.cpp:100] Creating Layer pool2
I0409 19:42:40.048861  2560 net.cpp:434] pool2 <- conv2
I0409 19:42:40.048867  2560 net.cpp:408] pool2 -> pool2
I0409 19:42:40.048910  2560 net.cpp:150] Setting up pool2
I0409 19:42:40.048918  2560 net.cpp:157] Top shape: 1024 150 9 9 (12441600)
I0409 19:42:40.048923  2560 net.cpp:165] Memory required for data: 3945127936
I0409 19:42:40.048925  2560 layer_factory.hpp:77] Creating layer conv3
I0409 19:42:40.048934  2560 net.cpp:100] Creating Layer conv3
I0409 19:42:40.048940  2560 net.cpp:434] conv3 <- pool2
I0409 19:42:40.048945  2560 net.cpp:408] conv3 -> conv3
I0409 19:42:40.054656  2560 net.cpp:150] Setting up conv3
I0409 19:42:40.054677  2560 net.cpp:157] Top shape: 1024 250 6 6 (9216000)
I0409 19:42:40.054680  2560 net.cpp:165] Memory required for data: 3981991936
I0409 19:42:40.054692  2560 layer_factory.hpp:77] Creating layer conv3_prescale
I0409 19:42:40.054699  2560 net.cpp:100] Creating Layer conv3_prescale
I0409 19:42:40.054703  2560 net.cpp:434] conv3_prescale <- conv3
I0409 19:42:40.054708  2560 net.cpp:395] conv3_prescale -> conv3 (in-place)
I0409 19:42:40.054803  2560 net.cpp:150] Setting up conv3_prescale
I0409 19:42:40.054813  2560 net.cpp:157] Top shape: 1024 250 6 6 (9216000)
I0409 19:42:40.054816  2560 net.cpp:165] Memory required for data: 4018855936
I0409 19:42:40.054821  2560 layer_factory.hpp:77] Creating layer conv3_sTanH
I0409 19:42:40.054826  2560 net.cpp:100] Creating Layer conv3_sTanH
I0409 19:42:40.054831  2560 net.cpp:434] conv3_sTanH <- conv3
I0409 19:42:40.054836  2560 net.cpp:395] conv3_sTanH -> conv3 (in-place)
I0409 19:42:40.056311  2560 net.cpp:150] Setting up conv3_sTanH
I0409 19:42:40.056329  2560 net.cpp:157] Top shape: 1024 250 6 6 (9216000)
I0409 19:42:40.056331  2560 net.cpp:165] Memory required for data: 4055719936
I0409 19:42:40.056336  2560 layer_factory.hpp:77] Creating layer conv3_postscale
I0409 19:42:40.056344  2560 net.cpp:100] Creating Layer conv3_postscale
I0409 19:42:40.056349  2560 net.cpp:434] conv3_postscale <- conv3
I0409 19:42:40.056354  2560 net.cpp:395] conv3_postscale -> conv3 (in-place)
I0409 19:42:40.056453  2560 net.cpp:150] Setting up conv3_postscale
I0409 19:42:40.056463  2560 net.cpp:157] Top shape: 1024 250 6 6 (9216000)
I0409 19:42:40.056465  2560 net.cpp:165] Memory required for data: 4092583936
I0409 19:42:40.056471  2560 layer_factory.hpp:77] Creating layer pool3
I0409 19:42:40.056479  2560 net.cpp:100] Creating Layer pool3
I0409 19:42:40.056484  2560 net.cpp:434] pool3 <- conv3
I0409 19:42:40.056490  2560 net.cpp:408] pool3 -> pool3
I0409 19:42:40.056529  2560 net.cpp:150] Setting up pool3
I0409 19:42:40.056537  2560 net.cpp:157] Top shape: 1024 250 3 3 (2304000)
I0409 19:42:40.056540  2560 net.cpp:165] Memory required for data: 4101799936
I0409 19:42:40.056543  2560 layer_factory.hpp:77] Creating layer fc4_300
I0409 19:42:40.056550  2560 net.cpp:100] Creating Layer fc4_300
I0409 19:42:40.056553  2560 net.cpp:434] fc4_300 <- pool3
I0409 19:42:40.056560  2560 net.cpp:408] fc4_300 -> fc4_300
I0409 19:42:40.062489  2560 net.cpp:150] Setting up fc4_300
I0409 19:42:40.062505  2560 net.cpp:157] Top shape: 1024 300 (307200)
I0409 19:42:40.062510  2560 net.cpp:165] Memory required for data: 4103028736
I0409 19:42:40.062516  2560 layer_factory.hpp:77] Creating layer fc4_prescale
I0409 19:42:40.062525  2560 net.cpp:100] Creating Layer fc4_prescale
I0409 19:42:40.062527  2560 net.cpp:434] fc4_prescale <- fc4_300
I0409 19:42:40.062535  2560 net.cpp:395] fc4_prescale -> fc4_300 (in-place)
I0409 19:42:40.062628  2560 net.cpp:150] Setting up fc4_prescale
I0409 19:42:40.062650  2560 net.cpp:157] Top shape: 1024 300 (307200)
I0409 19:42:40.062654  2560 net.cpp:165] Memory required for data: 4104257536
I0409 19:42:40.062659  2560 layer_factory.hpp:77] Creating layer fc4_sTanH
I0409 19:42:40.062664  2560 net.cpp:100] Creating Layer fc4_sTanH
I0409 19:42:40.062669  2560 net.cpp:434] fc4_sTanH <- fc4_300
I0409 19:42:40.062674  2560 net.cpp:395] fc4_sTanH -> fc4_300 (in-place)
I0409 19:42:40.062866  2560 net.cpp:150] Setting up fc4_sTanH
I0409 19:42:40.062880  2560 net.cpp:157] Top shape: 1024 300 (307200)
I0409 19:42:40.062882  2560 net.cpp:165] Memory required for data: 4105486336
I0409 19:42:40.062886  2560 layer_factory.hpp:77] Creating layer fc4_postscale
I0409 19:42:40.062893  2560 net.cpp:100] Creating Layer fc4_postscale
I0409 19:42:40.062896  2560 net.cpp:434] fc4_postscale <- fc4_300
I0409 19:42:40.062901  2560 net.cpp:395] fc4_postscale -> fc4_300 (in-place)
I0409 19:42:40.063000  2560 net.cpp:150] Setting up fc4_postscale
I0409 19:42:40.063009  2560 net.cpp:157] Top shape: 1024 300 (307200)
I0409 19:42:40.063012  2560 net.cpp:165] Memory required for data: 4106715136
I0409 19:42:40.063017  2560 layer_factory.hpp:77] Creating layer drop4
I0409 19:42:40.063024  2560 net.cpp:100] Creating Layer drop4
I0409 19:42:40.063030  2560 net.cpp:434] drop4 <- fc4_300
I0409 19:42:40.063035  2560 net.cpp:395] drop4 -> fc4_300 (in-place)
I0409 19:42:40.063060  2560 net.cpp:150] Setting up drop4
I0409 19:42:40.063066  2560 net.cpp:157] Top shape: 1024 300 (307200)
I0409 19:42:40.063069  2560 net.cpp:165] Memory required for data: 4107943936
I0409 19:42:40.063072  2560 layer_factory.hpp:77] Creating layer fc5_67
I0409 19:42:40.063078  2560 net.cpp:100] Creating Layer fc5_67
I0409 19:42:40.063081  2560 net.cpp:434] fc5_67 <- fc4_300
I0409 19:42:40.063086  2560 net.cpp:408] fc5_67 -> fc5_classes
I0409 19:42:40.063329  2560 net.cpp:150] Setting up fc5_67
I0409 19:42:40.063338  2560 net.cpp:157] Top shape: 1024 67 (68608)
I0409 19:42:40.063341  2560 net.cpp:165] Memory required for data: 4108218368
I0409 19:42:40.063351  2560 layer_factory.hpp:77] Creating layer fc5_classes_fc5_67_0_split
I0409 19:42:40.063359  2560 net.cpp:100] Creating Layer fc5_classes_fc5_67_0_split
I0409 19:42:40.063362  2560 net.cpp:434] fc5_classes_fc5_67_0_split <- fc5_classes
I0409 19:42:40.063367  2560 net.cpp:408] fc5_classes_fc5_67_0_split -> fc5_classes_fc5_67_0_split_0
I0409 19:42:40.063375  2560 net.cpp:408] fc5_classes_fc5_67_0_split -> fc5_classes_fc5_67_0_split_1
I0409 19:42:40.063381  2560 net.cpp:408] fc5_classes_fc5_67_0_split -> fc5_classes_fc5_67_0_split_2
I0409 19:42:40.063434  2560 net.cpp:150] Setting up fc5_classes_fc5_67_0_split
I0409 19:42:40.063441  2560 net.cpp:157] Top shape: 1024 67 (68608)
I0409 19:42:40.063446  2560 net.cpp:157] Top shape: 1024 67 (68608)
I0409 19:42:40.063448  2560 net.cpp:157] Top shape: 1024 67 (68608)
I0409 19:42:40.063452  2560 net.cpp:165] Memory required for data: 4109041664
I0409 19:42:40.063454  2560 layer_factory.hpp:77] Creating layer loss
I0409 19:42:40.063460  2560 net.cpp:100] Creating Layer loss
I0409 19:42:40.063463  2560 net.cpp:434] loss <- fc5_classes_fc5_67_0_split_0
I0409 19:42:40.063467  2560 net.cpp:434] loss <- label_data_1_split_0
I0409 19:42:40.063472  2560 net.cpp:408] loss -> loss
…
