…
I0409 19:41:26.466111 29000 net.cpp:322] The NetState phase (0) differed from the phase (1) specified by a rule in layer accuracy_5
I0409 19:41:26.466327 29000 net.cpp:58] Initializing net from parameters: 
state {
  phase: TRAIN
  level: 0
  stage: ""
}
layer {
  name: "data"
  type: "Data"
  top: "data"
  top: "label"
  include {
    phase: TRAIN
  }
  transform_param {
    mirror: false
    crop_size: 48
    mean_value: 132
    mean_value: 132
    mean_value: 131
  }
  data_param {
    source: "../local_data/lmdb/rtsd-r1/CoNorm/train/lmdb"
    batch_size: 1024
    backend: LMDB
  }
}
layer {
  name: "conv1"
  type: "Convolution"
  bottom: "data"
  top: "conv1"
  convolution_param {
    num_output: 100
    pad: 0
    kernel_size: 7
    group: 1
    stride: 1
    weight_filler {
      type: "xavier"
    }
  }
}
layer {
  name: "conv1_prescale"
  type: "Scale"
  bottom: "conv1"
  top: "conv1"
  param {
    lr_mult: 0
    decay_mult: 0
  }
  scale_param {
    filler {
      value: 0.6666
    }
  }
}
layer {
  name: "conv1_sTanH"
  type: "TanH"
  bottom: "conv1"
  top: "conv1"
}
layer {
  name: "conv1_postscale"
  type: "Scale"
  bottom: "conv1"
  top: "conv1"
  param {
    lr_mult: 0
    decay_mult: 0
  }
  scale_param {
    filler {
      value: 1.7159
    }
  }
}
layer {
  name: "pool1"
  type: "Pooling"
  bottom: "conv1"
  top: "pool1"
  pooling_param {
    pool: MAX
    kernel_size: 2
    stride: 2
  }
}
layer {
  name: "conv2"
  type: "Convolution"
  bottom: "pool1"
  top: "conv2"
  convolution_param {
    num_output: 150
    pad: 0
    kernel_size: 4
    group: 1
    stride: 1
    weight_filler {
      type: "xavier"
    }
  }
}
layer {
  name: "conv2_prescale"
  type: "Scale"
  bottom: "conv2"
  top: "conv2"
  param {
    lr_mult: 0
    decay_mult: 0
  }
  scale_param {
    filler {
      value: 0.6666
    }
  }
}
layer {
  name: "conv2_sTanH"
  type: "TanH"
  bottom: "conv2"
  top: "conv2"
}
layer {
  name: "conv2_postscale"
  type: "Scale"
  bottom: "conv2"
  top: "conv2"
  param {
    lr_mult: 0
    decay_mult: 0
  }
  scale_param {
    filler {
      value: 1.7159
    }
  }
}
layer {
  name: "pool2"
  type: "Pooling"
  bottom: "conv2"
  top: "pool2"
  pooling_param {
    pool: MAX
    kernel_size: 2
    stride: 2
  }
}
layer {
  name: "conv3"
  type: "Convolution"
  bottom: "pool2"
  top: "conv3"
  convolution_param {
    num_output: 250
    pad: 0
    kernel_size: 4
    group: 1
    stride: 1
    weight_filler {
      type: "xavier"
    }
  }
}
layer {
  name: "conv3_prescale"
  type: "Scale"
  bottom: "conv3"
  top: "conv3"
  param {
    lr_mult: 0
    decay_mult: 0
  }
  scale_param {
    filler {
      value: 0.6666
    }
  }
}
layer {
  name: "conv3_sTanH"
  type: "TanH"
  bottom: "conv3"
  top: "conv3"
}
layer {
  name: "conv3_postscale"
  type: "Scale"
  bottom: "conv3"
  top: "conv3"
  param {
    lr_mult: 0
    decay_mult: 0
  }
  scale_param {
    filler {
      value: 1.7159
    }
  }
}
layer {
  name: "pool3"
  type: "Pooling"
  bottom: "conv3"
  top: "pool3"
  pooling_param {
    pool: MAX
    kernel_size: 2
    stride: 2
  }
}
layer {
  name: "fc4_300"
  type: "InnerProduct"
  bottom: "pool3"
  top: "fc4_300"
  inner_product_param {
    num_output: 300
    weight_filler {
      type: "xavier"
    }
  }
}
layer {
  name: "fc4_prescale"
  type: "Scale"
  bottom: "fc4_300"
  top: "fc4_300"
  param {
    lr_mult: 0
    decay_mult: 0
  }
  scale_param {
    filler {
      value: 0.6666
    }
  }
}
layer {
  name: "fc4_sTanH"
  type: "TanH"
  bottom: "fc4_300"
  top: "fc4_300"
}
layer {
  name: "fc4_postscale"
  type: "Scale"
  bottom: "fc4_300"
  top: "fc4_300"
  param {
    lr_mult: 0
    decay_mult: 0
  }
  scale_param {
    filler {
      value: 1.7159
    }
  }
}
layer {
  name: "drop4"
  type: "Dropout"
  bottom: "fc4_300"
  top: "fc4_300"
  dropout_param {
    dropout_ratio: 0.4
  }
}
layer {
  name: "fc5_67"
  type: "InnerProduct"
  bottom: "fc4_300"
  top: "fc5_classes"
  inner_product_param {
    num_output: 67
    weight_filler {
      type: "xavier"
    }
  }
}
layer {
  name: "loss"
  type: "SoftmaxWithLoss"
  bottom: "fc5_classes"
  bottom: "label"
  top: "loss"
}
I0409 19:41:26.466488 29000 layer_factory.hpp:77] Creating layer data
I0409 19:41:26.467916 29000 net.cpp:100] Creating Layer data
I0409 19:41:26.467936 29000 net.cpp:408] data -> data
I0409 19:41:26.467973 29000 net.cpp:408] data -> label
I0409 19:41:26.469588 29079 db_lmdb.cpp:35] Opened lmdb ../local_data/lmdb/rtsd-r1/CoNorm/train/lmdb
I0409 19:41:26.491402 29000 data_layer.cpp:41] output data size: 1024,3,48,48
I0409 19:41:26.541658 29000 net.cpp:150] Setting up data
I0409 19:41:26.541692 29000 net.cpp:157] Top shape: 1024 3 48 48 (7077888)
I0409 19:41:26.541699 29000 net.cpp:157] Top shape: 1024 (1024)
I0409 19:41:26.541702 29000 net.cpp:165] Memory required for data: 28315648
I0409 19:41:26.541714 29000 layer_factory.hpp:77] Creating layer conv1
I0409 19:41:26.541743 29000 net.cpp:100] Creating Layer conv1
I0409 19:41:26.541751 29000 net.cpp:434] conv1 <- data
I0409 19:41:26.541766 29000 net.cpp:408] conv1 -> conv1
I0409 19:41:26.960194 29000 net.cpp:150] Setting up conv1
I0409 19:41:26.960227 29000 net.cpp:157] Top shape: 1024 100 42 42 (180633600)
I0409 19:41:26.960232 29000 net.cpp:165] Memory required for data: 750850048
I0409 19:41:26.960258 29000 layer_factory.hpp:77] Creating layer conv1_prescale
I0409 19:41:26.960274 29000 net.cpp:100] Creating Layer conv1_prescale
I0409 19:41:26.960281 29000 net.cpp:434] conv1_prescale <- conv1
I0409 19:41:26.960289 29000 net.cpp:395] conv1_prescale -> conv1 (in-place)
I0409 19:41:26.960425 29000 net.cpp:150] Setting up conv1_prescale
I0409 19:41:26.960435 29000 net.cpp:157] Top shape: 1024 100 42 42 (180633600)
I0409 19:41:26.960440 29000 net.cpp:165] Memory required for data: 1473384448
I0409 19:41:26.960448 29000 layer_factory.hpp:77] Creating layer conv1_sTanH
I0409 19:41:26.960458 29000 net.cpp:100] Creating Layer conv1_sTanH
I0409 19:41:26.960463 29000 net.cpp:434] conv1_sTanH <- conv1
I0409 19:41:26.960469 29000 net.cpp:395] conv1_sTanH -> conv1 (in-place)
I0409 19:41:26.960716 29000 net.cpp:150] Setting up conv1_sTanH
I0409 19:41:26.960737 29000 net.cpp:157] Top shape: 1024 100 42 42 (180633600)
I0409 19:41:26.960743 29000 net.cpp:165] Memory required for data: 2195918848
I0409 19:41:26.960750 29000 layer_factory.hpp:77] Creating layer conv1_postscale
I0409 19:41:26.960764 29000 net.cpp:100] Creating Layer conv1_postscale
I0409 19:41:26.960772 29000 net.cpp:434] conv1_postscale <- conv1
I0409 19:41:26.960780 29000 net.cpp:395] conv1_postscale -> conv1 (in-place)
I0409 19:41:26.960949 29000 net.cpp:150] Setting up conv1_postscale
I0409 19:41:26.960963 29000 net.cpp:157] Top shape: 1024 100 42 42 (180633600)
I0409 19:41:26.960968 29000 net.cpp:165] Memory required for data: 2918453248
I0409 19:41:26.960975 29000 layer_factory.hpp:77] Creating layer pool1
I0409 19:41:26.960985 29000 net.cpp:100] Creating Layer pool1
I0409 19:41:26.960990 29000 net.cpp:434] pool1 <- conv1
I0409 19:41:26.960996 29000 net.cpp:408] pool1 -> pool1
I0409 19:41:26.961056 29000 net.cpp:150] Setting up pool1
I0409 19:41:26.961066 29000 net.cpp:157] Top shape: 1024 100 21 21 (45158400)
I0409 19:41:26.961071 29000 net.cpp:165] Memory required for data: 3099086848
I0409 19:41:26.961103 29000 layer_factory.hpp:77] Creating layer conv2
I0409 19:41:26.961133 29000 net.cpp:100] Creating Layer conv2
I0409 19:41:26.961140 29000 net.cpp:434] conv2 <- pool1
I0409 19:41:26.961148 29000 net.cpp:408] conv2 -> conv2
I0409 19:41:26.967188 29000 net.cpp:150] Setting up conv2
I0409 19:41:26.967208 29000 net.cpp:157] Top shape: 1024 150 18 18 (49766400)
I0409 19:41:26.967212 29000 net.cpp:165] Memory required for data: 3298152448
I0409 19:41:26.967229 29000 layer_factory.hpp:77] Creating layer conv2_prescale
I0409 19:41:26.967238 29000 net.cpp:100] Creating Layer conv2_prescale
I0409 19:41:26.967242 29000 net.cpp:434] conv2_prescale <- conv2
I0409 19:41:26.967249 29000 net.cpp:395] conv2_prescale -> conv2 (in-place)
I0409 19:41:26.967383 29000 net.cpp:150] Setting up conv2_prescale
I0409 19:41:26.967394 29000 net.cpp:157] Top shape: 1024 150 18 18 (49766400)
I0409 19:41:26.967398 29000 net.cpp:165] Memory required for data: 3497218048
I0409 19:41:26.967404 29000 layer_factory.hpp:77] Creating layer conv2_sTanH
I0409 19:41:26.967414 29000 net.cpp:100] Creating Layer conv2_sTanH
I0409 19:41:26.967419 29000 net.cpp:434] conv2_sTanH <- conv2
I0409 19:41:26.967424 29000 net.cpp:395] conv2_sTanH -> conv2 (in-place)
I0409 19:41:26.969533 29000 net.cpp:150] Setting up conv2_sTanH
I0409 19:41:26.969554 29000 net.cpp:157] Top shape: 1024 150 18 18 (49766400)
I0409 19:41:26.969558 29000 net.cpp:165] Memory required for data: 3696283648
I0409 19:41:26.969563 29000 layer_factory.hpp:77] Creating layer conv2_postscale
I0409 19:41:26.969571 29000 net.cpp:100] Creating Layer conv2_postscale
I0409 19:41:26.969576 29000 net.cpp:434] conv2_postscale <- conv2
I0409 19:41:26.969583 29000 net.cpp:395] conv2_postscale -> conv2 (in-place)
I0409 19:41:26.969700 29000 net.cpp:150] Setting up conv2_postscale
I0409 19:41:26.969710 29000 net.cpp:157] Top shape: 1024 150 18 18 (49766400)
I0409 19:41:26.969717 29000 net.cpp:165] Memory required for data: 3895349248
I0409 19:41:26.969722 29000 layer_factory.hpp:77] Creating layer pool2
I0409 19:41:26.969732 29000 net.cpp:100] Creating Layer pool2
I0409 19:41:26.969736 29000 net.cpp:434] pool2 <- conv2
I0409 19:41:26.969743 29000 net.cpp:408] pool2 -> pool2
I0409 19:41:26.969790 29000 net.cpp:150] Setting up pool2
I0409 19:41:26.969799 29000 net.cpp:157] Top shape: 1024 150 9 9 (12441600)
I0409 19:41:26.969804 29000 net.cpp:165] Memory required for data: 3945115648
I0409 19:41:26.969807 29000 layer_factory.hpp:77] Creating layer conv3
I0409 19:41:26.969817 29000 net.cpp:100] Creating Layer conv3
I0409 19:41:26.969822 29000 net.cpp:434] conv3 <- pool2
I0409 19:41:26.969827 29000 net.cpp:408] conv3 -> conv3
I0409 19:41:26.977252 29000 net.cpp:150] Setting up conv3
I0409 19:41:26.977274 29000 net.cpp:157] Top shape: 1024 250 6 6 (9216000)
I0409 19:41:26.977279 29000 net.cpp:165] Memory required for data: 3981979648
I0409 19:41:26.977291 29000 layer_factory.hpp:77] Creating layer conv3_prescale
I0409 19:41:26.977301 29000 net.cpp:100] Creating Layer conv3_prescale
I0409 19:41:26.977306 29000 net.cpp:434] conv3_prescale <- conv3
I0409 19:41:26.977313 29000 net.cpp:395] conv3_prescale -> conv3 (in-place)
I0409 19:41:26.977483 29000 net.cpp:150] Setting up conv3_prescale
I0409 19:41:26.977502 29000 net.cpp:157] Top shape: 1024 250 6 6 (9216000)
I0409 19:41:26.977511 29000 net.cpp:165] Memory required for data: 4018843648
I0409 19:41:26.977524 29000 layer_factory.hpp:77] Creating layer conv3_sTanH
I0409 19:41:26.977537 29000 net.cpp:100] Creating Layer conv3_sTanH
I0409 19:41:26.977546 29000 net.cpp:434] conv3_sTanH <- conv3
I0409 19:41:26.977558 29000 net.cpp:395] conv3_sTanH -> conv3 (in-place)
I0409 19:41:26.983785 29000 net.cpp:150] Setting up conv3_sTanH
I0409 19:41:26.983819 29000 net.cpp:157] Top shape: 1024 250 6 6 (9216000)
I0409 19:41:26.983825 29000 net.cpp:165] Memory required for data: 4055707648
I0409 19:41:26.983832 29000 layer_factory.hpp:77] Creating layer conv3_postscale
I0409 19:41:26.983847 29000 net.cpp:100] Creating Layer conv3_postscale
I0409 19:41:26.983911 29000 net.cpp:434] conv3_postscale <- conv3
I0409 19:41:26.983927 29000 net.cpp:395] conv3_postscale -> conv3 (in-place)
I0409 19:41:26.984109 29000 net.cpp:150] Setting up conv3_postscale
I0409 19:41:26.984128 29000 net.cpp:157] Top shape: 1024 250 6 6 (9216000)
I0409 19:41:26.984136 29000 net.cpp:165] Memory required for data: 4092571648
I0409 19:41:26.984149 29000 layer_factory.hpp:77] Creating layer pool3
I0409 19:41:26.984163 29000 net.cpp:100] Creating Layer pool3
I0409 19:41:26.984171 29000 net.cpp:434] pool3 <- conv3
I0409 19:41:26.984182 29000 net.cpp:408] pool3 -> pool3
I0409 19:41:26.984252 29000 net.cpp:150] Setting up pool3
I0409 19:41:26.984266 29000 net.cpp:157] Top shape: 1024 250 3 3 (2304000)
I0409 19:41:26.984274 29000 net.cpp:165] Memory required for data: 4101787648
I0409 19:41:26.984282 29000 layer_factory.hpp:77] Creating layer fc4_300
I0409 19:41:26.984299 29000 net.cpp:100] Creating Layer fc4_300
I0409 19:41:26.984308 29000 net.cpp:434] fc4_300 <- pool3
I0409 19:41:26.984320 29000 net.cpp:408] fc4_300 -> fc4_300
I0409 19:41:26.995254 29000 net.cpp:150] Setting up fc4_300
I0409 19:41:26.995276 29000 net.cpp:157] Top shape: 1024 300 (307200)
I0409 19:41:26.995281 29000 net.cpp:165] Memory required for data: 4103016448
I0409 19:41:26.995290 29000 layer_factory.hpp:77] Creating layer fc4_prescale
I0409 19:41:26.995301 29000 net.cpp:100] Creating Layer fc4_prescale
I0409 19:41:26.995307 29000 net.cpp:434] fc4_prescale <- fc4_300
I0409 19:41:26.995316 29000 net.cpp:395] fc4_prescale -> fc4_300 (in-place)
I0409 19:41:26.995483 29000 net.cpp:150] Setting up fc4_prescale
I0409 19:41:26.995503 29000 net.cpp:157] Top shape: 1024 300 (307200)
I0409 19:41:26.995512 29000 net.cpp:165] Memory required for data: 4104245248
I0409 19:41:26.995524 29000 layer_factory.hpp:77] Creating layer fc4_sTanH
I0409 19:41:26.995537 29000 net.cpp:100] Creating Layer fc4_sTanH
I0409 19:41:26.995546 29000 net.cpp:434] fc4_sTanH <- fc4_300
I0409 19:41:26.995558 29000 net.cpp:395] fc4_sTanH -> fc4_300 (in-place)
I0409 19:41:26.995932 29000 net.cpp:150] Setting up fc4_sTanH
I0409 19:41:26.995955 29000 net.cpp:157] Top shape: 1024 300 (307200)
I0409 19:41:26.995964 29000 net.cpp:165] Memory required for data: 4105474048
I0409 19:41:26.995973 29000 layer_factory.hpp:77] Creating layer fc4_postscale
I0409 19:41:26.995988 29000 net.cpp:100] Creating Layer fc4_postscale
I0409 19:41:26.996000 29000 net.cpp:434] fc4_postscale <- fc4_300
I0409 19:41:26.996011 29000 net.cpp:395] fc4_postscale -> fc4_300 (in-place)
I0409 19:41:26.996186 29000 net.cpp:150] Setting up fc4_postscale
I0409 19:41:26.996206 29000 net.cpp:157] Top shape: 1024 300 (307200)
I0409 19:41:26.996213 29000 net.cpp:165] Memory required for data: 4106702848
I0409 19:41:26.996227 29000 layer_factory.hpp:77] Creating layer drop4
I0409 19:41:26.996242 29000 net.cpp:100] Creating Layer drop4
I0409 19:41:26.996249 29000 net.cpp:434] drop4 <- fc4_300
I0409 19:41:26.996261 29000 net.cpp:395] drop4 -> fc4_300 (in-place)
I0409 19:41:26.996314 29000 net.cpp:150] Setting up drop4
I0409 19:41:26.996328 29000 net.cpp:157] Top shape: 1024 300 (307200)
I0409 19:41:26.996336 29000 net.cpp:165] Memory required for data: 4107931648
I0409 19:41:26.996345 29000 layer_factory.hpp:77] Creating layer fc5_67
I0409 19:41:26.996359 29000 net.cpp:100] Creating Layer fc5_67
I0409 19:41:26.996368 29000 net.cpp:434] fc5_67 <- fc4_300
I0409 19:41:26.996381 29000 net.cpp:408] fc5_67 -> fc5_classes
I0409 19:41:26.999943 29000 net.cpp:150] Setting up fc5_67
I0409 19:41:26.999963 29000 net.cpp:157] Top shape: 1024 67 (68608)
I0409 19:41:26.999967 29000 net.cpp:165] Memory required for data: 4108206080
I0409 19:41:26.999989 29000 layer_factory.hpp:77] Creating layer loss
I0409 19:41:27.000005 29000 net.cpp:100] Creating Layer loss
I0409 19:41:27.000015 29000 net.cpp:434] loss <- fc5_classes
I0409 19:41:27.000026 29000 net.cpp:434] loss <- label
I0409 19:41:27.000039 29000 net.cpp:408] loss -> loss
I0409 19:41:27.000064 29000 layer_factory.hpp:77] Creating layer loss
…
I0409 19:41:27.001528 29000 solver.cpp:193] Creating test net (#0) specified by test_net file: ./Prototxt/experiment_7/rtsd-r1/CoNorm/trial_1/test.prototxt
I0409 19:41:27.001910 29000 net.cpp:58] Initializing net from parameters: 
state {
  phase: TEST
}
layer {
  name: "data"
  type: "Data"
  top: "data"
  top: "label"
  include {
    phase: TEST
  }
  transform_param {
    mirror: false
    crop_size: 48
    mean_value: 133
    mean_value: 133
    mean_value: 132
  }
  data_param {
    source: "../local_data/lmdb/rtsd-r1/CoNorm/test/lmdb"
    batch_size: 1024
    backend: LMDB
  }
}
layer {
  name: "conv1"
  type: "Convolution"
  bottom: "data"
  top: "conv1"
  convolution_param {
    num_output: 100
    pad: 0
    kernel_size: 7
    group: 1
    stride: 1
    weight_filler {
      type: "xavier"
    }
  }
}
layer {
  name: "conv1_prescale"
  type: "Scale"
  bottom: "conv1"
  top: "conv1"
  param {
    lr_mult: 0
    decay_mult: 0
  }
  scale_param {
    filler {
      value: 0.6666
    }
  }
}
layer {
  name: "conv1_sTanH"
  type: "TanH"
  bottom: "conv1"
  top: "conv1"
}
layer {
  name: "conv1_postscale"
  type: "Scale"
  bottom: "conv1"
  top: "conv1"
  param {
    lr_mult: 0
    decay_mult: 0
  }
  scale_param {
    filler {
      value: 1.7159
    }
  }
}
layer {
  name: "pool1"
  type: "Pooling"
  bottom: "conv1"
  top: "pool1"
  pooling_param {
    pool: MAX
    kernel_size: 2
    stride: 2
  }
}
layer {
  name: "conv2"
  type: "Convolution"
  bottom: "pool1"
  top: "conv2"
  convolution_param {
    num_output: 150
    pad: 0
    kernel_size: 4
    group: 1
    stride: 1
    weight_filler {
      type: "xavier"
    }
  }
}
layer {
  name: "conv2_prescale"
  type: "Scale"
  bottom: "conv2"
  top: "conv2"
  param {
    lr_mult: 0
    decay_mult: 0
  }
  scale_param {
    filler {
      value: 0.6666
    }
  }
}
layer {
  name: "conv2_sTanH"
  type: "TanH"
  bottom: "conv2"
  top: "conv2"
}
layer {
  name: "conv2_postscale"
  type: "Scale"
  bottom: "conv2"
  top: "conv2"
  param {
    lr_mult: 0
    decay_mult: 0
  }
  scale_param {
    filler {
      value: 1.7159
    }
  }
}
layer {
  name: "pool2"
  type: "Pooling"
  bottom: "conv2"
  top: "pool2"
  pooling_param {
    pool: MAX
    kernel_size: 2
    stride: 2
  }
}
layer {
  name: "conv3"
  type: "Convolution"
  bottom: "pool2"
  top: "conv3"
  convolution_param {
    num_output: 250
    pad: 0
    kernel_size: 4
    group: 1
    stride: 1
    weight_filler {
      type: "xavier"
    }
  }
}
layer {
  name: "conv3_prescale"
  type: "Scale"
  bottom: "conv3"
  top: "conv3"
  param {
    lr_mult: 0
    decay_mult: 0
  }
  scale_param {
    filler {
      value: 0.6666
    }
  }
}
layer {
  name: "conv3_sTanH"
  type: "TanH"
  bottom: "conv3"
  top: "conv3"
}
layer {
  name: "conv3_postscale"
  type: "Scale"
  bottom: "conv3"
  top: "conv3"
  param {
    lr_mult: 0
    decay_mult: 0
  }
  scale_param {
    filler {
      value: 1.7159
    }
  }
}
layer {
  name: "pool3"
  type: "Pooling"
  bottom: "conv3"
  top: "pool3"
  pooling_param {
    pool: MAX
    kernel_size: 2
    stride: 2
  }
}
layer {
  name: "fc4_300"
  type: "InnerProduct"
  bottom: "pool3"
  top: "fc4_300"
  inner_product_param {
    num_output: 300
    weight_filler {
      type: "xavier"
    }
  }
}
layer {
  name: "fc4_prescale"
  type: "Scale"
  bottom: "fc4_300"
  top: "fc4_300"
  param {
    lr_mult: 0
    decay_mult: 0
  }
  scale_param {
    filler {
      value: 0.6666
    }
  }
}
layer {
  name: "fc4_sTanH"
  type: "TanH"
  bottom: "fc4_300"
  top: "fc4_300"
}
layer {
  name: "fc4_postscale"
  type: "Scale"
  bottom: "fc4_300"
  top: "fc4_300"
  param {
    lr_mult: 0
    decay_mult: 0
  }
  scale_param {
    filler {
      value: 1.7159
    }
  }
}
layer {
  name: "drop4"
  type: "Dropout"
  bottom: "fc4_300"
  top: "fc4_300"
  dropout_param {
    dropout_ratio: 0.4
  }
}
layer {
  name: "fc5_67"
  type: "InnerProduct"
  bottom: "fc4_300"
  top: "fc5_classes"
  inner_product_param {
    num_output: 67
    weight_filler {
      type: "xavier"
    }
  }
}
layer {
  name: "loss"
  type: "SoftmaxWithLoss"
  bottom: "fc5_classes"
  bottom: "label"
  top: "loss"
}
layer {
  name: "accuracy_1"
  type: "Accuracy"
  bottom: "fc5_classes"
  bottom: "label"
  top: "accuracy_1"
  include {
    phase: TEST
  }
  accuracy_param {
    top_k: 1
  }
}
layer {
  name: "accuracy_5"
  type: "Accuracy"
  bottom: "fc5_classes"
  bottom: "label"
  top: "accuracy_5"
  include {
    phase: TEST
  }
  accuracy_param {
    top_k: 5
  }
}
I0409 19:41:27.002130 29000 layer_factory.hpp:77] Creating layer data
I0409 19:41:27.006111 29000 net.cpp:100] Creating Layer data
I0409 19:41:27.006141 29000 net.cpp:408] data -> data
I0409 19:41:27.006158 29000 net.cpp:408] data -> label
I0409 19:41:27.010040 29202 db_lmdb.cpp:35] Opened lmdb ../local_data/lmdb/rtsd-r1/CoNorm/test/lmdb
I0409 19:41:27.010262 29000 data_layer.cpp:41] output data size: 1024,3,48,48
I0409 19:41:27.059484 29000 net.cpp:150] Setting up data
I0409 19:41:27.059517 29000 net.cpp:157] Top shape: 1024 3 48 48 (7077888)
I0409 19:41:27.059525 29000 net.cpp:157] Top shape: 1024 (1024)
I0409 19:41:27.059527 29000 net.cpp:165] Memory required for data: 28315648
I0409 19:41:27.059535 29000 layer_factory.hpp:77] Creating layer label_data_1_split
I0409 19:41:27.059553 29000 net.cpp:100] Creating Layer label_data_1_split
I0409 19:41:27.059563 29000 net.cpp:434] label_data_1_split <- label
I0409 19:41:27.059577 29000 net.cpp:408] label_data_1_split -> label_data_1_split_0
I0409 19:41:27.059598 29000 net.cpp:408] label_data_1_split -> label_data_1_split_1
I0409 19:41:27.059614 29000 net.cpp:408] label_data_1_split -> label_data_1_split_2
I0409 19:41:27.059826 29000 net.cpp:150] Setting up label_data_1_split
I0409 19:41:27.059844 29000 net.cpp:157] Top shape: 1024 (1024)
I0409 19:41:27.059851 29000 net.cpp:157] Top shape: 1024 (1024)
I0409 19:41:27.059862 29000 net.cpp:157] Top shape: 1024 (1024)
I0409 19:41:27.059870 29000 net.cpp:165] Memory required for data: 28327936
I0409 19:41:27.059926 29000 layer_factory.hpp:77] Creating layer conv1
I0409 19:41:27.059958 29000 net.cpp:100] Creating Layer conv1
I0409 19:41:27.059968 29000 net.cpp:434] conv1 <- data
I0409 19:41:27.059980 29000 net.cpp:408] conv1 -> conv1
I0409 19:41:27.064884 29000 net.cpp:150] Setting up conv1
I0409 19:41:27.064909 29000 net.cpp:157] Top shape: 1024 100 42 42 (180633600)
I0409 19:41:27.064913 29000 net.cpp:165] Memory required for data: 750862336
I0409 19:41:27.064930 29000 layer_factory.hpp:77] Creating layer conv1_prescale
I0409 19:41:27.064944 29000 net.cpp:100] Creating Layer conv1_prescale
I0409 19:41:27.064954 29000 net.cpp:434] conv1_prescale <- conv1
I0409 19:41:27.064965 29000 net.cpp:395] conv1_prescale -> conv1 (in-place)
I0409 19:41:27.065181 29000 net.cpp:150] Setting up conv1_prescale
I0409 19:41:27.065199 29000 net.cpp:157] Top shape: 1024 100 42 42 (180633600)
I0409 19:41:27.065209 29000 net.cpp:165] Memory required for data: 1473396736
I0409 19:41:27.065232 29000 layer_factory.hpp:77] Creating layer conv1_sTanH
I0409 19:41:27.065249 29000 net.cpp:100] Creating Layer conv1_sTanH
I0409 19:41:27.065258 29000 net.cpp:434] conv1_sTanH <- conv1
I0409 19:41:27.065269 29000 net.cpp:395] conv1_sTanH -> conv1 (in-place)
I0409 19:41:27.065623 29000 net.cpp:150] Setting up conv1_sTanH
I0409 19:41:27.065642 29000 net.cpp:157] Top shape: 1024 100 42 42 (180633600)
I0409 19:41:27.065651 29000 net.cpp:165] Memory required for data: 2195931136
I0409 19:41:27.065661 29000 layer_factory.hpp:77] Creating layer conv1_postscale
I0409 19:41:27.065675 29000 net.cpp:100] Creating Layer conv1_postscale
I0409 19:41:27.065685 29000 net.cpp:434] conv1_postscale <- conv1
I0409 19:41:27.065698 29000 net.cpp:395] conv1_postscale -> conv1 (in-place)
I0409 19:41:27.065865 29000 net.cpp:150] Setting up conv1_postscale
I0409 19:41:27.065879 29000 net.cpp:157] Top shape: 1024 100 42 42 (180633600)
I0409 19:41:27.065884 29000 net.cpp:165] Memory required for data: 2918465536
I0409 19:41:27.065891 29000 layer_factory.hpp:77] Creating layer pool1
I0409 19:41:27.065902 29000 net.cpp:100] Creating Layer pool1
I0409 19:41:27.065907 29000 net.cpp:434] pool1 <- conv1
I0409 19:41:27.065915 29000 net.cpp:408] pool1 -> pool1
I0409 19:41:27.065973 29000 net.cpp:150] Setting up pool1
I0409 19:41:27.065984 29000 net.cpp:157] Top shape: 1024 100 21 21 (45158400)
I0409 19:41:27.065989 29000 net.cpp:165] Memory required for data: 3099099136
I0409 19:41:27.065994 29000 layer_factory.hpp:77] Creating layer conv2
I0409 19:41:27.066005 29000 net.cpp:100] Creating Layer conv2
I0409 19:41:27.066012 29000 net.cpp:434] conv2 <- pool1
I0409 19:41:27.066020 29000 net.cpp:408] conv2 -> conv2
I0409 19:41:27.071959 29000 net.cpp:150] Setting up conv2
I0409 19:41:27.071982 29000 net.cpp:157] Top shape: 1024 150 18 18 (49766400)
I0409 19:41:27.071988 29000 net.cpp:165] Memory required for data: 3298164736
I0409 19:41:27.072010 29000 layer_factory.hpp:77] Creating layer conv2_prescale
I0409 19:41:27.072033 29000 net.cpp:100] Creating Layer conv2_prescale
I0409 19:41:27.072044 29000 net.cpp:434] conv2_prescale <- conv2
I0409 19:41:27.072058 29000 net.cpp:395] conv2_prescale -> conv2 (in-place)
I0409 19:41:27.072322 29000 net.cpp:150] Setting up conv2_prescale
I0409 19:41:27.072341 29000 net.cpp:157] Top shape: 1024 150 18 18 (49766400)
I0409 19:41:27.072350 29000 net.cpp:165] Memory required for data: 3497230336
I0409 19:41:27.072362 29000 layer_factory.hpp:77] Creating layer conv2_sTanH
I0409 19:41:27.072376 29000 net.cpp:100] Creating Layer conv2_sTanH
I0409 19:41:27.072384 29000 net.cpp:434] conv2_sTanH <- conv2
I0409 19:41:27.072397 29000 net.cpp:395] conv2_sTanH -> conv2 (in-place)
I0409 19:41:27.073503 29000 net.cpp:150] Setting up conv2_sTanH
I0409 19:41:27.073523 29000 net.cpp:157] Top shape: 1024 150 18 18 (49766400)
I0409 19:41:27.073529 29000 net.cpp:165] Memory required for data: 3696295936
I0409 19:41:27.073537 29000 layer_factory.hpp:77] Creating layer conv2_postscale
I0409 19:41:27.073554 29000 net.cpp:100] Creating Layer conv2_postscale
I0409 19:41:27.073591 29000 net.cpp:434] conv2_postscale <- conv2
I0409 19:41:27.073608 29000 net.cpp:395] conv2_postscale -> conv2 (in-place)
I0409 19:41:27.073842 29000 net.cpp:150] Setting up conv2_postscale
I0409 19:41:27.073861 29000 net.cpp:157] Top shape: 1024 150 18 18 (49766400)
I0409 19:41:27.073870 29000 net.cpp:165] Memory required for data: 3895361536
I0409 19:41:27.073884 29000 layer_factory.hpp:77] Creating layer pool2
I0409 19:41:27.073902 29000 net.cpp:100] Creating Layer pool2
I0409 19:41:27.073930 29000 net.cpp:434] pool2 <- conv2
I0409 19:41:27.073945 29000 net.cpp:408] pool2 -> pool2
I0409 19:41:27.074039 29000 net.cpp:150] Setting up pool2
I0409 19:41:27.074057 29000 net.cpp:157] Top shape: 1024 150 9 9 (12441600)
I0409 19:41:27.074066 29000 net.cpp:165] Memory required for data: 3945127936
I0409 19:41:27.074074 29000 layer_factory.hpp:77] Creating layer conv3
I0409 19:41:27.074093 29000 net.cpp:100] Creating Layer conv3
I0409 19:41:27.074103 29000 net.cpp:434] conv3 <- pool2
I0409 19:41:27.074118 29000 net.cpp:408] conv3 -> conv3
I0409 19:41:27.081924 29000 net.cpp:150] Setting up conv3
I0409 19:41:27.081951 29000 net.cpp:157] Top shape: 1024 250 6 6 (9216000)
I0409 19:41:27.081956 29000 net.cpp:165] Memory required for data: 3981991936
I0409 19:41:27.081971 29000 layer_factory.hpp:77] Creating layer conv3_prescale
I0409 19:41:27.082001 29000 net.cpp:100] Creating Layer conv3_prescale
I0409 19:41:27.082012 29000 net.cpp:434] conv3_prescale <- conv3
I0409 19:41:27.082036 29000 net.cpp:395] conv3_prescale -> conv3 (in-place)
I0409 19:41:27.082228 29000 net.cpp:150] Setting up conv3_prescale
I0409 19:41:27.082247 29000 net.cpp:157] Top shape: 1024 250 6 6 (9216000)
I0409 19:41:27.082255 29000 net.cpp:165] Memory required for data: 4018855936
I0409 19:41:27.082268 29000 layer_factory.hpp:77] Creating layer conv3_sTanH
I0409 19:41:27.082288 29000 net.cpp:100] Creating Layer conv3_sTanH
I0409 19:41:27.082296 29000 net.cpp:434] conv3_sTanH <- conv3
I0409 19:41:27.082311 29000 net.cpp:395] conv3_sTanH -> conv3 (in-place)
I0409 19:41:27.083576 29000 net.cpp:150] Setting up conv3_sTanH
I0409 19:41:27.083600 29000 net.cpp:157] Top shape: 1024 250 6 6 (9216000)
I0409 19:41:27.083606 29000 net.cpp:165] Memory required for data: 4055719936
I0409 19:41:27.083616 29000 layer_factory.hpp:77] Creating layer conv3_postscale
I0409 19:41:27.083628 29000 net.cpp:100] Creating Layer conv3_postscale
I0409 19:41:27.083638 29000 net.cpp:434] conv3_postscale <- conv3
I0409 19:41:27.083662 29000 net.cpp:395] conv3_postscale -> conv3 (in-place)
I0409 19:41:27.083912 29000 net.cpp:150] Setting up conv3_postscale
I0409 19:41:27.083937 29000 net.cpp:157] Top shape: 1024 250 6 6 (9216000)
I0409 19:41:27.083947 29000 net.cpp:165] Memory required for data: 4092583936
I0409 19:41:27.083961 29000 layer_factory.hpp:77] Creating layer pool3
I0409 19:41:27.083981 29000 net.cpp:100] Creating Layer pool3
I0409 19:41:27.083992 29000 net.cpp:434] pool3 <- conv3
I0409 19:41:27.084005 29000 net.cpp:408] pool3 -> pool3
I0409 19:41:27.084090 29000 net.cpp:150] Setting up pool3
I0409 19:41:27.084107 29000 net.cpp:157] Top shape: 1024 250 3 3 (2304000)
I0409 19:41:27.084115 29000 net.cpp:165] Memory required for data: 4101799936
I0409 19:41:27.084125 29000 layer_factory.hpp:77] Creating layer fc4_300
I0409 19:41:27.084142 29000 net.cpp:100] Creating Layer fc4_300
I0409 19:41:27.084151 29000 net.cpp:434] fc4_300 <- pool3
I0409 19:41:27.084167 29000 net.cpp:408] fc4_300 -> fc4_300
I0409 19:41:27.091666 29000 net.cpp:150] Setting up fc4_300
I0409 19:41:27.091691 29000 net.cpp:157] Top shape: 1024 300 (307200)
I0409 19:41:27.091694 29000 net.cpp:165] Memory required for data: 4103028736
I0409 19:41:27.091707 29000 layer_factory.hpp:77] Creating layer fc4_prescale
I0409 19:41:27.091743 29000 net.cpp:100] Creating Layer fc4_prescale
I0409 19:41:27.091756 29000 net.cpp:434] fc4_prescale <- fc4_300
I0409 19:41:27.091770 29000 net.cpp:395] fc4_prescale -> fc4_300 (in-place)
I0409 19:41:27.091970 29000 net.cpp:150] Setting up fc4_prescale
I0409 19:41:27.092015 29000 net.cpp:157] Top shape: 1024 300 (307200)
I0409 19:41:27.092025 29000 net.cpp:165] Memory required for data: 4104257536
I0409 19:41:27.092038 29000 layer_factory.hpp:77] Creating layer fc4_sTanH
I0409 19:41:27.092051 29000 net.cpp:100] Creating Layer fc4_sTanH
I0409 19:41:27.092061 29000 net.cpp:434] fc4_sTanH <- fc4_300
I0409 19:41:27.092075 29000 net.cpp:395] fc4_sTanH -> fc4_300 (in-place)
I0409 19:41:27.092453 29000 net.cpp:150] Setting up fc4_sTanH
I0409 19:41:27.092473 29000 net.cpp:157] Top shape: 1024 300 (307200)
I0409 19:41:27.092478 29000 net.cpp:165] Memory required for data: 4105486336
I0409 19:41:27.092488 29000 layer_factory.hpp:77] Creating layer fc4_postscale
I0409 19:41:27.092507 29000 net.cpp:100] Creating Layer fc4_postscale
I0409 19:41:27.092519 29000 net.cpp:434] fc4_postscale <- fc4_300
I0409 19:41:27.092532 29000 net.cpp:395] fc4_postscale -> fc4_300 (in-place)
I0409 19:41:27.092797 29000 net.cpp:150] Setting up fc4_postscale
I0409 19:41:27.092818 29000 net.cpp:157] Top shape: 1024 300 (307200)
I0409 19:41:27.092826 29000 net.cpp:165] Memory required for data: 4106715136
I0409 19:41:27.092839 29000 layer_factory.hpp:77] Creating layer drop4
I0409 19:41:27.092854 29000 net.cpp:100] Creating Layer drop4
I0409 19:41:27.092864 29000 net.cpp:434] drop4 <- fc4_300
I0409 19:41:27.092878 29000 net.cpp:395] drop4 -> fc4_300 (in-place)
I0409 19:41:27.092933 29000 net.cpp:150] Setting up drop4
I0409 19:41:27.092949 29000 net.cpp:157] Top shape: 1024 300 (307200)
I0409 19:41:27.092957 29000 net.cpp:165] Memory required for data: 4107943936
I0409 19:41:27.092967 29000 layer_factory.hpp:77] Creating layer fc5_67
I0409 19:41:27.092979 29000 net.cpp:100] Creating Layer fc5_67
I0409 19:41:27.092988 29000 net.cpp:434] fc5_67 <- fc4_300
I0409 19:41:27.093003 29000 net.cpp:408] fc5_67 -> fc5_classes
I0409 19:41:27.093592 29000 net.cpp:150] Setting up fc5_67
I0409 19:41:27.093614 29000 net.cpp:157] Top shape: 1024 67 (68608)
I0409 19:41:27.093623 29000 net.cpp:165] Memory required for data: 4108218368
I0409 19:41:27.093649 29000 layer_factory.hpp:77] Creating layer fc5_classes_fc5_67_0_split
I0409 19:41:27.093667 29000 net.cpp:100] Creating Layer fc5_classes_fc5_67_0_split
I0409 19:41:27.093675 29000 net.cpp:434] fc5_classes_fc5_67_0_split <- fc5_classes
I0409 19:41:27.093689 29000 net.cpp:408] fc5_classes_fc5_67_0_split -> fc5_classes_fc5_67_0_split_0
I0409 19:41:27.093705 29000 net.cpp:408] fc5_classes_fc5_67_0_split -> fc5_classes_fc5_67_0_split_1
I0409 19:41:27.093721 29000 net.cpp:408] fc5_classes_fc5_67_0_split -> fc5_classes_fc5_67_0_split_2
I0409 19:41:27.093827 29000 net.cpp:150] Setting up fc5_classes_fc5_67_0_split
I0409 19:41:27.093842 29000 net.cpp:157] Top shape: 1024 67 (68608)
I0409 19:41:27.093852 29000 net.cpp:157] Top shape: 1024 67 (68608)
I0409 19:41:27.093861 29000 net.cpp:157] Top shape: 1024 67 (68608)
I0409 19:41:27.093869 29000 net.cpp:165] Memory required for data: 4109041664
I0409 19:41:27.093878 29000 layer_factory.hpp:77] Creating layer loss
I0409 19:41:27.093893 29000 net.cpp:100] Creating Layer loss
I0409 19:41:27.093901 29000 net.cpp:434] loss <- fc5_classes_fc5_67_0_split_0
I0409 19:41:27.093912 29000 net.cpp:434] loss <- label_data_1_split_0
I0409 19:41:27.093924 29000 net.cpp:408] loss -> loss
…
