…
I0415 01:06:39.190956 20523 solver.cpp:93] Creating training net from train_net file: ./Prototxt/experiment_12/rtsd-r1/CoNorm/trial_3/train.prototxt
I0415 01:06:39.191442 20523 net.cpp:58] Initializing net from parameters: 
state {
  phase: TRAIN
  level: 0
  stage: ""
}
layer {
  name: "data"
  type: "Data"
  top: "data"
  top: "label"
  include {
    phase: TRAIN
  }
  transform_param {
    scale: 0.0039215689
    mirror: false
    crop_size: 48
    mean_value: 132
    mean_value: 132
    mean_value: 131
  }
  data_param {
    source: "../local_data/lmdb/rtsd-r1/CoNorm/train/lmdb"
    batch_size: 1024
    backend: LMDB
  }
}
layer {
  name: "conv1"
  type: "Convolution"
  bottom: "data"
  top: "conv1"
  convolution_param {
    num_output: 100
    pad: 0
    kernel_size: 7
    group: 1
    stride: 1
    weight_filler {
      type: "xavier"
    }
  }
}
layer {
  name: "conv1_relu"
  type: "ReLU"
  bottom: "conv1"
  top: "conv1"
}
layer {
  name: "pool1"
  type: "Pooling"
  bottom: "conv1"
  top: "pool1"
  pooling_param {
    pool: MAX
    kernel_size: 2
    stride: 2
  }
}
layer {
  name: "conv2"
  type: "Convolution"
  bottom: "pool1"
  top: "conv2"
  convolution_param {
    num_output: 150
    pad: 0
    kernel_size: 4
    group: 1
    stride: 1
    weight_filler {
      type: "xavier"
    }
  }
}
layer {
  name: "conv2_relu"
  type: "ReLU"
  bottom: "conv2"
  top: "conv2"
}
layer {
  name: "pool2"
  type: "Pooling"
  bottom: "conv2"
  top: "pool2"
  pooling_param {
    pool: MAX
    kernel_size: 2
    stride: 2
  }
}
layer {
  name: "conv3"
  type: "Convolution"
  bottom: "pool2"
  top: "conv3"
  convolution_param {
    num_output: 250
    pad: 0
    kernel_size: 4
    group: 1
    stride: 1
    weight_filler {
      type: "xavier"
    }
  }
}
layer {
  name: "conv3_relu"
  type: "ReLU"
  bottom: "conv3"
  top: "conv3"
}
layer {
  name: "pool3"
  type: "Pooling"
  bottom: "conv3"
  top: "pool3"
  pooling_param {
    pool: MAX
    kernel_size: 2
    stride: 2
  }
}
layer {
  name: "fc4_300"
  type: "InnerProduct"
  bottom: "pool3"
  top: "fc4_300"
  inner_product_param {
    num_output: 300
    weight_filler {
      type: "xavier"
    }
  }
}
layer {
  name: "fc4_relu"
  type: "ReLU"
  bottom: "fc4_300"
  top: "fc4_300"
}
layer {
  name: "drop4"
  type: "Dropout"
  bottom: "fc4_300"
  top: "fc4_300"
  dropout_param {
    dropout_ratio: 0.5
  }
}
layer {
  name: "fc5_67"
  type: "InnerProduct"
  bottom: "fc4_300"
  top: "fc5_classes"
  inner_product_param {
    num_output: 67
    weight_filler {
      type: "xavier"
    }
  }
}
layer {
  name: "softmax"
  type: "Softmax"
  bottom: "fc5_classes"
  top: "softmax"
}
layer {
  name: "loss"
  type: "MultinomialLogisticLoss"
  bottom: "softmax"
  bottom: "label"
  top: "loss"
}
layer {
  name: "accuracy_1"
  type: "Accuracy"
  bottom: "fc5_classes"
  bottom: "label"
  top: "accuracy_1"
  accuracy_param {
    top_k: 1
  }
}
layer {
  name: "accuracy_5"
  type: "Accuracy"
  bottom: "fc5_classes"
  bottom: "label"
  top: "accuracy_5"
  accuracy_param {
    top_k: 5
  }
}
layer {
  name: "silence"
  type: "Silence"
  bottom: "accuracy_1"
  bottom: "accuracy_5"
}
I0415 01:06:39.191591 20523 layer_factory.hpp:77] Creating layer data
I0415 01:06:39.192694 20523 net.cpp:100] Creating Layer data
I0415 01:06:39.192711 20523 net.cpp:408] data -> data
I0415 01:06:39.192734 20523 net.cpp:408] data -> label
I0415 01:06:39.196779 20631 db_lmdb.cpp:35] Opened lmdb ../local_data/lmdb/rtsd-r1/CoNorm/train/lmdb
I0415 01:06:39.218646 20523 data_layer.cpp:41] output data size: 1024,3,48,48
I0415 01:06:39.267410 20523 net.cpp:150] Setting up data
I0415 01:06:39.267441 20523 net.cpp:157] Top shape: 1024 3 48 48 (7077888)
I0415 01:06:39.267446 20523 net.cpp:157] Top shape: 1024 (1024)
I0415 01:06:39.267449 20523 net.cpp:165] Memory required for data: 28315648
I0415 01:06:39.267462 20523 layer_factory.hpp:77] Creating layer label_data_1_split
I0415 01:06:39.267474 20523 net.cpp:100] Creating Layer label_data_1_split
I0415 01:06:39.267482 20523 net.cpp:434] label_data_1_split <- label
I0415 01:06:39.267504 20523 net.cpp:408] label_data_1_split -> label_data_1_split_0
I0415 01:06:39.267523 20523 net.cpp:408] label_data_1_split -> label_data_1_split_1
I0415 01:06:39.267530 20523 net.cpp:408] label_data_1_split -> label_data_1_split_2
I0415 01:06:39.267616 20523 net.cpp:150] Setting up label_data_1_split
I0415 01:06:39.267624 20523 net.cpp:157] Top shape: 1024 (1024)
I0415 01:06:39.267628 20523 net.cpp:157] Top shape: 1024 (1024)
I0415 01:06:39.267632 20523 net.cpp:157] Top shape: 1024 (1024)
I0415 01:06:39.267635 20523 net.cpp:165] Memory required for data: 28327936
I0415 01:06:39.267638 20523 layer_factory.hpp:77] Creating layer conv1
I0415 01:06:39.267657 20523 net.cpp:100] Creating Layer conv1
I0415 01:06:39.267668 20523 net.cpp:434] conv1 <- data
I0415 01:06:39.267678 20523 net.cpp:408] conv1 -> conv1
I0415 01:06:39.655221 20523 net.cpp:150] Setting up conv1
I0415 01:06:39.655254 20523 net.cpp:157] Top shape: 1024 100 42 42 (180633600)
I0415 01:06:39.655258 20523 net.cpp:165] Memory required for data: 750862336
I0415 01:06:39.655282 20523 layer_factory.hpp:77] Creating layer conv1_relu
I0415 01:06:39.655295 20523 net.cpp:100] Creating Layer conv1_relu
I0415 01:06:39.655300 20523 net.cpp:434] conv1_relu <- conv1
I0415 01:06:39.655308 20523 net.cpp:395] conv1_relu -> conv1 (in-place)
I0415 01:06:39.655505 20523 net.cpp:150] Setting up conv1_relu
I0415 01:06:39.655517 20523 net.cpp:157] Top shape: 1024 100 42 42 (180633600)
I0415 01:06:39.655522 20523 net.cpp:165] Memory required for data: 1473396736
I0415 01:06:39.655525 20523 layer_factory.hpp:77] Creating layer pool1
I0415 01:06:39.655535 20523 net.cpp:100] Creating Layer pool1
I0415 01:06:39.655540 20523 net.cpp:434] pool1 <- conv1
I0415 01:06:39.655545 20523 net.cpp:408] pool1 -> pool1
I0415 01:06:39.655599 20523 net.cpp:150] Setting up pool1
I0415 01:06:39.655607 20523 net.cpp:157] Top shape: 1024 100 21 21 (45158400)
I0415 01:06:39.655612 20523 net.cpp:165] Memory required for data: 1654030336
I0415 01:06:39.655616 20523 layer_factory.hpp:77] Creating layer conv2
I0415 01:06:39.655627 20523 net.cpp:100] Creating Layer conv2
I0415 01:06:39.655632 20523 net.cpp:434] conv2 <- pool1
I0415 01:06:39.655637 20523 net.cpp:408] conv2 -> conv2
I0415 01:06:39.670202 20523 net.cpp:150] Setting up conv2
I0415 01:06:39.670241 20523 net.cpp:157] Top shape: 1024 150 18 18 (49766400)
I0415 01:06:39.670245 20523 net.cpp:165] Memory required for data: 1853095936
I0415 01:06:39.670262 20523 layer_factory.hpp:77] Creating layer conv2_relu
I0415 01:06:39.670276 20523 net.cpp:100] Creating Layer conv2_relu
I0415 01:06:39.670282 20523 net.cpp:434] conv2_relu <- conv2
I0415 01:06:39.670289 20523 net.cpp:395] conv2_relu -> conv2 (in-place)
I0415 01:06:39.674166 20523 net.cpp:150] Setting up conv2_relu
I0415 01:06:39.674195 20523 net.cpp:157] Top shape: 1024 150 18 18 (49766400)
I0415 01:06:39.674198 20523 net.cpp:165] Memory required for data: 2052161536
I0415 01:06:39.674203 20523 layer_factory.hpp:77] Creating layer pool2
I0415 01:06:39.674216 20523 net.cpp:100] Creating Layer pool2
I0415 01:06:39.674222 20523 net.cpp:434] pool2 <- conv2
I0415 01:06:39.674229 20523 net.cpp:408] pool2 -> pool2
I0415 01:06:39.674301 20523 net.cpp:150] Setting up pool2
I0415 01:06:39.674310 20523 net.cpp:157] Top shape: 1024 150 9 9 (12441600)
I0415 01:06:39.674315 20523 net.cpp:165] Memory required for data: 2101927936
I0415 01:06:39.674319 20523 layer_factory.hpp:77] Creating layer conv3
I0415 01:06:39.674358 20523 net.cpp:100] Creating Layer conv3
I0415 01:06:39.674365 20523 net.cpp:434] conv3 <- pool2
I0415 01:06:39.674371 20523 net.cpp:408] conv3 -> conv3
I0415 01:06:39.680097 20523 net.cpp:150] Setting up conv3
I0415 01:06:39.680130 20523 net.cpp:157] Top shape: 1024 250 6 6 (9216000)
I0415 01:06:39.680135 20523 net.cpp:165] Memory required for data: 2138791936
I0415 01:06:39.680150 20523 layer_factory.hpp:77] Creating layer conv3_relu
I0415 01:06:39.680160 20523 net.cpp:100] Creating Layer conv3_relu
I0415 01:06:39.680166 20523 net.cpp:434] conv3_relu <- conv3
I0415 01:06:39.680173 20523 net.cpp:395] conv3_relu -> conv3 (in-place)
I0415 01:06:39.681016 20523 net.cpp:150] Setting up conv3_relu
I0415 01:06:39.681031 20523 net.cpp:157] Top shape: 1024 250 6 6 (9216000)
I0415 01:06:39.681036 20523 net.cpp:165] Memory required for data: 2175655936
I0415 01:06:39.681041 20523 layer_factory.hpp:77] Creating layer pool3
I0415 01:06:39.681048 20523 net.cpp:100] Creating Layer pool3
I0415 01:06:39.681053 20523 net.cpp:434] pool3 <- conv3
I0415 01:06:39.681058 20523 net.cpp:408] pool3 -> pool3
I0415 01:06:39.681107 20523 net.cpp:150] Setting up pool3
I0415 01:06:39.681115 20523 net.cpp:157] Top shape: 1024 250 3 3 (2304000)
I0415 01:06:39.681119 20523 net.cpp:165] Memory required for data: 2184871936
I0415 01:06:39.681123 20523 layer_factory.hpp:77] Creating layer fc4_300
I0415 01:06:39.681130 20523 net.cpp:100] Creating Layer fc4_300
I0415 01:06:39.681134 20523 net.cpp:434] fc4_300 <- pool3
I0415 01:06:39.681139 20523 net.cpp:408] fc4_300 -> fc4_300
I0415 01:06:39.686664 20523 net.cpp:150] Setting up fc4_300
I0415 01:06:39.686697 20523 net.cpp:157] Top shape: 1024 300 (307200)
I0415 01:06:39.686702 20523 net.cpp:165] Memory required for data: 2186100736
I0415 01:06:39.686712 20523 layer_factory.hpp:77] Creating layer fc4_relu
I0415 01:06:39.686722 20523 net.cpp:100] Creating Layer fc4_relu
I0415 01:06:39.686728 20523 net.cpp:434] fc4_relu <- fc4_300
I0415 01:06:39.686735 20523 net.cpp:395] fc4_relu -> fc4_300 (in-place)
I0415 01:06:39.686960 20523 net.cpp:150] Setting up fc4_relu
I0415 01:06:39.686971 20523 net.cpp:157] Top shape: 1024 300 (307200)
I0415 01:06:39.686976 20523 net.cpp:165] Memory required for data: 2187329536
I0415 01:06:39.686980 20523 layer_factory.hpp:77] Creating layer drop4
I0415 01:06:39.686987 20523 net.cpp:100] Creating Layer drop4
I0415 01:06:39.686991 20523 net.cpp:434] drop4 <- fc4_300
I0415 01:06:39.686996 20523 net.cpp:395] drop4 -> fc4_300 (in-place)
I0415 01:06:39.687029 20523 net.cpp:150] Setting up drop4
I0415 01:06:39.687036 20523 net.cpp:157] Top shape: 1024 300 (307200)
I0415 01:06:39.687039 20523 net.cpp:165] Memory required for data: 2188558336
I0415 01:06:39.687042 20523 layer_factory.hpp:77] Creating layer fc5_67
I0415 01:06:39.687049 20523 net.cpp:100] Creating Layer fc5_67
I0415 01:06:39.687054 20523 net.cpp:434] fc5_67 <- fc4_300
I0415 01:06:39.687059 20523 net.cpp:408] fc5_67 -> fc5_classes
I0415 01:06:39.688470 20523 net.cpp:150] Setting up fc5_67
I0415 01:06:39.688488 20523 net.cpp:157] Top shape: 1024 67 (68608)
I0415 01:06:39.688493 20523 net.cpp:165] Memory required for data: 2188832768
I0415 01:06:39.688503 20523 layer_factory.hpp:77] Creating layer fc5_classes_fc5_67_0_split
I0415 01:06:39.688513 20523 net.cpp:100] Creating Layer fc5_classes_fc5_67_0_split
I0415 01:06:39.688519 20523 net.cpp:434] fc5_classes_fc5_67_0_split <- fc5_classes
I0415 01:06:39.688524 20523 net.cpp:408] fc5_classes_fc5_67_0_split -> fc5_classes_fc5_67_0_split_0
I0415 01:06:39.688532 20523 net.cpp:408] fc5_classes_fc5_67_0_split -> fc5_classes_fc5_67_0_split_1
I0415 01:06:39.688540 20523 net.cpp:408] fc5_classes_fc5_67_0_split -> fc5_classes_fc5_67_0_split_2
I0415 01:06:39.688591 20523 net.cpp:150] Setting up fc5_classes_fc5_67_0_split
I0415 01:06:39.688597 20523 net.cpp:157] Top shape: 1024 67 (68608)
I0415 01:06:39.688601 20523 net.cpp:157] Top shape: 1024 67 (68608)
I0415 01:06:39.688604 20523 net.cpp:157] Top shape: 1024 67 (68608)
I0415 01:06:39.688607 20523 net.cpp:165] Memory required for data: 2189656064
I0415 01:06:39.688628 20523 layer_factory.hpp:77] Creating layer softmax
I0415 01:06:39.688638 20523 net.cpp:100] Creating Layer softmax
I0415 01:06:39.688643 20523 net.cpp:434] softmax <- fc5_classes_fc5_67_0_split_0
I0415 01:06:39.688650 20523 net.cpp:408] softmax -> softmax
I0415 01:06:39.688897 20523 net.cpp:150] Setting up softmax
I0415 01:06:39.688910 20523 net.cpp:157] Top shape: 1024 67 (68608)
I0415 01:06:39.688915 20523 net.cpp:165] Memory required for data: 2189930496
I0415 01:06:39.688918 20523 layer_factory.hpp:77] Creating layer loss
I0415 01:06:39.688925 20523 net.cpp:100] Creating Layer loss
I0415 01:06:39.688930 20523 net.cpp:434] loss <- softmax
I0415 01:06:39.688935 20523 net.cpp:434] loss <- label_data_1_split_0
I0415 01:06:39.688940 20523 net.cpp:408] loss -> loss
…
