…
I0411 16:01:32.518296 16107 net.cpp:322] The NetState phase (0) differed from the phase (1) specified by a rule in layer accuracy_5
I0411 16:01:32.518450 16107 net.cpp:58] Initializing net from parameters: 
state {
  phase: TRAIN
  level: 0
  stage: ""
}
layer {
  name: "data"
  type: "Data"
  top: "data"
  top: "label"
  include {
    phase: TRAIN
  }
  transform_param {
    scale: 0.0039215689
    mirror: false
    crop_size: 48
    mean_value: 132
    mean_value: 132
    mean_value: 131
  }
  data_param {
    source: "../local_data/lmdb/rtsd-r1/CoNorm/train/lmdb"
    batch_size: 1024
    backend: LMDB
  }
}
layer {
  name: "conv1"
  type: "Convolution"
  bottom: "data"
  top: "conv1"
  convolution_param {
    num_output: 100
    pad: 0
    kernel_size: 7
    group: 1
    stride: 1
    weight_filler {
      type: "xavier"
    }
  }
}
layer {
  name: "conv1_prescale"
  type: "Scale"
  bottom: "conv1"
  top: "conv1"
  param {
    lr_mult: 0
    decay_mult: 0
  }
  scale_param {
    filler {
      value: 0.6666
    }
    bias_term: false
  }
}
layer {
  name: "conv1_sTanH"
  type: "TanH"
  bottom: "conv1"
  top: "conv1"
}
layer {
  name: "conv1_postscale"
  type: "Scale"
  bottom: "conv1"
  top: "conv1"
  param {
    lr_mult: 0
    decay_mult: 0
  }
  scale_param {
    filler {
      value: 1.7159
    }
    bias_term: false
  }
}
layer {
  name: "pool1"
  type: "Pooling"
  bottom: "conv1"
  top: "pool1"
  pooling_param {
    pool: MAX
    kernel_size: 2
    stride: 2
  }
}
layer {
  name: "conv2"
  type: "Convolution"
  bottom: "pool1"
  top: "conv2"
  convolution_param {
    num_output: 150
    pad: 0
    kernel_size: 4
    group: 1
    stride: 1
    weight_filler {
      type: "xavier"
    }
  }
}
layer {
  name: "conv2_prescale"
  type: "Scale"
  bottom: "conv2"
  top: "conv2"
  param {
    lr_mult: 0
    decay_mult: 0
  }
  scale_param {
    filler {
      value: 0.6666
    }
    bias_term: false
  }
}
layer {
  name: "conv2_sTanH"
  type: "TanH"
  bottom: "conv2"
  top: "conv2"
}
layer {
  name: "conv2_postscale"
  type: "Scale"
  bottom: "conv2"
  top: "conv2"
  param {
    lr_mult: 0
    decay_mult: 0
  }
  scale_param {
    filler {
      value: 1.7159
    }
    bias_term: false
  }
}
layer {
  name: "pool2"
  type: "Pooling"
  bottom: "conv2"
  top: "pool2"
  pooling_param {
    pool: MAX
    kernel_size: 2
    stride: 2
  }
}
layer {
  name: "conv3"
  type: "Convolution"
  bottom: "pool2"
  top: "conv3"
  convolution_param {
    num_output: 250
    pad: 0
    kernel_size: 4
    group: 1
    stride: 1
    weight_filler {
      type: "xavier"
    }
  }
}
layer {
  name: "conv3_prescale"
  type: "Scale"
  bottom: "conv3"
  top: "conv3"
  param {
    lr_mult: 0
    decay_mult: 0
  }
  scale_param {
    filler {
      value: 0.6666
    }
    bias_term: false
  }
}
layer {
  name: "conv3_sTanH"
  type: "TanH"
  bottom: "conv3"
  top: "conv3"
}
layer {
  name: "conv3_postscale"
  type: "Scale"
  bottom: "conv3"
  top: "conv3"
  param {
    lr_mult: 0
    decay_mult: 0
  }
  scale_param {
    filler {
      value: 1.7159
    }
    bias_term: false
  }
}
layer {
  name: "pool3"
  type: "Pooling"
  bottom: "conv3"
  top: "pool3"
  pooling_param {
    pool: MAX
    kernel_size: 2
    stride: 2
  }
}
layer {
  name: "fc4_300"
  type: "InnerProduct"
  bottom: "pool3"
  top: "fc4_300"
  inner_product_param {
    num_output: 300
    weight_filler {
      type: "xavier"
    }
  }
}
layer {
  name: "fc4_prescale"
  type: "Scale"
  bottom: "fc4_300"
  top: "fc4_300"
  param {
    lr_mult: 0
    decay_mult: 0
  }
  scale_param {
    filler {
      value: 0.6666
    }
    bias_term: false
  }
}
layer {
  name: "fc4_sTanH"
  type: "TanH"
  bottom: "fc4_300"
  top: "fc4_300"
}
layer {
  name: "fc4_postscale"
  type: "Scale"
  bottom: "fc4_300"
  top: "fc4_300"
  param {
    lr_mult: 0
    decay_mult: 0
  }
  scale_param {
    filler {
      value: 1.7159
    }
    bias_term: false
  }
}
layer {
  name: "drop4"
  type: "Dropout"
  bottom: "fc4_300"
  top: "fc4_300"
  dropout_param {
    dropout_ratio: 0.1
  }
}
layer {
  name: "fc5_67"
  type: "InnerProduct"
  bottom: "fc4_300"
  top: "fc5_classes"
  inner_product_param {
    num_output: 67
    weight_filler {
      type: "xavier"
    }
  }
}
layer {
  name: "loss"
  type: "SoftmaxWithLoss"
  bottom: "fc5_classes"
  bottom: "label"
  top: "loss"
}
I0411 16:01:32.518569 16107 layer_factory.hpp:77] Creating layer data
I0411 16:01:32.519673 16107 net.cpp:100] Creating Layer data
I0411 16:01:32.519688 16107 net.cpp:408] data -> data
I0411 16:01:32.519713 16107 net.cpp:408] data -> label
I0411 16:01:32.536033 16210 db_lmdb.cpp:35] Opened lmdb ../local_data/lmdb/rtsd-r1/CoNorm/train/lmdb
I0411 16:01:32.554762 16107 data_layer.cpp:41] output data size: 1024,3,48,48
I0411 16:01:32.611608 16107 net.cpp:150] Setting up data
I0411 16:01:32.611641 16107 net.cpp:157] Top shape: 1024 3 48 48 (7077888)
I0411 16:01:32.611647 16107 net.cpp:157] Top shape: 1024 (1024)
I0411 16:01:32.611650 16107 net.cpp:165] Memory required for data: 28315648
I0411 16:01:32.611661 16107 layer_factory.hpp:77] Creating layer conv1
I0411 16:01:32.611685 16107 net.cpp:100] Creating Layer conv1
I0411 16:01:32.611692 16107 net.cpp:434] conv1 <- data
I0411 16:01:32.611706 16107 net.cpp:408] conv1 -> conv1
I0411 16:01:32.910619 16107 net.cpp:150] Setting up conv1
I0411 16:01:32.910647 16107 net.cpp:157] Top shape: 1024 100 42 42 (180633600)
I0411 16:01:32.910651 16107 net.cpp:165] Memory required for data: 750850048
I0411 16:01:32.910672 16107 layer_factory.hpp:77] Creating layer conv1_prescale
I0411 16:01:32.910686 16107 net.cpp:100] Creating Layer conv1_prescale
I0411 16:01:32.910691 16107 net.cpp:434] conv1_prescale <- conv1
I0411 16:01:32.910701 16107 net.cpp:395] conv1_prescale -> conv1 (in-place)
I0411 16:01:32.910806 16107 net.cpp:150] Setting up conv1_prescale
I0411 16:01:32.910815 16107 net.cpp:157] Top shape: 1024 100 42 42 (180633600)
I0411 16:01:32.910818 16107 net.cpp:165] Memory required for data: 1473384448
I0411 16:01:32.910825 16107 layer_factory.hpp:77] Creating layer conv1_sTanH
I0411 16:01:32.910832 16107 net.cpp:100] Creating Layer conv1_sTanH
I0411 16:01:32.910838 16107 net.cpp:434] conv1_sTanH <- conv1
I0411 16:01:32.910843 16107 net.cpp:395] conv1_sTanH -> conv1 (in-place)
I0411 16:01:32.911036 16107 net.cpp:150] Setting up conv1_sTanH
I0411 16:01:32.911047 16107 net.cpp:157] Top shape: 1024 100 42 42 (180633600)
I0411 16:01:32.911052 16107 net.cpp:165] Memory required for data: 2195918848
I0411 16:01:32.911056 16107 layer_factory.hpp:77] Creating layer conv1_postscale
I0411 16:01:32.911063 16107 net.cpp:100] Creating Layer conv1_postscale
I0411 16:01:32.911068 16107 net.cpp:434] conv1_postscale <- conv1
I0411 16:01:32.911073 16107 net.cpp:395] conv1_postscale -> conv1 (in-place)
I0411 16:01:32.911167 16107 net.cpp:150] Setting up conv1_postscale
I0411 16:01:32.911175 16107 net.cpp:157] Top shape: 1024 100 42 42 (180633600)
I0411 16:01:32.911177 16107 net.cpp:165] Memory required for data: 2918453248
I0411 16:01:32.911183 16107 layer_factory.hpp:77] Creating layer pool1
I0411 16:01:32.911190 16107 net.cpp:100] Creating Layer pool1
I0411 16:01:32.911192 16107 net.cpp:434] pool1 <- conv1
I0411 16:01:32.911197 16107 net.cpp:408] pool1 -> pool1
I0411 16:01:32.911264 16107 net.cpp:150] Setting up pool1
I0411 16:01:32.911274 16107 net.cpp:157] Top shape: 1024 100 21 21 (45158400)
I0411 16:01:32.911278 16107 net.cpp:165] Memory required for data: 3099086848
I0411 16:01:32.911280 16107 layer_factory.hpp:77] Creating layer conv2
I0411 16:01:32.911290 16107 net.cpp:100] Creating Layer conv2
I0411 16:01:32.911293 16107 net.cpp:434] conv2 <- pool1
I0411 16:01:32.911299 16107 net.cpp:408] conv2 -> conv2
I0411 16:01:32.919428 16107 net.cpp:150] Setting up conv2
I0411 16:01:32.919445 16107 net.cpp:157] Top shape: 1024 150 18 18 (49766400)
I0411 16:01:32.919450 16107 net.cpp:165] Memory required for data: 3298152448
I0411 16:01:32.919459 16107 layer_factory.hpp:77] Creating layer conv2_prescale
I0411 16:01:32.919468 16107 net.cpp:100] Creating Layer conv2_prescale
I0411 16:01:32.919473 16107 net.cpp:434] conv2_prescale <- conv2
I0411 16:01:32.919478 16107 net.cpp:395] conv2_prescale -> conv2 (in-place)
I0411 16:01:32.919582 16107 net.cpp:150] Setting up conv2_prescale
I0411 16:01:32.919591 16107 net.cpp:157] Top shape: 1024 150 18 18 (49766400)
I0411 16:01:32.919595 16107 net.cpp:165] Memory required for data: 3497218048
I0411 16:01:32.919598 16107 layer_factory.hpp:77] Creating layer conv2_sTanH
I0411 16:01:32.919605 16107 net.cpp:100] Creating Layer conv2_sTanH
I0411 16:01:32.919610 16107 net.cpp:434] conv2_sTanH <- conv2
I0411 16:01:32.919613 16107 net.cpp:395] conv2_sTanH -> conv2 (in-place)
I0411 16:01:32.920610 16107 net.cpp:150] Setting up conv2_sTanH
I0411 16:01:32.920626 16107 net.cpp:157] Top shape: 1024 150 18 18 (49766400)
I0411 16:01:32.920630 16107 net.cpp:165] Memory required for data: 3696283648
I0411 16:01:32.920634 16107 layer_factory.hpp:77] Creating layer conv2_postscale
I0411 16:01:32.920641 16107 net.cpp:100] Creating Layer conv2_postscale
I0411 16:01:32.920646 16107 net.cpp:434] conv2_postscale <- conv2
I0411 16:01:32.920651 16107 net.cpp:395] conv2_postscale -> conv2 (in-place)
I0411 16:01:32.920753 16107 net.cpp:150] Setting up conv2_postscale
I0411 16:01:32.920763 16107 net.cpp:157] Top shape: 1024 150 18 18 (49766400)
I0411 16:01:32.920766 16107 net.cpp:165] Memory required for data: 3895349248
I0411 16:01:32.920773 16107 layer_factory.hpp:77] Creating layer pool2
I0411 16:01:32.920778 16107 net.cpp:100] Creating Layer pool2
I0411 16:01:32.920783 16107 net.cpp:434] pool2 <- conv2
I0411 16:01:32.920789 16107 net.cpp:408] pool2 -> pool2
I0411 16:01:32.920828 16107 net.cpp:150] Setting up pool2
I0411 16:01:32.920835 16107 net.cpp:157] Top shape: 1024 150 9 9 (12441600)
I0411 16:01:32.920838 16107 net.cpp:165] Memory required for data: 3945115648
I0411 16:01:32.920841 16107 layer_factory.hpp:77] Creating layer conv3
I0411 16:01:32.920850 16107 net.cpp:100] Creating Layer conv3
I0411 16:01:32.920853 16107 net.cpp:434] conv3 <- pool2
I0411 16:01:32.920858 16107 net.cpp:408] conv3 -> conv3
I0411 16:01:32.927953 16107 net.cpp:150] Setting up conv3
I0411 16:01:32.927973 16107 net.cpp:157] Top shape: 1024 250 6 6 (9216000)
I0411 16:01:32.927978 16107 net.cpp:165] Memory required for data: 3981979648
I0411 16:01:32.927987 16107 layer_factory.hpp:77] Creating layer conv3_prescale
I0411 16:01:32.927997 16107 net.cpp:100] Creating Layer conv3_prescale
I0411 16:01:32.928002 16107 net.cpp:434] conv3_prescale <- conv3
I0411 16:01:32.928009 16107 net.cpp:395] conv3_prescale -> conv3 (in-place)
I0411 16:01:32.928102 16107 net.cpp:150] Setting up conv3_prescale
I0411 16:01:32.928109 16107 net.cpp:157] Top shape: 1024 250 6 6 (9216000)
I0411 16:01:32.928112 16107 net.cpp:165] Memory required for data: 4018843648
I0411 16:01:32.928117 16107 layer_factory.hpp:77] Creating layer conv3_sTanH
I0411 16:01:32.928123 16107 net.cpp:100] Creating Layer conv3_sTanH
I0411 16:01:32.928127 16107 net.cpp:434] conv3_sTanH <- conv3
I0411 16:01:32.928131 16107 net.cpp:395] conv3_sTanH -> conv3 (in-place)
I0411 16:01:32.929023 16107 net.cpp:150] Setting up conv3_sTanH
I0411 16:01:32.929039 16107 net.cpp:157] Top shape: 1024 250 6 6 (9216000)
I0411 16:01:32.929041 16107 net.cpp:165] Memory required for data: 4055707648
I0411 16:01:32.929059 16107 layer_factory.hpp:77] Creating layer conv3_postscale
I0411 16:01:32.929066 16107 net.cpp:100] Creating Layer conv3_postscale
I0411 16:01:32.929070 16107 net.cpp:434] conv3_postscale <- conv3
I0411 16:01:32.929075 16107 net.cpp:395] conv3_postscale -> conv3 (in-place)
I0411 16:01:32.929173 16107 net.cpp:150] Setting up conv3_postscale
I0411 16:01:32.929181 16107 net.cpp:157] Top shape: 1024 250 6 6 (9216000)
I0411 16:01:32.929184 16107 net.cpp:165] Memory required for data: 4092571648
I0411 16:01:32.929189 16107 layer_factory.hpp:77] Creating layer pool3
I0411 16:01:32.929196 16107 net.cpp:100] Creating Layer pool3
I0411 16:01:32.929199 16107 net.cpp:434] pool3 <- conv3
I0411 16:01:32.929205 16107 net.cpp:408] pool3 -> pool3
I0411 16:01:32.929242 16107 net.cpp:150] Setting up pool3
I0411 16:01:32.929250 16107 net.cpp:157] Top shape: 1024 250 3 3 (2304000)
I0411 16:01:32.929252 16107 net.cpp:165] Memory required for data: 4101787648
I0411 16:01:32.929255 16107 layer_factory.hpp:77] Creating layer fc4_300
I0411 16:01:32.929263 16107 net.cpp:100] Creating Layer fc4_300
I0411 16:01:32.929267 16107 net.cpp:434] fc4_300 <- pool3
I0411 16:01:32.929273 16107 net.cpp:408] fc4_300 -> fc4_300
I0411 16:01:32.934728 16107 net.cpp:150] Setting up fc4_300
I0411 16:01:32.934743 16107 net.cpp:157] Top shape: 1024 300 (307200)
I0411 16:01:32.934747 16107 net.cpp:165] Memory required for data: 4103016448
I0411 16:01:32.934754 16107 layer_factory.hpp:77] Creating layer fc4_prescale
I0411 16:01:32.934762 16107 net.cpp:100] Creating Layer fc4_prescale
I0411 16:01:32.934765 16107 net.cpp:434] fc4_prescale <- fc4_300
I0411 16:01:32.934770 16107 net.cpp:395] fc4_prescale -> fc4_300 (in-place)
I0411 16:01:32.934856 16107 net.cpp:150] Setting up fc4_prescale
I0411 16:01:32.934864 16107 net.cpp:157] Top shape: 1024 300 (307200)
I0411 16:01:32.934866 16107 net.cpp:165] Memory required for data: 4104245248
I0411 16:01:32.934871 16107 layer_factory.hpp:77] Creating layer fc4_sTanH
I0411 16:01:32.934876 16107 net.cpp:100] Creating Layer fc4_sTanH
I0411 16:01:32.934880 16107 net.cpp:434] fc4_sTanH <- fc4_300
I0411 16:01:32.934885 16107 net.cpp:395] fc4_sTanH -> fc4_300 (in-place)
I0411 16:01:32.935066 16107 net.cpp:150] Setting up fc4_sTanH
I0411 16:01:32.935077 16107 net.cpp:157] Top shape: 1024 300 (307200)
I0411 16:01:32.935082 16107 net.cpp:165] Memory required for data: 4105474048
I0411 16:01:32.935086 16107 layer_factory.hpp:77] Creating layer fc4_postscale
I0411 16:01:32.935091 16107 net.cpp:100] Creating Layer fc4_postscale
I0411 16:01:32.935096 16107 net.cpp:434] fc4_postscale <- fc4_300
I0411 16:01:32.935101 16107 net.cpp:395] fc4_postscale -> fc4_300 (in-place)
I0411 16:01:32.935194 16107 net.cpp:150] Setting up fc4_postscale
I0411 16:01:32.935201 16107 net.cpp:157] Top shape: 1024 300 (307200)
I0411 16:01:32.935204 16107 net.cpp:165] Memory required for data: 4106702848
I0411 16:01:32.935209 16107 layer_factory.hpp:77] Creating layer drop4
I0411 16:01:32.935217 16107 net.cpp:100] Creating Layer drop4
I0411 16:01:32.935222 16107 net.cpp:434] drop4 <- fc4_300
I0411 16:01:32.935226 16107 net.cpp:395] drop4 -> fc4_300 (in-place)
I0411 16:01:32.935252 16107 net.cpp:150] Setting up drop4
I0411 16:01:32.935259 16107 net.cpp:157] Top shape: 1024 300 (307200)
I0411 16:01:32.935261 16107 net.cpp:165] Memory required for data: 4107931648
I0411 16:01:32.935264 16107 layer_factory.hpp:77] Creating layer fc5_67
I0411 16:01:32.935271 16107 net.cpp:100] Creating Layer fc5_67
I0411 16:01:32.935274 16107 net.cpp:434] fc5_67 <- fc4_300
I0411 16:01:32.935279 16107 net.cpp:408] fc5_67 -> fc5_classes
I0411 16:01:32.938556 16107 net.cpp:150] Setting up fc5_67
I0411 16:01:32.938571 16107 net.cpp:157] Top shape: 1024 67 (68608)
I0411 16:01:32.938575 16107 net.cpp:165] Memory required for data: 4108206080
I0411 16:01:32.938585 16107 layer_factory.hpp:77] Creating layer loss
I0411 16:01:32.938591 16107 net.cpp:100] Creating Layer loss
I0411 16:01:32.938596 16107 net.cpp:434] loss <- fc5_classes
I0411 16:01:32.938613 16107 net.cpp:434] loss <- label
I0411 16:01:32.938621 16107 net.cpp:408] loss -> loss
I0411 16:01:32.938632 16107 layer_factory.hpp:77] Creating layer loss
…
I0411 16:01:32.939388 16107 solver.cpp:193] Creating test net (#0) specified by test_net file: ./Prototxt/experiment_9/rtsd-r1/CoNorm/trial_4/test.prototxt
I0411 16:01:32.939591 16107 net.cpp:58] Initializing net from parameters: 
state {
  phase: TEST
}
layer {
  name: "data"
  type: "Data"
  top: "data"
  top: "label"
  include {
    phase: TEST
  }
  transform_param {
    scale: 0.0039215689
    mirror: false
    crop_size: 48
    mean_value: 133
    mean_value: 133
    mean_value: 132
  }
  data_param {
    source: "../local_data/lmdb/rtsd-r1/CoNorm/test/lmdb"
    batch_size: 1024
    backend: LMDB
  }
}
layer {
  name: "conv1"
  type: "Convolution"
  bottom: "data"
  top: "conv1"
  convolution_param {
    num_output: 100
    pad: 0
    kernel_size: 7
    group: 1
    stride: 1
    weight_filler {
      type: "xavier"
    }
  }
}
layer {
  name: "conv1_prescale"
  type: "Scale"
  bottom: "conv1"
  top: "conv1"
  param {
    lr_mult: 0
    decay_mult: 0
  }
  scale_param {
    filler {
      value: 0.6666
    }
    bias_term: false
  }
}
layer {
  name: "conv1_sTanH"
  type: "TanH"
  bottom: "conv1"
  top: "conv1"
}
layer {
  name: "conv1_postscale"
  type: "Scale"
  bottom: "conv1"
  top: "conv1"
  param {
    lr_mult: 0
    decay_mult: 0
  }
  scale_param {
    filler {
      value: 1.7159
    }
    bias_term: false
  }
}
layer {
  name: "pool1"
  type: "Pooling"
  bottom: "conv1"
  top: "pool1"
  pooling_param {
    pool: MAX
    kernel_size: 2
    stride: 2
  }
}
layer {
  name: "conv2"
  type: "Convolution"
  bottom: "pool1"
  top: "conv2"
  convolution_param {
    num_output: 150
    pad: 0
    kernel_size: 4
    group: 1
    stride: 1
    weight_filler {
      type: "xavier"
    }
  }
}
layer {
  name: "conv2_prescale"
  type: "Scale"
  bottom: "conv2"
  top: "conv2"
  param {
    lr_mult: 0
    decay_mult: 0
  }
  scale_param {
    filler {
      value: 0.6666
    }
    bias_term: false
  }
}
layer {
  name: "conv2_sTanH"
  type: "TanH"
  bottom: "conv2"
  top: "conv2"
}
layer {
  name: "conv2_postscale"
  type: "Scale"
  bottom: "conv2"
  top: "conv2"
  param {
    lr_mult: 0
    decay_mult: 0
  }
  scale_param {
    filler {
      value: 1.7159
    }
    bias_term: false
  }
}
layer {
  name: "pool2"
  type: "Pooling"
  bottom: "conv2"
  top: "pool2"
  pooling_param {
    pool: MAX
    kernel_size: 2
    stride: 2
  }
}
layer {
  name: "conv3"
  type: "Convolution"
  bottom: "pool2"
  top: "conv3"
  convolution_param {
    num_output: 250
    pad: 0
    kernel_size: 4
    group: 1
    stride: 1
    weight_filler {
      type: "xavier"
    }
  }
}
layer {
  name: "conv3_prescale"
  type: "Scale"
  bottom: "conv3"
  top: "conv3"
  param {
    lr_mult: 0
    decay_mult: 0
  }
  scale_param {
    filler {
      value: 0.6666
    }
    bias_term: false
  }
}
layer {
  name: "conv3_sTanH"
  type: "TanH"
  bottom: "conv3"
  top: "conv3"
}
layer {
  name: "conv3_postscale"
  type: "Scale"
  bottom: "conv3"
  top: "conv3"
  param {
    lr_mult: 0
    decay_mult: 0
  }
  scale_param {
    filler {
      value: 1.7159
    }
    bias_term: false
  }
}
layer {
  name: "pool3"
  type: "Pooling"
  bottom: "conv3"
  top: "pool3"
  pooling_param {
    pool: MAX
    kernel_size: 2
    stride: 2
  }
}
layer {
  name: "fc4_300"
  type: "InnerProduct"
  bottom: "pool3"
  top: "fc4_300"
  inner_product_param {
    num_output: 300
    weight_filler {
      type: "xavier"
    }
  }
}
layer {
  name: "fc4_prescale"
  type: "Scale"
  bottom: "fc4_300"
  top: "fc4_300"
  param {
    lr_mult: 0
    decay_mult: 0
  }
  scale_param {
    filler {
      value: 0.6666
    }
    bias_term: false
  }
}
layer {
  name: "fc4_sTanH"
  type: "TanH"
  bottom: "fc4_300"
  top: "fc4_300"
}
layer {
  name: "fc4_postscale"
  type: "Scale"
  bottom: "fc4_300"
  top: "fc4_300"
  param {
    lr_mult: 0
    decay_mult: 0
  }
  scale_param {
    filler {
      value: 1.7159
    }
    bias_term: false
  }
}
layer {
  name: "drop4"
  type: "Dropout"
  bottom: "fc4_300"
  top: "fc4_300"
  dropout_param {
    dropout_ratio: 0.1
  }
}
layer {
  name: "fc5_67"
  type: "InnerProduct"
  bottom: "fc4_300"
  top: "fc5_classes"
  inner_product_param {
    num_output: 67
    weight_filler {
      type: "xavier"
    }
  }
}
layer {
  name: "loss"
  type: "SoftmaxWithLoss"
  bottom: "fc5_classes"
  bottom: "label"
  top: "loss"
}
layer {
  name: "accuracy_1"
  type: "Accuracy"
  bottom: "fc5_classes"
  bottom: "label"
  top: "accuracy_1"
  include {
    phase: TEST
  }
  accuracy_param {
    top_k: 1
  }
}
layer {
  name: "accuracy_5"
  type: "Accuracy"
  bottom: "fc5_classes"
  bottom: "label"
  top: "accuracy_5"
  include {
    phase: TEST
  }
  accuracy_param {
    top_k: 5
  }
}
I0411 16:01:32.939704 16107 layer_factory.hpp:77] Creating layer data
I0411 16:01:32.940289 16107 net.cpp:100] Creating Layer data
I0411 16:01:32.940300 16107 net.cpp:408] data -> data
I0411 16:01:32.940310 16107 net.cpp:408] data -> label
I0411 16:01:32.942172 16245 db_lmdb.cpp:35] Opened lmdb ../local_data/lmdb/rtsd-r1/CoNorm/test/lmdb
I0411 16:01:32.942306 16107 data_layer.cpp:41] output data size: 1024,3,48,48
I0411 16:01:32.983791 16107 net.cpp:150] Setting up data
I0411 16:01:32.983819 16107 net.cpp:157] Top shape: 1024 3 48 48 (7077888)
I0411 16:01:32.983825 16107 net.cpp:157] Top shape: 1024 (1024)
I0411 16:01:32.983829 16107 net.cpp:165] Memory required for data: 28315648
I0411 16:01:32.983835 16107 layer_factory.hpp:77] Creating layer label_data_1_split
I0411 16:01:32.983850 16107 net.cpp:100] Creating Layer label_data_1_split
I0411 16:01:32.983853 16107 net.cpp:434] label_data_1_split <- label
I0411 16:01:32.983860 16107 net.cpp:408] label_data_1_split -> label_data_1_split_0
I0411 16:01:32.983875 16107 net.cpp:408] label_data_1_split -> label_data_1_split_1
I0411 16:01:32.983909 16107 net.cpp:408] label_data_1_split -> label_data_1_split_2
I0411 16:01:32.984073 16107 net.cpp:150] Setting up label_data_1_split
I0411 16:01:32.984082 16107 net.cpp:157] Top shape: 1024 (1024)
I0411 16:01:32.984087 16107 net.cpp:157] Top shape: 1024 (1024)
I0411 16:01:32.984091 16107 net.cpp:157] Top shape: 1024 (1024)
I0411 16:01:32.984094 16107 net.cpp:165] Memory required for data: 28327936
I0411 16:01:32.984097 16107 layer_factory.hpp:77] Creating layer conv1
I0411 16:01:32.984110 16107 net.cpp:100] Creating Layer conv1
I0411 16:01:32.984115 16107 net.cpp:434] conv1 <- data
I0411 16:01:32.984122 16107 net.cpp:408] conv1 -> conv1
I0411 16:01:32.989313 16107 net.cpp:150] Setting up conv1
I0411 16:01:32.989332 16107 net.cpp:157] Top shape: 1024 100 42 42 (180633600)
I0411 16:01:32.989336 16107 net.cpp:165] Memory required for data: 750862336
I0411 16:01:32.989347 16107 layer_factory.hpp:77] Creating layer conv1_prescale
I0411 16:01:32.989361 16107 net.cpp:100] Creating Layer conv1_prescale
I0411 16:01:32.989364 16107 net.cpp:434] conv1_prescale <- conv1
I0411 16:01:32.989370 16107 net.cpp:395] conv1_prescale -> conv1 (in-place)
I0411 16:01:32.989490 16107 net.cpp:150] Setting up conv1_prescale
I0411 16:01:32.989500 16107 net.cpp:157] Top shape: 1024 100 42 42 (180633600)
I0411 16:01:32.989502 16107 net.cpp:165] Memory required for data: 1473396736
I0411 16:01:32.989509 16107 layer_factory.hpp:77] Creating layer conv1_sTanH
I0411 16:01:32.989521 16107 net.cpp:100] Creating Layer conv1_sTanH
I0411 16:01:32.989524 16107 net.cpp:434] conv1_sTanH <- conv1
I0411 16:01:32.989529 16107 net.cpp:395] conv1_sTanH -> conv1 (in-place)
I0411 16:01:32.992019 16107 net.cpp:150] Setting up conv1_sTanH
I0411 16:01:32.992039 16107 net.cpp:157] Top shape: 1024 100 42 42 (180633600)
I0411 16:01:32.992043 16107 net.cpp:165] Memory required for data: 2195931136
I0411 16:01:32.992048 16107 layer_factory.hpp:77] Creating layer conv1_postscale
I0411 16:01:32.992058 16107 net.cpp:100] Creating Layer conv1_postscale
I0411 16:01:32.992063 16107 net.cpp:434] conv1_postscale <- conv1
I0411 16:01:32.992070 16107 net.cpp:395] conv1_postscale -> conv1 (in-place)
I0411 16:01:32.992197 16107 net.cpp:150] Setting up conv1_postscale
I0411 16:01:32.992208 16107 net.cpp:157] Top shape: 1024 100 42 42 (180633600)
I0411 16:01:32.992213 16107 net.cpp:165] Memory required for data: 2918465536
I0411 16:01:32.992218 16107 layer_factory.hpp:77] Creating layer pool1
I0411 16:01:32.992225 16107 net.cpp:100] Creating Layer pool1
I0411 16:01:32.992230 16107 net.cpp:434] pool1 <- conv1
I0411 16:01:32.992235 16107 net.cpp:408] pool1 -> pool1
I0411 16:01:32.992286 16107 net.cpp:150] Setting up pool1
I0411 16:01:32.992295 16107 net.cpp:157] Top shape: 1024 100 21 21 (45158400)
I0411 16:01:32.992300 16107 net.cpp:165] Memory required for data: 3099099136
I0411 16:01:32.992302 16107 layer_factory.hpp:77] Creating layer conv2
I0411 16:01:32.992314 16107 net.cpp:100] Creating Layer conv2
I0411 16:01:32.992319 16107 net.cpp:434] conv2 <- pool1
I0411 16:01:32.992333 16107 net.cpp:408] conv2 -> conv2
I0411 16:01:33.003367 16107 net.cpp:150] Setting up conv2
I0411 16:01:33.003412 16107 net.cpp:157] Top shape: 1024 150 18 18 (49766400)
I0411 16:01:33.003423 16107 net.cpp:165] Memory required for data: 3298164736
I0411 16:01:33.003448 16107 layer_factory.hpp:77] Creating layer conv2_prescale
I0411 16:01:33.003471 16107 net.cpp:100] Creating Layer conv2_prescale
I0411 16:01:33.003481 16107 net.cpp:434] conv2_prescale <- conv2
I0411 16:01:33.003496 16107 net.cpp:395] conv2_prescale -> conv2 (in-place)
I0411 16:01:33.003722 16107 net.cpp:150] Setting up conv2_prescale
I0411 16:01:33.003739 16107 net.cpp:157] Top shape: 1024 150 18 18 (49766400)
I0411 16:01:33.003747 16107 net.cpp:165] Memory required for data: 3497230336
I0411 16:01:33.003756 16107 layer_factory.hpp:77] Creating layer conv2_sTanH
I0411 16:01:33.003772 16107 net.cpp:100] Creating Layer conv2_sTanH
I0411 16:01:33.003780 16107 net.cpp:434] conv2_sTanH <- conv2
I0411 16:01:33.003793 16107 net.cpp:395] conv2_sTanH -> conv2 (in-place)
I0411 16:01:33.006526 16107 net.cpp:150] Setting up conv2_sTanH
I0411 16:01:33.006561 16107 net.cpp:157] Top shape: 1024 150 18 18 (49766400)
I0411 16:01:33.006570 16107 net.cpp:165] Memory required for data: 3696295936
I0411 16:01:33.006582 16107 layer_factory.hpp:77] Creating layer conv2_postscale
I0411 16:01:33.006600 16107 net.cpp:100] Creating Layer conv2_postscale
I0411 16:01:33.006610 16107 net.cpp:434] conv2_postscale <- conv2
I0411 16:01:33.006623 16107 net.cpp:395] conv2_postscale -> conv2 (in-place)
I0411 16:01:33.006844 16107 net.cpp:150] Setting up conv2_postscale
I0411 16:01:33.006867 16107 net.cpp:157] Top shape: 1024 150 18 18 (49766400)
I0411 16:01:33.006876 16107 net.cpp:165] Memory required for data: 3895361536
I0411 16:01:33.006886 16107 layer_factory.hpp:77] Creating layer pool2
I0411 16:01:33.006903 16107 net.cpp:100] Creating Layer pool2
I0411 16:01:33.006912 16107 net.cpp:434] pool2 <- conv2
I0411 16:01:33.006925 16107 net.cpp:408] pool2 -> pool2
I0411 16:01:33.007025 16107 net.cpp:150] Setting up pool2
I0411 16:01:33.007040 16107 net.cpp:157] Top shape: 1024 150 9 9 (12441600)
I0411 16:01:33.007047 16107 net.cpp:165] Memory required for data: 3945127936
I0411 16:01:33.007055 16107 layer_factory.hpp:77] Creating layer conv3
I0411 16:01:33.007073 16107 net.cpp:100] Creating Layer conv3
I0411 16:01:33.007083 16107 net.cpp:434] conv3 <- pool2
I0411 16:01:33.007100 16107 net.cpp:408] conv3 -> conv3
I0411 16:01:33.017134 16107 net.cpp:150] Setting up conv3
I0411 16:01:33.017161 16107 net.cpp:157] Top shape: 1024 250 6 6 (9216000)
I0411 16:01:33.017166 16107 net.cpp:165] Memory required for data: 3981991936
I0411 16:01:33.017184 16107 layer_factory.hpp:77] Creating layer conv3_prescale
I0411 16:01:33.017199 16107 net.cpp:100] Creating Layer conv3_prescale
I0411 16:01:33.017207 16107 net.cpp:434] conv3_prescale <- conv3
I0411 16:01:33.017217 16107 net.cpp:395] conv3_prescale -> conv3 (in-place)
I0411 16:01:33.017374 16107 net.cpp:150] Setting up conv3_prescale
I0411 16:01:33.017387 16107 net.cpp:157] Top shape: 1024 250 6 6 (9216000)
I0411 16:01:33.017393 16107 net.cpp:165] Memory required for data: 4018855936
I0411 16:01:33.017400 16107 layer_factory.hpp:77] Creating layer conv3_sTanH
I0411 16:01:33.017412 16107 net.cpp:100] Creating Layer conv3_sTanH
I0411 16:01:33.017419 16107 net.cpp:434] conv3_sTanH <- conv3
I0411 16:01:33.017426 16107 net.cpp:395] conv3_sTanH -> conv3 (in-place)
I0411 16:01:33.025090 16107 net.cpp:150] Setting up conv3_sTanH
I0411 16:01:33.025115 16107 net.cpp:157] Top shape: 1024 250 6 6 (9216000)
I0411 16:01:33.025123 16107 net.cpp:165] Memory required for data: 4055719936
I0411 16:01:33.025128 16107 layer_factory.hpp:77] Creating layer conv3_postscale
I0411 16:01:33.025140 16107 net.cpp:100] Creating Layer conv3_postscale
I0411 16:01:33.025146 16107 net.cpp:434] conv3_postscale <- conv3
I0411 16:01:33.025158 16107 net.cpp:395] conv3_postscale -> conv3 (in-place)
I0411 16:01:33.025312 16107 net.cpp:150] Setting up conv3_postscale
I0411 16:01:33.025326 16107 net.cpp:157] Top shape: 1024 250 6 6 (9216000)
I0411 16:01:33.025332 16107 net.cpp:165] Memory required for data: 4092583936
I0411 16:01:33.025339 16107 layer_factory.hpp:77] Creating layer pool3
I0411 16:01:33.025357 16107 net.cpp:100] Creating Layer pool3
I0411 16:01:33.025363 16107 net.cpp:434] pool3 <- conv3
I0411 16:01:33.025370 16107 net.cpp:408] pool3 -> pool3
I0411 16:01:33.025432 16107 net.cpp:150] Setting up pool3
I0411 16:01:33.025444 16107 net.cpp:157] Top shape: 1024 250 3 3 (2304000)
I0411 16:01:33.025449 16107 net.cpp:165] Memory required for data: 4101799936
I0411 16:01:33.025454 16107 layer_factory.hpp:77] Creating layer fc4_300
I0411 16:01:33.025470 16107 net.cpp:100] Creating Layer fc4_300
I0411 16:01:33.025476 16107 net.cpp:434] fc4_300 <- pool3
I0411 16:01:33.025485 16107 net.cpp:408] fc4_300 -> fc4_300
I0411 16:01:33.034828 16107 net.cpp:150] Setting up fc4_300
I0411 16:01:33.034852 16107 net.cpp:157] Top shape: 1024 300 (307200)
I0411 16:01:33.034857 16107 net.cpp:165] Memory required for data: 4103028736
I0411 16:01:33.034888 16107 layer_factory.hpp:77] Creating layer fc4_prescale
I0411 16:01:33.034904 16107 net.cpp:100] Creating Layer fc4_prescale
I0411 16:01:33.034910 16107 net.cpp:434] fc4_prescale <- fc4_300
I0411 16:01:33.034919 16107 net.cpp:395] fc4_prescale -> fc4_300 (in-place)
I0411 16:01:33.035054 16107 net.cpp:150] Setting up fc4_prescale
I0411 16:01:33.035066 16107 net.cpp:157] Top shape: 1024 300 (307200)
I0411 16:01:33.035071 16107 net.cpp:165] Memory required for data: 4104257536
I0411 16:01:33.035084 16107 layer_factory.hpp:77] Creating layer fc4_sTanH
I0411 16:01:33.035094 16107 net.cpp:100] Creating Layer fc4_sTanH
I0411 16:01:33.035099 16107 net.cpp:434] fc4_sTanH <- fc4_300
I0411 16:01:33.035107 16107 net.cpp:395] fc4_sTanH -> fc4_300 (in-place)
I0411 16:01:33.035380 16107 net.cpp:150] Setting up fc4_sTanH
I0411 16:01:33.035398 16107 net.cpp:157] Top shape: 1024 300 (307200)
I0411 16:01:33.035403 16107 net.cpp:165] Memory required for data: 4105486336
I0411 16:01:33.035408 16107 layer_factory.hpp:77] Creating layer fc4_postscale
I0411 16:01:33.035419 16107 net.cpp:100] Creating Layer fc4_postscale
I0411 16:01:33.035426 16107 net.cpp:434] fc4_postscale <- fc4_300
I0411 16:01:33.035434 16107 net.cpp:395] fc4_postscale -> fc4_300 (in-place)
I0411 16:01:33.035578 16107 net.cpp:150] Setting up fc4_postscale
I0411 16:01:33.035590 16107 net.cpp:157] Top shape: 1024 300 (307200)
I0411 16:01:33.035596 16107 net.cpp:165] Memory required for data: 4106715136
I0411 16:01:33.035603 16107 layer_factory.hpp:77] Creating layer drop4
I0411 16:01:33.035612 16107 net.cpp:100] Creating Layer drop4
I0411 16:01:33.035619 16107 net.cpp:434] drop4 <- fc4_300
I0411 16:01:33.035626 16107 net.cpp:395] drop4 -> fc4_300 (in-place)
I0411 16:01:33.035663 16107 net.cpp:150] Setting up drop4
I0411 16:01:33.035673 16107 net.cpp:157] Top shape: 1024 300 (307200)
I0411 16:01:33.035677 16107 net.cpp:165] Memory required for data: 4107943936
I0411 16:01:33.035681 16107 layer_factory.hpp:77] Creating layer fc5_67
I0411 16:01:33.035693 16107 net.cpp:100] Creating Layer fc5_67
I0411 16:01:33.035698 16107 net.cpp:434] fc5_67 <- fc4_300
I0411 16:01:33.035707 16107 net.cpp:408] fc5_67 -> fc5_classes
I0411 16:01:33.036052 16107 net.cpp:150] Setting up fc5_67
I0411 16:01:33.036063 16107 net.cpp:157] Top shape: 1024 67 (68608)
I0411 16:01:33.036067 16107 net.cpp:165] Memory required for data: 4108218368
I0411 16:01:33.036087 16107 layer_factory.hpp:77] Creating layer fc5_classes_fc5_67_0_split
I0411 16:01:33.036098 16107 net.cpp:100] Creating Layer fc5_classes_fc5_67_0_split
I0411 16:01:33.036104 16107 net.cpp:434] fc5_classes_fc5_67_0_split <- fc5_classes
I0411 16:01:33.036113 16107 net.cpp:408] fc5_classes_fc5_67_0_split -> fc5_classes_fc5_67_0_split_0
I0411 16:01:33.036123 16107 net.cpp:408] fc5_classes_fc5_67_0_split -> fc5_classes_fc5_67_0_split_1
I0411 16:01:33.036139 16107 net.cpp:408] fc5_classes_fc5_67_0_split -> fc5_classes_fc5_67_0_split_2
I0411 16:01:33.036214 16107 net.cpp:150] Setting up fc5_classes_fc5_67_0_split
I0411 16:01:33.036224 16107 net.cpp:157] Top shape: 1024 67 (68608)
I0411 16:01:33.036231 16107 net.cpp:157] Top shape: 1024 67 (68608)
I0411 16:01:33.036237 16107 net.cpp:157] Top shape: 1024 67 (68608)
I0411 16:01:33.036239 16107 net.cpp:165] Memory required for data: 4109041664
I0411 16:01:33.036243 16107 layer_factory.hpp:77] Creating layer loss
I0411 16:01:33.036252 16107 net.cpp:100] Creating Layer loss
I0411 16:01:33.036259 16107 net.cpp:434] loss <- fc5_classes_fc5_67_0_split_0
I0411 16:01:33.036265 16107 net.cpp:434] loss <- label_data_1_split_0
I0411 16:01:33.036273 16107 net.cpp:408] loss -> loss
…
