…
I0528 23:09:46.032049 27134 solver.cpp:81] Creating training net from train_net file: ./Prototxt/experiment_22/RTSD/AHE/trial_5/train.prototxt
I0528 23:09:46.041170 27134 net.cpp:58] Initializing net from parameters: 
state {
  phase: TRAIN
  level: 0
  stage: ""
}
layer {
  name: "data"
  type: "Data"
  top: "data"
  top: "label"
  include {
    phase: TRAIN
  }
  transform_param {
    scale: 0.0039215689
    mirror: false
    crop_size: 48
    mean_value: 133
    mean_value: 127
    mean_value: 126
  }
  data_param {
    source: "../local_data/lmdb/RTSD/AHE/train/lmdb"
    batch_size: 1024
    backend: LMDB
  }
}
layer {
  name: "conv1"
  type: "Convolution"
  bottom: "data"
  top: "conv1"
  convolution_param {
    num_output: 100
    pad: 0
    kernel_size: 7
    group: 1
    stride: 1
    weight_filler {
      type: "xavier"
    }
  }
}
layer {
  name: "conv1_relu"
  type: "ReLU"
  bottom: "conv1"
  top: "conv1"
}
layer {
  name: "pool1"
  type: "Pooling"
  bottom: "conv1"
  top: "pool1"
  pooling_param {
    pool: MAX
    kernel_size: 2
    stride: 2
  }
}
layer {
  name: "conv2"
  type: "Convolution"
  bottom: "pool1"
  top: "conv2"
  convolution_param {
    num_output: 150
    pad: 0
    kernel_size: 4
    group: 1
    stride: 1
    weight_filler {
      type: "xavier"
    }
  }
}
layer {
  name: "conv2_relu"
  type: "ReLU"
  bottom: "conv2"
  top: "conv2"
}
layer {
  name: "pool2"
  type: "Pooling"
  bottom: "conv2"
  top: "pool2"
  pooling_param {
    pool: MAX
    kernel_size: 2
    stride: 2
  }
}
layer {
  name: "conv3"
  type: "Convolution"
  bottom: "pool2"
  top: "conv3"
  convolution_param {
    num_output: 250
    pad: 0
    kernel_size: 4
    group: 1
    stride: 1
    weight_filler {
      type: "xavier"
    }
  }
}
layer {
  name: "conv3_relu"
  type: "ReLU"
  bottom: "conv3"
  top: "conv3"
}
layer {
  name: "pool3"
  type: "Pooling"
  bottom: "conv3"
  top: "pool3"
  pooling_param {
    pool: MAX
    kernel_size: 2
    stride: 2
  }
}
layer {
  name: "fc4_300"
  type: "InnerProduct"
  bottom: "pool3"
  top: "fc4_300"
  inner_product_param {
    num_output: 300
    weight_filler {
      type: "xavier"
    }
  }
}
layer {
  name: "fc4_relu"
  type: "ReLU"
  bottom: "fc4_300"
  top: "fc4_300"
}
layer {
  name: "fc5_116"
  type: "InnerProduct"
  bottom: "fc4_300"
  top: "fc5_classes"
  inner_product_param {
    num_output: 116
    weight_filler {
      type: "xavier"
    }
  }
}
layer {
  name: "softmax"
  type: "Softmax"
  bottom: "fc5_classes"
  top: "softmax"
}
layer {
  name: "loss"
  type: "MultinomialLogisticLoss"
  bottom: "softmax"
  bottom: "label"
  top: "loss"
}
layer {
  name: "accuracy_1"
  type: "Accuracy"
  bottom: "fc5_classes"
  bottom: "label"
  top: "accuracy_1"
  accuracy_param {
    top_k: 1
  }
}
layer {
  name: "accuracy_5"
  type: "Accuracy"
  bottom: "fc5_classes"
  bottom: "label"
  top: "accuracy_5"
  accuracy_param {
    top_k: 5
  }
}
layer {
  name: "silence"
  type: "Silence"
  bottom: "accuracy_1"
  bottom: "accuracy_5"
}
I0528 23:09:46.041288 27134 layer_factory.hpp:77] Creating layer data
I0528 23:09:46.042214 27134 net.cpp:100] Creating Layer data
I0528 23:09:46.042261 27134 net.cpp:408] data -> data
I0528 23:09:46.042289 27134 net.cpp:408] data -> label
I0528 23:09:46.045655 27170 db_lmdb.cpp:35] Opened lmdb ../local_data/lmdb/RTSD/AHE/train/lmdb
I0528 23:09:46.063220 27134 data_layer.cpp:41] output data size: 1024,3,48,48
I0528 23:09:46.105602 27134 net.cpp:150] Setting up data
I0528 23:09:46.105654 27134 net.cpp:157] Top shape: 1024 3 48 48 (7077888)
I0528 23:09:46.105659 27134 net.cpp:157] Top shape: 1024 (1024)
I0528 23:09:46.105664 27134 net.cpp:165] Memory required for data: 28315648
I0528 23:09:46.105672 27134 layer_factory.hpp:77] Creating layer label_data_1_split
I0528 23:09:46.105684 27134 net.cpp:100] Creating Layer label_data_1_split
I0528 23:09:46.105690 27134 net.cpp:434] label_data_1_split <- label
I0528 23:09:46.105700 27134 net.cpp:408] label_data_1_split -> label_data_1_split_0
I0528 23:09:46.105717 27134 net.cpp:408] label_data_1_split -> label_data_1_split_1
I0528 23:09:46.105723 27134 net.cpp:408] label_data_1_split -> label_data_1_split_2
I0528 23:09:46.105782 27134 net.cpp:150] Setting up label_data_1_split
I0528 23:09:46.105792 27134 net.cpp:157] Top shape: 1024 (1024)
I0528 23:09:46.105795 27134 net.cpp:157] Top shape: 1024 (1024)
I0528 23:09:46.105799 27134 net.cpp:157] Top shape: 1024 (1024)
I0528 23:09:46.105803 27134 net.cpp:165] Memory required for data: 28327936
I0528 23:09:46.105808 27134 layer_factory.hpp:77] Creating layer conv1
I0528 23:09:46.105829 27134 net.cpp:100] Creating Layer conv1
I0528 23:09:46.105835 27134 net.cpp:434] conv1 <- data
I0528 23:09:46.105840 27134 net.cpp:408] conv1 -> conv1
I0528 23:09:46.376091 27134 net.cpp:150] Setting up conv1
I0528 23:09:46.376127 27134 net.cpp:157] Top shape: 1024 100 42 42 (180633600)
I0528 23:09:46.376132 27134 net.cpp:165] Memory required for data: 750862336
I0528 23:09:46.376157 27134 layer_factory.hpp:77] Creating layer conv1_relu
I0528 23:09:46.376173 27134 net.cpp:100] Creating Layer conv1_relu
I0528 23:09:46.376178 27134 net.cpp:434] conv1_relu <- conv1
I0528 23:09:46.376183 27134 net.cpp:395] conv1_relu -> conv1 (in-place)
I0528 23:09:46.376343 27134 net.cpp:150] Setting up conv1_relu
I0528 23:09:46.376355 27134 net.cpp:157] Top shape: 1024 100 42 42 (180633600)
I0528 23:09:46.376360 27134 net.cpp:165] Memory required for data: 1473396736
I0528 23:09:46.376364 27134 layer_factory.hpp:77] Creating layer pool1
I0528 23:09:46.376380 27134 net.cpp:100] Creating Layer pool1
I0528 23:09:46.376384 27134 net.cpp:434] pool1 <- conv1
I0528 23:09:46.376389 27134 net.cpp:408] pool1 -> pool1
I0528 23:09:46.376430 27134 net.cpp:150] Setting up pool1
I0528 23:09:46.376437 27134 net.cpp:157] Top shape: 1024 100 21 21 (45158400)
I0528 23:09:46.376441 27134 net.cpp:165] Memory required for data: 1654030336
I0528 23:09:46.376444 27134 layer_factory.hpp:77] Creating layer conv2
I0528 23:09:46.376462 27134 net.cpp:100] Creating Layer conv2
I0528 23:09:46.376466 27134 net.cpp:434] conv2 <- pool1
I0528 23:09:46.376471 27134 net.cpp:408] conv2 -> conv2
I0528 23:09:46.381273 27134 net.cpp:150] Setting up conv2
I0528 23:09:46.381316 27134 net.cpp:157] Top shape: 1024 150 18 18 (49766400)
I0528 23:09:46.381320 27134 net.cpp:165] Memory required for data: 1853095936
I0528 23:09:46.381340 27134 layer_factory.hpp:77] Creating layer conv2_relu
I0528 23:09:46.381357 27134 net.cpp:100] Creating Layer conv2_relu
I0528 23:09:46.381362 27134 net.cpp:434] conv2_relu <- conv2
I0528 23:09:46.381369 27134 net.cpp:395] conv2_relu -> conv2 (in-place)
I0528 23:09:46.381515 27134 net.cpp:150] Setting up conv2_relu
I0528 23:09:46.381527 27134 net.cpp:157] Top shape: 1024 150 18 18 (49766400)
I0528 23:09:46.381531 27134 net.cpp:165] Memory required for data: 2052161536
I0528 23:09:46.381536 27134 layer_factory.hpp:77] Creating layer pool2
I0528 23:09:46.381541 27134 net.cpp:100] Creating Layer pool2
I0528 23:09:46.381553 27134 net.cpp:434] pool2 <- conv2
I0528 23:09:46.381559 27134 net.cpp:408] pool2 -> pool2
I0528 23:09:46.381597 27134 net.cpp:150] Setting up pool2
I0528 23:09:46.381605 27134 net.cpp:157] Top shape: 1024 150 9 9 (12441600)
I0528 23:09:46.381609 27134 net.cpp:165] Memory required for data: 2101927936
I0528 23:09:46.381613 27134 layer_factory.hpp:77] Creating layer conv3
I0528 23:09:46.381635 27134 net.cpp:100] Creating Layer conv3
I0528 23:09:46.381639 27134 net.cpp:434] conv3 <- pool2
I0528 23:09:46.381644 27134 net.cpp:408] conv3 -> conv3
I0528 23:09:46.388831 27134 net.cpp:150] Setting up conv3
I0528 23:09:46.388872 27134 net.cpp:157] Top shape: 1024 250 6 6 (9216000)
I0528 23:09:46.388877 27134 net.cpp:165] Memory required for data: 2138791936
I0528 23:09:46.388896 27134 layer_factory.hpp:77] Creating layer conv3_relu
I0528 23:09:46.388914 27134 net.cpp:100] Creating Layer conv3_relu
I0528 23:09:46.388919 27134 net.cpp:434] conv3_relu <- conv3
I0528 23:09:46.388926 27134 net.cpp:395] conv3_relu -> conv3 (in-place)
I0528 23:09:46.394135 27134 net.cpp:150] Setting up conv3_relu
I0528 23:09:46.394163 27134 net.cpp:157] Top shape: 1024 250 6 6 (9216000)
I0528 23:09:46.394168 27134 net.cpp:165] Memory required for data: 2175655936
I0528 23:09:46.394172 27134 layer_factory.hpp:77] Creating layer pool3
I0528 23:09:46.394191 27134 net.cpp:100] Creating Layer pool3
I0528 23:09:46.394196 27134 net.cpp:434] pool3 <- conv3
I0528 23:09:46.394202 27134 net.cpp:408] pool3 -> pool3
I0528 23:09:46.394253 27134 net.cpp:150] Setting up pool3
I0528 23:09:46.394268 27134 net.cpp:157] Top shape: 1024 250 3 3 (2304000)
I0528 23:09:46.394271 27134 net.cpp:165] Memory required for data: 2184871936
I0528 23:09:46.394275 27134 layer_factory.hpp:77] Creating layer fc4_300
I0528 23:09:46.394282 27134 net.cpp:100] Creating Layer fc4_300
I0528 23:09:46.394286 27134 net.cpp:434] fc4_300 <- pool3
I0528 23:09:46.394292 27134 net.cpp:408] fc4_300 -> fc4_300
I0528 23:09:46.401132 27134 net.cpp:150] Setting up fc4_300
I0528 23:09:46.401176 27134 net.cpp:157] Top shape: 1024 300 (307200)
I0528 23:09:46.401181 27134 net.cpp:165] Memory required for data: 2186100736
I0528 23:09:46.401197 27134 layer_factory.hpp:77] Creating layer fc4_relu
I0528 23:09:46.401216 27134 net.cpp:100] Creating Layer fc4_relu
I0528 23:09:46.401221 27134 net.cpp:434] fc4_relu <- fc4_300
I0528 23:09:46.401227 27134 net.cpp:395] fc4_relu -> fc4_300 (in-place)
I0528 23:09:46.401406 27134 net.cpp:150] Setting up fc4_relu
I0528 23:09:46.401417 27134 net.cpp:157] Top shape: 1024 300 (307200)
I0528 23:09:46.401422 27134 net.cpp:165] Memory required for data: 2187329536
I0528 23:09:46.401424 27134 layer_factory.hpp:77] Creating layer fc5_116
I0528 23:09:46.401439 27134 net.cpp:100] Creating Layer fc5_116
I0528 23:09:46.401443 27134 net.cpp:434] fc5_116 <- fc4_300
I0528 23:09:46.401449 27134 net.cpp:408] fc5_116 -> fc5_classes
I0528 23:09:46.402557 27134 net.cpp:150] Setting up fc5_116
I0528 23:09:46.402580 27134 net.cpp:157] Top shape: 1024 116 (118784)
I0528 23:09:46.402583 27134 net.cpp:165] Memory required for data: 2187804672
I0528 23:09:46.402601 27134 layer_factory.hpp:77] Creating layer fc5_classes_fc5_116_0_split
I0528 23:09:46.402607 27134 net.cpp:100] Creating Layer fc5_classes_fc5_116_0_split
I0528 23:09:46.402611 27134 net.cpp:434] fc5_classes_fc5_116_0_split <- fc5_classes
I0528 23:09:46.402617 27134 net.cpp:408] fc5_classes_fc5_116_0_split -> fc5_classes_fc5_116_0_split_0
I0528 23:09:46.402624 27134 net.cpp:408] fc5_classes_fc5_116_0_split -> fc5_classes_fc5_116_0_split_1
I0528 23:09:46.402629 27134 net.cpp:408] fc5_classes_fc5_116_0_split -> fc5_classes_fc5_116_0_split_2
I0528 23:09:46.402676 27134 net.cpp:150] Setting up fc5_classes_fc5_116_0_split
I0528 23:09:46.402683 27134 net.cpp:157] Top shape: 1024 116 (118784)
I0528 23:09:46.402686 27134 net.cpp:157] Top shape: 1024 116 (118784)
I0528 23:09:46.402690 27134 net.cpp:157] Top shape: 1024 116 (118784)
I0528 23:09:46.402693 27134 net.cpp:165] Memory required for data: 2189230080
I0528 23:09:46.402698 27134 layer_factory.hpp:77] Creating layer softmax
I0528 23:09:46.402703 27134 net.cpp:100] Creating Layer softmax
I0528 23:09:46.402705 27134 net.cpp:434] softmax <- fc5_classes_fc5_116_0_split_0
I0528 23:09:46.402710 27134 net.cpp:408] softmax -> softmax
I0528 23:09:46.402897 27134 net.cpp:150] Setting up softmax
I0528 23:09:46.402909 27134 net.cpp:157] Top shape: 1024 116 (118784)
I0528 23:09:46.402914 27134 net.cpp:165] Memory required for data: 2189705216
I0528 23:09:46.402917 27134 layer_factory.hpp:77] Creating layer loss
I0528 23:09:46.402931 27134 net.cpp:100] Creating Layer loss
I0528 23:09:46.402959 27134 net.cpp:434] loss <- softmax
I0528 23:09:46.402964 27134 net.cpp:434] loss <- label_data_1_split_0
I0528 23:09:46.402969 27134 net.cpp:408] loss -> loss
…
