…
I0414 07:17:53.480399 19923 solver.cpp:93] Creating training net from train_net file: ./Prototxt/experiment_11/rtsd-r1/imajust/trial_4/train.prototxt
I0414 07:17:53.481096 19923 net.cpp:58] Initializing net from parameters: 
state {
  phase: TRAIN
  level: 0
  stage: ""
}
layer {
  name: "data"
  type: "Data"
  top: "data"
  top: "label"
  include {
    phase: TRAIN
  }
  transform_param {
    scale: 0.0039215689
    mirror: false
    crop_size: 48
    mean_value: 115
    mean_value: 108
    mean_value: 122
  }
  data_param {
    source: "../local_data/lmdb/rtsd-r1/imajust/train/lmdb"
    batch_size: 1024
    backend: LMDB
  }
}
layer {
  name: "conv1"
  type: "Convolution"
  bottom: "data"
  top: "conv1"
  convolution_param {
    num_output: 100
    pad: 0
    kernel_size: 7
    group: 1
    stride: 1
    weight_filler {
      type: "xavier"
    }
  }
}
layer {
  name: "conv1_prescale"
  type: "Scale"
  bottom: "conv1"
  top: "conv1"
  param {
    lr_mult: 0
    decay_mult: 0
  }
  scale_param {
    filler {
      value: 0.6666
    }
    bias_term: false
  }
}
layer {
  name: "conv1_sTanH"
  type: "TanH"
  bottom: "conv1"
  top: "conv1"
}
layer {
  name: "conv1_postscale"
  type: "Scale"
  bottom: "conv1"
  top: "conv1"
  param {
    lr_mult: 0
    decay_mult: 0
  }
  scale_param {
    filler {
      value: 1.7159
    }
    bias_term: false
  }
}
layer {
  name: "pool1"
  type: "Pooling"
  bottom: "conv1"
  top: "pool1"
  pooling_param {
    pool: MAX
    kernel_size: 2
    stride: 2
  }
}
layer {
  name: "conv2"
  type: "Convolution"
  bottom: "pool1"
  top: "conv2"
  convolution_param {
    num_output: 150
    pad: 0
    kernel_size: 4
    group: 1
    stride: 1
    weight_filler {
      type: "xavier"
    }
  }
}
layer {
  name: "conv2_prescale"
  type: "Scale"
  bottom: "conv2"
  top: "conv2"
  param {
    lr_mult: 0
    decay_mult: 0
  }
  scale_param {
    filler {
      value: 0.6666
    }
    bias_term: false
  }
}
layer {
  name: "conv2_sTanH"
  type: "TanH"
  bottom: "conv2"
  top: "conv2"
}
layer {
  name: "conv2_postscale"
  type: "Scale"
  bottom: "conv2"
  top: "conv2"
  param {
    lr_mult: 0
    decay_mult: 0
  }
  scale_param {
    filler {
      value: 1.7159
    }
    bias_term: false
  }
}
layer {
  name: "pool2"
  type: "Pooling"
  bottom: "conv2"
  top: "pool2"
  pooling_param {
    pool: MAX
    kernel_size: 2
    stride: 2
  }
}
layer {
  name: "conv3"
  type: "Convolution"
  bottom: "pool2"
  top: "conv3"
  convolution_param {
    num_output: 250
    pad: 0
    kernel_size: 4
    group: 1
    stride: 1
    weight_filler {
      type: "xavier"
    }
  }
}
layer {
  name: "conv3_prescale"
  type: "Scale"
  bottom: "conv3"
  top: "conv3"
  param {
    lr_mult: 0
    decay_mult: 0
  }
  scale_param {
    filler {
      value: 0.6666
    }
    bias_term: false
  }
}
layer {
  name: "conv3_sTanH"
  type: "TanH"
  bottom: "conv3"
  top: "conv3"
}
layer {
  name: "conv3_postscale"
  type: "Scale"
  bottom: "conv3"
  top: "conv3"
  param {
    lr_mult: 0
    decay_mult: 0
  }
  scale_param {
    filler {
      value: 1.7159
    }
    bias_term: false
  }
}
layer {
  name: "pool3"
  type: "Pooling"
  bottom: "conv3"
  top: "pool3"
  pooling_param {
    pool: MAX
    kernel_size: 2
    stride: 2
  }
}
layer {
  name: "fc4_300"
  type: "InnerProduct"
  bottom: "pool3"
  top: "fc4_300"
  inner_product_param {
    num_output: 300
    weight_filler {
      type: "xavier"
    }
  }
}
layer {
  name: "fc4_prescale"
  type: "Scale"
  bottom: "fc4_300"
  top: "fc4_300"
  param {
    lr_mult: 0
    decay_mult: 0
  }
  scale_param {
    filler {
      value: 0.6666
    }
    bias_term: false
  }
}
layer {
  name: "fc4_sTanH"
  type: "TanH"
  bottom: "fc4_300"
  top: "fc4_300"
}
layer {
  name: "fc4_postscale"
  type: "Scale"
  bottom: "fc4_300"
  top: "fc4_300"
  param {
    lr_mult: 0
    decay_mult: 0
  }
  scale_param {
    filler {
      value: 1.7159
    }
    bias_term: false
  }
}
layer {
  name: "fc5_67"
  type: "InnerProduct"
  bottom: "fc4_300"
  top: "fc5_classes"
  inner_product_param {
    num_output: 67
    weight_filler {
      type: "xavier"
    }
  }
}
layer {
  name: "softmax"
  type: "Softmax"
  bottom: "fc5_classes"
  top: "softmax"
}
layer {
  name: "loss"
  type: "MultinomialLogisticLoss"
  bottom: "softmax"
  bottom: "label"
  top: "loss"
}
layer {
  name: "accuracy_1"
  type: "Accuracy"
  bottom: "fc5_classes"
  bottom: "label"
  top: "accuracy_1"
  accuracy_param {
    top_k: 1
  }
}
layer {
  name: "accuracy_5"
  type: "Accuracy"
  bottom: "fc5_classes"
  bottom: "label"
  top: "accuracy_5"
  accuracy_param {
    top_k: 5
  }
}
layer {
  name: "silence"
  type: "Silence"
  bottom: "accuracy_1"
  bottom: "accuracy_5"
}
I0414 07:17:53.481334 19923 layer_factory.hpp:77] Creating layer data
I0414 07:17:53.482982 19923 net.cpp:100] Creating Layer data
I0414 07:17:53.483003 19923 net.cpp:408] data -> data
I0414 07:17:53.483036 19923 net.cpp:408] data -> label
I0414 07:17:53.488975 20033 db_lmdb.cpp:35] Opened lmdb ../local_data/lmdb/rtsd-r1/imajust/train/lmdb
I0414 07:17:53.515035 19923 data_layer.cpp:41] output data size: 1024,3,48,48
I0414 07:17:53.594110 19923 net.cpp:150] Setting up data
I0414 07:17:53.594138 19923 net.cpp:157] Top shape: 1024 3 48 48 (7077888)
I0414 07:17:53.594143 19923 net.cpp:157] Top shape: 1024 (1024)
I0414 07:17:53.594146 19923 net.cpp:165] Memory required for data: 28315648
I0414 07:17:53.594157 19923 layer_factory.hpp:77] Creating layer label_data_1_split
I0414 07:17:53.594172 19923 net.cpp:100] Creating Layer label_data_1_split
I0414 07:17:53.594180 19923 net.cpp:434] label_data_1_split <- label
I0414 07:17:53.594193 19923 net.cpp:408] label_data_1_split -> label_data_1_split_0
I0414 07:17:53.594207 19923 net.cpp:408] label_data_1_split -> label_data_1_split_1
I0414 07:17:53.594214 19923 net.cpp:408] label_data_1_split -> label_data_1_split_2
I0414 07:17:53.594303 19923 net.cpp:150] Setting up label_data_1_split
I0414 07:17:53.594313 19923 net.cpp:157] Top shape: 1024 (1024)
I0414 07:17:53.594317 19923 net.cpp:157] Top shape: 1024 (1024)
I0414 07:17:53.594321 19923 net.cpp:157] Top shape: 1024 (1024)
I0414 07:17:53.594323 19923 net.cpp:165] Memory required for data: 28327936
I0414 07:17:53.594327 19923 layer_factory.hpp:77] Creating layer conv1
I0414 07:17:53.594344 19923 net.cpp:100] Creating Layer conv1
I0414 07:17:53.594349 19923 net.cpp:434] conv1 <- data
I0414 07:17:53.594357 19923 net.cpp:408] conv1 -> conv1
I0414 07:17:53.987962 19923 net.cpp:150] Setting up conv1
I0414 07:17:53.987992 19923 net.cpp:157] Top shape: 1024 100 42 42 (180633600)
I0414 07:17:53.987996 19923 net.cpp:165] Memory required for data: 750862336
I0414 07:17:53.988018 19923 layer_factory.hpp:77] Creating layer conv1_prescale
I0414 07:17:53.988032 19923 net.cpp:100] Creating Layer conv1_prescale
I0414 07:17:53.988036 19923 net.cpp:434] conv1_prescale <- conv1
I0414 07:17:53.988044 19923 net.cpp:395] conv1_prescale -> conv1 (in-place)
I0414 07:17:53.988150 19923 net.cpp:150] Setting up conv1_prescale
I0414 07:17:53.988162 19923 net.cpp:157] Top shape: 1024 100 42 42 (180633600)
I0414 07:17:53.988164 19923 net.cpp:165] Memory required for data: 1473396736
I0414 07:17:53.988171 19923 layer_factory.hpp:77] Creating layer conv1_sTanH
I0414 07:17:53.988181 19923 net.cpp:100] Creating Layer conv1_sTanH
I0414 07:17:53.988186 19923 net.cpp:434] conv1_sTanH <- conv1
I0414 07:17:53.988191 19923 net.cpp:395] conv1_sTanH -> conv1 (in-place)
I0414 07:17:53.988384 19923 net.cpp:150] Setting up conv1_sTanH
I0414 07:17:53.988417 19923 net.cpp:157] Top shape: 1024 100 42 42 (180633600)
I0414 07:17:53.988423 19923 net.cpp:165] Memory required for data: 2195931136
I0414 07:17:53.988427 19923 layer_factory.hpp:77] Creating layer conv1_postscale
I0414 07:17:53.988435 19923 net.cpp:100] Creating Layer conv1_postscale
I0414 07:17:53.988438 19923 net.cpp:434] conv1_postscale <- conv1
I0414 07:17:53.988445 19923 net.cpp:395] conv1_postscale -> conv1 (in-place)
I0414 07:17:53.988541 19923 net.cpp:150] Setting up conv1_postscale
I0414 07:17:53.988550 19923 net.cpp:157] Top shape: 1024 100 42 42 (180633600)
I0414 07:17:53.988554 19923 net.cpp:165] Memory required for data: 2918465536
I0414 07:17:53.988559 19923 layer_factory.hpp:77] Creating layer pool1
I0414 07:17:53.988565 19923 net.cpp:100] Creating Layer pool1
I0414 07:17:53.988570 19923 net.cpp:434] pool1 <- conv1
I0414 07:17:53.988575 19923 net.cpp:408] pool1 -> pool1
I0414 07:17:53.988622 19923 net.cpp:150] Setting up pool1
I0414 07:17:53.988631 19923 net.cpp:157] Top shape: 1024 100 21 21 (45158400)
I0414 07:17:53.988633 19923 net.cpp:165] Memory required for data: 3099099136
I0414 07:17:53.988636 19923 layer_factory.hpp:77] Creating layer conv2
I0414 07:17:53.988646 19923 net.cpp:100] Creating Layer conv2
I0414 07:17:53.988651 19923 net.cpp:434] conv2 <- pool1
I0414 07:17:53.988657 19923 net.cpp:408] conv2 -> conv2
I0414 07:17:53.994999 19923 net.cpp:150] Setting up conv2
I0414 07:17:53.995018 19923 net.cpp:157] Top shape: 1024 150 18 18 (49766400)
I0414 07:17:53.995021 19923 net.cpp:165] Memory required for data: 3298164736
I0414 07:17:53.995033 19923 layer_factory.hpp:77] Creating layer conv2_prescale
I0414 07:17:53.995041 19923 net.cpp:100] Creating Layer conv2_prescale
I0414 07:17:53.995045 19923 net.cpp:434] conv2_prescale <- conv2
I0414 07:17:53.995051 19923 net.cpp:395] conv2_prescale -> conv2 (in-place)
I0414 07:17:53.995165 19923 net.cpp:150] Setting up conv2_prescale
I0414 07:17:53.995175 19923 net.cpp:157] Top shape: 1024 150 18 18 (49766400)
I0414 07:17:53.995179 19923 net.cpp:165] Memory required for data: 3497230336
I0414 07:17:53.995184 19923 layer_factory.hpp:77] Creating layer conv2_sTanH
I0414 07:17:53.995189 19923 net.cpp:100] Creating Layer conv2_sTanH
I0414 07:17:53.995193 19923 net.cpp:434] conv2_sTanH <- conv2
I0414 07:17:53.995198 19923 net.cpp:395] conv2_sTanH -> conv2 (in-place)
I0414 07:17:53.996237 19923 net.cpp:150] Setting up conv2_sTanH
I0414 07:17:53.996254 19923 net.cpp:157] Top shape: 1024 150 18 18 (49766400)
I0414 07:17:53.996258 19923 net.cpp:165] Memory required for data: 3696295936
I0414 07:17:53.996261 19923 layer_factory.hpp:77] Creating layer conv2_postscale
I0414 07:17:53.996268 19923 net.cpp:100] Creating Layer conv2_postscale
I0414 07:17:53.996273 19923 net.cpp:434] conv2_postscale <- conv2
I0414 07:17:53.996280 19923 net.cpp:395] conv2_postscale -> conv2 (in-place)
I0414 07:17:53.996381 19923 net.cpp:150] Setting up conv2_postscale
I0414 07:17:53.996390 19923 net.cpp:157] Top shape: 1024 150 18 18 (49766400)
I0414 07:17:53.996393 19923 net.cpp:165] Memory required for data: 3895361536
I0414 07:17:53.996399 19923 layer_factory.hpp:77] Creating layer pool2
I0414 07:17:53.996405 19923 net.cpp:100] Creating Layer pool2
I0414 07:17:53.996408 19923 net.cpp:434] pool2 <- conv2
I0414 07:17:53.996415 19923 net.cpp:408] pool2 -> pool2
I0414 07:17:53.996459 19923 net.cpp:150] Setting up pool2
I0414 07:17:53.996469 19923 net.cpp:157] Top shape: 1024 150 9 9 (12441600)
I0414 07:17:53.996471 19923 net.cpp:165] Memory required for data: 3945127936
I0414 07:17:53.996474 19923 layer_factory.hpp:77] Creating layer conv3
I0414 07:17:53.996484 19923 net.cpp:100] Creating Layer conv3
I0414 07:17:53.996489 19923 net.cpp:434] conv3 <- pool2
I0414 07:17:53.996502 19923 net.cpp:408] conv3 -> conv3
I0414 07:17:54.007058 19923 net.cpp:150] Setting up conv3
I0414 07:17:54.007077 19923 net.cpp:157] Top shape: 1024 250 6 6 (9216000)
I0414 07:17:54.007081 19923 net.cpp:165] Memory required for data: 3981991936
I0414 07:17:54.007093 19923 layer_factory.hpp:77] Creating layer conv3_prescale
I0414 07:17:54.007115 19923 net.cpp:100] Creating Layer conv3_prescale
I0414 07:17:54.007120 19923 net.cpp:434] conv3_prescale <- conv3
I0414 07:17:54.007129 19923 net.cpp:395] conv3_prescale -> conv3 (in-place)
I0414 07:17:54.007230 19923 net.cpp:150] Setting up conv3_prescale
I0414 07:17:54.007239 19923 net.cpp:157] Top shape: 1024 250 6 6 (9216000)
I0414 07:17:54.007242 19923 net.cpp:165] Memory required for data: 4018855936
I0414 07:17:54.007247 19923 layer_factory.hpp:77] Creating layer conv3_sTanH
I0414 07:17:54.007254 19923 net.cpp:100] Creating Layer conv3_sTanH
I0414 07:17:54.007259 19923 net.cpp:434] conv3_sTanH <- conv3
I0414 07:17:54.007263 19923 net.cpp:395] conv3_sTanH -> conv3 (in-place)
I0414 07:17:54.012503 19923 net.cpp:150] Setting up conv3_sTanH
I0414 07:17:54.012526 19923 net.cpp:157] Top shape: 1024 250 6 6 (9216000)
I0414 07:17:54.012529 19923 net.cpp:165] Memory required for data: 4055719936
I0414 07:17:54.012533 19923 layer_factory.hpp:77] Creating layer conv3_postscale
I0414 07:17:54.012542 19923 net.cpp:100] Creating Layer conv3_postscale
I0414 07:17:54.012545 19923 net.cpp:434] conv3_postscale <- conv3
I0414 07:17:54.012552 19923 net.cpp:395] conv3_postscale -> conv3 (in-place)
I0414 07:17:54.012657 19923 net.cpp:150] Setting up conv3_postscale
I0414 07:17:54.012667 19923 net.cpp:157] Top shape: 1024 250 6 6 (9216000)
I0414 07:17:54.012670 19923 net.cpp:165] Memory required for data: 4092583936
I0414 07:17:54.012676 19923 layer_factory.hpp:77] Creating layer pool3
I0414 07:17:54.012689 19923 net.cpp:100] Creating Layer pool3
I0414 07:17:54.012694 19923 net.cpp:434] pool3 <- conv3
I0414 07:17:54.012701 19923 net.cpp:408] pool3 -> pool3
I0414 07:17:54.012740 19923 net.cpp:150] Setting up pool3
I0414 07:17:54.012750 19923 net.cpp:157] Top shape: 1024 250 3 3 (2304000)
I0414 07:17:54.012754 19923 net.cpp:165] Memory required for data: 4101799936
I0414 07:17:54.012758 19923 layer_factory.hpp:77] Creating layer fc4_300
I0414 07:17:54.012765 19923 net.cpp:100] Creating Layer fc4_300
I0414 07:17:54.012768 19923 net.cpp:434] fc4_300 <- pool3
I0414 07:17:54.012773 19923 net.cpp:408] fc4_300 -> fc4_300
I0414 07:17:54.020282 19923 net.cpp:150] Setting up fc4_300
I0414 07:17:54.020301 19923 net.cpp:157] Top shape: 1024 300 (307200)
I0414 07:17:54.020305 19923 net.cpp:165] Memory required for data: 4103028736
I0414 07:17:54.020313 19923 layer_factory.hpp:77] Creating layer fc4_prescale
I0414 07:17:54.020323 19923 net.cpp:100] Creating Layer fc4_prescale
I0414 07:17:54.020326 19923 net.cpp:434] fc4_prescale <- fc4_300
I0414 07:17:54.020333 19923 net.cpp:395] fc4_prescale -> fc4_300 (in-place)
I0414 07:17:54.020424 19923 net.cpp:150] Setting up fc4_prescale
I0414 07:17:54.020433 19923 net.cpp:157] Top shape: 1024 300 (307200)
I0414 07:17:54.020437 19923 net.cpp:165] Memory required for data: 4104257536
I0414 07:17:54.020442 19923 layer_factory.hpp:77] Creating layer fc4_sTanH
I0414 07:17:54.020447 19923 net.cpp:100] Creating Layer fc4_sTanH
I0414 07:17:54.020450 19923 net.cpp:434] fc4_sTanH <- fc4_300
I0414 07:17:54.020455 19923 net.cpp:395] fc4_sTanH -> fc4_300 (in-place)
I0414 07:17:54.020651 19923 net.cpp:150] Setting up fc4_sTanH
I0414 07:17:54.020663 19923 net.cpp:157] Top shape: 1024 300 (307200)
I0414 07:17:54.020666 19923 net.cpp:165] Memory required for data: 4105486336
I0414 07:17:54.020670 19923 layer_factory.hpp:77] Creating layer fc4_postscale
I0414 07:17:54.020678 19923 net.cpp:100] Creating Layer fc4_postscale
I0414 07:17:54.020684 19923 net.cpp:434] fc4_postscale <- fc4_300
I0414 07:17:54.020689 19923 net.cpp:395] fc4_postscale -> fc4_300 (in-place)
I0414 07:17:54.020792 19923 net.cpp:150] Setting up fc4_postscale
I0414 07:17:54.020800 19923 net.cpp:157] Top shape: 1024 300 (307200)
I0414 07:17:54.020803 19923 net.cpp:165] Memory required for data: 4106715136
I0414 07:17:54.020809 19923 layer_factory.hpp:77] Creating layer fc5_67
I0414 07:17:54.020817 19923 net.cpp:100] Creating Layer fc5_67
I0414 07:17:54.020823 19923 net.cpp:434] fc5_67 <- fc4_300
I0414 07:17:54.020828 19923 net.cpp:408] fc5_67 -> fc5_classes
I0414 07:17:54.022488 19923 net.cpp:150] Setting up fc5_67
I0414 07:17:54.022505 19923 net.cpp:157] Top shape: 1024 67 (68608)
I0414 07:17:54.022508 19923 net.cpp:165] Memory required for data: 4106989568
I0414 07:17:54.022518 19923 layer_factory.hpp:77] Creating layer fc5_classes_fc5_67_0_split
I0414 07:17:54.022526 19923 net.cpp:100] Creating Layer fc5_classes_fc5_67_0_split
I0414 07:17:54.022531 19923 net.cpp:434] fc5_classes_fc5_67_0_split <- fc5_classes
I0414 07:17:54.022536 19923 net.cpp:408] fc5_classes_fc5_67_0_split -> fc5_classes_fc5_67_0_split_0
I0414 07:17:54.022545 19923 net.cpp:408] fc5_classes_fc5_67_0_split -> fc5_classes_fc5_67_0_split_1
I0414 07:17:54.022552 19923 net.cpp:408] fc5_classes_fc5_67_0_split -> fc5_classes_fc5_67_0_split_2
I0414 07:17:54.022609 19923 net.cpp:150] Setting up fc5_classes_fc5_67_0_split
I0414 07:17:54.022619 19923 net.cpp:157] Top shape: 1024 67 (68608)
I0414 07:17:54.022622 19923 net.cpp:157] Top shape: 1024 67 (68608)
I0414 07:17:54.022626 19923 net.cpp:157] Top shape: 1024 67 (68608)
I0414 07:17:54.022629 19923 net.cpp:165] Memory required for data: 4107812864
I0414 07:17:54.022631 19923 layer_factory.hpp:77] Creating layer softmax
I0414 07:17:54.022642 19923 net.cpp:100] Creating Layer softmax
I0414 07:17:54.022647 19923 net.cpp:434] softmax <- fc5_classes_fc5_67_0_split_0
I0414 07:17:54.022653 19923 net.cpp:408] softmax -> softmax
I0414 07:17:54.022908 19923 net.cpp:150] Setting up softmax
I0414 07:17:54.022922 19923 net.cpp:157] Top shape: 1024 67 (68608)
I0414 07:17:54.022924 19923 net.cpp:165] Memory required for data: 4108087296
I0414 07:17:54.022927 19923 layer_factory.hpp:77] Creating layer loss
I0414 07:17:54.022934 19923 net.cpp:100] Creating Layer loss
I0414 07:17:54.022938 19923 net.cpp:434] loss <- softmax
I0414 07:17:54.022943 19923 net.cpp:434] loss <- label_data_1_split_0
I0414 07:17:54.022950 19923 net.cpp:408] loss -> loss
…
