…
I0417 20:38:13.140044 13885 solver.cpp:93] Creating training net from train_net file: ./Prototxt/experiment_11/rtsd-r1/imajust/trial_4/train.prototxt
I0417 20:38:13.140558 13885 net.cpp:58] Initializing net from parameters: 
state {
  phase: TRAIN
  level: 0
  stage: ""
}
layer {
  name: "data"
  type: "Data"
  top: "data"
  top: "label"
  include {
    phase: TRAIN
  }
  transform_param {
    scale: 0.0039215689
    mirror: false
    crop_size: 48
    mean_value: 115
    mean_value: 108
    mean_value: 122
  }
  data_param {
    source: "../local_data/lmdb/rtsd-r1/imajust/train/lmdb"
    batch_size: 1024
    backend: LMDB
  }
}
layer {
  name: "conv1"
  type: "Convolution"
  bottom: "data"
  top: "conv1"
  convolution_param {
    num_output: 100
    pad: 0
    kernel_size: 7
    group: 1
    stride: 1
    weight_filler {
      type: "xavier"
    }
  }
}
layer {
  name: "conv1_prescale"
  type: "Scale"
  bottom: "conv1"
  top: "conv1"
  param {
    lr_mult: 0
    decay_mult: 0
  }
  scale_param {
    filler {
      value: 0.6666
    }
    bias_term: false
  }
}
layer {
  name: "conv1_sTanH"
  type: "TanH"
  bottom: "conv1"
  top: "conv1"
}
layer {
  name: "conv1_postscale"
  type: "Scale"
  bottom: "conv1"
  top: "conv1"
  param {
    lr_mult: 0
    decay_mult: 0
  }
  scale_param {
    filler {
      value: 1.7159
    }
    bias_term: false
  }
}
layer {
  name: "pool1"
  type: "Pooling"
  bottom: "conv1"
  top: "pool1"
  pooling_param {
    pool: MAX
    kernel_size: 2
    stride: 2
  }
}
layer {
  name: "conv2"
  type: "Convolution"
  bottom: "pool1"
  top: "conv2"
  convolution_param {
    num_output: 150
    pad: 0
    kernel_size: 4
    group: 1
    stride: 1
    weight_filler {
      type: "xavier"
    }
  }
}
layer {
  name: "conv2_prescale"
  type: "Scale"
  bottom: "conv2"
  top: "conv2"
  param {
    lr_mult: 0
    decay_mult: 0
  }
  scale_param {
    filler {
      value: 0.6666
    }
    bias_term: false
  }
}
layer {
  name: "conv2_sTanH"
  type: "TanH"
  bottom: "conv2"
  top: "conv2"
}
layer {
  name: "conv2_postscale"
  type: "Scale"
  bottom: "conv2"
  top: "conv2"
  param {
    lr_mult: 0
    decay_mult: 0
  }
  scale_param {
    filler {
      value: 1.7159
    }
    bias_term: false
  }
}
layer {
  name: "pool2"
  type: "Pooling"
  bottom: "conv2"
  top: "pool2"
  pooling_param {
    pool: MAX
    kernel_size: 2
    stride: 2
  }
}
layer {
  name: "conv3"
  type: "Convolution"
  bottom: "pool2"
  top: "conv3"
  convolution_param {
    num_output: 250
    pad: 0
    kernel_size: 4
    group: 1
    stride: 1
    weight_filler {
      type: "xavier"
    }
  }
}
layer {
  name: "conv3_prescale"
  type: "Scale"
  bottom: "conv3"
  top: "conv3"
  param {
    lr_mult: 0
    decay_mult: 0
  }
  scale_param {
    filler {
      value: 0.6666
    }
    bias_term: false
  }
}
layer {
  name: "conv3_sTanH"
  type: "TanH"
  bottom: "conv3"
  top: "conv3"
}
layer {
  name: "conv3_postscale"
  type: "Scale"
  bottom: "conv3"
  top: "conv3"
  param {
    lr_mult: 0
    decay_mult: 0
  }
  scale_param {
    filler {
      value: 1.7159
    }
    bias_term: false
  }
}
layer {
  name: "pool3"
  type: "Pooling"
  bottom: "conv3"
  top: "pool3"
  pooling_param {
    pool: MAX
    kernel_size: 2
    stride: 2
  }
}
layer {
  name: "fc4_300"
  type: "InnerProduct"
  bottom: "pool3"
  top: "fc4_300"
  inner_product_param {
    num_output: 300
    weight_filler {
      type: "xavier"
    }
  }
}
layer {
  name: "fc4_prescale"
  type: "Scale"
  bottom: "fc4_300"
  top: "fc4_300"
  param {
    lr_mult: 0
    decay_mult: 0
  }
  scale_param {
    filler {
      value: 0.6666
    }
    bias_term: false
  }
}
layer {
  name: "fc4_sTanH"
  type: "TanH"
  bottom: "fc4_300"
  top: "fc4_300"
}
layer {
  name: "fc4_postscale"
  type: "Scale"
  bottom: "fc4_300"
  top: "fc4_300"
  param {
    lr_mult: 0
    decay_mult: 0
  }
  scale_param {
    filler {
      value: 1.7159
    }
    bias_term: false
  }
}
layer {
  name: "fc5_67"
  type: "InnerProduct"
  bottom: "fc4_300"
  top: "fc5_classes"
  inner_product_param {
    num_output: 67
    weight_filler {
      type: "xavier"
    }
  }
}
layer {
  name: "softmax"
  type: "Softmax"
  bottom: "fc5_classes"
  top: "softmax"
}
layer {
  name: "loss"
  type: "MultinomialLogisticLoss"
  bottom: "softmax"
  bottom: "label"
  top: "loss"
}
layer {
  name: "accuracy_1"
  type: "Accuracy"
  bottom: "fc5_classes"
  bottom: "label"
  top: "accuracy_1"
  accuracy_param {
    top_k: 1
  }
}
layer {
  name: "accuracy_5"
  type: "Accuracy"
  bottom: "fc5_classes"
  bottom: "label"
  top: "accuracy_5"
  accuracy_param {
    top_k: 5
  }
}
layer {
  name: "silence"
  type: "Silence"
  bottom: "accuracy_1"
  bottom: "accuracy_5"
}
I0417 20:38:13.140722 13885 layer_factory.hpp:77] Creating layer data
I0417 20:38:13.141883 13885 net.cpp:100] Creating Layer data
I0417 20:38:13.141898 13885 net.cpp:408] data -> data
I0417 20:38:13.141923 13885 net.cpp:408] data -> label
I0417 20:38:13.148870 14027 db_lmdb.cpp:35] Opened lmdb ../local_data/lmdb/rtsd-r1/imajust/train/lmdb
I0417 20:38:13.166507 13885 data_layer.cpp:41] output data size: 1024,3,48,48
I0417 20:38:13.220446 13885 net.cpp:150] Setting up data
I0417 20:38:13.220477 13885 net.cpp:157] Top shape: 1024 3 48 48 (7077888)
I0417 20:38:13.220484 13885 net.cpp:157] Top shape: 1024 (1024)
I0417 20:38:13.220486 13885 net.cpp:165] Memory required for data: 28315648
I0417 20:38:13.220497 13885 layer_factory.hpp:77] Creating layer label_data_1_split
I0417 20:38:13.220511 13885 net.cpp:100] Creating Layer label_data_1_split
I0417 20:38:13.220518 13885 net.cpp:434] label_data_1_split <- label
I0417 20:38:13.220535 13885 net.cpp:408] label_data_1_split -> label_data_1_split_0
I0417 20:38:13.220547 13885 net.cpp:408] label_data_1_split -> label_data_1_split_1
I0417 20:38:13.220556 13885 net.cpp:408] label_data_1_split -> label_data_1_split_2
I0417 20:38:13.220619 13885 net.cpp:150] Setting up label_data_1_split
I0417 20:38:13.220628 13885 net.cpp:157] Top shape: 1024 (1024)
I0417 20:38:13.220631 13885 net.cpp:157] Top shape: 1024 (1024)
I0417 20:38:13.220634 13885 net.cpp:157] Top shape: 1024 (1024)
I0417 20:38:13.220638 13885 net.cpp:165] Memory required for data: 28327936
I0417 20:38:13.220640 13885 layer_factory.hpp:77] Creating layer conv1
I0417 20:38:13.220657 13885 net.cpp:100] Creating Layer conv1
I0417 20:38:13.220662 13885 net.cpp:434] conv1 <- data
I0417 20:38:13.220667 13885 net.cpp:408] conv1 -> conv1
I0417 20:38:13.573606 13885 net.cpp:150] Setting up conv1
I0417 20:38:13.573632 13885 net.cpp:157] Top shape: 1024 100 42 42 (180633600)
I0417 20:38:13.573637 13885 net.cpp:165] Memory required for data: 750862336
I0417 20:38:13.573658 13885 layer_factory.hpp:77] Creating layer conv1_prescale
I0417 20:38:13.573674 13885 net.cpp:100] Creating Layer conv1_prescale
I0417 20:38:13.573679 13885 net.cpp:434] conv1_prescale <- conv1
I0417 20:38:13.573686 13885 net.cpp:395] conv1_prescale -> conv1 (in-place)
I0417 20:38:13.573791 13885 net.cpp:150] Setting up conv1_prescale
I0417 20:38:13.573801 13885 net.cpp:157] Top shape: 1024 100 42 42 (180633600)
I0417 20:38:13.573803 13885 net.cpp:165] Memory required for data: 1473396736
I0417 20:38:13.573810 13885 layer_factory.hpp:77] Creating layer conv1_sTanH
I0417 20:38:13.573818 13885 net.cpp:100] Creating Layer conv1_sTanH
I0417 20:38:13.573823 13885 net.cpp:434] conv1_sTanH <- conv1
I0417 20:38:13.573828 13885 net.cpp:395] conv1_sTanH -> conv1 (in-place)
I0417 20:38:13.574020 13885 net.cpp:150] Setting up conv1_sTanH
I0417 20:38:13.574050 13885 net.cpp:157] Top shape: 1024 100 42 42 (180633600)
I0417 20:38:13.574054 13885 net.cpp:165] Memory required for data: 2195931136
I0417 20:38:13.574059 13885 layer_factory.hpp:77] Creating layer conv1_postscale
I0417 20:38:13.574066 13885 net.cpp:100] Creating Layer conv1_postscale
I0417 20:38:13.574069 13885 net.cpp:434] conv1_postscale <- conv1
I0417 20:38:13.574075 13885 net.cpp:395] conv1_postscale -> conv1 (in-place)
I0417 20:38:13.574168 13885 net.cpp:150] Setting up conv1_postscale
I0417 20:38:13.574177 13885 net.cpp:157] Top shape: 1024 100 42 42 (180633600)
I0417 20:38:13.574180 13885 net.cpp:165] Memory required for data: 2918465536
I0417 20:38:13.574187 13885 layer_factory.hpp:77] Creating layer pool1
I0417 20:38:13.574194 13885 net.cpp:100] Creating Layer pool1
I0417 20:38:13.574198 13885 net.cpp:434] pool1 <- conv1
I0417 20:38:13.574204 13885 net.cpp:408] pool1 -> pool1
I0417 20:38:13.574251 13885 net.cpp:150] Setting up pool1
I0417 20:38:13.574259 13885 net.cpp:157] Top shape: 1024 100 21 21 (45158400)
I0417 20:38:13.574262 13885 net.cpp:165] Memory required for data: 3099099136
I0417 20:38:13.574266 13885 layer_factory.hpp:77] Creating layer conv2
I0417 20:38:13.574275 13885 net.cpp:100] Creating Layer conv2
I0417 20:38:13.574280 13885 net.cpp:434] conv2 <- pool1
I0417 20:38:13.574285 13885 net.cpp:408] conv2 -> conv2
I0417 20:38:13.580723 13885 net.cpp:150] Setting up conv2
I0417 20:38:13.580741 13885 net.cpp:157] Top shape: 1024 150 18 18 (49766400)
I0417 20:38:13.580745 13885 net.cpp:165] Memory required for data: 3298164736
I0417 20:38:13.580755 13885 layer_factory.hpp:77] Creating layer conv2_prescale
I0417 20:38:13.580765 13885 net.cpp:100] Creating Layer conv2_prescale
I0417 20:38:13.580770 13885 net.cpp:434] conv2_prescale <- conv2
I0417 20:38:13.580775 13885 net.cpp:395] conv2_prescale -> conv2 (in-place)
I0417 20:38:13.580884 13885 net.cpp:150] Setting up conv2_prescale
I0417 20:38:13.580893 13885 net.cpp:157] Top shape: 1024 150 18 18 (49766400)
I0417 20:38:13.580899 13885 net.cpp:165] Memory required for data: 3497230336
I0417 20:38:13.580904 13885 layer_factory.hpp:77] Creating layer conv2_sTanH
I0417 20:38:13.580909 13885 net.cpp:100] Creating Layer conv2_sTanH
I0417 20:38:13.580914 13885 net.cpp:434] conv2_sTanH <- conv2
I0417 20:38:13.580919 13885 net.cpp:395] conv2_sTanH -> conv2 (in-place)
I0417 20:38:13.582854 13885 net.cpp:150] Setting up conv2_sTanH
I0417 20:38:13.582872 13885 net.cpp:157] Top shape: 1024 150 18 18 (49766400)
I0417 20:38:13.582876 13885 net.cpp:165] Memory required for data: 3696295936
I0417 20:38:13.582880 13885 layer_factory.hpp:77] Creating layer conv2_postscale
I0417 20:38:13.582887 13885 net.cpp:100] Creating Layer conv2_postscale
I0417 20:38:13.582891 13885 net.cpp:434] conv2_postscale <- conv2
I0417 20:38:13.582897 13885 net.cpp:395] conv2_postscale -> conv2 (in-place)
I0417 20:38:13.582994 13885 net.cpp:150] Setting up conv2_postscale
I0417 20:38:13.583003 13885 net.cpp:157] Top shape: 1024 150 18 18 (49766400)
I0417 20:38:13.583006 13885 net.cpp:165] Memory required for data: 3895361536
I0417 20:38:13.583011 13885 layer_factory.hpp:77] Creating layer pool2
I0417 20:38:13.583019 13885 net.cpp:100] Creating Layer pool2
I0417 20:38:13.583024 13885 net.cpp:434] pool2 <- conv2
I0417 20:38:13.583029 13885 net.cpp:408] pool2 -> pool2
I0417 20:38:13.583070 13885 net.cpp:150] Setting up pool2
I0417 20:38:13.583077 13885 net.cpp:157] Top shape: 1024 150 9 9 (12441600)
I0417 20:38:13.583082 13885 net.cpp:165] Memory required for data: 3945127936
I0417 20:38:13.583086 13885 layer_factory.hpp:77] Creating layer conv3
I0417 20:38:13.583093 13885 net.cpp:100] Creating Layer conv3
I0417 20:38:13.583098 13885 net.cpp:434] conv3 <- pool2
I0417 20:38:13.583103 13885 net.cpp:408] conv3 -> conv3
I0417 20:38:13.588748 13885 net.cpp:150] Setting up conv3
I0417 20:38:13.588765 13885 net.cpp:157] Top shape: 1024 250 6 6 (9216000)
I0417 20:38:13.588770 13885 net.cpp:165] Memory required for data: 3981991936
I0417 20:38:13.588781 13885 layer_factory.hpp:77] Creating layer conv3_prescale
I0417 20:38:13.588804 13885 net.cpp:100] Creating Layer conv3_prescale
I0417 20:38:13.588810 13885 net.cpp:434] conv3_prescale <- conv3
I0417 20:38:13.588816 13885 net.cpp:395] conv3_prescale -> conv3 (in-place)
I0417 20:38:13.588909 13885 net.cpp:150] Setting up conv3_prescale
I0417 20:38:13.588917 13885 net.cpp:157] Top shape: 1024 250 6 6 (9216000)
I0417 20:38:13.588922 13885 net.cpp:165] Memory required for data: 4018855936
I0417 20:38:13.588927 13885 layer_factory.hpp:77] Creating layer conv3_sTanH
I0417 20:38:13.588932 13885 net.cpp:100] Creating Layer conv3_sTanH
I0417 20:38:13.588937 13885 net.cpp:434] conv3_sTanH <- conv3
I0417 20:38:13.588942 13885 net.cpp:395] conv3_sTanH -> conv3 (in-place)
I0417 20:38:13.595641 13885 net.cpp:150] Setting up conv3_sTanH
I0417 20:38:13.595659 13885 net.cpp:157] Top shape: 1024 250 6 6 (9216000)
I0417 20:38:13.595664 13885 net.cpp:165] Memory required for data: 4055719936
I0417 20:38:13.595669 13885 layer_factory.hpp:77] Creating layer conv3_postscale
I0417 20:38:13.595676 13885 net.cpp:100] Creating Layer conv3_postscale
I0417 20:38:13.595681 13885 net.cpp:434] conv3_postscale <- conv3
I0417 20:38:13.595687 13885 net.cpp:395] conv3_postscale -> conv3 (in-place)
I0417 20:38:13.595785 13885 net.cpp:150] Setting up conv3_postscale
I0417 20:38:13.595794 13885 net.cpp:157] Top shape: 1024 250 6 6 (9216000)
I0417 20:38:13.595798 13885 net.cpp:165] Memory required for data: 4092583936
I0417 20:38:13.595804 13885 layer_factory.hpp:77] Creating layer pool3
I0417 20:38:13.595814 13885 net.cpp:100] Creating Layer pool3
I0417 20:38:13.595818 13885 net.cpp:434] pool3 <- conv3
I0417 20:38:13.595824 13885 net.cpp:408] pool3 -> pool3
I0417 20:38:13.595862 13885 net.cpp:150] Setting up pool3
I0417 20:38:13.595870 13885 net.cpp:157] Top shape: 1024 250 3 3 (2304000)
I0417 20:38:13.595873 13885 net.cpp:165] Memory required for data: 4101799936
I0417 20:38:13.595887 13885 layer_factory.hpp:77] Creating layer fc4_300
I0417 20:38:13.595896 13885 net.cpp:100] Creating Layer fc4_300
I0417 20:38:13.595901 13885 net.cpp:434] fc4_300 <- pool3
I0417 20:38:13.595906 13885 net.cpp:408] fc4_300 -> fc4_300
I0417 20:38:13.601408 13885 net.cpp:150] Setting up fc4_300
I0417 20:38:13.601424 13885 net.cpp:157] Top shape: 1024 300 (307200)
I0417 20:38:13.601429 13885 net.cpp:165] Memory required for data: 4103028736
I0417 20:38:13.601436 13885 layer_factory.hpp:77] Creating layer fc4_prescale
I0417 20:38:13.601445 13885 net.cpp:100] Creating Layer fc4_prescale
I0417 20:38:13.601450 13885 net.cpp:434] fc4_prescale <- fc4_300
I0417 20:38:13.601455 13885 net.cpp:395] fc4_prescale -> fc4_300 (in-place)
I0417 20:38:13.601542 13885 net.cpp:150] Setting up fc4_prescale
I0417 20:38:13.601550 13885 net.cpp:157] Top shape: 1024 300 (307200)
I0417 20:38:13.601553 13885 net.cpp:165] Memory required for data: 4104257536
I0417 20:38:13.601558 13885 layer_factory.hpp:77] Creating layer fc4_sTanH
I0417 20:38:13.601564 13885 net.cpp:100] Creating Layer fc4_sTanH
I0417 20:38:13.601568 13885 net.cpp:434] fc4_sTanH <- fc4_300
I0417 20:38:13.601572 13885 net.cpp:395] fc4_sTanH -> fc4_300 (in-place)
I0417 20:38:13.601754 13885 net.cpp:150] Setting up fc4_sTanH
I0417 20:38:13.601765 13885 net.cpp:157] Top shape: 1024 300 (307200)
I0417 20:38:13.601769 13885 net.cpp:165] Memory required for data: 4105486336
I0417 20:38:13.601773 13885 layer_factory.hpp:77] Creating layer fc4_postscale
I0417 20:38:13.601779 13885 net.cpp:100] Creating Layer fc4_postscale
I0417 20:38:13.601784 13885 net.cpp:434] fc4_postscale <- fc4_300
I0417 20:38:13.601789 13885 net.cpp:395] fc4_postscale -> fc4_300 (in-place)
I0417 20:38:13.601881 13885 net.cpp:150] Setting up fc4_postscale
I0417 20:38:13.601889 13885 net.cpp:157] Top shape: 1024 300 (307200)
I0417 20:38:13.601892 13885 net.cpp:165] Memory required for data: 4106715136
I0417 20:38:13.601897 13885 layer_factory.hpp:77] Creating layer fc5_67
I0417 20:38:13.601904 13885 net.cpp:100] Creating Layer fc5_67
I0417 20:38:13.601908 13885 net.cpp:434] fc5_67 <- fc4_300
I0417 20:38:13.601913 13885 net.cpp:408] fc5_67 -> fc5_classes
I0417 20:38:13.603816 13885 net.cpp:150] Setting up fc5_67
I0417 20:38:13.603830 13885 net.cpp:157] Top shape: 1024 67 (68608)
I0417 20:38:13.603835 13885 net.cpp:165] Memory required for data: 4106989568
I0417 20:38:13.603845 13885 layer_factory.hpp:77] Creating layer fc5_classes_fc5_67_0_split
I0417 20:38:13.603854 13885 net.cpp:100] Creating Layer fc5_classes_fc5_67_0_split
I0417 20:38:13.603859 13885 net.cpp:434] fc5_classes_fc5_67_0_split <- fc5_classes
I0417 20:38:13.603865 13885 net.cpp:408] fc5_classes_fc5_67_0_split -> fc5_classes_fc5_67_0_split_0
I0417 20:38:13.603874 13885 net.cpp:408] fc5_classes_fc5_67_0_split -> fc5_classes_fc5_67_0_split_1
I0417 20:38:13.603894 13885 net.cpp:408] fc5_classes_fc5_67_0_split -> fc5_classes_fc5_67_0_split_2
I0417 20:38:13.603946 13885 net.cpp:150] Setting up fc5_classes_fc5_67_0_split
I0417 20:38:13.603953 13885 net.cpp:157] Top shape: 1024 67 (68608)
I0417 20:38:13.603957 13885 net.cpp:157] Top shape: 1024 67 (68608)
I0417 20:38:13.603960 13885 net.cpp:157] Top shape: 1024 67 (68608)
I0417 20:38:13.603963 13885 net.cpp:165] Memory required for data: 4107812864
I0417 20:38:13.603966 13885 layer_factory.hpp:77] Creating layer softmax
I0417 20:38:13.603972 13885 net.cpp:100] Creating Layer softmax
I0417 20:38:13.603977 13885 net.cpp:434] softmax <- fc5_classes_fc5_67_0_split_0
I0417 20:38:13.603982 13885 net.cpp:408] softmax -> softmax
I0417 20:38:13.604228 13885 net.cpp:150] Setting up softmax
I0417 20:38:13.604239 13885 net.cpp:157] Top shape: 1024 67 (68608)
I0417 20:38:13.604243 13885 net.cpp:165] Memory required for data: 4108087296
I0417 20:38:13.604246 13885 layer_factory.hpp:77] Creating layer loss
I0417 20:38:13.604252 13885 net.cpp:100] Creating Layer loss
I0417 20:38:13.604257 13885 net.cpp:434] loss <- softmax
I0417 20:38:13.604262 13885 net.cpp:434] loss <- label_data_1_split_0
I0417 20:38:13.604267 13885 net.cpp:408] loss -> loss
…
