…
I0506 23:07:30.739111 18710 solver.cpp:93] Creating training net from train_net file: ./Prototxt/experiment_14/RTSD/orig/trial_3/train.prototxt
I0506 23:07:30.739645 18710 net.cpp:58] Initializing net from parameters: 
state {
  phase: TRAIN
  level: 0
  stage: ""
}
layer {
  name: "data"
  type: "Data"
  top: "data"
  top: "label"
  include {
    phase: TRAIN
  }
  transform_param {
    scale: 0.0039215689
    mirror: false
    crop_size: 48
    mean_value: 119
    mean_value: 113
    mean_value: 113
  }
  data_param {
    source: "../local_data/lmdb/RTSD/orig/train/lmdb"
    batch_size: 512
    backend: LMDB
  }
}
layer {
  name: "conv1"
  type: "Convolution"
  bottom: "data"
  top: "conv1"
  convolution_param {
    num_output: 100
    pad: 0
    kernel_size: 7
    group: 1
    stride: 1
    weight_filler {
      type: "xavier"
    }
  }
}
layer {
  name: "conv1_relu"
  type: "ReLU"
  bottom: "conv1"
  top: "conv1"
}
layer {
  name: "pool1"
  type: "Pooling"
  bottom: "conv1"
  top: "pool1"
  pooling_param {
    pool: MAX
    kernel_size: 2
    stride: 2
  }
}
layer {
  name: "conv2"
  type: "Convolution"
  bottom: "pool1"
  top: "conv2"
  convolution_param {
    num_output: 150
    pad: 0
    kernel_size: 4
    group: 1
    stride: 1
    weight_filler {
      type: "xavier"
    }
  }
}
layer {
  name: "conv2_relu"
  type: "ReLU"
  bottom: "conv2"
  top: "conv2"
}
layer {
  name: "pool2"
  type: "Pooling"
  bottom: "conv2"
  top: "pool2"
  pooling_param {
    pool: MAX
    kernel_size: 2
    stride: 2
  }
}
layer {
  name: "conv3"
  type: "Convolution"
  bottom: "pool2"
  top: "conv3"
  convolution_param {
    num_output: 250
    pad: 0
    kernel_size: 4
    group: 1
    stride: 1
    weight_filler {
      type: "xavier"
    }
  }
}
layer {
  name: "conv3_relu"
  type: "ReLU"
  bottom: "conv3"
  top: "conv3"
}
layer {
  name: "pool3"
  type: "Pooling"
  bottom: "conv3"
  top: "pool3"
  pooling_param {
    pool: MAX
    kernel_size: 2
    stride: 2
  }
}
layer {
  name: "fc4_300"
  type: "InnerProduct"
  bottom: "pool3"
  top: "fc4_300"
  inner_product_param {
    num_output: 300
    weight_filler {
      type: "xavier"
    }
  }
}
layer {
  name: "fc4_relu"
  type: "ReLU"
  bottom: "fc4_300"
  top: "fc4_300"
}
layer {
  name: "fc5_116"
  type: "InnerProduct"
  bottom: "fc4_300"
  top: "fc5_classes"
  inner_product_param {
    num_output: 116
    weight_filler {
      type: "xavier"
    }
  }
}
layer {
  name: "softmax"
  type: "Softmax"
  bottom: "fc5_classes"
  top: "softmax"
}
layer {
  name: "loss"
  type: "MultinomialLogisticLoss"
  bottom: "softmax"
  bottom: "label"
  top: "loss"
}
layer {
  name: "accuracy_1"
  type: "Accuracy"
  bottom: "fc5_classes"
  bottom: "label"
  top: "accuracy_1"
  accuracy_param {
    top_k: 1
  }
}
layer {
  name: "accuracy_5"
  type: "Accuracy"
  bottom: "fc5_classes"
  bottom: "label"
  top: "accuracy_5"
  accuracy_param {
    top_k: 5
  }
}
layer {
  name: "silence"
  type: "Silence"
  bottom: "accuracy_1"
  bottom: "accuracy_5"
}
I0506 23:07:30.739828 18710 layer_factory.hpp:77] Creating layer data
I0506 23:07:30.741103 18710 net.cpp:100] Creating Layer data
I0506 23:07:30.741128 18710 net.cpp:408] data -> data
I0506 23:07:30.741165 18710 net.cpp:408] data -> label
I0506 23:07:30.744412 18868 db_lmdb.cpp:35] Opened lmdb ../local_data/lmdb/RTSD/orig/train/lmdb
I0506 23:07:30.767419 18710 data_layer.cpp:41] output data size: 512,3,48,48
I0506 23:07:30.842856 18710 net.cpp:150] Setting up data
I0506 23:07:30.842916 18710 net.cpp:157] Top shape: 512 3 48 48 (3538944)
I0506 23:07:30.842922 18710 net.cpp:157] Top shape: 512 (512)
I0506 23:07:30.842926 18710 net.cpp:165] Memory required for data: 14157824
I0506 23:07:30.842937 18710 layer_factory.hpp:77] Creating layer label_data_1_split
I0506 23:07:30.842954 18710 net.cpp:100] Creating Layer label_data_1_split
I0506 23:07:30.842962 18710 net.cpp:434] label_data_1_split <- label
I0506 23:07:30.842977 18710 net.cpp:408] label_data_1_split -> label_data_1_split_0
I0506 23:07:30.842989 18710 net.cpp:408] label_data_1_split -> label_data_1_split_1
I0506 23:07:30.842998 18710 net.cpp:408] label_data_1_split -> label_data_1_split_2
I0506 23:07:30.843104 18710 net.cpp:150] Setting up label_data_1_split
I0506 23:07:30.843113 18710 net.cpp:157] Top shape: 512 (512)
I0506 23:07:30.843119 18710 net.cpp:157] Top shape: 512 (512)
I0506 23:07:30.843122 18710 net.cpp:157] Top shape: 512 (512)
I0506 23:07:30.843125 18710 net.cpp:165] Memory required for data: 14163968
I0506 23:07:30.843129 18710 layer_factory.hpp:77] Creating layer conv1
I0506 23:07:30.843147 18710 net.cpp:100] Creating Layer conv1
I0506 23:07:30.843152 18710 net.cpp:434] conv1 <- data
I0506 23:07:30.843158 18710 net.cpp:408] conv1 -> conv1
I0506 23:07:31.402787 18710 net.cpp:150] Setting up conv1
I0506 23:07:31.402823 18710 net.cpp:157] Top shape: 512 100 42 42 (90316800)
I0506 23:07:31.402829 18710 net.cpp:165] Memory required for data: 375431168
I0506 23:07:31.402858 18710 layer_factory.hpp:77] Creating layer conv1_relu
I0506 23:07:31.402871 18710 net.cpp:100] Creating Layer conv1_relu
I0506 23:07:31.402876 18710 net.cpp:434] conv1_relu <- conv1
I0506 23:07:31.402882 18710 net.cpp:395] conv1_relu -> conv1 (in-place)
I0506 23:07:31.403100 18710 net.cpp:150] Setting up conv1_relu
I0506 23:07:31.403115 18710 net.cpp:157] Top shape: 512 100 42 42 (90316800)
I0506 23:07:31.403122 18710 net.cpp:165] Memory required for data: 736698368
I0506 23:07:31.403127 18710 layer_factory.hpp:77] Creating layer pool1
I0506 23:07:31.403141 18710 net.cpp:100] Creating Layer pool1
I0506 23:07:31.403147 18710 net.cpp:434] pool1 <- conv1
I0506 23:07:31.403156 18710 net.cpp:408] pool1 -> pool1
I0506 23:07:31.403221 18710 net.cpp:150] Setting up pool1
I0506 23:07:31.403229 18710 net.cpp:157] Top shape: 512 100 21 21 (22579200)
I0506 23:07:31.403233 18710 net.cpp:165] Memory required for data: 827015168
I0506 23:07:31.403235 18710 layer_factory.hpp:77] Creating layer conv2
I0506 23:07:31.403245 18710 net.cpp:100] Creating Layer conv2
I0506 23:07:31.403250 18710 net.cpp:434] conv2 <- pool1
I0506 23:07:31.403255 18710 net.cpp:408] conv2 -> conv2
I0506 23:07:31.410833 18710 net.cpp:150] Setting up conv2
I0506 23:07:31.410851 18710 net.cpp:157] Top shape: 512 150 18 18 (24883200)
I0506 23:07:31.410856 18710 net.cpp:165] Memory required for data: 926547968
I0506 23:07:31.410868 18710 layer_factory.hpp:77] Creating layer conv2_relu
I0506 23:07:31.410881 18710 net.cpp:100] Creating Layer conv2_relu
I0506 23:07:31.410887 18710 net.cpp:434] conv2_relu <- conv2
I0506 23:07:31.410894 18710 net.cpp:395] conv2_relu -> conv2 (in-place)
I0506 23:07:31.412138 18710 net.cpp:150] Setting up conv2_relu
I0506 23:07:31.412156 18710 net.cpp:157] Top shape: 512 150 18 18 (24883200)
I0506 23:07:31.412159 18710 net.cpp:165] Memory required for data: 1026080768
I0506 23:07:31.412163 18710 layer_factory.hpp:77] Creating layer pool2
I0506 23:07:31.412173 18710 net.cpp:100] Creating Layer pool2
I0506 23:07:31.412178 18710 net.cpp:434] pool2 <- conv2
I0506 23:07:31.412186 18710 net.cpp:408] pool2 -> pool2
I0506 23:07:31.412253 18710 net.cpp:150] Setting up pool2
I0506 23:07:31.412268 18710 net.cpp:157] Top shape: 512 150 9 9 (6220800)
I0506 23:07:31.412276 18710 net.cpp:165] Memory required for data: 1050963968
I0506 23:07:31.412281 18710 layer_factory.hpp:77] Creating layer conv3
I0506 23:07:31.412294 18710 net.cpp:100] Creating Layer conv3
I0506 23:07:31.412299 18710 net.cpp:434] conv3 <- pool2
I0506 23:07:31.412305 18710 net.cpp:408] conv3 -> conv3
I0506 23:07:31.419179 18710 net.cpp:150] Setting up conv3
I0506 23:07:31.419196 18710 net.cpp:157] Top shape: 512 250 6 6 (4608000)
I0506 23:07:31.419200 18710 net.cpp:165] Memory required for data: 1069395968
I0506 23:07:31.419210 18710 layer_factory.hpp:77] Creating layer conv3_relu
I0506 23:07:31.419217 18710 net.cpp:100] Creating Layer conv3_relu
I0506 23:07:31.419220 18710 net.cpp:434] conv3_relu <- conv3
I0506 23:07:31.419226 18710 net.cpp:395] conv3_relu -> conv3 (in-place)
I0506 23:07:31.423388 18710 net.cpp:150] Setting up conv3_relu
I0506 23:07:31.423409 18710 net.cpp:157] Top shape: 512 250 6 6 (4608000)
I0506 23:07:31.423414 18710 net.cpp:165] Memory required for data: 1087827968
I0506 23:07:31.423420 18710 layer_factory.hpp:77] Creating layer pool3
I0506 23:07:31.423429 18710 net.cpp:100] Creating Layer pool3
I0506 23:07:31.423435 18710 net.cpp:434] pool3 <- conv3
I0506 23:07:31.423442 18710 net.cpp:408] pool3 -> pool3
I0506 23:07:31.423493 18710 net.cpp:150] Setting up pool3
I0506 23:07:31.423502 18710 net.cpp:157] Top shape: 512 250 3 3 (1152000)
I0506 23:07:31.423506 18710 net.cpp:165] Memory required for data: 1092435968
I0506 23:07:31.423508 18710 layer_factory.hpp:77] Creating layer fc4_300
I0506 23:07:31.423516 18710 net.cpp:100] Creating Layer fc4_300
I0506 23:07:31.423519 18710 net.cpp:434] fc4_300 <- pool3
I0506 23:07:31.423524 18710 net.cpp:408] fc4_300 -> fc4_300
I0506 23:07:31.432451 18710 net.cpp:150] Setting up fc4_300
I0506 23:07:31.432472 18710 net.cpp:157] Top shape: 512 300 (153600)
I0506 23:07:31.432478 18710 net.cpp:165] Memory required for data: 1093050368
I0506 23:07:31.432488 18710 layer_factory.hpp:77] Creating layer fc4_relu
I0506 23:07:31.432498 18710 net.cpp:100] Creating Layer fc4_relu
I0506 23:07:31.432502 18710 net.cpp:434] fc4_relu <- fc4_300
I0506 23:07:31.432507 18710 net.cpp:395] fc4_relu -> fc4_300 (in-place)
I0506 23:07:31.432745 18710 net.cpp:150] Setting up fc4_relu
I0506 23:07:31.432761 18710 net.cpp:157] Top shape: 512 300 (153600)
I0506 23:07:31.432768 18710 net.cpp:165] Memory required for data: 1093664768
I0506 23:07:31.432773 18710 layer_factory.hpp:77] Creating layer fc5_116
I0506 23:07:31.432785 18710 net.cpp:100] Creating Layer fc5_116
I0506 23:07:31.432791 18710 net.cpp:434] fc5_116 <- fc4_300
I0506 23:07:31.432799 18710 net.cpp:408] fc5_116 -> fc5_classes
I0506 23:07:31.435832 18710 net.cpp:150] Setting up fc5_116
I0506 23:07:31.435847 18710 net.cpp:157] Top shape: 512 116 (59392)
I0506 23:07:31.435852 18710 net.cpp:165] Memory required for data: 1093902336
I0506 23:07:31.435863 18710 layer_factory.hpp:77] Creating layer fc5_classes_fc5_116_0_split
I0506 23:07:31.435871 18710 net.cpp:100] Creating Layer fc5_classes_fc5_116_0_split
I0506 23:07:31.435874 18710 net.cpp:434] fc5_classes_fc5_116_0_split <- fc5_classes
I0506 23:07:31.435895 18710 net.cpp:408] fc5_classes_fc5_116_0_split -> fc5_classes_fc5_116_0_split_0
I0506 23:07:31.435904 18710 net.cpp:408] fc5_classes_fc5_116_0_split -> fc5_classes_fc5_116_0_split_1
I0506 23:07:31.435910 18710 net.cpp:408] fc5_classes_fc5_116_0_split -> fc5_classes_fc5_116_0_split_2
I0506 23:07:31.435963 18710 net.cpp:150] Setting up fc5_classes_fc5_116_0_split
I0506 23:07:31.435971 18710 net.cpp:157] Top shape: 512 116 (59392)
I0506 23:07:31.435974 18710 net.cpp:157] Top shape: 512 116 (59392)
I0506 23:07:31.435977 18710 net.cpp:157] Top shape: 512 116 (59392)
I0506 23:07:31.435979 18710 net.cpp:165] Memory required for data: 1094615040
I0506 23:07:31.435982 18710 layer_factory.hpp:77] Creating layer softmax
I0506 23:07:31.435988 18710 net.cpp:100] Creating Layer softmax
I0506 23:07:31.435992 18710 net.cpp:434] softmax <- fc5_classes_fc5_116_0_split_0
I0506 23:07:31.435997 18710 net.cpp:408] softmax -> softmax
I0506 23:07:31.436244 18710 net.cpp:150] Setting up softmax
I0506 23:07:31.436255 18710 net.cpp:157] Top shape: 512 116 (59392)
I0506 23:07:31.436259 18710 net.cpp:165] Memory required for data: 1094852608
I0506 23:07:31.436262 18710 layer_factory.hpp:77] Creating layer loss
I0506 23:07:31.436271 18710 net.cpp:100] Creating Layer loss
I0506 23:07:31.436290 18710 net.cpp:434] loss <- softmax
I0506 23:07:31.436296 18710 net.cpp:434] loss <- label_data_1_split_0
I0506 23:07:31.436303 18710 net.cpp:408] loss -> loss
…
