…
I0414 16:29:30.849970  2087 solver.cpp:93] Creating training net from train_net file: ./Prototxt/experiment_11/rtsd-r3/imajust/trial_1/train.prototxt
I0414 16:29:30.853224  2087 net.cpp:58] Initializing net from parameters: 
state {
  phase: TRAIN
  level: 0
  stage: ""
}
layer {
  name: "data"
  type: "Data"
  top: "data"
  top: "label"
  include {
    phase: TRAIN
  }
  transform_param {
    scale: 0.0039215689
    mirror: false
    crop_size: 48
    mean_value: 118
    mean_value: 112
    mean_value: 112
  }
  data_param {
    source: "../local_data/lmdb/rtsd-r3/imajust/train/lmdb"
    batch_size: 1024
    backend: LMDB
  }
}
layer {
  name: "conv1"
  type: "Convolution"
  bottom: "data"
  top: "conv1"
  convolution_param {
    num_output: 100
    pad: 0
    kernel_size: 7
    group: 1
    stride: 1
    weight_filler {
      type: "xavier"
    }
  }
}
layer {
  name: "conv1_prescale"
  type: "Scale"
  bottom: "conv1"
  top: "conv1"
  param {
    lr_mult: 0
    decay_mult: 0
  }
  scale_param {
    filler {
      value: 0.6666
    }
    bias_term: false
  }
}
layer {
  name: "conv1_sTanH"
  type: "TanH"
  bottom: "conv1"
  top: "conv1"
}
layer {
  name: "conv1_postscale"
  type: "Scale"
  bottom: "conv1"
  top: "conv1"
  param {
    lr_mult: 0
    decay_mult: 0
  }
  scale_param {
    filler {
      value: 1.7159
    }
    bias_term: false
  }
}
layer {
  name: "pool1"
  type: "Pooling"
  bottom: "conv1"
  top: "pool1"
  pooling_param {
    pool: MAX
    kernel_size: 2
    stride: 2
  }
}
layer {
  name: "conv2"
  type: "Convolution"
  bottom: "pool1"
  top: "conv2"
  convolution_param {
    num_output: 150
    pad: 0
    kernel_size: 4
    group: 1
    stride: 1
    weight_filler {
      type: "xavier"
    }
  }
}
layer {
  name: "conv2_prescale"
  type: "Scale"
  bottom: "conv2"
  top: "conv2"
  param {
    lr_mult: 0
    decay_mult: 0
  }
  scale_param {
    filler {
      value: 0.6666
    }
    bias_term: false
  }
}
layer {
  name: "conv2_sTanH"
  type: "TanH"
  bottom: "conv2"
  top: "conv2"
}
layer {
  name: "conv2_postscale"
  type: "Scale"
  bottom: "conv2"
  top: "conv2"
  param {
    lr_mult: 0
    decay_mult: 0
  }
  scale_param {
    filler {
      value: 1.7159
    }
    bias_term: false
  }
}
layer {
  name: "pool2"
  type: "Pooling"
  bottom: "conv2"
  top: "pool2"
  pooling_param {
    pool: MAX
    kernel_size: 2
    stride: 2
  }
}
layer {
  name: "conv3"
  type: "Convolution"
  bottom: "pool2"
  top: "conv3"
  convolution_param {
    num_output: 250
    pad: 0
    kernel_size: 4
    group: 1
    stride: 1
    weight_filler {
      type: "xavier"
    }
  }
}
layer {
  name: "conv3_prescale"
  type: "Scale"
  bottom: "conv3"
  top: "conv3"
  param {
    lr_mult: 0
    decay_mult: 0
  }
  scale_param {
    filler {
      value: 0.6666
    }
    bias_term: false
  }
}
layer {
  name: "conv3_sTanH"
  type: "TanH"
  bottom: "conv3"
  top: "conv3"
}
layer {
  name: "conv3_postscale"
  type: "Scale"
  bottom: "conv3"
  top: "conv3"
  param {
    lr_mult: 0
    decay_mult: 0
  }
  scale_param {
    filler {
      value: 1.7159
    }
    bias_term: false
  }
}
layer {
  name: "pool3"
  type: "Pooling"
  bottom: "conv3"
  top: "pool3"
  pooling_param {
    pool: MAX
    kernel_size: 2
    stride: 2
  }
}
layer {
  name: "fc4_300"
  type: "InnerProduct"
  bottom: "pool3"
  top: "fc4_300"
  inner_product_param {
    num_output: 300
    weight_filler {
      type: "xavier"
    }
  }
}
layer {
  name: "fc4_prescale"
  type: "Scale"
  bottom: "fc4_300"
  top: "fc4_300"
  param {
    lr_mult: 0
    decay_mult: 0
  }
  scale_param {
    filler {
      value: 0.6666
    }
    bias_term: false
  }
}
layer {
  name: "fc4_sTanH"
  type: "TanH"
  bottom: "fc4_300"
  top: "fc4_300"
}
layer {
  name: "fc4_postscale"
  type: "Scale"
  bottom: "fc4_300"
  top: "fc4_300"
  param {
    lr_mult: 0
    decay_mult: 0
  }
  scale_param {
    filler {
      value: 1.7159
    }
    bias_term: false
  }
}
layer {
  name: "fc5_106"
  type: "InnerProduct"
  bottom: "fc4_300"
  top: "fc5_classes"
  inner_product_param {
    num_output: 106
    weight_filler {
      type: "xavier"
    }
  }
}
layer {
  name: "softmax"
  type: "Softmax"
  bottom: "fc5_classes"
  top: "softmax"
}
layer {
  name: "loss"
  type: "MultinomialLogisticLoss"
  bottom: "softmax"
  bottom: "label"
  top: "loss"
}
layer {
  name: "accuracy_1"
  type: "Accuracy"
  bottom: "fc5_classes"
  bottom: "label"
  top: "accuracy_1"
  accuracy_param {
    top_k: 1
  }
}
layer {
  name: "accuracy_5"
  type: "Accuracy"
  bottom: "fc5_classes"
  bottom: "label"
  top: "accuracy_5"
  accuracy_param {
    top_k: 5
  }
}
layer {
  name: "silence"
  type: "Silence"
  bottom: "accuracy_1"
  bottom: "accuracy_5"
}
I0414 16:29:30.853428  2087 layer_factory.hpp:77] Creating layer data
I0414 16:29:30.854575  2087 net.cpp:100] Creating Layer data
I0414 16:29:30.854594  2087 net.cpp:408] data -> data
I0414 16:29:30.854625  2087 net.cpp:408] data -> label
I0414 16:29:30.914008  2195 db_lmdb.cpp:35] Opened lmdb ../local_data/lmdb/rtsd-r3/imajust/train/lmdb
I0414 16:29:30.952406  2087 data_layer.cpp:41] output data size: 1024,3,48,48
I0414 16:29:31.000440  2087 net.cpp:150] Setting up data
I0414 16:29:31.000485  2087 net.cpp:157] Top shape: 1024 3 48 48 (7077888)
I0414 16:29:31.000496  2087 net.cpp:157] Top shape: 1024 (1024)
I0414 16:29:31.000501  2087 net.cpp:165] Memory required for data: 28315648
I0414 16:29:31.000521  2087 layer_factory.hpp:77] Creating layer label_data_1_split
I0414 16:29:31.000543  2087 net.cpp:100] Creating Layer label_data_1_split
I0414 16:29:31.000556  2087 net.cpp:434] label_data_1_split <- label
I0414 16:29:31.000579  2087 net.cpp:408] label_data_1_split -> label_data_1_split_0
I0414 16:29:31.000602  2087 net.cpp:408] label_data_1_split -> label_data_1_split_1
I0414 16:29:31.000617  2087 net.cpp:408] label_data_1_split -> label_data_1_split_2
I0414 16:29:31.000732  2087 net.cpp:150] Setting up label_data_1_split
I0414 16:29:31.000746  2087 net.cpp:157] Top shape: 1024 (1024)
I0414 16:29:31.000756  2087 net.cpp:157] Top shape: 1024 (1024)
I0414 16:29:31.000764  2087 net.cpp:157] Top shape: 1024 (1024)
I0414 16:29:31.000772  2087 net.cpp:165] Memory required for data: 28327936
I0414 16:29:31.000778  2087 layer_factory.hpp:77] Creating layer conv1
I0414 16:29:31.000808  2087 net.cpp:100] Creating Layer conv1
I0414 16:29:31.000816  2087 net.cpp:434] conv1 <- data
I0414 16:29:31.000828  2087 net.cpp:408] conv1 -> conv1
I0414 16:29:31.103828  2211 blocking_queue.cpp:50] Waiting for data
I0414 16:29:31.418685  2087 net.cpp:150] Setting up conv1
I0414 16:29:31.418715  2087 net.cpp:157] Top shape: 1024 100 42 42 (180633600)
I0414 16:29:31.418720  2087 net.cpp:165] Memory required for data: 750862336
I0414 16:29:31.418740  2087 layer_factory.hpp:77] Creating layer conv1_prescale
I0414 16:29:31.418766  2087 net.cpp:100] Creating Layer conv1_prescale
I0414 16:29:31.418769  2087 net.cpp:434] conv1_prescale <- conv1
I0414 16:29:31.418776  2087 net.cpp:395] conv1_prescale -> conv1 (in-place)
I0414 16:29:31.418885  2087 net.cpp:150] Setting up conv1_prescale
I0414 16:29:31.418895  2087 net.cpp:157] Top shape: 1024 100 42 42 (180633600)
I0414 16:29:31.418900  2087 net.cpp:165] Memory required for data: 1473396736
I0414 16:29:31.418906  2087 layer_factory.hpp:77] Creating layer conv1_sTanH
I0414 16:29:31.418916  2087 net.cpp:100] Creating Layer conv1_sTanH
I0414 16:29:31.418921  2087 net.cpp:434] conv1_sTanH <- conv1
I0414 16:29:31.418926  2087 net.cpp:395] conv1_sTanH -> conv1 (in-place)
I0414 16:29:31.419150  2087 net.cpp:150] Setting up conv1_sTanH
I0414 16:29:31.419163  2087 net.cpp:157] Top shape: 1024 100 42 42 (180633600)
I0414 16:29:31.419167  2087 net.cpp:165] Memory required for data: 2195931136
I0414 16:29:31.419172  2087 layer_factory.hpp:77] Creating layer conv1_postscale
I0414 16:29:31.419178  2087 net.cpp:100] Creating Layer conv1_postscale
I0414 16:29:31.419183  2087 net.cpp:434] conv1_postscale <- conv1
I0414 16:29:31.419188  2087 net.cpp:395] conv1_postscale -> conv1 (in-place)
I0414 16:29:31.419283  2087 net.cpp:150] Setting up conv1_postscale
I0414 16:29:31.419292  2087 net.cpp:157] Top shape: 1024 100 42 42 (180633600)
I0414 16:29:31.419296  2087 net.cpp:165] Memory required for data: 2918465536
I0414 16:29:31.419301  2087 layer_factory.hpp:77] Creating layer pool1
I0414 16:29:31.419308  2087 net.cpp:100] Creating Layer pool1
I0414 16:29:31.419312  2087 net.cpp:434] pool1 <- conv1
I0414 16:29:31.419317  2087 net.cpp:408] pool1 -> pool1
I0414 16:29:31.419364  2087 net.cpp:150] Setting up pool1
I0414 16:29:31.419371  2087 net.cpp:157] Top shape: 1024 100 21 21 (45158400)
I0414 16:29:31.419375  2087 net.cpp:165] Memory required for data: 3099099136
I0414 16:29:31.419379  2087 layer_factory.hpp:77] Creating layer conv2
I0414 16:29:31.419389  2087 net.cpp:100] Creating Layer conv2
I0414 16:29:31.419394  2087 net.cpp:434] conv2 <- pool1
I0414 16:29:31.419399  2087 net.cpp:408] conv2 -> conv2
I0414 16:29:31.423756  2087 net.cpp:150] Setting up conv2
I0414 16:29:31.423774  2087 net.cpp:157] Top shape: 1024 150 18 18 (49766400)
I0414 16:29:31.423779  2087 net.cpp:165] Memory required for data: 3298164736
I0414 16:29:31.423789  2087 layer_factory.hpp:77] Creating layer conv2_prescale
I0414 16:29:31.423800  2087 net.cpp:100] Creating Layer conv2_prescale
I0414 16:29:31.423805  2087 net.cpp:434] conv2_prescale <- conv2
I0414 16:29:31.423810  2087 net.cpp:395] conv2_prescale -> conv2 (in-place)
I0414 16:29:31.423926  2087 net.cpp:150] Setting up conv2_prescale
I0414 16:29:31.423936  2087 net.cpp:157] Top shape: 1024 150 18 18 (49766400)
I0414 16:29:31.423939  2087 net.cpp:165] Memory required for data: 3497230336
I0414 16:29:31.423944  2087 layer_factory.hpp:77] Creating layer conv2_sTanH
I0414 16:29:31.423954  2087 net.cpp:100] Creating Layer conv2_sTanH
I0414 16:29:31.423959  2087 net.cpp:434] conv2_sTanH <- conv2
I0414 16:29:31.423964  2087 net.cpp:395] conv2_sTanH -> conv2 (in-place)
I0414 16:29:31.424711  2087 net.cpp:150] Setting up conv2_sTanH
I0414 16:29:31.424728  2087 net.cpp:157] Top shape: 1024 150 18 18 (49766400)
I0414 16:29:31.424733  2087 net.cpp:165] Memory required for data: 3696295936
I0414 16:29:31.424737  2087 layer_factory.hpp:77] Creating layer conv2_postscale
I0414 16:29:31.424744  2087 net.cpp:100] Creating Layer conv2_postscale
I0414 16:29:31.424749  2087 net.cpp:434] conv2_postscale <- conv2
I0414 16:29:31.424754  2087 net.cpp:395] conv2_postscale -> conv2 (in-place)
I0414 16:29:31.424852  2087 net.cpp:150] Setting up conv2_postscale
I0414 16:29:31.424860  2087 net.cpp:157] Top shape: 1024 150 18 18 (49766400)
I0414 16:29:31.424863  2087 net.cpp:165] Memory required for data: 3895361536
I0414 16:29:31.424868  2087 layer_factory.hpp:77] Creating layer pool2
I0414 16:29:31.424875  2087 net.cpp:100] Creating Layer pool2
I0414 16:29:31.424880  2087 net.cpp:434] pool2 <- conv2
I0414 16:29:31.424885  2087 net.cpp:408] pool2 -> pool2
I0414 16:29:31.424924  2087 net.cpp:150] Setting up pool2
I0414 16:29:31.424932  2087 net.cpp:157] Top shape: 1024 150 9 9 (12441600)
I0414 16:29:31.424935  2087 net.cpp:165] Memory required for data: 3945127936
I0414 16:29:31.424938  2087 layer_factory.hpp:77] Creating layer conv3
I0414 16:29:31.424945  2087 net.cpp:100] Creating Layer conv3
I0414 16:29:31.424949  2087 net.cpp:434] conv3 <- pool2
I0414 16:29:31.424954  2087 net.cpp:408] conv3 -> conv3
I0414 16:29:31.430557  2087 net.cpp:150] Setting up conv3
I0414 16:29:31.430575  2087 net.cpp:157] Top shape: 1024 250 6 6 (9216000)
I0414 16:29:31.430579  2087 net.cpp:165] Memory required for data: 3981991936
I0414 16:29:31.430603  2087 layer_factory.hpp:77] Creating layer conv3_prescale
I0414 16:29:31.430614  2087 net.cpp:100] Creating Layer conv3_prescale
I0414 16:29:31.430619  2087 net.cpp:434] conv3_prescale <- conv3
I0414 16:29:31.430624  2087 net.cpp:395] conv3_prescale -> conv3 (in-place)
I0414 16:29:31.430728  2087 net.cpp:150] Setting up conv3_prescale
I0414 16:29:31.430738  2087 net.cpp:157] Top shape: 1024 250 6 6 (9216000)
I0414 16:29:31.430742  2087 net.cpp:165] Memory required for data: 4018855936
I0414 16:29:31.430747  2087 layer_factory.hpp:77] Creating layer conv3_sTanH
I0414 16:29:31.430752  2087 net.cpp:100] Creating Layer conv3_sTanH
I0414 16:29:31.430754  2087 net.cpp:434] conv3_sTanH <- conv3
I0414 16:29:31.430760  2087 net.cpp:395] conv3_sTanH -> conv3 (in-place)
I0414 16:29:31.431535  2087 net.cpp:150] Setting up conv3_sTanH
I0414 16:29:31.431552  2087 net.cpp:157] Top shape: 1024 250 6 6 (9216000)
I0414 16:29:31.431555  2087 net.cpp:165] Memory required for data: 4055719936
I0414 16:29:31.431560  2087 layer_factory.hpp:77] Creating layer conv3_postscale
I0414 16:29:31.431568  2087 net.cpp:100] Creating Layer conv3_postscale
I0414 16:29:31.431571  2087 net.cpp:434] conv3_postscale <- conv3
I0414 16:29:31.431577  2087 net.cpp:395] conv3_postscale -> conv3 (in-place)
I0414 16:29:31.431681  2087 net.cpp:150] Setting up conv3_postscale
I0414 16:29:31.431690  2087 net.cpp:157] Top shape: 1024 250 6 6 (9216000)
I0414 16:29:31.431694  2087 net.cpp:165] Memory required for data: 4092583936
I0414 16:29:31.431699  2087 layer_factory.hpp:77] Creating layer pool3
I0414 16:29:31.431709  2087 net.cpp:100] Creating Layer pool3
I0414 16:29:31.431713  2087 net.cpp:434] pool3 <- conv3
I0414 16:29:31.431718  2087 net.cpp:408] pool3 -> pool3
I0414 16:29:31.431759  2087 net.cpp:150] Setting up pool3
I0414 16:29:31.431767  2087 net.cpp:157] Top shape: 1024 250 3 3 (2304000)
I0414 16:29:31.431771  2087 net.cpp:165] Memory required for data: 4101799936
I0414 16:29:31.431773  2087 layer_factory.hpp:77] Creating layer fc4_300
I0414 16:29:31.431782  2087 net.cpp:100] Creating Layer fc4_300
I0414 16:29:31.431785  2087 net.cpp:434] fc4_300 <- pool3
I0414 16:29:31.431789  2087 net.cpp:408] fc4_300 -> fc4_300
I0414 16:29:31.437261  2087 net.cpp:150] Setting up fc4_300
I0414 16:29:31.437278  2087 net.cpp:157] Top shape: 1024 300 (307200)
I0414 16:29:31.437283  2087 net.cpp:165] Memory required for data: 4103028736
I0414 16:29:31.437289  2087 layer_factory.hpp:77] Creating layer fc4_prescale
I0414 16:29:31.437299  2087 net.cpp:100] Creating Layer fc4_prescale
I0414 16:29:31.437301  2087 net.cpp:434] fc4_prescale <- fc4_300
I0414 16:29:31.437309  2087 net.cpp:395] fc4_prescale -> fc4_300 (in-place)
I0414 16:29:31.437399  2087 net.cpp:150] Setting up fc4_prescale
I0414 16:29:31.437408  2087 net.cpp:157] Top shape: 1024 300 (307200)
I0414 16:29:31.437410  2087 net.cpp:165] Memory required for data: 4104257536
I0414 16:29:31.437415  2087 layer_factory.hpp:77] Creating layer fc4_sTanH
I0414 16:29:31.437422  2087 net.cpp:100] Creating Layer fc4_sTanH
I0414 16:29:31.437428  2087 net.cpp:434] fc4_sTanH <- fc4_300
I0414 16:29:31.437433  2087 net.cpp:395] fc4_sTanH -> fc4_300 (in-place)
I0414 16:29:31.437624  2087 net.cpp:150] Setting up fc4_sTanH
I0414 16:29:31.437636  2087 net.cpp:157] Top shape: 1024 300 (307200)
I0414 16:29:31.437639  2087 net.cpp:165] Memory required for data: 4105486336
I0414 16:29:31.437643  2087 layer_factory.hpp:77] Creating layer fc4_postscale
I0414 16:29:31.437650  2087 net.cpp:100] Creating Layer fc4_postscale
I0414 16:29:31.437655  2087 net.cpp:434] fc4_postscale <- fc4_300
I0414 16:29:31.437661  2087 net.cpp:395] fc4_postscale -> fc4_300 (in-place)
I0414 16:29:31.437763  2087 net.cpp:150] Setting up fc4_postscale
I0414 16:29:31.437772  2087 net.cpp:157] Top shape: 1024 300 (307200)
I0414 16:29:31.437774  2087 net.cpp:165] Memory required for data: 4106715136
I0414 16:29:31.437778  2087 layer_factory.hpp:77] Creating layer fc5_106
I0414 16:29:31.437789  2087 net.cpp:100] Creating Layer fc5_106
I0414 16:29:31.437806  2087 net.cpp:434] fc5_106 <- fc4_300
I0414 16:29:31.437814  2087 net.cpp:408] fc5_106 -> fc5_classes
I0414 16:29:31.439160  2087 net.cpp:150] Setting up fc5_106
I0414 16:29:31.439177  2087 net.cpp:157] Top shape: 1024 106 (108544)
I0414 16:29:31.439180  2087 net.cpp:165] Memory required for data: 4107149312
I0414 16:29:31.439193  2087 layer_factory.hpp:77] Creating layer fc5_classes_fc5_106_0_split
I0414 16:29:31.439201  2087 net.cpp:100] Creating Layer fc5_classes_fc5_106_0_split
I0414 16:29:31.439208  2087 net.cpp:434] fc5_classes_fc5_106_0_split <- fc5_classes
I0414 16:29:31.439213  2087 net.cpp:408] fc5_classes_fc5_106_0_split -> fc5_classes_fc5_106_0_split_0
I0414 16:29:31.439220  2087 net.cpp:408] fc5_classes_fc5_106_0_split -> fc5_classes_fc5_106_0_split_1
I0414 16:29:31.439226  2087 net.cpp:408] fc5_classes_fc5_106_0_split -> fc5_classes_fc5_106_0_split_2
I0414 16:29:31.439283  2087 net.cpp:150] Setting up fc5_classes_fc5_106_0_split
I0414 16:29:31.439291  2087 net.cpp:157] Top shape: 1024 106 (108544)
I0414 16:29:31.439296  2087 net.cpp:157] Top shape: 1024 106 (108544)
I0414 16:29:31.439299  2087 net.cpp:157] Top shape: 1024 106 (108544)
I0414 16:29:31.439301  2087 net.cpp:165] Memory required for data: 4108451840
I0414 16:29:31.439304  2087 layer_factory.hpp:77] Creating layer softmax
I0414 16:29:31.439311  2087 net.cpp:100] Creating Layer softmax
I0414 16:29:31.439313  2087 net.cpp:434] softmax <- fc5_classes_fc5_106_0_split_0
I0414 16:29:31.439319  2087 net.cpp:408] softmax -> softmax
I0414 16:29:31.439577  2087 net.cpp:150] Setting up softmax
I0414 16:29:31.439590  2087 net.cpp:157] Top shape: 1024 106 (108544)
I0414 16:29:31.439594  2087 net.cpp:165] Memory required for data: 4108886016
I0414 16:29:31.439596  2087 layer_factory.hpp:77] Creating layer loss
I0414 16:29:31.439604  2087 net.cpp:100] Creating Layer loss
I0414 16:29:31.439610  2087 net.cpp:434] loss <- softmax
I0414 16:29:31.439613  2087 net.cpp:434] loss <- label_data_1_split_0
I0414 16:29:31.439620  2087 net.cpp:408] loss -> loss
…
