…
I0414 14:41:09.824858 22814 solver.cpp:93] Creating training net from train_net file: ./Prototxt/experiment_10/rtsd-r3/orig/trial_3/train.prototxt
I0414 14:41:09.840423 22814 net.cpp:58] Initializing net from parameters: 
state {
  phase: TRAIN
  level: 0
  stage: ""
}
layer {
  name: "data"
  type: "Data"
  top: "data"
  top: "label"
  include {
    phase: TRAIN
  }
  transform_param {
    scale: 0.0039215689
    mirror: false
    crop_size: 48
    mean_value: 120
    mean_value: 113
    mean_value: 112
  }
  data_param {
    source: "../local_data/lmdb/rtsd-r3/orig/train/lmdb"
    batch_size: 1024
    backend: LMDB
  }
}
layer {
  name: "conv1"
  type: "Convolution"
  bottom: "data"
  top: "conv1"
  convolution_param {
    num_output: 100
    pad: 0
    kernel_size: 7
    group: 1
    stride: 1
    weight_filler {
      type: "xavier"
    }
  }
}
layer {
  name: "conv1_relu"
  type: "ReLU"
  bottom: "conv1"
  top: "conv1"
}
layer {
  name: "pool1"
  type: "Pooling"
  bottom: "conv1"
  top: "pool1"
  pooling_param {
    pool: MAX
    kernel_size: 2
    stride: 2
  }
}
layer {
  name: "conv2"
  type: "Convolution"
  bottom: "pool1"
  top: "conv2"
  convolution_param {
    num_output: 150
    pad: 0
    kernel_size: 4
    group: 1
    stride: 1
    weight_filler {
      type: "xavier"
    }
  }
}
layer {
  name: "conv2_relu"
  type: "ReLU"
  bottom: "conv2"
  top: "conv2"
}
layer {
  name: "pool2"
  type: "Pooling"
  bottom: "conv2"
  top: "pool2"
  pooling_param {
    pool: MAX
    kernel_size: 2
    stride: 2
  }
}
layer {
  name: "conv3"
  type: "Convolution"
  bottom: "pool2"
  top: "conv3"
  convolution_param {
    num_output: 250
    pad: 0
    kernel_size: 4
    group: 1
    stride: 1
    weight_filler {
      type: "xavier"
    }
  }
}
layer {
  name: "conv3_relu"
  type: "ReLU"
  bottom: "conv3"
  top: "conv3"
}
layer {
  name: "pool3"
  type: "Pooling"
  bottom: "conv3"
  top: "pool3"
  pooling_param {
    pool: MAX
    kernel_size: 2
    stride: 2
  }
}
layer {
  name: "fc4_300"
  type: "InnerProduct"
  bottom: "pool3"
  top: "fc4_300"
  inner_product_param {
    num_output: 300
    weight_filler {
      type: "xavier"
    }
  }
}
layer {
  name: "fc4_relu"
  type: "ReLU"
  bottom: "fc4_300"
  top: "fc4_300"
}
layer {
  name: "fc5_106"
  type: "InnerProduct"
  bottom: "fc4_300"
  top: "fc5_classes"
  inner_product_param {
    num_output: 106
    weight_filler {
      type: "xavier"
    }
  }
}
layer {
  name: "softmax"
  type: "Softmax"
  bottom: "fc5_classes"
  top: "softmax"
}
layer {
  name: "loss"
  type: "MultinomialLogisticLoss"
  bottom: "softmax"
  bottom: "label"
  top: "loss"
}
layer {
  name: "accuracy_1"
  type: "Accuracy"
  bottom: "fc5_classes"
  bottom: "label"
  top: "accuracy_1"
  accuracy_param {
    top_k: 1
  }
}
layer {
  name: "accuracy_5"
  type: "Accuracy"
  bottom: "fc5_classes"
  bottom: "label"
  top: "accuracy_5"
  accuracy_param {
    top_k: 5
  }
}
layer {
  name: "silence"
  type: "Silence"
  bottom: "accuracy_1"
  bottom: "accuracy_5"
}
I0414 14:41:09.840545 22814 layer_factory.hpp:77] Creating layer data
I0414 14:41:09.841647 22814 net.cpp:100] Creating Layer data
I0414 14:41:09.841665 22814 net.cpp:408] data -> data
I0414 14:41:09.841687 22814 net.cpp:408] data -> label
I0414 14:41:09.842721 22934 db_lmdb.cpp:35] Opened lmdb ../local_data/lmdb/rtsd-r3/orig/train/lmdb
I0414 14:41:09.864583 22814 data_layer.cpp:41] output data size: 1024,3,48,48
I0414 14:41:09.930815 22814 net.cpp:150] Setting up data
I0414 14:41:09.930871 22814 net.cpp:157] Top shape: 1024 3 48 48 (7077888)
I0414 14:41:09.930877 22814 net.cpp:157] Top shape: 1024 (1024)
I0414 14:41:09.930881 22814 net.cpp:165] Memory required for data: 28315648
I0414 14:41:09.930892 22814 layer_factory.hpp:77] Creating layer label_data_1_split
I0414 14:41:09.930907 22814 net.cpp:100] Creating Layer label_data_1_split
I0414 14:41:09.930915 22814 net.cpp:434] label_data_1_split <- label
I0414 14:41:09.930930 22814 net.cpp:408] label_data_1_split -> label_data_1_split_0
I0414 14:41:09.930943 22814 net.cpp:408] label_data_1_split -> label_data_1_split_1
I0414 14:41:09.930951 22814 net.cpp:408] label_data_1_split -> label_data_1_split_2
I0414 14:41:09.931016 22814 net.cpp:150] Setting up label_data_1_split
I0414 14:41:09.931025 22814 net.cpp:157] Top shape: 1024 (1024)
I0414 14:41:09.931030 22814 net.cpp:157] Top shape: 1024 (1024)
I0414 14:41:09.931035 22814 net.cpp:157] Top shape: 1024 (1024)
I0414 14:41:09.931036 22814 net.cpp:165] Memory required for data: 28327936
I0414 14:41:09.931041 22814 layer_factory.hpp:77] Creating layer conv1
I0414 14:41:09.931057 22814 net.cpp:100] Creating Layer conv1
I0414 14:41:09.931061 22814 net.cpp:434] conv1 <- data
I0414 14:41:09.931067 22814 net.cpp:408] conv1 -> conv1
I0414 14:41:10.387135 22814 net.cpp:150] Setting up conv1
I0414 14:41:10.387164 22814 net.cpp:157] Top shape: 1024 100 42 42 (180633600)
I0414 14:41:10.387168 22814 net.cpp:165] Memory required for data: 750862336
I0414 14:41:10.387192 22814 layer_factory.hpp:77] Creating layer conv1_relu
I0414 14:41:10.387202 22814 net.cpp:100] Creating Layer conv1_relu
I0414 14:41:10.387207 22814 net.cpp:434] conv1_relu <- conv1
I0414 14:41:10.387212 22814 net.cpp:395] conv1_relu -> conv1 (in-place)
I0414 14:41:10.387418 22814 net.cpp:150] Setting up conv1_relu
I0414 14:41:10.387430 22814 net.cpp:157] Top shape: 1024 100 42 42 (180633600)
I0414 14:41:10.387435 22814 net.cpp:165] Memory required for data: 1473396736
I0414 14:41:10.387439 22814 layer_factory.hpp:77] Creating layer pool1
I0414 14:41:10.387449 22814 net.cpp:100] Creating Layer pool1
I0414 14:41:10.387454 22814 net.cpp:434] pool1 <- conv1
I0414 14:41:10.387459 22814 net.cpp:408] pool1 -> pool1
I0414 14:41:10.387514 22814 net.cpp:150] Setting up pool1
I0414 14:41:10.387523 22814 net.cpp:157] Top shape: 1024 100 21 21 (45158400)
I0414 14:41:10.387528 22814 net.cpp:165] Memory required for data: 1654030336
I0414 14:41:10.387531 22814 layer_factory.hpp:77] Creating layer conv2
I0414 14:41:10.387542 22814 net.cpp:100] Creating Layer conv2
I0414 14:41:10.387547 22814 net.cpp:434] conv2 <- pool1
I0414 14:41:10.387552 22814 net.cpp:408] conv2 -> conv2
I0414 14:41:10.402196 22814 net.cpp:150] Setting up conv2
I0414 14:41:10.402215 22814 net.cpp:157] Top shape: 1024 150 18 18 (49766400)
I0414 14:41:10.402218 22814 net.cpp:165] Memory required for data: 1853095936
I0414 14:41:10.402228 22814 layer_factory.hpp:77] Creating layer conv2_relu
I0414 14:41:10.402236 22814 net.cpp:100] Creating Layer conv2_relu
I0414 14:41:10.402240 22814 net.cpp:434] conv2_relu <- conv2
I0414 14:41:10.402245 22814 net.cpp:395] conv2_relu -> conv2 (in-place)
I0414 14:41:10.409067 22814 net.cpp:150] Setting up conv2_relu
I0414 14:41:10.409086 22814 net.cpp:157] Top shape: 1024 150 18 18 (49766400)
I0414 14:41:10.409090 22814 net.cpp:165] Memory required for data: 2052161536
I0414 14:41:10.409093 22814 layer_factory.hpp:77] Creating layer pool2
I0414 14:41:10.409101 22814 net.cpp:100] Creating Layer pool2
I0414 14:41:10.409106 22814 net.cpp:434] pool2 <- conv2
I0414 14:41:10.409112 22814 net.cpp:408] pool2 -> pool2
I0414 14:41:10.409165 22814 net.cpp:150] Setting up pool2
I0414 14:41:10.409174 22814 net.cpp:157] Top shape: 1024 150 9 9 (12441600)
I0414 14:41:10.409178 22814 net.cpp:165] Memory required for data: 2101927936
I0414 14:41:10.409181 22814 layer_factory.hpp:77] Creating layer conv3
I0414 14:41:10.409193 22814 net.cpp:100] Creating Layer conv3
I0414 14:41:10.409198 22814 net.cpp:434] conv3 <- pool2
I0414 14:41:10.409202 22814 net.cpp:408] conv3 -> conv3
I0414 14:41:10.415263 22814 net.cpp:150] Setting up conv3
I0414 14:41:10.415282 22814 net.cpp:157] Top shape: 1024 250 6 6 (9216000)
I0414 14:41:10.415287 22814 net.cpp:165] Memory required for data: 2138791936
I0414 14:41:10.415297 22814 layer_factory.hpp:77] Creating layer conv3_relu
I0414 14:41:10.415307 22814 net.cpp:100] Creating Layer conv3_relu
I0414 14:41:10.415311 22814 net.cpp:434] conv3_relu <- conv3
I0414 14:41:10.415316 22814 net.cpp:395] conv3_relu -> conv3 (in-place)
I0414 14:41:10.416080 22814 net.cpp:150] Setting up conv3_relu
I0414 14:41:10.416096 22814 net.cpp:157] Top shape: 1024 250 6 6 (9216000)
I0414 14:41:10.416100 22814 net.cpp:165] Memory required for data: 2175655936
I0414 14:41:10.416103 22814 layer_factory.hpp:77] Creating layer pool3
I0414 14:41:10.416111 22814 net.cpp:100] Creating Layer pool3
I0414 14:41:10.416116 22814 net.cpp:434] pool3 <- conv3
I0414 14:41:10.416122 22814 net.cpp:408] pool3 -> pool3
I0414 14:41:10.416170 22814 net.cpp:150] Setting up pool3
I0414 14:41:10.416179 22814 net.cpp:157] Top shape: 1024 250 3 3 (2304000)
I0414 14:41:10.416183 22814 net.cpp:165] Memory required for data: 2184871936
I0414 14:41:10.416187 22814 layer_factory.hpp:77] Creating layer fc4_300
I0414 14:41:10.416193 22814 net.cpp:100] Creating Layer fc4_300
I0414 14:41:10.416198 22814 net.cpp:434] fc4_300 <- pool3
I0414 14:41:10.416203 22814 net.cpp:408] fc4_300 -> fc4_300
I0414 14:41:10.421527 22814 net.cpp:150] Setting up fc4_300
I0414 14:41:10.421545 22814 net.cpp:157] Top shape: 1024 300 (307200)
I0414 14:41:10.421547 22814 net.cpp:165] Memory required for data: 2186100736
I0414 14:41:10.421555 22814 layer_factory.hpp:77] Creating layer fc4_relu
I0414 14:41:10.421562 22814 net.cpp:100] Creating Layer fc4_relu
I0414 14:41:10.421567 22814 net.cpp:434] fc4_relu <- fc4_300
I0414 14:41:10.421572 22814 net.cpp:395] fc4_relu -> fc4_300 (in-place)
I0414 14:41:10.421761 22814 net.cpp:150] Setting up fc4_relu
I0414 14:41:10.421772 22814 net.cpp:157] Top shape: 1024 300 (307200)
I0414 14:41:10.421777 22814 net.cpp:165] Memory required for data: 2187329536
I0414 14:41:10.421780 22814 layer_factory.hpp:77] Creating layer fc5_106
I0414 14:41:10.421787 22814 net.cpp:100] Creating Layer fc5_106
I0414 14:41:10.421792 22814 net.cpp:434] fc5_106 <- fc4_300
I0414 14:41:10.421797 22814 net.cpp:408] fc5_106 -> fc5_classes
I0414 14:41:10.423050 22814 net.cpp:150] Setting up fc5_106
I0414 14:41:10.423065 22814 net.cpp:157] Top shape: 1024 106 (108544)
I0414 14:41:10.423070 22814 net.cpp:165] Memory required for data: 2187763712
I0414 14:41:10.423080 22814 layer_factory.hpp:77] Creating layer fc5_classes_fc5_106_0_split
I0414 14:41:10.423089 22814 net.cpp:100] Creating Layer fc5_classes_fc5_106_0_split
I0414 14:41:10.423094 22814 net.cpp:434] fc5_classes_fc5_106_0_split <- fc5_classes
I0414 14:41:10.423100 22814 net.cpp:408] fc5_classes_fc5_106_0_split -> fc5_classes_fc5_106_0_split_0
I0414 14:41:10.423110 22814 net.cpp:408] fc5_classes_fc5_106_0_split -> fc5_classes_fc5_106_0_split_1
I0414 14:41:10.423116 22814 net.cpp:408] fc5_classes_fc5_106_0_split -> fc5_classes_fc5_106_0_split_2
I0414 14:41:10.423167 22814 net.cpp:150] Setting up fc5_classes_fc5_106_0_split
I0414 14:41:10.423174 22814 net.cpp:157] Top shape: 1024 106 (108544)
I0414 14:41:10.423178 22814 net.cpp:157] Top shape: 1024 106 (108544)
I0414 14:41:10.423183 22814 net.cpp:157] Top shape: 1024 106 (108544)
I0414 14:41:10.423187 22814 net.cpp:165] Memory required for data: 2189066240
I0414 14:41:10.423189 22814 layer_factory.hpp:77] Creating layer softmax
I0414 14:41:10.423195 22814 net.cpp:100] Creating Layer softmax
I0414 14:41:10.423200 22814 net.cpp:434] softmax <- fc5_classes_fc5_106_0_split_0
I0414 14:41:10.423205 22814 net.cpp:408] softmax -> softmax
I0414 14:41:10.423455 22814 net.cpp:150] Setting up softmax
I0414 14:41:10.423467 22814 net.cpp:157] Top shape: 1024 106 (108544)
I0414 14:41:10.423471 22814 net.cpp:165] Memory required for data: 2189500416
I0414 14:41:10.423475 22814 layer_factory.hpp:77] Creating layer loss
I0414 14:41:10.423501 22814 net.cpp:100] Creating Layer loss
I0414 14:41:10.423506 22814 net.cpp:434] loss <- softmax
I0414 14:41:10.423511 22814 net.cpp:434] loss <- label_data_1_split_0
I0414 14:41:10.423517 22814 net.cpp:408] loss -> loss
…
