…
I0402 03:05:52.130187 23105 net.cpp:322] The NetState phase (0) differed from the phase (1) specified by a rule in layer accuracy_5
I0402 03:05:52.130282 23105 net.cpp:58] Initializing net from parameters: 
state {
  phase: TRAIN
  level: 0
  stage: ""
}
layer {
  name: "data"
  type: "Data"
  top: "data"
  top: "label"
  include {
    phase: TRAIN
  }
  transform_param {
    mirror: false
    crop_size: 48
    mean_value: 115
    mean_value: 108
    mean_value: 122
  }
  data_param {
    source: "../local_data/lmdb/rtsd-r1/imajust/train/lmdb"
    batch_size: 1024
    backend: LMDB
  }
}
layer {
  name: "conv1"
  type: "Convolution"
  bottom: "data"
  top: "conv1"
  convolution_param {
    num_output: 100
    pad: 0
    kernel_size: 7
    group: 1
    stride: 1
    weight_filler {
      type: "xavier"
    }
  }
}
layer {
  name: "conv1_relu"
  type: "ReLU"
  bottom: "conv1"
  top: "conv1"
}
layer {
  name: "pool1"
  type: "Pooling"
  bottom: "conv1"
  top: "pool1"
  pooling_param {
    pool: MAX
    kernel_size: 2
    stride: 2
  }
}
layer {
  name: "conv2"
  type: "Convolution"
  bottom: "pool1"
  top: "conv2"
  convolution_param {
    num_output: 150
    pad: 0
    kernel_size: 4
    group: 1
    stride: 1
    weight_filler {
      type: "xavier"
    }
  }
}
layer {
  name: "conv2_relu"
  type: "ReLU"
  bottom: "conv2"
  top: "conv2"
}
layer {
  name: "pool2"
  type: "Pooling"
  bottom: "conv2"
  top: "pool2"
  pooling_param {
    pool: MAX
    kernel_size: 2
    stride: 2
  }
}
layer {
  name: "conv3"
  type: "Convolution"
  bottom: "pool2"
  top: "conv3"
  convolution_param {
    num_output: 250
    pad: 0
    kernel_size: 4
    group: 1
    stride: 1
    weight_filler {
      type: "xavier"
    }
  }
}
layer {
  name: "conv3_relu"
  type: "ReLU"
  bottom: "conv3"
  top: "conv3"
}
layer {
  name: "pool3"
  type: "Pooling"
  bottom: "conv3"
  top: "pool3"
  pooling_param {
    pool: MAX
    kernel_size: 2
    stride: 2
  }
}
layer {
  name: "fc4_300"
  type: "InnerProduct"
  bottom: "pool3"
  top: "fc4_300"
  inner_product_param {
    num_output: 300
    weight_filler {
      type: "xavier"
    }
  }
}
layer {
  name: "fc4_relu"
  type: "ReLU"
  bottom: "fc4_300"
  top: "fc4_300"
}
layer {
  name: "drop4"
  type: "Dropout"
  bottom: "fc4_300"
  top: "fc4_300"
  dropout_param {
    dropout_ratio: 0.4
  }
}
layer {
  name: "fc5_67"
  type: "InnerProduct"
  bottom: "fc4_300"
  top: "fc5_classes"
  inner_product_param {
    num_output: 67
    weight_filler {
      type: "xavier"
    }
  }
}
layer {
  name: "loss"
  type: "SoftmaxWithLoss"
  bottom: "fc5_classes"
  bottom: "label"
  top: "loss"
}
I0402 03:05:52.130378 23105 layer_factory.hpp:77] Creating layer data
I0402 03:05:52.131536 23105 net.cpp:100] Creating Layer data
I0402 03:05:52.131553 23105 net.cpp:408] data -> data
I0402 03:05:52.131583 23105 net.cpp:408] data -> label
I0402 03:05:52.142592 23147 db_lmdb.cpp:35] Opened lmdb ../local_data/lmdb/rtsd-r1/imajust/train/lmdb
I0402 03:05:52.159550 23105 data_layer.cpp:41] output data size: 1024,3,48,48
I0402 03:05:52.211480 23105 net.cpp:150] Setting up data
I0402 03:05:52.211519 23105 net.cpp:157] Top shape: 1024 3 48 48 (7077888)
I0402 03:05:52.211527 23105 net.cpp:157] Top shape: 1024 (1024)
I0402 03:05:52.211556 23105 net.cpp:165] Memory required for data: 28315648
I0402 03:05:52.211572 23105 layer_factory.hpp:77] Creating layer conv1
I0402 03:05:52.211606 23105 net.cpp:100] Creating Layer conv1
I0402 03:05:52.211614 23105 net.cpp:434] conv1 <- data
I0402 03:05:52.211633 23105 net.cpp:408] conv1 -> conv1
I0402 03:05:52.484946 23105 net.cpp:150] Setting up conv1
I0402 03:05:52.484975 23105 net.cpp:157] Top shape: 1024 100 42 42 (180633600)
I0402 03:05:52.484982 23105 net.cpp:165] Memory required for data: 750850048
I0402 03:05:52.485024 23105 layer_factory.hpp:77] Creating layer conv1_relu
I0402 03:05:52.485044 23105 net.cpp:100] Creating Layer conv1_relu
I0402 03:05:52.485052 23105 net.cpp:434] conv1_relu <- conv1
I0402 03:05:52.485064 23105 net.cpp:395] conv1_relu -> conv1 (in-place)
I0402 03:05:52.485270 23105 net.cpp:150] Setting up conv1_relu
I0402 03:05:52.485285 23105 net.cpp:157] Top shape: 1024 100 42 42 (180633600)
I0402 03:05:52.485291 23105 net.cpp:165] Memory required for data: 1473384448
I0402 03:05:52.485296 23105 layer_factory.hpp:77] Creating layer pool1
I0402 03:05:52.485307 23105 net.cpp:100] Creating Layer pool1
I0402 03:05:52.485314 23105 net.cpp:434] pool1 <- conv1
I0402 03:05:52.485323 23105 net.cpp:408] pool1 -> pool1
I0402 03:05:52.485385 23105 net.cpp:150] Setting up pool1
I0402 03:05:52.485397 23105 net.cpp:157] Top shape: 1024 100 21 21 (45158400)
I0402 03:05:52.485404 23105 net.cpp:165] Memory required for data: 1654018048
I0402 03:05:52.485409 23105 layer_factory.hpp:77] Creating layer conv2
I0402 03:05:52.485425 23105 net.cpp:100] Creating Layer conv2
I0402 03:05:52.485432 23105 net.cpp:434] conv2 <- pool1
I0402 03:05:52.485441 23105 net.cpp:408] conv2 -> conv2
I0402 03:05:52.490463 23105 net.cpp:150] Setting up conv2
I0402 03:05:52.490483 23105 net.cpp:157] Top shape: 1024 150 18 18 (49766400)
I0402 03:05:52.490489 23105 net.cpp:165] Memory required for data: 1853083648
I0402 03:05:52.490515 23105 layer_factory.hpp:77] Creating layer conv2_relu
I0402 03:05:52.490526 23105 net.cpp:100] Creating Layer conv2_relu
I0402 03:05:52.490543 23105 net.cpp:434] conv2_relu <- conv2
I0402 03:05:52.490551 23105 net.cpp:395] conv2_relu -> conv2 (in-place)
I0402 03:05:52.491351 23105 net.cpp:150] Setting up conv2_relu
I0402 03:05:52.491369 23105 net.cpp:157] Top shape: 1024 150 18 18 (49766400)
I0402 03:05:52.491374 23105 net.cpp:165] Memory required for data: 2052149248
I0402 03:05:52.491390 23105 layer_factory.hpp:77] Creating layer pool2
I0402 03:05:52.491402 23105 net.cpp:100] Creating Layer pool2
I0402 03:05:52.491408 23105 net.cpp:434] pool2 <- conv2
I0402 03:05:52.491428 23105 net.cpp:408] pool2 -> pool2
I0402 03:05:52.491482 23105 net.cpp:150] Setting up pool2
I0402 03:05:52.491492 23105 net.cpp:157] Top shape: 1024 150 9 9 (12441600)
I0402 03:05:52.491498 23105 net.cpp:165] Memory required for data: 2101915648
I0402 03:05:52.491503 23105 layer_factory.hpp:77] Creating layer conv3
I0402 03:05:52.491515 23105 net.cpp:100] Creating Layer conv3
I0402 03:05:52.491523 23105 net.cpp:434] conv3 <- pool2
I0402 03:05:52.491530 23105 net.cpp:408] conv3 -> conv3
I0402 03:05:52.496881 23105 net.cpp:150] Setting up conv3
I0402 03:05:52.496898 23105 net.cpp:157] Top shape: 1024 250 6 6 (9216000)
I0402 03:05:52.496904 23105 net.cpp:165] Memory required for data: 2138779648
I0402 03:05:52.496930 23105 layer_factory.hpp:77] Creating layer conv3_relu
I0402 03:05:52.496953 23105 net.cpp:100] Creating Layer conv3_relu
I0402 03:05:52.496963 23105 net.cpp:434] conv3_relu <- conv3
I0402 03:05:52.496970 23105 net.cpp:395] conv3_relu -> conv3 (in-place)
I0402 03:05:52.497772 23105 net.cpp:150] Setting up conv3_relu
I0402 03:05:52.497789 23105 net.cpp:157] Top shape: 1024 250 6 6 (9216000)
I0402 03:05:52.497795 23105 net.cpp:165] Memory required for data: 2175643648
I0402 03:05:52.497812 23105 layer_factory.hpp:77] Creating layer pool3
I0402 03:05:52.497822 23105 net.cpp:100] Creating Layer pool3
I0402 03:05:52.497828 23105 net.cpp:434] pool3 <- conv3
I0402 03:05:52.497848 23105 net.cpp:408] pool3 -> pool3
I0402 03:05:52.497907 23105 net.cpp:150] Setting up pool3
I0402 03:05:52.497933 23105 net.cpp:157] Top shape: 1024 250 3 3 (2304000)
I0402 03:05:52.497939 23105 net.cpp:165] Memory required for data: 2184859648
I0402 03:05:52.497946 23105 layer_factory.hpp:77] Creating layer fc4_300
I0402 03:05:52.497956 23105 net.cpp:100] Creating Layer fc4_300
I0402 03:05:52.497962 23105 net.cpp:434] fc4_300 <- pool3
I0402 03:05:52.497972 23105 net.cpp:408] fc4_300 -> fc4_300
I0402 03:05:52.503262 23105 net.cpp:150] Setting up fc4_300
I0402 03:05:52.503280 23105 net.cpp:157] Top shape: 1024 300 (307200)
I0402 03:05:52.503286 23105 net.cpp:165] Memory required for data: 2186088448
I0402 03:05:52.503298 23105 layer_factory.hpp:77] Creating layer fc4_relu
I0402 03:05:52.503307 23105 net.cpp:100] Creating Layer fc4_relu
I0402 03:05:52.503314 23105 net.cpp:434] fc4_relu <- fc4_300
I0402 03:05:52.503334 23105 net.cpp:395] fc4_relu -> fc4_300 (in-place)
I0402 03:05:52.503540 23105 net.cpp:150] Setting up fc4_relu
I0402 03:05:52.503554 23105 net.cpp:157] Top shape: 1024 300 (307200)
I0402 03:05:52.503561 23105 net.cpp:165] Memory required for data: 2187317248
I0402 03:05:52.503566 23105 layer_factory.hpp:77] Creating layer drop4
I0402 03:05:52.503576 23105 net.cpp:100] Creating Layer drop4
I0402 03:05:52.503584 23105 net.cpp:434] drop4 <- fc4_300
I0402 03:05:52.503593 23105 net.cpp:395] drop4 -> fc4_300 (in-place)
I0402 03:05:52.503634 23105 net.cpp:150] Setting up drop4
I0402 03:05:52.503644 23105 net.cpp:157] Top shape: 1024 300 (307200)
I0402 03:05:52.503650 23105 net.cpp:165] Memory required for data: 2188546048
I0402 03:05:52.503656 23105 layer_factory.hpp:77] Creating layer fc5_67
I0402 03:05:52.503665 23105 net.cpp:100] Creating Layer fc5_67
I0402 03:05:52.503672 23105 net.cpp:434] fc5_67 <- fc4_300
I0402 03:05:52.503681 23105 net.cpp:408] fc5_67 -> fc5_classes
I0402 03:05:52.504961 23105 net.cpp:150] Setting up fc5_67
I0402 03:05:52.504977 23105 net.cpp:157] Top shape: 1024 67 (68608)
I0402 03:05:52.504983 23105 net.cpp:165] Memory required for data: 2188820480
I0402 03:05:52.505009 23105 layer_factory.hpp:77] Creating layer loss
I0402 03:05:52.505019 23105 net.cpp:100] Creating Layer loss
I0402 03:05:52.505038 23105 net.cpp:434] loss <- fc5_classes
I0402 03:05:52.505046 23105 net.cpp:434] loss <- label
I0402 03:05:52.505058 23105 net.cpp:408] loss -> loss
I0402 03:05:52.505076 23105 layer_factory.hpp:77] Creating layer loss
…
I0402 03:05:52.505800 23105 solver.cpp:193] Creating test net (#0) specified by test_net file: ./Prototxt/rtsd-r1/imajust/test.prototxt
I0402 03:05:52.505954 23105 net.cpp:58] Initializing net from parameters: 
state {
  phase: TEST
}
layer {
  name: "data"
  type: "Data"
  top: "data"
  top: "label"
  include {
    phase: TEST
  }
  transform_param {
    mirror: false
    crop_size: 48
    mean_value: 109
    mean_value: 106
    mean_value: 126
  }
  data_param {
    source: "../local_data/lmdb/rtsd-r1/imajust/test/lmdb"
    batch_size: 1024
    backend: LMDB
  }
}
layer {
  name: "conv1"
  type: "Convolution"
  bottom: "data"
  top: "conv1"
  convolution_param {
    num_output: 100
    pad: 0
    kernel_size: 7
    group: 1
    stride: 1
    weight_filler {
      type: "xavier"
    }
  }
}
layer {
  name: "conv1_relu"
  type: "ReLU"
  bottom: "conv1"
  top: "conv1"
}
layer {
  name: "pool1"
  type: "Pooling"
  bottom: "conv1"
  top: "pool1"
  pooling_param {
    pool: MAX
    kernel_size: 2
    stride: 2
  }
}
layer {
  name: "conv2"
  type: "Convolution"
  bottom: "pool1"
  top: "conv2"
  convolution_param {
    num_output: 150
    pad: 0
    kernel_size: 4
    group: 1
    stride: 1
    weight_filler {
      type: "xavier"
    }
  }
}
layer {
  name: "conv2_relu"
  type: "ReLU"
  bottom: "conv2"
  top: "conv2"
}
layer {
  name: "pool2"
  type: "Pooling"
  bottom: "conv2"
  top: "pool2"
  pooling_param {
    pool: MAX
    kernel_size: 2
    stride: 2
  }
}
layer {
  name: "conv3"
  type: "Convolution"
  bottom: "pool2"
  top: "conv3"
  convolution_param {
    num_output: 250
    pad: 0
    kernel_size: 4
    group: 1
    stride: 1
    weight_filler {
      type: "xavier"
    }
  }
}
layer {
  name: "conv3_relu"
  type: "ReLU"
  bottom: "conv3"
  top: "conv3"
}
layer {
  name: "pool3"
  type: "Pooling"
  bottom: "conv3"
  top: "pool3"
  pooling_param {
    pool: MAX
    kernel_size: 2
    stride: 2
  }
}
layer {
  name: "fc4_300"
  type: "InnerProduct"
  bottom: "pool3"
  top: "fc4_300"
  inner_product_param {
    num_output: 300
    weight_filler {
      type: "xavier"
    }
  }
}
layer {
  name: "fc4_relu"
  type: "ReLU"
  bottom: "fc4_300"
  top: "fc4_300"
}
layer {
  name: "drop4"
  type: "Dropout"
  bottom: "fc4_300"
  top: "fc4_300"
  dropout_param {
    dropout_ratio: 0.4
  }
}
layer {
  name: "fc5_67"
  type: "InnerProduct"
  bottom: "fc4_300"
  top: "fc5_classes"
  inner_product_param {
    num_output: 67
    weight_filler {
      type: "xavier"
    }
  }
}
layer {
  name: "loss"
  type: "SoftmaxWithLoss"
  bottom: "fc5_classes"
  bottom: "label"
  top: "loss"
}
layer {
  name: "accuracy_1"
  type: "Accuracy"
  bottom: "fc5_classes"
  bottom: "label"
  top: "accuracy_1"
  include {
    phase: TEST
  }
  accuracy_param {
    top_k: 1
  }
}
layer {
  name: "accuracy_5"
  type: "Accuracy"
  bottom: "fc5_classes"
  bottom: "label"
  top: "accuracy_5"
  include {
    phase: TEST
  }
  accuracy_param {
    top_k: 5
  }
}
I0402 03:05:52.506068 23105 layer_factory.hpp:77] Creating layer data
I0402 03:05:52.506973 23105 net.cpp:100] Creating Layer data
I0402 03:05:52.507004 23105 net.cpp:408] data -> data
I0402 03:05:52.507024 23105 net.cpp:408] data -> label
I0402 03:05:52.513962 23158 db_lmdb.cpp:35] Opened lmdb ../local_data/lmdb/rtsd-r1/imajust/test/lmdb
I0402 03:05:52.514128 23105 data_layer.cpp:41] output data size: 1024,3,48,48
I0402 03:05:52.555202 23105 net.cpp:150] Setting up data
I0402 03:05:52.555233 23105 net.cpp:157] Top shape: 1024 3 48 48 (7077888)
I0402 03:05:52.555241 23105 net.cpp:157] Top shape: 1024 (1024)
I0402 03:05:52.555245 23105 net.cpp:165] Memory required for data: 28315648
I0402 03:05:52.555264 23105 layer_factory.hpp:77] Creating layer label_data_1_split
I0402 03:05:52.555284 23105 net.cpp:100] Creating Layer label_data_1_split
I0402 03:05:52.555291 23105 net.cpp:434] label_data_1_split <- label
I0402 03:05:52.555305 23105 net.cpp:408] label_data_1_split -> label_data_1_split_0
I0402 03:05:52.555323 23105 net.cpp:408] label_data_1_split -> label_data_1_split_1
I0402 03:05:52.555335 23105 net.cpp:408] label_data_1_split -> label_data_1_split_2
I0402 03:05:52.555500 23105 net.cpp:150] Setting up label_data_1_split
I0402 03:05:52.555527 23105 net.cpp:157] Top shape: 1024 (1024)
I0402 03:05:52.555536 23105 net.cpp:157] Top shape: 1024 (1024)
I0402 03:05:52.555541 23105 net.cpp:157] Top shape: 1024 (1024)
I0402 03:05:52.555546 23105 net.cpp:165] Memory required for data: 28327936
I0402 03:05:52.555552 23105 layer_factory.hpp:77] Creating layer conv1
I0402 03:05:52.555572 23105 net.cpp:100] Creating Layer conv1
I0402 03:05:52.555579 23105 net.cpp:434] conv1 <- data
I0402 03:05:52.555588 23105 net.cpp:408] conv1 -> conv1
I0402 03:05:52.559609 23105 net.cpp:150] Setting up conv1
I0402 03:05:52.559630 23105 net.cpp:157] Top shape: 1024 100 42 42 (180633600)
I0402 03:05:52.559638 23105 net.cpp:165] Memory required for data: 750862336
I0402 03:05:52.559655 23105 layer_factory.hpp:77] Creating layer conv1_relu
I0402 03:05:52.559667 23105 net.cpp:100] Creating Layer conv1_relu
I0402 03:05:52.559675 23105 net.cpp:434] conv1_relu <- conv1
I0402 03:05:52.559687 23105 net.cpp:395] conv1_relu -> conv1 (in-place)
I0402 03:05:52.559902 23105 net.cpp:150] Setting up conv1_relu
I0402 03:05:52.559917 23105 net.cpp:157] Top shape: 1024 100 42 42 (180633600)
I0402 03:05:52.559922 23105 net.cpp:165] Memory required for data: 1473396736
I0402 03:05:52.559929 23105 layer_factory.hpp:77] Creating layer pool1
I0402 03:05:52.559945 23105 net.cpp:100] Creating Layer pool1
I0402 03:05:52.559952 23105 net.cpp:434] pool1 <- conv1
I0402 03:05:52.559962 23105 net.cpp:408] pool1 -> pool1
I0402 03:05:52.560022 23105 net.cpp:150] Setting up pool1
I0402 03:05:52.560034 23105 net.cpp:157] Top shape: 1024 100 21 21 (45158400)
I0402 03:05:52.560039 23105 net.cpp:165] Memory required for data: 1654030336
I0402 03:05:52.560045 23105 layer_factory.hpp:77] Creating layer conv2
I0402 03:05:52.560066 23105 net.cpp:100] Creating Layer conv2
I0402 03:05:52.560072 23105 net.cpp:434] conv2 <- pool1
I0402 03:05:52.560081 23105 net.cpp:408] conv2 -> conv2
I0402 03:05:52.564113 23105 net.cpp:150] Setting up conv2
I0402 03:05:52.564132 23105 net.cpp:157] Top shape: 1024 150 18 18 (49766400)
I0402 03:05:52.564139 23105 net.cpp:165] Memory required for data: 1853095936
I0402 03:05:52.564159 23105 layer_factory.hpp:77] Creating layer conv2_relu
I0402 03:05:52.564175 23105 net.cpp:100] Creating Layer conv2_relu
I0402 03:05:52.564183 23105 net.cpp:434] conv2_relu <- conv2
I0402 03:05:52.564193 23105 net.cpp:395] conv2_relu -> conv2 (in-place)
I0402 03:05:52.565049 23105 net.cpp:150] Setting up conv2_relu
I0402 03:05:52.565070 23105 net.cpp:157] Top shape: 1024 150 18 18 (49766400)
I0402 03:05:52.565076 23105 net.cpp:165] Memory required for data: 2052161536
I0402 03:05:52.565083 23105 layer_factory.hpp:77] Creating layer pool2
I0402 03:05:52.565104 23105 net.cpp:100] Creating Layer pool2
I0402 03:05:52.565111 23105 net.cpp:434] pool2 <- conv2
I0402 03:05:52.565130 23105 net.cpp:408] pool2 -> pool2
I0402 03:05:52.565197 23105 net.cpp:150] Setting up pool2
I0402 03:05:52.565209 23105 net.cpp:157] Top shape: 1024 150 9 9 (12441600)
I0402 03:05:52.565214 23105 net.cpp:165] Memory required for data: 2101927936
I0402 03:05:52.565219 23105 layer_factory.hpp:77] Creating layer conv3
I0402 03:05:52.565238 23105 net.cpp:100] Creating Layer conv3
I0402 03:05:52.565248 23105 net.cpp:434] conv3 <- pool2
I0402 03:05:52.565258 23105 net.cpp:408] conv3 -> conv3
I0402 03:05:52.571043 23105 net.cpp:150] Setting up conv3
I0402 03:05:52.571068 23105 net.cpp:157] Top shape: 1024 250 6 6 (9216000)
I0402 03:05:52.571074 23105 net.cpp:165] Memory required for data: 2138791936
I0402 03:05:52.571090 23105 layer_factory.hpp:77] Creating layer conv3_relu
I0402 03:05:52.571102 23105 net.cpp:100] Creating Layer conv3_relu
I0402 03:05:52.571113 23105 net.cpp:434] conv3_relu <- conv3
I0402 03:05:52.571126 23105 net.cpp:395] conv3_relu -> conv3 (in-place)
I0402 03:05:52.571925 23105 net.cpp:150] Setting up conv3_relu
I0402 03:05:52.571943 23105 net.cpp:157] Top shape: 1024 250 6 6 (9216000)
I0402 03:05:52.571949 23105 net.cpp:165] Memory required for data: 2175655936
I0402 03:05:52.571955 23105 layer_factory.hpp:77] Creating layer pool3
I0402 03:05:52.571981 23105 net.cpp:100] Creating Layer pool3
I0402 03:05:52.571990 23105 net.cpp:434] pool3 <- conv3
I0402 03:05:52.572003 23105 net.cpp:408] pool3 -> pool3
I0402 03:05:52.572067 23105 net.cpp:150] Setting up pool3
I0402 03:05:52.572079 23105 net.cpp:157] Top shape: 1024 250 3 3 (2304000)
I0402 03:05:52.572085 23105 net.cpp:165] Memory required for data: 2184871936
I0402 03:05:52.572090 23105 layer_factory.hpp:77] Creating layer fc4_300
I0402 03:05:52.572100 23105 net.cpp:100] Creating Layer fc4_300
I0402 03:05:52.572108 23105 net.cpp:434] fc4_300 <- pool3
I0402 03:05:52.572125 23105 net.cpp:408] fc4_300 -> fc4_300
I0402 03:05:52.577558 23105 net.cpp:150] Setting up fc4_300
I0402 03:05:52.577576 23105 net.cpp:157] Top shape: 1024 300 (307200)
I0402 03:05:52.577582 23105 net.cpp:165] Memory required for data: 2186100736
I0402 03:05:52.577610 23105 layer_factory.hpp:77] Creating layer fc4_relu
I0402 03:05:52.577625 23105 net.cpp:100] Creating Layer fc4_relu
I0402 03:05:52.577632 23105 net.cpp:434] fc4_relu <- fc4_300
I0402 03:05:52.577644 23105 net.cpp:395] fc4_relu -> fc4_300 (in-place)
I0402 03:05:52.577854 23105 net.cpp:150] Setting up fc4_relu
I0402 03:05:52.577868 23105 net.cpp:157] Top shape: 1024 300 (307200)
I0402 03:05:52.577873 23105 net.cpp:165] Memory required for data: 2187329536
I0402 03:05:52.577879 23105 layer_factory.hpp:77] Creating layer drop4
I0402 03:05:52.577889 23105 net.cpp:100] Creating Layer drop4
I0402 03:05:52.577898 23105 net.cpp:434] drop4 <- fc4_300
I0402 03:05:52.577913 23105 net.cpp:395] drop4 -> fc4_300 (in-place)
I0402 03:05:52.577955 23105 net.cpp:150] Setting up drop4
I0402 03:05:52.577965 23105 net.cpp:157] Top shape: 1024 300 (307200)
I0402 03:05:52.577970 23105 net.cpp:165] Memory required for data: 2188558336
I0402 03:05:52.577975 23105 layer_factory.hpp:77] Creating layer fc5_67
I0402 03:05:52.577988 23105 net.cpp:100] Creating Layer fc5_67
I0402 03:05:52.577996 23105 net.cpp:434] fc5_67 <- fc4_300
I0402 03:05:52.578004 23105 net.cpp:408] fc5_67 -> fc5_classes
I0402 03:05:52.578279 23105 net.cpp:150] Setting up fc5_67
I0402 03:05:52.578290 23105 net.cpp:157] Top shape: 1024 67 (68608)
I0402 03:05:52.578294 23105 net.cpp:165] Memory required for data: 2188832768
I0402 03:05:52.578315 23105 layer_factory.hpp:77] Creating layer fc5_classes_fc5_67_0_split
I0402 03:05:52.578326 23105 net.cpp:100] Creating Layer fc5_classes_fc5_67_0_split
I0402 03:05:52.578335 23105 net.cpp:434] fc5_classes_fc5_67_0_split <- fc5_classes
I0402 03:05:52.578343 23105 net.cpp:408] fc5_classes_fc5_67_0_split -> fc5_classes_fc5_67_0_split_0
I0402 03:05:52.578359 23105 net.cpp:408] fc5_classes_fc5_67_0_split -> fc5_classes_fc5_67_0_split_1
I0402 03:05:52.578372 23105 net.cpp:408] fc5_classes_fc5_67_0_split -> fc5_classes_fc5_67_0_split_2
I0402 03:05:52.578438 23105 net.cpp:150] Setting up fc5_classes_fc5_67_0_split
I0402 03:05:52.578449 23105 net.cpp:157] Top shape: 1024 67 (68608)
I0402 03:05:52.578459 23105 net.cpp:157] Top shape: 1024 67 (68608)
I0402 03:05:52.578466 23105 net.cpp:157] Top shape: 1024 67 (68608)
I0402 03:05:52.578471 23105 net.cpp:165] Memory required for data: 2189656064
I0402 03:05:52.578476 23105 layer_factory.hpp:77] Creating layer loss
I0402 03:05:52.578491 23105 net.cpp:100] Creating Layer loss
I0402 03:05:52.578500 23105 net.cpp:434] loss <- fc5_classes_fc5_67_0_split_0
I0402 03:05:52.578506 23105 net.cpp:434] loss <- label_data_1_split_0
I0402 03:05:52.578514 23105 net.cpp:408] loss -> loss
…
