…
I0528 21:40:57.524248 16766 solver.cpp:81] Creating training net from train_net file: ./Prototxt/experiment_22/RTSD/CoNorm/trial_4/train.prototxt
I0528 21:40:57.524631 16766 net.cpp:58] Initializing net from parameters: 
state {
  phase: TRAIN
  level: 0
  stage: ""
}
layer {
  name: "data"
  type: "Data"
  top: "data"
  top: "label"
  include {
    phase: TRAIN
  }
  transform_param {
    scale: 0.0039215689
    mirror: false
    crop_size: 48
    mean_value: 135
    mean_value: 135
    mean_value: 134
  }
  data_param {
    source: "../local_data/lmdb/RTSD/CoNorm/train/lmdb"
    batch_size: 1024
    backend: LMDB
  }
}
layer {
  name: "conv1"
  type: "Convolution"
  bottom: "data"
  top: "conv1"
  convolution_param {
    num_output: 100
    pad: 0
    kernel_size: 7
    group: 1
    stride: 1
    weight_filler {
      type: "xavier"
    }
  }
}
layer {
  name: "conv1_relu"
  type: "ReLU"
  bottom: "conv1"
  top: "conv1"
}
layer {
  name: "pool1"
  type: "Pooling"
  bottom: "conv1"
  top: "pool1"
  pooling_param {
    pool: MAX
    kernel_size: 2
    stride: 2
  }
}
layer {
  name: "conv2"
  type: "Convolution"
  bottom: "pool1"
  top: "conv2"
  convolution_param {
    num_output: 150
    pad: 0
    kernel_size: 4
    group: 1
    stride: 1
    weight_filler {
      type: "xavier"
    }
  }
}
layer {
  name: "conv2_relu"
  type: "ReLU"
  bottom: "conv2"
  top: "conv2"
}
layer {
  name: "pool2"
  type: "Pooling"
  bottom: "conv2"
  top: "pool2"
  pooling_param {
    pool: MAX
    kernel_size: 2
    stride: 2
  }
}
layer {
  name: "conv3"
  type: "Convolution"
  bottom: "pool2"
  top: "conv3"
  convolution_param {
    num_output: 250
    pad: 0
    kernel_size: 4
    group: 1
    stride: 1
    weight_filler {
      type: "xavier"
    }
  }
}
layer {
  name: "conv3_relu"
  type: "ReLU"
  bottom: "conv3"
  top: "conv3"
}
layer {
  name: "pool3"
  type: "Pooling"
  bottom: "conv3"
  top: "pool3"
  pooling_param {
    pool: MAX
    kernel_size: 2
    stride: 2
  }
}
layer {
  name: "fc4_300"
  type: "InnerProduct"
  bottom: "pool3"
  top: "fc4_300"
  inner_product_param {
    num_output: 300
    weight_filler {
      type: "xavier"
    }
  }
}
layer {
  name: "fc4_relu"
  type: "ReLU"
  bottom: "fc4_300"
  top: "fc4_300"
}
layer {
  name: "fc5_116"
  type: "InnerProduct"
  bottom: "fc4_300"
  top: "fc5_classes"
  inner_product_param {
    num_output: 116
    weight_filler {
      type: "xavier"
    }
  }
}
layer {
  name: "softmax"
  type: "Softmax"
  bottom: "fc5_classes"
  top: "softmax"
}
layer {
  name: "loss"
  type: "MultinomialLogisticLoss"
  bottom: "softmax"
  bottom: "label"
  top: "loss"
}
layer {
  name: "accuracy_1"
  type: "Accuracy"
  bottom: "fc5_classes"
  bottom: "label"
  top: "accuracy_1"
  accuracy_param {
    top_k: 1
  }
}
layer {
  name: "accuracy_5"
  type: "Accuracy"
  bottom: "fc5_classes"
  bottom: "label"
  top: "accuracy_5"
  accuracy_param {
    top_k: 5
  }
}
layer {
  name: "silence"
  type: "Silence"
  bottom: "accuracy_1"
  bottom: "accuracy_5"
}
I0528 21:40:57.524756 16766 layer_factory.hpp:77] Creating layer data
I0528 21:40:57.525574 16766 net.cpp:100] Creating Layer data
I0528 21:40:57.525596 16766 net.cpp:408] data -> data
I0528 21:40:57.525629 16766 net.cpp:408] data -> label
I0528 21:40:57.526650 16804 db_lmdb.cpp:35] Opened lmdb ../local_data/lmdb/RTSD/CoNorm/train/lmdb
I0528 21:40:57.545827 16766 data_layer.cpp:41] output data size: 1024,3,48,48
I0528 21:40:57.601863 16766 net.cpp:150] Setting up data
I0528 21:40:57.601935 16766 net.cpp:157] Top shape: 1024 3 48 48 (7077888)
I0528 21:40:57.601948 16766 net.cpp:157] Top shape: 1024 (1024)
I0528 21:40:57.601955 16766 net.cpp:165] Memory required for data: 28315648
I0528 21:40:57.601970 16766 layer_factory.hpp:77] Creating layer label_data_1_split
I0528 21:40:57.601995 16766 net.cpp:100] Creating Layer label_data_1_split
I0528 21:40:57.602010 16766 net.cpp:434] label_data_1_split <- label
I0528 21:40:57.602027 16766 net.cpp:408] label_data_1_split -> label_data_1_split_0
I0528 21:40:57.602047 16766 net.cpp:408] label_data_1_split -> label_data_1_split_1
I0528 21:40:57.602067 16766 net.cpp:408] label_data_1_split -> label_data_1_split_2
I0528 21:40:57.602128 16766 net.cpp:150] Setting up label_data_1_split
I0528 21:40:57.602140 16766 net.cpp:157] Top shape: 1024 (1024)
I0528 21:40:57.602147 16766 net.cpp:157] Top shape: 1024 (1024)
I0528 21:40:57.602156 16766 net.cpp:157] Top shape: 1024 (1024)
I0528 21:40:57.602164 16766 net.cpp:165] Memory required for data: 28327936
I0528 21:40:57.602171 16766 layer_factory.hpp:77] Creating layer conv1
I0528 21:40:57.602195 16766 net.cpp:100] Creating Layer conv1
I0528 21:40:57.602208 16766 net.cpp:434] conv1 <- data
I0528 21:40:57.602219 16766 net.cpp:408] conv1 -> conv1
I0528 21:40:58.027734 16766 net.cpp:150] Setting up conv1
I0528 21:40:58.027770 16766 net.cpp:157] Top shape: 1024 100 42 42 (180633600)
I0528 21:40:58.027776 16766 net.cpp:165] Memory required for data: 750862336
I0528 21:40:58.027794 16766 layer_factory.hpp:77] Creating layer conv1_relu
I0528 21:40:58.027806 16766 net.cpp:100] Creating Layer conv1_relu
I0528 21:40:58.027812 16766 net.cpp:434] conv1_relu <- conv1
I0528 21:40:58.027818 16766 net.cpp:395] conv1_relu -> conv1 (in-place)
I0528 21:40:58.027998 16766 net.cpp:150] Setting up conv1_relu
I0528 21:40:58.028010 16766 net.cpp:157] Top shape: 1024 100 42 42 (180633600)
I0528 21:40:58.028014 16766 net.cpp:165] Memory required for data: 1473396736
I0528 21:40:58.028019 16766 layer_factory.hpp:77] Creating layer pool1
I0528 21:40:58.028029 16766 net.cpp:100] Creating Layer pool1
I0528 21:40:58.028033 16766 net.cpp:434] pool1 <- conv1
I0528 21:40:58.028039 16766 net.cpp:408] pool1 -> pool1
I0528 21:40:58.028090 16766 net.cpp:150] Setting up pool1
I0528 21:40:58.028098 16766 net.cpp:157] Top shape: 1024 100 21 21 (45158400)
I0528 21:40:58.028102 16766 net.cpp:165] Memory required for data: 1654030336
I0528 21:40:58.028107 16766 layer_factory.hpp:77] Creating layer conv2
I0528 21:40:58.028118 16766 net.cpp:100] Creating Layer conv2
I0528 21:40:58.028122 16766 net.cpp:434] conv2 <- pool1
I0528 21:40:58.028129 16766 net.cpp:408] conv2 -> conv2
I0528 21:40:58.031577 16766 net.cpp:150] Setting up conv2
I0528 21:40:58.031617 16766 net.cpp:157] Top shape: 1024 150 18 18 (49766400)
I0528 21:40:58.031623 16766 net.cpp:165] Memory required for data: 1853095936
I0528 21:40:58.031643 16766 layer_factory.hpp:77] Creating layer conv2_relu
I0528 21:40:58.031661 16766 net.cpp:100] Creating Layer conv2_relu
I0528 21:40:58.031666 16766 net.cpp:434] conv2_relu <- conv2
I0528 21:40:58.031672 16766 net.cpp:395] conv2_relu -> conv2 (in-place)
I0528 21:40:58.031806 16766 net.cpp:150] Setting up conv2_relu
I0528 21:40:58.031817 16766 net.cpp:157] Top shape: 1024 150 18 18 (49766400)
I0528 21:40:58.031821 16766 net.cpp:165] Memory required for data: 2052161536
I0528 21:40:58.031826 16766 layer_factory.hpp:77] Creating layer pool2
I0528 21:40:58.031833 16766 net.cpp:100] Creating Layer pool2
I0528 21:40:58.031836 16766 net.cpp:434] pool2 <- conv2
I0528 21:40:58.031842 16766 net.cpp:408] pool2 -> pool2
I0528 21:40:58.031877 16766 net.cpp:150] Setting up pool2
I0528 21:40:58.031884 16766 net.cpp:157] Top shape: 1024 150 9 9 (12441600)
I0528 21:40:58.031888 16766 net.cpp:165] Memory required for data: 2101927936
I0528 21:40:58.031893 16766 layer_factory.hpp:77] Creating layer conv3
I0528 21:40:58.031903 16766 net.cpp:100] Creating Layer conv3
I0528 21:40:58.031906 16766 net.cpp:434] conv3 <- pool2
I0528 21:40:58.031911 16766 net.cpp:408] conv3 -> conv3
I0528 21:40:58.037001 16766 net.cpp:150] Setting up conv3
I0528 21:40:58.037030 16766 net.cpp:157] Top shape: 1024 250 6 6 (9216000)
I0528 21:40:58.037035 16766 net.cpp:165] Memory required for data: 2138791936
I0528 21:40:58.037047 16766 layer_factory.hpp:77] Creating layer conv3_relu
I0528 21:40:58.037057 16766 net.cpp:100] Creating Layer conv3_relu
I0528 21:40:58.037063 16766 net.cpp:434] conv3_relu <- conv3
I0528 21:40:58.037070 16766 net.cpp:395] conv3_relu -> conv3 (in-place)
I0528 21:40:58.037417 16766 net.cpp:150] Setting up conv3_relu
I0528 21:40:58.037431 16766 net.cpp:157] Top shape: 1024 250 6 6 (9216000)
I0528 21:40:58.037436 16766 net.cpp:165] Memory required for data: 2175655936
I0528 21:40:58.037441 16766 layer_factory.hpp:77] Creating layer pool3
I0528 21:40:58.037448 16766 net.cpp:100] Creating Layer pool3
I0528 21:40:58.037452 16766 net.cpp:434] pool3 <- conv3
I0528 21:40:58.037459 16766 net.cpp:408] pool3 -> pool3
I0528 21:40:58.037494 16766 net.cpp:150] Setting up pool3
I0528 21:40:58.037503 16766 net.cpp:157] Top shape: 1024 250 3 3 (2304000)
I0528 21:40:58.037508 16766 net.cpp:165] Memory required for data: 2184871936
I0528 21:40:58.037510 16766 layer_factory.hpp:77] Creating layer fc4_300
I0528 21:40:58.037518 16766 net.cpp:100] Creating Layer fc4_300
I0528 21:40:58.037523 16766 net.cpp:434] fc4_300 <- pool3
I0528 21:40:58.037529 16766 net.cpp:408] fc4_300 -> fc4_300
I0528 21:40:58.042225 16766 net.cpp:150] Setting up fc4_300
I0528 21:40:58.042260 16766 net.cpp:157] Top shape: 1024 300 (307200)
I0528 21:40:58.042265 16766 net.cpp:165] Memory required for data: 2186100736
I0528 21:40:58.042274 16766 layer_factory.hpp:77] Creating layer fc4_relu
I0528 21:40:58.042284 16766 net.cpp:100] Creating Layer fc4_relu
I0528 21:40:58.042289 16766 net.cpp:434] fc4_relu <- fc4_300
I0528 21:40:58.042297 16766 net.cpp:395] fc4_relu -> fc4_300 (in-place)
I0528 21:40:58.042470 16766 net.cpp:150] Setting up fc4_relu
I0528 21:40:58.042481 16766 net.cpp:157] Top shape: 1024 300 (307200)
I0528 21:40:58.042485 16766 net.cpp:165] Memory required for data: 2187329536
I0528 21:40:58.042490 16766 layer_factory.hpp:77] Creating layer fc5_116
I0528 21:40:58.042497 16766 net.cpp:100] Creating Layer fc5_116
I0528 21:40:58.042502 16766 net.cpp:434] fc5_116 <- fc4_300
I0528 21:40:58.042508 16766 net.cpp:408] fc5_116 -> fc5_classes
I0528 21:40:58.043632 16766 net.cpp:150] Setting up fc5_116
I0528 21:40:58.043649 16766 net.cpp:157] Top shape: 1024 116 (118784)
I0528 21:40:58.043654 16766 net.cpp:165] Memory required for data: 2187804672
I0528 21:40:58.043664 16766 layer_factory.hpp:77] Creating layer fc5_classes_fc5_116_0_split
I0528 21:40:58.043673 16766 net.cpp:100] Creating Layer fc5_classes_fc5_116_0_split
I0528 21:40:58.043678 16766 net.cpp:434] fc5_classes_fc5_116_0_split <- fc5_classes
I0528 21:40:58.043684 16766 net.cpp:408] fc5_classes_fc5_116_0_split -> fc5_classes_fc5_116_0_split_0
I0528 21:40:58.043690 16766 net.cpp:408] fc5_classes_fc5_116_0_split -> fc5_classes_fc5_116_0_split_1
I0528 21:40:58.043697 16766 net.cpp:408] fc5_classes_fc5_116_0_split -> fc5_classes_fc5_116_0_split_2
I0528 21:40:58.043735 16766 net.cpp:150] Setting up fc5_classes_fc5_116_0_split
I0528 21:40:58.043742 16766 net.cpp:157] Top shape: 1024 116 (118784)
I0528 21:40:58.043748 16766 net.cpp:157] Top shape: 1024 116 (118784)
I0528 21:40:58.043753 16766 net.cpp:157] Top shape: 1024 116 (118784)
I0528 21:40:58.043758 16766 net.cpp:165] Memory required for data: 2189230080
I0528 21:40:58.043763 16766 layer_factory.hpp:77] Creating layer softmax
I0528 21:40:58.043769 16766 net.cpp:100] Creating Layer softmax
I0528 21:40:58.043773 16766 net.cpp:434] softmax <- fc5_classes_fc5_116_0_split_0
I0528 21:40:58.043778 16766 net.cpp:408] softmax -> softmax
I0528 21:40:58.043977 16766 net.cpp:150] Setting up softmax
I0528 21:40:58.043988 16766 net.cpp:157] Top shape: 1024 116 (118784)
I0528 21:40:58.043993 16766 net.cpp:165] Memory required for data: 2189705216
I0528 21:40:58.043998 16766 layer_factory.hpp:77] Creating layer loss
I0528 21:40:58.044020 16766 net.cpp:100] Creating Layer loss
I0528 21:40:58.044025 16766 net.cpp:434] loss <- softmax
I0528 21:40:58.044030 16766 net.cpp:434] loss <- label_data_1_split_0
I0528 21:40:58.044035 16766 net.cpp:408] loss -> loss
…
