…
I0414 07:37:00.199061 24589 solver.cpp:93] Creating training net from train_net file: ./Prototxt/experiment_11/rtsd-r3/CoNorm/trial_1/train.prototxt
I0414 07:37:00.199537 24589 net.cpp:58] Initializing net from parameters: 
state {
  phase: TRAIN
  level: 0
  stage: ""
}
layer {
  name: "data"
  type: "Data"
  top: "data"
  top: "label"
  include {
    phase: TRAIN
  }
  transform_param {
    scale: 0.0039215689
    mirror: false
    crop_size: 48
    mean_value: 135
    mean_value: 134
    mean_value: 134
  }
  data_param {
    source: "../local_data/lmdb/rtsd-r3/CoNorm/train/lmdb"
    batch_size: 1024
    backend: LMDB
  }
}
layer {
  name: "conv1"
  type: "Convolution"
  bottom: "data"
  top: "conv1"
  convolution_param {
    num_output: 100
    pad: 0
    kernel_size: 7
    group: 1
    stride: 1
    weight_filler {
      type: "xavier"
    }
  }
}
layer {
  name: "conv1_prescale"
  type: "Scale"
  bottom: "conv1"
  top: "conv1"
  param {
    lr_mult: 0
    decay_mult: 0
  }
  scale_param {
    filler {
      value: 0.6666
    }
    bias_term: false
  }
}
layer {
  name: "conv1_sTanH"
  type: "TanH"
  bottom: "conv1"
  top: "conv1"
}
layer {
  name: "conv1_postscale"
  type: "Scale"
  bottom: "conv1"
  top: "conv1"
  param {
    lr_mult: 0
    decay_mult: 0
  }
  scale_param {
    filler {
      value: 1.7159
    }
    bias_term: false
  }
}
layer {
  name: "pool1"
  type: "Pooling"
  bottom: "conv1"
  top: "pool1"
  pooling_param {
    pool: MAX
    kernel_size: 2
    stride: 2
  }
}
layer {
  name: "conv2"
  type: "Convolution"
  bottom: "pool1"
  top: "conv2"
  convolution_param {
    num_output: 150
    pad: 0
    kernel_size: 4
    group: 1
    stride: 1
    weight_filler {
      type: "xavier"
    }
  }
}
layer {
  name: "conv2_prescale"
  type: "Scale"
  bottom: "conv2"
  top: "conv2"
  param {
    lr_mult: 0
    decay_mult: 0
  }
  scale_param {
    filler {
      value: 0.6666
    }
    bias_term: false
  }
}
layer {
  name: "conv2_sTanH"
  type: "TanH"
  bottom: "conv2"
  top: "conv2"
}
layer {
  name: "conv2_postscale"
  type: "Scale"
  bottom: "conv2"
  top: "conv2"
  param {
    lr_mult: 0
    decay_mult: 0
  }
  scale_param {
    filler {
      value: 1.7159
    }
    bias_term: false
  }
}
layer {
  name: "pool2"
  type: "Pooling"
  bottom: "conv2"
  top: "pool2"
  pooling_param {
    pool: MAX
    kernel_size: 2
    stride: 2
  }
}
layer {
  name: "conv3"
  type: "Convolution"
  bottom: "pool2"
  top: "conv3"
  convolution_param {
    num_output: 250
    pad: 0
    kernel_size: 4
    group: 1
    stride: 1
    weight_filler {
      type: "xavier"
    }
  }
}
layer {
  name: "conv3_prescale"
  type: "Scale"
  bottom: "conv3"
  top: "conv3"
  param {
    lr_mult: 0
    decay_mult: 0
  }
  scale_param {
    filler {
      value: 0.6666
    }
    bias_term: false
  }
}
layer {
  name: "conv3_sTanH"
  type: "TanH"
  bottom: "conv3"
  top: "conv3"
}
layer {
  name: "conv3_postscale"
  type: "Scale"
  bottom: "conv3"
  top: "conv3"
  param {
    lr_mult: 0
    decay_mult: 0
  }
  scale_param {
    filler {
      value: 1.7159
    }
    bias_term: false
  }
}
layer {
  name: "pool3"
  type: "Pooling"
  bottom: "conv3"
  top: "pool3"
  pooling_param {
    pool: MAX
    kernel_size: 2
    stride: 2
  }
}
layer {
  name: "fc4_300"
  type: "InnerProduct"
  bottom: "pool3"
  top: "fc4_300"
  inner_product_param {
    num_output: 300
    weight_filler {
      type: "xavier"
    }
  }
}
layer {
  name: "fc4_prescale"
  type: "Scale"
  bottom: "fc4_300"
  top: "fc4_300"
  param {
    lr_mult: 0
    decay_mult: 0
  }
  scale_param {
    filler {
      value: 0.6666
    }
    bias_term: false
  }
}
layer {
  name: "fc4_sTanH"
  type: "TanH"
  bottom: "fc4_300"
  top: "fc4_300"
}
layer {
  name: "fc4_postscale"
  type: "Scale"
  bottom: "fc4_300"
  top: "fc4_300"
  param {
    lr_mult: 0
    decay_mult: 0
  }
  scale_param {
    filler {
      value: 1.7159
    }
    bias_term: false
  }
}
layer {
  name: "fc5_106"
  type: "InnerProduct"
  bottom: "fc4_300"
  top: "fc5_classes"
  inner_product_param {
    num_output: 106
    weight_filler {
      type: "xavier"
    }
  }
}
layer {
  name: "softmax"
  type: "Softmax"
  bottom: "fc5_classes"
  top: "softmax"
}
layer {
  name: "loss"
  type: "MultinomialLogisticLoss"
  bottom: "softmax"
  bottom: "label"
  top: "loss"
}
layer {
  name: "accuracy_1"
  type: "Accuracy"
  bottom: "fc5_classes"
  bottom: "label"
  top: "accuracy_1"
  accuracy_param {
    top_k: 1
  }
}
layer {
  name: "accuracy_5"
  type: "Accuracy"
  bottom: "fc5_classes"
  bottom: "label"
  top: "accuracy_5"
  accuracy_param {
    top_k: 5
  }
}
layer {
  name: "silence"
  type: "Silence"
  bottom: "accuracy_1"
  bottom: "accuracy_5"
}
I0414 07:37:00.199694 24589 layer_factory.hpp:77] Creating layer data
I0414 07:37:00.200772 24589 net.cpp:100] Creating Layer data
I0414 07:37:00.200786 24589 net.cpp:408] data -> data
I0414 07:37:00.200808 24589 net.cpp:408] data -> label
I0414 07:37:00.247617 24694 db_lmdb.cpp:35] Opened lmdb ../local_data/lmdb/rtsd-r3/CoNorm/train/lmdb
I0414 07:37:00.278183 24589 data_layer.cpp:41] output data size: 1024,3,48,48
I0414 07:37:00.343741 24589 net.cpp:150] Setting up data
I0414 07:37:00.343772 24589 net.cpp:157] Top shape: 1024 3 48 48 (7077888)
I0414 07:37:00.343778 24589 net.cpp:157] Top shape: 1024 (1024)
I0414 07:37:00.343781 24589 net.cpp:165] Memory required for data: 28315648
I0414 07:37:00.343792 24589 layer_factory.hpp:77] Creating layer label_data_1_split
I0414 07:37:00.343806 24589 net.cpp:100] Creating Layer label_data_1_split
I0414 07:37:00.343812 24589 net.cpp:434] label_data_1_split <- label
I0414 07:37:00.343828 24589 net.cpp:408] label_data_1_split -> label_data_1_split_0
I0414 07:37:00.343842 24589 net.cpp:408] label_data_1_split -> label_data_1_split_1
I0414 07:37:00.343849 24589 net.cpp:408] label_data_1_split -> label_data_1_split_2
I0414 07:37:00.343979 24589 net.cpp:150] Setting up label_data_1_split
I0414 07:37:00.343989 24589 net.cpp:157] Top shape: 1024 (1024)
I0414 07:37:00.343993 24589 net.cpp:157] Top shape: 1024 (1024)
I0414 07:37:00.343997 24589 net.cpp:157] Top shape: 1024 (1024)
I0414 07:37:00.343999 24589 net.cpp:165] Memory required for data: 28327936
I0414 07:37:00.344003 24589 layer_factory.hpp:77] Creating layer conv1
I0414 07:37:00.344020 24589 net.cpp:100] Creating Layer conv1
I0414 07:37:00.344025 24589 net.cpp:434] conv1 <- data
I0414 07:37:00.344032 24589 net.cpp:408] conv1 -> conv1
I0414 07:37:00.438665 24711 blocking_queue.cpp:50] Waiting for data
I0414 07:37:00.734699 24589 net.cpp:150] Setting up conv1
I0414 07:37:00.734727 24589 net.cpp:157] Top shape: 1024 100 42 42 (180633600)
I0414 07:37:00.734731 24589 net.cpp:165] Memory required for data: 750862336
I0414 07:37:00.734753 24589 layer_factory.hpp:77] Creating layer conv1_prescale
I0414 07:37:00.734766 24589 net.cpp:100] Creating Layer conv1_prescale
I0414 07:37:00.734771 24589 net.cpp:434] conv1_prescale <- conv1
I0414 07:37:00.734779 24589 net.cpp:395] conv1_prescale -> conv1 (in-place)
I0414 07:37:00.734895 24589 net.cpp:150] Setting up conv1_prescale
I0414 07:37:00.734905 24589 net.cpp:157] Top shape: 1024 100 42 42 (180633600)
I0414 07:37:00.734910 24589 net.cpp:165] Memory required for data: 1473396736
I0414 07:37:00.734916 24589 layer_factory.hpp:77] Creating layer conv1_sTanH
I0414 07:37:00.734930 24589 net.cpp:100] Creating Layer conv1_sTanH
I0414 07:37:00.734933 24589 net.cpp:434] conv1_sTanH <- conv1
I0414 07:37:00.734938 24589 net.cpp:395] conv1_sTanH -> conv1 (in-place)
I0414 07:37:00.735195 24589 net.cpp:150] Setting up conv1_sTanH
I0414 07:37:00.735209 24589 net.cpp:157] Top shape: 1024 100 42 42 (180633600)
I0414 07:37:00.735214 24589 net.cpp:165] Memory required for data: 2195931136
I0414 07:37:00.735219 24589 layer_factory.hpp:77] Creating layer conv1_postscale
I0414 07:37:00.735226 24589 net.cpp:100] Creating Layer conv1_postscale
I0414 07:37:00.735230 24589 net.cpp:434] conv1_postscale <- conv1
I0414 07:37:00.735237 24589 net.cpp:395] conv1_postscale -> conv1 (in-place)
I0414 07:37:00.735348 24589 net.cpp:150] Setting up conv1_postscale
I0414 07:37:00.735357 24589 net.cpp:157] Top shape: 1024 100 42 42 (180633600)
I0414 07:37:00.735361 24589 net.cpp:165] Memory required for data: 2918465536
I0414 07:37:00.735366 24589 layer_factory.hpp:77] Creating layer pool1
I0414 07:37:00.735373 24589 net.cpp:100] Creating Layer pool1
I0414 07:37:00.735378 24589 net.cpp:434] pool1 <- conv1
I0414 07:37:00.735383 24589 net.cpp:408] pool1 -> pool1
I0414 07:37:00.735431 24589 net.cpp:150] Setting up pool1
I0414 07:37:00.735440 24589 net.cpp:157] Top shape: 1024 100 21 21 (45158400)
I0414 07:37:00.735445 24589 net.cpp:165] Memory required for data: 3099099136
I0414 07:37:00.735450 24589 layer_factory.hpp:77] Creating layer conv2
I0414 07:37:00.735466 24589 net.cpp:100] Creating Layer conv2
I0414 07:37:00.735474 24589 net.cpp:434] conv2 <- pool1
I0414 07:37:00.735482 24589 net.cpp:408] conv2 -> conv2
I0414 07:37:00.742271 24589 net.cpp:150] Setting up conv2
I0414 07:37:00.742293 24589 net.cpp:157] Top shape: 1024 150 18 18 (49766400)
I0414 07:37:00.742297 24589 net.cpp:165] Memory required for data: 3298164736
I0414 07:37:00.742308 24589 layer_factory.hpp:77] Creating layer conv2_prescale
I0414 07:37:00.742321 24589 net.cpp:100] Creating Layer conv2_prescale
I0414 07:37:00.742326 24589 net.cpp:434] conv2_prescale <- conv2
I0414 07:37:00.742332 24589 net.cpp:395] conv2_prescale -> conv2 (in-place)
I0414 07:37:00.742450 24589 net.cpp:150] Setting up conv2_prescale
I0414 07:37:00.742460 24589 net.cpp:157] Top shape: 1024 150 18 18 (49766400)
I0414 07:37:00.742463 24589 net.cpp:165] Memory required for data: 3497230336
I0414 07:37:00.742468 24589 layer_factory.hpp:77] Creating layer conv2_sTanH
I0414 07:37:00.742473 24589 net.cpp:100] Creating Layer conv2_sTanH
I0414 07:37:00.742476 24589 net.cpp:434] conv2_sTanH <- conv2
I0414 07:37:00.742482 24589 net.cpp:395] conv2_sTanH -> conv2 (in-place)
I0414 07:37:00.743861 24589 net.cpp:150] Setting up conv2_sTanH
I0414 07:37:00.743892 24589 net.cpp:157] Top shape: 1024 150 18 18 (49766400)
I0414 07:37:00.743901 24589 net.cpp:165] Memory required for data: 3696295936
I0414 07:37:00.743907 24589 layer_factory.hpp:77] Creating layer conv2_postscale
I0414 07:37:00.743921 24589 net.cpp:100] Creating Layer conv2_postscale
I0414 07:37:00.743924 24589 net.cpp:434] conv2_postscale <- conv2
I0414 07:37:00.743932 24589 net.cpp:395] conv2_postscale -> conv2 (in-place)
I0414 07:37:00.744035 24589 net.cpp:150] Setting up conv2_postscale
I0414 07:37:00.744042 24589 net.cpp:157] Top shape: 1024 150 18 18 (49766400)
I0414 07:37:00.744045 24589 net.cpp:165] Memory required for data: 3895361536
I0414 07:37:00.744050 24589 layer_factory.hpp:77] Creating layer pool2
I0414 07:37:00.744060 24589 net.cpp:100] Creating Layer pool2
I0414 07:37:00.744065 24589 net.cpp:434] pool2 <- conv2
I0414 07:37:00.744069 24589 net.cpp:408] pool2 -> pool2
I0414 07:37:00.744114 24589 net.cpp:150] Setting up pool2
I0414 07:37:00.744122 24589 net.cpp:157] Top shape: 1024 150 9 9 (12441600)
I0414 07:37:00.744125 24589 net.cpp:165] Memory required for data: 3945127936
I0414 07:37:00.744128 24589 layer_factory.hpp:77] Creating layer conv3
I0414 07:37:00.744138 24589 net.cpp:100] Creating Layer conv3
I0414 07:37:00.744143 24589 net.cpp:434] conv3 <- pool2
I0414 07:37:00.744149 24589 net.cpp:408] conv3 -> conv3
I0414 07:37:00.760514 24589 net.cpp:150] Setting up conv3
I0414 07:37:00.760543 24589 net.cpp:157] Top shape: 1024 250 6 6 (9216000)
I0414 07:37:00.760547 24589 net.cpp:165] Memory required for data: 3981991936
I0414 07:37:00.760582 24589 layer_factory.hpp:77] Creating layer conv3_prescale
I0414 07:37:00.760596 24589 net.cpp:100] Creating Layer conv3_prescale
I0414 07:37:00.760602 24589 net.cpp:434] conv3_prescale <- conv3
I0414 07:37:00.760609 24589 net.cpp:395] conv3_prescale -> conv3 (in-place)
I0414 07:37:00.760718 24589 net.cpp:150] Setting up conv3_prescale
I0414 07:37:00.760727 24589 net.cpp:157] Top shape: 1024 250 6 6 (9216000)
I0414 07:37:00.760730 24589 net.cpp:165] Memory required for data: 4018855936
I0414 07:37:00.760735 24589 layer_factory.hpp:77] Creating layer conv3_sTanH
I0414 07:37:00.760740 24589 net.cpp:100] Creating Layer conv3_sTanH
I0414 07:37:00.760746 24589 net.cpp:434] conv3_sTanH <- conv3
I0414 07:37:00.760751 24589 net.cpp:395] conv3_sTanH -> conv3 (in-place)
I0414 07:37:00.771356 24589 net.cpp:150] Setting up conv3_sTanH
I0414 07:37:00.771381 24589 net.cpp:157] Top shape: 1024 250 6 6 (9216000)
I0414 07:37:00.771385 24589 net.cpp:165] Memory required for data: 4055719936
I0414 07:37:00.771389 24589 layer_factory.hpp:77] Creating layer conv3_postscale
I0414 07:37:00.771404 24589 net.cpp:100] Creating Layer conv3_postscale
I0414 07:37:00.771409 24589 net.cpp:434] conv3_postscale <- conv3
I0414 07:37:00.771414 24589 net.cpp:395] conv3_postscale -> conv3 (in-place)
I0414 07:37:00.771538 24589 net.cpp:150] Setting up conv3_postscale
I0414 07:37:00.771548 24589 net.cpp:157] Top shape: 1024 250 6 6 (9216000)
I0414 07:37:00.771550 24589 net.cpp:165] Memory required for data: 4092583936
I0414 07:37:00.771556 24589 layer_factory.hpp:77] Creating layer pool3
I0414 07:37:00.771569 24589 net.cpp:100] Creating Layer pool3
I0414 07:37:00.771574 24589 net.cpp:434] pool3 <- conv3
I0414 07:37:00.771580 24589 net.cpp:408] pool3 -> pool3
I0414 07:37:00.771623 24589 net.cpp:150] Setting up pool3
I0414 07:37:00.771631 24589 net.cpp:157] Top shape: 1024 250 3 3 (2304000)
I0414 07:37:00.771634 24589 net.cpp:165] Memory required for data: 4101799936
I0414 07:37:00.771637 24589 layer_factory.hpp:77] Creating layer fc4_300
I0414 07:37:00.771644 24589 net.cpp:100] Creating Layer fc4_300
I0414 07:37:00.771647 24589 net.cpp:434] fc4_300 <- pool3
I0414 07:37:00.771653 24589 net.cpp:408] fc4_300 -> fc4_300
I0414 07:37:00.784332 24589 net.cpp:150] Setting up fc4_300
I0414 07:37:00.784353 24589 net.cpp:157] Top shape: 1024 300 (307200)
I0414 07:37:00.784356 24589 net.cpp:165] Memory required for data: 4103028736
I0414 07:37:00.784365 24589 layer_factory.hpp:77] Creating layer fc4_prescale
I0414 07:37:00.784376 24589 net.cpp:100] Creating Layer fc4_prescale
I0414 07:37:00.784380 24589 net.cpp:434] fc4_prescale <- fc4_300
I0414 07:37:00.784387 24589 net.cpp:395] fc4_prescale -> fc4_300 (in-place)
I0414 07:37:00.784487 24589 net.cpp:150] Setting up fc4_prescale
I0414 07:37:00.784497 24589 net.cpp:157] Top shape: 1024 300 (307200)
I0414 07:37:00.784499 24589 net.cpp:165] Memory required for data: 4104257536
I0414 07:37:00.784504 24589 layer_factory.hpp:77] Creating layer fc4_sTanH
I0414 07:37:00.784514 24589 net.cpp:100] Creating Layer fc4_sTanH
I0414 07:37:00.784519 24589 net.cpp:434] fc4_sTanH <- fc4_300
I0414 07:37:00.784524 24589 net.cpp:395] fc4_sTanH -> fc4_300 (in-place)
I0414 07:37:00.784736 24589 net.cpp:150] Setting up fc4_sTanH
I0414 07:37:00.784749 24589 net.cpp:157] Top shape: 1024 300 (307200)
I0414 07:37:00.784751 24589 net.cpp:165] Memory required for data: 4105486336
I0414 07:37:00.784754 24589 layer_factory.hpp:77] Creating layer fc4_postscale
I0414 07:37:00.784762 24589 net.cpp:100] Creating Layer fc4_postscale
I0414 07:37:00.784766 24589 net.cpp:434] fc4_postscale <- fc4_300
I0414 07:37:00.784773 24589 net.cpp:395] fc4_postscale -> fc4_300 (in-place)
I0414 07:37:00.784871 24589 net.cpp:150] Setting up fc4_postscale
I0414 07:37:00.784880 24589 net.cpp:157] Top shape: 1024 300 (307200)
I0414 07:37:00.784883 24589 net.cpp:165] Memory required for data: 4106715136
I0414 07:37:00.784888 24589 layer_factory.hpp:77] Creating layer fc5_106
I0414 07:37:00.784900 24589 net.cpp:100] Creating Layer fc5_106
I0414 07:37:00.784924 24589 net.cpp:434] fc5_106 <- fc4_300
I0414 07:37:00.784931 24589 net.cpp:408] fc5_106 -> fc5_classes
I0414 07:37:00.792430 24589 net.cpp:150] Setting up fc5_106
I0414 07:37:00.792448 24589 net.cpp:157] Top shape: 1024 106 (108544)
I0414 07:37:00.792453 24589 net.cpp:165] Memory required for data: 4107149312
I0414 07:37:00.792466 24589 layer_factory.hpp:77] Creating layer fc5_classes_fc5_106_0_split
I0414 07:37:00.792474 24589 net.cpp:100] Creating Layer fc5_classes_fc5_106_0_split
I0414 07:37:00.792479 24589 net.cpp:434] fc5_classes_fc5_106_0_split <- fc5_classes
I0414 07:37:00.792484 24589 net.cpp:408] fc5_classes_fc5_106_0_split -> fc5_classes_fc5_106_0_split_0
I0414 07:37:00.792492 24589 net.cpp:408] fc5_classes_fc5_106_0_split -> fc5_classes_fc5_106_0_split_1
I0414 07:37:00.792498 24589 net.cpp:408] fc5_classes_fc5_106_0_split -> fc5_classes_fc5_106_0_split_2
I0414 07:37:00.792556 24589 net.cpp:150] Setting up fc5_classes_fc5_106_0_split
I0414 07:37:00.792563 24589 net.cpp:157] Top shape: 1024 106 (108544)
I0414 07:37:00.792567 24589 net.cpp:157] Top shape: 1024 106 (108544)
I0414 07:37:00.792572 24589 net.cpp:157] Top shape: 1024 106 (108544)
I0414 07:37:00.792573 24589 net.cpp:165] Memory required for data: 4108451840
I0414 07:37:00.792577 24589 layer_factory.hpp:77] Creating layer softmax
I0414 07:37:00.792582 24589 net.cpp:100] Creating Layer softmax
I0414 07:37:00.792587 24589 net.cpp:434] softmax <- fc5_classes_fc5_106_0_split_0
I0414 07:37:00.792593 24589 net.cpp:408] softmax -> softmax
I0414 07:37:00.792855 24589 net.cpp:150] Setting up softmax
I0414 07:37:00.792866 24589 net.cpp:157] Top shape: 1024 106 (108544)
I0414 07:37:00.792870 24589 net.cpp:165] Memory required for data: 4108886016
I0414 07:37:00.792872 24589 layer_factory.hpp:77] Creating layer loss
I0414 07:37:00.792879 24589 net.cpp:100] Creating Layer loss
I0414 07:37:00.792882 24589 net.cpp:434] loss <- softmax
I0414 07:37:00.792887 24589 net.cpp:434] loss <- label_data_1_split_0
I0414 07:37:00.792892 24589 net.cpp:408] loss -> loss
…
