…
I0527 17:38:17.557582 10200 solver.cpp:81] Creating training net from train_net file: ./Prototxt/experiment_20/RTSD/orig/trial_2/train.prototxt
I0527 17:38:17.558078 10200 net.cpp:58] Initializing net from parameters: 
state {
  phase: TRAIN
  level: 0
  stage: ""
}
layer {
  name: "data"
  type: "Data"
  top: "data"
  top: "label"
  include {
    phase: TRAIN
  }
  transform_param {
    scale: 0.0039215689
    mirror: false
    crop_size: 48
    mean_value: 119
    mean_value: 113
    mean_value: 113
  }
  data_param {
    source: "../local_data/lmdb/RTSD/orig/train/lmdb"
    batch_size: 1024
    backend: LMDB
  }
}
layer {
  name: "conv1"
  type: "Convolution"
  bottom: "data"
  top: "conv1"
  convolution_param {
    num_output: 100
    pad: 0
    kernel_size: 7
    group: 1
    stride: 1
    weight_filler {
      type: "xavier"
    }
  }
}
layer {
  name: "conv1_relu"
  type: "ReLU"
  bottom: "conv1"
  top: "conv1"
}
layer {
  name: "pool1"
  type: "Pooling"
  bottom: "conv1"
  top: "pool1"
  pooling_param {
    pool: MAX
    kernel_size: 2
    stride: 2
  }
}
layer {
  name: "conv2"
  type: "Convolution"
  bottom: "pool1"
  top: "conv2"
  convolution_param {
    num_output: 150
    pad: 0
    kernel_size: 4
    group: 1
    stride: 1
    weight_filler {
      type: "xavier"
    }
  }
}
layer {
  name: "conv2_relu"
  type: "ReLU"
  bottom: "conv2"
  top: "conv2"
}
layer {
  name: "pool2"
  type: "Pooling"
  bottom: "conv2"
  top: "pool2"
  pooling_param {
    pool: MAX
    kernel_size: 2
    stride: 2
  }
}
layer {
  name: "conv3"
  type: "Convolution"
  bottom: "pool2"
  top: "conv3"
  convolution_param {
    num_output: 250
    pad: 0
    kernel_size: 4
    group: 1
    stride: 1
    weight_filler {
      type: "xavier"
    }
  }
}
layer {
  name: "conv3_relu"
  type: "ReLU"
  bottom: "conv3"
  top: "conv3"
}
layer {
  name: "pool3"
  type: "Pooling"
  bottom: "conv3"
  top: "pool3"
  pooling_param {
    pool: MAX
    kernel_size: 2
    stride: 2
  }
}
layer {
  name: "fc4_300"
  type: "InnerProduct"
  bottom: "pool3"
  top: "fc4_300"
  inner_product_param {
    num_output: 300
    weight_filler {
      type: "xavier"
    }
  }
}
layer {
  name: "fc4_relu"
  type: "ReLU"
  bottom: "fc4_300"
  top: "fc4_300"
}
layer {
  name: "fc5_116"
  type: "InnerProduct"
  bottom: "fc4_300"
  top: "fc5_classes"
  inner_product_param {
    num_output: 116
    weight_filler {
      type: "xavier"
    }
  }
}
layer {
  name: "softmax"
  type: "Softmax"
  bottom: "fc5_classes"
  top: "softmax"
}
layer {
  name: "loss"
  type: "MultinomialLogisticLoss"
  bottom: "softmax"
  bottom: "label"
  top: "loss"
}
layer {
  name: "accuracy_1"
  type: "Accuracy"
  bottom: "fc5_classes"
  bottom: "label"
  top: "accuracy_1"
  accuracy_param {
    top_k: 1
  }
}
layer {
  name: "accuracy_5"
  type: "Accuracy"
  bottom: "fc5_classes"
  bottom: "label"
  top: "accuracy_5"
  accuracy_param {
    top_k: 5
  }
}
layer {
  name: "silence"
  type: "Silence"
  bottom: "accuracy_1"
  bottom: "accuracy_5"
}
I0527 17:38:17.558193 10200 layer_factory.hpp:77] Creating layer data
I0527 17:38:17.559177 10200 net.cpp:100] Creating Layer data
I0527 17:38:17.559197 10200 net.cpp:408] data -> data
I0527 17:38:17.559229 10200 net.cpp:408] data -> label
I0527 17:38:17.597242 10260 db_lmdb.cpp:35] Opened lmdb ../local_data/lmdb/RTSD/orig/train/lmdb
I0527 17:38:17.648047 10200 data_layer.cpp:41] output data size: 1024,3,48,48
I0527 17:38:17.729099 10200 net.cpp:150] Setting up data
I0527 17:38:17.729387 10200 net.cpp:157] Top shape: 1024 3 48 48 (7077888)
I0527 17:38:17.729473 10200 net.cpp:157] Top shape: 1024 (1024)
I0527 17:38:17.729542 10200 net.cpp:165] Memory required for data: 28315648
I0527 17:38:17.729637 10200 layer_factory.hpp:77] Creating layer label_data_1_split
I0527 17:38:17.729730 10200 net.cpp:100] Creating Layer label_data_1_split
I0527 17:38:17.729799 10200 net.cpp:434] label_data_1_split <- label
I0527 17:38:17.729873 10200 net.cpp:408] label_data_1_split -> label_data_1_split_0
I0527 17:38:17.729945 10200 net.cpp:408] label_data_1_split -> label_data_1_split_1
I0527 17:38:17.730006 10200 net.cpp:408] label_data_1_split -> label_data_1_split_2
I0527 17:38:17.730141 10200 net.cpp:150] Setting up label_data_1_split
I0527 17:38:17.730233 10200 net.cpp:157] Top shape: 1024 (1024)
I0527 17:38:17.730296 10200 net.cpp:157] Top shape: 1024 (1024)
I0527 17:38:17.730355 10200 net.cpp:157] Top shape: 1024 (1024)
I0527 17:38:17.730427 10200 net.cpp:165] Memory required for data: 28327936
I0527 17:38:17.730512 10200 layer_factory.hpp:77] Creating layer conv1
I0527 17:38:17.730607 10200 net.cpp:100] Creating Layer conv1
I0527 17:38:17.730684 10200 net.cpp:434] conv1 <- data
I0527 17:38:17.730757 10200 net.cpp:408] conv1 -> conv1
I0527 17:38:18.193820 10200 net.cpp:150] Setting up conv1
I0527 17:38:18.193850 10200 net.cpp:157] Top shape: 1024 100 42 42 (180633600)
I0527 17:38:18.193856 10200 net.cpp:165] Memory required for data: 750862336
I0527 17:38:18.193871 10200 layer_factory.hpp:77] Creating layer conv1_relu
I0527 17:38:18.193881 10200 net.cpp:100] Creating Layer conv1_relu
I0527 17:38:18.193887 10200 net.cpp:434] conv1_relu <- conv1
I0527 17:38:18.193895 10200 net.cpp:395] conv1_relu -> conv1 (in-place)
I0527 17:38:18.195178 10200 net.cpp:150] Setting up conv1_relu
I0527 17:38:18.195190 10200 net.cpp:157] Top shape: 1024 100 42 42 (180633600)
I0527 17:38:18.195194 10200 net.cpp:165] Memory required for data: 1473396736
I0527 17:38:18.195200 10200 layer_factory.hpp:77] Creating layer pool1
I0527 17:38:18.195211 10200 net.cpp:100] Creating Layer pool1
I0527 17:38:18.195216 10200 net.cpp:434] pool1 <- conv1
I0527 17:38:18.195222 10200 net.cpp:408] pool1 -> pool1
I0527 17:38:18.195264 10200 net.cpp:150] Setting up pool1
I0527 17:38:18.195273 10200 net.cpp:157] Top shape: 1024 100 21 21 (45158400)
I0527 17:38:18.195279 10200 net.cpp:165] Memory required for data: 1654030336
I0527 17:38:18.195286 10200 layer_factory.hpp:77] Creating layer conv2
I0527 17:38:18.195296 10200 net.cpp:100] Creating Layer conv2
I0527 17:38:18.195299 10200 net.cpp:434] conv2 <- pool1
I0527 17:38:18.195307 10200 net.cpp:408] conv2 -> conv2
I0527 17:38:18.199370 10200 net.cpp:150] Setting up conv2
I0527 17:38:18.199393 10200 net.cpp:157] Top shape: 1024 150 18 18 (49766400)
I0527 17:38:18.199398 10200 net.cpp:165] Memory required for data: 1853095936
I0527 17:38:18.199409 10200 layer_factory.hpp:77] Creating layer conv2_relu
I0527 17:38:18.199416 10200 net.cpp:100] Creating Layer conv2_relu
I0527 17:38:18.199421 10200 net.cpp:434] conv2_relu <- conv2
I0527 17:38:18.199427 10200 net.cpp:395] conv2_relu -> conv2 (in-place)
I0527 17:38:18.199565 10200 net.cpp:150] Setting up conv2_relu
I0527 17:38:18.199575 10200 net.cpp:157] Top shape: 1024 150 18 18 (49766400)
I0527 17:38:18.199579 10200 net.cpp:165] Memory required for data: 2052161536
I0527 17:38:18.199584 10200 layer_factory.hpp:77] Creating layer pool2
I0527 17:38:18.199590 10200 net.cpp:100] Creating Layer pool2
I0527 17:38:18.199594 10200 net.cpp:434] pool2 <- conv2
I0527 17:38:18.199599 10200 net.cpp:408] pool2 -> pool2
I0527 17:38:18.199633 10200 net.cpp:150] Setting up pool2
I0527 17:38:18.199641 10200 net.cpp:157] Top shape: 1024 150 9 9 (12441600)
I0527 17:38:18.199645 10200 net.cpp:165] Memory required for data: 2101927936
I0527 17:38:18.199648 10200 layer_factory.hpp:77] Creating layer conv3
I0527 17:38:18.199666 10200 net.cpp:100] Creating Layer conv3
I0527 17:38:18.199672 10200 net.cpp:434] conv3 <- pool2
I0527 17:38:18.199677 10200 net.cpp:408] conv3 -> conv3
I0527 17:38:18.205010 10200 net.cpp:150] Setting up conv3
I0527 17:38:18.205029 10200 net.cpp:157] Top shape: 1024 250 6 6 (9216000)
I0527 17:38:18.205035 10200 net.cpp:165] Memory required for data: 2138791936
I0527 17:38:18.205044 10200 layer_factory.hpp:77] Creating layer conv3_relu
I0527 17:38:18.205052 10200 net.cpp:100] Creating Layer conv3_relu
I0527 17:38:18.205057 10200 net.cpp:434] conv3_relu <- conv3
I0527 17:38:18.205062 10200 net.cpp:395] conv3_relu -> conv3 (in-place)
I0527 17:38:18.205394 10200 net.cpp:150] Setting up conv3_relu
I0527 17:38:18.205407 10200 net.cpp:157] Top shape: 1024 250 6 6 (9216000)
I0527 17:38:18.205411 10200 net.cpp:165] Memory required for data: 2175655936
I0527 17:38:18.205416 10200 layer_factory.hpp:77] Creating layer pool3
I0527 17:38:18.205425 10200 net.cpp:100] Creating Layer pool3
I0527 17:38:18.205430 10200 net.cpp:434] pool3 <- conv3
I0527 17:38:18.205435 10200 net.cpp:408] pool3 -> pool3
I0527 17:38:18.205468 10200 net.cpp:150] Setting up pool3
I0527 17:38:18.205476 10200 net.cpp:157] Top shape: 1024 250 3 3 (2304000)
I0527 17:38:18.205482 10200 net.cpp:165] Memory required for data: 2184871936
I0527 17:38:18.205484 10200 layer_factory.hpp:77] Creating layer fc4_300
I0527 17:38:18.205492 10200 net.cpp:100] Creating Layer fc4_300
I0527 17:38:18.205495 10200 net.cpp:434] fc4_300 <- pool3
I0527 17:38:18.205500 10200 net.cpp:408] fc4_300 -> fc4_300
I0527 17:38:18.209972 10200 net.cpp:150] Setting up fc4_300
I0527 17:38:18.210007 10200 net.cpp:157] Top shape: 1024 300 (307200)
I0527 17:38:18.210012 10200 net.cpp:165] Memory required for data: 2186100736
I0527 17:38:18.210022 10200 layer_factory.hpp:77] Creating layer fc4_relu
I0527 17:38:18.210033 10200 net.cpp:100] Creating Layer fc4_relu
I0527 17:38:18.210041 10200 net.cpp:434] fc4_relu <- fc4_300
I0527 17:38:18.210047 10200 net.cpp:395] fc4_relu -> fc4_300 (in-place)
I0527 17:38:18.210211 10200 net.cpp:150] Setting up fc4_relu
I0527 17:38:18.210222 10200 net.cpp:157] Top shape: 1024 300 (307200)
I0527 17:38:18.210227 10200 net.cpp:165] Memory required for data: 2187329536
I0527 17:38:18.210232 10200 layer_factory.hpp:77] Creating layer fc5_116
I0527 17:38:18.210242 10200 net.cpp:100] Creating Layer fc5_116
I0527 17:38:18.210247 10200 net.cpp:434] fc5_116 <- fc4_300
I0527 17:38:18.210254 10200 net.cpp:408] fc5_116 -> fc5_classes
I0527 17:38:18.211364 10200 net.cpp:150] Setting up fc5_116
I0527 17:38:18.211379 10200 net.cpp:157] Top shape: 1024 116 (118784)
I0527 17:38:18.211383 10200 net.cpp:165] Memory required for data: 2187804672
I0527 17:38:18.211395 10200 layer_factory.hpp:77] Creating layer fc5_classes_fc5_116_0_split
I0527 17:38:18.211402 10200 net.cpp:100] Creating Layer fc5_classes_fc5_116_0_split
I0527 17:38:18.211407 10200 net.cpp:434] fc5_classes_fc5_116_0_split <- fc5_classes
I0527 17:38:18.211416 10200 net.cpp:408] fc5_classes_fc5_116_0_split -> fc5_classes_fc5_116_0_split_0
I0527 17:38:18.211423 10200 net.cpp:408] fc5_classes_fc5_116_0_split -> fc5_classes_fc5_116_0_split_1
I0527 17:38:18.211429 10200 net.cpp:408] fc5_classes_fc5_116_0_split -> fc5_classes_fc5_116_0_split_2
I0527 17:38:18.211467 10200 net.cpp:150] Setting up fc5_classes_fc5_116_0_split
I0527 17:38:18.211475 10200 net.cpp:157] Top shape: 1024 116 (118784)
I0527 17:38:18.211483 10200 net.cpp:157] Top shape: 1024 116 (118784)
I0527 17:38:18.211488 10200 net.cpp:157] Top shape: 1024 116 (118784)
I0527 17:38:18.211493 10200 net.cpp:165] Memory required for data: 2189230080
I0527 17:38:18.211499 10200 layer_factory.hpp:77] Creating layer softmax
I0527 17:38:18.211505 10200 net.cpp:100] Creating Layer softmax
I0527 17:38:18.211509 10200 net.cpp:434] softmax <- fc5_classes_fc5_116_0_split_0
I0527 17:38:18.211515 10200 net.cpp:408] softmax -> softmax
I0527 17:38:18.211688 10200 net.cpp:150] Setting up softmax
I0527 17:38:18.211701 10200 net.cpp:157] Top shape: 1024 116 (118784)
I0527 17:38:18.211707 10200 net.cpp:165] Memory required for data: 2189705216
I0527 17:38:18.211714 10200 layer_factory.hpp:77] Creating layer loss
I0527 17:38:18.211722 10200 net.cpp:100] Creating Layer loss
I0527 17:38:18.211747 10200 net.cpp:434] loss <- softmax
I0527 17:38:18.211755 10200 net.cpp:434] loss <- label_data_1_split_0
I0527 17:38:18.211760 10200 net.cpp:408] loss -> loss
…
