…
I0415 05:43:36.256513 13545 solver.cpp:93] Creating training net from train_net file: ./Prototxt/experiment_12/rtsd-r1/imajust/trial_1/train.prototxt
I0415 05:43:36.257083 13545 net.cpp:58] Initializing net from parameters: 
state {
  phase: TRAIN
  level: 0
  stage: ""
}
layer {
  name: "data"
  type: "Data"
  top: "data"
  top: "label"
  include {
    phase: TRAIN
  }
  transform_param {
    scale: 0.0039215689
    mirror: false
    crop_size: 48
    mean_value: 115
    mean_value: 108
    mean_value: 122
  }
  data_param {
    source: "../local_data/lmdb/rtsd-r1/imajust/train/lmdb"
    batch_size: 1024
    backend: LMDB
  }
}
layer {
  name: "conv1"
  type: "Convolution"
  bottom: "data"
  top: "conv1"
  convolution_param {
    num_output: 100
    pad: 0
    kernel_size: 7
    group: 1
    stride: 1
    weight_filler {
      type: "xavier"
    }
  }
}
layer {
  name: "conv1_relu"
  type: "ReLU"
  bottom: "conv1"
  top: "conv1"
}
layer {
  name: "pool1"
  type: "Pooling"
  bottom: "conv1"
  top: "pool1"
  pooling_param {
    pool: MAX
    kernel_size: 2
    stride: 2
  }
}
layer {
  name: "conv2"
  type: "Convolution"
  bottom: "pool1"
  top: "conv2"
  convolution_param {
    num_output: 150
    pad: 0
    kernel_size: 4
    group: 1
    stride: 1
    weight_filler {
      type: "xavier"
    }
  }
}
layer {
  name: "conv2_relu"
  type: "ReLU"
  bottom: "conv2"
  top: "conv2"
}
layer {
  name: "pool2"
  type: "Pooling"
  bottom: "conv2"
  top: "pool2"
  pooling_param {
    pool: MAX
    kernel_size: 2
    stride: 2
  }
}
layer {
  name: "conv3"
  type: "Convolution"
  bottom: "pool2"
  top: "conv3"
  convolution_param {
    num_output: 250
    pad: 0
    kernel_size: 4
    group: 1
    stride: 1
    weight_filler {
      type: "xavier"
    }
  }
}
layer {
  name: "conv3_relu"
  type: "ReLU"
  bottom: "conv3"
  top: "conv3"
}
layer {
  name: "pool3"
  type: "Pooling"
  bottom: "conv3"
  top: "pool3"
  pooling_param {
    pool: MAX
    kernel_size: 2
    stride: 2
  }
}
layer {
  name: "fc4_300"
  type: "InnerProduct"
  bottom: "pool3"
  top: "fc4_300"
  inner_product_param {
    num_output: 300
    weight_filler {
      type: "xavier"
    }
  }
}
layer {
  name: "fc4_relu"
  type: "ReLU"
  bottom: "fc4_300"
  top: "fc4_300"
}
layer {
  name: "drop4"
  type: "Dropout"
  bottom: "fc4_300"
  top: "fc4_300"
  dropout_param {
    dropout_ratio: 0.5
  }
}
layer {
  name: "fc5_67"
  type: "InnerProduct"
  bottom: "fc4_300"
  top: "fc5_classes"
  inner_product_param {
    num_output: 67
    weight_filler {
      type: "xavier"
    }
  }
}
layer {
  name: "softmax"
  type: "Softmax"
  bottom: "fc5_classes"
  top: "softmax"
}
layer {
  name: "loss"
  type: "MultinomialLogisticLoss"
  bottom: "softmax"
  bottom: "label"
  top: "loss"
}
layer {
  name: "accuracy_1"
  type: "Accuracy"
  bottom: "fc5_classes"
  bottom: "label"
  top: "accuracy_1"
  accuracy_param {
    top_k: 1
  }
}
layer {
  name: "accuracy_5"
  type: "Accuracy"
  bottom: "fc5_classes"
  bottom: "label"
  top: "accuracy_5"
  accuracy_param {
    top_k: 5
  }
}
layer {
  name: "silence"
  type: "Silence"
  bottom: "accuracy_1"
  bottom: "accuracy_5"
}
I0415 05:43:36.257232 13545 layer_factory.hpp:77] Creating layer data
I0415 05:43:36.258616 13545 net.cpp:100] Creating Layer data
I0415 05:43:36.258633 13545 net.cpp:408] data -> data
I0415 05:43:36.258659 13545 net.cpp:408] data -> label
I0415 05:43:36.285295 13655 db_lmdb.cpp:35] Opened lmdb ../local_data/lmdb/rtsd-r1/imajust/train/lmdb
I0415 05:43:36.310710 13545 data_layer.cpp:41] output data size: 1024,3,48,48
I0415 05:43:36.380275 13545 net.cpp:150] Setting up data
I0415 05:43:36.380321 13545 net.cpp:157] Top shape: 1024 3 48 48 (7077888)
I0415 05:43:36.380331 13545 net.cpp:157] Top shape: 1024 (1024)
I0415 05:43:36.380336 13545 net.cpp:165] Memory required for data: 28315648
I0415 05:43:36.380353 13545 layer_factory.hpp:77] Creating layer label_data_1_split
I0415 05:43:36.380378 13545 net.cpp:100] Creating Layer label_data_1_split
I0415 05:43:36.380389 13545 net.cpp:434] label_data_1_split <- label
I0415 05:43:36.380410 13545 net.cpp:408] label_data_1_split -> label_data_1_split_0
I0415 05:43:36.380426 13545 net.cpp:408] label_data_1_split -> label_data_1_split_1
I0415 05:43:36.380437 13545 net.cpp:408] label_data_1_split -> label_data_1_split_2
I0415 05:43:36.380569 13545 net.cpp:150] Setting up label_data_1_split
I0415 05:43:36.380590 13545 net.cpp:157] Top shape: 1024 (1024)
I0415 05:43:36.380599 13545 net.cpp:157] Top shape: 1024 (1024)
I0415 05:43:36.380606 13545 net.cpp:157] Top shape: 1024 (1024)
I0415 05:43:36.380611 13545 net.cpp:165] Memory required for data: 28327936
I0415 05:43:36.380617 13545 layer_factory.hpp:77] Creating layer conv1
I0415 05:43:36.380646 13545 net.cpp:100] Creating Layer conv1
I0415 05:43:36.380655 13545 net.cpp:434] conv1 <- data
I0415 05:43:36.380666 13545 net.cpp:408] conv1 -> conv1
I0415 05:43:36.477686 13672 blocking_queue.cpp:50] Waiting for data
I0415 05:43:36.872995 13545 net.cpp:150] Setting up conv1
I0415 05:43:36.873029 13545 net.cpp:157] Top shape: 1024 100 42 42 (180633600)
I0415 05:43:36.873034 13545 net.cpp:165] Memory required for data: 750862336
I0415 05:43:36.873055 13545 layer_factory.hpp:77] Creating layer conv1_relu
I0415 05:43:36.873070 13545 net.cpp:100] Creating Layer conv1_relu
I0415 05:43:36.873076 13545 net.cpp:434] conv1_relu <- conv1
I0415 05:43:36.873086 13545 net.cpp:395] conv1_relu -> conv1 (in-place)
I0415 05:43:36.873301 13545 net.cpp:150] Setting up conv1_relu
I0415 05:43:36.873318 13545 net.cpp:157] Top shape: 1024 100 42 42 (180633600)
I0415 05:43:36.873324 13545 net.cpp:165] Memory required for data: 1473396736
I0415 05:43:36.873330 13545 layer_factory.hpp:77] Creating layer pool1
I0415 05:43:36.873350 13545 net.cpp:100] Creating Layer pool1
I0415 05:43:36.873358 13545 net.cpp:434] pool1 <- conv1
I0415 05:43:36.873370 13545 net.cpp:408] pool1 -> pool1
I0415 05:43:36.873461 13545 net.cpp:150] Setting up pool1
I0415 05:43:36.873473 13545 net.cpp:157] Top shape: 1024 100 21 21 (45158400)
I0415 05:43:36.873479 13545 net.cpp:165] Memory required for data: 1654030336
I0415 05:43:36.873487 13545 layer_factory.hpp:77] Creating layer conv2
I0415 05:43:36.873507 13545 net.cpp:100] Creating Layer conv2
I0415 05:43:36.873512 13545 net.cpp:434] conv2 <- pool1
I0415 05:43:36.873525 13545 net.cpp:408] conv2 -> conv2
I0415 05:43:36.882632 13545 net.cpp:150] Setting up conv2
I0415 05:43:36.882648 13545 net.cpp:157] Top shape: 1024 150 18 18 (49766400)
I0415 05:43:36.882652 13545 net.cpp:165] Memory required for data: 1853095936
I0415 05:43:36.882665 13545 layer_factory.hpp:77] Creating layer conv2_relu
I0415 05:43:36.882673 13545 net.cpp:100] Creating Layer conv2_relu
I0415 05:43:36.882676 13545 net.cpp:434] conv2_relu <- conv2
I0415 05:43:36.882685 13545 net.cpp:395] conv2_relu -> conv2 (in-place)
I0415 05:43:36.884091 13545 net.cpp:150] Setting up conv2_relu
I0415 05:43:36.884107 13545 net.cpp:157] Top shape: 1024 150 18 18 (49766400)
I0415 05:43:36.884110 13545 net.cpp:165] Memory required for data: 2052161536
I0415 05:43:36.884114 13545 layer_factory.hpp:77] Creating layer pool2
I0415 05:43:36.884124 13545 net.cpp:100] Creating Layer pool2
I0415 05:43:36.884130 13545 net.cpp:434] pool2 <- conv2
I0415 05:43:36.884135 13545 net.cpp:408] pool2 -> pool2
I0415 05:43:36.884198 13545 net.cpp:150] Setting up pool2
I0415 05:43:36.884213 13545 net.cpp:157] Top shape: 1024 150 9 9 (12441600)
I0415 05:43:36.884219 13545 net.cpp:165] Memory required for data: 2101927936
I0415 05:43:36.884250 13545 layer_factory.hpp:77] Creating layer conv3
I0415 05:43:36.884271 13545 net.cpp:100] Creating Layer conv3
I0415 05:43:36.884279 13545 net.cpp:434] conv3 <- pool2
I0415 05:43:36.884289 13545 net.cpp:408] conv3 -> conv3
I0415 05:43:36.891896 13545 net.cpp:150] Setting up conv3
I0415 05:43:36.891917 13545 net.cpp:157] Top shape: 1024 250 6 6 (9216000)
I0415 05:43:36.891921 13545 net.cpp:165] Memory required for data: 2138791936
I0415 05:43:36.891932 13545 layer_factory.hpp:77] Creating layer conv3_relu
I0415 05:43:36.891943 13545 net.cpp:100] Creating Layer conv3_relu
I0415 05:43:36.891948 13545 net.cpp:434] conv3_relu <- conv3
I0415 05:43:36.891955 13545 net.cpp:395] conv3_relu -> conv3 (in-place)
I0415 05:43:36.894464 13545 net.cpp:150] Setting up conv3_relu
I0415 05:43:36.894481 13545 net.cpp:157] Top shape: 1024 250 6 6 (9216000)
I0415 05:43:36.894486 13545 net.cpp:165] Memory required for data: 2175655936
I0415 05:43:36.894490 13545 layer_factory.hpp:77] Creating layer pool3
I0415 05:43:36.894497 13545 net.cpp:100] Creating Layer pool3
I0415 05:43:36.894502 13545 net.cpp:434] pool3 <- conv3
I0415 05:43:36.894510 13545 net.cpp:408] pool3 -> pool3
I0415 05:43:36.894564 13545 net.cpp:150] Setting up pool3
I0415 05:43:36.894575 13545 net.cpp:157] Top shape: 1024 250 3 3 (2304000)
I0415 05:43:36.894580 13545 net.cpp:165] Memory required for data: 2184871936
I0415 05:43:36.894584 13545 layer_factory.hpp:77] Creating layer fc4_300
I0415 05:43:36.894593 13545 net.cpp:100] Creating Layer fc4_300
I0415 05:43:36.894598 13545 net.cpp:434] fc4_300 <- pool3
I0415 05:43:36.894604 13545 net.cpp:408] fc4_300 -> fc4_300
I0415 05:43:36.904731 13545 net.cpp:150] Setting up fc4_300
I0415 05:43:36.904762 13545 net.cpp:157] Top shape: 1024 300 (307200)
I0415 05:43:36.904772 13545 net.cpp:165] Memory required for data: 2186100736
I0415 05:43:36.904788 13545 layer_factory.hpp:77] Creating layer fc4_relu
I0415 05:43:36.904806 13545 net.cpp:100] Creating Layer fc4_relu
I0415 05:43:36.904816 13545 net.cpp:434] fc4_relu <- fc4_300
I0415 05:43:36.904829 13545 net.cpp:395] fc4_relu -> fc4_300 (in-place)
I0415 05:43:36.905231 13545 net.cpp:150] Setting up fc4_relu
I0415 05:43:36.905249 13545 net.cpp:157] Top shape: 1024 300 (307200)
I0415 05:43:36.905257 13545 net.cpp:165] Memory required for data: 2187329536
I0415 05:43:36.905264 13545 layer_factory.hpp:77] Creating layer drop4
I0415 05:43:36.905278 13545 net.cpp:100] Creating Layer drop4
I0415 05:43:36.905284 13545 net.cpp:434] drop4 <- fc4_300
I0415 05:43:36.905293 13545 net.cpp:395] drop4 -> fc4_300 (in-place)
I0415 05:43:36.905344 13545 net.cpp:150] Setting up drop4
I0415 05:43:36.905352 13545 net.cpp:157] Top shape: 1024 300 (307200)
I0415 05:43:36.905359 13545 net.cpp:165] Memory required for data: 2188558336
I0415 05:43:36.905364 13545 layer_factory.hpp:77] Creating layer fc5_67
I0415 05:43:36.905375 13545 net.cpp:100] Creating Layer fc5_67
I0415 05:43:36.905380 13545 net.cpp:434] fc5_67 <- fc4_300
I0415 05:43:36.905385 13545 net.cpp:408] fc5_67 -> fc5_classes
I0415 05:43:36.907744 13545 net.cpp:150] Setting up fc5_67
I0415 05:43:36.907771 13545 net.cpp:157] Top shape: 1024 67 (68608)
I0415 05:43:36.907780 13545 net.cpp:165] Memory required for data: 2188832768
I0415 05:43:36.907801 13545 layer_factory.hpp:77] Creating layer fc5_classes_fc5_67_0_split
I0415 05:43:36.907821 13545 net.cpp:100] Creating Layer fc5_classes_fc5_67_0_split
I0415 05:43:36.907830 13545 net.cpp:434] fc5_classes_fc5_67_0_split <- fc5_classes
I0415 05:43:36.907843 13545 net.cpp:408] fc5_classes_fc5_67_0_split -> fc5_classes_fc5_67_0_split_0
I0415 05:43:36.907853 13545 net.cpp:408] fc5_classes_fc5_67_0_split -> fc5_classes_fc5_67_0_split_1
I0415 05:43:36.907863 13545 net.cpp:408] fc5_classes_fc5_67_0_split -> fc5_classes_fc5_67_0_split_2
I0415 05:43:36.907948 13545 net.cpp:150] Setting up fc5_classes_fc5_67_0_split
I0415 05:43:36.907959 13545 net.cpp:157] Top shape: 1024 67 (68608)
I0415 05:43:36.907964 13545 net.cpp:157] Top shape: 1024 67 (68608)
I0415 05:43:36.907971 13545 net.cpp:157] Top shape: 1024 67 (68608)
I0415 05:43:36.907995 13545 net.cpp:165] Memory required for data: 2189656064
I0415 05:43:36.907999 13545 layer_factory.hpp:77] Creating layer softmax
I0415 05:43:36.908017 13545 net.cpp:100] Creating Layer softmax
I0415 05:43:36.908026 13545 net.cpp:434] softmax <- fc5_classes_fc5_67_0_split_0
I0415 05:43:36.908035 13545 net.cpp:408] softmax -> softmax
I0415 05:43:36.908596 13545 net.cpp:150] Setting up softmax
I0415 05:43:36.908619 13545 net.cpp:157] Top shape: 1024 67 (68608)
I0415 05:43:36.908627 13545 net.cpp:165] Memory required for data: 2189930496
I0415 05:43:36.908638 13545 layer_factory.hpp:77] Creating layer loss
I0415 05:43:36.908653 13545 net.cpp:100] Creating Layer loss
I0415 05:43:36.908661 13545 net.cpp:434] loss <- softmax
I0415 05:43:36.908671 13545 net.cpp:434] loss <- label_data_1_split_0
I0415 05:43:36.908682 13545 net.cpp:408] loss -> loss
…
