…
I0414 03:57:37.048887 26374 solver.cpp:93] Creating training net from train_net file: ./Prototxt/experiment_11/rtsd-r1/CoNorm/trial_3/train.prototxt
I0414 03:57:37.049546 26374 net.cpp:58] Initializing net from parameters: 
state {
  phase: TRAIN
  level: 0
  stage: ""
}
layer {
  name: "data"
  type: "Data"
  top: "data"
  top: "label"
  include {
    phase: TRAIN
  }
  transform_param {
    scale: 0.0039215689
    mirror: false
    crop_size: 48
    mean_value: 132
    mean_value: 132
    mean_value: 131
  }
  data_param {
    source: "../local_data/lmdb/rtsd-r1/CoNorm/train/lmdb"
    batch_size: 1024
    backend: LMDB
  }
}
layer {
  name: "conv1"
  type: "Convolution"
  bottom: "data"
  top: "conv1"
  convolution_param {
    num_output: 100
    pad: 0
    kernel_size: 7
    group: 1
    stride: 1
    weight_filler {
      type: "xavier"
    }
  }
}
layer {
  name: "conv1_prescale"
  type: "Scale"
  bottom: "conv1"
  top: "conv1"
  param {
    lr_mult: 0
    decay_mult: 0
  }
  scale_param {
    filler {
      value: 0.6666
    }
    bias_term: false
  }
}
layer {
  name: "conv1_sTanH"
  type: "TanH"
  bottom: "conv1"
  top: "conv1"
}
layer {
  name: "conv1_postscale"
  type: "Scale"
  bottom: "conv1"
  top: "conv1"
  param {
    lr_mult: 0
    decay_mult: 0
  }
  scale_param {
    filler {
      value: 1.7159
    }
    bias_term: false
  }
}
layer {
  name: "pool1"
  type: "Pooling"
  bottom: "conv1"
  top: "pool1"
  pooling_param {
    pool: MAX
    kernel_size: 2
    stride: 2
  }
}
layer {
  name: "conv2"
  type: "Convolution"
  bottom: "pool1"
  top: "conv2"
  convolution_param {
    num_output: 150
    pad: 0
    kernel_size: 4
    group: 1
    stride: 1
    weight_filler {
      type: "xavier"
    }
  }
}
layer {
  name: "conv2_prescale"
  type: "Scale"
  bottom: "conv2"
  top: "conv2"
  param {
    lr_mult: 0
    decay_mult: 0
  }
  scale_param {
    filler {
      value: 0.6666
    }
    bias_term: false
  }
}
layer {
  name: "conv2_sTanH"
  type: "TanH"
  bottom: "conv2"
  top: "conv2"
}
layer {
  name: "conv2_postscale"
  type: "Scale"
  bottom: "conv2"
  top: "conv2"
  param {
    lr_mult: 0
    decay_mult: 0
  }
  scale_param {
    filler {
      value: 1.7159
    }
    bias_term: false
  }
}
layer {
  name: "pool2"
  type: "Pooling"
  bottom: "conv2"
  top: "pool2"
  pooling_param {
    pool: MAX
    kernel_size: 2
    stride: 2
  }
}
layer {
  name: "conv3"
  type: "Convolution"
  bottom: "pool2"
  top: "conv3"
  convolution_param {
    num_output: 250
    pad: 0
    kernel_size: 4
    group: 1
    stride: 1
    weight_filler {
      type: "xavier"
    }
  }
}
layer {
  name: "conv3_prescale"
  type: "Scale"
  bottom: "conv3"
  top: "conv3"
  param {
    lr_mult: 0
    decay_mult: 0
  }
  scale_param {
    filler {
      value: 0.6666
    }
    bias_term: false
  }
}
layer {
  name: "conv3_sTanH"
  type: "TanH"
  bottom: "conv3"
  top: "conv3"
}
layer {
  name: "conv3_postscale"
  type: "Scale"
  bottom: "conv3"
  top: "conv3"
  param {
    lr_mult: 0
    decay_mult: 0
  }
  scale_param {
    filler {
      value: 1.7159
    }
    bias_term: false
  }
}
layer {
  name: "pool3"
  type: "Pooling"
  bottom: "conv3"
  top: "pool3"
  pooling_param {
    pool: MAX
    kernel_size: 2
    stride: 2
  }
}
layer {
  name: "fc4_300"
  type: "InnerProduct"
  bottom: "pool3"
  top: "fc4_300"
  inner_product_param {
    num_output: 300
    weight_filler {
      type: "xavier"
    }
  }
}
layer {
  name: "fc4_prescale"
  type: "Scale"
  bottom: "fc4_300"
  top: "fc4_300"
  param {
    lr_mult: 0
    decay_mult: 0
  }
  scale_param {
    filler {
      value: 0.6666
    }
    bias_term: false
  }
}
layer {
  name: "fc4_sTanH"
  type: "TanH"
  bottom: "fc4_300"
  top: "fc4_300"
}
layer {
  name: "fc4_postscale"
  type: "Scale"
  bottom: "fc4_300"
  top: "fc4_300"
  param {
    lr_mult: 0
    decay_mult: 0
  }
  scale_param {
    filler {
      value: 1.7159
    }
    bias_term: false
  }
}
layer {
  name: "fc5_67"
  type: "InnerProduct"
  bottom: "fc4_300"
  top: "fc5_classes"
  inner_product_param {
    num_output: 67
    weight_filler {
      type: "xavier"
    }
  }
}
layer {
  name: "softmax"
  type: "Softmax"
  bottom: "fc5_classes"
  top: "softmax"
}
layer {
  name: "loss"
  type: "MultinomialLogisticLoss"
  bottom: "softmax"
  bottom: "label"
  top: "loss"
}
layer {
  name: "accuracy_1"
  type: "Accuracy"
  bottom: "fc5_classes"
  bottom: "label"
  top: "accuracy_1"
  accuracy_param {
    top_k: 1
  }
}
layer {
  name: "accuracy_5"
  type: "Accuracy"
  bottom: "fc5_classes"
  bottom: "label"
  top: "accuracy_5"
  accuracy_param {
    top_k: 5
  }
}
layer {
  name: "silence"
  type: "Silence"
  bottom: "accuracy_1"
  bottom: "accuracy_5"
}
I0414 03:57:37.049767 26374 layer_factory.hpp:77] Creating layer data
I0414 03:57:37.051345 26374 net.cpp:100] Creating Layer data
I0414 03:57:37.051367 26374 net.cpp:408] data -> data
I0414 03:57:37.051398 26374 net.cpp:408] data -> label
I0414 03:57:37.052562 26496 db_lmdb.cpp:35] Opened lmdb ../local_data/lmdb/rtsd-r1/CoNorm/train/lmdb
I0414 03:57:37.075314 26374 data_layer.cpp:41] output data size: 1024,3,48,48
I0414 03:57:37.149657 26374 net.cpp:150] Setting up data
I0414 03:57:37.149686 26374 net.cpp:157] Top shape: 1024 3 48 48 (7077888)
I0414 03:57:37.149693 26374 net.cpp:157] Top shape: 1024 (1024)
I0414 03:57:37.149695 26374 net.cpp:165] Memory required for data: 28315648
I0414 03:57:37.149706 26374 layer_factory.hpp:77] Creating layer label_data_1_split
I0414 03:57:37.149720 26374 net.cpp:100] Creating Layer label_data_1_split
I0414 03:57:37.149729 26374 net.cpp:434] label_data_1_split <- label
I0414 03:57:37.149749 26374 net.cpp:408] label_data_1_split -> label_data_1_split_0
I0414 03:57:37.149761 26374 net.cpp:408] label_data_1_split -> label_data_1_split_1
I0414 03:57:37.149770 26374 net.cpp:408] label_data_1_split -> label_data_1_split_2
I0414 03:57:37.149874 26374 net.cpp:150] Setting up label_data_1_split
I0414 03:57:37.149884 26374 net.cpp:157] Top shape: 1024 (1024)
I0414 03:57:37.149888 26374 net.cpp:157] Top shape: 1024 (1024)
I0414 03:57:37.149891 26374 net.cpp:157] Top shape: 1024 (1024)
I0414 03:57:37.149894 26374 net.cpp:165] Memory required for data: 28327936
I0414 03:57:37.149897 26374 layer_factory.hpp:77] Creating layer conv1
I0414 03:57:37.149914 26374 net.cpp:100] Creating Layer conv1
I0414 03:57:37.149919 26374 net.cpp:434] conv1 <- data
I0414 03:57:37.149925 26374 net.cpp:408] conv1 -> conv1
I0414 03:57:37.613659 26374 net.cpp:150] Setting up conv1
I0414 03:57:37.613690 26374 net.cpp:157] Top shape: 1024 100 42 42 (180633600)
I0414 03:57:37.613694 26374 net.cpp:165] Memory required for data: 750862336
I0414 03:57:37.613716 26374 layer_factory.hpp:77] Creating layer conv1_prescale
I0414 03:57:37.613731 26374 net.cpp:100] Creating Layer conv1_prescale
I0414 03:57:37.613739 26374 net.cpp:434] conv1_prescale <- conv1
I0414 03:57:37.613744 26374 net.cpp:395] conv1_prescale -> conv1 (in-place)
I0414 03:57:37.613854 26374 net.cpp:150] Setting up conv1_prescale
I0414 03:57:37.613863 26374 net.cpp:157] Top shape: 1024 100 42 42 (180633600)
I0414 03:57:37.613867 26374 net.cpp:165] Memory required for data: 1473396736
I0414 03:57:37.613873 26374 layer_factory.hpp:77] Creating layer conv1_sTanH
I0414 03:57:37.613883 26374 net.cpp:100] Creating Layer conv1_sTanH
I0414 03:57:37.613888 26374 net.cpp:434] conv1_sTanH <- conv1
I0414 03:57:37.613893 26374 net.cpp:395] conv1_sTanH -> conv1 (in-place)
I0414 03:57:37.614084 26374 net.cpp:150] Setting up conv1_sTanH
I0414 03:57:37.614121 26374 net.cpp:157] Top shape: 1024 100 42 42 (180633600)
I0414 03:57:37.614125 26374 net.cpp:165] Memory required for data: 2195931136
I0414 03:57:37.614130 26374 layer_factory.hpp:77] Creating layer conv1_postscale
I0414 03:57:37.614137 26374 net.cpp:100] Creating Layer conv1_postscale
I0414 03:57:37.614141 26374 net.cpp:434] conv1_postscale <- conv1
I0414 03:57:37.614147 26374 net.cpp:395] conv1_postscale -> conv1 (in-place)
I0414 03:57:37.614243 26374 net.cpp:150] Setting up conv1_postscale
I0414 03:57:37.614251 26374 net.cpp:157] Top shape: 1024 100 42 42 (180633600)
I0414 03:57:37.614254 26374 net.cpp:165] Memory required for data: 2918465536
I0414 03:57:37.614259 26374 layer_factory.hpp:77] Creating layer pool1
I0414 03:57:37.614269 26374 net.cpp:100] Creating Layer pool1
I0414 03:57:37.614274 26374 net.cpp:434] pool1 <- conv1
I0414 03:57:37.614279 26374 net.cpp:408] pool1 -> pool1
I0414 03:57:37.614326 26374 net.cpp:150] Setting up pool1
I0414 03:57:37.614333 26374 net.cpp:157] Top shape: 1024 100 21 21 (45158400)
I0414 03:57:37.614336 26374 net.cpp:165] Memory required for data: 3099099136
I0414 03:57:37.614339 26374 layer_factory.hpp:77] Creating layer conv2
I0414 03:57:37.614349 26374 net.cpp:100] Creating Layer conv2
I0414 03:57:37.614354 26374 net.cpp:434] conv2 <- pool1
I0414 03:57:37.614359 26374 net.cpp:408] conv2 -> conv2
I0414 03:57:37.622092 26374 net.cpp:150] Setting up conv2
I0414 03:57:37.622110 26374 net.cpp:157] Top shape: 1024 150 18 18 (49766400)
I0414 03:57:37.622114 26374 net.cpp:165] Memory required for data: 3298164736
I0414 03:57:37.622125 26374 layer_factory.hpp:77] Creating layer conv2_prescale
I0414 03:57:37.622138 26374 net.cpp:100] Creating Layer conv2_prescale
I0414 03:57:37.622143 26374 net.cpp:434] conv2_prescale <- conv2
I0414 03:57:37.622149 26374 net.cpp:395] conv2_prescale -> conv2 (in-place)
I0414 03:57:37.622257 26374 net.cpp:150] Setting up conv2_prescale
I0414 03:57:37.622267 26374 net.cpp:157] Top shape: 1024 150 18 18 (49766400)
I0414 03:57:37.622272 26374 net.cpp:165] Memory required for data: 3497230336
I0414 03:57:37.622277 26374 layer_factory.hpp:77] Creating layer conv2_sTanH
I0414 03:57:37.622282 26374 net.cpp:100] Creating Layer conv2_sTanH
I0414 03:57:37.622287 26374 net.cpp:434] conv2_sTanH <- conv2
I0414 03:57:37.622292 26374 net.cpp:395] conv2_sTanH -> conv2 (in-place)
I0414 03:57:37.632036 26374 net.cpp:150] Setting up conv2_sTanH
I0414 03:57:37.632055 26374 net.cpp:157] Top shape: 1024 150 18 18 (49766400)
I0414 03:57:37.632061 26374 net.cpp:165] Memory required for data: 3696295936
I0414 03:57:37.632064 26374 layer_factory.hpp:77] Creating layer conv2_postscale
I0414 03:57:37.632072 26374 net.cpp:100] Creating Layer conv2_postscale
I0414 03:57:37.632078 26374 net.cpp:434] conv2_postscale <- conv2
I0414 03:57:37.632084 26374 net.cpp:395] conv2_postscale -> conv2 (in-place)
I0414 03:57:37.632184 26374 net.cpp:150] Setting up conv2_postscale
I0414 03:57:37.632194 26374 net.cpp:157] Top shape: 1024 150 18 18 (49766400)
I0414 03:57:37.632196 26374 net.cpp:165] Memory required for data: 3895361536
I0414 03:57:37.632201 26374 layer_factory.hpp:77] Creating layer pool2
I0414 03:57:37.632210 26374 net.cpp:100] Creating Layer pool2
I0414 03:57:37.632215 26374 net.cpp:434] pool2 <- conv2
I0414 03:57:37.632220 26374 net.cpp:408] pool2 -> pool2
I0414 03:57:37.632261 26374 net.cpp:150] Setting up pool2
I0414 03:57:37.632269 26374 net.cpp:157] Top shape: 1024 150 9 9 (12441600)
I0414 03:57:37.632274 26374 net.cpp:165] Memory required for data: 3945127936
I0414 03:57:37.632277 26374 layer_factory.hpp:77] Creating layer conv3
I0414 03:57:37.632287 26374 net.cpp:100] Creating Layer conv3
I0414 03:57:37.632290 26374 net.cpp:434] conv3 <- pool2
I0414 03:57:37.632295 26374 net.cpp:408] conv3 -> conv3
I0414 03:57:37.645680 26374 net.cpp:150] Setting up conv3
I0414 03:57:37.645704 26374 net.cpp:157] Top shape: 1024 250 6 6 (9216000)
I0414 03:57:37.645709 26374 net.cpp:165] Memory required for data: 3981991936
I0414 03:57:37.645720 26374 layer_factory.hpp:77] Creating layer conv3_prescale
I0414 03:57:37.645746 26374 net.cpp:100] Creating Layer conv3_prescale
I0414 03:57:37.645750 26374 net.cpp:434] conv3_prescale <- conv3
I0414 03:57:37.645757 26374 net.cpp:395] conv3_prescale -> conv3 (in-place)
I0414 03:57:37.645853 26374 net.cpp:150] Setting up conv3_prescale
I0414 03:57:37.645864 26374 net.cpp:157] Top shape: 1024 250 6 6 (9216000)
I0414 03:57:37.645866 26374 net.cpp:165] Memory required for data: 4018855936
I0414 03:57:37.645870 26374 layer_factory.hpp:77] Creating layer conv3_sTanH
I0414 03:57:37.645876 26374 net.cpp:100] Creating Layer conv3_sTanH
I0414 03:57:37.645879 26374 net.cpp:434] conv3_sTanH <- conv3
I0414 03:57:37.645884 26374 net.cpp:395] conv3_sTanH -> conv3 (in-place)
I0414 03:57:37.646816 26374 net.cpp:150] Setting up conv3_sTanH
I0414 03:57:37.646832 26374 net.cpp:157] Top shape: 1024 250 6 6 (9216000)
I0414 03:57:37.646836 26374 net.cpp:165] Memory required for data: 4055719936
I0414 03:57:37.646841 26374 layer_factory.hpp:77] Creating layer conv3_postscale
I0414 03:57:37.646848 26374 net.cpp:100] Creating Layer conv3_postscale
I0414 03:57:37.646852 26374 net.cpp:434] conv3_postscale <- conv3
I0414 03:57:37.646857 26374 net.cpp:395] conv3_postscale -> conv3 (in-place)
I0414 03:57:37.646955 26374 net.cpp:150] Setting up conv3_postscale
I0414 03:57:37.646965 26374 net.cpp:157] Top shape: 1024 250 6 6 (9216000)
I0414 03:57:37.646967 26374 net.cpp:165] Memory required for data: 4092583936
I0414 03:57:37.646973 26374 layer_factory.hpp:77] Creating layer pool3
I0414 03:57:37.646982 26374 net.cpp:100] Creating Layer pool3
I0414 03:57:37.646987 26374 net.cpp:434] pool3 <- conv3
I0414 03:57:37.646993 26374 net.cpp:408] pool3 -> pool3
I0414 03:57:37.647032 26374 net.cpp:150] Setting up pool3
I0414 03:57:37.647039 26374 net.cpp:157] Top shape: 1024 250 3 3 (2304000)
I0414 03:57:37.647042 26374 net.cpp:165] Memory required for data: 4101799936
I0414 03:57:37.647045 26374 layer_factory.hpp:77] Creating layer fc4_300
I0414 03:57:37.647053 26374 net.cpp:100] Creating Layer fc4_300
I0414 03:57:37.647055 26374 net.cpp:434] fc4_300 <- pool3
I0414 03:57:37.647060 26374 net.cpp:408] fc4_300 -> fc4_300
I0414 03:57:37.656040 26374 net.cpp:150] Setting up fc4_300
I0414 03:57:37.656077 26374 net.cpp:157] Top shape: 1024 300 (307200)
I0414 03:57:37.656081 26374 net.cpp:165] Memory required for data: 4103028736
I0414 03:57:37.656092 26374 layer_factory.hpp:77] Creating layer fc4_prescale
I0414 03:57:37.656105 26374 net.cpp:100] Creating Layer fc4_prescale
I0414 03:57:37.656110 26374 net.cpp:434] fc4_prescale <- fc4_300
I0414 03:57:37.656116 26374 net.cpp:395] fc4_prescale -> fc4_300 (in-place)
I0414 03:57:37.656219 26374 net.cpp:150] Setting up fc4_prescale
I0414 03:57:37.656227 26374 net.cpp:157] Top shape: 1024 300 (307200)
I0414 03:57:37.656230 26374 net.cpp:165] Memory required for data: 4104257536
I0414 03:57:37.656234 26374 layer_factory.hpp:77] Creating layer fc4_sTanH
I0414 03:57:37.656241 26374 net.cpp:100] Creating Layer fc4_sTanH
I0414 03:57:37.656244 26374 net.cpp:434] fc4_sTanH <- fc4_300
I0414 03:57:37.656249 26374 net.cpp:395] fc4_sTanH -> fc4_300 (in-place)
I0414 03:57:37.656477 26374 net.cpp:150] Setting up fc4_sTanH
I0414 03:57:37.656489 26374 net.cpp:157] Top shape: 1024 300 (307200)
I0414 03:57:37.656493 26374 net.cpp:165] Memory required for data: 4105486336
I0414 03:57:37.656497 26374 layer_factory.hpp:77] Creating layer fc4_postscale
I0414 03:57:37.656503 26374 net.cpp:100] Creating Layer fc4_postscale
I0414 03:57:37.656507 26374 net.cpp:434] fc4_postscale <- fc4_300
I0414 03:57:37.656512 26374 net.cpp:395] fc4_postscale -> fc4_300 (in-place)
I0414 03:57:37.656610 26374 net.cpp:150] Setting up fc4_postscale
I0414 03:57:37.656617 26374 net.cpp:157] Top shape: 1024 300 (307200)
I0414 03:57:37.656620 26374 net.cpp:165] Memory required for data: 4106715136
I0414 03:57:37.656625 26374 layer_factory.hpp:77] Creating layer fc5_67
I0414 03:57:37.656633 26374 net.cpp:100] Creating Layer fc5_67
I0414 03:57:37.656638 26374 net.cpp:434] fc5_67 <- fc4_300
I0414 03:57:37.656643 26374 net.cpp:408] fc5_67 -> fc5_classes
I0414 03:57:37.658054 26374 net.cpp:150] Setting up fc5_67
I0414 03:57:37.658072 26374 net.cpp:157] Top shape: 1024 67 (68608)
I0414 03:57:37.658076 26374 net.cpp:165] Memory required for data: 4106989568
I0414 03:57:37.658088 26374 layer_factory.hpp:77] Creating layer fc5_classes_fc5_67_0_split
I0414 03:57:37.658097 26374 net.cpp:100] Creating Layer fc5_classes_fc5_67_0_split
I0414 03:57:37.658104 26374 net.cpp:434] fc5_classes_fc5_67_0_split <- fc5_classes
I0414 03:57:37.658113 26374 net.cpp:408] fc5_classes_fc5_67_0_split -> fc5_classes_fc5_67_0_split_0
I0414 03:57:37.658125 26374 net.cpp:408] fc5_classes_fc5_67_0_split -> fc5_classes_fc5_67_0_split_1
I0414 03:57:37.658131 26374 net.cpp:408] fc5_classes_fc5_67_0_split -> fc5_classes_fc5_67_0_split_2
I0414 03:57:37.658185 26374 net.cpp:150] Setting up fc5_classes_fc5_67_0_split
I0414 03:57:37.658192 26374 net.cpp:157] Top shape: 1024 67 (68608)
I0414 03:57:37.658196 26374 net.cpp:157] Top shape: 1024 67 (68608)
I0414 03:57:37.658200 26374 net.cpp:157] Top shape: 1024 67 (68608)
I0414 03:57:37.658202 26374 net.cpp:165] Memory required for data: 4107812864
I0414 03:57:37.658205 26374 layer_factory.hpp:77] Creating layer softmax
I0414 03:57:37.658211 26374 net.cpp:100] Creating Layer softmax
I0414 03:57:37.658215 26374 net.cpp:434] softmax <- fc5_classes_fc5_67_0_split_0
I0414 03:57:37.658219 26374 net.cpp:408] softmax -> softmax
I0414 03:57:37.658490 26374 net.cpp:150] Setting up softmax
I0414 03:57:37.658504 26374 net.cpp:157] Top shape: 1024 67 (68608)
I0414 03:57:37.658509 26374 net.cpp:165] Memory required for data: 4108087296
I0414 03:57:37.658512 26374 layer_factory.hpp:77] Creating layer loss
I0414 03:57:37.658519 26374 net.cpp:100] Creating Layer loss
I0414 03:57:37.658526 26374 net.cpp:434] loss <- softmax
I0414 03:57:37.658530 26374 net.cpp:434] loss <- label_data_1_split_0
I0414 03:57:37.658536 26374 net.cpp:408] loss -> loss
…
