…
I0417 16:43:05.479154 11570 solver.cpp:93] Creating training net from train_net file: ./Prototxt/experiment_11/rtsd-r1/CoNorm/trial_3/train.prototxt
I0417 16:43:05.479707 11570 net.cpp:58] Initializing net from parameters: 
state {
  phase: TRAIN
  level: 0
  stage: ""
}
layer {
  name: "data"
  type: "Data"
  top: "data"
  top: "label"
  include {
    phase: TRAIN
  }
  transform_param {
    scale: 0.0039215689
    mirror: false
    crop_size: 48
    mean_value: 132
    mean_value: 132
    mean_value: 131
  }
  data_param {
    source: "../local_data/lmdb/rtsd-r1/CoNorm/train/lmdb"
    batch_size: 1024
    backend: LMDB
  }
}
layer {
  name: "conv1"
  type: "Convolution"
  bottom: "data"
  top: "conv1"
  convolution_param {
    num_output: 100
    pad: 0
    kernel_size: 7
    group: 1
    stride: 1
    weight_filler {
      type: "xavier"
    }
  }
}
layer {
  name: "conv1_prescale"
  type: "Scale"
  bottom: "conv1"
  top: "conv1"
  param {
    lr_mult: 0
    decay_mult: 0
  }
  scale_param {
    filler {
      value: 0.6666
    }
    bias_term: false
  }
}
layer {
  name: "conv1_sTanH"
  type: "TanH"
  bottom: "conv1"
  top: "conv1"
}
layer {
  name: "conv1_postscale"
  type: "Scale"
  bottom: "conv1"
  top: "conv1"
  param {
    lr_mult: 0
    decay_mult: 0
  }
  scale_param {
    filler {
      value: 1.7159
    }
    bias_term: false
  }
}
layer {
  name: "pool1"
  type: "Pooling"
  bottom: "conv1"
  top: "pool1"
  pooling_param {
    pool: MAX
    kernel_size: 2
    stride: 2
  }
}
layer {
  name: "conv2"
  type: "Convolution"
  bottom: "pool1"
  top: "conv2"
  convolution_param {
    num_output: 150
    pad: 0
    kernel_size: 4
    group: 1
    stride: 1
    weight_filler {
      type: "xavier"
    }
  }
}
layer {
  name: "conv2_prescale"
  type: "Scale"
  bottom: "conv2"
  top: "conv2"
  param {
    lr_mult: 0
    decay_mult: 0
  }
  scale_param {
    filler {
      value: 0.6666
    }
    bias_term: false
  }
}
layer {
  name: "conv2_sTanH"
  type: "TanH"
  bottom: "conv2"
  top: "conv2"
}
layer {
  name: "conv2_postscale"
  type: "Scale"
  bottom: "conv2"
  top: "conv2"
  param {
    lr_mult: 0
    decay_mult: 0
  }
  scale_param {
    filler {
      value: 1.7159
    }
    bias_term: false
  }
}
layer {
  name: "pool2"
  type: "Pooling"
  bottom: "conv2"
  top: "pool2"
  pooling_param {
    pool: MAX
    kernel_size: 2
    stride: 2
  }
}
layer {
  name: "conv3"
  type: "Convolution"
  bottom: "pool2"
  top: "conv3"
  convolution_param {
    num_output: 250
    pad: 0
    kernel_size: 4
    group: 1
    stride: 1
    weight_filler {
      type: "xavier"
    }
  }
}
layer {
  name: "conv3_prescale"
  type: "Scale"
  bottom: "conv3"
  top: "conv3"
  param {
    lr_mult: 0
    decay_mult: 0
  }
  scale_param {
    filler {
      value: 0.6666
    }
    bias_term: false
  }
}
layer {
  name: "conv3_sTanH"
  type: "TanH"
  bottom: "conv3"
  top: "conv3"
}
layer {
  name: "conv3_postscale"
  type: "Scale"
  bottom: "conv3"
  top: "conv3"
  param {
    lr_mult: 0
    decay_mult: 0
  }
  scale_param {
    filler {
      value: 1.7159
    }
    bias_term: false
  }
}
layer {
  name: "pool3"
  type: "Pooling"
  bottom: "conv3"
  top: "pool3"
  pooling_param {
    pool: MAX
    kernel_size: 2
    stride: 2
  }
}
layer {
  name: "fc4_300"
  type: "InnerProduct"
  bottom: "pool3"
  top: "fc4_300"
  inner_product_param {
    num_output: 300
    weight_filler {
      type: "xavier"
    }
  }
}
layer {
  name: "fc4_prescale"
  type: "Scale"
  bottom: "fc4_300"
  top: "fc4_300"
  param {
    lr_mult: 0
    decay_mult: 0
  }
  scale_param {
    filler {
      value: 0.6666
    }
    bias_term: false
  }
}
layer {
  name: "fc4_sTanH"
  type: "TanH"
  bottom: "fc4_300"
  top: "fc4_300"
}
layer {
  name: "fc4_postscale"
  type: "Scale"
  bottom: "fc4_300"
  top: "fc4_300"
  param {
    lr_mult: 0
    decay_mult: 0
  }
  scale_param {
    filler {
      value: 1.7159
    }
    bias_term: false
  }
}
layer {
  name: "fc5_67"
  type: "InnerProduct"
  bottom: "fc4_300"
  top: "fc5_classes"
  inner_product_param {
    num_output: 67
    weight_filler {
      type: "xavier"
    }
  }
}
layer {
  name: "softmax"
  type: "Softmax"
  bottom: "fc5_classes"
  top: "softmax"
}
layer {
  name: "loss"
  type: "MultinomialLogisticLoss"
  bottom: "softmax"
  bottom: "label"
  top: "loss"
}
layer {
  name: "accuracy_1"
  type: "Accuracy"
  bottom: "fc5_classes"
  bottom: "label"
  top: "accuracy_1"
  accuracy_param {
    top_k: 1
  }
}
layer {
  name: "accuracy_5"
  type: "Accuracy"
  bottom: "fc5_classes"
  bottom: "label"
  top: "accuracy_5"
  accuracy_param {
    top_k: 5
  }
}
layer {
  name: "silence"
  type: "Silence"
  bottom: "accuracy_1"
  bottom: "accuracy_5"
}
I0417 16:43:05.479967 11570 layer_factory.hpp:77] Creating layer data
I0417 16:43:05.481303 11570 net.cpp:100] Creating Layer data
I0417 16:43:05.481320 11570 net.cpp:408] data -> data
I0417 16:43:05.481346 11570 net.cpp:408] data -> label
I0417 16:43:05.519726 11694 db_lmdb.cpp:35] Opened lmdb ../local_data/lmdb/rtsd-r1/CoNorm/train/lmdb
I0417 16:43:05.540331 11570 data_layer.cpp:41] output data size: 1024,3,48,48
I0417 16:43:05.629216 11570 net.cpp:150] Setting up data
I0417 16:43:05.629247 11570 net.cpp:157] Top shape: 1024 3 48 48 (7077888)
I0417 16:43:05.629254 11570 net.cpp:157] Top shape: 1024 (1024)
I0417 16:43:05.629258 11570 net.cpp:165] Memory required for data: 28315648
I0417 16:43:05.629271 11570 layer_factory.hpp:77] Creating layer label_data_1_split
I0417 16:43:05.629287 11570 net.cpp:100] Creating Layer label_data_1_split
I0417 16:43:05.629294 11570 net.cpp:434] label_data_1_split <- label
I0417 16:43:05.629312 11570 net.cpp:408] label_data_1_split -> label_data_1_split_0
I0417 16:43:05.629326 11570 net.cpp:408] label_data_1_split -> label_data_1_split_1
I0417 16:43:05.629336 11570 net.cpp:408] label_data_1_split -> label_data_1_split_2
I0417 16:43:05.629461 11570 net.cpp:150] Setting up label_data_1_split
I0417 16:43:05.629472 11570 net.cpp:157] Top shape: 1024 (1024)
I0417 16:43:05.629477 11570 net.cpp:157] Top shape: 1024 (1024)
I0417 16:43:05.629480 11570 net.cpp:157] Top shape: 1024 (1024)
I0417 16:43:05.629483 11570 net.cpp:165] Memory required for data: 28327936
I0417 16:43:05.629488 11570 layer_factory.hpp:77] Creating layer conv1
I0417 16:43:05.629508 11570 net.cpp:100] Creating Layer conv1
I0417 16:43:05.629513 11570 net.cpp:434] conv1 <- data
I0417 16:43:05.629520 11570 net.cpp:408] conv1 -> conv1
I0417 16:43:06.061713 11570 net.cpp:150] Setting up conv1
I0417 16:43:06.061740 11570 net.cpp:157] Top shape: 1024 100 42 42 (180633600)
I0417 16:43:06.061744 11570 net.cpp:165] Memory required for data: 750862336
I0417 16:43:06.061766 11570 layer_factory.hpp:77] Creating layer conv1_prescale
I0417 16:43:06.061779 11570 net.cpp:100] Creating Layer conv1_prescale
I0417 16:43:06.061784 11570 net.cpp:434] conv1_prescale <- conv1
I0417 16:43:06.061789 11570 net.cpp:395] conv1_prescale -> conv1 (in-place)
I0417 16:43:06.061897 11570 net.cpp:150] Setting up conv1_prescale
I0417 16:43:06.061905 11570 net.cpp:157] Top shape: 1024 100 42 42 (180633600)
I0417 16:43:06.061908 11570 net.cpp:165] Memory required for data: 1473396736
I0417 16:43:06.061914 11570 layer_factory.hpp:77] Creating layer conv1_sTanH
I0417 16:43:06.061923 11570 net.cpp:100] Creating Layer conv1_sTanH
I0417 16:43:06.061928 11570 net.cpp:434] conv1_sTanH <- conv1
I0417 16:43:06.061931 11570 net.cpp:395] conv1_sTanH -> conv1 (in-place)
I0417 16:43:06.062124 11570 net.cpp:150] Setting up conv1_sTanH
I0417 16:43:06.062155 11570 net.cpp:157] Top shape: 1024 100 42 42 (180633600)
I0417 16:43:06.062158 11570 net.cpp:165] Memory required for data: 2195931136
I0417 16:43:06.062161 11570 layer_factory.hpp:77] Creating layer conv1_postscale
I0417 16:43:06.062170 11570 net.cpp:100] Creating Layer conv1_postscale
I0417 16:43:06.062172 11570 net.cpp:434] conv1_postscale <- conv1
I0417 16:43:06.062177 11570 net.cpp:395] conv1_postscale -> conv1 (in-place)
I0417 16:43:06.062273 11570 net.cpp:150] Setting up conv1_postscale
I0417 16:43:06.062281 11570 net.cpp:157] Top shape: 1024 100 42 42 (180633600)
I0417 16:43:06.062284 11570 net.cpp:165] Memory required for data: 2918465536
I0417 16:43:06.062289 11570 layer_factory.hpp:77] Creating layer pool1
I0417 16:43:06.062296 11570 net.cpp:100] Creating Layer pool1
I0417 16:43:06.062299 11570 net.cpp:434] pool1 <- conv1
I0417 16:43:06.062304 11570 net.cpp:408] pool1 -> pool1
I0417 16:43:06.062350 11570 net.cpp:150] Setting up pool1
I0417 16:43:06.062356 11570 net.cpp:157] Top shape: 1024 100 21 21 (45158400)
I0417 16:43:06.062360 11570 net.cpp:165] Memory required for data: 3099099136
I0417 16:43:06.062362 11570 layer_factory.hpp:77] Creating layer conv2
I0417 16:43:06.062372 11570 net.cpp:100] Creating Layer conv2
I0417 16:43:06.062377 11570 net.cpp:434] conv2 <- pool1
I0417 16:43:06.062382 11570 net.cpp:408] conv2 -> conv2
I0417 16:43:06.072291 11570 net.cpp:150] Setting up conv2
I0417 16:43:06.072309 11570 net.cpp:157] Top shape: 1024 150 18 18 (49766400)
I0417 16:43:06.072312 11570 net.cpp:165] Memory required for data: 3298164736
I0417 16:43:06.072324 11570 layer_factory.hpp:77] Creating layer conv2_prescale
I0417 16:43:06.072334 11570 net.cpp:100] Creating Layer conv2_prescale
I0417 16:43:06.072337 11570 net.cpp:434] conv2_prescale <- conv2
I0417 16:43:06.072342 11570 net.cpp:395] conv2_prescale -> conv2 (in-place)
I0417 16:43:06.072450 11570 net.cpp:150] Setting up conv2_prescale
I0417 16:43:06.072459 11570 net.cpp:157] Top shape: 1024 150 18 18 (49766400)
I0417 16:43:06.072463 11570 net.cpp:165] Memory required for data: 3497230336
I0417 16:43:06.072468 11570 layer_factory.hpp:77] Creating layer conv2_sTanH
I0417 16:43:06.072473 11570 net.cpp:100] Creating Layer conv2_sTanH
I0417 16:43:06.072475 11570 net.cpp:434] conv2_sTanH <- conv2
I0417 16:43:06.072479 11570 net.cpp:395] conv2_sTanH -> conv2 (in-place)
I0417 16:43:06.074003 11570 net.cpp:150] Setting up conv2_sTanH
I0417 16:43:06.074021 11570 net.cpp:157] Top shape: 1024 150 18 18 (49766400)
I0417 16:43:06.074024 11570 net.cpp:165] Memory required for data: 3696295936
I0417 16:43:06.074028 11570 layer_factory.hpp:77] Creating layer conv2_postscale
I0417 16:43:06.074036 11570 net.cpp:100] Creating Layer conv2_postscale
I0417 16:43:06.074039 11570 net.cpp:434] conv2_postscale <- conv2
I0417 16:43:06.074045 11570 net.cpp:395] conv2_postscale -> conv2 (in-place)
I0417 16:43:06.074141 11570 net.cpp:150] Setting up conv2_postscale
I0417 16:43:06.074151 11570 net.cpp:157] Top shape: 1024 150 18 18 (49766400)
I0417 16:43:06.074153 11570 net.cpp:165] Memory required for data: 3895361536
I0417 16:43:06.074158 11570 layer_factory.hpp:77] Creating layer pool2
I0417 16:43:06.074164 11570 net.cpp:100] Creating Layer pool2
I0417 16:43:06.074167 11570 net.cpp:434] pool2 <- conv2
I0417 16:43:06.074172 11570 net.cpp:408] pool2 -> pool2
I0417 16:43:06.074213 11570 net.cpp:150] Setting up pool2
I0417 16:43:06.074220 11570 net.cpp:157] Top shape: 1024 150 9 9 (12441600)
I0417 16:43:06.074223 11570 net.cpp:165] Memory required for data: 3945127936
I0417 16:43:06.074226 11570 layer_factory.hpp:77] Creating layer conv3
I0417 16:43:06.074235 11570 net.cpp:100] Creating Layer conv3
I0417 16:43:06.074239 11570 net.cpp:434] conv3 <- pool2
I0417 16:43:06.074244 11570 net.cpp:408] conv3 -> conv3
I0417 16:43:06.080901 11570 net.cpp:150] Setting up conv3
I0417 16:43:06.080920 11570 net.cpp:157] Top shape: 1024 250 6 6 (9216000)
I0417 16:43:06.080924 11570 net.cpp:165] Memory required for data: 3981991936
I0417 16:43:06.080935 11570 layer_factory.hpp:77] Creating layer conv3_prescale
I0417 16:43:06.080955 11570 net.cpp:100] Creating Layer conv3_prescale
I0417 16:43:06.080960 11570 net.cpp:434] conv3_prescale <- conv3
I0417 16:43:06.080965 11570 net.cpp:395] conv3_prescale -> conv3 (in-place)
I0417 16:43:06.081060 11570 net.cpp:150] Setting up conv3_prescale
I0417 16:43:06.081069 11570 net.cpp:157] Top shape: 1024 250 6 6 (9216000)
I0417 16:43:06.081073 11570 net.cpp:165] Memory required for data: 4018855936
I0417 16:43:06.081076 11570 layer_factory.hpp:77] Creating layer conv3_sTanH
I0417 16:43:06.081082 11570 net.cpp:100] Creating Layer conv3_sTanH
I0417 16:43:06.081085 11570 net.cpp:434] conv3_sTanH <- conv3
I0417 16:43:06.081089 11570 net.cpp:395] conv3_sTanH -> conv3 (in-place)
I0417 16:43:06.082628 11570 net.cpp:150] Setting up conv3_sTanH
I0417 16:43:06.082644 11570 net.cpp:157] Top shape: 1024 250 6 6 (9216000)
I0417 16:43:06.082648 11570 net.cpp:165] Memory required for data: 4055719936
I0417 16:43:06.082651 11570 layer_factory.hpp:77] Creating layer conv3_postscale
I0417 16:43:06.082659 11570 net.cpp:100] Creating Layer conv3_postscale
I0417 16:43:06.082661 11570 net.cpp:434] conv3_postscale <- conv3
I0417 16:43:06.082666 11570 net.cpp:395] conv3_postscale -> conv3 (in-place)
I0417 16:43:06.082762 11570 net.cpp:150] Setting up conv3_postscale
I0417 16:43:06.082769 11570 net.cpp:157] Top shape: 1024 250 6 6 (9216000)
I0417 16:43:06.082772 11570 net.cpp:165] Memory required for data: 4092583936
I0417 16:43:06.082777 11570 layer_factory.hpp:77] Creating layer pool3
I0417 16:43:06.082785 11570 net.cpp:100] Creating Layer pool3
I0417 16:43:06.082790 11570 net.cpp:434] pool3 <- conv3
I0417 16:43:06.082795 11570 net.cpp:408] pool3 -> pool3
I0417 16:43:06.082832 11570 net.cpp:150] Setting up pool3
I0417 16:43:06.082839 11570 net.cpp:157] Top shape: 1024 250 3 3 (2304000)
I0417 16:43:06.082842 11570 net.cpp:165] Memory required for data: 4101799936
I0417 16:43:06.082845 11570 layer_factory.hpp:77] Creating layer fc4_300
I0417 16:43:06.082851 11570 net.cpp:100] Creating Layer fc4_300
I0417 16:43:06.082855 11570 net.cpp:434] fc4_300 <- pool3
I0417 16:43:06.082859 11570 net.cpp:408] fc4_300 -> fc4_300
I0417 16:43:06.088876 11570 net.cpp:150] Setting up fc4_300
I0417 16:43:06.088892 11570 net.cpp:157] Top shape: 1024 300 (307200)
I0417 16:43:06.088896 11570 net.cpp:165] Memory required for data: 4103028736
I0417 16:43:06.088903 11570 layer_factory.hpp:77] Creating layer fc4_prescale
I0417 16:43:06.088910 11570 net.cpp:100] Creating Layer fc4_prescale
I0417 16:43:06.088913 11570 net.cpp:434] fc4_prescale <- fc4_300
I0417 16:43:06.088919 11570 net.cpp:395] fc4_prescale -> fc4_300 (in-place)
I0417 16:43:06.089005 11570 net.cpp:150] Setting up fc4_prescale
I0417 16:43:06.089012 11570 net.cpp:157] Top shape: 1024 300 (307200)
I0417 16:43:06.089015 11570 net.cpp:165] Memory required for data: 4104257536
I0417 16:43:06.089020 11570 layer_factory.hpp:77] Creating layer fc4_sTanH
I0417 16:43:06.089025 11570 net.cpp:100] Creating Layer fc4_sTanH
I0417 16:43:06.089027 11570 net.cpp:434] fc4_sTanH <- fc4_300
I0417 16:43:06.089032 11570 net.cpp:395] fc4_sTanH -> fc4_300 (in-place)
I0417 16:43:06.089208 11570 net.cpp:150] Setting up fc4_sTanH
I0417 16:43:06.089220 11570 net.cpp:157] Top shape: 1024 300 (307200)
I0417 16:43:06.089222 11570 net.cpp:165] Memory required for data: 4105486336
I0417 16:43:06.089226 11570 layer_factory.hpp:77] Creating layer fc4_postscale
I0417 16:43:06.089232 11570 net.cpp:100] Creating Layer fc4_postscale
I0417 16:43:06.089236 11570 net.cpp:434] fc4_postscale <- fc4_300
I0417 16:43:06.089241 11570 net.cpp:395] fc4_postscale -> fc4_300 (in-place)
I0417 16:43:06.089331 11570 net.cpp:150] Setting up fc4_postscale
I0417 16:43:06.089339 11570 net.cpp:157] Top shape: 1024 300 (307200)
I0417 16:43:06.089342 11570 net.cpp:165] Memory required for data: 4106715136
I0417 16:43:06.089346 11570 layer_factory.hpp:77] Creating layer fc5_67
I0417 16:43:06.089352 11570 net.cpp:100] Creating Layer fc5_67
I0417 16:43:06.089355 11570 net.cpp:434] fc5_67 <- fc4_300
I0417 16:43:06.089360 11570 net.cpp:408] fc5_67 -> fc5_classes
I0417 16:43:06.092161 11570 net.cpp:150] Setting up fc5_67
I0417 16:43:06.092176 11570 net.cpp:157] Top shape: 1024 67 (68608)
I0417 16:43:06.092180 11570 net.cpp:165] Memory required for data: 4106989568
I0417 16:43:06.092190 11570 layer_factory.hpp:77] Creating layer fc5_classes_fc5_67_0_split
I0417 16:43:06.092197 11570 net.cpp:100] Creating Layer fc5_classes_fc5_67_0_split
I0417 16:43:06.092201 11570 net.cpp:434] fc5_classes_fc5_67_0_split <- fc5_classes
I0417 16:43:06.092206 11570 net.cpp:408] fc5_classes_fc5_67_0_split -> fc5_classes_fc5_67_0_split_0
I0417 16:43:06.092213 11570 net.cpp:408] fc5_classes_fc5_67_0_split -> fc5_classes_fc5_67_0_split_1
I0417 16:43:06.092219 11570 net.cpp:408] fc5_classes_fc5_67_0_split -> fc5_classes_fc5_67_0_split_2
I0417 16:43:06.092267 11570 net.cpp:150] Setting up fc5_classes_fc5_67_0_split
I0417 16:43:06.092274 11570 net.cpp:157] Top shape: 1024 67 (68608)
I0417 16:43:06.092278 11570 net.cpp:157] Top shape: 1024 67 (68608)
I0417 16:43:06.092283 11570 net.cpp:157] Top shape: 1024 67 (68608)
I0417 16:43:06.092284 11570 net.cpp:165] Memory required for data: 4107812864
I0417 16:43:06.092288 11570 layer_factory.hpp:77] Creating layer softmax
I0417 16:43:06.092293 11570 net.cpp:100] Creating Layer softmax
I0417 16:43:06.092298 11570 net.cpp:434] softmax <- fc5_classes_fc5_67_0_split_0
I0417 16:43:06.092303 11570 net.cpp:408] softmax -> softmax
I0417 16:43:06.092546 11570 net.cpp:150] Setting up softmax
I0417 16:43:06.092558 11570 net.cpp:157] Top shape: 1024 67 (68608)
I0417 16:43:06.092561 11570 net.cpp:165] Memory required for data: 4108087296
I0417 16:43:06.092564 11570 layer_factory.hpp:77] Creating layer loss
I0417 16:43:06.092571 11570 net.cpp:100] Creating Layer loss
I0417 16:43:06.092576 11570 net.cpp:434] loss <- softmax
I0417 16:43:06.092581 11570 net.cpp:434] loss <- label_data_1_split_0
I0417 16:43:06.092586 11570 net.cpp:408] loss -> loss
…
