…
I0402 12:27:01.820039 22309 net.cpp:322] The NetState phase (0) differed from the phase (1) specified by a rule in layer accuracy_5
I0402 12:27:01.820158 22309 net.cpp:58] Initializing net from parameters: 
state {
  phase: TRAIN
  level: 0
  stage: ""
}
layer {
  name: "data"
  type: "Data"
  top: "data"
  top: "label"
  include {
    phase: TRAIN
  }
  transform_param {
    mirror: false
    crop_size: 48
    mean_value: 132
    mean_value: 126
    mean_value: 140
  }
  data_param {
    source: "../local_data/lmdb/rtsd-r1/AHE/train/lmdb"
    batch_size: 1024
    backend: LMDB
  }
}
layer {
  name: "conv1"
  type: "Convolution"
  bottom: "data"
  top: "conv1"
  convolution_param {
    num_output: 100
    pad: 0
    kernel_size: 7
    group: 1
    stride: 1
    weight_filler {
      type: "xavier"
    }
  }
}
layer {
  name: "conv1_relu"
  type: "ReLU"
  bottom: "conv1"
  top: "conv1"
}
layer {
  name: "pool1"
  type: "Pooling"
  bottom: "conv1"
  top: "pool1"
  pooling_param {
    pool: MAX
    kernel_size: 2
    stride: 2
  }
}
layer {
  name: "conv2"
  type: "Convolution"
  bottom: "pool1"
  top: "conv2"
  convolution_param {
    num_output: 150
    pad: 0
    kernel_size: 4
    group: 1
    stride: 1
    weight_filler {
      type: "xavier"
    }
  }
}
layer {
  name: "conv2_relu"
  type: "ReLU"
  bottom: "conv2"
  top: "conv2"
}
layer {
  name: "pool2"
  type: "Pooling"
  bottom: "conv2"
  top: "pool2"
  pooling_param {
    pool: MAX
    kernel_size: 2
    stride: 2
  }
}
layer {
  name: "conv3"
  type: "Convolution"
  bottom: "pool2"
  top: "conv3"
  convolution_param {
    num_output: 250
    pad: 0
    kernel_size: 4
    group: 1
    stride: 1
    weight_filler {
      type: "xavier"
    }
  }
}
layer {
  name: "conv3_relu"
  type: "ReLU"
  bottom: "conv3"
  top: "conv3"
}
layer {
  name: "pool3"
  type: "Pooling"
  bottom: "conv3"
  top: "pool3"
  pooling_param {
    pool: MAX
    kernel_size: 2
    stride: 2
  }
}
layer {
  name: "fc4_300"
  type: "InnerProduct"
  bottom: "pool3"
  top: "fc4_300"
  inner_product_param {
    num_output: 300
    weight_filler {
      type: "xavier"
    }
  }
}
layer {
  name: "fc4_relu"
  type: "ReLU"
  bottom: "fc4_300"
  top: "fc4_300"
}
layer {
  name: "drop4"
  type: "Dropout"
  bottom: "fc4_300"
  top: "fc4_300"
  dropout_param {
    dropout_ratio: 0.4
  }
}
layer {
  name: "fc5_67"
  type: "InnerProduct"
  bottom: "fc4_300"
  top: "fc5_classes"
  inner_product_param {
    num_output: 67
    weight_filler {
      type: "xavier"
    }
  }
}
layer {
  name: "loss"
  type: "SoftmaxWithLoss"
  bottom: "fc5_classes"
  bottom: "label"
  top: "loss"
}
I0402 12:27:01.820255 22309 layer_factory.hpp:77] Creating layer data
I0402 12:27:01.821561 22309 net.cpp:100] Creating Layer data
I0402 12:27:01.821580 22309 net.cpp:408] data -> data
I0402 12:27:01.821610 22309 net.cpp:408] data -> label
I0402 12:27:01.823011 22356 db_lmdb.cpp:35] Opened lmdb ../local_data/lmdb/rtsd-r1/AHE/train/lmdb
I0402 12:27:01.843853 22309 data_layer.cpp:41] output data size: 1024,3,48,48
I0402 12:27:01.891932 22309 net.cpp:150] Setting up data
I0402 12:27:01.891968 22309 net.cpp:157] Top shape: 1024 3 48 48 (7077888)
I0402 12:27:01.891976 22309 net.cpp:157] Top shape: 1024 (1024)
I0402 12:27:01.891980 22309 net.cpp:165] Memory required for data: 28315648
I0402 12:27:01.892019 22309 layer_factory.hpp:77] Creating layer conv1
I0402 12:27:01.892045 22309 net.cpp:100] Creating Layer conv1
I0402 12:27:01.892058 22309 net.cpp:434] conv1 <- data
I0402 12:27:01.892074 22309 net.cpp:408] conv1 -> conv1
I0402 12:27:02.218359 22309 net.cpp:150] Setting up conv1
I0402 12:27:02.218392 22309 net.cpp:157] Top shape: 1024 100 42 42 (180633600)
I0402 12:27:02.218397 22309 net.cpp:165] Memory required for data: 750850048
I0402 12:27:02.218425 22309 layer_factory.hpp:77] Creating layer conv1_relu
I0402 12:27:02.218439 22309 net.cpp:100] Creating Layer conv1_relu
I0402 12:27:02.218446 22309 net.cpp:434] conv1_relu <- conv1
I0402 12:27:02.218452 22309 net.cpp:395] conv1_relu -> conv1 (in-place)
I0402 12:27:02.218703 22309 net.cpp:150] Setting up conv1_relu
I0402 12:27:02.218719 22309 net.cpp:157] Top shape: 1024 100 42 42 (180633600)
I0402 12:27:02.218724 22309 net.cpp:165] Memory required for data: 1473384448
I0402 12:27:02.218729 22309 layer_factory.hpp:77] Creating layer pool1
I0402 12:27:02.218737 22309 net.cpp:100] Creating Layer pool1
I0402 12:27:02.218741 22309 net.cpp:434] pool1 <- conv1
I0402 12:27:02.218749 22309 net.cpp:408] pool1 -> pool1
I0402 12:27:02.218814 22309 net.cpp:150] Setting up pool1
I0402 12:27:02.218825 22309 net.cpp:157] Top shape: 1024 100 21 21 (45158400)
I0402 12:27:02.218829 22309 net.cpp:165] Memory required for data: 1654018048
I0402 12:27:02.218833 22309 layer_factory.hpp:77] Creating layer conv2
I0402 12:27:02.218848 22309 net.cpp:100] Creating Layer conv2
I0402 12:27:02.218854 22309 net.cpp:434] conv2 <- pool1
I0402 12:27:02.218861 22309 net.cpp:408] conv2 -> conv2
I0402 12:27:02.225531 22309 net.cpp:150] Setting up conv2
I0402 12:27:02.225553 22309 net.cpp:157] Top shape: 1024 150 18 18 (49766400)
I0402 12:27:02.225558 22309 net.cpp:165] Memory required for data: 1853083648
I0402 12:27:02.225570 22309 layer_factory.hpp:77] Creating layer conv2_relu
I0402 12:27:02.225579 22309 net.cpp:100] Creating Layer conv2_relu
I0402 12:27:02.225584 22309 net.cpp:434] conv2_relu <- conv2
I0402 12:27:02.225590 22309 net.cpp:395] conv2_relu -> conv2 (in-place)
I0402 12:27:02.226707 22309 net.cpp:150] Setting up conv2_relu
I0402 12:27:02.226727 22309 net.cpp:157] Top shape: 1024 150 18 18 (49766400)
I0402 12:27:02.226732 22309 net.cpp:165] Memory required for data: 2052149248
I0402 12:27:02.226737 22309 layer_factory.hpp:77] Creating layer pool2
I0402 12:27:02.226745 22309 net.cpp:100] Creating Layer pool2
I0402 12:27:02.226750 22309 net.cpp:434] pool2 <- conv2
I0402 12:27:02.226758 22309 net.cpp:408] pool2 -> pool2
I0402 12:27:02.226814 22309 net.cpp:150] Setting up pool2
I0402 12:27:02.226825 22309 net.cpp:157] Top shape: 1024 150 9 9 (12441600)
I0402 12:27:02.226830 22309 net.cpp:165] Memory required for data: 2101915648
I0402 12:27:02.226833 22309 layer_factory.hpp:77] Creating layer conv3
I0402 12:27:02.226843 22309 net.cpp:100] Creating Layer conv3
I0402 12:27:02.226850 22309 net.cpp:434] conv3 <- pool2
I0402 12:27:02.226856 22309 net.cpp:408] conv3 -> conv3
I0402 12:27:02.235046 22309 net.cpp:150] Setting up conv3
I0402 12:27:02.235069 22309 net.cpp:157] Top shape: 1024 250 6 6 (9216000)
I0402 12:27:02.235074 22309 net.cpp:165] Memory required for data: 2138779648
I0402 12:27:02.235087 22309 layer_factory.hpp:77] Creating layer conv3_relu
I0402 12:27:02.235097 22309 net.cpp:100] Creating Layer conv3_relu
I0402 12:27:02.235102 22309 net.cpp:434] conv3_relu <- conv3
I0402 12:27:02.235108 22309 net.cpp:395] conv3_relu -> conv3 (in-place)
I0402 12:27:02.239948 22309 net.cpp:150] Setting up conv3_relu
I0402 12:27:02.239972 22309 net.cpp:157] Top shape: 1024 250 6 6 (9216000)
I0402 12:27:02.239977 22309 net.cpp:165] Memory required for data: 2175643648
I0402 12:27:02.239982 22309 layer_factory.hpp:77] Creating layer pool3
I0402 12:27:02.239991 22309 net.cpp:100] Creating Layer pool3
I0402 12:27:02.239996 22309 net.cpp:434] pool3 <- conv3
I0402 12:27:02.240005 22309 net.cpp:408] pool3 -> pool3
I0402 12:27:02.240064 22309 net.cpp:150] Setting up pool3
I0402 12:27:02.240095 22309 net.cpp:157] Top shape: 1024 250 3 3 (2304000)
I0402 12:27:02.240100 22309 net.cpp:165] Memory required for data: 2184859648
I0402 12:27:02.240105 22309 layer_factory.hpp:77] Creating layer fc4_300
I0402 12:27:02.240114 22309 net.cpp:100] Creating Layer fc4_300
I0402 12:27:02.240118 22309 net.cpp:434] fc4_300 <- pool3
I0402 12:27:02.240125 22309 net.cpp:408] fc4_300 -> fc4_300
I0402 12:27:02.252552 22309 net.cpp:150] Setting up fc4_300
I0402 12:27:02.252578 22309 net.cpp:157] Top shape: 1024 300 (307200)
I0402 12:27:02.252583 22309 net.cpp:165] Memory required for data: 2186088448
I0402 12:27:02.252593 22309 layer_factory.hpp:77] Creating layer fc4_relu
I0402 12:27:02.252602 22309 net.cpp:100] Creating Layer fc4_relu
I0402 12:27:02.252607 22309 net.cpp:434] fc4_relu <- fc4_300
I0402 12:27:02.252614 22309 net.cpp:395] fc4_relu -> fc4_300 (in-place)
I0402 12:27:02.252861 22309 net.cpp:150] Setting up fc4_relu
I0402 12:27:02.252879 22309 net.cpp:157] Top shape: 1024 300 (307200)
I0402 12:27:02.252883 22309 net.cpp:165] Memory required for data: 2187317248
I0402 12:27:02.252888 22309 layer_factory.hpp:77] Creating layer drop4
I0402 12:27:02.252897 22309 net.cpp:100] Creating Layer drop4
I0402 12:27:02.252903 22309 net.cpp:434] drop4 <- fc4_300
I0402 12:27:02.252909 22309 net.cpp:395] drop4 -> fc4_300 (in-place)
I0402 12:27:02.252951 22309 net.cpp:150] Setting up drop4
I0402 12:27:02.252961 22309 net.cpp:157] Top shape: 1024 300 (307200)
I0402 12:27:02.252965 22309 net.cpp:165] Memory required for data: 2188546048
I0402 12:27:02.252970 22309 layer_factory.hpp:77] Creating layer fc5_67
I0402 12:27:02.252979 22309 net.cpp:100] Creating Layer fc5_67
I0402 12:27:02.252985 22309 net.cpp:434] fc5_67 <- fc4_300
I0402 12:27:02.252992 22309 net.cpp:408] fc5_67 -> fc5_classes
I0402 12:27:02.254560 22309 net.cpp:150] Setting up fc5_67
I0402 12:27:02.254581 22309 net.cpp:157] Top shape: 1024 67 (68608)
I0402 12:27:02.254585 22309 net.cpp:165] Memory required for data: 2188820480
I0402 12:27:02.254600 22309 layer_factory.hpp:77] Creating layer loss
I0402 12:27:02.254608 22309 net.cpp:100] Creating Layer loss
I0402 12:27:02.254613 22309 net.cpp:434] loss <- fc5_classes
I0402 12:27:02.254618 22309 net.cpp:434] loss <- label
I0402 12:27:02.254626 22309 net.cpp:408] loss -> loss
I0402 12:27:02.254642 22309 layer_factory.hpp:77] Creating layer loss
…
I0402 12:27:02.255455 22309 solver.cpp:193] Creating test net (#0) specified by test_net file: ./Prototxt/rtsd-r1/AHE/test.prototxt
I0402 12:27:02.255640 22309 net.cpp:58] Initializing net from parameters: 
state {
  phase: TEST
}
layer {
  name: "data"
  type: "Data"
  top: "data"
  top: "label"
  include {
    phase: TEST
  }
  transform_param {
    mirror: false
    crop_size: 48
    mean_value: 126
    mean_value: 124
    mean_value: 145
  }
  data_param {
    source: "../local_data/lmdb/rtsd-r1/AHE/test/lmdb"
    batch_size: 1024
    backend: LMDB
  }
}
layer {
  name: "conv1"
  type: "Convolution"
  bottom: "data"
  top: "conv1"
  convolution_param {
    num_output: 100
    pad: 0
    kernel_size: 7
    group: 1
    stride: 1
    weight_filler {
      type: "xavier"
    }
  }
}
layer {
  name: "conv1_relu"
  type: "ReLU"
  bottom: "conv1"
  top: "conv1"
}
layer {
  name: "pool1"
  type: "Pooling"
  bottom: "conv1"
  top: "pool1"
  pooling_param {
    pool: MAX
    kernel_size: 2
    stride: 2
  }
}
layer {
  name: "conv2"
  type: "Convolution"
  bottom: "pool1"
  top: "conv2"
  convolution_param {
    num_output: 150
    pad: 0
    kernel_size: 4
    group: 1
    stride: 1
    weight_filler {
      type: "xavier"
    }
  }
}
layer {
  name: "conv2_relu"
  type: "ReLU"
  bottom: "conv2"
  top: "conv2"
}
layer {
  name: "pool2"
  type: "Pooling"
  bottom: "conv2"
  top: "pool2"
  pooling_param {
    pool: MAX
    kernel_size: 2
    stride: 2
  }
}
layer {
  name: "conv3"
  type: "Convolution"
  bottom: "pool2"
  top: "conv3"
  convolution_param {
    num_output: 250
    pad: 0
    kernel_size: 4
    group: 1
    stride: 1
    weight_filler {
      type: "xavier"
    }
  }
}
layer {
  name: "conv3_relu"
  type: "ReLU"
  bottom: "conv3"
  top: "conv3"
}
layer {
  name: "pool3"
  type: "Pooling"
  bottom: "conv3"
  top: "pool3"
  pooling_param {
    pool: MAX
    kernel_size: 2
    stride: 2
  }
}
layer {
  name: "fc4_300"
  type: "InnerProduct"
  bottom: "pool3"
  top: "fc4_300"
  inner_product_param {
    num_output: 300
    weight_filler {
      type: "xavier"
    }
  }
}
layer {
  name: "fc4_relu"
  type: "ReLU"
  bottom: "fc4_300"
  top: "fc4_300"
}
layer {
  name: "drop4"
  type: "Dropout"
  bottom: "fc4_300"
  top: "fc4_300"
  dropout_param {
    dropout_ratio: 0.4
  }
}
layer {
  name: "fc5_67"
  type: "InnerProduct"
  bottom: "fc4_300"
  top: "fc5_classes"
  inner_product_param {
    num_output: 67
    weight_filler {
      type: "xavier"
    }
  }
}
layer {
  name: "loss"
  type: "SoftmaxWithLoss"
  bottom: "fc5_classes"
  bottom: "label"
  top: "loss"
}
layer {
  name: "accuracy_1"
  type: "Accuracy"
  bottom: "fc5_classes"
  bottom: "label"
  top: "accuracy_1"
  include {
    phase: TEST
  }
  accuracy_param {
    top_k: 1
  }
}
layer {
  name: "accuracy_5"
  type: "Accuracy"
  bottom: "fc5_classes"
  bottom: "label"
  top: "accuracy_5"
  include {
    phase: TEST
  }
  accuracy_param {
    top_k: 5
  }
}
I0402 12:27:02.255749 22309 layer_factory.hpp:77] Creating layer data
I0402 12:27:02.256595 22309 net.cpp:100] Creating Layer data
I0402 12:27:02.256615 22309 net.cpp:408] data -> data
I0402 12:27:02.256628 22309 net.cpp:408] data -> label
I0402 12:27:02.258205 22370 db_lmdb.cpp:35] Opened lmdb ../local_data/lmdb/rtsd-r1/AHE/test/lmdb
I0402 12:27:02.258488 22309 data_layer.cpp:41] output data size: 1024,3,48,48
I0402 12:27:02.308410 22309 net.cpp:150] Setting up data
I0402 12:27:02.308445 22309 net.cpp:157] Top shape: 1024 3 48 48 (7077888)
I0402 12:27:02.308452 22309 net.cpp:157] Top shape: 1024 (1024)
I0402 12:27:02.308456 22309 net.cpp:165] Memory required for data: 28315648
I0402 12:27:02.308465 22309 layer_factory.hpp:77] Creating layer label_data_1_split
I0402 12:27:02.308482 22309 net.cpp:100] Creating Layer label_data_1_split
I0402 12:27:02.308488 22309 net.cpp:434] label_data_1_split <- label
I0402 12:27:02.308497 22309 net.cpp:408] label_data_1_split -> label_data_1_split_0
I0402 12:27:02.308511 22309 net.cpp:408] label_data_1_split -> label_data_1_split_1
I0402 12:27:02.308518 22309 net.cpp:408] label_data_1_split -> label_data_1_split_2
I0402 12:27:02.308619 22309 net.cpp:150] Setting up label_data_1_split
I0402 12:27:02.308631 22309 net.cpp:157] Top shape: 1024 (1024)
I0402 12:27:02.308656 22309 net.cpp:157] Top shape: 1024 (1024)
I0402 12:27:02.308662 22309 net.cpp:157] Top shape: 1024 (1024)
I0402 12:27:02.308666 22309 net.cpp:165] Memory required for data: 28327936
I0402 12:27:02.308670 22309 layer_factory.hpp:77] Creating layer conv1
I0402 12:27:02.308688 22309 net.cpp:100] Creating Layer conv1
I0402 12:27:02.308696 22309 net.cpp:434] conv1 <- data
I0402 12:27:02.308709 22309 net.cpp:408] conv1 -> conv1
I0402 12:27:02.313374 22309 net.cpp:150] Setting up conv1
I0402 12:27:02.313400 22309 net.cpp:157] Top shape: 1024 100 42 42 (180633600)
I0402 12:27:02.313405 22309 net.cpp:165] Memory required for data: 750862336
I0402 12:27:02.313419 22309 layer_factory.hpp:77] Creating layer conv1_relu
I0402 12:27:02.313432 22309 net.cpp:100] Creating Layer conv1_relu
I0402 12:27:02.313438 22309 net.cpp:434] conv1_relu <- conv1
I0402 12:27:02.313447 22309 net.cpp:395] conv1_relu -> conv1 (in-place)
I0402 12:27:02.313707 22309 net.cpp:150] Setting up conv1_relu
I0402 12:27:02.313722 22309 net.cpp:157] Top shape: 1024 100 42 42 (180633600)
I0402 12:27:02.313726 22309 net.cpp:165] Memory required for data: 1473396736
I0402 12:27:02.313731 22309 layer_factory.hpp:77] Creating layer pool1
I0402 12:27:02.313741 22309 net.cpp:100] Creating Layer pool1
I0402 12:27:02.313745 22309 net.cpp:434] pool1 <- conv1
I0402 12:27:02.313761 22309 net.cpp:408] pool1 -> pool1
I0402 12:27:02.313825 22309 net.cpp:150] Setting up pool1
I0402 12:27:02.313839 22309 net.cpp:157] Top shape: 1024 100 21 21 (45158400)
I0402 12:27:02.313845 22309 net.cpp:165] Memory required for data: 1654030336
I0402 12:27:02.313850 22309 layer_factory.hpp:77] Creating layer conv2
I0402 12:27:02.313863 22309 net.cpp:100] Creating Layer conv2
I0402 12:27:02.313869 22309 net.cpp:434] conv2 <- pool1
I0402 12:27:02.313876 22309 net.cpp:408] conv2 -> conv2
I0402 12:27:02.318727 22309 net.cpp:150] Setting up conv2
I0402 12:27:02.318749 22309 net.cpp:157] Top shape: 1024 150 18 18 (49766400)
I0402 12:27:02.318754 22309 net.cpp:165] Memory required for data: 1853095936
I0402 12:27:02.318768 22309 layer_factory.hpp:77] Creating layer conv2_relu
I0402 12:27:02.318776 22309 net.cpp:100] Creating Layer conv2_relu
I0402 12:27:02.318781 22309 net.cpp:434] conv2_relu <- conv2
I0402 12:27:02.318790 22309 net.cpp:395] conv2_relu -> conv2 (in-place)
I0402 12:27:02.319756 22309 net.cpp:150] Setting up conv2_relu
I0402 12:27:02.319777 22309 net.cpp:157] Top shape: 1024 150 18 18 (49766400)
I0402 12:27:02.319782 22309 net.cpp:165] Memory required for data: 2052161536
I0402 12:27:02.319787 22309 layer_factory.hpp:77] Creating layer pool2
I0402 12:27:02.319795 22309 net.cpp:100] Creating Layer pool2
I0402 12:27:02.319799 22309 net.cpp:434] pool2 <- conv2
I0402 12:27:02.319810 22309 net.cpp:408] pool2 -> pool2
I0402 12:27:02.319881 22309 net.cpp:150] Setting up pool2
I0402 12:27:02.319893 22309 net.cpp:157] Top shape: 1024 150 9 9 (12441600)
I0402 12:27:02.319897 22309 net.cpp:165] Memory required for data: 2101927936
I0402 12:27:02.319901 22309 layer_factory.hpp:77] Creating layer conv3
I0402 12:27:02.319916 22309 net.cpp:100] Creating Layer conv3
I0402 12:27:02.319923 22309 net.cpp:434] conv3 <- pool2
I0402 12:27:02.319932 22309 net.cpp:408] conv3 -> conv3
I0402 12:27:02.326905 22309 net.cpp:150] Setting up conv3
I0402 12:27:02.326930 22309 net.cpp:157] Top shape: 1024 250 6 6 (9216000)
I0402 12:27:02.326934 22309 net.cpp:165] Memory required for data: 2138791936
I0402 12:27:02.326948 22309 layer_factory.hpp:77] Creating layer conv3_relu
I0402 12:27:02.326962 22309 net.cpp:100] Creating Layer conv3_relu
I0402 12:27:02.326967 22309 net.cpp:434] conv3_relu <- conv3
I0402 12:27:02.326978 22309 net.cpp:395] conv3_relu -> conv3 (in-place)
I0402 12:27:02.327958 22309 net.cpp:150] Setting up conv3_relu
I0402 12:27:02.327977 22309 net.cpp:157] Top shape: 1024 250 6 6 (9216000)
I0402 12:27:02.327982 22309 net.cpp:165] Memory required for data: 2175655936
I0402 12:27:02.327986 22309 layer_factory.hpp:77] Creating layer pool3
I0402 12:27:02.328014 22309 net.cpp:100] Creating Layer pool3
I0402 12:27:02.328021 22309 net.cpp:434] pool3 <- conv3
I0402 12:27:02.328029 22309 net.cpp:408] pool3 -> pool3
I0402 12:27:02.328106 22309 net.cpp:150] Setting up pool3
I0402 12:27:02.328119 22309 net.cpp:157] Top shape: 1024 250 3 3 (2304000)
I0402 12:27:02.328125 22309 net.cpp:165] Memory required for data: 2184871936
I0402 12:27:02.328128 22309 layer_factory.hpp:77] Creating layer fc4_300
I0402 12:27:02.328137 22309 net.cpp:100] Creating Layer fc4_300
I0402 12:27:02.328143 22309 net.cpp:434] fc4_300 <- pool3
I0402 12:27:02.328150 22309 net.cpp:408] fc4_300 -> fc4_300
I0402 12:27:02.334874 22309 net.cpp:150] Setting up fc4_300
I0402 12:27:02.334895 22309 net.cpp:157] Top shape: 1024 300 (307200)
I0402 12:27:02.334899 22309 net.cpp:165] Memory required for data: 2186100736
I0402 12:27:02.334909 22309 layer_factory.hpp:77] Creating layer fc4_relu
I0402 12:27:02.334920 22309 net.cpp:100] Creating Layer fc4_relu
I0402 12:27:02.334926 22309 net.cpp:434] fc4_relu <- fc4_300
I0402 12:27:02.334933 22309 net.cpp:395] fc4_relu -> fc4_300 (in-place)
I0402 12:27:02.335192 22309 net.cpp:150] Setting up fc4_relu
I0402 12:27:02.335208 22309 net.cpp:157] Top shape: 1024 300 (307200)
I0402 12:27:02.335212 22309 net.cpp:165] Memory required for data: 2187329536
I0402 12:27:02.335217 22309 layer_factory.hpp:77] Creating layer drop4
I0402 12:27:02.335227 22309 net.cpp:100] Creating Layer drop4
I0402 12:27:02.335232 22309 net.cpp:434] drop4 <- fc4_300
I0402 12:27:02.335240 22309 net.cpp:395] drop4 -> fc4_300 (in-place)
I0402 12:27:02.335279 22309 net.cpp:150] Setting up drop4
I0402 12:27:02.335289 22309 net.cpp:157] Top shape: 1024 300 (307200)
I0402 12:27:02.335294 22309 net.cpp:165] Memory required for data: 2188558336
I0402 12:27:02.335297 22309 layer_factory.hpp:77] Creating layer fc5_67
I0402 12:27:02.335307 22309 net.cpp:100] Creating Layer fc5_67
I0402 12:27:02.335314 22309 net.cpp:434] fc5_67 <- fc4_300
I0402 12:27:02.335320 22309 net.cpp:408] fc5_67 -> fc5_classes
I0402 12:27:02.335638 22309 net.cpp:150] Setting up fc5_67
I0402 12:27:02.335649 22309 net.cpp:157] Top shape: 1024 67 (68608)
I0402 12:27:02.335654 22309 net.cpp:165] Memory required for data: 2188832768
I0402 12:27:02.335667 22309 layer_factory.hpp:77] Creating layer fc5_classes_fc5_67_0_split
I0402 12:27:02.335675 22309 net.cpp:100] Creating Layer fc5_classes_fc5_67_0_split
I0402 12:27:02.335680 22309 net.cpp:434] fc5_classes_fc5_67_0_split <- fc5_classes
I0402 12:27:02.335687 22309 net.cpp:408] fc5_classes_fc5_67_0_split -> fc5_classes_fc5_67_0_split_0
I0402 12:27:02.335697 22309 net.cpp:408] fc5_classes_fc5_67_0_split -> fc5_classes_fc5_67_0_split_1
I0402 12:27:02.335712 22309 net.cpp:408] fc5_classes_fc5_67_0_split -> fc5_classes_fc5_67_0_split_2
I0402 12:27:02.335782 22309 net.cpp:150] Setting up fc5_classes_fc5_67_0_split
I0402 12:27:02.335790 22309 net.cpp:157] Top shape: 1024 67 (68608)
I0402 12:27:02.335796 22309 net.cpp:157] Top shape: 1024 67 (68608)
I0402 12:27:02.335800 22309 net.cpp:157] Top shape: 1024 67 (68608)
I0402 12:27:02.335804 22309 net.cpp:165] Memory required for data: 2189656064
I0402 12:27:02.335808 22309 layer_factory.hpp:77] Creating layer loss
I0402 12:27:02.335820 22309 net.cpp:100] Creating Layer loss
I0402 12:27:02.335827 22309 net.cpp:434] loss <- fc5_classes_fc5_67_0_split_0
I0402 12:27:02.335834 22309 net.cpp:434] loss <- label_data_1_split_0
I0402 12:27:02.335839 22309 net.cpp:408] loss -> loss
…
