…
I0409 23:43:00.988977 28373 net.cpp:322] The NetState phase (0) differed from the phase (1) specified by a rule in layer accuracy_5
I0409 23:43:00.989084 28373 net.cpp:58] Initializing net from parameters: 
state {
  phase: TRAIN
  level: 0
  stage: ""
}
layer {
  name: "data"
  type: "Data"
  top: "data"
  top: "label"
  include {
    phase: TRAIN
  }
  transform_param {
    mirror: false
    crop_size: 48
    mean_value: 132
    mean_value: 126
    mean_value: 140
  }
  data_param {
    source: "../local_data/lmdb/rtsd-r1/AHE/train/lmdb"
    batch_size: 1024
    backend: LMDB
  }
}
layer {
  name: "conv1"
  type: "Convolution"
  bottom: "data"
  top: "conv1"
  convolution_param {
    num_output: 100
    pad: 0
    kernel_size: 7
    group: 1
    stride: 1
    weight_filler {
      type: "xavier"
    }
  }
}
layer {
  name: "conv1_sTanH"
  type: "TanH"
  bottom: "conv1"
  top: "conv1"
}
layer {
  name: "pool1"
  type: "Pooling"
  bottom: "conv1"
  top: "pool1"
  pooling_param {
    pool: MAX
    kernel_size: 2
    stride: 2
  }
}
layer {
  name: "conv2"
  type: "Convolution"
  bottom: "pool1"
  top: "conv2"
  convolution_param {
    num_output: 150
    pad: 0
    kernel_size: 4
    group: 1
    stride: 1
    weight_filler {
      type: "xavier"
    }
  }
}
layer {
  name: "conv2_sTanH"
  type: "TanH"
  bottom: "conv2"
  top: "conv2"
}
layer {
  name: "pool2"
  type: "Pooling"
  bottom: "conv2"
  top: "pool2"
  pooling_param {
    pool: MAX
    kernel_size: 2
    stride: 2
  }
}
layer {
  name: "conv3"
  type: "Convolution"
  bottom: "pool2"
  top: "conv3"
  convolution_param {
    num_output: 250
    pad: 0
    kernel_size: 4
    group: 1
    stride: 1
    weight_filler {
      type: "xavier"
    }
  }
}
layer {
  name: "conv3_sTanH"
  type: "TanH"
  bottom: "conv3"
  top: "conv3"
}
layer {
  name: "pool3"
  type: "Pooling"
  bottom: "conv3"
  top: "pool3"
  pooling_param {
    pool: MAX
    kernel_size: 2
    stride: 2
  }
}
layer {
  name: "fc4_300"
  type: "InnerProduct"
  bottom: "pool3"
  top: "fc4_300"
  inner_product_param {
    num_output: 300
    weight_filler {
      type: "xavier"
    }
  }
}
layer {
  name: "fc4_sTanH"
  type: "TanH"
  bottom: "fc4_300"
  top: "fc4_300"
}
layer {
  name: "drop4"
  type: "Dropout"
  bottom: "fc4_300"
  top: "fc4_300"
  dropout_param {
    dropout_ratio: 0.4
  }
}
layer {
  name: "fc5_67"
  type: "InnerProduct"
  bottom: "fc4_300"
  top: "fc5_classes"
  inner_product_param {
    num_output: 67
    weight_filler {
      type: "xavier"
    }
  }
}
layer {
  name: "loss"
  type: "SoftmaxWithLoss"
  bottom: "fc5_classes"
  bottom: "label"
  top: "loss"
}
I0409 23:43:00.989150 28373 layer_factory.hpp:77] Creating layer data
I0409 23:43:00.990191 28373 net.cpp:100] Creating Layer data
I0409 23:43:00.990211 28373 net.cpp:408] data -> data
I0409 23:43:00.990234 28373 net.cpp:408] data -> label
I0409 23:43:00.991787 28449 db_lmdb.cpp:35] Opened lmdb ../local_data/lmdb/rtsd-r1/AHE/train/lmdb
I0409 23:43:01.008888 28373 data_layer.cpp:41] output data size: 1024,3,48,48
I0409 23:43:01.050161 28373 net.cpp:150] Setting up data
I0409 23:43:01.050206 28373 net.cpp:157] Top shape: 1024 3 48 48 (7077888)
I0409 23:43:01.050211 28373 net.cpp:157] Top shape: 1024 (1024)
I0409 23:43:01.050240 28373 net.cpp:165] Memory required for data: 28315648
I0409 23:43:01.050249 28373 layer_factory.hpp:77] Creating layer conv1
I0409 23:43:01.050271 28373 net.cpp:100] Creating Layer conv1
I0409 23:43:01.050278 28373 net.cpp:434] conv1 <- data
I0409 23:43:01.050295 28373 net.cpp:408] conv1 -> conv1
I0409 23:43:01.326648 28373 net.cpp:150] Setting up conv1
I0409 23:43:01.326679 28373 net.cpp:157] Top shape: 1024 100 42 42 (180633600)
I0409 23:43:01.326683 28373 net.cpp:165] Memory required for data: 750850048
I0409 23:43:01.326704 28373 layer_factory.hpp:77] Creating layer conv1_sTanH
I0409 23:43:01.326717 28373 net.cpp:100] Creating Layer conv1_sTanH
I0409 23:43:01.326725 28373 net.cpp:434] conv1_sTanH <- conv1
I0409 23:43:01.326730 28373 net.cpp:395] conv1_sTanH -> conv1 (in-place)
I0409 23:43:01.326934 28373 net.cpp:150] Setting up conv1_sTanH
I0409 23:43:01.326946 28373 net.cpp:157] Top shape: 1024 100 42 42 (180633600)
I0409 23:43:01.326949 28373 net.cpp:165] Memory required for data: 1473384448
I0409 23:43:01.326953 28373 layer_factory.hpp:77] Creating layer pool1
I0409 23:43:01.326961 28373 net.cpp:100] Creating Layer pool1
I0409 23:43:01.326964 28373 net.cpp:434] pool1 <- conv1
I0409 23:43:01.326970 28373 net.cpp:408] pool1 -> pool1
I0409 23:43:01.327024 28373 net.cpp:150] Setting up pool1
I0409 23:43:01.327033 28373 net.cpp:157] Top shape: 1024 100 21 21 (45158400)
I0409 23:43:01.327035 28373 net.cpp:165] Memory required for data: 1654018048
I0409 23:43:01.327039 28373 layer_factory.hpp:77] Creating layer conv2
I0409 23:43:01.327051 28373 net.cpp:100] Creating Layer conv2
I0409 23:43:01.327056 28373 net.cpp:434] conv2 <- pool1
I0409 23:43:01.327062 28373 net.cpp:408] conv2 -> conv2
I0409 23:43:01.331264 28373 net.cpp:150] Setting up conv2
I0409 23:43:01.331280 28373 net.cpp:157] Top shape: 1024 150 18 18 (49766400)
I0409 23:43:01.331284 28373 net.cpp:165] Memory required for data: 1853083648
I0409 23:43:01.331293 28373 layer_factory.hpp:77] Creating layer conv2_sTanH
I0409 23:43:01.331300 28373 net.cpp:100] Creating Layer conv2_sTanH
I0409 23:43:01.331302 28373 net.cpp:434] conv2_sTanH <- conv2
I0409 23:43:01.331307 28373 net.cpp:395] conv2_sTanH -> conv2 (in-place)
I0409 23:43:01.332046 28373 net.cpp:150] Setting up conv2_sTanH
I0409 23:43:01.332062 28373 net.cpp:157] Top shape: 1024 150 18 18 (49766400)
I0409 23:43:01.332064 28373 net.cpp:165] Memory required for data: 2052149248
I0409 23:43:01.332068 28373 layer_factory.hpp:77] Creating layer pool2
I0409 23:43:01.332074 28373 net.cpp:100] Creating Layer pool2
I0409 23:43:01.332078 28373 net.cpp:434] pool2 <- conv2
I0409 23:43:01.332083 28373 net.cpp:408] pool2 -> pool2
I0409 23:43:01.332132 28373 net.cpp:150] Setting up pool2
I0409 23:43:01.332140 28373 net.cpp:157] Top shape: 1024 150 9 9 (12441600)
I0409 23:43:01.332144 28373 net.cpp:165] Memory required for data: 2101915648
I0409 23:43:01.332146 28373 layer_factory.hpp:77] Creating layer conv3
I0409 23:43:01.332154 28373 net.cpp:100] Creating Layer conv3
I0409 23:43:01.332157 28373 net.cpp:434] conv3 <- pool2
I0409 23:43:01.332161 28373 net.cpp:408] conv3 -> conv3
I0409 23:43:01.337432 28373 net.cpp:150] Setting up conv3
I0409 23:43:01.337450 28373 net.cpp:157] Top shape: 1024 250 6 6 (9216000)
I0409 23:43:01.337452 28373 net.cpp:165] Memory required for data: 2138779648
I0409 23:43:01.337461 28373 layer_factory.hpp:77] Creating layer conv3_sTanH
I0409 23:43:01.337469 28373 net.cpp:100] Creating Layer conv3_sTanH
I0409 23:43:01.337472 28373 net.cpp:434] conv3_sTanH <- conv3
I0409 23:43:01.337476 28373 net.cpp:395] conv3_sTanH -> conv3 (in-place)
I0409 23:43:01.338213 28373 net.cpp:150] Setting up conv3_sTanH
I0409 23:43:01.338228 28373 net.cpp:157] Top shape: 1024 250 6 6 (9216000)
I0409 23:43:01.338232 28373 net.cpp:165] Memory required for data: 2175643648
I0409 23:43:01.338235 28373 layer_factory.hpp:77] Creating layer pool3
I0409 23:43:01.338253 28373 net.cpp:100] Creating Layer pool3
I0409 23:43:01.338258 28373 net.cpp:434] pool3 <- conv3
I0409 23:43:01.338284 28373 net.cpp:408] pool3 -> pool3
I0409 23:43:01.338341 28373 net.cpp:150] Setting up pool3
I0409 23:43:01.338349 28373 net.cpp:157] Top shape: 1024 250 3 3 (2304000)
I0409 23:43:01.338352 28373 net.cpp:165] Memory required for data: 2184859648
I0409 23:43:01.338356 28373 layer_factory.hpp:77] Creating layer fc4_300
I0409 23:43:01.338361 28373 net.cpp:100] Creating Layer fc4_300
I0409 23:43:01.338364 28373 net.cpp:434] fc4_300 <- pool3
I0409 23:43:01.338368 28373 net.cpp:408] fc4_300 -> fc4_300
I0409 23:43:01.343709 28373 net.cpp:150] Setting up fc4_300
I0409 23:43:01.343726 28373 net.cpp:157] Top shape: 1024 300 (307200)
I0409 23:43:01.343729 28373 net.cpp:165] Memory required for data: 2186088448
I0409 23:43:01.343736 28373 layer_factory.hpp:77] Creating layer fc4_sTanH
I0409 23:43:01.343744 28373 net.cpp:100] Creating Layer fc4_sTanH
I0409 23:43:01.343746 28373 net.cpp:434] fc4_sTanH <- fc4_300
I0409 23:43:01.343751 28373 net.cpp:395] fc4_sTanH -> fc4_300 (in-place)
I0409 23:43:01.343962 28373 net.cpp:150] Setting up fc4_sTanH
I0409 23:43:01.343974 28373 net.cpp:157] Top shape: 1024 300 (307200)
I0409 23:43:01.343977 28373 net.cpp:165] Memory required for data: 2187317248
I0409 23:43:01.343981 28373 layer_factory.hpp:77] Creating layer drop4
I0409 23:43:01.343987 28373 net.cpp:100] Creating Layer drop4
I0409 23:43:01.343991 28373 net.cpp:434] drop4 <- fc4_300
I0409 23:43:01.343996 28373 net.cpp:395] drop4 -> fc4_300 (in-place)
I0409 23:43:01.344027 28373 net.cpp:150] Setting up drop4
I0409 23:43:01.344033 28373 net.cpp:157] Top shape: 1024 300 (307200)
I0409 23:43:01.344036 28373 net.cpp:165] Memory required for data: 2188546048
I0409 23:43:01.344039 28373 layer_factory.hpp:77] Creating layer fc5_67
I0409 23:43:01.344044 28373 net.cpp:100] Creating Layer fc5_67
I0409 23:43:01.344048 28373 net.cpp:434] fc5_67 <- fc4_300
I0409 23:43:01.344053 28373 net.cpp:408] fc5_67 -> fc5_classes
I0409 23:43:01.345430 28373 net.cpp:150] Setting up fc5_67
I0409 23:43:01.345448 28373 net.cpp:157] Top shape: 1024 67 (68608)
I0409 23:43:01.345451 28373 net.cpp:165] Memory required for data: 2188820480
I0409 23:43:01.345461 28373 layer_factory.hpp:77] Creating layer loss
I0409 23:43:01.345468 28373 net.cpp:100] Creating Layer loss
I0409 23:43:01.345471 28373 net.cpp:434] loss <- fc5_classes
I0409 23:43:01.345475 28373 net.cpp:434] loss <- label
I0409 23:43:01.345480 28373 net.cpp:408] loss -> loss
I0409 23:43:01.345495 28373 layer_factory.hpp:77] Creating layer loss
…
I0409 23:43:01.346135 28373 solver.cpp:193] Creating test net (#0) specified by test_net file: ./Prototxt/experiment_7/rtsd-r1/AHE/trial_1/test.prototxt
I0409 23:43:01.346271 28373 net.cpp:58] Initializing net from parameters: 
state {
  phase: TEST
}
layer {
  name: "data"
  type: "Data"
  top: "data"
  top: "label"
  include {
    phase: TEST
  }
  transform_param {
    mirror: false
    crop_size: 48
    mean_value: 126
    mean_value: 124
    mean_value: 145
  }
  data_param {
    source: "../local_data/lmdb/rtsd-r1/AHE/test/lmdb"
    batch_size: 1024
    backend: LMDB
  }
}
layer {
  name: "conv1"
  type: "Convolution"
  bottom: "data"
  top: "conv1"
  convolution_param {
    num_output: 100
    pad: 0
    kernel_size: 7
    group: 1
    stride: 1
    weight_filler {
      type: "xavier"
    }
  }
}
layer {
  name: "conv1_sTanH"
  type: "TanH"
  bottom: "conv1"
  top: "conv1"
}
layer {
  name: "pool1"
  type: "Pooling"
  bottom: "conv1"
  top: "pool1"
  pooling_param {
    pool: MAX
    kernel_size: 2
    stride: 2
  }
}
layer {
  name: "conv2"
  type: "Convolution"
  bottom: "pool1"
  top: "conv2"
  convolution_param {
    num_output: 150
    pad: 0
    kernel_size: 4
    group: 1
    stride: 1
    weight_filler {
      type: "xavier"
    }
  }
}
layer {
  name: "conv2_sTanH"
  type: "TanH"
  bottom: "conv2"
  top: "conv2"
}
layer {
  name: "pool2"
  type: "Pooling"
  bottom: "conv2"
  top: "pool2"
  pooling_param {
    pool: MAX
    kernel_size: 2
    stride: 2
  }
}
layer {
  name: "conv3"
  type: "Convolution"
  bottom: "pool2"
  top: "conv3"
  convolution_param {
    num_output: 250
    pad: 0
    kernel_size: 4
    group: 1
    stride: 1
    weight_filler {
      type: "xavier"
    }
  }
}
layer {
  name: "conv3_sTanH"
  type: "TanH"
  bottom: "conv3"
  top: "conv3"
}
layer {
  name: "pool3"
  type: "Pooling"
  bottom: "conv3"
  top: "pool3"
  pooling_param {
    pool: MAX
    kernel_size: 2
    stride: 2
  }
}
layer {
  name: "fc4_300"
  type: "InnerProduct"
  bottom: "pool3"
  top: "fc4_300"
  inner_product_param {
    num_output: 300
    weight_filler {
      type: "xavier"
    }
  }
}
layer {
  name: "fc4_sTanH"
  type: "TanH"
  bottom: "fc4_300"
  top: "fc4_300"
}
layer {
  name: "drop4"
  type: "Dropout"
  bottom: "fc4_300"
  top: "fc4_300"
  dropout_param {
    dropout_ratio: 0.4
  }
}
layer {
  name: "fc5_67"
  type: "InnerProduct"
  bottom: "fc4_300"
  top: "fc5_classes"
  inner_product_param {
    num_output: 67
    weight_filler {
      type: "xavier"
    }
  }
}
layer {
  name: "loss"
  type: "SoftmaxWithLoss"
  bottom: "fc5_classes"
  bottom: "label"
  top: "loss"
}
layer {
  name: "accuracy_1"
  type: "Accuracy"
  bottom: "fc5_classes"
  bottom: "label"
  top: "accuracy_1"
  include {
    phase: TEST
  }
  accuracy_param {
    top_k: 1
  }
}
layer {
  name: "accuracy_5"
  type: "Accuracy"
  bottom: "fc5_classes"
  bottom: "label"
  top: "accuracy_5"
  include {
    phase: TEST
  }
  accuracy_param {
    top_k: 5
  }
}
I0409 23:43:01.346351 28373 layer_factory.hpp:77] Creating layer data
I0409 23:43:01.346937 28373 net.cpp:100] Creating Layer data
I0409 23:43:01.346947 28373 net.cpp:408] data -> data
I0409 23:43:01.346956 28373 net.cpp:408] data -> label
I0409 23:43:01.351066 28477 db_lmdb.cpp:35] Opened lmdb ../local_data/lmdb/rtsd-r1/AHE/test/lmdb
I0409 23:43:01.351222 28373 data_layer.cpp:41] output data size: 1024,3,48,48
I0409 23:43:01.397840 28373 net.cpp:150] Setting up data
I0409 23:43:01.397871 28373 net.cpp:157] Top shape: 1024 3 48 48 (7077888)
I0409 23:43:01.397876 28373 net.cpp:157] Top shape: 1024 (1024)
I0409 23:43:01.397878 28373 net.cpp:165] Memory required for data: 28315648
I0409 23:43:01.397886 28373 layer_factory.hpp:77] Creating layer label_data_1_split
I0409 23:43:01.397910 28373 net.cpp:100] Creating Layer label_data_1_split
I0409 23:43:01.397917 28373 net.cpp:434] label_data_1_split <- label
I0409 23:43:01.397924 28373 net.cpp:408] label_data_1_split -> label_data_1_split_0
I0409 23:43:01.397934 28373 net.cpp:408] label_data_1_split -> label_data_1_split_1
I0409 23:43:01.397941 28373 net.cpp:408] label_data_1_split -> label_data_1_split_2
I0409 23:43:01.398089 28373 net.cpp:150] Setting up label_data_1_split
I0409 23:43:01.398099 28373 net.cpp:157] Top shape: 1024 (1024)
I0409 23:43:01.398103 28373 net.cpp:157] Top shape: 1024 (1024)
I0409 23:43:01.398106 28373 net.cpp:157] Top shape: 1024 (1024)
I0409 23:43:01.398109 28373 net.cpp:165] Memory required for data: 28327936
I0409 23:43:01.398113 28373 layer_factory.hpp:77] Creating layer conv1
I0409 23:43:01.398125 28373 net.cpp:100] Creating Layer conv1
I0409 23:43:01.398130 28373 net.cpp:434] conv1 <- data
I0409 23:43:01.398135 28373 net.cpp:408] conv1 -> conv1
I0409 23:43:01.401989 28373 net.cpp:150] Setting up conv1
I0409 23:43:01.402009 28373 net.cpp:157] Top shape: 1024 100 42 42 (180633600)
I0409 23:43:01.402024 28373 net.cpp:165] Memory required for data: 750862336
I0409 23:43:01.402037 28373 layer_factory.hpp:77] Creating layer conv1_sTanH
I0409 23:43:01.402045 28373 net.cpp:100] Creating Layer conv1_sTanH
I0409 23:43:01.402048 28373 net.cpp:434] conv1_sTanH <- conv1
I0409 23:43:01.402052 28373 net.cpp:395] conv1_sTanH -> conv1 (in-place)
I0409 23:43:01.402241 28373 net.cpp:150] Setting up conv1_sTanH
I0409 23:43:01.402252 28373 net.cpp:157] Top shape: 1024 100 42 42 (180633600)
I0409 23:43:01.402256 28373 net.cpp:165] Memory required for data: 1473396736
I0409 23:43:01.402258 28373 layer_factory.hpp:77] Creating layer pool1
I0409 23:43:01.402267 28373 net.cpp:100] Creating Layer pool1
I0409 23:43:01.402271 28373 net.cpp:434] pool1 <- conv1
I0409 23:43:01.402276 28373 net.cpp:408] pool1 -> pool1
I0409 23:43:01.402323 28373 net.cpp:150] Setting up pool1
I0409 23:43:01.402330 28373 net.cpp:157] Top shape: 1024 100 21 21 (45158400)
I0409 23:43:01.402333 28373 net.cpp:165] Memory required for data: 1654030336
I0409 23:43:01.402336 28373 layer_factory.hpp:77] Creating layer conv2
I0409 23:43:01.402345 28373 net.cpp:100] Creating Layer conv2
I0409 23:43:01.402349 28373 net.cpp:434] conv2 <- pool1
I0409 23:43:01.402354 28373 net.cpp:408] conv2 -> conv2
I0409 23:43:01.406383 28373 net.cpp:150] Setting up conv2
I0409 23:43:01.406399 28373 net.cpp:157] Top shape: 1024 150 18 18 (49766400)
I0409 23:43:01.406404 28373 net.cpp:165] Memory required for data: 1853095936
I0409 23:43:01.406414 28373 layer_factory.hpp:77] Creating layer conv2_sTanH
I0409 23:43:01.406421 28373 net.cpp:100] Creating Layer conv2_sTanH
I0409 23:43:01.406427 28373 net.cpp:434] conv2_sTanH <- conv2
I0409 23:43:01.406432 28373 net.cpp:395] conv2_sTanH -> conv2 (in-place)
I0409 23:43:01.407344 28373 net.cpp:150] Setting up conv2_sTanH
I0409 23:43:01.407361 28373 net.cpp:157] Top shape: 1024 150 18 18 (49766400)
I0409 23:43:01.407363 28373 net.cpp:165] Memory required for data: 2052161536
I0409 23:43:01.407366 28373 layer_factory.hpp:77] Creating layer pool2
I0409 23:43:01.407374 28373 net.cpp:100] Creating Layer pool2
I0409 23:43:01.407377 28373 net.cpp:434] pool2 <- conv2
I0409 23:43:01.407383 28373 net.cpp:408] pool2 -> pool2
I0409 23:43:01.407435 28373 net.cpp:150] Setting up pool2
I0409 23:43:01.407447 28373 net.cpp:157] Top shape: 1024 150 9 9 (12441600)
I0409 23:43:01.407450 28373 net.cpp:165] Memory required for data: 2101927936
I0409 23:43:01.407454 28373 layer_factory.hpp:77] Creating layer conv3
I0409 23:43:01.407464 28373 net.cpp:100] Creating Layer conv3
I0409 23:43:01.407469 28373 net.cpp:434] conv3 <- pool2
I0409 23:43:01.407474 28373 net.cpp:408] conv3 -> conv3
I0409 23:43:01.413089 28373 net.cpp:150] Setting up conv3
I0409 23:43:01.413106 28373 net.cpp:157] Top shape: 1024 250 6 6 (9216000)
I0409 23:43:01.413110 28373 net.cpp:165] Memory required for data: 2138791936
I0409 23:43:01.413120 28373 layer_factory.hpp:77] Creating layer conv3_sTanH
I0409 23:43:01.413127 28373 net.cpp:100] Creating Layer conv3_sTanH
I0409 23:43:01.413130 28373 net.cpp:434] conv3_sTanH <- conv3
I0409 23:43:01.413136 28373 net.cpp:395] conv3_sTanH -> conv3 (in-place)
I0409 23:43:01.413990 28373 net.cpp:150] Setting up conv3_sTanH
I0409 23:43:01.414005 28373 net.cpp:157] Top shape: 1024 250 6 6 (9216000)
I0409 23:43:01.414026 28373 net.cpp:165] Memory required for data: 2175655936
I0409 23:43:01.414031 28373 layer_factory.hpp:77] Creating layer pool3
I0409 23:43:01.414041 28373 net.cpp:100] Creating Layer pool3
I0409 23:43:01.414043 28373 net.cpp:434] pool3 <- conv3
I0409 23:43:01.414048 28373 net.cpp:408] pool3 -> pool3
I0409 23:43:01.414099 28373 net.cpp:150] Setting up pool3
I0409 23:43:01.414108 28373 net.cpp:157] Top shape: 1024 250 3 3 (2304000)
I0409 23:43:01.414111 28373 net.cpp:165] Memory required for data: 2184871936
I0409 23:43:01.414114 28373 layer_factory.hpp:77] Creating layer fc4_300
I0409 23:43:01.414121 28373 net.cpp:100] Creating Layer fc4_300
I0409 23:43:01.414125 28373 net.cpp:434] fc4_300 <- pool3
I0409 23:43:01.414130 28373 net.cpp:408] fc4_300 -> fc4_300
I0409 23:43:01.419582 28373 net.cpp:150] Setting up fc4_300
I0409 23:43:01.419600 28373 net.cpp:157] Top shape: 1024 300 (307200)
I0409 23:43:01.419603 28373 net.cpp:165] Memory required for data: 2186100736
I0409 23:43:01.419621 28373 layer_factory.hpp:77] Creating layer fc4_sTanH
I0409 23:43:01.419628 28373 net.cpp:100] Creating Layer fc4_sTanH
I0409 23:43:01.419632 28373 net.cpp:434] fc4_sTanH <- fc4_300
I0409 23:43:01.419637 28373 net.cpp:395] fc4_sTanH -> fc4_300 (in-place)
I0409 23:43:01.419826 28373 net.cpp:150] Setting up fc4_sTanH
I0409 23:43:01.419838 28373 net.cpp:157] Top shape: 1024 300 (307200)
I0409 23:43:01.419842 28373 net.cpp:165] Memory required for data: 2187329536
I0409 23:43:01.419847 28373 layer_factory.hpp:77] Creating layer drop4
I0409 23:43:01.419854 28373 net.cpp:100] Creating Layer drop4
I0409 23:43:01.419857 28373 net.cpp:434] drop4 <- fc4_300
I0409 23:43:01.419862 28373 net.cpp:395] drop4 -> fc4_300 (in-place)
I0409 23:43:01.419898 28373 net.cpp:150] Setting up drop4
I0409 23:43:01.419905 28373 net.cpp:157] Top shape: 1024 300 (307200)
I0409 23:43:01.419909 28373 net.cpp:165] Memory required for data: 2188558336
I0409 23:43:01.419911 28373 layer_factory.hpp:77] Creating layer fc5_67
I0409 23:43:01.419917 28373 net.cpp:100] Creating Layer fc5_67
I0409 23:43:01.419921 28373 net.cpp:434] fc5_67 <- fc4_300
I0409 23:43:01.419925 28373 net.cpp:408] fc5_67 -> fc5_classes
I0409 23:43:01.420176 28373 net.cpp:150] Setting up fc5_67
I0409 23:43:01.420184 28373 net.cpp:157] Top shape: 1024 67 (68608)
I0409 23:43:01.420187 28373 net.cpp:165] Memory required for data: 2188832768
I0409 23:43:01.420197 28373 layer_factory.hpp:77] Creating layer fc5_classes_fc5_67_0_split
I0409 23:43:01.420205 28373 net.cpp:100] Creating Layer fc5_classes_fc5_67_0_split
I0409 23:43:01.420208 28373 net.cpp:434] fc5_classes_fc5_67_0_split <- fc5_classes
I0409 23:43:01.420213 28373 net.cpp:408] fc5_classes_fc5_67_0_split -> fc5_classes_fc5_67_0_split_0
I0409 23:43:01.420220 28373 net.cpp:408] fc5_classes_fc5_67_0_split -> fc5_classes_fc5_67_0_split_1
I0409 23:43:01.420227 28373 net.cpp:408] fc5_classes_fc5_67_0_split -> fc5_classes_fc5_67_0_split_2
I0409 23:43:01.420285 28373 net.cpp:150] Setting up fc5_classes_fc5_67_0_split
I0409 23:43:01.420291 28373 net.cpp:157] Top shape: 1024 67 (68608)
I0409 23:43:01.420298 28373 net.cpp:157] Top shape: 1024 67 (68608)
I0409 23:43:01.420302 28373 net.cpp:157] Top shape: 1024 67 (68608)
I0409 23:43:01.420305 28373 net.cpp:165] Memory required for data: 2189656064
I0409 23:43:01.420307 28373 layer_factory.hpp:77] Creating layer loss
I0409 23:43:01.420315 28373 net.cpp:100] Creating Layer loss
I0409 23:43:01.420318 28373 net.cpp:434] loss <- fc5_classes_fc5_67_0_split_0
I0409 23:43:01.420323 28373 net.cpp:434] loss <- label_data_1_split_0
I0409 23:43:01.420327 28373 net.cpp:408] loss -> loss
…
