…
I0528 00:38:08.826052 22284 solver.cpp:81] Creating training net from train_net file: ./Prototxt/experiment_20/RTSD/AHE/trial_4/train.prototxt
I0528 00:38:08.826563 22284 net.cpp:58] Initializing net from parameters: 
state {
  phase: TRAIN
  level: 0
  stage: ""
}
layer {
  name: "data"
  type: "Data"
  top: "data"
  top: "label"
  include {
    phase: TRAIN
  }
  transform_param {
    scale: 0.0039215689
    mirror: false
    crop_size: 48
    mean_value: 133
    mean_value: 127
    mean_value: 126
  }
  data_param {
    source: "../local_data/lmdb/RTSD/AHE/train/lmdb"
    batch_size: 1024
    backend: LMDB
  }
}
layer {
  name: "conv1"
  type: "Convolution"
  bottom: "data"
  top: "conv1"
  convolution_param {
    num_output: 100
    pad: 0
    kernel_size: 7
    group: 1
    stride: 1
    weight_filler {
      type: "xavier"
    }
  }
}
layer {
  name: "conv1_relu"
  type: "ReLU"
  bottom: "conv1"
  top: "conv1"
}
layer {
  name: "pool1"
  type: "Pooling"
  bottom: "conv1"
  top: "pool1"
  pooling_param {
    pool: MAX
    kernel_size: 2
    stride: 2
  }
}
layer {
  name: "conv2"
  type: "Convolution"
  bottom: "pool1"
  top: "conv2"
  convolution_param {
    num_output: 150
    pad: 0
    kernel_size: 4
    group: 1
    stride: 1
    weight_filler {
      type: "xavier"
    }
  }
}
layer {
  name: "conv2_relu"
  type: "ReLU"
  bottom: "conv2"
  top: "conv2"
}
layer {
  name: "pool2"
  type: "Pooling"
  bottom: "conv2"
  top: "pool2"
  pooling_param {
    pool: MAX
    kernel_size: 2
    stride: 2
  }
}
layer {
  name: "conv3"
  type: "Convolution"
  bottom: "pool2"
  top: "conv3"
  convolution_param {
    num_output: 250
    pad: 0
    kernel_size: 4
    group: 1
    stride: 1
    weight_filler {
      type: "xavier"
    }
  }
}
layer {
  name: "conv3_relu"
  type: "ReLU"
  bottom: "conv3"
  top: "conv3"
}
layer {
  name: "pool3"
  type: "Pooling"
  bottom: "conv3"
  top: "pool3"
  pooling_param {
    pool: MAX
    kernel_size: 2
    stride: 2
  }
}
layer {
  name: "fc4_300"
  type: "InnerProduct"
  bottom: "pool3"
  top: "fc4_300"
  inner_product_param {
    num_output: 300
    weight_filler {
      type: "xavier"
    }
  }
}
layer {
  name: "fc4_relu"
  type: "ReLU"
  bottom: "fc4_300"
  top: "fc4_300"
}
layer {
  name: "fc5_116"
  type: "InnerProduct"
  bottom: "fc4_300"
  top: "fc5_classes"
  inner_product_param {
    num_output: 116
    weight_filler {
      type: "xavier"
    }
  }
}
layer {
  name: "softmax"
  type: "Softmax"
  bottom: "fc5_classes"
  top: "softmax"
}
layer {
  name: "loss"
  type: "MultinomialLogisticLoss"
  bottom: "softmax"
  bottom: "label"
  top: "loss"
}
layer {
  name: "accuracy_1"
  type: "Accuracy"
  bottom: "fc5_classes"
  bottom: "label"
  top: "accuracy_1"
  accuracy_param {
    top_k: 1
  }
}
layer {
  name: "accuracy_5"
  type: "Accuracy"
  bottom: "fc5_classes"
  bottom: "label"
  top: "accuracy_5"
  accuracy_param {
    top_k: 5
  }
}
layer {
  name: "silence"
  type: "Silence"
  bottom: "accuracy_1"
  bottom: "accuracy_5"
}
I0528 00:38:08.826694 22284 layer_factory.hpp:77] Creating layer data
I0528 00:38:08.827803 22284 net.cpp:100] Creating Layer data
I0528 00:38:08.827822 22284 net.cpp:408] data -> data
I0528 00:38:08.827849 22284 net.cpp:408] data -> label
I0528 00:38:08.828498 22313 db_lmdb.cpp:35] Opened lmdb ../local_data/lmdb/RTSD/AHE/train/lmdb
I0528 00:38:08.846384 22284 data_layer.cpp:41] output data size: 1024,3,48,48
I0528 00:38:08.893012 22284 net.cpp:150] Setting up data
I0528 00:38:08.893064 22284 net.cpp:157] Top shape: 1024 3 48 48 (7077888)
I0528 00:38:08.893071 22284 net.cpp:157] Top shape: 1024 (1024)
I0528 00:38:08.893077 22284 net.cpp:165] Memory required for data: 28315648
I0528 00:38:08.893087 22284 layer_factory.hpp:77] Creating layer label_data_1_split
I0528 00:38:08.893100 22284 net.cpp:100] Creating Layer label_data_1_split
I0528 00:38:08.893110 22284 net.cpp:434] label_data_1_split <- label
I0528 00:38:08.893126 22284 net.cpp:408] label_data_1_split -> label_data_1_split_0
I0528 00:38:08.893137 22284 net.cpp:408] label_data_1_split -> label_data_1_split_1
I0528 00:38:08.893146 22284 net.cpp:408] label_data_1_split -> label_data_1_split_2
I0528 00:38:08.893193 22284 net.cpp:150] Setting up label_data_1_split
I0528 00:38:08.893201 22284 net.cpp:157] Top shape: 1024 (1024)
I0528 00:38:08.893206 22284 net.cpp:157] Top shape: 1024 (1024)
I0528 00:38:08.893211 22284 net.cpp:157] Top shape: 1024 (1024)
I0528 00:38:08.893215 22284 net.cpp:165] Memory required for data: 28327936
I0528 00:38:08.893220 22284 layer_factory.hpp:77] Creating layer conv1
I0528 00:38:08.893236 22284 net.cpp:100] Creating Layer conv1
I0528 00:38:08.893241 22284 net.cpp:434] conv1 <- data
I0528 00:38:08.893249 22284 net.cpp:408] conv1 -> conv1
I0528 00:38:09.365116 22284 net.cpp:150] Setting up conv1
I0528 00:38:09.365160 22284 net.cpp:157] Top shape: 1024 100 42 42 (180633600)
I0528 00:38:09.365165 22284 net.cpp:165] Memory required for data: 750862336
I0528 00:38:09.365182 22284 layer_factory.hpp:77] Creating layer conv1_relu
I0528 00:38:09.365193 22284 net.cpp:100] Creating Layer conv1_relu
I0528 00:38:09.365200 22284 net.cpp:434] conv1_relu <- conv1
I0528 00:38:09.365206 22284 net.cpp:395] conv1_relu -> conv1 (in-place)
I0528 00:38:09.365377 22284 net.cpp:150] Setting up conv1_relu
I0528 00:38:09.365389 22284 net.cpp:157] Top shape: 1024 100 42 42 (180633600)
I0528 00:38:09.365393 22284 net.cpp:165] Memory required for data: 1473396736
I0528 00:38:09.365396 22284 layer_factory.hpp:77] Creating layer pool1
I0528 00:38:09.365406 22284 net.cpp:100] Creating Layer pool1
I0528 00:38:09.365417 22284 net.cpp:434] pool1 <- conv1
I0528 00:38:09.365427 22284 net.cpp:408] pool1 -> pool1
I0528 00:38:09.365478 22284 net.cpp:150] Setting up pool1
I0528 00:38:09.365484 22284 net.cpp:157] Top shape: 1024 100 21 21 (45158400)
I0528 00:38:09.365487 22284 net.cpp:165] Memory required for data: 1654030336
I0528 00:38:09.365491 22284 layer_factory.hpp:77] Creating layer conv2
I0528 00:38:09.365514 22284 net.cpp:100] Creating Layer conv2
I0528 00:38:09.365519 22284 net.cpp:434] conv2 <- pool1
I0528 00:38:09.365523 22284 net.cpp:408] conv2 -> conv2
I0528 00:38:09.368976 22284 net.cpp:150] Setting up conv2
I0528 00:38:09.369016 22284 net.cpp:157] Top shape: 1024 150 18 18 (49766400)
I0528 00:38:09.369021 22284 net.cpp:165] Memory required for data: 1853095936
I0528 00:38:09.369043 22284 layer_factory.hpp:77] Creating layer conv2_relu
I0528 00:38:09.369052 22284 net.cpp:100] Creating Layer conv2_relu
I0528 00:38:09.369057 22284 net.cpp:434] conv2_relu <- conv2
I0528 00:38:09.369065 22284 net.cpp:395] conv2_relu -> conv2 (in-place)
I0528 00:38:09.369223 22284 net.cpp:150] Setting up conv2_relu
I0528 00:38:09.369233 22284 net.cpp:157] Top shape: 1024 150 18 18 (49766400)
I0528 00:38:09.369238 22284 net.cpp:165] Memory required for data: 2052161536
I0528 00:38:09.369241 22284 layer_factory.hpp:77] Creating layer pool2
I0528 00:38:09.369249 22284 net.cpp:100] Creating Layer pool2
I0528 00:38:09.369253 22284 net.cpp:434] pool2 <- conv2
I0528 00:38:09.369262 22284 net.cpp:408] pool2 -> pool2
I0528 00:38:09.369313 22284 net.cpp:150] Setting up pool2
I0528 00:38:09.369318 22284 net.cpp:157] Top shape: 1024 150 9 9 (12441600)
I0528 00:38:09.369323 22284 net.cpp:165] Memory required for data: 2101927936
I0528 00:38:09.369325 22284 layer_factory.hpp:77] Creating layer conv3
I0528 00:38:09.369346 22284 net.cpp:100] Creating Layer conv3
I0528 00:38:09.369350 22284 net.cpp:434] conv3 <- pool2
I0528 00:38:09.369355 22284 net.cpp:408] conv3 -> conv3
I0528 00:38:09.374274 22284 net.cpp:150] Setting up conv3
I0528 00:38:09.374296 22284 net.cpp:157] Top shape: 1024 250 6 6 (9216000)
I0528 00:38:09.374303 22284 net.cpp:165] Memory required for data: 2138791936
I0528 00:38:09.374315 22284 layer_factory.hpp:77] Creating layer conv3_relu
I0528 00:38:09.374325 22284 net.cpp:100] Creating Layer conv3_relu
I0528 00:38:09.374331 22284 net.cpp:434] conv3_relu <- conv3
I0528 00:38:09.374337 22284 net.cpp:395] conv3_relu -> conv3 (in-place)
I0528 00:38:09.374776 22284 net.cpp:150] Setting up conv3_relu
I0528 00:38:09.374790 22284 net.cpp:157] Top shape: 1024 250 6 6 (9216000)
I0528 00:38:09.374794 22284 net.cpp:165] Memory required for data: 2175655936
I0528 00:38:09.374799 22284 layer_factory.hpp:77] Creating layer pool3
I0528 00:38:09.374805 22284 net.cpp:100] Creating Layer pool3
I0528 00:38:09.374809 22284 net.cpp:434] pool3 <- conv3
I0528 00:38:09.374815 22284 net.cpp:408] pool3 -> pool3
I0528 00:38:09.374852 22284 net.cpp:150] Setting up pool3
I0528 00:38:09.374860 22284 net.cpp:157] Top shape: 1024 250 3 3 (2304000)
I0528 00:38:09.374862 22284 net.cpp:165] Memory required for data: 2184871936
I0528 00:38:09.374866 22284 layer_factory.hpp:77] Creating layer fc4_300
I0528 00:38:09.374874 22284 net.cpp:100] Creating Layer fc4_300
I0528 00:38:09.374878 22284 net.cpp:434] fc4_300 <- pool3
I0528 00:38:09.374883 22284 net.cpp:408] fc4_300 -> fc4_300
I0528 00:38:09.379421 22284 net.cpp:150] Setting up fc4_300
I0528 00:38:09.379448 22284 net.cpp:157] Top shape: 1024 300 (307200)
I0528 00:38:09.379452 22284 net.cpp:165] Memory required for data: 2186100736
I0528 00:38:09.379463 22284 layer_factory.hpp:77] Creating layer fc4_relu
I0528 00:38:09.379473 22284 net.cpp:100] Creating Layer fc4_relu
I0528 00:38:09.379479 22284 net.cpp:434] fc4_relu <- fc4_300
I0528 00:38:09.379487 22284 net.cpp:395] fc4_relu -> fc4_300 (in-place)
I0528 00:38:09.379667 22284 net.cpp:150] Setting up fc4_relu
I0528 00:38:09.379678 22284 net.cpp:157] Top shape: 1024 300 (307200)
I0528 00:38:09.379681 22284 net.cpp:165] Memory required for data: 2187329536
I0528 00:38:09.379685 22284 layer_factory.hpp:77] Creating layer fc5_116
I0528 00:38:09.379694 22284 net.cpp:100] Creating Layer fc5_116
I0528 00:38:09.379699 22284 net.cpp:434] fc5_116 <- fc4_300
I0528 00:38:09.379705 22284 net.cpp:408] fc5_116 -> fc5_classes
I0528 00:38:09.381075 22284 net.cpp:150] Setting up fc5_116
I0528 00:38:09.381098 22284 net.cpp:157] Top shape: 1024 116 (118784)
I0528 00:38:09.381103 22284 net.cpp:165] Memory required for data: 2187804672
I0528 00:38:09.381112 22284 layer_factory.hpp:77] Creating layer fc5_classes_fc5_116_0_split
I0528 00:38:09.381122 22284 net.cpp:100] Creating Layer fc5_classes_fc5_116_0_split
I0528 00:38:09.381127 22284 net.cpp:434] fc5_classes_fc5_116_0_split <- fc5_classes
I0528 00:38:09.381134 22284 net.cpp:408] fc5_classes_fc5_116_0_split -> fc5_classes_fc5_116_0_split_0
I0528 00:38:09.381139 22284 net.cpp:408] fc5_classes_fc5_116_0_split -> fc5_classes_fc5_116_0_split_1
I0528 00:38:09.381146 22284 net.cpp:408] fc5_classes_fc5_116_0_split -> fc5_classes_fc5_116_0_split_2
I0528 00:38:09.381192 22284 net.cpp:150] Setting up fc5_classes_fc5_116_0_split
I0528 00:38:09.381198 22284 net.cpp:157] Top shape: 1024 116 (118784)
I0528 00:38:09.381202 22284 net.cpp:157] Top shape: 1024 116 (118784)
I0528 00:38:09.381206 22284 net.cpp:157] Top shape: 1024 116 (118784)
I0528 00:38:09.381209 22284 net.cpp:165] Memory required for data: 2189230080
I0528 00:38:09.381212 22284 layer_factory.hpp:77] Creating layer softmax
I0528 00:38:09.381218 22284 net.cpp:100] Creating Layer softmax
I0528 00:38:09.381222 22284 net.cpp:434] softmax <- fc5_classes_fc5_116_0_split_0
I0528 00:38:09.381227 22284 net.cpp:408] softmax -> softmax
I0528 00:38:09.381424 22284 net.cpp:150] Setting up softmax
I0528 00:38:09.381436 22284 net.cpp:157] Top shape: 1024 116 (118784)
I0528 00:38:09.381440 22284 net.cpp:165] Memory required for data: 2189705216
I0528 00:38:09.381444 22284 layer_factory.hpp:77] Creating layer loss
I0528 00:38:09.381460 22284 net.cpp:100] Creating Layer loss
I0528 00:38:09.381486 22284 net.cpp:434] loss <- softmax
I0528 00:38:09.381491 22284 net.cpp:434] loss <- label_data_1_split_0
I0528 00:38:09.381498 22284 net.cpp:408] loss -> loss
…
