…
I0529 00:38:30.092900 28300 solver.cpp:81] Creating training net from train_net file: ./Prototxt/experiment_22/RTSD/imajust/trial_1/train.prototxt
I0529 00:38:30.100178 28300 net.cpp:58] Initializing net from parameters: 
state {
  phase: TRAIN
  level: 0
  stage: ""
}
layer {
  name: "data"
  type: "Data"
  top: "data"
  top: "label"
  include {
    phase: TRAIN
  }
  transform_param {
    scale: 0.0039215689
    mirror: false
    crop_size: 48
    mean_value: 119
    mean_value: 113
    mean_value: 114
  }
  data_param {
    source: "../local_data/lmdb/RTSD/imajust/train/lmdb"
    batch_size: 1024
    backend: LMDB
  }
}
layer {
  name: "conv1"
  type: "Convolution"
  bottom: "data"
  top: "conv1"
  convolution_param {
    num_output: 100
    pad: 0
    kernel_size: 7
    group: 1
    stride: 1
    weight_filler {
      type: "xavier"
    }
  }
}
layer {
  name: "conv1_relu"
  type: "ReLU"
  bottom: "conv1"
  top: "conv1"
}
layer {
  name: "pool1"
  type: "Pooling"
  bottom: "conv1"
  top: "pool1"
  pooling_param {
    pool: MAX
    kernel_size: 2
    stride: 2
  }
}
layer {
  name: "conv2"
  type: "Convolution"
  bottom: "pool1"
  top: "conv2"
  convolution_param {
    num_output: 150
    pad: 0
    kernel_size: 4
    group: 1
    stride: 1
    weight_filler {
      type: "xavier"
    }
  }
}
layer {
  name: "conv2_relu"
  type: "ReLU"
  bottom: "conv2"
  top: "conv2"
}
layer {
  name: "pool2"
  type: "Pooling"
  bottom: "conv2"
  top: "pool2"
  pooling_param {
    pool: MAX
    kernel_size: 2
    stride: 2
  }
}
layer {
  name: "conv3"
  type: "Convolution"
  bottom: "pool2"
  top: "conv3"
  convolution_param {
    num_output: 250
    pad: 0
    kernel_size: 4
    group: 1
    stride: 1
    weight_filler {
      type: "xavier"
    }
  }
}
layer {
  name: "conv3_relu"
  type: "ReLU"
  bottom: "conv3"
  top: "conv3"
}
layer {
  name: "pool3"
  type: "Pooling"
  bottom: "conv3"
  top: "pool3"
  pooling_param {
    pool: MAX
    kernel_size: 2
    stride: 2
  }
}
layer {
  name: "fc4_300"
  type: "InnerProduct"
  bottom: "pool3"
  top: "fc4_300"
  inner_product_param {
    num_output: 300
    weight_filler {
      type: "xavier"
    }
  }
}
layer {
  name: "fc4_relu"
  type: "ReLU"
  bottom: "fc4_300"
  top: "fc4_300"
}
layer {
  name: "fc5_116"
  type: "InnerProduct"
  bottom: "fc4_300"
  top: "fc5_classes"
  inner_product_param {
    num_output: 116
    weight_filler {
      type: "xavier"
    }
  }
}
layer {
  name: "softmax"
  type: "Softmax"
  bottom: "fc5_classes"
  top: "softmax"
}
layer {
  name: "loss"
  type: "MultinomialLogisticLoss"
  bottom: "softmax"
  bottom: "label"
  top: "loss"
}
layer {
  name: "accuracy_1"
  type: "Accuracy"
  bottom: "fc5_classes"
  bottom: "label"
  top: "accuracy_1"
  accuracy_param {
    top_k: 1
  }
}
layer {
  name: "accuracy_5"
  type: "Accuracy"
  bottom: "fc5_classes"
  bottom: "label"
  top: "accuracy_5"
  accuracy_param {
    top_k: 5
  }
}
layer {
  name: "silence"
  type: "Silence"
  bottom: "accuracy_1"
  bottom: "accuracy_5"
}
I0529 00:38:30.100277 28300 layer_factory.hpp:77] Creating layer data
I0529 00:38:30.101070 28300 net.cpp:100] Creating Layer data
I0529 00:38:30.101085 28300 net.cpp:408] data -> data
I0529 00:38:30.101110 28300 net.cpp:408] data -> label
I0529 00:38:30.124264 28347 db_lmdb.cpp:35] Opened lmdb ../local_data/lmdb/RTSD/imajust/train/lmdb
I0529 00:38:30.168942 28300 data_layer.cpp:41] output data size: 1024,3,48,48
I0529 00:38:30.218027 28300 net.cpp:150] Setting up data
I0529 00:38:30.218085 28300 net.cpp:157] Top shape: 1024 3 48 48 (7077888)
I0529 00:38:30.218092 28300 net.cpp:157] Top shape: 1024 (1024)
I0529 00:38:30.218096 28300 net.cpp:165] Memory required for data: 28315648
I0529 00:38:30.218106 28300 layer_factory.hpp:77] Creating layer label_data_1_split
I0529 00:38:30.218118 28300 net.cpp:100] Creating Layer label_data_1_split
I0529 00:38:30.218127 28300 net.cpp:434] label_data_1_split <- label
I0529 00:38:30.218138 28300 net.cpp:408] label_data_1_split -> label_data_1_split_0
I0529 00:38:30.218148 28300 net.cpp:408] label_data_1_split -> label_data_1_split_1
I0529 00:38:30.218154 28300 net.cpp:408] label_data_1_split -> label_data_1_split_2
I0529 00:38:30.218201 28300 net.cpp:150] Setting up label_data_1_split
I0529 00:38:30.218217 28300 net.cpp:157] Top shape: 1024 (1024)
I0529 00:38:30.218225 28300 net.cpp:157] Top shape: 1024 (1024)
I0529 00:38:30.218231 28300 net.cpp:157] Top shape: 1024 (1024)
I0529 00:38:30.218235 28300 net.cpp:165] Memory required for data: 28327936
I0529 00:38:30.218241 28300 layer_factory.hpp:77] Creating layer conv1
I0529 00:38:30.218256 28300 net.cpp:100] Creating Layer conv1
I0529 00:38:30.218261 28300 net.cpp:434] conv1 <- data
I0529 00:38:30.218266 28300 net.cpp:408] conv1 -> conv1
I0529 00:38:30.457507 28359 blocking_queue.cpp:50] Waiting for data
I0529 00:38:30.992471 28300 net.cpp:150] Setting up conv1
I0529 00:38:30.992503 28300 net.cpp:157] Top shape: 1024 100 42 42 (180633600)
I0529 00:38:30.992509 28300 net.cpp:165] Memory required for data: 750862336
I0529 00:38:30.992524 28300 layer_factory.hpp:77] Creating layer conv1_relu
I0529 00:38:30.992537 28300 net.cpp:100] Creating Layer conv1_relu
I0529 00:38:30.992543 28300 net.cpp:434] conv1_relu <- conv1
I0529 00:38:30.992549 28300 net.cpp:395] conv1_relu -> conv1 (in-place)
I0529 00:38:30.992749 28300 net.cpp:150] Setting up conv1_relu
I0529 00:38:30.992770 28300 net.cpp:157] Top shape: 1024 100 42 42 (180633600)
I0529 00:38:30.992774 28300 net.cpp:165] Memory required for data: 1473396736
I0529 00:38:30.992779 28300 layer_factory.hpp:77] Creating layer pool1
I0529 00:38:30.992805 28300 net.cpp:100] Creating Layer pool1
I0529 00:38:30.992810 28300 net.cpp:434] pool1 <- conv1
I0529 00:38:30.992815 28300 net.cpp:408] pool1 -> pool1
I0529 00:38:30.992867 28300 net.cpp:150] Setting up pool1
I0529 00:38:30.992877 28300 net.cpp:157] Top shape: 1024 100 21 21 (45158400)
I0529 00:38:30.992880 28300 net.cpp:165] Memory required for data: 1654030336
I0529 00:38:30.992884 28300 layer_factory.hpp:77] Creating layer conv2
I0529 00:38:30.992894 28300 net.cpp:100] Creating Layer conv2
I0529 00:38:30.992898 28300 net.cpp:434] conv2 <- pool1
I0529 00:38:30.992904 28300 net.cpp:408] conv2 -> conv2
I0529 00:38:30.995983 28300 net.cpp:150] Setting up conv2
I0529 00:38:30.996007 28300 net.cpp:157] Top shape: 1024 150 18 18 (49766400)
I0529 00:38:30.996014 28300 net.cpp:165] Memory required for data: 1853095936
I0529 00:38:30.996037 28300 layer_factory.hpp:77] Creating layer conv2_relu
I0529 00:38:30.996047 28300 net.cpp:100] Creating Layer conv2_relu
I0529 00:38:30.996050 28300 net.cpp:434] conv2_relu <- conv2
I0529 00:38:30.996058 28300 net.cpp:395] conv2_relu -> conv2 (in-place)
I0529 00:38:30.996201 28300 net.cpp:150] Setting up conv2_relu
I0529 00:38:30.996212 28300 net.cpp:157] Top shape: 1024 150 18 18 (49766400)
I0529 00:38:30.996215 28300 net.cpp:165] Memory required for data: 2052161536
I0529 00:38:30.996219 28300 layer_factory.hpp:77] Creating layer pool2
I0529 00:38:30.996227 28300 net.cpp:100] Creating Layer pool2
I0529 00:38:30.996230 28300 net.cpp:434] pool2 <- conv2
I0529 00:38:30.996237 28300 net.cpp:408] pool2 -> pool2
I0529 00:38:30.996284 28300 net.cpp:150] Setting up pool2
I0529 00:38:30.996292 28300 net.cpp:157] Top shape: 1024 150 9 9 (12441600)
I0529 00:38:30.996296 28300 net.cpp:165] Memory required for data: 2101927936
I0529 00:38:30.996300 28300 layer_factory.hpp:77] Creating layer conv3
I0529 00:38:30.996320 28300 net.cpp:100] Creating Layer conv3
I0529 00:38:30.996325 28300 net.cpp:434] conv3 <- pool2
I0529 00:38:30.996347 28300 net.cpp:408] conv3 -> conv3
I0529 00:38:31.002373 28300 net.cpp:150] Setting up conv3
I0529 00:38:31.002406 28300 net.cpp:157] Top shape: 1024 250 6 6 (9216000)
I0529 00:38:31.002413 28300 net.cpp:165] Memory required for data: 2138791936
I0529 00:38:31.002427 28300 layer_factory.hpp:77] Creating layer conv3_relu
I0529 00:38:31.002446 28300 net.cpp:100] Creating Layer conv3_relu
I0529 00:38:31.002452 28300 net.cpp:434] conv3_relu <- conv3
I0529 00:38:31.002457 28300 net.cpp:395] conv3_relu -> conv3 (in-place)
I0529 00:38:31.002869 28300 net.cpp:150] Setting up conv3_relu
I0529 00:38:31.002903 28300 net.cpp:157] Top shape: 1024 250 6 6 (9216000)
I0529 00:38:31.002909 28300 net.cpp:165] Memory required for data: 2175655936
I0529 00:38:31.002915 28300 layer_factory.hpp:77] Creating layer pool3
I0529 00:38:31.002931 28300 net.cpp:100] Creating Layer pool3
I0529 00:38:31.002939 28300 net.cpp:434] pool3 <- conv3
I0529 00:38:31.002956 28300 net.cpp:408] pool3 -> pool3
I0529 00:38:31.003003 28300 net.cpp:150] Setting up pool3
I0529 00:38:31.003012 28300 net.cpp:157] Top shape: 1024 250 3 3 (2304000)
I0529 00:38:31.003016 28300 net.cpp:165] Memory required for data: 2184871936
I0529 00:38:31.003020 28300 layer_factory.hpp:77] Creating layer fc4_300
I0529 00:38:31.003036 28300 net.cpp:100] Creating Layer fc4_300
I0529 00:38:31.003041 28300 net.cpp:434] fc4_300 <- pool3
I0529 00:38:31.003047 28300 net.cpp:408] fc4_300 -> fc4_300
I0529 00:38:31.009606 28300 net.cpp:150] Setting up fc4_300
I0529 00:38:31.009651 28300 net.cpp:157] Top shape: 1024 300 (307200)
I0529 00:38:31.009668 28300 net.cpp:165] Memory required for data: 2186100736
I0529 00:38:31.009686 28300 layer_factory.hpp:77] Creating layer fc4_relu
I0529 00:38:31.009702 28300 net.cpp:100] Creating Layer fc4_relu
I0529 00:38:31.009716 28300 net.cpp:434] fc4_relu <- fc4_300
I0529 00:38:31.009750 28300 net.cpp:395] fc4_relu -> fc4_300 (in-place)
I0529 00:38:31.010066 28300 net.cpp:150] Setting up fc4_relu
I0529 00:38:31.010092 28300 net.cpp:157] Top shape: 1024 300 (307200)
I0529 00:38:31.010104 28300 net.cpp:165] Memory required for data: 2187329536
I0529 00:38:31.010128 28300 layer_factory.hpp:77] Creating layer fc5_116
I0529 00:38:31.010152 28300 net.cpp:100] Creating Layer fc5_116
I0529 00:38:31.010164 28300 net.cpp:434] fc5_116 <- fc4_300
I0529 00:38:31.010191 28300 net.cpp:408] fc5_116 -> fc5_classes
I0529 00:38:31.011731 28300 net.cpp:150] Setting up fc5_116
I0529 00:38:31.011761 28300 net.cpp:157] Top shape: 1024 116 (118784)
I0529 00:38:31.011781 28300 net.cpp:165] Memory required for data: 2187804672
I0529 00:38:31.011827 28300 layer_factory.hpp:77] Creating layer fc5_classes_fc5_116_0_split
I0529 00:38:31.011847 28300 net.cpp:100] Creating Layer fc5_classes_fc5_116_0_split
I0529 00:38:31.011862 28300 net.cpp:434] fc5_classes_fc5_116_0_split <- fc5_classes
I0529 00:38:31.011890 28300 net.cpp:408] fc5_classes_fc5_116_0_split -> fc5_classes_fc5_116_0_split_0
I0529 00:38:31.011912 28300 net.cpp:408] fc5_classes_fc5_116_0_split -> fc5_classes_fc5_116_0_split_1
I0529 00:38:31.011940 28300 net.cpp:408] fc5_classes_fc5_116_0_split -> fc5_classes_fc5_116_0_split_2
I0529 00:38:31.012027 28300 net.cpp:150] Setting up fc5_classes_fc5_116_0_split
I0529 00:38:31.012060 28300 net.cpp:157] Top shape: 1024 116 (118784)
I0529 00:38:31.012086 28300 net.cpp:157] Top shape: 1024 116 (118784)
I0529 00:38:31.012109 28300 net.cpp:157] Top shape: 1024 116 (118784)
I0529 00:38:31.012120 28300 net.cpp:165] Memory required for data: 2189230080
I0529 00:38:31.012135 28300 layer_factory.hpp:77] Creating layer softmax
I0529 00:38:31.012174 28300 net.cpp:100] Creating Layer softmax
I0529 00:38:31.012186 28300 net.cpp:434] softmax <- fc5_classes_fc5_116_0_split_0
I0529 00:38:31.012219 28300 net.cpp:408] softmax -> softmax
I0529 00:38:31.012517 28300 net.cpp:150] Setting up softmax
I0529 00:38:31.012542 28300 net.cpp:157] Top shape: 1024 116 (118784)
I0529 00:38:31.012549 28300 net.cpp:165] Memory required for data: 2189705216
I0529 00:38:31.012583 28300 layer_factory.hpp:77] Creating layer loss
I0529 00:38:31.012609 28300 net.cpp:100] Creating Layer loss
I0529 00:38:31.012620 28300 net.cpp:434] loss <- softmax
I0529 00:38:31.012639 28300 net.cpp:434] loss <- label_data_1_split_0
I0529 00:38:31.012660 28300 net.cpp:408] loss -> loss
…
