…
I0528 08:09:02.259654 20317 solver.cpp:81] Creating training net from train_net file: ./Prototxt/experiment_21/RTSD/orig/trial_3/train.prototxt
I0528 08:09:02.260037 20317 net.cpp:58] Initializing net from parameters: 
state {
  phase: TRAIN
  level: 0
  stage: ""
}
layer {
  name: "data"
  type: "Data"
  top: "data"
  top: "label"
  include {
    phase: TRAIN
  }
  transform_param {
    scale: 0.0039215689
    mirror: false
    crop_size: 48
    mean_value: 119
    mean_value: 113
    mean_value: 113
  }
  data_param {
    source: "../local_data/lmdb/RTSD/orig/train/lmdb"
    batch_size: 1024
    backend: LMDB
  }
}
layer {
  name: "conv1"
  type: "Convolution"
  bottom: "data"
  top: "conv1"
  convolution_param {
    num_output: 100
    pad: 0
    kernel_size: 7
    group: 1
    stride: 1
    weight_filler {
      type: "xavier"
    }
  }
}
layer {
  name: "conv1_relu"
  type: "ReLU"
  bottom: "conv1"
  top: "conv1"
}
layer {
  name: "pool1"
  type: "Pooling"
  bottom: "conv1"
  top: "pool1"
  pooling_param {
    pool: MAX
    kernel_size: 2
    stride: 2
  }
}
layer {
  name: "conv2"
  type: "Convolution"
  bottom: "pool1"
  top: "conv2"
  convolution_param {
    num_output: 150
    pad: 0
    kernel_size: 4
    group: 1
    stride: 1
    weight_filler {
      type: "xavier"
    }
  }
}
layer {
  name: "conv2_relu"
  type: "ReLU"
  bottom: "conv2"
  top: "conv2"
}
layer {
  name: "pool2"
  type: "Pooling"
  bottom: "conv2"
  top: "pool2"
  pooling_param {
    pool: MAX
    kernel_size: 2
    stride: 2
  }
}
layer {
  name: "conv3"
  type: "Convolution"
  bottom: "pool2"
  top: "conv3"
  convolution_param {
    num_output: 250
    pad: 0
    kernel_size: 4
    group: 1
    stride: 1
    weight_filler {
      type: "xavier"
    }
  }
}
layer {
  name: "conv3_relu"
  type: "ReLU"
  bottom: "conv3"
  top: "conv3"
}
layer {
  name: "pool3"
  type: "Pooling"
  bottom: "conv3"
  top: "pool3"
  pooling_param {
    pool: MAX
    kernel_size: 2
    stride: 2
  }
}
layer {
  name: "fc4_300"
  type: "InnerProduct"
  bottom: "pool3"
  top: "fc4_300"
  inner_product_param {
    num_output: 300
    weight_filler {
      type: "xavier"
    }
  }
}
layer {
  name: "fc4_relu"
  type: "ReLU"
  bottom: "fc4_300"
  top: "fc4_300"
}
layer {
  name: "fc5_116"
  type: "InnerProduct"
  bottom: "fc4_300"
  top: "fc5_classes"
  inner_product_param {
    num_output: 116
    weight_filler {
      type: "xavier"
    }
  }
}
layer {
  name: "softmax"
  type: "Softmax"
  bottom: "fc5_classes"
  top: "softmax"
}
layer {
  name: "loss"
  type: "MultinomialLogisticLoss"
  bottom: "softmax"
  bottom: "label"
  top: "loss"
}
layer {
  name: "accuracy_1"
  type: "Accuracy"
  bottom: "fc5_classes"
  bottom: "label"
  top: "accuracy_1"
  accuracy_param {
    top_k: 1
  }
}
layer {
  name: "accuracy_5"
  type: "Accuracy"
  bottom: "fc5_classes"
  bottom: "label"
  top: "accuracy_5"
  accuracy_param {
    top_k: 5
  }
}
layer {
  name: "silence"
  type: "Silence"
  bottom: "accuracy_1"
  bottom: "accuracy_5"
}
I0528 08:09:02.260171 20317 layer_factory.hpp:77] Creating layer data
I0528 08:09:02.261214 20317 net.cpp:100] Creating Layer data
I0528 08:09:02.261246 20317 net.cpp:408] data -> data
I0528 08:09:02.261283 20317 net.cpp:408] data -> label
I0528 08:09:02.262009 20346 db_lmdb.cpp:35] Opened lmdb ../local_data/lmdb/RTSD/orig/train/lmdb
I0528 08:09:02.283612 20317 data_layer.cpp:41] output data size: 1024,3,48,48
I0528 08:09:02.334075 20317 net.cpp:150] Setting up data
I0528 08:09:02.334141 20317 net.cpp:157] Top shape: 1024 3 48 48 (7077888)
I0528 08:09:02.334159 20317 net.cpp:157] Top shape: 1024 (1024)
I0528 08:09:02.334194 20317 net.cpp:165] Memory required for data: 28315648
I0528 08:09:02.334209 20317 layer_factory.hpp:77] Creating layer label_data_1_split
I0528 08:09:02.334225 20317 net.cpp:100] Creating Layer label_data_1_split
I0528 08:09:02.334240 20317 net.cpp:434] label_data_1_split <- label
I0528 08:09:02.334256 20317 net.cpp:408] label_data_1_split -> label_data_1_split_0
I0528 08:09:02.334280 20317 net.cpp:408] label_data_1_split -> label_data_1_split_1
I0528 08:09:02.334295 20317 net.cpp:408] label_data_1_split -> label_data_1_split_2
I0528 08:09:02.334348 20317 net.cpp:150] Setting up label_data_1_split
I0528 08:09:02.334359 20317 net.cpp:157] Top shape: 1024 (1024)
I0528 08:09:02.334365 20317 net.cpp:157] Top shape: 1024 (1024)
I0528 08:09:02.334375 20317 net.cpp:157] Top shape: 1024 (1024)
I0528 08:09:02.334385 20317 net.cpp:165] Memory required for data: 28327936
I0528 08:09:02.334391 20317 layer_factory.hpp:77] Creating layer conv1
I0528 08:09:02.334419 20317 net.cpp:100] Creating Layer conv1
I0528 08:09:02.334427 20317 net.cpp:434] conv1 <- data
I0528 08:09:02.334436 20317 net.cpp:408] conv1 -> conv1
I0528 08:09:02.637272 20317 net.cpp:150] Setting up conv1
I0528 08:09:02.637315 20317 net.cpp:157] Top shape: 1024 100 42 42 (180633600)
I0528 08:09:02.637321 20317 net.cpp:165] Memory required for data: 750862336
I0528 08:09:02.637347 20317 layer_factory.hpp:77] Creating layer conv1_relu
I0528 08:09:02.637364 20317 net.cpp:100] Creating Layer conv1_relu
I0528 08:09:02.637377 20317 net.cpp:434] conv1_relu <- conv1
I0528 08:09:02.637383 20317 net.cpp:395] conv1_relu -> conv1 (in-place)
I0528 08:09:02.637531 20317 net.cpp:150] Setting up conv1_relu
I0528 08:09:02.637542 20317 net.cpp:157] Top shape: 1024 100 42 42 (180633600)
I0528 08:09:02.637547 20317 net.cpp:165] Memory required for data: 1473396736
I0528 08:09:02.637550 20317 layer_factory.hpp:77] Creating layer pool1
I0528 08:09:02.637560 20317 net.cpp:100] Creating Layer pool1
I0528 08:09:02.637565 20317 net.cpp:434] pool1 <- conv1
I0528 08:09:02.637572 20317 net.cpp:408] pool1 -> pool1
I0528 08:09:02.637609 20317 net.cpp:150] Setting up pool1
I0528 08:09:02.637617 20317 net.cpp:157] Top shape: 1024 100 21 21 (45158400)
I0528 08:09:02.637621 20317 net.cpp:165] Memory required for data: 1654030336
I0528 08:09:02.637625 20317 layer_factory.hpp:77] Creating layer conv2
I0528 08:09:02.637634 20317 net.cpp:100] Creating Layer conv2
I0528 08:09:02.637639 20317 net.cpp:434] conv2 <- pool1
I0528 08:09:02.637645 20317 net.cpp:408] conv2 -> conv2
I0528 08:09:02.642205 20317 net.cpp:150] Setting up conv2
I0528 08:09:02.642231 20317 net.cpp:157] Top shape: 1024 150 18 18 (49766400)
I0528 08:09:02.642237 20317 net.cpp:165] Memory required for data: 1853095936
I0528 08:09:02.642251 20317 layer_factory.hpp:77] Creating layer conv2_relu
I0528 08:09:02.642259 20317 net.cpp:100] Creating Layer conv2_relu
I0528 08:09:02.642266 20317 net.cpp:434] conv2_relu <- conv2
I0528 08:09:02.642273 20317 net.cpp:395] conv2_relu -> conv2 (in-place)
I0528 08:09:02.642463 20317 net.cpp:150] Setting up conv2_relu
I0528 08:09:02.642479 20317 net.cpp:157] Top shape: 1024 150 18 18 (49766400)
I0528 08:09:02.642485 20317 net.cpp:165] Memory required for data: 2052161536
I0528 08:09:02.642491 20317 layer_factory.hpp:77] Creating layer pool2
I0528 08:09:02.642500 20317 net.cpp:100] Creating Layer pool2
I0528 08:09:02.642510 20317 net.cpp:434] pool2 <- conv2
I0528 08:09:02.642518 20317 net.cpp:408] pool2 -> pool2
I0528 08:09:02.642568 20317 net.cpp:150] Setting up pool2
I0528 08:09:02.642582 20317 net.cpp:157] Top shape: 1024 150 9 9 (12441600)
I0528 08:09:02.642592 20317 net.cpp:165] Memory required for data: 2101927936
I0528 08:09:02.642598 20317 layer_factory.hpp:77] Creating layer conv3
I0528 08:09:02.642612 20317 net.cpp:100] Creating Layer conv3
I0528 08:09:02.642622 20317 net.cpp:434] conv3 <- pool2
I0528 08:09:02.642632 20317 net.cpp:408] conv3 -> conv3
I0528 08:09:02.652062 20317 net.cpp:150] Setting up conv3
I0528 08:09:02.652081 20317 net.cpp:157] Top shape: 1024 250 6 6 (9216000)
I0528 08:09:02.652087 20317 net.cpp:165] Memory required for data: 2138791936
I0528 08:09:02.652107 20317 layer_factory.hpp:77] Creating layer conv3_relu
I0528 08:09:02.652133 20317 net.cpp:100] Creating Layer conv3_relu
I0528 08:09:02.652143 20317 net.cpp:434] conv3_relu <- conv3
I0528 08:09:02.652150 20317 net.cpp:395] conv3_relu -> conv3 (in-place)
I0528 08:09:02.656157 20317 net.cpp:150] Setting up conv3_relu
I0528 08:09:02.656190 20317 net.cpp:157] Top shape: 1024 250 6 6 (9216000)
I0528 08:09:02.656198 20317 net.cpp:165] Memory required for data: 2175655936
I0528 08:09:02.656203 20317 layer_factory.hpp:77] Creating layer pool3
I0528 08:09:02.656220 20317 net.cpp:100] Creating Layer pool3
I0528 08:09:02.656232 20317 net.cpp:434] pool3 <- conv3
I0528 08:09:02.656253 20317 net.cpp:408] pool3 -> pool3
I0528 08:09:02.656302 20317 net.cpp:150] Setting up pool3
I0528 08:09:02.656314 20317 net.cpp:157] Top shape: 1024 250 3 3 (2304000)
I0528 08:09:02.656319 20317 net.cpp:165] Memory required for data: 2184871936
I0528 08:09:02.656328 20317 layer_factory.hpp:77] Creating layer fc4_300
I0528 08:09:02.656345 20317 net.cpp:100] Creating Layer fc4_300
I0528 08:09:02.656352 20317 net.cpp:434] fc4_300 <- pool3
I0528 08:09:02.656359 20317 net.cpp:408] fc4_300 -> fc4_300
I0528 08:09:02.661583 20317 net.cpp:150] Setting up fc4_300
I0528 08:09:02.661613 20317 net.cpp:157] Top shape: 1024 300 (307200)
I0528 08:09:02.661620 20317 net.cpp:165] Memory required for data: 2186100736
I0528 08:09:02.661630 20317 layer_factory.hpp:77] Creating layer fc4_relu
I0528 08:09:02.661639 20317 net.cpp:100] Creating Layer fc4_relu
I0528 08:09:02.661648 20317 net.cpp:434] fc4_relu <- fc4_300
I0528 08:09:02.661664 20317 net.cpp:395] fc4_relu -> fc4_300 (in-place)
I0528 08:09:02.661849 20317 net.cpp:150] Setting up fc4_relu
I0528 08:09:02.661870 20317 net.cpp:157] Top shape: 1024 300 (307200)
I0528 08:09:02.661876 20317 net.cpp:165] Memory required for data: 2187329536
I0528 08:09:02.661882 20317 layer_factory.hpp:77] Creating layer fc5_116
I0528 08:09:02.661900 20317 net.cpp:100] Creating Layer fc5_116
I0528 08:09:02.661909 20317 net.cpp:434] fc5_116 <- fc4_300
I0528 08:09:02.661917 20317 net.cpp:408] fc5_116 -> fc5_classes
I0528 08:09:02.665524 20317 net.cpp:150] Setting up fc5_116
I0528 08:09:02.665555 20317 net.cpp:157] Top shape: 1024 116 (118784)
I0528 08:09:02.665560 20317 net.cpp:165] Memory required for data: 2187804672
I0528 08:09:02.665577 20317 layer_factory.hpp:77] Creating layer fc5_classes_fc5_116_0_split
I0528 08:09:02.665585 20317 net.cpp:100] Creating Layer fc5_classes_fc5_116_0_split
I0528 08:09:02.665588 20317 net.cpp:434] fc5_classes_fc5_116_0_split <- fc5_classes
I0528 08:09:02.665594 20317 net.cpp:408] fc5_classes_fc5_116_0_split -> fc5_classes_fc5_116_0_split_0
I0528 08:09:02.665601 20317 net.cpp:408] fc5_classes_fc5_116_0_split -> fc5_classes_fc5_116_0_split_1
I0528 08:09:02.665616 20317 net.cpp:408] fc5_classes_fc5_116_0_split -> fc5_classes_fc5_116_0_split_2
I0528 08:09:02.665658 20317 net.cpp:150] Setting up fc5_classes_fc5_116_0_split
I0528 08:09:02.665666 20317 net.cpp:157] Top shape: 1024 116 (118784)
I0528 08:09:02.665670 20317 net.cpp:157] Top shape: 1024 116 (118784)
I0528 08:09:02.665674 20317 net.cpp:157] Top shape: 1024 116 (118784)
I0528 08:09:02.665678 20317 net.cpp:165] Memory required for data: 2189230080
I0528 08:09:02.665681 20317 layer_factory.hpp:77] Creating layer softmax
I0528 08:09:02.665688 20317 net.cpp:100] Creating Layer softmax
I0528 08:09:02.665691 20317 net.cpp:434] softmax <- fc5_classes_fc5_116_0_split_0
I0528 08:09:02.665696 20317 net.cpp:408] softmax -> softmax
I0528 08:09:02.665886 20317 net.cpp:150] Setting up softmax
I0528 08:09:02.665896 20317 net.cpp:157] Top shape: 1024 116 (118784)
I0528 08:09:02.665900 20317 net.cpp:165] Memory required for data: 2189705216
I0528 08:09:02.665904 20317 layer_factory.hpp:77] Creating layer loss
I0528 08:09:02.665920 20317 net.cpp:100] Creating Layer loss
I0528 08:09:02.665940 20317 net.cpp:434] loss <- softmax
I0528 08:09:02.665946 20317 net.cpp:434] loss <- label_data_1_split_0
I0528 08:09:02.665951 20317 net.cpp:408] loss -> loss
…
