…
I0417 19:19:18.024415 16397 solver.cpp:93] Creating training net from train_net file: ./Prototxt/experiment_11/rtsd-r1/histeq/trial_2/train.prototxt
I0417 19:19:18.024901 16397 net.cpp:58] Initializing net from parameters: 
state {
  phase: TRAIN
  level: 0
  stage: ""
}
layer {
  name: "data"
  type: "Data"
  top: "data"
  top: "label"
  include {
    phase: TRAIN
  }
  transform_param {
    scale: 0.0039215689
    mirror: false
    crop_size: 48
    mean_value: 130
    mean_value: 123
    mean_value: 137
  }
  data_param {
    source: "../local_data/lmdb/rtsd-r1/histeq/train/lmdb"
    batch_size: 1024
    backend: LMDB
  }
}
layer {
  name: "conv1"
  type: "Convolution"
  bottom: "data"
  top: "conv1"
  convolution_param {
    num_output: 100
    pad: 0
    kernel_size: 7
    group: 1
    stride: 1
    weight_filler {
      type: "xavier"
    }
  }
}
layer {
  name: "conv1_prescale"
  type: "Scale"
  bottom: "conv1"
  top: "conv1"
  param {
    lr_mult: 0
    decay_mult: 0
  }
  scale_param {
    filler {
      value: 0.6666
    }
    bias_term: false
  }
}
layer {
  name: "conv1_sTanH"
  type: "TanH"
  bottom: "conv1"
  top: "conv1"
}
layer {
  name: "conv1_postscale"
  type: "Scale"
  bottom: "conv1"
  top: "conv1"
  param {
    lr_mult: 0
    decay_mult: 0
  }
  scale_param {
    filler {
      value: 1.7159
    }
    bias_term: false
  }
}
layer {
  name: "pool1"
  type: "Pooling"
  bottom: "conv1"
  top: "pool1"
  pooling_param {
    pool: MAX
    kernel_size: 2
    stride: 2
  }
}
layer {
  name: "conv2"
  type: "Convolution"
  bottom: "pool1"
  top: "conv2"
  convolution_param {
    num_output: 150
    pad: 0
    kernel_size: 4
    group: 1
    stride: 1
    weight_filler {
      type: "xavier"
    }
  }
}
layer {
  name: "conv2_prescale"
  type: "Scale"
  bottom: "conv2"
  top: "conv2"
  param {
    lr_mult: 0
    decay_mult: 0
  }
  scale_param {
    filler {
      value: 0.6666
    }
    bias_term: false
  }
}
layer {
  name: "conv2_sTanH"
  type: "TanH"
  bottom: "conv2"
  top: "conv2"
}
layer {
  name: "conv2_postscale"
  type: "Scale"
  bottom: "conv2"
  top: "conv2"
  param {
    lr_mult: 0
    decay_mult: 0
  }
  scale_param {
    filler {
      value: 1.7159
    }
    bias_term: false
  }
}
layer {
  name: "pool2"
  type: "Pooling"
  bottom: "conv2"
  top: "pool2"
  pooling_param {
    pool: MAX
    kernel_size: 2
    stride: 2
  }
}
layer {
  name: "conv3"
  type: "Convolution"
  bottom: "pool2"
  top: "conv3"
  convolution_param {
    num_output: 250
    pad: 0
    kernel_size: 4
    group: 1
    stride: 1
    weight_filler {
      type: "xavier"
    }
  }
}
layer {
  name: "conv3_prescale"
  type: "Scale"
  bottom: "conv3"
  top: "conv3"
  param {
    lr_mult: 0
    decay_mult: 0
  }
  scale_param {
    filler {
      value: 0.6666
    }
    bias_term: false
  }
}
layer {
  name: "conv3_sTanH"
  type: "TanH"
  bottom: "conv3"
  top: "conv3"
}
layer {
  name: "conv3_postscale"
  type: "Scale"
  bottom: "conv3"
  top: "conv3"
  param {
    lr_mult: 0
    decay_mult: 0
  }
  scale_param {
    filler {
      value: 1.7159
    }
    bias_term: false
  }
}
layer {
  name: "pool3"
  type: "Pooling"
  bottom: "conv3"
  top: "pool3"
  pooling_param {
    pool: MAX
    kernel_size: 2
    stride: 2
  }
}
layer {
  name: "fc4_300"
  type: "InnerProduct"
  bottom: "pool3"
  top: "fc4_300"
  inner_product_param {
    num_output: 300
    weight_filler {
      type: "xavier"
    }
  }
}
layer {
  name: "fc4_prescale"
  type: "Scale"
  bottom: "fc4_300"
  top: "fc4_300"
  param {
    lr_mult: 0
    decay_mult: 0
  }
  scale_param {
    filler {
      value: 0.6666
    }
    bias_term: false
  }
}
layer {
  name: "fc4_sTanH"
  type: "TanH"
  bottom: "fc4_300"
  top: "fc4_300"
}
layer {
  name: "fc4_postscale"
  type: "Scale"
  bottom: "fc4_300"
  top: "fc4_300"
  param {
    lr_mult: 0
    decay_mult: 0
  }
  scale_param {
    filler {
      value: 1.7159
    }
    bias_term: false
  }
}
layer {
  name: "fc5_67"
  type: "InnerProduct"
  bottom: "fc4_300"
  top: "fc5_classes"
  inner_product_param {
    num_output: 67
    weight_filler {
      type: "xavier"
    }
  }
}
layer {
  name: "softmax"
  type: "Softmax"
  bottom: "fc5_classes"
  top: "softmax"
}
layer {
  name: "loss"
  type: "MultinomialLogisticLoss"
  bottom: "softmax"
  bottom: "label"
  top: "loss"
}
layer {
  name: "accuracy_1"
  type: "Accuracy"
  bottom: "fc5_classes"
  bottom: "label"
  top: "accuracy_1"
  accuracy_param {
    top_k: 1
  }
}
layer {
  name: "accuracy_5"
  type: "Accuracy"
  bottom: "fc5_classes"
  bottom: "label"
  top: "accuracy_5"
  accuracy_param {
    top_k: 5
  }
}
layer {
  name: "silence"
  type: "Silence"
  bottom: "accuracy_1"
  bottom: "accuracy_5"
}
I0417 19:19:18.025053 16397 layer_factory.hpp:77] Creating layer data
I0417 19:19:18.026175 16397 net.cpp:100] Creating Layer data
I0417 19:19:18.026190 16397 net.cpp:408] data -> data
I0417 19:19:18.026213 16397 net.cpp:408] data -> label
I0417 19:19:18.042544 16509 db_lmdb.cpp:35] Opened lmdb ../local_data/lmdb/rtsd-r1/histeq/train/lmdb
I0417 19:19:18.060145 16397 data_layer.cpp:41] output data size: 1024,3,48,48
I0417 19:19:18.115545 16397 net.cpp:150] Setting up data
I0417 19:19:18.115576 16397 net.cpp:157] Top shape: 1024 3 48 48 (7077888)
I0417 19:19:18.115581 16397 net.cpp:157] Top shape: 1024 (1024)
I0417 19:19:18.115584 16397 net.cpp:165] Memory required for data: 28315648
I0417 19:19:18.115595 16397 layer_factory.hpp:77] Creating layer label_data_1_split
I0417 19:19:18.115609 16397 net.cpp:100] Creating Layer label_data_1_split
I0417 19:19:18.115617 16397 net.cpp:434] label_data_1_split <- label
I0417 19:19:18.115629 16397 net.cpp:408] label_data_1_split -> label_data_1_split_0
I0417 19:19:18.115641 16397 net.cpp:408] label_data_1_split -> label_data_1_split_1
I0417 19:19:18.115649 16397 net.cpp:408] label_data_1_split -> label_data_1_split_2
I0417 19:19:18.115710 16397 net.cpp:150] Setting up label_data_1_split
I0417 19:19:18.115718 16397 net.cpp:157] Top shape: 1024 (1024)
I0417 19:19:18.115722 16397 net.cpp:157] Top shape: 1024 (1024)
I0417 19:19:18.115725 16397 net.cpp:157] Top shape: 1024 (1024)
I0417 19:19:18.115728 16397 net.cpp:165] Memory required for data: 28327936
I0417 19:19:18.115731 16397 layer_factory.hpp:77] Creating layer conv1
I0417 19:19:18.115747 16397 net.cpp:100] Creating Layer conv1
I0417 19:19:18.115752 16397 net.cpp:434] conv1 <- data
I0417 19:19:18.115758 16397 net.cpp:408] conv1 -> conv1
I0417 19:19:18.485597 16397 net.cpp:150] Setting up conv1
I0417 19:19:18.485626 16397 net.cpp:157] Top shape: 1024 100 42 42 (180633600)
I0417 19:19:18.485630 16397 net.cpp:165] Memory required for data: 750862336
I0417 19:19:18.485652 16397 layer_factory.hpp:77] Creating layer conv1_prescale
I0417 19:19:18.485666 16397 net.cpp:100] Creating Layer conv1_prescale
I0417 19:19:18.485671 16397 net.cpp:434] conv1_prescale <- conv1
I0417 19:19:18.485677 16397 net.cpp:395] conv1_prescale -> conv1 (in-place)
I0417 19:19:18.485782 16397 net.cpp:150] Setting up conv1_prescale
I0417 19:19:18.485791 16397 net.cpp:157] Top shape: 1024 100 42 42 (180633600)
I0417 19:19:18.485795 16397 net.cpp:165] Memory required for data: 1473396736
I0417 19:19:18.485801 16397 layer_factory.hpp:77] Creating layer conv1_sTanH
I0417 19:19:18.485810 16397 net.cpp:100] Creating Layer conv1_sTanH
I0417 19:19:18.485815 16397 net.cpp:434] conv1_sTanH <- conv1
I0417 19:19:18.485818 16397 net.cpp:395] conv1_sTanH -> conv1 (in-place)
I0417 19:19:18.486012 16397 net.cpp:150] Setting up conv1_sTanH
I0417 19:19:18.486042 16397 net.cpp:157] Top shape: 1024 100 42 42 (180633600)
I0417 19:19:18.486047 16397 net.cpp:165] Memory required for data: 2195931136
I0417 19:19:18.486050 16397 layer_factory.hpp:77] Creating layer conv1_postscale
I0417 19:19:18.486057 16397 net.cpp:100] Creating Layer conv1_postscale
I0417 19:19:18.486060 16397 net.cpp:434] conv1_postscale <- conv1
I0417 19:19:18.486065 16397 net.cpp:395] conv1_postscale -> conv1 (in-place)
I0417 19:19:18.486160 16397 net.cpp:150] Setting up conv1_postscale
I0417 19:19:18.486167 16397 net.cpp:157] Top shape: 1024 100 42 42 (180633600)
I0417 19:19:18.486171 16397 net.cpp:165] Memory required for data: 2918465536
I0417 19:19:18.486176 16397 layer_factory.hpp:77] Creating layer pool1
I0417 19:19:18.486182 16397 net.cpp:100] Creating Layer pool1
I0417 19:19:18.486186 16397 net.cpp:434] pool1 <- conv1
I0417 19:19:18.486191 16397 net.cpp:408] pool1 -> pool1
I0417 19:19:18.486237 16397 net.cpp:150] Setting up pool1
I0417 19:19:18.486244 16397 net.cpp:157] Top shape: 1024 100 21 21 (45158400)
I0417 19:19:18.486248 16397 net.cpp:165] Memory required for data: 3099099136
I0417 19:19:18.486250 16397 layer_factory.hpp:77] Creating layer conv2
I0417 19:19:18.486259 16397 net.cpp:100] Creating Layer conv2
I0417 19:19:18.486264 16397 net.cpp:434] conv2 <- pool1
I0417 19:19:18.486269 16397 net.cpp:408] conv2 -> conv2
I0417 19:19:18.504109 16397 net.cpp:150] Setting up conv2
I0417 19:19:18.504132 16397 net.cpp:157] Top shape: 1024 150 18 18 (49766400)
I0417 19:19:18.504135 16397 net.cpp:165] Memory required for data: 3298164736
I0417 19:19:18.504146 16397 layer_factory.hpp:77] Creating layer conv2_prescale
I0417 19:19:18.504160 16397 net.cpp:100] Creating Layer conv2_prescale
I0417 19:19:18.504165 16397 net.cpp:434] conv2_prescale <- conv2
I0417 19:19:18.504173 16397 net.cpp:395] conv2_prescale -> conv2 (in-place)
I0417 19:19:18.504281 16397 net.cpp:150] Setting up conv2_prescale
I0417 19:19:18.504289 16397 net.cpp:157] Top shape: 1024 150 18 18 (49766400)
I0417 19:19:18.504292 16397 net.cpp:165] Memory required for data: 3497230336
I0417 19:19:18.504297 16397 layer_factory.hpp:77] Creating layer conv2_sTanH
I0417 19:19:18.504304 16397 net.cpp:100] Creating Layer conv2_sTanH
I0417 19:19:18.504309 16397 net.cpp:434] conv2_sTanH <- conv2
I0417 19:19:18.504313 16397 net.cpp:395] conv2_sTanH -> conv2 (in-place)
I0417 19:19:18.505376 16397 net.cpp:150] Setting up conv2_sTanH
I0417 19:19:18.505391 16397 net.cpp:157] Top shape: 1024 150 18 18 (49766400)
I0417 19:19:18.505394 16397 net.cpp:165] Memory required for data: 3696295936
I0417 19:19:18.505398 16397 layer_factory.hpp:77] Creating layer conv2_postscale
I0417 19:19:18.505405 16397 net.cpp:100] Creating Layer conv2_postscale
I0417 19:19:18.505409 16397 net.cpp:434] conv2_postscale <- conv2
I0417 19:19:18.505414 16397 net.cpp:395] conv2_postscale -> conv2 (in-place)
I0417 19:19:18.505506 16397 net.cpp:150] Setting up conv2_postscale
I0417 19:19:18.505513 16397 net.cpp:157] Top shape: 1024 150 18 18 (49766400)
I0417 19:19:18.505517 16397 net.cpp:165] Memory required for data: 3895361536
I0417 19:19:18.505522 16397 layer_factory.hpp:77] Creating layer pool2
I0417 19:19:18.505528 16397 net.cpp:100] Creating Layer pool2
I0417 19:19:18.505533 16397 net.cpp:434] pool2 <- conv2
I0417 19:19:18.505537 16397 net.cpp:408] pool2 -> pool2
I0417 19:19:18.505584 16397 net.cpp:150] Setting up pool2
I0417 19:19:18.505592 16397 net.cpp:157] Top shape: 1024 150 9 9 (12441600)
I0417 19:19:18.505595 16397 net.cpp:165] Memory required for data: 3945127936
I0417 19:19:18.505599 16397 layer_factory.hpp:77] Creating layer conv3
I0417 19:19:18.505607 16397 net.cpp:100] Creating Layer conv3
I0417 19:19:18.505612 16397 net.cpp:434] conv3 <- pool2
I0417 19:19:18.505617 16397 net.cpp:408] conv3 -> conv3
I0417 19:19:18.511232 16397 net.cpp:150] Setting up conv3
I0417 19:19:18.511251 16397 net.cpp:157] Top shape: 1024 250 6 6 (9216000)
I0417 19:19:18.511255 16397 net.cpp:165] Memory required for data: 3981991936
I0417 19:19:18.511265 16397 layer_factory.hpp:77] Creating layer conv3_prescale
I0417 19:19:18.511291 16397 net.cpp:100] Creating Layer conv3_prescale
I0417 19:19:18.511296 16397 net.cpp:434] conv3_prescale <- conv3
I0417 19:19:18.511302 16397 net.cpp:395] conv3_prescale -> conv3 (in-place)
I0417 19:19:18.511400 16397 net.cpp:150] Setting up conv3_prescale
I0417 19:19:18.511409 16397 net.cpp:157] Top shape: 1024 250 6 6 (9216000)
I0417 19:19:18.511412 16397 net.cpp:165] Memory required for data: 4018855936
I0417 19:19:18.511416 16397 layer_factory.hpp:77] Creating layer conv3_sTanH
I0417 19:19:18.511422 16397 net.cpp:100] Creating Layer conv3_sTanH
I0417 19:19:18.511426 16397 net.cpp:434] conv3_sTanH <- conv3
I0417 19:19:18.511433 16397 net.cpp:395] conv3_sTanH -> conv3 (in-place)
I0417 19:19:18.514902 16397 net.cpp:150] Setting up conv3_sTanH
I0417 19:19:18.514920 16397 net.cpp:157] Top shape: 1024 250 6 6 (9216000)
I0417 19:19:18.514925 16397 net.cpp:165] Memory required for data: 4055719936
I0417 19:19:18.514928 16397 layer_factory.hpp:77] Creating layer conv3_postscale
I0417 19:19:18.514937 16397 net.cpp:100] Creating Layer conv3_postscale
I0417 19:19:18.514942 16397 net.cpp:434] conv3_postscale <- conv3
I0417 19:19:18.514948 16397 net.cpp:395] conv3_postscale -> conv3 (in-place)
I0417 19:19:18.515060 16397 net.cpp:150] Setting up conv3_postscale
I0417 19:19:18.515069 16397 net.cpp:157] Top shape: 1024 250 6 6 (9216000)
I0417 19:19:18.515072 16397 net.cpp:165] Memory required for data: 4092583936
I0417 19:19:18.515077 16397 layer_factory.hpp:77] Creating layer pool3
I0417 19:19:18.515090 16397 net.cpp:100] Creating Layer pool3
I0417 19:19:18.515095 16397 net.cpp:434] pool3 <- conv3
I0417 19:19:18.515100 16397 net.cpp:408] pool3 -> pool3
I0417 19:19:18.515143 16397 net.cpp:150] Setting up pool3
I0417 19:19:18.515151 16397 net.cpp:157] Top shape: 1024 250 3 3 (2304000)
I0417 19:19:18.515153 16397 net.cpp:165] Memory required for data: 4101799936
I0417 19:19:18.515156 16397 layer_factory.hpp:77] Creating layer fc4_300
I0417 19:19:18.515163 16397 net.cpp:100] Creating Layer fc4_300
I0417 19:19:18.515169 16397 net.cpp:434] fc4_300 <- pool3
I0417 19:19:18.515174 16397 net.cpp:408] fc4_300 -> fc4_300
I0417 19:19:18.520714 16397 net.cpp:150] Setting up fc4_300
I0417 19:19:18.520731 16397 net.cpp:157] Top shape: 1024 300 (307200)
I0417 19:19:18.520735 16397 net.cpp:165] Memory required for data: 4103028736
I0417 19:19:18.520741 16397 layer_factory.hpp:77] Creating layer fc4_prescale
I0417 19:19:18.520751 16397 net.cpp:100] Creating Layer fc4_prescale
I0417 19:19:18.520756 16397 net.cpp:434] fc4_prescale <- fc4_300
I0417 19:19:18.520763 16397 net.cpp:395] fc4_prescale -> fc4_300 (in-place)
I0417 19:19:18.520854 16397 net.cpp:150] Setting up fc4_prescale
I0417 19:19:18.520862 16397 net.cpp:157] Top shape: 1024 300 (307200)
I0417 19:19:18.520865 16397 net.cpp:165] Memory required for data: 4104257536
I0417 19:19:18.520869 16397 layer_factory.hpp:77] Creating layer fc4_sTanH
I0417 19:19:18.520877 16397 net.cpp:100] Creating Layer fc4_sTanH
I0417 19:19:18.520882 16397 net.cpp:434] fc4_sTanH <- fc4_300
I0417 19:19:18.520886 16397 net.cpp:395] fc4_sTanH -> fc4_300 (in-place)
I0417 19:19:18.521077 16397 net.cpp:150] Setting up fc4_sTanH
I0417 19:19:18.521088 16397 net.cpp:157] Top shape: 1024 300 (307200)
I0417 19:19:18.521092 16397 net.cpp:165] Memory required for data: 4105486336
I0417 19:19:18.521095 16397 layer_factory.hpp:77] Creating layer fc4_postscale
I0417 19:19:18.521103 16397 net.cpp:100] Creating Layer fc4_postscale
I0417 19:19:18.521107 16397 net.cpp:434] fc4_postscale <- fc4_300
I0417 19:19:18.521114 16397 net.cpp:395] fc4_postscale -> fc4_300 (in-place)
I0417 19:19:18.521214 16397 net.cpp:150] Setting up fc4_postscale
I0417 19:19:18.521221 16397 net.cpp:157] Top shape: 1024 300 (307200)
I0417 19:19:18.521224 16397 net.cpp:165] Memory required for data: 4106715136
I0417 19:19:18.521229 16397 layer_factory.hpp:77] Creating layer fc5_67
I0417 19:19:18.521237 16397 net.cpp:100] Creating Layer fc5_67
I0417 19:19:18.521242 16397 net.cpp:434] fc5_67 <- fc4_300
I0417 19:19:18.521248 16397 net.cpp:408] fc5_67 -> fc5_classes
I0417 19:19:18.523119 16397 net.cpp:150] Setting up fc5_67
I0417 19:19:18.523134 16397 net.cpp:157] Top shape: 1024 67 (68608)
I0417 19:19:18.523139 16397 net.cpp:165] Memory required for data: 4106989568
I0417 19:19:18.523150 16397 layer_factory.hpp:77] Creating layer fc5_classes_fc5_67_0_split
I0417 19:19:18.523159 16397 net.cpp:100] Creating Layer fc5_classes_fc5_67_0_split
I0417 19:19:18.523164 16397 net.cpp:434] fc5_classes_fc5_67_0_split <- fc5_classes
I0417 19:19:18.523170 16397 net.cpp:408] fc5_classes_fc5_67_0_split -> fc5_classes_fc5_67_0_split_0
I0417 19:19:18.523178 16397 net.cpp:408] fc5_classes_fc5_67_0_split -> fc5_classes_fc5_67_0_split_1
I0417 19:19:18.523186 16397 net.cpp:408] fc5_classes_fc5_67_0_split -> fc5_classes_fc5_67_0_split_2
I0417 19:19:18.523238 16397 net.cpp:150] Setting up fc5_classes_fc5_67_0_split
I0417 19:19:18.523246 16397 net.cpp:157] Top shape: 1024 67 (68608)
I0417 19:19:18.523249 16397 net.cpp:157] Top shape: 1024 67 (68608)
I0417 19:19:18.523252 16397 net.cpp:157] Top shape: 1024 67 (68608)
I0417 19:19:18.523254 16397 net.cpp:165] Memory required for data: 4107812864
I0417 19:19:18.523258 16397 layer_factory.hpp:77] Creating layer softmax
I0417 19:19:18.523264 16397 net.cpp:100] Creating Layer softmax
I0417 19:19:18.523267 16397 net.cpp:434] softmax <- fc5_classes_fc5_67_0_split_0
I0417 19:19:18.523273 16397 net.cpp:408] softmax -> softmax
I0417 19:19:18.523535 16397 net.cpp:150] Setting up softmax
I0417 19:19:18.523547 16397 net.cpp:157] Top shape: 1024 67 (68608)
I0417 19:19:18.523551 16397 net.cpp:165] Memory required for data: 4108087296
I0417 19:19:18.523555 16397 layer_factory.hpp:77] Creating layer loss
I0417 19:19:18.523562 16397 net.cpp:100] Creating Layer loss
I0417 19:19:18.523567 16397 net.cpp:434] loss <- softmax
I0417 19:19:18.523571 16397 net.cpp:434] loss <- label_data_1_split_0
I0417 19:19:18.523576 16397 net.cpp:408] loss -> loss
…
