…
I0414 06:11:09.223103 22368 solver.cpp:93] Creating training net from train_net file: ./Prototxt/experiment_11/rtsd-r1/histeq/trial_2/train.prototxt
I0414 06:11:09.223577 22368 net.cpp:58] Initializing net from parameters: 
state {
  phase: TRAIN
  level: 0
  stage: ""
}
layer {
  name: "data"
  type: "Data"
  top: "data"
  top: "label"
  include {
    phase: TRAIN
  }
  transform_param {
    scale: 0.0039215689
    mirror: false
    crop_size: 48
    mean_value: 130
    mean_value: 123
    mean_value: 137
  }
  data_param {
    source: "../local_data/lmdb/rtsd-r1/histeq/train/lmdb"
    batch_size: 1024
    backend: LMDB
  }
}
layer {
  name: "conv1"
  type: "Convolution"
  bottom: "data"
  top: "conv1"
  convolution_param {
    num_output: 100
    pad: 0
    kernel_size: 7
    group: 1
    stride: 1
    weight_filler {
      type: "xavier"
    }
  }
}
layer {
  name: "conv1_prescale"
  type: "Scale"
  bottom: "conv1"
  top: "conv1"
  param {
    lr_mult: 0
    decay_mult: 0
  }
  scale_param {
    filler {
      value: 0.6666
    }
    bias_term: false
  }
}
layer {
  name: "conv1_sTanH"
  type: "TanH"
  bottom: "conv1"
  top: "conv1"
}
layer {
  name: "conv1_postscale"
  type: "Scale"
  bottom: "conv1"
  top: "conv1"
  param {
    lr_mult: 0
    decay_mult: 0
  }
  scale_param {
    filler {
      value: 1.7159
    }
    bias_term: false
  }
}
layer {
  name: "pool1"
  type: "Pooling"
  bottom: "conv1"
  top: "pool1"
  pooling_param {
    pool: MAX
    kernel_size: 2
    stride: 2
  }
}
layer {
  name: "conv2"
  type: "Convolution"
  bottom: "pool1"
  top: "conv2"
  convolution_param {
    num_output: 150
    pad: 0
    kernel_size: 4
    group: 1
    stride: 1
    weight_filler {
      type: "xavier"
    }
  }
}
layer {
  name: "conv2_prescale"
  type: "Scale"
  bottom: "conv2"
  top: "conv2"
  param {
    lr_mult: 0
    decay_mult: 0
  }
  scale_param {
    filler {
      value: 0.6666
    }
    bias_term: false
  }
}
layer {
  name: "conv2_sTanH"
  type: "TanH"
  bottom: "conv2"
  top: "conv2"
}
layer {
  name: "conv2_postscale"
  type: "Scale"
  bottom: "conv2"
  top: "conv2"
  param {
    lr_mult: 0
    decay_mult: 0
  }
  scale_param {
    filler {
      value: 1.7159
    }
    bias_term: false
  }
}
layer {
  name: "pool2"
  type: "Pooling"
  bottom: "conv2"
  top: "pool2"
  pooling_param {
    pool: MAX
    kernel_size: 2
    stride: 2
  }
}
layer {
  name: "conv3"
  type: "Convolution"
  bottom: "pool2"
  top: "conv3"
  convolution_param {
    num_output: 250
    pad: 0
    kernel_size: 4
    group: 1
    stride: 1
    weight_filler {
      type: "xavier"
    }
  }
}
layer {
  name: "conv3_prescale"
  type: "Scale"
  bottom: "conv3"
  top: "conv3"
  param {
    lr_mult: 0
    decay_mult: 0
  }
  scale_param {
    filler {
      value: 0.6666
    }
    bias_term: false
  }
}
layer {
  name: "conv3_sTanH"
  type: "TanH"
  bottom: "conv3"
  top: "conv3"
}
layer {
  name: "conv3_postscale"
  type: "Scale"
  bottom: "conv3"
  top: "conv3"
  param {
    lr_mult: 0
    decay_mult: 0
  }
  scale_param {
    filler {
      value: 1.7159
    }
    bias_term: false
  }
}
layer {
  name: "pool3"
  type: "Pooling"
  bottom: "conv3"
  top: "pool3"
  pooling_param {
    pool: MAX
    kernel_size: 2
    stride: 2
  }
}
layer {
  name: "fc4_300"
  type: "InnerProduct"
  bottom: "pool3"
  top: "fc4_300"
  inner_product_param {
    num_output: 300
    weight_filler {
      type: "xavier"
    }
  }
}
layer {
  name: "fc4_prescale"
  type: "Scale"
  bottom: "fc4_300"
  top: "fc4_300"
  param {
    lr_mult: 0
    decay_mult: 0
  }
  scale_param {
    filler {
      value: 0.6666
    }
    bias_term: false
  }
}
layer {
  name: "fc4_sTanH"
  type: "TanH"
  bottom: "fc4_300"
  top: "fc4_300"
}
layer {
  name: "fc4_postscale"
  type: "Scale"
  bottom: "fc4_300"
  top: "fc4_300"
  param {
    lr_mult: 0
    decay_mult: 0
  }
  scale_param {
    filler {
      value: 1.7159
    }
    bias_term: false
  }
}
layer {
  name: "fc5_67"
  type: "InnerProduct"
  bottom: "fc4_300"
  top: "fc5_classes"
  inner_product_param {
    num_output: 67
    weight_filler {
      type: "xavier"
    }
  }
}
layer {
  name: "softmax"
  type: "Softmax"
  bottom: "fc5_classes"
  top: "softmax"
}
layer {
  name: "loss"
  type: "MultinomialLogisticLoss"
  bottom: "softmax"
  bottom: "label"
  top: "loss"
}
layer {
  name: "accuracy_1"
  type: "Accuracy"
  bottom: "fc5_classes"
  bottom: "label"
  top: "accuracy_1"
  accuracy_param {
    top_k: 1
  }
}
layer {
  name: "accuracy_5"
  type: "Accuracy"
  bottom: "fc5_classes"
  bottom: "label"
  top: "accuracy_5"
  accuracy_param {
    top_k: 5
  }
}
layer {
  name: "silence"
  type: "Silence"
  bottom: "accuracy_1"
  bottom: "accuracy_5"
}
I0414 06:11:09.223781 22368 layer_factory.hpp:77] Creating layer data
I0414 06:11:09.224932 22368 net.cpp:100] Creating Layer data
I0414 06:11:09.224953 22368 net.cpp:408] data -> data
I0414 06:11:09.224984 22368 net.cpp:408] data -> label
I0414 06:11:09.249241 22470 db_lmdb.cpp:35] Opened lmdb ../local_data/lmdb/rtsd-r1/histeq/train/lmdb
I0414 06:11:09.268595 22368 data_layer.cpp:41] output data size: 1024,3,48,48
I0414 06:11:09.336596 22368 net.cpp:150] Setting up data
I0414 06:11:09.336628 22368 net.cpp:157] Top shape: 1024 3 48 48 (7077888)
I0414 06:11:09.336635 22368 net.cpp:157] Top shape: 1024 (1024)
I0414 06:11:09.336639 22368 net.cpp:165] Memory required for data: 28315648
I0414 06:11:09.336653 22368 layer_factory.hpp:77] Creating layer label_data_1_split
I0414 06:11:09.336671 22368 net.cpp:100] Creating Layer label_data_1_split
I0414 06:11:09.336679 22368 net.cpp:434] label_data_1_split <- label
I0414 06:11:09.336695 22368 net.cpp:408] label_data_1_split -> label_data_1_split_0
I0414 06:11:09.336710 22368 net.cpp:408] label_data_1_split -> label_data_1_split_1
I0414 06:11:09.336720 22368 net.cpp:408] label_data_1_split -> label_data_1_split_2
I0414 06:11:09.336793 22368 net.cpp:150] Setting up label_data_1_split
I0414 06:11:09.336802 22368 net.cpp:157] Top shape: 1024 (1024)
I0414 06:11:09.336808 22368 net.cpp:157] Top shape: 1024 (1024)
I0414 06:11:09.336813 22368 net.cpp:157] Top shape: 1024 (1024)
I0414 06:11:09.336817 22368 net.cpp:165] Memory required for data: 28327936
I0414 06:11:09.336822 22368 layer_factory.hpp:77] Creating layer conv1
I0414 06:11:09.336839 22368 net.cpp:100] Creating Layer conv1
I0414 06:11:09.336845 22368 net.cpp:434] conv1 <- data
I0414 06:11:09.336853 22368 net.cpp:408] conv1 -> conv1
I0414 06:11:09.713245 22368 net.cpp:150] Setting up conv1
I0414 06:11:09.713273 22368 net.cpp:157] Top shape: 1024 100 42 42 (180633600)
I0414 06:11:09.713276 22368 net.cpp:165] Memory required for data: 750862336
I0414 06:11:09.713299 22368 layer_factory.hpp:77] Creating layer conv1_prescale
I0414 06:11:09.713312 22368 net.cpp:100] Creating Layer conv1_prescale
I0414 06:11:09.713318 22368 net.cpp:434] conv1_prescale <- conv1
I0414 06:11:09.713325 22368 net.cpp:395] conv1_prescale -> conv1 (in-place)
I0414 06:11:09.713429 22368 net.cpp:150] Setting up conv1_prescale
I0414 06:11:09.713438 22368 net.cpp:157] Top shape: 1024 100 42 42 (180633600)
I0414 06:11:09.713441 22368 net.cpp:165] Memory required for data: 1473396736
I0414 06:11:09.713449 22368 layer_factory.hpp:77] Creating layer conv1_sTanH
I0414 06:11:09.713457 22368 net.cpp:100] Creating Layer conv1_sTanH
I0414 06:11:09.713460 22368 net.cpp:434] conv1_sTanH <- conv1
I0414 06:11:09.713465 22368 net.cpp:395] conv1_sTanH -> conv1 (in-place)
I0414 06:11:09.713654 22368 net.cpp:150] Setting up conv1_sTanH
I0414 06:11:09.713690 22368 net.cpp:157] Top shape: 1024 100 42 42 (180633600)
I0414 06:11:09.713693 22368 net.cpp:165] Memory required for data: 2195931136
I0414 06:11:09.713697 22368 layer_factory.hpp:77] Creating layer conv1_postscale
I0414 06:11:09.713704 22368 net.cpp:100] Creating Layer conv1_postscale
I0414 06:11:09.713708 22368 net.cpp:434] conv1_postscale <- conv1
I0414 06:11:09.713713 22368 net.cpp:395] conv1_postscale -> conv1 (in-place)
I0414 06:11:09.713806 22368 net.cpp:150] Setting up conv1_postscale
I0414 06:11:09.713815 22368 net.cpp:157] Top shape: 1024 100 42 42 (180633600)
I0414 06:11:09.713819 22368 net.cpp:165] Memory required for data: 2918465536
I0414 06:11:09.713824 22368 layer_factory.hpp:77] Creating layer pool1
I0414 06:11:09.713830 22368 net.cpp:100] Creating Layer pool1
I0414 06:11:09.713835 22368 net.cpp:434] pool1 <- conv1
I0414 06:11:09.713840 22368 net.cpp:408] pool1 -> pool1
I0414 06:11:09.713886 22368 net.cpp:150] Setting up pool1
I0414 06:11:09.713894 22368 net.cpp:157] Top shape: 1024 100 21 21 (45158400)
I0414 06:11:09.713897 22368 net.cpp:165] Memory required for data: 3099099136
I0414 06:11:09.713901 22368 layer_factory.hpp:77] Creating layer conv2
I0414 06:11:09.713910 22368 net.cpp:100] Creating Layer conv2
I0414 06:11:09.713915 22368 net.cpp:434] conv2 <- pool1
I0414 06:11:09.713920 22368 net.cpp:408] conv2 -> conv2
I0414 06:11:09.729825 22368 net.cpp:150] Setting up conv2
I0414 06:11:09.729843 22368 net.cpp:157] Top shape: 1024 150 18 18 (49766400)
I0414 06:11:09.729847 22368 net.cpp:165] Memory required for data: 3298164736
I0414 06:11:09.729858 22368 layer_factory.hpp:77] Creating layer conv2_prescale
I0414 06:11:09.729868 22368 net.cpp:100] Creating Layer conv2_prescale
I0414 06:11:09.729872 22368 net.cpp:434] conv2_prescale <- conv2
I0414 06:11:09.729878 22368 net.cpp:395] conv2_prescale -> conv2 (in-place)
I0414 06:11:09.729981 22368 net.cpp:150] Setting up conv2_prescale
I0414 06:11:09.729991 22368 net.cpp:157] Top shape: 1024 150 18 18 (49766400)
I0414 06:11:09.729995 22368 net.cpp:165] Memory required for data: 3497230336
I0414 06:11:09.730000 22368 layer_factory.hpp:77] Creating layer conv2_sTanH
I0414 06:11:09.730005 22368 net.cpp:100] Creating Layer conv2_sTanH
I0414 06:11:09.730010 22368 net.cpp:434] conv2_sTanH <- conv2
I0414 06:11:09.730015 22368 net.cpp:395] conv2_sTanH -> conv2 (in-place)
I0414 06:11:09.752310 22368 net.cpp:150] Setting up conv2_sTanH
I0414 06:11:09.752332 22368 net.cpp:157] Top shape: 1024 150 18 18 (49766400)
I0414 06:11:09.752336 22368 net.cpp:165] Memory required for data: 3696295936
I0414 06:11:09.752341 22368 layer_factory.hpp:77] Creating layer conv2_postscale
I0414 06:11:09.752351 22368 net.cpp:100] Creating Layer conv2_postscale
I0414 06:11:09.752354 22368 net.cpp:434] conv2_postscale <- conv2
I0414 06:11:09.752362 22368 net.cpp:395] conv2_postscale -> conv2 (in-place)
I0414 06:11:09.752462 22368 net.cpp:150] Setting up conv2_postscale
I0414 06:11:09.752472 22368 net.cpp:157] Top shape: 1024 150 18 18 (49766400)
I0414 06:11:09.752475 22368 net.cpp:165] Memory required for data: 3895361536
I0414 06:11:09.752481 22368 layer_factory.hpp:77] Creating layer pool2
I0414 06:11:09.752487 22368 net.cpp:100] Creating Layer pool2
I0414 06:11:09.752491 22368 net.cpp:434] pool2 <- conv2
I0414 06:11:09.752497 22368 net.cpp:408] pool2 -> pool2
I0414 06:11:09.752538 22368 net.cpp:150] Setting up pool2
I0414 06:11:09.752547 22368 net.cpp:157] Top shape: 1024 150 9 9 (12441600)
I0414 06:11:09.752549 22368 net.cpp:165] Memory required for data: 3945127936
I0414 06:11:09.752552 22368 layer_factory.hpp:77] Creating layer conv3
I0414 06:11:09.752562 22368 net.cpp:100] Creating Layer conv3
I0414 06:11:09.752565 22368 net.cpp:434] conv3 <- pool2
I0414 06:11:09.752570 22368 net.cpp:408] conv3 -> conv3
I0414 06:11:09.768077 22368 net.cpp:150] Setting up conv3
I0414 06:11:09.768102 22368 net.cpp:157] Top shape: 1024 250 6 6 (9216000)
I0414 06:11:09.768106 22368 net.cpp:165] Memory required for data: 3981991936
I0414 06:11:09.768118 22368 layer_factory.hpp:77] Creating layer conv3_prescale
I0414 06:11:09.768148 22368 net.cpp:100] Creating Layer conv3_prescale
I0414 06:11:09.768154 22368 net.cpp:434] conv3_prescale <- conv3
I0414 06:11:09.768160 22368 net.cpp:395] conv3_prescale -> conv3 (in-place)
I0414 06:11:09.768252 22368 net.cpp:150] Setting up conv3_prescale
I0414 06:11:09.768262 22368 net.cpp:157] Top shape: 1024 250 6 6 (9216000)
I0414 06:11:09.768265 22368 net.cpp:165] Memory required for data: 4018855936
I0414 06:11:09.768270 22368 layer_factory.hpp:77] Creating layer conv3_sTanH
I0414 06:11:09.768277 22368 net.cpp:100] Creating Layer conv3_sTanH
I0414 06:11:09.768280 22368 net.cpp:434] conv3_sTanH <- conv3
I0414 06:11:09.768285 22368 net.cpp:395] conv3_sTanH -> conv3 (in-place)
I0414 06:11:09.771661 22368 net.cpp:150] Setting up conv3_sTanH
I0414 06:11:09.771680 22368 net.cpp:157] Top shape: 1024 250 6 6 (9216000)
I0414 06:11:09.771683 22368 net.cpp:165] Memory required for data: 4055719936
I0414 06:11:09.771688 22368 layer_factory.hpp:77] Creating layer conv3_postscale
I0414 06:11:09.771697 22368 net.cpp:100] Creating Layer conv3_postscale
I0414 06:11:09.771700 22368 net.cpp:434] conv3_postscale <- conv3
I0414 06:11:09.771706 22368 net.cpp:395] conv3_postscale -> conv3 (in-place)
I0414 06:11:09.771801 22368 net.cpp:150] Setting up conv3_postscale
I0414 06:11:09.771811 22368 net.cpp:157] Top shape: 1024 250 6 6 (9216000)
I0414 06:11:09.771814 22368 net.cpp:165] Memory required for data: 4092583936
I0414 06:11:09.771821 22368 layer_factory.hpp:77] Creating layer pool3
I0414 06:11:09.771831 22368 net.cpp:100] Creating Layer pool3
I0414 06:11:09.771836 22368 net.cpp:434] pool3 <- conv3
I0414 06:11:09.771842 22368 net.cpp:408] pool3 -> pool3
I0414 06:11:09.771893 22368 net.cpp:150] Setting up pool3
I0414 06:11:09.771903 22368 net.cpp:157] Top shape: 1024 250 3 3 (2304000)
I0414 06:11:09.771905 22368 net.cpp:165] Memory required for data: 4101799936
I0414 06:11:09.771909 22368 layer_factory.hpp:77] Creating layer fc4_300
I0414 06:11:09.771916 22368 net.cpp:100] Creating Layer fc4_300
I0414 06:11:09.771919 22368 net.cpp:434] fc4_300 <- pool3
I0414 06:11:09.771925 22368 net.cpp:408] fc4_300 -> fc4_300
I0414 06:11:09.778108 22368 net.cpp:150] Setting up fc4_300
I0414 06:11:09.778127 22368 net.cpp:157] Top shape: 1024 300 (307200)
I0414 06:11:09.778131 22368 net.cpp:165] Memory required for data: 4103028736
I0414 06:11:09.778139 22368 layer_factory.hpp:77] Creating layer fc4_prescale
I0414 06:11:09.778147 22368 net.cpp:100] Creating Layer fc4_prescale
I0414 06:11:09.778152 22368 net.cpp:434] fc4_prescale <- fc4_300
I0414 06:11:09.778158 22368 net.cpp:395] fc4_prescale -> fc4_300 (in-place)
I0414 06:11:09.778245 22368 net.cpp:150] Setting up fc4_prescale
I0414 06:11:09.778254 22368 net.cpp:157] Top shape: 1024 300 (307200)
I0414 06:11:09.778257 22368 net.cpp:165] Memory required for data: 4104257536
I0414 06:11:09.778262 22368 layer_factory.hpp:77] Creating layer fc4_sTanH
I0414 06:11:09.778267 22368 net.cpp:100] Creating Layer fc4_sTanH
I0414 06:11:09.778270 22368 net.cpp:434] fc4_sTanH <- fc4_300
I0414 06:11:09.778275 22368 net.cpp:395] fc4_sTanH -> fc4_300 (in-place)
I0414 06:11:09.778452 22368 net.cpp:150] Setting up fc4_sTanH
I0414 06:11:09.778463 22368 net.cpp:157] Top shape: 1024 300 (307200)
I0414 06:11:09.778467 22368 net.cpp:165] Memory required for data: 4105486336
I0414 06:11:09.778470 22368 layer_factory.hpp:77] Creating layer fc4_postscale
I0414 06:11:09.778477 22368 net.cpp:100] Creating Layer fc4_postscale
I0414 06:11:09.778481 22368 net.cpp:434] fc4_postscale <- fc4_300
I0414 06:11:09.778486 22368 net.cpp:395] fc4_postscale -> fc4_300 (in-place)
I0414 06:11:09.778578 22368 net.cpp:150] Setting up fc4_postscale
I0414 06:11:09.778585 22368 net.cpp:157] Top shape: 1024 300 (307200)
I0414 06:11:09.778589 22368 net.cpp:165] Memory required for data: 4106715136
I0414 06:11:09.778594 22368 layer_factory.hpp:77] Creating layer fc5_67
I0414 06:11:09.778599 22368 net.cpp:100] Creating Layer fc5_67
I0414 06:11:09.778604 22368 net.cpp:434] fc5_67 <- fc4_300
I0414 06:11:09.778609 22368 net.cpp:408] fc5_67 -> fc5_classes
I0414 06:11:09.780408 22368 net.cpp:150] Setting up fc5_67
I0414 06:11:09.780423 22368 net.cpp:157] Top shape: 1024 67 (68608)
I0414 06:11:09.780427 22368 net.cpp:165] Memory required for data: 4106989568
I0414 06:11:09.780438 22368 layer_factory.hpp:77] Creating layer fc5_classes_fc5_67_0_split
I0414 06:11:09.780447 22368 net.cpp:100] Creating Layer fc5_classes_fc5_67_0_split
I0414 06:11:09.780453 22368 net.cpp:434] fc5_classes_fc5_67_0_split <- fc5_classes
I0414 06:11:09.780459 22368 net.cpp:408] fc5_classes_fc5_67_0_split -> fc5_classes_fc5_67_0_split_0
I0414 06:11:09.780467 22368 net.cpp:408] fc5_classes_fc5_67_0_split -> fc5_classes_fc5_67_0_split_1
I0414 06:11:09.780473 22368 net.cpp:408] fc5_classes_fc5_67_0_split -> fc5_classes_fc5_67_0_split_2
I0414 06:11:09.780520 22368 net.cpp:150] Setting up fc5_classes_fc5_67_0_split
I0414 06:11:09.780529 22368 net.cpp:157] Top shape: 1024 67 (68608)
I0414 06:11:09.780532 22368 net.cpp:157] Top shape: 1024 67 (68608)
I0414 06:11:09.780535 22368 net.cpp:157] Top shape: 1024 67 (68608)
I0414 06:11:09.780539 22368 net.cpp:165] Memory required for data: 4107812864
I0414 06:11:09.780541 22368 layer_factory.hpp:77] Creating layer softmax
I0414 06:11:09.780547 22368 net.cpp:100] Creating Layer softmax
I0414 06:11:09.780551 22368 net.cpp:434] softmax <- fc5_classes_fc5_67_0_split_0
I0414 06:11:09.780556 22368 net.cpp:408] softmax -> softmax
I0414 06:11:09.780796 22368 net.cpp:150] Setting up softmax
I0414 06:11:09.780807 22368 net.cpp:157] Top shape: 1024 67 (68608)
I0414 06:11:09.780810 22368 net.cpp:165] Memory required for data: 4108087296
I0414 06:11:09.780814 22368 layer_factory.hpp:77] Creating layer loss
I0414 06:11:09.780822 22368 net.cpp:100] Creating Layer loss
I0414 06:11:09.780824 22368 net.cpp:434] loss <- softmax
I0414 06:11:09.780829 22368 net.cpp:434] loss <- label_data_1_split_0
I0414 06:11:09.780834 22368 net.cpp:408] loss -> loss
…
