…
I0414 12:03:00.761153  4420 solver.cpp:93] Creating training net from train_net file: ./Prototxt/experiment_11/rtsd-r3/AHE/trial_1/train.prototxt
I0414 12:03:00.761627  4420 net.cpp:58] Initializing net from parameters: 
state {
  phase: TRAIN
  level: 0
  stage: ""
}
layer {
  name: "data"
  type: "Data"
  top: "data"
  top: "label"
  include {
    phase: TRAIN
  }
  transform_param {
    scale: 0.0039215689
    mirror: false
    crop_size: 48
    mean_value: 133
    mean_value: 126
    mean_value: 125
  }
  data_param {
    source: "../local_data/lmdb/rtsd-r3/AHE/train/lmdb"
    batch_size: 1024
    backend: LMDB
  }
}
layer {
  name: "conv1"
  type: "Convolution"
  bottom: "data"
  top: "conv1"
  convolution_param {
    num_output: 100
    pad: 0
    kernel_size: 7
    group: 1
    stride: 1
    weight_filler {
      type: "xavier"
    }
  }
}
layer {
  name: "conv1_prescale"
  type: "Scale"
  bottom: "conv1"
  top: "conv1"
  param {
    lr_mult: 0
    decay_mult: 0
  }
  scale_param {
    filler {
      value: 0.6666
    }
    bias_term: false
  }
}
layer {
  name: "conv1_sTanH"
  type: "TanH"
  bottom: "conv1"
  top: "conv1"
}
layer {
  name: "conv1_postscale"
  type: "Scale"
  bottom: "conv1"
  top: "conv1"
  param {
    lr_mult: 0
    decay_mult: 0
  }
  scale_param {
    filler {
      value: 1.7159
    }
    bias_term: false
  }
}
layer {
  name: "pool1"
  type: "Pooling"
  bottom: "conv1"
  top: "pool1"
  pooling_param {
    pool: MAX
    kernel_size: 2
    stride: 2
  }
}
layer {
  name: "conv2"
  type: "Convolution"
  bottom: "pool1"
  top: "conv2"
  convolution_param {
    num_output: 150
    pad: 0
    kernel_size: 4
    group: 1
    stride: 1
    weight_filler {
      type: "xavier"
    }
  }
}
layer {
  name: "conv2_prescale"
  type: "Scale"
  bottom: "conv2"
  top: "conv2"
  param {
    lr_mult: 0
    decay_mult: 0
  }
  scale_param {
    filler {
      value: 0.6666
    }
    bias_term: false
  }
}
layer {
  name: "conv2_sTanH"
  type: "TanH"
  bottom: "conv2"
  top: "conv2"
}
layer {
  name: "conv2_postscale"
  type: "Scale"
  bottom: "conv2"
  top: "conv2"
  param {
    lr_mult: 0
    decay_mult: 0
  }
  scale_param {
    filler {
      value: 1.7159
    }
    bias_term: false
  }
}
layer {
  name: "pool2"
  type: "Pooling"
  bottom: "conv2"
  top: "pool2"
  pooling_param {
    pool: MAX
    kernel_size: 2
    stride: 2
  }
}
layer {
  name: "conv3"
  type: "Convolution"
  bottom: "pool2"
  top: "conv3"
  convolution_param {
    num_output: 250
    pad: 0
    kernel_size: 4
    group: 1
    stride: 1
    weight_filler {
      type: "xavier"
    }
  }
}
layer {
  name: "conv3_prescale"
  type: "Scale"
  bottom: "conv3"
  top: "conv3"
  param {
    lr_mult: 0
    decay_mult: 0
  }
  scale_param {
    filler {
      value: 0.6666
    }
    bias_term: false
  }
}
layer {
  name: "conv3_sTanH"
  type: "TanH"
  bottom: "conv3"
  top: "conv3"
}
layer {
  name: "conv3_postscale"
  type: "Scale"
  bottom: "conv3"
  top: "conv3"
  param {
    lr_mult: 0
    decay_mult: 0
  }
  scale_param {
    filler {
      value: 1.7159
    }
    bias_term: false
  }
}
layer {
  name: "pool3"
  type: "Pooling"
  bottom: "conv3"
  top: "pool3"
  pooling_param {
    pool: MAX
    kernel_size: 2
    stride: 2
  }
}
layer {
  name: "fc4_300"
  type: "InnerProduct"
  bottom: "pool3"
  top: "fc4_300"
  inner_product_param {
    num_output: 300
    weight_filler {
      type: "xavier"
    }
  }
}
layer {
  name: "fc4_prescale"
  type: "Scale"
  bottom: "fc4_300"
  top: "fc4_300"
  param {
    lr_mult: 0
    decay_mult: 0
  }
  scale_param {
    filler {
      value: 0.6666
    }
    bias_term: false
  }
}
layer {
  name: "fc4_sTanH"
  type: "TanH"
  bottom: "fc4_300"
  top: "fc4_300"
}
layer {
  name: "fc4_postscale"
  type: "Scale"
  bottom: "fc4_300"
  top: "fc4_300"
  param {
    lr_mult: 0
    decay_mult: 0
  }
  scale_param {
    filler {
      value: 1.7159
    }
    bias_term: false
  }
}
layer {
  name: "fc5_106"
  type: "InnerProduct"
  bottom: "fc4_300"
  top: "fc5_classes"
  inner_product_param {
    num_output: 106
    weight_filler {
      type: "xavier"
    }
  }
}
layer {
  name: "softmax"
  type: "Softmax"
  bottom: "fc5_classes"
  top: "softmax"
}
layer {
  name: "loss"
  type: "MultinomialLogisticLoss"
  bottom: "softmax"
  bottom: "label"
  top: "loss"
}
layer {
  name: "accuracy_1"
  type: "Accuracy"
  bottom: "fc5_classes"
  bottom: "label"
  top: "accuracy_1"
  accuracy_param {
    top_k: 1
  }
}
layer {
  name: "accuracy_5"
  type: "Accuracy"
  bottom: "fc5_classes"
  bottom: "label"
  top: "accuracy_5"
  accuracy_param {
    top_k: 5
  }
}
layer {
  name: "silence"
  type: "Silence"
  bottom: "accuracy_1"
  bottom: "accuracy_5"
}
I0414 12:03:00.761788  4420 layer_factory.hpp:77] Creating layer data
I0414 12:03:00.762856  4420 net.cpp:100] Creating Layer data
I0414 12:03:00.762872  4420 net.cpp:408] data -> data
I0414 12:03:00.762897  4420 net.cpp:408] data -> label
I0414 12:03:00.820302  4519 db_lmdb.cpp:35] Opened lmdb ../local_data/lmdb/rtsd-r3/AHE/train/lmdb
I0414 12:03:00.854773  4420 data_layer.cpp:41] output data size: 1024,3,48,48
I0414 12:03:00.947438  4420 net.cpp:150] Setting up data
I0414 12:03:00.947466  4420 net.cpp:157] Top shape: 1024 3 48 48 (7077888)
I0414 12:03:00.947473  4420 net.cpp:157] Top shape: 1024 (1024)
I0414 12:03:00.947475  4420 net.cpp:165] Memory required for data: 28315648
I0414 12:03:00.947486  4420 layer_factory.hpp:77] Creating layer label_data_1_split
I0414 12:03:00.947499  4420 net.cpp:100] Creating Layer label_data_1_split
I0414 12:03:00.947505  4420 net.cpp:434] label_data_1_split <- label
I0414 12:03:00.947520  4420 net.cpp:408] label_data_1_split -> label_data_1_split_0
I0414 12:03:00.947533  4420 net.cpp:408] label_data_1_split -> label_data_1_split_1
I0414 12:03:00.947541  4420 net.cpp:408] label_data_1_split -> label_data_1_split_2
I0414 12:03:00.947624  4420 net.cpp:150] Setting up label_data_1_split
I0414 12:03:00.947633  4420 net.cpp:157] Top shape: 1024 (1024)
I0414 12:03:00.947636  4420 net.cpp:157] Top shape: 1024 (1024)
I0414 12:03:00.947640  4420 net.cpp:157] Top shape: 1024 (1024)
I0414 12:03:00.947643  4420 net.cpp:165] Memory required for data: 28327936
I0414 12:03:00.947646  4420 layer_factory.hpp:77] Creating layer conv1
I0414 12:03:00.947664  4420 net.cpp:100] Creating Layer conv1
I0414 12:03:00.947669  4420 net.cpp:434] conv1 <- data
I0414 12:03:00.947674  4420 net.cpp:408] conv1 -> conv1
I0414 12:03:01.081146  4535 blocking_queue.cpp:50] Waiting for data
I0414 12:03:01.394143  4420 net.cpp:150] Setting up conv1
I0414 12:03:01.394174  4420 net.cpp:157] Top shape: 1024 100 42 42 (180633600)
I0414 12:03:01.394178  4420 net.cpp:165] Memory required for data: 750862336
I0414 12:03:01.394199  4420 layer_factory.hpp:77] Creating layer conv1_prescale
I0414 12:03:01.394212  4420 net.cpp:100] Creating Layer conv1_prescale
I0414 12:03:01.394217  4420 net.cpp:434] conv1_prescale <- conv1
I0414 12:03:01.394222  4420 net.cpp:395] conv1_prescale -> conv1 (in-place)
I0414 12:03:01.394331  4420 net.cpp:150] Setting up conv1_prescale
I0414 12:03:01.394341  4420 net.cpp:157] Top shape: 1024 100 42 42 (180633600)
I0414 12:03:01.394345  4420 net.cpp:165] Memory required for data: 1473396736
I0414 12:03:01.394351  4420 layer_factory.hpp:77] Creating layer conv1_sTanH
I0414 12:03:01.394361  4420 net.cpp:100] Creating Layer conv1_sTanH
I0414 12:03:01.394366  4420 net.cpp:434] conv1_sTanH <- conv1
I0414 12:03:01.394371  4420 net.cpp:395] conv1_sTanH -> conv1 (in-place)
I0414 12:03:01.394563  4420 net.cpp:150] Setting up conv1_sTanH
I0414 12:03:01.394598  4420 net.cpp:157] Top shape: 1024 100 42 42 (180633600)
I0414 12:03:01.394601  4420 net.cpp:165] Memory required for data: 2195931136
I0414 12:03:01.394605  4420 layer_factory.hpp:77] Creating layer conv1_postscale
I0414 12:03:01.394613  4420 net.cpp:100] Creating Layer conv1_postscale
I0414 12:03:01.394618  4420 net.cpp:434] conv1_postscale <- conv1
I0414 12:03:01.394623  4420 net.cpp:395] conv1_postscale -> conv1 (in-place)
I0414 12:03:01.394719  4420 net.cpp:150] Setting up conv1_postscale
I0414 12:03:01.394728  4420 net.cpp:157] Top shape: 1024 100 42 42 (180633600)
I0414 12:03:01.394731  4420 net.cpp:165] Memory required for data: 2918465536
I0414 12:03:01.394736  4420 layer_factory.hpp:77] Creating layer pool1
I0414 12:03:01.394742  4420 net.cpp:100] Creating Layer pool1
I0414 12:03:01.394747  4420 net.cpp:434] pool1 <- conv1
I0414 12:03:01.394752  4420 net.cpp:408] pool1 -> pool1
I0414 12:03:01.394799  4420 net.cpp:150] Setting up pool1
I0414 12:03:01.394807  4420 net.cpp:157] Top shape: 1024 100 21 21 (45158400)
I0414 12:03:01.394810  4420 net.cpp:165] Memory required for data: 3099099136
I0414 12:03:01.394814  4420 layer_factory.hpp:77] Creating layer conv2
I0414 12:03:01.394824  4420 net.cpp:100] Creating Layer conv2
I0414 12:03:01.394829  4420 net.cpp:434] conv2 <- pool1
I0414 12:03:01.394834  4420 net.cpp:408] conv2 -> conv2
I0414 12:03:01.403112  4420 net.cpp:150] Setting up conv2
I0414 12:03:01.403132  4420 net.cpp:157] Top shape: 1024 150 18 18 (49766400)
I0414 12:03:01.403136  4420 net.cpp:165] Memory required for data: 3298164736
I0414 12:03:01.403149  4420 layer_factory.hpp:77] Creating layer conv2_prescale
I0414 12:03:01.403162  4420 net.cpp:100] Creating Layer conv2_prescale
I0414 12:03:01.403165  4420 net.cpp:434] conv2_prescale <- conv2
I0414 12:03:01.403172  4420 net.cpp:395] conv2_prescale -> conv2 (in-place)
I0414 12:03:01.403295  4420 net.cpp:150] Setting up conv2_prescale
I0414 12:03:01.403304  4420 net.cpp:157] Top shape: 1024 150 18 18 (49766400)
I0414 12:03:01.403307  4420 net.cpp:165] Memory required for data: 3497230336
I0414 12:03:01.403312  4420 layer_factory.hpp:77] Creating layer conv2_sTanH
I0414 12:03:01.403319  4420 net.cpp:100] Creating Layer conv2_sTanH
I0414 12:03:01.403322  4420 net.cpp:434] conv2_sTanH <- conv2
I0414 12:03:01.403327  4420 net.cpp:395] conv2_sTanH -> conv2 (in-place)
I0414 12:03:01.404171  4420 net.cpp:150] Setting up conv2_sTanH
I0414 12:03:01.404189  4420 net.cpp:157] Top shape: 1024 150 18 18 (49766400)
I0414 12:03:01.404193  4420 net.cpp:165] Memory required for data: 3696295936
I0414 12:03:01.404196  4420 layer_factory.hpp:77] Creating layer conv2_postscale
I0414 12:03:01.404204  4420 net.cpp:100] Creating Layer conv2_postscale
I0414 12:03:01.404209  4420 net.cpp:434] conv2_postscale <- conv2
I0414 12:03:01.404217  4420 net.cpp:395] conv2_postscale -> conv2 (in-place)
I0414 12:03:01.404322  4420 net.cpp:150] Setting up conv2_postscale
I0414 12:03:01.404331  4420 net.cpp:157] Top shape: 1024 150 18 18 (49766400)
I0414 12:03:01.404335  4420 net.cpp:165] Memory required for data: 3895361536
I0414 12:03:01.404340  4420 layer_factory.hpp:77] Creating layer pool2
I0414 12:03:01.404350  4420 net.cpp:100] Creating Layer pool2
I0414 12:03:01.404356  4420 net.cpp:434] pool2 <- conv2
I0414 12:03:01.404361  4420 net.cpp:408] pool2 -> pool2
I0414 12:03:01.404405  4420 net.cpp:150] Setting up pool2
I0414 12:03:01.404414  4420 net.cpp:157] Top shape: 1024 150 9 9 (12441600)
I0414 12:03:01.404417  4420 net.cpp:165] Memory required for data: 3945127936
I0414 12:03:01.404420  4420 layer_factory.hpp:77] Creating layer conv3
I0414 12:03:01.404429  4420 net.cpp:100] Creating Layer conv3
I0414 12:03:01.404434  4420 net.cpp:434] conv3 <- pool2
I0414 12:03:01.404440  4420 net.cpp:408] conv3 -> conv3
I0414 12:03:01.410451  4420 net.cpp:150] Setting up conv3
I0414 12:03:01.410470  4420 net.cpp:157] Top shape: 1024 250 6 6 (9216000)
I0414 12:03:01.410475  4420 net.cpp:165] Memory required for data: 3981991936
I0414 12:03:01.410502  4420 layer_factory.hpp:77] Creating layer conv3_prescale
I0414 12:03:01.410512  4420 net.cpp:100] Creating Layer conv3_prescale
I0414 12:03:01.410516  4420 net.cpp:434] conv3_prescale <- conv3
I0414 12:03:01.410522  4420 net.cpp:395] conv3_prescale -> conv3 (in-place)
I0414 12:03:01.410620  4420 net.cpp:150] Setting up conv3_prescale
I0414 12:03:01.410629  4420 net.cpp:157] Top shape: 1024 250 6 6 (9216000)
I0414 12:03:01.410634  4420 net.cpp:165] Memory required for data: 4018855936
I0414 12:03:01.410637  4420 layer_factory.hpp:77] Creating layer conv3_sTanH
I0414 12:03:01.410643  4420 net.cpp:100] Creating Layer conv3_sTanH
I0414 12:03:01.410648  4420 net.cpp:434] conv3_sTanH <- conv3
I0414 12:03:01.410653  4420 net.cpp:395] conv3_sTanH -> conv3 (in-place)
I0414 12:03:01.411608  4420 net.cpp:150] Setting up conv3_sTanH
I0414 12:03:01.411625  4420 net.cpp:157] Top shape: 1024 250 6 6 (9216000)
I0414 12:03:01.411628  4420 net.cpp:165] Memory required for data: 4055719936
I0414 12:03:01.411633  4420 layer_factory.hpp:77] Creating layer conv3_postscale
I0414 12:03:01.411640  4420 net.cpp:100] Creating Layer conv3_postscale
I0414 12:03:01.411643  4420 net.cpp:434] conv3_postscale <- conv3
I0414 12:03:01.411649  4420 net.cpp:395] conv3_postscale -> conv3 (in-place)
I0414 12:03:01.411751  4420 net.cpp:150] Setting up conv3_postscale
I0414 12:03:01.411761  4420 net.cpp:157] Top shape: 1024 250 6 6 (9216000)
I0414 12:03:01.411763  4420 net.cpp:165] Memory required for data: 4092583936
I0414 12:03:01.411768  4420 layer_factory.hpp:77] Creating layer pool3
I0414 12:03:01.411777  4420 net.cpp:100] Creating Layer pool3
I0414 12:03:01.411782  4420 net.cpp:434] pool3 <- conv3
I0414 12:03:01.411787  4420 net.cpp:408] pool3 -> pool3
I0414 12:03:01.411826  4420 net.cpp:150] Setting up pool3
I0414 12:03:01.411834  4420 net.cpp:157] Top shape: 1024 250 3 3 (2304000)
I0414 12:03:01.411836  4420 net.cpp:165] Memory required for data: 4101799936
I0414 12:03:01.411839  4420 layer_factory.hpp:77] Creating layer fc4_300
I0414 12:03:01.411846  4420 net.cpp:100] Creating Layer fc4_300
I0414 12:03:01.411851  4420 net.cpp:434] fc4_300 <- pool3
I0414 12:03:01.411857  4420 net.cpp:408] fc4_300 -> fc4_300
I0414 12:03:01.417628  4420 net.cpp:150] Setting up fc4_300
I0414 12:03:01.417644  4420 net.cpp:157] Top shape: 1024 300 (307200)
I0414 12:03:01.417649  4420 net.cpp:165] Memory required for data: 4103028736
I0414 12:03:01.417655  4420 layer_factory.hpp:77] Creating layer fc4_prescale
I0414 12:03:01.417664  4420 net.cpp:100] Creating Layer fc4_prescale
I0414 12:03:01.417667  4420 net.cpp:434] fc4_prescale <- fc4_300
I0414 12:03:01.417673  4420 net.cpp:395] fc4_prescale -> fc4_300 (in-place)
I0414 12:03:01.417765  4420 net.cpp:150] Setting up fc4_prescale
I0414 12:03:01.417774  4420 net.cpp:157] Top shape: 1024 300 (307200)
I0414 12:03:01.417778  4420 net.cpp:165] Memory required for data: 4104257536
I0414 12:03:01.417783  4420 layer_factory.hpp:77] Creating layer fc4_sTanH
I0414 12:03:01.417788  4420 net.cpp:100] Creating Layer fc4_sTanH
I0414 12:03:01.417790  4420 net.cpp:434] fc4_sTanH <- fc4_300
I0414 12:03:01.417795  4420 net.cpp:395] fc4_sTanH -> fc4_300 (in-place)
I0414 12:03:01.417994  4420 net.cpp:150] Setting up fc4_sTanH
I0414 12:03:01.418005  4420 net.cpp:157] Top shape: 1024 300 (307200)
I0414 12:03:01.418009  4420 net.cpp:165] Memory required for data: 4105486336
I0414 12:03:01.418011  4420 layer_factory.hpp:77] Creating layer fc4_postscale
I0414 12:03:01.418018  4420 net.cpp:100] Creating Layer fc4_postscale
I0414 12:03:01.418023  4420 net.cpp:434] fc4_postscale <- fc4_300
I0414 12:03:01.418030  4420 net.cpp:395] fc4_postscale -> fc4_300 (in-place)
I0414 12:03:01.418128  4420 net.cpp:150] Setting up fc4_postscale
I0414 12:03:01.418136  4420 net.cpp:157] Top shape: 1024 300 (307200)
I0414 12:03:01.418139  4420 net.cpp:165] Memory required for data: 4106715136
I0414 12:03:01.418143  4420 layer_factory.hpp:77] Creating layer fc5_106
I0414 12:03:01.418150  4420 net.cpp:100] Creating Layer fc5_106
I0414 12:03:01.418154  4420 net.cpp:434] fc5_106 <- fc4_300
I0414 12:03:01.418175  4420 net.cpp:408] fc5_106 -> fc5_classes
I0414 12:03:01.420159  4420 net.cpp:150] Setting up fc5_106
I0414 12:03:01.420176  4420 net.cpp:157] Top shape: 1024 106 (108544)
I0414 12:03:01.420179  4420 net.cpp:165] Memory required for data: 4107149312
I0414 12:03:01.420191  4420 layer_factory.hpp:77] Creating layer fc5_classes_fc5_106_0_split
I0414 12:03:01.420198  4420 net.cpp:100] Creating Layer fc5_classes_fc5_106_0_split
I0414 12:03:01.420202  4420 net.cpp:434] fc5_classes_fc5_106_0_split <- fc5_classes
I0414 12:03:01.420207  4420 net.cpp:408] fc5_classes_fc5_106_0_split -> fc5_classes_fc5_106_0_split_0
I0414 12:03:01.420215  4420 net.cpp:408] fc5_classes_fc5_106_0_split -> fc5_classes_fc5_106_0_split_1
I0414 12:03:01.420224  4420 net.cpp:408] fc5_classes_fc5_106_0_split -> fc5_classes_fc5_106_0_split_2
I0414 12:03:01.420276  4420 net.cpp:150] Setting up fc5_classes_fc5_106_0_split
I0414 12:03:01.420284  4420 net.cpp:157] Top shape: 1024 106 (108544)
I0414 12:03:01.420287  4420 net.cpp:157] Top shape: 1024 106 (108544)
I0414 12:03:01.420291  4420 net.cpp:157] Top shape: 1024 106 (108544)
I0414 12:03:01.420295  4420 net.cpp:165] Memory required for data: 4108451840
I0414 12:03:01.420297  4420 layer_factory.hpp:77] Creating layer softmax
I0414 12:03:01.420303  4420 net.cpp:100] Creating Layer softmax
I0414 12:03:01.420307  4420 net.cpp:434] softmax <- fc5_classes_fc5_106_0_split_0
I0414 12:03:01.420313  4420 net.cpp:408] softmax -> softmax
I0414 12:03:01.420568  4420 net.cpp:150] Setting up softmax
I0414 12:03:01.420581  4420 net.cpp:157] Top shape: 1024 106 (108544)
I0414 12:03:01.420585  4420 net.cpp:165] Memory required for data: 4108886016
I0414 12:03:01.420589  4420 layer_factory.hpp:77] Creating layer loss
I0414 12:03:01.420595  4420 net.cpp:100] Creating Layer loss
I0414 12:03:01.420599  4420 net.cpp:434] loss <- softmax
I0414 12:03:01.420603  4420 net.cpp:434] loss <- label_data_1_split_0
I0414 12:03:01.420608  4420 net.cpp:408] loss -> loss
…
