…
I0409 10:25:56.387135 27356 net.cpp:322] The NetState phase (0) differed from the phase (1) specified by a rule in layer accuracy_5
I0409 10:25:56.387251 27356 net.cpp:58] Initializing net from parameters: 
state {
  phase: TRAIN
  level: 0
  stage: ""
}
layer {
  name: "data"
  type: "Data"
  top: "data"
  top: "label"
  include {
    phase: TRAIN
  }
  transform_param {
    mirror: false
    crop_size: 48
    mean_value: 115
    mean_value: 108
    mean_value: 122
  }
  data_param {
    source: "../local_data/lmdb/rtsd-r1/imajust/train/lmdb"
    batch_size: 1024
    backend: LMDB
  }
}
layer {
  name: "conv1"
  type: "Convolution"
  bottom: "data"
  top: "conv1"
  convolution_param {
    num_output: 100
    pad: 0
    kernel_size: 7
    group: 1
    stride: 1
    weight_filler {
      type: "xavier"
    }
  }
}
layer {
  name: "conv1_relu"
  type: "ReLU"
  bottom: "conv1"
  top: "conv1"
}
layer {
  name: "pool1"
  type: "Pooling"
  bottom: "conv1"
  top: "pool1"
  pooling_param {
    pool: MAX
    kernel_size: 2
    stride: 2
  }
}
layer {
  name: "conv2"
  type: "Convolution"
  bottom: "pool1"
  top: "conv2"
  convolution_param {
    num_output: 150
    pad: 0
    kernel_size: 4
    group: 1
    stride: 1
    weight_filler {
      type: "xavier"
    }
  }
}
layer {
  name: "conv2_relu"
  type: "ReLU"
  bottom: "conv2"
  top: "conv2"
}
layer {
  name: "pool2"
  type: "Pooling"
  bottom: "conv2"
  top: "pool2"
  pooling_param {
    pool: MAX
    kernel_size: 2
    stride: 2
  }
}
layer {
  name: "conv3"
  type: "Convolution"
  bottom: "pool2"
  top: "conv3"
  convolution_param {
    num_output: 250
    pad: 0
    kernel_size: 4
    group: 1
    stride: 1
    weight_filler {
      type: "xavier"
    }
  }
}
layer {
  name: "conv3_relu"
  type: "ReLU"
  bottom: "conv3"
  top: "conv3"
}
layer {
  name: "pool3"
  type: "Pooling"
  bottom: "conv3"
  top: "pool3"
  pooling_param {
    pool: MAX
    kernel_size: 2
    stride: 2
  }
}
layer {
  name: "fc4_300"
  type: "InnerProduct"
  bottom: "pool3"
  top: "fc4_300"
  inner_product_param {
    num_output: 300
    weight_filler {
      type: "xavier"
    }
  }
}
layer {
  name: "fc4_relu"
  type: "ReLU"
  bottom: "fc4_300"
  top: "fc4_300"
}
layer {
  name: "drop4"
  type: "Dropout"
  bottom: "fc4_300"
  top: "fc4_300"
  dropout_param {
    dropout_ratio: 0.4
  }
}
layer {
  name: "fc5_67"
  type: "InnerProduct"
  bottom: "fc4_300"
  top: "fc5_classes"
  inner_product_param {
    num_output: 67
    weight_filler {
      type: "xavier"
    }
  }
}
layer {
  name: "loss"
  type: "SoftmaxWithLoss"
  bottom: "fc5_classes"
  bottom: "label"
  top: "loss"
}
I0409 10:25:56.387336 27356 layer_factory.hpp:77] Creating layer data
I0409 10:25:56.388648 27356 net.cpp:100] Creating Layer data
I0409 10:25:56.388665 27356 net.cpp:408] data -> data
I0409 10:25:56.388690 27356 net.cpp:408] data -> label
I0409 10:25:56.390017 27420 db_lmdb.cpp:35] Opened lmdb ../local_data/lmdb/rtsd-r1/imajust/train/lmdb
I0409 10:25:56.409343 27356 data_layer.cpp:41] output data size: 1024,3,48,48
I0409 10:25:56.464074 27356 net.cpp:150] Setting up data
I0409 10:25:56.464109 27356 net.cpp:157] Top shape: 1024 3 48 48 (7077888)
I0409 10:25:56.464140 27356 net.cpp:157] Top shape: 1024 (1024)
I0409 10:25:56.464144 27356 net.cpp:165] Memory required for data: 28315648
I0409 10:25:56.464154 27356 layer_factory.hpp:77] Creating layer conv1
I0409 10:25:56.464179 27356 net.cpp:100] Creating Layer conv1
I0409 10:25:56.464187 27356 net.cpp:434] conv1 <- data
I0409 10:25:56.464200 27356 net.cpp:408] conv1 -> conv1
I0409 10:25:56.712419 27356 net.cpp:150] Setting up conv1
I0409 10:25:56.712460 27356 net.cpp:157] Top shape: 1024 100 42 42 (180633600)
I0409 10:25:56.712463 27356 net.cpp:165] Memory required for data: 750850048
I0409 10:25:56.712486 27356 layer_factory.hpp:77] Creating layer conv1_relu
I0409 10:25:56.712498 27356 net.cpp:100] Creating Layer conv1_relu
I0409 10:25:56.712502 27356 net.cpp:434] conv1_relu <- conv1
I0409 10:25:56.712508 27356 net.cpp:395] conv1_relu -> conv1 (in-place)
I0409 10:25:56.712703 27356 net.cpp:150] Setting up conv1_relu
I0409 10:25:56.712716 27356 net.cpp:157] Top shape: 1024 100 42 42 (180633600)
I0409 10:25:56.712719 27356 net.cpp:165] Memory required for data: 1473384448
I0409 10:25:56.712723 27356 layer_factory.hpp:77] Creating layer pool1
I0409 10:25:56.712730 27356 net.cpp:100] Creating Layer pool1
I0409 10:25:56.712733 27356 net.cpp:434] pool1 <- conv1
I0409 10:25:56.712738 27356 net.cpp:408] pool1 -> pool1
I0409 10:25:56.712791 27356 net.cpp:150] Setting up pool1
I0409 10:25:56.712800 27356 net.cpp:157] Top shape: 1024 100 21 21 (45158400)
I0409 10:25:56.712803 27356 net.cpp:165] Memory required for data: 1654018048
I0409 10:25:56.712806 27356 layer_factory.hpp:77] Creating layer conv2
I0409 10:25:56.712816 27356 net.cpp:100] Creating Layer conv2
I0409 10:25:56.712844 27356 net.cpp:434] conv2 <- pool1
I0409 10:25:56.712851 27356 net.cpp:408] conv2 -> conv2
I0409 10:25:56.719661 27356 net.cpp:150] Setting up conv2
I0409 10:25:56.719677 27356 net.cpp:157] Top shape: 1024 150 18 18 (49766400)
I0409 10:25:56.719693 27356 net.cpp:165] Memory required for data: 1853083648
I0409 10:25:56.719703 27356 layer_factory.hpp:77] Creating layer conv2_relu
I0409 10:25:56.719710 27356 net.cpp:100] Creating Layer conv2_relu
I0409 10:25:56.719714 27356 net.cpp:434] conv2_relu <- conv2
I0409 10:25:56.719718 27356 net.cpp:395] conv2_relu -> conv2 (in-place)
I0409 10:25:56.722098 27356 net.cpp:150] Setting up conv2_relu
I0409 10:25:56.722117 27356 net.cpp:157] Top shape: 1024 150 18 18 (49766400)
I0409 10:25:56.722121 27356 net.cpp:165] Memory required for data: 2052149248
I0409 10:25:56.722124 27356 layer_factory.hpp:77] Creating layer pool2
I0409 10:25:56.722131 27356 net.cpp:100] Creating Layer pool2
I0409 10:25:56.722136 27356 net.cpp:434] pool2 <- conv2
I0409 10:25:56.722141 27356 net.cpp:408] pool2 -> pool2
I0409 10:25:56.722187 27356 net.cpp:150] Setting up pool2
I0409 10:25:56.722196 27356 net.cpp:157] Top shape: 1024 150 9 9 (12441600)
I0409 10:25:56.722199 27356 net.cpp:165] Memory required for data: 2101915648
I0409 10:25:56.722203 27356 layer_factory.hpp:77] Creating layer conv3
I0409 10:25:56.722210 27356 net.cpp:100] Creating Layer conv3
I0409 10:25:56.722214 27356 net.cpp:434] conv3 <- pool2
I0409 10:25:56.722219 27356 net.cpp:408] conv3 -> conv3
I0409 10:25:56.729773 27356 net.cpp:150] Setting up conv3
I0409 10:25:56.729794 27356 net.cpp:157] Top shape: 1024 250 6 6 (9216000)
I0409 10:25:56.729797 27356 net.cpp:165] Memory required for data: 2138779648
I0409 10:25:56.729809 27356 layer_factory.hpp:77] Creating layer conv3_relu
I0409 10:25:56.729818 27356 net.cpp:100] Creating Layer conv3_relu
I0409 10:25:56.729821 27356 net.cpp:434] conv3_relu <- conv3
I0409 10:25:56.729827 27356 net.cpp:395] conv3_relu -> conv3 (in-place)
I0409 10:25:56.730803 27356 net.cpp:150] Setting up conv3_relu
I0409 10:25:56.730818 27356 net.cpp:157] Top shape: 1024 250 6 6 (9216000)
I0409 10:25:56.730823 27356 net.cpp:165] Memory required for data: 2175643648
I0409 10:25:56.730825 27356 layer_factory.hpp:77] Creating layer pool3
I0409 10:25:56.730832 27356 net.cpp:100] Creating Layer pool3
I0409 10:25:56.730836 27356 net.cpp:434] pool3 <- conv3
I0409 10:25:56.730861 27356 net.cpp:408] pool3 -> pool3
I0409 10:25:56.730911 27356 net.cpp:150] Setting up pool3
I0409 10:25:56.730921 27356 net.cpp:157] Top shape: 1024 250 3 3 (2304000)
I0409 10:25:56.730926 27356 net.cpp:165] Memory required for data: 2184859648
I0409 10:25:56.730928 27356 layer_factory.hpp:77] Creating layer fc4_300
I0409 10:25:56.730936 27356 net.cpp:100] Creating Layer fc4_300
I0409 10:25:56.730938 27356 net.cpp:434] fc4_300 <- pool3
I0409 10:25:56.730942 27356 net.cpp:408] fc4_300 -> fc4_300
I0409 10:25:56.738968 27356 net.cpp:150] Setting up fc4_300
I0409 10:25:56.738986 27356 net.cpp:157] Top shape: 1024 300 (307200)
I0409 10:25:56.738991 27356 net.cpp:165] Memory required for data: 2186088448
I0409 10:25:56.738997 27356 layer_factory.hpp:77] Creating layer fc4_relu
I0409 10:25:56.739003 27356 net.cpp:100] Creating Layer fc4_relu
I0409 10:25:56.739006 27356 net.cpp:434] fc4_relu <- fc4_300
I0409 10:25:56.739012 27356 net.cpp:395] fc4_relu -> fc4_300 (in-place)
I0409 10:25:56.739205 27356 net.cpp:150] Setting up fc4_relu
I0409 10:25:56.739217 27356 net.cpp:157] Top shape: 1024 300 (307200)
I0409 10:25:56.739219 27356 net.cpp:165] Memory required for data: 2187317248
I0409 10:25:56.739223 27356 layer_factory.hpp:77] Creating layer drop4
I0409 10:25:56.739230 27356 net.cpp:100] Creating Layer drop4
I0409 10:25:56.739233 27356 net.cpp:434] drop4 <- fc4_300
I0409 10:25:56.739239 27356 net.cpp:395] drop4 -> fc4_300 (in-place)
I0409 10:25:56.739270 27356 net.cpp:150] Setting up drop4
I0409 10:25:56.739280 27356 net.cpp:157] Top shape: 1024 300 (307200)
I0409 10:25:56.739284 27356 net.cpp:165] Memory required for data: 2188546048
I0409 10:25:56.739286 27356 layer_factory.hpp:77] Creating layer fc5_67
I0409 10:25:56.739292 27356 net.cpp:100] Creating Layer fc5_67
I0409 10:25:56.739295 27356 net.cpp:434] fc5_67 <- fc4_300
I0409 10:25:56.739300 27356 net.cpp:408] fc5_67 -> fc5_classes
I0409 10:25:56.745137 27356 net.cpp:150] Setting up fc5_67
I0409 10:25:56.745153 27356 net.cpp:157] Top shape: 1024 67 (68608)
I0409 10:25:56.745169 27356 net.cpp:165] Memory required for data: 2188820480
I0409 10:25:56.745182 27356 layer_factory.hpp:77] Creating layer loss
I0409 10:25:56.745189 27356 net.cpp:100] Creating Layer loss
I0409 10:25:56.745193 27356 net.cpp:434] loss <- fc5_classes
I0409 10:25:56.745198 27356 net.cpp:434] loss <- label
I0409 10:25:56.745203 27356 net.cpp:408] loss -> loss
I0409 10:25:56.745216 27356 layer_factory.hpp:77] Creating layer loss
…
I0409 10:25:56.745872 27356 solver.cpp:193] Creating test net (#0) specified by test_net file: ./Prototxt/experiment_6/rtsd-r1/imajust/trial_4/test.prototxt
I0409 10:25:56.746016 27356 net.cpp:58] Initializing net from parameters: 
state {
  phase: TEST
}
layer {
  name: "data"
  type: "Data"
  top: "data"
  top: "label"
  include {
    phase: TEST
  }
  transform_param {
    mirror: false
    crop_size: 48
    mean_value: 109
    mean_value: 106
    mean_value: 126
  }
  data_param {
    source: "../local_data/lmdb/rtsd-r1/imajust/test/lmdb"
    batch_size: 1024
    backend: LMDB
  }
}
layer {
  name: "conv1"
  type: "Convolution"
  bottom: "data"
  top: "conv1"
  convolution_param {
    num_output: 100
    pad: 0
    kernel_size: 7
    group: 1
    stride: 1
    weight_filler {
      type: "xavier"
    }
  }
}
layer {
  name: "conv1_relu"
  type: "ReLU"
  bottom: "conv1"
  top: "conv1"
}
layer {
  name: "pool1"
  type: "Pooling"
  bottom: "conv1"
  top: "pool1"
  pooling_param {
    pool: MAX
    kernel_size: 2
    stride: 2
  }
}
layer {
  name: "conv2"
  type: "Convolution"
  bottom: "pool1"
  top: "conv2"
  convolution_param {
    num_output: 150
    pad: 0
    kernel_size: 4
    group: 1
    stride: 1
    weight_filler {
      type: "xavier"
    }
  }
}
layer {
  name: "conv2_relu"
  type: "ReLU"
  bottom: "conv2"
  top: "conv2"
}
layer {
  name: "pool2"
  type: "Pooling"
  bottom: "conv2"
  top: "pool2"
  pooling_param {
    pool: MAX
    kernel_size: 2
    stride: 2
  }
}
layer {
  name: "conv3"
  type: "Convolution"
  bottom: "pool2"
  top: "conv3"
  convolution_param {
    num_output: 250
    pad: 0
    kernel_size: 4
    group: 1
    stride: 1
    weight_filler {
      type: "xavier"
    }
  }
}
layer {
  name: "conv3_relu"
  type: "ReLU"
  bottom: "conv3"
  top: "conv3"
}
layer {
  name: "pool3"
  type: "Pooling"
  bottom: "conv3"
  top: "pool3"
  pooling_param {
    pool: MAX
    kernel_size: 2
    stride: 2
  }
}
layer {
  name: "fc4_300"
  type: "InnerProduct"
  bottom: "pool3"
  top: "fc4_300"
  inner_product_param {
    num_output: 300
    weight_filler {
      type: "xavier"
    }
  }
}
layer {
  name: "fc4_relu"
  type: "ReLU"
  bottom: "fc4_300"
  top: "fc4_300"
}
layer {
  name: "drop4"
  type: "Dropout"
  bottom: "fc4_300"
  top: "fc4_300"
  dropout_param {
    dropout_ratio: 0.4
  }
}
layer {
  name: "fc5_67"
  type: "InnerProduct"
  bottom: "fc4_300"
  top: "fc5_classes"
  inner_product_param {
    num_output: 67
    weight_filler {
      type: "xavier"
    }
  }
}
layer {
  name: "loss"
  type: "SoftmaxWithLoss"
  bottom: "fc5_classes"
  bottom: "label"
  top: "loss"
}
layer {
  name: "accuracy_1"
  type: "Accuracy"
  bottom: "fc5_classes"
  bottom: "label"
  top: "accuracy_1"
  include {
    phase: TEST
  }
  accuracy_param {
    top_k: 1
  }
}
layer {
  name: "accuracy_5"
  type: "Accuracy"
  bottom: "fc5_classes"
  bottom: "label"
  top: "accuracy_5"
  include {
    phase: TEST
  }
  accuracy_param {
    top_k: 5
  }
}
I0409 10:25:56.746114 27356 layer_factory.hpp:77] Creating layer data
I0409 10:25:56.746973 27356 net.cpp:100] Creating Layer data
I0409 10:25:56.746986 27356 net.cpp:408] data -> data
I0409 10:25:56.746996 27356 net.cpp:408] data -> label
I0409 10:25:56.754287 27431 db_lmdb.cpp:35] Opened lmdb ../local_data/lmdb/rtsd-r1/imajust/test/lmdb
I0409 10:25:56.754492 27356 data_layer.cpp:41] output data size: 1024,3,48,48
I0409 10:25:56.793814 27356 net.cpp:150] Setting up data
I0409 10:25:56.793844 27356 net.cpp:157] Top shape: 1024 3 48 48 (7077888)
I0409 10:25:56.793849 27356 net.cpp:157] Top shape: 1024 (1024)
I0409 10:25:56.793853 27356 net.cpp:165] Memory required for data: 28315648
I0409 10:25:56.793859 27356 layer_factory.hpp:77] Creating layer label_data_1_split
I0409 10:25:56.793882 27356 net.cpp:100] Creating Layer label_data_1_split
I0409 10:25:56.793889 27356 net.cpp:434] label_data_1_split <- label
I0409 10:25:56.793920 27356 net.cpp:408] label_data_1_split -> label_data_1_split_0
I0409 10:25:56.793933 27356 net.cpp:408] label_data_1_split -> label_data_1_split_1
I0409 10:25:56.793939 27356 net.cpp:408] label_data_1_split -> label_data_1_split_2
I0409 10:25:56.794116 27356 net.cpp:150] Setting up label_data_1_split
I0409 10:25:56.794126 27356 net.cpp:157] Top shape: 1024 (1024)
I0409 10:25:56.794131 27356 net.cpp:157] Top shape: 1024 (1024)
I0409 10:25:56.794133 27356 net.cpp:157] Top shape: 1024 (1024)
I0409 10:25:56.794137 27356 net.cpp:165] Memory required for data: 28327936
I0409 10:25:56.794139 27356 layer_factory.hpp:77] Creating layer conv1
I0409 10:25:56.794152 27356 net.cpp:100] Creating Layer conv1
I0409 10:25:56.794158 27356 net.cpp:434] conv1 <- data
I0409 10:25:56.794164 27356 net.cpp:408] conv1 -> conv1
I0409 10:25:56.795969 27356 net.cpp:150] Setting up conv1
I0409 10:25:56.795985 27356 net.cpp:157] Top shape: 1024 100 42 42 (180633600)
I0409 10:25:56.795989 27356 net.cpp:165] Memory required for data: 750862336
I0409 10:25:56.796000 27356 layer_factory.hpp:77] Creating layer conv1_relu
I0409 10:25:56.796007 27356 net.cpp:100] Creating Layer conv1_relu
I0409 10:25:56.796011 27356 net.cpp:434] conv1_relu <- conv1
I0409 10:25:56.796020 27356 net.cpp:395] conv1_relu -> conv1 (in-place)
I0409 10:25:56.796216 27356 net.cpp:150] Setting up conv1_relu
I0409 10:25:56.796228 27356 net.cpp:157] Top shape: 1024 100 42 42 (180633600)
I0409 10:25:56.796231 27356 net.cpp:165] Memory required for data: 1473396736
I0409 10:25:56.796234 27356 layer_factory.hpp:77] Creating layer pool1
I0409 10:25:56.796244 27356 net.cpp:100] Creating Layer pool1
I0409 10:25:56.796248 27356 net.cpp:434] pool1 <- conv1
I0409 10:25:56.796253 27356 net.cpp:408] pool1 -> pool1
I0409 10:25:56.796326 27356 net.cpp:150] Setting up pool1
I0409 10:25:56.796336 27356 net.cpp:157] Top shape: 1024 100 21 21 (45158400)
I0409 10:25:56.796339 27356 net.cpp:165] Memory required for data: 1654030336
I0409 10:25:56.796342 27356 layer_factory.hpp:77] Creating layer conv2
I0409 10:25:56.796358 27356 net.cpp:100] Creating Layer conv2
I0409 10:25:56.796363 27356 net.cpp:434] conv2 <- pool1
I0409 10:25:56.796370 27356 net.cpp:408] conv2 -> conv2
I0409 10:25:56.802448 27356 net.cpp:150] Setting up conv2
I0409 10:25:56.802464 27356 net.cpp:157] Top shape: 1024 150 18 18 (49766400)
I0409 10:25:56.802469 27356 net.cpp:165] Memory required for data: 1853095936
I0409 10:25:56.802479 27356 layer_factory.hpp:77] Creating layer conv2_relu
I0409 10:25:56.802484 27356 net.cpp:100] Creating Layer conv2_relu
I0409 10:25:56.802494 27356 net.cpp:434] conv2_relu <- conv2
I0409 10:25:56.802501 27356 net.cpp:395] conv2_relu -> conv2 (in-place)
I0409 10:25:56.803308 27356 net.cpp:150] Setting up conv2_relu
I0409 10:25:56.803323 27356 net.cpp:157] Top shape: 1024 150 18 18 (49766400)
I0409 10:25:56.803328 27356 net.cpp:165] Memory required for data: 2052161536
I0409 10:25:56.803333 27356 layer_factory.hpp:77] Creating layer pool2
I0409 10:25:56.803339 27356 net.cpp:100] Creating Layer pool2
I0409 10:25:56.803341 27356 net.cpp:434] pool2 <- conv2
I0409 10:25:56.803354 27356 net.cpp:408] pool2 -> pool2
I0409 10:25:56.803417 27356 net.cpp:150] Setting up pool2
I0409 10:25:56.803429 27356 net.cpp:157] Top shape: 1024 150 9 9 (12441600)
I0409 10:25:56.803432 27356 net.cpp:165] Memory required for data: 2101927936
I0409 10:25:56.803436 27356 layer_factory.hpp:77] Creating layer conv3
I0409 10:25:56.803447 27356 net.cpp:100] Creating Layer conv3
I0409 10:25:56.803450 27356 net.cpp:434] conv3 <- pool2
I0409 10:25:56.803455 27356 net.cpp:408] conv3 -> conv3
I0409 10:25:56.808990 27356 net.cpp:150] Setting up conv3
I0409 10:25:56.809006 27356 net.cpp:157] Top shape: 1024 250 6 6 (9216000)
I0409 10:25:56.809010 27356 net.cpp:165] Memory required for data: 2138791936
I0409 10:25:56.809020 27356 layer_factory.hpp:77] Creating layer conv3_relu
I0409 10:25:56.809027 27356 net.cpp:100] Creating Layer conv3_relu
I0409 10:25:56.809031 27356 net.cpp:434] conv3_relu <- conv3
I0409 10:25:56.809042 27356 net.cpp:395] conv3_relu -> conv3 (in-place)
I0409 10:25:56.809813 27356 net.cpp:150] Setting up conv3_relu
I0409 10:25:56.809829 27356 net.cpp:157] Top shape: 1024 250 6 6 (9216000)
I0409 10:25:56.809834 27356 net.cpp:165] Memory required for data: 2175655936
I0409 10:25:56.809859 27356 layer_factory.hpp:77] Creating layer pool3
I0409 10:25:56.809867 27356 net.cpp:100] Creating Layer pool3
I0409 10:25:56.809870 27356 net.cpp:434] pool3 <- conv3
I0409 10:25:56.809877 27356 net.cpp:408] pool3 -> pool3
I0409 10:25:56.809927 27356 net.cpp:150] Setting up pool3
I0409 10:25:56.809937 27356 net.cpp:157] Top shape: 1024 250 3 3 (2304000)
I0409 10:25:56.809940 27356 net.cpp:165] Memory required for data: 2184871936
I0409 10:25:56.809943 27356 layer_factory.hpp:77] Creating layer fc4_300
I0409 10:25:56.809950 27356 net.cpp:100] Creating Layer fc4_300
I0409 10:25:56.809953 27356 net.cpp:434] fc4_300 <- pool3
I0409 10:25:56.809957 27356 net.cpp:408] fc4_300 -> fc4_300
I0409 10:25:56.815286 27356 net.cpp:150] Setting up fc4_300
I0409 10:25:56.815304 27356 net.cpp:157] Top shape: 1024 300 (307200)
I0409 10:25:56.815307 27356 net.cpp:165] Memory required for data: 2186100736
I0409 10:25:56.815315 27356 layer_factory.hpp:77] Creating layer fc4_relu
I0409 10:25:56.815320 27356 net.cpp:100] Creating Layer fc4_relu
I0409 10:25:56.815327 27356 net.cpp:434] fc4_relu <- fc4_300
I0409 10:25:56.815331 27356 net.cpp:395] fc4_relu -> fc4_300 (in-place)
I0409 10:25:56.815547 27356 net.cpp:150] Setting up fc4_relu
I0409 10:25:56.815560 27356 net.cpp:157] Top shape: 1024 300 (307200)
I0409 10:25:56.815564 27356 net.cpp:165] Memory required for data: 2187329536
I0409 10:25:56.815568 27356 layer_factory.hpp:77] Creating layer drop4
I0409 10:25:56.815574 27356 net.cpp:100] Creating Layer drop4
I0409 10:25:56.815578 27356 net.cpp:434] drop4 <- fc4_300
I0409 10:25:56.815583 27356 net.cpp:395] drop4 -> fc4_300 (in-place)
I0409 10:25:56.815618 27356 net.cpp:150] Setting up drop4
I0409 10:25:56.815627 27356 net.cpp:157] Top shape: 1024 300 (307200)
I0409 10:25:56.815630 27356 net.cpp:165] Memory required for data: 2188558336
I0409 10:25:56.815634 27356 layer_factory.hpp:77] Creating layer fc5_67
I0409 10:25:56.815639 27356 net.cpp:100] Creating Layer fc5_67
I0409 10:25:56.815644 27356 net.cpp:434] fc5_67 <- fc4_300
I0409 10:25:56.815649 27356 net.cpp:408] fc5_67 -> fc5_classes
I0409 10:25:56.815917 27356 net.cpp:150] Setting up fc5_67
I0409 10:25:56.815927 27356 net.cpp:157] Top shape: 1024 67 (68608)
I0409 10:25:56.815932 27356 net.cpp:165] Memory required for data: 2188832768
I0409 10:25:56.815942 27356 layer_factory.hpp:77] Creating layer fc5_classes_fc5_67_0_split
I0409 10:25:56.815948 27356 net.cpp:100] Creating Layer fc5_classes_fc5_67_0_split
I0409 10:25:56.815953 27356 net.cpp:434] fc5_classes_fc5_67_0_split <- fc5_classes
I0409 10:25:56.815958 27356 net.cpp:408] fc5_classes_fc5_67_0_split -> fc5_classes_fc5_67_0_split_0
I0409 10:25:56.815966 27356 net.cpp:408] fc5_classes_fc5_67_0_split -> fc5_classes_fc5_67_0_split_1
I0409 10:25:56.815974 27356 net.cpp:408] fc5_classes_fc5_67_0_split -> fc5_classes_fc5_67_0_split_2
I0409 10:25:56.816031 27356 net.cpp:150] Setting up fc5_classes_fc5_67_0_split
I0409 10:25:56.816038 27356 net.cpp:157] Top shape: 1024 67 (68608)
I0409 10:25:56.816042 27356 net.cpp:157] Top shape: 1024 67 (68608)
I0409 10:25:56.816045 27356 net.cpp:157] Top shape: 1024 67 (68608)
I0409 10:25:56.816047 27356 net.cpp:165] Memory required for data: 2189656064
I0409 10:25:56.816051 27356 layer_factory.hpp:77] Creating layer loss
I0409 10:25:56.816061 27356 net.cpp:100] Creating Layer loss
I0409 10:25:56.816063 27356 net.cpp:434] loss <- fc5_classes_fc5_67_0_split_0
I0409 10:25:56.816068 27356 net.cpp:434] loss <- label_data_1_split_0
I0409 10:25:56.816073 27356 net.cpp:408] loss -> loss
…
