…
I0415 03:37:00.698554 31845 solver.cpp:93] Creating training net from train_net file: ./Prototxt/experiment_12/rtsd-r1/AHE/trial_3/train.prototxt
I0415 03:37:00.713935 31845 net.cpp:58] Initializing net from parameters: 
state {
  phase: TRAIN
  level: 0
  stage: ""
}
layer {
  name: "data"
  type: "Data"
  top: "data"
  top: "label"
  include {
    phase: TRAIN
  }
  transform_param {
    scale: 0.0039215689
    mirror: false
    crop_size: 48
    mean_value: 132
    mean_value: 126
    mean_value: 140
  }
  data_param {
    source: "../local_data/lmdb/rtsd-r1/AHE/train/lmdb"
    batch_size: 1024
    backend: LMDB
  }
}
layer {
  name: "conv1"
  type: "Convolution"
  bottom: "data"
  top: "conv1"
  convolution_param {
    num_output: 100
    pad: 0
    kernel_size: 7
    group: 1
    stride: 1
    weight_filler {
      type: "xavier"
    }
  }
}
layer {
  name: "conv1_relu"
  type: "ReLU"
  bottom: "conv1"
  top: "conv1"
}
layer {
  name: "pool1"
  type: "Pooling"
  bottom: "conv1"
  top: "pool1"
  pooling_param {
    pool: MAX
    kernel_size: 2
    stride: 2
  }
}
layer {
  name: "conv2"
  type: "Convolution"
  bottom: "pool1"
  top: "conv2"
  convolution_param {
    num_output: 150
    pad: 0
    kernel_size: 4
    group: 1
    stride: 1
    weight_filler {
      type: "xavier"
    }
  }
}
layer {
  name: "conv2_relu"
  type: "ReLU"
  bottom: "conv2"
  top: "conv2"
}
layer {
  name: "pool2"
  type: "Pooling"
  bottom: "conv2"
  top: "pool2"
  pooling_param {
    pool: MAX
    kernel_size: 2
    stride: 2
  }
}
layer {
  name: "conv3"
  type: "Convolution"
  bottom: "pool2"
  top: "conv3"
  convolution_param {
    num_output: 250
    pad: 0
    kernel_size: 4
    group: 1
    stride: 1
    weight_filler {
      type: "xavier"
    }
  }
}
layer {
  name: "conv3_relu"
  type: "ReLU"
  bottom: "conv3"
  top: "conv3"
}
layer {
  name: "pool3"
  type: "Pooling"
  bottom: "conv3"
  top: "pool3"
  pooling_param {
    pool: MAX
    kernel_size: 2
    stride: 2
  }
}
layer {
  name: "fc4_300"
  type: "InnerProduct"
  bottom: "pool3"
  top: "fc4_300"
  inner_product_param {
    num_output: 300
    weight_filler {
      type: "xavier"
    }
  }
}
layer {
  name: "fc4_relu"
  type: "ReLU"
  bottom: "fc4_300"
  top: "fc4_300"
}
layer {
  name: "drop4"
  type: "Dropout"
  bottom: "fc4_300"
  top: "fc4_300"
  dropout_param {
    dropout_ratio: 0.5
  }
}
layer {
  name: "fc5_67"
  type: "InnerProduct"
  bottom: "fc4_300"
  top: "fc5_classes"
  inner_product_param {
    num_output: 67
    weight_filler {
      type: "xavier"
    }
  }
}
layer {
  name: "softmax"
  type: "Softmax"
  bottom: "fc5_classes"
  top: "softmax"
}
layer {
  name: "loss"
  type: "MultinomialLogisticLoss"
  bottom: "softmax"
  bottom: "label"
  top: "loss"
}
layer {
  name: "accuracy_1"
  type: "Accuracy"
  bottom: "fc5_classes"
  bottom: "label"
  top: "accuracy_1"
  accuracy_param {
    top_k: 1
  }
}
layer {
  name: "accuracy_5"
  type: "Accuracy"
  bottom: "fc5_classes"
  bottom: "label"
  top: "accuracy_5"
  accuracy_param {
    top_k: 5
  }
}
layer {
  name: "silence"
  type: "Silence"
  bottom: "accuracy_1"
  bottom: "accuracy_5"
}
I0415 03:37:00.714095 31845 layer_factory.hpp:77] Creating layer data
I0415 03:37:00.715178 31845 net.cpp:100] Creating Layer data
I0415 03:37:00.715193 31845 net.cpp:408] data -> data
I0415 03:37:00.715216 31845 net.cpp:408] data -> label
I0415 03:37:00.730962 32073 db_lmdb.cpp:35] Opened lmdb ../local_data/lmdb/rtsd-r1/AHE/train/lmdb
I0415 03:37:00.747833 31845 data_layer.cpp:41] output data size: 1024,3,48,48
I0415 03:37:00.854984 31845 net.cpp:150] Setting up data
I0415 03:37:00.855031 31845 net.cpp:157] Top shape: 1024 3 48 48 (7077888)
I0415 03:37:00.855042 31845 net.cpp:157] Top shape: 1024 (1024)
I0415 03:37:00.855048 31845 net.cpp:165] Memory required for data: 28315648
I0415 03:37:00.855067 31845 layer_factory.hpp:77] Creating layer label_data_1_split
I0415 03:37:00.855095 31845 net.cpp:100] Creating Layer label_data_1_split
I0415 03:37:00.855108 31845 net.cpp:434] label_data_1_split <- label
I0415 03:37:00.855139 31845 net.cpp:408] label_data_1_split -> label_data_1_split_0
I0415 03:37:00.855162 31845 net.cpp:408] label_data_1_split -> label_data_1_split_1
I0415 03:37:00.855175 31845 net.cpp:408] label_data_1_split -> label_data_1_split_2
I0415 03:37:00.855321 31845 net.cpp:150] Setting up label_data_1_split
I0415 03:37:00.855330 31845 net.cpp:157] Top shape: 1024 (1024)
I0415 03:37:00.855335 31845 net.cpp:157] Top shape: 1024 (1024)
I0415 03:37:00.855339 31845 net.cpp:157] Top shape: 1024 (1024)
I0415 03:37:00.855341 31845 net.cpp:165] Memory required for data: 28327936
I0415 03:37:00.855345 31845 layer_factory.hpp:77] Creating layer conv1
I0415 03:37:00.855362 31845 net.cpp:100] Creating Layer conv1
I0415 03:37:00.855372 31845 net.cpp:434] conv1 <- data
I0415 03:37:00.855379 31845 net.cpp:408] conv1 -> conv1
I0415 03:37:02.391707 31845 net.cpp:150] Setting up conv1
I0415 03:37:02.391744 31845 net.cpp:157] Top shape: 1024 100 42 42 (180633600)
I0415 03:37:02.391753 31845 net.cpp:165] Memory required for data: 750862336
I0415 03:37:02.391785 31845 layer_factory.hpp:77] Creating layer conv1_relu
I0415 03:37:02.391805 31845 net.cpp:100] Creating Layer conv1_relu
I0415 03:37:02.391811 31845 net.cpp:434] conv1_relu <- conv1
I0415 03:37:02.391824 31845 net.cpp:395] conv1_relu -> conv1 (in-place)
I0415 03:37:02.392194 31845 net.cpp:150] Setting up conv1_relu
I0415 03:37:02.392215 31845 net.cpp:157] Top shape: 1024 100 42 42 (180633600)
I0415 03:37:02.392220 31845 net.cpp:165] Memory required for data: 1473396736
I0415 03:37:02.392225 31845 layer_factory.hpp:77] Creating layer pool1
I0415 03:37:02.392246 31845 net.cpp:100] Creating Layer pool1
I0415 03:37:02.392254 31845 net.cpp:434] pool1 <- conv1
I0415 03:37:02.392267 31845 net.cpp:408] pool1 -> pool1
I0415 03:37:02.392354 31845 net.cpp:150] Setting up pool1
I0415 03:37:02.392365 31845 net.cpp:157] Top shape: 1024 100 21 21 (45158400)
I0415 03:37:02.392371 31845 net.cpp:165] Memory required for data: 1654030336
I0415 03:37:02.392374 31845 layer_factory.hpp:77] Creating layer conv2
I0415 03:37:02.392392 31845 net.cpp:100] Creating Layer conv2
I0415 03:37:02.392400 31845 net.cpp:434] conv2 <- pool1
I0415 03:37:02.392408 31845 net.cpp:408] conv2 -> conv2
I0415 03:37:02.400581 31845 net.cpp:150] Setting up conv2
I0415 03:37:02.400599 31845 net.cpp:157] Top shape: 1024 150 18 18 (49766400)
I0415 03:37:02.400604 31845 net.cpp:165] Memory required for data: 1853095936
I0415 03:37:02.400620 31845 layer_factory.hpp:77] Creating layer conv2_relu
I0415 03:37:02.400635 31845 net.cpp:100] Creating Layer conv2_relu
I0415 03:37:02.400643 31845 net.cpp:434] conv2_relu <- conv2
I0415 03:37:02.400656 31845 net.cpp:395] conv2_relu -> conv2 (in-place)
I0415 03:37:02.401672 31845 net.cpp:150] Setting up conv2_relu
I0415 03:37:02.401690 31845 net.cpp:157] Top shape: 1024 150 18 18 (49766400)
I0415 03:37:02.401692 31845 net.cpp:165] Memory required for data: 2052161536
I0415 03:37:02.401696 31845 layer_factory.hpp:77] Creating layer pool2
I0415 03:37:02.401703 31845 net.cpp:100] Creating Layer pool2
I0415 03:37:02.401707 31845 net.cpp:434] pool2 <- conv2
I0415 03:37:02.401712 31845 net.cpp:408] pool2 -> pool2
I0415 03:37:02.401764 31845 net.cpp:150] Setting up pool2
I0415 03:37:02.401774 31845 net.cpp:157] Top shape: 1024 150 9 9 (12441600)
I0415 03:37:02.401778 31845 net.cpp:165] Memory required for data: 2101927936
I0415 03:37:02.401782 31845 layer_factory.hpp:77] Creating layer conv3
I0415 03:37:02.401794 31845 net.cpp:100] Creating Layer conv3
I0415 03:37:02.401823 31845 net.cpp:434] conv3 <- pool2
I0415 03:37:02.401834 31845 net.cpp:408] conv3 -> conv3
I0415 03:37:02.410385 31845 net.cpp:150] Setting up conv3
I0415 03:37:02.410408 31845 net.cpp:157] Top shape: 1024 250 6 6 (9216000)
I0415 03:37:02.410413 31845 net.cpp:165] Memory required for data: 2138791936
I0415 03:37:02.410428 31845 layer_factory.hpp:77] Creating layer conv3_relu
I0415 03:37:02.410439 31845 net.cpp:100] Creating Layer conv3_relu
I0415 03:37:02.410445 31845 net.cpp:434] conv3_relu <- conv3
I0415 03:37:02.410459 31845 net.cpp:395] conv3_relu -> conv3 (in-place)
I0415 03:37:02.412521 31845 net.cpp:150] Setting up conv3_relu
I0415 03:37:02.412546 31845 net.cpp:157] Top shape: 1024 250 6 6 (9216000)
I0415 03:37:02.412550 31845 net.cpp:165] Memory required for data: 2175655936
I0415 03:37:02.412556 31845 layer_factory.hpp:77] Creating layer pool3
I0415 03:37:02.412569 31845 net.cpp:100] Creating Layer pool3
I0415 03:37:02.412572 31845 net.cpp:434] pool3 <- conv3
I0415 03:37:02.412580 31845 net.cpp:408] pool3 -> pool3
I0415 03:37:02.412657 31845 net.cpp:150] Setting up pool3
I0415 03:37:02.412672 31845 net.cpp:157] Top shape: 1024 250 3 3 (2304000)
I0415 03:37:02.412677 31845 net.cpp:165] Memory required for data: 2184871936
I0415 03:37:02.412681 31845 layer_factory.hpp:77] Creating layer fc4_300
I0415 03:37:02.412695 31845 net.cpp:100] Creating Layer fc4_300
I0415 03:37:02.412703 31845 net.cpp:434] fc4_300 <- pool3
I0415 03:37:02.412709 31845 net.cpp:408] fc4_300 -> fc4_300
I0415 03:37:02.419075 31845 net.cpp:150] Setting up fc4_300
I0415 03:37:02.419096 31845 net.cpp:157] Top shape: 1024 300 (307200)
I0415 03:37:02.419100 31845 net.cpp:165] Memory required for data: 2186100736
I0415 03:37:02.419108 31845 layer_factory.hpp:77] Creating layer fc4_relu
I0415 03:37:02.419116 31845 net.cpp:100] Creating Layer fc4_relu
I0415 03:37:02.419121 31845 net.cpp:434] fc4_relu <- fc4_300
I0415 03:37:02.419127 31845 net.cpp:395] fc4_relu -> fc4_300 (in-place)
I0415 03:37:02.419378 31845 net.cpp:150] Setting up fc4_relu
I0415 03:37:02.419394 31845 net.cpp:157] Top shape: 1024 300 (307200)
I0415 03:37:02.419396 31845 net.cpp:165] Memory required for data: 2187329536
I0415 03:37:02.419400 31845 layer_factory.hpp:77] Creating layer drop4
I0415 03:37:02.419409 31845 net.cpp:100] Creating Layer drop4
I0415 03:37:02.419417 31845 net.cpp:434] drop4 <- fc4_300
I0415 03:37:02.419426 31845 net.cpp:395] drop4 -> fc4_300 (in-place)
I0415 03:37:02.419464 31845 net.cpp:150] Setting up drop4
I0415 03:37:02.419472 31845 net.cpp:157] Top shape: 1024 300 (307200)
I0415 03:37:02.419476 31845 net.cpp:165] Memory required for data: 2188558336
I0415 03:37:02.419478 31845 layer_factory.hpp:77] Creating layer fc5_67
I0415 03:37:02.419486 31845 net.cpp:100] Creating Layer fc5_67
I0415 03:37:02.419489 31845 net.cpp:434] fc5_67 <- fc4_300
I0415 03:37:02.419497 31845 net.cpp:408] fc5_67 -> fc5_classes
I0415 03:37:02.421047 31845 net.cpp:150] Setting up fc5_67
I0415 03:37:02.421067 31845 net.cpp:157] Top shape: 1024 67 (68608)
I0415 03:37:02.421075 31845 net.cpp:165] Memory required for data: 2188832768
I0415 03:37:02.421087 31845 layer_factory.hpp:77] Creating layer fc5_classes_fc5_67_0_split
I0415 03:37:02.421097 31845 net.cpp:100] Creating Layer fc5_classes_fc5_67_0_split
I0415 03:37:02.421103 31845 net.cpp:434] fc5_classes_fc5_67_0_split <- fc5_classes
I0415 03:37:02.421113 31845 net.cpp:408] fc5_classes_fc5_67_0_split -> fc5_classes_fc5_67_0_split_0
I0415 03:37:02.421124 31845 net.cpp:408] fc5_classes_fc5_67_0_split -> fc5_classes_fc5_67_0_split_1
I0415 03:37:02.421133 31845 net.cpp:408] fc5_classes_fc5_67_0_split -> fc5_classes_fc5_67_0_split_2
I0415 03:37:02.421198 31845 net.cpp:150] Setting up fc5_classes_fc5_67_0_split
I0415 03:37:02.421205 31845 net.cpp:157] Top shape: 1024 67 (68608)
I0415 03:37:02.421213 31845 net.cpp:157] Top shape: 1024 67 (68608)
I0415 03:37:02.421217 31845 net.cpp:157] Top shape: 1024 67 (68608)
I0415 03:37:02.421219 31845 net.cpp:165] Memory required for data: 2189656064
I0415 03:37:02.421241 31845 layer_factory.hpp:77] Creating layer softmax
I0415 03:37:02.421254 31845 net.cpp:100] Creating Layer softmax
I0415 03:37:02.421260 31845 net.cpp:434] softmax <- fc5_classes_fc5_67_0_split_0
I0415 03:37:02.421267 31845 net.cpp:408] softmax -> softmax
I0415 03:37:02.421562 31845 net.cpp:150] Setting up softmax
I0415 03:37:02.421576 31845 net.cpp:157] Top shape: 1024 67 (68608)
I0415 03:37:02.421581 31845 net.cpp:165] Memory required for data: 2189930496
I0415 03:37:02.421587 31845 layer_factory.hpp:77] Creating layer loss
I0415 03:37:02.421599 31845 net.cpp:100] Creating Layer loss
I0415 03:37:02.421607 31845 net.cpp:434] loss <- softmax
I0415 03:37:02.421612 31845 net.cpp:434] loss <- label_data_1_split_0
I0415 03:37:02.421620 31845 net.cpp:408] loss -> loss
…
