…
I0415 20:53:54.652110  4100 solver.cpp:93] Creating training net from train_net file: ./Prototxt/experiment_12/rtsd-r3/histeq/trial_5/train.prototxt
I0415 20:53:54.652593  4100 net.cpp:58] Initializing net from parameters: 
state {
  phase: TRAIN
  level: 0
  stage: ""
}
layer {
  name: "data"
  type: "Data"
  top: "data"
  top: "label"
  include {
    phase: TRAIN
  }
  transform_param {
    scale: 0.0039215689
    mirror: false
    crop_size: 48
    mean_value: 135
    mean_value: 128
    mean_value: 128
  }
  data_param {
    source: "../local_data/lmdb/rtsd-r3/histeq/train/lmdb"
    batch_size: 1024
    backend: LMDB
  }
}
layer {
  name: "conv1"
  type: "Convolution"
  bottom: "data"
  top: "conv1"
  convolution_param {
    num_output: 100
    pad: 0
    kernel_size: 7
    group: 1
    stride: 1
    weight_filler {
      type: "xavier"
    }
  }
}
layer {
  name: "conv1_relu"
  type: "ReLU"
  bottom: "conv1"
  top: "conv1"
}
layer {
  name: "pool1"
  type: "Pooling"
  bottom: "conv1"
  top: "pool1"
  pooling_param {
    pool: MAX
    kernel_size: 2
    stride: 2
  }
}
layer {
  name: "conv2"
  type: "Convolution"
  bottom: "pool1"
  top: "conv2"
  convolution_param {
    num_output: 150
    pad: 0
    kernel_size: 4
    group: 1
    stride: 1
    weight_filler {
      type: "xavier"
    }
  }
}
layer {
  name: "conv2_relu"
  type: "ReLU"
  bottom: "conv2"
  top: "conv2"
}
layer {
  name: "pool2"
  type: "Pooling"
  bottom: "conv2"
  top: "pool2"
  pooling_param {
    pool: MAX
    kernel_size: 2
    stride: 2
  }
}
layer {
  name: "conv3"
  type: "Convolution"
  bottom: "pool2"
  top: "conv3"
  convolution_param {
    num_output: 250
    pad: 0
    kernel_size: 4
    group: 1
    stride: 1
    weight_filler {
      type: "xavier"
    }
  }
}
layer {
  name: "conv3_relu"
  type: "ReLU"
  bottom: "conv3"
  top: "conv3"
}
layer {
  name: "pool3"
  type: "Pooling"
  bottom: "conv3"
  top: "pool3"
  pooling_param {
    pool: MAX
    kernel_size: 2
    stride: 2
  }
}
layer {
  name: "fc4_300"
  type: "InnerProduct"
  bottom: "pool3"
  top: "fc4_300"
  inner_product_param {
    num_output: 300
    weight_filler {
      type: "xavier"
    }
  }
}
layer {
  name: "fc4_relu"
  type: "ReLU"
  bottom: "fc4_300"
  top: "fc4_300"
}
layer {
  name: "drop4"
  type: "Dropout"
  bottom: "fc4_300"
  top: "fc4_300"
  dropout_param {
    dropout_ratio: 0.5
  }
}
layer {
  name: "fc5_106"
  type: "InnerProduct"
  bottom: "fc4_300"
  top: "fc5_classes"
  inner_product_param {
    num_output: 106
    weight_filler {
      type: "xavier"
    }
  }
}
layer {
  name: "softmax"
  type: "Softmax"
  bottom: "fc5_classes"
  top: "softmax"
}
layer {
  name: "loss"
  type: "MultinomialLogisticLoss"
  bottom: "softmax"
  bottom: "label"
  top: "loss"
}
layer {
  name: "accuracy_1"
  type: "Accuracy"
  bottom: "fc5_classes"
  bottom: "label"
  top: "accuracy_1"
  accuracy_param {
    top_k: 1
  }
}
layer {
  name: "accuracy_5"
  type: "Accuracy"
  bottom: "fc5_classes"
  bottom: "label"
  top: "accuracy_5"
  accuracy_param {
    top_k: 5
  }
}
layer {
  name: "silence"
  type: "Silence"
  bottom: "accuracy_1"
  bottom: "accuracy_5"
}
I0415 20:53:54.652721  4100 layer_factory.hpp:77] Creating layer data
I0415 20:53:54.653898  4100 net.cpp:100] Creating Layer data
I0415 20:53:54.653934  4100 net.cpp:408] data -> data
I0415 20:53:54.653962  4100 net.cpp:408] data -> label
I0415 20:53:54.663324  4238 db_lmdb.cpp:35] Opened lmdb ../local_data/lmdb/rtsd-r3/histeq/train/lmdb
I0415 20:53:54.685822  4100 data_layer.cpp:41] output data size: 1024,3,48,48
I0415 20:53:54.750746  4100 net.cpp:150] Setting up data
I0415 20:53:54.750778  4100 net.cpp:157] Top shape: 1024 3 48 48 (7077888)
I0415 20:53:54.750784  4100 net.cpp:157] Top shape: 1024 (1024)
I0415 20:53:54.750787  4100 net.cpp:165] Memory required for data: 28315648
I0415 20:53:54.750798  4100 layer_factory.hpp:77] Creating layer label_data_1_split
I0415 20:53:54.750813  4100 net.cpp:100] Creating Layer label_data_1_split
I0415 20:53:54.750823  4100 net.cpp:434] label_data_1_split <- label
I0415 20:53:54.750838  4100 net.cpp:408] label_data_1_split -> label_data_1_split_0
I0415 20:53:54.750850  4100 net.cpp:408] label_data_1_split -> label_data_1_split_1
I0415 20:53:54.750859  4100 net.cpp:408] label_data_1_split -> label_data_1_split_2
I0415 20:53:54.750926  4100 net.cpp:150] Setting up label_data_1_split
I0415 20:53:54.750934  4100 net.cpp:157] Top shape: 1024 (1024)
I0415 20:53:54.750938  4100 net.cpp:157] Top shape: 1024 (1024)
I0415 20:53:54.750942  4100 net.cpp:157] Top shape: 1024 (1024)
I0415 20:53:54.750946  4100 net.cpp:165] Memory required for data: 28327936
I0415 20:53:54.750949  4100 layer_factory.hpp:77] Creating layer conv1
I0415 20:53:54.750967  4100 net.cpp:100] Creating Layer conv1
I0415 20:53:54.750972  4100 net.cpp:434] conv1 <- data
I0415 20:53:54.750977  4100 net.cpp:408] conv1 -> conv1
I0415 20:53:55.061872  4100 net.cpp:150] Setting up conv1
I0415 20:53:55.061900  4100 net.cpp:157] Top shape: 1024 100 42 42 (180633600)
I0415 20:53:55.061904  4100 net.cpp:165] Memory required for data: 750862336
I0415 20:53:55.061928  4100 layer_factory.hpp:77] Creating layer conv1_relu
I0415 20:53:55.061939  4100 net.cpp:100] Creating Layer conv1_relu
I0415 20:53:55.061944  4100 net.cpp:434] conv1_relu <- conv1
I0415 20:53:55.061956  4100 net.cpp:395] conv1_relu -> conv1 (in-place)
I0415 20:53:55.062153  4100 net.cpp:150] Setting up conv1_relu
I0415 20:53:55.062165  4100 net.cpp:157] Top shape: 1024 100 42 42 (180633600)
I0415 20:53:55.062170  4100 net.cpp:165] Memory required for data: 1473396736
I0415 20:53:55.062175  4100 layer_factory.hpp:77] Creating layer pool1
I0415 20:53:55.062185  4100 net.cpp:100] Creating Layer pool1
I0415 20:53:55.062189  4100 net.cpp:434] pool1 <- conv1
I0415 20:53:55.062194  4100 net.cpp:408] pool1 -> pool1
I0415 20:53:55.062249  4100 net.cpp:150] Setting up pool1
I0415 20:53:55.062258  4100 net.cpp:157] Top shape: 1024 100 21 21 (45158400)
I0415 20:53:55.062261  4100 net.cpp:165] Memory required for data: 1654030336
I0415 20:53:55.062265  4100 layer_factory.hpp:77] Creating layer conv2
I0415 20:53:55.062276  4100 net.cpp:100] Creating Layer conv2
I0415 20:53:55.062281  4100 net.cpp:434] conv2 <- pool1
I0415 20:53:55.062288  4100 net.cpp:408] conv2 -> conv2
I0415 20:53:55.074725  4100 net.cpp:150] Setting up conv2
I0415 20:53:55.074753  4100 net.cpp:157] Top shape: 1024 150 18 18 (49766400)
I0415 20:53:55.074756  4100 net.cpp:165] Memory required for data: 1853095936
I0415 20:53:55.074772  4100 layer_factory.hpp:77] Creating layer conv2_relu
I0415 20:53:55.074784  4100 net.cpp:100] Creating Layer conv2_relu
I0415 20:53:55.074790  4100 net.cpp:434] conv2_relu <- conv2
I0415 20:53:55.074795  4100 net.cpp:395] conv2_relu -> conv2 (in-place)
I0415 20:53:55.075829  4100 net.cpp:150] Setting up conv2_relu
I0415 20:53:55.075845  4100 net.cpp:157] Top shape: 1024 150 18 18 (49766400)
I0415 20:53:55.075851  4100 net.cpp:165] Memory required for data: 2052161536
I0415 20:53:55.075855  4100 layer_factory.hpp:77] Creating layer pool2
I0415 20:53:55.075862  4100 net.cpp:100] Creating Layer pool2
I0415 20:53:55.075867  4100 net.cpp:434] pool2 <- conv2
I0415 20:53:55.075873  4100 net.cpp:408] pool2 -> pool2
I0415 20:53:55.075947  4100 net.cpp:150] Setting up pool2
I0415 20:53:55.075958  4100 net.cpp:157] Top shape: 1024 150 9 9 (12441600)
I0415 20:53:55.075963  4100 net.cpp:165] Memory required for data: 2101927936
I0415 20:53:55.075965  4100 layer_factory.hpp:77] Creating layer conv3
I0415 20:53:55.076001  4100 net.cpp:100] Creating Layer conv3
I0415 20:53:55.076007  4100 net.cpp:434] conv3 <- pool2
I0415 20:53:55.076014  4100 net.cpp:408] conv3 -> conv3
I0415 20:53:55.082298  4100 net.cpp:150] Setting up conv3
I0415 20:53:55.082329  4100 net.cpp:157] Top shape: 1024 250 6 6 (9216000)
I0415 20:53:55.082332  4100 net.cpp:165] Memory required for data: 2138791936
I0415 20:53:55.082346  4100 layer_factory.hpp:77] Creating layer conv3_relu
I0415 20:53:55.082358  4100 net.cpp:100] Creating Layer conv3_relu
I0415 20:53:55.082365  4100 net.cpp:434] conv3_relu <- conv3
I0415 20:53:55.082370  4100 net.cpp:395] conv3_relu -> conv3 (in-place)
I0415 20:53:55.083400  4100 net.cpp:150] Setting up conv3_relu
I0415 20:53:55.083416  4100 net.cpp:157] Top shape: 1024 250 6 6 (9216000)
I0415 20:53:55.083421  4100 net.cpp:165] Memory required for data: 2175655936
I0415 20:53:55.083425  4100 layer_factory.hpp:77] Creating layer pool3
I0415 20:53:55.083433  4100 net.cpp:100] Creating Layer pool3
I0415 20:53:55.083438  4100 net.cpp:434] pool3 <- conv3
I0415 20:53:55.083446  4100 net.cpp:408] pool3 -> pool3
I0415 20:53:55.083497  4100 net.cpp:150] Setting up pool3
I0415 20:53:55.083504  4100 net.cpp:157] Top shape: 1024 250 3 3 (2304000)
I0415 20:53:55.083509  4100 net.cpp:165] Memory required for data: 2184871936
I0415 20:53:55.083513  4100 layer_factory.hpp:77] Creating layer fc4_300
I0415 20:53:55.083520  4100 net.cpp:100] Creating Layer fc4_300
I0415 20:53:55.083524  4100 net.cpp:434] fc4_300 <- pool3
I0415 20:53:55.083530  4100 net.cpp:408] fc4_300 -> fc4_300
I0415 20:53:55.090041  4100 net.cpp:150] Setting up fc4_300
I0415 20:53:55.090072  4100 net.cpp:157] Top shape: 1024 300 (307200)
I0415 20:53:55.090076  4100 net.cpp:165] Memory required for data: 2186100736
I0415 20:53:55.090086  4100 layer_factory.hpp:77] Creating layer fc4_relu
I0415 20:53:55.090096  4100 net.cpp:100] Creating Layer fc4_relu
I0415 20:53:55.090101  4100 net.cpp:434] fc4_relu <- fc4_300
I0415 20:53:55.090107  4100 net.cpp:395] fc4_relu -> fc4_300 (in-place)
I0415 20:53:55.090327  4100 net.cpp:150] Setting up fc4_relu
I0415 20:53:55.090338  4100 net.cpp:157] Top shape: 1024 300 (307200)
I0415 20:53:55.090342  4100 net.cpp:165] Memory required for data: 2187329536
I0415 20:53:55.090347  4100 layer_factory.hpp:77] Creating layer drop4
I0415 20:53:55.090354  4100 net.cpp:100] Creating Layer drop4
I0415 20:53:55.090359  4100 net.cpp:434] drop4 <- fc4_300
I0415 20:53:55.090364  4100 net.cpp:395] drop4 -> fc4_300 (in-place)
I0415 20:53:55.090396  4100 net.cpp:150] Setting up drop4
I0415 20:53:55.090404  4100 net.cpp:157] Top shape: 1024 300 (307200)
I0415 20:53:55.090407  4100 net.cpp:165] Memory required for data: 2188558336
I0415 20:53:55.090410  4100 layer_factory.hpp:77] Creating layer fc5_106
I0415 20:53:55.090418  4100 net.cpp:100] Creating Layer fc5_106
I0415 20:53:55.090422  4100 net.cpp:434] fc5_106 <- fc4_300
I0415 20:53:55.090428  4100 net.cpp:408] fc5_106 -> fc5_classes
I0415 20:53:55.092808  4100 net.cpp:150] Setting up fc5_106
I0415 20:53:55.092826  4100 net.cpp:157] Top shape: 1024 106 (108544)
I0415 20:53:55.092830  4100 net.cpp:165] Memory required for data: 2188992512
I0415 20:53:55.092841  4100 layer_factory.hpp:77] Creating layer fc5_classes_fc5_106_0_split
I0415 20:53:55.092850  4100 net.cpp:100] Creating Layer fc5_classes_fc5_106_0_split
I0415 20:53:55.092854  4100 net.cpp:434] fc5_classes_fc5_106_0_split <- fc5_classes
I0415 20:53:55.092859  4100 net.cpp:408] fc5_classes_fc5_106_0_split -> fc5_classes_fc5_106_0_split_0
I0415 20:53:55.092867  4100 net.cpp:408] fc5_classes_fc5_106_0_split -> fc5_classes_fc5_106_0_split_1
I0415 20:53:55.092876  4100 net.cpp:408] fc5_classes_fc5_106_0_split -> fc5_classes_fc5_106_0_split_2
I0415 20:53:55.092926  4100 net.cpp:150] Setting up fc5_classes_fc5_106_0_split
I0415 20:53:55.092933  4100 net.cpp:157] Top shape: 1024 106 (108544)
I0415 20:53:55.092937  4100 net.cpp:157] Top shape: 1024 106 (108544)
I0415 20:53:55.092941  4100 net.cpp:157] Top shape: 1024 106 (108544)
I0415 20:53:55.092944  4100 net.cpp:165] Memory required for data: 2190295040
I0415 20:53:55.092967  4100 layer_factory.hpp:77] Creating layer softmax
I0415 20:53:55.092978  4100 net.cpp:100] Creating Layer softmax
I0415 20:53:55.092983  4100 net.cpp:434] softmax <- fc5_classes_fc5_106_0_split_0
I0415 20:53:55.092988  4100 net.cpp:408] softmax -> softmax
I0415 20:53:55.093237  4100 net.cpp:150] Setting up softmax
I0415 20:53:55.093250  4100 net.cpp:157] Top shape: 1024 106 (108544)
I0415 20:53:55.093255  4100 net.cpp:165] Memory required for data: 2190729216
I0415 20:53:55.093258  4100 layer_factory.hpp:77] Creating layer loss
I0415 20:53:55.093266  4100 net.cpp:100] Creating Layer loss
I0415 20:53:55.093268  4100 net.cpp:434] loss <- softmax
I0415 20:53:55.093273  4100 net.cpp:434] loss <- label_data_1_split_0
I0415 20:53:55.093281  4100 net.cpp:408] loss -> loss
…
