…
I0404 01:07:51.253983 30177 net.cpp:322] The NetState phase (0) differed from the phase (1) specified by a rule in layer accuracy_1
I0404 01:07:51.253998 30177 net.cpp:322] The NetState phase (0) differed from the phase (1) specified by a rule in layer accuracy_5
I0404 01:07:51.254106 30177 net.cpp:58] Initializing net from parameters: 
state {
  phase: TRAIN
  level: 0
  stage: ""
}
layer {
  name: "data"
  type: "Data"
  top: "data"
  top: "label"
  include {
    phase: TRAIN
  }
  transform_param {
    mirror: false
    crop_size: 48
  }
  data_param {
    source: "../local_data/lmdb/rtsd-r1/histeq/train/lmdb"
    batch_size: 1500
    backend: LMDB
  }
}
layer {
  name: "conv1"
  type: "Convolution"
  bottom: "data"
  top: "conv1"
  convolution_param {
    num_output: 100
    pad: 0
    kernel_size: 7
    group: 1
    stride: 1
    weight_filler {
      type: "xavier"
    }
  }
}
layer {
  name: "conv1_relu"
  type: "ReLU"
  bottom: "conv1"
  top: "conv1"
}
layer {
  name: "pool1"
  type: "Pooling"
  bottom: "conv1"
  top: "pool1"
  pooling_param {
    pool: MAX
    kernel_size: 2
    stride: 2
  }
}
layer {
  name: "conv2"
  type: "Convolution"
  bottom: "pool1"
  top: "conv2"
  convolution_param {
    num_output: 150
    pad: 0
    kernel_size: 4
    group: 1
    stride: 1
    weight_filler {
      type: "xavier"
    }
  }
}
layer {
  name: "conv2_relu"
  type: "ReLU"
  bottom: "conv2"
  top: "conv2"
}
layer {
  name: "pool2"
  type: "Pooling"
  bottom: "conv2"
  top: "pool2"
  pooling_param {
    pool: MAX
    kernel_size: 2
    stride: 2
  }
}
layer {
  name: "conv3"
  type: "Convolution"
  bottom: "pool2"
  top: "conv3"
  convolution_param {
    num_output: 250
    pad: 0
    kernel_size: 4
    group: 1
    stride: 1
    weight_filler {
      type: "xavier"
    }
  }
}
layer {
  name: "conv3_relu"
  type: "ReLU"
  bottom: "conv3"
  top: "conv3"
}
layer {
  name: "pool3"
  type: "Pooling"
  bottom: "conv3"
  top: "pool3"
  pooling_param {
    pool: MAX
    kernel_size: 2
    stride: 2
  }
}
layer {
  name: "fc4_300"
  type: "InnerProduct"
  bottom: "pool3"
  top: "fc4_300"
  inner_product_param {
    num_output: 300
    weight_filler {
      type: "xavier"
    }
  }
}
layer {
  name: "fc4_relu"
  type: "ReLU"
  bottom: "fc4_300"
  top: "fc4_300"
}
layer {
  name: "drop4"
  type: "Dropout"
  bottom: "fc4_300"
  top: "fc4_300"
  dropout_param {
    dropout_ratio: 0.4
  }
}
layer {
  name: "fc5_67"
  type: "InnerProduct"
  bottom: "fc4_300"
  top: "fc5_classes"
  inner_product_param {
    num_output: 67
    weight_filler {
      type: "xavier"
    }
  }
}
layer {
  name: "loss"
  type: "SoftmaxWithLoss"
  bottom: "fc5_classes"
  bottom: "label"
  top: "loss"
}
I0404 01:07:51.254185 30177 layer_factory.hpp:77] Creating layer data
I0404 01:07:51.255592 30177 net.cpp:100] Creating Layer data
I0404 01:07:51.255638 30177 net.cpp:408] data -> data
I0404 01:07:51.255688 30177 net.cpp:408] data -> label
I0404 01:07:51.312207 30446 db_lmdb.cpp:35] Opened lmdb ../local_data/lmdb/rtsd-r1/histeq/train/lmdb
I0404 01:07:51.469758 30177 data_layer.cpp:41] output data size: 1500,3,48,48
I0404 01:07:51.575501 30177 net.cpp:150] Setting up data
I0404 01:07:51.575556 30177 net.cpp:157] Top shape: 1500 3 48 48 (10368000)
I0404 01:07:51.575569 30177 net.cpp:157] Top shape: 1500 (1500)
I0404 01:07:51.575575 30177 net.cpp:165] Memory required for data: 41478000
I0404 01:07:51.575619 30177 layer_factory.hpp:77] Creating layer conv1
I0404 01:07:51.575660 30177 net.cpp:100] Creating Layer conv1
I0404 01:07:51.575675 30177 net.cpp:434] conv1 <- data
I0404 01:07:51.575696 30177 net.cpp:408] conv1 -> conv1
I0404 01:07:52.356027 30177 net.cpp:150] Setting up conv1
I0404 01:07:52.356067 30177 net.cpp:157] Top shape: 1500 100 42 42 (264600000)
I0404 01:07:52.356073 30177 net.cpp:165] Memory required for data: 1099878000
I0404 01:07:52.356106 30177 layer_factory.hpp:77] Creating layer conv1_relu
I0404 01:07:52.356130 30177 net.cpp:100] Creating Layer conv1_relu
I0404 01:07:52.356142 30177 net.cpp:434] conv1_relu <- conv1
I0404 01:07:52.356153 30177 net.cpp:395] conv1_relu -> conv1 (in-place)
I0404 01:07:52.358081 30177 net.cpp:150] Setting up conv1_relu
I0404 01:07:52.358098 30177 net.cpp:157] Top shape: 1500 100 42 42 (264600000)
I0404 01:07:52.358103 30177 net.cpp:165] Memory required for data: 2158278000
I0404 01:07:52.358109 30177 layer_factory.hpp:77] Creating layer pool1
I0404 01:07:52.358120 30177 net.cpp:100] Creating Layer pool1
I0404 01:07:52.358131 30177 net.cpp:434] pool1 <- conv1
I0404 01:07:52.358141 30177 net.cpp:408] pool1 -> pool1
I0404 01:07:52.358209 30177 net.cpp:150] Setting up pool1
I0404 01:07:52.358222 30177 net.cpp:157] Top shape: 1500 100 21 21 (66150000)
I0404 01:07:52.358227 30177 net.cpp:165] Memory required for data: 2422878000
I0404 01:07:52.358233 30177 layer_factory.hpp:77] Creating layer conv2
I0404 01:07:52.358254 30177 net.cpp:100] Creating Layer conv2
I0404 01:07:52.358261 30177 net.cpp:434] conv2 <- pool1
I0404 01:07:52.358270 30177 net.cpp:408] conv2 -> conv2
I0404 01:07:52.365950 30177 net.cpp:150] Setting up conv2
I0404 01:07:52.365983 30177 net.cpp:157] Top shape: 1500 150 18 18 (72900000)
I0404 01:07:52.365990 30177 net.cpp:165] Memory required for data: 2714478000
I0404 01:07:52.366009 30177 layer_factory.hpp:77] Creating layer conv2_relu
I0404 01:07:52.366034 30177 net.cpp:100] Creating Layer conv2_relu
I0404 01:07:52.366044 30177 net.cpp:434] conv2_relu <- conv2
I0404 01:07:52.366055 30177 net.cpp:395] conv2_relu -> conv2 (in-place)
I0404 01:07:52.366996 30177 net.cpp:150] Setting up conv2_relu
I0404 01:07:52.367015 30177 net.cpp:157] Top shape: 1500 150 18 18 (72900000)
I0404 01:07:52.367022 30177 net.cpp:165] Memory required for data: 3006078000
I0404 01:07:52.367027 30177 layer_factory.hpp:77] Creating layer pool2
I0404 01:07:52.367039 30177 net.cpp:100] Creating Layer pool2
I0404 01:07:52.367050 30177 net.cpp:434] pool2 <- conv2
I0404 01:07:52.367063 30177 net.cpp:408] pool2 -> pool2
I0404 01:07:52.367130 30177 net.cpp:150] Setting up pool2
I0404 01:07:52.367143 30177 net.cpp:157] Top shape: 1500 150 9 9 (18225000)
I0404 01:07:52.367151 30177 net.cpp:165] Memory required for data: 3078978000
I0404 01:07:52.367161 30177 layer_factory.hpp:77] Creating layer conv3
I0404 01:07:52.367175 30177 net.cpp:100] Creating Layer conv3
I0404 01:07:52.367182 30177 net.cpp:434] conv3 <- pool2
I0404 01:07:52.367193 30177 net.cpp:408] conv3 -> conv3
I0404 01:07:52.375941 30177 net.cpp:150] Setting up conv3
I0404 01:07:52.375968 30177 net.cpp:157] Top shape: 1500 250 6 6 (13500000)
I0404 01:07:52.375974 30177 net.cpp:165] Memory required for data: 3132978000
I0404 01:07:52.375993 30177 layer_factory.hpp:77] Creating layer conv3_relu
I0404 01:07:52.376025 30177 net.cpp:100] Creating Layer conv3_relu
I0404 01:07:52.376034 30177 net.cpp:434] conv3_relu <- conv3
I0404 01:07:52.376045 30177 net.cpp:395] conv3_relu -> conv3 (in-place)
I0404 01:07:52.378029 30177 net.cpp:150] Setting up conv3_relu
I0404 01:07:52.378051 30177 net.cpp:157] Top shape: 1500 250 6 6 (13500000)
I0404 01:07:52.378057 30177 net.cpp:165] Memory required for data: 3186978000
I0404 01:07:52.378063 30177 layer_factory.hpp:77] Creating layer pool3
I0404 01:07:52.378074 30177 net.cpp:100] Creating Layer pool3
I0404 01:07:52.378087 30177 net.cpp:434] pool3 <- conv3
I0404 01:07:52.378098 30177 net.cpp:408] pool3 -> pool3
I0404 01:07:52.378170 30177 net.cpp:150] Setting up pool3
I0404 01:07:52.378201 30177 net.cpp:157] Top shape: 1500 250 3 3 (3375000)
I0404 01:07:52.378206 30177 net.cpp:165] Memory required for data: 3200478000
I0404 01:07:52.378216 30177 layer_factory.hpp:77] Creating layer fc4_300
I0404 01:07:52.378237 30177 net.cpp:100] Creating Layer fc4_300
I0404 01:07:52.378243 30177 net.cpp:434] fc4_300 <- pool3
I0404 01:07:52.378253 30177 net.cpp:408] fc4_300 -> fc4_300
I0404 01:07:52.384511 30177 net.cpp:150] Setting up fc4_300
I0404 01:07:52.384538 30177 net.cpp:157] Top shape: 1500 300 (450000)
I0404 01:07:52.384544 30177 net.cpp:165] Memory required for data: 3202278000
I0404 01:07:52.384558 30177 layer_factory.hpp:77] Creating layer fc4_relu
I0404 01:07:52.384577 30177 net.cpp:100] Creating Layer fc4_relu
I0404 01:07:52.384588 30177 net.cpp:434] fc4_relu <- fc4_300
I0404 01:07:52.384603 30177 net.cpp:395] fc4_relu -> fc4_300 (in-place)
I0404 01:07:52.384876 30177 net.cpp:150] Setting up fc4_relu
I0404 01:07:52.384892 30177 net.cpp:157] Top shape: 1500 300 (450000)
I0404 01:07:52.384897 30177 net.cpp:165] Memory required for data: 3204078000
I0404 01:07:52.384903 30177 layer_factory.hpp:77] Creating layer drop4
I0404 01:07:52.384920 30177 net.cpp:100] Creating Layer drop4
I0404 01:07:52.384927 30177 net.cpp:434] drop4 <- fc4_300
I0404 01:07:52.384935 30177 net.cpp:395] drop4 -> fc4_300 (in-place)
I0404 01:07:52.384979 30177 net.cpp:150] Setting up drop4
I0404 01:07:52.384991 30177 net.cpp:157] Top shape: 1500 300 (450000)
I0404 01:07:52.385010 30177 net.cpp:165] Memory required for data: 3205878000
I0404 01:07:52.385016 30177 layer_factory.hpp:77] Creating layer fc5_67
I0404 01:07:52.385027 30177 net.cpp:100] Creating Layer fc5_67
I0404 01:07:52.385035 30177 net.cpp:434] fc5_67 <- fc4_300
I0404 01:07:52.385048 30177 net.cpp:408] fc5_67 -> fc5_classes
I0404 01:07:52.386380 30177 net.cpp:150] Setting up fc5_67
I0404 01:07:52.386397 30177 net.cpp:157] Top shape: 1500 67 (100500)
I0404 01:07:52.386404 30177 net.cpp:165] Memory required for data: 3206280000
I0404 01:07:52.386420 30177 layer_factory.hpp:77] Creating layer loss
I0404 01:07:52.386435 30177 net.cpp:100] Creating Layer loss
I0404 01:07:52.386442 30177 net.cpp:434] loss <- fc5_classes
I0404 01:07:52.386451 30177 net.cpp:434] loss <- label
I0404 01:07:52.386462 30177 net.cpp:408] loss -> loss
I0404 01:07:52.386483 30177 layer_factory.hpp:77] Creating layer loss
…
I0404 01:07:52.387069 30177 net.cpp:283] Network initialization done.
I0404 01:07:52.387284 30177 solver.cpp:193] Creating test net (#0) specified by test_net file: ./Prototxt/experiment_4/rtsd-r1/histeq/test.prototxt
I0404 01:07:52.387430 30177 net.cpp:58] Initializing net from parameters: 
state {
  phase: TEST
}
layer {
  name: "data"
  type: "Data"
  top: "data"
  top: "label"
  include {
    phase: TEST
  }
  transform_param {
    mirror: false
    crop_size: 48
  }
  data_param {
    source: "../local_data/lmdb/rtsd-r1/histeq/test/lmdb"
    batch_size: 1500
    backend: LMDB
  }
}
layer {
  name: "conv1"
  type: "Convolution"
  bottom: "data"
  top: "conv1"
  convolution_param {
    num_output: 100
    pad: 0
    kernel_size: 7
    group: 1
    stride: 1
    weight_filler {
      type: "xavier"
    }
  }
}
layer {
  name: "conv1_relu"
  type: "ReLU"
  bottom: "conv1"
  top: "conv1"
}
layer {
  name: "pool1"
  type: "Pooling"
  bottom: "conv1"
  top: "pool1"
  pooling_param {
    pool: MAX
    kernel_size: 2
    stride: 2
  }
}
layer {
  name: "conv2"
  type: "Convolution"
  bottom: "pool1"
  top: "conv2"
  convolution_param {
    num_output: 150
    pad: 0
    kernel_size: 4
    group: 1
    stride: 1
    weight_filler {
      type: "xavier"
    }
  }
}
layer {
  name: "conv2_relu"
  type: "ReLU"
  bottom: "conv2"
  top: "conv2"
}
layer {
  name: "pool2"
  type: "Pooling"
  bottom: "conv2"
  top: "pool2"
  pooling_param {
    pool: MAX
    kernel_size: 2
    stride: 2
  }
}
layer {
  name: "conv3"
  type: "Convolution"
  bottom: "pool2"
  top: "conv3"
  convolution_param {
    num_output: 250
    pad: 0
    kernel_size: 4
    group: 1
    stride: 1
    weight_filler {
      type: "xavier"
    }
  }
}
layer {
  name: "conv3_relu"
  type: "ReLU"
  bottom: "conv3"
  top: "conv3"
}
layer {
  name: "pool3"
  type: "Pooling"
  bottom: "conv3"
  top: "pool3"
  pooling_param {
    pool: MAX
    kernel_size: 2
    stride: 2
  }
}
layer {
  name: "fc4_300"
  type: "InnerProduct"
  bottom: "pool3"
  top: "fc4_300"
  inner_product_param {
    num_output: 300
    weight_filler {
      type: "xavier"
    }
  }
}
layer {
  name: "fc4_relu"
  type: "ReLU"
  bottom: "fc4_300"
  top: "fc4_300"
}
layer {
  name: "drop4"
  type: "Dropout"
  bottom: "fc4_300"
  top: "fc4_300"
  dropout_param {
    dropout_ratio: 0.4
  }
}
layer {
  name: "fc5_67"
  type: "InnerProduct"
  bottom: "fc4_300"
  top: "fc5_classes"
  inner_product_param {
    num_output: 67
    weight_filler {
      type: "xavier"
    }
  }
}
layer {
  name: "loss"
  type: "SoftmaxWithLoss"
  bottom: "fc5_classes"
  bottom: "label"
  top: "loss"
}
layer {
  name: "accuracy_1"
  type: "Accuracy"
  bottom: "fc5_classes"
  bottom: "label"
  top: "accuracy_1"
  include {
    phase: TEST
  }
  accuracy_param {
    top_k: 1
  }
}
layer {
  name: "accuracy_5"
  type: "Accuracy"
  bottom: "fc5_classes"
  bottom: "label"
  top: "accuracy_5"
  include {
    phase: TEST
  }
  accuracy_param {
    top_k: 5
  }
}
I0404 01:07:52.387550 30177 layer_factory.hpp:77] Creating layer data
I0404 01:07:52.388739 30177 net.cpp:100] Creating Layer data
I0404 01:07:52.388757 30177 net.cpp:408] data -> data
I0404 01:07:52.388773 30177 net.cpp:408] data -> label
I0404 01:07:52.394156 30591 db_lmdb.cpp:35] Opened lmdb ../local_data/lmdb/rtsd-r1/histeq/test/lmdb
I0404 01:07:52.394361 30177 data_layer.cpp:41] output data size: 1500,3,48,48
I0404 01:07:52.560283 30177 net.cpp:150] Setting up data
I0404 01:07:52.560333 30177 net.cpp:157] Top shape: 1500 3 48 48 (10368000)
I0404 01:07:52.560341 30177 net.cpp:157] Top shape: 1500 (1500)
I0404 01:07:52.560346 30177 net.cpp:165] Memory required for data: 41478000
I0404 01:07:52.560356 30177 layer_factory.hpp:77] Creating layer label_data_1_split
I0404 01:07:52.560376 30177 net.cpp:100] Creating Layer label_data_1_split
I0404 01:07:52.560384 30177 net.cpp:434] label_data_1_split <- label
I0404 01:07:52.560889 30177 net.cpp:408] label_data_1_split -> label_data_1_split_0
I0404 01:07:52.560916 30177 net.cpp:408] label_data_1_split -> label_data_1_split_1
I0404 01:07:52.560928 30177 net.cpp:408] label_data_1_split -> label_data_1_split_2
I0404 01:07:52.561185 30177 net.cpp:150] Setting up label_data_1_split
I0404 01:07:52.561203 30177 net.cpp:157] Top shape: 1500 (1500)
I0404 01:07:52.561226 30177 net.cpp:157] Top shape: 1500 (1500)
I0404 01:07:52.561235 30177 net.cpp:157] Top shape: 1500 (1500)
I0404 01:07:52.561241 30177 net.cpp:165] Memory required for data: 41496000
I0404 01:07:52.561249 30177 layer_factory.hpp:77] Creating layer conv1
I0404 01:07:52.561269 30177 net.cpp:100] Creating Layer conv1
I0404 01:07:52.561275 30177 net.cpp:434] conv1 <- data
I0404 01:07:52.561290 30177 net.cpp:408] conv1 -> conv1
I0404 01:07:52.569792 30177 net.cpp:150] Setting up conv1
I0404 01:07:52.569878 30177 net.cpp:157] Top shape: 1500 100 42 42 (264600000)
I0404 01:07:52.569906 30177 net.cpp:165] Memory required for data: 1099896000
I0404 01:07:52.569947 30177 layer_factory.hpp:77] Creating layer conv1_relu
I0404 01:07:52.569981 30177 net.cpp:100] Creating Layer conv1_relu
I0404 01:07:52.570006 30177 net.cpp:434] conv1_relu <- conv1
I0404 01:07:52.570035 30177 net.cpp:395] conv1_relu -> conv1 (in-place)
I0404 01:07:52.571033 30177 net.cpp:150] Setting up conv1_relu
I0404 01:07:52.571076 30177 net.cpp:157] Top shape: 1500 100 42 42 (264600000)
I0404 01:07:52.571101 30177 net.cpp:165] Memory required for data: 2158296000
I0404 01:07:52.571125 30177 layer_factory.hpp:77] Creating layer pool1
I0404 01:07:52.571154 30177 net.cpp:100] Creating Layer pool1
I0404 01:07:52.571175 30177 net.cpp:434] pool1 <- conv1
I0404 01:07:52.571199 30177 net.cpp:408] pool1 -> pool1
I0404 01:07:52.571308 30177 net.cpp:150] Setting up pool1
I0404 01:07:52.571338 30177 net.cpp:157] Top shape: 1500 100 21 21 (66150000)
I0404 01:07:52.571357 30177 net.cpp:165] Memory required for data: 2422896000
I0404 01:07:52.571377 30177 layer_factory.hpp:77] Creating layer conv2
I0404 01:07:52.571411 30177 net.cpp:100] Creating Layer conv2
I0404 01:07:52.571434 30177 net.cpp:434] conv2 <- pool1
I0404 01:07:52.571460 30177 net.cpp:408] conv2 -> conv2
I0404 01:07:52.586441 30177 net.cpp:150] Setting up conv2
I0404 01:07:52.586482 30177 net.cpp:157] Top shape: 1500 150 18 18 (72900000)
I0404 01:07:52.586489 30177 net.cpp:165] Memory required for data: 2714496000
I0404 01:07:52.586511 30177 layer_factory.hpp:77] Creating layer conv2_relu
I0404 01:07:52.586526 30177 net.cpp:100] Creating Layer conv2_relu
I0404 01:07:52.586532 30177 net.cpp:434] conv2_relu <- conv2
I0404 01:07:52.586544 30177 net.cpp:395] conv2_relu -> conv2 (in-place)
I0404 01:07:52.588392 30177 net.cpp:150] Setting up conv2_relu
I0404 01:07:52.588414 30177 net.cpp:157] Top shape: 1500 150 18 18 (72900000)
I0404 01:07:52.588419 30177 net.cpp:165] Memory required for data: 3006096000
I0404 01:07:52.588426 30177 layer_factory.hpp:77] Creating layer pool2
I0404 01:07:52.588438 30177 net.cpp:100] Creating Layer pool2
I0404 01:07:52.588444 30177 net.cpp:434] pool2 <- conv2
I0404 01:07:52.588456 30177 net.cpp:408] pool2 -> pool2
I0404 01:07:52.588537 30177 net.cpp:150] Setting up pool2
I0404 01:07:52.588551 30177 net.cpp:157] Top shape: 1500 150 9 9 (18225000)
I0404 01:07:52.588556 30177 net.cpp:165] Memory required for data: 3078996000
I0404 01:07:52.588560 30177 layer_factory.hpp:77] Creating layer conv3
I0404 01:07:52.588580 30177 net.cpp:100] Creating Layer conv3
I0404 01:07:52.588587 30177 net.cpp:434] conv3 <- pool2
I0404 01:07:52.588595 30177 net.cpp:408] conv3 -> conv3
I0404 01:07:52.606137 30177 net.cpp:150] Setting up conv3
I0404 01:07:52.606180 30177 net.cpp:157] Top shape: 1500 250 6 6 (13500000)
I0404 01:07:52.606187 30177 net.cpp:165] Memory required for data: 3132996000
I0404 01:07:52.606209 30177 layer_factory.hpp:77] Creating layer conv3_relu
I0404 01:07:52.606225 30177 net.cpp:100] Creating Layer conv3_relu
I0404 01:07:52.606233 30177 net.cpp:434] conv3_relu <- conv3
I0404 01:07:52.606245 30177 net.cpp:395] conv3_relu -> conv3 (in-place)
I0404 01:07:52.608129 30177 net.cpp:150] Setting up conv3_relu
I0404 01:07:52.608149 30177 net.cpp:157] Top shape: 1500 250 6 6 (13500000)
I0404 01:07:52.608155 30177 net.cpp:165] Memory required for data: 3186996000
I0404 01:07:52.608160 30177 layer_factory.hpp:77] Creating layer pool3
I0404 01:07:52.608175 30177 net.cpp:100] Creating Layer pool3
I0404 01:07:52.608202 30177 net.cpp:434] pool3 <- conv3
I0404 01:07:52.608213 30177 net.cpp:408] pool3 -> pool3
I0404 01:07:52.612356 30177 net.cpp:150] Setting up pool3
I0404 01:07:52.612385 30177 net.cpp:157] Top shape: 1500 250 3 3 (3375000)
I0404 01:07:52.612392 30177 net.cpp:165] Memory required for data: 3200496000
I0404 01:07:52.612399 30177 layer_factory.hpp:77] Creating layer fc4_300
I0404 01:07:52.612416 30177 net.cpp:100] Creating Layer fc4_300
I0404 01:07:52.612423 30177 net.cpp:434] fc4_300 <- pool3
I0404 01:07:52.612433 30177 net.cpp:408] fc4_300 -> fc4_300
I0404 01:07:52.626541 30177 net.cpp:150] Setting up fc4_300
I0404 01:07:52.626579 30177 net.cpp:157] Top shape: 1500 300 (450000)
I0404 01:07:52.626585 30177 net.cpp:165] Memory required for data: 3202296000
I0404 01:07:52.626598 30177 layer_factory.hpp:77] Creating layer fc4_relu
I0404 01:07:52.626612 30177 net.cpp:100] Creating Layer fc4_relu
I0404 01:07:52.626618 30177 net.cpp:434] fc4_relu <- fc4_300
I0404 01:07:52.626631 30177 net.cpp:395] fc4_relu -> fc4_300 (in-place)
I0404 01:07:52.626935 30177 net.cpp:150] Setting up fc4_relu
I0404 01:07:52.626950 30177 net.cpp:157] Top shape: 1500 300 (450000)
I0404 01:07:52.626955 30177 net.cpp:165] Memory required for data: 3204096000
I0404 01:07:52.626961 30177 layer_factory.hpp:77] Creating layer drop4
I0404 01:07:52.626973 30177 net.cpp:100] Creating Layer drop4
I0404 01:07:52.626978 30177 net.cpp:434] drop4 <- fc4_300
I0404 01:07:52.626987 30177 net.cpp:395] drop4 -> fc4_300 (in-place)
I0404 01:07:52.627028 30177 net.cpp:150] Setting up drop4
I0404 01:07:52.627038 30177 net.cpp:157] Top shape: 1500 300 (450000)
I0404 01:07:52.627044 30177 net.cpp:165] Memory required for data: 3205896000
I0404 01:07:52.627049 30177 layer_factory.hpp:77] Creating layer fc5_67
I0404 01:07:52.627059 30177 net.cpp:100] Creating Layer fc5_67
I0404 01:07:52.627064 30177 net.cpp:434] fc5_67 <- fc4_300
I0404 01:07:52.627074 30177 net.cpp:408] fc5_67 -> fc5_classes
I0404 01:07:52.627482 30177 net.cpp:150] Setting up fc5_67
I0404 01:07:52.627497 30177 net.cpp:157] Top shape: 1500 67 (100500)
I0404 01:07:52.627503 30177 net.cpp:165] Memory required for data: 3206298000
I0404 01:07:52.627521 30177 layer_factory.hpp:77] Creating layer fc5_classes_fc5_67_0_split
I0404 01:07:52.627532 30177 net.cpp:100] Creating Layer fc5_classes_fc5_67_0_split
I0404 01:07:52.627537 30177 net.cpp:434] fc5_classes_fc5_67_0_split <- fc5_classes
I0404 01:07:52.627548 30177 net.cpp:408] fc5_classes_fc5_67_0_split -> fc5_classes_fc5_67_0_split_0
I0404 01:07:52.627560 30177 net.cpp:408] fc5_classes_fc5_67_0_split -> fc5_classes_fc5_67_0_split_1
I0404 01:07:52.627574 30177 net.cpp:408] fc5_classes_fc5_67_0_split -> fc5_classes_fc5_67_0_split_2
I0404 01:07:52.627655 30177 net.cpp:150] Setting up fc5_classes_fc5_67_0_split
I0404 01:07:52.627668 30177 net.cpp:157] Top shape: 1500 67 (100500)
I0404 01:07:52.627676 30177 net.cpp:157] Top shape: 1500 67 (100500)
I0404 01:07:52.627682 30177 net.cpp:157] Top shape: 1500 67 (100500)
I0404 01:07:52.627687 30177 net.cpp:165] Memory required for data: 3207504000
I0404 01:07:52.627693 30177 layer_factory.hpp:77] Creating layer loss
I0404 01:07:52.627710 30177 net.cpp:100] Creating Layer loss
I0404 01:07:52.627717 30177 net.cpp:434] loss <- fc5_classes_fc5_67_0_split_0
I0404 01:07:52.627727 30177 net.cpp:434] loss <- label_data_1_split_0
I0404 01:07:52.627737 30177 net.cpp:408] loss -> loss
…
