…
I0411 19:06:36.512809  2937 net.cpp:322] The NetState phase (0) differed from the phase (1) specified by a rule in layer accuracy_5
I0411 19:06:36.513027  2937 net.cpp:58] Initializing net from parameters: 
state {
  phase: TRAIN
  level: 0
  stage: ""
}
layer {
  name: "data"
  type: "Data"
  top: "data"
  top: "label"
  include {
    phase: TRAIN
  }
  transform_param {
    scale: 0.0039215689
    mirror: false
    crop_size: 48
    mean_value: 122
    mean_value: 115
    mean_value: 129
  }
  data_param {
    source: "../local_data/lmdb/rtsd-r1/orig/train/lmdb"
    batch_size: 1024
    backend: LMDB
  }
}
layer {
  name: "conv1"
  type: "Convolution"
  bottom: "data"
  top: "conv1"
  convolution_param {
    num_output: 100
    pad: 0
    kernel_size: 7
    group: 1
    stride: 1
    weight_filler {
      type: "xavier"
    }
  }
}
layer {
  name: "conv1_prescale"
  type: "Scale"
  bottom: "conv1"
  top: "conv1"
  param {
    lr_mult: 0
    decay_mult: 0
  }
  scale_param {
    filler {
      value: 0.6666
    }
    bias_term: false
  }
}
layer {
  name: "conv1_sTanH"
  type: "TanH"
  bottom: "conv1"
  top: "conv1"
}
layer {
  name: "conv1_postscale"
  type: "Scale"
  bottom: "conv1"
  top: "conv1"
  param {
    lr_mult: 0
    decay_mult: 0
  }
  scale_param {
    filler {
      value: 1.7159
    }
    bias_term: false
  }
}
layer {
  name: "pool1"
  type: "Pooling"
  bottom: "conv1"
  top: "pool1"
  pooling_param {
    pool: MAX
    kernel_size: 2
    stride: 2
  }
}
layer {
  name: "conv2"
  type: "Convolution"
  bottom: "pool1"
  top: "conv2"
  convolution_param {
    num_output: 150
    pad: 0
    kernel_size: 4
    group: 1
    stride: 1
    weight_filler {
      type: "xavier"
    }
  }
}
layer {
  name: "conv2_prescale"
  type: "Scale"
  bottom: "conv2"
  top: "conv2"
  param {
    lr_mult: 0
    decay_mult: 0
  }
  scale_param {
    filler {
      value: 0.6666
    }
    bias_term: false
  }
}
layer {
  name: "conv2_sTanH"
  type: "TanH"
  bottom: "conv2"
  top: "conv2"
}
layer {
  name: "conv2_postscale"
  type: "Scale"
  bottom: "conv2"
  top: "conv2"
  param {
    lr_mult: 0
    decay_mult: 0
  }
  scale_param {
    filler {
      value: 1.7159
    }
    bias_term: false
  }
}
layer {
  name: "pool2"
  type: "Pooling"
  bottom: "conv2"
  top: "pool2"
  pooling_param {
    pool: MAX
    kernel_size: 2
    stride: 2
  }
}
layer {
  name: "conv3"
  type: "Convolution"
  bottom: "pool2"
  top: "conv3"
  convolution_param {
    num_output: 250
    pad: 0
    kernel_size: 4
    group: 1
    stride: 1
    weight_filler {
      type: "xavier"
    }
  }
}
layer {
  name: "conv3_prescale"
  type: "Scale"
  bottom: "conv3"
  top: "conv3"
  param {
    lr_mult: 0
    decay_mult: 0
  }
  scale_param {
    filler {
      value: 0.6666
    }
    bias_term: false
  }
}
layer {
  name: "conv3_sTanH"
  type: "TanH"
  bottom: "conv3"
  top: "conv3"
}
layer {
  name: "conv3_postscale"
  type: "Scale"
  bottom: "conv3"
  top: "conv3"
  param {
    lr_mult: 0
    decay_mult: 0
  }
  scale_param {
    filler {
      value: 1.7159
    }
    bias_term: false
  }
}
layer {
  name: "pool3"
  type: "Pooling"
  bottom: "conv3"
  top: "pool3"
  pooling_param {
    pool: MAX
    kernel_size: 2
    stride: 2
  }
}
layer {
  name: "fc4_300"
  type: "InnerProduct"
  bottom: "pool3"
  top: "fc4_300"
  inner_product_param {
    num_output: 300
    weight_filler {
      type: "xavier"
    }
  }
}
layer {
  name: "fc4_prescale"
  type: "Scale"
  bottom: "fc4_300"
  top: "fc4_300"
  param {
    lr_mult: 0
    decay_mult: 0
  }
  scale_param {
    filler {
      value: 0.6666
    }
    bias_term: false
  }
}
layer {
  name: "fc4_sTanH"
  type: "TanH"
  bottom: "fc4_300"
  top: "fc4_300"
}
layer {
  name: "fc4_postscale"
  type: "Scale"
  bottom: "fc4_300"
  top: "fc4_300"
  param {
    lr_mult: 0
    decay_mult: 0
  }
  scale_param {
    filler {
      value: 1.7159
    }
    bias_term: false
  }
}
layer {
  name: "drop4"
  type: "Dropout"
  bottom: "fc4_300"
  top: "fc4_300"
  dropout_param {
    dropout_ratio: 0.1
  }
}
layer {
  name: "fc5_67"
  type: "InnerProduct"
  bottom: "fc4_300"
  top: "fc5_classes"
  inner_product_param {
    num_output: 67
    weight_filler {
      type: "xavier"
    }
  }
}
layer {
  name: "loss"
  type: "SoftmaxWithLoss"
  bottom: "fc5_classes"
  bottom: "label"
  top: "loss"
}
I0411 19:06:36.513175  2937 layer_factory.hpp:77] Creating layer data
I0411 19:06:36.514662  2937 net.cpp:100] Creating Layer data
I0411 19:06:36.514683  2937 net.cpp:408] data -> data
I0411 19:06:36.514713  2937 net.cpp:408] data -> label
I0411 19:06:36.536487  3060 db_lmdb.cpp:35] Opened lmdb ../local_data/lmdb/rtsd-r1/orig/train/lmdb
I0411 19:06:36.560237  2937 data_layer.cpp:41] output data size: 1024,3,48,48
I0411 19:06:36.610657  2937 net.cpp:150] Setting up data
I0411 19:06:36.610702  2937 net.cpp:157] Top shape: 1024 3 48 48 (7077888)
I0411 19:06:36.610708  2937 net.cpp:157] Top shape: 1024 (1024)
I0411 19:06:36.610713  2937 net.cpp:165] Memory required for data: 28315648
I0411 19:06:36.610723  2937 layer_factory.hpp:77] Creating layer conv1
I0411 19:06:36.610757  2937 net.cpp:100] Creating Layer conv1
I0411 19:06:36.610766  2937 net.cpp:434] conv1 <- data
I0411 19:06:36.610785  2937 net.cpp:408] conv1 -> conv1
I0411 19:06:37.081468  2937 net.cpp:150] Setting up conv1
I0411 19:06:37.081501  2937 net.cpp:157] Top shape: 1024 100 42 42 (180633600)
I0411 19:06:37.081506  2937 net.cpp:165] Memory required for data: 750850048
I0411 19:06:37.081534  2937 layer_factory.hpp:77] Creating layer conv1_prescale
I0411 19:06:37.081552  2937 net.cpp:100] Creating Layer conv1_prescale
I0411 19:06:37.081558  2937 net.cpp:434] conv1_prescale <- conv1
I0411 19:06:37.081567  2937 net.cpp:395] conv1_prescale -> conv1 (in-place)
I0411 19:06:37.081701  2937 net.cpp:150] Setting up conv1_prescale
I0411 19:06:37.081712  2937 net.cpp:157] Top shape: 1024 100 42 42 (180633600)
I0411 19:06:37.081717  2937 net.cpp:165] Memory required for data: 1473384448
I0411 19:06:37.081724  2937 layer_factory.hpp:77] Creating layer conv1_sTanH
I0411 19:06:37.081733  2937 net.cpp:100] Creating Layer conv1_sTanH
I0411 19:06:37.081739  2937 net.cpp:434] conv1_sTanH <- conv1
I0411 19:06:37.081744  2937 net.cpp:395] conv1_sTanH -> conv1 (in-place)
I0411 19:06:37.081982  2937 net.cpp:150] Setting up conv1_sTanH
I0411 19:06:37.081997  2937 net.cpp:157] Top shape: 1024 100 42 42 (180633600)
I0411 19:06:37.082002  2937 net.cpp:165] Memory required for data: 2195918848
I0411 19:06:37.082006  2937 layer_factory.hpp:77] Creating layer conv1_postscale
I0411 19:06:37.082016  2937 net.cpp:100] Creating Layer conv1_postscale
I0411 19:06:37.082021  2937 net.cpp:434] conv1_postscale <- conv1
I0411 19:06:37.082027  2937 net.cpp:395] conv1_postscale -> conv1 (in-place)
I0411 19:06:37.082144  2937 net.cpp:150] Setting up conv1_postscale
I0411 19:06:37.082154  2937 net.cpp:157] Top shape: 1024 100 42 42 (180633600)
I0411 19:06:37.082159  2937 net.cpp:165] Memory required for data: 2918453248
I0411 19:06:37.082165  2937 layer_factory.hpp:77] Creating layer pool1
I0411 19:06:37.082175  2937 net.cpp:100] Creating Layer pool1
I0411 19:06:37.082180  2937 net.cpp:434] pool1 <- conv1
I0411 19:06:37.082185  2937 net.cpp:408] pool1 -> pool1
I0411 19:06:37.082267  2937 net.cpp:150] Setting up pool1
I0411 19:06:37.082278  2937 net.cpp:157] Top shape: 1024 100 21 21 (45158400)
I0411 19:06:37.082283  2937 net.cpp:165] Memory required for data: 3099086848
I0411 19:06:37.082288  2937 layer_factory.hpp:77] Creating layer conv2
I0411 19:06:37.082299  2937 net.cpp:100] Creating Layer conv2
I0411 19:06:37.082304  2937 net.cpp:434] conv2 <- pool1
I0411 19:06:37.082311  2937 net.cpp:408] conv2 -> conv2
I0411 19:06:37.089134  2937 net.cpp:150] Setting up conv2
I0411 19:06:37.089155  2937 net.cpp:157] Top shape: 1024 150 18 18 (49766400)
I0411 19:06:37.089159  2937 net.cpp:165] Memory required for data: 3298152448
I0411 19:06:37.089172  2937 layer_factory.hpp:77] Creating layer conv2_prescale
I0411 19:06:37.089182  2937 net.cpp:100] Creating Layer conv2_prescale
I0411 19:06:37.089186  2937 net.cpp:434] conv2_prescale <- conv2
I0411 19:06:37.089193  2937 net.cpp:395] conv2_prescale -> conv2 (in-place)
I0411 19:06:37.089319  2937 net.cpp:150] Setting up conv2_prescale
I0411 19:06:37.089330  2937 net.cpp:157] Top shape: 1024 150 18 18 (49766400)
I0411 19:06:37.089334  2937 net.cpp:165] Memory required for data: 3497218048
I0411 19:06:37.089340  2937 layer_factory.hpp:77] Creating layer conv2_sTanH
I0411 19:06:37.089349  2937 net.cpp:100] Creating Layer conv2_sTanH
I0411 19:06:37.089354  2937 net.cpp:434] conv2_sTanH <- conv2
I0411 19:06:37.089360  2937 net.cpp:395] conv2_sTanH -> conv2 (in-place)
I0411 19:06:37.091585  2937 net.cpp:150] Setting up conv2_sTanH
I0411 19:06:37.091604  2937 net.cpp:157] Top shape: 1024 150 18 18 (49766400)
I0411 19:06:37.091609  2937 net.cpp:165] Memory required for data: 3696283648
I0411 19:06:37.091612  2937 layer_factory.hpp:77] Creating layer conv2_postscale
I0411 19:06:37.091621  2937 net.cpp:100] Creating Layer conv2_postscale
I0411 19:06:37.091626  2937 net.cpp:434] conv2_postscale <- conv2
I0411 19:06:37.091634  2937 net.cpp:395] conv2_postscale -> conv2 (in-place)
I0411 19:06:37.091745  2937 net.cpp:150] Setting up conv2_postscale
I0411 19:06:37.091756  2937 net.cpp:157] Top shape: 1024 150 18 18 (49766400)
I0411 19:06:37.091760  2937 net.cpp:165] Memory required for data: 3895349248
I0411 19:06:37.091766  2937 layer_factory.hpp:77] Creating layer pool2
I0411 19:06:37.091775  2937 net.cpp:100] Creating Layer pool2
I0411 19:06:37.091780  2937 net.cpp:434] pool2 <- conv2
I0411 19:06:37.091786  2937 net.cpp:408] pool2 -> pool2
I0411 19:06:37.091835  2937 net.cpp:150] Setting up pool2
I0411 19:06:37.091845  2937 net.cpp:157] Top shape: 1024 150 9 9 (12441600)
I0411 19:06:37.091847  2937 net.cpp:165] Memory required for data: 3945115648
I0411 19:06:37.091851  2937 layer_factory.hpp:77] Creating layer conv3
I0411 19:06:37.091861  2937 net.cpp:100] Creating Layer conv3
I0411 19:06:37.091866  2937 net.cpp:434] conv3 <- pool2
I0411 19:06:37.091872  2937 net.cpp:408] conv3 -> conv3
I0411 19:06:37.099572  2937 net.cpp:150] Setting up conv3
I0411 19:06:37.099596  2937 net.cpp:157] Top shape: 1024 250 6 6 (9216000)
I0411 19:06:37.099601  2937 net.cpp:165] Memory required for data: 3981979648
I0411 19:06:37.099614  2937 layer_factory.hpp:77] Creating layer conv3_prescale
I0411 19:06:37.099624  2937 net.cpp:100] Creating Layer conv3_prescale
I0411 19:06:37.099628  2937 net.cpp:434] conv3_prescale <- conv3
I0411 19:06:37.099635  2937 net.cpp:395] conv3_prescale -> conv3 (in-place)
I0411 19:06:37.099750  2937 net.cpp:150] Setting up conv3_prescale
I0411 19:06:37.099759  2937 net.cpp:157] Top shape: 1024 250 6 6 (9216000)
I0411 19:06:37.099763  2937 net.cpp:165] Memory required for data: 4018843648
I0411 19:06:37.099769  2937 layer_factory.hpp:77] Creating layer conv3_sTanH
I0411 19:06:37.099777  2937 net.cpp:100] Creating Layer conv3_sTanH
I0411 19:06:37.099783  2937 net.cpp:434] conv3_sTanH <- conv3
I0411 19:06:37.099788  2937 net.cpp:395] conv3_sTanH -> conv3 (in-place)
I0411 19:06:37.102298  2937 net.cpp:150] Setting up conv3_sTanH
I0411 19:06:37.102321  2937 net.cpp:157] Top shape: 1024 250 6 6 (9216000)
I0411 19:06:37.102325  2937 net.cpp:165] Memory required for data: 4055707648
I0411 19:06:37.102349  2937 layer_factory.hpp:77] Creating layer conv3_postscale
I0411 19:06:37.102360  2937 net.cpp:100] Creating Layer conv3_postscale
I0411 19:06:37.102368  2937 net.cpp:434] conv3_postscale <- conv3
I0411 19:06:37.102375  2937 net.cpp:395] conv3_postscale -> conv3 (in-place)
I0411 19:06:37.102497  2937 net.cpp:150] Setting up conv3_postscale
I0411 19:06:37.102507  2937 net.cpp:157] Top shape: 1024 250 6 6 (9216000)
I0411 19:06:37.102514  2937 net.cpp:165] Memory required for data: 4092571648
I0411 19:06:37.102519  2937 layer_factory.hpp:77] Creating layer pool3
I0411 19:06:37.102529  2937 net.cpp:100] Creating Layer pool3
I0411 19:06:37.102535  2937 net.cpp:434] pool3 <- conv3
I0411 19:06:37.102540  2937 net.cpp:408] pool3 -> pool3
I0411 19:06:37.102586  2937 net.cpp:150] Setting up pool3
I0411 19:06:37.102594  2937 net.cpp:157] Top shape: 1024 250 3 3 (2304000)
I0411 19:06:37.102599  2937 net.cpp:165] Memory required for data: 4101787648
I0411 19:06:37.102602  2937 layer_factory.hpp:77] Creating layer fc4_300
I0411 19:06:37.102614  2937 net.cpp:100] Creating Layer fc4_300
I0411 19:06:37.102619  2937 net.cpp:434] fc4_300 <- pool3
I0411 19:06:37.102627  2937 net.cpp:408] fc4_300 -> fc4_300
I0411 19:06:37.110451  2937 net.cpp:150] Setting up fc4_300
I0411 19:06:37.110476  2937 net.cpp:157] Top shape: 1024 300 (307200)
I0411 19:06:37.110481  2937 net.cpp:165] Memory required for data: 4103016448
I0411 19:06:37.110491  2937 layer_factory.hpp:77] Creating layer fc4_prescale
I0411 19:06:37.110502  2937 net.cpp:100] Creating Layer fc4_prescale
I0411 19:06:37.110507  2937 net.cpp:434] fc4_prescale <- fc4_300
I0411 19:06:37.110514  2937 net.cpp:395] fc4_prescale -> fc4_300 (in-place)
I0411 19:06:37.110625  2937 net.cpp:150] Setting up fc4_prescale
I0411 19:06:37.110635  2937 net.cpp:157] Top shape: 1024 300 (307200)
I0411 19:06:37.110641  2937 net.cpp:165] Memory required for data: 4104245248
I0411 19:06:37.110646  2937 layer_factory.hpp:77] Creating layer fc4_sTanH
I0411 19:06:37.110654  2937 net.cpp:100] Creating Layer fc4_sTanH
I0411 19:06:37.110659  2937 net.cpp:434] fc4_sTanH <- fc4_300
I0411 19:06:37.110664  2937 net.cpp:395] fc4_sTanH -> fc4_300 (in-place)
I0411 19:06:37.110884  2937 net.cpp:150] Setting up fc4_sTanH
I0411 19:06:37.110898  2937 net.cpp:157] Top shape: 1024 300 (307200)
I0411 19:06:37.110903  2937 net.cpp:165] Memory required for data: 4105474048
I0411 19:06:37.110906  2937 layer_factory.hpp:77] Creating layer fc4_postscale
I0411 19:06:37.110914  2937 net.cpp:100] Creating Layer fc4_postscale
I0411 19:06:37.110920  2937 net.cpp:434] fc4_postscale <- fc4_300
I0411 19:06:37.110926  2937 net.cpp:395] fc4_postscale -> fc4_300 (in-place)
I0411 19:06:37.111035  2937 net.cpp:150] Setting up fc4_postscale
I0411 19:06:37.111045  2937 net.cpp:157] Top shape: 1024 300 (307200)
I0411 19:06:37.111048  2937 net.cpp:165] Memory required for data: 4106702848
I0411 19:06:37.111054  2937 layer_factory.hpp:77] Creating layer drop4
I0411 19:06:37.111063  2937 net.cpp:100] Creating Layer drop4
I0411 19:06:37.111069  2937 net.cpp:434] drop4 <- fc4_300
I0411 19:06:37.111074  2937 net.cpp:395] drop4 -> fc4_300 (in-place)
I0411 19:06:37.111104  2937 net.cpp:150] Setting up drop4
I0411 19:06:37.111112  2937 net.cpp:157] Top shape: 1024 300 (307200)
I0411 19:06:37.111116  2937 net.cpp:165] Memory required for data: 4107931648
I0411 19:06:37.111120  2937 layer_factory.hpp:77] Creating layer fc5_67
I0411 19:06:37.111127  2937 net.cpp:100] Creating Layer fc5_67
I0411 19:06:37.111132  2937 net.cpp:434] fc5_67 <- fc4_300
I0411 19:06:37.111138  2937 net.cpp:408] fc5_67 -> fc5_classes
I0411 19:06:37.113682  2937 net.cpp:150] Setting up fc5_67
I0411 19:06:37.113703  2937 net.cpp:157] Top shape: 1024 67 (68608)
I0411 19:06:37.113708  2937 net.cpp:165] Memory required for data: 4108206080
I0411 19:06:37.113723  2937 layer_factory.hpp:77] Creating layer loss
I0411 19:06:37.113734  2937 net.cpp:100] Creating Layer loss
I0411 19:06:37.113739  2937 net.cpp:434] loss <- fc5_classes
I0411 19:06:37.113745  2937 net.cpp:434] loss <- label
I0411 19:06:37.113772  2937 net.cpp:408] loss -> loss
I0411 19:06:37.113790  2937 layer_factory.hpp:77] Creating layer loss
…
I0411 19:06:37.114783  2937 solver.cpp:193] Creating test net (#0) specified by test_net file: ./Prototxt/experiment_9/rtsd-r1/orig/trial_4/test.prototxt
I0411 19:06:37.115011  2937 net.cpp:58] Initializing net from parameters: 
state {
  phase: TEST
}
layer {
  name: "data"
  type: "Data"
  top: "data"
  top: "label"
  include {
    phase: TEST
  }
  transform_param {
    scale: 0.0039215689
    mirror: false
    crop_size: 48
    mean_value: 113
    mean_value: 110
    mean_value: 132
  }
  data_param {
    source: "../local_data/lmdb/rtsd-r1/orig/test/lmdb"
    batch_size: 1024
    backend: LMDB
  }
}
layer {
  name: "conv1"
  type: "Convolution"
  bottom: "data"
  top: "conv1"
  convolution_param {
    num_output: 100
    pad: 0
    kernel_size: 7
    group: 1
    stride: 1
    weight_filler {
      type: "xavier"
    }
  }
}
layer {
  name: "conv1_prescale"
  type: "Scale"
  bottom: "conv1"
  top: "conv1"
  param {
    lr_mult: 0
    decay_mult: 0
  }
  scale_param {
    filler {
      value: 0.6666
    }
    bias_term: false
  }
}
layer {
  name: "conv1_sTanH"
  type: "TanH"
  bottom: "conv1"
  top: "conv1"
}
layer {
  name: "conv1_postscale"
  type: "Scale"
  bottom: "conv1"
  top: "conv1"
  param {
    lr_mult: 0
    decay_mult: 0
  }
  scale_param {
    filler {
      value: 1.7159
    }
    bias_term: false
  }
}
layer {
  name: "pool1"
  type: "Pooling"
  bottom: "conv1"
  top: "pool1"
  pooling_param {
    pool: MAX
    kernel_size: 2
    stride: 2
  }
}
layer {
  name: "conv2"
  type: "Convolution"
  bottom: "pool1"
  top: "conv2"
  convolution_param {
    num_output: 150
    pad: 0
    kernel_size: 4
    group: 1
    stride: 1
    weight_filler {
      type: "xavier"
    }
  }
}
layer {
  name: "conv2_prescale"
  type: "Scale"
  bottom: "conv2"
  top: "conv2"
  param {
    lr_mult: 0
    decay_mult: 0
  }
  scale_param {
    filler {
      value: 0.6666
    }
    bias_term: false
  }
}
layer {
  name: "conv2_sTanH"
  type: "TanH"
  bottom: "conv2"
  top: "conv2"
}
layer {
  name: "conv2_postscale"
  type: "Scale"
  bottom: "conv2"
  top: "conv2"
  param {
    lr_mult: 0
    decay_mult: 0
  }
  scale_param {
    filler {
      value: 1.7159
    }
    bias_term: false
  }
}
layer {
  name: "pool2"
  type: "Pooling"
  bottom: "conv2"
  top: "pool2"
  pooling_param {
    pool: MAX
    kernel_size: 2
    stride: 2
  }
}
layer {
  name: "conv3"
  type: "Convolution"
  bottom: "pool2"
  top: "conv3"
  convolution_param {
    num_output: 250
    pad: 0
    kernel_size: 4
    group: 1
    stride: 1
    weight_filler {
      type: "xavier"
    }
  }
}
layer {
  name: "conv3_prescale"
  type: "Scale"
  bottom: "conv3"
  top: "conv3"
  param {
    lr_mult: 0
    decay_mult: 0
  }
  scale_param {
    filler {
      value: 0.6666
    }
    bias_term: false
  }
}
layer {
  name: "conv3_sTanH"
  type: "TanH"
  bottom: "conv3"
  top: "conv3"
}
layer {
  name: "conv3_postscale"
  type: "Scale"
  bottom: "conv3"
  top: "conv3"
  param {
    lr_mult: 0
    decay_mult: 0
  }
  scale_param {
    filler {
      value: 1.7159
    }
    bias_term: false
  }
}
layer {
  name: "pool3"
  type: "Pooling"
  bottom: "conv3"
  top: "pool3"
  pooling_param {
    pool: MAX
    kernel_size: 2
    stride: 2
  }
}
layer {
  name: "fc4_300"
  type: "InnerProduct"
  bottom: "pool3"
  top: "fc4_300"
  inner_product_param {
    num_output: 300
    weight_filler {
      type: "xavier"
    }
  }
}
layer {
  name: "fc4_prescale"
  type: "Scale"
  bottom: "fc4_300"
  top: "fc4_300"
  param {
    lr_mult: 0
    decay_mult: 0
  }
  scale_param {
    filler {
      value: 0.6666
    }
    bias_term: false
  }
}
layer {
  name: "fc4_sTanH"
  type: "TanH"
  bottom: "fc4_300"
  top: "fc4_300"
}
layer {
  name: "fc4_postscale"
  type: "Scale"
  bottom: "fc4_300"
  top: "fc4_300"
  param {
    lr_mult: 0
    decay_mult: 0
  }
  scale_param {
    filler {
      value: 1.7159
    }
    bias_term: false
  }
}
layer {
  name: "drop4"
  type: "Dropout"
  bottom: "fc4_300"
  top: "fc4_300"
  dropout_param {
    dropout_ratio: 0.1
  }
}
layer {
  name: "fc5_67"
  type: "InnerProduct"
  bottom: "fc4_300"
  top: "fc5_classes"
  inner_product_param {
    num_output: 67
    weight_filler {
      type: "xavier"
    }
  }
}
layer {
  name: "loss"
  type: "SoftmaxWithLoss"
  bottom: "fc5_classes"
  bottom: "label"
  top: "loss"
}
layer {
  name: "accuracy_1"
  type: "Accuracy"
  bottom: "fc5_classes"
  bottom: "label"
  top: "accuracy_1"
  include {
    phase: TEST
  }
  accuracy_param {
    top_k: 1
  }
}
layer {
  name: "accuracy_5"
  type: "Accuracy"
  bottom: "fc5_classes"
  bottom: "label"
  top: "accuracy_5"
  include {
    phase: TEST
  }
  accuracy_param {
    top_k: 5
  }
}
I0411 19:06:37.115149  2937 layer_factory.hpp:77] Creating layer data
I0411 19:06:37.115865  2937 net.cpp:100] Creating Layer data
I0411 19:06:37.115896  2937 net.cpp:408] data -> data
I0411 19:06:37.115911  2937 net.cpp:408] data -> label
I0411 19:06:37.120548  3117 db_lmdb.cpp:35] Opened lmdb ../local_data/lmdb/rtsd-r1/orig/test/lmdb
I0411 19:06:37.120725  2937 data_layer.cpp:41] output data size: 1024,3,48,48
I0411 19:06:37.176434  2937 net.cpp:150] Setting up data
I0411 19:06:37.176466  2937 net.cpp:157] Top shape: 1024 3 48 48 (7077888)
I0411 19:06:37.176473  2937 net.cpp:157] Top shape: 1024 (1024)
I0411 19:06:37.176476  2937 net.cpp:165] Memory required for data: 28315648
I0411 19:06:37.176484  2937 layer_factory.hpp:77] Creating layer label_data_1_split
I0411 19:06:37.176501  2937 net.cpp:100] Creating Layer label_data_1_split
I0411 19:06:37.176504  2937 net.cpp:434] label_data_1_split <- label
I0411 19:06:37.176513  2937 net.cpp:408] label_data_1_split -> label_data_1_split_0
I0411 19:06:37.176525  2937 net.cpp:408] label_data_1_split -> label_data_1_split_1
I0411 19:06:37.176558  2937 net.cpp:408] label_data_1_split -> label_data_1_split_2
I0411 19:06:37.176645  2937 net.cpp:150] Setting up label_data_1_split
I0411 19:06:37.176652  2937 net.cpp:157] Top shape: 1024 (1024)
I0411 19:06:37.176657  2937 net.cpp:157] Top shape: 1024 (1024)
I0411 19:06:37.176661  2937 net.cpp:157] Top shape: 1024 (1024)
I0411 19:06:37.176664  2937 net.cpp:165] Memory required for data: 28327936
I0411 19:06:37.176668  2937 layer_factory.hpp:77] Creating layer conv1
I0411 19:06:37.176682  2937 net.cpp:100] Creating Layer conv1
I0411 19:06:37.176687  2937 net.cpp:434] conv1 <- data
I0411 19:06:37.176693  2937 net.cpp:408] conv1 -> conv1
I0411 19:06:37.184778  2937 net.cpp:150] Setting up conv1
I0411 19:06:37.184803  2937 net.cpp:157] Top shape: 1024 100 42 42 (180633600)
I0411 19:06:37.184808  2937 net.cpp:165] Memory required for data: 750862336
I0411 19:06:37.184823  2937 layer_factory.hpp:77] Creating layer conv1_prescale
I0411 19:06:37.184835  2937 net.cpp:100] Creating Layer conv1_prescale
I0411 19:06:37.184841  2937 net.cpp:434] conv1_prescale <- conv1
I0411 19:06:37.184849  2937 net.cpp:395] conv1_prescale -> conv1 (in-place)
I0411 19:06:37.184978  2937 net.cpp:150] Setting up conv1_prescale
I0411 19:06:37.184988  2937 net.cpp:157] Top shape: 1024 100 42 42 (180633600)
I0411 19:06:37.184993  2937 net.cpp:165] Memory required for data: 1473396736
I0411 19:06:37.185001  2937 layer_factory.hpp:77] Creating layer conv1_sTanH
I0411 19:06:37.185015  2937 net.cpp:100] Creating Layer conv1_sTanH
I0411 19:06:37.185020  2937 net.cpp:434] conv1_sTanH <- conv1
I0411 19:06:37.185026  2937 net.cpp:395] conv1_sTanH -> conv1 (in-place)
I0411 19:06:37.185246  2937 net.cpp:150] Setting up conv1_sTanH
I0411 19:06:37.185259  2937 net.cpp:157] Top shape: 1024 100 42 42 (180633600)
I0411 19:06:37.185264  2937 net.cpp:165] Memory required for data: 2195931136
I0411 19:06:37.185268  2937 layer_factory.hpp:77] Creating layer conv1_postscale
I0411 19:06:37.185276  2937 net.cpp:100] Creating Layer conv1_postscale
I0411 19:06:37.185282  2937 net.cpp:434] conv1_postscale <- conv1
I0411 19:06:37.185288  2937 net.cpp:395] conv1_postscale -> conv1 (in-place)
I0411 19:06:37.185412  2937 net.cpp:150] Setting up conv1_postscale
I0411 19:06:37.185421  2937 net.cpp:157] Top shape: 1024 100 42 42 (180633600)
I0411 19:06:37.185426  2937 net.cpp:165] Memory required for data: 2918465536
I0411 19:06:37.185432  2937 layer_factory.hpp:77] Creating layer pool1
I0411 19:06:37.185442  2937 net.cpp:100] Creating Layer pool1
I0411 19:06:37.185447  2937 net.cpp:434] pool1 <- conv1
I0411 19:06:37.185453  2937 net.cpp:408] pool1 -> pool1
I0411 19:06:37.185503  2937 net.cpp:150] Setting up pool1
I0411 19:06:37.185511  2937 net.cpp:157] Top shape: 1024 100 21 21 (45158400)
I0411 19:06:37.185516  2937 net.cpp:165] Memory required for data: 3099099136
I0411 19:06:37.185519  2937 layer_factory.hpp:77] Creating layer conv2
I0411 19:06:37.185530  2937 net.cpp:100] Creating Layer conv2
I0411 19:06:37.185536  2937 net.cpp:434] conv2 <- pool1
I0411 19:06:37.185542  2937 net.cpp:408] conv2 -> conv2
I0411 19:06:37.194119  2937 net.cpp:150] Setting up conv2
I0411 19:06:37.194144  2937 net.cpp:157] Top shape: 1024 150 18 18 (49766400)
I0411 19:06:37.194149  2937 net.cpp:165] Memory required for data: 3298164736
I0411 19:06:37.194161  2937 layer_factory.hpp:77] Creating layer conv2_prescale
I0411 19:06:37.194181  2937 net.cpp:100] Creating Layer conv2_prescale
I0411 19:06:37.194188  2937 net.cpp:434] conv2_prescale <- conv2
I0411 19:06:37.194195  2937 net.cpp:395] conv2_prescale -> conv2 (in-place)
I0411 19:06:37.194325  2937 net.cpp:150] Setting up conv2_prescale
I0411 19:06:37.194335  2937 net.cpp:157] Top shape: 1024 150 18 18 (49766400)
I0411 19:06:37.194340  2937 net.cpp:165] Memory required for data: 3497230336
I0411 19:06:37.194346  2937 layer_factory.hpp:77] Creating layer conv2_sTanH
I0411 19:06:37.194355  2937 net.cpp:100] Creating Layer conv2_sTanH
I0411 19:06:37.194360  2937 net.cpp:434] conv2_sTanH <- conv2
I0411 19:06:37.194366  2937 net.cpp:395] conv2_sTanH -> conv2 (in-place)
I0411 19:06:37.199833  2937 net.cpp:150] Setting up conv2_sTanH
I0411 19:06:37.199856  2937 net.cpp:157] Top shape: 1024 150 18 18 (49766400)
I0411 19:06:37.199863  2937 net.cpp:165] Memory required for data: 3696295936
I0411 19:06:37.199867  2937 layer_factory.hpp:77] Creating layer conv2_postscale
I0411 19:06:37.199899  2937 net.cpp:100] Creating Layer conv2_postscale
I0411 19:06:37.199908  2937 net.cpp:434] conv2_postscale <- conv2
I0411 19:06:37.199916  2937 net.cpp:395] conv2_postscale -> conv2 (in-place)
I0411 19:06:37.200042  2937 net.cpp:150] Setting up conv2_postscale
I0411 19:06:37.200053  2937 net.cpp:157] Top shape: 1024 150 18 18 (49766400)
I0411 19:06:37.200057  2937 net.cpp:165] Memory required for data: 3895361536
I0411 19:06:37.200064  2937 layer_factory.hpp:77] Creating layer pool2
I0411 19:06:37.200072  2937 net.cpp:100] Creating Layer pool2
I0411 19:06:37.200075  2937 net.cpp:434] pool2 <- conv2
I0411 19:06:37.200081  2937 net.cpp:408] pool2 -> pool2
I0411 19:06:37.200152  2937 net.cpp:150] Setting up pool2
I0411 19:06:37.200168  2937 net.cpp:157] Top shape: 1024 150 9 9 (12441600)
I0411 19:06:37.200176  2937 net.cpp:165] Memory required for data: 3945127936
I0411 19:06:37.200183  2937 layer_factory.hpp:77] Creating layer conv3
I0411 19:06:37.200201  2937 net.cpp:100] Creating Layer conv3
I0411 19:06:37.200211  2937 net.cpp:434] conv3 <- pool2
I0411 19:06:37.200223  2937 net.cpp:408] conv3 -> conv3
I0411 19:06:37.210589  2937 net.cpp:150] Setting up conv3
I0411 19:06:37.210611  2937 net.cpp:157] Top shape: 1024 250 6 6 (9216000)
I0411 19:06:37.210618  2937 net.cpp:165] Memory required for data: 3981991936
I0411 19:06:37.210631  2937 layer_factory.hpp:77] Creating layer conv3_prescale
I0411 19:06:37.210644  2937 net.cpp:100] Creating Layer conv3_prescale
I0411 19:06:37.210650  2937 net.cpp:434] conv3_prescale <- conv3
I0411 19:06:37.210657  2937 net.cpp:395] conv3_prescale -> conv3 (in-place)
I0411 19:06:37.210770  2937 net.cpp:150] Setting up conv3_prescale
I0411 19:06:37.210793  2937 net.cpp:157] Top shape: 1024 250 6 6 (9216000)
I0411 19:06:37.210799  2937 net.cpp:165] Memory required for data: 4018855936
I0411 19:06:37.210805  2937 layer_factory.hpp:77] Creating layer conv3_sTanH
I0411 19:06:37.210813  2937 net.cpp:100] Creating Layer conv3_sTanH
I0411 19:06:37.210819  2937 net.cpp:434] conv3_sTanH <- conv3
I0411 19:06:37.210824  2937 net.cpp:395] conv3_sTanH -> conv3 (in-place)
I0411 19:06:37.212999  2937 net.cpp:150] Setting up conv3_sTanH
I0411 19:06:37.213023  2937 net.cpp:157] Top shape: 1024 250 6 6 (9216000)
I0411 19:06:37.213029  2937 net.cpp:165] Memory required for data: 4055719936
I0411 19:06:37.213034  2937 layer_factory.hpp:77] Creating layer conv3_postscale
I0411 19:06:37.213044  2937 net.cpp:100] Creating Layer conv3_postscale
I0411 19:06:37.213050  2937 net.cpp:434] conv3_postscale <- conv3
I0411 19:06:37.213057  2937 net.cpp:395] conv3_postscale -> conv3 (in-place)
I0411 19:06:37.213178  2937 net.cpp:150] Setting up conv3_postscale
I0411 19:06:37.213188  2937 net.cpp:157] Top shape: 1024 250 6 6 (9216000)
I0411 19:06:37.213193  2937 net.cpp:165] Memory required for data: 4092583936
I0411 19:06:37.213199  2937 layer_factory.hpp:77] Creating layer pool3
I0411 19:06:37.213212  2937 net.cpp:100] Creating Layer pool3
I0411 19:06:37.213217  2937 net.cpp:434] pool3 <- conv3
I0411 19:06:37.213224  2937 net.cpp:408] pool3 -> pool3
I0411 19:06:37.213274  2937 net.cpp:150] Setting up pool3
I0411 19:06:37.213282  2937 net.cpp:157] Top shape: 1024 250 3 3 (2304000)
I0411 19:06:37.213287  2937 net.cpp:165] Memory required for data: 4101799936
I0411 19:06:37.213291  2937 layer_factory.hpp:77] Creating layer fc4_300
I0411 19:06:37.213299  2937 net.cpp:100] Creating Layer fc4_300
I0411 19:06:37.213306  2937 net.cpp:434] fc4_300 <- pool3
I0411 19:06:37.213312  2937 net.cpp:408] fc4_300 -> fc4_300
I0411 19:06:37.220885  2937 net.cpp:150] Setting up fc4_300
I0411 19:06:37.220906  2937 net.cpp:157] Top shape: 1024 300 (307200)
I0411 19:06:37.220913  2937 net.cpp:165] Memory required for data: 4103028736
I0411 19:06:37.220942  2937 layer_factory.hpp:77] Creating layer fc4_prescale
I0411 19:06:37.220954  2937 net.cpp:100] Creating Layer fc4_prescale
I0411 19:06:37.220969  2937 net.cpp:434] fc4_prescale <- fc4_300
I0411 19:06:37.220976  2937 net.cpp:395] fc4_prescale -> fc4_300 (in-place)
I0411 19:06:37.221091  2937 net.cpp:150] Setting up fc4_prescale
I0411 19:06:37.221101  2937 net.cpp:157] Top shape: 1024 300 (307200)
I0411 19:06:37.221105  2937 net.cpp:165] Memory required for data: 4104257536
I0411 19:06:37.221112  2937 layer_factory.hpp:77] Creating layer fc4_sTanH
I0411 19:06:37.221120  2937 net.cpp:100] Creating Layer fc4_sTanH
I0411 19:06:37.221125  2937 net.cpp:434] fc4_sTanH <- fc4_300
I0411 19:06:37.221130  2937 net.cpp:395] fc4_sTanH -> fc4_300 (in-place)
I0411 19:06:37.221355  2937 net.cpp:150] Setting up fc4_sTanH
I0411 19:06:37.221369  2937 net.cpp:157] Top shape: 1024 300 (307200)
I0411 19:06:37.221374  2937 net.cpp:165] Memory required for data: 4105486336
I0411 19:06:37.221377  2937 layer_factory.hpp:77] Creating layer fc4_postscale
I0411 19:06:37.221385  2937 net.cpp:100] Creating Layer fc4_postscale
I0411 19:06:37.221390  2937 net.cpp:434] fc4_postscale <- fc4_300
I0411 19:06:37.221396  2937 net.cpp:395] fc4_postscale -> fc4_300 (in-place)
I0411 19:06:37.221508  2937 net.cpp:150] Setting up fc4_postscale
I0411 19:06:37.221518  2937 net.cpp:157] Top shape: 1024 300 (307200)
I0411 19:06:37.221523  2937 net.cpp:165] Memory required for data: 4106715136
I0411 19:06:37.221527  2937 layer_factory.hpp:77] Creating layer drop4
I0411 19:06:37.221536  2937 net.cpp:100] Creating Layer drop4
I0411 19:06:37.221541  2937 net.cpp:434] drop4 <- fc4_300
I0411 19:06:37.221547  2937 net.cpp:395] drop4 -> fc4_300 (in-place)
I0411 19:06:37.221577  2937 net.cpp:150] Setting up drop4
I0411 19:06:37.221585  2937 net.cpp:157] Top shape: 1024 300 (307200)
I0411 19:06:37.221590  2937 net.cpp:165] Memory required for data: 4107943936
I0411 19:06:37.221592  2937 layer_factory.hpp:77] Creating layer fc5_67
I0411 19:06:37.221601  2937 net.cpp:100] Creating Layer fc5_67
I0411 19:06:37.221606  2937 net.cpp:434] fc5_67 <- fc4_300
I0411 19:06:37.221612  2937 net.cpp:408] fc5_67 -> fc5_classes
I0411 19:06:37.221907  2937 net.cpp:150] Setting up fc5_67
I0411 19:06:37.221917  2937 net.cpp:157] Top shape: 1024 67 (68608)
I0411 19:06:37.221921  2937 net.cpp:165] Memory required for data: 4108218368
I0411 19:06:37.221933  2937 layer_factory.hpp:77] Creating layer fc5_classes_fc5_67_0_split
I0411 19:06:37.221943  2937 net.cpp:100] Creating Layer fc5_classes_fc5_67_0_split
I0411 19:06:37.221948  2937 net.cpp:434] fc5_classes_fc5_67_0_split <- fc5_classes
I0411 19:06:37.221954  2937 net.cpp:408] fc5_classes_fc5_67_0_split -> fc5_classes_fc5_67_0_split_0
I0411 19:06:37.221964  2937 net.cpp:408] fc5_classes_fc5_67_0_split -> fc5_classes_fc5_67_0_split_1
I0411 19:06:37.221973  2937 net.cpp:408] fc5_classes_fc5_67_0_split -> fc5_classes_fc5_67_0_split_2
I0411 19:06:37.222033  2937 net.cpp:150] Setting up fc5_classes_fc5_67_0_split
I0411 19:06:37.222041  2937 net.cpp:157] Top shape: 1024 67 (68608)
I0411 19:06:37.222045  2937 net.cpp:157] Top shape: 1024 67 (68608)
I0411 19:06:37.222051  2937 net.cpp:157] Top shape: 1024 67 (68608)
I0411 19:06:37.222054  2937 net.cpp:165] Memory required for data: 4109041664
I0411 19:06:37.222057  2937 layer_factory.hpp:77] Creating layer loss
I0411 19:06:37.222064  2937 net.cpp:100] Creating Layer loss
I0411 19:06:37.222070  2937 net.cpp:434] loss <- fc5_classes_fc5_67_0_split_0
I0411 19:06:37.222081  2937 net.cpp:434] loss <- label_data_1_split_0
I0411 19:06:37.222091  2937 net.cpp:408] loss -> loss
…
