…
I0508 08:43:11.155340 29631 solver.cpp:93] Creating training net from train_net file: ./Prototxt/experiment_15/RTSD/histeq/trial_5/train.prototxt
I0508 08:43:11.156057 29631 net.cpp:58] Initializing net from parameters: 
state {
  phase: TRAIN
  level: 0
  stage: ""
}
layer {
  name: "data"
  type: "Data"
  top: "data"
  top: "label"
  include {
    phase: TRAIN
  }
  transform_param {
    scale: 0.0039215689
    mirror: false
    crop_size: 48
    mean_value: 134
    mean_value: 128
    mean_value: 128
  }
  data_param {
    source: "../local_data/lmdb/RTSD/histeq/train/lmdb"
    batch_size: 1024
    backend: LMDB
  }
}
layer {
  name: "conv1"
  type: "Convolution"
  bottom: "data"
  top: "conv1"
  convolution_param {
    num_output: 100
    pad: 0
    kernel_size: 7
    group: 1
    stride: 1
    weight_filler {
      type: "xavier"
    }
  }
}
layer {
  name: "conv1_prescale"
  type: "Scale"
  bottom: "conv1"
  top: "conv1"
  param {
    lr_mult: 0
    decay_mult: 0
  }
  scale_param {
    filler {
      value: 0.6666
    }
    bias_term: false
  }
}
layer {
  name: "conv1_sTanH"
  type: "TanH"
  bottom: "conv1"
  top: "conv1"
}
layer {
  name: "conv1_postscale"
  type: "Scale"
  bottom: "conv1"
  top: "conv1"
  param {
    lr_mult: 0
    decay_mult: 0
  }
  scale_param {
    filler {
      value: 1.7159
    }
    bias_term: false
  }
}
layer {
  name: "pool1"
  type: "Pooling"
  bottom: "conv1"
  top: "pool1"
  pooling_param {
    pool: MAX
    kernel_size: 2
    stride: 2
  }
}
layer {
  name: "conv2"
  type: "Convolution"
  bottom: "pool1"
  top: "conv2"
  convolution_param {
    num_output: 150
    pad: 0
    kernel_size: 4
    group: 2
    stride: 1
    weight_filler {
      type: "xavier"
    }
  }
}
layer {
  name: "conv2_prescale"
  type: "Scale"
  bottom: "conv2"
  top: "conv2"
  param {
    lr_mult: 0
    decay_mult: 0
  }
  scale_param {
    filler {
      value: 0.6666
    }
    bias_term: false
  }
}
layer {
  name: "conv2_sTanH"
  type: "TanH"
  bottom: "conv2"
  top: "conv2"
}
layer {
  name: "conv2_postscale"
  type: "Scale"
  bottom: "conv2"
  top: "conv2"
  param {
    lr_mult: 0
    decay_mult: 0
  }
  scale_param {
    filler {
      value: 1.7159
    }
    bias_term: false
  }
}
layer {
  name: "pool2"
  type: "Pooling"
  bottom: "conv2"
  top: "pool2"
  pooling_param {
    pool: MAX
    kernel_size: 2
    stride: 2
  }
}
layer {
  name: "conv3"
  type: "Convolution"
  bottom: "pool2"
  top: "conv3"
  convolution_param {
    num_output: 250
    pad: 0
    kernel_size: 4
    group: 2
    stride: 1
    weight_filler {
      type: "xavier"
    }
  }
}
layer {
  name: "conv3_prescale"
  type: "Scale"
  bottom: "conv3"
  top: "conv3"
  param {
    lr_mult: 0
    decay_mult: 0
  }
  scale_param {
    filler {
      value: 0.6666
    }
    bias_term: false
  }
}
layer {
  name: "conv3_sTanH"
  type: "TanH"
  bottom: "conv3"
  top: "conv3"
}
layer {
  name: "conv3_postscale"
  type: "Scale"
  bottom: "conv3"
  top: "conv3"
  param {
    lr_mult: 0
    decay_mult: 0
  }
  scale_param {
    filler {
      value: 1.7159
    }
    bias_term: false
  }
}
layer {
  name: "pool3"
  type: "Pooling"
  bottom: "conv3"
  top: "pool3"
  pooling_param {
    pool: MAX
    kernel_size: 2
    stride: 2
  }
}
layer {
  name: "fc4_300"
  type: "InnerProduct"
  bottom: "pool3"
  top: "fc4_300"
  inner_product_param {
    num_output: 300
    weight_filler {
      type: "xavier"
    }
  }
}
layer {
  name: "fc4_prescale"
  type: "Scale"
  bottom: "fc4_300"
  top: "fc4_300"
  param {
    lr_mult: 0
    decay_mult: 0
  }
  scale_param {
    filler {
      value: 0.6666
    }
    bias_term: false
  }
}
layer {
  name: "fc4_sTanH"
  type: "TanH"
  bottom: "fc4_300"
  top: "fc4_300"
}
layer {
  name: "fc4_postscale"
  type: "Scale"
  bottom: "fc4_300"
  top: "fc4_300"
  param {
    lr_mult: 0
    decay_mult: 0
  }
  scale_param {
    filler {
      value: 1.7159
    }
    bias_term: false
  }
}
layer {
  name: "fc5_116"
  type: "InnerProduct"
  bottom: "fc4_300"
  top: "fc5_classes"
  inner_product_param {
    num_output: 116
    weight_filler {
      type: "xavier"
    }
  }
}
layer {
  name: "softmax"
  type: "Softmax"
  bottom: "fc5_classes"
  top: "softmax"
}
layer {
  name: "loss"
  type: "MultinomialLogisticLoss"
  bottom: "softmax"
  bottom: "label"
  top: "loss"
}
layer {
  name: "accuracy_1"
  type: "Accuracy"
  bottom: "fc5_classes"
  bottom: "label"
  top: "accuracy_1"
  accuracy_param {
    top_k: 1
  }
}
layer {
  name: "accuracy_5"
  type: "Accuracy"
  bottom: "fc5_classes"
  bottom: "label"
  top: "accuracy_5"
  accuracy_param {
    top_k: 5
  }
}
layer {
  name: "silence"
  type: "Silence"
  bottom: "accuracy_1"
  bottom: "accuracy_5"
}
I0508 08:43:11.156255 29631 layer_factory.hpp:77] Creating layer data
I0508 08:43:11.157889 29631 net.cpp:100] Creating Layer data
I0508 08:43:11.157922 29631 net.cpp:408] data -> data
I0508 08:43:11.157958 29631 net.cpp:408] data -> label
I0508 08:43:11.161047 29762 db_lmdb.cpp:35] Opened lmdb ../local_data/lmdb/RTSD/histeq/train/lmdb
I0508 08:43:11.184360 29631 data_layer.cpp:41] output data size: 1024,3,48,48
I0508 08:43:11.257058 29631 net.cpp:150] Setting up data
I0508 08:43:11.257089 29631 net.cpp:157] Top shape: 1024 3 48 48 (7077888)
I0508 08:43:11.257097 29631 net.cpp:157] Top shape: 1024 (1024)
I0508 08:43:11.257100 29631 net.cpp:165] Memory required for data: 28315648
I0508 08:43:11.257113 29631 layer_factory.hpp:77] Creating layer label_data_1_split
I0508 08:43:11.257128 29631 net.cpp:100] Creating Layer label_data_1_split
I0508 08:43:11.257138 29631 net.cpp:434] label_data_1_split <- label
I0508 08:43:11.257153 29631 net.cpp:408] label_data_1_split -> label_data_1_split_0
I0508 08:43:11.257167 29631 net.cpp:408] label_data_1_split -> label_data_1_split_1
I0508 08:43:11.257177 29631 net.cpp:408] label_data_1_split -> label_data_1_split_2
I0508 08:43:11.257252 29631 net.cpp:150] Setting up label_data_1_split
I0508 08:43:11.257261 29631 net.cpp:157] Top shape: 1024 (1024)
I0508 08:43:11.257266 29631 net.cpp:157] Top shape: 1024 (1024)
I0508 08:43:11.257272 29631 net.cpp:157] Top shape: 1024 (1024)
I0508 08:43:11.257277 29631 net.cpp:165] Memory required for data: 28327936
I0508 08:43:11.257280 29631 layer_factory.hpp:77] Creating layer conv1
I0508 08:43:11.257298 29631 net.cpp:100] Creating Layer conv1
I0508 08:43:11.257304 29631 net.cpp:434] conv1 <- data
I0508 08:43:11.257311 29631 net.cpp:408] conv1 -> conv1
I0508 08:43:11.717926 29631 net.cpp:150] Setting up conv1
I0508 08:43:11.717953 29631 net.cpp:157] Top shape: 1024 100 42 42 (180633600)
I0508 08:43:11.717957 29631 net.cpp:165] Memory required for data: 750862336
I0508 08:43:11.717980 29631 layer_factory.hpp:77] Creating layer conv1_prescale
I0508 08:43:11.717994 29631 net.cpp:100] Creating Layer conv1_prescale
I0508 08:43:11.717999 29631 net.cpp:434] conv1_prescale <- conv1
I0508 08:43:11.718006 29631 net.cpp:395] conv1_prescale -> conv1 (in-place)
I0508 08:43:11.718122 29631 net.cpp:150] Setting up conv1_prescale
I0508 08:43:11.718132 29631 net.cpp:157] Top shape: 1024 100 42 42 (180633600)
I0508 08:43:11.718134 29631 net.cpp:165] Memory required for data: 1473396736
I0508 08:43:11.718142 29631 layer_factory.hpp:77] Creating layer conv1_sTanH
I0508 08:43:11.718149 29631 net.cpp:100] Creating Layer conv1_sTanH
I0508 08:43:11.718154 29631 net.cpp:434] conv1_sTanH <- conv1
I0508 08:43:11.718159 29631 net.cpp:395] conv1_sTanH -> conv1 (in-place)
I0508 08:43:11.718353 29631 net.cpp:150] Setting up conv1_sTanH
I0508 08:43:11.718364 29631 net.cpp:157] Top shape: 1024 100 42 42 (180633600)
I0508 08:43:11.718389 29631 net.cpp:165] Memory required for data: 2195931136
I0508 08:43:11.718394 29631 layer_factory.hpp:77] Creating layer conv1_postscale
I0508 08:43:11.718401 29631 net.cpp:100] Creating Layer conv1_postscale
I0508 08:43:11.718405 29631 net.cpp:434] conv1_postscale <- conv1
I0508 08:43:11.718411 29631 net.cpp:395] conv1_postscale -> conv1 (in-place)
I0508 08:43:11.718508 29631 net.cpp:150] Setting up conv1_postscale
I0508 08:43:11.718515 29631 net.cpp:157] Top shape: 1024 100 42 42 (180633600)
I0508 08:43:11.718518 29631 net.cpp:165] Memory required for data: 2918465536
I0508 08:43:11.718523 29631 layer_factory.hpp:77] Creating layer pool1
I0508 08:43:11.718531 29631 net.cpp:100] Creating Layer pool1
I0508 08:43:11.718535 29631 net.cpp:434] pool1 <- conv1
I0508 08:43:11.718541 29631 net.cpp:408] pool1 -> pool1
I0508 08:43:11.718586 29631 net.cpp:150] Setting up pool1
I0508 08:43:11.718595 29631 net.cpp:157] Top shape: 1024 100 21 21 (45158400)
I0508 08:43:11.718597 29631 net.cpp:165] Memory required for data: 3099099136
I0508 08:43:11.718601 29631 layer_factory.hpp:77] Creating layer conv2
I0508 08:43:11.718611 29631 net.cpp:100] Creating Layer conv2
I0508 08:43:11.718616 29631 net.cpp:434] conv2 <- pool1
I0508 08:43:11.718621 29631 net.cpp:408] conv2 -> conv2
I0508 08:43:11.725548 29631 net.cpp:150] Setting up conv2
I0508 08:43:11.725569 29631 net.cpp:157] Top shape: 1024 150 18 18 (49766400)
I0508 08:43:11.725574 29631 net.cpp:165] Memory required for data: 3298164736
I0508 08:43:11.725584 29631 layer_factory.hpp:77] Creating layer conv2_prescale
I0508 08:43:11.725594 29631 net.cpp:100] Creating Layer conv2_prescale
I0508 08:43:11.725600 29631 net.cpp:434] conv2_prescale <- conv2
I0508 08:43:11.725605 29631 net.cpp:395] conv2_prescale -> conv2 (in-place)
I0508 08:43:11.725713 29631 net.cpp:150] Setting up conv2_prescale
I0508 08:43:11.725721 29631 net.cpp:157] Top shape: 1024 150 18 18 (49766400)
I0508 08:43:11.725724 29631 net.cpp:165] Memory required for data: 3497230336
I0508 08:43:11.725729 29631 layer_factory.hpp:77] Creating layer conv2_sTanH
I0508 08:43:11.725735 29631 net.cpp:100] Creating Layer conv2_sTanH
I0508 08:43:11.725739 29631 net.cpp:434] conv2_sTanH <- conv2
I0508 08:43:11.725745 29631 net.cpp:395] conv2_sTanH -> conv2 (in-place)
I0508 08:43:11.725929 29631 net.cpp:150] Setting up conv2_sTanH
I0508 08:43:11.725940 29631 net.cpp:157] Top shape: 1024 150 18 18 (49766400)
I0508 08:43:11.725945 29631 net.cpp:165] Memory required for data: 3696295936
I0508 08:43:11.725949 29631 layer_factory.hpp:77] Creating layer conv2_postscale
I0508 08:43:11.725956 29631 net.cpp:100] Creating Layer conv2_postscale
I0508 08:43:11.725962 29631 net.cpp:434] conv2_postscale <- conv2
I0508 08:43:11.725970 29631 net.cpp:395] conv2_postscale -> conv2 (in-place)
I0508 08:43:11.726068 29631 net.cpp:150] Setting up conv2_postscale
I0508 08:43:11.726076 29631 net.cpp:157] Top shape: 1024 150 18 18 (49766400)
I0508 08:43:11.726079 29631 net.cpp:165] Memory required for data: 3895361536
I0508 08:43:11.726084 29631 layer_factory.hpp:77] Creating layer pool2
I0508 08:43:11.726092 29631 net.cpp:100] Creating Layer pool2
I0508 08:43:11.726097 29631 net.cpp:434] pool2 <- conv2
I0508 08:43:11.726102 29631 net.cpp:408] pool2 -> pool2
I0508 08:43:11.726150 29631 net.cpp:150] Setting up pool2
I0508 08:43:11.726160 29631 net.cpp:157] Top shape: 1024 150 9 9 (12441600)
I0508 08:43:11.726164 29631 net.cpp:165] Memory required for data: 3945127936
I0508 08:43:11.726167 29631 layer_factory.hpp:77] Creating layer conv3
I0508 08:43:11.726177 29631 net.cpp:100] Creating Layer conv3
I0508 08:43:11.726182 29631 net.cpp:434] conv3 <- pool2
I0508 08:43:11.726189 29631 net.cpp:408] conv3 -> conv3
I0508 08:43:11.733270 29631 net.cpp:150] Setting up conv3
I0508 08:43:11.733289 29631 net.cpp:157] Top shape: 1024 250 6 6 (9216000)
I0508 08:43:11.733294 29631 net.cpp:165] Memory required for data: 3981991936
I0508 08:43:11.733304 29631 layer_factory.hpp:77] Creating layer conv3_prescale
I0508 08:43:11.733328 29631 net.cpp:100] Creating Layer conv3_prescale
I0508 08:43:11.733333 29631 net.cpp:434] conv3_prescale <- conv3
I0508 08:43:11.733345 29631 net.cpp:395] conv3_prescale -> conv3 (in-place)
I0508 08:43:11.733443 29631 net.cpp:150] Setting up conv3_prescale
I0508 08:43:11.733453 29631 net.cpp:157] Top shape: 1024 250 6 6 (9216000)
I0508 08:43:11.733455 29631 net.cpp:165] Memory required for data: 4018855936
I0508 08:43:11.733460 29631 layer_factory.hpp:77] Creating layer conv3_sTanH
I0508 08:43:11.733469 29631 net.cpp:100] Creating Layer conv3_sTanH
I0508 08:43:11.733474 29631 net.cpp:434] conv3_sTanH <- conv3
I0508 08:43:11.733479 29631 net.cpp:395] conv3_sTanH -> conv3 (in-place)
I0508 08:43:11.733667 29631 net.cpp:150] Setting up conv3_sTanH
I0508 08:43:11.733678 29631 net.cpp:157] Top shape: 1024 250 6 6 (9216000)
I0508 08:43:11.733682 29631 net.cpp:165] Memory required for data: 4055719936
I0508 08:43:11.733686 29631 layer_factory.hpp:77] Creating layer conv3_postscale
I0508 08:43:11.733692 29631 net.cpp:100] Creating Layer conv3_postscale
I0508 08:43:11.733696 29631 net.cpp:434] conv3_postscale <- conv3
I0508 08:43:11.733703 29631 net.cpp:395] conv3_postscale -> conv3 (in-place)
I0508 08:43:11.733798 29631 net.cpp:150] Setting up conv3_postscale
I0508 08:43:11.733806 29631 net.cpp:157] Top shape: 1024 250 6 6 (9216000)
I0508 08:43:11.733809 29631 net.cpp:165] Memory required for data: 4092583936
I0508 08:43:11.733814 29631 layer_factory.hpp:77] Creating layer pool3
I0508 08:43:11.733825 29631 net.cpp:100] Creating Layer pool3
I0508 08:43:11.733830 29631 net.cpp:434] pool3 <- conv3
I0508 08:43:11.733835 29631 net.cpp:408] pool3 -> pool3
I0508 08:43:11.733876 29631 net.cpp:150] Setting up pool3
I0508 08:43:11.733883 29631 net.cpp:157] Top shape: 1024 250 3 3 (2304000)
I0508 08:43:11.733886 29631 net.cpp:165] Memory required for data: 4101799936
I0508 08:43:11.733889 29631 layer_factory.hpp:77] Creating layer fc4_300
I0508 08:43:11.733897 29631 net.cpp:100] Creating Layer fc4_300
I0508 08:43:11.733901 29631 net.cpp:434] fc4_300 <- pool3
I0508 08:43:11.733908 29631 net.cpp:408] fc4_300 -> fc4_300
I0508 08:43:11.746258 29631 net.cpp:150] Setting up fc4_300
I0508 08:43:11.746275 29631 net.cpp:157] Top shape: 1024 300 (307200)
I0508 08:43:11.746279 29631 net.cpp:165] Memory required for data: 4103028736
I0508 08:43:11.746286 29631 layer_factory.hpp:77] Creating layer fc4_prescale
I0508 08:43:11.746295 29631 net.cpp:100] Creating Layer fc4_prescale
I0508 08:43:11.746300 29631 net.cpp:434] fc4_prescale <- fc4_300
I0508 08:43:11.746306 29631 net.cpp:395] fc4_prescale -> fc4_300 (in-place)
I0508 08:43:11.746399 29631 net.cpp:150] Setting up fc4_prescale
I0508 08:43:11.746408 29631 net.cpp:157] Top shape: 1024 300 (307200)
I0508 08:43:11.746412 29631 net.cpp:165] Memory required for data: 4104257536
I0508 08:43:11.746417 29631 layer_factory.hpp:77] Creating layer fc4_sTanH
I0508 08:43:11.746423 29631 net.cpp:100] Creating Layer fc4_sTanH
I0508 08:43:11.746426 29631 net.cpp:434] fc4_sTanH <- fc4_300
I0508 08:43:11.746431 29631 net.cpp:395] fc4_sTanH -> fc4_300 (in-place)
I0508 08:43:11.750794 29631 net.cpp:150] Setting up fc4_sTanH
I0508 08:43:11.750813 29631 net.cpp:157] Top shape: 1024 300 (307200)
I0508 08:43:11.750816 29631 net.cpp:165] Memory required for data: 4105486336
I0508 08:43:11.750820 29631 layer_factory.hpp:77] Creating layer fc4_postscale
I0508 08:43:11.750829 29631 net.cpp:100] Creating Layer fc4_postscale
I0508 08:43:11.750833 29631 net.cpp:434] fc4_postscale <- fc4_300
I0508 08:43:11.750841 29631 net.cpp:395] fc4_postscale -> fc4_300 (in-place)
I0508 08:43:11.750948 29631 net.cpp:150] Setting up fc4_postscale
I0508 08:43:11.750958 29631 net.cpp:157] Top shape: 1024 300 (307200)
I0508 08:43:11.750962 29631 net.cpp:165] Memory required for data: 4106715136
I0508 08:43:11.750969 29631 layer_factory.hpp:77] Creating layer fc5_116
I0508 08:43:11.750979 29631 net.cpp:100] Creating Layer fc5_116
I0508 08:43:11.750984 29631 net.cpp:434] fc5_116 <- fc4_300
I0508 08:43:11.750990 29631 net.cpp:408] fc5_116 -> fc5_classes
I0508 08:43:11.755522 29631 net.cpp:150] Setting up fc5_116
I0508 08:43:11.755539 29631 net.cpp:157] Top shape: 1024 116 (118784)
I0508 08:43:11.755543 29631 net.cpp:165] Memory required for data: 4107190272
I0508 08:43:11.755556 29631 layer_factory.hpp:77] Creating layer fc5_classes_fc5_116_0_split
I0508 08:43:11.755565 29631 net.cpp:100] Creating Layer fc5_classes_fc5_116_0_split
I0508 08:43:11.755569 29631 net.cpp:434] fc5_classes_fc5_116_0_split <- fc5_classes
I0508 08:43:11.755574 29631 net.cpp:408] fc5_classes_fc5_116_0_split -> fc5_classes_fc5_116_0_split_0
I0508 08:43:11.755583 29631 net.cpp:408] fc5_classes_fc5_116_0_split -> fc5_classes_fc5_116_0_split_1
I0508 08:43:11.755590 29631 net.cpp:408] fc5_classes_fc5_116_0_split -> fc5_classes_fc5_116_0_split_2
I0508 08:43:11.755645 29631 net.cpp:150] Setting up fc5_classes_fc5_116_0_split
I0508 08:43:11.755652 29631 net.cpp:157] Top shape: 1024 116 (118784)
I0508 08:43:11.755656 29631 net.cpp:157] Top shape: 1024 116 (118784)
I0508 08:43:11.755661 29631 net.cpp:157] Top shape: 1024 116 (118784)
I0508 08:43:11.755663 29631 net.cpp:165] Memory required for data: 4108615680
I0508 08:43:11.755666 29631 layer_factory.hpp:77] Creating layer softmax
I0508 08:43:11.755676 29631 net.cpp:100] Creating Layer softmax
I0508 08:43:11.755681 29631 net.cpp:434] softmax <- fc5_classes_fc5_116_0_split_0
I0508 08:43:11.755686 29631 net.cpp:408] softmax -> softmax
I0508 08:43:11.755959 29631 net.cpp:150] Setting up softmax
I0508 08:43:11.755975 29631 net.cpp:157] Top shape: 1024 116 (118784)
I0508 08:43:11.755977 29631 net.cpp:165] Memory required for data: 4109090816
I0508 08:43:11.755981 29631 layer_factory.hpp:77] Creating layer loss
I0508 08:43:11.755988 29631 net.cpp:100] Creating Layer loss
I0508 08:43:11.755993 29631 net.cpp:434] loss <- softmax
I0508 08:43:11.755998 29631 net.cpp:434] loss <- label_data_1_split_0
I0508 08:43:11.756006 29631 net.cpp:408] loss -> loss
…
