…
I0528 06:27:38.628365 26121 solver.cpp:81] Creating training net from train_net file: ./Prototxt/experiment_21/RTSD/imajust/trial_2/train.prototxt
I0528 06:27:38.628952 26121 net.cpp:58] Initializing net from parameters: 
state {
  phase: TRAIN
  level: 0
  stage: ""
}
layer {
  name: "data"
  type: "Data"
  top: "data"
  top: "label"
  include {
    phase: TRAIN
  }
  transform_param {
    scale: 0.0039215689
    mirror: false
    crop_size: 48
    mean_value: 119
    mean_value: 113
    mean_value: 113
  }
  data_param {
    source: "../local_data/lmdb/RTSD/imajust/train/lmdb"
    batch_size: 1024
    backend: LMDB
  }
}
layer {
  name: "conv1"
  type: "Convolution"
  bottom: "data"
  top: "conv1"
  convolution_param {
    num_output: 100
    pad: 0
    kernel_size: 7
    group: 1
    stride: 1
    weight_filler {
      type: "xavier"
    }
  }
}
layer {
  name: "conv1_relu"
  type: "ReLU"
  bottom: "conv1"
  top: "conv1"
}
layer {
  name: "pool1"
  type: "Pooling"
  bottom: "conv1"
  top: "pool1"
  pooling_param {
    pool: MAX
    kernel_size: 2
    stride: 2
  }
}
layer {
  name: "conv2"
  type: "Convolution"
  bottom: "pool1"
  top: "conv2"
  convolution_param {
    num_output: 150
    pad: 0
    kernel_size: 4
    group: 1
    stride: 1
    weight_filler {
      type: "xavier"
    }
  }
}
layer {
  name: "conv2_relu"
  type: "ReLU"
  bottom: "conv2"
  top: "conv2"
}
layer {
  name: "pool2"
  type: "Pooling"
  bottom: "conv2"
  top: "pool2"
  pooling_param {
    pool: MAX
    kernel_size: 2
    stride: 2
  }
}
layer {
  name: "conv3"
  type: "Convolution"
  bottom: "pool2"
  top: "conv3"
  convolution_param {
    num_output: 250
    pad: 0
    kernel_size: 4
    group: 1
    stride: 1
    weight_filler {
      type: "xavier"
    }
  }
}
layer {
  name: "conv3_relu"
  type: "ReLU"
  bottom: "conv3"
  top: "conv3"
}
layer {
  name: "pool3"
  type: "Pooling"
  bottom: "conv3"
  top: "pool3"
  pooling_param {
    pool: MAX
    kernel_size: 2
    stride: 2
  }
}
layer {
  name: "fc4_300"
  type: "InnerProduct"
  bottom: "pool3"
  top: "fc4_300"
  inner_product_param {
    num_output: 300
    weight_filler {
      type: "xavier"
    }
  }
}
layer {
  name: "fc4_relu"
  type: "ReLU"
  bottom: "fc4_300"
  top: "fc4_300"
}
layer {
  name: "fc5_116"
  type: "InnerProduct"
  bottom: "fc4_300"
  top: "fc5_classes"
  inner_product_param {
    num_output: 116
    weight_filler {
      type: "xavier"
    }
  }
}
layer {
  name: "softmax"
  type: "Softmax"
  bottom: "fc5_classes"
  top: "softmax"
}
layer {
  name: "loss"
  type: "MultinomialLogisticLoss"
  bottom: "softmax"
  bottom: "label"
  top: "loss"
}
layer {
  name: "accuracy_1"
  type: "Accuracy"
  bottom: "fc5_classes"
  bottom: "label"
  top: "accuracy_1"
  accuracy_param {
    top_k: 1
  }
}
layer {
  name: "accuracy_5"
  type: "Accuracy"
  bottom: "fc5_classes"
  bottom: "label"
  top: "accuracy_5"
  accuracy_param {
    top_k: 5
  }
}
layer {
  name: "silence"
  type: "Silence"
  bottom: "accuracy_1"
  bottom: "accuracy_5"
}
I0528 06:27:38.629112 26121 layer_factory.hpp:77] Creating layer data
I0528 06:27:38.630304 26121 net.cpp:100] Creating Layer data
I0528 06:27:38.630354 26121 net.cpp:408] data -> data
I0528 06:27:38.630409 26121 net.cpp:408] data -> label
I0528 06:27:38.631286 26167 db_lmdb.cpp:35] Opened lmdb ../local_data/lmdb/RTSD/imajust/train/lmdb
I0528 06:27:38.654239 26121 data_layer.cpp:41] output data size: 1024,3,48,48
I0528 06:27:38.713922 26121 net.cpp:150] Setting up data
I0528 06:27:38.714038 26121 net.cpp:157] Top shape: 1024 3 48 48 (7077888)
I0528 06:27:38.714066 26121 net.cpp:157] Top shape: 1024 (1024)
I0528 06:27:38.714094 26121 net.cpp:165] Memory required for data: 28315648
I0528 06:27:38.714113 26121 layer_factory.hpp:77] Creating layer label_data_1_split
I0528 06:27:38.714130 26121 net.cpp:100] Creating Layer label_data_1_split
I0528 06:27:38.714140 26121 net.cpp:434] label_data_1_split <- label
I0528 06:27:38.714169 26121 net.cpp:408] label_data_1_split -> label_data_1_split_0
I0528 06:27:38.714195 26121 net.cpp:408] label_data_1_split -> label_data_1_split_1
I0528 06:27:38.714207 26121 net.cpp:408] label_data_1_split -> label_data_1_split_2
I0528 06:27:38.714277 26121 net.cpp:150] Setting up label_data_1_split
I0528 06:27:38.714288 26121 net.cpp:157] Top shape: 1024 (1024)
I0528 06:27:38.714295 26121 net.cpp:157] Top shape: 1024 (1024)
I0528 06:27:38.714303 26121 net.cpp:157] Top shape: 1024 (1024)
I0528 06:27:38.714309 26121 net.cpp:165] Memory required for data: 28327936
I0528 06:27:38.714315 26121 layer_factory.hpp:77] Creating layer conv1
I0528 06:27:38.714340 26121 net.cpp:100] Creating Layer conv1
I0528 06:27:38.714351 26121 net.cpp:434] conv1 <- data
I0528 06:27:38.714360 26121 net.cpp:408] conv1 -> conv1
I0528 06:27:39.374713 26121 net.cpp:150] Setting up conv1
I0528 06:27:39.374758 26121 net.cpp:157] Top shape: 1024 100 42 42 (180633600)
I0528 06:27:39.374765 26121 net.cpp:165] Memory required for data: 750862336
I0528 06:27:39.374791 26121 layer_factory.hpp:77] Creating layer conv1_relu
I0528 06:27:39.374814 26121 net.cpp:100] Creating Layer conv1_relu
I0528 06:27:39.374820 26121 net.cpp:434] conv1_relu <- conv1
I0528 06:27:39.374836 26121 net.cpp:395] conv1_relu -> conv1 (in-place)
I0528 06:27:39.375049 26121 net.cpp:150] Setting up conv1_relu
I0528 06:27:39.375085 26121 net.cpp:157] Top shape: 1024 100 42 42 (180633600)
I0528 06:27:39.375130 26121 net.cpp:165] Memory required for data: 1473396736
I0528 06:27:39.375167 26121 layer_factory.hpp:77] Creating layer pool1
I0528 06:27:39.375213 26121 net.cpp:100] Creating Layer pool1
I0528 06:27:39.375246 26121 net.cpp:434] pool1 <- conv1
I0528 06:27:39.375283 26121 net.cpp:408] pool1 -> pool1
I0528 06:27:39.375368 26121 net.cpp:150] Setting up pool1
I0528 06:27:39.375380 26121 net.cpp:157] Top shape: 1024 100 21 21 (45158400)
I0528 06:27:39.375386 26121 net.cpp:165] Memory required for data: 1654030336
I0528 06:27:39.375393 26121 layer_factory.hpp:77] Creating layer conv2
I0528 06:27:39.375416 26121 net.cpp:100] Creating Layer conv2
I0528 06:27:39.375447 26121 net.cpp:434] conv2 <- pool1
I0528 06:27:39.375486 26121 net.cpp:408] conv2 -> conv2
I0528 06:27:39.380993 26121 net.cpp:150] Setting up conv2
I0528 06:27:39.381039 26121 net.cpp:157] Top shape: 1024 150 18 18 (49766400)
I0528 06:27:39.381047 26121 net.cpp:165] Memory required for data: 1853095936
I0528 06:27:39.381068 26121 layer_factory.hpp:77] Creating layer conv2_relu
I0528 06:27:39.381080 26121 net.cpp:100] Creating Layer conv2_relu
I0528 06:27:39.381093 26121 net.cpp:434] conv2_relu <- conv2
I0528 06:27:39.381108 26121 net.cpp:395] conv2_relu -> conv2 (in-place)
I0528 06:27:39.381290 26121 net.cpp:150] Setting up conv2_relu
I0528 06:27:39.381309 26121 net.cpp:157] Top shape: 1024 150 18 18 (49766400)
I0528 06:27:39.381314 26121 net.cpp:165] Memory required for data: 2052161536
I0528 06:27:39.381319 26121 layer_factory.hpp:77] Creating layer pool2
I0528 06:27:39.381330 26121 net.cpp:100] Creating Layer pool2
I0528 06:27:39.381335 26121 net.cpp:434] pool2 <- conv2
I0528 06:27:39.381340 26121 net.cpp:408] pool2 -> pool2
I0528 06:27:39.381389 26121 net.cpp:150] Setting up pool2
I0528 06:27:39.381398 26121 net.cpp:157] Top shape: 1024 150 9 9 (12441600)
I0528 06:27:39.381403 26121 net.cpp:165] Memory required for data: 2101927936
I0528 06:27:39.381407 26121 layer_factory.hpp:77] Creating layer conv3
I0528 06:27:39.381428 26121 net.cpp:100] Creating Layer conv3
I0528 06:27:39.381433 26121 net.cpp:434] conv3 <- pool2
I0528 06:27:39.381440 26121 net.cpp:408] conv3 -> conv3
I0528 06:27:39.387480 26121 net.cpp:150] Setting up conv3
I0528 06:27:39.387524 26121 net.cpp:157] Top shape: 1024 250 6 6 (9216000)
I0528 06:27:39.387531 26121 net.cpp:165] Memory required for data: 2138791936
I0528 06:27:39.387552 26121 layer_factory.hpp:77] Creating layer conv3_relu
I0528 06:27:39.387569 26121 net.cpp:100] Creating Layer conv3_relu
I0528 06:27:39.387575 26121 net.cpp:434] conv3_relu <- conv3
I0528 06:27:39.387583 26121 net.cpp:395] conv3_relu -> conv3 (in-place)
I0528 06:27:39.388039 26121 net.cpp:150] Setting up conv3_relu
I0528 06:27:39.388069 26121 net.cpp:157] Top shape: 1024 250 6 6 (9216000)
I0528 06:27:39.388075 26121 net.cpp:165] Memory required for data: 2175655936
I0528 06:27:39.388080 26121 layer_factory.hpp:77] Creating layer pool3
I0528 06:27:39.388089 26121 net.cpp:100] Creating Layer pool3
I0528 06:27:39.388094 26121 net.cpp:434] pool3 <- conv3
I0528 06:27:39.388101 26121 net.cpp:408] pool3 -> pool3
I0528 06:27:39.388142 26121 net.cpp:150] Setting up pool3
I0528 06:27:39.388152 26121 net.cpp:157] Top shape: 1024 250 3 3 (2304000)
I0528 06:27:39.388156 26121 net.cpp:165] Memory required for data: 2184871936
I0528 06:27:39.388160 26121 layer_factory.hpp:77] Creating layer fc4_300
I0528 06:27:39.388175 26121 net.cpp:100] Creating Layer fc4_300
I0528 06:27:39.388190 26121 net.cpp:434] fc4_300 <- pool3
I0528 06:27:39.388197 26121 net.cpp:408] fc4_300 -> fc4_300
I0528 06:27:39.395164 26121 net.cpp:150] Setting up fc4_300
I0528 06:27:39.395211 26121 net.cpp:157] Top shape: 1024 300 (307200)
I0528 06:27:39.395217 26121 net.cpp:165] Memory required for data: 2186100736
I0528 06:27:39.395236 26121 layer_factory.hpp:77] Creating layer fc4_relu
I0528 06:27:39.395253 26121 net.cpp:100] Creating Layer fc4_relu
I0528 06:27:39.395259 26121 net.cpp:434] fc4_relu <- fc4_300
I0528 06:27:39.395274 26121 net.cpp:395] fc4_relu -> fc4_300 (in-place)
I0528 06:27:39.395483 26121 net.cpp:150] Setting up fc4_relu
I0528 06:27:39.395495 26121 net.cpp:157] Top shape: 1024 300 (307200)
I0528 06:27:39.395500 26121 net.cpp:165] Memory required for data: 2187329536
I0528 06:27:39.395504 26121 layer_factory.hpp:77] Creating layer fc5_116
I0528 06:27:39.395521 26121 net.cpp:100] Creating Layer fc5_116
I0528 06:27:39.395530 26121 net.cpp:434] fc5_116 <- fc4_300
I0528 06:27:39.395537 26121 net.cpp:408] fc5_116 -> fc5_classes
I0528 06:27:39.398008 26121 net.cpp:150] Setting up fc5_116
I0528 06:27:39.398037 26121 net.cpp:157] Top shape: 1024 116 (118784)
I0528 06:27:39.398046 26121 net.cpp:165] Memory required for data: 2187804672
I0528 06:27:39.398062 26121 layer_factory.hpp:77] Creating layer fc5_classes_fc5_116_0_split
I0528 06:27:39.398073 26121 net.cpp:100] Creating Layer fc5_classes_fc5_116_0_split
I0528 06:27:39.398080 26121 net.cpp:434] fc5_classes_fc5_116_0_split <- fc5_classes
I0528 06:27:39.398090 26121 net.cpp:408] fc5_classes_fc5_116_0_split -> fc5_classes_fc5_116_0_split_0
I0528 06:27:39.398102 26121 net.cpp:408] fc5_classes_fc5_116_0_split -> fc5_classes_fc5_116_0_split_1
I0528 06:27:39.398118 26121 net.cpp:408] fc5_classes_fc5_116_0_split -> fc5_classes_fc5_116_0_split_2
I0528 06:27:39.398170 26121 net.cpp:150] Setting up fc5_classes_fc5_116_0_split
I0528 06:27:39.398182 26121 net.cpp:157] Top shape: 1024 116 (118784)
I0528 06:27:39.398190 26121 net.cpp:157] Top shape: 1024 116 (118784)
I0528 06:27:39.398195 26121 net.cpp:157] Top shape: 1024 116 (118784)
I0528 06:27:39.398201 26121 net.cpp:165] Memory required for data: 2189230080
I0528 06:27:39.398207 26121 layer_factory.hpp:77] Creating layer softmax
I0528 06:27:39.398217 26121 net.cpp:100] Creating Layer softmax
I0528 06:27:39.398223 26121 net.cpp:434] softmax <- fc5_classes_fc5_116_0_split_0
I0528 06:27:39.398231 26121 net.cpp:408] softmax -> softmax
I0528 06:27:39.398511 26121 net.cpp:150] Setting up softmax
I0528 06:27:39.398527 26121 net.cpp:157] Top shape: 1024 116 (118784)
I0528 06:27:39.398533 26121 net.cpp:165] Memory required for data: 2189705216
I0528 06:27:39.398540 26121 layer_factory.hpp:77] Creating layer loss
I0528 06:27:39.398576 26121 net.cpp:100] Creating Layer loss
I0528 06:27:39.398583 26121 net.cpp:434] loss <- softmax
I0528 06:27:39.398591 26121 net.cpp:434] loss <- label_data_1_split_0
I0528 06:27:39.398599 26121 net.cpp:408] loss -> loss
…
