…
I0414 10:12:33.959489 26100 solver.cpp:93] Creating training net from train_net file: ./Prototxt/experiment_10/rtsd-r3/CoNorm/trial_2/train.prototxt
I0414 10:12:33.959898 26100 net.cpp:58] Initializing net from parameters: 
state {
  phase: TRAIN
  level: 0
  stage: ""
}
layer {
  name: "data"
  type: "Data"
  top: "data"
  top: "label"
  include {
    phase: TRAIN
  }
  transform_param {
    scale: 0.0039215689
    mirror: false
    crop_size: 48
    mean_value: 135
    mean_value: 134
    mean_value: 134
  }
  data_param {
    source: "../local_data/lmdb/rtsd-r3/CoNorm/train/lmdb"
    batch_size: 1024
    backend: LMDB
  }
}
layer {
  name: "conv1"
  type: "Convolution"
  bottom: "data"
  top: "conv1"
  convolution_param {
    num_output: 100
    pad: 0
    kernel_size: 7
    group: 1
    stride: 1
    weight_filler {
      type: "xavier"
    }
  }
}
layer {
  name: "conv1_relu"
  type: "ReLU"
  bottom: "conv1"
  top: "conv1"
}
layer {
  name: "pool1"
  type: "Pooling"
  bottom: "conv1"
  top: "pool1"
  pooling_param {
    pool: MAX
    kernel_size: 2
    stride: 2
  }
}
layer {
  name: "conv2"
  type: "Convolution"
  bottom: "pool1"
  top: "conv2"
  convolution_param {
    num_output: 150
    pad: 0
    kernel_size: 4
    group: 1
    stride: 1
    weight_filler {
      type: "xavier"
    }
  }
}
layer {
  name: "conv2_relu"
  type: "ReLU"
  bottom: "conv2"
  top: "conv2"
}
layer {
  name: "pool2"
  type: "Pooling"
  bottom: "conv2"
  top: "pool2"
  pooling_param {
    pool: MAX
    kernel_size: 2
    stride: 2
  }
}
layer {
  name: "conv3"
  type: "Convolution"
  bottom: "pool2"
  top: "conv3"
  convolution_param {
    num_output: 250
    pad: 0
    kernel_size: 4
    group: 1
    stride: 1
    weight_filler {
      type: "xavier"
    }
  }
}
layer {
  name: "conv3_relu"
  type: "ReLU"
  bottom: "conv3"
  top: "conv3"
}
layer {
  name: "pool3"
  type: "Pooling"
  bottom: "conv3"
  top: "pool3"
  pooling_param {
    pool: MAX
    kernel_size: 2
    stride: 2
  }
}
layer {
  name: "fc4_300"
  type: "InnerProduct"
  bottom: "pool3"
  top: "fc4_300"
  inner_product_param {
    num_output: 300
    weight_filler {
      type: "xavier"
    }
  }
}
layer {
  name: "fc4_relu"
  type: "ReLU"
  bottom: "fc4_300"
  top: "fc4_300"
}
layer {
  name: "fc5_106"
  type: "InnerProduct"
  bottom: "fc4_300"
  top: "fc5_classes"
  inner_product_param {
    num_output: 106
    weight_filler {
      type: "xavier"
    }
  }
}
layer {
  name: "softmax"
  type: "Softmax"
  bottom: "fc5_classes"
  top: "softmax"
}
layer {
  name: "loss"
  type: "MultinomialLogisticLoss"
  bottom: "softmax"
  bottom: "label"
  top: "loss"
}
layer {
  name: "accuracy_1"
  type: "Accuracy"
  bottom: "fc5_classes"
  bottom: "label"
  top: "accuracy_1"
  accuracy_param {
    top_k: 1
  }
}
layer {
  name: "accuracy_5"
  type: "Accuracy"
  bottom: "fc5_classes"
  bottom: "label"
  top: "accuracy_5"
  accuracy_param {
    top_k: 5
  }
}
layer {
  name: "silence"
  type: "Silence"
  bottom: "accuracy_1"
  bottom: "accuracy_5"
}
I0414 10:12:33.960044 26100 layer_factory.hpp:77] Creating layer data
I0414 10:12:33.961330 26100 net.cpp:100] Creating Layer data
I0414 10:12:33.961349 26100 net.cpp:408] data -> data
I0414 10:12:33.961380 26100 net.cpp:408] data -> label
I0414 10:12:33.966958 26211 db_lmdb.cpp:35] Opened lmdb ../local_data/lmdb/rtsd-r3/CoNorm/train/lmdb
I0414 10:12:33.988257 26100 data_layer.cpp:41] output data size: 1024,3,48,48
I0414 10:12:34.054657 26100 net.cpp:150] Setting up data
I0414 10:12:34.054713 26100 net.cpp:157] Top shape: 1024 3 48 48 (7077888)
I0414 10:12:34.054719 26100 net.cpp:157] Top shape: 1024 (1024)
I0414 10:12:34.054723 26100 net.cpp:165] Memory required for data: 28315648
I0414 10:12:34.054733 26100 layer_factory.hpp:77] Creating layer label_data_1_split
I0414 10:12:34.054747 26100 net.cpp:100] Creating Layer label_data_1_split
I0414 10:12:34.054756 26100 net.cpp:434] label_data_1_split <- label
I0414 10:12:34.054774 26100 net.cpp:408] label_data_1_split -> label_data_1_split_0
I0414 10:12:34.054787 26100 net.cpp:408] label_data_1_split -> label_data_1_split_1
I0414 10:12:34.054795 26100 net.cpp:408] label_data_1_split -> label_data_1_split_2
I0414 10:12:34.054869 26100 net.cpp:150] Setting up label_data_1_split
I0414 10:12:34.054878 26100 net.cpp:157] Top shape: 1024 (1024)
I0414 10:12:34.054883 26100 net.cpp:157] Top shape: 1024 (1024)
I0414 10:12:34.054888 26100 net.cpp:157] Top shape: 1024 (1024)
I0414 10:12:34.054889 26100 net.cpp:165] Memory required for data: 28327936
I0414 10:12:34.054893 26100 layer_factory.hpp:77] Creating layer conv1
I0414 10:12:34.054918 26100 net.cpp:100] Creating Layer conv1
I0414 10:12:34.054924 26100 net.cpp:434] conv1 <- data
I0414 10:12:34.054930 26100 net.cpp:408] conv1 -> conv1
I0414 10:12:34.392868 26100 net.cpp:150] Setting up conv1
I0414 10:12:34.392897 26100 net.cpp:157] Top shape: 1024 100 42 42 (180633600)
I0414 10:12:34.392901 26100 net.cpp:165] Memory required for data: 750862336
I0414 10:12:34.392925 26100 layer_factory.hpp:77] Creating layer conv1_relu
I0414 10:12:34.392935 26100 net.cpp:100] Creating Layer conv1_relu
I0414 10:12:34.392940 26100 net.cpp:434] conv1_relu <- conv1
I0414 10:12:34.392946 26100 net.cpp:395] conv1_relu -> conv1 (in-place)
I0414 10:12:34.393146 26100 net.cpp:150] Setting up conv1_relu
I0414 10:12:34.393157 26100 net.cpp:157] Top shape: 1024 100 42 42 (180633600)
I0414 10:12:34.393160 26100 net.cpp:165] Memory required for data: 1473396736
I0414 10:12:34.393164 26100 layer_factory.hpp:77] Creating layer pool1
I0414 10:12:34.393173 26100 net.cpp:100] Creating Layer pool1
I0414 10:12:34.393178 26100 net.cpp:434] pool1 <- conv1
I0414 10:12:34.393183 26100 net.cpp:408] pool1 -> pool1
I0414 10:12:34.393236 26100 net.cpp:150] Setting up pool1
I0414 10:12:34.393244 26100 net.cpp:157] Top shape: 1024 100 21 21 (45158400)
I0414 10:12:34.393247 26100 net.cpp:165] Memory required for data: 1654030336
I0414 10:12:34.393250 26100 layer_factory.hpp:77] Creating layer conv2
I0414 10:12:34.393262 26100 net.cpp:100] Creating Layer conv2
I0414 10:12:34.393280 26100 net.cpp:434] conv2 <- pool1
I0414 10:12:34.393285 26100 net.cpp:408] conv2 -> conv2
I0414 10:12:34.399063 26100 net.cpp:150] Setting up conv2
I0414 10:12:34.399080 26100 net.cpp:157] Top shape: 1024 150 18 18 (49766400)
I0414 10:12:34.399082 26100 net.cpp:165] Memory required for data: 1853095936
I0414 10:12:34.399092 26100 layer_factory.hpp:77] Creating layer conv2_relu
I0414 10:12:34.399099 26100 net.cpp:100] Creating Layer conv2_relu
I0414 10:12:34.399102 26100 net.cpp:434] conv2_relu <- conv2
I0414 10:12:34.399107 26100 net.cpp:395] conv2_relu -> conv2 (in-place)
I0414 10:12:34.400105 26100 net.cpp:150] Setting up conv2_relu
I0414 10:12:34.400122 26100 net.cpp:157] Top shape: 1024 150 18 18 (49766400)
I0414 10:12:34.400125 26100 net.cpp:165] Memory required for data: 2052161536
I0414 10:12:34.400130 26100 layer_factory.hpp:77] Creating layer pool2
I0414 10:12:34.400136 26100 net.cpp:100] Creating Layer pool2
I0414 10:12:34.400140 26100 net.cpp:434] pool2 <- conv2
I0414 10:12:34.400144 26100 net.cpp:408] pool2 -> pool2
I0414 10:12:34.400192 26100 net.cpp:150] Setting up pool2
I0414 10:12:34.400200 26100 net.cpp:157] Top shape: 1024 150 9 9 (12441600)
I0414 10:12:34.400202 26100 net.cpp:165] Memory required for data: 2101927936
I0414 10:12:34.400205 26100 layer_factory.hpp:77] Creating layer conv3
I0414 10:12:34.400215 26100 net.cpp:100] Creating Layer conv3
I0414 10:12:34.400218 26100 net.cpp:434] conv3 <- pool2
I0414 10:12:34.400223 26100 net.cpp:408] conv3 -> conv3
I0414 10:12:34.405834 26100 net.cpp:150] Setting up conv3
I0414 10:12:34.405851 26100 net.cpp:157] Top shape: 1024 250 6 6 (9216000)
I0414 10:12:34.405855 26100 net.cpp:165] Memory required for data: 2138791936
I0414 10:12:34.405864 26100 layer_factory.hpp:77] Creating layer conv3_relu
I0414 10:12:34.405871 26100 net.cpp:100] Creating Layer conv3_relu
I0414 10:12:34.405875 26100 net.cpp:434] conv3_relu <- conv3
I0414 10:12:34.405880 26100 net.cpp:395] conv3_relu -> conv3 (in-place)
I0414 10:12:34.409492 26100 net.cpp:150] Setting up conv3_relu
I0414 10:12:34.409510 26100 net.cpp:157] Top shape: 1024 250 6 6 (9216000)
I0414 10:12:34.409513 26100 net.cpp:165] Memory required for data: 2175655936
I0414 10:12:34.409518 26100 layer_factory.hpp:77] Creating layer pool3
I0414 10:12:34.409524 26100 net.cpp:100] Creating Layer pool3
I0414 10:12:34.409528 26100 net.cpp:434] pool3 <- conv3
I0414 10:12:34.409534 26100 net.cpp:408] pool3 -> pool3
I0414 10:12:34.409581 26100 net.cpp:150] Setting up pool3
I0414 10:12:34.409590 26100 net.cpp:157] Top shape: 1024 250 3 3 (2304000)
I0414 10:12:34.409592 26100 net.cpp:165] Memory required for data: 2184871936
I0414 10:12:34.409595 26100 layer_factory.hpp:77] Creating layer fc4_300
I0414 10:12:34.409602 26100 net.cpp:100] Creating Layer fc4_300
I0414 10:12:34.409605 26100 net.cpp:434] fc4_300 <- pool3
I0414 10:12:34.409610 26100 net.cpp:408] fc4_300 -> fc4_300
I0414 10:12:34.415119 26100 net.cpp:150] Setting up fc4_300
I0414 10:12:34.415136 26100 net.cpp:157] Top shape: 1024 300 (307200)
I0414 10:12:34.415139 26100 net.cpp:165] Memory required for data: 2186100736
I0414 10:12:34.415146 26100 layer_factory.hpp:77] Creating layer fc4_relu
I0414 10:12:34.415153 26100 net.cpp:100] Creating Layer fc4_relu
I0414 10:12:34.415156 26100 net.cpp:434] fc4_relu <- fc4_300
I0414 10:12:34.415161 26100 net.cpp:395] fc4_relu -> fc4_300 (in-place)
I0414 10:12:34.415339 26100 net.cpp:150] Setting up fc4_relu
I0414 10:12:34.415351 26100 net.cpp:157] Top shape: 1024 300 (307200)
I0414 10:12:34.415354 26100 net.cpp:165] Memory required for data: 2187329536
I0414 10:12:34.415357 26100 layer_factory.hpp:77] Creating layer fc5_106
I0414 10:12:34.415364 26100 net.cpp:100] Creating Layer fc5_106
I0414 10:12:34.415367 26100 net.cpp:434] fc5_106 <- fc4_300
I0414 10:12:34.415372 26100 net.cpp:408] fc5_106 -> fc5_classes
I0414 10:12:34.417436 26100 net.cpp:150] Setting up fc5_106
I0414 10:12:34.417451 26100 net.cpp:157] Top shape: 1024 106 (108544)
I0414 10:12:34.417455 26100 net.cpp:165] Memory required for data: 2187763712
I0414 10:12:34.417465 26100 layer_factory.hpp:77] Creating layer fc5_classes_fc5_106_0_split
I0414 10:12:34.417472 26100 net.cpp:100] Creating Layer fc5_classes_fc5_106_0_split
I0414 10:12:34.417477 26100 net.cpp:434] fc5_classes_fc5_106_0_split <- fc5_classes
I0414 10:12:34.417484 26100 net.cpp:408] fc5_classes_fc5_106_0_split -> fc5_classes_fc5_106_0_split_0
I0414 10:12:34.417490 26100 net.cpp:408] fc5_classes_fc5_106_0_split -> fc5_classes_fc5_106_0_split_1
I0414 10:12:34.417498 26100 net.cpp:408] fc5_classes_fc5_106_0_split -> fc5_classes_fc5_106_0_split_2
I0414 10:12:34.417548 26100 net.cpp:150] Setting up fc5_classes_fc5_106_0_split
I0414 10:12:34.417557 26100 net.cpp:157] Top shape: 1024 106 (108544)
I0414 10:12:34.417559 26100 net.cpp:157] Top shape: 1024 106 (108544)
I0414 10:12:34.417563 26100 net.cpp:157] Top shape: 1024 106 (108544)
I0414 10:12:34.417565 26100 net.cpp:165] Memory required for data: 2189066240
I0414 10:12:34.417569 26100 layer_factory.hpp:77] Creating layer softmax
I0414 10:12:34.417575 26100 net.cpp:100] Creating Layer softmax
I0414 10:12:34.417579 26100 net.cpp:434] softmax <- fc5_classes_fc5_106_0_split_0
I0414 10:12:34.417584 26100 net.cpp:408] softmax -> softmax
I0414 10:12:34.417822 26100 net.cpp:150] Setting up softmax
I0414 10:12:34.417834 26100 net.cpp:157] Top shape: 1024 106 (108544)
I0414 10:12:34.417839 26100 net.cpp:165] Memory required for data: 2189500416
I0414 10:12:34.417842 26100 layer_factory.hpp:77] Creating layer loss
I0414 10:12:34.417865 26100 net.cpp:100] Creating Layer loss
I0414 10:12:34.417871 26100 net.cpp:434] loss <- softmax
I0414 10:12:34.417876 26100 net.cpp:434] loss <- label_data_1_split_0
I0414 10:12:34.417881 26100 net.cpp:408] loss -> loss
…
