…
I0402 05:47:53.624270 11241 net.cpp:322] The NetState phase (0) differed from the phase (1) specified by a rule in layer accuracy_5
I0402 05:47:53.624364 11241 net.cpp:58] Initializing net from parameters: 
state {
  phase: TRAIN
  level: 0
  stage: ""
}
layer {
  name: "data"
  type: "Data"
  top: "data"
  top: "label"
  include {
    phase: TRAIN
  }
  transform_param {
    mirror: false
    crop_size: 48
    mean_value: 118
    mean_value: 112
    mean_value: 112
  }
  data_param {
    source: "../local_data/lmdb/rtsd-r3/imajust/train/lmdb"
    batch_size: 1024
    backend: LMDB
  }
}
layer {
  name: "conv1"
  type: "Convolution"
  bottom: "data"
  top: "conv1"
  convolution_param {
    num_output: 100
    pad: 0
    kernel_size: 7
    group: 1
    stride: 1
    weight_filler {
      type: "xavier"
    }
  }
}
layer {
  name: "conv1_relu"
  type: "ReLU"
  bottom: "conv1"
  top: "conv1"
}
layer {
  name: "pool1"
  type: "Pooling"
  bottom: "conv1"
  top: "pool1"
  pooling_param {
    pool: MAX
    kernel_size: 2
    stride: 2
  }
}
layer {
  name: "conv2"
  type: "Convolution"
  bottom: "pool1"
  top: "conv2"
  convolution_param {
    num_output: 150
    pad: 0
    kernel_size: 4
    group: 1
    stride: 1
    weight_filler {
      type: "xavier"
    }
  }
}
layer {
  name: "conv2_relu"
  type: "ReLU"
  bottom: "conv2"
  top: "conv2"
}
layer {
  name: "pool2"
  type: "Pooling"
  bottom: "conv2"
  top: "pool2"
  pooling_param {
    pool: MAX
    kernel_size: 2
    stride: 2
  }
}
layer {
  name: "conv3"
  type: "Convolution"
  bottom: "pool2"
  top: "conv3"
  convolution_param {
    num_output: 250
    pad: 0
    kernel_size: 4
    group: 1
    stride: 1
    weight_filler {
      type: "xavier"
    }
  }
}
layer {
  name: "conv3_relu"
  type: "ReLU"
  bottom: "conv3"
  top: "conv3"
}
layer {
  name: "pool3"
  type: "Pooling"
  bottom: "conv3"
  top: "pool3"
  pooling_param {
    pool: MAX
    kernel_size: 2
    stride: 2
  }
}
layer {
  name: "fc4_300"
  type: "InnerProduct"
  bottom: "pool3"
  top: "fc4_300"
  inner_product_param {
    num_output: 300
    weight_filler {
      type: "xavier"
    }
  }
}
layer {
  name: "fc4_relu"
  type: "ReLU"
  bottom: "fc4_300"
  top: "fc4_300"
}
layer {
  name: "drop4"
  type: "Dropout"
  bottom: "fc4_300"
  top: "fc4_300"
  dropout_param {
    dropout_ratio: 0.4
  }
}
layer {
  name: "fc5_106"
  type: "InnerProduct"
  bottom: "fc4_300"
  top: "fc5_classes"
  inner_product_param {
    num_output: 106
    weight_filler {
      type: "xavier"
    }
  }
}
layer {
  name: "loss"
  type: "SoftmaxWithLoss"
  bottom: "fc5_classes"
  bottom: "label"
  top: "loss"
}
I0402 05:47:53.624456 11241 layer_factory.hpp:77] Creating layer data
I0402 05:47:53.625594 11241 net.cpp:100] Creating Layer data
I0402 05:47:53.625615 11241 net.cpp:408] data -> data
I0402 05:47:53.625649 11241 net.cpp:408] data -> label
I0402 05:47:53.627054 11291 db_lmdb.cpp:35] Opened lmdb ../local_data/lmdb/rtsd-r3/imajust/train/lmdb
I0402 05:47:53.643182 11241 data_layer.cpp:41] output data size: 1024,3,48,48
I0402 05:47:53.685195 11241 net.cpp:150] Setting up data
I0402 05:47:53.685230 11241 net.cpp:157] Top shape: 1024 3 48 48 (7077888)
I0402 05:47:53.685235 11241 net.cpp:157] Top shape: 1024 (1024)
I0402 05:47:53.685281 11241 net.cpp:165] Memory required for data: 28315648
I0402 05:47:53.685295 11241 layer_factory.hpp:77] Creating layer conv1
I0402 05:47:53.685320 11241 net.cpp:100] Creating Layer conv1
I0402 05:47:53.685328 11241 net.cpp:434] conv1 <- data
I0402 05:47:53.685346 11241 net.cpp:408] conv1 -> conv1
I0402 05:47:53.951511 11241 net.cpp:150] Setting up conv1
I0402 05:47:53.951542 11241 net.cpp:157] Top shape: 1024 100 42 42 (180633600)
I0402 05:47:53.951546 11241 net.cpp:165] Memory required for data: 750850048
I0402 05:47:53.951568 11241 layer_factory.hpp:77] Creating layer conv1_relu
I0402 05:47:53.951581 11241 net.cpp:100] Creating Layer conv1_relu
I0402 05:47:53.951584 11241 net.cpp:434] conv1_relu <- conv1
I0402 05:47:53.951602 11241 net.cpp:395] conv1_relu -> conv1 (in-place)
I0402 05:47:53.951792 11241 net.cpp:150] Setting up conv1_relu
I0402 05:47:53.951804 11241 net.cpp:157] Top shape: 1024 100 42 42 (180633600)
I0402 05:47:53.951807 11241 net.cpp:165] Memory required for data: 1473384448
I0402 05:47:53.951812 11241 layer_factory.hpp:77] Creating layer pool1
I0402 05:47:53.951818 11241 net.cpp:100] Creating Layer pool1
I0402 05:47:53.951822 11241 net.cpp:434] pool1 <- conv1
I0402 05:47:53.951828 11241 net.cpp:408] pool1 -> pool1
I0402 05:47:53.951879 11241 net.cpp:150] Setting up pool1
I0402 05:47:53.951887 11241 net.cpp:157] Top shape: 1024 100 21 21 (45158400)
I0402 05:47:53.951891 11241 net.cpp:165] Memory required for data: 1654018048
I0402 05:47:53.951894 11241 layer_factory.hpp:77] Creating layer conv2
I0402 05:47:53.951905 11241 net.cpp:100] Creating Layer conv2
I0402 05:47:53.951911 11241 net.cpp:434] conv2 <- pool1
I0402 05:47:53.951916 11241 net.cpp:408] conv2 -> conv2
I0402 05:47:53.956115 11241 net.cpp:150] Setting up conv2
I0402 05:47:53.956132 11241 net.cpp:157] Top shape: 1024 150 18 18 (49766400)
I0402 05:47:53.956136 11241 net.cpp:165] Memory required for data: 1853083648
I0402 05:47:53.956146 11241 layer_factory.hpp:77] Creating layer conv2_relu
I0402 05:47:53.956152 11241 net.cpp:100] Creating Layer conv2_relu
I0402 05:47:53.956157 11241 net.cpp:434] conv2_relu <- conv2
I0402 05:47:53.956162 11241 net.cpp:395] conv2_relu -> conv2 (in-place)
I0402 05:47:53.956948 11241 net.cpp:150] Setting up conv2_relu
I0402 05:47:53.956964 11241 net.cpp:157] Top shape: 1024 150 18 18 (49766400)
I0402 05:47:53.956967 11241 net.cpp:165] Memory required for data: 2052149248
I0402 05:47:53.956971 11241 layer_factory.hpp:77] Creating layer pool2
I0402 05:47:53.956977 11241 net.cpp:100] Creating Layer pool2
I0402 05:47:53.956981 11241 net.cpp:434] pool2 <- conv2
I0402 05:47:53.956986 11241 net.cpp:408] pool2 -> pool2
I0402 05:47:53.957064 11241 net.cpp:150] Setting up pool2
I0402 05:47:53.957073 11241 net.cpp:157] Top shape: 1024 150 9 9 (12441600)
I0402 05:47:53.957077 11241 net.cpp:165] Memory required for data: 2101915648
I0402 05:47:53.957079 11241 layer_factory.hpp:77] Creating layer conv3
I0402 05:47:53.957087 11241 net.cpp:100] Creating Layer conv3
I0402 05:47:53.957092 11241 net.cpp:434] conv3 <- pool2
I0402 05:47:53.957096 11241 net.cpp:408] conv3 -> conv3
I0402 05:47:53.962468 11241 net.cpp:150] Setting up conv3
I0402 05:47:53.962484 11241 net.cpp:157] Top shape: 1024 250 6 6 (9216000)
I0402 05:47:53.962488 11241 net.cpp:165] Memory required for data: 2138779648
I0402 05:47:53.962497 11241 layer_factory.hpp:77] Creating layer conv3_relu
I0402 05:47:53.962508 11241 net.cpp:100] Creating Layer conv3_relu
I0402 05:47:53.962512 11241 net.cpp:434] conv3_relu <- conv3
I0402 05:47:53.962518 11241 net.cpp:395] conv3_relu -> conv3 (in-place)
I0402 05:47:53.963273 11241 net.cpp:150] Setting up conv3_relu
I0402 05:47:53.963289 11241 net.cpp:157] Top shape: 1024 250 6 6 (9216000)
I0402 05:47:53.963305 11241 net.cpp:165] Memory required for data: 2175643648
I0402 05:47:53.963310 11241 layer_factory.hpp:77] Creating layer pool3
I0402 05:47:53.963315 11241 net.cpp:100] Creating Layer pool3
I0402 05:47:53.963320 11241 net.cpp:434] pool3 <- conv3
I0402 05:47:53.963325 11241 net.cpp:408] pool3 -> pool3
I0402 05:47:53.963397 11241 net.cpp:150] Setting up pool3
I0402 05:47:53.963408 11241 net.cpp:157] Top shape: 1024 250 3 3 (2304000)
I0402 05:47:53.963412 11241 net.cpp:165] Memory required for data: 2184859648
I0402 05:47:53.963415 11241 layer_factory.hpp:77] Creating layer fc4_300
I0402 05:47:53.963423 11241 net.cpp:100] Creating Layer fc4_300
I0402 05:47:53.963428 11241 net.cpp:434] fc4_300 <- pool3
I0402 05:47:53.963433 11241 net.cpp:408] fc4_300 -> fc4_300
I0402 05:47:53.968713 11241 net.cpp:150] Setting up fc4_300
I0402 05:47:53.968729 11241 net.cpp:157] Top shape: 1024 300 (307200)
I0402 05:47:53.968731 11241 net.cpp:165] Memory required for data: 2186088448
I0402 05:47:53.968739 11241 layer_factory.hpp:77] Creating layer fc4_relu
I0402 05:47:53.968746 11241 net.cpp:100] Creating Layer fc4_relu
I0402 05:47:53.968750 11241 net.cpp:434] fc4_relu <- fc4_300
I0402 05:47:53.968756 11241 net.cpp:395] fc4_relu -> fc4_300 (in-place)
I0402 05:47:53.968937 11241 net.cpp:150] Setting up fc4_relu
I0402 05:47:53.968950 11241 net.cpp:157] Top shape: 1024 300 (307200)
I0402 05:47:53.968952 11241 net.cpp:165] Memory required for data: 2187317248
I0402 05:47:53.968955 11241 layer_factory.hpp:77] Creating layer drop4
I0402 05:47:53.968963 11241 net.cpp:100] Creating Layer drop4
I0402 05:47:53.968967 11241 net.cpp:434] drop4 <- fc4_300
I0402 05:47:53.968972 11241 net.cpp:395] drop4 -> fc4_300 (in-place)
I0402 05:47:53.969004 11241 net.cpp:150] Setting up drop4
I0402 05:47:53.969012 11241 net.cpp:157] Top shape: 1024 300 (307200)
I0402 05:47:53.969015 11241 net.cpp:165] Memory required for data: 2188546048
I0402 05:47:53.969018 11241 layer_factory.hpp:77] Creating layer fc5_106
I0402 05:47:53.969027 11241 net.cpp:100] Creating Layer fc5_106
I0402 05:47:53.969032 11241 net.cpp:434] fc5_106 <- fc4_300
I0402 05:47:53.969036 11241 net.cpp:408] fc5_106 -> fc5_classes
I0402 05:47:53.970322 11241 net.cpp:150] Setting up fc5_106
I0402 05:47:53.970338 11241 net.cpp:157] Top shape: 1024 106 (108544)
I0402 05:47:53.970342 11241 net.cpp:165] Memory required for data: 2188980224
I0402 05:47:53.970351 11241 layer_factory.hpp:77] Creating layer loss
I0402 05:47:53.970360 11241 net.cpp:100] Creating Layer loss
I0402 05:47:53.970365 11241 net.cpp:434] loss <- fc5_classes
I0402 05:47:53.970369 11241 net.cpp:434] loss <- label
I0402 05:47:53.970376 11241 net.cpp:408] loss -> loss
I0402 05:47:53.970388 11241 layer_factory.hpp:77] Creating layer loss
…
I0402 05:47:53.971052 11241 solver.cpp:193] Creating test net (#0) specified by test_net file: ./Prototxt/rtsd-r3/imajust/test.prototxt
I0402 05:47:53.971190 11241 net.cpp:58] Initializing net from parameters: 
state {
  phase: TEST
}
layer {
  name: "data"
  type: "Data"
  top: "data"
  top: "label"
  include {
    phase: TEST
  }
  transform_param {
    mirror: false
    crop_size: 48
    mean_value: 113
    mean_value: 109
    mean_value: 110
  }
  data_param {
    source: "../local_data/lmdb/rtsd-r3/imajust/test/lmdb"
    batch_size: 1024
    backend: LMDB
  }
}
layer {
  name: "conv1"
  type: "Convolution"
  bottom: "data"
  top: "conv1"
  convolution_param {
    num_output: 100
    pad: 0
    kernel_size: 7
    group: 1
    stride: 1
    weight_filler {
      type: "xavier"
    }
  }
}
layer {
  name: "conv1_relu"
  type: "ReLU"
  bottom: "conv1"
  top: "conv1"
}
layer {
  name: "pool1"
  type: "Pooling"
  bottom: "conv1"
  top: "pool1"
  pooling_param {
    pool: MAX
    kernel_size: 2
    stride: 2
  }
}
layer {
  name: "conv2"
  type: "Convolution"
  bottom: "pool1"
  top: "conv2"
  convolution_param {
    num_output: 150
    pad: 0
    kernel_size: 4
    group: 1
    stride: 1
    weight_filler {
      type: "xavier"
    }
  }
}
layer {
  name: "conv2_relu"
  type: "ReLU"
  bottom: "conv2"
  top: "conv2"
}
layer {
  name: "pool2"
  type: "Pooling"
  bottom: "conv2"
  top: "pool2"
  pooling_param {
    pool: MAX
    kernel_size: 2
    stride: 2
  }
}
layer {
  name: "conv3"
  type: "Convolution"
  bottom: "pool2"
  top: "conv3"
  convolution_param {
    num_output: 250
    pad: 0
    kernel_size: 4
    group: 1
    stride: 1
    weight_filler {
      type: "xavier"
    }
  }
}
layer {
  name: "conv3_relu"
  type: "ReLU"
  bottom: "conv3"
  top: "conv3"
}
layer {
  name: "pool3"
  type: "Pooling"
  bottom: "conv3"
  top: "pool3"
  pooling_param {
    pool: MAX
    kernel_size: 2
    stride: 2
  }
}
layer {
  name: "fc4_300"
  type: "InnerProduct"
  bottom: "pool3"
  top: "fc4_300"
  inner_product_param {
    num_output: 300
    weight_filler {
      type: "xavier"
    }
  }
}
layer {
  name: "fc4_relu"
  type: "ReLU"
  bottom: "fc4_300"
  top: "fc4_300"
}
layer {
  name: "drop4"
  type: "Dropout"
  bottom: "fc4_300"
  top: "fc4_300"
  dropout_param {
    dropout_ratio: 0.4
  }
}
layer {
  name: "fc5_106"
  type: "InnerProduct"
  bottom: "fc4_300"
  top: "fc5_classes"
  inner_product_param {
    num_output: 106
    weight_filler {
      type: "xavier"
    }
  }
}
layer {
  name: "loss"
  type: "SoftmaxWithLoss"
  bottom: "fc5_classes"
  bottom: "label"
  top: "loss"
}
layer {
  name: "accuracy_1"
  type: "Accuracy"
  bottom: "fc5_classes"
  bottom: "label"
  top: "accuracy_1"
  include {
    phase: TEST
  }
  accuracy_param {
    top_k: 1
  }
}
layer {
  name: "accuracy_5"
  type: "Accuracy"
  bottom: "fc5_classes"
  bottom: "label"
  top: "accuracy_5"
  include {
    phase: TEST
  }
  accuracy_param {
    top_k: 5
  }
}
I0402 05:47:53.971282 11241 layer_factory.hpp:77] Creating layer data
I0402 05:47:53.971957 11241 net.cpp:100] Creating Layer data
I0402 05:47:53.971972 11241 net.cpp:408] data -> data
I0402 05:47:53.971982 11241 net.cpp:408] data -> label
I0402 05:47:53.973196 11299 db_lmdb.cpp:35] Opened lmdb ../local_data/lmdb/rtsd-r3/imajust/test/lmdb
I0402 05:47:53.973376 11241 data_layer.cpp:41] output data size: 1024,3,48,48
I0402 05:47:54.014803 11241 net.cpp:150] Setting up data
I0402 05:47:54.014830 11241 net.cpp:157] Top shape: 1024 3 48 48 (7077888)
I0402 05:47:54.014837 11241 net.cpp:157] Top shape: 1024 (1024)
I0402 05:47:54.014839 11241 net.cpp:165] Memory required for data: 28315648
I0402 05:47:54.014845 11241 layer_factory.hpp:77] Creating layer label_data_1_split
I0402 05:47:54.014859 11241 net.cpp:100] Creating Layer label_data_1_split
I0402 05:47:54.014864 11241 net.cpp:434] label_data_1_split <- label
I0402 05:47:54.014871 11241 net.cpp:408] label_data_1_split -> label_data_1_split_0
I0402 05:47:54.014883 11241 net.cpp:408] label_data_1_split -> label_data_1_split_1
I0402 05:47:54.014889 11241 net.cpp:408] label_data_1_split -> label_data_1_split_2
I0402 05:47:54.015025 11241 net.cpp:150] Setting up label_data_1_split
I0402 05:47:54.015050 11241 net.cpp:157] Top shape: 1024 (1024)
I0402 05:47:54.015055 11241 net.cpp:157] Top shape: 1024 (1024)
I0402 05:47:54.015060 11241 net.cpp:157] Top shape: 1024 (1024)
I0402 05:47:54.015063 11241 net.cpp:165] Memory required for data: 28327936
I0402 05:47:54.015066 11241 layer_factory.hpp:77] Creating layer conv1
I0402 05:47:54.015080 11241 net.cpp:100] Creating Layer conv1
I0402 05:47:54.015086 11241 net.cpp:434] conv1 <- data
I0402 05:47:54.015092 11241 net.cpp:408] conv1 -> conv1
I0402 05:47:54.020035 11241 net.cpp:150] Setting up conv1
I0402 05:47:54.020052 11241 net.cpp:157] Top shape: 1024 100 42 42 (180633600)
I0402 05:47:54.020056 11241 net.cpp:165] Memory required for data: 750862336
I0402 05:47:54.020068 11241 layer_factory.hpp:77] Creating layer conv1_relu
I0402 05:47:54.020078 11241 net.cpp:100] Creating Layer conv1_relu
I0402 05:47:54.020082 11241 net.cpp:434] conv1_relu <- conv1
I0402 05:47:54.020087 11241 net.cpp:395] conv1_relu -> conv1 (in-place)
I0402 05:47:54.020301 11241 net.cpp:150] Setting up conv1_relu
I0402 05:47:54.020314 11241 net.cpp:157] Top shape: 1024 100 42 42 (180633600)
I0402 05:47:54.020318 11241 net.cpp:165] Memory required for data: 1473396736
I0402 05:47:54.020321 11241 layer_factory.hpp:77] Creating layer pool1
I0402 05:47:54.020331 11241 net.cpp:100] Creating Layer pool1
I0402 05:47:54.020335 11241 net.cpp:434] pool1 <- conv1
I0402 05:47:54.020342 11241 net.cpp:408] pool1 -> pool1
I0402 05:47:54.020395 11241 net.cpp:150] Setting up pool1
I0402 05:47:54.020406 11241 net.cpp:157] Top shape: 1024 100 21 21 (45158400)
I0402 05:47:54.020411 11241 net.cpp:165] Memory required for data: 1654030336
I0402 05:47:54.020413 11241 layer_factory.hpp:77] Creating layer conv2
I0402 05:47:54.020422 11241 net.cpp:100] Creating Layer conv2
I0402 05:47:54.020427 11241 net.cpp:434] conv2 <- pool1
I0402 05:47:54.020436 11241 net.cpp:408] conv2 -> conv2
I0402 05:47:54.026010 11241 net.cpp:150] Setting up conv2
I0402 05:47:54.026037 11241 net.cpp:157] Top shape: 1024 150 18 18 (49766400)
I0402 05:47:54.026044 11241 net.cpp:165] Memory required for data: 1853095936
I0402 05:47:54.026054 11241 layer_factory.hpp:77] Creating layer conv2_relu
I0402 05:47:54.026063 11241 net.cpp:100] Creating Layer conv2_relu
I0402 05:47:54.026068 11241 net.cpp:434] conv2_relu <- conv2
I0402 05:47:54.026074 11241 net.cpp:395] conv2_relu -> conv2 (in-place)
I0402 05:47:54.026978 11241 net.cpp:150] Setting up conv2_relu
I0402 05:47:54.026993 11241 net.cpp:157] Top shape: 1024 150 18 18 (49766400)
I0402 05:47:54.026996 11241 net.cpp:165] Memory required for data: 2052161536
I0402 05:47:54.027000 11241 layer_factory.hpp:77] Creating layer pool2
I0402 05:47:54.027007 11241 net.cpp:100] Creating Layer pool2
I0402 05:47:54.027010 11241 net.cpp:434] pool2 <- conv2
I0402 05:47:54.027019 11241 net.cpp:408] pool2 -> pool2
I0402 05:47:54.027073 11241 net.cpp:150] Setting up pool2
I0402 05:47:54.027083 11241 net.cpp:157] Top shape: 1024 150 9 9 (12441600)
I0402 05:47:54.027086 11241 net.cpp:165] Memory required for data: 2101927936
I0402 05:47:54.027091 11241 layer_factory.hpp:77] Creating layer conv3
I0402 05:47:54.027102 11241 net.cpp:100] Creating Layer conv3
I0402 05:47:54.027107 11241 net.cpp:434] conv3 <- pool2
I0402 05:47:54.027117 11241 net.cpp:408] conv3 -> conv3
I0402 05:47:54.032850 11241 net.cpp:150] Setting up conv3
I0402 05:47:54.032871 11241 net.cpp:157] Top shape: 1024 250 6 6 (9216000)
I0402 05:47:54.032874 11241 net.cpp:165] Memory required for data: 2138791936
I0402 05:47:54.032886 11241 layer_factory.hpp:77] Creating layer conv3_relu
I0402 05:47:54.032894 11241 net.cpp:100] Creating Layer conv3_relu
I0402 05:47:54.032902 11241 net.cpp:434] conv3_relu <- conv3
I0402 05:47:54.032909 11241 net.cpp:395] conv3_relu -> conv3 (in-place)
I0402 05:47:54.033831 11241 net.cpp:150] Setting up conv3_relu
I0402 05:47:54.033846 11241 net.cpp:157] Top shape: 1024 250 6 6 (9216000)
I0402 05:47:54.033850 11241 net.cpp:165] Memory required for data: 2175655936
I0402 05:47:54.033854 11241 layer_factory.hpp:77] Creating layer pool3
I0402 05:47:54.033876 11241 net.cpp:100] Creating Layer pool3
I0402 05:47:54.033881 11241 net.cpp:434] pool3 <- conv3
I0402 05:47:54.033893 11241 net.cpp:408] pool3 -> pool3
I0402 05:47:54.033948 11241 net.cpp:150] Setting up pool3
I0402 05:47:54.033958 11241 net.cpp:157] Top shape: 1024 250 3 3 (2304000)
I0402 05:47:54.033962 11241 net.cpp:165] Memory required for data: 2184871936
I0402 05:47:54.033965 11241 layer_factory.hpp:77] Creating layer fc4_300
I0402 05:47:54.033972 11241 net.cpp:100] Creating Layer fc4_300
I0402 05:47:54.033977 11241 net.cpp:434] fc4_300 <- pool3
I0402 05:47:54.033984 11241 net.cpp:408] fc4_300 -> fc4_300
I0402 05:47:54.045776 11241 net.cpp:150] Setting up fc4_300
I0402 05:47:54.045799 11241 net.cpp:157] Top shape: 1024 300 (307200)
I0402 05:47:54.045805 11241 net.cpp:165] Memory required for data: 2186100736
I0402 05:47:54.045817 11241 layer_factory.hpp:77] Creating layer fc4_relu
I0402 05:47:54.045827 11241 net.cpp:100] Creating Layer fc4_relu
I0402 05:47:54.045835 11241 net.cpp:434] fc4_relu <- fc4_300
I0402 05:47:54.045840 11241 net.cpp:395] fc4_relu -> fc4_300 (in-place)
I0402 05:47:54.046042 11241 net.cpp:150] Setting up fc4_relu
I0402 05:47:54.046057 11241 net.cpp:157] Top shape: 1024 300 (307200)
I0402 05:47:54.046061 11241 net.cpp:165] Memory required for data: 2187329536
I0402 05:47:54.046066 11241 layer_factory.hpp:77] Creating layer drop4
I0402 05:47:54.046072 11241 net.cpp:100] Creating Layer drop4
I0402 05:47:54.046075 11241 net.cpp:434] drop4 <- fc4_300
I0402 05:47:54.046082 11241 net.cpp:395] drop4 -> fc4_300 (in-place)
I0402 05:47:54.046113 11241 net.cpp:150] Setting up drop4
I0402 05:47:54.046121 11241 net.cpp:157] Top shape: 1024 300 (307200)
I0402 05:47:54.046124 11241 net.cpp:165] Memory required for data: 2188558336
I0402 05:47:54.046128 11241 layer_factory.hpp:77] Creating layer fc5_106
I0402 05:47:54.046136 11241 net.cpp:100] Creating Layer fc5_106
I0402 05:47:54.046141 11241 net.cpp:434] fc5_106 <- fc4_300
I0402 05:47:54.046146 11241 net.cpp:408] fc5_106 -> fc5_classes
I0402 05:47:54.046471 11241 net.cpp:150] Setting up fc5_106
I0402 05:47:54.046481 11241 net.cpp:157] Top shape: 1024 106 (108544)
I0402 05:47:54.046485 11241 net.cpp:165] Memory required for data: 2188992512
I0402 05:47:54.046497 11241 layer_factory.hpp:77] Creating layer fc5_classes_fc5_106_0_split
I0402 05:47:54.046506 11241 net.cpp:100] Creating Layer fc5_classes_fc5_106_0_split
I0402 05:47:54.046510 11241 net.cpp:434] fc5_classes_fc5_106_0_split <- fc5_classes
I0402 05:47:54.046516 11241 net.cpp:408] fc5_classes_fc5_106_0_split -> fc5_classes_fc5_106_0_split_0
I0402 05:47:54.046530 11241 net.cpp:408] fc5_classes_fc5_106_0_split -> fc5_classes_fc5_106_0_split_1
I0402 05:47:54.046538 11241 net.cpp:408] fc5_classes_fc5_106_0_split -> fc5_classes_fc5_106_0_split_2
I0402 05:47:54.046592 11241 net.cpp:150] Setting up fc5_classes_fc5_106_0_split
I0402 05:47:54.046600 11241 net.cpp:157] Top shape: 1024 106 (108544)
I0402 05:47:54.046604 11241 net.cpp:157] Top shape: 1024 106 (108544)
I0402 05:47:54.046608 11241 net.cpp:157] Top shape: 1024 106 (108544)
I0402 05:47:54.046612 11241 net.cpp:165] Memory required for data: 2190295040
I0402 05:47:54.046617 11241 layer_factory.hpp:77] Creating layer loss
I0402 05:47:54.046627 11241 net.cpp:100] Creating Layer loss
I0402 05:47:54.046633 11241 net.cpp:434] loss <- fc5_classes_fc5_106_0_split_0
I0402 05:47:54.046638 11241 net.cpp:434] loss <- label_data_1_split_0
I0402 05:47:54.046643 11241 net.cpp:408] loss -> loss
…
