…
I0527 21:56:13.557895 25284 solver.cpp:81] Creating training net from train_net file: ./Prototxt/experiment_20/RTSD/CoNorm/trial_4/train.prototxt
I0527 21:56:13.558451 25284 net.cpp:58] Initializing net from parameters: 
state {
  phase: TRAIN
  level: 0
  stage: ""
}
layer {
  name: "data"
  type: "Data"
  top: "data"
  top: "label"
  include {
    phase: TRAIN
  }
  transform_param {
    scale: 0.0039215689
    mirror: false
    crop_size: 48
    mean_value: 135
    mean_value: 135
    mean_value: 134
  }
  data_param {
    source: "../local_data/lmdb/RTSD/CoNorm/train/lmdb"
    batch_size: 1024
    backend: LMDB
  }
}
layer {
  name: "conv1"
  type: "Convolution"
  bottom: "data"
  top: "conv1"
  convolution_param {
    num_output: 100
    pad: 0
    kernel_size: 7
    group: 1
    stride: 1
    weight_filler {
      type: "xavier"
    }
  }
}
layer {
  name: "conv1_relu"
  type: "ReLU"
  bottom: "conv1"
  top: "conv1"
}
layer {
  name: "pool1"
  type: "Pooling"
  bottom: "conv1"
  top: "pool1"
  pooling_param {
    pool: MAX
    kernel_size: 2
    stride: 2
  }
}
layer {
  name: "conv2"
  type: "Convolution"
  bottom: "pool1"
  top: "conv2"
  convolution_param {
    num_output: 150
    pad: 0
    kernel_size: 4
    group: 1
    stride: 1
    weight_filler {
      type: "xavier"
    }
  }
}
layer {
  name: "conv2_relu"
  type: "ReLU"
  bottom: "conv2"
  top: "conv2"
}
layer {
  name: "pool2"
  type: "Pooling"
  bottom: "conv2"
  top: "pool2"
  pooling_param {
    pool: MAX
    kernel_size: 2
    stride: 2
  }
}
layer {
  name: "conv3"
  type: "Convolution"
  bottom: "pool2"
  top: "conv3"
  convolution_param {
    num_output: 250
    pad: 0
    kernel_size: 4
    group: 1
    stride: 1
    weight_filler {
      type: "xavier"
    }
  }
}
layer {
  name: "conv3_relu"
  type: "ReLU"
  bottom: "conv3"
  top: "conv3"
}
layer {
  name: "pool3"
  type: "Pooling"
  bottom: "conv3"
  top: "pool3"
  pooling_param {
    pool: MAX
    kernel_size: 2
    stride: 2
  }
}
layer {
  name: "fc4_300"
  type: "InnerProduct"
  bottom: "pool3"
  top: "fc4_300"
  inner_product_param {
    num_output: 300
    weight_filler {
      type: "xavier"
    }
  }
}
layer {
  name: "fc4_relu"
  type: "ReLU"
  bottom: "fc4_300"
  top: "fc4_300"
}
layer {
  name: "fc5_116"
  type: "InnerProduct"
  bottom: "fc4_300"
  top: "fc5_classes"
  inner_product_param {
    num_output: 116
    weight_filler {
      type: "xavier"
    }
  }
}
layer {
  name: "softmax"
  type: "Softmax"
  bottom: "fc5_classes"
  top: "softmax"
}
layer {
  name: "loss"
  type: "MultinomialLogisticLoss"
  bottom: "softmax"
  bottom: "label"
  top: "loss"
}
layer {
  name: "accuracy_1"
  type: "Accuracy"
  bottom: "fc5_classes"
  bottom: "label"
  top: "accuracy_1"
  accuracy_param {
    top_k: 1
  }
}
layer {
  name: "accuracy_5"
  type: "Accuracy"
  bottom: "fc5_classes"
  bottom: "label"
  top: "accuracy_5"
  accuracy_param {
    top_k: 5
  }
}
layer {
  name: "silence"
  type: "Silence"
  bottom: "accuracy_1"
  bottom: "accuracy_5"
}
I0527 21:56:13.559262 25284 layer_factory.hpp:77] Creating layer data
I0527 21:56:13.560559 25284 net.cpp:100] Creating Layer data
I0527 21:56:13.560601 25284 net.cpp:408] data -> data
I0527 21:56:13.560652 25284 net.cpp:408] data -> label
I0527 21:56:13.562572 25334 db_lmdb.cpp:35] Opened lmdb ../local_data/lmdb/RTSD/CoNorm/train/lmdb
I0527 21:56:13.584339 25284 data_layer.cpp:41] output data size: 1024,3,48,48
I0527 21:56:13.646281 25284 net.cpp:150] Setting up data
I0527 21:56:13.646397 25284 net.cpp:157] Top shape: 1024 3 48 48 (7077888)
I0527 21:56:13.646427 25284 net.cpp:157] Top shape: 1024 (1024)
I0527 21:56:13.646450 25284 net.cpp:165] Memory required for data: 28315648
I0527 21:56:13.646479 25284 layer_factory.hpp:77] Creating layer label_data_1_split
I0527 21:56:13.646512 25284 net.cpp:100] Creating Layer label_data_1_split
I0527 21:56:13.646528 25284 net.cpp:434] label_data_1_split <- label
I0527 21:56:13.646545 25284 net.cpp:408] label_data_1_split -> label_data_1_split_0
I0527 21:56:13.646561 25284 net.cpp:408] label_data_1_split -> label_data_1_split_1
I0527 21:56:13.646574 25284 net.cpp:408] label_data_1_split -> label_data_1_split_2
I0527 21:56:13.646638 25284 net.cpp:150] Setting up label_data_1_split
I0527 21:56:13.646653 25284 net.cpp:157] Top shape: 1024 (1024)
I0527 21:56:13.646661 25284 net.cpp:157] Top shape: 1024 (1024)
I0527 21:56:13.646667 25284 net.cpp:157] Top shape: 1024 (1024)
I0527 21:56:13.646672 25284 net.cpp:165] Memory required for data: 28327936
I0527 21:56:13.646678 25284 layer_factory.hpp:77] Creating layer conv1
I0527 21:56:13.646699 25284 net.cpp:100] Creating Layer conv1
I0527 21:56:13.646708 25284 net.cpp:434] conv1 <- data
I0527 21:56:13.646715 25284 net.cpp:408] conv1 -> conv1
I0527 21:56:13.937527 25284 net.cpp:150] Setting up conv1
I0527 21:56:13.937556 25284 net.cpp:157] Top shape: 1024 100 42 42 (180633600)
I0527 21:56:13.937563 25284 net.cpp:165] Memory required for data: 750862336
I0527 21:56:13.937587 25284 layer_factory.hpp:77] Creating layer conv1_relu
I0527 21:56:13.937602 25284 net.cpp:100] Creating Layer conv1_relu
I0527 21:56:13.937635 25284 net.cpp:434] conv1_relu <- conv1
I0527 21:56:13.937661 25284 net.cpp:395] conv1_relu -> conv1 (in-place)
I0527 21:56:13.937882 25284 net.cpp:150] Setting up conv1_relu
I0527 21:56:13.937914 25284 net.cpp:157] Top shape: 1024 100 42 42 (180633600)
I0527 21:56:13.937935 25284 net.cpp:165] Memory required for data: 1473396736
I0527 21:56:13.937954 25284 layer_factory.hpp:77] Creating layer pool1
I0527 21:56:13.937984 25284 net.cpp:100] Creating Layer pool1
I0527 21:56:13.938011 25284 net.cpp:434] pool1 <- conv1
I0527 21:56:13.938036 25284 net.cpp:408] pool1 -> pool1
I0527 21:56:13.938109 25284 net.cpp:150] Setting up pool1
I0527 21:56:13.938138 25284 net.cpp:157] Top shape: 1024 100 21 21 (45158400)
I0527 21:56:13.938156 25284 net.cpp:165] Memory required for data: 1654030336
I0527 21:56:13.938175 25284 layer_factory.hpp:77] Creating layer conv2
I0527 21:56:13.938201 25284 net.cpp:100] Creating Layer conv2
I0527 21:56:13.938222 25284 net.cpp:434] conv2 <- pool1
I0527 21:56:13.938243 25284 net.cpp:408] conv2 -> conv2
I0527 21:56:13.943586 25284 net.cpp:150] Setting up conv2
I0527 21:56:13.943619 25284 net.cpp:157] Top shape: 1024 150 18 18 (49766400)
I0527 21:56:13.943625 25284 net.cpp:165] Memory required for data: 1853095936
I0527 21:56:13.943644 25284 layer_factory.hpp:77] Creating layer conv2_relu
I0527 21:56:13.943656 25284 net.cpp:100] Creating Layer conv2_relu
I0527 21:56:13.943665 25284 net.cpp:434] conv2_relu <- conv2
I0527 21:56:13.943676 25284 net.cpp:395] conv2_relu -> conv2 (in-place)
I0527 21:56:13.943882 25284 net.cpp:150] Setting up conv2_relu
I0527 21:56:13.943915 25284 net.cpp:157] Top shape: 1024 150 18 18 (49766400)
I0527 21:56:13.943934 25284 net.cpp:165] Memory required for data: 2052161536
I0527 21:56:13.943953 25284 layer_factory.hpp:77] Creating layer pool2
I0527 21:56:13.943975 25284 net.cpp:100] Creating Layer pool2
I0527 21:56:13.943995 25284 net.cpp:434] pool2 <- conv2
I0527 21:56:13.944015 25284 net.cpp:408] pool2 -> pool2
I0527 21:56:13.944082 25284 net.cpp:150] Setting up pool2
I0527 21:56:13.944110 25284 net.cpp:157] Top shape: 1024 150 9 9 (12441600)
I0527 21:56:13.944130 25284 net.cpp:165] Memory required for data: 2101927936
I0527 21:56:13.944150 25284 layer_factory.hpp:77] Creating layer conv3
I0527 21:56:13.944182 25284 net.cpp:100] Creating Layer conv3
I0527 21:56:13.944205 25284 net.cpp:434] conv3 <- pool2
I0527 21:56:13.944237 25284 net.cpp:408] conv3 -> conv3
I0527 21:56:13.955744 25284 net.cpp:150] Setting up conv3
I0527 21:56:13.955775 25284 net.cpp:157] Top shape: 1024 250 6 6 (9216000)
I0527 21:56:13.955782 25284 net.cpp:165] Memory required for data: 2138791936
I0527 21:56:13.955801 25284 layer_factory.hpp:77] Creating layer conv3_relu
I0527 21:56:13.955816 25284 net.cpp:100] Creating Layer conv3_relu
I0527 21:56:13.955824 25284 net.cpp:434] conv3_relu <- conv3
I0527 21:56:13.955834 25284 net.cpp:395] conv3_relu -> conv3 (in-place)
I0527 21:56:13.956593 25284 net.cpp:150] Setting up conv3_relu
I0527 21:56:13.956607 25284 net.cpp:157] Top shape: 1024 250 6 6 (9216000)
I0527 21:56:13.956614 25284 net.cpp:165] Memory required for data: 2175655936
I0527 21:56:13.956621 25284 layer_factory.hpp:77] Creating layer pool3
I0527 21:56:13.956632 25284 net.cpp:100] Creating Layer pool3
I0527 21:56:13.956640 25284 net.cpp:434] pool3 <- conv3
I0527 21:56:13.956650 25284 net.cpp:408] pool3 -> pool3
I0527 21:56:13.956748 25284 net.cpp:150] Setting up pool3
I0527 21:56:13.956780 25284 net.cpp:157] Top shape: 1024 250 3 3 (2304000)
I0527 21:56:13.956799 25284 net.cpp:165] Memory required for data: 2184871936
I0527 21:56:13.956818 25284 layer_factory.hpp:77] Creating layer fc4_300
I0527 21:56:13.956841 25284 net.cpp:100] Creating Layer fc4_300
I0527 21:56:13.956859 25284 net.cpp:434] fc4_300 <- pool3
I0527 21:56:13.956881 25284 net.cpp:408] fc4_300 -> fc4_300
I0527 21:56:13.961444 25284 net.cpp:150] Setting up fc4_300
I0527 21:56:13.961473 25284 net.cpp:157] Top shape: 1024 300 (307200)
I0527 21:56:13.961482 25284 net.cpp:165] Memory required for data: 2186100736
I0527 21:56:13.961494 25284 layer_factory.hpp:77] Creating layer fc4_relu
I0527 21:56:13.961506 25284 net.cpp:100] Creating Layer fc4_relu
I0527 21:56:13.961516 25284 net.cpp:434] fc4_relu <- fc4_300
I0527 21:56:13.961529 25284 net.cpp:395] fc4_relu -> fc4_300 (in-place)
I0527 21:56:13.961772 25284 net.cpp:150] Setting up fc4_relu
I0527 21:56:13.961804 25284 net.cpp:157] Top shape: 1024 300 (307200)
I0527 21:56:13.961824 25284 net.cpp:165] Memory required for data: 2187329536
I0527 21:56:13.961843 25284 layer_factory.hpp:77] Creating layer fc5_116
I0527 21:56:13.961864 25284 net.cpp:100] Creating Layer fc5_116
I0527 21:56:13.961889 25284 net.cpp:434] fc5_116 <- fc4_300
I0527 21:56:13.961913 25284 net.cpp:408] fc5_116 -> fc5_classes
I0527 21:56:13.963291 25284 net.cpp:150] Setting up fc5_116
I0527 21:56:13.963307 25284 net.cpp:157] Top shape: 1024 116 (118784)
I0527 21:56:13.963315 25284 net.cpp:165] Memory required for data: 2187804672
I0527 21:56:13.963330 25284 layer_factory.hpp:77] Creating layer fc5_classes_fc5_116_0_split
I0527 21:56:13.963340 25284 net.cpp:100] Creating Layer fc5_classes_fc5_116_0_split
I0527 21:56:13.963366 25284 net.cpp:434] fc5_classes_fc5_116_0_split <- fc5_classes
I0527 21:56:13.963392 25284 net.cpp:408] fc5_classes_fc5_116_0_split -> fc5_classes_fc5_116_0_split_0
I0527 21:56:13.963416 25284 net.cpp:408] fc5_classes_fc5_116_0_split -> fc5_classes_fc5_116_0_split_1
I0527 21:56:13.963441 25284 net.cpp:408] fc5_classes_fc5_116_0_split -> fc5_classes_fc5_116_0_split_2
I0527 21:56:13.963510 25284 net.cpp:150] Setting up fc5_classes_fc5_116_0_split
I0527 21:56:13.963536 25284 net.cpp:157] Top shape: 1024 116 (118784)
I0527 21:56:13.963553 25284 net.cpp:157] Top shape: 1024 116 (118784)
I0527 21:56:13.963572 25284 net.cpp:157] Top shape: 1024 116 (118784)
I0527 21:56:13.963588 25284 net.cpp:165] Memory required for data: 2189230080
I0527 21:56:13.963604 25284 layer_factory.hpp:77] Creating layer softmax
I0527 21:56:13.963626 25284 net.cpp:100] Creating Layer softmax
I0527 21:56:13.963649 25284 net.cpp:434] softmax <- fc5_classes_fc5_116_0_split_0
I0527 21:56:13.963672 25284 net.cpp:408] softmax -> softmax
I0527 21:56:13.963943 25284 net.cpp:150] Setting up softmax
I0527 21:56:13.963975 25284 net.cpp:157] Top shape: 1024 116 (118784)
I0527 21:56:13.963994 25284 net.cpp:165] Memory required for data: 2189705216
I0527 21:56:13.964012 25284 layer_factory.hpp:77] Creating layer loss
I0527 21:56:13.964054 25284 net.cpp:100] Creating Layer loss
I0527 21:56:13.964073 25284 net.cpp:434] loss <- softmax
I0527 21:56:13.964092 25284 net.cpp:434] loss <- label_data_1_split_0
I0527 21:56:13.964113 25284 net.cpp:408] loss -> loss
…
