…
I0527 22:50:20.438320  6423 solver.cpp:81] Creating training net from train_net file: ./Prototxt/experiment_20/RTSD/CoNorm/trial_4/train.prototxt
I0527 22:50:20.438802  6423 net.cpp:58] Initializing net from parameters: 
state {
  phase: TRAIN
  level: 0
  stage: ""
}
layer {
  name: "data"
  type: "Data"
  top: "data"
  top: "label"
  include {
    phase: TRAIN
  }
  transform_param {
    scale: 0.0039215689
    mirror: false
    crop_size: 48
    mean_value: 135
    mean_value: 135
    mean_value: 134
  }
  data_param {
    source: "../local_data/lmdb/RTSD/CoNorm/train/lmdb"
    batch_size: 1024
    backend: LMDB
  }
}
layer {
  name: "conv1"
  type: "Convolution"
  bottom: "data"
  top: "conv1"
  convolution_param {
    num_output: 100
    pad: 0
    kernel_size: 7
    group: 1
    stride: 1
    weight_filler {
      type: "xavier"
    }
  }
}
layer {
  name: "conv1_relu"
  type: "ReLU"
  bottom: "conv1"
  top: "conv1"
}
layer {
  name: "pool1"
  type: "Pooling"
  bottom: "conv1"
  top: "pool1"
  pooling_param {
    pool: MAX
    kernel_size: 2
    stride: 2
  }
}
layer {
  name: "conv2"
  type: "Convolution"
  bottom: "pool1"
  top: "conv2"
  convolution_param {
    num_output: 150
    pad: 0
    kernel_size: 4
    group: 1
    stride: 1
    weight_filler {
      type: "xavier"
    }
  }
}
layer {
  name: "conv2_relu"
  type: "ReLU"
  bottom: "conv2"
  top: "conv2"
}
layer {
  name: "pool2"
  type: "Pooling"
  bottom: "conv2"
  top: "pool2"
  pooling_param {
    pool: MAX
    kernel_size: 2
    stride: 2
  }
}
layer {
  name: "conv3"
  type: "Convolution"
  bottom: "pool2"
  top: "conv3"
  convolution_param {
    num_output: 250
    pad: 0
    kernel_size: 4
    group: 1
    stride: 1
    weight_filler {
      type: "xavier"
    }
  }
}
layer {
  name: "conv3_relu"
  type: "ReLU"
  bottom: "conv3"
  top: "conv3"
}
layer {
  name: "pool3"
  type: "Pooling"
  bottom: "conv3"
  top: "pool3"
  pooling_param {
    pool: MAX
    kernel_size: 2
    stride: 2
  }
}
layer {
  name: "fc4_300"
  type: "InnerProduct"
  bottom: "pool3"
  top: "fc4_300"
  inner_product_param {
    num_output: 300
    weight_filler {
      type: "xavier"
    }
  }
}
layer {
  name: "fc4_relu"
  type: "ReLU"
  bottom: "fc4_300"
  top: "fc4_300"
}
layer {
  name: "fc5_116"
  type: "InnerProduct"
  bottom: "fc4_300"
  top: "fc5_classes"
  inner_product_param {
    num_output: 116
    weight_filler {
      type: "xavier"
    }
  }
}
layer {
  name: "softmax"
  type: "Softmax"
  bottom: "fc5_classes"
  top: "softmax"
}
layer {
  name: "loss"
  type: "MultinomialLogisticLoss"
  bottom: "softmax"
  bottom: "label"
  top: "loss"
}
layer {
  name: "accuracy_1"
  type: "Accuracy"
  bottom: "fc5_classes"
  bottom: "label"
  top: "accuracy_1"
  accuracy_param {
    top_k: 1
  }
}
layer {
  name: "accuracy_5"
  type: "Accuracy"
  bottom: "fc5_classes"
  bottom: "label"
  top: "accuracy_5"
  accuracy_param {
    top_k: 5
  }
}
layer {
  name: "silence"
  type: "Silence"
  bottom: "accuracy_1"
  bottom: "accuracy_5"
}
I0527 22:50:20.439558  6423 layer_factory.hpp:77] Creating layer data
I0527 22:50:20.442350  6423 net.cpp:100] Creating Layer data
I0527 22:50:20.442395  6423 net.cpp:408] data -> data
I0527 22:50:20.442441  6423 net.cpp:408] data -> label
I0527 22:50:20.443336  6464 db_lmdb.cpp:35] Opened lmdb ../local_data/lmdb/RTSD/CoNorm/train/lmdb
I0527 22:50:20.477764  6423 data_layer.cpp:41] output data size: 1024,3,48,48
I0527 22:50:20.576489  6423 net.cpp:150] Setting up data
I0527 22:50:20.576607  6423 net.cpp:157] Top shape: 1024 3 48 48 (7077888)
I0527 22:50:20.576647  6423 net.cpp:157] Top shape: 1024 (1024)
I0527 22:50:20.576665  6423 net.cpp:165] Memory required for data: 28315648
I0527 22:50:20.576745  6423 layer_factory.hpp:77] Creating layer label_data_1_split
I0527 22:50:20.576788  6423 net.cpp:100] Creating Layer label_data_1_split
I0527 22:50:20.576830  6423 net.cpp:434] label_data_1_split <- label
I0527 22:50:20.576870  6423 net.cpp:408] label_data_1_split -> label_data_1_split_0
I0527 22:50:20.576912  6423 net.cpp:408] label_data_1_split -> label_data_1_split_1
I0527 22:50:20.576947  6423 net.cpp:408] label_data_1_split -> label_data_1_split_2
I0527 22:50:20.577672  6423 net.cpp:150] Setting up label_data_1_split
I0527 22:50:20.577719  6423 net.cpp:157] Top shape: 1024 (1024)
I0527 22:50:20.577761  6423 net.cpp:157] Top shape: 1024 (1024)
I0527 22:50:20.577796  6423 net.cpp:157] Top shape: 1024 (1024)
I0527 22:50:20.577821  6423 net.cpp:165] Memory required for data: 28327936
I0527 22:50:20.577847  6423 layer_factory.hpp:77] Creating layer conv1
I0527 22:50:20.577889  6423 net.cpp:100] Creating Layer conv1
I0527 22:50:20.577931  6423 net.cpp:434] conv1 <- data
I0527 22:50:20.577970  6423 net.cpp:408] conv1 -> conv1
I0527 22:50:21.689817  6423 net.cpp:150] Setting up conv1
I0527 22:50:21.689911  6423 net.cpp:157] Top shape: 1024 100 42 42 (180633600)
I0527 22:50:21.689939  6423 net.cpp:165] Memory required for data: 750862336
I0527 22:50:21.689971  6423 layer_factory.hpp:77] Creating layer conv1_relu
I0527 22:50:21.690004  6423 net.cpp:100] Creating Layer conv1_relu
I0527 22:50:21.690032  6423 net.cpp:434] conv1_relu <- conv1
I0527 22:50:21.690062  6423 net.cpp:395] conv1_relu -> conv1 (in-place)
I0527 22:50:21.690305  6423 net.cpp:150] Setting up conv1_relu
I0527 22:50:21.690348  6423 net.cpp:157] Top shape: 1024 100 42 42 (180633600)
I0527 22:50:21.690373  6423 net.cpp:165] Memory required for data: 1473396736
I0527 22:50:21.690398  6423 layer_factory.hpp:77] Creating layer pool1
I0527 22:50:21.690431  6423 net.cpp:100] Creating Layer pool1
I0527 22:50:21.690449  6423 net.cpp:434] pool1 <- conv1
I0527 22:50:21.690469  6423 net.cpp:408] pool1 -> pool1
I0527 22:50:21.690549  6423 net.cpp:150] Setting up pool1
I0527 22:50:21.690588  6423 net.cpp:157] Top shape: 1024 100 21 21 (45158400)
I0527 22:50:21.690613  6423 net.cpp:165] Memory required for data: 1654030336
I0527 22:50:21.690637  6423 layer_factory.hpp:77] Creating layer conv2
I0527 22:50:21.690672  6423 net.cpp:100] Creating Layer conv2
I0527 22:50:21.690698  6423 net.cpp:434] conv2 <- pool1
I0527 22:50:21.690733  6423 net.cpp:408] conv2 -> conv2
I0527 22:50:21.695809  6423 net.cpp:150] Setting up conv2
I0527 22:50:21.695880  6423 net.cpp:157] Top shape: 1024 150 18 18 (49766400)
I0527 22:50:21.695899  6423 net.cpp:165] Memory required for data: 1853095936
I0527 22:50:21.695925  6423 layer_factory.hpp:77] Creating layer conv2_relu
I0527 22:50:21.695951  6423 net.cpp:100] Creating Layer conv2_relu
I0527 22:50:21.695969  6423 net.cpp:434] conv2_relu <- conv2
I0527 22:50:21.695989  6423 net.cpp:395] conv2_relu -> conv2 (in-place)
I0527 22:50:21.696182  6423 net.cpp:150] Setting up conv2_relu
I0527 22:50:21.696210  6423 net.cpp:157] Top shape: 1024 150 18 18 (49766400)
I0527 22:50:21.696228  6423 net.cpp:165] Memory required for data: 2052161536
I0527 22:50:21.696245  6423 layer_factory.hpp:77] Creating layer pool2
I0527 22:50:21.696266  6423 net.cpp:100] Creating Layer pool2
I0527 22:50:21.696285  6423 net.cpp:434] pool2 <- conv2
I0527 22:50:21.696308  6423 net.cpp:408] pool2 -> pool2
I0527 22:50:21.696369  6423 net.cpp:150] Setting up pool2
I0527 22:50:21.696395  6423 net.cpp:157] Top shape: 1024 150 9 9 (12441600)
I0527 22:50:21.696413  6423 net.cpp:165] Memory required for data: 2101927936
I0527 22:50:21.696429  6423 layer_factory.hpp:77] Creating layer conv3
I0527 22:50:21.696457  6423 net.cpp:100] Creating Layer conv3
I0527 22:50:21.696475  6423 net.cpp:434] conv3 <- pool2
I0527 22:50:21.696501  6423 net.cpp:408] conv3 -> conv3
I0527 22:50:21.703402  6423 net.cpp:150] Setting up conv3
I0527 22:50:21.703475  6423 net.cpp:157] Top shape: 1024 250 6 6 (9216000)
I0527 22:50:21.703495  6423 net.cpp:165] Memory required for data: 2138791936
I0527 22:50:21.703522  6423 layer_factory.hpp:77] Creating layer conv3_relu
I0527 22:50:21.703548  6423 net.cpp:100] Creating Layer conv3_relu
I0527 22:50:21.703567  6423 net.cpp:434] conv3_relu <- conv3
I0527 22:50:21.703588  6423 net.cpp:395] conv3_relu -> conv3 (in-place)
I0527 22:50:21.704099  6423 net.cpp:150] Setting up conv3_relu
I0527 22:50:21.704144  6423 net.cpp:157] Top shape: 1024 250 6 6 (9216000)
I0527 22:50:21.704162  6423 net.cpp:165] Memory required for data: 2175655936
I0527 22:50:21.704180  6423 layer_factory.hpp:77] Creating layer pool3
I0527 22:50:21.704203  6423 net.cpp:100] Creating Layer pool3
I0527 22:50:21.704221  6423 net.cpp:434] pool3 <- conv3
I0527 22:50:21.704241  6423 net.cpp:408] pool3 -> pool3
I0527 22:50:21.704303  6423 net.cpp:150] Setting up pool3
I0527 22:50:21.704326  6423 net.cpp:157] Top shape: 1024 250 3 3 (2304000)
I0527 22:50:21.704342  6423 net.cpp:165] Memory required for data: 2184871936
I0527 22:50:21.704358  6423 layer_factory.hpp:77] Creating layer fc4_300
I0527 22:50:21.704380  6423 net.cpp:100] Creating Layer fc4_300
I0527 22:50:21.704397  6423 net.cpp:434] fc4_300 <- pool3
I0527 22:50:21.704417  6423 net.cpp:408] fc4_300 -> fc4_300
I0527 22:50:21.710757  6423 net.cpp:150] Setting up fc4_300
I0527 22:50:21.710827  6423 net.cpp:157] Top shape: 1024 300 (307200)
I0527 22:50:21.710846  6423 net.cpp:165] Memory required for data: 2186100736
I0527 22:50:21.710871  6423 layer_factory.hpp:77] Creating layer fc4_relu
I0527 22:50:21.710896  6423 net.cpp:100] Creating Layer fc4_relu
I0527 22:50:21.710914  6423 net.cpp:434] fc4_relu <- fc4_300
I0527 22:50:21.710937  6423 net.cpp:395] fc4_relu -> fc4_300 (in-place)
I0527 22:50:21.711176  6423 net.cpp:150] Setting up fc4_relu
I0527 22:50:21.711205  6423 net.cpp:157] Top shape: 1024 300 (307200)
I0527 22:50:21.711223  6423 net.cpp:165] Memory required for data: 2187329536
I0527 22:50:21.711241  6423 layer_factory.hpp:77] Creating layer fc5_116
I0527 22:50:21.711263  6423 net.cpp:100] Creating Layer fc5_116
I0527 22:50:21.711283  6423 net.cpp:434] fc5_116 <- fc4_300
I0527 22:50:21.711304  6423 net.cpp:408] fc5_116 -> fc5_classes
I0527 22:50:21.712818  6423 net.cpp:150] Setting up fc5_116
I0527 22:50:21.712859  6423 net.cpp:157] Top shape: 1024 116 (118784)
I0527 22:50:21.712877  6423 net.cpp:165] Memory required for data: 2187804672
I0527 22:50:21.712908  6423 layer_factory.hpp:77] Creating layer fc5_classes_fc5_116_0_split
I0527 22:50:21.712930  6423 net.cpp:100] Creating Layer fc5_classes_fc5_116_0_split
I0527 22:50:21.712947  6423 net.cpp:434] fc5_classes_fc5_116_0_split <- fc5_classes
I0527 22:50:21.712968  6423 net.cpp:408] fc5_classes_fc5_116_0_split -> fc5_classes_fc5_116_0_split_0
I0527 22:50:21.712990  6423 net.cpp:408] fc5_classes_fc5_116_0_split -> fc5_classes_fc5_116_0_split_1
I0527 22:50:21.713013  6423 net.cpp:408] fc5_classes_fc5_116_0_split -> fc5_classes_fc5_116_0_split_2
I0527 22:50:21.713104  6423 net.cpp:150] Setting up fc5_classes_fc5_116_0_split
I0527 22:50:21.713129  6423 net.cpp:157] Top shape: 1024 116 (118784)
I0527 22:50:21.713147  6423 net.cpp:157] Top shape: 1024 116 (118784)
I0527 22:50:21.713165  6423 net.cpp:157] Top shape: 1024 116 (118784)
I0527 22:50:21.713181  6423 net.cpp:165] Memory required for data: 2189230080
I0527 22:50:21.713199  6423 layer_factory.hpp:77] Creating layer softmax
I0527 22:50:21.713220  6423 net.cpp:100] Creating Layer softmax
I0527 22:50:21.713239  6423 net.cpp:434] softmax <- fc5_classes_fc5_116_0_split_0
I0527 22:50:21.713259  6423 net.cpp:408] softmax -> softmax
I0527 22:50:21.713551  6423 net.cpp:150] Setting up softmax
I0527 22:50:21.713582  6423 net.cpp:157] Top shape: 1024 116 (118784)
I0527 22:50:21.713600  6423 net.cpp:165] Memory required for data: 2189705216
I0527 22:50:21.713618  6423 layer_factory.hpp:77] Creating layer loss
I0527 22:50:21.713661  6423 net.cpp:100] Creating Layer loss
I0527 22:50:21.713681  6423 net.cpp:434] loss <- softmax
I0527 22:50:21.713701  6423 net.cpp:434] loss <- label_data_1_split_0
I0527 22:50:21.713722  6423 net.cpp:408] loss -> loss
…
