…
I0411 20:20:26.915355 18195 net.cpp:322] The NetState phase (0) differed from the phase (1) specified by a rule in layer accuracy_5
I0411 20:20:26.915524 18195 net.cpp:58] Initializing net from parameters: 
state {
  phase: TRAIN
  level: 0
  stage: ""
}
layer {
  name: "data"
  type: "Data"
  top: "data"
  top: "label"
  include {
    phase: TRAIN
  }
  transform_param {
    scale: 0.0039215689
    mirror: false
    crop_size: 48
    mean_value: 132
    mean_value: 126
    mean_value: 140
  }
  data_param {
    source: "../local_data/lmdb/rtsd-r1/AHE/train/lmdb"
    batch_size: 1024
    backend: LMDB
  }
}
layer {
  name: "conv1"
  type: "Convolution"
  bottom: "data"
  top: "conv1"
  convolution_param {
    num_output: 100
    pad: 0
    kernel_size: 7
    group: 1
    stride: 1
    weight_filler {
      type: "xavier"
    }
  }
}
layer {
  name: "conv1_prescale"
  type: "Scale"
  bottom: "conv1"
  top: "conv1"
  param {
    lr_mult: 0
    decay_mult: 0
  }
  scale_param {
    filler {
      value: 0.6666
    }
    bias_term: false
  }
}
layer {
  name: "conv1_sTanH"
  type: "TanH"
  bottom: "conv1"
  top: "conv1"
}
layer {
  name: "conv1_postscale"
  type: "Scale"
  bottom: "conv1"
  top: "conv1"
  param {
    lr_mult: 0
    decay_mult: 0
  }
  scale_param {
    filler {
      value: 1.7159
    }
    bias_term: false
  }
}
layer {
  name: "pool1"
  type: "Pooling"
  bottom: "conv1"
  top: "pool1"
  pooling_param {
    pool: MAX
    kernel_size: 2
    stride: 2
  }
}
layer {
  name: "conv2"
  type: "Convolution"
  bottom: "pool1"
  top: "conv2"
  convolution_param {
    num_output: 150
    pad: 0
    kernel_size: 4
    group: 1
    stride: 1
    weight_filler {
      type: "xavier"
    }
  }
}
layer {
  name: "conv2_prescale"
  type: "Scale"
  bottom: "conv2"
  top: "conv2"
  param {
    lr_mult: 0
    decay_mult: 0
  }
  scale_param {
    filler {
      value: 0.6666
    }
    bias_term: false
  }
}
layer {
  name: "conv2_sTanH"
  type: "TanH"
  bottom: "conv2"
  top: "conv2"
}
layer {
  name: "conv2_postscale"
  type: "Scale"
  bottom: "conv2"
  top: "conv2"
  param {
    lr_mult: 0
    decay_mult: 0
  }
  scale_param {
    filler {
      value: 1.7159
    }
    bias_term: false
  }
}
layer {
  name: "pool2"
  type: "Pooling"
  bottom: "conv2"
  top: "pool2"
  pooling_param {
    pool: MAX
    kernel_size: 2
    stride: 2
  }
}
layer {
  name: "conv3"
  type: "Convolution"
  bottom: "pool2"
  top: "conv3"
  convolution_param {
    num_output: 250
    pad: 0
    kernel_size: 4
    group: 1
    stride: 1
    weight_filler {
      type: "xavier"
    }
  }
}
layer {
  name: "conv3_prescale"
  type: "Scale"
  bottom: "conv3"
  top: "conv3"
  param {
    lr_mult: 0
    decay_mult: 0
  }
  scale_param {
    filler {
      value: 0.6666
    }
    bias_term: false
  }
}
layer {
  name: "conv3_sTanH"
  type: "TanH"
  bottom: "conv3"
  top: "conv3"
}
layer {
  name: "conv3_postscale"
  type: "Scale"
  bottom: "conv3"
  top: "conv3"
  param {
    lr_mult: 0
    decay_mult: 0
  }
  scale_param {
    filler {
      value: 1.7159
    }
    bias_term: false
  }
}
layer {
  name: "pool3"
  type: "Pooling"
  bottom: "conv3"
  top: "pool3"
  pooling_param {
    pool: MAX
    kernel_size: 2
    stride: 2
  }
}
layer {
  name: "fc4_300"
  type: "InnerProduct"
  bottom: "pool3"
  top: "fc4_300"
  inner_product_param {
    num_output: 300
    weight_filler {
      type: "xavier"
    }
  }
}
layer {
  name: "fc4_prescale"
  type: "Scale"
  bottom: "fc4_300"
  top: "fc4_300"
  param {
    lr_mult: 0
    decay_mult: 0
  }
  scale_param {
    filler {
      value: 0.6666
    }
    bias_term: false
  }
}
layer {
  name: "fc4_sTanH"
  type: "TanH"
  bottom: "fc4_300"
  top: "fc4_300"
}
layer {
  name: "fc4_postscale"
  type: "Scale"
  bottom: "fc4_300"
  top: "fc4_300"
  param {
    lr_mult: 0
    decay_mult: 0
  }
  scale_param {
    filler {
      value: 1.7159
    }
    bias_term: false
  }
}
layer {
  name: "drop4"
  type: "Dropout"
  bottom: "fc4_300"
  top: "fc4_300"
  dropout_param {
    dropout_ratio: 0.1
  }
}
layer {
  name: "fc5_67"
  type: "InnerProduct"
  bottom: "fc4_300"
  top: "fc5_classes"
  inner_product_param {
    num_output: 67
    weight_filler {
      type: "xavier"
    }
  }
}
layer {
  name: "loss"
  type: "SoftmaxWithLoss"
  bottom: "fc5_classes"
  bottom: "label"
  top: "loss"
}
I0411 20:20:26.915635 18195 layer_factory.hpp:77] Creating layer data
I0411 20:20:26.916723 18195 net.cpp:100] Creating Layer data
I0411 20:20:26.916750 18195 net.cpp:408] data -> data
I0411 20:20:26.916774 18195 net.cpp:408] data -> label
I0411 20:20:26.954520 18335 db_lmdb.cpp:35] Opened lmdb ../local_data/lmdb/rtsd-r1/AHE/train/lmdb
I0411 20:20:26.982969 18195 data_layer.cpp:41] output data size: 1024,3,48,48
I0411 20:20:27.062285 18195 net.cpp:150] Setting up data
I0411 20:20:27.062324 18195 net.cpp:157] Top shape: 1024 3 48 48 (7077888)
I0411 20:20:27.062331 18195 net.cpp:157] Top shape: 1024 (1024)
I0411 20:20:27.062335 18195 net.cpp:165] Memory required for data: 28315648
I0411 20:20:27.062346 18195 layer_factory.hpp:77] Creating layer conv1
I0411 20:20:27.062376 18195 net.cpp:100] Creating Layer conv1
I0411 20:20:27.062386 18195 net.cpp:434] conv1 <- data
I0411 20:20:27.062403 18195 net.cpp:408] conv1 -> conv1
I0411 20:20:27.373702 18195 net.cpp:150] Setting up conv1
I0411 20:20:27.373729 18195 net.cpp:157] Top shape: 1024 100 42 42 (180633600)
I0411 20:20:27.373733 18195 net.cpp:165] Memory required for data: 750850048
I0411 20:20:27.373755 18195 layer_factory.hpp:77] Creating layer conv1_prescale
I0411 20:20:27.373770 18195 net.cpp:100] Creating Layer conv1_prescale
I0411 20:20:27.373775 18195 net.cpp:434] conv1_prescale <- conv1
I0411 20:20:27.373781 18195 net.cpp:395] conv1_prescale -> conv1 (in-place)
I0411 20:20:27.373894 18195 net.cpp:150] Setting up conv1_prescale
I0411 20:20:27.373903 18195 net.cpp:157] Top shape: 1024 100 42 42 (180633600)
I0411 20:20:27.373906 18195 net.cpp:165] Memory required for data: 1473384448
I0411 20:20:27.373914 18195 layer_factory.hpp:77] Creating layer conv1_sTanH
I0411 20:20:27.373920 18195 net.cpp:100] Creating Layer conv1_sTanH
I0411 20:20:27.373926 18195 net.cpp:434] conv1_sTanH <- conv1
I0411 20:20:27.373931 18195 net.cpp:395] conv1_sTanH -> conv1 (in-place)
I0411 20:20:27.374125 18195 net.cpp:150] Setting up conv1_sTanH
I0411 20:20:27.374136 18195 net.cpp:157] Top shape: 1024 100 42 42 (180633600)
I0411 20:20:27.374140 18195 net.cpp:165] Memory required for data: 2195918848
I0411 20:20:27.374143 18195 layer_factory.hpp:77] Creating layer conv1_postscale
I0411 20:20:27.374151 18195 net.cpp:100] Creating Layer conv1_postscale
I0411 20:20:27.374156 18195 net.cpp:434] conv1_postscale <- conv1
I0411 20:20:27.374161 18195 net.cpp:395] conv1_postscale -> conv1 (in-place)
I0411 20:20:27.374254 18195 net.cpp:150] Setting up conv1_postscale
I0411 20:20:27.374264 18195 net.cpp:157] Top shape: 1024 100 42 42 (180633600)
I0411 20:20:27.374266 18195 net.cpp:165] Memory required for data: 2918453248
I0411 20:20:27.374271 18195 layer_factory.hpp:77] Creating layer pool1
I0411 20:20:27.374277 18195 net.cpp:100] Creating Layer pool1
I0411 20:20:27.374280 18195 net.cpp:434] pool1 <- conv1
I0411 20:20:27.374285 18195 net.cpp:408] pool1 -> pool1
I0411 20:20:27.374332 18195 net.cpp:150] Setting up pool1
I0411 20:20:27.374361 18195 net.cpp:157] Top shape: 1024 100 21 21 (45158400)
I0411 20:20:27.374366 18195 net.cpp:165] Memory required for data: 3099086848
I0411 20:20:27.374370 18195 layer_factory.hpp:77] Creating layer conv2
I0411 20:20:27.374380 18195 net.cpp:100] Creating Layer conv2
I0411 20:20:27.374385 18195 net.cpp:434] conv2 <- pool1
I0411 20:20:27.374392 18195 net.cpp:408] conv2 -> conv2
I0411 20:20:27.381371 18195 net.cpp:150] Setting up conv2
I0411 20:20:27.381387 18195 net.cpp:157] Top shape: 1024 150 18 18 (49766400)
I0411 20:20:27.381392 18195 net.cpp:165] Memory required for data: 3298152448
I0411 20:20:27.381402 18195 layer_factory.hpp:77] Creating layer conv2_prescale
I0411 20:20:27.381409 18195 net.cpp:100] Creating Layer conv2_prescale
I0411 20:20:27.381413 18195 net.cpp:434] conv2_prescale <- conv2
I0411 20:20:27.381418 18195 net.cpp:395] conv2_prescale -> conv2 (in-place)
I0411 20:20:27.381522 18195 net.cpp:150] Setting up conv2_prescale
I0411 20:20:27.381531 18195 net.cpp:157] Top shape: 1024 150 18 18 (49766400)
I0411 20:20:27.381534 18195 net.cpp:165] Memory required for data: 3497218048
I0411 20:20:27.381541 18195 layer_factory.hpp:77] Creating layer conv2_sTanH
I0411 20:20:27.381547 18195 net.cpp:100] Creating Layer conv2_sTanH
I0411 20:20:27.381551 18195 net.cpp:434] conv2_sTanH <- conv2
I0411 20:20:27.381554 18195 net.cpp:395] conv2_sTanH -> conv2 (in-place)
I0411 20:20:27.383254 18195 net.cpp:150] Setting up conv2_sTanH
I0411 20:20:27.383270 18195 net.cpp:157] Top shape: 1024 150 18 18 (49766400)
I0411 20:20:27.383272 18195 net.cpp:165] Memory required for data: 3696283648
I0411 20:20:27.383276 18195 layer_factory.hpp:77] Creating layer conv2_postscale
I0411 20:20:27.383283 18195 net.cpp:100] Creating Layer conv2_postscale
I0411 20:20:27.383286 18195 net.cpp:434] conv2_postscale <- conv2
I0411 20:20:27.383292 18195 net.cpp:395] conv2_postscale -> conv2 (in-place)
I0411 20:20:27.383393 18195 net.cpp:150] Setting up conv2_postscale
I0411 20:20:27.383401 18195 net.cpp:157] Top shape: 1024 150 18 18 (49766400)
I0411 20:20:27.383405 18195 net.cpp:165] Memory required for data: 3895349248
I0411 20:20:27.383410 18195 layer_factory.hpp:77] Creating layer pool2
I0411 20:20:27.383416 18195 net.cpp:100] Creating Layer pool2
I0411 20:20:27.383421 18195 net.cpp:434] pool2 <- conv2
I0411 20:20:27.383425 18195 net.cpp:408] pool2 -> pool2
I0411 20:20:27.383466 18195 net.cpp:150] Setting up pool2
I0411 20:20:27.383473 18195 net.cpp:157] Top shape: 1024 150 9 9 (12441600)
I0411 20:20:27.383476 18195 net.cpp:165] Memory required for data: 3945115648
I0411 20:20:27.383479 18195 layer_factory.hpp:77] Creating layer conv3
I0411 20:20:27.383486 18195 net.cpp:100] Creating Layer conv3
I0411 20:20:27.383491 18195 net.cpp:434] conv3 <- pool2
I0411 20:20:27.383496 18195 net.cpp:408] conv3 -> conv3
I0411 20:20:27.389415 18195 net.cpp:150] Setting up conv3
I0411 20:20:27.389446 18195 net.cpp:157] Top shape: 1024 250 6 6 (9216000)
I0411 20:20:27.389451 18195 net.cpp:165] Memory required for data: 3981979648
I0411 20:20:27.389459 18195 layer_factory.hpp:77] Creating layer conv3_prescale
I0411 20:20:27.389469 18195 net.cpp:100] Creating Layer conv3_prescale
I0411 20:20:27.389472 18195 net.cpp:434] conv3_prescale <- conv3
I0411 20:20:27.389477 18195 net.cpp:395] conv3_prescale -> conv3 (in-place)
I0411 20:20:27.389577 18195 net.cpp:150] Setting up conv3_prescale
I0411 20:20:27.389586 18195 net.cpp:157] Top shape: 1024 250 6 6 (9216000)
I0411 20:20:27.389590 18195 net.cpp:165] Memory required for data: 4018843648
I0411 20:20:27.389595 18195 layer_factory.hpp:77] Creating layer conv3_sTanH
I0411 20:20:27.389600 18195 net.cpp:100] Creating Layer conv3_sTanH
I0411 20:20:27.389602 18195 net.cpp:434] conv3_sTanH <- conv3
I0411 20:20:27.389608 18195 net.cpp:395] conv3_sTanH -> conv3 (in-place)
I0411 20:20:27.391746 18195 net.cpp:150] Setting up conv3_sTanH
I0411 20:20:27.391764 18195 net.cpp:157] Top shape: 1024 250 6 6 (9216000)
I0411 20:20:27.391768 18195 net.cpp:165] Memory required for data: 4055707648
I0411 20:20:27.391785 18195 layer_factory.hpp:77] Creating layer conv3_postscale
I0411 20:20:27.391796 18195 net.cpp:100] Creating Layer conv3_postscale
I0411 20:20:27.391800 18195 net.cpp:434] conv3_postscale <- conv3
I0411 20:20:27.391806 18195 net.cpp:395] conv3_postscale -> conv3 (in-place)
I0411 20:20:27.391935 18195 net.cpp:150] Setting up conv3_postscale
I0411 20:20:27.391947 18195 net.cpp:157] Top shape: 1024 250 6 6 (9216000)
I0411 20:20:27.391950 18195 net.cpp:165] Memory required for data: 4092571648
I0411 20:20:27.391955 18195 layer_factory.hpp:77] Creating layer pool3
I0411 20:20:27.391963 18195 net.cpp:100] Creating Layer pool3
I0411 20:20:27.391965 18195 net.cpp:434] pool3 <- conv3
I0411 20:20:27.391973 18195 net.cpp:408] pool3 -> pool3
I0411 20:20:27.392014 18195 net.cpp:150] Setting up pool3
I0411 20:20:27.392022 18195 net.cpp:157] Top shape: 1024 250 3 3 (2304000)
I0411 20:20:27.392025 18195 net.cpp:165] Memory required for data: 4101787648
I0411 20:20:27.392029 18195 layer_factory.hpp:77] Creating layer fc4_300
I0411 20:20:27.392045 18195 net.cpp:100] Creating Layer fc4_300
I0411 20:20:27.392050 18195 net.cpp:434] fc4_300 <- pool3
I0411 20:20:27.392056 18195 net.cpp:408] fc4_300 -> fc4_300
I0411 20:20:27.399575 18195 net.cpp:150] Setting up fc4_300
I0411 20:20:27.399591 18195 net.cpp:157] Top shape: 1024 300 (307200)
I0411 20:20:27.399595 18195 net.cpp:165] Memory required for data: 4103016448
I0411 20:20:27.399601 18195 layer_factory.hpp:77] Creating layer fc4_prescale
I0411 20:20:27.399610 18195 net.cpp:100] Creating Layer fc4_prescale
I0411 20:20:27.399615 18195 net.cpp:434] fc4_prescale <- fc4_300
I0411 20:20:27.399619 18195 net.cpp:395] fc4_prescale -> fc4_300 (in-place)
I0411 20:20:27.399713 18195 net.cpp:150] Setting up fc4_prescale
I0411 20:20:27.399722 18195 net.cpp:157] Top shape: 1024 300 (307200)
I0411 20:20:27.399725 18195 net.cpp:165] Memory required for data: 4104245248
I0411 20:20:27.399729 18195 layer_factory.hpp:77] Creating layer fc4_sTanH
I0411 20:20:27.399734 18195 net.cpp:100] Creating Layer fc4_sTanH
I0411 20:20:27.399737 18195 net.cpp:434] fc4_sTanH <- fc4_300
I0411 20:20:27.399742 18195 net.cpp:395] fc4_sTanH -> fc4_300 (in-place)
I0411 20:20:27.399938 18195 net.cpp:150] Setting up fc4_sTanH
I0411 20:20:27.399951 18195 net.cpp:157] Top shape: 1024 300 (307200)
I0411 20:20:27.399955 18195 net.cpp:165] Memory required for data: 4105474048
I0411 20:20:27.399957 18195 layer_factory.hpp:77] Creating layer fc4_postscale
I0411 20:20:27.399966 18195 net.cpp:100] Creating Layer fc4_postscale
I0411 20:20:27.399969 18195 net.cpp:434] fc4_postscale <- fc4_300
I0411 20:20:27.399976 18195 net.cpp:395] fc4_postscale -> fc4_300 (in-place)
I0411 20:20:27.400079 18195 net.cpp:150] Setting up fc4_postscale
I0411 20:20:27.400086 18195 net.cpp:157] Top shape: 1024 300 (307200)
I0411 20:20:27.400089 18195 net.cpp:165] Memory required for data: 4106702848
I0411 20:20:27.400094 18195 layer_factory.hpp:77] Creating layer drop4
I0411 20:20:27.400100 18195 net.cpp:100] Creating Layer drop4
I0411 20:20:27.400104 18195 net.cpp:434] drop4 <- fc4_300
I0411 20:20:27.400110 18195 net.cpp:395] drop4 -> fc4_300 (in-place)
I0411 20:20:27.400136 18195 net.cpp:150] Setting up drop4
I0411 20:20:27.400144 18195 net.cpp:157] Top shape: 1024 300 (307200)
I0411 20:20:27.400147 18195 net.cpp:165] Memory required for data: 4107931648
I0411 20:20:27.400149 18195 layer_factory.hpp:77] Creating layer fc5_67
I0411 20:20:27.400157 18195 net.cpp:100] Creating Layer fc5_67
I0411 20:20:27.400161 18195 net.cpp:434] fc5_67 <- fc4_300
I0411 20:20:27.400166 18195 net.cpp:408] fc5_67 -> fc5_classes
I0411 20:20:27.402433 18195 net.cpp:150] Setting up fc5_67
I0411 20:20:27.402451 18195 net.cpp:157] Top shape: 1024 67 (68608)
I0411 20:20:27.402454 18195 net.cpp:165] Memory required for data: 4108206080
I0411 20:20:27.402467 18195 layer_factory.hpp:77] Creating layer loss
I0411 20:20:27.402474 18195 net.cpp:100] Creating Layer loss
I0411 20:20:27.402478 18195 net.cpp:434] loss <- fc5_classes
I0411 20:20:27.402482 18195 net.cpp:434] loss <- label
I0411 20:20:27.402504 18195 net.cpp:408] loss -> loss
I0411 20:20:27.402518 18195 layer_factory.hpp:77] Creating layer loss
…
I0411 20:20:27.403456 18195 solver.cpp:193] Creating test net (#0) specified by test_net file: ./Prototxt/experiment_9/rtsd-r1/AHE/trial_1/test.prototxt
I0411 20:20:27.403702 18195 net.cpp:58] Initializing net from parameters: 
state {
  phase: TEST
}
layer {
  name: "data"
  type: "Data"
  top: "data"
  top: "label"
  include {
    phase: TEST
  }
  transform_param {
    scale: 0.0039215689
    mirror: false
    crop_size: 48
    mean_value: 126
    mean_value: 124
    mean_value: 145
  }
  data_param {
    source: "../local_data/lmdb/rtsd-r1/AHE/test/lmdb"
    batch_size: 1024
    backend: LMDB
  }
}
layer {
  name: "conv1"
  type: "Convolution"
  bottom: "data"
  top: "conv1"
  convolution_param {
    num_output: 100
    pad: 0
    kernel_size: 7
    group: 1
    stride: 1
    weight_filler {
      type: "xavier"
    }
  }
}
layer {
  name: "conv1_prescale"
  type: "Scale"
  bottom: "conv1"
  top: "conv1"
  param {
    lr_mult: 0
    decay_mult: 0
  }
  scale_param {
    filler {
      value: 0.6666
    }
    bias_term: false
  }
}
layer {
  name: "conv1_sTanH"
  type: "TanH"
  bottom: "conv1"
  top: "conv1"
}
layer {
  name: "conv1_postscale"
  type: "Scale"
  bottom: "conv1"
  top: "conv1"
  param {
    lr_mult: 0
    decay_mult: 0
  }
  scale_param {
    filler {
      value: 1.7159
    }
    bias_term: false
  }
}
layer {
  name: "pool1"
  type: "Pooling"
  bottom: "conv1"
  top: "pool1"
  pooling_param {
    pool: MAX
    kernel_size: 2
    stride: 2
  }
}
layer {
  name: "conv2"
  type: "Convolution"
  bottom: "pool1"
  top: "conv2"
  convolution_param {
    num_output: 150
    pad: 0
    kernel_size: 4
    group: 1
    stride: 1
    weight_filler {
      type: "xavier"
    }
  }
}
layer {
  name: "conv2_prescale"
  type: "Scale"
  bottom: "conv2"
  top: "conv2"
  param {
    lr_mult: 0
    decay_mult: 0
  }
  scale_param {
    filler {
      value: 0.6666
    }
    bias_term: false
  }
}
layer {
  name: "conv2_sTanH"
  type: "TanH"
  bottom: "conv2"
  top: "conv2"
}
layer {
  name: "conv2_postscale"
  type: "Scale"
  bottom: "conv2"
  top: "conv2"
  param {
    lr_mult: 0
    decay_mult: 0
  }
  scale_param {
    filler {
      value: 1.7159
    }
    bias_term: false
  }
}
layer {
  name: "pool2"
  type: "Pooling"
  bottom: "conv2"
  top: "pool2"
  pooling_param {
    pool: MAX
    kernel_size: 2
    stride: 2
  }
}
layer {
  name: "conv3"
  type: "Convolution"
  bottom: "pool2"
  top: "conv3"
  convolution_param {
    num_output: 250
    pad: 0
    kernel_size: 4
    group: 1
    stride: 1
    weight_filler {
      type: "xavier"
    }
  }
}
layer {
  name: "conv3_prescale"
  type: "Scale"
  bottom: "conv3"
  top: "conv3"
  param {
    lr_mult: 0
    decay_mult: 0
  }
  scale_param {
    filler {
      value: 0.6666
    }
    bias_term: false
  }
}
layer {
  name: "conv3_sTanH"
  type: "TanH"
  bottom: "conv3"
  top: "conv3"
}
layer {
  name: "conv3_postscale"
  type: "Scale"
  bottom: "conv3"
  top: "conv3"
  param {
    lr_mult: 0
    decay_mult: 0
  }
  scale_param {
    filler {
      value: 1.7159
    }
    bias_term: false
  }
}
layer {
  name: "pool3"
  type: "Pooling"
  bottom: "conv3"
  top: "pool3"
  pooling_param {
    pool: MAX
    kernel_size: 2
    stride: 2
  }
}
layer {
  name: "fc4_300"
  type: "InnerProduct"
  bottom: "pool3"
  top: "fc4_300"
  inner_product_param {
    num_output: 300
    weight_filler {
      type: "xavier"
    }
  }
}
layer {
  name: "fc4_prescale"
  type: "Scale"
  bottom: "fc4_300"
  top: "fc4_300"
  param {
    lr_mult: 0
    decay_mult: 0
  }
  scale_param {
    filler {
      value: 0.6666
    }
    bias_term: false
  }
}
layer {
  name: "fc4_sTanH"
  type: "TanH"
  bottom: "fc4_300"
  top: "fc4_300"
}
layer {
  name: "fc4_postscale"
  type: "Scale"
  bottom: "fc4_300"
  top: "fc4_300"
  param {
    lr_mult: 0
    decay_mult: 0
  }
  scale_param {
    filler {
      value: 1.7159
    }
    bias_term: false
  }
}
layer {
  name: "drop4"
  type: "Dropout"
  bottom: "fc4_300"
  top: "fc4_300"
  dropout_param {
    dropout_ratio: 0.1
  }
}
layer {
  name: "fc5_67"
  type: "InnerProduct"
  bottom: "fc4_300"
  top: "fc5_classes"
  inner_product_param {
    num_output: 67
    weight_filler {
      type: "xavier"
    }
  }
}
layer {
  name: "loss"
  type: "SoftmaxWithLoss"
  bottom: "fc5_classes"
  bottom: "label"
  top: "loss"
}
layer {
  name: "accuracy_1"
  type: "Accuracy"
  bottom: "fc5_classes"
  bottom: "label"
  top: "accuracy_1"
  include {
    phase: TEST
  }
  accuracy_param {
    top_k: 1
  }
}
layer {
  name: "accuracy_5"
  type: "Accuracy"
  bottom: "fc5_classes"
  bottom: "label"
  top: "accuracy_5"
  include {
    phase: TEST
  }
  accuracy_param {
    top_k: 5
  }
}
I0411 20:20:27.403870 18195 layer_factory.hpp:77] Creating layer data
I0411 20:20:27.404742 18195 net.cpp:100] Creating Layer data
I0411 20:20:27.404757 18195 net.cpp:408] data -> data
I0411 20:20:27.404772 18195 net.cpp:408] data -> label
I0411 20:20:27.412081 18383 db_lmdb.cpp:35] Opened lmdb ../local_data/lmdb/rtsd-r1/AHE/test/lmdb
I0411 20:20:27.412230 18195 data_layer.cpp:41] output data size: 1024,3,48,48
I0411 20:20:27.473381 18195 net.cpp:150] Setting up data
I0411 20:20:27.473422 18195 net.cpp:157] Top shape: 1024 3 48 48 (7077888)
I0411 20:20:27.473428 18195 net.cpp:157] Top shape: 1024 (1024)
I0411 20:20:27.473430 18195 net.cpp:165] Memory required for data: 28315648
I0411 20:20:27.473436 18195 layer_factory.hpp:77] Creating layer label_data_1_split
I0411 20:20:27.473453 18195 net.cpp:100] Creating Layer label_data_1_split
I0411 20:20:27.473459 18195 net.cpp:434] label_data_1_split <- label
I0411 20:20:27.473466 18195 net.cpp:408] label_data_1_split -> label_data_1_split_0
I0411 20:20:27.473477 18195 net.cpp:408] label_data_1_split -> label_data_1_split_1
I0411 20:20:27.473484 18195 net.cpp:408] label_data_1_split -> label_data_1_split_2
I0411 20:20:27.473587 18195 net.cpp:150] Setting up label_data_1_split
I0411 20:20:27.473598 18195 net.cpp:157] Top shape: 1024 (1024)
I0411 20:20:27.473601 18195 net.cpp:157] Top shape: 1024 (1024)
I0411 20:20:27.473604 18195 net.cpp:157] Top shape: 1024 (1024)
I0411 20:20:27.473608 18195 net.cpp:165] Memory required for data: 28327936
I0411 20:20:27.473610 18195 layer_factory.hpp:77] Creating layer conv1
I0411 20:20:27.473631 18195 net.cpp:100] Creating Layer conv1
I0411 20:20:27.473635 18195 net.cpp:434] conv1 <- data
I0411 20:20:27.473641 18195 net.cpp:408] conv1 -> conv1
I0411 20:20:27.475481 18195 net.cpp:150] Setting up conv1
I0411 20:20:27.475498 18195 net.cpp:157] Top shape: 1024 100 42 42 (180633600)
I0411 20:20:27.475514 18195 net.cpp:165] Memory required for data: 750862336
I0411 20:20:27.475527 18195 layer_factory.hpp:77] Creating layer conv1_prescale
I0411 20:20:27.475538 18195 net.cpp:100] Creating Layer conv1_prescale
I0411 20:20:27.475541 18195 net.cpp:434] conv1_prescale <- conv1
I0411 20:20:27.475546 18195 net.cpp:395] conv1_prescale -> conv1 (in-place)
I0411 20:20:27.475657 18195 net.cpp:150] Setting up conv1_prescale
I0411 20:20:27.475666 18195 net.cpp:157] Top shape: 1024 100 42 42 (180633600)
I0411 20:20:27.475669 18195 net.cpp:165] Memory required for data: 1473396736
I0411 20:20:27.475677 18195 layer_factory.hpp:77] Creating layer conv1_sTanH
I0411 20:20:27.475685 18195 net.cpp:100] Creating Layer conv1_sTanH
I0411 20:20:27.475690 18195 net.cpp:434] conv1_sTanH <- conv1
I0411 20:20:27.475695 18195 net.cpp:395] conv1_sTanH -> conv1 (in-place)
I0411 20:20:27.475960 18195 net.cpp:150] Setting up conv1_sTanH
I0411 20:20:27.475976 18195 net.cpp:157] Top shape: 1024 100 42 42 (180633600)
I0411 20:20:27.475980 18195 net.cpp:165] Memory required for data: 2195931136
I0411 20:20:27.475983 18195 layer_factory.hpp:77] Creating layer conv1_postscale
I0411 20:20:27.475991 18195 net.cpp:100] Creating Layer conv1_postscale
I0411 20:20:27.475996 18195 net.cpp:434] conv1_postscale <- conv1
I0411 20:20:27.476002 18195 net.cpp:395] conv1_postscale -> conv1 (in-place)
I0411 20:20:27.478266 18195 net.cpp:150] Setting up conv1_postscale
I0411 20:20:27.478277 18195 net.cpp:157] Top shape: 1024 100 42 42 (180633600)
I0411 20:20:27.478292 18195 net.cpp:165] Memory required for data: 2918465536
I0411 20:20:27.478299 18195 layer_factory.hpp:77] Creating layer pool1
I0411 20:20:27.478307 18195 net.cpp:100] Creating Layer pool1
I0411 20:20:27.478310 18195 net.cpp:434] pool1 <- conv1
I0411 20:20:27.478317 18195 net.cpp:408] pool1 -> pool1
I0411 20:20:27.478363 18195 net.cpp:150] Setting up pool1
I0411 20:20:27.478373 18195 net.cpp:157] Top shape: 1024 100 21 21 (45158400)
I0411 20:20:27.478375 18195 net.cpp:165] Memory required for data: 3099099136
I0411 20:20:27.478379 18195 layer_factory.hpp:77] Creating layer conv2
I0411 20:20:27.478389 18195 net.cpp:100] Creating Layer conv2
I0411 20:20:27.478394 18195 net.cpp:434] conv2 <- pool1
I0411 20:20:27.478402 18195 net.cpp:408] conv2 -> conv2
I0411 20:20:27.482560 18195 net.cpp:150] Setting up conv2
I0411 20:20:27.482578 18195 net.cpp:157] Top shape: 1024 150 18 18 (49766400)
I0411 20:20:27.482594 18195 net.cpp:165] Memory required for data: 3298164736
I0411 20:20:27.482605 18195 layer_factory.hpp:77] Creating layer conv2_prescale
I0411 20:20:27.482620 18195 net.cpp:100] Creating Layer conv2_prescale
I0411 20:20:27.482626 18195 net.cpp:434] conv2_prescale <- conv2
I0411 20:20:27.482633 18195 net.cpp:395] conv2_prescale -> conv2 (in-place)
I0411 20:20:27.482753 18195 net.cpp:150] Setting up conv2_prescale
I0411 20:20:27.482764 18195 net.cpp:157] Top shape: 1024 150 18 18 (49766400)
I0411 20:20:27.482766 18195 net.cpp:165] Memory required for data: 3497230336
I0411 20:20:27.482771 18195 layer_factory.hpp:77] Creating layer conv2_sTanH
I0411 20:20:27.482777 18195 net.cpp:100] Creating Layer conv2_sTanH
I0411 20:20:27.482780 18195 net.cpp:434] conv2_sTanH <- conv2
I0411 20:20:27.482786 18195 net.cpp:395] conv2_sTanH -> conv2 (in-place)
I0411 20:20:27.484195 18195 net.cpp:150] Setting up conv2_sTanH
I0411 20:20:27.484212 18195 net.cpp:157] Top shape: 1024 150 18 18 (49766400)
I0411 20:20:27.484215 18195 net.cpp:165] Memory required for data: 3696295936
I0411 20:20:27.484220 18195 layer_factory.hpp:77] Creating layer conv2_postscale
I0411 20:20:27.484228 18195 net.cpp:100] Creating Layer conv2_postscale
I0411 20:20:27.484231 18195 net.cpp:434] conv2_postscale <- conv2
I0411 20:20:27.484237 18195 net.cpp:395] conv2_postscale -> conv2 (in-place)
I0411 20:20:27.484346 18195 net.cpp:150] Setting up conv2_postscale
I0411 20:20:27.484355 18195 net.cpp:157] Top shape: 1024 150 18 18 (49766400)
I0411 20:20:27.484359 18195 net.cpp:165] Memory required for data: 3895361536
I0411 20:20:27.484364 18195 layer_factory.hpp:77] Creating layer pool2
I0411 20:20:27.484370 18195 net.cpp:100] Creating Layer pool2
I0411 20:20:27.484375 18195 net.cpp:434] pool2 <- conv2
I0411 20:20:27.484381 18195 net.cpp:408] pool2 -> pool2
I0411 20:20:27.484431 18195 net.cpp:150] Setting up pool2
I0411 20:20:27.484439 18195 net.cpp:157] Top shape: 1024 150 9 9 (12441600)
I0411 20:20:27.484442 18195 net.cpp:165] Memory required for data: 3945127936
I0411 20:20:27.484446 18195 layer_factory.hpp:77] Creating layer conv3
I0411 20:20:27.484455 18195 net.cpp:100] Creating Layer conv3
I0411 20:20:27.484463 18195 net.cpp:434] conv3 <- pool2
I0411 20:20:27.484468 18195 net.cpp:408] conv3 -> conv3
I0411 20:20:27.490088 18195 net.cpp:150] Setting up conv3
I0411 20:20:27.490106 18195 net.cpp:157] Top shape: 1024 250 6 6 (9216000)
I0411 20:20:27.490110 18195 net.cpp:165] Memory required for data: 3981991936
I0411 20:20:27.490120 18195 layer_factory.hpp:77] Creating layer conv3_prescale
I0411 20:20:27.490131 18195 net.cpp:100] Creating Layer conv3_prescale
I0411 20:20:27.490135 18195 net.cpp:434] conv3_prescale <- conv3
I0411 20:20:27.490140 18195 net.cpp:395] conv3_prescale -> conv3 (in-place)
I0411 20:20:27.490244 18195 net.cpp:150] Setting up conv3_prescale
I0411 20:20:27.490253 18195 net.cpp:157] Top shape: 1024 250 6 6 (9216000)
I0411 20:20:27.490257 18195 net.cpp:165] Memory required for data: 4018855936
I0411 20:20:27.490262 18195 layer_factory.hpp:77] Creating layer conv3_sTanH
I0411 20:20:27.490267 18195 net.cpp:100] Creating Layer conv3_sTanH
I0411 20:20:27.490269 18195 net.cpp:434] conv3_sTanH <- conv3
I0411 20:20:27.490275 18195 net.cpp:395] conv3_sTanH -> conv3 (in-place)
I0411 20:20:27.491081 18195 net.cpp:150] Setting up conv3_sTanH
I0411 20:20:27.491098 18195 net.cpp:157] Top shape: 1024 250 6 6 (9216000)
I0411 20:20:27.491103 18195 net.cpp:165] Memory required for data: 4055719936
I0411 20:20:27.491106 18195 layer_factory.hpp:77] Creating layer conv3_postscale
I0411 20:20:27.491113 18195 net.cpp:100] Creating Layer conv3_postscale
I0411 20:20:27.491117 18195 net.cpp:434] conv3_postscale <- conv3
I0411 20:20:27.491122 18195 net.cpp:395] conv3_postscale -> conv3 (in-place)
I0411 20:20:27.491230 18195 net.cpp:150] Setting up conv3_postscale
I0411 20:20:27.491240 18195 net.cpp:157] Top shape: 1024 250 6 6 (9216000)
I0411 20:20:27.491243 18195 net.cpp:165] Memory required for data: 4092583936
I0411 20:20:27.491248 18195 layer_factory.hpp:77] Creating layer pool3
I0411 20:20:27.491257 18195 net.cpp:100] Creating Layer pool3
I0411 20:20:27.491262 18195 net.cpp:434] pool3 <- conv3
I0411 20:20:27.491271 18195 net.cpp:408] pool3 -> pool3
I0411 20:20:27.491315 18195 net.cpp:150] Setting up pool3
I0411 20:20:27.491323 18195 net.cpp:157] Top shape: 1024 250 3 3 (2304000)
I0411 20:20:27.491330 18195 net.cpp:165] Memory required for data: 4101799936
I0411 20:20:27.491333 18195 layer_factory.hpp:77] Creating layer fc4_300
I0411 20:20:27.491341 18195 net.cpp:100] Creating Layer fc4_300
I0411 20:20:27.491345 18195 net.cpp:434] fc4_300 <- pool3
I0411 20:20:27.491350 18195 net.cpp:408] fc4_300 -> fc4_300
I0411 20:20:27.496727 18195 net.cpp:150] Setting up fc4_300
I0411 20:20:27.496744 18195 net.cpp:157] Top shape: 1024 300 (307200)
I0411 20:20:27.496759 18195 net.cpp:165] Memory required for data: 4103028736
I0411 20:20:27.496781 18195 layer_factory.hpp:77] Creating layer fc4_prescale
I0411 20:20:27.496789 18195 net.cpp:100] Creating Layer fc4_prescale
I0411 20:20:27.496793 18195 net.cpp:434] fc4_prescale <- fc4_300
I0411 20:20:27.496800 18195 net.cpp:395] fc4_prescale -> fc4_300 (in-place)
I0411 20:20:27.496918 18195 net.cpp:150] Setting up fc4_prescale
I0411 20:20:27.496930 18195 net.cpp:157] Top shape: 1024 300 (307200)
I0411 20:20:27.496933 18195 net.cpp:165] Memory required for data: 4104257536
I0411 20:20:27.496938 18195 layer_factory.hpp:77] Creating layer fc4_sTanH
I0411 20:20:27.496943 18195 net.cpp:100] Creating Layer fc4_sTanH
I0411 20:20:27.496948 18195 net.cpp:434] fc4_sTanH <- fc4_300
I0411 20:20:27.496953 18195 net.cpp:395] fc4_sTanH -> fc4_300 (in-place)
I0411 20:20:27.497153 18195 net.cpp:150] Setting up fc4_sTanH
I0411 20:20:27.497165 18195 net.cpp:157] Top shape: 1024 300 (307200)
I0411 20:20:27.497169 18195 net.cpp:165] Memory required for data: 4105486336
I0411 20:20:27.497171 18195 layer_factory.hpp:77] Creating layer fc4_postscale
I0411 20:20:27.497179 18195 net.cpp:100] Creating Layer fc4_postscale
I0411 20:20:27.497184 18195 net.cpp:434] fc4_postscale <- fc4_300
I0411 20:20:27.497190 18195 net.cpp:395] fc4_postscale -> fc4_300 (in-place)
I0411 20:20:27.497292 18195 net.cpp:150] Setting up fc4_postscale
I0411 20:20:27.497301 18195 net.cpp:157] Top shape: 1024 300 (307200)
I0411 20:20:27.497303 18195 net.cpp:165] Memory required for data: 4106715136
I0411 20:20:27.497308 18195 layer_factory.hpp:77] Creating layer drop4
I0411 20:20:27.497321 18195 net.cpp:100] Creating Layer drop4
I0411 20:20:27.497326 18195 net.cpp:434] drop4 <- fc4_300
I0411 20:20:27.497333 18195 net.cpp:395] drop4 -> fc4_300 (in-place)
I0411 20:20:27.497357 18195 net.cpp:150] Setting up drop4
I0411 20:20:27.497366 18195 net.cpp:157] Top shape: 1024 300 (307200)
I0411 20:20:27.497373 18195 net.cpp:165] Memory required for data: 4107943936
I0411 20:20:27.497376 18195 layer_factory.hpp:77] Creating layer fc5_67
I0411 20:20:27.497382 18195 net.cpp:100] Creating Layer fc5_67
I0411 20:20:27.497386 18195 net.cpp:434] fc5_67 <- fc4_300
I0411 20:20:27.497391 18195 net.cpp:408] fc5_67 -> fc5_classes
I0411 20:20:27.497643 18195 net.cpp:150] Setting up fc5_67
I0411 20:20:27.497653 18195 net.cpp:157] Top shape: 1024 67 (68608)
I0411 20:20:27.497655 18195 net.cpp:165] Memory required for data: 4108218368
I0411 20:20:27.497666 18195 layer_factory.hpp:77] Creating layer fc5_classes_fc5_67_0_split
I0411 20:20:27.497674 18195 net.cpp:100] Creating Layer fc5_classes_fc5_67_0_split
I0411 20:20:27.497678 18195 net.cpp:434] fc5_classes_fc5_67_0_split <- fc5_classes
I0411 20:20:27.497684 18195 net.cpp:408] fc5_classes_fc5_67_0_split -> fc5_classes_fc5_67_0_split_0
I0411 20:20:27.497691 18195 net.cpp:408] fc5_classes_fc5_67_0_split -> fc5_classes_fc5_67_0_split_1
I0411 20:20:27.497699 18195 net.cpp:408] fc5_classes_fc5_67_0_split -> fc5_classes_fc5_67_0_split_2
I0411 20:20:27.497756 18195 net.cpp:150] Setting up fc5_classes_fc5_67_0_split
I0411 20:20:27.497763 18195 net.cpp:157] Top shape: 1024 67 (68608)
I0411 20:20:27.497766 18195 net.cpp:157] Top shape: 1024 67 (68608)
I0411 20:20:27.497772 18195 net.cpp:157] Top shape: 1024 67 (68608)
I0411 20:20:27.497774 18195 net.cpp:165] Memory required for data: 4109041664
I0411 20:20:27.497777 18195 layer_factory.hpp:77] Creating layer loss
I0411 20:20:27.497783 18195 net.cpp:100] Creating Layer loss
I0411 20:20:27.497788 18195 net.cpp:434] loss <- fc5_classes_fc5_67_0_split_0
I0411 20:20:27.497792 18195 net.cpp:434] loss <- label_data_1_split_0
I0411 20:20:27.497797 18195 net.cpp:408] loss -> loss
…
