…
I0326 16:13:18.504467 13048 net.cpp:322] The NetState phase (0) differed from the phase (1) specified by a rule in layer accuracy_5
I0326 16:13:18.504566 13048 net.cpp:58] Initializing net from parameters: 
state {
  phase: TRAIN
  level: 0
  stage: ""
}
layer {
  name: "data"
  type: "Data"
  top: "data"
  top: "label"
  include {
    phase: TRAIN
  }
  transform_param {
    mirror: false
    crop_size: 48
    mean_value: 130
    mean_value: 123
    mean_value: 137
  }
  data_param {
    source: "../local_data/lmdb/rtsd-r1/histeq/train/lmdb"
    batch_size: 512
    backend: LMDB
  }
}
layer {
  name: "conv1"
  type: "Convolution"
  bottom: "data"
  top: "conv1"
  convolution_param {
    num_output: 100
    pad: 0
    kernel_size: 7
    group: 1
    stride: 1
    weight_filler {
      type: "xavier"
    }
  }
}
layer {
  name: "conv1_relu"
  type: "ReLU"
  bottom: "conv1"
  top: "conv1"
}
layer {
  name: "pool1"
  type: "Pooling"
  bottom: "conv1"
  top: "pool1"
  pooling_param {
    pool: MAX
    kernel_size: 2
    stride: 2
  }
}
layer {
  name: "conv2"
  type: "Convolution"
  bottom: "pool1"
  top: "conv2"
  convolution_param {
    num_output: 150
    pad: 0
    kernel_size: 4
    group: 1
    stride: 1
    weight_filler {
      type: "xavier"
    }
  }
}
layer {
  name: "conv2_relu"
  type: "ReLU"
  bottom: "conv2"
  top: "conv2"
}
layer {
  name: "pool2"
  type: "Pooling"
  bottom: "conv2"
  top: "pool2"
  pooling_param {
    pool: MAX
    kernel_size: 2
    stride: 2
  }
}
layer {
  name: "conv3"
  type: "Convolution"
  bottom: "pool2"
  top: "conv3"
  convolution_param {
    num_output: 250
    pad: 0
    kernel_size: 4
    group: 1
    stride: 1
    weight_filler {
      type: "xavier"
    }
  }
}
layer {
  name: "conv3_relu"
  type: "ReLU"
  bottom: "conv3"
  top: "conv3"
}
layer {
  name: "pool3"
  type: "Pooling"
  bottom: "conv3"
  top: "pool3"
  pooling_param {
    pool: MAX
    kernel_size: 2
    stride: 2
  }
}
layer {
  name: "fc4_300"
  type: "InnerProduct"
  bottom: "pool3"
  top: "fc4_300"
  inner_product_param {
    num_output: 300
    weight_filler {
      type: "xavier"
    }
  }
}
layer {
  name: "fc4_relu"
  type: "ReLU"
  bottom: "fc4_300"
  top: "fc4_300"
}
layer {
  name: "drop4"
  type: "Dropout"
  bottom: "fc4_300"
  top: "fc4_300"
  dropout_param {
    dropout_ratio: 0.4
  }
}
layer {
  name: "fc5_67"
  type: "InnerProduct"
  bottom: "fc4_300"
  top: "fc5_classes"
  inner_product_param {
    num_output: 67
    weight_filler {
      type: "xavier"
    }
  }
}
layer {
  name: "loss"
  type: "SoftmaxWithLoss"
  bottom: "fc5_classes"
  bottom: "label"
  top: "loss"
}
I0326 16:13:18.504665 13048 layer_factory.hpp:77] Creating layer data
I0326 16:13:18.505496 13048 net.cpp:100] Creating Layer data
I0326 16:13:18.505513 13048 net.cpp:408] data -> data
I0326 16:13:18.505540 13048 net.cpp:408] data -> label
I0326 16:13:18.507885 13109 db_lmdb.cpp:35] Opened lmdb ../local_data/lmdb/rtsd-r1/histeq/train/lmdb
I0326 16:13:18.543762 13048 data_layer.cpp:41] output data size: 512,3,48,48
I0326 16:13:18.576112 13048 net.cpp:150] Setting up data
I0326 16:13:18.576151 13048 net.cpp:157] Top shape: 512 3 48 48 (3538944)
I0326 16:13:18.576160 13048 net.cpp:157] Top shape: 512 (512)
I0326 16:13:18.576165 13048 net.cpp:165] Memory required for data: 14157824
I0326 16:13:18.576210 13048 layer_factory.hpp:77] Creating layer conv1
I0326 16:13:18.576248 13048 net.cpp:100] Creating Layer conv1
I0326 16:13:18.576261 13048 net.cpp:434] conv1 <- data
I0326 16:13:18.576280 13048 net.cpp:408] conv1 -> conv1
I0326 16:13:19.011662 13048 net.cpp:150] Setting up conv1
I0326 16:13:19.011703 13048 net.cpp:157] Top shape: 512 100 42 42 (90316800)
I0326 16:13:19.011706 13048 net.cpp:165] Memory required for data: 375425024
I0326 16:13:19.011729 13048 layer_factory.hpp:77] Creating layer conv1_relu
I0326 16:13:19.011762 13048 net.cpp:100] Creating Layer conv1_relu
I0326 16:13:19.011773 13048 net.cpp:434] conv1_relu <- conv1
I0326 16:13:19.011780 13048 net.cpp:395] conv1_relu -> conv1 (in-place)
I0326 16:13:19.012769 13048 net.cpp:150] Setting up conv1_relu
I0326 16:13:19.012784 13048 net.cpp:157] Top shape: 512 100 42 42 (90316800)
I0326 16:13:19.012799 13048 net.cpp:165] Memory required for data: 736692224
I0326 16:13:19.012802 13048 layer_factory.hpp:77] Creating layer pool1
I0326 16:13:19.012809 13048 net.cpp:100] Creating Layer pool1
I0326 16:13:19.012812 13048 net.cpp:434] pool1 <- conv1
I0326 16:13:19.012819 13048 net.cpp:408] pool1 -> pool1
I0326 16:13:19.012872 13048 net.cpp:150] Setting up pool1
I0326 16:13:19.012881 13048 net.cpp:157] Top shape: 512 100 21 21 (22579200)
I0326 16:13:19.012884 13048 net.cpp:165] Memory required for data: 827009024
I0326 16:13:19.012887 13048 layer_factory.hpp:77] Creating layer conv2
I0326 16:13:19.012898 13048 net.cpp:100] Creating Layer conv2
I0326 16:13:19.012902 13048 net.cpp:434] conv2 <- pool1
I0326 16:13:19.012907 13048 net.cpp:408] conv2 -> conv2
I0326 16:13:19.021906 13048 net.cpp:150] Setting up conv2
I0326 16:13:19.021924 13048 net.cpp:157] Top shape: 512 150 18 18 (24883200)
I0326 16:13:19.021929 13048 net.cpp:165] Memory required for data: 926541824
I0326 16:13:19.021939 13048 layer_factory.hpp:77] Creating layer conv2_relu
I0326 16:13:19.021945 13048 net.cpp:100] Creating Layer conv2_relu
I0326 16:13:19.021950 13048 net.cpp:434] conv2_relu <- conv2
I0326 16:13:19.021955 13048 net.cpp:395] conv2_relu -> conv2 (in-place)
I0326 16:13:19.022990 13048 net.cpp:150] Setting up conv2_relu
I0326 16:13:19.023005 13048 net.cpp:157] Top shape: 512 150 18 18 (24883200)
I0326 16:13:19.023010 13048 net.cpp:165] Memory required for data: 1026074624
I0326 16:13:19.023012 13048 layer_factory.hpp:77] Creating layer pool2
I0326 16:13:19.023020 13048 net.cpp:100] Creating Layer pool2
I0326 16:13:19.023023 13048 net.cpp:434] pool2 <- conv2
I0326 16:13:19.023028 13048 net.cpp:408] pool2 -> pool2
I0326 16:13:19.023074 13048 net.cpp:150] Setting up pool2
I0326 16:13:19.023083 13048 net.cpp:157] Top shape: 512 150 9 9 (6220800)
I0326 16:13:19.023087 13048 net.cpp:165] Memory required for data: 1050957824
I0326 16:13:19.023089 13048 layer_factory.hpp:77] Creating layer conv3
I0326 16:13:19.023097 13048 net.cpp:100] Creating Layer conv3
I0326 16:13:19.023100 13048 net.cpp:434] conv3 <- pool2
I0326 16:13:19.023105 13048 net.cpp:408] conv3 -> conv3
I0326 16:13:19.030447 13048 net.cpp:150] Setting up conv3
I0326 16:13:19.030464 13048 net.cpp:157] Top shape: 512 250 6 6 (4608000)
I0326 16:13:19.030468 13048 net.cpp:165] Memory required for data: 1069389824
I0326 16:13:19.030478 13048 layer_factory.hpp:77] Creating layer conv3_relu
I0326 16:13:19.030486 13048 net.cpp:100] Creating Layer conv3_relu
I0326 16:13:19.030490 13048 net.cpp:434] conv3_relu <- conv3
I0326 16:13:19.030495 13048 net.cpp:395] conv3_relu -> conv3 (in-place)
I0326 16:13:19.031779 13048 net.cpp:150] Setting up conv3_relu
I0326 16:13:19.031793 13048 net.cpp:157] Top shape: 512 250 6 6 (4608000)
I0326 16:13:19.031797 13048 net.cpp:165] Memory required for data: 1087821824
I0326 16:13:19.031800 13048 layer_factory.hpp:77] Creating layer pool3
I0326 16:13:19.031807 13048 net.cpp:100] Creating Layer pool3
I0326 16:13:19.031810 13048 net.cpp:434] pool3 <- conv3
I0326 16:13:19.031816 13048 net.cpp:408] pool3 -> pool3
I0326 16:13:19.031862 13048 net.cpp:150] Setting up pool3
I0326 16:13:19.031888 13048 net.cpp:157] Top shape: 512 250 3 3 (1152000)
I0326 16:13:19.031891 13048 net.cpp:165] Memory required for data: 1092429824
I0326 16:13:19.031894 13048 layer_factory.hpp:77] Creating layer fc4_300
I0326 16:13:19.031901 13048 net.cpp:100] Creating Layer fc4_300
I0326 16:13:19.031904 13048 net.cpp:434] fc4_300 <- pool3
I0326 16:13:19.031909 13048 net.cpp:408] fc4_300 -> fc4_300
I0326 16:13:19.037494 13048 net.cpp:150] Setting up fc4_300
I0326 16:13:19.037514 13048 net.cpp:157] Top shape: 512 300 (153600)
I0326 16:13:19.037518 13048 net.cpp:165] Memory required for data: 1093044224
I0326 16:13:19.037525 13048 layer_factory.hpp:77] Creating layer fc4_relu
I0326 16:13:19.037531 13048 net.cpp:100] Creating Layer fc4_relu
I0326 16:13:19.037534 13048 net.cpp:434] fc4_relu <- fc4_300
I0326 16:13:19.037540 13048 net.cpp:395] fc4_relu -> fc4_300 (in-place)
I0326 16:13:19.037737 13048 net.cpp:150] Setting up fc4_relu
I0326 16:13:19.037750 13048 net.cpp:157] Top shape: 512 300 (153600)
I0326 16:13:19.037752 13048 net.cpp:165] Memory required for data: 1093658624
I0326 16:13:19.037755 13048 layer_factory.hpp:77] Creating layer drop4
I0326 16:13:19.037762 13048 net.cpp:100] Creating Layer drop4
I0326 16:13:19.037765 13048 net.cpp:434] drop4 <- fc4_300
I0326 16:13:19.037770 13048 net.cpp:395] drop4 -> fc4_300 (in-place)
I0326 16:13:19.037802 13048 net.cpp:150] Setting up drop4
I0326 16:13:19.037811 13048 net.cpp:157] Top shape: 512 300 (153600)
I0326 16:13:19.037813 13048 net.cpp:165] Memory required for data: 1094273024
I0326 16:13:19.037817 13048 layer_factory.hpp:77] Creating layer fc5_67
I0326 16:13:19.037823 13048 net.cpp:100] Creating Layer fc5_67
I0326 16:13:19.037827 13048 net.cpp:434] fc5_67 <- fc4_300
I0326 16:13:19.037832 13048 net.cpp:408] fc5_67 -> fc5_classes
I0326 16:13:19.044026 13048 net.cpp:150] Setting up fc5_67
I0326 16:13:19.044045 13048 net.cpp:157] Top shape: 512 67 (34304)
I0326 16:13:19.044051 13048 net.cpp:165] Memory required for data: 1094410240
I0326 16:13:19.044067 13048 layer_factory.hpp:77] Creating layer loss
I0326 16:13:19.044078 13048 net.cpp:100] Creating Layer loss
I0326 16:13:19.044083 13048 net.cpp:434] loss <- fc5_classes
I0326 16:13:19.044090 13048 net.cpp:434] loss <- label
I0326 16:13:19.044098 13048 net.cpp:408] loss -> loss
I0326 16:13:19.044121 13048 layer_factory.hpp:77] Creating layer loss
…
I0326 16:13:19.045037 13048 solver.cpp:193] Creating test net (#0) specified by test_net file: ./Prototxt/rtsd-r1/histeq/test.prototxt
I0326 16:13:19.045233 13048 net.cpp:58] Initializing net from parameters: 
state {
  phase: TEST
}
layer {
  name: "data"
  type: "Data"
  top: "data"
  top: "label"
  include {
    phase: TEST
  }
  transform_param {
    mirror: false
    crop_size: 48
    mean_value: 124
    mean_value: 121
    mean_value: 142
  }
  data_param {
    source: "../local_data/lmdb/rtsd-r1/histeq/test/lmdb"
    batch_size: 512
    backend: LMDB
  }
}
layer {
  name: "conv1"
  type: "Convolution"
  bottom: "data"
  top: "conv1"
  convolution_param {
    num_output: 100
    pad: 0
    kernel_size: 7
    group: 1
    stride: 1
    weight_filler {
      type: "xavier"
    }
  }
}
layer {
  name: "conv1_relu"
  type: "ReLU"
  bottom: "conv1"
  top: "conv1"
}
layer {
  name: "pool1"
  type: "Pooling"
  bottom: "conv1"
  top: "pool1"
  pooling_param {
    pool: MAX
    kernel_size: 2
    stride: 2
  }
}
layer {
  name: "conv2"
  type: "Convolution"
  bottom: "pool1"
  top: "conv2"
  convolution_param {
    num_output: 150
    pad: 0
    kernel_size: 4
    group: 1
    stride: 1
    weight_filler {
      type: "xavier"
    }
  }
}
layer {
  name: "conv2_relu"
  type: "ReLU"
  bottom: "conv2"
  top: "conv2"
}
layer {
  name: "pool2"
  type: "Pooling"
  bottom: "conv2"
  top: "pool2"
  pooling_param {
    pool: MAX
    kernel_size: 2
    stride: 2
  }
}
layer {
  name: "conv3"
  type: "Convolution"
  bottom: "pool2"
  top: "conv3"
  convolution_param {
    num_output: 250
    pad: 0
    kernel_size: 4
    group: 1
    stride: 1
    weight_filler {
      type: "xavier"
    }
  }
}
layer {
  name: "conv3_relu"
  type: "ReLU"
  bottom: "conv3"
  top: "conv3"
}
layer {
  name: "pool3"
  type: "Pooling"
  bottom: "conv3"
  top: "pool3"
  pooling_param {
    pool: MAX
    kernel_size: 2
    stride: 2
  }
}
layer {
  name: "fc4_300"
  type: "InnerProduct"
  bottom: "pool3"
  top: "fc4_300"
  inner_product_param {
    num_output: 300
    weight_filler {
      type: "xavier"
    }
  }
}
layer {
  name: "fc4_relu"
  type: "ReLU"
  bottom: "fc4_300"
  top: "fc4_300"
}
layer {
  name: "drop4"
  type: "Dropout"
  bottom: "fc4_300"
  top: "fc4_300"
  dropout_param {
    dropout_ratio: 0.4
  }
}
layer {
  name: "fc5_67"
  type: "InnerProduct"
  bottom: "fc4_300"
  top: "fc5_classes"
  inner_product_param {
    num_output: 67
    weight_filler {
      type: "xavier"
    }
  }
}
layer {
  name: "loss"
  type: "SoftmaxWithLoss"
  bottom: "fc5_classes"
  bottom: "label"
  top: "loss"
}
layer {
  name: "accuracy_1"
  type: "Accuracy"
  bottom: "fc5_classes"
  bottom: "label"
  top: "accuracy_1"
  include {
    phase: TEST
  }
  accuracy_param {
    top_k: 1
  }
}
layer {
  name: "accuracy_5"
  type: "Accuracy"
  bottom: "fc5_classes"
  bottom: "label"
  top: "accuracy_5"
  include {
    phase: TEST
  }
  accuracy_param {
    top_k: 5
  }
}
I0326 16:13:19.045373 13048 layer_factory.hpp:77] Creating layer data
I0326 16:13:19.045866 13048 net.cpp:100] Creating Layer data
I0326 16:13:19.045886 13048 net.cpp:408] data -> data
I0326 16:13:19.045900 13048 net.cpp:408] data -> label
I0326 16:13:19.074023 13123 db_lmdb.cpp:35] Opened lmdb ../local_data/lmdb/rtsd-r1/histeq/test/lmdb
I0326 16:13:19.074208 13048 data_layer.cpp:41] output data size: 512,3,48,48
I0326 16:13:19.101490 13048 net.cpp:150] Setting up data
I0326 16:13:19.101536 13048 net.cpp:157] Top shape: 512 3 48 48 (3538944)
I0326 16:13:19.101547 13048 net.cpp:157] Top shape: 512 (512)
I0326 16:13:19.101553 13048 net.cpp:165] Memory required for data: 14157824
I0326 16:13:19.101564 13048 layer_factory.hpp:77] Creating layer label_data_1_split
I0326 16:13:19.101586 13048 net.cpp:100] Creating Layer label_data_1_split
I0326 16:13:19.101593 13048 net.cpp:434] label_data_1_split <- label
I0326 16:13:19.101608 13048 net.cpp:408] label_data_1_split -> label_data_1_split_0
I0326 16:13:19.101630 13048 net.cpp:408] label_data_1_split -> label_data_1_split_1
I0326 16:13:19.101645 13048 net.cpp:408] label_data_1_split -> label_data_1_split_2
I0326 16:13:19.101826 13048 net.cpp:150] Setting up label_data_1_split
I0326 16:13:19.101845 13048 net.cpp:157] Top shape: 512 (512)
I0326 16:13:19.101889 13048 net.cpp:157] Top shape: 512 (512)
I0326 16:13:19.101899 13048 net.cpp:157] Top shape: 512 (512)
I0326 16:13:19.101905 13048 net.cpp:165] Memory required for data: 14163968
I0326 16:13:19.101912 13048 layer_factory.hpp:77] Creating layer conv1
I0326 16:13:19.101938 13048 net.cpp:100] Creating Layer conv1
I0326 16:13:19.101948 13048 net.cpp:434] conv1 <- data
I0326 16:13:19.101961 13048 net.cpp:408] conv1 -> conv1
I0326 16:13:19.107095 13048 net.cpp:150] Setting up conv1
I0326 16:13:19.107131 13048 net.cpp:157] Top shape: 512 100 42 42 (90316800)
I0326 16:13:19.107139 13048 net.cpp:165] Memory required for data: 375431168
I0326 16:13:19.107161 13048 layer_factory.hpp:77] Creating layer conv1_relu
I0326 16:13:19.107183 13048 net.cpp:100] Creating Layer conv1_relu
I0326 16:13:19.107192 13048 net.cpp:434] conv1_relu <- conv1
I0326 16:13:19.107201 13048 net.cpp:395] conv1_relu -> conv1 (in-place)
I0326 16:13:19.107616 13048 net.cpp:150] Setting up conv1_relu
I0326 16:13:19.107638 13048 net.cpp:157] Top shape: 512 100 42 42 (90316800)
I0326 16:13:19.107651 13048 net.cpp:165] Memory required for data: 736698368
I0326 16:13:19.107657 13048 layer_factory.hpp:77] Creating layer pool1
I0326 16:13:19.107673 13048 net.cpp:100] Creating Layer pool1
I0326 16:13:19.107682 13048 net.cpp:434] pool1 <- conv1
I0326 16:13:19.107695 13048 net.cpp:408] pool1 -> pool1
I0326 16:13:19.107792 13048 net.cpp:150] Setting up pool1
I0326 16:13:19.107808 13048 net.cpp:157] Top shape: 512 100 21 21 (22579200)
I0326 16:13:19.107815 13048 net.cpp:165] Memory required for data: 827015168
I0326 16:13:19.107822 13048 layer_factory.hpp:77] Creating layer conv2
I0326 16:13:19.107841 13048 net.cpp:100] Creating Layer conv2
I0326 16:13:19.107849 13048 net.cpp:434] conv2 <- pool1
I0326 16:13:19.107861 13048 net.cpp:408] conv2 -> conv2
I0326 16:13:19.113598 13048 net.cpp:150] Setting up conv2
I0326 16:13:19.113627 13048 net.cpp:157] Top shape: 512 150 18 18 (24883200)
I0326 16:13:19.113639 13048 net.cpp:165] Memory required for data: 926547968
I0326 16:13:19.113657 13048 layer_factory.hpp:77] Creating layer conv2_relu
I0326 16:13:19.113669 13048 net.cpp:100] Creating Layer conv2_relu
I0326 16:13:19.113677 13048 net.cpp:434] conv2_relu <- conv2
I0326 16:13:19.113689 13048 net.cpp:395] conv2_relu -> conv2 (in-place)
I0326 16:13:19.114979 13048 net.cpp:150] Setting up conv2_relu
I0326 16:13:19.115006 13048 net.cpp:157] Top shape: 512 150 18 18 (24883200)
I0326 16:13:19.115015 13048 net.cpp:165] Memory required for data: 1026080768
I0326 16:13:19.115020 13048 layer_factory.hpp:77] Creating layer pool2
I0326 16:13:19.115036 13048 net.cpp:100] Creating Layer pool2
I0326 16:13:19.115042 13048 net.cpp:434] pool2 <- conv2
I0326 16:13:19.115052 13048 net.cpp:408] pool2 -> pool2
I0326 16:13:19.115157 13048 net.cpp:150] Setting up pool2
I0326 16:13:19.115173 13048 net.cpp:157] Top shape: 512 150 9 9 (6220800)
I0326 16:13:19.115181 13048 net.cpp:165] Memory required for data: 1050963968
I0326 16:13:19.115187 13048 layer_factory.hpp:77] Creating layer conv3
I0326 16:13:19.115208 13048 net.cpp:100] Creating Layer conv3
I0326 16:13:19.115216 13048 net.cpp:434] conv3 <- pool2
I0326 16:13:19.115226 13048 net.cpp:408] conv3 -> conv3
I0326 16:13:19.125602 13048 net.cpp:150] Setting up conv3
I0326 16:13:19.125646 13048 net.cpp:157] Top shape: 512 250 6 6 (4608000)
I0326 16:13:19.125653 13048 net.cpp:165] Memory required for data: 1069395968
I0326 16:13:19.125677 13048 layer_factory.hpp:77] Creating layer conv3_relu
I0326 16:13:19.125691 13048 net.cpp:100] Creating Layer conv3_relu
I0326 16:13:19.125702 13048 net.cpp:434] conv3_relu <- conv3
I0326 16:13:19.125715 13048 net.cpp:395] conv3_relu -> conv3 (in-place)
I0326 16:13:19.127158 13048 net.cpp:150] Setting up conv3_relu
I0326 16:13:19.127188 13048 net.cpp:157] Top shape: 512 250 6 6 (4608000)
I0326 16:13:19.127195 13048 net.cpp:165] Memory required for data: 1087827968
I0326 16:13:19.127202 13048 layer_factory.hpp:77] Creating layer pool3
I0326 16:13:19.127214 13048 net.cpp:100] Creating Layer pool3
I0326 16:13:19.127251 13048 net.cpp:434] pool3 <- conv3
I0326 16:13:19.127266 13048 net.cpp:408] pool3 -> pool3
I0326 16:13:19.127362 13048 net.cpp:150] Setting up pool3
I0326 16:13:19.127377 13048 net.cpp:157] Top shape: 512 250 3 3 (1152000)
I0326 16:13:19.127384 13048 net.cpp:165] Memory required for data: 1092435968
I0326 16:13:19.127390 13048 layer_factory.hpp:77] Creating layer fc4_300
I0326 16:13:19.127408 13048 net.cpp:100] Creating Layer fc4_300
I0326 16:13:19.127415 13048 net.cpp:434] fc4_300 <- pool3
I0326 16:13:19.127424 13048 net.cpp:408] fc4_300 -> fc4_300
I0326 16:13:19.137302 13048 net.cpp:150] Setting up fc4_300
I0326 16:13:19.137326 13048 net.cpp:157] Top shape: 512 300 (153600)
I0326 16:13:19.137333 13048 net.cpp:165] Memory required for data: 1093050368
I0326 16:13:19.137344 13048 layer_factory.hpp:77] Creating layer fc4_relu
I0326 16:13:19.137357 13048 net.cpp:100] Creating Layer fc4_relu
I0326 16:13:19.137365 13048 net.cpp:434] fc4_relu <- fc4_300
I0326 16:13:19.137379 13048 net.cpp:395] fc4_relu -> fc4_300 (in-place)
I0326 16:13:19.137718 13048 net.cpp:150] Setting up fc4_relu
I0326 16:13:19.137737 13048 net.cpp:157] Top shape: 512 300 (153600)
I0326 16:13:19.137743 13048 net.cpp:165] Memory required for data: 1093664768
I0326 16:13:19.137749 13048 layer_factory.hpp:77] Creating layer drop4
I0326 16:13:19.137763 13048 net.cpp:100] Creating Layer drop4
I0326 16:13:19.137768 13048 net.cpp:434] drop4 <- fc4_300
I0326 16:13:19.137775 13048 net.cpp:395] drop4 -> fc4_300 (in-place)
I0326 16:13:19.137826 13048 net.cpp:150] Setting up drop4
I0326 16:13:19.137838 13048 net.cpp:157] Top shape: 512 300 (153600)
I0326 16:13:19.137843 13048 net.cpp:165] Memory required for data: 1094279168
I0326 16:13:19.137848 13048 layer_factory.hpp:77] Creating layer fc5_67
I0326 16:13:19.137862 13048 net.cpp:100] Creating Layer fc5_67
I0326 16:13:19.137871 13048 net.cpp:434] fc5_67 <- fc4_300
I0326 16:13:19.137881 13048 net.cpp:408] fc5_67 -> fc5_classes
I0326 16:13:19.138308 13048 net.cpp:150] Setting up fc5_67
I0326 16:13:19.138322 13048 net.cpp:157] Top shape: 512 67 (34304)
I0326 16:13:19.138327 13048 net.cpp:165] Memory required for data: 1094416384
I0326 16:13:19.138345 13048 layer_factory.hpp:77] Creating layer fc5_classes_fc5_67_0_split
I0326 16:13:19.138355 13048 net.cpp:100] Creating Layer fc5_classes_fc5_67_0_split
I0326 16:13:19.138360 13048 net.cpp:434] fc5_classes_fc5_67_0_split <- fc5_classes
I0326 16:13:19.138376 13048 net.cpp:408] fc5_classes_fc5_67_0_split -> fc5_classes_fc5_67_0_split_0
I0326 16:13:19.138391 13048 net.cpp:408] fc5_classes_fc5_67_0_split -> fc5_classes_fc5_67_0_split_1
I0326 16:13:19.138404 13048 net.cpp:408] fc5_classes_fc5_67_0_split -> fc5_classes_fc5_67_0_split_2
I0326 16:13:19.138500 13048 net.cpp:150] Setting up fc5_classes_fc5_67_0_split
I0326 16:13:19.138512 13048 net.cpp:157] Top shape: 512 67 (34304)
I0326 16:13:19.138519 13048 net.cpp:157] Top shape: 512 67 (34304)
I0326 16:13:19.138525 13048 net.cpp:157] Top shape: 512 67 (34304)
I0326 16:13:19.138528 13048 net.cpp:165] Memory required for data: 1094828032
I0326 16:13:19.138533 13048 layer_factory.hpp:77] Creating layer loss
I0326 16:13:19.138547 13048 net.cpp:100] Creating Layer loss
I0326 16:13:19.138556 13048 net.cpp:434] loss <- fc5_classes_fc5_67_0_split_0
I0326 16:13:19.138562 13048 net.cpp:434] loss <- label_data_1_split_0
I0326 16:13:19.138571 13048 net.cpp:408] loss -> loss
…
