…
I0414 21:24:52.905302  8284 solver.cpp:93] Creating training net from train_net file: ./Prototxt/experiment_10/rtsd-r3/histeq/trial_2/train.prototxt
I0414 21:24:52.926527  8284 net.cpp:58] Initializing net from parameters: 
state {
  phase: TRAIN
  level: 0
  stage: ""
}
layer {
  name: "data"
  type: "Data"
  top: "data"
  top: "label"
  include {
    phase: TRAIN
  }
  transform_param {
    scale: 0.0039215689
    mirror: false
    crop_size: 48
    mean_value: 135
    mean_value: 128
    mean_value: 128
  }
  data_param {
    source: "../local_data/lmdb/rtsd-r3/histeq/train/lmdb"
    batch_size: 1024
    backend: LMDB
  }
}
layer {
  name: "conv1"
  type: "Convolution"
  bottom: "data"
  top: "conv1"
  convolution_param {
    num_output: 100
    pad: 0
    kernel_size: 7
    group: 1
    stride: 1
    weight_filler {
      type: "xavier"
    }
  }
}
layer {
  name: "conv1_relu"
  type: "ReLU"
  bottom: "conv1"
  top: "conv1"
}
layer {
  name: "pool1"
  type: "Pooling"
  bottom: "conv1"
  top: "pool1"
  pooling_param {
    pool: MAX
    kernel_size: 2
    stride: 2
  }
}
layer {
  name: "conv2"
  type: "Convolution"
  bottom: "pool1"
  top: "conv2"
  convolution_param {
    num_output: 150
    pad: 0
    kernel_size: 4
    group: 1
    stride: 1
    weight_filler {
      type: "xavier"
    }
  }
}
layer {
  name: "conv2_relu"
  type: "ReLU"
  bottom: "conv2"
  top: "conv2"
}
layer {
  name: "pool2"
  type: "Pooling"
  bottom: "conv2"
  top: "pool2"
  pooling_param {
    pool: MAX
    kernel_size: 2
    stride: 2
  }
}
layer {
  name: "conv3"
  type: "Convolution"
  bottom: "pool2"
  top: "conv3"
  convolution_param {
    num_output: 250
    pad: 0
    kernel_size: 4
    group: 1
    stride: 1
    weight_filler {
      type: "xavier"
    }
  }
}
layer {
  name: "conv3_relu"
  type: "ReLU"
  bottom: "conv3"
  top: "conv3"
}
layer {
  name: "pool3"
  type: "Pooling"
  bottom: "conv3"
  top: "pool3"
  pooling_param {
    pool: MAX
    kernel_size: 2
    stride: 2
  }
}
layer {
  name: "fc4_300"
  type: "InnerProduct"
  bottom: "pool3"
  top: "fc4_300"
  inner_product_param {
    num_output: 300
    weight_filler {
      type: "xavier"
    }
  }
}
layer {
  name: "fc4_relu"
  type: "ReLU"
  bottom: "fc4_300"
  top: "fc4_300"
}
layer {
  name: "fc5_106"
  type: "InnerProduct"
  bottom: "fc4_300"
  top: "fc5_classes"
  inner_product_param {
    num_output: 106
    weight_filler {
      type: "xavier"
    }
  }
}
layer {
  name: "softmax"
  type: "Softmax"
  bottom: "fc5_classes"
  top: "softmax"
}
layer {
  name: "loss"
  type: "MultinomialLogisticLoss"
  bottom: "softmax"
  bottom: "label"
  top: "loss"
}
layer {
  name: "accuracy_1"
  type: "Accuracy"
  bottom: "fc5_classes"
  bottom: "label"
  top: "accuracy_1"
  accuracy_param {
    top_k: 1
  }
}
layer {
  name: "accuracy_5"
  type: "Accuracy"
  bottom: "fc5_classes"
  bottom: "label"
  top: "accuracy_5"
  accuracy_param {
    top_k: 5
  }
}
layer {
  name: "silence"
  type: "Silence"
  bottom: "accuracy_1"
  bottom: "accuracy_5"
}
I0414 21:24:52.926735  8284 layer_factory.hpp:77] Creating layer data
I0414 21:24:52.928432  8284 net.cpp:100] Creating Layer data
I0414 21:24:52.928728  8284 net.cpp:408] data -> data
I0414 21:24:52.929090  8284 net.cpp:408] data -> label
I0414 21:24:52.934722  8473 db_lmdb.cpp:35] Opened lmdb ../local_data/lmdb/rtsd-r3/histeq/train/lmdb
I0414 21:24:53.093888  8284 data_layer.cpp:41] output data size: 1024,3,48,48
I0414 21:24:53.195682  8284 net.cpp:150] Setting up data
I0414 21:24:53.195744  8284 net.cpp:157] Top shape: 1024 3 48 48 (7077888)
I0414 21:24:53.195754  8284 net.cpp:157] Top shape: 1024 (1024)
I0414 21:24:53.195758  8284 net.cpp:165] Memory required for data: 28315648
I0414 21:24:53.195773  8284 layer_factory.hpp:77] Creating layer label_data_1_split
I0414 21:24:53.195791  8284 net.cpp:100] Creating Layer label_data_1_split
I0414 21:24:53.195798  8284 net.cpp:434] label_data_1_split <- label
I0414 21:24:53.195818  8284 net.cpp:408] label_data_1_split -> label_data_1_split_0
I0414 21:24:53.195833  8284 net.cpp:408] label_data_1_split -> label_data_1_split_1
I0414 21:24:53.195842  8284 net.cpp:408] label_data_1_split -> label_data_1_split_2
I0414 21:24:53.195942  8284 net.cpp:150] Setting up label_data_1_split
I0414 21:24:53.195989  8284 net.cpp:157] Top shape: 1024 (1024)
I0414 21:24:53.196013  8284 net.cpp:157] Top shape: 1024 (1024)
I0414 21:24:53.196034  8284 net.cpp:157] Top shape: 1024 (1024)
I0414 21:24:53.196053  8284 net.cpp:165] Memory required for data: 28327936
I0414 21:24:53.196071  8284 layer_factory.hpp:77] Creating layer conv1
I0414 21:24:53.196110  8284 net.cpp:100] Creating Layer conv1
I0414 21:24:53.196154  8284 net.cpp:434] conv1 <- data
I0414 21:24:53.196177  8284 net.cpp:408] conv1 -> conv1
I0414 21:24:53.780755  8284 net.cpp:150] Setting up conv1
I0414 21:24:53.780796  8284 net.cpp:157] Top shape: 1024 100 42 42 (180633600)
I0414 21:24:53.780802  8284 net.cpp:165] Memory required for data: 750862336
I0414 21:24:53.780853  8284 layer_factory.hpp:77] Creating layer conv1_relu
I0414 21:24:53.780876  8284 net.cpp:100] Creating Layer conv1_relu
I0414 21:24:53.780886  8284 net.cpp:434] conv1_relu <- conv1
I0414 21:24:53.780903  8284 net.cpp:395] conv1_relu -> conv1 (in-place)
I0414 21:24:53.781236  8284 net.cpp:150] Setting up conv1_relu
I0414 21:24:53.781289  8284 net.cpp:157] Top shape: 1024 100 42 42 (180633600)
I0414 21:24:53.781314  8284 net.cpp:165] Memory required for data: 1473396736
I0414 21:24:53.781338  8284 layer_factory.hpp:77] Creating layer pool1
I0414 21:24:53.781368  8284 net.cpp:100] Creating Layer pool1
I0414 21:24:53.781391  8284 net.cpp:434] pool1 <- conv1
I0414 21:24:53.781416  8284 net.cpp:408] pool1 -> pool1
I0414 21:24:53.781523  8284 net.cpp:150] Setting up pool1
I0414 21:24:53.781558  8284 net.cpp:157] Top shape: 1024 100 21 21 (45158400)
I0414 21:24:53.781579  8284 net.cpp:165] Memory required for data: 1654030336
I0414 21:24:53.781601  8284 layer_factory.hpp:77] Creating layer conv2
I0414 21:24:53.781632  8284 net.cpp:100] Creating Layer conv2
I0414 21:24:53.781656  8284 net.cpp:434] conv2 <- pool1
I0414 21:24:53.781680  8284 net.cpp:408] conv2 -> conv2
I0414 21:24:53.791827  8284 net.cpp:150] Setting up conv2
I0414 21:24:53.791862  8284 net.cpp:157] Top shape: 1024 150 18 18 (49766400)
I0414 21:24:53.791867  8284 net.cpp:165] Memory required for data: 1853095936
I0414 21:24:53.791898  8284 layer_factory.hpp:77] Creating layer conv2_relu
I0414 21:24:53.791940  8284 net.cpp:100] Creating Layer conv2_relu
I0414 21:24:53.791960  8284 net.cpp:434] conv2_relu <- conv2
I0414 21:24:53.791981  8284 net.cpp:395] conv2_relu -> conv2 (in-place)
I0414 21:24:53.793170  8284 net.cpp:150] Setting up conv2_relu
I0414 21:24:53.793211  8284 net.cpp:157] Top shape: 1024 150 18 18 (49766400)
I0414 21:24:53.793232  8284 net.cpp:165] Memory required for data: 2052161536
I0414 21:24:53.793248  8284 layer_factory.hpp:77] Creating layer pool2
I0414 21:24:53.793269  8284 net.cpp:100] Creating Layer pool2
I0414 21:24:53.793287  8284 net.cpp:434] pool2 <- conv2
I0414 21:24:53.793308  8284 net.cpp:408] pool2 -> pool2
I0414 21:24:53.793391  8284 net.cpp:150] Setting up pool2
I0414 21:24:53.793421  8284 net.cpp:157] Top shape: 1024 150 9 9 (12441600)
I0414 21:24:53.793436  8284 net.cpp:165] Memory required for data: 2101927936
I0414 21:24:53.793450  8284 layer_factory.hpp:77] Creating layer conv3
I0414 21:24:53.793478  8284 net.cpp:100] Creating Layer conv3
I0414 21:24:53.793498  8284 net.cpp:434] conv3 <- pool2
I0414 21:24:53.793529  8284 net.cpp:408] conv3 -> conv3
I0414 21:24:53.803887  8284 net.cpp:150] Setting up conv3
I0414 21:24:53.803959  8284 net.cpp:157] Top shape: 1024 250 6 6 (9216000)
I0414 21:24:53.803980  8284 net.cpp:165] Memory required for data: 2138791936
I0414 21:24:53.804018  8284 layer_factory.hpp:77] Creating layer conv3_relu
I0414 21:24:53.804046  8284 net.cpp:100] Creating Layer conv3_relu
I0414 21:24:53.804067  8284 net.cpp:434] conv3_relu <- conv3
I0414 21:24:53.804092  8284 net.cpp:395] conv3_relu -> conv3 (in-place)
I0414 21:24:53.810228  8284 net.cpp:150] Setting up conv3_relu
I0414 21:24:53.810266  8284 net.cpp:157] Top shape: 1024 250 6 6 (9216000)
I0414 21:24:53.810272  8284 net.cpp:165] Memory required for data: 2175655936
I0414 21:24:53.810279  8284 layer_factory.hpp:77] Creating layer pool3
I0414 21:24:53.810294  8284 net.cpp:100] Creating Layer pool3
I0414 21:24:53.810303  8284 net.cpp:434] pool3 <- conv3
I0414 21:24:53.810319  8284 net.cpp:408] pool3 -> pool3
I0414 21:24:53.810407  8284 net.cpp:150] Setting up pool3
I0414 21:24:53.810446  8284 net.cpp:157] Top shape: 1024 250 3 3 (2304000)
I0414 21:24:53.810464  8284 net.cpp:165] Memory required for data: 2184871936
I0414 21:24:53.810482  8284 layer_factory.hpp:77] Creating layer fc4_300
I0414 21:24:53.810497  8284 net.cpp:100] Creating Layer fc4_300
I0414 21:24:53.810503  8284 net.cpp:434] fc4_300 <- pool3
I0414 21:24:53.810511  8284 net.cpp:408] fc4_300 -> fc4_300
I0414 21:24:53.821002  8284 net.cpp:150] Setting up fc4_300
I0414 21:24:53.821038  8284 net.cpp:157] Top shape: 1024 300 (307200)
I0414 21:24:53.821044  8284 net.cpp:165] Memory required for data: 2186100736
I0414 21:24:53.821059  8284 layer_factory.hpp:77] Creating layer fc4_relu
I0414 21:24:53.821075  8284 net.cpp:100] Creating Layer fc4_relu
I0414 21:24:53.821084  8284 net.cpp:434] fc4_relu <- fc4_300
I0414 21:24:53.821095  8284 net.cpp:395] fc4_relu -> fc4_300 (in-place)
I0414 21:24:53.821434  8284 net.cpp:150] Setting up fc4_relu
I0414 21:24:53.821451  8284 net.cpp:157] Top shape: 1024 300 (307200)
I0414 21:24:53.821458  8284 net.cpp:165] Memory required for data: 2187329536
I0414 21:24:53.821465  8284 layer_factory.hpp:77] Creating layer fc5_106
I0414 21:24:53.821477  8284 net.cpp:100] Creating Layer fc5_106
I0414 21:24:53.821485  8284 net.cpp:434] fc5_106 <- fc4_300
I0414 21:24:53.821496  8284 net.cpp:408] fc5_106 -> fc5_classes
I0414 21:24:53.830602  8284 net.cpp:150] Setting up fc5_106
I0414 21:24:53.830641  8284 net.cpp:157] Top shape: 1024 106 (108544)
I0414 21:24:53.830647  8284 net.cpp:165] Memory required for data: 2187763712
I0414 21:24:53.830670  8284 layer_factory.hpp:77] Creating layer fc5_classes_fc5_106_0_split
I0414 21:24:53.830687  8284 net.cpp:100] Creating Layer fc5_classes_fc5_106_0_split
I0414 21:24:53.830696  8284 net.cpp:434] fc5_classes_fc5_106_0_split <- fc5_classes
I0414 21:24:53.830710  8284 net.cpp:408] fc5_classes_fc5_106_0_split -> fc5_classes_fc5_106_0_split_0
I0414 21:24:53.830727  8284 net.cpp:408] fc5_classes_fc5_106_0_split -> fc5_classes_fc5_106_0_split_1
I0414 21:24:53.830740  8284 net.cpp:408] fc5_classes_fc5_106_0_split -> fc5_classes_fc5_106_0_split_2
I0414 21:24:53.830821  8284 net.cpp:150] Setting up fc5_classes_fc5_106_0_split
I0414 21:24:53.830833  8284 net.cpp:157] Top shape: 1024 106 (108544)
I0414 21:24:53.830842  8284 net.cpp:157] Top shape: 1024 106 (108544)
I0414 21:24:53.830850  8284 net.cpp:157] Top shape: 1024 106 (108544)
I0414 21:24:53.830857  8284 net.cpp:165] Memory required for data: 2189066240
I0414 21:24:53.830864  8284 layer_factory.hpp:77] Creating layer softmax
I0414 21:24:53.830876  8284 net.cpp:100] Creating Layer softmax
I0414 21:24:53.830883  8284 net.cpp:434] softmax <- fc5_classes_fc5_106_0_split_0
I0414 21:24:53.830893  8284 net.cpp:408] softmax -> softmax
I0414 21:24:53.831311  8284 net.cpp:150] Setting up softmax
I0414 21:24:53.831356  8284 net.cpp:157] Top shape: 1024 106 (108544)
I0414 21:24:53.831364  8284 net.cpp:165] Memory required for data: 2189500416
I0414 21:24:53.831372  8284 layer_factory.hpp:77] Creating layer loss
I0414 21:24:53.831405  8284 net.cpp:100] Creating Layer loss
I0414 21:24:53.831414  8284 net.cpp:434] loss <- softmax
I0414 21:24:53.831423  8284 net.cpp:434] loss <- label_data_1_split_0
I0414 21:24:53.831434  8284 net.cpp:408] loss -> loss
…
