…
I0415 05:11:03.276105 12657 solver.cpp:93] Creating training net from train_net file: ./Prototxt/experiment_12/rtsd-r1/histeq/trial_4/train.prototxt
I0415 05:11:03.329650 12657 net.cpp:58] Initializing net from parameters: 
state {
  phase: TRAIN
  level: 0
  stage: ""
}
layer {
  name: "data"
  type: "Data"
  top: "data"
  top: "label"
  include {
    phase: TRAIN
  }
  transform_param {
    scale: 0.0039215689
    mirror: false
    crop_size: 48
    mean_value: 130
    mean_value: 123
    mean_value: 137
  }
  data_param {
    source: "../local_data/lmdb/rtsd-r1/histeq/train/lmdb"
    batch_size: 1024
    backend: LMDB
  }
}
layer {
  name: "conv1"
  type: "Convolution"
  bottom: "data"
  top: "conv1"
  convolution_param {
    num_output: 100
    pad: 0
    kernel_size: 7
    group: 1
    stride: 1
    weight_filler {
      type: "xavier"
    }
  }
}
layer {
  name: "conv1_relu"
  type: "ReLU"
  bottom: "conv1"
  top: "conv1"
}
layer {
  name: "pool1"
  type: "Pooling"
  bottom: "conv1"
  top: "pool1"
  pooling_param {
    pool: MAX
    kernel_size: 2
    stride: 2
  }
}
layer {
  name: "conv2"
  type: "Convolution"
  bottom: "pool1"
  top: "conv2"
  convolution_param {
    num_output: 150
    pad: 0
    kernel_size: 4
    group: 1
    stride: 1
    weight_filler {
      type: "xavier"
    }
  }
}
layer {
  name: "conv2_relu"
  type: "ReLU"
  bottom: "conv2"
  top: "conv2"
}
layer {
  name: "pool2"
  type: "Pooling"
  bottom: "conv2"
  top: "pool2"
  pooling_param {
    pool: MAX
    kernel_size: 2
    stride: 2
  }
}
layer {
  name: "conv3"
  type: "Convolution"
  bottom: "pool2"
  top: "conv3"
  convolution_param {
    num_output: 250
    pad: 0
    kernel_size: 4
    group: 1
    stride: 1
    weight_filler {
      type: "xavier"
    }
  }
}
layer {
  name: "conv3_relu"
  type: "ReLU"
  bottom: "conv3"
  top: "conv3"
}
layer {
  name: "pool3"
  type: "Pooling"
  bottom: "conv3"
  top: "pool3"
  pooling_param {
    pool: MAX
    kernel_size: 2
    stride: 2
  }
}
layer {
  name: "fc4_300"
  type: "InnerProduct"
  bottom: "pool3"
  top: "fc4_300"
  inner_product_param {
    num_output: 300
    weight_filler {
      type: "xavier"
    }
  }
}
layer {
  name: "fc4_relu"
  type: "ReLU"
  bottom: "fc4_300"
  top: "fc4_300"
}
layer {
  name: "drop4"
  type: "Dropout"
  bottom: "fc4_300"
  top: "fc4_300"
  dropout_param {
    dropout_ratio: 0.5
  }
}
layer {
  name: "fc5_67"
  type: "InnerProduct"
  bottom: "fc4_300"
  top: "fc5_classes"
  inner_product_param {
    num_output: 67
    weight_filler {
      type: "xavier"
    }
  }
}
layer {
  name: "softmax"
  type: "Softmax"
  bottom: "fc5_classes"
  top: "softmax"
}
layer {
  name: "loss"
  type: "MultinomialLogisticLoss"
  bottom: "softmax"
  bottom: "label"
  top: "loss"
}
layer {
  name: "accuracy_1"
  type: "Accuracy"
  bottom: "fc5_classes"
  bottom: "label"
  top: "accuracy_1"
  accuracy_param {
    top_k: 1
  }
}
layer {
  name: "accuracy_5"
  type: "Accuracy"
  bottom: "fc5_classes"
  bottom: "label"
  top: "accuracy_5"
  accuracy_param {
    top_k: 5
  }
}
layer {
  name: "silence"
  type: "Silence"
  bottom: "accuracy_1"
  bottom: "accuracy_5"
}
I0415 05:11:03.329788 12657 layer_factory.hpp:77] Creating layer data
I0415 05:11:03.330860 12657 net.cpp:100] Creating Layer data
I0415 05:11:03.330878 12657 net.cpp:408] data -> data
I0415 05:11:03.330904 12657 net.cpp:408] data -> label
I0415 05:11:03.334789 12887 db_lmdb.cpp:35] Opened lmdb ../local_data/lmdb/rtsd-r1/histeq/train/lmdb
I0415 05:11:03.352473 12657 data_layer.cpp:41] output data size: 1024,3,48,48
I0415 05:11:03.405989 12657 net.cpp:150] Setting up data
I0415 05:11:03.406025 12657 net.cpp:157] Top shape: 1024 3 48 48 (7077888)
I0415 05:11:03.406033 12657 net.cpp:157] Top shape: 1024 (1024)
I0415 05:11:03.406038 12657 net.cpp:165] Memory required for data: 28315648
I0415 05:11:03.406054 12657 layer_factory.hpp:77] Creating layer label_data_1_split
I0415 05:11:03.406074 12657 net.cpp:100] Creating Layer label_data_1_split
I0415 05:11:03.406083 12657 net.cpp:434] label_data_1_split <- label
I0415 05:11:03.406102 12657 net.cpp:408] label_data_1_split -> label_data_1_split_0
I0415 05:11:03.406118 12657 net.cpp:408] label_data_1_split -> label_data_1_split_1
I0415 05:11:03.406131 12657 net.cpp:408] label_data_1_split -> label_data_1_split_2
I0415 05:11:03.406210 12657 net.cpp:150] Setting up label_data_1_split
I0415 05:11:03.406220 12657 net.cpp:157] Top shape: 1024 (1024)
I0415 05:11:03.406229 12657 net.cpp:157] Top shape: 1024 (1024)
I0415 05:11:03.406236 12657 net.cpp:157] Top shape: 1024 (1024)
I0415 05:11:03.406241 12657 net.cpp:165] Memory required for data: 28327936
I0415 05:11:03.406247 12657 layer_factory.hpp:77] Creating layer conv1
I0415 05:11:03.406268 12657 net.cpp:100] Creating Layer conv1
I0415 05:11:03.406276 12657 net.cpp:434] conv1 <- data
I0415 05:11:03.406286 12657 net.cpp:408] conv1 -> conv1
I0415 05:11:05.016616 12657 net.cpp:150] Setting up conv1
I0415 05:11:05.016646 12657 net.cpp:157] Top shape: 1024 100 42 42 (180633600)
I0415 05:11:05.016651 12657 net.cpp:165] Memory required for data: 750862336
I0415 05:11:05.016674 12657 layer_factory.hpp:77] Creating layer conv1_relu
I0415 05:11:05.016686 12657 net.cpp:100] Creating Layer conv1_relu
I0415 05:11:05.016691 12657 net.cpp:434] conv1_relu <- conv1
I0415 05:11:05.016710 12657 net.cpp:395] conv1_relu -> conv1 (in-place)
I0415 05:11:05.016907 12657 net.cpp:150] Setting up conv1_relu
I0415 05:11:05.016919 12657 net.cpp:157] Top shape: 1024 100 42 42 (180633600)
I0415 05:11:05.016923 12657 net.cpp:165] Memory required for data: 1473396736
I0415 05:11:05.016928 12657 layer_factory.hpp:77] Creating layer pool1
I0415 05:11:05.016938 12657 net.cpp:100] Creating Layer pool1
I0415 05:11:05.016943 12657 net.cpp:434] pool1 <- conv1
I0415 05:11:05.016949 12657 net.cpp:408] pool1 -> pool1
I0415 05:11:05.017004 12657 net.cpp:150] Setting up pool1
I0415 05:11:05.017014 12657 net.cpp:157] Top shape: 1024 100 21 21 (45158400)
I0415 05:11:05.017017 12657 net.cpp:165] Memory required for data: 1654030336
I0415 05:11:05.017021 12657 layer_factory.hpp:77] Creating layer conv2
I0415 05:11:05.017032 12657 net.cpp:100] Creating Layer conv2
I0415 05:11:05.017037 12657 net.cpp:434] conv2 <- pool1
I0415 05:11:05.017043 12657 net.cpp:408] conv2 -> conv2
I0415 05:11:05.022370 12657 net.cpp:150] Setting up conv2
I0415 05:11:05.022397 12657 net.cpp:157] Top shape: 1024 150 18 18 (49766400)
I0415 05:11:05.022400 12657 net.cpp:165] Memory required for data: 1853095936
I0415 05:11:05.022415 12657 layer_factory.hpp:77] Creating layer conv2_relu
I0415 05:11:05.022425 12657 net.cpp:100] Creating Layer conv2_relu
I0415 05:11:05.022430 12657 net.cpp:434] conv2_relu <- conv2
I0415 05:11:05.022438 12657 net.cpp:395] conv2_relu -> conv2 (in-place)
I0415 05:11:05.023500 12657 net.cpp:150] Setting up conv2_relu
I0415 05:11:05.023516 12657 net.cpp:157] Top shape: 1024 150 18 18 (49766400)
I0415 05:11:05.023520 12657 net.cpp:165] Memory required for data: 2052161536
I0415 05:11:05.023525 12657 layer_factory.hpp:77] Creating layer pool2
I0415 05:11:05.023535 12657 net.cpp:100] Creating Layer pool2
I0415 05:11:05.023540 12657 net.cpp:434] pool2 <- conv2
I0415 05:11:05.023546 12657 net.cpp:408] pool2 -> pool2
I0415 05:11:05.023598 12657 net.cpp:150] Setting up pool2
I0415 05:11:05.023608 12657 net.cpp:157] Top shape: 1024 150 9 9 (12441600)
I0415 05:11:05.023612 12657 net.cpp:165] Memory required for data: 2101927936
I0415 05:11:05.023615 12657 layer_factory.hpp:77] Creating layer conv3
I0415 05:11:05.023656 12657 net.cpp:100] Creating Layer conv3
I0415 05:11:05.023661 12657 net.cpp:434] conv3 <- pool2
I0415 05:11:05.023668 12657 net.cpp:408] conv3 -> conv3
I0415 05:11:05.029593 12657 net.cpp:150] Setting up conv3
I0415 05:11:05.029620 12657 net.cpp:157] Top shape: 1024 250 6 6 (9216000)
I0415 05:11:05.029624 12657 net.cpp:165] Memory required for data: 2138791936
I0415 05:11:05.029650 12657 layer_factory.hpp:77] Creating layer conv3_relu
I0415 05:11:05.029662 12657 net.cpp:100] Creating Layer conv3_relu
I0415 05:11:05.029671 12657 net.cpp:434] conv3_relu <- conv3
I0415 05:11:05.029681 12657 net.cpp:395] conv3_relu -> conv3 (in-place)
I0415 05:11:05.030720 12657 net.cpp:150] Setting up conv3_relu
I0415 05:11:05.030736 12657 net.cpp:157] Top shape: 1024 250 6 6 (9216000)
I0415 05:11:05.030740 12657 net.cpp:165] Memory required for data: 2175655936
I0415 05:11:05.030745 12657 layer_factory.hpp:77] Creating layer pool3
I0415 05:11:05.030755 12657 net.cpp:100] Creating Layer pool3
I0415 05:11:05.030761 12657 net.cpp:434] pool3 <- conv3
I0415 05:11:05.030766 12657 net.cpp:408] pool3 -> pool3
I0415 05:11:05.030819 12657 net.cpp:150] Setting up pool3
I0415 05:11:05.030828 12657 net.cpp:157] Top shape: 1024 250 3 3 (2304000)
I0415 05:11:05.030833 12657 net.cpp:165] Memory required for data: 2184871936
I0415 05:11:05.030836 12657 layer_factory.hpp:77] Creating layer fc4_300
I0415 05:11:05.030844 12657 net.cpp:100] Creating Layer fc4_300
I0415 05:11:05.030849 12657 net.cpp:434] fc4_300 <- pool3
I0415 05:11:05.030856 12657 net.cpp:408] fc4_300 -> fc4_300
I0415 05:11:05.037001 12657 net.cpp:150] Setting up fc4_300
I0415 05:11:05.037027 12657 net.cpp:157] Top shape: 1024 300 (307200)
I0415 05:11:05.037031 12657 net.cpp:165] Memory required for data: 2186100736
I0415 05:11:05.037042 12657 layer_factory.hpp:77] Creating layer fc4_relu
I0415 05:11:05.037052 12657 net.cpp:100] Creating Layer fc4_relu
I0415 05:11:05.037058 12657 net.cpp:434] fc4_relu <- fc4_300
I0415 05:11:05.037067 12657 net.cpp:395] fc4_relu -> fc4_300 (in-place)
I0415 05:11:05.037314 12657 net.cpp:150] Setting up fc4_relu
I0415 05:11:05.037328 12657 net.cpp:157] Top shape: 1024 300 (307200)
I0415 05:11:05.037331 12657 net.cpp:165] Memory required for data: 2187329536
I0415 05:11:05.037335 12657 layer_factory.hpp:77] Creating layer drop4
I0415 05:11:05.037344 12657 net.cpp:100] Creating Layer drop4
I0415 05:11:05.037348 12657 net.cpp:434] drop4 <- fc4_300
I0415 05:11:05.037356 12657 net.cpp:395] drop4 -> fc4_300 (in-place)
I0415 05:11:05.037389 12657 net.cpp:150] Setting up drop4
I0415 05:11:05.037397 12657 net.cpp:157] Top shape: 1024 300 (307200)
I0415 05:11:05.037401 12657 net.cpp:165] Memory required for data: 2188558336
I0415 05:11:05.037405 12657 layer_factory.hpp:77] Creating layer fc5_67
I0415 05:11:05.037415 12657 net.cpp:100] Creating Layer fc5_67
I0415 05:11:05.037421 12657 net.cpp:434] fc5_67 <- fc4_300
I0415 05:11:05.037430 12657 net.cpp:408] fc5_67 -> fc5_classes
I0415 05:11:05.038995 12657 net.cpp:150] Setting up fc5_67
I0415 05:11:05.039011 12657 net.cpp:157] Top shape: 1024 67 (68608)
I0415 05:11:05.039013 12657 net.cpp:165] Memory required for data: 2188832768
I0415 05:11:05.039041 12657 layer_factory.hpp:77] Creating layer fc5_classes_fc5_67_0_split
I0415 05:11:05.039049 12657 net.cpp:100] Creating Layer fc5_classes_fc5_67_0_split
I0415 05:11:05.039053 12657 net.cpp:434] fc5_classes_fc5_67_0_split <- fc5_classes
I0415 05:11:05.039063 12657 net.cpp:408] fc5_classes_fc5_67_0_split -> fc5_classes_fc5_67_0_split_0
I0415 05:11:05.039072 12657 net.cpp:408] fc5_classes_fc5_67_0_split -> fc5_classes_fc5_67_0_split_1
I0415 05:11:05.039080 12657 net.cpp:408] fc5_classes_fc5_67_0_split -> fc5_classes_fc5_67_0_split_2
I0415 05:11:05.039134 12657 net.cpp:150] Setting up fc5_classes_fc5_67_0_split
I0415 05:11:05.039141 12657 net.cpp:157] Top shape: 1024 67 (68608)
I0415 05:11:05.039145 12657 net.cpp:157] Top shape: 1024 67 (68608)
I0415 05:11:05.039149 12657 net.cpp:157] Top shape: 1024 67 (68608)
I0415 05:11:05.039153 12657 net.cpp:165] Memory required for data: 2189656064
I0415 05:11:05.039175 12657 layer_factory.hpp:77] Creating layer softmax
I0415 05:11:05.039188 12657 net.cpp:100] Creating Layer softmax
I0415 05:11:05.039196 12657 net.cpp:434] softmax <- fc5_classes_fc5_67_0_split_0
I0415 05:11:05.039202 12657 net.cpp:408] softmax -> softmax
I0415 05:11:05.039475 12657 net.cpp:150] Setting up softmax
I0415 05:11:05.039487 12657 net.cpp:157] Top shape: 1024 67 (68608)
I0415 05:11:05.039491 12657 net.cpp:165] Memory required for data: 2189930496
I0415 05:11:05.039495 12657 layer_factory.hpp:77] Creating layer loss
I0415 05:11:05.039505 12657 net.cpp:100] Creating Layer loss
I0415 05:11:05.039508 12657 net.cpp:434] loss <- softmax
I0415 05:11:05.039515 12657 net.cpp:434] loss <- label_data_1_split_0
I0415 05:11:05.039520 12657 net.cpp:408] loss -> loss
…
