…
I0409 08:43:18.334735 15657 net.cpp:322] The NetState phase (0) differed from the phase (1) specified by a rule in layer accuracy_5
I0409 08:43:18.334832 15657 net.cpp:58] Initializing net from parameters: 
state {
  phase: TRAIN
  level: 0
  stage: ""
}
layer {
  name: "data"
  type: "Data"
  top: "data"
  top: "label"
  include {
    phase: TRAIN
  }
  transform_param {
    mirror: false
    crop_size: 48
    mean_value: 130
    mean_value: 123
    mean_value: 137
  }
  data_param {
    source: "../local_data/lmdb/rtsd-r1/histeq/train/lmdb"
    batch_size: 1024
    backend: LMDB
  }
}
layer {
  name: "conv1"
  type: "Convolution"
  bottom: "data"
  top: "conv1"
  convolution_param {
    num_output: 100
    pad: 0
    kernel_size: 7
    group: 1
    stride: 1
    weight_filler {
      type: "xavier"
    }
  }
}
layer {
  name: "conv1_relu"
  type: "ReLU"
  bottom: "conv1"
  top: "conv1"
}
layer {
  name: "pool1"
  type: "Pooling"
  bottom: "conv1"
  top: "pool1"
  pooling_param {
    pool: MAX
    kernel_size: 2
    stride: 2
  }
}
layer {
  name: "conv2"
  type: "Convolution"
  bottom: "pool1"
  top: "conv2"
  convolution_param {
    num_output: 150
    pad: 0
    kernel_size: 4
    group: 1
    stride: 1
    weight_filler {
      type: "xavier"
    }
  }
}
layer {
  name: "conv2_relu"
  type: "ReLU"
  bottom: "conv2"
  top: "conv2"
}
layer {
  name: "pool2"
  type: "Pooling"
  bottom: "conv2"
  top: "pool2"
  pooling_param {
    pool: MAX
    kernel_size: 2
    stride: 2
  }
}
layer {
  name: "conv3"
  type: "Convolution"
  bottom: "pool2"
  top: "conv3"
  convolution_param {
    num_output: 250
    pad: 0
    kernel_size: 4
    group: 1
    stride: 1
    weight_filler {
      type: "xavier"
    }
  }
}
layer {
  name: "conv3_relu"
  type: "ReLU"
  bottom: "conv3"
  top: "conv3"
}
layer {
  name: "pool3"
  type: "Pooling"
  bottom: "conv3"
  top: "pool3"
  pooling_param {
    pool: MAX
    kernel_size: 2
    stride: 2
  }
}
layer {
  name: "fc4_300"
  type: "InnerProduct"
  bottom: "pool3"
  top: "fc4_300"
  inner_product_param {
    num_output: 300
    weight_filler {
      type: "xavier"
    }
  }
}
layer {
  name: "fc4_relu"
  type: "ReLU"
  bottom: "fc4_300"
  top: "fc4_300"
}
layer {
  name: "drop4"
  type: "Dropout"
  bottom: "fc4_300"
  top: "fc4_300"
  dropout_param {
    dropout_ratio: 0.4
  }
}
layer {
  name: "fc5_67"
  type: "InnerProduct"
  bottom: "fc4_300"
  top: "fc5_classes"
  inner_product_param {
    num_output: 67
    weight_filler {
      type: "xavier"
    }
  }
}
layer {
  name: "loss"
  type: "SoftmaxWithLoss"
  bottom: "fc5_classes"
  bottom: "label"
  top: "loss"
}
I0409 08:43:18.334930 15657 layer_factory.hpp:77] Creating layer data
I0409 08:43:18.336045 15657 net.cpp:100] Creating Layer data
I0409 08:43:18.336067 15657 net.cpp:408] data -> data
I0409 08:43:18.336091 15657 net.cpp:408] data -> label
I0409 08:43:18.337561 15713 db_lmdb.cpp:35] Opened lmdb ../local_data/lmdb/rtsd-r1/histeq/train/lmdb
I0409 08:43:18.354450 15657 data_layer.cpp:41] output data size: 1024,3,48,48
I0409 08:43:18.396073 15657 net.cpp:150] Setting up data
I0409 08:43:18.396107 15657 net.cpp:157] Top shape: 1024 3 48 48 (7077888)
I0409 08:43:18.396142 15657 net.cpp:157] Top shape: 1024 (1024)
I0409 08:43:18.396147 15657 net.cpp:165] Memory required for data: 28315648
I0409 08:43:18.396160 15657 layer_factory.hpp:77] Creating layer conv1
I0409 08:43:18.396186 15657 net.cpp:100] Creating Layer conv1
I0409 08:43:18.396193 15657 net.cpp:434] conv1 <- data
I0409 08:43:18.396205 15657 net.cpp:408] conv1 -> conv1
I0409 08:43:18.670482 15657 net.cpp:150] Setting up conv1
I0409 08:43:18.670527 15657 net.cpp:157] Top shape: 1024 100 42 42 (180633600)
I0409 08:43:18.670533 15657 net.cpp:165] Memory required for data: 750850048
I0409 08:43:18.670555 15657 layer_factory.hpp:77] Creating layer conv1_relu
I0409 08:43:18.670568 15657 net.cpp:100] Creating Layer conv1_relu
I0409 08:43:18.670574 15657 net.cpp:434] conv1_relu <- conv1
I0409 08:43:18.670583 15657 net.cpp:395] conv1_relu -> conv1 (in-place)
I0409 08:43:18.670783 15657 net.cpp:150] Setting up conv1_relu
I0409 08:43:18.670797 15657 net.cpp:157] Top shape: 1024 100 42 42 (180633600)
I0409 08:43:18.670804 15657 net.cpp:165] Memory required for data: 1473384448
I0409 08:43:18.670810 15657 layer_factory.hpp:77] Creating layer pool1
I0409 08:43:18.670821 15657 net.cpp:100] Creating Layer pool1
I0409 08:43:18.670826 15657 net.cpp:434] pool1 <- conv1
I0409 08:43:18.670832 15657 net.cpp:408] pool1 -> pool1
I0409 08:43:18.670888 15657 net.cpp:150] Setting up pool1
I0409 08:43:18.670897 15657 net.cpp:157] Top shape: 1024 100 21 21 (45158400)
I0409 08:43:18.670903 15657 net.cpp:165] Memory required for data: 1654018048
I0409 08:43:18.670907 15657 layer_factory.hpp:77] Creating layer conv2
I0409 08:43:18.670922 15657 net.cpp:100] Creating Layer conv2
I0409 08:43:18.670928 15657 net.cpp:434] conv2 <- pool1
I0409 08:43:18.670933 15657 net.cpp:408] conv2 -> conv2
I0409 08:43:18.675245 15657 net.cpp:150] Setting up conv2
I0409 08:43:18.675262 15657 net.cpp:157] Top shape: 1024 150 18 18 (49766400)
I0409 08:43:18.675268 15657 net.cpp:165] Memory required for data: 1853083648
I0409 08:43:18.675281 15657 layer_factory.hpp:77] Creating layer conv2_relu
I0409 08:43:18.675292 15657 net.cpp:100] Creating Layer conv2_relu
I0409 08:43:18.675300 15657 net.cpp:434] conv2_relu <- conv2
I0409 08:43:18.675308 15657 net.cpp:395] conv2_relu -> conv2 (in-place)
I0409 08:43:18.676065 15657 net.cpp:150] Setting up conv2_relu
I0409 08:43:18.676082 15657 net.cpp:157] Top shape: 1024 150 18 18 (49766400)
I0409 08:43:18.676087 15657 net.cpp:165] Memory required for data: 2052149248
I0409 08:43:18.676091 15657 layer_factory.hpp:77] Creating layer pool2
I0409 08:43:18.676100 15657 net.cpp:100] Creating Layer pool2
I0409 08:43:18.676107 15657 net.cpp:434] pool2 <- conv2
I0409 08:43:18.676118 15657 net.cpp:408] pool2 -> pool2
I0409 08:43:18.676172 15657 net.cpp:150] Setting up pool2
I0409 08:43:18.676182 15657 net.cpp:157] Top shape: 1024 150 9 9 (12441600)
I0409 08:43:18.676188 15657 net.cpp:165] Memory required for data: 2101915648
I0409 08:43:18.676193 15657 layer_factory.hpp:77] Creating layer conv3
I0409 08:43:18.676205 15657 net.cpp:100] Creating Layer conv3
I0409 08:43:18.676210 15657 net.cpp:434] conv3 <- pool2
I0409 08:43:18.676216 15657 net.cpp:408] conv3 -> conv3
I0409 08:43:18.681665 15657 net.cpp:150] Setting up conv3
I0409 08:43:18.681684 15657 net.cpp:157] Top shape: 1024 250 6 6 (9216000)
I0409 08:43:18.681689 15657 net.cpp:165] Memory required for data: 2138779648
I0409 08:43:18.681699 15657 layer_factory.hpp:77] Creating layer conv3_relu
I0409 08:43:18.681709 15657 net.cpp:100] Creating Layer conv3_relu
I0409 08:43:18.681713 15657 net.cpp:434] conv3_relu <- conv3
I0409 08:43:18.681718 15657 net.cpp:395] conv3_relu -> conv3 (in-place)
I0409 08:43:18.682492 15657 net.cpp:150] Setting up conv3_relu
I0409 08:43:18.682510 15657 net.cpp:157] Top shape: 1024 250 6 6 (9216000)
I0409 08:43:18.682518 15657 net.cpp:165] Memory required for data: 2175643648
I0409 08:43:18.682526 15657 layer_factory.hpp:77] Creating layer pool3
I0409 08:43:18.682538 15657 net.cpp:100] Creating Layer pool3
I0409 08:43:18.682545 15657 net.cpp:434] pool3 <- conv3
I0409 08:43:18.682574 15657 net.cpp:408] pool3 -> pool3
I0409 08:43:18.682629 15657 net.cpp:150] Setting up pool3
I0409 08:43:18.682644 15657 net.cpp:157] Top shape: 1024 250 3 3 (2304000)
I0409 08:43:18.682651 15657 net.cpp:165] Memory required for data: 2184859648
I0409 08:43:18.682656 15657 layer_factory.hpp:77] Creating layer fc4_300
I0409 08:43:18.682667 15657 net.cpp:100] Creating Layer fc4_300
I0409 08:43:18.682672 15657 net.cpp:434] fc4_300 <- pool3
I0409 08:43:18.682677 15657 net.cpp:408] fc4_300 -> fc4_300
I0409 08:43:18.688043 15657 net.cpp:150] Setting up fc4_300
I0409 08:43:18.688060 15657 net.cpp:157] Top shape: 1024 300 (307200)
I0409 08:43:18.688064 15657 net.cpp:165] Memory required for data: 2186088448
I0409 08:43:18.688071 15657 layer_factory.hpp:77] Creating layer fc4_relu
I0409 08:43:18.688078 15657 net.cpp:100] Creating Layer fc4_relu
I0409 08:43:18.688081 15657 net.cpp:434] fc4_relu <- fc4_300
I0409 08:43:18.688087 15657 net.cpp:395] fc4_relu -> fc4_300 (in-place)
I0409 08:43:18.688287 15657 net.cpp:150] Setting up fc4_relu
I0409 08:43:18.688299 15657 net.cpp:157] Top shape: 1024 300 (307200)
I0409 08:43:18.688302 15657 net.cpp:165] Memory required for data: 2187317248
I0409 08:43:18.688307 15657 layer_factory.hpp:77] Creating layer drop4
I0409 08:43:18.688319 15657 net.cpp:100] Creating Layer drop4
I0409 08:43:18.688326 15657 net.cpp:434] drop4 <- fc4_300
I0409 08:43:18.688333 15657 net.cpp:395] drop4 -> fc4_300 (in-place)
I0409 08:43:18.688369 15657 net.cpp:150] Setting up drop4
I0409 08:43:18.688377 15657 net.cpp:157] Top shape: 1024 300 (307200)
I0409 08:43:18.688380 15657 net.cpp:165] Memory required for data: 2188546048
I0409 08:43:18.688383 15657 layer_factory.hpp:77] Creating layer fc5_67
I0409 08:43:18.688390 15657 net.cpp:100] Creating Layer fc5_67
I0409 08:43:18.688393 15657 net.cpp:434] fc5_67 <- fc4_300
I0409 08:43:18.688403 15657 net.cpp:408] fc5_67 -> fc5_classes
I0409 08:43:18.689602 15657 net.cpp:150] Setting up fc5_67
I0409 08:43:18.689618 15657 net.cpp:157] Top shape: 1024 67 (68608)
I0409 08:43:18.689621 15657 net.cpp:165] Memory required for data: 2188820480
I0409 08:43:18.689631 15657 layer_factory.hpp:77] Creating layer loss
I0409 08:43:18.689641 15657 net.cpp:100] Creating Layer loss
I0409 08:43:18.689646 15657 net.cpp:434] loss <- fc5_classes
I0409 08:43:18.689649 15657 net.cpp:434] loss <- label
I0409 08:43:18.689656 15657 net.cpp:408] loss -> loss
I0409 08:43:18.689672 15657 layer_factory.hpp:77] Creating layer loss
…
I0409 08:43:18.690366 15657 solver.cpp:193] Creating test net (#0) specified by test_net file: ./Prototxt/experiment_6/rtsd-r1/histeq/trial_2/test.prototxt
I0409 08:43:18.690505 15657 net.cpp:58] Initializing net from parameters: 
state {
  phase: TEST
}
layer {
  name: "data"
  type: "Data"
  top: "data"
  top: "label"
  include {
    phase: TEST
  }
  transform_param {
    mirror: false
    crop_size: 48
    mean_value: 124
    mean_value: 121
    mean_value: 142
  }
  data_param {
    source: "../local_data/lmdb/rtsd-r1/histeq/test/lmdb"
    batch_size: 1024
    backend: LMDB
  }
}
layer {
  name: "conv1"
  type: "Convolution"
  bottom: "data"
  top: "conv1"
  convolution_param {
    num_output: 100
    pad: 0
    kernel_size: 7
    group: 1
    stride: 1
    weight_filler {
      type: "xavier"
    }
  }
}
layer {
  name: "conv1_relu"
  type: "ReLU"
  bottom: "conv1"
  top: "conv1"
}
layer {
  name: "pool1"
  type: "Pooling"
  bottom: "conv1"
  top: "pool1"
  pooling_param {
    pool: MAX
    kernel_size: 2
    stride: 2
  }
}
layer {
  name: "conv2"
  type: "Convolution"
  bottom: "pool1"
  top: "conv2"
  convolution_param {
    num_output: 150
    pad: 0
    kernel_size: 4
    group: 1
    stride: 1
    weight_filler {
      type: "xavier"
    }
  }
}
layer {
  name: "conv2_relu"
  type: "ReLU"
  bottom: "conv2"
  top: "conv2"
}
layer {
  name: "pool2"
  type: "Pooling"
  bottom: "conv2"
  top: "pool2"
  pooling_param {
    pool: MAX
    kernel_size: 2
    stride: 2
  }
}
layer {
  name: "conv3"
  type: "Convolution"
  bottom: "pool2"
  top: "conv3"
  convolution_param {
    num_output: 250
    pad: 0
    kernel_size: 4
    group: 1
    stride: 1
    weight_filler {
      type: "xavier"
    }
  }
}
layer {
  name: "conv3_relu"
  type: "ReLU"
  bottom: "conv3"
  top: "conv3"
}
layer {
  name: "pool3"
  type: "Pooling"
  bottom: "conv3"
  top: "pool3"
  pooling_param {
    pool: MAX
    kernel_size: 2
    stride: 2
  }
}
layer {
  name: "fc4_300"
  type: "InnerProduct"
  bottom: "pool3"
  top: "fc4_300"
  inner_product_param {
    num_output: 300
    weight_filler {
      type: "xavier"
    }
  }
}
layer {
  name: "fc4_relu"
  type: "ReLU"
  bottom: "fc4_300"
  top: "fc4_300"
}
layer {
  name: "drop4"
  type: "Dropout"
  bottom: "fc4_300"
  top: "fc4_300"
  dropout_param {
    dropout_ratio: 0.4
  }
}
layer {
  name: "fc5_67"
  type: "InnerProduct"
  bottom: "fc4_300"
  top: "fc5_classes"
  inner_product_param {
    num_output: 67
    weight_filler {
      type: "xavier"
    }
  }
}
layer {
  name: "loss"
  type: "SoftmaxWithLoss"
  bottom: "fc5_classes"
  bottom: "label"
  top: "loss"
}
layer {
  name: "accuracy_1"
  type: "Accuracy"
  bottom: "fc5_classes"
  bottom: "label"
  top: "accuracy_1"
  include {
    phase: TEST
  }
  accuracy_param {
    top_k: 1
  }
}
layer {
  name: "accuracy_5"
  type: "Accuracy"
  bottom: "fc5_classes"
  bottom: "label"
  top: "accuracy_5"
  include {
    phase: TEST
  }
  accuracy_param {
    top_k: 5
  }
}
I0409 08:43:18.690630 15657 layer_factory.hpp:77] Creating layer data
I0409 08:43:18.691321 15657 net.cpp:100] Creating Layer data
I0409 08:43:18.691344 15657 net.cpp:408] data -> data
I0409 08:43:18.691357 15657 net.cpp:408] data -> label
I0409 08:43:18.692680 15721 db_lmdb.cpp:35] Opened lmdb ../local_data/lmdb/rtsd-r1/histeq/test/lmdb
I0409 08:43:18.692847 15657 data_layer.cpp:41] output data size: 1024,3,48,48
I0409 08:43:18.747195 15657 net.cpp:150] Setting up data
I0409 08:43:18.747223 15657 net.cpp:157] Top shape: 1024 3 48 48 (7077888)
I0409 08:43:18.747229 15657 net.cpp:157] Top shape: 1024 (1024)
I0409 08:43:18.747232 15657 net.cpp:165] Memory required for data: 28315648
I0409 08:43:18.747241 15657 layer_factory.hpp:77] Creating layer label_data_1_split
I0409 08:43:18.747254 15657 net.cpp:100] Creating Layer label_data_1_split
I0409 08:43:18.747259 15657 net.cpp:434] label_data_1_split <- label
I0409 08:43:18.747269 15657 net.cpp:408] label_data_1_split -> label_data_1_split_0
I0409 08:43:18.747287 15657 net.cpp:408] label_data_1_split -> label_data_1_split_1
I0409 08:43:18.747301 15657 net.cpp:408] label_data_1_split -> label_data_1_split_2
I0409 08:43:18.747437 15657 net.cpp:150] Setting up label_data_1_split
I0409 08:43:18.747448 15657 net.cpp:157] Top shape: 1024 (1024)
I0409 08:43:18.747452 15657 net.cpp:157] Top shape: 1024 (1024)
I0409 08:43:18.747458 15657 net.cpp:157] Top shape: 1024 (1024)
I0409 08:43:18.747463 15657 net.cpp:165] Memory required for data: 28327936
I0409 08:43:18.747469 15657 layer_factory.hpp:77] Creating layer conv1
I0409 08:43:18.747485 15657 net.cpp:100] Creating Layer conv1
I0409 08:43:18.747493 15657 net.cpp:434] conv1 <- data
I0409 08:43:18.747499 15657 net.cpp:408] conv1 -> conv1
I0409 08:43:18.751579 15657 net.cpp:150] Setting up conv1
I0409 08:43:18.751598 15657 net.cpp:157] Top shape: 1024 100 42 42 (180633600)
I0409 08:43:18.751603 15657 net.cpp:165] Memory required for data: 750862336
I0409 08:43:18.751621 15657 layer_factory.hpp:77] Creating layer conv1_relu
I0409 08:43:18.751632 15657 net.cpp:100] Creating Layer conv1_relu
I0409 08:43:18.751638 15657 net.cpp:434] conv1_relu <- conv1
I0409 08:43:18.751652 15657 net.cpp:395] conv1_relu -> conv1 (in-place)
I0409 08:43:18.751859 15657 net.cpp:150] Setting up conv1_relu
I0409 08:43:18.751873 15657 net.cpp:157] Top shape: 1024 100 42 42 (180633600)
I0409 08:43:18.751889 15657 net.cpp:165] Memory required for data: 1473396736
I0409 08:43:18.751902 15657 layer_factory.hpp:77] Creating layer pool1
I0409 08:43:18.751917 15657 net.cpp:100] Creating Layer pool1
I0409 08:43:18.751925 15657 net.cpp:434] pool1 <- conv1
I0409 08:43:18.751935 15657 net.cpp:408] pool1 -> pool1
I0409 08:43:18.751996 15657 net.cpp:150] Setting up pool1
I0409 08:43:18.752007 15657 net.cpp:157] Top shape: 1024 100 21 21 (45158400)
I0409 08:43:18.752017 15657 net.cpp:165] Memory required for data: 1654030336
I0409 08:43:18.752020 15657 layer_factory.hpp:77] Creating layer conv2
I0409 08:43:18.752033 15657 net.cpp:100] Creating Layer conv2
I0409 08:43:18.752041 15657 net.cpp:434] conv2 <- pool1
I0409 08:43:18.752054 15657 net.cpp:408] conv2 -> conv2
I0409 08:43:18.755951 15657 net.cpp:150] Setting up conv2
I0409 08:43:18.755970 15657 net.cpp:157] Top shape: 1024 150 18 18 (49766400)
I0409 08:43:18.755975 15657 net.cpp:165] Memory required for data: 1853095936
I0409 08:43:18.755990 15657 layer_factory.hpp:77] Creating layer conv2_relu
I0409 08:43:18.756003 15657 net.cpp:100] Creating Layer conv2_relu
I0409 08:43:18.756011 15657 net.cpp:434] conv2_relu <- conv2
I0409 08:43:18.756018 15657 net.cpp:395] conv2_relu -> conv2 (in-place)
I0409 08:43:18.756815 15657 net.cpp:150] Setting up conv2_relu
I0409 08:43:18.756836 15657 net.cpp:157] Top shape: 1024 150 18 18 (49766400)
I0409 08:43:18.756845 15657 net.cpp:165] Memory required for data: 2052161536
I0409 08:43:18.756851 15657 layer_factory.hpp:77] Creating layer pool2
I0409 08:43:18.756866 15657 net.cpp:100] Creating Layer pool2
I0409 08:43:18.756875 15657 net.cpp:434] pool2 <- conv2
I0409 08:43:18.756882 15657 net.cpp:408] pool2 -> pool2
I0409 08:43:18.756944 15657 net.cpp:150] Setting up pool2
I0409 08:43:18.756955 15657 net.cpp:157] Top shape: 1024 150 9 9 (12441600)
I0409 08:43:18.756960 15657 net.cpp:165] Memory required for data: 2101927936
I0409 08:43:18.756965 15657 layer_factory.hpp:77] Creating layer conv3
I0409 08:43:18.756983 15657 net.cpp:100] Creating Layer conv3
I0409 08:43:18.756991 15657 net.cpp:434] conv3 <- pool2
I0409 08:43:18.756999 15657 net.cpp:408] conv3 -> conv3
I0409 08:43:18.762563 15657 net.cpp:150] Setting up conv3
I0409 08:43:18.762583 15657 net.cpp:157] Top shape: 1024 250 6 6 (9216000)
I0409 08:43:18.762588 15657 net.cpp:165] Memory required for data: 2138791936
I0409 08:43:18.762603 15657 layer_factory.hpp:77] Creating layer conv3_relu
I0409 08:43:18.762614 15657 net.cpp:100] Creating Layer conv3_relu
I0409 08:43:18.762624 15657 net.cpp:434] conv3_relu <- conv3
I0409 08:43:18.762632 15657 net.cpp:395] conv3_relu -> conv3 (in-place)
I0409 08:43:18.763422 15657 net.cpp:150] Setting up conv3_relu
I0409 08:43:18.763437 15657 net.cpp:157] Top shape: 1024 250 6 6 (9216000)
I0409 08:43:18.763443 15657 net.cpp:165] Memory required for data: 2175655936
I0409 08:43:18.763466 15657 layer_factory.hpp:77] Creating layer pool3
I0409 08:43:18.763478 15657 net.cpp:100] Creating Layer pool3
I0409 08:43:18.763484 15657 net.cpp:434] pool3 <- conv3
I0409 08:43:18.763495 15657 net.cpp:408] pool3 -> pool3
I0409 08:43:18.763556 15657 net.cpp:150] Setting up pool3
I0409 08:43:18.763566 15657 net.cpp:157] Top shape: 1024 250 3 3 (2304000)
I0409 08:43:18.763571 15657 net.cpp:165] Memory required for data: 2184871936
I0409 08:43:18.763576 15657 layer_factory.hpp:77] Creating layer fc4_300
I0409 08:43:18.763592 15657 net.cpp:100] Creating Layer fc4_300
I0409 08:43:18.763597 15657 net.cpp:434] fc4_300 <- pool3
I0409 08:43:18.763607 15657 net.cpp:408] fc4_300 -> fc4_300
I0409 08:43:18.768982 15657 net.cpp:150] Setting up fc4_300
I0409 08:43:18.768999 15657 net.cpp:157] Top shape: 1024 300 (307200)
I0409 08:43:18.769003 15657 net.cpp:165] Memory required for data: 2186100736
I0409 08:43:18.769014 15657 layer_factory.hpp:77] Creating layer fc4_relu
I0409 08:43:18.769027 15657 net.cpp:100] Creating Layer fc4_relu
I0409 08:43:18.769034 15657 net.cpp:434] fc4_relu <- fc4_300
I0409 08:43:18.769044 15657 net.cpp:395] fc4_relu -> fc4_300 (in-place)
I0409 08:43:18.769255 15657 net.cpp:150] Setting up fc4_relu
I0409 08:43:18.769268 15657 net.cpp:157] Top shape: 1024 300 (307200)
I0409 08:43:18.769273 15657 net.cpp:165] Memory required for data: 2187329536
I0409 08:43:18.769289 15657 layer_factory.hpp:77] Creating layer drop4
I0409 08:43:18.769297 15657 net.cpp:100] Creating Layer drop4
I0409 08:43:18.769305 15657 net.cpp:434] drop4 <- fc4_300
I0409 08:43:18.769315 15657 net.cpp:395] drop4 -> fc4_300 (in-place)
I0409 08:43:18.769354 15657 net.cpp:150] Setting up drop4
I0409 08:43:18.769363 15657 net.cpp:157] Top shape: 1024 300 (307200)
I0409 08:43:18.769367 15657 net.cpp:165] Memory required for data: 2188558336
I0409 08:43:18.769373 15657 layer_factory.hpp:77] Creating layer fc5_67
I0409 08:43:18.769385 15657 net.cpp:100] Creating Layer fc5_67
I0409 08:43:18.769392 15657 net.cpp:434] fc5_67 <- fc4_300
I0409 08:43:18.769398 15657 net.cpp:408] fc5_67 -> fc5_classes
I0409 08:43:18.769659 15657 net.cpp:150] Setting up fc5_67
I0409 08:43:18.769670 15657 net.cpp:157] Top shape: 1024 67 (68608)
I0409 08:43:18.769673 15657 net.cpp:165] Memory required for data: 2188832768
I0409 08:43:18.769690 15657 layer_factory.hpp:77] Creating layer fc5_classes_fc5_67_0_split
I0409 08:43:18.769701 15657 net.cpp:100] Creating Layer fc5_classes_fc5_67_0_split
I0409 08:43:18.769708 15657 net.cpp:434] fc5_classes_fc5_67_0_split <- fc5_classes
I0409 08:43:18.769716 15657 net.cpp:408] fc5_classes_fc5_67_0_split -> fc5_classes_fc5_67_0_split_0
I0409 08:43:18.769724 15657 net.cpp:408] fc5_classes_fc5_67_0_split -> fc5_classes_fc5_67_0_split_1
I0409 08:43:18.769731 15657 net.cpp:408] fc5_classes_fc5_67_0_split -> fc5_classes_fc5_67_0_split_2
I0409 08:43:18.769789 15657 net.cpp:150] Setting up fc5_classes_fc5_67_0_split
I0409 08:43:18.769798 15657 net.cpp:157] Top shape: 1024 67 (68608)
I0409 08:43:18.769801 15657 net.cpp:157] Top shape: 1024 67 (68608)
I0409 08:43:18.769805 15657 net.cpp:157] Top shape: 1024 67 (68608)
I0409 08:43:18.769809 15657 net.cpp:165] Memory required for data: 2189656064
I0409 08:43:18.769811 15657 layer_factory.hpp:77] Creating layer loss
I0409 08:43:18.769822 15657 net.cpp:100] Creating Layer loss
I0409 08:43:18.769826 15657 net.cpp:434] loss <- fc5_classes_fc5_67_0_split_0
I0409 08:43:18.769831 15657 net.cpp:434] loss <- label_data_1_split_0
I0409 08:43:18.769837 15657 net.cpp:408] loss -> loss
…
