…
I0415 03:25:52.645102 27010 solver.cpp:93] Creating training net from train_net file: ./Prototxt/experiment_10/rtsd-r3/imajust/trial_5/train.prototxt
I0415 03:25:52.648282 27010 net.cpp:58] Initializing net from parameters: 
state {
  phase: TRAIN
  level: 0
  stage: ""
}
layer {
  name: "data"
  type: "Data"
  top: "data"
  top: "label"
  include {
    phase: TRAIN
  }
  transform_param {
    scale: 0.0039215689
    mirror: false
    crop_size: 48
    mean_value: 118
    mean_value: 112
    mean_value: 112
  }
  data_param {
    source: "../local_data/lmdb/rtsd-r3/imajust/train/lmdb"
    batch_size: 1024
    backend: LMDB
  }
}
layer {
  name: "conv1"
  type: "Convolution"
  bottom: "data"
  top: "conv1"
  convolution_param {
    num_output: 100
    pad: 0
    kernel_size: 7
    group: 1
    stride: 1
    weight_filler {
      type: "xavier"
    }
  }
}
layer {
  name: "conv1_relu"
  type: "ReLU"
  bottom: "conv1"
  top: "conv1"
}
layer {
  name: "pool1"
  type: "Pooling"
  bottom: "conv1"
  top: "pool1"
  pooling_param {
    pool: MAX
    kernel_size: 2
    stride: 2
  }
}
layer {
  name: "conv2"
  type: "Convolution"
  bottom: "pool1"
  top: "conv2"
  convolution_param {
    num_output: 150
    pad: 0
    kernel_size: 4
    group: 1
    stride: 1
    weight_filler {
      type: "xavier"
    }
  }
}
layer {
  name: "conv2_relu"
  type: "ReLU"
  bottom: "conv2"
  top: "conv2"
}
layer {
  name: "pool2"
  type: "Pooling"
  bottom: "conv2"
  top: "pool2"
  pooling_param {
    pool: MAX
    kernel_size: 2
    stride: 2
  }
}
layer {
  name: "conv3"
  type: "Convolution"
  bottom: "pool2"
  top: "conv3"
  convolution_param {
    num_output: 250
    pad: 0
    kernel_size: 4
    group: 1
    stride: 1
    weight_filler {
      type: "xavier"
    }
  }
}
layer {
  name: "conv3_relu"
  type: "ReLU"
  bottom: "conv3"
  top: "conv3"
}
layer {
  name: "pool3"
  type: "Pooling"
  bottom: "conv3"
  top: "pool3"
  pooling_param {
    pool: MAX
    kernel_size: 2
    stride: 2
  }
}
layer {
  name: "fc4_300"
  type: "InnerProduct"
  bottom: "pool3"
  top: "fc4_300"
  inner_product_param {
    num_output: 300
    weight_filler {
      type: "xavier"
    }
  }
}
layer {
  name: "fc4_relu"
  type: "ReLU"
  bottom: "fc4_300"
  top: "fc4_300"
}
layer {
  name: "fc5_106"
  type: "InnerProduct"
  bottom: "fc4_300"
  top: "fc5_classes"
  inner_product_param {
    num_output: 106
    weight_filler {
      type: "xavier"
    }
  }
}
layer {
  name: "softmax"
  type: "Softmax"
  bottom: "fc5_classes"
  top: "softmax"
}
layer {
  name: "loss"
  type: "MultinomialLogisticLoss"
  bottom: "softmax"
  bottom: "label"
  top: "loss"
}
layer {
  name: "accuracy_1"
  type: "Accuracy"
  bottom: "fc5_classes"
  bottom: "label"
  top: "accuracy_1"
  accuracy_param {
    top_k: 1
  }
}
layer {
  name: "accuracy_5"
  type: "Accuracy"
  bottom: "fc5_classes"
  bottom: "label"
  top: "accuracy_5"
  accuracy_param {
    top_k: 5
  }
}
layer {
  name: "silence"
  type: "Silence"
  bottom: "accuracy_1"
  bottom: "accuracy_5"
}
I0415 03:25:52.648422 27010 layer_factory.hpp:77] Creating layer data
I0415 03:25:52.649521 27010 net.cpp:100] Creating Layer data
I0415 03:25:52.649536 27010 net.cpp:408] data -> data
I0415 03:25:52.649571 27010 net.cpp:408] data -> label
I0415 03:25:52.655822 27164 db_lmdb.cpp:35] Opened lmdb ../local_data/lmdb/rtsd-r3/imajust/train/lmdb
I0415 03:25:52.674667 27010 data_layer.cpp:41] output data size: 1024,3,48,48
I0415 03:25:52.729457 27010 net.cpp:150] Setting up data
I0415 03:25:52.729542 27010 net.cpp:157] Top shape: 1024 3 48 48 (7077888)
I0415 03:25:52.729557 27010 net.cpp:157] Top shape: 1024 (1024)
I0415 03:25:52.729562 27010 net.cpp:165] Memory required for data: 28315648
I0415 03:25:52.729585 27010 layer_factory.hpp:77] Creating layer label_data_1_split
I0415 03:25:52.729612 27010 net.cpp:100] Creating Layer label_data_1_split
I0415 03:25:52.729625 27010 net.cpp:434] label_data_1_split <- label
I0415 03:25:52.729650 27010 net.cpp:408] label_data_1_split -> label_data_1_split_0
I0415 03:25:52.729676 27010 net.cpp:408] label_data_1_split -> label_data_1_split_1
I0415 03:25:52.729691 27010 net.cpp:408] label_data_1_split -> label_data_1_split_2
I0415 03:25:52.729784 27010 net.cpp:150] Setting up label_data_1_split
I0415 03:25:52.729795 27010 net.cpp:157] Top shape: 1024 (1024)
I0415 03:25:52.729800 27010 net.cpp:157] Top shape: 1024 (1024)
I0415 03:25:52.729804 27010 net.cpp:157] Top shape: 1024 (1024)
I0415 03:25:52.729806 27010 net.cpp:165] Memory required for data: 28327936
I0415 03:25:52.729815 27010 layer_factory.hpp:77] Creating layer conv1
I0415 03:25:52.729836 27010 net.cpp:100] Creating Layer conv1
I0415 03:25:52.729842 27010 net.cpp:434] conv1 <- data
I0415 03:25:52.729856 27010 net.cpp:408] conv1 -> conv1
I0415 03:25:53.714773 27010 net.cpp:150] Setting up conv1
I0415 03:25:53.714823 27010 net.cpp:157] Top shape: 1024 100 42 42 (180633600)
I0415 03:25:53.714828 27010 net.cpp:165] Memory required for data: 750862336
I0415 03:25:53.714859 27010 layer_factory.hpp:77] Creating layer conv1_relu
I0415 03:25:53.714879 27010 net.cpp:100] Creating Layer conv1_relu
I0415 03:25:53.714884 27010 net.cpp:434] conv1_relu <- conv1
I0415 03:25:53.714890 27010 net.cpp:395] conv1_relu -> conv1 (in-place)
I0415 03:25:53.715158 27010 net.cpp:150] Setting up conv1_relu
I0415 03:25:53.715170 27010 net.cpp:157] Top shape: 1024 100 42 42 (180633600)
I0415 03:25:53.715173 27010 net.cpp:165] Memory required for data: 1473396736
I0415 03:25:53.715183 27010 layer_factory.hpp:77] Creating layer pool1
I0415 03:25:53.715193 27010 net.cpp:100] Creating Layer pool1
I0415 03:25:53.715198 27010 net.cpp:434] pool1 <- conv1
I0415 03:25:53.715203 27010 net.cpp:408] pool1 -> pool1
I0415 03:25:53.715270 27010 net.cpp:150] Setting up pool1
I0415 03:25:53.715278 27010 net.cpp:157] Top shape: 1024 100 21 21 (45158400)
I0415 03:25:53.715281 27010 net.cpp:165] Memory required for data: 1654030336
I0415 03:25:53.715284 27010 layer_factory.hpp:77] Creating layer conv2
I0415 03:25:53.715302 27010 net.cpp:100] Creating Layer conv2
I0415 03:25:53.715307 27010 net.cpp:434] conv2 <- pool1
I0415 03:25:53.715313 27010 net.cpp:408] conv2 -> conv2
I0415 03:25:53.721752 27010 net.cpp:150] Setting up conv2
I0415 03:25:53.721777 27010 net.cpp:157] Top shape: 1024 150 18 18 (49766400)
I0415 03:25:53.721783 27010 net.cpp:165] Memory required for data: 1853095936
I0415 03:25:53.721799 27010 layer_factory.hpp:77] Creating layer conv2_relu
I0415 03:25:53.721815 27010 net.cpp:100] Creating Layer conv2_relu
I0415 03:25:53.721822 27010 net.cpp:434] conv2_relu <- conv2
I0415 03:25:53.721830 27010 net.cpp:395] conv2_relu -> conv2 (in-place)
I0415 03:25:53.724242 27010 net.cpp:150] Setting up conv2_relu
I0415 03:25:53.724262 27010 net.cpp:157] Top shape: 1024 150 18 18 (49766400)
I0415 03:25:53.724265 27010 net.cpp:165] Memory required for data: 2052161536
I0415 03:25:53.724270 27010 layer_factory.hpp:77] Creating layer pool2
I0415 03:25:53.724277 27010 net.cpp:100] Creating Layer pool2
I0415 03:25:53.724282 27010 net.cpp:434] pool2 <- conv2
I0415 03:25:53.724292 27010 net.cpp:408] pool2 -> pool2
I0415 03:25:53.724354 27010 net.cpp:150] Setting up pool2
I0415 03:25:53.724367 27010 net.cpp:157] Top shape: 1024 150 9 9 (12441600)
I0415 03:25:53.724371 27010 net.cpp:165] Memory required for data: 2101927936
I0415 03:25:53.724375 27010 layer_factory.hpp:77] Creating layer conv3
I0415 03:25:53.724388 27010 net.cpp:100] Creating Layer conv3
I0415 03:25:53.724395 27010 net.cpp:434] conv3 <- pool2
I0415 03:25:53.724431 27010 net.cpp:408] conv3 -> conv3
I0415 03:25:53.732609 27010 net.cpp:150] Setting up conv3
I0415 03:25:53.732631 27010 net.cpp:157] Top shape: 1024 250 6 6 (9216000)
I0415 03:25:53.732638 27010 net.cpp:165] Memory required for data: 2138791936
I0415 03:25:53.732650 27010 layer_factory.hpp:77] Creating layer conv3_relu
I0415 03:25:53.732657 27010 net.cpp:100] Creating Layer conv3_relu
I0415 03:25:53.732662 27010 net.cpp:434] conv3_relu <- conv3
I0415 03:25:53.732676 27010 net.cpp:395] conv3_relu -> conv3 (in-place)
I0415 03:25:53.734338 27010 net.cpp:150] Setting up conv3_relu
I0415 03:25:53.734362 27010 net.cpp:157] Top shape: 1024 250 6 6 (9216000)
I0415 03:25:53.734366 27010 net.cpp:165] Memory required for data: 2175655936
I0415 03:25:53.734370 27010 layer_factory.hpp:77] Creating layer pool3
I0415 03:25:53.734380 27010 net.cpp:100] Creating Layer pool3
I0415 03:25:53.734382 27010 net.cpp:434] pool3 <- conv3
I0415 03:25:53.734390 27010 net.cpp:408] pool3 -> pool3
I0415 03:25:53.734448 27010 net.cpp:150] Setting up pool3
I0415 03:25:53.734463 27010 net.cpp:157] Top shape: 1024 250 3 3 (2304000)
I0415 03:25:53.734468 27010 net.cpp:165] Memory required for data: 2184871936
I0415 03:25:53.734472 27010 layer_factory.hpp:77] Creating layer fc4_300
I0415 03:25:53.734477 27010 net.cpp:100] Creating Layer fc4_300
I0415 03:25:53.734480 27010 net.cpp:434] fc4_300 <- pool3
I0415 03:25:53.734485 27010 net.cpp:408] fc4_300 -> fc4_300
I0415 03:25:53.742913 27010 net.cpp:150] Setting up fc4_300
I0415 03:25:53.742935 27010 net.cpp:157] Top shape: 1024 300 (307200)
I0415 03:25:53.742939 27010 net.cpp:165] Memory required for data: 2186100736
I0415 03:25:53.742949 27010 layer_factory.hpp:77] Creating layer fc4_relu
I0415 03:25:53.742955 27010 net.cpp:100] Creating Layer fc4_relu
I0415 03:25:53.742959 27010 net.cpp:434] fc4_relu <- fc4_300
I0415 03:25:53.742969 27010 net.cpp:395] fc4_relu -> fc4_300 (in-place)
I0415 03:25:53.743175 27010 net.cpp:150] Setting up fc4_relu
I0415 03:25:53.743185 27010 net.cpp:157] Top shape: 1024 300 (307200)
I0415 03:25:53.743188 27010 net.cpp:165] Memory required for data: 2187329536
I0415 03:25:53.743191 27010 layer_factory.hpp:77] Creating layer fc5_106
I0415 03:25:53.743201 27010 net.cpp:100] Creating Layer fc5_106
I0415 03:25:53.743206 27010 net.cpp:434] fc5_106 <- fc4_300
I0415 03:25:53.743212 27010 net.cpp:408] fc5_106 -> fc5_classes
I0415 03:25:53.744634 27010 net.cpp:150] Setting up fc5_106
I0415 03:25:53.744653 27010 net.cpp:157] Top shape: 1024 106 (108544)
I0415 03:25:53.744657 27010 net.cpp:165] Memory required for data: 2187763712
I0415 03:25:53.744668 27010 layer_factory.hpp:77] Creating layer fc5_classes_fc5_106_0_split
I0415 03:25:53.744676 27010 net.cpp:100] Creating Layer fc5_classes_fc5_106_0_split
I0415 03:25:53.744685 27010 net.cpp:434] fc5_classes_fc5_106_0_split <- fc5_classes
I0415 03:25:53.744694 27010 net.cpp:408] fc5_classes_fc5_106_0_split -> fc5_classes_fc5_106_0_split_0
I0415 03:25:53.744704 27010 net.cpp:408] fc5_classes_fc5_106_0_split -> fc5_classes_fc5_106_0_split_1
I0415 03:25:53.744712 27010 net.cpp:408] fc5_classes_fc5_106_0_split -> fc5_classes_fc5_106_0_split_2
I0415 03:25:53.744772 27010 net.cpp:150] Setting up fc5_classes_fc5_106_0_split
I0415 03:25:53.744784 27010 net.cpp:157] Top shape: 1024 106 (108544)
I0415 03:25:53.744793 27010 net.cpp:157] Top shape: 1024 106 (108544)
I0415 03:25:53.744798 27010 net.cpp:157] Top shape: 1024 106 (108544)
I0415 03:25:53.744801 27010 net.cpp:165] Memory required for data: 2189066240
I0415 03:25:53.744804 27010 layer_factory.hpp:77] Creating layer softmax
I0415 03:25:53.744809 27010 net.cpp:100] Creating Layer softmax
I0415 03:25:53.744814 27010 net.cpp:434] softmax <- fc5_classes_fc5_106_0_split_0
I0415 03:25:53.744819 27010 net.cpp:408] softmax -> softmax
I0415 03:25:53.745134 27010 net.cpp:150] Setting up softmax
I0415 03:25:53.745149 27010 net.cpp:157] Top shape: 1024 106 (108544)
I0415 03:25:53.745152 27010 net.cpp:165] Memory required for data: 2189500416
I0415 03:25:53.745156 27010 layer_factory.hpp:77] Creating layer loss
I0415 03:25:53.745183 27010 net.cpp:100] Creating Layer loss
I0415 03:25:53.745189 27010 net.cpp:434] loss <- softmax
I0415 03:25:53.745194 27010 net.cpp:434] loss <- label_data_1_split_0
I0415 03:25:53.745199 27010 net.cpp:408] loss -> loss
…
