…
I0528 04:29:19.260221   884 solver.cpp:81] Creating training net from train_net file: ./Prototxt/experiment_21/RTSD/AHE/trial_5/train.prototxt
I0528 04:29:19.260563   884 net.cpp:58] Initializing net from parameters: 
state {
  phase: TRAIN
  level: 0
  stage: ""
}
layer {
  name: "data"
  type: "Data"
  top: "data"
  top: "label"
  include {
    phase: TRAIN
  }
  transform_param {
    scale: 0.0039215689
    mirror: false
    crop_size: 48
    mean_value: 133
    mean_value: 127
    mean_value: 126
  }
  data_param {
    source: "../local_data/lmdb/RTSD/AHE/train/lmdb"
    batch_size: 1024
    backend: LMDB
  }
}
layer {
  name: "conv1"
  type: "Convolution"
  bottom: "data"
  top: "conv1"
  convolution_param {
    num_output: 100
    pad: 0
    kernel_size: 7
    group: 1
    stride: 1
    weight_filler {
      type: "xavier"
    }
  }
}
layer {
  name: "conv1_relu"
  type: "ReLU"
  bottom: "conv1"
  top: "conv1"
}
layer {
  name: "pool1"
  type: "Pooling"
  bottom: "conv1"
  top: "pool1"
  pooling_param {
    pool: MAX
    kernel_size: 2
    stride: 2
  }
}
layer {
  name: "conv2"
  type: "Convolution"
  bottom: "pool1"
  top: "conv2"
  convolution_param {
    num_output: 150
    pad: 0
    kernel_size: 4
    group: 1
    stride: 1
    weight_filler {
      type: "xavier"
    }
  }
}
layer {
  name: "conv2_relu"
  type: "ReLU"
  bottom: "conv2"
  top: "conv2"
}
layer {
  name: "pool2"
  type: "Pooling"
  bottom: "conv2"
  top: "pool2"
  pooling_param {
    pool: MAX
    kernel_size: 2
    stride: 2
  }
}
layer {
  name: "conv3"
  type: "Convolution"
  bottom: "pool2"
  top: "conv3"
  convolution_param {
    num_output: 250
    pad: 0
    kernel_size: 4
    group: 1
    stride: 1
    weight_filler {
      type: "xavier"
    }
  }
}
layer {
  name: "conv3_relu"
  type: "ReLU"
  bottom: "conv3"
  top: "conv3"
}
layer {
  name: "pool3"
  type: "Pooling"
  bottom: "conv3"
  top: "pool3"
  pooling_param {
    pool: MAX
    kernel_size: 2
    stride: 2
  }
}
layer {
  name: "fc4_300"
  type: "InnerProduct"
  bottom: "pool3"
  top: "fc4_300"
  inner_product_param {
    num_output: 300
    weight_filler {
      type: "xavier"
    }
  }
}
layer {
  name: "fc4_relu"
  type: "ReLU"
  bottom: "fc4_300"
  top: "fc4_300"
}
layer {
  name: "fc5_116"
  type: "InnerProduct"
  bottom: "fc4_300"
  top: "fc5_classes"
  inner_product_param {
    num_output: 116
    weight_filler {
      type: "xavier"
    }
  }
}
layer {
  name: "softmax"
  type: "Softmax"
  bottom: "fc5_classes"
  top: "softmax"
}
layer {
  name: "loss"
  type: "MultinomialLogisticLoss"
  bottom: "softmax"
  bottom: "label"
  top: "loss"
}
layer {
  name: "accuracy_1"
  type: "Accuracy"
  bottom: "fc5_classes"
  bottom: "label"
  top: "accuracy_1"
  accuracy_param {
    top_k: 1
  }
}
layer {
  name: "accuracy_5"
  type: "Accuracy"
  bottom: "fc5_classes"
  bottom: "label"
  top: "accuracy_5"
  accuracy_param {
    top_k: 5
  }
}
layer {
  name: "silence"
  type: "Silence"
  bottom: "accuracy_1"
  bottom: "accuracy_5"
}
I0528 04:29:19.260658   884 layer_factory.hpp:77] Creating layer data
I0528 04:29:19.261430   884 net.cpp:100] Creating Layer data
I0528 04:29:19.261442   884 net.cpp:408] data -> data
I0528 04:29:19.261520   884 net.cpp:408] data -> label
I0528 04:29:19.262246   918 db_lmdb.cpp:35] Opened lmdb ../local_data/lmdb/RTSD/AHE/train/lmdb
I0528 04:29:19.286141   884 data_layer.cpp:41] output data size: 1024,3,48,48
I0528 04:29:19.336262   884 net.cpp:150] Setting up data
I0528 04:29:19.336416   884 net.cpp:157] Top shape: 1024 3 48 48 (7077888)
I0528 04:29:19.336429   884 net.cpp:157] Top shape: 1024 (1024)
I0528 04:29:19.336437   884 net.cpp:165] Memory required for data: 28315648
I0528 04:29:19.336508   884 layer_factory.hpp:77] Creating layer label_data_1_split
I0528 04:29:19.336526   884 net.cpp:100] Creating Layer label_data_1_split
I0528 04:29:19.336536   884 net.cpp:434] label_data_1_split <- label
I0528 04:29:19.336555   884 net.cpp:408] label_data_1_split -> label_data_1_split_0
I0528 04:29:19.336570   884 net.cpp:408] label_data_1_split -> label_data_1_split_1
I0528 04:29:19.336582   884 net.cpp:408] label_data_1_split -> label_data_1_split_2
I0528 04:29:19.336634   884 net.cpp:150] Setting up label_data_1_split
I0528 04:29:19.336647   884 net.cpp:157] Top shape: 1024 (1024)
I0528 04:29:19.336654   884 net.cpp:157] Top shape: 1024 (1024)
I0528 04:29:19.336661   884 net.cpp:157] Top shape: 1024 (1024)
I0528 04:29:19.336668   884 net.cpp:165] Memory required for data: 28327936
I0528 04:29:19.336674   884 layer_factory.hpp:77] Creating layer conv1
I0528 04:29:19.336719   884 net.cpp:100] Creating Layer conv1
I0528 04:29:19.336730   884 net.cpp:434] conv1 <- data
I0528 04:29:19.336740   884 net.cpp:408] conv1 -> conv1
I0528 04:29:19.981887   884 net.cpp:150] Setting up conv1
I0528 04:29:19.981940   884 net.cpp:157] Top shape: 1024 100 42 42 (180633600)
I0528 04:29:19.981946   884 net.cpp:165] Memory required for data: 750862336
I0528 04:29:19.981976   884 layer_factory.hpp:77] Creating layer conv1_relu
I0528 04:29:19.981998   884 net.cpp:100] Creating Layer conv1_relu
I0528 04:29:19.982038   884 net.cpp:434] conv1_relu <- conv1
I0528 04:29:19.982070   884 net.cpp:395] conv1_relu -> conv1 (in-place)
I0528 04:29:19.982281   884 net.cpp:150] Setting up conv1_relu
I0528 04:29:19.982295   884 net.cpp:157] Top shape: 1024 100 42 42 (180633600)
I0528 04:29:19.982301   884 net.cpp:165] Memory required for data: 1473396736
I0528 04:29:19.982308   884 layer_factory.hpp:77] Creating layer pool1
I0528 04:29:19.982322   884 net.cpp:100] Creating Layer pool1
I0528 04:29:19.982329   884 net.cpp:434] pool1 <- conv1
I0528 04:29:19.982372   884 net.cpp:408] pool1 -> pool1
I0528 04:29:19.982463   884 net.cpp:150] Setting up pool1
I0528 04:29:19.982507   884 net.cpp:157] Top shape: 1024 100 21 21 (45158400)
I0528 04:29:19.982532   884 net.cpp:165] Memory required for data: 1654030336
I0528 04:29:19.982558   884 layer_factory.hpp:77] Creating layer conv2
I0528 04:29:19.982594   884 net.cpp:100] Creating Layer conv2
I0528 04:29:19.982621   884 net.cpp:434] conv2 <- pool1
I0528 04:29:19.982642   884 net.cpp:408] conv2 -> conv2
I0528 04:29:19.985718   884 net.cpp:150] Setting up conv2
I0528 04:29:19.985766   884 net.cpp:157] Top shape: 1024 150 18 18 (49766400)
I0528 04:29:19.985772   884 net.cpp:165] Memory required for data: 1853095936
I0528 04:29:19.985796   884 layer_factory.hpp:77] Creating layer conv2_relu
I0528 04:29:19.985818   884 net.cpp:100] Creating Layer conv2_relu
I0528 04:29:19.985826   884 net.cpp:434] conv2_relu <- conv2
I0528 04:29:19.985843   884 net.cpp:395] conv2_relu -> conv2 (in-place)
I0528 04:29:19.986053   884 net.cpp:150] Setting up conv2_relu
I0528 04:29:19.986074   884 net.cpp:157] Top shape: 1024 150 18 18 (49766400)
I0528 04:29:19.986080   884 net.cpp:165] Memory required for data: 2052161536
I0528 04:29:19.986086   884 layer_factory.hpp:77] Creating layer pool2
I0528 04:29:19.986104   884 net.cpp:100] Creating Layer pool2
I0528 04:29:19.986110   884 net.cpp:434] pool2 <- conv2
I0528 04:29:19.986127   884 net.cpp:408] pool2 -> pool2
I0528 04:29:19.986207   884 net.cpp:150] Setting up pool2
I0528 04:29:19.986253   884 net.cpp:157] Top shape: 1024 150 9 9 (12441600)
I0528 04:29:19.986284   884 net.cpp:165] Memory required for data: 2101927936
I0528 04:29:19.986346   884 layer_factory.hpp:77] Creating layer conv3
I0528 04:29:19.986400   884 net.cpp:100] Creating Layer conv3
I0528 04:29:19.986425   884 net.cpp:434] conv3 <- pool2
I0528 04:29:19.986455   884 net.cpp:408] conv3 -> conv3
I0528 04:29:20.075264   884 net.cpp:150] Setting up conv3
I0528 04:29:20.075314   884 net.cpp:157] Top shape: 1024 250 6 6 (9216000)
I0528 04:29:20.075332   884 net.cpp:165] Memory required for data: 2138791936
I0528 04:29:20.075369   884 layer_factory.hpp:77] Creating layer conv3_relu
I0528 04:29:20.075397   884 net.cpp:100] Creating Layer conv3_relu
I0528 04:29:20.075415   884 net.cpp:434] conv3_relu <- conv3
I0528 04:29:20.075439   884 net.cpp:395] conv3_relu -> conv3 (in-place)
I0528 04:29:20.077301   884 net.cpp:150] Setting up conv3_relu
I0528 04:29:20.078707   884 net.cpp:157] Top shape: 1024 250 6 6 (9216000)
I0528 04:29:20.078758   884 net.cpp:165] Memory required for data: 2175655936
I0528 04:29:20.078788   884 layer_factory.hpp:77] Creating layer pool3
I0528 04:29:20.078824   884 net.cpp:100] Creating Layer pool3
I0528 04:29:20.078851   884 net.cpp:434] pool3 <- conv3
I0528 04:29:20.078883   884 net.cpp:408] pool3 -> pool3
I0528 04:29:20.078968   884 net.cpp:150] Setting up pool3
I0528 04:29:20.079006   884 net.cpp:157] Top shape: 1024 250 3 3 (2304000)
I0528 04:29:20.079032   884 net.cpp:165] Memory required for data: 2184871936
I0528 04:29:20.079058   884 layer_factory.hpp:77] Creating layer fc4_300
I0528 04:29:20.079092   884 net.cpp:100] Creating Layer fc4_300
I0528 04:29:20.079128   884 net.cpp:434] fc4_300 <- pool3
I0528 04:29:20.079160   884 net.cpp:408] fc4_300 -> fc4_300
I0528 04:29:20.087095   884 net.cpp:150] Setting up fc4_300
I0528 04:29:20.087126   884 net.cpp:157] Top shape: 1024 300 (307200)
I0528 04:29:20.087133   884 net.cpp:165] Memory required for data: 2186100736
I0528 04:29:20.087144   884 layer_factory.hpp:77] Creating layer fc4_relu
I0528 04:29:20.087157   884 net.cpp:100] Creating Layer fc4_relu
I0528 04:29:20.087163   884 net.cpp:434] fc4_relu <- fc4_300
I0528 04:29:20.087172   884 net.cpp:395] fc4_relu -> fc4_300 (in-place)
I0528 04:29:20.087374   884 net.cpp:150] Setting up fc4_relu
I0528 04:29:20.087388   884 net.cpp:157] Top shape: 1024 300 (307200)
I0528 04:29:20.087393   884 net.cpp:165] Memory required for data: 2187329536
I0528 04:29:20.087399   884 layer_factory.hpp:77] Creating layer fc5_116
I0528 04:29:20.087409   884 net.cpp:100] Creating Layer fc5_116
I0528 04:29:20.087414   884 net.cpp:434] fc5_116 <- fc4_300
I0528 04:29:20.087424   884 net.cpp:408] fc5_116 -> fc5_classes
I0528 04:29:20.094117   884 net.cpp:150] Setting up fc5_116
I0528 04:29:20.094137   884 net.cpp:157] Top shape: 1024 116 (118784)
I0528 04:29:20.094144   884 net.cpp:165] Memory required for data: 2187804672
I0528 04:29:20.094158   884 layer_factory.hpp:77] Creating layer fc5_classes_fc5_116_0_split
I0528 04:29:20.094168   884 net.cpp:100] Creating Layer fc5_classes_fc5_116_0_split
I0528 04:29:20.094174   884 net.cpp:434] fc5_classes_fc5_116_0_split <- fc5_classes
I0528 04:29:20.094182   884 net.cpp:408] fc5_classes_fc5_116_0_split -> fc5_classes_fc5_116_0_split_0
I0528 04:29:20.094192   884 net.cpp:408] fc5_classes_fc5_116_0_split -> fc5_classes_fc5_116_0_split_1
I0528 04:29:20.094208   884 net.cpp:408] fc5_classes_fc5_116_0_split -> fc5_classes_fc5_116_0_split_2
I0528 04:29:20.094257   884 net.cpp:150] Setting up fc5_classes_fc5_116_0_split
I0528 04:29:20.094269   884 net.cpp:157] Top shape: 1024 116 (118784)
I0528 04:29:20.094274   884 net.cpp:157] Top shape: 1024 116 (118784)
I0528 04:29:20.094279   884 net.cpp:157] Top shape: 1024 116 (118784)
I0528 04:29:20.094282   884 net.cpp:165] Memory required for data: 2189230080
I0528 04:29:20.094286   884 layer_factory.hpp:77] Creating layer softmax
I0528 04:29:20.094296   884 net.cpp:100] Creating Layer softmax
I0528 04:29:20.094303   884 net.cpp:434] softmax <- fc5_classes_fc5_116_0_split_0
I0528 04:29:20.094310   884 net.cpp:408] softmax -> softmax
I0528 04:29:20.094542   884 net.cpp:150] Setting up softmax
I0528 04:29:20.094557   884 net.cpp:157] Top shape: 1024 116 (118784)
I0528 04:29:20.094561   884 net.cpp:165] Memory required for data: 2189705216
I0528 04:29:20.094568   884 layer_factory.hpp:77] Creating layer loss
I0528 04:29:20.094578   884 net.cpp:100] Creating Layer loss
I0528 04:29:20.094600   884 net.cpp:434] loss <- softmax
I0528 04:29:20.094607   884 net.cpp:434] loss <- label_data_1_split_0
I0528 04:29:20.094617   884 net.cpp:408] loss -> loss
…
