…
I0528 23:39:23.855854 19347 solver.cpp:81] Creating training net from train_net file: ./Prototxt/experiment_22/RTSD/histeq/trial_2/train.prototxt
I0528 23:39:23.863548 19347 net.cpp:58] Initializing net from parameters: 
state {
  phase: TRAIN
  level: 0
  stage: ""
}
layer {
  name: "data"
  type: "Data"
  top: "data"
  top: "label"
  include {
    phase: TRAIN
  }
  transform_param {
    scale: 0.0039215689
    mirror: false
    crop_size: 48
    mean_value: 134
    mean_value: 128
    mean_value: 128
  }
  data_param {
    source: "../local_data/lmdb/RTSD/histeq/train/lmdb"
    batch_size: 1024
    backend: LMDB
  }
}
layer {
  name: "conv1"
  type: "Convolution"
  bottom: "data"
  top: "conv1"
  convolution_param {
    num_output: 100
    pad: 0
    kernel_size: 7
    group: 1
    stride: 1
    weight_filler {
      type: "xavier"
    }
  }
}
layer {
  name: "conv1_relu"
  type: "ReLU"
  bottom: "conv1"
  top: "conv1"
}
layer {
  name: "pool1"
  type: "Pooling"
  bottom: "conv1"
  top: "pool1"
  pooling_param {
    pool: MAX
    kernel_size: 2
    stride: 2
  }
}
layer {
  name: "conv2"
  type: "Convolution"
  bottom: "pool1"
  top: "conv2"
  convolution_param {
    num_output: 150
    pad: 0
    kernel_size: 4
    group: 1
    stride: 1
    weight_filler {
      type: "xavier"
    }
  }
}
layer {
  name: "conv2_relu"
  type: "ReLU"
  bottom: "conv2"
  top: "conv2"
}
layer {
  name: "pool2"
  type: "Pooling"
  bottom: "conv2"
  top: "pool2"
  pooling_param {
    pool: MAX
    kernel_size: 2
    stride: 2
  }
}
layer {
  name: "conv3"
  type: "Convolution"
  bottom: "pool2"
  top: "conv3"
  convolution_param {
    num_output: 250
    pad: 0
    kernel_size: 4
    group: 1
    stride: 1
    weight_filler {
      type: "xavier"
    }
  }
}
layer {
  name: "conv3_relu"
  type: "ReLU"
  bottom: "conv3"
  top: "conv3"
}
layer {
  name: "pool3"
  type: "Pooling"
  bottom: "conv3"
  top: "pool3"
  pooling_param {
    pool: MAX
    kernel_size: 2
    stride: 2
  }
}
layer {
  name: "fc4_300"
  type: "InnerProduct"
  bottom: "pool3"
  top: "fc4_300"
  inner_product_param {
    num_output: 300
    weight_filler {
      type: "xavier"
    }
  }
}
layer {
  name: "fc4_relu"
  type: "ReLU"
  bottom: "fc4_300"
  top: "fc4_300"
}
layer {
  name: "fc5_116"
  type: "InnerProduct"
  bottom: "fc4_300"
  top: "fc5_classes"
  inner_product_param {
    num_output: 116
    weight_filler {
      type: "xavier"
    }
  }
}
layer {
  name: "softmax"
  type: "Softmax"
  bottom: "fc5_classes"
  top: "softmax"
}
layer {
  name: "loss"
  type: "MultinomialLogisticLoss"
  bottom: "softmax"
  bottom: "label"
  top: "loss"
}
layer {
  name: "accuracy_1"
  type: "Accuracy"
  bottom: "fc5_classes"
  bottom: "label"
  top: "accuracy_1"
  accuracy_param {
    top_k: 1
  }
}
layer {
  name: "accuracy_5"
  type: "Accuracy"
  bottom: "fc5_classes"
  bottom: "label"
  top: "accuracy_5"
  accuracy_param {
    top_k: 5
  }
}
layer {
  name: "silence"
  type: "Silence"
  bottom: "accuracy_1"
  bottom: "accuracy_5"
}
I0528 23:39:23.863704 19347 layer_factory.hpp:77] Creating layer data
I0528 23:39:23.865201 19347 net.cpp:100] Creating Layer data
I0528 23:39:23.865232 19347 net.cpp:408] data -> data
I0528 23:39:23.865283 19347 net.cpp:408] data -> label
I0528 23:39:23.868623 19394 db_lmdb.cpp:35] Opened lmdb ../local_data/lmdb/RTSD/histeq/train/lmdb
I0528 23:39:23.890208 19347 data_layer.cpp:41] output data size: 1024,3,48,48
I0528 23:39:23.946964 19347 net.cpp:150] Setting up data
I0528 23:39:23.947075 19347 net.cpp:157] Top shape: 1024 3 48 48 (7077888)
I0528 23:39:23.947103 19347 net.cpp:157] Top shape: 1024 (1024)
I0528 23:39:23.947124 19347 net.cpp:165] Memory required for data: 28315648
I0528 23:39:23.947154 19347 layer_factory.hpp:77] Creating layer label_data_1_split
I0528 23:39:23.947180 19347 net.cpp:100] Creating Layer label_data_1_split
I0528 23:39:23.947204 19347 net.cpp:434] label_data_1_split <- label
I0528 23:39:23.947234 19347 net.cpp:408] label_data_1_split -> label_data_1_split_0
I0528 23:39:23.947264 19347 net.cpp:408] label_data_1_split -> label_data_1_split_1
I0528 23:39:23.947289 19347 net.cpp:408] label_data_1_split -> label_data_1_split_2
I0528 23:39:23.947365 19347 net.cpp:150] Setting up label_data_1_split
I0528 23:39:23.947394 19347 net.cpp:157] Top shape: 1024 (1024)
I0528 23:39:23.947417 19347 net.cpp:157] Top shape: 1024 (1024)
I0528 23:39:23.947444 19347 net.cpp:157] Top shape: 1024 (1024)
I0528 23:39:23.947470 19347 net.cpp:165] Memory required for data: 28327936
I0528 23:39:23.947496 19347 layer_factory.hpp:77] Creating layer conv1
I0528 23:39:23.947538 19347 net.cpp:100] Creating Layer conv1
I0528 23:39:23.947567 19347 net.cpp:434] conv1 <- data
I0528 23:39:23.947597 19347 net.cpp:408] conv1 -> conv1
I0528 23:39:24.150095 19347 net.cpp:150] Setting up conv1
I0528 23:39:24.150130 19347 net.cpp:157] Top shape: 1024 100 42 42 (180633600)
I0528 23:39:24.150133 19347 net.cpp:165] Memory required for data: 750862336
I0528 23:39:24.150156 19347 layer_factory.hpp:77] Creating layer conv1_relu
I0528 23:39:24.150177 19347 net.cpp:100] Creating Layer conv1_relu
I0528 23:39:24.150187 19347 net.cpp:434] conv1_relu <- conv1
I0528 23:39:24.150203 19347 net.cpp:395] conv1_relu -> conv1 (in-place)
I0528 23:39:24.150393 19347 net.cpp:150] Setting up conv1_relu
I0528 23:39:24.150406 19347 net.cpp:157] Top shape: 1024 100 42 42 (180633600)
I0528 23:39:24.150410 19347 net.cpp:165] Memory required for data: 1473396736
I0528 23:39:24.150416 19347 layer_factory.hpp:77] Creating layer pool1
I0528 23:39:24.150434 19347 net.cpp:100] Creating Layer pool1
I0528 23:39:24.150442 19347 net.cpp:434] pool1 <- conv1
I0528 23:39:24.150452 19347 net.cpp:408] pool1 -> pool1
I0528 23:39:24.150506 19347 net.cpp:150] Setting up pool1
I0528 23:39:24.150519 19347 net.cpp:157] Top shape: 1024 100 21 21 (45158400)
I0528 23:39:24.150528 19347 net.cpp:165] Memory required for data: 1654030336
I0528 23:39:24.150534 19347 layer_factory.hpp:77] Creating layer conv2
I0528 23:39:24.150552 19347 net.cpp:100] Creating Layer conv2
I0528 23:39:24.150560 19347 net.cpp:434] conv2 <- pool1
I0528 23:39:24.150576 19347 net.cpp:408] conv2 -> conv2
I0528 23:39:24.153544 19347 net.cpp:150] Setting up conv2
I0528 23:39:24.153568 19347 net.cpp:157] Top shape: 1024 150 18 18 (49766400)
I0528 23:39:24.153573 19347 net.cpp:165] Memory required for data: 1853095936
I0528 23:39:24.153584 19347 layer_factory.hpp:77] Creating layer conv2_relu
I0528 23:39:24.153595 19347 net.cpp:100] Creating Layer conv2_relu
I0528 23:39:24.153604 19347 net.cpp:434] conv2_relu <- conv2
I0528 23:39:24.153611 19347 net.cpp:395] conv2_relu -> conv2 (in-place)
I0528 23:39:24.153786 19347 net.cpp:150] Setting up conv2_relu
I0528 23:39:24.153800 19347 net.cpp:157] Top shape: 1024 150 18 18 (49766400)
I0528 23:39:24.153805 19347 net.cpp:165] Memory required for data: 2052161536
I0528 23:39:24.153811 19347 layer_factory.hpp:77] Creating layer pool2
I0528 23:39:24.153823 19347 net.cpp:100] Creating Layer pool2
I0528 23:39:24.153831 19347 net.cpp:434] pool2 <- conv2
I0528 23:39:24.153839 19347 net.cpp:408] pool2 -> pool2
I0528 23:39:24.153887 19347 net.cpp:150] Setting up pool2
I0528 23:39:24.153900 19347 net.cpp:157] Top shape: 1024 150 9 9 (12441600)
I0528 23:39:24.153909 19347 net.cpp:165] Memory required for data: 2101927936
I0528 23:39:24.153915 19347 layer_factory.hpp:77] Creating layer conv3
I0528 23:39:24.153929 19347 net.cpp:100] Creating Layer conv3
I0528 23:39:24.153940 19347 net.cpp:434] conv3 <- pool2
I0528 23:39:24.153949 19347 net.cpp:408] conv3 -> conv3
I0528 23:39:24.158723 19347 net.cpp:150] Setting up conv3
I0528 23:39:24.158746 19347 net.cpp:157] Top shape: 1024 250 6 6 (9216000)
I0528 23:39:24.158751 19347 net.cpp:165] Memory required for data: 2138791936
I0528 23:39:24.158762 19347 layer_factory.hpp:77] Creating layer conv3_relu
I0528 23:39:24.158774 19347 net.cpp:100] Creating Layer conv3_relu
I0528 23:39:24.158783 19347 net.cpp:434] conv3_relu <- conv3
I0528 23:39:24.158790 19347 net.cpp:395] conv3_relu -> conv3 (in-place)
I0528 23:39:24.159168 19347 net.cpp:150] Setting up conv3_relu
I0528 23:39:24.159181 19347 net.cpp:157] Top shape: 1024 250 6 6 (9216000)
I0528 23:39:24.159188 19347 net.cpp:165] Memory required for data: 2175655936
I0528 23:39:24.159193 19347 layer_factory.hpp:77] Creating layer pool3
I0528 23:39:24.159206 19347 net.cpp:100] Creating Layer pool3
I0528 23:39:24.159215 19347 net.cpp:434] pool3 <- conv3
I0528 23:39:24.159224 19347 net.cpp:408] pool3 -> pool3
I0528 23:39:24.159274 19347 net.cpp:150] Setting up pool3
I0528 23:39:24.159286 19347 net.cpp:157] Top shape: 1024 250 3 3 (2304000)
I0528 23:39:24.159294 19347 net.cpp:165] Memory required for data: 2184871936
I0528 23:39:24.159301 19347 layer_factory.hpp:77] Creating layer fc4_300
I0528 23:39:24.159312 19347 net.cpp:100] Creating Layer fc4_300
I0528 23:39:24.159319 19347 net.cpp:434] fc4_300 <- pool3
I0528 23:39:24.159327 19347 net.cpp:408] fc4_300 -> fc4_300
I0528 23:39:24.163789 19347 net.cpp:150] Setting up fc4_300
I0528 23:39:24.163803 19347 net.cpp:157] Top shape: 1024 300 (307200)
I0528 23:39:24.163807 19347 net.cpp:165] Memory required for data: 2186100736
I0528 23:39:24.163815 19347 layer_factory.hpp:77] Creating layer fc4_relu
I0528 23:39:24.163822 19347 net.cpp:100] Creating Layer fc4_relu
I0528 23:39:24.163830 19347 net.cpp:434] fc4_relu <- fc4_300
I0528 23:39:24.163836 19347 net.cpp:395] fc4_relu -> fc4_300 (in-place)
I0528 23:39:24.164024 19347 net.cpp:150] Setting up fc4_relu
I0528 23:39:24.164037 19347 net.cpp:157] Top shape: 1024 300 (307200)
I0528 23:39:24.164041 19347 net.cpp:165] Memory required for data: 2187329536
I0528 23:39:24.164046 19347 layer_factory.hpp:77] Creating layer fc5_116
I0528 23:39:24.164054 19347 net.cpp:100] Creating Layer fc5_116
I0528 23:39:24.164062 19347 net.cpp:434] fc5_116 <- fc4_300
I0528 23:39:24.164070 19347 net.cpp:408] fc5_116 -> fc5_classes
I0528 23:39:24.170572 19347 net.cpp:150] Setting up fc5_116
I0528 23:39:24.170588 19347 net.cpp:157] Top shape: 1024 116 (118784)
I0528 23:39:24.170594 19347 net.cpp:165] Memory required for data: 2187804672
I0528 23:39:24.170603 19347 layer_factory.hpp:77] Creating layer fc5_classes_fc5_116_0_split
I0528 23:39:24.170616 19347 net.cpp:100] Creating Layer fc5_classes_fc5_116_0_split
I0528 23:39:24.170624 19347 net.cpp:434] fc5_classes_fc5_116_0_split <- fc5_classes
I0528 23:39:24.170632 19347 net.cpp:408] fc5_classes_fc5_116_0_split -> fc5_classes_fc5_116_0_split_0
I0528 23:39:24.170642 19347 net.cpp:408] fc5_classes_fc5_116_0_split -> fc5_classes_fc5_116_0_split_1
I0528 23:39:24.170651 19347 net.cpp:408] fc5_classes_fc5_116_0_split -> fc5_classes_fc5_116_0_split_2
I0528 23:39:24.170714 19347 net.cpp:150] Setting up fc5_classes_fc5_116_0_split
I0528 23:39:24.170728 19347 net.cpp:157] Top shape: 1024 116 (118784)
I0528 23:39:24.170734 19347 net.cpp:157] Top shape: 1024 116 (118784)
I0528 23:39:24.170744 19347 net.cpp:157] Top shape: 1024 116 (118784)
I0528 23:39:24.170750 19347 net.cpp:165] Memory required for data: 2189230080
I0528 23:39:24.170756 19347 layer_factory.hpp:77] Creating layer softmax
I0528 23:39:24.170768 19347 net.cpp:100] Creating Layer softmax
I0528 23:39:24.170773 19347 net.cpp:434] softmax <- fc5_classes_fc5_116_0_split_0
I0528 23:39:24.170784 19347 net.cpp:408] softmax -> softmax
I0528 23:39:24.171038 19347 net.cpp:150] Setting up softmax
I0528 23:39:24.171056 19347 net.cpp:157] Top shape: 1024 116 (118784)
I0528 23:39:24.171063 19347 net.cpp:165] Memory required for data: 2189705216
I0528 23:39:24.171072 19347 layer_factory.hpp:77] Creating layer loss
I0528 23:39:24.171102 19347 net.cpp:100] Creating Layer loss
I0528 23:39:24.171109 19347 net.cpp:434] loss <- softmax
I0528 23:39:24.171118 19347 net.cpp:434] loss <- label_data_1_split_0
I0528 23:39:24.171128 19347 net.cpp:408] loss -> loss
…
