…
I0414 04:54:49.771282 11441 solver.cpp:93] Creating training net from train_net file: ./Prototxt/experiment_11/rtsd-r1/orig/trial_4/train.prototxt
I0414 04:54:49.771740 11441 net.cpp:58] Initializing net from parameters: 
state {
  phase: TRAIN
  level: 0
  stage: ""
}
layer {
  name: "data"
  type: "Data"
  top: "data"
  top: "label"
  include {
    phase: TRAIN
  }
  transform_param {
    scale: 0.0039215689
    mirror: false
    crop_size: 48
    mean_value: 122
    mean_value: 115
    mean_value: 129
  }
  data_param {
    source: "../local_data/lmdb/rtsd-r1/orig/train/lmdb"
    batch_size: 1024
    backend: LMDB
  }
}
layer {
  name: "conv1"
  type: "Convolution"
  bottom: "data"
  top: "conv1"
  convolution_param {
    num_output: 100
    pad: 0
    kernel_size: 7
    group: 1
    stride: 1
    weight_filler {
      type: "xavier"
    }
  }
}
layer {
  name: "conv1_prescale"
  type: "Scale"
  bottom: "conv1"
  top: "conv1"
  param {
    lr_mult: 0
    decay_mult: 0
  }
  scale_param {
    filler {
      value: 0.6666
    }
    bias_term: false
  }
}
layer {
  name: "conv1_sTanH"
  type: "TanH"
  bottom: "conv1"
  top: "conv1"
}
layer {
  name: "conv1_postscale"
  type: "Scale"
  bottom: "conv1"
  top: "conv1"
  param {
    lr_mult: 0
    decay_mult: 0
  }
  scale_param {
    filler {
      value: 1.7159
    }
    bias_term: false
  }
}
layer {
  name: "pool1"
  type: "Pooling"
  bottom: "conv1"
  top: "pool1"
  pooling_param {
    pool: MAX
    kernel_size: 2
    stride: 2
  }
}
layer {
  name: "conv2"
  type: "Convolution"
  bottom: "pool1"
  top: "conv2"
  convolution_param {
    num_output: 150
    pad: 0
    kernel_size: 4
    group: 1
    stride: 1
    weight_filler {
      type: "xavier"
    }
  }
}
layer {
  name: "conv2_prescale"
  type: "Scale"
  bottom: "conv2"
  top: "conv2"
  param {
    lr_mult: 0
    decay_mult: 0
  }
  scale_param {
    filler {
      value: 0.6666
    }
    bias_term: false
  }
}
layer {
  name: "conv2_sTanH"
  type: "TanH"
  bottom: "conv2"
  top: "conv2"
}
layer {
  name: "conv2_postscale"
  type: "Scale"
  bottom: "conv2"
  top: "conv2"
  param {
    lr_mult: 0
    decay_mult: 0
  }
  scale_param {
    filler {
      value: 1.7159
    }
    bias_term: false
  }
}
layer {
  name: "pool2"
  type: "Pooling"
  bottom: "conv2"
  top: "pool2"
  pooling_param {
    pool: MAX
    kernel_size: 2
    stride: 2
  }
}
layer {
  name: "conv3"
  type: "Convolution"
  bottom: "pool2"
  top: "conv3"
  convolution_param {
    num_output: 250
    pad: 0
    kernel_size: 4
    group: 1
    stride: 1
    weight_filler {
      type: "xavier"
    }
  }
}
layer {
  name: "conv3_prescale"
  type: "Scale"
  bottom: "conv3"
  top: "conv3"
  param {
    lr_mult: 0
    decay_mult: 0
  }
  scale_param {
    filler {
      value: 0.6666
    }
    bias_term: false
  }
}
layer {
  name: "conv3_sTanH"
  type: "TanH"
  bottom: "conv3"
  top: "conv3"
}
layer {
  name: "conv3_postscale"
  type: "Scale"
  bottom: "conv3"
  top: "conv3"
  param {
    lr_mult: 0
    decay_mult: 0
  }
  scale_param {
    filler {
      value: 1.7159
    }
    bias_term: false
  }
}
layer {
  name: "pool3"
  type: "Pooling"
  bottom: "conv3"
  top: "pool3"
  pooling_param {
    pool: MAX
    kernel_size: 2
    stride: 2
  }
}
layer {
  name: "fc4_300"
  type: "InnerProduct"
  bottom: "pool3"
  top: "fc4_300"
  inner_product_param {
    num_output: 300
    weight_filler {
      type: "xavier"
    }
  }
}
layer {
  name: "fc4_prescale"
  type: "Scale"
  bottom: "fc4_300"
  top: "fc4_300"
  param {
    lr_mult: 0
    decay_mult: 0
  }
  scale_param {
    filler {
      value: 0.6666
    }
    bias_term: false
  }
}
layer {
  name: "fc4_sTanH"
  type: "TanH"
  bottom: "fc4_300"
  top: "fc4_300"
}
layer {
  name: "fc4_postscale"
  type: "Scale"
  bottom: "fc4_300"
  top: "fc4_300"
  param {
    lr_mult: 0
    decay_mult: 0
  }
  scale_param {
    filler {
      value: 1.7159
    }
    bias_term: false
  }
}
layer {
  name: "fc5_67"
  type: "InnerProduct"
  bottom: "fc4_300"
  top: "fc5_classes"
  inner_product_param {
    num_output: 67
    weight_filler {
      type: "xavier"
    }
  }
}
layer {
  name: "softmax"
  type: "Softmax"
  bottom: "fc5_classes"
  top: "softmax"
}
layer {
  name: "loss"
  type: "MultinomialLogisticLoss"
  bottom: "softmax"
  bottom: "label"
  top: "loss"
}
layer {
  name: "accuracy_1"
  type: "Accuracy"
  bottom: "fc5_classes"
  bottom: "label"
  top: "accuracy_1"
  accuracy_param {
    top_k: 1
  }
}
layer {
  name: "accuracy_5"
  type: "Accuracy"
  bottom: "fc5_classes"
  bottom: "label"
  top: "accuracy_5"
  accuracy_param {
    top_k: 5
  }
}
layer {
  name: "silence"
  type: "Silence"
  bottom: "accuracy_1"
  bottom: "accuracy_5"
}
I0414 04:54:49.771908 11441 layer_factory.hpp:77] Creating layer data
I0414 04:54:49.772967 11441 net.cpp:100] Creating Layer data
I0414 04:54:49.772980 11441 net.cpp:408] data -> data
I0414 04:54:49.773002 11441 net.cpp:408] data -> label
I0414 04:54:49.776284 11617 db_lmdb.cpp:35] Opened lmdb ../local_data/lmdb/rtsd-r1/orig/train/lmdb
I0414 04:54:49.793872 11441 data_layer.cpp:41] output data size: 1024,3,48,48
I0414 04:54:49.902102 11441 net.cpp:150] Setting up data
I0414 04:54:49.902134 11441 net.cpp:157] Top shape: 1024 3 48 48 (7077888)
I0414 04:54:49.902142 11441 net.cpp:157] Top shape: 1024 (1024)
I0414 04:54:49.902144 11441 net.cpp:165] Memory required for data: 28315648
I0414 04:54:49.902159 11441 layer_factory.hpp:77] Creating layer label_data_1_split
I0414 04:54:49.902176 11441 net.cpp:100] Creating Layer label_data_1_split
I0414 04:54:49.902185 11441 net.cpp:434] label_data_1_split <- label
I0414 04:54:49.902202 11441 net.cpp:408] label_data_1_split -> label_data_1_split_0
I0414 04:54:49.902216 11441 net.cpp:408] label_data_1_split -> label_data_1_split_1
I0414 04:54:49.902226 11441 net.cpp:408] label_data_1_split -> label_data_1_split_2
I0414 04:54:49.902302 11441 net.cpp:150] Setting up label_data_1_split
I0414 04:54:49.902312 11441 net.cpp:157] Top shape: 1024 (1024)
I0414 04:54:49.902318 11441 net.cpp:157] Top shape: 1024 (1024)
I0414 04:54:49.902321 11441 net.cpp:157] Top shape: 1024 (1024)
I0414 04:54:49.902326 11441 net.cpp:165] Memory required for data: 28327936
I0414 04:54:49.902329 11441 layer_factory.hpp:77] Creating layer conv1
I0414 04:54:49.902348 11441 net.cpp:100] Creating Layer conv1
I0414 04:54:49.902354 11441 net.cpp:434] conv1 <- data
I0414 04:54:49.902360 11441 net.cpp:408] conv1 -> conv1
I0414 04:54:50.408130 11441 net.cpp:150] Setting up conv1
I0414 04:54:50.408166 11441 net.cpp:157] Top shape: 1024 100 42 42 (180633600)
I0414 04:54:50.408170 11441 net.cpp:165] Memory required for data: 750862336
I0414 04:54:50.408195 11441 layer_factory.hpp:77] Creating layer conv1_prescale
I0414 04:54:50.408207 11441 net.cpp:100] Creating Layer conv1_prescale
I0414 04:54:50.408219 11441 net.cpp:434] conv1_prescale <- conv1
I0414 04:54:50.408226 11441 net.cpp:395] conv1_prescale -> conv1 (in-place)
I0414 04:54:50.408361 11441 net.cpp:150] Setting up conv1_prescale
I0414 04:54:50.408371 11441 net.cpp:157] Top shape: 1024 100 42 42 (180633600)
I0414 04:54:50.408375 11441 net.cpp:165] Memory required for data: 1473396736
I0414 04:54:50.408381 11441 layer_factory.hpp:77] Creating layer conv1_sTanH
I0414 04:54:50.408391 11441 net.cpp:100] Creating Layer conv1_sTanH
I0414 04:54:50.408396 11441 net.cpp:434] conv1_sTanH <- conv1
I0414 04:54:50.408401 11441 net.cpp:395] conv1_sTanH -> conv1 (in-place)
I0414 04:54:50.408637 11441 net.cpp:150] Setting up conv1_sTanH
I0414 04:54:50.408651 11441 net.cpp:157] Top shape: 1024 100 42 42 (180633600)
I0414 04:54:50.408675 11441 net.cpp:165] Memory required for data: 2195931136
I0414 04:54:50.408680 11441 layer_factory.hpp:77] Creating layer conv1_postscale
I0414 04:54:50.408687 11441 net.cpp:100] Creating Layer conv1_postscale
I0414 04:54:50.408692 11441 net.cpp:434] conv1_postscale <- conv1
I0414 04:54:50.408699 11441 net.cpp:395] conv1_postscale -> conv1 (in-place)
I0414 04:54:50.408807 11441 net.cpp:150] Setting up conv1_postscale
I0414 04:54:50.408815 11441 net.cpp:157] Top shape: 1024 100 42 42 (180633600)
I0414 04:54:50.408818 11441 net.cpp:165] Memory required for data: 2918465536
I0414 04:54:50.408823 11441 layer_factory.hpp:77] Creating layer pool1
I0414 04:54:50.408830 11441 net.cpp:100] Creating Layer pool1
I0414 04:54:50.408833 11441 net.cpp:434] pool1 <- conv1
I0414 04:54:50.408840 11441 net.cpp:408] pool1 -> pool1
I0414 04:54:50.408892 11441 net.cpp:150] Setting up pool1
I0414 04:54:50.408901 11441 net.cpp:157] Top shape: 1024 100 21 21 (45158400)
I0414 04:54:50.408905 11441 net.cpp:165] Memory required for data: 3099099136
I0414 04:54:50.408907 11441 layer_factory.hpp:77] Creating layer conv2
I0414 04:54:50.408918 11441 net.cpp:100] Creating Layer conv2
I0414 04:54:50.408923 11441 net.cpp:434] conv2 <- pool1
I0414 04:54:50.408929 11441 net.cpp:408] conv2 -> conv2
I0414 04:54:50.421231 11441 net.cpp:150] Setting up conv2
I0414 04:54:50.421267 11441 net.cpp:157] Top shape: 1024 150 18 18 (49766400)
I0414 04:54:50.421277 11441 net.cpp:165] Memory required for data: 3298164736
I0414 04:54:50.421296 11441 layer_factory.hpp:77] Creating layer conv2_prescale
I0414 04:54:50.421320 11441 net.cpp:100] Creating Layer conv2_prescale
I0414 04:54:50.421329 11441 net.cpp:434] conv2_prescale <- conv2
I0414 04:54:50.421340 11441 net.cpp:395] conv2_prescale -> conv2 (in-place)
I0414 04:54:50.421545 11441 net.cpp:150] Setting up conv2_prescale
I0414 04:54:50.421561 11441 net.cpp:157] Top shape: 1024 150 18 18 (49766400)
I0414 04:54:50.421567 11441 net.cpp:165] Memory required for data: 3497230336
I0414 04:54:50.421576 11441 layer_factory.hpp:77] Creating layer conv2_sTanH
I0414 04:54:50.421587 11441 net.cpp:100] Creating Layer conv2_sTanH
I0414 04:54:50.421594 11441 net.cpp:434] conv2_sTanH <- conv2
I0414 04:54:50.421604 11441 net.cpp:395] conv2_sTanH -> conv2 (in-place)
I0414 04:54:50.423821 11441 net.cpp:150] Setting up conv2_sTanH
I0414 04:54:50.423851 11441 net.cpp:157] Top shape: 1024 150 18 18 (49766400)
I0414 04:54:50.423862 11441 net.cpp:165] Memory required for data: 3696295936
I0414 04:54:50.423869 11441 layer_factory.hpp:77] Creating layer conv2_postscale
I0414 04:54:50.423902 11441 net.cpp:100] Creating Layer conv2_postscale
I0414 04:54:50.423913 11441 net.cpp:434] conv2_postscale <- conv2
I0414 04:54:50.423923 11441 net.cpp:395] conv2_postscale -> conv2 (in-place)
I0414 04:54:50.424118 11441 net.cpp:150] Setting up conv2_postscale
I0414 04:54:50.424132 11441 net.cpp:157] Top shape: 1024 150 18 18 (49766400)
I0414 04:54:50.424139 11441 net.cpp:165] Memory required for data: 3895361536
I0414 04:54:50.424147 11441 layer_factory.hpp:77] Creating layer pool2
I0414 04:54:50.424160 11441 net.cpp:100] Creating Layer pool2
I0414 04:54:50.424167 11441 net.cpp:434] pool2 <- conv2
I0414 04:54:50.424175 11441 net.cpp:408] pool2 -> pool2
I0414 04:54:50.424252 11441 net.cpp:150] Setting up pool2
I0414 04:54:50.424263 11441 net.cpp:157] Top shape: 1024 150 9 9 (12441600)
I0414 04:54:50.424269 11441 net.cpp:165] Memory required for data: 3945127936
I0414 04:54:50.424274 11441 layer_factory.hpp:77] Creating layer conv3
I0414 04:54:50.424289 11441 net.cpp:100] Creating Layer conv3
I0414 04:54:50.424298 11441 net.cpp:434] conv3 <- pool2
I0414 04:54:50.424309 11441 net.cpp:408] conv3 -> conv3
I0414 04:54:50.437181 11441 net.cpp:150] Setting up conv3
I0414 04:54:50.437237 11441 net.cpp:157] Top shape: 1024 250 6 6 (9216000)
I0414 04:54:50.437254 11441 net.cpp:165] Memory required for data: 3981991936
I0414 04:54:50.437281 11441 layer_factory.hpp:77] Creating layer conv3_prescale
I0414 04:54:50.437350 11441 net.cpp:100] Creating Layer conv3_prescale
I0414 04:54:50.437364 11441 net.cpp:434] conv3_prescale <- conv3
I0414 04:54:50.437381 11441 net.cpp:395] conv3_prescale -> conv3 (in-place)
I0414 04:54:50.437633 11441 net.cpp:150] Setting up conv3_prescale
I0414 04:54:50.437655 11441 net.cpp:157] Top shape: 1024 250 6 6 (9216000)
I0414 04:54:50.437672 11441 net.cpp:165] Memory required for data: 4018855936
I0414 04:54:50.437685 11441 layer_factory.hpp:77] Creating layer conv3_sTanH
I0414 04:54:50.437702 11441 net.cpp:100] Creating Layer conv3_sTanH
I0414 04:54:50.437714 11441 net.cpp:434] conv3_sTanH <- conv3
I0414 04:54:50.437729 11441 net.cpp:395] conv3_sTanH -> conv3 (in-place)
I0414 04:54:50.446286 11441 net.cpp:150] Setting up conv3_sTanH
I0414 04:54:50.446324 11441 net.cpp:157] Top shape: 1024 250 6 6 (9216000)
I0414 04:54:50.446331 11441 net.cpp:165] Memory required for data: 4055719936
I0414 04:54:50.446338 11441 layer_factory.hpp:77] Creating layer conv3_postscale
I0414 04:54:50.446362 11441 net.cpp:100] Creating Layer conv3_postscale
I0414 04:54:50.446372 11441 net.cpp:434] conv3_postscale <- conv3
I0414 04:54:50.446382 11441 net.cpp:395] conv3_postscale -> conv3 (in-place)
I0414 04:54:50.446581 11441 net.cpp:150] Setting up conv3_postscale
I0414 04:54:50.446596 11441 net.cpp:157] Top shape: 1024 250 6 6 (9216000)
I0414 04:54:50.446604 11441 net.cpp:165] Memory required for data: 4092583936
I0414 04:54:50.446612 11441 layer_factory.hpp:77] Creating layer pool3
I0414 04:54:50.446632 11441 net.cpp:100] Creating Layer pool3
I0414 04:54:50.446640 11441 net.cpp:434] pool3 <- conv3
I0414 04:54:50.446650 11441 net.cpp:408] pool3 -> pool3
I0414 04:54:50.446722 11441 net.cpp:150] Setting up pool3
I0414 04:54:50.446734 11441 net.cpp:157] Top shape: 1024 250 3 3 (2304000)
I0414 04:54:50.446741 11441 net.cpp:165] Memory required for data: 4101799936
I0414 04:54:50.446745 11441 layer_factory.hpp:77] Creating layer fc4_300
I0414 04:54:50.446758 11441 net.cpp:100] Creating Layer fc4_300
I0414 04:54:50.446765 11441 net.cpp:434] fc4_300 <- pool3
I0414 04:54:50.446774 11441 net.cpp:408] fc4_300 -> fc4_300
I0414 04:54:50.456341 11441 net.cpp:150] Setting up fc4_300
I0414 04:54:50.456370 11441 net.cpp:157] Top shape: 1024 300 (307200)
I0414 04:54:50.456375 11441 net.cpp:165] Memory required for data: 4103028736
I0414 04:54:50.456387 11441 layer_factory.hpp:77] Creating layer fc4_prescale
I0414 04:54:50.456404 11441 net.cpp:100] Creating Layer fc4_prescale
I0414 04:54:50.456413 11441 net.cpp:434] fc4_prescale <- fc4_300
I0414 04:54:50.456423 11441 net.cpp:395] fc4_prescale -> fc4_300 (in-place)
I0414 04:54:50.456569 11441 net.cpp:150] Setting up fc4_prescale
I0414 04:54:50.456581 11441 net.cpp:157] Top shape: 1024 300 (307200)
I0414 04:54:50.456588 11441 net.cpp:165] Memory required for data: 4104257536
I0414 04:54:50.456594 11441 layer_factory.hpp:77] Creating layer fc4_sTanH
I0414 04:54:50.456604 11441 net.cpp:100] Creating Layer fc4_sTanH
I0414 04:54:50.456611 11441 net.cpp:434] fc4_sTanH <- fc4_300
I0414 04:54:50.456619 11441 net.cpp:395] fc4_sTanH -> fc4_300 (in-place)
I0414 04:54:50.456950 11441 net.cpp:150] Setting up fc4_sTanH
I0414 04:54:50.456965 11441 net.cpp:157] Top shape: 1024 300 (307200)
I0414 04:54:50.456972 11441 net.cpp:165] Memory required for data: 4105486336
I0414 04:54:50.456977 11441 layer_factory.hpp:77] Creating layer fc4_postscale
I0414 04:54:50.456989 11441 net.cpp:100] Creating Layer fc4_postscale
I0414 04:54:50.456995 11441 net.cpp:434] fc4_postscale <- fc4_300
I0414 04:54:50.457005 11441 net.cpp:395] fc4_postscale -> fc4_300 (in-place)
I0414 04:54:50.457165 11441 net.cpp:150] Setting up fc4_postscale
I0414 04:54:50.457176 11441 net.cpp:157] Top shape: 1024 300 (307200)
I0414 04:54:50.457182 11441 net.cpp:165] Memory required for data: 4106715136
I0414 04:54:50.457190 11441 layer_factory.hpp:77] Creating layer fc5_67
I0414 04:54:50.457206 11441 net.cpp:100] Creating Layer fc5_67
I0414 04:54:50.457214 11441 net.cpp:434] fc5_67 <- fc4_300
I0414 04:54:50.457223 11441 net.cpp:408] fc5_67 -> fc5_classes
I0414 04:54:50.466672 11441 net.cpp:150] Setting up fc5_67
I0414 04:54:50.466693 11441 net.cpp:157] Top shape: 1024 67 (68608)
I0414 04:54:50.466699 11441 net.cpp:165] Memory required for data: 4106989568
I0414 04:54:50.466718 11441 layer_factory.hpp:77] Creating layer fc5_classes_fc5_67_0_split
I0414 04:54:50.466732 11441 net.cpp:100] Creating Layer fc5_classes_fc5_67_0_split
I0414 04:54:50.466738 11441 net.cpp:434] fc5_classes_fc5_67_0_split <- fc5_classes
I0414 04:54:50.466747 11441 net.cpp:408] fc5_classes_fc5_67_0_split -> fc5_classes_fc5_67_0_split_0
I0414 04:54:50.466759 11441 net.cpp:408] fc5_classes_fc5_67_0_split -> fc5_classes_fc5_67_0_split_1
I0414 04:54:50.466770 11441 net.cpp:408] fc5_classes_fc5_67_0_split -> fc5_classes_fc5_67_0_split_2
I0414 04:54:50.466851 11441 net.cpp:150] Setting up fc5_classes_fc5_67_0_split
I0414 04:54:50.466861 11441 net.cpp:157] Top shape: 1024 67 (68608)
I0414 04:54:50.466867 11441 net.cpp:157] Top shape: 1024 67 (68608)
I0414 04:54:50.466871 11441 net.cpp:157] Top shape: 1024 67 (68608)
I0414 04:54:50.466876 11441 net.cpp:165] Memory required for data: 4107812864
I0414 04:54:50.466879 11441 layer_factory.hpp:77] Creating layer softmax
I0414 04:54:50.466888 11441 net.cpp:100] Creating Layer softmax
I0414 04:54:50.466894 11441 net.cpp:434] softmax <- fc5_classes_fc5_67_0_split_0
I0414 04:54:50.466902 11441 net.cpp:408] softmax -> softmax
I0414 04:54:50.467295 11441 net.cpp:150] Setting up softmax
I0414 04:54:50.467310 11441 net.cpp:157] Top shape: 1024 67 (68608)
I0414 04:54:50.467316 11441 net.cpp:165] Memory required for data: 4108087296
I0414 04:54:50.467321 11441 layer_factory.hpp:77] Creating layer loss
I0414 04:54:50.467332 11441 net.cpp:100] Creating Layer loss
I0414 04:54:50.467339 11441 net.cpp:434] loss <- softmax
I0414 04:54:50.467345 11441 net.cpp:434] loss <- label_data_1_split_0
I0414 04:54:50.467352 11441 net.cpp:408] loss -> loss
…
