…
I0417 17:49:22.661231 25831 solver.cpp:93] Creating training net from train_net file: ./Prototxt/experiment_11/rtsd-r1/orig/trial_4/train.prototxt
I0417 17:49:22.661687 25831 net.cpp:58] Initializing net from parameters: 
state {
  phase: TRAIN
  level: 0
  stage: ""
}
layer {
  name: "data"
  type: "Data"
  top: "data"
  top: "label"
  include {
    phase: TRAIN
  }
  transform_param {
    scale: 0.0039215689
    mirror: false
    crop_size: 48
    mean_value: 122
    mean_value: 115
    mean_value: 129
  }
  data_param {
    source: "../local_data/lmdb/rtsd-r1/orig/train/lmdb"
    batch_size: 1024
    backend: LMDB
  }
}
layer {
  name: "conv1"
  type: "Convolution"
  bottom: "data"
  top: "conv1"
  convolution_param {
    num_output: 100
    pad: 0
    kernel_size: 7
    group: 1
    stride: 1
    weight_filler {
      type: "xavier"
    }
  }
}
layer {
  name: "conv1_prescale"
  type: "Scale"
  bottom: "conv1"
  top: "conv1"
  param {
    lr_mult: 0
    decay_mult: 0
  }
  scale_param {
    filler {
      value: 0.6666
    }
    bias_term: false
  }
}
layer {
  name: "conv1_sTanH"
  type: "TanH"
  bottom: "conv1"
  top: "conv1"
}
layer {
  name: "conv1_postscale"
  type: "Scale"
  bottom: "conv1"
  top: "conv1"
  param {
    lr_mult: 0
    decay_mult: 0
  }
  scale_param {
    filler {
      value: 1.7159
    }
    bias_term: false
  }
}
layer {
  name: "pool1"
  type: "Pooling"
  bottom: "conv1"
  top: "pool1"
  pooling_param {
    pool: MAX
    kernel_size: 2
    stride: 2
  }
}
layer {
  name: "conv2"
  type: "Convolution"
  bottom: "pool1"
  top: "conv2"
  convolution_param {
    num_output: 150
    pad: 0
    kernel_size: 4
    group: 1
    stride: 1
    weight_filler {
      type: "xavier"
    }
  }
}
layer {
  name: "conv2_prescale"
  type: "Scale"
  bottom: "conv2"
  top: "conv2"
  param {
    lr_mult: 0
    decay_mult: 0
  }
  scale_param {
    filler {
      value: 0.6666
    }
    bias_term: false
  }
}
layer {
  name: "conv2_sTanH"
  type: "TanH"
  bottom: "conv2"
  top: "conv2"
}
layer {
  name: "conv2_postscale"
  type: "Scale"
  bottom: "conv2"
  top: "conv2"
  param {
    lr_mult: 0
    decay_mult: 0
  }
  scale_param {
    filler {
      value: 1.7159
    }
    bias_term: false
  }
}
layer {
  name: "pool2"
  type: "Pooling"
  bottom: "conv2"
  top: "pool2"
  pooling_param {
    pool: MAX
    kernel_size: 2
    stride: 2
  }
}
layer {
  name: "conv3"
  type: "Convolution"
  bottom: "pool2"
  top: "conv3"
  convolution_param {
    num_output: 250
    pad: 0
    kernel_size: 4
    group: 1
    stride: 1
    weight_filler {
      type: "xavier"
    }
  }
}
layer {
  name: "conv3_prescale"
  type: "Scale"
  bottom: "conv3"
  top: "conv3"
  param {
    lr_mult: 0
    decay_mult: 0
  }
  scale_param {
    filler {
      value: 0.6666
    }
    bias_term: false
  }
}
layer {
  name: "conv3_sTanH"
  type: "TanH"
  bottom: "conv3"
  top: "conv3"
}
layer {
  name: "conv3_postscale"
  type: "Scale"
  bottom: "conv3"
  top: "conv3"
  param {
    lr_mult: 0
    decay_mult: 0
  }
  scale_param {
    filler {
      value: 1.7159
    }
    bias_term: false
  }
}
layer {
  name: "pool3"
  type: "Pooling"
  bottom: "conv3"
  top: "pool3"
  pooling_param {
    pool: MAX
    kernel_size: 2
    stride: 2
  }
}
layer {
  name: "fc4_300"
  type: "InnerProduct"
  bottom: "pool3"
  top: "fc4_300"
  inner_product_param {
    num_output: 300
    weight_filler {
      type: "xavier"
    }
  }
}
layer {
  name: "fc4_prescale"
  type: "Scale"
  bottom: "fc4_300"
  top: "fc4_300"
  param {
    lr_mult: 0
    decay_mult: 0
  }
  scale_param {
    filler {
      value: 0.6666
    }
    bias_term: false
  }
}
layer {
  name: "fc4_sTanH"
  type: "TanH"
  bottom: "fc4_300"
  top: "fc4_300"
}
layer {
  name: "fc4_postscale"
  type: "Scale"
  bottom: "fc4_300"
  top: "fc4_300"
  param {
    lr_mult: 0
    decay_mult: 0
  }
  scale_param {
    filler {
      value: 1.7159
    }
    bias_term: false
  }
}
layer {
  name: "fc5_67"
  type: "InnerProduct"
  bottom: "fc4_300"
  top: "fc5_classes"
  inner_product_param {
    num_output: 67
    weight_filler {
      type: "xavier"
    }
  }
}
layer {
  name: "softmax"
  type: "Softmax"
  bottom: "fc5_classes"
  top: "softmax"
}
layer {
  name: "loss"
  type: "MultinomialLogisticLoss"
  bottom: "softmax"
  bottom: "label"
  top: "loss"
}
layer {
  name: "accuracy_1"
  type: "Accuracy"
  bottom: "fc5_classes"
  bottom: "label"
  top: "accuracy_1"
  accuracy_param {
    top_k: 1
  }
}
layer {
  name: "accuracy_5"
  type: "Accuracy"
  bottom: "fc5_classes"
  bottom: "label"
  top: "accuracy_5"
  accuracy_param {
    top_k: 5
  }
}
layer {
  name: "silence"
  type: "Silence"
  bottom: "accuracy_1"
  bottom: "accuracy_5"
}
I0417 17:49:22.661841 25831 layer_factory.hpp:77] Creating layer data
I0417 17:49:22.663111 25831 net.cpp:100] Creating Layer data
I0417 17:49:22.663128 25831 net.cpp:408] data -> data
I0417 17:49:22.663151 25831 net.cpp:408] data -> label
I0417 17:49:22.667459 25945 db_lmdb.cpp:35] Opened lmdb ../local_data/lmdb/rtsd-r1/orig/train/lmdb
I0417 17:49:22.690682 25831 data_layer.cpp:41] output data size: 1024,3,48,48
I0417 17:49:22.742597 25831 net.cpp:150] Setting up data
I0417 17:49:22.742627 25831 net.cpp:157] Top shape: 1024 3 48 48 (7077888)
I0417 17:49:22.742633 25831 net.cpp:157] Top shape: 1024 (1024)
I0417 17:49:22.742636 25831 net.cpp:165] Memory required for data: 28315648
I0417 17:49:22.742647 25831 layer_factory.hpp:77] Creating layer label_data_1_split
I0417 17:49:22.742661 25831 net.cpp:100] Creating Layer label_data_1_split
I0417 17:49:22.742667 25831 net.cpp:434] label_data_1_split <- label
I0417 17:49:22.742679 25831 net.cpp:408] label_data_1_split -> label_data_1_split_0
I0417 17:49:22.742693 25831 net.cpp:408] label_data_1_split -> label_data_1_split_1
I0417 17:49:22.742702 25831 net.cpp:408] label_data_1_split -> label_data_1_split_2
I0417 17:49:22.742769 25831 net.cpp:150] Setting up label_data_1_split
I0417 17:49:22.742779 25831 net.cpp:157] Top shape: 1024 (1024)
I0417 17:49:22.742782 25831 net.cpp:157] Top shape: 1024 (1024)
I0417 17:49:22.742785 25831 net.cpp:157] Top shape: 1024 (1024)
I0417 17:49:22.742789 25831 net.cpp:165] Memory required for data: 28327936
I0417 17:49:22.742792 25831 layer_factory.hpp:77] Creating layer conv1
I0417 17:49:22.742807 25831 net.cpp:100] Creating Layer conv1
I0417 17:49:22.742812 25831 net.cpp:434] conv1 <- data
I0417 17:49:22.742818 25831 net.cpp:408] conv1 -> conv1
I0417 17:49:23.279947 25831 net.cpp:150] Setting up conv1
I0417 17:49:23.279980 25831 net.cpp:157] Top shape: 1024 100 42 42 (180633600)
I0417 17:49:23.279986 25831 net.cpp:165] Memory required for data: 750862336
I0417 17:49:23.280014 25831 layer_factory.hpp:77] Creating layer conv1_prescale
I0417 17:49:23.280030 25831 net.cpp:100] Creating Layer conv1_prescale
I0417 17:49:23.280038 25831 net.cpp:434] conv1_prescale <- conv1
I0417 17:49:23.280047 25831 net.cpp:395] conv1_prescale -> conv1 (in-place)
I0417 17:49:23.280194 25831 net.cpp:150] Setting up conv1_prescale
I0417 17:49:23.280212 25831 net.cpp:157] Top shape: 1024 100 42 42 (180633600)
I0417 17:49:23.280218 25831 net.cpp:165] Memory required for data: 1473396736
I0417 17:49:23.280227 25831 layer_factory.hpp:77] Creating layer conv1_sTanH
I0417 17:49:23.280241 25831 net.cpp:100] Creating Layer conv1_sTanH
I0417 17:49:23.280246 25831 net.cpp:434] conv1_sTanH <- conv1
I0417 17:49:23.280253 25831 net.cpp:395] conv1_sTanH -> conv1 (in-place)
I0417 17:49:23.280535 25831 net.cpp:150] Setting up conv1_sTanH
I0417 17:49:23.280550 25831 net.cpp:157] Top shape: 1024 100 42 42 (180633600)
I0417 17:49:23.280580 25831 net.cpp:165] Memory required for data: 2195931136
I0417 17:49:23.280586 25831 layer_factory.hpp:77] Creating layer conv1_postscale
I0417 17:49:23.280596 25831 net.cpp:100] Creating Layer conv1_postscale
I0417 17:49:23.280603 25831 net.cpp:434] conv1_postscale <- conv1
I0417 17:49:23.280613 25831 net.cpp:395] conv1_postscale -> conv1 (in-place)
I0417 17:49:23.280751 25831 net.cpp:150] Setting up conv1_postscale
I0417 17:49:23.280762 25831 net.cpp:157] Top shape: 1024 100 42 42 (180633600)
I0417 17:49:23.280767 25831 net.cpp:165] Memory required for data: 2918465536
I0417 17:49:23.280774 25831 layer_factory.hpp:77] Creating layer pool1
I0417 17:49:23.280786 25831 net.cpp:100] Creating Layer pool1
I0417 17:49:23.280791 25831 net.cpp:434] pool1 <- conv1
I0417 17:49:23.280799 25831 net.cpp:408] pool1 -> pool1
I0417 17:49:23.280865 25831 net.cpp:150] Setting up pool1
I0417 17:49:23.280880 25831 net.cpp:157] Top shape: 1024 100 21 21 (45158400)
I0417 17:49:23.280886 25831 net.cpp:165] Memory required for data: 3099099136
I0417 17:49:23.280890 25831 layer_factory.hpp:77] Creating layer conv2
I0417 17:49:23.280905 25831 net.cpp:100] Creating Layer conv2
I0417 17:49:23.280912 25831 net.cpp:434] conv2 <- pool1
I0417 17:49:23.280920 25831 net.cpp:408] conv2 -> conv2
I0417 17:49:23.292482 25831 net.cpp:150] Setting up conv2
I0417 17:49:23.292505 25831 net.cpp:157] Top shape: 1024 150 18 18 (49766400)
I0417 17:49:23.292511 25831 net.cpp:165] Memory required for data: 3298164736
I0417 17:49:23.292526 25831 layer_factory.hpp:77] Creating layer conv2_prescale
I0417 17:49:23.292541 25831 net.cpp:100] Creating Layer conv2_prescale
I0417 17:49:23.292548 25831 net.cpp:434] conv2_prescale <- conv2
I0417 17:49:23.292557 25831 net.cpp:395] conv2_prescale -> conv2 (in-place)
I0417 17:49:23.292703 25831 net.cpp:150] Setting up conv2_prescale
I0417 17:49:23.292713 25831 net.cpp:157] Top shape: 1024 150 18 18 (49766400)
I0417 17:49:23.292719 25831 net.cpp:165] Memory required for data: 3497230336
I0417 17:49:23.292726 25831 layer_factory.hpp:77] Creating layer conv2_sTanH
I0417 17:49:23.292737 25831 net.cpp:100] Creating Layer conv2_sTanH
I0417 17:49:23.292742 25831 net.cpp:434] conv2_sTanH <- conv2
I0417 17:49:23.292748 25831 net.cpp:395] conv2_sTanH -> conv2 (in-place)
I0417 17:49:23.294059 25831 net.cpp:150] Setting up conv2_sTanH
I0417 17:49:23.294078 25831 net.cpp:157] Top shape: 1024 150 18 18 (49766400)
I0417 17:49:23.294085 25831 net.cpp:165] Memory required for data: 3696295936
I0417 17:49:23.294090 25831 layer_factory.hpp:77] Creating layer conv2_postscale
I0417 17:49:23.294098 25831 net.cpp:100] Creating Layer conv2_postscale
I0417 17:49:23.294106 25831 net.cpp:434] conv2_postscale <- conv2
I0417 17:49:23.294114 25831 net.cpp:395] conv2_postscale -> conv2 (in-place)
I0417 17:49:23.294246 25831 net.cpp:150] Setting up conv2_postscale
I0417 17:49:23.294256 25831 net.cpp:157] Top shape: 1024 150 18 18 (49766400)
I0417 17:49:23.294260 25831 net.cpp:165] Memory required for data: 3895361536
I0417 17:49:23.294267 25831 layer_factory.hpp:77] Creating layer pool2
I0417 17:49:23.294277 25831 net.cpp:100] Creating Layer pool2
I0417 17:49:23.294283 25831 net.cpp:434] pool2 <- conv2
I0417 17:49:23.294289 25831 net.cpp:408] pool2 -> pool2
I0417 17:49:23.294348 25831 net.cpp:150] Setting up pool2
I0417 17:49:23.294359 25831 net.cpp:157] Top shape: 1024 150 9 9 (12441600)
I0417 17:49:23.294365 25831 net.cpp:165] Memory required for data: 3945127936
I0417 17:49:23.294369 25831 layer_factory.hpp:77] Creating layer conv3
I0417 17:49:23.294381 25831 net.cpp:100] Creating Layer conv3
I0417 17:49:23.294386 25831 net.cpp:434] conv3 <- pool2
I0417 17:49:23.294394 25831 net.cpp:408] conv3 -> conv3
I0417 17:49:23.301846 25831 net.cpp:150] Setting up conv3
I0417 17:49:23.301868 25831 net.cpp:157] Top shape: 1024 250 6 6 (9216000)
I0417 17:49:23.301873 25831 net.cpp:165] Memory required for data: 3981991936
I0417 17:49:23.301887 25831 layer_factory.hpp:77] Creating layer conv3_prescale
I0417 17:49:23.301916 25831 net.cpp:100] Creating Layer conv3_prescale
I0417 17:49:23.301923 25831 net.cpp:434] conv3_prescale <- conv3
I0417 17:49:23.301929 25831 net.cpp:395] conv3_prescale -> conv3 (in-place)
I0417 17:49:23.302057 25831 net.cpp:150] Setting up conv3_prescale
I0417 17:49:23.302067 25831 net.cpp:157] Top shape: 1024 250 6 6 (9216000)
I0417 17:49:23.302073 25831 net.cpp:165] Memory required for data: 4018855936
I0417 17:49:23.302079 25831 layer_factory.hpp:77] Creating layer conv3_sTanH
I0417 17:49:23.302090 25831 net.cpp:100] Creating Layer conv3_sTanH
I0417 17:49:23.302096 25831 net.cpp:434] conv3_sTanH <- conv3
I0417 17:49:23.302103 25831 net.cpp:395] conv3_sTanH -> conv3 (in-place)
I0417 17:49:23.303588 25831 net.cpp:150] Setting up conv3_sTanH
I0417 17:49:23.303607 25831 net.cpp:157] Top shape: 1024 250 6 6 (9216000)
I0417 17:49:23.303612 25831 net.cpp:165] Memory required for data: 4055719936
I0417 17:49:23.303617 25831 layer_factory.hpp:77] Creating layer conv3_postscale
I0417 17:49:23.303628 25831 net.cpp:100] Creating Layer conv3_postscale
I0417 17:49:23.303633 25831 net.cpp:434] conv3_postscale <- conv3
I0417 17:49:23.303642 25831 net.cpp:395] conv3_postscale -> conv3 (in-place)
I0417 17:49:23.303771 25831 net.cpp:150] Setting up conv3_postscale
I0417 17:49:23.303781 25831 net.cpp:157] Top shape: 1024 250 6 6 (9216000)
I0417 17:49:23.303787 25831 net.cpp:165] Memory required for data: 4092583936
I0417 17:49:23.303793 25831 layer_factory.hpp:77] Creating layer pool3
I0417 17:49:23.303808 25831 net.cpp:100] Creating Layer pool3
I0417 17:49:23.303815 25831 net.cpp:434] pool3 <- conv3
I0417 17:49:23.303822 25831 net.cpp:408] pool3 -> pool3
I0417 17:49:23.303872 25831 net.cpp:150] Setting up pool3
I0417 17:49:23.303900 25831 net.cpp:157] Top shape: 1024 250 3 3 (2304000)
I0417 17:49:23.303906 25831 net.cpp:165] Memory required for data: 4101799936
I0417 17:49:23.303910 25831 layer_factory.hpp:77] Creating layer fc4_300
I0417 17:49:23.303922 25831 net.cpp:100] Creating Layer fc4_300
I0417 17:49:23.303928 25831 net.cpp:434] fc4_300 <- pool3
I0417 17:49:23.303936 25831 net.cpp:408] fc4_300 -> fc4_300
I0417 17:49:23.311020 25831 net.cpp:150] Setting up fc4_300
I0417 17:49:23.311038 25831 net.cpp:157] Top shape: 1024 300 (307200)
I0417 17:49:23.311043 25831 net.cpp:165] Memory required for data: 4103028736
I0417 17:49:23.311050 25831 layer_factory.hpp:77] Creating layer fc4_prescale
I0417 17:49:23.311064 25831 net.cpp:100] Creating Layer fc4_prescale
I0417 17:49:23.311069 25831 net.cpp:434] fc4_prescale <- fc4_300
I0417 17:49:23.311076 25831 net.cpp:395] fc4_prescale -> fc4_300 (in-place)
I0417 17:49:23.311190 25831 net.cpp:150] Setting up fc4_prescale
I0417 17:49:23.311200 25831 net.cpp:157] Top shape: 1024 300 (307200)
I0417 17:49:23.311204 25831 net.cpp:165] Memory required for data: 4104257536
I0417 17:49:23.311215 25831 layer_factory.hpp:77] Creating layer fc4_sTanH
I0417 17:49:23.311224 25831 net.cpp:100] Creating Layer fc4_sTanH
I0417 17:49:23.311230 25831 net.cpp:434] fc4_sTanH <- fc4_300
I0417 17:49:23.311236 25831 net.cpp:395] fc4_sTanH -> fc4_300 (in-place)
I0417 17:49:23.311471 25831 net.cpp:150] Setting up fc4_sTanH
I0417 17:49:23.311484 25831 net.cpp:157] Top shape: 1024 300 (307200)
I0417 17:49:23.311491 25831 net.cpp:165] Memory required for data: 4105486336
I0417 17:49:23.311494 25831 layer_factory.hpp:77] Creating layer fc4_postscale
I0417 17:49:23.311504 25831 net.cpp:100] Creating Layer fc4_postscale
I0417 17:49:23.311511 25831 net.cpp:434] fc4_postscale <- fc4_300
I0417 17:49:23.311517 25831 net.cpp:395] fc4_postscale -> fc4_300 (in-place)
I0417 17:49:23.311645 25831 net.cpp:150] Setting up fc4_postscale
I0417 17:49:23.311655 25831 net.cpp:157] Top shape: 1024 300 (307200)
I0417 17:49:23.311658 25831 net.cpp:165] Memory required for data: 4106715136
I0417 17:49:23.311664 25831 layer_factory.hpp:77] Creating layer fc5_67
I0417 17:49:23.311673 25831 net.cpp:100] Creating Layer fc5_67
I0417 17:49:23.311678 25831 net.cpp:434] fc5_67 <- fc4_300
I0417 17:49:23.311686 25831 net.cpp:408] fc5_67 -> fc5_classes
I0417 17:49:23.319612 25831 net.cpp:150] Setting up fc5_67
I0417 17:49:23.319633 25831 net.cpp:157] Top shape: 1024 67 (68608)
I0417 17:49:23.319638 25831 net.cpp:165] Memory required for data: 4106989568
I0417 17:49:23.319653 25831 layer_factory.hpp:77] Creating layer fc5_classes_fc5_67_0_split
I0417 17:49:23.319665 25831 net.cpp:100] Creating Layer fc5_classes_fc5_67_0_split
I0417 17:49:23.319671 25831 net.cpp:434] fc5_classes_fc5_67_0_split <- fc5_classes
I0417 17:49:23.319679 25831 net.cpp:408] fc5_classes_fc5_67_0_split -> fc5_classes_fc5_67_0_split_0
I0417 17:49:23.319692 25831 net.cpp:408] fc5_classes_fc5_67_0_split -> fc5_classes_fc5_67_0_split_1
I0417 17:49:23.319702 25831 net.cpp:408] fc5_classes_fc5_67_0_split -> fc5_classes_fc5_67_0_split_2
I0417 17:49:23.319768 25831 net.cpp:150] Setting up fc5_classes_fc5_67_0_split
I0417 17:49:23.319778 25831 net.cpp:157] Top shape: 1024 67 (68608)
I0417 17:49:23.319782 25831 net.cpp:157] Top shape: 1024 67 (68608)
I0417 17:49:23.319787 25831 net.cpp:157] Top shape: 1024 67 (68608)
I0417 17:49:23.319789 25831 net.cpp:165] Memory required for data: 4107812864
I0417 17:49:23.319793 25831 layer_factory.hpp:77] Creating layer softmax
I0417 17:49:23.319800 25831 net.cpp:100] Creating Layer softmax
I0417 17:49:23.319806 25831 net.cpp:434] softmax <- fc5_classes_fc5_67_0_split_0
I0417 17:49:23.319813 25831 net.cpp:408] softmax -> softmax
I0417 17:49:23.320152 25831 net.cpp:150] Setting up softmax
I0417 17:49:23.320170 25831 net.cpp:157] Top shape: 1024 67 (68608)
I0417 17:49:23.320176 25831 net.cpp:165] Memory required for data: 4108087296
I0417 17:49:23.320180 25831 layer_factory.hpp:77] Creating layer loss
I0417 17:49:23.320188 25831 net.cpp:100] Creating Layer loss
I0417 17:49:23.320194 25831 net.cpp:434] loss <- softmax
I0417 17:49:23.320201 25831 net.cpp:434] loss <- label_data_1_split_0
I0417 17:49:23.320209 25831 net.cpp:408] loss -> loss
…
