…
I0414 11:09:46.082717 14452 solver.cpp:93] Creating training net from train_net file: ./Prototxt/experiment_11/rtsd-r3/orig/trial_4/train.prototxt
I0414 11:09:46.083179 14452 net.cpp:58] Initializing net from parameters: 
state {
  phase: TRAIN
  level: 0
  stage: ""
}
layer {
  name: "data"
  type: "Data"
  top: "data"
  top: "label"
  include {
    phase: TRAIN
  }
  transform_param {
    scale: 0.0039215689
    mirror: false
    crop_size: 48
    mean_value: 120
    mean_value: 113
    mean_value: 112
  }
  data_param {
    source: "../local_data/lmdb/rtsd-r3/orig/train/lmdb"
    batch_size: 1024
    backend: LMDB
  }
}
layer {
  name: "conv1"
  type: "Convolution"
  bottom: "data"
  top: "conv1"
  convolution_param {
    num_output: 100
    pad: 0
    kernel_size: 7
    group: 1
    stride: 1
    weight_filler {
      type: "xavier"
    }
  }
}
layer {
  name: "conv1_prescale"
  type: "Scale"
  bottom: "conv1"
  top: "conv1"
  param {
    lr_mult: 0
    decay_mult: 0
  }
  scale_param {
    filler {
      value: 0.6666
    }
    bias_term: false
  }
}
layer {
  name: "conv1_sTanH"
  type: "TanH"
  bottom: "conv1"
  top: "conv1"
}
layer {
  name: "conv1_postscale"
  type: "Scale"
  bottom: "conv1"
  top: "conv1"
  param {
    lr_mult: 0
    decay_mult: 0
  }
  scale_param {
    filler {
      value: 1.7159
    }
    bias_term: false
  }
}
layer {
  name: "pool1"
  type: "Pooling"
  bottom: "conv1"
  top: "pool1"
  pooling_param {
    pool: MAX
    kernel_size: 2
    stride: 2
  }
}
layer {
  name: "conv2"
  type: "Convolution"
  bottom: "pool1"
  top: "conv2"
  convolution_param {
    num_output: 150
    pad: 0
    kernel_size: 4
    group: 1
    stride: 1
    weight_filler {
      type: "xavier"
    }
  }
}
layer {
  name: "conv2_prescale"
  type: "Scale"
  bottom: "conv2"
  top: "conv2"
  param {
    lr_mult: 0
    decay_mult: 0
  }
  scale_param {
    filler {
      value: 0.6666
    }
    bias_term: false
  }
}
layer {
  name: "conv2_sTanH"
  type: "TanH"
  bottom: "conv2"
  top: "conv2"
}
layer {
  name: "conv2_postscale"
  type: "Scale"
  bottom: "conv2"
  top: "conv2"
  param {
    lr_mult: 0
    decay_mult: 0
  }
  scale_param {
    filler {
      value: 1.7159
    }
    bias_term: false
  }
}
layer {
  name: "pool2"
  type: "Pooling"
  bottom: "conv2"
  top: "pool2"
  pooling_param {
    pool: MAX
    kernel_size: 2
    stride: 2
  }
}
layer {
  name: "conv3"
  type: "Convolution"
  bottom: "pool2"
  top: "conv3"
  convolution_param {
    num_output: 250
    pad: 0
    kernel_size: 4
    group: 1
    stride: 1
    weight_filler {
      type: "xavier"
    }
  }
}
layer {
  name: "conv3_prescale"
  type: "Scale"
  bottom: "conv3"
  top: "conv3"
  param {
    lr_mult: 0
    decay_mult: 0
  }
  scale_param {
    filler {
      value: 0.6666
    }
    bias_term: false
  }
}
layer {
  name: "conv3_sTanH"
  type: "TanH"
  bottom: "conv3"
  top: "conv3"
}
layer {
  name: "conv3_postscale"
  type: "Scale"
  bottom: "conv3"
  top: "conv3"
  param {
    lr_mult: 0
    decay_mult: 0
  }
  scale_param {
    filler {
      value: 1.7159
    }
    bias_term: false
  }
}
layer {
  name: "pool3"
  type: "Pooling"
  bottom: "conv3"
  top: "pool3"
  pooling_param {
    pool: MAX
    kernel_size: 2
    stride: 2
  }
}
layer {
  name: "fc4_300"
  type: "InnerProduct"
  bottom: "pool3"
  top: "fc4_300"
  inner_product_param {
    num_output: 300
    weight_filler {
      type: "xavier"
    }
  }
}
layer {
  name: "fc4_prescale"
  type: "Scale"
  bottom: "fc4_300"
  top: "fc4_300"
  param {
    lr_mult: 0
    decay_mult: 0
  }
  scale_param {
    filler {
      value: 0.6666
    }
    bias_term: false
  }
}
layer {
  name: "fc4_sTanH"
  type: "TanH"
  bottom: "fc4_300"
  top: "fc4_300"
}
layer {
  name: "fc4_postscale"
  type: "Scale"
  bottom: "fc4_300"
  top: "fc4_300"
  param {
    lr_mult: 0
    decay_mult: 0
  }
  scale_param {
    filler {
      value: 1.7159
    }
    bias_term: false
  }
}
layer {
  name: "fc5_106"
  type: "InnerProduct"
  bottom: "fc4_300"
  top: "fc5_classes"
  inner_product_param {
    num_output: 106
    weight_filler {
      type: "xavier"
    }
  }
}
layer {
  name: "softmax"
  type: "Softmax"
  bottom: "fc5_classes"
  top: "softmax"
}
layer {
  name: "loss"
  type: "MultinomialLogisticLoss"
  bottom: "softmax"
  bottom: "label"
  top: "loss"
}
layer {
  name: "accuracy_1"
  type: "Accuracy"
  bottom: "fc5_classes"
  bottom: "label"
  top: "accuracy_1"
  accuracy_param {
    top_k: 1
  }
}
layer {
  name: "accuracy_5"
  type: "Accuracy"
  bottom: "fc5_classes"
  bottom: "label"
  top: "accuracy_5"
  accuracy_param {
    top_k: 5
  }
}
layer {
  name: "silence"
  type: "Silence"
  bottom: "accuracy_1"
  bottom: "accuracy_5"
}
I0414 11:09:46.083343 14452 layer_factory.hpp:77] Creating layer data
I0414 11:09:46.084414 14452 net.cpp:100] Creating Layer data
I0414 11:09:46.084430 14452 net.cpp:408] data -> data
I0414 11:09:46.084453 14452 net.cpp:408] data -> label
I0414 11:09:46.086339 14557 db_lmdb.cpp:35] Opened lmdb ../local_data/lmdb/rtsd-r3/orig/train/lmdb
I0414 11:09:46.105494 14452 data_layer.cpp:41] output data size: 1024,3,48,48
I0414 11:09:46.161653 14452 net.cpp:150] Setting up data
I0414 11:09:46.161684 14452 net.cpp:157] Top shape: 1024 3 48 48 (7077888)
I0414 11:09:46.161690 14452 net.cpp:157] Top shape: 1024 (1024)
I0414 11:09:46.161694 14452 net.cpp:165] Memory required for data: 28315648
I0414 11:09:46.161705 14452 layer_factory.hpp:77] Creating layer label_data_1_split
I0414 11:09:46.161720 14452 net.cpp:100] Creating Layer label_data_1_split
I0414 11:09:46.161726 14452 net.cpp:434] label_data_1_split <- label
I0414 11:09:46.161741 14452 net.cpp:408] label_data_1_split -> label_data_1_split_0
I0414 11:09:46.161754 14452 net.cpp:408] label_data_1_split -> label_data_1_split_1
I0414 11:09:46.161762 14452 net.cpp:408] label_data_1_split -> label_data_1_split_2
I0414 11:09:46.161835 14452 net.cpp:150] Setting up label_data_1_split
I0414 11:09:46.161844 14452 net.cpp:157] Top shape: 1024 (1024)
I0414 11:09:46.161847 14452 net.cpp:157] Top shape: 1024 (1024)
I0414 11:09:46.161852 14452 net.cpp:157] Top shape: 1024 (1024)
I0414 11:09:46.161854 14452 net.cpp:165] Memory required for data: 28327936
I0414 11:09:46.161859 14452 layer_factory.hpp:77] Creating layer conv1
I0414 11:09:46.161875 14452 net.cpp:100] Creating Layer conv1
I0414 11:09:46.161881 14452 net.cpp:434] conv1 <- data
I0414 11:09:46.161887 14452 net.cpp:408] conv1 -> conv1
I0414 11:09:46.512898 14452 net.cpp:150] Setting up conv1
I0414 11:09:46.512940 14452 net.cpp:157] Top shape: 1024 100 42 42 (180633600)
I0414 11:09:46.512945 14452 net.cpp:165] Memory required for data: 750862336
I0414 11:09:46.512966 14452 layer_factory.hpp:77] Creating layer conv1_prescale
I0414 11:09:46.512979 14452 net.cpp:100] Creating Layer conv1_prescale
I0414 11:09:46.512986 14452 net.cpp:434] conv1_prescale <- conv1
I0414 11:09:46.512994 14452 net.cpp:395] conv1_prescale -> conv1 (in-place)
I0414 11:09:46.513100 14452 net.cpp:150] Setting up conv1_prescale
I0414 11:09:46.513110 14452 net.cpp:157] Top shape: 1024 100 42 42 (180633600)
I0414 11:09:46.513113 14452 net.cpp:165] Memory required for data: 1473396736
I0414 11:09:46.513120 14452 layer_factory.hpp:77] Creating layer conv1_sTanH
I0414 11:09:46.513128 14452 net.cpp:100] Creating Layer conv1_sTanH
I0414 11:09:46.513134 14452 net.cpp:434] conv1_sTanH <- conv1
I0414 11:09:46.513139 14452 net.cpp:395] conv1_sTanH -> conv1 (in-place)
I0414 11:09:46.513350 14452 net.cpp:150] Setting up conv1_sTanH
I0414 11:09:46.513362 14452 net.cpp:157] Top shape: 1024 100 42 42 (180633600)
I0414 11:09:46.513384 14452 net.cpp:165] Memory required for data: 2195931136
I0414 11:09:46.513389 14452 layer_factory.hpp:77] Creating layer conv1_postscale
I0414 11:09:46.513398 14452 net.cpp:100] Creating Layer conv1_postscale
I0414 11:09:46.513404 14452 net.cpp:434] conv1_postscale <- conv1
I0414 11:09:46.513411 14452 net.cpp:395] conv1_postscale -> conv1 (in-place)
I0414 11:09:46.513511 14452 net.cpp:150] Setting up conv1_postscale
I0414 11:09:46.513520 14452 net.cpp:157] Top shape: 1024 100 42 42 (180633600)
I0414 11:09:46.513525 14452 net.cpp:165] Memory required for data: 2918465536
I0414 11:09:46.513530 14452 layer_factory.hpp:77] Creating layer pool1
I0414 11:09:46.513538 14452 net.cpp:100] Creating Layer pool1
I0414 11:09:46.513543 14452 net.cpp:434] pool1 <- conv1
I0414 11:09:46.513548 14452 net.cpp:408] pool1 -> pool1
I0414 11:09:46.513599 14452 net.cpp:150] Setting up pool1
I0414 11:09:46.513608 14452 net.cpp:157] Top shape: 1024 100 21 21 (45158400)
I0414 11:09:46.513612 14452 net.cpp:165] Memory required for data: 3099099136
I0414 11:09:46.513615 14452 layer_factory.hpp:77] Creating layer conv2
I0414 11:09:46.513626 14452 net.cpp:100] Creating Layer conv2
I0414 11:09:46.513631 14452 net.cpp:434] conv2 <- pool1
I0414 11:09:46.513638 14452 net.cpp:408] conv2 -> conv2
I0414 11:09:46.518019 14452 net.cpp:150] Setting up conv2
I0414 11:09:46.518038 14452 net.cpp:157] Top shape: 1024 150 18 18 (49766400)
I0414 11:09:46.518041 14452 net.cpp:165] Memory required for data: 3298164736
I0414 11:09:46.518056 14452 layer_factory.hpp:77] Creating layer conv2_prescale
I0414 11:09:46.518067 14452 net.cpp:100] Creating Layer conv2_prescale
I0414 11:09:46.518074 14452 net.cpp:434] conv2_prescale <- conv2
I0414 11:09:46.518081 14452 net.cpp:395] conv2_prescale -> conv2 (in-place)
I0414 11:09:46.518193 14452 net.cpp:150] Setting up conv2_prescale
I0414 11:09:46.518203 14452 net.cpp:157] Top shape: 1024 150 18 18 (49766400)
I0414 11:09:46.518206 14452 net.cpp:165] Memory required for data: 3497230336
I0414 11:09:46.518211 14452 layer_factory.hpp:77] Creating layer conv2_sTanH
I0414 11:09:46.518218 14452 net.cpp:100] Creating Layer conv2_sTanH
I0414 11:09:46.518220 14452 net.cpp:434] conv2_sTanH <- conv2
I0414 11:09:46.518225 14452 net.cpp:395] conv2_sTanH -> conv2 (in-place)
I0414 11:09:46.519049 14452 net.cpp:150] Setting up conv2_sTanH
I0414 11:09:46.519065 14452 net.cpp:157] Top shape: 1024 150 18 18 (49766400)
I0414 11:09:46.519071 14452 net.cpp:165] Memory required for data: 3696295936
I0414 11:09:46.519075 14452 layer_factory.hpp:77] Creating layer conv2_postscale
I0414 11:09:46.519083 14452 net.cpp:100] Creating Layer conv2_postscale
I0414 11:09:46.519089 14452 net.cpp:434] conv2_postscale <- conv2
I0414 11:09:46.519096 14452 net.cpp:395] conv2_postscale -> conv2 (in-place)
I0414 11:09:46.519199 14452 net.cpp:150] Setting up conv2_postscale
I0414 11:09:46.519209 14452 net.cpp:157] Top shape: 1024 150 18 18 (49766400)
I0414 11:09:46.519212 14452 net.cpp:165] Memory required for data: 3895361536
I0414 11:09:46.519217 14452 layer_factory.hpp:77] Creating layer pool2
I0414 11:09:46.519224 14452 net.cpp:100] Creating Layer pool2
I0414 11:09:46.519227 14452 net.cpp:434] pool2 <- conv2
I0414 11:09:46.519234 14452 net.cpp:408] pool2 -> pool2
I0414 11:09:46.519279 14452 net.cpp:150] Setting up pool2
I0414 11:09:46.519289 14452 net.cpp:157] Top shape: 1024 150 9 9 (12441600)
I0414 11:09:46.519291 14452 net.cpp:165] Memory required for data: 3945127936
I0414 11:09:46.519295 14452 layer_factory.hpp:77] Creating layer conv3
I0414 11:09:46.519304 14452 net.cpp:100] Creating Layer conv3
I0414 11:09:46.519309 14452 net.cpp:434] conv3 <- pool2
I0414 11:09:46.519315 14452 net.cpp:408] conv3 -> conv3
I0414 11:09:46.524946 14452 net.cpp:150] Setting up conv3
I0414 11:09:46.524965 14452 net.cpp:157] Top shape: 1024 250 6 6 (9216000)
I0414 11:09:46.524968 14452 net.cpp:165] Memory required for data: 3981991936
I0414 11:09:46.524978 14452 layer_factory.hpp:77] Creating layer conv3_prescale
I0414 11:09:46.525004 14452 net.cpp:100] Creating Layer conv3_prescale
I0414 11:09:46.525009 14452 net.cpp:434] conv3_prescale <- conv3
I0414 11:09:46.525017 14452 net.cpp:395] conv3_prescale -> conv3 (in-place)
I0414 11:09:46.525121 14452 net.cpp:150] Setting up conv3_prescale
I0414 11:09:46.525131 14452 net.cpp:157] Top shape: 1024 250 6 6 (9216000)
I0414 11:09:46.525135 14452 net.cpp:165] Memory required for data: 4018855936
I0414 11:09:46.525141 14452 layer_factory.hpp:77] Creating layer conv3_sTanH
I0414 11:09:46.525147 14452 net.cpp:100] Creating Layer conv3_sTanH
I0414 11:09:46.525151 14452 net.cpp:434] conv3_sTanH <- conv3
I0414 11:09:46.525156 14452 net.cpp:395] conv3_sTanH -> conv3 (in-place)
I0414 11:09:46.531709 14452 net.cpp:150] Setting up conv3_sTanH
I0414 11:09:46.531741 14452 net.cpp:157] Top shape: 1024 250 6 6 (9216000)
I0414 11:09:46.531745 14452 net.cpp:165] Memory required for data: 4055719936
I0414 11:09:46.531750 14452 layer_factory.hpp:77] Creating layer conv3_postscale
I0414 11:09:46.531757 14452 net.cpp:100] Creating Layer conv3_postscale
I0414 11:09:46.531761 14452 net.cpp:434] conv3_postscale <- conv3
I0414 11:09:46.531770 14452 net.cpp:395] conv3_postscale -> conv3 (in-place)
I0414 11:09:46.531877 14452 net.cpp:150] Setting up conv3_postscale
I0414 11:09:46.531901 14452 net.cpp:157] Top shape: 1024 250 6 6 (9216000)
I0414 11:09:46.531905 14452 net.cpp:165] Memory required for data: 4092583936
I0414 11:09:46.531911 14452 layer_factory.hpp:77] Creating layer pool3
I0414 11:09:46.531921 14452 net.cpp:100] Creating Layer pool3
I0414 11:09:46.531927 14452 net.cpp:434] pool3 <- conv3
I0414 11:09:46.531932 14452 net.cpp:408] pool3 -> pool3
I0414 11:09:46.531976 14452 net.cpp:150] Setting up pool3
I0414 11:09:46.531985 14452 net.cpp:157] Top shape: 1024 250 3 3 (2304000)
I0414 11:09:46.531988 14452 net.cpp:165] Memory required for data: 4101799936
I0414 11:09:46.531991 14452 layer_factory.hpp:77] Creating layer fc4_300
I0414 11:09:46.531999 14452 net.cpp:100] Creating Layer fc4_300
I0414 11:09:46.532006 14452 net.cpp:434] fc4_300 <- pool3
I0414 11:09:46.532011 14452 net.cpp:408] fc4_300 -> fc4_300
I0414 11:09:46.537575 14452 net.cpp:150] Setting up fc4_300
I0414 11:09:46.537592 14452 net.cpp:157] Top shape: 1024 300 (307200)
I0414 11:09:46.537596 14452 net.cpp:165] Memory required for data: 4103028736
I0414 11:09:46.537605 14452 layer_factory.hpp:77] Creating layer fc4_prescale
I0414 11:09:46.537614 14452 net.cpp:100] Creating Layer fc4_prescale
I0414 11:09:46.537618 14452 net.cpp:434] fc4_prescale <- fc4_300
I0414 11:09:46.537624 14452 net.cpp:395] fc4_prescale -> fc4_300 (in-place)
I0414 11:09:46.537717 14452 net.cpp:150] Setting up fc4_prescale
I0414 11:09:46.537726 14452 net.cpp:157] Top shape: 1024 300 (307200)
I0414 11:09:46.537729 14452 net.cpp:165] Memory required for data: 4104257536
I0414 11:09:46.537735 14452 layer_factory.hpp:77] Creating layer fc4_sTanH
I0414 11:09:46.537745 14452 net.cpp:100] Creating Layer fc4_sTanH
I0414 11:09:46.537752 14452 net.cpp:434] fc4_sTanH <- fc4_300
I0414 11:09:46.537760 14452 net.cpp:395] fc4_sTanH -> fc4_300 (in-place)
I0414 11:09:46.537950 14452 net.cpp:150] Setting up fc4_sTanH
I0414 11:09:46.537961 14452 net.cpp:157] Top shape: 1024 300 (307200)
I0414 11:09:46.537964 14452 net.cpp:165] Memory required for data: 4105486336
I0414 11:09:46.537967 14452 layer_factory.hpp:77] Creating layer fc4_postscale
I0414 11:09:46.537976 14452 net.cpp:100] Creating Layer fc4_postscale
I0414 11:09:46.537983 14452 net.cpp:434] fc4_postscale <- fc4_300
I0414 11:09:46.537989 14452 net.cpp:395] fc4_postscale -> fc4_300 (in-place)
I0414 11:09:46.538094 14452 net.cpp:150] Setting up fc4_postscale
I0414 11:09:46.538103 14452 net.cpp:157] Top shape: 1024 300 (307200)
I0414 11:09:46.538106 14452 net.cpp:165] Memory required for data: 4106715136
I0414 11:09:46.538112 14452 layer_factory.hpp:77] Creating layer fc5_106
I0414 11:09:46.538118 14452 net.cpp:100] Creating Layer fc5_106
I0414 11:09:46.538123 14452 net.cpp:434] fc5_106 <- fc4_300
I0414 11:09:46.538130 14452 net.cpp:408] fc5_106 -> fc5_classes
I0414 11:09:46.550276 14452 net.cpp:150] Setting up fc5_106
I0414 11:09:46.550297 14452 net.cpp:157] Top shape: 1024 106 (108544)
I0414 11:09:46.550303 14452 net.cpp:165] Memory required for data: 4107149312
I0414 11:09:46.550324 14452 layer_factory.hpp:77] Creating layer fc5_classes_fc5_106_0_split
I0414 11:09:46.550341 14452 net.cpp:100] Creating Layer fc5_classes_fc5_106_0_split
I0414 11:09:46.550351 14452 net.cpp:434] fc5_classes_fc5_106_0_split <- fc5_classes
I0414 11:09:46.550362 14452 net.cpp:408] fc5_classes_fc5_106_0_split -> fc5_classes_fc5_106_0_split_0
I0414 11:09:46.550376 14452 net.cpp:408] fc5_classes_fc5_106_0_split -> fc5_classes_fc5_106_0_split_1
I0414 11:09:46.550391 14452 net.cpp:408] fc5_classes_fc5_106_0_split -> fc5_classes_fc5_106_0_split_2
I0414 11:09:46.550469 14452 net.cpp:150] Setting up fc5_classes_fc5_106_0_split
I0414 11:09:46.550482 14452 net.cpp:157] Top shape: 1024 106 (108544)
I0414 11:09:46.550488 14452 net.cpp:157] Top shape: 1024 106 (108544)
I0414 11:09:46.550493 14452 net.cpp:157] Top shape: 1024 106 (108544)
I0414 11:09:46.550495 14452 net.cpp:165] Memory required for data: 4108451840
I0414 11:09:46.550499 14452 layer_factory.hpp:77] Creating layer softmax
I0414 11:09:46.550509 14452 net.cpp:100] Creating Layer softmax
I0414 11:09:46.550515 14452 net.cpp:434] softmax <- fc5_classes_fc5_106_0_split_0
I0414 11:09:46.550521 14452 net.cpp:408] softmax -> softmax
I0414 11:09:46.550786 14452 net.cpp:150] Setting up softmax
I0414 11:09:46.550803 14452 net.cpp:157] Top shape: 1024 106 (108544)
I0414 11:09:46.550808 14452 net.cpp:165] Memory required for data: 4108886016
I0414 11:09:46.550812 14452 layer_factory.hpp:77] Creating layer loss
I0414 11:09:46.550819 14452 net.cpp:100] Creating Layer loss
I0414 11:09:46.550823 14452 net.cpp:434] loss <- softmax
I0414 11:09:46.550828 14452 net.cpp:434] loss <- label_data_1_split_0
I0414 11:09:46.550835 14452 net.cpp:408] loss -> loss
…
