…
I0402 03:19:18.486054 14184 net.cpp:322] The NetState phase (0) differed from the phase (1) specified by a rule in layer accuracy_5
I0402 03:19:18.486145 14184 net.cpp:58] Initializing net from parameters: 
state {
  phase: TRAIN
  level: 0
  stage: ""
}
layer {
  name: "data"
  type: "Data"
  top: "data"
  top: "label"
  include {
    phase: TRAIN
  }
  transform_param {
    mirror: false
    crop_size: 48
    mean_value: 135
    mean_value: 134
    mean_value: 134
  }
  data_param {
    source: "../local_data/lmdb/rtsd-r3/CoNorm/train/lmdb"
    batch_size: 1024
    backend: LMDB
  }
}
layer {
  name: "conv1"
  type: "Convolution"
  bottom: "data"
  top: "conv1"
  convolution_param {
    num_output: 100
    pad: 0
    kernel_size: 7
    group: 1
    stride: 1
    weight_filler {
      type: "xavier"
    }
  }
}
layer {
  name: "conv1_relu"
  type: "ReLU"
  bottom: "conv1"
  top: "conv1"
}
layer {
  name: "pool1"
  type: "Pooling"
  bottom: "conv1"
  top: "pool1"
  pooling_param {
    pool: MAX
    kernel_size: 2
    stride: 2
  }
}
layer {
  name: "conv2"
  type: "Convolution"
  bottom: "pool1"
  top: "conv2"
  convolution_param {
    num_output: 150
    pad: 0
    kernel_size: 4
    group: 1
    stride: 1
    weight_filler {
      type: "xavier"
    }
  }
}
layer {
  name: "conv2_relu"
  type: "ReLU"
  bottom: "conv2"
  top: "conv2"
}
layer {
  name: "pool2"
  type: "Pooling"
  bottom: "conv2"
  top: "pool2"
  pooling_param {
    pool: MAX
    kernel_size: 2
    stride: 2
  }
}
layer {
  name: "conv3"
  type: "Convolution"
  bottom: "pool2"
  top: "conv3"
  convolution_param {
    num_output: 250
    pad: 0
    kernel_size: 4
    group: 1
    stride: 1
    weight_filler {
      type: "xavier"
    }
  }
}
layer {
  name: "conv3_relu"
  type: "ReLU"
  bottom: "conv3"
  top: "conv3"
}
layer {
  name: "pool3"
  type: "Pooling"
  bottom: "conv3"
  top: "pool3"
  pooling_param {
    pool: MAX
    kernel_size: 2
    stride: 2
  }
}
layer {
  name: "fc4_300"
  type: "InnerProduct"
  bottom: "pool3"
  top: "fc4_300"
  inner_product_param {
    num_output: 300
    weight_filler {
      type: "xavier"
    }
  }
}
layer {
  name: "fc4_relu"
  type: "ReLU"
  bottom: "fc4_300"
  top: "fc4_300"
}
layer {
  name: "drop4"
  type: "Dropout"
  bottom: "fc4_300"
  top: "fc4_300"
  dropout_param {
    dropout_ratio: 0.4
  }
}
layer {
  name: "fc5_106"
  type: "InnerProduct"
  bottom: "fc4_300"
  top: "fc5_classes"
  inner_product_param {
    num_output: 106
    weight_filler {
      type: "xavier"
    }
  }
}
layer {
  name: "loss"
  type: "SoftmaxWithLoss"
  bottom: "fc5_classes"
  bottom: "label"
  top: "loss"
}
I0402 03:19:18.486223 14184 layer_factory.hpp:77] Creating layer data
I0402 03:19:18.487301 14184 net.cpp:100] Creating Layer data
I0402 03:19:18.487316 14184 net.cpp:408] data -> data
I0402 03:19:18.487339 14184 net.cpp:408] data -> label
I0402 03:19:18.488966 14242 db_lmdb.cpp:35] Opened lmdb ../local_data/lmdb/rtsd-r3/CoNorm/train/lmdb
I0402 03:19:18.505468 14184 data_layer.cpp:41] output data size: 1024,3,48,48
I0402 03:19:18.548321 14184 net.cpp:150] Setting up data
I0402 03:19:18.548357 14184 net.cpp:157] Top shape: 1024 3 48 48 (7077888)
I0402 03:19:18.548362 14184 net.cpp:157] Top shape: 1024 (1024)
I0402 03:19:18.548364 14184 net.cpp:165] Memory required for data: 28315648
I0402 03:19:18.548393 14184 layer_factory.hpp:77] Creating layer conv1
I0402 03:19:18.548418 14184 net.cpp:100] Creating Layer conv1
I0402 03:19:18.548434 14184 net.cpp:434] conv1 <- data
I0402 03:19:18.548446 14184 net.cpp:408] conv1 -> conv1
I0402 03:19:18.816139 14184 net.cpp:150] Setting up conv1
I0402 03:19:18.816169 14184 net.cpp:157] Top shape: 1024 100 42 42 (180633600)
I0402 03:19:18.816174 14184 net.cpp:165] Memory required for data: 750850048
I0402 03:19:18.816193 14184 layer_factory.hpp:77] Creating layer conv1_relu
I0402 03:19:18.816205 14184 net.cpp:100] Creating Layer conv1_relu
I0402 03:19:18.816210 14184 net.cpp:434] conv1_relu <- conv1
I0402 03:19:18.816215 14184 net.cpp:395] conv1_relu -> conv1 (in-place)
I0402 03:19:18.816449 14184 net.cpp:150] Setting up conv1_relu
I0402 03:19:18.816464 14184 net.cpp:157] Top shape: 1024 100 42 42 (180633600)
I0402 03:19:18.816468 14184 net.cpp:165] Memory required for data: 1473384448
I0402 03:19:18.816471 14184 layer_factory.hpp:77] Creating layer pool1
I0402 03:19:18.816478 14184 net.cpp:100] Creating Layer pool1
I0402 03:19:18.816483 14184 net.cpp:434] pool1 <- conv1
I0402 03:19:18.816488 14184 net.cpp:408] pool1 -> pool1
I0402 03:19:18.816546 14184 net.cpp:150] Setting up pool1
I0402 03:19:18.816555 14184 net.cpp:157] Top shape: 1024 100 21 21 (45158400)
I0402 03:19:18.816558 14184 net.cpp:165] Memory required for data: 1654018048
I0402 03:19:18.816562 14184 layer_factory.hpp:77] Creating layer conv2
I0402 03:19:18.816584 14184 net.cpp:100] Creating Layer conv2
I0402 03:19:18.816589 14184 net.cpp:434] conv2 <- pool1
I0402 03:19:18.816596 14184 net.cpp:408] conv2 -> conv2
I0402 03:19:18.821178 14184 net.cpp:150] Setting up conv2
I0402 03:19:18.821208 14184 net.cpp:157] Top shape: 1024 150 18 18 (49766400)
I0402 03:19:18.821213 14184 net.cpp:165] Memory required for data: 1853083648
I0402 03:19:18.821223 14184 layer_factory.hpp:77] Creating layer conv2_relu
I0402 03:19:18.821229 14184 net.cpp:100] Creating Layer conv2_relu
I0402 03:19:18.821233 14184 net.cpp:434] conv2_relu <- conv2
I0402 03:19:18.821238 14184 net.cpp:395] conv2_relu -> conv2 (in-place)
I0402 03:19:18.822002 14184 net.cpp:150] Setting up conv2_relu
I0402 03:19:18.822018 14184 net.cpp:157] Top shape: 1024 150 18 18 (49766400)
I0402 03:19:18.822022 14184 net.cpp:165] Memory required for data: 2052149248
I0402 03:19:18.822026 14184 layer_factory.hpp:77] Creating layer pool2
I0402 03:19:18.822032 14184 net.cpp:100] Creating Layer pool2
I0402 03:19:18.822036 14184 net.cpp:434] pool2 <- conv2
I0402 03:19:18.822041 14184 net.cpp:408] pool2 -> pool2
I0402 03:19:18.822087 14184 net.cpp:150] Setting up pool2
I0402 03:19:18.822094 14184 net.cpp:157] Top shape: 1024 150 9 9 (12441600)
I0402 03:19:18.822098 14184 net.cpp:165] Memory required for data: 2101915648
I0402 03:19:18.822100 14184 layer_factory.hpp:77] Creating layer conv3
I0402 03:19:18.822109 14184 net.cpp:100] Creating Layer conv3
I0402 03:19:18.822115 14184 net.cpp:434] conv3 <- pool2
I0402 03:19:18.822120 14184 net.cpp:408] conv3 -> conv3
I0402 03:19:18.827409 14184 net.cpp:150] Setting up conv3
I0402 03:19:18.827437 14184 net.cpp:157] Top shape: 1024 250 6 6 (9216000)
I0402 03:19:18.827441 14184 net.cpp:165] Memory required for data: 2138779648
I0402 03:19:18.827451 14184 layer_factory.hpp:77] Creating layer conv3_relu
I0402 03:19:18.827458 14184 net.cpp:100] Creating Layer conv3_relu
I0402 03:19:18.827462 14184 net.cpp:434] conv3_relu <- conv3
I0402 03:19:18.827466 14184 net.cpp:395] conv3_relu -> conv3 (in-place)
I0402 03:19:18.828261 14184 net.cpp:150] Setting up conv3_relu
I0402 03:19:18.828282 14184 net.cpp:157] Top shape: 1024 250 6 6 (9216000)
I0402 03:19:18.828289 14184 net.cpp:165] Memory required for data: 2175643648
I0402 03:19:18.828295 14184 layer_factory.hpp:77] Creating layer pool3
I0402 03:19:18.828305 14184 net.cpp:100] Creating Layer pool3
I0402 03:19:18.828311 14184 net.cpp:434] pool3 <- conv3
I0402 03:19:18.828321 14184 net.cpp:408] pool3 -> pool3
I0402 03:19:18.828394 14184 net.cpp:150] Setting up pool3
I0402 03:19:18.828433 14184 net.cpp:157] Top shape: 1024 250 3 3 (2304000)
I0402 03:19:18.828443 14184 net.cpp:165] Memory required for data: 2184859648
I0402 03:19:18.828449 14184 layer_factory.hpp:77] Creating layer fc4_300
I0402 03:19:18.828462 14184 net.cpp:100] Creating Layer fc4_300
I0402 03:19:18.828471 14184 net.cpp:434] fc4_300 <- pool3
I0402 03:19:18.828481 14184 net.cpp:408] fc4_300 -> fc4_300
I0402 03:19:18.833734 14184 net.cpp:150] Setting up fc4_300
I0402 03:19:18.833761 14184 net.cpp:157] Top shape: 1024 300 (307200)
I0402 03:19:18.833765 14184 net.cpp:165] Memory required for data: 2186088448
I0402 03:19:18.833772 14184 layer_factory.hpp:77] Creating layer fc4_relu
I0402 03:19:18.833778 14184 net.cpp:100] Creating Layer fc4_relu
I0402 03:19:18.833781 14184 net.cpp:434] fc4_relu <- fc4_300
I0402 03:19:18.833786 14184 net.cpp:395] fc4_relu -> fc4_300 (in-place)
I0402 03:19:18.833976 14184 net.cpp:150] Setting up fc4_relu
I0402 03:19:18.833988 14184 net.cpp:157] Top shape: 1024 300 (307200)
I0402 03:19:18.833992 14184 net.cpp:165] Memory required for data: 2187317248
I0402 03:19:18.833994 14184 layer_factory.hpp:77] Creating layer drop4
I0402 03:19:18.834002 14184 net.cpp:100] Creating Layer drop4
I0402 03:19:18.834004 14184 net.cpp:434] drop4 <- fc4_300
I0402 03:19:18.834009 14184 net.cpp:395] drop4 -> fc4_300 (in-place)
I0402 03:19:18.834040 14184 net.cpp:150] Setting up drop4
I0402 03:19:18.834048 14184 net.cpp:157] Top shape: 1024 300 (307200)
I0402 03:19:18.834050 14184 net.cpp:165] Memory required for data: 2188546048
I0402 03:19:18.834053 14184 layer_factory.hpp:77] Creating layer fc5_106
I0402 03:19:18.834059 14184 net.cpp:100] Creating Layer fc5_106
I0402 03:19:18.834062 14184 net.cpp:434] fc5_106 <- fc4_300
I0402 03:19:18.834066 14184 net.cpp:408] fc5_106 -> fc5_classes
I0402 03:19:18.835422 14184 net.cpp:150] Setting up fc5_106
I0402 03:19:18.835438 14184 net.cpp:157] Top shape: 1024 106 (108544)
I0402 03:19:18.835441 14184 net.cpp:165] Memory required for data: 2188980224
I0402 03:19:18.835450 14184 layer_factory.hpp:77] Creating layer loss
I0402 03:19:18.835458 14184 net.cpp:100] Creating Layer loss
I0402 03:19:18.835460 14184 net.cpp:434] loss <- fc5_classes
I0402 03:19:18.835466 14184 net.cpp:434] loss <- label
I0402 03:19:18.835471 14184 net.cpp:408] loss -> loss
I0402 03:19:18.835484 14184 layer_factory.hpp:77] Creating layer loss
…
I0402 03:19:18.836232 14184 solver.cpp:193] Creating test net (#0) specified by test_net file: ./Prototxt/rtsd-r3/CoNorm/test.prototxt
I0402 03:19:18.836388 14184 net.cpp:58] Initializing net from parameters: 
state {
  phase: TEST
}
layer {
  name: "data"
  type: "Data"
  top: "data"
  top: "label"
  include {
    phase: TEST
  }
  transform_param {
    mirror: false
    crop_size: 48
    mean_value: 136
    mean_value: 136
    mean_value: 135
  }
  data_param {
    source: "../local_data/lmdb/rtsd-r3/CoNorm/test/lmdb"
    batch_size: 1024
    backend: LMDB
  }
}
layer {
  name: "conv1"
  type: "Convolution"
  bottom: "data"
  top: "conv1"
  convolution_param {
    num_output: 100
    pad: 0
    kernel_size: 7
    group: 1
    stride: 1
    weight_filler {
      type: "xavier"
    }
  }
}
layer {
  name: "conv1_relu"
  type: "ReLU"
  bottom: "conv1"
  top: "conv1"
}
layer {
  name: "pool1"
  type: "Pooling"
  bottom: "conv1"
  top: "pool1"
  pooling_param {
    pool: MAX
    kernel_size: 2
    stride: 2
  }
}
layer {
  name: "conv2"
  type: "Convolution"
  bottom: "pool1"
  top: "conv2"
  convolution_param {
    num_output: 150
    pad: 0
    kernel_size: 4
    group: 1
    stride: 1
    weight_filler {
      type: "xavier"
    }
  }
}
layer {
  name: "conv2_relu"
  type: "ReLU"
  bottom: "conv2"
  top: "conv2"
}
layer {
  name: "pool2"
  type: "Pooling"
  bottom: "conv2"
  top: "pool2"
  pooling_param {
    pool: MAX
    kernel_size: 2
    stride: 2
  }
}
layer {
  name: "conv3"
  type: "Convolution"
  bottom: "pool2"
  top: "conv3"
  convolution_param {
    num_output: 250
    pad: 0
    kernel_size: 4
    group: 1
    stride: 1
    weight_filler {
      type: "xavier"
    }
  }
}
layer {
  name: "conv3_relu"
  type: "ReLU"
  bottom: "conv3"
  top: "conv3"
}
layer {
  name: "pool3"
  type: "Pooling"
  bottom: "conv3"
  top: "pool3"
  pooling_param {
    pool: MAX
    kernel_size: 2
    stride: 2
  }
}
layer {
  name: "fc4_300"
  type: "InnerProduct"
  bottom: "pool3"
  top: "fc4_300"
  inner_product_param {
    num_output: 300
    weight_filler {
      type: "xavier"
    }
  }
}
layer {
  name: "fc4_relu"
  type: "ReLU"
  bottom: "fc4_300"
  top: "fc4_300"
}
layer {
  name: "drop4"
  type: "Dropout"
  bottom: "fc4_300"
  top: "fc4_300"
  dropout_param {
    dropout_ratio: 0.4
  }
}
layer {
  name: "fc5_106"
  type: "InnerProduct"
  bottom: "fc4_300"
  top: "fc5_classes"
  inner_product_param {
    num_output: 106
    weight_filler {
      type: "xavier"
    }
  }
}
layer {
  name: "loss"
  type: "SoftmaxWithLoss"
  bottom: "fc5_classes"
  bottom: "label"
  top: "loss"
}
layer {
  name: "accuracy_1"
  type: "Accuracy"
  bottom: "fc5_classes"
  bottom: "label"
  top: "accuracy_1"
  include {
    phase: TEST
  }
  accuracy_param {
    top_k: 1
  }
}
layer {
  name: "accuracy_5"
  type: "Accuracy"
  bottom: "fc5_classes"
  bottom: "label"
  top: "accuracy_5"
  include {
    phase: TEST
  }
  accuracy_param {
    top_k: 5
  }
}
I0402 03:19:18.836472 14184 layer_factory.hpp:77] Creating layer data
I0402 03:19:18.837158 14184 net.cpp:100] Creating Layer data
I0402 03:19:18.837170 14184 net.cpp:408] data -> data
I0402 03:19:18.837194 14184 net.cpp:408] data -> label
I0402 03:19:18.838796 14253 db_lmdb.cpp:35] Opened lmdb ../local_data/lmdb/rtsd-r3/CoNorm/test/lmdb
I0402 03:19:18.839052 14184 data_layer.cpp:41] output data size: 1024,3,48,48
I0402 03:19:18.901371 14184 net.cpp:150] Setting up data
I0402 03:19:18.901401 14184 net.cpp:157] Top shape: 1024 3 48 48 (7077888)
I0402 03:19:18.901407 14184 net.cpp:157] Top shape: 1024 (1024)
I0402 03:19:18.901409 14184 net.cpp:165] Memory required for data: 28315648
I0402 03:19:18.901415 14184 layer_factory.hpp:77] Creating layer label_data_1_split
I0402 03:19:18.901429 14184 net.cpp:100] Creating Layer label_data_1_split
I0402 03:19:18.901433 14184 net.cpp:434] label_data_1_split <- label
I0402 03:19:18.901442 14184 net.cpp:408] label_data_1_split -> label_data_1_split_0
I0402 03:19:18.901453 14184 net.cpp:408] label_data_1_split -> label_data_1_split_1
I0402 03:19:18.901459 14184 net.cpp:408] label_data_1_split -> label_data_1_split_2
I0402 03:19:18.901551 14184 net.cpp:150] Setting up label_data_1_split
I0402 03:19:18.901589 14184 net.cpp:157] Top shape: 1024 (1024)
I0402 03:19:18.901598 14184 net.cpp:157] Top shape: 1024 (1024)
I0402 03:19:18.901604 14184 net.cpp:157] Top shape: 1024 (1024)
I0402 03:19:18.901609 14184 net.cpp:165] Memory required for data: 28327936
I0402 03:19:18.901615 14184 layer_factory.hpp:77] Creating layer conv1
I0402 03:19:18.901634 14184 net.cpp:100] Creating Layer conv1
I0402 03:19:18.901641 14184 net.cpp:434] conv1 <- data
I0402 03:19:18.901662 14184 net.cpp:408] conv1 -> conv1
I0402 03:19:18.903719 14184 net.cpp:150] Setting up conv1
I0402 03:19:18.903736 14184 net.cpp:157] Top shape: 1024 100 42 42 (180633600)
I0402 03:19:18.903740 14184 net.cpp:165] Memory required for data: 750862336
I0402 03:19:18.903753 14184 layer_factory.hpp:77] Creating layer conv1_relu
I0402 03:19:18.903759 14184 net.cpp:100] Creating Layer conv1_relu
I0402 03:19:18.903764 14184 net.cpp:434] conv1_relu <- conv1
I0402 03:19:18.903770 14184 net.cpp:395] conv1_relu -> conv1 (in-place)
I0402 03:19:18.903969 14184 net.cpp:150] Setting up conv1_relu
I0402 03:19:18.903980 14184 net.cpp:157] Top shape: 1024 100 42 42 (180633600)
I0402 03:19:18.903983 14184 net.cpp:165] Memory required for data: 1473396736
I0402 03:19:18.903986 14184 layer_factory.hpp:77] Creating layer pool1
I0402 03:19:18.903996 14184 net.cpp:100] Creating Layer pool1
I0402 03:19:18.904000 14184 net.cpp:434] pool1 <- conv1
I0402 03:19:18.904006 14184 net.cpp:408] pool1 -> pool1
I0402 03:19:18.904060 14184 net.cpp:150] Setting up pool1
I0402 03:19:18.904069 14184 net.cpp:157] Top shape: 1024 100 21 21 (45158400)
I0402 03:19:18.904072 14184 net.cpp:165] Memory required for data: 1654030336
I0402 03:19:18.904075 14184 layer_factory.hpp:77] Creating layer conv2
I0402 03:19:18.904084 14184 net.cpp:100] Creating Layer conv2
I0402 03:19:18.904088 14184 net.cpp:434] conv2 <- pool1
I0402 03:19:18.904093 14184 net.cpp:408] conv2 -> conv2
I0402 03:19:18.908912 14184 net.cpp:150] Setting up conv2
I0402 03:19:18.908932 14184 net.cpp:157] Top shape: 1024 150 18 18 (49766400)
I0402 03:19:18.908936 14184 net.cpp:165] Memory required for data: 1853095936
I0402 03:19:18.908946 14184 layer_factory.hpp:77] Creating layer conv2_relu
I0402 03:19:18.908964 14184 net.cpp:100] Creating Layer conv2_relu
I0402 03:19:18.908968 14184 net.cpp:434] conv2_relu <- conv2
I0402 03:19:18.908984 14184 net.cpp:395] conv2_relu -> conv2 (in-place)
I0402 03:19:18.909775 14184 net.cpp:150] Setting up conv2_relu
I0402 03:19:18.909790 14184 net.cpp:157] Top shape: 1024 150 18 18 (49766400)
I0402 03:19:18.909793 14184 net.cpp:165] Memory required for data: 2052161536
I0402 03:19:18.909797 14184 layer_factory.hpp:77] Creating layer pool2
I0402 03:19:18.909804 14184 net.cpp:100] Creating Layer pool2
I0402 03:19:18.909807 14184 net.cpp:434] pool2 <- conv2
I0402 03:19:18.909814 14184 net.cpp:408] pool2 -> pool2
I0402 03:19:18.909868 14184 net.cpp:150] Setting up pool2
I0402 03:19:18.909878 14184 net.cpp:157] Top shape: 1024 150 9 9 (12441600)
I0402 03:19:18.909881 14184 net.cpp:165] Memory required for data: 2101927936
I0402 03:19:18.909884 14184 layer_factory.hpp:77] Creating layer conv3
I0402 03:19:18.909895 14184 net.cpp:100] Creating Layer conv3
I0402 03:19:18.909899 14184 net.cpp:434] conv3 <- pool2
I0402 03:19:18.909904 14184 net.cpp:408] conv3 -> conv3
I0402 03:19:18.915637 14184 net.cpp:150] Setting up conv3
I0402 03:19:18.915657 14184 net.cpp:157] Top shape: 1024 250 6 6 (9216000)
I0402 03:19:18.915659 14184 net.cpp:165] Memory required for data: 2138791936
I0402 03:19:18.915669 14184 layer_factory.hpp:77] Creating layer conv3_relu
I0402 03:19:18.915688 14184 net.cpp:100] Creating Layer conv3_relu
I0402 03:19:18.915691 14184 net.cpp:434] conv3_relu <- conv3
I0402 03:19:18.915699 14184 net.cpp:395] conv3_relu -> conv3 (in-place)
I0402 03:19:18.916498 14184 net.cpp:150] Setting up conv3_relu
I0402 03:19:18.916515 14184 net.cpp:157] Top shape: 1024 250 6 6 (9216000)
I0402 03:19:18.916519 14184 net.cpp:165] Memory required for data: 2175655936
I0402 03:19:18.916522 14184 layer_factory.hpp:77] Creating layer pool3
I0402 03:19:18.916544 14184 net.cpp:100] Creating Layer pool3
I0402 03:19:18.916548 14184 net.cpp:434] pool3 <- conv3
I0402 03:19:18.916556 14184 net.cpp:408] pool3 -> pool3
I0402 03:19:18.916613 14184 net.cpp:150] Setting up pool3
I0402 03:19:18.916622 14184 net.cpp:157] Top shape: 1024 250 3 3 (2304000)
I0402 03:19:18.916625 14184 net.cpp:165] Memory required for data: 2184871936
I0402 03:19:18.916628 14184 layer_factory.hpp:77] Creating layer fc4_300
I0402 03:19:18.916638 14184 net.cpp:100] Creating Layer fc4_300
I0402 03:19:18.916641 14184 net.cpp:434] fc4_300 <- pool3
I0402 03:19:18.916648 14184 net.cpp:408] fc4_300 -> fc4_300
I0402 03:19:18.921985 14184 net.cpp:150] Setting up fc4_300
I0402 03:19:18.922003 14184 net.cpp:157] Top shape: 1024 300 (307200)
I0402 03:19:18.922006 14184 net.cpp:165] Memory required for data: 2186100736
I0402 03:19:18.922014 14184 layer_factory.hpp:77] Creating layer fc4_relu
I0402 03:19:18.922034 14184 net.cpp:100] Creating Layer fc4_relu
I0402 03:19:18.922040 14184 net.cpp:434] fc4_relu <- fc4_300
I0402 03:19:18.922045 14184 net.cpp:395] fc4_relu -> fc4_300 (in-place)
I0402 03:19:18.922243 14184 net.cpp:150] Setting up fc4_relu
I0402 03:19:18.922255 14184 net.cpp:157] Top shape: 1024 300 (307200)
I0402 03:19:18.922257 14184 net.cpp:165] Memory required for data: 2187329536
I0402 03:19:18.922261 14184 layer_factory.hpp:77] Creating layer drop4
I0402 03:19:18.922271 14184 net.cpp:100] Creating Layer drop4
I0402 03:19:18.922276 14184 net.cpp:434] drop4 <- fc4_300
I0402 03:19:18.922286 14184 net.cpp:395] drop4 -> fc4_300 (in-place)
I0402 03:19:18.922333 14184 net.cpp:150] Setting up drop4
I0402 03:19:18.922348 14184 net.cpp:157] Top shape: 1024 300 (307200)
I0402 03:19:18.922363 14184 net.cpp:165] Memory required for data: 2188558336
I0402 03:19:18.922371 14184 layer_factory.hpp:77] Creating layer fc5_106
I0402 03:19:18.922389 14184 net.cpp:100] Creating Layer fc5_106
I0402 03:19:18.922399 14184 net.cpp:434] fc5_106 <- fc4_300
I0402 03:19:18.922410 14184 net.cpp:408] fc5_106 -> fc5_classes
I0402 03:19:18.922840 14184 net.cpp:150] Setting up fc5_106
I0402 03:19:18.922855 14184 net.cpp:157] Top shape: 1024 106 (108544)
I0402 03:19:18.922860 14184 net.cpp:165] Memory required for data: 2188992512
I0402 03:19:18.922871 14184 layer_factory.hpp:77] Creating layer fc5_classes_fc5_106_0_split
I0402 03:19:18.922879 14184 net.cpp:100] Creating Layer fc5_classes_fc5_106_0_split
I0402 03:19:18.922883 14184 net.cpp:434] fc5_classes_fc5_106_0_split <- fc5_classes
I0402 03:19:18.922888 14184 net.cpp:408] fc5_classes_fc5_106_0_split -> fc5_classes_fc5_106_0_split_0
I0402 03:19:18.922897 14184 net.cpp:408] fc5_classes_fc5_106_0_split -> fc5_classes_fc5_106_0_split_1
I0402 03:19:18.922904 14184 net.cpp:408] fc5_classes_fc5_106_0_split -> fc5_classes_fc5_106_0_split_2
I0402 03:19:18.922966 14184 net.cpp:150] Setting up fc5_classes_fc5_106_0_split
I0402 03:19:18.922974 14184 net.cpp:157] Top shape: 1024 106 (108544)
I0402 03:19:18.922979 14184 net.cpp:157] Top shape: 1024 106 (108544)
I0402 03:19:18.922982 14184 net.cpp:157] Top shape: 1024 106 (108544)
I0402 03:19:18.922986 14184 net.cpp:165] Memory required for data: 2190295040
I0402 03:19:18.922988 14184 layer_factory.hpp:77] Creating layer loss
I0402 03:19:18.922998 14184 net.cpp:100] Creating Layer loss
I0402 03:19:18.923002 14184 net.cpp:434] loss <- fc5_classes_fc5_106_0_split_0
I0402 03:19:18.923005 14184 net.cpp:434] loss <- label_data_1_split_0
I0402 03:19:18.923010 14184 net.cpp:408] loss -> loss
…
