…
I0507 01:51:54.321231 10537 solver.cpp:93] Creating training net from train_net file: ./Prototxt/experiment_14/RTSD/CoNorm/trial_4/train.prototxt
I0507 01:51:54.321694 10537 net.cpp:58] Initializing net from parameters: 
state {
  phase: TRAIN
  level: 0
  stage: ""
}
layer {
  name: "data"
  type: "Data"
  top: "data"
  top: "label"
  include {
    phase: TRAIN
  }
  transform_param {
    scale: 0.0039215689
    mirror: false
    crop_size: 48
    mean_value: 135
    mean_value: 135
    mean_value: 134
  }
  data_param {
    source: "../local_data/lmdb/RTSD/CoNorm/train/lmdb"
    batch_size: 512
    backend: LMDB
  }
}
layer {
  name: "conv1"
  type: "Convolution"
  bottom: "data"
  top: "conv1"
  convolution_param {
    num_output: 100
    pad: 0
    kernel_size: 7
    group: 1
    stride: 1
    weight_filler {
      type: "xavier"
    }
  }
}
layer {
  name: "conv1_relu"
  type: "ReLU"
  bottom: "conv1"
  top: "conv1"
}
layer {
  name: "pool1"
  type: "Pooling"
  bottom: "conv1"
  top: "pool1"
  pooling_param {
    pool: MAX
    kernel_size: 2
    stride: 2
  }
}
layer {
  name: "conv2"
  type: "Convolution"
  bottom: "pool1"
  top: "conv2"
  convolution_param {
    num_output: 150
    pad: 0
    kernel_size: 4
    group: 1
    stride: 1
    weight_filler {
      type: "xavier"
    }
  }
}
layer {
  name: "conv2_relu"
  type: "ReLU"
  bottom: "conv2"
  top: "conv2"
}
layer {
  name: "pool2"
  type: "Pooling"
  bottom: "conv2"
  top: "pool2"
  pooling_param {
    pool: MAX
    kernel_size: 2
    stride: 2
  }
}
layer {
  name: "conv3"
  type: "Convolution"
  bottom: "pool2"
  top: "conv3"
  convolution_param {
    num_output: 250
    pad: 0
    kernel_size: 4
    group: 1
    stride: 1
    weight_filler {
      type: "xavier"
    }
  }
}
layer {
  name: "conv3_relu"
  type: "ReLU"
  bottom: "conv3"
  top: "conv3"
}
layer {
  name: "pool3"
  type: "Pooling"
  bottom: "conv3"
  top: "pool3"
  pooling_param {
    pool: MAX
    kernel_size: 2
    stride: 2
  }
}
layer {
  name: "fc4_300"
  type: "InnerProduct"
  bottom: "pool3"
  top: "fc4_300"
  inner_product_param {
    num_output: 300
    weight_filler {
      type: "xavier"
    }
  }
}
layer {
  name: "fc4_relu"
  type: "ReLU"
  bottom: "fc4_300"
  top: "fc4_300"
}
layer {
  name: "fc5_116"
  type: "InnerProduct"
  bottom: "fc4_300"
  top: "fc5_classes"
  inner_product_param {
    num_output: 116
    weight_filler {
      type: "xavier"
    }
  }
}
layer {
  name: "softmax"
  type: "Softmax"
  bottom: "fc5_classes"
  top: "softmax"
}
layer {
  name: "loss"
  type: "MultinomialLogisticLoss"
  bottom: "softmax"
  bottom: "label"
  top: "loss"
}
layer {
  name: "accuracy_1"
  type: "Accuracy"
  bottom: "fc5_classes"
  bottom: "label"
  top: "accuracy_1"
  accuracy_param {
    top_k: 1
  }
}
layer {
  name: "accuracy_5"
  type: "Accuracy"
  bottom: "fc5_classes"
  bottom: "label"
  top: "accuracy_5"
  accuracy_param {
    top_k: 5
  }
}
layer {
  name: "silence"
  type: "Silence"
  bottom: "accuracy_1"
  bottom: "accuracy_5"
}
I0507 01:51:54.321851 10537 layer_factory.hpp:77] Creating layer data
I0507 01:51:54.322892 10537 net.cpp:100] Creating Layer data
I0507 01:51:54.322921 10537 net.cpp:408] data -> data
I0507 01:51:54.322952 10537 net.cpp:408] data -> label
I0507 01:51:54.326536 10683 db_lmdb.cpp:35] Opened lmdb ../local_data/lmdb/RTSD/CoNorm/train/lmdb
I0507 01:51:54.347918 10537 data_layer.cpp:41] output data size: 512,3,48,48
I0507 01:51:54.384070 10537 net.cpp:150] Setting up data
I0507 01:51:54.384131 10537 net.cpp:157] Top shape: 512 3 48 48 (3538944)
I0507 01:51:54.384138 10537 net.cpp:157] Top shape: 512 (512)
I0507 01:51:54.384142 10537 net.cpp:165] Memory required for data: 14157824
I0507 01:51:54.384155 10537 layer_factory.hpp:77] Creating layer label_data_1_split
I0507 01:51:54.384169 10537 net.cpp:100] Creating Layer label_data_1_split
I0507 01:51:54.384176 10537 net.cpp:434] label_data_1_split <- label
I0507 01:51:54.384191 10537 net.cpp:408] label_data_1_split -> label_data_1_split_0
I0507 01:51:54.384208 10537 net.cpp:408] label_data_1_split -> label_data_1_split_1
I0507 01:51:54.384218 10537 net.cpp:408] label_data_1_split -> label_data_1_split_2
I0507 01:51:54.384320 10537 net.cpp:150] Setting up label_data_1_split
I0507 01:51:54.384330 10537 net.cpp:157] Top shape: 512 (512)
I0507 01:51:54.384333 10537 net.cpp:157] Top shape: 512 (512)
I0507 01:51:54.384338 10537 net.cpp:157] Top shape: 512 (512)
I0507 01:51:54.384341 10537 net.cpp:165] Memory required for data: 14163968
I0507 01:51:54.384346 10537 layer_factory.hpp:77] Creating layer conv1
I0507 01:51:54.384363 10537 net.cpp:100] Creating Layer conv1
I0507 01:51:54.384371 10537 net.cpp:434] conv1 <- data
I0507 01:51:54.384377 10537 net.cpp:408] conv1 -> conv1
I0507 01:51:54.803207 10537 net.cpp:150] Setting up conv1
I0507 01:51:54.803238 10537 net.cpp:157] Top shape: 512 100 42 42 (90316800)
I0507 01:51:54.803242 10537 net.cpp:165] Memory required for data: 375431168
I0507 01:51:54.803268 10537 layer_factory.hpp:77] Creating layer conv1_relu
I0507 01:51:54.803283 10537 net.cpp:100] Creating Layer conv1_relu
I0507 01:51:54.803290 10537 net.cpp:434] conv1_relu <- conv1
I0507 01:51:54.803297 10537 net.cpp:395] conv1_relu -> conv1 (in-place)
I0507 01:51:54.803531 10537 net.cpp:150] Setting up conv1_relu
I0507 01:51:54.803544 10537 net.cpp:157] Top shape: 512 100 42 42 (90316800)
I0507 01:51:54.803550 10537 net.cpp:165] Memory required for data: 736698368
I0507 01:51:54.803555 10537 layer_factory.hpp:77] Creating layer pool1
I0507 01:51:54.803565 10537 net.cpp:100] Creating Layer pool1
I0507 01:51:54.803570 10537 net.cpp:434] pool1 <- conv1
I0507 01:51:54.803576 10537 net.cpp:408] pool1 -> pool1
I0507 01:51:54.803640 10537 net.cpp:150] Setting up pool1
I0507 01:51:54.803650 10537 net.cpp:157] Top shape: 512 100 21 21 (22579200)
I0507 01:51:54.803655 10537 net.cpp:165] Memory required for data: 827015168
I0507 01:51:54.803658 10537 layer_factory.hpp:77] Creating layer conv2
I0507 01:51:54.803670 10537 net.cpp:100] Creating Layer conv2
I0507 01:51:54.803676 10537 net.cpp:434] conv2 <- pool1
I0507 01:51:54.803681 10537 net.cpp:408] conv2 -> conv2
I0507 01:51:54.812091 10537 net.cpp:150] Setting up conv2
I0507 01:51:54.812114 10537 net.cpp:157] Top shape: 512 150 18 18 (24883200)
I0507 01:51:54.812119 10537 net.cpp:165] Memory required for data: 926547968
I0507 01:51:54.812130 10537 layer_factory.hpp:77] Creating layer conv2_relu
I0507 01:51:54.812140 10537 net.cpp:100] Creating Layer conv2_relu
I0507 01:51:54.812146 10537 net.cpp:434] conv2_relu <- conv2
I0507 01:51:54.812153 10537 net.cpp:395] conv2_relu -> conv2 (in-place)
I0507 01:51:54.815692 10537 net.cpp:150] Setting up conv2_relu
I0507 01:51:54.815716 10537 net.cpp:157] Top shape: 512 150 18 18 (24883200)
I0507 01:51:54.815721 10537 net.cpp:165] Memory required for data: 1026080768
I0507 01:51:54.815726 10537 layer_factory.hpp:77] Creating layer pool2
I0507 01:51:54.815734 10537 net.cpp:100] Creating Layer pool2
I0507 01:51:54.815740 10537 net.cpp:434] pool2 <- conv2
I0507 01:51:54.815749 10537 net.cpp:408] pool2 -> pool2
I0507 01:51:54.815814 10537 net.cpp:150] Setting up pool2
I0507 01:51:54.815825 10537 net.cpp:157] Top shape: 512 150 9 9 (6220800)
I0507 01:51:54.815830 10537 net.cpp:165] Memory required for data: 1050963968
I0507 01:51:54.815834 10537 layer_factory.hpp:77] Creating layer conv3
I0507 01:51:54.815847 10537 net.cpp:100] Creating Layer conv3
I0507 01:51:54.815853 10537 net.cpp:434] conv3 <- pool2
I0507 01:51:54.815860 10537 net.cpp:408] conv3 -> conv3
I0507 01:51:54.824805 10537 net.cpp:150] Setting up conv3
I0507 01:51:54.824826 10537 net.cpp:157] Top shape: 512 250 6 6 (4608000)
I0507 01:51:54.824831 10537 net.cpp:165] Memory required for data: 1069395968
I0507 01:51:54.824843 10537 layer_factory.hpp:77] Creating layer conv3_relu
I0507 01:51:54.824856 10537 net.cpp:100] Creating Layer conv3_relu
I0507 01:51:54.824867 10537 net.cpp:434] conv3_relu <- conv3
I0507 01:51:54.824873 10537 net.cpp:395] conv3_relu -> conv3 (in-place)
I0507 01:51:54.827947 10537 net.cpp:150] Setting up conv3_relu
I0507 01:51:54.827975 10537 net.cpp:157] Top shape: 512 250 6 6 (4608000)
I0507 01:51:54.827980 10537 net.cpp:165] Memory required for data: 1087827968
I0507 01:51:54.827986 10537 layer_factory.hpp:77] Creating layer pool3
I0507 01:51:54.827996 10537 net.cpp:100] Creating Layer pool3
I0507 01:51:54.828001 10537 net.cpp:434] pool3 <- conv3
I0507 01:51:54.828012 10537 net.cpp:408] pool3 -> pool3
I0507 01:51:54.828074 10537 net.cpp:150] Setting up pool3
I0507 01:51:54.828083 10537 net.cpp:157] Top shape: 512 250 3 3 (1152000)
I0507 01:51:54.828088 10537 net.cpp:165] Memory required for data: 1092435968
I0507 01:51:54.828092 10537 layer_factory.hpp:77] Creating layer fc4_300
I0507 01:51:54.828101 10537 net.cpp:100] Creating Layer fc4_300
I0507 01:51:54.828106 10537 net.cpp:434] fc4_300 <- pool3
I0507 01:51:54.828112 10537 net.cpp:408] fc4_300 -> fc4_300
I0507 01:51:54.835925 10537 net.cpp:150] Setting up fc4_300
I0507 01:51:54.835952 10537 net.cpp:157] Top shape: 512 300 (153600)
I0507 01:51:54.835955 10537 net.cpp:165] Memory required for data: 1093050368
I0507 01:51:54.835965 10537 layer_factory.hpp:77] Creating layer fc4_relu
I0507 01:51:54.835976 10537 net.cpp:100] Creating Layer fc4_relu
I0507 01:51:54.835983 10537 net.cpp:434] fc4_relu <- fc4_300
I0507 01:51:54.835991 10537 net.cpp:395] fc4_relu -> fc4_300 (in-place)
I0507 01:51:54.836242 10537 net.cpp:150] Setting up fc4_relu
I0507 01:51:54.836256 10537 net.cpp:157] Top shape: 512 300 (153600)
I0507 01:51:54.836259 10537 net.cpp:165] Memory required for data: 1093664768
I0507 01:51:54.836263 10537 layer_factory.hpp:77] Creating layer fc5_116
I0507 01:51:54.836273 10537 net.cpp:100] Creating Layer fc5_116
I0507 01:51:54.836282 10537 net.cpp:434] fc5_116 <- fc4_300
I0507 01:51:54.836288 10537 net.cpp:408] fc5_116 -> fc5_classes
I0507 01:51:54.838474 10537 net.cpp:150] Setting up fc5_116
I0507 01:51:54.838495 10537 net.cpp:157] Top shape: 512 116 (59392)
I0507 01:51:54.838500 10537 net.cpp:165] Memory required for data: 1093902336
I0507 01:51:54.838511 10537 layer_factory.hpp:77] Creating layer fc5_classes_fc5_116_0_split
I0507 01:51:54.838524 10537 net.cpp:100] Creating Layer fc5_classes_fc5_116_0_split
I0507 01:51:54.838531 10537 net.cpp:434] fc5_classes_fc5_116_0_split <- fc5_classes
I0507 01:51:54.838538 10537 net.cpp:408] fc5_classes_fc5_116_0_split -> fc5_classes_fc5_116_0_split_0
I0507 01:51:54.838549 10537 net.cpp:408] fc5_classes_fc5_116_0_split -> fc5_classes_fc5_116_0_split_1
I0507 01:51:54.838558 10537 net.cpp:408] fc5_classes_fc5_116_0_split -> fc5_classes_fc5_116_0_split_2
I0507 01:51:54.838624 10537 net.cpp:150] Setting up fc5_classes_fc5_116_0_split
I0507 01:51:54.838632 10537 net.cpp:157] Top shape: 512 116 (59392)
I0507 01:51:54.838639 10537 net.cpp:157] Top shape: 512 116 (59392)
I0507 01:51:54.838642 10537 net.cpp:157] Top shape: 512 116 (59392)
I0507 01:51:54.838645 10537 net.cpp:165] Memory required for data: 1094615040
I0507 01:51:54.838649 10537 layer_factory.hpp:77] Creating layer softmax
I0507 01:51:54.838657 10537 net.cpp:100] Creating Layer softmax
I0507 01:51:54.838662 10537 net.cpp:434] softmax <- fc5_classes_fc5_116_0_split_0
I0507 01:51:54.838670 10537 net.cpp:408] softmax -> softmax
I0507 01:51:54.838986 10537 net.cpp:150] Setting up softmax
I0507 01:51:54.839004 10537 net.cpp:157] Top shape: 512 116 (59392)
I0507 01:51:54.839009 10537 net.cpp:165] Memory required for data: 1094852608
I0507 01:51:54.839012 10537 layer_factory.hpp:77] Creating layer loss
I0507 01:51:54.839025 10537 net.cpp:100] Creating Layer loss
I0507 01:51:54.839049 10537 net.cpp:434] loss <- softmax
I0507 01:51:54.839057 10537 net.cpp:434] loss <- label_data_1_split_0
I0507 01:51:54.839066 10537 net.cpp:408] loss -> loss
…
