…
I0412 08:54:03.925498 22712 solver.cpp:93] Creating training net from train_net file: ./Prototxt/experiment_10/rtsd-r1/imajust/trial_1/train.prototxt
I0412 08:54:03.925853 22712 net.cpp:58] Initializing net from parameters: 
state {
  phase: TRAIN
  level: 0
  stage: ""
}
layer {
  name: "data"
  type: "Data"
  top: "data"
  top: "label"
  include {
    phase: TRAIN
  }
  transform_param {
    scale: 0.0039215689
    mirror: false
    crop_size: 48
    mean_value: 115
    mean_value: 108
    mean_value: 122
  }
  data_param {
    source: "../local_data/lmdb/rtsd-r1/imajust/train/lmdb"
    batch_size: 1024
    backend: LMDB
  }
}
layer {
  name: "conv1"
  type: "Convolution"
  bottom: "data"
  top: "conv1"
  convolution_param {
    num_output: 100
    pad: 0
    kernel_size: 7
    group: 1
    stride: 1
    weight_filler {
      type: "xavier"
    }
  }
}
layer {
  name: "conv1_relu"
  type: "ReLU"
  bottom: "conv1"
  top: "conv1"
}
layer {
  name: "pool1"
  type: "Pooling"
  bottom: "conv1"
  top: "pool1"
  pooling_param {
    pool: MAX
    kernel_size: 2
    stride: 2
  }
}
layer {
  name: "conv2"
  type: "Convolution"
  bottom: "pool1"
  top: "conv2"
  convolution_param {
    num_output: 150
    pad: 0
    kernel_size: 4
    group: 1
    stride: 1
    weight_filler {
      type: "xavier"
    }
  }
}
layer {
  name: "conv2_relu"
  type: "ReLU"
  bottom: "conv2"
  top: "conv2"
}
layer {
  name: "pool2"
  type: "Pooling"
  bottom: "conv2"
  top: "pool2"
  pooling_param {
    pool: MAX
    kernel_size: 2
    stride: 2
  }
}
layer {
  name: "conv3"
  type: "Convolution"
  bottom: "pool2"
  top: "conv3"
  convolution_param {
    num_output: 250
    pad: 0
    kernel_size: 4
    group: 1
    stride: 1
    weight_filler {
      type: "xavier"
    }
  }
}
layer {
  name: "conv3_relu"
  type: "ReLU"
  bottom: "conv3"
  top: "conv3"
}
layer {
  name: "pool3"
  type: "Pooling"
  bottom: "conv3"
  top: "pool3"
  pooling_param {
    pool: MAX
    kernel_size: 2
    stride: 2
  }
}
layer {
  name: "fc4_300"
  type: "InnerProduct"
  bottom: "pool3"
  top: "fc4_300"
  inner_product_param {
    num_output: 300
    weight_filler {
      type: "xavier"
    }
  }
}
layer {
  name: "fc4_relu"
  type: "ReLU"
  bottom: "fc4_300"
  top: "fc4_300"
}
layer {
  name: "drop4"
  type: "Dropout"
  bottom: "fc4_300"
  top: "fc4_300"
  dropout_param {
    dropout_ratio: 0.4
  }
}
layer {
  name: "fc5_67"
  type: "InnerProduct"
  bottom: "fc4_300"
  top: "fc5_classes"
  inner_product_param {
    num_output: 67
    weight_filler {
      type: "xavier"
    }
  }
}
layer {
  name: "softmax"
  type: "Softmax"
  bottom: "fc5_classes"
  top: "softmax"
}
layer {
  name: "loss"
  type: "MultinomialLogisticLoss"
  bottom: "softmax"
  bottom: "label"
  top: "loss"
}
layer {
  name: "accuracy_1"
  type: "Accuracy"
  bottom: "fc5_classes"
  bottom: "label"
  top: "accuracy_1"
  accuracy_param {
    top_k: 1
  }
}
layer {
  name: "accuracy_5"
  type: "Accuracy"
  bottom: "fc5_classes"
  bottom: "label"
  top: "accuracy_5"
  accuracy_param {
    top_k: 5
  }
}
I0412 08:54:03.925967 22712 layer_factory.hpp:77] Creating layer data
I0412 08:54:03.927017 22712 net.cpp:100] Creating Layer data
I0412 08:54:03.927034 22712 net.cpp:408] data -> data
I0412 08:54:03.927057 22712 net.cpp:408] data -> label
I0412 08:54:03.939388 22827 db_lmdb.cpp:35] Opened lmdb ../local_data/lmdb/rtsd-r1/imajust/train/lmdb
I0412 08:54:03.962123 22712 data_layer.cpp:41] output data size: 1024,3,48,48
I0412 08:54:04.016240 22712 net.cpp:150] Setting up data
I0412 08:54:04.016268 22712 net.cpp:157] Top shape: 1024 3 48 48 (7077888)
I0412 08:54:04.016273 22712 net.cpp:157] Top shape: 1024 (1024)
I0412 08:54:04.016275 22712 net.cpp:165] Memory required for data: 28315648
I0412 08:54:04.016286 22712 layer_factory.hpp:77] Creating layer label_data_1_split
I0412 08:54:04.016300 22712 net.cpp:100] Creating Layer label_data_1_split
I0412 08:54:04.016306 22712 net.cpp:434] label_data_1_split <- label
I0412 08:54:04.016319 22712 net.cpp:408] label_data_1_split -> label_data_1_split_0
I0412 08:54:04.016331 22712 net.cpp:408] label_data_1_split -> label_data_1_split_1
I0412 08:54:04.016340 22712 net.cpp:408] label_data_1_split -> label_data_1_split_2
I0412 08:54:04.016400 22712 net.cpp:150] Setting up label_data_1_split
I0412 08:54:04.016408 22712 net.cpp:157] Top shape: 1024 (1024)
I0412 08:54:04.016412 22712 net.cpp:157] Top shape: 1024 (1024)
I0412 08:54:04.016415 22712 net.cpp:157] Top shape: 1024 (1024)
I0412 08:54:04.016417 22712 net.cpp:165] Memory required for data: 28327936
I0412 08:54:04.016420 22712 layer_factory.hpp:77] Creating layer conv1
I0412 08:54:04.016444 22712 net.cpp:100] Creating Layer conv1
I0412 08:54:04.016450 22712 net.cpp:434] conv1 <- data
I0412 08:54:04.016456 22712 net.cpp:408] conv1 -> conv1
I0412 08:54:04.348007 22712 net.cpp:150] Setting up conv1
I0412 08:54:04.348036 22712 net.cpp:157] Top shape: 1024 100 42 42 (180633600)
I0412 08:54:04.348039 22712 net.cpp:165] Memory required for data: 750862336
I0412 08:54:04.348062 22712 layer_factory.hpp:77] Creating layer conv1_relu
I0412 08:54:04.348073 22712 net.cpp:100] Creating Layer conv1_relu
I0412 08:54:04.348076 22712 net.cpp:434] conv1_relu <- conv1
I0412 08:54:04.348083 22712 net.cpp:395] conv1_relu -> conv1 (in-place)
I0412 08:54:04.348274 22712 net.cpp:150] Setting up conv1_relu
I0412 08:54:04.348286 22712 net.cpp:157] Top shape: 1024 100 42 42 (180633600)
I0412 08:54:04.348289 22712 net.cpp:165] Memory required for data: 1473396736
I0412 08:54:04.348294 22712 layer_factory.hpp:77] Creating layer pool1
I0412 08:54:04.348302 22712 net.cpp:100] Creating Layer pool1
I0412 08:54:04.348307 22712 net.cpp:434] pool1 <- conv1
I0412 08:54:04.348312 22712 net.cpp:408] pool1 -> pool1
I0412 08:54:04.348366 22712 net.cpp:150] Setting up pool1
I0412 08:54:04.348373 22712 net.cpp:157] Top shape: 1024 100 21 21 (45158400)
I0412 08:54:04.348376 22712 net.cpp:165] Memory required for data: 1654030336
I0412 08:54:04.348379 22712 layer_factory.hpp:77] Creating layer conv2
I0412 08:54:04.348390 22712 net.cpp:100] Creating Layer conv2
I0412 08:54:04.348395 22712 net.cpp:434] conv2 <- pool1
I0412 08:54:04.348399 22712 net.cpp:408] conv2 -> conv2
I0412 08:54:04.356140 22712 net.cpp:150] Setting up conv2
I0412 08:54:04.356158 22712 net.cpp:157] Top shape: 1024 150 18 18 (49766400)
I0412 08:54:04.356161 22712 net.cpp:165] Memory required for data: 1853095936
I0412 08:54:04.356171 22712 layer_factory.hpp:77] Creating layer conv2_relu
I0412 08:54:04.356178 22712 net.cpp:100] Creating Layer conv2_relu
I0412 08:54:04.356181 22712 net.cpp:434] conv2_relu <- conv2
I0412 08:54:04.356186 22712 net.cpp:395] conv2_relu -> conv2 (in-place)
I0412 08:54:04.357707 22712 net.cpp:150] Setting up conv2_relu
I0412 08:54:04.357725 22712 net.cpp:157] Top shape: 1024 150 18 18 (49766400)
I0412 08:54:04.357728 22712 net.cpp:165] Memory required for data: 2052161536
I0412 08:54:04.357733 22712 layer_factory.hpp:77] Creating layer pool2
I0412 08:54:04.357739 22712 net.cpp:100] Creating Layer pool2
I0412 08:54:04.357743 22712 net.cpp:434] pool2 <- conv2
I0412 08:54:04.357748 22712 net.cpp:408] pool2 -> pool2
I0412 08:54:04.357796 22712 net.cpp:150] Setting up pool2
I0412 08:54:04.357805 22712 net.cpp:157] Top shape: 1024 150 9 9 (12441600)
I0412 08:54:04.357808 22712 net.cpp:165] Memory required for data: 2101927936
I0412 08:54:04.357811 22712 layer_factory.hpp:77] Creating layer conv3
I0412 08:54:04.357820 22712 net.cpp:100] Creating Layer conv3
I0412 08:54:04.357825 22712 net.cpp:434] conv3 <- pool2
I0412 08:54:04.357851 22712 net.cpp:408] conv3 -> conv3
I0412 08:54:04.363584 22712 net.cpp:150] Setting up conv3
I0412 08:54:04.363602 22712 net.cpp:157] Top shape: 1024 250 6 6 (9216000)
I0412 08:54:04.363606 22712 net.cpp:165] Memory required for data: 2138791936
I0412 08:54:04.363615 22712 layer_factory.hpp:77] Creating layer conv3_relu
I0412 08:54:04.363622 22712 net.cpp:100] Creating Layer conv3_relu
I0412 08:54:04.363626 22712 net.cpp:434] conv3_relu <- conv3
I0412 08:54:04.363631 22712 net.cpp:395] conv3_relu -> conv3 (in-place)
I0412 08:54:04.364966 22712 net.cpp:150] Setting up conv3_relu
I0412 08:54:04.364981 22712 net.cpp:157] Top shape: 1024 250 6 6 (9216000)
I0412 08:54:04.364996 22712 net.cpp:165] Memory required for data: 2175655936
I0412 08:54:04.365000 22712 layer_factory.hpp:77] Creating layer pool3
I0412 08:54:04.365006 22712 net.cpp:100] Creating Layer pool3
I0412 08:54:04.365010 22712 net.cpp:434] pool3 <- conv3
I0412 08:54:04.365016 22712 net.cpp:408] pool3 -> pool3
I0412 08:54:04.365061 22712 net.cpp:150] Setting up pool3
I0412 08:54:04.365069 22712 net.cpp:157] Top shape: 1024 250 3 3 (2304000)
I0412 08:54:04.365072 22712 net.cpp:165] Memory required for data: 2184871936
I0412 08:54:04.365075 22712 layer_factory.hpp:77] Creating layer fc4_300
I0412 08:54:04.365082 22712 net.cpp:100] Creating Layer fc4_300
I0412 08:54:04.365085 22712 net.cpp:434] fc4_300 <- pool3
I0412 08:54:04.365089 22712 net.cpp:408] fc4_300 -> fc4_300
I0412 08:54:04.373646 22712 net.cpp:150] Setting up fc4_300
I0412 08:54:04.373670 22712 net.cpp:157] Top shape: 1024 300 (307200)
I0412 08:54:04.373674 22712 net.cpp:165] Memory required for data: 2186100736
I0412 08:54:04.373682 22712 layer_factory.hpp:77] Creating layer fc4_relu
I0412 08:54:04.373687 22712 net.cpp:100] Creating Layer fc4_relu
I0412 08:54:04.373690 22712 net.cpp:434] fc4_relu <- fc4_300
I0412 08:54:04.373695 22712 net.cpp:395] fc4_relu -> fc4_300 (in-place)
I0412 08:54:04.373895 22712 net.cpp:150] Setting up fc4_relu
I0412 08:54:04.373908 22712 net.cpp:157] Top shape: 1024 300 (307200)
I0412 08:54:04.373910 22712 net.cpp:165] Memory required for data: 2187329536
I0412 08:54:04.373914 22712 layer_factory.hpp:77] Creating layer drop4
I0412 08:54:04.373920 22712 net.cpp:100] Creating Layer drop4
I0412 08:54:04.373924 22712 net.cpp:434] drop4 <- fc4_300
I0412 08:54:04.373927 22712 net.cpp:395] drop4 -> fc4_300 (in-place)
I0412 08:54:04.373960 22712 net.cpp:150] Setting up drop4
I0412 08:54:04.373966 22712 net.cpp:157] Top shape: 1024 300 (307200)
I0412 08:54:04.373970 22712 net.cpp:165] Memory required for data: 2188558336
I0412 08:54:04.373972 22712 layer_factory.hpp:77] Creating layer fc5_67
I0412 08:54:04.373980 22712 net.cpp:100] Creating Layer fc5_67
I0412 08:54:04.373982 22712 net.cpp:434] fc5_67 <- fc4_300
I0412 08:54:04.373986 22712 net.cpp:408] fc5_67 -> fc5_classes
I0412 08:54:04.376415 22712 net.cpp:150] Setting up fc5_67
I0412 08:54:04.376430 22712 net.cpp:157] Top shape: 1024 67 (68608)
I0412 08:54:04.376444 22712 net.cpp:165] Memory required for data: 2188832768
I0412 08:54:04.376454 22712 layer_factory.hpp:77] Creating layer fc5_classes_fc5_67_0_split
I0412 08:54:04.376461 22712 net.cpp:100] Creating Layer fc5_classes_fc5_67_0_split
I0412 08:54:04.376466 22712 net.cpp:434] fc5_classes_fc5_67_0_split <- fc5_classes
I0412 08:54:04.376471 22712 net.cpp:408] fc5_classes_fc5_67_0_split -> fc5_classes_fc5_67_0_split_0
I0412 08:54:04.376477 22712 net.cpp:408] fc5_classes_fc5_67_0_split -> fc5_classes_fc5_67_0_split_1
I0412 08:54:04.376483 22712 net.cpp:408] fc5_classes_fc5_67_0_split -> fc5_classes_fc5_67_0_split_2
I0412 08:54:04.376533 22712 net.cpp:150] Setting up fc5_classes_fc5_67_0_split
I0412 08:54:04.376539 22712 net.cpp:157] Top shape: 1024 67 (68608)
I0412 08:54:04.376543 22712 net.cpp:157] Top shape: 1024 67 (68608)
I0412 08:54:04.376546 22712 net.cpp:157] Top shape: 1024 67 (68608)
I0412 08:54:04.376549 22712 net.cpp:165] Memory required for data: 2189656064
I0412 08:54:04.376551 22712 layer_factory.hpp:77] Creating layer softmax
I0412 08:54:04.376575 22712 net.cpp:100] Creating Layer softmax
I0412 08:54:04.376581 22712 net.cpp:434] softmax <- fc5_classes_fc5_67_0_split_0
I0412 08:54:04.376586 22712 net.cpp:408] softmax -> softmax
I0412 08:54:04.376835 22712 net.cpp:150] Setting up softmax
I0412 08:54:04.376847 22712 net.cpp:157] Top shape: 1024 67 (68608)
I0412 08:54:04.376850 22712 net.cpp:165] Memory required for data: 2189930496
I0412 08:54:04.376853 22712 layer_factory.hpp:77] Creating layer loss
I0412 08:54:04.376859 22712 net.cpp:100] Creating Layer loss
I0412 08:54:04.376863 22712 net.cpp:434] loss <- softmax
I0412 08:54:04.376868 22712 net.cpp:434] loss <- label_data_1_split_0
I0412 08:54:04.376873 22712 net.cpp:408] loss -> loss
…
