…
I0414 08:08:45.542285 24169 solver.cpp:93] Creating training net from train_net file: ./Prototxt/experiment_10/rtsd-r1/imajust/trial_1/train.prototxt
I0414 08:08:45.542688 24169 net.cpp:58] Initializing net from parameters: 
state {
  phase: TRAIN
  level: 0
  stage: ""
}
layer {
  name: "data"
  type: "Data"
  top: "data"
  top: "label"
  include {
    phase: TRAIN
  }
  transform_param {
    scale: 0.0039215689
    mirror: false
    crop_size: 48
    mean_value: 115
    mean_value: 108
    mean_value: 122
  }
  data_param {
    source: "../local_data/lmdb/rtsd-r1/imajust/train/lmdb"
    batch_size: 1024
    backend: LMDB
  }
}
layer {
  name: "conv1"
  type: "Convolution"
  bottom: "data"
  top: "conv1"
  convolution_param {
    num_output: 100
    pad: 0
    kernel_size: 7
    group: 1
    stride: 1
    weight_filler {
      type: "xavier"
    }
  }
}
layer {
  name: "conv1_relu"
  type: "ReLU"
  bottom: "conv1"
  top: "conv1"
}
layer {
  name: "pool1"
  type: "Pooling"
  bottom: "conv1"
  top: "pool1"
  pooling_param {
    pool: MAX
    kernel_size: 2
    stride: 2
  }
}
layer {
  name: "conv2"
  type: "Convolution"
  bottom: "pool1"
  top: "conv2"
  convolution_param {
    num_output: 150
    pad: 0
    kernel_size: 4
    group: 1
    stride: 1
    weight_filler {
      type: "xavier"
    }
  }
}
layer {
  name: "conv2_relu"
  type: "ReLU"
  bottom: "conv2"
  top: "conv2"
}
layer {
  name: "pool2"
  type: "Pooling"
  bottom: "conv2"
  top: "pool2"
  pooling_param {
    pool: MAX
    kernel_size: 2
    stride: 2
  }
}
layer {
  name: "conv3"
  type: "Convolution"
  bottom: "pool2"
  top: "conv3"
  convolution_param {
    num_output: 250
    pad: 0
    kernel_size: 4
    group: 1
    stride: 1
    weight_filler {
      type: "xavier"
    }
  }
}
layer {
  name: "conv3_relu"
  type: "ReLU"
  bottom: "conv3"
  top: "conv3"
}
layer {
  name: "pool3"
  type: "Pooling"
  bottom: "conv3"
  top: "pool3"
  pooling_param {
    pool: MAX
    kernel_size: 2
    stride: 2
  }
}
layer {
  name: "fc4_300"
  type: "InnerProduct"
  bottom: "pool3"
  top: "fc4_300"
  inner_product_param {
    num_output: 300
    weight_filler {
      type: "xavier"
    }
  }
}
layer {
  name: "fc4_relu"
  type: "ReLU"
  bottom: "fc4_300"
  top: "fc4_300"
}
layer {
  name: "fc5_67"
  type: "InnerProduct"
  bottom: "fc4_300"
  top: "fc5_classes"
  inner_product_param {
    num_output: 67
    weight_filler {
      type: "xavier"
    }
  }
}
layer {
  name: "softmax"
  type: "Softmax"
  bottom: "fc5_classes"
  top: "softmax"
}
layer {
  name: "loss"
  type: "MultinomialLogisticLoss"
  bottom: "softmax"
  bottom: "label"
  top: "loss"
}
layer {
  name: "accuracy_1"
  type: "Accuracy"
  bottom: "fc5_classes"
  bottom: "label"
  top: "accuracy_1"
  accuracy_param {
    top_k: 1
  }
}
layer {
  name: "accuracy_5"
  type: "Accuracy"
  bottom: "fc5_classes"
  bottom: "label"
  top: "accuracy_5"
  accuracy_param {
    top_k: 5
  }
}
layer {
  name: "silence"
  type: "Silence"
  bottom: "accuracy_1"
  bottom: "accuracy_5"
}
I0414 08:08:45.542825 24169 layer_factory.hpp:77] Creating layer data
I0414 08:08:45.544129 24169 net.cpp:100] Creating Layer data
I0414 08:08:45.544150 24169 net.cpp:408] data -> data
I0414 08:08:45.544178 24169 net.cpp:408] data -> label
I0414 08:08:45.545166 24282 db_lmdb.cpp:35] Opened lmdb ../local_data/lmdb/rtsd-r1/imajust/train/lmdb
I0414 08:08:45.565022 24169 data_layer.cpp:41] output data size: 1024,3,48,48
I0414 08:08:45.647809 24169 net.cpp:150] Setting up data
I0414 08:08:45.647867 24169 net.cpp:157] Top shape: 1024 3 48 48 (7077888)
I0414 08:08:45.647876 24169 net.cpp:157] Top shape: 1024 (1024)
I0414 08:08:45.647892 24169 net.cpp:165] Memory required for data: 28315648
I0414 08:08:45.647904 24169 layer_factory.hpp:77] Creating layer label_data_1_split
I0414 08:08:45.647920 24169 net.cpp:100] Creating Layer label_data_1_split
I0414 08:08:45.647930 24169 net.cpp:434] label_data_1_split <- label
I0414 08:08:45.647945 24169 net.cpp:408] label_data_1_split -> label_data_1_split_0
I0414 08:08:45.647959 24169 net.cpp:408] label_data_1_split -> label_data_1_split_1
I0414 08:08:45.647969 24169 net.cpp:408] label_data_1_split -> label_data_1_split_2
I0414 08:08:45.648048 24169 net.cpp:150] Setting up label_data_1_split
I0414 08:08:45.648058 24169 net.cpp:157] Top shape: 1024 (1024)
I0414 08:08:45.648066 24169 net.cpp:157] Top shape: 1024 (1024)
I0414 08:08:45.648069 24169 net.cpp:157] Top shape: 1024 (1024)
I0414 08:08:45.648072 24169 net.cpp:165] Memory required for data: 28327936
I0414 08:08:45.648077 24169 layer_factory.hpp:77] Creating layer conv1
I0414 08:08:45.648095 24169 net.cpp:100] Creating Layer conv1
I0414 08:08:45.648102 24169 net.cpp:434] conv1 <- data
I0414 08:08:45.648109 24169 net.cpp:408] conv1 -> conv1
I0414 08:08:46.046270 24169 net.cpp:150] Setting up conv1
I0414 08:08:46.046299 24169 net.cpp:157] Top shape: 1024 100 42 42 (180633600)
I0414 08:08:46.046303 24169 net.cpp:165] Memory required for data: 750862336
I0414 08:08:46.046325 24169 layer_factory.hpp:77] Creating layer conv1_relu
I0414 08:08:46.046337 24169 net.cpp:100] Creating Layer conv1_relu
I0414 08:08:46.046341 24169 net.cpp:434] conv1_relu <- conv1
I0414 08:08:46.046346 24169 net.cpp:395] conv1_relu -> conv1 (in-place)
I0414 08:08:46.046541 24169 net.cpp:150] Setting up conv1_relu
I0414 08:08:46.046553 24169 net.cpp:157] Top shape: 1024 100 42 42 (180633600)
I0414 08:08:46.046556 24169 net.cpp:165] Memory required for data: 1473396736
I0414 08:08:46.046560 24169 layer_factory.hpp:77] Creating layer pool1
I0414 08:08:46.046569 24169 net.cpp:100] Creating Layer pool1
I0414 08:08:46.046573 24169 net.cpp:434] pool1 <- conv1
I0414 08:08:46.046578 24169 net.cpp:408] pool1 -> pool1
I0414 08:08:46.046632 24169 net.cpp:150] Setting up pool1
I0414 08:08:46.046639 24169 net.cpp:157] Top shape: 1024 100 21 21 (45158400)
I0414 08:08:46.046643 24169 net.cpp:165] Memory required for data: 1654030336
I0414 08:08:46.046648 24169 layer_factory.hpp:77] Creating layer conv2
I0414 08:08:46.046658 24169 net.cpp:100] Creating Layer conv2
I0414 08:08:46.046661 24169 net.cpp:434] conv2 <- pool1
I0414 08:08:46.046666 24169 net.cpp:408] conv2 -> conv2
I0414 08:08:46.085777 24169 net.cpp:150] Setting up conv2
I0414 08:08:46.085800 24169 net.cpp:157] Top shape: 1024 150 18 18 (49766400)
I0414 08:08:46.085803 24169 net.cpp:165] Memory required for data: 1853095936
I0414 08:08:46.085816 24169 layer_factory.hpp:77] Creating layer conv2_relu
I0414 08:08:46.085826 24169 net.cpp:100] Creating Layer conv2_relu
I0414 08:08:46.085832 24169 net.cpp:434] conv2_relu <- conv2
I0414 08:08:46.085839 24169 net.cpp:395] conv2_relu -> conv2 (in-place)
I0414 08:08:46.087702 24169 net.cpp:150] Setting up conv2_relu
I0414 08:08:46.087720 24169 net.cpp:157] Top shape: 1024 150 18 18 (49766400)
I0414 08:08:46.087723 24169 net.cpp:165] Memory required for data: 2052161536
I0414 08:08:46.087728 24169 layer_factory.hpp:77] Creating layer pool2
I0414 08:08:46.087735 24169 net.cpp:100] Creating Layer pool2
I0414 08:08:46.087740 24169 net.cpp:434] pool2 <- conv2
I0414 08:08:46.087746 24169 net.cpp:408] pool2 -> pool2
I0414 08:08:46.087798 24169 net.cpp:150] Setting up pool2
I0414 08:08:46.087806 24169 net.cpp:157] Top shape: 1024 150 9 9 (12441600)
I0414 08:08:46.087810 24169 net.cpp:165] Memory required for data: 2101927936
I0414 08:08:46.087812 24169 layer_factory.hpp:77] Creating layer conv3
I0414 08:08:46.087824 24169 net.cpp:100] Creating Layer conv3
I0414 08:08:46.087829 24169 net.cpp:434] conv3 <- pool2
I0414 08:08:46.087855 24169 net.cpp:408] conv3 -> conv3
I0414 08:08:46.093960 24169 net.cpp:150] Setting up conv3
I0414 08:08:46.093979 24169 net.cpp:157] Top shape: 1024 250 6 6 (9216000)
I0414 08:08:46.093983 24169 net.cpp:165] Memory required for data: 2138791936
I0414 08:08:46.093994 24169 layer_factory.hpp:77] Creating layer conv3_relu
I0414 08:08:46.094002 24169 net.cpp:100] Creating Layer conv3_relu
I0414 08:08:46.094005 24169 net.cpp:434] conv3_relu <- conv3
I0414 08:08:46.094010 24169 net.cpp:395] conv3_relu -> conv3 (in-place)
I0414 08:08:46.101655 24169 net.cpp:150] Setting up conv3_relu
I0414 08:08:46.101675 24169 net.cpp:157] Top shape: 1024 250 6 6 (9216000)
I0414 08:08:46.101678 24169 net.cpp:165] Memory required for data: 2175655936
I0414 08:08:46.101683 24169 layer_factory.hpp:77] Creating layer pool3
I0414 08:08:46.101692 24169 net.cpp:100] Creating Layer pool3
I0414 08:08:46.101696 24169 net.cpp:434] pool3 <- conv3
I0414 08:08:46.101702 24169 net.cpp:408] pool3 -> pool3
I0414 08:08:46.101752 24169 net.cpp:150] Setting up pool3
I0414 08:08:46.101760 24169 net.cpp:157] Top shape: 1024 250 3 3 (2304000)
I0414 08:08:46.101763 24169 net.cpp:165] Memory required for data: 2184871936
I0414 08:08:46.101765 24169 layer_factory.hpp:77] Creating layer fc4_300
I0414 08:08:46.101773 24169 net.cpp:100] Creating Layer fc4_300
I0414 08:08:46.101779 24169 net.cpp:434] fc4_300 <- pool3
I0414 08:08:46.101784 24169 net.cpp:408] fc4_300 -> fc4_300
I0414 08:08:46.112977 24169 net.cpp:150] Setting up fc4_300
I0414 08:08:46.113006 24169 net.cpp:157] Top shape: 1024 300 (307200)
I0414 08:08:46.113010 24169 net.cpp:165] Memory required for data: 2186100736
I0414 08:08:46.113020 24169 layer_factory.hpp:77] Creating layer fc4_relu
I0414 08:08:46.113030 24169 net.cpp:100] Creating Layer fc4_relu
I0414 08:08:46.113034 24169 net.cpp:434] fc4_relu <- fc4_300
I0414 08:08:46.113041 24169 net.cpp:395] fc4_relu -> fc4_300 (in-place)
I0414 08:08:46.113286 24169 net.cpp:150] Setting up fc4_relu
I0414 08:08:46.113298 24169 net.cpp:157] Top shape: 1024 300 (307200)
I0414 08:08:46.113301 24169 net.cpp:165] Memory required for data: 2187329536
I0414 08:08:46.113304 24169 layer_factory.hpp:77] Creating layer fc5_67
I0414 08:08:46.113312 24169 net.cpp:100] Creating Layer fc5_67
I0414 08:08:46.113317 24169 net.cpp:434] fc5_67 <- fc4_300
I0414 08:08:46.113322 24169 net.cpp:408] fc5_67 -> fc5_classes
I0414 08:08:46.116528 24169 net.cpp:150] Setting up fc5_67
I0414 08:08:46.116547 24169 net.cpp:157] Top shape: 1024 67 (68608)
I0414 08:08:46.116551 24169 net.cpp:165] Memory required for data: 2187603968
I0414 08:08:46.116564 24169 layer_factory.hpp:77] Creating layer fc5_classes_fc5_67_0_split
I0414 08:08:46.116571 24169 net.cpp:100] Creating Layer fc5_classes_fc5_67_0_split
I0414 08:08:46.116575 24169 net.cpp:434] fc5_classes_fc5_67_0_split <- fc5_classes
I0414 08:08:46.116581 24169 net.cpp:408] fc5_classes_fc5_67_0_split -> fc5_classes_fc5_67_0_split_0
I0414 08:08:46.116590 24169 net.cpp:408] fc5_classes_fc5_67_0_split -> fc5_classes_fc5_67_0_split_1
I0414 08:08:46.116595 24169 net.cpp:408] fc5_classes_fc5_67_0_split -> fc5_classes_fc5_67_0_split_2
I0414 08:08:46.116642 24169 net.cpp:150] Setting up fc5_classes_fc5_67_0_split
I0414 08:08:46.116649 24169 net.cpp:157] Top shape: 1024 67 (68608)
I0414 08:08:46.116653 24169 net.cpp:157] Top shape: 1024 67 (68608)
I0414 08:08:46.116657 24169 net.cpp:157] Top shape: 1024 67 (68608)
I0414 08:08:46.116658 24169 net.cpp:165] Memory required for data: 2188427264
I0414 08:08:46.116662 24169 layer_factory.hpp:77] Creating layer softmax
I0414 08:08:46.116668 24169 net.cpp:100] Creating Layer softmax
I0414 08:08:46.116672 24169 net.cpp:434] softmax <- fc5_classes_fc5_67_0_split_0
I0414 08:08:46.116677 24169 net.cpp:408] softmax -> softmax
I0414 08:08:46.116928 24169 net.cpp:150] Setting up softmax
I0414 08:08:46.116941 24169 net.cpp:157] Top shape: 1024 67 (68608)
I0414 08:08:46.116945 24169 net.cpp:165] Memory required for data: 2188701696
I0414 08:08:46.116947 24169 layer_factory.hpp:77] Creating layer loss
I0414 08:08:46.116956 24169 net.cpp:100] Creating Layer loss
I0414 08:08:46.116981 24169 net.cpp:434] loss <- softmax
I0414 08:08:46.116986 24169 net.cpp:434] loss <- label_data_1_split_0
I0414 08:08:46.116992 24169 net.cpp:408] loss -> loss
…
