…
I0508 05:38:09.543720 14338 solver.cpp:93] Creating training net from train_net file: ./Prototxt/experiment_16/RTSD/imajust/trial_3/train.prototxt
I0508 05:38:09.544143 14338 net.cpp:58] Initializing net from parameters: 
state {
  phase: TRAIN
  level: 0
  stage: ""
}
layer {
  name: "data"
  type: "Data"
  top: "data"
  top: "label"
  include {
    phase: TRAIN
  }
  transform_param {
    scale: 0.0039215689
    mirror: false
    crop_size: 48
    mean_value: 119
    mean_value: 113
    mean_value: 114
  }
  data_param {
    source: "../local_data/lmdb/RTSD/imajust/train/lmdb"
    batch_size: 1024
    backend: LMDB
  }
}
layer {
  name: "conv1"
  type: "Convolution"
  bottom: "data"
  top: "conv1"
  convolution_param {
    num_output: 100
    pad: 0
    kernel_size: 7
    group: 1
    stride: 1
    weight_filler {
      type: "xavier"
    }
  }
}
layer {
  name: "conv1_relu"
  type: "ReLU"
  bottom: "conv1"
  top: "conv1"
}
layer {
  name: "pool1"
  type: "Pooling"
  bottom: "conv1"
  top: "pool1"
  pooling_param {
    pool: MAX
    kernel_size: 2
    stride: 2
  }
}
layer {
  name: "conv2"
  type: "Convolution"
  bottom: "pool1"
  top: "conv2"
  convolution_param {
    num_output: 150
    pad: 0
    kernel_size: 4
    group: 2
    stride: 1
    weight_filler {
      type: "xavier"
    }
  }
}
layer {
  name: "conv2_relu"
  type: "ReLU"
  bottom: "conv2"
  top: "conv2"
}
layer {
  name: "pool2"
  type: "Pooling"
  bottom: "conv2"
  top: "pool2"
  pooling_param {
    pool: MAX
    kernel_size: 2
    stride: 2
  }
}
layer {
  name: "conv3"
  type: "Convolution"
  bottom: "pool2"
  top: "conv3"
  convolution_param {
    num_output: 250
    pad: 0
    kernel_size: 4
    group: 2
    stride: 1
    weight_filler {
      type: "xavier"
    }
  }
}
layer {
  name: "conv3_relu"
  type: "ReLU"
  bottom: "conv3"
  top: "conv3"
}
layer {
  name: "pool3"
  type: "Pooling"
  bottom: "conv3"
  top: "pool3"
  pooling_param {
    pool: MAX
    kernel_size: 2
    stride: 2
  }
}
layer {
  name: "fc4_300"
  type: "InnerProduct"
  bottom: "pool3"
  top: "fc4_300"
  inner_product_param {
    num_output: 300
    weight_filler {
      type: "xavier"
    }
  }
}
layer {
  name: "fc4_relu"
  type: "ReLU"
  bottom: "fc4_300"
  top: "fc4_300"
}
layer {
  name: "fc5_116"
  type: "InnerProduct"
  bottom: "fc4_300"
  top: "fc5_classes"
  inner_product_param {
    num_output: 116
    weight_filler {
      type: "xavier"
    }
  }
}
layer {
  name: "softmax"
  type: "Softmax"
  bottom: "fc5_classes"
  top: "softmax"
}
layer {
  name: "loss"
  type: "MultinomialLogisticLoss"
  bottom: "softmax"
  bottom: "label"
  top: "loss"
}
layer {
  name: "accuracy_1"
  type: "Accuracy"
  bottom: "fc5_classes"
  bottom: "label"
  top: "accuracy_1"
  accuracy_param {
    top_k: 1
  }
}
layer {
  name: "accuracy_5"
  type: "Accuracy"
  bottom: "fc5_classes"
  bottom: "label"
  top: "accuracy_5"
  accuracy_param {
    top_k: 5
  }
}
layer {
  name: "silence"
  type: "Silence"
  bottom: "accuracy_1"
  bottom: "accuracy_5"
}
I0508 05:38:09.544284 14338 layer_factory.hpp:77] Creating layer data
I0508 05:38:09.545557 14338 net.cpp:100] Creating Layer data
I0508 05:38:09.545573 14338 net.cpp:408] data -> data
I0508 05:38:09.545599 14338 net.cpp:408] data -> label
I0508 05:38:09.549181 14453 db_lmdb.cpp:35] Opened lmdb ../local_data/lmdb/RTSD/imajust/train/lmdb
I0508 05:38:09.569839 14338 data_layer.cpp:41] output data size: 1024,3,48,48
I0508 05:38:09.632242 14338 net.cpp:150] Setting up data
I0508 05:38:09.632303 14338 net.cpp:157] Top shape: 1024 3 48 48 (7077888)
I0508 05:38:09.632311 14338 net.cpp:157] Top shape: 1024 (1024)
I0508 05:38:09.632315 14338 net.cpp:165] Memory required for data: 28315648
I0508 05:38:09.632328 14338 layer_factory.hpp:77] Creating layer label_data_1_split
I0508 05:38:09.632345 14338 net.cpp:100] Creating Layer label_data_1_split
I0508 05:38:09.632369 14338 net.cpp:434] label_data_1_split <- label
I0508 05:38:09.632383 14338 net.cpp:408] label_data_1_split -> label_data_1_split_0
I0508 05:38:09.632398 14338 net.cpp:408] label_data_1_split -> label_data_1_split_1
I0508 05:38:09.632407 14338 net.cpp:408] label_data_1_split -> label_data_1_split_2
I0508 05:38:09.632477 14338 net.cpp:150] Setting up label_data_1_split
I0508 05:38:09.632486 14338 net.cpp:157] Top shape: 1024 (1024)
I0508 05:38:09.632490 14338 net.cpp:157] Top shape: 1024 (1024)
I0508 05:38:09.632495 14338 net.cpp:157] Top shape: 1024 (1024)
I0508 05:38:09.632500 14338 net.cpp:165] Memory required for data: 28327936
I0508 05:38:09.632504 14338 layer_factory.hpp:77] Creating layer conv1
I0508 05:38:09.632522 14338 net.cpp:100] Creating Layer conv1
I0508 05:38:09.632529 14338 net.cpp:434] conv1 <- data
I0508 05:38:09.632534 14338 net.cpp:408] conv1 -> conv1
I0508 05:38:10.078563 14338 net.cpp:150] Setting up conv1
I0508 05:38:10.078608 14338 net.cpp:157] Top shape: 1024 100 42 42 (180633600)
I0508 05:38:10.078615 14338 net.cpp:165] Memory required for data: 750862336
I0508 05:38:10.078649 14338 layer_factory.hpp:77] Creating layer conv1_relu
I0508 05:38:10.078675 14338 net.cpp:100] Creating Layer conv1_relu
I0508 05:38:10.078683 14338 net.cpp:434] conv1_relu <- conv1
I0508 05:38:10.078701 14338 net.cpp:395] conv1_relu -> conv1 (in-place)
I0508 05:38:10.079114 14338 net.cpp:150] Setting up conv1_relu
I0508 05:38:10.079135 14338 net.cpp:157] Top shape: 1024 100 42 42 (180633600)
I0508 05:38:10.079143 14338 net.cpp:165] Memory required for data: 1473396736
I0508 05:38:10.079149 14338 layer_factory.hpp:77] Creating layer pool1
I0508 05:38:10.079165 14338 net.cpp:100] Creating Layer pool1
I0508 05:38:10.079174 14338 net.cpp:434] pool1 <- conv1
I0508 05:38:10.079193 14338 net.cpp:408] pool1 -> pool1
I0508 05:38:10.079298 14338 net.cpp:150] Setting up pool1
I0508 05:38:10.079314 14338 net.cpp:157] Top shape: 1024 100 21 21 (45158400)
I0508 05:38:10.079321 14338 net.cpp:165] Memory required for data: 1654030336
I0508 05:38:10.079329 14338 layer_factory.hpp:77] Creating layer conv2
I0508 05:38:10.079350 14338 net.cpp:100] Creating Layer conv2
I0508 05:38:10.079360 14338 net.cpp:434] conv2 <- pool1
I0508 05:38:10.079376 14338 net.cpp:408] conv2 -> conv2
I0508 05:38:10.096185 14338 net.cpp:150] Setting up conv2
I0508 05:38:10.096216 14338 net.cpp:157] Top shape: 1024 150 18 18 (49766400)
I0508 05:38:10.096222 14338 net.cpp:165] Memory required for data: 1853095936
I0508 05:38:10.096235 14338 layer_factory.hpp:77] Creating layer conv2_relu
I0508 05:38:10.096246 14338 net.cpp:100] Creating Layer conv2_relu
I0508 05:38:10.096252 14338 net.cpp:434] conv2_relu <- conv2
I0508 05:38:10.096258 14338 net.cpp:395] conv2_relu -> conv2 (in-place)
I0508 05:38:10.096495 14338 net.cpp:150] Setting up conv2_relu
I0508 05:38:10.096510 14338 net.cpp:157] Top shape: 1024 150 18 18 (49766400)
I0508 05:38:10.096516 14338 net.cpp:165] Memory required for data: 2052161536
I0508 05:38:10.096520 14338 layer_factory.hpp:77] Creating layer pool2
I0508 05:38:10.096529 14338 net.cpp:100] Creating Layer pool2
I0508 05:38:10.096534 14338 net.cpp:434] pool2 <- conv2
I0508 05:38:10.096541 14338 net.cpp:408] pool2 -> pool2
I0508 05:38:10.096599 14338 net.cpp:150] Setting up pool2
I0508 05:38:10.096608 14338 net.cpp:157] Top shape: 1024 150 9 9 (12441600)
I0508 05:38:10.096613 14338 net.cpp:165] Memory required for data: 2101927936
I0508 05:38:10.096617 14338 layer_factory.hpp:77] Creating layer conv3
I0508 05:38:10.096629 14338 net.cpp:100] Creating Layer conv3
I0508 05:38:10.096634 14338 net.cpp:434] conv3 <- pool2
I0508 05:38:10.096642 14338 net.cpp:408] conv3 -> conv3
I0508 05:38:10.103377 14338 net.cpp:150] Setting up conv3
I0508 05:38:10.103400 14338 net.cpp:157] Top shape: 1024 250 6 6 (9216000)
I0508 05:38:10.103405 14338 net.cpp:165] Memory required for data: 2138791936
I0508 05:38:10.103418 14338 layer_factory.hpp:77] Creating layer conv3_relu
I0508 05:38:10.103428 14338 net.cpp:100] Creating Layer conv3_relu
I0508 05:38:10.103435 14338 net.cpp:434] conv3_relu <- conv3
I0508 05:38:10.103440 14338 net.cpp:395] conv3_relu -> conv3 (in-place)
I0508 05:38:10.103667 14338 net.cpp:150] Setting up conv3_relu
I0508 05:38:10.103679 14338 net.cpp:157] Top shape: 1024 250 6 6 (9216000)
I0508 05:38:10.103684 14338 net.cpp:165] Memory required for data: 2175655936
I0508 05:38:10.103689 14338 layer_factory.hpp:77] Creating layer pool3
I0508 05:38:10.103696 14338 net.cpp:100] Creating Layer pool3
I0508 05:38:10.103703 14338 net.cpp:434] pool3 <- conv3
I0508 05:38:10.103708 14338 net.cpp:408] pool3 -> pool3
I0508 05:38:10.103765 14338 net.cpp:150] Setting up pool3
I0508 05:38:10.103773 14338 net.cpp:157] Top shape: 1024 250 3 3 (2304000)
I0508 05:38:10.103778 14338 net.cpp:165] Memory required for data: 2184871936
I0508 05:38:10.103782 14338 layer_factory.hpp:77] Creating layer fc4_300
I0508 05:38:10.103791 14338 net.cpp:100] Creating Layer fc4_300
I0508 05:38:10.103796 14338 net.cpp:434] fc4_300 <- pool3
I0508 05:38:10.103802 14338 net.cpp:408] fc4_300 -> fc4_300
I0508 05:38:10.113541 14338 net.cpp:150] Setting up fc4_300
I0508 05:38:10.113564 14338 net.cpp:157] Top shape: 1024 300 (307200)
I0508 05:38:10.113570 14338 net.cpp:165] Memory required for data: 2186100736
I0508 05:38:10.113581 14338 layer_factory.hpp:77] Creating layer fc4_relu
I0508 05:38:10.113591 14338 net.cpp:100] Creating Layer fc4_relu
I0508 05:38:10.113596 14338 net.cpp:434] fc4_relu <- fc4_300
I0508 05:38:10.113603 14338 net.cpp:395] fc4_relu -> fc4_300 (in-place)
I0508 05:38:10.119859 14338 net.cpp:150] Setting up fc4_relu
I0508 05:38:10.119892 14338 net.cpp:157] Top shape: 1024 300 (307200)
I0508 05:38:10.119902 14338 net.cpp:165] Memory required for data: 2187329536
I0508 05:38:10.119912 14338 layer_factory.hpp:77] Creating layer fc5_116
I0508 05:38:10.119927 14338 net.cpp:100] Creating Layer fc5_116
I0508 05:38:10.119935 14338 net.cpp:434] fc5_116 <- fc4_300
I0508 05:38:10.119941 14338 net.cpp:408] fc5_116 -> fc5_classes
I0508 05:38:10.121870 14338 net.cpp:150] Setting up fc5_116
I0508 05:38:10.121889 14338 net.cpp:157] Top shape: 1024 116 (118784)
I0508 05:38:10.121893 14338 net.cpp:165] Memory required for data: 2187804672
I0508 05:38:10.121906 14338 layer_factory.hpp:77] Creating layer fc5_classes_fc5_116_0_split
I0508 05:38:10.121918 14338 net.cpp:100] Creating Layer fc5_classes_fc5_116_0_split
I0508 05:38:10.121927 14338 net.cpp:434] fc5_classes_fc5_116_0_split <- fc5_classes
I0508 05:38:10.121939 14338 net.cpp:408] fc5_classes_fc5_116_0_split -> fc5_classes_fc5_116_0_split_0
I0508 05:38:10.121954 14338 net.cpp:408] fc5_classes_fc5_116_0_split -> fc5_classes_fc5_116_0_split_1
I0508 05:38:10.121964 14338 net.cpp:408] fc5_classes_fc5_116_0_split -> fc5_classes_fc5_116_0_split_2
I0508 05:38:10.122026 14338 net.cpp:150] Setting up fc5_classes_fc5_116_0_split
I0508 05:38:10.122035 14338 net.cpp:157] Top shape: 1024 116 (118784)
I0508 05:38:10.122040 14338 net.cpp:157] Top shape: 1024 116 (118784)
I0508 05:38:10.122045 14338 net.cpp:157] Top shape: 1024 116 (118784)
I0508 05:38:10.122047 14338 net.cpp:165] Memory required for data: 2189230080
I0508 05:38:10.122051 14338 layer_factory.hpp:77] Creating layer softmax
I0508 05:38:10.122058 14338 net.cpp:100] Creating Layer softmax
I0508 05:38:10.122062 14338 net.cpp:434] softmax <- fc5_classes_fc5_116_0_split_0
I0508 05:38:10.122068 14338 net.cpp:408] softmax -> softmax
I0508 05:38:10.122383 14338 net.cpp:150] Setting up softmax
I0508 05:38:10.122398 14338 net.cpp:157] Top shape: 1024 116 (118784)
I0508 05:38:10.122402 14338 net.cpp:165] Memory required for data: 2189705216
I0508 05:38:10.122406 14338 layer_factory.hpp:77] Creating layer loss
I0508 05:38:10.122434 14338 net.cpp:100] Creating Layer loss
I0508 05:38:10.122439 14338 net.cpp:434] loss <- softmax
I0508 05:38:10.122445 14338 net.cpp:434] loss <- label_data_1_split_0
I0508 05:38:10.122452 14338 net.cpp:408] loss -> loss
…
