…
I0508 07:56:45.652207 13780 solver.cpp:93] Creating training net from train_net file: ./Prototxt/experiment_15/RTSD/histeq/trial_3/train.prototxt
I0508 07:56:45.652904 13780 net.cpp:58] Initializing net from parameters: 
state {
  phase: TRAIN
  level: 0
  stage: ""
}
layer {
  name: "data"
  type: "Data"
  top: "data"
  top: "label"
  include {
    phase: TRAIN
  }
  transform_param {
    scale: 0.0039215689
    mirror: false
    crop_size: 48
    mean_value: 134
    mean_value: 128
    mean_value: 128
  }
  data_param {
    source: "../local_data/lmdb/RTSD/histeq/train/lmdb"
    batch_size: 1024
    backend: LMDB
  }
}
layer {
  name: "conv1"
  type: "Convolution"
  bottom: "data"
  top: "conv1"
  convolution_param {
    num_output: 100
    pad: 0
    kernel_size: 7
    group: 1
    stride: 1
    weight_filler {
      type: "xavier"
    }
  }
}
layer {
  name: "conv1_prescale"
  type: "Scale"
  bottom: "conv1"
  top: "conv1"
  param {
    lr_mult: 0
    decay_mult: 0
  }
  scale_param {
    filler {
      value: 0.6666
    }
    bias_term: false
  }
}
layer {
  name: "conv1_sTanH"
  type: "TanH"
  bottom: "conv1"
  top: "conv1"
}
layer {
  name: "conv1_postscale"
  type: "Scale"
  bottom: "conv1"
  top: "conv1"
  param {
    lr_mult: 0
    decay_mult: 0
  }
  scale_param {
    filler {
      value: 1.7159
    }
    bias_term: false
  }
}
layer {
  name: "pool1"
  type: "Pooling"
  bottom: "conv1"
  top: "pool1"
  pooling_param {
    pool: MAX
    kernel_size: 2
    stride: 2
  }
}
layer {
  name: "conv2"
  type: "Convolution"
  bottom: "pool1"
  top: "conv2"
  convolution_param {
    num_output: 150
    pad: 0
    kernel_size: 4
    group: 2
    stride: 1
    weight_filler {
      type: "xavier"
    }
  }
}
layer {
  name: "conv2_prescale"
  type: "Scale"
  bottom: "conv2"
  top: "conv2"
  param {
    lr_mult: 0
    decay_mult: 0
  }
  scale_param {
    filler {
      value: 0.6666
    }
    bias_term: false
  }
}
layer {
  name: "conv2_sTanH"
  type: "TanH"
  bottom: "conv2"
  top: "conv2"
}
layer {
  name: "conv2_postscale"
  type: "Scale"
  bottom: "conv2"
  top: "conv2"
  param {
    lr_mult: 0
    decay_mult: 0
  }
  scale_param {
    filler {
      value: 1.7159
    }
    bias_term: false
  }
}
layer {
  name: "pool2"
  type: "Pooling"
  bottom: "conv2"
  top: "pool2"
  pooling_param {
    pool: MAX
    kernel_size: 2
    stride: 2
  }
}
layer {
  name: "conv3"
  type: "Convolution"
  bottom: "pool2"
  top: "conv3"
  convolution_param {
    num_output: 250
    pad: 0
    kernel_size: 4
    group: 2
    stride: 1
    weight_filler {
      type: "xavier"
    }
  }
}
layer {
  name: "conv3_prescale"
  type: "Scale"
  bottom: "conv3"
  top: "conv3"
  param {
    lr_mult: 0
    decay_mult: 0
  }
  scale_param {
    filler {
      value: 0.6666
    }
    bias_term: false
  }
}
layer {
  name: "conv3_sTanH"
  type: "TanH"
  bottom: "conv3"
  top: "conv3"
}
layer {
  name: "conv3_postscale"
  type: "Scale"
  bottom: "conv3"
  top: "conv3"
  param {
    lr_mult: 0
    decay_mult: 0
  }
  scale_param {
    filler {
      value: 1.7159
    }
    bias_term: false
  }
}
layer {
  name: "pool3"
  type: "Pooling"
  bottom: "conv3"
  top: "pool3"
  pooling_param {
    pool: MAX
    kernel_size: 2
    stride: 2
  }
}
layer {
  name: "fc4_300"
  type: "InnerProduct"
  bottom: "pool3"
  top: "fc4_300"
  inner_product_param {
    num_output: 300
    weight_filler {
      type: "xavier"
    }
  }
}
layer {
  name: "fc4_prescale"
  type: "Scale"
  bottom: "fc4_300"
  top: "fc4_300"
  param {
    lr_mult: 0
    decay_mult: 0
  }
  scale_param {
    filler {
      value: 0.6666
    }
    bias_term: false
  }
}
layer {
  name: "fc4_sTanH"
  type: "TanH"
  bottom: "fc4_300"
  top: "fc4_300"
}
layer {
  name: "fc4_postscale"
  type: "Scale"
  bottom: "fc4_300"
  top: "fc4_300"
  param {
    lr_mult: 0
    decay_mult: 0
  }
  scale_param {
    filler {
      value: 1.7159
    }
    bias_term: false
  }
}
layer {
  name: "fc5_116"
  type: "InnerProduct"
  bottom: "fc4_300"
  top: "fc5_classes"
  inner_product_param {
    num_output: 116
    weight_filler {
      type: "xavier"
    }
  }
}
layer {
  name: "softmax"
  type: "Softmax"
  bottom: "fc5_classes"
  top: "softmax"
}
layer {
  name: "loss"
  type: "MultinomialLogisticLoss"
  bottom: "softmax"
  bottom: "label"
  top: "loss"
}
layer {
  name: "accuracy_1"
  type: "Accuracy"
  bottom: "fc5_classes"
  bottom: "label"
  top: "accuracy_1"
  accuracy_param {
    top_k: 1
  }
}
layer {
  name: "accuracy_5"
  type: "Accuracy"
  bottom: "fc5_classes"
  bottom: "label"
  top: "accuracy_5"
  accuracy_param {
    top_k: 5
  }
}
layer {
  name: "silence"
  type: "Silence"
  bottom: "accuracy_1"
  bottom: "accuracy_5"
}
I0508 07:56:45.653134 13780 layer_factory.hpp:77] Creating layer data
I0508 07:56:45.654798 13780 net.cpp:100] Creating Layer data
I0508 07:56:45.654819 13780 net.cpp:408] data -> data
I0508 07:56:45.654850 13780 net.cpp:408] data -> label
I0508 07:56:45.659966 13881 db_lmdb.cpp:35] Opened lmdb ../local_data/lmdb/RTSD/histeq/train/lmdb
I0508 07:56:45.686313 13780 data_layer.cpp:41] output data size: 1024,3,48,48
I0508 07:56:45.767308 13780 net.cpp:150] Setting up data
I0508 07:56:45.767338 13780 net.cpp:157] Top shape: 1024 3 48 48 (7077888)
I0508 07:56:45.767344 13780 net.cpp:157] Top shape: 1024 (1024)
I0508 07:56:45.767349 13780 net.cpp:165] Memory required for data: 28315648
I0508 07:56:45.767359 13780 layer_factory.hpp:77] Creating layer label_data_1_split
I0508 07:56:45.767375 13780 net.cpp:100] Creating Layer label_data_1_split
I0508 07:56:45.767383 13780 net.cpp:434] label_data_1_split <- label
I0508 07:56:45.767398 13780 net.cpp:408] label_data_1_split -> label_data_1_split_0
I0508 07:56:45.767412 13780 net.cpp:408] label_data_1_split -> label_data_1_split_1
I0508 07:56:45.767421 13780 net.cpp:408] label_data_1_split -> label_data_1_split_2
I0508 07:56:45.767513 13780 net.cpp:150] Setting up label_data_1_split
I0508 07:56:45.767523 13780 net.cpp:157] Top shape: 1024 (1024)
I0508 07:56:45.767529 13780 net.cpp:157] Top shape: 1024 (1024)
I0508 07:56:45.767532 13780 net.cpp:157] Top shape: 1024 (1024)
I0508 07:56:45.767535 13780 net.cpp:165] Memory required for data: 28327936
I0508 07:56:45.767539 13780 layer_factory.hpp:77] Creating layer conv1
I0508 07:56:45.767556 13780 net.cpp:100] Creating Layer conv1
I0508 07:56:45.767561 13780 net.cpp:434] conv1 <- data
I0508 07:56:45.767568 13780 net.cpp:408] conv1 -> conv1
I0508 07:56:46.119707 13780 net.cpp:150] Setting up conv1
I0508 07:56:46.119745 13780 net.cpp:157] Top shape: 1024 100 42 42 (180633600)
I0508 07:56:46.119755 13780 net.cpp:165] Memory required for data: 750862336
I0508 07:56:46.119784 13780 layer_factory.hpp:77] Creating layer conv1_prescale
I0508 07:56:46.119807 13780 net.cpp:100] Creating Layer conv1_prescale
I0508 07:56:46.119819 13780 net.cpp:434] conv1_prescale <- conv1
I0508 07:56:46.119832 13780 net.cpp:395] conv1_prescale -> conv1 (in-place)
I0508 07:56:46.120023 13780 net.cpp:150] Setting up conv1_prescale
I0508 07:56:46.120041 13780 net.cpp:157] Top shape: 1024 100 42 42 (180633600)
I0508 07:56:46.120051 13780 net.cpp:165] Memory required for data: 1473396736
I0508 07:56:46.120064 13780 layer_factory.hpp:77] Creating layer conv1_sTanH
I0508 07:56:46.120081 13780 net.cpp:100] Creating Layer conv1_sTanH
I0508 07:56:46.120090 13780 net.cpp:434] conv1_sTanH <- conv1
I0508 07:56:46.120100 13780 net.cpp:395] conv1_sTanH -> conv1 (in-place)
I0508 07:56:46.120409 13780 net.cpp:150] Setting up conv1_sTanH
I0508 07:56:46.120429 13780 net.cpp:157] Top shape: 1024 100 42 42 (180633600)
I0508 07:56:46.120462 13780 net.cpp:165] Memory required for data: 2195931136
I0508 07:56:46.120474 13780 layer_factory.hpp:77] Creating layer conv1_postscale
I0508 07:56:46.120489 13780 net.cpp:100] Creating Layer conv1_postscale
I0508 07:56:46.120499 13780 net.cpp:434] conv1_postscale <- conv1
I0508 07:56:46.120512 13780 net.cpp:395] conv1_postscale -> conv1 (in-place)
I0508 07:56:46.120669 13780 net.cpp:150] Setting up conv1_postscale
I0508 07:56:46.120688 13780 net.cpp:157] Top shape: 1024 100 42 42 (180633600)
I0508 07:56:46.120697 13780 net.cpp:165] Memory required for data: 2918465536
I0508 07:56:46.120707 13780 layer_factory.hpp:77] Creating layer pool1
I0508 07:56:46.120725 13780 net.cpp:100] Creating Layer pool1
I0508 07:56:46.120736 13780 net.cpp:434] pool1 <- conv1
I0508 07:56:46.120748 13780 net.cpp:408] pool1 -> pool1
I0508 07:56:46.120834 13780 net.cpp:150] Setting up pool1
I0508 07:56:46.120852 13780 net.cpp:157] Top shape: 1024 100 21 21 (45158400)
I0508 07:56:46.120862 13780 net.cpp:165] Memory required for data: 3099099136
I0508 07:56:46.120873 13780 layer_factory.hpp:77] Creating layer conv2
I0508 07:56:46.120895 13780 net.cpp:100] Creating Layer conv2
I0508 07:56:46.120908 13780 net.cpp:434] conv2 <- pool1
I0508 07:56:46.120920 13780 net.cpp:408] conv2 -> conv2
I0508 07:56:46.131139 13780 net.cpp:150] Setting up conv2
I0508 07:56:46.131162 13780 net.cpp:157] Top shape: 1024 150 18 18 (49766400)
I0508 07:56:46.131170 13780 net.cpp:165] Memory required for data: 3298164736
I0508 07:56:46.131189 13780 layer_factory.hpp:77] Creating layer conv2_prescale
I0508 07:56:46.131209 13780 net.cpp:100] Creating Layer conv2_prescale
I0508 07:56:46.131217 13780 net.cpp:434] conv2_prescale <- conv2
I0508 07:56:46.131227 13780 net.cpp:395] conv2_prescale -> conv2 (in-place)
I0508 07:56:46.131386 13780 net.cpp:150] Setting up conv2_prescale
I0508 07:56:46.131402 13780 net.cpp:157] Top shape: 1024 150 18 18 (49766400)
I0508 07:56:46.131408 13780 net.cpp:165] Memory required for data: 3497230336
I0508 07:56:46.131417 13780 layer_factory.hpp:77] Creating layer conv2_sTanH
I0508 07:56:46.131428 13780 net.cpp:100] Creating Layer conv2_sTanH
I0508 07:56:46.131434 13780 net.cpp:434] conv2_sTanH <- conv2
I0508 07:56:46.131441 13780 net.cpp:395] conv2_sTanH -> conv2 (in-place)
I0508 07:56:46.131718 13780 net.cpp:150] Setting up conv2_sTanH
I0508 07:56:46.131737 13780 net.cpp:157] Top shape: 1024 150 18 18 (49766400)
I0508 07:56:46.131742 13780 net.cpp:165] Memory required for data: 3696295936
I0508 07:56:46.131748 13780 layer_factory.hpp:77] Creating layer conv2_postscale
I0508 07:56:46.131758 13780 net.cpp:100] Creating Layer conv2_postscale
I0508 07:56:46.131763 13780 net.cpp:434] conv2_postscale <- conv2
I0508 07:56:46.131774 13780 net.cpp:395] conv2_postscale -> conv2 (in-place)
I0508 07:56:46.131935 13780 net.cpp:150] Setting up conv2_postscale
I0508 07:56:46.131950 13780 net.cpp:157] Top shape: 1024 150 18 18 (49766400)
I0508 07:56:46.131955 13780 net.cpp:165] Memory required for data: 3895361536
I0508 07:56:46.131963 13780 layer_factory.hpp:77] Creating layer pool2
I0508 07:56:46.131973 13780 net.cpp:100] Creating Layer pool2
I0508 07:56:46.131981 13780 net.cpp:434] pool2 <- conv2
I0508 07:56:46.131997 13780 net.cpp:408] pool2 -> pool2
I0508 07:56:46.132071 13780 net.cpp:150] Setting up pool2
I0508 07:56:46.132086 13780 net.cpp:157] Top shape: 1024 150 9 9 (12441600)
I0508 07:56:46.132104 13780 net.cpp:165] Memory required for data: 3945127936
I0508 07:56:46.132110 13780 layer_factory.hpp:77] Creating layer conv3
I0508 07:56:46.132127 13780 net.cpp:100] Creating Layer conv3
I0508 07:56:46.132134 13780 net.cpp:434] conv3 <- pool2
I0508 07:56:46.132144 13780 net.cpp:408] conv3 -> conv3
I0508 07:56:46.145372 13780 net.cpp:150] Setting up conv3
I0508 07:56:46.145398 13780 net.cpp:157] Top shape: 1024 250 6 6 (9216000)
I0508 07:56:46.145406 13780 net.cpp:165] Memory required for data: 3981991936
I0508 07:56:46.145422 13780 layer_factory.hpp:77] Creating layer conv3_prescale
I0508 07:56:46.145462 13780 net.cpp:100] Creating Layer conv3_prescale
I0508 07:56:46.145473 13780 net.cpp:434] conv3_prescale <- conv3
I0508 07:56:46.145488 13780 net.cpp:395] conv3_prescale -> conv3 (in-place)
I0508 07:56:46.145642 13780 net.cpp:150] Setting up conv3_prescale
I0508 07:56:46.145659 13780 net.cpp:157] Top shape: 1024 250 6 6 (9216000)
I0508 07:56:46.145666 13780 net.cpp:165] Memory required for data: 4018855936
I0508 07:56:46.145675 13780 layer_factory.hpp:77] Creating layer conv3_sTanH
I0508 07:56:46.145685 13780 net.cpp:100] Creating Layer conv3_sTanH
I0508 07:56:46.145694 13780 net.cpp:434] conv3_sTanH <- conv3
I0508 07:56:46.145704 13780 net.cpp:395] conv3_sTanH -> conv3 (in-place)
I0508 07:56:46.145998 13780 net.cpp:150] Setting up conv3_sTanH
I0508 07:56:46.146018 13780 net.cpp:157] Top shape: 1024 250 6 6 (9216000)
I0508 07:56:46.146026 13780 net.cpp:165] Memory required for data: 4055719936
I0508 07:56:46.146033 13780 layer_factory.hpp:77] Creating layer conv3_postscale
I0508 07:56:46.146049 13780 net.cpp:100] Creating Layer conv3_postscale
I0508 07:56:46.146059 13780 net.cpp:434] conv3_postscale <- conv3
I0508 07:56:46.146067 13780 net.cpp:395] conv3_postscale -> conv3 (in-place)
I0508 07:56:46.146234 13780 net.cpp:150] Setting up conv3_postscale
I0508 07:56:46.146252 13780 net.cpp:157] Top shape: 1024 250 6 6 (9216000)
I0508 07:56:46.146260 13780 net.cpp:165] Memory required for data: 4092583936
I0508 07:56:46.146268 13780 layer_factory.hpp:77] Creating layer pool3
I0508 07:56:46.146286 13780 net.cpp:100] Creating Layer pool3
I0508 07:56:46.146296 13780 net.cpp:434] pool3 <- conv3
I0508 07:56:46.146307 13780 net.cpp:408] pool3 -> pool3
I0508 07:56:46.146379 13780 net.cpp:150] Setting up pool3
I0508 07:56:46.146395 13780 net.cpp:157] Top shape: 1024 250 3 3 (2304000)
I0508 07:56:46.146404 13780 net.cpp:165] Memory required for data: 4101799936
I0508 07:56:46.146410 13780 layer_factory.hpp:77] Creating layer fc4_300
I0508 07:56:46.146426 13780 net.cpp:100] Creating Layer fc4_300
I0508 07:56:46.146437 13780 net.cpp:434] fc4_300 <- pool3
I0508 07:56:46.146450 13780 net.cpp:408] fc4_300 -> fc4_300
I0508 07:56:46.157351 13780 net.cpp:150] Setting up fc4_300
I0508 07:56:46.157374 13780 net.cpp:157] Top shape: 1024 300 (307200)
I0508 07:56:46.157384 13780 net.cpp:165] Memory required for data: 4103028736
I0508 07:56:46.157397 13780 layer_factory.hpp:77] Creating layer fc4_prescale
I0508 07:56:46.157411 13780 net.cpp:100] Creating Layer fc4_prescale
I0508 07:56:46.157421 13780 net.cpp:434] fc4_prescale <- fc4_300
I0508 07:56:46.157436 13780 net.cpp:395] fc4_prescale -> fc4_300 (in-place)
I0508 07:56:46.157590 13780 net.cpp:150] Setting up fc4_prescale
I0508 07:56:46.157608 13780 net.cpp:157] Top shape: 1024 300 (307200)
I0508 07:56:46.157616 13780 net.cpp:165] Memory required for data: 4104257536
I0508 07:56:46.157625 13780 layer_factory.hpp:77] Creating layer fc4_sTanH
I0508 07:56:46.157639 13780 net.cpp:100] Creating Layer fc4_sTanH
I0508 07:56:46.157649 13780 net.cpp:434] fc4_sTanH <- fc4_300
I0508 07:56:46.157660 13780 net.cpp:395] fc4_sTanH -> fc4_300 (in-place)
I0508 07:56:46.159281 13780 net.cpp:150] Setting up fc4_sTanH
I0508 07:56:46.159303 13780 net.cpp:157] Top shape: 1024 300 (307200)
I0508 07:56:46.159313 13780 net.cpp:165] Memory required for data: 4105486336
I0508 07:56:46.159327 13780 layer_factory.hpp:77] Creating layer fc4_postscale
I0508 07:56:46.159342 13780 net.cpp:100] Creating Layer fc4_postscale
I0508 07:56:46.159349 13780 net.cpp:434] fc4_postscale <- fc4_300
I0508 07:56:46.159365 13780 net.cpp:395] fc4_postscale -> fc4_300 (in-place)
I0508 07:56:46.159543 13780 net.cpp:150] Setting up fc4_postscale
I0508 07:56:46.159562 13780 net.cpp:157] Top shape: 1024 300 (307200)
I0508 07:56:46.159571 13780 net.cpp:165] Memory required for data: 4106715136
I0508 07:56:46.159580 13780 layer_factory.hpp:77] Creating layer fc5_116
I0508 07:56:46.159593 13780 net.cpp:100] Creating Layer fc5_116
I0508 07:56:46.159602 13780 net.cpp:434] fc5_116 <- fc4_300
I0508 07:56:46.159617 13780 net.cpp:408] fc5_116 -> fc5_classes
I0508 07:56:46.162259 13780 net.cpp:150] Setting up fc5_116
I0508 07:56:46.162281 13780 net.cpp:157] Top shape: 1024 116 (118784)
I0508 07:56:46.162291 13780 net.cpp:165] Memory required for data: 4107190272
I0508 07:56:46.162307 13780 layer_factory.hpp:77] Creating layer fc5_classes_fc5_116_0_split
I0508 07:56:46.162325 13780 net.cpp:100] Creating Layer fc5_classes_fc5_116_0_split
I0508 07:56:46.162336 13780 net.cpp:434] fc5_classes_fc5_116_0_split <- fc5_classes
I0508 07:56:46.162349 13780 net.cpp:408] fc5_classes_fc5_116_0_split -> fc5_classes_fc5_116_0_split_0
I0508 07:56:46.162366 13780 net.cpp:408] fc5_classes_fc5_116_0_split -> fc5_classes_fc5_116_0_split_1
I0508 07:56:46.162381 13780 net.cpp:408] fc5_classes_fc5_116_0_split -> fc5_classes_fc5_116_0_split_2
I0508 07:56:46.162475 13780 net.cpp:150] Setting up fc5_classes_fc5_116_0_split
I0508 07:56:46.162492 13780 net.cpp:157] Top shape: 1024 116 (118784)
I0508 07:56:46.162502 13780 net.cpp:157] Top shape: 1024 116 (118784)
I0508 07:56:46.162509 13780 net.cpp:157] Top shape: 1024 116 (118784)
I0508 07:56:46.162518 13780 net.cpp:165] Memory required for data: 4108615680
I0508 07:56:46.162523 13780 layer_factory.hpp:77] Creating layer softmax
I0508 07:56:46.162540 13780 net.cpp:100] Creating Layer softmax
I0508 07:56:46.162550 13780 net.cpp:434] softmax <- fc5_classes_fc5_116_0_split_0
I0508 07:56:46.162562 13780 net.cpp:408] softmax -> softmax
I0508 07:56:46.162967 13780 net.cpp:150] Setting up softmax
I0508 07:56:46.162988 13780 net.cpp:157] Top shape: 1024 116 (118784)
I0508 07:56:46.162998 13780 net.cpp:165] Memory required for data: 4109090816
I0508 07:56:46.163007 13780 layer_factory.hpp:77] Creating layer loss
I0508 07:56:46.163023 13780 net.cpp:100] Creating Layer loss
I0508 07:56:46.163033 13780 net.cpp:434] loss <- softmax
I0508 07:56:46.163043 13780 net.cpp:434] loss <- label_data_1_split_0
I0508 07:56:46.163055 13780 net.cpp:408] loss -> loss
…
