…
I0508 03:39:19.922845 16699 solver.cpp:93] Creating training net from train_net file: ./Prototxt/experiment_16/RTSD/AHE/trial_2/train.prototxt
I0508 03:39:19.923230 16699 net.cpp:58] Initializing net from parameters: 
state {
  phase: TRAIN
  level: 0
  stage: ""
}
layer {
  name: "data"
  type: "Data"
  top: "data"
  top: "label"
  include {
    phase: TRAIN
  }
  transform_param {
    scale: 0.0039215689
    mirror: false
    crop_size: 48
    mean_value: 133
    mean_value: 127
    mean_value: 126
  }
  data_param {
    source: "../local_data/lmdb/RTSD/AHE/train/lmdb"
    batch_size: 1024
    backend: LMDB
  }
}
layer {
  name: "conv1"
  type: "Convolution"
  bottom: "data"
  top: "conv1"
  convolution_param {
    num_output: 100
    pad: 0
    kernel_size: 7
    group: 1
    stride: 1
    weight_filler {
      type: "xavier"
    }
  }
}
layer {
  name: "conv1_relu"
  type: "ReLU"
  bottom: "conv1"
  top: "conv1"
}
layer {
  name: "pool1"
  type: "Pooling"
  bottom: "conv1"
  top: "pool1"
  pooling_param {
    pool: MAX
    kernel_size: 2
    stride: 2
  }
}
layer {
  name: "conv2"
  type: "Convolution"
  bottom: "pool1"
  top: "conv2"
  convolution_param {
    num_output: 150
    pad: 0
    kernel_size: 4
    group: 2
    stride: 1
    weight_filler {
      type: "xavier"
    }
  }
}
layer {
  name: "conv2_relu"
  type: "ReLU"
  bottom: "conv2"
  top: "conv2"
}
layer {
  name: "pool2"
  type: "Pooling"
  bottom: "conv2"
  top: "pool2"
  pooling_param {
    pool: MAX
    kernel_size: 2
    stride: 2
  }
}
layer {
  name: "conv3"
  type: "Convolution"
  bottom: "pool2"
  top: "conv3"
  convolution_param {
    num_output: 250
    pad: 0
    kernel_size: 4
    group: 2
    stride: 1
    weight_filler {
      type: "xavier"
    }
  }
}
layer {
  name: "conv3_relu"
  type: "ReLU"
  bottom: "conv3"
  top: "conv3"
}
layer {
  name: "pool3"
  type: "Pooling"
  bottom: "conv3"
  top: "pool3"
  pooling_param {
    pool: MAX
    kernel_size: 2
    stride: 2
  }
}
layer {
  name: "fc4_300"
  type: "InnerProduct"
  bottom: "pool3"
  top: "fc4_300"
  inner_product_param {
    num_output: 300
    weight_filler {
      type: "xavier"
    }
  }
}
layer {
  name: "fc4_relu"
  type: "ReLU"
  bottom: "fc4_300"
  top: "fc4_300"
}
layer {
  name: "fc5_116"
  type: "InnerProduct"
  bottom: "fc4_300"
  top: "fc5_classes"
  inner_product_param {
    num_output: 116
    weight_filler {
      type: "xavier"
    }
  }
}
layer {
  name: "softmax"
  type: "Softmax"
  bottom: "fc5_classes"
  top: "softmax"
}
layer {
  name: "loss"
  type: "MultinomialLogisticLoss"
  bottom: "softmax"
  bottom: "label"
  top: "loss"
}
layer {
  name: "accuracy_1"
  type: "Accuracy"
  bottom: "fc5_classes"
  bottom: "label"
  top: "accuracy_1"
  accuracy_param {
    top_k: 1
  }
}
layer {
  name: "accuracy_5"
  type: "Accuracy"
  bottom: "fc5_classes"
  bottom: "label"
  top: "accuracy_5"
  accuracy_param {
    top_k: 5
  }
}
layer {
  name: "silence"
  type: "Silence"
  bottom: "accuracy_1"
  bottom: "accuracy_5"
}
I0508 03:39:19.923367 16699 layer_factory.hpp:77] Creating layer data
I0508 03:39:19.924708 16699 net.cpp:100] Creating Layer data
I0508 03:39:19.924739 16699 net.cpp:408] data -> data
I0508 03:39:19.924769 16699 net.cpp:408] data -> label
I0508 03:39:19.940526 16799 db_lmdb.cpp:35] Opened lmdb ../local_data/lmdb/RTSD/AHE/train/lmdb
I0508 03:39:19.959358 16699 data_layer.cpp:41] output data size: 1024,3,48,48
I0508 03:39:20.022745 16699 net.cpp:150] Setting up data
I0508 03:39:20.022799 16699 net.cpp:157] Top shape: 1024 3 48 48 (7077888)
I0508 03:39:20.022806 16699 net.cpp:157] Top shape: 1024 (1024)
I0508 03:39:20.022811 16699 net.cpp:165] Memory required for data: 28315648
I0508 03:39:20.022824 16699 layer_factory.hpp:77] Creating layer label_data_1_split
I0508 03:39:20.022840 16699 net.cpp:100] Creating Layer label_data_1_split
I0508 03:39:20.022846 16699 net.cpp:434] label_data_1_split <- label
I0508 03:39:20.022863 16699 net.cpp:408] label_data_1_split -> label_data_1_split_0
I0508 03:39:20.022876 16699 net.cpp:408] label_data_1_split -> label_data_1_split_1
I0508 03:39:20.022884 16699 net.cpp:408] label_data_1_split -> label_data_1_split_2
I0508 03:39:20.022948 16699 net.cpp:150] Setting up label_data_1_split
I0508 03:39:20.022956 16699 net.cpp:157] Top shape: 1024 (1024)
I0508 03:39:20.022961 16699 net.cpp:157] Top shape: 1024 (1024)
I0508 03:39:20.022965 16699 net.cpp:157] Top shape: 1024 (1024)
I0508 03:39:20.022967 16699 net.cpp:165] Memory required for data: 28327936
I0508 03:39:20.022971 16699 layer_factory.hpp:77] Creating layer conv1
I0508 03:39:20.022989 16699 net.cpp:100] Creating Layer conv1
I0508 03:39:20.022995 16699 net.cpp:434] conv1 <- data
I0508 03:39:20.023001 16699 net.cpp:408] conv1 -> conv1
I0508 03:39:20.454293 16699 net.cpp:150] Setting up conv1
I0508 03:39:20.454319 16699 net.cpp:157] Top shape: 1024 100 42 42 (180633600)
I0508 03:39:20.454324 16699 net.cpp:165] Memory required for data: 750862336
I0508 03:39:20.454345 16699 layer_factory.hpp:77] Creating layer conv1_relu
I0508 03:39:20.454356 16699 net.cpp:100] Creating Layer conv1_relu
I0508 03:39:20.454360 16699 net.cpp:434] conv1_relu <- conv1
I0508 03:39:20.454366 16699 net.cpp:395] conv1_relu -> conv1 (in-place)
I0508 03:39:20.454557 16699 net.cpp:150] Setting up conv1_relu
I0508 03:39:20.454569 16699 net.cpp:157] Top shape: 1024 100 42 42 (180633600)
I0508 03:39:20.454574 16699 net.cpp:165] Memory required for data: 1473396736
I0508 03:39:20.454577 16699 layer_factory.hpp:77] Creating layer pool1
I0508 03:39:20.454587 16699 net.cpp:100] Creating Layer pool1
I0508 03:39:20.454592 16699 net.cpp:434] pool1 <- conv1
I0508 03:39:20.454598 16699 net.cpp:408] pool1 -> pool1
I0508 03:39:20.454653 16699 net.cpp:150] Setting up pool1
I0508 03:39:20.454661 16699 net.cpp:157] Top shape: 1024 100 21 21 (45158400)
I0508 03:39:20.454666 16699 net.cpp:165] Memory required for data: 1654030336
I0508 03:39:20.454670 16699 layer_factory.hpp:77] Creating layer conv2
I0508 03:39:20.454681 16699 net.cpp:100] Creating Layer conv2
I0508 03:39:20.454686 16699 net.cpp:434] conv2 <- pool1
I0508 03:39:20.454691 16699 net.cpp:408] conv2 -> conv2
I0508 03:39:20.464705 16699 net.cpp:150] Setting up conv2
I0508 03:39:20.464723 16699 net.cpp:157] Top shape: 1024 150 18 18 (49766400)
I0508 03:39:20.464740 16699 net.cpp:165] Memory required for data: 1853095936
I0508 03:39:20.464751 16699 layer_factory.hpp:77] Creating layer conv2_relu
I0508 03:39:20.464757 16699 net.cpp:100] Creating Layer conv2_relu
I0508 03:39:20.464761 16699 net.cpp:434] conv2_relu <- conv2
I0508 03:39:20.464766 16699 net.cpp:395] conv2_relu -> conv2 (in-place)
I0508 03:39:20.464934 16699 net.cpp:150] Setting up conv2_relu
I0508 03:39:20.464946 16699 net.cpp:157] Top shape: 1024 150 18 18 (49766400)
I0508 03:39:20.464949 16699 net.cpp:165] Memory required for data: 2052161536
I0508 03:39:20.464953 16699 layer_factory.hpp:77] Creating layer pool2
I0508 03:39:20.464959 16699 net.cpp:100] Creating Layer pool2
I0508 03:39:20.464964 16699 net.cpp:434] pool2 <- conv2
I0508 03:39:20.464969 16699 net.cpp:408] pool2 -> pool2
I0508 03:39:20.465013 16699 net.cpp:150] Setting up pool2
I0508 03:39:20.465020 16699 net.cpp:157] Top shape: 1024 150 9 9 (12441600)
I0508 03:39:20.465024 16699 net.cpp:165] Memory required for data: 2101927936
I0508 03:39:20.465028 16699 layer_factory.hpp:77] Creating layer conv3
I0508 03:39:20.465037 16699 net.cpp:100] Creating Layer conv3
I0508 03:39:20.465042 16699 net.cpp:434] conv3 <- pool2
I0508 03:39:20.465047 16699 net.cpp:408] conv3 -> conv3
I0508 03:39:20.469197 16699 net.cpp:150] Setting up conv3
I0508 03:39:20.469215 16699 net.cpp:157] Top shape: 1024 250 6 6 (9216000)
I0508 03:39:20.469223 16699 net.cpp:165] Memory required for data: 2138791936
I0508 03:39:20.469231 16699 layer_factory.hpp:77] Creating layer conv3_relu
I0508 03:39:20.469239 16699 net.cpp:100] Creating Layer conv3_relu
I0508 03:39:20.469244 16699 net.cpp:434] conv3_relu <- conv3
I0508 03:39:20.469251 16699 net.cpp:395] conv3_relu -> conv3 (in-place)
I0508 03:39:20.469435 16699 net.cpp:150] Setting up conv3_relu
I0508 03:39:20.469447 16699 net.cpp:157] Top shape: 1024 250 6 6 (9216000)
I0508 03:39:20.469451 16699 net.cpp:165] Memory required for data: 2175655936
I0508 03:39:20.469455 16699 layer_factory.hpp:77] Creating layer pool3
I0508 03:39:20.469463 16699 net.cpp:100] Creating Layer pool3
I0508 03:39:20.469468 16699 net.cpp:434] pool3 <- conv3
I0508 03:39:20.469473 16699 net.cpp:408] pool3 -> pool3
I0508 03:39:20.469518 16699 net.cpp:150] Setting up pool3
I0508 03:39:20.469527 16699 net.cpp:157] Top shape: 1024 250 3 3 (2304000)
I0508 03:39:20.469529 16699 net.cpp:165] Memory required for data: 2184871936
I0508 03:39:20.469532 16699 layer_factory.hpp:77] Creating layer fc4_300
I0508 03:39:20.469538 16699 net.cpp:100] Creating Layer fc4_300
I0508 03:39:20.469543 16699 net.cpp:434] fc4_300 <- pool3
I0508 03:39:20.469549 16699 net.cpp:408] fc4_300 -> fc4_300
I0508 03:39:20.474957 16699 net.cpp:150] Setting up fc4_300
I0508 03:39:20.474973 16699 net.cpp:157] Top shape: 1024 300 (307200)
I0508 03:39:20.474977 16699 net.cpp:165] Memory required for data: 2186100736
I0508 03:39:20.474983 16699 layer_factory.hpp:77] Creating layer fc4_relu
I0508 03:39:20.474990 16699 net.cpp:100] Creating Layer fc4_relu
I0508 03:39:20.474995 16699 net.cpp:434] fc4_relu <- fc4_300
I0508 03:39:20.475003 16699 net.cpp:395] fc4_relu -> fc4_300 (in-place)
I0508 03:39:20.476361 16699 net.cpp:150] Setting up fc4_relu
I0508 03:39:20.476375 16699 net.cpp:157] Top shape: 1024 300 (307200)
I0508 03:39:20.476380 16699 net.cpp:165] Memory required for data: 2187329536
I0508 03:39:20.476384 16699 layer_factory.hpp:77] Creating layer fc5_116
I0508 03:39:20.476394 16699 net.cpp:100] Creating Layer fc5_116
I0508 03:39:20.476399 16699 net.cpp:434] fc5_116 <- fc4_300
I0508 03:39:20.476405 16699 net.cpp:408] fc5_116 -> fc5_classes
I0508 03:39:20.477810 16699 net.cpp:150] Setting up fc5_116
I0508 03:39:20.477825 16699 net.cpp:157] Top shape: 1024 116 (118784)
I0508 03:39:20.477828 16699 net.cpp:165] Memory required for data: 2187804672
I0508 03:39:20.477838 16699 layer_factory.hpp:77] Creating layer fc5_classes_fc5_116_0_split
I0508 03:39:20.477849 16699 net.cpp:100] Creating Layer fc5_classes_fc5_116_0_split
I0508 03:39:20.477854 16699 net.cpp:434] fc5_classes_fc5_116_0_split <- fc5_classes
I0508 03:39:20.477859 16699 net.cpp:408] fc5_classes_fc5_116_0_split -> fc5_classes_fc5_116_0_split_0
I0508 03:39:20.477869 16699 net.cpp:408] fc5_classes_fc5_116_0_split -> fc5_classes_fc5_116_0_split_1
I0508 03:39:20.477877 16699 net.cpp:408] fc5_classes_fc5_116_0_split -> fc5_classes_fc5_116_0_split_2
I0508 03:39:20.477931 16699 net.cpp:150] Setting up fc5_classes_fc5_116_0_split
I0508 03:39:20.477939 16699 net.cpp:157] Top shape: 1024 116 (118784)
I0508 03:39:20.477943 16699 net.cpp:157] Top shape: 1024 116 (118784)
I0508 03:39:20.477947 16699 net.cpp:157] Top shape: 1024 116 (118784)
I0508 03:39:20.477949 16699 net.cpp:165] Memory required for data: 2189230080
I0508 03:39:20.477953 16699 layer_factory.hpp:77] Creating layer softmax
I0508 03:39:20.477960 16699 net.cpp:100] Creating Layer softmax
I0508 03:39:20.477965 16699 net.cpp:434] softmax <- fc5_classes_fc5_116_0_split_0
I0508 03:39:20.477970 16699 net.cpp:408] softmax -> softmax
I0508 03:39:20.478217 16699 net.cpp:150] Setting up softmax
I0508 03:39:20.478230 16699 net.cpp:157] Top shape: 1024 116 (118784)
I0508 03:39:20.478235 16699 net.cpp:165] Memory required for data: 2189705216
I0508 03:39:20.478240 16699 layer_factory.hpp:77] Creating layer loss
I0508 03:39:20.478247 16699 net.cpp:100] Creating Layer loss
I0508 03:39:20.478265 16699 net.cpp:434] loss <- softmax
I0508 03:39:20.478269 16699 net.cpp:434] loss <- label_data_1_split_0
I0508 03:39:20.478279 16699 net.cpp:408] loss -> loss
…
