…
I0409 22:43:31.434383 13609 net.cpp:322] The NetState phase (0) differed from the phase (1) specified by a rule in layer accuracy_5
I0409 22:43:31.434496 13609 net.cpp:58] Initializing net from parameters: 
state {
  phase: TRAIN
  level: 0
  stage: ""
}
layer {
  name: "data"
  type: "Data"
  top: "data"
  top: "label"
  include {
    phase: TRAIN
  }
  transform_param {
    mirror: false
    crop_size: 48
    mean_value: 122
    mean_value: 115
    mean_value: 129
  }
  data_param {
    source: "../local_data/lmdb/rtsd-r1/orig/train/lmdb"
    batch_size: 1024
    backend: LMDB
  }
}
layer {
  name: "conv1"
  type: "Convolution"
  bottom: "data"
  top: "conv1"
  convolution_param {
    num_output: 100
    pad: 0
    kernel_size: 7
    group: 1
    stride: 1
    weight_filler {
      type: "xavier"
    }
  }
}
layer {
  name: "conv1_sTanH"
  type: "TanH"
  bottom: "conv1"
  top: "conv1"
}
layer {
  name: "pool1"
  type: "Pooling"
  bottom: "conv1"
  top: "pool1"
  pooling_param {
    pool: MAX
    kernel_size: 2
    stride: 2
  }
}
layer {
  name: "conv2"
  type: "Convolution"
  bottom: "pool1"
  top: "conv2"
  convolution_param {
    num_output: 150
    pad: 0
    kernel_size: 4
    group: 1
    stride: 1
    weight_filler {
      type: "xavier"
    }
  }
}
layer {
  name: "conv2_sTanH"
  type: "TanH"
  bottom: "conv2"
  top: "conv2"
}
layer {
  name: "pool2"
  type: "Pooling"
  bottom: "conv2"
  top: "pool2"
  pooling_param {
    pool: MAX
    kernel_size: 2
    stride: 2
  }
}
layer {
  name: "conv3"
  type: "Convolution"
  bottom: "pool2"
  top: "conv3"
  convolution_param {
    num_output: 250
    pad: 0
    kernel_size: 4
    group: 1
    stride: 1
    weight_filler {
      type: "xavier"
    }
  }
}
layer {
  name: "conv3_sTanH"
  type: "TanH"
  bottom: "conv3"
  top: "conv3"
}
layer {
  name: "pool3"
  type: "Pooling"
  bottom: "conv3"
  top: "pool3"
  pooling_param {
    pool: MAX
    kernel_size: 2
    stride: 2
  }
}
layer {
  name: "fc4_300"
  type: "InnerProduct"
  bottom: "pool3"
  top: "fc4_300"
  inner_product_param {
    num_output: 300
    weight_filler {
      type: "xavier"
    }
  }
}
layer {
  name: "fc4_sTanH"
  type: "TanH"
  bottom: "fc4_300"
  top: "fc4_300"
}
layer {
  name: "drop4"
  type: "Dropout"
  bottom: "fc4_300"
  top: "fc4_300"
  dropout_param {
    dropout_ratio: 0.4
  }
}
layer {
  name: "fc5_67"
  type: "InnerProduct"
  bottom: "fc4_300"
  top: "fc5_classes"
  inner_product_param {
    num_output: 67
    weight_filler {
      type: "xavier"
    }
  }
}
layer {
  name: "loss"
  type: "SoftmaxWithLoss"
  bottom: "fc5_classes"
  bottom: "label"
  top: "loss"
}
I0409 22:43:31.434586 13609 layer_factory.hpp:77] Creating layer data
I0409 22:43:31.435834 13609 net.cpp:100] Creating Layer data
I0409 22:43:31.435852 13609 net.cpp:408] data -> data
I0409 22:43:31.435904 13609 net.cpp:408] data -> label
I0409 22:43:31.437242 13720 db_lmdb.cpp:35] Opened lmdb ../local_data/lmdb/rtsd-r1/orig/train/lmdb
I0409 22:43:31.456981 13609 data_layer.cpp:41] output data size: 1024,3,48,48
I0409 22:43:31.510563 13609 net.cpp:150] Setting up data
I0409 22:43:31.510598 13609 net.cpp:157] Top shape: 1024 3 48 48 (7077888)
I0409 22:43:31.510606 13609 net.cpp:157] Top shape: 1024 (1024)
I0409 22:43:31.510637 13609 net.cpp:165] Memory required for data: 28315648
I0409 22:43:31.510649 13609 layer_factory.hpp:77] Creating layer conv1
I0409 22:43:31.510677 13609 net.cpp:100] Creating Layer conv1
I0409 22:43:31.510686 13609 net.cpp:434] conv1 <- data
I0409 22:43:31.510700 13609 net.cpp:408] conv1 -> conv1
I0409 22:43:31.940978 13609 net.cpp:150] Setting up conv1
I0409 22:43:31.941011 13609 net.cpp:157] Top shape: 1024 100 42 42 (180633600)
I0409 22:43:31.941016 13609 net.cpp:165] Memory required for data: 750850048
I0409 22:43:31.941040 13609 layer_factory.hpp:77] Creating layer conv1_sTanH
I0409 22:43:31.941056 13609 net.cpp:100] Creating Layer conv1_sTanH
I0409 22:43:31.941061 13609 net.cpp:434] conv1_sTanH <- conv1
I0409 22:43:31.941067 13609 net.cpp:395] conv1_sTanH -> conv1 (in-place)
I0409 22:43:31.941318 13609 net.cpp:150] Setting up conv1_sTanH
I0409 22:43:31.941332 13609 net.cpp:157] Top shape: 1024 100 42 42 (180633600)
I0409 22:43:31.941335 13609 net.cpp:165] Memory required for data: 1473384448
I0409 22:43:31.941339 13609 layer_factory.hpp:77] Creating layer pool1
I0409 22:43:31.941349 13609 net.cpp:100] Creating Layer pool1
I0409 22:43:31.941366 13609 net.cpp:434] pool1 <- conv1
I0409 22:43:31.941383 13609 net.cpp:408] pool1 -> pool1
I0409 22:43:31.941450 13609 net.cpp:150] Setting up pool1
I0409 22:43:31.941462 13609 net.cpp:157] Top shape: 1024 100 21 21 (45158400)
I0409 22:43:31.941464 13609 net.cpp:165] Memory required for data: 1654018048
I0409 22:43:31.941468 13609 layer_factory.hpp:77] Creating layer conv2
I0409 22:43:31.941479 13609 net.cpp:100] Creating Layer conv2
I0409 22:43:31.941484 13609 net.cpp:434] conv2 <- pool1
I0409 22:43:31.941489 13609 net.cpp:408] conv2 -> conv2
I0409 22:43:31.967356 13609 net.cpp:150] Setting up conv2
I0409 22:43:31.967406 13609 net.cpp:157] Top shape: 1024 150 18 18 (49766400)
I0409 22:43:31.967414 13609 net.cpp:165] Memory required for data: 1853083648
I0409 22:43:31.967439 13609 layer_factory.hpp:77] Creating layer conv2_sTanH
I0409 22:43:31.967463 13609 net.cpp:100] Creating Layer conv2_sTanH
I0409 22:43:31.967473 13609 net.cpp:434] conv2_sTanH <- conv2
I0409 22:43:31.967497 13609 net.cpp:395] conv2_sTanH -> conv2 (in-place)
I0409 22:43:31.969584 13609 net.cpp:150] Setting up conv2_sTanH
I0409 22:43:31.969604 13609 net.cpp:157] Top shape: 1024 150 18 18 (49766400)
I0409 22:43:31.969607 13609 net.cpp:165] Memory required for data: 2052149248
I0409 22:43:31.969611 13609 layer_factory.hpp:77] Creating layer pool2
I0409 22:43:31.969620 13609 net.cpp:100] Creating Layer pool2
I0409 22:43:31.969624 13609 net.cpp:434] pool2 <- conv2
I0409 22:43:31.969630 13609 net.cpp:408] pool2 -> pool2
I0409 22:43:31.969693 13609 net.cpp:150] Setting up pool2
I0409 22:43:31.969703 13609 net.cpp:157] Top shape: 1024 150 9 9 (12441600)
I0409 22:43:31.969707 13609 net.cpp:165] Memory required for data: 2101915648
I0409 22:43:31.969709 13609 layer_factory.hpp:77] Creating layer conv3
I0409 22:43:31.969720 13609 net.cpp:100] Creating Layer conv3
I0409 22:43:31.969725 13609 net.cpp:434] conv3 <- pool2
I0409 22:43:31.969732 13609 net.cpp:408] conv3 -> conv3
I0409 22:43:31.976768 13609 net.cpp:150] Setting up conv3
I0409 22:43:31.976788 13609 net.cpp:157] Top shape: 1024 250 6 6 (9216000)
I0409 22:43:31.976793 13609 net.cpp:165] Memory required for data: 2138779648
I0409 22:43:31.976802 13609 layer_factory.hpp:77] Creating layer conv3_sTanH
I0409 22:43:31.976811 13609 net.cpp:100] Creating Layer conv3_sTanH
I0409 22:43:31.976816 13609 net.cpp:434] conv3_sTanH <- conv3
I0409 22:43:31.976822 13609 net.cpp:395] conv3_sTanH -> conv3 (in-place)
I0409 22:43:31.978250 13609 net.cpp:150] Setting up conv3_sTanH
I0409 22:43:31.978269 13609 net.cpp:157] Top shape: 1024 250 6 6 (9216000)
I0409 22:43:31.978273 13609 net.cpp:165] Memory required for data: 2175643648
I0409 22:43:31.978276 13609 layer_factory.hpp:77] Creating layer pool3
I0409 22:43:31.978286 13609 net.cpp:100] Creating Layer pool3
I0409 22:43:31.978288 13609 net.cpp:434] pool3 <- conv3
I0409 22:43:31.978312 13609 net.cpp:408] pool3 -> pool3
I0409 22:43:31.978364 13609 net.cpp:150] Setting up pool3
I0409 22:43:31.978374 13609 net.cpp:157] Top shape: 1024 250 3 3 (2304000)
I0409 22:43:31.978377 13609 net.cpp:165] Memory required for data: 2184859648
I0409 22:43:31.978381 13609 layer_factory.hpp:77] Creating layer fc4_300
I0409 22:43:31.978387 13609 net.cpp:100] Creating Layer fc4_300
I0409 22:43:31.978395 13609 net.cpp:434] fc4_300 <- pool3
I0409 22:43:31.978400 13609 net.cpp:408] fc4_300 -> fc4_300
I0409 22:43:31.992027 13609 net.cpp:150] Setting up fc4_300
I0409 22:43:31.992045 13609 net.cpp:157] Top shape: 1024 300 (307200)
I0409 22:43:31.992049 13609 net.cpp:165] Memory required for data: 2186088448
I0409 22:43:31.992055 13609 layer_factory.hpp:77] Creating layer fc4_sTanH
I0409 22:43:31.992063 13609 net.cpp:100] Creating Layer fc4_sTanH
I0409 22:43:31.992066 13609 net.cpp:434] fc4_sTanH <- fc4_300
I0409 22:43:31.992072 13609 net.cpp:395] fc4_sTanH -> fc4_300 (in-place)
I0409 22:43:31.992267 13609 net.cpp:150] Setting up fc4_sTanH
I0409 22:43:31.992280 13609 net.cpp:157] Top shape: 1024 300 (307200)
I0409 22:43:31.992282 13609 net.cpp:165] Memory required for data: 2187317248
I0409 22:43:31.992286 13609 layer_factory.hpp:77] Creating layer drop4
I0409 22:43:31.992295 13609 net.cpp:100] Creating Layer drop4
I0409 22:43:31.992300 13609 net.cpp:434] drop4 <- fc4_300
I0409 22:43:31.992305 13609 net.cpp:395] drop4 -> fc4_300 (in-place)
I0409 22:43:31.992339 13609 net.cpp:150] Setting up drop4
I0409 22:43:31.992347 13609 net.cpp:157] Top shape: 1024 300 (307200)
I0409 22:43:31.992350 13609 net.cpp:165] Memory required for data: 2188546048
I0409 22:43:31.992353 13609 layer_factory.hpp:77] Creating layer fc5_67
I0409 22:43:31.992359 13609 net.cpp:100] Creating Layer fc5_67
I0409 22:43:31.992363 13609 net.cpp:434] fc5_67 <- fc4_300
I0409 22:43:31.992369 13609 net.cpp:408] fc5_67 -> fc5_classes
I0409 22:43:31.996265 13609 net.cpp:150] Setting up fc5_67
I0409 22:43:31.996284 13609 net.cpp:157] Top shape: 1024 67 (68608)
I0409 22:43:31.996286 13609 net.cpp:165] Memory required for data: 2188820480
I0409 22:43:31.996299 13609 layer_factory.hpp:77] Creating layer loss
I0409 22:43:31.996305 13609 net.cpp:100] Creating Layer loss
I0409 22:43:31.996309 13609 net.cpp:434] loss <- fc5_classes
I0409 22:43:31.996315 13609 net.cpp:434] loss <- label
I0409 22:43:31.996321 13609 net.cpp:408] loss -> loss
I0409 22:43:31.996338 13609 layer_factory.hpp:77] Creating layer loss
…
I0409 22:43:31.996994 13609 solver.cpp:193] Creating test net (#0) specified by test_net file: ./Prototxt/experiment_7/rtsd-r1/orig/trial_2/test.prototxt
I0409 22:43:31.997133 13609 net.cpp:58] Initializing net from parameters: 
state {
  phase: TEST
}
layer {
  name: "data"
  type: "Data"
  top: "data"
  top: "label"
  include {
    phase: TEST
  }
  transform_param {
    mirror: false
    crop_size: 48
    mean_value: 113
    mean_value: 110
    mean_value: 132
  }
  data_param {
    source: "../local_data/lmdb/rtsd-r1/orig/test/lmdb"
    batch_size: 1024
    backend: LMDB
  }
}
layer {
  name: "conv1"
  type: "Convolution"
  bottom: "data"
  top: "conv1"
  convolution_param {
    num_output: 100
    pad: 0
    kernel_size: 7
    group: 1
    stride: 1
    weight_filler {
      type: "xavier"
    }
  }
}
layer {
  name: "conv1_sTanH"
  type: "TanH"
  bottom: "conv1"
  top: "conv1"
}
layer {
  name: "pool1"
  type: "Pooling"
  bottom: "conv1"
  top: "pool1"
  pooling_param {
    pool: MAX
    kernel_size: 2
    stride: 2
  }
}
layer {
  name: "conv2"
  type: "Convolution"
  bottom: "pool1"
  top: "conv2"
  convolution_param {
    num_output: 150
    pad: 0
    kernel_size: 4
    group: 1
    stride: 1
    weight_filler {
      type: "xavier"
    }
  }
}
layer {
  name: "conv2_sTanH"
  type: "TanH"
  bottom: "conv2"
  top: "conv2"
}
layer {
  name: "pool2"
  type: "Pooling"
  bottom: "conv2"
  top: "pool2"
  pooling_param {
    pool: MAX
    kernel_size: 2
    stride: 2
  }
}
layer {
  name: "conv3"
  type: "Convolution"
  bottom: "pool2"
  top: "conv3"
  convolution_param {
    num_output: 250
    pad: 0
    kernel_size: 4
    group: 1
    stride: 1
    weight_filler {
      type: "xavier"
    }
  }
}
layer {
  name: "conv3_sTanH"
  type: "TanH"
  bottom: "conv3"
  top: "conv3"
}
layer {
  name: "pool3"
  type: "Pooling"
  bottom: "conv3"
  top: "pool3"
  pooling_param {
    pool: MAX
    kernel_size: 2
    stride: 2
  }
}
layer {
  name: "fc4_300"
  type: "InnerProduct"
  bottom: "pool3"
  top: "fc4_300"
  inner_product_param {
    num_output: 300
    weight_filler {
      type: "xavier"
    }
  }
}
layer {
  name: "fc4_sTanH"
  type: "TanH"
  bottom: "fc4_300"
  top: "fc4_300"
}
layer {
  name: "drop4"
  type: "Dropout"
  bottom: "fc4_300"
  top: "fc4_300"
  dropout_param {
    dropout_ratio: 0.4
  }
}
layer {
  name: "fc5_67"
  type: "InnerProduct"
  bottom: "fc4_300"
  top: "fc5_classes"
  inner_product_param {
    num_output: 67
    weight_filler {
      type: "xavier"
    }
  }
}
layer {
  name: "loss"
  type: "SoftmaxWithLoss"
  bottom: "fc5_classes"
  bottom: "label"
  top: "loss"
}
layer {
  name: "accuracy_1"
  type: "Accuracy"
  bottom: "fc5_classes"
  bottom: "label"
  top: "accuracy_1"
  include {
    phase: TEST
  }
  accuracy_param {
    top_k: 1
  }
}
layer {
  name: "accuracy_5"
  type: "Accuracy"
  bottom: "fc5_classes"
  bottom: "label"
  top: "accuracy_5"
  include {
    phase: TEST
  }
  accuracy_param {
    top_k: 5
  }
}
I0409 22:43:31.997226 13609 layer_factory.hpp:77] Creating layer data
I0409 22:43:31.997882 13609 net.cpp:100] Creating Layer data
I0409 22:43:31.997894 13609 net.cpp:408] data -> data
I0409 22:43:31.997903 13609 net.cpp:408] data -> label
I0409 22:43:32.001163 13746 db_lmdb.cpp:35] Opened lmdb ../local_data/lmdb/rtsd-r1/orig/test/lmdb
I0409 22:43:32.001344 13609 data_layer.cpp:41] output data size: 1024,3,48,48
I0409 22:43:32.104567 13609 net.cpp:150] Setting up data
I0409 22:43:32.104614 13609 net.cpp:157] Top shape: 1024 3 48 48 (7077888)
I0409 22:43:32.104627 13609 net.cpp:157] Top shape: 1024 (1024)
I0409 22:43:32.104634 13609 net.cpp:165] Memory required for data: 28315648
I0409 22:43:32.104645 13609 layer_factory.hpp:77] Creating layer label_data_1_split
I0409 22:43:32.104677 13609 net.cpp:100] Creating Layer label_data_1_split
I0409 22:43:32.104696 13609 net.cpp:434] label_data_1_split <- label
I0409 22:43:32.104717 13609 net.cpp:408] label_data_1_split -> label_data_1_split_0
I0409 22:43:32.104737 13609 net.cpp:408] label_data_1_split -> label_data_1_split_1
I0409 22:43:32.104748 13609 net.cpp:408] label_data_1_split -> label_data_1_split_2
I0409 22:43:32.104949 13609 net.cpp:150] Setting up label_data_1_split
I0409 22:43:32.104971 13609 net.cpp:157] Top shape: 1024 (1024)
I0409 22:43:32.104975 13609 net.cpp:157] Top shape: 1024 (1024)
I0409 22:43:32.104979 13609 net.cpp:157] Top shape: 1024 (1024)
I0409 22:43:32.104982 13609 net.cpp:165] Memory required for data: 28327936
I0409 22:43:32.104987 13609 layer_factory.hpp:77] Creating layer conv1
I0409 22:43:32.105007 13609 net.cpp:100] Creating Layer conv1
I0409 22:43:32.105013 13609 net.cpp:434] conv1 <- data
I0409 22:43:32.105021 13609 net.cpp:408] conv1 -> conv1
I0409 22:43:32.114629 13609 net.cpp:150] Setting up conv1
I0409 22:43:32.114662 13609 net.cpp:157] Top shape: 1024 100 42 42 (180633600)
I0409 22:43:32.114666 13609 net.cpp:165] Memory required for data: 750862336
I0409 22:43:32.114683 13609 layer_factory.hpp:77] Creating layer conv1_sTanH
I0409 22:43:32.114693 13609 net.cpp:100] Creating Layer conv1_sTanH
I0409 22:43:32.114697 13609 net.cpp:434] conv1_sTanH <- conv1
I0409 22:43:32.114704 13609 net.cpp:395] conv1_sTanH -> conv1 (in-place)
I0409 22:43:32.114904 13609 net.cpp:150] Setting up conv1_sTanH
I0409 22:43:32.114918 13609 net.cpp:157] Top shape: 1024 100 42 42 (180633600)
I0409 22:43:32.114923 13609 net.cpp:165] Memory required for data: 1473396736
I0409 22:43:32.114926 13609 layer_factory.hpp:77] Creating layer pool1
I0409 22:43:32.114935 13609 net.cpp:100] Creating Layer pool1
I0409 22:43:32.114941 13609 net.cpp:434] pool1 <- conv1
I0409 22:43:32.114946 13609 net.cpp:408] pool1 -> pool1
I0409 22:43:32.114996 13609 net.cpp:150] Setting up pool1
I0409 22:43:32.115005 13609 net.cpp:157] Top shape: 1024 100 21 21 (45158400)
I0409 22:43:32.115008 13609 net.cpp:165] Memory required for data: 1654030336
I0409 22:43:32.115011 13609 layer_factory.hpp:77] Creating layer conv2
I0409 22:43:32.115022 13609 net.cpp:100] Creating Layer conv2
I0409 22:43:32.115027 13609 net.cpp:434] conv2 <- pool1
I0409 22:43:32.115033 13609 net.cpp:408] conv2 -> conv2
I0409 22:43:32.124276 13609 net.cpp:150] Setting up conv2
I0409 22:43:32.124306 13609 net.cpp:157] Top shape: 1024 150 18 18 (49766400)
I0409 22:43:32.124311 13609 net.cpp:165] Memory required for data: 1853095936
I0409 22:43:32.124325 13609 layer_factory.hpp:77] Creating layer conv2_sTanH
I0409 22:43:32.124338 13609 net.cpp:100] Creating Layer conv2_sTanH
I0409 22:43:32.124342 13609 net.cpp:434] conv2_sTanH <- conv2
I0409 22:43:32.124349 13609 net.cpp:395] conv2_sTanH -> conv2 (in-place)
I0409 22:43:32.137033 13609 net.cpp:150] Setting up conv2_sTanH
I0409 22:43:32.137064 13609 net.cpp:157] Top shape: 1024 150 18 18 (49766400)
I0409 22:43:32.137068 13609 net.cpp:165] Memory required for data: 2052161536
I0409 22:43:32.137076 13609 layer_factory.hpp:77] Creating layer pool2
I0409 22:43:32.137090 13609 net.cpp:100] Creating Layer pool2
I0409 22:43:32.137095 13609 net.cpp:434] pool2 <- conv2
I0409 22:43:32.137104 13609 net.cpp:408] pool2 -> pool2
I0409 22:43:32.137192 13609 net.cpp:150] Setting up pool2
I0409 22:43:32.137203 13609 net.cpp:157] Top shape: 1024 150 9 9 (12441600)
I0409 22:43:32.137207 13609 net.cpp:165] Memory required for data: 2101927936
I0409 22:43:32.137209 13609 layer_factory.hpp:77] Creating layer conv3
I0409 22:43:32.137223 13609 net.cpp:100] Creating Layer conv3
I0409 22:43:32.137228 13609 net.cpp:434] conv3 <- pool2
I0409 22:43:32.137235 13609 net.cpp:408] conv3 -> conv3
I0409 22:43:32.145992 13609 net.cpp:150] Setting up conv3
I0409 22:43:32.146024 13609 net.cpp:157] Top shape: 1024 250 6 6 (9216000)
I0409 22:43:32.146028 13609 net.cpp:165] Memory required for data: 2138791936
I0409 22:43:32.146042 13609 layer_factory.hpp:77] Creating layer conv3_sTanH
I0409 22:43:32.146051 13609 net.cpp:100] Creating Layer conv3_sTanH
I0409 22:43:32.146055 13609 net.cpp:434] conv3_sTanH <- conv3
I0409 22:43:32.146062 13609 net.cpp:395] conv3_sTanH -> conv3 (in-place)
I0409 22:43:32.158893 13609 net.cpp:150] Setting up conv3_sTanH
I0409 22:43:32.158921 13609 net.cpp:157] Top shape: 1024 250 6 6 (9216000)
I0409 22:43:32.158946 13609 net.cpp:165] Memory required for data: 2175655936
I0409 22:43:32.158952 13609 layer_factory.hpp:77] Creating layer pool3
I0409 22:43:32.158964 13609 net.cpp:100] Creating Layer pool3
I0409 22:43:32.158970 13609 net.cpp:434] pool3 <- conv3
I0409 22:43:32.158980 13609 net.cpp:408] pool3 -> pool3
I0409 22:43:32.159057 13609 net.cpp:150] Setting up pool3
I0409 22:43:32.159072 13609 net.cpp:157] Top shape: 1024 250 3 3 (2304000)
I0409 22:43:32.159077 13609 net.cpp:165] Memory required for data: 2184871936
I0409 22:43:32.159080 13609 layer_factory.hpp:77] Creating layer fc4_300
I0409 22:43:32.159088 13609 net.cpp:100] Creating Layer fc4_300
I0409 22:43:32.159093 13609 net.cpp:434] fc4_300 <- pool3
I0409 22:43:32.159098 13609 net.cpp:408] fc4_300 -> fc4_300
I0409 22:43:32.167721 13609 net.cpp:150] Setting up fc4_300
I0409 22:43:32.167752 13609 net.cpp:157] Top shape: 1024 300 (307200)
I0409 22:43:32.167755 13609 net.cpp:165] Memory required for data: 2186100736
I0409 22:43:32.167765 13609 layer_factory.hpp:77] Creating layer fc4_sTanH
I0409 22:43:32.167775 13609 net.cpp:100] Creating Layer fc4_sTanH
I0409 22:43:32.167781 13609 net.cpp:434] fc4_sTanH <- fc4_300
I0409 22:43:32.167789 13609 net.cpp:395] fc4_sTanH -> fc4_300 (in-place)
I0409 22:43:32.168057 13609 net.cpp:150] Setting up fc4_sTanH
I0409 22:43:32.168074 13609 net.cpp:157] Top shape: 1024 300 (307200)
I0409 22:43:32.168077 13609 net.cpp:165] Memory required for data: 2187329536
I0409 22:43:32.168081 13609 layer_factory.hpp:77] Creating layer drop4
I0409 22:43:32.168088 13609 net.cpp:100] Creating Layer drop4
I0409 22:43:32.168092 13609 net.cpp:434] drop4 <- fc4_300
I0409 22:43:32.168097 13609 net.cpp:395] drop4 -> fc4_300 (in-place)
I0409 22:43:32.168130 13609 net.cpp:150] Setting up drop4
I0409 22:43:32.168139 13609 net.cpp:157] Top shape: 1024 300 (307200)
I0409 22:43:32.168143 13609 net.cpp:165] Memory required for data: 2188558336
I0409 22:43:32.168145 13609 layer_factory.hpp:77] Creating layer fc5_67
I0409 22:43:32.168154 13609 net.cpp:100] Creating Layer fc5_67
I0409 22:43:32.168157 13609 net.cpp:434] fc5_67 <- fc4_300
I0409 22:43:32.168164 13609 net.cpp:408] fc5_67 -> fc5_classes
I0409 22:43:32.168424 13609 net.cpp:150] Setting up fc5_67
I0409 22:43:32.168434 13609 net.cpp:157] Top shape: 1024 67 (68608)
I0409 22:43:32.168437 13609 net.cpp:165] Memory required for data: 2188832768
I0409 22:43:32.168447 13609 layer_factory.hpp:77] Creating layer fc5_classes_fc5_67_0_split
I0409 22:43:32.168455 13609 net.cpp:100] Creating Layer fc5_classes_fc5_67_0_split
I0409 22:43:32.168459 13609 net.cpp:434] fc5_classes_fc5_67_0_split <- fc5_classes
I0409 22:43:32.168470 13609 net.cpp:408] fc5_classes_fc5_67_0_split -> fc5_classes_fc5_67_0_split_0
I0409 22:43:32.168479 13609 net.cpp:408] fc5_classes_fc5_67_0_split -> fc5_classes_fc5_67_0_split_1
I0409 22:43:32.168485 13609 net.cpp:408] fc5_classes_fc5_67_0_split -> fc5_classes_fc5_67_0_split_2
I0409 22:43:32.168542 13609 net.cpp:150] Setting up fc5_classes_fc5_67_0_split
I0409 22:43:32.168550 13609 net.cpp:157] Top shape: 1024 67 (68608)
I0409 22:43:32.168555 13609 net.cpp:157] Top shape: 1024 67 (68608)
I0409 22:43:32.168558 13609 net.cpp:157] Top shape: 1024 67 (68608)
I0409 22:43:32.168561 13609 net.cpp:165] Memory required for data: 2189656064
I0409 22:43:32.168565 13609 layer_factory.hpp:77] Creating layer loss
I0409 22:43:32.168575 13609 net.cpp:100] Creating Layer loss
I0409 22:43:32.168579 13609 net.cpp:434] loss <- fc5_classes_fc5_67_0_split_0
I0409 22:43:32.168584 13609 net.cpp:434] loss <- label_data_1_split_0
I0409 22:43:32.168589 13609 net.cpp:408] loss -> loss
…
