…
I0507 00:55:40.350246  9682 solver.cpp:93] Creating training net from train_net file: ./Prototxt/experiment_14/RTSD/CoNorm/trial_2/train.prototxt
I0507 00:55:40.350656  9682 net.cpp:58] Initializing net from parameters: 
state {
  phase: TRAIN
  level: 0
  stage: ""
}
layer {
  name: "data"
  type: "Data"
  top: "data"
  top: "label"
  include {
    phase: TRAIN
  }
  transform_param {
    scale: 0.0039215689
    mirror: false
    crop_size: 48
    mean_value: 135
    mean_value: 135
    mean_value: 134
  }
  data_param {
    source: "../local_data/lmdb/RTSD/CoNorm/train/lmdb"
    batch_size: 512
    backend: LMDB
  }
}
layer {
  name: "conv1"
  type: "Convolution"
  bottom: "data"
  top: "conv1"
  convolution_param {
    num_output: 100
    pad: 0
    kernel_size: 7
    group: 1
    stride: 1
    weight_filler {
      type: "xavier"
    }
  }
}
layer {
  name: "conv1_relu"
  type: "ReLU"
  bottom: "conv1"
  top: "conv1"
}
layer {
  name: "pool1"
  type: "Pooling"
  bottom: "conv1"
  top: "pool1"
  pooling_param {
    pool: MAX
    kernel_size: 2
    stride: 2
  }
}
layer {
  name: "conv2"
  type: "Convolution"
  bottom: "pool1"
  top: "conv2"
  convolution_param {
    num_output: 150
    pad: 0
    kernel_size: 4
    group: 1
    stride: 1
    weight_filler {
      type: "xavier"
    }
  }
}
layer {
  name: "conv2_relu"
  type: "ReLU"
  bottom: "conv2"
  top: "conv2"
}
layer {
  name: "pool2"
  type: "Pooling"
  bottom: "conv2"
  top: "pool2"
  pooling_param {
    pool: MAX
    kernel_size: 2
    stride: 2
  }
}
layer {
  name: "conv3"
  type: "Convolution"
  bottom: "pool2"
  top: "conv3"
  convolution_param {
    num_output: 250
    pad: 0
    kernel_size: 4
    group: 1
    stride: 1
    weight_filler {
      type: "xavier"
    }
  }
}
layer {
  name: "conv3_relu"
  type: "ReLU"
  bottom: "conv3"
  top: "conv3"
}
layer {
  name: "pool3"
  type: "Pooling"
  bottom: "conv3"
  top: "pool3"
  pooling_param {
    pool: MAX
    kernel_size: 2
    stride: 2
  }
}
layer {
  name: "fc4_300"
  type: "InnerProduct"
  bottom: "pool3"
  top: "fc4_300"
  inner_product_param {
    num_output: 300
    weight_filler {
      type: "xavier"
    }
  }
}
layer {
  name: "fc4_relu"
  type: "ReLU"
  bottom: "fc4_300"
  top: "fc4_300"
}
layer {
  name: "fc5_116"
  type: "InnerProduct"
  bottom: "fc4_300"
  top: "fc5_classes"
  inner_product_param {
    num_output: 116
    weight_filler {
      type: "xavier"
    }
  }
}
layer {
  name: "softmax"
  type: "Softmax"
  bottom: "fc5_classes"
  top: "softmax"
}
layer {
  name: "loss"
  type: "MultinomialLogisticLoss"
  bottom: "softmax"
  bottom: "label"
  top: "loss"
}
layer {
  name: "accuracy_1"
  type: "Accuracy"
  bottom: "fc5_classes"
  bottom: "label"
  top: "accuracy_1"
  accuracy_param {
    top_k: 1
  }
}
layer {
  name: "accuracy_5"
  type: "Accuracy"
  bottom: "fc5_classes"
  bottom: "label"
  top: "accuracy_5"
  accuracy_param {
    top_k: 5
  }
}
layer {
  name: "silence"
  type: "Silence"
  bottom: "accuracy_1"
  bottom: "accuracy_5"
}
I0507 00:55:40.350790  9682 layer_factory.hpp:77] Creating layer data
I0507 00:55:40.351634  9682 net.cpp:100] Creating Layer data
I0507 00:55:40.351650  9682 net.cpp:408] data -> data
I0507 00:55:40.351676  9682 net.cpp:408] data -> label
I0507 00:55:40.356873  9821 db_lmdb.cpp:35] Opened lmdb ../local_data/lmdb/RTSD/CoNorm/train/lmdb
I0507 00:55:40.379370  9682 data_layer.cpp:41] output data size: 512,3,48,48
I0507 00:55:40.434918  9682 net.cpp:150] Setting up data
I0507 00:55:40.434975  9682 net.cpp:157] Top shape: 512 3 48 48 (3538944)
I0507 00:55:40.434983  9682 net.cpp:157] Top shape: 512 (512)
I0507 00:55:40.434985  9682 net.cpp:165] Memory required for data: 14157824
I0507 00:55:40.434996  9682 layer_factory.hpp:77] Creating layer label_data_1_split
I0507 00:55:40.435011  9682 net.cpp:100] Creating Layer label_data_1_split
I0507 00:55:40.435019  9682 net.cpp:434] label_data_1_split <- label
I0507 00:55:40.435037  9682 net.cpp:408] label_data_1_split -> label_data_1_split_0
I0507 00:55:40.435051  9682 net.cpp:408] label_data_1_split -> label_data_1_split_1
I0507 00:55:40.435060  9682 net.cpp:408] label_data_1_split -> label_data_1_split_2
I0507 00:55:40.435134  9682 net.cpp:150] Setting up label_data_1_split
I0507 00:55:40.435143  9682 net.cpp:157] Top shape: 512 (512)
I0507 00:55:40.435148  9682 net.cpp:157] Top shape: 512 (512)
I0507 00:55:40.435151  9682 net.cpp:157] Top shape: 512 (512)
I0507 00:55:40.435156  9682 net.cpp:165] Memory required for data: 14163968
I0507 00:55:40.435159  9682 layer_factory.hpp:77] Creating layer conv1
I0507 00:55:40.435178  9682 net.cpp:100] Creating Layer conv1
I0507 00:55:40.435184  9682 net.cpp:434] conv1 <- data
I0507 00:55:40.435194  9682 net.cpp:408] conv1 -> conv1
I0507 00:55:40.869819  9682 net.cpp:150] Setting up conv1
I0507 00:55:40.869846  9682 net.cpp:157] Top shape: 512 100 42 42 (90316800)
I0507 00:55:40.869850  9682 net.cpp:165] Memory required for data: 375431168
I0507 00:55:40.869874  9682 layer_factory.hpp:77] Creating layer conv1_relu
I0507 00:55:40.869886  9682 net.cpp:100] Creating Layer conv1_relu
I0507 00:55:40.869892  9682 net.cpp:434] conv1_relu <- conv1
I0507 00:55:40.869899  9682 net.cpp:395] conv1_relu -> conv1 (in-place)
I0507 00:55:40.870095  9682 net.cpp:150] Setting up conv1_relu
I0507 00:55:40.870108  9682 net.cpp:157] Top shape: 512 100 42 42 (90316800)
I0507 00:55:40.870112  9682 net.cpp:165] Memory required for data: 736698368
I0507 00:55:40.870115  9682 layer_factory.hpp:77] Creating layer pool1
I0507 00:55:40.870126  9682 net.cpp:100] Creating Layer pool1
I0507 00:55:40.870131  9682 net.cpp:434] pool1 <- conv1
I0507 00:55:40.870136  9682 net.cpp:408] pool1 -> pool1
I0507 00:55:40.870194  9682 net.cpp:150] Setting up pool1
I0507 00:55:40.870203  9682 net.cpp:157] Top shape: 512 100 21 21 (22579200)
I0507 00:55:40.870206  9682 net.cpp:165] Memory required for data: 827015168
I0507 00:55:40.870210  9682 layer_factory.hpp:77] Creating layer conv2
I0507 00:55:40.870220  9682 net.cpp:100] Creating Layer conv2
I0507 00:55:40.870225  9682 net.cpp:434] conv2 <- pool1
I0507 00:55:40.870231  9682 net.cpp:408] conv2 -> conv2
I0507 00:55:40.877195  9682 net.cpp:150] Setting up conv2
I0507 00:55:40.877214  9682 net.cpp:157] Top shape: 512 150 18 18 (24883200)
I0507 00:55:40.877218  9682 net.cpp:165] Memory required for data: 926547968
I0507 00:55:40.877228  9682 layer_factory.hpp:77] Creating layer conv2_relu
I0507 00:55:40.877236  9682 net.cpp:100] Creating Layer conv2_relu
I0507 00:55:40.877240  9682 net.cpp:434] conv2_relu <- conv2
I0507 00:55:40.877245  9682 net.cpp:395] conv2_relu -> conv2 (in-place)
I0507 00:55:40.878190  9682 net.cpp:150] Setting up conv2_relu
I0507 00:55:40.878207  9682 net.cpp:157] Top shape: 512 150 18 18 (24883200)
I0507 00:55:40.878211  9682 net.cpp:165] Memory required for data: 1026080768
I0507 00:55:40.878214  9682 layer_factory.hpp:77] Creating layer pool2
I0507 00:55:40.878222  9682 net.cpp:100] Creating Layer pool2
I0507 00:55:40.878227  9682 net.cpp:434] pool2 <- conv2
I0507 00:55:40.878233  9682 net.cpp:408] pool2 -> pool2
I0507 00:55:40.878283  9682 net.cpp:150] Setting up pool2
I0507 00:55:40.878293  9682 net.cpp:157] Top shape: 512 150 9 9 (6220800)
I0507 00:55:40.878296  9682 net.cpp:165] Memory required for data: 1050963968
I0507 00:55:40.878300  9682 layer_factory.hpp:77] Creating layer conv3
I0507 00:55:40.878310  9682 net.cpp:100] Creating Layer conv3
I0507 00:55:40.878315  9682 net.cpp:434] conv3 <- pool2
I0507 00:55:40.878321  9682 net.cpp:408] conv3 -> conv3
I0507 00:55:40.884418  9682 net.cpp:150] Setting up conv3
I0507 00:55:40.884438  9682 net.cpp:157] Top shape: 512 250 6 6 (4608000)
I0507 00:55:40.884441  9682 net.cpp:165] Memory required for data: 1069395968
I0507 00:55:40.884451  9682 layer_factory.hpp:77] Creating layer conv3_relu
I0507 00:55:40.884459  9682 net.cpp:100] Creating Layer conv3_relu
I0507 00:55:40.884462  9682 net.cpp:434] conv3_relu <- conv3
I0507 00:55:40.884467  9682 net.cpp:395] conv3_relu -> conv3 (in-place)
I0507 00:55:40.895926  9682 net.cpp:150] Setting up conv3_relu
I0507 00:55:40.895946  9682 net.cpp:157] Top shape: 512 250 6 6 (4608000)
I0507 00:55:40.895951  9682 net.cpp:165] Memory required for data: 1087827968
I0507 00:55:40.895954  9682 layer_factory.hpp:77] Creating layer pool3
I0507 00:55:40.895962  9682 net.cpp:100] Creating Layer pool3
I0507 00:55:40.895967  9682 net.cpp:434] pool3 <- conv3
I0507 00:55:40.895972  9682 net.cpp:408] pool3 -> pool3
I0507 00:55:40.896028  9682 net.cpp:150] Setting up pool3
I0507 00:55:40.896036  9682 net.cpp:157] Top shape: 512 250 3 3 (1152000)
I0507 00:55:40.896039  9682 net.cpp:165] Memory required for data: 1092435968
I0507 00:55:40.896042  9682 layer_factory.hpp:77] Creating layer fc4_300
I0507 00:55:40.896049  9682 net.cpp:100] Creating Layer fc4_300
I0507 00:55:40.896054  9682 net.cpp:434] fc4_300 <- pool3
I0507 00:55:40.896059  9682 net.cpp:408] fc4_300 -> fc4_300
I0507 00:55:40.920261  9682 net.cpp:150] Setting up fc4_300
I0507 00:55:40.920290  9682 net.cpp:157] Top shape: 512 300 (153600)
I0507 00:55:40.920295  9682 net.cpp:165] Memory required for data: 1093050368
I0507 00:55:40.920306  9682 layer_factory.hpp:77] Creating layer fc4_relu
I0507 00:55:40.920318  9682 net.cpp:100] Creating Layer fc4_relu
I0507 00:55:40.920325  9682 net.cpp:434] fc4_relu <- fc4_300
I0507 00:55:40.920331  9682 net.cpp:395] fc4_relu -> fc4_300 (in-place)
I0507 00:55:40.920565  9682 net.cpp:150] Setting up fc4_relu
I0507 00:55:40.920578  9682 net.cpp:157] Top shape: 512 300 (153600)
I0507 00:55:40.920583  9682 net.cpp:165] Memory required for data: 1093664768
I0507 00:55:40.920586  9682 layer_factory.hpp:77] Creating layer fc5_116
I0507 00:55:40.920595  9682 net.cpp:100] Creating Layer fc5_116
I0507 00:55:40.920599  9682 net.cpp:434] fc5_116 <- fc4_300
I0507 00:55:40.920605  9682 net.cpp:408] fc5_116 -> fc5_classes
I0507 00:55:40.930022  9682 net.cpp:150] Setting up fc5_116
I0507 00:55:40.930045  9682 net.cpp:157] Top shape: 512 116 (59392)
I0507 00:55:40.930049  9682 net.cpp:165] Memory required for data: 1093902336
I0507 00:55:40.930063  9682 layer_factory.hpp:77] Creating layer fc5_classes_fc5_116_0_split
I0507 00:55:40.930075  9682 net.cpp:100] Creating Layer fc5_classes_fc5_116_0_split
I0507 00:55:40.930080  9682 net.cpp:434] fc5_classes_fc5_116_0_split <- fc5_classes
I0507 00:55:40.930088  9682 net.cpp:408] fc5_classes_fc5_116_0_split -> fc5_classes_fc5_116_0_split_0
I0507 00:55:40.930097  9682 net.cpp:408] fc5_classes_fc5_116_0_split -> fc5_classes_fc5_116_0_split_1
I0507 00:55:40.930105  9682 net.cpp:408] fc5_classes_fc5_116_0_split -> fc5_classes_fc5_116_0_split_2
I0507 00:55:40.930160  9682 net.cpp:150] Setting up fc5_classes_fc5_116_0_split
I0507 00:55:40.930167  9682 net.cpp:157] Top shape: 512 116 (59392)
I0507 00:55:40.930171  9682 net.cpp:157] Top shape: 512 116 (59392)
I0507 00:55:40.930176  9682 net.cpp:157] Top shape: 512 116 (59392)
I0507 00:55:40.930178  9682 net.cpp:165] Memory required for data: 1094615040
I0507 00:55:40.930181  9682 layer_factory.hpp:77] Creating layer softmax
I0507 00:55:40.930188  9682 net.cpp:100] Creating Layer softmax
I0507 00:55:40.930193  9682 net.cpp:434] softmax <- fc5_classes_fc5_116_0_split_0
I0507 00:55:40.930199  9682 net.cpp:408] softmax -> softmax
I0507 00:55:40.930480  9682 net.cpp:150] Setting up softmax
I0507 00:55:40.930493  9682 net.cpp:157] Top shape: 512 116 (59392)
I0507 00:55:40.930497  9682 net.cpp:165] Memory required for data: 1094852608
I0507 00:55:40.930501  9682 layer_factory.hpp:77] Creating layer loss
I0507 00:55:40.930511  9682 net.cpp:100] Creating Layer loss
I0507 00:55:40.930534  9682 net.cpp:434] loss <- softmax
I0507 00:55:40.930542  9682 net.cpp:434] loss <- label_data_1_split_0
I0507 00:55:40.930549  9682 net.cpp:408] loss -> loss
…
