…
I0415 02:51:41.624409 14848 solver.cpp:93] Creating training net from train_net file: ./Prototxt/experiment_12/rtsd-r1/orig/trial_5/train.prototxt
I0415 02:51:41.634531 14848 net.cpp:58] Initializing net from parameters: 
state {
  phase: TRAIN
  level: 0
  stage: ""
}
layer {
  name: "data"
  type: "Data"
  top: "data"
  top: "label"
  include {
    phase: TRAIN
  }
  transform_param {
    scale: 0.0039215689
    mirror: false
    crop_size: 48
    mean_value: 122
    mean_value: 115
    mean_value: 129
  }
  data_param {
    source: "../local_data/lmdb/rtsd-r1/orig/train/lmdb"
    batch_size: 1024
    backend: LMDB
  }
}
layer {
  name: "conv1"
  type: "Convolution"
  bottom: "data"
  top: "conv1"
  convolution_param {
    num_output: 100
    pad: 0
    kernel_size: 7
    group: 1
    stride: 1
    weight_filler {
      type: "xavier"
    }
  }
}
layer {
  name: "conv1_relu"
  type: "ReLU"
  bottom: "conv1"
  top: "conv1"
}
layer {
  name: "pool1"
  type: "Pooling"
  bottom: "conv1"
  top: "pool1"
  pooling_param {
    pool: MAX
    kernel_size: 2
    stride: 2
  }
}
layer {
  name: "conv2"
  type: "Convolution"
  bottom: "pool1"
  top: "conv2"
  convolution_param {
    num_output: 150
    pad: 0
    kernel_size: 4
    group: 1
    stride: 1
    weight_filler {
      type: "xavier"
    }
  }
}
layer {
  name: "conv2_relu"
  type: "ReLU"
  bottom: "conv2"
  top: "conv2"
}
layer {
  name: "pool2"
  type: "Pooling"
  bottom: "conv2"
  top: "pool2"
  pooling_param {
    pool: MAX
    kernel_size: 2
    stride: 2
  }
}
layer {
  name: "conv3"
  type: "Convolution"
  bottom: "pool2"
  top: "conv3"
  convolution_param {
    num_output: 250
    pad: 0
    kernel_size: 4
    group: 1
    stride: 1
    weight_filler {
      type: "xavier"
    }
  }
}
layer {
  name: "conv3_relu"
  type: "ReLU"
  bottom: "conv3"
  top: "conv3"
}
layer {
  name: "pool3"
  type: "Pooling"
  bottom: "conv3"
  top: "pool3"
  pooling_param {
    pool: MAX
    kernel_size: 2
    stride: 2
  }
}
layer {
  name: "fc4_300"
  type: "InnerProduct"
  bottom: "pool3"
  top: "fc4_300"
  inner_product_param {
    num_output: 300
    weight_filler {
      type: "xavier"
    }
  }
}
layer {
  name: "fc4_relu"
  type: "ReLU"
  bottom: "fc4_300"
  top: "fc4_300"
}
layer {
  name: "drop4"
  type: "Dropout"
  bottom: "fc4_300"
  top: "fc4_300"
  dropout_param {
    dropout_ratio: 0.5
  }
}
layer {
  name: "fc5_67"
  type: "InnerProduct"
  bottom: "fc4_300"
  top: "fc5_classes"
  inner_product_param {
    num_output: 67
    weight_filler {
      type: "xavier"
    }
  }
}
layer {
  name: "softmax"
  type: "Softmax"
  bottom: "fc5_classes"
  top: "softmax"
}
layer {
  name: "loss"
  type: "MultinomialLogisticLoss"
  bottom: "softmax"
  bottom: "label"
  top: "loss"
}
layer {
  name: "accuracy_1"
  type: "Accuracy"
  bottom: "fc5_classes"
  bottom: "label"
  top: "accuracy_1"
  accuracy_param {
    top_k: 1
  }
}
layer {
  name: "accuracy_5"
  type: "Accuracy"
  bottom: "fc5_classes"
  bottom: "label"
  top: "accuracy_5"
  accuracy_param {
    top_k: 5
  }
}
layer {
  name: "silence"
  type: "Silence"
  bottom: "accuracy_1"
  bottom: "accuracy_5"
}
I0415 02:51:41.634655 14848 layer_factory.hpp:77] Creating layer data
I0415 02:51:41.635713 14848 net.cpp:100] Creating Layer data
I0415 02:51:41.635728 14848 net.cpp:408] data -> data
I0415 02:51:41.635752 14848 net.cpp:408] data -> label
I0415 02:51:41.638818 15129 db_lmdb.cpp:35] Opened lmdb ../local_data/lmdb/rtsd-r1/orig/train/lmdb
I0415 02:51:41.655668 14848 data_layer.cpp:41] output data size: 1024,3,48,48
I0415 02:51:41.719730 14848 net.cpp:150] Setting up data
I0415 02:51:41.719777 14848 net.cpp:157] Top shape: 1024 3 48 48 (7077888)
I0415 02:51:41.719787 14848 net.cpp:157] Top shape: 1024 (1024)
I0415 02:51:41.719795 14848 net.cpp:165] Memory required for data: 28315648
I0415 02:51:41.719810 14848 layer_factory.hpp:77] Creating layer label_data_1_split
I0415 02:51:41.719825 14848 net.cpp:100] Creating Layer label_data_1_split
I0415 02:51:41.719832 14848 net.cpp:434] label_data_1_split <- label
I0415 02:51:41.719852 14848 net.cpp:408] label_data_1_split -> label_data_1_split_0
I0415 02:51:41.719866 14848 net.cpp:408] label_data_1_split -> label_data_1_split_1
I0415 02:51:41.719876 14848 net.cpp:408] label_data_1_split -> label_data_1_split_2
I0415 02:51:41.719967 14848 net.cpp:150] Setting up label_data_1_split
I0415 02:51:41.719981 14848 net.cpp:157] Top shape: 1024 (1024)
I0415 02:51:41.719987 14848 net.cpp:157] Top shape: 1024 (1024)
I0415 02:51:41.719991 14848 net.cpp:157] Top shape: 1024 (1024)
I0415 02:51:41.719995 14848 net.cpp:165] Memory required for data: 28327936
I0415 02:51:41.719997 14848 layer_factory.hpp:77] Creating layer conv1
I0415 02:51:41.720016 14848 net.cpp:100] Creating Layer conv1
I0415 02:51:41.720026 14848 net.cpp:434] conv1 <- data
I0415 02:51:41.720033 14848 net.cpp:408] conv1 -> conv1
I0415 02:51:43.250196 14848 net.cpp:150] Setting up conv1
I0415 02:51:43.250226 14848 net.cpp:157] Top shape: 1024 100 42 42 (180633600)
I0415 02:51:43.250229 14848 net.cpp:165] Memory required for data: 750862336
I0415 02:51:43.250252 14848 layer_factory.hpp:77] Creating layer conv1_relu
I0415 02:51:43.250265 14848 net.cpp:100] Creating Layer conv1_relu
I0415 02:51:43.250270 14848 net.cpp:434] conv1_relu <- conv1
I0415 02:51:43.250277 14848 net.cpp:395] conv1_relu -> conv1 (in-place)
I0415 02:51:43.250560 14848 net.cpp:150] Setting up conv1_relu
I0415 02:51:43.250578 14848 net.cpp:157] Top shape: 1024 100 42 42 (180633600)
I0415 02:51:43.250619 14848 net.cpp:165] Memory required for data: 1473396736
I0415 02:51:43.250628 14848 layer_factory.hpp:77] Creating layer pool1
I0415 02:51:43.250649 14848 net.cpp:100] Creating Layer pool1
I0415 02:51:43.250658 14848 net.cpp:434] pool1 <- conv1
I0415 02:51:43.250671 14848 net.cpp:408] pool1 -> pool1
I0415 02:51:43.250778 14848 net.cpp:150] Setting up pool1
I0415 02:51:43.250790 14848 net.cpp:157] Top shape: 1024 100 21 21 (45158400)
I0415 02:51:43.250798 14848 net.cpp:165] Memory required for data: 1654030336
I0415 02:51:43.250808 14848 layer_factory.hpp:77] Creating layer conv2
I0415 02:51:43.250829 14848 net.cpp:100] Creating Layer conv2
I0415 02:51:43.250840 14848 net.cpp:434] conv2 <- pool1
I0415 02:51:43.250852 14848 net.cpp:408] conv2 -> conv2
I0415 02:51:43.256567 14848 net.cpp:150] Setting up conv2
I0415 02:51:43.256590 14848 net.cpp:157] Top shape: 1024 150 18 18 (49766400)
I0415 02:51:43.256598 14848 net.cpp:165] Memory required for data: 1853095936
I0415 02:51:43.256613 14848 layer_factory.hpp:77] Creating layer conv2_relu
I0415 02:51:43.256628 14848 net.cpp:100] Creating Layer conv2_relu
I0415 02:51:43.256633 14848 net.cpp:434] conv2_relu <- conv2
I0415 02:51:43.256644 14848 net.cpp:395] conv2_relu -> conv2 (in-place)
I0415 02:51:43.258857 14848 net.cpp:150] Setting up conv2_relu
I0415 02:51:43.258873 14848 net.cpp:157] Top shape: 1024 150 18 18 (49766400)
I0415 02:51:43.258878 14848 net.cpp:165] Memory required for data: 2052161536
I0415 02:51:43.258885 14848 layer_factory.hpp:77] Creating layer pool2
I0415 02:51:43.258894 14848 net.cpp:100] Creating Layer pool2
I0415 02:51:43.258899 14848 net.cpp:434] pool2 <- conv2
I0415 02:51:43.258908 14848 net.cpp:408] pool2 -> pool2
I0415 02:51:43.258965 14848 net.cpp:150] Setting up pool2
I0415 02:51:43.258976 14848 net.cpp:157] Top shape: 1024 150 9 9 (12441600)
I0415 02:51:43.258982 14848 net.cpp:165] Memory required for data: 2101927936
I0415 02:51:43.258986 14848 layer_factory.hpp:77] Creating layer conv3
I0415 02:51:43.258997 14848 net.cpp:100] Creating Layer conv3
I0415 02:51:43.259023 14848 net.cpp:434] conv3 <- pool2
I0415 02:51:43.259033 14848 net.cpp:408] conv3 -> conv3
I0415 02:51:43.265419 14848 net.cpp:150] Setting up conv3
I0415 02:51:43.265436 14848 net.cpp:157] Top shape: 1024 250 6 6 (9216000)
I0415 02:51:43.265439 14848 net.cpp:165] Memory required for data: 2138791936
I0415 02:51:43.265450 14848 layer_factory.hpp:77] Creating layer conv3_relu
I0415 02:51:43.265460 14848 net.cpp:100] Creating Layer conv3_relu
I0415 02:51:43.265463 14848 net.cpp:434] conv3_relu <- conv3
I0415 02:51:43.265470 14848 net.cpp:395] conv3_relu -> conv3 (in-place)
I0415 02:51:43.271314 14848 net.cpp:150] Setting up conv3_relu
I0415 02:51:43.271333 14848 net.cpp:157] Top shape: 1024 250 6 6 (9216000)
I0415 02:51:43.271339 14848 net.cpp:165] Memory required for data: 2175655936
I0415 02:51:43.271343 14848 layer_factory.hpp:77] Creating layer pool3
I0415 02:51:43.271351 14848 net.cpp:100] Creating Layer pool3
I0415 02:51:43.271355 14848 net.cpp:434] pool3 <- conv3
I0415 02:51:43.271363 14848 net.cpp:408] pool3 -> pool3
I0415 02:51:43.271419 14848 net.cpp:150] Setting up pool3
I0415 02:51:43.271426 14848 net.cpp:157] Top shape: 1024 250 3 3 (2304000)
I0415 02:51:43.271430 14848 net.cpp:165] Memory required for data: 2184871936
I0415 02:51:43.271435 14848 layer_factory.hpp:77] Creating layer fc4_300
I0415 02:51:43.271446 14848 net.cpp:100] Creating Layer fc4_300
I0415 02:51:43.271451 14848 net.cpp:434] fc4_300 <- pool3
I0415 02:51:43.271456 14848 net.cpp:408] fc4_300 -> fc4_300
I0415 02:51:43.279192 14848 net.cpp:150] Setting up fc4_300
I0415 02:51:43.279209 14848 net.cpp:157] Top shape: 1024 300 (307200)
I0415 02:51:43.279216 14848 net.cpp:165] Memory required for data: 2186100736
I0415 02:51:43.279222 14848 layer_factory.hpp:77] Creating layer fc4_relu
I0415 02:51:43.279230 14848 net.cpp:100] Creating Layer fc4_relu
I0415 02:51:43.279235 14848 net.cpp:434] fc4_relu <- fc4_300
I0415 02:51:43.279240 14848 net.cpp:395] fc4_relu -> fc4_300 (in-place)
I0415 02:51:43.279448 14848 net.cpp:150] Setting up fc4_relu
I0415 02:51:43.279461 14848 net.cpp:157] Top shape: 1024 300 (307200)
I0415 02:51:43.279465 14848 net.cpp:165] Memory required for data: 2187329536
I0415 02:51:43.279469 14848 layer_factory.hpp:77] Creating layer drop4
I0415 02:51:43.279479 14848 net.cpp:100] Creating Layer drop4
I0415 02:51:43.279484 14848 net.cpp:434] drop4 <- fc4_300
I0415 02:51:43.279489 14848 net.cpp:395] drop4 -> fc4_300 (in-place)
I0415 02:51:43.279523 14848 net.cpp:150] Setting up drop4
I0415 02:51:43.279531 14848 net.cpp:157] Top shape: 1024 300 (307200)
I0415 02:51:43.279536 14848 net.cpp:165] Memory required for data: 2188558336
I0415 02:51:43.279539 14848 layer_factory.hpp:77] Creating layer fc5_67
I0415 02:51:43.279546 14848 net.cpp:100] Creating Layer fc5_67
I0415 02:51:43.279551 14848 net.cpp:434] fc5_67 <- fc4_300
I0415 02:51:43.279558 14848 net.cpp:408] fc5_67 -> fc5_classes
I0415 02:51:43.280808 14848 net.cpp:150] Setting up fc5_67
I0415 02:51:43.280825 14848 net.cpp:157] Top shape: 1024 67 (68608)
I0415 02:51:43.280829 14848 net.cpp:165] Memory required for data: 2188832768
I0415 02:51:43.280841 14848 layer_factory.hpp:77] Creating layer fc5_classes_fc5_67_0_split
I0415 02:51:43.280854 14848 net.cpp:100] Creating Layer fc5_classes_fc5_67_0_split
I0415 02:51:43.280859 14848 net.cpp:434] fc5_classes_fc5_67_0_split <- fc5_classes
I0415 02:51:43.280867 14848 net.cpp:408] fc5_classes_fc5_67_0_split -> fc5_classes_fc5_67_0_split_0
I0415 02:51:43.280877 14848 net.cpp:408] fc5_classes_fc5_67_0_split -> fc5_classes_fc5_67_0_split_1
I0415 02:51:43.280889 14848 net.cpp:408] fc5_classes_fc5_67_0_split -> fc5_classes_fc5_67_0_split_2
I0415 02:51:43.280959 14848 net.cpp:150] Setting up fc5_classes_fc5_67_0_split
I0415 02:51:43.280966 14848 net.cpp:157] Top shape: 1024 67 (68608)
I0415 02:51:43.280974 14848 net.cpp:157] Top shape: 1024 67 (68608)
I0415 02:51:43.280979 14848 net.cpp:157] Top shape: 1024 67 (68608)
I0415 02:51:43.280982 14848 net.cpp:165] Memory required for data: 2189656064
I0415 02:51:43.281002 14848 layer_factory.hpp:77] Creating layer softmax
I0415 02:51:43.281016 14848 net.cpp:100] Creating Layer softmax
I0415 02:51:43.281021 14848 net.cpp:434] softmax <- fc5_classes_fc5_67_0_split_0
I0415 02:51:43.281030 14848 net.cpp:408] softmax -> softmax
I0415 02:51:43.281327 14848 net.cpp:150] Setting up softmax
I0415 02:51:43.281338 14848 net.cpp:157] Top shape: 1024 67 (68608)
I0415 02:51:43.281342 14848 net.cpp:165] Memory required for data: 2189930496
I0415 02:51:43.281347 14848 layer_factory.hpp:77] Creating layer loss
I0415 02:51:43.281357 14848 net.cpp:100] Creating Layer loss
I0415 02:51:43.281361 14848 net.cpp:434] loss <- softmax
I0415 02:51:43.281366 14848 net.cpp:434] loss <- label_data_1_split_0
I0415 02:51:43.281374 14848 net.cpp:408] loss -> loss
…
