…
I0412 04:13:44.960398 16812 solver.cpp:93] Creating training net from train_net file: ./Prototxt/experiment_10/rtsd-r1/CoNorm/trial_2/train.prototxt
I0412 04:13:44.960752 16812 net.cpp:58] Initializing net from parameters: 
state {
  phase: TRAIN
  level: 0
  stage: ""
}
layer {
  name: "data"
  type: "Data"
  top: "data"
  top: "label"
  include {
    phase: TRAIN
  }
  transform_param {
    scale: 0.0039215689
    mirror: false
    crop_size: 48
    mean_value: 132
    mean_value: 132
    mean_value: 131
  }
  data_param {
    source: "../local_data/lmdb/rtsd-r1/CoNorm/train/lmdb"
    batch_size: 1024
    backend: LMDB
  }
}
layer {
  name: "conv1"
  type: "Convolution"
  bottom: "data"
  top: "conv1"
  convolution_param {
    num_output: 100
    pad: 0
    kernel_size: 7
    group: 1
    stride: 1
    weight_filler {
      type: "xavier"
    }
  }
}
layer {
  name: "conv1_relu"
  type: "ReLU"
  bottom: "conv1"
  top: "conv1"
}
layer {
  name: "pool1"
  type: "Pooling"
  bottom: "conv1"
  top: "pool1"
  pooling_param {
    pool: MAX
    kernel_size: 2
    stride: 2
  }
}
layer {
  name: "conv2"
  type: "Convolution"
  bottom: "pool1"
  top: "conv2"
  convolution_param {
    num_output: 150
    pad: 0
    kernel_size: 4
    group: 1
    stride: 1
    weight_filler {
      type: "xavier"
    }
  }
}
layer {
  name: "conv2_relu"
  type: "ReLU"
  bottom: "conv2"
  top: "conv2"
}
layer {
  name: "pool2"
  type: "Pooling"
  bottom: "conv2"
  top: "pool2"
  pooling_param {
    pool: MAX
    kernel_size: 2
    stride: 2
  }
}
layer {
  name: "conv3"
  type: "Convolution"
  bottom: "pool2"
  top: "conv3"
  convolution_param {
    num_output: 250
    pad: 0
    kernel_size: 4
    group: 1
    stride: 1
    weight_filler {
      type: "xavier"
    }
  }
}
layer {
  name: "conv3_relu"
  type: "ReLU"
  bottom: "conv3"
  top: "conv3"
}
layer {
  name: "pool3"
  type: "Pooling"
  bottom: "conv3"
  top: "pool3"
  pooling_param {
    pool: MAX
    kernel_size: 2
    stride: 2
  }
}
layer {
  name: "fc4_300"
  type: "InnerProduct"
  bottom: "pool3"
  top: "fc4_300"
  inner_product_param {
    num_output: 300
    weight_filler {
      type: "xavier"
    }
  }
}
layer {
  name: "fc4_relu"
  type: "ReLU"
  bottom: "fc4_300"
  top: "fc4_300"
}
layer {
  name: "drop4"
  type: "Dropout"
  bottom: "fc4_300"
  top: "fc4_300"
  dropout_param {
    dropout_ratio: 0.4
  }
}
layer {
  name: "fc5_67"
  type: "InnerProduct"
  bottom: "fc4_300"
  top: "fc5_classes"
  inner_product_param {
    num_output: 67
    weight_filler {
      type: "xavier"
    }
  }
}
layer {
  name: "softmax"
  type: "Softmax"
  bottom: "fc5_classes"
  top: "softmax"
}
layer {
  name: "loss"
  type: "MultinomialLogisticLoss"
  bottom: "softmax"
  bottom: "label"
  top: "loss"
}
layer {
  name: "accuracy_1"
  type: "Accuracy"
  bottom: "fc5_classes"
  bottom: "label"
  top: "accuracy_1"
  accuracy_param {
    top_k: 1
  }
}
layer {
  name: "accuracy_5"
  type: "Accuracy"
  bottom: "fc5_classes"
  bottom: "label"
  top: "accuracy_5"
  accuracy_param {
    top_k: 5
  }
}
I0412 04:13:44.960875 16812 layer_factory.hpp:77] Creating layer data
I0412 04:13:44.961952 16812 net.cpp:100] Creating Layer data
I0412 04:13:44.961967 16812 net.cpp:408] data -> data
I0412 04:13:44.961992 16812 net.cpp:408] data -> label
I0412 04:13:44.971845 16908 db_lmdb.cpp:35] Opened lmdb ../local_data/lmdb/rtsd-r1/CoNorm/train/lmdb
I0412 04:13:44.988864 16812 data_layer.cpp:41] output data size: 1024,3,48,48
I0412 04:13:45.036273 16812 net.cpp:150] Setting up data
I0412 04:13:45.036304 16812 net.cpp:157] Top shape: 1024 3 48 48 (7077888)
I0412 04:13:45.036309 16812 net.cpp:157] Top shape: 1024 (1024)
I0412 04:13:45.036312 16812 net.cpp:165] Memory required for data: 28315648
I0412 04:13:45.036324 16812 layer_factory.hpp:77] Creating layer label_data_1_split
I0412 04:13:45.036339 16812 net.cpp:100] Creating Layer label_data_1_split
I0412 04:13:45.036345 16812 net.cpp:434] label_data_1_split <- label
I0412 04:13:45.036361 16812 net.cpp:408] label_data_1_split -> label_data_1_split_0
I0412 04:13:45.036372 16812 net.cpp:408] label_data_1_split -> label_data_1_split_1
I0412 04:13:45.036378 16812 net.cpp:408] label_data_1_split -> label_data_1_split_2
I0412 04:13:45.036451 16812 net.cpp:150] Setting up label_data_1_split
I0412 04:13:45.036459 16812 net.cpp:157] Top shape: 1024 (1024)
I0412 04:13:45.036463 16812 net.cpp:157] Top shape: 1024 (1024)
I0412 04:13:45.036466 16812 net.cpp:157] Top shape: 1024 (1024)
I0412 04:13:45.036468 16812 net.cpp:165] Memory required for data: 28327936
I0412 04:13:45.036471 16812 layer_factory.hpp:77] Creating layer conv1
I0412 04:13:45.036489 16812 net.cpp:100] Creating Layer conv1
I0412 04:13:45.036494 16812 net.cpp:434] conv1 <- data
I0412 04:13:45.036501 16812 net.cpp:408] conv1 -> conv1
I0412 04:13:45.333915 16812 net.cpp:150] Setting up conv1
I0412 04:13:45.333942 16812 net.cpp:157] Top shape: 1024 100 42 42 (180633600)
I0412 04:13:45.333946 16812 net.cpp:165] Memory required for data: 750862336
I0412 04:13:45.333968 16812 layer_factory.hpp:77] Creating layer conv1_relu
I0412 04:13:45.333979 16812 net.cpp:100] Creating Layer conv1_relu
I0412 04:13:45.333984 16812 net.cpp:434] conv1_relu <- conv1
I0412 04:13:45.333991 16812 net.cpp:395] conv1_relu -> conv1 (in-place)
I0412 04:13:45.334185 16812 net.cpp:150] Setting up conv1_relu
I0412 04:13:45.334197 16812 net.cpp:157] Top shape: 1024 100 42 42 (180633600)
I0412 04:13:45.334200 16812 net.cpp:165] Memory required for data: 1473396736
I0412 04:13:45.334204 16812 layer_factory.hpp:77] Creating layer pool1
I0412 04:13:45.334213 16812 net.cpp:100] Creating Layer pool1
I0412 04:13:45.334218 16812 net.cpp:434] pool1 <- conv1
I0412 04:13:45.334223 16812 net.cpp:408] pool1 -> pool1
I0412 04:13:45.334275 16812 net.cpp:150] Setting up pool1
I0412 04:13:45.334283 16812 net.cpp:157] Top shape: 1024 100 21 21 (45158400)
I0412 04:13:45.334285 16812 net.cpp:165] Memory required for data: 1654030336
I0412 04:13:45.334288 16812 layer_factory.hpp:77] Creating layer conv2
I0412 04:13:45.334300 16812 net.cpp:100] Creating Layer conv2
I0412 04:13:45.334303 16812 net.cpp:434] conv2 <- pool1
I0412 04:13:45.334308 16812 net.cpp:408] conv2 -> conv2
I0412 04:13:45.347435 16812 net.cpp:150] Setting up conv2
I0412 04:13:45.347455 16812 net.cpp:157] Top shape: 1024 150 18 18 (49766400)
I0412 04:13:45.347460 16812 net.cpp:165] Memory required for data: 1853095936
I0412 04:13:45.347471 16812 layer_factory.hpp:77] Creating layer conv2_relu
I0412 04:13:45.347479 16812 net.cpp:100] Creating Layer conv2_relu
I0412 04:13:45.347482 16812 net.cpp:434] conv2_relu <- conv2
I0412 04:13:45.347487 16812 net.cpp:395] conv2_relu -> conv2 (in-place)
I0412 04:13:45.348505 16812 net.cpp:150] Setting up conv2_relu
I0412 04:13:45.348520 16812 net.cpp:157] Top shape: 1024 150 18 18 (49766400)
I0412 04:13:45.348523 16812 net.cpp:165] Memory required for data: 2052161536
I0412 04:13:45.348527 16812 layer_factory.hpp:77] Creating layer pool2
I0412 04:13:45.348534 16812 net.cpp:100] Creating Layer pool2
I0412 04:13:45.348537 16812 net.cpp:434] pool2 <- conv2
I0412 04:13:45.348543 16812 net.cpp:408] pool2 -> pool2
I0412 04:13:45.348598 16812 net.cpp:150] Setting up pool2
I0412 04:13:45.348605 16812 net.cpp:157] Top shape: 1024 150 9 9 (12441600)
I0412 04:13:45.348608 16812 net.cpp:165] Memory required for data: 2101927936
I0412 04:13:45.348611 16812 layer_factory.hpp:77] Creating layer conv3
I0412 04:13:45.348623 16812 net.cpp:100] Creating Layer conv3
I0412 04:13:45.348628 16812 net.cpp:434] conv3 <- pool2
I0412 04:13:45.348654 16812 net.cpp:408] conv3 -> conv3
I0412 04:13:45.354624 16812 net.cpp:150] Setting up conv3
I0412 04:13:45.354643 16812 net.cpp:157] Top shape: 1024 250 6 6 (9216000)
I0412 04:13:45.354646 16812 net.cpp:165] Memory required for data: 2138791936
I0412 04:13:45.354657 16812 layer_factory.hpp:77] Creating layer conv3_relu
I0412 04:13:45.354665 16812 net.cpp:100] Creating Layer conv3_relu
I0412 04:13:45.354671 16812 net.cpp:434] conv3_relu <- conv3
I0412 04:13:45.354676 16812 net.cpp:395] conv3_relu -> conv3 (in-place)
I0412 04:13:45.355722 16812 net.cpp:150] Setting up conv3_relu
I0412 04:13:45.355737 16812 net.cpp:157] Top shape: 1024 250 6 6 (9216000)
I0412 04:13:45.355741 16812 net.cpp:165] Memory required for data: 2175655936
I0412 04:13:45.355744 16812 layer_factory.hpp:77] Creating layer pool3
I0412 04:13:45.355751 16812 net.cpp:100] Creating Layer pool3
I0412 04:13:45.355756 16812 net.cpp:434] pool3 <- conv3
I0412 04:13:45.355761 16812 net.cpp:408] pool3 -> pool3
I0412 04:13:45.355808 16812 net.cpp:150] Setting up pool3
I0412 04:13:45.355815 16812 net.cpp:157] Top shape: 1024 250 3 3 (2304000)
I0412 04:13:45.355818 16812 net.cpp:165] Memory required for data: 2184871936
I0412 04:13:45.355821 16812 layer_factory.hpp:77] Creating layer fc4_300
I0412 04:13:45.355828 16812 net.cpp:100] Creating Layer fc4_300
I0412 04:13:45.355831 16812 net.cpp:434] fc4_300 <- pool3
I0412 04:13:45.355835 16812 net.cpp:408] fc4_300 -> fc4_300
I0412 04:13:45.361359 16812 net.cpp:150] Setting up fc4_300
I0412 04:13:45.361382 16812 net.cpp:157] Top shape: 1024 300 (307200)
I0412 04:13:45.361385 16812 net.cpp:165] Memory required for data: 2186100736
I0412 04:13:45.361394 16812 layer_factory.hpp:77] Creating layer fc4_relu
I0412 04:13:45.361402 16812 net.cpp:100] Creating Layer fc4_relu
I0412 04:13:45.361407 16812 net.cpp:434] fc4_relu <- fc4_300
I0412 04:13:45.361413 16812 net.cpp:395] fc4_relu -> fc4_300 (in-place)
I0412 04:13:45.361629 16812 net.cpp:150] Setting up fc4_relu
I0412 04:13:45.361639 16812 net.cpp:157] Top shape: 1024 300 (307200)
I0412 04:13:45.361641 16812 net.cpp:165] Memory required for data: 2187329536
I0412 04:13:45.361645 16812 layer_factory.hpp:77] Creating layer drop4
I0412 04:13:45.361652 16812 net.cpp:100] Creating Layer drop4
I0412 04:13:45.361655 16812 net.cpp:434] drop4 <- fc4_300
I0412 04:13:45.361660 16812 net.cpp:395] drop4 -> fc4_300 (in-place)
I0412 04:13:45.361692 16812 net.cpp:150] Setting up drop4
I0412 04:13:45.361699 16812 net.cpp:157] Top shape: 1024 300 (307200)
I0412 04:13:45.361702 16812 net.cpp:165] Memory required for data: 2188558336
I0412 04:13:45.361706 16812 layer_factory.hpp:77] Creating layer fc5_67
I0412 04:13:45.361712 16812 net.cpp:100] Creating Layer fc5_67
I0412 04:13:45.361716 16812 net.cpp:434] fc5_67 <- fc4_300
I0412 04:13:45.361721 16812 net.cpp:408] fc5_67 -> fc5_classes
I0412 04:13:45.364073 16812 net.cpp:150] Setting up fc5_67
I0412 04:13:45.364089 16812 net.cpp:157] Top shape: 1024 67 (68608)
I0412 04:13:45.364092 16812 net.cpp:165] Memory required for data: 2188832768
I0412 04:13:45.364105 16812 layer_factory.hpp:77] Creating layer fc5_classes_fc5_67_0_split
I0412 04:13:45.364114 16812 net.cpp:100] Creating Layer fc5_classes_fc5_67_0_split
I0412 04:13:45.364120 16812 net.cpp:434] fc5_classes_fc5_67_0_split <- fc5_classes
I0412 04:13:45.364125 16812 net.cpp:408] fc5_classes_fc5_67_0_split -> fc5_classes_fc5_67_0_split_0
I0412 04:13:45.364133 16812 net.cpp:408] fc5_classes_fc5_67_0_split -> fc5_classes_fc5_67_0_split_1
I0412 04:13:45.364141 16812 net.cpp:408] fc5_classes_fc5_67_0_split -> fc5_classes_fc5_67_0_split_2
I0412 04:13:45.364194 16812 net.cpp:150] Setting up fc5_classes_fc5_67_0_split
I0412 04:13:45.364202 16812 net.cpp:157] Top shape: 1024 67 (68608)
I0412 04:13:45.364204 16812 net.cpp:157] Top shape: 1024 67 (68608)
I0412 04:13:45.364207 16812 net.cpp:157] Top shape: 1024 67 (68608)
I0412 04:13:45.364210 16812 net.cpp:165] Memory required for data: 2189656064
I0412 04:13:45.364213 16812 layer_factory.hpp:77] Creating layer softmax
I0412 04:13:45.364245 16812 net.cpp:100] Creating Layer softmax
I0412 04:13:45.364249 16812 net.cpp:434] softmax <- fc5_classes_fc5_67_0_split_0
I0412 04:13:45.364255 16812 net.cpp:408] softmax -> softmax
I0412 04:13:45.364524 16812 net.cpp:150] Setting up softmax
I0412 04:13:45.364537 16812 net.cpp:157] Top shape: 1024 67 (68608)
I0412 04:13:45.364539 16812 net.cpp:165] Memory required for data: 2189930496
I0412 04:13:45.364542 16812 layer_factory.hpp:77] Creating layer loss
I0412 04:13:45.364549 16812 net.cpp:100] Creating Layer loss
I0412 04:13:45.364553 16812 net.cpp:434] loss <- softmax
I0412 04:13:45.364557 16812 net.cpp:434] loss <- label_data_1_split_0
I0412 04:13:45.364567 16812 net.cpp:408] loss -> loss
…
