…
I0414 03:19:12.523293  9356 solver.cpp:93] Creating training net from train_net file: ./Prototxt/experiment_10/rtsd-r1/CoNorm/trial_2/train.prototxt
I0414 03:19:12.523700  9356 net.cpp:58] Initializing net from parameters: 
state {
  phase: TRAIN
  level: 0
  stage: ""
}
layer {
  name: "data"
  type: "Data"
  top: "data"
  top: "label"
  include {
    phase: TRAIN
  }
  transform_param {
    scale: 0.0039215689
    mirror: false
    crop_size: 48
    mean_value: 132
    mean_value: 132
    mean_value: 131
  }
  data_param {
    source: "../local_data/lmdb/rtsd-r1/CoNorm/train/lmdb"
    batch_size: 1024
    backend: LMDB
  }
}
layer {
  name: "conv1"
  type: "Convolution"
  bottom: "data"
  top: "conv1"
  convolution_param {
    num_output: 100
    pad: 0
    kernel_size: 7
    group: 1
    stride: 1
    weight_filler {
      type: "xavier"
    }
  }
}
layer {
  name: "conv1_relu"
  type: "ReLU"
  bottom: "conv1"
  top: "conv1"
}
layer {
  name: "pool1"
  type: "Pooling"
  bottom: "conv1"
  top: "pool1"
  pooling_param {
    pool: MAX
    kernel_size: 2
    stride: 2
  }
}
layer {
  name: "conv2"
  type: "Convolution"
  bottom: "pool1"
  top: "conv2"
  convolution_param {
    num_output: 150
    pad: 0
    kernel_size: 4
    group: 1
    stride: 1
    weight_filler {
      type: "xavier"
    }
  }
}
layer {
  name: "conv2_relu"
  type: "ReLU"
  bottom: "conv2"
  top: "conv2"
}
layer {
  name: "pool2"
  type: "Pooling"
  bottom: "conv2"
  top: "pool2"
  pooling_param {
    pool: MAX
    kernel_size: 2
    stride: 2
  }
}
layer {
  name: "conv3"
  type: "Convolution"
  bottom: "pool2"
  top: "conv3"
  convolution_param {
    num_output: 250
    pad: 0
    kernel_size: 4
    group: 1
    stride: 1
    weight_filler {
      type: "xavier"
    }
  }
}
layer {
  name: "conv3_relu"
  type: "ReLU"
  bottom: "conv3"
  top: "conv3"
}
layer {
  name: "pool3"
  type: "Pooling"
  bottom: "conv3"
  top: "pool3"
  pooling_param {
    pool: MAX
    kernel_size: 2
    stride: 2
  }
}
layer {
  name: "fc4_300"
  type: "InnerProduct"
  bottom: "pool3"
  top: "fc4_300"
  inner_product_param {
    num_output: 300
    weight_filler {
      type: "xavier"
    }
  }
}
layer {
  name: "fc4_relu"
  type: "ReLU"
  bottom: "fc4_300"
  top: "fc4_300"
}
layer {
  name: "fc5_67"
  type: "InnerProduct"
  bottom: "fc4_300"
  top: "fc5_classes"
  inner_product_param {
    num_output: 67
    weight_filler {
      type: "xavier"
    }
  }
}
layer {
  name: "softmax"
  type: "Softmax"
  bottom: "fc5_classes"
  top: "softmax"
}
layer {
  name: "loss"
  type: "MultinomialLogisticLoss"
  bottom: "softmax"
  bottom: "label"
  top: "loss"
}
layer {
  name: "accuracy_1"
  type: "Accuracy"
  bottom: "fc5_classes"
  bottom: "label"
  top: "accuracy_1"
  accuracy_param {
    top_k: 1
  }
}
layer {
  name: "accuracy_5"
  type: "Accuracy"
  bottom: "fc5_classes"
  bottom: "label"
  top: "accuracy_5"
  accuracy_param {
    top_k: 5
  }
}
layer {
  name: "silence"
  type: "Silence"
  bottom: "accuracy_1"
  bottom: "accuracy_5"
}
I0414 03:19:12.523828  9356 layer_factory.hpp:77] Creating layer data
I0414 03:19:12.525059  9356 net.cpp:100] Creating Layer data
I0414 03:19:12.525089  9356 net.cpp:408] data -> data
I0414 03:19:12.525116  9356 net.cpp:408] data -> label
I0414 03:19:12.526140  9465 db_lmdb.cpp:35] Opened lmdb ../local_data/lmdb/rtsd-r1/CoNorm/train/lmdb
I0414 03:19:12.545508  9356 data_layer.cpp:41] output data size: 1024,3,48,48
I0414 03:19:12.600498  9356 net.cpp:150] Setting up data
I0414 03:19:12.600548  9356 net.cpp:157] Top shape: 1024 3 48 48 (7077888)
I0414 03:19:12.600554  9356 net.cpp:157] Top shape: 1024 (1024)
I0414 03:19:12.600558  9356 net.cpp:165] Memory required for data: 28315648
I0414 03:19:12.600569  9356 layer_factory.hpp:77] Creating layer label_data_1_split
I0414 03:19:12.600582  9356 net.cpp:100] Creating Layer label_data_1_split
I0414 03:19:12.600589  9356 net.cpp:434] label_data_1_split <- label
I0414 03:19:12.600601  9356 net.cpp:408] label_data_1_split -> label_data_1_split_0
I0414 03:19:12.600613  9356 net.cpp:408] label_data_1_split -> label_data_1_split_1
I0414 03:19:12.600620  9356 net.cpp:408] label_data_1_split -> label_data_1_split_2
I0414 03:19:12.600682  9356 net.cpp:150] Setting up label_data_1_split
I0414 03:19:12.600689  9356 net.cpp:157] Top shape: 1024 (1024)
I0414 03:19:12.600693  9356 net.cpp:157] Top shape: 1024 (1024)
I0414 03:19:12.600697  9356 net.cpp:157] Top shape: 1024 (1024)
I0414 03:19:12.600699  9356 net.cpp:165] Memory required for data: 28327936
I0414 03:19:12.600703  9356 layer_factory.hpp:77] Creating layer conv1
I0414 03:19:12.600718  9356 net.cpp:100] Creating Layer conv1
I0414 03:19:12.600723  9356 net.cpp:434] conv1 <- data
I0414 03:19:12.600729  9356 net.cpp:408] conv1 -> conv1
I0414 03:19:12.940019  9356 net.cpp:150] Setting up conv1
I0414 03:19:12.940050  9356 net.cpp:157] Top shape: 1024 100 42 42 (180633600)
I0414 03:19:12.940054  9356 net.cpp:165] Memory required for data: 750862336
I0414 03:19:12.940079  9356 layer_factory.hpp:77] Creating layer conv1_relu
I0414 03:19:12.940091  9356 net.cpp:100] Creating Layer conv1_relu
I0414 03:19:12.940095  9356 net.cpp:434] conv1_relu <- conv1
I0414 03:19:12.940101  9356 net.cpp:395] conv1_relu -> conv1 (in-place)
I0414 03:19:12.940302  9356 net.cpp:150] Setting up conv1_relu
I0414 03:19:12.940315  9356 net.cpp:157] Top shape: 1024 100 42 42 (180633600)
I0414 03:19:12.940318  9356 net.cpp:165] Memory required for data: 1473396736
I0414 03:19:12.940321  9356 layer_factory.hpp:77] Creating layer pool1
I0414 03:19:12.940330  9356 net.cpp:100] Creating Layer pool1
I0414 03:19:12.940335  9356 net.cpp:434] pool1 <- conv1
I0414 03:19:12.940340  9356 net.cpp:408] pool1 -> pool1
I0414 03:19:12.940392  9356 net.cpp:150] Setting up pool1
I0414 03:19:12.940402  9356 net.cpp:157] Top shape: 1024 100 21 21 (45158400)
I0414 03:19:12.940405  9356 net.cpp:165] Memory required for data: 1654030336
I0414 03:19:12.940408  9356 layer_factory.hpp:77] Creating layer conv2
I0414 03:19:12.940418  9356 net.cpp:100] Creating Layer conv2
I0414 03:19:12.940423  9356 net.cpp:434] conv2 <- pool1
I0414 03:19:12.940426  9356 net.cpp:408] conv2 -> conv2
I0414 03:19:12.949343  9356 net.cpp:150] Setting up conv2
I0414 03:19:12.949374  9356 net.cpp:157] Top shape: 1024 150 18 18 (49766400)
I0414 03:19:12.949379  9356 net.cpp:165] Memory required for data: 1853095936
I0414 03:19:12.949396  9356 layer_factory.hpp:77] Creating layer conv2_relu
I0414 03:19:12.949412  9356 net.cpp:100] Creating Layer conv2_relu
I0414 03:19:12.949419  9356 net.cpp:434] conv2_relu <- conv2
I0414 03:19:12.949427  9356 net.cpp:395] conv2_relu -> conv2 (in-place)
I0414 03:19:12.951243  9356 net.cpp:150] Setting up conv2_relu
I0414 03:19:12.951266  9356 net.cpp:157] Top shape: 1024 150 18 18 (49766400)
I0414 03:19:12.951268  9356 net.cpp:165] Memory required for data: 2052161536
I0414 03:19:12.951272  9356 layer_factory.hpp:77] Creating layer pool2
I0414 03:19:12.951283  9356 net.cpp:100] Creating Layer pool2
I0414 03:19:12.951289  9356 net.cpp:434] pool2 <- conv2
I0414 03:19:12.951297  9356 net.cpp:408] pool2 -> pool2
I0414 03:19:12.951361  9356 net.cpp:150] Setting up pool2
I0414 03:19:12.951371  9356 net.cpp:157] Top shape: 1024 150 9 9 (12441600)
I0414 03:19:12.951376  9356 net.cpp:165] Memory required for data: 2101927936
I0414 03:19:12.951380  9356 layer_factory.hpp:77] Creating layer conv3
I0414 03:19:12.951395  9356 net.cpp:100] Creating Layer conv3
I0414 03:19:12.951398  9356 net.cpp:434] conv3 <- pool2
I0414 03:19:12.951406  9356 net.cpp:408] conv3 -> conv3
I0414 03:19:12.959497  9356 net.cpp:150] Setting up conv3
I0414 03:19:12.959525  9356 net.cpp:157] Top shape: 1024 250 6 6 (9216000)
I0414 03:19:12.959529  9356 net.cpp:165] Memory required for data: 2138791936
I0414 03:19:12.959545  9356 layer_factory.hpp:77] Creating layer conv3_relu
I0414 03:19:12.959554  9356 net.cpp:100] Creating Layer conv3_relu
I0414 03:19:12.959558  9356 net.cpp:434] conv3_relu <- conv3
I0414 03:19:12.959564  9356 net.cpp:395] conv3_relu -> conv3 (in-place)
I0414 03:19:12.960707  9356 net.cpp:150] Setting up conv3_relu
I0414 03:19:12.960726  9356 net.cpp:157] Top shape: 1024 250 6 6 (9216000)
I0414 03:19:12.960731  9356 net.cpp:165] Memory required for data: 2175655936
I0414 03:19:12.960734  9356 layer_factory.hpp:77] Creating layer pool3
I0414 03:19:12.960741  9356 net.cpp:100] Creating Layer pool3
I0414 03:19:12.960747  9356 net.cpp:434] pool3 <- conv3
I0414 03:19:12.960757  9356 net.cpp:408] pool3 -> pool3
I0414 03:19:12.960810  9356 net.cpp:150] Setting up pool3
I0414 03:19:12.960819  9356 net.cpp:157] Top shape: 1024 250 3 3 (2304000)
I0414 03:19:12.960822  9356 net.cpp:165] Memory required for data: 2184871936
I0414 03:19:12.960825  9356 layer_factory.hpp:77] Creating layer fc4_300
I0414 03:19:12.960834  9356 net.cpp:100] Creating Layer fc4_300
I0414 03:19:12.960837  9356 net.cpp:434] fc4_300 <- pool3
I0414 03:19:12.960842  9356 net.cpp:408] fc4_300 -> fc4_300
I0414 03:19:12.967171  9356 net.cpp:150] Setting up fc4_300
I0414 03:19:12.967190  9356 net.cpp:157] Top shape: 1024 300 (307200)
I0414 03:19:12.967195  9356 net.cpp:165] Memory required for data: 2186100736
I0414 03:19:12.967201  9356 layer_factory.hpp:77] Creating layer fc4_relu
I0414 03:19:12.967211  9356 net.cpp:100] Creating Layer fc4_relu
I0414 03:19:12.967213  9356 net.cpp:434] fc4_relu <- fc4_300
I0414 03:19:12.967219  9356 net.cpp:395] fc4_relu -> fc4_300 (in-place)
I0414 03:19:12.967419  9356 net.cpp:150] Setting up fc4_relu
I0414 03:19:12.967432  9356 net.cpp:157] Top shape: 1024 300 (307200)
I0414 03:19:12.967435  9356 net.cpp:165] Memory required for data: 2187329536
I0414 03:19:12.967439  9356 layer_factory.hpp:77] Creating layer fc5_67
I0414 03:19:12.967447  9356 net.cpp:100] Creating Layer fc5_67
I0414 03:19:12.967453  9356 net.cpp:434] fc5_67 <- fc4_300
I0414 03:19:12.967458  9356 net.cpp:408] fc5_67 -> fc5_classes
I0414 03:19:12.969472  9356 net.cpp:150] Setting up fc5_67
I0414 03:19:12.969488  9356 net.cpp:157] Top shape: 1024 67 (68608)
I0414 03:19:12.969492  9356 net.cpp:165] Memory required for data: 2187603968
I0414 03:19:12.969504  9356 layer_factory.hpp:77] Creating layer fc5_classes_fc5_67_0_split
I0414 03:19:12.969512  9356 net.cpp:100] Creating Layer fc5_classes_fc5_67_0_split
I0414 03:19:12.969517  9356 net.cpp:434] fc5_classes_fc5_67_0_split <- fc5_classes
I0414 03:19:12.969523  9356 net.cpp:408] fc5_classes_fc5_67_0_split -> fc5_classes_fc5_67_0_split_0
I0414 03:19:12.969532  9356 net.cpp:408] fc5_classes_fc5_67_0_split -> fc5_classes_fc5_67_0_split_1
I0414 03:19:12.969540  9356 net.cpp:408] fc5_classes_fc5_67_0_split -> fc5_classes_fc5_67_0_split_2
I0414 03:19:12.969597  9356 net.cpp:150] Setting up fc5_classes_fc5_67_0_split
I0414 03:19:12.969607  9356 net.cpp:157] Top shape: 1024 67 (68608)
I0414 03:19:12.969612  9356 net.cpp:157] Top shape: 1024 67 (68608)
I0414 03:19:12.969615  9356 net.cpp:157] Top shape: 1024 67 (68608)
I0414 03:19:12.969619  9356 net.cpp:165] Memory required for data: 2188427264
I0414 03:19:12.969621  9356 layer_factory.hpp:77] Creating layer softmax
I0414 03:19:12.969627  9356 net.cpp:100] Creating Layer softmax
I0414 03:19:12.969630  9356 net.cpp:434] softmax <- fc5_classes_fc5_67_0_split_0
I0414 03:19:12.969635  9356 net.cpp:408] softmax -> softmax
I0414 03:19:12.969907  9356 net.cpp:150] Setting up softmax
I0414 03:19:12.969920  9356 net.cpp:157] Top shape: 1024 67 (68608)
I0414 03:19:12.969924  9356 net.cpp:165] Memory required for data: 2188701696
I0414 03:19:12.969928  9356 layer_factory.hpp:77] Creating layer loss
I0414 03:19:12.969944  9356 net.cpp:100] Creating Layer loss
I0414 03:19:12.969964  9356 net.cpp:434] loss <- softmax
I0414 03:19:12.969969  9356 net.cpp:434] loss <- label_data_1_split_0
I0414 03:19:12.969975  9356 net.cpp:408] loss -> loss
…
