…
I0402 14:33:08.127987 13723 net.cpp:322] The NetState phase (0) differed from the phase (1) specified by a rule in layer accuracy_5
I0402 14:33:08.128078 13723 net.cpp:58] Initializing net from parameters: 
state {
  phase: TRAIN
  level: 0
  stage: ""
}
layer {
  name: "data"
  type: "Data"
  top: "data"
  top: "label"
  include {
    phase: TRAIN
  }
  transform_param {
    mirror: false
    crop_size: 48
    mean_value: 118
    mean_value: 112
    mean_value: 112
  }
  data_param {
    source: "../local_data/lmdb/rtsd-r3/imajust/train/lmdb"
    batch_size: 1024
    backend: LMDB
  }
}
layer {
  name: "conv1"
  type: "Convolution"
  bottom: "data"
  top: "conv1"
  convolution_param {
    num_output: 100
    pad: 0
    kernel_size: 7
    group: 1
    stride: 1
    weight_filler {
      type: "xavier"
    }
  }
}
layer {
  name: "conv1_relu"
  type: "ReLU"
  bottom: "conv1"
  top: "conv1"
}
layer {
  name: "pool1"
  type: "Pooling"
  bottom: "conv1"
  top: "pool1"
  pooling_param {
    pool: MAX
    kernel_size: 2
    stride: 2
  }
}
layer {
  name: "conv2"
  type: "Convolution"
  bottom: "pool1"
  top: "conv2"
  convolution_param {
    num_output: 150
    pad: 0
    kernel_size: 4
    group: 1
    stride: 1
    weight_filler {
      type: "xavier"
    }
  }
}
layer {
  name: "conv2_relu"
  type: "ReLU"
  bottom: "conv2"
  top: "conv2"
}
layer {
  name: "pool2"
  type: "Pooling"
  bottom: "conv2"
  top: "pool2"
  pooling_param {
    pool: MAX
    kernel_size: 2
    stride: 2
  }
}
layer {
  name: "conv3"
  type: "Convolution"
  bottom: "pool2"
  top: "conv3"
  convolution_param {
    num_output: 250
    pad: 0
    kernel_size: 4
    group: 1
    stride: 1
    weight_filler {
      type: "xavier"
    }
  }
}
layer {
  name: "conv3_relu"
  type: "ReLU"
  bottom: "conv3"
  top: "conv3"
}
layer {
  name: "pool3"
  type: "Pooling"
  bottom: "conv3"
  top: "pool3"
  pooling_param {
    pool: MAX
    kernel_size: 2
    stride: 2
  }
}
layer {
  name: "fc4_300"
  type: "InnerProduct"
  bottom: "pool3"
  top: "fc4_300"
  inner_product_param {
    num_output: 300
    weight_filler {
      type: "xavier"
    }
  }
}
layer {
  name: "fc4_relu"
  type: "ReLU"
  bottom: "fc4_300"
  top: "fc4_300"
}
layer {
  name: "drop4"
  type: "Dropout"
  bottom: "fc4_300"
  top: "fc4_300"
  dropout_param {
    dropout_ratio: 0.4
  }
}
layer {
  name: "fc5_106"
  type: "InnerProduct"
  bottom: "fc4_300"
  top: "fc5_classes"
  inner_product_param {
    num_output: 106
    weight_filler {
      type: "xavier"
    }
  }
}
layer {
  name: "loss"
  type: "SoftmaxWithLoss"
  bottom: "fc5_classes"
  bottom: "label"
  top: "loss"
}
I0402 14:33:08.128154 13723 layer_factory.hpp:77] Creating layer data
I0402 14:33:08.129232 13723 net.cpp:100] Creating Layer data
I0402 14:33:08.129247 13723 net.cpp:408] data -> data
I0402 14:33:08.129276 13723 net.cpp:408] data -> label
I0402 14:33:08.130537 13793 db_lmdb.cpp:35] Opened lmdb ../local_data/lmdb/rtsd-r3/imajust/train/lmdb
I0402 14:33:08.146986 13723 data_layer.cpp:41] output data size: 1024,3,48,48
I0402 14:33:08.190763 13723 net.cpp:150] Setting up data
I0402 14:33:08.190795 13723 net.cpp:157] Top shape: 1024 3 48 48 (7077888)
I0402 14:33:08.190801 13723 net.cpp:157] Top shape: 1024 (1024)
I0402 14:33:08.190827 13723 net.cpp:165] Memory required for data: 28315648
I0402 14:33:08.190837 13723 layer_factory.hpp:77] Creating layer conv1
I0402 14:33:08.190860 13723 net.cpp:100] Creating Layer conv1
I0402 14:33:08.190870 13723 net.cpp:434] conv1 <- data
I0402 14:33:08.190882 13723 net.cpp:408] conv1 -> conv1
I0402 14:33:08.457569 13723 net.cpp:150] Setting up conv1
I0402 14:33:08.457602 13723 net.cpp:157] Top shape: 1024 100 42 42 (180633600)
I0402 14:33:08.457605 13723 net.cpp:165] Memory required for data: 750850048
I0402 14:33:08.457628 13723 layer_factory.hpp:77] Creating layer conv1_relu
I0402 14:33:08.457639 13723 net.cpp:100] Creating Layer conv1_relu
I0402 14:33:08.457643 13723 net.cpp:434] conv1_relu <- conv1
I0402 14:33:08.457649 13723 net.cpp:395] conv1_relu -> conv1 (in-place)
I0402 14:33:08.457840 13723 net.cpp:150] Setting up conv1_relu
I0402 14:33:08.457854 13723 net.cpp:157] Top shape: 1024 100 42 42 (180633600)
I0402 14:33:08.457856 13723 net.cpp:165] Memory required for data: 1473384448
I0402 14:33:08.457859 13723 layer_factory.hpp:77] Creating layer pool1
I0402 14:33:08.457867 13723 net.cpp:100] Creating Layer pool1
I0402 14:33:08.457870 13723 net.cpp:434] pool1 <- conv1
I0402 14:33:08.457875 13723 net.cpp:408] pool1 -> pool1
I0402 14:33:08.457929 13723 net.cpp:150] Setting up pool1
I0402 14:33:08.457938 13723 net.cpp:157] Top shape: 1024 100 21 21 (45158400)
I0402 14:33:08.457940 13723 net.cpp:165] Memory required for data: 1654018048
I0402 14:33:08.457944 13723 layer_factory.hpp:77] Creating layer conv2
I0402 14:33:08.457954 13723 net.cpp:100] Creating Layer conv2
I0402 14:33:08.457957 13723 net.cpp:434] conv2 <- pool1
I0402 14:33:08.457962 13723 net.cpp:408] conv2 -> conv2
I0402 14:33:08.462270 13723 net.cpp:150] Setting up conv2
I0402 14:33:08.462287 13723 net.cpp:157] Top shape: 1024 150 18 18 (49766400)
I0402 14:33:08.462291 13723 net.cpp:165] Memory required for data: 1853083648
I0402 14:33:08.462301 13723 layer_factory.hpp:77] Creating layer conv2_relu
I0402 14:33:08.462306 13723 net.cpp:100] Creating Layer conv2_relu
I0402 14:33:08.462311 13723 net.cpp:434] conv2_relu <- conv2
I0402 14:33:08.462319 13723 net.cpp:395] conv2_relu -> conv2 (in-place)
I0402 14:33:08.463063 13723 net.cpp:150] Setting up conv2_relu
I0402 14:33:08.463083 13723 net.cpp:157] Top shape: 1024 150 18 18 (49766400)
I0402 14:33:08.463088 13723 net.cpp:165] Memory required for data: 2052149248
I0402 14:33:08.463093 13723 layer_factory.hpp:77] Creating layer pool2
I0402 14:33:08.463105 13723 net.cpp:100] Creating Layer pool2
I0402 14:33:08.463111 13723 net.cpp:434] pool2 <- conv2
I0402 14:33:08.463120 13723 net.cpp:408] pool2 -> pool2
I0402 14:33:08.463186 13723 net.cpp:150] Setting up pool2
I0402 14:33:08.463198 13723 net.cpp:157] Top shape: 1024 150 9 9 (12441600)
I0402 14:33:08.463203 13723 net.cpp:165] Memory required for data: 2101915648
I0402 14:33:08.463208 13723 layer_factory.hpp:77] Creating layer conv3
I0402 14:33:08.463222 13723 net.cpp:100] Creating Layer conv3
I0402 14:33:08.463238 13723 net.cpp:434] conv3 <- pool2
I0402 14:33:08.463248 13723 net.cpp:408] conv3 -> conv3
I0402 14:33:08.468757 13723 net.cpp:150] Setting up conv3
I0402 14:33:08.468776 13723 net.cpp:157] Top shape: 1024 250 6 6 (9216000)
I0402 14:33:08.468782 13723 net.cpp:165] Memory required for data: 2138779648
I0402 14:33:08.468797 13723 layer_factory.hpp:77] Creating layer conv3_relu
I0402 14:33:08.468814 13723 net.cpp:100] Creating Layer conv3_relu
I0402 14:33:08.468830 13723 net.cpp:434] conv3_relu <- conv3
I0402 14:33:08.468842 13723 net.cpp:395] conv3_relu -> conv3 (in-place)
I0402 14:33:08.469609 13723 net.cpp:150] Setting up conv3_relu
I0402 14:33:08.469626 13723 net.cpp:157] Top shape: 1024 250 6 6 (9216000)
I0402 14:33:08.469632 13723 net.cpp:165] Memory required for data: 2175643648
I0402 14:33:08.469638 13723 layer_factory.hpp:77] Creating layer pool3
I0402 14:33:08.469647 13723 net.cpp:100] Creating Layer pool3
I0402 14:33:08.469663 13723 net.cpp:434] pool3 <- conv3
I0402 14:33:08.469676 13723 net.cpp:408] pool3 -> pool3
I0402 14:33:08.469754 13723 net.cpp:150] Setting up pool3
I0402 14:33:08.469766 13723 net.cpp:157] Top shape: 1024 250 3 3 (2304000)
I0402 14:33:08.469771 13723 net.cpp:165] Memory required for data: 2184859648
I0402 14:33:08.469776 13723 layer_factory.hpp:77] Creating layer fc4_300
I0402 14:33:08.469789 13723 net.cpp:100] Creating Layer fc4_300
I0402 14:33:08.469799 13723 net.cpp:434] fc4_300 <- pool3
I0402 14:33:08.469808 13723 net.cpp:408] fc4_300 -> fc4_300
I0402 14:33:08.475169 13723 net.cpp:150] Setting up fc4_300
I0402 14:33:08.475189 13723 net.cpp:157] Top shape: 1024 300 (307200)
I0402 14:33:08.475195 13723 net.cpp:165] Memory required for data: 2186088448
I0402 14:33:08.475206 13723 layer_factory.hpp:77] Creating layer fc4_relu
I0402 14:33:08.475239 13723 net.cpp:100] Creating Layer fc4_relu
I0402 14:33:08.475251 13723 net.cpp:434] fc4_relu <- fc4_300
I0402 14:33:08.475260 13723 net.cpp:395] fc4_relu -> fc4_300 (in-place)
I0402 14:33:08.475463 13723 net.cpp:150] Setting up fc4_relu
I0402 14:33:08.475478 13723 net.cpp:157] Top shape: 1024 300 (307200)
I0402 14:33:08.475483 13723 net.cpp:165] Memory required for data: 2187317248
I0402 14:33:08.475488 13723 layer_factory.hpp:77] Creating layer drop4
I0402 14:33:08.475498 13723 net.cpp:100] Creating Layer drop4
I0402 14:33:08.475507 13723 net.cpp:434] drop4 <- fc4_300
I0402 14:33:08.475517 13723 net.cpp:395] drop4 -> fc4_300 (in-place)
I0402 14:33:08.475558 13723 net.cpp:150] Setting up drop4
I0402 14:33:08.475569 13723 net.cpp:157] Top shape: 1024 300 (307200)
I0402 14:33:08.475574 13723 net.cpp:165] Memory required for data: 2188546048
I0402 14:33:08.475579 13723 layer_factory.hpp:77] Creating layer fc5_106
I0402 14:33:08.475594 13723 net.cpp:100] Creating Layer fc5_106
I0402 14:33:08.475600 13723 net.cpp:434] fc5_106 <- fc4_300
I0402 14:33:08.475608 13723 net.cpp:408] fc5_106 -> fc5_classes
I0402 14:33:08.476883 13723 net.cpp:150] Setting up fc5_106
I0402 14:33:08.476900 13723 net.cpp:157] Top shape: 1024 106 (108544)
I0402 14:33:08.476907 13723 net.cpp:165] Memory required for data: 2188980224
I0402 14:33:08.476922 13723 layer_factory.hpp:77] Creating layer loss
I0402 14:33:08.476935 13723 net.cpp:100] Creating Layer loss
I0402 14:33:08.476943 13723 net.cpp:434] loss <- fc5_classes
I0402 14:33:08.476951 13723 net.cpp:434] loss <- label
I0402 14:33:08.476961 13723 net.cpp:408] loss -> loss
I0402 14:33:08.476981 13723 layer_factory.hpp:77] Creating layer loss
…
I0402 14:33:08.477725 13723 solver.cpp:193] Creating test net (#0) specified by test_net file: ./Prototxt/rtsd-r3/imajust/test.prototxt
I0402 14:33:08.477869 13723 net.cpp:58] Initializing net from parameters: 
state {
  phase: TEST
}
layer {
  name: "data"
  type: "Data"
  top: "data"
  top: "label"
  include {
    phase: TEST
  }
  transform_param {
    mirror: false
    crop_size: 48
    mean_value: 113
    mean_value: 109
    mean_value: 110
  }
  data_param {
    source: "../local_data/lmdb/rtsd-r3/imajust/test/lmdb"
    batch_size: 1024
    backend: LMDB
  }
}
layer {
  name: "conv1"
  type: "Convolution"
  bottom: "data"
  top: "conv1"
  convolution_param {
    num_output: 100
    pad: 0
    kernel_size: 7
    group: 1
    stride: 1
    weight_filler {
      type: "xavier"
    }
  }
}
layer {
  name: "conv1_relu"
  type: "ReLU"
  bottom: "conv1"
  top: "conv1"
}
layer {
  name: "pool1"
  type: "Pooling"
  bottom: "conv1"
  top: "pool1"
  pooling_param {
    pool: MAX
    kernel_size: 2
    stride: 2
  }
}
layer {
  name: "conv2"
  type: "Convolution"
  bottom: "pool1"
  top: "conv2"
  convolution_param {
    num_output: 150
    pad: 0
    kernel_size: 4
    group: 1
    stride: 1
    weight_filler {
      type: "xavier"
    }
  }
}
layer {
  name: "conv2_relu"
  type: "ReLU"
  bottom: "conv2"
  top: "conv2"
}
layer {
  name: "pool2"
  type: "Pooling"
  bottom: "conv2"
  top: "pool2"
  pooling_param {
    pool: MAX
    kernel_size: 2
    stride: 2
  }
}
layer {
  name: "conv3"
  type: "Convolution"
  bottom: "pool2"
  top: "conv3"
  convolution_param {
    num_output: 250
    pad: 0
    kernel_size: 4
    group: 1
    stride: 1
    weight_filler {
      type: "xavier"
    }
  }
}
layer {
  name: "conv3_relu"
  type: "ReLU"
  bottom: "conv3"
  top: "conv3"
}
layer {
  name: "pool3"
  type: "Pooling"
  bottom: "conv3"
  top: "pool3"
  pooling_param {
    pool: MAX
    kernel_size: 2
    stride: 2
  }
}
layer {
  name: "fc4_300"
  type: "InnerProduct"
  bottom: "pool3"
  top: "fc4_300"
  inner_product_param {
    num_output: 300
    weight_filler {
      type: "xavier"
    }
  }
}
layer {
  name: "fc4_relu"
  type: "ReLU"
  bottom: "fc4_300"
  top: "fc4_300"
}
layer {
  name: "drop4"
  type: "Dropout"
  bottom: "fc4_300"
  top: "fc4_300"
  dropout_param {
    dropout_ratio: 0.4
  }
}
layer {
  name: "fc5_106"
  type: "InnerProduct"
  bottom: "fc4_300"
  top: "fc5_classes"
  inner_product_param {
    num_output: 106
    weight_filler {
      type: "xavier"
    }
  }
}
layer {
  name: "loss"
  type: "SoftmaxWithLoss"
  bottom: "fc5_classes"
  bottom: "label"
  top: "loss"
}
layer {
  name: "accuracy_1"
  type: "Accuracy"
  bottom: "fc5_classes"
  bottom: "label"
  top: "accuracy_1"
  include {
    phase: TEST
  }
  accuracy_param {
    top_k: 1
  }
}
layer {
  name: "accuracy_5"
  type: "Accuracy"
  bottom: "fc5_classes"
  bottom: "label"
  top: "accuracy_5"
  include {
    phase: TEST
  }
  accuracy_param {
    top_k: 5
  }
}
I0402 14:33:08.478005 13723 layer_factory.hpp:77] Creating layer data
I0402 14:33:08.478708 13723 net.cpp:100] Creating Layer data
I0402 14:33:08.478737 13723 net.cpp:408] data -> data
I0402 14:33:08.478755 13723 net.cpp:408] data -> label
I0402 14:33:08.480733 13801 db_lmdb.cpp:35] Opened lmdb ../local_data/lmdb/rtsd-r3/imajust/test/lmdb
I0402 14:33:08.480904 13723 data_layer.cpp:41] output data size: 1024,3,48,48
I0402 14:33:08.527822 13723 net.cpp:150] Setting up data
I0402 14:33:08.527853 13723 net.cpp:157] Top shape: 1024 3 48 48 (7077888)
I0402 14:33:08.527860 13723 net.cpp:157] Top shape: 1024 (1024)
I0402 14:33:08.527865 13723 net.cpp:165] Memory required for data: 28315648
I0402 14:33:08.527873 13723 layer_factory.hpp:77] Creating layer label_data_1_split
I0402 14:33:08.527894 13723 net.cpp:100] Creating Layer label_data_1_split
I0402 14:33:08.527902 13723 net.cpp:434] label_data_1_split <- label
I0402 14:33:08.527915 13723 net.cpp:408] label_data_1_split -> label_data_1_split_0
I0402 14:33:08.527933 13723 net.cpp:408] label_data_1_split -> label_data_1_split_1
I0402 14:33:08.527945 13723 net.cpp:408] label_data_1_split -> label_data_1_split_2
I0402 14:33:08.528082 13723 net.cpp:150] Setting up label_data_1_split
I0402 14:33:08.528107 13723 net.cpp:157] Top shape: 1024 (1024)
I0402 14:33:08.528115 13723 net.cpp:157] Top shape: 1024 (1024)
I0402 14:33:08.528121 13723 net.cpp:157] Top shape: 1024 (1024)
I0402 14:33:08.528128 13723 net.cpp:165] Memory required for data: 28327936
I0402 14:33:08.528134 13723 layer_factory.hpp:77] Creating layer conv1
I0402 14:33:08.528151 13723 net.cpp:100] Creating Layer conv1
I0402 14:33:08.528157 13723 net.cpp:434] conv1 <- data
I0402 14:33:08.528169 13723 net.cpp:408] conv1 -> conv1
I0402 14:33:08.530325 13723 net.cpp:150] Setting up conv1
I0402 14:33:08.530345 13723 net.cpp:157] Top shape: 1024 100 42 42 (180633600)
I0402 14:33:08.530352 13723 net.cpp:165] Memory required for data: 750862336
I0402 14:33:08.530369 13723 layer_factory.hpp:77] Creating layer conv1_relu
I0402 14:33:08.530381 13723 net.cpp:100] Creating Layer conv1_relu
I0402 14:33:08.530390 13723 net.cpp:434] conv1_relu <- conv1
I0402 14:33:08.530405 13723 net.cpp:395] conv1_relu -> conv1 (in-place)
I0402 14:33:08.530614 13723 net.cpp:150] Setting up conv1_relu
I0402 14:33:08.530628 13723 net.cpp:157] Top shape: 1024 100 42 42 (180633600)
I0402 14:33:08.530634 13723 net.cpp:165] Memory required for data: 1473396736
I0402 14:33:08.530639 13723 layer_factory.hpp:77] Creating layer pool1
I0402 14:33:08.530658 13723 net.cpp:100] Creating Layer pool1
I0402 14:33:08.530663 13723 net.cpp:434] pool1 <- conv1
I0402 14:33:08.530673 13723 net.cpp:408] pool1 -> pool1
I0402 14:33:08.530732 13723 net.cpp:150] Setting up pool1
I0402 14:33:08.530745 13723 net.cpp:157] Top shape: 1024 100 21 21 (45158400)
I0402 14:33:08.530750 13723 net.cpp:165] Memory required for data: 1654030336
I0402 14:33:08.530755 13723 layer_factory.hpp:77] Creating layer conv2
I0402 14:33:08.530768 13723 net.cpp:100] Creating Layer conv2
I0402 14:33:08.530774 13723 net.cpp:434] conv2 <- pool1
I0402 14:33:08.530784 13723 net.cpp:408] conv2 -> conv2
I0402 14:33:08.536140 13723 net.cpp:150] Setting up conv2
I0402 14:33:08.536159 13723 net.cpp:157] Top shape: 1024 150 18 18 (49766400)
I0402 14:33:08.536165 13723 net.cpp:165] Memory required for data: 1853095936
I0402 14:33:08.536181 13723 layer_factory.hpp:77] Creating layer conv2_relu
I0402 14:33:08.536195 13723 net.cpp:100] Creating Layer conv2_relu
I0402 14:33:08.536202 13723 net.cpp:434] conv2_relu <- conv2
I0402 14:33:08.536214 13723 net.cpp:395] conv2_relu -> conv2 (in-place)
I0402 14:33:08.537219 13723 net.cpp:150] Setting up conv2_relu
I0402 14:33:08.537235 13723 net.cpp:157] Top shape: 1024 150 18 18 (49766400)
I0402 14:33:08.537241 13723 net.cpp:165] Memory required for data: 2052161536
I0402 14:33:08.537247 13723 layer_factory.hpp:77] Creating layer pool2
I0402 14:33:08.537257 13723 net.cpp:100] Creating Layer pool2
I0402 14:33:08.537266 13723 net.cpp:434] pool2 <- conv2
I0402 14:33:08.537276 13723 net.cpp:408] pool2 -> pool2
I0402 14:33:08.537339 13723 net.cpp:150] Setting up pool2
I0402 14:33:08.537351 13723 net.cpp:157] Top shape: 1024 150 9 9 (12441600)
I0402 14:33:08.537358 13723 net.cpp:165] Memory required for data: 2101927936
I0402 14:33:08.537362 13723 layer_factory.hpp:77] Creating layer conv3
I0402 14:33:08.537380 13723 net.cpp:100] Creating Layer conv3
I0402 14:33:08.537387 13723 net.cpp:434] conv3 <- pool2
I0402 14:33:08.537398 13723 net.cpp:408] conv3 -> conv3
I0402 14:33:08.549751 13723 net.cpp:150] Setting up conv3
I0402 14:33:08.549780 13723 net.cpp:157] Top shape: 1024 250 6 6 (9216000)
I0402 14:33:08.549785 13723 net.cpp:165] Memory required for data: 2138791936
I0402 14:33:08.549803 13723 layer_factory.hpp:77] Creating layer conv3_relu
I0402 14:33:08.549818 13723 net.cpp:100] Creating Layer conv3_relu
I0402 14:33:08.549825 13723 net.cpp:434] conv3_relu <- conv3
I0402 14:33:08.549835 13723 net.cpp:395] conv3_relu -> conv3 (in-place)
I0402 14:33:08.552767 13723 net.cpp:150] Setting up conv3_relu
I0402 14:33:08.552784 13723 net.cpp:157] Top shape: 1024 250 6 6 (9216000)
I0402 14:33:08.552790 13723 net.cpp:165] Memory required for data: 2175655936
I0402 14:33:08.552795 13723 layer_factory.hpp:77] Creating layer pool3
I0402 14:33:08.552827 13723 net.cpp:100] Creating Layer pool3
I0402 14:33:08.552836 13723 net.cpp:434] pool3 <- conv3
I0402 14:33:08.552846 13723 net.cpp:408] pool3 -> pool3
I0402 14:33:08.552909 13723 net.cpp:150] Setting up pool3
I0402 14:33:08.552922 13723 net.cpp:157] Top shape: 1024 250 3 3 (2304000)
I0402 14:33:08.552927 13723 net.cpp:165] Memory required for data: 2184871936
I0402 14:33:08.552932 13723 layer_factory.hpp:77] Creating layer fc4_300
I0402 14:33:08.552942 13723 net.cpp:100] Creating Layer fc4_300
I0402 14:33:08.552953 13723 net.cpp:434] fc4_300 <- pool3
I0402 14:33:08.552965 13723 net.cpp:408] fc4_300 -> fc4_300
I0402 14:33:08.558481 13723 net.cpp:150] Setting up fc4_300
I0402 14:33:08.558500 13723 net.cpp:157] Top shape: 1024 300 (307200)
I0402 14:33:08.558506 13723 net.cpp:165] Memory required for data: 2186100736
I0402 14:33:08.558516 13723 layer_factory.hpp:77] Creating layer fc4_relu
I0402 14:33:08.558531 13723 net.cpp:100] Creating Layer fc4_relu
I0402 14:33:08.558539 13723 net.cpp:434] fc4_relu <- fc4_300
I0402 14:33:08.558550 13723 net.cpp:395] fc4_relu -> fc4_300 (in-place)
I0402 14:33:08.558755 13723 net.cpp:150] Setting up fc4_relu
I0402 14:33:08.558769 13723 net.cpp:157] Top shape: 1024 300 (307200)
I0402 14:33:08.558774 13723 net.cpp:165] Memory required for data: 2187329536
I0402 14:33:08.558780 13723 layer_factory.hpp:77] Creating layer drop4
I0402 14:33:08.558790 13723 net.cpp:100] Creating Layer drop4
I0402 14:33:08.558797 13723 net.cpp:434] drop4 <- fc4_300
I0402 14:33:08.558809 13723 net.cpp:395] drop4 -> fc4_300 (in-place)
I0402 14:33:08.558845 13723 net.cpp:150] Setting up drop4
I0402 14:33:08.558857 13723 net.cpp:157] Top shape: 1024 300 (307200)
I0402 14:33:08.558862 13723 net.cpp:165] Memory required for data: 2188558336
I0402 14:33:08.558867 13723 layer_factory.hpp:77] Creating layer fc5_106
I0402 14:33:08.558879 13723 net.cpp:100] Creating Layer fc5_106
I0402 14:33:08.558886 13723 net.cpp:434] fc5_106 <- fc4_300
I0402 14:33:08.558897 13723 net.cpp:408] fc5_106 -> fc5_classes
I0402 14:33:08.559228 13723 net.cpp:150] Setting up fc5_106
I0402 14:33:08.559242 13723 net.cpp:157] Top shape: 1024 106 (108544)
I0402 14:33:08.559247 13723 net.cpp:165] Memory required for data: 2188992512
I0402 14:33:08.559263 13723 layer_factory.hpp:77] Creating layer fc5_classes_fc5_106_0_split
I0402 14:33:08.559274 13723 net.cpp:100] Creating Layer fc5_classes_fc5_106_0_split
I0402 14:33:08.559283 13723 net.cpp:434] fc5_classes_fc5_106_0_split <- fc5_classes
I0402 14:33:08.559293 13723 net.cpp:408] fc5_classes_fc5_106_0_split -> fc5_classes_fc5_106_0_split_0
I0402 14:33:08.559306 13723 net.cpp:408] fc5_classes_fc5_106_0_split -> fc5_classes_fc5_106_0_split_1
I0402 14:33:08.559317 13723 net.cpp:408] fc5_classes_fc5_106_0_split -> fc5_classes_fc5_106_0_split_2
I0402 14:33:08.559381 13723 net.cpp:150] Setting up fc5_classes_fc5_106_0_split
I0402 14:33:08.559392 13723 net.cpp:157] Top shape: 1024 106 (108544)
I0402 14:33:08.559399 13723 net.cpp:157] Top shape: 1024 106 (108544)
I0402 14:33:08.559406 13723 net.cpp:157] Top shape: 1024 106 (108544)
I0402 14:33:08.559415 13723 net.cpp:165] Memory required for data: 2190295040
I0402 14:33:08.559420 13723 layer_factory.hpp:77] Creating layer loss
I0402 14:33:08.559435 13723 net.cpp:100] Creating Layer loss
I0402 14:33:08.559442 13723 net.cpp:434] loss <- fc5_classes_fc5_106_0_split_0
I0402 14:33:08.559449 13723 net.cpp:434] loss <- label_data_1_split_0
I0402 14:33:08.559458 13723 net.cpp:408] loss -> loss
…
