…
I0409 06:59:59.881325  1577 net.cpp:322] The NetState phase (0) differed from the phase (1) specified by a rule in layer accuracy_5
I0409 06:59:59.881417  1577 net.cpp:58] Initializing net from parameters: 
state {
  phase: TRAIN
  level: 0
  stage: ""
}
layer {
  name: "data"
  type: "Data"
  top: "data"
  top: "label"
  include {
    phase: TRAIN
  }
  transform_param {
    mirror: false
    crop_size: 48
    mean_value: 122
    mean_value: 115
    mean_value: 129
  }
  data_param {
    source: "../local_data/lmdb/rtsd-r1/orig/train/lmdb"
    batch_size: 1024
    backend: LMDB
  }
}
layer {
  name: "conv1"
  type: "Convolution"
  bottom: "data"
  top: "conv1"
  convolution_param {
    num_output: 100
    pad: 0
    kernel_size: 7
    group: 1
    stride: 1
    weight_filler {
      type: "xavier"
    }
  }
}
layer {
  name: "conv1_relu"
  type: "ReLU"
  bottom: "conv1"
  top: "conv1"
}
layer {
  name: "pool1"
  type: "Pooling"
  bottom: "conv1"
  top: "pool1"
  pooling_param {
    pool: MAX
    kernel_size: 2
    stride: 2
  }
}
layer {
  name: "conv2"
  type: "Convolution"
  bottom: "pool1"
  top: "conv2"
  convolution_param {
    num_output: 150
    pad: 0
    kernel_size: 4
    group: 1
    stride: 1
    weight_filler {
      type: "xavier"
    }
  }
}
layer {
  name: "conv2_relu"
  type: "ReLU"
  bottom: "conv2"
  top: "conv2"
}
layer {
  name: "pool2"
  type: "Pooling"
  bottom: "conv2"
  top: "pool2"
  pooling_param {
    pool: MAX
    kernel_size: 2
    stride: 2
  }
}
layer {
  name: "conv3"
  type: "Convolution"
  bottom: "pool2"
  top: "conv3"
  convolution_param {
    num_output: 250
    pad: 0
    kernel_size: 4
    group: 1
    stride: 1
    weight_filler {
      type: "xavier"
    }
  }
}
layer {
  name: "conv3_relu"
  type: "ReLU"
  bottom: "conv3"
  top: "conv3"
}
layer {
  name: "pool3"
  type: "Pooling"
  bottom: "conv3"
  top: "pool3"
  pooling_param {
    pool: MAX
    kernel_size: 2
    stride: 2
  }
}
layer {
  name: "fc4_300"
  type: "InnerProduct"
  bottom: "pool3"
  top: "fc4_300"
  inner_product_param {
    num_output: 300
    weight_filler {
      type: "xavier"
    }
  }
}
layer {
  name: "fc4_relu"
  type: "ReLU"
  bottom: "fc4_300"
  top: "fc4_300"
}
layer {
  name: "drop4"
  type: "Dropout"
  bottom: "fc4_300"
  top: "fc4_300"
  dropout_param {
    dropout_ratio: 0.4
  }
}
layer {
  name: "fc5_67"
  type: "InnerProduct"
  bottom: "fc4_300"
  top: "fc5_classes"
  inner_product_param {
    num_output: 67
    weight_filler {
      type: "xavier"
    }
  }
}
layer {
  name: "loss"
  type: "SoftmaxWithLoss"
  bottom: "fc5_classes"
  bottom: "label"
  top: "loss"
}
I0409 06:59:59.881491  1577 layer_factory.hpp:77] Creating layer data
I0409 06:59:59.882545  1577 net.cpp:100] Creating Layer data
I0409 06:59:59.882570  1577 net.cpp:408] data -> data
I0409 06:59:59.882593  1577 net.cpp:408] data -> label
I0409 06:59:59.884302  1651 db_lmdb.cpp:35] Opened lmdb ../local_data/lmdb/rtsd-r1/orig/train/lmdb
I0409 06:59:59.900676  1577 data_layer.cpp:41] output data size: 1024,3,48,48
I0409 06:59:59.941162  1577 net.cpp:150] Setting up data
I0409 06:59:59.941196  1577 net.cpp:157] Top shape: 1024 3 48 48 (7077888)
I0409 06:59:59.941202  1577 net.cpp:157] Top shape: 1024 (1024)
I0409 06:59:59.941243  1577 net.cpp:165] Memory required for data: 28315648
I0409 06:59:59.941254  1577 layer_factory.hpp:77] Creating layer conv1
I0409 06:59:59.941277  1577 net.cpp:100] Creating Layer conv1
I0409 06:59:59.941283  1577 net.cpp:434] conv1 <- data
I0409 06:59:59.941298  1577 net.cpp:408] conv1 -> conv1
I0409 07:00:00.200378  1577 net.cpp:150] Setting up conv1
I0409 07:00:00.200409  1577 net.cpp:157] Top shape: 1024 100 42 42 (180633600)
I0409 07:00:00.200413  1577 net.cpp:165] Memory required for data: 750850048
I0409 07:00:00.200434  1577 layer_factory.hpp:77] Creating layer conv1_relu
I0409 07:00:00.200459  1577 net.cpp:100] Creating Layer conv1_relu
I0409 07:00:00.200464  1577 net.cpp:434] conv1_relu <- conv1
I0409 07:00:00.200475  1577 net.cpp:395] conv1_relu -> conv1 (in-place)
I0409 07:00:00.200665  1577 net.cpp:150] Setting up conv1_relu
I0409 07:00:00.200677  1577 net.cpp:157] Top shape: 1024 100 42 42 (180633600)
I0409 07:00:00.200681  1577 net.cpp:165] Memory required for data: 1473384448
I0409 07:00:00.200687  1577 layer_factory.hpp:77] Creating layer pool1
I0409 07:00:00.200695  1577 net.cpp:100] Creating Layer pool1
I0409 07:00:00.200698  1577 net.cpp:434] pool1 <- conv1
I0409 07:00:00.200705  1577 net.cpp:408] pool1 -> pool1
I0409 07:00:00.200755  1577 net.cpp:150] Setting up pool1
I0409 07:00:00.200764  1577 net.cpp:157] Top shape: 1024 100 21 21 (45158400)
I0409 07:00:00.200767  1577 net.cpp:165] Memory required for data: 1654018048
I0409 07:00:00.200772  1577 layer_factory.hpp:77] Creating layer conv2
I0409 07:00:00.200783  1577 net.cpp:100] Creating Layer conv2
I0409 07:00:00.200788  1577 net.cpp:434] conv2 <- pool1
I0409 07:00:00.200793  1577 net.cpp:408] conv2 -> conv2
I0409 07:00:00.204998  1577 net.cpp:150] Setting up conv2
I0409 07:00:00.205014  1577 net.cpp:157] Top shape: 1024 150 18 18 (49766400)
I0409 07:00:00.205018  1577 net.cpp:165] Memory required for data: 1853083648
I0409 07:00:00.205027  1577 layer_factory.hpp:77] Creating layer conv2_relu
I0409 07:00:00.205034  1577 net.cpp:100] Creating Layer conv2_relu
I0409 07:00:00.205037  1577 net.cpp:434] conv2_relu <- conv2
I0409 07:00:00.205042  1577 net.cpp:395] conv2_relu -> conv2 (in-place)
I0409 07:00:00.205750  1577 net.cpp:150] Setting up conv2_relu
I0409 07:00:00.205766  1577 net.cpp:157] Top shape: 1024 150 18 18 (49766400)
I0409 07:00:00.205770  1577 net.cpp:165] Memory required for data: 2052149248
I0409 07:00:00.205773  1577 layer_factory.hpp:77] Creating layer pool2
I0409 07:00:00.205780  1577 net.cpp:100] Creating Layer pool2
I0409 07:00:00.205782  1577 net.cpp:434] pool2 <- conv2
I0409 07:00:00.205788  1577 net.cpp:408] pool2 -> pool2
I0409 07:00:00.205832  1577 net.cpp:150] Setting up pool2
I0409 07:00:00.205840  1577 net.cpp:157] Top shape: 1024 150 9 9 (12441600)
I0409 07:00:00.205843  1577 net.cpp:165] Memory required for data: 2101915648
I0409 07:00:00.205847  1577 layer_factory.hpp:77] Creating layer conv3
I0409 07:00:00.205853  1577 net.cpp:100] Creating Layer conv3
I0409 07:00:00.205858  1577 net.cpp:434] conv3 <- pool2
I0409 07:00:00.205863  1577 net.cpp:408] conv3 -> conv3
I0409 07:00:00.211087  1577 net.cpp:150] Setting up conv3
I0409 07:00:00.211103  1577 net.cpp:157] Top shape: 1024 250 6 6 (9216000)
I0409 07:00:00.211107  1577 net.cpp:165] Memory required for data: 2138779648
I0409 07:00:00.211117  1577 layer_factory.hpp:77] Creating layer conv3_relu
I0409 07:00:00.211123  1577 net.cpp:100] Creating Layer conv3_relu
I0409 07:00:00.211127  1577 net.cpp:434] conv3_relu <- conv3
I0409 07:00:00.211133  1577 net.cpp:395] conv3_relu -> conv3 (in-place)
I0409 07:00:00.211848  1577 net.cpp:150] Setting up conv3_relu
I0409 07:00:00.211863  1577 net.cpp:157] Top shape: 1024 250 6 6 (9216000)
I0409 07:00:00.211866  1577 net.cpp:165] Memory required for data: 2175643648
I0409 07:00:00.211869  1577 layer_factory.hpp:77] Creating layer pool3
I0409 07:00:00.211876  1577 net.cpp:100] Creating Layer pool3
I0409 07:00:00.211897  1577 net.cpp:434] pool3 <- conv3
I0409 07:00:00.211904  1577 net.cpp:408] pool3 -> pool3
I0409 07:00:00.211973  1577 net.cpp:150] Setting up pool3
I0409 07:00:00.211982  1577 net.cpp:157] Top shape: 1024 250 3 3 (2304000)
I0409 07:00:00.211985  1577 net.cpp:165] Memory required for data: 2184859648
I0409 07:00:00.211989  1577 layer_factory.hpp:77] Creating layer fc4_300
I0409 07:00:00.211997  1577 net.cpp:100] Creating Layer fc4_300
I0409 07:00:00.212002  1577 net.cpp:434] fc4_300 <- pool3
I0409 07:00:00.212007  1577 net.cpp:408] fc4_300 -> fc4_300
I0409 07:00:00.217177  1577 net.cpp:150] Setting up fc4_300
I0409 07:00:00.217193  1577 net.cpp:157] Top shape: 1024 300 (307200)
I0409 07:00:00.217197  1577 net.cpp:165] Memory required for data: 2186088448
I0409 07:00:00.217203  1577 layer_factory.hpp:77] Creating layer fc4_relu
I0409 07:00:00.217209  1577 net.cpp:100] Creating Layer fc4_relu
I0409 07:00:00.217213  1577 net.cpp:434] fc4_relu <- fc4_300
I0409 07:00:00.217217  1577 net.cpp:395] fc4_relu -> fc4_300 (in-place)
I0409 07:00:00.217386  1577 net.cpp:150] Setting up fc4_relu
I0409 07:00:00.217397  1577 net.cpp:157] Top shape: 1024 300 (307200)
I0409 07:00:00.217401  1577 net.cpp:165] Memory required for data: 2187317248
I0409 07:00:00.217404  1577 layer_factory.hpp:77] Creating layer drop4
I0409 07:00:00.217411  1577 net.cpp:100] Creating Layer drop4
I0409 07:00:00.217417  1577 net.cpp:434] drop4 <- fc4_300
I0409 07:00:00.217422  1577 net.cpp:395] drop4 -> fc4_300 (in-place)
I0409 07:00:00.217449  1577 net.cpp:150] Setting up drop4
I0409 07:00:00.217456  1577 net.cpp:157] Top shape: 1024 300 (307200)
I0409 07:00:00.217459  1577 net.cpp:165] Memory required for data: 2188546048
I0409 07:00:00.217463  1577 layer_factory.hpp:77] Creating layer fc5_67
I0409 07:00:00.217468  1577 net.cpp:100] Creating Layer fc5_67
I0409 07:00:00.217471  1577 net.cpp:434] fc5_67 <- fc4_300
I0409 07:00:00.217476  1577 net.cpp:408] fc5_67 -> fc5_classes
I0409 07:00:00.218621  1577 net.cpp:150] Setting up fc5_67
I0409 07:00:00.218636  1577 net.cpp:157] Top shape: 1024 67 (68608)
I0409 07:00:00.218638  1577 net.cpp:165] Memory required for data: 2188820480
I0409 07:00:00.218647  1577 layer_factory.hpp:77] Creating layer loss
I0409 07:00:00.218654  1577 net.cpp:100] Creating Layer loss
I0409 07:00:00.218658  1577 net.cpp:434] loss <- fc5_classes
I0409 07:00:00.218662  1577 net.cpp:434] loss <- label
I0409 07:00:00.218668  1577 net.cpp:408] loss -> loss
I0409 07:00:00.218679  1577 layer_factory.hpp:77] Creating layer loss
…
I0409 07:00:00.219277  1577 solver.cpp:193] Creating test net (#0) specified by test_net file: ./Prototxt/experiment_6/rtsd-r1/orig/trial_5/test.prototxt
I0409 07:00:00.219411  1577 net.cpp:58] Initializing net from parameters: 
state {
  phase: TEST
}
layer {
  name: "data"
  type: "Data"
  top: "data"
  top: "label"
  include {
    phase: TEST
  }
  transform_param {
    mirror: false
    crop_size: 48
    mean_value: 113
    mean_value: 110
    mean_value: 132
  }
  data_param {
    source: "../local_data/lmdb/rtsd-r1/orig/test/lmdb"
    batch_size: 1024
    backend: LMDB
  }
}
layer {
  name: "conv1"
  type: "Convolution"
  bottom: "data"
  top: "conv1"
  convolution_param {
    num_output: 100
    pad: 0
    kernel_size: 7
    group: 1
    stride: 1
    weight_filler {
      type: "xavier"
    }
  }
}
layer {
  name: "conv1_relu"
  type: "ReLU"
  bottom: "conv1"
  top: "conv1"
}
layer {
  name: "pool1"
  type: "Pooling"
  bottom: "conv1"
  top: "pool1"
  pooling_param {
    pool: MAX
    kernel_size: 2
    stride: 2
  }
}
layer {
  name: "conv2"
  type: "Convolution"
  bottom: "pool1"
  top: "conv2"
  convolution_param {
    num_output: 150
    pad: 0
    kernel_size: 4
    group: 1
    stride: 1
    weight_filler {
      type: "xavier"
    }
  }
}
layer {
  name: "conv2_relu"
  type: "ReLU"
  bottom: "conv2"
  top: "conv2"
}
layer {
  name: "pool2"
  type: "Pooling"
  bottom: "conv2"
  top: "pool2"
  pooling_param {
    pool: MAX
    kernel_size: 2
    stride: 2
  }
}
layer {
  name: "conv3"
  type: "Convolution"
  bottom: "pool2"
  top: "conv3"
  convolution_param {
    num_output: 250
    pad: 0
    kernel_size: 4
    group: 1
    stride: 1
    weight_filler {
      type: "xavier"
    }
  }
}
layer {
  name: "conv3_relu"
  type: "ReLU"
  bottom: "conv3"
  top: "conv3"
}
layer {
  name: "pool3"
  type: "Pooling"
  bottom: "conv3"
  top: "pool3"
  pooling_param {
    pool: MAX
    kernel_size: 2
    stride: 2
  }
}
layer {
  name: "fc4_300"
  type: "InnerProduct"
  bottom: "pool3"
  top: "fc4_300"
  inner_product_param {
    num_output: 300
    weight_filler {
      type: "xavier"
    }
  }
}
layer {
  name: "fc4_relu"
  type: "ReLU"
  bottom: "fc4_300"
  top: "fc4_300"
}
layer {
  name: "drop4"
  type: "Dropout"
  bottom: "fc4_300"
  top: "fc4_300"
  dropout_param {
    dropout_ratio: 0.4
  }
}
layer {
  name: "fc5_67"
  type: "InnerProduct"
  bottom: "fc4_300"
  top: "fc5_classes"
  inner_product_param {
    num_output: 67
    weight_filler {
      type: "xavier"
    }
  }
}
layer {
  name: "loss"
  type: "SoftmaxWithLoss"
  bottom: "fc5_classes"
  bottom: "label"
  top: "loss"
}
layer {
  name: "accuracy_1"
  type: "Accuracy"
  bottom: "fc5_classes"
  bottom: "label"
  top: "accuracy_1"
  include {
    phase: TEST
  }
  accuracy_param {
    top_k: 1
  }
}
layer {
  name: "accuracy_5"
  type: "Accuracy"
  bottom: "fc5_classes"
  bottom: "label"
  top: "accuracy_5"
  include {
    phase: TEST
  }
  accuracy_param {
    top_k: 5
  }
}
I0409 07:00:00.219491  1577 layer_factory.hpp:77] Creating layer data
I0409 07:00:00.220057  1577 net.cpp:100] Creating Layer data
I0409 07:00:00.220068  1577 net.cpp:408] data -> data
I0409 07:00:00.220078  1577 net.cpp:408] data -> label
I0409 07:00:00.221313  1675 db_lmdb.cpp:35] Opened lmdb ../local_data/lmdb/rtsd-r1/orig/test/lmdb
I0409 07:00:00.221472  1577 data_layer.cpp:41] output data size: 1024,3,48,48
I0409 07:00:00.307991  1577 net.cpp:150] Setting up data
I0409 07:00:00.308023  1577 net.cpp:157] Top shape: 1024 3 48 48 (7077888)
I0409 07:00:00.308029  1577 net.cpp:157] Top shape: 1024 (1024)
I0409 07:00:00.308032  1577 net.cpp:165] Memory required for data: 28315648
I0409 07:00:00.308038  1577 layer_factory.hpp:77] Creating layer label_data_1_split
I0409 07:00:00.308053  1577 net.cpp:100] Creating Layer label_data_1_split
I0409 07:00:00.308058  1577 net.cpp:434] label_data_1_split <- label
I0409 07:00:00.308065  1577 net.cpp:408] label_data_1_split -> label_data_1_split_0
I0409 07:00:00.308076  1577 net.cpp:408] label_data_1_split -> label_data_1_split_1
I0409 07:00:00.308084  1577 net.cpp:408] label_data_1_split -> label_data_1_split_2
I0409 07:00:00.308290  1577 net.cpp:150] Setting up label_data_1_split
I0409 07:00:00.308300  1577 net.cpp:157] Top shape: 1024 (1024)
I0409 07:00:00.308305  1577 net.cpp:157] Top shape: 1024 (1024)
I0409 07:00:00.308310  1577 net.cpp:157] Top shape: 1024 (1024)
I0409 07:00:00.308311  1577 net.cpp:165] Memory required for data: 28327936
I0409 07:00:00.308315  1577 layer_factory.hpp:77] Creating layer conv1
I0409 07:00:00.308328  1577 net.cpp:100] Creating Layer conv1
I0409 07:00:00.308334  1577 net.cpp:434] conv1 <- data
I0409 07:00:00.308341  1577 net.cpp:408] conv1 -> conv1
I0409 07:00:00.316831  1577 net.cpp:150] Setting up conv1
I0409 07:00:00.316848  1577 net.cpp:157] Top shape: 1024 100 42 42 (180633600)
I0409 07:00:00.316864  1577 net.cpp:165] Memory required for data: 750862336
I0409 07:00:00.316877  1577 layer_factory.hpp:77] Creating layer conv1_relu
I0409 07:00:00.316884  1577 net.cpp:100] Creating Layer conv1_relu
I0409 07:00:00.316889  1577 net.cpp:434] conv1_relu <- conv1
I0409 07:00:00.316893  1577 net.cpp:395] conv1_relu -> conv1 (in-place)
I0409 07:00:00.317067  1577 net.cpp:150] Setting up conv1_relu
I0409 07:00:00.317078  1577 net.cpp:157] Top shape: 1024 100 42 42 (180633600)
I0409 07:00:00.317082  1577 net.cpp:165] Memory required for data: 1473396736
I0409 07:00:00.317085  1577 layer_factory.hpp:77] Creating layer pool1
I0409 07:00:00.317093  1577 net.cpp:100] Creating Layer pool1
I0409 07:00:00.317097  1577 net.cpp:434] pool1 <- conv1
I0409 07:00:00.317101  1577 net.cpp:408] pool1 -> pool1
I0409 07:00:00.317147  1577 net.cpp:150] Setting up pool1
I0409 07:00:00.317155  1577 net.cpp:157] Top shape: 1024 100 21 21 (45158400)
I0409 07:00:00.317159  1577 net.cpp:165] Memory required for data: 1654030336
I0409 07:00:00.317162  1577 layer_factory.hpp:77] Creating layer conv2
I0409 07:00:00.317172  1577 net.cpp:100] Creating Layer conv2
I0409 07:00:00.317178  1577 net.cpp:434] conv2 <- pool1
I0409 07:00:00.317183  1577 net.cpp:408] conv2 -> conv2
I0409 07:00:00.329766  1577 net.cpp:150] Setting up conv2
I0409 07:00:00.329787  1577 net.cpp:157] Top shape: 1024 150 18 18 (49766400)
I0409 07:00:00.329792  1577 net.cpp:165] Memory required for data: 1853095936
I0409 07:00:00.329803  1577 layer_factory.hpp:77] Creating layer conv2_relu
I0409 07:00:00.329810  1577 net.cpp:100] Creating Layer conv2_relu
I0409 07:00:00.329814  1577 net.cpp:434] conv2_relu <- conv2
I0409 07:00:00.329819  1577 net.cpp:395] conv2_relu -> conv2 (in-place)
I0409 07:00:00.330574  1577 net.cpp:150] Setting up conv2_relu
I0409 07:00:00.330590  1577 net.cpp:157] Top shape: 1024 150 18 18 (49766400)
I0409 07:00:00.330595  1577 net.cpp:165] Memory required for data: 2052161536
I0409 07:00:00.330598  1577 layer_factory.hpp:77] Creating layer pool2
I0409 07:00:00.330615  1577 net.cpp:100] Creating Layer pool2
I0409 07:00:00.330617  1577 net.cpp:434] pool2 <- conv2
I0409 07:00:00.330623  1577 net.cpp:408] pool2 -> pool2
I0409 07:00:00.330673  1577 net.cpp:150] Setting up pool2
I0409 07:00:00.330682  1577 net.cpp:157] Top shape: 1024 150 9 9 (12441600)
I0409 07:00:00.330685  1577 net.cpp:165] Memory required for data: 2101927936
I0409 07:00:00.330689  1577 layer_factory.hpp:77] Creating layer conv3
I0409 07:00:00.330699  1577 net.cpp:100] Creating Layer conv3
I0409 07:00:00.330705  1577 net.cpp:434] conv3 <- pool2
I0409 07:00:00.330711  1577 net.cpp:408] conv3 -> conv3
I0409 07:00:00.336175  1577 net.cpp:150] Setting up conv3
I0409 07:00:00.336192  1577 net.cpp:157] Top shape: 1024 250 6 6 (9216000)
I0409 07:00:00.336196  1577 net.cpp:165] Memory required for data: 2138791936
I0409 07:00:00.336206  1577 layer_factory.hpp:77] Creating layer conv3_relu
I0409 07:00:00.336213  1577 net.cpp:100] Creating Layer conv3_relu
I0409 07:00:00.336216  1577 net.cpp:434] conv3_relu <- conv3
I0409 07:00:00.336221  1577 net.cpp:395] conv3_relu -> conv3 (in-place)
I0409 07:00:00.336979  1577 net.cpp:150] Setting up conv3_relu
I0409 07:00:00.336995  1577 net.cpp:157] Top shape: 1024 250 6 6 (9216000)
I0409 07:00:00.337011  1577 net.cpp:165] Memory required for data: 2175655936
I0409 07:00:00.337034  1577 layer_factory.hpp:77] Creating layer pool3
I0409 07:00:00.337041  1577 net.cpp:100] Creating Layer pool3
I0409 07:00:00.337045  1577 net.cpp:434] pool3 <- conv3
I0409 07:00:00.337050  1577 net.cpp:408] pool3 -> pool3
I0409 07:00:00.337097  1577 net.cpp:150] Setting up pool3
I0409 07:00:00.337106  1577 net.cpp:157] Top shape: 1024 250 3 3 (2304000)
I0409 07:00:00.337110  1577 net.cpp:165] Memory required for data: 2184871936
I0409 07:00:00.337113  1577 layer_factory.hpp:77] Creating layer fc4_300
I0409 07:00:00.337121  1577 net.cpp:100] Creating Layer fc4_300
I0409 07:00:00.337127  1577 net.cpp:434] fc4_300 <- pool3
I0409 07:00:00.337132  1577 net.cpp:408] fc4_300 -> fc4_300
I0409 07:00:00.342388  1577 net.cpp:150] Setting up fc4_300
I0409 07:00:00.342404  1577 net.cpp:157] Top shape: 1024 300 (307200)
I0409 07:00:00.342423  1577 net.cpp:165] Memory required for data: 2186100736
I0409 07:00:00.342432  1577 layer_factory.hpp:77] Creating layer fc4_relu
I0409 07:00:00.342442  1577 net.cpp:100] Creating Layer fc4_relu
I0409 07:00:00.342445  1577 net.cpp:434] fc4_relu <- fc4_300
I0409 07:00:00.342450  1577 net.cpp:395] fc4_relu -> fc4_300 (in-place)
I0409 07:00:00.342629  1577 net.cpp:150] Setting up fc4_relu
I0409 07:00:00.342643  1577 net.cpp:157] Top shape: 1024 300 (307200)
I0409 07:00:00.342646  1577 net.cpp:165] Memory required for data: 2187329536
I0409 07:00:00.342649  1577 layer_factory.hpp:77] Creating layer drop4
I0409 07:00:00.342656  1577 net.cpp:100] Creating Layer drop4
I0409 07:00:00.342660  1577 net.cpp:434] drop4 <- fc4_300
I0409 07:00:00.342665  1577 net.cpp:395] drop4 -> fc4_300 (in-place)
I0409 07:00:00.342692  1577 net.cpp:150] Setting up drop4
I0409 07:00:00.342700  1577 net.cpp:157] Top shape: 1024 300 (307200)
I0409 07:00:00.342703  1577 net.cpp:165] Memory required for data: 2188558336
I0409 07:00:00.342706  1577 layer_factory.hpp:77] Creating layer fc5_67
I0409 07:00:00.342711  1577 net.cpp:100] Creating Layer fc5_67
I0409 07:00:00.342717  1577 net.cpp:434] fc5_67 <- fc4_300
I0409 07:00:00.342722  1577 net.cpp:408] fc5_67 -> fc5_classes
I0409 07:00:00.342963  1577 net.cpp:150] Setting up fc5_67
I0409 07:00:00.342972  1577 net.cpp:157] Top shape: 1024 67 (68608)
I0409 07:00:00.342975  1577 net.cpp:165] Memory required for data: 2188832768
I0409 07:00:00.342985  1577 layer_factory.hpp:77] Creating layer fc5_classes_fc5_67_0_split
I0409 07:00:00.342993  1577 net.cpp:100] Creating Layer fc5_classes_fc5_67_0_split
I0409 07:00:00.342996  1577 net.cpp:434] fc5_classes_fc5_67_0_split <- fc5_classes
I0409 07:00:00.343001  1577 net.cpp:408] fc5_classes_fc5_67_0_split -> fc5_classes_fc5_67_0_split_0
I0409 07:00:00.343008  1577 net.cpp:408] fc5_classes_fc5_67_0_split -> fc5_classes_fc5_67_0_split_1
I0409 07:00:00.343029  1577 net.cpp:408] fc5_classes_fc5_67_0_split -> fc5_classes_fc5_67_0_split_2
I0409 07:00:00.343078  1577 net.cpp:150] Setting up fc5_classes_fc5_67_0_split
I0409 07:00:00.343086  1577 net.cpp:157] Top shape: 1024 67 (68608)
I0409 07:00:00.343089  1577 net.cpp:157] Top shape: 1024 67 (68608)
I0409 07:00:00.343092  1577 net.cpp:157] Top shape: 1024 67 (68608)
I0409 07:00:00.343096  1577 net.cpp:165] Memory required for data: 2189656064
I0409 07:00:00.343098  1577 layer_factory.hpp:77] Creating layer loss
I0409 07:00:00.343106  1577 net.cpp:100] Creating Layer loss
I0409 07:00:00.343111  1577 net.cpp:434] loss <- fc5_classes_fc5_67_0_split_0
I0409 07:00:00.343116  1577 net.cpp:434] loss <- label_data_1_split_0
I0409 07:00:00.343122  1577 net.cpp:408] loss -> loss
…
