…
I0414 06:30:12.377008 23583 solver.cpp:93] Creating training net from train_net file: ./Prototxt/experiment_11/rtsd-r1/histeq/trial_4/train.prototxt
I0414 06:30:12.377473 23583 net.cpp:58] Initializing net from parameters: 
state {
  phase: TRAIN
  level: 0
  stage: ""
}
layer {
  name: "data"
  type: "Data"
  top: "data"
  top: "label"
  include {
    phase: TRAIN
  }
  transform_param {
    scale: 0.0039215689
    mirror: false
    crop_size: 48
    mean_value: 130
    mean_value: 123
    mean_value: 137
  }
  data_param {
    source: "../local_data/lmdb/rtsd-r1/histeq/train/lmdb"
    batch_size: 1024
    backend: LMDB
  }
}
layer {
  name: "conv1"
  type: "Convolution"
  bottom: "data"
  top: "conv1"
  convolution_param {
    num_output: 100
    pad: 0
    kernel_size: 7
    group: 1
    stride: 1
    weight_filler {
      type: "xavier"
    }
  }
}
layer {
  name: "conv1_prescale"
  type: "Scale"
  bottom: "conv1"
  top: "conv1"
  param {
    lr_mult: 0
    decay_mult: 0
  }
  scale_param {
    filler {
      value: 0.6666
    }
    bias_term: false
  }
}
layer {
  name: "conv1_sTanH"
  type: "TanH"
  bottom: "conv1"
  top: "conv1"
}
layer {
  name: "conv1_postscale"
  type: "Scale"
  bottom: "conv1"
  top: "conv1"
  param {
    lr_mult: 0
    decay_mult: 0
  }
  scale_param {
    filler {
      value: 1.7159
    }
    bias_term: false
  }
}
layer {
  name: "pool1"
  type: "Pooling"
  bottom: "conv1"
  top: "pool1"
  pooling_param {
    pool: MAX
    kernel_size: 2
    stride: 2
  }
}
layer {
  name: "conv2"
  type: "Convolution"
  bottom: "pool1"
  top: "conv2"
  convolution_param {
    num_output: 150
    pad: 0
    kernel_size: 4
    group: 1
    stride: 1
    weight_filler {
      type: "xavier"
    }
  }
}
layer {
  name: "conv2_prescale"
  type: "Scale"
  bottom: "conv2"
  top: "conv2"
  param {
    lr_mult: 0
    decay_mult: 0
  }
  scale_param {
    filler {
      value: 0.6666
    }
    bias_term: false
  }
}
layer {
  name: "conv2_sTanH"
  type: "TanH"
  bottom: "conv2"
  top: "conv2"
}
layer {
  name: "conv2_postscale"
  type: "Scale"
  bottom: "conv2"
  top: "conv2"
  param {
    lr_mult: 0
    decay_mult: 0
  }
  scale_param {
    filler {
      value: 1.7159
    }
    bias_term: false
  }
}
layer {
  name: "pool2"
  type: "Pooling"
  bottom: "conv2"
  top: "pool2"
  pooling_param {
    pool: MAX
    kernel_size: 2
    stride: 2
  }
}
layer {
  name: "conv3"
  type: "Convolution"
  bottom: "pool2"
  top: "conv3"
  convolution_param {
    num_output: 250
    pad: 0
    kernel_size: 4
    group: 1
    stride: 1
    weight_filler {
      type: "xavier"
    }
  }
}
layer {
  name: "conv3_prescale"
  type: "Scale"
  bottom: "conv3"
  top: "conv3"
  param {
    lr_mult: 0
    decay_mult: 0
  }
  scale_param {
    filler {
      value: 0.6666
    }
    bias_term: false
  }
}
layer {
  name: "conv3_sTanH"
  type: "TanH"
  bottom: "conv3"
  top: "conv3"
}
layer {
  name: "conv3_postscale"
  type: "Scale"
  bottom: "conv3"
  top: "conv3"
  param {
    lr_mult: 0
    decay_mult: 0
  }
  scale_param {
    filler {
      value: 1.7159
    }
    bias_term: false
  }
}
layer {
  name: "pool3"
  type: "Pooling"
  bottom: "conv3"
  top: "pool3"
  pooling_param {
    pool: MAX
    kernel_size: 2
    stride: 2
  }
}
layer {
  name: "fc4_300"
  type: "InnerProduct"
  bottom: "pool3"
  top: "fc4_300"
  inner_product_param {
    num_output: 300
    weight_filler {
      type: "xavier"
    }
  }
}
layer {
  name: "fc4_prescale"
  type: "Scale"
  bottom: "fc4_300"
  top: "fc4_300"
  param {
    lr_mult: 0
    decay_mult: 0
  }
  scale_param {
    filler {
      value: 0.6666
    }
    bias_term: false
  }
}
layer {
  name: "fc4_sTanH"
  type: "TanH"
  bottom: "fc4_300"
  top: "fc4_300"
}
layer {
  name: "fc4_postscale"
  type: "Scale"
  bottom: "fc4_300"
  top: "fc4_300"
  param {
    lr_mult: 0
    decay_mult: 0
  }
  scale_param {
    filler {
      value: 1.7159
    }
    bias_term: false
  }
}
layer {
  name: "fc5_67"
  type: "InnerProduct"
  bottom: "fc4_300"
  top: "fc5_classes"
  inner_product_param {
    num_output: 67
    weight_filler {
      type: "xavier"
    }
  }
}
layer {
  name: "softmax"
  type: "Softmax"
  bottom: "fc5_classes"
  top: "softmax"
}
layer {
  name: "loss"
  type: "MultinomialLogisticLoss"
  bottom: "softmax"
  bottom: "label"
  top: "loss"
}
layer {
  name: "accuracy_1"
  type: "Accuracy"
  bottom: "fc5_classes"
  bottom: "label"
  top: "accuracy_1"
  accuracy_param {
    top_k: 1
  }
}
layer {
  name: "accuracy_5"
  type: "Accuracy"
  bottom: "fc5_classes"
  bottom: "label"
  top: "accuracy_5"
  accuracy_param {
    top_k: 5
  }
}
layer {
  name: "silence"
  type: "Silence"
  bottom: "accuracy_1"
  bottom: "accuracy_5"
}
I0414 06:30:12.377629 23583 layer_factory.hpp:77] Creating layer data
I0414 06:30:12.378690 23583 net.cpp:100] Creating Layer data
I0414 06:30:12.378705 23583 net.cpp:408] data -> data
I0414 06:30:12.378731 23583 net.cpp:408] data -> label
I0414 06:30:12.383103 23698 db_lmdb.cpp:35] Opened lmdb ../local_data/lmdb/rtsd-r1/histeq/train/lmdb
I0414 06:30:12.410408 23583 data_layer.cpp:41] output data size: 1024,3,48,48
I0414 06:30:12.457319 23583 net.cpp:150] Setting up data
I0414 06:30:12.457347 23583 net.cpp:157] Top shape: 1024 3 48 48 (7077888)
I0414 06:30:12.457352 23583 net.cpp:157] Top shape: 1024 (1024)
I0414 06:30:12.457355 23583 net.cpp:165] Memory required for data: 28315648
I0414 06:30:12.457367 23583 layer_factory.hpp:77] Creating layer label_data_1_split
I0414 06:30:12.457383 23583 net.cpp:100] Creating Layer label_data_1_split
I0414 06:30:12.457391 23583 net.cpp:434] label_data_1_split <- label
I0414 06:30:12.457407 23583 net.cpp:408] label_data_1_split -> label_data_1_split_0
I0414 06:30:12.457422 23583 net.cpp:408] label_data_1_split -> label_data_1_split_1
I0414 06:30:12.457429 23583 net.cpp:408] label_data_1_split -> label_data_1_split_2
I0414 06:30:12.457495 23583 net.cpp:150] Setting up label_data_1_split
I0414 06:30:12.457504 23583 net.cpp:157] Top shape: 1024 (1024)
I0414 06:30:12.457509 23583 net.cpp:157] Top shape: 1024 (1024)
I0414 06:30:12.457514 23583 net.cpp:157] Top shape: 1024 (1024)
I0414 06:30:12.457515 23583 net.cpp:165] Memory required for data: 28327936
I0414 06:30:12.457520 23583 layer_factory.hpp:77] Creating layer conv1
I0414 06:30:12.457536 23583 net.cpp:100] Creating Layer conv1
I0414 06:30:12.457542 23583 net.cpp:434] conv1 <- data
I0414 06:30:12.457550 23583 net.cpp:408] conv1 -> conv1
I0414 06:30:12.845609 23583 net.cpp:150] Setting up conv1
I0414 06:30:12.845635 23583 net.cpp:157] Top shape: 1024 100 42 42 (180633600)
I0414 06:30:12.845639 23583 net.cpp:165] Memory required for data: 750862336
I0414 06:30:12.845662 23583 layer_factory.hpp:77] Creating layer conv1_prescale
I0414 06:30:12.845675 23583 net.cpp:100] Creating Layer conv1_prescale
I0414 06:30:12.845682 23583 net.cpp:434] conv1_prescale <- conv1
I0414 06:30:12.845690 23583 net.cpp:395] conv1_prescale -> conv1 (in-place)
I0414 06:30:12.845798 23583 net.cpp:150] Setting up conv1_prescale
I0414 06:30:12.845806 23583 net.cpp:157] Top shape: 1024 100 42 42 (180633600)
I0414 06:30:12.845811 23583 net.cpp:165] Memory required for data: 1473396736
I0414 06:30:12.845818 23583 layer_factory.hpp:77] Creating layer conv1_sTanH
I0414 06:30:12.845829 23583 net.cpp:100] Creating Layer conv1_sTanH
I0414 06:30:12.845832 23583 net.cpp:434] conv1_sTanH <- conv1
I0414 06:30:12.845837 23583 net.cpp:395] conv1_sTanH -> conv1 (in-place)
I0414 06:30:12.846029 23583 net.cpp:150] Setting up conv1_sTanH
I0414 06:30:12.846061 23583 net.cpp:157] Top shape: 1024 100 42 42 (180633600)
I0414 06:30:12.846065 23583 net.cpp:165] Memory required for data: 2195931136
I0414 06:30:12.846070 23583 layer_factory.hpp:77] Creating layer conv1_postscale
I0414 06:30:12.846076 23583 net.cpp:100] Creating Layer conv1_postscale
I0414 06:30:12.846082 23583 net.cpp:434] conv1_postscale <- conv1
I0414 06:30:12.846088 23583 net.cpp:395] conv1_postscale -> conv1 (in-place)
I0414 06:30:12.846182 23583 net.cpp:150] Setting up conv1_postscale
I0414 06:30:12.846191 23583 net.cpp:157] Top shape: 1024 100 42 42 (180633600)
I0414 06:30:12.846194 23583 net.cpp:165] Memory required for data: 2918465536
I0414 06:30:12.846199 23583 layer_factory.hpp:77] Creating layer pool1
I0414 06:30:12.846207 23583 net.cpp:100] Creating Layer pool1
I0414 06:30:12.846212 23583 net.cpp:434] pool1 <- conv1
I0414 06:30:12.846217 23583 net.cpp:408] pool1 -> pool1
I0414 06:30:12.846266 23583 net.cpp:150] Setting up pool1
I0414 06:30:12.846273 23583 net.cpp:157] Top shape: 1024 100 21 21 (45158400)
I0414 06:30:12.846277 23583 net.cpp:165] Memory required for data: 3099099136
I0414 06:30:12.846282 23583 layer_factory.hpp:77] Creating layer conv2
I0414 06:30:12.846292 23583 net.cpp:100] Creating Layer conv2
I0414 06:30:12.846297 23583 net.cpp:434] conv2 <- pool1
I0414 06:30:12.846302 23583 net.cpp:408] conv2 -> conv2
I0414 06:30:12.859115 23583 net.cpp:150] Setting up conv2
I0414 06:30:12.859134 23583 net.cpp:157] Top shape: 1024 150 18 18 (49766400)
I0414 06:30:12.859138 23583 net.cpp:165] Memory required for data: 3298164736
I0414 06:30:12.859149 23583 layer_factory.hpp:77] Creating layer conv2_prescale
I0414 06:30:12.859160 23583 net.cpp:100] Creating Layer conv2_prescale
I0414 06:30:12.859164 23583 net.cpp:434] conv2_prescale <- conv2
I0414 06:30:12.859170 23583 net.cpp:395] conv2_prescale -> conv2 (in-place)
I0414 06:30:12.859282 23583 net.cpp:150] Setting up conv2_prescale
I0414 06:30:12.859292 23583 net.cpp:157] Top shape: 1024 150 18 18 (49766400)
I0414 06:30:12.859295 23583 net.cpp:165] Memory required for data: 3497230336
I0414 06:30:12.859300 23583 layer_factory.hpp:77] Creating layer conv2_sTanH
I0414 06:30:12.859305 23583 net.cpp:100] Creating Layer conv2_sTanH
I0414 06:30:12.859310 23583 net.cpp:434] conv2_sTanH <- conv2
I0414 06:30:12.859315 23583 net.cpp:395] conv2_sTanH -> conv2 (in-place)
I0414 06:30:12.861606 23583 net.cpp:150] Setting up conv2_sTanH
I0414 06:30:12.861624 23583 net.cpp:157] Top shape: 1024 150 18 18 (49766400)
I0414 06:30:12.861629 23583 net.cpp:165] Memory required for data: 3696295936
I0414 06:30:12.861632 23583 layer_factory.hpp:77] Creating layer conv2_postscale
I0414 06:30:12.861640 23583 net.cpp:100] Creating Layer conv2_postscale
I0414 06:30:12.861645 23583 net.cpp:434] conv2_postscale <- conv2
I0414 06:30:12.861651 23583 net.cpp:395] conv2_postscale -> conv2 (in-place)
I0414 06:30:12.861745 23583 net.cpp:150] Setting up conv2_postscale
I0414 06:30:12.861754 23583 net.cpp:157] Top shape: 1024 150 18 18 (49766400)
I0414 06:30:12.861757 23583 net.cpp:165] Memory required for data: 3895361536
I0414 06:30:12.861763 23583 layer_factory.hpp:77] Creating layer pool2
I0414 06:30:12.861770 23583 net.cpp:100] Creating Layer pool2
I0414 06:30:12.861775 23583 net.cpp:434] pool2 <- conv2
I0414 06:30:12.861781 23583 net.cpp:408] pool2 -> pool2
I0414 06:30:12.861821 23583 net.cpp:150] Setting up pool2
I0414 06:30:12.861829 23583 net.cpp:157] Top shape: 1024 150 9 9 (12441600)
I0414 06:30:12.861834 23583 net.cpp:165] Memory required for data: 3945127936
I0414 06:30:12.861836 23583 layer_factory.hpp:77] Creating layer conv3
I0414 06:30:12.861845 23583 net.cpp:100] Creating Layer conv3
I0414 06:30:12.861850 23583 net.cpp:434] conv3 <- pool2
I0414 06:30:12.861855 23583 net.cpp:408] conv3 -> conv3
I0414 06:30:12.868674 23583 net.cpp:150] Setting up conv3
I0414 06:30:12.868695 23583 net.cpp:157] Top shape: 1024 250 6 6 (9216000)
I0414 06:30:12.868698 23583 net.cpp:165] Memory required for data: 3981991936
I0414 06:30:12.868710 23583 layer_factory.hpp:77] Creating layer conv3_prescale
I0414 06:30:12.868734 23583 net.cpp:100] Creating Layer conv3_prescale
I0414 06:30:12.868742 23583 net.cpp:434] conv3_prescale <- conv3
I0414 06:30:12.868748 23583 net.cpp:395] conv3_prescale -> conv3 (in-place)
I0414 06:30:12.868839 23583 net.cpp:150] Setting up conv3_prescale
I0414 06:30:12.868846 23583 net.cpp:157] Top shape: 1024 250 6 6 (9216000)
I0414 06:30:12.868850 23583 net.cpp:165] Memory required for data: 4018855936
I0414 06:30:12.868855 23583 layer_factory.hpp:77] Creating layer conv3_sTanH
I0414 06:30:12.868862 23583 net.cpp:100] Creating Layer conv3_sTanH
I0414 06:30:12.868866 23583 net.cpp:434] conv3_sTanH <- conv3
I0414 06:30:12.868871 23583 net.cpp:395] conv3_sTanH -> conv3 (in-place)
I0414 06:30:12.870425 23583 net.cpp:150] Setting up conv3_sTanH
I0414 06:30:12.870443 23583 net.cpp:157] Top shape: 1024 250 6 6 (9216000)
I0414 06:30:12.870448 23583 net.cpp:165] Memory required for data: 4055719936
I0414 06:30:12.870452 23583 layer_factory.hpp:77] Creating layer conv3_postscale
I0414 06:30:12.870460 23583 net.cpp:100] Creating Layer conv3_postscale
I0414 06:30:12.870466 23583 net.cpp:434] conv3_postscale <- conv3
I0414 06:30:12.870472 23583 net.cpp:395] conv3_postscale -> conv3 (in-place)
I0414 06:30:12.870569 23583 net.cpp:150] Setting up conv3_postscale
I0414 06:30:12.870578 23583 net.cpp:157] Top shape: 1024 250 6 6 (9216000)
I0414 06:30:12.870581 23583 net.cpp:165] Memory required for data: 4092583936
I0414 06:30:12.870587 23583 layer_factory.hpp:77] Creating layer pool3
I0414 06:30:12.870597 23583 net.cpp:100] Creating Layer pool3
I0414 06:30:12.870602 23583 net.cpp:434] pool3 <- conv3
I0414 06:30:12.870607 23583 net.cpp:408] pool3 -> pool3
I0414 06:30:12.870646 23583 net.cpp:150] Setting up pool3
I0414 06:30:12.870653 23583 net.cpp:157] Top shape: 1024 250 3 3 (2304000)
I0414 06:30:12.870658 23583 net.cpp:165] Memory required for data: 4101799936
I0414 06:30:12.870661 23583 layer_factory.hpp:77] Creating layer fc4_300
I0414 06:30:12.870668 23583 net.cpp:100] Creating Layer fc4_300
I0414 06:30:12.870673 23583 net.cpp:434] fc4_300 <- pool3
I0414 06:30:12.870678 23583 net.cpp:408] fc4_300 -> fc4_300
I0414 06:30:12.877231 23583 net.cpp:150] Setting up fc4_300
I0414 06:30:12.877249 23583 net.cpp:157] Top shape: 1024 300 (307200)
I0414 06:30:12.877254 23583 net.cpp:165] Memory required for data: 4103028736
I0414 06:30:12.877261 23583 layer_factory.hpp:77] Creating layer fc4_prescale
I0414 06:30:12.877269 23583 net.cpp:100] Creating Layer fc4_prescale
I0414 06:30:12.877274 23583 net.cpp:434] fc4_prescale <- fc4_300
I0414 06:30:12.877281 23583 net.cpp:395] fc4_prescale -> fc4_300 (in-place)
I0414 06:30:12.877370 23583 net.cpp:150] Setting up fc4_prescale
I0414 06:30:12.877378 23583 net.cpp:157] Top shape: 1024 300 (307200)
I0414 06:30:12.877382 23583 net.cpp:165] Memory required for data: 4104257536
I0414 06:30:12.877387 23583 layer_factory.hpp:77] Creating layer fc4_sTanH
I0414 06:30:12.877393 23583 net.cpp:100] Creating Layer fc4_sTanH
I0414 06:30:12.877398 23583 net.cpp:434] fc4_sTanH <- fc4_300
I0414 06:30:12.877403 23583 net.cpp:395] fc4_sTanH -> fc4_300 (in-place)
I0414 06:30:12.877581 23583 net.cpp:150] Setting up fc4_sTanH
I0414 06:30:12.877591 23583 net.cpp:157] Top shape: 1024 300 (307200)
I0414 06:30:12.877596 23583 net.cpp:165] Memory required for data: 4105486336
I0414 06:30:12.877599 23583 layer_factory.hpp:77] Creating layer fc4_postscale
I0414 06:30:12.877606 23583 net.cpp:100] Creating Layer fc4_postscale
I0414 06:30:12.877611 23583 net.cpp:434] fc4_postscale <- fc4_300
I0414 06:30:12.877616 23583 net.cpp:395] fc4_postscale -> fc4_300 (in-place)
I0414 06:30:12.877708 23583 net.cpp:150] Setting up fc4_postscale
I0414 06:30:12.877717 23583 net.cpp:157] Top shape: 1024 300 (307200)
I0414 06:30:12.877722 23583 net.cpp:165] Memory required for data: 4106715136
I0414 06:30:12.877727 23583 layer_factory.hpp:77] Creating layer fc5_67
I0414 06:30:12.877735 23583 net.cpp:100] Creating Layer fc5_67
I0414 06:30:12.877740 23583 net.cpp:434] fc5_67 <- fc4_300
I0414 06:30:12.877745 23583 net.cpp:408] fc5_67 -> fc5_classes
I0414 06:30:12.879983 23583 net.cpp:150] Setting up fc5_67
I0414 06:30:12.879999 23583 net.cpp:157] Top shape: 1024 67 (68608)
I0414 06:30:12.880004 23583 net.cpp:165] Memory required for data: 4106989568
I0414 06:30:12.880017 23583 layer_factory.hpp:77] Creating layer fc5_classes_fc5_67_0_split
I0414 06:30:12.880024 23583 net.cpp:100] Creating Layer fc5_classes_fc5_67_0_split
I0414 06:30:12.880029 23583 net.cpp:434] fc5_classes_fc5_67_0_split <- fc5_classes
I0414 06:30:12.880035 23583 net.cpp:408] fc5_classes_fc5_67_0_split -> fc5_classes_fc5_67_0_split_0
I0414 06:30:12.880045 23583 net.cpp:408] fc5_classes_fc5_67_0_split -> fc5_classes_fc5_67_0_split_1
I0414 06:30:12.880053 23583 net.cpp:408] fc5_classes_fc5_67_0_split -> fc5_classes_fc5_67_0_split_2
I0414 06:30:12.880102 23583 net.cpp:150] Setting up fc5_classes_fc5_67_0_split
I0414 06:30:12.880110 23583 net.cpp:157] Top shape: 1024 67 (68608)
I0414 06:30:12.880113 23583 net.cpp:157] Top shape: 1024 67 (68608)
I0414 06:30:12.880116 23583 net.cpp:157] Top shape: 1024 67 (68608)
I0414 06:30:12.880120 23583 net.cpp:165] Memory required for data: 4107812864
I0414 06:30:12.880122 23583 layer_factory.hpp:77] Creating layer softmax
I0414 06:30:12.880128 23583 net.cpp:100] Creating Layer softmax
I0414 06:30:12.880132 23583 net.cpp:434] softmax <- fc5_classes_fc5_67_0_split_0
I0414 06:30:12.880138 23583 net.cpp:408] softmax -> softmax
I0414 06:30:12.880381 23583 net.cpp:150] Setting up softmax
I0414 06:30:12.880393 23583 net.cpp:157] Top shape: 1024 67 (68608)
I0414 06:30:12.880398 23583 net.cpp:165] Memory required for data: 4108087296
I0414 06:30:12.880400 23583 layer_factory.hpp:77] Creating layer loss
I0414 06:30:12.880408 23583 net.cpp:100] Creating Layer loss
I0414 06:30:12.880412 23583 net.cpp:434] loss <- softmax
I0414 06:30:12.880416 23583 net.cpp:434] loss <- label_data_1_split_0
I0414 06:30:12.880422 23583 net.cpp:408] loss -> loss
…
