…
I0417 19:41:50.173480 28337 solver.cpp:93] Creating training net from train_net file: ./Prototxt/experiment_11/rtsd-r1/histeq/trial_4/train.prototxt
I0417 19:41:50.174185 28337 net.cpp:58] Initializing net from parameters: 
state {
  phase: TRAIN
  level: 0
  stage: ""
}
layer {
  name: "data"
  type: "Data"
  top: "data"
  top: "label"
  include {
    phase: TRAIN
  }
  transform_param {
    scale: 0.0039215689
    mirror: false
    crop_size: 48
    mean_value: 130
    mean_value: 123
    mean_value: 137
  }
  data_param {
    source: "../local_data/lmdb/rtsd-r1/histeq/train/lmdb"
    batch_size: 1024
    backend: LMDB
  }
}
layer {
  name: "conv1"
  type: "Convolution"
  bottom: "data"
  top: "conv1"
  convolution_param {
    num_output: 100
    pad: 0
    kernel_size: 7
    group: 1
    stride: 1
    weight_filler {
      type: "xavier"
    }
  }
}
layer {
  name: "conv1_prescale"
  type: "Scale"
  bottom: "conv1"
  top: "conv1"
  param {
    lr_mult: 0
    decay_mult: 0
  }
  scale_param {
    filler {
      value: 0.6666
    }
    bias_term: false
  }
}
layer {
  name: "conv1_sTanH"
  type: "TanH"
  bottom: "conv1"
  top: "conv1"
}
layer {
  name: "conv1_postscale"
  type: "Scale"
  bottom: "conv1"
  top: "conv1"
  param {
    lr_mult: 0
    decay_mult: 0
  }
  scale_param {
    filler {
      value: 1.7159
    }
    bias_term: false
  }
}
layer {
  name: "pool1"
  type: "Pooling"
  bottom: "conv1"
  top: "pool1"
  pooling_param {
    pool: MAX
    kernel_size: 2
    stride: 2
  }
}
layer {
  name: "conv2"
  type: "Convolution"
  bottom: "pool1"
  top: "conv2"
  convolution_param {
    num_output: 150
    pad: 0
    kernel_size: 4
    group: 1
    stride: 1
    weight_filler {
      type: "xavier"
    }
  }
}
layer {
  name: "conv2_prescale"
  type: "Scale"
  bottom: "conv2"
  top: "conv2"
  param {
    lr_mult: 0
    decay_mult: 0
  }
  scale_param {
    filler {
      value: 0.6666
    }
    bias_term: false
  }
}
layer {
  name: "conv2_sTanH"
  type: "TanH"
  bottom: "conv2"
  top: "conv2"
}
layer {
  name: "conv2_postscale"
  type: "Scale"
  bottom: "conv2"
  top: "conv2"
  param {
    lr_mult: 0
    decay_mult: 0
  }
  scale_param {
    filler {
      value: 1.7159
    }
    bias_term: false
  }
}
layer {
  name: "pool2"
  type: "Pooling"
  bottom: "conv2"
  top: "pool2"
  pooling_param {
    pool: MAX
    kernel_size: 2
    stride: 2
  }
}
layer {
  name: "conv3"
  type: "Convolution"
  bottom: "pool2"
  top: "conv3"
  convolution_param {
    num_output: 250
    pad: 0
    kernel_size: 4
    group: 1
    stride: 1
    weight_filler {
      type: "xavier"
    }
  }
}
layer {
  name: "conv3_prescale"
  type: "Scale"
  bottom: "conv3"
  top: "conv3"
  param {
    lr_mult: 0
    decay_mult: 0
  }
  scale_param {
    filler {
      value: 0.6666
    }
    bias_term: false
  }
}
layer {
  name: "conv3_sTanH"
  type: "TanH"
  bottom: "conv3"
  top: "conv3"
}
layer {
  name: "conv3_postscale"
  type: "Scale"
  bottom: "conv3"
  top: "conv3"
  param {
    lr_mult: 0
    decay_mult: 0
  }
  scale_param {
    filler {
      value: 1.7159
    }
    bias_term: false
  }
}
layer {
  name: "pool3"
  type: "Pooling"
  bottom: "conv3"
  top: "pool3"
  pooling_param {
    pool: MAX
    kernel_size: 2
    stride: 2
  }
}
layer {
  name: "fc4_300"
  type: "InnerProduct"
  bottom: "pool3"
  top: "fc4_300"
  inner_product_param {
    num_output: 300
    weight_filler {
      type: "xavier"
    }
  }
}
layer {
  name: "fc4_prescale"
  type: "Scale"
  bottom: "fc4_300"
  top: "fc4_300"
  param {
    lr_mult: 0
    decay_mult: 0
  }
  scale_param {
    filler {
      value: 0.6666
    }
    bias_term: false
  }
}
layer {
  name: "fc4_sTanH"
  type: "TanH"
  bottom: "fc4_300"
  top: "fc4_300"
}
layer {
  name: "fc4_postscale"
  type: "Scale"
  bottom: "fc4_300"
  top: "fc4_300"
  param {
    lr_mult: 0
    decay_mult: 0
  }
  scale_param {
    filler {
      value: 1.7159
    }
    bias_term: false
  }
}
layer {
  name: "fc5_67"
  type: "InnerProduct"
  bottom: "fc4_300"
  top: "fc5_classes"
  inner_product_param {
    num_output: 67
    weight_filler {
      type: "xavier"
    }
  }
}
layer {
  name: "softmax"
  type: "Softmax"
  bottom: "fc5_classes"
  top: "softmax"
}
layer {
  name: "loss"
  type: "MultinomialLogisticLoss"
  bottom: "softmax"
  bottom: "label"
  top: "loss"
}
layer {
  name: "accuracy_1"
  type: "Accuracy"
  bottom: "fc5_classes"
  bottom: "label"
  top: "accuracy_1"
  accuracy_param {
    top_k: 1
  }
}
layer {
  name: "accuracy_5"
  type: "Accuracy"
  bottom: "fc5_classes"
  bottom: "label"
  top: "accuracy_5"
  accuracy_param {
    top_k: 5
  }
}
layer {
  name: "silence"
  type: "Silence"
  bottom: "accuracy_1"
  bottom: "accuracy_5"
}
I0417 19:41:50.174474 28337 layer_factory.hpp:77] Creating layer data
I0417 19:41:50.209409 28337 net.cpp:100] Creating Layer data
I0417 19:41:50.209441 28337 net.cpp:408] data -> data
I0417 19:41:50.209468 28337 net.cpp:408] data -> label
I0417 19:41:50.223585 28539 db_lmdb.cpp:35] Opened lmdb ../local_data/lmdb/rtsd-r1/histeq/train/lmdb
I0417 19:41:50.241693 28337 data_layer.cpp:41] output data size: 1024,3,48,48
I0417 19:41:50.311180 28337 net.cpp:150] Setting up data
I0417 19:41:50.311245 28337 net.cpp:157] Top shape: 1024 3 48 48 (7077888)
I0417 19:41:50.311267 28337 net.cpp:157] Top shape: 1024 (1024)
I0417 19:41:50.311280 28337 net.cpp:165] Memory required for data: 28315648
I0417 19:41:50.311311 28337 layer_factory.hpp:77] Creating layer label_data_1_split
I0417 19:41:50.311348 28337 net.cpp:100] Creating Layer label_data_1_split
I0417 19:41:50.311369 28337 net.cpp:434] label_data_1_split <- label
I0417 19:41:50.311406 28337 net.cpp:408] label_data_1_split -> label_data_1_split_0
I0417 19:41:50.311451 28337 net.cpp:408] label_data_1_split -> label_data_1_split_1
I0417 19:41:50.311480 28337 net.cpp:408] label_data_1_split -> label_data_1_split_2
I0417 19:41:50.311604 28337 net.cpp:150] Setting up label_data_1_split
I0417 19:41:50.311627 28337 net.cpp:157] Top shape: 1024 (1024)
I0417 19:41:50.311637 28337 net.cpp:157] Top shape: 1024 (1024)
I0417 19:41:50.311651 28337 net.cpp:157] Top shape: 1024 (1024)
I0417 19:41:50.311664 28337 net.cpp:165] Memory required for data: 28327936
I0417 19:41:50.311676 28337 layer_factory.hpp:77] Creating layer conv1
I0417 19:41:50.311710 28337 net.cpp:100] Creating Layer conv1
I0417 19:41:50.311722 28337 net.cpp:434] conv1 <- data
I0417 19:41:50.311733 28337 net.cpp:408] conv1 -> conv1
I0417 19:41:50.740206 28337 net.cpp:150] Setting up conv1
I0417 19:41:50.740234 28337 net.cpp:157] Top shape: 1024 100 42 42 (180633600)
I0417 19:41:50.740238 28337 net.cpp:165] Memory required for data: 750862336
I0417 19:41:50.740259 28337 layer_factory.hpp:77] Creating layer conv1_prescale
I0417 19:41:50.740273 28337 net.cpp:100] Creating Layer conv1_prescale
I0417 19:41:50.740278 28337 net.cpp:434] conv1_prescale <- conv1
I0417 19:41:50.740284 28337 net.cpp:395] conv1_prescale -> conv1 (in-place)
I0417 19:41:50.740393 28337 net.cpp:150] Setting up conv1_prescale
I0417 19:41:50.740402 28337 net.cpp:157] Top shape: 1024 100 42 42 (180633600)
I0417 19:41:50.740406 28337 net.cpp:165] Memory required for data: 1473396736
I0417 19:41:50.740412 28337 layer_factory.hpp:77] Creating layer conv1_sTanH
I0417 19:41:50.740422 28337 net.cpp:100] Creating Layer conv1_sTanH
I0417 19:41:50.740425 28337 net.cpp:434] conv1_sTanH <- conv1
I0417 19:41:50.740429 28337 net.cpp:395] conv1_sTanH -> conv1 (in-place)
I0417 19:41:50.740622 28337 net.cpp:150] Setting up conv1_sTanH
I0417 19:41:50.740654 28337 net.cpp:157] Top shape: 1024 100 42 42 (180633600)
I0417 19:41:50.740658 28337 net.cpp:165] Memory required for data: 2195931136
I0417 19:41:50.740661 28337 layer_factory.hpp:77] Creating layer conv1_postscale
I0417 19:41:50.740669 28337 net.cpp:100] Creating Layer conv1_postscale
I0417 19:41:50.740671 28337 net.cpp:434] conv1_postscale <- conv1
I0417 19:41:50.740677 28337 net.cpp:395] conv1_postscale -> conv1 (in-place)
I0417 19:41:50.740772 28337 net.cpp:150] Setting up conv1_postscale
I0417 19:41:50.740780 28337 net.cpp:157] Top shape: 1024 100 42 42 (180633600)
I0417 19:41:50.740783 28337 net.cpp:165] Memory required for data: 2918465536
I0417 19:41:50.740788 28337 layer_factory.hpp:77] Creating layer pool1
I0417 19:41:50.740794 28337 net.cpp:100] Creating Layer pool1
I0417 19:41:50.740797 28337 net.cpp:434] pool1 <- conv1
I0417 19:41:50.740802 28337 net.cpp:408] pool1 -> pool1
I0417 19:41:50.740849 28337 net.cpp:150] Setting up pool1
I0417 19:41:50.740856 28337 net.cpp:157] Top shape: 1024 100 21 21 (45158400)
I0417 19:41:50.740859 28337 net.cpp:165] Memory required for data: 3099099136
I0417 19:41:50.740862 28337 layer_factory.hpp:77] Creating layer conv2
I0417 19:41:50.740871 28337 net.cpp:100] Creating Layer conv2
I0417 19:41:50.740880 28337 net.cpp:434] conv2 <- pool1
I0417 19:41:50.740885 28337 net.cpp:408] conv2 -> conv2
I0417 19:41:50.750098 28337 net.cpp:150] Setting up conv2
I0417 19:41:50.750115 28337 net.cpp:157] Top shape: 1024 150 18 18 (49766400)
I0417 19:41:50.750119 28337 net.cpp:165] Memory required for data: 3298164736
I0417 19:41:50.750129 28337 layer_factory.hpp:77] Creating layer conv2_prescale
I0417 19:41:50.750144 28337 net.cpp:100] Creating Layer conv2_prescale
I0417 19:41:50.750151 28337 net.cpp:434] conv2_prescale <- conv2
I0417 19:41:50.750159 28337 net.cpp:395] conv2_prescale -> conv2 (in-place)
I0417 19:41:50.750277 28337 net.cpp:150] Setting up conv2_prescale
I0417 19:41:50.750288 28337 net.cpp:157] Top shape: 1024 150 18 18 (49766400)
I0417 19:41:50.750293 28337 net.cpp:165] Memory required for data: 3497230336
I0417 19:41:50.750298 28337 layer_factory.hpp:77] Creating layer conv2_sTanH
I0417 19:41:50.750303 28337 net.cpp:100] Creating Layer conv2_sTanH
I0417 19:41:50.750306 28337 net.cpp:434] conv2_sTanH <- conv2
I0417 19:41:50.750311 28337 net.cpp:395] conv2_sTanH -> conv2 (in-place)
I0417 19:41:50.752305 28337 net.cpp:150] Setting up conv2_sTanH
I0417 19:41:50.752323 28337 net.cpp:157] Top shape: 1024 150 18 18 (49766400)
I0417 19:41:50.752328 28337 net.cpp:165] Memory required for data: 3696295936
I0417 19:41:50.752333 28337 layer_factory.hpp:77] Creating layer conv2_postscale
I0417 19:41:50.752343 28337 net.cpp:100] Creating Layer conv2_postscale
I0417 19:41:50.752348 28337 net.cpp:434] conv2_postscale <- conv2
I0417 19:41:50.752354 28337 net.cpp:395] conv2_postscale -> conv2 (in-place)
I0417 19:41:50.752456 28337 net.cpp:150] Setting up conv2_postscale
I0417 19:41:50.752470 28337 net.cpp:157] Top shape: 1024 150 18 18 (49766400)
I0417 19:41:50.752473 28337 net.cpp:165] Memory required for data: 3895361536
I0417 19:41:50.752480 28337 layer_factory.hpp:77] Creating layer pool2
I0417 19:41:50.752485 28337 net.cpp:100] Creating Layer pool2
I0417 19:41:50.752488 28337 net.cpp:434] pool2 <- conv2
I0417 19:41:50.752493 28337 net.cpp:408] pool2 -> pool2
I0417 19:41:50.752540 28337 net.cpp:150] Setting up pool2
I0417 19:41:50.752549 28337 net.cpp:157] Top shape: 1024 150 9 9 (12441600)
I0417 19:41:50.752552 28337 net.cpp:165] Memory required for data: 3945127936
I0417 19:41:50.752555 28337 layer_factory.hpp:77] Creating layer conv3
I0417 19:41:50.752564 28337 net.cpp:100] Creating Layer conv3
I0417 19:41:50.752569 28337 net.cpp:434] conv3 <- pool2
I0417 19:41:50.752574 28337 net.cpp:408] conv3 -> conv3
I0417 19:41:50.758641 28337 net.cpp:150] Setting up conv3
I0417 19:41:50.758661 28337 net.cpp:157] Top shape: 1024 250 6 6 (9216000)
I0417 19:41:50.758664 28337 net.cpp:165] Memory required for data: 3981991936
I0417 19:41:50.758675 28337 layer_factory.hpp:77] Creating layer conv3_prescale
I0417 19:41:50.758697 28337 net.cpp:100] Creating Layer conv3_prescale
I0417 19:41:50.758703 28337 net.cpp:434] conv3_prescale <- conv3
I0417 19:41:50.758713 28337 net.cpp:395] conv3_prescale -> conv3 (in-place)
I0417 19:41:50.758823 28337 net.cpp:150] Setting up conv3_prescale
I0417 19:41:50.758833 28337 net.cpp:157] Top shape: 1024 250 6 6 (9216000)
I0417 19:41:50.758838 28337 net.cpp:165] Memory required for data: 4018855936
I0417 19:41:50.758843 28337 layer_factory.hpp:77] Creating layer conv3_sTanH
I0417 19:41:50.758853 28337 net.cpp:100] Creating Layer conv3_sTanH
I0417 19:41:50.758862 28337 net.cpp:434] conv3_sTanH <- conv3
I0417 19:41:50.758867 28337 net.cpp:395] conv3_sTanH -> conv3 (in-place)
I0417 19:41:50.761026 28337 net.cpp:150] Setting up conv3_sTanH
I0417 19:41:50.761045 28337 net.cpp:157] Top shape: 1024 250 6 6 (9216000)
I0417 19:41:50.761050 28337 net.cpp:165] Memory required for data: 4055719936
I0417 19:41:50.761054 28337 layer_factory.hpp:77] Creating layer conv3_postscale
I0417 19:41:50.761060 28337 net.cpp:100] Creating Layer conv3_postscale
I0417 19:41:50.761065 28337 net.cpp:434] conv3_postscale <- conv3
I0417 19:41:50.761071 28337 net.cpp:395] conv3_postscale -> conv3 (in-place)
I0417 19:41:50.761183 28337 net.cpp:150] Setting up conv3_postscale
I0417 19:41:50.761193 28337 net.cpp:157] Top shape: 1024 250 6 6 (9216000)
I0417 19:41:50.761198 28337 net.cpp:165] Memory required for data: 4092583936
I0417 19:41:50.761204 28337 layer_factory.hpp:77] Creating layer pool3
I0417 19:41:50.761214 28337 net.cpp:100] Creating Layer pool3
I0417 19:41:50.761219 28337 net.cpp:434] pool3 <- conv3
I0417 19:41:50.761224 28337 net.cpp:408] pool3 -> pool3
I0417 19:41:50.761270 28337 net.cpp:150] Setting up pool3
I0417 19:41:50.761279 28337 net.cpp:157] Top shape: 1024 250 3 3 (2304000)
I0417 19:41:50.761282 28337 net.cpp:165] Memory required for data: 4101799936
I0417 19:41:50.761286 28337 layer_factory.hpp:77] Creating layer fc4_300
I0417 19:41:50.761293 28337 net.cpp:100] Creating Layer fc4_300
I0417 19:41:50.761299 28337 net.cpp:434] fc4_300 <- pool3
I0417 19:41:50.761306 28337 net.cpp:408] fc4_300 -> fc4_300
I0417 19:41:50.769299 28337 net.cpp:150] Setting up fc4_300
I0417 19:41:50.769315 28337 net.cpp:157] Top shape: 1024 300 (307200)
I0417 19:41:50.769320 28337 net.cpp:165] Memory required for data: 4103028736
I0417 19:41:50.769330 28337 layer_factory.hpp:77] Creating layer fc4_prescale
I0417 19:41:50.769340 28337 net.cpp:100] Creating Layer fc4_prescale
I0417 19:41:50.769345 28337 net.cpp:434] fc4_prescale <- fc4_300
I0417 19:41:50.769351 28337 net.cpp:395] fc4_prescale -> fc4_300 (in-place)
I0417 19:41:50.769449 28337 net.cpp:150] Setting up fc4_prescale
I0417 19:41:50.769461 28337 net.cpp:157] Top shape: 1024 300 (307200)
I0417 19:41:50.769467 28337 net.cpp:165] Memory required for data: 4104257536
I0417 19:41:50.769472 28337 layer_factory.hpp:77] Creating layer fc4_sTanH
I0417 19:41:50.769477 28337 net.cpp:100] Creating Layer fc4_sTanH
I0417 19:41:50.769482 28337 net.cpp:434] fc4_sTanH <- fc4_300
I0417 19:41:50.769490 28337 net.cpp:395] fc4_sTanH -> fc4_300 (in-place)
I0417 19:41:50.769695 28337 net.cpp:150] Setting up fc4_sTanH
I0417 19:41:50.769707 28337 net.cpp:157] Top shape: 1024 300 (307200)
I0417 19:41:50.769711 28337 net.cpp:165] Memory required for data: 4105486336
I0417 19:41:50.769714 28337 layer_factory.hpp:77] Creating layer fc4_postscale
I0417 19:41:50.769722 28337 net.cpp:100] Creating Layer fc4_postscale
I0417 19:41:50.769728 28337 net.cpp:434] fc4_postscale <- fc4_300
I0417 19:41:50.769742 28337 net.cpp:395] fc4_postscale -> fc4_300 (in-place)
I0417 19:41:50.769850 28337 net.cpp:150] Setting up fc4_postscale
I0417 19:41:50.769858 28337 net.cpp:157] Top shape: 1024 300 (307200)
I0417 19:41:50.769861 28337 net.cpp:165] Memory required for data: 4106715136
I0417 19:41:50.769866 28337 layer_factory.hpp:77] Creating layer fc5_67
I0417 19:41:50.769879 28337 net.cpp:100] Creating Layer fc5_67
I0417 19:41:50.769884 28337 net.cpp:434] fc5_67 <- fc4_300
I0417 19:41:50.769889 28337 net.cpp:408] fc5_67 -> fc5_classes
I0417 19:41:50.773169 28337 net.cpp:150] Setting up fc5_67
I0417 19:41:50.773183 28337 net.cpp:157] Top shape: 1024 67 (68608)
I0417 19:41:50.773186 28337 net.cpp:165] Memory required for data: 4106989568
I0417 19:41:50.773198 28337 layer_factory.hpp:77] Creating layer fc5_classes_fc5_67_0_split
I0417 19:41:50.773207 28337 net.cpp:100] Creating Layer fc5_classes_fc5_67_0_split
I0417 19:41:50.773213 28337 net.cpp:434] fc5_classes_fc5_67_0_split <- fc5_classes
I0417 19:41:50.773218 28337 net.cpp:408] fc5_classes_fc5_67_0_split -> fc5_classes_fc5_67_0_split_0
I0417 19:41:50.773226 28337 net.cpp:408] fc5_classes_fc5_67_0_split -> fc5_classes_fc5_67_0_split_1
I0417 19:41:50.773232 28337 net.cpp:408] fc5_classes_fc5_67_0_split -> fc5_classes_fc5_67_0_split_2
I0417 19:41:50.773284 28337 net.cpp:150] Setting up fc5_classes_fc5_67_0_split
I0417 19:41:50.773291 28337 net.cpp:157] Top shape: 1024 67 (68608)
I0417 19:41:50.773294 28337 net.cpp:157] Top shape: 1024 67 (68608)
I0417 19:41:50.773298 28337 net.cpp:157] Top shape: 1024 67 (68608)
I0417 19:41:50.773299 28337 net.cpp:165] Memory required for data: 4107812864
I0417 19:41:50.773303 28337 layer_factory.hpp:77] Creating layer softmax
I0417 19:41:50.773310 28337 net.cpp:100] Creating Layer softmax
I0417 19:41:50.773315 28337 net.cpp:434] softmax <- fc5_classes_fc5_67_0_split_0
I0417 19:41:50.773320 28337 net.cpp:408] softmax -> softmax
I0417 19:41:50.773581 28337 net.cpp:150] Setting up softmax
I0417 19:41:50.773591 28337 net.cpp:157] Top shape: 1024 67 (68608)
I0417 19:41:50.773594 28337 net.cpp:165] Memory required for data: 4108087296
I0417 19:41:50.773598 28337 layer_factory.hpp:77] Creating layer loss
I0417 19:41:50.773605 28337 net.cpp:100] Creating Layer loss
I0417 19:41:50.773608 28337 net.cpp:434] loss <- softmax
I0417 19:41:50.773612 28337 net.cpp:434] loss <- label_data_1_split_0
I0417 19:41:50.773618 28337 net.cpp:408] loss -> loss
…
