…
I0411 02:41:07.054282 10464 net.cpp:322] The NetState phase (0) differed from the phase (1) specified by a rule in layer accuracy_5
I0411 02:41:07.054497 10464 net.cpp:58] Initializing net from parameters: 
state {
  phase: TRAIN
  level: 0
  stage: ""
}
layer {
  name: "data"
  type: "Data"
  top: "data"
  top: "label"
  include {
    phase: TRAIN
  }
  transform_param {
    scale: 0.0039215689
    mirror: false
    crop_size: 48
    mean_value: 132
    mean_value: 132
    mean_value: 131
  }
  data_param {
    source: "../local_data/lmdb/rtsd-r1/CoNorm/train/lmdb"
    batch_size: 1024
    backend: LMDB
  }
}
layer {
  name: "conv1"
  type: "Convolution"
  bottom: "data"
  top: "conv1"
  convolution_param {
    num_output: 100
    pad: 0
    kernel_size: 7
    group: 1
    stride: 1
    weight_filler {
      type: "xavier"
    }
  }
}
layer {
  name: "conv1_prescale"
  type: "Scale"
  bottom: "conv1"
  top: "conv1"
  param {
    lr_mult: 0
    decay_mult: 0
  }
  scale_param {
    filler {
      value: 0.6666
    }
    bias_term: false
  }
}
layer {
  name: "conv1_sTanH"
  type: "TanH"
  bottom: "conv1"
  top: "conv1"
}
layer {
  name: "conv1_postscale"
  type: "Scale"
  bottom: "conv1"
  top: "conv1"
  param {
    lr_mult: 0
    decay_mult: 0
  }
  scale_param {
    filler {
      value: 1.7159
    }
    bias_term: false
  }
}
layer {
  name: "pool1"
  type: "Pooling"
  bottom: "conv1"
  top: "pool1"
  pooling_param {
    pool: MAX
    kernel_size: 2
    stride: 2
  }
}
layer {
  name: "conv2"
  type: "Convolution"
  bottom: "pool1"
  top: "conv2"
  convolution_param {
    num_output: 150
    pad: 0
    kernel_size: 4
    group: 1
    stride: 1
    weight_filler {
      type: "xavier"
    }
  }
}
layer {
  name: "conv2_prescale"
  type: "Scale"
  bottom: "conv2"
  top: "conv2"
  param {
    lr_mult: 0
    decay_mult: 0
  }
  scale_param {
    filler {
      value: 0.6666
    }
    bias_term: false
  }
}
layer {
  name: "conv2_sTanH"
  type: "TanH"
  bottom: "conv2"
  top: "conv2"
}
layer {
  name: "conv2_postscale"
  type: "Scale"
  bottom: "conv2"
  top: "conv2"
  param {
    lr_mult: 0
    decay_mult: 0
  }
  scale_param {
    filler {
      value: 1.7159
    }
    bias_term: false
  }
}
layer {
  name: "pool2"
  type: "Pooling"
  bottom: "conv2"
  top: "pool2"
  pooling_param {
    pool: MAX
    kernel_size: 2
    stride: 2
  }
}
layer {
  name: "conv3"
  type: "Convolution"
  bottom: "pool2"
  top: "conv3"
  convolution_param {
    num_output: 250
    pad: 0
    kernel_size: 4
    group: 1
    stride: 1
    weight_filler {
      type: "xavier"
    }
  }
}
layer {
  name: "conv3_prescale"
  type: "Scale"
  bottom: "conv3"
  top: "conv3"
  param {
    lr_mult: 0
    decay_mult: 0
  }
  scale_param {
    filler {
      value: 0.6666
    }
    bias_term: false
  }
}
layer {
  name: "conv3_sTanH"
  type: "TanH"
  bottom: "conv3"
  top: "conv3"
}
layer {
  name: "conv3_postscale"
  type: "Scale"
  bottom: "conv3"
  top: "conv3"
  param {
    lr_mult: 0
    decay_mult: 0
  }
  scale_param {
    filler {
      value: 1.7159
    }
    bias_term: false
  }
}
layer {
  name: "pool3"
  type: "Pooling"
  bottom: "conv3"
  top: "pool3"
  pooling_param {
    pool: MAX
    kernel_size: 2
    stride: 2
  }
}
layer {
  name: "fc4_300"
  type: "InnerProduct"
  bottom: "pool3"
  top: "fc4_300"
  inner_product_param {
    num_output: 300
    weight_filler {
      type: "xavier"
    }
  }
}
layer {
  name: "fc4_prescale"
  type: "Scale"
  bottom: "fc4_300"
  top: "fc4_300"
  param {
    lr_mult: 0
    decay_mult: 0
  }
  scale_param {
    filler {
      value: 0.6666
    }
    bias_term: false
  }
}
layer {
  name: "fc4_sTanH"
  type: "TanH"
  bottom: "fc4_300"
  top: "fc4_300"
}
layer {
  name: "fc4_postscale"
  type: "Scale"
  bottom: "fc4_300"
  top: "fc4_300"
  param {
    lr_mult: 0
    decay_mult: 0
  }
  scale_param {
    filler {
      value: 1.7159
    }
    bias_term: false
  }
}
layer {
  name: "fc5_67"
  type: "InnerProduct"
  bottom: "fc4_300"
  top: "fc5_classes"
  inner_product_param {
    num_output: 67
    weight_filler {
      type: "xavier"
    }
  }
}
layer {
  name: "loss"
  type: "SoftmaxWithLoss"
  bottom: "fc5_classes"
  bottom: "label"
  top: "loss"
}
I0411 02:41:07.054641 10464 layer_factory.hpp:77] Creating layer data
I0411 02:41:07.056473 10464 net.cpp:100] Creating Layer data
I0411 02:41:07.056519 10464 net.cpp:408] data -> data
I0411 02:41:07.056555 10464 net.cpp:408] data -> label
I0411 02:41:07.064913 10574 db_lmdb.cpp:35] Opened lmdb ../local_data/lmdb/rtsd-r1/CoNorm/train/lmdb
I0411 02:41:07.103487 10464 data_layer.cpp:41] output data size: 1024,3,48,48
I0411 02:41:07.146978 10464 net.cpp:150] Setting up data
I0411 02:41:07.147014 10464 net.cpp:157] Top shape: 1024 3 48 48 (7077888)
I0411 02:41:07.147019 10464 net.cpp:157] Top shape: 1024 (1024)
I0411 02:41:07.147034 10464 net.cpp:165] Memory required for data: 28315648
I0411 02:41:07.147045 10464 layer_factory.hpp:77] Creating layer conv1
I0411 02:41:07.147073 10464 net.cpp:100] Creating Layer conv1
I0411 02:41:07.147081 10464 net.cpp:434] conv1 <- data
I0411 02:41:07.147094 10464 net.cpp:408] conv1 -> conv1
I0411 02:41:07.432147 10464 net.cpp:150] Setting up conv1
I0411 02:41:07.432178 10464 net.cpp:157] Top shape: 1024 100 42 42 (180633600)
I0411 02:41:07.432183 10464 net.cpp:165] Memory required for data: 750850048
I0411 02:41:07.432221 10464 layer_factory.hpp:77] Creating layer conv1_prescale
I0411 02:41:07.432242 10464 net.cpp:100] Creating Layer conv1_prescale
I0411 02:41:07.432247 10464 net.cpp:434] conv1_prescale <- conv1
I0411 02:41:07.432255 10464 net.cpp:395] conv1_prescale -> conv1 (in-place)
I0411 02:41:07.432384 10464 net.cpp:150] Setting up conv1_prescale
I0411 02:41:07.432396 10464 net.cpp:157] Top shape: 1024 100 42 42 (180633600)
I0411 02:41:07.432402 10464 net.cpp:165] Memory required for data: 1473384448
I0411 02:41:07.432413 10464 layer_factory.hpp:77] Creating layer conv1_sTanH
I0411 02:41:07.432422 10464 net.cpp:100] Creating Layer conv1_sTanH
I0411 02:41:07.432430 10464 net.cpp:434] conv1_sTanH <- conv1
I0411 02:41:07.432435 10464 net.cpp:395] conv1_sTanH -> conv1 (in-place)
I0411 02:41:07.432643 10464 net.cpp:150] Setting up conv1_sTanH
I0411 02:41:07.432657 10464 net.cpp:157] Top shape: 1024 100 42 42 (180633600)
I0411 02:41:07.432664 10464 net.cpp:165] Memory required for data: 2195918848
I0411 02:41:07.432672 10464 layer_factory.hpp:77] Creating layer conv1_postscale
I0411 02:41:07.432685 10464 net.cpp:100] Creating Layer conv1_postscale
I0411 02:41:07.432692 10464 net.cpp:434] conv1_postscale <- conv1
I0411 02:41:07.432698 10464 net.cpp:395] conv1_postscale -> conv1 (in-place)
I0411 02:41:07.432796 10464 net.cpp:150] Setting up conv1_postscale
I0411 02:41:07.432806 10464 net.cpp:157] Top shape: 1024 100 42 42 (180633600)
I0411 02:41:07.432812 10464 net.cpp:165] Memory required for data: 2918453248
I0411 02:41:07.432821 10464 layer_factory.hpp:77] Creating layer pool1
I0411 02:41:07.432842 10464 net.cpp:100] Creating Layer pool1
I0411 02:41:07.432848 10464 net.cpp:434] pool1 <- conv1
I0411 02:41:07.432854 10464 net.cpp:408] pool1 -> pool1
I0411 02:41:07.432907 10464 net.cpp:150] Setting up pool1
I0411 02:41:07.432917 10464 net.cpp:157] Top shape: 1024 100 21 21 (45158400)
I0411 02:41:07.432942 10464 net.cpp:165] Memory required for data: 3099086848
I0411 02:41:07.432951 10464 layer_factory.hpp:77] Creating layer conv2
I0411 02:41:07.432967 10464 net.cpp:100] Creating Layer conv2
I0411 02:41:07.432972 10464 net.cpp:434] conv2 <- pool1
I0411 02:41:07.432981 10464 net.cpp:408] conv2 -> conv2
I0411 02:41:07.437310 10464 net.cpp:150] Setting up conv2
I0411 02:41:07.437330 10464 net.cpp:157] Top shape: 1024 150 18 18 (49766400)
I0411 02:41:07.437335 10464 net.cpp:165] Memory required for data: 3298152448
I0411 02:41:07.437345 10464 layer_factory.hpp:77] Creating layer conv2_prescale
I0411 02:41:07.437355 10464 net.cpp:100] Creating Layer conv2_prescale
I0411 02:41:07.437361 10464 net.cpp:434] conv2_prescale <- conv2
I0411 02:41:07.437366 10464 net.cpp:395] conv2_prescale -> conv2 (in-place)
I0411 02:41:07.437469 10464 net.cpp:150] Setting up conv2_prescale
I0411 02:41:07.437479 10464 net.cpp:157] Top shape: 1024 150 18 18 (49766400)
I0411 02:41:07.437484 10464 net.cpp:165] Memory required for data: 3497218048
I0411 02:41:07.437489 10464 layer_factory.hpp:77] Creating layer conv2_sTanH
I0411 02:41:07.437495 10464 net.cpp:100] Creating Layer conv2_sTanH
I0411 02:41:07.437500 10464 net.cpp:434] conv2_sTanH <- conv2
I0411 02:41:07.437505 10464 net.cpp:395] conv2_sTanH -> conv2 (in-place)
I0411 02:41:07.438262 10464 net.cpp:150] Setting up conv2_sTanH
I0411 02:41:07.438280 10464 net.cpp:157] Top shape: 1024 150 18 18 (49766400)
I0411 02:41:07.438288 10464 net.cpp:165] Memory required for data: 3696283648
I0411 02:41:07.438297 10464 layer_factory.hpp:77] Creating layer conv2_postscale
I0411 02:41:07.438309 10464 net.cpp:100] Creating Layer conv2_postscale
I0411 02:41:07.438315 10464 net.cpp:434] conv2_postscale <- conv2
I0411 02:41:07.438323 10464 net.cpp:395] conv2_postscale -> conv2 (in-place)
I0411 02:41:07.438422 10464 net.cpp:150] Setting up conv2_postscale
I0411 02:41:07.438431 10464 net.cpp:157] Top shape: 1024 150 18 18 (49766400)
I0411 02:41:07.438436 10464 net.cpp:165] Memory required for data: 3895349248
I0411 02:41:07.438441 10464 layer_factory.hpp:77] Creating layer pool2
I0411 02:41:07.438449 10464 net.cpp:100] Creating Layer pool2
I0411 02:41:07.438453 10464 net.cpp:434] pool2 <- conv2
I0411 02:41:07.438458 10464 net.cpp:408] pool2 -> pool2
I0411 02:41:07.438501 10464 net.cpp:150] Setting up pool2
I0411 02:41:07.438509 10464 net.cpp:157] Top shape: 1024 150 9 9 (12441600)
I0411 02:41:07.438513 10464 net.cpp:165] Memory required for data: 3945115648
I0411 02:41:07.438516 10464 layer_factory.hpp:77] Creating layer conv3
I0411 02:41:07.438524 10464 net.cpp:100] Creating Layer conv3
I0411 02:41:07.438529 10464 net.cpp:434] conv3 <- pool2
I0411 02:41:07.438534 10464 net.cpp:408] conv3 -> conv3
I0411 02:41:07.443903 10464 net.cpp:150] Setting up conv3
I0411 02:41:07.443922 10464 net.cpp:157] Top shape: 1024 250 6 6 (9216000)
I0411 02:41:07.443928 10464 net.cpp:165] Memory required for data: 3981979648
I0411 02:41:07.443939 10464 layer_factory.hpp:77] Creating layer conv3_prescale
I0411 02:41:07.443953 10464 net.cpp:100] Creating Layer conv3_prescale
I0411 02:41:07.443960 10464 net.cpp:434] conv3_prescale <- conv3
I0411 02:41:07.443969 10464 net.cpp:395] conv3_prescale -> conv3 (in-place)
I0411 02:41:07.444069 10464 net.cpp:150] Setting up conv3_prescale
I0411 02:41:07.444079 10464 net.cpp:157] Top shape: 1024 250 6 6 (9216000)
I0411 02:41:07.444087 10464 net.cpp:165] Memory required for data: 4018843648
I0411 02:41:07.444093 10464 layer_factory.hpp:77] Creating layer conv3_sTanH
I0411 02:41:07.444102 10464 net.cpp:100] Creating Layer conv3_sTanH
I0411 02:41:07.444106 10464 net.cpp:434] conv3_sTanH <- conv3
I0411 02:41:07.444111 10464 net.cpp:395] conv3_sTanH -> conv3 (in-place)
I0411 02:41:07.444880 10464 net.cpp:150] Setting up conv3_sTanH
I0411 02:41:07.444897 10464 net.cpp:157] Top shape: 1024 250 6 6 (9216000)
I0411 02:41:07.444901 10464 net.cpp:165] Memory required for data: 4055707648
I0411 02:41:07.444917 10464 layer_factory.hpp:77] Creating layer conv3_postscale
I0411 02:41:07.444942 10464 net.cpp:100] Creating Layer conv3_postscale
I0411 02:41:07.444948 10464 net.cpp:434] conv3_postscale <- conv3
I0411 02:41:07.444954 10464 net.cpp:395] conv3_postscale -> conv3 (in-place)
I0411 02:41:07.445061 10464 net.cpp:150] Setting up conv3_postscale
I0411 02:41:07.445071 10464 net.cpp:157] Top shape: 1024 250 6 6 (9216000)
I0411 02:41:07.445075 10464 net.cpp:165] Memory required for data: 4092571648
I0411 02:41:07.445080 10464 layer_factory.hpp:77] Creating layer pool3
I0411 02:41:07.445088 10464 net.cpp:100] Creating Layer pool3
I0411 02:41:07.445093 10464 net.cpp:434] pool3 <- conv3
I0411 02:41:07.445101 10464 net.cpp:408] pool3 -> pool3
I0411 02:41:07.445143 10464 net.cpp:150] Setting up pool3
I0411 02:41:07.445152 10464 net.cpp:157] Top shape: 1024 250 3 3 (2304000)
I0411 02:41:07.445157 10464 net.cpp:165] Memory required for data: 4101787648
I0411 02:41:07.445159 10464 layer_factory.hpp:77] Creating layer fc4_300
I0411 02:41:07.445169 10464 net.cpp:100] Creating Layer fc4_300
I0411 02:41:07.445174 10464 net.cpp:434] fc4_300 <- pool3
I0411 02:41:07.445180 10464 net.cpp:408] fc4_300 -> fc4_300
I0411 02:41:07.450431 10464 net.cpp:150] Setting up fc4_300
I0411 02:41:07.450449 10464 net.cpp:157] Top shape: 1024 300 (307200)
I0411 02:41:07.450453 10464 net.cpp:165] Memory required for data: 4103016448
I0411 02:41:07.450460 10464 layer_factory.hpp:77] Creating layer fc4_prescale
I0411 02:41:07.450470 10464 net.cpp:100] Creating Layer fc4_prescale
I0411 02:41:07.450476 10464 net.cpp:434] fc4_prescale <- fc4_300
I0411 02:41:07.450494 10464 net.cpp:395] fc4_prescale -> fc4_300 (in-place)
I0411 02:41:07.450585 10464 net.cpp:150] Setting up fc4_prescale
I0411 02:41:07.450593 10464 net.cpp:157] Top shape: 1024 300 (307200)
I0411 02:41:07.450598 10464 net.cpp:165] Memory required for data: 4104245248
I0411 02:41:07.450603 10464 layer_factory.hpp:77] Creating layer fc4_sTanH
I0411 02:41:07.450608 10464 net.cpp:100] Creating Layer fc4_sTanH
I0411 02:41:07.450613 10464 net.cpp:434] fc4_sTanH <- fc4_300
I0411 02:41:07.450618 10464 net.cpp:395] fc4_sTanH -> fc4_300 (in-place)
I0411 02:41:07.450814 10464 net.cpp:150] Setting up fc4_sTanH
I0411 02:41:07.450827 10464 net.cpp:157] Top shape: 1024 300 (307200)
I0411 02:41:07.450831 10464 net.cpp:165] Memory required for data: 4105474048
I0411 02:41:07.450834 10464 layer_factory.hpp:77] Creating layer fc4_postscale
I0411 02:41:07.450842 10464 net.cpp:100] Creating Layer fc4_postscale
I0411 02:41:07.450847 10464 net.cpp:434] fc4_postscale <- fc4_300
I0411 02:41:07.450852 10464 net.cpp:395] fc4_postscale -> fc4_300 (in-place)
I0411 02:41:07.450953 10464 net.cpp:150] Setting up fc4_postscale
I0411 02:41:07.450963 10464 net.cpp:157] Top shape: 1024 300 (307200)
I0411 02:41:07.450965 10464 net.cpp:165] Memory required for data: 4106702848
I0411 02:41:07.450975 10464 layer_factory.hpp:77] Creating layer fc5_67
I0411 02:41:07.450983 10464 net.cpp:100] Creating Layer fc5_67
I0411 02:41:07.450987 10464 net.cpp:434] fc5_67 <- fc4_300
I0411 02:41:07.450994 10464 net.cpp:408] fc5_67 -> fc5_classes
I0411 02:41:07.452253 10464 net.cpp:150] Setting up fc5_67
I0411 02:41:07.452270 10464 net.cpp:157] Top shape: 1024 67 (68608)
I0411 02:41:07.452272 10464 net.cpp:165] Memory required for data: 4106977280
I0411 02:41:07.452285 10464 layer_factory.hpp:77] Creating layer loss
I0411 02:41:07.452291 10464 net.cpp:100] Creating Layer loss
I0411 02:41:07.452296 10464 net.cpp:434] loss <- fc5_classes
I0411 02:41:07.452312 10464 net.cpp:434] loss <- label
I0411 02:41:07.452320 10464 net.cpp:408] loss -> loss
I0411 02:41:07.452334 10464 layer_factory.hpp:77] Creating layer loss
…
I0411 02:41:07.453099 10464 solver.cpp:193] Creating test net (#0) specified by test_net file: ./Prototxt/experiment_8/rtsd-r1/CoNorm/trial_5/test.prototxt
I0411 02:41:07.453279 10464 net.cpp:58] Initializing net from parameters: 
state {
  phase: TEST
}
layer {
  name: "data"
  type: "Data"
  top: "data"
  top: "label"
  include {
    phase: TEST
  }
  transform_param {
    scale: 0.0039215689
    mirror: false
    crop_size: 48
    mean_value: 133
    mean_value: 133
    mean_value: 132
  }
  data_param {
    source: "../local_data/lmdb/rtsd-r1/CoNorm/test/lmdb"
    batch_size: 1024
    backend: LMDB
  }
}
layer {
  name: "conv1"
  type: "Convolution"
  bottom: "data"
  top: "conv1"
  convolution_param {
    num_output: 100
    pad: 0
    kernel_size: 7
    group: 1
    stride: 1
    weight_filler {
      type: "xavier"
    }
  }
}
layer {
  name: "conv1_prescale"
  type: "Scale"
  bottom: "conv1"
  top: "conv1"
  param {
    lr_mult: 0
    decay_mult: 0
  }
  scale_param {
    filler {
      value: 0.6666
    }
    bias_term: false
  }
}
layer {
  name: "conv1_sTanH"
  type: "TanH"
  bottom: "conv1"
  top: "conv1"
}
layer {
  name: "conv1_postscale"
  type: "Scale"
  bottom: "conv1"
  top: "conv1"
  param {
    lr_mult: 0
    decay_mult: 0
  }
  scale_param {
    filler {
      value: 1.7159
    }
    bias_term: false
  }
}
layer {
  name: "pool1"
  type: "Pooling"
  bottom: "conv1"
  top: "pool1"
  pooling_param {
    pool: MAX
    kernel_size: 2
    stride: 2
  }
}
layer {
  name: "conv2"
  type: "Convolution"
  bottom: "pool1"
  top: "conv2"
  convolution_param {
    num_output: 150
    pad: 0
    kernel_size: 4
    group: 1
    stride: 1
    weight_filler {
      type: "xavier"
    }
  }
}
layer {
  name: "conv2_prescale"
  type: "Scale"
  bottom: "conv2"
  top: "conv2"
  param {
    lr_mult: 0
    decay_mult: 0
  }
  scale_param {
    filler {
      value: 0.6666
    }
    bias_term: false
  }
}
layer {
  name: "conv2_sTanH"
  type: "TanH"
  bottom: "conv2"
  top: "conv2"
}
layer {
  name: "conv2_postscale"
  type: "Scale"
  bottom: "conv2"
  top: "conv2"
  param {
    lr_mult: 0
    decay_mult: 0
  }
  scale_param {
    filler {
      value: 1.7159
    }
    bias_term: false
  }
}
layer {
  name: "pool2"
  type: "Pooling"
  bottom: "conv2"
  top: "pool2"
  pooling_param {
    pool: MAX
    kernel_size: 2
    stride: 2
  }
}
layer {
  name: "conv3"
  type: "Convolution"
  bottom: "pool2"
  top: "conv3"
  convolution_param {
    num_output: 250
    pad: 0
    kernel_size: 4
    group: 1
    stride: 1
    weight_filler {
      type: "xavier"
    }
  }
}
layer {
  name: "conv3_prescale"
  type: "Scale"
  bottom: "conv3"
  top: "conv3"
  param {
    lr_mult: 0
    decay_mult: 0
  }
  scale_param {
    filler {
      value: 0.6666
    }
    bias_term: false
  }
}
layer {
  name: "conv3_sTanH"
  type: "TanH"
  bottom: "conv3"
  top: "conv3"
}
layer {
  name: "conv3_postscale"
  type: "Scale"
  bottom: "conv3"
  top: "conv3"
  param {
    lr_mult: 0
    decay_mult: 0
  }
  scale_param {
    filler {
      value: 1.7159
    }
    bias_term: false
  }
}
layer {
  name: "pool3"
  type: "Pooling"
  bottom: "conv3"
  top: "pool3"
  pooling_param {
    pool: MAX
    kernel_size: 2
    stride: 2
  }
}
layer {
  name: "fc4_300"
  type: "InnerProduct"
  bottom: "pool3"
  top: "fc4_300"
  inner_product_param {
    num_output: 300
    weight_filler {
      type: "xavier"
    }
  }
}
layer {
  name: "fc4_prescale"
  type: "Scale"
  bottom: "fc4_300"
  top: "fc4_300"
  param {
    lr_mult: 0
    decay_mult: 0
  }
  scale_param {
    filler {
      value: 0.6666
    }
    bias_term: false
  }
}
layer {
  name: "fc4_sTanH"
  type: "TanH"
  bottom: "fc4_300"
  top: "fc4_300"
}
layer {
  name: "fc4_postscale"
  type: "Scale"
  bottom: "fc4_300"
  top: "fc4_300"
  param {
    lr_mult: 0
    decay_mult: 0
  }
  scale_param {
    filler {
      value: 1.7159
    }
    bias_term: false
  }
}
layer {
  name: "fc5_67"
  type: "InnerProduct"
  bottom: "fc4_300"
  top: "fc5_classes"
  inner_product_param {
    num_output: 67
    weight_filler {
      type: "xavier"
    }
  }
}
layer {
  name: "loss"
  type: "SoftmaxWithLoss"
  bottom: "fc5_classes"
  bottom: "label"
  top: "loss"
}
layer {
  name: "accuracy_1"
  type: "Accuracy"
  bottom: "fc5_classes"
  bottom: "label"
  top: "accuracy_1"
  include {
    phase: TEST
  }
  accuracy_param {
    top_k: 1
  }
}
layer {
  name: "accuracy_5"
  type: "Accuracy"
  bottom: "fc5_classes"
  bottom: "label"
  top: "accuracy_5"
  include {
    phase: TEST
  }
  accuracy_param {
    top_k: 5
  }
}
I0411 02:41:07.453446 10464 layer_factory.hpp:77] Creating layer data
I0411 02:41:07.454165 10464 net.cpp:100] Creating Layer data
I0411 02:41:07.454181 10464 net.cpp:408] data -> data
I0411 02:41:07.454196 10464 net.cpp:408] data -> label
I0411 02:41:07.455418 10610 db_lmdb.cpp:35] Opened lmdb ../local_data/lmdb/rtsd-r1/CoNorm/test/lmdb
I0411 02:41:07.455564 10464 data_layer.cpp:41] output data size: 1024,3,48,48
I0411 02:41:07.510502 10464 net.cpp:150] Setting up data
I0411 02:41:07.510531 10464 net.cpp:157] Top shape: 1024 3 48 48 (7077888)
I0411 02:41:07.510537 10464 net.cpp:157] Top shape: 1024 (1024)
I0411 02:41:07.510540 10464 net.cpp:165] Memory required for data: 28315648
I0411 02:41:07.510546 10464 layer_factory.hpp:77] Creating layer label_data_1_split
I0411 02:41:07.510562 10464 net.cpp:100] Creating Layer label_data_1_split
I0411 02:41:07.510566 10464 net.cpp:434] label_data_1_split <- label
I0411 02:41:07.510577 10464 net.cpp:408] label_data_1_split -> label_data_1_split_0
I0411 02:41:07.510591 10464 net.cpp:408] label_data_1_split -> label_data_1_split_1
I0411 02:41:07.510599 10464 net.cpp:408] label_data_1_split -> label_data_1_split_2
I0411 02:41:07.510710 10464 net.cpp:150] Setting up label_data_1_split
I0411 02:41:07.510720 10464 net.cpp:157] Top shape: 1024 (1024)
I0411 02:41:07.510725 10464 net.cpp:157] Top shape: 1024 (1024)
I0411 02:41:07.510728 10464 net.cpp:157] Top shape: 1024 (1024)
I0411 02:41:07.510731 10464 net.cpp:165] Memory required for data: 28327936
I0411 02:41:07.510735 10464 layer_factory.hpp:77] Creating layer conv1
I0411 02:41:07.510747 10464 net.cpp:100] Creating Layer conv1
I0411 02:41:07.510753 10464 net.cpp:434] conv1 <- data
I0411 02:41:07.510764 10464 net.cpp:408] conv1 -> conv1
I0411 02:41:07.512989 10464 net.cpp:150] Setting up conv1
I0411 02:41:07.513006 10464 net.cpp:157] Top shape: 1024 100 42 42 (180633600)
I0411 02:41:07.513027 10464 net.cpp:165] Memory required for data: 750862336
I0411 02:41:07.513041 10464 layer_factory.hpp:77] Creating layer conv1_prescale
I0411 02:41:07.513052 10464 net.cpp:100] Creating Layer conv1_prescale
I0411 02:41:07.513056 10464 net.cpp:434] conv1_prescale <- conv1
I0411 02:41:07.513062 10464 net.cpp:395] conv1_prescale -> conv1 (in-place)
I0411 02:41:07.513173 10464 net.cpp:150] Setting up conv1_prescale
I0411 02:41:07.513185 10464 net.cpp:157] Top shape: 1024 100 42 42 (180633600)
I0411 02:41:07.513188 10464 net.cpp:165] Memory required for data: 1473396736
I0411 02:41:07.513195 10464 layer_factory.hpp:77] Creating layer conv1_sTanH
I0411 02:41:07.513206 10464 net.cpp:100] Creating Layer conv1_sTanH
I0411 02:41:07.513209 10464 net.cpp:434] conv1_sTanH <- conv1
I0411 02:41:07.513214 10464 net.cpp:395] conv1_sTanH -> conv1 (in-place)
I0411 02:41:07.513414 10464 net.cpp:150] Setting up conv1_sTanH
I0411 02:41:07.513427 10464 net.cpp:157] Top shape: 1024 100 42 42 (180633600)
I0411 02:41:07.513429 10464 net.cpp:165] Memory required for data: 2195931136
I0411 02:41:07.513432 10464 layer_factory.hpp:77] Creating layer conv1_postscale
I0411 02:41:07.513439 10464 net.cpp:100] Creating Layer conv1_postscale
I0411 02:41:07.513443 10464 net.cpp:434] conv1_postscale <- conv1
I0411 02:41:07.513449 10464 net.cpp:395] conv1_postscale -> conv1 (in-place)
I0411 02:41:07.513561 10464 net.cpp:150] Setting up conv1_postscale
I0411 02:41:07.513569 10464 net.cpp:157] Top shape: 1024 100 42 42 (180633600)
I0411 02:41:07.513572 10464 net.cpp:165] Memory required for data: 2918465536
I0411 02:41:07.513577 10464 layer_factory.hpp:77] Creating layer pool1
I0411 02:41:07.513584 10464 net.cpp:100] Creating Layer pool1
I0411 02:41:07.513587 10464 net.cpp:434] pool1 <- conv1
I0411 02:41:07.513593 10464 net.cpp:408] pool1 -> pool1
I0411 02:41:07.513694 10464 net.cpp:150] Setting up pool1
I0411 02:41:07.513703 10464 net.cpp:157] Top shape: 1024 100 21 21 (45158400)
I0411 02:41:07.513706 10464 net.cpp:165] Memory required for data: 3099099136
I0411 02:41:07.513710 10464 layer_factory.hpp:77] Creating layer conv2
I0411 02:41:07.513720 10464 net.cpp:100] Creating Layer conv2
I0411 02:41:07.513723 10464 net.cpp:434] conv2 <- pool1
I0411 02:41:07.513730 10464 net.cpp:408] conv2 -> conv2
I0411 02:41:07.521702 10464 net.cpp:150] Setting up conv2
I0411 02:41:07.521735 10464 net.cpp:157] Top shape: 1024 150 18 18 (49766400)
I0411 02:41:07.521739 10464 net.cpp:165] Memory required for data: 3298164736
I0411 02:41:07.521751 10464 layer_factory.hpp:77] Creating layer conv2_prescale
I0411 02:41:07.521766 10464 net.cpp:100] Creating Layer conv2_prescale
I0411 02:41:07.521770 10464 net.cpp:434] conv2_prescale <- conv2
I0411 02:41:07.521781 10464 net.cpp:395] conv2_prescale -> conv2 (in-place)
I0411 02:41:07.521903 10464 net.cpp:150] Setting up conv2_prescale
I0411 02:41:07.521919 10464 net.cpp:157] Top shape: 1024 150 18 18 (49766400)
I0411 02:41:07.521922 10464 net.cpp:165] Memory required for data: 3497230336
I0411 02:41:07.521927 10464 layer_factory.hpp:77] Creating layer conv2_sTanH
I0411 02:41:07.521934 10464 net.cpp:100] Creating Layer conv2_sTanH
I0411 02:41:07.521939 10464 net.cpp:434] conv2_sTanH <- conv2
I0411 02:41:07.521945 10464 net.cpp:395] conv2_sTanH -> conv2 (in-place)
I0411 02:41:07.523064 10464 net.cpp:150] Setting up conv2_sTanH
I0411 02:41:07.523083 10464 net.cpp:157] Top shape: 1024 150 18 18 (49766400)
I0411 02:41:07.523098 10464 net.cpp:165] Memory required for data: 3696295936
I0411 02:41:07.523102 10464 layer_factory.hpp:77] Creating layer conv2_postscale
I0411 02:41:07.523113 10464 net.cpp:100] Creating Layer conv2_postscale
I0411 02:41:07.523116 10464 net.cpp:434] conv2_postscale <- conv2
I0411 02:41:07.523121 10464 net.cpp:395] conv2_postscale -> conv2 (in-place)
I0411 02:41:07.523229 10464 net.cpp:150] Setting up conv2_postscale
I0411 02:41:07.523239 10464 net.cpp:157] Top shape: 1024 150 18 18 (49766400)
I0411 02:41:07.523242 10464 net.cpp:165] Memory required for data: 3895361536
I0411 02:41:07.523264 10464 layer_factory.hpp:77] Creating layer pool2
I0411 02:41:07.523274 10464 net.cpp:100] Creating Layer pool2
I0411 02:41:07.523277 10464 net.cpp:434] pool2 <- conv2
I0411 02:41:07.523283 10464 net.cpp:408] pool2 -> pool2
I0411 02:41:07.523335 10464 net.cpp:150] Setting up pool2
I0411 02:41:07.523344 10464 net.cpp:157] Top shape: 1024 150 9 9 (12441600)
I0411 02:41:07.523349 10464 net.cpp:165] Memory required for data: 3945127936
I0411 02:41:07.523351 10464 layer_factory.hpp:77] Creating layer conv3
I0411 02:41:07.523361 10464 net.cpp:100] Creating Layer conv3
I0411 02:41:07.523375 10464 net.cpp:434] conv3 <- pool2
I0411 02:41:07.523382 10464 net.cpp:408] conv3 -> conv3
I0411 02:41:07.529388 10464 net.cpp:150] Setting up conv3
I0411 02:41:07.529407 10464 net.cpp:157] Top shape: 1024 250 6 6 (9216000)
I0411 02:41:07.529410 10464 net.cpp:165] Memory required for data: 3981991936
I0411 02:41:07.529420 10464 layer_factory.hpp:77] Creating layer conv3_prescale
I0411 02:41:07.529430 10464 net.cpp:100] Creating Layer conv3_prescale
I0411 02:41:07.529435 10464 net.cpp:434] conv3_prescale <- conv3
I0411 02:41:07.529443 10464 net.cpp:395] conv3_prescale -> conv3 (in-place)
I0411 02:41:07.529544 10464 net.cpp:150] Setting up conv3_prescale
I0411 02:41:07.529554 10464 net.cpp:157] Top shape: 1024 250 6 6 (9216000)
I0411 02:41:07.529557 10464 net.cpp:165] Memory required for data: 4018855936
I0411 02:41:07.529563 10464 layer_factory.hpp:77] Creating layer conv3_sTanH
I0411 02:41:07.529570 10464 net.cpp:100] Creating Layer conv3_sTanH
I0411 02:41:07.529574 10464 net.cpp:434] conv3_sTanH <- conv3
I0411 02:41:07.529579 10464 net.cpp:395] conv3_sTanH -> conv3 (in-place)
I0411 02:41:07.530704 10464 net.cpp:150] Setting up conv3_sTanH
I0411 02:41:07.530721 10464 net.cpp:157] Top shape: 1024 250 6 6 (9216000)
I0411 02:41:07.530725 10464 net.cpp:165] Memory required for data: 4055719936
I0411 02:41:07.530730 10464 layer_factory.hpp:77] Creating layer conv3_postscale
I0411 02:41:07.530737 10464 net.cpp:100] Creating Layer conv3_postscale
I0411 02:41:07.530740 10464 net.cpp:434] conv3_postscale <- conv3
I0411 02:41:07.530750 10464 net.cpp:395] conv3_postscale -> conv3 (in-place)
I0411 02:41:07.530859 10464 net.cpp:150] Setting up conv3_postscale
I0411 02:41:07.530870 10464 net.cpp:157] Top shape: 1024 250 6 6 (9216000)
I0411 02:41:07.530874 10464 net.cpp:165] Memory required for data: 4092583936
I0411 02:41:07.530879 10464 layer_factory.hpp:77] Creating layer pool3
I0411 02:41:07.530889 10464 net.cpp:100] Creating Layer pool3
I0411 02:41:07.530894 10464 net.cpp:434] pool3 <- conv3
I0411 02:41:07.530900 10464 net.cpp:408] pool3 -> pool3
I0411 02:41:07.530942 10464 net.cpp:150] Setting up pool3
I0411 02:41:07.530951 10464 net.cpp:157] Top shape: 1024 250 3 3 (2304000)
I0411 02:41:07.530953 10464 net.cpp:165] Memory required for data: 4101799936
I0411 02:41:07.530956 10464 layer_factory.hpp:77] Creating layer fc4_300
I0411 02:41:07.530966 10464 net.cpp:100] Creating Layer fc4_300
I0411 02:41:07.530969 10464 net.cpp:434] fc4_300 <- pool3
I0411 02:41:07.530975 10464 net.cpp:408] fc4_300 -> fc4_300
I0411 02:41:07.536720 10464 net.cpp:150] Setting up fc4_300
I0411 02:41:07.536736 10464 net.cpp:157] Top shape: 1024 300 (307200)
I0411 02:41:07.536748 10464 net.cpp:165] Memory required for data: 4103028736
I0411 02:41:07.536756 10464 layer_factory.hpp:77] Creating layer fc4_prescale
I0411 02:41:07.536767 10464 net.cpp:100] Creating Layer fc4_prescale
I0411 02:41:07.536770 10464 net.cpp:434] fc4_prescale <- fc4_300
I0411 02:41:07.536777 10464 net.cpp:395] fc4_prescale -> fc4_300 (in-place)
I0411 02:41:07.536878 10464 net.cpp:150] Setting up fc4_prescale
I0411 02:41:07.536892 10464 net.cpp:157] Top shape: 1024 300 (307200)
I0411 02:41:07.536895 10464 net.cpp:165] Memory required for data: 4104257536
I0411 02:41:07.536900 10464 layer_factory.hpp:77] Creating layer fc4_sTanH
I0411 02:41:07.536906 10464 net.cpp:100] Creating Layer fc4_sTanH
I0411 02:41:07.536909 10464 net.cpp:434] fc4_sTanH <- fc4_300
I0411 02:41:07.536916 10464 net.cpp:395] fc4_sTanH -> fc4_300 (in-place)
I0411 02:41:07.537130 10464 net.cpp:150] Setting up fc4_sTanH
I0411 02:41:07.537147 10464 net.cpp:157] Top shape: 1024 300 (307200)
I0411 02:41:07.537149 10464 net.cpp:165] Memory required for data: 4105486336
I0411 02:41:07.537153 10464 layer_factory.hpp:77] Creating layer fc4_postscale
I0411 02:41:07.537163 10464 net.cpp:100] Creating Layer fc4_postscale
I0411 02:41:07.537166 10464 net.cpp:434] fc4_postscale <- fc4_300
I0411 02:41:07.537171 10464 net.cpp:395] fc4_postscale -> fc4_300 (in-place)
I0411 02:41:07.537286 10464 net.cpp:150] Setting up fc4_postscale
I0411 02:41:07.537294 10464 net.cpp:157] Top shape: 1024 300 (307200)
I0411 02:41:07.537297 10464 net.cpp:165] Memory required for data: 4106715136
I0411 02:41:07.537302 10464 layer_factory.hpp:77] Creating layer fc5_67
I0411 02:41:07.537313 10464 net.cpp:100] Creating Layer fc5_67
I0411 02:41:07.537318 10464 net.cpp:434] fc5_67 <- fc4_300
I0411 02:41:07.537324 10464 net.cpp:408] fc5_67 -> fc5_classes
I0411 02:41:07.537583 10464 net.cpp:150] Setting up fc5_67
I0411 02:41:07.537593 10464 net.cpp:157] Top shape: 1024 67 (68608)
I0411 02:41:07.537596 10464 net.cpp:165] Memory required for data: 4106989568
I0411 02:41:07.537606 10464 layer_factory.hpp:77] Creating layer fc5_classes_fc5_67_0_split
I0411 02:41:07.537613 10464 net.cpp:100] Creating Layer fc5_classes_fc5_67_0_split
I0411 02:41:07.537617 10464 net.cpp:434] fc5_classes_fc5_67_0_split <- fc5_classes
I0411 02:41:07.537624 10464 net.cpp:408] fc5_classes_fc5_67_0_split -> fc5_classes_fc5_67_0_split_0
I0411 02:41:07.537631 10464 net.cpp:408] fc5_classes_fc5_67_0_split -> fc5_classes_fc5_67_0_split_1
I0411 02:41:07.537637 10464 net.cpp:408] fc5_classes_fc5_67_0_split -> fc5_classes_fc5_67_0_split_2
I0411 02:41:07.537690 10464 net.cpp:150] Setting up fc5_classes_fc5_67_0_split
I0411 02:41:07.537699 10464 net.cpp:157] Top shape: 1024 67 (68608)
I0411 02:41:07.537703 10464 net.cpp:157] Top shape: 1024 67 (68608)
I0411 02:41:07.537706 10464 net.cpp:157] Top shape: 1024 67 (68608)
I0411 02:41:07.537709 10464 net.cpp:165] Memory required for data: 4107812864
I0411 02:41:07.537711 10464 layer_factory.hpp:77] Creating layer loss
I0411 02:41:07.537717 10464 net.cpp:100] Creating Layer loss
I0411 02:41:07.537721 10464 net.cpp:434] loss <- fc5_classes_fc5_67_0_split_0
I0411 02:41:07.537725 10464 net.cpp:434] loss <- label_data_1_split_0
I0411 02:41:07.537730 10464 net.cpp:408] loss -> loss
…
