…
I0409 02:40:54.856556 26699 net.cpp:322] The NetState phase (0) differed from the phase (1) specified by a rule in layer accuracy_5
I0409 02:40:54.856703 26699 net.cpp:58] Initializing net from parameters: 
state {
  phase: TRAIN
  level: 0
  stage: ""
}
layer {
  name: "data"
  type: "Data"
  top: "data"
  top: "label"
  include {
    phase: TRAIN
  }
  transform_param {
    mirror: false
    crop_size: 48
    mean_value: 122
    mean_value: 115
    mean_value: 128
  }
  data_param {
    source: "../local_data/lmdb/rtsd-r1/histeq/train/lmdb"
    batch_size: 1024
    backend: LMDB
  }
}
layer {
  name: "conv1"
  type: "Convolution"
  bottom: "data"
  top: "conv1"
  convolution_param {
    num_output: 100
    pad: 0
    kernel_size: 7
    group: 1
    stride: 1
    weight_filler {
      type: "xavier"
    }
  }
}
layer {
  name: "conv1_prescale"
  type: "Scale"
  bottom: "conv1"
  top: "conv1"
  param {
    lr_mult: 0
    decay_mult: 0
  }
  scale_param {
    filler {
      value: 0.6666
    }
  }
}
layer {
  name: "conv1_sTanH"
  type: "TanH"
  bottom: "conv1"
  top: "conv1"
}
layer {
  name: "conv1_postscale"
  type: "Scale"
  bottom: "conv1"
  top: "conv1"
  param {
    lr_mult: 0
    decay_mult: 0
  }
  scale_param {
    filler {
      value: 1.7159
    }
  }
}
layer {
  name: "pool1"
  type: "Pooling"
  bottom: "conv1"
  top: "pool1"
  pooling_param {
    pool: MAX
    kernel_size: 2
    stride: 2
  }
}
layer {
  name: "conv2"
  type: "Convolution"
  bottom: "pool1"
  top: "conv2"
  convolution_param {
    num_output: 150
    pad: 0
    kernel_size: 4
    group: 1
    stride: 1
    weight_filler {
      type: "xavier"
    }
  }
}
layer {
  name: "conv2_prescale"
  type: "Scale"
  bottom: "conv2"
  top: "conv2"
  param {
    lr_mult: 0
    decay_mult: 0
  }
  scale_param {
    filler {
      value: 0.6666
    }
  }
}
layer {
  name: "conv2_sTanH"
  type: "TanH"
  bottom: "conv2"
  top: "conv2"
}
layer {
  name: "conv2_postscale"
  type: "Scale"
  bottom: "conv2"
  top: "conv2"
  param {
    lr_mult: 0
    decay_mult: 0
  }
  scale_param {
    filler {
      value: 1.7159
    }
  }
}
layer {
  name: "pool2"
  type: "Pooling"
  bottom: "conv2"
  top: "pool2"
  pooling_param {
    pool: MAX
    kernel_size: 2
    stride: 2
  }
}
layer {
  name: "conv3"
  type: "Convolution"
  bottom: "pool2"
  top: "conv3"
  convolution_param {
    num_output: 250
    pad: 0
    kernel_size: 4
    group: 1
    stride: 1
    weight_filler {
      type: "xavier"
    }
  }
}
layer {
  name: "conv3_prescale"
  type: "Scale"
  bottom: "conv3"
  top: "conv3"
  param {
    lr_mult: 0
    decay_mult: 0
  }
  scale_param {
    filler {
      value: 0.6666
    }
  }
}
layer {
  name: "conv3_sTanH"
  type: "TanH"
  bottom: "conv3"
  top: "conv3"
}
layer {
  name: "conv3_postscale"
  type: "Scale"
  bottom: "conv3"
  top: "conv3"
  param {
    lr_mult: 0
    decay_mult: 0
  }
  scale_param {
    filler {
      value: 1.7159
    }
  }
}
layer {
  name: "pool3"
  type: "Pooling"
  bottom: "conv3"
  top: "pool3"
  pooling_param {
    pool: MAX
    kernel_size: 2
    stride: 2
  }
}
layer {
  name: "fc4_300"
  type: "InnerProduct"
  bottom: "pool3"
  top: "fc4_300"
  inner_product_param {
    num_output: 300
    weight_filler {
      type: "xavier"
    }
  }
}
layer {
  name: "fc4_prescale"
  type: "Scale"
  bottom: "fc4_300"
  top: "fc4_300"
  param {
    lr_mult: 0
    decay_mult: 0
  }
  scale_param {
    filler {
      value: 0.6666
    }
  }
}
layer {
  name: "fc4_sTanH"
  type: "TanH"
  bottom: "fc4_300"
  top: "fc4_300"
}
layer {
  name: "fc4_postscale"
  type: "Scale"
  bottom: "fc4_300"
  top: "fc4_300"
  param {
    lr_mult: 0
    decay_mult: 0
  }
  scale_param {
    filler {
      value: 1.7159
    }
  }
}
layer {
  name: "drop4"
  type: "Dropout"
  bottom: "fc4_300"
  top: "fc4_300"
  dropout_param {
    dropout_ratio: 0.4
  }
}
layer {
  name: "fc5_67"
  type: "InnerProduct"
  bottom: "fc4_300"
  top: "fc5_classes"
  inner_product_param {
    num_output: 67
    weight_filler {
      type: "xavier"
    }
  }
}
layer {
  name: "loss"
  type: "SoftmaxWithLoss"
  bottom: "fc5_classes"
  bottom: "label"
  top: "loss"
}
I0409 02:40:54.856812 26699 layer_factory.hpp:77] Creating layer data
I0409 02:40:54.858083 26699 net.cpp:100] Creating Layer data
I0409 02:40:54.858098 26699 net.cpp:408] data -> data
I0409 02:40:54.858119 26699 net.cpp:408] data -> label
I0409 02:40:54.859293 26771 db_lmdb.cpp:35] Opened lmdb ../local_data/lmdb/rtsd-r1/histeq/train/lmdb
I0409 02:40:54.876363 26699 data_layer.cpp:41] output data size: 1024,3,48,48
I0409 02:40:54.920590 26699 net.cpp:150] Setting up data
I0409 02:40:54.920621 26699 net.cpp:157] Top shape: 1024 3 48 48 (7077888)
I0409 02:40:54.920627 26699 net.cpp:157] Top shape: 1024 (1024)
I0409 02:40:54.920630 26699 net.cpp:165] Memory required for data: 28315648
I0409 02:40:54.920640 26699 layer_factory.hpp:77] Creating layer conv1
I0409 02:40:54.920661 26699 net.cpp:100] Creating Layer conv1
I0409 02:40:54.920667 26699 net.cpp:434] conv1 <- data
I0409 02:40:54.920680 26699 net.cpp:408] conv1 -> conv1
I0409 02:40:55.259707 26699 net.cpp:150] Setting up conv1
I0409 02:40:55.259739 26699 net.cpp:157] Top shape: 1024 100 42 42 (180633600)
I0409 02:40:55.259745 26699 net.cpp:165] Memory required for data: 750850048
I0409 02:40:55.259779 26699 layer_factory.hpp:77] Creating layer conv1_prescale
I0409 02:40:55.259819 26699 net.cpp:100] Creating Layer conv1_prescale
I0409 02:40:55.259829 26699 net.cpp:434] conv1_prescale <- conv1
I0409 02:40:55.259840 26699 net.cpp:395] conv1_prescale -> conv1 (in-place)
I0409 02:40:55.260006 26699 net.cpp:150] Setting up conv1_prescale
I0409 02:40:55.260025 26699 net.cpp:157] Top shape: 1024 100 42 42 (180633600)
I0409 02:40:55.260030 26699 net.cpp:165] Memory required for data: 1473384448
I0409 02:40:55.260041 26699 layer_factory.hpp:77] Creating layer conv1_sTanH
I0409 02:40:55.260052 26699 net.cpp:100] Creating Layer conv1_sTanH
I0409 02:40:55.260057 26699 net.cpp:434] conv1_sTanH <- conv1
I0409 02:40:55.260072 26699 net.cpp:395] conv1_sTanH -> conv1 (in-place)
I0409 02:40:55.260344 26699 net.cpp:150] Setting up conv1_sTanH
I0409 02:40:55.260362 26699 net.cpp:157] Top shape: 1024 100 42 42 (180633600)
I0409 02:40:55.260368 26699 net.cpp:165] Memory required for data: 2195918848
I0409 02:40:55.260373 26699 layer_factory.hpp:77] Creating layer conv1_postscale
I0409 02:40:55.260385 26699 net.cpp:100] Creating Layer conv1_postscale
I0409 02:40:55.260390 26699 net.cpp:434] conv1_postscale <- conv1
I0409 02:40:55.260397 26699 net.cpp:395] conv1_postscale -> conv1 (in-place)
I0409 02:40:55.260525 26699 net.cpp:150] Setting up conv1_postscale
I0409 02:40:55.260538 26699 net.cpp:157] Top shape: 1024 100 42 42 (180633600)
I0409 02:40:55.260543 26699 net.cpp:165] Memory required for data: 2918453248
I0409 02:40:55.260550 26699 layer_factory.hpp:77] Creating layer pool1
I0409 02:40:55.260560 26699 net.cpp:100] Creating Layer pool1
I0409 02:40:55.260567 26699 net.cpp:434] pool1 <- conv1
I0409 02:40:55.260576 26699 net.cpp:408] pool1 -> pool1
I0409 02:40:55.260638 26699 net.cpp:150] Setting up pool1
I0409 02:40:55.260651 26699 net.cpp:157] Top shape: 1024 100 21 21 (45158400)
I0409 02:40:55.260655 26699 net.cpp:165] Memory required for data: 3099086848
I0409 02:40:55.260682 26699 layer_factory.hpp:77] Creating layer conv2
I0409 02:40:55.260696 26699 net.cpp:100] Creating Layer conv2
I0409 02:40:55.260704 26699 net.cpp:434] conv2 <- pool1
I0409 02:40:55.260711 26699 net.cpp:408] conv2 -> conv2
I0409 02:40:55.268393 26699 net.cpp:150] Setting up conv2
I0409 02:40:55.268414 26699 net.cpp:157] Top shape: 1024 150 18 18 (49766400)
I0409 02:40:55.268422 26699 net.cpp:165] Memory required for data: 3298152448
I0409 02:40:55.268437 26699 layer_factory.hpp:77] Creating layer conv2_prescale
I0409 02:40:55.268450 26699 net.cpp:100] Creating Layer conv2_prescale
I0409 02:40:55.268458 26699 net.cpp:434] conv2_prescale <- conv2
I0409 02:40:55.268466 26699 net.cpp:395] conv2_prescale -> conv2 (in-place)
I0409 02:40:55.268607 26699 net.cpp:150] Setting up conv2_prescale
I0409 02:40:55.268622 26699 net.cpp:157] Top shape: 1024 150 18 18 (49766400)
I0409 02:40:55.268630 26699 net.cpp:165] Memory required for data: 3497218048
I0409 02:40:55.268638 26699 layer_factory.hpp:77] Creating layer conv2_sTanH
I0409 02:40:55.268649 26699 net.cpp:100] Creating Layer conv2_sTanH
I0409 02:40:55.268657 26699 net.cpp:434] conv2_sTanH <- conv2
I0409 02:40:55.268666 26699 net.cpp:395] conv2_sTanH -> conv2 (in-place)
I0409 02:40:55.276681 26699 net.cpp:150] Setting up conv2_sTanH
I0409 02:40:55.276698 26699 net.cpp:157] Top shape: 1024 150 18 18 (49766400)
I0409 02:40:55.276702 26699 net.cpp:165] Memory required for data: 3696283648
I0409 02:40:55.276706 26699 layer_factory.hpp:77] Creating layer conv2_postscale
I0409 02:40:55.276715 26699 net.cpp:100] Creating Layer conv2_postscale
I0409 02:40:55.276717 26699 net.cpp:434] conv2_postscale <- conv2
I0409 02:40:55.276723 26699 net.cpp:395] conv2_postscale -> conv2 (in-place)
I0409 02:40:55.276851 26699 net.cpp:150] Setting up conv2_postscale
I0409 02:40:55.276867 26699 net.cpp:157] Top shape: 1024 150 18 18 (49766400)
I0409 02:40:55.276875 26699 net.cpp:165] Memory required for data: 3895349248
I0409 02:40:55.276885 26699 layer_factory.hpp:77] Creating layer pool2
I0409 02:40:55.276895 26699 net.cpp:100] Creating Layer pool2
I0409 02:40:55.276901 26699 net.cpp:434] pool2 <- conv2
I0409 02:40:55.276909 26699 net.cpp:408] pool2 -> pool2
I0409 02:40:55.276962 26699 net.cpp:150] Setting up pool2
I0409 02:40:55.276975 26699 net.cpp:157] Top shape: 1024 150 9 9 (12441600)
I0409 02:40:55.276983 26699 net.cpp:165] Memory required for data: 3945115648
I0409 02:40:55.276988 26699 layer_factory.hpp:77] Creating layer conv3
I0409 02:40:55.277001 26699 net.cpp:100] Creating Layer conv3
I0409 02:40:55.277009 26699 net.cpp:434] conv3 <- pool2
I0409 02:40:55.277017 26699 net.cpp:408] conv3 -> conv3
I0409 02:40:55.288120 26699 net.cpp:150] Setting up conv3
I0409 02:40:55.288138 26699 net.cpp:157] Top shape: 1024 250 6 6 (9216000)
I0409 02:40:55.288142 26699 net.cpp:165] Memory required for data: 3981979648
I0409 02:40:55.288152 26699 layer_factory.hpp:77] Creating layer conv3_prescale
I0409 02:40:55.288161 26699 net.cpp:100] Creating Layer conv3_prescale
I0409 02:40:55.288163 26699 net.cpp:434] conv3_prescale <- conv3
I0409 02:40:55.288168 26699 net.cpp:395] conv3_prescale -> conv3 (in-place)
I0409 02:40:55.288259 26699 net.cpp:150] Setting up conv3_prescale
I0409 02:40:55.288269 26699 net.cpp:157] Top shape: 1024 250 6 6 (9216000)
I0409 02:40:55.288271 26699 net.cpp:165] Memory required for data: 4018843648
I0409 02:40:55.288276 26699 layer_factory.hpp:77] Creating layer conv3_sTanH
I0409 02:40:55.288281 26699 net.cpp:100] Creating Layer conv3_sTanH
I0409 02:40:55.288285 26699 net.cpp:434] conv3_sTanH <- conv3
I0409 02:40:55.288288 26699 net.cpp:395] conv3_sTanH -> conv3 (in-place)
I0409 02:40:55.289037 26699 net.cpp:150] Setting up conv3_sTanH
I0409 02:40:55.289053 26699 net.cpp:157] Top shape: 1024 250 6 6 (9216000)
I0409 02:40:55.289068 26699 net.cpp:165] Memory required for data: 4055707648
I0409 02:40:55.289072 26699 layer_factory.hpp:77] Creating layer conv3_postscale
I0409 02:40:55.289080 26699 net.cpp:100] Creating Layer conv3_postscale
I0409 02:40:55.289096 26699 net.cpp:434] conv3_postscale <- conv3
I0409 02:40:55.289103 26699 net.cpp:395] conv3_postscale -> conv3 (in-place)
I0409 02:40:55.289198 26699 net.cpp:150] Setting up conv3_postscale
I0409 02:40:55.289206 26699 net.cpp:157] Top shape: 1024 250 6 6 (9216000)
I0409 02:40:55.289211 26699 net.cpp:165] Memory required for data: 4092571648
I0409 02:40:55.289216 26699 layer_factory.hpp:77] Creating layer pool3
I0409 02:40:55.289222 26699 net.cpp:100] Creating Layer pool3
I0409 02:40:55.289225 26699 net.cpp:434] pool3 <- conv3
I0409 02:40:55.289229 26699 net.cpp:408] pool3 -> pool3
I0409 02:40:55.289265 26699 net.cpp:150] Setting up pool3
I0409 02:40:55.289273 26699 net.cpp:157] Top shape: 1024 250 3 3 (2304000)
I0409 02:40:55.289276 26699 net.cpp:165] Memory required for data: 4101787648
I0409 02:40:55.289279 26699 layer_factory.hpp:77] Creating layer fc4_300
I0409 02:40:55.289288 26699 net.cpp:100] Creating Layer fc4_300
I0409 02:40:55.289290 26699 net.cpp:434] fc4_300 <- pool3
I0409 02:40:55.289295 26699 net.cpp:408] fc4_300 -> fc4_300
I0409 02:40:55.294602 26699 net.cpp:150] Setting up fc4_300
I0409 02:40:55.294620 26699 net.cpp:157] Top shape: 1024 300 (307200)
I0409 02:40:55.294622 26699 net.cpp:165] Memory required for data: 4103016448
I0409 02:40:55.294630 26699 layer_factory.hpp:77] Creating layer fc4_prescale
I0409 02:40:55.294636 26699 net.cpp:100] Creating Layer fc4_prescale
I0409 02:40:55.294639 26699 net.cpp:434] fc4_prescale <- fc4_300
I0409 02:40:55.294644 26699 net.cpp:395] fc4_prescale -> fc4_300 (in-place)
I0409 02:40:55.294730 26699 net.cpp:150] Setting up fc4_prescale
I0409 02:40:55.294739 26699 net.cpp:157] Top shape: 1024 300 (307200)
I0409 02:40:55.294741 26699 net.cpp:165] Memory required for data: 4104245248
I0409 02:40:55.294745 26699 layer_factory.hpp:77] Creating layer fc4_sTanH
I0409 02:40:55.294750 26699 net.cpp:100] Creating Layer fc4_sTanH
I0409 02:40:55.294754 26699 net.cpp:434] fc4_sTanH <- fc4_300
I0409 02:40:55.294757 26699 net.cpp:395] fc4_sTanH -> fc4_300 (in-place)
I0409 02:40:55.294942 26699 net.cpp:150] Setting up fc4_sTanH
I0409 02:40:55.294955 26699 net.cpp:157] Top shape: 1024 300 (307200)
I0409 02:40:55.294957 26699 net.cpp:165] Memory required for data: 4105474048
I0409 02:40:55.294960 26699 layer_factory.hpp:77] Creating layer fc4_postscale
I0409 02:40:55.294970 26699 net.cpp:100] Creating Layer fc4_postscale
I0409 02:40:55.294975 26699 net.cpp:434] fc4_postscale <- fc4_300
I0409 02:40:55.294981 26699 net.cpp:395] fc4_postscale -> fc4_300 (in-place)
I0409 02:40:55.295076 26699 net.cpp:150] Setting up fc4_postscale
I0409 02:40:55.295083 26699 net.cpp:157] Top shape: 1024 300 (307200)
I0409 02:40:55.295086 26699 net.cpp:165] Memory required for data: 4106702848
I0409 02:40:55.295091 26699 layer_factory.hpp:77] Creating layer drop4
I0409 02:40:55.295099 26699 net.cpp:100] Creating Layer drop4
I0409 02:40:55.295104 26699 net.cpp:434] drop4 <- fc4_300
I0409 02:40:55.295109 26699 net.cpp:395] drop4 -> fc4_300 (in-place)
I0409 02:40:55.295136 26699 net.cpp:150] Setting up drop4
I0409 02:40:55.295143 26699 net.cpp:157] Top shape: 1024 300 (307200)
I0409 02:40:55.295148 26699 net.cpp:165] Memory required for data: 4107931648
I0409 02:40:55.295152 26699 layer_factory.hpp:77] Creating layer fc5_67
I0409 02:40:55.295159 26699 net.cpp:100] Creating Layer fc5_67
I0409 02:40:55.295162 26699 net.cpp:434] fc5_67 <- fc4_300
I0409 02:40:55.295166 26699 net.cpp:408] fc5_67 -> fc5_classes
I0409 02:40:55.296360 26699 net.cpp:150] Setting up fc5_67
I0409 02:40:55.296375 26699 net.cpp:157] Top shape: 1024 67 (68608)
I0409 02:40:55.296377 26699 net.cpp:165] Memory required for data: 4108206080
I0409 02:40:55.296387 26699 layer_factory.hpp:77] Creating layer loss
I0409 02:40:55.296396 26699 net.cpp:100] Creating Layer loss
I0409 02:40:55.296399 26699 net.cpp:434] loss <- fc5_classes
I0409 02:40:55.296404 26699 net.cpp:434] loss <- label
I0409 02:40:55.296409 26699 net.cpp:408] loss -> loss
I0409 02:40:55.296423 26699 layer_factory.hpp:77] Creating layer loss
…
I0409 02:40:55.297160 26699 solver.cpp:193] Creating test net (#0) specified by test_net file: ./Prototxt/experiment_6/rtsd-r1/histeq/trial_1/test.prototxt
I0409 02:40:55.297339 26699 net.cpp:58] Initializing net from parameters: 
state {
  phase: TEST
}
layer {
  name: "data"
  type: "Data"
  top: "data"
  top: "label"
  include {
    phase: TEST
  }
  transform_param {
    mirror: false
    crop_size: 48
    mean_value: 117
    mean_value: 114
    mean_value: 133
  }
  data_param {
    source: "../local_data/lmdb/rtsd-r1/histeq/test/lmdb"
    batch_size: 1024
    backend: LMDB
  }
}
layer {
  name: "conv1"
  type: "Convolution"
  bottom: "data"
  top: "conv1"
  convolution_param {
    num_output: 100
    pad: 0
    kernel_size: 7
    group: 1
    stride: 1
    weight_filler {
      type: "xavier"
    }
  }
}
layer {
  name: "conv1_prescale"
  type: "Scale"
  bottom: "conv1"
  top: "conv1"
  param {
    lr_mult: 0
    decay_mult: 0
  }
  scale_param {
    filler {
      value: 0.6666
    }
  }
}
layer {
  name: "conv1_sTanH"
  type: "TanH"
  bottom: "conv1"
  top: "conv1"
}
layer {
  name: "conv1_postscale"
  type: "Scale"
  bottom: "conv1"
  top: "conv1"
  param {
    lr_mult: 0
    decay_mult: 0
  }
  scale_param {
    filler {
      value: 1.7159
    }
  }
}
layer {
  name: "pool1"
  type: "Pooling"
  bottom: "conv1"
  top: "pool1"
  pooling_param {
    pool: MAX
    kernel_size: 2
    stride: 2
  }
}
layer {
  name: "conv2"
  type: "Convolution"
  bottom: "pool1"
  top: "conv2"
  convolution_param {
    num_output: 150
    pad: 0
    kernel_size: 4
    group: 1
    stride: 1
    weight_filler {
      type: "xavier"
    }
  }
}
layer {
  name: "conv2_prescale"
  type: "Scale"
  bottom: "conv2"
  top: "conv2"
  param {
    lr_mult: 0
    decay_mult: 0
  }
  scale_param {
    filler {
      value: 0.6666
    }
  }
}
layer {
  name: "conv2_sTanH"
  type: "TanH"
  bottom: "conv2"
  top: "conv2"
}
layer {
  name: "conv2_postscale"
  type: "Scale"
  bottom: "conv2"
  top: "conv2"
  param {
    lr_mult: 0
    decay_mult: 0
  }
  scale_param {
    filler {
      value: 1.7159
    }
  }
}
layer {
  name: "pool2"
  type: "Pooling"
  bottom: "conv2"
  top: "pool2"
  pooling_param {
    pool: MAX
    kernel_size: 2
    stride: 2
  }
}
layer {
  name: "conv3"
  type: "Convolution"
  bottom: "pool2"
  top: "conv3"
  convolution_param {
    num_output: 250
    pad: 0
    kernel_size: 4
    group: 1
    stride: 1
    weight_filler {
      type: "xavier"
    }
  }
}
layer {
  name: "conv3_prescale"
  type: "Scale"
  bottom: "conv3"
  top: "conv3"
  param {
    lr_mult: 0
    decay_mult: 0
  }
  scale_param {
    filler {
      value: 0.6666
    }
  }
}
layer {
  name: "conv3_sTanH"
  type: "TanH"
  bottom: "conv3"
  top: "conv3"
}
layer {
  name: "conv3_postscale"
  type: "Scale"
  bottom: "conv3"
  top: "conv3"
  param {
    lr_mult: 0
    decay_mult: 0
  }
  scale_param {
    filler {
      value: 1.7159
    }
  }
}
layer {
  name: "pool3"
  type: "Pooling"
  bottom: "conv3"
  top: "pool3"
  pooling_param {
    pool: MAX
    kernel_size: 2
    stride: 2
  }
}
layer {
  name: "fc4_300"
  type: "InnerProduct"
  bottom: "pool3"
  top: "fc4_300"
  inner_product_param {
    num_output: 300
    weight_filler {
      type: "xavier"
    }
  }
}
layer {
  name: "fc4_prescale"
  type: "Scale"
  bottom: "fc4_300"
  top: "fc4_300"
  param {
    lr_mult: 0
    decay_mult: 0
  }
  scale_param {
    filler {
      value: 0.6666
    }
  }
}
layer {
  name: "fc4_sTanH"
  type: "TanH"
  bottom: "fc4_300"
  top: "fc4_300"
}
layer {
  name: "fc4_postscale"
  type: "Scale"
  bottom: "fc4_300"
  top: "fc4_300"
  param {
    lr_mult: 0
    decay_mult: 0
  }
  scale_param {
    filler {
      value: 1.7159
    }
  }
}
layer {
  name: "drop4"
  type: "Dropout"
  bottom: "fc4_300"
  top: "fc4_300"
  dropout_param {
    dropout_ratio: 0.4
  }
}
layer {
  name: "fc5_67"
  type: "InnerProduct"
  bottom: "fc4_300"
  top: "fc5_classes"
  inner_product_param {
    num_output: 67
    weight_filler {
      type: "xavier"
    }
  }
}
layer {
  name: "loss"
  type: "SoftmaxWithLoss"
  bottom: "fc5_classes"
  bottom: "label"
  top: "loss"
}
layer {
  name: "accuracy_1"
  type: "Accuracy"
  bottom: "fc5_classes"
  bottom: "label"
  top: "accuracy_1"
  include {
    phase: TEST
  }
  accuracy_param {
    top_k: 1
  }
}
layer {
  name: "accuracy_5"
  type: "Accuracy"
  bottom: "fc5_classes"
  bottom: "label"
  top: "accuracy_5"
  include {
    phase: TEST
  }
  accuracy_param {
    top_k: 5
  }
}
I0409 02:40:55.297458 26699 layer_factory.hpp:77] Creating layer data
I0409 02:40:55.298130 26699 net.cpp:100] Creating Layer data
I0409 02:40:55.298142 26699 net.cpp:408] data -> data
I0409 02:40:55.298151 26699 net.cpp:408] data -> label
I0409 02:40:55.299803 26791 db_lmdb.cpp:35] Opened lmdb ../local_data/lmdb/rtsd-r1/histeq/test/lmdb
I0409 02:40:55.300002 26699 data_layer.cpp:41] output data size: 1024,3,48,48
I0409 02:40:55.339205 26699 net.cpp:150] Setting up data
I0409 02:40:55.339233 26699 net.cpp:157] Top shape: 1024 3 48 48 (7077888)
I0409 02:40:55.339238 26699 net.cpp:157] Top shape: 1024 (1024)
I0409 02:40:55.339241 26699 net.cpp:165] Memory required for data: 28315648
I0409 02:40:55.339248 26699 layer_factory.hpp:77] Creating layer label_data_1_split
I0409 02:40:55.339273 26699 net.cpp:100] Creating Layer label_data_1_split
I0409 02:40:55.339280 26699 net.cpp:434] label_data_1_split <- label
I0409 02:40:55.339288 26699 net.cpp:408] label_data_1_split -> label_data_1_split_0
I0409 02:40:55.339300 26699 net.cpp:408] label_data_1_split -> label_data_1_split_1
I0409 02:40:55.339310 26699 net.cpp:408] label_data_1_split -> label_data_1_split_2
I0409 02:40:55.339459 26699 net.cpp:150] Setting up label_data_1_split
I0409 02:40:55.339469 26699 net.cpp:157] Top shape: 1024 (1024)
I0409 02:40:55.339473 26699 net.cpp:157] Top shape: 1024 (1024)
I0409 02:40:55.339476 26699 net.cpp:157] Top shape: 1024 (1024)
I0409 02:40:55.339479 26699 net.cpp:165] Memory required for data: 28327936
I0409 02:40:55.339498 26699 layer_factory.hpp:77] Creating layer conv1
I0409 02:40:55.339517 26699 net.cpp:100] Creating Layer conv1
I0409 02:40:55.339522 26699 net.cpp:434] conv1 <- data
I0409 02:40:55.339529 26699 net.cpp:408] conv1 -> conv1
I0409 02:40:55.343453 26699 net.cpp:150] Setting up conv1
I0409 02:40:55.343472 26699 net.cpp:157] Top shape: 1024 100 42 42 (180633600)
I0409 02:40:55.343475 26699 net.cpp:165] Memory required for data: 750862336
I0409 02:40:55.343487 26699 layer_factory.hpp:77] Creating layer conv1_prescale
I0409 02:40:55.343497 26699 net.cpp:100] Creating Layer conv1_prescale
I0409 02:40:55.343502 26699 net.cpp:434] conv1_prescale <- conv1
I0409 02:40:55.343508 26699 net.cpp:395] conv1_prescale -> conv1 (in-place)
I0409 02:40:55.343618 26699 net.cpp:150] Setting up conv1_prescale
I0409 02:40:55.343627 26699 net.cpp:157] Top shape: 1024 100 42 42 (180633600)
I0409 02:40:55.343631 26699 net.cpp:165] Memory required for data: 1473396736
I0409 02:40:55.343637 26699 layer_factory.hpp:77] Creating layer conv1_sTanH
I0409 02:40:55.343646 26699 net.cpp:100] Creating Layer conv1_sTanH
I0409 02:40:55.343652 26699 net.cpp:434] conv1_sTanH <- conv1
I0409 02:40:55.343657 26699 net.cpp:395] conv1_sTanH -> conv1 (in-place)
I0409 02:40:55.343861 26699 net.cpp:150] Setting up conv1_sTanH
I0409 02:40:55.343888 26699 net.cpp:157] Top shape: 1024 100 42 42 (180633600)
I0409 02:40:55.343893 26699 net.cpp:165] Memory required for data: 2195931136
I0409 02:40:55.343899 26699 layer_factory.hpp:77] Creating layer conv1_postscale
I0409 02:40:55.343906 26699 net.cpp:100] Creating Layer conv1_postscale
I0409 02:40:55.343910 26699 net.cpp:434] conv1_postscale <- conv1
I0409 02:40:55.343916 26699 net.cpp:395] conv1_postscale -> conv1 (in-place)
I0409 02:40:55.344032 26699 net.cpp:150] Setting up conv1_postscale
I0409 02:40:55.344039 26699 net.cpp:157] Top shape: 1024 100 42 42 (180633600)
I0409 02:40:55.344043 26699 net.cpp:165] Memory required for data: 2918465536
I0409 02:40:55.344049 26699 layer_factory.hpp:77] Creating layer pool1
I0409 02:40:55.344056 26699 net.cpp:100] Creating Layer pool1
I0409 02:40:55.344059 26699 net.cpp:434] pool1 <- conv1
I0409 02:40:55.344070 26699 net.cpp:408] pool1 -> pool1
I0409 02:40:55.344115 26699 net.cpp:150] Setting up pool1
I0409 02:40:55.344123 26699 net.cpp:157] Top shape: 1024 100 21 21 (45158400)
I0409 02:40:55.344126 26699 net.cpp:165] Memory required for data: 3099099136
I0409 02:40:55.344130 26699 layer_factory.hpp:77] Creating layer conv2
I0409 02:40:55.344139 26699 net.cpp:100] Creating Layer conv2
I0409 02:40:55.344142 26699 net.cpp:434] conv2 <- pool1
I0409 02:40:55.344149 26699 net.cpp:408] conv2 -> conv2
I0409 02:40:55.348065 26699 net.cpp:150] Setting up conv2
I0409 02:40:55.348083 26699 net.cpp:157] Top shape: 1024 150 18 18 (49766400)
I0409 02:40:55.348088 26699 net.cpp:165] Memory required for data: 3298164736
I0409 02:40:55.348098 26699 layer_factory.hpp:77] Creating layer conv2_prescale
I0409 02:40:55.348109 26699 net.cpp:100] Creating Layer conv2_prescale
I0409 02:40:55.348112 26699 net.cpp:434] conv2_prescale <- conv2
I0409 02:40:55.348117 26699 net.cpp:395] conv2_prescale -> conv2 (in-place)
I0409 02:40:55.348244 26699 net.cpp:150] Setting up conv2_prescale
I0409 02:40:55.348254 26699 net.cpp:157] Top shape: 1024 150 18 18 (49766400)
I0409 02:40:55.348258 26699 net.cpp:165] Memory required for data: 3497230336
I0409 02:40:55.348261 26699 layer_factory.hpp:77] Creating layer conv2_sTanH
I0409 02:40:55.348268 26699 net.cpp:100] Creating Layer conv2_sTanH
I0409 02:40:55.348270 26699 net.cpp:434] conv2_sTanH <- conv2
I0409 02:40:55.348278 26699 net.cpp:395] conv2_sTanH -> conv2 (in-place)
I0409 02:40:55.349082 26699 net.cpp:150] Setting up conv2_sTanH
I0409 02:40:55.349097 26699 net.cpp:157] Top shape: 1024 150 18 18 (49766400)
I0409 02:40:55.349103 26699 net.cpp:165] Memory required for data: 3696295936
I0409 02:40:55.349107 26699 layer_factory.hpp:77] Creating layer conv2_postscale
I0409 02:40:55.349114 26699 net.cpp:100] Creating Layer conv2_postscale
I0409 02:40:55.349133 26699 net.cpp:434] conv2_postscale <- conv2
I0409 02:40:55.349143 26699 net.cpp:395] conv2_postscale -> conv2 (in-place)
I0409 02:40:55.349254 26699 net.cpp:150] Setting up conv2_postscale
I0409 02:40:55.349263 26699 net.cpp:157] Top shape: 1024 150 18 18 (49766400)
I0409 02:40:55.349267 26699 net.cpp:165] Memory required for data: 3895361536
I0409 02:40:55.349272 26699 layer_factory.hpp:77] Creating layer pool2
I0409 02:40:55.349277 26699 net.cpp:100] Creating Layer pool2
I0409 02:40:55.349282 26699 net.cpp:434] pool2 <- conv2
I0409 02:40:55.349290 26699 net.cpp:408] pool2 -> pool2
I0409 02:40:55.349340 26699 net.cpp:150] Setting up pool2
I0409 02:40:55.349350 26699 net.cpp:157] Top shape: 1024 150 9 9 (12441600)
I0409 02:40:55.349354 26699 net.cpp:165] Memory required for data: 3945127936
I0409 02:40:55.349370 26699 layer_factory.hpp:77] Creating layer conv3
I0409 02:40:55.349380 26699 net.cpp:100] Creating Layer conv3
I0409 02:40:55.349385 26699 net.cpp:434] conv3 <- pool2
I0409 02:40:55.349391 26699 net.cpp:408] conv3 -> conv3
I0409 02:40:55.354988 26699 net.cpp:150] Setting up conv3
I0409 02:40:55.355005 26699 net.cpp:157] Top shape: 1024 250 6 6 (9216000)
I0409 02:40:55.355010 26699 net.cpp:165] Memory required for data: 3981991936
I0409 02:40:55.355021 26699 layer_factory.hpp:77] Creating layer conv3_prescale
I0409 02:40:55.355032 26699 net.cpp:100] Creating Layer conv3_prescale
I0409 02:40:55.355036 26699 net.cpp:434] conv3_prescale <- conv3
I0409 02:40:55.355042 26699 net.cpp:395] conv3_prescale -> conv3 (in-place)
I0409 02:40:55.355144 26699 net.cpp:150] Setting up conv3_prescale
I0409 02:40:55.355154 26699 net.cpp:157] Top shape: 1024 250 6 6 (9216000)
I0409 02:40:55.355155 26699 net.cpp:165] Memory required for data: 4018855936
I0409 02:40:55.355161 26699 layer_factory.hpp:77] Creating layer conv3_sTanH
I0409 02:40:55.355166 26699 net.cpp:100] Creating Layer conv3_sTanH
I0409 02:40:55.355170 26699 net.cpp:434] conv3_sTanH <- conv3
I0409 02:40:55.355175 26699 net.cpp:395] conv3_sTanH -> conv3 (in-place)
I0409 02:40:55.356873 26699 net.cpp:150] Setting up conv3_sTanH
I0409 02:40:55.356889 26699 net.cpp:157] Top shape: 1024 250 6 6 (9216000)
I0409 02:40:55.356894 26699 net.cpp:165] Memory required for data: 4055719936
I0409 02:40:55.356896 26699 layer_factory.hpp:77] Creating layer conv3_postscale
I0409 02:40:55.356905 26699 net.cpp:100] Creating Layer conv3_postscale
I0409 02:40:55.356909 26699 net.cpp:434] conv3_postscale <- conv3
I0409 02:40:55.356914 26699 net.cpp:395] conv3_postscale -> conv3 (in-place)
I0409 02:40:55.357017 26699 net.cpp:150] Setting up conv3_postscale
I0409 02:40:55.357028 26699 net.cpp:157] Top shape: 1024 250 6 6 (9216000)
I0409 02:40:55.357031 26699 net.cpp:165] Memory required for data: 4092583936
I0409 02:40:55.357036 26699 layer_factory.hpp:77] Creating layer pool3
I0409 02:40:55.357046 26699 net.cpp:100] Creating Layer pool3
I0409 02:40:55.357051 26699 net.cpp:434] pool3 <- conv3
I0409 02:40:55.357056 26699 net.cpp:408] pool3 -> pool3
I0409 02:40:55.357100 26699 net.cpp:150] Setting up pool3
I0409 02:40:55.357107 26699 net.cpp:157] Top shape: 1024 250 3 3 (2304000)
I0409 02:40:55.357110 26699 net.cpp:165] Memory required for data: 4101799936
I0409 02:40:55.357115 26699 layer_factory.hpp:77] Creating layer fc4_300
I0409 02:40:55.357121 26699 net.cpp:100] Creating Layer fc4_300
I0409 02:40:55.357125 26699 net.cpp:434] fc4_300 <- pool3
I0409 02:40:55.357131 26699 net.cpp:408] fc4_300 -> fc4_300
I0409 02:40:55.363371 26699 net.cpp:150] Setting up fc4_300
I0409 02:40:55.363387 26699 net.cpp:157] Top shape: 1024 300 (307200)
I0409 02:40:55.363391 26699 net.cpp:165] Memory required for data: 4103028736
I0409 02:40:55.363397 26699 layer_factory.hpp:77] Creating layer fc4_prescale
I0409 02:40:55.363404 26699 net.cpp:100] Creating Layer fc4_prescale
I0409 02:40:55.363409 26699 net.cpp:434] fc4_prescale <- fc4_300
I0409 02:40:55.363416 26699 net.cpp:395] fc4_prescale -> fc4_300 (in-place)
I0409 02:40:55.363512 26699 net.cpp:150] Setting up fc4_prescale
I0409 02:40:55.363535 26699 net.cpp:157] Top shape: 1024 300 (307200)
I0409 02:40:55.363541 26699 net.cpp:165] Memory required for data: 4104257536
I0409 02:40:55.363554 26699 layer_factory.hpp:77] Creating layer fc4_sTanH
I0409 02:40:55.363560 26699 net.cpp:100] Creating Layer fc4_sTanH
I0409 02:40:55.363564 26699 net.cpp:434] fc4_sTanH <- fc4_300
I0409 02:40:55.363569 26699 net.cpp:395] fc4_sTanH -> fc4_300 (in-place)
I0409 02:40:55.363772 26699 net.cpp:150] Setting up fc4_sTanH
I0409 02:40:55.363785 26699 net.cpp:157] Top shape: 1024 300 (307200)
I0409 02:40:55.363787 26699 net.cpp:165] Memory required for data: 4105486336
I0409 02:40:55.363791 26699 layer_factory.hpp:77] Creating layer fc4_postscale
I0409 02:40:55.363797 26699 net.cpp:100] Creating Layer fc4_postscale
I0409 02:40:55.363801 26699 net.cpp:434] fc4_postscale <- fc4_300
I0409 02:40:55.363807 26699 net.cpp:395] fc4_postscale -> fc4_300 (in-place)
I0409 02:40:55.363925 26699 net.cpp:150] Setting up fc4_postscale
I0409 02:40:55.363937 26699 net.cpp:157] Top shape: 1024 300 (307200)
I0409 02:40:55.363940 26699 net.cpp:165] Memory required for data: 4106715136
I0409 02:40:55.363945 26699 layer_factory.hpp:77] Creating layer drop4
I0409 02:40:55.363951 26699 net.cpp:100] Creating Layer drop4
I0409 02:40:55.363955 26699 net.cpp:434] drop4 <- fc4_300
I0409 02:40:55.363960 26699 net.cpp:395] drop4 -> fc4_300 (in-place)
I0409 02:40:55.363986 26699 net.cpp:150] Setting up drop4
I0409 02:40:55.363993 26699 net.cpp:157] Top shape: 1024 300 (307200)
I0409 02:40:55.363997 26699 net.cpp:165] Memory required for data: 4107943936
I0409 02:40:55.364001 26699 layer_factory.hpp:77] Creating layer fc5_67
I0409 02:40:55.364007 26699 net.cpp:100] Creating Layer fc5_67
I0409 02:40:55.364012 26699 net.cpp:434] fc5_67 <- fc4_300
I0409 02:40:55.364017 26699 net.cpp:408] fc5_67 -> fc5_classes
I0409 02:40:55.364267 26699 net.cpp:150] Setting up fc5_67
I0409 02:40:55.364279 26699 net.cpp:157] Top shape: 1024 67 (68608)
I0409 02:40:55.364281 26699 net.cpp:165] Memory required for data: 4108218368
I0409 02:40:55.364291 26699 layer_factory.hpp:77] Creating layer fc5_classes_fc5_67_0_split
I0409 02:40:55.364300 26699 net.cpp:100] Creating Layer fc5_classes_fc5_67_0_split
I0409 02:40:55.364305 26699 net.cpp:434] fc5_classes_fc5_67_0_split <- fc5_classes
I0409 02:40:55.364310 26699 net.cpp:408] fc5_classes_fc5_67_0_split -> fc5_classes_fc5_67_0_split_0
I0409 02:40:55.364316 26699 net.cpp:408] fc5_classes_fc5_67_0_split -> fc5_classes_fc5_67_0_split_1
I0409 02:40:55.364322 26699 net.cpp:408] fc5_classes_fc5_67_0_split -> fc5_classes_fc5_67_0_split_2
I0409 02:40:55.364377 26699 net.cpp:150] Setting up fc5_classes_fc5_67_0_split
I0409 02:40:55.364384 26699 net.cpp:157] Top shape: 1024 67 (68608)
I0409 02:40:55.364388 26699 net.cpp:157] Top shape: 1024 67 (68608)
I0409 02:40:55.364392 26699 net.cpp:157] Top shape: 1024 67 (68608)
I0409 02:40:55.364394 26699 net.cpp:165] Memory required for data: 4109041664
I0409 02:40:55.364398 26699 layer_factory.hpp:77] Creating layer loss
I0409 02:40:55.364408 26699 net.cpp:100] Creating Layer loss
I0409 02:40:55.364413 26699 net.cpp:434] loss <- fc5_classes_fc5_67_0_split_0
I0409 02:40:55.364416 26699 net.cpp:434] loss <- label_data_1_split_0
I0409 02:40:55.364421 26699 net.cpp:408] loss -> loss
…
