…
I0409 08:28:34.437253 22862 net.cpp:322] The NetState phase (0) differed from the phase (1) specified by a rule in layer accuracy_5
I0409 08:28:34.437366 22862 net.cpp:58] Initializing net from parameters: 
state {
  phase: TRAIN
  level: 0
  stage: ""
}
layer {
  name: "data"
  type: "Data"
  top: "data"
  top: "label"
  include {
    phase: TRAIN
  }
  transform_param {
    mirror: false
    crop_size: 48
    mean_value: 130
    mean_value: 123
    mean_value: 137
  }
  data_param {
    source: "../local_data/lmdb/rtsd-r1/histeq/train/lmdb"
    batch_size: 1024
    backend: LMDB
  }
}
layer {
  name: "conv1"
  type: "Convolution"
  bottom: "data"
  top: "conv1"
  convolution_param {
    num_output: 100
    pad: 0
    kernel_size: 7
    group: 1
    stride: 1
    weight_filler {
      type: "xavier"
    }
  }
}
layer {
  name: "conv1_relu"
  type: "ReLU"
  bottom: "conv1"
  top: "conv1"
}
layer {
  name: "pool1"
  type: "Pooling"
  bottom: "conv1"
  top: "pool1"
  pooling_param {
    pool: MAX
    kernel_size: 2
    stride: 2
  }
}
layer {
  name: "conv2"
  type: "Convolution"
  bottom: "pool1"
  top: "conv2"
  convolution_param {
    num_output: 150
    pad: 0
    kernel_size: 4
    group: 1
    stride: 1
    weight_filler {
      type: "xavier"
    }
  }
}
layer {
  name: "conv2_relu"
  type: "ReLU"
  bottom: "conv2"
  top: "conv2"
}
layer {
  name: "pool2"
  type: "Pooling"
  bottom: "conv2"
  top: "pool2"
  pooling_param {
    pool: MAX
    kernel_size: 2
    stride: 2
  }
}
layer {
  name: "conv3"
  type: "Convolution"
  bottom: "pool2"
  top: "conv3"
  convolution_param {
    num_output: 250
    pad: 0
    kernel_size: 4
    group: 1
    stride: 1
    weight_filler {
      type: "xavier"
    }
  }
}
layer {
  name: "conv3_relu"
  type: "ReLU"
  bottom: "conv3"
  top: "conv3"
}
layer {
  name: "pool3"
  type: "Pooling"
  bottom: "conv3"
  top: "pool3"
  pooling_param {
    pool: MAX
    kernel_size: 2
    stride: 2
  }
}
layer {
  name: "fc4_300"
  type: "InnerProduct"
  bottom: "pool3"
  top: "fc4_300"
  inner_product_param {
    num_output: 300
    weight_filler {
      type: "xavier"
    }
  }
}
layer {
  name: "fc4_relu"
  type: "ReLU"
  bottom: "fc4_300"
  top: "fc4_300"
}
layer {
  name: "drop4"
  type: "Dropout"
  bottom: "fc4_300"
  top: "fc4_300"
  dropout_param {
    dropout_ratio: 0.4
  }
}
layer {
  name: "fc5_67"
  type: "InnerProduct"
  bottom: "fc4_300"
  top: "fc5_classes"
  inner_product_param {
    num_output: 67
    weight_filler {
      type: "xavier"
    }
  }
}
layer {
  name: "loss"
  type: "SoftmaxWithLoss"
  bottom: "fc5_classes"
  bottom: "label"
  top: "loss"
}
I0409 08:28:34.437449 22862 layer_factory.hpp:77] Creating layer data
I0409 08:28:34.438721 22862 net.cpp:100] Creating Layer data
I0409 08:28:34.438740 22862 net.cpp:408] data -> data
I0409 08:28:34.438765 22862 net.cpp:408] data -> label
I0409 08:28:34.440214 22921 db_lmdb.cpp:35] Opened lmdb ../local_data/lmdb/rtsd-r1/histeq/train/lmdb
I0409 08:28:34.460155 22862 data_layer.cpp:41] output data size: 1024,3,48,48
I0409 08:28:34.518684 22862 net.cpp:150] Setting up data
I0409 08:28:34.518721 22862 net.cpp:157] Top shape: 1024 3 48 48 (7077888)
I0409 08:28:34.518754 22862 net.cpp:157] Top shape: 1024 (1024)
I0409 08:28:34.518759 22862 net.cpp:165] Memory required for data: 28315648
I0409 08:28:34.518770 22862 layer_factory.hpp:77] Creating layer conv1
I0409 08:28:34.518803 22862 net.cpp:100] Creating Layer conv1
I0409 08:28:34.518812 22862 net.cpp:434] conv1 <- data
I0409 08:28:34.518826 22862 net.cpp:408] conv1 -> conv1
I0409 08:28:34.822091 22862 net.cpp:150] Setting up conv1
I0409 08:28:34.822131 22862 net.cpp:157] Top shape: 1024 100 42 42 (180633600)
I0409 08:28:34.822135 22862 net.cpp:165] Memory required for data: 750850048
I0409 08:28:34.822157 22862 layer_factory.hpp:77] Creating layer conv1_relu
I0409 08:28:34.822170 22862 net.cpp:100] Creating Layer conv1_relu
I0409 08:28:34.822176 22862 net.cpp:434] conv1_relu <- conv1
I0409 08:28:34.822182 22862 net.cpp:395] conv1_relu -> conv1 (in-place)
I0409 08:28:34.822376 22862 net.cpp:150] Setting up conv1_relu
I0409 08:28:34.822386 22862 net.cpp:157] Top shape: 1024 100 42 42 (180633600)
I0409 08:28:34.822391 22862 net.cpp:165] Memory required for data: 1473384448
I0409 08:28:34.822393 22862 layer_factory.hpp:77] Creating layer pool1
I0409 08:28:34.822402 22862 net.cpp:100] Creating Layer pool1
I0409 08:28:34.822405 22862 net.cpp:434] pool1 <- conv1
I0409 08:28:34.822410 22862 net.cpp:408] pool1 -> pool1
I0409 08:28:34.822463 22862 net.cpp:150] Setting up pool1
I0409 08:28:34.822470 22862 net.cpp:157] Top shape: 1024 100 21 21 (45158400)
I0409 08:28:34.822474 22862 net.cpp:165] Memory required for data: 1654018048
I0409 08:28:34.822476 22862 layer_factory.hpp:77] Creating layer conv2
I0409 08:28:34.822489 22862 net.cpp:100] Creating Layer conv2
I0409 08:28:34.822492 22862 net.cpp:434] conv2 <- pool1
I0409 08:28:34.822497 22862 net.cpp:408] conv2 -> conv2
I0409 08:28:34.826666 22862 net.cpp:150] Setting up conv2
I0409 08:28:34.826683 22862 net.cpp:157] Top shape: 1024 150 18 18 (49766400)
I0409 08:28:34.826686 22862 net.cpp:165] Memory required for data: 1853083648
I0409 08:28:34.826695 22862 layer_factory.hpp:77] Creating layer conv2_relu
I0409 08:28:34.826701 22862 net.cpp:100] Creating Layer conv2_relu
I0409 08:28:34.826705 22862 net.cpp:434] conv2_relu <- conv2
I0409 08:28:34.826709 22862 net.cpp:395] conv2_relu -> conv2 (in-place)
I0409 08:28:34.827453 22862 net.cpp:150] Setting up conv2_relu
I0409 08:28:34.827468 22862 net.cpp:157] Top shape: 1024 150 18 18 (49766400)
I0409 08:28:34.827471 22862 net.cpp:165] Memory required for data: 2052149248
I0409 08:28:34.827476 22862 layer_factory.hpp:77] Creating layer pool2
I0409 08:28:34.827481 22862 net.cpp:100] Creating Layer pool2
I0409 08:28:34.827484 22862 net.cpp:434] pool2 <- conv2
I0409 08:28:34.827489 22862 net.cpp:408] pool2 -> pool2
I0409 08:28:34.827544 22862 net.cpp:150] Setting up pool2
I0409 08:28:34.827553 22862 net.cpp:157] Top shape: 1024 150 9 9 (12441600)
I0409 08:28:34.827555 22862 net.cpp:165] Memory required for data: 2101915648
I0409 08:28:34.827558 22862 layer_factory.hpp:77] Creating layer conv3
I0409 08:28:34.827565 22862 net.cpp:100] Creating Layer conv3
I0409 08:28:34.827570 22862 net.cpp:434] conv3 <- pool2
I0409 08:28:34.827574 22862 net.cpp:408] conv3 -> conv3
I0409 08:28:34.832872 22862 net.cpp:150] Setting up conv3
I0409 08:28:34.832903 22862 net.cpp:157] Top shape: 1024 250 6 6 (9216000)
I0409 08:28:34.832907 22862 net.cpp:165] Memory required for data: 2138779648
I0409 08:28:34.832916 22862 layer_factory.hpp:77] Creating layer conv3_relu
I0409 08:28:34.832926 22862 net.cpp:100] Creating Layer conv3_relu
I0409 08:28:34.832929 22862 net.cpp:434] conv3_relu <- conv3
I0409 08:28:34.832934 22862 net.cpp:395] conv3_relu -> conv3 (in-place)
I0409 08:28:34.833699 22862 net.cpp:150] Setting up conv3_relu
I0409 08:28:34.833714 22862 net.cpp:157] Top shape: 1024 250 6 6 (9216000)
I0409 08:28:34.833729 22862 net.cpp:165] Memory required for data: 2175643648
I0409 08:28:34.833732 22862 layer_factory.hpp:77] Creating layer pool3
I0409 08:28:34.833740 22862 net.cpp:100] Creating Layer pool3
I0409 08:28:34.833744 22862 net.cpp:434] pool3 <- conv3
I0409 08:28:34.833766 22862 net.cpp:408] pool3 -> pool3
I0409 08:28:34.833817 22862 net.cpp:150] Setting up pool3
I0409 08:28:34.833825 22862 net.cpp:157] Top shape: 1024 250 3 3 (2304000)
I0409 08:28:34.833828 22862 net.cpp:165] Memory required for data: 2184859648
I0409 08:28:34.833832 22862 layer_factory.hpp:77] Creating layer fc4_300
I0409 08:28:34.833838 22862 net.cpp:100] Creating Layer fc4_300
I0409 08:28:34.833842 22862 net.cpp:434] fc4_300 <- pool3
I0409 08:28:34.833847 22862 net.cpp:408] fc4_300 -> fc4_300
I0409 08:28:34.839032 22862 net.cpp:150] Setting up fc4_300
I0409 08:28:34.839048 22862 net.cpp:157] Top shape: 1024 300 (307200)
I0409 08:28:34.839051 22862 net.cpp:165] Memory required for data: 2186088448
I0409 08:28:34.839057 22862 layer_factory.hpp:77] Creating layer fc4_relu
I0409 08:28:34.839063 22862 net.cpp:100] Creating Layer fc4_relu
I0409 08:28:34.839066 22862 net.cpp:434] fc4_relu <- fc4_300
I0409 08:28:34.839073 22862 net.cpp:395] fc4_relu -> fc4_300 (in-place)
I0409 08:28:34.839278 22862 net.cpp:150] Setting up fc4_relu
I0409 08:28:34.839289 22862 net.cpp:157] Top shape: 1024 300 (307200)
I0409 08:28:34.839293 22862 net.cpp:165] Memory required for data: 2187317248
I0409 08:28:34.839295 22862 layer_factory.hpp:77] Creating layer drop4
I0409 08:28:34.839303 22862 net.cpp:100] Creating Layer drop4
I0409 08:28:34.839306 22862 net.cpp:434] drop4 <- fc4_300
I0409 08:28:34.839311 22862 net.cpp:395] drop4 -> fc4_300 (in-place)
I0409 08:28:34.839344 22862 net.cpp:150] Setting up drop4
I0409 08:28:34.839350 22862 net.cpp:157] Top shape: 1024 300 (307200)
I0409 08:28:34.839354 22862 net.cpp:165] Memory required for data: 2188546048
I0409 08:28:34.839356 22862 layer_factory.hpp:77] Creating layer fc5_67
I0409 08:28:34.839362 22862 net.cpp:100] Creating Layer fc5_67
I0409 08:28:34.839365 22862 net.cpp:434] fc5_67 <- fc4_300
I0409 08:28:34.839370 22862 net.cpp:408] fc5_67 -> fc5_classes
I0409 08:28:34.840571 22862 net.cpp:150] Setting up fc5_67
I0409 08:28:34.840585 22862 net.cpp:157] Top shape: 1024 67 (68608)
I0409 08:28:34.840587 22862 net.cpp:165] Memory required for data: 2188820480
I0409 08:28:34.840598 22862 layer_factory.hpp:77] Creating layer loss
I0409 08:28:34.840605 22862 net.cpp:100] Creating Layer loss
I0409 08:28:34.840608 22862 net.cpp:434] loss <- fc5_classes
I0409 08:28:34.840612 22862 net.cpp:434] loss <- label
I0409 08:28:34.840631 22862 net.cpp:408] loss -> loss
I0409 08:28:34.840643 22862 layer_factory.hpp:77] Creating layer loss
…
I0409 08:28:34.841313 22862 solver.cpp:193] Creating test net (#0) specified by test_net file: ./Prototxt/experiment_6/rtsd-r1/histeq/trial_1/test.prototxt
I0409 08:28:34.841454 22862 net.cpp:58] Initializing net from parameters: 
state {
  phase: TEST
}
layer {
  name: "data"
  type: "Data"
  top: "data"
  top: "label"
  include {
    phase: TEST
  }
  transform_param {
    mirror: false
    crop_size: 48
    mean_value: 124
    mean_value: 121
    mean_value: 142
  }
  data_param {
    source: "../local_data/lmdb/rtsd-r1/histeq/test/lmdb"
    batch_size: 1024
    backend: LMDB
  }
}
layer {
  name: "conv1"
  type: "Convolution"
  bottom: "data"
  top: "conv1"
  convolution_param {
    num_output: 100
    pad: 0
    kernel_size: 7
    group: 1
    stride: 1
    weight_filler {
      type: "xavier"
    }
  }
}
layer {
  name: "conv1_relu"
  type: "ReLU"
  bottom: "conv1"
  top: "conv1"
}
layer {
  name: "pool1"
  type: "Pooling"
  bottom: "conv1"
  top: "pool1"
  pooling_param {
    pool: MAX
    kernel_size: 2
    stride: 2
  }
}
layer {
  name: "conv2"
  type: "Convolution"
  bottom: "pool1"
  top: "conv2"
  convolution_param {
    num_output: 150
    pad: 0
    kernel_size: 4
    group: 1
    stride: 1
    weight_filler {
      type: "xavier"
    }
  }
}
layer {
  name: "conv2_relu"
  type: "ReLU"
  bottom: "conv2"
  top: "conv2"
}
layer {
  name: "pool2"
  type: "Pooling"
  bottom: "conv2"
  top: "pool2"
  pooling_param {
    pool: MAX
    kernel_size: 2
    stride: 2
  }
}
layer {
  name: "conv3"
  type: "Convolution"
  bottom: "pool2"
  top: "conv3"
  convolution_param {
    num_output: 250
    pad: 0
    kernel_size: 4
    group: 1
    stride: 1
    weight_filler {
      type: "xavier"
    }
  }
}
layer {
  name: "conv3_relu"
  type: "ReLU"
  bottom: "conv3"
  top: "conv3"
}
layer {
  name: "pool3"
  type: "Pooling"
  bottom: "conv3"
  top: "pool3"
  pooling_param {
    pool: MAX
    kernel_size: 2
    stride: 2
  }
}
layer {
  name: "fc4_300"
  type: "InnerProduct"
  bottom: "pool3"
  top: "fc4_300"
  inner_product_param {
    num_output: 300
    weight_filler {
      type: "xavier"
    }
  }
}
layer {
  name: "fc4_relu"
  type: "ReLU"
  bottom: "fc4_300"
  top: "fc4_300"
}
layer {
  name: "drop4"
  type: "Dropout"
  bottom: "fc4_300"
  top: "fc4_300"
  dropout_param {
    dropout_ratio: 0.4
  }
}
layer {
  name: "fc5_67"
  type: "InnerProduct"
  bottom: "fc4_300"
  top: "fc5_classes"
  inner_product_param {
    num_output: 67
    weight_filler {
      type: "xavier"
    }
  }
}
layer {
  name: "loss"
  type: "SoftmaxWithLoss"
  bottom: "fc5_classes"
  bottom: "label"
  top: "loss"
}
layer {
  name: "accuracy_1"
  type: "Accuracy"
  bottom: "fc5_classes"
  bottom: "label"
  top: "accuracy_1"
  include {
    phase: TEST
  }
  accuracy_param {
    top_k: 1
  }
}
layer {
  name: "accuracy_5"
  type: "Accuracy"
  bottom: "fc5_classes"
  bottom: "label"
  top: "accuracy_5"
  include {
    phase: TEST
  }
  accuracy_param {
    top_k: 5
  }
}
I0409 08:28:34.841544 22862 layer_factory.hpp:77] Creating layer data
I0409 08:28:34.842213 22862 net.cpp:100] Creating Layer data
I0409 08:28:34.842224 22862 net.cpp:408] data -> data
I0409 08:28:34.842247 22862 net.cpp:408] data -> label
I0409 08:28:34.843425 22932 db_lmdb.cpp:35] Opened lmdb ../local_data/lmdb/rtsd-r1/histeq/test/lmdb
I0409 08:28:34.843695 22862 data_layer.cpp:41] output data size: 1024,3,48,48
I0409 08:28:34.882128 22862 net.cpp:150] Setting up data
I0409 08:28:34.882156 22862 net.cpp:157] Top shape: 1024 3 48 48 (7077888)
I0409 08:28:34.882161 22862 net.cpp:157] Top shape: 1024 (1024)
I0409 08:28:34.882164 22862 net.cpp:165] Memory required for data: 28315648
I0409 08:28:34.882170 22862 layer_factory.hpp:77] Creating layer label_data_1_split
I0409 08:28:34.882195 22862 net.cpp:100] Creating Layer label_data_1_split
I0409 08:28:34.882200 22862 net.cpp:434] label_data_1_split <- label
I0409 08:28:34.882208 22862 net.cpp:408] label_data_1_split -> label_data_1_split_0
I0409 08:28:34.882220 22862 net.cpp:408] label_data_1_split -> label_data_1_split_1
I0409 08:28:34.882227 22862 net.cpp:408] label_data_1_split -> label_data_1_split_2
I0409 08:28:34.882386 22862 net.cpp:150] Setting up label_data_1_split
I0409 08:28:34.882396 22862 net.cpp:157] Top shape: 1024 (1024)
I0409 08:28:34.882400 22862 net.cpp:157] Top shape: 1024 (1024)
I0409 08:28:34.882403 22862 net.cpp:157] Top shape: 1024 (1024)
I0409 08:28:34.882406 22862 net.cpp:165] Memory required for data: 28327936
I0409 08:28:34.882410 22862 layer_factory.hpp:77] Creating layer conv1
I0409 08:28:34.882422 22862 net.cpp:100] Creating Layer conv1
I0409 08:28:34.882428 22862 net.cpp:434] conv1 <- data
I0409 08:28:34.882434 22862 net.cpp:408] conv1 -> conv1
I0409 08:28:34.886565 22862 net.cpp:150] Setting up conv1
I0409 08:28:34.886584 22862 net.cpp:157] Top shape: 1024 100 42 42 (180633600)
I0409 08:28:34.886586 22862 net.cpp:165] Memory required for data: 750862336
I0409 08:28:34.886598 22862 layer_factory.hpp:77] Creating layer conv1_relu
I0409 08:28:34.886606 22862 net.cpp:100] Creating Layer conv1_relu
I0409 08:28:34.886610 22862 net.cpp:434] conv1_relu <- conv1
I0409 08:28:34.886615 22862 net.cpp:395] conv1_relu -> conv1 (in-place)
I0409 08:28:34.886818 22862 net.cpp:150] Setting up conv1_relu
I0409 08:28:34.886833 22862 net.cpp:157] Top shape: 1024 100 42 42 (180633600)
I0409 08:28:34.886837 22862 net.cpp:165] Memory required for data: 1473396736
I0409 08:28:34.886839 22862 layer_factory.hpp:77] Creating layer pool1
I0409 08:28:34.886849 22862 net.cpp:100] Creating Layer pool1
I0409 08:28:34.886852 22862 net.cpp:434] pool1 <- conv1
I0409 08:28:34.886859 22862 net.cpp:408] pool1 -> pool1
I0409 08:28:34.886907 22862 net.cpp:150] Setting up pool1
I0409 08:28:34.886915 22862 net.cpp:157] Top shape: 1024 100 21 21 (45158400)
I0409 08:28:34.886919 22862 net.cpp:165] Memory required for data: 1654030336
I0409 08:28:34.886920 22862 layer_factory.hpp:77] Creating layer conv2
I0409 08:28:34.886930 22862 net.cpp:100] Creating Layer conv2
I0409 08:28:34.886934 22862 net.cpp:434] conv2 <- pool1
I0409 08:28:34.886940 22862 net.cpp:408] conv2 -> conv2
I0409 08:28:34.890839 22862 net.cpp:150] Setting up conv2
I0409 08:28:34.890856 22862 net.cpp:157] Top shape: 1024 150 18 18 (49766400)
I0409 08:28:34.890861 22862 net.cpp:165] Memory required for data: 1853095936
I0409 08:28:34.890871 22862 layer_factory.hpp:77] Creating layer conv2_relu
I0409 08:28:34.890877 22862 net.cpp:100] Creating Layer conv2_relu
I0409 08:28:34.890882 22862 net.cpp:434] conv2_relu <- conv2
I0409 08:28:34.890892 22862 net.cpp:395] conv2_relu -> conv2 (in-place)
I0409 08:28:34.891681 22862 net.cpp:150] Setting up conv2_relu
I0409 08:28:34.891697 22862 net.cpp:157] Top shape: 1024 150 18 18 (49766400)
I0409 08:28:34.891701 22862 net.cpp:165] Memory required for data: 2052161536
I0409 08:28:34.891705 22862 layer_factory.hpp:77] Creating layer pool2
I0409 08:28:34.891713 22862 net.cpp:100] Creating Layer pool2
I0409 08:28:34.891716 22862 net.cpp:434] pool2 <- conv2
I0409 08:28:34.891723 22862 net.cpp:408] pool2 -> pool2
I0409 08:28:34.891775 22862 net.cpp:150] Setting up pool2
I0409 08:28:34.891786 22862 net.cpp:157] Top shape: 1024 150 9 9 (12441600)
I0409 08:28:34.891789 22862 net.cpp:165] Memory required for data: 2101927936
I0409 08:28:34.891793 22862 layer_factory.hpp:77] Creating layer conv3
I0409 08:28:34.891803 22862 net.cpp:100] Creating Layer conv3
I0409 08:28:34.891806 22862 net.cpp:434] conv3 <- pool2
I0409 08:28:34.891811 22862 net.cpp:408] conv3 -> conv3
I0409 08:28:34.897395 22862 net.cpp:150] Setting up conv3
I0409 08:28:34.897414 22862 net.cpp:157] Top shape: 1024 250 6 6 (9216000)
I0409 08:28:34.897418 22862 net.cpp:165] Memory required for data: 2138791936
I0409 08:28:34.897440 22862 layer_factory.hpp:77] Creating layer conv3_relu
I0409 08:28:34.897449 22862 net.cpp:100] Creating Layer conv3_relu
I0409 08:28:34.897452 22862 net.cpp:434] conv3_relu <- conv3
I0409 08:28:34.897460 22862 net.cpp:395] conv3_relu -> conv3 (in-place)
I0409 08:28:34.898257 22862 net.cpp:150] Setting up conv3_relu
I0409 08:28:34.898277 22862 net.cpp:157] Top shape: 1024 250 6 6 (9216000)
I0409 08:28:34.898282 22862 net.cpp:165] Memory required for data: 2175655936
I0409 08:28:34.898303 22862 layer_factory.hpp:77] Creating layer pool3
I0409 08:28:34.898309 22862 net.cpp:100] Creating Layer pool3
I0409 08:28:34.898313 22862 net.cpp:434] pool3 <- conv3
I0409 08:28:34.898319 22862 net.cpp:408] pool3 -> pool3
I0409 08:28:34.898373 22862 net.cpp:150] Setting up pool3
I0409 08:28:34.898381 22862 net.cpp:157] Top shape: 1024 250 3 3 (2304000)
I0409 08:28:34.898385 22862 net.cpp:165] Memory required for data: 2184871936
I0409 08:28:34.898387 22862 layer_factory.hpp:77] Creating layer fc4_300
I0409 08:28:34.898396 22862 net.cpp:100] Creating Layer fc4_300
I0409 08:28:34.898402 22862 net.cpp:434] fc4_300 <- pool3
I0409 08:28:34.898407 22862 net.cpp:408] fc4_300 -> fc4_300
I0409 08:28:34.903775 22862 net.cpp:150] Setting up fc4_300
I0409 08:28:34.903792 22862 net.cpp:157] Top shape: 1024 300 (307200)
I0409 08:28:34.903795 22862 net.cpp:165] Memory required for data: 2186100736
I0409 08:28:34.903802 22862 layer_factory.hpp:77] Creating layer fc4_relu
I0409 08:28:34.903808 22862 net.cpp:100] Creating Layer fc4_relu
I0409 08:28:34.903812 22862 net.cpp:434] fc4_relu <- fc4_300
I0409 08:28:34.903818 22862 net.cpp:395] fc4_relu -> fc4_300 (in-place)
I0409 08:28:34.904031 22862 net.cpp:150] Setting up fc4_relu
I0409 08:28:34.904043 22862 net.cpp:157] Top shape: 1024 300 (307200)
I0409 08:28:34.904047 22862 net.cpp:165] Memory required for data: 2187329536
I0409 08:28:34.904049 22862 layer_factory.hpp:77] Creating layer drop4
I0409 08:28:34.904057 22862 net.cpp:100] Creating Layer drop4
I0409 08:28:34.904059 22862 net.cpp:434] drop4 <- fc4_300
I0409 08:28:34.904075 22862 net.cpp:395] drop4 -> fc4_300 (in-place)
I0409 08:28:34.904109 22862 net.cpp:150] Setting up drop4
I0409 08:28:34.904116 22862 net.cpp:157] Top shape: 1024 300 (307200)
I0409 08:28:34.904119 22862 net.cpp:165] Memory required for data: 2188558336
I0409 08:28:34.904122 22862 layer_factory.hpp:77] Creating layer fc5_67
I0409 08:28:34.904129 22862 net.cpp:100] Creating Layer fc5_67
I0409 08:28:34.904132 22862 net.cpp:434] fc5_67 <- fc4_300
I0409 08:28:34.904139 22862 net.cpp:408] fc5_67 -> fc5_classes
I0409 08:28:34.904407 22862 net.cpp:150] Setting up fc5_67
I0409 08:28:34.904415 22862 net.cpp:157] Top shape: 1024 67 (68608)
I0409 08:28:34.904418 22862 net.cpp:165] Memory required for data: 2188832768
I0409 08:28:34.904428 22862 layer_factory.hpp:77] Creating layer fc5_classes_fc5_67_0_split
I0409 08:28:34.904436 22862 net.cpp:100] Creating Layer fc5_classes_fc5_67_0_split
I0409 08:28:34.904448 22862 net.cpp:434] fc5_classes_fc5_67_0_split <- fc5_classes
I0409 08:28:34.904455 22862 net.cpp:408] fc5_classes_fc5_67_0_split -> fc5_classes_fc5_67_0_split_0
I0409 08:28:34.904464 22862 net.cpp:408] fc5_classes_fc5_67_0_split -> fc5_classes_fc5_67_0_split_1
I0409 08:28:34.904469 22862 net.cpp:408] fc5_classes_fc5_67_0_split -> fc5_classes_fc5_67_0_split_2
I0409 08:28:34.904525 22862 net.cpp:150] Setting up fc5_classes_fc5_67_0_split
I0409 08:28:34.904534 22862 net.cpp:157] Top shape: 1024 67 (68608)
I0409 08:28:34.904538 22862 net.cpp:157] Top shape: 1024 67 (68608)
I0409 08:28:34.904541 22862 net.cpp:157] Top shape: 1024 67 (68608)
I0409 08:28:34.904543 22862 net.cpp:165] Memory required for data: 2189656064
I0409 08:28:34.904546 22862 layer_factory.hpp:77] Creating layer loss
I0409 08:28:34.904556 22862 net.cpp:100] Creating Layer loss
I0409 08:28:34.904559 22862 net.cpp:434] loss <- fc5_classes_fc5_67_0_split_0
I0409 08:28:34.904563 22862 net.cpp:434] loss <- label_data_1_split_0
I0409 08:28:34.904568 22862 net.cpp:408] loss -> loss
…
