…
I0409 02:43:24.077098  1681 net.cpp:322] The NetState phase (0) differed from the phase (1) specified by a rule in layer accuracy_5
I0409 02:43:24.077278  1681 net.cpp:58] Initializing net from parameters: 
state {
  phase: TRAIN
  level: 0
  stage: ""
}
layer {
  name: "data"
  type: "Data"
  top: "data"
  top: "label"
  include {
    phase: TRAIN
  }
  transform_param {
    mirror: false
    crop_size: 48
    mean_value: 122
    mean_value: 115
    mean_value: 128
  }
  data_param {
    source: "../local_data/lmdb/rtsd-r1/histeq/train/lmdb"
    batch_size: 1024
    backend: LMDB
  }
}
layer {
  name: "conv1"
  type: "Convolution"
  bottom: "data"
  top: "conv1"
  convolution_param {
    num_output: 100
    pad: 0
    kernel_size: 7
    group: 1
    stride: 1
    weight_filler {
      type: "xavier"
    }
  }
}
layer {
  name: "conv1_prescale"
  type: "Scale"
  bottom: "conv1"
  top: "conv1"
  param {
    lr_mult: 0
    decay_mult: 0
  }
  scale_param {
    filler {
      value: 0.6666
    }
  }
}
layer {
  name: "conv1_sTanH"
  type: "TanH"
  bottom: "conv1"
  top: "conv1"
}
layer {
  name: "conv1_postscale"
  type: "Scale"
  bottom: "conv1"
  top: "conv1"
  param {
    lr_mult: 0
    decay_mult: 0
  }
  scale_param {
    filler {
      value: 1.7159
    }
  }
}
layer {
  name: "pool1"
  type: "Pooling"
  bottom: "conv1"
  top: "pool1"
  pooling_param {
    pool: MAX
    kernel_size: 2
    stride: 2
  }
}
layer {
  name: "conv2"
  type: "Convolution"
  bottom: "pool1"
  top: "conv2"
  convolution_param {
    num_output: 150
    pad: 0
    kernel_size: 4
    group: 1
    stride: 1
    weight_filler {
      type: "xavier"
    }
  }
}
layer {
  name: "conv2_prescale"
  type: "Scale"
  bottom: "conv2"
  top: "conv2"
  param {
    lr_mult: 0
    decay_mult: 0
  }
  scale_param {
    filler {
      value: 0.6666
    }
  }
}
layer {
  name: "conv2_sTanH"
  type: "TanH"
  bottom: "conv2"
  top: "conv2"
}
layer {
  name: "conv2_postscale"
  type: "Scale"
  bottom: "conv2"
  top: "conv2"
  param {
    lr_mult: 0
    decay_mult: 0
  }
  scale_param {
    filler {
      value: 1.7159
    }
  }
}
layer {
  name: "pool2"
  type: "Pooling"
  bottom: "conv2"
  top: "pool2"
  pooling_param {
    pool: MAX
    kernel_size: 2
    stride: 2
  }
}
layer {
  name: "conv3"
  type: "Convolution"
  bottom: "pool2"
  top: "conv3"
  convolution_param {
    num_output: 250
    pad: 0
    kernel_size: 4
    group: 1
    stride: 1
    weight_filler {
      type: "xavier"
    }
  }
}
layer {
  name: "conv3_prescale"
  type: "Scale"
  bottom: "conv3"
  top: "conv3"
  param {
    lr_mult: 0
    decay_mult: 0
  }
  scale_param {
    filler {
      value: 0.6666
    }
  }
}
layer {
  name: "conv3_sTanH"
  type: "TanH"
  bottom: "conv3"
  top: "conv3"
}
layer {
  name: "conv3_postscale"
  type: "Scale"
  bottom: "conv3"
  top: "conv3"
  param {
    lr_mult: 0
    decay_mult: 0
  }
  scale_param {
    filler {
      value: 1.7159
    }
  }
}
layer {
  name: "pool3"
  type: "Pooling"
  bottom: "conv3"
  top: "pool3"
  pooling_param {
    pool: MAX
    kernel_size: 2
    stride: 2
  }
}
layer {
  name: "fc4_300"
  type: "InnerProduct"
  bottom: "pool3"
  top: "fc4_300"
  inner_product_param {
    num_output: 300
    weight_filler {
      type: "xavier"
    }
  }
}
layer {
  name: "fc4_prescale"
  type: "Scale"
  bottom: "fc4_300"
  top: "fc4_300"
  param {
    lr_mult: 0
    decay_mult: 0
  }
  scale_param {
    filler {
      value: 0.6666
    }
  }
}
layer {
  name: "fc4_sTanH"
  type: "TanH"
  bottom: "fc4_300"
  top: "fc4_300"
}
layer {
  name: "fc4_postscale"
  type: "Scale"
  bottom: "fc4_300"
  top: "fc4_300"
  param {
    lr_mult: 0
    decay_mult: 0
  }
  scale_param {
    filler {
      value: 1.7159
    }
  }
}
layer {
  name: "drop4"
  type: "Dropout"
  bottom: "fc4_300"
  top: "fc4_300"
  dropout_param {
    dropout_ratio: 0.4
  }
}
layer {
  name: "fc5_67"
  type: "InnerProduct"
  bottom: "fc4_300"
  top: "fc5_classes"
  inner_product_param {
    num_output: 67
    weight_filler {
      type: "xavier"
    }
  }
}
layer {
  name: "loss"
  type: "SoftmaxWithLoss"
  bottom: "fc5_classes"
  bottom: "label"
  top: "loss"
}
I0409 02:43:24.077400  1681 layer_factory.hpp:77] Creating layer data
I0409 02:43:24.078677  1681 net.cpp:100] Creating Layer data
I0409 02:43:24.078698  1681 net.cpp:408] data -> data
I0409 02:43:24.078725  1681 net.cpp:408] data -> label
I0409 02:43:24.080266  1779 db_lmdb.cpp:35] Opened lmdb ../local_data/lmdb/rtsd-r1/histeq/train/lmdb
I0409 02:43:24.101830  1681 data_layer.cpp:41] output data size: 1024,3,48,48
I0409 02:43:24.176069  1681 net.cpp:150] Setting up data
I0409 02:43:24.176106  1681 net.cpp:157] Top shape: 1024 3 48 48 (7077888)
I0409 02:43:24.176113  1681 net.cpp:157] Top shape: 1024 (1024)
I0409 02:43:24.176118  1681 net.cpp:165] Memory required for data: 28315648
I0409 02:43:24.176129  1681 layer_factory.hpp:77] Creating layer conv1
I0409 02:43:24.176156  1681 net.cpp:100] Creating Layer conv1
I0409 02:43:24.176164  1681 net.cpp:434] conv1 <- data
I0409 02:43:24.176180  1681 net.cpp:408] conv1 -> conv1
I0409 02:43:24.494441  1681 net.cpp:150] Setting up conv1
I0409 02:43:24.494470  1681 net.cpp:157] Top shape: 1024 100 42 42 (180633600)
I0409 02:43:24.494474  1681 net.cpp:165] Memory required for data: 750850048
I0409 02:43:24.494496  1681 layer_factory.hpp:77] Creating layer conv1_prescale
I0409 02:43:24.494513  1681 net.cpp:100] Creating Layer conv1_prescale
I0409 02:43:24.494518  1681 net.cpp:434] conv1_prescale <- conv1
I0409 02:43:24.494536  1681 net.cpp:395] conv1_prescale -> conv1 (in-place)
I0409 02:43:24.494643  1681 net.cpp:150] Setting up conv1_prescale
I0409 02:43:24.494652  1681 net.cpp:157] Top shape: 1024 100 42 42 (180633600)
I0409 02:43:24.494655  1681 net.cpp:165] Memory required for data: 1473384448
I0409 02:43:24.494663  1681 layer_factory.hpp:77] Creating layer conv1_sTanH
I0409 02:43:24.494670  1681 net.cpp:100] Creating Layer conv1_sTanH
I0409 02:43:24.494673  1681 net.cpp:434] conv1_sTanH <- conv1
I0409 02:43:24.494678  1681 net.cpp:395] conv1_sTanH -> conv1 (in-place)
I0409 02:43:24.494868  1681 net.cpp:150] Setting up conv1_sTanH
I0409 02:43:24.494880  1681 net.cpp:157] Top shape: 1024 100 42 42 (180633600)
I0409 02:43:24.494884  1681 net.cpp:165] Memory required for data: 2195918848
I0409 02:43:24.494887  1681 layer_factory.hpp:77] Creating layer conv1_postscale
I0409 02:43:24.494895  1681 net.cpp:100] Creating Layer conv1_postscale
I0409 02:43:24.494900  1681 net.cpp:434] conv1_postscale <- conv1
I0409 02:43:24.494905  1681 net.cpp:395] conv1_postscale -> conv1 (in-place)
I0409 02:43:24.495000  1681 net.cpp:150] Setting up conv1_postscale
I0409 02:43:24.495008  1681 net.cpp:157] Top shape: 1024 100 42 42 (180633600)
I0409 02:43:24.495012  1681 net.cpp:165] Memory required for data: 2918453248
I0409 02:43:24.495017  1681 layer_factory.hpp:77] Creating layer pool1
I0409 02:43:24.495023  1681 net.cpp:100] Creating Layer pool1
I0409 02:43:24.495025  1681 net.cpp:434] pool1 <- conv1
I0409 02:43:24.495030  1681 net.cpp:408] pool1 -> pool1
I0409 02:43:24.495079  1681 net.cpp:150] Setting up pool1
I0409 02:43:24.495086  1681 net.cpp:157] Top shape: 1024 100 21 21 (45158400)
I0409 02:43:24.495090  1681 net.cpp:165] Memory required for data: 3099086848
I0409 02:43:24.495110  1681 layer_factory.hpp:77] Creating layer conv2
I0409 02:43:24.495121  1681 net.cpp:100] Creating Layer conv2
I0409 02:43:24.495126  1681 net.cpp:434] conv2 <- pool1
I0409 02:43:24.495132  1681 net.cpp:408] conv2 -> conv2
I0409 02:43:24.499356  1681 net.cpp:150] Setting up conv2
I0409 02:43:24.499373  1681 net.cpp:157] Top shape: 1024 150 18 18 (49766400)
I0409 02:43:24.499390  1681 net.cpp:165] Memory required for data: 3298152448
I0409 02:43:24.499402  1681 layer_factory.hpp:77] Creating layer conv2_prescale
I0409 02:43:24.499413  1681 net.cpp:100] Creating Layer conv2_prescale
I0409 02:43:24.499416  1681 net.cpp:434] conv2_prescale <- conv2
I0409 02:43:24.499423  1681 net.cpp:395] conv2_prescale -> conv2 (in-place)
I0409 02:43:24.499529  1681 net.cpp:150] Setting up conv2_prescale
I0409 02:43:24.499538  1681 net.cpp:157] Top shape: 1024 150 18 18 (49766400)
I0409 02:43:24.499541  1681 net.cpp:165] Memory required for data: 3497218048
I0409 02:43:24.499546  1681 layer_factory.hpp:77] Creating layer conv2_sTanH
I0409 02:43:24.499552  1681 net.cpp:100] Creating Layer conv2_sTanH
I0409 02:43:24.499555  1681 net.cpp:434] conv2_sTanH <- conv2
I0409 02:43:24.499559  1681 net.cpp:395] conv2_sTanH -> conv2 (in-place)
I0409 02:43:24.500337  1681 net.cpp:150] Setting up conv2_sTanH
I0409 02:43:24.500352  1681 net.cpp:157] Top shape: 1024 150 18 18 (49766400)
I0409 02:43:24.500356  1681 net.cpp:165] Memory required for data: 3696283648
I0409 02:43:24.500371  1681 layer_factory.hpp:77] Creating layer conv2_postscale
I0409 02:43:24.500380  1681 net.cpp:100] Creating Layer conv2_postscale
I0409 02:43:24.500385  1681 net.cpp:434] conv2_postscale <- conv2
I0409 02:43:24.500391  1681 net.cpp:395] conv2_postscale -> conv2 (in-place)
I0409 02:43:24.500485  1681 net.cpp:150] Setting up conv2_postscale
I0409 02:43:24.500494  1681 net.cpp:157] Top shape: 1024 150 18 18 (49766400)
I0409 02:43:24.500496  1681 net.cpp:165] Memory required for data: 3895349248
I0409 02:43:24.500501  1681 layer_factory.hpp:77] Creating layer pool2
I0409 02:43:24.500507  1681 net.cpp:100] Creating Layer pool2
I0409 02:43:24.500510  1681 net.cpp:434] pool2 <- conv2
I0409 02:43:24.500514  1681 net.cpp:408] pool2 -> pool2
I0409 02:43:24.500553  1681 net.cpp:150] Setting up pool2
I0409 02:43:24.500560  1681 net.cpp:157] Top shape: 1024 150 9 9 (12441600)
I0409 02:43:24.500563  1681 net.cpp:165] Memory required for data: 3945115648
I0409 02:43:24.500566  1681 layer_factory.hpp:77] Creating layer conv3
I0409 02:43:24.500574  1681 net.cpp:100] Creating Layer conv3
I0409 02:43:24.500578  1681 net.cpp:434] conv3 <- pool2
I0409 02:43:24.500583  1681 net.cpp:408] conv3 -> conv3
I0409 02:43:24.505964  1681 net.cpp:150] Setting up conv3
I0409 02:43:24.505980  1681 net.cpp:157] Top shape: 1024 250 6 6 (9216000)
I0409 02:43:24.505983  1681 net.cpp:165] Memory required for data: 3981979648
I0409 02:43:24.506005  1681 layer_factory.hpp:77] Creating layer conv3_prescale
I0409 02:43:24.506013  1681 net.cpp:100] Creating Layer conv3_prescale
I0409 02:43:24.506018  1681 net.cpp:434] conv3_prescale <- conv3
I0409 02:43:24.506023  1681 net.cpp:395] conv3_prescale -> conv3 (in-place)
I0409 02:43:24.506114  1681 net.cpp:150] Setting up conv3_prescale
I0409 02:43:24.506124  1681 net.cpp:157] Top shape: 1024 250 6 6 (9216000)
I0409 02:43:24.506125  1681 net.cpp:165] Memory required for data: 4018843648
I0409 02:43:24.506130  1681 layer_factory.hpp:77] Creating layer conv3_sTanH
I0409 02:43:24.506135  1681 net.cpp:100] Creating Layer conv3_sTanH
I0409 02:43:24.506139  1681 net.cpp:434] conv3_sTanH <- conv3
I0409 02:43:24.506142  1681 net.cpp:395] conv3_sTanH -> conv3 (in-place)
I0409 02:43:24.506892  1681 net.cpp:150] Setting up conv3_sTanH
I0409 02:43:24.506907  1681 net.cpp:157] Top shape: 1024 250 6 6 (9216000)
I0409 02:43:24.506912  1681 net.cpp:165] Memory required for data: 4055707648
I0409 02:43:24.506927  1681 layer_factory.hpp:77] Creating layer conv3_postscale
I0409 02:43:24.506934  1681 net.cpp:100] Creating Layer conv3_postscale
I0409 02:43:24.506952  1681 net.cpp:434] conv3_postscale <- conv3
I0409 02:43:24.506958  1681 net.cpp:395] conv3_postscale -> conv3 (in-place)
I0409 02:43:24.507061  1681 net.cpp:150] Setting up conv3_postscale
I0409 02:43:24.507071  1681 net.cpp:157] Top shape: 1024 250 6 6 (9216000)
I0409 02:43:24.507073  1681 net.cpp:165] Memory required for data: 4092571648
I0409 02:43:24.507078  1681 layer_factory.hpp:77] Creating layer pool3
I0409 02:43:24.507086  1681 net.cpp:100] Creating Layer pool3
I0409 02:43:24.507091  1681 net.cpp:434] pool3 <- conv3
I0409 02:43:24.507095  1681 net.cpp:408] pool3 -> pool3
I0409 02:43:24.507136  1681 net.cpp:150] Setting up pool3
I0409 02:43:24.507144  1681 net.cpp:157] Top shape: 1024 250 3 3 (2304000)
I0409 02:43:24.507148  1681 net.cpp:165] Memory required for data: 4101787648
I0409 02:43:24.507150  1681 layer_factory.hpp:77] Creating layer fc4_300
I0409 02:43:24.507159  1681 net.cpp:100] Creating Layer fc4_300
I0409 02:43:24.507164  1681 net.cpp:434] fc4_300 <- pool3
I0409 02:43:24.507169  1681 net.cpp:408] fc4_300 -> fc4_300
I0409 02:43:24.512572  1681 net.cpp:150] Setting up fc4_300
I0409 02:43:24.512588  1681 net.cpp:157] Top shape: 1024 300 (307200)
I0409 02:43:24.512590  1681 net.cpp:165] Memory required for data: 4103016448
I0409 02:43:24.512598  1681 layer_factory.hpp:77] Creating layer fc4_prescale
I0409 02:43:24.512605  1681 net.cpp:100] Creating Layer fc4_prescale
I0409 02:43:24.512610  1681 net.cpp:434] fc4_prescale <- fc4_300
I0409 02:43:24.512615  1681 net.cpp:395] fc4_prescale -> fc4_300 (in-place)
I0409 02:43:24.512702  1681 net.cpp:150] Setting up fc4_prescale
I0409 02:43:24.512712  1681 net.cpp:157] Top shape: 1024 300 (307200)
I0409 02:43:24.512714  1681 net.cpp:165] Memory required for data: 4104245248
I0409 02:43:24.512718  1681 layer_factory.hpp:77] Creating layer fc4_sTanH
I0409 02:43:24.512723  1681 net.cpp:100] Creating Layer fc4_sTanH
I0409 02:43:24.512727  1681 net.cpp:434] fc4_sTanH <- fc4_300
I0409 02:43:24.512730  1681 net.cpp:395] fc4_sTanH -> fc4_300 (in-place)
I0409 02:43:24.512924  1681 net.cpp:150] Setting up fc4_sTanH
I0409 02:43:24.512935  1681 net.cpp:157] Top shape: 1024 300 (307200)
I0409 02:43:24.512938  1681 net.cpp:165] Memory required for data: 4105474048
I0409 02:43:24.512941  1681 layer_factory.hpp:77] Creating layer fc4_postscale
I0409 02:43:24.512949  1681 net.cpp:100] Creating Layer fc4_postscale
I0409 02:43:24.512953  1681 net.cpp:434] fc4_postscale <- fc4_300
I0409 02:43:24.512959  1681 net.cpp:395] fc4_postscale -> fc4_300 (in-place)
I0409 02:43:24.513056  1681 net.cpp:150] Setting up fc4_postscale
I0409 02:43:24.513063  1681 net.cpp:157] Top shape: 1024 300 (307200)
I0409 02:43:24.513067  1681 net.cpp:165] Memory required for data: 4106702848
I0409 02:43:24.513070  1681 layer_factory.hpp:77] Creating layer drop4
I0409 02:43:24.513078  1681 net.cpp:100] Creating Layer drop4
I0409 02:43:24.513082  1681 net.cpp:434] drop4 <- fc4_300
I0409 02:43:24.513087  1681 net.cpp:395] drop4 -> fc4_300 (in-place)
I0409 02:43:24.513115  1681 net.cpp:150] Setting up drop4
I0409 02:43:24.513123  1681 net.cpp:157] Top shape: 1024 300 (307200)
I0409 02:43:24.513125  1681 net.cpp:165] Memory required for data: 4107931648
I0409 02:43:24.513129  1681 layer_factory.hpp:77] Creating layer fc5_67
I0409 02:43:24.513134  1681 net.cpp:100] Creating Layer fc5_67
I0409 02:43:24.513137  1681 net.cpp:434] fc5_67 <- fc4_300
I0409 02:43:24.513144  1681 net.cpp:408] fc5_67 -> fc5_classes
I0409 02:43:24.514372  1681 net.cpp:150] Setting up fc5_67
I0409 02:43:24.514386  1681 net.cpp:157] Top shape: 1024 67 (68608)
I0409 02:43:24.514391  1681 net.cpp:165] Memory required for data: 4108206080
I0409 02:43:24.514405  1681 layer_factory.hpp:77] Creating layer loss
I0409 02:43:24.514412  1681 net.cpp:100] Creating Layer loss
I0409 02:43:24.514417  1681 net.cpp:434] loss <- fc5_classes
I0409 02:43:24.514421  1681 net.cpp:434] loss <- label
I0409 02:43:24.514427  1681 net.cpp:408] loss -> loss
I0409 02:43:24.514441  1681 layer_factory.hpp:77] Creating layer loss
…
I0409 02:43:24.515180  1681 solver.cpp:193] Creating test net (#0) specified by test_net file: ./Prototxt/experiment_6/rtsd-r1/histeq/trial_1/test.prototxt
I0409 02:43:24.515359  1681 net.cpp:58] Initializing net from parameters: 
state {
  phase: TEST
}
layer {
  name: "data"
  type: "Data"
  top: "data"
  top: "label"
  include {
    phase: TEST
  }
  transform_param {
    mirror: false
    crop_size: 48
    mean_value: 117
    mean_value: 114
    mean_value: 133
  }
  data_param {
    source: "../local_data/lmdb/rtsd-r1/histeq/test/lmdb"
    batch_size: 1024
    backend: LMDB
  }
}
layer {
  name: "conv1"
  type: "Convolution"
  bottom: "data"
  top: "conv1"
  convolution_param {
    num_output: 100
    pad: 0
    kernel_size: 7
    group: 1
    stride: 1
    weight_filler {
      type: "xavier"
    }
  }
}
layer {
  name: "conv1_prescale"
  type: "Scale"
  bottom: "conv1"
  top: "conv1"
  param {
    lr_mult: 0
    decay_mult: 0
  }
  scale_param {
    filler {
      value: 0.6666
    }
  }
}
layer {
  name: "conv1_sTanH"
  type: "TanH"
  bottom: "conv1"
  top: "conv1"
}
layer {
  name: "conv1_postscale"
  type: "Scale"
  bottom: "conv1"
  top: "conv1"
  param {
    lr_mult: 0
    decay_mult: 0
  }
  scale_param {
    filler {
      value: 1.7159
    }
  }
}
layer {
  name: "pool1"
  type: "Pooling"
  bottom: "conv1"
  top: "pool1"
  pooling_param {
    pool: MAX
    kernel_size: 2
    stride: 2
  }
}
layer {
  name: "conv2"
  type: "Convolution"
  bottom: "pool1"
  top: "conv2"
  convolution_param {
    num_output: 150
    pad: 0
    kernel_size: 4
    group: 1
    stride: 1
    weight_filler {
      type: "xavier"
    }
  }
}
layer {
  name: "conv2_prescale"
  type: "Scale"
  bottom: "conv2"
  top: "conv2"
  param {
    lr_mult: 0
    decay_mult: 0
  }
  scale_param {
    filler {
      value: 0.6666
    }
  }
}
layer {
  name: "conv2_sTanH"
  type: "TanH"
  bottom: "conv2"
  top: "conv2"
}
layer {
  name: "conv2_postscale"
  type: "Scale"
  bottom: "conv2"
  top: "conv2"
  param {
    lr_mult: 0
    decay_mult: 0
  }
  scale_param {
    filler {
      value: 1.7159
    }
  }
}
layer {
  name: "pool2"
  type: "Pooling"
  bottom: "conv2"
  top: "pool2"
  pooling_param {
    pool: MAX
    kernel_size: 2
    stride: 2
  }
}
layer {
  name: "conv3"
  type: "Convolution"
  bottom: "pool2"
  top: "conv3"
  convolution_param {
    num_output: 250
    pad: 0
    kernel_size: 4
    group: 1
    stride: 1
    weight_filler {
      type: "xavier"
    }
  }
}
layer {
  name: "conv3_prescale"
  type: "Scale"
  bottom: "conv3"
  top: "conv3"
  param {
    lr_mult: 0
    decay_mult: 0
  }
  scale_param {
    filler {
      value: 0.6666
    }
  }
}
layer {
  name: "conv3_sTanH"
  type: "TanH"
  bottom: "conv3"
  top: "conv3"
}
layer {
  name: "conv3_postscale"
  type: "Scale"
  bottom: "conv3"
  top: "conv3"
  param {
    lr_mult: 0
    decay_mult: 0
  }
  scale_param {
    filler {
      value: 1.7159
    }
  }
}
layer {
  name: "pool3"
  type: "Pooling"
  bottom: "conv3"
  top: "pool3"
  pooling_param {
    pool: MAX
    kernel_size: 2
    stride: 2
  }
}
layer {
  name: "fc4_300"
  type: "InnerProduct"
  bottom: "pool3"
  top: "fc4_300"
  inner_product_param {
    num_output: 300
    weight_filler {
      type: "xavier"
    }
  }
}
layer {
  name: "fc4_prescale"
  type: "Scale"
  bottom: "fc4_300"
  top: "fc4_300"
  param {
    lr_mult: 0
    decay_mult: 0
  }
  scale_param {
    filler {
      value: 0.6666
    }
  }
}
layer {
  name: "fc4_sTanH"
  type: "TanH"
  bottom: "fc4_300"
  top: "fc4_300"
}
layer {
  name: "fc4_postscale"
  type: "Scale"
  bottom: "fc4_300"
  top: "fc4_300"
  param {
    lr_mult: 0
    decay_mult: 0
  }
  scale_param {
    filler {
      value: 1.7159
    }
  }
}
layer {
  name: "drop4"
  type: "Dropout"
  bottom: "fc4_300"
  top: "fc4_300"
  dropout_param {
    dropout_ratio: 0.4
  }
}
layer {
  name: "fc5_67"
  type: "InnerProduct"
  bottom: "fc4_300"
  top: "fc5_classes"
  inner_product_param {
    num_output: 67
    weight_filler {
      type: "xavier"
    }
  }
}
layer {
  name: "loss"
  type: "SoftmaxWithLoss"
  bottom: "fc5_classes"
  bottom: "label"
  top: "loss"
}
layer {
  name: "accuracy_1"
  type: "Accuracy"
  bottom: "fc5_classes"
  bottom: "label"
  top: "accuracy_1"
  include {
    phase: TEST
  }
  accuracy_param {
    top_k: 1
  }
}
layer {
  name: "accuracy_5"
  type: "Accuracy"
  bottom: "fc5_classes"
  bottom: "label"
  top: "accuracy_5"
  include {
    phase: TEST
  }
  accuracy_param {
    top_k: 5
  }
}
I0409 02:43:24.515480  1681 layer_factory.hpp:77] Creating layer data
I0409 02:43:24.516185  1681 net.cpp:100] Creating Layer data
I0409 02:43:24.516199  1681 net.cpp:408] data -> data
I0409 02:43:24.516208  1681 net.cpp:408] data -> label
I0409 02:43:24.517367  1816 db_lmdb.cpp:35] Opened lmdb ../local_data/lmdb/rtsd-r1/histeq/test/lmdb
I0409 02:43:24.517530  1681 data_layer.cpp:41] output data size: 1024,3,48,48
I0409 02:43:24.566371  1681 net.cpp:150] Setting up data
I0409 02:43:24.566400  1681 net.cpp:157] Top shape: 1024 3 48 48 (7077888)
I0409 02:43:24.566404  1681 net.cpp:157] Top shape: 1024 (1024)
I0409 02:43:24.566407  1681 net.cpp:165] Memory required for data: 28315648
I0409 02:43:24.566413  1681 layer_factory.hpp:77] Creating layer label_data_1_split
I0409 02:43:24.566429  1681 net.cpp:100] Creating Layer label_data_1_split
I0409 02:43:24.566435  1681 net.cpp:434] label_data_1_split <- label
I0409 02:43:24.566443  1681 net.cpp:408] label_data_1_split -> label_data_1_split_0
I0409 02:43:24.566455  1681 net.cpp:408] label_data_1_split -> label_data_1_split_1
I0409 02:43:24.566463  1681 net.cpp:408] label_data_1_split -> label_data_1_split_2
I0409 02:43:24.566599  1681 net.cpp:150] Setting up label_data_1_split
I0409 02:43:24.566608  1681 net.cpp:157] Top shape: 1024 (1024)
I0409 02:43:24.566612  1681 net.cpp:157] Top shape: 1024 (1024)
I0409 02:43:24.566615  1681 net.cpp:157] Top shape: 1024 (1024)
I0409 02:43:24.566618  1681 net.cpp:165] Memory required for data: 28327936
I0409 02:43:24.566642  1681 layer_factory.hpp:77] Creating layer conv1
I0409 02:43:24.566656  1681 net.cpp:100] Creating Layer conv1
I0409 02:43:24.566661  1681 net.cpp:434] conv1 <- data
I0409 02:43:24.566668  1681 net.cpp:408] conv1 -> conv1
I0409 02:43:24.571892  1681 net.cpp:150] Setting up conv1
I0409 02:43:24.571910  1681 net.cpp:157] Top shape: 1024 100 42 42 (180633600)
I0409 02:43:24.571916  1681 net.cpp:165] Memory required for data: 750862336
I0409 02:43:24.571928  1681 layer_factory.hpp:77] Creating layer conv1_prescale
I0409 02:43:24.571939  1681 net.cpp:100] Creating Layer conv1_prescale
I0409 02:43:24.571944  1681 net.cpp:434] conv1_prescale <- conv1
I0409 02:43:24.571950  1681 net.cpp:395] conv1_prescale -> conv1 (in-place)
I0409 02:43:24.572060  1681 net.cpp:150] Setting up conv1_prescale
I0409 02:43:24.572072  1681 net.cpp:157] Top shape: 1024 100 42 42 (180633600)
I0409 02:43:24.572075  1681 net.cpp:165] Memory required for data: 1473396736
I0409 02:43:24.572082  1681 layer_factory.hpp:77] Creating layer conv1_sTanH
I0409 02:43:24.572089  1681 net.cpp:100] Creating Layer conv1_sTanH
I0409 02:43:24.572094  1681 net.cpp:434] conv1_sTanH <- conv1
I0409 02:43:24.572098  1681 net.cpp:395] conv1_sTanH -> conv1 (in-place)
I0409 02:43:24.572298  1681 net.cpp:150] Setting up conv1_sTanH
I0409 02:43:24.572309  1681 net.cpp:157] Top shape: 1024 100 42 42 (180633600)
I0409 02:43:24.572314  1681 net.cpp:165] Memory required for data: 2195931136
I0409 02:43:24.572316  1681 layer_factory.hpp:77] Creating layer conv1_postscale
I0409 02:43:24.572324  1681 net.cpp:100] Creating Layer conv1_postscale
I0409 02:43:24.572326  1681 net.cpp:434] conv1_postscale <- conv1
I0409 02:43:24.572335  1681 net.cpp:395] conv1_postscale -> conv1 (in-place)
I0409 02:43:24.572453  1681 net.cpp:150] Setting up conv1_postscale
I0409 02:43:24.572461  1681 net.cpp:157] Top shape: 1024 100 42 42 (180633600)
I0409 02:43:24.572464  1681 net.cpp:165] Memory required for data: 2918465536
I0409 02:43:24.572468  1681 layer_factory.hpp:77] Creating layer pool1
I0409 02:43:24.572475  1681 net.cpp:100] Creating Layer pool1
I0409 02:43:24.572480  1681 net.cpp:434] pool1 <- conv1
I0409 02:43:24.572486  1681 net.cpp:408] pool1 -> pool1
I0409 02:43:24.572530  1681 net.cpp:150] Setting up pool1
I0409 02:43:24.572538  1681 net.cpp:157] Top shape: 1024 100 21 21 (45158400)
I0409 02:43:24.572541  1681 net.cpp:165] Memory required for data: 3099099136
I0409 02:43:24.572545  1681 layer_factory.hpp:77] Creating layer conv2
I0409 02:43:24.572553  1681 net.cpp:100] Creating Layer conv2
I0409 02:43:24.572558  1681 net.cpp:434] conv2 <- pool1
I0409 02:43:24.572563  1681 net.cpp:408] conv2 -> conv2
I0409 02:43:24.580621  1681 net.cpp:150] Setting up conv2
I0409 02:43:24.580641  1681 net.cpp:157] Top shape: 1024 150 18 18 (49766400)
I0409 02:43:24.580646  1681 net.cpp:165] Memory required for data: 3298164736
I0409 02:43:24.580658  1681 layer_factory.hpp:77] Creating layer conv2_prescale
I0409 02:43:24.580672  1681 net.cpp:100] Creating Layer conv2_prescale
I0409 02:43:24.580677  1681 net.cpp:434] conv2_prescale <- conv2
I0409 02:43:24.580683  1681 net.cpp:395] conv2_prescale -> conv2 (in-place)
I0409 02:43:24.580799  1681 net.cpp:150] Setting up conv2_prescale
I0409 02:43:24.580808  1681 net.cpp:157] Top shape: 1024 150 18 18 (49766400)
I0409 02:43:24.580811  1681 net.cpp:165] Memory required for data: 3497230336
I0409 02:43:24.580816  1681 layer_factory.hpp:77] Creating layer conv2_sTanH
I0409 02:43:24.580822  1681 net.cpp:100] Creating Layer conv2_sTanH
I0409 02:43:24.580824  1681 net.cpp:434] conv2_sTanH <- conv2
I0409 02:43:24.580832  1681 net.cpp:395] conv2_sTanH -> conv2 (in-place)
I0409 02:43:24.581748  1681 net.cpp:150] Setting up conv2_sTanH
I0409 02:43:24.581765  1681 net.cpp:157] Top shape: 1024 150 18 18 (49766400)
I0409 02:43:24.581770  1681 net.cpp:165] Memory required for data: 3696295936
I0409 02:43:24.581773  1681 layer_factory.hpp:77] Creating layer conv2_postscale
I0409 02:43:24.581782  1681 net.cpp:100] Creating Layer conv2_postscale
I0409 02:43:24.581800  1681 net.cpp:434] conv2_postscale <- conv2
I0409 02:43:24.581807  1681 net.cpp:395] conv2_postscale -> conv2 (in-place)
I0409 02:43:24.581918  1681 net.cpp:150] Setting up conv2_postscale
I0409 02:43:24.581926  1681 net.cpp:157] Top shape: 1024 150 18 18 (49766400)
I0409 02:43:24.581929  1681 net.cpp:165] Memory required for data: 3895361536
I0409 02:43:24.581934  1681 layer_factory.hpp:77] Creating layer pool2
I0409 02:43:24.581943  1681 net.cpp:100] Creating Layer pool2
I0409 02:43:24.581950  1681 net.cpp:434] pool2 <- conv2
I0409 02:43:24.581955  1681 net.cpp:408] pool2 -> pool2
I0409 02:43:24.582005  1681 net.cpp:150] Setting up pool2
I0409 02:43:24.582013  1681 net.cpp:157] Top shape: 1024 150 9 9 (12441600)
I0409 02:43:24.582016  1681 net.cpp:165] Memory required for data: 3945127936
I0409 02:43:24.582020  1681 layer_factory.hpp:77] Creating layer conv3
I0409 02:43:24.582031  1681 net.cpp:100] Creating Layer conv3
I0409 02:43:24.582036  1681 net.cpp:434] conv3 <- pool2
I0409 02:43:24.582042  1681 net.cpp:408] conv3 -> conv3
I0409 02:43:24.588037  1681 net.cpp:150] Setting up conv3
I0409 02:43:24.588054  1681 net.cpp:157] Top shape: 1024 250 6 6 (9216000)
I0409 02:43:24.588058  1681 net.cpp:165] Memory required for data: 3981991936
I0409 02:43:24.588069  1681 layer_factory.hpp:77] Creating layer conv3_prescale
I0409 02:43:24.588078  1681 net.cpp:100] Creating Layer conv3_prescale
I0409 02:43:24.588083  1681 net.cpp:434] conv3_prescale <- conv3
I0409 02:43:24.588090  1681 net.cpp:395] conv3_prescale -> conv3 (in-place)
I0409 02:43:24.588198  1681 net.cpp:150] Setting up conv3_prescale
I0409 02:43:24.588208  1681 net.cpp:157] Top shape: 1024 250 6 6 (9216000)
I0409 02:43:24.588212  1681 net.cpp:165] Memory required for data: 4018855936
I0409 02:43:24.588215  1681 layer_factory.hpp:77] Creating layer conv3_sTanH
I0409 02:43:24.588222  1681 net.cpp:100] Creating Layer conv3_sTanH
I0409 02:43:24.588227  1681 net.cpp:434] conv3_sTanH <- conv3
I0409 02:43:24.588230  1681 net.cpp:395] conv3_sTanH -> conv3 (in-place)
I0409 02:43:24.590458  1681 net.cpp:150] Setting up conv3_sTanH
I0409 02:43:24.590474  1681 net.cpp:157] Top shape: 1024 250 6 6 (9216000)
I0409 02:43:24.590479  1681 net.cpp:165] Memory required for data: 4055719936
I0409 02:43:24.590483  1681 layer_factory.hpp:77] Creating layer conv3_postscale
I0409 02:43:24.590490  1681 net.cpp:100] Creating Layer conv3_postscale
I0409 02:43:24.590493  1681 net.cpp:434] conv3_postscale <- conv3
I0409 02:43:24.590502  1681 net.cpp:395] conv3_postscale -> conv3 (in-place)
I0409 02:43:24.590607  1681 net.cpp:150] Setting up conv3_postscale
I0409 02:43:24.590615  1681 net.cpp:157] Top shape: 1024 250 6 6 (9216000)
I0409 02:43:24.590618  1681 net.cpp:165] Memory required for data: 4092583936
I0409 02:43:24.590623  1681 layer_factory.hpp:77] Creating layer pool3
I0409 02:43:24.590632  1681 net.cpp:100] Creating Layer pool3
I0409 02:43:24.590637  1681 net.cpp:434] pool3 <- conv3
I0409 02:43:24.590642  1681 net.cpp:408] pool3 -> pool3
I0409 02:43:24.590683  1681 net.cpp:150] Setting up pool3
I0409 02:43:24.590692  1681 net.cpp:157] Top shape: 1024 250 3 3 (2304000)
I0409 02:43:24.590694  1681 net.cpp:165] Memory required for data: 4101799936
I0409 02:43:24.590698  1681 layer_factory.hpp:77] Creating layer fc4_300
I0409 02:43:24.590705  1681 net.cpp:100] Creating Layer fc4_300
I0409 02:43:24.590709  1681 net.cpp:434] fc4_300 <- pool3
I0409 02:43:24.590715  1681 net.cpp:408] fc4_300 -> fc4_300
I0409 02:43:24.596243  1681 net.cpp:150] Setting up fc4_300
I0409 02:43:24.596261  1681 net.cpp:157] Top shape: 1024 300 (307200)
I0409 02:43:24.596264  1681 net.cpp:165] Memory required for data: 4103028736
I0409 02:43:24.596271  1681 layer_factory.hpp:77] Creating layer fc4_prescale
I0409 02:43:24.596281  1681 net.cpp:100] Creating Layer fc4_prescale
I0409 02:43:24.596285  1681 net.cpp:434] fc4_prescale <- fc4_300
I0409 02:43:24.596290  1681 net.cpp:395] fc4_prescale -> fc4_300 (in-place)
I0409 02:43:24.596385  1681 net.cpp:150] Setting up fc4_prescale
I0409 02:43:24.596410  1681 net.cpp:157] Top shape: 1024 300 (307200)
I0409 02:43:24.596415  1681 net.cpp:165] Memory required for data: 4104257536
I0409 02:43:24.596420  1681 layer_factory.hpp:77] Creating layer fc4_sTanH
I0409 02:43:24.596424  1681 net.cpp:100] Creating Layer fc4_sTanH
I0409 02:43:24.596427  1681 net.cpp:434] fc4_sTanH <- fc4_300
I0409 02:43:24.596433  1681 net.cpp:395] fc4_sTanH -> fc4_300 (in-place)
I0409 02:43:24.596632  1681 net.cpp:150] Setting up fc4_sTanH
I0409 02:43:24.596642  1681 net.cpp:157] Top shape: 1024 300 (307200)
I0409 02:43:24.596645  1681 net.cpp:165] Memory required for data: 4105486336
I0409 02:43:24.596648  1681 layer_factory.hpp:77] Creating layer fc4_postscale
I0409 02:43:24.596657  1681 net.cpp:100] Creating Layer fc4_postscale
I0409 02:43:24.596662  1681 net.cpp:434] fc4_postscale <- fc4_300
I0409 02:43:24.596668  1681 net.cpp:395] fc4_postscale -> fc4_300 (in-place)
I0409 02:43:24.596771  1681 net.cpp:150] Setting up fc4_postscale
I0409 02:43:24.596779  1681 net.cpp:157] Top shape: 1024 300 (307200)
I0409 02:43:24.596782  1681 net.cpp:165] Memory required for data: 4106715136
I0409 02:43:24.596786  1681 layer_factory.hpp:77] Creating layer drop4
I0409 02:43:24.596796  1681 net.cpp:100] Creating Layer drop4
I0409 02:43:24.596799  1681 net.cpp:434] drop4 <- fc4_300
I0409 02:43:24.596804  1681 net.cpp:395] drop4 -> fc4_300 (in-place)
I0409 02:43:24.596832  1681 net.cpp:150] Setting up drop4
I0409 02:43:24.596838  1681 net.cpp:157] Top shape: 1024 300 (307200)
I0409 02:43:24.596842  1681 net.cpp:165] Memory required for data: 4107943936
I0409 02:43:24.596844  1681 layer_factory.hpp:77] Creating layer fc5_67
I0409 02:43:24.596849  1681 net.cpp:100] Creating Layer fc5_67
I0409 02:43:24.596854  1681 net.cpp:434] fc5_67 <- fc4_300
I0409 02:43:24.596860  1681 net.cpp:408] fc5_67 -> fc5_classes
I0409 02:43:24.597105  1681 net.cpp:150] Setting up fc5_67
I0409 02:43:24.597115  1681 net.cpp:157] Top shape: 1024 67 (68608)
I0409 02:43:24.597118  1681 net.cpp:165] Memory required for data: 4108218368
I0409 02:43:24.597128  1681 layer_factory.hpp:77] Creating layer fc5_classes_fc5_67_0_split
I0409 02:43:24.597136  1681 net.cpp:100] Creating Layer fc5_classes_fc5_67_0_split
I0409 02:43:24.597141  1681 net.cpp:434] fc5_classes_fc5_67_0_split <- fc5_classes
I0409 02:43:24.597149  1681 net.cpp:408] fc5_classes_fc5_67_0_split -> fc5_classes_fc5_67_0_split_0
I0409 02:43:24.597160  1681 net.cpp:408] fc5_classes_fc5_67_0_split -> fc5_classes_fc5_67_0_split_1
I0409 02:43:24.597169  1681 net.cpp:408] fc5_classes_fc5_67_0_split -> fc5_classes_fc5_67_0_split_2
I0409 02:43:24.597225  1681 net.cpp:150] Setting up fc5_classes_fc5_67_0_split
I0409 02:43:24.597232  1681 net.cpp:157] Top shape: 1024 67 (68608)
I0409 02:43:24.597235  1681 net.cpp:157] Top shape: 1024 67 (68608)
I0409 02:43:24.597239  1681 net.cpp:157] Top shape: 1024 67 (68608)
I0409 02:43:24.597241  1681 net.cpp:165] Memory required for data: 4109041664
I0409 02:43:24.597244  1681 layer_factory.hpp:77] Creating layer loss
I0409 02:43:24.597250  1681 net.cpp:100] Creating Layer loss
I0409 02:43:24.597254  1681 net.cpp:434] loss <- fc5_classes_fc5_67_0_split_0
I0409 02:43:24.597257  1681 net.cpp:434] loss <- label_data_1_split_0
I0409 02:43:24.597262  1681 net.cpp:408] loss -> loss
…
