…
I0409 02:23:35.016302  5793 net.cpp:322] The NetState phase (0) differed from the phase (1) specified by a rule in layer accuracy_5
I0409 02:23:35.016461  5793 net.cpp:58] Initializing net from parameters: 
state {
  phase: TRAIN
  level: 0
  stage: ""
}
layer {
  name: "data"
  type: "Data"
  top: "data"
  top: "label"
  include {
    phase: TRAIN
  }
  transform_param {
    mirror: false
    crop_size: 48
    mean_value: 122
    mean_value: 115
    mean_value: 128
  }
  data_param {
    source: "../local_data/lmdb/rtsd-r1/histeq/train/lmdb"
    batch_size: 1024
    backend: LMDB
  }
}
layer {
  name: "conv1"
  type: "Convolution"
  bottom: "data"
  top: "conv1"
  convolution_param {
    num_output: 100
    pad: 0
    kernel_size: 7
    group: 1
    stride: 1
    weight_filler {
      type: "xavier"
    }
  }
}
layer {
  name: "conv1_prescale"
  type: "Scale"
  bottom: "conv1"
  top: "conv1"
  param {
    lr_mult: 0
    decay_mult: 0
  }
  scale_param {
    filler {
      value: 0.6666
    }
  }
}
layer {
  name: "conv1_sTanH"
  type: "TanH"
  bottom: "conv1"
  top: "conv1"
}
layer {
  name: "conv1_postscale"
  type: "Scale"
  bottom: "conv1"
  top: "conv1"
  param {
    lr_mult: 0
    decay_mult: 0
  }
  scale_param {
    filler {
      value: 1.7159
    }
  }
}
layer {
  name: "pool1"
  type: "Pooling"
  bottom: "conv1"
  top: "pool1"
  pooling_param {
    pool: MAX
    kernel_size: 2
    stride: 2
  }
}
layer {
  name: "conv2"
  type: "Convolution"
  bottom: "pool1"
  top: "conv2"
  convolution_param {
    num_output: 150
    pad: 0
    kernel_size: 4
    group: 1
    stride: 1
    weight_filler {
      type: "xavier"
    }
  }
}
layer {
  name: "conv2_prescale"
  type: "Scale"
  bottom: "conv2"
  top: "conv2"
  param {
    lr_mult: 0
    decay_mult: 0
  }
  scale_param {
    filler {
      value: 0.6666
    }
  }
}
layer {
  name: "conv2_sTanH"
  type: "TanH"
  bottom: "conv2"
  top: "conv2"
}
layer {
  name: "conv2_postscale"
  type: "Scale"
  bottom: "conv2"
  top: "conv2"
  param {
    lr_mult: 0
    decay_mult: 0
  }
  scale_param {
    filler {
      value: 1.7159
    }
  }
}
layer {
  name: "pool2"
  type: "Pooling"
  bottom: "conv2"
  top: "pool2"
  pooling_param {
    pool: MAX
    kernel_size: 2
    stride: 2
  }
}
layer {
  name: "conv3"
  type: "Convolution"
  bottom: "pool2"
  top: "conv3"
  convolution_param {
    num_output: 250
    pad: 0
    kernel_size: 4
    group: 1
    stride: 1
    weight_filler {
      type: "xavier"
    }
  }
}
layer {
  name: "conv3_prescale"
  type: "Scale"
  bottom: "conv3"
  top: "conv3"
  param {
    lr_mult: 0
    decay_mult: 0
  }
  scale_param {
    filler {
      value: 0.6666
    }
  }
}
layer {
  name: "conv3_sTanH"
  type: "TanH"
  bottom: "conv3"
  top: "conv3"
}
layer {
  name: "conv3_postscale"
  type: "Scale"
  bottom: "conv3"
  top: "conv3"
  param {
    lr_mult: 0
    decay_mult: 0
  }
  scale_param {
    filler {
      value: 1.7159
    }
  }
}
layer {
  name: "pool3"
  type: "Pooling"
  bottom: "conv3"
  top: "pool3"
  pooling_param {
    pool: MAX
    kernel_size: 2
    stride: 2
  }
}
layer {
  name: "fc4_300"
  type: "InnerProduct"
  bottom: "pool3"
  top: "fc4_300"
  inner_product_param {
    num_output: 300
    weight_filler {
      type: "xavier"
    }
  }
}
layer {
  name: "fc4_relu"
  type: "ReLU"
  bottom: "fc4_300"
  top: "fc4_300"
}
layer {
  name: "drop4"
  type: "Dropout"
  bottom: "fc4_300"
  top: "fc4_300"
  dropout_param {
    dropout_ratio: 0.4
  }
}
layer {
  name: "fc5_67"
  type: "InnerProduct"
  bottom: "fc4_300"
  top: "fc5_classes"
  inner_product_param {
    num_output: 67
    weight_filler {
      type: "xavier"
    }
  }
}
layer {
  name: "loss"
  type: "SoftmaxWithLoss"
  bottom: "fc5_classes"
  bottom: "label"
  top: "loss"
}
I0409 02:23:35.016587  5793 layer_factory.hpp:77] Creating layer data
I0409 02:23:35.018118  5793 net.cpp:100] Creating Layer data
I0409 02:23:35.018141  5793 net.cpp:408] data -> data
I0409 02:23:35.018165  5793 net.cpp:408] data -> label
I0409 02:23:35.019731  5867 db_lmdb.cpp:35] Opened lmdb ../local_data/lmdb/rtsd-r1/histeq/train/lmdb
I0409 02:23:35.041571  5793 data_layer.cpp:41] output data size: 1024,3,48,48
I0409 02:23:35.096568  5793 net.cpp:150] Setting up data
I0409 02:23:35.096606  5793 net.cpp:157] Top shape: 1024 3 48 48 (7077888)
I0409 02:23:35.096613  5793 net.cpp:157] Top shape: 1024 (1024)
I0409 02:23:35.096616  5793 net.cpp:165] Memory required for data: 28315648
I0409 02:23:35.096628  5793 layer_factory.hpp:77] Creating layer conv1
I0409 02:23:35.096657  5793 net.cpp:100] Creating Layer conv1
I0409 02:23:35.096670  5793 net.cpp:434] conv1 <- data
I0409 02:23:35.096685  5793 net.cpp:408] conv1 -> conv1
I0409 02:23:35.500593  5793 net.cpp:150] Setting up conv1
I0409 02:23:35.500624  5793 net.cpp:157] Top shape: 1024 100 42 42 (180633600)
I0409 02:23:35.500628  5793 net.cpp:165] Memory required for data: 750850048
I0409 02:23:35.500650  5793 layer_factory.hpp:77] Creating layer conv1_prescale
I0409 02:23:35.500665  5793 net.cpp:100] Creating Layer conv1_prescale
I0409 02:23:35.500670  5793 net.cpp:434] conv1_prescale <- conv1
I0409 02:23:35.500677  5793 net.cpp:395] conv1_prescale -> conv1 (in-place)
I0409 02:23:35.500787  5793 net.cpp:150] Setting up conv1_prescale
I0409 02:23:35.500797  5793 net.cpp:157] Top shape: 1024 100 42 42 (180633600)
I0409 02:23:35.500799  5793 net.cpp:165] Memory required for data: 1473384448
I0409 02:23:35.500807  5793 layer_factory.hpp:77] Creating layer conv1_sTanH
I0409 02:23:35.500813  5793 net.cpp:100] Creating Layer conv1_sTanH
I0409 02:23:35.500816  5793 net.cpp:434] conv1_sTanH <- conv1
I0409 02:23:35.500820  5793 net.cpp:395] conv1_sTanH -> conv1 (in-place)
I0409 02:23:35.501018  5793 net.cpp:150] Setting up conv1_sTanH
I0409 02:23:35.501029  5793 net.cpp:157] Top shape: 1024 100 42 42 (180633600)
I0409 02:23:35.501032  5793 net.cpp:165] Memory required for data: 2195918848
I0409 02:23:35.501036  5793 layer_factory.hpp:77] Creating layer conv1_postscale
I0409 02:23:35.501044  5793 net.cpp:100] Creating Layer conv1_postscale
I0409 02:23:35.501047  5793 net.cpp:434] conv1_postscale <- conv1
I0409 02:23:35.501052  5793 net.cpp:395] conv1_postscale -> conv1 (in-place)
I0409 02:23:35.501148  5793 net.cpp:150] Setting up conv1_postscale
I0409 02:23:35.501157  5793 net.cpp:157] Top shape: 1024 100 42 42 (180633600)
I0409 02:23:35.501160  5793 net.cpp:165] Memory required for data: 2918453248
I0409 02:23:35.501165  5793 layer_factory.hpp:77] Creating layer pool1
I0409 02:23:35.501173  5793 net.cpp:100] Creating Layer pool1
I0409 02:23:35.501175  5793 net.cpp:434] pool1 <- conv1
I0409 02:23:35.501179  5793 net.cpp:408] pool1 -> pool1
I0409 02:23:35.501227  5793 net.cpp:150] Setting up pool1
I0409 02:23:35.501236  5793 net.cpp:157] Top shape: 1024 100 21 21 (45158400)
I0409 02:23:35.501240  5793 net.cpp:165] Memory required for data: 3099086848
I0409 02:23:35.501243  5793 layer_factory.hpp:77] Creating layer conv2
I0409 02:23:35.501253  5793 net.cpp:100] Creating Layer conv2
I0409 02:23:35.501256  5793 net.cpp:434] conv2 <- pool1
I0409 02:23:35.501261  5793 net.cpp:408] conv2 -> conv2
I0409 02:23:35.505625  5793 net.cpp:150] Setting up conv2
I0409 02:23:35.505642  5793 net.cpp:157] Top shape: 1024 150 18 18 (49766400)
I0409 02:23:35.505666  5793 net.cpp:165] Memory required for data: 3298152448
I0409 02:23:35.505677  5793 layer_factory.hpp:77] Creating layer conv2_prescale
I0409 02:23:35.505686  5793 net.cpp:100] Creating Layer conv2_prescale
I0409 02:23:35.505688  5793 net.cpp:434] conv2_prescale <- conv2
I0409 02:23:35.505694  5793 net.cpp:395] conv2_prescale -> conv2 (in-place)
I0409 02:23:35.505801  5793 net.cpp:150] Setting up conv2_prescale
I0409 02:23:35.505811  5793 net.cpp:157] Top shape: 1024 150 18 18 (49766400)
I0409 02:23:35.505815  5793 net.cpp:165] Memory required for data: 3497218048
I0409 02:23:35.505820  5793 layer_factory.hpp:77] Creating layer conv2_sTanH
I0409 02:23:35.505826  5793 net.cpp:100] Creating Layer conv2_sTanH
I0409 02:23:35.505830  5793 net.cpp:434] conv2_sTanH <- conv2
I0409 02:23:35.505833  5793 net.cpp:395] conv2_sTanH -> conv2 (in-place)
I0409 02:23:35.506569  5793 net.cpp:150] Setting up conv2_sTanH
I0409 02:23:35.506585  5793 net.cpp:157] Top shape: 1024 150 18 18 (49766400)
I0409 02:23:35.506598  5793 net.cpp:165] Memory required for data: 3696283648
I0409 02:23:35.506603  5793 layer_factory.hpp:77] Creating layer conv2_postscale
I0409 02:23:35.506610  5793 net.cpp:100] Creating Layer conv2_postscale
I0409 02:23:35.506613  5793 net.cpp:434] conv2_postscale <- conv2
I0409 02:23:35.506619  5793 net.cpp:395] conv2_postscale -> conv2 (in-place)
I0409 02:23:35.506711  5793 net.cpp:150] Setting up conv2_postscale
I0409 02:23:35.506721  5793 net.cpp:157] Top shape: 1024 150 18 18 (49766400)
I0409 02:23:35.506724  5793 net.cpp:165] Memory required for data: 3895349248
I0409 02:23:35.506729  5793 layer_factory.hpp:77] Creating layer pool2
I0409 02:23:35.506736  5793 net.cpp:100] Creating Layer pool2
I0409 02:23:35.506738  5793 net.cpp:434] pool2 <- conv2
I0409 02:23:35.506742  5793 net.cpp:408] pool2 -> pool2
I0409 02:23:35.506781  5793 net.cpp:150] Setting up pool2
I0409 02:23:35.506789  5793 net.cpp:157] Top shape: 1024 150 9 9 (12441600)
I0409 02:23:35.506793  5793 net.cpp:165] Memory required for data: 3945115648
I0409 02:23:35.506803  5793 layer_factory.hpp:77] Creating layer conv3
I0409 02:23:35.506810  5793 net.cpp:100] Creating Layer conv3
I0409 02:23:35.506815  5793 net.cpp:434] conv3 <- pool2
I0409 02:23:35.506820  5793 net.cpp:408] conv3 -> conv3
I0409 02:23:35.512312  5793 net.cpp:150] Setting up conv3
I0409 02:23:35.512328  5793 net.cpp:157] Top shape: 1024 250 6 6 (9216000)
I0409 02:23:35.512332  5793 net.cpp:165] Memory required for data: 3981979648
I0409 02:23:35.512342  5793 layer_factory.hpp:77] Creating layer conv3_prescale
I0409 02:23:35.512349  5793 net.cpp:100] Creating Layer conv3_prescale
I0409 02:23:35.512352  5793 net.cpp:434] conv3_prescale <- conv3
I0409 02:23:35.512357  5793 net.cpp:395] conv3_prescale -> conv3 (in-place)
I0409 02:23:35.512460  5793 net.cpp:150] Setting up conv3_prescale
I0409 02:23:35.512470  5793 net.cpp:157] Top shape: 1024 250 6 6 (9216000)
I0409 02:23:35.512473  5793 net.cpp:165] Memory required for data: 4018843648
I0409 02:23:35.512477  5793 layer_factory.hpp:77] Creating layer conv3_sTanH
I0409 02:23:35.512482  5793 net.cpp:100] Creating Layer conv3_sTanH
I0409 02:23:35.512485  5793 net.cpp:434] conv3_sTanH <- conv3
I0409 02:23:35.512490  5793 net.cpp:395] conv3_sTanH -> conv3 (in-place)
I0409 02:23:35.513238  5793 net.cpp:150] Setting up conv3_sTanH
I0409 02:23:35.513254  5793 net.cpp:157] Top shape: 1024 250 6 6 (9216000)
I0409 02:23:35.513270  5793 net.cpp:165] Memory required for data: 4055707648
I0409 02:23:35.513273  5793 layer_factory.hpp:77] Creating layer conv3_postscale
I0409 02:23:35.513281  5793 net.cpp:100] Creating Layer conv3_postscale
I0409 02:23:35.513286  5793 net.cpp:434] conv3_postscale <- conv3
I0409 02:23:35.513291  5793 net.cpp:395] conv3_postscale -> conv3 (in-place)
I0409 02:23:35.513387  5793 net.cpp:150] Setting up conv3_postscale
I0409 02:23:35.513396  5793 net.cpp:157] Top shape: 1024 250 6 6 (9216000)
I0409 02:23:35.513399  5793 net.cpp:165] Memory required for data: 4092571648
I0409 02:23:35.513404  5793 layer_factory.hpp:77] Creating layer pool3
I0409 02:23:35.513423  5793 net.cpp:100] Creating Layer pool3
I0409 02:23:35.513427  5793 net.cpp:434] pool3 <- conv3
I0409 02:23:35.513432  5793 net.cpp:408] pool3 -> pool3
I0409 02:23:35.513473  5793 net.cpp:150] Setting up pool3
I0409 02:23:35.513481  5793 net.cpp:157] Top shape: 1024 250 3 3 (2304000)
I0409 02:23:35.513484  5793 net.cpp:165] Memory required for data: 4101787648
I0409 02:23:35.513487  5793 layer_factory.hpp:77] Creating layer fc4_300
I0409 02:23:35.513496  5793 net.cpp:100] Creating Layer fc4_300
I0409 02:23:35.513499  5793 net.cpp:434] fc4_300 <- pool3
I0409 02:23:35.513504  5793 net.cpp:408] fc4_300 -> fc4_300
I0409 02:23:35.518805  5793 net.cpp:150] Setting up fc4_300
I0409 02:23:35.518821  5793 net.cpp:157] Top shape: 1024 300 (307200)
I0409 02:23:35.518826  5793 net.cpp:165] Memory required for data: 4103016448
I0409 02:23:35.518832  5793 layer_factory.hpp:77] Creating layer fc4_relu
I0409 02:23:35.518838  5793 net.cpp:100] Creating Layer fc4_relu
I0409 02:23:35.518842  5793 net.cpp:434] fc4_relu <- fc4_300
I0409 02:23:35.518847  5793 net.cpp:395] fc4_relu -> fc4_300 (in-place)
I0409 02:23:35.519029  5793 net.cpp:150] Setting up fc4_relu
I0409 02:23:35.519040  5793 net.cpp:157] Top shape: 1024 300 (307200)
I0409 02:23:35.519044  5793 net.cpp:165] Memory required for data: 4104245248
I0409 02:23:35.519047  5793 layer_factory.hpp:77] Creating layer drop4
I0409 02:23:35.519054  5793 net.cpp:100] Creating Layer drop4
I0409 02:23:35.519057  5793 net.cpp:434] drop4 <- fc4_300
I0409 02:23:35.519062  5793 net.cpp:395] drop4 -> fc4_300 (in-place)
I0409 02:23:35.519093  5793 net.cpp:150] Setting up drop4
I0409 02:23:35.519100  5793 net.cpp:157] Top shape: 1024 300 (307200)
I0409 02:23:35.519104  5793 net.cpp:165] Memory required for data: 4105474048
I0409 02:23:35.519106  5793 layer_factory.hpp:77] Creating layer fc5_67
I0409 02:23:35.519112  5793 net.cpp:100] Creating Layer fc5_67
I0409 02:23:35.519116  5793 net.cpp:434] fc5_67 <- fc4_300
I0409 02:23:35.519120  5793 net.cpp:408] fc5_67 -> fc5_classes
I0409 02:23:35.520375  5793 net.cpp:150] Setting up fc5_67
I0409 02:23:35.520391  5793 net.cpp:157] Top shape: 1024 67 (68608)
I0409 02:23:35.520395  5793 net.cpp:165] Memory required for data: 4105748480
I0409 02:23:35.520401  5793 layer_factory.hpp:77] Creating layer loss
I0409 02:23:35.520409  5793 net.cpp:100] Creating Layer loss
I0409 02:23:35.520413  5793 net.cpp:434] loss <- fc5_classes
I0409 02:23:35.520417  5793 net.cpp:434] loss <- label
I0409 02:23:35.520423  5793 net.cpp:408] loss -> loss
I0409 02:23:35.520437  5793 layer_factory.hpp:77] Creating layer loss
…
I0409 02:23:35.521152  5793 solver.cpp:193] Creating test net (#0) specified by test_net file: ./Prototxt/experiment_6/rtsd-r1/histeq/trial_1/test.prototxt
I0409 02:23:35.521322  5793 net.cpp:58] Initializing net from parameters: 
state {
  phase: TEST
}
layer {
  name: "data"
  type: "Data"
  top: "data"
  top: "label"
  include {
    phase: TEST
  }
  transform_param {
    mirror: false
    crop_size: 48
    mean_value: 117
    mean_value: 114
    mean_value: 133
  }
  data_param {
    source: "../local_data/lmdb/rtsd-r1/histeq/test/lmdb"
    batch_size: 1024
    backend: LMDB
  }
}
layer {
  name: "conv1"
  type: "Convolution"
  bottom: "data"
  top: "conv1"
  convolution_param {
    num_output: 100
    pad: 0
    kernel_size: 7
    group: 1
    stride: 1
    weight_filler {
      type: "xavier"
    }
  }
}
layer {
  name: "conv1_prescale"
  type: "Scale"
  bottom: "conv1"
  top: "conv1"
  param {
    lr_mult: 0
    decay_mult: 0
  }
  scale_param {
    filler {
      value: 0.6666
    }
  }
}
layer {
  name: "conv1_sTanH"
  type: "TanH"
  bottom: "conv1"
  top: "conv1"
}
layer {
  name: "conv1_postscale"
  type: "Scale"
  bottom: "conv1"
  top: "conv1"
  param {
    lr_mult: 0
    decay_mult: 0
  }
  scale_param {
    filler {
      value: 1.7159
    }
  }
}
layer {
  name: "pool1"
  type: "Pooling"
  bottom: "conv1"
  top: "pool1"
  pooling_param {
    pool: MAX
    kernel_size: 2
    stride: 2
  }
}
layer {
  name: "conv2"
  type: "Convolution"
  bottom: "pool1"
  top: "conv2"
  convolution_param {
    num_output: 150
    pad: 0
    kernel_size: 4
    group: 1
    stride: 1
    weight_filler {
      type: "xavier"
    }
  }
}
layer {
  name: "conv2_prescale"
  type: "Scale"
  bottom: "conv2"
  top: "conv2"
  param {
    lr_mult: 0
    decay_mult: 0
  }
  scale_param {
    filler {
      value: 0.6666
    }
  }
}
layer {
  name: "conv2_sTanH"
  type: "TanH"
  bottom: "conv2"
  top: "conv2"
}
layer {
  name: "conv2_postscale"
  type: "Scale"
  bottom: "conv2"
  top: "conv2"
  param {
    lr_mult: 0
    decay_mult: 0
  }
  scale_param {
    filler {
      value: 1.7159
    }
  }
}
layer {
  name: "pool2"
  type: "Pooling"
  bottom: "conv2"
  top: "pool2"
  pooling_param {
    pool: MAX
    kernel_size: 2
    stride: 2
  }
}
layer {
  name: "conv3"
  type: "Convolution"
  bottom: "pool2"
  top: "conv3"
  convolution_param {
    num_output: 250
    pad: 0
    kernel_size: 4
    group: 1
    stride: 1
    weight_filler {
      type: "xavier"
    }
  }
}
layer {
  name: "conv3_prescale"
  type: "Scale"
  bottom: "conv3"
  top: "conv3"
  param {
    lr_mult: 0
    decay_mult: 0
  }
  scale_param {
    filler {
      value: 0.6666
    }
  }
}
layer {
  name: "conv3_sTanH"
  type: "TanH"
  bottom: "conv3"
  top: "conv3"
}
layer {
  name: "conv3_postscale"
  type: "Scale"
  bottom: "conv3"
  top: "conv3"
  param {
    lr_mult: 0
    decay_mult: 0
  }
  scale_param {
    filler {
      value: 1.7159
    }
  }
}
layer {
  name: "pool3"
  type: "Pooling"
  bottom: "conv3"
  top: "pool3"
  pooling_param {
    pool: MAX
    kernel_size: 2
    stride: 2
  }
}
layer {
  name: "fc4_300"
  type: "InnerProduct"
  bottom: "pool3"
  top: "fc4_300"
  inner_product_param {
    num_output: 300
    weight_filler {
      type: "xavier"
    }
  }
}
layer {
  name: "fc4_relu"
  type: "ReLU"
  bottom: "fc4_300"
  top: "fc4_300"
}
layer {
  name: "drop4"
  type: "Dropout"
  bottom: "fc4_300"
  top: "fc4_300"
  dropout_param {
    dropout_ratio: 0.4
  }
}
layer {
  name: "fc5_67"
  type: "InnerProduct"
  bottom: "fc4_300"
  top: "fc5_classes"
  inner_product_param {
    num_output: 67
    weight_filler {
      type: "xavier"
    }
  }
}
layer {
  name: "loss"
  type: "SoftmaxWithLoss"
  bottom: "fc5_classes"
  bottom: "label"
  top: "loss"
}
layer {
  name: "accuracy_1"
  type: "Accuracy"
  bottom: "fc5_classes"
  bottom: "label"
  top: "accuracy_1"
  include {
    phase: TEST
  }
  accuracy_param {
    top_k: 1
  }
}
layer {
  name: "accuracy_5"
  type: "Accuracy"
  bottom: "fc5_classes"
  bottom: "label"
  top: "accuracy_5"
  include {
    phase: TEST
  }
  accuracy_param {
    top_k: 5
  }
}
I0409 02:23:35.521430  5793 layer_factory.hpp:77] Creating layer data
I0409 02:23:35.522047  5793 net.cpp:100] Creating Layer data
I0409 02:23:35.522075  5793 net.cpp:408] data -> data
I0409 02:23:35.522089  5793 net.cpp:408] data -> label
I0409 02:23:35.523741  5890 db_lmdb.cpp:35] Opened lmdb ../local_data/lmdb/rtsd-r1/histeq/test/lmdb
I0409 02:23:35.523926  5793 data_layer.cpp:41] output data size: 1024,3,48,48
I0409 02:23:35.576406  5793 net.cpp:150] Setting up data
I0409 02:23:35.576436  5793 net.cpp:157] Top shape: 1024 3 48 48 (7077888)
I0409 02:23:35.576442  5793 net.cpp:157] Top shape: 1024 (1024)
I0409 02:23:35.576444  5793 net.cpp:165] Memory required for data: 28315648
I0409 02:23:35.576450  5793 layer_factory.hpp:77] Creating layer label_data_1_split
I0409 02:23:35.576463  5793 net.cpp:100] Creating Layer label_data_1_split
I0409 02:23:35.576467  5793 net.cpp:434] label_data_1_split <- label
I0409 02:23:35.576475  5793 net.cpp:408] label_data_1_split -> label_data_1_split_0
I0409 02:23:35.576486  5793 net.cpp:408] label_data_1_split -> label_data_1_split_1
I0409 02:23:35.576494  5793 net.cpp:408] label_data_1_split -> label_data_1_split_2
I0409 02:23:35.576668  5793 net.cpp:150] Setting up label_data_1_split
I0409 02:23:35.576678  5793 net.cpp:157] Top shape: 1024 (1024)
I0409 02:23:35.576683  5793 net.cpp:157] Top shape: 1024 (1024)
I0409 02:23:35.576685  5793 net.cpp:157] Top shape: 1024 (1024)
I0409 02:23:35.576689  5793 net.cpp:165] Memory required for data: 28327936
I0409 02:23:35.576691  5793 layer_factory.hpp:77] Creating layer conv1
I0409 02:23:35.576704  5793 net.cpp:100] Creating Layer conv1
I0409 02:23:35.576707  5793 net.cpp:434] conv1 <- data
I0409 02:23:35.576721  5793 net.cpp:408] conv1 -> conv1
I0409 02:23:35.578536  5793 net.cpp:150] Setting up conv1
I0409 02:23:35.578555  5793 net.cpp:157] Top shape: 1024 100 42 42 (180633600)
I0409 02:23:35.578558  5793 net.cpp:165] Memory required for data: 750862336
I0409 02:23:35.578570  5793 layer_factory.hpp:77] Creating layer conv1_prescale
I0409 02:23:35.578579  5793 net.cpp:100] Creating Layer conv1_prescale
I0409 02:23:35.578583  5793 net.cpp:434] conv1_prescale <- conv1
I0409 02:23:35.578590  5793 net.cpp:395] conv1_prescale -> conv1 (in-place)
I0409 02:23:35.580932  5793 net.cpp:150] Setting up conv1_prescale
I0409 02:23:35.580948  5793 net.cpp:157] Top shape: 1024 100 42 42 (180633600)
I0409 02:23:35.580952  5793 net.cpp:165] Memory required for data: 1473396736
I0409 02:23:35.580960  5793 layer_factory.hpp:77] Creating layer conv1_sTanH
I0409 02:23:35.580973  5793 net.cpp:100] Creating Layer conv1_sTanH
I0409 02:23:35.580977  5793 net.cpp:434] conv1_sTanH <- conv1
I0409 02:23:35.580982  5793 net.cpp:395] conv1_sTanH -> conv1 (in-place)
I0409 02:23:35.581194  5793 net.cpp:150] Setting up conv1_sTanH
I0409 02:23:35.581205  5793 net.cpp:157] Top shape: 1024 100 42 42 (180633600)
I0409 02:23:35.581208  5793 net.cpp:165] Memory required for data: 2195931136
I0409 02:23:35.581212  5793 layer_factory.hpp:77] Creating layer conv1_postscale
I0409 02:23:35.581223  5793 net.cpp:100] Creating Layer conv1_postscale
I0409 02:23:35.581226  5793 net.cpp:434] conv1_postscale <- conv1
I0409 02:23:35.581231  5793 net.cpp:395] conv1_postscale -> conv1 (in-place)
I0409 02:23:35.581346  5793 net.cpp:150] Setting up conv1_postscale
I0409 02:23:35.581354  5793 net.cpp:157] Top shape: 1024 100 42 42 (180633600)
I0409 02:23:35.581377  5793 net.cpp:165] Memory required for data: 2918465536
I0409 02:23:35.581382  5793 layer_factory.hpp:77] Creating layer pool1
I0409 02:23:35.581392  5793 net.cpp:100] Creating Layer pool1
I0409 02:23:35.581406  5793 net.cpp:434] pool1 <- conv1
I0409 02:23:35.581413  5793 net.cpp:408] pool1 -> pool1
I0409 02:23:35.581463  5793 net.cpp:150] Setting up pool1
I0409 02:23:35.581472  5793 net.cpp:157] Top shape: 1024 100 21 21 (45158400)
I0409 02:23:35.581475  5793 net.cpp:165] Memory required for data: 3099099136
I0409 02:23:35.581478  5793 layer_factory.hpp:77] Creating layer conv2
I0409 02:23:35.581487  5793 net.cpp:100] Creating Layer conv2
I0409 02:23:35.581491  5793 net.cpp:434] conv2 <- pool1
I0409 02:23:35.581498  5793 net.cpp:408] conv2 -> conv2
I0409 02:23:35.585474  5793 net.cpp:150] Setting up conv2
I0409 02:23:35.585495  5793 net.cpp:157] Top shape: 1024 150 18 18 (49766400)
I0409 02:23:35.585500  5793 net.cpp:165] Memory required for data: 3298164736
I0409 02:23:35.585510  5793 layer_factory.hpp:77] Creating layer conv2_prescale
I0409 02:23:35.585520  5793 net.cpp:100] Creating Layer conv2_prescale
I0409 02:23:35.585528  5793 net.cpp:434] conv2_prescale <- conv2
I0409 02:23:35.585535  5793 net.cpp:395] conv2_prescale -> conv2 (in-place)
I0409 02:23:35.585651  5793 net.cpp:150] Setting up conv2_prescale
I0409 02:23:35.585661  5793 net.cpp:157] Top shape: 1024 150 18 18 (49766400)
I0409 02:23:35.585664  5793 net.cpp:165] Memory required for data: 3497230336
I0409 02:23:35.585669  5793 layer_factory.hpp:77] Creating layer conv2_sTanH
I0409 02:23:35.585675  5793 net.cpp:100] Creating Layer conv2_sTanH
I0409 02:23:35.585680  5793 net.cpp:434] conv2_sTanH <- conv2
I0409 02:23:35.585685  5793 net.cpp:395] conv2_sTanH -> conv2 (in-place)
I0409 02:23:35.586480  5793 net.cpp:150] Setting up conv2_sTanH
I0409 02:23:35.586496  5793 net.cpp:157] Top shape: 1024 150 18 18 (49766400)
I0409 02:23:35.586500  5793 net.cpp:165] Memory required for data: 3696295936
I0409 02:23:35.586503  5793 layer_factory.hpp:77] Creating layer conv2_postscale
I0409 02:23:35.586510  5793 net.cpp:100] Creating Layer conv2_postscale
I0409 02:23:35.586514  5793 net.cpp:434] conv2_postscale <- conv2
I0409 02:23:35.586521  5793 net.cpp:395] conv2_postscale -> conv2 (in-place)
I0409 02:23:35.586628  5793 net.cpp:150] Setting up conv2_postscale
I0409 02:23:35.586637  5793 net.cpp:157] Top shape: 1024 150 18 18 (49766400)
I0409 02:23:35.586640  5793 net.cpp:165] Memory required for data: 3895361536
I0409 02:23:35.586645  5793 layer_factory.hpp:77] Creating layer pool2
I0409 02:23:35.586652  5793 net.cpp:100] Creating Layer pool2
I0409 02:23:35.586657  5793 net.cpp:434] pool2 <- conv2
I0409 02:23:35.586663  5793 net.cpp:408] pool2 -> pool2
I0409 02:23:35.586712  5793 net.cpp:150] Setting up pool2
I0409 02:23:35.586721  5793 net.cpp:157] Top shape: 1024 150 9 9 (12441600)
I0409 02:23:35.586724  5793 net.cpp:165] Memory required for data: 3945127936
I0409 02:23:35.586729  5793 layer_factory.hpp:77] Creating layer conv3
I0409 02:23:35.586740  5793 net.cpp:100] Creating Layer conv3
I0409 02:23:35.586743  5793 net.cpp:434] conv3 <- pool2
I0409 02:23:35.586750  5793 net.cpp:408] conv3 -> conv3
I0409 02:23:35.592368  5793 net.cpp:150] Setting up conv3
I0409 02:23:35.592386  5793 net.cpp:157] Top shape: 1024 250 6 6 (9216000)
I0409 02:23:35.592389  5793 net.cpp:165] Memory required for data: 3981991936
I0409 02:23:35.592404  5793 layer_factory.hpp:77] Creating layer conv3_prescale
I0409 02:23:35.592414  5793 net.cpp:100] Creating Layer conv3_prescale
I0409 02:23:35.592418  5793 net.cpp:434] conv3_prescale <- conv3
I0409 02:23:35.592425  5793 net.cpp:395] conv3_prescale -> conv3 (in-place)
I0409 02:23:35.592526  5793 net.cpp:150] Setting up conv3_prescale
I0409 02:23:35.592538  5793 net.cpp:157] Top shape: 1024 250 6 6 (9216000)
I0409 02:23:35.592541  5793 net.cpp:165] Memory required for data: 4018855936
I0409 02:23:35.592546  5793 layer_factory.hpp:77] Creating layer conv3_sTanH
I0409 02:23:35.592553  5793 net.cpp:100] Creating Layer conv3_sTanH
I0409 02:23:35.592572  5793 net.cpp:434] conv3_sTanH <- conv3
I0409 02:23:35.592578  5793 net.cpp:395] conv3_sTanH -> conv3 (in-place)
I0409 02:23:35.593355  5793 net.cpp:150] Setting up conv3_sTanH
I0409 02:23:35.593374  5793 net.cpp:157] Top shape: 1024 250 6 6 (9216000)
I0409 02:23:35.593376  5793 net.cpp:165] Memory required for data: 4055719936
I0409 02:23:35.593380  5793 layer_factory.hpp:77] Creating layer conv3_postscale
I0409 02:23:35.593387  5793 net.cpp:100] Creating Layer conv3_postscale
I0409 02:23:35.593394  5793 net.cpp:434] conv3_postscale <- conv3
I0409 02:23:35.593403  5793 net.cpp:395] conv3_postscale -> conv3 (in-place)
I0409 02:23:35.593508  5793 net.cpp:150] Setting up conv3_postscale
I0409 02:23:35.593518  5793 net.cpp:157] Top shape: 1024 250 6 6 (9216000)
I0409 02:23:35.593520  5793 net.cpp:165] Memory required for data: 4092583936
I0409 02:23:35.593525  5793 layer_factory.hpp:77] Creating layer pool3
I0409 02:23:35.593536  5793 net.cpp:100] Creating Layer pool3
I0409 02:23:35.593541  5793 net.cpp:434] pool3 <- conv3
I0409 02:23:35.593547  5793 net.cpp:408] pool3 -> pool3
I0409 02:23:35.593590  5793 net.cpp:150] Setting up pool3
I0409 02:23:35.593598  5793 net.cpp:157] Top shape: 1024 250 3 3 (2304000)
I0409 02:23:35.593601  5793 net.cpp:165] Memory required for data: 4101799936
I0409 02:23:35.593605  5793 layer_factory.hpp:77] Creating layer fc4_300
I0409 02:23:35.593612  5793 net.cpp:100] Creating Layer fc4_300
I0409 02:23:35.593616  5793 net.cpp:434] fc4_300 <- pool3
I0409 02:23:35.593622  5793 net.cpp:408] fc4_300 -> fc4_300
I0409 02:23:35.598983  5793 net.cpp:150] Setting up fc4_300
I0409 02:23:35.598999  5793 net.cpp:157] Top shape: 1024 300 (307200)
I0409 02:23:35.599002  5793 net.cpp:165] Memory required for data: 4103028736
I0409 02:23:35.599009  5793 layer_factory.hpp:77] Creating layer fc4_relu
I0409 02:23:35.599016  5793 net.cpp:100] Creating Layer fc4_relu
I0409 02:23:35.599020  5793 net.cpp:434] fc4_relu <- fc4_300
I0409 02:23:35.599026  5793 net.cpp:395] fc4_relu -> fc4_300 (in-place)
I0409 02:23:35.599225  5793 net.cpp:150] Setting up fc4_relu
I0409 02:23:35.599238  5793 net.cpp:157] Top shape: 1024 300 (307200)
I0409 02:23:35.599241  5793 net.cpp:165] Memory required for data: 4104257536
I0409 02:23:35.599244  5793 layer_factory.hpp:77] Creating layer drop4
I0409 02:23:35.599252  5793 net.cpp:100] Creating Layer drop4
I0409 02:23:35.599258  5793 net.cpp:434] drop4 <- fc4_300
I0409 02:23:35.599274  5793 net.cpp:395] drop4 -> fc4_300 (in-place)
I0409 02:23:35.599308  5793 net.cpp:150] Setting up drop4
I0409 02:23:35.599318  5793 net.cpp:157] Top shape: 1024 300 (307200)
I0409 02:23:35.599319  5793 net.cpp:165] Memory required for data: 4105486336
I0409 02:23:35.599323  5793 layer_factory.hpp:77] Creating layer fc5_67
I0409 02:23:35.599330  5793 net.cpp:100] Creating Layer fc5_67
I0409 02:23:35.599334  5793 net.cpp:434] fc5_67 <- fc4_300
I0409 02:23:35.599340  5793 net.cpp:408] fc5_67 -> fc5_classes
I0409 02:23:35.599603  5793 net.cpp:150] Setting up fc5_67
I0409 02:23:35.599612  5793 net.cpp:157] Top shape: 1024 67 (68608)
I0409 02:23:35.599616  5793 net.cpp:165] Memory required for data: 4105760768
I0409 02:23:35.599622  5793 layer_factory.hpp:77] Creating layer fc5_classes_fc5_67_0_split
I0409 02:23:35.599627  5793 net.cpp:100] Creating Layer fc5_classes_fc5_67_0_split
I0409 02:23:35.599630  5793 net.cpp:434] fc5_classes_fc5_67_0_split <- fc5_classes
I0409 02:23:35.599637  5793 net.cpp:408] fc5_classes_fc5_67_0_split -> fc5_classes_fc5_67_0_split_0
I0409 02:23:35.599644  5793 net.cpp:408] fc5_classes_fc5_67_0_split -> fc5_classes_fc5_67_0_split_1
I0409 02:23:35.599653  5793 net.cpp:408] fc5_classes_fc5_67_0_split -> fc5_classes_fc5_67_0_split_2
I0409 02:23:35.599710  5793 net.cpp:150] Setting up fc5_classes_fc5_67_0_split
I0409 02:23:35.599719  5793 net.cpp:157] Top shape: 1024 67 (68608)
I0409 02:23:35.599721  5793 net.cpp:157] Top shape: 1024 67 (68608)
I0409 02:23:35.599725  5793 net.cpp:157] Top shape: 1024 67 (68608)
I0409 02:23:35.599727  5793 net.cpp:165] Memory required for data: 4106584064
I0409 02:23:35.599745  5793 layer_factory.hpp:77] Creating layer loss
I0409 02:23:35.599752  5793 net.cpp:100] Creating Layer loss
I0409 02:23:35.599756  5793 net.cpp:434] loss <- fc5_classes_fc5_67_0_split_0
I0409 02:23:35.599761  5793 net.cpp:434] loss <- label_data_1_split_0
I0409 02:23:35.599767  5793 net.cpp:408] loss -> loss
…
