…
I0409 02:25:57.252164 13847 net.cpp:322] The NetState phase (0) differed from the phase (1) specified by a rule in layer accuracy_5
I0409 02:25:57.252321 13847 net.cpp:58] Initializing net from parameters: 
state {
  phase: TRAIN
  level: 0
  stage: ""
}
layer {
  name: "data"
  type: "Data"
  top: "data"
  top: "label"
  include {
    phase: TRAIN
  }
  transform_param {
    mirror: false
    crop_size: 48
    mean_value: 122
    mean_value: 115
    mean_value: 128
  }
  data_param {
    source: "../local_data/lmdb/rtsd-r1/histeq/train/lmdb"
    batch_size: 1024
    backend: LMDB
  }
}
layer {
  name: "conv1"
  type: "Convolution"
  bottom: "data"
  top: "conv1"
  convolution_param {
    num_output: 100
    pad: 0
    kernel_size: 7
    group: 1
    stride: 1
    weight_filler {
      type: "xavier"
    }
  }
}
layer {
  name: "conv1_prescale"
  type: "Scale"
  bottom: "conv1"
  top: "conv1"
  param {
    lr_mult: 0
    decay_mult: 0
  }
  scale_param {
    filler {
      value: 0.6666
    }
  }
}
layer {
  name: "conv1_sTanH"
  type: "TanH"
  bottom: "conv1"
  top: "conv1"
}
layer {
  name: "conv1_postscale"
  type: "Scale"
  bottom: "conv1"
  top: "conv1"
  param {
    lr_mult: 0
    decay_mult: 0
  }
  scale_param {
    filler {
      value: 1.7159
    }
  }
}
layer {
  name: "pool1"
  type: "Pooling"
  bottom: "conv1"
  top: "pool1"
  pooling_param {
    pool: MAX
    kernel_size: 2
    stride: 2
  }
}
layer {
  name: "conv2"
  type: "Convolution"
  bottom: "pool1"
  top: "conv2"
  convolution_param {
    num_output: 150
    pad: 0
    kernel_size: 4
    group: 1
    stride: 1
    weight_filler {
      type: "xavier"
    }
  }
}
layer {
  name: "conv2_prescale"
  type: "Scale"
  bottom: "conv2"
  top: "conv2"
  param {
    lr_mult: 0
    decay_mult: 0
  }
  scale_param {
    filler {
      value: 0.6666
    }
  }
}
layer {
  name: "conv2_sTanH"
  type: "TanH"
  bottom: "conv2"
  top: "conv2"
}
layer {
  name: "conv2_postscale"
  type: "Scale"
  bottom: "conv2"
  top: "conv2"
  param {
    lr_mult: 0
    decay_mult: 0
  }
  scale_param {
    filler {
      value: 1.7159
    }
  }
}
layer {
  name: "pool2"
  type: "Pooling"
  bottom: "conv2"
  top: "pool2"
  pooling_param {
    pool: MAX
    kernel_size: 2
    stride: 2
  }
}
layer {
  name: "conv3"
  type: "Convolution"
  bottom: "pool2"
  top: "conv3"
  convolution_param {
    num_output: 250
    pad: 0
    kernel_size: 4
    group: 1
    stride: 1
    weight_filler {
      type: "xavier"
    }
  }
}
layer {
  name: "conv3_prescale"
  type: "Scale"
  bottom: "conv3"
  top: "conv3"
  param {
    lr_mult: 0
    decay_mult: 0
  }
  scale_param {
    filler {
      value: 0.6666
    }
  }
}
layer {
  name: "conv3_sTanH"
  type: "TanH"
  bottom: "conv3"
  top: "conv3"
}
layer {
  name: "conv3_postscale"
  type: "Scale"
  bottom: "conv3"
  top: "conv3"
  param {
    lr_mult: 0
    decay_mult: 0
  }
  scale_param {
    filler {
      value: 1.7159
    }
  }
}
layer {
  name: "pool3"
  type: "Pooling"
  bottom: "conv3"
  top: "pool3"
  pooling_param {
    pool: MAX
    kernel_size: 2
    stride: 2
  }
}
layer {
  name: "fc4_300"
  type: "InnerProduct"
  bottom: "pool3"
  top: "fc4_300"
  inner_product_param {
    num_output: 300
    weight_filler {
      type: "xavier"
    }
  }
}
layer {
  name: "fc4_relu"
  type: "ReLU"
  bottom: "fc4_300"
  top: "fc4_300"
}
layer {
  name: "drop4"
  type: "Dropout"
  bottom: "fc4_300"
  top: "fc4_300"
  dropout_param {
    dropout_ratio: 0.4
  }
}
layer {
  name: "fc5_67"
  type: "InnerProduct"
  bottom: "fc4_300"
  top: "fc5_classes"
  inner_product_param {
    num_output: 67
    weight_filler {
      type: "xavier"
    }
  }
}
layer {
  name: "loss"
  type: "SoftmaxWithLoss"
  bottom: "fc5_classes"
  bottom: "label"
  top: "loss"
}
I0409 02:25:57.252441 13847 layer_factory.hpp:77] Creating layer data
I0409 02:25:57.253751 13847 net.cpp:100] Creating Layer data
I0409 02:25:57.253773 13847 net.cpp:408] data -> data
I0409 02:25:57.253800 13847 net.cpp:408] data -> label
I0409 02:25:57.255457 13919 db_lmdb.cpp:35] Opened lmdb ../local_data/lmdb/rtsd-r1/histeq/train/lmdb
I0409 02:25:57.275624 13847 data_layer.cpp:41] output data size: 1024,3,48,48
I0409 02:25:57.333313 13847 net.cpp:150] Setting up data
I0409 02:25:57.333346 13847 net.cpp:157] Top shape: 1024 3 48 48 (7077888)
I0409 02:25:57.333353 13847 net.cpp:157] Top shape: 1024 (1024)
I0409 02:25:57.333358 13847 net.cpp:165] Memory required for data: 28315648
I0409 02:25:57.333367 13847 layer_factory.hpp:77] Creating layer conv1
I0409 02:25:57.333392 13847 net.cpp:100] Creating Layer conv1
I0409 02:25:57.333400 13847 net.cpp:434] conv1 <- data
I0409 02:25:57.333413 13847 net.cpp:408] conv1 -> conv1
I0409 02:25:57.660351 13847 net.cpp:150] Setting up conv1
I0409 02:25:57.660377 13847 net.cpp:157] Top shape: 1024 100 42 42 (180633600)
I0409 02:25:57.660382 13847 net.cpp:165] Memory required for data: 750850048
I0409 02:25:57.660403 13847 layer_factory.hpp:77] Creating layer conv1_prescale
I0409 02:25:57.660434 13847 net.cpp:100] Creating Layer conv1_prescale
I0409 02:25:57.660439 13847 net.cpp:434] conv1_prescale <- conv1
I0409 02:25:57.660445 13847 net.cpp:395] conv1_prescale -> conv1 (in-place)
I0409 02:25:57.660555 13847 net.cpp:150] Setting up conv1_prescale
I0409 02:25:57.660564 13847 net.cpp:157] Top shape: 1024 100 42 42 (180633600)
I0409 02:25:57.660567 13847 net.cpp:165] Memory required for data: 1473384448
I0409 02:25:57.660574 13847 layer_factory.hpp:77] Creating layer conv1_sTanH
I0409 02:25:57.660581 13847 net.cpp:100] Creating Layer conv1_sTanH
I0409 02:25:57.660584 13847 net.cpp:434] conv1_sTanH <- conv1
I0409 02:25:57.660588 13847 net.cpp:395] conv1_sTanH -> conv1 (in-place)
I0409 02:25:57.660778 13847 net.cpp:150] Setting up conv1_sTanH
I0409 02:25:57.660791 13847 net.cpp:157] Top shape: 1024 100 42 42 (180633600)
I0409 02:25:57.660794 13847 net.cpp:165] Memory required for data: 2195918848
I0409 02:25:57.660797 13847 layer_factory.hpp:77] Creating layer conv1_postscale
I0409 02:25:57.660805 13847 net.cpp:100] Creating Layer conv1_postscale
I0409 02:25:57.660809 13847 net.cpp:434] conv1_postscale <- conv1
I0409 02:25:57.660815 13847 net.cpp:395] conv1_postscale -> conv1 (in-place)
I0409 02:25:57.660907 13847 net.cpp:150] Setting up conv1_postscale
I0409 02:25:57.660917 13847 net.cpp:157] Top shape: 1024 100 42 42 (180633600)
I0409 02:25:57.660919 13847 net.cpp:165] Memory required for data: 2918453248
I0409 02:25:57.660923 13847 layer_factory.hpp:77] Creating layer pool1
I0409 02:25:57.660931 13847 net.cpp:100] Creating Layer pool1
I0409 02:25:57.660934 13847 net.cpp:434] pool1 <- conv1
I0409 02:25:57.660938 13847 net.cpp:408] pool1 -> pool1
I0409 02:25:57.660989 13847 net.cpp:150] Setting up pool1
I0409 02:25:57.660998 13847 net.cpp:157] Top shape: 1024 100 21 21 (45158400)
I0409 02:25:57.661001 13847 net.cpp:165] Memory required for data: 3099086848
I0409 02:25:57.661005 13847 layer_factory.hpp:77] Creating layer conv2
I0409 02:25:57.661015 13847 net.cpp:100] Creating Layer conv2
I0409 02:25:57.661018 13847 net.cpp:434] conv2 <- pool1
I0409 02:25:57.661025 13847 net.cpp:408] conv2 -> conv2
I0409 02:25:57.677268 13847 net.cpp:150] Setting up conv2
I0409 02:25:57.677285 13847 net.cpp:157] Top shape: 1024 150 18 18 (49766400)
I0409 02:25:57.677316 13847 net.cpp:165] Memory required for data: 3298152448
I0409 02:25:57.677330 13847 layer_factory.hpp:77] Creating layer conv2_prescale
I0409 02:25:57.677338 13847 net.cpp:100] Creating Layer conv2_prescale
I0409 02:25:57.677341 13847 net.cpp:434] conv2_prescale <- conv2
I0409 02:25:57.677348 13847 net.cpp:395] conv2_prescale -> conv2 (in-place)
I0409 02:25:57.677466 13847 net.cpp:150] Setting up conv2_prescale
I0409 02:25:57.677476 13847 net.cpp:157] Top shape: 1024 150 18 18 (49766400)
I0409 02:25:57.677479 13847 net.cpp:165] Memory required for data: 3497218048
I0409 02:25:57.677484 13847 layer_factory.hpp:77] Creating layer conv2_sTanH
I0409 02:25:57.677491 13847 net.cpp:100] Creating Layer conv2_sTanH
I0409 02:25:57.677495 13847 net.cpp:434] conv2_sTanH <- conv2
I0409 02:25:57.677500 13847 net.cpp:395] conv2_sTanH -> conv2 (in-place)
I0409 02:25:57.678561 13847 net.cpp:150] Setting up conv2_sTanH
I0409 02:25:57.678577 13847 net.cpp:157] Top shape: 1024 150 18 18 (49766400)
I0409 02:25:57.678580 13847 net.cpp:165] Memory required for data: 3696283648
I0409 02:25:57.678584 13847 layer_factory.hpp:77] Creating layer conv2_postscale
I0409 02:25:57.678593 13847 net.cpp:100] Creating Layer conv2_postscale
I0409 02:25:57.678597 13847 net.cpp:434] conv2_postscale <- conv2
I0409 02:25:57.678602 13847 net.cpp:395] conv2_postscale -> conv2 (in-place)
I0409 02:25:57.678704 13847 net.cpp:150] Setting up conv2_postscale
I0409 02:25:57.678712 13847 net.cpp:157] Top shape: 1024 150 18 18 (49766400)
I0409 02:25:57.678715 13847 net.cpp:165] Memory required for data: 3895349248
I0409 02:25:57.678720 13847 layer_factory.hpp:77] Creating layer pool2
I0409 02:25:57.678726 13847 net.cpp:100] Creating Layer pool2
I0409 02:25:57.678730 13847 net.cpp:434] pool2 <- conv2
I0409 02:25:57.678736 13847 net.cpp:408] pool2 -> pool2
I0409 02:25:57.678777 13847 net.cpp:150] Setting up pool2
I0409 02:25:57.678786 13847 net.cpp:157] Top shape: 1024 150 9 9 (12441600)
I0409 02:25:57.678789 13847 net.cpp:165] Memory required for data: 3945115648
I0409 02:25:57.678792 13847 layer_factory.hpp:77] Creating layer conv3
I0409 02:25:57.678802 13847 net.cpp:100] Creating Layer conv3
I0409 02:25:57.678804 13847 net.cpp:434] conv3 <- pool2
I0409 02:25:57.678809 13847 net.cpp:408] conv3 -> conv3
I0409 02:25:57.684381 13847 net.cpp:150] Setting up conv3
I0409 02:25:57.684397 13847 net.cpp:157] Top shape: 1024 250 6 6 (9216000)
I0409 02:25:57.684401 13847 net.cpp:165] Memory required for data: 3981979648
I0409 02:25:57.684412 13847 layer_factory.hpp:77] Creating layer conv3_prescale
I0409 02:25:57.684422 13847 net.cpp:100] Creating Layer conv3_prescale
I0409 02:25:57.684424 13847 net.cpp:434] conv3_prescale <- conv3
I0409 02:25:57.684432 13847 net.cpp:395] conv3_prescale -> conv3 (in-place)
I0409 02:25:57.684532 13847 net.cpp:150] Setting up conv3_prescale
I0409 02:25:57.684541 13847 net.cpp:157] Top shape: 1024 250 6 6 (9216000)
I0409 02:25:57.684545 13847 net.cpp:165] Memory required for data: 4018843648
I0409 02:25:57.684550 13847 layer_factory.hpp:77] Creating layer conv3_sTanH
I0409 02:25:57.684556 13847 net.cpp:100] Creating Layer conv3_sTanH
I0409 02:25:57.684561 13847 net.cpp:434] conv3_sTanH <- conv3
I0409 02:25:57.684564 13847 net.cpp:395] conv3_sTanH -> conv3 (in-place)
I0409 02:25:57.685334 13847 net.cpp:150] Setting up conv3_sTanH
I0409 02:25:57.685350 13847 net.cpp:157] Top shape: 1024 250 6 6 (9216000)
I0409 02:25:57.685354 13847 net.cpp:165] Memory required for data: 4055707648
I0409 02:25:57.685358 13847 layer_factory.hpp:77] Creating layer conv3_postscale
I0409 02:25:57.685364 13847 net.cpp:100] Creating Layer conv3_postscale
I0409 02:25:57.685369 13847 net.cpp:434] conv3_postscale <- conv3
I0409 02:25:57.685374 13847 net.cpp:395] conv3_postscale -> conv3 (in-place)
I0409 02:25:57.685475 13847 net.cpp:150] Setting up conv3_postscale
I0409 02:25:57.685487 13847 net.cpp:157] Top shape: 1024 250 6 6 (9216000)
I0409 02:25:57.685489 13847 net.cpp:165] Memory required for data: 4092571648
I0409 02:25:57.685494 13847 layer_factory.hpp:77] Creating layer pool3
I0409 02:25:57.685513 13847 net.cpp:100] Creating Layer pool3
I0409 02:25:57.685518 13847 net.cpp:434] pool3 <- conv3
I0409 02:25:57.685523 13847 net.cpp:408] pool3 -> pool3
I0409 02:25:57.685565 13847 net.cpp:150] Setting up pool3
I0409 02:25:57.685573 13847 net.cpp:157] Top shape: 1024 250 3 3 (2304000)
I0409 02:25:57.685576 13847 net.cpp:165] Memory required for data: 4101787648
I0409 02:25:57.685580 13847 layer_factory.hpp:77] Creating layer fc4_300
I0409 02:25:57.685590 13847 net.cpp:100] Creating Layer fc4_300
I0409 02:25:57.685595 13847 net.cpp:434] fc4_300 <- pool3
I0409 02:25:57.685600 13847 net.cpp:408] fc4_300 -> fc4_300
I0409 02:25:57.690969 13847 net.cpp:150] Setting up fc4_300
I0409 02:25:57.690985 13847 net.cpp:157] Top shape: 1024 300 (307200)
I0409 02:25:57.690989 13847 net.cpp:165] Memory required for data: 4103016448
I0409 02:25:57.690995 13847 layer_factory.hpp:77] Creating layer fc4_relu
I0409 02:25:57.691004 13847 net.cpp:100] Creating Layer fc4_relu
I0409 02:25:57.691007 13847 net.cpp:434] fc4_relu <- fc4_300
I0409 02:25:57.691012 13847 net.cpp:395] fc4_relu -> fc4_300 (in-place)
I0409 02:25:57.691202 13847 net.cpp:150] Setting up fc4_relu
I0409 02:25:57.691213 13847 net.cpp:157] Top shape: 1024 300 (307200)
I0409 02:25:57.691216 13847 net.cpp:165] Memory required for data: 4104245248
I0409 02:25:57.691220 13847 layer_factory.hpp:77] Creating layer drop4
I0409 02:25:57.691228 13847 net.cpp:100] Creating Layer drop4
I0409 02:25:57.691233 13847 net.cpp:434] drop4 <- fc4_300
I0409 02:25:57.691238 13847 net.cpp:395] drop4 -> fc4_300 (in-place)
I0409 02:25:57.691270 13847 net.cpp:150] Setting up drop4
I0409 02:25:57.691278 13847 net.cpp:157] Top shape: 1024 300 (307200)
I0409 02:25:57.691282 13847 net.cpp:165] Memory required for data: 4105474048
I0409 02:25:57.691284 13847 layer_factory.hpp:77] Creating layer fc5_67
I0409 02:25:57.691290 13847 net.cpp:100] Creating Layer fc5_67
I0409 02:25:57.691293 13847 net.cpp:434] fc5_67 <- fc4_300
I0409 02:25:57.691299 13847 net.cpp:408] fc5_67 -> fc5_classes
I0409 02:25:57.692546 13847 net.cpp:150] Setting up fc5_67
I0409 02:25:57.692561 13847 net.cpp:157] Top shape: 1024 67 (68608)
I0409 02:25:57.692564 13847 net.cpp:165] Memory required for data: 4105748480
I0409 02:25:57.692571 13847 layer_factory.hpp:77] Creating layer loss
I0409 02:25:57.692579 13847 net.cpp:100] Creating Layer loss
I0409 02:25:57.692582 13847 net.cpp:434] loss <- fc5_classes
I0409 02:25:57.692587 13847 net.cpp:434] loss <- label
I0409 02:25:57.692595 13847 net.cpp:408] loss -> loss
I0409 02:25:57.692607 13847 layer_factory.hpp:77] Creating layer loss
…
I0409 02:25:57.693323 13847 solver.cpp:193] Creating test net (#0) specified by test_net file: ./Prototxt/experiment_6/rtsd-r1/histeq/trial_1/test.prototxt
I0409 02:25:57.693487 13847 net.cpp:58] Initializing net from parameters: 
state {
  phase: TEST
}
layer {
  name: "data"
  type: "Data"
  top: "data"
  top: "label"
  include {
    phase: TEST
  }
  transform_param {
    mirror: false
    crop_size: 48
    mean_value: 117
    mean_value: 114
    mean_value: 133
  }
  data_param {
    source: "../local_data/lmdb/rtsd-r1/histeq/test/lmdb"
    batch_size: 1024
    backend: LMDB
  }
}
layer {
  name: "conv1"
  type: "Convolution"
  bottom: "data"
  top: "conv1"
  convolution_param {
    num_output: 100
    pad: 0
    kernel_size: 7
    group: 1
    stride: 1
    weight_filler {
      type: "xavier"
    }
  }
}
layer {
  name: "conv1_prescale"
  type: "Scale"
  bottom: "conv1"
  top: "conv1"
  param {
    lr_mult: 0
    decay_mult: 0
  }
  scale_param {
    filler {
      value: 0.6666
    }
  }
}
layer {
  name: "conv1_sTanH"
  type: "TanH"
  bottom: "conv1"
  top: "conv1"
}
layer {
  name: "conv1_postscale"
  type: "Scale"
  bottom: "conv1"
  top: "conv1"
  param {
    lr_mult: 0
    decay_mult: 0
  }
  scale_param {
    filler {
      value: 1.7159
    }
  }
}
layer {
  name: "pool1"
  type: "Pooling"
  bottom: "conv1"
  top: "pool1"
  pooling_param {
    pool: MAX
    kernel_size: 2
    stride: 2
  }
}
layer {
  name: "conv2"
  type: "Convolution"
  bottom: "pool1"
  top: "conv2"
  convolution_param {
    num_output: 150
    pad: 0
    kernel_size: 4
    group: 1
    stride: 1
    weight_filler {
      type: "xavier"
    }
  }
}
layer {
  name: "conv2_prescale"
  type: "Scale"
  bottom: "conv2"
  top: "conv2"
  param {
    lr_mult: 0
    decay_mult: 0
  }
  scale_param {
    filler {
      value: 0.6666
    }
  }
}
layer {
  name: "conv2_sTanH"
  type: "TanH"
  bottom: "conv2"
  top: "conv2"
}
layer {
  name: "conv2_postscale"
  type: "Scale"
  bottom: "conv2"
  top: "conv2"
  param {
    lr_mult: 0
    decay_mult: 0
  }
  scale_param {
    filler {
      value: 1.7159
    }
  }
}
layer {
  name: "pool2"
  type: "Pooling"
  bottom: "conv2"
  top: "pool2"
  pooling_param {
    pool: MAX
    kernel_size: 2
    stride: 2
  }
}
layer {
  name: "conv3"
  type: "Convolution"
  bottom: "pool2"
  top: "conv3"
  convolution_param {
    num_output: 250
    pad: 0
    kernel_size: 4
    group: 1
    stride: 1
    weight_filler {
      type: "xavier"
    }
  }
}
layer {
  name: "conv3_prescale"
  type: "Scale"
  bottom: "conv3"
  top: "conv3"
  param {
    lr_mult: 0
    decay_mult: 0
  }
  scale_param {
    filler {
      value: 0.6666
    }
  }
}
layer {
  name: "conv3_sTanH"
  type: "TanH"
  bottom: "conv3"
  top: "conv3"
}
layer {
  name: "conv3_postscale"
  type: "Scale"
  bottom: "conv3"
  top: "conv3"
  param {
    lr_mult: 0
    decay_mult: 0
  }
  scale_param {
    filler {
      value: 1.7159
    }
  }
}
layer {
  name: "pool3"
  type: "Pooling"
  bottom: "conv3"
  top: "pool3"
  pooling_param {
    pool: MAX
    kernel_size: 2
    stride: 2
  }
}
layer {
  name: "fc4_300"
  type: "InnerProduct"
  bottom: "pool3"
  top: "fc4_300"
  inner_product_param {
    num_output: 300
    weight_filler {
      type: "xavier"
    }
  }
}
layer {
  name: "fc4_relu"
  type: "ReLU"
  bottom: "fc4_300"
  top: "fc4_300"
}
layer {
  name: "drop4"
  type: "Dropout"
  bottom: "fc4_300"
  top: "fc4_300"
  dropout_param {
    dropout_ratio: 0.4
  }
}
layer {
  name: "fc5_67"
  type: "InnerProduct"
  bottom: "fc4_300"
  top: "fc5_classes"
  inner_product_param {
    num_output: 67
    weight_filler {
      type: "xavier"
    }
  }
}
layer {
  name: "loss"
  type: "SoftmaxWithLoss"
  bottom: "fc5_classes"
  bottom: "label"
  top: "loss"
}
layer {
  name: "accuracy_1"
  type: "Accuracy"
  bottom: "fc5_classes"
  bottom: "label"
  top: "accuracy_1"
  include {
    phase: TEST
  }
  accuracy_param {
    top_k: 1
  }
}
layer {
  name: "accuracy_5"
  type: "Accuracy"
  bottom: "fc5_classes"
  bottom: "label"
  top: "accuracy_5"
  include {
    phase: TEST
  }
  accuracy_param {
    top_k: 5
  }
}
I0409 02:25:57.693603 13847 layer_factory.hpp:77] Creating layer data
I0409 02:25:57.694275 13847 net.cpp:100] Creating Layer data
I0409 02:25:57.694288 13847 net.cpp:408] data -> data
I0409 02:25:57.694296 13847 net.cpp:408] data -> label
I0409 02:25:57.696247 13946 db_lmdb.cpp:35] Opened lmdb ../local_data/lmdb/rtsd-r1/histeq/test/lmdb
I0409 02:25:57.696413 13847 data_layer.cpp:41] output data size: 1024,3,48,48
I0409 02:25:57.739447 13847 net.cpp:150] Setting up data
I0409 02:25:57.739475 13847 net.cpp:157] Top shape: 1024 3 48 48 (7077888)
I0409 02:25:57.739480 13847 net.cpp:157] Top shape: 1024 (1024)
I0409 02:25:57.739483 13847 net.cpp:165] Memory required for data: 28315648
I0409 02:25:57.739490 13847 layer_factory.hpp:77] Creating layer label_data_1_split
I0409 02:25:57.739506 13847 net.cpp:100] Creating Layer label_data_1_split
I0409 02:25:57.739509 13847 net.cpp:434] label_data_1_split <- label
I0409 02:25:57.739517 13847 net.cpp:408] label_data_1_split -> label_data_1_split_0
I0409 02:25:57.739528 13847 net.cpp:408] label_data_1_split -> label_data_1_split_1
I0409 02:25:57.739547 13847 net.cpp:408] label_data_1_split -> label_data_1_split_2
I0409 02:25:57.739662 13847 net.cpp:150] Setting up label_data_1_split
I0409 02:25:57.739671 13847 net.cpp:157] Top shape: 1024 (1024)
I0409 02:25:57.739675 13847 net.cpp:157] Top shape: 1024 (1024)
I0409 02:25:57.739679 13847 net.cpp:157] Top shape: 1024 (1024)
I0409 02:25:57.739681 13847 net.cpp:165] Memory required for data: 28327936
I0409 02:25:57.739684 13847 layer_factory.hpp:77] Creating layer conv1
I0409 02:25:57.739699 13847 net.cpp:100] Creating Layer conv1
I0409 02:25:57.739704 13847 net.cpp:434] conv1 <- data
I0409 02:25:57.739714 13847 net.cpp:408] conv1 -> conv1
I0409 02:25:57.741657 13847 net.cpp:150] Setting up conv1
I0409 02:25:57.741679 13847 net.cpp:157] Top shape: 1024 100 42 42 (180633600)
I0409 02:25:57.741683 13847 net.cpp:165] Memory required for data: 750862336
I0409 02:25:57.741695 13847 layer_factory.hpp:77] Creating layer conv1_prescale
I0409 02:25:57.741708 13847 net.cpp:100] Creating Layer conv1_prescale
I0409 02:25:57.741711 13847 net.cpp:434] conv1_prescale <- conv1
I0409 02:25:57.741719 13847 net.cpp:395] conv1_prescale -> conv1 (in-place)
I0409 02:25:57.743993 13847 net.cpp:150] Setting up conv1_prescale
I0409 02:25:57.744004 13847 net.cpp:157] Top shape: 1024 100 42 42 (180633600)
I0409 02:25:57.744009 13847 net.cpp:165] Memory required for data: 1473396736
I0409 02:25:57.744020 13847 layer_factory.hpp:77] Creating layer conv1_sTanH
I0409 02:25:57.744029 13847 net.cpp:100] Creating Layer conv1_sTanH
I0409 02:25:57.744032 13847 net.cpp:434] conv1_sTanH <- conv1
I0409 02:25:57.744037 13847 net.cpp:395] conv1_sTanH -> conv1 (in-place)
I0409 02:25:57.744246 13847 net.cpp:150] Setting up conv1_sTanH
I0409 02:25:57.744256 13847 net.cpp:157] Top shape: 1024 100 42 42 (180633600)
I0409 02:25:57.744259 13847 net.cpp:165] Memory required for data: 2195931136
I0409 02:25:57.744264 13847 layer_factory.hpp:77] Creating layer conv1_postscale
I0409 02:25:57.744271 13847 net.cpp:100] Creating Layer conv1_postscale
I0409 02:25:57.744274 13847 net.cpp:434] conv1_postscale <- conv1
I0409 02:25:57.744282 13847 net.cpp:395] conv1_postscale -> conv1 (in-place)
I0409 02:25:57.744391 13847 net.cpp:150] Setting up conv1_postscale
I0409 02:25:57.744400 13847 net.cpp:157] Top shape: 1024 100 42 42 (180633600)
I0409 02:25:57.744421 13847 net.cpp:165] Memory required for data: 2918465536
I0409 02:25:57.744426 13847 layer_factory.hpp:77] Creating layer pool1
I0409 02:25:57.744434 13847 net.cpp:100] Creating Layer pool1
I0409 02:25:57.744437 13847 net.cpp:434] pool1 <- conv1
I0409 02:25:57.744446 13847 net.cpp:408] pool1 -> pool1
I0409 02:25:57.744491 13847 net.cpp:150] Setting up pool1
I0409 02:25:57.744499 13847 net.cpp:157] Top shape: 1024 100 21 21 (45158400)
I0409 02:25:57.744503 13847 net.cpp:165] Memory required for data: 3099099136
I0409 02:25:57.744505 13847 layer_factory.hpp:77] Creating layer conv2
I0409 02:25:57.744516 13847 net.cpp:100] Creating Layer conv2
I0409 02:25:57.744521 13847 net.cpp:434] conv2 <- pool1
I0409 02:25:57.744526 13847 net.cpp:408] conv2 -> conv2
I0409 02:25:57.749330 13847 net.cpp:150] Setting up conv2
I0409 02:25:57.749349 13847 net.cpp:157] Top shape: 1024 150 18 18 (49766400)
I0409 02:25:57.749352 13847 net.cpp:165] Memory required for data: 3298164736
I0409 02:25:57.749362 13847 layer_factory.hpp:77] Creating layer conv2_prescale
I0409 02:25:57.749373 13847 net.cpp:100] Creating Layer conv2_prescale
I0409 02:25:57.749378 13847 net.cpp:434] conv2_prescale <- conv2
I0409 02:25:57.749384 13847 net.cpp:395] conv2_prescale -> conv2 (in-place)
I0409 02:25:57.749502 13847 net.cpp:150] Setting up conv2_prescale
I0409 02:25:57.749511 13847 net.cpp:157] Top shape: 1024 150 18 18 (49766400)
I0409 02:25:57.749514 13847 net.cpp:165] Memory required for data: 3497230336
I0409 02:25:57.749519 13847 layer_factory.hpp:77] Creating layer conv2_sTanH
I0409 02:25:57.749526 13847 net.cpp:100] Creating Layer conv2_sTanH
I0409 02:25:57.749529 13847 net.cpp:434] conv2_sTanH <- conv2
I0409 02:25:57.749533 13847 net.cpp:395] conv2_sTanH -> conv2 (in-place)
I0409 02:25:57.750769 13847 net.cpp:150] Setting up conv2_sTanH
I0409 02:25:57.750784 13847 net.cpp:157] Top shape: 1024 150 18 18 (49766400)
I0409 02:25:57.750787 13847 net.cpp:165] Memory required for data: 3696295936
I0409 02:25:57.750792 13847 layer_factory.hpp:77] Creating layer conv2_postscale
I0409 02:25:57.750802 13847 net.cpp:100] Creating Layer conv2_postscale
I0409 02:25:57.750805 13847 net.cpp:434] conv2_postscale <- conv2
I0409 02:25:57.750813 13847 net.cpp:395] conv2_postscale -> conv2 (in-place)
I0409 02:25:57.750918 13847 net.cpp:150] Setting up conv2_postscale
I0409 02:25:57.750927 13847 net.cpp:157] Top shape: 1024 150 18 18 (49766400)
I0409 02:25:57.750932 13847 net.cpp:165] Memory required for data: 3895361536
I0409 02:25:57.750937 13847 layer_factory.hpp:77] Creating layer pool2
I0409 02:25:57.750943 13847 net.cpp:100] Creating Layer pool2
I0409 02:25:57.750946 13847 net.cpp:434] pool2 <- conv2
I0409 02:25:57.750957 13847 net.cpp:408] pool2 -> pool2
I0409 02:25:57.751008 13847 net.cpp:150] Setting up pool2
I0409 02:25:57.751015 13847 net.cpp:157] Top shape: 1024 150 9 9 (12441600)
I0409 02:25:57.751019 13847 net.cpp:165] Memory required for data: 3945127936
I0409 02:25:57.751022 13847 layer_factory.hpp:77] Creating layer conv3
I0409 02:25:57.751035 13847 net.cpp:100] Creating Layer conv3
I0409 02:25:57.751040 13847 net.cpp:434] conv3 <- pool2
I0409 02:25:57.751046 13847 net.cpp:408] conv3 -> conv3
I0409 02:25:57.757046 13847 net.cpp:150] Setting up conv3
I0409 02:25:57.757063 13847 net.cpp:157] Top shape: 1024 250 6 6 (9216000)
I0409 02:25:57.757067 13847 net.cpp:165] Memory required for data: 3981991936
I0409 02:25:57.757079 13847 layer_factory.hpp:77] Creating layer conv3_prescale
I0409 02:25:57.757087 13847 net.cpp:100] Creating Layer conv3_prescale
I0409 02:25:57.757091 13847 net.cpp:434] conv3_prescale <- conv3
I0409 02:25:57.757097 13847 net.cpp:395] conv3_prescale -> conv3 (in-place)
I0409 02:25:57.757195 13847 net.cpp:150] Setting up conv3_prescale
I0409 02:25:57.757205 13847 net.cpp:157] Top shape: 1024 250 6 6 (9216000)
I0409 02:25:57.757208 13847 net.cpp:165] Memory required for data: 4018855936
I0409 02:25:57.757213 13847 layer_factory.hpp:77] Creating layer conv3_sTanH
I0409 02:25:57.757223 13847 net.cpp:100] Creating Layer conv3_sTanH
I0409 02:25:57.757246 13847 net.cpp:434] conv3_sTanH <- conv3
I0409 02:25:57.757252 13847 net.cpp:395] conv3_sTanH -> conv3 (in-place)
I0409 02:25:57.761932 13847 net.cpp:150] Setting up conv3_sTanH
I0409 02:25:57.761950 13847 net.cpp:157] Top shape: 1024 250 6 6 (9216000)
I0409 02:25:57.761955 13847 net.cpp:165] Memory required for data: 4055719936
I0409 02:25:57.761962 13847 layer_factory.hpp:77] Creating layer conv3_postscale
I0409 02:25:57.761970 13847 net.cpp:100] Creating Layer conv3_postscale
I0409 02:25:57.761975 13847 net.cpp:434] conv3_postscale <- conv3
I0409 02:25:57.761981 13847 net.cpp:395] conv3_postscale -> conv3 (in-place)
I0409 02:25:57.762090 13847 net.cpp:150] Setting up conv3_postscale
I0409 02:25:57.762100 13847 net.cpp:157] Top shape: 1024 250 6 6 (9216000)
I0409 02:25:57.762104 13847 net.cpp:165] Memory required for data: 4092583936
I0409 02:25:57.762109 13847 layer_factory.hpp:77] Creating layer pool3
I0409 02:25:57.762120 13847 net.cpp:100] Creating Layer pool3
I0409 02:25:57.762126 13847 net.cpp:434] pool3 <- conv3
I0409 02:25:57.762131 13847 net.cpp:408] pool3 -> pool3
I0409 02:25:57.762176 13847 net.cpp:150] Setting up pool3
I0409 02:25:57.762183 13847 net.cpp:157] Top shape: 1024 250 3 3 (2304000)
I0409 02:25:57.762192 13847 net.cpp:165] Memory required for data: 4101799936
I0409 02:25:57.762194 13847 layer_factory.hpp:77] Creating layer fc4_300
I0409 02:25:57.762202 13847 net.cpp:100] Creating Layer fc4_300
I0409 02:25:57.762207 13847 net.cpp:434] fc4_300 <- pool3
I0409 02:25:57.762213 13847 net.cpp:408] fc4_300 -> fc4_300
I0409 02:25:57.774073 13847 net.cpp:150] Setting up fc4_300
I0409 02:25:57.774092 13847 net.cpp:157] Top shape: 1024 300 (307200)
I0409 02:25:57.774096 13847 net.cpp:165] Memory required for data: 4103028736
I0409 02:25:57.774103 13847 layer_factory.hpp:77] Creating layer fc4_relu
I0409 02:25:57.774112 13847 net.cpp:100] Creating Layer fc4_relu
I0409 02:25:57.774116 13847 net.cpp:434] fc4_relu <- fc4_300
I0409 02:25:57.774122 13847 net.cpp:395] fc4_relu -> fc4_300 (in-place)
I0409 02:25:57.774329 13847 net.cpp:150] Setting up fc4_relu
I0409 02:25:57.774343 13847 net.cpp:157] Top shape: 1024 300 (307200)
I0409 02:25:57.774345 13847 net.cpp:165] Memory required for data: 4104257536
I0409 02:25:57.774348 13847 layer_factory.hpp:77] Creating layer drop4
I0409 02:25:57.774358 13847 net.cpp:100] Creating Layer drop4
I0409 02:25:57.774363 13847 net.cpp:434] drop4 <- fc4_300
I0409 02:25:57.774369 13847 net.cpp:395] drop4 -> fc4_300 (in-place)
I0409 02:25:57.774400 13847 net.cpp:150] Setting up drop4
I0409 02:25:57.774408 13847 net.cpp:157] Top shape: 1024 300 (307200)
I0409 02:25:57.774411 13847 net.cpp:165] Memory required for data: 4105486336
I0409 02:25:57.774415 13847 layer_factory.hpp:77] Creating layer fc5_67
I0409 02:25:57.774422 13847 net.cpp:100] Creating Layer fc5_67
I0409 02:25:57.774427 13847 net.cpp:434] fc5_67 <- fc4_300
I0409 02:25:57.774432 13847 net.cpp:408] fc5_67 -> fc5_classes
I0409 02:25:57.774689 13847 net.cpp:150] Setting up fc5_67
I0409 02:25:57.774698 13847 net.cpp:157] Top shape: 1024 67 (68608)
I0409 02:25:57.774701 13847 net.cpp:165] Memory required for data: 4105760768
I0409 02:25:57.774708 13847 layer_factory.hpp:77] Creating layer fc5_classes_fc5_67_0_split
I0409 02:25:57.774713 13847 net.cpp:100] Creating Layer fc5_classes_fc5_67_0_split
I0409 02:25:57.774718 13847 net.cpp:434] fc5_classes_fc5_67_0_split <- fc5_classes
I0409 02:25:57.774724 13847 net.cpp:408] fc5_classes_fc5_67_0_split -> fc5_classes_fc5_67_0_split_0
I0409 02:25:57.774732 13847 net.cpp:408] fc5_classes_fc5_67_0_split -> fc5_classes_fc5_67_0_split_1
I0409 02:25:57.774741 13847 net.cpp:408] fc5_classes_fc5_67_0_split -> fc5_classes_fc5_67_0_split_2
I0409 02:25:57.774797 13847 net.cpp:150] Setting up fc5_classes_fc5_67_0_split
I0409 02:25:57.774804 13847 net.cpp:157] Top shape: 1024 67 (68608)
I0409 02:25:57.774808 13847 net.cpp:157] Top shape: 1024 67 (68608)
I0409 02:25:57.774811 13847 net.cpp:157] Top shape: 1024 67 (68608)
I0409 02:25:57.774814 13847 net.cpp:165] Memory required for data: 4106584064
I0409 02:25:57.774833 13847 layer_factory.hpp:77] Creating layer loss
I0409 02:25:57.774840 13847 net.cpp:100] Creating Layer loss
I0409 02:25:57.774843 13847 net.cpp:434] loss <- fc5_classes_fc5_67_0_split_0
I0409 02:25:57.774848 13847 net.cpp:434] loss <- label_data_1_split_0
I0409 02:25:57.774853 13847 net.cpp:408] loss -> loss
…
