…
I0409 02:24:46.899391 10204 net.cpp:322] The NetState phase (0) differed from the phase (1) specified by a rule in layer accuracy_5
I0409 02:24:46.899585 10204 net.cpp:58] Initializing net from parameters: 
state {
  phase: TRAIN
  level: 0
  stage: ""
}
layer {
  name: "data"
  type: "Data"
  top: "data"
  top: "label"
  include {
    phase: TRAIN
  }
  transform_param {
    mirror: false
    crop_size: 48
    mean_value: 122
    mean_value: 115
    mean_value: 128
  }
  data_param {
    source: "../local_data/lmdb/rtsd-r1/histeq/train/lmdb"
    batch_size: 1024
    backend: LMDB
  }
}
layer {
  name: "conv1"
  type: "Convolution"
  bottom: "data"
  top: "conv1"
  convolution_param {
    num_output: 100
    pad: 0
    kernel_size: 7
    group: 1
    stride: 1
    weight_filler {
      type: "xavier"
    }
  }
}
layer {
  name: "conv1_prescale"
  type: "Scale"
  bottom: "conv1"
  top: "conv1"
  param {
    lr_mult: 0
    decay_mult: 0
  }
  scale_param {
    filler {
      value: 0.6666
    }
  }
}
layer {
  name: "conv1_sTanH"
  type: "TanH"
  bottom: "conv1"
  top: "conv1"
}
layer {
  name: "conv1_postscale"
  type: "Scale"
  bottom: "conv1"
  top: "conv1"
  param {
    lr_mult: 0
    decay_mult: 0
  }
  scale_param {
    filler {
      value: 1.7159
    }
  }
}
layer {
  name: "pool1"
  type: "Pooling"
  bottom: "conv1"
  top: "pool1"
  pooling_param {
    pool: MAX
    kernel_size: 2
    stride: 2
  }
}
layer {
  name: "conv2"
  type: "Convolution"
  bottom: "pool1"
  top: "conv2"
  convolution_param {
    num_output: 150
    pad: 0
    kernel_size: 4
    group: 1
    stride: 1
    weight_filler {
      type: "xavier"
    }
  }
}
layer {
  name: "conv2_prescale"
  type: "Scale"
  bottom: "conv2"
  top: "conv2"
  param {
    lr_mult: 0
    decay_mult: 0
  }
  scale_param {
    filler {
      value: 0.6666
    }
  }
}
layer {
  name: "conv2_sTanH"
  type: "TanH"
  bottom: "conv2"
  top: "conv2"
}
layer {
  name: "conv2_postscale"
  type: "Scale"
  bottom: "conv2"
  top: "conv2"
  param {
    lr_mult: 0
    decay_mult: 0
  }
  scale_param {
    filler {
      value: 1.7159
    }
  }
}
layer {
  name: "pool2"
  type: "Pooling"
  bottom: "conv2"
  top: "pool2"
  pooling_param {
    pool: MAX
    kernel_size: 2
    stride: 2
  }
}
layer {
  name: "conv3"
  type: "Convolution"
  bottom: "pool2"
  top: "conv3"
  convolution_param {
    num_output: 250
    pad: 0
    kernel_size: 4
    group: 1
    stride: 1
    weight_filler {
      type: "xavier"
    }
  }
}
layer {
  name: "conv3_prescale"
  type: "Scale"
  bottom: "conv3"
  top: "conv3"
  param {
    lr_mult: 0
    decay_mult: 0
  }
  scale_param {
    filler {
      value: 0.6666
    }
  }
}
layer {
  name: "conv3_sTanH"
  type: "TanH"
  bottom: "conv3"
  top: "conv3"
}
layer {
  name: "conv3_postscale"
  type: "Scale"
  bottom: "conv3"
  top: "conv3"
  param {
    lr_mult: 0
    decay_mult: 0
  }
  scale_param {
    filler {
      value: 1.7159
    }
  }
}
layer {
  name: "pool3"
  type: "Pooling"
  bottom: "conv3"
  top: "pool3"
  pooling_param {
    pool: MAX
    kernel_size: 2
    stride: 2
  }
}
layer {
  name: "fc4_300"
  type: "InnerProduct"
  bottom: "pool3"
  top: "fc4_300"
  inner_product_param {
    num_output: 300
    weight_filler {
      type: "xavier"
    }
  }
}
layer {
  name: "fc4_relu"
  type: "ReLU"
  bottom: "fc4_300"
  top: "fc4_300"
}
layer {
  name: "drop4"
  type: "Dropout"
  bottom: "fc4_300"
  top: "fc4_300"
  dropout_param {
    dropout_ratio: 0.4
  }
}
layer {
  name: "fc5_67"
  type: "InnerProduct"
  bottom: "fc4_300"
  top: "fc5_classes"
  inner_product_param {
    num_output: 67
    weight_filler {
      type: "xavier"
    }
  }
}
layer {
  name: "loss"
  type: "SoftmaxWithLoss"
  bottom: "fc5_classes"
  bottom: "label"
  top: "loss"
}
I0409 02:24:46.899722 10204 layer_factory.hpp:77] Creating layer data
I0409 02:24:46.901290 10204 net.cpp:100] Creating Layer data
I0409 02:24:46.901311 10204 net.cpp:408] data -> data
I0409 02:24:46.901347 10204 net.cpp:408] data -> label
I0409 02:24:46.902937 10273 db_lmdb.cpp:35] Opened lmdb ../local_data/lmdb/rtsd-r1/histeq/train/lmdb
I0409 02:24:46.925791 10204 data_layer.cpp:41] output data size: 1024,3,48,48
I0409 02:24:46.985456 10204 net.cpp:150] Setting up data
I0409 02:24:46.985502 10204 net.cpp:157] Top shape: 1024 3 48 48 (7077888)
I0409 02:24:46.985508 10204 net.cpp:157] Top shape: 1024 (1024)
I0409 02:24:46.985512 10204 net.cpp:165] Memory required for data: 28315648
I0409 02:24:46.985523 10204 layer_factory.hpp:77] Creating layer conv1
I0409 02:24:46.985549 10204 net.cpp:100] Creating Layer conv1
I0409 02:24:46.985558 10204 net.cpp:434] conv1 <- data
I0409 02:24:46.985574 10204 net.cpp:408] conv1 -> conv1
I0409 02:24:47.344261 10204 net.cpp:150] Setting up conv1
I0409 02:24:47.344300 10204 net.cpp:157] Top shape: 1024 100 42 42 (180633600)
I0409 02:24:47.344305 10204 net.cpp:165] Memory required for data: 750850048
I0409 02:24:47.344331 10204 layer_factory.hpp:77] Creating layer conv1_prescale
I0409 02:24:47.344347 10204 net.cpp:100] Creating Layer conv1_prescale
I0409 02:24:47.344354 10204 net.cpp:434] conv1_prescale <- conv1
I0409 02:24:47.344362 10204 net.cpp:395] conv1_prescale -> conv1 (in-place)
I0409 02:24:47.344492 10204 net.cpp:150] Setting up conv1_prescale
I0409 02:24:47.344504 10204 net.cpp:157] Top shape: 1024 100 42 42 (180633600)
I0409 02:24:47.344507 10204 net.cpp:165] Memory required for data: 1473384448
I0409 02:24:47.344516 10204 layer_factory.hpp:77] Creating layer conv1_sTanH
I0409 02:24:47.344525 10204 net.cpp:100] Creating Layer conv1_sTanH
I0409 02:24:47.344532 10204 net.cpp:434] conv1_sTanH <- conv1
I0409 02:24:47.344537 10204 net.cpp:395] conv1_sTanH -> conv1 (in-place)
I0409 02:24:47.344780 10204 net.cpp:150] Setting up conv1_sTanH
I0409 02:24:47.344794 10204 net.cpp:157] Top shape: 1024 100 42 42 (180633600)
I0409 02:24:47.344799 10204 net.cpp:165] Memory required for data: 2195918848
I0409 02:24:47.344804 10204 layer_factory.hpp:77] Creating layer conv1_postscale
I0409 02:24:47.344812 10204 net.cpp:100] Creating Layer conv1_postscale
I0409 02:24:47.344817 10204 net.cpp:434] conv1_postscale <- conv1
I0409 02:24:47.344825 10204 net.cpp:395] conv1_postscale -> conv1 (in-place)
I0409 02:24:47.344941 10204 net.cpp:150] Setting up conv1_postscale
I0409 02:24:47.344950 10204 net.cpp:157] Top shape: 1024 100 42 42 (180633600)
I0409 02:24:47.344954 10204 net.cpp:165] Memory required for data: 2918453248
I0409 02:24:47.344961 10204 layer_factory.hpp:77] Creating layer pool1
I0409 02:24:47.344970 10204 net.cpp:100] Creating Layer pool1
I0409 02:24:47.344976 10204 net.cpp:434] pool1 <- conv1
I0409 02:24:47.344982 10204 net.cpp:408] pool1 -> pool1
I0409 02:24:47.345038 10204 net.cpp:150] Setting up pool1
I0409 02:24:47.345048 10204 net.cpp:157] Top shape: 1024 100 21 21 (45158400)
I0409 02:24:47.345052 10204 net.cpp:165] Memory required for data: 3099086848
I0409 02:24:47.345057 10204 layer_factory.hpp:77] Creating layer conv2
I0409 02:24:47.345067 10204 net.cpp:100] Creating Layer conv2
I0409 02:24:47.345073 10204 net.cpp:434] conv2 <- pool1
I0409 02:24:47.345079 10204 net.cpp:408] conv2 -> conv2
I0409 02:24:47.350317 10204 net.cpp:150] Setting up conv2
I0409 02:24:47.350338 10204 net.cpp:157] Top shape: 1024 150 18 18 (49766400)
I0409 02:24:47.350368 10204 net.cpp:165] Memory required for data: 3298152448
I0409 02:24:47.350381 10204 layer_factory.hpp:77] Creating layer conv2_prescale
I0409 02:24:47.350392 10204 net.cpp:100] Creating Layer conv2_prescale
I0409 02:24:47.350399 10204 net.cpp:434] conv2_prescale <- conv2
I0409 02:24:47.350406 10204 net.cpp:395] conv2_prescale -> conv2 (in-place)
I0409 02:24:47.350533 10204 net.cpp:150] Setting up conv2_prescale
I0409 02:24:47.350544 10204 net.cpp:157] Top shape: 1024 150 18 18 (49766400)
I0409 02:24:47.350550 10204 net.cpp:165] Memory required for data: 3497218048
I0409 02:24:47.350556 10204 layer_factory.hpp:77] Creating layer conv2_sTanH
I0409 02:24:47.350565 10204 net.cpp:100] Creating Layer conv2_sTanH
I0409 02:24:47.350570 10204 net.cpp:434] conv2_sTanH <- conv2
I0409 02:24:47.350576 10204 net.cpp:395] conv2_sTanH -> conv2 (in-place)
I0409 02:24:47.351467 10204 net.cpp:150] Setting up conv2_sTanH
I0409 02:24:47.351485 10204 net.cpp:157] Top shape: 1024 150 18 18 (49766400)
I0409 02:24:47.351491 10204 net.cpp:165] Memory required for data: 3696283648
I0409 02:24:47.351496 10204 layer_factory.hpp:77] Creating layer conv2_postscale
I0409 02:24:47.351507 10204 net.cpp:100] Creating Layer conv2_postscale
I0409 02:24:47.351513 10204 net.cpp:434] conv2_postscale <- conv2
I0409 02:24:47.351519 10204 net.cpp:395] conv2_postscale -> conv2 (in-place)
I0409 02:24:47.351636 10204 net.cpp:150] Setting up conv2_postscale
I0409 02:24:47.351647 10204 net.cpp:157] Top shape: 1024 150 18 18 (49766400)
I0409 02:24:47.351652 10204 net.cpp:165] Memory required for data: 3895349248
I0409 02:24:47.351660 10204 layer_factory.hpp:77] Creating layer pool2
I0409 02:24:47.351668 10204 net.cpp:100] Creating Layer pool2
I0409 02:24:47.351675 10204 net.cpp:434] pool2 <- conv2
I0409 02:24:47.351680 10204 net.cpp:408] pool2 -> pool2
I0409 02:24:47.351727 10204 net.cpp:150] Setting up pool2
I0409 02:24:47.351737 10204 net.cpp:157] Top shape: 1024 150 9 9 (12441600)
I0409 02:24:47.351740 10204 net.cpp:165] Memory required for data: 3945115648
I0409 02:24:47.351744 10204 layer_factory.hpp:77] Creating layer conv3
I0409 02:24:47.351753 10204 net.cpp:100] Creating Layer conv3
I0409 02:24:47.351759 10204 net.cpp:434] conv3 <- pool2
I0409 02:24:47.351765 10204 net.cpp:408] conv3 -> conv3
I0409 02:24:47.358486 10204 net.cpp:150] Setting up conv3
I0409 02:24:47.358506 10204 net.cpp:157] Top shape: 1024 250 6 6 (9216000)
I0409 02:24:47.358513 10204 net.cpp:165] Memory required for data: 3981979648
I0409 02:24:47.358525 10204 layer_factory.hpp:77] Creating layer conv3_prescale
I0409 02:24:47.358536 10204 net.cpp:100] Creating Layer conv3_prescale
I0409 02:24:47.358542 10204 net.cpp:434] conv3_prescale <- conv3
I0409 02:24:47.358549 10204 net.cpp:395] conv3_prescale -> conv3 (in-place)
I0409 02:24:47.358665 10204 net.cpp:150] Setting up conv3_prescale
I0409 02:24:47.358675 10204 net.cpp:157] Top shape: 1024 250 6 6 (9216000)
I0409 02:24:47.358680 10204 net.cpp:165] Memory required for data: 4018843648
I0409 02:24:47.358685 10204 layer_factory.hpp:77] Creating layer conv3_sTanH
I0409 02:24:47.358692 10204 net.cpp:100] Creating Layer conv3_sTanH
I0409 02:24:47.358697 10204 net.cpp:434] conv3_sTanH <- conv3
I0409 02:24:47.358703 10204 net.cpp:395] conv3_sTanH -> conv3 (in-place)
I0409 02:24:47.359604 10204 net.cpp:150] Setting up conv3_sTanH
I0409 02:24:47.359623 10204 net.cpp:157] Top shape: 1024 250 6 6 (9216000)
I0409 02:24:47.359629 10204 net.cpp:165] Memory required for data: 4055707648
I0409 02:24:47.359634 10204 layer_factory.hpp:77] Creating layer conv3_postscale
I0409 02:24:47.359642 10204 net.cpp:100] Creating Layer conv3_postscale
I0409 02:24:47.359649 10204 net.cpp:434] conv3_postscale <- conv3
I0409 02:24:47.359655 10204 net.cpp:395] conv3_postscale -> conv3 (in-place)
I0409 02:24:47.359773 10204 net.cpp:150] Setting up conv3_postscale
I0409 02:24:47.359782 10204 net.cpp:157] Top shape: 1024 250 6 6 (9216000)
I0409 02:24:47.359786 10204 net.cpp:165] Memory required for data: 4092571648
I0409 02:24:47.359793 10204 layer_factory.hpp:77] Creating layer pool3
I0409 02:24:47.359817 10204 net.cpp:100] Creating Layer pool3
I0409 02:24:47.359824 10204 net.cpp:434] pool3 <- conv3
I0409 02:24:47.359832 10204 net.cpp:408] pool3 -> pool3
I0409 02:24:47.359887 10204 net.cpp:150] Setting up pool3
I0409 02:24:47.359899 10204 net.cpp:157] Top shape: 1024 250 3 3 (2304000)
I0409 02:24:47.359904 10204 net.cpp:165] Memory required for data: 4101787648
I0409 02:24:47.359907 10204 layer_factory.hpp:77] Creating layer fc4_300
I0409 02:24:47.359918 10204 net.cpp:100] Creating Layer fc4_300
I0409 02:24:47.359923 10204 net.cpp:434] fc4_300 <- pool3
I0409 02:24:47.359930 10204 net.cpp:408] fc4_300 -> fc4_300
I0409 02:24:47.366513 10204 net.cpp:150] Setting up fc4_300
I0409 02:24:47.366533 10204 net.cpp:157] Top shape: 1024 300 (307200)
I0409 02:24:47.366539 10204 net.cpp:165] Memory required for data: 4103016448
I0409 02:24:47.366547 10204 layer_factory.hpp:77] Creating layer fc4_relu
I0409 02:24:47.366556 10204 net.cpp:100] Creating Layer fc4_relu
I0409 02:24:47.366562 10204 net.cpp:434] fc4_relu <- fc4_300
I0409 02:24:47.366569 10204 net.cpp:395] fc4_relu -> fc4_300 (in-place)
I0409 02:24:47.366793 10204 net.cpp:150] Setting up fc4_relu
I0409 02:24:47.366806 10204 net.cpp:157] Top shape: 1024 300 (307200)
I0409 02:24:47.366811 10204 net.cpp:165] Memory required for data: 4104245248
I0409 02:24:47.366816 10204 layer_factory.hpp:77] Creating layer drop4
I0409 02:24:47.366824 10204 net.cpp:100] Creating Layer drop4
I0409 02:24:47.366829 10204 net.cpp:434] drop4 <- fc4_300
I0409 02:24:47.366835 10204 net.cpp:395] drop4 -> fc4_300 (in-place)
I0409 02:24:47.366871 10204 net.cpp:150] Setting up drop4
I0409 02:24:47.366881 10204 net.cpp:157] Top shape: 1024 300 (307200)
I0409 02:24:47.366888 10204 net.cpp:165] Memory required for data: 4105474048
I0409 02:24:47.366891 10204 layer_factory.hpp:77] Creating layer fc5_67
I0409 02:24:47.366899 10204 net.cpp:100] Creating Layer fc5_67
I0409 02:24:47.366902 10204 net.cpp:434] fc5_67 <- fc4_300
I0409 02:24:47.366909 10204 net.cpp:408] fc5_67 -> fc5_classes
I0409 02:24:47.368340 10204 net.cpp:150] Setting up fc5_67
I0409 02:24:47.368357 10204 net.cpp:157] Top shape: 1024 67 (68608)
I0409 02:24:47.368363 10204 net.cpp:165] Memory required for data: 4105748480
I0409 02:24:47.368372 10204 layer_factory.hpp:77] Creating layer loss
I0409 02:24:47.368381 10204 net.cpp:100] Creating Layer loss
I0409 02:24:47.368387 10204 net.cpp:434] loss <- fc5_classes
I0409 02:24:47.368393 10204 net.cpp:434] loss <- label
I0409 02:24:47.368401 10204 net.cpp:408] loss -> loss
I0409 02:24:47.368417 10204 layer_factory.hpp:77] Creating layer loss
…
I0409 02:24:47.369276 10204 solver.cpp:193] Creating test net (#0) specified by test_net file: ./Prototxt/experiment_6/rtsd-r1/histeq/trial_1/test.prototxt
I0409 02:24:47.369482 10204 net.cpp:58] Initializing net from parameters: 
state {
  phase: TEST
}
layer {
  name: "data"
  type: "Data"
  top: "data"
  top: "label"
  include {
    phase: TEST
  }
  transform_param {
    mirror: false
    crop_size: 48
    mean_value: 117
    mean_value: 114
    mean_value: 133
  }
  data_param {
    source: "../local_data/lmdb/rtsd-r1/histeq/test/lmdb"
    batch_size: 1024
    backend: LMDB
  }
}
layer {
  name: "conv1"
  type: "Convolution"
  bottom: "data"
  top: "conv1"
  convolution_param {
    num_output: 100
    pad: 0
    kernel_size: 7
    group: 1
    stride: 1
    weight_filler {
      type: "xavier"
    }
  }
}
layer {
  name: "conv1_prescale"
  type: "Scale"
  bottom: "conv1"
  top: "conv1"
  param {
    lr_mult: 0
    decay_mult: 0
  }
  scale_param {
    filler {
      value: 0.6666
    }
  }
}
layer {
  name: "conv1_sTanH"
  type: "TanH"
  bottom: "conv1"
  top: "conv1"
}
layer {
  name: "conv1_postscale"
  type: "Scale"
  bottom: "conv1"
  top: "conv1"
  param {
    lr_mult: 0
    decay_mult: 0
  }
  scale_param {
    filler {
      value: 1.7159
    }
  }
}
layer {
  name: "pool1"
  type: "Pooling"
  bottom: "conv1"
  top: "pool1"
  pooling_param {
    pool: MAX
    kernel_size: 2
    stride: 2
  }
}
layer {
  name: "conv2"
  type: "Convolution"
  bottom: "pool1"
  top: "conv2"
  convolution_param {
    num_output: 150
    pad: 0
    kernel_size: 4
    group: 1
    stride: 1
    weight_filler {
      type: "xavier"
    }
  }
}
layer {
  name: "conv2_prescale"
  type: "Scale"
  bottom: "conv2"
  top: "conv2"
  param {
    lr_mult: 0
    decay_mult: 0
  }
  scale_param {
    filler {
      value: 0.6666
    }
  }
}
layer {
  name: "conv2_sTanH"
  type: "TanH"
  bottom: "conv2"
  top: "conv2"
}
layer {
  name: "conv2_postscale"
  type: "Scale"
  bottom: "conv2"
  top: "conv2"
  param {
    lr_mult: 0
    decay_mult: 0
  }
  scale_param {
    filler {
      value: 1.7159
    }
  }
}
layer {
  name: "pool2"
  type: "Pooling"
  bottom: "conv2"
  top: "pool2"
  pooling_param {
    pool: MAX
    kernel_size: 2
    stride: 2
  }
}
layer {
  name: "conv3"
  type: "Convolution"
  bottom: "pool2"
  top: "conv3"
  convolution_param {
    num_output: 250
    pad: 0
    kernel_size: 4
    group: 1
    stride: 1
    weight_filler {
      type: "xavier"
    }
  }
}
layer {
  name: "conv3_prescale"
  type: "Scale"
  bottom: "conv3"
  top: "conv3"
  param {
    lr_mult: 0
    decay_mult: 0
  }
  scale_param {
    filler {
      value: 0.6666
    }
  }
}
layer {
  name: "conv3_sTanH"
  type: "TanH"
  bottom: "conv3"
  top: "conv3"
}
layer {
  name: "conv3_postscale"
  type: "Scale"
  bottom: "conv3"
  top: "conv3"
  param {
    lr_mult: 0
    decay_mult: 0
  }
  scale_param {
    filler {
      value: 1.7159
    }
  }
}
layer {
  name: "pool3"
  type: "Pooling"
  bottom: "conv3"
  top: "pool3"
  pooling_param {
    pool: MAX
    kernel_size: 2
    stride: 2
  }
}
layer {
  name: "fc4_300"
  type: "InnerProduct"
  bottom: "pool3"
  top: "fc4_300"
  inner_product_param {
    num_output: 300
    weight_filler {
      type: "xavier"
    }
  }
}
layer {
  name: "fc4_relu"
  type: "ReLU"
  bottom: "fc4_300"
  top: "fc4_300"
}
layer {
  name: "drop4"
  type: "Dropout"
  bottom: "fc4_300"
  top: "fc4_300"
  dropout_param {
    dropout_ratio: 0.4
  }
}
layer {
  name: "fc5_67"
  type: "InnerProduct"
  bottom: "fc4_300"
  top: "fc5_classes"
  inner_product_param {
    num_output: 67
    weight_filler {
      type: "xavier"
    }
  }
}
layer {
  name: "loss"
  type: "SoftmaxWithLoss"
  bottom: "fc5_classes"
  bottom: "label"
  top: "loss"
}
layer {
  name: "accuracy_1"
  type: "Accuracy"
  bottom: "fc5_classes"
  bottom: "label"
  top: "accuracy_1"
  include {
    phase: TEST
  }
  accuracy_param {
    top_k: 1
  }
}
layer {
  name: "accuracy_5"
  type: "Accuracy"
  bottom: "fc5_classes"
  bottom: "label"
  top: "accuracy_5"
  include {
    phase: TEST
  }
  accuracy_param {
    top_k: 5
  }
}
I0409 02:24:47.369609 10204 layer_factory.hpp:77] Creating layer data
I0409 02:24:47.370355 10204 net.cpp:100] Creating Layer data
I0409 02:24:47.370379 10204 net.cpp:408] data -> data
I0409 02:24:47.370393 10204 net.cpp:408] data -> label
I0409 02:24:47.371551 10299 db_lmdb.cpp:35] Opened lmdb ../local_data/lmdb/rtsd-r1/histeq/test/lmdb
I0409 02:24:47.371795 10204 data_layer.cpp:41] output data size: 1024,3,48,48
I0409 02:24:47.422320 10204 net.cpp:150] Setting up data
I0409 02:24:47.422350 10204 net.cpp:157] Top shape: 1024 3 48 48 (7077888)
I0409 02:24:47.422358 10204 net.cpp:157] Top shape: 1024 (1024)
I0409 02:24:47.422361 10204 net.cpp:165] Memory required for data: 28315648
I0409 02:24:47.422369 10204 layer_factory.hpp:77] Creating layer label_data_1_split
I0409 02:24:47.422385 10204 net.cpp:100] Creating Layer label_data_1_split
I0409 02:24:47.422390 10204 net.cpp:434] label_data_1_split <- label
I0409 02:24:47.422400 10204 net.cpp:408] label_data_1_split -> label_data_1_split_0
I0409 02:24:47.422423 10204 net.cpp:408] label_data_1_split -> label_data_1_split_1
I0409 02:24:47.422433 10204 net.cpp:408] label_data_1_split -> label_data_1_split_2
I0409 02:24:47.422627 10204 net.cpp:150] Setting up label_data_1_split
I0409 02:24:47.422641 10204 net.cpp:157] Top shape: 1024 (1024)
I0409 02:24:47.422646 10204 net.cpp:157] Top shape: 1024 (1024)
I0409 02:24:47.422652 10204 net.cpp:157] Top shape: 1024 (1024)
I0409 02:24:47.422654 10204 net.cpp:165] Memory required for data: 28327936
I0409 02:24:47.422659 10204 layer_factory.hpp:77] Creating layer conv1
I0409 02:24:47.422677 10204 net.cpp:100] Creating Layer conv1
I0409 02:24:47.422683 10204 net.cpp:434] conv1 <- data
I0409 02:24:47.422691 10204 net.cpp:408] conv1 -> conv1
I0409 02:24:47.425055 10204 net.cpp:150] Setting up conv1
I0409 02:24:47.425076 10204 net.cpp:157] Top shape: 1024 100 42 42 (180633600)
I0409 02:24:47.425082 10204 net.cpp:165] Memory required for data: 750862336
I0409 02:24:47.425097 10204 layer_factory.hpp:77] Creating layer conv1_prescale
I0409 02:24:47.425112 10204 net.cpp:100] Creating Layer conv1_prescale
I0409 02:24:47.425118 10204 net.cpp:434] conv1_prescale <- conv1
I0409 02:24:47.425125 10204 net.cpp:395] conv1_prescale -> conv1 (in-place)
I0409 02:24:47.425259 10204 net.cpp:150] Setting up conv1_prescale
I0409 02:24:47.425271 10204 net.cpp:157] Top shape: 1024 100 42 42 (180633600)
I0409 02:24:47.425276 10204 net.cpp:165] Memory required for data: 1473396736
I0409 02:24:47.425284 10204 layer_factory.hpp:77] Creating layer conv1_sTanH
I0409 02:24:47.425302 10204 net.cpp:100] Creating Layer conv1_sTanH
I0409 02:24:47.425307 10204 net.cpp:434] conv1_sTanH <- conv1
I0409 02:24:47.425314 10204 net.cpp:395] conv1_sTanH -> conv1 (in-place)
I0409 02:24:47.425555 10204 net.cpp:150] Setting up conv1_sTanH
I0409 02:24:47.425570 10204 net.cpp:157] Top shape: 1024 100 42 42 (180633600)
I0409 02:24:47.425576 10204 net.cpp:165] Memory required for data: 2195931136
I0409 02:24:47.425580 10204 layer_factory.hpp:77] Creating layer conv1_postscale
I0409 02:24:47.425588 10204 net.cpp:100] Creating Layer conv1_postscale
I0409 02:24:47.425593 10204 net.cpp:434] conv1_postscale <- conv1
I0409 02:24:47.425601 10204 net.cpp:395] conv1_postscale -> conv1 (in-place)
I0409 02:24:47.425737 10204 net.cpp:150] Setting up conv1_postscale
I0409 02:24:47.425750 10204 net.cpp:157] Top shape: 1024 100 42 42 (180633600)
I0409 02:24:47.425773 10204 net.cpp:165] Memory required for data: 2918465536
I0409 02:24:47.425781 10204 layer_factory.hpp:77] Creating layer pool1
I0409 02:24:47.425792 10204 net.cpp:100] Creating Layer pool1
I0409 02:24:47.425798 10204 net.cpp:434] pool1 <- conv1
I0409 02:24:47.425804 10204 net.cpp:408] pool1 -> pool1
I0409 02:24:47.425906 10204 net.cpp:150] Setting up pool1
I0409 02:24:47.425917 10204 net.cpp:157] Top shape: 1024 100 21 21 (45158400)
I0409 02:24:47.425923 10204 net.cpp:165] Memory required for data: 3099099136
I0409 02:24:47.425927 10204 layer_factory.hpp:77] Creating layer conv2
I0409 02:24:47.425941 10204 net.cpp:100] Creating Layer conv2
I0409 02:24:47.425947 10204 net.cpp:434] conv2 <- pool1
I0409 02:24:47.425957 10204 net.cpp:408] conv2 -> conv2
I0409 02:24:47.433548 10204 net.cpp:150] Setting up conv2
I0409 02:24:47.433569 10204 net.cpp:157] Top shape: 1024 150 18 18 (49766400)
I0409 02:24:47.433574 10204 net.cpp:165] Memory required for data: 3298164736
I0409 02:24:47.433588 10204 layer_factory.hpp:77] Creating layer conv2_prescale
I0409 02:24:47.433603 10204 net.cpp:100] Creating Layer conv2_prescale
I0409 02:24:47.433607 10204 net.cpp:434] conv2_prescale <- conv2
I0409 02:24:47.433614 10204 net.cpp:395] conv2_prescale -> conv2 (in-place)
I0409 02:24:47.433754 10204 net.cpp:150] Setting up conv2_prescale
I0409 02:24:47.433768 10204 net.cpp:157] Top shape: 1024 150 18 18 (49766400)
I0409 02:24:47.433773 10204 net.cpp:165] Memory required for data: 3497230336
I0409 02:24:47.433780 10204 layer_factory.hpp:77] Creating layer conv2_sTanH
I0409 02:24:47.433787 10204 net.cpp:100] Creating Layer conv2_sTanH
I0409 02:24:47.433794 10204 net.cpp:434] conv2_sTanH <- conv2
I0409 02:24:47.433799 10204 net.cpp:395] conv2_sTanH -> conv2 (in-place)
I0409 02:24:47.434881 10204 net.cpp:150] Setting up conv2_sTanH
I0409 02:24:47.434904 10204 net.cpp:157] Top shape: 1024 150 18 18 (49766400)
I0409 02:24:47.434909 10204 net.cpp:165] Memory required for data: 3696295936
I0409 02:24:47.434916 10204 layer_factory.hpp:77] Creating layer conv2_postscale
I0409 02:24:47.434924 10204 net.cpp:100] Creating Layer conv2_postscale
I0409 02:24:47.434931 10204 net.cpp:434] conv2_postscale <- conv2
I0409 02:24:47.434938 10204 net.cpp:395] conv2_postscale -> conv2 (in-place)
I0409 02:24:47.435070 10204 net.cpp:150] Setting up conv2_postscale
I0409 02:24:47.435081 10204 net.cpp:157] Top shape: 1024 150 18 18 (49766400)
I0409 02:24:47.435086 10204 net.cpp:165] Memory required for data: 3895361536
I0409 02:24:47.435092 10204 layer_factory.hpp:77] Creating layer pool2
I0409 02:24:47.435104 10204 net.cpp:100] Creating Layer pool2
I0409 02:24:47.435114 10204 net.cpp:434] pool2 <- conv2
I0409 02:24:47.435120 10204 net.cpp:408] pool2 -> pool2
I0409 02:24:47.435176 10204 net.cpp:150] Setting up pool2
I0409 02:24:47.435189 10204 net.cpp:157] Top shape: 1024 150 9 9 (12441600)
I0409 02:24:47.435194 10204 net.cpp:165] Memory required for data: 3945127936
I0409 02:24:47.435199 10204 layer_factory.hpp:77] Creating layer conv3
I0409 02:24:47.435209 10204 net.cpp:100] Creating Layer conv3
I0409 02:24:47.435216 10204 net.cpp:434] conv3 <- pool2
I0409 02:24:47.435228 10204 net.cpp:408] conv3 -> conv3
I0409 02:24:47.442733 10204 net.cpp:150] Setting up conv3
I0409 02:24:47.442755 10204 net.cpp:157] Top shape: 1024 250 6 6 (9216000)
I0409 02:24:47.442760 10204 net.cpp:165] Memory required for data: 3981991936
I0409 02:24:47.442772 10204 layer_factory.hpp:77] Creating layer conv3_prescale
I0409 02:24:47.442781 10204 net.cpp:100] Creating Layer conv3_prescale
I0409 02:24:47.442785 10204 net.cpp:434] conv3_prescale <- conv3
I0409 02:24:47.442795 10204 net.cpp:395] conv3_prescale -> conv3 (in-place)
I0409 02:24:47.442919 10204 net.cpp:150] Setting up conv3_prescale
I0409 02:24:47.442932 10204 net.cpp:157] Top shape: 1024 250 6 6 (9216000)
I0409 02:24:47.442939 10204 net.cpp:165] Memory required for data: 4018855936
I0409 02:24:47.442945 10204 layer_factory.hpp:77] Creating layer conv3_sTanH
I0409 02:24:47.442950 10204 net.cpp:100] Creating Layer conv3_sTanH
I0409 02:24:47.442972 10204 net.cpp:434] conv3_sTanH <- conv3
I0409 02:24:47.442980 10204 net.cpp:395] conv3_sTanH -> conv3 (in-place)
I0409 02:24:47.450922 10204 net.cpp:150] Setting up conv3_sTanH
I0409 02:24:47.450948 10204 net.cpp:157] Top shape: 1024 250 6 6 (9216000)
I0409 02:24:47.450953 10204 net.cpp:165] Memory required for data: 4055719936
I0409 02:24:47.450958 10204 layer_factory.hpp:77] Creating layer conv3_postscale
I0409 02:24:47.450969 10204 net.cpp:100] Creating Layer conv3_postscale
I0409 02:24:47.450974 10204 net.cpp:434] conv3_postscale <- conv3
I0409 02:24:47.450981 10204 net.cpp:395] conv3_postscale -> conv3 (in-place)
I0409 02:24:47.451117 10204 net.cpp:150] Setting up conv3_postscale
I0409 02:24:47.451135 10204 net.cpp:157] Top shape: 1024 250 6 6 (9216000)
I0409 02:24:47.451141 10204 net.cpp:165] Memory required for data: 4092583936
I0409 02:24:47.451148 10204 layer_factory.hpp:77] Creating layer pool3
I0409 02:24:47.451164 10204 net.cpp:100] Creating Layer pool3
I0409 02:24:47.451169 10204 net.cpp:434] pool3 <- conv3
I0409 02:24:47.451176 10204 net.cpp:408] pool3 -> pool3
I0409 02:24:47.451232 10204 net.cpp:150] Setting up pool3
I0409 02:24:47.451244 10204 net.cpp:157] Top shape: 1024 250 3 3 (2304000)
I0409 02:24:47.451249 10204 net.cpp:165] Memory required for data: 4101799936
I0409 02:24:47.451253 10204 layer_factory.hpp:77] Creating layer fc4_300
I0409 02:24:47.451261 10204 net.cpp:100] Creating Layer fc4_300
I0409 02:24:47.451267 10204 net.cpp:434] fc4_300 <- pool3
I0409 02:24:47.451275 10204 net.cpp:408] fc4_300 -> fc4_300
I0409 02:24:47.462432 10204 net.cpp:150] Setting up fc4_300
I0409 02:24:47.462457 10204 net.cpp:157] Top shape: 1024 300 (307200)
I0409 02:24:47.462462 10204 net.cpp:165] Memory required for data: 4103028736
I0409 02:24:47.462471 10204 layer_factory.hpp:77] Creating layer fc4_relu
I0409 02:24:47.462481 10204 net.cpp:100] Creating Layer fc4_relu
I0409 02:24:47.462484 10204 net.cpp:434] fc4_relu <- fc4_300
I0409 02:24:47.462491 10204 net.cpp:395] fc4_relu -> fc4_300 (in-place)
I0409 02:24:47.462750 10204 net.cpp:150] Setting up fc4_relu
I0409 02:24:47.462764 10204 net.cpp:157] Top shape: 1024 300 (307200)
I0409 02:24:47.462769 10204 net.cpp:165] Memory required for data: 4104257536
I0409 02:24:47.462772 10204 layer_factory.hpp:77] Creating layer drop4
I0409 02:24:47.462781 10204 net.cpp:100] Creating Layer drop4
I0409 02:24:47.462785 10204 net.cpp:434] drop4 <- fc4_300
I0409 02:24:47.462792 10204 net.cpp:395] drop4 -> fc4_300 (in-place)
I0409 02:24:47.462829 10204 net.cpp:150] Setting up drop4
I0409 02:24:47.462839 10204 net.cpp:157] Top shape: 1024 300 (307200)
I0409 02:24:47.462842 10204 net.cpp:165] Memory required for data: 4105486336
I0409 02:24:47.462846 10204 layer_factory.hpp:77] Creating layer fc5_67
I0409 02:24:47.462857 10204 net.cpp:100] Creating Layer fc5_67
I0409 02:24:47.462862 10204 net.cpp:434] fc5_67 <- fc4_300
I0409 02:24:47.462868 10204 net.cpp:408] fc5_67 -> fc5_classes
I0409 02:24:47.463182 10204 net.cpp:150] Setting up fc5_67
I0409 02:24:47.463192 10204 net.cpp:157] Top shape: 1024 67 (68608)
I0409 02:24:47.463196 10204 net.cpp:165] Memory required for data: 4105760768
I0409 02:24:47.463203 10204 layer_factory.hpp:77] Creating layer fc5_classes_fc5_67_0_split
I0409 02:24:47.463212 10204 net.cpp:100] Creating Layer fc5_classes_fc5_67_0_split
I0409 02:24:47.463219 10204 net.cpp:434] fc5_classes_fc5_67_0_split <- fc5_classes
I0409 02:24:47.463228 10204 net.cpp:408] fc5_classes_fc5_67_0_split -> fc5_classes_fc5_67_0_split_0
I0409 02:24:47.463239 10204 net.cpp:408] fc5_classes_fc5_67_0_split -> fc5_classes_fc5_67_0_split_1
I0409 02:24:47.463250 10204 net.cpp:408] fc5_classes_fc5_67_0_split -> fc5_classes_fc5_67_0_split_2
I0409 02:24:47.463323 10204 net.cpp:150] Setting up fc5_classes_fc5_67_0_split
I0409 02:24:47.463335 10204 net.cpp:157] Top shape: 1024 67 (68608)
I0409 02:24:47.463338 10204 net.cpp:157] Top shape: 1024 67 (68608)
I0409 02:24:47.463343 10204 net.cpp:157] Top shape: 1024 67 (68608)
I0409 02:24:47.463346 10204 net.cpp:165] Memory required for data: 4106584064
I0409 02:24:47.463369 10204 layer_factory.hpp:77] Creating layer loss
I0409 02:24:47.463377 10204 net.cpp:100] Creating Layer loss
I0409 02:24:47.463383 10204 net.cpp:434] loss <- fc5_classes_fc5_67_0_split_0
I0409 02:24:47.463393 10204 net.cpp:434] loss <- label_data_1_split_0
I0409 02:24:47.463403 10204 net.cpp:408] loss -> loss
…
