…
I0409 02:44:24.501581  5147 net.cpp:322] The NetState phase (0) differed from the phase (1) specified by a rule in layer accuracy_5
I0409 02:44:24.501724  5147 net.cpp:58] Initializing net from parameters: 
state {
  phase: TRAIN
  level: 0
  stage: ""
}
layer {
  name: "data"
  type: "Data"
  top: "data"
  top: "label"
  include {
    phase: TRAIN
  }
  transform_param {
    mirror: false
    crop_size: 48
    mean_value: 122
    mean_value: 115
    mean_value: 128
  }
  data_param {
    source: "../local_data/lmdb/rtsd-r1/histeq/train/lmdb"
    batch_size: 1024
    backend: LMDB
  }
}
layer {
  name: "conv1"
  type: "Convolution"
  bottom: "data"
  top: "conv1"
  convolution_param {
    num_output: 100
    pad: 0
    kernel_size: 7
    group: 1
    stride: 1
    weight_filler {
      type: "xavier"
    }
  }
}
layer {
  name: "conv1_prescale"
  type: "Scale"
  bottom: "conv1"
  top: "conv1"
  param {
    lr_mult: 0
    decay_mult: 0
  }
  scale_param {
    filler {
      value: 0.6666
    }
  }
}
layer {
  name: "conv1_sTanH"
  type: "TanH"
  bottom: "conv1"
  top: "conv1"
}
layer {
  name: "conv1_postscale"
  type: "Scale"
  bottom: "conv1"
  top: "conv1"
  param {
    lr_mult: 0
    decay_mult: 0
  }
  scale_param {
    filler {
      value: 1.7159
    }
  }
}
layer {
  name: "pool1"
  type: "Pooling"
  bottom: "conv1"
  top: "pool1"
  pooling_param {
    pool: MAX
    kernel_size: 2
    stride: 2
  }
}
layer {
  name: "conv2"
  type: "Convolution"
  bottom: "pool1"
  top: "conv2"
  convolution_param {
    num_output: 150
    pad: 0
    kernel_size: 4
    group: 1
    stride: 1
    weight_filler {
      type: "xavier"
    }
  }
}
layer {
  name: "conv2_prescale"
  type: "Scale"
  bottom: "conv2"
  top: "conv2"
  param {
    lr_mult: 0
    decay_mult: 0
  }
  scale_param {
    filler {
      value: 0.6666
    }
  }
}
layer {
  name: "conv2_sTanH"
  type: "TanH"
  bottom: "conv2"
  top: "conv2"
}
layer {
  name: "conv2_postscale"
  type: "Scale"
  bottom: "conv2"
  top: "conv2"
  param {
    lr_mult: 0
    decay_mult: 0
  }
  scale_param {
    filler {
      value: 1.7159
    }
  }
}
layer {
  name: "pool2"
  type: "Pooling"
  bottom: "conv2"
  top: "pool2"
  pooling_param {
    pool: MAX
    kernel_size: 2
    stride: 2
  }
}
layer {
  name: "conv3"
  type: "Convolution"
  bottom: "pool2"
  top: "conv3"
  convolution_param {
    num_output: 250
    pad: 0
    kernel_size: 4
    group: 1
    stride: 1
    weight_filler {
      type: "xavier"
    }
  }
}
layer {
  name: "conv3_prescale"
  type: "Scale"
  bottom: "conv3"
  top: "conv3"
  param {
    lr_mult: 0
    decay_mult: 0
  }
  scale_param {
    filler {
      value: 0.6666
    }
  }
}
layer {
  name: "conv3_sTanH"
  type: "TanH"
  bottom: "conv3"
  top: "conv3"
}
layer {
  name: "conv3_postscale"
  type: "Scale"
  bottom: "conv3"
  top: "conv3"
  param {
    lr_mult: 0
    decay_mult: 0
  }
  scale_param {
    filler {
      value: 1.7159
    }
  }
}
layer {
  name: "pool3"
  type: "Pooling"
  bottom: "conv3"
  top: "pool3"
  pooling_param {
    pool: MAX
    kernel_size: 2
    stride: 2
  }
}
layer {
  name: "fc4_300"
  type: "InnerProduct"
  bottom: "pool3"
  top: "fc4_300"
  inner_product_param {
    num_output: 300
    weight_filler {
      type: "xavier"
    }
  }
}
layer {
  name: "fc4_prescale"
  type: "Scale"
  bottom: "fc4_300"
  top: "fc4_300"
  param {
    lr_mult: 0
    decay_mult: 0
  }
  scale_param {
    filler {
      value: 0.6666
    }
  }
}
layer {
  name: "fc4_sTanH"
  type: "TanH"
  bottom: "fc4_300"
  top: "fc4_300"
}
layer {
  name: "fc4_postscale"
  type: "Scale"
  bottom: "fc4_300"
  top: "fc4_300"
  param {
    lr_mult: 0
    decay_mult: 0
  }
  scale_param {
    filler {
      value: 1.7159
    }
  }
}
layer {
  name: "drop4"
  type: "Dropout"
  bottom: "fc4_300"
  top: "fc4_300"
  dropout_param {
    dropout_ratio: 0.4
  }
}
layer {
  name: "fc5_67"
  type: "InnerProduct"
  bottom: "fc4_300"
  top: "fc5_classes"
  inner_product_param {
    num_output: 67
    weight_filler {
      type: "xavier"
    }
  }
}
layer {
  name: "loss"
  type: "SoftmaxWithLoss"
  bottom: "fc5_classes"
  bottom: "label"
  top: "loss"
}
I0409 02:44:24.501827  5147 layer_factory.hpp:77] Creating layer data
I0409 02:44:24.502882  5147 net.cpp:100] Creating Layer data
I0409 02:44:24.502897  5147 net.cpp:408] data -> data
I0409 02:44:24.502919  5147 net.cpp:408] data -> label
I0409 02:44:24.504259  5252 db_lmdb.cpp:35] Opened lmdb ../local_data/lmdb/rtsd-r1/histeq/train/lmdb
I0409 02:44:24.520753  5147 data_layer.cpp:41] output data size: 1024,3,48,48
I0409 02:44:24.565263  5147 net.cpp:150] Setting up data
I0409 02:44:24.565304  5147 net.cpp:157] Top shape: 1024 3 48 48 (7077888)
I0409 02:44:24.565311  5147 net.cpp:157] Top shape: 1024 (1024)
I0409 02:44:24.565315  5147 net.cpp:165] Memory required for data: 28315648
I0409 02:44:24.565325  5147 layer_factory.hpp:77] Creating layer conv1
I0409 02:44:24.565347  5147 net.cpp:100] Creating Layer conv1
I0409 02:44:24.565354  5147 net.cpp:434] conv1 <- data
I0409 02:44:24.565367  5147 net.cpp:408] conv1 -> conv1
I0409 02:44:24.911088  5147 net.cpp:150] Setting up conv1
I0409 02:44:24.911116  5147 net.cpp:157] Top shape: 1024 100 42 42 (180633600)
I0409 02:44:24.911120  5147 net.cpp:165] Memory required for data: 750850048
I0409 02:44:24.911141  5147 layer_factory.hpp:77] Creating layer conv1_prescale
I0409 02:44:24.911166  5147 net.cpp:100] Creating Layer conv1_prescale
I0409 02:44:24.911171  5147 net.cpp:434] conv1_prescale <- conv1
I0409 02:44:24.911177  5147 net.cpp:395] conv1_prescale -> conv1 (in-place)
I0409 02:44:24.911293  5147 net.cpp:150] Setting up conv1_prescale
I0409 02:44:24.911303  5147 net.cpp:157] Top shape: 1024 100 42 42 (180633600)
I0409 02:44:24.911306  5147 net.cpp:165] Memory required for data: 1473384448
I0409 02:44:24.911314  5147 layer_factory.hpp:77] Creating layer conv1_sTanH
I0409 02:44:24.911319  5147 net.cpp:100] Creating Layer conv1_sTanH
I0409 02:44:24.911322  5147 net.cpp:434] conv1_sTanH <- conv1
I0409 02:44:24.911327  5147 net.cpp:395] conv1_sTanH -> conv1 (in-place)
I0409 02:44:24.911517  5147 net.cpp:150] Setting up conv1_sTanH
I0409 02:44:24.911530  5147 net.cpp:157] Top shape: 1024 100 42 42 (180633600)
I0409 02:44:24.911533  5147 net.cpp:165] Memory required for data: 2195918848
I0409 02:44:24.911537  5147 layer_factory.hpp:77] Creating layer conv1_postscale
I0409 02:44:24.911545  5147 net.cpp:100] Creating Layer conv1_postscale
I0409 02:44:24.911550  5147 net.cpp:434] conv1_postscale <- conv1
I0409 02:44:24.911554  5147 net.cpp:395] conv1_postscale -> conv1 (in-place)
I0409 02:44:24.911648  5147 net.cpp:150] Setting up conv1_postscale
I0409 02:44:24.911658  5147 net.cpp:157] Top shape: 1024 100 42 42 (180633600)
I0409 02:44:24.911660  5147 net.cpp:165] Memory required for data: 2918453248
I0409 02:44:24.911665  5147 layer_factory.hpp:77] Creating layer pool1
I0409 02:44:24.911674  5147 net.cpp:100] Creating Layer pool1
I0409 02:44:24.911676  5147 net.cpp:434] pool1 <- conv1
I0409 02:44:24.911681  5147 net.cpp:408] pool1 -> pool1
I0409 02:44:24.911727  5147 net.cpp:150] Setting up pool1
I0409 02:44:24.911736  5147 net.cpp:157] Top shape: 1024 100 21 21 (45158400)
I0409 02:44:24.911738  5147 net.cpp:165] Memory required for data: 3099086848
I0409 02:44:24.911761  5147 layer_factory.hpp:77] Creating layer conv2
I0409 02:44:24.911772  5147 net.cpp:100] Creating Layer conv2
I0409 02:44:24.911777  5147 net.cpp:434] conv2 <- pool1
I0409 02:44:24.911782  5147 net.cpp:408] conv2 -> conv2
I0409 02:44:24.916133  5147 net.cpp:150] Setting up conv2
I0409 02:44:24.916151  5147 net.cpp:157] Top shape: 1024 150 18 18 (49766400)
I0409 02:44:24.916154  5147 net.cpp:165] Memory required for data: 3298152448
I0409 02:44:24.916165  5147 layer_factory.hpp:77] Creating layer conv2_prescale
I0409 02:44:24.916173  5147 net.cpp:100] Creating Layer conv2_prescale
I0409 02:44:24.916177  5147 net.cpp:434] conv2_prescale <- conv2
I0409 02:44:24.916182  5147 net.cpp:395] conv2_prescale -> conv2 (in-place)
I0409 02:44:24.916281  5147 net.cpp:150] Setting up conv2_prescale
I0409 02:44:24.916290  5147 net.cpp:157] Top shape: 1024 150 18 18 (49766400)
I0409 02:44:24.916293  5147 net.cpp:165] Memory required for data: 3497218048
I0409 02:44:24.916299  5147 layer_factory.hpp:77] Creating layer conv2_sTanH
I0409 02:44:24.916316  5147 net.cpp:100] Creating Layer conv2_sTanH
I0409 02:44:24.916321  5147 net.cpp:434] conv2_sTanH <- conv2
I0409 02:44:24.916324  5147 net.cpp:395] conv2_sTanH -> conv2 (in-place)
I0409 02:44:24.917059  5147 net.cpp:150] Setting up conv2_sTanH
I0409 02:44:24.917074  5147 net.cpp:157] Top shape: 1024 150 18 18 (49766400)
I0409 02:44:24.917078  5147 net.cpp:165] Memory required for data: 3696283648
I0409 02:44:24.917083  5147 layer_factory.hpp:77] Creating layer conv2_postscale
I0409 02:44:24.917089  5147 net.cpp:100] Creating Layer conv2_postscale
I0409 02:44:24.917093  5147 net.cpp:434] conv2_postscale <- conv2
I0409 02:44:24.917098  5147 net.cpp:395] conv2_postscale -> conv2 (in-place)
I0409 02:44:24.917201  5147 net.cpp:150] Setting up conv2_postscale
I0409 02:44:24.917210  5147 net.cpp:157] Top shape: 1024 150 18 18 (49766400)
I0409 02:44:24.917214  5147 net.cpp:165] Memory required for data: 3895349248
I0409 02:44:24.917219  5147 layer_factory.hpp:77] Creating layer pool2
I0409 02:44:24.917225  5147 net.cpp:100] Creating Layer pool2
I0409 02:44:24.917229  5147 net.cpp:434] pool2 <- conv2
I0409 02:44:24.917234  5147 net.cpp:408] pool2 -> pool2
I0409 02:44:24.917271  5147 net.cpp:150] Setting up pool2
I0409 02:44:24.917279  5147 net.cpp:157] Top shape: 1024 150 9 9 (12441600)
I0409 02:44:24.917282  5147 net.cpp:165] Memory required for data: 3945115648
I0409 02:44:24.917285  5147 layer_factory.hpp:77] Creating layer conv3
I0409 02:44:24.917294  5147 net.cpp:100] Creating Layer conv3
I0409 02:44:24.917299  5147 net.cpp:434] conv3 <- pool2
I0409 02:44:24.917304  5147 net.cpp:408] conv3 -> conv3
I0409 02:44:24.922703  5147 net.cpp:150] Setting up conv3
I0409 02:44:24.922719  5147 net.cpp:157] Top shape: 1024 250 6 6 (9216000)
I0409 02:44:24.922734  5147 net.cpp:165] Memory required for data: 3981979648
I0409 02:44:24.922744  5147 layer_factory.hpp:77] Creating layer conv3_prescale
I0409 02:44:24.922754  5147 net.cpp:100] Creating Layer conv3_prescale
I0409 02:44:24.922756  5147 net.cpp:434] conv3_prescale <- conv3
I0409 02:44:24.922762  5147 net.cpp:395] conv3_prescale -> conv3 (in-place)
I0409 02:44:24.922852  5147 net.cpp:150] Setting up conv3_prescale
I0409 02:44:24.922861  5147 net.cpp:157] Top shape: 1024 250 6 6 (9216000)
I0409 02:44:24.922864  5147 net.cpp:165] Memory required for data: 4018843648
I0409 02:44:24.922869  5147 layer_factory.hpp:77] Creating layer conv3_sTanH
I0409 02:44:24.922874  5147 net.cpp:100] Creating Layer conv3_sTanH
I0409 02:44:24.922878  5147 net.cpp:434] conv3_sTanH <- conv3
I0409 02:44:24.922883  5147 net.cpp:395] conv3_sTanH -> conv3 (in-place)
I0409 02:44:24.923629  5147 net.cpp:150] Setting up conv3_sTanH
I0409 02:44:24.923643  5147 net.cpp:157] Top shape: 1024 250 6 6 (9216000)
I0409 02:44:24.923660  5147 net.cpp:165] Memory required for data: 4055707648
I0409 02:44:24.923665  5147 layer_factory.hpp:77] Creating layer conv3_postscale
I0409 02:44:24.923672  5147 net.cpp:100] Creating Layer conv3_postscale
I0409 02:44:24.923691  5147 net.cpp:434] conv3_postscale <- conv3
I0409 02:44:24.923697  5147 net.cpp:395] conv3_postscale -> conv3 (in-place)
I0409 02:44:24.923794  5147 net.cpp:150] Setting up conv3_postscale
I0409 02:44:24.923802  5147 net.cpp:157] Top shape: 1024 250 6 6 (9216000)
I0409 02:44:24.923805  5147 net.cpp:165] Memory required for data: 4092571648
I0409 02:44:24.923811  5147 layer_factory.hpp:77] Creating layer pool3
I0409 02:44:24.923817  5147 net.cpp:100] Creating Layer pool3
I0409 02:44:24.923820  5147 net.cpp:434] pool3 <- conv3
I0409 02:44:24.923825  5147 net.cpp:408] pool3 -> pool3
I0409 02:44:24.923861  5147 net.cpp:150] Setting up pool3
I0409 02:44:24.923869  5147 net.cpp:157] Top shape: 1024 250 3 3 (2304000)
I0409 02:44:24.923872  5147 net.cpp:165] Memory required for data: 4101787648
I0409 02:44:24.923876  5147 layer_factory.hpp:77] Creating layer fc4_300
I0409 02:44:24.923892  5147 net.cpp:100] Creating Layer fc4_300
I0409 02:44:24.923895  5147 net.cpp:434] fc4_300 <- pool3
I0409 02:44:24.923900  5147 net.cpp:408] fc4_300 -> fc4_300
I0409 02:44:24.929134  5147 net.cpp:150] Setting up fc4_300
I0409 02:44:24.929149  5147 net.cpp:157] Top shape: 1024 300 (307200)
I0409 02:44:24.929167  5147 net.cpp:165] Memory required for data: 4103016448
I0409 02:44:24.929173  5147 layer_factory.hpp:77] Creating layer fc4_prescale
I0409 02:44:24.929180  5147 net.cpp:100] Creating Layer fc4_prescale
I0409 02:44:24.929184  5147 net.cpp:434] fc4_prescale <- fc4_300
I0409 02:44:24.929189  5147 net.cpp:395] fc4_prescale -> fc4_300 (in-place)
I0409 02:44:24.929276  5147 net.cpp:150] Setting up fc4_prescale
I0409 02:44:24.929285  5147 net.cpp:157] Top shape: 1024 300 (307200)
I0409 02:44:24.929287  5147 net.cpp:165] Memory required for data: 4104245248
I0409 02:44:24.929292  5147 layer_factory.hpp:77] Creating layer fc4_sTanH
I0409 02:44:24.929297  5147 net.cpp:100] Creating Layer fc4_sTanH
I0409 02:44:24.929301  5147 net.cpp:434] fc4_sTanH <- fc4_300
I0409 02:44:24.929306  5147 net.cpp:395] fc4_sTanH -> fc4_300 (in-place)
I0409 02:44:24.929484  5147 net.cpp:150] Setting up fc4_sTanH
I0409 02:44:24.929496  5147 net.cpp:157] Top shape: 1024 300 (307200)
I0409 02:44:24.929499  5147 net.cpp:165] Memory required for data: 4105474048
I0409 02:44:24.929502  5147 layer_factory.hpp:77] Creating layer fc4_postscale
I0409 02:44:24.929509  5147 net.cpp:100] Creating Layer fc4_postscale
I0409 02:44:24.929512  5147 net.cpp:434] fc4_postscale <- fc4_300
I0409 02:44:24.929517  5147 net.cpp:395] fc4_postscale -> fc4_300 (in-place)
I0409 02:44:24.929606  5147 net.cpp:150] Setting up fc4_postscale
I0409 02:44:24.929615  5147 net.cpp:157] Top shape: 1024 300 (307200)
I0409 02:44:24.929617  5147 net.cpp:165] Memory required for data: 4106702848
I0409 02:44:24.929622  5147 layer_factory.hpp:77] Creating layer drop4
I0409 02:44:24.929630  5147 net.cpp:100] Creating Layer drop4
I0409 02:44:24.929632  5147 net.cpp:434] drop4 <- fc4_300
I0409 02:44:24.929637  5147 net.cpp:395] drop4 -> fc4_300 (in-place)
I0409 02:44:24.929662  5147 net.cpp:150] Setting up drop4
I0409 02:44:24.929671  5147 net.cpp:157] Top shape: 1024 300 (307200)
I0409 02:44:24.929673  5147 net.cpp:165] Memory required for data: 4107931648
I0409 02:44:24.929677  5147 layer_factory.hpp:77] Creating layer fc5_67
I0409 02:44:24.929682  5147 net.cpp:100] Creating Layer fc5_67
I0409 02:44:24.929685  5147 net.cpp:434] fc5_67 <- fc4_300
I0409 02:44:24.929690  5147 net.cpp:408] fc5_67 -> fc5_classes
I0409 02:44:24.930915  5147 net.cpp:150] Setting up fc5_67
I0409 02:44:24.930930  5147 net.cpp:157] Top shape: 1024 67 (68608)
I0409 02:44:24.930933  5147 net.cpp:165] Memory required for data: 4108206080
I0409 02:44:24.930944  5147 layer_factory.hpp:77] Creating layer loss
I0409 02:44:24.930953  5147 net.cpp:100] Creating Layer loss
I0409 02:44:24.930955  5147 net.cpp:434] loss <- fc5_classes
I0409 02:44:24.930960  5147 net.cpp:434] loss <- label
I0409 02:44:24.930966  5147 net.cpp:408] loss -> loss
I0409 02:44:24.930979  5147 layer_factory.hpp:77] Creating layer loss
…
I0409 02:44:24.931738  5147 solver.cpp:193] Creating test net (#0) specified by test_net file: ./Prototxt/experiment_6/rtsd-r1/histeq/trial_1/test.prototxt
I0409 02:44:24.931941  5147 net.cpp:58] Initializing net from parameters: 
state {
  phase: TEST
}
layer {
  name: "data"
  type: "Data"
  top: "data"
  top: "label"
  include {
    phase: TEST
  }
  transform_param {
    mirror: false
    crop_size: 48
    mean_value: 117
    mean_value: 114
    mean_value: 133
  }
  data_param {
    source: "../local_data/lmdb/rtsd-r1/histeq/test/lmdb"
    batch_size: 1024
    backend: LMDB
  }
}
layer {
  name: "conv1"
  type: "Convolution"
  bottom: "data"
  top: "conv1"
  convolution_param {
    num_output: 100
    pad: 0
    kernel_size: 7
    group: 1
    stride: 1
    weight_filler {
      type: "xavier"
    }
  }
}
layer {
  name: "conv1_prescale"
  type: "Scale"
  bottom: "conv1"
  top: "conv1"
  param {
    lr_mult: 0
    decay_mult: 0
  }
  scale_param {
    filler {
      value: 0.6666
    }
  }
}
layer {
  name: "conv1_sTanH"
  type: "TanH"
  bottom: "conv1"
  top: "conv1"
}
layer {
  name: "conv1_postscale"
  type: "Scale"
  bottom: "conv1"
  top: "conv1"
  param {
    lr_mult: 0
    decay_mult: 0
  }
  scale_param {
    filler {
      value: 1.7159
    }
  }
}
layer {
  name: "pool1"
  type: "Pooling"
  bottom: "conv1"
  top: "pool1"
  pooling_param {
    pool: MAX
    kernel_size: 2
    stride: 2
  }
}
layer {
  name: "conv2"
  type: "Convolution"
  bottom: "pool1"
  top: "conv2"
  convolution_param {
    num_output: 150
    pad: 0
    kernel_size: 4
    group: 1
    stride: 1
    weight_filler {
      type: "xavier"
    }
  }
}
layer {
  name: "conv2_prescale"
  type: "Scale"
  bottom: "conv2"
  top: "conv2"
  param {
    lr_mult: 0
    decay_mult: 0
  }
  scale_param {
    filler {
      value: 0.6666
    }
  }
}
layer {
  name: "conv2_sTanH"
  type: "TanH"
  bottom: "conv2"
  top: "conv2"
}
layer {
  name: "conv2_postscale"
  type: "Scale"
  bottom: "conv2"
  top: "conv2"
  param {
    lr_mult: 0
    decay_mult: 0
  }
  scale_param {
    filler {
      value: 1.7159
    }
  }
}
layer {
  name: "pool2"
  type: "Pooling"
  bottom: "conv2"
  top: "pool2"
  pooling_param {
    pool: MAX
    kernel_size: 2
    stride: 2
  }
}
layer {
  name: "conv3"
  type: "Convolution"
  bottom: "pool2"
  top: "conv3"
  convolution_param {
    num_output: 250
    pad: 0
    kernel_size: 4
    group: 1
    stride: 1
    weight_filler {
      type: "xavier"
    }
  }
}
layer {
  name: "conv3_prescale"
  type: "Scale"
  bottom: "conv3"
  top: "conv3"
  param {
    lr_mult: 0
    decay_mult: 0
  }
  scale_param {
    filler {
      value: 0.6666
    }
  }
}
layer {
  name: "conv3_sTanH"
  type: "TanH"
  bottom: "conv3"
  top: "conv3"
}
layer {
  name: "conv3_postscale"
  type: "Scale"
  bottom: "conv3"
  top: "conv3"
  param {
    lr_mult: 0
    decay_mult: 0
  }
  scale_param {
    filler {
      value: 1.7159
    }
  }
}
layer {
  name: "pool3"
  type: "Pooling"
  bottom: "conv3"
  top: "pool3"
  pooling_param {
    pool: MAX
    kernel_size: 2
    stride: 2
  }
}
layer {
  name: "fc4_300"
  type: "InnerProduct"
  bottom: "pool3"
  top: "fc4_300"
  inner_product_param {
    num_output: 300
    weight_filler {
      type: "xavier"
    }
  }
}
layer {
  name: "fc4_prescale"
  type: "Scale"
  bottom: "fc4_300"
  top: "fc4_300"
  param {
    lr_mult: 0
    decay_mult: 0
  }
  scale_param {
    filler {
      value: 0.6666
    }
  }
}
layer {
  name: "fc4_sTanH"
  type: "TanH"
  bottom: "fc4_300"
  top: "fc4_300"
}
layer {
  name: "fc4_postscale"
  type: "Scale"
  bottom: "fc4_300"
  top: "fc4_300"
  param {
    lr_mult: 0
    decay_mult: 0
  }
  scale_param {
    filler {
      value: 1.7159
    }
  }
}
layer {
  name: "drop4"
  type: "Dropout"
  bottom: "fc4_300"
  top: "fc4_300"
  dropout_param {
    dropout_ratio: 0.4
  }
}
layer {
  name: "fc5_67"
  type: "InnerProduct"
  bottom: "fc4_300"
  top: "fc5_classes"
  inner_product_param {
    num_output: 67
    weight_filler {
      type: "xavier"
    }
  }
}
layer {
  name: "loss"
  type: "SoftmaxWithLoss"
  bottom: "fc5_classes"
  bottom: "label"
  top: "loss"
}
layer {
  name: "accuracy_1"
  type: "Accuracy"
  bottom: "fc5_classes"
  bottom: "label"
  top: "accuracy_1"
  include {
    phase: TEST
  }
  accuracy_param {
    top_k: 1
  }
}
layer {
  name: "accuracy_5"
  type: "Accuracy"
  bottom: "fc5_classes"
  bottom: "label"
  top: "accuracy_5"
  include {
    phase: TEST
  }
  accuracy_param {
    top_k: 5
  }
}
I0409 02:44:24.932060  5147 layer_factory.hpp:77] Creating layer data
I0409 02:44:24.932724  5147 net.cpp:100] Creating Layer data
I0409 02:44:24.932737  5147 net.cpp:408] data -> data
I0409 02:44:24.932749  5147 net.cpp:408] data -> label
I0409 02:44:24.934351  5274 db_lmdb.cpp:35] Opened lmdb ../local_data/lmdb/rtsd-r1/histeq/test/lmdb
I0409 02:44:24.934550  5147 data_layer.cpp:41] output data size: 1024,3,48,48
I0409 02:44:24.979351  5147 net.cpp:150] Setting up data
I0409 02:44:24.979379  5147 net.cpp:157] Top shape: 1024 3 48 48 (7077888)
I0409 02:44:24.979384  5147 net.cpp:157] Top shape: 1024 (1024)
I0409 02:44:24.979387  5147 net.cpp:165] Memory required for data: 28315648
I0409 02:44:24.979394  5147 layer_factory.hpp:77] Creating layer label_data_1_split
I0409 02:44:24.979411  5147 net.cpp:100] Creating Layer label_data_1_split
I0409 02:44:24.979415  5147 net.cpp:434] label_data_1_split <- label
I0409 02:44:24.979423  5147 net.cpp:408] label_data_1_split -> label_data_1_split_0
I0409 02:44:24.979434  5147 net.cpp:408] label_data_1_split -> label_data_1_split_1
I0409 02:44:24.979442  5147 net.cpp:408] label_data_1_split -> label_data_1_split_2
I0409 02:44:24.979594  5147 net.cpp:150] Setting up label_data_1_split
I0409 02:44:24.979604  5147 net.cpp:157] Top shape: 1024 (1024)
I0409 02:44:24.979609  5147 net.cpp:157] Top shape: 1024 (1024)
I0409 02:44:24.979611  5147 net.cpp:157] Top shape: 1024 (1024)
I0409 02:44:24.979614  5147 net.cpp:165] Memory required for data: 28327936
I0409 02:44:24.979635  5147 layer_factory.hpp:77] Creating layer conv1
I0409 02:44:24.979652  5147 net.cpp:100] Creating Layer conv1
I0409 02:44:24.979668  5147 net.cpp:434] conv1 <- data
I0409 02:44:24.979674  5147 net.cpp:408] conv1 -> conv1
I0409 02:44:24.981578  5147 net.cpp:150] Setting up conv1
I0409 02:44:24.981595  5147 net.cpp:157] Top shape: 1024 100 42 42 (180633600)
I0409 02:44:24.981600  5147 net.cpp:165] Memory required for data: 750862336
I0409 02:44:24.981616  5147 layer_factory.hpp:77] Creating layer conv1_prescale
I0409 02:44:24.981624  5147 net.cpp:100] Creating Layer conv1_prescale
I0409 02:44:24.981628  5147 net.cpp:434] conv1_prescale <- conv1
I0409 02:44:24.981637  5147 net.cpp:395] conv1_prescale -> conv1 (in-place)
I0409 02:44:24.981752  5147 net.cpp:150] Setting up conv1_prescale
I0409 02:44:24.981763  5147 net.cpp:157] Top shape: 1024 100 42 42 (180633600)
I0409 02:44:24.981766  5147 net.cpp:165] Memory required for data: 1473396736
I0409 02:44:24.981773  5147 layer_factory.hpp:77] Creating layer conv1_sTanH
I0409 02:44:24.981781  5147 net.cpp:100] Creating Layer conv1_sTanH
I0409 02:44:24.981783  5147 net.cpp:434] conv1_sTanH <- conv1
I0409 02:44:24.981791  5147 net.cpp:395] conv1_sTanH -> conv1 (in-place)
I0409 02:44:24.984289  5147 net.cpp:150] Setting up conv1_sTanH
I0409 02:44:24.984308  5147 net.cpp:157] Top shape: 1024 100 42 42 (180633600)
I0409 02:44:24.984313  5147 net.cpp:165] Memory required for data: 2195931136
I0409 02:44:24.984318  5147 layer_factory.hpp:77] Creating layer conv1_postscale
I0409 02:44:24.984325  5147 net.cpp:100] Creating Layer conv1_postscale
I0409 02:44:24.984329  5147 net.cpp:434] conv1_postscale <- conv1
I0409 02:44:24.984339  5147 net.cpp:395] conv1_postscale -> conv1 (in-place)
I0409 02:44:24.984463  5147 net.cpp:150] Setting up conv1_postscale
I0409 02:44:24.984473  5147 net.cpp:157] Top shape: 1024 100 42 42 (180633600)
I0409 02:44:24.984477  5147 net.cpp:165] Memory required for data: 2918465536
I0409 02:44:24.984483  5147 layer_factory.hpp:77] Creating layer pool1
I0409 02:44:24.984488  5147 net.cpp:100] Creating Layer pool1
I0409 02:44:24.984494  5147 net.cpp:434] pool1 <- conv1
I0409 02:44:24.984501  5147 net.cpp:408] pool1 -> pool1
I0409 02:44:24.984545  5147 net.cpp:150] Setting up pool1
I0409 02:44:24.984557  5147 net.cpp:157] Top shape: 1024 100 21 21 (45158400)
I0409 02:44:24.984562  5147 net.cpp:165] Memory required for data: 3099099136
I0409 02:44:24.984565  5147 layer_factory.hpp:77] Creating layer conv2
I0409 02:44:24.984573  5147 net.cpp:100] Creating Layer conv2
I0409 02:44:24.984578  5147 net.cpp:434] conv2 <- pool1
I0409 02:44:24.984597  5147 net.cpp:408] conv2 -> conv2
I0409 02:44:24.989763  5147 net.cpp:150] Setting up conv2
I0409 02:44:24.989781  5147 net.cpp:157] Top shape: 1024 150 18 18 (49766400)
I0409 02:44:24.989785  5147 net.cpp:165] Memory required for data: 3298164736
I0409 02:44:24.989797  5147 layer_factory.hpp:77] Creating layer conv2_prescale
I0409 02:44:24.989812  5147 net.cpp:100] Creating Layer conv2_prescale
I0409 02:44:24.989816  5147 net.cpp:434] conv2_prescale <- conv2
I0409 02:44:24.989822  5147 net.cpp:395] conv2_prescale -> conv2 (in-place)
I0409 02:44:24.989946  5147 net.cpp:150] Setting up conv2_prescale
I0409 02:44:24.989959  5147 net.cpp:157] Top shape: 1024 150 18 18 (49766400)
I0409 02:44:24.989964  5147 net.cpp:165] Memory required for data: 3497230336
I0409 02:44:24.989967  5147 layer_factory.hpp:77] Creating layer conv2_sTanH
I0409 02:44:24.989979  5147 net.cpp:100] Creating Layer conv2_sTanH
I0409 02:44:24.989984  5147 net.cpp:434] conv2_sTanH <- conv2
I0409 02:44:24.989989  5147 net.cpp:395] conv2_sTanH -> conv2 (in-place)
I0409 02:44:24.990917  5147 net.cpp:150] Setting up conv2_sTanH
I0409 02:44:24.990933  5147 net.cpp:157] Top shape: 1024 150 18 18 (49766400)
I0409 02:44:24.990937  5147 net.cpp:165] Memory required for data: 3696295936
I0409 02:44:24.990942  5147 layer_factory.hpp:77] Creating layer conv2_postscale
I0409 02:44:24.990950  5147 net.cpp:100] Creating Layer conv2_postscale
I0409 02:44:24.990970  5147 net.cpp:434] conv2_postscale <- conv2
I0409 02:44:24.990978  5147 net.cpp:395] conv2_postscale -> conv2 (in-place)
I0409 02:44:24.991089  5147 net.cpp:150] Setting up conv2_postscale
I0409 02:44:24.991098  5147 net.cpp:157] Top shape: 1024 150 18 18 (49766400)
I0409 02:44:24.991102  5147 net.cpp:165] Memory required for data: 3895361536
I0409 02:44:24.991107  5147 layer_factory.hpp:77] Creating layer pool2
I0409 02:44:24.991114  5147 net.cpp:100] Creating Layer pool2
I0409 02:44:24.991119  5147 net.cpp:434] pool2 <- conv2
I0409 02:44:24.991124  5147 net.cpp:408] pool2 -> pool2
I0409 02:44:24.991188  5147 net.cpp:150] Setting up pool2
I0409 02:44:24.991200  5147 net.cpp:157] Top shape: 1024 150 9 9 (12441600)
I0409 02:44:24.991204  5147 net.cpp:165] Memory required for data: 3945127936
I0409 02:44:24.991207  5147 layer_factory.hpp:77] Creating layer conv3
I0409 02:44:24.991217  5147 net.cpp:100] Creating Layer conv3
I0409 02:44:24.991220  5147 net.cpp:434] conv3 <- pool2
I0409 02:44:24.991226  5147 net.cpp:408] conv3 -> conv3
I0409 02:44:24.998080  5147 net.cpp:150] Setting up conv3
I0409 02:44:24.998097  5147 net.cpp:157] Top shape: 1024 250 6 6 (9216000)
I0409 02:44:24.998101  5147 net.cpp:165] Memory required for data: 3981991936
I0409 02:44:24.998112  5147 layer_factory.hpp:77] Creating layer conv3_prescale
I0409 02:44:24.998123  5147 net.cpp:100] Creating Layer conv3_prescale
I0409 02:44:24.998127  5147 net.cpp:434] conv3_prescale <- conv3
I0409 02:44:24.998134  5147 net.cpp:395] conv3_prescale -> conv3 (in-place)
I0409 02:44:24.998234  5147 net.cpp:150] Setting up conv3_prescale
I0409 02:44:24.998244  5147 net.cpp:157] Top shape: 1024 250 6 6 (9216000)
I0409 02:44:24.998246  5147 net.cpp:165] Memory required for data: 4018855936
I0409 02:44:24.998251  5147 layer_factory.hpp:77] Creating layer conv3_sTanH
I0409 02:44:24.998257  5147 net.cpp:100] Creating Layer conv3_sTanH
I0409 02:44:24.998260  5147 net.cpp:434] conv3_sTanH <- conv3
I0409 02:44:24.998266  5147 net.cpp:395] conv3_sTanH -> conv3 (in-place)
I0409 02:44:25.003049  5147 net.cpp:150] Setting up conv3_sTanH
I0409 02:44:25.003072  5147 net.cpp:157] Top shape: 1024 250 6 6 (9216000)
I0409 02:44:25.003075  5147 net.cpp:165] Memory required for data: 4055719936
I0409 02:44:25.003079  5147 layer_factory.hpp:77] Creating layer conv3_postscale
I0409 02:44:25.003087  5147 net.cpp:100] Creating Layer conv3_postscale
I0409 02:44:25.003093  5147 net.cpp:434] conv3_postscale <- conv3
I0409 02:44:25.003108  5147 net.cpp:395] conv3_postscale -> conv3 (in-place)
I0409 02:44:25.003218  5147 net.cpp:150] Setting up conv3_postscale
I0409 02:44:25.003232  5147 net.cpp:157] Top shape: 1024 250 6 6 (9216000)
I0409 02:44:25.003237  5147 net.cpp:165] Memory required for data: 4092583936
I0409 02:44:25.003242  5147 layer_factory.hpp:77] Creating layer pool3
I0409 02:44:25.003252  5147 net.cpp:100] Creating Layer pool3
I0409 02:44:25.003263  5147 net.cpp:434] pool3 <- conv3
I0409 02:44:25.003271  5147 net.cpp:408] pool3 -> pool3
I0409 02:44:25.003316  5147 net.cpp:150] Setting up pool3
I0409 02:44:25.003324  5147 net.cpp:157] Top shape: 1024 250 3 3 (2304000)
I0409 02:44:25.003329  5147 net.cpp:165] Memory required for data: 4101799936
I0409 02:44:25.003331  5147 layer_factory.hpp:77] Creating layer fc4_300
I0409 02:44:25.003340  5147 net.cpp:100] Creating Layer fc4_300
I0409 02:44:25.003345  5147 net.cpp:434] fc4_300 <- pool3
I0409 02:44:25.003350  5147 net.cpp:408] fc4_300 -> fc4_300
I0409 02:44:25.013411  5147 net.cpp:150] Setting up fc4_300
I0409 02:44:25.013432  5147 net.cpp:157] Top shape: 1024 300 (307200)
I0409 02:44:25.013435  5147 net.cpp:165] Memory required for data: 4103028736
I0409 02:44:25.013443  5147 layer_factory.hpp:77] Creating layer fc4_prescale
I0409 02:44:25.013453  5147 net.cpp:100] Creating Layer fc4_prescale
I0409 02:44:25.013458  5147 net.cpp:434] fc4_prescale <- fc4_300
I0409 02:44:25.013464  5147 net.cpp:395] fc4_prescale -> fc4_300 (in-place)
I0409 02:44:25.013569  5147 net.cpp:150] Setting up fc4_prescale
I0409 02:44:25.013595  5147 net.cpp:157] Top shape: 1024 300 (307200)
I0409 02:44:25.013599  5147 net.cpp:165] Memory required for data: 4104257536
I0409 02:44:25.013604  5147 layer_factory.hpp:77] Creating layer fc4_sTanH
I0409 02:44:25.013610  5147 net.cpp:100] Creating Layer fc4_sTanH
I0409 02:44:25.013614  5147 net.cpp:434] fc4_sTanH <- fc4_300
I0409 02:44:25.013622  5147 net.cpp:395] fc4_sTanH -> fc4_300 (in-place)
I0409 02:44:25.013828  5147 net.cpp:150] Setting up fc4_sTanH
I0409 02:44:25.013840  5147 net.cpp:157] Top shape: 1024 300 (307200)
I0409 02:44:25.013844  5147 net.cpp:165] Memory required for data: 4105486336
I0409 02:44:25.013847  5147 layer_factory.hpp:77] Creating layer fc4_postscale
I0409 02:44:25.013856  5147 net.cpp:100] Creating Layer fc4_postscale
I0409 02:44:25.013864  5147 net.cpp:434] fc4_postscale <- fc4_300
I0409 02:44:25.013870  5147 net.cpp:395] fc4_postscale -> fc4_300 (in-place)
I0409 02:44:25.013973  5147 net.cpp:150] Setting up fc4_postscale
I0409 02:44:25.013983  5147 net.cpp:157] Top shape: 1024 300 (307200)
I0409 02:44:25.013985  5147 net.cpp:165] Memory required for data: 4106715136
I0409 02:44:25.013990  5147 layer_factory.hpp:77] Creating layer drop4
I0409 02:44:25.013998  5147 net.cpp:100] Creating Layer drop4
I0409 02:44:25.014000  5147 net.cpp:434] drop4 <- fc4_300
I0409 02:44:25.014006  5147 net.cpp:395] drop4 -> fc4_300 (in-place)
I0409 02:44:25.014030  5147 net.cpp:150] Setting up drop4
I0409 02:44:25.014039  5147 net.cpp:157] Top shape: 1024 300 (307200)
I0409 02:44:25.014042  5147 net.cpp:165] Memory required for data: 4107943936
I0409 02:44:25.014045  5147 layer_factory.hpp:77] Creating layer fc5_67
I0409 02:44:25.014052  5147 net.cpp:100] Creating Layer fc5_67
I0409 02:44:25.014056  5147 net.cpp:434] fc5_67 <- fc4_300
I0409 02:44:25.014060  5147 net.cpp:408] fc5_67 -> fc5_classes
I0409 02:44:25.014317  5147 net.cpp:150] Setting up fc5_67
I0409 02:44:25.014325  5147 net.cpp:157] Top shape: 1024 67 (68608)
I0409 02:44:25.014331  5147 net.cpp:165] Memory required for data: 4108218368
I0409 02:44:25.014343  5147 layer_factory.hpp:77] Creating layer fc5_classes_fc5_67_0_split
I0409 02:44:25.014353  5147 net.cpp:100] Creating Layer fc5_classes_fc5_67_0_split
I0409 02:44:25.014356  5147 net.cpp:434] fc5_classes_fc5_67_0_split <- fc5_classes
I0409 02:44:25.014363  5147 net.cpp:408] fc5_classes_fc5_67_0_split -> fc5_classes_fc5_67_0_split_0
I0409 02:44:25.014370  5147 net.cpp:408] fc5_classes_fc5_67_0_split -> fc5_classes_fc5_67_0_split_1
I0409 02:44:25.014376  5147 net.cpp:408] fc5_classes_fc5_67_0_split -> fc5_classes_fc5_67_0_split_2
I0409 02:44:25.014430  5147 net.cpp:150] Setting up fc5_classes_fc5_67_0_split
I0409 02:44:25.014437  5147 net.cpp:157] Top shape: 1024 67 (68608)
I0409 02:44:25.014441  5147 net.cpp:157] Top shape: 1024 67 (68608)
I0409 02:44:25.014444  5147 net.cpp:157] Top shape: 1024 67 (68608)
I0409 02:44:25.014447  5147 net.cpp:165] Memory required for data: 4109041664
I0409 02:44:25.014451  5147 layer_factory.hpp:77] Creating layer loss
I0409 02:44:25.014456  5147 net.cpp:100] Creating Layer loss
I0409 02:44:25.014461  5147 net.cpp:434] loss <- fc5_classes_fc5_67_0_split_0
I0409 02:44:25.014466  5147 net.cpp:434] loss <- label_data_1_split_0
I0409 02:44:25.014470  5147 net.cpp:408] loss -> loss
…
