…
I0409 02:52:41.858716 26848 net.cpp:322] The NetState phase (0) differed from the phase (1) specified by a rule in layer accuracy_5
I0409 02:52:41.858803 26848 net.cpp:58] Initializing net from parameters: 
state {
  phase: TRAIN
  level: 0
  stage: ""
}
layer {
  name: "data"
  type: "Data"
  top: "data"
  top: "label"
  include {
    phase: TRAIN
  }
  transform_param {
    mirror: false
    crop_size: 48
    mean_value: 122
    mean_value: 115
    mean_value: 128
  }
  data_param {
    source: "../local_data/lmdb/rtsd-r1/histeq/train/lmdb"
    batch_size: 1024
    backend: LMDB
  }
}
layer {
  name: "conv1"
  type: "Convolution"
  bottom: "data"
  top: "conv1"
  convolution_param {
    num_output: 100
    pad: 0
    kernel_size: 7
    group: 1
    stride: 1
    weight_filler {
      type: "xavier"
    }
  }
}
layer {
  name: "conv1_relu"
  type: "ReLU"
  bottom: "conv1"
  top: "conv1"
}
layer {
  name: "pool1"
  type: "Pooling"
  bottom: "conv1"
  top: "pool1"
  pooling_param {
    pool: MAX
    kernel_size: 2
    stride: 2
  }
}
layer {
  name: "conv2"
  type: "Convolution"
  bottom: "pool1"
  top: "conv2"
  convolution_param {
    num_output: 150
    pad: 0
    kernel_size: 4
    group: 1
    stride: 1
    weight_filler {
      type: "xavier"
    }
  }
}
layer {
  name: "conv2_relu"
  type: "ReLU"
  bottom: "conv2"
  top: "conv2"
}
layer {
  name: "pool2"
  type: "Pooling"
  bottom: "conv2"
  top: "pool2"
  pooling_param {
    pool: MAX
    kernel_size: 2
    stride: 2
  }
}
layer {
  name: "conv3"
  type: "Convolution"
  bottom: "pool2"
  top: "conv3"
  convolution_param {
    num_output: 250
    pad: 0
    kernel_size: 4
    group: 1
    stride: 1
    weight_filler {
      type: "xavier"
    }
  }
}
layer {
  name: "conv3_relu"
  type: "ReLU"
  bottom: "conv3"
  top: "conv3"
}
layer {
  name: "pool3"
  type: "Pooling"
  bottom: "conv3"
  top: "pool3"
  pooling_param {
    pool: MAX
    kernel_size: 2
    stride: 2
  }
}
layer {
  name: "fc4_300"
  type: "InnerProduct"
  bottom: "pool3"
  top: "fc4_300"
  inner_product_param {
    num_output: 300
    weight_filler {
      type: "xavier"
    }
  }
}
layer {
  name: "fc4_relu"
  type: "ReLU"
  bottom: "fc4_300"
  top: "fc4_300"
}
layer {
  name: "drop4"
  type: "Dropout"
  bottom: "fc4_300"
  top: "fc4_300"
  dropout_param {
    dropout_ratio: 0.4
  }
}
layer {
  name: "fc5_67"
  type: "InnerProduct"
  bottom: "fc4_300"
  top: "fc5_classes"
  inner_product_param {
    num_output: 67
    weight_filler {
      type: "xavier"
    }
  }
}
layer {
  name: "loss"
  type: "SoftmaxWithLoss"
  bottom: "fc5_classes"
  bottom: "label"
  top: "loss"
}
I0409 02:52:41.858891 26848 layer_factory.hpp:77] Creating layer data
I0409 02:52:41.859993 26848 net.cpp:100] Creating Layer data
I0409 02:52:41.860009 26848 net.cpp:408] data -> data
I0409 02:52:41.860033 26848 net.cpp:408] data -> label
I0409 02:52:41.861305 26901 db_lmdb.cpp:35] Opened lmdb ../local_data/lmdb/rtsd-r1/histeq/train/lmdb
I0409 02:52:41.878904 26848 data_layer.cpp:41] output data size: 1024,3,48,48
I0409 02:52:41.922411 26848 net.cpp:150] Setting up data
I0409 02:52:41.922457 26848 net.cpp:157] Top shape: 1024 3 48 48 (7077888)
I0409 02:52:41.922495 26848 net.cpp:157] Top shape: 1024 (1024)
I0409 02:52:41.922500 26848 net.cpp:165] Memory required for data: 28315648
I0409 02:52:41.922514 26848 layer_factory.hpp:77] Creating layer conv1
I0409 02:52:41.922540 26848 net.cpp:100] Creating Layer conv1
I0409 02:52:41.922549 26848 net.cpp:434] conv1 <- data
I0409 02:52:41.922564 26848 net.cpp:408] conv1 -> conv1
I0409 02:52:42.202771 26848 net.cpp:150] Setting up conv1
I0409 02:52:42.202812 26848 net.cpp:157] Top shape: 1024 100 42 42 (180633600)
I0409 02:52:42.202817 26848 net.cpp:165] Memory required for data: 750850048
I0409 02:52:42.202838 26848 layer_factory.hpp:77] Creating layer conv1_relu
I0409 02:52:42.202863 26848 net.cpp:100] Creating Layer conv1_relu
I0409 02:52:42.202868 26848 net.cpp:434] conv1_relu <- conv1
I0409 02:52:42.202874 26848 net.cpp:395] conv1_relu -> conv1 (in-place)
I0409 02:52:42.203071 26848 net.cpp:150] Setting up conv1_relu
I0409 02:52:42.203084 26848 net.cpp:157] Top shape: 1024 100 42 42 (180633600)
I0409 02:52:42.203088 26848 net.cpp:165] Memory required for data: 1473384448
I0409 02:52:42.203091 26848 layer_factory.hpp:77] Creating layer pool1
I0409 02:52:42.203099 26848 net.cpp:100] Creating Layer pool1
I0409 02:52:42.203102 26848 net.cpp:434] pool1 <- conv1
I0409 02:52:42.203109 26848 net.cpp:408] pool1 -> pool1
I0409 02:52:42.203161 26848 net.cpp:150] Setting up pool1
I0409 02:52:42.203171 26848 net.cpp:157] Top shape: 1024 100 21 21 (45158400)
I0409 02:52:42.203174 26848 net.cpp:165] Memory required for data: 1654018048
I0409 02:52:42.203179 26848 layer_factory.hpp:77] Creating layer conv2
I0409 02:52:42.203191 26848 net.cpp:100] Creating Layer conv2
I0409 02:52:42.203197 26848 net.cpp:434] conv2 <- pool1
I0409 02:52:42.203202 26848 net.cpp:408] conv2 -> conv2
I0409 02:52:42.207556 26848 net.cpp:150] Setting up conv2
I0409 02:52:42.207574 26848 net.cpp:157] Top shape: 1024 150 18 18 (49766400)
I0409 02:52:42.207578 26848 net.cpp:165] Memory required for data: 1853083648
I0409 02:52:42.207589 26848 layer_factory.hpp:77] Creating layer conv2_relu
I0409 02:52:42.207597 26848 net.cpp:100] Creating Layer conv2_relu
I0409 02:52:42.207600 26848 net.cpp:434] conv2_relu <- conv2
I0409 02:52:42.207605 26848 net.cpp:395] conv2_relu -> conv2 (in-place)
I0409 02:52:42.208360 26848 net.cpp:150] Setting up conv2_relu
I0409 02:52:42.208377 26848 net.cpp:157] Top shape: 1024 150 18 18 (49766400)
I0409 02:52:42.208381 26848 net.cpp:165] Memory required for data: 2052149248
I0409 02:52:42.208385 26848 layer_factory.hpp:77] Creating layer pool2
I0409 02:52:42.208392 26848 net.cpp:100] Creating Layer pool2
I0409 02:52:42.208396 26848 net.cpp:434] pool2 <- conv2
I0409 02:52:42.208402 26848 net.cpp:408] pool2 -> pool2
I0409 02:52:42.208454 26848 net.cpp:150] Setting up pool2
I0409 02:52:42.208464 26848 net.cpp:157] Top shape: 1024 150 9 9 (12441600)
I0409 02:52:42.208467 26848 net.cpp:165] Memory required for data: 2101915648
I0409 02:52:42.208472 26848 layer_factory.hpp:77] Creating layer conv3
I0409 02:52:42.208480 26848 net.cpp:100] Creating Layer conv3
I0409 02:52:42.208483 26848 net.cpp:434] conv3 <- pool2
I0409 02:52:42.208489 26848 net.cpp:408] conv3 -> conv3
I0409 02:52:42.213989 26848 net.cpp:150] Setting up conv3
I0409 02:52:42.214007 26848 net.cpp:157] Top shape: 1024 250 6 6 (9216000)
I0409 02:52:42.214023 26848 net.cpp:165] Memory required for data: 2138779648
I0409 02:52:42.214037 26848 layer_factory.hpp:77] Creating layer conv3_relu
I0409 02:52:42.214046 26848 net.cpp:100] Creating Layer conv3_relu
I0409 02:52:42.214049 26848 net.cpp:434] conv3_relu <- conv3
I0409 02:52:42.214056 26848 net.cpp:395] conv3_relu -> conv3 (in-place)
I0409 02:52:42.215986 26848 net.cpp:150] Setting up conv3_relu
I0409 02:52:42.216003 26848 net.cpp:157] Top shape: 1024 250 6 6 (9216000)
I0409 02:52:42.216007 26848 net.cpp:165] Memory required for data: 2175643648
I0409 02:52:42.216012 26848 layer_factory.hpp:77] Creating layer pool3
I0409 02:52:42.216018 26848 net.cpp:100] Creating Layer pool3
I0409 02:52:42.216022 26848 net.cpp:434] pool3 <- conv3
I0409 02:52:42.216050 26848 net.cpp:408] pool3 -> pool3
I0409 02:52:42.216102 26848 net.cpp:150] Setting up pool3
I0409 02:52:42.216114 26848 net.cpp:157] Top shape: 1024 250 3 3 (2304000)
I0409 02:52:42.216119 26848 net.cpp:165] Memory required for data: 2184859648
I0409 02:52:42.216121 26848 layer_factory.hpp:77] Creating layer fc4_300
I0409 02:52:42.216130 26848 net.cpp:100] Creating Layer fc4_300
I0409 02:52:42.216132 26848 net.cpp:434] fc4_300 <- pool3
I0409 02:52:42.216137 26848 net.cpp:408] fc4_300 -> fc4_300
I0409 02:52:42.221810 26848 net.cpp:150] Setting up fc4_300
I0409 02:52:42.221827 26848 net.cpp:157] Top shape: 1024 300 (307200)
I0409 02:52:42.221832 26848 net.cpp:165] Memory required for data: 2186088448
I0409 02:52:42.221839 26848 layer_factory.hpp:77] Creating layer fc4_relu
I0409 02:52:42.221858 26848 net.cpp:100] Creating Layer fc4_relu
I0409 02:52:42.221863 26848 net.cpp:434] fc4_relu <- fc4_300
I0409 02:52:42.221868 26848 net.cpp:395] fc4_relu -> fc4_300 (in-place)
I0409 02:52:42.222069 26848 net.cpp:150] Setting up fc4_relu
I0409 02:52:42.222081 26848 net.cpp:157] Top shape: 1024 300 (307200)
I0409 02:52:42.222084 26848 net.cpp:165] Memory required for data: 2187317248
I0409 02:52:42.222088 26848 layer_factory.hpp:77] Creating layer drop4
I0409 02:52:42.222096 26848 net.cpp:100] Creating Layer drop4
I0409 02:52:42.222100 26848 net.cpp:434] drop4 <- fc4_300
I0409 02:52:42.222106 26848 net.cpp:395] drop4 -> fc4_300 (in-place)
I0409 02:52:42.222138 26848 net.cpp:150] Setting up drop4
I0409 02:52:42.222148 26848 net.cpp:157] Top shape: 1024 300 (307200)
I0409 02:52:42.222152 26848 net.cpp:165] Memory required for data: 2188546048
I0409 02:52:42.222157 26848 layer_factory.hpp:77] Creating layer fc5_67
I0409 02:52:42.222163 26848 net.cpp:100] Creating Layer fc5_67
I0409 02:52:42.222167 26848 net.cpp:434] fc5_67 <- fc4_300
I0409 02:52:42.222172 26848 net.cpp:408] fc5_67 -> fc5_classes
I0409 02:52:42.223848 26848 net.cpp:150] Setting up fc5_67
I0409 02:52:42.223863 26848 net.cpp:157] Top shape: 1024 67 (68608)
I0409 02:52:42.223867 26848 net.cpp:165] Memory required for data: 2188820480
I0409 02:52:42.223906 26848 layer_factory.hpp:77] Creating layer loss
I0409 02:52:42.223917 26848 net.cpp:100] Creating Layer loss
I0409 02:52:42.223922 26848 net.cpp:434] loss <- fc5_classes
I0409 02:52:42.223925 26848 net.cpp:434] loss <- label
I0409 02:52:42.223933 26848 net.cpp:408] loss -> loss
I0409 02:52:42.223947 26848 layer_factory.hpp:77] Creating layer loss
…
I0409 02:52:42.224608 26848 solver.cpp:193] Creating test net (#0) specified by test_net file: ./Prototxt/experiment_6/rtsd-r1/histeq/trial_1/test.prototxt
I0409 02:52:42.224751 26848 net.cpp:58] Initializing net from parameters: 
state {
  phase: TEST
}
layer {
  name: "data"
  type: "Data"
  top: "data"
  top: "label"
  include {
    phase: TEST
  }
  transform_param {
    mirror: false
    crop_size: 48
    mean_value: 117
    mean_value: 114
    mean_value: 133
  }
  data_param {
    source: "../local_data/lmdb/rtsd-r1/histeq/test/lmdb"
    batch_size: 1024
    backend: LMDB
  }
}
layer {
  name: "conv1"
  type: "Convolution"
  bottom: "data"
  top: "conv1"
  convolution_param {
    num_output: 100
    pad: 0
    kernel_size: 7
    group: 1
    stride: 1
    weight_filler {
      type: "xavier"
    }
  }
}
layer {
  name: "conv1_relu"
  type: "ReLU"
  bottom: "conv1"
  top: "conv1"
}
layer {
  name: "pool1"
  type: "Pooling"
  bottom: "conv1"
  top: "pool1"
  pooling_param {
    pool: MAX
    kernel_size: 2
    stride: 2
  }
}
layer {
  name: "conv2"
  type: "Convolution"
  bottom: "pool1"
  top: "conv2"
  convolution_param {
    num_output: 150
    pad: 0
    kernel_size: 4
    group: 1
    stride: 1
    weight_filler {
      type: "xavier"
    }
  }
}
layer {
  name: "conv2_relu"
  type: "ReLU"
  bottom: "conv2"
  top: "conv2"
}
layer {
  name: "pool2"
  type: "Pooling"
  bottom: "conv2"
  top: "pool2"
  pooling_param {
    pool: MAX
    kernel_size: 2
    stride: 2
  }
}
layer {
  name: "conv3"
  type: "Convolution"
  bottom: "pool2"
  top: "conv3"
  convolution_param {
    num_output: 250
    pad: 0
    kernel_size: 4
    group: 1
    stride: 1
    weight_filler {
      type: "xavier"
    }
  }
}
layer {
  name: "conv3_relu"
  type: "ReLU"
  bottom: "conv3"
  top: "conv3"
}
layer {
  name: "pool3"
  type: "Pooling"
  bottom: "conv3"
  top: "pool3"
  pooling_param {
    pool: MAX
    kernel_size: 2
    stride: 2
  }
}
layer {
  name: "fc4_300"
  type: "InnerProduct"
  bottom: "pool3"
  top: "fc4_300"
  inner_product_param {
    num_output: 300
    weight_filler {
      type: "xavier"
    }
  }
}
layer {
  name: "fc4_relu"
  type: "ReLU"
  bottom: "fc4_300"
  top: "fc4_300"
}
layer {
  name: "drop4"
  type: "Dropout"
  bottom: "fc4_300"
  top: "fc4_300"
  dropout_param {
    dropout_ratio: 0.4
  }
}
layer {
  name: "fc5_67"
  type: "InnerProduct"
  bottom: "fc4_300"
  top: "fc5_classes"
  inner_product_param {
    num_output: 67
    weight_filler {
      type: "xavier"
    }
  }
}
layer {
  name: "loss"
  type: "SoftmaxWithLoss"
  bottom: "fc5_classes"
  bottom: "label"
  top: "loss"
}
layer {
  name: "accuracy_1"
  type: "Accuracy"
  bottom: "fc5_classes"
  bottom: "label"
  top: "accuracy_1"
  include {
    phase: TEST
  }
  accuracy_param {
    top_k: 1
  }
}
layer {
  name: "accuracy_5"
  type: "Accuracy"
  bottom: "fc5_classes"
  bottom: "label"
  top: "accuracy_5"
  include {
    phase: TEST
  }
  accuracy_param {
    top_k: 5
  }
}
I0409 02:52:42.224844 26848 layer_factory.hpp:77] Creating layer data
I0409 02:52:42.229442 26848 net.cpp:100] Creating Layer data
I0409 02:52:42.229459 26848 net.cpp:408] data -> data
I0409 02:52:42.229468 26848 net.cpp:408] data -> label
I0409 02:52:42.243327 26918 db_lmdb.cpp:35] Opened lmdb ../local_data/lmdb/rtsd-r1/histeq/test/lmdb
I0409 02:52:42.243515 26848 data_layer.cpp:41] output data size: 1024,3,48,48
I0409 02:52:42.285616 26848 net.cpp:150] Setting up data
I0409 02:52:42.285646 26848 net.cpp:157] Top shape: 1024 3 48 48 (7077888)
I0409 02:52:42.285651 26848 net.cpp:157] Top shape: 1024 (1024)
I0409 02:52:42.285655 26848 net.cpp:165] Memory required for data: 28315648
I0409 02:52:42.285661 26848 layer_factory.hpp:77] Creating layer label_data_1_split
I0409 02:52:42.285687 26848 net.cpp:100] Creating Layer label_data_1_split
I0409 02:52:42.285692 26848 net.cpp:434] label_data_1_split <- label
I0409 02:52:42.285701 26848 net.cpp:408] label_data_1_split -> label_data_1_split_0
I0409 02:52:42.285712 26848 net.cpp:408] label_data_1_split -> label_data_1_split_1
I0409 02:52:42.285717 26848 net.cpp:408] label_data_1_split -> label_data_1_split_2
I0409 02:52:42.285894 26848 net.cpp:150] Setting up label_data_1_split
I0409 02:52:42.285905 26848 net.cpp:157] Top shape: 1024 (1024)
I0409 02:52:42.285909 26848 net.cpp:157] Top shape: 1024 (1024)
I0409 02:52:42.285913 26848 net.cpp:157] Top shape: 1024 (1024)
I0409 02:52:42.285917 26848 net.cpp:165] Memory required for data: 28327936
I0409 02:52:42.285920 26848 layer_factory.hpp:77] Creating layer conv1
I0409 02:52:42.285933 26848 net.cpp:100] Creating Layer conv1
I0409 02:52:42.285938 26848 net.cpp:434] conv1 <- data
I0409 02:52:42.285943 26848 net.cpp:408] conv1 -> conv1
I0409 02:52:42.287765 26848 net.cpp:150] Setting up conv1
I0409 02:52:42.287782 26848 net.cpp:157] Top shape: 1024 100 42 42 (180633600)
I0409 02:52:42.287786 26848 net.cpp:165] Memory required for data: 750862336
I0409 02:52:42.287799 26848 layer_factory.hpp:77] Creating layer conv1_relu
I0409 02:52:42.287807 26848 net.cpp:100] Creating Layer conv1_relu
I0409 02:52:42.287811 26848 net.cpp:434] conv1_relu <- conv1
I0409 02:52:42.287817 26848 net.cpp:395] conv1_relu -> conv1 (in-place)
I0409 02:52:42.290315 26848 net.cpp:150] Setting up conv1_relu
I0409 02:52:42.290330 26848 net.cpp:157] Top shape: 1024 100 42 42 (180633600)
I0409 02:52:42.290333 26848 net.cpp:165] Memory required for data: 1473396736
I0409 02:52:42.290338 26848 layer_factory.hpp:77] Creating layer pool1
I0409 02:52:42.290359 26848 net.cpp:100] Creating Layer pool1
I0409 02:52:42.290364 26848 net.cpp:434] pool1 <- conv1
I0409 02:52:42.290369 26848 net.cpp:408] pool1 -> pool1
I0409 02:52:42.290421 26848 net.cpp:150] Setting up pool1
I0409 02:52:42.290431 26848 net.cpp:157] Top shape: 1024 100 21 21 (45158400)
I0409 02:52:42.290434 26848 net.cpp:165] Memory required for data: 1654030336
I0409 02:52:42.290437 26848 layer_factory.hpp:77] Creating layer conv2
I0409 02:52:42.290447 26848 net.cpp:100] Creating Layer conv2
I0409 02:52:42.290451 26848 net.cpp:434] conv2 <- pool1
I0409 02:52:42.290457 26848 net.cpp:408] conv2 -> conv2
I0409 02:52:42.294363 26848 net.cpp:150] Setting up conv2
I0409 02:52:42.294380 26848 net.cpp:157] Top shape: 1024 150 18 18 (49766400)
I0409 02:52:42.294384 26848 net.cpp:165] Memory required for data: 1853095936
I0409 02:52:42.294407 26848 layer_factory.hpp:77] Creating layer conv2_relu
I0409 02:52:42.294419 26848 net.cpp:100] Creating Layer conv2_relu
I0409 02:52:42.294422 26848 net.cpp:434] conv2_relu <- conv2
I0409 02:52:42.294427 26848 net.cpp:395] conv2_relu -> conv2 (in-place)
I0409 02:52:42.295228 26848 net.cpp:150] Setting up conv2_relu
I0409 02:52:42.295244 26848 net.cpp:157] Top shape: 1024 150 18 18 (49766400)
I0409 02:52:42.295248 26848 net.cpp:165] Memory required for data: 2052161536
I0409 02:52:42.295253 26848 layer_factory.hpp:77] Creating layer pool2
I0409 02:52:42.295261 26848 net.cpp:100] Creating Layer pool2
I0409 02:52:42.295265 26848 net.cpp:434] pool2 <- conv2
I0409 02:52:42.295275 26848 net.cpp:408] pool2 -> pool2
I0409 02:52:42.295330 26848 net.cpp:150] Setting up pool2
I0409 02:52:42.295339 26848 net.cpp:157] Top shape: 1024 150 9 9 (12441600)
I0409 02:52:42.295342 26848 net.cpp:165] Memory required for data: 2101927936
I0409 02:52:42.295346 26848 layer_factory.hpp:77] Creating layer conv3
I0409 02:52:42.295356 26848 net.cpp:100] Creating Layer conv3
I0409 02:52:42.295361 26848 net.cpp:434] conv3 <- pool2
I0409 02:52:42.295367 26848 net.cpp:408] conv3 -> conv3
I0409 02:52:42.300976 26848 net.cpp:150] Setting up conv3
I0409 02:52:42.300995 26848 net.cpp:157] Top shape: 1024 250 6 6 (9216000)
I0409 02:52:42.300999 26848 net.cpp:165] Memory required for data: 2138791936
I0409 02:52:42.301010 26848 layer_factory.hpp:77] Creating layer conv3_relu
I0409 02:52:42.301017 26848 net.cpp:100] Creating Layer conv3_relu
I0409 02:52:42.301021 26848 net.cpp:434] conv3_relu <- conv3
I0409 02:52:42.301026 26848 net.cpp:395] conv3_relu -> conv3 (in-place)
I0409 02:52:42.301816 26848 net.cpp:150] Setting up conv3_relu
I0409 02:52:42.301832 26848 net.cpp:157] Top shape: 1024 250 6 6 (9216000)
I0409 02:52:42.301836 26848 net.cpp:165] Memory required for data: 2175655936
I0409 02:52:42.301861 26848 layer_factory.hpp:77] Creating layer pool3
I0409 02:52:42.301869 26848 net.cpp:100] Creating Layer pool3
I0409 02:52:42.301873 26848 net.cpp:434] pool3 <- conv3
I0409 02:52:42.301880 26848 net.cpp:408] pool3 -> pool3
I0409 02:52:42.301933 26848 net.cpp:150] Setting up pool3
I0409 02:52:42.301942 26848 net.cpp:157] Top shape: 1024 250 3 3 (2304000)
I0409 02:52:42.301946 26848 net.cpp:165] Memory required for data: 2184871936
I0409 02:52:42.301949 26848 layer_factory.hpp:77] Creating layer fc4_300
I0409 02:52:42.301957 26848 net.cpp:100] Creating Layer fc4_300
I0409 02:52:42.301961 26848 net.cpp:434] fc4_300 <- pool3
I0409 02:52:42.301966 26848 net.cpp:408] fc4_300 -> fc4_300
I0409 02:52:42.307425 26848 net.cpp:150] Setting up fc4_300
I0409 02:52:42.307443 26848 net.cpp:157] Top shape: 1024 300 (307200)
I0409 02:52:42.307447 26848 net.cpp:165] Memory required for data: 2186100736
I0409 02:52:42.307456 26848 layer_factory.hpp:77] Creating layer fc4_relu
I0409 02:52:42.307462 26848 net.cpp:100] Creating Layer fc4_relu
I0409 02:52:42.307466 26848 net.cpp:434] fc4_relu <- fc4_300
I0409 02:52:42.307483 26848 net.cpp:395] fc4_relu -> fc4_300 (in-place)
I0409 02:52:42.307677 26848 net.cpp:150] Setting up fc4_relu
I0409 02:52:42.307689 26848 net.cpp:157] Top shape: 1024 300 (307200)
I0409 02:52:42.307693 26848 net.cpp:165] Memory required for data: 2187329536
I0409 02:52:42.307696 26848 layer_factory.hpp:77] Creating layer drop4
I0409 02:52:42.307703 26848 net.cpp:100] Creating Layer drop4
I0409 02:52:42.307708 26848 net.cpp:434] drop4 <- fc4_300
I0409 02:52:42.307713 26848 net.cpp:395] drop4 -> fc4_300 (in-place)
I0409 02:52:42.307744 26848 net.cpp:150] Setting up drop4
I0409 02:52:42.307751 26848 net.cpp:157] Top shape: 1024 300 (307200)
I0409 02:52:42.307754 26848 net.cpp:165] Memory required for data: 2188558336
I0409 02:52:42.307759 26848 layer_factory.hpp:77] Creating layer fc5_67
I0409 02:52:42.307765 26848 net.cpp:100] Creating Layer fc5_67
I0409 02:52:42.307767 26848 net.cpp:434] fc5_67 <- fc4_300
I0409 02:52:42.307772 26848 net.cpp:408] fc5_67 -> fc5_classes
I0409 02:52:42.308039 26848 net.cpp:150] Setting up fc5_67
I0409 02:52:42.308053 26848 net.cpp:157] Top shape: 1024 67 (68608)
I0409 02:52:42.308058 26848 net.cpp:165] Memory required for data: 2188832768
I0409 02:52:42.308068 26848 layer_factory.hpp:77] Creating layer fc5_classes_fc5_67_0_split
I0409 02:52:42.308075 26848 net.cpp:100] Creating Layer fc5_classes_fc5_67_0_split
I0409 02:52:42.308079 26848 net.cpp:434] fc5_classes_fc5_67_0_split <- fc5_classes
I0409 02:52:42.308084 26848 net.cpp:408] fc5_classes_fc5_67_0_split -> fc5_classes_fc5_67_0_split_0
I0409 02:52:42.308091 26848 net.cpp:408] fc5_classes_fc5_67_0_split -> fc5_classes_fc5_67_0_split_1
I0409 02:52:42.308099 26848 net.cpp:408] fc5_classes_fc5_67_0_split -> fc5_classes_fc5_67_0_split_2
I0409 02:52:42.308151 26848 net.cpp:150] Setting up fc5_classes_fc5_67_0_split
I0409 02:52:42.308158 26848 net.cpp:157] Top shape: 1024 67 (68608)
I0409 02:52:42.308162 26848 net.cpp:157] Top shape: 1024 67 (68608)
I0409 02:52:42.308166 26848 net.cpp:157] Top shape: 1024 67 (68608)
I0409 02:52:42.308169 26848 net.cpp:165] Memory required for data: 2189656064
I0409 02:52:42.308173 26848 layer_factory.hpp:77] Creating layer loss
I0409 02:52:42.308189 26848 net.cpp:100] Creating Layer loss
I0409 02:52:42.308193 26848 net.cpp:434] loss <- fc5_classes_fc5_67_0_split_0
I0409 02:52:42.308198 26848 net.cpp:434] loss <- label_data_1_split_0
I0409 02:52:42.308203 26848 net.cpp:408] loss -> loss
…
