…
I0409 02:45:18.190187  8752 net.cpp:322] The NetState phase (0) differed from the phase (1) specified by a rule in layer accuracy_5
I0409 02:45:18.190361  8752 net.cpp:58] Initializing net from parameters: 
state {
  phase: TRAIN
  level: 0
  stage: ""
}
layer {
  name: "data"
  type: "Data"
  top: "data"
  top: "label"
  include {
    phase: TRAIN
  }
  transform_param {
    mirror: false
    crop_size: 48
    mean_value: 122
    mean_value: 115
    mean_value: 128
  }
  data_param {
    source: "../local_data/lmdb/rtsd-r1/histeq/train/lmdb"
    batch_size: 1024
    backend: LMDB
  }
}
layer {
  name: "conv1"
  type: "Convolution"
  bottom: "data"
  top: "conv1"
  convolution_param {
    num_output: 100
    pad: 0
    kernel_size: 7
    group: 1
    stride: 1
    weight_filler {
      type: "xavier"
    }
  }
}
layer {
  name: "conv1_prescale"
  type: "Scale"
  bottom: "conv1"
  top: "conv1"
  param {
    lr_mult: 0
    decay_mult: 0
  }
  scale_param {
    filler {
      value: 0.6666
    }
  }
}
layer {
  name: "conv1_sTanH"
  type: "TanH"
  bottom: "conv1"
  top: "conv1"
}
layer {
  name: "conv1_postscale"
  type: "Scale"
  bottom: "conv1"
  top: "conv1"
  param {
    lr_mult: 0
    decay_mult: 0
  }
  scale_param {
    filler {
      value: 1.7159
    }
  }
}
layer {
  name: "pool1"
  type: "Pooling"
  bottom: "conv1"
  top: "pool1"
  pooling_param {
    pool: MAX
    kernel_size: 2
    stride: 2
  }
}
layer {
  name: "conv2"
  type: "Convolution"
  bottom: "pool1"
  top: "conv2"
  convolution_param {
    num_output: 150
    pad: 0
    kernel_size: 4
    group: 1
    stride: 1
    weight_filler {
      type: "xavier"
    }
  }
}
layer {
  name: "conv2_prescale"
  type: "Scale"
  bottom: "conv2"
  top: "conv2"
  param {
    lr_mult: 0
    decay_mult: 0
  }
  scale_param {
    filler {
      value: 0.6666
    }
  }
}
layer {
  name: "conv2_sTanH"
  type: "TanH"
  bottom: "conv2"
  top: "conv2"
}
layer {
  name: "conv2_postscale"
  type: "Scale"
  bottom: "conv2"
  top: "conv2"
  param {
    lr_mult: 0
    decay_mult: 0
  }
  scale_param {
    filler {
      value: 1.7159
    }
  }
}
layer {
  name: "pool2"
  type: "Pooling"
  bottom: "conv2"
  top: "pool2"
  pooling_param {
    pool: MAX
    kernel_size: 2
    stride: 2
  }
}
layer {
  name: "conv3"
  type: "Convolution"
  bottom: "pool2"
  top: "conv3"
  convolution_param {
    num_output: 250
    pad: 0
    kernel_size: 4
    group: 1
    stride: 1
    weight_filler {
      type: "xavier"
    }
  }
}
layer {
  name: "conv3_prescale"
  type: "Scale"
  bottom: "conv3"
  top: "conv3"
  param {
    lr_mult: 0
    decay_mult: 0
  }
  scale_param {
    filler {
      value: 0.6666
    }
  }
}
layer {
  name: "conv3_sTanH"
  type: "TanH"
  bottom: "conv3"
  top: "conv3"
}
layer {
  name: "conv3_postscale"
  type: "Scale"
  bottom: "conv3"
  top: "conv3"
  param {
    lr_mult: 0
    decay_mult: 0
  }
  scale_param {
    filler {
      value: 1.7159
    }
  }
}
layer {
  name: "pool3"
  type: "Pooling"
  bottom: "conv3"
  top: "pool3"
  pooling_param {
    pool: MAX
    kernel_size: 2
    stride: 2
  }
}
layer {
  name: "fc4_300"
  type: "InnerProduct"
  bottom: "pool3"
  top: "fc4_300"
  inner_product_param {
    num_output: 300
    weight_filler {
      type: "xavier"
    }
  }
}
layer {
  name: "fc4_prescale"
  type: "Scale"
  bottom: "fc4_300"
  top: "fc4_300"
  param {
    lr_mult: 0
    decay_mult: 0
  }
  scale_param {
    filler {
      value: 0.6666
    }
  }
}
layer {
  name: "fc4_sTanH"
  type: "TanH"
  bottom: "fc4_300"
  top: "fc4_300"
}
layer {
  name: "fc4_postscale"
  type: "Scale"
  bottom: "fc4_300"
  top: "fc4_300"
  param {
    lr_mult: 0
    decay_mult: 0
  }
  scale_param {
    filler {
      value: 1.7159
    }
  }
}
layer {
  name: "drop4"
  type: "Dropout"
  bottom: "fc4_300"
  top: "fc4_300"
  dropout_param {
    dropout_ratio: 0.4
  }
}
layer {
  name: "fc5_67"
  type: "InnerProduct"
  bottom: "fc4_300"
  top: "fc5_classes"
  inner_product_param {
    num_output: 67
    weight_filler {
      type: "xavier"
    }
  }
}
layer {
  name: "loss"
  type: "SoftmaxWithLoss"
  bottom: "fc5_classes"
  bottom: "label"
  top: "loss"
}
I0409 02:45:18.190485  8752 layer_factory.hpp:77] Creating layer data
I0409 02:45:18.191752  8752 net.cpp:100] Creating Layer data
I0409 02:45:18.191769  8752 net.cpp:408] data -> data
I0409 02:45:18.191797  8752 net.cpp:408] data -> label
I0409 02:45:18.193146  8827 db_lmdb.cpp:35] Opened lmdb ../local_data/lmdb/rtsd-r1/histeq/train/lmdb
I0409 02:45:18.213227  8752 data_layer.cpp:41] output data size: 1024,3,48,48
I0409 02:45:18.270421  8752 net.cpp:150] Setting up data
I0409 02:45:18.270455  8752 net.cpp:157] Top shape: 1024 3 48 48 (7077888)
I0409 02:45:18.270462  8752 net.cpp:157] Top shape: 1024 (1024)
I0409 02:45:18.270465  8752 net.cpp:165] Memory required for data: 28315648
I0409 02:45:18.270476  8752 layer_factory.hpp:77] Creating layer conv1
I0409 02:45:18.270503  8752 net.cpp:100] Creating Layer conv1
I0409 02:45:18.270511  8752 net.cpp:434] conv1 <- data
I0409 02:45:18.270529  8752 net.cpp:408] conv1 -> conv1
I0409 02:45:18.606168  8752 net.cpp:150] Setting up conv1
I0409 02:45:18.606197  8752 net.cpp:157] Top shape: 1024 100 42 42 (180633600)
I0409 02:45:18.606201  8752 net.cpp:165] Memory required for data: 750850048
I0409 02:45:18.606222  8752 layer_factory.hpp:77] Creating layer conv1_prescale
I0409 02:45:18.606236  8752 net.cpp:100] Creating Layer conv1_prescale
I0409 02:45:18.606240  8752 net.cpp:434] conv1_prescale <- conv1
I0409 02:45:18.606247  8752 net.cpp:395] conv1_prescale -> conv1 (in-place)
I0409 02:45:18.606367  8752 net.cpp:150] Setting up conv1_prescale
I0409 02:45:18.606376  8752 net.cpp:157] Top shape: 1024 100 42 42 (180633600)
I0409 02:45:18.606379  8752 net.cpp:165] Memory required for data: 1473384448
I0409 02:45:18.606386  8752 layer_factory.hpp:77] Creating layer conv1_sTanH
I0409 02:45:18.606395  8752 net.cpp:100] Creating Layer conv1_sTanH
I0409 02:45:18.606397  8752 net.cpp:434] conv1_sTanH <- conv1
I0409 02:45:18.606401  8752 net.cpp:395] conv1_sTanH -> conv1 (in-place)
I0409 02:45:18.606595  8752 net.cpp:150] Setting up conv1_sTanH
I0409 02:45:18.606606  8752 net.cpp:157] Top shape: 1024 100 42 42 (180633600)
I0409 02:45:18.606609  8752 net.cpp:165] Memory required for data: 2195918848
I0409 02:45:18.606613  8752 layer_factory.hpp:77] Creating layer conv1_postscale
I0409 02:45:18.606621  8752 net.cpp:100] Creating Layer conv1_postscale
I0409 02:45:18.606626  8752 net.cpp:434] conv1_postscale <- conv1
I0409 02:45:18.606631  8752 net.cpp:395] conv1_postscale -> conv1 (in-place)
I0409 02:45:18.606725  8752 net.cpp:150] Setting up conv1_postscale
I0409 02:45:18.606734  8752 net.cpp:157] Top shape: 1024 100 42 42 (180633600)
I0409 02:45:18.606736  8752 net.cpp:165] Memory required for data: 2918453248
I0409 02:45:18.606741  8752 layer_factory.hpp:77] Creating layer pool1
I0409 02:45:18.606748  8752 net.cpp:100] Creating Layer pool1
I0409 02:45:18.606752  8752 net.cpp:434] pool1 <- conv1
I0409 02:45:18.606757  8752 net.cpp:408] pool1 -> pool1
I0409 02:45:18.606804  8752 net.cpp:150] Setting up pool1
I0409 02:45:18.606812  8752 net.cpp:157] Top shape: 1024 100 21 21 (45158400)
I0409 02:45:18.606815  8752 net.cpp:165] Memory required for data: 3099086848
I0409 02:45:18.606837  8752 layer_factory.hpp:77] Creating layer conv2
I0409 02:45:18.606848  8752 net.cpp:100] Creating Layer conv2
I0409 02:45:18.606853  8752 net.cpp:434] conv2 <- pool1
I0409 02:45:18.606858  8752 net.cpp:408] conv2 -> conv2
I0409 02:45:18.611300  8752 net.cpp:150] Setting up conv2
I0409 02:45:18.611318  8752 net.cpp:157] Top shape: 1024 150 18 18 (49766400)
I0409 02:45:18.611322  8752 net.cpp:165] Memory required for data: 3298152448
I0409 02:45:18.611332  8752 layer_factory.hpp:77] Creating layer conv2_prescale
I0409 02:45:18.611340  8752 net.cpp:100] Creating Layer conv2_prescale
I0409 02:45:18.611343  8752 net.cpp:434] conv2_prescale <- conv2
I0409 02:45:18.611348  8752 net.cpp:395] conv2_prescale -> conv2 (in-place)
I0409 02:45:18.611449  8752 net.cpp:150] Setting up conv2_prescale
I0409 02:45:18.611457  8752 net.cpp:157] Top shape: 1024 150 18 18 (49766400)
I0409 02:45:18.611459  8752 net.cpp:165] Memory required for data: 3497218048
I0409 02:45:18.611464  8752 layer_factory.hpp:77] Creating layer conv2_sTanH
I0409 02:45:18.611471  8752 net.cpp:100] Creating Layer conv2_sTanH
I0409 02:45:18.611474  8752 net.cpp:434] conv2_sTanH <- conv2
I0409 02:45:18.611479  8752 net.cpp:395] conv2_sTanH -> conv2 (in-place)
I0409 02:45:18.612280  8752 net.cpp:150] Setting up conv2_sTanH
I0409 02:45:18.612296  8752 net.cpp:157] Top shape: 1024 150 18 18 (49766400)
I0409 02:45:18.612299  8752 net.cpp:165] Memory required for data: 3696283648
I0409 02:45:18.612303  8752 layer_factory.hpp:77] Creating layer conv2_postscale
I0409 02:45:18.612321  8752 net.cpp:100] Creating Layer conv2_postscale
I0409 02:45:18.612324  8752 net.cpp:434] conv2_postscale <- conv2
I0409 02:45:18.612331  8752 net.cpp:395] conv2_postscale -> conv2 (in-place)
I0409 02:45:18.612431  8752 net.cpp:150] Setting up conv2_postscale
I0409 02:45:18.612438  8752 net.cpp:157] Top shape: 1024 150 18 18 (49766400)
I0409 02:45:18.612442  8752 net.cpp:165] Memory required for data: 3895349248
I0409 02:45:18.612447  8752 layer_factory.hpp:77] Creating layer pool2
I0409 02:45:18.612452  8752 net.cpp:100] Creating Layer pool2
I0409 02:45:18.612455  8752 net.cpp:434] pool2 <- conv2
I0409 02:45:18.612462  8752 net.cpp:408] pool2 -> pool2
I0409 02:45:18.612501  8752 net.cpp:150] Setting up pool2
I0409 02:45:18.612509  8752 net.cpp:157] Top shape: 1024 150 9 9 (12441600)
I0409 02:45:18.612511  8752 net.cpp:165] Memory required for data: 3945115648
I0409 02:45:18.612514  8752 layer_factory.hpp:77] Creating layer conv3
I0409 02:45:18.612524  8752 net.cpp:100] Creating Layer conv3
I0409 02:45:18.612527  8752 net.cpp:434] conv3 <- pool2
I0409 02:45:18.612534  8752 net.cpp:408] conv3 -> conv3
I0409 02:45:18.617929  8752 net.cpp:150] Setting up conv3
I0409 02:45:18.617945  8752 net.cpp:157] Top shape: 1024 250 6 6 (9216000)
I0409 02:45:18.617949  8752 net.cpp:165] Memory required for data: 3981979648
I0409 02:45:18.617960  8752 layer_factory.hpp:77] Creating layer conv3_prescale
I0409 02:45:18.617967  8752 net.cpp:100] Creating Layer conv3_prescale
I0409 02:45:18.617971  8752 net.cpp:434] conv3_prescale <- conv3
I0409 02:45:18.617976  8752 net.cpp:395] conv3_prescale -> conv3 (in-place)
I0409 02:45:18.618084  8752 net.cpp:150] Setting up conv3_prescale
I0409 02:45:18.618093  8752 net.cpp:157] Top shape: 1024 250 6 6 (9216000)
I0409 02:45:18.618096  8752 net.cpp:165] Memory required for data: 4018843648
I0409 02:45:18.618100  8752 layer_factory.hpp:77] Creating layer conv3_sTanH
I0409 02:45:18.618106  8752 net.cpp:100] Creating Layer conv3_sTanH
I0409 02:45:18.618109  8752 net.cpp:434] conv3_sTanH <- conv3
I0409 02:45:18.618115  8752 net.cpp:395] conv3_sTanH -> conv3 (in-place)
I0409 02:45:18.618890  8752 net.cpp:150] Setting up conv3_sTanH
I0409 02:45:18.618904  8752 net.cpp:157] Top shape: 1024 250 6 6 (9216000)
I0409 02:45:18.618907  8752 net.cpp:165] Memory required for data: 4055707648
I0409 02:45:18.618911  8752 layer_factory.hpp:77] Creating layer conv3_postscale
I0409 02:45:18.618919  8752 net.cpp:100] Creating Layer conv3_postscale
I0409 02:45:18.618937  8752 net.cpp:434] conv3_postscale <- conv3
I0409 02:45:18.618957  8752 net.cpp:395] conv3_postscale -> conv3 (in-place)
I0409 02:45:18.619062  8752 net.cpp:150] Setting up conv3_postscale
I0409 02:45:18.619071  8752 net.cpp:157] Top shape: 1024 250 6 6 (9216000)
I0409 02:45:18.619074  8752 net.cpp:165] Memory required for data: 4092571648
I0409 02:45:18.619079  8752 layer_factory.hpp:77] Creating layer pool3
I0409 02:45:18.619086  8752 net.cpp:100] Creating Layer pool3
I0409 02:45:18.619091  8752 net.cpp:434] pool3 <- conv3
I0409 02:45:18.619096  8752 net.cpp:408] pool3 -> pool3
I0409 02:45:18.619138  8752 net.cpp:150] Setting up pool3
I0409 02:45:18.619144  8752 net.cpp:157] Top shape: 1024 250 3 3 (2304000)
I0409 02:45:18.619148  8752 net.cpp:165] Memory required for data: 4101787648
I0409 02:45:18.619149  8752 layer_factory.hpp:77] Creating layer fc4_300
I0409 02:45:18.619159  8752 net.cpp:100] Creating Layer fc4_300
I0409 02:45:18.619164  8752 net.cpp:434] fc4_300 <- pool3
I0409 02:45:18.619169  8752 net.cpp:408] fc4_300 -> fc4_300
I0409 02:45:18.624490  8752 net.cpp:150] Setting up fc4_300
I0409 02:45:18.624505  8752 net.cpp:157] Top shape: 1024 300 (307200)
I0409 02:45:18.624521  8752 net.cpp:165] Memory required for data: 4103016448
I0409 02:45:18.624527  8752 layer_factory.hpp:77] Creating layer fc4_prescale
I0409 02:45:18.624536  8752 net.cpp:100] Creating Layer fc4_prescale
I0409 02:45:18.624539  8752 net.cpp:434] fc4_prescale <- fc4_300
I0409 02:45:18.624544  8752 net.cpp:395] fc4_prescale -> fc4_300 (in-place)
I0409 02:45:18.624634  8752 net.cpp:150] Setting up fc4_prescale
I0409 02:45:18.624642  8752 net.cpp:157] Top shape: 1024 300 (307200)
I0409 02:45:18.624645  8752 net.cpp:165] Memory required for data: 4104245248
I0409 02:45:18.624650  8752 layer_factory.hpp:77] Creating layer fc4_sTanH
I0409 02:45:18.624655  8752 net.cpp:100] Creating Layer fc4_sTanH
I0409 02:45:18.624657  8752 net.cpp:434] fc4_sTanH <- fc4_300
I0409 02:45:18.624662  8752 net.cpp:395] fc4_sTanH -> fc4_300 (in-place)
I0409 02:45:18.624857  8752 net.cpp:150] Setting up fc4_sTanH
I0409 02:45:18.624868  8752 net.cpp:157] Top shape: 1024 300 (307200)
I0409 02:45:18.624871  8752 net.cpp:165] Memory required for data: 4105474048
I0409 02:45:18.624874  8752 layer_factory.hpp:77] Creating layer fc4_postscale
I0409 02:45:18.624882  8752 net.cpp:100] Creating Layer fc4_postscale
I0409 02:45:18.624886  8752 net.cpp:434] fc4_postscale <- fc4_300
I0409 02:45:18.624891  8752 net.cpp:395] fc4_postscale -> fc4_300 (in-place)
I0409 02:45:18.624991  8752 net.cpp:150] Setting up fc4_postscale
I0409 02:45:18.625000  8752 net.cpp:157] Top shape: 1024 300 (307200)
I0409 02:45:18.625001  8752 net.cpp:165] Memory required for data: 4106702848
I0409 02:45:18.625006  8752 layer_factory.hpp:77] Creating layer drop4
I0409 02:45:18.625013  8752 net.cpp:100] Creating Layer drop4
I0409 02:45:18.625020  8752 net.cpp:434] drop4 <- fc4_300
I0409 02:45:18.625023  8752 net.cpp:395] drop4 -> fc4_300 (in-place)
I0409 02:45:18.625051  8752 net.cpp:150] Setting up drop4
I0409 02:45:18.625058  8752 net.cpp:157] Top shape: 1024 300 (307200)
I0409 02:45:18.625061  8752 net.cpp:165] Memory required for data: 4107931648
I0409 02:45:18.625063  8752 layer_factory.hpp:77] Creating layer fc5_67
I0409 02:45:18.625072  8752 net.cpp:100] Creating Layer fc5_67
I0409 02:45:18.625075  8752 net.cpp:434] fc5_67 <- fc4_300
I0409 02:45:18.625082  8752 net.cpp:408] fc5_67 -> fc5_classes
I0409 02:45:18.626312  8752 net.cpp:150] Setting up fc5_67
I0409 02:45:18.626327  8752 net.cpp:157] Top shape: 1024 67 (68608)
I0409 02:45:18.626329  8752 net.cpp:165] Memory required for data: 4108206080
I0409 02:45:18.626341  8752 layer_factory.hpp:77] Creating layer loss
I0409 02:45:18.626349  8752 net.cpp:100] Creating Layer loss
I0409 02:45:18.626353  8752 net.cpp:434] loss <- fc5_classes
I0409 02:45:18.626358  8752 net.cpp:434] loss <- label
I0409 02:45:18.626363  8752 net.cpp:408] loss -> loss
I0409 02:45:18.626375  8752 layer_factory.hpp:77] Creating layer loss
…
I0409 02:45:18.627125  8752 solver.cpp:193] Creating test net (#0) specified by test_net file: ./Prototxt/experiment_6/rtsd-r1/histeq/trial_1/test.prototxt
I0409 02:45:18.627305  8752 net.cpp:58] Initializing net from parameters: 
state {
  phase: TEST
}
layer {
  name: "data"
  type: "Data"
  top: "data"
  top: "label"
  include {
    phase: TEST
  }
  transform_param {
    mirror: false
    crop_size: 48
    mean_value: 117
    mean_value: 114
    mean_value: 133
  }
  data_param {
    source: "../local_data/lmdb/rtsd-r1/histeq/test/lmdb"
    batch_size: 1024
    backend: LMDB
  }
}
layer {
  name: "conv1"
  type: "Convolution"
  bottom: "data"
  top: "conv1"
  convolution_param {
    num_output: 100
    pad: 0
    kernel_size: 7
    group: 1
    stride: 1
    weight_filler {
      type: "xavier"
    }
  }
}
layer {
  name: "conv1_prescale"
  type: "Scale"
  bottom: "conv1"
  top: "conv1"
  param {
    lr_mult: 0
    decay_mult: 0
  }
  scale_param {
    filler {
      value: 0.6666
    }
  }
}
layer {
  name: "conv1_sTanH"
  type: "TanH"
  bottom: "conv1"
  top: "conv1"
}
layer {
  name: "conv1_postscale"
  type: "Scale"
  bottom: "conv1"
  top: "conv1"
  param {
    lr_mult: 0
    decay_mult: 0
  }
  scale_param {
    filler {
      value: 1.7159
    }
  }
}
layer {
  name: "pool1"
  type: "Pooling"
  bottom: "conv1"
  top: "pool1"
  pooling_param {
    pool: MAX
    kernel_size: 2
    stride: 2
  }
}
layer {
  name: "conv2"
  type: "Convolution"
  bottom: "pool1"
  top: "conv2"
  convolution_param {
    num_output: 150
    pad: 0
    kernel_size: 4
    group: 1
    stride: 1
    weight_filler {
      type: "xavier"
    }
  }
}
layer {
  name: "conv2_prescale"
  type: "Scale"
  bottom: "conv2"
  top: "conv2"
  param {
    lr_mult: 0
    decay_mult: 0
  }
  scale_param {
    filler {
      value: 0.6666
    }
  }
}
layer {
  name: "conv2_sTanH"
  type: "TanH"
  bottom: "conv2"
  top: "conv2"
}
layer {
  name: "conv2_postscale"
  type: "Scale"
  bottom: "conv2"
  top: "conv2"
  param {
    lr_mult: 0
    decay_mult: 0
  }
  scale_param {
    filler {
      value: 1.7159
    }
  }
}
layer {
  name: "pool2"
  type: "Pooling"
  bottom: "conv2"
  top: "pool2"
  pooling_param {
    pool: MAX
    kernel_size: 2
    stride: 2
  }
}
layer {
  name: "conv3"
  type: "Convolution"
  bottom: "pool2"
  top: "conv3"
  convolution_param {
    num_output: 250
    pad: 0
    kernel_size: 4
    group: 1
    stride: 1
    weight_filler {
      type: "xavier"
    }
  }
}
layer {
  name: "conv3_prescale"
  type: "Scale"
  bottom: "conv3"
  top: "conv3"
  param {
    lr_mult: 0
    decay_mult: 0
  }
  scale_param {
    filler {
      value: 0.6666
    }
  }
}
layer {
  name: "conv3_sTanH"
  type: "TanH"
  bottom: "conv3"
  top: "conv3"
}
layer {
  name: "conv3_postscale"
  type: "Scale"
  bottom: "conv3"
  top: "conv3"
  param {
    lr_mult: 0
    decay_mult: 0
  }
  scale_param {
    filler {
      value: 1.7159
    }
  }
}
layer {
  name: "pool3"
  type: "Pooling"
  bottom: "conv3"
  top: "pool3"
  pooling_param {
    pool: MAX
    kernel_size: 2
    stride: 2
  }
}
layer {
  name: "fc4_300"
  type: "InnerProduct"
  bottom: "pool3"
  top: "fc4_300"
  inner_product_param {
    num_output: 300
    weight_filler {
      type: "xavier"
    }
  }
}
layer {
  name: "fc4_prescale"
  type: "Scale"
  bottom: "fc4_300"
  top: "fc4_300"
  param {
    lr_mult: 0
    decay_mult: 0
  }
  scale_param {
    filler {
      value: 0.6666
    }
  }
}
layer {
  name: "fc4_sTanH"
  type: "TanH"
  bottom: "fc4_300"
  top: "fc4_300"
}
layer {
  name: "fc4_postscale"
  type: "Scale"
  bottom: "fc4_300"
  top: "fc4_300"
  param {
    lr_mult: 0
    decay_mult: 0
  }
  scale_param {
    filler {
      value: 1.7159
    }
  }
}
layer {
  name: "drop4"
  type: "Dropout"
  bottom: "fc4_300"
  top: "fc4_300"
  dropout_param {
    dropout_ratio: 0.4
  }
}
layer {
  name: "fc5_67"
  type: "InnerProduct"
  bottom: "fc4_300"
  top: "fc5_classes"
  inner_product_param {
    num_output: 67
    weight_filler {
      type: "xavier"
    }
  }
}
layer {
  name: "loss"
  type: "SoftmaxWithLoss"
  bottom: "fc5_classes"
  bottom: "label"
  top: "loss"
}
layer {
  name: "accuracy_1"
  type: "Accuracy"
  bottom: "fc5_classes"
  bottom: "label"
  top: "accuracy_1"
  include {
    phase: TEST
  }
  accuracy_param {
    top_k: 1
  }
}
layer {
  name: "accuracy_5"
  type: "Accuracy"
  bottom: "fc5_classes"
  bottom: "label"
  top: "accuracy_5"
  include {
    phase: TEST
  }
  accuracy_param {
    top_k: 5
  }
}
I0409 02:45:18.627427  8752 layer_factory.hpp:77] Creating layer data
I0409 02:45:18.628119  8752 net.cpp:100] Creating Layer data
I0409 02:45:18.628134  8752 net.cpp:408] data -> data
I0409 02:45:18.628142  8752 net.cpp:408] data -> label
I0409 02:45:18.629317  8848 db_lmdb.cpp:35] Opened lmdb ../local_data/lmdb/rtsd-r1/histeq/test/lmdb
I0409 02:45:18.629504  8752 data_layer.cpp:41] output data size: 1024,3,48,48
I0409 02:45:18.670756  8752 net.cpp:150] Setting up data
I0409 02:45:18.670784  8752 net.cpp:157] Top shape: 1024 3 48 48 (7077888)
I0409 02:45:18.670789  8752 net.cpp:157] Top shape: 1024 (1024)
I0409 02:45:18.670791  8752 net.cpp:165] Memory required for data: 28315648
I0409 02:45:18.670797  8752 layer_factory.hpp:77] Creating layer label_data_1_split
I0409 02:45:18.670811  8752 net.cpp:100] Creating Layer label_data_1_split
I0409 02:45:18.670815  8752 net.cpp:434] label_data_1_split <- label
I0409 02:45:18.670824  8752 net.cpp:408] label_data_1_split -> label_data_1_split_0
I0409 02:45:18.670836  8752 net.cpp:408] label_data_1_split -> label_data_1_split_1
I0409 02:45:18.670845  8752 net.cpp:408] label_data_1_split -> label_data_1_split_2
I0409 02:45:18.670936  8752 net.cpp:150] Setting up label_data_1_split
I0409 02:45:18.670945  8752 net.cpp:157] Top shape: 1024 (1024)
I0409 02:45:18.670949  8752 net.cpp:157] Top shape: 1024 (1024)
I0409 02:45:18.670953  8752 net.cpp:157] Top shape: 1024 (1024)
I0409 02:45:18.670955  8752 net.cpp:165] Memory required for data: 28327936
I0409 02:45:18.670977  8752 layer_factory.hpp:77] Creating layer conv1
I0409 02:45:18.670994  8752 net.cpp:100] Creating Layer conv1
I0409 02:45:18.671000  8752 net.cpp:434] conv1 <- data
I0409 02:45:18.671006  8752 net.cpp:408] conv1 -> conv1
I0409 02:45:18.673003  8752 net.cpp:150] Setting up conv1
I0409 02:45:18.673022  8752 net.cpp:157] Top shape: 1024 100 42 42 (180633600)
I0409 02:45:18.673024  8752 net.cpp:165] Memory required for data: 750862336
I0409 02:45:18.673036  8752 layer_factory.hpp:77] Creating layer conv1_prescale
I0409 02:45:18.673045  8752 net.cpp:100] Creating Layer conv1_prescale
I0409 02:45:18.673049  8752 net.cpp:434] conv1_prescale <- conv1
I0409 02:45:18.673055  8752 net.cpp:395] conv1_prescale -> conv1 (in-place)
I0409 02:45:18.673169  8752 net.cpp:150] Setting up conv1_prescale
I0409 02:45:18.673178  8752 net.cpp:157] Top shape: 1024 100 42 42 (180633600)
I0409 02:45:18.673182  8752 net.cpp:165] Memory required for data: 1473396736
I0409 02:45:18.673187  8752 layer_factory.hpp:77] Creating layer conv1_sTanH
I0409 02:45:18.673194  8752 net.cpp:100] Creating Layer conv1_sTanH
I0409 02:45:18.673199  8752 net.cpp:434] conv1_sTanH <- conv1
I0409 02:45:18.673207  8752 net.cpp:395] conv1_sTanH -> conv1 (in-place)
I0409 02:45:18.675668  8752 net.cpp:150] Setting up conv1_sTanH
I0409 02:45:18.675683  8752 net.cpp:157] Top shape: 1024 100 42 42 (180633600)
I0409 02:45:18.675686  8752 net.cpp:165] Memory required for data: 2195931136
I0409 02:45:18.675689  8752 layer_factory.hpp:77] Creating layer conv1_postscale
I0409 02:45:18.675696  8752 net.cpp:100] Creating Layer conv1_postscale
I0409 02:45:18.675700  8752 net.cpp:434] conv1_postscale <- conv1
I0409 02:45:18.675706  8752 net.cpp:395] conv1_postscale -> conv1 (in-place)
I0409 02:45:18.675832  8752 net.cpp:150] Setting up conv1_postscale
I0409 02:45:18.675842  8752 net.cpp:157] Top shape: 1024 100 42 42 (180633600)
I0409 02:45:18.675844  8752 net.cpp:165] Memory required for data: 2918465536
I0409 02:45:18.675849  8752 layer_factory.hpp:77] Creating layer pool1
I0409 02:45:18.675856  8752 net.cpp:100] Creating Layer pool1
I0409 02:45:18.675861  8752 net.cpp:434] pool1 <- conv1
I0409 02:45:18.675869  8752 net.cpp:408] pool1 -> pool1
I0409 02:45:18.675930  8752 net.cpp:150] Setting up pool1
I0409 02:45:18.675940  8752 net.cpp:157] Top shape: 1024 100 21 21 (45158400)
I0409 02:45:18.675941  8752 net.cpp:165] Memory required for data: 3099099136
I0409 02:45:18.675945  8752 layer_factory.hpp:77] Creating layer conv2
I0409 02:45:18.675956  8752 net.cpp:100] Creating Layer conv2
I0409 02:45:18.675961  8752 net.cpp:434] conv2 <- pool1
I0409 02:45:18.675968  8752 net.cpp:408] conv2 -> conv2
I0409 02:45:18.681347  8752 net.cpp:150] Setting up conv2
I0409 02:45:18.681366  8752 net.cpp:157] Top shape: 1024 150 18 18 (49766400)
I0409 02:45:18.681370  8752 net.cpp:165] Memory required for data: 3298164736
I0409 02:45:18.681380  8752 layer_factory.hpp:77] Creating layer conv2_prescale
I0409 02:45:18.681397  8752 net.cpp:100] Creating Layer conv2_prescale
I0409 02:45:18.681401  8752 net.cpp:434] conv2_prescale <- conv2
I0409 02:45:18.681407  8752 net.cpp:395] conv2_prescale -> conv2 (in-place)
I0409 02:45:18.681524  8752 net.cpp:150] Setting up conv2_prescale
I0409 02:45:18.681533  8752 net.cpp:157] Top shape: 1024 150 18 18 (49766400)
I0409 02:45:18.681536  8752 net.cpp:165] Memory required for data: 3497230336
I0409 02:45:18.681542  8752 layer_factory.hpp:77] Creating layer conv2_sTanH
I0409 02:45:18.681547  8752 net.cpp:100] Creating Layer conv2_sTanH
I0409 02:45:18.681550  8752 net.cpp:434] conv2_sTanH <- conv2
I0409 02:45:18.681557  8752 net.cpp:395] conv2_sTanH -> conv2 (in-place)
I0409 02:45:18.689921  8752 net.cpp:150] Setting up conv2_sTanH
I0409 02:45:18.689955  8752 net.cpp:157] Top shape: 1024 150 18 18 (49766400)
I0409 02:45:18.689968  8752 net.cpp:165] Memory required for data: 3696295936
I0409 02:45:18.689980  8752 layer_factory.hpp:77] Creating layer conv2_postscale
I0409 02:45:18.689997  8752 net.cpp:100] Creating Layer conv2_postscale
I0409 02:45:18.690033  8752 net.cpp:434] conv2_postscale <- conv2
I0409 02:45:18.690040  8752 net.cpp:395] conv2_postscale -> conv2 (in-place)
I0409 02:45:18.690150  8752 net.cpp:150] Setting up conv2_postscale
I0409 02:45:18.690160  8752 net.cpp:157] Top shape: 1024 150 18 18 (49766400)
I0409 02:45:18.690162  8752 net.cpp:165] Memory required for data: 3895361536
I0409 02:45:18.690176  8752 layer_factory.hpp:77] Creating layer pool2
I0409 02:45:18.690184  8752 net.cpp:100] Creating Layer pool2
I0409 02:45:18.690191  8752 net.cpp:434] pool2 <- conv2
I0409 02:45:18.690196  8752 net.cpp:408] pool2 -> pool2
I0409 02:45:18.690248  8752 net.cpp:150] Setting up pool2
I0409 02:45:18.690256  8752 net.cpp:157] Top shape: 1024 150 9 9 (12441600)
I0409 02:45:18.690259  8752 net.cpp:165] Memory required for data: 3945127936
I0409 02:45:18.690263  8752 layer_factory.hpp:77] Creating layer conv3
I0409 02:45:18.690273  8752 net.cpp:100] Creating Layer conv3
I0409 02:45:18.690276  8752 net.cpp:434] conv3 <- pool2
I0409 02:45:18.690282  8752 net.cpp:408] conv3 -> conv3
I0409 02:45:18.701828  8752 net.cpp:150] Setting up conv3
I0409 02:45:18.701849  8752 net.cpp:157] Top shape: 1024 250 6 6 (9216000)
I0409 02:45:18.701853  8752 net.cpp:165] Memory required for data: 3981991936
I0409 02:45:18.701865  8752 layer_factory.hpp:77] Creating layer conv3_prescale
I0409 02:45:18.701876  8752 net.cpp:100] Creating Layer conv3_prescale
I0409 02:45:18.701880  8752 net.cpp:434] conv3_prescale <- conv3
I0409 02:45:18.701890  8752 net.cpp:395] conv3_prescale -> conv3 (in-place)
I0409 02:45:18.702004  8752 net.cpp:150] Setting up conv3_prescale
I0409 02:45:18.702014  8752 net.cpp:157] Top shape: 1024 250 6 6 (9216000)
I0409 02:45:18.702018  8752 net.cpp:165] Memory required for data: 4018855936
I0409 02:45:18.702023  8752 layer_factory.hpp:77] Creating layer conv3_sTanH
I0409 02:45:18.702031  8752 net.cpp:100] Creating Layer conv3_sTanH
I0409 02:45:18.702035  8752 net.cpp:434] conv3_sTanH <- conv3
I0409 02:45:18.702040  8752 net.cpp:395] conv3_sTanH -> conv3 (in-place)
I0409 02:45:18.703642  8752 net.cpp:150] Setting up conv3_sTanH
I0409 02:45:18.703661  8752 net.cpp:157] Top shape: 1024 250 6 6 (9216000)
I0409 02:45:18.703665  8752 net.cpp:165] Memory required for data: 4055719936
I0409 02:45:18.703670  8752 layer_factory.hpp:77] Creating layer conv3_postscale
I0409 02:45:18.703676  8752 net.cpp:100] Creating Layer conv3_postscale
I0409 02:45:18.703680  8752 net.cpp:434] conv3_postscale <- conv3
I0409 02:45:18.703689  8752 net.cpp:395] conv3_postscale -> conv3 (in-place)
I0409 02:45:18.703806  8752 net.cpp:150] Setting up conv3_postscale
I0409 02:45:18.703819  8752 net.cpp:157] Top shape: 1024 250 6 6 (9216000)
I0409 02:45:18.703821  8752 net.cpp:165] Memory required for data: 4092583936
I0409 02:45:18.703827  8752 layer_factory.hpp:77] Creating layer pool3
I0409 02:45:18.703838  8752 net.cpp:100] Creating Layer pool3
I0409 02:45:18.703845  8752 net.cpp:434] pool3 <- conv3
I0409 02:45:18.703850  8752 net.cpp:408] pool3 -> pool3
I0409 02:45:18.703912  8752 net.cpp:150] Setting up pool3
I0409 02:45:18.703922  8752 net.cpp:157] Top shape: 1024 250 3 3 (2304000)
I0409 02:45:18.703927  8752 net.cpp:165] Memory required for data: 4101799936
I0409 02:45:18.703929  8752 layer_factory.hpp:77] Creating layer fc4_300
I0409 02:45:18.703938  8752 net.cpp:100] Creating Layer fc4_300
I0409 02:45:18.703943  8752 net.cpp:434] fc4_300 <- pool3
I0409 02:45:18.703949  8752 net.cpp:408] fc4_300 -> fc4_300
I0409 02:45:18.710542  8752 net.cpp:150] Setting up fc4_300
I0409 02:45:18.710562  8752 net.cpp:157] Top shape: 1024 300 (307200)
I0409 02:45:18.710567  8752 net.cpp:165] Memory required for data: 4103028736
I0409 02:45:18.710574  8752 layer_factory.hpp:77] Creating layer fc4_prescale
I0409 02:45:18.710585  8752 net.cpp:100] Creating Layer fc4_prescale
I0409 02:45:18.710592  8752 net.cpp:434] fc4_prescale <- fc4_300
I0409 02:45:18.710597  8752 net.cpp:395] fc4_prescale -> fc4_300 (in-place)
I0409 02:45:18.710710  8752 net.cpp:150] Setting up fc4_prescale
I0409 02:45:18.710744  8752 net.cpp:157] Top shape: 1024 300 (307200)
I0409 02:45:18.710748  8752 net.cpp:165] Memory required for data: 4104257536
I0409 02:45:18.710754  8752 layer_factory.hpp:77] Creating layer fc4_sTanH
I0409 02:45:18.710760  8752 net.cpp:100] Creating Layer fc4_sTanH
I0409 02:45:18.710765  8752 net.cpp:434] fc4_sTanH <- fc4_300
I0409 02:45:18.710773  8752 net.cpp:395] fc4_sTanH -> fc4_300 (in-place)
I0409 02:45:18.711001  8752 net.cpp:150] Setting up fc4_sTanH
I0409 02:45:18.711015  8752 net.cpp:157] Top shape: 1024 300 (307200)
I0409 02:45:18.711019  8752 net.cpp:165] Memory required for data: 4105486336
I0409 02:45:18.711022  8752 layer_factory.hpp:77] Creating layer fc4_postscale
I0409 02:45:18.711032  8752 net.cpp:100] Creating Layer fc4_postscale
I0409 02:45:18.711038  8752 net.cpp:434] fc4_postscale <- fc4_300
I0409 02:45:18.711045  8752 net.cpp:395] fc4_postscale -> fc4_300 (in-place)
I0409 02:45:18.711161  8752 net.cpp:150] Setting up fc4_postscale
I0409 02:45:18.711170  8752 net.cpp:157] Top shape: 1024 300 (307200)
I0409 02:45:18.711174  8752 net.cpp:165] Memory required for data: 4106715136
I0409 02:45:18.711179  8752 layer_factory.hpp:77] Creating layer drop4
I0409 02:45:18.711185  8752 net.cpp:100] Creating Layer drop4
I0409 02:45:18.711189  8752 net.cpp:434] drop4 <- fc4_300
I0409 02:45:18.711196  8752 net.cpp:395] drop4 -> fc4_300 (in-place)
I0409 02:45:18.711227  8752 net.cpp:150] Setting up drop4
I0409 02:45:18.711236  8752 net.cpp:157] Top shape: 1024 300 (307200)
I0409 02:45:18.711239  8752 net.cpp:165] Memory required for data: 4107943936
I0409 02:45:18.711242  8752 layer_factory.hpp:77] Creating layer fc5_67
I0409 02:45:18.711249  8752 net.cpp:100] Creating Layer fc5_67
I0409 02:45:18.711253  8752 net.cpp:434] fc5_67 <- fc4_300
I0409 02:45:18.711261  8752 net.cpp:408] fc5_67 -> fc5_classes
I0409 02:45:18.711544  8752 net.cpp:150] Setting up fc5_67
I0409 02:45:18.711555  8752 net.cpp:157] Top shape: 1024 67 (68608)
I0409 02:45:18.711557  8752 net.cpp:165] Memory required for data: 4108218368
I0409 02:45:18.711570  8752 layer_factory.hpp:77] Creating layer fc5_classes_fc5_67_0_split
I0409 02:45:18.711578  8752 net.cpp:100] Creating Layer fc5_classes_fc5_67_0_split
I0409 02:45:18.711588  8752 net.cpp:434] fc5_classes_fc5_67_0_split <- fc5_classes
I0409 02:45:18.711594  8752 net.cpp:408] fc5_classes_fc5_67_0_split -> fc5_classes_fc5_67_0_split_0
I0409 02:45:18.711603  8752 net.cpp:408] fc5_classes_fc5_67_0_split -> fc5_classes_fc5_67_0_split_1
I0409 02:45:18.711612  8752 net.cpp:408] fc5_classes_fc5_67_0_split -> fc5_classes_fc5_67_0_split_2
I0409 02:45:18.711675  8752 net.cpp:150] Setting up fc5_classes_fc5_67_0_split
I0409 02:45:18.711684  8752 net.cpp:157] Top shape: 1024 67 (68608)
I0409 02:45:18.711688  8752 net.cpp:157] Top shape: 1024 67 (68608)
I0409 02:45:18.711693  8752 net.cpp:157] Top shape: 1024 67 (68608)
I0409 02:45:18.711694  8752 net.cpp:165] Memory required for data: 4109041664
I0409 02:45:18.711699  8752 layer_factory.hpp:77] Creating layer loss
I0409 02:45:18.711704  8752 net.cpp:100] Creating Layer loss
I0409 02:45:18.711709  8752 net.cpp:434] loss <- fc5_classes_fc5_67_0_split_0
I0409 02:45:18.711712  8752 net.cpp:434] loss <- label_data_1_split_0
I0409 02:45:18.711719  8752 net.cpp:408] loss -> loss
…
