…
I0414 05:42:30.985147  4297 solver.cpp:93] Creating training net from train_net file: ./Prototxt/experiment_11/rtsd-r1/AHE/trial_4/train.prototxt
I0414 05:42:30.985616  4297 net.cpp:58] Initializing net from parameters: 
state {
  phase: TRAIN
  level: 0
  stage: ""
}
layer {
  name: "data"
  type: "Data"
  top: "data"
  top: "label"
  include {
    phase: TRAIN
  }
  transform_param {
    scale: 0.0039215689
    mirror: false
    crop_size: 48
    mean_value: 132
    mean_value: 126
    mean_value: 140
  }
  data_param {
    source: "../local_data/lmdb/rtsd-r1/AHE/train/lmdb"
    batch_size: 1024
    backend: LMDB
  }
}
layer {
  name: "conv1"
  type: "Convolution"
  bottom: "data"
  top: "conv1"
  convolution_param {
    num_output: 100
    pad: 0
    kernel_size: 7
    group: 1
    stride: 1
    weight_filler {
      type: "xavier"
    }
  }
}
layer {
  name: "conv1_prescale"
  type: "Scale"
  bottom: "conv1"
  top: "conv1"
  param {
    lr_mult: 0
    decay_mult: 0
  }
  scale_param {
    filler {
      value: 0.6666
    }
    bias_term: false
  }
}
layer {
  name: "conv1_sTanH"
  type: "TanH"
  bottom: "conv1"
  top: "conv1"
}
layer {
  name: "conv1_postscale"
  type: "Scale"
  bottom: "conv1"
  top: "conv1"
  param {
    lr_mult: 0
    decay_mult: 0
  }
  scale_param {
    filler {
      value: 1.7159
    }
    bias_term: false
  }
}
layer {
  name: "pool1"
  type: "Pooling"
  bottom: "conv1"
  top: "pool1"
  pooling_param {
    pool: MAX
    kernel_size: 2
    stride: 2
  }
}
layer {
  name: "conv2"
  type: "Convolution"
  bottom: "pool1"
  top: "conv2"
  convolution_param {
    num_output: 150
    pad: 0
    kernel_size: 4
    group: 1
    stride: 1
    weight_filler {
      type: "xavier"
    }
  }
}
layer {
  name: "conv2_prescale"
  type: "Scale"
  bottom: "conv2"
  top: "conv2"
  param {
    lr_mult: 0
    decay_mult: 0
  }
  scale_param {
    filler {
      value: 0.6666
    }
    bias_term: false
  }
}
layer {
  name: "conv2_sTanH"
  type: "TanH"
  bottom: "conv2"
  top: "conv2"
}
layer {
  name: "conv2_postscale"
  type: "Scale"
  bottom: "conv2"
  top: "conv2"
  param {
    lr_mult: 0
    decay_mult: 0
  }
  scale_param {
    filler {
      value: 1.7159
    }
    bias_term: false
  }
}
layer {
  name: "pool2"
  type: "Pooling"
  bottom: "conv2"
  top: "pool2"
  pooling_param {
    pool: MAX
    kernel_size: 2
    stride: 2
  }
}
layer {
  name: "conv3"
  type: "Convolution"
  bottom: "pool2"
  top: "conv3"
  convolution_param {
    num_output: 250
    pad: 0
    kernel_size: 4
    group: 1
    stride: 1
    weight_filler {
      type: "xavier"
    }
  }
}
layer {
  name: "conv3_prescale"
  type: "Scale"
  bottom: "conv3"
  top: "conv3"
  param {
    lr_mult: 0
    decay_mult: 0
  }
  scale_param {
    filler {
      value: 0.6666
    }
    bias_term: false
  }
}
layer {
  name: "conv3_sTanH"
  type: "TanH"
  bottom: "conv3"
  top: "conv3"
}
layer {
  name: "conv3_postscale"
  type: "Scale"
  bottom: "conv3"
  top: "conv3"
  param {
    lr_mult: 0
    decay_mult: 0
  }
  scale_param {
    filler {
      value: 1.7159
    }
    bias_term: false
  }
}
layer {
  name: "pool3"
  type: "Pooling"
  bottom: "conv3"
  top: "pool3"
  pooling_param {
    pool: MAX
    kernel_size: 2
    stride: 2
  }
}
layer {
  name: "fc4_300"
  type: "InnerProduct"
  bottom: "pool3"
  top: "fc4_300"
  inner_product_param {
    num_output: 300
    weight_filler {
      type: "xavier"
    }
  }
}
layer {
  name: "fc4_prescale"
  type: "Scale"
  bottom: "fc4_300"
  top: "fc4_300"
  param {
    lr_mult: 0
    decay_mult: 0
  }
  scale_param {
    filler {
      value: 0.6666
    }
    bias_term: false
  }
}
layer {
  name: "fc4_sTanH"
  type: "TanH"
  bottom: "fc4_300"
  top: "fc4_300"
}
layer {
  name: "fc4_postscale"
  type: "Scale"
  bottom: "fc4_300"
  top: "fc4_300"
  param {
    lr_mult: 0
    decay_mult: 0
  }
  scale_param {
    filler {
      value: 1.7159
    }
    bias_term: false
  }
}
layer {
  name: "fc5_67"
  type: "InnerProduct"
  bottom: "fc4_300"
  top: "fc5_classes"
  inner_product_param {
    num_output: 67
    weight_filler {
      type: "xavier"
    }
  }
}
layer {
  name: "softmax"
  type: "Softmax"
  bottom: "fc5_classes"
  top: "softmax"
}
layer {
  name: "loss"
  type: "MultinomialLogisticLoss"
  bottom: "softmax"
  bottom: "label"
  top: "loss"
}
layer {
  name: "accuracy_1"
  type: "Accuracy"
  bottom: "fc5_classes"
  bottom: "label"
  top: "accuracy_1"
  accuracy_param {
    top_k: 1
  }
}
layer {
  name: "accuracy_5"
  type: "Accuracy"
  bottom: "fc5_classes"
  bottom: "label"
  top: "accuracy_5"
  accuracy_param {
    top_k: 5
  }
}
layer {
  name: "silence"
  type: "Silence"
  bottom: "accuracy_1"
  bottom: "accuracy_5"
}
I0414 05:42:30.985775  4297 layer_factory.hpp:77] Creating layer data
I0414 05:42:30.986863  4297 net.cpp:100] Creating Layer data
I0414 05:42:30.986881  4297 net.cpp:408] data -> data
I0414 05:42:30.986903  4297 net.cpp:408] data -> label
I0414 05:42:30.993868  4406 db_lmdb.cpp:35] Opened lmdb ../local_data/lmdb/rtsd-r1/AHE/train/lmdb
I0414 05:42:31.022339  4297 data_layer.cpp:41] output data size: 1024,3,48,48
I0414 05:42:31.081816  4297 net.cpp:150] Setting up data
I0414 05:42:31.081848  4297 net.cpp:157] Top shape: 1024 3 48 48 (7077888)
I0414 05:42:31.081854  4297 net.cpp:157] Top shape: 1024 (1024)
I0414 05:42:31.081856  4297 net.cpp:165] Memory required for data: 28315648
I0414 05:42:31.081869  4297 layer_factory.hpp:77] Creating layer label_data_1_split
I0414 05:42:31.081884  4297 net.cpp:100] Creating Layer label_data_1_split
I0414 05:42:31.081890  4297 net.cpp:434] label_data_1_split <- label
I0414 05:42:31.081909  4297 net.cpp:408] label_data_1_split -> label_data_1_split_0
I0414 05:42:31.081923  4297 net.cpp:408] label_data_1_split -> label_data_1_split_1
I0414 05:42:31.081931  4297 net.cpp:408] label_data_1_split -> label_data_1_split_2
I0414 05:42:31.082000  4297 net.cpp:150] Setting up label_data_1_split
I0414 05:42:31.082010  4297 net.cpp:157] Top shape: 1024 (1024)
I0414 05:42:31.082015  4297 net.cpp:157] Top shape: 1024 (1024)
I0414 05:42:31.082018  4297 net.cpp:157] Top shape: 1024 (1024)
I0414 05:42:31.082020  4297 net.cpp:165] Memory required for data: 28327936
I0414 05:42:31.082023  4297 layer_factory.hpp:77] Creating layer conv1
I0414 05:42:31.082041  4297 net.cpp:100] Creating Layer conv1
I0414 05:42:31.082046  4297 net.cpp:434] conv1 <- data
I0414 05:42:31.082051  4297 net.cpp:408] conv1 -> conv1
I0414 05:42:31.464771  4297 net.cpp:150] Setting up conv1
I0414 05:42:31.464802  4297 net.cpp:157] Top shape: 1024 100 42 42 (180633600)
I0414 05:42:31.464805  4297 net.cpp:165] Memory required for data: 750862336
I0414 05:42:31.464833  4297 layer_factory.hpp:77] Creating layer conv1_prescale
I0414 05:42:31.464845  4297 net.cpp:100] Creating Layer conv1_prescale
I0414 05:42:31.464850  4297 net.cpp:434] conv1_prescale <- conv1
I0414 05:42:31.464857  4297 net.cpp:395] conv1_prescale -> conv1 (in-place)
I0414 05:42:31.464967  4297 net.cpp:150] Setting up conv1_prescale
I0414 05:42:31.464977  4297 net.cpp:157] Top shape: 1024 100 42 42 (180633600)
I0414 05:42:31.464980  4297 net.cpp:165] Memory required for data: 1473396736
I0414 05:42:31.464987  4297 layer_factory.hpp:77] Creating layer conv1_sTanH
I0414 05:42:31.464996  4297 net.cpp:100] Creating Layer conv1_sTanH
I0414 05:42:31.465001  4297 net.cpp:434] conv1_sTanH <- conv1
I0414 05:42:31.465006  4297 net.cpp:395] conv1_sTanH -> conv1 (in-place)
I0414 05:42:31.465198  4297 net.cpp:150] Setting up conv1_sTanH
I0414 05:42:31.465210  4297 net.cpp:157] Top shape: 1024 100 42 42 (180633600)
I0414 05:42:31.465235  4297 net.cpp:165] Memory required for data: 2195931136
I0414 05:42:31.465240  4297 layer_factory.hpp:77] Creating layer conv1_postscale
I0414 05:42:31.465247  4297 net.cpp:100] Creating Layer conv1_postscale
I0414 05:42:31.465251  4297 net.cpp:434] conv1_postscale <- conv1
I0414 05:42:31.465256  4297 net.cpp:395] conv1_postscale -> conv1 (in-place)
I0414 05:42:31.465353  4297 net.cpp:150] Setting up conv1_postscale
I0414 05:42:31.465368  4297 net.cpp:157] Top shape: 1024 100 42 42 (180633600)
I0414 05:42:31.465370  4297 net.cpp:165] Memory required for data: 2918465536
I0414 05:42:31.465375  4297 layer_factory.hpp:77] Creating layer pool1
I0414 05:42:31.465381  4297 net.cpp:100] Creating Layer pool1
I0414 05:42:31.465384  4297 net.cpp:434] pool1 <- conv1
I0414 05:42:31.465390  4297 net.cpp:408] pool1 -> pool1
I0414 05:42:31.465438  4297 net.cpp:150] Setting up pool1
I0414 05:42:31.465446  4297 net.cpp:157] Top shape: 1024 100 21 21 (45158400)
I0414 05:42:31.465450  4297 net.cpp:165] Memory required for data: 3099099136
I0414 05:42:31.465452  4297 layer_factory.hpp:77] Creating layer conv2
I0414 05:42:31.465463  4297 net.cpp:100] Creating Layer conv2
I0414 05:42:31.465468  4297 net.cpp:434] conv2 <- pool1
I0414 05:42:31.465474  4297 net.cpp:408] conv2 -> conv2
I0414 05:42:31.471299  4297 net.cpp:150] Setting up conv2
I0414 05:42:31.471319  4297 net.cpp:157] Top shape: 1024 150 18 18 (49766400)
I0414 05:42:31.471324  4297 net.cpp:165] Memory required for data: 3298164736
I0414 05:42:31.471341  4297 layer_factory.hpp:77] Creating layer conv2_prescale
I0414 05:42:31.471357  4297 net.cpp:100] Creating Layer conv2_prescale
I0414 05:42:31.471364  4297 net.cpp:434] conv2_prescale <- conv2
I0414 05:42:31.471374  4297 net.cpp:395] conv2_prescale -> conv2 (in-place)
I0414 05:42:31.471503  4297 net.cpp:150] Setting up conv2_prescale
I0414 05:42:31.471513  4297 net.cpp:157] Top shape: 1024 150 18 18 (49766400)
I0414 05:42:31.471518  4297 net.cpp:165] Memory required for data: 3497230336
I0414 05:42:31.471524  4297 layer_factory.hpp:77] Creating layer conv2_sTanH
I0414 05:42:31.471531  4297 net.cpp:100] Creating Layer conv2_sTanH
I0414 05:42:31.471536  4297 net.cpp:434] conv2_sTanH <- conv2
I0414 05:42:31.471541  4297 net.cpp:395] conv2_sTanH -> conv2 (in-place)
I0414 05:42:31.492071  4297 net.cpp:150] Setting up conv2_sTanH
I0414 05:42:31.492089  4297 net.cpp:157] Top shape: 1024 150 18 18 (49766400)
I0414 05:42:31.492094  4297 net.cpp:165] Memory required for data: 3696295936
I0414 05:42:31.492097  4297 layer_factory.hpp:77] Creating layer conv2_postscale
I0414 05:42:31.492105  4297 net.cpp:100] Creating Layer conv2_postscale
I0414 05:42:31.492111  4297 net.cpp:434] conv2_postscale <- conv2
I0414 05:42:31.492117  4297 net.cpp:395] conv2_postscale -> conv2 (in-place)
I0414 05:42:31.492216  4297 net.cpp:150] Setting up conv2_postscale
I0414 05:42:31.492225  4297 net.cpp:157] Top shape: 1024 150 18 18 (49766400)
I0414 05:42:31.492230  4297 net.cpp:165] Memory required for data: 3895361536
I0414 05:42:31.492236  4297 layer_factory.hpp:77] Creating layer pool2
I0414 05:42:31.492243  4297 net.cpp:100] Creating Layer pool2
I0414 05:42:31.492247  4297 net.cpp:434] pool2 <- conv2
I0414 05:42:31.492252  4297 net.cpp:408] pool2 -> pool2
I0414 05:42:31.492295  4297 net.cpp:150] Setting up pool2
I0414 05:42:31.492302  4297 net.cpp:157] Top shape: 1024 150 9 9 (12441600)
I0414 05:42:31.492306  4297 net.cpp:165] Memory required for data: 3945127936
I0414 05:42:31.492311  4297 layer_factory.hpp:77] Creating layer conv3
I0414 05:42:31.492318  4297 net.cpp:100] Creating Layer conv3
I0414 05:42:31.492323  4297 net.cpp:434] conv3 <- pool2
I0414 05:42:31.492328  4297 net.cpp:408] conv3 -> conv3
I0414 05:42:31.498129  4297 net.cpp:150] Setting up conv3
I0414 05:42:31.498147  4297 net.cpp:157] Top shape: 1024 250 6 6 (9216000)
I0414 05:42:31.498152  4297 net.cpp:165] Memory required for data: 3981991936
I0414 05:42:31.498165  4297 layer_factory.hpp:77] Creating layer conv3_prescale
I0414 05:42:31.498198  4297 net.cpp:100] Creating Layer conv3_prescale
I0414 05:42:31.498206  4297 net.cpp:434] conv3_prescale <- conv3
I0414 05:42:31.498214  4297 net.cpp:395] conv3_prescale -> conv3 (in-place)
I0414 05:42:31.498314  4297 net.cpp:150] Setting up conv3_prescale
I0414 05:42:31.498323  4297 net.cpp:157] Top shape: 1024 250 6 6 (9216000)
I0414 05:42:31.498330  4297 net.cpp:165] Memory required for data: 4018855936
I0414 05:42:31.498340  4297 layer_factory.hpp:77] Creating layer conv3_sTanH
I0414 05:42:31.498350  4297 net.cpp:100] Creating Layer conv3_sTanH
I0414 05:42:31.498358  4297 net.cpp:434] conv3_sTanH <- conv3
I0414 05:42:31.498363  4297 net.cpp:395] conv3_sTanH -> conv3 (in-place)
I0414 05:42:31.500733  4297 net.cpp:150] Setting up conv3_sTanH
I0414 05:42:31.500749  4297 net.cpp:157] Top shape: 1024 250 6 6 (9216000)
I0414 05:42:31.500752  4297 net.cpp:165] Memory required for data: 4055719936
I0414 05:42:31.500756  4297 layer_factory.hpp:77] Creating layer conv3_postscale
I0414 05:42:31.500764  4297 net.cpp:100] Creating Layer conv3_postscale
I0414 05:42:31.500768  4297 net.cpp:434] conv3_postscale <- conv3
I0414 05:42:31.500773  4297 net.cpp:395] conv3_postscale -> conv3 (in-place)
I0414 05:42:31.500867  4297 net.cpp:150] Setting up conv3_postscale
I0414 05:42:31.500876  4297 net.cpp:157] Top shape: 1024 250 6 6 (9216000)
I0414 05:42:31.500880  4297 net.cpp:165] Memory required for data: 4092583936
I0414 05:42:31.500885  4297 layer_factory.hpp:77] Creating layer pool3
I0414 05:42:31.500900  4297 net.cpp:100] Creating Layer pool3
I0414 05:42:31.500905  4297 net.cpp:434] pool3 <- conv3
I0414 05:42:31.500912  4297 net.cpp:408] pool3 -> pool3
I0414 05:42:31.500955  4297 net.cpp:150] Setting up pool3
I0414 05:42:31.500963  4297 net.cpp:157] Top shape: 1024 250 3 3 (2304000)
I0414 05:42:31.500967  4297 net.cpp:165] Memory required for data: 4101799936
I0414 05:42:31.500972  4297 layer_factory.hpp:77] Creating layer fc4_300
I0414 05:42:31.500982  4297 net.cpp:100] Creating Layer fc4_300
I0414 05:42:31.500986  4297 net.cpp:434] fc4_300 <- pool3
I0414 05:42:31.500991  4297 net.cpp:408] fc4_300 -> fc4_300
I0414 05:42:31.506592  4297 net.cpp:150] Setting up fc4_300
I0414 05:42:31.506608  4297 net.cpp:157] Top shape: 1024 300 (307200)
I0414 05:42:31.506613  4297 net.cpp:165] Memory required for data: 4103028736
I0414 05:42:31.506623  4297 layer_factory.hpp:77] Creating layer fc4_prescale
I0414 05:42:31.506634  4297 net.cpp:100] Creating Layer fc4_prescale
I0414 05:42:31.506641  4297 net.cpp:434] fc4_prescale <- fc4_300
I0414 05:42:31.506647  4297 net.cpp:395] fc4_prescale -> fc4_300 (in-place)
I0414 05:42:31.506744  4297 net.cpp:150] Setting up fc4_prescale
I0414 05:42:31.506753  4297 net.cpp:157] Top shape: 1024 300 (307200)
I0414 05:42:31.506760  4297 net.cpp:165] Memory required for data: 4104257536
I0414 05:42:31.506768  4297 layer_factory.hpp:77] Creating layer fc4_sTanH
I0414 05:42:31.506778  4297 net.cpp:100] Creating Layer fc4_sTanH
I0414 05:42:31.506784  4297 net.cpp:434] fc4_sTanH <- fc4_300
I0414 05:42:31.506791  4297 net.cpp:395] fc4_sTanH -> fc4_300 (in-place)
I0414 05:42:31.506978  4297 net.cpp:150] Setting up fc4_sTanH
I0414 05:42:31.506990  4297 net.cpp:157] Top shape: 1024 300 (307200)
I0414 05:42:31.506994  4297 net.cpp:165] Memory required for data: 4105486336
I0414 05:42:31.506999  4297 layer_factory.hpp:77] Creating layer fc4_postscale
I0414 05:42:31.507005  4297 net.cpp:100] Creating Layer fc4_postscale
I0414 05:42:31.507010  4297 net.cpp:434] fc4_postscale <- fc4_300
I0414 05:42:31.507016  4297 net.cpp:395] fc4_postscale -> fc4_300 (in-place)
I0414 05:42:31.507109  4297 net.cpp:150] Setting up fc4_postscale
I0414 05:42:31.507118  4297 net.cpp:157] Top shape: 1024 300 (307200)
I0414 05:42:31.507120  4297 net.cpp:165] Memory required for data: 4106715136
I0414 05:42:31.507129  4297 layer_factory.hpp:77] Creating layer fc5_67
I0414 05:42:31.507140  4297 net.cpp:100] Creating Layer fc5_67
I0414 05:42:31.507148  4297 net.cpp:434] fc5_67 <- fc4_300
I0414 05:42:31.507155  4297 net.cpp:408] fc5_67 -> fc5_classes
I0414 05:42:31.514077  4297 net.cpp:150] Setting up fc5_67
I0414 05:42:31.514093  4297 net.cpp:157] Top shape: 1024 67 (68608)
I0414 05:42:31.514096  4297 net.cpp:165] Memory required for data: 4106989568
I0414 05:42:31.514107  4297 layer_factory.hpp:77] Creating layer fc5_classes_fc5_67_0_split
I0414 05:42:31.514116  4297 net.cpp:100] Creating Layer fc5_classes_fc5_67_0_split
I0414 05:42:31.514118  4297 net.cpp:434] fc5_classes_fc5_67_0_split <- fc5_classes
I0414 05:42:31.514124  4297 net.cpp:408] fc5_classes_fc5_67_0_split -> fc5_classes_fc5_67_0_split_0
I0414 05:42:31.514132  4297 net.cpp:408] fc5_classes_fc5_67_0_split -> fc5_classes_fc5_67_0_split_1
I0414 05:42:31.514142  4297 net.cpp:408] fc5_classes_fc5_67_0_split -> fc5_classes_fc5_67_0_split_2
I0414 05:42:31.514194  4297 net.cpp:150] Setting up fc5_classes_fc5_67_0_split
I0414 05:42:31.514201  4297 net.cpp:157] Top shape: 1024 67 (68608)
I0414 05:42:31.514204  4297 net.cpp:157] Top shape: 1024 67 (68608)
I0414 05:42:31.514209  4297 net.cpp:157] Top shape: 1024 67 (68608)
I0414 05:42:31.514210  4297 net.cpp:165] Memory required for data: 4107812864
I0414 05:42:31.514214  4297 layer_factory.hpp:77] Creating layer softmax
I0414 05:42:31.514219  4297 net.cpp:100] Creating Layer softmax
I0414 05:42:31.514225  4297 net.cpp:434] softmax <- fc5_classes_fc5_67_0_split_0
I0414 05:42:31.514230  4297 net.cpp:408] softmax -> softmax
I0414 05:42:31.514484  4297 net.cpp:150] Setting up softmax
I0414 05:42:31.514497  4297 net.cpp:157] Top shape: 1024 67 (68608)
I0414 05:42:31.514499  4297 net.cpp:165] Memory required for data: 4108087296
I0414 05:42:31.514503  4297 layer_factory.hpp:77] Creating layer loss
I0414 05:42:31.514509  4297 net.cpp:100] Creating Layer loss
I0414 05:42:31.514513  4297 net.cpp:434] loss <- softmax
I0414 05:42:31.514518  4297 net.cpp:434] loss <- label_data_1_split_0
I0414 05:42:31.514523  4297 net.cpp:408] loss -> loss
…
