…
I0417 18:45:25.618393 17962 solver.cpp:93] Creating training net from train_net file: ./Prototxt/experiment_11/rtsd-r1/AHE/trial_4/train.prototxt
I0417 18:45:25.619192 17962 net.cpp:58] Initializing net from parameters: 
state {
  phase: TRAIN
  level: 0
  stage: ""
}
layer {
  name: "data"
  type: "Data"
  top: "data"
  top: "label"
  include {
    phase: TRAIN
  }
  transform_param {
    scale: 0.0039215689
    mirror: false
    crop_size: 48
    mean_value: 132
    mean_value: 126
    mean_value: 140
  }
  data_param {
    source: "../local_data/lmdb/rtsd-r1/AHE/train/lmdb"
    batch_size: 1024
    backend: LMDB
  }
}
layer {
  name: "conv1"
  type: "Convolution"
  bottom: "data"
  top: "conv1"
  convolution_param {
    num_output: 100
    pad: 0
    kernel_size: 7
    group: 1
    stride: 1
    weight_filler {
      type: "xavier"
    }
  }
}
layer {
  name: "conv1_prescale"
  type: "Scale"
  bottom: "conv1"
  top: "conv1"
  param {
    lr_mult: 0
    decay_mult: 0
  }
  scale_param {
    filler {
      value: 0.6666
    }
    bias_term: false
  }
}
layer {
  name: "conv1_sTanH"
  type: "TanH"
  bottom: "conv1"
  top: "conv1"
}
layer {
  name: "conv1_postscale"
  type: "Scale"
  bottom: "conv1"
  top: "conv1"
  param {
    lr_mult: 0
    decay_mult: 0
  }
  scale_param {
    filler {
      value: 1.7159
    }
    bias_term: false
  }
}
layer {
  name: "pool1"
  type: "Pooling"
  bottom: "conv1"
  top: "pool1"
  pooling_param {
    pool: MAX
    kernel_size: 2
    stride: 2
  }
}
layer {
  name: "conv2"
  type: "Convolution"
  bottom: "pool1"
  top: "conv2"
  convolution_param {
    num_output: 150
    pad: 0
    kernel_size: 4
    group: 1
    stride: 1
    weight_filler {
      type: "xavier"
    }
  }
}
layer {
  name: "conv2_prescale"
  type: "Scale"
  bottom: "conv2"
  top: "conv2"
  param {
    lr_mult: 0
    decay_mult: 0
  }
  scale_param {
    filler {
      value: 0.6666
    }
    bias_term: false
  }
}
layer {
  name: "conv2_sTanH"
  type: "TanH"
  bottom: "conv2"
  top: "conv2"
}
layer {
  name: "conv2_postscale"
  type: "Scale"
  bottom: "conv2"
  top: "conv2"
  param {
    lr_mult: 0
    decay_mult: 0
  }
  scale_param {
    filler {
      value: 1.7159
    }
    bias_term: false
  }
}
layer {
  name: "pool2"
  type: "Pooling"
  bottom: "conv2"
  top: "pool2"
  pooling_param {
    pool: MAX
    kernel_size: 2
    stride: 2
  }
}
layer {
  name: "conv3"
  type: "Convolution"
  bottom: "pool2"
  top: "conv3"
  convolution_param {
    num_output: 250
    pad: 0
    kernel_size: 4
    group: 1
    stride: 1
    weight_filler {
      type: "xavier"
    }
  }
}
layer {
  name: "conv3_prescale"
  type: "Scale"
  bottom: "conv3"
  top: "conv3"
  param {
    lr_mult: 0
    decay_mult: 0
  }
  scale_param {
    filler {
      value: 0.6666
    }
    bias_term: false
  }
}
layer {
  name: "conv3_sTanH"
  type: "TanH"
  bottom: "conv3"
  top: "conv3"
}
layer {
  name: "conv3_postscale"
  type: "Scale"
  bottom: "conv3"
  top: "conv3"
  param {
    lr_mult: 0
    decay_mult: 0
  }
  scale_param {
    filler {
      value: 1.7159
    }
    bias_term: false
  }
}
layer {
  name: "pool3"
  type: "Pooling"
  bottom: "conv3"
  top: "pool3"
  pooling_param {
    pool: MAX
    kernel_size: 2
    stride: 2
  }
}
layer {
  name: "fc4_300"
  type: "InnerProduct"
  bottom: "pool3"
  top: "fc4_300"
  inner_product_param {
    num_output: 300
    weight_filler {
      type: "xavier"
    }
  }
}
layer {
  name: "fc4_prescale"
  type: "Scale"
  bottom: "fc4_300"
  top: "fc4_300"
  param {
    lr_mult: 0
    decay_mult: 0
  }
  scale_param {
    filler {
      value: 0.6666
    }
    bias_term: false
  }
}
layer {
  name: "fc4_sTanH"
  type: "TanH"
  bottom: "fc4_300"
  top: "fc4_300"
}
layer {
  name: "fc4_postscale"
  type: "Scale"
  bottom: "fc4_300"
  top: "fc4_300"
  param {
    lr_mult: 0
    decay_mult: 0
  }
  scale_param {
    filler {
      value: 1.7159
    }
    bias_term: false
  }
}
layer {
  name: "fc5_67"
  type: "InnerProduct"
  bottom: "fc4_300"
  top: "fc5_classes"
  inner_product_param {
    num_output: 67
    weight_filler {
      type: "xavier"
    }
  }
}
layer {
  name: "softmax"
  type: "Softmax"
  bottom: "fc5_classes"
  top: "softmax"
}
layer {
  name: "loss"
  type: "MultinomialLogisticLoss"
  bottom: "softmax"
  bottom: "label"
  top: "loss"
}
layer {
  name: "accuracy_1"
  type: "Accuracy"
  bottom: "fc5_classes"
  bottom: "label"
  top: "accuracy_1"
  accuracy_param {
    top_k: 1
  }
}
layer {
  name: "accuracy_5"
  type: "Accuracy"
  bottom: "fc5_classes"
  bottom: "label"
  top: "accuracy_5"
  accuracy_param {
    top_k: 5
  }
}
layer {
  name: "silence"
  type: "Silence"
  bottom: "accuracy_1"
  bottom: "accuracy_5"
}
I0417 18:45:25.619431 17962 layer_factory.hpp:77] Creating layer data
I0417 18:45:25.621080 17962 net.cpp:100] Creating Layer data
I0417 18:45:25.621104 17962 net.cpp:408] data -> data
I0417 18:45:25.621136 17962 net.cpp:408] data -> label
I0417 18:45:25.629580 18103 db_lmdb.cpp:35] Opened lmdb ../local_data/lmdb/rtsd-r1/AHE/train/lmdb
I0417 18:45:25.654774 17962 data_layer.cpp:41] output data size: 1024,3,48,48
I0417 18:45:25.722244 17962 net.cpp:150] Setting up data
I0417 18:45:25.722272 17962 net.cpp:157] Top shape: 1024 3 48 48 (7077888)
I0417 18:45:25.722277 17962 net.cpp:157] Top shape: 1024 (1024)
I0417 18:45:25.722280 17962 net.cpp:165] Memory required for data: 28315648
I0417 18:45:25.722292 17962 layer_factory.hpp:77] Creating layer label_data_1_split
I0417 18:45:25.722307 17962 net.cpp:100] Creating Layer label_data_1_split
I0417 18:45:25.722314 17962 net.cpp:434] label_data_1_split <- label
I0417 18:45:25.722329 17962 net.cpp:408] label_data_1_split -> label_data_1_split_0
I0417 18:45:25.722342 17962 net.cpp:408] label_data_1_split -> label_data_1_split_1
I0417 18:45:25.722349 17962 net.cpp:408] label_data_1_split -> label_data_1_split_2
I0417 18:45:25.722430 17962 net.cpp:150] Setting up label_data_1_split
I0417 18:45:25.722440 17962 net.cpp:157] Top shape: 1024 (1024)
I0417 18:45:25.722445 17962 net.cpp:157] Top shape: 1024 (1024)
I0417 18:45:25.722448 17962 net.cpp:157] Top shape: 1024 (1024)
I0417 18:45:25.722451 17962 net.cpp:165] Memory required for data: 28327936
I0417 18:45:25.722455 17962 layer_factory.hpp:77] Creating layer conv1
I0417 18:45:25.722471 17962 net.cpp:100] Creating Layer conv1
I0417 18:45:25.722476 17962 net.cpp:434] conv1 <- data
I0417 18:45:25.722481 17962 net.cpp:408] conv1 -> conv1
I0417 18:45:26.409488 17962 net.cpp:150] Setting up conv1
I0417 18:45:26.409518 17962 net.cpp:157] Top shape: 1024 100 42 42 (180633600)
I0417 18:45:26.409523 17962 net.cpp:165] Memory required for data: 750862336
I0417 18:45:26.409544 17962 layer_factory.hpp:77] Creating layer conv1_prescale
I0417 18:45:26.409557 17962 net.cpp:100] Creating Layer conv1_prescale
I0417 18:45:26.409565 17962 net.cpp:434] conv1_prescale <- conv1
I0417 18:45:26.409572 17962 net.cpp:395] conv1_prescale -> conv1 (in-place)
I0417 18:45:26.409682 17962 net.cpp:150] Setting up conv1_prescale
I0417 18:45:26.409692 17962 net.cpp:157] Top shape: 1024 100 42 42 (180633600)
I0417 18:45:26.409694 17962 net.cpp:165] Memory required for data: 1473396736
I0417 18:45:26.409701 17962 layer_factory.hpp:77] Creating layer conv1_sTanH
I0417 18:45:26.409709 17962 net.cpp:100] Creating Layer conv1_sTanH
I0417 18:45:26.409714 17962 net.cpp:434] conv1_sTanH <- conv1
I0417 18:45:26.409719 17962 net.cpp:395] conv1_sTanH -> conv1 (in-place)
I0417 18:45:26.409915 17962 net.cpp:150] Setting up conv1_sTanH
I0417 18:45:26.409926 17962 net.cpp:157] Top shape: 1024 100 42 42 (180633600)
I0417 18:45:26.409955 17962 net.cpp:165] Memory required for data: 2195931136
I0417 18:45:26.409960 17962 layer_factory.hpp:77] Creating layer conv1_postscale
I0417 18:45:26.409967 17962 net.cpp:100] Creating Layer conv1_postscale
I0417 18:45:26.409970 17962 net.cpp:434] conv1_postscale <- conv1
I0417 18:45:26.409976 17962 net.cpp:395] conv1_postscale -> conv1 (in-place)
I0417 18:45:26.410073 17962 net.cpp:150] Setting up conv1_postscale
I0417 18:45:26.410080 17962 net.cpp:157] Top shape: 1024 100 42 42 (180633600)
I0417 18:45:26.410084 17962 net.cpp:165] Memory required for data: 2918465536
I0417 18:45:26.410087 17962 layer_factory.hpp:77] Creating layer pool1
I0417 18:45:26.410094 17962 net.cpp:100] Creating Layer pool1
I0417 18:45:26.410097 17962 net.cpp:434] pool1 <- conv1
I0417 18:45:26.410102 17962 net.cpp:408] pool1 -> pool1
I0417 18:45:26.410148 17962 net.cpp:150] Setting up pool1
I0417 18:45:26.410156 17962 net.cpp:157] Top shape: 1024 100 21 21 (45158400)
I0417 18:45:26.410158 17962 net.cpp:165] Memory required for data: 3099099136
I0417 18:45:26.410161 17962 layer_factory.hpp:77] Creating layer conv2
I0417 18:45:26.410171 17962 net.cpp:100] Creating Layer conv2
I0417 18:45:26.410176 17962 net.cpp:434] conv2 <- pool1
I0417 18:45:26.410181 17962 net.cpp:408] conv2 -> conv2
I0417 18:45:26.416744 17962 net.cpp:150] Setting up conv2
I0417 18:45:26.416770 17962 net.cpp:157] Top shape: 1024 150 18 18 (49766400)
I0417 18:45:26.416774 17962 net.cpp:165] Memory required for data: 3298164736
I0417 18:45:26.416788 17962 layer_factory.hpp:77] Creating layer conv2_prescale
I0417 18:45:26.416801 17962 net.cpp:100] Creating Layer conv2_prescale
I0417 18:45:26.416807 17962 net.cpp:434] conv2_prescale <- conv2
I0417 18:45:26.416815 17962 net.cpp:395] conv2_prescale -> conv2 (in-place)
I0417 18:45:26.416924 17962 net.cpp:150] Setting up conv2_prescale
I0417 18:45:26.416932 17962 net.cpp:157] Top shape: 1024 150 18 18 (49766400)
I0417 18:45:26.416935 17962 net.cpp:165] Memory required for data: 3497230336
I0417 18:45:26.416940 17962 layer_factory.hpp:77] Creating layer conv2_sTanH
I0417 18:45:26.416946 17962 net.cpp:100] Creating Layer conv2_sTanH
I0417 18:45:26.416949 17962 net.cpp:434] conv2_sTanH <- conv2
I0417 18:45:26.416954 17962 net.cpp:395] conv2_sTanH -> conv2 (in-place)
I0417 18:45:26.418411 17962 net.cpp:150] Setting up conv2_sTanH
I0417 18:45:26.418426 17962 net.cpp:157] Top shape: 1024 150 18 18 (49766400)
I0417 18:45:26.418429 17962 net.cpp:165] Memory required for data: 3696295936
I0417 18:45:26.418432 17962 layer_factory.hpp:77] Creating layer conv2_postscale
I0417 18:45:26.418439 17962 net.cpp:100] Creating Layer conv2_postscale
I0417 18:45:26.418442 17962 net.cpp:434] conv2_postscale <- conv2
I0417 18:45:26.418448 17962 net.cpp:395] conv2_postscale -> conv2 (in-place)
I0417 18:45:26.418545 17962 net.cpp:150] Setting up conv2_postscale
I0417 18:45:26.418553 17962 net.cpp:157] Top shape: 1024 150 18 18 (49766400)
I0417 18:45:26.418556 17962 net.cpp:165] Memory required for data: 3895361536
I0417 18:45:26.418561 17962 layer_factory.hpp:77] Creating layer pool2
I0417 18:45:26.418568 17962 net.cpp:100] Creating Layer pool2
I0417 18:45:26.418571 17962 net.cpp:434] pool2 <- conv2
I0417 18:45:26.418576 17962 net.cpp:408] pool2 -> pool2
I0417 18:45:26.418622 17962 net.cpp:150] Setting up pool2
I0417 18:45:26.418630 17962 net.cpp:157] Top shape: 1024 150 9 9 (12441600)
I0417 18:45:26.418633 17962 net.cpp:165] Memory required for data: 3945127936
I0417 18:45:26.418635 17962 layer_factory.hpp:77] Creating layer conv3
I0417 18:45:26.418645 17962 net.cpp:100] Creating Layer conv3
I0417 18:45:26.418653 17962 net.cpp:434] conv3 <- pool2
I0417 18:45:26.418658 17962 net.cpp:408] conv3 -> conv3
I0417 18:45:26.425155 17962 net.cpp:150] Setting up conv3
I0417 18:45:26.425184 17962 net.cpp:157] Top shape: 1024 250 6 6 (9216000)
I0417 18:45:26.425187 17962 net.cpp:165] Memory required for data: 3981991936
I0417 18:45:26.425204 17962 layer_factory.hpp:77] Creating layer conv3_prescale
I0417 18:45:26.425235 17962 net.cpp:100] Creating Layer conv3_prescale
I0417 18:45:26.425240 17962 net.cpp:434] conv3_prescale <- conv3
I0417 18:45:26.425249 17962 net.cpp:395] conv3_prescale -> conv3 (in-place)
I0417 18:45:26.425355 17962 net.cpp:150] Setting up conv3_prescale
I0417 18:45:26.425364 17962 net.cpp:157] Top shape: 1024 250 6 6 (9216000)
I0417 18:45:26.425367 17962 net.cpp:165] Memory required for data: 4018855936
I0417 18:45:26.425371 17962 layer_factory.hpp:77] Creating layer conv3_sTanH
I0417 18:45:26.425382 17962 net.cpp:100] Creating Layer conv3_sTanH
I0417 18:45:26.425387 17962 net.cpp:434] conv3_sTanH <- conv3
I0417 18:45:26.425391 17962 net.cpp:395] conv3_sTanH -> conv3 (in-place)
I0417 18:45:26.426205 17962 net.cpp:150] Setting up conv3_sTanH
I0417 18:45:26.426220 17962 net.cpp:157] Top shape: 1024 250 6 6 (9216000)
I0417 18:45:26.426223 17962 net.cpp:165] Memory required for data: 4055719936
I0417 18:45:26.426228 17962 layer_factory.hpp:77] Creating layer conv3_postscale
I0417 18:45:26.426234 17962 net.cpp:100] Creating Layer conv3_postscale
I0417 18:45:26.426237 17962 net.cpp:434] conv3_postscale <- conv3
I0417 18:45:26.426245 17962 net.cpp:395] conv3_postscale -> conv3 (in-place)
I0417 18:45:26.426348 17962 net.cpp:150] Setting up conv3_postscale
I0417 18:45:26.426357 17962 net.cpp:157] Top shape: 1024 250 6 6 (9216000)
I0417 18:45:26.426360 17962 net.cpp:165] Memory required for data: 4092583936
I0417 18:45:26.426364 17962 layer_factory.hpp:77] Creating layer pool3
I0417 18:45:26.426376 17962 net.cpp:100] Creating Layer pool3
I0417 18:45:26.426381 17962 net.cpp:434] pool3 <- conv3
I0417 18:45:26.426388 17962 net.cpp:408] pool3 -> pool3
I0417 18:45:26.426430 17962 net.cpp:150] Setting up pool3
I0417 18:45:26.426437 17962 net.cpp:157] Top shape: 1024 250 3 3 (2304000)
I0417 18:45:26.426440 17962 net.cpp:165] Memory required for data: 4101799936
I0417 18:45:26.426443 17962 layer_factory.hpp:77] Creating layer fc4_300
I0417 18:45:26.426451 17962 net.cpp:100] Creating Layer fc4_300
I0417 18:45:26.426456 17962 net.cpp:434] fc4_300 <- pool3
I0417 18:45:26.426462 17962 net.cpp:408] fc4_300 -> fc4_300
I0417 18:45:26.432103 17962 net.cpp:150] Setting up fc4_300
I0417 18:45:26.432129 17962 net.cpp:157] Top shape: 1024 300 (307200)
I0417 18:45:26.432133 17962 net.cpp:165] Memory required for data: 4103028736
I0417 18:45:26.432142 17962 layer_factory.hpp:77] Creating layer fc4_prescale
I0417 18:45:26.432154 17962 net.cpp:100] Creating Layer fc4_prescale
I0417 18:45:26.432162 17962 net.cpp:434] fc4_prescale <- fc4_300
I0417 18:45:26.432169 17962 net.cpp:395] fc4_prescale -> fc4_300 (in-place)
I0417 18:45:26.432263 17962 net.cpp:150] Setting up fc4_prescale
I0417 18:45:26.432271 17962 net.cpp:157] Top shape: 1024 300 (307200)
I0417 18:45:26.432274 17962 net.cpp:165] Memory required for data: 4104257536
I0417 18:45:26.432279 17962 layer_factory.hpp:77] Creating layer fc4_sTanH
I0417 18:45:26.432284 17962 net.cpp:100] Creating Layer fc4_sTanH
I0417 18:45:26.432287 17962 net.cpp:434] fc4_sTanH <- fc4_300
I0417 18:45:26.432293 17962 net.cpp:395] fc4_sTanH -> fc4_300 (in-place)
I0417 18:45:26.432526 17962 net.cpp:150] Setting up fc4_sTanH
I0417 18:45:26.432538 17962 net.cpp:157] Top shape: 1024 300 (307200)
I0417 18:45:26.432540 17962 net.cpp:165] Memory required for data: 4105486336
I0417 18:45:26.432543 17962 layer_factory.hpp:77] Creating layer fc4_postscale
I0417 18:45:26.432551 17962 net.cpp:100] Creating Layer fc4_postscale
I0417 18:45:26.432554 17962 net.cpp:434] fc4_postscale <- fc4_300
I0417 18:45:26.432560 17962 net.cpp:395] fc4_postscale -> fc4_300 (in-place)
I0417 18:45:26.432660 17962 net.cpp:150] Setting up fc4_postscale
I0417 18:45:26.432669 17962 net.cpp:157] Top shape: 1024 300 (307200)
I0417 18:45:26.432672 17962 net.cpp:165] Memory required for data: 4106715136
I0417 18:45:26.432677 17962 layer_factory.hpp:77] Creating layer fc5_67
I0417 18:45:26.432689 17962 net.cpp:100] Creating Layer fc5_67
I0417 18:45:26.432694 17962 net.cpp:434] fc5_67 <- fc4_300
I0417 18:45:26.432699 17962 net.cpp:408] fc5_67 -> fc5_classes
I0417 18:45:26.434644 17962 net.cpp:150] Setting up fc5_67
I0417 18:45:26.434661 17962 net.cpp:157] Top shape: 1024 67 (68608)
I0417 18:45:26.434664 17962 net.cpp:165] Memory required for data: 4106989568
I0417 18:45:26.434677 17962 layer_factory.hpp:77] Creating layer fc5_classes_fc5_67_0_split
I0417 18:45:26.434687 17962 net.cpp:100] Creating Layer fc5_classes_fc5_67_0_split
I0417 18:45:26.434690 17962 net.cpp:434] fc5_classes_fc5_67_0_split <- fc5_classes
I0417 18:45:26.434696 17962 net.cpp:408] fc5_classes_fc5_67_0_split -> fc5_classes_fc5_67_0_split_0
I0417 18:45:26.434705 17962 net.cpp:408] fc5_classes_fc5_67_0_split -> fc5_classes_fc5_67_0_split_1
I0417 18:45:26.434710 17962 net.cpp:408] fc5_classes_fc5_67_0_split -> fc5_classes_fc5_67_0_split_2
I0417 18:45:26.434767 17962 net.cpp:150] Setting up fc5_classes_fc5_67_0_split
I0417 18:45:26.434773 17962 net.cpp:157] Top shape: 1024 67 (68608)
I0417 18:45:26.434777 17962 net.cpp:157] Top shape: 1024 67 (68608)
I0417 18:45:26.434780 17962 net.cpp:157] Top shape: 1024 67 (68608)
I0417 18:45:26.434782 17962 net.cpp:165] Memory required for data: 4107812864
I0417 18:45:26.434785 17962 layer_factory.hpp:77] Creating layer softmax
I0417 18:45:26.434792 17962 net.cpp:100] Creating Layer softmax
I0417 18:45:26.434794 17962 net.cpp:434] softmax <- fc5_classes_fc5_67_0_split_0
I0417 18:45:26.434799 17962 net.cpp:408] softmax -> softmax
I0417 18:45:26.435076 17962 net.cpp:150] Setting up softmax
I0417 18:45:26.435089 17962 net.cpp:157] Top shape: 1024 67 (68608)
I0417 18:45:26.435091 17962 net.cpp:165] Memory required for data: 4108087296
I0417 18:45:26.435096 17962 layer_factory.hpp:77] Creating layer loss
I0417 18:45:26.435101 17962 net.cpp:100] Creating Layer loss
I0417 18:45:26.435104 17962 net.cpp:434] loss <- softmax
I0417 18:45:26.435108 17962 net.cpp:434] loss <- label_data_1_split_0
I0417 18:45:26.435115 17962 net.cpp:408] loss -> loss
…
