…
I0528 06:10:44.792076 27113 solver.cpp:81] Creating training net from train_net file: ./Prototxt/experiment_21/RTSD/imajust/trial_1/train.prototxt
I0528 06:10:44.792434 27113 net.cpp:58] Initializing net from parameters: 
state {
  phase: TRAIN
  level: 0
  stage: ""
}
layer {
  name: "data"
  type: "Data"
  top: "data"
  top: "label"
  include {
    phase: TRAIN
  }
  transform_param {
    scale: 0.0039215689
    mirror: false
    crop_size: 48
    mean_value: 119
    mean_value: 113
    mean_value: 113
  }
  data_param {
    source: "../local_data/lmdb/RTSD/imajust/train/lmdb"
    batch_size: 1024
    backend: LMDB
  }
}
layer {
  name: "conv1"
  type: "Convolution"
  bottom: "data"
  top: "conv1"
  convolution_param {
    num_output: 100
    pad: 0
    kernel_size: 7
    group: 1
    stride: 1
    weight_filler {
      type: "xavier"
    }
  }
}
layer {
  name: "conv1_relu"
  type: "ReLU"
  bottom: "conv1"
  top: "conv1"
}
layer {
  name: "pool1"
  type: "Pooling"
  bottom: "conv1"
  top: "pool1"
  pooling_param {
    pool: MAX
    kernel_size: 2
    stride: 2
  }
}
layer {
  name: "conv2"
  type: "Convolution"
  bottom: "pool1"
  top: "conv2"
  convolution_param {
    num_output: 150
    pad: 0
    kernel_size: 4
    group: 1
    stride: 1
    weight_filler {
      type: "xavier"
    }
  }
}
layer {
  name: "conv2_relu"
  type: "ReLU"
  bottom: "conv2"
  top: "conv2"
}
layer {
  name: "pool2"
  type: "Pooling"
  bottom: "conv2"
  top: "pool2"
  pooling_param {
    pool: MAX
    kernel_size: 2
    stride: 2
  }
}
layer {
  name: "conv3"
  type: "Convolution"
  bottom: "pool2"
  top: "conv3"
  convolution_param {
    num_output: 250
    pad: 0
    kernel_size: 4
    group: 1
    stride: 1
    weight_filler {
      type: "xavier"
    }
  }
}
layer {
  name: "conv3_relu"
  type: "ReLU"
  bottom: "conv3"
  top: "conv3"
}
layer {
  name: "pool3"
  type: "Pooling"
  bottom: "conv3"
  top: "pool3"
  pooling_param {
    pool: MAX
    kernel_size: 2
    stride: 2
  }
}
layer {
  name: "fc4_300"
  type: "InnerProduct"
  bottom: "pool3"
  top: "fc4_300"
  inner_product_param {
    num_output: 300
    weight_filler {
      type: "xavier"
    }
  }
}
layer {
  name: "fc4_relu"
  type: "ReLU"
  bottom: "fc4_300"
  top: "fc4_300"
}
layer {
  name: "fc5_116"
  type: "InnerProduct"
  bottom: "fc4_300"
  top: "fc5_classes"
  inner_product_param {
    num_output: 116
    weight_filler {
      type: "xavier"
    }
  }
}
layer {
  name: "softmax"
  type: "Softmax"
  bottom: "fc5_classes"
  top: "softmax"
}
layer {
  name: "loss"
  type: "MultinomialLogisticLoss"
  bottom: "softmax"
  bottom: "label"
  top: "loss"
}
layer {
  name: "accuracy_1"
  type: "Accuracy"
  bottom: "fc5_classes"
  bottom: "label"
  top: "accuracy_1"
  accuracy_param {
    top_k: 1
  }
}
layer {
  name: "accuracy_5"
  type: "Accuracy"
  bottom: "fc5_classes"
  bottom: "label"
  top: "accuracy_5"
  accuracy_param {
    top_k: 5
  }
}
layer {
  name: "silence"
  type: "Silence"
  bottom: "accuracy_1"
  bottom: "accuracy_5"
}
I0528 06:10:44.792529 27113 layer_factory.hpp:77] Creating layer data
I0528 06:10:44.804311 27113 net.cpp:100] Creating Layer data
I0528 06:10:44.804350 27113 net.cpp:408] data -> data
I0528 06:10:44.804386 27113 net.cpp:408] data -> label
I0528 06:10:44.805585 27152 db_lmdb.cpp:35] Opened lmdb ../local_data/lmdb/RTSD/imajust/train/lmdb
I0528 06:10:44.825000 27113 data_layer.cpp:41] output data size: 1024,3,48,48
I0528 06:10:44.897950 27113 net.cpp:150] Setting up data
I0528 06:10:44.968366 27113 net.cpp:157] Top shape: 1024 3 48 48 (7077888)
I0528 06:10:44.968410 27113 net.cpp:157] Top shape: 1024 (1024)
I0528 06:10:44.968436 27113 net.cpp:165] Memory required for data: 28315648
I0528 06:10:44.968482 27113 layer_factory.hpp:77] Creating layer label_data_1_split
I0528 06:10:44.968528 27113 net.cpp:100] Creating Layer label_data_1_split
I0528 06:10:44.968560 27113 net.cpp:434] label_data_1_split <- label
I0528 06:10:44.968603 27113 net.cpp:408] label_data_1_split -> label_data_1_split_0
I0528 06:10:44.968646 27113 net.cpp:408] label_data_1_split -> label_data_1_split_1
I0528 06:10:44.968675 27113 net.cpp:408] label_data_1_split -> label_data_1_split_2
I0528 06:10:44.968822 27113 net.cpp:150] Setting up label_data_1_split
I0528 06:10:44.968842 27113 net.cpp:157] Top shape: 1024 (1024)
I0528 06:10:44.968852 27113 net.cpp:157] Top shape: 1024 (1024)
I0528 06:10:44.968863 27113 net.cpp:157] Top shape: 1024 (1024)
I0528 06:10:44.968873 27113 net.cpp:165] Memory required for data: 28327936
I0528 06:10:44.968881 27113 layer_factory.hpp:77] Creating layer conv1
I0528 06:10:44.968932 27113 net.cpp:100] Creating Layer conv1
I0528 06:10:44.968960 27113 net.cpp:434] conv1 <- data
I0528 06:10:44.968988 27113 net.cpp:408] conv1 -> conv1
I0528 06:10:45.622512 27113 net.cpp:150] Setting up conv1
I0528 06:10:45.622550 27113 net.cpp:157] Top shape: 1024 100 42 42 (180633600)
I0528 06:10:45.622556 27113 net.cpp:165] Memory required for data: 750862336
I0528 06:10:45.622576 27113 layer_factory.hpp:77] Creating layer conv1_relu
I0528 06:10:45.622589 27113 net.cpp:100] Creating Layer conv1_relu
I0528 06:10:45.622597 27113 net.cpp:434] conv1_relu <- conv1
I0528 06:10:45.622606 27113 net.cpp:395] conv1_relu -> conv1 (in-place)
I0528 06:10:45.622788 27113 net.cpp:150] Setting up conv1_relu
I0528 06:10:45.622802 27113 net.cpp:157] Top shape: 1024 100 42 42 (180633600)
I0528 06:10:45.622808 27113 net.cpp:165] Memory required for data: 1473396736
I0528 06:10:45.622817 27113 layer_factory.hpp:77] Creating layer pool1
I0528 06:10:45.622828 27113 net.cpp:100] Creating Layer pool1
I0528 06:10:45.622836 27113 net.cpp:434] pool1 <- conv1
I0528 06:10:45.622843 27113 net.cpp:408] pool1 -> pool1
I0528 06:10:45.622895 27113 net.cpp:150] Setting up pool1
I0528 06:10:45.622905 27113 net.cpp:157] Top shape: 1024 100 21 21 (45158400)
I0528 06:10:45.622910 27113 net.cpp:165] Memory required for data: 1654030336
I0528 06:10:45.622917 27113 layer_factory.hpp:77] Creating layer conv2
I0528 06:10:45.622931 27113 net.cpp:100] Creating Layer conv2
I0528 06:10:45.622938 27113 net.cpp:434] conv2 <- pool1
I0528 06:10:45.622946 27113 net.cpp:408] conv2 -> conv2
I0528 06:10:45.626545 27113 net.cpp:150] Setting up conv2
I0528 06:10:45.626575 27113 net.cpp:157] Top shape: 1024 150 18 18 (49766400)
I0528 06:10:45.626582 27113 net.cpp:165] Memory required for data: 1853095936
I0528 06:10:45.626597 27113 layer_factory.hpp:77] Creating layer conv2_relu
I0528 06:10:45.626611 27113 net.cpp:100] Creating Layer conv2_relu
I0528 06:10:45.626621 27113 net.cpp:434] conv2_relu <- conv2
I0528 06:10:45.626629 27113 net.cpp:395] conv2_relu -> conv2 (in-place)
I0528 06:10:45.626796 27113 net.cpp:150] Setting up conv2_relu
I0528 06:10:45.626809 27113 net.cpp:157] Top shape: 1024 150 18 18 (49766400)
I0528 06:10:45.626814 27113 net.cpp:165] Memory required for data: 2052161536
I0528 06:10:45.626822 27113 layer_factory.hpp:77] Creating layer pool2
I0528 06:10:45.626834 27113 net.cpp:100] Creating Layer pool2
I0528 06:10:45.626844 27113 net.cpp:434] pool2 <- conv2
I0528 06:10:45.626852 27113 net.cpp:408] pool2 -> pool2
I0528 06:10:45.626895 27113 net.cpp:150] Setting up pool2
I0528 06:10:45.626906 27113 net.cpp:157] Top shape: 1024 150 9 9 (12441600)
I0528 06:10:45.626911 27113 net.cpp:165] Memory required for data: 2101927936
I0528 06:10:45.626919 27113 layer_factory.hpp:77] Creating layer conv3
I0528 06:10:45.626934 27113 net.cpp:100] Creating Layer conv3
I0528 06:10:45.626940 27113 net.cpp:434] conv3 <- pool2
I0528 06:10:45.626948 27113 net.cpp:408] conv3 -> conv3
I0528 06:10:45.632751 27113 net.cpp:150] Setting up conv3
I0528 06:10:45.632783 27113 net.cpp:157] Top shape: 1024 250 6 6 (9216000)
I0528 06:10:45.632791 27113 net.cpp:165] Memory required for data: 2138791936
I0528 06:10:45.632807 27113 layer_factory.hpp:77] Creating layer conv3_relu
I0528 06:10:45.632822 27113 net.cpp:100] Creating Layer conv3_relu
I0528 06:10:45.632833 27113 net.cpp:434] conv3_relu <- conv3
I0528 06:10:45.632844 27113 net.cpp:395] conv3_relu -> conv3 (in-place)
I0528 06:10:45.633288 27113 net.cpp:150] Setting up conv3_relu
I0528 06:10:45.633307 27113 net.cpp:157] Top shape: 1024 250 6 6 (9216000)
I0528 06:10:45.633317 27113 net.cpp:165] Memory required for data: 2175655936
I0528 06:10:45.633325 27113 layer_factory.hpp:77] Creating layer pool3
I0528 06:10:45.633338 27113 net.cpp:100] Creating Layer pool3
I0528 06:10:45.633348 27113 net.cpp:434] pool3 <- conv3
I0528 06:10:45.633358 27113 net.cpp:408] pool3 -> pool3
I0528 06:10:45.633404 27113 net.cpp:150] Setting up pool3
I0528 06:10:45.633414 27113 net.cpp:157] Top shape: 1024 250 3 3 (2304000)
I0528 06:10:45.633422 27113 net.cpp:165] Memory required for data: 2184871936
I0528 06:10:45.633431 27113 layer_factory.hpp:77] Creating layer fc4_300
I0528 06:10:45.633442 27113 net.cpp:100] Creating Layer fc4_300
I0528 06:10:45.633452 27113 net.cpp:434] fc4_300 <- pool3
I0528 06:10:45.633460 27113 net.cpp:408] fc4_300 -> fc4_300
I0528 06:10:45.638717 27113 net.cpp:150] Setting up fc4_300
I0528 06:10:45.638737 27113 net.cpp:157] Top shape: 1024 300 (307200)
I0528 06:10:45.638743 27113 net.cpp:165] Memory required for data: 2186100736
I0528 06:10:45.638759 27113 layer_factory.hpp:77] Creating layer fc4_relu
I0528 06:10:45.638772 27113 net.cpp:100] Creating Layer fc4_relu
I0528 06:10:45.638778 27113 net.cpp:434] fc4_relu <- fc4_300
I0528 06:10:45.638788 27113 net.cpp:395] fc4_relu -> fc4_300 (in-place)
I0528 06:10:45.638958 27113 net.cpp:150] Setting up fc4_relu
I0528 06:10:45.638972 27113 net.cpp:157] Top shape: 1024 300 (307200)
I0528 06:10:45.638978 27113 net.cpp:165] Memory required for data: 2187329536
I0528 06:10:45.638988 27113 layer_factory.hpp:77] Creating layer fc5_116
I0528 06:10:45.638998 27113 net.cpp:100] Creating Layer fc5_116
I0528 06:10:45.639006 27113 net.cpp:434] fc5_116 <- fc4_300
I0528 06:10:45.639014 27113 net.cpp:408] fc5_116 -> fc5_classes
I0528 06:10:45.640230 27113 net.cpp:150] Setting up fc5_116
I0528 06:10:45.640246 27113 net.cpp:157] Top shape: 1024 116 (118784)
I0528 06:10:45.640252 27113 net.cpp:165] Memory required for data: 2187804672
I0528 06:10:45.640269 27113 layer_factory.hpp:77] Creating layer fc5_classes_fc5_116_0_split
I0528 06:10:45.640278 27113 net.cpp:100] Creating Layer fc5_classes_fc5_116_0_split
I0528 06:10:45.640287 27113 net.cpp:434] fc5_classes_fc5_116_0_split <- fc5_classes
I0528 06:10:45.640296 27113 net.cpp:408] fc5_classes_fc5_116_0_split -> fc5_classes_fc5_116_0_split_0
I0528 06:10:45.640310 27113 net.cpp:408] fc5_classes_fc5_116_0_split -> fc5_classes_fc5_116_0_split_1
I0528 06:10:45.640319 27113 net.cpp:408] fc5_classes_fc5_116_0_split -> fc5_classes_fc5_116_0_split_2
I0528 06:10:45.640370 27113 net.cpp:150] Setting up fc5_classes_fc5_116_0_split
I0528 06:10:45.640383 27113 net.cpp:157] Top shape: 1024 116 (118784)
I0528 06:10:45.640389 27113 net.cpp:157] Top shape: 1024 116 (118784)
I0528 06:10:45.640398 27113 net.cpp:157] Top shape: 1024 116 (118784)
I0528 06:10:45.640404 27113 net.cpp:165] Memory required for data: 2189230080
I0528 06:10:45.640409 27113 layer_factory.hpp:77] Creating layer softmax
I0528 06:10:45.640419 27113 net.cpp:100] Creating Layer softmax
I0528 06:10:45.640427 27113 net.cpp:434] softmax <- fc5_classes_fc5_116_0_split_0
I0528 06:10:45.640436 27113 net.cpp:408] softmax -> softmax
I0528 06:10:45.640671 27113 net.cpp:150] Setting up softmax
I0528 06:10:45.640708 27113 net.cpp:157] Top shape: 1024 116 (118784)
I0528 06:10:45.640717 27113 net.cpp:165] Memory required for data: 2189705216
I0528 06:10:45.640727 27113 layer_factory.hpp:77] Creating layer loss
I0528 06:10:45.640758 27113 net.cpp:100] Creating Layer loss
I0528 06:10:45.640763 27113 net.cpp:434] loss <- softmax
I0528 06:10:45.640770 27113 net.cpp:434] loss <- label_data_1_split_0
I0528 06:10:45.640781 27113 net.cpp:408] loss -> loss
…
