…
I0414 02:58:04.691687 11199 solver.cpp:93] Creating training net from train_net file: ./Prototxt/experiment_10/rtsd-r1/CoNorm/trial_1/train.prototxt
I0414 02:58:04.692051 11199 net.cpp:58] Initializing net from parameters: 
state {
  phase: TRAIN
  level: 0
  stage: ""
}
layer {
  name: "data"
  type: "Data"
  top: "data"
  top: "label"
  include {
    phase: TRAIN
  }
  transform_param {
    scale: 0.0039215689
    mirror: false
    crop_size: 48
    mean_value: 132
    mean_value: 132
    mean_value: 131
  }
  data_param {
    source: "../local_data/lmdb/rtsd-r1/CoNorm/train/lmdb"
    batch_size: 1024
    backend: LMDB
  }
}
layer {
  name: "conv1"
  type: "Convolution"
  bottom: "data"
  top: "conv1"
  convolution_param {
    num_output: 100
    pad: 0
    kernel_size: 7
    group: 1
    stride: 1
    weight_filler {
      type: "xavier"
    }
  }
}
layer {
  name: "conv1_relu"
  type: "ReLU"
  bottom: "conv1"
  top: "conv1"
}
layer {
  name: "pool1"
  type: "Pooling"
  bottom: "conv1"
  top: "pool1"
  pooling_param {
    pool: MAX
    kernel_size: 2
    stride: 2
  }
}
layer {
  name: "conv2"
  type: "Convolution"
  bottom: "pool1"
  top: "conv2"
  convolution_param {
    num_output: 150
    pad: 0
    kernel_size: 4
    group: 1
    stride: 1
    weight_filler {
      type: "xavier"
    }
  }
}
layer {
  name: "conv2_relu"
  type: "ReLU"
  bottom: "conv2"
  top: "conv2"
}
layer {
  name: "pool2"
  type: "Pooling"
  bottom: "conv2"
  top: "pool2"
  pooling_param {
    pool: MAX
    kernel_size: 2
    stride: 2
  }
}
layer {
  name: "conv3"
  type: "Convolution"
  bottom: "pool2"
  top: "conv3"
  convolution_param {
    num_output: 250
    pad: 0
    kernel_size: 4
    group: 1
    stride: 1
    weight_filler {
      type: "xavier"
    }
  }
}
layer {
  name: "conv3_relu"
  type: "ReLU"
  bottom: "conv3"
  top: "conv3"
}
layer {
  name: "pool3"
  type: "Pooling"
  bottom: "conv3"
  top: "pool3"
  pooling_param {
    pool: MAX
    kernel_size: 2
    stride: 2
  }
}
layer {
  name: "fc4_300"
  type: "InnerProduct"
  bottom: "pool3"
  top: "fc4_300"
  inner_product_param {
    num_output: 300
    weight_filler {
      type: "xavier"
    }
  }
}
layer {
  name: "fc4_relu"
  type: "ReLU"
  bottom: "fc4_300"
  top: "fc4_300"
}
layer {
  name: "fc5_67"
  type: "InnerProduct"
  bottom: "fc4_300"
  top: "fc5_classes"
  inner_product_param {
    num_output: 67
    weight_filler {
      type: "xavier"
    }
  }
}
layer {
  name: "softmax"
  type: "Softmax"
  bottom: "fc5_classes"
  top: "softmax"
}
layer {
  name: "loss"
  type: "MultinomialLogisticLoss"
  bottom: "softmax"
  bottom: "label"
  top: "loss"
}
layer {
  name: "accuracy_1"
  type: "Accuracy"
  bottom: "fc5_classes"
  bottom: "label"
  top: "accuracy_1"
  accuracy_param {
    top_k: 1
  }
}
layer {
  name: "accuracy_5"
  type: "Accuracy"
  bottom: "fc5_classes"
  bottom: "label"
  top: "accuracy_5"
  accuracy_param {
    top_k: 5
  }
}
layer {
  name: "silence"
  type: "Silence"
  bottom: "accuracy_1"
  bottom: "accuracy_5"
}
I0414 02:58:04.692169 11199 layer_factory.hpp:77] Creating layer data
I0414 02:58:04.693261 11199 net.cpp:100] Creating Layer data
I0414 02:58:04.693277 11199 net.cpp:408] data -> data
I0414 02:58:04.693301 11199 net.cpp:408] data -> label
I0414 02:58:04.695210 11326 db_lmdb.cpp:35] Opened lmdb ../local_data/lmdb/rtsd-r1/CoNorm/train/lmdb
I0414 02:58:04.782938 11199 data_layer.cpp:41] output data size: 1024,3,48,48
I0414 02:58:04.859493 11199 net.cpp:150] Setting up data
I0414 02:58:04.859553 11199 net.cpp:157] Top shape: 1024 3 48 48 (7077888)
I0414 02:58:04.859562 11199 net.cpp:157] Top shape: 1024 (1024)
I0414 02:58:04.859567 11199 net.cpp:165] Memory required for data: 28315648
I0414 02:58:04.859582 11199 layer_factory.hpp:77] Creating layer label_data_1_split
I0414 02:58:04.859601 11199 net.cpp:100] Creating Layer label_data_1_split
I0414 02:58:04.859611 11199 net.cpp:434] label_data_1_split <- label
I0414 02:58:04.859632 11199 net.cpp:408] label_data_1_split -> label_data_1_split_0
I0414 02:58:04.859648 11199 net.cpp:408] label_data_1_split -> label_data_1_split_1
I0414 02:58:04.859660 11199 net.cpp:408] label_data_1_split -> label_data_1_split_2
I0414 02:58:04.859740 11199 net.cpp:150] Setting up label_data_1_split
I0414 02:58:04.859750 11199 net.cpp:157] Top shape: 1024 (1024)
I0414 02:58:04.859758 11199 net.cpp:157] Top shape: 1024 (1024)
I0414 02:58:04.859766 11199 net.cpp:157] Top shape: 1024 (1024)
I0414 02:58:04.859772 11199 net.cpp:165] Memory required for data: 28327936
I0414 02:58:04.859777 11199 layer_factory.hpp:77] Creating layer conv1
I0414 02:58:04.859800 11199 net.cpp:100] Creating Layer conv1
I0414 02:58:04.859808 11199 net.cpp:434] conv1 <- data
I0414 02:58:04.859818 11199 net.cpp:408] conv1 -> conv1
I0414 02:58:05.354050 11199 net.cpp:150] Setting up conv1
I0414 02:58:05.354095 11199 net.cpp:157] Top shape: 1024 100 42 42 (180633600)
I0414 02:58:05.354104 11199 net.cpp:165] Memory required for data: 750862336
I0414 02:58:05.354140 11199 layer_factory.hpp:77] Creating layer conv1_relu
I0414 02:58:05.354158 11199 net.cpp:100] Creating Layer conv1_relu
I0414 02:58:05.354168 11199 net.cpp:434] conv1_relu <- conv1
I0414 02:58:05.354181 11199 net.cpp:395] conv1_relu -> conv1 (in-place)
I0414 02:58:05.354567 11199 net.cpp:150] Setting up conv1_relu
I0414 02:58:05.354588 11199 net.cpp:157] Top shape: 1024 100 42 42 (180633600)
I0414 02:58:05.354595 11199 net.cpp:165] Memory required for data: 1473396736
I0414 02:58:05.354604 11199 layer_factory.hpp:77] Creating layer pool1
I0414 02:58:05.354622 11199 net.cpp:100] Creating Layer pool1
I0414 02:58:05.354630 11199 net.cpp:434] pool1 <- conv1
I0414 02:58:05.354641 11199 net.cpp:408] pool1 -> pool1
I0414 02:58:05.354742 11199 net.cpp:150] Setting up pool1
I0414 02:58:05.354755 11199 net.cpp:157] Top shape: 1024 100 21 21 (45158400)
I0414 02:58:05.354763 11199 net.cpp:165] Memory required for data: 1654030336
I0414 02:58:05.354771 11199 layer_factory.hpp:77] Creating layer conv2
I0414 02:58:05.354791 11199 net.cpp:100] Creating Layer conv2
I0414 02:58:05.354799 11199 net.cpp:434] conv2 <- pool1
I0414 02:58:05.354810 11199 net.cpp:408] conv2 -> conv2
I0414 02:58:05.366647 11199 net.cpp:150] Setting up conv2
I0414 02:58:05.366677 11199 net.cpp:157] Top shape: 1024 150 18 18 (49766400)
I0414 02:58:05.366683 11199 net.cpp:165] Memory required for data: 1853095936
I0414 02:58:05.366703 11199 layer_factory.hpp:77] Creating layer conv2_relu
I0414 02:58:05.366716 11199 net.cpp:100] Creating Layer conv2_relu
I0414 02:58:05.366724 11199 net.cpp:434] conv2_relu <- conv2
I0414 02:58:05.366732 11199 net.cpp:395] conv2_relu -> conv2 (in-place)
I0414 02:58:05.374172 11199 net.cpp:150] Setting up conv2_relu
I0414 02:58:05.374194 11199 net.cpp:157] Top shape: 1024 150 18 18 (49766400)
I0414 02:58:05.374199 11199 net.cpp:165] Memory required for data: 2052161536
I0414 02:58:05.374204 11199 layer_factory.hpp:77] Creating layer pool2
I0414 02:58:05.374213 11199 net.cpp:100] Creating Layer pool2
I0414 02:58:05.374217 11199 net.cpp:434] pool2 <- conv2
I0414 02:58:05.374225 11199 net.cpp:408] pool2 -> pool2
I0414 02:58:05.374287 11199 net.cpp:150] Setting up pool2
I0414 02:58:05.374299 11199 net.cpp:157] Top shape: 1024 150 9 9 (12441600)
I0414 02:58:05.374303 11199 net.cpp:165] Memory required for data: 2101927936
I0414 02:58:05.374306 11199 layer_factory.hpp:77] Creating layer conv3
I0414 02:58:05.374320 11199 net.cpp:100] Creating Layer conv3
I0414 02:58:05.374325 11199 net.cpp:434] conv3 <- pool2
I0414 02:58:05.374331 11199 net.cpp:408] conv3 -> conv3
I0414 02:58:05.384107 11199 net.cpp:150] Setting up conv3
I0414 02:58:05.384130 11199 net.cpp:157] Top shape: 1024 250 6 6 (9216000)
I0414 02:58:05.384135 11199 net.cpp:165] Memory required for data: 2138791936
I0414 02:58:05.384150 11199 layer_factory.hpp:77] Creating layer conv3_relu
I0414 02:58:05.384161 11199 net.cpp:100] Creating Layer conv3_relu
I0414 02:58:05.384167 11199 net.cpp:434] conv3_relu <- conv3
I0414 02:58:05.384173 11199 net.cpp:395] conv3_relu -> conv3 (in-place)
I0414 02:58:05.390872 11199 net.cpp:150] Setting up conv3_relu
I0414 02:58:05.390898 11199 net.cpp:157] Top shape: 1024 250 6 6 (9216000)
I0414 02:58:05.390902 11199 net.cpp:165] Memory required for data: 2175655936
I0414 02:58:05.390908 11199 layer_factory.hpp:77] Creating layer pool3
I0414 02:58:05.390916 11199 net.cpp:100] Creating Layer pool3
I0414 02:58:05.390923 11199 net.cpp:434] pool3 <- conv3
I0414 02:58:05.390930 11199 net.cpp:408] pool3 -> pool3
I0414 02:58:05.390995 11199 net.cpp:150] Setting up pool3
I0414 02:58:05.391005 11199 net.cpp:157] Top shape: 1024 250 3 3 (2304000)
I0414 02:58:05.391008 11199 net.cpp:165] Memory required for data: 2184871936
I0414 02:58:05.391011 11199 layer_factory.hpp:77] Creating layer fc4_300
I0414 02:58:05.391019 11199 net.cpp:100] Creating Layer fc4_300
I0414 02:58:05.391023 11199 net.cpp:434] fc4_300 <- pool3
I0414 02:58:05.391028 11199 net.cpp:408] fc4_300 -> fc4_300
I0414 02:58:05.399030 11199 net.cpp:150] Setting up fc4_300
I0414 02:58:05.399054 11199 net.cpp:157] Top shape: 1024 300 (307200)
I0414 02:58:05.399056 11199 net.cpp:165] Memory required for data: 2186100736
I0414 02:58:05.399066 11199 layer_factory.hpp:77] Creating layer fc4_relu
I0414 02:58:05.399078 11199 net.cpp:100] Creating Layer fc4_relu
I0414 02:58:05.399083 11199 net.cpp:434] fc4_relu <- fc4_300
I0414 02:58:05.399090 11199 net.cpp:395] fc4_relu -> fc4_300 (in-place)
I0414 02:58:05.399309 11199 net.cpp:150] Setting up fc4_relu
I0414 02:58:05.399323 11199 net.cpp:157] Top shape: 1024 300 (307200)
I0414 02:58:05.399327 11199 net.cpp:165] Memory required for data: 2187329536
I0414 02:58:05.399332 11199 layer_factory.hpp:77] Creating layer fc5_67
I0414 02:58:05.399338 11199 net.cpp:100] Creating Layer fc5_67
I0414 02:58:05.399343 11199 net.cpp:434] fc5_67 <- fc4_300
I0414 02:58:05.399348 11199 net.cpp:408] fc5_67 -> fc5_classes
I0414 02:58:05.401317 11199 net.cpp:150] Setting up fc5_67
I0414 02:58:05.401336 11199 net.cpp:157] Top shape: 1024 67 (68608)
I0414 02:58:05.401340 11199 net.cpp:165] Memory required for data: 2187603968
I0414 02:58:05.401352 11199 layer_factory.hpp:77] Creating layer fc5_classes_fc5_67_0_split
I0414 02:58:05.401361 11199 net.cpp:100] Creating Layer fc5_classes_fc5_67_0_split
I0414 02:58:05.401365 11199 net.cpp:434] fc5_classes_fc5_67_0_split <- fc5_classes
I0414 02:58:05.401376 11199 net.cpp:408] fc5_classes_fc5_67_0_split -> fc5_classes_fc5_67_0_split_0
I0414 02:58:05.401386 11199 net.cpp:408] fc5_classes_fc5_67_0_split -> fc5_classes_fc5_67_0_split_1
I0414 02:58:05.401393 11199 net.cpp:408] fc5_classes_fc5_67_0_split -> fc5_classes_fc5_67_0_split_2
I0414 02:58:05.401451 11199 net.cpp:150] Setting up fc5_classes_fc5_67_0_split
I0414 02:58:05.401460 11199 net.cpp:157] Top shape: 1024 67 (68608)
I0414 02:58:05.401463 11199 net.cpp:157] Top shape: 1024 67 (68608)
I0414 02:58:05.401468 11199 net.cpp:157] Top shape: 1024 67 (68608)
I0414 02:58:05.401469 11199 net.cpp:165] Memory required for data: 2188427264
I0414 02:58:05.401473 11199 layer_factory.hpp:77] Creating layer softmax
I0414 02:58:05.401479 11199 net.cpp:100] Creating Layer softmax
I0414 02:58:05.401484 11199 net.cpp:434] softmax <- fc5_classes_fc5_67_0_split_0
I0414 02:58:05.401489 11199 net.cpp:408] softmax -> softmax
I0414 02:58:05.401757 11199 net.cpp:150] Setting up softmax
I0414 02:58:05.401769 11199 net.cpp:157] Top shape: 1024 67 (68608)
I0414 02:58:05.401773 11199 net.cpp:165] Memory required for data: 2188701696
I0414 02:58:05.401777 11199 layer_factory.hpp:77] Creating layer loss
I0414 02:58:05.401787 11199 net.cpp:100] Creating Layer loss
I0414 02:58:05.401809 11199 net.cpp:434] loss <- softmax
I0414 02:58:05.401814 11199 net.cpp:434] loss <- label_data_1_split_0
I0414 02:58:05.401821 11199 net.cpp:408] loss -> loss
…
