…
I0412 03:54:26.304464 24158 solver.cpp:93] Creating training net from train_net file: ./Prototxt/experiment_10/rtsd-r1/CoNorm/trial_1/train.prototxt
I0412 03:54:26.304806 24158 net.cpp:58] Initializing net from parameters: 
state {
  phase: TRAIN
  level: 0
  stage: ""
}
layer {
  name: "data"
  type: "Data"
  top: "data"
  top: "label"
  include {
    phase: TRAIN
  }
  transform_param {
    scale: 0.0039215689
    mirror: false
    crop_size: 48
    mean_value: 132
    mean_value: 132
    mean_value: 131
  }
  data_param {
    source: "../local_data/lmdb/rtsd-r1/CoNorm/train/lmdb"
    batch_size: 1024
    backend: LMDB
  }
}
layer {
  name: "conv1"
  type: "Convolution"
  bottom: "data"
  top: "conv1"
  convolution_param {
    num_output: 100
    pad: 0
    kernel_size: 7
    group: 1
    stride: 1
    weight_filler {
      type: "xavier"
    }
  }
}
layer {
  name: "conv1_relu"
  type: "ReLU"
  bottom: "conv1"
  top: "conv1"
}
layer {
  name: "pool1"
  type: "Pooling"
  bottom: "conv1"
  top: "pool1"
  pooling_param {
    pool: MAX
    kernel_size: 2
    stride: 2
  }
}
layer {
  name: "conv2"
  type: "Convolution"
  bottom: "pool1"
  top: "conv2"
  convolution_param {
    num_output: 150
    pad: 0
    kernel_size: 4
    group: 1
    stride: 1
    weight_filler {
      type: "xavier"
    }
  }
}
layer {
  name: "conv2_relu"
  type: "ReLU"
  bottom: "conv2"
  top: "conv2"
}
layer {
  name: "pool2"
  type: "Pooling"
  bottom: "conv2"
  top: "pool2"
  pooling_param {
    pool: MAX
    kernel_size: 2
    stride: 2
  }
}
layer {
  name: "conv3"
  type: "Convolution"
  bottom: "pool2"
  top: "conv3"
  convolution_param {
    num_output: 250
    pad: 0
    kernel_size: 4
    group: 1
    stride: 1
    weight_filler {
      type: "xavier"
    }
  }
}
layer {
  name: "conv3_relu"
  type: "ReLU"
  bottom: "conv3"
  top: "conv3"
}
layer {
  name: "pool3"
  type: "Pooling"
  bottom: "conv3"
  top: "pool3"
  pooling_param {
    pool: MAX
    kernel_size: 2
    stride: 2
  }
}
layer {
  name: "fc4_300"
  type: "InnerProduct"
  bottom: "pool3"
  top: "fc4_300"
  inner_product_param {
    num_output: 300
    weight_filler {
      type: "xavier"
    }
  }
}
layer {
  name: "fc4_relu"
  type: "ReLU"
  bottom: "fc4_300"
  top: "fc4_300"
}
layer {
  name: "drop4"
  type: "Dropout"
  bottom: "fc4_300"
  top: "fc4_300"
  dropout_param {
    dropout_ratio: 0.4
  }
}
layer {
  name: "fc5_67"
  type: "InnerProduct"
  bottom: "fc4_300"
  top: "fc5_classes"
  inner_product_param {
    num_output: 67
    weight_filler {
      type: "xavier"
    }
  }
}
layer {
  name: "softmax"
  type: "Softmax"
  bottom: "fc5_classes"
  top: "softmax"
}
layer {
  name: "loss"
  type: "MultinomialLogisticLoss"
  bottom: "softmax"
  bottom: "label"
  top: "loss"
}
layer {
  name: "accuracy_1"
  type: "Accuracy"
  bottom: "fc5_classes"
  bottom: "label"
  top: "accuracy_1"
  accuracy_param {
    top_k: 1
  }
}
layer {
  name: "accuracy_5"
  type: "Accuracy"
  bottom: "fc5_classes"
  bottom: "label"
  top: "accuracy_5"
  accuracy_param {
    top_k: 5
  }
}
I0412 03:54:26.304922 24158 layer_factory.hpp:77] Creating layer data
I0412 03:54:26.321334 24158 net.cpp:100] Creating Layer data
I0412 03:54:26.321357 24158 net.cpp:408] data -> data
I0412 03:54:26.321382 24158 net.cpp:408] data -> label
I0412 03:54:26.341739 24288 db_lmdb.cpp:35] Opened lmdb ../local_data/lmdb/rtsd-r1/CoNorm/train/lmdb
I0412 03:54:26.383386 24158 data_layer.cpp:41] output data size: 1024,3,48,48
I0412 03:54:26.443573 24158 net.cpp:150] Setting up data
I0412 03:54:26.443601 24158 net.cpp:157] Top shape: 1024 3 48 48 (7077888)
I0412 03:54:26.443608 24158 net.cpp:157] Top shape: 1024 (1024)
I0412 03:54:26.443610 24158 net.cpp:165] Memory required for data: 28315648
I0412 03:54:26.443621 24158 layer_factory.hpp:77] Creating layer label_data_1_split
I0412 03:54:26.443636 24158 net.cpp:100] Creating Layer label_data_1_split
I0412 03:54:26.443642 24158 net.cpp:434] label_data_1_split <- label
I0412 03:54:26.443660 24158 net.cpp:408] label_data_1_split -> label_data_1_split_0
I0412 03:54:26.443673 24158 net.cpp:408] label_data_1_split -> label_data_1_split_1
I0412 03:54:26.443681 24158 net.cpp:408] label_data_1_split -> label_data_1_split_2
I0412 03:54:26.443778 24158 net.cpp:150] Setting up label_data_1_split
I0412 03:54:26.443786 24158 net.cpp:157] Top shape: 1024 (1024)
I0412 03:54:26.443789 24158 net.cpp:157] Top shape: 1024 (1024)
I0412 03:54:26.443794 24158 net.cpp:157] Top shape: 1024 (1024)
I0412 03:54:26.443795 24158 net.cpp:165] Memory required for data: 28327936
I0412 03:54:26.443799 24158 layer_factory.hpp:77] Creating layer conv1
I0412 03:54:26.443817 24158 net.cpp:100] Creating Layer conv1
I0412 03:54:26.443823 24158 net.cpp:434] conv1 <- data
I0412 03:54:26.443828 24158 net.cpp:408] conv1 -> conv1
I0412 03:54:26.527415 24311 blocking_queue.cpp:50] Waiting for data
I0412 03:54:27.193902 24158 net.cpp:150] Setting up conv1
I0412 03:54:27.193933 24158 net.cpp:157] Top shape: 1024 100 42 42 (180633600)
I0412 03:54:27.193938 24158 net.cpp:165] Memory required for data: 750862336
I0412 03:54:27.193967 24158 layer_factory.hpp:77] Creating layer conv1_relu
I0412 03:54:27.193984 24158 net.cpp:100] Creating Layer conv1_relu
I0412 03:54:27.193991 24158 net.cpp:434] conv1_relu <- conv1
I0412 03:54:27.194000 24158 net.cpp:395] conv1_relu -> conv1 (in-place)
I0412 03:54:27.194211 24158 net.cpp:150] Setting up conv1_relu
I0412 03:54:27.194226 24158 net.cpp:157] Top shape: 1024 100 42 42 (180633600)
I0412 03:54:27.194232 24158 net.cpp:165] Memory required for data: 1473396736
I0412 03:54:27.194238 24158 layer_factory.hpp:77] Creating layer pool1
I0412 03:54:27.194252 24158 net.cpp:100] Creating Layer pool1
I0412 03:54:27.194258 24158 net.cpp:434] pool1 <- conv1
I0412 03:54:27.194267 24158 net.cpp:408] pool1 -> pool1
I0412 03:54:27.194327 24158 net.cpp:150] Setting up pool1
I0412 03:54:27.194339 24158 net.cpp:157] Top shape: 1024 100 21 21 (45158400)
I0412 03:54:27.194344 24158 net.cpp:165] Memory required for data: 1654030336
I0412 03:54:27.194350 24158 layer_factory.hpp:77] Creating layer conv2
I0412 03:54:27.194365 24158 net.cpp:100] Creating Layer conv2
I0412 03:54:27.194370 24158 net.cpp:434] conv2 <- pool1
I0412 03:54:27.194380 24158 net.cpp:408] conv2 -> conv2
I0412 03:54:27.206449 24158 net.cpp:150] Setting up conv2
I0412 03:54:27.206477 24158 net.cpp:157] Top shape: 1024 150 18 18 (49766400)
I0412 03:54:27.206485 24158 net.cpp:165] Memory required for data: 1853095936
I0412 03:54:27.206507 24158 layer_factory.hpp:77] Creating layer conv2_relu
I0412 03:54:27.206521 24158 net.cpp:100] Creating Layer conv2_relu
I0412 03:54:27.206528 24158 net.cpp:434] conv2_relu <- conv2
I0412 03:54:27.206543 24158 net.cpp:395] conv2_relu -> conv2 (in-place)
I0412 03:54:27.207799 24158 net.cpp:150] Setting up conv2_relu
I0412 03:54:27.207816 24158 net.cpp:157] Top shape: 1024 150 18 18 (49766400)
I0412 03:54:27.207823 24158 net.cpp:165] Memory required for data: 2052161536
I0412 03:54:27.207828 24158 layer_factory.hpp:77] Creating layer pool2
I0412 03:54:27.207839 24158 net.cpp:100] Creating Layer pool2
I0412 03:54:27.207847 24158 net.cpp:434] pool2 <- conv2
I0412 03:54:27.207860 24158 net.cpp:408] pool2 -> pool2
I0412 03:54:27.207931 24158 net.cpp:150] Setting up pool2
I0412 03:54:27.207948 24158 net.cpp:157] Top shape: 1024 150 9 9 (12441600)
I0412 03:54:27.207957 24158 net.cpp:165] Memory required for data: 2101927936
I0412 03:54:27.207962 24158 layer_factory.hpp:77] Creating layer conv3
I0412 03:54:27.207984 24158 net.cpp:100] Creating Layer conv3
I0412 03:54:27.208008 24158 net.cpp:434] conv3 <- pool2
I0412 03:54:27.208019 24158 net.cpp:408] conv3 -> conv3
I0412 03:54:27.213852 24158 net.cpp:150] Setting up conv3
I0412 03:54:27.213876 24158 net.cpp:157] Top shape: 1024 250 6 6 (9216000)
I0412 03:54:27.213881 24158 net.cpp:165] Memory required for data: 2138791936
I0412 03:54:27.213898 24158 layer_factory.hpp:77] Creating layer conv3_relu
I0412 03:54:27.213909 24158 net.cpp:100] Creating Layer conv3_relu
I0412 03:54:27.213917 24158 net.cpp:434] conv3_relu <- conv3
I0412 03:54:27.213927 24158 net.cpp:395] conv3_relu -> conv3 (in-place)
I0412 03:54:27.215734 24158 net.cpp:150] Setting up conv3_relu
I0412 03:54:27.215754 24158 net.cpp:157] Top shape: 1024 250 6 6 (9216000)
I0412 03:54:27.215759 24158 net.cpp:165] Memory required for data: 2175655936
I0412 03:54:27.215765 24158 layer_factory.hpp:77] Creating layer pool3
I0412 03:54:27.215780 24158 net.cpp:100] Creating Layer pool3
I0412 03:54:27.215786 24158 net.cpp:434] pool3 <- conv3
I0412 03:54:27.215797 24158 net.cpp:408] pool3 -> pool3
I0412 03:54:27.215854 24158 net.cpp:150] Setting up pool3
I0412 03:54:27.215867 24158 net.cpp:157] Top shape: 1024 250 3 3 (2304000)
I0412 03:54:27.215874 24158 net.cpp:165] Memory required for data: 2184871936
I0412 03:54:27.215894 24158 layer_factory.hpp:77] Creating layer fc4_300
I0412 03:54:27.215905 24158 net.cpp:100] Creating Layer fc4_300
I0412 03:54:27.215912 24158 net.cpp:434] fc4_300 <- pool3
I0412 03:54:27.215921 24158 net.cpp:408] fc4_300 -> fc4_300
I0412 03:54:27.223610 24158 net.cpp:150] Setting up fc4_300
I0412 03:54:27.223637 24158 net.cpp:157] Top shape: 1024 300 (307200)
I0412 03:54:27.223649 24158 net.cpp:165] Memory required for data: 2186100736
I0412 03:54:27.223670 24158 layer_factory.hpp:77] Creating layer fc4_relu
I0412 03:54:27.223690 24158 net.cpp:100] Creating Layer fc4_relu
I0412 03:54:27.223700 24158 net.cpp:434] fc4_relu <- fc4_300
I0412 03:54:27.223717 24158 net.cpp:395] fc4_relu -> fc4_300 (in-place)
I0412 03:54:27.224169 24158 net.cpp:150] Setting up fc4_relu
I0412 03:54:27.224198 24158 net.cpp:157] Top shape: 1024 300 (307200)
I0412 03:54:27.224208 24158 net.cpp:165] Memory required for data: 2187329536
I0412 03:54:27.224228 24158 layer_factory.hpp:77] Creating layer drop4
I0412 03:54:27.224248 24158 net.cpp:100] Creating Layer drop4
I0412 03:54:27.224257 24158 net.cpp:434] drop4 <- fc4_300
I0412 03:54:27.224275 24158 net.cpp:395] drop4 -> fc4_300 (in-place)
I0412 03:54:27.224324 24158 net.cpp:150] Setting up drop4
I0412 03:54:27.224335 24158 net.cpp:157] Top shape: 1024 300 (307200)
I0412 03:54:27.224340 24158 net.cpp:165] Memory required for data: 2188558336
I0412 03:54:27.224352 24158 layer_factory.hpp:77] Creating layer fc5_67
I0412 03:54:27.224366 24158 net.cpp:100] Creating Layer fc5_67
I0412 03:54:27.224372 24158 net.cpp:434] fc5_67 <- fc4_300
I0412 03:54:27.224381 24158 net.cpp:408] fc5_67 -> fc5_classes
I0412 03:54:27.226155 24158 net.cpp:150] Setting up fc5_67
I0412 03:54:27.226171 24158 net.cpp:157] Top shape: 1024 67 (68608)
I0412 03:54:27.226176 24158 net.cpp:165] Memory required for data: 2188832768
I0412 03:54:27.226196 24158 layer_factory.hpp:77] Creating layer fc5_classes_fc5_67_0_split
I0412 03:54:27.226207 24158 net.cpp:100] Creating Layer fc5_classes_fc5_67_0_split
I0412 03:54:27.226214 24158 net.cpp:434] fc5_classes_fc5_67_0_split <- fc5_classes
I0412 03:54:27.226223 24158 net.cpp:408] fc5_classes_fc5_67_0_split -> fc5_classes_fc5_67_0_split_0
I0412 03:54:27.226236 24158 net.cpp:408] fc5_classes_fc5_67_0_split -> fc5_classes_fc5_67_0_split_1
I0412 03:54:27.226249 24158 net.cpp:408] fc5_classes_fc5_67_0_split -> fc5_classes_fc5_67_0_split_2
I0412 03:54:27.226312 24158 net.cpp:150] Setting up fc5_classes_fc5_67_0_split
I0412 03:54:27.226322 24158 net.cpp:157] Top shape: 1024 67 (68608)
I0412 03:54:27.226328 24158 net.cpp:157] Top shape: 1024 67 (68608)
I0412 03:54:27.226335 24158 net.cpp:157] Top shape: 1024 67 (68608)
I0412 03:54:27.226339 24158 net.cpp:165] Memory required for data: 2189656064
I0412 03:54:27.226359 24158 layer_factory.hpp:77] Creating layer softmax
I0412 03:54:27.226374 24158 net.cpp:100] Creating Layer softmax
I0412 03:54:27.226382 24158 net.cpp:434] softmax <- fc5_classes_fc5_67_0_split_0
I0412 03:54:27.226392 24158 net.cpp:408] softmax -> softmax
I0412 03:54:27.226660 24158 net.cpp:150] Setting up softmax
I0412 03:54:27.226675 24158 net.cpp:157] Top shape: 1024 67 (68608)
I0412 03:54:27.226680 24158 net.cpp:165] Memory required for data: 2189930496
I0412 03:54:27.226686 24158 layer_factory.hpp:77] Creating layer loss
I0412 03:54:27.226694 24158 net.cpp:100] Creating Layer loss
I0412 03:54:27.226701 24158 net.cpp:434] loss <- softmax
I0412 03:54:27.226709 24158 net.cpp:434] loss <- label_data_1_split_0
I0412 03:54:27.226724 24158 net.cpp:408] loss -> loss
…
