…
I0414 03:00:52.557034 30373 solver.cpp:93] Creating training net from train_net file: ./Prototxt/experiment_10/rtsd-r1/CoNorm/trial_1/train.prototxt
I0414 03:00:52.557426 30373 net.cpp:58] Initializing net from parameters: 
state {
  phase: TRAIN
  level: 0
  stage: ""
}
layer {
  name: "data"
  type: "Data"
  top: "data"
  top: "label"
  include {
    phase: TRAIN
  }
  transform_param {
    scale: 0.0039215689
    mirror: false
    crop_size: 48
    mean_value: 132
    mean_value: 132
    mean_value: 131
  }
  data_param {
    source: "../local_data/lmdb/rtsd-r1/CoNorm/train/lmdb"
    batch_size: 1024
    backend: LMDB
  }
}
layer {
  name: "conv1"
  type: "Convolution"
  bottom: "data"
  top: "conv1"
  convolution_param {
    num_output: 100
    pad: 0
    kernel_size: 7
    group: 1
    stride: 1
    weight_filler {
      type: "xavier"
    }
  }
}
layer {
  name: "conv1_relu"
  type: "ReLU"
  bottom: "conv1"
  top: "conv1"
}
layer {
  name: "pool1"
  type: "Pooling"
  bottom: "conv1"
  top: "pool1"
  pooling_param {
    pool: MAX
    kernel_size: 2
    stride: 2
  }
}
layer {
  name: "conv2"
  type: "Convolution"
  bottom: "pool1"
  top: "conv2"
  convolution_param {
    num_output: 150
    pad: 0
    kernel_size: 4
    group: 1
    stride: 1
    weight_filler {
      type: "xavier"
    }
  }
}
layer {
  name: "conv2_relu"
  type: "ReLU"
  bottom: "conv2"
  top: "conv2"
}
layer {
  name: "pool2"
  type: "Pooling"
  bottom: "conv2"
  top: "pool2"
  pooling_param {
    pool: MAX
    kernel_size: 2
    stride: 2
  }
}
layer {
  name: "conv3"
  type: "Convolution"
  bottom: "pool2"
  top: "conv3"
  convolution_param {
    num_output: 250
    pad: 0
    kernel_size: 4
    group: 1
    stride: 1
    weight_filler {
      type: "xavier"
    }
  }
}
layer {
  name: "conv3_relu"
  type: "ReLU"
  bottom: "conv3"
  top: "conv3"
}
layer {
  name: "pool3"
  type: "Pooling"
  bottom: "conv3"
  top: "pool3"
  pooling_param {
    pool: MAX
    kernel_size: 2
    stride: 2
  }
}
layer {
  name: "fc4_300"
  type: "InnerProduct"
  bottom: "pool3"
  top: "fc4_300"
  inner_product_param {
    num_output: 300
    weight_filler {
      type: "xavier"
    }
  }
}
layer {
  name: "fc4_relu"
  type: "ReLU"
  bottom: "fc4_300"
  top: "fc4_300"
}
layer {
  name: "fc5_67"
  type: "InnerProduct"
  bottom: "fc4_300"
  top: "fc5_classes"
  inner_product_param {
    num_output: 67
    weight_filler {
      type: "xavier"
    }
  }
}
layer {
  name: "softmax"
  type: "Softmax"
  bottom: "fc5_classes"
  top: "softmax"
}
layer {
  name: "loss"
  type: "MultinomialLogisticLoss"
  bottom: "softmax"
  bottom: "label"
  top: "loss"
}
layer {
  name: "accuracy_1"
  type: "Accuracy"
  bottom: "fc5_classes"
  bottom: "label"
  top: "accuracy_1"
  accuracy_param {
    top_k: 1
  }
}
layer {
  name: "accuracy_5"
  type: "Accuracy"
  bottom: "fc5_classes"
  bottom: "label"
  top: "accuracy_5"
  accuracy_param {
    top_k: 5
  }
}
layer {
  name: "silence"
  type: "Silence"
  bottom: "accuracy_1"
  bottom: "accuracy_5"
}
I0414 03:00:52.557567 30373 layer_factory.hpp:77] Creating layer data
I0414 03:00:52.558876 30373 net.cpp:100] Creating Layer data
I0414 03:00:52.558895 30373 net.cpp:408] data -> data
I0414 03:00:52.558923 30373 net.cpp:408] data -> label
I0414 03:00:52.561466 30505 db_lmdb.cpp:35] Opened lmdb ../local_data/lmdb/rtsd-r1/CoNorm/train/lmdb
I0414 03:00:52.636312 30373 data_layer.cpp:41] output data size: 1024,3,48,48
I0414 03:00:52.706450 30373 net.cpp:150] Setting up data
I0414 03:00:52.706511 30373 net.cpp:157] Top shape: 1024 3 48 48 (7077888)
I0414 03:00:52.706519 30373 net.cpp:157] Top shape: 1024 (1024)
I0414 03:00:52.706523 30373 net.cpp:165] Memory required for data: 28315648
I0414 03:00:52.706537 30373 layer_factory.hpp:77] Creating layer label_data_1_split
I0414 03:00:52.706552 30373 net.cpp:100] Creating Layer label_data_1_split
I0414 03:00:52.706562 30373 net.cpp:434] label_data_1_split <- label
I0414 03:00:52.706578 30373 net.cpp:408] label_data_1_split -> label_data_1_split_0
I0414 03:00:52.706594 30373 net.cpp:408] label_data_1_split -> label_data_1_split_1
I0414 03:00:52.706604 30373 net.cpp:408] label_data_1_split -> label_data_1_split_2
I0414 03:00:52.706677 30373 net.cpp:150] Setting up label_data_1_split
I0414 03:00:52.706687 30373 net.cpp:157] Top shape: 1024 (1024)
I0414 03:00:52.706693 30373 net.cpp:157] Top shape: 1024 (1024)
I0414 03:00:52.706698 30373 net.cpp:157] Top shape: 1024 (1024)
I0414 03:00:52.706703 30373 net.cpp:165] Memory required for data: 28327936
I0414 03:00:52.706707 30373 layer_factory.hpp:77] Creating layer conv1
I0414 03:00:52.706727 30373 net.cpp:100] Creating Layer conv1
I0414 03:00:52.706732 30373 net.cpp:434] conv1 <- data
I0414 03:00:52.706742 30373 net.cpp:408] conv1 -> conv1
I0414 03:00:53.238239 30373 net.cpp:150] Setting up conv1
I0414 03:00:53.238265 30373 net.cpp:157] Top shape: 1024 100 42 42 (180633600)
I0414 03:00:53.238268 30373 net.cpp:165] Memory required for data: 750862336
I0414 03:00:53.238291 30373 layer_factory.hpp:77] Creating layer conv1_relu
I0414 03:00:53.238303 30373 net.cpp:100] Creating Layer conv1_relu
I0414 03:00:53.238308 30373 net.cpp:434] conv1_relu <- conv1
I0414 03:00:53.238315 30373 net.cpp:395] conv1_relu -> conv1 (in-place)
I0414 03:00:53.238512 30373 net.cpp:150] Setting up conv1_relu
I0414 03:00:53.238521 30373 net.cpp:157] Top shape: 1024 100 42 42 (180633600)
I0414 03:00:53.238524 30373 net.cpp:165] Memory required for data: 1473396736
I0414 03:00:53.238528 30373 layer_factory.hpp:77] Creating layer pool1
I0414 03:00:53.238538 30373 net.cpp:100] Creating Layer pool1
I0414 03:00:53.238540 30373 net.cpp:434] pool1 <- conv1
I0414 03:00:53.238545 30373 net.cpp:408] pool1 -> pool1
I0414 03:00:53.238597 30373 net.cpp:150] Setting up pool1
I0414 03:00:53.238603 30373 net.cpp:157] Top shape: 1024 100 21 21 (45158400)
I0414 03:00:53.238606 30373 net.cpp:165] Memory required for data: 1654030336
I0414 03:00:53.238610 30373 layer_factory.hpp:77] Creating layer conv2
I0414 03:00:53.238620 30373 net.cpp:100] Creating Layer conv2
I0414 03:00:53.238623 30373 net.cpp:434] conv2 <- pool1
I0414 03:00:53.238628 30373 net.cpp:408] conv2 -> conv2
I0414 03:00:53.259583 30373 net.cpp:150] Setting up conv2
I0414 03:00:53.259601 30373 net.cpp:157] Top shape: 1024 150 18 18 (49766400)
I0414 03:00:53.259605 30373 net.cpp:165] Memory required for data: 1853095936
I0414 03:00:53.259615 30373 layer_factory.hpp:77] Creating layer conv2_relu
I0414 03:00:53.259624 30373 net.cpp:100] Creating Layer conv2_relu
I0414 03:00:53.259626 30373 net.cpp:434] conv2_relu <- conv2
I0414 03:00:53.259632 30373 net.cpp:395] conv2_relu -> conv2 (in-place)
I0414 03:00:53.260684 30373 net.cpp:150] Setting up conv2_relu
I0414 03:00:53.260699 30373 net.cpp:157] Top shape: 1024 150 18 18 (49766400)
I0414 03:00:53.260704 30373 net.cpp:165] Memory required for data: 2052161536
I0414 03:00:53.260707 30373 layer_factory.hpp:77] Creating layer pool2
I0414 03:00:53.260715 30373 net.cpp:100] Creating Layer pool2
I0414 03:00:53.260720 30373 net.cpp:434] pool2 <- conv2
I0414 03:00:53.260726 30373 net.cpp:408] pool2 -> pool2
I0414 03:00:53.260776 30373 net.cpp:150] Setting up pool2
I0414 03:00:53.260784 30373 net.cpp:157] Top shape: 1024 150 9 9 (12441600)
I0414 03:00:53.260789 30373 net.cpp:165] Memory required for data: 2101927936
I0414 03:00:53.260792 30373 layer_factory.hpp:77] Creating layer conv3
I0414 03:00:53.260802 30373 net.cpp:100] Creating Layer conv3
I0414 03:00:53.260807 30373 net.cpp:434] conv3 <- pool2
I0414 03:00:53.260812 30373 net.cpp:408] conv3 -> conv3
I0414 03:00:53.270131 30373 net.cpp:150] Setting up conv3
I0414 03:00:53.270153 30373 net.cpp:157] Top shape: 1024 250 6 6 (9216000)
I0414 03:00:53.270159 30373 net.cpp:165] Memory required for data: 2138791936
I0414 03:00:53.270174 30373 layer_factory.hpp:77] Creating layer conv3_relu
I0414 03:00:53.270184 30373 net.cpp:100] Creating Layer conv3_relu
I0414 03:00:53.270191 30373 net.cpp:434] conv3_relu <- conv3
I0414 03:00:53.270196 30373 net.cpp:395] conv3_relu -> conv3 (in-place)
I0414 03:00:53.272193 30373 net.cpp:150] Setting up conv3_relu
I0414 03:00:53.272212 30373 net.cpp:157] Top shape: 1024 250 6 6 (9216000)
I0414 03:00:53.272215 30373 net.cpp:165] Memory required for data: 2175655936
I0414 03:00:53.272219 30373 layer_factory.hpp:77] Creating layer pool3
I0414 03:00:53.272227 30373 net.cpp:100] Creating Layer pool3
I0414 03:00:53.272231 30373 net.cpp:434] pool3 <- conv3
I0414 03:00:53.272241 30373 net.cpp:408] pool3 -> pool3
I0414 03:00:53.272291 30373 net.cpp:150] Setting up pool3
I0414 03:00:53.272300 30373 net.cpp:157] Top shape: 1024 250 3 3 (2304000)
I0414 03:00:53.272305 30373 net.cpp:165] Memory required for data: 2184871936
I0414 03:00:53.272308 30373 layer_factory.hpp:77] Creating layer fc4_300
I0414 03:00:53.272325 30373 net.cpp:100] Creating Layer fc4_300
I0414 03:00:53.272330 30373 net.cpp:434] fc4_300 <- pool3
I0414 03:00:53.272334 30373 net.cpp:408] fc4_300 -> fc4_300
I0414 03:00:53.279955 30373 net.cpp:150] Setting up fc4_300
I0414 03:00:53.279974 30373 net.cpp:157] Top shape: 1024 300 (307200)
I0414 03:00:53.279978 30373 net.cpp:165] Memory required for data: 2186100736
I0414 03:00:53.279985 30373 layer_factory.hpp:77] Creating layer fc4_relu
I0414 03:00:53.279995 30373 net.cpp:100] Creating Layer fc4_relu
I0414 03:00:53.280001 30373 net.cpp:434] fc4_relu <- fc4_300
I0414 03:00:53.280007 30373 net.cpp:395] fc4_relu -> fc4_300 (in-place)
I0414 03:00:53.280205 30373 net.cpp:150] Setting up fc4_relu
I0414 03:00:53.280217 30373 net.cpp:157] Top shape: 1024 300 (307200)
I0414 03:00:53.280221 30373 net.cpp:165] Memory required for data: 2187329536
I0414 03:00:53.280225 30373 layer_factory.hpp:77] Creating layer fc5_67
I0414 03:00:53.280234 30373 net.cpp:100] Creating Layer fc5_67
I0414 03:00:53.280238 30373 net.cpp:434] fc5_67 <- fc4_300
I0414 03:00:53.280246 30373 net.cpp:408] fc5_67 -> fc5_classes
I0414 03:00:53.282613 30373 net.cpp:150] Setting up fc5_67
I0414 03:00:53.282629 30373 net.cpp:157] Top shape: 1024 67 (68608)
I0414 03:00:53.282632 30373 net.cpp:165] Memory required for data: 2187603968
I0414 03:00:53.282645 30373 layer_factory.hpp:77] Creating layer fc5_classes_fc5_67_0_split
I0414 03:00:53.282655 30373 net.cpp:100] Creating Layer fc5_classes_fc5_67_0_split
I0414 03:00:53.282660 30373 net.cpp:434] fc5_classes_fc5_67_0_split <- fc5_classes
I0414 03:00:53.282665 30373 net.cpp:408] fc5_classes_fc5_67_0_split -> fc5_classes_fc5_67_0_split_0
I0414 03:00:53.282676 30373 net.cpp:408] fc5_classes_fc5_67_0_split -> fc5_classes_fc5_67_0_split_1
I0414 03:00:53.282685 30373 net.cpp:408] fc5_classes_fc5_67_0_split -> fc5_classes_fc5_67_0_split_2
I0414 03:00:53.282738 30373 net.cpp:150] Setting up fc5_classes_fc5_67_0_split
I0414 03:00:53.282747 30373 net.cpp:157] Top shape: 1024 67 (68608)
I0414 03:00:53.282752 30373 net.cpp:157] Top shape: 1024 67 (68608)
I0414 03:00:53.282757 30373 net.cpp:157] Top shape: 1024 67 (68608)
I0414 03:00:53.282758 30373 net.cpp:165] Memory required for data: 2188427264
I0414 03:00:53.282762 30373 layer_factory.hpp:77] Creating layer softmax
I0414 03:00:53.282768 30373 net.cpp:100] Creating Layer softmax
I0414 03:00:53.282771 30373 net.cpp:434] softmax <- fc5_classes_fc5_67_0_split_0
I0414 03:00:53.282778 30373 net.cpp:408] softmax -> softmax
I0414 03:00:53.283040 30373 net.cpp:150] Setting up softmax
I0414 03:00:53.283051 30373 net.cpp:157] Top shape: 1024 67 (68608)
I0414 03:00:53.283056 30373 net.cpp:165] Memory required for data: 2188701696
I0414 03:00:53.283059 30373 layer_factory.hpp:77] Creating layer loss
I0414 03:00:53.283072 30373 net.cpp:100] Creating Layer loss
I0414 03:00:53.283090 30373 net.cpp:434] loss <- softmax
I0414 03:00:53.283097 30373 net.cpp:434] loss <- label_data_1_split_0
I0414 03:00:53.283103 30373 net.cpp:408] loss -> loss
…
