…
I0414 02:50:33.574985 25227 solver.cpp:93] Creating training net from train_net file: ./Prototxt/experiment_10/rtsd-r1/CoNorm/trial_1/train.prototxt
I0414 02:50:33.575434 25227 net.cpp:58] Initializing net from parameters: 
state {
  phase: TRAIN
  level: 0
  stage: ""
}
layer {
  name: "data"
  type: "Data"
  top: "data"
  top: "label"
  include {
    phase: TRAIN
  }
  transform_param {
    scale: 0.0039215689
    mirror: false
    crop_size: 48
    mean_value: 132
    mean_value: 132
    mean_value: 131
  }
  data_param {
    source: "../local_data/lmdb/rtsd-r1/CoNorm/train/lmdb"
    batch_size: 1024
    backend: LMDB
  }
}
layer {
  name: "conv1"
  type: "Convolution"
  bottom: "data"
  top: "conv1"
  convolution_param {
    num_output: 100
    pad: 0
    kernel_size: 7
    group: 1
    stride: 1
    weight_filler {
      type: "xavier"
    }
  }
}
layer {
  name: "conv1_relu"
  type: "ReLU"
  bottom: "conv1"
  top: "conv1"
}
layer {
  name: "pool1"
  type: "Pooling"
  bottom: "conv1"
  top: "pool1"
  pooling_param {
    pool: MAX
    kernel_size: 2
    stride: 2
  }
}
layer {
  name: "conv2"
  type: "Convolution"
  bottom: "pool1"
  top: "conv2"
  convolution_param {
    num_output: 150
    pad: 0
    kernel_size: 4
    group: 1
    stride: 1
    weight_filler {
      type: "xavier"
    }
  }
}
layer {
  name: "conv2_relu"
  type: "ReLU"
  bottom: "conv2"
  top: "conv2"
}
layer {
  name: "pool2"
  type: "Pooling"
  bottom: "conv2"
  top: "pool2"
  pooling_param {
    pool: MAX
    kernel_size: 2
    stride: 2
  }
}
layer {
  name: "conv3"
  type: "Convolution"
  bottom: "pool2"
  top: "conv3"
  convolution_param {
    num_output: 250
    pad: 0
    kernel_size: 4
    group: 1
    stride: 1
    weight_filler {
      type: "xavier"
    }
  }
}
layer {
  name: "conv3_relu"
  type: "ReLU"
  bottom: "conv3"
  top: "conv3"
}
layer {
  name: "pool3"
  type: "Pooling"
  bottom: "conv3"
  top: "pool3"
  pooling_param {
    pool: MAX
    kernel_size: 2
    stride: 2
  }
}
layer {
  name: "fc4_300"
  type: "InnerProduct"
  bottom: "pool3"
  top: "fc4_300"
  inner_product_param {
    num_output: 300
    weight_filler {
      type: "xavier"
    }
  }
}
layer {
  name: "fc4_relu"
  type: "ReLU"
  bottom: "fc4_300"
  top: "fc4_300"
}
layer {
  name: "fc5_67"
  type: "InnerProduct"
  bottom: "fc4_300"
  top: "fc5_classes"
  inner_product_param {
    num_output: 67
    weight_filler {
      type: "xavier"
    }
  }
}
layer {
  name: "softmax"
  type: "Softmax"
  bottom: "fc5_classes"
  top: "softmax"
}
layer {
  name: "loss"
  type: "MultinomialLogisticLoss"
  bottom: "softmax"
  bottom: "label"
  top: "loss"
}
layer {
  name: "accuracy_1"
  type: "Accuracy"
  bottom: "fc5_classes"
  bottom: "label"
  top: "accuracy_1"
  accuracy_param {
    top_k: 1
  }
}
layer {
  name: "accuracy_5"
  type: "Accuracy"
  bottom: "fc5_classes"
  bottom: "label"
  top: "accuracy_5"
  accuracy_param {
    top_k: 5
  }
}
layer {
  name: "silence"
  type: "Silence"
  bottom: "accuracy_1"
  bottom: "accuracy_5"
}
I0414 02:50:33.575589 25227 layer_factory.hpp:77] Creating layer data
I0414 02:50:33.576911 25227 net.cpp:100] Creating Layer data
I0414 02:50:33.576941 25227 net.cpp:408] data -> data
I0414 02:50:33.576970 25227 net.cpp:408] data -> label
I0414 02:50:33.617880 25334 db_lmdb.cpp:35] Opened lmdb ../local_data/lmdb/rtsd-r1/CoNorm/train/lmdb
I0414 02:50:33.660225 25227 data_layer.cpp:41] output data size: 1024,3,48,48
I0414 02:50:33.725575 25227 net.cpp:150] Setting up data
I0414 02:50:33.725636 25227 net.cpp:157] Top shape: 1024 3 48 48 (7077888)
I0414 02:50:33.725642 25227 net.cpp:157] Top shape: 1024 (1024)
I0414 02:50:33.725646 25227 net.cpp:165] Memory required for data: 28315648
I0414 02:50:33.725658 25227 layer_factory.hpp:77] Creating layer label_data_1_split
I0414 02:50:33.725679 25227 net.cpp:100] Creating Layer label_data_1_split
I0414 02:50:33.725689 25227 net.cpp:434] label_data_1_split <- label
I0414 02:50:33.725709 25227 net.cpp:408] label_data_1_split -> label_data_1_split_0
I0414 02:50:33.725724 25227 net.cpp:408] label_data_1_split -> label_data_1_split_1
I0414 02:50:33.725735 25227 net.cpp:408] label_data_1_split -> label_data_1_split_2
I0414 02:50:33.725816 25227 net.cpp:150] Setting up label_data_1_split
I0414 02:50:33.725824 25227 net.cpp:157] Top shape: 1024 (1024)
I0414 02:50:33.725831 25227 net.cpp:157] Top shape: 1024 (1024)
I0414 02:50:33.725836 25227 net.cpp:157] Top shape: 1024 (1024)
I0414 02:50:33.725838 25227 net.cpp:165] Memory required for data: 28327936
I0414 02:50:33.725842 25227 layer_factory.hpp:77] Creating layer conv1
I0414 02:50:33.725862 25227 net.cpp:100] Creating Layer conv1
I0414 02:50:33.725868 25227 net.cpp:434] conv1 <- data
I0414 02:50:33.725877 25227 net.cpp:408] conv1 -> conv1
I0414 02:50:33.770833 25353 blocking_queue.cpp:50] Waiting for data
I0414 02:50:34.054937 25227 net.cpp:150] Setting up conv1
I0414 02:50:34.054965 25227 net.cpp:157] Top shape: 1024 100 42 42 (180633600)
I0414 02:50:34.054970 25227 net.cpp:165] Memory required for data: 750862336
I0414 02:50:34.054991 25227 layer_factory.hpp:77] Creating layer conv1_relu
I0414 02:50:34.055003 25227 net.cpp:100] Creating Layer conv1_relu
I0414 02:50:34.055009 25227 net.cpp:434] conv1_relu <- conv1
I0414 02:50:34.055016 25227 net.cpp:395] conv1_relu -> conv1 (in-place)
I0414 02:50:34.055215 25227 net.cpp:150] Setting up conv1_relu
I0414 02:50:34.055228 25227 net.cpp:157] Top shape: 1024 100 42 42 (180633600)
I0414 02:50:34.055233 25227 net.cpp:165] Memory required for data: 1473396736
I0414 02:50:34.055236 25227 layer_factory.hpp:77] Creating layer pool1
I0414 02:50:34.055245 25227 net.cpp:100] Creating Layer pool1
I0414 02:50:34.055251 25227 net.cpp:434] pool1 <- conv1
I0414 02:50:34.055256 25227 net.cpp:408] pool1 -> pool1
I0414 02:50:34.055311 25227 net.cpp:150] Setting up pool1
I0414 02:50:34.055320 25227 net.cpp:157] Top shape: 1024 100 21 21 (45158400)
I0414 02:50:34.055325 25227 net.cpp:165] Memory required for data: 1654030336
I0414 02:50:34.055328 25227 layer_factory.hpp:77] Creating layer conv2
I0414 02:50:34.055338 25227 net.cpp:100] Creating Layer conv2
I0414 02:50:34.055343 25227 net.cpp:434] conv2 <- pool1
I0414 02:50:34.055348 25227 net.cpp:408] conv2 -> conv2
I0414 02:50:34.061039 25227 net.cpp:150] Setting up conv2
I0414 02:50:34.061058 25227 net.cpp:157] Top shape: 1024 150 18 18 (49766400)
I0414 02:50:34.061063 25227 net.cpp:165] Memory required for data: 1853095936
I0414 02:50:34.061072 25227 layer_factory.hpp:77] Creating layer conv2_relu
I0414 02:50:34.061081 25227 net.cpp:100] Creating Layer conv2_relu
I0414 02:50:34.061086 25227 net.cpp:434] conv2_relu <- conv2
I0414 02:50:34.061091 25227 net.cpp:395] conv2_relu -> conv2 (in-place)
I0414 02:50:34.062070 25227 net.cpp:150] Setting up conv2_relu
I0414 02:50:34.062086 25227 net.cpp:157] Top shape: 1024 150 18 18 (49766400)
I0414 02:50:34.062089 25227 net.cpp:165] Memory required for data: 2052161536
I0414 02:50:34.062093 25227 layer_factory.hpp:77] Creating layer pool2
I0414 02:50:34.062100 25227 net.cpp:100] Creating Layer pool2
I0414 02:50:34.062103 25227 net.cpp:434] pool2 <- conv2
I0414 02:50:34.062109 25227 net.cpp:408] pool2 -> pool2
I0414 02:50:34.062160 25227 net.cpp:150] Setting up pool2
I0414 02:50:34.062168 25227 net.cpp:157] Top shape: 1024 150 9 9 (12441600)
I0414 02:50:34.062173 25227 net.cpp:165] Memory required for data: 2101927936
I0414 02:50:34.062176 25227 layer_factory.hpp:77] Creating layer conv3
I0414 02:50:34.062186 25227 net.cpp:100] Creating Layer conv3
I0414 02:50:34.062213 25227 net.cpp:434] conv3 <- pool2
I0414 02:50:34.062222 25227 net.cpp:408] conv3 -> conv3
I0414 02:50:34.069530 25227 net.cpp:150] Setting up conv3
I0414 02:50:34.069548 25227 net.cpp:157] Top shape: 1024 250 6 6 (9216000)
I0414 02:50:34.069552 25227 net.cpp:165] Memory required for data: 2138791936
I0414 02:50:34.069562 25227 layer_factory.hpp:77] Creating layer conv3_relu
I0414 02:50:34.069569 25227 net.cpp:100] Creating Layer conv3_relu
I0414 02:50:34.069573 25227 net.cpp:434] conv3_relu <- conv3
I0414 02:50:34.069578 25227 net.cpp:395] conv3_relu -> conv3 (in-place)
I0414 02:50:34.071034 25227 net.cpp:150] Setting up conv3_relu
I0414 02:50:34.071051 25227 net.cpp:157] Top shape: 1024 250 6 6 (9216000)
I0414 02:50:34.071054 25227 net.cpp:165] Memory required for data: 2175655936
I0414 02:50:34.071058 25227 layer_factory.hpp:77] Creating layer pool3
I0414 02:50:34.071065 25227 net.cpp:100] Creating Layer pool3
I0414 02:50:34.071069 25227 net.cpp:434] pool3 <- conv3
I0414 02:50:34.071075 25227 net.cpp:408] pool3 -> pool3
I0414 02:50:34.071125 25227 net.cpp:150] Setting up pool3
I0414 02:50:34.071133 25227 net.cpp:157] Top shape: 1024 250 3 3 (2304000)
I0414 02:50:34.071136 25227 net.cpp:165] Memory required for data: 2184871936
I0414 02:50:34.071140 25227 layer_factory.hpp:77] Creating layer fc4_300
I0414 02:50:34.071146 25227 net.cpp:100] Creating Layer fc4_300
I0414 02:50:34.071151 25227 net.cpp:434] fc4_300 <- pool3
I0414 02:50:34.071156 25227 net.cpp:408] fc4_300 -> fc4_300
I0414 02:50:34.076865 25227 net.cpp:150] Setting up fc4_300
I0414 02:50:34.076882 25227 net.cpp:157] Top shape: 1024 300 (307200)
I0414 02:50:34.076885 25227 net.cpp:165] Memory required for data: 2186100736
I0414 02:50:34.076892 25227 layer_factory.hpp:77] Creating layer fc4_relu
I0414 02:50:34.076899 25227 net.cpp:100] Creating Layer fc4_relu
I0414 02:50:34.076902 25227 net.cpp:434] fc4_relu <- fc4_300
I0414 02:50:34.076907 25227 net.cpp:395] fc4_relu -> fc4_300 (in-place)
I0414 02:50:34.077095 25227 net.cpp:150] Setting up fc4_relu
I0414 02:50:34.077106 25227 net.cpp:157] Top shape: 1024 300 (307200)
I0414 02:50:34.077111 25227 net.cpp:165] Memory required for data: 2187329536
I0414 02:50:34.077114 25227 layer_factory.hpp:77] Creating layer fc5_67
I0414 02:50:34.077121 25227 net.cpp:100] Creating Layer fc5_67
I0414 02:50:34.077126 25227 net.cpp:434] fc5_67 <- fc4_300
I0414 02:50:34.077131 25227 net.cpp:408] fc5_67 -> fc5_classes
I0414 02:50:34.078629 25227 net.cpp:150] Setting up fc5_67
I0414 02:50:34.078644 25227 net.cpp:157] Top shape: 1024 67 (68608)
I0414 02:50:34.078647 25227 net.cpp:165] Memory required for data: 2187603968
I0414 02:50:34.078657 25227 layer_factory.hpp:77] Creating layer fc5_classes_fc5_67_0_split
I0414 02:50:34.078666 25227 net.cpp:100] Creating Layer fc5_classes_fc5_67_0_split
I0414 02:50:34.078671 25227 net.cpp:434] fc5_classes_fc5_67_0_split <- fc5_classes
I0414 02:50:34.078677 25227 net.cpp:408] fc5_classes_fc5_67_0_split -> fc5_classes_fc5_67_0_split_0
I0414 02:50:34.078686 25227 net.cpp:408] fc5_classes_fc5_67_0_split -> fc5_classes_fc5_67_0_split_1
I0414 02:50:34.078694 25227 net.cpp:408] fc5_classes_fc5_67_0_split -> fc5_classes_fc5_67_0_split_2
I0414 02:50:34.078745 25227 net.cpp:150] Setting up fc5_classes_fc5_67_0_split
I0414 02:50:34.078753 25227 net.cpp:157] Top shape: 1024 67 (68608)
I0414 02:50:34.078757 25227 net.cpp:157] Top shape: 1024 67 (68608)
I0414 02:50:34.078759 25227 net.cpp:157] Top shape: 1024 67 (68608)
I0414 02:50:34.078763 25227 net.cpp:165] Memory required for data: 2188427264
I0414 02:50:34.078765 25227 layer_factory.hpp:77] Creating layer softmax
I0414 02:50:34.078771 25227 net.cpp:100] Creating Layer softmax
I0414 02:50:34.078774 25227 net.cpp:434] softmax <- fc5_classes_fc5_67_0_split_0
I0414 02:50:34.078779 25227 net.cpp:408] softmax -> softmax
I0414 02:50:34.079031 25227 net.cpp:150] Setting up softmax
I0414 02:50:34.079044 25227 net.cpp:157] Top shape: 1024 67 (68608)
I0414 02:50:34.079048 25227 net.cpp:165] Memory required for data: 2188701696
I0414 02:50:34.079052 25227 layer_factory.hpp:77] Creating layer loss
I0414 02:50:34.079077 25227 net.cpp:100] Creating Layer loss
I0414 02:50:34.079083 25227 net.cpp:434] loss <- softmax
I0414 02:50:34.079088 25227 net.cpp:434] loss <- label_data_1_split_0
I0414 02:50:34.079093 25227 net.cpp:408] loss -> loss
…
