…
I0412 03:58:59.812417 21254 solver.cpp:93] Creating training net from train_net file: ./Prototxt/experiment_10/rtsd-r1/CoNorm/trial_1/train.prototxt
I0412 03:58:59.812779 21254 net.cpp:58] Initializing net from parameters: 
state {
  phase: TRAIN
  level: 0
  stage: ""
}
layer {
  name: "data"
  type: "Data"
  top: "data"
  top: "label"
  include {
    phase: TRAIN
  }
  transform_param {
    scale: 0.0039215689
    mirror: false
    crop_size: 48
    mean_value: 132
    mean_value: 132
    mean_value: 131
  }
  data_param {
    source: "../local_data/lmdb/rtsd-r1/CoNorm/train/lmdb"
    batch_size: 1024
    backend: LMDB
  }
}
layer {
  name: "conv1"
  type: "Convolution"
  bottom: "data"
  top: "conv1"
  convolution_param {
    num_output: 100
    pad: 0
    kernel_size: 7
    group: 1
    stride: 1
    weight_filler {
      type: "xavier"
    }
  }
}
layer {
  name: "conv1_relu"
  type: "ReLU"
  bottom: "conv1"
  top: "conv1"
}
layer {
  name: "pool1"
  type: "Pooling"
  bottom: "conv1"
  top: "pool1"
  pooling_param {
    pool: MAX
    kernel_size: 2
    stride: 2
  }
}
layer {
  name: "conv2"
  type: "Convolution"
  bottom: "pool1"
  top: "conv2"
  convolution_param {
    num_output: 150
    pad: 0
    kernel_size: 4
    group: 1
    stride: 1
    weight_filler {
      type: "xavier"
    }
  }
}
layer {
  name: "conv2_relu"
  type: "ReLU"
  bottom: "conv2"
  top: "conv2"
}
layer {
  name: "pool2"
  type: "Pooling"
  bottom: "conv2"
  top: "pool2"
  pooling_param {
    pool: MAX
    kernel_size: 2
    stride: 2
  }
}
layer {
  name: "conv3"
  type: "Convolution"
  bottom: "pool2"
  top: "conv3"
  convolution_param {
    num_output: 250
    pad: 0
    kernel_size: 4
    group: 1
    stride: 1
    weight_filler {
      type: "xavier"
    }
  }
}
layer {
  name: "conv3_relu"
  type: "ReLU"
  bottom: "conv3"
  top: "conv3"
}
layer {
  name: "pool3"
  type: "Pooling"
  bottom: "conv3"
  top: "pool3"
  pooling_param {
    pool: MAX
    kernel_size: 2
    stride: 2
  }
}
layer {
  name: "fc4_300"
  type: "InnerProduct"
  bottom: "pool3"
  top: "fc4_300"
  inner_product_param {
    num_output: 300
    weight_filler {
      type: "xavier"
    }
  }
}
layer {
  name: "fc4_relu"
  type: "ReLU"
  bottom: "fc4_300"
  top: "fc4_300"
}
layer {
  name: "drop4"
  type: "Dropout"
  bottom: "fc4_300"
  top: "fc4_300"
  dropout_param {
    dropout_ratio: 0.4
  }
}
layer {
  name: "fc5_67"
  type: "InnerProduct"
  bottom: "fc4_300"
  top: "fc5_classes"
  inner_product_param {
    num_output: 67
    weight_filler {
      type: "xavier"
    }
  }
}
layer {
  name: "softmax"
  type: "Softmax"
  bottom: "fc5_classes"
  top: "softmax"
}
layer {
  name: "loss"
  type: "MultinomialLogisticLoss"
  bottom: "softmax"
  bottom: "label"
  top: "loss"
}
layer {
  name: "accuracy_1"
  type: "Accuracy"
  bottom: "fc5_classes"
  bottom: "label"
  top: "accuracy_1"
  accuracy_param {
    top_k: 1
  }
}
layer {
  name: "accuracy_5"
  type: "Accuracy"
  bottom: "fc5_classes"
  bottom: "label"
  top: "accuracy_5"
  accuracy_param {
    top_k: 5
  }
}
I0412 03:58:59.812907 21254 layer_factory.hpp:77] Creating layer data
I0412 03:58:59.813987 21254 net.cpp:100] Creating Layer data
I0412 03:58:59.814007 21254 net.cpp:408] data -> data
I0412 03:58:59.814033 21254 net.cpp:408] data -> label
I0412 03:58:59.816184 21424 db_lmdb.cpp:35] Opened lmdb ../local_data/lmdb/rtsd-r1/CoNorm/train/lmdb
I0412 03:58:59.841195 21254 data_layer.cpp:41] output data size: 1024,3,48,48
I0412 03:58:59.895175 21254 net.cpp:150] Setting up data
I0412 03:58:59.895211 21254 net.cpp:157] Top shape: 1024 3 48 48 (7077888)
I0412 03:58:59.895216 21254 net.cpp:157] Top shape: 1024 (1024)
I0412 03:58:59.895220 21254 net.cpp:165] Memory required for data: 28315648
I0412 03:58:59.895232 21254 layer_factory.hpp:77] Creating layer label_data_1_split
I0412 03:58:59.895246 21254 net.cpp:100] Creating Layer label_data_1_split
I0412 03:58:59.895253 21254 net.cpp:434] label_data_1_split <- label
I0412 03:58:59.895270 21254 net.cpp:408] label_data_1_split -> label_data_1_split_0
I0412 03:58:59.895284 21254 net.cpp:408] label_data_1_split -> label_data_1_split_1
I0412 03:58:59.895292 21254 net.cpp:408] label_data_1_split -> label_data_1_split_2
I0412 03:58:59.895390 21254 net.cpp:150] Setting up label_data_1_split
I0412 03:58:59.895401 21254 net.cpp:157] Top shape: 1024 (1024)
I0412 03:58:59.895406 21254 net.cpp:157] Top shape: 1024 (1024)
I0412 03:58:59.895409 21254 net.cpp:157] Top shape: 1024 (1024)
I0412 03:58:59.895412 21254 net.cpp:165] Memory required for data: 28327936
I0412 03:58:59.895416 21254 layer_factory.hpp:77] Creating layer conv1
I0412 03:58:59.895432 21254 net.cpp:100] Creating Layer conv1
I0412 03:58:59.895437 21254 net.cpp:434] conv1 <- data
I0412 03:58:59.895443 21254 net.cpp:408] conv1 -> conv1
I0412 03:59:01.149510 21254 net.cpp:150] Setting up conv1
I0412 03:59:01.149544 21254 net.cpp:157] Top shape: 1024 100 42 42 (180633600)
I0412 03:59:01.149549 21254 net.cpp:165] Memory required for data: 750862336
I0412 03:59:01.149572 21254 layer_factory.hpp:77] Creating layer conv1_relu
I0412 03:59:01.149583 21254 net.cpp:100] Creating Layer conv1_relu
I0412 03:59:01.149588 21254 net.cpp:434] conv1_relu <- conv1
I0412 03:59:01.149595 21254 net.cpp:395] conv1_relu -> conv1 (in-place)
I0412 03:59:01.149822 21254 net.cpp:150] Setting up conv1_relu
I0412 03:59:01.149835 21254 net.cpp:157] Top shape: 1024 100 42 42 (180633600)
I0412 03:59:01.149840 21254 net.cpp:165] Memory required for data: 1473396736
I0412 03:59:01.149844 21254 layer_factory.hpp:77] Creating layer pool1
I0412 03:59:01.149854 21254 net.cpp:100] Creating Layer pool1
I0412 03:59:01.149859 21254 net.cpp:434] pool1 <- conv1
I0412 03:59:01.149865 21254 net.cpp:408] pool1 -> pool1
I0412 03:59:01.149925 21254 net.cpp:150] Setting up pool1
I0412 03:59:01.149935 21254 net.cpp:157] Top shape: 1024 100 21 21 (45158400)
I0412 03:59:01.149940 21254 net.cpp:165] Memory required for data: 1654030336
I0412 03:59:01.149943 21254 layer_factory.hpp:77] Creating layer conv2
I0412 03:59:01.149955 21254 net.cpp:100] Creating Layer conv2
I0412 03:59:01.149960 21254 net.cpp:434] conv2 <- pool1
I0412 03:59:01.149966 21254 net.cpp:408] conv2 -> conv2
I0412 03:59:01.155963 21254 net.cpp:150] Setting up conv2
I0412 03:59:01.155990 21254 net.cpp:157] Top shape: 1024 150 18 18 (49766400)
I0412 03:59:01.155994 21254 net.cpp:165] Memory required for data: 1853095936
I0412 03:59:01.156008 21254 layer_factory.hpp:77] Creating layer conv2_relu
I0412 03:59:01.156019 21254 net.cpp:100] Creating Layer conv2_relu
I0412 03:59:01.156025 21254 net.cpp:434] conv2_relu <- conv2
I0412 03:59:01.156031 21254 net.cpp:395] conv2_relu -> conv2 (in-place)
I0412 03:59:01.158728 21254 net.cpp:150] Setting up conv2_relu
I0412 03:59:01.158748 21254 net.cpp:157] Top shape: 1024 150 18 18 (49766400)
I0412 03:59:01.158751 21254 net.cpp:165] Memory required for data: 2052161536
I0412 03:59:01.158756 21254 layer_factory.hpp:77] Creating layer pool2
I0412 03:59:01.158766 21254 net.cpp:100] Creating Layer pool2
I0412 03:59:01.158771 21254 net.cpp:434] pool2 <- conv2
I0412 03:59:01.158777 21254 net.cpp:408] pool2 -> pool2
I0412 03:59:01.158840 21254 net.cpp:150] Setting up pool2
I0412 03:59:01.158850 21254 net.cpp:157] Top shape: 1024 150 9 9 (12441600)
I0412 03:59:01.158854 21254 net.cpp:165] Memory required for data: 2101927936
I0412 03:59:01.158857 21254 layer_factory.hpp:77] Creating layer conv3
I0412 03:59:01.158870 21254 net.cpp:100] Creating Layer conv3
I0412 03:59:01.158875 21254 net.cpp:434] conv3 <- pool2
I0412 03:59:01.158907 21254 net.cpp:408] conv3 -> conv3
I0412 03:59:01.164789 21254 net.cpp:150] Setting up conv3
I0412 03:59:01.164821 21254 net.cpp:157] Top shape: 1024 250 6 6 (9216000)
I0412 03:59:01.164825 21254 net.cpp:165] Memory required for data: 2138791936
I0412 03:59:01.164839 21254 layer_factory.hpp:77] Creating layer conv3_relu
I0412 03:59:01.164849 21254 net.cpp:100] Creating Layer conv3_relu
I0412 03:59:01.164854 21254 net.cpp:434] conv3_relu <- conv3
I0412 03:59:01.164860 21254 net.cpp:395] conv3_relu -> conv3 (in-place)
I0412 03:59:01.166712 21254 net.cpp:150] Setting up conv3_relu
I0412 03:59:01.166730 21254 net.cpp:157] Top shape: 1024 250 6 6 (9216000)
I0412 03:59:01.166734 21254 net.cpp:165] Memory required for data: 2175655936
I0412 03:59:01.166738 21254 layer_factory.hpp:77] Creating layer pool3
I0412 03:59:01.166748 21254 net.cpp:100] Creating Layer pool3
I0412 03:59:01.166750 21254 net.cpp:434] pool3 <- conv3
I0412 03:59:01.166759 21254 net.cpp:408] pool3 -> pool3
I0412 03:59:01.166813 21254 net.cpp:150] Setting up pool3
I0412 03:59:01.166821 21254 net.cpp:157] Top shape: 1024 250 3 3 (2304000)
I0412 03:59:01.166826 21254 net.cpp:165] Memory required for data: 2184871936
I0412 03:59:01.166828 21254 layer_factory.hpp:77] Creating layer fc4_300
I0412 03:59:01.166836 21254 net.cpp:100] Creating Layer fc4_300
I0412 03:59:01.166841 21254 net.cpp:434] fc4_300 <- pool3
I0412 03:59:01.166846 21254 net.cpp:408] fc4_300 -> fc4_300
I0412 03:59:01.172376 21254 net.cpp:150] Setting up fc4_300
I0412 03:59:01.172410 21254 net.cpp:157] Top shape: 1024 300 (307200)
I0412 03:59:01.172413 21254 net.cpp:165] Memory required for data: 2186100736
I0412 03:59:01.172422 21254 layer_factory.hpp:77] Creating layer fc4_relu
I0412 03:59:01.172432 21254 net.cpp:100] Creating Layer fc4_relu
I0412 03:59:01.172436 21254 net.cpp:434] fc4_relu <- fc4_300
I0412 03:59:01.172442 21254 net.cpp:395] fc4_relu -> fc4_300 (in-place)
I0412 03:59:01.172689 21254 net.cpp:150] Setting up fc4_relu
I0412 03:59:01.172701 21254 net.cpp:157] Top shape: 1024 300 (307200)
I0412 03:59:01.172706 21254 net.cpp:165] Memory required for data: 2187329536
I0412 03:59:01.172709 21254 layer_factory.hpp:77] Creating layer drop4
I0412 03:59:01.172718 21254 net.cpp:100] Creating Layer drop4
I0412 03:59:01.172721 21254 net.cpp:434] drop4 <- fc4_300
I0412 03:59:01.172726 21254 net.cpp:395] drop4 -> fc4_300 (in-place)
I0412 03:59:01.172761 21254 net.cpp:150] Setting up drop4
I0412 03:59:01.172770 21254 net.cpp:157] Top shape: 1024 300 (307200)
I0412 03:59:01.172775 21254 net.cpp:165] Memory required for data: 2188558336
I0412 03:59:01.172777 21254 layer_factory.hpp:77] Creating layer fc5_67
I0412 03:59:01.172785 21254 net.cpp:100] Creating Layer fc5_67
I0412 03:59:01.172790 21254 net.cpp:434] fc5_67 <- fc4_300
I0412 03:59:01.172794 21254 net.cpp:408] fc5_67 -> fc5_classes
I0412 03:59:01.174139 21254 net.cpp:150] Setting up fc5_67
I0412 03:59:01.174155 21254 net.cpp:157] Top shape: 1024 67 (68608)
I0412 03:59:01.174160 21254 net.cpp:165] Memory required for data: 2188832768
I0412 03:59:01.174171 21254 layer_factory.hpp:77] Creating layer fc5_classes_fc5_67_0_split
I0412 03:59:01.174180 21254 net.cpp:100] Creating Layer fc5_classes_fc5_67_0_split
I0412 03:59:01.174183 21254 net.cpp:434] fc5_classes_fc5_67_0_split <- fc5_classes
I0412 03:59:01.174190 21254 net.cpp:408] fc5_classes_fc5_67_0_split -> fc5_classes_fc5_67_0_split_0
I0412 03:59:01.174197 21254 net.cpp:408] fc5_classes_fc5_67_0_split -> fc5_classes_fc5_67_0_split_1
I0412 03:59:01.174204 21254 net.cpp:408] fc5_classes_fc5_67_0_split -> fc5_classes_fc5_67_0_split_2
I0412 03:59:01.174262 21254 net.cpp:150] Setting up fc5_classes_fc5_67_0_split
I0412 03:59:01.174269 21254 net.cpp:157] Top shape: 1024 67 (68608)
I0412 03:59:01.174273 21254 net.cpp:157] Top shape: 1024 67 (68608)
I0412 03:59:01.174278 21254 net.cpp:157] Top shape: 1024 67 (68608)
I0412 03:59:01.174279 21254 net.cpp:165] Memory required for data: 2189656064
I0412 03:59:01.174283 21254 layer_factory.hpp:77] Creating layer softmax
I0412 03:59:01.174312 21254 net.cpp:100] Creating Layer softmax
I0412 03:59:01.174317 21254 net.cpp:434] softmax <- fc5_classes_fc5_67_0_split_0
I0412 03:59:01.174324 21254 net.cpp:408] softmax -> softmax
I0412 03:59:01.174620 21254 net.cpp:150] Setting up softmax
I0412 03:59:01.174633 21254 net.cpp:157] Top shape: 1024 67 (68608)
I0412 03:59:01.174638 21254 net.cpp:165] Memory required for data: 2189930496
I0412 03:59:01.174641 21254 layer_factory.hpp:77] Creating layer loss
I0412 03:59:01.174649 21254 net.cpp:100] Creating Layer loss
I0412 03:59:01.174654 21254 net.cpp:434] loss <- softmax
I0412 03:59:01.174659 21254 net.cpp:434] loss <- label_data_1_split_0
I0412 03:59:01.174665 21254 net.cpp:408] loss -> loss
…
