…
I0414 03:04:04.546525 20227 solver.cpp:93] Creating training net from train_net file: ./Prototxt/experiment_10/rtsd-r1/CoNorm/trial_1/train.prototxt
I0414 03:04:04.546942 20227 net.cpp:58] Initializing net from parameters: 
state {
  phase: TRAIN
  level: 0
  stage: ""
}
layer {
  name: "data"
  type: "Data"
  top: "data"
  top: "label"
  include {
    phase: TRAIN
  }
  transform_param {
    scale: 0.0039215689
    mirror: false
    crop_size: 48
    mean_value: 132
    mean_value: 132
    mean_value: 131
  }
  data_param {
    source: "../local_data/lmdb/rtsd-r1/CoNorm/train/lmdb"
    batch_size: 1024
    backend: LMDB
  }
}
layer {
  name: "conv1"
  type: "Convolution"
  bottom: "data"
  top: "conv1"
  convolution_param {
    num_output: 100
    pad: 0
    kernel_size: 7
    group: 1
    stride: 1
    weight_filler {
      type: "xavier"
    }
  }
}
layer {
  name: "conv1_relu"
  type: "ReLU"
  bottom: "conv1"
  top: "conv1"
}
layer {
  name: "pool1"
  type: "Pooling"
  bottom: "conv1"
  top: "pool1"
  pooling_param {
    pool: MAX
    kernel_size: 2
    stride: 2
  }
}
layer {
  name: "conv2"
  type: "Convolution"
  bottom: "pool1"
  top: "conv2"
  convolution_param {
    num_output: 150
    pad: 0
    kernel_size: 4
    group: 1
    stride: 1
    weight_filler {
      type: "xavier"
    }
  }
}
layer {
  name: "conv2_relu"
  type: "ReLU"
  bottom: "conv2"
  top: "conv2"
}
layer {
  name: "pool2"
  type: "Pooling"
  bottom: "conv2"
  top: "pool2"
  pooling_param {
    pool: MAX
    kernel_size: 2
    stride: 2
  }
}
layer {
  name: "conv3"
  type: "Convolution"
  bottom: "pool2"
  top: "conv3"
  convolution_param {
    num_output: 250
    pad: 0
    kernel_size: 4
    group: 1
    stride: 1
    weight_filler {
      type: "xavier"
    }
  }
}
layer {
  name: "conv3_relu"
  type: "ReLU"
  bottom: "conv3"
  top: "conv3"
}
layer {
  name: "pool3"
  type: "Pooling"
  bottom: "conv3"
  top: "pool3"
  pooling_param {
    pool: MAX
    kernel_size: 2
    stride: 2
  }
}
layer {
  name: "fc4_300"
  type: "InnerProduct"
  bottom: "pool3"
  top: "fc4_300"
  inner_product_param {
    num_output: 300
    weight_filler {
      type: "xavier"
    }
  }
}
layer {
  name: "fc4_relu"
  type: "ReLU"
  bottom: "fc4_300"
  top: "fc4_300"
}
layer {
  name: "fc5_67"
  type: "InnerProduct"
  bottom: "fc4_300"
  top: "fc5_classes"
  inner_product_param {
    num_output: 67
    weight_filler {
      type: "xavier"
    }
  }
}
layer {
  name: "softmax"
  type: "Softmax"
  bottom: "fc5_classes"
  top: "softmax"
}
layer {
  name: "loss"
  type: "MultinomialLogisticLoss"
  bottom: "softmax"
  bottom: "label"
  top: "loss"
}
layer {
  name: "accuracy_1"
  type: "Accuracy"
  bottom: "fc5_classes"
  bottom: "label"
  top: "accuracy_1"
  accuracy_param {
    top_k: 1
  }
}
layer {
  name: "accuracy_5"
  type: "Accuracy"
  bottom: "fc5_classes"
  bottom: "label"
  top: "accuracy_5"
  accuracy_param {
    top_k: 5
  }
}
layer {
  name: "silence"
  type: "Silence"
  bottom: "accuracy_1"
  bottom: "accuracy_5"
}
I0414 03:04:04.547083 20227 layer_factory.hpp:77] Creating layer data
I0414 03:04:04.548717 20227 net.cpp:100] Creating Layer data
I0414 03:04:04.548744 20227 net.cpp:408] data -> data
I0414 03:04:04.548775 20227 net.cpp:408] data -> label
I0414 03:04:04.551573 20343 db_lmdb.cpp:35] Opened lmdb ../local_data/lmdb/rtsd-r1/CoNorm/train/lmdb
I0414 03:04:04.571677 20227 data_layer.cpp:41] output data size: 1024,3,48,48
I0414 03:04:04.627085 20227 net.cpp:150] Setting up data
I0414 03:04:04.627142 20227 net.cpp:157] Top shape: 1024 3 48 48 (7077888)
I0414 03:04:04.627149 20227 net.cpp:157] Top shape: 1024 (1024)
I0414 03:04:04.627152 20227 net.cpp:165] Memory required for data: 28315648
I0414 03:04:04.627162 20227 layer_factory.hpp:77] Creating layer label_data_1_split
I0414 03:04:04.627177 20227 net.cpp:100] Creating Layer label_data_1_split
I0414 03:04:04.627183 20227 net.cpp:434] label_data_1_split <- label
I0414 03:04:04.627197 20227 net.cpp:408] label_data_1_split -> label_data_1_split_0
I0414 03:04:04.627210 20227 net.cpp:408] label_data_1_split -> label_data_1_split_1
I0414 03:04:04.627218 20227 net.cpp:408] label_data_1_split -> label_data_1_split_2
I0414 03:04:04.627284 20227 net.cpp:150] Setting up label_data_1_split
I0414 03:04:04.627291 20227 net.cpp:157] Top shape: 1024 (1024)
I0414 03:04:04.627295 20227 net.cpp:157] Top shape: 1024 (1024)
I0414 03:04:04.627298 20227 net.cpp:157] Top shape: 1024 (1024)
I0414 03:04:04.627301 20227 net.cpp:165] Memory required for data: 28327936
I0414 03:04:04.627305 20227 layer_factory.hpp:77] Creating layer conv1
I0414 03:04:04.627321 20227 net.cpp:100] Creating Layer conv1
I0414 03:04:04.627326 20227 net.cpp:434] conv1 <- data
I0414 03:04:04.627331 20227 net.cpp:408] conv1 -> conv1
I0414 03:04:04.984370 20227 net.cpp:150] Setting up conv1
I0414 03:04:04.984406 20227 net.cpp:157] Top shape: 1024 100 42 42 (180633600)
I0414 03:04:04.984411 20227 net.cpp:165] Memory required for data: 750862336
I0414 03:04:04.984437 20227 layer_factory.hpp:77] Creating layer conv1_relu
I0414 03:04:04.984450 20227 net.cpp:100] Creating Layer conv1_relu
I0414 03:04:04.984459 20227 net.cpp:434] conv1_relu <- conv1
I0414 03:04:04.984467 20227 net.cpp:395] conv1_relu -> conv1 (in-place)
I0414 03:04:04.984716 20227 net.cpp:150] Setting up conv1_relu
I0414 03:04:04.984733 20227 net.cpp:157] Top shape: 1024 100 42 42 (180633600)
I0414 03:04:04.984737 20227 net.cpp:165] Memory required for data: 1473396736
I0414 03:04:04.984742 20227 layer_factory.hpp:77] Creating layer pool1
I0414 03:04:04.984753 20227 net.cpp:100] Creating Layer pool1
I0414 03:04:04.984760 20227 net.cpp:434] pool1 <- conv1
I0414 03:04:04.984766 20227 net.cpp:408] pool1 -> pool1
I0414 03:04:04.984835 20227 net.cpp:150] Setting up pool1
I0414 03:04:04.984845 20227 net.cpp:157] Top shape: 1024 100 21 21 (45158400)
I0414 03:04:04.984850 20227 net.cpp:165] Memory required for data: 1654030336
I0414 03:04:04.984854 20227 layer_factory.hpp:77] Creating layer conv2
I0414 03:04:04.984866 20227 net.cpp:100] Creating Layer conv2
I0414 03:04:04.984872 20227 net.cpp:434] conv2 <- pool1
I0414 03:04:04.984879 20227 net.cpp:408] conv2 -> conv2
I0414 03:04:04.993235 20227 net.cpp:150] Setting up conv2
I0414 03:04:04.993261 20227 net.cpp:157] Top shape: 1024 150 18 18 (49766400)
I0414 03:04:04.993266 20227 net.cpp:165] Memory required for data: 1853095936
I0414 03:04:04.993281 20227 layer_factory.hpp:77] Creating layer conv2_relu
I0414 03:04:04.993291 20227 net.cpp:100] Creating Layer conv2_relu
I0414 03:04:04.993295 20227 net.cpp:434] conv2_relu <- conv2
I0414 03:04:04.993302 20227 net.cpp:395] conv2_relu -> conv2 (in-place)
I0414 03:04:04.994470 20227 net.cpp:150] Setting up conv2_relu
I0414 03:04:04.994490 20227 net.cpp:157] Top shape: 1024 150 18 18 (49766400)
I0414 03:04:04.994494 20227 net.cpp:165] Memory required for data: 2052161536
I0414 03:04:04.994499 20227 layer_factory.hpp:77] Creating layer pool2
I0414 03:04:04.994508 20227 net.cpp:100] Creating Layer pool2
I0414 03:04:04.994511 20227 net.cpp:434] pool2 <- conv2
I0414 03:04:04.994518 20227 net.cpp:408] pool2 -> pool2
I0414 03:04:04.994578 20227 net.cpp:150] Setting up pool2
I0414 03:04:04.994588 20227 net.cpp:157] Top shape: 1024 150 9 9 (12441600)
I0414 03:04:04.994595 20227 net.cpp:165] Memory required for data: 2101927936
I0414 03:04:04.994597 20227 layer_factory.hpp:77] Creating layer conv3
I0414 03:04:04.994611 20227 net.cpp:100] Creating Layer conv3
I0414 03:04:04.994616 20227 net.cpp:434] conv3 <- pool2
I0414 03:04:04.994623 20227 net.cpp:408] conv3 -> conv3
I0414 03:04:05.008841 20227 net.cpp:150] Setting up conv3
I0414 03:04:05.008864 20227 net.cpp:157] Top shape: 1024 250 6 6 (9216000)
I0414 03:04:05.008869 20227 net.cpp:165] Memory required for data: 2138791936
I0414 03:04:05.008882 20227 layer_factory.hpp:77] Creating layer conv3_relu
I0414 03:04:05.008891 20227 net.cpp:100] Creating Layer conv3_relu
I0414 03:04:05.008895 20227 net.cpp:434] conv3_relu <- conv3
I0414 03:04:05.008901 20227 net.cpp:395] conv3_relu -> conv3 (in-place)
I0414 03:04:05.010167 20227 net.cpp:150] Setting up conv3_relu
I0414 03:04:05.010187 20227 net.cpp:157] Top shape: 1024 250 6 6 (9216000)
I0414 03:04:05.010191 20227 net.cpp:165] Memory required for data: 2175655936
I0414 03:04:05.010195 20227 layer_factory.hpp:77] Creating layer pool3
I0414 03:04:05.010203 20227 net.cpp:100] Creating Layer pool3
I0414 03:04:05.010208 20227 net.cpp:434] pool3 <- conv3
I0414 03:04:05.010215 20227 net.cpp:408] pool3 -> pool3
I0414 03:04:05.010272 20227 net.cpp:150] Setting up pool3
I0414 03:04:05.010282 20227 net.cpp:157] Top shape: 1024 250 3 3 (2304000)
I0414 03:04:05.010285 20227 net.cpp:165] Memory required for data: 2184871936
I0414 03:04:05.010288 20227 layer_factory.hpp:77] Creating layer fc4_300
I0414 03:04:05.010298 20227 net.cpp:100] Creating Layer fc4_300
I0414 03:04:05.010303 20227 net.cpp:434] fc4_300 <- pool3
I0414 03:04:05.010308 20227 net.cpp:408] fc4_300 -> fc4_300
I0414 03:04:05.017204 20227 net.cpp:150] Setting up fc4_300
I0414 03:04:05.017223 20227 net.cpp:157] Top shape: 1024 300 (307200)
I0414 03:04:05.017227 20227 net.cpp:165] Memory required for data: 2186100736
I0414 03:04:05.017236 20227 layer_factory.hpp:77] Creating layer fc4_relu
I0414 03:04:05.017243 20227 net.cpp:100] Creating Layer fc4_relu
I0414 03:04:05.017248 20227 net.cpp:434] fc4_relu <- fc4_300
I0414 03:04:05.017254 20227 net.cpp:395] fc4_relu -> fc4_300 (in-place)
I0414 03:04:05.017482 20227 net.cpp:150] Setting up fc4_relu
I0414 03:04:05.017498 20227 net.cpp:157] Top shape: 1024 300 (307200)
I0414 03:04:05.017503 20227 net.cpp:165] Memory required for data: 2187329536
I0414 03:04:05.017506 20227 layer_factory.hpp:77] Creating layer fc5_67
I0414 03:04:05.017514 20227 net.cpp:100] Creating Layer fc5_67
I0414 03:04:05.017519 20227 net.cpp:434] fc5_67 <- fc4_300
I0414 03:04:05.017526 20227 net.cpp:408] fc5_67 -> fc5_classes
I0414 03:04:05.019408 20227 net.cpp:150] Setting up fc5_67
I0414 03:04:05.019426 20227 net.cpp:157] Top shape: 1024 67 (68608)
I0414 03:04:05.019430 20227 net.cpp:165] Memory required for data: 2187603968
I0414 03:04:05.019441 20227 layer_factory.hpp:77] Creating layer fc5_classes_fc5_67_0_split
I0414 03:04:05.019450 20227 net.cpp:100] Creating Layer fc5_classes_fc5_67_0_split
I0414 03:04:05.019455 20227 net.cpp:434] fc5_classes_fc5_67_0_split <- fc5_classes
I0414 03:04:05.019462 20227 net.cpp:408] fc5_classes_fc5_67_0_split -> fc5_classes_fc5_67_0_split_0
I0414 03:04:05.019474 20227 net.cpp:408] fc5_classes_fc5_67_0_split -> fc5_classes_fc5_67_0_split_1
I0414 03:04:05.019484 20227 net.cpp:408] fc5_classes_fc5_67_0_split -> fc5_classes_fc5_67_0_split_2
I0414 03:04:05.019546 20227 net.cpp:150] Setting up fc5_classes_fc5_67_0_split
I0414 03:04:05.019553 20227 net.cpp:157] Top shape: 1024 67 (68608)
I0414 03:04:05.019558 20227 net.cpp:157] Top shape: 1024 67 (68608)
I0414 03:04:05.019562 20227 net.cpp:157] Top shape: 1024 67 (68608)
I0414 03:04:05.019565 20227 net.cpp:165] Memory required for data: 2188427264
I0414 03:04:05.019569 20227 layer_factory.hpp:77] Creating layer softmax
I0414 03:04:05.019577 20227 net.cpp:100] Creating Layer softmax
I0414 03:04:05.019582 20227 net.cpp:434] softmax <- fc5_classes_fc5_67_0_split_0
I0414 03:04:05.019587 20227 net.cpp:408] softmax -> softmax
I0414 03:04:05.019906 20227 net.cpp:150] Setting up softmax
I0414 03:04:05.019920 20227 net.cpp:157] Top shape: 1024 67 (68608)
I0414 03:04:05.019925 20227 net.cpp:165] Memory required for data: 2188701696
I0414 03:04:05.019930 20227 layer_factory.hpp:77] Creating layer loss
I0414 03:04:05.019942 20227 net.cpp:100] Creating Layer loss
I0414 03:04:05.019965 20227 net.cpp:434] loss <- softmax
I0414 03:04:05.019974 20227 net.cpp:434] loss <- label_data_1_split_0
I0414 03:04:05.019984 20227 net.cpp:408] loss -> loss
…
