…
I0414 02:58:46.998359 16129 solver.cpp:93] Creating training net from train_net file: ./Prototxt/experiment_10/rtsd-r1/CoNorm/trial_1/train.prototxt
I0414 02:58:46.998808 16129 net.cpp:58] Initializing net from parameters: 
state {
  phase: TRAIN
  level: 0
  stage: ""
}
layer {
  name: "data"
  type: "Data"
  top: "data"
  top: "label"
  include {
    phase: TRAIN
  }
  transform_param {
    scale: 0.0039215689
    mirror: false
    crop_size: 48
    mean_value: 132
    mean_value: 132
    mean_value: 131
  }
  data_param {
    source: "../local_data/lmdb/rtsd-r1/CoNorm/train/lmdb"
    batch_size: 1024
    backend: LMDB
  }
}
layer {
  name: "conv1"
  type: "Convolution"
  bottom: "data"
  top: "conv1"
  convolution_param {
    num_output: 100
    pad: 0
    kernel_size: 7
    group: 1
    stride: 1
    weight_filler {
      type: "xavier"
    }
  }
}
layer {
  name: "conv1_relu"
  type: "ReLU"
  bottom: "conv1"
  top: "conv1"
}
layer {
  name: "pool1"
  type: "Pooling"
  bottom: "conv1"
  top: "pool1"
  pooling_param {
    pool: MAX
    kernel_size: 2
    stride: 2
  }
}
layer {
  name: "conv2"
  type: "Convolution"
  bottom: "pool1"
  top: "conv2"
  convolution_param {
    num_output: 150
    pad: 0
    kernel_size: 4
    group: 1
    stride: 1
    weight_filler {
      type: "xavier"
    }
  }
}
layer {
  name: "conv2_relu"
  type: "ReLU"
  bottom: "conv2"
  top: "conv2"
}
layer {
  name: "pool2"
  type: "Pooling"
  bottom: "conv2"
  top: "pool2"
  pooling_param {
    pool: MAX
    kernel_size: 2
    stride: 2
  }
}
layer {
  name: "conv3"
  type: "Convolution"
  bottom: "pool2"
  top: "conv3"
  convolution_param {
    num_output: 250
    pad: 0
    kernel_size: 4
    group: 1
    stride: 1
    weight_filler {
      type: "xavier"
    }
  }
}
layer {
  name: "conv3_relu"
  type: "ReLU"
  bottom: "conv3"
  top: "conv3"
}
layer {
  name: "pool3"
  type: "Pooling"
  bottom: "conv3"
  top: "pool3"
  pooling_param {
    pool: MAX
    kernel_size: 2
    stride: 2
  }
}
layer {
  name: "fc4_300"
  type: "InnerProduct"
  bottom: "pool3"
  top: "fc4_300"
  inner_product_param {
    num_output: 300
    weight_filler {
      type: "xavier"
    }
  }
}
layer {
  name: "fc4_relu"
  type: "ReLU"
  bottom: "fc4_300"
  top: "fc4_300"
}
layer {
  name: "fc5_67"
  type: "InnerProduct"
  bottom: "fc4_300"
  top: "fc5_classes"
  inner_product_param {
    num_output: 67
    weight_filler {
      type: "xavier"
    }
  }
}
layer {
  name: "softmax"
  type: "Softmax"
  bottom: "fc5_classes"
  top: "softmax"
}
layer {
  name: "loss"
  type: "MultinomialLogisticLoss"
  bottom: "softmax"
  bottom: "label"
  top: "loss"
}
layer {
  name: "accuracy_1"
  type: "Accuracy"
  bottom: "fc5_classes"
  bottom: "label"
  top: "accuracy_1"
  accuracy_param {
    top_k: 1
  }
}
layer {
  name: "accuracy_5"
  type: "Accuracy"
  bottom: "fc5_classes"
  bottom: "label"
  top: "accuracy_5"
  accuracy_param {
    top_k: 5
  }
}
layer {
  name: "silence"
  type: "Silence"
  bottom: "accuracy_1"
  bottom: "accuracy_5"
}
I0414 02:58:46.998976 16129 layer_factory.hpp:77] Creating layer data
I0414 02:58:47.000334 16129 net.cpp:100] Creating Layer data
I0414 02:58:47.000356 16129 net.cpp:408] data -> data
I0414 02:58:47.000388 16129 net.cpp:408] data -> label
I0414 02:58:47.002073 16257 db_lmdb.cpp:35] Opened lmdb ../local_data/lmdb/rtsd-r1/CoNorm/train/lmdb
I0414 02:58:47.104254 16129 data_layer.cpp:41] output data size: 1024,3,48,48
I0414 02:58:47.172471 16129 net.cpp:150] Setting up data
I0414 02:58:47.172520 16129 net.cpp:157] Top shape: 1024 3 48 48 (7077888)
I0414 02:58:47.172526 16129 net.cpp:157] Top shape: 1024 (1024)
I0414 02:58:47.172529 16129 net.cpp:165] Memory required for data: 28315648
I0414 02:58:47.172540 16129 layer_factory.hpp:77] Creating layer label_data_1_split
I0414 02:58:47.172554 16129 net.cpp:100] Creating Layer label_data_1_split
I0414 02:58:47.172562 16129 net.cpp:434] label_data_1_split <- label
I0414 02:58:47.172580 16129 net.cpp:408] label_data_1_split -> label_data_1_split_0
I0414 02:58:47.172593 16129 net.cpp:408] label_data_1_split -> label_data_1_split_1
I0414 02:58:47.172601 16129 net.cpp:408] label_data_1_split -> label_data_1_split_2
I0414 02:58:47.172667 16129 net.cpp:150] Setting up label_data_1_split
I0414 02:58:47.172675 16129 net.cpp:157] Top shape: 1024 (1024)
I0414 02:58:47.172679 16129 net.cpp:157] Top shape: 1024 (1024)
I0414 02:58:47.172683 16129 net.cpp:157] Top shape: 1024 (1024)
I0414 02:58:47.172685 16129 net.cpp:165] Memory required for data: 28327936
I0414 02:58:47.172688 16129 layer_factory.hpp:77] Creating layer conv1
I0414 02:58:47.172704 16129 net.cpp:100] Creating Layer conv1
I0414 02:58:47.172709 16129 net.cpp:434] conv1 <- data
I0414 02:58:47.172716 16129 net.cpp:408] conv1 -> conv1
I0414 02:58:47.663749 16129 net.cpp:150] Setting up conv1
I0414 02:58:47.663779 16129 net.cpp:157] Top shape: 1024 100 42 42 (180633600)
I0414 02:58:47.663782 16129 net.cpp:165] Memory required for data: 750862336
I0414 02:58:47.663805 16129 layer_factory.hpp:77] Creating layer conv1_relu
I0414 02:58:47.663816 16129 net.cpp:100] Creating Layer conv1_relu
I0414 02:58:47.663820 16129 net.cpp:434] conv1_relu <- conv1
I0414 02:58:47.663826 16129 net.cpp:395] conv1_relu -> conv1 (in-place)
I0414 02:58:47.664036 16129 net.cpp:150] Setting up conv1_relu
I0414 02:58:47.664048 16129 net.cpp:157] Top shape: 1024 100 42 42 (180633600)
I0414 02:58:47.664052 16129 net.cpp:165] Memory required for data: 1473396736
I0414 02:58:47.664055 16129 layer_factory.hpp:77] Creating layer pool1
I0414 02:58:47.664065 16129 net.cpp:100] Creating Layer pool1
I0414 02:58:47.664069 16129 net.cpp:434] pool1 <- conv1
I0414 02:58:47.664075 16129 net.cpp:408] pool1 -> pool1
I0414 02:58:47.664129 16129 net.cpp:150] Setting up pool1
I0414 02:58:47.664137 16129 net.cpp:157] Top shape: 1024 100 21 21 (45158400)
I0414 02:58:47.664140 16129 net.cpp:165] Memory required for data: 1654030336
I0414 02:58:47.664144 16129 layer_factory.hpp:77] Creating layer conv2
I0414 02:58:47.664155 16129 net.cpp:100] Creating Layer conv2
I0414 02:58:47.664158 16129 net.cpp:434] conv2 <- pool1
I0414 02:58:47.664163 16129 net.cpp:408] conv2 -> conv2
I0414 02:58:47.674975 16129 net.cpp:150] Setting up conv2
I0414 02:58:47.674993 16129 net.cpp:157] Top shape: 1024 150 18 18 (49766400)
I0414 02:58:47.674996 16129 net.cpp:165] Memory required for data: 1853095936
I0414 02:58:47.675007 16129 layer_factory.hpp:77] Creating layer conv2_relu
I0414 02:58:47.675014 16129 net.cpp:100] Creating Layer conv2_relu
I0414 02:58:47.675020 16129 net.cpp:434] conv2_relu <- conv2
I0414 02:58:47.675025 16129 net.cpp:395] conv2_relu -> conv2 (in-place)
I0414 02:58:47.675968 16129 net.cpp:150] Setting up conv2_relu
I0414 02:58:47.675984 16129 net.cpp:157] Top shape: 1024 150 18 18 (49766400)
I0414 02:58:47.675988 16129 net.cpp:165] Memory required for data: 2052161536
I0414 02:58:47.675992 16129 layer_factory.hpp:77] Creating layer pool2
I0414 02:58:47.676000 16129 net.cpp:100] Creating Layer pool2
I0414 02:58:47.676005 16129 net.cpp:434] pool2 <- conv2
I0414 02:58:47.676012 16129 net.cpp:408] pool2 -> pool2
I0414 02:58:47.676060 16129 net.cpp:150] Setting up pool2
I0414 02:58:47.676069 16129 net.cpp:157] Top shape: 1024 150 9 9 (12441600)
I0414 02:58:47.676074 16129 net.cpp:165] Memory required for data: 2101927936
I0414 02:58:47.676076 16129 layer_factory.hpp:77] Creating layer conv3
I0414 02:58:47.676087 16129 net.cpp:100] Creating Layer conv3
I0414 02:58:47.676092 16129 net.cpp:434] conv3 <- pool2
I0414 02:58:47.676097 16129 net.cpp:408] conv3 -> conv3
I0414 02:58:47.684885 16129 net.cpp:150] Setting up conv3
I0414 02:58:47.684902 16129 net.cpp:157] Top shape: 1024 250 6 6 (9216000)
I0414 02:58:47.684906 16129 net.cpp:165] Memory required for data: 2138791936
I0414 02:58:47.684916 16129 layer_factory.hpp:77] Creating layer conv3_relu
I0414 02:58:47.684922 16129 net.cpp:100] Creating Layer conv3_relu
I0414 02:58:47.684926 16129 net.cpp:434] conv3_relu <- conv3
I0414 02:58:47.684931 16129 net.cpp:395] conv3_relu -> conv3 (in-place)
I0414 02:58:47.688336 16129 net.cpp:150] Setting up conv3_relu
I0414 02:58:47.688352 16129 net.cpp:157] Top shape: 1024 250 6 6 (9216000)
I0414 02:58:47.688356 16129 net.cpp:165] Memory required for data: 2175655936
I0414 02:58:47.688359 16129 layer_factory.hpp:77] Creating layer pool3
I0414 02:58:47.688366 16129 net.cpp:100] Creating Layer pool3
I0414 02:58:47.688370 16129 net.cpp:434] pool3 <- conv3
I0414 02:58:47.688375 16129 net.cpp:408] pool3 -> pool3
I0414 02:58:47.688421 16129 net.cpp:150] Setting up pool3
I0414 02:58:47.688429 16129 net.cpp:157] Top shape: 1024 250 3 3 (2304000)
I0414 02:58:47.688432 16129 net.cpp:165] Memory required for data: 2184871936
I0414 02:58:47.688436 16129 layer_factory.hpp:77] Creating layer fc4_300
I0414 02:58:47.688442 16129 net.cpp:100] Creating Layer fc4_300
I0414 02:58:47.688447 16129 net.cpp:434] fc4_300 <- pool3
I0414 02:58:47.688452 16129 net.cpp:408] fc4_300 -> fc4_300
I0414 02:58:47.694453 16129 net.cpp:150] Setting up fc4_300
I0414 02:58:47.694469 16129 net.cpp:157] Top shape: 1024 300 (307200)
I0414 02:58:47.694473 16129 net.cpp:165] Memory required for data: 2186100736
I0414 02:58:47.694480 16129 layer_factory.hpp:77] Creating layer fc4_relu
I0414 02:58:47.694486 16129 net.cpp:100] Creating Layer fc4_relu
I0414 02:58:47.694490 16129 net.cpp:434] fc4_relu <- fc4_300
I0414 02:58:47.694495 16129 net.cpp:395] fc4_relu -> fc4_300 (in-place)
I0414 02:58:47.694676 16129 net.cpp:150] Setting up fc4_relu
I0414 02:58:47.694689 16129 net.cpp:157] Top shape: 1024 300 (307200)
I0414 02:58:47.694695 16129 net.cpp:165] Memory required for data: 2187329536
I0414 02:58:47.694700 16129 layer_factory.hpp:77] Creating layer fc5_67
I0414 02:58:47.694705 16129 net.cpp:100] Creating Layer fc5_67
I0414 02:58:47.694710 16129 net.cpp:434] fc5_67 <- fc4_300
I0414 02:58:47.694715 16129 net.cpp:408] fc5_67 -> fc5_classes
I0414 02:58:47.696216 16129 net.cpp:150] Setting up fc5_67
I0414 02:58:47.696231 16129 net.cpp:157] Top shape: 1024 67 (68608)
I0414 02:58:47.696235 16129 net.cpp:165] Memory required for data: 2187603968
I0414 02:58:47.696245 16129 layer_factory.hpp:77] Creating layer fc5_classes_fc5_67_0_split
I0414 02:58:47.696252 16129 net.cpp:100] Creating Layer fc5_classes_fc5_67_0_split
I0414 02:58:47.696256 16129 net.cpp:434] fc5_classes_fc5_67_0_split <- fc5_classes
I0414 02:58:47.696262 16129 net.cpp:408] fc5_classes_fc5_67_0_split -> fc5_classes_fc5_67_0_split_0
I0414 02:58:47.696271 16129 net.cpp:408] fc5_classes_fc5_67_0_split -> fc5_classes_fc5_67_0_split_1
I0414 02:58:47.696279 16129 net.cpp:408] fc5_classes_fc5_67_0_split -> fc5_classes_fc5_67_0_split_2
I0414 02:58:47.696329 16129 net.cpp:150] Setting up fc5_classes_fc5_67_0_split
I0414 02:58:47.696336 16129 net.cpp:157] Top shape: 1024 67 (68608)
I0414 02:58:47.696339 16129 net.cpp:157] Top shape: 1024 67 (68608)
I0414 02:58:47.696342 16129 net.cpp:157] Top shape: 1024 67 (68608)
I0414 02:58:47.696346 16129 net.cpp:165] Memory required for data: 2188427264
I0414 02:58:47.696348 16129 layer_factory.hpp:77] Creating layer softmax
I0414 02:58:47.696354 16129 net.cpp:100] Creating Layer softmax
I0414 02:58:47.696357 16129 net.cpp:434] softmax <- fc5_classes_fc5_67_0_split_0
I0414 02:58:47.696362 16129 net.cpp:408] softmax -> softmax
I0414 02:58:47.696614 16129 net.cpp:150] Setting up softmax
I0414 02:58:47.696626 16129 net.cpp:157] Top shape: 1024 67 (68608)
I0414 02:58:47.696630 16129 net.cpp:165] Memory required for data: 2188701696
I0414 02:58:47.696632 16129 layer_factory.hpp:77] Creating layer loss
I0414 02:58:47.696641 16129 net.cpp:100] Creating Layer loss
I0414 02:58:47.696657 16129 net.cpp:434] loss <- softmax
I0414 02:58:47.696662 16129 net.cpp:434] loss <- label_data_1_split_0
I0414 02:58:47.696668 16129 net.cpp:408] loss -> loss
…
