…
I0414 03:00:12.174515 25761 solver.cpp:93] Creating training net from train_net file: ./Prototxt/experiment_10/rtsd-r1/CoNorm/trial_1/train.prototxt
I0414 03:00:12.174933 25761 net.cpp:58] Initializing net from parameters: 
state {
  phase: TRAIN
  level: 0
  stage: ""
}
layer {
  name: "data"
  type: "Data"
  top: "data"
  top: "label"
  include {
    phase: TRAIN
  }
  transform_param {
    scale: 0.0039215689
    mirror: false
    crop_size: 48
    mean_value: 132
    mean_value: 132
    mean_value: 131
  }
  data_param {
    source: "../local_data/lmdb/rtsd-r1/CoNorm/train/lmdb"
    batch_size: 1024
    backend: LMDB
  }
}
layer {
  name: "conv1"
  type: "Convolution"
  bottom: "data"
  top: "conv1"
  convolution_param {
    num_output: 100
    pad: 0
    kernel_size: 7
    group: 1
    stride: 1
    weight_filler {
      type: "xavier"
    }
  }
}
layer {
  name: "conv1_relu"
  type: "ReLU"
  bottom: "conv1"
  top: "conv1"
}
layer {
  name: "pool1"
  type: "Pooling"
  bottom: "conv1"
  top: "pool1"
  pooling_param {
    pool: MAX
    kernel_size: 2
    stride: 2
  }
}
layer {
  name: "conv2"
  type: "Convolution"
  bottom: "pool1"
  top: "conv2"
  convolution_param {
    num_output: 150
    pad: 0
    kernel_size: 4
    group: 1
    stride: 1
    weight_filler {
      type: "xavier"
    }
  }
}
layer {
  name: "conv2_relu"
  type: "ReLU"
  bottom: "conv2"
  top: "conv2"
}
layer {
  name: "pool2"
  type: "Pooling"
  bottom: "conv2"
  top: "pool2"
  pooling_param {
    pool: MAX
    kernel_size: 2
    stride: 2
  }
}
layer {
  name: "conv3"
  type: "Convolution"
  bottom: "pool2"
  top: "conv3"
  convolution_param {
    num_output: 250
    pad: 0
    kernel_size: 4
    group: 1
    stride: 1
    weight_filler {
      type: "xavier"
    }
  }
}
layer {
  name: "conv3_relu"
  type: "ReLU"
  bottom: "conv3"
  top: "conv3"
}
layer {
  name: "pool3"
  type: "Pooling"
  bottom: "conv3"
  top: "pool3"
  pooling_param {
    pool: MAX
    kernel_size: 2
    stride: 2
  }
}
layer {
  name: "fc4_300"
  type: "InnerProduct"
  bottom: "pool3"
  top: "fc4_300"
  inner_product_param {
    num_output: 300
    weight_filler {
      type: "xavier"
    }
  }
}
layer {
  name: "fc4_relu"
  type: "ReLU"
  bottom: "fc4_300"
  top: "fc4_300"
}
layer {
  name: "fc5_67"
  type: "InnerProduct"
  bottom: "fc4_300"
  top: "fc5_classes"
  inner_product_param {
    num_output: 67
    weight_filler {
      type: "xavier"
    }
  }
}
layer {
  name: "softmax"
  type: "Softmax"
  bottom: "fc5_classes"
  top: "softmax"
}
layer {
  name: "loss"
  type: "MultinomialLogisticLoss"
  bottom: "softmax"
  bottom: "label"
  top: "loss"
}
layer {
  name: "accuracy_1"
  type: "Accuracy"
  bottom: "fc5_classes"
  bottom: "label"
  top: "accuracy_1"
  accuracy_param {
    top_k: 1
  }
}
layer {
  name: "accuracy_5"
  type: "Accuracy"
  bottom: "fc5_classes"
  bottom: "label"
  top: "accuracy_5"
  accuracy_param {
    top_k: 5
  }
}
layer {
  name: "silence"
  type: "Silence"
  bottom: "accuracy_1"
  bottom: "accuracy_5"
}
I0414 03:00:12.175072 25761 layer_factory.hpp:77] Creating layer data
I0414 03:00:12.176398 25761 net.cpp:100] Creating Layer data
I0414 03:00:12.176415 25761 net.cpp:408] data -> data
I0414 03:00:12.176452 25761 net.cpp:408] data -> label
I0414 03:00:12.177692 25881 db_lmdb.cpp:35] Opened lmdb ../local_data/lmdb/rtsd-r1/CoNorm/train/lmdb
I0414 03:00:12.272572 25761 data_layer.cpp:41] output data size: 1024,3,48,48
I0414 03:00:12.356123 25761 net.cpp:150] Setting up data
I0414 03:00:12.356184 25761 net.cpp:157] Top shape: 1024 3 48 48 (7077888)
I0414 03:00:12.356190 25761 net.cpp:157] Top shape: 1024 (1024)
I0414 03:00:12.356194 25761 net.cpp:165] Memory required for data: 28315648
I0414 03:00:12.356204 25761 layer_factory.hpp:77] Creating layer label_data_1_split
I0414 03:00:12.356218 25761 net.cpp:100] Creating Layer label_data_1_split
I0414 03:00:12.356225 25761 net.cpp:434] label_data_1_split <- label
I0414 03:00:12.356237 25761 net.cpp:408] label_data_1_split -> label_data_1_split_0
I0414 03:00:12.356250 25761 net.cpp:408] label_data_1_split -> label_data_1_split_1
I0414 03:00:12.356257 25761 net.cpp:408] label_data_1_split -> label_data_1_split_2
I0414 03:00:12.356320 25761 net.cpp:150] Setting up label_data_1_split
I0414 03:00:12.356329 25761 net.cpp:157] Top shape: 1024 (1024)
I0414 03:00:12.356333 25761 net.cpp:157] Top shape: 1024 (1024)
I0414 03:00:12.356336 25761 net.cpp:157] Top shape: 1024 (1024)
I0414 03:00:12.356339 25761 net.cpp:165] Memory required for data: 28327936
I0414 03:00:12.356343 25761 layer_factory.hpp:77] Creating layer conv1
I0414 03:00:12.356359 25761 net.cpp:100] Creating Layer conv1
I0414 03:00:12.356364 25761 net.cpp:434] conv1 <- data
I0414 03:00:12.356369 25761 net.cpp:408] conv1 -> conv1
I0414 03:00:12.853911 25761 net.cpp:150] Setting up conv1
I0414 03:00:12.853945 25761 net.cpp:157] Top shape: 1024 100 42 42 (180633600)
I0414 03:00:12.853948 25761 net.cpp:165] Memory required for data: 750862336
I0414 03:00:12.853971 25761 layer_factory.hpp:77] Creating layer conv1_relu
I0414 03:00:12.853982 25761 net.cpp:100] Creating Layer conv1_relu
I0414 03:00:12.853986 25761 net.cpp:434] conv1_relu <- conv1
I0414 03:00:12.853992 25761 net.cpp:395] conv1_relu -> conv1 (in-place)
I0414 03:00:12.854920 25761 net.cpp:150] Setting up conv1_relu
I0414 03:00:12.854934 25761 net.cpp:157] Top shape: 1024 100 42 42 (180633600)
I0414 03:00:12.854938 25761 net.cpp:165] Memory required for data: 1473396736
I0414 03:00:12.854940 25761 layer_factory.hpp:77] Creating layer pool1
I0414 03:00:12.854951 25761 net.cpp:100] Creating Layer pool1
I0414 03:00:12.854954 25761 net.cpp:434] pool1 <- conv1
I0414 03:00:12.854960 25761 net.cpp:408] pool1 -> pool1
I0414 03:00:12.855016 25761 net.cpp:150] Setting up pool1
I0414 03:00:12.855026 25761 net.cpp:157] Top shape: 1024 100 21 21 (45158400)
I0414 03:00:12.855031 25761 net.cpp:165] Memory required for data: 1654030336
I0414 03:00:12.855034 25761 layer_factory.hpp:77] Creating layer conv2
I0414 03:00:12.855046 25761 net.cpp:100] Creating Layer conv2
I0414 03:00:12.855051 25761 net.cpp:434] conv2 <- pool1
I0414 03:00:12.855056 25761 net.cpp:408] conv2 -> conv2
I0414 03:00:12.862550 25761 net.cpp:150] Setting up conv2
I0414 03:00:12.862583 25761 net.cpp:157] Top shape: 1024 150 18 18 (49766400)
I0414 03:00:12.862587 25761 net.cpp:165] Memory required for data: 1853095936
I0414 03:00:12.862603 25761 layer_factory.hpp:77] Creating layer conv2_relu
I0414 03:00:12.862615 25761 net.cpp:100] Creating Layer conv2_relu
I0414 03:00:12.862622 25761 net.cpp:434] conv2_relu <- conv2
I0414 03:00:12.862628 25761 net.cpp:395] conv2_relu -> conv2 (in-place)
I0414 03:00:12.863836 25761 net.cpp:150] Setting up conv2_relu
I0414 03:00:12.863852 25761 net.cpp:157] Top shape: 1024 150 18 18 (49766400)
I0414 03:00:12.863857 25761 net.cpp:165] Memory required for data: 2052161536
I0414 03:00:12.863862 25761 layer_factory.hpp:77] Creating layer pool2
I0414 03:00:12.863870 25761 net.cpp:100] Creating Layer pool2
I0414 03:00:12.863875 25761 net.cpp:434] pool2 <- conv2
I0414 03:00:12.863901 25761 net.cpp:408] pool2 -> pool2
I0414 03:00:12.863957 25761 net.cpp:150] Setting up pool2
I0414 03:00:12.863967 25761 net.cpp:157] Top shape: 1024 150 9 9 (12441600)
I0414 03:00:12.863971 25761 net.cpp:165] Memory required for data: 2101927936
I0414 03:00:12.863975 25761 layer_factory.hpp:77] Creating layer conv3
I0414 03:00:12.863987 25761 net.cpp:100] Creating Layer conv3
I0414 03:00:12.863992 25761 net.cpp:434] conv3 <- pool2
I0414 03:00:12.863998 25761 net.cpp:408] conv3 -> conv3
I0414 03:00:12.872776 25761 net.cpp:150] Setting up conv3
I0414 03:00:12.872809 25761 net.cpp:157] Top shape: 1024 250 6 6 (9216000)
I0414 03:00:12.872813 25761 net.cpp:165] Memory required for data: 2138791936
I0414 03:00:12.872828 25761 layer_factory.hpp:77] Creating layer conv3_relu
I0414 03:00:12.872838 25761 net.cpp:100] Creating Layer conv3_relu
I0414 03:00:12.872843 25761 net.cpp:434] conv3_relu <- conv3
I0414 03:00:12.872849 25761 net.cpp:395] conv3_relu -> conv3 (in-place)
I0414 03:00:12.874866 25761 net.cpp:150] Setting up conv3_relu
I0414 03:00:12.874882 25761 net.cpp:157] Top shape: 1024 250 6 6 (9216000)
I0414 03:00:12.874886 25761 net.cpp:165] Memory required for data: 2175655936
I0414 03:00:12.874889 25761 layer_factory.hpp:77] Creating layer pool3
I0414 03:00:12.874897 25761 net.cpp:100] Creating Layer pool3
I0414 03:00:12.874902 25761 net.cpp:434] pool3 <- conv3
I0414 03:00:12.874908 25761 net.cpp:408] pool3 -> pool3
I0414 03:00:12.874958 25761 net.cpp:150] Setting up pool3
I0414 03:00:12.874966 25761 net.cpp:157] Top shape: 1024 250 3 3 (2304000)
I0414 03:00:12.874969 25761 net.cpp:165] Memory required for data: 2184871936
I0414 03:00:12.874972 25761 layer_factory.hpp:77] Creating layer fc4_300
I0414 03:00:12.874979 25761 net.cpp:100] Creating Layer fc4_300
I0414 03:00:12.874984 25761 net.cpp:434] fc4_300 <- pool3
I0414 03:00:12.874989 25761 net.cpp:408] fc4_300 -> fc4_300
I0414 03:00:12.880520 25761 net.cpp:150] Setting up fc4_300
I0414 03:00:12.880540 25761 net.cpp:157] Top shape: 1024 300 (307200)
I0414 03:00:12.880543 25761 net.cpp:165] Memory required for data: 2186100736
I0414 03:00:12.880551 25761 layer_factory.hpp:77] Creating layer fc4_relu
I0414 03:00:12.880558 25761 net.cpp:100] Creating Layer fc4_relu
I0414 03:00:12.880564 25761 net.cpp:434] fc4_relu <- fc4_300
I0414 03:00:12.880570 25761 net.cpp:395] fc4_relu -> fc4_300 (in-place)
I0414 03:00:12.880775 25761 net.cpp:150] Setting up fc4_relu
I0414 03:00:12.880787 25761 net.cpp:157] Top shape: 1024 300 (307200)
I0414 03:00:12.880790 25761 net.cpp:165] Memory required for data: 2187329536
I0414 03:00:12.880794 25761 layer_factory.hpp:77] Creating layer fc5_67
I0414 03:00:12.880800 25761 net.cpp:100] Creating Layer fc5_67
I0414 03:00:12.880805 25761 net.cpp:434] fc5_67 <- fc4_300
I0414 03:00:12.880810 25761 net.cpp:408] fc5_67 -> fc5_classes
I0414 03:00:12.884479 25761 net.cpp:150] Setting up fc5_67
I0414 03:00:12.884498 25761 net.cpp:157] Top shape: 1024 67 (68608)
I0414 03:00:12.884502 25761 net.cpp:165] Memory required for data: 2187603968
I0414 03:00:12.884513 25761 layer_factory.hpp:77] Creating layer fc5_classes_fc5_67_0_split
I0414 03:00:12.884521 25761 net.cpp:100] Creating Layer fc5_classes_fc5_67_0_split
I0414 03:00:12.884527 25761 net.cpp:434] fc5_classes_fc5_67_0_split <- fc5_classes
I0414 03:00:12.884533 25761 net.cpp:408] fc5_classes_fc5_67_0_split -> fc5_classes_fc5_67_0_split_0
I0414 03:00:12.884541 25761 net.cpp:408] fc5_classes_fc5_67_0_split -> fc5_classes_fc5_67_0_split_1
I0414 03:00:12.884549 25761 net.cpp:408] fc5_classes_fc5_67_0_split -> fc5_classes_fc5_67_0_split_2
I0414 03:00:12.884601 25761 net.cpp:150] Setting up fc5_classes_fc5_67_0_split
I0414 03:00:12.884609 25761 net.cpp:157] Top shape: 1024 67 (68608)
I0414 03:00:12.884613 25761 net.cpp:157] Top shape: 1024 67 (68608)
I0414 03:00:12.884616 25761 net.cpp:157] Top shape: 1024 67 (68608)
I0414 03:00:12.884618 25761 net.cpp:165] Memory required for data: 2188427264
I0414 03:00:12.884621 25761 layer_factory.hpp:77] Creating layer softmax
I0414 03:00:12.884629 25761 net.cpp:100] Creating Layer softmax
I0414 03:00:12.884631 25761 net.cpp:434] softmax <- fc5_classes_fc5_67_0_split_0
I0414 03:00:12.884636 25761 net.cpp:408] softmax -> softmax
I0414 03:00:12.884901 25761 net.cpp:150] Setting up softmax
I0414 03:00:12.884913 25761 net.cpp:157] Top shape: 1024 67 (68608)
I0414 03:00:12.884917 25761 net.cpp:165] Memory required for data: 2188701696
I0414 03:00:12.884920 25761 layer_factory.hpp:77] Creating layer loss
I0414 03:00:12.884929 25761 net.cpp:100] Creating Layer loss
I0414 03:00:12.884953 25761 net.cpp:434] loss <- softmax
I0414 03:00:12.884958 25761 net.cpp:434] loss <- label_data_1_split_0
I0414 03:00:12.884964 25761 net.cpp:408] loss -> loss
…
