…
I0414 02:59:31.206298 21029 solver.cpp:93] Creating training net from train_net file: ./Prototxt/experiment_10/rtsd-r1/CoNorm/trial_1/train.prototxt
I0414 02:59:31.206634 21029 net.cpp:58] Initializing net from parameters: 
state {
  phase: TRAIN
  level: 0
  stage: ""
}
layer {
  name: "data"
  type: "Data"
  top: "data"
  top: "label"
  include {
    phase: TRAIN
  }
  transform_param {
    scale: 0.0039215689
    mirror: false
    crop_size: 48
    mean_value: 132
    mean_value: 132
    mean_value: 131
  }
  data_param {
    source: "../local_data/lmdb/rtsd-r1/CoNorm/train/lmdb"
    batch_size: 1024
    backend: LMDB
  }
}
layer {
  name: "conv1"
  type: "Convolution"
  bottom: "data"
  top: "conv1"
  convolution_param {
    num_output: 100
    pad: 0
    kernel_size: 7
    group: 1
    stride: 1
    weight_filler {
      type: "xavier"
    }
  }
}
layer {
  name: "conv1_relu"
  type: "ReLU"
  bottom: "conv1"
  top: "conv1"
}
layer {
  name: "pool1"
  type: "Pooling"
  bottom: "conv1"
  top: "pool1"
  pooling_param {
    pool: MAX
    kernel_size: 2
    stride: 2
  }
}
layer {
  name: "conv2"
  type: "Convolution"
  bottom: "pool1"
  top: "conv2"
  convolution_param {
    num_output: 150
    pad: 0
    kernel_size: 4
    group: 1
    stride: 1
    weight_filler {
      type: "xavier"
    }
  }
}
layer {
  name: "conv2_relu"
  type: "ReLU"
  bottom: "conv2"
  top: "conv2"
}
layer {
  name: "pool2"
  type: "Pooling"
  bottom: "conv2"
  top: "pool2"
  pooling_param {
    pool: MAX
    kernel_size: 2
    stride: 2
  }
}
layer {
  name: "conv3"
  type: "Convolution"
  bottom: "pool2"
  top: "conv3"
  convolution_param {
    num_output: 250
    pad: 0
    kernel_size: 4
    group: 1
    stride: 1
    weight_filler {
      type: "xavier"
    }
  }
}
layer {
  name: "conv3_relu"
  type: "ReLU"
  bottom: "conv3"
  top: "conv3"
}
layer {
  name: "pool3"
  type: "Pooling"
  bottom: "conv3"
  top: "pool3"
  pooling_param {
    pool: MAX
    kernel_size: 2
    stride: 2
  }
}
layer {
  name: "fc4_300"
  type: "InnerProduct"
  bottom: "pool3"
  top: "fc4_300"
  inner_product_param {
    num_output: 300
    weight_filler {
      type: "xavier"
    }
  }
}
layer {
  name: "fc4_relu"
  type: "ReLU"
  bottom: "fc4_300"
  top: "fc4_300"
}
layer {
  name: "fc5_67"
  type: "InnerProduct"
  bottom: "fc4_300"
  top: "fc5_classes"
  inner_product_param {
    num_output: 67
    weight_filler {
      type: "xavier"
    }
  }
}
layer {
  name: "softmax"
  type: "Softmax"
  bottom: "fc5_classes"
  top: "softmax"
}
layer {
  name: "loss"
  type: "MultinomialLogisticLoss"
  bottom: "softmax"
  bottom: "label"
  top: "loss"
}
layer {
  name: "accuracy_1"
  type: "Accuracy"
  bottom: "fc5_classes"
  bottom: "label"
  top: "accuracy_1"
  accuracy_param {
    top_k: 1
  }
}
layer {
  name: "accuracy_5"
  type: "Accuracy"
  bottom: "fc5_classes"
  bottom: "label"
  top: "accuracy_5"
  accuracy_param {
    top_k: 5
  }
}
layer {
  name: "silence"
  type: "Silence"
  bottom: "accuracy_1"
  bottom: "accuracy_5"
}
I0414 02:59:31.206753 21029 layer_factory.hpp:77] Creating layer data
I0414 02:59:31.207826 21029 net.cpp:100] Creating Layer data
I0414 02:59:31.207844 21029 net.cpp:408] data -> data
I0414 02:59:31.207865 21029 net.cpp:408] data -> label
I0414 02:59:31.211462 21161 db_lmdb.cpp:35] Opened lmdb ../local_data/lmdb/rtsd-r1/CoNorm/train/lmdb
I0414 02:59:31.313805 21029 data_layer.cpp:41] output data size: 1024,3,48,48
I0414 02:59:31.383831 21029 net.cpp:150] Setting up data
I0414 02:59:31.383900 21029 net.cpp:157] Top shape: 1024 3 48 48 (7077888)
I0414 02:59:31.383908 21029 net.cpp:157] Top shape: 1024 (1024)
I0414 02:59:31.383910 21029 net.cpp:165] Memory required for data: 28315648
I0414 02:59:31.383924 21029 layer_factory.hpp:77] Creating layer label_data_1_split
I0414 02:59:31.383937 21029 net.cpp:100] Creating Layer label_data_1_split
I0414 02:59:31.383944 21029 net.cpp:434] label_data_1_split <- label
I0414 02:59:31.383956 21029 net.cpp:408] label_data_1_split -> label_data_1_split_0
I0414 02:59:31.383968 21029 net.cpp:408] label_data_1_split -> label_data_1_split_1
I0414 02:59:31.383976 21029 net.cpp:408] label_data_1_split -> label_data_1_split_2
I0414 02:59:31.384044 21029 net.cpp:150] Setting up label_data_1_split
I0414 02:59:31.384052 21029 net.cpp:157] Top shape: 1024 (1024)
I0414 02:59:31.384058 21029 net.cpp:157] Top shape: 1024 (1024)
I0414 02:59:31.384063 21029 net.cpp:157] Top shape: 1024 (1024)
I0414 02:59:31.384064 21029 net.cpp:165] Memory required for data: 28327936
I0414 02:59:31.384068 21029 layer_factory.hpp:77] Creating layer conv1
I0414 02:59:31.384083 21029 net.cpp:100] Creating Layer conv1
I0414 02:59:31.384089 21029 net.cpp:434] conv1 <- data
I0414 02:59:31.384094 21029 net.cpp:408] conv1 -> conv1
I0414 02:59:31.900274 21029 net.cpp:150] Setting up conv1
I0414 02:59:31.900312 21029 net.cpp:157] Top shape: 1024 100 42 42 (180633600)
I0414 02:59:31.900318 21029 net.cpp:165] Memory required for data: 750862336
I0414 02:59:31.900349 21029 layer_factory.hpp:77] Creating layer conv1_relu
I0414 02:59:31.900367 21029 net.cpp:100] Creating Layer conv1_relu
I0414 02:59:31.900374 21029 net.cpp:434] conv1_relu <- conv1
I0414 02:59:31.900387 21029 net.cpp:395] conv1_relu -> conv1 (in-place)
I0414 02:59:31.900718 21029 net.cpp:150] Setting up conv1_relu
I0414 02:59:31.900737 21029 net.cpp:157] Top shape: 1024 100 42 42 (180633600)
I0414 02:59:31.900743 21029 net.cpp:165] Memory required for data: 1473396736
I0414 02:59:31.900753 21029 layer_factory.hpp:77] Creating layer pool1
I0414 02:59:31.900768 21029 net.cpp:100] Creating Layer pool1
I0414 02:59:31.900776 21029 net.cpp:434] pool1 <- conv1
I0414 02:59:31.900785 21029 net.cpp:408] pool1 -> pool1
I0414 02:59:31.900873 21029 net.cpp:150] Setting up pool1
I0414 02:59:31.900887 21029 net.cpp:157] Top shape: 1024 100 21 21 (45158400)
I0414 02:59:31.900893 21029 net.cpp:165] Memory required for data: 1654030336
I0414 02:59:31.900900 21029 layer_factory.hpp:77] Creating layer conv2
I0414 02:59:31.900919 21029 net.cpp:100] Creating Layer conv2
I0414 02:59:31.900928 21029 net.cpp:434] conv2 <- pool1
I0414 02:59:31.900938 21029 net.cpp:408] conv2 -> conv2
I0414 02:59:31.912377 21029 net.cpp:150] Setting up conv2
I0414 02:59:31.912402 21029 net.cpp:157] Top shape: 1024 150 18 18 (49766400)
I0414 02:59:31.912408 21029 net.cpp:165] Memory required for data: 1853095936
I0414 02:59:31.912425 21029 layer_factory.hpp:77] Creating layer conv2_relu
I0414 02:59:31.912436 21029 net.cpp:100] Creating Layer conv2_relu
I0414 02:59:31.912443 21029 net.cpp:434] conv2_relu <- conv2
I0414 02:59:31.912453 21029 net.cpp:395] conv2_relu -> conv2 (in-place)
I0414 02:59:31.914430 21029 net.cpp:150] Setting up conv2_relu
I0414 02:59:31.914453 21029 net.cpp:157] Top shape: 1024 150 18 18 (49766400)
I0414 02:59:31.914461 21029 net.cpp:165] Memory required for data: 2052161536
I0414 02:59:31.914468 21029 layer_factory.hpp:77] Creating layer pool2
I0414 02:59:31.914479 21029 net.cpp:100] Creating Layer pool2
I0414 02:59:31.914486 21029 net.cpp:434] pool2 <- conv2
I0414 02:59:31.914496 21029 net.cpp:408] pool2 -> pool2
I0414 02:59:31.914572 21029 net.cpp:150] Setting up pool2
I0414 02:59:31.914584 21029 net.cpp:157] Top shape: 1024 150 9 9 (12441600)
I0414 02:59:31.914592 21029 net.cpp:165] Memory required for data: 2101927936
I0414 02:59:31.914595 21029 layer_factory.hpp:77] Creating layer conv3
I0414 02:59:31.914611 21029 net.cpp:100] Creating Layer conv3
I0414 02:59:31.914619 21029 net.cpp:434] conv3 <- pool2
I0414 02:59:31.914628 21029 net.cpp:408] conv3 -> conv3
I0414 02:59:31.926460 21029 net.cpp:150] Setting up conv3
I0414 02:59:31.926481 21029 net.cpp:157] Top shape: 1024 250 6 6 (9216000)
I0414 02:59:31.926486 21029 net.cpp:165] Memory required for data: 2138791936
I0414 02:59:31.926496 21029 layer_factory.hpp:77] Creating layer conv3_relu
I0414 02:59:31.926502 21029 net.cpp:100] Creating Layer conv3_relu
I0414 02:59:31.926506 21029 net.cpp:434] conv3_relu <- conv3
I0414 02:59:31.926513 21029 net.cpp:395] conv3_relu -> conv3 (in-place)
I0414 02:59:31.928557 21029 net.cpp:150] Setting up conv3_relu
I0414 02:59:31.928575 21029 net.cpp:157] Top shape: 1024 250 6 6 (9216000)
I0414 02:59:31.928577 21029 net.cpp:165] Memory required for data: 2175655936
I0414 02:59:31.928581 21029 layer_factory.hpp:77] Creating layer pool3
I0414 02:59:31.928588 21029 net.cpp:100] Creating Layer pool3
I0414 02:59:31.928592 21029 net.cpp:434] pool3 <- conv3
I0414 02:59:31.928601 21029 net.cpp:408] pool3 -> pool3
I0414 02:59:31.928650 21029 net.cpp:150] Setting up pool3
I0414 02:59:31.928659 21029 net.cpp:157] Top shape: 1024 250 3 3 (2304000)
I0414 02:59:31.928663 21029 net.cpp:165] Memory required for data: 2184871936
I0414 02:59:31.928666 21029 layer_factory.hpp:77] Creating layer fc4_300
I0414 02:59:31.928673 21029 net.cpp:100] Creating Layer fc4_300
I0414 02:59:31.928678 21029 net.cpp:434] fc4_300 <- pool3
I0414 02:59:31.928684 21029 net.cpp:408] fc4_300 -> fc4_300
I0414 02:59:31.939077 21029 net.cpp:150] Setting up fc4_300
I0414 02:59:31.939105 21029 net.cpp:157] Top shape: 1024 300 (307200)
I0414 02:59:31.939110 21029 net.cpp:165] Memory required for data: 2186100736
I0414 02:59:31.939121 21029 layer_factory.hpp:77] Creating layer fc4_relu
I0414 02:59:31.939134 21029 net.cpp:100] Creating Layer fc4_relu
I0414 02:59:31.939141 21029 net.cpp:434] fc4_relu <- fc4_300
I0414 02:59:31.939152 21029 net.cpp:395] fc4_relu -> fc4_300 (in-place)
I0414 02:59:31.939432 21029 net.cpp:150] Setting up fc4_relu
I0414 02:59:31.939448 21029 net.cpp:157] Top shape: 1024 300 (307200)
I0414 02:59:31.939455 21029 net.cpp:165] Memory required for data: 2187329536
I0414 02:59:31.939460 21029 layer_factory.hpp:77] Creating layer fc5_67
I0414 02:59:31.939471 21029 net.cpp:100] Creating Layer fc5_67
I0414 02:59:31.939477 21029 net.cpp:434] fc5_67 <- fc4_300
I0414 02:59:31.939486 21029 net.cpp:408] fc5_67 -> fc5_classes
I0414 02:59:31.941352 21029 net.cpp:150] Setting up fc5_67
I0414 02:59:31.941373 21029 net.cpp:157] Top shape: 1024 67 (68608)
I0414 02:59:31.941378 21029 net.cpp:165] Memory required for data: 2187603968
I0414 02:59:31.941395 21029 layer_factory.hpp:77] Creating layer fc5_classes_fc5_67_0_split
I0414 02:59:31.941406 21029 net.cpp:100] Creating Layer fc5_classes_fc5_67_0_split
I0414 02:59:31.941413 21029 net.cpp:434] fc5_classes_fc5_67_0_split <- fc5_classes
I0414 02:59:31.941426 21029 net.cpp:408] fc5_classes_fc5_67_0_split -> fc5_classes_fc5_67_0_split_0
I0414 02:59:31.941438 21029 net.cpp:408] fc5_classes_fc5_67_0_split -> fc5_classes_fc5_67_0_split_1
I0414 02:59:31.941448 21029 net.cpp:408] fc5_classes_fc5_67_0_split -> fc5_classes_fc5_67_0_split_2
I0414 02:59:31.941524 21029 net.cpp:150] Setting up fc5_classes_fc5_67_0_split
I0414 02:59:31.941534 21029 net.cpp:157] Top shape: 1024 67 (68608)
I0414 02:59:31.941540 21029 net.cpp:157] Top shape: 1024 67 (68608)
I0414 02:59:31.941545 21029 net.cpp:157] Top shape: 1024 67 (68608)
I0414 02:59:31.941550 21029 net.cpp:165] Memory required for data: 2188427264
I0414 02:59:31.941553 21029 layer_factory.hpp:77] Creating layer softmax
I0414 02:59:31.941560 21029 net.cpp:100] Creating Layer softmax
I0414 02:59:31.941566 21029 net.cpp:434] softmax <- fc5_classes_fc5_67_0_split_0
I0414 02:59:31.941575 21029 net.cpp:408] softmax -> softmax
I0414 02:59:31.941936 21029 net.cpp:150] Setting up softmax
I0414 02:59:31.941953 21029 net.cpp:157] Top shape: 1024 67 (68608)
I0414 02:59:31.941958 21029 net.cpp:165] Memory required for data: 2188701696
I0414 02:59:31.941963 21029 layer_factory.hpp:77] Creating layer loss
I0414 02:59:31.941977 21029 net.cpp:100] Creating Layer loss
I0414 02:59:31.942008 21029 net.cpp:434] loss <- softmax
I0414 02:59:31.942016 21029 net.cpp:434] loss <- label_data_1_split_0
I0414 02:59:31.942025 21029 net.cpp:408] loss -> loss
…
