…
I0415 01:10:21.016567 10422 solver.cpp:93] Creating training net from train_net file: ./Prototxt/experiment_10/rtsd-r3/imajust/trial_2/train.prototxt
I0415 01:10:21.025993 10422 net.cpp:58] Initializing net from parameters: 
state {
  phase: TRAIN
  level: 0
  stage: ""
}
layer {
  name: "data"
  type: "Data"
  top: "data"
  top: "label"
  include {
    phase: TRAIN
  }
  transform_param {
    scale: 0.0039215689
    mirror: false
    crop_size: 48
    mean_value: 118
    mean_value: 112
    mean_value: 112
  }
  data_param {
    source: "../local_data/lmdb/rtsd-r3/imajust/train/lmdb"
    batch_size: 1024
    backend: LMDB
  }
}
layer {
  name: "conv1"
  type: "Convolution"
  bottom: "data"
  top: "conv1"
  convolution_param {
    num_output: 100
    pad: 0
    kernel_size: 7
    group: 1
    stride: 1
    weight_filler {
      type: "xavier"
    }
  }
}
layer {
  name: "conv1_relu"
  type: "ReLU"
  bottom: "conv1"
  top: "conv1"
}
layer {
  name: "pool1"
  type: "Pooling"
  bottom: "conv1"
  top: "pool1"
  pooling_param {
    pool: MAX
    kernel_size: 2
    stride: 2
  }
}
layer {
  name: "conv2"
  type: "Convolution"
  bottom: "pool1"
  top: "conv2"
  convolution_param {
    num_output: 150
    pad: 0
    kernel_size: 4
    group: 1
    stride: 1
    weight_filler {
      type: "xavier"
    }
  }
}
layer {
  name: "conv2_relu"
  type: "ReLU"
  bottom: "conv2"
  top: "conv2"
}
layer {
  name: "pool2"
  type: "Pooling"
  bottom: "conv2"
  top: "pool2"
  pooling_param {
    pool: MAX
    kernel_size: 2
    stride: 2
  }
}
layer {
  name: "conv3"
  type: "Convolution"
  bottom: "pool2"
  top: "conv3"
  convolution_param {
    num_output: 250
    pad: 0
    kernel_size: 4
    group: 1
    stride: 1
    weight_filler {
      type: "xavier"
    }
  }
}
layer {
  name: "conv3_relu"
  type: "ReLU"
  bottom: "conv3"
  top: "conv3"
}
layer {
  name: "pool3"
  type: "Pooling"
  bottom: "conv3"
  top: "pool3"
  pooling_param {
    pool: MAX
    kernel_size: 2
    stride: 2
  }
}
layer {
  name: "fc4_300"
  type: "InnerProduct"
  bottom: "pool3"
  top: "fc4_300"
  inner_product_param {
    num_output: 300
    weight_filler {
      type: "xavier"
    }
  }
}
layer {
  name: "fc4_relu"
  type: "ReLU"
  bottom: "fc4_300"
  top: "fc4_300"
}
layer {
  name: "fc5_106"
  type: "InnerProduct"
  bottom: "fc4_300"
  top: "fc5_classes"
  inner_product_param {
    num_output: 106
    weight_filler {
      type: "xavier"
    }
  }
}
layer {
  name: "softmax"
  type: "Softmax"
  bottom: "fc5_classes"
  top: "softmax"
}
layer {
  name: "loss"
  type: "MultinomialLogisticLoss"
  bottom: "softmax"
  bottom: "label"
  top: "loss"
}
layer {
  name: "accuracy_1"
  type: "Accuracy"
  bottom: "fc5_classes"
  bottom: "label"
  top: "accuracy_1"
  accuracy_param {
    top_k: 1
  }
}
layer {
  name: "accuracy_5"
  type: "Accuracy"
  bottom: "fc5_classes"
  bottom: "label"
  top: "accuracy_5"
  accuracy_param {
    top_k: 5
  }
}
layer {
  name: "silence"
  type: "Silence"
  bottom: "accuracy_1"
  bottom: "accuracy_5"
}
I0415 01:10:21.026119 10422 layer_factory.hpp:77] Creating layer data
I0415 01:10:21.027225 10422 net.cpp:100] Creating Layer data
I0415 01:10:21.027242 10422 net.cpp:408] data -> data
I0415 01:10:21.027266 10422 net.cpp:408] data -> label
I0415 01:10:21.030257 10570 db_lmdb.cpp:35] Opened lmdb ../local_data/lmdb/rtsd-r3/imajust/train/lmdb
I0415 01:10:21.059316 10422 data_layer.cpp:41] output data size: 1024,3,48,48
I0415 01:10:21.160629 10422 net.cpp:150] Setting up data
I0415 01:10:21.160677 10422 net.cpp:157] Top shape: 1024 3 48 48 (7077888)
I0415 01:10:21.160684 10422 net.cpp:157] Top shape: 1024 (1024)
I0415 01:10:21.160687 10422 net.cpp:165] Memory required for data: 28315648
I0415 01:10:21.160698 10422 layer_factory.hpp:77] Creating layer label_data_1_split
I0415 01:10:21.160713 10422 net.cpp:100] Creating Layer label_data_1_split
I0415 01:10:21.160719 10422 net.cpp:434] label_data_1_split <- label
I0415 01:10:21.160739 10422 net.cpp:408] label_data_1_split -> label_data_1_split_0
I0415 01:10:21.160753 10422 net.cpp:408] label_data_1_split -> label_data_1_split_1
I0415 01:10:21.160760 10422 net.cpp:408] label_data_1_split -> label_data_1_split_2
I0415 01:10:21.160827 10422 net.cpp:150] Setting up label_data_1_split
I0415 01:10:21.160835 10422 net.cpp:157] Top shape: 1024 (1024)
I0415 01:10:21.160840 10422 net.cpp:157] Top shape: 1024 (1024)
I0415 01:10:21.160842 10422 net.cpp:157] Top shape: 1024 (1024)
I0415 01:10:21.160845 10422 net.cpp:165] Memory required for data: 28327936
I0415 01:10:21.160848 10422 layer_factory.hpp:77] Creating layer conv1
I0415 01:10:21.160866 10422 net.cpp:100] Creating Layer conv1
I0415 01:10:21.160871 10422 net.cpp:434] conv1 <- data
I0415 01:10:21.160876 10422 net.cpp:408] conv1 -> conv1
I0415 01:10:21.619561 10422 net.cpp:150] Setting up conv1
I0415 01:10:21.619592 10422 net.cpp:157] Top shape: 1024 100 42 42 (180633600)
I0415 01:10:21.619596 10422 net.cpp:165] Memory required for data: 750862336
I0415 01:10:21.619618 10422 layer_factory.hpp:77] Creating layer conv1_relu
I0415 01:10:21.619629 10422 net.cpp:100] Creating Layer conv1_relu
I0415 01:10:21.619633 10422 net.cpp:434] conv1_relu <- conv1
I0415 01:10:21.619642 10422 net.cpp:395] conv1_relu -> conv1 (in-place)
I0415 01:10:21.619848 10422 net.cpp:150] Setting up conv1_relu
I0415 01:10:21.619860 10422 net.cpp:157] Top shape: 1024 100 42 42 (180633600)
I0415 01:10:21.619864 10422 net.cpp:165] Memory required for data: 1473396736
I0415 01:10:21.619868 10422 layer_factory.hpp:77] Creating layer pool1
I0415 01:10:21.619890 10422 net.cpp:100] Creating Layer pool1
I0415 01:10:21.619896 10422 net.cpp:434] pool1 <- conv1
I0415 01:10:21.619902 10422 net.cpp:408] pool1 -> pool1
I0415 01:10:21.619962 10422 net.cpp:150] Setting up pool1
I0415 01:10:21.619971 10422 net.cpp:157] Top shape: 1024 100 21 21 (45158400)
I0415 01:10:21.619973 10422 net.cpp:165] Memory required for data: 1654030336
I0415 01:10:21.619977 10422 layer_factory.hpp:77] Creating layer conv2
I0415 01:10:21.619987 10422 net.cpp:100] Creating Layer conv2
I0415 01:10:21.619992 10422 net.cpp:434] conv2 <- pool1
I0415 01:10:21.619997 10422 net.cpp:408] conv2 -> conv2
I0415 01:10:21.625330 10422 net.cpp:150] Setting up conv2
I0415 01:10:21.625347 10422 net.cpp:157] Top shape: 1024 150 18 18 (49766400)
I0415 01:10:21.625351 10422 net.cpp:165] Memory required for data: 1853095936
I0415 01:10:21.625361 10422 layer_factory.hpp:77] Creating layer conv2_relu
I0415 01:10:21.625370 10422 net.cpp:100] Creating Layer conv2_relu
I0415 01:10:21.625375 10422 net.cpp:434] conv2_relu <- conv2
I0415 01:10:21.625381 10422 net.cpp:395] conv2_relu -> conv2 (in-place)
I0415 01:10:21.626649 10422 net.cpp:150] Setting up conv2_relu
I0415 01:10:21.626667 10422 net.cpp:157] Top shape: 1024 150 18 18 (49766400)
I0415 01:10:21.626672 10422 net.cpp:165] Memory required for data: 2052161536
I0415 01:10:21.626675 10422 layer_factory.hpp:77] Creating layer pool2
I0415 01:10:21.626687 10422 net.cpp:100] Creating Layer pool2
I0415 01:10:21.626691 10422 net.cpp:434] pool2 <- conv2
I0415 01:10:21.626698 10422 net.cpp:408] pool2 -> pool2
I0415 01:10:21.626750 10422 net.cpp:150] Setting up pool2
I0415 01:10:21.626760 10422 net.cpp:157] Top shape: 1024 150 9 9 (12441600)
I0415 01:10:21.626763 10422 net.cpp:165] Memory required for data: 2101927936
I0415 01:10:21.626766 10422 layer_factory.hpp:77] Creating layer conv3
I0415 01:10:21.626780 10422 net.cpp:100] Creating Layer conv3
I0415 01:10:21.626783 10422 net.cpp:434] conv3 <- pool2
I0415 01:10:21.626811 10422 net.cpp:408] conv3 -> conv3
I0415 01:10:21.633039 10422 net.cpp:150] Setting up conv3
I0415 01:10:21.633057 10422 net.cpp:157] Top shape: 1024 250 6 6 (9216000)
I0415 01:10:21.633061 10422 net.cpp:165] Memory required for data: 2138791936
I0415 01:10:21.633071 10422 layer_factory.hpp:77] Creating layer conv3_relu
I0415 01:10:21.633080 10422 net.cpp:100] Creating Layer conv3_relu
I0415 01:10:21.633088 10422 net.cpp:434] conv3_relu <- conv3
I0415 01:10:21.633095 10422 net.cpp:395] conv3_relu -> conv3 (in-place)
I0415 01:10:21.634472 10422 net.cpp:150] Setting up conv3_relu
I0415 01:10:21.634488 10422 net.cpp:157] Top shape: 1024 250 6 6 (9216000)
I0415 01:10:21.634491 10422 net.cpp:165] Memory required for data: 2175655936
I0415 01:10:21.634495 10422 layer_factory.hpp:77] Creating layer pool3
I0415 01:10:21.634503 10422 net.cpp:100] Creating Layer pool3
I0415 01:10:21.634507 10422 net.cpp:434] pool3 <- conv3
I0415 01:10:21.634512 10422 net.cpp:408] pool3 -> pool3
I0415 01:10:21.634562 10422 net.cpp:150] Setting up pool3
I0415 01:10:21.634572 10422 net.cpp:157] Top shape: 1024 250 3 3 (2304000)
I0415 01:10:21.634573 10422 net.cpp:165] Memory required for data: 2184871936
I0415 01:10:21.634577 10422 layer_factory.hpp:77] Creating layer fc4_300
I0415 01:10:21.634584 10422 net.cpp:100] Creating Layer fc4_300
I0415 01:10:21.634588 10422 net.cpp:434] fc4_300 <- pool3
I0415 01:10:21.634594 10422 net.cpp:408] fc4_300 -> fc4_300
I0415 01:10:21.646939 10422 net.cpp:150] Setting up fc4_300
I0415 01:10:21.646956 10422 net.cpp:157] Top shape: 1024 300 (307200)
I0415 01:10:21.646960 10422 net.cpp:165] Memory required for data: 2186100736
I0415 01:10:21.646967 10422 layer_factory.hpp:77] Creating layer fc4_relu
I0415 01:10:21.646973 10422 net.cpp:100] Creating Layer fc4_relu
I0415 01:10:21.646977 10422 net.cpp:434] fc4_relu <- fc4_300
I0415 01:10:21.646984 10422 net.cpp:395] fc4_relu -> fc4_300 (in-place)
I0415 01:10:21.647184 10422 net.cpp:150] Setting up fc4_relu
I0415 01:10:21.647197 10422 net.cpp:157] Top shape: 1024 300 (307200)
I0415 01:10:21.647200 10422 net.cpp:165] Memory required for data: 2187329536
I0415 01:10:21.647204 10422 layer_factory.hpp:77] Creating layer fc5_106
I0415 01:10:21.647212 10422 net.cpp:100] Creating Layer fc5_106
I0415 01:10:21.647217 10422 net.cpp:434] fc5_106 <- fc4_300
I0415 01:10:21.647223 10422 net.cpp:408] fc5_106 -> fc5_classes
I0415 01:10:21.653801 10422 net.cpp:150] Setting up fc5_106
I0415 01:10:21.653820 10422 net.cpp:157] Top shape: 1024 106 (108544)
I0415 01:10:21.653822 10422 net.cpp:165] Memory required for data: 2187763712
I0415 01:10:21.653833 10422 layer_factory.hpp:77] Creating layer fc5_classes_fc5_106_0_split
I0415 01:10:21.653843 10422 net.cpp:100] Creating Layer fc5_classes_fc5_106_0_split
I0415 01:10:21.653846 10422 net.cpp:434] fc5_classes_fc5_106_0_split <- fc5_classes
I0415 01:10:21.653852 10422 net.cpp:408] fc5_classes_fc5_106_0_split -> fc5_classes_fc5_106_0_split_0
I0415 01:10:21.653862 10422 net.cpp:408] fc5_classes_fc5_106_0_split -> fc5_classes_fc5_106_0_split_1
I0415 01:10:21.653872 10422 net.cpp:408] fc5_classes_fc5_106_0_split -> fc5_classes_fc5_106_0_split_2
I0415 01:10:21.653928 10422 net.cpp:150] Setting up fc5_classes_fc5_106_0_split
I0415 01:10:21.653935 10422 net.cpp:157] Top shape: 1024 106 (108544)
I0415 01:10:21.653939 10422 net.cpp:157] Top shape: 1024 106 (108544)
I0415 01:10:21.653942 10422 net.cpp:157] Top shape: 1024 106 (108544)
I0415 01:10:21.653945 10422 net.cpp:165] Memory required for data: 2189066240
I0415 01:10:21.653949 10422 layer_factory.hpp:77] Creating layer softmax
I0415 01:10:21.653955 10422 net.cpp:100] Creating Layer softmax
I0415 01:10:21.653960 10422 net.cpp:434] softmax <- fc5_classes_fc5_106_0_split_0
I0415 01:10:21.653965 10422 net.cpp:408] softmax -> softmax
I0415 01:10:21.654223 10422 net.cpp:150] Setting up softmax
I0415 01:10:21.654237 10422 net.cpp:157] Top shape: 1024 106 (108544)
I0415 01:10:21.654240 10422 net.cpp:165] Memory required for data: 2189500416
I0415 01:10:21.654243 10422 layer_factory.hpp:77] Creating layer loss
I0415 01:10:21.654268 10422 net.cpp:100] Creating Layer loss
I0415 01:10:21.654273 10422 net.cpp:434] loss <- softmax
I0415 01:10:21.654278 10422 net.cpp:434] loss <- label_data_1_split_0
I0415 01:10:21.654284 10422 net.cpp:408] loss -> loss
…
