…
I0415 03:21:39.081679   856 solver.cpp:93] Creating training net from train_net file: ./Prototxt/experiment_12/rtsd-r1/AHE/trial_2/train.prototxt
I0415 03:21:39.102036   856 net.cpp:58] Initializing net from parameters: 
state {
  phase: TRAIN
  level: 0
  stage: ""
}
layer {
  name: "data"
  type: "Data"
  top: "data"
  top: "label"
  include {
    phase: TRAIN
  }
  transform_param {
    scale: 0.0039215689
    mirror: false
    crop_size: 48
    mean_value: 132
    mean_value: 126
    mean_value: 140
  }
  data_param {
    source: "../local_data/lmdb/rtsd-r1/AHE/train/lmdb"
    batch_size: 1024
    backend: LMDB
  }
}
layer {
  name: "conv1"
  type: "Convolution"
  bottom: "data"
  top: "conv1"
  convolution_param {
    num_output: 100
    pad: 0
    kernel_size: 7
    group: 1
    stride: 1
    weight_filler {
      type: "xavier"
    }
  }
}
layer {
  name: "conv1_relu"
  type: "ReLU"
  bottom: "conv1"
  top: "conv1"
}
layer {
  name: "pool1"
  type: "Pooling"
  bottom: "conv1"
  top: "pool1"
  pooling_param {
    pool: MAX
    kernel_size: 2
    stride: 2
  }
}
layer {
  name: "conv2"
  type: "Convolution"
  bottom: "pool1"
  top: "conv2"
  convolution_param {
    num_output: 150
    pad: 0
    kernel_size: 4
    group: 1
    stride: 1
    weight_filler {
      type: "xavier"
    }
  }
}
layer {
  name: "conv2_relu"
  type: "ReLU"
  bottom: "conv2"
  top: "conv2"
}
layer {
  name: "pool2"
  type: "Pooling"
  bottom: "conv2"
  top: "pool2"
  pooling_param {
    pool: MAX
    kernel_size: 2
    stride: 2
  }
}
layer {
  name: "conv3"
  type: "Convolution"
  bottom: "pool2"
  top: "conv3"
  convolution_param {
    num_output: 250
    pad: 0
    kernel_size: 4
    group: 1
    stride: 1
    weight_filler {
      type: "xavier"
    }
  }
}
layer {
  name: "conv3_relu"
  type: "ReLU"
  bottom: "conv3"
  top: "conv3"
}
layer {
  name: "pool3"
  type: "Pooling"
  bottom: "conv3"
  top: "pool3"
  pooling_param {
    pool: MAX
    kernel_size: 2
    stride: 2
  }
}
layer {
  name: "fc4_300"
  type: "InnerProduct"
  bottom: "pool3"
  top: "fc4_300"
  inner_product_param {
    num_output: 300
    weight_filler {
      type: "xavier"
    }
  }
}
layer {
  name: "fc4_relu"
  type: "ReLU"
  bottom: "fc4_300"
  top: "fc4_300"
}
layer {
  name: "drop4"
  type: "Dropout"
  bottom: "fc4_300"
  top: "fc4_300"
  dropout_param {
    dropout_ratio: 0.5
  }
}
layer {
  name: "fc5_67"
  type: "InnerProduct"
  bottom: "fc4_300"
  top: "fc5_classes"
  inner_product_param {
    num_output: 67
    weight_filler {
      type: "xavier"
    }
  }
}
layer {
  name: "softmax"
  type: "Softmax"
  bottom: "fc5_classes"
  top: "softmax"
}
layer {
  name: "loss"
  type: "MultinomialLogisticLoss"
  bottom: "softmax"
  bottom: "label"
  top: "loss"
}
layer {
  name: "accuracy_1"
  type: "Accuracy"
  bottom: "fc5_classes"
  bottom: "label"
  top: "accuracy_1"
  accuracy_param {
    top_k: 1
  }
}
layer {
  name: "accuracy_5"
  type: "Accuracy"
  bottom: "fc5_classes"
  bottom: "label"
  top: "accuracy_5"
  accuracy_param {
    top_k: 5
  }
}
layer {
  name: "silence"
  type: "Silence"
  bottom: "accuracy_1"
  bottom: "accuracy_5"
}
I0415 03:21:39.102175   856 layer_factory.hpp:77] Creating layer data
I0415 03:21:39.103262   856 net.cpp:100] Creating Layer data
I0415 03:21:39.103277   856 net.cpp:408] data -> data
I0415 03:21:39.103305   856 net.cpp:408] data -> label
I0415 03:21:39.105733  1103 db_lmdb.cpp:35] Opened lmdb ../local_data/lmdb/rtsd-r1/AHE/train/lmdb
I0415 03:21:39.123044   856 data_layer.cpp:41] output data size: 1024,3,48,48
I0415 03:21:39.174465   856 net.cpp:150] Setting up data
I0415 03:21:39.174496   856 net.cpp:157] Top shape: 1024 3 48 48 (7077888)
I0415 03:21:39.174502   856 net.cpp:157] Top shape: 1024 (1024)
I0415 03:21:39.174505   856 net.cpp:165] Memory required for data: 28315648
I0415 03:21:39.174516   856 layer_factory.hpp:77] Creating layer label_data_1_split
I0415 03:21:39.174531   856 net.cpp:100] Creating Layer label_data_1_split
I0415 03:21:39.174540   856 net.cpp:434] label_data_1_split <- label
I0415 03:21:39.174557   856 net.cpp:408] label_data_1_split -> label_data_1_split_0
I0415 03:21:39.174571   856 net.cpp:408] label_data_1_split -> label_data_1_split_1
I0415 03:21:39.174578   856 net.cpp:408] label_data_1_split -> label_data_1_split_2
I0415 03:21:39.174649   856 net.cpp:150] Setting up label_data_1_split
I0415 03:21:39.174657   856 net.cpp:157] Top shape: 1024 (1024)
I0415 03:21:39.174664   856 net.cpp:157] Top shape: 1024 (1024)
I0415 03:21:39.174667   856 net.cpp:157] Top shape: 1024 (1024)
I0415 03:21:39.174669   856 net.cpp:165] Memory required for data: 28327936
I0415 03:21:39.174674   856 layer_factory.hpp:77] Creating layer conv1
I0415 03:21:39.174691   856 net.cpp:100] Creating Layer conv1
I0415 03:21:39.174697   856 net.cpp:434] conv1 <- data
I0415 03:21:39.174703   856 net.cpp:408] conv1 -> conv1
I0415 03:21:40.514339   856 net.cpp:150] Setting up conv1
I0415 03:21:40.514374   856 net.cpp:157] Top shape: 1024 100 42 42 (180633600)
I0415 03:21:40.514377   856 net.cpp:165] Memory required for data: 750862336
I0415 03:21:40.514400   856 layer_factory.hpp:77] Creating layer conv1_relu
I0415 03:21:40.514413   856 net.cpp:100] Creating Layer conv1_relu
I0415 03:21:40.514420   856 net.cpp:434] conv1_relu <- conv1
I0415 03:21:40.514428   856 net.cpp:395] conv1_relu -> conv1 (in-place)
I0415 03:21:40.514665   856 net.cpp:150] Setting up conv1_relu
I0415 03:21:40.514678   856 net.cpp:157] Top shape: 1024 100 42 42 (180633600)
I0415 03:21:40.514681   856 net.cpp:165] Memory required for data: 1473396736
I0415 03:21:40.514684   856 layer_factory.hpp:77] Creating layer pool1
I0415 03:21:40.514698   856 net.cpp:100] Creating Layer pool1
I0415 03:21:40.514703   856 net.cpp:434] pool1 <- conv1
I0415 03:21:40.514708   856 net.cpp:408] pool1 -> pool1
I0415 03:21:40.514775   856 net.cpp:150] Setting up pool1
I0415 03:21:40.514785   856 net.cpp:157] Top shape: 1024 100 21 21 (45158400)
I0415 03:21:40.514787   856 net.cpp:165] Memory required for data: 1654030336
I0415 03:21:40.514791   856 layer_factory.hpp:77] Creating layer conv2
I0415 03:21:40.514803   856 net.cpp:100] Creating Layer conv2
I0415 03:21:40.514808   856 net.cpp:434] conv2 <- pool1
I0415 03:21:40.514816   856 net.cpp:408] conv2 -> conv2
I0415 03:21:40.525141   856 net.cpp:150] Setting up conv2
I0415 03:21:40.525171   856 net.cpp:157] Top shape: 1024 150 18 18 (49766400)
I0415 03:21:40.525174   856 net.cpp:165] Memory required for data: 1853095936
I0415 03:21:40.525192   856 layer_factory.hpp:77] Creating layer conv2_relu
I0415 03:21:40.525203   856 net.cpp:100] Creating Layer conv2_relu
I0415 03:21:40.525207   856 net.cpp:434] conv2_relu <- conv2
I0415 03:21:40.525214   856 net.cpp:395] conv2_relu -> conv2 (in-place)
I0415 03:21:40.527192   856 net.cpp:150] Setting up conv2_relu
I0415 03:21:40.527214   856 net.cpp:157] Top shape: 1024 150 18 18 (49766400)
I0415 03:21:40.527217   856 net.cpp:165] Memory required for data: 2052161536
I0415 03:21:40.527222   856 layer_factory.hpp:77] Creating layer pool2
I0415 03:21:40.527232   856 net.cpp:100] Creating Layer pool2
I0415 03:21:40.527238   856 net.cpp:434] pool2 <- conv2
I0415 03:21:40.527245   856 net.cpp:408] pool2 -> pool2
I0415 03:21:40.527313   856 net.cpp:150] Setting up pool2
I0415 03:21:40.527323   856 net.cpp:157] Top shape: 1024 150 9 9 (12441600)
I0415 03:21:40.527328   856 net.cpp:165] Memory required for data: 2101927936
I0415 03:21:40.527330   856 layer_factory.hpp:77] Creating layer conv3
I0415 03:21:40.527345   856 net.cpp:100] Creating Layer conv3
I0415 03:21:40.527376   856 net.cpp:434] conv3 <- pool2
I0415 03:21:40.527386   856 net.cpp:408] conv3 -> conv3
I0415 03:21:40.542883   856 net.cpp:150] Setting up conv3
I0415 03:21:40.542917   856 net.cpp:157] Top shape: 1024 250 6 6 (9216000)
I0415 03:21:40.542922   856 net.cpp:165] Memory required for data: 2138791936
I0415 03:21:40.542935   856 layer_factory.hpp:77] Creating layer conv3_relu
I0415 03:21:40.542948   856 net.cpp:100] Creating Layer conv3_relu
I0415 03:21:40.542953   856 net.cpp:434] conv3_relu <- conv3
I0415 03:21:40.542960   856 net.cpp:395] conv3_relu -> conv3 (in-place)
I0415 03:21:40.545699   856 net.cpp:150] Setting up conv3_relu
I0415 03:21:40.545722   856 net.cpp:157] Top shape: 1024 250 6 6 (9216000)
I0415 03:21:40.545727   856 net.cpp:165] Memory required for data: 2175655936
I0415 03:21:40.545732   856 layer_factory.hpp:77] Creating layer pool3
I0415 03:21:40.545743   856 net.cpp:100] Creating Layer pool3
I0415 03:21:40.545748   856 net.cpp:434] pool3 <- conv3
I0415 03:21:40.545758   856 net.cpp:408] pool3 -> pool3
I0415 03:21:40.545822   856 net.cpp:150] Setting up pool3
I0415 03:21:40.545831   856 net.cpp:157] Top shape: 1024 250 3 3 (2304000)
I0415 03:21:40.545835   856 net.cpp:165] Memory required for data: 2184871936
I0415 03:21:40.545838   856 layer_factory.hpp:77] Creating layer fc4_300
I0415 03:21:40.545847   856 net.cpp:100] Creating Layer fc4_300
I0415 03:21:40.545852   856 net.cpp:434] fc4_300 <- pool3
I0415 03:21:40.545858   856 net.cpp:408] fc4_300 -> fc4_300
I0415 03:21:40.551836   856 net.cpp:150] Setting up fc4_300
I0415 03:21:40.551863   856 net.cpp:157] Top shape: 1024 300 (307200)
I0415 03:21:40.551867   856 net.cpp:165] Memory required for data: 2186100736
I0415 03:21:40.551887   856 layer_factory.hpp:77] Creating layer fc4_relu
I0415 03:21:40.551901   856 net.cpp:100] Creating Layer fc4_relu
I0415 03:21:40.551906   856 net.cpp:434] fc4_relu <- fc4_300
I0415 03:21:40.551916   856 net.cpp:395] fc4_relu -> fc4_300 (in-place)
I0415 03:21:40.552160   856 net.cpp:150] Setting up fc4_relu
I0415 03:21:40.552171   856 net.cpp:157] Top shape: 1024 300 (307200)
I0415 03:21:40.552175   856 net.cpp:165] Memory required for data: 2187329536
I0415 03:21:40.552178   856 layer_factory.hpp:77] Creating layer drop4
I0415 03:21:40.552187   856 net.cpp:100] Creating Layer drop4
I0415 03:21:40.552192   856 net.cpp:434] drop4 <- fc4_300
I0415 03:21:40.552198   856 net.cpp:395] drop4 -> fc4_300 (in-place)
I0415 03:21:40.552232   856 net.cpp:150] Setting up drop4
I0415 03:21:40.552240   856 net.cpp:157] Top shape: 1024 300 (307200)
I0415 03:21:40.552243   856 net.cpp:165] Memory required for data: 2188558336
I0415 03:21:40.552248   856 layer_factory.hpp:77] Creating layer fc5_67
I0415 03:21:40.552254   856 net.cpp:100] Creating Layer fc5_67
I0415 03:21:40.552259   856 net.cpp:434] fc5_67 <- fc4_300
I0415 03:21:40.552266   856 net.cpp:408] fc5_67 -> fc5_classes
I0415 03:21:40.554961   856 net.cpp:150] Setting up fc5_67
I0415 03:21:40.554982   856 net.cpp:157] Top shape: 1024 67 (68608)
I0415 03:21:40.554986   856 net.cpp:165] Memory required for data: 2188832768
I0415 03:21:40.554999   856 layer_factory.hpp:77] Creating layer fc5_classes_fc5_67_0_split
I0415 03:21:40.555008   856 net.cpp:100] Creating Layer fc5_classes_fc5_67_0_split
I0415 03:21:40.555012   856 net.cpp:434] fc5_classes_fc5_67_0_split <- fc5_classes
I0415 03:21:40.555021   856 net.cpp:408] fc5_classes_fc5_67_0_split -> fc5_classes_fc5_67_0_split_0
I0415 03:21:40.555032   856 net.cpp:408] fc5_classes_fc5_67_0_split -> fc5_classes_fc5_67_0_split_1
I0415 03:21:40.555039   856 net.cpp:408] fc5_classes_fc5_67_0_split -> fc5_classes_fc5_67_0_split_2
I0415 03:21:40.555095   856 net.cpp:150] Setting up fc5_classes_fc5_67_0_split
I0415 03:21:40.555104   856 net.cpp:157] Top shape: 1024 67 (68608)
I0415 03:21:40.555106   856 net.cpp:157] Top shape: 1024 67 (68608)
I0415 03:21:40.555110   856 net.cpp:157] Top shape: 1024 67 (68608)
I0415 03:21:40.555114   856 net.cpp:165] Memory required for data: 2189656064
I0415 03:21:40.555137   856 layer_factory.hpp:77] Creating layer softmax
I0415 03:21:40.555152   856 net.cpp:100] Creating Layer softmax
I0415 03:21:40.555156   856 net.cpp:434] softmax <- fc5_classes_fc5_67_0_split_0
I0415 03:21:40.555162   856 net.cpp:408] softmax -> softmax
I0415 03:21:40.555452   856 net.cpp:150] Setting up softmax
I0415 03:21:40.555464   856 net.cpp:157] Top shape: 1024 67 (68608)
I0415 03:21:40.555469   856 net.cpp:165] Memory required for data: 2189930496
I0415 03:21:40.555471   856 layer_factory.hpp:77] Creating layer loss
I0415 03:21:40.555485   856 net.cpp:100] Creating Layer loss
I0415 03:21:40.555490   856 net.cpp:434] loss <- softmax
I0415 03:21:40.555496   856 net.cpp:434] loss <- label_data_1_split_0
I0415 03:21:40.555501   856 net.cpp:408] loss -> loss
…
