…
I0415 02:36:44.074013 20519 solver.cpp:93] Creating training net from train_net file: ./Prototxt/experiment_12/rtsd-r1/orig/trial_4/train.prototxt
I0415 02:36:44.083636 20519 net.cpp:58] Initializing net from parameters: 
state {
  phase: TRAIN
  level: 0
  stage: ""
}
layer {
  name: "data"
  type: "Data"
  top: "data"
  top: "label"
  include {
    phase: TRAIN
  }
  transform_param {
    scale: 0.0039215689
    mirror: false
    crop_size: 48
    mean_value: 122
    mean_value: 115
    mean_value: 129
  }
  data_param {
    source: "../local_data/lmdb/rtsd-r1/orig/train/lmdb"
    batch_size: 1024
    backend: LMDB
  }
}
layer {
  name: "conv1"
  type: "Convolution"
  bottom: "data"
  top: "conv1"
  convolution_param {
    num_output: 100
    pad: 0
    kernel_size: 7
    group: 1
    stride: 1
    weight_filler {
      type: "xavier"
    }
  }
}
layer {
  name: "conv1_relu"
  type: "ReLU"
  bottom: "conv1"
  top: "conv1"
}
layer {
  name: "pool1"
  type: "Pooling"
  bottom: "conv1"
  top: "pool1"
  pooling_param {
    pool: MAX
    kernel_size: 2
    stride: 2
  }
}
layer {
  name: "conv2"
  type: "Convolution"
  bottom: "pool1"
  top: "conv2"
  convolution_param {
    num_output: 150
    pad: 0
    kernel_size: 4
    group: 1
    stride: 1
    weight_filler {
      type: "xavier"
    }
  }
}
layer {
  name: "conv2_relu"
  type: "ReLU"
  bottom: "conv2"
  top: "conv2"
}
layer {
  name: "pool2"
  type: "Pooling"
  bottom: "conv2"
  top: "pool2"
  pooling_param {
    pool: MAX
    kernel_size: 2
    stride: 2
  }
}
layer {
  name: "conv3"
  type: "Convolution"
  bottom: "pool2"
  top: "conv3"
  convolution_param {
    num_output: 250
    pad: 0
    kernel_size: 4
    group: 1
    stride: 1
    weight_filler {
      type: "xavier"
    }
  }
}
layer {
  name: "conv3_relu"
  type: "ReLU"
  bottom: "conv3"
  top: "conv3"
}
layer {
  name: "pool3"
  type: "Pooling"
  bottom: "conv3"
  top: "pool3"
  pooling_param {
    pool: MAX
    kernel_size: 2
    stride: 2
  }
}
layer {
  name: "fc4_300"
  type: "InnerProduct"
  bottom: "pool3"
  top: "fc4_300"
  inner_product_param {
    num_output: 300
    weight_filler {
      type: "xavier"
    }
  }
}
layer {
  name: "fc4_relu"
  type: "ReLU"
  bottom: "fc4_300"
  top: "fc4_300"
}
layer {
  name: "drop4"
  type: "Dropout"
  bottom: "fc4_300"
  top: "fc4_300"
  dropout_param {
    dropout_ratio: 0.5
  }
}
layer {
  name: "fc5_67"
  type: "InnerProduct"
  bottom: "fc4_300"
  top: "fc5_classes"
  inner_product_param {
    num_output: 67
    weight_filler {
      type: "xavier"
    }
  }
}
layer {
  name: "softmax"
  type: "Softmax"
  bottom: "fc5_classes"
  top: "softmax"
}
layer {
  name: "loss"
  type: "MultinomialLogisticLoss"
  bottom: "softmax"
  bottom: "label"
  top: "loss"
}
layer {
  name: "accuracy_1"
  type: "Accuracy"
  bottom: "fc5_classes"
  bottom: "label"
  top: "accuracy_1"
  accuracy_param {
    top_k: 1
  }
}
layer {
  name: "accuracy_5"
  type: "Accuracy"
  bottom: "fc5_classes"
  bottom: "label"
  top: "accuracy_5"
  accuracy_param {
    top_k: 5
  }
}
layer {
  name: "silence"
  type: "Silence"
  bottom: "accuracy_1"
  bottom: "accuracy_5"
}
I0415 02:36:44.083778 20519 layer_factory.hpp:77] Creating layer data
I0415 02:36:44.084883 20519 net.cpp:100] Creating Layer data
I0415 02:36:44.084899 20519 net.cpp:408] data -> data
I0415 02:36:44.084921 20519 net.cpp:408] data -> label
I0415 02:36:44.088603 20752 db_lmdb.cpp:35] Opened lmdb ../local_data/lmdb/rtsd-r1/orig/train/lmdb
I0415 02:36:44.105571 20519 data_layer.cpp:41] output data size: 1024,3,48,48
I0415 02:36:44.162003 20519 net.cpp:150] Setting up data
I0415 02:36:44.162034 20519 net.cpp:157] Top shape: 1024 3 48 48 (7077888)
I0415 02:36:44.162039 20519 net.cpp:157] Top shape: 1024 (1024)
I0415 02:36:44.162042 20519 net.cpp:165] Memory required for data: 28315648
I0415 02:36:44.162053 20519 layer_factory.hpp:77] Creating layer label_data_1_split
I0415 02:36:44.162068 20519 net.cpp:100] Creating Layer label_data_1_split
I0415 02:36:44.162075 20519 net.cpp:434] label_data_1_split <- label
I0415 02:36:44.162091 20519 net.cpp:408] label_data_1_split -> label_data_1_split_0
I0415 02:36:44.162106 20519 net.cpp:408] label_data_1_split -> label_data_1_split_1
I0415 02:36:44.162114 20519 net.cpp:408] label_data_1_split -> label_data_1_split_2
I0415 02:36:44.162192 20519 net.cpp:150] Setting up label_data_1_split
I0415 02:36:44.162201 20519 net.cpp:157] Top shape: 1024 (1024)
I0415 02:36:44.162205 20519 net.cpp:157] Top shape: 1024 (1024)
I0415 02:36:44.162209 20519 net.cpp:157] Top shape: 1024 (1024)
I0415 02:36:44.162211 20519 net.cpp:165] Memory required for data: 28327936
I0415 02:36:44.162215 20519 layer_factory.hpp:77] Creating layer conv1
I0415 02:36:44.162238 20519 net.cpp:100] Creating Layer conv1
I0415 02:36:44.162245 20519 net.cpp:434] conv1 <- data
I0415 02:36:44.162251 20519 net.cpp:408] conv1 -> conv1
I0415 02:36:45.557725 20519 net.cpp:150] Setting up conv1
I0415 02:36:45.557755 20519 net.cpp:157] Top shape: 1024 100 42 42 (180633600)
I0415 02:36:45.557760 20519 net.cpp:165] Memory required for data: 750862336
I0415 02:36:45.557783 20519 layer_factory.hpp:77] Creating layer conv1_relu
I0415 02:36:45.557796 20519 net.cpp:100] Creating Layer conv1_relu
I0415 02:36:45.557803 20519 net.cpp:434] conv1_relu <- conv1
I0415 02:36:45.557809 20519 net.cpp:395] conv1_relu -> conv1 (in-place)
I0415 02:36:45.558012 20519 net.cpp:150] Setting up conv1_relu
I0415 02:36:45.558023 20519 net.cpp:157] Top shape: 1024 100 42 42 (180633600)
I0415 02:36:45.558028 20519 net.cpp:165] Memory required for data: 1473396736
I0415 02:36:45.558032 20519 layer_factory.hpp:77] Creating layer pool1
I0415 02:36:45.558043 20519 net.cpp:100] Creating Layer pool1
I0415 02:36:45.558048 20519 net.cpp:434] pool1 <- conv1
I0415 02:36:45.558053 20519 net.cpp:408] pool1 -> pool1
I0415 02:36:45.558109 20519 net.cpp:150] Setting up pool1
I0415 02:36:45.558117 20519 net.cpp:157] Top shape: 1024 100 21 21 (45158400)
I0415 02:36:45.558122 20519 net.cpp:165] Memory required for data: 1654030336
I0415 02:36:45.558125 20519 layer_factory.hpp:77] Creating layer conv2
I0415 02:36:45.558135 20519 net.cpp:100] Creating Layer conv2
I0415 02:36:45.558140 20519 net.cpp:434] conv2 <- pool1
I0415 02:36:45.558145 20519 net.cpp:408] conv2 -> conv2
I0415 02:36:45.566593 20519 net.cpp:150] Setting up conv2
I0415 02:36:45.566622 20519 net.cpp:157] Top shape: 1024 150 18 18 (49766400)
I0415 02:36:45.566627 20519 net.cpp:165] Memory required for data: 1853095936
I0415 02:36:45.566642 20519 layer_factory.hpp:77] Creating layer conv2_relu
I0415 02:36:45.566654 20519 net.cpp:100] Creating Layer conv2_relu
I0415 02:36:45.566661 20519 net.cpp:434] conv2_relu <- conv2
I0415 02:36:45.566668 20519 net.cpp:395] conv2_relu -> conv2 (in-place)
I0415 02:36:45.567934 20519 net.cpp:150] Setting up conv2_relu
I0415 02:36:45.567950 20519 net.cpp:157] Top shape: 1024 150 18 18 (49766400)
I0415 02:36:45.567955 20519 net.cpp:165] Memory required for data: 2052161536
I0415 02:36:45.567960 20519 layer_factory.hpp:77] Creating layer pool2
I0415 02:36:45.567968 20519 net.cpp:100] Creating Layer pool2
I0415 02:36:45.567973 20519 net.cpp:434] pool2 <- conv2
I0415 02:36:45.567980 20519 net.cpp:408] pool2 -> pool2
I0415 02:36:45.568034 20519 net.cpp:150] Setting up pool2
I0415 02:36:45.568043 20519 net.cpp:157] Top shape: 1024 150 9 9 (12441600)
I0415 02:36:45.568048 20519 net.cpp:165] Memory required for data: 2101927936
I0415 02:36:45.568050 20519 layer_factory.hpp:77] Creating layer conv3
I0415 02:36:45.568063 20519 net.cpp:100] Creating Layer conv3
I0415 02:36:45.568090 20519 net.cpp:434] conv3 <- pool2
I0415 02:36:45.568097 20519 net.cpp:408] conv3 -> conv3
I0415 02:36:45.574035 20519 net.cpp:150] Setting up conv3
I0415 02:36:45.574059 20519 net.cpp:157] Top shape: 1024 250 6 6 (9216000)
I0415 02:36:45.574064 20519 net.cpp:165] Memory required for data: 2138791936
I0415 02:36:45.574076 20519 layer_factory.hpp:77] Creating layer conv3_relu
I0415 02:36:45.574084 20519 net.cpp:100] Creating Layer conv3_relu
I0415 02:36:45.574090 20519 net.cpp:434] conv3_relu <- conv3
I0415 02:36:45.574095 20519 net.cpp:395] conv3_relu -> conv3 (in-place)
I0415 02:36:45.576553 20519 net.cpp:150] Setting up conv3_relu
I0415 02:36:45.576575 20519 net.cpp:157] Top shape: 1024 250 6 6 (9216000)
I0415 02:36:45.576578 20519 net.cpp:165] Memory required for data: 2175655936
I0415 02:36:45.576583 20519 layer_factory.hpp:77] Creating layer pool3
I0415 02:36:45.576592 20519 net.cpp:100] Creating Layer pool3
I0415 02:36:45.576597 20519 net.cpp:434] pool3 <- conv3
I0415 02:36:45.576603 20519 net.cpp:408] pool3 -> pool3
I0415 02:36:45.576658 20519 net.cpp:150] Setting up pool3
I0415 02:36:45.576666 20519 net.cpp:157] Top shape: 1024 250 3 3 (2304000)
I0415 02:36:45.576670 20519 net.cpp:165] Memory required for data: 2184871936
I0415 02:36:45.576673 20519 layer_factory.hpp:77] Creating layer fc4_300
I0415 02:36:45.576681 20519 net.cpp:100] Creating Layer fc4_300
I0415 02:36:45.576684 20519 net.cpp:434] fc4_300 <- pool3
I0415 02:36:45.576690 20519 net.cpp:408] fc4_300 -> fc4_300
I0415 02:36:45.582629 20519 net.cpp:150] Setting up fc4_300
I0415 02:36:45.582659 20519 net.cpp:157] Top shape: 1024 300 (307200)
I0415 02:36:45.582662 20519 net.cpp:165] Memory required for data: 2186100736
I0415 02:36:45.582672 20519 layer_factory.hpp:77] Creating layer fc4_relu
I0415 02:36:45.582682 20519 net.cpp:100] Creating Layer fc4_relu
I0415 02:36:45.582687 20519 net.cpp:434] fc4_relu <- fc4_300
I0415 02:36:45.582695 20519 net.cpp:395] fc4_relu -> fc4_300 (in-place)
I0415 02:36:45.582919 20519 net.cpp:150] Setting up fc4_relu
I0415 02:36:45.582931 20519 net.cpp:157] Top shape: 1024 300 (307200)
I0415 02:36:45.582936 20519 net.cpp:165] Memory required for data: 2187329536
I0415 02:36:45.582939 20519 layer_factory.hpp:77] Creating layer drop4
I0415 02:36:45.582947 20519 net.cpp:100] Creating Layer drop4
I0415 02:36:45.582952 20519 net.cpp:434] drop4 <- fc4_300
I0415 02:36:45.582957 20519 net.cpp:395] drop4 -> fc4_300 (in-place)
I0415 02:36:45.582989 20519 net.cpp:150] Setting up drop4
I0415 02:36:45.582996 20519 net.cpp:157] Top shape: 1024 300 (307200)
I0415 02:36:45.582999 20519 net.cpp:165] Memory required for data: 2188558336
I0415 02:36:45.583003 20519 layer_factory.hpp:77] Creating layer fc5_67
I0415 02:36:45.583009 20519 net.cpp:100] Creating Layer fc5_67
I0415 02:36:45.583014 20519 net.cpp:434] fc5_67 <- fc4_300
I0415 02:36:45.583019 20519 net.cpp:408] fc5_67 -> fc5_classes
I0415 02:36:45.595100 20519 net.cpp:150] Setting up fc5_67
I0415 02:36:45.595139 20519 net.cpp:157] Top shape: 1024 67 (68608)
I0415 02:36:45.595142 20519 net.cpp:165] Memory required for data: 2188832768
I0415 02:36:45.595160 20519 layer_factory.hpp:77] Creating layer fc5_classes_fc5_67_0_split
I0415 02:36:45.595170 20519 net.cpp:100] Creating Layer fc5_classes_fc5_67_0_split
I0415 02:36:45.595175 20519 net.cpp:434] fc5_classes_fc5_67_0_split <- fc5_classes
I0415 02:36:45.595183 20519 net.cpp:408] fc5_classes_fc5_67_0_split -> fc5_classes_fc5_67_0_split_0
I0415 02:36:45.595192 20519 net.cpp:408] fc5_classes_fc5_67_0_split -> fc5_classes_fc5_67_0_split_1
I0415 02:36:45.595201 20519 net.cpp:408] fc5_classes_fc5_67_0_split -> fc5_classes_fc5_67_0_split_2
I0415 02:36:45.595253 20519 net.cpp:150] Setting up fc5_classes_fc5_67_0_split
I0415 02:36:45.595262 20519 net.cpp:157] Top shape: 1024 67 (68608)
I0415 02:36:45.595264 20519 net.cpp:157] Top shape: 1024 67 (68608)
I0415 02:36:45.595268 20519 net.cpp:157] Top shape: 1024 67 (68608)
I0415 02:36:45.595270 20519 net.cpp:165] Memory required for data: 2189656064
I0415 02:36:45.595295 20519 layer_factory.hpp:77] Creating layer softmax
I0415 02:36:45.595306 20519 net.cpp:100] Creating Layer softmax
I0415 02:36:45.595310 20519 net.cpp:434] softmax <- fc5_classes_fc5_67_0_split_0
I0415 02:36:45.595317 20519 net.cpp:408] softmax -> softmax
I0415 02:36:45.595613 20519 net.cpp:150] Setting up softmax
I0415 02:36:45.595624 20519 net.cpp:157] Top shape: 1024 67 (68608)
I0415 02:36:45.595628 20519 net.cpp:165] Memory required for data: 2189930496
I0415 02:36:45.595631 20519 layer_factory.hpp:77] Creating layer loss
I0415 02:36:45.595638 20519 net.cpp:100] Creating Layer loss
I0415 02:36:45.595641 20519 net.cpp:434] loss <- softmax
I0415 02:36:45.595646 20519 net.cpp:434] loss <- label_data_1_split_0
I0415 02:36:45.595651 20519 net.cpp:408] loss -> loss
…
