…
I0410 00:13:33.487490 16317 net.cpp:322] The NetState phase (0) differed from the phase (1) specified by a rule in layer accuracy_5
I0410 00:13:33.487582 16317 net.cpp:58] Initializing net from parameters: 
state {
  phase: TRAIN
  level: 0
  stage: ""
}
layer {
  name: "data"
  type: "Data"
  top: "data"
  top: "label"
  include {
    phase: TRAIN
  }
  transform_param {
    mirror: false
    crop_size: 48
    mean_value: 132
    mean_value: 126
    mean_value: 140
  }
  data_param {
    source: "../local_data/lmdb/rtsd-r1/AHE/train/lmdb"
    batch_size: 1024
    backend: LMDB
  }
}
layer {
  name: "conv1"
  type: "Convolution"
  bottom: "data"
  top: "conv1"
  convolution_param {
    num_output: 100
    pad: 0
    kernel_size: 7
    group: 1
    stride: 1
    weight_filler {
      type: "xavier"
    }
  }
}
layer {
  name: "conv1_sTanH"
  type: "TanH"
  bottom: "conv1"
  top: "conv1"
}
layer {
  name: "pool1"
  type: "Pooling"
  bottom: "conv1"
  top: "pool1"
  pooling_param {
    pool: MAX
    kernel_size: 2
    stride: 2
  }
}
layer {
  name: "conv2"
  type: "Convolution"
  bottom: "pool1"
  top: "conv2"
  convolution_param {
    num_output: 150
    pad: 0
    kernel_size: 4
    group: 1
    stride: 1
    weight_filler {
      type: "xavier"
    }
  }
}
layer {
  name: "conv2_sTanH"
  type: "TanH"
  bottom: "conv2"
  top: "conv2"
}
layer {
  name: "pool2"
  type: "Pooling"
  bottom: "conv2"
  top: "pool2"
  pooling_param {
    pool: MAX
    kernel_size: 2
    stride: 2
  }
}
layer {
  name: "conv3"
  type: "Convolution"
  bottom: "pool2"
  top: "conv3"
  convolution_param {
    num_output: 250
    pad: 0
    kernel_size: 4
    group: 1
    stride: 1
    weight_filler {
      type: "xavier"
    }
  }
}
layer {
  name: "conv3_sTanH"
  type: "TanH"
  bottom: "conv3"
  top: "conv3"
}
layer {
  name: "pool3"
  type: "Pooling"
  bottom: "conv3"
  top: "pool3"
  pooling_param {
    pool: MAX
    kernel_size: 2
    stride: 2
  }
}
layer {
  name: "fc4_300"
  type: "InnerProduct"
  bottom: "pool3"
  top: "fc4_300"
  inner_product_param {
    num_output: 300
    weight_filler {
      type: "xavier"
    }
  }
}
layer {
  name: "fc4_sTanH"
  type: "TanH"
  bottom: "fc4_300"
  top: "fc4_300"
}
layer {
  name: "drop4"
  type: "Dropout"
  bottom: "fc4_300"
  top: "fc4_300"
  dropout_param {
    dropout_ratio: 0.4
  }
}
layer {
  name: "fc5_67"
  type: "InnerProduct"
  bottom: "fc4_300"
  top: "fc5_classes"
  inner_product_param {
    num_output: 67
    weight_filler {
      type: "xavier"
    }
  }
}
layer {
  name: "loss"
  type: "SoftmaxWithLoss"
  bottom: "fc5_classes"
  bottom: "label"
  top: "loss"
}
I0410 00:13:33.487653 16317 layer_factory.hpp:77] Creating layer data
I0410 00:13:33.488714 16317 net.cpp:100] Creating Layer data
I0410 00:13:33.488729 16317 net.cpp:408] data -> data
I0410 00:13:33.488751 16317 net.cpp:408] data -> label
I0410 00:13:33.490689 16382 db_lmdb.cpp:35] Opened lmdb ../local_data/lmdb/rtsd-r1/AHE/train/lmdb
I0410 00:13:33.510982 16317 data_layer.cpp:41] output data size: 1024,3,48,48
I0410 00:13:33.557951 16317 net.cpp:150] Setting up data
I0410 00:13:33.557992 16317 net.cpp:157] Top shape: 1024 3 48 48 (7077888)
I0410 00:13:33.557998 16317 net.cpp:157] Top shape: 1024 (1024)
I0410 00:13:33.558025 16317 net.cpp:165] Memory required for data: 28315648
I0410 00:13:33.558037 16317 layer_factory.hpp:77] Creating layer conv1
I0410 00:13:33.558058 16317 net.cpp:100] Creating Layer conv1
I0410 00:13:33.558066 16317 net.cpp:434] conv1 <- data
I0410 00:13:33.558079 16317 net.cpp:408] conv1 -> conv1
I0410 00:13:33.824139 16317 net.cpp:150] Setting up conv1
I0410 00:13:33.824167 16317 net.cpp:157] Top shape: 1024 100 42 42 (180633600)
I0410 00:13:33.824172 16317 net.cpp:165] Memory required for data: 750850048
I0410 00:13:33.824194 16317 layer_factory.hpp:77] Creating layer conv1_sTanH
I0410 00:13:33.824208 16317 net.cpp:100] Creating Layer conv1_sTanH
I0410 00:13:33.824214 16317 net.cpp:434] conv1_sTanH <- conv1
I0410 00:13:33.824220 16317 net.cpp:395] conv1_sTanH -> conv1 (in-place)
I0410 00:13:33.824427 16317 net.cpp:150] Setting up conv1_sTanH
I0410 00:13:33.824440 16317 net.cpp:157] Top shape: 1024 100 42 42 (180633600)
I0410 00:13:33.824443 16317 net.cpp:165] Memory required for data: 1473384448
I0410 00:13:33.824447 16317 layer_factory.hpp:77] Creating layer pool1
I0410 00:13:33.824455 16317 net.cpp:100] Creating Layer pool1
I0410 00:13:33.824460 16317 net.cpp:434] pool1 <- conv1
I0410 00:13:33.824466 16317 net.cpp:408] pool1 -> pool1
I0410 00:13:33.824522 16317 net.cpp:150] Setting up pool1
I0410 00:13:33.824532 16317 net.cpp:157] Top shape: 1024 100 21 21 (45158400)
I0410 00:13:33.824535 16317 net.cpp:165] Memory required for data: 1654018048
I0410 00:13:33.824538 16317 layer_factory.hpp:77] Creating layer conv2
I0410 00:13:33.824551 16317 net.cpp:100] Creating Layer conv2
I0410 00:13:33.824556 16317 net.cpp:434] conv2 <- pool1
I0410 00:13:33.824561 16317 net.cpp:408] conv2 -> conv2
I0410 00:13:33.835425 16317 net.cpp:150] Setting up conv2
I0410 00:13:33.835453 16317 net.cpp:157] Top shape: 1024 150 18 18 (49766400)
I0410 00:13:33.835459 16317 net.cpp:165] Memory required for data: 1853083648
I0410 00:13:33.835476 16317 layer_factory.hpp:77] Creating layer conv2_sTanH
I0410 00:13:33.835490 16317 net.cpp:100] Creating Layer conv2_sTanH
I0410 00:13:33.835500 16317 net.cpp:434] conv2_sTanH <- conv2
I0410 00:13:33.835510 16317 net.cpp:395] conv2_sTanH -> conv2 (in-place)
I0410 00:13:33.837751 16317 net.cpp:150] Setting up conv2_sTanH
I0410 00:13:33.837779 16317 net.cpp:157] Top shape: 1024 150 18 18 (49766400)
I0410 00:13:33.837785 16317 net.cpp:165] Memory required for data: 2052149248
I0410 00:13:33.837790 16317 layer_factory.hpp:77] Creating layer pool2
I0410 00:13:33.837805 16317 net.cpp:100] Creating Layer pool2
I0410 00:13:33.837821 16317 net.cpp:434] pool2 <- conv2
I0410 00:13:33.837831 16317 net.cpp:408] pool2 -> pool2
I0410 00:13:33.837915 16317 net.cpp:150] Setting up pool2
I0410 00:13:33.837927 16317 net.cpp:157] Top shape: 1024 150 9 9 (12441600)
I0410 00:13:33.837934 16317 net.cpp:165] Memory required for data: 2101915648
I0410 00:13:33.837939 16317 layer_factory.hpp:77] Creating layer conv3
I0410 00:13:33.837954 16317 net.cpp:100] Creating Layer conv3
I0410 00:13:33.837961 16317 net.cpp:434] conv3 <- pool2
I0410 00:13:33.837970 16317 net.cpp:408] conv3 -> conv3
I0410 00:13:33.846848 16317 net.cpp:150] Setting up conv3
I0410 00:13:33.846876 16317 net.cpp:157] Top shape: 1024 250 6 6 (9216000)
I0410 00:13:33.846882 16317 net.cpp:165] Memory required for data: 2138779648
I0410 00:13:33.846899 16317 layer_factory.hpp:77] Creating layer conv3_sTanH
I0410 00:13:33.846915 16317 net.cpp:100] Creating Layer conv3_sTanH
I0410 00:13:33.846921 16317 net.cpp:434] conv3_sTanH <- conv3
I0410 00:13:33.846932 16317 net.cpp:395] conv3_sTanH -> conv3 (in-place)
I0410 00:13:33.848143 16317 net.cpp:150] Setting up conv3_sTanH
I0410 00:13:33.848165 16317 net.cpp:157] Top shape: 1024 250 6 6 (9216000)
I0410 00:13:33.848171 16317 net.cpp:165] Memory required for data: 2175643648
I0410 00:13:33.848176 16317 layer_factory.hpp:77] Creating layer pool3
I0410 00:13:33.848186 16317 net.cpp:100] Creating Layer pool3
I0410 00:13:33.848193 16317 net.cpp:434] pool3 <- conv3
I0410 00:13:33.848248 16317 net.cpp:408] pool3 -> pool3
I0410 00:13:33.848325 16317 net.cpp:150] Setting up pool3
I0410 00:13:33.848340 16317 net.cpp:157] Top shape: 1024 250 3 3 (2304000)
I0410 00:13:33.848345 16317 net.cpp:165] Memory required for data: 2184859648
I0410 00:13:33.848351 16317 layer_factory.hpp:77] Creating layer fc4_300
I0410 00:13:33.848362 16317 net.cpp:100] Creating Layer fc4_300
I0410 00:13:33.848368 16317 net.cpp:434] fc4_300 <- pool3
I0410 00:13:33.848378 16317 net.cpp:408] fc4_300 -> fc4_300
I0410 00:13:33.856451 16317 net.cpp:150] Setting up fc4_300
I0410 00:13:33.856472 16317 net.cpp:157] Top shape: 1024 300 (307200)
I0410 00:13:33.856479 16317 net.cpp:165] Memory required for data: 2186088448
I0410 00:13:33.856492 16317 layer_factory.hpp:77] Creating layer fc4_sTanH
I0410 00:13:33.856501 16317 net.cpp:100] Creating Layer fc4_sTanH
I0410 00:13:33.856508 16317 net.cpp:434] fc4_sTanH <- fc4_300
I0410 00:13:33.856516 16317 net.cpp:395] fc4_sTanH -> fc4_300 (in-place)
I0410 00:13:33.856807 16317 net.cpp:150] Setting up fc4_sTanH
I0410 00:13:33.856830 16317 net.cpp:157] Top shape: 1024 300 (307200)
I0410 00:13:33.856837 16317 net.cpp:165] Memory required for data: 2187317248
I0410 00:13:33.856847 16317 layer_factory.hpp:77] Creating layer drop4
I0410 00:13:33.856855 16317 net.cpp:100] Creating Layer drop4
I0410 00:13:33.856861 16317 net.cpp:434] drop4 <- fc4_300
I0410 00:13:33.856871 16317 net.cpp:395] drop4 -> fc4_300 (in-place)
I0410 00:13:33.856916 16317 net.cpp:150] Setting up drop4
I0410 00:13:33.856928 16317 net.cpp:157] Top shape: 1024 300 (307200)
I0410 00:13:33.856935 16317 net.cpp:165] Memory required for data: 2188546048
I0410 00:13:33.856940 16317 layer_factory.hpp:77] Creating layer fc5_67
I0410 00:13:33.856948 16317 net.cpp:100] Creating Layer fc5_67
I0410 00:13:33.856955 16317 net.cpp:434] fc5_67 <- fc4_300
I0410 00:13:33.856961 16317 net.cpp:408] fc5_67 -> fc5_classes
I0410 00:13:33.858592 16317 net.cpp:150] Setting up fc5_67
I0410 00:13:33.858613 16317 net.cpp:157] Top shape: 1024 67 (68608)
I0410 00:13:33.858618 16317 net.cpp:165] Memory required for data: 2188820480
I0410 00:13:33.858636 16317 layer_factory.hpp:77] Creating layer loss
I0410 00:13:33.858647 16317 net.cpp:100] Creating Layer loss
I0410 00:13:33.858654 16317 net.cpp:434] loss <- fc5_classes
I0410 00:13:33.858665 16317 net.cpp:434] loss <- label
I0410 00:13:33.858675 16317 net.cpp:408] loss -> loss
I0410 00:13:33.858692 16317 layer_factory.hpp:77] Creating layer loss
…
I0410 00:13:33.859637 16317 solver.cpp:193] Creating test net (#0) specified by test_net file: ./Prototxt/experiment_7/rtsd-r1/AHE/trial_3/test.prototxt
I0410 00:13:33.859838 16317 net.cpp:58] Initializing net from parameters: 
state {
  phase: TEST
}
layer {
  name: "data"
  type: "Data"
  top: "data"
  top: "label"
  include {
    phase: TEST
  }
  transform_param {
    mirror: false
    crop_size: 48
    mean_value: 126
    mean_value: 124
    mean_value: 145
  }
  data_param {
    source: "../local_data/lmdb/rtsd-r1/AHE/test/lmdb"
    batch_size: 1024
    backend: LMDB
  }
}
layer {
  name: "conv1"
  type: "Convolution"
  bottom: "data"
  top: "conv1"
  convolution_param {
    num_output: 100
    pad: 0
    kernel_size: 7
    group: 1
    stride: 1
    weight_filler {
      type: "xavier"
    }
  }
}
layer {
  name: "conv1_sTanH"
  type: "TanH"
  bottom: "conv1"
  top: "conv1"
}
layer {
  name: "pool1"
  type: "Pooling"
  bottom: "conv1"
  top: "pool1"
  pooling_param {
    pool: MAX
    kernel_size: 2
    stride: 2
  }
}
layer {
  name: "conv2"
  type: "Convolution"
  bottom: "pool1"
  top: "conv2"
  convolution_param {
    num_output: 150
    pad: 0
    kernel_size: 4
    group: 1
    stride: 1
    weight_filler {
      type: "xavier"
    }
  }
}
layer {
  name: "conv2_sTanH"
  type: "TanH"
  bottom: "conv2"
  top: "conv2"
}
layer {
  name: "pool2"
  type: "Pooling"
  bottom: "conv2"
  top: "pool2"
  pooling_param {
    pool: MAX
    kernel_size: 2
    stride: 2
  }
}
layer {
  name: "conv3"
  type: "Convolution"
  bottom: "pool2"
  top: "conv3"
  convolution_param {
    num_output: 250
    pad: 0
    kernel_size: 4
    group: 1
    stride: 1
    weight_filler {
      type: "xavier"
    }
  }
}
layer {
  name: "conv3_sTanH"
  type: "TanH"
  bottom: "conv3"
  top: "conv3"
}
layer {
  name: "pool3"
  type: "Pooling"
  bottom: "conv3"
  top: "pool3"
  pooling_param {
    pool: MAX
    kernel_size: 2
    stride: 2
  }
}
layer {
  name: "fc4_300"
  type: "InnerProduct"
  bottom: "pool3"
  top: "fc4_300"
  inner_product_param {
    num_output: 300
    weight_filler {
      type: "xavier"
    }
  }
}
layer {
  name: "fc4_sTanH"
  type: "TanH"
  bottom: "fc4_300"
  top: "fc4_300"
}
layer {
  name: "drop4"
  type: "Dropout"
  bottom: "fc4_300"
  top: "fc4_300"
  dropout_param {
    dropout_ratio: 0.4
  }
}
layer {
  name: "fc5_67"
  type: "InnerProduct"
  bottom: "fc4_300"
  top: "fc5_classes"
  inner_product_param {
    num_output: 67
    weight_filler {
      type: "xavier"
    }
  }
}
layer {
  name: "loss"
  type: "SoftmaxWithLoss"
  bottom: "fc5_classes"
  bottom: "label"
  top: "loss"
}
layer {
  name: "accuracy_1"
  type: "Accuracy"
  bottom: "fc5_classes"
  bottom: "label"
  top: "accuracy_1"
  include {
    phase: TEST
  }
  accuracy_param {
    top_k: 1
  }
}
layer {
  name: "accuracy_5"
  type: "Accuracy"
  bottom: "fc5_classes"
  bottom: "label"
  top: "accuracy_5"
  include {
    phase: TEST
  }
  accuracy_param {
    top_k: 5
  }
}
I0410 00:13:33.859985 16317 layer_factory.hpp:77] Creating layer data
I0410 00:13:33.860961 16317 net.cpp:100] Creating Layer data
I0410 00:13:33.860976 16317 net.cpp:408] data -> data
I0410 00:13:33.860991 16317 net.cpp:408] data -> label
I0410 00:13:33.862254 16399 db_lmdb.cpp:35] Opened lmdb ../local_data/lmdb/rtsd-r1/AHE/test/lmdb
I0410 00:13:33.862481 16317 data_layer.cpp:41] output data size: 1024,3,48,48
I0410 00:13:33.909518 16317 net.cpp:150] Setting up data
I0410 00:13:33.909550 16317 net.cpp:157] Top shape: 1024 3 48 48 (7077888)
I0410 00:13:33.909557 16317 net.cpp:157] Top shape: 1024 (1024)
I0410 00:13:33.909560 16317 net.cpp:165] Memory required for data: 28315648
I0410 00:13:33.909567 16317 layer_factory.hpp:77] Creating layer label_data_1_split
I0410 00:13:33.909584 16317 net.cpp:100] Creating Layer label_data_1_split
I0410 00:13:33.909590 16317 net.cpp:434] label_data_1_split <- label
I0410 00:13:33.909605 16317 net.cpp:408] label_data_1_split -> label_data_1_split_0
I0410 00:13:33.909631 16317 net.cpp:408] label_data_1_split -> label_data_1_split_1
I0410 00:13:33.909641 16317 net.cpp:408] label_data_1_split -> label_data_1_split_2
I0410 00:13:33.909802 16317 net.cpp:150] Setting up label_data_1_split
I0410 00:13:33.909814 16317 net.cpp:157] Top shape: 1024 (1024)
I0410 00:13:33.909819 16317 net.cpp:157] Top shape: 1024 (1024)
I0410 00:13:33.909823 16317 net.cpp:157] Top shape: 1024 (1024)
I0410 00:13:33.909826 16317 net.cpp:165] Memory required for data: 28327936
I0410 00:13:33.909832 16317 layer_factory.hpp:77] Creating layer conv1
I0410 00:13:33.909848 16317 net.cpp:100] Creating Layer conv1
I0410 00:13:33.909855 16317 net.cpp:434] conv1 <- data
I0410 00:13:33.909867 16317 net.cpp:408] conv1 -> conv1
I0410 00:13:33.914374 16317 net.cpp:150] Setting up conv1
I0410 00:13:33.914397 16317 net.cpp:157] Top shape: 1024 100 42 42 (180633600)
I0410 00:13:33.914402 16317 net.cpp:165] Memory required for data: 750862336
I0410 00:13:33.914415 16317 layer_factory.hpp:77] Creating layer conv1_sTanH
I0410 00:13:33.914427 16317 net.cpp:100] Creating Layer conv1_sTanH
I0410 00:13:33.914432 16317 net.cpp:434] conv1_sTanH <- conv1
I0410 00:13:33.914439 16317 net.cpp:395] conv1_sTanH -> conv1 (in-place)
I0410 00:13:33.914690 16317 net.cpp:150] Setting up conv1_sTanH
I0410 00:13:33.914705 16317 net.cpp:157] Top shape: 1024 100 42 42 (180633600)
I0410 00:13:33.914721 16317 net.cpp:165] Memory required for data: 1473396736
I0410 00:13:33.914726 16317 layer_factory.hpp:77] Creating layer pool1
I0410 00:13:33.914737 16317 net.cpp:100] Creating Layer pool1
I0410 00:13:33.914742 16317 net.cpp:434] pool1 <- conv1
I0410 00:13:33.914749 16317 net.cpp:408] pool1 -> pool1
I0410 00:13:33.914813 16317 net.cpp:150] Setting up pool1
I0410 00:13:33.914821 16317 net.cpp:157] Top shape: 1024 100 21 21 (45158400)
I0410 00:13:33.914824 16317 net.cpp:165] Memory required for data: 1654030336
I0410 00:13:33.914829 16317 layer_factory.hpp:77] Creating layer conv2
I0410 00:13:33.914840 16317 net.cpp:100] Creating Layer conv2
I0410 00:13:33.914847 16317 net.cpp:434] conv2 <- pool1
I0410 00:13:33.914854 16317 net.cpp:408] conv2 -> conv2
I0410 00:13:33.919623 16317 net.cpp:150] Setting up conv2
I0410 00:13:33.919644 16317 net.cpp:157] Top shape: 1024 150 18 18 (49766400)
I0410 00:13:33.919649 16317 net.cpp:165] Memory required for data: 1853095936
I0410 00:13:33.919661 16317 layer_factory.hpp:77] Creating layer conv2_sTanH
I0410 00:13:33.919669 16317 net.cpp:100] Creating Layer conv2_sTanH
I0410 00:13:33.919677 16317 net.cpp:434] conv2_sTanH <- conv2
I0410 00:13:33.919687 16317 net.cpp:395] conv2_sTanH -> conv2 (in-place)
I0410 00:13:33.920666 16317 net.cpp:150] Setting up conv2_sTanH
I0410 00:13:33.920687 16317 net.cpp:157] Top shape: 1024 150 18 18 (49766400)
I0410 00:13:33.920691 16317 net.cpp:165] Memory required for data: 2052161536
I0410 00:13:33.920696 16317 layer_factory.hpp:77] Creating layer pool2
I0410 00:13:33.920704 16317 net.cpp:100] Creating Layer pool2
I0410 00:13:33.920708 16317 net.cpp:434] pool2 <- conv2
I0410 00:13:33.920716 16317 net.cpp:408] pool2 -> pool2
I0410 00:13:33.920783 16317 net.cpp:150] Setting up pool2
I0410 00:13:33.920792 16317 net.cpp:157] Top shape: 1024 150 9 9 (12441600)
I0410 00:13:33.920797 16317 net.cpp:165] Memory required for data: 2101927936
I0410 00:13:33.920802 16317 layer_factory.hpp:77] Creating layer conv3
I0410 00:13:33.920819 16317 net.cpp:100] Creating Layer conv3
I0410 00:13:33.920825 16317 net.cpp:434] conv3 <- pool2
I0410 00:13:33.920832 16317 net.cpp:408] conv3 -> conv3
I0410 00:13:33.927681 16317 net.cpp:150] Setting up conv3
I0410 00:13:33.927701 16317 net.cpp:157] Top shape: 1024 250 6 6 (9216000)
I0410 00:13:33.927706 16317 net.cpp:165] Memory required for data: 2138791936
I0410 00:13:33.927718 16317 layer_factory.hpp:77] Creating layer conv3_sTanH
I0410 00:13:33.927727 16317 net.cpp:100] Creating Layer conv3_sTanH
I0410 00:13:33.927732 16317 net.cpp:434] conv3_sTanH <- conv3
I0410 00:13:33.927739 16317 net.cpp:395] conv3_sTanH -> conv3 (in-place)
I0410 00:13:33.928874 16317 net.cpp:150] Setting up conv3_sTanH
I0410 00:13:33.928894 16317 net.cpp:157] Top shape: 1024 250 6 6 (9216000)
I0410 00:13:33.928916 16317 net.cpp:165] Memory required for data: 2175655936
I0410 00:13:33.928921 16317 layer_factory.hpp:77] Creating layer pool3
I0410 00:13:33.928930 16317 net.cpp:100] Creating Layer pool3
I0410 00:13:33.928938 16317 net.cpp:434] pool3 <- conv3
I0410 00:13:33.928946 16317 net.cpp:408] pool3 -> pool3
I0410 00:13:33.929011 16317 net.cpp:150] Setting up pool3
I0410 00:13:33.929020 16317 net.cpp:157] Top shape: 1024 250 3 3 (2304000)
I0410 00:13:33.929025 16317 net.cpp:165] Memory required for data: 2184871936
I0410 00:13:33.929029 16317 layer_factory.hpp:77] Creating layer fc4_300
I0410 00:13:33.929042 16317 net.cpp:100] Creating Layer fc4_300
I0410 00:13:33.929047 16317 net.cpp:434] fc4_300 <- pool3
I0410 00:13:33.929054 16317 net.cpp:408] fc4_300 -> fc4_300
I0410 00:13:33.936074 16317 net.cpp:150] Setting up fc4_300
I0410 00:13:33.936094 16317 net.cpp:157] Top shape: 1024 300 (307200)
I0410 00:13:33.936097 16317 net.cpp:165] Memory required for data: 2186100736
I0410 00:13:33.936106 16317 layer_factory.hpp:77] Creating layer fc4_sTanH
I0410 00:13:33.936113 16317 net.cpp:100] Creating Layer fc4_sTanH
I0410 00:13:33.936117 16317 net.cpp:434] fc4_sTanH <- fc4_300
I0410 00:13:33.936125 16317 net.cpp:395] fc4_sTanH -> fc4_300 (in-place)
I0410 00:13:33.936378 16317 net.cpp:150] Setting up fc4_sTanH
I0410 00:13:33.936393 16317 net.cpp:157] Top shape: 1024 300 (307200)
I0410 00:13:33.936396 16317 net.cpp:165] Memory required for data: 2187329536
I0410 00:13:33.936400 16317 layer_factory.hpp:77] Creating layer drop4
I0410 00:13:33.936409 16317 net.cpp:100] Creating Layer drop4
I0410 00:13:33.936415 16317 net.cpp:434] drop4 <- fc4_300
I0410 00:13:33.936421 16317 net.cpp:395] drop4 -> fc4_300 (in-place)
I0410 00:13:33.936458 16317 net.cpp:150] Setting up drop4
I0410 00:13:33.936467 16317 net.cpp:157] Top shape: 1024 300 (307200)
I0410 00:13:33.936470 16317 net.cpp:165] Memory required for data: 2188558336
I0410 00:13:33.936476 16317 layer_factory.hpp:77] Creating layer fc5_67
I0410 00:13:33.936484 16317 net.cpp:100] Creating Layer fc5_67
I0410 00:13:33.936489 16317 net.cpp:434] fc5_67 <- fc4_300
I0410 00:13:33.936498 16317 net.cpp:408] fc5_67 -> fc5_classes
I0410 00:13:33.936810 16317 net.cpp:150] Setting up fc5_67
I0410 00:13:33.936820 16317 net.cpp:157] Top shape: 1024 67 (68608)
I0410 00:13:33.936827 16317 net.cpp:165] Memory required for data: 2188832768
I0410 00:13:33.936841 16317 layer_factory.hpp:77] Creating layer fc5_classes_fc5_67_0_split
I0410 00:13:33.936849 16317 net.cpp:100] Creating Layer fc5_classes_fc5_67_0_split
I0410 00:13:33.936856 16317 net.cpp:434] fc5_classes_fc5_67_0_split <- fc5_classes
I0410 00:13:33.936863 16317 net.cpp:408] fc5_classes_fc5_67_0_split -> fc5_classes_fc5_67_0_split_0
I0410 00:13:33.936873 16317 net.cpp:408] fc5_classes_fc5_67_0_split -> fc5_classes_fc5_67_0_split_1
I0410 00:13:33.936882 16317 net.cpp:408] fc5_classes_fc5_67_0_split -> fc5_classes_fc5_67_0_split_2
I0410 00:13:33.936947 16317 net.cpp:150] Setting up fc5_classes_fc5_67_0_split
I0410 00:13:33.936955 16317 net.cpp:157] Top shape: 1024 67 (68608)
I0410 00:13:33.936960 16317 net.cpp:157] Top shape: 1024 67 (68608)
I0410 00:13:33.936964 16317 net.cpp:157] Top shape: 1024 67 (68608)
I0410 00:13:33.936967 16317 net.cpp:165] Memory required for data: 2189656064
I0410 00:13:33.936970 16317 layer_factory.hpp:77] Creating layer loss
I0410 00:13:33.936980 16317 net.cpp:100] Creating Layer loss
I0410 00:13:33.936985 16317 net.cpp:434] loss <- fc5_classes_fc5_67_0_split_0
I0410 00:13:33.936990 16317 net.cpp:434] loss <- label_data_1_split_0
I0410 00:13:33.936996 16317 net.cpp:408] loss -> loss
…
