…
I0415 18:40:04.347111 23126 solver.cpp:93] Creating training net from train_net file: ./Prototxt/experiment_12/rtsd-r3/histeq/trial_2/train.prototxt
I0415 18:40:04.365445 23126 net.cpp:58] Initializing net from parameters: 
state {
  phase: TRAIN
  level: 0
  stage: ""
}
layer {
  name: "data"
  type: "Data"
  top: "data"
  top: "label"
  include {
    phase: TRAIN
  }
  transform_param {
    scale: 0.0039215689
    mirror: false
    crop_size: 48
    mean_value: 135
    mean_value: 128
    mean_value: 128
  }
  data_param {
    source: "../local_data/lmdb/rtsd-r3/histeq/train/lmdb"
    batch_size: 1024
    backend: LMDB
  }
}
layer {
  name: "conv1"
  type: "Convolution"
  bottom: "data"
  top: "conv1"
  convolution_param {
    num_output: 100
    pad: 0
    kernel_size: 7
    group: 1
    stride: 1
    weight_filler {
      type: "xavier"
    }
  }
}
layer {
  name: "conv1_relu"
  type: "ReLU"
  bottom: "conv1"
  top: "conv1"
}
layer {
  name: "pool1"
  type: "Pooling"
  bottom: "conv1"
  top: "pool1"
  pooling_param {
    pool: MAX
    kernel_size: 2
    stride: 2
  }
}
layer {
  name: "conv2"
  type: "Convolution"
  bottom: "pool1"
  top: "conv2"
  convolution_param {
    num_output: 150
    pad: 0
    kernel_size: 4
    group: 1
    stride: 1
    weight_filler {
      type: "xavier"
    }
  }
}
layer {
  name: "conv2_relu"
  type: "ReLU"
  bottom: "conv2"
  top: "conv2"
}
layer {
  name: "pool2"
  type: "Pooling"
  bottom: "conv2"
  top: "pool2"
  pooling_param {
    pool: MAX
    kernel_size: 2
    stride: 2
  }
}
layer {
  name: "conv3"
  type: "Convolution"
  bottom: "pool2"
  top: "conv3"
  convolution_param {
    num_output: 250
    pad: 0
    kernel_size: 4
    group: 1
    stride: 1
    weight_filler {
      type: "xavier"
    }
  }
}
layer {
  name: "conv3_relu"
  type: "ReLU"
  bottom: "conv3"
  top: "conv3"
}
layer {
  name: "pool3"
  type: "Pooling"
  bottom: "conv3"
  top: "pool3"
  pooling_param {
    pool: MAX
    kernel_size: 2
    stride: 2
  }
}
layer {
  name: "fc4_300"
  type: "InnerProduct"
  bottom: "pool3"
  top: "fc4_300"
  inner_product_param {
    num_output: 300
    weight_filler {
      type: "xavier"
    }
  }
}
layer {
  name: "fc4_relu"
  type: "ReLU"
  bottom: "fc4_300"
  top: "fc4_300"
}
layer {
  name: "drop4"
  type: "Dropout"
  bottom: "fc4_300"
  top: "fc4_300"
  dropout_param {
    dropout_ratio: 0.5
  }
}
layer {
  name: "fc5_106"
  type: "InnerProduct"
  bottom: "fc4_300"
  top: "fc5_classes"
  inner_product_param {
    num_output: 106
    weight_filler {
      type: "xavier"
    }
  }
}
layer {
  name: "softmax"
  type: "Softmax"
  bottom: "fc5_classes"
  top: "softmax"
}
layer {
  name: "loss"
  type: "MultinomialLogisticLoss"
  bottom: "softmax"
  bottom: "label"
  top: "loss"
}
layer {
  name: "accuracy_1"
  type: "Accuracy"
  bottom: "fc5_classes"
  bottom: "label"
  top: "accuracy_1"
  accuracy_param {
    top_k: 1
  }
}
layer {
  name: "accuracy_5"
  type: "Accuracy"
  bottom: "fc5_classes"
  bottom: "label"
  top: "accuracy_5"
  accuracy_param {
    top_k: 5
  }
}
layer {
  name: "silence"
  type: "Silence"
  bottom: "accuracy_1"
  bottom: "accuracy_5"
}
I0415 18:40:04.365614 23126 layer_factory.hpp:77] Creating layer data
I0415 18:40:04.366979 23126 net.cpp:100] Creating Layer data
I0415 18:40:04.366994 23126 net.cpp:408] data -> data
I0415 18:40:04.367020 23126 net.cpp:408] data -> label
I0415 18:40:04.371577 23233 db_lmdb.cpp:35] Opened lmdb ../local_data/lmdb/rtsd-r3/histeq/train/lmdb
I0415 18:40:04.389890 23126 data_layer.cpp:41] output data size: 1024,3,48,48
I0415 18:40:04.438848 23126 net.cpp:150] Setting up data
I0415 18:40:04.438876 23126 net.cpp:157] Top shape: 1024 3 48 48 (7077888)
I0415 18:40:04.438882 23126 net.cpp:157] Top shape: 1024 (1024)
I0415 18:40:04.438884 23126 net.cpp:165] Memory required for data: 28315648
I0415 18:40:04.438895 23126 layer_factory.hpp:77] Creating layer label_data_1_split
I0415 18:40:04.438910 23126 net.cpp:100] Creating Layer label_data_1_split
I0415 18:40:04.438915 23126 net.cpp:434] label_data_1_split <- label
I0415 18:40:04.438927 23126 net.cpp:408] label_data_1_split -> label_data_1_split_0
I0415 18:40:04.438944 23126 net.cpp:408] label_data_1_split -> label_data_1_split_1
I0415 18:40:04.438956 23126 net.cpp:408] label_data_1_split -> label_data_1_split_2
I0415 18:40:04.439038 23126 net.cpp:150] Setting up label_data_1_split
I0415 18:40:04.439052 23126 net.cpp:157] Top shape: 1024 (1024)
I0415 18:40:04.439060 23126 net.cpp:157] Top shape: 1024 (1024)
I0415 18:40:04.439069 23126 net.cpp:157] Top shape: 1024 (1024)
I0415 18:40:04.439074 23126 net.cpp:165] Memory required for data: 28327936
I0415 18:40:04.439080 23126 layer_factory.hpp:77] Creating layer conv1
I0415 18:40:04.439105 23126 net.cpp:100] Creating Layer conv1
I0415 18:40:04.439113 23126 net.cpp:434] conv1 <- data
I0415 18:40:04.439124 23126 net.cpp:408] conv1 -> conv1
I0415 18:40:04.803128 23126 net.cpp:150] Setting up conv1
I0415 18:40:04.803166 23126 net.cpp:157] Top shape: 1024 100 42 42 (180633600)
I0415 18:40:04.803174 23126 net.cpp:165] Memory required for data: 750862336
I0415 18:40:04.803203 23126 layer_factory.hpp:77] Creating layer conv1_relu
I0415 18:40:04.803218 23126 net.cpp:100] Creating Layer conv1_relu
I0415 18:40:04.803227 23126 net.cpp:434] conv1_relu <- conv1
I0415 18:40:04.803237 23126 net.cpp:395] conv1_relu -> conv1 (in-place)
I0415 18:40:04.803519 23126 net.cpp:150] Setting up conv1_relu
I0415 18:40:04.803535 23126 net.cpp:157] Top shape: 1024 100 42 42 (180633600)
I0415 18:40:04.803540 23126 net.cpp:165] Memory required for data: 1473396736
I0415 18:40:04.803550 23126 layer_factory.hpp:77] Creating layer pool1
I0415 18:40:04.803565 23126 net.cpp:100] Creating Layer pool1
I0415 18:40:04.803572 23126 net.cpp:434] pool1 <- conv1
I0415 18:40:04.803581 23126 net.cpp:408] pool1 -> pool1
I0415 18:40:04.803658 23126 net.cpp:150] Setting up pool1
I0415 18:40:04.803671 23126 net.cpp:157] Top shape: 1024 100 21 21 (45158400)
I0415 18:40:04.803676 23126 net.cpp:165] Memory required for data: 1654030336
I0415 18:40:04.803681 23126 layer_factory.hpp:77] Creating layer conv2
I0415 18:40:04.803697 23126 net.cpp:100] Creating Layer conv2
I0415 18:40:04.803704 23126 net.cpp:434] conv2 <- pool1
I0415 18:40:04.803714 23126 net.cpp:408] conv2 -> conv2
I0415 18:40:04.821414 23126 net.cpp:150] Setting up conv2
I0415 18:40:04.821444 23126 net.cpp:157] Top shape: 1024 150 18 18 (49766400)
I0415 18:40:04.821450 23126 net.cpp:165] Memory required for data: 1853095936
I0415 18:40:04.821470 23126 layer_factory.hpp:77] Creating layer conv2_relu
I0415 18:40:04.821485 23126 net.cpp:100] Creating Layer conv2_relu
I0415 18:40:04.821493 23126 net.cpp:434] conv2_relu <- conv2
I0415 18:40:04.821501 23126 net.cpp:395] conv2_relu -> conv2 (in-place)
I0415 18:40:04.822808 23126 net.cpp:150] Setting up conv2_relu
I0415 18:40:04.822829 23126 net.cpp:157] Top shape: 1024 150 18 18 (49766400)
I0415 18:40:04.822836 23126 net.cpp:165] Memory required for data: 2052161536
I0415 18:40:04.822842 23126 layer_factory.hpp:77] Creating layer pool2
I0415 18:40:04.822855 23126 net.cpp:100] Creating Layer pool2
I0415 18:40:04.822863 23126 net.cpp:434] pool2 <- conv2
I0415 18:40:04.822872 23126 net.cpp:408] pool2 -> pool2
I0415 18:40:04.822938 23126 net.cpp:150] Setting up pool2
I0415 18:40:04.822952 23126 net.cpp:157] Top shape: 1024 150 9 9 (12441600)
I0415 18:40:04.822958 23126 net.cpp:165] Memory required for data: 2101927936
I0415 18:40:04.822963 23126 layer_factory.hpp:77] Creating layer conv3
I0415 18:40:04.823011 23126 net.cpp:100] Creating Layer conv3
I0415 18:40:04.823019 23126 net.cpp:434] conv3 <- pool2
I0415 18:40:04.823029 23126 net.cpp:408] conv3 -> conv3
I0415 18:40:04.833055 23126 net.cpp:150] Setting up conv3
I0415 18:40:04.833081 23126 net.cpp:157] Top shape: 1024 250 6 6 (9216000)
I0415 18:40:04.833086 23126 net.cpp:165] Memory required for data: 2138791936
I0415 18:40:04.833103 23126 layer_factory.hpp:77] Creating layer conv3_relu
I0415 18:40:04.833115 23126 net.cpp:100] Creating Layer conv3_relu
I0415 18:40:04.833123 23126 net.cpp:434] conv3_relu <- conv3
I0415 18:40:04.833133 23126 net.cpp:395] conv3_relu -> conv3 (in-place)
I0415 18:40:04.835934 23126 net.cpp:150] Setting up conv3_relu
I0415 18:40:04.835958 23126 net.cpp:157] Top shape: 1024 250 6 6 (9216000)
I0415 18:40:04.835966 23126 net.cpp:165] Memory required for data: 2175655936
I0415 18:40:04.835971 23126 layer_factory.hpp:77] Creating layer pool3
I0415 18:40:04.835984 23126 net.cpp:100] Creating Layer pool3
I0415 18:40:04.835993 23126 net.cpp:434] pool3 <- conv3
I0415 18:40:04.836004 23126 net.cpp:408] pool3 -> pool3
I0415 18:40:04.836073 23126 net.cpp:150] Setting up pool3
I0415 18:40:04.836086 23126 net.cpp:157] Top shape: 1024 250 3 3 (2304000)
I0415 18:40:04.836092 23126 net.cpp:165] Memory required for data: 2184871936
I0415 18:40:04.836098 23126 layer_factory.hpp:77] Creating layer fc4_300
I0415 18:40:04.836113 23126 net.cpp:100] Creating Layer fc4_300
I0415 18:40:04.836120 23126 net.cpp:434] fc4_300 <- pool3
I0415 18:40:04.836128 23126 net.cpp:408] fc4_300 -> fc4_300
I0415 18:40:04.846029 23126 net.cpp:150] Setting up fc4_300
I0415 18:40:04.846051 23126 net.cpp:157] Top shape: 1024 300 (307200)
I0415 18:40:04.846058 23126 net.cpp:165] Memory required for data: 2186100736
I0415 18:40:04.846071 23126 layer_factory.hpp:77] Creating layer fc4_relu
I0415 18:40:04.846082 23126 net.cpp:100] Creating Layer fc4_relu
I0415 18:40:04.846089 23126 net.cpp:434] fc4_relu <- fc4_300
I0415 18:40:04.846099 23126 net.cpp:395] fc4_relu -> fc4_300 (in-place)
I0415 18:40:04.846354 23126 net.cpp:150] Setting up fc4_relu
I0415 18:40:04.846370 23126 net.cpp:157] Top shape: 1024 300 (307200)
I0415 18:40:04.846377 23126 net.cpp:165] Memory required for data: 2187329536
I0415 18:40:04.846385 23126 layer_factory.hpp:77] Creating layer drop4
I0415 18:40:04.846397 23126 net.cpp:100] Creating Layer drop4
I0415 18:40:04.846405 23126 net.cpp:434] drop4 <- fc4_300
I0415 18:40:04.846412 23126 net.cpp:395] drop4 -> fc4_300 (in-place)
I0415 18:40:04.846454 23126 net.cpp:150] Setting up drop4
I0415 18:40:04.846465 23126 net.cpp:157] Top shape: 1024 300 (307200)
I0415 18:40:04.846472 23126 net.cpp:165] Memory required for data: 2188558336
I0415 18:40:04.846477 23126 layer_factory.hpp:77] Creating layer fc5_106
I0415 18:40:04.846488 23126 net.cpp:100] Creating Layer fc5_106
I0415 18:40:04.846495 23126 net.cpp:434] fc5_106 <- fc4_300
I0415 18:40:04.846503 23126 net.cpp:408] fc5_106 -> fc5_classes
I0415 18:40:04.849597 23126 net.cpp:150] Setting up fc5_106
I0415 18:40:04.849618 23126 net.cpp:157] Top shape: 1024 106 (108544)
I0415 18:40:04.849625 23126 net.cpp:165] Memory required for data: 2188992512
I0415 18:40:04.849642 23126 layer_factory.hpp:77] Creating layer fc5_classes_fc5_106_0_split
I0415 18:40:04.849654 23126 net.cpp:100] Creating Layer fc5_classes_fc5_106_0_split
I0415 18:40:04.849663 23126 net.cpp:434] fc5_classes_fc5_106_0_split <- fc5_classes
I0415 18:40:04.849673 23126 net.cpp:408] fc5_classes_fc5_106_0_split -> fc5_classes_fc5_106_0_split_0
I0415 18:40:04.849685 23126 net.cpp:408] fc5_classes_fc5_106_0_split -> fc5_classes_fc5_106_0_split_1
I0415 18:40:04.849697 23126 net.cpp:408] fc5_classes_fc5_106_0_split -> fc5_classes_fc5_106_0_split_2
I0415 18:40:04.849769 23126 net.cpp:150] Setting up fc5_classes_fc5_106_0_split
I0415 18:40:04.849781 23126 net.cpp:157] Top shape: 1024 106 (108544)
I0415 18:40:04.849788 23126 net.cpp:157] Top shape: 1024 106 (108544)
I0415 18:40:04.849797 23126 net.cpp:157] Top shape: 1024 106 (108544)
I0415 18:40:04.849803 23126 net.cpp:165] Memory required for data: 2190295040
I0415 18:40:04.849831 23126 layer_factory.hpp:77] Creating layer softmax
I0415 18:40:04.849848 23126 net.cpp:100] Creating Layer softmax
I0415 18:40:04.849855 23126 net.cpp:434] softmax <- fc5_classes_fc5_106_0_split_0
I0415 18:40:04.849865 23126 net.cpp:408] softmax -> softmax
I0415 18:40:04.850216 23126 net.cpp:150] Setting up softmax
I0415 18:40:04.850234 23126 net.cpp:157] Top shape: 1024 106 (108544)
I0415 18:40:04.850240 23126 net.cpp:165] Memory required for data: 2190729216
I0415 18:40:04.850246 23126 layer_factory.hpp:77] Creating layer loss
I0415 18:40:04.850257 23126 net.cpp:100] Creating Layer loss
I0415 18:40:04.850265 23126 net.cpp:434] loss <- softmax
I0415 18:40:04.850275 23126 net.cpp:434] loss <- label_data_1_split_0
I0415 18:40:04.850283 23126 net.cpp:408] loss -> loss
…
