…
I0415 06:48:27.336079 10654 solver.cpp:93] Creating training net from train_net file: ./Prototxt/experiment_12/rtsd-r1/imajust/trial_5/train.prototxt
I0415 06:48:27.347690 10654 net.cpp:58] Initializing net from parameters: 
state {
  phase: TRAIN
  level: 0
  stage: ""
}
layer {
  name: "data"
  type: "Data"
  top: "data"
  top: "label"
  include {
    phase: TRAIN
  }
  transform_param {
    scale: 0.0039215689
    mirror: false
    crop_size: 48
    mean_value: 115
    mean_value: 108
    mean_value: 122
  }
  data_param {
    source: "../local_data/lmdb/rtsd-r1/imajust/train/lmdb"
    batch_size: 1024
    backend: LMDB
  }
}
layer {
  name: "conv1"
  type: "Convolution"
  bottom: "data"
  top: "conv1"
  convolution_param {
    num_output: 100
    pad: 0
    kernel_size: 7
    group: 1
    stride: 1
    weight_filler {
      type: "xavier"
    }
  }
}
layer {
  name: "conv1_relu"
  type: "ReLU"
  bottom: "conv1"
  top: "conv1"
}
layer {
  name: "pool1"
  type: "Pooling"
  bottom: "conv1"
  top: "pool1"
  pooling_param {
    pool: MAX
    kernel_size: 2
    stride: 2
  }
}
layer {
  name: "conv2"
  type: "Convolution"
  bottom: "pool1"
  top: "conv2"
  convolution_param {
    num_output: 150
    pad: 0
    kernel_size: 4
    group: 1
    stride: 1
    weight_filler {
      type: "xavier"
    }
  }
}
layer {
  name: "conv2_relu"
  type: "ReLU"
  bottom: "conv2"
  top: "conv2"
}
layer {
  name: "pool2"
  type: "Pooling"
  bottom: "conv2"
  top: "pool2"
  pooling_param {
    pool: MAX
    kernel_size: 2
    stride: 2
  }
}
layer {
  name: "conv3"
  type: "Convolution"
  bottom: "pool2"
  top: "conv3"
  convolution_param {
    num_output: 250
    pad: 0
    kernel_size: 4
    group: 1
    stride: 1
    weight_filler {
      type: "xavier"
    }
  }
}
layer {
  name: "conv3_relu"
  type: "ReLU"
  bottom: "conv3"
  top: "conv3"
}
layer {
  name: "pool3"
  type: "Pooling"
  bottom: "conv3"
  top: "pool3"
  pooling_param {
    pool: MAX
    kernel_size: 2
    stride: 2
  }
}
layer {
  name: "fc4_300"
  type: "InnerProduct"
  bottom: "pool3"
  top: "fc4_300"
  inner_product_param {
    num_output: 300
    weight_filler {
      type: "xavier"
    }
  }
}
layer {
  name: "fc4_relu"
  type: "ReLU"
  bottom: "fc4_300"
  top: "fc4_300"
}
layer {
  name: "drop4"
  type: "Dropout"
  bottom: "fc4_300"
  top: "fc4_300"
  dropout_param {
    dropout_ratio: 0.5
  }
}
layer {
  name: "fc5_67"
  type: "InnerProduct"
  bottom: "fc4_300"
  top: "fc5_classes"
  inner_product_param {
    num_output: 67
    weight_filler {
      type: "xavier"
    }
  }
}
layer {
  name: "softmax"
  type: "Softmax"
  bottom: "fc5_classes"
  top: "softmax"
}
layer {
  name: "loss"
  type: "MultinomialLogisticLoss"
  bottom: "softmax"
  bottom: "label"
  top: "loss"
}
layer {
  name: "accuracy_1"
  type: "Accuracy"
  bottom: "fc5_classes"
  bottom: "label"
  top: "accuracy_1"
  accuracy_param {
    top_k: 1
  }
}
layer {
  name: "accuracy_5"
  type: "Accuracy"
  bottom: "fc5_classes"
  bottom: "label"
  top: "accuracy_5"
  accuracy_param {
    top_k: 5
  }
}
layer {
  name: "silence"
  type: "Silence"
  bottom: "accuracy_1"
  bottom: "accuracy_5"
}
I0415 06:48:27.347825 10654 layer_factory.hpp:77] Creating layer data
I0415 06:48:27.348934 10654 net.cpp:100] Creating Layer data
I0415 06:48:27.348953 10654 net.cpp:408] data -> data
I0415 06:48:27.348975 10654 net.cpp:408] data -> label
I0415 06:48:27.350014 10764 db_lmdb.cpp:35] Opened lmdb ../local_data/lmdb/rtsd-r1/imajust/train/lmdb
I0415 06:48:27.366657 10654 data_layer.cpp:41] output data size: 1024,3,48,48
I0415 06:48:27.418177 10654 net.cpp:150] Setting up data
I0415 06:48:27.418205 10654 net.cpp:157] Top shape: 1024 3 48 48 (7077888)
I0415 06:48:27.418211 10654 net.cpp:157] Top shape: 1024 (1024)
I0415 06:48:27.418215 10654 net.cpp:165] Memory required for data: 28315648
I0415 06:48:27.418226 10654 layer_factory.hpp:77] Creating layer label_data_1_split
I0415 06:48:27.418239 10654 net.cpp:100] Creating Layer label_data_1_split
I0415 06:48:27.418246 10654 net.cpp:434] label_data_1_split <- label
I0415 06:48:27.418258 10654 net.cpp:408] label_data_1_split -> label_data_1_split_0
I0415 06:48:27.418284 10654 net.cpp:408] label_data_1_split -> label_data_1_split_1
I0415 06:48:27.418294 10654 net.cpp:408] label_data_1_split -> label_data_1_split_2
I0415 06:48:27.418367 10654 net.cpp:150] Setting up label_data_1_split
I0415 06:48:27.418377 10654 net.cpp:157] Top shape: 1024 (1024)
I0415 06:48:27.418380 10654 net.cpp:157] Top shape: 1024 (1024)
I0415 06:48:27.418385 10654 net.cpp:157] Top shape: 1024 (1024)
I0415 06:48:27.418386 10654 net.cpp:165] Memory required for data: 28327936
I0415 06:48:27.418390 10654 layer_factory.hpp:77] Creating layer conv1
I0415 06:48:27.418408 10654 net.cpp:100] Creating Layer conv1
I0415 06:48:27.418413 10654 net.cpp:434] conv1 <- data
I0415 06:48:27.418419 10654 net.cpp:408] conv1 -> conv1
I0415 06:48:27.865497 10654 net.cpp:150] Setting up conv1
I0415 06:48:27.865522 10654 net.cpp:157] Top shape: 1024 100 42 42 (180633600)
I0415 06:48:27.865526 10654 net.cpp:165] Memory required for data: 750862336
I0415 06:48:27.865548 10654 layer_factory.hpp:77] Creating layer conv1_relu
I0415 06:48:27.865572 10654 net.cpp:100] Creating Layer conv1_relu
I0415 06:48:27.865577 10654 net.cpp:434] conv1_relu <- conv1
I0415 06:48:27.865583 10654 net.cpp:395] conv1_relu -> conv1 (in-place)
I0415 06:48:27.865778 10654 net.cpp:150] Setting up conv1_relu
I0415 06:48:27.865790 10654 net.cpp:157] Top shape: 1024 100 42 42 (180633600)
I0415 06:48:27.865793 10654 net.cpp:165] Memory required for data: 1473396736
I0415 06:48:27.865797 10654 layer_factory.hpp:77] Creating layer pool1
I0415 06:48:27.865806 10654 net.cpp:100] Creating Layer pool1
I0415 06:48:27.865813 10654 net.cpp:434] pool1 <- conv1
I0415 06:48:27.865818 10654 net.cpp:408] pool1 -> pool1
I0415 06:48:27.865870 10654 net.cpp:150] Setting up pool1
I0415 06:48:27.865878 10654 net.cpp:157] Top shape: 1024 100 21 21 (45158400)
I0415 06:48:27.865881 10654 net.cpp:165] Memory required for data: 1654030336
I0415 06:48:27.865885 10654 layer_factory.hpp:77] Creating layer conv2
I0415 06:48:27.865895 10654 net.cpp:100] Creating Layer conv2
I0415 06:48:27.865900 10654 net.cpp:434] conv2 <- pool1
I0415 06:48:27.865911 10654 net.cpp:408] conv2 -> conv2
I0415 06:48:27.872069 10654 net.cpp:150] Setting up conv2
I0415 06:48:27.872086 10654 net.cpp:157] Top shape: 1024 150 18 18 (49766400)
I0415 06:48:27.872088 10654 net.cpp:165] Memory required for data: 1853095936
I0415 06:48:27.872098 10654 layer_factory.hpp:77] Creating layer conv2_relu
I0415 06:48:27.872105 10654 net.cpp:100] Creating Layer conv2_relu
I0415 06:48:27.872110 10654 net.cpp:434] conv2_relu <- conv2
I0415 06:48:27.872117 10654 net.cpp:395] conv2_relu -> conv2 (in-place)
I0415 06:48:27.873029 10654 net.cpp:150] Setting up conv2_relu
I0415 06:48:27.873044 10654 net.cpp:157] Top shape: 1024 150 18 18 (49766400)
I0415 06:48:27.873049 10654 net.cpp:165] Memory required for data: 2052161536
I0415 06:48:27.873051 10654 layer_factory.hpp:77] Creating layer pool2
I0415 06:48:27.873060 10654 net.cpp:100] Creating Layer pool2
I0415 06:48:27.873065 10654 net.cpp:434] pool2 <- conv2
I0415 06:48:27.873070 10654 net.cpp:408] pool2 -> pool2
I0415 06:48:27.873121 10654 net.cpp:150] Setting up pool2
I0415 06:48:27.873129 10654 net.cpp:157] Top shape: 1024 150 9 9 (12441600)
I0415 06:48:27.873132 10654 net.cpp:165] Memory required for data: 2101927936
I0415 06:48:27.873136 10654 layer_factory.hpp:77] Creating layer conv3
I0415 06:48:27.873172 10654 net.cpp:100] Creating Layer conv3
I0415 06:48:27.873177 10654 net.cpp:434] conv3 <- pool2
I0415 06:48:27.873183 10654 net.cpp:408] conv3 -> conv3
I0415 06:48:27.878933 10654 net.cpp:150] Setting up conv3
I0415 06:48:27.878949 10654 net.cpp:157] Top shape: 1024 250 6 6 (9216000)
I0415 06:48:27.878953 10654 net.cpp:165] Memory required for data: 2138791936
I0415 06:48:27.878962 10654 layer_factory.hpp:77] Creating layer conv3_relu
I0415 06:48:27.878970 10654 net.cpp:100] Creating Layer conv3_relu
I0415 06:48:27.878974 10654 net.cpp:434] conv3_relu <- conv3
I0415 06:48:27.878981 10654 net.cpp:395] conv3_relu -> conv3 (in-place)
I0415 06:48:27.880523 10654 net.cpp:150] Setting up conv3_relu
I0415 06:48:27.880539 10654 net.cpp:157] Top shape: 1024 250 6 6 (9216000)
I0415 06:48:27.880542 10654 net.cpp:165] Memory required for data: 2175655936
I0415 06:48:27.880547 10654 layer_factory.hpp:77] Creating layer pool3
I0415 06:48:27.880560 10654 net.cpp:100] Creating Layer pool3
I0415 06:48:27.880564 10654 net.cpp:434] pool3 <- conv3
I0415 06:48:27.880570 10654 net.cpp:408] pool3 -> pool3
I0415 06:48:27.880620 10654 net.cpp:150] Setting up pool3
I0415 06:48:27.880627 10654 net.cpp:157] Top shape: 1024 250 3 3 (2304000)
I0415 06:48:27.880630 10654 net.cpp:165] Memory required for data: 2184871936
I0415 06:48:27.880635 10654 layer_factory.hpp:77] Creating layer fc4_300
I0415 06:48:27.880640 10654 net.cpp:100] Creating Layer fc4_300
I0415 06:48:27.880645 10654 net.cpp:434] fc4_300 <- pool3
I0415 06:48:27.880651 10654 net.cpp:408] fc4_300 -> fc4_300
I0415 06:48:27.886163 10654 net.cpp:150] Setting up fc4_300
I0415 06:48:27.886179 10654 net.cpp:157] Top shape: 1024 300 (307200)
I0415 06:48:27.886183 10654 net.cpp:165] Memory required for data: 2186100736
I0415 06:48:27.886189 10654 layer_factory.hpp:77] Creating layer fc4_relu
I0415 06:48:27.886195 10654 net.cpp:100] Creating Layer fc4_relu
I0415 06:48:27.886199 10654 net.cpp:434] fc4_relu <- fc4_300
I0415 06:48:27.886205 10654 net.cpp:395] fc4_relu -> fc4_300 (in-place)
I0415 06:48:27.886396 10654 net.cpp:150] Setting up fc4_relu
I0415 06:48:27.886407 10654 net.cpp:157] Top shape: 1024 300 (307200)
I0415 06:48:27.886410 10654 net.cpp:165] Memory required for data: 2187329536
I0415 06:48:27.886414 10654 layer_factory.hpp:77] Creating layer drop4
I0415 06:48:27.886420 10654 net.cpp:100] Creating Layer drop4
I0415 06:48:27.886425 10654 net.cpp:434] drop4 <- fc4_300
I0415 06:48:27.886431 10654 net.cpp:395] drop4 -> fc4_300 (in-place)
I0415 06:48:27.886463 10654 net.cpp:150] Setting up drop4
I0415 06:48:27.886471 10654 net.cpp:157] Top shape: 1024 300 (307200)
I0415 06:48:27.886473 10654 net.cpp:165] Memory required for data: 2188558336
I0415 06:48:27.886477 10654 layer_factory.hpp:77] Creating layer fc5_67
I0415 06:48:27.886484 10654 net.cpp:100] Creating Layer fc5_67
I0415 06:48:27.886489 10654 net.cpp:434] fc5_67 <- fc4_300
I0415 06:48:27.886495 10654 net.cpp:408] fc5_67 -> fc5_classes
I0415 06:48:27.892190 10654 net.cpp:150] Setting up fc5_67
I0415 06:48:27.892204 10654 net.cpp:157] Top shape: 1024 67 (68608)
I0415 06:48:27.892208 10654 net.cpp:165] Memory required for data: 2188832768
I0415 06:48:27.892220 10654 layer_factory.hpp:77] Creating layer fc5_classes_fc5_67_0_split
I0415 06:48:27.892230 10654 net.cpp:100] Creating Layer fc5_classes_fc5_67_0_split
I0415 06:48:27.892235 10654 net.cpp:434] fc5_classes_fc5_67_0_split <- fc5_classes
I0415 06:48:27.892241 10654 net.cpp:408] fc5_classes_fc5_67_0_split -> fc5_classes_fc5_67_0_split_0
I0415 06:48:27.892249 10654 net.cpp:408] fc5_classes_fc5_67_0_split -> fc5_classes_fc5_67_0_split_1
I0415 06:48:27.892256 10654 net.cpp:408] fc5_classes_fc5_67_0_split -> fc5_classes_fc5_67_0_split_2
I0415 06:48:27.892308 10654 net.cpp:150] Setting up fc5_classes_fc5_67_0_split
I0415 06:48:27.892315 10654 net.cpp:157] Top shape: 1024 67 (68608)
I0415 06:48:27.892319 10654 net.cpp:157] Top shape: 1024 67 (68608)
I0415 06:48:27.892323 10654 net.cpp:157] Top shape: 1024 67 (68608)
I0415 06:48:27.892325 10654 net.cpp:165] Memory required for data: 2189656064
I0415 06:48:27.892343 10654 layer_factory.hpp:77] Creating layer softmax
I0415 06:48:27.892352 10654 net.cpp:100] Creating Layer softmax
I0415 06:48:27.892357 10654 net.cpp:434] softmax <- fc5_classes_fc5_67_0_split_0
I0415 06:48:27.892364 10654 net.cpp:408] softmax -> softmax
I0415 06:48:27.892619 10654 net.cpp:150] Setting up softmax
I0415 06:48:27.892630 10654 net.cpp:157] Top shape: 1024 67 (68608)
I0415 06:48:27.892633 10654 net.cpp:165] Memory required for data: 2189930496
I0415 06:48:27.892637 10654 layer_factory.hpp:77] Creating layer loss
I0415 06:48:27.892644 10654 net.cpp:100] Creating Layer loss
I0415 06:48:27.892647 10654 net.cpp:434] loss <- softmax
I0415 06:48:27.892652 10654 net.cpp:434] loss <- label_data_1_split_0
I0415 06:48:27.892657 10654 net.cpp:408] loss -> loss
…
