…
I0415 09:54:35.316754 10344 solver.cpp:93] Creating training net from train_net file: ./Prototxt/experiment_12/rtsd-r3/CoNorm/trial_5/train.prototxt
I0415 09:54:35.328446 10344 net.cpp:58] Initializing net from parameters: 
state {
  phase: TRAIN
  level: 0
  stage: ""
}
layer {
  name: "data"
  type: "Data"
  top: "data"
  top: "label"
  include {
    phase: TRAIN
  }
  transform_param {
    scale: 0.0039215689
    mirror: false
    crop_size: 48
    mean_value: 135
    mean_value: 134
    mean_value: 134
  }
  data_param {
    source: "../local_data/lmdb/rtsd-r3/CoNorm/train/lmdb"
    batch_size: 1024
    backend: LMDB
  }
}
layer {
  name: "conv1"
  type: "Convolution"
  bottom: "data"
  top: "conv1"
  convolution_param {
    num_output: 100
    pad: 0
    kernel_size: 7
    group: 1
    stride: 1
    weight_filler {
      type: "xavier"
    }
  }
}
layer {
  name: "conv1_relu"
  type: "ReLU"
  bottom: "conv1"
  top: "conv1"
}
layer {
  name: "pool1"
  type: "Pooling"
  bottom: "conv1"
  top: "pool1"
  pooling_param {
    pool: MAX
    kernel_size: 2
    stride: 2
  }
}
layer {
  name: "conv2"
  type: "Convolution"
  bottom: "pool1"
  top: "conv2"
  convolution_param {
    num_output: 150
    pad: 0
    kernel_size: 4
    group: 1
    stride: 1
    weight_filler {
      type: "xavier"
    }
  }
}
layer {
  name: "conv2_relu"
  type: "ReLU"
  bottom: "conv2"
  top: "conv2"
}
layer {
  name: "pool2"
  type: "Pooling"
  bottom: "conv2"
  top: "pool2"
  pooling_param {
    pool: MAX
    kernel_size: 2
    stride: 2
  }
}
layer {
  name: "conv3"
  type: "Convolution"
  bottom: "pool2"
  top: "conv3"
  convolution_param {
    num_output: 250
    pad: 0
    kernel_size: 4
    group: 1
    stride: 1
    weight_filler {
      type: "xavier"
    }
  }
}
layer {
  name: "conv3_relu"
  type: "ReLU"
  bottom: "conv3"
  top: "conv3"
}
layer {
  name: "pool3"
  type: "Pooling"
  bottom: "conv3"
  top: "pool3"
  pooling_param {
    pool: MAX
    kernel_size: 2
    stride: 2
  }
}
layer {
  name: "fc4_300"
  type: "InnerProduct"
  bottom: "pool3"
  top: "fc4_300"
  inner_product_param {
    num_output: 300
    weight_filler {
      type: "xavier"
    }
  }
}
layer {
  name: "fc4_relu"
  type: "ReLU"
  bottom: "fc4_300"
  top: "fc4_300"
}
layer {
  name: "drop4"
  type: "Dropout"
  bottom: "fc4_300"
  top: "fc4_300"
  dropout_param {
    dropout_ratio: 0.5
  }
}
layer {
  name: "fc5_106"
  type: "InnerProduct"
  bottom: "fc4_300"
  top: "fc5_classes"
  inner_product_param {
    num_output: 106
    weight_filler {
      type: "xavier"
    }
  }
}
layer {
  name: "softmax"
  type: "Softmax"
  bottom: "fc5_classes"
  top: "softmax"
}
layer {
  name: "loss"
  type: "MultinomialLogisticLoss"
  bottom: "softmax"
  bottom: "label"
  top: "loss"
}
layer {
  name: "accuracy_1"
  type: "Accuracy"
  bottom: "fc5_classes"
  bottom: "label"
  top: "accuracy_1"
  accuracy_param {
    top_k: 1
  }
}
layer {
  name: "accuracy_5"
  type: "Accuracy"
  bottom: "fc5_classes"
  bottom: "label"
  top: "accuracy_5"
  accuracy_param {
    top_k: 5
  }
}
layer {
  name: "silence"
  type: "Silence"
  bottom: "accuracy_1"
  bottom: "accuracy_5"
}
I0415 09:54:35.328590 10344 layer_factory.hpp:77] Creating layer data
I0415 09:54:35.329849 10344 net.cpp:100] Creating Layer data
I0415 09:54:35.329865 10344 net.cpp:408] data -> data
I0415 09:54:35.329890 10344 net.cpp:408] data -> label
I0415 09:54:35.330940 10460 db_lmdb.cpp:35] Opened lmdb ../local_data/lmdb/rtsd-r3/CoNorm/train/lmdb
I0415 09:54:35.351236 10344 data_layer.cpp:41] output data size: 1024,3,48,48
I0415 09:54:35.404186 10344 net.cpp:150] Setting up data
I0415 09:54:35.404219 10344 net.cpp:157] Top shape: 1024 3 48 48 (7077888)
I0415 09:54:35.404225 10344 net.cpp:157] Top shape: 1024 (1024)
I0415 09:54:35.404229 10344 net.cpp:165] Memory required for data: 28315648
I0415 09:54:35.404248 10344 layer_factory.hpp:77] Creating layer label_data_1_split
I0415 09:54:35.404264 10344 net.cpp:100] Creating Layer label_data_1_split
I0415 09:54:35.404273 10344 net.cpp:434] label_data_1_split <- label
I0415 09:54:35.404299 10344 net.cpp:408] label_data_1_split -> label_data_1_split_0
I0415 09:54:35.404315 10344 net.cpp:408] label_data_1_split -> label_data_1_split_1
I0415 09:54:35.404326 10344 net.cpp:408] label_data_1_split -> label_data_1_split_2
I0415 09:54:35.404404 10344 net.cpp:150] Setting up label_data_1_split
I0415 09:54:35.404414 10344 net.cpp:157] Top shape: 1024 (1024)
I0415 09:54:35.404420 10344 net.cpp:157] Top shape: 1024 (1024)
I0415 09:54:35.404424 10344 net.cpp:157] Top shape: 1024 (1024)
I0415 09:54:35.404428 10344 net.cpp:165] Memory required for data: 28327936
I0415 09:54:35.404431 10344 layer_factory.hpp:77] Creating layer conv1
I0415 09:54:35.404450 10344 net.cpp:100] Creating Layer conv1
I0415 09:54:35.404456 10344 net.cpp:434] conv1 <- data
I0415 09:54:35.404465 10344 net.cpp:408] conv1 -> conv1
I0415 09:54:35.759840 10344 net.cpp:150] Setting up conv1
I0415 09:54:35.759891 10344 net.cpp:157] Top shape: 1024 100 42 42 (180633600)
I0415 09:54:35.759896 10344 net.cpp:165] Memory required for data: 750862336
I0415 09:54:35.759919 10344 layer_factory.hpp:77] Creating layer conv1_relu
I0415 09:54:35.759930 10344 net.cpp:100] Creating Layer conv1_relu
I0415 09:54:35.759937 10344 net.cpp:434] conv1_relu <- conv1
I0415 09:54:35.759943 10344 net.cpp:395] conv1_relu -> conv1 (in-place)
I0415 09:54:35.760138 10344 net.cpp:150] Setting up conv1_relu
I0415 09:54:35.760149 10344 net.cpp:157] Top shape: 1024 100 42 42 (180633600)
I0415 09:54:35.760152 10344 net.cpp:165] Memory required for data: 1473396736
I0415 09:54:35.760155 10344 layer_factory.hpp:77] Creating layer pool1
I0415 09:54:35.760164 10344 net.cpp:100] Creating Layer pool1
I0415 09:54:35.760170 10344 net.cpp:434] pool1 <- conv1
I0415 09:54:35.760175 10344 net.cpp:408] pool1 -> pool1
I0415 09:54:35.760228 10344 net.cpp:150] Setting up pool1
I0415 09:54:35.760237 10344 net.cpp:157] Top shape: 1024 100 21 21 (45158400)
I0415 09:54:35.760239 10344 net.cpp:165] Memory required for data: 1654030336
I0415 09:54:35.760243 10344 layer_factory.hpp:77] Creating layer conv2
I0415 09:54:35.760253 10344 net.cpp:100] Creating Layer conv2
I0415 09:54:35.760258 10344 net.cpp:434] conv2 <- pool1
I0415 09:54:35.760262 10344 net.cpp:408] conv2 -> conv2
I0415 09:54:35.764649 10344 net.cpp:150] Setting up conv2
I0415 09:54:35.764665 10344 net.cpp:157] Top shape: 1024 150 18 18 (49766400)
I0415 09:54:35.764681 10344 net.cpp:165] Memory required for data: 1853095936
I0415 09:54:35.764690 10344 layer_factory.hpp:77] Creating layer conv2_relu
I0415 09:54:35.764698 10344 net.cpp:100] Creating Layer conv2_relu
I0415 09:54:35.764700 10344 net.cpp:434] conv2_relu <- conv2
I0415 09:54:35.764705 10344 net.cpp:395] conv2_relu -> conv2 (in-place)
I0415 09:54:35.765444 10344 net.cpp:150] Setting up conv2_relu
I0415 09:54:35.765458 10344 net.cpp:157] Top shape: 1024 150 18 18 (49766400)
I0415 09:54:35.765473 10344 net.cpp:165] Memory required for data: 2052161536
I0415 09:54:35.765476 10344 layer_factory.hpp:77] Creating layer pool2
I0415 09:54:35.765483 10344 net.cpp:100] Creating Layer pool2
I0415 09:54:35.765486 10344 net.cpp:434] pool2 <- conv2
I0415 09:54:35.765492 10344 net.cpp:408] pool2 -> pool2
I0415 09:54:35.765538 10344 net.cpp:150] Setting up pool2
I0415 09:54:35.765547 10344 net.cpp:157] Top shape: 1024 150 9 9 (12441600)
I0415 09:54:35.765549 10344 net.cpp:165] Memory required for data: 2101927936
I0415 09:54:35.765552 10344 layer_factory.hpp:77] Creating layer conv3
I0415 09:54:35.765585 10344 net.cpp:100] Creating Layer conv3
I0415 09:54:35.765590 10344 net.cpp:434] conv3 <- pool2
I0415 09:54:35.765595 10344 net.cpp:408] conv3 -> conv3
I0415 09:54:35.771062 10344 net.cpp:150] Setting up conv3
I0415 09:54:35.771078 10344 net.cpp:157] Top shape: 1024 250 6 6 (9216000)
I0415 09:54:35.771093 10344 net.cpp:165] Memory required for data: 2138791936
I0415 09:54:35.771103 10344 layer_factory.hpp:77] Creating layer conv3_relu
I0415 09:54:35.771109 10344 net.cpp:100] Creating Layer conv3_relu
I0415 09:54:35.771113 10344 net.cpp:434] conv3_relu <- conv3
I0415 09:54:35.771117 10344 net.cpp:395] conv3_relu -> conv3 (in-place)
I0415 09:54:35.772027 10344 net.cpp:150] Setting up conv3_relu
I0415 09:54:35.772043 10344 net.cpp:157] Top shape: 1024 250 6 6 (9216000)
I0415 09:54:35.772047 10344 net.cpp:165] Memory required for data: 2175655936
I0415 09:54:35.772050 10344 layer_factory.hpp:77] Creating layer pool3
I0415 09:54:35.772056 10344 net.cpp:100] Creating Layer pool3
I0415 09:54:35.772059 10344 net.cpp:434] pool3 <- conv3
I0415 09:54:35.772065 10344 net.cpp:408] pool3 -> pool3
I0415 09:54:35.772109 10344 net.cpp:150] Setting up pool3
I0415 09:54:35.772117 10344 net.cpp:157] Top shape: 1024 250 3 3 (2304000)
I0415 09:54:35.772120 10344 net.cpp:165] Memory required for data: 2184871936
I0415 09:54:35.772123 10344 layer_factory.hpp:77] Creating layer fc4_300
I0415 09:54:35.772130 10344 net.cpp:100] Creating Layer fc4_300
I0415 09:54:35.772133 10344 net.cpp:434] fc4_300 <- pool3
I0415 09:54:35.772138 10344 net.cpp:408] fc4_300 -> fc4_300
I0415 09:54:35.778770 10344 net.cpp:150] Setting up fc4_300
I0415 09:54:35.778785 10344 net.cpp:157] Top shape: 1024 300 (307200)
I0415 09:54:35.778800 10344 net.cpp:165] Memory required for data: 2186100736
I0415 09:54:35.778806 10344 layer_factory.hpp:77] Creating layer fc4_relu
I0415 09:54:35.778812 10344 net.cpp:100] Creating Layer fc4_relu
I0415 09:54:35.778816 10344 net.cpp:434] fc4_relu <- fc4_300
I0415 09:54:35.778820 10344 net.cpp:395] fc4_relu -> fc4_300 (in-place)
I0415 09:54:35.779001 10344 net.cpp:150] Setting up fc4_relu
I0415 09:54:35.779012 10344 net.cpp:157] Top shape: 1024 300 (307200)
I0415 09:54:35.779016 10344 net.cpp:165] Memory required for data: 2187329536
I0415 09:54:35.779019 10344 layer_factory.hpp:77] Creating layer drop4
I0415 09:54:35.779026 10344 net.cpp:100] Creating Layer drop4
I0415 09:54:35.779031 10344 net.cpp:434] drop4 <- fc4_300
I0415 09:54:35.779036 10344 net.cpp:395] drop4 -> fc4_300 (in-place)
I0415 09:54:35.779065 10344 net.cpp:150] Setting up drop4
I0415 09:54:35.779072 10344 net.cpp:157] Top shape: 1024 300 (307200)
I0415 09:54:35.779075 10344 net.cpp:165] Memory required for data: 2188558336
I0415 09:54:35.779078 10344 layer_factory.hpp:77] Creating layer fc5_106
I0415 09:54:35.779084 10344 net.cpp:100] Creating Layer fc5_106
I0415 09:54:35.779088 10344 net.cpp:434] fc5_106 <- fc4_300
I0415 09:54:35.779093 10344 net.cpp:408] fc5_106 -> fc5_classes
I0415 09:54:35.780503 10344 net.cpp:150] Setting up fc5_106
I0415 09:54:35.780516 10344 net.cpp:157] Top shape: 1024 106 (108544)
I0415 09:54:35.780520 10344 net.cpp:165] Memory required for data: 2188992512
I0415 09:54:35.780541 10344 layer_factory.hpp:77] Creating layer fc5_classes_fc5_106_0_split
I0415 09:54:35.780549 10344 net.cpp:100] Creating Layer fc5_classes_fc5_106_0_split
I0415 09:54:35.780552 10344 net.cpp:434] fc5_classes_fc5_106_0_split <- fc5_classes
I0415 09:54:35.780557 10344 net.cpp:408] fc5_classes_fc5_106_0_split -> fc5_classes_fc5_106_0_split_0
I0415 09:54:35.780565 10344 net.cpp:408] fc5_classes_fc5_106_0_split -> fc5_classes_fc5_106_0_split_1
I0415 09:54:35.780570 10344 net.cpp:408] fc5_classes_fc5_106_0_split -> fc5_classes_fc5_106_0_split_2
I0415 09:54:35.780624 10344 net.cpp:150] Setting up fc5_classes_fc5_106_0_split
I0415 09:54:35.780632 10344 net.cpp:157] Top shape: 1024 106 (108544)
I0415 09:54:35.780635 10344 net.cpp:157] Top shape: 1024 106 (108544)
I0415 09:54:35.780639 10344 net.cpp:157] Top shape: 1024 106 (108544)
I0415 09:54:35.780642 10344 net.cpp:165] Memory required for data: 2190295040
I0415 09:54:35.780661 10344 layer_factory.hpp:77] Creating layer softmax
I0415 09:54:35.780670 10344 net.cpp:100] Creating Layer softmax
I0415 09:54:35.780675 10344 net.cpp:434] softmax <- fc5_classes_fc5_106_0_split_0
I0415 09:54:35.780680 10344 net.cpp:408] softmax -> softmax
I0415 09:54:35.780925 10344 net.cpp:150] Setting up softmax
I0415 09:54:35.780937 10344 net.cpp:157] Top shape: 1024 106 (108544)
I0415 09:54:35.780939 10344 net.cpp:165] Memory required for data: 2190729216
I0415 09:54:35.780943 10344 layer_factory.hpp:77] Creating layer loss
I0415 09:54:35.780949 10344 net.cpp:100] Creating Layer loss
I0415 09:54:35.780952 10344 net.cpp:434] loss <- softmax
I0415 09:54:35.780956 10344 net.cpp:434] loss <- label_data_1_split_0
I0415 09:54:35.780961 10344 net.cpp:408] loss -> loss
…
