…
I0415 03:06:40.919337  8635 solver.cpp:93] Creating training net from train_net file: ./Prototxt/experiment_12/rtsd-r1/AHE/trial_1/train.prototxt
I0415 03:06:40.935063  8635 net.cpp:58] Initializing net from parameters: 
state {
  phase: TRAIN
  level: 0
  stage: ""
}
layer {
  name: "data"
  type: "Data"
  top: "data"
  top: "label"
  include {
    phase: TRAIN
  }
  transform_param {
    scale: 0.0039215689
    mirror: false
    crop_size: 48
    mean_value: 132
    mean_value: 126
    mean_value: 140
  }
  data_param {
    source: "../local_data/lmdb/rtsd-r1/AHE/train/lmdb"
    batch_size: 1024
    backend: LMDB
  }
}
layer {
  name: "conv1"
  type: "Convolution"
  bottom: "data"
  top: "conv1"
  convolution_param {
    num_output: 100
    pad: 0
    kernel_size: 7
    group: 1
    stride: 1
    weight_filler {
      type: "xavier"
    }
  }
}
layer {
  name: "conv1_relu"
  type: "ReLU"
  bottom: "conv1"
  top: "conv1"
}
layer {
  name: "pool1"
  type: "Pooling"
  bottom: "conv1"
  top: "pool1"
  pooling_param {
    pool: MAX
    kernel_size: 2
    stride: 2
  }
}
layer {
  name: "conv2"
  type: "Convolution"
  bottom: "pool1"
  top: "conv2"
  convolution_param {
    num_output: 150
    pad: 0
    kernel_size: 4
    group: 1
    stride: 1
    weight_filler {
      type: "xavier"
    }
  }
}
layer {
  name: "conv2_relu"
  type: "ReLU"
  bottom: "conv2"
  top: "conv2"
}
layer {
  name: "pool2"
  type: "Pooling"
  bottom: "conv2"
  top: "pool2"
  pooling_param {
    pool: MAX
    kernel_size: 2
    stride: 2
  }
}
layer {
  name: "conv3"
  type: "Convolution"
  bottom: "pool2"
  top: "conv3"
  convolution_param {
    num_output: 250
    pad: 0
    kernel_size: 4
    group: 1
    stride: 1
    weight_filler {
      type: "xavier"
    }
  }
}
layer {
  name: "conv3_relu"
  type: "ReLU"
  bottom: "conv3"
  top: "conv3"
}
layer {
  name: "pool3"
  type: "Pooling"
  bottom: "conv3"
  top: "pool3"
  pooling_param {
    pool: MAX
    kernel_size: 2
    stride: 2
  }
}
layer {
  name: "fc4_300"
  type: "InnerProduct"
  bottom: "pool3"
  top: "fc4_300"
  inner_product_param {
    num_output: 300
    weight_filler {
      type: "xavier"
    }
  }
}
layer {
  name: "fc4_relu"
  type: "ReLU"
  bottom: "fc4_300"
  top: "fc4_300"
}
layer {
  name: "drop4"
  type: "Dropout"
  bottom: "fc4_300"
  top: "fc4_300"
  dropout_param {
    dropout_ratio: 0.5
  }
}
layer {
  name: "fc5_67"
  type: "InnerProduct"
  bottom: "fc4_300"
  top: "fc5_classes"
  inner_product_param {
    num_output: 67
    weight_filler {
      type: "xavier"
    }
  }
}
layer {
  name: "softmax"
  type: "Softmax"
  bottom: "fc5_classes"
  top: "softmax"
}
layer {
  name: "loss"
  type: "MultinomialLogisticLoss"
  bottom: "softmax"
  bottom: "label"
  top: "loss"
}
layer {
  name: "accuracy_1"
  type: "Accuracy"
  bottom: "fc5_classes"
  bottom: "label"
  top: "accuracy_1"
  accuracy_param {
    top_k: 1
  }
}
layer {
  name: "accuracy_5"
  type: "Accuracy"
  bottom: "fc5_classes"
  bottom: "label"
  top: "accuracy_5"
  accuracy_param {
    top_k: 5
  }
}
layer {
  name: "silence"
  type: "Silence"
  bottom: "accuracy_1"
  bottom: "accuracy_5"
}
I0415 03:06:40.935217  8635 layer_factory.hpp:77] Creating layer data
I0415 03:06:40.936332  8635 net.cpp:100] Creating Layer data
I0415 03:06:40.936350  8635 net.cpp:408] data -> data
I0415 03:06:40.936375  8635 net.cpp:408] data -> label
I0415 03:06:40.977193  8872 db_lmdb.cpp:35] Opened lmdb ../local_data/lmdb/rtsd-r1/AHE/train/lmdb
I0415 03:06:41.007639  8635 data_layer.cpp:41] output data size: 1024,3,48,48
I0415 03:06:41.060698  8635 net.cpp:150] Setting up data
I0415 03:06:41.060730  8635 net.cpp:157] Top shape: 1024 3 48 48 (7077888)
I0415 03:06:41.060735  8635 net.cpp:157] Top shape: 1024 (1024)
I0415 03:06:41.060739  8635 net.cpp:165] Memory required for data: 28315648
I0415 03:06:41.060750  8635 layer_factory.hpp:77] Creating layer label_data_1_split
I0415 03:06:41.060763  8635 net.cpp:100] Creating Layer label_data_1_split
I0415 03:06:41.060770  8635 net.cpp:434] label_data_1_split <- label
I0415 03:06:41.060783  8635 net.cpp:408] label_data_1_split -> label_data_1_split_0
I0415 03:06:41.060796  8635 net.cpp:408] label_data_1_split -> label_data_1_split_1
I0415 03:06:41.060803  8635 net.cpp:408] label_data_1_split -> label_data_1_split_2
I0415 03:06:41.060885  8635 net.cpp:150] Setting up label_data_1_split
I0415 03:06:41.060894  8635 net.cpp:157] Top shape: 1024 (1024)
I0415 03:06:41.060897  8635 net.cpp:157] Top shape: 1024 (1024)
I0415 03:06:41.060901  8635 net.cpp:157] Top shape: 1024 (1024)
I0415 03:06:41.060904  8635 net.cpp:165] Memory required for data: 28327936
I0415 03:06:41.060907  8635 layer_factory.hpp:77] Creating layer conv1
I0415 03:06:41.060925  8635 net.cpp:100] Creating Layer conv1
I0415 03:06:41.060930  8635 net.cpp:434] conv1 <- data
I0415 03:06:41.060935  8635 net.cpp:408] conv1 -> conv1
I0415 03:06:41.144857  8882 blocking_queue.cpp:50] Waiting for data
I0415 03:06:42.226954  8635 net.cpp:150] Setting up conv1
I0415 03:06:42.226987  8635 net.cpp:157] Top shape: 1024 100 42 42 (180633600)
I0415 03:06:42.226991  8635 net.cpp:165] Memory required for data: 750862336
I0415 03:06:42.227016  8635 layer_factory.hpp:77] Creating layer conv1_relu
I0415 03:06:42.227028  8635 net.cpp:100] Creating Layer conv1_relu
I0415 03:06:42.227032  8635 net.cpp:434] conv1_relu <- conv1
I0415 03:06:42.227038  8635 net.cpp:395] conv1_relu -> conv1 (in-place)
I0415 03:06:42.227270  8635 net.cpp:150] Setting up conv1_relu
I0415 03:06:42.227283  8635 net.cpp:157] Top shape: 1024 100 42 42 (180633600)
I0415 03:06:42.227286  8635 net.cpp:165] Memory required for data: 1473396736
I0415 03:06:42.227290  8635 layer_factory.hpp:77] Creating layer pool1
I0415 03:06:42.227300  8635 net.cpp:100] Creating Layer pool1
I0415 03:06:42.227305  8635 net.cpp:434] pool1 <- conv1
I0415 03:06:42.227310  8635 net.cpp:408] pool1 -> pool1
I0415 03:06:42.227372  8635 net.cpp:150] Setting up pool1
I0415 03:06:42.227380  8635 net.cpp:157] Top shape: 1024 100 21 21 (45158400)
I0415 03:06:42.227383  8635 net.cpp:165] Memory required for data: 1654030336
I0415 03:06:42.227387  8635 layer_factory.hpp:77] Creating layer conv2
I0415 03:06:42.227398  8635 net.cpp:100] Creating Layer conv2
I0415 03:06:42.227403  8635 net.cpp:434] conv2 <- pool1
I0415 03:06:42.227408  8635 net.cpp:408] conv2 -> conv2
I0415 03:06:42.243206  8635 net.cpp:150] Setting up conv2
I0415 03:06:42.243240  8635 net.cpp:157] Top shape: 1024 150 18 18 (49766400)
I0415 03:06:42.243244  8635 net.cpp:165] Memory required for data: 1853095936
I0415 03:06:42.243261  8635 layer_factory.hpp:77] Creating layer conv2_relu
I0415 03:06:42.243273  8635 net.cpp:100] Creating Layer conv2_relu
I0415 03:06:42.243278  8635 net.cpp:434] conv2_relu <- conv2
I0415 03:06:42.243289  8635 net.cpp:395] conv2_relu -> conv2 (in-place)
I0415 03:06:42.244365  8635 net.cpp:150] Setting up conv2_relu
I0415 03:06:42.244384  8635 net.cpp:157] Top shape: 1024 150 18 18 (49766400)
I0415 03:06:42.244386  8635 net.cpp:165] Memory required for data: 2052161536
I0415 03:06:42.244390  8635 layer_factory.hpp:77] Creating layer pool2
I0415 03:06:42.244400  8635 net.cpp:100] Creating Layer pool2
I0415 03:06:42.244402  8635 net.cpp:434] pool2 <- conv2
I0415 03:06:42.244410  8635 net.cpp:408] pool2 -> pool2
I0415 03:06:42.244477  8635 net.cpp:150] Setting up pool2
I0415 03:06:42.244487  8635 net.cpp:157] Top shape: 1024 150 9 9 (12441600)
I0415 03:06:42.244490  8635 net.cpp:165] Memory required for data: 2101927936
I0415 03:06:42.244494  8635 layer_factory.hpp:77] Creating layer conv3
I0415 03:06:42.244534  8635 net.cpp:100] Creating Layer conv3
I0415 03:06:42.244540  8635 net.cpp:434] conv3 <- pool2
I0415 03:06:42.244546  8635 net.cpp:408] conv3 -> conv3
I0415 03:06:42.250877  8635 net.cpp:150] Setting up conv3
I0415 03:06:42.250910  8635 net.cpp:157] Top shape: 1024 250 6 6 (9216000)
I0415 03:06:42.250915  8635 net.cpp:165] Memory required for data: 2138791936
I0415 03:06:42.250929  8635 layer_factory.hpp:77] Creating layer conv3_relu
I0415 03:06:42.250939  8635 net.cpp:100] Creating Layer conv3_relu
I0415 03:06:42.250944  8635 net.cpp:434] conv3_relu <- conv3
I0415 03:06:42.250950  8635 net.cpp:395] conv3_relu -> conv3 (in-place)
I0415 03:06:42.252290  8635 net.cpp:150] Setting up conv3_relu
I0415 03:06:42.252308  8635 net.cpp:157] Top shape: 1024 250 6 6 (9216000)
I0415 03:06:42.252312  8635 net.cpp:165] Memory required for data: 2175655936
I0415 03:06:42.252316  8635 layer_factory.hpp:77] Creating layer pool3
I0415 03:06:42.252324  8635 net.cpp:100] Creating Layer pool3
I0415 03:06:42.252328  8635 net.cpp:434] pool3 <- conv3
I0415 03:06:42.252334  8635 net.cpp:408] pool3 -> pool3
I0415 03:06:42.252388  8635 net.cpp:150] Setting up pool3
I0415 03:06:42.252395  8635 net.cpp:157] Top shape: 1024 250 3 3 (2304000)
I0415 03:06:42.252398  8635 net.cpp:165] Memory required for data: 2184871936
I0415 03:06:42.252401  8635 layer_factory.hpp:77] Creating layer fc4_300
I0415 03:06:42.252409  8635 net.cpp:100] Creating Layer fc4_300
I0415 03:06:42.252413  8635 net.cpp:434] fc4_300 <- pool3
I0415 03:06:42.252416  8635 net.cpp:408] fc4_300 -> fc4_300
I0415 03:06:42.258323  8635 net.cpp:150] Setting up fc4_300
I0415 03:06:42.258350  8635 net.cpp:157] Top shape: 1024 300 (307200)
I0415 03:06:42.258354  8635 net.cpp:165] Memory required for data: 2186100736
I0415 03:06:42.258365  8635 layer_factory.hpp:77] Creating layer fc4_relu
I0415 03:06:42.258374  8635 net.cpp:100] Creating Layer fc4_relu
I0415 03:06:42.258379  8635 net.cpp:434] fc4_relu <- fc4_300
I0415 03:06:42.258386  8635 net.cpp:395] fc4_relu -> fc4_300 (in-place)
I0415 03:06:42.258622  8635 net.cpp:150] Setting up fc4_relu
I0415 03:06:42.258635  8635 net.cpp:157] Top shape: 1024 300 (307200)
I0415 03:06:42.258637  8635 net.cpp:165] Memory required for data: 2187329536
I0415 03:06:42.258641  8635 layer_factory.hpp:77] Creating layer drop4
I0415 03:06:42.258648  8635 net.cpp:100] Creating Layer drop4
I0415 03:06:42.258651  8635 net.cpp:434] drop4 <- fc4_300
I0415 03:06:42.258656  8635 net.cpp:395] drop4 -> fc4_300 (in-place)
I0415 03:06:42.258688  8635 net.cpp:150] Setting up drop4
I0415 03:06:42.258697  8635 net.cpp:157] Top shape: 1024 300 (307200)
I0415 03:06:42.258699  8635 net.cpp:165] Memory required for data: 2188558336
I0415 03:06:42.258702  8635 layer_factory.hpp:77] Creating layer fc5_67
I0415 03:06:42.258709  8635 net.cpp:100] Creating Layer fc5_67
I0415 03:06:42.258713  8635 net.cpp:434] fc5_67 <- fc4_300
I0415 03:06:42.258718  8635 net.cpp:408] fc5_67 -> fc5_classes
I0415 03:06:42.261050  8635 net.cpp:150] Setting up fc5_67
I0415 03:06:42.261072  8635 net.cpp:157] Top shape: 1024 67 (68608)
I0415 03:06:42.261075  8635 net.cpp:165] Memory required for data: 2188832768
I0415 03:06:42.261088  8635 layer_factory.hpp:77] Creating layer fc5_classes_fc5_67_0_split
I0415 03:06:42.261099  8635 net.cpp:100] Creating Layer fc5_classes_fc5_67_0_split
I0415 03:06:42.261107  8635 net.cpp:434] fc5_classes_fc5_67_0_split <- fc5_classes
I0415 03:06:42.261113  8635 net.cpp:408] fc5_classes_fc5_67_0_split -> fc5_classes_fc5_67_0_split_0
I0415 03:06:42.261122  8635 net.cpp:408] fc5_classes_fc5_67_0_split -> fc5_classes_fc5_67_0_split_1
I0415 03:06:42.261128  8635 net.cpp:408] fc5_classes_fc5_67_0_split -> fc5_classes_fc5_67_0_split_2
I0415 03:06:42.261180  8635 net.cpp:150] Setting up fc5_classes_fc5_67_0_split
I0415 03:06:42.261188  8635 net.cpp:157] Top shape: 1024 67 (68608)
I0415 03:06:42.261191  8635 net.cpp:157] Top shape: 1024 67 (68608)
I0415 03:06:42.261195  8635 net.cpp:157] Top shape: 1024 67 (68608)
I0415 03:06:42.261219  8635 net.cpp:165] Memory required for data: 2189656064
I0415 03:06:42.261224  8635 layer_factory.hpp:77] Creating layer softmax
I0415 03:06:42.261234  8635 net.cpp:100] Creating Layer softmax
I0415 03:06:42.261237  8635 net.cpp:434] softmax <- fc5_classes_fc5_67_0_split_0
I0415 03:06:42.261243  8635 net.cpp:408] softmax -> softmax
I0415 03:06:42.261533  8635 net.cpp:150] Setting up softmax
I0415 03:06:42.261546  8635 net.cpp:157] Top shape: 1024 67 (68608)
I0415 03:06:42.261549  8635 net.cpp:165] Memory required for data: 2189930496
I0415 03:06:42.261554  8635 layer_factory.hpp:77] Creating layer loss
I0415 03:06:42.261560  8635 net.cpp:100] Creating Layer loss
I0415 03:06:42.261564  8635 net.cpp:434] loss <- softmax
I0415 03:06:42.261569  8635 net.cpp:434] loss <- label_data_1_split_0
I0415 03:06:42.261574  8635 net.cpp:408] loss -> loss
…
