…
I0507 05:01:18.559218  5714 solver.cpp:93] Creating training net from train_net file: ./Prototxt/experiment_14/RTSD/histeq/trial_1/train.prototxt
I0507 05:01:18.559628  5714 net.cpp:58] Initializing net from parameters: 
state {
  phase: TRAIN
  level: 0
  stage: ""
}
layer {
  name: "data"
  type: "Data"
  top: "data"
  top: "label"
  include {
    phase: TRAIN
  }
  transform_param {
    scale: 0.0039215689
    mirror: false
    crop_size: 48
    mean_value: 134
    mean_value: 128
    mean_value: 128
  }
  data_param {
    source: "../local_data/lmdb/RTSD/histeq/train/lmdb"
    batch_size: 512
    backend: LMDB
  }
}
layer {
  name: "conv1"
  type: "Convolution"
  bottom: "data"
  top: "conv1"
  convolution_param {
    num_output: 100
    pad: 0
    kernel_size: 7
    group: 1
    stride: 1
    weight_filler {
      type: "xavier"
    }
  }
}
layer {
  name: "conv1_relu"
  type: "ReLU"
  bottom: "conv1"
  top: "conv1"
}
layer {
  name: "pool1"
  type: "Pooling"
  bottom: "conv1"
  top: "pool1"
  pooling_param {
    pool: MAX
    kernel_size: 2
    stride: 2
  }
}
layer {
  name: "conv2"
  type: "Convolution"
  bottom: "pool1"
  top: "conv2"
  convolution_param {
    num_output: 150
    pad: 0
    kernel_size: 4
    group: 1
    stride: 1
    weight_filler {
      type: "xavier"
    }
  }
}
layer {
  name: "conv2_relu"
  type: "ReLU"
  bottom: "conv2"
  top: "conv2"
}
layer {
  name: "pool2"
  type: "Pooling"
  bottom: "conv2"
  top: "pool2"
  pooling_param {
    pool: MAX
    kernel_size: 2
    stride: 2
  }
}
layer {
  name: "conv3"
  type: "Convolution"
  bottom: "pool2"
  top: "conv3"
  convolution_param {
    num_output: 250
    pad: 0
    kernel_size: 4
    group: 1
    stride: 1
    weight_filler {
      type: "xavier"
    }
  }
}
layer {
  name: "conv3_relu"
  type: "ReLU"
  bottom: "conv3"
  top: "conv3"
}
layer {
  name: "pool3"
  type: "Pooling"
  bottom: "conv3"
  top: "pool3"
  pooling_param {
    pool: MAX
    kernel_size: 2
    stride: 2
  }
}
layer {
  name: "fc4_300"
  type: "InnerProduct"
  bottom: "pool3"
  top: "fc4_300"
  inner_product_param {
    num_output: 300
    weight_filler {
      type: "xavier"
    }
  }
}
layer {
  name: "fc4_relu"
  type: "ReLU"
  bottom: "fc4_300"
  top: "fc4_300"
}
layer {
  name: "fc5_116"
  type: "InnerProduct"
  bottom: "fc4_300"
  top: "fc5_classes"
  inner_product_param {
    num_output: 116
    weight_filler {
      type: "xavier"
    }
  }
}
layer {
  name: "softmax"
  type: "Softmax"
  bottom: "fc5_classes"
  top: "softmax"
}
layer {
  name: "loss"
  type: "MultinomialLogisticLoss"
  bottom: "softmax"
  bottom: "label"
  top: "loss"
}
layer {
  name: "accuracy_1"
  type: "Accuracy"
  bottom: "fc5_classes"
  bottom: "label"
  top: "accuracy_1"
  accuracy_param {
    top_k: 1
  }
}
layer {
  name: "accuracy_5"
  type: "Accuracy"
  bottom: "fc5_classes"
  bottom: "label"
  top: "accuracy_5"
  accuracy_param {
    top_k: 5
  }
}
layer {
  name: "silence"
  type: "Silence"
  bottom: "accuracy_1"
  bottom: "accuracy_5"
}
I0507 05:01:18.559772  5714 layer_factory.hpp:77] Creating layer data
I0507 05:01:18.560696  5714 net.cpp:100] Creating Layer data
I0507 05:01:18.560715  5714 net.cpp:408] data -> data
I0507 05:01:18.560742  5714 net.cpp:408] data -> label
I0507 05:01:18.583216  5836 db_lmdb.cpp:35] Opened lmdb ../local_data/lmdb/RTSD/histeq/train/lmdb
I0507 05:01:18.610988  5714 data_layer.cpp:41] output data size: 512,3,48,48
I0507 05:01:18.653473  5714 net.cpp:150] Setting up data
I0507 05:01:18.653532  5714 net.cpp:157] Top shape: 512 3 48 48 (3538944)
I0507 05:01:18.653539  5714 net.cpp:157] Top shape: 512 (512)
I0507 05:01:18.653542  5714 net.cpp:165] Memory required for data: 14157824
I0507 05:01:18.653553  5714 layer_factory.hpp:77] Creating layer label_data_1_split
I0507 05:01:18.653566  5714 net.cpp:100] Creating Layer label_data_1_split
I0507 05:01:18.653573  5714 net.cpp:434] label_data_1_split <- label
I0507 05:01:18.653590  5714 net.cpp:408] label_data_1_split -> label_data_1_split_0
I0507 05:01:18.653601  5714 net.cpp:408] label_data_1_split -> label_data_1_split_1
I0507 05:01:18.653609  5714 net.cpp:408] label_data_1_split -> label_data_1_split_2
I0507 05:01:18.653671  5714 net.cpp:150] Setting up label_data_1_split
I0507 05:01:18.653678  5714 net.cpp:157] Top shape: 512 (512)
I0507 05:01:18.653682  5714 net.cpp:157] Top shape: 512 (512)
I0507 05:01:18.653686  5714 net.cpp:157] Top shape: 512 (512)
I0507 05:01:18.653688  5714 net.cpp:165] Memory required for data: 14163968
I0507 05:01:18.653692  5714 layer_factory.hpp:77] Creating layer conv1
I0507 05:01:18.653707  5714 net.cpp:100] Creating Layer conv1
I0507 05:01:18.653712  5714 net.cpp:434] conv1 <- data
I0507 05:01:18.653717  5714 net.cpp:408] conv1 -> conv1
I0507 05:01:19.080116  5714 net.cpp:150] Setting up conv1
I0507 05:01:19.080143  5714 net.cpp:157] Top shape: 512 100 42 42 (90316800)
I0507 05:01:19.080147  5714 net.cpp:165] Memory required for data: 375431168
I0507 05:01:19.080169  5714 layer_factory.hpp:77] Creating layer conv1_relu
I0507 05:01:19.080180  5714 net.cpp:100] Creating Layer conv1_relu
I0507 05:01:19.080184  5714 net.cpp:434] conv1_relu <- conv1
I0507 05:01:19.080189  5714 net.cpp:395] conv1_relu -> conv1 (in-place)
I0507 05:01:19.080392  5714 net.cpp:150] Setting up conv1_relu
I0507 05:01:19.080404  5714 net.cpp:157] Top shape: 512 100 42 42 (90316800)
I0507 05:01:19.080407  5714 net.cpp:165] Memory required for data: 736698368
I0507 05:01:19.080411  5714 layer_factory.hpp:77] Creating layer pool1
I0507 05:01:19.080421  5714 net.cpp:100] Creating Layer pool1
I0507 05:01:19.080426  5714 net.cpp:434] pool1 <- conv1
I0507 05:01:19.080431  5714 net.cpp:408] pool1 -> pool1
I0507 05:01:19.080485  5714 net.cpp:150] Setting up pool1
I0507 05:01:19.080493  5714 net.cpp:157] Top shape: 512 100 21 21 (22579200)
I0507 05:01:19.080497  5714 net.cpp:165] Memory required for data: 827015168
I0507 05:01:19.080499  5714 layer_factory.hpp:77] Creating layer conv2
I0507 05:01:19.080510  5714 net.cpp:100] Creating Layer conv2
I0507 05:01:19.080514  5714 net.cpp:434] conv2 <- pool1
I0507 05:01:19.080519  5714 net.cpp:408] conv2 -> conv2
I0507 05:01:19.088018  5714 net.cpp:150] Setting up conv2
I0507 05:01:19.088037  5714 net.cpp:157] Top shape: 512 150 18 18 (24883200)
I0507 05:01:19.088040  5714 net.cpp:165] Memory required for data: 926547968
I0507 05:01:19.088050  5714 layer_factory.hpp:77] Creating layer conv2_relu
I0507 05:01:19.088057  5714 net.cpp:100] Creating Layer conv2_relu
I0507 05:01:19.088060  5714 net.cpp:434] conv2_relu <- conv2
I0507 05:01:19.088065  5714 net.cpp:395] conv2_relu -> conv2 (in-place)
I0507 05:01:19.089198  5714 net.cpp:150] Setting up conv2_relu
I0507 05:01:19.089215  5714 net.cpp:157] Top shape: 512 150 18 18 (24883200)
I0507 05:01:19.089218  5714 net.cpp:165] Memory required for data: 1026080768
I0507 05:01:19.089221  5714 layer_factory.hpp:77] Creating layer pool2
I0507 05:01:19.089228  5714 net.cpp:100] Creating Layer pool2
I0507 05:01:19.089231  5714 net.cpp:434] pool2 <- conv2
I0507 05:01:19.089237  5714 net.cpp:408] pool2 -> pool2
I0507 05:01:19.089287  5714 net.cpp:150] Setting up pool2
I0507 05:01:19.089296  5714 net.cpp:157] Top shape: 512 150 9 9 (6220800)
I0507 05:01:19.089299  5714 net.cpp:165] Memory required for data: 1050963968
I0507 05:01:19.089303  5714 layer_factory.hpp:77] Creating layer conv3
I0507 05:01:19.089313  5714 net.cpp:100] Creating Layer conv3
I0507 05:01:19.089318  5714 net.cpp:434] conv3 <- pool2
I0507 05:01:19.089323  5714 net.cpp:408] conv3 -> conv3
I0507 05:01:19.095830  5714 net.cpp:150] Setting up conv3
I0507 05:01:19.095849  5714 net.cpp:157] Top shape: 512 250 6 6 (4608000)
I0507 05:01:19.095854  5714 net.cpp:165] Memory required for data: 1069395968
I0507 05:01:19.095865  5714 layer_factory.hpp:77] Creating layer conv3_relu
I0507 05:01:19.095872  5714 net.cpp:100] Creating Layer conv3_relu
I0507 05:01:19.095881  5714 net.cpp:434] conv3_relu <- conv3
I0507 05:01:19.095888  5714 net.cpp:395] conv3_relu -> conv3 (in-place)
I0507 05:01:19.097055  5714 net.cpp:150] Setting up conv3_relu
I0507 05:01:19.097071  5714 net.cpp:157] Top shape: 512 250 6 6 (4608000)
I0507 05:01:19.097075  5714 net.cpp:165] Memory required for data: 1087827968
I0507 05:01:19.097079  5714 layer_factory.hpp:77] Creating layer pool3
I0507 05:01:19.097085  5714 net.cpp:100] Creating Layer pool3
I0507 05:01:19.097088  5714 net.cpp:434] pool3 <- conv3
I0507 05:01:19.097096  5714 net.cpp:408] pool3 -> pool3
I0507 05:01:19.097143  5714 net.cpp:150] Setting up pool3
I0507 05:01:19.097152  5714 net.cpp:157] Top shape: 512 250 3 3 (1152000)
I0507 05:01:19.097156  5714 net.cpp:165] Memory required for data: 1092435968
I0507 05:01:19.097158  5714 layer_factory.hpp:77] Creating layer fc4_300
I0507 05:01:19.097167  5714 net.cpp:100] Creating Layer fc4_300
I0507 05:01:19.097172  5714 net.cpp:434] fc4_300 <- pool3
I0507 05:01:19.097177  5714 net.cpp:408] fc4_300 -> fc4_300
I0507 05:01:19.103772  5714 net.cpp:150] Setting up fc4_300
I0507 05:01:19.103793  5714 net.cpp:157] Top shape: 512 300 (153600)
I0507 05:01:19.103797  5714 net.cpp:165] Memory required for data: 1093050368
I0507 05:01:19.103804  5714 layer_factory.hpp:77] Creating layer fc4_relu
I0507 05:01:19.103814  5714 net.cpp:100] Creating Layer fc4_relu
I0507 05:01:19.103818  5714 net.cpp:434] fc4_relu <- fc4_300
I0507 05:01:19.103823  5714 net.cpp:395] fc4_relu -> fc4_300 (in-place)
I0507 05:01:19.104032  5714 net.cpp:150] Setting up fc4_relu
I0507 05:01:19.104046  5714 net.cpp:157] Top shape: 512 300 (153600)
I0507 05:01:19.104053  5714 net.cpp:165] Memory required for data: 1093664768
I0507 05:01:19.104056  5714 layer_factory.hpp:77] Creating layer fc5_116
I0507 05:01:19.104070  5714 net.cpp:100] Creating Layer fc5_116
I0507 05:01:19.104074  5714 net.cpp:434] fc5_116 <- fc4_300
I0507 05:01:19.104080  5714 net.cpp:408] fc5_116 -> fc5_classes
I0507 05:01:19.109467  5714 net.cpp:150] Setting up fc5_116
I0507 05:01:19.109484  5714 net.cpp:157] Top shape: 512 116 (59392)
I0507 05:01:19.109488  5714 net.cpp:165] Memory required for data: 1093902336
I0507 05:01:19.109499  5714 layer_factory.hpp:77] Creating layer fc5_classes_fc5_116_0_split
I0507 05:01:19.109508  5714 net.cpp:100] Creating Layer fc5_classes_fc5_116_0_split
I0507 05:01:19.109511  5714 net.cpp:434] fc5_classes_fc5_116_0_split <- fc5_classes
I0507 05:01:19.109518  5714 net.cpp:408] fc5_classes_fc5_116_0_split -> fc5_classes_fc5_116_0_split_0
I0507 05:01:19.109529  5714 net.cpp:408] fc5_classes_fc5_116_0_split -> fc5_classes_fc5_116_0_split_1
I0507 05:01:19.109537  5714 net.cpp:408] fc5_classes_fc5_116_0_split -> fc5_classes_fc5_116_0_split_2
I0507 05:01:19.109592  5714 net.cpp:150] Setting up fc5_classes_fc5_116_0_split
I0507 05:01:19.109601  5714 net.cpp:157] Top shape: 512 116 (59392)
I0507 05:01:19.109606  5714 net.cpp:157] Top shape: 512 116 (59392)
I0507 05:01:19.109608  5714 net.cpp:157] Top shape: 512 116 (59392)
I0507 05:01:19.109611  5714 net.cpp:165] Memory required for data: 1094615040
I0507 05:01:19.109613  5714 layer_factory.hpp:77] Creating layer softmax
I0507 05:01:19.109621  5714 net.cpp:100] Creating Layer softmax
I0507 05:01:19.109625  5714 net.cpp:434] softmax <- fc5_classes_fc5_116_0_split_0
I0507 05:01:19.109630  5714 net.cpp:408] softmax -> softmax
I0507 05:01:19.109889  5714 net.cpp:150] Setting up softmax
I0507 05:01:19.109901  5714 net.cpp:157] Top shape: 512 116 (59392)
I0507 05:01:19.109905  5714 net.cpp:165] Memory required for data: 1094852608
I0507 05:01:19.109907  5714 layer_factory.hpp:77] Creating layer loss
I0507 05:01:19.109917  5714 net.cpp:100] Creating Layer loss
I0507 05:01:19.109937  5714 net.cpp:434] loss <- softmax
I0507 05:01:19.109943  5714 net.cpp:434] loss <- label_data_1_split_0
I0507 05:01:19.109949  5714 net.cpp:408] loss -> loss
…
