…
I0411 22:11:27.514973 16218 net.cpp:322] The NetState phase (0) differed from the phase (1) specified by a rule in layer accuracy_5
I0411 22:11:27.515163 16218 net.cpp:58] Initializing net from parameters: 
state {
  phase: TRAIN
  level: 0
  stage: ""
}
layer {
  name: "data"
  type: "Data"
  top: "data"
  top: "label"
  include {
    phase: TRAIN
  }
  transform_param {
    scale: 0.0039215689
    mirror: false
    crop_size: 48
    mean_value: 132
    mean_value: 126
    mean_value: 140
  }
  data_param {
    source: "../local_data/lmdb/rtsd-r1/AHE/train/lmdb"
    batch_size: 1024
    backend: LMDB
  }
}
layer {
  name: "conv1"
  type: "Convolution"
  bottom: "data"
  top: "conv1"
  convolution_param {
    num_output: 100
    pad: 0
    kernel_size: 7
    group: 1
    stride: 1
    weight_filler {
      type: "xavier"
    }
  }
}
layer {
  name: "conv1_prescale"
  type: "Scale"
  bottom: "conv1"
  top: "conv1"
  param {
    lr_mult: 0
    decay_mult: 0
  }
  scale_param {
    filler {
      value: 0.6666
    }
    bias_term: false
  }
}
layer {
  name: "conv1_sTanH"
  type: "TanH"
  bottom: "conv1"
  top: "conv1"
}
layer {
  name: "conv1_postscale"
  type: "Scale"
  bottom: "conv1"
  top: "conv1"
  param {
    lr_mult: 0
    decay_mult: 0
  }
  scale_param {
    filler {
      value: 1.7159
    }
    bias_term: false
  }
}
layer {
  name: "pool1"
  type: "Pooling"
  bottom: "conv1"
  top: "pool1"
  pooling_param {
    pool: MAX
    kernel_size: 2
    stride: 2
  }
}
layer {
  name: "conv2"
  type: "Convolution"
  bottom: "pool1"
  top: "conv2"
  convolution_param {
    num_output: 150
    pad: 0
    kernel_size: 4
    group: 1
    stride: 1
    weight_filler {
      type: "xavier"
    }
  }
}
layer {
  name: "conv2_prescale"
  type: "Scale"
  bottom: "conv2"
  top: "conv2"
  param {
    lr_mult: 0
    decay_mult: 0
  }
  scale_param {
    filler {
      value: 0.6666
    }
    bias_term: false
  }
}
layer {
  name: "conv2_sTanH"
  type: "TanH"
  bottom: "conv2"
  top: "conv2"
}
layer {
  name: "conv2_postscale"
  type: "Scale"
  bottom: "conv2"
  top: "conv2"
  param {
    lr_mult: 0
    decay_mult: 0
  }
  scale_param {
    filler {
      value: 1.7159
    }
    bias_term: false
  }
}
layer {
  name: "pool2"
  type: "Pooling"
  bottom: "conv2"
  top: "pool2"
  pooling_param {
    pool: MAX
    kernel_size: 2
    stride: 2
  }
}
layer {
  name: "conv3"
  type: "Convolution"
  bottom: "pool2"
  top: "conv3"
  convolution_param {
    num_output: 250
    pad: 0
    kernel_size: 4
    group: 1
    stride: 1
    weight_filler {
      type: "xavier"
    }
  }
}
layer {
  name: "conv3_prescale"
  type: "Scale"
  bottom: "conv3"
  top: "conv3"
  param {
    lr_mult: 0
    decay_mult: 0
  }
  scale_param {
    filler {
      value: 0.6666
    }
    bias_term: false
  }
}
layer {
  name: "conv3_sTanH"
  type: "TanH"
  bottom: "conv3"
  top: "conv3"
}
layer {
  name: "conv3_postscale"
  type: "Scale"
  bottom: "conv3"
  top: "conv3"
  param {
    lr_mult: 0
    decay_mult: 0
  }
  scale_param {
    filler {
      value: 1.7159
    }
    bias_term: false
  }
}
layer {
  name: "pool3"
  type: "Pooling"
  bottom: "conv3"
  top: "pool3"
  pooling_param {
    pool: MAX
    kernel_size: 2
    stride: 2
  }
}
layer {
  name: "fc4_300"
  type: "InnerProduct"
  bottom: "pool3"
  top: "fc4_300"
  inner_product_param {
    num_output: 300
    weight_filler {
      type: "xavier"
    }
  }
}
layer {
  name: "fc4_prescale"
  type: "Scale"
  bottom: "fc4_300"
  top: "fc4_300"
  param {
    lr_mult: 0
    decay_mult: 0
  }
  scale_param {
    filler {
      value: 0.6666
    }
    bias_term: false
  }
}
layer {
  name: "fc4_sTanH"
  type: "TanH"
  bottom: "fc4_300"
  top: "fc4_300"
}
layer {
  name: "fc4_postscale"
  type: "Scale"
  bottom: "fc4_300"
  top: "fc4_300"
  param {
    lr_mult: 0
    decay_mult: 0
  }
  scale_param {
    filler {
      value: 1.7159
    }
    bias_term: false
  }
}
layer {
  name: "drop4"
  type: "Dropout"
  bottom: "fc4_300"
  top: "fc4_300"
  dropout_param {
    dropout_ratio: 0.1
  }
}
layer {
  name: "fc5_67"
  type: "InnerProduct"
  bottom: "fc4_300"
  top: "fc5_classes"
  inner_product_param {
    num_output: 67
    weight_filler {
      type: "xavier"
    }
  }
}
layer {
  name: "loss"
  type: "SoftmaxWithLoss"
  bottom: "fc5_classes"
  bottom: "label"
  top: "loss"
}
I0411 22:11:27.515295 16218 layer_factory.hpp:77] Creating layer data
I0411 22:11:27.516636 16218 net.cpp:100] Creating Layer data
I0411 22:11:27.516659 16218 net.cpp:408] data -> data
I0411 22:11:27.516686 16218 net.cpp:408] data -> label
I0411 22:11:27.520807 16368 db_lmdb.cpp:35] Opened lmdb ../local_data/lmdb/rtsd-r1/AHE/train/lmdb
I0411 22:11:27.548182 16218 data_layer.cpp:41] output data size: 1024,3,48,48
I0411 22:11:27.604254 16218 net.cpp:150] Setting up data
I0411 22:11:27.604290 16218 net.cpp:157] Top shape: 1024 3 48 48 (7077888)
I0411 22:11:27.604297 16218 net.cpp:157] Top shape: 1024 (1024)
I0411 22:11:27.604301 16218 net.cpp:165] Memory required for data: 28315648
I0411 22:11:27.604313 16218 layer_factory.hpp:77] Creating layer conv1
I0411 22:11:27.604344 16218 net.cpp:100] Creating Layer conv1
I0411 22:11:27.604354 16218 net.cpp:434] conv1 <- data
I0411 22:11:27.604370 16218 net.cpp:408] conv1 -> conv1
I0411 22:11:27.957542 16218 net.cpp:150] Setting up conv1
I0411 22:11:27.957578 16218 net.cpp:157] Top shape: 1024 100 42 42 (180633600)
I0411 22:11:27.957584 16218 net.cpp:165] Memory required for data: 750850048
I0411 22:11:27.957609 16218 layer_factory.hpp:77] Creating layer conv1_prescale
I0411 22:11:27.957630 16218 net.cpp:100] Creating Layer conv1_prescale
I0411 22:11:27.957638 16218 net.cpp:434] conv1_prescale <- conv1
I0411 22:11:27.957646 16218 net.cpp:395] conv1_prescale -> conv1 (in-place)
I0411 22:11:27.957782 16218 net.cpp:150] Setting up conv1_prescale
I0411 22:11:27.957792 16218 net.cpp:157] Top shape: 1024 100 42 42 (180633600)
I0411 22:11:27.957798 16218 net.cpp:165] Memory required for data: 1473384448
I0411 22:11:27.957806 16218 layer_factory.hpp:77] Creating layer conv1_sTanH
I0411 22:11:27.957816 16218 net.cpp:100] Creating Layer conv1_sTanH
I0411 22:11:27.957823 16218 net.cpp:434] conv1_sTanH <- conv1
I0411 22:11:27.957828 16218 net.cpp:395] conv1_sTanH -> conv1 (in-place)
I0411 22:11:27.958070 16218 net.cpp:150] Setting up conv1_sTanH
I0411 22:11:27.958083 16218 net.cpp:157] Top shape: 1024 100 42 42 (180633600)
I0411 22:11:27.958087 16218 net.cpp:165] Memory required for data: 2195918848
I0411 22:11:27.958092 16218 layer_factory.hpp:77] Creating layer conv1_postscale
I0411 22:11:27.958102 16218 net.cpp:100] Creating Layer conv1_postscale
I0411 22:11:27.958108 16218 net.cpp:434] conv1_postscale <- conv1
I0411 22:11:27.958115 16218 net.cpp:395] conv1_postscale -> conv1 (in-place)
I0411 22:11:27.958235 16218 net.cpp:150] Setting up conv1_postscale
I0411 22:11:27.958245 16218 net.cpp:157] Top shape: 1024 100 42 42 (180633600)
I0411 22:11:27.958250 16218 net.cpp:165] Memory required for data: 2918453248
I0411 22:11:27.958257 16218 layer_factory.hpp:77] Creating layer pool1
I0411 22:11:27.958266 16218 net.cpp:100] Creating Layer pool1
I0411 22:11:27.958271 16218 net.cpp:434] pool1 <- conv1
I0411 22:11:27.958277 16218 net.cpp:408] pool1 -> pool1
I0411 22:11:27.958335 16218 net.cpp:150] Setting up pool1
I0411 22:11:27.958367 16218 net.cpp:157] Top shape: 1024 100 21 21 (45158400)
I0411 22:11:27.958374 16218 net.cpp:165] Memory required for data: 3099086848
I0411 22:11:27.958379 16218 layer_factory.hpp:77] Creating layer conv2
I0411 22:11:27.958390 16218 net.cpp:100] Creating Layer conv2
I0411 22:11:27.958396 16218 net.cpp:434] conv2 <- pool1
I0411 22:11:27.958403 16218 net.cpp:408] conv2 -> conv2
I0411 22:11:27.965970 16218 net.cpp:150] Setting up conv2
I0411 22:11:27.965994 16218 net.cpp:157] Top shape: 1024 150 18 18 (49766400)
I0411 22:11:27.965999 16218 net.cpp:165] Memory required for data: 3298152448
I0411 22:11:27.966012 16218 layer_factory.hpp:77] Creating layer conv2_prescale
I0411 22:11:27.966024 16218 net.cpp:100] Creating Layer conv2_prescale
I0411 22:11:27.966029 16218 net.cpp:434] conv2_prescale <- conv2
I0411 22:11:27.966040 16218 net.cpp:395] conv2_prescale -> conv2 (in-place)
I0411 22:11:27.966178 16218 net.cpp:150] Setting up conv2_prescale
I0411 22:11:27.966190 16218 net.cpp:157] Top shape: 1024 150 18 18 (49766400)
I0411 22:11:27.966194 16218 net.cpp:165] Memory required for data: 3497218048
I0411 22:11:27.966200 16218 layer_factory.hpp:77] Creating layer conv2_sTanH
I0411 22:11:27.966212 16218 net.cpp:100] Creating Layer conv2_sTanH
I0411 22:11:27.966217 16218 net.cpp:434] conv2_sTanH <- conv2
I0411 22:11:27.966223 16218 net.cpp:395] conv2_sTanH -> conv2 (in-place)
I0411 22:11:27.967739 16218 net.cpp:150] Setting up conv2_sTanH
I0411 22:11:27.967761 16218 net.cpp:157] Top shape: 1024 150 18 18 (49766400)
I0411 22:11:27.967764 16218 net.cpp:165] Memory required for data: 3696283648
I0411 22:11:27.967769 16218 layer_factory.hpp:77] Creating layer conv2_postscale
I0411 22:11:27.967779 16218 net.cpp:100] Creating Layer conv2_postscale
I0411 22:11:27.967784 16218 net.cpp:434] conv2_postscale <- conv2
I0411 22:11:27.967794 16218 net.cpp:395] conv2_postscale -> conv2 (in-place)
I0411 22:11:27.967937 16218 net.cpp:150] Setting up conv2_postscale
I0411 22:11:27.967950 16218 net.cpp:157] Top shape: 1024 150 18 18 (49766400)
I0411 22:11:27.967954 16218 net.cpp:165] Memory required for data: 3895349248
I0411 22:11:27.967962 16218 layer_factory.hpp:77] Creating layer pool2
I0411 22:11:27.967972 16218 net.cpp:100] Creating Layer pool2
I0411 22:11:27.967978 16218 net.cpp:434] pool2 <- conv2
I0411 22:11:27.967985 16218 net.cpp:408] pool2 -> pool2
I0411 22:11:27.968039 16218 net.cpp:150] Setting up pool2
I0411 22:11:27.968049 16218 net.cpp:157] Top shape: 1024 150 9 9 (12441600)
I0411 22:11:27.968055 16218 net.cpp:165] Memory required for data: 3945115648
I0411 22:11:27.968058 16218 layer_factory.hpp:77] Creating layer conv3
I0411 22:11:27.968070 16218 net.cpp:100] Creating Layer conv3
I0411 22:11:27.968076 16218 net.cpp:434] conv3 <- pool2
I0411 22:11:27.968085 16218 net.cpp:408] conv3 -> conv3
I0411 22:11:27.975404 16218 net.cpp:150] Setting up conv3
I0411 22:11:27.975425 16218 net.cpp:157] Top shape: 1024 250 6 6 (9216000)
I0411 22:11:27.975430 16218 net.cpp:165] Memory required for data: 3981979648
I0411 22:11:27.975442 16218 layer_factory.hpp:77] Creating layer conv3_prescale
I0411 22:11:27.975452 16218 net.cpp:100] Creating Layer conv3_prescale
I0411 22:11:27.975457 16218 net.cpp:434] conv3_prescale <- conv3
I0411 22:11:27.975463 16218 net.cpp:395] conv3_prescale -> conv3 (in-place)
I0411 22:11:27.975579 16218 net.cpp:150] Setting up conv3_prescale
I0411 22:11:27.975589 16218 net.cpp:157] Top shape: 1024 250 6 6 (9216000)
I0411 22:11:27.975594 16218 net.cpp:165] Memory required for data: 4018843648
I0411 22:11:27.975600 16218 layer_factory.hpp:77] Creating layer conv3_sTanH
I0411 22:11:27.975608 16218 net.cpp:100] Creating Layer conv3_sTanH
I0411 22:11:27.975615 16218 net.cpp:434] conv3_sTanH <- conv3
I0411 22:11:27.975620 16218 net.cpp:395] conv3_sTanH -> conv3 (in-place)
I0411 22:11:27.976799 16218 net.cpp:150] Setting up conv3_sTanH
I0411 22:11:27.976819 16218 net.cpp:157] Top shape: 1024 250 6 6 (9216000)
I0411 22:11:27.976824 16218 net.cpp:165] Memory required for data: 4055707648
I0411 22:11:27.976845 16218 layer_factory.hpp:77] Creating layer conv3_postscale
I0411 22:11:27.976855 16218 net.cpp:100] Creating Layer conv3_postscale
I0411 22:11:27.976860 16218 net.cpp:434] conv3_postscale <- conv3
I0411 22:11:27.976866 16218 net.cpp:395] conv3_postscale -> conv3 (in-place)
I0411 22:11:27.976987 16218 net.cpp:150] Setting up conv3_postscale
I0411 22:11:27.976999 16218 net.cpp:157] Top shape: 1024 250 6 6 (9216000)
I0411 22:11:27.977004 16218 net.cpp:165] Memory required for data: 4092571648
I0411 22:11:27.977010 16218 layer_factory.hpp:77] Creating layer pool3
I0411 22:11:27.977020 16218 net.cpp:100] Creating Layer pool3
I0411 22:11:27.977025 16218 net.cpp:434] pool3 <- conv3
I0411 22:11:27.977031 16218 net.cpp:408] pool3 -> pool3
I0411 22:11:27.977078 16218 net.cpp:150] Setting up pool3
I0411 22:11:27.977088 16218 net.cpp:157] Top shape: 1024 250 3 3 (2304000)
I0411 22:11:27.977092 16218 net.cpp:165] Memory required for data: 4101787648
I0411 22:11:27.977097 16218 layer_factory.hpp:77] Creating layer fc4_300
I0411 22:11:27.977107 16218 net.cpp:100] Creating Layer fc4_300
I0411 22:11:27.977113 16218 net.cpp:434] fc4_300 <- pool3
I0411 22:11:27.977120 16218 net.cpp:408] fc4_300 -> fc4_300
I0411 22:11:27.984714 16218 net.cpp:150] Setting up fc4_300
I0411 22:11:27.984733 16218 net.cpp:157] Top shape: 1024 300 (307200)
I0411 22:11:27.984738 16218 net.cpp:165] Memory required for data: 4103016448
I0411 22:11:27.984747 16218 layer_factory.hpp:77] Creating layer fc4_prescale
I0411 22:11:27.984756 16218 net.cpp:100] Creating Layer fc4_prescale
I0411 22:11:27.984761 16218 net.cpp:434] fc4_prescale <- fc4_300
I0411 22:11:27.984768 16218 net.cpp:395] fc4_prescale -> fc4_300 (in-place)
I0411 22:11:27.984876 16218 net.cpp:150] Setting up fc4_prescale
I0411 22:11:27.984886 16218 net.cpp:157] Top shape: 1024 300 (307200)
I0411 22:11:27.984890 16218 net.cpp:165] Memory required for data: 4104245248
I0411 22:11:27.984896 16218 layer_factory.hpp:77] Creating layer fc4_sTanH
I0411 22:11:27.984905 16218 net.cpp:100] Creating Layer fc4_sTanH
I0411 22:11:27.984912 16218 net.cpp:434] fc4_sTanH <- fc4_300
I0411 22:11:27.984918 16218 net.cpp:395] fc4_sTanH -> fc4_300 (in-place)
I0411 22:11:27.985148 16218 net.cpp:150] Setting up fc4_sTanH
I0411 22:11:27.985162 16218 net.cpp:157] Top shape: 1024 300 (307200)
I0411 22:11:27.985168 16218 net.cpp:165] Memory required for data: 4105474048
I0411 22:11:27.985172 16218 layer_factory.hpp:77] Creating layer fc4_postscale
I0411 22:11:27.985182 16218 net.cpp:100] Creating Layer fc4_postscale
I0411 22:11:27.985186 16218 net.cpp:434] fc4_postscale <- fc4_300
I0411 22:11:27.985193 16218 net.cpp:395] fc4_postscale -> fc4_300 (in-place)
I0411 22:11:27.985311 16218 net.cpp:150] Setting up fc4_postscale
I0411 22:11:27.985321 16218 net.cpp:157] Top shape: 1024 300 (307200)
I0411 22:11:27.985324 16218 net.cpp:165] Memory required for data: 4106702848
I0411 22:11:27.985332 16218 layer_factory.hpp:77] Creating layer drop4
I0411 22:11:27.985340 16218 net.cpp:100] Creating Layer drop4
I0411 22:11:27.985347 16218 net.cpp:434] drop4 <- fc4_300
I0411 22:11:27.985352 16218 net.cpp:395] drop4 -> fc4_300 (in-place)
I0411 22:11:27.985384 16218 net.cpp:150] Setting up drop4
I0411 22:11:27.985394 16218 net.cpp:157] Top shape: 1024 300 (307200)
I0411 22:11:27.985397 16218 net.cpp:165] Memory required for data: 4107931648
I0411 22:11:27.985401 16218 layer_factory.hpp:77] Creating layer fc5_67
I0411 22:11:27.985409 16218 net.cpp:100] Creating Layer fc5_67
I0411 22:11:27.985414 16218 net.cpp:434] fc5_67 <- fc4_300
I0411 22:11:27.985420 16218 net.cpp:408] fc5_67 -> fc5_classes
I0411 22:11:27.997697 16218 net.cpp:150] Setting up fc5_67
I0411 22:11:27.997716 16218 net.cpp:157] Top shape: 1024 67 (68608)
I0411 22:11:27.997720 16218 net.cpp:165] Memory required for data: 4108206080
I0411 22:11:27.997735 16218 layer_factory.hpp:77] Creating layer loss
I0411 22:11:27.997745 16218 net.cpp:100] Creating Layer loss
I0411 22:11:27.997750 16218 net.cpp:434] loss <- fc5_classes
I0411 22:11:27.997756 16218 net.cpp:434] loss <- label
I0411 22:11:27.997781 16218 net.cpp:408] loss -> loss
I0411 22:11:27.997799 16218 layer_factory.hpp:77] Creating layer loss
…
I0411 22:11:27.998919 16218 solver.cpp:193] Creating test net (#0) specified by test_net file: ./Prototxt/experiment_9/rtsd-r1/AHE/trial_4/test.prototxt
I0411 22:11:27.999231 16218 net.cpp:58] Initializing net from parameters: 
state {
  phase: TEST
}
layer {
  name: "data"
  type: "Data"
  top: "data"
  top: "label"
  include {
    phase: TEST
  }
  transform_param {
    scale: 0.0039215689
    mirror: false
    crop_size: 48
    mean_value: 126
    mean_value: 124
    mean_value: 145
  }
  data_param {
    source: "../local_data/lmdb/rtsd-r1/AHE/test/lmdb"
    batch_size: 1024
    backend: LMDB
  }
}
layer {
  name: "conv1"
  type: "Convolution"
  bottom: "data"
  top: "conv1"
  convolution_param {
    num_output: 100
    pad: 0
    kernel_size: 7
    group: 1
    stride: 1
    weight_filler {
      type: "xavier"
    }
  }
}
layer {
  name: "conv1_prescale"
  type: "Scale"
  bottom: "conv1"
  top: "conv1"
  param {
    lr_mult: 0
    decay_mult: 0
  }
  scale_param {
    filler {
      value: 0.6666
    }
    bias_term: false
  }
}
layer {
  name: "conv1_sTanH"
  type: "TanH"
  bottom: "conv1"
  top: "conv1"
}
layer {
  name: "conv1_postscale"
  type: "Scale"
  bottom: "conv1"
  top: "conv1"
  param {
    lr_mult: 0
    decay_mult: 0
  }
  scale_param {
    filler {
      value: 1.7159
    }
    bias_term: false
  }
}
layer {
  name: "pool1"
  type: "Pooling"
  bottom: "conv1"
  top: "pool1"
  pooling_param {
    pool: MAX
    kernel_size: 2
    stride: 2
  }
}
layer {
  name: "conv2"
  type: "Convolution"
  bottom: "pool1"
  top: "conv2"
  convolution_param {
    num_output: 150
    pad: 0
    kernel_size: 4
    group: 1
    stride: 1
    weight_filler {
      type: "xavier"
    }
  }
}
layer {
  name: "conv2_prescale"
  type: "Scale"
  bottom: "conv2"
  top: "conv2"
  param {
    lr_mult: 0
    decay_mult: 0
  }
  scale_param {
    filler {
      value: 0.6666
    }
    bias_term: false
  }
}
layer {
  name: "conv2_sTanH"
  type: "TanH"
  bottom: "conv2"
  top: "conv2"
}
layer {
  name: "conv2_postscale"
  type: "Scale"
  bottom: "conv2"
  top: "conv2"
  param {
    lr_mult: 0
    decay_mult: 0
  }
  scale_param {
    filler {
      value: 1.7159
    }
    bias_term: false
  }
}
layer {
  name: "pool2"
  type: "Pooling"
  bottom: "conv2"
  top: "pool2"
  pooling_param {
    pool: MAX
    kernel_size: 2
    stride: 2
  }
}
layer {
  name: "conv3"
  type: "Convolution"
  bottom: "pool2"
  top: "conv3"
  convolution_param {
    num_output: 250
    pad: 0
    kernel_size: 4
    group: 1
    stride: 1
    weight_filler {
      type: "xavier"
    }
  }
}
layer {
  name: "conv3_prescale"
  type: "Scale"
  bottom: "conv3"
  top: "conv3"
  param {
    lr_mult: 0
    decay_mult: 0
  }
  scale_param {
    filler {
      value: 0.6666
    }
    bias_term: false
  }
}
layer {
  name: "conv3_sTanH"
  type: "TanH"
  bottom: "conv3"
  top: "conv3"
}
layer {
  name: "conv3_postscale"
  type: "Scale"
  bottom: "conv3"
  top: "conv3"
  param {
    lr_mult: 0
    decay_mult: 0
  }
  scale_param {
    filler {
      value: 1.7159
    }
    bias_term: false
  }
}
layer {
  name: "pool3"
  type: "Pooling"
  bottom: "conv3"
  top: "pool3"
  pooling_param {
    pool: MAX
    kernel_size: 2
    stride: 2
  }
}
layer {
  name: "fc4_300"
  type: "InnerProduct"
  bottom: "pool3"
  top: "fc4_300"
  inner_product_param {
    num_output: 300
    weight_filler {
      type: "xavier"
    }
  }
}
layer {
  name: "fc4_prescale"
  type: "Scale"
  bottom: "fc4_300"
  top: "fc4_300"
  param {
    lr_mult: 0
    decay_mult: 0
  }
  scale_param {
    filler {
      value: 0.6666
    }
    bias_term: false
  }
}
layer {
  name: "fc4_sTanH"
  type: "TanH"
  bottom: "fc4_300"
  top: "fc4_300"
}
layer {
  name: "fc4_postscale"
  type: "Scale"
  bottom: "fc4_300"
  top: "fc4_300"
  param {
    lr_mult: 0
    decay_mult: 0
  }
  scale_param {
    filler {
      value: 1.7159
    }
    bias_term: false
  }
}
layer {
  name: "drop4"
  type: "Dropout"
  bottom: "fc4_300"
  top: "fc4_300"
  dropout_param {
    dropout_ratio: 0.1
  }
}
layer {
  name: "fc5_67"
  type: "InnerProduct"
  bottom: "fc4_300"
  top: "fc5_classes"
  inner_product_param {
    num_output: 67
    weight_filler {
      type: "xavier"
    }
  }
}
layer {
  name: "loss"
  type: "SoftmaxWithLoss"
  bottom: "fc5_classes"
  bottom: "label"
  top: "loss"
}
layer {
  name: "accuracy_1"
  type: "Accuracy"
  bottom: "fc5_classes"
  bottom: "label"
  top: "accuracy_1"
  include {
    phase: TEST
  }
  accuracy_param {
    top_k: 1
  }
}
layer {
  name: "accuracy_5"
  type: "Accuracy"
  bottom: "fc5_classes"
  bottom: "label"
  top: "accuracy_5"
  include {
    phase: TEST
  }
  accuracy_param {
    top_k: 5
  }
}
I0411 22:11:27.999419 16218 layer_factory.hpp:77] Creating layer data
I0411 22:11:28.000351 16218 net.cpp:100] Creating Layer data
I0411 22:11:28.000375 16218 net.cpp:408] data -> data
I0411 22:11:28.000393 16218 net.cpp:408] data -> label
I0411 22:11:28.004604 16420 db_lmdb.cpp:35] Opened lmdb ../local_data/lmdb/rtsd-r1/AHE/test/lmdb
I0411 22:11:28.004809 16218 data_layer.cpp:41] output data size: 1024,3,48,48
I0411 22:11:28.068465 16218 net.cpp:150] Setting up data
I0411 22:11:28.068500 16218 net.cpp:157] Top shape: 1024 3 48 48 (7077888)
I0411 22:11:28.068509 16218 net.cpp:157] Top shape: 1024 (1024)
I0411 22:11:28.068514 16218 net.cpp:165] Memory required for data: 28315648
I0411 22:11:28.068524 16218 layer_factory.hpp:77] Creating layer label_data_1_split
I0411 22:11:28.068542 16218 net.cpp:100] Creating Layer label_data_1_split
I0411 22:11:28.068548 16218 net.cpp:434] label_data_1_split <- label
I0411 22:11:28.068562 16218 net.cpp:408] label_data_1_split -> label_data_1_split_0
I0411 22:11:28.068578 16218 net.cpp:408] label_data_1_split -> label_data_1_split_1
I0411 22:11:28.068590 16218 net.cpp:408] label_data_1_split -> label_data_1_split_2
I0411 22:11:28.068724 16218 net.cpp:150] Setting up label_data_1_split
I0411 22:11:28.068738 16218 net.cpp:157] Top shape: 1024 (1024)
I0411 22:11:28.068747 16218 net.cpp:157] Top shape: 1024 (1024)
I0411 22:11:28.068753 16218 net.cpp:157] Top shape: 1024 (1024)
I0411 22:11:28.068758 16218 net.cpp:165] Memory required for data: 28327936
I0411 22:11:28.068763 16218 layer_factory.hpp:77] Creating layer conv1
I0411 22:11:28.068781 16218 net.cpp:100] Creating Layer conv1
I0411 22:11:28.068789 16218 net.cpp:434] conv1 <- data
I0411 22:11:28.068797 16218 net.cpp:408] conv1 -> conv1
I0411 22:11:28.071902 16218 net.cpp:150] Setting up conv1
I0411 22:11:28.071928 16218 net.cpp:157] Top shape: 1024 100 42 42 (180633600)
I0411 22:11:28.071936 16218 net.cpp:165] Memory required for data: 750862336
I0411 22:11:28.071955 16218 layer_factory.hpp:77] Creating layer conv1_prescale
I0411 22:11:28.071970 16218 net.cpp:100] Creating Layer conv1_prescale
I0411 22:11:28.071977 16218 net.cpp:434] conv1_prescale <- conv1
I0411 22:11:28.071987 16218 net.cpp:395] conv1_prescale -> conv1 (in-place)
I0411 22:11:28.072142 16218 net.cpp:150] Setting up conv1_prescale
I0411 22:11:28.072154 16218 net.cpp:157] Top shape: 1024 100 42 42 (180633600)
I0411 22:11:28.072161 16218 net.cpp:165] Memory required for data: 1473396736
I0411 22:11:28.072172 16218 layer_factory.hpp:77] Creating layer conv1_sTanH
I0411 22:11:28.072185 16218 net.cpp:100] Creating Layer conv1_sTanH
I0411 22:11:28.072191 16218 net.cpp:434] conv1_sTanH <- conv1
I0411 22:11:28.072198 16218 net.cpp:395] conv1_sTanH -> conv1 (in-place)
I0411 22:11:28.072474 16218 net.cpp:150] Setting up conv1_sTanH
I0411 22:11:28.072489 16218 net.cpp:157] Top shape: 1024 100 42 42 (180633600)
I0411 22:11:28.072495 16218 net.cpp:165] Memory required for data: 2195931136
I0411 22:11:28.072501 16218 layer_factory.hpp:77] Creating layer conv1_postscale
I0411 22:11:28.072513 16218 net.cpp:100] Creating Layer conv1_postscale
I0411 22:11:28.072520 16218 net.cpp:434] conv1_postscale <- conv1
I0411 22:11:28.072530 16218 net.cpp:395] conv1_postscale -> conv1 (in-place)
I0411 22:11:28.072681 16218 net.cpp:150] Setting up conv1_postscale
I0411 22:11:28.072693 16218 net.cpp:157] Top shape: 1024 100 42 42 (180633600)
I0411 22:11:28.072700 16218 net.cpp:165] Memory required for data: 2918465536
I0411 22:11:28.072708 16218 layer_factory.hpp:77] Creating layer pool1
I0411 22:11:28.072720 16218 net.cpp:100] Creating Layer pool1
I0411 22:11:28.072726 16218 net.cpp:434] pool1 <- conv1
I0411 22:11:28.072733 16218 net.cpp:408] pool1 -> pool1
I0411 22:11:28.072793 16218 net.cpp:150] Setting up pool1
I0411 22:11:28.072804 16218 net.cpp:157] Top shape: 1024 100 21 21 (45158400)
I0411 22:11:28.072810 16218 net.cpp:165] Memory required for data: 3099099136
I0411 22:11:28.072816 16218 layer_factory.hpp:77] Creating layer conv2
I0411 22:11:28.072829 16218 net.cpp:100] Creating Layer conv2
I0411 22:11:28.072835 16218 net.cpp:434] conv2 <- pool1
I0411 22:11:28.072842 16218 net.cpp:408] conv2 -> conv2
I0411 22:11:28.080866 16218 net.cpp:150] Setting up conv2
I0411 22:11:28.080893 16218 net.cpp:157] Top shape: 1024 150 18 18 (49766400)
I0411 22:11:28.080900 16218 net.cpp:165] Memory required for data: 3298164736
I0411 22:11:28.080916 16218 layer_factory.hpp:77] Creating layer conv2_prescale
I0411 22:11:28.080932 16218 net.cpp:100] Creating Layer conv2_prescale
I0411 22:11:28.080940 16218 net.cpp:434] conv2_prescale <- conv2
I0411 22:11:28.080950 16218 net.cpp:395] conv2_prescale -> conv2 (in-place)
I0411 22:11:28.081099 16218 net.cpp:150] Setting up conv2_prescale
I0411 22:11:28.081115 16218 net.cpp:157] Top shape: 1024 150 18 18 (49766400)
I0411 22:11:28.081122 16218 net.cpp:165] Memory required for data: 3497230336
I0411 22:11:28.081130 16218 layer_factory.hpp:77] Creating layer conv2_sTanH
I0411 22:11:28.081140 16218 net.cpp:100] Creating Layer conv2_sTanH
I0411 22:11:28.081146 16218 net.cpp:434] conv2_sTanH <- conv2
I0411 22:11:28.081152 16218 net.cpp:395] conv2_sTanH -> conv2 (in-place)
I0411 22:11:28.084723 16218 net.cpp:150] Setting up conv2_sTanH
I0411 22:11:28.084751 16218 net.cpp:157] Top shape: 1024 150 18 18 (49766400)
I0411 22:11:28.084759 16218 net.cpp:165] Memory required for data: 3696295936
I0411 22:11:28.084765 16218 layer_factory.hpp:77] Creating layer conv2_postscale
I0411 22:11:28.084779 16218 net.cpp:100] Creating Layer conv2_postscale
I0411 22:11:28.084786 16218 net.cpp:434] conv2_postscale <- conv2
I0411 22:11:28.084795 16218 net.cpp:395] conv2_postscale -> conv2 (in-place)
I0411 22:11:28.084940 16218 net.cpp:150] Setting up conv2_postscale
I0411 22:11:28.084952 16218 net.cpp:157] Top shape: 1024 150 18 18 (49766400)
I0411 22:11:28.084959 16218 net.cpp:165] Memory required for data: 3895361536
I0411 22:11:28.084966 16218 layer_factory.hpp:77] Creating layer pool2
I0411 22:11:28.084977 16218 net.cpp:100] Creating Layer pool2
I0411 22:11:28.084983 16218 net.cpp:434] pool2 <- conv2
I0411 22:11:28.084991 16218 net.cpp:408] pool2 -> pool2
I0411 22:11:28.085053 16218 net.cpp:150] Setting up pool2
I0411 22:11:28.085065 16218 net.cpp:157] Top shape: 1024 150 9 9 (12441600)
I0411 22:11:28.085072 16218 net.cpp:165] Memory required for data: 3945127936
I0411 22:11:28.085077 16218 layer_factory.hpp:77] Creating layer conv3
I0411 22:11:28.085088 16218 net.cpp:100] Creating Layer conv3
I0411 22:11:28.085095 16218 net.cpp:434] conv3 <- pool2
I0411 22:11:28.085103 16218 net.cpp:408] conv3 -> conv3
I0411 22:11:28.094791 16218 net.cpp:150] Setting up conv3
I0411 22:11:28.094816 16218 net.cpp:157] Top shape: 1024 250 6 6 (9216000)
I0411 22:11:28.094823 16218 net.cpp:165] Memory required for data: 3981991936
I0411 22:11:28.094844 16218 layer_factory.hpp:77] Creating layer conv3_prescale
I0411 22:11:28.094857 16218 net.cpp:100] Creating Layer conv3_prescale
I0411 22:11:28.094864 16218 net.cpp:434] conv3_prescale <- conv3
I0411 22:11:28.094877 16218 net.cpp:395] conv3_prescale -> conv3 (in-place)
I0411 22:11:28.095008 16218 net.cpp:150] Setting up conv3_prescale
I0411 22:11:28.095021 16218 net.cpp:157] Top shape: 1024 250 6 6 (9216000)
I0411 22:11:28.095026 16218 net.cpp:165] Memory required for data: 4018855936
I0411 22:11:28.095034 16218 layer_factory.hpp:77] Creating layer conv3_sTanH
I0411 22:11:28.095043 16218 net.cpp:100] Creating Layer conv3_sTanH
I0411 22:11:28.095049 16218 net.cpp:434] conv3_sTanH <- conv3
I0411 22:11:28.095057 16218 net.cpp:395] conv3_sTanH -> conv3 (in-place)
I0411 22:11:28.097012 16218 net.cpp:150] Setting up conv3_sTanH
I0411 22:11:28.097035 16218 net.cpp:157] Top shape: 1024 250 6 6 (9216000)
I0411 22:11:28.097043 16218 net.cpp:165] Memory required for data: 4055719936
I0411 22:11:28.097048 16218 layer_factory.hpp:77] Creating layer conv3_postscale
I0411 22:11:28.097060 16218 net.cpp:100] Creating Layer conv3_postscale
I0411 22:11:28.097069 16218 net.cpp:434] conv3_postscale <- conv3
I0411 22:11:28.097076 16218 net.cpp:395] conv3_postscale -> conv3 (in-place)
I0411 22:11:28.097216 16218 net.cpp:150] Setting up conv3_postscale
I0411 22:11:28.097229 16218 net.cpp:157] Top shape: 1024 250 6 6 (9216000)
I0411 22:11:28.097234 16218 net.cpp:165] Memory required for data: 4092583936
I0411 22:11:28.097242 16218 layer_factory.hpp:77] Creating layer pool3
I0411 22:11:28.097255 16218 net.cpp:100] Creating Layer pool3
I0411 22:11:28.097262 16218 net.cpp:434] pool3 <- conv3
I0411 22:11:28.097271 16218 net.cpp:408] pool3 -> pool3
I0411 22:11:28.097328 16218 net.cpp:150] Setting up pool3
I0411 22:11:28.097338 16218 net.cpp:157] Top shape: 1024 250 3 3 (2304000)
I0411 22:11:28.097345 16218 net.cpp:165] Memory required for data: 4101799936
I0411 22:11:28.097349 16218 layer_factory.hpp:77] Creating layer fc4_300
I0411 22:11:28.097359 16218 net.cpp:100] Creating Layer fc4_300
I0411 22:11:28.097365 16218 net.cpp:434] fc4_300 <- pool3
I0411 22:11:28.097373 16218 net.cpp:408] fc4_300 -> fc4_300
I0411 22:11:28.105428 16218 net.cpp:150] Setting up fc4_300
I0411 22:11:28.105453 16218 net.cpp:157] Top shape: 1024 300 (307200)
I0411 22:11:28.105458 16218 net.cpp:165] Memory required for data: 4103028736
I0411 22:11:28.105489 16218 layer_factory.hpp:77] Creating layer fc4_prescale
I0411 22:11:28.105504 16218 net.cpp:100] Creating Layer fc4_prescale
I0411 22:11:28.105510 16218 net.cpp:434] fc4_prescale <- fc4_300
I0411 22:11:28.105518 16218 net.cpp:395] fc4_prescale -> fc4_300 (in-place)
I0411 22:11:28.105645 16218 net.cpp:150] Setting up fc4_prescale
I0411 22:11:28.105656 16218 net.cpp:157] Top shape: 1024 300 (307200)
I0411 22:11:28.105662 16218 net.cpp:165] Memory required for data: 4104257536
I0411 22:11:28.105669 16218 layer_factory.hpp:77] Creating layer fc4_sTanH
I0411 22:11:28.105679 16218 net.cpp:100] Creating Layer fc4_sTanH
I0411 22:11:28.105684 16218 net.cpp:434] fc4_sTanH <- fc4_300
I0411 22:11:28.105691 16218 net.cpp:395] fc4_sTanH -> fc4_300 (in-place)
I0411 22:11:28.105943 16218 net.cpp:150] Setting up fc4_sTanH
I0411 22:11:28.105958 16218 net.cpp:157] Top shape: 1024 300 (307200)
I0411 22:11:28.105964 16218 net.cpp:165] Memory required for data: 4105486336
I0411 22:11:28.105969 16218 layer_factory.hpp:77] Creating layer fc4_postscale
I0411 22:11:28.105979 16218 net.cpp:100] Creating Layer fc4_postscale
I0411 22:11:28.105985 16218 net.cpp:434] fc4_postscale <- fc4_300
I0411 22:11:28.105993 16218 net.cpp:395] fc4_postscale -> fc4_300 (in-place)
I0411 22:11:28.106122 16218 net.cpp:150] Setting up fc4_postscale
I0411 22:11:28.106132 16218 net.cpp:157] Top shape: 1024 300 (307200)
I0411 22:11:28.106138 16218 net.cpp:165] Memory required for data: 4106715136
I0411 22:11:28.106145 16218 layer_factory.hpp:77] Creating layer drop4
I0411 22:11:28.106155 16218 net.cpp:100] Creating Layer drop4
I0411 22:11:28.106164 16218 net.cpp:434] drop4 <- fc4_300
I0411 22:11:28.106171 16218 net.cpp:395] drop4 -> fc4_300 (in-place)
I0411 22:11:28.106204 16218 net.cpp:150] Setting up drop4
I0411 22:11:28.106215 16218 net.cpp:157] Top shape: 1024 300 (307200)
I0411 22:11:28.106220 16218 net.cpp:165] Memory required for data: 4107943936
I0411 22:11:28.106225 16218 layer_factory.hpp:77] Creating layer fc5_67
I0411 22:11:28.106233 16218 net.cpp:100] Creating Layer fc5_67
I0411 22:11:28.106240 16218 net.cpp:434] fc5_67 <- fc4_300
I0411 22:11:28.106246 16218 net.cpp:408] fc5_67 -> fc5_classes
I0411 22:11:28.106573 16218 net.cpp:150] Setting up fc5_67
I0411 22:11:28.106585 16218 net.cpp:157] Top shape: 1024 67 (68608)
I0411 22:11:28.106591 16218 net.cpp:165] Memory required for data: 4108218368
I0411 22:11:28.106604 16218 layer_factory.hpp:77] Creating layer fc5_classes_fc5_67_0_split
I0411 22:11:28.106616 16218 net.cpp:100] Creating Layer fc5_classes_fc5_67_0_split
I0411 22:11:28.106622 16218 net.cpp:434] fc5_classes_fc5_67_0_split <- fc5_classes
I0411 22:11:28.106629 16218 net.cpp:408] fc5_classes_fc5_67_0_split -> fc5_classes_fc5_67_0_split_0
I0411 22:11:28.106640 16218 net.cpp:408] fc5_classes_fc5_67_0_split -> fc5_classes_fc5_67_0_split_1
I0411 22:11:28.106650 16218 net.cpp:408] fc5_classes_fc5_67_0_split -> fc5_classes_fc5_67_0_split_2
I0411 22:11:28.106717 16218 net.cpp:150] Setting up fc5_classes_fc5_67_0_split
I0411 22:11:28.106726 16218 net.cpp:157] Top shape: 1024 67 (68608)
I0411 22:11:28.106732 16218 net.cpp:157] Top shape: 1024 67 (68608)
I0411 22:11:28.106739 16218 net.cpp:157] Top shape: 1024 67 (68608)
I0411 22:11:28.106744 16218 net.cpp:165] Memory required for data: 4109041664
I0411 22:11:28.106747 16218 layer_factory.hpp:77] Creating layer loss
I0411 22:11:28.106755 16218 net.cpp:100] Creating Layer loss
I0411 22:11:28.106761 16218 net.cpp:434] loss <- fc5_classes_fc5_67_0_split_0
I0411 22:11:28.106767 16218 net.cpp:434] loss <- label_data_1_split_0
I0411 22:11:28.106776 16218 net.cpp:408] loss -> loss
…
