…
I0417 17:15:55.646867 30437 solver.cpp:93] Creating training net from train_net file: ./Prototxt/experiment_11/rtsd-r1/orig/trial_1/train.prototxt
I0417 17:15:55.647327 30437 net.cpp:58] Initializing net from parameters: 
state {
  phase: TRAIN
  level: 0
  stage: ""
}
layer {
  name: "data"
  type: "Data"
  top: "data"
  top: "label"
  include {
    phase: TRAIN
  }
  transform_param {
    scale: 0.0039215689
    mirror: false
    crop_size: 48
    mean_value: 122
    mean_value: 115
    mean_value: 129
  }
  data_param {
    source: "../local_data/lmdb/rtsd-r1/orig/train/lmdb"
    batch_size: 1024
    backend: LMDB
  }
}
layer {
  name: "conv1"
  type: "Convolution"
  bottom: "data"
  top: "conv1"
  convolution_param {
    num_output: 100
    pad: 0
    kernel_size: 7
    group: 1
    stride: 1
    weight_filler {
      type: "xavier"
    }
  }
}
layer {
  name: "conv1_prescale"
  type: "Scale"
  bottom: "conv1"
  top: "conv1"
  param {
    lr_mult: 0
    decay_mult: 0
  }
  scale_param {
    filler {
      value: 0.6666
    }
    bias_term: false
  }
}
layer {
  name: "conv1_sTanH"
  type: "TanH"
  bottom: "conv1"
  top: "conv1"
}
layer {
  name: "conv1_postscale"
  type: "Scale"
  bottom: "conv1"
  top: "conv1"
  param {
    lr_mult: 0
    decay_mult: 0
  }
  scale_param {
    filler {
      value: 1.7159
    }
    bias_term: false
  }
}
layer {
  name: "pool1"
  type: "Pooling"
  bottom: "conv1"
  top: "pool1"
  pooling_param {
    pool: MAX
    kernel_size: 2
    stride: 2
  }
}
layer {
  name: "conv2"
  type: "Convolution"
  bottom: "pool1"
  top: "conv2"
  convolution_param {
    num_output: 150
    pad: 0
    kernel_size: 4
    group: 1
    stride: 1
    weight_filler {
      type: "xavier"
    }
  }
}
layer {
  name: "conv2_prescale"
  type: "Scale"
  bottom: "conv2"
  top: "conv2"
  param {
    lr_mult: 0
    decay_mult: 0
  }
  scale_param {
    filler {
      value: 0.6666
    }
    bias_term: false
  }
}
layer {
  name: "conv2_sTanH"
  type: "TanH"
  bottom: "conv2"
  top: "conv2"
}
layer {
  name: "conv2_postscale"
  type: "Scale"
  bottom: "conv2"
  top: "conv2"
  param {
    lr_mult: 0
    decay_mult: 0
  }
  scale_param {
    filler {
      value: 1.7159
    }
    bias_term: false
  }
}
layer {
  name: "pool2"
  type: "Pooling"
  bottom: "conv2"
  top: "pool2"
  pooling_param {
    pool: MAX
    kernel_size: 2
    stride: 2
  }
}
layer {
  name: "conv3"
  type: "Convolution"
  bottom: "pool2"
  top: "conv3"
  convolution_param {
    num_output: 250
    pad: 0
    kernel_size: 4
    group: 1
    stride: 1
    weight_filler {
      type: "xavier"
    }
  }
}
layer {
  name: "conv3_prescale"
  type: "Scale"
  bottom: "conv3"
  top: "conv3"
  param {
    lr_mult: 0
    decay_mult: 0
  }
  scale_param {
    filler {
      value: 0.6666
    }
    bias_term: false
  }
}
layer {
  name: "conv3_sTanH"
  type: "TanH"
  bottom: "conv3"
  top: "conv3"
}
layer {
  name: "conv3_postscale"
  type: "Scale"
  bottom: "conv3"
  top: "conv3"
  param {
    lr_mult: 0
    decay_mult: 0
  }
  scale_param {
    filler {
      value: 1.7159
    }
    bias_term: false
  }
}
layer {
  name: "pool3"
  type: "Pooling"
  bottom: "conv3"
  top: "pool3"
  pooling_param {
    pool: MAX
    kernel_size: 2
    stride: 2
  }
}
layer {
  name: "fc4_300"
  type: "InnerProduct"
  bottom: "pool3"
  top: "fc4_300"
  inner_product_param {
    num_output: 300
    weight_filler {
      type: "xavier"
    }
  }
}
layer {
  name: "fc4_prescale"
  type: "Scale"
  bottom: "fc4_300"
  top: "fc4_300"
  param {
    lr_mult: 0
    decay_mult: 0
  }
  scale_param {
    filler {
      value: 0.6666
    }
    bias_term: false
  }
}
layer {
  name: "fc4_sTanH"
  type: "TanH"
  bottom: "fc4_300"
  top: "fc4_300"
}
layer {
  name: "fc4_postscale"
  type: "Scale"
  bottom: "fc4_300"
  top: "fc4_300"
  param {
    lr_mult: 0
    decay_mult: 0
  }
  scale_param {
    filler {
      value: 1.7159
    }
    bias_term: false
  }
}
layer {
  name: "fc5_67"
  type: "InnerProduct"
  bottom: "fc4_300"
  top: "fc5_classes"
  inner_product_param {
    num_output: 67
    weight_filler {
      type: "xavier"
    }
  }
}
layer {
  name: "softmax"
  type: "Softmax"
  bottom: "fc5_classes"
  top: "softmax"
}
layer {
  name: "loss"
  type: "MultinomialLogisticLoss"
  bottom: "softmax"
  bottom: "label"
  top: "loss"
}
layer {
  name: "accuracy_1"
  type: "Accuracy"
  bottom: "fc5_classes"
  bottom: "label"
  top: "accuracy_1"
  accuracy_param {
    top_k: 1
  }
}
layer {
  name: "accuracy_5"
  type: "Accuracy"
  bottom: "fc5_classes"
  bottom: "label"
  top: "accuracy_5"
  accuracy_param {
    top_k: 5
  }
}
layer {
  name: "silence"
  type: "Silence"
  bottom: "accuracy_1"
  bottom: "accuracy_5"
}
I0417 17:15:55.647478 30437 layer_factory.hpp:77] Creating layer data
I0417 17:15:55.648543 30437 net.cpp:100] Creating Layer data
I0417 17:15:55.648561 30437 net.cpp:408] data -> data
I0417 17:15:55.648583 30437 net.cpp:408] data -> label
I0417 17:15:55.687952 30586 db_lmdb.cpp:35] Opened lmdb ../local_data/lmdb/rtsd-r1/orig/train/lmdb
I0417 17:15:55.721292 30437 data_layer.cpp:41] output data size: 1024,3,48,48
I0417 17:15:55.790472 30437 net.cpp:150] Setting up data
I0417 17:15:55.790499 30437 net.cpp:157] Top shape: 1024 3 48 48 (7077888)
I0417 17:15:55.790504 30437 net.cpp:157] Top shape: 1024 (1024)
I0417 17:15:55.790508 30437 net.cpp:165] Memory required for data: 28315648
I0417 17:15:55.790519 30437 layer_factory.hpp:77] Creating layer label_data_1_split
I0417 17:15:55.790534 30437 net.cpp:100] Creating Layer label_data_1_split
I0417 17:15:55.790540 30437 net.cpp:434] label_data_1_split <- label
I0417 17:15:55.790554 30437 net.cpp:408] label_data_1_split -> label_data_1_split_0
I0417 17:15:55.790566 30437 net.cpp:408] label_data_1_split -> label_data_1_split_1
I0417 17:15:55.790575 30437 net.cpp:408] label_data_1_split -> label_data_1_split_2
I0417 17:15:55.790668 30437 net.cpp:150] Setting up label_data_1_split
I0417 17:15:55.790679 30437 net.cpp:157] Top shape: 1024 (1024)
I0417 17:15:55.790683 30437 net.cpp:157] Top shape: 1024 (1024)
I0417 17:15:55.790688 30437 net.cpp:157] Top shape: 1024 (1024)
I0417 17:15:55.790689 30437 net.cpp:165] Memory required for data: 28327936
I0417 17:15:55.790693 30437 layer_factory.hpp:77] Creating layer conv1
I0417 17:15:55.790714 30437 net.cpp:100] Creating Layer conv1
I0417 17:15:55.790720 30437 net.cpp:434] conv1 <- data
I0417 17:15:55.790729 30437 net.cpp:408] conv1 -> conv1
I0417 17:15:55.873378 30596 blocking_queue.cpp:50] Waiting for data
I0417 17:15:56.271651 30437 net.cpp:150] Setting up conv1
I0417 17:15:56.271685 30437 net.cpp:157] Top shape: 1024 100 42 42 (180633600)
I0417 17:15:56.271692 30437 net.cpp:165] Memory required for data: 750862336
I0417 17:15:56.271718 30437 layer_factory.hpp:77] Creating layer conv1_prescale
I0417 17:15:56.271733 30437 net.cpp:100] Creating Layer conv1_prescale
I0417 17:15:56.271741 30437 net.cpp:434] conv1_prescale <- conv1
I0417 17:15:56.271749 30437 net.cpp:395] conv1_prescale -> conv1 (in-place)
I0417 17:15:56.271910 30437 net.cpp:150] Setting up conv1_prescale
I0417 17:15:56.271924 30437 net.cpp:157] Top shape: 1024 100 42 42 (180633600)
I0417 17:15:56.271929 30437 net.cpp:165] Memory required for data: 1473396736
I0417 17:15:56.271937 30437 layer_factory.hpp:77] Creating layer conv1_sTanH
I0417 17:15:56.271948 30437 net.cpp:100] Creating Layer conv1_sTanH
I0417 17:15:56.271953 30437 net.cpp:434] conv1_sTanH <- conv1
I0417 17:15:56.271960 30437 net.cpp:395] conv1_sTanH -> conv1 (in-place)
I0417 17:15:56.272217 30437 net.cpp:150] Setting up conv1_sTanH
I0417 17:15:56.272256 30437 net.cpp:157] Top shape: 1024 100 42 42 (180633600)
I0417 17:15:56.272263 30437 net.cpp:165] Memory required for data: 2195931136
I0417 17:15:56.272267 30437 layer_factory.hpp:77] Creating layer conv1_postscale
I0417 17:15:56.272277 30437 net.cpp:100] Creating Layer conv1_postscale
I0417 17:15:56.272284 30437 net.cpp:434] conv1_postscale <- conv1
I0417 17:15:56.272291 30437 net.cpp:395] conv1_postscale -> conv1 (in-place)
I0417 17:15:56.272419 30437 net.cpp:150] Setting up conv1_postscale
I0417 17:15:56.272430 30437 net.cpp:157] Top shape: 1024 100 42 42 (180633600)
I0417 17:15:56.272434 30437 net.cpp:165] Memory required for data: 2918465536
I0417 17:15:56.272441 30437 layer_factory.hpp:77] Creating layer pool1
I0417 17:15:56.272450 30437 net.cpp:100] Creating Layer pool1
I0417 17:15:56.272454 30437 net.cpp:434] pool1 <- conv1
I0417 17:15:56.272461 30437 net.cpp:408] pool1 -> pool1
I0417 17:15:56.272519 30437 net.cpp:150] Setting up pool1
I0417 17:15:56.272529 30437 net.cpp:157] Top shape: 1024 100 21 21 (45158400)
I0417 17:15:56.272533 30437 net.cpp:165] Memory required for data: 3099099136
I0417 17:15:56.272537 30437 layer_factory.hpp:77] Creating layer conv2
I0417 17:15:56.272550 30437 net.cpp:100] Creating Layer conv2
I0417 17:15:56.272557 30437 net.cpp:434] conv2 <- pool1
I0417 17:15:56.272563 30437 net.cpp:408] conv2 -> conv2
I0417 17:15:56.299096 30437 net.cpp:150] Setting up conv2
I0417 17:15:56.299124 30437 net.cpp:157] Top shape: 1024 150 18 18 (49766400)
I0417 17:15:56.299129 30437 net.cpp:165] Memory required for data: 3298164736
I0417 17:15:56.299144 30437 layer_factory.hpp:77] Creating layer conv2_prescale
I0417 17:15:56.299162 30437 net.cpp:100] Creating Layer conv2_prescale
I0417 17:15:56.299170 30437 net.cpp:434] conv2_prescale <- conv2
I0417 17:15:56.299177 30437 net.cpp:395] conv2_prescale -> conv2 (in-place)
I0417 17:15:56.299324 30437 net.cpp:150] Setting up conv2_prescale
I0417 17:15:56.299336 30437 net.cpp:157] Top shape: 1024 150 18 18 (49766400)
I0417 17:15:56.299340 30437 net.cpp:165] Memory required for data: 3497230336
I0417 17:15:56.299346 30437 layer_factory.hpp:77] Creating layer conv2_sTanH
I0417 17:15:56.299355 30437 net.cpp:100] Creating Layer conv2_sTanH
I0417 17:15:56.299361 30437 net.cpp:434] conv2_sTanH <- conv2
I0417 17:15:56.299368 30437 net.cpp:395] conv2_sTanH -> conv2 (in-place)
I0417 17:15:56.301331 30437 net.cpp:150] Setting up conv2_sTanH
I0417 17:15:56.301352 30437 net.cpp:157] Top shape: 1024 150 18 18 (49766400)
I0417 17:15:56.301357 30437 net.cpp:165] Memory required for data: 3696295936
I0417 17:15:56.301362 30437 layer_factory.hpp:77] Creating layer conv2_postscale
I0417 17:15:56.301376 30437 net.cpp:100] Creating Layer conv2_postscale
I0417 17:15:56.301383 30437 net.cpp:434] conv2_postscale <- conv2
I0417 17:15:56.301391 30437 net.cpp:395] conv2_postscale -> conv2 (in-place)
I0417 17:15:56.301522 30437 net.cpp:150] Setting up conv2_postscale
I0417 17:15:56.301533 30437 net.cpp:157] Top shape: 1024 150 18 18 (49766400)
I0417 17:15:56.301539 30437 net.cpp:165] Memory required for data: 3895361536
I0417 17:15:56.301547 30437 layer_factory.hpp:77] Creating layer pool2
I0417 17:15:56.301556 30437 net.cpp:100] Creating Layer pool2
I0417 17:15:56.301561 30437 net.cpp:434] pool2 <- conv2
I0417 17:15:56.301570 30437 net.cpp:408] pool2 -> pool2
I0417 17:15:56.301627 30437 net.cpp:150] Setting up pool2
I0417 17:15:56.301637 30437 net.cpp:157] Top shape: 1024 150 9 9 (12441600)
I0417 17:15:56.301643 30437 net.cpp:165] Memory required for data: 3945127936
I0417 17:15:56.301647 30437 layer_factory.hpp:77] Creating layer conv3
I0417 17:15:56.301659 30437 net.cpp:100] Creating Layer conv3
I0417 17:15:56.301666 30437 net.cpp:434] conv3 <- pool2
I0417 17:15:56.301672 30437 net.cpp:408] conv3 -> conv3
I0417 17:15:56.310564 30437 net.cpp:150] Setting up conv3
I0417 17:15:56.310591 30437 net.cpp:157] Top shape: 1024 250 6 6 (9216000)
I0417 17:15:56.310597 30437 net.cpp:165] Memory required for data: 3981991936
I0417 17:15:56.310631 30437 layer_factory.hpp:77] Creating layer conv3_prescale
I0417 17:15:56.310644 30437 net.cpp:100] Creating Layer conv3_prescale
I0417 17:15:56.310652 30437 net.cpp:434] conv3_prescale <- conv3
I0417 17:15:56.310660 30437 net.cpp:395] conv3_prescale -> conv3 (in-place)
I0417 17:15:56.310781 30437 net.cpp:150] Setting up conv3_prescale
I0417 17:15:56.310794 30437 net.cpp:157] Top shape: 1024 250 6 6 (9216000)
I0417 17:15:56.310799 30437 net.cpp:165] Memory required for data: 4018855936
I0417 17:15:56.310806 30437 layer_factory.hpp:77] Creating layer conv3_sTanH
I0417 17:15:56.310814 30437 net.cpp:100] Creating Layer conv3_sTanH
I0417 17:15:56.310820 30437 net.cpp:434] conv3_sTanH <- conv3
I0417 17:15:56.310827 30437 net.cpp:395] conv3_sTanH -> conv3 (in-place)
I0417 17:15:56.315402 30437 net.cpp:150] Setting up conv3_sTanH
I0417 17:15:56.315425 30437 net.cpp:157] Top shape: 1024 250 6 6 (9216000)
I0417 17:15:56.315430 30437 net.cpp:165] Memory required for data: 4055719936
I0417 17:15:56.315434 30437 layer_factory.hpp:77] Creating layer conv3_postscale
I0417 17:15:56.315444 30437 net.cpp:100] Creating Layer conv3_postscale
I0417 17:15:56.315449 30437 net.cpp:434] conv3_postscale <- conv3
I0417 17:15:56.315459 30437 net.cpp:395] conv3_postscale -> conv3 (in-place)
I0417 17:15:56.315593 30437 net.cpp:150] Setting up conv3_postscale
I0417 17:15:56.315604 30437 net.cpp:157] Top shape: 1024 250 6 6 (9216000)
I0417 17:15:56.315608 30437 net.cpp:165] Memory required for data: 4092583936
I0417 17:15:56.315614 30437 layer_factory.hpp:77] Creating layer pool3
I0417 17:15:56.315627 30437 net.cpp:100] Creating Layer pool3
I0417 17:15:56.315634 30437 net.cpp:434] pool3 <- conv3
I0417 17:15:56.315640 30437 net.cpp:408] pool3 -> pool3
I0417 17:15:56.315693 30437 net.cpp:150] Setting up pool3
I0417 17:15:56.315703 30437 net.cpp:157] Top shape: 1024 250 3 3 (2304000)
I0417 17:15:56.315707 30437 net.cpp:165] Memory required for data: 4101799936
I0417 17:15:56.315711 30437 layer_factory.hpp:77] Creating layer fc4_300
I0417 17:15:56.315719 30437 net.cpp:100] Creating Layer fc4_300
I0417 17:15:56.315726 30437 net.cpp:434] fc4_300 <- pool3
I0417 17:15:56.315733 30437 net.cpp:408] fc4_300 -> fc4_300
I0417 17:15:56.324506 30437 net.cpp:150] Setting up fc4_300
I0417 17:15:56.324530 30437 net.cpp:157] Top shape: 1024 300 (307200)
I0417 17:15:56.324535 30437 net.cpp:165] Memory required for data: 4103028736
I0417 17:15:56.324544 30437 layer_factory.hpp:77] Creating layer fc4_prescale
I0417 17:15:56.324554 30437 net.cpp:100] Creating Layer fc4_prescale
I0417 17:15:56.324559 30437 net.cpp:434] fc4_prescale <- fc4_300
I0417 17:15:56.324566 30437 net.cpp:395] fc4_prescale -> fc4_300 (in-place)
I0417 17:15:56.324698 30437 net.cpp:150] Setting up fc4_prescale
I0417 17:15:56.324710 30437 net.cpp:157] Top shape: 1024 300 (307200)
I0417 17:15:56.324715 30437 net.cpp:165] Memory required for data: 4104257536
I0417 17:15:56.324722 30437 layer_factory.hpp:77] Creating layer fc4_sTanH
I0417 17:15:56.324730 30437 net.cpp:100] Creating Layer fc4_sTanH
I0417 17:15:56.324735 30437 net.cpp:434] fc4_sTanH <- fc4_300
I0417 17:15:56.324741 30437 net.cpp:395] fc4_sTanH -> fc4_300 (in-place)
I0417 17:15:56.324988 30437 net.cpp:150] Setting up fc4_sTanH
I0417 17:15:56.325006 30437 net.cpp:157] Top shape: 1024 300 (307200)
I0417 17:15:56.325011 30437 net.cpp:165] Memory required for data: 4105486336
I0417 17:15:56.325016 30437 layer_factory.hpp:77] Creating layer fc4_postscale
I0417 17:15:56.325024 30437 net.cpp:100] Creating Layer fc4_postscale
I0417 17:15:56.325031 30437 net.cpp:434] fc4_postscale <- fc4_300
I0417 17:15:56.325038 30437 net.cpp:395] fc4_postscale -> fc4_300 (in-place)
I0417 17:15:56.325162 30437 net.cpp:150] Setting up fc4_postscale
I0417 17:15:56.325172 30437 net.cpp:157] Top shape: 1024 300 (307200)
I0417 17:15:56.325178 30437 net.cpp:165] Memory required for data: 4106715136
I0417 17:15:56.325184 30437 layer_factory.hpp:77] Creating layer fc5_67
I0417 17:15:56.325196 30437 net.cpp:100] Creating Layer fc5_67
I0417 17:15:56.325201 30437 net.cpp:434] fc5_67 <- fc4_300
I0417 17:15:56.325227 30437 net.cpp:408] fc5_67 -> fc5_classes
I0417 17:15:56.329290 30437 net.cpp:150] Setting up fc5_67
I0417 17:15:56.329313 30437 net.cpp:157] Top shape: 1024 67 (68608)
I0417 17:15:56.329316 30437 net.cpp:165] Memory required for data: 4106989568
I0417 17:15:56.329330 30437 layer_factory.hpp:77] Creating layer fc5_classes_fc5_67_0_split
I0417 17:15:56.329344 30437 net.cpp:100] Creating Layer fc5_classes_fc5_67_0_split
I0417 17:15:56.329350 30437 net.cpp:434] fc5_classes_fc5_67_0_split <- fc5_classes
I0417 17:15:56.329360 30437 net.cpp:408] fc5_classes_fc5_67_0_split -> fc5_classes_fc5_67_0_split_0
I0417 17:15:56.329372 30437 net.cpp:408] fc5_classes_fc5_67_0_split -> fc5_classes_fc5_67_0_split_1
I0417 17:15:56.329383 30437 net.cpp:408] fc5_classes_fc5_67_0_split -> fc5_classes_fc5_67_0_split_2
I0417 17:15:56.329452 30437 net.cpp:150] Setting up fc5_classes_fc5_67_0_split
I0417 17:15:56.329462 30437 net.cpp:157] Top shape: 1024 67 (68608)
I0417 17:15:56.329466 30437 net.cpp:157] Top shape: 1024 67 (68608)
I0417 17:15:56.329470 30437 net.cpp:157] Top shape: 1024 67 (68608)
I0417 17:15:56.329473 30437 net.cpp:165] Memory required for data: 4107812864
I0417 17:15:56.329478 30437 layer_factory.hpp:77] Creating layer softmax
I0417 17:15:56.329485 30437 net.cpp:100] Creating Layer softmax
I0417 17:15:56.329490 30437 net.cpp:434] softmax <- fc5_classes_fc5_67_0_split_0
I0417 17:15:56.329500 30437 net.cpp:408] softmax -> softmax
I0417 17:15:56.329825 30437 net.cpp:150] Setting up softmax
I0417 17:15:56.329841 30437 net.cpp:157] Top shape: 1024 67 (68608)
I0417 17:15:56.329845 30437 net.cpp:165] Memory required for data: 4108087296
I0417 17:15:56.329849 30437 layer_factory.hpp:77] Creating layer loss
I0417 17:15:56.329857 30437 net.cpp:100] Creating Layer loss
I0417 17:15:56.329862 30437 net.cpp:434] loss <- softmax
I0417 17:15:56.329869 30437 net.cpp:434] loss <- label_data_1_split_0
I0417 17:15:56.329876 30437 net.cpp:408] loss -> loss
…
