…
I0414 04:26:15.085209 19395 solver.cpp:93] Creating training net from train_net file: ./Prototxt/experiment_11/rtsd-r1/orig/trial_1/train.prototxt
I0414 04:26:15.085676 19395 net.cpp:58] Initializing net from parameters: 
state {
  phase: TRAIN
  level: 0
  stage: ""
}
layer {
  name: "data"
  type: "Data"
  top: "data"
  top: "label"
  include {
    phase: TRAIN
  }
  transform_param {
    scale: 0.0039215689
    mirror: false
    crop_size: 48
    mean_value: 122
    mean_value: 115
    mean_value: 129
  }
  data_param {
    source: "../local_data/lmdb/rtsd-r1/orig/train/lmdb"
    batch_size: 1024
    backend: LMDB
  }
}
layer {
  name: "conv1"
  type: "Convolution"
  bottom: "data"
  top: "conv1"
  convolution_param {
    num_output: 100
    pad: 0
    kernel_size: 7
    group: 1
    stride: 1
    weight_filler {
      type: "xavier"
    }
  }
}
layer {
  name: "conv1_prescale"
  type: "Scale"
  bottom: "conv1"
  top: "conv1"
  param {
    lr_mult: 0
    decay_mult: 0
  }
  scale_param {
    filler {
      value: 0.6666
    }
    bias_term: false
  }
}
layer {
  name: "conv1_sTanH"
  type: "TanH"
  bottom: "conv1"
  top: "conv1"
}
layer {
  name: "conv1_postscale"
  type: "Scale"
  bottom: "conv1"
  top: "conv1"
  param {
    lr_mult: 0
    decay_mult: 0
  }
  scale_param {
    filler {
      value: 1.7159
    }
    bias_term: false
  }
}
layer {
  name: "pool1"
  type: "Pooling"
  bottom: "conv1"
  top: "pool1"
  pooling_param {
    pool: MAX
    kernel_size: 2
    stride: 2
  }
}
layer {
  name: "conv2"
  type: "Convolution"
  bottom: "pool1"
  top: "conv2"
  convolution_param {
    num_output: 150
    pad: 0
    kernel_size: 4
    group: 1
    stride: 1
    weight_filler {
      type: "xavier"
    }
  }
}
layer {
  name: "conv2_prescale"
  type: "Scale"
  bottom: "conv2"
  top: "conv2"
  param {
    lr_mult: 0
    decay_mult: 0
  }
  scale_param {
    filler {
      value: 0.6666
    }
    bias_term: false
  }
}
layer {
  name: "conv2_sTanH"
  type: "TanH"
  bottom: "conv2"
  top: "conv2"
}
layer {
  name: "conv2_postscale"
  type: "Scale"
  bottom: "conv2"
  top: "conv2"
  param {
    lr_mult: 0
    decay_mult: 0
  }
  scale_param {
    filler {
      value: 1.7159
    }
    bias_term: false
  }
}
layer {
  name: "pool2"
  type: "Pooling"
  bottom: "conv2"
  top: "pool2"
  pooling_param {
    pool: MAX
    kernel_size: 2
    stride: 2
  }
}
layer {
  name: "conv3"
  type: "Convolution"
  bottom: "pool2"
  top: "conv3"
  convolution_param {
    num_output: 250
    pad: 0
    kernel_size: 4
    group: 1
    stride: 1
    weight_filler {
      type: "xavier"
    }
  }
}
layer {
  name: "conv3_prescale"
  type: "Scale"
  bottom: "conv3"
  top: "conv3"
  param {
    lr_mult: 0
    decay_mult: 0
  }
  scale_param {
    filler {
      value: 0.6666
    }
    bias_term: false
  }
}
layer {
  name: "conv3_sTanH"
  type: "TanH"
  bottom: "conv3"
  top: "conv3"
}
layer {
  name: "conv3_postscale"
  type: "Scale"
  bottom: "conv3"
  top: "conv3"
  param {
    lr_mult: 0
    decay_mult: 0
  }
  scale_param {
    filler {
      value: 1.7159
    }
    bias_term: false
  }
}
layer {
  name: "pool3"
  type: "Pooling"
  bottom: "conv3"
  top: "pool3"
  pooling_param {
    pool: MAX
    kernel_size: 2
    stride: 2
  }
}
layer {
  name: "fc4_300"
  type: "InnerProduct"
  bottom: "pool3"
  top: "fc4_300"
  inner_product_param {
    num_output: 300
    weight_filler {
      type: "xavier"
    }
  }
}
layer {
  name: "fc4_prescale"
  type: "Scale"
  bottom: "fc4_300"
  top: "fc4_300"
  param {
    lr_mult: 0
    decay_mult: 0
  }
  scale_param {
    filler {
      value: 0.6666
    }
    bias_term: false
  }
}
layer {
  name: "fc4_sTanH"
  type: "TanH"
  bottom: "fc4_300"
  top: "fc4_300"
}
layer {
  name: "fc4_postscale"
  type: "Scale"
  bottom: "fc4_300"
  top: "fc4_300"
  param {
    lr_mult: 0
    decay_mult: 0
  }
  scale_param {
    filler {
      value: 1.7159
    }
    bias_term: false
  }
}
layer {
  name: "fc5_67"
  type: "InnerProduct"
  bottom: "fc4_300"
  top: "fc5_classes"
  inner_product_param {
    num_output: 67
    weight_filler {
      type: "xavier"
    }
  }
}
layer {
  name: "softmax"
  type: "Softmax"
  bottom: "fc5_classes"
  top: "softmax"
}
layer {
  name: "loss"
  type: "MultinomialLogisticLoss"
  bottom: "softmax"
  bottom: "label"
  top: "loss"
}
layer {
  name: "accuracy_1"
  type: "Accuracy"
  bottom: "fc5_classes"
  bottom: "label"
  top: "accuracy_1"
  accuracy_param {
    top_k: 1
  }
}
layer {
  name: "accuracy_5"
  type: "Accuracy"
  bottom: "fc5_classes"
  bottom: "label"
  top: "accuracy_5"
  accuracy_param {
    top_k: 5
  }
}
layer {
  name: "silence"
  type: "Silence"
  bottom: "accuracy_1"
  bottom: "accuracy_5"
}
I0414 04:26:15.085834 19395 layer_factory.hpp:77] Creating layer data
I0414 04:26:15.086928 19395 net.cpp:100] Creating Layer data
I0414 04:26:15.086946 19395 net.cpp:408] data -> data
I0414 04:26:15.086968 19395 net.cpp:408] data -> label
I0414 04:26:15.090334 19516 db_lmdb.cpp:35] Opened lmdb ../local_data/lmdb/rtsd-r1/orig/train/lmdb
I0414 04:26:15.117259 19395 data_layer.cpp:41] output data size: 1024,3,48,48
I0414 04:26:15.202364 19395 net.cpp:150] Setting up data
I0414 04:26:15.202395 19395 net.cpp:157] Top shape: 1024 3 48 48 (7077888)
I0414 04:26:15.202401 19395 net.cpp:157] Top shape: 1024 (1024)
I0414 04:26:15.202404 19395 net.cpp:165] Memory required for data: 28315648
I0414 04:26:15.202416 19395 layer_factory.hpp:77] Creating layer label_data_1_split
I0414 04:26:15.202430 19395 net.cpp:100] Creating Layer label_data_1_split
I0414 04:26:15.202438 19395 net.cpp:434] label_data_1_split <- label
I0414 04:26:15.202453 19395 net.cpp:408] label_data_1_split -> label_data_1_split_0
I0414 04:26:15.202472 19395 net.cpp:408] label_data_1_split -> label_data_1_split_1
I0414 04:26:15.202481 19395 net.cpp:408] label_data_1_split -> label_data_1_split_2
I0414 04:26:15.202579 19395 net.cpp:150] Setting up label_data_1_split
I0414 04:26:15.202590 19395 net.cpp:157] Top shape: 1024 (1024)
I0414 04:26:15.202594 19395 net.cpp:157] Top shape: 1024 (1024)
I0414 04:26:15.202599 19395 net.cpp:157] Top shape: 1024 (1024)
I0414 04:26:15.202601 19395 net.cpp:165] Memory required for data: 28327936
I0414 04:26:15.202605 19395 layer_factory.hpp:77] Creating layer conv1
I0414 04:26:15.202625 19395 net.cpp:100] Creating Layer conv1
I0414 04:26:15.202631 19395 net.cpp:434] conv1 <- data
I0414 04:26:15.202638 19395 net.cpp:408] conv1 -> conv1
I0414 04:26:15.609194 19395 net.cpp:150] Setting up conv1
I0414 04:26:15.609221 19395 net.cpp:157] Top shape: 1024 100 42 42 (180633600)
I0414 04:26:15.609225 19395 net.cpp:165] Memory required for data: 750862336
I0414 04:26:15.609248 19395 layer_factory.hpp:77] Creating layer conv1_prescale
I0414 04:26:15.609261 19395 net.cpp:100] Creating Layer conv1_prescale
I0414 04:26:15.609266 19395 net.cpp:434] conv1_prescale <- conv1
I0414 04:26:15.609272 19395 net.cpp:395] conv1_prescale -> conv1 (in-place)
I0414 04:26:15.609382 19395 net.cpp:150] Setting up conv1_prescale
I0414 04:26:15.609393 19395 net.cpp:157] Top shape: 1024 100 42 42 (180633600)
I0414 04:26:15.609396 19395 net.cpp:165] Memory required for data: 1473396736
I0414 04:26:15.609403 19395 layer_factory.hpp:77] Creating layer conv1_sTanH
I0414 04:26:15.609411 19395 net.cpp:100] Creating Layer conv1_sTanH
I0414 04:26:15.609417 19395 net.cpp:434] conv1_sTanH <- conv1
I0414 04:26:15.609421 19395 net.cpp:395] conv1_sTanH -> conv1 (in-place)
I0414 04:26:15.609678 19395 net.cpp:150] Setting up conv1_sTanH
I0414 04:26:15.609699 19395 net.cpp:157] Top shape: 1024 100 42 42 (180633600)
I0414 04:26:15.609732 19395 net.cpp:165] Memory required for data: 2195931136
I0414 04:26:15.609740 19395 layer_factory.hpp:77] Creating layer conv1_postscale
I0414 04:26:15.609751 19395 net.cpp:100] Creating Layer conv1_postscale
I0414 04:26:15.609760 19395 net.cpp:434] conv1_postscale <- conv1
I0414 04:26:15.609769 19395 net.cpp:395] conv1_postscale -> conv1 (in-place)
I0414 04:26:15.609906 19395 net.cpp:150] Setting up conv1_postscale
I0414 04:26:15.609920 19395 net.cpp:157] Top shape: 1024 100 42 42 (180633600)
I0414 04:26:15.609928 19395 net.cpp:165] Memory required for data: 2918465536
I0414 04:26:15.609936 19395 layer_factory.hpp:77] Creating layer pool1
I0414 04:26:15.609946 19395 net.cpp:100] Creating Layer pool1
I0414 04:26:15.609954 19395 net.cpp:434] pool1 <- conv1
I0414 04:26:15.609962 19395 net.cpp:408] pool1 -> pool1
I0414 04:26:15.610030 19395 net.cpp:150] Setting up pool1
I0414 04:26:15.610044 19395 net.cpp:157] Top shape: 1024 100 21 21 (45158400)
I0414 04:26:15.610050 19395 net.cpp:165] Memory required for data: 3099099136
I0414 04:26:15.610055 19395 layer_factory.hpp:77] Creating layer conv2
I0414 04:26:15.610070 19395 net.cpp:100] Creating Layer conv2
I0414 04:26:15.610077 19395 net.cpp:434] conv2 <- pool1
I0414 04:26:15.610086 19395 net.cpp:408] conv2 -> conv2
I0414 04:26:15.617694 19395 net.cpp:150] Setting up conv2
I0414 04:26:15.617714 19395 net.cpp:157] Top shape: 1024 150 18 18 (49766400)
I0414 04:26:15.617718 19395 net.cpp:165] Memory required for data: 3298164736
I0414 04:26:15.617729 19395 layer_factory.hpp:77] Creating layer conv2_prescale
I0414 04:26:15.617739 19395 net.cpp:100] Creating Layer conv2_prescale
I0414 04:26:15.617743 19395 net.cpp:434] conv2_prescale <- conv2
I0414 04:26:15.617748 19395 net.cpp:395] conv2_prescale -> conv2 (in-place)
I0414 04:26:15.617858 19395 net.cpp:150] Setting up conv2_prescale
I0414 04:26:15.617868 19395 net.cpp:157] Top shape: 1024 150 18 18 (49766400)
I0414 04:26:15.617871 19395 net.cpp:165] Memory required for data: 3497230336
I0414 04:26:15.617877 19395 layer_factory.hpp:77] Creating layer conv2_sTanH
I0414 04:26:15.617882 19395 net.cpp:100] Creating Layer conv2_sTanH
I0414 04:26:15.617884 19395 net.cpp:434] conv2_sTanH <- conv2
I0414 04:26:15.617889 19395 net.cpp:395] conv2_sTanH -> conv2 (in-place)
I0414 04:26:15.618674 19395 net.cpp:150] Setting up conv2_sTanH
I0414 04:26:15.618691 19395 net.cpp:157] Top shape: 1024 150 18 18 (49766400)
I0414 04:26:15.618695 19395 net.cpp:165] Memory required for data: 3696295936
I0414 04:26:15.618698 19395 layer_factory.hpp:77] Creating layer conv2_postscale
I0414 04:26:15.618707 19395 net.cpp:100] Creating Layer conv2_postscale
I0414 04:26:15.618711 19395 net.cpp:434] conv2_postscale <- conv2
I0414 04:26:15.618718 19395 net.cpp:395] conv2_postscale -> conv2 (in-place)
I0414 04:26:15.618818 19395 net.cpp:150] Setting up conv2_postscale
I0414 04:26:15.618827 19395 net.cpp:157] Top shape: 1024 150 18 18 (49766400)
I0414 04:26:15.618830 19395 net.cpp:165] Memory required for data: 3895361536
I0414 04:26:15.618834 19395 layer_factory.hpp:77] Creating layer pool2
I0414 04:26:15.618842 19395 net.cpp:100] Creating Layer pool2
I0414 04:26:15.618845 19395 net.cpp:434] pool2 <- conv2
I0414 04:26:15.618851 19395 net.cpp:408] pool2 -> pool2
I0414 04:26:15.618896 19395 net.cpp:150] Setting up pool2
I0414 04:26:15.618904 19395 net.cpp:157] Top shape: 1024 150 9 9 (12441600)
I0414 04:26:15.618907 19395 net.cpp:165] Memory required for data: 3945127936
I0414 04:26:15.618911 19395 layer_factory.hpp:77] Creating layer conv3
I0414 04:26:15.618919 19395 net.cpp:100] Creating Layer conv3
I0414 04:26:15.618922 19395 net.cpp:434] conv3 <- pool2
I0414 04:26:15.618929 19395 net.cpp:408] conv3 -> conv3
I0414 04:26:15.624496 19395 net.cpp:150] Setting up conv3
I0414 04:26:15.624514 19395 net.cpp:157] Top shape: 1024 250 6 6 (9216000)
I0414 04:26:15.624518 19395 net.cpp:165] Memory required for data: 3981991936
I0414 04:26:15.624528 19395 layer_factory.hpp:77] Creating layer conv3_prescale
I0414 04:26:15.624552 19395 net.cpp:100] Creating Layer conv3_prescale
I0414 04:26:15.624555 19395 net.cpp:434] conv3_prescale <- conv3
I0414 04:26:15.624562 19395 net.cpp:395] conv3_prescale -> conv3 (in-place)
I0414 04:26:15.624665 19395 net.cpp:150] Setting up conv3_prescale
I0414 04:26:15.624675 19395 net.cpp:157] Top shape: 1024 250 6 6 (9216000)
I0414 04:26:15.624677 19395 net.cpp:165] Memory required for data: 4018855936
I0414 04:26:15.624681 19395 layer_factory.hpp:77] Creating layer conv3_sTanH
I0414 04:26:15.624687 19395 net.cpp:100] Creating Layer conv3_sTanH
I0414 04:26:15.624691 19395 net.cpp:434] conv3_sTanH <- conv3
I0414 04:26:15.624696 19395 net.cpp:395] conv3_sTanH -> conv3 (in-place)
I0414 04:26:15.625463 19395 net.cpp:150] Setting up conv3_sTanH
I0414 04:26:15.625480 19395 net.cpp:157] Top shape: 1024 250 6 6 (9216000)
I0414 04:26:15.625483 19395 net.cpp:165] Memory required for data: 4055719936
I0414 04:26:15.625486 19395 layer_factory.hpp:77] Creating layer conv3_postscale
I0414 04:26:15.625495 19395 net.cpp:100] Creating Layer conv3_postscale
I0414 04:26:15.625499 19395 net.cpp:434] conv3_postscale <- conv3
I0414 04:26:15.625504 19395 net.cpp:395] conv3_postscale -> conv3 (in-place)
I0414 04:26:15.625608 19395 net.cpp:150] Setting up conv3_postscale
I0414 04:26:15.625618 19395 net.cpp:157] Top shape: 1024 250 6 6 (9216000)
I0414 04:26:15.625622 19395 net.cpp:165] Memory required for data: 4092583936
I0414 04:26:15.625627 19395 layer_factory.hpp:77] Creating layer pool3
I0414 04:26:15.625635 19395 net.cpp:100] Creating Layer pool3
I0414 04:26:15.625641 19395 net.cpp:434] pool3 <- conv3
I0414 04:26:15.625646 19395 net.cpp:408] pool3 -> pool3
I0414 04:26:15.625689 19395 net.cpp:150] Setting up pool3
I0414 04:26:15.625697 19395 net.cpp:157] Top shape: 1024 250 3 3 (2304000)
I0414 04:26:15.625699 19395 net.cpp:165] Memory required for data: 4101799936
I0414 04:26:15.625702 19395 layer_factory.hpp:77] Creating layer fc4_300
I0414 04:26:15.625710 19395 net.cpp:100] Creating Layer fc4_300
I0414 04:26:15.625712 19395 net.cpp:434] fc4_300 <- pool3
I0414 04:26:15.625720 19395 net.cpp:408] fc4_300 -> fc4_300
I0414 04:26:15.631811 19395 net.cpp:150] Setting up fc4_300
I0414 04:26:15.631830 19395 net.cpp:157] Top shape: 1024 300 (307200)
I0414 04:26:15.631834 19395 net.cpp:165] Memory required for data: 4103028736
I0414 04:26:15.631841 19395 layer_factory.hpp:77] Creating layer fc4_prescale
I0414 04:26:15.631849 19395 net.cpp:100] Creating Layer fc4_prescale
I0414 04:26:15.631852 19395 net.cpp:434] fc4_prescale <- fc4_300
I0414 04:26:15.631860 19395 net.cpp:395] fc4_prescale -> fc4_300 (in-place)
I0414 04:26:15.631964 19395 net.cpp:150] Setting up fc4_prescale
I0414 04:26:15.631976 19395 net.cpp:157] Top shape: 1024 300 (307200)
I0414 04:26:15.631979 19395 net.cpp:165] Memory required for data: 4104257536
I0414 04:26:15.631984 19395 layer_factory.hpp:77] Creating layer fc4_sTanH
I0414 04:26:15.631990 19395 net.cpp:100] Creating Layer fc4_sTanH
I0414 04:26:15.631994 19395 net.cpp:434] fc4_sTanH <- fc4_300
I0414 04:26:15.631999 19395 net.cpp:395] fc4_sTanH -> fc4_300 (in-place)
I0414 04:26:15.632196 19395 net.cpp:150] Setting up fc4_sTanH
I0414 04:26:15.632208 19395 net.cpp:157] Top shape: 1024 300 (307200)
I0414 04:26:15.632213 19395 net.cpp:165] Memory required for data: 4105486336
I0414 04:26:15.632216 19395 layer_factory.hpp:77] Creating layer fc4_postscale
I0414 04:26:15.632223 19395 net.cpp:100] Creating Layer fc4_postscale
I0414 04:26:15.632226 19395 net.cpp:434] fc4_postscale <- fc4_300
I0414 04:26:15.632235 19395 net.cpp:395] fc4_postscale -> fc4_300 (in-place)
I0414 04:26:15.632339 19395 net.cpp:150] Setting up fc4_postscale
I0414 04:26:15.632346 19395 net.cpp:157] Top shape: 1024 300 (307200)
I0414 04:26:15.632349 19395 net.cpp:165] Memory required for data: 4106715136
I0414 04:26:15.632354 19395 layer_factory.hpp:77] Creating layer fc5_67
I0414 04:26:15.632360 19395 net.cpp:100] Creating Layer fc5_67
I0414 04:26:15.632364 19395 net.cpp:434] fc5_67 <- fc4_300
I0414 04:26:15.632371 19395 net.cpp:408] fc5_67 -> fc5_classes
I0414 04:26:15.635229 19395 net.cpp:150] Setting up fc5_67
I0414 04:26:15.635246 19395 net.cpp:157] Top shape: 1024 67 (68608)
I0414 04:26:15.635251 19395 net.cpp:165] Memory required for data: 4106989568
I0414 04:26:15.635262 19395 layer_factory.hpp:77] Creating layer fc5_classes_fc5_67_0_split
I0414 04:26:15.635272 19395 net.cpp:100] Creating Layer fc5_classes_fc5_67_0_split
I0414 04:26:15.635278 19395 net.cpp:434] fc5_classes_fc5_67_0_split <- fc5_classes
I0414 04:26:15.635284 19395 net.cpp:408] fc5_classes_fc5_67_0_split -> fc5_classes_fc5_67_0_split_0
I0414 04:26:15.635294 19395 net.cpp:408] fc5_classes_fc5_67_0_split -> fc5_classes_fc5_67_0_split_1
I0414 04:26:15.635301 19395 net.cpp:408] fc5_classes_fc5_67_0_split -> fc5_classes_fc5_67_0_split_2
I0414 04:26:15.635356 19395 net.cpp:150] Setting up fc5_classes_fc5_67_0_split
I0414 04:26:15.635363 19395 net.cpp:157] Top shape: 1024 67 (68608)
I0414 04:26:15.635367 19395 net.cpp:157] Top shape: 1024 67 (68608)
I0414 04:26:15.635370 19395 net.cpp:157] Top shape: 1024 67 (68608)
I0414 04:26:15.635372 19395 net.cpp:165] Memory required for data: 4107812864
I0414 04:26:15.635375 19395 layer_factory.hpp:77] Creating layer softmax
I0414 04:26:15.635382 19395 net.cpp:100] Creating Layer softmax
I0414 04:26:15.635386 19395 net.cpp:434] softmax <- fc5_classes_fc5_67_0_split_0
I0414 04:26:15.635395 19395 net.cpp:408] softmax -> softmax
I0414 04:26:15.635661 19395 net.cpp:150] Setting up softmax
I0414 04:26:15.635674 19395 net.cpp:157] Top shape: 1024 67 (68608)
I0414 04:26:15.635679 19395 net.cpp:165] Memory required for data: 4108087296
I0414 04:26:15.635682 19395 layer_factory.hpp:77] Creating layer loss
I0414 04:26:15.635690 19395 net.cpp:100] Creating Layer loss
I0414 04:26:15.635696 19395 net.cpp:434] loss <- softmax
I0414 04:26:15.635700 19395 net.cpp:434] loss <- label_data_1_split_0
I0414 04:26:15.635707 19395 net.cpp:408] loss -> loss
…
