…
I0528 21:26:13.145427  5778 solver.cpp:81] Creating training net from train_net file: ./Prototxt/experiment_22/RTSD/CoNorm/trial_3/train.prototxt
I0528 21:26:13.145797  5778 net.cpp:58] Initializing net from parameters: 
state {
  phase: TRAIN
  level: 0
  stage: ""
}
layer {
  name: "data"
  type: "Data"
  top: "data"
  top: "label"
  include {
    phase: TRAIN
  }
  transform_param {
    scale: 0.0039215689
    mirror: false
    crop_size: 48
    mean_value: 135
    mean_value: 135
    mean_value: 134
  }
  data_param {
    source: "../local_data/lmdb/RTSD/CoNorm/train/lmdb"
    batch_size: 1024
    backend: LMDB
  }
}
layer {
  name: "conv1"
  type: "Convolution"
  bottom: "data"
  top: "conv1"
  convolution_param {
    num_output: 100
    pad: 0
    kernel_size: 7
    group: 1
    stride: 1
    weight_filler {
      type: "xavier"
    }
  }
}
layer {
  name: "conv1_relu"
  type: "ReLU"
  bottom: "conv1"
  top: "conv1"
}
layer {
  name: "pool1"
  type: "Pooling"
  bottom: "conv1"
  top: "pool1"
  pooling_param {
    pool: MAX
    kernel_size: 2
    stride: 2
  }
}
layer {
  name: "conv2"
  type: "Convolution"
  bottom: "pool1"
  top: "conv2"
  convolution_param {
    num_output: 150
    pad: 0
    kernel_size: 4
    group: 1
    stride: 1
    weight_filler {
      type: "xavier"
    }
  }
}
layer {
  name: "conv2_relu"
  type: "ReLU"
  bottom: "conv2"
  top: "conv2"
}
layer {
  name: "pool2"
  type: "Pooling"
  bottom: "conv2"
  top: "pool2"
  pooling_param {
    pool: MAX
    kernel_size: 2
    stride: 2
  }
}
layer {
  name: "conv3"
  type: "Convolution"
  bottom: "pool2"
  top: "conv3"
  convolution_param {
    num_output: 250
    pad: 0
    kernel_size: 4
    group: 1
    stride: 1
    weight_filler {
      type: "xavier"
    }
  }
}
layer {
  name: "conv3_relu"
  type: "ReLU"
  bottom: "conv3"
  top: "conv3"
}
layer {
  name: "pool3"
  type: "Pooling"
  bottom: "conv3"
  top: "pool3"
  pooling_param {
    pool: MAX
    kernel_size: 2
    stride: 2
  }
}
layer {
  name: "fc4_300"
  type: "InnerProduct"
  bottom: "pool3"
  top: "fc4_300"
  inner_product_param {
    num_output: 300
    weight_filler {
      type: "xavier"
    }
  }
}
layer {
  name: "fc4_relu"
  type: "ReLU"
  bottom: "fc4_300"
  top: "fc4_300"
}
layer {
  name: "fc5_116"
  type: "InnerProduct"
  bottom: "fc4_300"
  top: "fc5_classes"
  inner_product_param {
    num_output: 116
    weight_filler {
      type: "xavier"
    }
  }
}
layer {
  name: "softmax"
  type: "Softmax"
  bottom: "fc5_classes"
  top: "softmax"
}
layer {
  name: "loss"
  type: "MultinomialLogisticLoss"
  bottom: "softmax"
  bottom: "label"
  top: "loss"
}
layer {
  name: "accuracy_1"
  type: "Accuracy"
  bottom: "fc5_classes"
  bottom: "label"
  top: "accuracy_1"
  accuracy_param {
    top_k: 1
  }
}
layer {
  name: "accuracy_5"
  type: "Accuracy"
  bottom: "fc5_classes"
  bottom: "label"
  top: "accuracy_5"
  accuracy_param {
    top_k: 5
  }
}
layer {
  name: "silence"
  type: "Silence"
  bottom: "accuracy_1"
  bottom: "accuracy_5"
}
I0528 21:26:13.145897  5778 layer_factory.hpp:77] Creating layer data
I0528 21:26:13.146723  5778 net.cpp:100] Creating Layer data
I0528 21:26:13.146736  5778 net.cpp:408] data -> data
I0528 21:26:13.146761  5778 net.cpp:408] data -> label
I0528 21:26:13.147454  5816 db_lmdb.cpp:35] Opened lmdb ../local_data/lmdb/RTSD/CoNorm/train/lmdb
I0528 21:26:13.172947  5778 data_layer.cpp:41] output data size: 1024,3,48,48
I0528 21:26:13.219377  5778 net.cpp:150] Setting up data
I0528 21:26:13.219426  5778 net.cpp:157] Top shape: 1024 3 48 48 (7077888)
I0528 21:26:13.219434  5778 net.cpp:157] Top shape: 1024 (1024)
I0528 21:26:13.219437  5778 net.cpp:165] Memory required for data: 28315648
I0528 21:26:13.219446  5778 layer_factory.hpp:77] Creating layer label_data_1_split
I0528 21:26:13.219458  5778 net.cpp:100] Creating Layer label_data_1_split
I0528 21:26:13.219463  5778 net.cpp:434] label_data_1_split <- label
I0528 21:26:13.219475  5778 net.cpp:408] label_data_1_split -> label_data_1_split_0
I0528 21:26:13.219483  5778 net.cpp:408] label_data_1_split -> label_data_1_split_1
I0528 21:26:13.219491  5778 net.cpp:408] label_data_1_split -> label_data_1_split_2
I0528 21:26:13.219542  5778 net.cpp:150] Setting up label_data_1_split
I0528 21:26:13.219552  5778 net.cpp:157] Top shape: 1024 (1024)
I0528 21:26:13.219555  5778 net.cpp:157] Top shape: 1024 (1024)
I0528 21:26:13.219559  5778 net.cpp:157] Top shape: 1024 (1024)
I0528 21:26:13.219563  5778 net.cpp:165] Memory required for data: 28327936
I0528 21:26:13.219568  5778 layer_factory.hpp:77] Creating layer conv1
I0528 21:26:13.219581  5778 net.cpp:100] Creating Layer conv1
I0528 21:26:13.219588  5778 net.cpp:434] conv1 <- data
I0528 21:26:13.219594  5778 net.cpp:408] conv1 -> conv1
I0528 21:26:13.443212  5778 net.cpp:150] Setting up conv1
I0528 21:26:13.443254  5778 net.cpp:157] Top shape: 1024 100 42 42 (180633600)
I0528 21:26:13.443259  5778 net.cpp:165] Memory required for data: 750862336
I0528 21:26:13.443284  5778 layer_factory.hpp:77] Creating layer conv1_relu
I0528 21:26:13.443301  5778 net.cpp:100] Creating Layer conv1_relu
I0528 21:26:13.443310  5778 net.cpp:434] conv1_relu <- conv1
I0528 21:26:13.443316  5778 net.cpp:395] conv1_relu -> conv1 (in-place)
I0528 21:26:13.443462  5778 net.cpp:150] Setting up conv1_relu
I0528 21:26:13.443472  5778 net.cpp:157] Top shape: 1024 100 42 42 (180633600)
I0528 21:26:13.443476  5778 net.cpp:165] Memory required for data: 1473396736
I0528 21:26:13.443480  5778 layer_factory.hpp:77] Creating layer pool1
I0528 21:26:13.443497  5778 net.cpp:100] Creating Layer pool1
I0528 21:26:13.443503  5778 net.cpp:434] pool1 <- conv1
I0528 21:26:13.443509  5778 net.cpp:408] pool1 -> pool1
I0528 21:26:13.443555  5778 net.cpp:150] Setting up pool1
I0528 21:26:13.443562  5778 net.cpp:157] Top shape: 1024 100 21 21 (45158400)
I0528 21:26:13.443567  5778 net.cpp:165] Memory required for data: 1654030336
I0528 21:26:13.443570  5778 layer_factory.hpp:77] Creating layer conv2
I0528 21:26:13.443588  5778 net.cpp:100] Creating Layer conv2
I0528 21:26:13.443593  5778 net.cpp:434] conv2 <- pool1
I0528 21:26:13.443598  5778 net.cpp:408] conv2 -> conv2
I0528 21:26:13.446496  5778 net.cpp:150] Setting up conv2
I0528 21:26:13.446516  5778 net.cpp:157] Top shape: 1024 150 18 18 (49766400)
I0528 21:26:13.446521  5778 net.cpp:165] Memory required for data: 1853095936
I0528 21:26:13.446530  5778 layer_factory.hpp:77] Creating layer conv2_relu
I0528 21:26:13.446537  5778 net.cpp:100] Creating Layer conv2_relu
I0528 21:26:13.446542  5778 net.cpp:434] conv2_relu <- conv2
I0528 21:26:13.446548  5778 net.cpp:395] conv2_relu -> conv2 (in-place)
I0528 21:26:13.446676  5778 net.cpp:150] Setting up conv2_relu
I0528 21:26:13.446686  5778 net.cpp:157] Top shape: 1024 150 18 18 (49766400)
I0528 21:26:13.446691  5778 net.cpp:165] Memory required for data: 2052161536
I0528 21:26:13.446694  5778 layer_factory.hpp:77] Creating layer pool2
I0528 21:26:13.446704  5778 net.cpp:100] Creating Layer pool2
I0528 21:26:13.446710  5778 net.cpp:434] pool2 <- conv2
I0528 21:26:13.446718  5778 net.cpp:408] pool2 -> pool2
I0528 21:26:13.446758  5778 net.cpp:150] Setting up pool2
I0528 21:26:13.446766  5778 net.cpp:157] Top shape: 1024 150 9 9 (12441600)
I0528 21:26:13.446769  5778 net.cpp:165] Memory required for data: 2101927936
I0528 21:26:13.446774  5778 layer_factory.hpp:77] Creating layer conv3
I0528 21:26:13.446786  5778 net.cpp:100] Creating Layer conv3
I0528 21:26:13.446791  5778 net.cpp:434] conv3 <- pool2
I0528 21:26:13.446797  5778 net.cpp:408] conv3 -> conv3
I0528 21:26:13.451535  5778 net.cpp:150] Setting up conv3
I0528 21:26:13.451557  5778 net.cpp:157] Top shape: 1024 250 6 6 (9216000)
I0528 21:26:13.451562  5778 net.cpp:165] Memory required for data: 2138791936
I0528 21:26:13.451573  5778 layer_factory.hpp:77] Creating layer conv3_relu
I0528 21:26:13.451583  5778 net.cpp:100] Creating Layer conv3_relu
I0528 21:26:13.451588  5778 net.cpp:434] conv3_relu <- conv3
I0528 21:26:13.451594  5778 net.cpp:395] conv3_relu -> conv3 (in-place)
I0528 21:26:13.451930  5778 net.cpp:150] Setting up conv3_relu
I0528 21:26:13.451942  5778 net.cpp:157] Top shape: 1024 250 6 6 (9216000)
I0528 21:26:13.451946  5778 net.cpp:165] Memory required for data: 2175655936
I0528 21:26:13.451951  5778 layer_factory.hpp:77] Creating layer pool3
I0528 21:26:13.451957  5778 net.cpp:100] Creating Layer pool3
I0528 21:26:13.451961  5778 net.cpp:434] pool3 <- conv3
I0528 21:26:13.451968  5778 net.cpp:408] pool3 -> pool3
I0528 21:26:13.452003  5778 net.cpp:150] Setting up pool3
I0528 21:26:13.452013  5778 net.cpp:157] Top shape: 1024 250 3 3 (2304000)
I0528 21:26:13.452015  5778 net.cpp:165] Memory required for data: 2184871936
I0528 21:26:13.452019  5778 layer_factory.hpp:77] Creating layer fc4_300
I0528 21:26:13.452028  5778 net.cpp:100] Creating Layer fc4_300
I0528 21:26:13.452031  5778 net.cpp:434] fc4_300 <- pool3
I0528 21:26:13.452036  5778 net.cpp:408] fc4_300 -> fc4_300
I0528 21:26:13.456431  5778 net.cpp:150] Setting up fc4_300
I0528 21:26:13.456449  5778 net.cpp:157] Top shape: 1024 300 (307200)
I0528 21:26:13.456454  5778 net.cpp:165] Memory required for data: 2186100736
I0528 21:26:13.456460  5778 layer_factory.hpp:77] Creating layer fc4_relu
I0528 21:26:13.456467  5778 net.cpp:100] Creating Layer fc4_relu
I0528 21:26:13.456471  5778 net.cpp:434] fc4_relu <- fc4_300
I0528 21:26:13.456481  5778 net.cpp:395] fc4_relu -> fc4_300 (in-place)
I0528 21:26:13.456615  5778 net.cpp:150] Setting up fc4_relu
I0528 21:26:13.456626  5778 net.cpp:157] Top shape: 1024 300 (307200)
I0528 21:26:13.456630  5778 net.cpp:165] Memory required for data: 2187329536
I0528 21:26:13.456634  5778 layer_factory.hpp:77] Creating layer fc5_116
I0528 21:26:13.456642  5778 net.cpp:100] Creating Layer fc5_116
I0528 21:26:13.456650  5778 net.cpp:434] fc5_116 <- fc4_300
I0528 21:26:13.456655  5778 net.cpp:408] fc5_116 -> fc5_classes
I0528 21:26:13.457656  5778 net.cpp:150] Setting up fc5_116
I0528 21:26:13.457669  5778 net.cpp:157] Top shape: 1024 116 (118784)
I0528 21:26:13.457674  5778 net.cpp:165] Memory required for data: 2187804672
I0528 21:26:13.457681  5778 layer_factory.hpp:77] Creating layer fc5_classes_fc5_116_0_split
I0528 21:26:13.457690  5778 net.cpp:100] Creating Layer fc5_classes_fc5_116_0_split
I0528 21:26:13.457693  5778 net.cpp:434] fc5_classes_fc5_116_0_split <- fc5_classes
I0528 21:26:13.457700  5778 net.cpp:408] fc5_classes_fc5_116_0_split -> fc5_classes_fc5_116_0_split_0
I0528 21:26:13.457705  5778 net.cpp:408] fc5_classes_fc5_116_0_split -> fc5_classes_fc5_116_0_split_1
I0528 21:26:13.457710  5778 net.cpp:408] fc5_classes_fc5_116_0_split -> fc5_classes_fc5_116_0_split_2
I0528 21:26:13.457753  5778 net.cpp:150] Setting up fc5_classes_fc5_116_0_split
I0528 21:26:13.457762  5778 net.cpp:157] Top shape: 1024 116 (118784)
I0528 21:26:13.457767  5778 net.cpp:157] Top shape: 1024 116 (118784)
I0528 21:26:13.457772  5778 net.cpp:157] Top shape: 1024 116 (118784)
I0528 21:26:13.457774  5778 net.cpp:165] Memory required for data: 2189230080
I0528 21:26:13.457779  5778 layer_factory.hpp:77] Creating layer softmax
I0528 21:26:13.457784  5778 net.cpp:100] Creating Layer softmax
I0528 21:26:13.457788  5778 net.cpp:434] softmax <- fc5_classes_fc5_116_0_split_0
I0528 21:26:13.457794  5778 net.cpp:408] softmax -> softmax
I0528 21:26:13.457978  5778 net.cpp:150] Setting up softmax
I0528 21:26:13.457993  5778 net.cpp:157] Top shape: 1024 116 (118784)
I0528 21:26:13.457998  5778 net.cpp:165] Memory required for data: 2189705216
I0528 21:26:13.458004  5778 layer_factory.hpp:77] Creating layer loss
I0528 21:26:13.458039  5778 net.cpp:100] Creating Layer loss
I0528 21:26:13.458047  5778 net.cpp:434] loss <- softmax
I0528 21:26:13.458055  5778 net.cpp:434] loss <- label_data_1_split_0
I0528 21:26:13.458070  5778 net.cpp:408] loss -> loss
…
