…
I0414 08:03:35.087304 31179 solver.cpp:93] Creating training net from train_net file: ./Prototxt/experiment_11/rtsd-r3/CoNorm/trial_2/train.prototxt
I0414 08:03:35.087762 31179 net.cpp:58] Initializing net from parameters: 
state {
  phase: TRAIN
  level: 0
  stage: ""
}
layer {
  name: "data"
  type: "Data"
  top: "data"
  top: "label"
  include {
    phase: TRAIN
  }
  transform_param {
    scale: 0.0039215689
    mirror: false
    crop_size: 48
    mean_value: 135
    mean_value: 134
    mean_value: 134
  }
  data_param {
    source: "../local_data/lmdb/rtsd-r3/CoNorm/train/lmdb"
    batch_size: 1024
    backend: LMDB
  }
}
layer {
  name: "conv1"
  type: "Convolution"
  bottom: "data"
  top: "conv1"
  convolution_param {
    num_output: 100
    pad: 0
    kernel_size: 7
    group: 1
    stride: 1
    weight_filler {
      type: "xavier"
    }
  }
}
layer {
  name: "conv1_prescale"
  type: "Scale"
  bottom: "conv1"
  top: "conv1"
  param {
    lr_mult: 0
    decay_mult: 0
  }
  scale_param {
    filler {
      value: 0.6666
    }
    bias_term: false
  }
}
layer {
  name: "conv1_sTanH"
  type: "TanH"
  bottom: "conv1"
  top: "conv1"
}
layer {
  name: "conv1_postscale"
  type: "Scale"
  bottom: "conv1"
  top: "conv1"
  param {
    lr_mult: 0
    decay_mult: 0
  }
  scale_param {
    filler {
      value: 1.7159
    }
    bias_term: false
  }
}
layer {
  name: "pool1"
  type: "Pooling"
  bottom: "conv1"
  top: "pool1"
  pooling_param {
    pool: MAX
    kernel_size: 2
    stride: 2
  }
}
layer {
  name: "conv2"
  type: "Convolution"
  bottom: "pool1"
  top: "conv2"
  convolution_param {
    num_output: 150
    pad: 0
    kernel_size: 4
    group: 1
    stride: 1
    weight_filler {
      type: "xavier"
    }
  }
}
layer {
  name: "conv2_prescale"
  type: "Scale"
  bottom: "conv2"
  top: "conv2"
  param {
    lr_mult: 0
    decay_mult: 0
  }
  scale_param {
    filler {
      value: 0.6666
    }
    bias_term: false
  }
}
layer {
  name: "conv2_sTanH"
  type: "TanH"
  bottom: "conv2"
  top: "conv2"
}
layer {
  name: "conv2_postscale"
  type: "Scale"
  bottom: "conv2"
  top: "conv2"
  param {
    lr_mult: 0
    decay_mult: 0
  }
  scale_param {
    filler {
      value: 1.7159
    }
    bias_term: false
  }
}
layer {
  name: "pool2"
  type: "Pooling"
  bottom: "conv2"
  top: "pool2"
  pooling_param {
    pool: MAX
    kernel_size: 2
    stride: 2
  }
}
layer {
  name: "conv3"
  type: "Convolution"
  bottom: "pool2"
  top: "conv3"
  convolution_param {
    num_output: 250
    pad: 0
    kernel_size: 4
    group: 1
    stride: 1
    weight_filler {
      type: "xavier"
    }
  }
}
layer {
  name: "conv3_prescale"
  type: "Scale"
  bottom: "conv3"
  top: "conv3"
  param {
    lr_mult: 0
    decay_mult: 0
  }
  scale_param {
    filler {
      value: 0.6666
    }
    bias_term: false
  }
}
layer {
  name: "conv3_sTanH"
  type: "TanH"
  bottom: "conv3"
  top: "conv3"
}
layer {
  name: "conv3_postscale"
  type: "Scale"
  bottom: "conv3"
  top: "conv3"
  param {
    lr_mult: 0
    decay_mult: 0
  }
  scale_param {
    filler {
      value: 1.7159
    }
    bias_term: false
  }
}
layer {
  name: "pool3"
  type: "Pooling"
  bottom: "conv3"
  top: "pool3"
  pooling_param {
    pool: MAX
    kernel_size: 2
    stride: 2
  }
}
layer {
  name: "fc4_300"
  type: "InnerProduct"
  bottom: "pool3"
  top: "fc4_300"
  inner_product_param {
    num_output: 300
    weight_filler {
      type: "xavier"
    }
  }
}
layer {
  name: "fc4_prescale"
  type: "Scale"
  bottom: "fc4_300"
  top: "fc4_300"
  param {
    lr_mult: 0
    decay_mult: 0
  }
  scale_param {
    filler {
      value: 0.6666
    }
    bias_term: false
  }
}
layer {
  name: "fc4_sTanH"
  type: "TanH"
  bottom: "fc4_300"
  top: "fc4_300"
}
layer {
  name: "fc4_postscale"
  type: "Scale"
  bottom: "fc4_300"
  top: "fc4_300"
  param {
    lr_mult: 0
    decay_mult: 0
  }
  scale_param {
    filler {
      value: 1.7159
    }
    bias_term: false
  }
}
layer {
  name: "fc5_106"
  type: "InnerProduct"
  bottom: "fc4_300"
  top: "fc5_classes"
  inner_product_param {
    num_output: 106
    weight_filler {
      type: "xavier"
    }
  }
}
layer {
  name: "softmax"
  type: "Softmax"
  bottom: "fc5_classes"
  top: "softmax"
}
layer {
  name: "loss"
  type: "MultinomialLogisticLoss"
  bottom: "softmax"
  bottom: "label"
  top: "loss"
}
layer {
  name: "accuracy_1"
  type: "Accuracy"
  bottom: "fc5_classes"
  bottom: "label"
  top: "accuracy_1"
  accuracy_param {
    top_k: 1
  }
}
layer {
  name: "accuracy_5"
  type: "Accuracy"
  bottom: "fc5_classes"
  bottom: "label"
  top: "accuracy_5"
  accuracy_param {
    top_k: 5
  }
}
layer {
  name: "silence"
  type: "Silence"
  bottom: "accuracy_1"
  bottom: "accuracy_5"
}
I0414 08:03:35.087926 31179 layer_factory.hpp:77] Creating layer data
I0414 08:03:35.089004 31179 net.cpp:100] Creating Layer data
I0414 08:03:35.089022 31179 net.cpp:408] data -> data
I0414 08:03:35.089046 31179 net.cpp:408] data -> label
I0414 08:03:35.090692 31311 db_lmdb.cpp:35] Opened lmdb ../local_data/lmdb/rtsd-r3/CoNorm/train/lmdb
I0414 08:03:35.110090 31179 data_layer.cpp:41] output data size: 1024,3,48,48
I0414 08:03:35.160694 31179 net.cpp:150] Setting up data
I0414 08:03:35.160722 31179 net.cpp:157] Top shape: 1024 3 48 48 (7077888)
I0414 08:03:35.160727 31179 net.cpp:157] Top shape: 1024 (1024)
I0414 08:03:35.160728 31179 net.cpp:165] Memory required for data: 28315648
I0414 08:03:35.160739 31179 layer_factory.hpp:77] Creating layer label_data_1_split
I0414 08:03:35.160753 31179 net.cpp:100] Creating Layer label_data_1_split
I0414 08:03:35.160758 31179 net.cpp:434] label_data_1_split <- label
I0414 08:03:35.160773 31179 net.cpp:408] label_data_1_split -> label_data_1_split_0
I0414 08:03:35.160784 31179 net.cpp:408] label_data_1_split -> label_data_1_split_1
I0414 08:03:35.160789 31179 net.cpp:408] label_data_1_split -> label_data_1_split_2
I0414 08:03:35.160851 31179 net.cpp:150] Setting up label_data_1_split
I0414 08:03:35.160858 31179 net.cpp:157] Top shape: 1024 (1024)
I0414 08:03:35.160862 31179 net.cpp:157] Top shape: 1024 (1024)
I0414 08:03:35.160866 31179 net.cpp:157] Top shape: 1024 (1024)
I0414 08:03:35.160868 31179 net.cpp:165] Memory required for data: 28327936
I0414 08:03:35.160871 31179 layer_factory.hpp:77] Creating layer conv1
I0414 08:03:35.160887 31179 net.cpp:100] Creating Layer conv1
I0414 08:03:35.160892 31179 net.cpp:434] conv1 <- data
I0414 08:03:35.160898 31179 net.cpp:408] conv1 -> conv1
I0414 08:03:35.590914 31179 net.cpp:150] Setting up conv1
I0414 08:03:35.590950 31179 net.cpp:157] Top shape: 1024 100 42 42 (180633600)
I0414 08:03:35.590956 31179 net.cpp:165] Memory required for data: 750862336
I0414 08:03:35.590986 31179 layer_factory.hpp:77] Creating layer conv1_prescale
I0414 08:03:35.591006 31179 net.cpp:100] Creating Layer conv1_prescale
I0414 08:03:35.591014 31179 net.cpp:434] conv1_prescale <- conv1
I0414 08:03:35.591024 31179 net.cpp:395] conv1_prescale -> conv1 (in-place)
I0414 08:03:35.591166 31179 net.cpp:150] Setting up conv1_prescale
I0414 08:03:35.591179 31179 net.cpp:157] Top shape: 1024 100 42 42 (180633600)
I0414 08:03:35.591184 31179 net.cpp:165] Memory required for data: 1473396736
I0414 08:03:35.591195 31179 layer_factory.hpp:77] Creating layer conv1_sTanH
I0414 08:03:35.591208 31179 net.cpp:100] Creating Layer conv1_sTanH
I0414 08:03:35.591217 31179 net.cpp:434] conv1_sTanH <- conv1
I0414 08:03:35.591223 31179 net.cpp:395] conv1_sTanH -> conv1 (in-place)
I0414 08:03:35.591487 31179 net.cpp:150] Setting up conv1_sTanH
I0414 08:03:35.591529 31179 net.cpp:157] Top shape: 1024 100 42 42 (180633600)
I0414 08:03:35.591536 31179 net.cpp:165] Memory required for data: 2195931136
I0414 08:03:35.591542 31179 layer_factory.hpp:77] Creating layer conv1_postscale
I0414 08:03:35.591552 31179 net.cpp:100] Creating Layer conv1_postscale
I0414 08:03:35.591562 31179 net.cpp:434] conv1_postscale <- conv1
I0414 08:03:35.591569 31179 net.cpp:395] conv1_postscale -> conv1 (in-place)
I0414 08:03:35.591711 31179 net.cpp:150] Setting up conv1_postscale
I0414 08:03:35.591724 31179 net.cpp:157] Top shape: 1024 100 42 42 (180633600)
I0414 08:03:35.591729 31179 net.cpp:165] Memory required for data: 2918465536
I0414 08:03:35.591738 31179 layer_factory.hpp:77] Creating layer pool1
I0414 08:03:35.591749 31179 net.cpp:100] Creating Layer pool1
I0414 08:03:35.591756 31179 net.cpp:434] pool1 <- conv1
I0414 08:03:35.591764 31179 net.cpp:408] pool1 -> pool1
I0414 08:03:35.591832 31179 net.cpp:150] Setting up pool1
I0414 08:03:35.591845 31179 net.cpp:157] Top shape: 1024 100 21 21 (45158400)
I0414 08:03:35.591850 31179 net.cpp:165] Memory required for data: 3099099136
I0414 08:03:35.591856 31179 layer_factory.hpp:77] Creating layer conv2
I0414 08:03:35.591869 31179 net.cpp:100] Creating Layer conv2
I0414 08:03:35.591891 31179 net.cpp:434] conv2 <- pool1
I0414 08:03:35.591902 31179 net.cpp:408] conv2 -> conv2
I0414 08:03:35.629997 31179 net.cpp:150] Setting up conv2
I0414 08:03:35.630028 31179 net.cpp:157] Top shape: 1024 150 18 18 (49766400)
I0414 08:03:35.630034 31179 net.cpp:165] Memory required for data: 3298164736
I0414 08:03:35.630054 31179 layer_factory.hpp:77] Creating layer conv2_prescale
I0414 08:03:35.630074 31179 net.cpp:100] Creating Layer conv2_prescale
I0414 08:03:35.630079 31179 net.cpp:434] conv2_prescale <- conv2
I0414 08:03:35.630090 31179 net.cpp:395] conv2_prescale -> conv2 (in-place)
I0414 08:03:35.630264 31179 net.cpp:150] Setting up conv2_prescale
I0414 08:03:35.630278 31179 net.cpp:157] Top shape: 1024 150 18 18 (49766400)
I0414 08:03:35.630283 31179 net.cpp:165] Memory required for data: 3497230336
I0414 08:03:35.630291 31179 layer_factory.hpp:77] Creating layer conv2_sTanH
I0414 08:03:35.630302 31179 net.cpp:100] Creating Layer conv2_sTanH
I0414 08:03:35.630307 31179 net.cpp:434] conv2_sTanH <- conv2
I0414 08:03:35.630316 31179 net.cpp:395] conv2_sTanH -> conv2 (in-place)
I0414 08:03:35.632212 31179 net.cpp:150] Setting up conv2_sTanH
I0414 08:03:35.632233 31179 net.cpp:157] Top shape: 1024 150 18 18 (49766400)
I0414 08:03:35.632239 31179 net.cpp:165] Memory required for data: 3696295936
I0414 08:03:35.632246 31179 layer_factory.hpp:77] Creating layer conv2_postscale
I0414 08:03:35.632256 31179 net.cpp:100] Creating Layer conv2_postscale
I0414 08:03:35.632264 31179 net.cpp:434] conv2_postscale <- conv2
I0414 08:03:35.632273 31179 net.cpp:395] conv2_postscale -> conv2 (in-place)
I0414 08:03:35.632407 31179 net.cpp:150] Setting up conv2_postscale
I0414 08:03:35.632421 31179 net.cpp:157] Top shape: 1024 150 18 18 (49766400)
I0414 08:03:35.632427 31179 net.cpp:165] Memory required for data: 3895361536
I0414 08:03:35.632436 31179 layer_factory.hpp:77] Creating layer pool2
I0414 08:03:35.632447 31179 net.cpp:100] Creating Layer pool2
I0414 08:03:35.632454 31179 net.cpp:434] pool2 <- conv2
I0414 08:03:35.632462 31179 net.cpp:408] pool2 -> pool2
I0414 08:03:35.632520 31179 net.cpp:150] Setting up pool2
I0414 08:03:35.632532 31179 net.cpp:157] Top shape: 1024 150 9 9 (12441600)
I0414 08:03:35.632539 31179 net.cpp:165] Memory required for data: 3945127936
I0414 08:03:35.632544 31179 layer_factory.hpp:77] Creating layer conv3
I0414 08:03:35.632557 31179 net.cpp:100] Creating Layer conv3
I0414 08:03:35.632565 31179 net.cpp:434] conv3 <- pool2
I0414 08:03:35.632573 31179 net.cpp:408] conv3 -> conv3
I0414 08:03:35.642655 31179 net.cpp:150] Setting up conv3
I0414 08:03:35.642685 31179 net.cpp:157] Top shape: 1024 250 6 6 (9216000)
I0414 08:03:35.642693 31179 net.cpp:165] Memory required for data: 3981991936
I0414 08:03:35.642711 31179 layer_factory.hpp:77] Creating layer conv3_prescale
I0414 08:03:35.642750 31179 net.cpp:100] Creating Layer conv3_prescale
I0414 08:03:35.642760 31179 net.cpp:434] conv3_prescale <- conv3
I0414 08:03:35.642772 31179 net.cpp:395] conv3_prescale -> conv3 (in-place)
I0414 08:03:35.642912 31179 net.cpp:150] Setting up conv3_prescale
I0414 08:03:35.642927 31179 net.cpp:157] Top shape: 1024 250 6 6 (9216000)
I0414 08:03:35.642935 31179 net.cpp:165] Memory required for data: 4018855936
I0414 08:03:35.642942 31179 layer_factory.hpp:77] Creating layer conv3_sTanH
I0414 08:03:35.642953 31179 net.cpp:100] Creating Layer conv3_sTanH
I0414 08:03:35.642961 31179 net.cpp:434] conv3_sTanH <- conv3
I0414 08:03:35.642967 31179 net.cpp:395] conv3_sTanH -> conv3 (in-place)
I0414 08:03:35.645380 31179 net.cpp:150] Setting up conv3_sTanH
I0414 08:03:35.645401 31179 net.cpp:157] Top shape: 1024 250 6 6 (9216000)
I0414 08:03:35.645408 31179 net.cpp:165] Memory required for data: 4055719936
I0414 08:03:35.645416 31179 layer_factory.hpp:77] Creating layer conv3_postscale
I0414 08:03:35.645428 31179 net.cpp:100] Creating Layer conv3_postscale
I0414 08:03:35.645437 31179 net.cpp:434] conv3_postscale <- conv3
I0414 08:03:35.645447 31179 net.cpp:395] conv3_postscale -> conv3 (in-place)
I0414 08:03:35.645587 31179 net.cpp:150] Setting up conv3_postscale
I0414 08:03:35.645601 31179 net.cpp:157] Top shape: 1024 250 6 6 (9216000)
I0414 08:03:35.645607 31179 net.cpp:165] Memory required for data: 4092583936
I0414 08:03:35.645615 31179 layer_factory.hpp:77] Creating layer pool3
I0414 08:03:35.645634 31179 net.cpp:100] Creating Layer pool3
I0414 08:03:35.645642 31179 net.cpp:434] pool3 <- conv3
I0414 08:03:35.645649 31179 net.cpp:408] pool3 -> pool3
I0414 08:03:35.645710 31179 net.cpp:150] Setting up pool3
I0414 08:03:35.645722 31179 net.cpp:157] Top shape: 1024 250 3 3 (2304000)
I0414 08:03:35.645727 31179 net.cpp:165] Memory required for data: 4101799936
I0414 08:03:35.645732 31179 layer_factory.hpp:77] Creating layer fc4_300
I0414 08:03:35.645742 31179 net.cpp:100] Creating Layer fc4_300
I0414 08:03:35.645747 31179 net.cpp:434] fc4_300 <- pool3
I0414 08:03:35.645757 31179 net.cpp:408] fc4_300 -> fc4_300
I0414 08:03:35.655760 31179 net.cpp:150] Setting up fc4_300
I0414 08:03:35.655781 31179 net.cpp:157] Top shape: 1024 300 (307200)
I0414 08:03:35.655786 31179 net.cpp:165] Memory required for data: 4103028736
I0414 08:03:35.655797 31179 layer_factory.hpp:77] Creating layer fc4_prescale
I0414 08:03:35.655810 31179 net.cpp:100] Creating Layer fc4_prescale
I0414 08:03:35.655818 31179 net.cpp:434] fc4_prescale <- fc4_300
I0414 08:03:35.655828 31179 net.cpp:395] fc4_prescale -> fc4_300 (in-place)
I0414 08:03:35.655963 31179 net.cpp:150] Setting up fc4_prescale
I0414 08:03:35.655977 31179 net.cpp:157] Top shape: 1024 300 (307200)
I0414 08:03:35.655984 31179 net.cpp:165] Memory required for data: 4104257536
I0414 08:03:35.655992 31179 layer_factory.hpp:77] Creating layer fc4_sTanH
I0414 08:03:35.656002 31179 net.cpp:100] Creating Layer fc4_sTanH
I0414 08:03:35.656009 31179 net.cpp:434] fc4_sTanH <- fc4_300
I0414 08:03:35.656016 31179 net.cpp:395] fc4_sTanH -> fc4_300 (in-place)
I0414 08:03:35.656287 31179 net.cpp:150] Setting up fc4_sTanH
I0414 08:03:35.656304 31179 net.cpp:157] Top shape: 1024 300 (307200)
I0414 08:03:35.656311 31179 net.cpp:165] Memory required for data: 4105486336
I0414 08:03:35.656316 31179 layer_factory.hpp:77] Creating layer fc4_postscale
I0414 08:03:35.656328 31179 net.cpp:100] Creating Layer fc4_postscale
I0414 08:03:35.656335 31179 net.cpp:434] fc4_postscale <- fc4_300
I0414 08:03:35.656347 31179 net.cpp:395] fc4_postscale -> fc4_300 (in-place)
I0414 08:03:35.656484 31179 net.cpp:150] Setting up fc4_postscale
I0414 08:03:35.656497 31179 net.cpp:157] Top shape: 1024 300 (307200)
I0414 08:03:35.656503 31179 net.cpp:165] Memory required for data: 4106715136
I0414 08:03:35.656512 31179 layer_factory.hpp:77] Creating layer fc5_106
I0414 08:03:35.656523 31179 net.cpp:100] Creating Layer fc5_106
I0414 08:03:35.656532 31179 net.cpp:434] fc5_106 <- fc4_300
I0414 08:03:35.656541 31179 net.cpp:408] fc5_106 -> fc5_classes
I0414 08:03:35.660475 31179 net.cpp:150] Setting up fc5_106
I0414 08:03:35.660495 31179 net.cpp:157] Top shape: 1024 106 (108544)
I0414 08:03:35.660503 31179 net.cpp:165] Memory required for data: 4107149312
I0414 08:03:35.660521 31179 layer_factory.hpp:77] Creating layer fc5_classes_fc5_106_0_split
I0414 08:03:35.660534 31179 net.cpp:100] Creating Layer fc5_classes_fc5_106_0_split
I0414 08:03:35.660542 31179 net.cpp:434] fc5_classes_fc5_106_0_split <- fc5_classes
I0414 08:03:35.660552 31179 net.cpp:408] fc5_classes_fc5_106_0_split -> fc5_classes_fc5_106_0_split_0
I0414 08:03:35.660567 31179 net.cpp:408] fc5_classes_fc5_106_0_split -> fc5_classes_fc5_106_0_split_1
I0414 08:03:35.660578 31179 net.cpp:408] fc5_classes_fc5_106_0_split -> fc5_classes_fc5_106_0_split_2
I0414 08:03:35.660651 31179 net.cpp:150] Setting up fc5_classes_fc5_106_0_split
I0414 08:03:35.660663 31179 net.cpp:157] Top shape: 1024 106 (108544)
I0414 08:03:35.660671 31179 net.cpp:157] Top shape: 1024 106 (108544)
I0414 08:03:35.660679 31179 net.cpp:157] Top shape: 1024 106 (108544)
I0414 08:03:35.660686 31179 net.cpp:165] Memory required for data: 4108451840
I0414 08:03:35.660691 31179 layer_factory.hpp:77] Creating layer softmax
I0414 08:03:35.660701 31179 net.cpp:100] Creating Layer softmax
I0414 08:03:35.660708 31179 net.cpp:434] softmax <- fc5_classes_fc5_106_0_split_0
I0414 08:03:35.660722 31179 net.cpp:408] softmax -> softmax
I0414 08:03:35.661082 31179 net.cpp:150] Setting up softmax
I0414 08:03:35.661099 31179 net.cpp:157] Top shape: 1024 106 (108544)
I0414 08:03:35.661105 31179 net.cpp:165] Memory required for data: 4108886016
I0414 08:03:35.661111 31179 layer_factory.hpp:77] Creating layer loss
I0414 08:03:35.661123 31179 net.cpp:100] Creating Layer loss
I0414 08:03:35.661130 31179 net.cpp:434] loss <- softmax
I0414 08:03:35.661139 31179 net.cpp:434] loss <- label_data_1_split_0
I0414 08:03:35.661150 31179 net.cpp:408] loss -> loss
…
