…
I0528 20:45:59.656141 25982 solver.cpp:81] Creating training net from train_net file: ./Prototxt/experiment_22/RTSD/CoNorm/trial_1/train.prototxt
I0528 20:45:59.656723 25982 net.cpp:58] Initializing net from parameters: 
state {
  phase: TRAIN
  level: 0
  stage: ""
}
layer {
  name: "data"
  type: "Data"
  top: "data"
  top: "label"
  include {
    phase: TRAIN
  }
  transform_param {
    scale: 0.0039215689
    mirror: false
    crop_size: 48
    mean_value: 135
    mean_value: 135
    mean_value: 134
  }
  data_param {
    source: "../local_data/lmdb/RTSD/CoNorm/train/lmdb"
    batch_size: 1024
    backend: LMDB
  }
}
layer {
  name: "conv1"
  type: "Convolution"
  bottom: "data"
  top: "conv1"
  convolution_param {
    num_output: 100
    pad: 0
    kernel_size: 7
    group: 1
    stride: 1
    weight_filler {
      type: "xavier"
    }
  }
}
layer {
  name: "conv1_relu"
  type: "ReLU"
  bottom: "conv1"
  top: "conv1"
}
layer {
  name: "pool1"
  type: "Pooling"
  bottom: "conv1"
  top: "pool1"
  pooling_param {
    pool: MAX
    kernel_size: 2
    stride: 2
  }
}
layer {
  name: "conv2"
  type: "Convolution"
  bottom: "pool1"
  top: "conv2"
  convolution_param {
    num_output: 150
    pad: 0
    kernel_size: 4
    group: 1
    stride: 1
    weight_filler {
      type: "xavier"
    }
  }
}
layer {
  name: "conv2_relu"
  type: "ReLU"
  bottom: "conv2"
  top: "conv2"
}
layer {
  name: "pool2"
  type: "Pooling"
  bottom: "conv2"
  top: "pool2"
  pooling_param {
    pool: MAX
    kernel_size: 2
    stride: 2
  }
}
layer {
  name: "conv3"
  type: "Convolution"
  bottom: "pool2"
  top: "conv3"
  convolution_param {
    num_output: 250
    pad: 0
    kernel_size: 4
    group: 1
    stride: 1
    weight_filler {
      type: "xavier"
    }
  }
}
layer {
  name: "conv3_relu"
  type: "ReLU"
  bottom: "conv3"
  top: "conv3"
}
layer {
  name: "pool3"
  type: "Pooling"
  bottom: "conv3"
  top: "pool3"
  pooling_param {
    pool: MAX
    kernel_size: 2
    stride: 2
  }
}
layer {
  name: "fc4_300"
  type: "InnerProduct"
  bottom: "pool3"
  top: "fc4_300"
  inner_product_param {
    num_output: 300
    weight_filler {
      type: "xavier"
    }
  }
}
layer {
  name: "fc4_relu"
  type: "ReLU"
  bottom: "fc4_300"
  top: "fc4_300"
}
layer {
  name: "fc5_116"
  type: "InnerProduct"
  bottom: "fc4_300"
  top: "fc5_classes"
  inner_product_param {
    num_output: 116
    weight_filler {
      type: "xavier"
    }
  }
}
layer {
  name: "softmax"
  type: "Softmax"
  bottom: "fc5_classes"
  top: "softmax"
}
layer {
  name: "loss"
  type: "MultinomialLogisticLoss"
  bottom: "softmax"
  bottom: "label"
  top: "loss"
}
layer {
  name: "accuracy_1"
  type: "Accuracy"
  bottom: "fc5_classes"
  bottom: "label"
  top: "accuracy_1"
  accuracy_param {
    top_k: 1
  }
}
layer {
  name: "accuracy_5"
  type: "Accuracy"
  bottom: "fc5_classes"
  bottom: "label"
  top: "accuracy_5"
  accuracy_param {
    top_k: 5
  }
}
layer {
  name: "silence"
  type: "Silence"
  bottom: "accuracy_1"
  bottom: "accuracy_5"
}
I0528 20:45:59.656867 25982 layer_factory.hpp:77] Creating layer data
I0528 20:45:59.659834 25982 net.cpp:100] Creating Layer data
I0528 20:45:59.659869 25982 net.cpp:408] data -> data
I0528 20:45:59.659924 25982 net.cpp:408] data -> label
I0528 20:45:59.662979 26026 db_lmdb.cpp:35] Opened lmdb ../local_data/lmdb/RTSD/CoNorm/train/lmdb
I0528 20:45:59.849535 25982 data_layer.cpp:41] output data size: 1024,3,48,48
I0528 20:45:59.906046 25982 net.cpp:150] Setting up data
I0528 20:45:59.906110 25982 net.cpp:157] Top shape: 1024 3 48 48 (7077888)
I0528 20:45:59.906126 25982 net.cpp:157] Top shape: 1024 (1024)
I0528 20:45:59.906136 25982 net.cpp:165] Memory required for data: 28315648
I0528 20:45:59.906153 25982 layer_factory.hpp:77] Creating layer label_data_1_split
I0528 20:45:59.906178 25982 net.cpp:100] Creating Layer label_data_1_split
I0528 20:45:59.906195 25982 net.cpp:434] label_data_1_split <- label
I0528 20:45:59.906219 25982 net.cpp:408] label_data_1_split -> label_data_1_split_0
I0528 20:45:59.906242 25982 net.cpp:408] label_data_1_split -> label_data_1_split_1
I0528 20:45:59.906270 25982 net.cpp:408] label_data_1_split -> label_data_1_split_2
I0528 20:45:59.906358 25982 net.cpp:150] Setting up label_data_1_split
I0528 20:45:59.906379 25982 net.cpp:157] Top shape: 1024 (1024)
I0528 20:45:59.906390 25982 net.cpp:157] Top shape: 1024 (1024)
I0528 20:45:59.906404 25982 net.cpp:157] Top shape: 1024 (1024)
I0528 20:45:59.906414 25982 net.cpp:165] Memory required for data: 28327936
I0528 20:45:59.906424 25982 layer_factory.hpp:77] Creating layer conv1
I0528 20:45:59.906464 25982 net.cpp:100] Creating Layer conv1
I0528 20:45:59.906477 25982 net.cpp:434] conv1 <- data
I0528 20:45:59.906494 25982 net.cpp:408] conv1 -> conv1
I0528 20:46:00.313791 25982 net.cpp:150] Setting up conv1
I0528 20:46:00.313829 25982 net.cpp:157] Top shape: 1024 100 42 42 (180633600)
I0528 20:46:00.313838 25982 net.cpp:165] Memory required for data: 750862336
I0528 20:46:00.313860 25982 layer_factory.hpp:77] Creating layer conv1_relu
I0528 20:46:00.313880 25982 net.cpp:100] Creating Layer conv1_relu
I0528 20:46:00.313894 25982 net.cpp:434] conv1_relu <- conv1
I0528 20:46:00.313908 25982 net.cpp:395] conv1_relu -> conv1 (in-place)
I0528 20:46:00.314146 25982 net.cpp:150] Setting up conv1_relu
I0528 20:46:00.314167 25982 net.cpp:157] Top shape: 1024 100 42 42 (180633600)
I0528 20:46:00.314177 25982 net.cpp:165] Memory required for data: 1473396736
I0528 20:46:00.314185 25982 layer_factory.hpp:77] Creating layer pool1
I0528 20:46:00.314204 25982 net.cpp:100] Creating Layer pool1
I0528 20:46:00.314216 25982 net.cpp:434] pool1 <- conv1
I0528 20:46:00.314227 25982 net.cpp:408] pool1 -> pool1
I0528 20:46:00.314291 25982 net.cpp:150] Setting up pool1
I0528 20:46:00.314303 25982 net.cpp:157] Top shape: 1024 100 21 21 (45158400)
I0528 20:46:00.314313 25982 net.cpp:165] Memory required for data: 1654030336
I0528 20:46:00.314321 25982 layer_factory.hpp:77] Creating layer conv2
I0528 20:46:00.314342 25982 net.cpp:100] Creating Layer conv2
I0528 20:46:00.314352 25982 net.cpp:434] conv2 <- pool1
I0528 20:46:00.314363 25982 net.cpp:408] conv2 -> conv2
I0528 20:46:00.319371 25982 net.cpp:150] Setting up conv2
I0528 20:46:00.319391 25982 net.cpp:157] Top shape: 1024 150 18 18 (49766400)
I0528 20:46:00.319398 25982 net.cpp:165] Memory required for data: 1853095936
I0528 20:46:00.319417 25982 layer_factory.hpp:77] Creating layer conv2_relu
I0528 20:46:00.319430 25982 net.cpp:100] Creating Layer conv2_relu
I0528 20:46:00.319437 25982 net.cpp:434] conv2_relu <- conv2
I0528 20:46:00.319447 25982 net.cpp:395] conv2_relu -> conv2 (in-place)
I0528 20:46:00.319654 25982 net.cpp:150] Setting up conv2_relu
I0528 20:46:00.319674 25982 net.cpp:157] Top shape: 1024 150 18 18 (49766400)
I0528 20:46:00.319684 25982 net.cpp:165] Memory required for data: 2052161536
I0528 20:46:00.319692 25982 layer_factory.hpp:77] Creating layer pool2
I0528 20:46:00.319705 25982 net.cpp:100] Creating Layer pool2
I0528 20:46:00.319715 25982 net.cpp:434] pool2 <- conv2
I0528 20:46:00.319722 25982 net.cpp:408] pool2 -> pool2
I0528 20:46:00.319777 25982 net.cpp:150] Setting up pool2
I0528 20:46:00.319788 25982 net.cpp:157] Top shape: 1024 150 9 9 (12441600)
I0528 20:46:00.319795 25982 net.cpp:165] Memory required for data: 2101927936
I0528 20:46:00.319804 25982 layer_factory.hpp:77] Creating layer conv3
I0528 20:46:00.319820 25982 net.cpp:100] Creating Layer conv3
I0528 20:46:00.319829 25982 net.cpp:434] conv3 <- pool2
I0528 20:46:00.319842 25982 net.cpp:408] conv3 -> conv3
I0528 20:46:00.332144 25982 net.cpp:150] Setting up conv3
I0528 20:46:00.332201 25982 net.cpp:157] Top shape: 1024 250 6 6 (9216000)
I0528 20:46:00.332214 25982 net.cpp:165] Memory required for data: 2138791936
I0528 20:46:00.332231 25982 layer_factory.hpp:77] Creating layer conv3_relu
I0528 20:46:00.332247 25982 net.cpp:100] Creating Layer conv3_relu
I0528 20:46:00.332258 25982 net.cpp:434] conv3_relu <- conv3
I0528 20:46:00.332276 25982 net.cpp:395] conv3_relu -> conv3 (in-place)
I0528 20:46:00.334959 25982 net.cpp:150] Setting up conv3_relu
I0528 20:46:00.334978 25982 net.cpp:157] Top shape: 1024 250 6 6 (9216000)
I0528 20:46:00.334986 25982 net.cpp:165] Memory required for data: 2175655936
I0528 20:46:00.334993 25982 layer_factory.hpp:77] Creating layer pool3
I0528 20:46:00.335006 25982 net.cpp:100] Creating Layer pool3
I0528 20:46:00.335017 25982 net.cpp:434] pool3 <- conv3
I0528 20:46:00.335027 25982 net.cpp:408] pool3 -> pool3
I0528 20:46:00.335090 25982 net.cpp:150] Setting up pool3
I0528 20:46:00.335108 25982 net.cpp:157] Top shape: 1024 250 3 3 (2304000)
I0528 20:46:00.335120 25982 net.cpp:165] Memory required for data: 2184871936
I0528 20:46:00.335126 25982 layer_factory.hpp:77] Creating layer fc4_300
I0528 20:46:00.335139 25982 net.cpp:100] Creating Layer fc4_300
I0528 20:46:00.335150 25982 net.cpp:434] fc4_300 <- pool3
I0528 20:46:00.335161 25982 net.cpp:408] fc4_300 -> fc4_300
I0528 20:46:00.342938 25982 net.cpp:150] Setting up fc4_300
I0528 20:46:00.342959 25982 net.cpp:157] Top shape: 1024 300 (307200)
I0528 20:46:00.342967 25982 net.cpp:165] Memory required for data: 2186100736
I0528 20:46:00.342980 25982 layer_factory.hpp:77] Creating layer fc4_relu
I0528 20:46:00.342990 25982 net.cpp:100] Creating Layer fc4_relu
I0528 20:46:00.343003 25982 net.cpp:434] fc4_relu <- fc4_300
I0528 20:46:00.343013 25982 net.cpp:395] fc4_relu -> fc4_300 (in-place)
I0528 20:46:00.343236 25982 net.cpp:150] Setting up fc4_relu
I0528 20:46:00.343255 25982 net.cpp:157] Top shape: 1024 300 (307200)
I0528 20:46:00.343261 25982 net.cpp:165] Memory required for data: 2187329536
I0528 20:46:00.343267 25982 layer_factory.hpp:77] Creating layer fc5_116
I0528 20:46:00.343277 25982 net.cpp:100] Creating Layer fc5_116
I0528 20:46:00.343288 25982 net.cpp:434] fc5_116 <- fc4_300
I0528 20:46:00.343299 25982 net.cpp:408] fc5_116 -> fc5_classes
I0528 20:46:00.348862 25982 net.cpp:150] Setting up fc5_116
I0528 20:46:00.348887 25982 net.cpp:157] Top shape: 1024 116 (118784)
I0528 20:46:00.348896 25982 net.cpp:165] Memory required for data: 2187804672
I0528 20:46:00.348911 25982 layer_factory.hpp:77] Creating layer fc5_classes_fc5_116_0_split
I0528 20:46:00.348922 25982 net.cpp:100] Creating Layer fc5_classes_fc5_116_0_split
I0528 20:46:00.348929 25982 net.cpp:434] fc5_classes_fc5_116_0_split <- fc5_classes
I0528 20:46:00.348938 25982 net.cpp:408] fc5_classes_fc5_116_0_split -> fc5_classes_fc5_116_0_split_0
I0528 20:46:00.348953 25982 net.cpp:408] fc5_classes_fc5_116_0_split -> fc5_classes_fc5_116_0_split_1
I0528 20:46:00.348963 25982 net.cpp:408] fc5_classes_fc5_116_0_split -> fc5_classes_fc5_116_0_split_2
I0528 20:46:00.349030 25982 net.cpp:150] Setting up fc5_classes_fc5_116_0_split
I0528 20:46:00.349045 25982 net.cpp:157] Top shape: 1024 116 (118784)
I0528 20:46:00.349053 25982 net.cpp:157] Top shape: 1024 116 (118784)
I0528 20:46:00.349061 25982 net.cpp:157] Top shape: 1024 116 (118784)
I0528 20:46:00.349067 25982 net.cpp:165] Memory required for data: 2189230080
I0528 20:46:00.349074 25982 layer_factory.hpp:77] Creating layer softmax
I0528 20:46:00.349086 25982 net.cpp:100] Creating Layer softmax
I0528 20:46:00.349097 25982 net.cpp:434] softmax <- fc5_classes_fc5_116_0_split_0
I0528 20:46:00.349107 25982 net.cpp:408] softmax -> softmax
I0528 20:46:00.349414 25982 net.cpp:150] Setting up softmax
I0528 20:46:00.349433 25982 net.cpp:157] Top shape: 1024 116 (118784)
I0528 20:46:00.349443 25982 net.cpp:165] Memory required for data: 2189705216
I0528 20:46:00.349452 25982 layer_factory.hpp:77] Creating layer loss
I0528 20:46:00.349485 25982 net.cpp:100] Creating Layer loss
I0528 20:46:00.349495 25982 net.cpp:434] loss <- softmax
I0528 20:46:00.349504 25982 net.cpp:434] loss <- label_data_1_split_0
I0528 20:46:00.349514 25982 net.cpp:408] loss -> loss
…
