…
I0528 20:53:55.259843 15557 solver.cpp:81] Creating training net from train_net file: ./Prototxt/experiment_22/RTSD/CoNorm/trial_1/train.prototxt
I0528 20:53:55.260215 15557 net.cpp:58] Initializing net from parameters: 
state {
  phase: TRAIN
  level: 0
  stage: ""
}
layer {
  name: "data"
  type: "Data"
  top: "data"
  top: "label"
  include {
    phase: TRAIN
  }
  transform_param {
    scale: 0.0039215689
    mirror: false
    crop_size: 48
    mean_value: 135
    mean_value: 135
    mean_value: 134
  }
  data_param {
    source: "../local_data/lmdb/RTSD/CoNorm/train/lmdb"
    batch_size: 1024
    backend: LMDB
  }
}
layer {
  name: "conv1"
  type: "Convolution"
  bottom: "data"
  top: "conv1"
  convolution_param {
    num_output: 100
    pad: 0
    kernel_size: 7
    group: 1
    stride: 1
    weight_filler {
      type: "xavier"
    }
  }
}
layer {
  name: "conv1_relu"
  type: "ReLU"
  bottom: "conv1"
  top: "conv1"
}
layer {
  name: "pool1"
  type: "Pooling"
  bottom: "conv1"
  top: "pool1"
  pooling_param {
    pool: MAX
    kernel_size: 2
    stride: 2
  }
}
layer {
  name: "conv2"
  type: "Convolution"
  bottom: "pool1"
  top: "conv2"
  convolution_param {
    num_output: 150
    pad: 0
    kernel_size: 4
    group: 1
    stride: 1
    weight_filler {
      type: "xavier"
    }
  }
}
layer {
  name: "conv2_relu"
  type: "ReLU"
  bottom: "conv2"
  top: "conv2"
}
layer {
  name: "pool2"
  type: "Pooling"
  bottom: "conv2"
  top: "pool2"
  pooling_param {
    pool: MAX
    kernel_size: 2
    stride: 2
  }
}
layer {
  name: "conv3"
  type: "Convolution"
  bottom: "pool2"
  top: "conv3"
  convolution_param {
    num_output: 250
    pad: 0
    kernel_size: 4
    group: 1
    stride: 1
    weight_filler {
      type: "xavier"
    }
  }
}
layer {
  name: "conv3_relu"
  type: "ReLU"
  bottom: "conv3"
  top: "conv3"
}
layer {
  name: "pool3"
  type: "Pooling"
  bottom: "conv3"
  top: "pool3"
  pooling_param {
    pool: MAX
    kernel_size: 2
    stride: 2
  }
}
layer {
  name: "fc4_300"
  type: "InnerProduct"
  bottom: "pool3"
  top: "fc4_300"
  inner_product_param {
    num_output: 300
    weight_filler {
      type: "xavier"
    }
  }
}
layer {
  name: "fc4_relu"
  type: "ReLU"
  bottom: "fc4_300"
  top: "fc4_300"
}
layer {
  name: "fc5_116"
  type: "InnerProduct"
  bottom: "fc4_300"
  top: "fc5_classes"
  inner_product_param {
    num_output: 116
    weight_filler {
      type: "xavier"
    }
  }
}
layer {
  name: "softmax"
  type: "Softmax"
  bottom: "fc5_classes"
  top: "softmax"
}
layer {
  name: "loss"
  type: "MultinomialLogisticLoss"
  bottom: "softmax"
  bottom: "label"
  top: "loss"
}
layer {
  name: "accuracy_1"
  type: "Accuracy"
  bottom: "fc5_classes"
  bottom: "label"
  top: "accuracy_1"
  accuracy_param {
    top_k: 1
  }
}
layer {
  name: "accuracy_5"
  type: "Accuracy"
  bottom: "fc5_classes"
  bottom: "label"
  top: "accuracy_5"
  accuracy_param {
    top_k: 5
  }
}
layer {
  name: "silence"
  type: "Silence"
  bottom: "accuracy_1"
  bottom: "accuracy_5"
}
I0528 20:53:55.260334 15557 layer_factory.hpp:77] Creating layer data
I0528 20:53:55.261281 15557 net.cpp:100] Creating Layer data
I0528 20:53:55.261297 15557 net.cpp:408] data -> data
I0528 20:53:55.261329 15557 net.cpp:408] data -> label
I0528 20:53:55.262158 15592 db_lmdb.cpp:35] Opened lmdb ../local_data/lmdb/RTSD/CoNorm/train/lmdb
I0528 20:53:55.283208 15557 data_layer.cpp:41] output data size: 1024,3,48,48
I0528 20:53:55.327272 15557 net.cpp:150] Setting up data
I0528 20:53:55.327339 15557 net.cpp:157] Top shape: 1024 3 48 48 (7077888)
I0528 20:53:55.327350 15557 net.cpp:157] Top shape: 1024 (1024)
I0528 20:53:55.327358 15557 net.cpp:165] Memory required for data: 28315648
I0528 20:53:55.327370 15557 layer_factory.hpp:77] Creating layer label_data_1_split
I0528 20:53:55.327389 15557 net.cpp:100] Creating Layer label_data_1_split
I0528 20:53:55.327400 15557 net.cpp:434] label_data_1_split <- label
I0528 20:53:55.327417 15557 net.cpp:408] label_data_1_split -> label_data_1_split_0
I0528 20:53:55.327435 15557 net.cpp:408] label_data_1_split -> label_data_1_split_1
I0528 20:53:55.327445 15557 net.cpp:408] label_data_1_split -> label_data_1_split_2
I0528 20:53:55.327499 15557 net.cpp:150] Setting up label_data_1_split
I0528 20:53:55.327512 15557 net.cpp:157] Top shape: 1024 (1024)
I0528 20:53:55.327518 15557 net.cpp:157] Top shape: 1024 (1024)
I0528 20:53:55.327525 15557 net.cpp:157] Top shape: 1024 (1024)
I0528 20:53:55.327530 15557 net.cpp:165] Memory required for data: 28327936
I0528 20:53:55.327538 15557 layer_factory.hpp:77] Creating layer conv1
I0528 20:53:55.327558 15557 net.cpp:100] Creating Layer conv1
I0528 20:53:55.327566 15557 net.cpp:434] conv1 <- data
I0528 20:53:55.327575 15557 net.cpp:408] conv1 -> conv1
I0528 20:53:55.598464 15557 net.cpp:150] Setting up conv1
I0528 20:53:55.598510 15557 net.cpp:157] Top shape: 1024 100 42 42 (180633600)
I0528 20:53:55.598516 15557 net.cpp:165] Memory required for data: 750862336
I0528 20:53:55.598544 15557 layer_factory.hpp:77] Creating layer conv1_relu
I0528 20:53:55.598564 15557 net.cpp:100] Creating Layer conv1_relu
I0528 20:53:55.598572 15557 net.cpp:434] conv1_relu <- conv1
I0528 20:53:55.598578 15557 net.cpp:395] conv1_relu -> conv1 (in-place)
I0528 20:53:55.598729 15557 net.cpp:150] Setting up conv1_relu
I0528 20:53:55.598740 15557 net.cpp:157] Top shape: 1024 100 42 42 (180633600)
I0528 20:53:55.598744 15557 net.cpp:165] Memory required for data: 1473396736
I0528 20:53:55.598749 15557 layer_factory.hpp:77] Creating layer pool1
I0528 20:53:55.598767 15557 net.cpp:100] Creating Layer pool1
I0528 20:53:55.598773 15557 net.cpp:434] pool1 <- conv1
I0528 20:53:55.598778 15557 net.cpp:408] pool1 -> pool1
I0528 20:53:55.598827 15557 net.cpp:150] Setting up pool1
I0528 20:53:55.598835 15557 net.cpp:157] Top shape: 1024 100 21 21 (45158400)
I0528 20:53:55.598839 15557 net.cpp:165] Memory required for data: 1654030336
I0528 20:53:55.598844 15557 layer_factory.hpp:77] Creating layer conv2
I0528 20:53:55.598862 15557 net.cpp:100] Creating Layer conv2
I0528 20:53:55.598868 15557 net.cpp:434] conv2 <- pool1
I0528 20:53:55.598875 15557 net.cpp:408] conv2 -> conv2
I0528 20:53:55.603060 15557 net.cpp:150] Setting up conv2
I0528 20:53:55.603093 15557 net.cpp:157] Top shape: 1024 150 18 18 (49766400)
I0528 20:53:55.603098 15557 net.cpp:165] Memory required for data: 1853095936
I0528 20:53:55.603116 15557 layer_factory.hpp:77] Creating layer conv2_relu
I0528 20:53:55.603123 15557 net.cpp:100] Creating Layer conv2_relu
I0528 20:53:55.603127 15557 net.cpp:434] conv2_relu <- conv2
I0528 20:53:55.603132 15557 net.cpp:395] conv2_relu -> conv2 (in-place)
I0528 20:53:55.603271 15557 net.cpp:150] Setting up conv2_relu
I0528 20:53:55.603281 15557 net.cpp:157] Top shape: 1024 150 18 18 (49766400)
I0528 20:53:55.603284 15557 net.cpp:165] Memory required for data: 2052161536
I0528 20:53:55.603288 15557 layer_factory.hpp:77] Creating layer pool2
I0528 20:53:55.603294 15557 net.cpp:100] Creating Layer pool2
I0528 20:53:55.603298 15557 net.cpp:434] pool2 <- conv2
I0528 20:53:55.603303 15557 net.cpp:408] pool2 -> pool2
I0528 20:53:55.603337 15557 net.cpp:150] Setting up pool2
I0528 20:53:55.603344 15557 net.cpp:157] Top shape: 1024 150 9 9 (12441600)
I0528 20:53:55.603360 15557 net.cpp:165] Memory required for data: 2101927936
I0528 20:53:55.603364 15557 layer_factory.hpp:77] Creating layer conv3
I0528 20:53:55.603380 15557 net.cpp:100] Creating Layer conv3
I0528 20:53:55.603384 15557 net.cpp:434] conv3 <- pool2
I0528 20:53:55.603389 15557 net.cpp:408] conv3 -> conv3
I0528 20:53:55.612900 15557 net.cpp:150] Setting up conv3
I0528 20:53:55.612936 15557 net.cpp:157] Top shape: 1024 250 6 6 (9216000)
I0528 20:53:55.612941 15557 net.cpp:165] Memory required for data: 2138791936
I0528 20:53:55.612962 15557 layer_factory.hpp:77] Creating layer conv3_relu
I0528 20:53:55.612972 15557 net.cpp:100] Creating Layer conv3_relu
I0528 20:53:55.612977 15557 net.cpp:434] conv3_relu <- conv3
I0528 20:53:55.612984 15557 net.cpp:395] conv3_relu -> conv3 (in-place)
I0528 20:53:55.613437 15557 net.cpp:150] Setting up conv3_relu
I0528 20:53:55.613466 15557 net.cpp:157] Top shape: 1024 250 6 6 (9216000)
I0528 20:53:55.613471 15557 net.cpp:165] Memory required for data: 2175655936
I0528 20:53:55.613474 15557 layer_factory.hpp:77] Creating layer pool3
I0528 20:53:55.613482 15557 net.cpp:100] Creating Layer pool3
I0528 20:53:55.613487 15557 net.cpp:434] pool3 <- conv3
I0528 20:53:55.613492 15557 net.cpp:408] pool3 -> pool3
I0528 20:53:55.613539 15557 net.cpp:150] Setting up pool3
I0528 20:53:55.613548 15557 net.cpp:157] Top shape: 1024 250 3 3 (2304000)
I0528 20:53:55.613553 15557 net.cpp:165] Memory required for data: 2184871936
I0528 20:53:55.613555 15557 layer_factory.hpp:77] Creating layer fc4_300
I0528 20:53:55.613564 15557 net.cpp:100] Creating Layer fc4_300
I0528 20:53:55.613566 15557 net.cpp:434] fc4_300 <- pool3
I0528 20:53:55.613572 15557 net.cpp:408] fc4_300 -> fc4_300
I0528 20:53:55.618319 15557 net.cpp:150] Setting up fc4_300
I0528 20:53:55.618355 15557 net.cpp:157] Top shape: 1024 300 (307200)
I0528 20:53:55.618360 15557 net.cpp:165] Memory required for data: 2186100736
I0528 20:53:55.618376 15557 layer_factory.hpp:77] Creating layer fc4_relu
I0528 20:53:55.618384 15557 net.cpp:100] Creating Layer fc4_relu
I0528 20:53:55.618389 15557 net.cpp:434] fc4_relu <- fc4_300
I0528 20:53:55.618396 15557 net.cpp:395] fc4_relu -> fc4_300 (in-place)
I0528 20:53:55.618562 15557 net.cpp:150] Setting up fc4_relu
I0528 20:53:55.618573 15557 net.cpp:157] Top shape: 1024 300 (307200)
I0528 20:53:55.618577 15557 net.cpp:165] Memory required for data: 2187329536
I0528 20:53:55.618582 15557 layer_factory.hpp:77] Creating layer fc5_116
I0528 20:53:55.618589 15557 net.cpp:100] Creating Layer fc5_116
I0528 20:53:55.618593 15557 net.cpp:434] fc5_116 <- fc4_300
I0528 20:53:55.618598 15557 net.cpp:408] fc5_116 -> fc5_classes
I0528 20:53:55.619719 15557 net.cpp:150] Setting up fc5_116
I0528 20:53:55.619731 15557 net.cpp:157] Top shape: 1024 116 (118784)
I0528 20:53:55.619735 15557 net.cpp:165] Memory required for data: 2187804672
I0528 20:53:55.619745 15557 layer_factory.hpp:77] Creating layer fc5_classes_fc5_116_0_split
I0528 20:53:55.619752 15557 net.cpp:100] Creating Layer fc5_classes_fc5_116_0_split
I0528 20:53:55.619756 15557 net.cpp:434] fc5_classes_fc5_116_0_split <- fc5_classes
I0528 20:53:55.619761 15557 net.cpp:408] fc5_classes_fc5_116_0_split -> fc5_classes_fc5_116_0_split_0
I0528 20:53:55.619768 15557 net.cpp:408] fc5_classes_fc5_116_0_split -> fc5_classes_fc5_116_0_split_1
I0528 20:53:55.619774 15557 net.cpp:408] fc5_classes_fc5_116_0_split -> fc5_classes_fc5_116_0_split_2
I0528 20:53:55.619812 15557 net.cpp:150] Setting up fc5_classes_fc5_116_0_split
I0528 20:53:55.619820 15557 net.cpp:157] Top shape: 1024 116 (118784)
I0528 20:53:55.619825 15557 net.cpp:157] Top shape: 1024 116 (118784)
I0528 20:53:55.619829 15557 net.cpp:157] Top shape: 1024 116 (118784)
I0528 20:53:55.619832 15557 net.cpp:165] Memory required for data: 2189230080
I0528 20:53:55.619837 15557 layer_factory.hpp:77] Creating layer softmax
I0528 20:53:55.619843 15557 net.cpp:100] Creating Layer softmax
I0528 20:53:55.619845 15557 net.cpp:434] softmax <- fc5_classes_fc5_116_0_split_0
I0528 20:53:55.619851 15557 net.cpp:408] softmax -> softmax
I0528 20:53:55.620033 15557 net.cpp:150] Setting up softmax
I0528 20:53:55.620045 15557 net.cpp:157] Top shape: 1024 116 (118784)
I0528 20:53:55.620050 15557 net.cpp:165] Memory required for data: 2189705216
I0528 20:53:55.620054 15557 layer_factory.hpp:77] Creating layer loss
I0528 20:53:55.620082 15557 net.cpp:100] Creating Layer loss
I0528 20:53:55.620088 15557 net.cpp:434] loss <- softmax
I0528 20:53:55.620093 15557 net.cpp:434] loss <- label_data_1_split_0
I0528 20:53:55.620100 15557 net.cpp:408] loss -> loss
…
