…
I0528 04:12:27.943886  2310 solver.cpp:81] Creating training net from train_net file: ./Prototxt/experiment_21/RTSD/AHE/trial_4/train.prototxt
I0528 04:12:27.944424  2310 net.cpp:58] Initializing net from parameters: 
state {
  phase: TRAIN
  level: 0
  stage: ""
}
layer {
  name: "data"
  type: "Data"
  top: "data"
  top: "label"
  include {
    phase: TRAIN
  }
  transform_param {
    scale: 0.0039215689
    mirror: false
    crop_size: 48
    mean_value: 133
    mean_value: 127
    mean_value: 126
  }
  data_param {
    source: "../local_data/lmdb/RTSD/AHE/train/lmdb"
    batch_size: 1024
    backend: LMDB
  }
}
layer {
  name: "conv1"
  type: "Convolution"
  bottom: "data"
  top: "conv1"
  convolution_param {
    num_output: 100
    pad: 0
    kernel_size: 7
    group: 1
    stride: 1
    weight_filler {
      type: "xavier"
    }
  }
}
layer {
  name: "conv1_relu"
  type: "ReLU"
  bottom: "conv1"
  top: "conv1"
}
layer {
  name: "pool1"
  type: "Pooling"
  bottom: "conv1"
  top: "pool1"
  pooling_param {
    pool: MAX
    kernel_size: 2
    stride: 2
  }
}
layer {
  name: "conv2"
  type: "Convolution"
  bottom: "pool1"
  top: "conv2"
  convolution_param {
    num_output: 150
    pad: 0
    kernel_size: 4
    group: 1
    stride: 1
    weight_filler {
      type: "xavier"
    }
  }
}
layer {
  name: "conv2_relu"
  type: "ReLU"
  bottom: "conv2"
  top: "conv2"
}
layer {
  name: "pool2"
  type: "Pooling"
  bottom: "conv2"
  top: "pool2"
  pooling_param {
    pool: MAX
    kernel_size: 2
    stride: 2
  }
}
layer {
  name: "conv3"
  type: "Convolution"
  bottom: "pool2"
  top: "conv3"
  convolution_param {
    num_output: 250
    pad: 0
    kernel_size: 4
    group: 1
    stride: 1
    weight_filler {
      type: "xavier"
    }
  }
}
layer {
  name: "conv3_relu"
  type: "ReLU"
  bottom: "conv3"
  top: "conv3"
}
layer {
  name: "pool3"
  type: "Pooling"
  bottom: "conv3"
  top: "pool3"
  pooling_param {
    pool: MAX
    kernel_size: 2
    stride: 2
  }
}
layer {
  name: "fc4_300"
  type: "InnerProduct"
  bottom: "pool3"
  top: "fc4_300"
  inner_product_param {
    num_output: 300
    weight_filler {
      type: "xavier"
    }
  }
}
layer {
  name: "fc4_relu"
  type: "ReLU"
  bottom: "fc4_300"
  top: "fc4_300"
}
layer {
  name: "fc5_116"
  type: "InnerProduct"
  bottom: "fc4_300"
  top: "fc5_classes"
  inner_product_param {
    num_output: 116
    weight_filler {
      type: "xavier"
    }
  }
}
layer {
  name: "softmax"
  type: "Softmax"
  bottom: "fc5_classes"
  top: "softmax"
}
layer {
  name: "loss"
  type: "MultinomialLogisticLoss"
  bottom: "softmax"
  bottom: "label"
  top: "loss"
}
layer {
  name: "accuracy_1"
  type: "Accuracy"
  bottom: "fc5_classes"
  bottom: "label"
  top: "accuracy_1"
  accuracy_param {
    top_k: 1
  }
}
layer {
  name: "accuracy_5"
  type: "Accuracy"
  bottom: "fc5_classes"
  bottom: "label"
  top: "accuracy_5"
  accuracy_param {
    top_k: 5
  }
}
layer {
  name: "silence"
  type: "Silence"
  bottom: "accuracy_1"
  bottom: "accuracy_5"
}
I0528 04:12:27.944562  2310 layer_factory.hpp:77] Creating layer data
I0528 04:12:27.947729  2310 net.cpp:100] Creating Layer data
I0528 04:12:27.947755  2310 net.cpp:408] data -> data
I0528 04:12:27.947790  2310 net.cpp:408] data -> label
I0528 04:12:27.948506  2336 db_lmdb.cpp:35] Opened lmdb ../local_data/lmdb/RTSD/AHE/train/lmdb
I0528 04:12:27.975445  2310 data_layer.cpp:41] output data size: 1024,3,48,48
I0528 04:12:28.044440  2310 net.cpp:150] Setting up data
I0528 04:12:28.044517  2310 net.cpp:157] Top shape: 1024 3 48 48 (7077888)
I0528 04:12:28.044529  2310 net.cpp:157] Top shape: 1024 (1024)
I0528 04:12:28.044536  2310 net.cpp:165] Memory required for data: 28315648
I0528 04:12:28.044550  2310 layer_factory.hpp:77] Creating layer label_data_1_split
I0528 04:12:28.044567  2310 net.cpp:100] Creating Layer label_data_1_split
I0528 04:12:28.044581  2310 net.cpp:434] label_data_1_split <- label
I0528 04:12:28.044610  2310 net.cpp:408] label_data_1_split -> label_data_1_split_0
I0528 04:12:28.044628  2310 net.cpp:408] label_data_1_split -> label_data_1_split_1
I0528 04:12:28.044651  2310 net.cpp:408] label_data_1_split -> label_data_1_split_2
I0528 04:12:28.044747  2310 net.cpp:150] Setting up label_data_1_split
I0528 04:12:28.044772  2310 net.cpp:157] Top shape: 1024 (1024)
I0528 04:12:28.044783  2310 net.cpp:157] Top shape: 1024 (1024)
I0528 04:12:28.044790  2310 net.cpp:157] Top shape: 1024 (1024)
I0528 04:12:28.044798  2310 net.cpp:165] Memory required for data: 28327936
I0528 04:12:28.044806  2310 layer_factory.hpp:77] Creating layer conv1
I0528 04:12:28.044827  2310 net.cpp:100] Creating Layer conv1
I0528 04:12:28.044845  2310 net.cpp:434] conv1 <- data
I0528 04:12:28.044865  2310 net.cpp:408] conv1 -> conv1
I0528 04:12:28.431342  2310 net.cpp:150] Setting up conv1
I0528 04:12:28.431378  2310 net.cpp:157] Top shape: 1024 100 42 42 (180633600)
I0528 04:12:28.431385  2310 net.cpp:165] Memory required for data: 750862336
I0528 04:12:28.431406  2310 layer_factory.hpp:77] Creating layer conv1_relu
I0528 04:12:28.431418  2310 net.cpp:100] Creating Layer conv1_relu
I0528 04:12:28.431426  2310 net.cpp:434] conv1_relu <- conv1
I0528 04:12:28.431433  2310 net.cpp:395] conv1_relu -> conv1 (in-place)
I0528 04:12:28.431612  2310 net.cpp:150] Setting up conv1_relu
I0528 04:12:28.431627  2310 net.cpp:157] Top shape: 1024 100 42 42 (180633600)
I0528 04:12:28.431634  2310 net.cpp:165] Memory required for data: 1473396736
I0528 04:12:28.431644  2310 layer_factory.hpp:77] Creating layer pool1
I0528 04:12:28.431656  2310 net.cpp:100] Creating Layer pool1
I0528 04:12:28.431668  2310 net.cpp:434] pool1 <- conv1
I0528 04:12:28.431675  2310 net.cpp:408] pool1 -> pool1
I0528 04:12:28.431725  2310 net.cpp:150] Setting up pool1
I0528 04:12:28.431735  2310 net.cpp:157] Top shape: 1024 100 21 21 (45158400)
I0528 04:12:28.431740  2310 net.cpp:165] Memory required for data: 1654030336
I0528 04:12:28.431746  2310 layer_factory.hpp:77] Creating layer conv2
I0528 04:12:28.431759  2310 net.cpp:100] Creating Layer conv2
I0528 04:12:28.431768  2310 net.cpp:434] conv2 <- pool1
I0528 04:12:28.431777  2310 net.cpp:408] conv2 -> conv2
I0528 04:12:28.436928  2310 net.cpp:150] Setting up conv2
I0528 04:12:28.436950  2310 net.cpp:157] Top shape: 1024 150 18 18 (49766400)
I0528 04:12:28.436959  2310 net.cpp:165] Memory required for data: 1853095936
I0528 04:12:28.436974  2310 layer_factory.hpp:77] Creating layer conv2_relu
I0528 04:12:28.436985  2310 net.cpp:100] Creating Layer conv2_relu
I0528 04:12:28.436991  2310 net.cpp:434] conv2_relu <- conv2
I0528 04:12:28.437000  2310 net.cpp:395] conv2_relu -> conv2 (in-place)
I0528 04:12:28.437185  2310 net.cpp:150] Setting up conv2_relu
I0528 04:12:28.437201  2310 net.cpp:157] Top shape: 1024 150 18 18 (49766400)
I0528 04:12:28.437209  2310 net.cpp:165] Memory required for data: 2052161536
I0528 04:12:28.437216  2310 layer_factory.hpp:77] Creating layer pool2
I0528 04:12:28.437227  2310 net.cpp:100] Creating Layer pool2
I0528 04:12:28.437237  2310 net.cpp:434] pool2 <- conv2
I0528 04:12:28.437248  2310 net.cpp:408] pool2 -> pool2
I0528 04:12:28.437299  2310 net.cpp:150] Setting up pool2
I0528 04:12:28.437314  2310 net.cpp:157] Top shape: 1024 150 9 9 (12441600)
I0528 04:12:28.437321  2310 net.cpp:165] Memory required for data: 2101927936
I0528 04:12:28.437327  2310 layer_factory.hpp:77] Creating layer conv3
I0528 04:12:28.437343  2310 net.cpp:100] Creating Layer conv3
I0528 04:12:28.437355  2310 net.cpp:434] conv3 <- pool2
I0528 04:12:28.437366  2310 net.cpp:408] conv3 -> conv3
I0528 04:12:28.443590  2310 net.cpp:150] Setting up conv3
I0528 04:12:28.443611  2310 net.cpp:157] Top shape: 1024 250 6 6 (9216000)
I0528 04:12:28.443619  2310 net.cpp:165] Memory required for data: 2138791936
I0528 04:12:28.443632  2310 layer_factory.hpp:77] Creating layer conv3_relu
I0528 04:12:28.443641  2310 net.cpp:100] Creating Layer conv3_relu
I0528 04:12:28.443648  2310 net.cpp:434] conv3_relu <- conv3
I0528 04:12:28.443656  2310 net.cpp:395] conv3_relu -> conv3 (in-place)
I0528 04:12:28.444682  2310 net.cpp:150] Setting up conv3_relu
I0528 04:12:28.444726  2310 net.cpp:157] Top shape: 1024 250 6 6 (9216000)
I0528 04:12:28.444735  2310 net.cpp:165] Memory required for data: 2175655936
I0528 04:12:28.444741  2310 layer_factory.hpp:77] Creating layer pool3
I0528 04:12:28.444751  2310 net.cpp:100] Creating Layer pool3
I0528 04:12:28.444759  2310 net.cpp:434] pool3 <- conv3
I0528 04:12:28.444771  2310 net.cpp:408] pool3 -> pool3
I0528 04:12:28.444823  2310 net.cpp:150] Setting up pool3
I0528 04:12:28.444841  2310 net.cpp:157] Top shape: 1024 250 3 3 (2304000)
I0528 04:12:28.444851  2310 net.cpp:165] Memory required for data: 2184871936
I0528 04:12:28.444859  2310 layer_factory.hpp:77] Creating layer fc4_300
I0528 04:12:28.444869  2310 net.cpp:100] Creating Layer fc4_300
I0528 04:12:28.444881  2310 net.cpp:434] fc4_300 <- pool3
I0528 04:12:28.444890  2310 net.cpp:408] fc4_300 -> fc4_300
I0528 04:12:28.452683  2310 net.cpp:150] Setting up fc4_300
I0528 04:12:28.452723  2310 net.cpp:157] Top shape: 1024 300 (307200)
I0528 04:12:28.452729  2310 net.cpp:165] Memory required for data: 2186100736
I0528 04:12:28.452739  2310 layer_factory.hpp:77] Creating layer fc4_relu
I0528 04:12:28.452750  2310 net.cpp:100] Creating Layer fc4_relu
I0528 04:12:28.452757  2310 net.cpp:434] fc4_relu <- fc4_300
I0528 04:12:28.452765  2310 net.cpp:395] fc4_relu -> fc4_300 (in-place)
I0528 04:12:28.452960  2310 net.cpp:150] Setting up fc4_relu
I0528 04:12:28.452977  2310 net.cpp:157] Top shape: 1024 300 (307200)
I0528 04:12:28.452983  2310 net.cpp:165] Memory required for data: 2187329536
I0528 04:12:28.452991  2310 layer_factory.hpp:77] Creating layer fc5_116
I0528 04:12:28.452999  2310 net.cpp:100] Creating Layer fc5_116
I0528 04:12:28.453011  2310 net.cpp:434] fc5_116 <- fc4_300
I0528 04:12:28.453019  2310 net.cpp:408] fc5_116 -> fc5_classes
I0528 04:12:28.456997  2310 net.cpp:150] Setting up fc5_116
I0528 04:12:28.457013  2310 net.cpp:157] Top shape: 1024 116 (118784)
I0528 04:12:28.457020  2310 net.cpp:165] Memory required for data: 2187804672
I0528 04:12:28.457031  2310 layer_factory.hpp:77] Creating layer fc5_classes_fc5_116_0_split
I0528 04:12:28.457038  2310 net.cpp:100] Creating Layer fc5_classes_fc5_116_0_split
I0528 04:12:28.457043  2310 net.cpp:434] fc5_classes_fc5_116_0_split <- fc5_classes
I0528 04:12:28.457051  2310 net.cpp:408] fc5_classes_fc5_116_0_split -> fc5_classes_fc5_116_0_split_0
I0528 04:12:28.457059  2310 net.cpp:408] fc5_classes_fc5_116_0_split -> fc5_classes_fc5_116_0_split_1
I0528 04:12:28.457065  2310 net.cpp:408] fc5_classes_fc5_116_0_split -> fc5_classes_fc5_116_0_split_2
I0528 04:12:28.457108  2310 net.cpp:150] Setting up fc5_classes_fc5_116_0_split
I0528 04:12:28.457116  2310 net.cpp:157] Top shape: 1024 116 (118784)
I0528 04:12:28.457121  2310 net.cpp:157] Top shape: 1024 116 (118784)
I0528 04:12:28.457125  2310 net.cpp:157] Top shape: 1024 116 (118784)
I0528 04:12:28.457129  2310 net.cpp:165] Memory required for data: 2189230080
I0528 04:12:28.457134  2310 layer_factory.hpp:77] Creating layer softmax
I0528 04:12:28.457141  2310 net.cpp:100] Creating Layer softmax
I0528 04:12:28.457146  2310 net.cpp:434] softmax <- fc5_classes_fc5_116_0_split_0
I0528 04:12:28.457154  2310 net.cpp:408] softmax -> softmax
I0528 04:12:28.457353  2310 net.cpp:150] Setting up softmax
I0528 04:12:28.457368  2310 net.cpp:157] Top shape: 1024 116 (118784)
I0528 04:12:28.457373  2310 net.cpp:165] Memory required for data: 2189705216
I0528 04:12:28.457379  2310 layer_factory.hpp:77] Creating layer loss
I0528 04:12:28.457389  2310 net.cpp:100] Creating Layer loss
I0528 04:12:28.472018  2310 net.cpp:434] loss <- softmax
I0528 04:12:28.472030  2310 net.cpp:434] loss <- label_data_1_split_0
I0528 04:12:28.472036  2310 net.cpp:408] loss -> loss
…
