…
I0411 05:38:59.390909  9994 net.cpp:322] The NetState phase (0) differed from the phase (1) specified by a rule in layer accuracy_5
I0411 05:38:59.391093  9994 net.cpp:58] Initializing net from parameters: 
state {
  phase: TRAIN
  level: 0
  stage: ""
}
layer {
  name: "data"
  type: "Data"
  top: "data"
  top: "label"
  include {
    phase: TRAIN
  }
  transform_param {
    scale: 0.0039215689
    mirror: false
    crop_size: 48
    mean_value: 132
    mean_value: 126
    mean_value: 140
  }
  data_param {
    source: "../local_data/lmdb/rtsd-r1/AHE/train/lmdb"
    batch_size: 1024
    backend: LMDB
  }
}
layer {
  name: "conv1"
  type: "Convolution"
  bottom: "data"
  top: "conv1"
  convolution_param {
    num_output: 100
    pad: 0
    kernel_size: 7
    group: 1
    stride: 1
    weight_filler {
      type: "xavier"
    }
  }
}
layer {
  name: "conv1_prescale"
  type: "Scale"
  bottom: "conv1"
  top: "conv1"
  param {
    lr_mult: 0
    decay_mult: 0
  }
  scale_param {
    filler {
      value: 0.6666
    }
    bias_term: false
  }
}
layer {
  name: "conv1_sTanH"
  type: "TanH"
  bottom: "conv1"
  top: "conv1"
}
layer {
  name: "conv1_postscale"
  type: "Scale"
  bottom: "conv1"
  top: "conv1"
  param {
    lr_mult: 0
    decay_mult: 0
  }
  scale_param {
    filler {
      value: 1.7159
    }
    bias_term: false
  }
}
layer {
  name: "pool1"
  type: "Pooling"
  bottom: "conv1"
  top: "pool1"
  pooling_param {
    pool: MAX
    kernel_size: 2
    stride: 2
  }
}
layer {
  name: "conv2"
  type: "Convolution"
  bottom: "pool1"
  top: "conv2"
  convolution_param {
    num_output: 150
    pad: 0
    kernel_size: 4
    group: 1
    stride: 1
    weight_filler {
      type: "xavier"
    }
  }
}
layer {
  name: "conv2_prescale"
  type: "Scale"
  bottom: "conv2"
  top: "conv2"
  param {
    lr_mult: 0
    decay_mult: 0
  }
  scale_param {
    filler {
      value: 0.6666
    }
    bias_term: false
  }
}
layer {
  name: "conv2_sTanH"
  type: "TanH"
  bottom: "conv2"
  top: "conv2"
}
layer {
  name: "conv2_postscale"
  type: "Scale"
  bottom: "conv2"
  top: "conv2"
  param {
    lr_mult: 0
    decay_mult: 0
  }
  scale_param {
    filler {
      value: 1.7159
    }
    bias_term: false
  }
}
layer {
  name: "pool2"
  type: "Pooling"
  bottom: "conv2"
  top: "pool2"
  pooling_param {
    pool: MAX
    kernel_size: 2
    stride: 2
  }
}
layer {
  name: "conv3"
  type: "Convolution"
  bottom: "pool2"
  top: "conv3"
  convolution_param {
    num_output: 250
    pad: 0
    kernel_size: 4
    group: 1
    stride: 1
    weight_filler {
      type: "xavier"
    }
  }
}
layer {
  name: "conv3_prescale"
  type: "Scale"
  bottom: "conv3"
  top: "conv3"
  param {
    lr_mult: 0
    decay_mult: 0
  }
  scale_param {
    filler {
      value: 0.6666
    }
    bias_term: false
  }
}
layer {
  name: "conv3_sTanH"
  type: "TanH"
  bottom: "conv3"
  top: "conv3"
}
layer {
  name: "conv3_postscale"
  type: "Scale"
  bottom: "conv3"
  top: "conv3"
  param {
    lr_mult: 0
    decay_mult: 0
  }
  scale_param {
    filler {
      value: 1.7159
    }
    bias_term: false
  }
}
layer {
  name: "pool3"
  type: "Pooling"
  bottom: "conv3"
  top: "pool3"
  pooling_param {
    pool: MAX
    kernel_size: 2
    stride: 2
  }
}
layer {
  name: "fc4_300"
  type: "InnerProduct"
  bottom: "pool3"
  top: "fc4_300"
  inner_product_param {
    num_output: 300
    weight_filler {
      type: "xavier"
    }
  }
}
layer {
  name: "fc4_prescale"
  type: "Scale"
  bottom: "fc4_300"
  top: "fc4_300"
  param {
    lr_mult: 0
    decay_mult: 0
  }
  scale_param {
    filler {
      value: 0.6666
    }
    bias_term: false
  }
}
layer {
  name: "fc4_sTanH"
  type: "TanH"
  bottom: "fc4_300"
  top: "fc4_300"
}
layer {
  name: "fc4_postscale"
  type: "Scale"
  bottom: "fc4_300"
  top: "fc4_300"
  param {
    lr_mult: 0
    decay_mult: 0
  }
  scale_param {
    filler {
      value: 1.7159
    }
    bias_term: false
  }
}
layer {
  name: "fc5_67"
  type: "InnerProduct"
  bottom: "fc4_300"
  top: "fc5_classes"
  inner_product_param {
    num_output: 67
    weight_filler {
      type: "xavier"
    }
  }
}
layer {
  name: "loss"
  type: "SoftmaxWithLoss"
  bottom: "fc5_classes"
  bottom: "label"
  top: "loss"
}
I0411 05:38:59.391223  9994 layer_factory.hpp:77] Creating layer data
I0411 05:38:59.392516  9994 net.cpp:100] Creating Layer data
I0411 05:38:59.392535  9994 net.cpp:408] data -> data
I0411 05:38:59.392562  9994 net.cpp:408] data -> label
I0411 05:38:59.393925 10102 db_lmdb.cpp:35] Opened lmdb ../local_data/lmdb/rtsd-r1/AHE/train/lmdb
I0411 05:38:59.414259  9994 data_layer.cpp:41] output data size: 1024,3,48,48
I0411 05:38:59.464969  9994 net.cpp:150] Setting up data
I0411 05:38:59.465003  9994 net.cpp:157] Top shape: 1024 3 48 48 (7077888)
I0411 05:38:59.465010  9994 net.cpp:157] Top shape: 1024 (1024)
I0411 05:38:59.465014  9994 net.cpp:165] Memory required for data: 28315648
I0411 05:38:59.465025  9994 layer_factory.hpp:77] Creating layer conv1
I0411 05:38:59.465050  9994 net.cpp:100] Creating Layer conv1
I0411 05:38:59.465057  9994 net.cpp:434] conv1 <- data
I0411 05:38:59.465071  9994 net.cpp:408] conv1 -> conv1
I0411 05:38:59.794872  9994 net.cpp:150] Setting up conv1
I0411 05:38:59.794909  9994 net.cpp:157] Top shape: 1024 100 42 42 (180633600)
I0411 05:38:59.794914  9994 net.cpp:165] Memory required for data: 750850048
I0411 05:38:59.794936  9994 layer_factory.hpp:77] Creating layer conv1_prescale
I0411 05:38:59.794952  9994 net.cpp:100] Creating Layer conv1_prescale
I0411 05:38:59.794960  9994 net.cpp:434] conv1_prescale <- conv1
I0411 05:38:59.794966  9994 net.cpp:395] conv1_prescale -> conv1 (in-place)
I0411 05:38:59.795092  9994 net.cpp:150] Setting up conv1_prescale
I0411 05:38:59.795102  9994 net.cpp:157] Top shape: 1024 100 42 42 (180633600)
I0411 05:38:59.795109  9994 net.cpp:165] Memory required for data: 1473384448
I0411 05:38:59.795116  9994 layer_factory.hpp:77] Creating layer conv1_sTanH
I0411 05:38:59.795125  9994 net.cpp:100] Creating Layer conv1_sTanH
I0411 05:38:59.795130  9994 net.cpp:434] conv1_sTanH <- conv1
I0411 05:38:59.795135  9994 net.cpp:395] conv1_sTanH -> conv1 (in-place)
I0411 05:38:59.795356  9994 net.cpp:150] Setting up conv1_sTanH
I0411 05:38:59.795369  9994 net.cpp:157] Top shape: 1024 100 42 42 (180633600)
I0411 05:38:59.795374  9994 net.cpp:165] Memory required for data: 2195918848
I0411 05:38:59.795378  9994 layer_factory.hpp:77] Creating layer conv1_postscale
I0411 05:38:59.795387  9994 net.cpp:100] Creating Layer conv1_postscale
I0411 05:38:59.795392  9994 net.cpp:434] conv1_postscale <- conv1
I0411 05:38:59.795398  9994 net.cpp:395] conv1_postscale -> conv1 (in-place)
I0411 05:38:59.795506  9994 net.cpp:150] Setting up conv1_postscale
I0411 05:38:59.795516  9994 net.cpp:157] Top shape: 1024 100 42 42 (180633600)
I0411 05:38:59.795521  9994 net.cpp:165] Memory required for data: 2918453248
I0411 05:38:59.795526  9994 layer_factory.hpp:77] Creating layer pool1
I0411 05:38:59.795533  9994 net.cpp:100] Creating Layer pool1
I0411 05:38:59.795538  9994 net.cpp:434] pool1 <- conv1
I0411 05:38:59.795544  9994 net.cpp:408] pool1 -> pool1
I0411 05:38:59.795595  9994 net.cpp:150] Setting up pool1
I0411 05:38:59.795605  9994 net.cpp:157] Top shape: 1024 100 21 21 (45158400)
I0411 05:38:59.795630  9994 net.cpp:165] Memory required for data: 3099086848
I0411 05:38:59.795635  9994 layer_factory.hpp:77] Creating layer conv2
I0411 05:38:59.795646  9994 net.cpp:100] Creating Layer conv2
I0411 05:38:59.795652  9994 net.cpp:434] conv2 <- pool1
I0411 05:38:59.795658  9994 net.cpp:408] conv2 -> conv2
I0411 05:38:59.803583  9994 net.cpp:150] Setting up conv2
I0411 05:38:59.803601  9994 net.cpp:157] Top shape: 1024 150 18 18 (49766400)
I0411 05:38:59.803607  9994 net.cpp:165] Memory required for data: 3298152448
I0411 05:38:59.803618  9994 layer_factory.hpp:77] Creating layer conv2_prescale
I0411 05:38:59.803628  9994 net.cpp:100] Creating Layer conv2_prescale
I0411 05:38:59.803634  9994 net.cpp:434] conv2_prescale <- conv2
I0411 05:38:59.803640  9994 net.cpp:395] conv2_prescale -> conv2 (in-place)
I0411 05:38:59.803751  9994 net.cpp:150] Setting up conv2_prescale
I0411 05:38:59.803761  9994 net.cpp:157] Top shape: 1024 150 18 18 (49766400)
I0411 05:38:59.803766  9994 net.cpp:165] Memory required for data: 3497218048
I0411 05:38:59.803771  9994 layer_factory.hpp:77] Creating layer conv2_sTanH
I0411 05:38:59.803779  9994 net.cpp:100] Creating Layer conv2_sTanH
I0411 05:38:59.803784  9994 net.cpp:434] conv2_sTanH <- conv2
I0411 05:38:59.803789  9994 net.cpp:395] conv2_sTanH -> conv2 (in-place)
I0411 05:38:59.804731  9994 net.cpp:150] Setting up conv2_sTanH
I0411 05:38:59.804749  9994 net.cpp:157] Top shape: 1024 150 18 18 (49766400)
I0411 05:38:59.804754  9994 net.cpp:165] Memory required for data: 3696283648
I0411 05:38:59.804759  9994 layer_factory.hpp:77] Creating layer conv2_postscale
I0411 05:38:59.804766  9994 net.cpp:100] Creating Layer conv2_postscale
I0411 05:38:59.804772  9994 net.cpp:434] conv2_postscale <- conv2
I0411 05:38:59.804778  9994 net.cpp:395] conv2_postscale -> conv2 (in-place)
I0411 05:38:59.804879  9994 net.cpp:150] Setting up conv2_postscale
I0411 05:38:59.804888  9994 net.cpp:157] Top shape: 1024 150 18 18 (49766400)
I0411 05:38:59.804891  9994 net.cpp:165] Memory required for data: 3895349248
I0411 05:38:59.804898  9994 layer_factory.hpp:77] Creating layer pool2
I0411 05:38:59.804905  9994 net.cpp:100] Creating Layer pool2
I0411 05:38:59.804910  9994 net.cpp:434] pool2 <- conv2
I0411 05:38:59.804915  9994 net.cpp:408] pool2 -> pool2
I0411 05:38:59.804957  9994 net.cpp:150] Setting up pool2
I0411 05:38:59.804966  9994 net.cpp:157] Top shape: 1024 150 9 9 (12441600)
I0411 05:38:59.804970  9994 net.cpp:165] Memory required for data: 3945115648
I0411 05:38:59.804973  9994 layer_factory.hpp:77] Creating layer conv3
I0411 05:38:59.804981  9994 net.cpp:100] Creating Layer conv3
I0411 05:38:59.804986  9994 net.cpp:434] conv3 <- pool2
I0411 05:38:59.804992  9994 net.cpp:408] conv3 -> conv3
I0411 05:38:59.810966  9994 net.cpp:150] Setting up conv3
I0411 05:38:59.810983  9994 net.cpp:157] Top shape: 1024 250 6 6 (9216000)
I0411 05:38:59.810987  9994 net.cpp:165] Memory required for data: 3981979648
I0411 05:38:59.810998  9994 layer_factory.hpp:77] Creating layer conv3_prescale
I0411 05:38:59.811007  9994 net.cpp:100] Creating Layer conv3_prescale
I0411 05:38:59.811010  9994 net.cpp:434] conv3_prescale <- conv3
I0411 05:38:59.811017  9994 net.cpp:395] conv3_prescale -> conv3 (in-place)
I0411 05:38:59.811111  9994 net.cpp:150] Setting up conv3_prescale
I0411 05:38:59.811120  9994 net.cpp:157] Top shape: 1024 250 6 6 (9216000)
I0411 05:38:59.811125  9994 net.cpp:165] Memory required for data: 4018843648
I0411 05:38:59.811130  9994 layer_factory.hpp:77] Creating layer conv3_sTanH
I0411 05:38:59.811134  9994 net.cpp:100] Creating Layer conv3_sTanH
I0411 05:38:59.811137  9994 net.cpp:434] conv3_sTanH <- conv3
I0411 05:38:59.811142  9994 net.cpp:395] conv3_sTanH -> conv3 (in-place)
I0411 05:38:59.817662  9994 net.cpp:150] Setting up conv3_sTanH
I0411 05:38:59.817680  9994 net.cpp:157] Top shape: 1024 250 6 6 (9216000)
I0411 05:38:59.817684  9994 net.cpp:165] Memory required for data: 4055707648
I0411 05:38:59.817689  9994 layer_factory.hpp:77] Creating layer conv3_postscale
I0411 05:38:59.817698  9994 net.cpp:100] Creating Layer conv3_postscale
I0411 05:38:59.817715  9994 net.cpp:434] conv3_postscale <- conv3
I0411 05:38:59.817723  9994 net.cpp:395] conv3_postscale -> conv3 (in-place)
I0411 05:38:59.817827  9994 net.cpp:150] Setting up conv3_postscale
I0411 05:38:59.817837  9994 net.cpp:157] Top shape: 1024 250 6 6 (9216000)
I0411 05:38:59.817842  9994 net.cpp:165] Memory required for data: 4092571648
I0411 05:38:59.817847  9994 layer_factory.hpp:77] Creating layer pool3
I0411 05:38:59.817853  9994 net.cpp:100] Creating Layer pool3
I0411 05:38:59.817858  9994 net.cpp:434] pool3 <- conv3
I0411 05:38:59.817863  9994 net.cpp:408] pool3 -> pool3
I0411 05:38:59.817903  9994 net.cpp:150] Setting up pool3
I0411 05:38:59.817911  9994 net.cpp:157] Top shape: 1024 250 3 3 (2304000)
I0411 05:38:59.817914  9994 net.cpp:165] Memory required for data: 4101787648
I0411 05:38:59.817917  9994 layer_factory.hpp:77] Creating layer fc4_300
I0411 05:38:59.817926  9994 net.cpp:100] Creating Layer fc4_300
I0411 05:38:59.817931  9994 net.cpp:434] fc4_300 <- pool3
I0411 05:38:59.817937  9994 net.cpp:408] fc4_300 -> fc4_300
I0411 05:38:59.827996  9994 net.cpp:150] Setting up fc4_300
I0411 05:38:59.828016  9994 net.cpp:157] Top shape: 1024 300 (307200)
I0411 05:38:59.828019  9994 net.cpp:165] Memory required for data: 4103016448
I0411 05:38:59.828027  9994 layer_factory.hpp:77] Creating layer fc4_prescale
I0411 05:38:59.828034  9994 net.cpp:100] Creating Layer fc4_prescale
I0411 05:38:59.828040  9994 net.cpp:434] fc4_prescale <- fc4_300
I0411 05:38:59.828050  9994 net.cpp:395] fc4_prescale -> fc4_300 (in-place)
I0411 05:38:59.828145  9994 net.cpp:150] Setting up fc4_prescale
I0411 05:38:59.828153  9994 net.cpp:157] Top shape: 1024 300 (307200)
I0411 05:38:59.828156  9994 net.cpp:165] Memory required for data: 4104245248
I0411 05:38:59.828161  9994 layer_factory.hpp:77] Creating layer fc4_sTanH
I0411 05:38:59.828167  9994 net.cpp:100] Creating Layer fc4_sTanH
I0411 05:38:59.828171  9994 net.cpp:434] fc4_sTanH <- fc4_300
I0411 05:38:59.828176  9994 net.cpp:395] fc4_sTanH -> fc4_300 (in-place)
I0411 05:38:59.828377  9994 net.cpp:150] Setting up fc4_sTanH
I0411 05:38:59.828390  9994 net.cpp:157] Top shape: 1024 300 (307200)
I0411 05:38:59.828395  9994 net.cpp:165] Memory required for data: 4105474048
I0411 05:38:59.828398  9994 layer_factory.hpp:77] Creating layer fc4_postscale
I0411 05:38:59.828409  9994 net.cpp:100] Creating Layer fc4_postscale
I0411 05:38:59.828414  9994 net.cpp:434] fc4_postscale <- fc4_300
I0411 05:38:59.828421  9994 net.cpp:395] fc4_postscale -> fc4_300 (in-place)
I0411 05:38:59.828523  9994 net.cpp:150] Setting up fc4_postscale
I0411 05:38:59.828531  9994 net.cpp:157] Top shape: 1024 300 (307200)
I0411 05:38:59.828534  9994 net.cpp:165] Memory required for data: 4106702848
I0411 05:38:59.828539  9994 layer_factory.hpp:77] Creating layer fc5_67
I0411 05:38:59.828547  9994 net.cpp:100] Creating Layer fc5_67
I0411 05:38:59.828552  9994 net.cpp:434] fc5_67 <- fc4_300
I0411 05:38:59.828558  9994 net.cpp:408] fc5_67 -> fc5_classes
I0411 05:38:59.829933  9994 net.cpp:150] Setting up fc5_67
I0411 05:38:59.829948  9994 net.cpp:157] Top shape: 1024 67 (68608)
I0411 05:38:59.829952  9994 net.cpp:165] Memory required for data: 4106977280
I0411 05:38:59.829963  9994 layer_factory.hpp:77] Creating layer loss
I0411 05:38:59.829972  9994 net.cpp:100] Creating Layer loss
I0411 05:38:59.829975  9994 net.cpp:434] loss <- fc5_classes
I0411 05:38:59.829979  9994 net.cpp:434] loss <- label
I0411 05:38:59.829987  9994 net.cpp:408] loss -> loss
I0411 05:38:59.829998  9994 layer_factory.hpp:77] Creating layer loss
…
I0411 05:38:59.830766  9994 solver.cpp:193] Creating test net (#0) specified by test_net file: ./Prototxt/experiment_8/rtsd-r1/AHE/trial_5/test.prototxt
I0411 05:38:59.830943  9994 net.cpp:58] Initializing net from parameters: 
state {
  phase: TEST
}
layer {
  name: "data"
  type: "Data"
  top: "data"
  top: "label"
  include {
    phase: TEST
  }
  transform_param {
    scale: 0.0039215689
    mirror: false
    crop_size: 48
    mean_value: 126
    mean_value: 124
    mean_value: 145
  }
  data_param {
    source: "../local_data/lmdb/rtsd-r1/AHE/test/lmdb"
    batch_size: 1024
    backend: LMDB
  }
}
layer {
  name: "conv1"
  type: "Convolution"
  bottom: "data"
  top: "conv1"
  convolution_param {
    num_output: 100
    pad: 0
    kernel_size: 7
    group: 1
    stride: 1
    weight_filler {
      type: "xavier"
    }
  }
}
layer {
  name: "conv1_prescale"
  type: "Scale"
  bottom: "conv1"
  top: "conv1"
  param {
    lr_mult: 0
    decay_mult: 0
  }
  scale_param {
    filler {
      value: 0.6666
    }
    bias_term: false
  }
}
layer {
  name: "conv1_sTanH"
  type: "TanH"
  bottom: "conv1"
  top: "conv1"
}
layer {
  name: "conv1_postscale"
  type: "Scale"
  bottom: "conv1"
  top: "conv1"
  param {
    lr_mult: 0
    decay_mult: 0
  }
  scale_param {
    filler {
      value: 1.7159
    }
    bias_term: false
  }
}
layer {
  name: "pool1"
  type: "Pooling"
  bottom: "conv1"
  top: "pool1"
  pooling_param {
    pool: MAX
    kernel_size: 2
    stride: 2
  }
}
layer {
  name: "conv2"
  type: "Convolution"
  bottom: "pool1"
  top: "conv2"
  convolution_param {
    num_output: 150
    pad: 0
    kernel_size: 4
    group: 1
    stride: 1
    weight_filler {
      type: "xavier"
    }
  }
}
layer {
  name: "conv2_prescale"
  type: "Scale"
  bottom: "conv2"
  top: "conv2"
  param {
    lr_mult: 0
    decay_mult: 0
  }
  scale_param {
    filler {
      value: 0.6666
    }
    bias_term: false
  }
}
layer {
  name: "conv2_sTanH"
  type: "TanH"
  bottom: "conv2"
  top: "conv2"
}
layer {
  name: "conv2_postscale"
  type: "Scale"
  bottom: "conv2"
  top: "conv2"
  param {
    lr_mult: 0
    decay_mult: 0
  }
  scale_param {
    filler {
      value: 1.7159
    }
    bias_term: false
  }
}
layer {
  name: "pool2"
  type: "Pooling"
  bottom: "conv2"
  top: "pool2"
  pooling_param {
    pool: MAX
    kernel_size: 2
    stride: 2
  }
}
layer {
  name: "conv3"
  type: "Convolution"
  bottom: "pool2"
  top: "conv3"
  convolution_param {
    num_output: 250
    pad: 0
    kernel_size: 4
    group: 1
    stride: 1
    weight_filler {
      type: "xavier"
    }
  }
}
layer {
  name: "conv3_prescale"
  type: "Scale"
  bottom: "conv3"
  top: "conv3"
  param {
    lr_mult: 0
    decay_mult: 0
  }
  scale_param {
    filler {
      value: 0.6666
    }
    bias_term: false
  }
}
layer {
  name: "conv3_sTanH"
  type: "TanH"
  bottom: "conv3"
  top: "conv3"
}
layer {
  name: "conv3_postscale"
  type: "Scale"
  bottom: "conv3"
  top: "conv3"
  param {
    lr_mult: 0
    decay_mult: 0
  }
  scale_param {
    filler {
      value: 1.7159
    }
    bias_term: false
  }
}
layer {
  name: "pool3"
  type: "Pooling"
  bottom: "conv3"
  top: "pool3"
  pooling_param {
    pool: MAX
    kernel_size: 2
    stride: 2
  }
}
layer {
  name: "fc4_300"
  type: "InnerProduct"
  bottom: "pool3"
  top: "fc4_300"
  inner_product_param {
    num_output: 300
    weight_filler {
      type: "xavier"
    }
  }
}
layer {
  name: "fc4_prescale"
  type: "Scale"
  bottom: "fc4_300"
  top: "fc4_300"
  param {
    lr_mult: 0
    decay_mult: 0
  }
  scale_param {
    filler {
      value: 0.6666
    }
    bias_term: false
  }
}
layer {
  name: "fc4_sTanH"
  type: "TanH"
  bottom: "fc4_300"
  top: "fc4_300"
}
layer {
  name: "fc4_postscale"
  type: "Scale"
  bottom: "fc4_300"
  top: "fc4_300"
  param {
    lr_mult: 0
    decay_mult: 0
  }
  scale_param {
    filler {
      value: 1.7159
    }
    bias_term: false
  }
}
layer {
  name: "fc5_67"
  type: "InnerProduct"
  bottom: "fc4_300"
  top: "fc5_classes"
  inner_product_param {
    num_output: 67
    weight_filler {
      type: "xavier"
    }
  }
}
layer {
  name: "loss"
  type: "SoftmaxWithLoss"
  bottom: "fc5_classes"
  bottom: "label"
  top: "loss"
}
layer {
  name: "accuracy_1"
  type: "Accuracy"
  bottom: "fc5_classes"
  bottom: "label"
  top: "accuracy_1"
  include {
    phase: TEST
  }
  accuracy_param {
    top_k: 1
  }
}
layer {
  name: "accuracy_5"
  type: "Accuracy"
  bottom: "fc5_classes"
  bottom: "label"
  top: "accuracy_5"
  include {
    phase: TEST
  }
  accuracy_param {
    top_k: 5
  }
}
I0411 05:38:59.831063  9994 layer_factory.hpp:77] Creating layer data
I0411 05:38:59.831969  9994 net.cpp:100] Creating Layer data
I0411 05:38:59.831984  9994 net.cpp:408] data -> data
I0411 05:38:59.831995  9994 net.cpp:408] data -> label
I0411 05:38:59.834249 10146 db_lmdb.cpp:35] Opened lmdb ../local_data/lmdb/rtsd-r1/AHE/test/lmdb
I0411 05:38:59.834429  9994 data_layer.cpp:41] output data size: 1024,3,48,48
I0411 05:38:59.874651  9994 net.cpp:150] Setting up data
I0411 05:38:59.874682  9994 net.cpp:157] Top shape: 1024 3 48 48 (7077888)
I0411 05:38:59.874688  9994 net.cpp:157] Top shape: 1024 (1024)
I0411 05:38:59.874691  9994 net.cpp:165] Memory required for data: 28315648
I0411 05:38:59.874697  9994 layer_factory.hpp:77] Creating layer label_data_1_split
I0411 05:38:59.874713  9994 net.cpp:100] Creating Layer label_data_1_split
I0411 05:38:59.874717  9994 net.cpp:434] label_data_1_split <- label
I0411 05:38:59.874724  9994 net.cpp:408] label_data_1_split -> label_data_1_split_0
I0411 05:38:59.874737  9994 net.cpp:408] label_data_1_split -> label_data_1_split_1
I0411 05:38:59.874745  9994 net.cpp:408] label_data_1_split -> label_data_1_split_2
I0411 05:38:59.874830  9994 net.cpp:150] Setting up label_data_1_split
I0411 05:38:59.874840  9994 net.cpp:157] Top shape: 1024 (1024)
I0411 05:38:59.874845  9994 net.cpp:157] Top shape: 1024 (1024)
I0411 05:38:59.874847  9994 net.cpp:157] Top shape: 1024 (1024)
I0411 05:38:59.874850  9994 net.cpp:165] Memory required for data: 28327936
I0411 05:38:59.874853  9994 layer_factory.hpp:77] Creating layer conv1
I0411 05:38:59.874871  9994 net.cpp:100] Creating Layer conv1
I0411 05:38:59.874876  9994 net.cpp:434] conv1 <- data
I0411 05:38:59.874881  9994 net.cpp:408] conv1 -> conv1
I0411 05:38:59.879060  9994 net.cpp:150] Setting up conv1
I0411 05:38:59.879081  9994 net.cpp:157] Top shape: 1024 100 42 42 (180633600)
I0411 05:38:59.879104  9994 net.cpp:165] Memory required for data: 750862336
I0411 05:38:59.879117  9994 layer_factory.hpp:77] Creating layer conv1_prescale
I0411 05:38:59.879127  9994 net.cpp:100] Creating Layer conv1_prescale
I0411 05:38:59.879132  9994 net.cpp:434] conv1_prescale <- conv1
I0411 05:38:59.879142  9994 net.cpp:395] conv1_prescale -> conv1 (in-place)
I0411 05:38:59.879266  9994 net.cpp:150] Setting up conv1_prescale
I0411 05:38:59.879276  9994 net.cpp:157] Top shape: 1024 100 42 42 (180633600)
I0411 05:38:59.879278  9994 net.cpp:165] Memory required for data: 1473396736
I0411 05:38:59.879288  9994 layer_factory.hpp:77] Creating layer conv1_sTanH
I0411 05:38:59.879297  9994 net.cpp:100] Creating Layer conv1_sTanH
I0411 05:38:59.879299  9994 net.cpp:434] conv1_sTanH <- conv1
I0411 05:38:59.879308  9994 net.cpp:395] conv1_sTanH -> conv1 (in-place)
I0411 05:38:59.879516  9994 net.cpp:150] Setting up conv1_sTanH
I0411 05:38:59.879528  9994 net.cpp:157] Top shape: 1024 100 42 42 (180633600)
I0411 05:38:59.879532  9994 net.cpp:165] Memory required for data: 2195931136
I0411 05:38:59.879535  9994 layer_factory.hpp:77] Creating layer conv1_postscale
I0411 05:38:59.879544  9994 net.cpp:100] Creating Layer conv1_postscale
I0411 05:38:59.879546  9994 net.cpp:434] conv1_postscale <- conv1
I0411 05:38:59.879552  9994 net.cpp:395] conv1_postscale -> conv1 (in-place)
I0411 05:38:59.879665  9994 net.cpp:150] Setting up conv1_postscale
I0411 05:38:59.879674  9994 net.cpp:157] Top shape: 1024 100 42 42 (180633600)
I0411 05:38:59.879678  9994 net.cpp:165] Memory required for data: 2918465536
I0411 05:38:59.879683  9994 layer_factory.hpp:77] Creating layer pool1
I0411 05:38:59.879691  9994 net.cpp:100] Creating Layer pool1
I0411 05:38:59.879695  9994 net.cpp:434] pool1 <- conv1
I0411 05:38:59.879700  9994 net.cpp:408] pool1 -> pool1
I0411 05:38:59.879750  9994 net.cpp:150] Setting up pool1
I0411 05:38:59.879758  9994 net.cpp:157] Top shape: 1024 100 21 21 (45158400)
I0411 05:38:59.879761  9994 net.cpp:165] Memory required for data: 3099099136
I0411 05:38:59.879765  9994 layer_factory.hpp:77] Creating layer conv2
I0411 05:38:59.879776  9994 net.cpp:100] Creating Layer conv2
I0411 05:38:59.879781  9994 net.cpp:434] conv2 <- pool1
I0411 05:38:59.879786  9994 net.cpp:408] conv2 -> conv2
I0411 05:38:59.883800  9994 net.cpp:150] Setting up conv2
I0411 05:38:59.883817  9994 net.cpp:157] Top shape: 1024 150 18 18 (49766400)
I0411 05:38:59.883821  9994 net.cpp:165] Memory required for data: 3298164736
I0411 05:38:59.883831  9994 layer_factory.hpp:77] Creating layer conv2_prescale
I0411 05:38:59.883842  9994 net.cpp:100] Creating Layer conv2_prescale
I0411 05:38:59.883847  9994 net.cpp:434] conv2_prescale <- conv2
I0411 05:38:59.883852  9994 net.cpp:395] conv2_prescale -> conv2 (in-place)
I0411 05:38:59.883985  9994 net.cpp:150] Setting up conv2_prescale
I0411 05:38:59.883998  9994 net.cpp:157] Top shape: 1024 150 18 18 (49766400)
I0411 05:38:59.884002  9994 net.cpp:165] Memory required for data: 3497230336
I0411 05:38:59.884007  9994 layer_factory.hpp:77] Creating layer conv2_sTanH
I0411 05:38:59.884012  9994 net.cpp:100] Creating Layer conv2_sTanH
I0411 05:38:59.884016  9994 net.cpp:434] conv2_sTanH <- conv2
I0411 05:38:59.884021  9994 net.cpp:395] conv2_sTanH -> conv2 (in-place)
I0411 05:38:59.885233  9994 net.cpp:150] Setting up conv2_sTanH
I0411 05:38:59.885249  9994 net.cpp:157] Top shape: 1024 150 18 18 (49766400)
I0411 05:38:59.885253  9994 net.cpp:165] Memory required for data: 3696295936
I0411 05:38:59.885257  9994 layer_factory.hpp:77] Creating layer conv2_postscale
I0411 05:38:59.885264  9994 net.cpp:100] Creating Layer conv2_postscale
I0411 05:38:59.885268  9994 net.cpp:434] conv2_postscale <- conv2
I0411 05:38:59.885275  9994 net.cpp:395] conv2_postscale -> conv2 (in-place)
I0411 05:38:59.885390  9994 net.cpp:150] Setting up conv2_postscale
I0411 05:38:59.885398  9994 net.cpp:157] Top shape: 1024 150 18 18 (49766400)
I0411 05:38:59.885401  9994 net.cpp:165] Memory required for data: 3895361536
I0411 05:38:59.885406  9994 layer_factory.hpp:77] Creating layer pool2
I0411 05:38:59.885426  9994 net.cpp:100] Creating Layer pool2
I0411 05:38:59.885431  9994 net.cpp:434] pool2 <- conv2
I0411 05:38:59.885438  9994 net.cpp:408] pool2 -> pool2
I0411 05:38:59.885489  9994 net.cpp:150] Setting up pool2
I0411 05:38:59.885506  9994 net.cpp:157] Top shape: 1024 150 9 9 (12441600)
I0411 05:38:59.885514  9994 net.cpp:165] Memory required for data: 3945127936
I0411 05:38:59.885516  9994 layer_factory.hpp:77] Creating layer conv3
I0411 05:38:59.885526  9994 net.cpp:100] Creating Layer conv3
I0411 05:38:59.885530  9994 net.cpp:434] conv3 <- pool2
I0411 05:38:59.885535  9994 net.cpp:408] conv3 -> conv3
I0411 05:38:59.891952  9994 net.cpp:150] Setting up conv3
I0411 05:38:59.891969  9994 net.cpp:157] Top shape: 1024 250 6 6 (9216000)
I0411 05:38:59.891974  9994 net.cpp:165] Memory required for data: 3981991936
I0411 05:38:59.891990  9994 layer_factory.hpp:77] Creating layer conv3_prescale
I0411 05:38:59.891999  9994 net.cpp:100] Creating Layer conv3_prescale
I0411 05:38:59.892005  9994 net.cpp:434] conv3_prescale <- conv3
I0411 05:38:59.892011  9994 net.cpp:395] conv3_prescale -> conv3 (in-place)
I0411 05:38:59.892115  9994 net.cpp:150] Setting up conv3_prescale
I0411 05:38:59.892125  9994 net.cpp:157] Top shape: 1024 250 6 6 (9216000)
I0411 05:38:59.892128  9994 net.cpp:165] Memory required for data: 4018855936
I0411 05:38:59.892133  9994 layer_factory.hpp:77] Creating layer conv3_sTanH
I0411 05:38:59.892148  9994 net.cpp:100] Creating Layer conv3_sTanH
I0411 05:38:59.892153  9994 net.cpp:434] conv3_sTanH <- conv3
I0411 05:38:59.892160  9994 net.cpp:395] conv3_sTanH -> conv3 (in-place)
I0411 05:38:59.893056  9994 net.cpp:150] Setting up conv3_sTanH
I0411 05:38:59.893072  9994 net.cpp:157] Top shape: 1024 250 6 6 (9216000)
I0411 05:38:59.893076  9994 net.cpp:165] Memory required for data: 4055719936
I0411 05:38:59.893080  9994 layer_factory.hpp:77] Creating layer conv3_postscale
I0411 05:38:59.893090  9994 net.cpp:100] Creating Layer conv3_postscale
I0411 05:38:59.893095  9994 net.cpp:434] conv3_postscale <- conv3
I0411 05:38:59.893100  9994 net.cpp:395] conv3_postscale -> conv3 (in-place)
I0411 05:38:59.893209  9994 net.cpp:150] Setting up conv3_postscale
I0411 05:38:59.893219  9994 net.cpp:157] Top shape: 1024 250 6 6 (9216000)
I0411 05:38:59.893223  9994 net.cpp:165] Memory required for data: 4092583936
I0411 05:38:59.893227  9994 layer_factory.hpp:77] Creating layer pool3
I0411 05:38:59.893237  9994 net.cpp:100] Creating Layer pool3
I0411 05:38:59.893242  9994 net.cpp:434] pool3 <- conv3
I0411 05:38:59.893249  9994 net.cpp:408] pool3 -> pool3
I0411 05:38:59.893292  9994 net.cpp:150] Setting up pool3
I0411 05:38:59.893301  9994 net.cpp:157] Top shape: 1024 250 3 3 (2304000)
I0411 05:38:59.893303  9994 net.cpp:165] Memory required for data: 4101799936
I0411 05:38:59.893308  9994 layer_factory.hpp:77] Creating layer fc4_300
I0411 05:38:59.893316  9994 net.cpp:100] Creating Layer fc4_300
I0411 05:38:59.893321  9994 net.cpp:434] fc4_300 <- pool3
I0411 05:38:59.893326  9994 net.cpp:408] fc4_300 -> fc4_300
I0411 05:38:59.898859  9994 net.cpp:150] Setting up fc4_300
I0411 05:38:59.898876  9994 net.cpp:157] Top shape: 1024 300 (307200)
I0411 05:38:59.898880  9994 net.cpp:165] Memory required for data: 4103028736
I0411 05:38:59.898887  9994 layer_factory.hpp:77] Creating layer fc4_prescale
I0411 05:38:59.898895  9994 net.cpp:100] Creating Layer fc4_prescale
I0411 05:38:59.898898  9994 net.cpp:434] fc4_prescale <- fc4_300
I0411 05:38:59.898905  9994 net.cpp:395] fc4_prescale -> fc4_300 (in-place)
I0411 05:38:59.899003  9994 net.cpp:150] Setting up fc4_prescale
I0411 05:38:59.899011  9994 net.cpp:157] Top shape: 1024 300 (307200)
I0411 05:38:59.899014  9994 net.cpp:165] Memory required for data: 4104257536
I0411 05:38:59.899019  9994 layer_factory.hpp:77] Creating layer fc4_sTanH
I0411 05:38:59.899025  9994 net.cpp:100] Creating Layer fc4_sTanH
I0411 05:38:59.899029  9994 net.cpp:434] fc4_sTanH <- fc4_300
I0411 05:38:59.899032  9994 net.cpp:395] fc4_sTanH -> fc4_300 (in-place)
I0411 05:38:59.899253  9994 net.cpp:150] Setting up fc4_sTanH
I0411 05:38:59.899266  9994 net.cpp:157] Top shape: 1024 300 (307200)
I0411 05:38:59.899268  9994 net.cpp:165] Memory required for data: 4105486336
I0411 05:38:59.899272  9994 layer_factory.hpp:77] Creating layer fc4_postscale
I0411 05:38:59.899278  9994 net.cpp:100] Creating Layer fc4_postscale
I0411 05:38:59.899282  9994 net.cpp:434] fc4_postscale <- fc4_300
I0411 05:38:59.899289  9994 net.cpp:395] fc4_postscale -> fc4_300 (in-place)
I0411 05:38:59.899405  9994 net.cpp:150] Setting up fc4_postscale
I0411 05:38:59.899415  9994 net.cpp:157] Top shape: 1024 300 (307200)
I0411 05:38:59.899417  9994 net.cpp:165] Memory required for data: 4106715136
I0411 05:38:59.899422  9994 layer_factory.hpp:77] Creating layer fc5_67
I0411 05:38:59.899430  9994 net.cpp:100] Creating Layer fc5_67
I0411 05:38:59.899433  9994 net.cpp:434] fc5_67 <- fc4_300
I0411 05:38:59.899440  9994 net.cpp:408] fc5_67 -> fc5_classes
I0411 05:38:59.899696  9994 net.cpp:150] Setting up fc5_67
I0411 05:38:59.899706  9994 net.cpp:157] Top shape: 1024 67 (68608)
I0411 05:38:59.899708  9994 net.cpp:165] Memory required for data: 4106989568
I0411 05:38:59.899720  9994 layer_factory.hpp:77] Creating layer fc5_classes_fc5_67_0_split
I0411 05:38:59.899729  9994 net.cpp:100] Creating Layer fc5_classes_fc5_67_0_split
I0411 05:38:59.899732  9994 net.cpp:434] fc5_classes_fc5_67_0_split <- fc5_classes
I0411 05:38:59.899739  9994 net.cpp:408] fc5_classes_fc5_67_0_split -> fc5_classes_fc5_67_0_split_0
I0411 05:38:59.899745  9994 net.cpp:408] fc5_classes_fc5_67_0_split -> fc5_classes_fc5_67_0_split_1
I0411 05:38:59.899755  9994 net.cpp:408] fc5_classes_fc5_67_0_split -> fc5_classes_fc5_67_0_split_2
I0411 05:38:59.899808  9994 net.cpp:150] Setting up fc5_classes_fc5_67_0_split
I0411 05:38:59.899816  9994 net.cpp:157] Top shape: 1024 67 (68608)
I0411 05:38:59.899821  9994 net.cpp:157] Top shape: 1024 67 (68608)
I0411 05:38:59.899823  9994 net.cpp:157] Top shape: 1024 67 (68608)
I0411 05:38:59.899826  9994 net.cpp:165] Memory required for data: 4107812864
I0411 05:38:59.899829  9994 layer_factory.hpp:77] Creating layer loss
I0411 05:38:59.899837  9994 net.cpp:100] Creating Layer loss
I0411 05:38:59.899842  9994 net.cpp:434] loss <- fc5_classes_fc5_67_0_split_0
I0411 05:38:59.899847  9994 net.cpp:434] loss <- label_data_1_split_0
I0411 05:38:59.899852  9994 net.cpp:408] loss -> loss
…
