…
I0411 15:25:36.281018 21936 net.cpp:322] The NetState phase (0) differed from the phase (1) specified by a rule in layer accuracy_5
I0411 15:25:36.281201 21936 net.cpp:58] Initializing net from parameters: 
state {
  phase: TRAIN
  level: 0
  stage: ""
}
layer {
  name: "data"
  type: "Data"
  top: "data"
  top: "label"
  include {
    phase: TRAIN
  }
  transform_param {
    scale: 0.0039215689
    mirror: false
    crop_size: 48
    mean_value: 132
    mean_value: 132
    mean_value: 131
  }
  data_param {
    source: "../local_data/lmdb/rtsd-r1/CoNorm/train/lmdb"
    batch_size: 1024
    backend: LMDB
  }
}
layer {
  name: "conv1"
  type: "Convolution"
  bottom: "data"
  top: "conv1"
  convolution_param {
    num_output: 100
    pad: 0
    kernel_size: 7
    group: 1
    stride: 1
    weight_filler {
      type: "xavier"
    }
  }
}
layer {
  name: "conv1_prescale"
  type: "Scale"
  bottom: "conv1"
  top: "conv1"
  param {
    lr_mult: 0
    decay_mult: 0
  }
  scale_param {
    filler {
      value: 0.6666
    }
    bias_term: false
  }
}
layer {
  name: "conv1_sTanH"
  type: "TanH"
  bottom: "conv1"
  top: "conv1"
}
layer {
  name: "conv1_postscale"
  type: "Scale"
  bottom: "conv1"
  top: "conv1"
  param {
    lr_mult: 0
    decay_mult: 0
  }
  scale_param {
    filler {
      value: 1.7159
    }
    bias_term: false
  }
}
layer {
  name: "pool1"
  type: "Pooling"
  bottom: "conv1"
  top: "pool1"
  pooling_param {
    pool: MAX
    kernel_size: 2
    stride: 2
  }
}
layer {
  name: "conv2"
  type: "Convolution"
  bottom: "pool1"
  top: "conv2"
  convolution_param {
    num_output: 150
    pad: 0
    kernel_size: 4
    group: 1
    stride: 1
    weight_filler {
      type: "xavier"
    }
  }
}
layer {
  name: "conv2_prescale"
  type: "Scale"
  bottom: "conv2"
  top: "conv2"
  param {
    lr_mult: 0
    decay_mult: 0
  }
  scale_param {
    filler {
      value: 0.6666
    }
    bias_term: false
  }
}
layer {
  name: "conv2_sTanH"
  type: "TanH"
  bottom: "conv2"
  top: "conv2"
}
layer {
  name: "conv2_postscale"
  type: "Scale"
  bottom: "conv2"
  top: "conv2"
  param {
    lr_mult: 0
    decay_mult: 0
  }
  scale_param {
    filler {
      value: 1.7159
    }
    bias_term: false
  }
}
layer {
  name: "pool2"
  type: "Pooling"
  bottom: "conv2"
  top: "pool2"
  pooling_param {
    pool: MAX
    kernel_size: 2
    stride: 2
  }
}
layer {
  name: "conv3"
  type: "Convolution"
  bottom: "pool2"
  top: "conv3"
  convolution_param {
    num_output: 250
    pad: 0
    kernel_size: 4
    group: 1
    stride: 1
    weight_filler {
      type: "xavier"
    }
  }
}
layer {
  name: "conv3_prescale"
  type: "Scale"
  bottom: "conv3"
  top: "conv3"
  param {
    lr_mult: 0
    decay_mult: 0
  }
  scale_param {
    filler {
      value: 0.6666
    }
    bias_term: false
  }
}
layer {
  name: "conv3_sTanH"
  type: "TanH"
  bottom: "conv3"
  top: "conv3"
}
layer {
  name: "conv3_postscale"
  type: "Scale"
  bottom: "conv3"
  top: "conv3"
  param {
    lr_mult: 0
    decay_mult: 0
  }
  scale_param {
    filler {
      value: 1.7159
    }
    bias_term: false
  }
}
layer {
  name: "pool3"
  type: "Pooling"
  bottom: "conv3"
  top: "pool3"
  pooling_param {
    pool: MAX
    kernel_size: 2
    stride: 2
  }
}
layer {
  name: "fc4_300"
  type: "InnerProduct"
  bottom: "pool3"
  top: "fc4_300"
  inner_product_param {
    num_output: 300
    weight_filler {
      type: "xavier"
    }
  }
}
layer {
  name: "fc4_prescale"
  type: "Scale"
  bottom: "fc4_300"
  top: "fc4_300"
  param {
    lr_mult: 0
    decay_mult: 0
  }
  scale_param {
    filler {
      value: 0.6666
    }
    bias_term: false
  }
}
layer {
  name: "fc4_sTanH"
  type: "TanH"
  bottom: "fc4_300"
  top: "fc4_300"
}
layer {
  name: "fc4_postscale"
  type: "Scale"
  bottom: "fc4_300"
  top: "fc4_300"
  param {
    lr_mult: 0
    decay_mult: 0
  }
  scale_param {
    filler {
      value: 1.7159
    }
    bias_term: false
  }
}
layer {
  name: "drop4"
  type: "Dropout"
  bottom: "fc4_300"
  top: "fc4_300"
  dropout_param {
    dropout_ratio: 0.1
  }
}
layer {
  name: "fc5_67"
  type: "InnerProduct"
  bottom: "fc4_300"
  top: "fc5_classes"
  inner_product_param {
    num_output: 67
    weight_filler {
      type: "xavier"
    }
  }
}
layer {
  name: "loss"
  type: "SoftmaxWithLoss"
  bottom: "fc5_classes"
  bottom: "label"
  top: "loss"
}
I0411 15:25:36.281327 21936 layer_factory.hpp:77] Creating layer data
I0411 15:25:36.282636 21936 net.cpp:100] Creating Layer data
I0411 15:25:36.282654 21936 net.cpp:408] data -> data
I0411 15:25:36.282677 21936 net.cpp:408] data -> label
I0411 15:25:36.284235 22049 db_lmdb.cpp:35] Opened lmdb ../local_data/lmdb/rtsd-r1/CoNorm/train/lmdb
I0411 15:25:36.305035 21936 data_layer.cpp:41] output data size: 1024,3,48,48
I0411 15:25:36.356529 21936 net.cpp:150] Setting up data
I0411 15:25:36.356570 21936 net.cpp:157] Top shape: 1024 3 48 48 (7077888)
I0411 15:25:36.356576 21936 net.cpp:157] Top shape: 1024 (1024)
I0411 15:25:36.356580 21936 net.cpp:165] Memory required for data: 28315648
I0411 15:25:36.356591 21936 layer_factory.hpp:77] Creating layer conv1
I0411 15:25:36.356616 21936 net.cpp:100] Creating Layer conv1
I0411 15:25:36.356623 21936 net.cpp:434] conv1 <- data
I0411 15:25:36.356638 21936 net.cpp:408] conv1 -> conv1
I0411 15:25:36.708479 21936 net.cpp:150] Setting up conv1
I0411 15:25:36.708511 21936 net.cpp:157] Top shape: 1024 100 42 42 (180633600)
I0411 15:25:36.708516 21936 net.cpp:165] Memory required for data: 750850048
I0411 15:25:36.708541 21936 layer_factory.hpp:77] Creating layer conv1_prescale
I0411 15:25:36.708560 21936 net.cpp:100] Creating Layer conv1_prescale
I0411 15:25:36.708566 21936 net.cpp:434] conv1_prescale <- conv1
I0411 15:25:36.708575 21936 net.cpp:395] conv1_prescale -> conv1 (in-place)
I0411 15:25:36.708709 21936 net.cpp:150] Setting up conv1_prescale
I0411 15:25:36.708721 21936 net.cpp:157] Top shape: 1024 100 42 42 (180633600)
I0411 15:25:36.708726 21936 net.cpp:165] Memory required for data: 1473384448
I0411 15:25:36.708734 21936 layer_factory.hpp:77] Creating layer conv1_sTanH
I0411 15:25:36.708744 21936 net.cpp:100] Creating Layer conv1_sTanH
I0411 15:25:36.708748 21936 net.cpp:434] conv1_sTanH <- conv1
I0411 15:25:36.708753 21936 net.cpp:395] conv1_sTanH -> conv1 (in-place)
I0411 15:25:36.709002 21936 net.cpp:150] Setting up conv1_sTanH
I0411 15:25:36.709015 21936 net.cpp:157] Top shape: 1024 100 42 42 (180633600)
I0411 15:25:36.709019 21936 net.cpp:165] Memory required for data: 2195918848
I0411 15:25:36.709023 21936 layer_factory.hpp:77] Creating layer conv1_postscale
I0411 15:25:36.709034 21936 net.cpp:100] Creating Layer conv1_postscale
I0411 15:25:36.709040 21936 net.cpp:434] conv1_postscale <- conv1
I0411 15:25:36.709046 21936 net.cpp:395] conv1_postscale -> conv1 (in-place)
I0411 15:25:36.709167 21936 net.cpp:150] Setting up conv1_postscale
I0411 15:25:36.709175 21936 net.cpp:157] Top shape: 1024 100 42 42 (180633600)
I0411 15:25:36.709178 21936 net.cpp:165] Memory required for data: 2918453248
I0411 15:25:36.709184 21936 layer_factory.hpp:77] Creating layer pool1
I0411 15:25:36.709198 21936 net.cpp:100] Creating Layer pool1
I0411 15:25:36.709203 21936 net.cpp:434] pool1 <- conv1
I0411 15:25:36.709209 21936 net.cpp:408] pool1 -> pool1
I0411 15:25:36.709291 21936 net.cpp:150] Setting up pool1
I0411 15:25:36.709302 21936 net.cpp:157] Top shape: 1024 100 21 21 (45158400)
I0411 15:25:36.709307 21936 net.cpp:165] Memory required for data: 3099086848
I0411 15:25:36.709311 21936 layer_factory.hpp:77] Creating layer conv2
I0411 15:25:36.709326 21936 net.cpp:100] Creating Layer conv2
I0411 15:25:36.709331 21936 net.cpp:434] conv2 <- pool1
I0411 15:25:36.709337 21936 net.cpp:408] conv2 -> conv2
I0411 15:25:36.716496 21936 net.cpp:150] Setting up conv2
I0411 15:25:36.716516 21936 net.cpp:157] Top shape: 1024 150 18 18 (49766400)
I0411 15:25:36.716521 21936 net.cpp:165] Memory required for data: 3298152448
I0411 15:25:36.716532 21936 layer_factory.hpp:77] Creating layer conv2_prescale
I0411 15:25:36.716543 21936 net.cpp:100] Creating Layer conv2_prescale
I0411 15:25:36.716549 21936 net.cpp:434] conv2_prescale <- conv2
I0411 15:25:36.716557 21936 net.cpp:395] conv2_prescale -> conv2 (in-place)
I0411 15:25:36.716692 21936 net.cpp:150] Setting up conv2_prescale
I0411 15:25:36.716702 21936 net.cpp:157] Top shape: 1024 150 18 18 (49766400)
I0411 15:25:36.716706 21936 net.cpp:165] Memory required for data: 3497218048
I0411 15:25:36.716711 21936 layer_factory.hpp:77] Creating layer conv2_sTanH
I0411 15:25:36.716720 21936 net.cpp:100] Creating Layer conv2_sTanH
I0411 15:25:36.716725 21936 net.cpp:434] conv2_sTanH <- conv2
I0411 15:25:36.716732 21936 net.cpp:395] conv2_sTanH -> conv2 (in-place)
I0411 15:25:36.717708 21936 net.cpp:150] Setting up conv2_sTanH
I0411 15:25:36.717725 21936 net.cpp:157] Top shape: 1024 150 18 18 (49766400)
I0411 15:25:36.717730 21936 net.cpp:165] Memory required for data: 3696283648
I0411 15:25:36.717733 21936 layer_factory.hpp:77] Creating layer conv2_postscale
I0411 15:25:36.717743 21936 net.cpp:100] Creating Layer conv2_postscale
I0411 15:25:36.717748 21936 net.cpp:434] conv2_postscale <- conv2
I0411 15:25:36.717754 21936 net.cpp:395] conv2_postscale -> conv2 (in-place)
I0411 15:25:36.717875 21936 net.cpp:150] Setting up conv2_postscale
I0411 15:25:36.717885 21936 net.cpp:157] Top shape: 1024 150 18 18 (49766400)
I0411 15:25:36.717888 21936 net.cpp:165] Memory required for data: 3895349248
I0411 15:25:36.717895 21936 layer_factory.hpp:77] Creating layer pool2
I0411 15:25:36.717903 21936 net.cpp:100] Creating Layer pool2
I0411 15:25:36.717908 21936 net.cpp:434] pool2 <- conv2
I0411 15:25:36.717916 21936 net.cpp:408] pool2 -> pool2
I0411 15:25:36.717965 21936 net.cpp:150] Setting up pool2
I0411 15:25:36.717974 21936 net.cpp:157] Top shape: 1024 150 9 9 (12441600)
I0411 15:25:36.717978 21936 net.cpp:165] Memory required for data: 3945115648
I0411 15:25:36.717981 21936 layer_factory.hpp:77] Creating layer conv3
I0411 15:25:36.717993 21936 net.cpp:100] Creating Layer conv3
I0411 15:25:36.717998 21936 net.cpp:434] conv3 <- pool2
I0411 15:25:36.718004 21936 net.cpp:408] conv3 -> conv3
I0411 15:25:36.724732 21936 net.cpp:150] Setting up conv3
I0411 15:25:36.724753 21936 net.cpp:157] Top shape: 1024 250 6 6 (9216000)
I0411 15:25:36.724757 21936 net.cpp:165] Memory required for data: 3981979648
I0411 15:25:36.724771 21936 layer_factory.hpp:77] Creating layer conv3_prescale
I0411 15:25:36.724781 21936 net.cpp:100] Creating Layer conv3_prescale
I0411 15:25:36.724784 21936 net.cpp:434] conv3_prescale <- conv3
I0411 15:25:36.724791 21936 net.cpp:395] conv3_prescale -> conv3 (in-place)
I0411 15:25:36.724906 21936 net.cpp:150] Setting up conv3_prescale
I0411 15:25:36.724917 21936 net.cpp:157] Top shape: 1024 250 6 6 (9216000)
I0411 15:25:36.724920 21936 net.cpp:165] Memory required for data: 4018843648
I0411 15:25:36.724925 21936 layer_factory.hpp:77] Creating layer conv3_sTanH
I0411 15:25:36.724936 21936 net.cpp:100] Creating Layer conv3_sTanH
I0411 15:25:36.724941 21936 net.cpp:434] conv3_sTanH <- conv3
I0411 15:25:36.724946 21936 net.cpp:395] conv3_sTanH -> conv3 (in-place)
I0411 15:25:36.726002 21936 net.cpp:150] Setting up conv3_sTanH
I0411 15:25:36.726022 21936 net.cpp:157] Top shape: 1024 250 6 6 (9216000)
I0411 15:25:36.726027 21936 net.cpp:165] Memory required for data: 4055707648
I0411 15:25:36.726047 21936 layer_factory.hpp:77] Creating layer conv3_postscale
I0411 15:25:36.726056 21936 net.cpp:100] Creating Layer conv3_postscale
I0411 15:25:36.726060 21936 net.cpp:434] conv3_postscale <- conv3
I0411 15:25:36.726068 21936 net.cpp:395] conv3_postscale -> conv3 (in-place)
I0411 15:25:36.726191 21936 net.cpp:150] Setting up conv3_postscale
I0411 15:25:36.726200 21936 net.cpp:157] Top shape: 1024 250 6 6 (9216000)
I0411 15:25:36.726203 21936 net.cpp:165] Memory required for data: 4092571648
I0411 15:25:36.726210 21936 layer_factory.hpp:77] Creating layer pool3
I0411 15:25:36.726218 21936 net.cpp:100] Creating Layer pool3
I0411 15:25:36.726224 21936 net.cpp:434] pool3 <- conv3
I0411 15:25:36.726229 21936 net.cpp:408] pool3 -> pool3
I0411 15:25:36.726277 21936 net.cpp:150] Setting up pool3
I0411 15:25:36.726285 21936 net.cpp:157] Top shape: 1024 250 3 3 (2304000)
I0411 15:25:36.726294 21936 net.cpp:165] Memory required for data: 4101787648
I0411 15:25:36.726299 21936 layer_factory.hpp:77] Creating layer fc4_300
I0411 15:25:36.726310 21936 net.cpp:100] Creating Layer fc4_300
I0411 15:25:36.726315 21936 net.cpp:434] fc4_300 <- pool3
I0411 15:25:36.726321 21936 net.cpp:408] fc4_300 -> fc4_300
I0411 15:25:36.733067 21936 net.cpp:150] Setting up fc4_300
I0411 15:25:36.733088 21936 net.cpp:157] Top shape: 1024 300 (307200)
I0411 15:25:36.733091 21936 net.cpp:165] Memory required for data: 4103016448
I0411 15:25:36.733099 21936 layer_factory.hpp:77] Creating layer fc4_prescale
I0411 15:25:36.733109 21936 net.cpp:100] Creating Layer fc4_prescale
I0411 15:25:36.733114 21936 net.cpp:434] fc4_prescale <- fc4_300
I0411 15:25:36.733119 21936 net.cpp:395] fc4_prescale -> fc4_300 (in-place)
I0411 15:25:36.733227 21936 net.cpp:150] Setting up fc4_prescale
I0411 15:25:36.733237 21936 net.cpp:157] Top shape: 1024 300 (307200)
I0411 15:25:36.733242 21936 net.cpp:165] Memory required for data: 4104245248
I0411 15:25:36.733247 21936 layer_factory.hpp:77] Creating layer fc4_sTanH
I0411 15:25:36.733253 21936 net.cpp:100] Creating Layer fc4_sTanH
I0411 15:25:36.733258 21936 net.cpp:434] fc4_sTanH <- fc4_300
I0411 15:25:36.733263 21936 net.cpp:395] fc4_sTanH -> fc4_300 (in-place)
I0411 15:25:36.733492 21936 net.cpp:150] Setting up fc4_sTanH
I0411 15:25:36.733505 21936 net.cpp:157] Top shape: 1024 300 (307200)
I0411 15:25:36.733511 21936 net.cpp:165] Memory required for data: 4105474048
I0411 15:25:36.733515 21936 layer_factory.hpp:77] Creating layer fc4_postscale
I0411 15:25:36.733525 21936 net.cpp:100] Creating Layer fc4_postscale
I0411 15:25:36.733530 21936 net.cpp:434] fc4_postscale <- fc4_300
I0411 15:25:36.733536 21936 net.cpp:395] fc4_postscale -> fc4_300 (in-place)
I0411 15:25:36.733651 21936 net.cpp:150] Setting up fc4_postscale
I0411 15:25:36.733660 21936 net.cpp:157] Top shape: 1024 300 (307200)
I0411 15:25:36.733664 21936 net.cpp:165] Memory required for data: 4106702848
I0411 15:25:36.733669 21936 layer_factory.hpp:77] Creating layer drop4
I0411 15:25:36.733678 21936 net.cpp:100] Creating Layer drop4
I0411 15:25:36.733683 21936 net.cpp:434] drop4 <- fc4_300
I0411 15:25:36.733688 21936 net.cpp:395] drop4 -> fc4_300 (in-place)
I0411 15:25:36.733719 21936 net.cpp:150] Setting up drop4
I0411 15:25:36.733727 21936 net.cpp:157] Top shape: 1024 300 (307200)
I0411 15:25:36.733731 21936 net.cpp:165] Memory required for data: 4107931648
I0411 15:25:36.733734 21936 layer_factory.hpp:77] Creating layer fc5_67
I0411 15:25:36.733742 21936 net.cpp:100] Creating Layer fc5_67
I0411 15:25:36.733745 21936 net.cpp:434] fc5_67 <- fc4_300
I0411 15:25:36.733753 21936 net.cpp:408] fc5_67 -> fc5_classes
I0411 15:25:36.735375 21936 net.cpp:150] Setting up fc5_67
I0411 15:25:36.735394 21936 net.cpp:157] Top shape: 1024 67 (68608)
I0411 15:25:36.735399 21936 net.cpp:165] Memory required for data: 4108206080
I0411 15:25:36.735414 21936 layer_factory.hpp:77] Creating layer loss
I0411 15:25:36.735424 21936 net.cpp:100] Creating Layer loss
I0411 15:25:36.735429 21936 net.cpp:434] loss <- fc5_classes
I0411 15:25:36.735450 21936 net.cpp:434] loss <- label
I0411 15:25:36.735458 21936 net.cpp:408] loss -> loss
I0411 15:25:36.735473 21936 layer_factory.hpp:77] Creating layer loss
…
I0411 15:25:36.736377 21936 solver.cpp:193] Creating test net (#0) specified by test_net file: ./Prototxt/experiment_9/rtsd-r1/CoNorm/trial_3/test.prototxt
I0411 15:25:36.736600 21936 net.cpp:58] Initializing net from parameters: 
state {
  phase: TEST
}
layer {
  name: "data"
  type: "Data"
  top: "data"
  top: "label"
  include {
    phase: TEST
  }
  transform_param {
    scale: 0.0039215689
    mirror: false
    crop_size: 48
    mean_value: 133
    mean_value: 133
    mean_value: 132
  }
  data_param {
    source: "../local_data/lmdb/rtsd-r1/CoNorm/test/lmdb"
    batch_size: 1024
    backend: LMDB
  }
}
layer {
  name: "conv1"
  type: "Convolution"
  bottom: "data"
  top: "conv1"
  convolution_param {
    num_output: 100
    pad: 0
    kernel_size: 7
    group: 1
    stride: 1
    weight_filler {
      type: "xavier"
    }
  }
}
layer {
  name: "conv1_prescale"
  type: "Scale"
  bottom: "conv1"
  top: "conv1"
  param {
    lr_mult: 0
    decay_mult: 0
  }
  scale_param {
    filler {
      value: 0.6666
    }
    bias_term: false
  }
}
layer {
  name: "conv1_sTanH"
  type: "TanH"
  bottom: "conv1"
  top: "conv1"
}
layer {
  name: "conv1_postscale"
  type: "Scale"
  bottom: "conv1"
  top: "conv1"
  param {
    lr_mult: 0
    decay_mult: 0
  }
  scale_param {
    filler {
      value: 1.7159
    }
    bias_term: false
  }
}
layer {
  name: "pool1"
  type: "Pooling"
  bottom: "conv1"
  top: "pool1"
  pooling_param {
    pool: MAX
    kernel_size: 2
    stride: 2
  }
}
layer {
  name: "conv2"
  type: "Convolution"
  bottom: "pool1"
  top: "conv2"
  convolution_param {
    num_output: 150
    pad: 0
    kernel_size: 4
    group: 1
    stride: 1
    weight_filler {
      type: "xavier"
    }
  }
}
layer {
  name: "conv2_prescale"
  type: "Scale"
  bottom: "conv2"
  top: "conv2"
  param {
    lr_mult: 0
    decay_mult: 0
  }
  scale_param {
    filler {
      value: 0.6666
    }
    bias_term: false
  }
}
layer {
  name: "conv2_sTanH"
  type: "TanH"
  bottom: "conv2"
  top: "conv2"
}
layer {
  name: "conv2_postscale"
  type: "Scale"
  bottom: "conv2"
  top: "conv2"
  param {
    lr_mult: 0
    decay_mult: 0
  }
  scale_param {
    filler {
      value: 1.7159
    }
    bias_term: false
  }
}
layer {
  name: "pool2"
  type: "Pooling"
  bottom: "conv2"
  top: "pool2"
  pooling_param {
    pool: MAX
    kernel_size: 2
    stride: 2
  }
}
layer {
  name: "conv3"
  type: "Convolution"
  bottom: "pool2"
  top: "conv3"
  convolution_param {
    num_output: 250
    pad: 0
    kernel_size: 4
    group: 1
    stride: 1
    weight_filler {
      type: "xavier"
    }
  }
}
layer {
  name: "conv3_prescale"
  type: "Scale"
  bottom: "conv3"
  top: "conv3"
  param {
    lr_mult: 0
    decay_mult: 0
  }
  scale_param {
    filler {
      value: 0.6666
    }
    bias_term: false
  }
}
layer {
  name: "conv3_sTanH"
  type: "TanH"
  bottom: "conv3"
  top: "conv3"
}
layer {
  name: "conv3_postscale"
  type: "Scale"
  bottom: "conv3"
  top: "conv3"
  param {
    lr_mult: 0
    decay_mult: 0
  }
  scale_param {
    filler {
      value: 1.7159
    }
    bias_term: false
  }
}
layer {
  name: "pool3"
  type: "Pooling"
  bottom: "conv3"
  top: "pool3"
  pooling_param {
    pool: MAX
    kernel_size: 2
    stride: 2
  }
}
layer {
  name: "fc4_300"
  type: "InnerProduct"
  bottom: "pool3"
  top: "fc4_300"
  inner_product_param {
    num_output: 300
    weight_filler {
      type: "xavier"
    }
  }
}
layer {
  name: "fc4_prescale"
  type: "Scale"
  bottom: "fc4_300"
  top: "fc4_300"
  param {
    lr_mult: 0
    decay_mult: 0
  }
  scale_param {
    filler {
      value: 0.6666
    }
    bias_term: false
  }
}
layer {
  name: "fc4_sTanH"
  type: "TanH"
  bottom: "fc4_300"
  top: "fc4_300"
}
layer {
  name: "fc4_postscale"
  type: "Scale"
  bottom: "fc4_300"
  top: "fc4_300"
  param {
    lr_mult: 0
    decay_mult: 0
  }
  scale_param {
    filler {
      value: 1.7159
    }
    bias_term: false
  }
}
layer {
  name: "drop4"
  type: "Dropout"
  bottom: "fc4_300"
  top: "fc4_300"
  dropout_param {
    dropout_ratio: 0.1
  }
}
layer {
  name: "fc5_67"
  type: "InnerProduct"
  bottom: "fc4_300"
  top: "fc5_classes"
  inner_product_param {
    num_output: 67
    weight_filler {
      type: "xavier"
    }
  }
}
layer {
  name: "loss"
  type: "SoftmaxWithLoss"
  bottom: "fc5_classes"
  bottom: "label"
  top: "loss"
}
layer {
  name: "accuracy_1"
  type: "Accuracy"
  bottom: "fc5_classes"
  bottom: "label"
  top: "accuracy_1"
  include {
    phase: TEST
  }
  accuracy_param {
    top_k: 1
  }
}
layer {
  name: "accuracy_5"
  type: "Accuracy"
  bottom: "fc5_classes"
  bottom: "label"
  top: "accuracy_5"
  include {
    phase: TEST
  }
  accuracy_param {
    top_k: 5
  }
}
I0411 15:25:36.736749 21936 layer_factory.hpp:77] Creating layer data
I0411 15:25:36.737562 21936 net.cpp:100] Creating Layer data
I0411 15:25:36.737577 21936 net.cpp:408] data -> data
I0411 15:25:36.737587 21936 net.cpp:408] data -> label
I0411 15:25:36.741760 22092 db_lmdb.cpp:35] Opened lmdb ../local_data/lmdb/rtsd-r1/CoNorm/test/lmdb
I0411 15:25:36.741921 21936 data_layer.cpp:41] output data size: 1024,3,48,48
I0411 15:25:36.793469 21936 net.cpp:150] Setting up data
I0411 15:25:36.793498 21936 net.cpp:157] Top shape: 1024 3 48 48 (7077888)
I0411 15:25:36.793504 21936 net.cpp:157] Top shape: 1024 (1024)
I0411 15:25:36.793509 21936 net.cpp:165] Memory required for data: 28315648
I0411 15:25:36.793515 21936 layer_factory.hpp:77] Creating layer label_data_1_split
I0411 15:25:36.793530 21936 net.cpp:100] Creating Layer label_data_1_split
I0411 15:25:36.793537 21936 net.cpp:434] label_data_1_split <- label
I0411 15:25:36.793546 21936 net.cpp:408] label_data_1_split -> label_data_1_split_0
I0411 15:25:36.793560 21936 net.cpp:408] label_data_1_split -> label_data_1_split_1
I0411 15:25:36.793592 21936 net.cpp:408] label_data_1_split -> label_data_1_split_2
I0411 15:25:36.793695 21936 net.cpp:150] Setting up label_data_1_split
I0411 15:25:36.793705 21936 net.cpp:157] Top shape: 1024 (1024)
I0411 15:25:36.793709 21936 net.cpp:157] Top shape: 1024 (1024)
I0411 15:25:36.793714 21936 net.cpp:157] Top shape: 1024 (1024)
I0411 15:25:36.793716 21936 net.cpp:165] Memory required for data: 28327936
I0411 15:25:36.793720 21936 layer_factory.hpp:77] Creating layer conv1
I0411 15:25:36.793736 21936 net.cpp:100] Creating Layer conv1
I0411 15:25:36.793741 21936 net.cpp:434] conv1 <- data
I0411 15:25:36.793751 21936 net.cpp:408] conv1 -> conv1
I0411 15:25:36.796568 21936 net.cpp:150] Setting up conv1
I0411 15:25:36.796588 21936 net.cpp:157] Top shape: 1024 100 42 42 (180633600)
I0411 15:25:36.796592 21936 net.cpp:165] Memory required for data: 750862336
I0411 15:25:36.796607 21936 layer_factory.hpp:77] Creating layer conv1_prescale
I0411 15:25:36.796617 21936 net.cpp:100] Creating Layer conv1_prescale
I0411 15:25:36.796622 21936 net.cpp:434] conv1_prescale <- conv1
I0411 15:25:36.796635 21936 net.cpp:395] conv1_prescale -> conv1 (in-place)
I0411 15:25:36.796768 21936 net.cpp:150] Setting up conv1_prescale
I0411 15:25:36.796778 21936 net.cpp:157] Top shape: 1024 100 42 42 (180633600)
I0411 15:25:36.796782 21936 net.cpp:165] Memory required for data: 1473396736
I0411 15:25:36.796789 21936 layer_factory.hpp:77] Creating layer conv1_sTanH
I0411 15:25:36.796800 21936 net.cpp:100] Creating Layer conv1_sTanH
I0411 15:25:36.796807 21936 net.cpp:434] conv1_sTanH <- conv1
I0411 15:25:36.796811 21936 net.cpp:395] conv1_sTanH -> conv1 (in-place)
I0411 15:25:36.799348 21936 net.cpp:150] Setting up conv1_sTanH
I0411 15:25:36.799374 21936 net.cpp:157] Top shape: 1024 100 42 42 (180633600)
I0411 15:25:36.799378 21936 net.cpp:165] Memory required for data: 2195931136
I0411 15:25:36.799383 21936 layer_factory.hpp:77] Creating layer conv1_postscale
I0411 15:25:36.799397 21936 net.cpp:100] Creating Layer conv1_postscale
I0411 15:25:36.799404 21936 net.cpp:434] conv1_postscale <- conv1
I0411 15:25:36.799412 21936 net.cpp:395] conv1_postscale -> conv1 (in-place)
I0411 15:25:36.799554 21936 net.cpp:150] Setting up conv1_postscale
I0411 15:25:36.799564 21936 net.cpp:157] Top shape: 1024 100 42 42 (180633600)
I0411 15:25:36.799568 21936 net.cpp:165] Memory required for data: 2918465536
I0411 15:25:36.799574 21936 layer_factory.hpp:77] Creating layer pool1
I0411 15:25:36.799583 21936 net.cpp:100] Creating Layer pool1
I0411 15:25:36.799588 21936 net.cpp:434] pool1 <- conv1
I0411 15:25:36.799594 21936 net.cpp:408] pool1 -> pool1
I0411 15:25:36.799648 21936 net.cpp:150] Setting up pool1
I0411 15:25:36.799656 21936 net.cpp:157] Top shape: 1024 100 21 21 (45158400)
I0411 15:25:36.799659 21936 net.cpp:165] Memory required for data: 3099099136
I0411 15:25:36.799664 21936 layer_factory.hpp:77] Creating layer conv2
I0411 15:25:36.799674 21936 net.cpp:100] Creating Layer conv2
I0411 15:25:36.799681 21936 net.cpp:434] conv2 <- pool1
I0411 15:25:36.799688 21936 net.cpp:408] conv2 -> conv2
I0411 15:25:36.814873 21936 net.cpp:150] Setting up conv2
I0411 15:25:36.814901 21936 net.cpp:157] Top shape: 1024 150 18 18 (49766400)
I0411 15:25:36.814906 21936 net.cpp:165] Memory required for data: 3298164736
I0411 15:25:36.814919 21936 layer_factory.hpp:77] Creating layer conv2_prescale
I0411 15:25:36.814939 21936 net.cpp:100] Creating Layer conv2_prescale
I0411 15:25:36.814944 21936 net.cpp:434] conv2_prescale <- conv2
I0411 15:25:36.814951 21936 net.cpp:395] conv2_prescale -> conv2 (in-place)
I0411 15:25:36.815093 21936 net.cpp:150] Setting up conv2_prescale
I0411 15:25:36.815104 21936 net.cpp:157] Top shape: 1024 150 18 18 (49766400)
I0411 15:25:36.815107 21936 net.cpp:165] Memory required for data: 3497230336
I0411 15:25:36.815114 21936 layer_factory.hpp:77] Creating layer conv2_sTanH
I0411 15:25:36.815121 21936 net.cpp:100] Creating Layer conv2_sTanH
I0411 15:25:36.815124 21936 net.cpp:434] conv2_sTanH <- conv2
I0411 15:25:36.815131 21936 net.cpp:395] conv2_sTanH -> conv2 (in-place)
I0411 15:25:36.817333 21936 net.cpp:150] Setting up conv2_sTanH
I0411 15:25:36.817355 21936 net.cpp:157] Top shape: 1024 150 18 18 (49766400)
I0411 15:25:36.817359 21936 net.cpp:165] Memory required for data: 3696295936
I0411 15:25:36.817364 21936 layer_factory.hpp:77] Creating layer conv2_postscale
I0411 15:25:36.817376 21936 net.cpp:100] Creating Layer conv2_postscale
I0411 15:25:36.817383 21936 net.cpp:434] conv2_postscale <- conv2
I0411 15:25:36.817389 21936 net.cpp:395] conv2_postscale -> conv2 (in-place)
I0411 15:25:36.817522 21936 net.cpp:150] Setting up conv2_postscale
I0411 15:25:36.817531 21936 net.cpp:157] Top shape: 1024 150 18 18 (49766400)
I0411 15:25:36.817535 21936 net.cpp:165] Memory required for data: 3895361536
I0411 15:25:36.817541 21936 layer_factory.hpp:77] Creating layer pool2
I0411 15:25:36.817551 21936 net.cpp:100] Creating Layer pool2
I0411 15:25:36.817558 21936 net.cpp:434] pool2 <- conv2
I0411 15:25:36.817564 21936 net.cpp:408] pool2 -> pool2
I0411 15:25:36.817622 21936 net.cpp:150] Setting up pool2
I0411 15:25:36.817632 21936 net.cpp:157] Top shape: 1024 150 9 9 (12441600)
I0411 15:25:36.817636 21936 net.cpp:165] Memory required for data: 3945127936
I0411 15:25:36.817638 21936 layer_factory.hpp:77] Creating layer conv3
I0411 15:25:36.817649 21936 net.cpp:100] Creating Layer conv3
I0411 15:25:36.817658 21936 net.cpp:434] conv3 <- pool2
I0411 15:25:36.817667 21936 net.cpp:408] conv3 -> conv3
I0411 15:25:36.824820 21936 net.cpp:150] Setting up conv3
I0411 15:25:36.824841 21936 net.cpp:157] Top shape: 1024 250 6 6 (9216000)
I0411 15:25:36.824844 21936 net.cpp:165] Memory required for data: 3981991936
I0411 15:25:36.824858 21936 layer_factory.hpp:77] Creating layer conv3_prescale
I0411 15:25:36.824868 21936 net.cpp:100] Creating Layer conv3_prescale
I0411 15:25:36.824874 21936 net.cpp:434] conv3_prescale <- conv3
I0411 15:25:36.824882 21936 net.cpp:395] conv3_prescale -> conv3 (in-place)
I0411 15:25:36.825001 21936 net.cpp:150] Setting up conv3_prescale
I0411 15:25:36.825011 21936 net.cpp:157] Top shape: 1024 250 6 6 (9216000)
I0411 15:25:36.825016 21936 net.cpp:165] Memory required for data: 4018855936
I0411 15:25:36.825021 21936 layer_factory.hpp:77] Creating layer conv3_sTanH
I0411 15:25:36.825029 21936 net.cpp:100] Creating Layer conv3_sTanH
I0411 15:25:36.825034 21936 net.cpp:434] conv3_sTanH <- conv3
I0411 15:25:36.825040 21936 net.cpp:395] conv3_sTanH -> conv3 (in-place)
I0411 15:25:36.827172 21936 net.cpp:150] Setting up conv3_sTanH
I0411 15:25:36.827193 21936 net.cpp:157] Top shape: 1024 250 6 6 (9216000)
I0411 15:25:36.827198 21936 net.cpp:165] Memory required for data: 4055719936
I0411 15:25:36.827203 21936 layer_factory.hpp:77] Creating layer conv3_postscale
I0411 15:25:36.827211 21936 net.cpp:100] Creating Layer conv3_postscale
I0411 15:25:36.827217 21936 net.cpp:434] conv3_postscale <- conv3
I0411 15:25:36.827227 21936 net.cpp:395] conv3_postscale -> conv3 (in-place)
I0411 15:25:36.827355 21936 net.cpp:150] Setting up conv3_postscale
I0411 15:25:36.827366 21936 net.cpp:157] Top shape: 1024 250 6 6 (9216000)
I0411 15:25:36.827369 21936 net.cpp:165] Memory required for data: 4092583936
I0411 15:25:36.827375 21936 layer_factory.hpp:77] Creating layer pool3
I0411 15:25:36.827388 21936 net.cpp:100] Creating Layer pool3
I0411 15:25:36.827394 21936 net.cpp:434] pool3 <- conv3
I0411 15:25:36.827399 21936 net.cpp:408] pool3 -> pool3
I0411 15:25:36.827451 21936 net.cpp:150] Setting up pool3
I0411 15:25:36.827461 21936 net.cpp:157] Top shape: 1024 250 3 3 (2304000)
I0411 15:25:36.827466 21936 net.cpp:165] Memory required for data: 4101799936
I0411 15:25:36.827468 21936 layer_factory.hpp:77] Creating layer fc4_300
I0411 15:25:36.827477 21936 net.cpp:100] Creating Layer fc4_300
I0411 15:25:36.827481 21936 net.cpp:434] fc4_300 <- pool3
I0411 15:25:36.827488 21936 net.cpp:408] fc4_300 -> fc4_300
I0411 15:25:36.835480 21936 net.cpp:150] Setting up fc4_300
I0411 15:25:36.835500 21936 net.cpp:157] Top shape: 1024 300 (307200)
I0411 15:25:36.835505 21936 net.cpp:165] Memory required for data: 4103028736
I0411 15:25:36.835536 21936 layer_factory.hpp:77] Creating layer fc4_prescale
I0411 15:25:36.835547 21936 net.cpp:100] Creating Layer fc4_prescale
I0411 15:25:36.835552 21936 net.cpp:434] fc4_prescale <- fc4_300
I0411 15:25:36.835562 21936 net.cpp:395] fc4_prescale -> fc4_300 (in-place)
I0411 15:25:36.835680 21936 net.cpp:150] Setting up fc4_prescale
I0411 15:25:36.835690 21936 net.cpp:157] Top shape: 1024 300 (307200)
I0411 15:25:36.835692 21936 net.cpp:165] Memory required for data: 4104257536
I0411 15:25:36.835698 21936 layer_factory.hpp:77] Creating layer fc4_sTanH
I0411 15:25:36.835705 21936 net.cpp:100] Creating Layer fc4_sTanH
I0411 15:25:36.835710 21936 net.cpp:434] fc4_sTanH <- fc4_300
I0411 15:25:36.835716 21936 net.cpp:395] fc4_sTanH -> fc4_300 (in-place)
I0411 15:25:36.835970 21936 net.cpp:150] Setting up fc4_sTanH
I0411 15:25:36.835984 21936 net.cpp:157] Top shape: 1024 300 (307200)
I0411 15:25:36.835988 21936 net.cpp:165] Memory required for data: 4105486336
I0411 15:25:36.835993 21936 layer_factory.hpp:77] Creating layer fc4_postscale
I0411 15:25:36.836002 21936 net.cpp:100] Creating Layer fc4_postscale
I0411 15:25:36.836006 21936 net.cpp:434] fc4_postscale <- fc4_300
I0411 15:25:36.836014 21936 net.cpp:395] fc4_postscale -> fc4_300 (in-place)
I0411 15:25:36.836135 21936 net.cpp:150] Setting up fc4_postscale
I0411 15:25:36.836144 21936 net.cpp:157] Top shape: 1024 300 (307200)
I0411 15:25:36.836148 21936 net.cpp:165] Memory required for data: 4106715136
I0411 15:25:36.836153 21936 layer_factory.hpp:77] Creating layer drop4
I0411 15:25:36.836163 21936 net.cpp:100] Creating Layer drop4
I0411 15:25:36.836168 21936 net.cpp:434] drop4 <- fc4_300
I0411 15:25:36.836174 21936 net.cpp:395] drop4 -> fc4_300 (in-place)
I0411 15:25:36.836203 21936 net.cpp:150] Setting up drop4
I0411 15:25:36.836211 21936 net.cpp:157] Top shape: 1024 300 (307200)
I0411 15:25:36.836215 21936 net.cpp:165] Memory required for data: 4107943936
I0411 15:25:36.836218 21936 layer_factory.hpp:77] Creating layer fc5_67
I0411 15:25:36.836225 21936 net.cpp:100] Creating Layer fc5_67
I0411 15:25:36.836230 21936 net.cpp:434] fc5_67 <- fc4_300
I0411 15:25:36.836237 21936 net.cpp:408] fc5_67 -> fc5_classes
I0411 15:25:36.836540 21936 net.cpp:150] Setting up fc5_67
I0411 15:25:36.836551 21936 net.cpp:157] Top shape: 1024 67 (68608)
I0411 15:25:36.836555 21936 net.cpp:165] Memory required for data: 4108218368
I0411 15:25:36.836567 21936 layer_factory.hpp:77] Creating layer fc5_classes_fc5_67_0_split
I0411 15:25:36.836575 21936 net.cpp:100] Creating Layer fc5_classes_fc5_67_0_split
I0411 15:25:36.836578 21936 net.cpp:434] fc5_classes_fc5_67_0_split <- fc5_classes
I0411 15:25:36.836585 21936 net.cpp:408] fc5_classes_fc5_67_0_split -> fc5_classes_fc5_67_0_split_0
I0411 15:25:36.836592 21936 net.cpp:408] fc5_classes_fc5_67_0_split -> fc5_classes_fc5_67_0_split_1
I0411 15:25:36.836601 21936 net.cpp:408] fc5_classes_fc5_67_0_split -> fc5_classes_fc5_67_0_split_2
I0411 15:25:36.836666 21936 net.cpp:150] Setting up fc5_classes_fc5_67_0_split
I0411 15:25:36.836673 21936 net.cpp:157] Top shape: 1024 67 (68608)
I0411 15:25:36.836678 21936 net.cpp:157] Top shape: 1024 67 (68608)
I0411 15:25:36.836681 21936 net.cpp:157] Top shape: 1024 67 (68608)
I0411 15:25:36.836684 21936 net.cpp:165] Memory required for data: 4109041664
I0411 15:25:36.836688 21936 layer_factory.hpp:77] Creating layer loss
I0411 15:25:36.836694 21936 net.cpp:100] Creating Layer loss
I0411 15:25:36.836704 21936 net.cpp:434] loss <- fc5_classes_fc5_67_0_split_0
I0411 15:25:36.836709 21936 net.cpp:434] loss <- label_data_1_split_0
I0411 15:25:36.836714 21936 net.cpp:408] loss -> loss
…
