…
I0326 15:44:39.843112 29702 net.cpp:322] The NetState phase (0) differed from the phase (1) specified by a rule in layer accuracy_5
I0326 15:44:39.843289 29702 net.cpp:58] Initializing net from parameters: 
state {
  phase: TRAIN
  level: 0
  stage: ""
}
layer {
  name: "data"
  type: "Data"
  top: "data"
  top: "label"
  include {
    phase: TRAIN
  }
  transform_param {
    mirror: false
    crop_size: 48
    mean_value: 132
    mean_value: 126
    mean_value: 140
  }
  data_param {
    source: "../local_data/lmdb/rtsd-r1/AHE/train/lmdb"
    batch_size: 512
    backend: LMDB
  }
}
layer {
  name: "conv1"
  type: "Convolution"
  bottom: "data"
  top: "conv1"
  convolution_param {
    num_output: 100
    pad: 0
    kernel_size: 7
    group: 1
    stride: 1
    weight_filler {
      type: "xavier"
    }
  }
}
layer {
  name: "conv1_relu"
  type: "ReLU"
  bottom: "conv1"
  top: "conv1"
}
layer {
  name: "pool1"
  type: "Pooling"
  bottom: "conv1"
  top: "pool1"
  pooling_param {
    pool: MAX
    kernel_size: 2
    stride: 2
  }
}
layer {
  name: "conv2"
  type: "Convolution"
  bottom: "pool1"
  top: "conv2"
  convolution_param {
    num_output: 150
    pad: 0
    kernel_size: 4
    group: 1
    stride: 1
    weight_filler {
      type: "xavier"
    }
  }
}
layer {
  name: "conv2_relu"
  type: "ReLU"
  bottom: "conv2"
  top: "conv2"
}
layer {
  name: "pool2"
  type: "Pooling"
  bottom: "conv2"
  top: "pool2"
  pooling_param {
    pool: MAX
    kernel_size: 2
    stride: 2
  }
}
layer {
  name: "conv3"
  type: "Convolution"
  bottom: "pool2"
  top: "conv3"
  convolution_param {
    num_output: 250
    pad: 0
    kernel_size: 4
    group: 1
    stride: 1
    weight_filler {
      type: "xavier"
    }
  }
}
layer {
  name: "conv3_relu"
  type: "ReLU"
  bottom: "conv3"
  top: "conv3"
}
layer {
  name: "pool3"
  type: "Pooling"
  bottom: "conv3"
  top: "pool3"
  pooling_param {
    pool: MAX
    kernel_size: 2
    stride: 2
  }
}
layer {
  name: "fc4_300"
  type: "InnerProduct"
  bottom: "pool3"
  top: "fc4_300"
  inner_product_param {
    num_output: 300
    weight_filler {
      type: "xavier"
    }
  }
}
layer {
  name: "fc4_relu"
  type: "ReLU"
  bottom: "fc4_300"
  top: "fc4_300"
}
layer {
  name: "drop4"
  type: "Dropout"
  bottom: "fc4_300"
  top: "fc4_300"
  dropout_param {
    dropout_ratio: 0.4
  }
}
layer {
  name: "fc5_67"
  type: "InnerProduct"
  bottom: "fc4_300"
  top: "fc5_classes"
  inner_product_param {
    num_output: 67
    weight_filler {
      type: "xavier"
    }
  }
}
layer {
  name: "loss"
  type: "SoftmaxWithLoss"
  bottom: "fc5_classes"
  bottom: "label"
  top: "loss"
}
I0326 15:44:39.843448 29702 layer_factory.hpp:77] Creating layer data
I0326 15:44:39.844823 29702 net.cpp:100] Creating Layer data
I0326 15:44:39.844849 29702 net.cpp:408] data -> data
I0326 15:44:39.844892 29702 net.cpp:408] data -> label
I0326 15:44:39.845919 29750 db_lmdb.cpp:35] Opened lmdb ../local_data/lmdb/rtsd-r1/AHE/train/lmdb
I0326 15:44:39.947027 29702 data_layer.cpp:41] output data size: 512,3,48,48
I0326 15:44:39.993927 29702 net.cpp:150] Setting up data
I0326 15:44:39.993963 29702 net.cpp:157] Top shape: 512 3 48 48 (3538944)
I0326 15:44:39.993969 29702 net.cpp:157] Top shape: 512 (512)
I0326 15:44:39.993974 29702 net.cpp:165] Memory required for data: 14157824
I0326 15:44:39.994015 29702 layer_factory.hpp:77] Creating layer conv1
I0326 15:44:39.994043 29702 net.cpp:100] Creating Layer conv1
I0326 15:44:39.994051 29702 net.cpp:434] conv1 <- data
I0326 15:44:39.994071 29702 net.cpp:408] conv1 -> conv1
I0326 15:44:40.431958 29702 net.cpp:150] Setting up conv1
I0326 15:44:40.431989 29702 net.cpp:157] Top shape: 512 100 42 42 (90316800)
I0326 15:44:40.431993 29702 net.cpp:165] Memory required for data: 375425024
I0326 15:44:40.432021 29702 layer_factory.hpp:77] Creating layer conv1_relu
I0326 15:44:40.432039 29702 net.cpp:100] Creating Layer conv1_relu
I0326 15:44:40.432045 29702 net.cpp:434] conv1_relu <- conv1
I0326 15:44:40.432054 29702 net.cpp:395] conv1_relu -> conv1 (in-place)
I0326 15:44:40.432404 29702 net.cpp:150] Setting up conv1_relu
I0326 15:44:40.432420 29702 net.cpp:157] Top shape: 512 100 42 42 (90316800)
I0326 15:44:40.432425 29702 net.cpp:165] Memory required for data: 736692224
I0326 15:44:40.432427 29702 layer_factory.hpp:77] Creating layer pool1
I0326 15:44:40.432436 29702 net.cpp:100] Creating Layer pool1
I0326 15:44:40.432441 29702 net.cpp:434] pool1 <- conv1
I0326 15:44:40.432447 29702 net.cpp:408] pool1 -> pool1
I0326 15:44:40.432509 29702 net.cpp:150] Setting up pool1
I0326 15:44:40.432519 29702 net.cpp:157] Top shape: 512 100 21 21 (22579200)
I0326 15:44:40.432526 29702 net.cpp:165] Memory required for data: 827009024
I0326 15:44:40.432533 29702 layer_factory.hpp:77] Creating layer conv2
I0326 15:44:40.432548 29702 net.cpp:100] Creating Layer conv2
I0326 15:44:40.432552 29702 net.cpp:434] conv2 <- pool1
I0326 15:44:40.432559 29702 net.cpp:408] conv2 -> conv2
I0326 15:44:40.441855 29702 net.cpp:150] Setting up conv2
I0326 15:44:40.441874 29702 net.cpp:157] Top shape: 512 150 18 18 (24883200)
I0326 15:44:40.441880 29702 net.cpp:165] Memory required for data: 926541824
I0326 15:44:40.441897 29702 layer_factory.hpp:77] Creating layer conv2_relu
I0326 15:44:40.441906 29702 net.cpp:100] Creating Layer conv2_relu
I0326 15:44:40.441915 29702 net.cpp:434] conv2_relu <- conv2
I0326 15:44:40.441920 29702 net.cpp:395] conv2_relu -> conv2 (in-place)
I0326 15:44:40.455476 29702 net.cpp:150] Setting up conv2_relu
I0326 15:44:40.455521 29702 net.cpp:157] Top shape: 512 150 18 18 (24883200)
I0326 15:44:40.455526 29702 net.cpp:165] Memory required for data: 1026074624
I0326 15:44:40.455531 29702 layer_factory.hpp:77] Creating layer pool2
I0326 15:44:40.455544 29702 net.cpp:100] Creating Layer pool2
I0326 15:44:40.455551 29702 net.cpp:434] pool2 <- conv2
I0326 15:44:40.455566 29702 net.cpp:408] pool2 -> pool2
I0326 15:44:40.455636 29702 net.cpp:150] Setting up pool2
I0326 15:44:40.455646 29702 net.cpp:157] Top shape: 512 150 9 9 (6220800)
I0326 15:44:40.455653 29702 net.cpp:165] Memory required for data: 1050957824
I0326 15:44:40.455658 29702 layer_factory.hpp:77] Creating layer conv3
I0326 15:44:40.455677 29702 net.cpp:100] Creating Layer conv3
I0326 15:44:40.455683 29702 net.cpp:434] conv3 <- pool2
I0326 15:44:40.455691 29702 net.cpp:408] conv3 -> conv3
I0326 15:44:40.465908 29702 net.cpp:150] Setting up conv3
I0326 15:44:40.465927 29702 net.cpp:157] Top shape: 512 250 6 6 (4608000)
I0326 15:44:40.465931 29702 net.cpp:165] Memory required for data: 1069389824
I0326 15:44:40.465945 29702 layer_factory.hpp:77] Creating layer conv3_relu
I0326 15:44:40.465958 29702 net.cpp:100] Creating Layer conv3_relu
I0326 15:44:40.465963 29702 net.cpp:434] conv3_relu <- conv3
I0326 15:44:40.465970 29702 net.cpp:395] conv3_relu -> conv3 (in-place)
I0326 15:44:40.472580 29702 net.cpp:150] Setting up conv3_relu
I0326 15:44:40.472602 29702 net.cpp:157] Top shape: 512 250 6 6 (4608000)
I0326 15:44:40.472606 29702 net.cpp:165] Memory required for data: 1087821824
I0326 15:44:40.472610 29702 layer_factory.hpp:77] Creating layer pool3
I0326 15:44:40.472620 29702 net.cpp:100] Creating Layer pool3
I0326 15:44:40.472625 29702 net.cpp:434] pool3 <- conv3
I0326 15:44:40.472630 29702 net.cpp:408] pool3 -> pool3
I0326 15:44:40.472684 29702 net.cpp:150] Setting up pool3
I0326 15:44:40.472713 29702 net.cpp:157] Top shape: 512 250 3 3 (1152000)
I0326 15:44:40.472718 29702 net.cpp:165] Memory required for data: 1092429824
I0326 15:44:40.472720 29702 layer_factory.hpp:77] Creating layer fc4_300
I0326 15:44:40.472729 29702 net.cpp:100] Creating Layer fc4_300
I0326 15:44:40.472733 29702 net.cpp:434] fc4_300 <- pool3
I0326 15:44:40.472738 29702 net.cpp:408] fc4_300 -> fc4_300
I0326 15:44:40.478719 29702 net.cpp:150] Setting up fc4_300
I0326 15:44:40.478767 29702 net.cpp:157] Top shape: 512 300 (153600)
I0326 15:44:40.478775 29702 net.cpp:165] Memory required for data: 1093044224
I0326 15:44:40.478791 29702 layer_factory.hpp:77] Creating layer fc4_relu
I0326 15:44:40.478809 29702 net.cpp:100] Creating Layer fc4_relu
I0326 15:44:40.478816 29702 net.cpp:434] fc4_relu <- fc4_300
I0326 15:44:40.478827 29702 net.cpp:395] fc4_relu -> fc4_300 (in-place)
I0326 15:44:40.479173 29702 net.cpp:150] Setting up fc4_relu
I0326 15:44:40.479192 29702 net.cpp:157] Top shape: 512 300 (153600)
I0326 15:44:40.479197 29702 net.cpp:165] Memory required for data: 1093658624
I0326 15:44:40.479203 29702 layer_factory.hpp:77] Creating layer drop4
I0326 15:44:40.479218 29702 net.cpp:100] Creating Layer drop4
I0326 15:44:40.479223 29702 net.cpp:434] drop4 <- fc4_300
I0326 15:44:40.479231 29702 net.cpp:395] drop4 -> fc4_300 (in-place)
I0326 15:44:40.479272 29702 net.cpp:150] Setting up drop4
I0326 15:44:40.479280 29702 net.cpp:157] Top shape: 512 300 (153600)
I0326 15:44:40.479284 29702 net.cpp:165] Memory required for data: 1094273024
I0326 15:44:40.479287 29702 layer_factory.hpp:77] Creating layer fc5_67
I0326 15:44:40.479295 29702 net.cpp:100] Creating Layer fc5_67
I0326 15:44:40.479300 29702 net.cpp:434] fc5_67 <- fc4_300
I0326 15:44:40.479305 29702 net.cpp:408] fc5_67 -> fc5_classes
I0326 15:44:40.481286 29702 net.cpp:150] Setting up fc5_67
I0326 15:44:40.481304 29702 net.cpp:157] Top shape: 512 67 (34304)
I0326 15:44:40.481310 29702 net.cpp:165] Memory required for data: 1094410240
I0326 15:44:40.481331 29702 layer_factory.hpp:77] Creating layer loss
I0326 15:44:40.481345 29702 net.cpp:100] Creating Layer loss
I0326 15:44:40.481354 29702 net.cpp:434] loss <- fc5_classes
I0326 15:44:40.481359 29702 net.cpp:434] loss <- label
I0326 15:44:40.481365 29702 net.cpp:408] loss -> loss
I0326 15:44:40.481381 29702 layer_factory.hpp:77] Creating layer loss
…
I0326 15:44:40.482048 29702 solver.cpp:193] Creating test net (#0) specified by test_net file: ./Prototxt/rtsd-r1/AHE/test.prototxt
I0326 15:44:40.482177 29702 net.cpp:58] Initializing net from parameters: 
state {
  phase: TEST
}
layer {
  name: "data"
  type: "Data"
  top: "data"
  top: "label"
  include {
    phase: TEST
  }
  transform_param {
    mirror: false
    crop_size: 48
    mean_value: 126
    mean_value: 124
    mean_value: 145
  }
  data_param {
    source: "../local_data/lmdb/rtsd-r1/AHE/test/lmdb"
    batch_size: 512
    backend: LMDB
  }
}
layer {
  name: "conv1"
  type: "Convolution"
  bottom: "data"
  top: "conv1"
  convolution_param {
    num_output: 100
    pad: 0
    kernel_size: 7
    group: 1
    stride: 1
    weight_filler {
      type: "xavier"
    }
  }
}
layer {
  name: "conv1_relu"
  type: "ReLU"
  bottom: "conv1"
  top: "conv1"
}
layer {
  name: "pool1"
  type: "Pooling"
  bottom: "conv1"
  top: "pool1"
  pooling_param {
    pool: MAX
    kernel_size: 2
    stride: 2
  }
}
layer {
  name: "conv2"
  type: "Convolution"
  bottom: "pool1"
  top: "conv2"
  convolution_param {
    num_output: 150
    pad: 0
    kernel_size: 4
    group: 1
    stride: 1
    weight_filler {
      type: "xavier"
    }
  }
}
layer {
  name: "conv2_relu"
  type: "ReLU"
  bottom: "conv2"
  top: "conv2"
}
layer {
  name: "pool2"
  type: "Pooling"
  bottom: "conv2"
  top: "pool2"
  pooling_param {
    pool: MAX
    kernel_size: 2
    stride: 2
  }
}
layer {
  name: "conv3"
  type: "Convolution"
  bottom: "pool2"
  top: "conv3"
  convolution_param {
    num_output: 250
    pad: 0
    kernel_size: 4
    group: 1
    stride: 1
    weight_filler {
      type: "xavier"
    }
  }
}
layer {
  name: "conv3_relu"
  type: "ReLU"
  bottom: "conv3"
  top: "conv3"
}
layer {
  name: "pool3"
  type: "Pooling"
  bottom: "conv3"
  top: "pool3"
  pooling_param {
    pool: MAX
    kernel_size: 2
    stride: 2
  }
}
layer {
  name: "fc4_300"
  type: "InnerProduct"
  bottom: "pool3"
  top: "fc4_300"
  inner_product_param {
    num_output: 300
    weight_filler {
      type: "xavier"
    }
  }
}
layer {
  name: "fc4_relu"
  type: "ReLU"
  bottom: "fc4_300"
  top: "fc4_300"
}
layer {
  name: "drop4"
  type: "Dropout"
  bottom: "fc4_300"
  top: "fc4_300"
  dropout_param {
    dropout_ratio: 0.4
  }
}
layer {
  name: "fc5_67"
  type: "InnerProduct"
  bottom: "fc4_300"
  top: "fc5_classes"
  inner_product_param {
    num_output: 67
    weight_filler {
      type: "xavier"
    }
  }
}
layer {
  name: "loss"
  type: "SoftmaxWithLoss"
  bottom: "fc5_classes"
  bottom: "label"
  top: "loss"
}
layer {
  name: "accuracy_1"
  type: "Accuracy"
  bottom: "fc5_classes"
  bottom: "label"
  top: "accuracy_1"
  include {
    phase: TEST
  }
  accuracy_param {
    top_k: 1
  }
}
layer {
  name: "accuracy_5"
  type: "Accuracy"
  bottom: "fc5_classes"
  bottom: "label"
  top: "accuracy_5"
  include {
    phase: TEST
  }
  accuracy_param {
    top_k: 5
  }
}
I0326 15:44:40.482290 29702 layer_factory.hpp:77] Creating layer data
I0326 15:44:40.482666 29702 net.cpp:100] Creating Layer data
I0326 15:44:40.482678 29702 net.cpp:408] data -> data
I0326 15:44:40.482687 29702 net.cpp:408] data -> label
I0326 15:44:40.506235 29764 db_lmdb.cpp:35] Opened lmdb ../local_data/lmdb/rtsd-r1/AHE/test/lmdb
I0326 15:44:40.506424 29702 data_layer.cpp:41] output data size: 512,3,48,48
I0326 15:44:40.532207 29702 net.cpp:150] Setting up data
I0326 15:44:40.532238 29702 net.cpp:157] Top shape: 512 3 48 48 (3538944)
I0326 15:44:40.532250 29702 net.cpp:157] Top shape: 512 (512)
I0326 15:44:40.532253 29702 net.cpp:165] Memory required for data: 14157824
I0326 15:44:40.532260 29702 layer_factory.hpp:77] Creating layer label_data_1_split
I0326 15:44:40.532275 29702 net.cpp:100] Creating Layer label_data_1_split
I0326 15:44:40.532279 29702 net.cpp:434] label_data_1_split <- label
I0326 15:44:40.532287 29702 net.cpp:408] label_data_1_split -> label_data_1_split_0
I0326 15:44:40.532297 29702 net.cpp:408] label_data_1_split -> label_data_1_split_1
I0326 15:44:40.532320 29702 net.cpp:408] label_data_1_split -> label_data_1_split_2
I0326 15:44:40.532430 29702 net.cpp:150] Setting up label_data_1_split
I0326 15:44:40.532441 29702 net.cpp:157] Top shape: 512 (512)
I0326 15:44:40.532464 29702 net.cpp:157] Top shape: 512 (512)
I0326 15:44:40.532469 29702 net.cpp:157] Top shape: 512 (512)
I0326 15:44:40.532471 29702 net.cpp:165] Memory required for data: 14163968
I0326 15:44:40.532474 29702 layer_factory.hpp:77] Creating layer conv1
I0326 15:44:40.532488 29702 net.cpp:100] Creating Layer conv1
I0326 15:44:40.532498 29702 net.cpp:434] conv1 <- data
I0326 15:44:40.532505 29702 net.cpp:408] conv1 -> conv1
I0326 15:44:40.542469 29702 net.cpp:150] Setting up conv1
I0326 15:44:40.542490 29702 net.cpp:157] Top shape: 512 100 42 42 (90316800)
I0326 15:44:40.542495 29702 net.cpp:165] Memory required for data: 375431168
I0326 15:44:40.542506 29702 layer_factory.hpp:77] Creating layer conv1_relu
I0326 15:44:40.542515 29702 net.cpp:100] Creating Layer conv1_relu
I0326 15:44:40.542520 29702 net.cpp:434] conv1_relu <- conv1
I0326 15:44:40.542527 29702 net.cpp:395] conv1_relu -> conv1 (in-place)
I0326 15:44:40.542734 29702 net.cpp:150] Setting up conv1_relu
I0326 15:44:40.542750 29702 net.cpp:157] Top shape: 512 100 42 42 (90316800)
I0326 15:44:40.542754 29702 net.cpp:165] Memory required for data: 736698368
I0326 15:44:40.542757 29702 layer_factory.hpp:77] Creating layer pool1
I0326 15:44:40.542768 29702 net.cpp:100] Creating Layer pool1
I0326 15:44:40.542773 29702 net.cpp:434] pool1 <- conv1
I0326 15:44:40.542779 29702 net.cpp:408] pool1 -> pool1
I0326 15:44:40.542831 29702 net.cpp:150] Setting up pool1
I0326 15:44:40.542840 29702 net.cpp:157] Top shape: 512 100 21 21 (22579200)
I0326 15:44:40.542842 29702 net.cpp:165] Memory required for data: 827015168
I0326 15:44:40.542845 29702 layer_factory.hpp:77] Creating layer conv2
I0326 15:44:40.542857 29702 net.cpp:100] Creating Layer conv2
I0326 15:44:40.542863 29702 net.cpp:434] conv2 <- pool1
I0326 15:44:40.542870 29702 net.cpp:408] conv2 -> conv2
I0326 15:44:40.550146 29702 net.cpp:150] Setting up conv2
I0326 15:44:40.550166 29702 net.cpp:157] Top shape: 512 150 18 18 (24883200)
I0326 15:44:40.550170 29702 net.cpp:165] Memory required for data: 926547968
I0326 15:44:40.550179 29702 layer_factory.hpp:77] Creating layer conv2_relu
I0326 15:44:40.550186 29702 net.cpp:100] Creating Layer conv2_relu
I0326 15:44:40.550189 29702 net.cpp:434] conv2_relu <- conv2
I0326 15:44:40.550194 29702 net.cpp:395] conv2_relu -> conv2 (in-place)
I0326 15:44:40.552305 29702 net.cpp:150] Setting up conv2_relu
I0326 15:44:40.552322 29702 net.cpp:157] Top shape: 512 150 18 18 (24883200)
I0326 15:44:40.552326 29702 net.cpp:165] Memory required for data: 1026080768
I0326 15:44:40.552330 29702 layer_factory.hpp:77] Creating layer pool2
I0326 15:44:40.552336 29702 net.cpp:100] Creating Layer pool2
I0326 15:44:40.552340 29702 net.cpp:434] pool2 <- conv2
I0326 15:44:40.552346 29702 net.cpp:408] pool2 -> pool2
I0326 15:44:40.552402 29702 net.cpp:150] Setting up pool2
I0326 15:44:40.552412 29702 net.cpp:157] Top shape: 512 150 9 9 (6220800)
I0326 15:44:40.552414 29702 net.cpp:165] Memory required for data: 1050963968
I0326 15:44:40.552418 29702 layer_factory.hpp:77] Creating layer conv3
I0326 15:44:40.552428 29702 net.cpp:100] Creating Layer conv3
I0326 15:44:40.552433 29702 net.cpp:434] conv3 <- pool2
I0326 15:44:40.552438 29702 net.cpp:408] conv3 -> conv3
I0326 15:44:40.564646 29702 net.cpp:150] Setting up conv3
I0326 15:44:40.564666 29702 net.cpp:157] Top shape: 512 250 6 6 (4608000)
I0326 15:44:40.564668 29702 net.cpp:165] Memory required for data: 1069395968
I0326 15:44:40.564678 29702 layer_factory.hpp:77] Creating layer conv3_relu
I0326 15:44:40.564687 29702 net.cpp:100] Creating Layer conv3_relu
I0326 15:44:40.564692 29702 net.cpp:434] conv3_relu <- conv3
I0326 15:44:40.564697 29702 net.cpp:395] conv3_relu -> conv3 (in-place)
I0326 15:44:40.565740 29702 net.cpp:150] Setting up conv3_relu
I0326 15:44:40.565758 29702 net.cpp:157] Top shape: 512 250 6 6 (4608000)
I0326 15:44:40.565763 29702 net.cpp:165] Memory required for data: 1087827968
I0326 15:44:40.565768 29702 layer_factory.hpp:77] Creating layer pool3
I0326 15:44:40.565774 29702 net.cpp:100] Creating Layer pool3
I0326 15:44:40.565793 29702 net.cpp:434] pool3 <- conv3
I0326 15:44:40.565799 29702 net.cpp:408] pool3 -> pool3
I0326 15:44:40.565853 29702 net.cpp:150] Setting up pool3
I0326 15:44:40.565862 29702 net.cpp:157] Top shape: 512 250 3 3 (1152000)
I0326 15:44:40.565865 29702 net.cpp:165] Memory required for data: 1092435968
I0326 15:44:40.565868 29702 layer_factory.hpp:77] Creating layer fc4_300
I0326 15:44:40.565877 29702 net.cpp:100] Creating Layer fc4_300
I0326 15:44:40.565882 29702 net.cpp:434] fc4_300 <- pool3
I0326 15:44:40.565887 29702 net.cpp:408] fc4_300 -> fc4_300
I0326 15:44:40.572729 29702 net.cpp:150] Setting up fc4_300
I0326 15:44:40.572748 29702 net.cpp:157] Top shape: 512 300 (153600)
I0326 15:44:40.572751 29702 net.cpp:165] Memory required for data: 1093050368
I0326 15:44:40.572758 29702 layer_factory.hpp:77] Creating layer fc4_relu
I0326 15:44:40.572765 29702 net.cpp:100] Creating Layer fc4_relu
I0326 15:44:40.572769 29702 net.cpp:434] fc4_relu <- fc4_300
I0326 15:44:40.572777 29702 net.cpp:395] fc4_relu -> fc4_300 (in-place)
I0326 15:44:40.572988 29702 net.cpp:150] Setting up fc4_relu
I0326 15:44:40.573004 29702 net.cpp:157] Top shape: 512 300 (153600)
I0326 15:44:40.573007 29702 net.cpp:165] Memory required for data: 1093664768
I0326 15:44:40.573012 29702 layer_factory.hpp:77] Creating layer drop4
I0326 15:44:40.573024 29702 net.cpp:100] Creating Layer drop4
I0326 15:44:40.573032 29702 net.cpp:434] drop4 <- fc4_300
I0326 15:44:40.573040 29702 net.cpp:395] drop4 -> fc4_300 (in-place)
I0326 15:44:40.573077 29702 net.cpp:150] Setting up drop4
I0326 15:44:40.573086 29702 net.cpp:157] Top shape: 512 300 (153600)
I0326 15:44:40.573089 29702 net.cpp:165] Memory required for data: 1094279168
I0326 15:44:40.573092 29702 layer_factory.hpp:77] Creating layer fc5_67
I0326 15:44:40.573099 29702 net.cpp:100] Creating Layer fc5_67
I0326 15:44:40.573102 29702 net.cpp:434] fc5_67 <- fc4_300
I0326 15:44:40.573109 29702 net.cpp:408] fc5_67 -> fc5_classes
I0326 15:44:40.573369 29702 net.cpp:150] Setting up fc5_67
I0326 15:44:40.573379 29702 net.cpp:157] Top shape: 512 67 (34304)
I0326 15:44:40.573385 29702 net.cpp:165] Memory required for data: 1094416384
I0326 15:44:40.573395 29702 layer_factory.hpp:77] Creating layer fc5_classes_fc5_67_0_split
I0326 15:44:40.573405 29702 net.cpp:100] Creating Layer fc5_classes_fc5_67_0_split
I0326 15:44:40.573410 29702 net.cpp:434] fc5_classes_fc5_67_0_split <- fc5_classes
I0326 15:44:40.573423 29702 net.cpp:408] fc5_classes_fc5_67_0_split -> fc5_classes_fc5_67_0_split_0
I0326 15:44:40.573436 29702 net.cpp:408] fc5_classes_fc5_67_0_split -> fc5_classes_fc5_67_0_split_1
I0326 15:44:40.573446 29702 net.cpp:408] fc5_classes_fc5_67_0_split -> fc5_classes_fc5_67_0_split_2
I0326 15:44:40.573508 29702 net.cpp:150] Setting up fc5_classes_fc5_67_0_split
I0326 15:44:40.573518 29702 net.cpp:157] Top shape: 512 67 (34304)
I0326 15:44:40.573523 29702 net.cpp:157] Top shape: 512 67 (34304)
I0326 15:44:40.573529 29702 net.cpp:157] Top shape: 512 67 (34304)
I0326 15:44:40.573532 29702 net.cpp:165] Memory required for data: 1094828032
I0326 15:44:40.573536 29702 layer_factory.hpp:77] Creating layer loss
I0326 15:44:40.573546 29702 net.cpp:100] Creating Layer loss
I0326 15:44:40.573552 29702 net.cpp:434] loss <- fc5_classes_fc5_67_0_split_0
I0326 15:44:40.573557 29702 net.cpp:434] loss <- label_data_1_split_0
I0326 15:44:40.573562 29702 net.cpp:408] loss -> loss
…
