…
I0415 06:32:09.480377 25341 solver.cpp:93] Creating training net from train_net file: ./Prototxt/experiment_12/rtsd-r1/imajust/trial_4/train.prototxt
I0415 06:32:09.648947 25341 net.cpp:58] Initializing net from parameters: 
state {
  phase: TRAIN
  level: 0
  stage: ""
}
layer {
  name: "data"
  type: "Data"
  top: "data"
  top: "label"
  include {
    phase: TRAIN
  }
  transform_param {
    scale: 0.0039215689
    mirror: false
    crop_size: 48
    mean_value: 115
    mean_value: 108
    mean_value: 122
  }
  data_param {
    source: "../local_data/lmdb/rtsd-r1/imajust/train/lmdb"
    batch_size: 1024
    backend: LMDB
  }
}
layer {
  name: "conv1"
  type: "Convolution"
  bottom: "data"
  top: "conv1"
  convolution_param {
    num_output: 100
    pad: 0
    kernel_size: 7
    group: 1
    stride: 1
    weight_filler {
      type: "xavier"
    }
  }
}
layer {
  name: "conv1_relu"
  type: "ReLU"
  bottom: "conv1"
  top: "conv1"
}
layer {
  name: "pool1"
  type: "Pooling"
  bottom: "conv1"
  top: "pool1"
  pooling_param {
    pool: MAX
    kernel_size: 2
    stride: 2
  }
}
layer {
  name: "conv2"
  type: "Convolution"
  bottom: "pool1"
  top: "conv2"
  convolution_param {
    num_output: 150
    pad: 0
    kernel_size: 4
    group: 1
    stride: 1
    weight_filler {
      type: "xavier"
    }
  }
}
layer {
  name: "conv2_relu"
  type: "ReLU"
  bottom: "conv2"
  top: "conv2"
}
layer {
  name: "pool2"
  type: "Pooling"
  bottom: "conv2"
  top: "pool2"
  pooling_param {
    pool: MAX
    kernel_size: 2
    stride: 2
  }
}
layer {
  name: "conv3"
  type: "Convolution"
  bottom: "pool2"
  top: "conv3"
  convolution_param {
    num_output: 250
    pad: 0
    kernel_size: 4
    group: 1
    stride: 1
    weight_filler {
      type: "xavier"
    }
  }
}
layer {
  name: "conv3_relu"
  type: "ReLU"
  bottom: "conv3"
  top: "conv3"
}
layer {
  name: "pool3"
  type: "Pooling"
  bottom: "conv3"
  top: "pool3"
  pooling_param {
    pool: MAX
    kernel_size: 2
    stride: 2
  }
}
layer {
  name: "fc4_300"
  type: "InnerProduct"
  bottom: "pool3"
  top: "fc4_300"
  inner_product_param {
    num_output: 300
    weight_filler {
      type: "xavier"
    }
  }
}
layer {
  name: "fc4_relu"
  type: "ReLU"
  bottom: "fc4_300"
  top: "fc4_300"
}
layer {
  name: "drop4"
  type: "Dropout"
  bottom: "fc4_300"
  top: "fc4_300"
  dropout_param {
    dropout_ratio: 0.5
  }
}
layer {
  name: "fc5_67"
  type: "InnerProduct"
  bottom: "fc4_300"
  top: "fc5_classes"
  inner_product_param {
    num_output: 67
    weight_filler {
      type: "xavier"
    }
  }
}
layer {
  name: "softmax"
  type: "Softmax"
  bottom: "fc5_classes"
  top: "softmax"
}
layer {
  name: "loss"
  type: "MultinomialLogisticLoss"
  bottom: "softmax"
  bottom: "label"
  top: "loss"
}
layer {
  name: "accuracy_1"
  type: "Accuracy"
  bottom: "fc5_classes"
  bottom: "label"
  top: "accuracy_1"
  accuracy_param {
    top_k: 1
  }
}
layer {
  name: "accuracy_5"
  type: "Accuracy"
  bottom: "fc5_classes"
  bottom: "label"
  top: "accuracy_5"
  accuracy_param {
    top_k: 5
  }
}
layer {
  name: "silence"
  type: "Silence"
  bottom: "accuracy_1"
  bottom: "accuracy_5"
}
I0415 06:32:09.649099 25341 layer_factory.hpp:77] Creating layer data
I0415 06:32:09.694492 25341 net.cpp:100] Creating Layer data
I0415 06:32:09.694532 25341 net.cpp:408] data -> data
I0415 06:32:09.694560 25341 net.cpp:408] data -> label
I0415 06:32:09.696549 25591 db_lmdb.cpp:35] Opened lmdb ../local_data/lmdb/rtsd-r1/imajust/train/lmdb
I0415 06:32:09.714056 25341 data_layer.cpp:41] output data size: 1024,3,48,48
I0415 06:32:09.766432 25341 net.cpp:150] Setting up data
I0415 06:32:09.766461 25341 net.cpp:157] Top shape: 1024 3 48 48 (7077888)
I0415 06:32:09.766466 25341 net.cpp:157] Top shape: 1024 (1024)
I0415 06:32:09.766469 25341 net.cpp:165] Memory required for data: 28315648
I0415 06:32:09.766481 25341 layer_factory.hpp:77] Creating layer label_data_1_split
I0415 06:32:09.766496 25341 net.cpp:100] Creating Layer label_data_1_split
I0415 06:32:09.766501 25341 net.cpp:434] label_data_1_split <- label
I0415 06:32:09.766516 25341 net.cpp:408] label_data_1_split -> label_data_1_split_0
I0415 06:32:09.766528 25341 net.cpp:408] label_data_1_split -> label_data_1_split_1
I0415 06:32:09.766536 25341 net.cpp:408] label_data_1_split -> label_data_1_split_2
I0415 06:32:09.766621 25341 net.cpp:150] Setting up label_data_1_split
I0415 06:32:09.766629 25341 net.cpp:157] Top shape: 1024 (1024)
I0415 06:32:09.766633 25341 net.cpp:157] Top shape: 1024 (1024)
I0415 06:32:09.766638 25341 net.cpp:157] Top shape: 1024 (1024)
I0415 06:32:09.766640 25341 net.cpp:165] Memory required for data: 28327936
I0415 06:32:09.766644 25341 layer_factory.hpp:77] Creating layer conv1
I0415 06:32:09.766659 25341 net.cpp:100] Creating Layer conv1
I0415 06:32:09.766664 25341 net.cpp:434] conv1 <- data
I0415 06:32:09.766669 25341 net.cpp:408] conv1 -> conv1
I0415 06:32:11.047541 25341 net.cpp:150] Setting up conv1
I0415 06:32:11.047585 25341 net.cpp:157] Top shape: 1024 100 42 42 (180633600)
I0415 06:32:11.047590 25341 net.cpp:165] Memory required for data: 750862336
I0415 06:32:11.047612 25341 layer_factory.hpp:77] Creating layer conv1_relu
I0415 06:32:11.047623 25341 net.cpp:100] Creating Layer conv1_relu
I0415 06:32:11.047631 25341 net.cpp:434] conv1_relu <- conv1
I0415 06:32:11.047636 25341 net.cpp:395] conv1_relu -> conv1 (in-place)
I0415 06:32:11.047843 25341 net.cpp:150] Setting up conv1_relu
I0415 06:32:11.047854 25341 net.cpp:157] Top shape: 1024 100 42 42 (180633600)
I0415 06:32:11.047859 25341 net.cpp:165] Memory required for data: 1473396736
I0415 06:32:11.047863 25341 layer_factory.hpp:77] Creating layer pool1
I0415 06:32:11.047873 25341 net.cpp:100] Creating Layer pool1
I0415 06:32:11.047894 25341 net.cpp:434] pool1 <- conv1
I0415 06:32:11.047900 25341 net.cpp:408] pool1 -> pool1
I0415 06:32:11.047961 25341 net.cpp:150] Setting up pool1
I0415 06:32:11.047969 25341 net.cpp:157] Top shape: 1024 100 21 21 (45158400)
I0415 06:32:11.047972 25341 net.cpp:165] Memory required for data: 1654030336
I0415 06:32:11.047976 25341 layer_factory.hpp:77] Creating layer conv2
I0415 06:32:11.047986 25341 net.cpp:100] Creating Layer conv2
I0415 06:32:11.047991 25341 net.cpp:434] conv2 <- pool1
I0415 06:32:11.047997 25341 net.cpp:408] conv2 -> conv2
I0415 06:32:11.057551 25341 net.cpp:150] Setting up conv2
I0415 06:32:11.057580 25341 net.cpp:157] Top shape: 1024 150 18 18 (49766400)
I0415 06:32:11.057584 25341 net.cpp:165] Memory required for data: 1853095936
I0415 06:32:11.057600 25341 layer_factory.hpp:77] Creating layer conv2_relu
I0415 06:32:11.057611 25341 net.cpp:100] Creating Layer conv2_relu
I0415 06:32:11.057615 25341 net.cpp:434] conv2_relu <- conv2
I0415 06:32:11.057621 25341 net.cpp:395] conv2_relu -> conv2 (in-place)
I0415 06:32:11.059245 25341 net.cpp:150] Setting up conv2_relu
I0415 06:32:11.059265 25341 net.cpp:157] Top shape: 1024 150 18 18 (49766400)
I0415 06:32:11.059269 25341 net.cpp:165] Memory required for data: 2052161536
I0415 06:32:11.059273 25341 layer_factory.hpp:77] Creating layer pool2
I0415 06:32:11.059283 25341 net.cpp:100] Creating Layer pool2
I0415 06:32:11.059286 25341 net.cpp:434] pool2 <- conv2
I0415 06:32:11.059293 25341 net.cpp:408] pool2 -> pool2
I0415 06:32:11.059370 25341 net.cpp:150] Setting up pool2
I0415 06:32:11.059378 25341 net.cpp:157] Top shape: 1024 150 9 9 (12441600)
I0415 06:32:11.059381 25341 net.cpp:165] Memory required for data: 2101927936
I0415 06:32:11.059384 25341 layer_factory.hpp:77] Creating layer conv3
I0415 06:32:11.059423 25341 net.cpp:100] Creating Layer conv3
I0415 06:32:11.059429 25341 net.cpp:434] conv3 <- pool2
I0415 06:32:11.059435 25341 net.cpp:408] conv3 -> conv3
I0415 06:32:11.065412 25341 net.cpp:150] Setting up conv3
I0415 06:32:11.065448 25341 net.cpp:157] Top shape: 1024 250 6 6 (9216000)
I0415 06:32:11.065452 25341 net.cpp:165] Memory required for data: 2138791936
I0415 06:32:11.065466 25341 layer_factory.hpp:77] Creating layer conv3_relu
I0415 06:32:11.065475 25341 net.cpp:100] Creating Layer conv3_relu
I0415 06:32:11.065480 25341 net.cpp:434] conv3_relu <- conv3
I0415 06:32:11.065490 25341 net.cpp:395] conv3_relu -> conv3 (in-place)
I0415 06:32:11.067126 25341 net.cpp:150] Setting up conv3_relu
I0415 06:32:11.067142 25341 net.cpp:157] Top shape: 1024 250 6 6 (9216000)
I0415 06:32:11.067147 25341 net.cpp:165] Memory required for data: 2175655936
I0415 06:32:11.067154 25341 layer_factory.hpp:77] Creating layer pool3
I0415 06:32:11.067162 25341 net.cpp:100] Creating Layer pool3
I0415 06:32:11.067165 25341 net.cpp:434] pool3 <- conv3
I0415 06:32:11.067173 25341 net.cpp:408] pool3 -> pool3
I0415 06:32:11.067226 25341 net.cpp:150] Setting up pool3
I0415 06:32:11.067234 25341 net.cpp:157] Top shape: 1024 250 3 3 (2304000)
I0415 06:32:11.067237 25341 net.cpp:165] Memory required for data: 2184871936
I0415 06:32:11.067240 25341 layer_factory.hpp:77] Creating layer fc4_300
I0415 06:32:11.067248 25341 net.cpp:100] Creating Layer fc4_300
I0415 06:32:11.067253 25341 net.cpp:434] fc4_300 <- pool3
I0415 06:32:11.067260 25341 net.cpp:408] fc4_300 -> fc4_300
I0415 06:32:11.072867 25341 net.cpp:150] Setting up fc4_300
I0415 06:32:11.072890 25341 net.cpp:157] Top shape: 1024 300 (307200)
I0415 06:32:11.072893 25341 net.cpp:165] Memory required for data: 2186100736
I0415 06:32:11.072904 25341 layer_factory.hpp:77] Creating layer fc4_relu
I0415 06:32:11.072916 25341 net.cpp:100] Creating Layer fc4_relu
I0415 06:32:11.072919 25341 net.cpp:434] fc4_relu <- fc4_300
I0415 06:32:11.072924 25341 net.cpp:395] fc4_relu -> fc4_300 (in-place)
I0415 06:32:11.073159 25341 net.cpp:150] Setting up fc4_relu
I0415 06:32:11.073170 25341 net.cpp:157] Top shape: 1024 300 (307200)
I0415 06:32:11.073175 25341 net.cpp:165] Memory required for data: 2187329536
I0415 06:32:11.073179 25341 layer_factory.hpp:77] Creating layer drop4
I0415 06:32:11.073185 25341 net.cpp:100] Creating Layer drop4
I0415 06:32:11.073189 25341 net.cpp:434] drop4 <- fc4_300
I0415 06:32:11.073196 25341 net.cpp:395] drop4 -> fc4_300 (in-place)
I0415 06:32:11.073230 25341 net.cpp:150] Setting up drop4
I0415 06:32:11.073237 25341 net.cpp:157] Top shape: 1024 300 (307200)
I0415 06:32:11.073240 25341 net.cpp:165] Memory required for data: 2188558336
I0415 06:32:11.073243 25341 layer_factory.hpp:77] Creating layer fc5_67
I0415 06:32:11.073251 25341 net.cpp:100] Creating Layer fc5_67
I0415 06:32:11.073256 25341 net.cpp:434] fc5_67 <- fc4_300
I0415 06:32:11.073261 25341 net.cpp:408] fc5_67 -> fc5_classes
I0415 06:32:11.075057 25341 net.cpp:150] Setting up fc5_67
I0415 06:32:11.075072 25341 net.cpp:157] Top shape: 1024 67 (68608)
I0415 06:32:11.075074 25341 net.cpp:165] Memory required for data: 2188832768
I0415 06:32:11.075085 25341 layer_factory.hpp:77] Creating layer fc5_classes_fc5_67_0_split
I0415 06:32:11.075094 25341 net.cpp:100] Creating Layer fc5_classes_fc5_67_0_split
I0415 06:32:11.075098 25341 net.cpp:434] fc5_classes_fc5_67_0_split <- fc5_classes
I0415 06:32:11.075105 25341 net.cpp:408] fc5_classes_fc5_67_0_split -> fc5_classes_fc5_67_0_split_0
I0415 06:32:11.075112 25341 net.cpp:408] fc5_classes_fc5_67_0_split -> fc5_classes_fc5_67_0_split_1
I0415 06:32:11.075120 25341 net.cpp:408] fc5_classes_fc5_67_0_split -> fc5_classes_fc5_67_0_split_2
I0415 06:32:11.075176 25341 net.cpp:150] Setting up fc5_classes_fc5_67_0_split
I0415 06:32:11.075183 25341 net.cpp:157] Top shape: 1024 67 (68608)
I0415 06:32:11.075187 25341 net.cpp:157] Top shape: 1024 67 (68608)
I0415 06:32:11.075191 25341 net.cpp:157] Top shape: 1024 67 (68608)
I0415 06:32:11.075192 25341 net.cpp:165] Memory required for data: 2189656064
I0415 06:32:11.075212 25341 layer_factory.hpp:77] Creating layer softmax
I0415 06:32:11.075223 25341 net.cpp:100] Creating Layer softmax
I0415 06:32:11.075228 25341 net.cpp:434] softmax <- fc5_classes_fc5_67_0_split_0
I0415 06:32:11.075234 25341 net.cpp:408] softmax -> softmax
I0415 06:32:11.075507 25341 net.cpp:150] Setting up softmax
I0415 06:32:11.075520 25341 net.cpp:157] Top shape: 1024 67 (68608)
I0415 06:32:11.075522 25341 net.cpp:165] Memory required for data: 2189930496
I0415 06:32:11.075526 25341 layer_factory.hpp:77] Creating layer loss
I0415 06:32:11.075534 25341 net.cpp:100] Creating Layer loss
I0415 06:32:11.075538 25341 net.cpp:434] loss <- softmax
I0415 06:32:11.075543 25341 net.cpp:434] loss <- label_data_1_split_0
I0415 06:32:11.075548 25341 net.cpp:408] loss -> loss
…
