…
I0506 00:32:46.120208 16112 solver.cpp:93] Creating training net from train_net file: ./Prototxt/experiment_13/RTSD/orig/trial_1/train.prototxt
I0506 00:32:46.120664 16112 net.cpp:58] Initializing net from parameters: 
state {
  phase: TRAIN
  level: 0
  stage: ""
}
layer {
  name: "data"
  type: "Data"
  top: "data"
  top: "label"
  include {
    phase: TRAIN
  }
  transform_param {
    scale: 0.0039215689
    mirror: false
    crop_size: 48
    mean_value: 119
    mean_value: 113
    mean_value: 113
  }
  data_param {
    source: "../local_data/lmdb/RTSD/orig/train/lmdb"
    batch_size: 512
    backend: LMDB
  }
}
layer {
  name: "conv1"
  type: "Convolution"
  bottom: "data"
  top: "conv1"
  convolution_param {
    num_output: 100
    pad: 0
    kernel_size: 7
    group: 1
    stride: 1
    weight_filler {
      type: "xavier"
    }
  }
}
layer {
  name: "conv1_prescale"
  type: "Scale"
  bottom: "conv1"
  top: "conv1"
  param {
    lr_mult: 0
    decay_mult: 0
  }
  scale_param {
    filler {
      value: 0.6666
    }
    bias_term: false
  }
}
layer {
  name: "conv1_sTanH"
  type: "TanH"
  bottom: "conv1"
  top: "conv1"
}
layer {
  name: "conv1_postscale"
  type: "Scale"
  bottom: "conv1"
  top: "conv1"
  param {
    lr_mult: 0
    decay_mult: 0
  }
  scale_param {
    filler {
      value: 1.7159
    }
    bias_term: false
  }
}
layer {
  name: "pool1"
  type: "Pooling"
  bottom: "conv1"
  top: "pool1"
  pooling_param {
    pool: MAX
    kernel_size: 2
    stride: 2
  }
}
layer {
  name: "conv2"
  type: "Convolution"
  bottom: "pool1"
  top: "conv2"
  convolution_param {
    num_output: 150
    pad: 0
    kernel_size: 4
    group: 1
    stride: 1
    weight_filler {
      type: "xavier"
    }
  }
}
layer {
  name: "conv2_prescale"
  type: "Scale"
  bottom: "conv2"
  top: "conv2"
  param {
    lr_mult: 0
    decay_mult: 0
  }
  scale_param {
    filler {
      value: 0.6666
    }
    bias_term: false
  }
}
layer {
  name: "conv2_sTanH"
  type: "TanH"
  bottom: "conv2"
  top: "conv2"
}
layer {
  name: "conv2_postscale"
  type: "Scale"
  bottom: "conv2"
  top: "conv2"
  param {
    lr_mult: 0
    decay_mult: 0
  }
  scale_param {
    filler {
      value: 1.7159
    }
    bias_term: false
  }
}
layer {
  name: "pool2"
  type: "Pooling"
  bottom: "conv2"
  top: "pool2"
  pooling_param {
    pool: MAX
    kernel_size: 2
    stride: 2
  }
}
layer {
  name: "conv3"
  type: "Convolution"
  bottom: "pool2"
  top: "conv3"
  convolution_param {
    num_output: 250
    pad: 0
    kernel_size: 4
    group: 1
    stride: 1
    weight_filler {
      type: "xavier"
    }
  }
}
layer {
  name: "conv3_prescale"
  type: "Scale"
  bottom: "conv3"
  top: "conv3"
  param {
    lr_mult: 0
    decay_mult: 0
  }
  scale_param {
    filler {
      value: 0.6666
    }
    bias_term: false
  }
}
layer {
  name: "conv3_sTanH"
  type: "TanH"
  bottom: "conv3"
  top: "conv3"
}
layer {
  name: "conv3_postscale"
  type: "Scale"
  bottom: "conv3"
  top: "conv3"
  param {
    lr_mult: 0
    decay_mult: 0
  }
  scale_param {
    filler {
      value: 1.7159
    }
    bias_term: false
  }
}
layer {
  name: "pool3"
  type: "Pooling"
  bottom: "conv3"
  top: "pool3"
  pooling_param {
    pool: MAX
    kernel_size: 2
    stride: 2
  }
}
layer {
  name: "fc4_300"
  type: "InnerProduct"
  bottom: "pool3"
  top: "fc4_300"
  inner_product_param {
    num_output: 300
    weight_filler {
      type: "xavier"
    }
  }
}
layer {
  name: "fc4_prescale"
  type: "Scale"
  bottom: "fc4_300"
  top: "fc4_300"
  param {
    lr_mult: 0
    decay_mult: 0
  }
  scale_param {
    filler {
      value: 0.6666
    }
    bias_term: false
  }
}
layer {
  name: "fc4_sTanH"
  type: "TanH"
  bottom: "fc4_300"
  top: "fc4_300"
}
layer {
  name: "fc4_postscale"
  type: "Scale"
  bottom: "fc4_300"
  top: "fc4_300"
  param {
    lr_mult: 0
    decay_mult: 0
  }
  scale_param {
    filler {
      value: 1.7159
    }
    bias_term: false
  }
}
layer {
  name: "fc5_116"
  type: "InnerProduct"
  bottom: "fc4_300"
  top: "fc5_classes"
  inner_product_param {
    num_output: 116
    weight_filler {
      type: "xavier"
    }
  }
}
layer {
  name: "softmax"
  type: "Softmax"
  bottom: "fc5_classes"
  top: "softmax"
}
layer {
  name: "loss"
  type: "MultinomialLogisticLoss"
  bottom: "softmax"
  bottom: "label"
  top: "loss"
}
layer {
  name: "accuracy_1"
  type: "Accuracy"
  bottom: "fc5_classes"
  bottom: "label"
  top: "accuracy_1"
  accuracy_param {
    top_k: 1
  }
}
layer {
  name: "accuracy_5"
  type: "Accuracy"
  bottom: "fc5_classes"
  bottom: "label"
  top: "accuracy_5"
  accuracy_param {
    top_k: 5
  }
}
layer {
  name: "silence"
  type: "Silence"
  bottom: "accuracy_1"
  bottom: "accuracy_5"
}
I0506 00:32:46.120820 16112 layer_factory.hpp:77] Creating layer data
I0506 00:32:46.121580 16112 net.cpp:100] Creating Layer data
I0506 00:32:46.121594 16112 net.cpp:408] data -> data
I0506 00:32:46.121616 16112 net.cpp:408] data -> label
I0506 00:32:46.127601 16347 db_lmdb.cpp:35] Opened lmdb ../local_data/lmdb/RTSD/orig/train/lmdb
I0506 00:32:46.153856 16112 data_layer.cpp:41] output data size: 512,3,48,48
I0506 00:32:46.213448 16112 net.cpp:150] Setting up data
I0506 00:32:46.213479 16112 net.cpp:157] Top shape: 512 3 48 48 (3538944)
I0506 00:32:46.213485 16112 net.cpp:157] Top shape: 512 (512)
I0506 00:32:46.213487 16112 net.cpp:165] Memory required for data: 14157824
I0506 00:32:46.213500 16112 layer_factory.hpp:77] Creating layer label_data_1_split
I0506 00:32:46.213512 16112 net.cpp:100] Creating Layer label_data_1_split
I0506 00:32:46.213520 16112 net.cpp:434] label_data_1_split <- label
I0506 00:32:46.213532 16112 net.cpp:408] label_data_1_split -> label_data_1_split_0
I0506 00:32:46.213546 16112 net.cpp:408] label_data_1_split -> label_data_1_split_1
I0506 00:32:46.213552 16112 net.cpp:408] label_data_1_split -> label_data_1_split_2
I0506 00:32:46.213645 16112 net.cpp:150] Setting up label_data_1_split
I0506 00:32:46.213655 16112 net.cpp:157] Top shape: 512 (512)
I0506 00:32:46.213660 16112 net.cpp:157] Top shape: 512 (512)
I0506 00:32:46.213662 16112 net.cpp:157] Top shape: 512 (512)
I0506 00:32:46.213665 16112 net.cpp:165] Memory required for data: 14163968
I0506 00:32:46.213670 16112 layer_factory.hpp:77] Creating layer conv1
I0506 00:32:46.213685 16112 net.cpp:100] Creating Layer conv1
I0506 00:32:46.213690 16112 net.cpp:434] conv1 <- data
I0506 00:32:46.213696 16112 net.cpp:408] conv1 -> conv1
I0506 00:32:48.376639 16112 net.cpp:150] Setting up conv1
I0506 00:32:48.376669 16112 net.cpp:157] Top shape: 512 100 42 42 (90316800)
I0506 00:32:48.376673 16112 net.cpp:165] Memory required for data: 375431168
I0506 00:32:48.376698 16112 layer_factory.hpp:77] Creating layer conv1_prescale
I0506 00:32:48.376713 16112 net.cpp:100] Creating Layer conv1_prescale
I0506 00:32:48.376719 16112 net.cpp:434] conv1_prescale <- conv1
I0506 00:32:48.376725 16112 net.cpp:395] conv1_prescale -> conv1 (in-place)
I0506 00:32:48.376842 16112 net.cpp:150] Setting up conv1_prescale
I0506 00:32:48.376852 16112 net.cpp:157] Top shape: 512 100 42 42 (90316800)
I0506 00:32:48.376855 16112 net.cpp:165] Memory required for data: 736698368
I0506 00:32:48.376863 16112 layer_factory.hpp:77] Creating layer conv1_sTanH
I0506 00:32:48.376871 16112 net.cpp:100] Creating Layer conv1_sTanH
I0506 00:32:48.376875 16112 net.cpp:434] conv1_sTanH <- conv1
I0506 00:32:48.376880 16112 net.cpp:395] conv1_sTanH -> conv1 (in-place)
I0506 00:32:48.377087 16112 net.cpp:150] Setting up conv1_sTanH
I0506 00:32:48.377099 16112 net.cpp:157] Top shape: 512 100 42 42 (90316800)
I0506 00:32:48.377128 16112 net.cpp:165] Memory required for data: 1097965568
I0506 00:32:48.377132 16112 layer_factory.hpp:77] Creating layer conv1_postscale
I0506 00:32:48.377140 16112 net.cpp:100] Creating Layer conv1_postscale
I0506 00:32:48.377146 16112 net.cpp:434] conv1_postscale <- conv1
I0506 00:32:48.377151 16112 net.cpp:395] conv1_postscale -> conv1 (in-place)
I0506 00:32:48.377249 16112 net.cpp:150] Setting up conv1_postscale
I0506 00:32:48.377256 16112 net.cpp:157] Top shape: 512 100 42 42 (90316800)
I0506 00:32:48.377261 16112 net.cpp:165] Memory required for data: 1459232768
I0506 00:32:48.377266 16112 layer_factory.hpp:77] Creating layer pool1
I0506 00:32:48.377274 16112 net.cpp:100] Creating Layer pool1
I0506 00:32:48.377277 16112 net.cpp:434] pool1 <- conv1
I0506 00:32:48.377282 16112 net.cpp:408] pool1 -> pool1
I0506 00:32:48.377328 16112 net.cpp:150] Setting up pool1
I0506 00:32:48.377336 16112 net.cpp:157] Top shape: 512 100 21 21 (22579200)
I0506 00:32:48.377339 16112 net.cpp:165] Memory required for data: 1549549568
I0506 00:32:48.377342 16112 layer_factory.hpp:77] Creating layer conv2
I0506 00:32:48.377352 16112 net.cpp:100] Creating Layer conv2
I0506 00:32:48.377357 16112 net.cpp:434] conv2 <- pool1
I0506 00:32:48.377362 16112 net.cpp:408] conv2 -> conv2
I0506 00:32:48.384853 16112 net.cpp:150] Setting up conv2
I0506 00:32:48.384876 16112 net.cpp:157] Top shape: 512 150 18 18 (24883200)
I0506 00:32:48.384881 16112 net.cpp:165] Memory required for data: 1649082368
I0506 00:32:48.384892 16112 layer_factory.hpp:77] Creating layer conv2_prescale
I0506 00:32:48.384908 16112 net.cpp:100] Creating Layer conv2_prescale
I0506 00:32:48.384914 16112 net.cpp:434] conv2_prescale <- conv2
I0506 00:32:48.384922 16112 net.cpp:395] conv2_prescale -> conv2 (in-place)
I0506 00:32:48.385053 16112 net.cpp:150] Setting up conv2_prescale
I0506 00:32:48.385064 16112 net.cpp:157] Top shape: 512 150 18 18 (24883200)
I0506 00:32:48.385067 16112 net.cpp:165] Memory required for data: 1748615168
I0506 00:32:48.385072 16112 layer_factory.hpp:77] Creating layer conv2_sTanH
I0506 00:32:48.385079 16112 net.cpp:100] Creating Layer conv2_sTanH
I0506 00:32:48.385084 16112 net.cpp:434] conv2_sTanH <- conv2
I0506 00:32:48.385089 16112 net.cpp:395] conv2_sTanH -> conv2 (in-place)
I0506 00:32:48.385987 16112 net.cpp:150] Setting up conv2_sTanH
I0506 00:32:48.386003 16112 net.cpp:157] Top shape: 512 150 18 18 (24883200)
I0506 00:32:48.386006 16112 net.cpp:165] Memory required for data: 1848147968
I0506 00:32:48.386009 16112 layer_factory.hpp:77] Creating layer conv2_postscale
I0506 00:32:48.386018 16112 net.cpp:100] Creating Layer conv2_postscale
I0506 00:32:48.386021 16112 net.cpp:434] conv2_postscale <- conv2
I0506 00:32:48.386030 16112 net.cpp:395] conv2_postscale -> conv2 (in-place)
I0506 00:32:48.386142 16112 net.cpp:150] Setting up conv2_postscale
I0506 00:32:48.386153 16112 net.cpp:157] Top shape: 512 150 18 18 (24883200)
I0506 00:32:48.386158 16112 net.cpp:165] Memory required for data: 1947680768
I0506 00:32:48.386167 16112 layer_factory.hpp:77] Creating layer pool2
I0506 00:32:48.386176 16112 net.cpp:100] Creating Layer pool2
I0506 00:32:48.386181 16112 net.cpp:434] pool2 <- conv2
I0506 00:32:48.386186 16112 net.cpp:408] pool2 -> pool2
I0506 00:32:48.386235 16112 net.cpp:150] Setting up pool2
I0506 00:32:48.386245 16112 net.cpp:157] Top shape: 512 150 9 9 (6220800)
I0506 00:32:48.386250 16112 net.cpp:165] Memory required for data: 1972563968
I0506 00:32:48.386253 16112 layer_factory.hpp:77] Creating layer conv3
I0506 00:32:48.386261 16112 net.cpp:100] Creating Layer conv3
I0506 00:32:48.386265 16112 net.cpp:434] conv3 <- pool2
I0506 00:32:48.386271 16112 net.cpp:408] conv3 -> conv3
I0506 00:32:48.392233 16112 net.cpp:150] Setting up conv3
I0506 00:32:48.392251 16112 net.cpp:157] Top shape: 512 250 6 6 (4608000)
I0506 00:32:48.392256 16112 net.cpp:165] Memory required for data: 1990995968
I0506 00:32:48.392267 16112 layer_factory.hpp:77] Creating layer conv3_prescale
I0506 00:32:48.392277 16112 net.cpp:100] Creating Layer conv3_prescale
I0506 00:32:48.392300 16112 net.cpp:434] conv3_prescale <- conv3
I0506 00:32:48.392312 16112 net.cpp:395] conv3_prescale -> conv3 (in-place)
I0506 00:32:48.392422 16112 net.cpp:150] Setting up conv3_prescale
I0506 00:32:48.392434 16112 net.cpp:157] Top shape: 512 250 6 6 (4608000)
I0506 00:32:48.392441 16112 net.cpp:165] Memory required for data: 2009427968
I0506 00:32:48.392449 16112 layer_factory.hpp:77] Creating layer conv3_sTanH
I0506 00:32:48.392459 16112 net.cpp:100] Creating Layer conv3_sTanH
I0506 00:32:48.392463 16112 net.cpp:434] conv3_sTanH <- conv3
I0506 00:32:48.392468 16112 net.cpp:395] conv3_sTanH -> conv3 (in-place)
I0506 00:32:48.405205 16112 net.cpp:150] Setting up conv3_sTanH
I0506 00:32:48.405222 16112 net.cpp:157] Top shape: 512 250 6 6 (4608000)
I0506 00:32:48.405225 16112 net.cpp:165] Memory required for data: 2027859968
I0506 00:32:48.405230 16112 layer_factory.hpp:77] Creating layer conv3_postscale
I0506 00:32:48.405238 16112 net.cpp:100] Creating Layer conv3_postscale
I0506 00:32:48.405243 16112 net.cpp:434] conv3_postscale <- conv3
I0506 00:32:48.405251 16112 net.cpp:395] conv3_postscale -> conv3 (in-place)
I0506 00:32:48.405356 16112 net.cpp:150] Setting up conv3_postscale
I0506 00:32:48.405365 16112 net.cpp:157] Top shape: 512 250 6 6 (4608000)
I0506 00:32:48.405369 16112 net.cpp:165] Memory required for data: 2046291968
I0506 00:32:48.405375 16112 layer_factory.hpp:77] Creating layer pool3
I0506 00:32:48.405386 16112 net.cpp:100] Creating Layer pool3
I0506 00:32:48.405391 16112 net.cpp:434] pool3 <- conv3
I0506 00:32:48.405396 16112 net.cpp:408] pool3 -> pool3
I0506 00:32:48.405437 16112 net.cpp:150] Setting up pool3
I0506 00:32:48.405445 16112 net.cpp:157] Top shape: 512 250 3 3 (1152000)
I0506 00:32:48.405448 16112 net.cpp:165] Memory required for data: 2050899968
I0506 00:32:48.405452 16112 layer_factory.hpp:77] Creating layer fc4_300
I0506 00:32:48.405458 16112 net.cpp:100] Creating Layer fc4_300
I0506 00:32:48.405463 16112 net.cpp:434] fc4_300 <- pool3
I0506 00:32:48.405468 16112 net.cpp:408] fc4_300 -> fc4_300
I0506 00:32:48.411183 16112 net.cpp:150] Setting up fc4_300
I0506 00:32:48.411200 16112 net.cpp:157] Top shape: 512 300 (153600)
I0506 00:32:48.411204 16112 net.cpp:165] Memory required for data: 2051514368
I0506 00:32:48.411211 16112 layer_factory.hpp:77] Creating layer fc4_prescale
I0506 00:32:48.411222 16112 net.cpp:100] Creating Layer fc4_prescale
I0506 00:32:48.411227 16112 net.cpp:434] fc4_prescale <- fc4_300
I0506 00:32:48.411232 16112 net.cpp:395] fc4_prescale -> fc4_300 (in-place)
I0506 00:32:48.411326 16112 net.cpp:150] Setting up fc4_prescale
I0506 00:32:48.411334 16112 net.cpp:157] Top shape: 512 300 (153600)
I0506 00:32:48.411339 16112 net.cpp:165] Memory required for data: 2052128768
I0506 00:32:48.411345 16112 layer_factory.hpp:77] Creating layer fc4_sTanH
I0506 00:32:48.411350 16112 net.cpp:100] Creating Layer fc4_sTanH
I0506 00:32:48.411353 16112 net.cpp:434] fc4_sTanH <- fc4_300
I0506 00:32:48.411358 16112 net.cpp:395] fc4_sTanH -> fc4_300 (in-place)
I0506 00:32:48.411550 16112 net.cpp:150] Setting up fc4_sTanH
I0506 00:32:48.411562 16112 net.cpp:157] Top shape: 512 300 (153600)
I0506 00:32:48.411566 16112 net.cpp:165] Memory required for data: 2052743168
I0506 00:32:48.411571 16112 layer_factory.hpp:77] Creating layer fc4_postscale
I0506 00:32:48.411578 16112 net.cpp:100] Creating Layer fc4_postscale
I0506 00:32:48.411582 16112 net.cpp:434] fc4_postscale <- fc4_300
I0506 00:32:48.411587 16112 net.cpp:395] fc4_postscale -> fc4_300 (in-place)
I0506 00:32:48.411689 16112 net.cpp:150] Setting up fc4_postscale
I0506 00:32:48.411696 16112 net.cpp:157] Top shape: 512 300 (153600)
I0506 00:32:48.411700 16112 net.cpp:165] Memory required for data: 2053357568
I0506 00:32:48.411703 16112 layer_factory.hpp:77] Creating layer fc5_116
I0506 00:32:48.411710 16112 net.cpp:100] Creating Layer fc5_116
I0506 00:32:48.411715 16112 net.cpp:434] fc5_116 <- fc4_300
I0506 00:32:48.411720 16112 net.cpp:408] fc5_116 -> fc5_classes
I0506 00:32:48.413704 16112 net.cpp:150] Setting up fc5_116
I0506 00:32:48.413736 16112 net.cpp:157] Top shape: 512 116 (59392)
I0506 00:32:48.413743 16112 net.cpp:165] Memory required for data: 2053595136
I0506 00:32:48.413755 16112 layer_factory.hpp:77] Creating layer fc5_classes_fc5_116_0_split
I0506 00:32:48.413764 16112 net.cpp:100] Creating Layer fc5_classes_fc5_116_0_split
I0506 00:32:48.413769 16112 net.cpp:434] fc5_classes_fc5_116_0_split <- fc5_classes
I0506 00:32:48.413775 16112 net.cpp:408] fc5_classes_fc5_116_0_split -> fc5_classes_fc5_116_0_split_0
I0506 00:32:48.413789 16112 net.cpp:408] fc5_classes_fc5_116_0_split -> fc5_classes_fc5_116_0_split_1
I0506 00:32:48.413795 16112 net.cpp:408] fc5_classes_fc5_116_0_split -> fc5_classes_fc5_116_0_split_2
I0506 00:32:48.413854 16112 net.cpp:150] Setting up fc5_classes_fc5_116_0_split
I0506 00:32:48.413862 16112 net.cpp:157] Top shape: 512 116 (59392)
I0506 00:32:48.413866 16112 net.cpp:157] Top shape: 512 116 (59392)
I0506 00:32:48.413868 16112 net.cpp:157] Top shape: 512 116 (59392)
I0506 00:32:48.413871 16112 net.cpp:165] Memory required for data: 2054307840
I0506 00:32:48.413873 16112 layer_factory.hpp:77] Creating layer softmax
I0506 00:32:48.413880 16112 net.cpp:100] Creating Layer softmax
I0506 00:32:48.413883 16112 net.cpp:434] softmax <- fc5_classes_fc5_116_0_split_0
I0506 00:32:48.413888 16112 net.cpp:408] softmax -> softmax
I0506 00:32:48.414151 16112 net.cpp:150] Setting up softmax
I0506 00:32:48.414165 16112 net.cpp:157] Top shape: 512 116 (59392)
I0506 00:32:48.414170 16112 net.cpp:165] Memory required for data: 2054545408
I0506 00:32:48.414173 16112 layer_factory.hpp:77] Creating layer loss
I0506 00:32:48.414180 16112 net.cpp:100] Creating Layer loss
I0506 00:32:48.414185 16112 net.cpp:434] loss <- softmax
I0506 00:32:48.414189 16112 net.cpp:434] loss <- label_data_1_split_0
I0506 00:32:48.414193 16112 net.cpp:408] loss -> loss
…
