…
I0506 00:34:44.471814 25403 solver.cpp:93] Creating training net from train_net file: ./Prototxt/experiment_13/RTSD/orig/trial_1/train.prototxt
I0506 00:34:44.472299 25403 net.cpp:58] Initializing net from parameters: 
state {
  phase: TRAIN
  level: 0
  stage: ""
}
layer {
  name: "data"
  type: "Data"
  top: "data"
  top: "label"
  include {
    phase: TRAIN
  }
  transform_param {
    scale: 0.0039215689
    mirror: false
    crop_size: 48
    mean_value: 119
    mean_value: 113
    mean_value: 113
  }
  data_param {
    source: "../local_data/lmdb/RTSD/orig/train/lmdb"
    batch_size: 512
    backend: LMDB
  }
}
layer {
  name: "conv1"
  type: "Convolution"
  bottom: "data"
  top: "conv1"
  convolution_param {
    num_output: 100
    pad: 0
    kernel_size: 7
    group: 1
    stride: 1
    weight_filler {
      type: "xavier"
    }
  }
}
layer {
  name: "conv1_prescale"
  type: "Scale"
  bottom: "conv1"
  top: "conv1"
  param {
    lr_mult: 0
    decay_mult: 0
  }
  scale_param {
    filler {
      value: 0.6666
    }
    bias_term: false
  }
}
layer {
  name: "conv1_sTanH"
  type: "TanH"
  bottom: "conv1"
  top: "conv1"
}
layer {
  name: "conv1_postscale"
  type: "Scale"
  bottom: "conv1"
  top: "conv1"
  param {
    lr_mult: 0
    decay_mult: 0
  }
  scale_param {
    filler {
      value: 1.7159
    }
    bias_term: false
  }
}
layer {
  name: "pool1"
  type: "Pooling"
  bottom: "conv1"
  top: "pool1"
  pooling_param {
    pool: MAX
    kernel_size: 2
    stride: 2
  }
}
layer {
  name: "conv2"
  type: "Convolution"
  bottom: "pool1"
  top: "conv2"
  convolution_param {
    num_output: 150
    pad: 0
    kernel_size: 4
    group: 1
    stride: 1
    weight_filler {
      type: "xavier"
    }
  }
}
layer {
  name: "conv2_prescale"
  type: "Scale"
  bottom: "conv2"
  top: "conv2"
  param {
    lr_mult: 0
    decay_mult: 0
  }
  scale_param {
    filler {
      value: 0.6666
    }
    bias_term: false
  }
}
layer {
  name: "conv2_sTanH"
  type: "TanH"
  bottom: "conv2"
  top: "conv2"
}
layer {
  name: "conv2_postscale"
  type: "Scale"
  bottom: "conv2"
  top: "conv2"
  param {
    lr_mult: 0
    decay_mult: 0
  }
  scale_param {
    filler {
      value: 1.7159
    }
    bias_term: false
  }
}
layer {
  name: "pool2"
  type: "Pooling"
  bottom: "conv2"
  top: "pool2"
  pooling_param {
    pool: MAX
    kernel_size: 2
    stride: 2
  }
}
layer {
  name: "conv3"
  type: "Convolution"
  bottom: "pool2"
  top: "conv3"
  convolution_param {
    num_output: 250
    pad: 0
    kernel_size: 4
    group: 1
    stride: 1
    weight_filler {
      type: "xavier"
    }
  }
}
layer {
  name: "conv3_prescale"
  type: "Scale"
  bottom: "conv3"
  top: "conv3"
  param {
    lr_mult: 0
    decay_mult: 0
  }
  scale_param {
    filler {
      value: 0.6666
    }
    bias_term: false
  }
}
layer {
  name: "conv3_sTanH"
  type: "TanH"
  bottom: "conv3"
  top: "conv3"
}
layer {
  name: "conv3_postscale"
  type: "Scale"
  bottom: "conv3"
  top: "conv3"
  param {
    lr_mult: 0
    decay_mult: 0
  }
  scale_param {
    filler {
      value: 1.7159
    }
    bias_term: false
  }
}
layer {
  name: "pool3"
  type: "Pooling"
  bottom: "conv3"
  top: "pool3"
  pooling_param {
    pool: MAX
    kernel_size: 2
    stride: 2
  }
}
layer {
  name: "fc4_300"
  type: "InnerProduct"
  bottom: "pool3"
  top: "fc4_300"
  inner_product_param {
    num_output: 300
    weight_filler {
      type: "xavier"
    }
  }
}
layer {
  name: "fc4_prescale"
  type: "Scale"
  bottom: "fc4_300"
  top: "fc4_300"
  param {
    lr_mult: 0
    decay_mult: 0
  }
  scale_param {
    filler {
      value: 0.6666
    }
    bias_term: false
  }
}
layer {
  name: "fc4_sTanH"
  type: "TanH"
  bottom: "fc4_300"
  top: "fc4_300"
}
layer {
  name: "fc4_postscale"
  type: "Scale"
  bottom: "fc4_300"
  top: "fc4_300"
  param {
    lr_mult: 0
    decay_mult: 0
  }
  scale_param {
    filler {
      value: 1.7159
    }
    bias_term: false
  }
}
layer {
  name: "fc5_116"
  type: "InnerProduct"
  bottom: "fc4_300"
  top: "fc5_classes"
  inner_product_param {
    num_output: 116
    weight_filler {
      type: "xavier"
    }
  }
}
layer {
  name: "softmax"
  type: "Softmax"
  bottom: "fc5_classes"
  top: "softmax"
}
layer {
  name: "loss"
  type: "MultinomialLogisticLoss"
  bottom: "softmax"
  bottom: "label"
  top: "loss"
}
layer {
  name: "accuracy_1"
  type: "Accuracy"
  bottom: "fc5_classes"
  bottom: "label"
  top: "accuracy_1"
  accuracy_param {
    top_k: 1
  }
}
layer {
  name: "accuracy_5"
  type: "Accuracy"
  bottom: "fc5_classes"
  bottom: "label"
  top: "accuracy_5"
  accuracy_param {
    top_k: 5
  }
}
layer {
  name: "silence"
  type: "Silence"
  bottom: "accuracy_1"
  bottom: "accuracy_5"
}
I0506 00:34:44.472453 25403 layer_factory.hpp:77] Creating layer data
I0506 00:34:44.473474 25403 net.cpp:100] Creating Layer data
I0506 00:34:44.473500 25403 net.cpp:408] data -> data
I0506 00:34:44.473533 25403 net.cpp:408] data -> label
I0506 00:34:44.481463 25686 db_lmdb.cpp:35] Opened lmdb ../local_data/lmdb/RTSD/orig/train/lmdb
I0506 00:34:44.513420 25403 data_layer.cpp:41] output data size: 512,3,48,48
I0506 00:34:44.673264 25403 net.cpp:150] Setting up data
I0506 00:34:44.673295 25403 net.cpp:157] Top shape: 512 3 48 48 (3538944)
I0506 00:34:44.673300 25403 net.cpp:157] Top shape: 512 (512)
I0506 00:34:44.673303 25403 net.cpp:165] Memory required for data: 14157824
I0506 00:34:44.673316 25403 layer_factory.hpp:77] Creating layer label_data_1_split
I0506 00:34:44.673331 25403 net.cpp:100] Creating Layer label_data_1_split
I0506 00:34:44.673338 25403 net.cpp:434] label_data_1_split <- label
I0506 00:34:44.673352 25403 net.cpp:408] label_data_1_split -> label_data_1_split_0
I0506 00:34:44.673363 25403 net.cpp:408] label_data_1_split -> label_data_1_split_1
I0506 00:34:44.673372 25403 net.cpp:408] label_data_1_split -> label_data_1_split_2
I0506 00:34:44.673471 25403 net.cpp:150] Setting up label_data_1_split
I0506 00:34:44.673480 25403 net.cpp:157] Top shape: 512 (512)
I0506 00:34:44.673485 25403 net.cpp:157] Top shape: 512 (512)
I0506 00:34:44.673490 25403 net.cpp:157] Top shape: 512 (512)
I0506 00:34:44.673491 25403 net.cpp:165] Memory required for data: 14163968
I0506 00:34:44.673496 25403 layer_factory.hpp:77] Creating layer conv1
I0506 00:34:44.673512 25403 net.cpp:100] Creating Layer conv1
I0506 00:34:44.673517 25403 net.cpp:434] conv1 <- data
I0506 00:34:44.673523 25403 net.cpp:408] conv1 -> conv1
I0506 00:34:46.582938 25403 net.cpp:150] Setting up conv1
I0506 00:34:46.582967 25403 net.cpp:157] Top shape: 512 100 42 42 (90316800)
I0506 00:34:46.582972 25403 net.cpp:165] Memory required for data: 375431168
I0506 00:34:46.582994 25403 layer_factory.hpp:77] Creating layer conv1_prescale
I0506 00:34:46.583011 25403 net.cpp:100] Creating Layer conv1_prescale
I0506 00:34:46.583017 25403 net.cpp:434] conv1_prescale <- conv1
I0506 00:34:46.583029 25403 net.cpp:395] conv1_prescale -> conv1 (in-place)
I0506 00:34:46.583151 25403 net.cpp:150] Setting up conv1_prescale
I0506 00:34:46.583160 25403 net.cpp:157] Top shape: 512 100 42 42 (90316800)
I0506 00:34:46.583165 25403 net.cpp:165] Memory required for data: 736698368
I0506 00:34:46.583173 25403 layer_factory.hpp:77] Creating layer conv1_sTanH
I0506 00:34:46.583184 25403 net.cpp:100] Creating Layer conv1_sTanH
I0506 00:34:46.583189 25403 net.cpp:434] conv1_sTanH <- conv1
I0506 00:34:46.583194 25403 net.cpp:395] conv1_sTanH -> conv1 (in-place)
I0506 00:34:46.583405 25403 net.cpp:150] Setting up conv1_sTanH
I0506 00:34:46.583417 25403 net.cpp:157] Top shape: 512 100 42 42 (90316800)
I0506 00:34:46.583442 25403 net.cpp:165] Memory required for data: 1097965568
I0506 00:34:46.583447 25403 layer_factory.hpp:77] Creating layer conv1_postscale
I0506 00:34:46.583456 25403 net.cpp:100] Creating Layer conv1_postscale
I0506 00:34:46.583461 25403 net.cpp:434] conv1_postscale <- conv1
I0506 00:34:46.583467 25403 net.cpp:395] conv1_postscale -> conv1 (in-place)
I0506 00:34:46.583571 25403 net.cpp:150] Setting up conv1_postscale
I0506 00:34:46.583580 25403 net.cpp:157] Top shape: 512 100 42 42 (90316800)
I0506 00:34:46.583583 25403 net.cpp:165] Memory required for data: 1459232768
I0506 00:34:46.583588 25403 layer_factory.hpp:77] Creating layer pool1
I0506 00:34:46.583600 25403 net.cpp:100] Creating Layer pool1
I0506 00:34:46.583603 25403 net.cpp:434] pool1 <- conv1
I0506 00:34:46.583608 25403 net.cpp:408] pool1 -> pool1
I0506 00:34:46.583660 25403 net.cpp:150] Setting up pool1
I0506 00:34:46.583668 25403 net.cpp:157] Top shape: 512 100 21 21 (22579200)
I0506 00:34:46.583672 25403 net.cpp:165] Memory required for data: 1549549568
I0506 00:34:46.583674 25403 layer_factory.hpp:77] Creating layer conv2
I0506 00:34:46.583685 25403 net.cpp:100] Creating Layer conv2
I0506 00:34:46.583689 25403 net.cpp:434] conv2 <- pool1
I0506 00:34:46.583695 25403 net.cpp:408] conv2 -> conv2
I0506 00:34:46.608692 25403 net.cpp:150] Setting up conv2
I0506 00:34:46.608711 25403 net.cpp:157] Top shape: 512 150 18 18 (24883200)
I0506 00:34:46.608716 25403 net.cpp:165] Memory required for data: 1649082368
I0506 00:34:46.608728 25403 layer_factory.hpp:77] Creating layer conv2_prescale
I0506 00:34:46.608741 25403 net.cpp:100] Creating Layer conv2_prescale
I0506 00:34:46.608745 25403 net.cpp:434] conv2_prescale <- conv2
I0506 00:34:46.608752 25403 net.cpp:395] conv2_prescale -> conv2 (in-place)
I0506 00:34:46.608873 25403 net.cpp:150] Setting up conv2_prescale
I0506 00:34:46.608882 25403 net.cpp:157] Top shape: 512 150 18 18 (24883200)
I0506 00:34:46.608886 25403 net.cpp:165] Memory required for data: 1748615168
I0506 00:34:46.608891 25403 layer_factory.hpp:77] Creating layer conv2_sTanH
I0506 00:34:46.608898 25403 net.cpp:100] Creating Layer conv2_sTanH
I0506 00:34:46.608902 25403 net.cpp:434] conv2_sTanH <- conv2
I0506 00:34:46.608906 25403 net.cpp:395] conv2_sTanH -> conv2 (in-place)
I0506 00:34:46.611439 25403 net.cpp:150] Setting up conv2_sTanH
I0506 00:34:46.611456 25403 net.cpp:157] Top shape: 512 150 18 18 (24883200)
I0506 00:34:46.611459 25403 net.cpp:165] Memory required for data: 1848147968
I0506 00:34:46.611464 25403 layer_factory.hpp:77] Creating layer conv2_postscale
I0506 00:34:46.611470 25403 net.cpp:100] Creating Layer conv2_postscale
I0506 00:34:46.611477 25403 net.cpp:434] conv2_postscale <- conv2
I0506 00:34:46.611484 25403 net.cpp:395] conv2_postscale -> conv2 (in-place)
I0506 00:34:46.611590 25403 net.cpp:150] Setting up conv2_postscale
I0506 00:34:46.611599 25403 net.cpp:157] Top shape: 512 150 18 18 (24883200)
I0506 00:34:46.611603 25403 net.cpp:165] Memory required for data: 1947680768
I0506 00:34:46.611608 25403 layer_factory.hpp:77] Creating layer pool2
I0506 00:34:46.611616 25403 net.cpp:100] Creating Layer pool2
I0506 00:34:46.611620 25403 net.cpp:434] pool2 <- conv2
I0506 00:34:46.611627 25403 net.cpp:408] pool2 -> pool2
I0506 00:34:46.611672 25403 net.cpp:150] Setting up pool2
I0506 00:34:46.611681 25403 net.cpp:157] Top shape: 512 150 9 9 (6220800)
I0506 00:34:46.611685 25403 net.cpp:165] Memory required for data: 1972563968
I0506 00:34:46.611690 25403 layer_factory.hpp:77] Creating layer conv3
I0506 00:34:46.611698 25403 net.cpp:100] Creating Layer conv3
I0506 00:34:46.611703 25403 net.cpp:434] conv3 <- pool2
I0506 00:34:46.611708 25403 net.cpp:408] conv3 -> conv3
I0506 00:34:46.617722 25403 net.cpp:150] Setting up conv3
I0506 00:34:46.617739 25403 net.cpp:157] Top shape: 512 250 6 6 (4608000)
I0506 00:34:46.617743 25403 net.cpp:165] Memory required for data: 1990995968
I0506 00:34:46.617753 25403 layer_factory.hpp:77] Creating layer conv3_prescale
I0506 00:34:46.617764 25403 net.cpp:100] Creating Layer conv3_prescale
I0506 00:34:46.617789 25403 net.cpp:434] conv3_prescale <- conv3
I0506 00:34:46.617797 25403 net.cpp:395] conv3_prescale -> conv3 (in-place)
I0506 00:34:46.617900 25403 net.cpp:150] Setting up conv3_prescale
I0506 00:34:46.617910 25403 net.cpp:157] Top shape: 512 250 6 6 (4608000)
I0506 00:34:46.617914 25403 net.cpp:165] Memory required for data: 2009427968
I0506 00:34:46.617919 25403 layer_factory.hpp:77] Creating layer conv3_sTanH
I0506 00:34:46.617926 25403 net.cpp:100] Creating Layer conv3_sTanH
I0506 00:34:46.617931 25403 net.cpp:434] conv3_sTanH <- conv3
I0506 00:34:46.617935 25403 net.cpp:395] conv3_sTanH -> conv3 (in-place)
I0506 00:34:46.619443 25403 net.cpp:150] Setting up conv3_sTanH
I0506 00:34:46.619462 25403 net.cpp:157] Top shape: 512 250 6 6 (4608000)
I0506 00:34:46.619467 25403 net.cpp:165] Memory required for data: 2027859968
I0506 00:34:46.619469 25403 layer_factory.hpp:77] Creating layer conv3_postscale
I0506 00:34:46.619478 25403 net.cpp:100] Creating Layer conv3_postscale
I0506 00:34:46.619482 25403 net.cpp:434] conv3_postscale <- conv3
I0506 00:34:46.619491 25403 net.cpp:395] conv3_postscale -> conv3 (in-place)
I0506 00:34:46.619596 25403 net.cpp:150] Setting up conv3_postscale
I0506 00:34:46.619606 25403 net.cpp:157] Top shape: 512 250 6 6 (4608000)
I0506 00:34:46.619611 25403 net.cpp:165] Memory required for data: 2046291968
I0506 00:34:46.619616 25403 layer_factory.hpp:77] Creating layer pool3
I0506 00:34:46.619626 25403 net.cpp:100] Creating Layer pool3
I0506 00:34:46.619630 25403 net.cpp:434] pool3 <- conv3
I0506 00:34:46.619637 25403 net.cpp:408] pool3 -> pool3
I0506 00:34:46.619678 25403 net.cpp:150] Setting up pool3
I0506 00:34:46.619685 25403 net.cpp:157] Top shape: 512 250 3 3 (1152000)
I0506 00:34:46.619689 25403 net.cpp:165] Memory required for data: 2050899968
I0506 00:34:46.619693 25403 layer_factory.hpp:77] Creating layer fc4_300
I0506 00:34:46.619700 25403 net.cpp:100] Creating Layer fc4_300
I0506 00:34:46.619705 25403 net.cpp:434] fc4_300 <- pool3
I0506 00:34:46.619711 25403 net.cpp:408] fc4_300 -> fc4_300
I0506 00:34:46.626960 25403 net.cpp:150] Setting up fc4_300
I0506 00:34:46.626977 25403 net.cpp:157] Top shape: 512 300 (153600)
I0506 00:34:46.626983 25403 net.cpp:165] Memory required for data: 2051514368
I0506 00:34:46.626991 25403 layer_factory.hpp:77] Creating layer fc4_prescale
I0506 00:34:46.627003 25403 net.cpp:100] Creating Layer fc4_prescale
I0506 00:34:46.627008 25403 net.cpp:434] fc4_prescale <- fc4_300
I0506 00:34:46.627014 25403 net.cpp:395] fc4_prescale -> fc4_300 (in-place)
I0506 00:34:46.627110 25403 net.cpp:150] Setting up fc4_prescale
I0506 00:34:46.627120 25403 net.cpp:157] Top shape: 512 300 (153600)
I0506 00:34:46.627125 25403 net.cpp:165] Memory required for data: 2052128768
I0506 00:34:46.627130 25403 layer_factory.hpp:77] Creating layer fc4_sTanH
I0506 00:34:46.627135 25403 net.cpp:100] Creating Layer fc4_sTanH
I0506 00:34:46.627140 25403 net.cpp:434] fc4_sTanH <- fc4_300
I0506 00:34:46.627148 25403 net.cpp:395] fc4_sTanH -> fc4_300 (in-place)
I0506 00:34:46.627349 25403 net.cpp:150] Setting up fc4_sTanH
I0506 00:34:46.627362 25403 net.cpp:157] Top shape: 512 300 (153600)
I0506 00:34:46.627367 25403 net.cpp:165] Memory required for data: 2052743168
I0506 00:34:46.627370 25403 layer_factory.hpp:77] Creating layer fc4_postscale
I0506 00:34:46.627377 25403 net.cpp:100] Creating Layer fc4_postscale
I0506 00:34:46.627382 25403 net.cpp:434] fc4_postscale <- fc4_300
I0506 00:34:46.627388 25403 net.cpp:395] fc4_postscale -> fc4_300 (in-place)
I0506 00:34:46.627492 25403 net.cpp:150] Setting up fc4_postscale
I0506 00:34:46.627501 25403 net.cpp:157] Top shape: 512 300 (153600)
I0506 00:34:46.627503 25403 net.cpp:165] Memory required for data: 2053357568
I0506 00:34:46.627508 25403 layer_factory.hpp:77] Creating layer fc5_116
I0506 00:34:46.627516 25403 net.cpp:100] Creating Layer fc5_116
I0506 00:34:46.627521 25403 net.cpp:434] fc5_116 <- fc4_300
I0506 00:34:46.627526 25403 net.cpp:408] fc5_116 -> fc5_classes
I0506 00:34:46.629220 25403 net.cpp:150] Setting up fc5_116
I0506 00:34:46.629251 25403 net.cpp:157] Top shape: 512 116 (59392)
I0506 00:34:46.629254 25403 net.cpp:165] Memory required for data: 2053595136
I0506 00:34:46.629266 25403 layer_factory.hpp:77] Creating layer fc5_classes_fc5_116_0_split
I0506 00:34:46.629277 25403 net.cpp:100] Creating Layer fc5_classes_fc5_116_0_split
I0506 00:34:46.629283 25403 net.cpp:434] fc5_classes_fc5_116_0_split <- fc5_classes
I0506 00:34:46.629289 25403 net.cpp:408] fc5_classes_fc5_116_0_split -> fc5_classes_fc5_116_0_split_0
I0506 00:34:46.629298 25403 net.cpp:408] fc5_classes_fc5_116_0_split -> fc5_classes_fc5_116_0_split_1
I0506 00:34:46.629305 25403 net.cpp:408] fc5_classes_fc5_116_0_split -> fc5_classes_fc5_116_0_split_2
I0506 00:34:46.629364 25403 net.cpp:150] Setting up fc5_classes_fc5_116_0_split
I0506 00:34:46.629371 25403 net.cpp:157] Top shape: 512 116 (59392)
I0506 00:34:46.629374 25403 net.cpp:157] Top shape: 512 116 (59392)
I0506 00:34:46.629377 25403 net.cpp:157] Top shape: 512 116 (59392)
I0506 00:34:46.629380 25403 net.cpp:165] Memory required for data: 2054307840
I0506 00:34:46.629384 25403 layer_factory.hpp:77] Creating layer softmax
I0506 00:34:46.629390 25403 net.cpp:100] Creating Layer softmax
I0506 00:34:46.629395 25403 net.cpp:434] softmax <- fc5_classes_fc5_116_0_split_0
I0506 00:34:46.629400 25403 net.cpp:408] softmax -> softmax
I0506 00:34:46.629665 25403 net.cpp:150] Setting up softmax
I0506 00:34:46.629680 25403 net.cpp:157] Top shape: 512 116 (59392)
I0506 00:34:46.629683 25403 net.cpp:165] Memory required for data: 2054545408
I0506 00:34:46.629686 25403 layer_factory.hpp:77] Creating layer loss
I0506 00:34:46.629693 25403 net.cpp:100] Creating Layer loss
I0506 00:34:46.629696 25403 net.cpp:434] loss <- softmax
I0506 00:34:46.629700 25403 net.cpp:434] loss <- label_data_1_split_0
I0506 00:34:46.629707 25403 net.cpp:408] loss -> loss
…
