…
I0506 00:51:28.746033 10080 solver.cpp:93] Creating training net from train_net file: ./Prototxt/experiment_13/RTSD/orig/trial_1/train.prototxt
I0506 00:51:28.746507 10080 net.cpp:58] Initializing net from parameters: 
state {
  phase: TRAIN
  level: 0
  stage: ""
}
layer {
  name: "data"
  type: "Data"
  top: "data"
  top: "label"
  include {
    phase: TRAIN
  }
  transform_param {
    scale: 0.0039215689
    mirror: false
    crop_size: 48
    mean_value: 119
    mean_value: 113
    mean_value: 113
  }
  data_param {
    source: "../local_data/lmdb/RTSD/orig/train/lmdb"
    batch_size: 512
    backend: LMDB
  }
}
layer {
  name: "conv1"
  type: "Convolution"
  bottom: "data"
  top: "conv1"
  convolution_param {
    num_output: 100
    pad: 0
    kernel_size: 7
    group: 1
    stride: 1
    weight_filler {
      type: "xavier"
    }
  }
}
layer {
  name: "conv1_prescale"
  type: "Scale"
  bottom: "conv1"
  top: "conv1"
  param {
    lr_mult: 0
    decay_mult: 0
  }
  scale_param {
    filler {
      value: 0.6666
    }
    bias_term: false
  }
}
layer {
  name: "conv1_sTanH"
  type: "TanH"
  bottom: "conv1"
  top: "conv1"
}
layer {
  name: "conv1_postscale"
  type: "Scale"
  bottom: "conv1"
  top: "conv1"
  param {
    lr_mult: 0
    decay_mult: 0
  }
  scale_param {
    filler {
      value: 1.7159
    }
    bias_term: false
  }
}
layer {
  name: "pool1"
  type: "Pooling"
  bottom: "conv1"
  top: "pool1"
  pooling_param {
    pool: MAX
    kernel_size: 2
    stride: 2
  }
}
layer {
  name: "conv2"
  type: "Convolution"
  bottom: "pool1"
  top: "conv2"
  convolution_param {
    num_output: 150
    pad: 0
    kernel_size: 4
    group: 1
    stride: 1
    weight_filler {
      type: "xavier"
    }
  }
}
layer {
  name: "conv2_prescale"
  type: "Scale"
  bottom: "conv2"
  top: "conv2"
  param {
    lr_mult: 0
    decay_mult: 0
  }
  scale_param {
    filler {
      value: 0.6666
    }
    bias_term: false
  }
}
layer {
  name: "conv2_sTanH"
  type: "TanH"
  bottom: "conv2"
  top: "conv2"
}
layer {
  name: "conv2_postscale"
  type: "Scale"
  bottom: "conv2"
  top: "conv2"
  param {
    lr_mult: 0
    decay_mult: 0
  }
  scale_param {
    filler {
      value: 1.7159
    }
    bias_term: false
  }
}
layer {
  name: "pool2"
  type: "Pooling"
  bottom: "conv2"
  top: "pool2"
  pooling_param {
    pool: MAX
    kernel_size: 2
    stride: 2
  }
}
layer {
  name: "conv3"
  type: "Convolution"
  bottom: "pool2"
  top: "conv3"
  convolution_param {
    num_output: 250
    pad: 0
    kernel_size: 4
    group: 1
    stride: 1
    weight_filler {
      type: "xavier"
    }
  }
}
layer {
  name: "conv3_prescale"
  type: "Scale"
  bottom: "conv3"
  top: "conv3"
  param {
    lr_mult: 0
    decay_mult: 0
  }
  scale_param {
    filler {
      value: 0.6666
    }
    bias_term: false
  }
}
layer {
  name: "conv3_sTanH"
  type: "TanH"
  bottom: "conv3"
  top: "conv3"
}
layer {
  name: "conv3_postscale"
  type: "Scale"
  bottom: "conv3"
  top: "conv3"
  param {
    lr_mult: 0
    decay_mult: 0
  }
  scale_param {
    filler {
      value: 1.7159
    }
    bias_term: false
  }
}
layer {
  name: "pool3"
  type: "Pooling"
  bottom: "conv3"
  top: "pool3"
  pooling_param {
    pool: MAX
    kernel_size: 2
    stride: 2
  }
}
layer {
  name: "fc4_300"
  type: "InnerProduct"
  bottom: "pool3"
  top: "fc4_300"
  inner_product_param {
    num_output: 300
    weight_filler {
      type: "xavier"
    }
  }
}
layer {
  name: "fc4_prescale"
  type: "Scale"
  bottom: "fc4_300"
  top: "fc4_300"
  param {
    lr_mult: 0
    decay_mult: 0
  }
  scale_param {
    filler {
      value: 0.6666
    }
    bias_term: false
  }
}
layer {
  name: "fc4_sTanH"
  type: "TanH"
  bottom: "fc4_300"
  top: "fc4_300"
}
layer {
  name: "fc4_postscale"
  type: "Scale"
  bottom: "fc4_300"
  top: "fc4_300"
  param {
    lr_mult: 0
    decay_mult: 0
  }
  scale_param {
    filler {
      value: 1.7159
    }
    bias_term: false
  }
}
layer {
  name: "fc5_116"
  type: "InnerProduct"
  bottom: "fc4_300"
  top: "fc5_classes"
  inner_product_param {
    num_output: 116
    weight_filler {
      type: "xavier"
    }
  }
}
layer {
  name: "softmax"
  type: "Softmax"
  bottom: "fc5_classes"
  top: "softmax"
}
layer {
  name: "loss"
  type: "MultinomialLogisticLoss"
  bottom: "softmax"
  bottom: "label"
  top: "loss"
}
layer {
  name: "accuracy_1"
  type: "Accuracy"
  bottom: "fc5_classes"
  bottom: "label"
  top: "accuracy_1"
  accuracy_param {
    top_k: 1
  }
}
layer {
  name: "accuracy_5"
  type: "Accuracy"
  bottom: "fc5_classes"
  bottom: "label"
  top: "accuracy_5"
  accuracy_param {
    top_k: 5
  }
}
layer {
  name: "silence"
  type: "Silence"
  bottom: "accuracy_1"
  bottom: "accuracy_5"
}
I0506 00:51:28.746668 10080 layer_factory.hpp:77] Creating layer data
I0506 00:51:28.747444 10080 net.cpp:100] Creating Layer data
I0506 00:51:28.747460 10080 net.cpp:408] data -> data
I0506 00:51:28.747484 10080 net.cpp:408] data -> label
I0506 00:51:28.771178 10344 db_lmdb.cpp:35] Opened lmdb ../local_data/lmdb/RTSD/orig/train/lmdb
I0506 00:51:28.794962 10080 data_layer.cpp:41] output data size: 512,3,48,48
I0506 00:51:28.872763 10080 net.cpp:150] Setting up data
I0506 00:51:28.872797 10080 net.cpp:157] Top shape: 512 3 48 48 (3538944)
I0506 00:51:28.872803 10080 net.cpp:157] Top shape: 512 (512)
I0506 00:51:28.872807 10080 net.cpp:165] Memory required for data: 14157824
I0506 00:51:28.872818 10080 layer_factory.hpp:77] Creating layer label_data_1_split
I0506 00:51:28.872833 10080 net.cpp:100] Creating Layer label_data_1_split
I0506 00:51:28.872840 10080 net.cpp:434] label_data_1_split <- label
I0506 00:51:28.872854 10080 net.cpp:408] label_data_1_split -> label_data_1_split_0
I0506 00:51:28.872866 10080 net.cpp:408] label_data_1_split -> label_data_1_split_1
I0506 00:51:28.872877 10080 net.cpp:408] label_data_1_split -> label_data_1_split_2
I0506 00:51:28.872967 10080 net.cpp:150] Setting up label_data_1_split
I0506 00:51:28.872977 10080 net.cpp:157] Top shape: 512 (512)
I0506 00:51:28.872980 10080 net.cpp:157] Top shape: 512 (512)
I0506 00:51:28.872984 10080 net.cpp:157] Top shape: 512 (512)
I0506 00:51:28.872987 10080 net.cpp:165] Memory required for data: 14163968
I0506 00:51:28.872992 10080 layer_factory.hpp:77] Creating layer conv1
I0506 00:51:28.873011 10080 net.cpp:100] Creating Layer conv1
I0506 00:51:28.873018 10080 net.cpp:434] conv1 <- data
I0506 00:51:28.873025 10080 net.cpp:408] conv1 -> conv1
I0506 00:51:29.973716 10080 net.cpp:150] Setting up conv1
I0506 00:51:29.973747 10080 net.cpp:157] Top shape: 512 100 42 42 (90316800)
I0506 00:51:29.973752 10080 net.cpp:165] Memory required for data: 375431168
I0506 00:51:29.973776 10080 layer_factory.hpp:77] Creating layer conv1_prescale
I0506 00:51:29.973791 10080 net.cpp:100] Creating Layer conv1_prescale
I0506 00:51:29.973798 10080 net.cpp:434] conv1_prescale <- conv1
I0506 00:51:29.973805 10080 net.cpp:395] conv1_prescale -> conv1 (in-place)
I0506 00:51:29.973927 10080 net.cpp:150] Setting up conv1_prescale
I0506 00:51:29.973937 10080 net.cpp:157] Top shape: 512 100 42 42 (90316800)
I0506 00:51:29.973939 10080 net.cpp:165] Memory required for data: 736698368
I0506 00:51:29.973947 10080 layer_factory.hpp:77] Creating layer conv1_sTanH
I0506 00:51:29.973958 10080 net.cpp:100] Creating Layer conv1_sTanH
I0506 00:51:29.973963 10080 net.cpp:434] conv1_sTanH <- conv1
I0506 00:51:29.973968 10080 net.cpp:395] conv1_sTanH -> conv1 (in-place)
I0506 00:51:29.974174 10080 net.cpp:150] Setting up conv1_sTanH
I0506 00:51:29.974185 10080 net.cpp:157] Top shape: 512 100 42 42 (90316800)
I0506 00:51:29.974210 10080 net.cpp:165] Memory required for data: 1097965568
I0506 00:51:29.974215 10080 layer_factory.hpp:77] Creating layer conv1_postscale
I0506 00:51:29.974225 10080 net.cpp:100] Creating Layer conv1_postscale
I0506 00:51:29.974230 10080 net.cpp:434] conv1_postscale <- conv1
I0506 00:51:29.974236 10080 net.cpp:395] conv1_postscale -> conv1 (in-place)
I0506 00:51:29.974334 10080 net.cpp:150] Setting up conv1_postscale
I0506 00:51:29.974344 10080 net.cpp:157] Top shape: 512 100 42 42 (90316800)
I0506 00:51:29.974347 10080 net.cpp:165] Memory required for data: 1459232768
I0506 00:51:29.974354 10080 layer_factory.hpp:77] Creating layer pool1
I0506 00:51:29.974361 10080 net.cpp:100] Creating Layer pool1
I0506 00:51:29.974366 10080 net.cpp:434] pool1 <- conv1
I0506 00:51:29.974371 10080 net.cpp:408] pool1 -> pool1
I0506 00:51:29.974421 10080 net.cpp:150] Setting up pool1
I0506 00:51:29.974428 10080 net.cpp:157] Top shape: 512 100 21 21 (22579200)
I0506 00:51:29.974433 10080 net.cpp:165] Memory required for data: 1549549568
I0506 00:51:29.974436 10080 layer_factory.hpp:77] Creating layer conv2
I0506 00:51:29.974447 10080 net.cpp:100] Creating Layer conv2
I0506 00:51:29.974452 10080 net.cpp:434] conv2 <- pool1
I0506 00:51:29.974457 10080 net.cpp:408] conv2 -> conv2
I0506 00:51:29.980705 10080 net.cpp:150] Setting up conv2
I0506 00:51:29.980729 10080 net.cpp:157] Top shape: 512 150 18 18 (24883200)
I0506 00:51:29.980733 10080 net.cpp:165] Memory required for data: 1649082368
I0506 00:51:29.980747 10080 layer_factory.hpp:77] Creating layer conv2_prescale
I0506 00:51:29.980762 10080 net.cpp:100] Creating Layer conv2_prescale
I0506 00:51:29.980768 10080 net.cpp:434] conv2_prescale <- conv2
I0506 00:51:29.980775 10080 net.cpp:395] conv2_prescale -> conv2 (in-place)
I0506 00:51:29.980888 10080 net.cpp:150] Setting up conv2_prescale
I0506 00:51:29.980897 10080 net.cpp:157] Top shape: 512 150 18 18 (24883200)
I0506 00:51:29.980902 10080 net.cpp:165] Memory required for data: 1748615168
I0506 00:51:29.980907 10080 layer_factory.hpp:77] Creating layer conv2_sTanH
I0506 00:51:29.980916 10080 net.cpp:100] Creating Layer conv2_sTanH
I0506 00:51:29.980921 10080 net.cpp:434] conv2_sTanH <- conv2
I0506 00:51:29.980926 10080 net.cpp:395] conv2_sTanH -> conv2 (in-place)
I0506 00:51:29.992405 10080 net.cpp:150] Setting up conv2_sTanH
I0506 00:51:29.992439 10080 net.cpp:157] Top shape: 512 150 18 18 (24883200)
I0506 00:51:29.992444 10080 net.cpp:165] Memory required for data: 1848147968
I0506 00:51:29.992450 10080 layer_factory.hpp:77] Creating layer conv2_postscale
I0506 00:51:29.992465 10080 net.cpp:100] Creating Layer conv2_postscale
I0506 00:51:29.992470 10080 net.cpp:434] conv2_postscale <- conv2
I0506 00:51:29.992477 10080 net.cpp:395] conv2_postscale -> conv2 (in-place)
I0506 00:51:29.992599 10080 net.cpp:150] Setting up conv2_postscale
I0506 00:51:29.992609 10080 net.cpp:157] Top shape: 512 150 18 18 (24883200)
I0506 00:51:29.992614 10080 net.cpp:165] Memory required for data: 1947680768
I0506 00:51:29.992620 10080 layer_factory.hpp:77] Creating layer pool2
I0506 00:51:29.992630 10080 net.cpp:100] Creating Layer pool2
I0506 00:51:29.992635 10080 net.cpp:434] pool2 <- conv2
I0506 00:51:29.992640 10080 net.cpp:408] pool2 -> pool2
I0506 00:51:29.992684 10080 net.cpp:150] Setting up pool2
I0506 00:51:29.992693 10080 net.cpp:157] Top shape: 512 150 9 9 (6220800)
I0506 00:51:29.992697 10080 net.cpp:165] Memory required for data: 1972563968
I0506 00:51:29.992702 10080 layer_factory.hpp:77] Creating layer conv3
I0506 00:51:29.992712 10080 net.cpp:100] Creating Layer conv3
I0506 00:51:29.992717 10080 net.cpp:434] conv3 <- pool2
I0506 00:51:29.992723 10080 net.cpp:408] conv3 -> conv3
I0506 00:51:29.999254 10080 net.cpp:150] Setting up conv3
I0506 00:51:29.999284 10080 net.cpp:157] Top shape: 512 250 6 6 (4608000)
I0506 00:51:29.999289 10080 net.cpp:165] Memory required for data: 1990995968
I0506 00:51:29.999305 10080 layer_factory.hpp:77] Creating layer conv3_prescale
I0506 00:51:29.999317 10080 net.cpp:100] Creating Layer conv3_prescale
I0506 00:51:29.999343 10080 net.cpp:434] conv3_prescale <- conv3
I0506 00:51:29.999353 10080 net.cpp:395] conv3_prescale -> conv3 (in-place)
I0506 00:51:29.999452 10080 net.cpp:150] Setting up conv3_prescale
I0506 00:51:29.999461 10080 net.cpp:157] Top shape: 512 250 6 6 (4608000)
I0506 00:51:29.999466 10080 net.cpp:165] Memory required for data: 2009427968
I0506 00:51:29.999471 10080 layer_factory.hpp:77] Creating layer conv3_sTanH
I0506 00:51:29.999480 10080 net.cpp:100] Creating Layer conv3_sTanH
I0506 00:51:29.999485 10080 net.cpp:434] conv3_sTanH <- conv3
I0506 00:51:29.999490 10080 net.cpp:395] conv3_sTanH -> conv3 (in-place)
I0506 00:51:30.029152 10080 net.cpp:150] Setting up conv3_sTanH
I0506 00:51:30.029183 10080 net.cpp:157] Top shape: 512 250 6 6 (4608000)
I0506 00:51:30.029187 10080 net.cpp:165] Memory required for data: 2027859968
I0506 00:51:30.029193 10080 layer_factory.hpp:77] Creating layer conv3_postscale
I0506 00:51:30.029208 10080 net.cpp:100] Creating Layer conv3_postscale
I0506 00:51:30.029213 10080 net.cpp:434] conv3_postscale <- conv3
I0506 00:51:30.029222 10080 net.cpp:395] conv3_postscale -> conv3 (in-place)
I0506 00:51:30.029373 10080 net.cpp:150] Setting up conv3_postscale
I0506 00:51:30.029386 10080 net.cpp:157] Top shape: 512 250 6 6 (4608000)
I0506 00:51:30.029391 10080 net.cpp:165] Memory required for data: 2046291968
I0506 00:51:30.029398 10080 layer_factory.hpp:77] Creating layer pool3
I0506 00:51:30.029412 10080 net.cpp:100] Creating Layer pool3
I0506 00:51:30.029417 10080 net.cpp:434] pool3 <- conv3
I0506 00:51:30.029423 10080 net.cpp:408] pool3 -> pool3
I0506 00:51:30.029467 10080 net.cpp:150] Setting up pool3
I0506 00:51:30.029475 10080 net.cpp:157] Top shape: 512 250 3 3 (1152000)
I0506 00:51:30.029479 10080 net.cpp:165] Memory required for data: 2050899968
I0506 00:51:30.029484 10080 layer_factory.hpp:77] Creating layer fc4_300
I0506 00:51:30.029491 10080 net.cpp:100] Creating Layer fc4_300
I0506 00:51:30.029496 10080 net.cpp:434] fc4_300 <- pool3
I0506 00:51:30.029501 10080 net.cpp:408] fc4_300 -> fc4_300
I0506 00:51:30.066308 10080 net.cpp:150] Setting up fc4_300
I0506 00:51:30.066339 10080 net.cpp:157] Top shape: 512 300 (153600)
I0506 00:51:30.066344 10080 net.cpp:165] Memory required for data: 2051514368
I0506 00:51:30.066356 10080 layer_factory.hpp:77] Creating layer fc4_prescale
I0506 00:51:30.066368 10080 net.cpp:100] Creating Layer fc4_prescale
I0506 00:51:30.066376 10080 net.cpp:434] fc4_prescale <- fc4_300
I0506 00:51:30.066383 10080 net.cpp:395] fc4_prescale -> fc4_300 (in-place)
I0506 00:51:30.066488 10080 net.cpp:150] Setting up fc4_prescale
I0506 00:51:30.066498 10080 net.cpp:157] Top shape: 512 300 (153600)
I0506 00:51:30.066501 10080 net.cpp:165] Memory required for data: 2052128768
I0506 00:51:30.066506 10080 layer_factory.hpp:77] Creating layer fc4_sTanH
I0506 00:51:30.066514 10080 net.cpp:100] Creating Layer fc4_sTanH
I0506 00:51:30.066520 10080 net.cpp:434] fc4_sTanH <- fc4_300
I0506 00:51:30.066525 10080 net.cpp:395] fc4_sTanH -> fc4_300 (in-place)
I0506 00:51:30.066761 10080 net.cpp:150] Setting up fc4_sTanH
I0506 00:51:30.066773 10080 net.cpp:157] Top shape: 512 300 (153600)
I0506 00:51:30.066776 10080 net.cpp:165] Memory required for data: 2052743168
I0506 00:51:30.066781 10080 layer_factory.hpp:77] Creating layer fc4_postscale
I0506 00:51:30.066787 10080 net.cpp:100] Creating Layer fc4_postscale
I0506 00:51:30.066792 10080 net.cpp:434] fc4_postscale <- fc4_300
I0506 00:51:30.066799 10080 net.cpp:395] fc4_postscale -> fc4_300 (in-place)
I0506 00:51:30.066902 10080 net.cpp:150] Setting up fc4_postscale
I0506 00:51:30.066911 10080 net.cpp:157] Top shape: 512 300 (153600)
I0506 00:51:30.066915 10080 net.cpp:165] Memory required for data: 2053357568
I0506 00:51:30.066920 10080 layer_factory.hpp:77] Creating layer fc5_116
I0506 00:51:30.066931 10080 net.cpp:100] Creating Layer fc5_116
I0506 00:51:30.066936 10080 net.cpp:434] fc5_116 <- fc4_300
I0506 00:51:30.066943 10080 net.cpp:408] fc5_116 -> fc5_classes
I0506 00:51:30.074496 10080 net.cpp:150] Setting up fc5_116
I0506 00:51:30.074545 10080 net.cpp:157] Top shape: 512 116 (59392)
I0506 00:51:30.074550 10080 net.cpp:165] Memory required for data: 2053595136
I0506 00:51:30.074570 10080 layer_factory.hpp:77] Creating layer fc5_classes_fc5_116_0_split
I0506 00:51:30.074584 10080 net.cpp:100] Creating Layer fc5_classes_fc5_116_0_split
I0506 00:51:30.074589 10080 net.cpp:434] fc5_classes_fc5_116_0_split <- fc5_classes
I0506 00:51:30.074599 10080 net.cpp:408] fc5_classes_fc5_116_0_split -> fc5_classes_fc5_116_0_split_0
I0506 00:51:30.074609 10080 net.cpp:408] fc5_classes_fc5_116_0_split -> fc5_classes_fc5_116_0_split_1
I0506 00:51:30.074616 10080 net.cpp:408] fc5_classes_fc5_116_0_split -> fc5_classes_fc5_116_0_split_2
I0506 00:51:30.074674 10080 net.cpp:150] Setting up fc5_classes_fc5_116_0_split
I0506 00:51:30.074682 10080 net.cpp:157] Top shape: 512 116 (59392)
I0506 00:51:30.074687 10080 net.cpp:157] Top shape: 512 116 (59392)
I0506 00:51:30.074690 10080 net.cpp:157] Top shape: 512 116 (59392)
I0506 00:51:30.074693 10080 net.cpp:165] Memory required for data: 2054307840
I0506 00:51:30.074697 10080 layer_factory.hpp:77] Creating layer softmax
I0506 00:51:30.074703 10080 net.cpp:100] Creating Layer softmax
I0506 00:51:30.074708 10080 net.cpp:434] softmax <- fc5_classes_fc5_116_0_split_0
I0506 00:51:30.074714 10080 net.cpp:408] softmax -> softmax
I0506 00:51:30.075026 10080 net.cpp:150] Setting up softmax
I0506 00:51:30.075040 10080 net.cpp:157] Top shape: 512 116 (59392)
I0506 00:51:30.075044 10080 net.cpp:165] Memory required for data: 2054545408
I0506 00:51:30.075047 10080 layer_factory.hpp:77] Creating layer loss
I0506 00:51:30.075057 10080 net.cpp:100] Creating Layer loss
I0506 00:51:30.075060 10080 net.cpp:434] loss <- softmax
I0506 00:51:30.075065 10080 net.cpp:434] loss <- label_data_1_split_0
I0506 00:51:30.075070 10080 net.cpp:408] loss -> loss
…
