…
I0506 00:16:39.588651  4532 solver.cpp:93] Creating training net from train_net file: ./Prototxt/experiment_13/RTSD/orig/trial_1/train.prototxt
I0506 00:16:39.589112  4532 net.cpp:58] Initializing net from parameters: 
state {
  phase: TRAIN
  level: 0
  stage: ""
}
layer {
  name: "data"
  type: "Data"
  top: "data"
  top: "label"
  include {
    phase: TRAIN
  }
  transform_param {
    scale: 0.0039215689
    mirror: false
    crop_size: 48
    mean_value: 119
    mean_value: 113
    mean_value: 113
  }
  data_param {
    source: "../local_data/lmdb/RTSD/orig/train/lmdb"
    batch_size: 512
    backend: LMDB
  }
}
layer {
  name: "conv1"
  type: "Convolution"
  bottom: "data"
  top: "conv1"
  convolution_param {
    num_output: 100
    pad: 0
    kernel_size: 7
    group: 1
    stride: 1
    weight_filler {
      type: "xavier"
    }
  }
}
layer {
  name: "conv1_prescale"
  type: "Scale"
  bottom: "conv1"
  top: "conv1"
  param {
    lr_mult: 0
    decay_mult: 0
  }
  scale_param {
    filler {
      value: 0.6666
    }
    bias_term: false
  }
}
layer {
  name: "conv1_sTanH"
  type: "TanH"
  bottom: "conv1"
  top: "conv1"
}
layer {
  name: "conv1_postscale"
  type: "Scale"
  bottom: "conv1"
  top: "conv1"
  param {
    lr_mult: 0
    decay_mult: 0
  }
  scale_param {
    filler {
      value: 1.7159
    }
    bias_term: false
  }
}
layer {
  name: "pool1"
  type: "Pooling"
  bottom: "conv1"
  top: "pool1"
  pooling_param {
    pool: MAX
    kernel_size: 2
    stride: 2
  }
}
layer {
  name: "conv2"
  type: "Convolution"
  bottom: "pool1"
  top: "conv2"
  convolution_param {
    num_output: 150
    pad: 0
    kernel_size: 4
    group: 1
    stride: 1
    weight_filler {
      type: "xavier"
    }
  }
}
layer {
  name: "conv2_prescale"
  type: "Scale"
  bottom: "conv2"
  top: "conv2"
  param {
    lr_mult: 0
    decay_mult: 0
  }
  scale_param {
    filler {
      value: 0.6666
    }
    bias_term: false
  }
}
layer {
  name: "conv2_sTanH"
  type: "TanH"
  bottom: "conv2"
  top: "conv2"
}
layer {
  name: "conv2_postscale"
  type: "Scale"
  bottom: "conv2"
  top: "conv2"
  param {
    lr_mult: 0
    decay_mult: 0
  }
  scale_param {
    filler {
      value: 1.7159
    }
    bias_term: false
  }
}
layer {
  name: "pool2"
  type: "Pooling"
  bottom: "conv2"
  top: "pool2"
  pooling_param {
    pool: MAX
    kernel_size: 2
    stride: 2
  }
}
layer {
  name: "conv3"
  type: "Convolution"
  bottom: "pool2"
  top: "conv3"
  convolution_param {
    num_output: 250
    pad: 0
    kernel_size: 4
    group: 1
    stride: 1
    weight_filler {
      type: "xavier"
    }
  }
}
layer {
  name: "conv3_prescale"
  type: "Scale"
  bottom: "conv3"
  top: "conv3"
  param {
    lr_mult: 0
    decay_mult: 0
  }
  scale_param {
    filler {
      value: 0.6666
    }
    bias_term: false
  }
}
layer {
  name: "conv3_sTanH"
  type: "TanH"
  bottom: "conv3"
  top: "conv3"
}
layer {
  name: "conv3_postscale"
  type: "Scale"
  bottom: "conv3"
  top: "conv3"
  param {
    lr_mult: 0
    decay_mult: 0
  }
  scale_param {
    filler {
      value: 1.7159
    }
    bias_term: false
  }
}
layer {
  name: "pool3"
  type: "Pooling"
  bottom: "conv3"
  top: "pool3"
  pooling_param {
    pool: MAX
    kernel_size: 2
    stride: 2
  }
}
layer {
  name: "fc4_300"
  type: "InnerProduct"
  bottom: "pool3"
  top: "fc4_300"
  inner_product_param {
    num_output: 300
    weight_filler {
      type: "xavier"
    }
  }
}
layer {
  name: "fc4_prescale"
  type: "Scale"
  bottom: "fc4_300"
  top: "fc4_300"
  param {
    lr_mult: 0
    decay_mult: 0
  }
  scale_param {
    filler {
      value: 0.6666
    }
    bias_term: false
  }
}
layer {
  name: "fc4_sTanH"
  type: "TanH"
  bottom: "fc4_300"
  top: "fc4_300"
}
layer {
  name: "fc4_postscale"
  type: "Scale"
  bottom: "fc4_300"
  top: "fc4_300"
  param {
    lr_mult: 0
    decay_mult: 0
  }
  scale_param {
    filler {
      value: 1.7159
    }
    bias_term: false
  }
}
layer {
  name: "fc5_116"
  type: "InnerProduct"
  bottom: "fc4_300"
  top: "fc5_classes"
  inner_product_param {
    num_output: 116
    weight_filler {
      type: "xavier"
    }
  }
}
layer {
  name: "softmax"
  type: "Softmax"
  bottom: "fc5_classes"
  top: "softmax"
}
layer {
  name: "loss"
  type: "MultinomialLogisticLoss"
  bottom: "softmax"
  bottom: "label"
  top: "loss"
}
layer {
  name: "accuracy_1"
  type: "Accuracy"
  bottom: "fc5_classes"
  bottom: "label"
  top: "accuracy_1"
  accuracy_param {
    top_k: 1
  }
}
layer {
  name: "accuracy_5"
  type: "Accuracy"
  bottom: "fc5_classes"
  bottom: "label"
  top: "accuracy_5"
  accuracy_param {
    top_k: 5
  }
}
layer {
  name: "silence"
  type: "Silence"
  bottom: "accuracy_1"
  bottom: "accuracy_5"
}
I0506 00:16:39.589268  4532 layer_factory.hpp:77] Creating layer data
I0506 00:16:39.590047  4532 net.cpp:100] Creating Layer data
I0506 00:16:39.590064  4532 net.cpp:408] data -> data
I0506 00:16:39.590091  4532 net.cpp:408] data -> label
I0506 00:16:39.610317  4668 db_lmdb.cpp:35] Opened lmdb ../local_data/lmdb/RTSD/orig/train/lmdb
I0506 00:16:39.629286  4532 data_layer.cpp:41] output data size: 512,3,48,48
I0506 00:16:39.679679  4532 net.cpp:150] Setting up data
I0506 00:16:39.679709  4532 net.cpp:157] Top shape: 512 3 48 48 (3538944)
I0506 00:16:39.679715  4532 net.cpp:157] Top shape: 512 (512)
I0506 00:16:39.679718  4532 net.cpp:165] Memory required for data: 14157824
I0506 00:16:39.679730  4532 layer_factory.hpp:77] Creating layer label_data_1_split
I0506 00:16:39.679746  4532 net.cpp:100] Creating Layer label_data_1_split
I0506 00:16:39.679752  4532 net.cpp:434] label_data_1_split <- label
I0506 00:16:39.679765  4532 net.cpp:408] label_data_1_split -> label_data_1_split_0
I0506 00:16:39.679780  4532 net.cpp:408] label_data_1_split -> label_data_1_split_1
I0506 00:16:39.679787  4532 net.cpp:408] label_data_1_split -> label_data_1_split_2
I0506 00:16:39.679859  4532 net.cpp:150] Setting up label_data_1_split
I0506 00:16:39.679868  4532 net.cpp:157] Top shape: 512 (512)
I0506 00:16:39.679872  4532 net.cpp:157] Top shape: 512 (512)
I0506 00:16:39.679877  4532 net.cpp:157] Top shape: 512 (512)
I0506 00:16:39.679890  4532 net.cpp:165] Memory required for data: 14163968
I0506 00:16:39.679894  4532 layer_factory.hpp:77] Creating layer conv1
I0506 00:16:39.679913  4532 net.cpp:100] Creating Layer conv1
I0506 00:16:39.679916  4532 net.cpp:434] conv1 <- data
I0506 00:16:39.679922  4532 net.cpp:408] conv1 -> conv1
I0506 00:16:40.128813  4532 net.cpp:150] Setting up conv1
I0506 00:16:40.128841  4532 net.cpp:157] Top shape: 512 100 42 42 (90316800)
I0506 00:16:40.128845  4532 net.cpp:165] Memory required for data: 375431168
I0506 00:16:40.128868  4532 layer_factory.hpp:77] Creating layer conv1_prescale
I0506 00:16:40.128881  4532 net.cpp:100] Creating Layer conv1_prescale
I0506 00:16:40.128888  4532 net.cpp:434] conv1_prescale <- conv1
I0506 00:16:40.128895  4532 net.cpp:395] conv1_prescale -> conv1 (in-place)
I0506 00:16:40.129011  4532 net.cpp:150] Setting up conv1_prescale
I0506 00:16:40.129020  4532 net.cpp:157] Top shape: 512 100 42 42 (90316800)
I0506 00:16:40.129024  4532 net.cpp:165] Memory required for data: 736698368
I0506 00:16:40.129030  4532 layer_factory.hpp:77] Creating layer conv1_sTanH
I0506 00:16:40.129039  4532 net.cpp:100] Creating Layer conv1_sTanH
I0506 00:16:40.129043  4532 net.cpp:434] conv1_sTanH <- conv1
I0506 00:16:40.129048  4532 net.cpp:395] conv1_sTanH -> conv1 (in-place)
I0506 00:16:40.129251  4532 net.cpp:150] Setting up conv1_sTanH
I0506 00:16:40.129263  4532 net.cpp:157] Top shape: 512 100 42 42 (90316800)
I0506 00:16:40.129289  4532 net.cpp:165] Memory required for data: 1097965568
I0506 00:16:40.129293  4532 layer_factory.hpp:77] Creating layer conv1_postscale
I0506 00:16:40.129302  4532 net.cpp:100] Creating Layer conv1_postscale
I0506 00:16:40.129307  4532 net.cpp:434] conv1_postscale <- conv1
I0506 00:16:40.129312  4532 net.cpp:395] conv1_postscale -> conv1 (in-place)
I0506 00:16:40.129408  4532 net.cpp:150] Setting up conv1_postscale
I0506 00:16:40.129416  4532 net.cpp:157] Top shape: 512 100 42 42 (90316800)
I0506 00:16:40.129420  4532 net.cpp:165] Memory required for data: 1459232768
I0506 00:16:40.129425  4532 layer_factory.hpp:77] Creating layer pool1
I0506 00:16:40.129431  4532 net.cpp:100] Creating Layer pool1
I0506 00:16:40.129436  4532 net.cpp:434] pool1 <- conv1
I0506 00:16:40.129441  4532 net.cpp:408] pool1 -> pool1
I0506 00:16:40.129487  4532 net.cpp:150] Setting up pool1
I0506 00:16:40.129495  4532 net.cpp:157] Top shape: 512 100 21 21 (22579200)
I0506 00:16:40.129499  4532 net.cpp:165] Memory required for data: 1549549568
I0506 00:16:40.129503  4532 layer_factory.hpp:77] Creating layer conv2
I0506 00:16:40.129513  4532 net.cpp:100] Creating Layer conv2
I0506 00:16:40.129515  4532 net.cpp:434] conv2 <- pool1
I0506 00:16:40.129520  4532 net.cpp:408] conv2 -> conv2
I0506 00:16:40.138736  4532 net.cpp:150] Setting up conv2
I0506 00:16:40.138761  4532 net.cpp:157] Top shape: 512 150 18 18 (24883200)
I0506 00:16:40.138766  4532 net.cpp:165] Memory required for data: 1649082368
I0506 00:16:40.138778  4532 layer_factory.hpp:77] Creating layer conv2_prescale
I0506 00:16:40.138790  4532 net.cpp:100] Creating Layer conv2_prescale
I0506 00:16:40.138797  4532 net.cpp:434] conv2_prescale <- conv2
I0506 00:16:40.138803  4532 net.cpp:395] conv2_prescale -> conv2 (in-place)
I0506 00:16:40.138916  4532 net.cpp:150] Setting up conv2_prescale
I0506 00:16:40.138926  4532 net.cpp:157] Top shape: 512 150 18 18 (24883200)
I0506 00:16:40.138929  4532 net.cpp:165] Memory required for data: 1748615168
I0506 00:16:40.138934  4532 layer_factory.hpp:77] Creating layer conv2_sTanH
I0506 00:16:40.138939  4532 net.cpp:100] Creating Layer conv2_sTanH
I0506 00:16:40.138944  4532 net.cpp:434] conv2_sTanH <- conv2
I0506 00:16:40.138948  4532 net.cpp:395] conv2_sTanH -> conv2 (in-place)
I0506 00:16:40.141628  4532 net.cpp:150] Setting up conv2_sTanH
I0506 00:16:40.141646  4532 net.cpp:157] Top shape: 512 150 18 18 (24883200)
I0506 00:16:40.141650  4532 net.cpp:165] Memory required for data: 1848147968
I0506 00:16:40.141654  4532 layer_factory.hpp:77] Creating layer conv2_postscale
I0506 00:16:40.141662  4532 net.cpp:100] Creating Layer conv2_postscale
I0506 00:16:40.141667  4532 net.cpp:434] conv2_postscale <- conv2
I0506 00:16:40.141674  4532 net.cpp:395] conv2_postscale -> conv2 (in-place)
I0506 00:16:40.141772  4532 net.cpp:150] Setting up conv2_postscale
I0506 00:16:40.141782  4532 net.cpp:157] Top shape: 512 150 18 18 (24883200)
I0506 00:16:40.141784  4532 net.cpp:165] Memory required for data: 1947680768
I0506 00:16:40.141789  4532 layer_factory.hpp:77] Creating layer pool2
I0506 00:16:40.141796  4532 net.cpp:100] Creating Layer pool2
I0506 00:16:40.141801  4532 net.cpp:434] pool2 <- conv2
I0506 00:16:40.141806  4532 net.cpp:408] pool2 -> pool2
I0506 00:16:40.141847  4532 net.cpp:150] Setting up pool2
I0506 00:16:40.141855  4532 net.cpp:157] Top shape: 512 150 9 9 (6220800)
I0506 00:16:40.141858  4532 net.cpp:165] Memory required for data: 1972563968
I0506 00:16:40.141861  4532 layer_factory.hpp:77] Creating layer conv3
I0506 00:16:40.141870  4532 net.cpp:100] Creating Layer conv3
I0506 00:16:40.141875  4532 net.cpp:434] conv3 <- pool2
I0506 00:16:40.141880  4532 net.cpp:408] conv3 -> conv3
I0506 00:16:40.147693  4532 net.cpp:150] Setting up conv3
I0506 00:16:40.147711  4532 net.cpp:157] Top shape: 512 250 6 6 (4608000)
I0506 00:16:40.147714  4532 net.cpp:165] Memory required for data: 1990995968
I0506 00:16:40.147725  4532 layer_factory.hpp:77] Creating layer conv3_prescale
I0506 00:16:40.147733  4532 net.cpp:100] Creating Layer conv3_prescale
I0506 00:16:40.147755  4532 net.cpp:434] conv3_prescale <- conv3
I0506 00:16:40.147763  4532 net.cpp:395] conv3_prescale -> conv3 (in-place)
I0506 00:16:40.147856  4532 net.cpp:150] Setting up conv3_prescale
I0506 00:16:40.147866  4532 net.cpp:157] Top shape: 512 250 6 6 (4608000)
I0506 00:16:40.147868  4532 net.cpp:165] Memory required for data: 2009427968
I0506 00:16:40.147874  4532 layer_factory.hpp:77] Creating layer conv3_sTanH
I0506 00:16:40.147886  4532 net.cpp:100] Creating Layer conv3_sTanH
I0506 00:16:40.147889  4532 net.cpp:434] conv3_sTanH <- conv3
I0506 00:16:40.147893  4532 net.cpp:395] conv3_sTanH -> conv3 (in-place)
I0506 00:16:40.153031  4532 net.cpp:150] Setting up conv3_sTanH
I0506 00:16:40.153054  4532 net.cpp:157] Top shape: 512 250 6 6 (4608000)
I0506 00:16:40.153059  4532 net.cpp:165] Memory required for data: 2027859968
I0506 00:16:40.153062  4532 layer_factory.hpp:77] Creating layer conv3_postscale
I0506 00:16:40.153072  4532 net.cpp:100] Creating Layer conv3_postscale
I0506 00:16:40.153076  4532 net.cpp:434] conv3_postscale <- conv3
I0506 00:16:40.153084  4532 net.cpp:395] conv3_postscale -> conv3 (in-place)
I0506 00:16:40.153189  4532 net.cpp:150] Setting up conv3_postscale
I0506 00:16:40.153199  4532 net.cpp:157] Top shape: 512 250 6 6 (4608000)
I0506 00:16:40.153203  4532 net.cpp:165] Memory required for data: 2046291968
I0506 00:16:40.153208  4532 layer_factory.hpp:77] Creating layer pool3
I0506 00:16:40.153218  4532 net.cpp:100] Creating Layer pool3
I0506 00:16:40.153220  4532 net.cpp:434] pool3 <- conv3
I0506 00:16:40.153225  4532 net.cpp:408] pool3 -> pool3
I0506 00:16:40.153265  4532 net.cpp:150] Setting up pool3
I0506 00:16:40.153272  4532 net.cpp:157] Top shape: 512 250 3 3 (1152000)
I0506 00:16:40.153275  4532 net.cpp:165] Memory required for data: 2050899968
I0506 00:16:40.153278  4532 layer_factory.hpp:77] Creating layer fc4_300
I0506 00:16:40.153285  4532 net.cpp:100] Creating Layer fc4_300
I0506 00:16:40.153290  4532 net.cpp:434] fc4_300 <- pool3
I0506 00:16:40.153295  4532 net.cpp:408] fc4_300 -> fc4_300
I0506 00:16:40.171833  4532 net.cpp:150] Setting up fc4_300
I0506 00:16:40.171852  4532 net.cpp:157] Top shape: 512 300 (153600)
I0506 00:16:40.171856  4532 net.cpp:165] Memory required for data: 2051514368
I0506 00:16:40.171864  4532 layer_factory.hpp:77] Creating layer fc4_prescale
I0506 00:16:40.171872  4532 net.cpp:100] Creating Layer fc4_prescale
I0506 00:16:40.171885  4532 net.cpp:434] fc4_prescale <- fc4_300
I0506 00:16:40.171895  4532 net.cpp:395] fc4_prescale -> fc4_300 (in-place)
I0506 00:16:40.171990  4532 net.cpp:150] Setting up fc4_prescale
I0506 00:16:40.171999  4532 net.cpp:157] Top shape: 512 300 (153600)
I0506 00:16:40.172003  4532 net.cpp:165] Memory required for data: 2052128768
I0506 00:16:40.172008  4532 layer_factory.hpp:77] Creating layer fc4_sTanH
I0506 00:16:40.172013  4532 net.cpp:100] Creating Layer fc4_sTanH
I0506 00:16:40.172016  4532 net.cpp:434] fc4_sTanH <- fc4_300
I0506 00:16:40.172020  4532 net.cpp:395] fc4_sTanH -> fc4_300 (in-place)
I0506 00:16:40.172211  4532 net.cpp:150] Setting up fc4_sTanH
I0506 00:16:40.172224  4532 net.cpp:157] Top shape: 512 300 (153600)
I0506 00:16:40.172227  4532 net.cpp:165] Memory required for data: 2052743168
I0506 00:16:40.172230  4532 layer_factory.hpp:77] Creating layer fc4_postscale
I0506 00:16:40.172237  4532 net.cpp:100] Creating Layer fc4_postscale
I0506 00:16:40.172240  4532 net.cpp:434] fc4_postscale <- fc4_300
I0506 00:16:40.172245  4532 net.cpp:395] fc4_postscale -> fc4_300 (in-place)
I0506 00:16:40.172338  4532 net.cpp:150] Setting up fc4_postscale
I0506 00:16:40.172346  4532 net.cpp:157] Top shape: 512 300 (153600)
I0506 00:16:40.172349  4532 net.cpp:165] Memory required for data: 2053357568
I0506 00:16:40.172354  4532 layer_factory.hpp:77] Creating layer fc5_116
I0506 00:16:40.172360  4532 net.cpp:100] Creating Layer fc5_116
I0506 00:16:40.172364  4532 net.cpp:434] fc5_116 <- fc4_300
I0506 00:16:40.172369  4532 net.cpp:408] fc5_116 -> fc5_classes
I0506 00:16:40.175772  4532 net.cpp:150] Setting up fc5_116
I0506 00:16:40.175807  4532 net.cpp:157] Top shape: 512 116 (59392)
I0506 00:16:40.175812  4532 net.cpp:165] Memory required for data: 2053595136
I0506 00:16:40.175823  4532 layer_factory.hpp:77] Creating layer fc5_classes_fc5_116_0_split
I0506 00:16:40.175832  4532 net.cpp:100] Creating Layer fc5_classes_fc5_116_0_split
I0506 00:16:40.175842  4532 net.cpp:434] fc5_classes_fc5_116_0_split <- fc5_classes
I0506 00:16:40.175848  4532 net.cpp:408] fc5_classes_fc5_116_0_split -> fc5_classes_fc5_116_0_split_0
I0506 00:16:40.175855  4532 net.cpp:408] fc5_classes_fc5_116_0_split -> fc5_classes_fc5_116_0_split_1
I0506 00:16:40.175861  4532 net.cpp:408] fc5_classes_fc5_116_0_split -> fc5_classes_fc5_116_0_split_2
I0506 00:16:40.175930  4532 net.cpp:150] Setting up fc5_classes_fc5_116_0_split
I0506 00:16:40.175940  4532 net.cpp:157] Top shape: 512 116 (59392)
I0506 00:16:40.175945  4532 net.cpp:157] Top shape: 512 116 (59392)
I0506 00:16:40.175947  4532 net.cpp:157] Top shape: 512 116 (59392)
I0506 00:16:40.175951  4532 net.cpp:165] Memory required for data: 2054307840
I0506 00:16:40.175953  4532 layer_factory.hpp:77] Creating layer softmax
I0506 00:16:40.175961  4532 net.cpp:100] Creating Layer softmax
I0506 00:16:40.175963  4532 net.cpp:434] softmax <- fc5_classes_fc5_116_0_split_0
I0506 00:16:40.175969  4532 net.cpp:408] softmax -> softmax
I0506 00:16:40.176219  4532 net.cpp:150] Setting up softmax
I0506 00:16:40.176231  4532 net.cpp:157] Top shape: 512 116 (59392)
I0506 00:16:40.176234  4532 net.cpp:165] Memory required for data: 2054545408
I0506 00:16:40.176237  4532 layer_factory.hpp:77] Creating layer loss
I0506 00:16:40.176244  4532 net.cpp:100] Creating Layer loss
I0506 00:16:40.176249  4532 net.cpp:434] loss <- softmax
I0506 00:16:40.176254  4532 net.cpp:434] loss <- label_data_1_split_0
I0506 00:16:40.176259  4532 net.cpp:408] loss -> loss
…
