…
I0506 01:16:35.696880  3876 solver.cpp:93] Creating training net from train_net file: ./Prototxt/experiment_13/RTSD/orig/trial_1/train.prototxt
I0506 01:16:35.697337  3876 net.cpp:58] Initializing net from parameters: 
state {
  phase: TRAIN
  level: 0
  stage: ""
}
layer {
  name: "data"
  type: "Data"
  top: "data"
  top: "label"
  include {
    phase: TRAIN
  }
  transform_param {
    scale: 0.0039215689
    mirror: false
    crop_size: 48
    mean_value: 119
    mean_value: 113
    mean_value: 113
  }
  data_param {
    source: "../local_data/lmdb/RTSD/orig/train/lmdb"
    batch_size: 700
    backend: LMDB
  }
}
layer {
  name: "conv1"
  type: "Convolution"
  bottom: "data"
  top: "conv1"
  convolution_param {
    num_output: 100
    pad: 0
    kernel_size: 7
    group: 1
    stride: 1
    weight_filler {
      type: "xavier"
    }
  }
}
layer {
  name: "conv1_prescale"
  type: "Scale"
  bottom: "conv1"
  top: "conv1"
  param {
    lr_mult: 0
    decay_mult: 0
  }
  scale_param {
    filler {
      value: 0.6666
    }
    bias_term: false
  }
}
layer {
  name: "conv1_sTanH"
  type: "TanH"
  bottom: "conv1"
  top: "conv1"
}
layer {
  name: "conv1_postscale"
  type: "Scale"
  bottom: "conv1"
  top: "conv1"
  param {
    lr_mult: 0
    decay_mult: 0
  }
  scale_param {
    filler {
      value: 1.7159
    }
    bias_term: false
  }
}
layer {
  name: "pool1"
  type: "Pooling"
  bottom: "conv1"
  top: "pool1"
  pooling_param {
    pool: MAX
    kernel_size: 2
    stride: 2
  }
}
layer {
  name: "conv2"
  type: "Convolution"
  bottom: "pool1"
  top: "conv2"
  convolution_param {
    num_output: 150
    pad: 0
    kernel_size: 4
    group: 1
    stride: 1
    weight_filler {
      type: "xavier"
    }
  }
}
layer {
  name: "conv2_prescale"
  type: "Scale"
  bottom: "conv2"
  top: "conv2"
  param {
    lr_mult: 0
    decay_mult: 0
  }
  scale_param {
    filler {
      value: 0.6666
    }
    bias_term: false
  }
}
layer {
  name: "conv2_sTanH"
  type: "TanH"
  bottom: "conv2"
  top: "conv2"
}
layer {
  name: "conv2_postscale"
  type: "Scale"
  bottom: "conv2"
  top: "conv2"
  param {
    lr_mult: 0
    decay_mult: 0
  }
  scale_param {
    filler {
      value: 1.7159
    }
    bias_term: false
  }
}
layer {
  name: "pool2"
  type: "Pooling"
  bottom: "conv2"
  top: "pool2"
  pooling_param {
    pool: MAX
    kernel_size: 2
    stride: 2
  }
}
layer {
  name: "conv3"
  type: "Convolution"
  bottom: "pool2"
  top: "conv3"
  convolution_param {
    num_output: 250
    pad: 0
    kernel_size: 4
    group: 1
    stride: 1
    weight_filler {
      type: "xavier"
    }
  }
}
layer {
  name: "conv3_prescale"
  type: "Scale"
  bottom: "conv3"
  top: "conv3"
  param {
    lr_mult: 0
    decay_mult: 0
  }
  scale_param {
    filler {
      value: 0.6666
    }
    bias_term: false
  }
}
layer {
  name: "conv3_sTanH"
  type: "TanH"
  bottom: "conv3"
  top: "conv3"
}
layer {
  name: "conv3_postscale"
  type: "Scale"
  bottom: "conv3"
  top: "conv3"
  param {
    lr_mult: 0
    decay_mult: 0
  }
  scale_param {
    filler {
      value: 1.7159
    }
    bias_term: false
  }
}
layer {
  name: "pool3"
  type: "Pooling"
  bottom: "conv3"
  top: "pool3"
  pooling_param {
    pool: MAX
    kernel_size: 2
    stride: 2
  }
}
layer {
  name: "fc4_300"
  type: "InnerProduct"
  bottom: "pool3"
  top: "fc4_300"
  inner_product_param {
    num_output: 300
    weight_filler {
      type: "xavier"
    }
  }
}
layer {
  name: "fc4_prescale"
  type: "Scale"
  bottom: "fc4_300"
  top: "fc4_300"
  param {
    lr_mult: 0
    decay_mult: 0
  }
  scale_param {
    filler {
      value: 0.6666
    }
    bias_term: false
  }
}
layer {
  name: "fc4_sTanH"
  type: "TanH"
  bottom: "fc4_300"
  top: "fc4_300"
}
layer {
  name: "fc4_postscale"
  type: "Scale"
  bottom: "fc4_300"
  top: "fc4_300"
  param {
    lr_mult: 0
    decay_mult: 0
  }
  scale_param {
    filler {
      value: 1.7159
    }
    bias_term: false
  }
}
layer {
  name: "fc5_116"
  type: "InnerProduct"
  bottom: "fc4_300"
  top: "fc5_classes"
  inner_product_param {
    num_output: 116
    weight_filler {
      type: "xavier"
    }
  }
}
layer {
  name: "softmax"
  type: "Softmax"
  bottom: "fc5_classes"
  top: "softmax"
}
layer {
  name: "loss"
  type: "MultinomialLogisticLoss"
  bottom: "softmax"
  bottom: "label"
  top: "loss"
}
layer {
  name: "accuracy_1"
  type: "Accuracy"
  bottom: "fc5_classes"
  bottom: "label"
  top: "accuracy_1"
  accuracy_param {
    top_k: 1
  }
}
layer {
  name: "accuracy_5"
  type: "Accuracy"
  bottom: "fc5_classes"
  bottom: "label"
  top: "accuracy_5"
  accuracy_param {
    top_k: 5
  }
}
layer {
  name: "silence"
  type: "Silence"
  bottom: "accuracy_1"
  bottom: "accuracy_5"
}
I0506 01:16:35.697496  3876 layer_factory.hpp:77] Creating layer data
I0506 01:16:35.698385  3876 net.cpp:100] Creating Layer data
I0506 01:16:35.698401  3876 net.cpp:408] data -> data
I0506 01:16:35.698426  3876 net.cpp:408] data -> label
I0506 01:16:35.722193  4009 db_lmdb.cpp:35] Opened lmdb ../local_data/lmdb/RTSD/orig/train/lmdb
I0506 01:16:35.749716  3876 data_layer.cpp:41] output data size: 700,3,48,48
I0506 01:16:35.787922  3876 net.cpp:150] Setting up data
I0506 01:16:35.787951  3876 net.cpp:157] Top shape: 700 3 48 48 (4838400)
I0506 01:16:35.787957  3876 net.cpp:157] Top shape: 700 (700)
I0506 01:16:35.787961  3876 net.cpp:165] Memory required for data: 19356400
I0506 01:16:35.787971  3876 layer_factory.hpp:77] Creating layer label_data_1_split
I0506 01:16:35.787986  3876 net.cpp:100] Creating Layer label_data_1_split
I0506 01:16:35.787993  3876 net.cpp:434] label_data_1_split <- label
I0506 01:16:35.788007  3876 net.cpp:408] label_data_1_split -> label_data_1_split_0
I0506 01:16:35.788020  3876 net.cpp:408] label_data_1_split -> label_data_1_split_1
I0506 01:16:35.788028  3876 net.cpp:408] label_data_1_split -> label_data_1_split_2
I0506 01:16:35.788089  3876 net.cpp:150] Setting up label_data_1_split
I0506 01:16:35.788096  3876 net.cpp:157] Top shape: 700 (700)
I0506 01:16:35.788100  3876 net.cpp:157] Top shape: 700 (700)
I0506 01:16:35.788103  3876 net.cpp:157] Top shape: 700 (700)
I0506 01:16:35.788107  3876 net.cpp:165] Memory required for data: 19364800
I0506 01:16:35.788110  3876 layer_factory.hpp:77] Creating layer conv1
I0506 01:16:35.788126  3876 net.cpp:100] Creating Layer conv1
I0506 01:16:35.788131  3876 net.cpp:434] conv1 <- data
I0506 01:16:35.788137  3876 net.cpp:408] conv1 -> conv1
I0506 01:16:36.206264  3876 net.cpp:150] Setting up conv1
I0506 01:16:36.206291  3876 net.cpp:157] Top shape: 700 100 42 42 (123480000)
I0506 01:16:36.206295  3876 net.cpp:165] Memory required for data: 513284800
I0506 01:16:36.206318  3876 layer_factory.hpp:77] Creating layer conv1_prescale
I0506 01:16:36.206331  3876 net.cpp:100] Creating Layer conv1_prescale
I0506 01:16:36.206337  3876 net.cpp:434] conv1_prescale <- conv1
I0506 01:16:36.206344  3876 net.cpp:395] conv1_prescale -> conv1 (in-place)
I0506 01:16:36.206454  3876 net.cpp:150] Setting up conv1_prescale
I0506 01:16:36.206462  3876 net.cpp:157] Top shape: 700 100 42 42 (123480000)
I0506 01:16:36.206467  3876 net.cpp:165] Memory required for data: 1007204800
I0506 01:16:36.206475  3876 layer_factory.hpp:77] Creating layer conv1_sTanH
I0506 01:16:36.206483  3876 net.cpp:100] Creating Layer conv1_sTanH
I0506 01:16:36.206488  3876 net.cpp:434] conv1_sTanH <- conv1
I0506 01:16:36.206493  3876 net.cpp:395] conv1_sTanH -> conv1 (in-place)
I0506 01:16:36.206687  3876 net.cpp:150] Setting up conv1_sTanH
I0506 01:16:36.206701  3876 net.cpp:157] Top shape: 700 100 42 42 (123480000)
I0506 01:16:36.206725  3876 net.cpp:165] Memory required for data: 1501124800
I0506 01:16:36.206730  3876 layer_factory.hpp:77] Creating layer conv1_postscale
I0506 01:16:36.206738  3876 net.cpp:100] Creating Layer conv1_postscale
I0506 01:16:36.206743  3876 net.cpp:434] conv1_postscale <- conv1
I0506 01:16:36.206749  3876 net.cpp:395] conv1_postscale -> conv1 (in-place)
I0506 01:16:36.206848  3876 net.cpp:150] Setting up conv1_postscale
I0506 01:16:36.206857  3876 net.cpp:157] Top shape: 700 100 42 42 (123480000)
I0506 01:16:36.206861  3876 net.cpp:165] Memory required for data: 1995044800
I0506 01:16:36.206866  3876 layer_factory.hpp:77] Creating layer pool1
I0506 01:16:36.206873  3876 net.cpp:100] Creating Layer pool1
I0506 01:16:36.206878  3876 net.cpp:434] pool1 <- conv1
I0506 01:16:36.206883  3876 net.cpp:408] pool1 -> pool1
I0506 01:16:36.206934  3876 net.cpp:150] Setting up pool1
I0506 01:16:36.206943  3876 net.cpp:157] Top shape: 700 100 21 21 (30870000)
I0506 01:16:36.206948  3876 net.cpp:165] Memory required for data: 2118524800
I0506 01:16:36.206950  3876 layer_factory.hpp:77] Creating layer conv2
I0506 01:16:36.206960  3876 net.cpp:100] Creating Layer conv2
I0506 01:16:36.206965  3876 net.cpp:434] conv2 <- pool1
I0506 01:16:36.206970  3876 net.cpp:408] conv2 -> conv2
I0506 01:16:36.232018  3876 net.cpp:150] Setting up conv2
I0506 01:16:36.232036  3876 net.cpp:157] Top shape: 700 150 18 18 (34020000)
I0506 01:16:36.232040  3876 net.cpp:165] Memory required for data: 2254604800
I0506 01:16:36.232051  3876 layer_factory.hpp:77] Creating layer conv2_prescale
I0506 01:16:36.232064  3876 net.cpp:100] Creating Layer conv2_prescale
I0506 01:16:36.232069  3876 net.cpp:434] conv2_prescale <- conv2
I0506 01:16:36.232074  3876 net.cpp:395] conv2_prescale -> conv2 (in-place)
I0506 01:16:36.232183  3876 net.cpp:150] Setting up conv2_prescale
I0506 01:16:36.232192  3876 net.cpp:157] Top shape: 700 150 18 18 (34020000)
I0506 01:16:36.232197  3876 net.cpp:165] Memory required for data: 2390684800
I0506 01:16:36.232203  3876 layer_factory.hpp:77] Creating layer conv2_sTanH
I0506 01:16:36.232208  3876 net.cpp:100] Creating Layer conv2_sTanH
I0506 01:16:36.232213  3876 net.cpp:434] conv2_sTanH <- conv2
I0506 01:16:36.232218  3876 net.cpp:395] conv2_sTanH -> conv2 (in-place)
I0506 01:16:36.233861  3876 net.cpp:150] Setting up conv2_sTanH
I0506 01:16:36.233878  3876 net.cpp:157] Top shape: 700 150 18 18 (34020000)
I0506 01:16:36.233882  3876 net.cpp:165] Memory required for data: 2526764800
I0506 01:16:36.233886  3876 layer_factory.hpp:77] Creating layer conv2_postscale
I0506 01:16:36.233893  3876 net.cpp:100] Creating Layer conv2_postscale
I0506 01:16:36.233897  3876 net.cpp:434] conv2_postscale <- conv2
I0506 01:16:36.233902  3876 net.cpp:395] conv2_postscale -> conv2 (in-place)
I0506 01:16:36.234001  3876 net.cpp:150] Setting up conv2_postscale
I0506 01:16:36.234010  3876 net.cpp:157] Top shape: 700 150 18 18 (34020000)
I0506 01:16:36.234015  3876 net.cpp:165] Memory required for data: 2662844800
I0506 01:16:36.234021  3876 layer_factory.hpp:77] Creating layer pool2
I0506 01:16:36.234030  3876 net.cpp:100] Creating Layer pool2
I0506 01:16:36.234035  3876 net.cpp:434] pool2 <- conv2
I0506 01:16:36.234040  3876 net.cpp:408] pool2 -> pool2
I0506 01:16:36.234081  3876 net.cpp:150] Setting up pool2
I0506 01:16:36.234089  3876 net.cpp:157] Top shape: 700 150 9 9 (8505000)
I0506 01:16:36.234093  3876 net.cpp:165] Memory required for data: 2696864800
I0506 01:16:36.234097  3876 layer_factory.hpp:77] Creating layer conv3
I0506 01:16:36.234104  3876 net.cpp:100] Creating Layer conv3
I0506 01:16:36.234109  3876 net.cpp:434] conv3 <- pool2
I0506 01:16:36.234114  3876 net.cpp:408] conv3 -> conv3
I0506 01:16:36.240099  3876 net.cpp:150] Setting up conv3
I0506 01:16:36.240118  3876 net.cpp:157] Top shape: 700 250 6 6 (6300000)
I0506 01:16:36.240121  3876 net.cpp:165] Memory required for data: 2722064800
I0506 01:16:36.240133  3876 layer_factory.hpp:77] Creating layer conv3_prescale
I0506 01:16:36.240141  3876 net.cpp:100] Creating Layer conv3_prescale
I0506 01:16:36.240160  3876 net.cpp:434] conv3_prescale <- conv3
I0506 01:16:36.240167  3876 net.cpp:395] conv3_prescale -> conv3 (in-place)
I0506 01:16:36.240265  3876 net.cpp:150] Setting up conv3_prescale
I0506 01:16:36.240274  3876 net.cpp:157] Top shape: 700 250 6 6 (6300000)
I0506 01:16:36.240280  3876 net.cpp:165] Memory required for data: 2747264800
I0506 01:16:36.240285  3876 layer_factory.hpp:77] Creating layer conv3_sTanH
I0506 01:16:36.240290  3876 net.cpp:100] Creating Layer conv3_sTanH
I0506 01:16:36.240294  3876 net.cpp:434] conv3_sTanH <- conv3
I0506 01:16:36.240299  3876 net.cpp:395] conv3_sTanH -> conv3 (in-place)
I0506 01:16:36.241835  3876 net.cpp:150] Setting up conv3_sTanH
I0506 01:16:36.241854  3876 net.cpp:157] Top shape: 700 250 6 6 (6300000)
I0506 01:16:36.241858  3876 net.cpp:165] Memory required for data: 2772464800
I0506 01:16:36.241863  3876 layer_factory.hpp:77] Creating layer conv3_postscale
I0506 01:16:36.241870  3876 net.cpp:100] Creating Layer conv3_postscale
I0506 01:16:36.241874  3876 net.cpp:434] conv3_postscale <- conv3
I0506 01:16:36.241880  3876 net.cpp:395] conv3_postscale -> conv3 (in-place)
I0506 01:16:36.241986  3876 net.cpp:150] Setting up conv3_postscale
I0506 01:16:36.241994  3876 net.cpp:157] Top shape: 700 250 6 6 (6300000)
I0506 01:16:36.241999  3876 net.cpp:165] Memory required for data: 2797664800
I0506 01:16:36.242005  3876 layer_factory.hpp:77] Creating layer pool3
I0506 01:16:36.242014  3876 net.cpp:100] Creating Layer pool3
I0506 01:16:36.242019  3876 net.cpp:434] pool3 <- conv3
I0506 01:16:36.242024  3876 net.cpp:408] pool3 -> pool3
I0506 01:16:36.242066  3876 net.cpp:150] Setting up pool3
I0506 01:16:36.242074  3876 net.cpp:157] Top shape: 700 250 3 3 (1575000)
I0506 01:16:36.242079  3876 net.cpp:165] Memory required for data: 2803964800
I0506 01:16:36.242081  3876 layer_factory.hpp:77] Creating layer fc4_300
I0506 01:16:36.242087  3876 net.cpp:100] Creating Layer fc4_300
I0506 01:16:36.242092  3876 net.cpp:434] fc4_300 <- pool3
I0506 01:16:36.242097  3876 net.cpp:408] fc4_300 -> fc4_300
I0506 01:16:36.257670  3876 net.cpp:150] Setting up fc4_300
I0506 01:16:36.257690  3876 net.cpp:157] Top shape: 700 300 (210000)
I0506 01:16:36.257695  3876 net.cpp:165] Memory required for data: 2804804800
I0506 01:16:36.257704  3876 layer_factory.hpp:77] Creating layer fc4_prescale
I0506 01:16:36.257714  3876 net.cpp:100] Creating Layer fc4_prescale
I0506 01:16:36.257719  3876 net.cpp:434] fc4_prescale <- fc4_300
I0506 01:16:36.257725  3876 net.cpp:395] fc4_prescale -> fc4_300 (in-place)
I0506 01:16:36.257820  3876 net.cpp:150] Setting up fc4_prescale
I0506 01:16:36.257828  3876 net.cpp:157] Top shape: 700 300 (210000)
I0506 01:16:36.257832  3876 net.cpp:165] Memory required for data: 2805644800
I0506 01:16:36.257836  3876 layer_factory.hpp:77] Creating layer fc4_sTanH
I0506 01:16:36.257843  3876 net.cpp:100] Creating Layer fc4_sTanH
I0506 01:16:36.257846  3876 net.cpp:434] fc4_sTanH <- fc4_300
I0506 01:16:36.257851  3876 net.cpp:395] fc4_sTanH -> fc4_300 (in-place)
I0506 01:16:36.258035  3876 net.cpp:150] Setting up fc4_sTanH
I0506 01:16:36.258047  3876 net.cpp:157] Top shape: 700 300 (210000)
I0506 01:16:36.258051  3876 net.cpp:165] Memory required for data: 2806484800
I0506 01:16:36.258055  3876 layer_factory.hpp:77] Creating layer fc4_postscale
I0506 01:16:36.258062  3876 net.cpp:100] Creating Layer fc4_postscale
I0506 01:16:36.258067  3876 net.cpp:434] fc4_postscale <- fc4_300
I0506 01:16:36.258072  3876 net.cpp:395] fc4_postscale -> fc4_300 (in-place)
I0506 01:16:36.258169  3876 net.cpp:150] Setting up fc4_postscale
I0506 01:16:36.258177  3876 net.cpp:157] Top shape: 700 300 (210000)
I0506 01:16:36.258180  3876 net.cpp:165] Memory required for data: 2807324800
I0506 01:16:36.258185  3876 layer_factory.hpp:77] Creating layer fc5_116
I0506 01:16:36.258193  3876 net.cpp:100] Creating Layer fc5_116
I0506 01:16:36.258198  3876 net.cpp:434] fc5_116 <- fc4_300
I0506 01:16:36.258203  3876 net.cpp:408] fc5_116 -> fc5_classes
I0506 01:16:36.260880  3876 net.cpp:150] Setting up fc5_116
I0506 01:16:36.260912  3876 net.cpp:157] Top shape: 700 116 (81200)
I0506 01:16:36.260918  3876 net.cpp:165] Memory required for data: 2807649600
I0506 01:16:36.260929  3876 layer_factory.hpp:77] Creating layer fc5_classes_fc5_116_0_split
I0506 01:16:36.260939  3876 net.cpp:100] Creating Layer fc5_classes_fc5_116_0_split
I0506 01:16:36.260944  3876 net.cpp:434] fc5_classes_fc5_116_0_split <- fc5_classes
I0506 01:16:36.260951  3876 net.cpp:408] fc5_classes_fc5_116_0_split -> fc5_classes_fc5_116_0_split_0
I0506 01:16:36.260962  3876 net.cpp:408] fc5_classes_fc5_116_0_split -> fc5_classes_fc5_116_0_split_1
I0506 01:16:36.260968  3876 net.cpp:408] fc5_classes_fc5_116_0_split -> fc5_classes_fc5_116_0_split_2
I0506 01:16:36.261023  3876 net.cpp:150] Setting up fc5_classes_fc5_116_0_split
I0506 01:16:36.261030  3876 net.cpp:157] Top shape: 700 116 (81200)
I0506 01:16:36.261034  3876 net.cpp:157] Top shape: 700 116 (81200)
I0506 01:16:36.261037  3876 net.cpp:157] Top shape: 700 116 (81200)
I0506 01:16:36.261040  3876 net.cpp:165] Memory required for data: 2808624000
I0506 01:16:36.261044  3876 layer_factory.hpp:77] Creating layer softmax
I0506 01:16:36.261049  3876 net.cpp:100] Creating Layer softmax
I0506 01:16:36.261054  3876 net.cpp:434] softmax <- fc5_classes_fc5_116_0_split_0
I0506 01:16:36.261059  3876 net.cpp:408] softmax -> softmax
I0506 01:16:36.261304  3876 net.cpp:150] Setting up softmax
I0506 01:16:36.261317  3876 net.cpp:157] Top shape: 700 116 (81200)
I0506 01:16:36.261322  3876 net.cpp:165] Memory required for data: 2808948800
I0506 01:16:36.261325  3876 layer_factory.hpp:77] Creating layer loss
I0506 01:16:36.261332  3876 net.cpp:100] Creating Layer loss
I0506 01:16:36.261337  3876 net.cpp:434] loss <- softmax
I0506 01:16:36.261343  3876 net.cpp:434] loss <- label_data_1_split_0
I0506 01:16:36.261348  3876 net.cpp:408] loss -> loss
…
