…
I0505 23:50:14.907068 28991 solver.cpp:93] Creating training net from train_net file: ./Prototxt/experiment_13/RTSD/orig/trial_1/train.prototxt
I0505 23:50:14.907531 28991 net.cpp:58] Initializing net from parameters: 
state {
  phase: TRAIN
  level: 0
  stage: ""
}
layer {
  name: "data"
  type: "Data"
  top: "data"
  top: "label"
  include {
    phase: TRAIN
  }
  transform_param {
    scale: 0.0039215689
    mirror: false
    crop_size: 48
    mean_value: 119
    mean_value: 113
    mean_value: 113
  }
  data_param {
    source: "../local_data/lmdb/RTSD/orig/train/lmdb"
    batch_size: 512
    backend: LMDB
  }
}
layer {
  name: "conv1"
  type: "Convolution"
  bottom: "data"
  top: "conv1"
  convolution_param {
    num_output: 100
    pad: 0
    kernel_size: 7
    group: 1
    stride: 1
    weight_filler {
      type: "xavier"
    }
  }
}
layer {
  name: "conv1_prescale"
  type: "Scale"
  bottom: "conv1"
  top: "conv1"
  param {
    lr_mult: 0
    decay_mult: 0
  }
  scale_param {
    filler {
      value: 0.6666
    }
    bias_term: false
  }
}
layer {
  name: "conv1_sTanH"
  type: "TanH"
  bottom: "conv1"
  top: "conv1"
}
layer {
  name: "conv1_postscale"
  type: "Scale"
  bottom: "conv1"
  top: "conv1"
  param {
    lr_mult: 0
    decay_mult: 0
  }
  scale_param {
    filler {
      value: 1.7159
    }
    bias_term: false
  }
}
layer {
  name: "pool1"
  type: "Pooling"
  bottom: "conv1"
  top: "pool1"
  pooling_param {
    pool: MAX
    kernel_size: 2
    stride: 2
  }
}
layer {
  name: "conv2"
  type: "Convolution"
  bottom: "pool1"
  top: "conv2"
  convolution_param {
    num_output: 150
    pad: 0
    kernel_size: 4
    group: 1
    stride: 1
    weight_filler {
      type: "xavier"
    }
  }
}
layer {
  name: "conv2_prescale"
  type: "Scale"
  bottom: "conv2"
  top: "conv2"
  param {
    lr_mult: 0
    decay_mult: 0
  }
  scale_param {
    filler {
      value: 0.6666
    }
    bias_term: false
  }
}
layer {
  name: "conv2_sTanH"
  type: "TanH"
  bottom: "conv2"
  top: "conv2"
}
layer {
  name: "conv2_postscale"
  type: "Scale"
  bottom: "conv2"
  top: "conv2"
  param {
    lr_mult: 0
    decay_mult: 0
  }
  scale_param {
    filler {
      value: 1.7159
    }
    bias_term: false
  }
}
layer {
  name: "pool2"
  type: "Pooling"
  bottom: "conv2"
  top: "pool2"
  pooling_param {
    pool: MAX
    kernel_size: 2
    stride: 2
  }
}
layer {
  name: "conv3"
  type: "Convolution"
  bottom: "pool2"
  top: "conv3"
  convolution_param {
    num_output: 250
    pad: 0
    kernel_size: 4
    group: 1
    stride: 1
    weight_filler {
      type: "xavier"
    }
  }
}
layer {
  name: "conv3_prescale"
  type: "Scale"
  bottom: "conv3"
  top: "conv3"
  param {
    lr_mult: 0
    decay_mult: 0
  }
  scale_param {
    filler {
      value: 0.6666
    }
    bias_term: false
  }
}
layer {
  name: "conv3_sTanH"
  type: "TanH"
  bottom: "conv3"
  top: "conv3"
}
layer {
  name: "conv3_postscale"
  type: "Scale"
  bottom: "conv3"
  top: "conv3"
  param {
    lr_mult: 0
    decay_mult: 0
  }
  scale_param {
    filler {
      value: 1.7159
    }
    bias_term: false
  }
}
layer {
  name: "pool3"
  type: "Pooling"
  bottom: "conv3"
  top: "pool3"
  pooling_param {
    pool: MAX
    kernel_size: 2
    stride: 2
  }
}
layer {
  name: "fc4_300"
  type: "InnerProduct"
  bottom: "pool3"
  top: "fc4_300"
  inner_product_param {
    num_output: 300
    weight_filler {
      type: "xavier"
    }
  }
}
layer {
  name: "fc4_prescale"
  type: "Scale"
  bottom: "fc4_300"
  top: "fc4_300"
  param {
    lr_mult: 0
    decay_mult: 0
  }
  scale_param {
    filler {
      value: 0.6666
    }
    bias_term: false
  }
}
layer {
  name: "fc4_sTanH"
  type: "TanH"
  bottom: "fc4_300"
  top: "fc4_300"
}
layer {
  name: "fc4_postscale"
  type: "Scale"
  bottom: "fc4_300"
  top: "fc4_300"
  param {
    lr_mult: 0
    decay_mult: 0
  }
  scale_param {
    filler {
      value: 1.7159
    }
    bias_term: false
  }
}
layer {
  name: "fc5_116"
  type: "InnerProduct"
  bottom: "fc4_300"
  top: "fc5_classes"
  inner_product_param {
    num_output: 116
    weight_filler {
      type: "xavier"
    }
  }
}
layer {
  name: "softmax"
  type: "Softmax"
  bottom: "fc5_classes"
  top: "softmax"
}
layer {
  name: "loss"
  type: "MultinomialLogisticLoss"
  bottom: "softmax"
  bottom: "label"
  top: "loss"
}
layer {
  name: "accuracy_1"
  type: "Accuracy"
  bottom: "fc5_classes"
  bottom: "label"
  top: "accuracy_1"
  accuracy_param {
    top_k: 1
  }
}
layer {
  name: "accuracy_5"
  type: "Accuracy"
  bottom: "fc5_classes"
  bottom: "label"
  top: "accuracy_5"
  accuracy_param {
    top_k: 5
  }
}
layer {
  name: "silence"
  type: "Silence"
  bottom: "accuracy_1"
  bottom: "accuracy_5"
}
I0505 23:50:14.907686 28991 layer_factory.hpp:77] Creating layer data
I0505 23:50:14.908511 28991 net.cpp:100] Creating Layer data
I0505 23:50:14.908534 28991 net.cpp:408] data -> data
I0505 23:50:14.908566 28991 net.cpp:408] data -> label
I0505 23:50:14.921255 29133 db_lmdb.cpp:35] Opened lmdb ../local_data/lmdb/RTSD/orig/train/lmdb
I0505 23:50:14.943423 28991 data_layer.cpp:41] output data size: 512,3,48,48
I0505 23:50:14.994006 28991 net.cpp:150] Setting up data
I0505 23:50:14.994033 28991 net.cpp:157] Top shape: 512 3 48 48 (3538944)
I0505 23:50:14.994040 28991 net.cpp:157] Top shape: 512 (512)
I0505 23:50:14.994042 28991 net.cpp:165] Memory required for data: 14157824
I0505 23:50:14.994053 28991 layer_factory.hpp:77] Creating layer label_data_1_split
I0505 23:50:14.994067 28991 net.cpp:100] Creating Layer label_data_1_split
I0505 23:50:14.994073 28991 net.cpp:434] label_data_1_split <- label
I0505 23:50:14.994087 28991 net.cpp:408] label_data_1_split -> label_data_1_split_0
I0505 23:50:14.994099 28991 net.cpp:408] label_data_1_split -> label_data_1_split_1
I0505 23:50:14.994107 28991 net.cpp:408] label_data_1_split -> label_data_1_split_2
I0505 23:50:14.994174 28991 net.cpp:150] Setting up label_data_1_split
I0505 23:50:14.994180 28991 net.cpp:157] Top shape: 512 (512)
I0505 23:50:14.994184 28991 net.cpp:157] Top shape: 512 (512)
I0505 23:50:14.994189 28991 net.cpp:157] Top shape: 512 (512)
I0505 23:50:14.994190 28991 net.cpp:165] Memory required for data: 14163968
I0505 23:50:14.994194 28991 layer_factory.hpp:77] Creating layer conv1
I0505 23:50:14.994210 28991 net.cpp:100] Creating Layer conv1
I0505 23:50:14.994215 28991 net.cpp:434] conv1 <- data
I0505 23:50:14.994220 28991 net.cpp:408] conv1 -> conv1
I0505 23:50:15.495165 28991 net.cpp:150] Setting up conv1
I0505 23:50:15.495200 28991 net.cpp:157] Top shape: 512 100 42 42 (90316800)
I0505 23:50:15.495208 28991 net.cpp:165] Memory required for data: 375431168
I0505 23:50:15.495232 28991 layer_factory.hpp:77] Creating layer conv1_prescale
I0505 23:50:15.495247 28991 net.cpp:100] Creating Layer conv1_prescale
I0505 23:50:15.495251 28991 net.cpp:434] conv1_prescale <- conv1
I0505 23:50:15.495257 28991 net.cpp:395] conv1_prescale -> conv1 (in-place)
I0505 23:50:15.495365 28991 net.cpp:150] Setting up conv1_prescale
I0505 23:50:15.495374 28991 net.cpp:157] Top shape: 512 100 42 42 (90316800)
I0505 23:50:15.495378 28991 net.cpp:165] Memory required for data: 736698368
I0505 23:50:15.495384 28991 layer_factory.hpp:77] Creating layer conv1_sTanH
I0505 23:50:15.495393 28991 net.cpp:100] Creating Layer conv1_sTanH
I0505 23:50:15.495399 28991 net.cpp:434] conv1_sTanH <- conv1
I0505 23:50:15.495404 28991 net.cpp:395] conv1_sTanH -> conv1 (in-place)
I0505 23:50:15.495615 28991 net.cpp:150] Setting up conv1_sTanH
I0505 23:50:15.495630 28991 net.cpp:157] Top shape: 512 100 42 42 (90316800)
I0505 23:50:15.495653 28991 net.cpp:165] Memory required for data: 1097965568
I0505 23:50:15.495658 28991 layer_factory.hpp:77] Creating layer conv1_postscale
I0505 23:50:15.495666 28991 net.cpp:100] Creating Layer conv1_postscale
I0505 23:50:15.495671 28991 net.cpp:434] conv1_postscale <- conv1
I0505 23:50:15.495676 28991 net.cpp:395] conv1_postscale -> conv1 (in-place)
I0505 23:50:15.495771 28991 net.cpp:150] Setting up conv1_postscale
I0505 23:50:15.495779 28991 net.cpp:157] Top shape: 512 100 42 42 (90316800)
I0505 23:50:15.495782 28991 net.cpp:165] Memory required for data: 1459232768
I0505 23:50:15.495787 28991 layer_factory.hpp:77] Creating layer pool1
I0505 23:50:15.495795 28991 net.cpp:100] Creating Layer pool1
I0505 23:50:15.495800 28991 net.cpp:434] pool1 <- conv1
I0505 23:50:15.495805 28991 net.cpp:408] pool1 -> pool1
I0505 23:50:15.495848 28991 net.cpp:150] Setting up pool1
I0505 23:50:15.495857 28991 net.cpp:157] Top shape: 512 100 21 21 (22579200)
I0505 23:50:15.495859 28991 net.cpp:165] Memory required for data: 1549549568
I0505 23:50:15.495862 28991 layer_factory.hpp:77] Creating layer conv2
I0505 23:50:15.495872 28991 net.cpp:100] Creating Layer conv2
I0505 23:50:15.495889 28991 net.cpp:434] conv2 <- pool1
I0505 23:50:15.495899 28991 net.cpp:408] conv2 -> conv2
I0505 23:50:15.503509 28991 net.cpp:150] Setting up conv2
I0505 23:50:15.503527 28991 net.cpp:157] Top shape: 512 150 18 18 (24883200)
I0505 23:50:15.503530 28991 net.cpp:165] Memory required for data: 1649082368
I0505 23:50:15.503541 28991 layer_factory.hpp:77] Creating layer conv2_prescale
I0505 23:50:15.503552 28991 net.cpp:100] Creating Layer conv2_prescale
I0505 23:50:15.503557 28991 net.cpp:434] conv2_prescale <- conv2
I0505 23:50:15.503563 28991 net.cpp:395] conv2_prescale -> conv2 (in-place)
I0505 23:50:15.503696 28991 net.cpp:150] Setting up conv2_prescale
I0505 23:50:15.503707 28991 net.cpp:157] Top shape: 512 150 18 18 (24883200)
I0505 23:50:15.503712 28991 net.cpp:165] Memory required for data: 1748615168
I0505 23:50:15.503717 28991 layer_factory.hpp:77] Creating layer conv2_sTanH
I0505 23:50:15.503722 28991 net.cpp:100] Creating Layer conv2_sTanH
I0505 23:50:15.503727 28991 net.cpp:434] conv2_sTanH <- conv2
I0505 23:50:15.503733 28991 net.cpp:395] conv2_sTanH -> conv2 (in-place)
I0505 23:50:15.523923 28991 net.cpp:150] Setting up conv2_sTanH
I0505 23:50:15.523942 28991 net.cpp:157] Top shape: 512 150 18 18 (24883200)
I0505 23:50:15.523947 28991 net.cpp:165] Memory required for data: 1848147968
I0505 23:50:15.523950 28991 layer_factory.hpp:77] Creating layer conv2_postscale
I0505 23:50:15.523960 28991 net.cpp:100] Creating Layer conv2_postscale
I0505 23:50:15.523967 28991 net.cpp:434] conv2_postscale <- conv2
I0505 23:50:15.523972 28991 net.cpp:395] conv2_postscale -> conv2 (in-place)
I0505 23:50:15.524085 28991 net.cpp:150] Setting up conv2_postscale
I0505 23:50:15.524093 28991 net.cpp:157] Top shape: 512 150 18 18 (24883200)
I0505 23:50:15.524096 28991 net.cpp:165] Memory required for data: 1947680768
I0505 23:50:15.524101 28991 layer_factory.hpp:77] Creating layer pool2
I0505 23:50:15.524109 28991 net.cpp:100] Creating Layer pool2
I0505 23:50:15.524114 28991 net.cpp:434] pool2 <- conv2
I0505 23:50:15.524118 28991 net.cpp:408] pool2 -> pool2
I0505 23:50:15.524163 28991 net.cpp:150] Setting up pool2
I0505 23:50:15.524170 28991 net.cpp:157] Top shape: 512 150 9 9 (6220800)
I0505 23:50:15.524174 28991 net.cpp:165] Memory required for data: 1972563968
I0505 23:50:15.524178 28991 layer_factory.hpp:77] Creating layer conv3
I0505 23:50:15.524188 28991 net.cpp:100] Creating Layer conv3
I0505 23:50:15.524191 28991 net.cpp:434] conv3 <- pool2
I0505 23:50:15.524199 28991 net.cpp:408] conv3 -> conv3
I0505 23:50:15.531368 28991 net.cpp:150] Setting up conv3
I0505 23:50:15.531388 28991 net.cpp:157] Top shape: 512 250 6 6 (4608000)
I0505 23:50:15.531393 28991 net.cpp:165] Memory required for data: 1990995968
I0505 23:50:15.531404 28991 layer_factory.hpp:77] Creating layer conv3_prescale
I0505 23:50:15.531412 28991 net.cpp:100] Creating Layer conv3_prescale
I0505 23:50:15.531433 28991 net.cpp:434] conv3_prescale <- conv3
I0505 23:50:15.531442 28991 net.cpp:395] conv3_prescale -> conv3 (in-place)
I0505 23:50:15.531544 28991 net.cpp:150] Setting up conv3_prescale
I0505 23:50:15.531553 28991 net.cpp:157] Top shape: 512 250 6 6 (4608000)
I0505 23:50:15.531558 28991 net.cpp:165] Memory required for data: 2009427968
I0505 23:50:15.531563 28991 layer_factory.hpp:77] Creating layer conv3_sTanH
I0505 23:50:15.531570 28991 net.cpp:100] Creating Layer conv3_sTanH
I0505 23:50:15.531575 28991 net.cpp:434] conv3_sTanH <- conv3
I0505 23:50:15.531581 28991 net.cpp:395] conv3_sTanH -> conv3 (in-place)
I0505 23:50:15.536413 28991 net.cpp:150] Setting up conv3_sTanH
I0505 23:50:15.536432 28991 net.cpp:157] Top shape: 512 250 6 6 (4608000)
I0505 23:50:15.536435 28991 net.cpp:165] Memory required for data: 2027859968
I0505 23:50:15.536443 28991 layer_factory.hpp:77] Creating layer conv3_postscale
I0505 23:50:15.536453 28991 net.cpp:100] Creating Layer conv3_postscale
I0505 23:50:15.536459 28991 net.cpp:434] conv3_postscale <- conv3
I0505 23:50:15.536464 28991 net.cpp:395] conv3_postscale -> conv3 (in-place)
I0505 23:50:15.536571 28991 net.cpp:150] Setting up conv3_postscale
I0505 23:50:15.536581 28991 net.cpp:157] Top shape: 512 250 6 6 (4608000)
I0505 23:50:15.536583 28991 net.cpp:165] Memory required for data: 2046291968
I0505 23:50:15.536588 28991 layer_factory.hpp:77] Creating layer pool3
I0505 23:50:15.536598 28991 net.cpp:100] Creating Layer pool3
I0505 23:50:15.536602 28991 net.cpp:434] pool3 <- conv3
I0505 23:50:15.536608 28991 net.cpp:408] pool3 -> pool3
I0505 23:50:15.536648 28991 net.cpp:150] Setting up pool3
I0505 23:50:15.536656 28991 net.cpp:157] Top shape: 512 250 3 3 (1152000)
I0505 23:50:15.536659 28991 net.cpp:165] Memory required for data: 2050899968
I0505 23:50:15.536661 28991 layer_factory.hpp:77] Creating layer fc4_300
I0505 23:50:15.536669 28991 net.cpp:100] Creating Layer fc4_300
I0505 23:50:15.536674 28991 net.cpp:434] fc4_300 <- pool3
I0505 23:50:15.536679 28991 net.cpp:408] fc4_300 -> fc4_300
I0505 23:50:15.543040 28991 net.cpp:150] Setting up fc4_300
I0505 23:50:15.543057 28991 net.cpp:157] Top shape: 512 300 (153600)
I0505 23:50:15.543061 28991 net.cpp:165] Memory required for data: 2051514368
I0505 23:50:15.543068 28991 layer_factory.hpp:77] Creating layer fc4_prescale
I0505 23:50:15.543077 28991 net.cpp:100] Creating Layer fc4_prescale
I0505 23:50:15.543081 28991 net.cpp:434] fc4_prescale <- fc4_300
I0505 23:50:15.543088 28991 net.cpp:395] fc4_prescale -> fc4_300 (in-place)
I0505 23:50:15.543181 28991 net.cpp:150] Setting up fc4_prescale
I0505 23:50:15.543187 28991 net.cpp:157] Top shape: 512 300 (153600)
I0505 23:50:15.543190 28991 net.cpp:165] Memory required for data: 2052128768
I0505 23:50:15.543195 28991 layer_factory.hpp:77] Creating layer fc4_sTanH
I0505 23:50:15.543201 28991 net.cpp:100] Creating Layer fc4_sTanH
I0505 23:50:15.543205 28991 net.cpp:434] fc4_sTanH <- fc4_300
I0505 23:50:15.543208 28991 net.cpp:395] fc4_sTanH -> fc4_300 (in-place)
I0505 23:50:15.543404 28991 net.cpp:150] Setting up fc4_sTanH
I0505 23:50:15.543414 28991 net.cpp:157] Top shape: 512 300 (153600)
I0505 23:50:15.543416 28991 net.cpp:165] Memory required for data: 2052743168
I0505 23:50:15.543419 28991 layer_factory.hpp:77] Creating layer fc4_postscale
I0505 23:50:15.543427 28991 net.cpp:100] Creating Layer fc4_postscale
I0505 23:50:15.543431 28991 net.cpp:434] fc4_postscale <- fc4_300
I0505 23:50:15.543437 28991 net.cpp:395] fc4_postscale -> fc4_300 (in-place)
I0505 23:50:15.543537 28991 net.cpp:150] Setting up fc4_postscale
I0505 23:50:15.543545 28991 net.cpp:157] Top shape: 512 300 (153600)
I0505 23:50:15.543550 28991 net.cpp:165] Memory required for data: 2053357568
I0505 23:50:15.543553 28991 layer_factory.hpp:77] Creating layer fc5_116
I0505 23:50:15.543561 28991 net.cpp:100] Creating Layer fc5_116
I0505 23:50:15.543565 28991 net.cpp:434] fc5_116 <- fc4_300
I0505 23:50:15.543571 28991 net.cpp:408] fc5_116 -> fc5_classes
I0505 23:50:15.551875 28991 net.cpp:150] Setting up fc5_116
I0505 23:50:15.551915 28991 net.cpp:157] Top shape: 512 116 (59392)
I0505 23:50:15.551920 28991 net.cpp:165] Memory required for data: 2053595136
I0505 23:50:15.551934 28991 layer_factory.hpp:77] Creating layer fc5_classes_fc5_116_0_split
I0505 23:50:15.551941 28991 net.cpp:100] Creating Layer fc5_classes_fc5_116_0_split
I0505 23:50:15.551945 28991 net.cpp:434] fc5_classes_fc5_116_0_split <- fc5_classes
I0505 23:50:15.551951 28991 net.cpp:408] fc5_classes_fc5_116_0_split -> fc5_classes_fc5_116_0_split_0
I0505 23:50:15.551959 28991 net.cpp:408] fc5_classes_fc5_116_0_split -> fc5_classes_fc5_116_0_split_1
I0505 23:50:15.551965 28991 net.cpp:408] fc5_classes_fc5_116_0_split -> fc5_classes_fc5_116_0_split_2
I0505 23:50:15.552022 28991 net.cpp:150] Setting up fc5_classes_fc5_116_0_split
I0505 23:50:15.552031 28991 net.cpp:157] Top shape: 512 116 (59392)
I0505 23:50:15.552033 28991 net.cpp:157] Top shape: 512 116 (59392)
I0505 23:50:15.552037 28991 net.cpp:157] Top shape: 512 116 (59392)
I0505 23:50:15.552039 28991 net.cpp:165] Memory required for data: 2054307840
I0505 23:50:15.552042 28991 layer_factory.hpp:77] Creating layer softmax
I0505 23:50:15.552048 28991 net.cpp:100] Creating Layer softmax
I0505 23:50:15.552052 28991 net.cpp:434] softmax <- fc5_classes_fc5_116_0_split_0
I0505 23:50:15.552057 28991 net.cpp:408] softmax -> softmax
I0505 23:50:15.552316 28991 net.cpp:150] Setting up softmax
I0505 23:50:15.552328 28991 net.cpp:157] Top shape: 512 116 (59392)
I0505 23:50:15.552331 28991 net.cpp:165] Memory required for data: 2054545408
I0505 23:50:15.552335 28991 layer_factory.hpp:77] Creating layer loss
I0505 23:50:15.552341 28991 net.cpp:100] Creating Layer loss
I0505 23:50:15.552345 28991 net.cpp:434] loss <- softmax
I0505 23:50:15.552350 28991 net.cpp:434] loss <- label_data_1_split_0
I0505 23:50:15.552355 28991 net.cpp:408] loss -> loss
…
