…
I0506 00:30:35.563938  5047 solver.cpp:93] Creating training net from train_net file: ./Prototxt/experiment_13/RTSD/orig/trial_1/train.prototxt
I0506 00:30:35.564273  5047 net.cpp:58] Initializing net from parameters: 
state {
  phase: TRAIN
  level: 0
  stage: ""
}
layer {
  name: "data"
  type: "Data"
  top: "data"
  top: "label"
  include {
    phase: TRAIN
  }
  transform_param {
    scale: 0.0039215689
    mirror: false
    crop_size: 48
    mean_value: 119
    mean_value: 113
    mean_value: 113
  }
  data_param {
    source: "../local_data/lmdb/RTSD/orig/train/lmdb"
    batch_size: 512
    backend: LMDB
  }
}
layer {
  name: "conv1"
  type: "Convolution"
  bottom: "data"
  top: "conv1"
  convolution_param {
    num_output: 100
    pad: 0
    kernel_size: 7
    group: 1
    stride: 1
    weight_filler {
      type: "xavier"
    }
  }
}
layer {
  name: "conv1_relu"
  type: "ReLU"
  bottom: "conv1"
  top: "conv1"
}
layer {
  name: "pool1"
  type: "Pooling"
  bottom: "conv1"
  top: "pool1"
  pooling_param {
    pool: MAX
    kernel_size: 2
    stride: 2
  }
}
layer {
  name: "conv2"
  type: "Convolution"
  bottom: "pool1"
  top: "conv2"
  convolution_param {
    num_output: 150
    pad: 0
    kernel_size: 4
    group: 1
    stride: 1
    weight_filler {
      type: "xavier"
    }
  }
}
layer {
  name: "conv2_relu"
  type: "ReLU"
  bottom: "conv2"
  top: "conv2"
}
layer {
  name: "pool2"
  type: "Pooling"
  bottom: "conv2"
  top: "pool2"
  pooling_param {
    pool: MAX
    kernel_size: 2
    stride: 2
  }
}
layer {
  name: "conv3"
  type: "Convolution"
  bottom: "pool2"
  top: "conv3"
  convolution_param {
    num_output: 250
    pad: 0
    kernel_size: 4
    group: 1
    stride: 1
    weight_filler {
      type: "xavier"
    }
  }
}
layer {
  name: "conv3_relu"
  type: "ReLU"
  bottom: "conv3"
  top: "conv3"
}
layer {
  name: "pool3"
  type: "Pooling"
  bottom: "conv3"
  top: "pool3"
  pooling_param {
    pool: MAX
    kernel_size: 2
    stride: 2
  }
}
layer {
  name: "fc4_300"
  type: "InnerProduct"
  bottom: "pool3"
  top: "fc4_300"
  inner_product_param {
    num_output: 300
    weight_filler {
      type: "xavier"
    }
  }
}
layer {
  name: "fc4_relu"
  type: "ReLU"
  bottom: "fc4_300"
  top: "fc4_300"
}
layer {
  name: "fc5_116"
  type: "InnerProduct"
  bottom: "fc4_300"
  top: "fc5_classes"
  inner_product_param {
    num_output: 116
    weight_filler {
      type: "xavier"
    }
  }
}
layer {
  name: "softmax"
  type: "Softmax"
  bottom: "fc5_classes"
  top: "softmax"
}
layer {
  name: "loss"
  type: "MultinomialLogisticLoss"
  bottom: "softmax"
  bottom: "label"
  top: "loss"
}
layer {
  name: "accuracy_1"
  type: "Accuracy"
  bottom: "fc5_classes"
  bottom: "label"
  top: "accuracy_1"
  accuracy_param {
    top_k: 1
  }
}
layer {
  name: "accuracy_5"
  type: "Accuracy"
  bottom: "fc5_classes"
  bottom: "label"
  top: "accuracy_5"
  accuracy_param {
    top_k: 5
  }
}
layer {
  name: "silence"
  type: "Silence"
  bottom: "accuracy_1"
  bottom: "accuracy_5"
}
I0506 00:30:35.564431  5047 layer_factory.hpp:77] Creating layer data
I0506 00:30:35.565227  5047 net.cpp:100] Creating Layer data
I0506 00:30:35.565243  5047 net.cpp:408] data -> data
I0506 00:30:35.565264  5047 net.cpp:408] data -> label
I0506 00:30:35.571723  5253 db_lmdb.cpp:35] Opened lmdb ../local_data/lmdb/RTSD/orig/train/lmdb
I0506 00:30:35.598520  5047 data_layer.cpp:41] output data size: 512,3,48,48
I0506 00:30:35.655098  5047 net.cpp:150] Setting up data
I0506 00:30:35.655156  5047 net.cpp:157] Top shape: 512 3 48 48 (3538944)
I0506 00:30:35.655164  5047 net.cpp:157] Top shape: 512 (512)
I0506 00:30:35.655166  5047 net.cpp:165] Memory required for data: 14157824
I0506 00:30:35.655177  5047 layer_factory.hpp:77] Creating layer label_data_1_split
I0506 00:30:35.655191  5047 net.cpp:100] Creating Layer label_data_1_split
I0506 00:30:35.655215  5047 net.cpp:434] label_data_1_split <- label
I0506 00:30:35.655228  5047 net.cpp:408] label_data_1_split -> label_data_1_split_0
I0506 00:30:35.655242  5047 net.cpp:408] label_data_1_split -> label_data_1_split_1
I0506 00:30:35.655251  5047 net.cpp:408] label_data_1_split -> label_data_1_split_2
I0506 00:30:35.655386  5047 net.cpp:150] Setting up label_data_1_split
I0506 00:30:35.655398  5047 net.cpp:157] Top shape: 512 (512)
I0506 00:30:35.655403  5047 net.cpp:157] Top shape: 512 (512)
I0506 00:30:35.655407  5047 net.cpp:157] Top shape: 512 (512)
I0506 00:30:35.655411  5047 net.cpp:165] Memory required for data: 14163968
I0506 00:30:35.655413  5047 layer_factory.hpp:77] Creating layer conv1
I0506 00:30:35.655431  5047 net.cpp:100] Creating Layer conv1
I0506 00:30:35.655436  5047 net.cpp:434] conv1 <- data
I0506 00:30:35.655443  5047 net.cpp:408] conv1 -> conv1
I0506 00:30:38.481575  5047 net.cpp:150] Setting up conv1
I0506 00:30:38.481603  5047 net.cpp:157] Top shape: 512 100 42 42 (90316800)
I0506 00:30:38.481608  5047 net.cpp:165] Memory required for data: 375431168
I0506 00:30:38.481631  5047 layer_factory.hpp:77] Creating layer conv1_relu
I0506 00:30:38.481642  5047 net.cpp:100] Creating Layer conv1_relu
I0506 00:30:38.481645  5047 net.cpp:434] conv1_relu <- conv1
I0506 00:30:38.481652  5047 net.cpp:395] conv1_relu -> conv1 (in-place)
I0506 00:30:38.481889  5047 net.cpp:150] Setting up conv1_relu
I0506 00:30:38.481904  5047 net.cpp:157] Top shape: 512 100 42 42 (90316800)
I0506 00:30:38.481909  5047 net.cpp:165] Memory required for data: 736698368
I0506 00:30:38.481911  5047 layer_factory.hpp:77] Creating layer pool1
I0506 00:30:38.481921  5047 net.cpp:100] Creating Layer pool1
I0506 00:30:38.481926  5047 net.cpp:434] pool1 <- conv1
I0506 00:30:38.481932  5047 net.cpp:408] pool1 -> pool1
I0506 00:30:38.481992  5047 net.cpp:150] Setting up pool1
I0506 00:30:38.482000  5047 net.cpp:157] Top shape: 512 100 21 21 (22579200)
I0506 00:30:38.482004  5047 net.cpp:165] Memory required for data: 827015168
I0506 00:30:38.482007  5047 layer_factory.hpp:77] Creating layer conv2
I0506 00:30:38.482018  5047 net.cpp:100] Creating Layer conv2
I0506 00:30:38.482024  5047 net.cpp:434] conv2 <- pool1
I0506 00:30:38.482029  5047 net.cpp:408] conv2 -> conv2
I0506 00:30:38.504359  5047 net.cpp:150] Setting up conv2
I0506 00:30:38.504384  5047 net.cpp:157] Top shape: 512 150 18 18 (24883200)
I0506 00:30:38.504387  5047 net.cpp:165] Memory required for data: 926547968
I0506 00:30:38.504402  5047 layer_factory.hpp:77] Creating layer conv2_relu
I0506 00:30:38.504413  5047 net.cpp:100] Creating Layer conv2_relu
I0506 00:30:38.504420  5047 net.cpp:434] conv2_relu <- conv2
I0506 00:30:38.504426  5047 net.cpp:395] conv2_relu -> conv2 (in-place)
I0506 00:30:38.505638  5047 net.cpp:150] Setting up conv2_relu
I0506 00:30:38.505657  5047 net.cpp:157] Top shape: 512 150 18 18 (24883200)
I0506 00:30:38.505661  5047 net.cpp:165] Memory required for data: 1026080768
I0506 00:30:38.505666  5047 layer_factory.hpp:77] Creating layer pool2
I0506 00:30:38.505674  5047 net.cpp:100] Creating Layer pool2
I0506 00:30:38.505679  5047 net.cpp:434] pool2 <- conv2
I0506 00:30:38.505686  5047 net.cpp:408] pool2 -> pool2
I0506 00:30:38.505744  5047 net.cpp:150] Setting up pool2
I0506 00:30:38.505753  5047 net.cpp:157] Top shape: 512 150 9 9 (6220800)
I0506 00:30:38.505758  5047 net.cpp:165] Memory required for data: 1050963968
I0506 00:30:38.505760  5047 layer_factory.hpp:77] Creating layer conv3
I0506 00:30:38.505774  5047 net.cpp:100] Creating Layer conv3
I0506 00:30:38.505779  5047 net.cpp:434] conv3 <- pool2
I0506 00:30:38.505784  5047 net.cpp:408] conv3 -> conv3
I0506 00:30:38.516618  5047 net.cpp:150] Setting up conv3
I0506 00:30:38.516636  5047 net.cpp:157] Top shape: 512 250 6 6 (4608000)
I0506 00:30:38.516640  5047 net.cpp:165] Memory required for data: 1069395968
I0506 00:30:38.516650  5047 layer_factory.hpp:77] Creating layer conv3_relu
I0506 00:30:38.516657  5047 net.cpp:100] Creating Layer conv3_relu
I0506 00:30:38.516660  5047 net.cpp:434] conv3_relu <- conv3
I0506 00:30:38.516665  5047 net.cpp:395] conv3_relu -> conv3 (in-place)
I0506 00:30:38.522434  5047 net.cpp:150] Setting up conv3_relu
I0506 00:30:38.522454  5047 net.cpp:157] Top shape: 512 250 6 6 (4608000)
I0506 00:30:38.522459  5047 net.cpp:165] Memory required for data: 1087827968
I0506 00:30:38.522462  5047 layer_factory.hpp:77] Creating layer pool3
I0506 00:30:38.522469  5047 net.cpp:100] Creating Layer pool3
I0506 00:30:38.522474  5047 net.cpp:434] pool3 <- conv3
I0506 00:30:38.522480  5047 net.cpp:408] pool3 -> pool3
I0506 00:30:38.522531  5047 net.cpp:150] Setting up pool3
I0506 00:30:38.522541  5047 net.cpp:157] Top shape: 512 250 3 3 (1152000)
I0506 00:30:38.522543  5047 net.cpp:165] Memory required for data: 1092435968
I0506 00:30:38.522547  5047 layer_factory.hpp:77] Creating layer fc4_300
I0506 00:30:38.522552  5047 net.cpp:100] Creating Layer fc4_300
I0506 00:30:38.522557  5047 net.cpp:434] fc4_300 <- pool3
I0506 00:30:38.522562  5047 net.cpp:408] fc4_300 -> fc4_300
I0506 00:30:38.531669  5047 net.cpp:150] Setting up fc4_300
I0506 00:30:38.531688  5047 net.cpp:157] Top shape: 512 300 (153600)
I0506 00:30:38.531692  5047 net.cpp:165] Memory required for data: 1093050368
I0506 00:30:38.531699  5047 layer_factory.hpp:77] Creating layer fc4_relu
I0506 00:30:38.531707  5047 net.cpp:100] Creating Layer fc4_relu
I0506 00:30:38.531709  5047 net.cpp:434] fc4_relu <- fc4_300
I0506 00:30:38.531714  5047 net.cpp:395] fc4_relu -> fc4_300 (in-place)
I0506 00:30:38.531913  5047 net.cpp:150] Setting up fc4_relu
I0506 00:30:38.531925  5047 net.cpp:157] Top shape: 512 300 (153600)
I0506 00:30:38.531929  5047 net.cpp:165] Memory required for data: 1093664768
I0506 00:30:38.531931  5047 layer_factory.hpp:77] Creating layer fc5_116
I0506 00:30:38.531939  5047 net.cpp:100] Creating Layer fc5_116
I0506 00:30:38.531944  5047 net.cpp:434] fc5_116 <- fc4_300
I0506 00:30:38.531949  5047 net.cpp:408] fc5_116 -> fc5_classes
I0506 00:30:38.535480  5047 net.cpp:150] Setting up fc5_116
I0506 00:30:38.535496  5047 net.cpp:157] Top shape: 512 116 (59392)
I0506 00:30:38.535501  5047 net.cpp:165] Memory required for data: 1093902336
I0506 00:30:38.535511  5047 layer_factory.hpp:77] Creating layer fc5_classes_fc5_116_0_split
I0506 00:30:38.535521  5047 net.cpp:100] Creating Layer fc5_classes_fc5_116_0_split
I0506 00:30:38.535523  5047 net.cpp:434] fc5_classes_fc5_116_0_split <- fc5_classes
I0506 00:30:38.535529  5047 net.cpp:408] fc5_classes_fc5_116_0_split -> fc5_classes_fc5_116_0_split_0
I0506 00:30:38.535537  5047 net.cpp:408] fc5_classes_fc5_116_0_split -> fc5_classes_fc5_116_0_split_1
I0506 00:30:38.535545  5047 net.cpp:408] fc5_classes_fc5_116_0_split -> fc5_classes_fc5_116_0_split_2
I0506 00:30:38.535598  5047 net.cpp:150] Setting up fc5_classes_fc5_116_0_split
I0506 00:30:38.535605  5047 net.cpp:157] Top shape: 512 116 (59392)
I0506 00:30:38.535609  5047 net.cpp:157] Top shape: 512 116 (59392)
I0506 00:30:38.535612  5047 net.cpp:157] Top shape: 512 116 (59392)
I0506 00:30:38.535614  5047 net.cpp:165] Memory required for data: 1094615040
I0506 00:30:38.535617  5047 layer_factory.hpp:77] Creating layer softmax
I0506 00:30:38.535624  5047 net.cpp:100] Creating Layer softmax
I0506 00:30:38.535629  5047 net.cpp:434] softmax <- fc5_classes_fc5_116_0_split_0
I0506 00:30:38.535634  5047 net.cpp:408] softmax -> softmax
I0506 00:30:38.535903  5047 net.cpp:150] Setting up softmax
I0506 00:30:38.535917  5047 net.cpp:157] Top shape: 512 116 (59392)
I0506 00:30:38.535920  5047 net.cpp:165] Memory required for data: 1094852608
I0506 00:30:38.535924  5047 layer_factory.hpp:77] Creating layer loss
I0506 00:30:38.535933  5047 net.cpp:100] Creating Layer loss
I0506 00:30:38.535953  5047 net.cpp:434] loss <- softmax
I0506 00:30:38.535959  5047 net.cpp:434] loss <- label_data_1_split_0
I0506 00:30:38.535965  5047 net.cpp:408] loss -> loss
…
