…
I0506 00:50:38.708673  5276 solver.cpp:93] Creating training net from train_net file: ./Prototxt/experiment_13/RTSD/orig/trial_1/train.prototxt
I0506 00:50:38.709143  5276 net.cpp:58] Initializing net from parameters: 
state {
  phase: TRAIN
  level: 0
  stage: ""
}
layer {
  name: "data"
  type: "Data"
  top: "data"
  top: "label"
  include {
    phase: TRAIN
  }
  transform_param {
    scale: 0.0039215689
    mirror: false
    crop_size: 48
    mean_value: 119
    mean_value: 113
    mean_value: 113
  }
  data_param {
    source: "../local_data/lmdb/RTSD/orig/train/lmdb"
    batch_size: 512
    backend: LMDB
  }
}
layer {
  name: "conv1"
  type: "Convolution"
  bottom: "data"
  top: "conv1"
  convolution_param {
    num_output: 100
    pad: 0
    kernel_size: 7
    group: 1
    stride: 1
    weight_filler {
      type: "xavier"
    }
  }
}
layer {
  name: "conv1_prescale"
  type: "Scale"
  bottom: "conv1"
  top: "conv1"
  param {
    lr_mult: 0
    decay_mult: 0
  }
  scale_param {
    filler {
      value: 0.6666
    }
    bias_term: false
  }
}
layer {
  name: "conv1_sTanH"
  type: "TanH"
  bottom: "conv1"
  top: "conv1"
}
layer {
  name: "conv1_postscale"
  type: "Scale"
  bottom: "conv1"
  top: "conv1"
  param {
    lr_mult: 0
    decay_mult: 0
  }
  scale_param {
    filler {
      value: 1.7159
    }
    bias_term: false
  }
}
layer {
  name: "pool1"
  type: "Pooling"
  bottom: "conv1"
  top: "pool1"
  pooling_param {
    pool: MAX
    kernel_size: 2
    stride: 2
  }
}
layer {
  name: "conv2"
  type: "Convolution"
  bottom: "pool1"
  top: "conv2"
  convolution_param {
    num_output: 150
    pad: 0
    kernel_size: 4
    group: 1
    stride: 1
    weight_filler {
      type: "xavier"
    }
  }
}
layer {
  name: "conv2_prescale"
  type: "Scale"
  bottom: "conv2"
  top: "conv2"
  param {
    lr_mult: 0
    decay_mult: 0
  }
  scale_param {
    filler {
      value: 0.6666
    }
    bias_term: false
  }
}
layer {
  name: "conv2_sTanH"
  type: "TanH"
  bottom: "conv2"
  top: "conv2"
}
layer {
  name: "conv2_postscale"
  type: "Scale"
  bottom: "conv2"
  top: "conv2"
  param {
    lr_mult: 0
    decay_mult: 0
  }
  scale_param {
    filler {
      value: 1.7159
    }
    bias_term: false
  }
}
layer {
  name: "pool2"
  type: "Pooling"
  bottom: "conv2"
  top: "pool2"
  pooling_param {
    pool: MAX
    kernel_size: 2
    stride: 2
  }
}
layer {
  name: "conv3"
  type: "Convolution"
  bottom: "pool2"
  top: "conv3"
  convolution_param {
    num_output: 250
    pad: 0
    kernel_size: 4
    group: 1
    stride: 1
    weight_filler {
      type: "xavier"
    }
  }
}
layer {
  name: "conv3_prescale"
  type: "Scale"
  bottom: "conv3"
  top: "conv3"
  param {
    lr_mult: 0
    decay_mult: 0
  }
  scale_param {
    filler {
      value: 0.6666
    }
    bias_term: false
  }
}
layer {
  name: "conv3_sTanH"
  type: "TanH"
  bottom: "conv3"
  top: "conv3"
}
layer {
  name: "conv3_postscale"
  type: "Scale"
  bottom: "conv3"
  top: "conv3"
  param {
    lr_mult: 0
    decay_mult: 0
  }
  scale_param {
    filler {
      value: 1.7159
    }
    bias_term: false
  }
}
layer {
  name: "pool3"
  type: "Pooling"
  bottom: "conv3"
  top: "pool3"
  pooling_param {
    pool: MAX
    kernel_size: 2
    stride: 2
  }
}
layer {
  name: "fc4_300"
  type: "InnerProduct"
  bottom: "pool3"
  top: "fc4_300"
  inner_product_param {
    num_output: 300
    weight_filler {
      type: "xavier"
    }
  }
}
layer {
  name: "fc4_prescale"
  type: "Scale"
  bottom: "fc4_300"
  top: "fc4_300"
  param {
    lr_mult: 0
    decay_mult: 0
  }
  scale_param {
    filler {
      value: 0.6666
    }
    bias_term: false
  }
}
layer {
  name: "fc4_sTanH"
  type: "TanH"
  bottom: "fc4_300"
  top: "fc4_300"
}
layer {
  name: "fc4_postscale"
  type: "Scale"
  bottom: "fc4_300"
  top: "fc4_300"
  param {
    lr_mult: 0
    decay_mult: 0
  }
  scale_param {
    filler {
      value: 1.7159
    }
    bias_term: false
  }
}
layer {
  name: "fc5_116"
  type: "InnerProduct"
  bottom: "fc4_300"
  top: "fc5_classes"
  inner_product_param {
    num_output: 116
    weight_filler {
      type: "xavier"
    }
  }
}
layer {
  name: "softmax"
  type: "Softmax"
  bottom: "fc5_classes"
  top: "softmax"
}
layer {
  name: "loss"
  type: "MultinomialLogisticLoss"
  bottom: "softmax"
  bottom: "label"
  top: "loss"
}
layer {
  name: "accuracy_1"
  type: "Accuracy"
  bottom: "fc5_classes"
  bottom: "label"
  top: "accuracy_1"
  accuracy_param {
    top_k: 1
  }
}
layer {
  name: "accuracy_5"
  type: "Accuracy"
  bottom: "fc5_classes"
  bottom: "label"
  top: "accuracy_5"
  accuracy_param {
    top_k: 5
  }
}
layer {
  name: "silence"
  type: "Silence"
  bottom: "accuracy_1"
  bottom: "accuracy_5"
}
I0506 00:50:38.709300  5276 layer_factory.hpp:77] Creating layer data
I0506 00:50:38.710058  5276 net.cpp:100] Creating Layer data
I0506 00:50:38.710074  5276 net.cpp:408] data -> data
I0506 00:50:38.710100  5276 net.cpp:408] data -> label
I0506 00:50:38.722007  5533 db_lmdb.cpp:35] Opened lmdb ../local_data/lmdb/RTSD/orig/train/lmdb
I0506 00:50:38.739795  5276 data_layer.cpp:41] output data size: 512,3,48,48
I0506 00:50:38.827695  5276 net.cpp:150] Setting up data
I0506 00:50:38.827725  5276 net.cpp:157] Top shape: 512 3 48 48 (3538944)
I0506 00:50:38.827730  5276 net.cpp:157] Top shape: 512 (512)
I0506 00:50:38.827733  5276 net.cpp:165] Memory required for data: 14157824
I0506 00:50:38.827744  5276 layer_factory.hpp:77] Creating layer label_data_1_split
I0506 00:50:38.827759  5276 net.cpp:100] Creating Layer label_data_1_split
I0506 00:50:38.827766  5276 net.cpp:434] label_data_1_split <- label
I0506 00:50:38.827785  5276 net.cpp:408] label_data_1_split -> label_data_1_split_0
I0506 00:50:38.827796  5276 net.cpp:408] label_data_1_split -> label_data_1_split_1
I0506 00:50:38.827805  5276 net.cpp:408] label_data_1_split -> label_data_1_split_2
I0506 00:50:38.827872  5276 net.cpp:150] Setting up label_data_1_split
I0506 00:50:38.827891  5276 net.cpp:157] Top shape: 512 (512)
I0506 00:50:38.827898  5276 net.cpp:157] Top shape: 512 (512)
I0506 00:50:38.827901  5276 net.cpp:157] Top shape: 512 (512)
I0506 00:50:38.827903  5276 net.cpp:165] Memory required for data: 14163968
I0506 00:50:38.827906  5276 layer_factory.hpp:77] Creating layer conv1
I0506 00:50:38.827924  5276 net.cpp:100] Creating Layer conv1
I0506 00:50:38.827929  5276 net.cpp:434] conv1 <- data
I0506 00:50:38.827935  5276 net.cpp:408] conv1 -> conv1
I0506 00:50:40.126811  5276 net.cpp:150] Setting up conv1
I0506 00:50:40.126840  5276 net.cpp:157] Top shape: 512 100 42 42 (90316800)
I0506 00:50:40.126844  5276 net.cpp:165] Memory required for data: 375431168
I0506 00:50:40.126868  5276 layer_factory.hpp:77] Creating layer conv1_prescale
I0506 00:50:40.126883  5276 net.cpp:100] Creating Layer conv1_prescale
I0506 00:50:40.126888  5276 net.cpp:434] conv1_prescale <- conv1
I0506 00:50:40.126894  5276 net.cpp:395] conv1_prescale -> conv1 (in-place)
I0506 00:50:40.127005  5276 net.cpp:150] Setting up conv1_prescale
I0506 00:50:40.127014  5276 net.cpp:157] Top shape: 512 100 42 42 (90316800)
I0506 00:50:40.127017  5276 net.cpp:165] Memory required for data: 736698368
I0506 00:50:40.127023  5276 layer_factory.hpp:77] Creating layer conv1_sTanH
I0506 00:50:40.127032  5276 net.cpp:100] Creating Layer conv1_sTanH
I0506 00:50:40.127038  5276 net.cpp:434] conv1_sTanH <- conv1
I0506 00:50:40.127041  5276 net.cpp:395] conv1_sTanH -> conv1 (in-place)
I0506 00:50:40.127238  5276 net.cpp:150] Setting up conv1_sTanH
I0506 00:50:40.127250  5276 net.cpp:157] Top shape: 512 100 42 42 (90316800)
I0506 00:50:40.127276  5276 net.cpp:165] Memory required for data: 1097965568
I0506 00:50:40.127280  5276 layer_factory.hpp:77] Creating layer conv1_postscale
I0506 00:50:40.127287  5276 net.cpp:100] Creating Layer conv1_postscale
I0506 00:50:40.127290  5276 net.cpp:434] conv1_postscale <- conv1
I0506 00:50:40.127295  5276 net.cpp:395] conv1_postscale -> conv1 (in-place)
I0506 00:50:40.127391  5276 net.cpp:150] Setting up conv1_postscale
I0506 00:50:40.127399  5276 net.cpp:157] Top shape: 512 100 42 42 (90316800)
I0506 00:50:40.127401  5276 net.cpp:165] Memory required for data: 1459232768
I0506 00:50:40.127406  5276 layer_factory.hpp:77] Creating layer pool1
I0506 00:50:40.127413  5276 net.cpp:100] Creating Layer pool1
I0506 00:50:40.127418  5276 net.cpp:434] pool1 <- conv1
I0506 00:50:40.127423  5276 net.cpp:408] pool1 -> pool1
I0506 00:50:40.127470  5276 net.cpp:150] Setting up pool1
I0506 00:50:40.127478  5276 net.cpp:157] Top shape: 512 100 21 21 (22579200)
I0506 00:50:40.127480  5276 net.cpp:165] Memory required for data: 1549549568
I0506 00:50:40.127485  5276 layer_factory.hpp:77] Creating layer conv2
I0506 00:50:40.127495  5276 net.cpp:100] Creating Layer conv2
I0506 00:50:40.127498  5276 net.cpp:434] conv2 <- pool1
I0506 00:50:40.127503  5276 net.cpp:408] conv2 -> conv2
I0506 00:50:40.133769  5276 net.cpp:150] Setting up conv2
I0506 00:50:40.133790  5276 net.cpp:157] Top shape: 512 150 18 18 (24883200)
I0506 00:50:40.133795  5276 net.cpp:165] Memory required for data: 1649082368
I0506 00:50:40.133806  5276 layer_factory.hpp:77] Creating layer conv2_prescale
I0506 00:50:40.133819  5276 net.cpp:100] Creating Layer conv2_prescale
I0506 00:50:40.133826  5276 net.cpp:434] conv2_prescale <- conv2
I0506 00:50:40.133831  5276 net.cpp:395] conv2_prescale -> conv2 (in-place)
I0506 00:50:40.133954  5276 net.cpp:150] Setting up conv2_prescale
I0506 00:50:40.133962  5276 net.cpp:157] Top shape: 512 150 18 18 (24883200)
I0506 00:50:40.133966  5276 net.cpp:165] Memory required for data: 1748615168
I0506 00:50:40.133971  5276 layer_factory.hpp:77] Creating layer conv2_sTanH
I0506 00:50:40.133976  5276 net.cpp:100] Creating Layer conv2_sTanH
I0506 00:50:40.133981  5276 net.cpp:434] conv2_sTanH <- conv2
I0506 00:50:40.133987  5276 net.cpp:395] conv2_sTanH -> conv2 (in-place)
I0506 00:50:40.169469  5276 net.cpp:150] Setting up conv2_sTanH
I0506 00:50:40.169502  5276 net.cpp:157] Top shape: 512 150 18 18 (24883200)
I0506 00:50:40.169507  5276 net.cpp:165] Memory required for data: 1848147968
I0506 00:50:40.169512  5276 layer_factory.hpp:77] Creating layer conv2_postscale
I0506 00:50:40.169529  5276 net.cpp:100] Creating Layer conv2_postscale
I0506 00:50:40.169536  5276 net.cpp:434] conv2_postscale <- conv2
I0506 00:50:40.169543  5276 net.cpp:395] conv2_postscale -> conv2 (in-place)
I0506 00:50:40.169683  5276 net.cpp:150] Setting up conv2_postscale
I0506 00:50:40.169693  5276 net.cpp:157] Top shape: 512 150 18 18 (24883200)
I0506 00:50:40.169697  5276 net.cpp:165] Memory required for data: 1947680768
I0506 00:50:40.169703  5276 layer_factory.hpp:77] Creating layer pool2
I0506 00:50:40.169711  5276 net.cpp:100] Creating Layer pool2
I0506 00:50:40.169716  5276 net.cpp:434] pool2 <- conv2
I0506 00:50:40.169723  5276 net.cpp:408] pool2 -> pool2
I0506 00:50:40.169776  5276 net.cpp:150] Setting up pool2
I0506 00:50:40.169785  5276 net.cpp:157] Top shape: 512 150 9 9 (6220800)
I0506 00:50:40.169788  5276 net.cpp:165] Memory required for data: 1972563968
I0506 00:50:40.169796  5276 layer_factory.hpp:77] Creating layer conv3
I0506 00:50:40.169808  5276 net.cpp:100] Creating Layer conv3
I0506 00:50:40.169813  5276 net.cpp:434] conv3 <- pool2
I0506 00:50:40.169821  5276 net.cpp:408] conv3 -> conv3
I0506 00:50:40.179836  5276 net.cpp:150] Setting up conv3
I0506 00:50:40.179857  5276 net.cpp:157] Top shape: 512 250 6 6 (4608000)
I0506 00:50:40.179862  5276 net.cpp:165] Memory required for data: 1990995968
I0506 00:50:40.179873  5276 layer_factory.hpp:77] Creating layer conv3_prescale
I0506 00:50:40.179893  5276 net.cpp:100] Creating Layer conv3_prescale
I0506 00:50:40.179920  5276 net.cpp:434] conv3_prescale <- conv3
I0506 00:50:40.179927  5276 net.cpp:395] conv3_prescale -> conv3 (in-place)
I0506 00:50:40.180030  5276 net.cpp:150] Setting up conv3_prescale
I0506 00:50:40.180039  5276 net.cpp:157] Top shape: 512 250 6 6 (4608000)
I0506 00:50:40.180042  5276 net.cpp:165] Memory required for data: 2009427968
I0506 00:50:40.180047  5276 layer_factory.hpp:77] Creating layer conv3_sTanH
I0506 00:50:40.180053  5276 net.cpp:100] Creating Layer conv3_sTanH
I0506 00:50:40.180058  5276 net.cpp:434] conv3_sTanH <- conv3
I0506 00:50:40.180064  5276 net.cpp:395] conv3_sTanH -> conv3 (in-place)
I0506 00:50:40.181144  5276 net.cpp:150] Setting up conv3_sTanH
I0506 00:50:40.181160  5276 net.cpp:157] Top shape: 512 250 6 6 (4608000)
I0506 00:50:40.181164  5276 net.cpp:165] Memory required for data: 2027859968
I0506 00:50:40.181166  5276 layer_factory.hpp:77] Creating layer conv3_postscale
I0506 00:50:40.181176  5276 net.cpp:100] Creating Layer conv3_postscale
I0506 00:50:40.181181  5276 net.cpp:434] conv3_postscale <- conv3
I0506 00:50:40.181186  5276 net.cpp:395] conv3_postscale -> conv3 (in-place)
I0506 00:50:40.181288  5276 net.cpp:150] Setting up conv3_postscale
I0506 00:50:40.181296  5276 net.cpp:157] Top shape: 512 250 6 6 (4608000)
I0506 00:50:40.181299  5276 net.cpp:165] Memory required for data: 2046291968
I0506 00:50:40.181304  5276 layer_factory.hpp:77] Creating layer pool3
I0506 00:50:40.181315  5276 net.cpp:100] Creating Layer pool3
I0506 00:50:40.181320  5276 net.cpp:434] pool3 <- conv3
I0506 00:50:40.181325  5276 net.cpp:408] pool3 -> pool3
I0506 00:50:40.181367  5276 net.cpp:150] Setting up pool3
I0506 00:50:40.181375  5276 net.cpp:157] Top shape: 512 250 3 3 (1152000)
I0506 00:50:40.181378  5276 net.cpp:165] Memory required for data: 2050899968
I0506 00:50:40.181381  5276 layer_factory.hpp:77] Creating layer fc4_300
I0506 00:50:40.181387  5276 net.cpp:100] Creating Layer fc4_300
I0506 00:50:40.181392  5276 net.cpp:434] fc4_300 <- pool3
I0506 00:50:40.181398  5276 net.cpp:408] fc4_300 -> fc4_300
I0506 00:50:40.188043  5276 net.cpp:150] Setting up fc4_300
I0506 00:50:40.188060  5276 net.cpp:157] Top shape: 512 300 (153600)
I0506 00:50:40.188062  5276 net.cpp:165] Memory required for data: 2051514368
I0506 00:50:40.188069  5276 layer_factory.hpp:77] Creating layer fc4_prescale
I0506 00:50:40.188079  5276 net.cpp:100] Creating Layer fc4_prescale
I0506 00:50:40.188086  5276 net.cpp:434] fc4_prescale <- fc4_300
I0506 00:50:40.188091  5276 net.cpp:395] fc4_prescale -> fc4_300 (in-place)
I0506 00:50:40.188184  5276 net.cpp:150] Setting up fc4_prescale
I0506 00:50:40.188191  5276 net.cpp:157] Top shape: 512 300 (153600)
I0506 00:50:40.188194  5276 net.cpp:165] Memory required for data: 2052128768
I0506 00:50:40.188199  5276 layer_factory.hpp:77] Creating layer fc4_sTanH
I0506 00:50:40.188207  5276 net.cpp:100] Creating Layer fc4_sTanH
I0506 00:50:40.188211  5276 net.cpp:434] fc4_sTanH <- fc4_300
I0506 00:50:40.188215  5276 net.cpp:395] fc4_sTanH -> fc4_300 (in-place)
I0506 00:50:40.188410  5276 net.cpp:150] Setting up fc4_sTanH
I0506 00:50:40.188421  5276 net.cpp:157] Top shape: 512 300 (153600)
I0506 00:50:40.188424  5276 net.cpp:165] Memory required for data: 2052743168
I0506 00:50:40.188427  5276 layer_factory.hpp:77] Creating layer fc4_postscale
I0506 00:50:40.188437  5276 net.cpp:100] Creating Layer fc4_postscale
I0506 00:50:40.188442  5276 net.cpp:434] fc4_postscale <- fc4_300
I0506 00:50:40.188448  5276 net.cpp:395] fc4_postscale -> fc4_300 (in-place)
I0506 00:50:40.188549  5276 net.cpp:150] Setting up fc4_postscale
I0506 00:50:40.188556  5276 net.cpp:157] Top shape: 512 300 (153600)
I0506 00:50:40.188560  5276 net.cpp:165] Memory required for data: 2053357568
I0506 00:50:40.188565  5276 layer_factory.hpp:77] Creating layer fc5_116
I0506 00:50:40.188571  5276 net.cpp:100] Creating Layer fc5_116
I0506 00:50:40.188575  5276 net.cpp:434] fc5_116 <- fc4_300
I0506 00:50:40.188581  5276 net.cpp:408] fc5_116 -> fc5_classes
I0506 00:50:40.191084  5276 net.cpp:150] Setting up fc5_116
I0506 00:50:40.191112  5276 net.cpp:157] Top shape: 512 116 (59392)
I0506 00:50:40.191118  5276 net.cpp:165] Memory required for data: 2053595136
I0506 00:50:40.191129  5276 layer_factory.hpp:77] Creating layer fc5_classes_fc5_116_0_split
I0506 00:50:40.191138  5276 net.cpp:100] Creating Layer fc5_classes_fc5_116_0_split
I0506 00:50:40.191143  5276 net.cpp:434] fc5_classes_fc5_116_0_split <- fc5_classes
I0506 00:50:40.191149  5276 net.cpp:408] fc5_classes_fc5_116_0_split -> fc5_classes_fc5_116_0_split_0
I0506 00:50:40.191159  5276 net.cpp:408] fc5_classes_fc5_116_0_split -> fc5_classes_fc5_116_0_split_1
I0506 00:50:40.191166  5276 net.cpp:408] fc5_classes_fc5_116_0_split -> fc5_classes_fc5_116_0_split_2
I0506 00:50:40.191226  5276 net.cpp:150] Setting up fc5_classes_fc5_116_0_split
I0506 00:50:40.191234  5276 net.cpp:157] Top shape: 512 116 (59392)
I0506 00:50:40.191237  5276 net.cpp:157] Top shape: 512 116 (59392)
I0506 00:50:40.191241  5276 net.cpp:157] Top shape: 512 116 (59392)
I0506 00:50:40.191243  5276 net.cpp:165] Memory required for data: 2054307840
I0506 00:50:40.191246  5276 layer_factory.hpp:77] Creating layer softmax
I0506 00:50:40.191251  5276 net.cpp:100] Creating Layer softmax
I0506 00:50:40.191256  5276 net.cpp:434] softmax <- fc5_classes_fc5_116_0_split_0
I0506 00:50:40.191260  5276 net.cpp:408] softmax -> softmax
I0506 00:50:40.191515  5276 net.cpp:150] Setting up softmax
I0506 00:50:40.191527  5276 net.cpp:157] Top shape: 512 116 (59392)
I0506 00:50:40.191531  5276 net.cpp:165] Memory required for data: 2054545408
I0506 00:50:40.191534  5276 layer_factory.hpp:77] Creating layer loss
I0506 00:50:40.191541  5276 net.cpp:100] Creating Layer loss
I0506 00:50:40.191546  5276 net.cpp:434] loss <- softmax
I0506 00:50:40.191551  5276 net.cpp:434] loss <- label_data_1_split_0
I0506 00:50:40.191555  5276 net.cpp:408] loss -> loss
…
