…
I0506 01:16:10.867909  1373 solver.cpp:93] Creating training net from train_net file: ./Prototxt/experiment_13/RTSD/orig/trial_1/train.prototxt
I0506 01:16:10.868386  1373 net.cpp:58] Initializing net from parameters: 
state {
  phase: TRAIN
  level: 0
  stage: ""
}
layer {
  name: "data"
  type: "Data"
  top: "data"
  top: "label"
  include {
    phase: TRAIN
  }
  transform_param {
    scale: 0.0039215689
    mirror: false
    crop_size: 48
    mean_value: 119
    mean_value: 113
    mean_value: 113
  }
  data_param {
    source: "../local_data/lmdb/RTSD/orig/train/lmdb"
    batch_size: 800
    backend: LMDB
  }
}
layer {
  name: "conv1"
  type: "Convolution"
  bottom: "data"
  top: "conv1"
  convolution_param {
    num_output: 100
    pad: 0
    kernel_size: 7
    group: 1
    stride: 1
    weight_filler {
      type: "xavier"
    }
  }
}
layer {
  name: "conv1_prescale"
  type: "Scale"
  bottom: "conv1"
  top: "conv1"
  param {
    lr_mult: 0
    decay_mult: 0
  }
  scale_param {
    filler {
      value: 0.6666
    }
    bias_term: false
  }
}
layer {
  name: "conv1_sTanH"
  type: "TanH"
  bottom: "conv1"
  top: "conv1"
}
layer {
  name: "conv1_postscale"
  type: "Scale"
  bottom: "conv1"
  top: "conv1"
  param {
    lr_mult: 0
    decay_mult: 0
  }
  scale_param {
    filler {
      value: 1.7159
    }
    bias_term: false
  }
}
layer {
  name: "pool1"
  type: "Pooling"
  bottom: "conv1"
  top: "pool1"
  pooling_param {
    pool: MAX
    kernel_size: 2
    stride: 2
  }
}
layer {
  name: "conv2"
  type: "Convolution"
  bottom: "pool1"
  top: "conv2"
  convolution_param {
    num_output: 150
    pad: 0
    kernel_size: 4
    group: 1
    stride: 1
    weight_filler {
      type: "xavier"
    }
  }
}
layer {
  name: "conv2_prescale"
  type: "Scale"
  bottom: "conv2"
  top: "conv2"
  param {
    lr_mult: 0
    decay_mult: 0
  }
  scale_param {
    filler {
      value: 0.6666
    }
    bias_term: false
  }
}
layer {
  name: "conv2_sTanH"
  type: "TanH"
  bottom: "conv2"
  top: "conv2"
}
layer {
  name: "conv2_postscale"
  type: "Scale"
  bottom: "conv2"
  top: "conv2"
  param {
    lr_mult: 0
    decay_mult: 0
  }
  scale_param {
    filler {
      value: 1.7159
    }
    bias_term: false
  }
}
layer {
  name: "pool2"
  type: "Pooling"
  bottom: "conv2"
  top: "pool2"
  pooling_param {
    pool: MAX
    kernel_size: 2
    stride: 2
  }
}
layer {
  name: "conv3"
  type: "Convolution"
  bottom: "pool2"
  top: "conv3"
  convolution_param {
    num_output: 250
    pad: 0
    kernel_size: 4
    group: 1
    stride: 1
    weight_filler {
      type: "xavier"
    }
  }
}
layer {
  name: "conv3_prescale"
  type: "Scale"
  bottom: "conv3"
  top: "conv3"
  param {
    lr_mult: 0
    decay_mult: 0
  }
  scale_param {
    filler {
      value: 0.6666
    }
    bias_term: false
  }
}
layer {
  name: "conv3_sTanH"
  type: "TanH"
  bottom: "conv3"
  top: "conv3"
}
layer {
  name: "conv3_postscale"
  type: "Scale"
  bottom: "conv3"
  top: "conv3"
  param {
    lr_mult: 0
    decay_mult: 0
  }
  scale_param {
    filler {
      value: 1.7159
    }
    bias_term: false
  }
}
layer {
  name: "pool3"
  type: "Pooling"
  bottom: "conv3"
  top: "pool3"
  pooling_param {
    pool: MAX
    kernel_size: 2
    stride: 2
  }
}
layer {
  name: "fc4_300"
  type: "InnerProduct"
  bottom: "pool3"
  top: "fc4_300"
  inner_product_param {
    num_output: 300
    weight_filler {
      type: "xavier"
    }
  }
}
layer {
  name: "fc4_prescale"
  type: "Scale"
  bottom: "fc4_300"
  top: "fc4_300"
  param {
    lr_mult: 0
    decay_mult: 0
  }
  scale_param {
    filler {
      value: 0.6666
    }
    bias_term: false
  }
}
layer {
  name: "fc4_sTanH"
  type: "TanH"
  bottom: "fc4_300"
  top: "fc4_300"
}
layer {
  name: "fc4_postscale"
  type: "Scale"
  bottom: "fc4_300"
  top: "fc4_300"
  param {
    lr_mult: 0
    decay_mult: 0
  }
  scale_param {
    filler {
      value: 1.7159
    }
    bias_term: false
  }
}
layer {
  name: "fc5_116"
  type: "InnerProduct"
  bottom: "fc4_300"
  top: "fc5_classes"
  inner_product_param {
    num_output: 116
    weight_filler {
      type: "xavier"
    }
  }
}
layer {
  name: "softmax"
  type: "Softmax"
  bottom: "fc5_classes"
  top: "softmax"
}
layer {
  name: "loss"
  type: "MultinomialLogisticLoss"
  bottom: "softmax"
  bottom: "label"
  top: "loss"
}
layer {
  name: "accuracy_1"
  type: "Accuracy"
  bottom: "fc5_classes"
  bottom: "label"
  top: "accuracy_1"
  accuracy_param {
    top_k: 1
  }
}
layer {
  name: "accuracy_5"
  type: "Accuracy"
  bottom: "fc5_classes"
  bottom: "label"
  top: "accuracy_5"
  accuracy_param {
    top_k: 5
  }
}
layer {
  name: "silence"
  type: "Silence"
  bottom: "accuracy_1"
  bottom: "accuracy_5"
}
I0506 01:16:10.868544  1373 layer_factory.hpp:77] Creating layer data
I0506 01:16:10.869490  1373 net.cpp:100] Creating Layer data
I0506 01:16:10.869511  1373 net.cpp:408] data -> data
I0506 01:16:10.869535  1373 net.cpp:408] data -> label
I0506 01:16:10.877377  1538 db_lmdb.cpp:35] Opened lmdb ../local_data/lmdb/RTSD/orig/train/lmdb
I0506 01:16:10.898417  1373 data_layer.cpp:41] output data size: 800,3,48,48
I0506 01:16:10.944825  1373 net.cpp:150] Setting up data
I0506 01:16:10.944854  1373 net.cpp:157] Top shape: 800 3 48 48 (5529600)
I0506 01:16:10.944859  1373 net.cpp:157] Top shape: 800 (800)
I0506 01:16:10.944862  1373 net.cpp:165] Memory required for data: 22121600
I0506 01:16:10.944874  1373 layer_factory.hpp:77] Creating layer label_data_1_split
I0506 01:16:10.944892  1373 net.cpp:100] Creating Layer label_data_1_split
I0506 01:16:10.944901  1373 net.cpp:434] label_data_1_split <- label
I0506 01:16:10.944916  1373 net.cpp:408] label_data_1_split -> label_data_1_split_0
I0506 01:16:10.944928  1373 net.cpp:408] label_data_1_split -> label_data_1_split_1
I0506 01:16:10.944937  1373 net.cpp:408] label_data_1_split -> label_data_1_split_2
I0506 01:16:10.945004  1373 net.cpp:150] Setting up label_data_1_split
I0506 01:16:10.945014  1373 net.cpp:157] Top shape: 800 (800)
I0506 01:16:10.945019  1373 net.cpp:157] Top shape: 800 (800)
I0506 01:16:10.945021  1373 net.cpp:157] Top shape: 800 (800)
I0506 01:16:10.945024  1373 net.cpp:165] Memory required for data: 22131200
I0506 01:16:10.945029  1373 layer_factory.hpp:77] Creating layer conv1
I0506 01:16:10.945044  1373 net.cpp:100] Creating Layer conv1
I0506 01:16:10.945050  1373 net.cpp:434] conv1 <- data
I0506 01:16:10.945056  1373 net.cpp:408] conv1 -> conv1
I0506 01:16:11.363833  1373 net.cpp:150] Setting up conv1
I0506 01:16:11.363862  1373 net.cpp:157] Top shape: 800 100 42 42 (141120000)
I0506 01:16:11.363865  1373 net.cpp:165] Memory required for data: 586611200
I0506 01:16:11.363900  1373 layer_factory.hpp:77] Creating layer conv1_prescale
I0506 01:16:11.363915  1373 net.cpp:100] Creating Layer conv1_prescale
I0506 01:16:11.363922  1373 net.cpp:434] conv1_prescale <- conv1
I0506 01:16:11.363929  1373 net.cpp:395] conv1_prescale -> conv1 (in-place)
I0506 01:16:11.364037  1373 net.cpp:150] Setting up conv1_prescale
I0506 01:16:11.364047  1373 net.cpp:157] Top shape: 800 100 42 42 (141120000)
I0506 01:16:11.364049  1373 net.cpp:165] Memory required for data: 1151091200
I0506 01:16:11.364056  1373 layer_factory.hpp:77] Creating layer conv1_sTanH
I0506 01:16:11.364064  1373 net.cpp:100] Creating Layer conv1_sTanH
I0506 01:16:11.364070  1373 net.cpp:434] conv1_sTanH <- conv1
I0506 01:16:11.364074  1373 net.cpp:395] conv1_sTanH -> conv1 (in-place)
I0506 01:16:11.364271  1373 net.cpp:150] Setting up conv1_sTanH
I0506 01:16:11.364284  1373 net.cpp:157] Top shape: 800 100 42 42 (141120000)
I0506 01:16:11.364310  1373 net.cpp:165] Memory required for data: 1715571200
I0506 01:16:11.364315  1373 layer_factory.hpp:77] Creating layer conv1_postscale
I0506 01:16:11.364323  1373 net.cpp:100] Creating Layer conv1_postscale
I0506 01:16:11.364327  1373 net.cpp:434] conv1_postscale <- conv1
I0506 01:16:11.364332  1373 net.cpp:395] conv1_postscale -> conv1 (in-place)
I0506 01:16:11.364428  1373 net.cpp:150] Setting up conv1_postscale
I0506 01:16:11.364437  1373 net.cpp:157] Top shape: 800 100 42 42 (141120000)
I0506 01:16:11.364440  1373 net.cpp:165] Memory required for data: 2280051200
I0506 01:16:11.364445  1373 layer_factory.hpp:77] Creating layer pool1
I0506 01:16:11.364452  1373 net.cpp:100] Creating Layer pool1
I0506 01:16:11.364455  1373 net.cpp:434] pool1 <- conv1
I0506 01:16:11.364460  1373 net.cpp:408] pool1 -> pool1
I0506 01:16:11.364508  1373 net.cpp:150] Setting up pool1
I0506 01:16:11.364517  1373 net.cpp:157] Top shape: 800 100 21 21 (35280000)
I0506 01:16:11.364521  1373 net.cpp:165] Memory required for data: 2421171200
I0506 01:16:11.364523  1373 layer_factory.hpp:77] Creating layer conv2
I0506 01:16:11.364533  1373 net.cpp:100] Creating Layer conv2
I0506 01:16:11.364538  1373 net.cpp:434] conv2 <- pool1
I0506 01:16:11.364543  1373 net.cpp:408] conv2 -> conv2
I0506 01:16:11.386989  1373 net.cpp:150] Setting up conv2
I0506 01:16:11.387014  1373 net.cpp:157] Top shape: 800 150 18 18 (38880000)
I0506 01:16:11.387019  1373 net.cpp:165] Memory required for data: 2576691200
I0506 01:16:11.387034  1373 layer_factory.hpp:77] Creating layer conv2_prescale
I0506 01:16:11.387049  1373 net.cpp:100] Creating Layer conv2_prescale
I0506 01:16:11.387056  1373 net.cpp:434] conv2_prescale <- conv2
I0506 01:16:11.387064  1373 net.cpp:395] conv2_prescale -> conv2 (in-place)
I0506 01:16:11.387207  1373 net.cpp:150] Setting up conv2_prescale
I0506 01:16:11.387217  1373 net.cpp:157] Top shape: 800 150 18 18 (38880000)
I0506 01:16:11.387220  1373 net.cpp:165] Memory required for data: 2732211200
I0506 01:16:11.387228  1373 layer_factory.hpp:77] Creating layer conv2_sTanH
I0506 01:16:11.387236  1373 net.cpp:100] Creating Layer conv2_sTanH
I0506 01:16:11.387243  1373 net.cpp:434] conv2_sTanH <- conv2
I0506 01:16:11.387248  1373 net.cpp:395] conv2_sTanH -> conv2 (in-place)
I0506 01:16:11.390528  1373 net.cpp:150] Setting up conv2_sTanH
I0506 01:16:11.390552  1373 net.cpp:157] Top shape: 800 150 18 18 (38880000)
I0506 01:16:11.390558  1373 net.cpp:165] Memory required for data: 2887731200
I0506 01:16:11.390563  1373 layer_factory.hpp:77] Creating layer conv2_postscale
I0506 01:16:11.390573  1373 net.cpp:100] Creating Layer conv2_postscale
I0506 01:16:11.390578  1373 net.cpp:434] conv2_postscale <- conv2
I0506 01:16:11.390585  1373 net.cpp:395] conv2_postscale -> conv2 (in-place)
I0506 01:16:11.390710  1373 net.cpp:150] Setting up conv2_postscale
I0506 01:16:11.390722  1373 net.cpp:157] Top shape: 800 150 18 18 (38880000)
I0506 01:16:11.390725  1373 net.cpp:165] Memory required for data: 3043251200
I0506 01:16:11.390732  1373 layer_factory.hpp:77] Creating layer pool2
I0506 01:16:11.390741  1373 net.cpp:100] Creating Layer pool2
I0506 01:16:11.390748  1373 net.cpp:434] pool2 <- conv2
I0506 01:16:11.390753  1373 net.cpp:408] pool2 -> pool2
I0506 01:16:11.390805  1373 net.cpp:150] Setting up pool2
I0506 01:16:11.390815  1373 net.cpp:157] Top shape: 800 150 9 9 (9720000)
I0506 01:16:11.390820  1373 net.cpp:165] Memory required for data: 3082131200
I0506 01:16:11.390825  1373 layer_factory.hpp:77] Creating layer conv3
I0506 01:16:11.390835  1373 net.cpp:100] Creating Layer conv3
I0506 01:16:11.390841  1373 net.cpp:434] conv3 <- pool2
I0506 01:16:11.390847  1373 net.cpp:408] conv3 -> conv3
I0506 01:16:11.398486  1373 net.cpp:150] Setting up conv3
I0506 01:16:11.398509  1373 net.cpp:157] Top shape: 800 250 6 6 (7200000)
I0506 01:16:11.398514  1373 net.cpp:165] Memory required for data: 3110931200
I0506 01:16:11.398526  1373 layer_factory.hpp:77] Creating layer conv3_prescale
I0506 01:16:11.398538  1373 net.cpp:100] Creating Layer conv3_prescale
I0506 01:16:11.398564  1373 net.cpp:434] conv3_prescale <- conv3
I0506 01:16:11.398576  1373 net.cpp:395] conv3_prescale -> conv3 (in-place)
I0506 01:16:11.398703  1373 net.cpp:150] Setting up conv3_prescale
I0506 01:16:11.398715  1373 net.cpp:157] Top shape: 800 250 6 6 (7200000)
I0506 01:16:11.398720  1373 net.cpp:165] Memory required for data: 3139731200
I0506 01:16:11.398726  1373 layer_factory.hpp:77] Creating layer conv3_sTanH
I0506 01:16:11.398736  1373 net.cpp:100] Creating Layer conv3_sTanH
I0506 01:16:11.398741  1373 net.cpp:434] conv3_sTanH <- conv3
I0506 01:16:11.398746  1373 net.cpp:395] conv3_sTanH -> conv3 (in-place)
I0506 01:16:11.400588  1373 net.cpp:150] Setting up conv3_sTanH
I0506 01:16:11.400610  1373 net.cpp:157] Top shape: 800 250 6 6 (7200000)
I0506 01:16:11.400616  1373 net.cpp:165] Memory required for data: 3168531200
I0506 01:16:11.400621  1373 layer_factory.hpp:77] Creating layer conv3_postscale
I0506 01:16:11.400631  1373 net.cpp:100] Creating Layer conv3_postscale
I0506 01:16:11.400637  1373 net.cpp:434] conv3_postscale <- conv3
I0506 01:16:11.400646  1373 net.cpp:395] conv3_postscale -> conv3 (in-place)
I0506 01:16:11.400779  1373 net.cpp:150] Setting up conv3_postscale
I0506 01:16:11.400789  1373 net.cpp:157] Top shape: 800 250 6 6 (7200000)
I0506 01:16:11.400794  1373 net.cpp:165] Memory required for data: 3197331200
I0506 01:16:11.400801  1373 layer_factory.hpp:77] Creating layer pool3
I0506 01:16:11.400815  1373 net.cpp:100] Creating Layer pool3
I0506 01:16:11.400820  1373 net.cpp:434] pool3 <- conv3
I0506 01:16:11.400827  1373 net.cpp:408] pool3 -> pool3
I0506 01:16:11.400882  1373 net.cpp:150] Setting up pool3
I0506 01:16:11.400892  1373 net.cpp:157] Top shape: 800 250 3 3 (1800000)
I0506 01:16:11.400897  1373 net.cpp:165] Memory required for data: 3204531200
I0506 01:16:11.400900  1373 layer_factory.hpp:77] Creating layer fc4_300
I0506 01:16:11.400908  1373 net.cpp:100] Creating Layer fc4_300
I0506 01:16:11.400914  1373 net.cpp:434] fc4_300 <- pool3
I0506 01:16:11.400923  1373 net.cpp:408] fc4_300 -> fc4_300
I0506 01:16:11.409597  1373 net.cpp:150] Setting up fc4_300
I0506 01:16:11.409616  1373 net.cpp:157] Top shape: 800 300 (240000)
I0506 01:16:11.409621  1373 net.cpp:165] Memory required for data: 3205491200
I0506 01:16:11.409629  1373 layer_factory.hpp:77] Creating layer fc4_prescale
I0506 01:16:11.409638  1373 net.cpp:100] Creating Layer fc4_prescale
I0506 01:16:11.409644  1373 net.cpp:434] fc4_prescale <- fc4_300
I0506 01:16:11.409656  1373 net.cpp:395] fc4_prescale -> fc4_300 (in-place)
I0506 01:16:11.409772  1373 net.cpp:150] Setting up fc4_prescale
I0506 01:16:11.409782  1373 net.cpp:157] Top shape: 800 300 (240000)
I0506 01:16:11.409787  1373 net.cpp:165] Memory required for data: 3206451200
I0506 01:16:11.409792  1373 layer_factory.hpp:77] Creating layer fc4_sTanH
I0506 01:16:11.409801  1373 net.cpp:100] Creating Layer fc4_sTanH
I0506 01:16:11.409806  1373 net.cpp:434] fc4_sTanH <- fc4_300
I0506 01:16:11.409813  1373 net.cpp:395] fc4_sTanH -> fc4_300 (in-place)
I0506 01:16:11.410050  1373 net.cpp:150] Setting up fc4_sTanH
I0506 01:16:11.410064  1373 net.cpp:157] Top shape: 800 300 (240000)
I0506 01:16:11.410069  1373 net.cpp:165] Memory required for data: 3207411200
I0506 01:16:11.410073  1373 layer_factory.hpp:77] Creating layer fc4_postscale
I0506 01:16:11.410084  1373 net.cpp:100] Creating Layer fc4_postscale
I0506 01:16:11.410090  1373 net.cpp:434] fc4_postscale <- fc4_300
I0506 01:16:11.410097  1373 net.cpp:395] fc4_postscale -> fc4_300 (in-place)
I0506 01:16:11.410224  1373 net.cpp:150] Setting up fc4_postscale
I0506 01:16:11.410233  1373 net.cpp:157] Top shape: 800 300 (240000)
I0506 01:16:11.410238  1373 net.cpp:165] Memory required for data: 3208371200
I0506 01:16:11.410244  1373 layer_factory.hpp:77] Creating layer fc5_116
I0506 01:16:11.410255  1373 net.cpp:100] Creating Layer fc5_116
I0506 01:16:11.410260  1373 net.cpp:434] fc5_116 <- fc4_300
I0506 01:16:11.410267  1373 net.cpp:408] fc5_116 -> fc5_classes
I0506 01:16:11.415086  1373 net.cpp:150] Setting up fc5_116
I0506 01:16:11.415122  1373 net.cpp:157] Top shape: 800 116 (92800)
I0506 01:16:11.415127  1373 net.cpp:165] Memory required for data: 3208742400
I0506 01:16:11.415143  1373 layer_factory.hpp:77] Creating layer fc5_classes_fc5_116_0_split
I0506 01:16:11.415155  1373 net.cpp:100] Creating Layer fc5_classes_fc5_116_0_split
I0506 01:16:11.415161  1373 net.cpp:434] fc5_classes_fc5_116_0_split <- fc5_classes
I0506 01:16:11.415169  1373 net.cpp:408] fc5_classes_fc5_116_0_split -> fc5_classes_fc5_116_0_split_0
I0506 01:16:11.415180  1373 net.cpp:408] fc5_classes_fc5_116_0_split -> fc5_classes_fc5_116_0_split_1
I0506 01:16:11.415190  1373 net.cpp:408] fc5_classes_fc5_116_0_split -> fc5_classes_fc5_116_0_split_2
I0506 01:16:11.415261  1373 net.cpp:150] Setting up fc5_classes_fc5_116_0_split
I0506 01:16:11.415269  1373 net.cpp:157] Top shape: 800 116 (92800)
I0506 01:16:11.415276  1373 net.cpp:157] Top shape: 800 116 (92800)
I0506 01:16:11.415279  1373 net.cpp:157] Top shape: 800 116 (92800)
I0506 01:16:11.415283  1373 net.cpp:165] Memory required for data: 3209856000
I0506 01:16:11.415287  1373 layer_factory.hpp:77] Creating layer softmax
I0506 01:16:11.415297  1373 net.cpp:100] Creating Layer softmax
I0506 01:16:11.415302  1373 net.cpp:434] softmax <- fc5_classes_fc5_116_0_split_0
I0506 01:16:11.415309  1373 net.cpp:408] softmax -> softmax
I0506 01:16:11.415633  1373 net.cpp:150] Setting up softmax
I0506 01:16:11.415648  1373 net.cpp:157] Top shape: 800 116 (92800)
I0506 01:16:11.415653  1373 net.cpp:165] Memory required for data: 3210227200
I0506 01:16:11.415657  1373 layer_factory.hpp:77] Creating layer loss
I0506 01:16:11.415668  1373 net.cpp:100] Creating Layer loss
I0506 01:16:11.415673  1373 net.cpp:434] loss <- softmax
I0506 01:16:11.415679  1373 net.cpp:434] loss <- label_data_1_split_0
I0506 01:16:11.415686  1373 net.cpp:408] loss -> loss
…
