…
I0506 00:49:51.500474  1074 solver.cpp:93] Creating training net from train_net file: ./Prototxt/experiment_13/RTSD/orig/trial_1/train.prototxt
I0506 00:49:51.501036  1074 net.cpp:58] Initializing net from parameters: 
state {
  phase: TRAIN
  level: 0
  stage: ""
}
layer {
  name: "data"
  type: "Data"
  top: "data"
  top: "label"
  include {
    phase: TRAIN
  }
  transform_param {
    scale: 0.0039215689
    mirror: false
    crop_size: 48
    mean_value: 119
    mean_value: 113
    mean_value: 113
  }
  data_param {
    source: "../local_data/lmdb/RTSD/orig/train/lmdb"
    batch_size: 512
    backend: LMDB
  }
}
layer {
  name: "conv1"
  type: "Convolution"
  bottom: "data"
  top: "conv1"
  convolution_param {
    num_output: 100
    pad: 0
    kernel_size: 7
    group: 1
    stride: 1
    weight_filler {
      type: "xavier"
    }
  }
}
layer {
  name: "conv1_prescale"
  type: "Scale"
  bottom: "conv1"
  top: "conv1"
  param {
    lr_mult: 0
    decay_mult: 0
  }
  scale_param {
    filler {
      value: 0.6666
    }
    bias_term: false
  }
}
layer {
  name: "conv1_sTanH"
  type: "TanH"
  bottom: "conv1"
  top: "conv1"
}
layer {
  name: "conv1_postscale"
  type: "Scale"
  bottom: "conv1"
  top: "conv1"
  param {
    lr_mult: 0
    decay_mult: 0
  }
  scale_param {
    filler {
      value: 1.7159
    }
    bias_term: false
  }
}
layer {
  name: "pool1"
  type: "Pooling"
  bottom: "conv1"
  top: "pool1"
  pooling_param {
    pool: MAX
    kernel_size: 2
    stride: 2
  }
}
layer {
  name: "conv2"
  type: "Convolution"
  bottom: "pool1"
  top: "conv2"
  convolution_param {
    num_output: 150
    pad: 0
    kernel_size: 4
    group: 1
    stride: 1
    weight_filler {
      type: "xavier"
    }
  }
}
layer {
  name: "conv2_prescale"
  type: "Scale"
  bottom: "conv2"
  top: "conv2"
  param {
    lr_mult: 0
    decay_mult: 0
  }
  scale_param {
    filler {
      value: 0.6666
    }
    bias_term: false
  }
}
layer {
  name: "conv2_sTanH"
  type: "TanH"
  bottom: "conv2"
  top: "conv2"
}
layer {
  name: "conv2_postscale"
  type: "Scale"
  bottom: "conv2"
  top: "conv2"
  param {
    lr_mult: 0
    decay_mult: 0
  }
  scale_param {
    filler {
      value: 1.7159
    }
    bias_term: false
  }
}
layer {
  name: "pool2"
  type: "Pooling"
  bottom: "conv2"
  top: "pool2"
  pooling_param {
    pool: MAX
    kernel_size: 2
    stride: 2
  }
}
layer {
  name: "conv3"
  type: "Convolution"
  bottom: "pool2"
  top: "conv3"
  convolution_param {
    num_output: 250
    pad: 0
    kernel_size: 4
    group: 1
    stride: 1
    weight_filler {
      type: "xavier"
    }
  }
}
layer {
  name: "conv3_prescale"
  type: "Scale"
  bottom: "conv3"
  top: "conv3"
  param {
    lr_mult: 0
    decay_mult: 0
  }
  scale_param {
    filler {
      value: 0.6666
    }
    bias_term: false
  }
}
layer {
  name: "conv3_sTanH"
  type: "TanH"
  bottom: "conv3"
  top: "conv3"
}
layer {
  name: "conv3_postscale"
  type: "Scale"
  bottom: "conv3"
  top: "conv3"
  param {
    lr_mult: 0
    decay_mult: 0
  }
  scale_param {
    filler {
      value: 1.7159
    }
    bias_term: false
  }
}
layer {
  name: "pool3"
  type: "Pooling"
  bottom: "conv3"
  top: "pool3"
  pooling_param {
    pool: MAX
    kernel_size: 2
    stride: 2
  }
}
layer {
  name: "fc4_300"
  type: "InnerProduct"
  bottom: "pool3"
  top: "fc4_300"
  inner_product_param {
    num_output: 300
    weight_filler {
      type: "xavier"
    }
  }
}
layer {
  name: "fc4_prescale"
  type: "Scale"
  bottom: "fc4_300"
  top: "fc4_300"
  param {
    lr_mult: 0
    decay_mult: 0
  }
  scale_param {
    filler {
      value: 0.6666
    }
    bias_term: false
  }
}
layer {
  name: "fc4_sTanH"
  type: "TanH"
  bottom: "fc4_300"
  top: "fc4_300"
}
layer {
  name: "fc4_postscale"
  type: "Scale"
  bottom: "fc4_300"
  top: "fc4_300"
  param {
    lr_mult: 0
    decay_mult: 0
  }
  scale_param {
    filler {
      value: 1.7159
    }
    bias_term: false
  }
}
layer {
  name: "fc5_116"
  type: "InnerProduct"
  bottom: "fc4_300"
  top: "fc5_classes"
  inner_product_param {
    num_output: 116
    weight_filler {
      type: "xavier"
    }
  }
}
layer {
  name: "softmax"
  type: "Softmax"
  bottom: "fc5_classes"
  top: "softmax"
}
layer {
  name: "loss"
  type: "MultinomialLogisticLoss"
  bottom: "softmax"
  bottom: "label"
  top: "loss"
}
layer {
  name: "accuracy_1"
  type: "Accuracy"
  bottom: "fc5_classes"
  bottom: "label"
  top: "accuracy_1"
  accuracy_param {
    top_k: 1
  }
}
layer {
  name: "accuracy_5"
  type: "Accuracy"
  bottom: "fc5_classes"
  bottom: "label"
  top: "accuracy_5"
  accuracy_param {
    top_k: 5
  }
}
layer {
  name: "silence"
  type: "Silence"
  bottom: "accuracy_1"
  bottom: "accuracy_5"
}
I0506 00:49:51.501224  1074 layer_factory.hpp:77] Creating layer data
I0506 00:49:51.502151  1074 net.cpp:100] Creating Layer data
I0506 00:49:51.502169  1074 net.cpp:408] data -> data
I0506 00:49:51.502200  1074 net.cpp:408] data -> label
I0506 00:49:51.516029  1187 db_lmdb.cpp:35] Opened lmdb ../local_data/lmdb/RTSD/orig/train/lmdb
I0506 00:49:51.544893  1074 data_layer.cpp:41] output data size: 512,3,48,48
I0506 00:49:51.588445  1074 net.cpp:150] Setting up data
I0506 00:49:51.588479  1074 net.cpp:157] Top shape: 512 3 48 48 (3538944)
I0506 00:49:51.588485  1074 net.cpp:157] Top shape: 512 (512)
I0506 00:49:51.588490  1074 net.cpp:165] Memory required for data: 14157824
I0506 00:49:51.588502  1074 layer_factory.hpp:77] Creating layer label_data_1_split
I0506 00:49:51.588521  1074 net.cpp:100] Creating Layer label_data_1_split
I0506 00:49:51.588529  1074 net.cpp:434] label_data_1_split <- label
I0506 00:49:51.588546  1074 net.cpp:408] label_data_1_split -> label_data_1_split_0
I0506 00:49:51.588562  1074 net.cpp:408] label_data_1_split -> label_data_1_split_1
I0506 00:49:51.588572  1074 net.cpp:408] label_data_1_split -> label_data_1_split_2
I0506 00:49:51.588647  1074 net.cpp:150] Setting up label_data_1_split
I0506 00:49:51.588657  1074 net.cpp:157] Top shape: 512 (512)
I0506 00:49:51.588665  1074 net.cpp:157] Top shape: 512 (512)
I0506 00:49:51.588668  1074 net.cpp:157] Top shape: 512 (512)
I0506 00:49:51.588673  1074 net.cpp:165] Memory required for data: 14163968
I0506 00:49:51.588677  1074 layer_factory.hpp:77] Creating layer conv1
I0506 00:49:51.588696  1074 net.cpp:100] Creating Layer conv1
I0506 00:49:51.588702  1074 net.cpp:434] conv1 <- data
I0506 00:49:51.588711  1074 net.cpp:408] conv1 -> conv1
I0506 00:49:52.056968  1074 net.cpp:150] Setting up conv1
I0506 00:49:52.057000  1074 net.cpp:157] Top shape: 512 100 42 42 (90316800)
I0506 00:49:52.057005  1074 net.cpp:165] Memory required for data: 375431168
I0506 00:49:52.057039  1074 layer_factory.hpp:77] Creating layer conv1_prescale
I0506 00:49:52.057065  1074 net.cpp:100] Creating Layer conv1_prescale
I0506 00:49:52.057077  1074 net.cpp:434] conv1_prescale <- conv1
I0506 00:49:52.057092  1074 net.cpp:395] conv1_prescale -> conv1 (in-place)
I0506 00:49:52.057302  1074 net.cpp:150] Setting up conv1_prescale
I0506 00:49:52.057320  1074 net.cpp:157] Top shape: 512 100 42 42 (90316800)
I0506 00:49:52.057329  1074 net.cpp:165] Memory required for data: 736698368
I0506 00:49:52.057343  1074 layer_factory.hpp:77] Creating layer conv1_sTanH
I0506 00:49:52.057359  1074 net.cpp:100] Creating Layer conv1_sTanH
I0506 00:49:52.057368  1074 net.cpp:434] conv1_sTanH <- conv1
I0506 00:49:52.057379  1074 net.cpp:395] conv1_sTanH -> conv1 (in-place)
I0506 00:49:52.057726  1074 net.cpp:150] Setting up conv1_sTanH
I0506 00:49:52.057747  1074 net.cpp:157] Top shape: 512 100 42 42 (90316800)
I0506 00:49:52.057785  1074 net.cpp:165] Memory required for data: 1097965568
I0506 00:49:52.057795  1074 layer_factory.hpp:77] Creating layer conv1_postscale
I0506 00:49:52.057811  1074 net.cpp:100] Creating Layer conv1_postscale
I0506 00:49:52.057819  1074 net.cpp:434] conv1_postscale <- conv1
I0506 00:49:52.057831  1074 net.cpp:395] conv1_postscale -> conv1 (in-place)
I0506 00:49:52.057996  1074 net.cpp:150] Setting up conv1_postscale
I0506 00:49:52.058012  1074 net.cpp:157] Top shape: 512 100 42 42 (90316800)
I0506 00:49:52.058018  1074 net.cpp:165] Memory required for data: 1459232768
I0506 00:49:52.058028  1074 layer_factory.hpp:77] Creating layer pool1
I0506 00:49:52.058043  1074 net.cpp:100] Creating Layer pool1
I0506 00:49:52.058051  1074 net.cpp:434] pool1 <- conv1
I0506 00:49:52.058061  1074 net.cpp:408] pool1 -> pool1
I0506 00:49:52.058141  1074 net.cpp:150] Setting up pool1
I0506 00:49:52.058156  1074 net.cpp:157] Top shape: 512 100 21 21 (22579200)
I0506 00:49:52.058166  1074 net.cpp:165] Memory required for data: 1549549568
I0506 00:49:52.058174  1074 layer_factory.hpp:77] Creating layer conv2
I0506 00:49:52.058192  1074 net.cpp:100] Creating Layer conv2
I0506 00:49:52.058202  1074 net.cpp:434] conv2 <- pool1
I0506 00:49:52.058214  1074 net.cpp:408] conv2 -> conv2
I0506 00:49:52.083237  1074 net.cpp:150] Setting up conv2
I0506 00:49:52.083271  1074 net.cpp:157] Top shape: 512 150 18 18 (24883200)
I0506 00:49:52.083281  1074 net.cpp:165] Memory required for data: 1649082368
I0506 00:49:52.083303  1074 layer_factory.hpp:77] Creating layer conv2_prescale
I0506 00:49:52.083328  1074 net.cpp:100] Creating Layer conv2_prescale
I0506 00:49:52.083341  1074 net.cpp:434] conv2_prescale <- conv2
I0506 00:49:52.083356  1074 net.cpp:395] conv2_prescale -> conv2 (in-place)
I0506 00:49:52.083557  1074 net.cpp:150] Setting up conv2_prescale
I0506 00:49:52.083576  1074 net.cpp:157] Top shape: 512 150 18 18 (24883200)
I0506 00:49:52.083587  1074 net.cpp:165] Memory required for data: 1748615168
I0506 00:49:52.083600  1074 layer_factory.hpp:77] Creating layer conv2_sTanH
I0506 00:49:52.083616  1074 net.cpp:100] Creating Layer conv2_sTanH
I0506 00:49:52.083626  1074 net.cpp:434] conv2_sTanH <- conv2
I0506 00:49:52.083638  1074 net.cpp:395] conv2_sTanH -> conv2 (in-place)
I0506 00:49:52.090273  1074 net.cpp:150] Setting up conv2_sTanH
I0506 00:49:52.090302  1074 net.cpp:157] Top shape: 512 150 18 18 (24883200)
I0506 00:49:52.090312  1074 net.cpp:165] Memory required for data: 1848147968
I0506 00:49:52.090323  1074 layer_factory.hpp:77] Creating layer conv2_postscale
I0506 00:49:52.090340  1074 net.cpp:100] Creating Layer conv2_postscale
I0506 00:49:52.090351  1074 net.cpp:434] conv2_postscale <- conv2
I0506 00:49:52.090366  1074 net.cpp:395] conv2_postscale -> conv2 (in-place)
I0506 00:49:52.090555  1074 net.cpp:150] Setting up conv2_postscale
I0506 00:49:52.090574  1074 net.cpp:157] Top shape: 512 150 18 18 (24883200)
I0506 00:49:52.090584  1074 net.cpp:165] Memory required for data: 1947680768
I0506 00:49:52.090598  1074 layer_factory.hpp:77] Creating layer pool2
I0506 00:49:52.090615  1074 net.cpp:100] Creating Layer pool2
I0506 00:49:52.090626  1074 net.cpp:434] pool2 <- conv2
I0506 00:49:52.090639  1074 net.cpp:408] pool2 -> pool2
I0506 00:49:52.090725  1074 net.cpp:150] Setting up pool2
I0506 00:49:52.090744  1074 net.cpp:157] Top shape: 512 150 9 9 (6220800)
I0506 00:49:52.090756  1074 net.cpp:165] Memory required for data: 1972563968
I0506 00:49:52.090767  1074 layer_factory.hpp:77] Creating layer conv3
I0506 00:49:52.090788  1074 net.cpp:100] Creating Layer conv3
I0506 00:49:52.090800  1074 net.cpp:434] conv3 <- pool2
I0506 00:49:52.090813  1074 net.cpp:408] conv3 -> conv3
I0506 00:49:52.107345  1074 net.cpp:150] Setting up conv3
I0506 00:49:52.107375  1074 net.cpp:157] Top shape: 512 250 6 6 (4608000)
I0506 00:49:52.107388  1074 net.cpp:165] Memory required for data: 1990995968
I0506 00:49:52.107411  1074 layer_factory.hpp:77] Creating layer conv3_prescale
I0506 00:49:52.107430  1074 net.cpp:100] Creating Layer conv3_prescale
I0506 00:49:52.107468  1074 net.cpp:434] conv3_prescale <- conv3
I0506 00:49:52.107486  1074 net.cpp:395] conv3_prescale -> conv3 (in-place)
I0506 00:49:52.107667  1074 net.cpp:150] Setting up conv3_prescale
I0506 00:49:52.107686  1074 net.cpp:157] Top shape: 512 250 6 6 (4608000)
I0506 00:49:52.107697  1074 net.cpp:165] Memory required for data: 2009427968
I0506 00:49:52.107710  1074 layer_factory.hpp:77] Creating layer conv3_sTanH
I0506 00:49:52.107725  1074 net.cpp:100] Creating Layer conv3_sTanH
I0506 00:49:52.107736  1074 net.cpp:434] conv3_sTanH <- conv3
I0506 00:49:52.107748  1074 net.cpp:395] conv3_sTanH -> conv3 (in-place)
I0506 00:49:52.121858  1074 net.cpp:150] Setting up conv3_sTanH
I0506 00:49:52.121887  1074 net.cpp:157] Top shape: 512 250 6 6 (4608000)
I0506 00:49:52.121896  1074 net.cpp:165] Memory required for data: 2027859968
I0506 00:49:52.121907  1074 layer_factory.hpp:77] Creating layer conv3_postscale
I0506 00:49:52.121925  1074 net.cpp:100] Creating Layer conv3_postscale
I0506 00:49:52.121937  1074 net.cpp:434] conv3_postscale <- conv3
I0506 00:49:52.121951  1074 net.cpp:395] conv3_postscale -> conv3 (in-place)
I0506 00:49:52.122138  1074 net.cpp:150] Setting up conv3_postscale
I0506 00:49:52.122156  1074 net.cpp:157] Top shape: 512 250 6 6 (4608000)
I0506 00:49:52.122166  1074 net.cpp:165] Memory required for data: 2046291968
I0506 00:49:52.122180  1074 layer_factory.hpp:77] Creating layer pool3
I0506 00:49:52.122201  1074 net.cpp:100] Creating Layer pool3
I0506 00:49:52.122212  1074 net.cpp:434] pool3 <- conv3
I0506 00:49:52.122226  1074 net.cpp:408] pool3 -> pool3
I0506 00:49:52.122306  1074 net.cpp:150] Setting up pool3
I0506 00:49:52.122324  1074 net.cpp:157] Top shape: 512 250 3 3 (1152000)
I0506 00:49:52.122334  1074 net.cpp:165] Memory required for data: 2050899968
I0506 00:49:52.122344  1074 layer_factory.hpp:77] Creating layer fc4_300
I0506 00:49:52.122359  1074 net.cpp:100] Creating Layer fc4_300
I0506 00:49:52.122370  1074 net.cpp:434] fc4_300 <- pool3
I0506 00:49:52.122383  1074 net.cpp:408] fc4_300 -> fc4_300
I0506 00:49:52.135080  1074 net.cpp:150] Setting up fc4_300
I0506 00:49:52.135102  1074 net.cpp:157] Top shape: 512 300 (153600)
I0506 00:49:52.135107  1074 net.cpp:165] Memory required for data: 2051514368
I0506 00:49:52.135115  1074 layer_factory.hpp:77] Creating layer fc4_prescale
I0506 00:49:52.135126  1074 net.cpp:100] Creating Layer fc4_prescale
I0506 00:49:52.135133  1074 net.cpp:434] fc4_prescale <- fc4_300
I0506 00:49:52.135140  1074 net.cpp:395] fc4_prescale -> fc4_300 (in-place)
I0506 00:49:52.135247  1074 net.cpp:150] Setting up fc4_prescale
I0506 00:49:52.135257  1074 net.cpp:157] Top shape: 512 300 (153600)
I0506 00:49:52.135262  1074 net.cpp:165] Memory required for data: 2052128768
I0506 00:49:52.135268  1074 layer_factory.hpp:77] Creating layer fc4_sTanH
I0506 00:49:52.135277  1074 net.cpp:100] Creating Layer fc4_sTanH
I0506 00:49:52.135282  1074 net.cpp:434] fc4_sTanH <- fc4_300
I0506 00:49:52.135288  1074 net.cpp:395] fc4_sTanH -> fc4_300 (in-place)
I0506 00:49:52.135514  1074 net.cpp:150] Setting up fc4_sTanH
I0506 00:49:52.135529  1074 net.cpp:157] Top shape: 512 300 (153600)
I0506 00:49:52.135534  1074 net.cpp:165] Memory required for data: 2052743168
I0506 00:49:52.135537  1074 layer_factory.hpp:77] Creating layer fc4_postscale
I0506 00:49:52.135545  1074 net.cpp:100] Creating Layer fc4_postscale
I0506 00:49:52.135551  1074 net.cpp:434] fc4_postscale <- fc4_300
I0506 00:49:52.135557  1074 net.cpp:395] fc4_postscale -> fc4_300 (in-place)
I0506 00:49:52.135671  1074 net.cpp:150] Setting up fc4_postscale
I0506 00:49:52.135680  1074 net.cpp:157] Top shape: 512 300 (153600)
I0506 00:49:52.135685  1074 net.cpp:165] Memory required for data: 2053357568
I0506 00:49:52.135691  1074 layer_factory.hpp:77] Creating layer fc5_116
I0506 00:49:52.135700  1074 net.cpp:100] Creating Layer fc5_116
I0506 00:49:52.135706  1074 net.cpp:434] fc5_116 <- fc4_300
I0506 00:49:52.135712  1074 net.cpp:408] fc5_116 -> fc5_classes
I0506 00:49:52.139309  1074 net.cpp:150] Setting up fc5_116
I0506 00:49:52.139348  1074 net.cpp:157] Top shape: 512 116 (59392)
I0506 00:49:52.139353  1074 net.cpp:165] Memory required for data: 2053595136
I0506 00:49:52.139369  1074 layer_factory.hpp:77] Creating layer fc5_classes_fc5_116_0_split
I0506 00:49:52.139379  1074 net.cpp:100] Creating Layer fc5_classes_fc5_116_0_split
I0506 00:49:52.139385  1074 net.cpp:434] fc5_classes_fc5_116_0_split <- fc5_classes
I0506 00:49:52.139392  1074 net.cpp:408] fc5_classes_fc5_116_0_split -> fc5_classes_fc5_116_0_split_0
I0506 00:49:52.139403  1074 net.cpp:408] fc5_classes_fc5_116_0_split -> fc5_classes_fc5_116_0_split_1
I0506 00:49:52.139412  1074 net.cpp:408] fc5_classes_fc5_116_0_split -> fc5_classes_fc5_116_0_split_2
I0506 00:49:52.139475  1074 net.cpp:150] Setting up fc5_classes_fc5_116_0_split
I0506 00:49:52.139484  1074 net.cpp:157] Top shape: 512 116 (59392)
I0506 00:49:52.139490  1074 net.cpp:157] Top shape: 512 116 (59392)
I0506 00:49:52.139494  1074 net.cpp:157] Top shape: 512 116 (59392)
I0506 00:49:52.139497  1074 net.cpp:165] Memory required for data: 2054307840
I0506 00:49:52.139502  1074 layer_factory.hpp:77] Creating layer softmax
I0506 00:49:52.139508  1074 net.cpp:100] Creating Layer softmax
I0506 00:49:52.139513  1074 net.cpp:434] softmax <- fc5_classes_fc5_116_0_split_0
I0506 00:49:52.139520  1074 net.cpp:408] softmax -> softmax
I0506 00:49:52.139822  1074 net.cpp:150] Setting up softmax
I0506 00:49:52.139837  1074 net.cpp:157] Top shape: 512 116 (59392)
I0506 00:49:52.139842  1074 net.cpp:165] Memory required for data: 2054545408
I0506 00:49:52.139847  1074 layer_factory.hpp:77] Creating layer loss
I0506 00:49:52.139854  1074 net.cpp:100] Creating Layer loss
I0506 00:49:52.139859  1074 net.cpp:434] loss <- softmax
I0506 00:49:52.139865  1074 net.cpp:434] loss <- label_data_1_split_0
I0506 00:49:52.139873  1074 net.cpp:408] loss -> loss
…
