…
I0506 00:48:22.978390 26132 solver.cpp:93] Creating training net from train_net file: ./Prototxt/experiment_13/RTSD/orig/trial_1/train.prototxt
I0506 00:48:22.978857 26132 net.cpp:58] Initializing net from parameters: 
state {
  phase: TRAIN
  level: 0
  stage: ""
}
layer {
  name: "data"
  type: "Data"
  top: "data"
  top: "label"
  include {
    phase: TRAIN
  }
  transform_param {
    scale: 0.0039215689
    mirror: false
    crop_size: 48
    mean_value: 119
    mean_value: 113
    mean_value: 113
  }
  data_param {
    source: "../local_data/lmdb/RTSD/orig/train/lmdb"
    batch_size: 512
    backend: LMDB
  }
}
layer {
  name: "conv1"
  type: "Convolution"
  bottom: "data"
  top: "conv1"
  convolution_param {
    num_output: 100
    pad: 0
    kernel_size: 7
    group: 1
    stride: 1
    weight_filler {
      type: "xavier"
    }
  }
}
layer {
  name: "conv1_prescale"
  type: "Scale"
  bottom: "conv1"
  top: "conv1"
  param {
    lr_mult: 0
    decay_mult: 0
  }
  scale_param {
    filler {
      value: 0.6666
    }
    bias_term: false
  }
}
layer {
  name: "conv1_sTanH"
  type: "TanH"
  bottom: "conv1"
  top: "conv1"
}
layer {
  name: "conv1_postscale"
  type: "Scale"
  bottom: "conv1"
  top: "conv1"
  param {
    lr_mult: 0
    decay_mult: 0
  }
  scale_param {
    filler {
      value: 1.7159
    }
    bias_term: false
  }
}
layer {
  name: "pool1"
  type: "Pooling"
  bottom: "conv1"
  top: "pool1"
  pooling_param {
    pool: MAX
    kernel_size: 2
    stride: 2
  }
}
layer {
  name: "conv2"
  type: "Convolution"
  bottom: "pool1"
  top: "conv2"
  convolution_param {
    num_output: 150
    pad: 0
    kernel_size: 4
    group: 1
    stride: 1
    weight_filler {
      type: "xavier"
    }
  }
}
layer {
  name: "conv2_prescale"
  type: "Scale"
  bottom: "conv2"
  top: "conv2"
  param {
    lr_mult: 0
    decay_mult: 0
  }
  scale_param {
    filler {
      value: 0.6666
    }
    bias_term: false
  }
}
layer {
  name: "conv2_sTanH"
  type: "TanH"
  bottom: "conv2"
  top: "conv2"
}
layer {
  name: "conv2_postscale"
  type: "Scale"
  bottom: "conv2"
  top: "conv2"
  param {
    lr_mult: 0
    decay_mult: 0
  }
  scale_param {
    filler {
      value: 1.7159
    }
    bias_term: false
  }
}
layer {
  name: "pool2"
  type: "Pooling"
  bottom: "conv2"
  top: "pool2"
  pooling_param {
    pool: MAX
    kernel_size: 2
    stride: 2
  }
}
layer {
  name: "conv3"
  type: "Convolution"
  bottom: "pool2"
  top: "conv3"
  convolution_param {
    num_output: 250
    pad: 0
    kernel_size: 4
    group: 1
    stride: 1
    weight_filler {
      type: "xavier"
    }
  }
}
layer {
  name: "conv3_prescale"
  type: "Scale"
  bottom: "conv3"
  top: "conv3"
  param {
    lr_mult: 0
    decay_mult: 0
  }
  scale_param {
    filler {
      value: 0.6666
    }
    bias_term: false
  }
}
layer {
  name: "conv3_sTanH"
  type: "TanH"
  bottom: "conv3"
  top: "conv3"
}
layer {
  name: "conv3_postscale"
  type: "Scale"
  bottom: "conv3"
  top: "conv3"
  param {
    lr_mult: 0
    decay_mult: 0
  }
  scale_param {
    filler {
      value: 1.7159
    }
    bias_term: false
  }
}
layer {
  name: "pool3"
  type: "Pooling"
  bottom: "conv3"
  top: "pool3"
  pooling_param {
    pool: MAX
    kernel_size: 2
    stride: 2
  }
}
layer {
  name: "fc4_300"
  type: "InnerProduct"
  bottom: "pool3"
  top: "fc4_300"
  inner_product_param {
    num_output: 300
    weight_filler {
      type: "xavier"
    }
  }
}
layer {
  name: "fc4_prescale"
  type: "Scale"
  bottom: "fc4_300"
  top: "fc4_300"
  param {
    lr_mult: 0
    decay_mult: 0
  }
  scale_param {
    filler {
      value: 0.6666
    }
    bias_term: false
  }
}
layer {
  name: "fc4_sTanH"
  type: "TanH"
  bottom: "fc4_300"
  top: "fc4_300"
}
layer {
  name: "fc4_postscale"
  type: "Scale"
  bottom: "fc4_300"
  top: "fc4_300"
  param {
    lr_mult: 0
    decay_mult: 0
  }
  scale_param {
    filler {
      value: 1.7159
    }
    bias_term: false
  }
}
layer {
  name: "fc5_116"
  type: "InnerProduct"
  bottom: "fc4_300"
  top: "fc5_classes"
  inner_product_param {
    num_output: 116
    weight_filler {
      type: "xavier"
    }
  }
}
layer {
  name: "softmax"
  type: "Softmax"
  bottom: "fc5_classes"
  top: "softmax"
}
layer {
  name: "loss"
  type: "MultinomialLogisticLoss"
  bottom: "softmax"
  bottom: "label"
  top: "loss"
}
layer {
  name: "accuracy_1"
  type: "Accuracy"
  bottom: "fc5_classes"
  bottom: "label"
  top: "accuracy_1"
  accuracy_param {
    top_k: 1
  }
}
layer {
  name: "accuracy_5"
  type: "Accuracy"
  bottom: "fc5_classes"
  bottom: "label"
  top: "accuracy_5"
  accuracy_param {
    top_k: 5
  }
}
layer {
  name: "silence"
  type: "Silence"
  bottom: "accuracy_1"
  bottom: "accuracy_5"
}
I0506 00:48:22.979017 26132 layer_factory.hpp:77] Creating layer data
I0506 00:48:22.979812 26132 net.cpp:100] Creating Layer data
I0506 00:48:22.979828 26132 net.cpp:408] data -> data
I0506 00:48:22.979851 26132 net.cpp:408] data -> label
I0506 00:48:22.988777 26445 db_lmdb.cpp:35] Opened lmdb ../local_data/lmdb/RTSD/orig/train/lmdb
I0506 00:48:23.006254 26132 data_layer.cpp:41] output data size: 512,3,48,48
I0506 00:48:23.066115 26132 net.cpp:150] Setting up data
I0506 00:48:23.066148 26132 net.cpp:157] Top shape: 512 3 48 48 (3538944)
I0506 00:48:23.066154 26132 net.cpp:157] Top shape: 512 (512)
I0506 00:48:23.066157 26132 net.cpp:165] Memory required for data: 14157824
I0506 00:48:23.066170 26132 layer_factory.hpp:77] Creating layer label_data_1_split
I0506 00:48:23.066187 26132 net.cpp:100] Creating Layer label_data_1_split
I0506 00:48:23.066195 26132 net.cpp:434] label_data_1_split <- label
I0506 00:48:23.066213 26132 net.cpp:408] label_data_1_split -> label_data_1_split_0
I0506 00:48:23.066227 26132 net.cpp:408] label_data_1_split -> label_data_1_split_1
I0506 00:48:23.066236 26132 net.cpp:408] label_data_1_split -> label_data_1_split_2
I0506 00:48:23.066330 26132 net.cpp:150] Setting up label_data_1_split
I0506 00:48:23.066344 26132 net.cpp:157] Top shape: 512 (512)
I0506 00:48:23.066355 26132 net.cpp:157] Top shape: 512 (512)
I0506 00:48:23.066361 26132 net.cpp:157] Top shape: 512 (512)
I0506 00:48:23.066365 26132 net.cpp:165] Memory required for data: 14163968
I0506 00:48:23.066368 26132 layer_factory.hpp:77] Creating layer conv1
I0506 00:48:23.066387 26132 net.cpp:100] Creating Layer conv1
I0506 00:48:23.066393 26132 net.cpp:434] conv1 <- data
I0506 00:48:23.066401 26132 net.cpp:408] conv1 -> conv1
I0506 00:48:24.349982 26132 net.cpp:150] Setting up conv1
I0506 00:48:24.350009 26132 net.cpp:157] Top shape: 512 100 42 42 (90316800)
I0506 00:48:24.350014 26132 net.cpp:165] Memory required for data: 375431168
I0506 00:48:24.350037 26132 layer_factory.hpp:77] Creating layer conv1_prescale
I0506 00:48:24.350052 26132 net.cpp:100] Creating Layer conv1_prescale
I0506 00:48:24.350059 26132 net.cpp:434] conv1_prescale <- conv1
I0506 00:48:24.350064 26132 net.cpp:395] conv1_prescale -> conv1 (in-place)
I0506 00:48:24.350178 26132 net.cpp:150] Setting up conv1_prescale
I0506 00:48:24.350188 26132 net.cpp:157] Top shape: 512 100 42 42 (90316800)
I0506 00:48:24.350193 26132 net.cpp:165] Memory required for data: 736698368
I0506 00:48:24.350199 26132 layer_factory.hpp:77] Creating layer conv1_sTanH
I0506 00:48:24.350208 26132 net.cpp:100] Creating Layer conv1_sTanH
I0506 00:48:24.350213 26132 net.cpp:434] conv1_sTanH <- conv1
I0506 00:48:24.350217 26132 net.cpp:395] conv1_sTanH -> conv1 (in-place)
I0506 00:48:24.350414 26132 net.cpp:150] Setting up conv1_sTanH
I0506 00:48:24.350427 26132 net.cpp:157] Top shape: 512 100 42 42 (90316800)
I0506 00:48:24.350451 26132 net.cpp:165] Memory required for data: 1097965568
I0506 00:48:24.350456 26132 layer_factory.hpp:77] Creating layer conv1_postscale
I0506 00:48:24.350466 26132 net.cpp:100] Creating Layer conv1_postscale
I0506 00:48:24.350471 26132 net.cpp:434] conv1_postscale <- conv1
I0506 00:48:24.350476 26132 net.cpp:395] conv1_postscale -> conv1 (in-place)
I0506 00:48:24.350579 26132 net.cpp:150] Setting up conv1_postscale
I0506 00:48:24.350589 26132 net.cpp:157] Top shape: 512 100 42 42 (90316800)
I0506 00:48:24.350592 26132 net.cpp:165] Memory required for data: 1459232768
I0506 00:48:24.350597 26132 layer_factory.hpp:77] Creating layer pool1
I0506 00:48:24.350606 26132 net.cpp:100] Creating Layer pool1
I0506 00:48:24.350610 26132 net.cpp:434] pool1 <- conv1
I0506 00:48:24.350616 26132 net.cpp:408] pool1 -> pool1
I0506 00:48:24.350666 26132 net.cpp:150] Setting up pool1
I0506 00:48:24.350673 26132 net.cpp:157] Top shape: 512 100 21 21 (22579200)
I0506 00:48:24.350677 26132 net.cpp:165] Memory required for data: 1549549568
I0506 00:48:24.350682 26132 layer_factory.hpp:77] Creating layer conv2
I0506 00:48:24.350692 26132 net.cpp:100] Creating Layer conv2
I0506 00:48:24.350697 26132 net.cpp:434] conv2 <- pool1
I0506 00:48:24.350703 26132 net.cpp:408] conv2 -> conv2
I0506 00:48:24.368407 26132 net.cpp:150] Setting up conv2
I0506 00:48:24.368428 26132 net.cpp:157] Top shape: 512 150 18 18 (24883200)
I0506 00:48:24.368432 26132 net.cpp:165] Memory required for data: 1649082368
I0506 00:48:24.368443 26132 layer_factory.hpp:77] Creating layer conv2_prescale
I0506 00:48:24.368455 26132 net.cpp:100] Creating Layer conv2_prescale
I0506 00:48:24.368459 26132 net.cpp:434] conv2_prescale <- conv2
I0506 00:48:24.368465 26132 net.cpp:395] conv2_prescale -> conv2 (in-place)
I0506 00:48:24.368590 26132 net.cpp:150] Setting up conv2_prescale
I0506 00:48:24.368602 26132 net.cpp:157] Top shape: 512 150 18 18 (24883200)
I0506 00:48:24.368607 26132 net.cpp:165] Memory required for data: 1748615168
I0506 00:48:24.368613 26132 layer_factory.hpp:77] Creating layer conv2_sTanH
I0506 00:48:24.368620 26132 net.cpp:100] Creating Layer conv2_sTanH
I0506 00:48:24.368625 26132 net.cpp:434] conv2_sTanH <- conv2
I0506 00:48:24.368630 26132 net.cpp:395] conv2_sTanH -> conv2 (in-place)
I0506 00:48:24.383751 26132 net.cpp:150] Setting up conv2_sTanH
I0506 00:48:24.383770 26132 net.cpp:157] Top shape: 512 150 18 18 (24883200)
I0506 00:48:24.383774 26132 net.cpp:165] Memory required for data: 1848147968
I0506 00:48:24.383779 26132 layer_factory.hpp:77] Creating layer conv2_postscale
I0506 00:48:24.383788 26132 net.cpp:100] Creating Layer conv2_postscale
I0506 00:48:24.383793 26132 net.cpp:434] conv2_postscale <- conv2
I0506 00:48:24.383800 26132 net.cpp:395] conv2_postscale -> conv2 (in-place)
I0506 00:48:24.383927 26132 net.cpp:150] Setting up conv2_postscale
I0506 00:48:24.383940 26132 net.cpp:157] Top shape: 512 150 18 18 (24883200)
I0506 00:48:24.383944 26132 net.cpp:165] Memory required for data: 1947680768
I0506 00:48:24.383949 26132 layer_factory.hpp:77] Creating layer pool2
I0506 00:48:24.383960 26132 net.cpp:100] Creating Layer pool2
I0506 00:48:24.383965 26132 net.cpp:434] pool2 <- conv2
I0506 00:48:24.383970 26132 net.cpp:408] pool2 -> pool2
I0506 00:48:24.384017 26132 net.cpp:150] Setting up pool2
I0506 00:48:24.384027 26132 net.cpp:157] Top shape: 512 150 9 9 (6220800)
I0506 00:48:24.384029 26132 net.cpp:165] Memory required for data: 1972563968
I0506 00:48:24.384033 26132 layer_factory.hpp:77] Creating layer conv3
I0506 00:48:24.384043 26132 net.cpp:100] Creating Layer conv3
I0506 00:48:24.384048 26132 net.cpp:434] conv3 <- pool2
I0506 00:48:24.384055 26132 net.cpp:408] conv3 -> conv3
I0506 00:48:24.390189 26132 net.cpp:150] Setting up conv3
I0506 00:48:24.390208 26132 net.cpp:157] Top shape: 512 250 6 6 (4608000)
I0506 00:48:24.390211 26132 net.cpp:165] Memory required for data: 1990995968
I0506 00:48:24.390223 26132 layer_factory.hpp:77] Creating layer conv3_prescale
I0506 00:48:24.390233 26132 net.cpp:100] Creating Layer conv3_prescale
I0506 00:48:24.390254 26132 net.cpp:434] conv3_prescale <- conv3
I0506 00:48:24.390260 26132 net.cpp:395] conv3_prescale -> conv3 (in-place)
I0506 00:48:24.390363 26132 net.cpp:150] Setting up conv3_prescale
I0506 00:48:24.390374 26132 net.cpp:157] Top shape: 512 250 6 6 (4608000)
I0506 00:48:24.390377 26132 net.cpp:165] Memory required for data: 2009427968
I0506 00:48:24.390383 26132 layer_factory.hpp:77] Creating layer conv3_sTanH
I0506 00:48:24.390388 26132 net.cpp:100] Creating Layer conv3_sTanH
I0506 00:48:24.390393 26132 net.cpp:434] conv3_sTanH <- conv3
I0506 00:48:24.390399 26132 net.cpp:395] conv3_sTanH -> conv3 (in-place)
I0506 00:48:24.391966 26132 net.cpp:150] Setting up conv3_sTanH
I0506 00:48:24.391983 26132 net.cpp:157] Top shape: 512 250 6 6 (4608000)
I0506 00:48:24.391989 26132 net.cpp:165] Memory required for data: 2027859968
I0506 00:48:24.391993 26132 layer_factory.hpp:77] Creating layer conv3_postscale
I0506 00:48:24.392002 26132 net.cpp:100] Creating Layer conv3_postscale
I0506 00:48:24.392009 26132 net.cpp:434] conv3_postscale <- conv3
I0506 00:48:24.392014 26132 net.cpp:395] conv3_postscale -> conv3 (in-place)
I0506 00:48:24.392122 26132 net.cpp:150] Setting up conv3_postscale
I0506 00:48:24.392132 26132 net.cpp:157] Top shape: 512 250 6 6 (4608000)
I0506 00:48:24.392135 26132 net.cpp:165] Memory required for data: 2046291968
I0506 00:48:24.392141 26132 layer_factory.hpp:77] Creating layer pool3
I0506 00:48:24.392155 26132 net.cpp:100] Creating Layer pool3
I0506 00:48:24.392160 26132 net.cpp:434] pool3 <- conv3
I0506 00:48:24.392166 26132 net.cpp:408] pool3 -> pool3
I0506 00:48:24.392210 26132 net.cpp:150] Setting up pool3
I0506 00:48:24.392217 26132 net.cpp:157] Top shape: 512 250 3 3 (1152000)
I0506 00:48:24.392221 26132 net.cpp:165] Memory required for data: 2050899968
I0506 00:48:24.392225 26132 layer_factory.hpp:77] Creating layer fc4_300
I0506 00:48:24.392233 26132 net.cpp:100] Creating Layer fc4_300
I0506 00:48:24.392238 26132 net.cpp:434] fc4_300 <- pool3
I0506 00:48:24.392243 26132 net.cpp:408] fc4_300 -> fc4_300
I0506 00:48:24.399212 26132 net.cpp:150] Setting up fc4_300
I0506 00:48:24.399231 26132 net.cpp:157] Top shape: 512 300 (153600)
I0506 00:48:24.399235 26132 net.cpp:165] Memory required for data: 2051514368
I0506 00:48:24.399243 26132 layer_factory.hpp:77] Creating layer fc4_prescale
I0506 00:48:24.399251 26132 net.cpp:100] Creating Layer fc4_prescale
I0506 00:48:24.399255 26132 net.cpp:434] fc4_prescale <- fc4_300
I0506 00:48:24.399263 26132 net.cpp:395] fc4_prescale -> fc4_300 (in-place)
I0506 00:48:24.399360 26132 net.cpp:150] Setting up fc4_prescale
I0506 00:48:24.399370 26132 net.cpp:157] Top shape: 512 300 (153600)
I0506 00:48:24.399374 26132 net.cpp:165] Memory required for data: 2052128768
I0506 00:48:24.399379 26132 layer_factory.hpp:77] Creating layer fc4_sTanH
I0506 00:48:24.399384 26132 net.cpp:100] Creating Layer fc4_sTanH
I0506 00:48:24.399389 26132 net.cpp:434] fc4_sTanH <- fc4_300
I0506 00:48:24.399394 26132 net.cpp:395] fc4_sTanH -> fc4_300 (in-place)
I0506 00:48:24.399593 26132 net.cpp:150] Setting up fc4_sTanH
I0506 00:48:24.399605 26132 net.cpp:157] Top shape: 512 300 (153600)
I0506 00:48:24.399610 26132 net.cpp:165] Memory required for data: 2052743168
I0506 00:48:24.399613 26132 layer_factory.hpp:77] Creating layer fc4_postscale
I0506 00:48:24.399619 26132 net.cpp:100] Creating Layer fc4_postscale
I0506 00:48:24.399624 26132 net.cpp:434] fc4_postscale <- fc4_300
I0506 00:48:24.399632 26132 net.cpp:395] fc4_postscale -> fc4_300 (in-place)
I0506 00:48:24.399737 26132 net.cpp:150] Setting up fc4_postscale
I0506 00:48:24.399746 26132 net.cpp:157] Top shape: 512 300 (153600)
I0506 00:48:24.399749 26132 net.cpp:165] Memory required for data: 2053357568
I0506 00:48:24.399755 26132 layer_factory.hpp:77] Creating layer fc5_116
I0506 00:48:24.399760 26132 net.cpp:100] Creating Layer fc5_116
I0506 00:48:24.399765 26132 net.cpp:434] fc5_116 <- fc4_300
I0506 00:48:24.399773 26132 net.cpp:408] fc5_116 -> fc5_classes
I0506 00:48:24.410894 26132 net.cpp:150] Setting up fc5_116
I0506 00:48:24.410930 26132 net.cpp:157] Top shape: 512 116 (59392)
I0506 00:48:24.410935 26132 net.cpp:165] Memory required for data: 2053595136
I0506 00:48:24.410948 26132 layer_factory.hpp:77] Creating layer fc5_classes_fc5_116_0_split
I0506 00:48:24.410959 26132 net.cpp:100] Creating Layer fc5_classes_fc5_116_0_split
I0506 00:48:24.410965 26132 net.cpp:434] fc5_classes_fc5_116_0_split <- fc5_classes
I0506 00:48:24.410972 26132 net.cpp:408] fc5_classes_fc5_116_0_split -> fc5_classes_fc5_116_0_split_0
I0506 00:48:24.410982 26132 net.cpp:408] fc5_classes_fc5_116_0_split -> fc5_classes_fc5_116_0_split_1
I0506 00:48:24.410990 26132 net.cpp:408] fc5_classes_fc5_116_0_split -> fc5_classes_fc5_116_0_split_2
I0506 00:48:24.411049 26132 net.cpp:150] Setting up fc5_classes_fc5_116_0_split
I0506 00:48:24.411058 26132 net.cpp:157] Top shape: 512 116 (59392)
I0506 00:48:24.411062 26132 net.cpp:157] Top shape: 512 116 (59392)
I0506 00:48:24.411065 26132 net.cpp:157] Top shape: 512 116 (59392)
I0506 00:48:24.411068 26132 net.cpp:165] Memory required for data: 2054307840
I0506 00:48:24.411075 26132 layer_factory.hpp:77] Creating layer softmax
I0506 00:48:24.411084 26132 net.cpp:100] Creating Layer softmax
I0506 00:48:24.411089 26132 net.cpp:434] softmax <- fc5_classes_fc5_116_0_split_0
I0506 00:48:24.411095 26132 net.cpp:408] softmax -> softmax
I0506 00:48:24.411361 26132 net.cpp:150] Setting up softmax
I0506 00:48:24.411375 26132 net.cpp:157] Top shape: 512 116 (59392)
I0506 00:48:24.411377 26132 net.cpp:165] Memory required for data: 2054545408
I0506 00:48:24.411381 26132 layer_factory.hpp:77] Creating layer loss
I0506 00:48:24.411389 26132 net.cpp:100] Creating Layer loss
I0506 00:48:24.411396 26132 net.cpp:434] loss <- softmax
I0506 00:48:24.411401 26132 net.cpp:434] loss <- label_data_1_split_0
I0506 00:48:24.411406 26132 net.cpp:408] loss -> loss
…
