…
I0506 00:31:25.631256  9714 solver.cpp:93] Creating training net from train_net file: ./Prototxt/experiment_13/RTSD/orig/trial_1/train.prototxt
I0506 00:31:25.631769  9714 net.cpp:58] Initializing net from parameters: 
state {
  phase: TRAIN
  level: 0
  stage: ""
}
layer {
  name: "data"
  type: "Data"
  top: "data"
  top: "label"
  include {
    phase: TRAIN
  }
  transform_param {
    scale: 0.0039215689
    mirror: false
    crop_size: 48
    mean_value: 119
    mean_value: 113
    mean_value: 113
  }
  data_param {
    source: "../local_data/lmdb/RTSD/orig/train/lmdb"
    batch_size: 512
    backend: LMDB
  }
}
layer {
  name: "conv1"
  type: "Convolution"
  bottom: "data"
  top: "conv1"
  convolution_param {
    num_output: 100
    pad: 0
    kernel_size: 7
    group: 1
    stride: 1
    weight_filler {
      type: "xavier"
    }
  }
}
layer {
  name: "conv1_relu"
  type: "ReLU"
  bottom: "conv1"
  top: "conv1"
}
layer {
  name: "pool1"
  type: "Pooling"
  bottom: "conv1"
  top: "pool1"
  pooling_param {
    pool: MAX
    kernel_size: 2
    stride: 2
  }
}
layer {
  name: "conv2"
  type: "Convolution"
  bottom: "pool1"
  top: "conv2"
  convolution_param {
    num_output: 150
    pad: 0
    kernel_size: 4
    group: 1
    stride: 1
    weight_filler {
      type: "xavier"
    }
  }
}
layer {
  name: "conv2_relu"
  type: "ReLU"
  bottom: "conv2"
  top: "conv2"
}
layer {
  name: "pool2"
  type: "Pooling"
  bottom: "conv2"
  top: "pool2"
  pooling_param {
    pool: MAX
    kernel_size: 2
    stride: 2
  }
}
layer {
  name: "conv3"
  type: "Convolution"
  bottom: "pool2"
  top: "conv3"
  convolution_param {
    num_output: 250
    pad: 0
    kernel_size: 4
    group: 1
    stride: 1
    weight_filler {
      type: "xavier"
    }
  }
}
layer {
  name: "conv3_relu"
  type: "ReLU"
  bottom: "conv3"
  top: "conv3"
}
layer {
  name: "pool3"
  type: "Pooling"
  bottom: "conv3"
  top: "pool3"
  pooling_param {
    pool: MAX
    kernel_size: 2
    stride: 2
  }
}
layer {
  name: "fc4_300"
  type: "InnerProduct"
  bottom: "pool3"
  top: "fc4_300"
  inner_product_param {
    num_output: 300
    weight_filler {
      type: "xavier"
    }
  }
}
layer {
  name: "fc4_relu"
  type: "ReLU"
  bottom: "fc4_300"
  top: "fc4_300"
}
layer {
  name: "fc5_116"
  type: "InnerProduct"
  bottom: "fc4_300"
  top: "fc5_classes"
  inner_product_param {
    num_output: 116
    weight_filler {
      type: "xavier"
    }
  }
}
layer {
  name: "softmax"
  type: "Softmax"
  bottom: "fc5_classes"
  top: "softmax"
}
layer {
  name: "loss"
  type: "MultinomialLogisticLoss"
  bottom: "softmax"
  bottom: "label"
  top: "loss"
}
layer {
  name: "accuracy_1"
  type: "Accuracy"
  bottom: "fc5_classes"
  bottom: "label"
  top: "accuracy_1"
  accuracy_param {
    top_k: 1
  }
}
layer {
  name: "accuracy_5"
  type: "Accuracy"
  bottom: "fc5_classes"
  bottom: "label"
  top: "accuracy_5"
  accuracy_param {
    top_k: 5
  }
}
layer {
  name: "silence"
  type: "Silence"
  bottom: "accuracy_1"
  bottom: "accuracy_5"
}
I0506 00:31:25.631959  9714 layer_factory.hpp:77] Creating layer data
I0506 00:31:25.633117  9714 net.cpp:100] Creating Layer data
I0506 00:31:25.633142  9714 net.cpp:408] data -> data
I0506 00:31:25.633183  9714 net.cpp:408] data -> label
I0506 00:31:25.642707  9847 db_lmdb.cpp:35] Opened lmdb ../local_data/lmdb/RTSD/orig/train/lmdb
I0506 00:31:25.666883  9714 data_layer.cpp:41] output data size: 512,3,48,48
I0506 00:31:25.719627  9714 net.cpp:150] Setting up data
I0506 00:31:25.719683  9714 net.cpp:157] Top shape: 512 3 48 48 (3538944)
I0506 00:31:25.719693  9714 net.cpp:157] Top shape: 512 (512)
I0506 00:31:25.719698  9714 net.cpp:165] Memory required for data: 14157824
I0506 00:31:25.719712  9714 layer_factory.hpp:77] Creating layer label_data_1_split
I0506 00:31:25.719730  9714 net.cpp:100] Creating Layer label_data_1_split
I0506 00:31:25.719741  9714 net.cpp:434] label_data_1_split <- label
I0506 00:31:25.719761  9714 net.cpp:408] label_data_1_split -> label_data_1_split_0
I0506 00:31:25.719779  9714 net.cpp:408] label_data_1_split -> label_data_1_split_1
I0506 00:31:25.719795  9714 net.cpp:408] label_data_1_split -> label_data_1_split_2
I0506 00:31:25.719898  9714 net.cpp:150] Setting up label_data_1_split
I0506 00:31:25.719913  9714 net.cpp:157] Top shape: 512 (512)
I0506 00:31:25.719923  9714 net.cpp:157] Top shape: 512 (512)
I0506 00:31:25.719930  9714 net.cpp:157] Top shape: 512 (512)
I0506 00:31:25.719938  9714 net.cpp:165] Memory required for data: 14163968
I0506 00:31:25.719944  9714 layer_factory.hpp:77] Creating layer conv1
I0506 00:31:25.719967  9714 net.cpp:100] Creating Layer conv1
I0506 00:31:25.719975  9714 net.cpp:434] conv1 <- data
I0506 00:31:25.719987  9714 net.cpp:408] conv1 -> conv1
I0506 00:31:26.271980  9714 net.cpp:150] Setting up conv1
I0506 00:31:26.272007  9714 net.cpp:157] Top shape: 512 100 42 42 (90316800)
I0506 00:31:26.272011  9714 net.cpp:165] Memory required for data: 375431168
I0506 00:31:26.272034  9714 layer_factory.hpp:77] Creating layer conv1_relu
I0506 00:31:26.272047  9714 net.cpp:100] Creating Layer conv1_relu
I0506 00:31:26.272053  9714 net.cpp:434] conv1_relu <- conv1
I0506 00:31:26.272058  9714 net.cpp:395] conv1_relu -> conv1 (in-place)
I0506 00:31:26.272254  9714 net.cpp:150] Setting up conv1_relu
I0506 00:31:26.272266  9714 net.cpp:157] Top shape: 512 100 42 42 (90316800)
I0506 00:31:26.272270  9714 net.cpp:165] Memory required for data: 736698368
I0506 00:31:26.272274  9714 layer_factory.hpp:77] Creating layer pool1
I0506 00:31:26.272284  9714 net.cpp:100] Creating Layer pool1
I0506 00:31:26.272289  9714 net.cpp:434] pool1 <- conv1
I0506 00:31:26.272295  9714 net.cpp:408] pool1 -> pool1
I0506 00:31:26.272349  9714 net.cpp:150] Setting up pool1
I0506 00:31:26.272359  9714 net.cpp:157] Top shape: 512 100 21 21 (22579200)
I0506 00:31:26.272362  9714 net.cpp:165] Memory required for data: 827015168
I0506 00:31:26.272366  9714 layer_factory.hpp:77] Creating layer conv2
I0506 00:31:26.272377  9714 net.cpp:100] Creating Layer conv2
I0506 00:31:26.272380  9714 net.cpp:434] conv2 <- pool1
I0506 00:31:26.272385  9714 net.cpp:408] conv2 -> conv2
I0506 00:31:26.287680  9714 net.cpp:150] Setting up conv2
I0506 00:31:26.287699  9714 net.cpp:157] Top shape: 512 150 18 18 (24883200)
I0506 00:31:26.287703  9714 net.cpp:165] Memory required for data: 926547968
I0506 00:31:26.287714  9714 layer_factory.hpp:77] Creating layer conv2_relu
I0506 00:31:26.287720  9714 net.cpp:100] Creating Layer conv2_relu
I0506 00:31:26.287726  9714 net.cpp:434] conv2_relu <- conv2
I0506 00:31:26.287732  9714 net.cpp:395] conv2_relu -> conv2 (in-place)
I0506 00:31:26.295560  9714 net.cpp:150] Setting up conv2_relu
I0506 00:31:26.295581  9714 net.cpp:157] Top shape: 512 150 18 18 (24883200)
I0506 00:31:26.295584  9714 net.cpp:165] Memory required for data: 1026080768
I0506 00:31:26.295588  9714 layer_factory.hpp:77] Creating layer pool2
I0506 00:31:26.295598  9714 net.cpp:100] Creating Layer pool2
I0506 00:31:26.295600  9714 net.cpp:434] pool2 <- conv2
I0506 00:31:26.295606  9714 net.cpp:408] pool2 -> pool2
I0506 00:31:26.295660  9714 net.cpp:150] Setting up pool2
I0506 00:31:26.295670  9714 net.cpp:157] Top shape: 512 150 9 9 (6220800)
I0506 00:31:26.295672  9714 net.cpp:165] Memory required for data: 1050963968
I0506 00:31:26.295675  9714 layer_factory.hpp:77] Creating layer conv3
I0506 00:31:26.295686  9714 net.cpp:100] Creating Layer conv3
I0506 00:31:26.295689  9714 net.cpp:434] conv3 <- pool2
I0506 00:31:26.295694  9714 net.cpp:408] conv3 -> conv3
I0506 00:31:26.305939  9714 net.cpp:150] Setting up conv3
I0506 00:31:26.305959  9714 net.cpp:157] Top shape: 512 250 6 6 (4608000)
I0506 00:31:26.305963  9714 net.cpp:165] Memory required for data: 1069395968
I0506 00:31:26.305974  9714 layer_factory.hpp:77] Creating layer conv3_relu
I0506 00:31:26.305981  9714 net.cpp:100] Creating Layer conv3_relu
I0506 00:31:26.305985  9714 net.cpp:434] conv3_relu <- conv3
I0506 00:31:26.305990  9714 net.cpp:395] conv3_relu -> conv3 (in-place)
I0506 00:31:26.308521  9714 net.cpp:150] Setting up conv3_relu
I0506 00:31:26.308540  9714 net.cpp:157] Top shape: 512 250 6 6 (4608000)
I0506 00:31:26.308543  9714 net.cpp:165] Memory required for data: 1087827968
I0506 00:31:26.308547  9714 layer_factory.hpp:77] Creating layer pool3
I0506 00:31:26.308555  9714 net.cpp:100] Creating Layer pool3
I0506 00:31:26.308559  9714 net.cpp:434] pool3 <- conv3
I0506 00:31:26.308565  9714 net.cpp:408] pool3 -> pool3
I0506 00:31:26.308615  9714 net.cpp:150] Setting up pool3
I0506 00:31:26.308624  9714 net.cpp:157] Top shape: 512 250 3 3 (1152000)
I0506 00:31:26.308627  9714 net.cpp:165] Memory required for data: 1092435968
I0506 00:31:26.308630  9714 layer_factory.hpp:77] Creating layer fc4_300
I0506 00:31:26.308639  9714 net.cpp:100] Creating Layer fc4_300
I0506 00:31:26.308641  9714 net.cpp:434] fc4_300 <- pool3
I0506 00:31:26.308646  9714 net.cpp:408] fc4_300 -> fc4_300
I0506 00:31:26.315153  9714 net.cpp:150] Setting up fc4_300
I0506 00:31:26.315174  9714 net.cpp:157] Top shape: 512 300 (153600)
I0506 00:31:26.315177  9714 net.cpp:165] Memory required for data: 1093050368
I0506 00:31:26.315186  9714 layer_factory.hpp:77] Creating layer fc4_relu
I0506 00:31:26.315192  9714 net.cpp:100] Creating Layer fc4_relu
I0506 00:31:26.315196  9714 net.cpp:434] fc4_relu <- fc4_300
I0506 00:31:26.315201  9714 net.cpp:395] fc4_relu -> fc4_300 (in-place)
I0506 00:31:26.315398  9714 net.cpp:150] Setting up fc4_relu
I0506 00:31:26.315412  9714 net.cpp:157] Top shape: 512 300 (153600)
I0506 00:31:26.315414  9714 net.cpp:165] Memory required for data: 1093664768
I0506 00:31:26.315418  9714 layer_factory.hpp:77] Creating layer fc5_116
I0506 00:31:26.315425  9714 net.cpp:100] Creating Layer fc5_116
I0506 00:31:26.315428  9714 net.cpp:434] fc5_116 <- fc4_300
I0506 00:31:26.315434  9714 net.cpp:408] fc5_116 -> fc5_classes
I0506 00:31:26.320731  9714 net.cpp:150] Setting up fc5_116
I0506 00:31:26.320749  9714 net.cpp:157] Top shape: 512 116 (59392)
I0506 00:31:26.320754  9714 net.cpp:165] Memory required for data: 1093902336
I0506 00:31:26.320765  9714 layer_factory.hpp:77] Creating layer fc5_classes_fc5_116_0_split
I0506 00:31:26.320772  9714 net.cpp:100] Creating Layer fc5_classes_fc5_116_0_split
I0506 00:31:26.320776  9714 net.cpp:434] fc5_classes_fc5_116_0_split <- fc5_classes
I0506 00:31:26.320782  9714 net.cpp:408] fc5_classes_fc5_116_0_split -> fc5_classes_fc5_116_0_split_0
I0506 00:31:26.320791  9714 net.cpp:408] fc5_classes_fc5_116_0_split -> fc5_classes_fc5_116_0_split_1
I0506 00:31:26.320796  9714 net.cpp:408] fc5_classes_fc5_116_0_split -> fc5_classes_fc5_116_0_split_2
I0506 00:31:26.320848  9714 net.cpp:150] Setting up fc5_classes_fc5_116_0_split
I0506 00:31:26.320857  9714 net.cpp:157] Top shape: 512 116 (59392)
I0506 00:31:26.320860  9714 net.cpp:157] Top shape: 512 116 (59392)
I0506 00:31:26.320863  9714 net.cpp:157] Top shape: 512 116 (59392)
I0506 00:31:26.320865  9714 net.cpp:165] Memory required for data: 1094615040
I0506 00:31:26.320868  9714 layer_factory.hpp:77] Creating layer softmax
I0506 00:31:26.320874  9714 net.cpp:100] Creating Layer softmax
I0506 00:31:26.320878  9714 net.cpp:434] softmax <- fc5_classes_fc5_116_0_split_0
I0506 00:31:26.320883  9714 net.cpp:408] softmax -> softmax
I0506 00:31:26.321136  9714 net.cpp:150] Setting up softmax
I0506 00:31:26.321149  9714 net.cpp:157] Top shape: 512 116 (59392)
I0506 00:31:26.321151  9714 net.cpp:165] Memory required for data: 1094852608
I0506 00:31:26.321156  9714 layer_factory.hpp:77] Creating layer loss
I0506 00:31:26.321164  9714 net.cpp:100] Creating Layer loss
I0506 00:31:26.321184  9714 net.cpp:434] loss <- softmax
I0506 00:31:26.321190  9714 net.cpp:434] loss <- label_data_1_split_0
I0506 00:31:26.321195  9714 net.cpp:408] loss -> loss
…
