…
I0506 01:17:33.910166  9947 solver.cpp:93] Creating training net from train_net file: ./Prototxt/experiment_13/RTSD/orig/trial_1/train.prototxt
I0506 01:17:33.910748  9947 net.cpp:58] Initializing net from parameters: 
state {
  phase: TRAIN
  level: 0
  stage: ""
}
layer {
  name: "data"
  type: "Data"
  top: "data"
  top: "label"
  include {
    phase: TRAIN
  }
  transform_param {
    scale: 0.0039215689
    mirror: false
    crop_size: 48
    mean_value: 119
    mean_value: 113
    mean_value: 113
  }
  data_param {
    source: "../local_data/lmdb/RTSD/orig/train/lmdb"
    batch_size: 512
    backend: LMDB
  }
}
layer {
  name: "conv1"
  type: "Convolution"
  bottom: "data"
  top: "conv1"
  convolution_param {
    num_output: 100
    pad: 0
    kernel_size: 7
    group: 1
    stride: 1
    weight_filler {
      type: "xavier"
    }
  }
}
layer {
  name: "conv1_prescale"
  type: "Scale"
  bottom: "conv1"
  top: "conv1"
  param {
    lr_mult: 0
    decay_mult: 0
  }
  scale_param {
    filler {
      value: 0.6666
    }
    bias_term: false
  }
}
layer {
  name: "conv1_sTanH"
  type: "TanH"
  bottom: "conv1"
  top: "conv1"
}
layer {
  name: "conv1_postscale"
  type: "Scale"
  bottom: "conv1"
  top: "conv1"
  param {
    lr_mult: 0
    decay_mult: 0
  }
  scale_param {
    filler {
      value: 1.7159
    }
    bias_term: false
  }
}
layer {
  name: "pool1"
  type: "Pooling"
  bottom: "conv1"
  top: "pool1"
  pooling_param {
    pool: MAX
    kernel_size: 2
    stride: 2
  }
}
layer {
  name: "conv2"
  type: "Convolution"
  bottom: "pool1"
  top: "conv2"
  convolution_param {
    num_output: 150
    pad: 0
    kernel_size: 4
    group: 1
    stride: 1
    weight_filler {
      type: "xavier"
    }
  }
}
layer {
  name: "conv2_prescale"
  type: "Scale"
  bottom: "conv2"
  top: "conv2"
  param {
    lr_mult: 0
    decay_mult: 0
  }
  scale_param {
    filler {
      value: 0.6666
    }
    bias_term: false
  }
}
layer {
  name: "conv2_sTanH"
  type: "TanH"
  bottom: "conv2"
  top: "conv2"
}
layer {
  name: "conv2_postscale"
  type: "Scale"
  bottom: "conv2"
  top: "conv2"
  param {
    lr_mult: 0
    decay_mult: 0
  }
  scale_param {
    filler {
      value: 1.7159
    }
    bias_term: false
  }
}
layer {
  name: "pool2"
  type: "Pooling"
  bottom: "conv2"
  top: "pool2"
  pooling_param {
    pool: MAX
    kernel_size: 2
    stride: 2
  }
}
layer {
  name: "conv3"
  type: "Convolution"
  bottom: "pool2"
  top: "conv3"
  convolution_param {
    num_output: 250
    pad: 0
    kernel_size: 4
    group: 1
    stride: 1
    weight_filler {
      type: "xavier"
    }
  }
}
layer {
  name: "conv3_prescale"
  type: "Scale"
  bottom: "conv3"
  top: "conv3"
  param {
    lr_mult: 0
    decay_mult: 0
  }
  scale_param {
    filler {
      value: 0.6666
    }
    bias_term: false
  }
}
layer {
  name: "conv3_sTanH"
  type: "TanH"
  bottom: "conv3"
  top: "conv3"
}
layer {
  name: "conv3_postscale"
  type: "Scale"
  bottom: "conv3"
  top: "conv3"
  param {
    lr_mult: 0
    decay_mult: 0
  }
  scale_param {
    filler {
      value: 1.7159
    }
    bias_term: false
  }
}
layer {
  name: "pool3"
  type: "Pooling"
  bottom: "conv3"
  top: "pool3"
  pooling_param {
    pool: MAX
    kernel_size: 2
    stride: 2
  }
}
layer {
  name: "fc4_300"
  type: "InnerProduct"
  bottom: "pool3"
  top: "fc4_300"
  inner_product_param {
    num_output: 300
    weight_filler {
      type: "xavier"
    }
  }
}
layer {
  name: "fc4_prescale"
  type: "Scale"
  bottom: "fc4_300"
  top: "fc4_300"
  param {
    lr_mult: 0
    decay_mult: 0
  }
  scale_param {
    filler {
      value: 0.6666
    }
    bias_term: false
  }
}
layer {
  name: "fc4_sTanH"
  type: "TanH"
  bottom: "fc4_300"
  top: "fc4_300"
}
layer {
  name: "fc4_postscale"
  type: "Scale"
  bottom: "fc4_300"
  top: "fc4_300"
  param {
    lr_mult: 0
    decay_mult: 0
  }
  scale_param {
    filler {
      value: 1.7159
    }
    bias_term: false
  }
}
layer {
  name: "fc5_116"
  type: "InnerProduct"
  bottom: "fc4_300"
  top: "fc5_classes"
  inner_product_param {
    num_output: 116
    weight_filler {
      type: "xavier"
    }
  }
}
layer {
  name: "softmax"
  type: "Softmax"
  bottom: "fc5_classes"
  top: "softmax"
}
layer {
  name: "loss"
  type: "MultinomialLogisticLoss"
  bottom: "softmax"
  bottom: "label"
  top: "loss"
}
layer {
  name: "accuracy_1"
  type: "Accuracy"
  bottom: "fc5_classes"
  bottom: "label"
  top: "accuracy_1"
  accuracy_param {
    top_k: 1
  }
}
layer {
  name: "accuracy_5"
  type: "Accuracy"
  bottom: "fc5_classes"
  bottom: "label"
  top: "accuracy_5"
  accuracy_param {
    top_k: 5
  }
}
layer {
  name: "silence"
  type: "Silence"
  bottom: "accuracy_1"
  bottom: "accuracy_5"
}
I0506 01:17:33.910950  9947 layer_factory.hpp:77] Creating layer data
I0506 01:17:33.911953  9947 net.cpp:100] Creating Layer data
I0506 01:17:33.911978  9947 net.cpp:408] data -> data
I0506 01:17:33.912010  9947 net.cpp:408] data -> label
I0506 01:17:33.946419 10080 db_lmdb.cpp:35] Opened lmdb ../local_data/lmdb/RTSD/orig/train/lmdb
I0506 01:17:33.968778  9947 data_layer.cpp:41] output data size: 512,3,48,48
I0506 01:17:34.029963  9947 net.cpp:150] Setting up data
I0506 01:17:34.029995  9947 net.cpp:157] Top shape: 512 3 48 48 (3538944)
I0506 01:17:34.030002  9947 net.cpp:157] Top shape: 512 (512)
I0506 01:17:34.030006  9947 net.cpp:165] Memory required for data: 14157824
I0506 01:17:34.030019  9947 layer_factory.hpp:77] Creating layer label_data_1_split
I0506 01:17:34.030035  9947 net.cpp:100] Creating Layer label_data_1_split
I0506 01:17:34.030045  9947 net.cpp:434] label_data_1_split <- label
I0506 01:17:34.030062  9947 net.cpp:408] label_data_1_split -> label_data_1_split_0
I0506 01:17:34.030078  9947 net.cpp:408] label_data_1_split -> label_data_1_split_1
I0506 01:17:34.030097  9947 net.cpp:408] label_data_1_split -> label_data_1_split_2
I0506 01:17:34.030212  9947 net.cpp:150] Setting up label_data_1_split
I0506 01:17:34.030225  9947 net.cpp:157] Top shape: 512 (512)
I0506 01:17:34.030230  9947 net.cpp:157] Top shape: 512 (512)
I0506 01:17:34.030236  9947 net.cpp:157] Top shape: 512 (512)
I0506 01:17:34.030239  9947 net.cpp:165] Memory required for data: 14163968
I0506 01:17:34.030243  9947 layer_factory.hpp:77] Creating layer conv1
I0506 01:17:34.030268  9947 net.cpp:100] Creating Layer conv1
I0506 01:17:34.030274  9947 net.cpp:434] conv1 <- data
I0506 01:17:34.030284  9947 net.cpp:408] conv1 -> conv1
I0506 01:17:34.441786  9947 net.cpp:150] Setting up conv1
I0506 01:17:34.441815  9947 net.cpp:157] Top shape: 512 100 42 42 (90316800)
I0506 01:17:34.441820  9947 net.cpp:165] Memory required for data: 375431168
I0506 01:17:34.441851  9947 layer_factory.hpp:77] Creating layer conv1_prescale
I0506 01:17:34.441865  9947 net.cpp:100] Creating Layer conv1_prescale
I0506 01:17:34.441870  9947 net.cpp:434] conv1_prescale <- conv1
I0506 01:17:34.441877  9947 net.cpp:395] conv1_prescale -> conv1 (in-place)
I0506 01:17:34.442006  9947 net.cpp:150] Setting up conv1_prescale
I0506 01:17:34.442018  9947 net.cpp:157] Top shape: 512 100 42 42 (90316800)
I0506 01:17:34.442021  9947 net.cpp:165] Memory required for data: 736698368
I0506 01:17:34.442030  9947 layer_factory.hpp:77] Creating layer conv1_sTanH
I0506 01:17:34.442039  9947 net.cpp:100] Creating Layer conv1_sTanH
I0506 01:17:34.442047  9947 net.cpp:434] conv1_sTanH <- conv1
I0506 01:17:34.442052  9947 net.cpp:395] conv1_sTanH -> conv1 (in-place)
I0506 01:17:34.442291  9947 net.cpp:150] Setting up conv1_sTanH
I0506 01:17:34.442303  9947 net.cpp:157] Top shape: 512 100 42 42 (90316800)
I0506 01:17:34.442333  9947 net.cpp:165] Memory required for data: 1097965568
I0506 01:17:34.442340  9947 layer_factory.hpp:77] Creating layer conv1_postscale
I0506 01:17:34.442348  9947 net.cpp:100] Creating Layer conv1_postscale
I0506 01:17:34.442353  9947 net.cpp:434] conv1_postscale <- conv1
I0506 01:17:34.442359  9947 net.cpp:395] conv1_postscale -> conv1 (in-place)
I0506 01:17:34.442476  9947 net.cpp:150] Setting up conv1_postscale
I0506 01:17:34.442486  9947 net.cpp:157] Top shape: 512 100 42 42 (90316800)
I0506 01:17:34.442489  9947 net.cpp:165] Memory required for data: 1459232768
I0506 01:17:34.442497  9947 layer_factory.hpp:77] Creating layer pool1
I0506 01:17:34.442503  9947 net.cpp:100] Creating Layer pool1
I0506 01:17:34.442507  9947 net.cpp:434] pool1 <- conv1
I0506 01:17:34.442513  9947 net.cpp:408] pool1 -> pool1
I0506 01:17:34.442567  9947 net.cpp:150] Setting up pool1
I0506 01:17:34.442576  9947 net.cpp:157] Top shape: 512 100 21 21 (22579200)
I0506 01:17:34.442580  9947 net.cpp:165] Memory required for data: 1549549568
I0506 01:17:34.442584  9947 layer_factory.hpp:77] Creating layer conv2
I0506 01:17:34.442595  9947 net.cpp:100] Creating Layer conv2
I0506 01:17:34.442601  9947 net.cpp:434] conv2 <- pool1
I0506 01:17:34.442607  9947 net.cpp:408] conv2 -> conv2
I0506 01:17:34.458004  9947 net.cpp:150] Setting up conv2
I0506 01:17:34.458024  9947 net.cpp:157] Top shape: 512 150 18 18 (24883200)
I0506 01:17:34.458029  9947 net.cpp:165] Memory required for data: 1649082368
I0506 01:17:34.458042  9947 layer_factory.hpp:77] Creating layer conv2_prescale
I0506 01:17:34.458055  9947 net.cpp:100] Creating Layer conv2_prescale
I0506 01:17:34.458060  9947 net.cpp:434] conv2_prescale <- conv2
I0506 01:17:34.458066  9947 net.cpp:395] conv2_prescale -> conv2 (in-place)
I0506 01:17:34.458195  9947 net.cpp:150] Setting up conv2_prescale
I0506 01:17:34.458206  9947 net.cpp:157] Top shape: 512 150 18 18 (24883200)
I0506 01:17:34.458210  9947 net.cpp:165] Memory required for data: 1748615168
I0506 01:17:34.458219  9947 layer_factory.hpp:77] Creating layer conv2_sTanH
I0506 01:17:34.458225  9947 net.cpp:100] Creating Layer conv2_sTanH
I0506 01:17:34.458231  9947 net.cpp:434] conv2_sTanH <- conv2
I0506 01:17:34.458236  9947 net.cpp:395] conv2_sTanH -> conv2 (in-place)
I0506 01:17:34.462712  9947 net.cpp:150] Setting up conv2_sTanH
I0506 01:17:34.462733  9947 net.cpp:157] Top shape: 512 150 18 18 (24883200)
I0506 01:17:34.462738  9947 net.cpp:165] Memory required for data: 1848147968
I0506 01:17:34.462743  9947 layer_factory.hpp:77] Creating layer conv2_postscale
I0506 01:17:34.462751  9947 net.cpp:100] Creating Layer conv2_postscale
I0506 01:17:34.462756  9947 net.cpp:434] conv2_postscale <- conv2
I0506 01:17:34.462764  9947 net.cpp:395] conv2_postscale -> conv2 (in-place)
I0506 01:17:34.462882  9947 net.cpp:150] Setting up conv2_postscale
I0506 01:17:34.462893  9947 net.cpp:157] Top shape: 512 150 18 18 (24883200)
I0506 01:17:34.462896  9947 net.cpp:165] Memory required for data: 1947680768
I0506 01:17:34.462903  9947 layer_factory.hpp:77] Creating layer pool2
I0506 01:17:34.462911  9947 net.cpp:100] Creating Layer pool2
I0506 01:17:34.462918  9947 net.cpp:434] pool2 <- conv2
I0506 01:17:34.462924  9947 net.cpp:408] pool2 -> pool2
I0506 01:17:34.462973  9947 net.cpp:150] Setting up pool2
I0506 01:17:34.462983  9947 net.cpp:157] Top shape: 512 150 9 9 (6220800)
I0506 01:17:34.462988  9947 net.cpp:165] Memory required for data: 1972563968
I0506 01:17:34.462992  9947 layer_factory.hpp:77] Creating layer conv3
I0506 01:17:34.463003  9947 net.cpp:100] Creating Layer conv3
I0506 01:17:34.463008  9947 net.cpp:434] conv3 <- pool2
I0506 01:17:34.463021  9947 net.cpp:408] conv3 -> conv3
I0506 01:17:34.475029  9947 net.cpp:150] Setting up conv3
I0506 01:17:34.475064  9947 net.cpp:157] Top shape: 512 250 6 6 (4608000)
I0506 01:17:34.475080  9947 net.cpp:165] Memory required for data: 1990995968
I0506 01:17:34.475105  9947 layer_factory.hpp:77] Creating layer conv3_prescale
I0506 01:17:34.475123  9947 net.cpp:100] Creating Layer conv3_prescale
I0506 01:17:34.475162  9947 net.cpp:434] conv3_prescale <- conv3
I0506 01:17:34.475174  9947 net.cpp:395] conv3_prescale -> conv3 (in-place)
I0506 01:17:34.475358  9947 net.cpp:150] Setting up conv3_prescale
I0506 01:17:34.475374  9947 net.cpp:157] Top shape: 512 250 6 6 (4608000)
I0506 01:17:34.475383  9947 net.cpp:165] Memory required for data: 2009427968
I0506 01:17:34.475392  9947 layer_factory.hpp:77] Creating layer conv3_sTanH
I0506 01:17:34.475404  9947 net.cpp:100] Creating Layer conv3_sTanH
I0506 01:17:34.475414  9947 net.cpp:434] conv3_sTanH <- conv3
I0506 01:17:34.475421  9947 net.cpp:395] conv3_sTanH -> conv3 (in-place)
I0506 01:17:34.484624  9947 net.cpp:150] Setting up conv3_sTanH
I0506 01:17:34.484653  9947 net.cpp:157] Top shape: 512 250 6 6 (4608000)
I0506 01:17:34.484660  9947 net.cpp:165] Memory required for data: 2027859968
I0506 01:17:34.484668  9947 layer_factory.hpp:77] Creating layer conv3_postscale
I0506 01:17:34.484680  9947 net.cpp:100] Creating Layer conv3_postscale
I0506 01:17:34.484689  9947 net.cpp:434] conv3_postscale <- conv3
I0506 01:17:34.484699  9947 net.cpp:395] conv3_postscale -> conv3 (in-place)
I0506 01:17:34.484868  9947 net.cpp:150] Setting up conv3_postscale
I0506 01:17:34.484882  9947 net.cpp:157] Top shape: 512 250 6 6 (4608000)
I0506 01:17:34.484889  9947 net.cpp:165] Memory required for data: 2046291968
I0506 01:17:34.484896  9947 layer_factory.hpp:77] Creating layer pool3
I0506 01:17:34.484915  9947 net.cpp:100] Creating Layer pool3
I0506 01:17:34.484923  9947 net.cpp:434] pool3 <- conv3
I0506 01:17:34.484932  9947 net.cpp:408] pool3 -> pool3
I0506 01:17:34.484998  9947 net.cpp:150] Setting up pool3
I0506 01:17:34.485010  9947 net.cpp:157] Top shape: 512 250 3 3 (1152000)
I0506 01:17:34.485018  9947 net.cpp:165] Memory required for data: 2050899968
I0506 01:17:34.485023  9947 layer_factory.hpp:77] Creating layer fc4_300
I0506 01:17:34.485040  9947 net.cpp:100] Creating Layer fc4_300
I0506 01:17:34.485046  9947 net.cpp:434] fc4_300 <- pool3
I0506 01:17:34.485054  9947 net.cpp:408] fc4_300 -> fc4_300
I0506 01:17:34.493950  9947 net.cpp:150] Setting up fc4_300
I0506 01:17:34.493969  9947 net.cpp:157] Top shape: 512 300 (153600)
I0506 01:17:34.493974  9947 net.cpp:165] Memory required for data: 2051514368
I0506 01:17:34.493983  9947 layer_factory.hpp:77] Creating layer fc4_prescale
I0506 01:17:34.493993  9947 net.cpp:100] Creating Layer fc4_prescale
I0506 01:17:34.494000  9947 net.cpp:434] fc4_prescale <- fc4_300
I0506 01:17:34.494007  9947 net.cpp:395] fc4_prescale -> fc4_300 (in-place)
I0506 01:17:34.494117  9947 net.cpp:150] Setting up fc4_prescale
I0506 01:17:34.494125  9947 net.cpp:157] Top shape: 512 300 (153600)
I0506 01:17:34.494129  9947 net.cpp:165] Memory required for data: 2052128768
I0506 01:17:34.494135  9947 layer_factory.hpp:77] Creating layer fc4_sTanH
I0506 01:17:34.494143  9947 net.cpp:100] Creating Layer fc4_sTanH
I0506 01:17:34.494148  9947 net.cpp:434] fc4_sTanH <- fc4_300
I0506 01:17:34.494153  9947 net.cpp:395] fc4_sTanH -> fc4_300 (in-place)
I0506 01:17:34.494379  9947 net.cpp:150] Setting up fc4_sTanH
I0506 01:17:34.494392  9947 net.cpp:157] Top shape: 512 300 (153600)
I0506 01:17:34.494396  9947 net.cpp:165] Memory required for data: 2052743168
I0506 01:17:34.494400  9947 layer_factory.hpp:77] Creating layer fc4_postscale
I0506 01:17:34.494408  9947 net.cpp:100] Creating Layer fc4_postscale
I0506 01:17:34.494415  9947 net.cpp:434] fc4_postscale <- fc4_300
I0506 01:17:34.494421  9947 net.cpp:395] fc4_postscale -> fc4_300 (in-place)
I0506 01:17:34.494532  9947 net.cpp:150] Setting up fc4_postscale
I0506 01:17:34.494542  9947 net.cpp:157] Top shape: 512 300 (153600)
I0506 01:17:34.494545  9947 net.cpp:165] Memory required for data: 2053357568
I0506 01:17:34.494551  9947 layer_factory.hpp:77] Creating layer fc5_116
I0506 01:17:34.494560  9947 net.cpp:100] Creating Layer fc5_116
I0506 01:17:34.494565  9947 net.cpp:434] fc5_116 <- fc4_300
I0506 01:17:34.494571  9947 net.cpp:408] fc5_116 -> fc5_classes
I0506 01:17:34.512953  9947 net.cpp:150] Setting up fc5_116
I0506 01:17:34.512991  9947 net.cpp:157] Top shape: 512 116 (59392)
I0506 01:17:34.512996  9947 net.cpp:165] Memory required for data: 2053595136
I0506 01:17:34.513010  9947 layer_factory.hpp:77] Creating layer fc5_classes_fc5_116_0_split
I0506 01:17:34.513021  9947 net.cpp:100] Creating Layer fc5_classes_fc5_116_0_split
I0506 01:17:34.513027  9947 net.cpp:434] fc5_classes_fc5_116_0_split <- fc5_classes
I0506 01:17:34.513036  9947 net.cpp:408] fc5_classes_fc5_116_0_split -> fc5_classes_fc5_116_0_split_0
I0506 01:17:34.513046  9947 net.cpp:408] fc5_classes_fc5_116_0_split -> fc5_classes_fc5_116_0_split_1
I0506 01:17:34.513056  9947 net.cpp:408] fc5_classes_fc5_116_0_split -> fc5_classes_fc5_116_0_split_2
I0506 01:17:34.513119  9947 net.cpp:150] Setting up fc5_classes_fc5_116_0_split
I0506 01:17:34.513128  9947 net.cpp:157] Top shape: 512 116 (59392)
I0506 01:17:34.513134  9947 net.cpp:157] Top shape: 512 116 (59392)
I0506 01:17:34.513137  9947 net.cpp:157] Top shape: 512 116 (59392)
I0506 01:17:34.513140  9947 net.cpp:165] Memory required for data: 2054307840
I0506 01:17:34.513144  9947 layer_factory.hpp:77] Creating layer softmax
I0506 01:17:34.513152  9947 net.cpp:100] Creating Layer softmax
I0506 01:17:34.513159  9947 net.cpp:434] softmax <- fc5_classes_fc5_116_0_split_0
I0506 01:17:34.513164  9947 net.cpp:408] softmax -> softmax
I0506 01:17:34.513475  9947 net.cpp:150] Setting up softmax
I0506 01:17:34.513489  9947 net.cpp:157] Top shape: 512 116 (59392)
I0506 01:17:34.513494  9947 net.cpp:165] Memory required for data: 2054545408
I0506 01:17:34.513497  9947 layer_factory.hpp:77] Creating layer loss
I0506 01:17:34.513505  9947 net.cpp:100] Creating Layer loss
I0506 01:17:34.513511  9947 net.cpp:434] loss <- softmax
I0506 01:17:34.513517  9947 net.cpp:434] loss <- label_data_1_split_0
I0506 01:17:34.513525  9947 net.cpp:408] loss -> loss
…
