…
I0506 01:10:51.111227  6552 solver.cpp:93] Creating training net from train_net file: ./Prototxt/experiment_13/RTSD/orig/trial_1/train.prototxt
I0506 01:10:51.111762  6552 net.cpp:58] Initializing net from parameters: 
state {
  phase: TRAIN
  level: 0
  stage: ""
}
layer {
  name: "data"
  type: "Data"
  top: "data"
  top: "label"
  include {
    phase: TRAIN
  }
  transform_param {
    scale: 0.0039215689
    mirror: false
    crop_size: 48
    mean_value: 119
    mean_value: 113
    mean_value: 113
  }
  data_param {
    source: "../local_data/lmdb/RTSD/orig/train/lmdb"
    batch_size: 512
    backend: LMDB
  }
}
layer {
  name: "conv1"
  type: "Convolution"
  bottom: "data"
  top: "conv1"
  convolution_param {
    num_output: 100
    pad: 0
    kernel_size: 7
    group: 1
    stride: 1
    weight_filler {
      type: "xavier"
    }
  }
}
layer {
  name: "conv1_prescale"
  type: "Scale"
  bottom: "conv1"
  top: "conv1"
  param {
    lr_mult: 0
    decay_mult: 0
  }
  scale_param {
    filler {
      value: 0.6666
    }
    bias_term: false
  }
}
layer {
  name: "conv1_sTanH"
  type: "TanH"
  bottom: "conv1"
  top: "conv1"
}
layer {
  name: "conv1_postscale"
  type: "Scale"
  bottom: "conv1"
  top: "conv1"
  param {
    lr_mult: 0
    decay_mult: 0
  }
  scale_param {
    filler {
      value: 1.7159
    }
    bias_term: false
  }
}
layer {
  name: "pool1"
  type: "Pooling"
  bottom: "conv1"
  top: "pool1"
  pooling_param {
    pool: MAX
    kernel_size: 2
    stride: 2
  }
}
layer {
  name: "conv2"
  type: "Convolution"
  bottom: "pool1"
  top: "conv2"
  convolution_param {
    num_output: 150
    pad: 0
    kernel_size: 4
    group: 1
    stride: 1
    weight_filler {
      type: "xavier"
    }
  }
}
layer {
  name: "conv2_prescale"
  type: "Scale"
  bottom: "conv2"
  top: "conv2"
  param {
    lr_mult: 0
    decay_mult: 0
  }
  scale_param {
    filler {
      value: 0.6666
    }
    bias_term: false
  }
}
layer {
  name: "conv2_sTanH"
  type: "TanH"
  bottom: "conv2"
  top: "conv2"
}
layer {
  name: "conv2_postscale"
  type: "Scale"
  bottom: "conv2"
  top: "conv2"
  param {
    lr_mult: 0
    decay_mult: 0
  }
  scale_param {
    filler {
      value: 1.7159
    }
    bias_term: false
  }
}
layer {
  name: "pool2"
  type: "Pooling"
  bottom: "conv2"
  top: "pool2"
  pooling_param {
    pool: MAX
    kernel_size: 2
    stride: 2
  }
}
layer {
  name: "conv3"
  type: "Convolution"
  bottom: "pool2"
  top: "conv3"
  convolution_param {
    num_output: 250
    pad: 0
    kernel_size: 4
    group: 1
    stride: 1
    weight_filler {
      type: "xavier"
    }
  }
}
layer {
  name: "conv3_prescale"
  type: "Scale"
  bottom: "conv3"
  top: "conv3"
  param {
    lr_mult: 0
    decay_mult: 0
  }
  scale_param {
    filler {
      value: 0.6666
    }
    bias_term: false
  }
}
layer {
  name: "conv3_sTanH"
  type: "TanH"
  bottom: "conv3"
  top: "conv3"
}
layer {
  name: "conv3_postscale"
  type: "Scale"
  bottom: "conv3"
  top: "conv3"
  param {
    lr_mult: 0
    decay_mult: 0
  }
  scale_param {
    filler {
      value: 1.7159
    }
    bias_term: false
  }
}
layer {
  name: "pool3"
  type: "Pooling"
  bottom: "conv3"
  top: "pool3"
  pooling_param {
    pool: MAX
    kernel_size: 2
    stride: 2
  }
}
layer {
  name: "fc4_300"
  type: "InnerProduct"
  bottom: "pool3"
  top: "fc4_300"
  inner_product_param {
    num_output: 300
    weight_filler {
      type: "xavier"
    }
  }
}
layer {
  name: "fc4_prescale"
  type: "Scale"
  bottom: "fc4_300"
  top: "fc4_300"
  param {
    lr_mult: 0
    decay_mult: 0
  }
  scale_param {
    filler {
      value: 0.6666
    }
    bias_term: false
  }
}
layer {
  name: "fc4_sTanH"
  type: "TanH"
  bottom: "fc4_300"
  top: "fc4_300"
}
layer {
  name: "fc4_postscale"
  type: "Scale"
  bottom: "fc4_300"
  top: "fc4_300"
  param {
    lr_mult: 0
    decay_mult: 0
  }
  scale_param {
    filler {
      value: 1.7159
    }
    bias_term: false
  }
}
layer {
  name: "fc5_116"
  type: "InnerProduct"
  bottom: "fc4_300"
  top: "fc5_classes"
  inner_product_param {
    num_output: 116
    weight_filler {
      type: "xavier"
    }
  }
}
layer {
  name: "softmax"
  type: "Softmax"
  bottom: "fc5_classes"
  top: "softmax"
}
layer {
  name: "loss"
  type: "MultinomialLogisticLoss"
  bottom: "softmax"
  bottom: "label"
  top: "loss"
}
layer {
  name: "accuracy_1"
  type: "Accuracy"
  bottom: "fc5_classes"
  bottom: "label"
  top: "accuracy_1"
  accuracy_param {
    top_k: 1
  }
}
layer {
  name: "accuracy_5"
  type: "Accuracy"
  bottom: "fc5_classes"
  bottom: "label"
  top: "accuracy_5"
  accuracy_param {
    top_k: 5
  }
}
layer {
  name: "silence"
  type: "Silence"
  bottom: "accuracy_1"
  bottom: "accuracy_5"
}
I0506 01:10:51.111958  6552 layer_factory.hpp:77] Creating layer data
I0506 01:10:51.112876  6552 net.cpp:100] Creating Layer data
I0506 01:10:51.112895  6552 net.cpp:408] data -> data
I0506 01:10:51.112920  6552 net.cpp:408] data -> label
I0506 01:10:51.124042  6687 db_lmdb.cpp:35] Opened lmdb ../local_data/lmdb/RTSD/orig/train/lmdb
I0506 01:10:51.151075  6552 data_layer.cpp:41] output data size: 512,3,48,48
I0506 01:10:51.211422  6552 net.cpp:150] Setting up data
I0506 01:10:51.211462  6552 net.cpp:157] Top shape: 512 3 48 48 (3538944)
I0506 01:10:51.211472  6552 net.cpp:157] Top shape: 512 (512)
I0506 01:10:51.211477  6552 net.cpp:165] Memory required for data: 14157824
I0506 01:10:51.211494  6552 layer_factory.hpp:77] Creating layer label_data_1_split
I0506 01:10:51.211515  6552 net.cpp:100] Creating Layer label_data_1_split
I0506 01:10:51.211529  6552 net.cpp:434] label_data_1_split <- label
I0506 01:10:51.211555  6552 net.cpp:408] label_data_1_split -> label_data_1_split_0
I0506 01:10:51.211577  6552 net.cpp:408] label_data_1_split -> label_data_1_split_1
I0506 01:10:51.211592  6552 net.cpp:408] label_data_1_split -> label_data_1_split_2
I0506 01:10:51.211710  6552 net.cpp:150] Setting up label_data_1_split
I0506 01:10:51.211727  6552 net.cpp:157] Top shape: 512 (512)
I0506 01:10:51.211738  6552 net.cpp:157] Top shape: 512 (512)
I0506 01:10:51.211750  6552 net.cpp:157] Top shape: 512 (512)
I0506 01:10:51.211757  6552 net.cpp:165] Memory required for data: 14163968
I0506 01:10:51.211767  6552 layer_factory.hpp:77] Creating layer conv1
I0506 01:10:51.211794  6552 net.cpp:100] Creating Layer conv1
I0506 01:10:51.211804  6552 net.cpp:434] conv1 <- data
I0506 01:10:51.211815  6552 net.cpp:408] conv1 -> conv1
I0506 01:10:51.667542  6552 net.cpp:150] Setting up conv1
I0506 01:10:51.667574  6552 net.cpp:157] Top shape: 512 100 42 42 (90316800)
I0506 01:10:51.667579  6552 net.cpp:165] Memory required for data: 375431168
I0506 01:10:51.667605  6552 layer_factory.hpp:77] Creating layer conv1_prescale
I0506 01:10:51.667620  6552 net.cpp:100] Creating Layer conv1_prescale
I0506 01:10:51.667629  6552 net.cpp:434] conv1_prescale <- conv1
I0506 01:10:51.667636  6552 net.cpp:395] conv1_prescale -> conv1 (in-place)
I0506 01:10:51.667763  6552 net.cpp:150] Setting up conv1_prescale
I0506 01:10:51.667774  6552 net.cpp:157] Top shape: 512 100 42 42 (90316800)
I0506 01:10:51.667778  6552 net.cpp:165] Memory required for data: 736698368
I0506 01:10:51.667788  6552 layer_factory.hpp:77] Creating layer conv1_sTanH
I0506 01:10:51.667798  6552 net.cpp:100] Creating Layer conv1_sTanH
I0506 01:10:51.667804  6552 net.cpp:434] conv1_sTanH <- conv1
I0506 01:10:51.667809  6552 net.cpp:395] conv1_sTanH -> conv1 (in-place)
I0506 01:10:51.668054  6552 net.cpp:150] Setting up conv1_sTanH
I0506 01:10:51.668071  6552 net.cpp:157] Top shape: 512 100 42 42 (90316800)
I0506 01:10:51.668098  6552 net.cpp:165] Memory required for data: 1097965568
I0506 01:10:51.668104  6552 layer_factory.hpp:77] Creating layer conv1_postscale
I0506 01:10:51.668113  6552 net.cpp:100] Creating Layer conv1_postscale
I0506 01:10:51.668120  6552 net.cpp:434] conv1_postscale <- conv1
I0506 01:10:51.668128  6552 net.cpp:395] conv1_postscale -> conv1 (in-place)
I0506 01:10:51.668275  6552 net.cpp:150] Setting up conv1_postscale
I0506 01:10:51.668298  6552 net.cpp:157] Top shape: 512 100 42 42 (90316800)
I0506 01:10:51.668308  6552 net.cpp:165] Memory required for data: 1459232768
I0506 01:10:51.668318  6552 layer_factory.hpp:77] Creating layer pool1
I0506 01:10:51.668331  6552 net.cpp:100] Creating Layer pool1
I0506 01:10:51.668335  6552 net.cpp:434] pool1 <- conv1
I0506 01:10:51.668342  6552 net.cpp:408] pool1 -> pool1
I0506 01:10:51.668401  6552 net.cpp:150] Setting up pool1
I0506 01:10:51.668411  6552 net.cpp:157] Top shape: 512 100 21 21 (22579200)
I0506 01:10:51.668421  6552 net.cpp:165] Memory required for data: 1549549568
I0506 01:10:51.668426  6552 layer_factory.hpp:77] Creating layer conv2
I0506 01:10:51.668454  6552 net.cpp:100] Creating Layer conv2
I0506 01:10:51.668463  6552 net.cpp:434] conv2 <- pool1
I0506 01:10:51.668470  6552 net.cpp:408] conv2 -> conv2
I0506 01:10:51.676623  6552 net.cpp:150] Setting up conv2
I0506 01:10:51.676645  6552 net.cpp:157] Top shape: 512 150 18 18 (24883200)
I0506 01:10:51.676650  6552 net.cpp:165] Memory required for data: 1649082368
I0506 01:10:51.676663  6552 layer_factory.hpp:77] Creating layer conv2_prescale
I0506 01:10:51.676677  6552 net.cpp:100] Creating Layer conv2_prescale
I0506 01:10:51.676684  6552 net.cpp:434] conv2_prescale <- conv2
I0506 01:10:51.676692  6552 net.cpp:395] conv2_prescale -> conv2 (in-place)
I0506 01:10:51.676823  6552 net.cpp:150] Setting up conv2_prescale
I0506 01:10:51.676836  6552 net.cpp:157] Top shape: 512 150 18 18 (24883200)
I0506 01:10:51.676841  6552 net.cpp:165] Memory required for data: 1748615168
I0506 01:10:51.676847  6552 layer_factory.hpp:77] Creating layer conv2_sTanH
I0506 01:10:51.676856  6552 net.cpp:100] Creating Layer conv2_sTanH
I0506 01:10:51.676862  6552 net.cpp:434] conv2_sTanH <- conv2
I0506 01:10:51.676868  6552 net.cpp:395] conv2_sTanH -> conv2 (in-place)
I0506 01:10:51.680284  6552 net.cpp:150] Setting up conv2_sTanH
I0506 01:10:51.680306  6552 net.cpp:157] Top shape: 512 150 18 18 (24883200)
I0506 01:10:51.680313  6552 net.cpp:165] Memory required for data: 1848147968
I0506 01:10:51.680318  6552 layer_factory.hpp:77] Creating layer conv2_postscale
I0506 01:10:51.680327  6552 net.cpp:100] Creating Layer conv2_postscale
I0506 01:10:51.680335  6552 net.cpp:434] conv2_postscale <- conv2
I0506 01:10:51.680341  6552 net.cpp:395] conv2_postscale -> conv2 (in-place)
I0506 01:10:51.680459  6552 net.cpp:150] Setting up conv2_postscale
I0506 01:10:51.680469  6552 net.cpp:157] Top shape: 512 150 18 18 (24883200)
I0506 01:10:51.680475  6552 net.cpp:165] Memory required for data: 1947680768
I0506 01:10:51.680482  6552 layer_factory.hpp:77] Creating layer pool2
I0506 01:10:51.680491  6552 net.cpp:100] Creating Layer pool2
I0506 01:10:51.680498  6552 net.cpp:434] pool2 <- conv2
I0506 01:10:51.680505  6552 net.cpp:408] pool2 -> pool2
I0506 01:10:51.680552  6552 net.cpp:150] Setting up pool2
I0506 01:10:51.680563  6552 net.cpp:157] Top shape: 512 150 9 9 (6220800)
I0506 01:10:51.680568  6552 net.cpp:165] Memory required for data: 1972563968
I0506 01:10:51.680572  6552 layer_factory.hpp:77] Creating layer conv3
I0506 01:10:51.680583  6552 net.cpp:100] Creating Layer conv3
I0506 01:10:51.680588  6552 net.cpp:434] conv3 <- pool2
I0506 01:10:51.680595  6552 net.cpp:408] conv3 -> conv3
I0506 01:10:51.696455  6552 net.cpp:150] Setting up conv3
I0506 01:10:51.696480  6552 net.cpp:157] Top shape: 512 250 6 6 (4608000)
I0506 01:10:51.696485  6552 net.cpp:165] Memory required for data: 1990995968
I0506 01:10:51.696499  6552 layer_factory.hpp:77] Creating layer conv3_prescale
I0506 01:10:51.696512  6552 net.cpp:100] Creating Layer conv3_prescale
I0506 01:10:51.696537  6552 net.cpp:434] conv3_prescale <- conv3
I0506 01:10:51.696547  6552 net.cpp:395] conv3_prescale -> conv3 (in-place)
I0506 01:10:51.696665  6552 net.cpp:150] Setting up conv3_prescale
I0506 01:10:51.696676  6552 net.cpp:157] Top shape: 512 250 6 6 (4608000)
I0506 01:10:51.696679  6552 net.cpp:165] Memory required for data: 2009427968
I0506 01:10:51.696686  6552 layer_factory.hpp:77] Creating layer conv3_sTanH
I0506 01:10:51.696692  6552 net.cpp:100] Creating Layer conv3_sTanH
I0506 01:10:51.696696  6552 net.cpp:434] conv3_sTanH <- conv3
I0506 01:10:51.696702  6552 net.cpp:395] conv3_sTanH -> conv3 (in-place)
I0506 01:10:51.705807  6552 net.cpp:150] Setting up conv3_sTanH
I0506 01:10:51.705827  6552 net.cpp:157] Top shape: 512 250 6 6 (4608000)
I0506 01:10:51.705832  6552 net.cpp:165] Memory required for data: 2027859968
I0506 01:10:51.705837  6552 layer_factory.hpp:77] Creating layer conv3_postscale
I0506 01:10:51.705847  6552 net.cpp:100] Creating Layer conv3_postscale
I0506 01:10:51.705853  6552 net.cpp:434] conv3_postscale <- conv3
I0506 01:10:51.705862  6552 net.cpp:395] conv3_postscale -> conv3 (in-place)
I0506 01:10:51.705981  6552 net.cpp:150] Setting up conv3_postscale
I0506 01:10:51.705991  6552 net.cpp:157] Top shape: 512 250 6 6 (4608000)
I0506 01:10:51.705997  6552 net.cpp:165] Memory required for data: 2046291968
I0506 01:10:51.706004  6552 layer_factory.hpp:77] Creating layer pool3
I0506 01:10:51.706017  6552 net.cpp:100] Creating Layer pool3
I0506 01:10:51.706022  6552 net.cpp:434] pool3 <- conv3
I0506 01:10:51.706029  6552 net.cpp:408] pool3 -> pool3
I0506 01:10:51.706079  6552 net.cpp:150] Setting up pool3
I0506 01:10:51.706087  6552 net.cpp:157] Top shape: 512 250 3 3 (1152000)
I0506 01:10:51.706092  6552 net.cpp:165] Memory required for data: 2050899968
I0506 01:10:51.706097  6552 layer_factory.hpp:77] Creating layer fc4_300
I0506 01:10:51.706105  6552 net.cpp:100] Creating Layer fc4_300
I0506 01:10:51.706110  6552 net.cpp:434] fc4_300 <- pool3
I0506 01:10:51.706117  6552 net.cpp:408] fc4_300 -> fc4_300
I0506 01:10:51.714617  6552 net.cpp:150] Setting up fc4_300
I0506 01:10:51.714640  6552 net.cpp:157] Top shape: 512 300 (153600)
I0506 01:10:51.714645  6552 net.cpp:165] Memory required for data: 2051514368
I0506 01:10:51.714655  6552 layer_factory.hpp:77] Creating layer fc4_prescale
I0506 01:10:51.714665  6552 net.cpp:100] Creating Layer fc4_prescale
I0506 01:10:51.714673  6552 net.cpp:434] fc4_prescale <- fc4_300
I0506 01:10:51.714680  6552 net.cpp:395] fc4_prescale -> fc4_300 (in-place)
I0506 01:10:51.714790  6552 net.cpp:150] Setting up fc4_prescale
I0506 01:10:51.714802  6552 net.cpp:157] Top shape: 512 300 (153600)
I0506 01:10:51.714804  6552 net.cpp:165] Memory required for data: 2052128768
I0506 01:10:51.714812  6552 layer_factory.hpp:77] Creating layer fc4_sTanH
I0506 01:10:51.714819  6552 net.cpp:100] Creating Layer fc4_sTanH
I0506 01:10:51.714823  6552 net.cpp:434] fc4_sTanH <- fc4_300
I0506 01:10:51.714829  6552 net.cpp:395] fc4_sTanH -> fc4_300 (in-place)
I0506 01:10:51.715059  6552 net.cpp:150] Setting up fc4_sTanH
I0506 01:10:51.715073  6552 net.cpp:157] Top shape: 512 300 (153600)
I0506 01:10:51.715078  6552 net.cpp:165] Memory required for data: 2052743168
I0506 01:10:51.715082  6552 layer_factory.hpp:77] Creating layer fc4_postscale
I0506 01:10:51.715091  6552 net.cpp:100] Creating Layer fc4_postscale
I0506 01:10:51.715096  6552 net.cpp:434] fc4_postscale <- fc4_300
I0506 01:10:51.715103  6552 net.cpp:395] fc4_postscale -> fc4_300 (in-place)
I0506 01:10:51.715219  6552 net.cpp:150] Setting up fc4_postscale
I0506 01:10:51.715229  6552 net.cpp:157] Top shape: 512 300 (153600)
I0506 01:10:51.715234  6552 net.cpp:165] Memory required for data: 2053357568
I0506 01:10:51.715240  6552 layer_factory.hpp:77] Creating layer fc5_116
I0506 01:10:51.715248  6552 net.cpp:100] Creating Layer fc5_116
I0506 01:10:51.715253  6552 net.cpp:434] fc5_116 <- fc4_300
I0506 01:10:51.715260  6552 net.cpp:408] fc5_116 -> fc5_classes
I0506 01:10:51.735842  6552 net.cpp:150] Setting up fc5_116
I0506 01:10:51.735918  6552 net.cpp:157] Top shape: 512 116 (59392)
I0506 01:10:51.735929  6552 net.cpp:165] Memory required for data: 2053595136
I0506 01:10:51.735952  6552 layer_factory.hpp:77] Creating layer fc5_classes_fc5_116_0_split
I0506 01:10:51.735970  6552 net.cpp:100] Creating Layer fc5_classes_fc5_116_0_split
I0506 01:10:51.735981  6552 net.cpp:434] fc5_classes_fc5_116_0_split <- fc5_classes
I0506 01:10:51.735996  6552 net.cpp:408] fc5_classes_fc5_116_0_split -> fc5_classes_fc5_116_0_split_0
I0506 01:10:51.736014  6552 net.cpp:408] fc5_classes_fc5_116_0_split -> fc5_classes_fc5_116_0_split_1
I0506 01:10:51.736030  6552 net.cpp:408] fc5_classes_fc5_116_0_split -> fc5_classes_fc5_116_0_split_2
I0506 01:10:51.736127  6552 net.cpp:150] Setting up fc5_classes_fc5_116_0_split
I0506 01:10:51.736143  6552 net.cpp:157] Top shape: 512 116 (59392)
I0506 01:10:51.736155  6552 net.cpp:157] Top shape: 512 116 (59392)
I0506 01:10:51.736166  6552 net.cpp:157] Top shape: 512 116 (59392)
I0506 01:10:51.736173  6552 net.cpp:165] Memory required for data: 2054307840
I0506 01:10:51.736182  6552 layer_factory.hpp:77] Creating layer softmax
I0506 01:10:51.736197  6552 net.cpp:100] Creating Layer softmax
I0506 01:10:51.736207  6552 net.cpp:434] softmax <- fc5_classes_fc5_116_0_split_0
I0506 01:10:51.736220  6552 net.cpp:408] softmax -> softmax
I0506 01:10:51.736634  6552 net.cpp:150] Setting up softmax
I0506 01:10:51.736655  6552 net.cpp:157] Top shape: 512 116 (59392)
I0506 01:10:51.736661  6552 net.cpp:165] Memory required for data: 2054545408
I0506 01:10:51.736666  6552 layer_factory.hpp:77] Creating layer loss
I0506 01:10:51.736675  6552 net.cpp:100] Creating Layer loss
I0506 01:10:51.736680  6552 net.cpp:434] loss <- softmax
I0506 01:10:51.736687  6552 net.cpp:434] loss <- label_data_1_split_0
I0506 01:10:51.736696  6552 net.cpp:408] loss -> loss
…
