…
I0506 00:36:09.772543 32677 solver.cpp:93] Creating training net from train_net file: ./Prototxt/experiment_13/RTSD/orig/trial_1/train.prototxt
I0506 00:36:09.773011 32677 net.cpp:58] Initializing net from parameters: 
state {
  phase: TRAIN
  level: 0
  stage: ""
}
layer {
  name: "data"
  type: "Data"
  top: "data"
  top: "label"
  include {
    phase: TRAIN
  }
  transform_param {
    scale: 0.0039215689
    mirror: false
    crop_size: 48
    mean_value: 119
    mean_value: 113
    mean_value: 113
  }
  data_param {
    source: "../local_data/lmdb/RTSD/orig/train/lmdb"
    batch_size: 512
    backend: LMDB
  }
}
layer {
  name: "conv1"
  type: "Convolution"
  bottom: "data"
  top: "conv1"
  convolution_param {
    num_output: 100
    pad: 0
    kernel_size: 7
    group: 1
    stride: 1
    weight_filler {
      type: "xavier"
    }
  }
}
layer {
  name: "conv1_prescale"
  type: "Scale"
  bottom: "conv1"
  top: "conv1"
  param {
    lr_mult: 0
    decay_mult: 0
  }
  scale_param {
    filler {
      value: 0.6666
    }
    bias_term: false
  }
}
layer {
  name: "conv1_sTanH"
  type: "TanH"
  bottom: "conv1"
  top: "conv1"
}
layer {
  name: "conv1_postscale"
  type: "Scale"
  bottom: "conv1"
  top: "conv1"
  param {
    lr_mult: 0
    decay_mult: 0
  }
  scale_param {
    filler {
      value: 1.7159
    }
    bias_term: false
  }
}
layer {
  name: "pool1"
  type: "Pooling"
  bottom: "conv1"
  top: "pool1"
  pooling_param {
    pool: MAX
    kernel_size: 2
    stride: 2
  }
}
layer {
  name: "conv2"
  type: "Convolution"
  bottom: "pool1"
  top: "conv2"
  convolution_param {
    num_output: 150
    pad: 0
    kernel_size: 4
    group: 1
    stride: 1
    weight_filler {
      type: "xavier"
    }
  }
}
layer {
  name: "conv2_prescale"
  type: "Scale"
  bottom: "conv2"
  top: "conv2"
  param {
    lr_mult: 0
    decay_mult: 0
  }
  scale_param {
    filler {
      value: 0.6666
    }
    bias_term: false
  }
}
layer {
  name: "conv2_sTanH"
  type: "TanH"
  bottom: "conv2"
  top: "conv2"
}
layer {
  name: "conv2_postscale"
  type: "Scale"
  bottom: "conv2"
  top: "conv2"
  param {
    lr_mult: 0
    decay_mult: 0
  }
  scale_param {
    filler {
      value: 1.7159
    }
    bias_term: false
  }
}
layer {
  name: "pool2"
  type: "Pooling"
  bottom: "conv2"
  top: "pool2"
  pooling_param {
    pool: MAX
    kernel_size: 2
    stride: 2
  }
}
layer {
  name: "conv3"
  type: "Convolution"
  bottom: "pool2"
  top: "conv3"
  convolution_param {
    num_output: 250
    pad: 0
    kernel_size: 4
    group: 1
    stride: 1
    weight_filler {
      type: "xavier"
    }
  }
}
layer {
  name: "conv3_prescale"
  type: "Scale"
  bottom: "conv3"
  top: "conv3"
  param {
    lr_mult: 0
    decay_mult: 0
  }
  scale_param {
    filler {
      value: 0.6666
    }
    bias_term: false
  }
}
layer {
  name: "conv3_sTanH"
  type: "TanH"
  bottom: "conv3"
  top: "conv3"
}
layer {
  name: "conv3_postscale"
  type: "Scale"
  bottom: "conv3"
  top: "conv3"
  param {
    lr_mult: 0
    decay_mult: 0
  }
  scale_param {
    filler {
      value: 1.7159
    }
    bias_term: false
  }
}
layer {
  name: "pool3"
  type: "Pooling"
  bottom: "conv3"
  top: "pool3"
  pooling_param {
    pool: MAX
    kernel_size: 2
    stride: 2
  }
}
layer {
  name: "fc4_300"
  type: "InnerProduct"
  bottom: "pool3"
  top: "fc4_300"
  inner_product_param {
    num_output: 300
    weight_filler {
      type: "xavier"
    }
  }
}
layer {
  name: "fc4_prescale"
  type: "Scale"
  bottom: "fc4_300"
  top: "fc4_300"
  param {
    lr_mult: 0
    decay_mult: 0
  }
  scale_param {
    filler {
      value: 0.6666
    }
    bias_term: false
  }
}
layer {
  name: "fc4_sTanH"
  type: "TanH"
  bottom: "fc4_300"
  top: "fc4_300"
}
layer {
  name: "fc4_postscale"
  type: "Scale"
  bottom: "fc4_300"
  top: "fc4_300"
  param {
    lr_mult: 0
    decay_mult: 0
  }
  scale_param {
    filler {
      value: 1.7159
    }
    bias_term: false
  }
}
layer {
  name: "fc5_116"
  type: "InnerProduct"
  bottom: "fc4_300"
  top: "fc5_classes"
  inner_product_param {
    num_output: 116
    weight_filler {
      type: "xavier"
    }
  }
}
layer {
  name: "softmax"
  type: "Softmax"
  bottom: "fc5_classes"
  top: "softmax"
}
layer {
  name: "loss"
  type: "MultinomialLogisticLoss"
  bottom: "softmax"
  bottom: "label"
  top: "loss"
}
layer {
  name: "accuracy_1"
  type: "Accuracy"
  bottom: "fc5_classes"
  bottom: "label"
  top: "accuracy_1"
  accuracy_param {
    top_k: 1
  }
}
layer {
  name: "accuracy_5"
  type: "Accuracy"
  bottom: "fc5_classes"
  bottom: "label"
  top: "accuracy_5"
  accuracy_param {
    top_k: 5
  }
}
layer {
  name: "silence"
  type: "Silence"
  bottom: "accuracy_1"
  bottom: "accuracy_5"
}
I0506 00:36:09.773172 32677 layer_factory.hpp:77] Creating layer data
I0506 00:36:09.773941 32677 net.cpp:100] Creating Layer data
I0506 00:36:09.773957 32677 net.cpp:408] data -> data
I0506 00:36:09.773982 32677 net.cpp:408] data -> label
I0506 00:36:09.786944   380 db_lmdb.cpp:35] Opened lmdb ../local_data/lmdb/RTSD/orig/train/lmdb
I0506 00:36:09.811202 32677 data_layer.cpp:41] output data size: 512,3,48,48
I0506 00:36:09.855993 32677 net.cpp:150] Setting up data
I0506 00:36:09.856027 32677 net.cpp:157] Top shape: 512 3 48 48 (3538944)
I0506 00:36:09.856034 32677 net.cpp:157] Top shape: 512 (512)
I0506 00:36:09.856037 32677 net.cpp:165] Memory required for data: 14157824
I0506 00:36:09.856050 32677 layer_factory.hpp:77] Creating layer label_data_1_split
I0506 00:36:09.856062 32677 net.cpp:100] Creating Layer label_data_1_split
I0506 00:36:09.856068 32677 net.cpp:434] label_data_1_split <- label
I0506 00:36:09.856084 32677 net.cpp:408] label_data_1_split -> label_data_1_split_0
I0506 00:36:09.856102 32677 net.cpp:408] label_data_1_split -> label_data_1_split_1
I0506 00:36:09.856115 32677 net.cpp:408] label_data_1_split -> label_data_1_split_2
I0506 00:36:09.856184 32677 net.cpp:150] Setting up label_data_1_split
I0506 00:36:09.856194 32677 net.cpp:157] Top shape: 512 (512)
I0506 00:36:09.856197 32677 net.cpp:157] Top shape: 512 (512)
I0506 00:36:09.856201 32677 net.cpp:157] Top shape: 512 (512)
I0506 00:36:09.856204 32677 net.cpp:165] Memory required for data: 14163968
I0506 00:36:09.856207 32677 layer_factory.hpp:77] Creating layer conv1
I0506 00:36:09.856226 32677 net.cpp:100] Creating Layer conv1
I0506 00:36:09.856232 32677 net.cpp:434] conv1 <- data
I0506 00:36:09.856238 32677 net.cpp:408] conv1 -> conv1
I0506 00:36:10.668161 32677 net.cpp:150] Setting up conv1
I0506 00:36:10.668191 32677 net.cpp:157] Top shape: 512 100 42 42 (90316800)
I0506 00:36:10.668195 32677 net.cpp:165] Memory required for data: 375431168
I0506 00:36:10.668217 32677 layer_factory.hpp:77] Creating layer conv1_prescale
I0506 00:36:10.668231 32677 net.cpp:100] Creating Layer conv1_prescale
I0506 00:36:10.668236 32677 net.cpp:434] conv1_prescale <- conv1
I0506 00:36:10.668243 32677 net.cpp:395] conv1_prescale -> conv1 (in-place)
I0506 00:36:10.668352 32677 net.cpp:150] Setting up conv1_prescale
I0506 00:36:10.668361 32677 net.cpp:157] Top shape: 512 100 42 42 (90316800)
I0506 00:36:10.668365 32677 net.cpp:165] Memory required for data: 736698368
I0506 00:36:10.668370 32677 layer_factory.hpp:77] Creating layer conv1_sTanH
I0506 00:36:10.668380 32677 net.cpp:100] Creating Layer conv1_sTanH
I0506 00:36:10.668387 32677 net.cpp:434] conv1_sTanH <- conv1
I0506 00:36:10.668392 32677 net.cpp:395] conv1_sTanH -> conv1 (in-place)
I0506 00:36:10.668586 32677 net.cpp:150] Setting up conv1_sTanH
I0506 00:36:10.668598 32677 net.cpp:157] Top shape: 512 100 42 42 (90316800)
I0506 00:36:10.668622 32677 net.cpp:165] Memory required for data: 1097965568
I0506 00:36:10.668627 32677 layer_factory.hpp:77] Creating layer conv1_postscale
I0506 00:36:10.668634 32677 net.cpp:100] Creating Layer conv1_postscale
I0506 00:36:10.668637 32677 net.cpp:434] conv1_postscale <- conv1
I0506 00:36:10.668643 32677 net.cpp:395] conv1_postscale -> conv1 (in-place)
I0506 00:36:10.668740 32677 net.cpp:150] Setting up conv1_postscale
I0506 00:36:10.668748 32677 net.cpp:157] Top shape: 512 100 42 42 (90316800)
I0506 00:36:10.668751 32677 net.cpp:165] Memory required for data: 1459232768
I0506 00:36:10.668756 32677 layer_factory.hpp:77] Creating layer pool1
I0506 00:36:10.668763 32677 net.cpp:100] Creating Layer pool1
I0506 00:36:10.668766 32677 net.cpp:434] pool1 <- conv1
I0506 00:36:10.668771 32677 net.cpp:408] pool1 -> pool1
I0506 00:36:10.668823 32677 net.cpp:150] Setting up pool1
I0506 00:36:10.668831 32677 net.cpp:157] Top shape: 512 100 21 21 (22579200)
I0506 00:36:10.668834 32677 net.cpp:165] Memory required for data: 1549549568
I0506 00:36:10.668838 32677 layer_factory.hpp:77] Creating layer conv2
I0506 00:36:10.668846 32677 net.cpp:100] Creating Layer conv2
I0506 00:36:10.668851 32677 net.cpp:434] conv2 <- pool1
I0506 00:36:10.668856 32677 net.cpp:408] conv2 -> conv2
I0506 00:36:10.675204 32677 net.cpp:150] Setting up conv2
I0506 00:36:10.675222 32677 net.cpp:157] Top shape: 512 150 18 18 (24883200)
I0506 00:36:10.675226 32677 net.cpp:165] Memory required for data: 1649082368
I0506 00:36:10.675236 32677 layer_factory.hpp:77] Creating layer conv2_prescale
I0506 00:36:10.675248 32677 net.cpp:100] Creating Layer conv2_prescale
I0506 00:36:10.675253 32677 net.cpp:434] conv2_prescale <- conv2
I0506 00:36:10.675259 32677 net.cpp:395] conv2_prescale -> conv2 (in-place)
I0506 00:36:10.675364 32677 net.cpp:150] Setting up conv2_prescale
I0506 00:36:10.675372 32677 net.cpp:157] Top shape: 512 150 18 18 (24883200)
I0506 00:36:10.675375 32677 net.cpp:165] Memory required for data: 1748615168
I0506 00:36:10.675379 32677 layer_factory.hpp:77] Creating layer conv2_sTanH
I0506 00:36:10.675387 32677 net.cpp:100] Creating Layer conv2_sTanH
I0506 00:36:10.675390 32677 net.cpp:434] conv2_sTanH <- conv2
I0506 00:36:10.675395 32677 net.cpp:395] conv2_sTanH -> conv2 (in-place)
I0506 00:36:10.677583 32677 net.cpp:150] Setting up conv2_sTanH
I0506 00:36:10.677603 32677 net.cpp:157] Top shape: 512 150 18 18 (24883200)
I0506 00:36:10.677606 32677 net.cpp:165] Memory required for data: 1848147968
I0506 00:36:10.677610 32677 layer_factory.hpp:77] Creating layer conv2_postscale
I0506 00:36:10.677618 32677 net.cpp:100] Creating Layer conv2_postscale
I0506 00:36:10.677621 32677 net.cpp:434] conv2_postscale <- conv2
I0506 00:36:10.677628 32677 net.cpp:395] conv2_postscale -> conv2 (in-place)
I0506 00:36:10.677726 32677 net.cpp:150] Setting up conv2_postscale
I0506 00:36:10.677734 32677 net.cpp:157] Top shape: 512 150 18 18 (24883200)
I0506 00:36:10.677737 32677 net.cpp:165] Memory required for data: 1947680768
I0506 00:36:10.677742 32677 layer_factory.hpp:77] Creating layer pool2
I0506 00:36:10.677750 32677 net.cpp:100] Creating Layer pool2
I0506 00:36:10.677754 32677 net.cpp:434] pool2 <- conv2
I0506 00:36:10.677759 32677 net.cpp:408] pool2 -> pool2
I0506 00:36:10.677803 32677 net.cpp:150] Setting up pool2
I0506 00:36:10.677810 32677 net.cpp:157] Top shape: 512 150 9 9 (6220800)
I0506 00:36:10.677814 32677 net.cpp:165] Memory required for data: 1972563968
I0506 00:36:10.677817 32677 layer_factory.hpp:77] Creating layer conv3
I0506 00:36:10.677825 32677 net.cpp:100] Creating Layer conv3
I0506 00:36:10.677830 32677 net.cpp:434] conv3 <- pool2
I0506 00:36:10.677835 32677 net.cpp:408] conv3 -> conv3
I0506 00:36:10.683645 32677 net.cpp:150] Setting up conv3
I0506 00:36:10.683662 32677 net.cpp:157] Top shape: 512 250 6 6 (4608000)
I0506 00:36:10.683665 32677 net.cpp:165] Memory required for data: 1990995968
I0506 00:36:10.683676 32677 layer_factory.hpp:77] Creating layer conv3_prescale
I0506 00:36:10.683684 32677 net.cpp:100] Creating Layer conv3_prescale
I0506 00:36:10.683701 32677 net.cpp:434] conv3_prescale <- conv3
I0506 00:36:10.683710 32677 net.cpp:395] conv3_prescale -> conv3 (in-place)
I0506 00:36:10.683804 32677 net.cpp:150] Setting up conv3_prescale
I0506 00:36:10.683814 32677 net.cpp:157] Top shape: 512 250 6 6 (4608000)
I0506 00:36:10.683816 32677 net.cpp:165] Memory required for data: 2009427968
I0506 00:36:10.683821 32677 layer_factory.hpp:77] Creating layer conv3_sTanH
I0506 00:36:10.683827 32677 net.cpp:100] Creating Layer conv3_sTanH
I0506 00:36:10.683832 32677 net.cpp:434] conv3_sTanH <- conv3
I0506 00:36:10.683837 32677 net.cpp:395] conv3_sTanH -> conv3 (in-place)
I0506 00:36:10.692318 32677 net.cpp:150] Setting up conv3_sTanH
I0506 00:36:10.692337 32677 net.cpp:157] Top shape: 512 250 6 6 (4608000)
I0506 00:36:10.692340 32677 net.cpp:165] Memory required for data: 2027859968
I0506 00:36:10.692344 32677 layer_factory.hpp:77] Creating layer conv3_postscale
I0506 00:36:10.692353 32677 net.cpp:100] Creating Layer conv3_postscale
I0506 00:36:10.692356 32677 net.cpp:434] conv3_postscale <- conv3
I0506 00:36:10.692363 32677 net.cpp:395] conv3_postscale -> conv3 (in-place)
I0506 00:36:10.692461 32677 net.cpp:150] Setting up conv3_postscale
I0506 00:36:10.692469 32677 net.cpp:157] Top shape: 512 250 6 6 (4608000)
I0506 00:36:10.692472 32677 net.cpp:165] Memory required for data: 2046291968
I0506 00:36:10.692478 32677 layer_factory.hpp:77] Creating layer pool3
I0506 00:36:10.692488 32677 net.cpp:100] Creating Layer pool3
I0506 00:36:10.692492 32677 net.cpp:434] pool3 <- conv3
I0506 00:36:10.692498 32677 net.cpp:408] pool3 -> pool3
I0506 00:36:10.692538 32677 net.cpp:150] Setting up pool3
I0506 00:36:10.692544 32677 net.cpp:157] Top shape: 512 250 3 3 (1152000)
I0506 00:36:10.692548 32677 net.cpp:165] Memory required for data: 2050899968
I0506 00:36:10.692550 32677 layer_factory.hpp:77] Creating layer fc4_300
I0506 00:36:10.692558 32677 net.cpp:100] Creating Layer fc4_300
I0506 00:36:10.692562 32677 net.cpp:434] fc4_300 <- pool3
I0506 00:36:10.692566 32677 net.cpp:408] fc4_300 -> fc4_300
I0506 00:36:10.698583 32677 net.cpp:150] Setting up fc4_300
I0506 00:36:10.698601 32677 net.cpp:157] Top shape: 512 300 (153600)
I0506 00:36:10.698606 32677 net.cpp:165] Memory required for data: 2051514368
I0506 00:36:10.698612 32677 layer_factory.hpp:77] Creating layer fc4_prescale
I0506 00:36:10.698621 32677 net.cpp:100] Creating Layer fc4_prescale
I0506 00:36:10.698624 32677 net.cpp:434] fc4_prescale <- fc4_300
I0506 00:36:10.698629 32677 net.cpp:395] fc4_prescale -> fc4_300 (in-place)
I0506 00:36:10.698719 32677 net.cpp:150] Setting up fc4_prescale
I0506 00:36:10.698727 32677 net.cpp:157] Top shape: 512 300 (153600)
I0506 00:36:10.698730 32677 net.cpp:165] Memory required for data: 2052128768
I0506 00:36:10.698734 32677 layer_factory.hpp:77] Creating layer fc4_sTanH
I0506 00:36:10.698740 32677 net.cpp:100] Creating Layer fc4_sTanH
I0506 00:36:10.698745 32677 net.cpp:434] fc4_sTanH <- fc4_300
I0506 00:36:10.698750 32677 net.cpp:395] fc4_sTanH -> fc4_300 (in-place)
I0506 00:36:10.698930 32677 net.cpp:150] Setting up fc4_sTanH
I0506 00:36:10.698942 32677 net.cpp:157] Top shape: 512 300 (153600)
I0506 00:36:10.698946 32677 net.cpp:165] Memory required for data: 2052743168
I0506 00:36:10.698949 32677 layer_factory.hpp:77] Creating layer fc4_postscale
I0506 00:36:10.698956 32677 net.cpp:100] Creating Layer fc4_postscale
I0506 00:36:10.698961 32677 net.cpp:434] fc4_postscale <- fc4_300
I0506 00:36:10.698966 32677 net.cpp:395] fc4_postscale -> fc4_300 (in-place)
I0506 00:36:10.699059 32677 net.cpp:150] Setting up fc4_postscale
I0506 00:36:10.699066 32677 net.cpp:157] Top shape: 512 300 (153600)
I0506 00:36:10.699069 32677 net.cpp:165] Memory required for data: 2053357568
I0506 00:36:10.699074 32677 layer_factory.hpp:77] Creating layer fc5_116
I0506 00:36:10.699081 32677 net.cpp:100] Creating Layer fc5_116
I0506 00:36:10.699085 32677 net.cpp:434] fc5_116 <- fc4_300
I0506 00:36:10.699090 32677 net.cpp:408] fc5_116 -> fc5_classes
I0506 00:36:10.707954 32677 net.cpp:150] Setting up fc5_116
I0506 00:36:10.707988 32677 net.cpp:157] Top shape: 512 116 (59392)
I0506 00:36:10.707991 32677 net.cpp:165] Memory required for data: 2053595136
I0506 00:36:10.708003 32677 layer_factory.hpp:77] Creating layer fc5_classes_fc5_116_0_split
I0506 00:36:10.708012 32677 net.cpp:100] Creating Layer fc5_classes_fc5_116_0_split
I0506 00:36:10.708017 32677 net.cpp:434] fc5_classes_fc5_116_0_split <- fc5_classes
I0506 00:36:10.708024 32677 net.cpp:408] fc5_classes_fc5_116_0_split -> fc5_classes_fc5_116_0_split_0
I0506 00:36:10.708031 32677 net.cpp:408] fc5_classes_fc5_116_0_split -> fc5_classes_fc5_116_0_split_1
I0506 00:36:10.708039 32677 net.cpp:408] fc5_classes_fc5_116_0_split -> fc5_classes_fc5_116_0_split_2
I0506 00:36:10.708093 32677 net.cpp:150] Setting up fc5_classes_fc5_116_0_split
I0506 00:36:10.708101 32677 net.cpp:157] Top shape: 512 116 (59392)
I0506 00:36:10.708104 32677 net.cpp:157] Top shape: 512 116 (59392)
I0506 00:36:10.708107 32677 net.cpp:157] Top shape: 512 116 (59392)
I0506 00:36:10.708109 32677 net.cpp:165] Memory required for data: 2054307840
I0506 00:36:10.708112 32677 layer_factory.hpp:77] Creating layer softmax
I0506 00:36:10.708119 32677 net.cpp:100] Creating Layer softmax
I0506 00:36:10.708123 32677 net.cpp:434] softmax <- fc5_classes_fc5_116_0_split_0
I0506 00:36:10.708129 32677 net.cpp:408] softmax -> softmax
I0506 00:36:10.708380 32677 net.cpp:150] Setting up softmax
I0506 00:36:10.708392 32677 net.cpp:157] Top shape: 512 116 (59392)
I0506 00:36:10.708396 32677 net.cpp:165] Memory required for data: 2054545408
I0506 00:36:10.708400 32677 layer_factory.hpp:77] Creating layer loss
I0506 00:36:10.708406 32677 net.cpp:100] Creating Layer loss
I0506 00:36:10.708411 32677 net.cpp:434] loss <- softmax
I0506 00:36:10.708416 32677 net.cpp:434] loss <- label_data_1_split_0
I0506 00:36:10.708422 32677 net.cpp:408] loss -> loss
…
