…
I0414 22:09:51.076107 11638 solver.cpp:93] Creating training net from train_net file: ./Prototxt/experiment_10/rtsd-r3/histeq/trial_3/train.prototxt
I0414 22:09:51.094279 11638 net.cpp:58] Initializing net from parameters: 
state {
  phase: TRAIN
  level: 0
  stage: ""
}
layer {
  name: "data"
  type: "Data"
  top: "data"
  top: "label"
  include {
    phase: TRAIN
  }
  transform_param {
    scale: 0.0039215689
    mirror: false
    crop_size: 48
    mean_value: 135
    mean_value: 128
    mean_value: 128
  }
  data_param {
    source: "../local_data/lmdb/rtsd-r3/histeq/train/lmdb"
    batch_size: 1024
    backend: LMDB
  }
}
layer {
  name: "conv1"
  type: "Convolution"
  bottom: "data"
  top: "conv1"
  convolution_param {
    num_output: 100
    pad: 0
    kernel_size: 7
    group: 1
    stride: 1
    weight_filler {
      type: "xavier"
    }
  }
}
layer {
  name: "conv1_relu"
  type: "ReLU"
  bottom: "conv1"
  top: "conv1"
}
layer {
  name: "pool1"
  type: "Pooling"
  bottom: "conv1"
  top: "pool1"
  pooling_param {
    pool: MAX
    kernel_size: 2
    stride: 2
  }
}
layer {
  name: "conv2"
  type: "Convolution"
  bottom: "pool1"
  top: "conv2"
  convolution_param {
    num_output: 150
    pad: 0
    kernel_size: 4
    group: 1
    stride: 1
    weight_filler {
      type: "xavier"
    }
  }
}
layer {
  name: "conv2_relu"
  type: "ReLU"
  bottom: "conv2"
  top: "conv2"
}
layer {
  name: "pool2"
  type: "Pooling"
  bottom: "conv2"
  top: "pool2"
  pooling_param {
    pool: MAX
    kernel_size: 2
    stride: 2
  }
}
layer {
  name: "conv3"
  type: "Convolution"
  bottom: "pool2"
  top: "conv3"
  convolution_param {
    num_output: 250
    pad: 0
    kernel_size: 4
    group: 1
    stride: 1
    weight_filler {
      type: "xavier"
    }
  }
}
layer {
  name: "conv3_relu"
  type: "ReLU"
  bottom: "conv3"
  top: "conv3"
}
layer {
  name: "pool3"
  type: "Pooling"
  bottom: "conv3"
  top: "pool3"
  pooling_param {
    pool: MAX
    kernel_size: 2
    stride: 2
  }
}
layer {
  name: "fc4_300"
  type: "InnerProduct"
  bottom: "pool3"
  top: "fc4_300"
  inner_product_param {
    num_output: 300
    weight_filler {
      type: "xavier"
    }
  }
}
layer {
  name: "fc4_relu"
  type: "ReLU"
  bottom: "fc4_300"
  top: "fc4_300"
}
layer {
  name: "fc5_106"
  type: "InnerProduct"
  bottom: "fc4_300"
  top: "fc5_classes"
  inner_product_param {
    num_output: 106
    weight_filler {
      type: "xavier"
    }
  }
}
layer {
  name: "softmax"
  type: "Softmax"
  bottom: "fc5_classes"
  top: "softmax"
}
layer {
  name: "loss"
  type: "MultinomialLogisticLoss"
  bottom: "softmax"
  bottom: "label"
  top: "loss"
}
layer {
  name: "accuracy_1"
  type: "Accuracy"
  bottom: "fc5_classes"
  bottom: "label"
  top: "accuracy_1"
  accuracy_param {
    top_k: 1
  }
}
layer {
  name: "accuracy_5"
  type: "Accuracy"
  bottom: "fc5_classes"
  bottom: "label"
  top: "accuracy_5"
  accuracy_param {
    top_k: 5
  }
}
layer {
  name: "silence"
  type: "Silence"
  bottom: "accuracy_1"
  bottom: "accuracy_5"
}
I0414 22:09:51.094406 11638 layer_factory.hpp:77] Creating layer data
I0414 22:09:51.095497 11638 net.cpp:100] Creating Layer data
I0414 22:09:51.095515 11638 net.cpp:408] data -> data
I0414 22:09:51.095541 11638 net.cpp:408] data -> label
I0414 22:09:51.098491 11767 db_lmdb.cpp:35] Opened lmdb ../local_data/lmdb/rtsd-r3/histeq/train/lmdb
I0414 22:09:51.141964 11638 data_layer.cpp:41] output data size: 1024,3,48,48
I0414 22:09:51.245606 11638 net.cpp:150] Setting up data
I0414 22:09:51.245784 11638 net.cpp:157] Top shape: 1024 3 48 48 (7077888)
I0414 22:09:51.245836 11638 net.cpp:157] Top shape: 1024 (1024)
I0414 22:09:51.245848 11638 net.cpp:165] Memory required for data: 28315648
I0414 22:09:51.245913 11638 layer_factory.hpp:77] Creating layer label_data_1_split
I0414 22:09:51.245975 11638 net.cpp:100] Creating Layer label_data_1_split
I0414 22:09:51.246016 11638 net.cpp:434] label_data_1_split <- label
I0414 22:09:51.246088 11638 net.cpp:408] label_data_1_split -> label_data_1_split_0
I0414 22:09:51.246140 11638 net.cpp:408] label_data_1_split -> label_data_1_split_1
I0414 22:09:51.246232 11638 net.cpp:408] label_data_1_split -> label_data_1_split_2
I0414 22:09:51.246444 11638 net.cpp:150] Setting up label_data_1_split
I0414 22:09:51.246460 11638 net.cpp:157] Top shape: 1024 (1024)
I0414 22:09:51.246469 11638 net.cpp:157] Top shape: 1024 (1024)
I0414 22:09:51.246502 11638 net.cpp:157] Top shape: 1024 (1024)
I0414 22:09:51.246510 11638 net.cpp:165] Memory required for data: 28327936
I0414 22:09:51.246515 11638 layer_factory.hpp:77] Creating layer conv1
I0414 22:09:51.246570 11638 net.cpp:100] Creating Layer conv1
I0414 22:09:51.246590 11638 net.cpp:434] conv1 <- data
I0414 22:09:51.246613 11638 net.cpp:408] conv1 -> conv1
I0414 22:09:52.162708 11638 net.cpp:150] Setting up conv1
I0414 22:09:52.162763 11638 net.cpp:157] Top shape: 1024 100 42 42 (180633600)
I0414 22:09:52.162773 11638 net.cpp:165] Memory required for data: 750862336
I0414 22:09:52.162822 11638 layer_factory.hpp:77] Creating layer conv1_relu
I0414 22:09:52.162848 11638 net.cpp:100] Creating Layer conv1_relu
I0414 22:09:52.162860 11638 net.cpp:434] conv1_relu <- conv1
I0414 22:09:52.162875 11638 net.cpp:395] conv1_relu -> conv1 (in-place)
I0414 22:09:52.163342 11638 net.cpp:150] Setting up conv1_relu
I0414 22:09:52.163393 11638 net.cpp:157] Top shape: 1024 100 42 42 (180633600)
I0414 22:09:52.163401 11638 net.cpp:165] Memory required for data: 1473396736
I0414 22:09:52.163409 11638 layer_factory.hpp:77] Creating layer pool1
I0414 22:09:52.163434 11638 net.cpp:100] Creating Layer pool1
I0414 22:09:52.163444 11638 net.cpp:434] pool1 <- conv1
I0414 22:09:52.163458 11638 net.cpp:408] pool1 -> pool1
I0414 22:09:52.163578 11638 net.cpp:150] Setting up pool1
I0414 22:09:52.163595 11638 net.cpp:157] Top shape: 1024 100 21 21 (45158400)
I0414 22:09:52.163602 11638 net.cpp:165] Memory required for data: 1654030336
I0414 22:09:52.163609 11638 layer_factory.hpp:77] Creating layer conv2
I0414 22:09:52.163633 11638 net.cpp:100] Creating Layer conv2
I0414 22:09:52.163641 11638 net.cpp:434] conv2 <- pool1
I0414 22:09:52.163655 11638 net.cpp:408] conv2 -> conv2
I0414 22:09:52.173552 11638 net.cpp:150] Setting up conv2
I0414 22:09:52.173580 11638 net.cpp:157] Top shape: 1024 150 18 18 (49766400)
I0414 22:09:52.173590 11638 net.cpp:165] Memory required for data: 1853095936
I0414 22:09:52.173609 11638 layer_factory.hpp:77] Creating layer conv2_relu
I0414 22:09:52.173624 11638 net.cpp:100] Creating Layer conv2_relu
I0414 22:09:52.173629 11638 net.cpp:434] conv2_relu <- conv2
I0414 22:09:52.173637 11638 net.cpp:395] conv2_relu -> conv2 (in-place)
I0414 22:09:52.175024 11638 net.cpp:150] Setting up conv2_relu
I0414 22:09:52.175060 11638 net.cpp:157] Top shape: 1024 150 18 18 (49766400)
I0414 22:09:52.175070 11638 net.cpp:165] Memory required for data: 2052161536
I0414 22:09:52.175079 11638 layer_factory.hpp:77] Creating layer pool2
I0414 22:09:52.175098 11638 net.cpp:100] Creating Layer pool2
I0414 22:09:52.175108 11638 net.cpp:434] pool2 <- conv2
I0414 22:09:52.175123 11638 net.cpp:408] pool2 -> pool2
I0414 22:09:52.175216 11638 net.cpp:150] Setting up pool2
I0414 22:09:52.175228 11638 net.cpp:157] Top shape: 1024 150 9 9 (12441600)
I0414 22:09:52.175233 11638 net.cpp:165] Memory required for data: 2101927936
I0414 22:09:52.175241 11638 layer_factory.hpp:77] Creating layer conv3
I0414 22:09:52.175261 11638 net.cpp:100] Creating Layer conv3
I0414 22:09:52.175268 11638 net.cpp:434] conv3 <- pool2
I0414 22:09:52.175279 11638 net.cpp:408] conv3 -> conv3
I0414 22:09:52.183946 11638 net.cpp:150] Setting up conv3
I0414 22:09:52.183971 11638 net.cpp:157] Top shape: 1024 250 6 6 (9216000)
I0414 22:09:52.183979 11638 net.cpp:165] Memory required for data: 2138791936
I0414 22:09:52.183993 11638 layer_factory.hpp:77] Creating layer conv3_relu
I0414 22:09:52.184005 11638 net.cpp:100] Creating Layer conv3_relu
I0414 22:09:52.184013 11638 net.cpp:434] conv3_relu <- conv3
I0414 22:09:52.184023 11638 net.cpp:395] conv3_relu -> conv3 (in-place)
I0414 22:09:52.188941 11638 net.cpp:150] Setting up conv3_relu
I0414 22:09:52.188959 11638 net.cpp:157] Top shape: 1024 250 6 6 (9216000)
I0414 22:09:52.188966 11638 net.cpp:165] Memory required for data: 2175655936
I0414 22:09:52.188969 11638 layer_factory.hpp:77] Creating layer pool3
I0414 22:09:52.188978 11638 net.cpp:100] Creating Layer pool3
I0414 22:09:52.188984 11638 net.cpp:434] pool3 <- conv3
I0414 22:09:52.188990 11638 net.cpp:408] pool3 -> pool3
I0414 22:09:52.189043 11638 net.cpp:150] Setting up pool3
I0414 22:09:52.189051 11638 net.cpp:157] Top shape: 1024 250 3 3 (2304000)
I0414 22:09:52.189056 11638 net.cpp:165] Memory required for data: 2184871936
I0414 22:09:52.189059 11638 layer_factory.hpp:77] Creating layer fc4_300
I0414 22:09:52.189066 11638 net.cpp:100] Creating Layer fc4_300
I0414 22:09:52.189071 11638 net.cpp:434] fc4_300 <- pool3
I0414 22:09:52.189080 11638 net.cpp:408] fc4_300 -> fc4_300
I0414 22:09:52.204234 11638 net.cpp:150] Setting up fc4_300
I0414 22:09:52.204265 11638 net.cpp:157] Top shape: 1024 300 (307200)
I0414 22:09:52.204272 11638 net.cpp:165] Memory required for data: 2186100736
I0414 22:09:52.204289 11638 layer_factory.hpp:77] Creating layer fc4_relu
I0414 22:09:52.204308 11638 net.cpp:100] Creating Layer fc4_relu
I0414 22:09:52.204319 11638 net.cpp:434] fc4_relu <- fc4_300
I0414 22:09:52.204334 11638 net.cpp:395] fc4_relu -> fc4_300 (in-place)
I0414 22:09:52.204792 11638 net.cpp:150] Setting up fc4_relu
I0414 22:09:52.204815 11638 net.cpp:157] Top shape: 1024 300 (307200)
I0414 22:09:52.204823 11638 net.cpp:165] Memory required for data: 2187329536
I0414 22:09:52.204831 11638 layer_factory.hpp:77] Creating layer fc5_106
I0414 22:09:52.204845 11638 net.cpp:100] Creating Layer fc5_106
I0414 22:09:52.204854 11638 net.cpp:434] fc5_106 <- fc4_300
I0414 22:09:52.204872 11638 net.cpp:408] fc5_106 -> fc5_classes
I0414 22:09:52.206640 11638 net.cpp:150] Setting up fc5_106
I0414 22:09:52.206657 11638 net.cpp:157] Top shape: 1024 106 (108544)
I0414 22:09:52.206667 11638 net.cpp:165] Memory required for data: 2187763712
I0414 22:09:52.206693 11638 layer_factory.hpp:77] Creating layer fc5_classes_fc5_106_0_split
I0414 22:09:52.206712 11638 net.cpp:100] Creating Layer fc5_classes_fc5_106_0_split
I0414 22:09:52.206722 11638 net.cpp:434] fc5_classes_fc5_106_0_split <- fc5_classes
I0414 22:09:52.206740 11638 net.cpp:408] fc5_classes_fc5_106_0_split -> fc5_classes_fc5_106_0_split_0
I0414 22:09:52.206758 11638 net.cpp:408] fc5_classes_fc5_106_0_split -> fc5_classes_fc5_106_0_split_1
I0414 22:09:52.206774 11638 net.cpp:408] fc5_classes_fc5_106_0_split -> fc5_classes_fc5_106_0_split_2
I0414 22:09:52.206883 11638 net.cpp:150] Setting up fc5_classes_fc5_106_0_split
I0414 22:09:52.206898 11638 net.cpp:157] Top shape: 1024 106 (108544)
I0414 22:09:52.206907 11638 net.cpp:157] Top shape: 1024 106 (108544)
I0414 22:09:52.206918 11638 net.cpp:157] Top shape: 1024 106 (108544)
I0414 22:09:52.206925 11638 net.cpp:165] Memory required for data: 2189066240
I0414 22:09:52.206933 11638 layer_factory.hpp:77] Creating layer softmax
I0414 22:09:52.206948 11638 net.cpp:100] Creating Layer softmax
I0414 22:09:52.206957 11638 net.cpp:434] softmax <- fc5_classes_fc5_106_0_split_0
I0414 22:09:52.206972 11638 net.cpp:408] softmax -> softmax
I0414 22:09:52.207458 11638 net.cpp:150] Setting up softmax
I0414 22:09:52.207480 11638 net.cpp:157] Top shape: 1024 106 (108544)
I0414 22:09:52.207485 11638 net.cpp:165] Memory required for data: 2189500416
I0414 22:09:52.207494 11638 layer_factory.hpp:77] Creating layer loss
I0414 22:09:52.207538 11638 net.cpp:100] Creating Layer loss
I0414 22:09:52.207551 11638 net.cpp:434] loss <- softmax
I0414 22:09:52.207558 11638 net.cpp:434] loss <- label_data_1_split_0
I0414 22:09:52.207569 11638 net.cpp:408] loss -> loss
…
