…
I0415 10:37:00.180302 27384 solver.cpp:93] Creating training net from train_net file: ./Prototxt/experiment_12/rtsd-r3/orig/trial_1/train.prototxt
I0415 10:37:00.180740 27384 net.cpp:58] Initializing net from parameters: 
state {
  phase: TRAIN
  level: 0
  stage: ""
}
layer {
  name: "data"
  type: "Data"
  top: "data"
  top: "label"
  include {
    phase: TRAIN
  }
  transform_param {
    scale: 0.0039215689
    mirror: false
    crop_size: 48
    mean_value: 120
    mean_value: 113
    mean_value: 112
  }
  data_param {
    source: "../local_data/lmdb/rtsd-r3/orig/train/lmdb"
    batch_size: 1024
    backend: LMDB
  }
}
layer {
  name: "conv1"
  type: "Convolution"
  bottom: "data"
  top: "conv1"
  convolution_param {
    num_output: 100
    pad: 0
    kernel_size: 7
    group: 1
    stride: 1
    weight_filler {
      type: "xavier"
    }
  }
}
layer {
  name: "conv1_relu"
  type: "ReLU"
  bottom: "conv1"
  top: "conv1"
}
layer {
  name: "pool1"
  type: "Pooling"
  bottom: "conv1"
  top: "pool1"
  pooling_param {
    pool: MAX
    kernel_size: 2
    stride: 2
  }
}
layer {
  name: "conv2"
  type: "Convolution"
  bottom: "pool1"
  top: "conv2"
  convolution_param {
    num_output: 150
    pad: 0
    kernel_size: 4
    group: 1
    stride: 1
    weight_filler {
      type: "xavier"
    }
  }
}
layer {
  name: "conv2_relu"
  type: "ReLU"
  bottom: "conv2"
  top: "conv2"
}
layer {
  name: "pool2"
  type: "Pooling"
  bottom: "conv2"
  top: "pool2"
  pooling_param {
    pool: MAX
    kernel_size: 2
    stride: 2
  }
}
layer {
  name: "conv3"
  type: "Convolution"
  bottom: "pool2"
  top: "conv3"
  convolution_param {
    num_output: 250
    pad: 0
    kernel_size: 4
    group: 1
    stride: 1
    weight_filler {
      type: "xavier"
    }
  }
}
layer {
  name: "conv3_relu"
  type: "ReLU"
  bottom: "conv3"
  top: "conv3"
}
layer {
  name: "pool3"
  type: "Pooling"
  bottom: "conv3"
  top: "pool3"
  pooling_param {
    pool: MAX
    kernel_size: 2
    stride: 2
  }
}
layer {
  name: "fc4_300"
  type: "InnerProduct"
  bottom: "pool3"
  top: "fc4_300"
  inner_product_param {
    num_output: 300
    weight_filler {
      type: "xavier"
    }
  }
}
layer {
  name: "fc4_relu"
  type: "ReLU"
  bottom: "fc4_300"
  top: "fc4_300"
}
layer {
  name: "drop4"
  type: "Dropout"
  bottom: "fc4_300"
  top: "fc4_300"
  dropout_param {
    dropout_ratio: 0.5
  }
}
layer {
  name: "fc5_106"
  type: "InnerProduct"
  bottom: "fc4_300"
  top: "fc5_classes"
  inner_product_param {
    num_output: 106
    weight_filler {
      type: "xavier"
    }
  }
}
layer {
  name: "softmax"
  type: "Softmax"
  bottom: "fc5_classes"
  top: "softmax"
}
layer {
  name: "loss"
  type: "MultinomialLogisticLoss"
  bottom: "softmax"
  bottom: "label"
  top: "loss"
}
layer {
  name: "accuracy_1"
  type: "Accuracy"
  bottom: "fc5_classes"
  bottom: "label"
  top: "accuracy_1"
  accuracy_param {
    top_k: 1
  }
}
layer {
  name: "accuracy_5"
  type: "Accuracy"
  bottom: "fc5_classes"
  bottom: "label"
  top: "accuracy_5"
  accuracy_param {
    top_k: 5
  }
}
layer {
  name: "silence"
  type: "Silence"
  bottom: "accuracy_1"
  bottom: "accuracy_5"
}
I0415 10:37:00.180878 27384 layer_factory.hpp:77] Creating layer data
I0415 10:37:00.182160 27384 net.cpp:100] Creating Layer data
I0415 10:37:00.182175 27384 net.cpp:408] data -> data
I0415 10:37:00.182196 27384 net.cpp:408] data -> label
I0415 10:37:00.242558 27504 db_lmdb.cpp:35] Opened lmdb ../local_data/lmdb/rtsd-r3/orig/train/lmdb
I0415 10:37:00.277004 27384 data_layer.cpp:41] output data size: 1024,3,48,48
I0415 10:37:00.330723 27384 net.cpp:150] Setting up data
I0415 10:37:00.330754 27384 net.cpp:157] Top shape: 1024 3 48 48 (7077888)
I0415 10:37:00.330760 27384 net.cpp:157] Top shape: 1024 (1024)
I0415 10:37:00.330763 27384 net.cpp:165] Memory required for data: 28315648
I0415 10:37:00.330775 27384 layer_factory.hpp:77] Creating layer label_data_1_split
I0415 10:37:00.330796 27384 net.cpp:100] Creating Layer label_data_1_split
I0415 10:37:00.330803 27384 net.cpp:434] label_data_1_split <- label
I0415 10:37:00.330821 27384 net.cpp:408] label_data_1_split -> label_data_1_split_0
I0415 10:37:00.330833 27384 net.cpp:408] label_data_1_split -> label_data_1_split_1
I0415 10:37:00.330845 27384 net.cpp:408] label_data_1_split -> label_data_1_split_2
I0415 10:37:00.330919 27384 net.cpp:150] Setting up label_data_1_split
I0415 10:37:00.330929 27384 net.cpp:157] Top shape: 1024 (1024)
I0415 10:37:00.330934 27384 net.cpp:157] Top shape: 1024 (1024)
I0415 10:37:00.330937 27384 net.cpp:157] Top shape: 1024 (1024)
I0415 10:37:00.330940 27384 net.cpp:165] Memory required for data: 28327936
I0415 10:37:00.330945 27384 layer_factory.hpp:77] Creating layer conv1
I0415 10:37:00.330963 27384 net.cpp:100] Creating Layer conv1
I0415 10:37:00.330970 27384 net.cpp:434] conv1 <- data
I0415 10:37:00.330976 27384 net.cpp:408] conv1 -> conv1
I0415 10:37:00.379617 27520 blocking_queue.cpp:50] Waiting for data
I0415 10:37:00.675391 27384 net.cpp:150] Setting up conv1
I0415 10:37:00.675418 27384 net.cpp:157] Top shape: 1024 100 42 42 (180633600)
I0415 10:37:00.675422 27384 net.cpp:165] Memory required for data: 750862336
I0415 10:37:00.675443 27384 layer_factory.hpp:77] Creating layer conv1_relu
I0415 10:37:00.675453 27384 net.cpp:100] Creating Layer conv1_relu
I0415 10:37:00.675457 27384 net.cpp:434] conv1_relu <- conv1
I0415 10:37:00.675475 27384 net.cpp:395] conv1_relu -> conv1 (in-place)
I0415 10:37:00.675668 27384 net.cpp:150] Setting up conv1_relu
I0415 10:37:00.675679 27384 net.cpp:157] Top shape: 1024 100 42 42 (180633600)
I0415 10:37:00.675683 27384 net.cpp:165] Memory required for data: 1473396736
I0415 10:37:00.675685 27384 layer_factory.hpp:77] Creating layer pool1
I0415 10:37:00.675694 27384 net.cpp:100] Creating Layer pool1
I0415 10:37:00.675698 27384 net.cpp:434] pool1 <- conv1
I0415 10:37:00.675704 27384 net.cpp:408] pool1 -> pool1
I0415 10:37:00.675755 27384 net.cpp:150] Setting up pool1
I0415 10:37:00.675760 27384 net.cpp:157] Top shape: 1024 100 21 21 (45158400)
I0415 10:37:00.675763 27384 net.cpp:165] Memory required for data: 1654030336
I0415 10:37:00.675766 27384 layer_factory.hpp:77] Creating layer conv2
I0415 10:37:00.675776 27384 net.cpp:100] Creating Layer conv2
I0415 10:37:00.675778 27384 net.cpp:434] conv2 <- pool1
I0415 10:37:00.675783 27384 net.cpp:408] conv2 -> conv2
I0415 10:37:00.680641 27384 net.cpp:150] Setting up conv2
I0415 10:37:00.680656 27384 net.cpp:157] Top shape: 1024 150 18 18 (49766400)
I0415 10:37:00.680660 27384 net.cpp:165] Memory required for data: 1853095936
I0415 10:37:00.680670 27384 layer_factory.hpp:77] Creating layer conv2_relu
I0415 10:37:00.680677 27384 net.cpp:100] Creating Layer conv2_relu
I0415 10:37:00.680680 27384 net.cpp:434] conv2_relu <- conv2
I0415 10:37:00.680685 27384 net.cpp:395] conv2_relu -> conv2 (in-place)
I0415 10:37:00.685377 27384 net.cpp:150] Setting up conv2_relu
I0415 10:37:00.685392 27384 net.cpp:157] Top shape: 1024 150 18 18 (49766400)
I0415 10:37:00.685406 27384 net.cpp:165] Memory required for data: 2052161536
I0415 10:37:00.685410 27384 layer_factory.hpp:77] Creating layer pool2
I0415 10:37:00.685416 27384 net.cpp:100] Creating Layer pool2
I0415 10:37:00.685420 27384 net.cpp:434] pool2 <- conv2
I0415 10:37:00.685425 27384 net.cpp:408] pool2 -> pool2
I0415 10:37:00.685472 27384 net.cpp:150] Setting up pool2
I0415 10:37:00.685480 27384 net.cpp:157] Top shape: 1024 150 9 9 (12441600)
I0415 10:37:00.685483 27384 net.cpp:165] Memory required for data: 2101927936
I0415 10:37:00.685487 27384 layer_factory.hpp:77] Creating layer conv3
I0415 10:37:00.685516 27384 net.cpp:100] Creating Layer conv3
I0415 10:37:00.685523 27384 net.cpp:434] conv3 <- pool2
I0415 10:37:00.685528 27384 net.cpp:408] conv3 -> conv3
I0415 10:37:00.691028 27384 net.cpp:150] Setting up conv3
I0415 10:37:00.691045 27384 net.cpp:157] Top shape: 1024 250 6 6 (9216000)
I0415 10:37:00.691048 27384 net.cpp:165] Memory required for data: 2138791936
I0415 10:37:00.691058 27384 layer_factory.hpp:77] Creating layer conv3_relu
I0415 10:37:00.691064 27384 net.cpp:100] Creating Layer conv3_relu
I0415 10:37:00.691068 27384 net.cpp:434] conv3_relu <- conv3
I0415 10:37:00.691084 27384 net.cpp:395] conv3_relu -> conv3 (in-place)
I0415 10:37:00.692044 27384 net.cpp:150] Setting up conv3_relu
I0415 10:37:00.692059 27384 net.cpp:157] Top shape: 1024 250 6 6 (9216000)
I0415 10:37:00.692064 27384 net.cpp:165] Memory required for data: 2175655936
I0415 10:37:00.692066 27384 layer_factory.hpp:77] Creating layer pool3
I0415 10:37:00.692073 27384 net.cpp:100] Creating Layer pool3
I0415 10:37:00.692076 27384 net.cpp:434] pool3 <- conv3
I0415 10:37:00.692081 27384 net.cpp:408] pool3 -> pool3
I0415 10:37:00.692127 27384 net.cpp:150] Setting up pool3
I0415 10:37:00.692136 27384 net.cpp:157] Top shape: 1024 250 3 3 (2304000)
I0415 10:37:00.692138 27384 net.cpp:165] Memory required for data: 2184871936
I0415 10:37:00.692142 27384 layer_factory.hpp:77] Creating layer fc4_300
I0415 10:37:00.692148 27384 net.cpp:100] Creating Layer fc4_300
I0415 10:37:00.692152 27384 net.cpp:434] fc4_300 <- pool3
I0415 10:37:00.692157 27384 net.cpp:408] fc4_300 -> fc4_300
I0415 10:37:00.697962 27384 net.cpp:150] Setting up fc4_300
I0415 10:37:00.697976 27384 net.cpp:157] Top shape: 1024 300 (307200)
I0415 10:37:00.697990 27384 net.cpp:165] Memory required for data: 2186100736
I0415 10:37:00.697998 27384 layer_factory.hpp:77] Creating layer fc4_relu
I0415 10:37:00.698004 27384 net.cpp:100] Creating Layer fc4_relu
I0415 10:37:00.698007 27384 net.cpp:434] fc4_relu <- fc4_300
I0415 10:37:00.698011 27384 net.cpp:395] fc4_relu -> fc4_300 (in-place)
I0415 10:37:00.698199 27384 net.cpp:150] Setting up fc4_relu
I0415 10:37:00.698210 27384 net.cpp:157] Top shape: 1024 300 (307200)
I0415 10:37:00.698212 27384 net.cpp:165] Memory required for data: 2187329536
I0415 10:37:00.698215 27384 layer_factory.hpp:77] Creating layer drop4
I0415 10:37:00.698221 27384 net.cpp:100] Creating Layer drop4
I0415 10:37:00.698226 27384 net.cpp:434] drop4 <- fc4_300
I0415 10:37:00.698231 27384 net.cpp:395] drop4 -> fc4_300 (in-place)
I0415 10:37:00.698262 27384 net.cpp:150] Setting up drop4
I0415 10:37:00.698269 27384 net.cpp:157] Top shape: 1024 300 (307200)
I0415 10:37:00.698272 27384 net.cpp:165] Memory required for data: 2188558336
I0415 10:37:00.698276 27384 layer_factory.hpp:77] Creating layer fc5_106
I0415 10:37:00.698282 27384 net.cpp:100] Creating Layer fc5_106
I0415 10:37:00.698284 27384 net.cpp:434] fc5_106 <- fc4_300
I0415 10:37:00.698292 27384 net.cpp:408] fc5_106 -> fc5_classes
I0415 10:37:00.699688 27384 net.cpp:150] Setting up fc5_106
I0415 10:37:00.699702 27384 net.cpp:157] Top shape: 1024 106 (108544)
I0415 10:37:00.699708 27384 net.cpp:165] Memory required for data: 2188992512
I0415 10:37:00.699719 27384 layer_factory.hpp:77] Creating layer fc5_classes_fc5_106_0_split
I0415 10:37:00.699728 27384 net.cpp:100] Creating Layer fc5_classes_fc5_106_0_split
I0415 10:37:00.699731 27384 net.cpp:434] fc5_classes_fc5_106_0_split <- fc5_classes
I0415 10:37:00.699738 27384 net.cpp:408] fc5_classes_fc5_106_0_split -> fc5_classes_fc5_106_0_split_0
I0415 10:37:00.699748 27384 net.cpp:408] fc5_classes_fc5_106_0_split -> fc5_classes_fc5_106_0_split_1
I0415 10:37:00.699755 27384 net.cpp:408] fc5_classes_fc5_106_0_split -> fc5_classes_fc5_106_0_split_2
I0415 10:37:00.699807 27384 net.cpp:150] Setting up fc5_classes_fc5_106_0_split
I0415 10:37:00.699815 27384 net.cpp:157] Top shape: 1024 106 (108544)
I0415 10:37:00.699818 27384 net.cpp:157] Top shape: 1024 106 (108544)
I0415 10:37:00.699821 27384 net.cpp:157] Top shape: 1024 106 (108544)
I0415 10:37:00.699838 27384 net.cpp:165] Memory required for data: 2190295040
I0415 10:37:00.699842 27384 layer_factory.hpp:77] Creating layer softmax
I0415 10:37:00.699856 27384 net.cpp:100] Creating Layer softmax
I0415 10:37:00.699862 27384 net.cpp:434] softmax <- fc5_classes_fc5_106_0_split_0
I0415 10:37:00.699867 27384 net.cpp:408] softmax -> softmax
I0415 10:37:00.700134 27384 net.cpp:150] Setting up softmax
I0415 10:37:00.700146 27384 net.cpp:157] Top shape: 1024 106 (108544)
I0415 10:37:00.700150 27384 net.cpp:165] Memory required for data: 2190729216
I0415 10:37:00.700153 27384 layer_factory.hpp:77] Creating layer loss
I0415 10:37:00.700160 27384 net.cpp:100] Creating Layer loss
I0415 10:37:00.700165 27384 net.cpp:434] loss <- softmax
I0415 10:37:00.700168 27384 net.cpp:434] loss <- label_data_1_split_0
I0415 10:37:00.700173 27384 net.cpp:408] loss -> loss
…
