…
I0409 21:05:26.487099 10580 net.cpp:322] The NetState phase (0) differed from the phase (1) specified by a rule in layer accuracy_5
I0409 21:05:26.487185 10580 net.cpp:58] Initializing net from parameters: 
state {
  phase: TRAIN
  level: 0
  stage: ""
}
layer {
  name: "data"
  type: "Data"
  top: "data"
  top: "label"
  include {
    phase: TRAIN
  }
  transform_param {
    mirror: false
    crop_size: 48
    mean_value: 132
    mean_value: 132
    mean_value: 131
  }
  data_param {
    source: "../local_data/lmdb/rtsd-r1/CoNorm/train/lmdb"
    batch_size: 1024
    backend: LMDB
  }
}
layer {
  name: "conv1"
  type: "Convolution"
  bottom: "data"
  top: "conv1"
  convolution_param {
    num_output: 100
    pad: 0
    kernel_size: 7
    group: 1
    stride: 1
    weight_filler {
      type: "xavier"
    }
  }
}
layer {
  name: "conv1_sTanH"
  type: "TanH"
  bottom: "conv1"
  top: "conv1"
}
layer {
  name: "pool1"
  type: "Pooling"
  bottom: "conv1"
  top: "pool1"
  pooling_param {
    pool: MAX
    kernel_size: 2
    stride: 2
  }
}
layer {
  name: "conv2"
  type: "Convolution"
  bottom: "pool1"
  top: "conv2"
  convolution_param {
    num_output: 150
    pad: 0
    kernel_size: 4
    group: 1
    stride: 1
    weight_filler {
      type: "xavier"
    }
  }
}
layer {
  name: "conv2_sTanH"
  type: "TanH"
  bottom: "conv2"
  top: "conv2"
}
layer {
  name: "pool2"
  type: "Pooling"
  bottom: "conv2"
  top: "pool2"
  pooling_param {
    pool: MAX
    kernel_size: 2
    stride: 2
  }
}
layer {
  name: "conv3"
  type: "Convolution"
  bottom: "pool2"
  top: "conv3"
  convolution_param {
    num_output: 250
    pad: 0
    kernel_size: 4
    group: 1
    stride: 1
    weight_filler {
      type: "xavier"
    }
  }
}
layer {
  name: "conv3_sTanH"
  type: "TanH"
  bottom: "conv3"
  top: "conv3"
}
layer {
  name: "pool3"
  type: "Pooling"
  bottom: "conv3"
  top: "pool3"
  pooling_param {
    pool: MAX
    kernel_size: 2
    stride: 2
  }
}
layer {
  name: "fc4_300"
  type: "InnerProduct"
  bottom: "pool3"
  top: "fc4_300"
  inner_product_param {
    num_output: 300
    weight_filler {
      type: "xavier"
    }
  }
}
layer {
  name: "fc4_sTanH"
  type: "TanH"
  bottom: "fc4_300"
  top: "fc4_300"
}
layer {
  name: "drop4"
  type: "Dropout"
  bottom: "fc4_300"
  top: "fc4_300"
  dropout_param {
    dropout_ratio: 0.4
  }
}
layer {
  name: "fc5_67"
  type: "InnerProduct"
  bottom: "fc4_300"
  top: "fc5_classes"
  inner_product_param {
    num_output: 67
    weight_filler {
      type: "xavier"
    }
  }
}
layer {
  name: "loss"
  type: "SoftmaxWithLoss"
  bottom: "fc5_classes"
  bottom: "label"
  top: "loss"
}
I0409 21:05:26.487267 10580 layer_factory.hpp:77] Creating layer data
I0409 21:05:26.488618 10580 net.cpp:100] Creating Layer data
I0409 21:05:26.488636 10580 net.cpp:408] data -> data
I0409 21:05:26.488658 10580 net.cpp:408] data -> label
I0409 21:05:26.489838 10650 db_lmdb.cpp:35] Opened lmdb ../local_data/lmdb/rtsd-r1/CoNorm/train/lmdb
I0409 21:05:26.506112 10580 data_layer.cpp:41] output data size: 1024,3,48,48
I0409 21:05:26.548545 10580 net.cpp:150] Setting up data
I0409 21:05:26.548590 10580 net.cpp:157] Top shape: 1024 3 48 48 (7077888)
I0409 21:05:26.548620 10580 net.cpp:157] Top shape: 1024 (1024)
I0409 21:05:26.548624 10580 net.cpp:165] Memory required for data: 28315648
I0409 21:05:26.548635 10580 layer_factory.hpp:77] Creating layer conv1
I0409 21:05:26.548658 10580 net.cpp:100] Creating Layer conv1
I0409 21:05:26.548667 10580 net.cpp:434] conv1 <- data
I0409 21:05:26.548681 10580 net.cpp:408] conv1 -> conv1
I0409 21:05:26.824635 10580 net.cpp:150] Setting up conv1
I0409 21:05:26.824666 10580 net.cpp:157] Top shape: 1024 100 42 42 (180633600)
I0409 21:05:26.824669 10580 net.cpp:165] Memory required for data: 750850048
I0409 21:05:26.824690 10580 layer_factory.hpp:77] Creating layer conv1_sTanH
I0409 21:05:26.824702 10580 net.cpp:100] Creating Layer conv1_sTanH
I0409 21:05:26.824708 10580 net.cpp:434] conv1_sTanH <- conv1
I0409 21:05:26.824714 10580 net.cpp:395] conv1_sTanH -> conv1 (in-place)
I0409 21:05:26.824898 10580 net.cpp:150] Setting up conv1_sTanH
I0409 21:05:26.824909 10580 net.cpp:157] Top shape: 1024 100 42 42 (180633600)
I0409 21:05:26.824913 10580 net.cpp:165] Memory required for data: 1473384448
I0409 21:05:26.824915 10580 layer_factory.hpp:77] Creating layer pool1
I0409 21:05:26.824923 10580 net.cpp:100] Creating Layer pool1
I0409 21:05:26.824926 10580 net.cpp:434] pool1 <- conv1
I0409 21:05:26.824931 10580 net.cpp:408] pool1 -> pool1
I0409 21:05:26.824981 10580 net.cpp:150] Setting up pool1
I0409 21:05:26.824988 10580 net.cpp:157] Top shape: 1024 100 21 21 (45158400)
I0409 21:05:26.824992 10580 net.cpp:165] Memory required for data: 1654018048
I0409 21:05:26.824995 10580 layer_factory.hpp:77] Creating layer conv2
I0409 21:05:26.825006 10580 net.cpp:100] Creating Layer conv2
I0409 21:05:26.825009 10580 net.cpp:434] conv2 <- pool1
I0409 21:05:26.825014 10580 net.cpp:408] conv2 -> conv2
I0409 21:05:26.829188 10580 net.cpp:150] Setting up conv2
I0409 21:05:26.829205 10580 net.cpp:157] Top shape: 1024 150 18 18 (49766400)
I0409 21:05:26.829208 10580 net.cpp:165] Memory required for data: 1853083648
I0409 21:05:26.829217 10580 layer_factory.hpp:77] Creating layer conv2_sTanH
I0409 21:05:26.829223 10580 net.cpp:100] Creating Layer conv2_sTanH
I0409 21:05:26.829226 10580 net.cpp:434] conv2_sTanH <- conv2
I0409 21:05:26.829231 10580 net.cpp:395] conv2_sTanH -> conv2 (in-place)
I0409 21:05:26.829941 10580 net.cpp:150] Setting up conv2_sTanH
I0409 21:05:26.829955 10580 net.cpp:157] Top shape: 1024 150 18 18 (49766400)
I0409 21:05:26.829972 10580 net.cpp:165] Memory required for data: 2052149248
I0409 21:05:26.829974 10580 layer_factory.hpp:77] Creating layer pool2
I0409 21:05:26.829980 10580 net.cpp:100] Creating Layer pool2
I0409 21:05:26.829983 10580 net.cpp:434] pool2 <- conv2
I0409 21:05:26.829989 10580 net.cpp:408] pool2 -> pool2
I0409 21:05:26.830034 10580 net.cpp:150] Setting up pool2
I0409 21:05:26.830041 10580 net.cpp:157] Top shape: 1024 150 9 9 (12441600)
I0409 21:05:26.830044 10580 net.cpp:165] Memory required for data: 2101915648
I0409 21:05:26.830046 10580 layer_factory.hpp:77] Creating layer conv3
I0409 21:05:26.830054 10580 net.cpp:100] Creating Layer conv3
I0409 21:05:26.830057 10580 net.cpp:434] conv3 <- pool2
I0409 21:05:26.830062 10580 net.cpp:408] conv3 -> conv3
I0409 21:05:26.835345 10580 net.cpp:150] Setting up conv3
I0409 21:05:26.835361 10580 net.cpp:157] Top shape: 1024 250 6 6 (9216000)
I0409 21:05:26.835364 10580 net.cpp:165] Memory required for data: 2138779648
I0409 21:05:26.835374 10580 layer_factory.hpp:77] Creating layer conv3_sTanH
I0409 21:05:26.835381 10580 net.cpp:100] Creating Layer conv3_sTanH
I0409 21:05:26.835384 10580 net.cpp:434] conv3_sTanH <- conv3
I0409 21:05:26.835388 10580 net.cpp:395] conv3_sTanH -> conv3 (in-place)
I0409 21:05:26.836138 10580 net.cpp:150] Setting up conv3_sTanH
I0409 21:05:26.836153 10580 net.cpp:157] Top shape: 1024 250 6 6 (9216000)
I0409 21:05:26.836156 10580 net.cpp:165] Memory required for data: 2175643648
I0409 21:05:26.836160 10580 layer_factory.hpp:77] Creating layer pool3
I0409 21:05:26.836166 10580 net.cpp:100] Creating Layer pool3
I0409 21:05:26.836169 10580 net.cpp:434] pool3 <- conv3
I0409 21:05:26.836195 10580 net.cpp:408] pool3 -> pool3
I0409 21:05:26.836242 10580 net.cpp:150] Setting up pool3
I0409 21:05:26.836251 10580 net.cpp:157] Top shape: 1024 250 3 3 (2304000)
I0409 21:05:26.836254 10580 net.cpp:165] Memory required for data: 2184859648
I0409 21:05:26.836257 10580 layer_factory.hpp:77] Creating layer fc4_300
I0409 21:05:26.836264 10580 net.cpp:100] Creating Layer fc4_300
I0409 21:05:26.836267 10580 net.cpp:434] fc4_300 <- pool3
I0409 21:05:26.836272 10580 net.cpp:408] fc4_300 -> fc4_300
I0409 21:05:26.841452 10580 net.cpp:150] Setting up fc4_300
I0409 21:05:26.841469 10580 net.cpp:157] Top shape: 1024 300 (307200)
I0409 21:05:26.841471 10580 net.cpp:165] Memory required for data: 2186088448
I0409 21:05:26.841478 10580 layer_factory.hpp:77] Creating layer fc4_sTanH
I0409 21:05:26.841485 10580 net.cpp:100] Creating Layer fc4_sTanH
I0409 21:05:26.841487 10580 net.cpp:434] fc4_sTanH <- fc4_300
I0409 21:05:26.841491 10580 net.cpp:395] fc4_sTanH -> fc4_300 (in-place)
I0409 21:05:26.841665 10580 net.cpp:150] Setting up fc4_sTanH
I0409 21:05:26.841676 10580 net.cpp:157] Top shape: 1024 300 (307200)
I0409 21:05:26.841680 10580 net.cpp:165] Memory required for data: 2187317248
I0409 21:05:26.841682 10580 layer_factory.hpp:77] Creating layer drop4
I0409 21:05:26.841689 10580 net.cpp:100] Creating Layer drop4
I0409 21:05:26.841692 10580 net.cpp:434] drop4 <- fc4_300
I0409 21:05:26.841696 10580 net.cpp:395] drop4 -> fc4_300 (in-place)
I0409 21:05:26.841727 10580 net.cpp:150] Setting up drop4
I0409 21:05:26.841733 10580 net.cpp:157] Top shape: 1024 300 (307200)
I0409 21:05:26.841737 10580 net.cpp:165] Memory required for data: 2188546048
I0409 21:05:26.841739 10580 layer_factory.hpp:77] Creating layer fc5_67
I0409 21:05:26.841744 10580 net.cpp:100] Creating Layer fc5_67
I0409 21:05:26.841747 10580 net.cpp:434] fc5_67 <- fc4_300
I0409 21:05:26.841753 10580 net.cpp:408] fc5_67 -> fc5_classes
I0409 21:05:26.842919 10580 net.cpp:150] Setting up fc5_67
I0409 21:05:26.842934 10580 net.cpp:157] Top shape: 1024 67 (68608)
I0409 21:05:26.842937 10580 net.cpp:165] Memory required for data: 2188820480
I0409 21:05:26.842947 10580 layer_factory.hpp:77] Creating layer loss
I0409 21:05:26.842952 10580 net.cpp:100] Creating Layer loss
I0409 21:05:26.842955 10580 net.cpp:434] loss <- fc5_classes
I0409 21:05:26.842959 10580 net.cpp:434] loss <- label
I0409 21:05:26.842964 10580 net.cpp:408] loss -> loss
I0409 21:05:26.842977 10580 layer_factory.hpp:77] Creating layer loss
…
I0409 21:05:26.843637 10580 solver.cpp:193] Creating test net (#0) specified by test_net file: ./Prototxt/experiment_7/rtsd-r1/CoNorm/trial_4/test.prototxt
I0409 21:05:26.843762 10580 net.cpp:58] Initializing net from parameters: 
state {
  phase: TEST
}
layer {
  name: "data"
  type: "Data"
  top: "data"
  top: "label"
  include {
    phase: TEST
  }
  transform_param {
    mirror: false
    crop_size: 48
    mean_value: 133
    mean_value: 133
    mean_value: 132
  }
  data_param {
    source: "../local_data/lmdb/rtsd-r1/CoNorm/test/lmdb"
    batch_size: 1024
    backend: LMDB
  }
}
layer {
  name: "conv1"
  type: "Convolution"
  bottom: "data"
  top: "conv1"
  convolution_param {
    num_output: 100
    pad: 0
    kernel_size: 7
    group: 1
    stride: 1
    weight_filler {
      type: "xavier"
    }
  }
}
layer {
  name: "conv1_sTanH"
  type: "TanH"
  bottom: "conv1"
  top: "conv1"
}
layer {
  name: "pool1"
  type: "Pooling"
  bottom: "conv1"
  top: "pool1"
  pooling_param {
    pool: MAX
    kernel_size: 2
    stride: 2
  }
}
layer {
  name: "conv2"
  type: "Convolution"
  bottom: "pool1"
  top: "conv2"
  convolution_param {
    num_output: 150
    pad: 0
    kernel_size: 4
    group: 1
    stride: 1
    weight_filler {
      type: "xavier"
    }
  }
}
layer {
  name: "conv2_sTanH"
  type: "TanH"
  bottom: "conv2"
  top: "conv2"
}
layer {
  name: "pool2"
  type: "Pooling"
  bottom: "conv2"
  top: "pool2"
  pooling_param {
    pool: MAX
    kernel_size: 2
    stride: 2
  }
}
layer {
  name: "conv3"
  type: "Convolution"
  bottom: "pool2"
  top: "conv3"
  convolution_param {
    num_output: 250
    pad: 0
    kernel_size: 4
    group: 1
    stride: 1
    weight_filler {
      type: "xavier"
    }
  }
}
layer {
  name: "conv3_sTanH"
  type: "TanH"
  bottom: "conv3"
  top: "conv3"
}
layer {
  name: "pool3"
  type: "Pooling"
  bottom: "conv3"
  top: "pool3"
  pooling_param {
    pool: MAX
    kernel_size: 2
    stride: 2
  }
}
layer {
  name: "fc4_300"
  type: "InnerProduct"
  bottom: "pool3"
  top: "fc4_300"
  inner_product_param {
    num_output: 300
    weight_filler {
      type: "xavier"
    }
  }
}
layer {
  name: "fc4_sTanH"
  type: "TanH"
  bottom: "fc4_300"
  top: "fc4_300"
}
layer {
  name: "drop4"
  type: "Dropout"
  bottom: "fc4_300"
  top: "fc4_300"
  dropout_param {
    dropout_ratio: 0.4
  }
}
layer {
  name: "fc5_67"
  type: "InnerProduct"
  bottom: "fc4_300"
  top: "fc5_classes"
  inner_product_param {
    num_output: 67
    weight_filler {
      type: "xavier"
    }
  }
}
layer {
  name: "loss"
  type: "SoftmaxWithLoss"
  bottom: "fc5_classes"
  bottom: "label"
  top: "loss"
}
layer {
  name: "accuracy_1"
  type: "Accuracy"
  bottom: "fc5_classes"
  bottom: "label"
  top: "accuracy_1"
  include {
    phase: TEST
  }
  accuracy_param {
    top_k: 1
  }
}
layer {
  name: "accuracy_5"
  type: "Accuracy"
  bottom: "fc5_classes"
  bottom: "label"
  top: "accuracy_5"
  include {
    phase: TEST
  }
  accuracy_param {
    top_k: 5
  }
}
I0409 21:05:26.843842 10580 layer_factory.hpp:77] Creating layer data
I0409 21:05:26.844454 10580 net.cpp:100] Creating Layer data
I0409 21:05:26.844466 10580 net.cpp:408] data -> data
I0409 21:05:26.844476 10580 net.cpp:408] data -> label
I0409 21:05:26.846050 10666 db_lmdb.cpp:35] Opened lmdb ../local_data/lmdb/rtsd-r1/CoNorm/test/lmdb
I0409 21:05:26.846204 10580 data_layer.cpp:41] output data size: 1024,3,48,48
I0409 21:05:26.886245 10580 net.cpp:150] Setting up data
I0409 21:05:26.886273 10580 net.cpp:157] Top shape: 1024 3 48 48 (7077888)
I0409 21:05:26.886279 10580 net.cpp:157] Top shape: 1024 (1024)
I0409 21:05:26.886282 10580 net.cpp:165] Memory required for data: 28315648
I0409 21:05:26.886288 10580 layer_factory.hpp:77] Creating layer label_data_1_split
I0409 21:05:26.886306 10580 net.cpp:100] Creating Layer label_data_1_split
I0409 21:05:26.886310 10580 net.cpp:434] label_data_1_split <- label
I0409 21:05:26.886317 10580 net.cpp:408] label_data_1_split -> label_data_1_split_0
I0409 21:05:26.886327 10580 net.cpp:408] label_data_1_split -> label_data_1_split_1
I0409 21:05:26.886333 10580 net.cpp:408] label_data_1_split -> label_data_1_split_2
I0409 21:05:26.886441 10580 net.cpp:150] Setting up label_data_1_split
I0409 21:05:26.886451 10580 net.cpp:157] Top shape: 1024 (1024)
I0409 21:05:26.886456 10580 net.cpp:157] Top shape: 1024 (1024)
I0409 21:05:26.886458 10580 net.cpp:157] Top shape: 1024 (1024)
I0409 21:05:26.886461 10580 net.cpp:165] Memory required for data: 28327936
I0409 21:05:26.886464 10580 layer_factory.hpp:77] Creating layer conv1
I0409 21:05:26.886477 10580 net.cpp:100] Creating Layer conv1
I0409 21:05:26.886483 10580 net.cpp:434] conv1 <- data
I0409 21:05:26.886489 10580 net.cpp:408] conv1 -> conv1
I0409 21:05:26.888419 10580 net.cpp:150] Setting up conv1
I0409 21:05:26.888437 10580 net.cpp:157] Top shape: 1024 100 42 42 (180633600)
I0409 21:05:26.888442 10580 net.cpp:165] Memory required for data: 750862336
I0409 21:05:26.888453 10580 layer_factory.hpp:77] Creating layer conv1_sTanH
I0409 21:05:26.888459 10580 net.cpp:100] Creating Layer conv1_sTanH
I0409 21:05:26.888463 10580 net.cpp:434] conv1_sTanH <- conv1
I0409 21:05:26.888473 10580 net.cpp:395] conv1_sTanH -> conv1 (in-place)
I0409 21:05:26.890879 10580 net.cpp:150] Setting up conv1_sTanH
I0409 21:05:26.890892 10580 net.cpp:157] Top shape: 1024 100 42 42 (180633600)
I0409 21:05:26.890907 10580 net.cpp:165] Memory required for data: 1473396736
I0409 21:05:26.890910 10580 layer_factory.hpp:77] Creating layer pool1
I0409 21:05:26.890921 10580 net.cpp:100] Creating Layer pool1
I0409 21:05:26.890924 10580 net.cpp:434] pool1 <- conv1
I0409 21:05:26.890930 10580 net.cpp:408] pool1 -> pool1
I0409 21:05:26.890982 10580 net.cpp:150] Setting up pool1
I0409 21:05:26.891000 10580 net.cpp:157] Top shape: 1024 100 21 21 (45158400)
I0409 21:05:26.891003 10580 net.cpp:165] Memory required for data: 1654030336
I0409 21:05:26.891007 10580 layer_factory.hpp:77] Creating layer conv2
I0409 21:05:26.891017 10580 net.cpp:100] Creating Layer conv2
I0409 21:05:26.891022 10580 net.cpp:434] conv2 <- pool1
I0409 21:05:26.891029 10580 net.cpp:408] conv2 -> conv2
I0409 21:05:26.895856 10580 net.cpp:150] Setting up conv2
I0409 21:05:26.895889 10580 net.cpp:157] Top shape: 1024 150 18 18 (49766400)
I0409 21:05:26.895895 10580 net.cpp:165] Memory required for data: 1853095936
I0409 21:05:26.895906 10580 layer_factory.hpp:77] Creating layer conv2_sTanH
I0409 21:05:26.895915 10580 net.cpp:100] Creating Layer conv2_sTanH
I0409 21:05:26.895917 10580 net.cpp:434] conv2_sTanH <- conv2
I0409 21:05:26.895922 10580 net.cpp:395] conv2_sTanH -> conv2 (in-place)
I0409 21:05:26.897958 10580 net.cpp:150] Setting up conv2_sTanH
I0409 21:05:26.897979 10580 net.cpp:157] Top shape: 1024 150 18 18 (49766400)
I0409 21:05:26.897994 10580 net.cpp:165] Memory required for data: 2052161536
I0409 21:05:26.897999 10580 layer_factory.hpp:77] Creating layer pool2
I0409 21:05:26.898007 10580 net.cpp:100] Creating Layer pool2
I0409 21:05:26.898011 10580 net.cpp:434] pool2 <- conv2
I0409 21:05:26.898017 10580 net.cpp:408] pool2 -> pool2
I0409 21:05:26.898074 10580 net.cpp:150] Setting up pool2
I0409 21:05:26.898083 10580 net.cpp:157] Top shape: 1024 150 9 9 (12441600)
I0409 21:05:26.898087 10580 net.cpp:165] Memory required for data: 2101927936
I0409 21:05:26.898092 10580 layer_factory.hpp:77] Creating layer conv3
I0409 21:05:26.898104 10580 net.cpp:100] Creating Layer conv3
I0409 21:05:26.898109 10580 net.cpp:434] conv3 <- pool2
I0409 21:05:26.898115 10580 net.cpp:408] conv3 -> conv3
I0409 21:05:26.903859 10580 net.cpp:150] Setting up conv3
I0409 21:05:26.903882 10580 net.cpp:157] Top shape: 1024 250 6 6 (9216000)
I0409 21:05:26.903887 10580 net.cpp:165] Memory required for data: 2138791936
I0409 21:05:26.903898 10580 layer_factory.hpp:77] Creating layer conv3_sTanH
I0409 21:05:26.903904 10580 net.cpp:100] Creating Layer conv3_sTanH
I0409 21:05:26.903908 10580 net.cpp:434] conv3_sTanH <- conv3
I0409 21:05:26.903918 10580 net.cpp:395] conv3_sTanH -> conv3 (in-place)
I0409 21:05:26.904808 10580 net.cpp:150] Setting up conv3_sTanH
I0409 21:05:26.904824 10580 net.cpp:157] Top shape: 1024 250 6 6 (9216000)
I0409 21:05:26.904844 10580 net.cpp:165] Memory required for data: 2175655936
I0409 21:05:26.904848 10580 layer_factory.hpp:77] Creating layer pool3
I0409 21:05:26.904868 10580 net.cpp:100] Creating Layer pool3
I0409 21:05:26.904871 10580 net.cpp:434] pool3 <- conv3
I0409 21:05:26.904880 10580 net.cpp:408] pool3 -> pool3
I0409 21:05:26.904933 10580 net.cpp:150] Setting up pool3
I0409 21:05:26.904943 10580 net.cpp:157] Top shape: 1024 250 3 3 (2304000)
I0409 21:05:26.904947 10580 net.cpp:165] Memory required for data: 2184871936
I0409 21:05:26.904949 10580 layer_factory.hpp:77] Creating layer fc4_300
I0409 21:05:26.904956 10580 net.cpp:100] Creating Layer fc4_300
I0409 21:05:26.904960 10580 net.cpp:434] fc4_300 <- pool3
I0409 21:05:26.904966 10580 net.cpp:408] fc4_300 -> fc4_300
I0409 21:05:26.910500 10580 net.cpp:150] Setting up fc4_300
I0409 21:05:26.910514 10580 net.cpp:157] Top shape: 1024 300 (307200)
I0409 21:05:26.910543 10580 net.cpp:165] Memory required for data: 2186100736
I0409 21:05:26.910550 10580 layer_factory.hpp:77] Creating layer fc4_sTanH
I0409 21:05:26.910558 10580 net.cpp:100] Creating Layer fc4_sTanH
I0409 21:05:26.910562 10580 net.cpp:434] fc4_sTanH <- fc4_300
I0409 21:05:26.910567 10580 net.cpp:395] fc4_sTanH -> fc4_300 (in-place)
I0409 21:05:26.910768 10580 net.cpp:150] Setting up fc4_sTanH
I0409 21:05:26.910780 10580 net.cpp:157] Top shape: 1024 300 (307200)
I0409 21:05:26.910784 10580 net.cpp:165] Memory required for data: 2187329536
I0409 21:05:26.910786 10580 layer_factory.hpp:77] Creating layer drop4
I0409 21:05:26.910794 10580 net.cpp:100] Creating Layer drop4
I0409 21:05:26.910797 10580 net.cpp:434] drop4 <- fc4_300
I0409 21:05:26.910804 10580 net.cpp:395] drop4 -> fc4_300 (in-place)
I0409 21:05:26.910835 10580 net.cpp:150] Setting up drop4
I0409 21:05:26.910841 10580 net.cpp:157] Top shape: 1024 300 (307200)
I0409 21:05:26.910845 10580 net.cpp:165] Memory required for data: 2188558336
I0409 21:05:26.910847 10580 layer_factory.hpp:77] Creating layer fc5_67
I0409 21:05:26.910856 10580 net.cpp:100] Creating Layer fc5_67
I0409 21:05:26.910859 10580 net.cpp:434] fc5_67 <- fc4_300
I0409 21:05:26.910863 10580 net.cpp:408] fc5_67 -> fc5_classes
I0409 21:05:26.911116 10580 net.cpp:150] Setting up fc5_67
I0409 21:05:26.911125 10580 net.cpp:157] Top shape: 1024 67 (68608)
I0409 21:05:26.911128 10580 net.cpp:165] Memory required for data: 2188832768
I0409 21:05:26.911139 10580 layer_factory.hpp:77] Creating layer fc5_classes_fc5_67_0_split
I0409 21:05:26.911149 10580 net.cpp:100] Creating Layer fc5_classes_fc5_67_0_split
I0409 21:05:26.911152 10580 net.cpp:434] fc5_classes_fc5_67_0_split <- fc5_classes
I0409 21:05:26.911159 10580 net.cpp:408] fc5_classes_fc5_67_0_split -> fc5_classes_fc5_67_0_split_0
I0409 21:05:26.911167 10580 net.cpp:408] fc5_classes_fc5_67_0_split -> fc5_classes_fc5_67_0_split_1
I0409 21:05:26.911175 10580 net.cpp:408] fc5_classes_fc5_67_0_split -> fc5_classes_fc5_67_0_split_2
I0409 21:05:26.911227 10580 net.cpp:150] Setting up fc5_classes_fc5_67_0_split
I0409 21:05:26.911234 10580 net.cpp:157] Top shape: 1024 67 (68608)
I0409 21:05:26.911237 10580 net.cpp:157] Top shape: 1024 67 (68608)
I0409 21:05:26.911240 10580 net.cpp:157] Top shape: 1024 67 (68608)
I0409 21:05:26.911243 10580 net.cpp:165] Memory required for data: 2189656064
I0409 21:05:26.911247 10580 layer_factory.hpp:77] Creating layer loss
I0409 21:05:26.911255 10580 net.cpp:100] Creating Layer loss
I0409 21:05:26.911259 10580 net.cpp:434] loss <- fc5_classes_fc5_67_0_split_0
I0409 21:05:26.911273 10580 net.cpp:434] loss <- label_data_1_split_0
I0409 21:05:26.911278 10580 net.cpp:408] loss -> loss
…
