…
I0409 21:58:41.081753 11538 net.cpp:322] The NetState phase (0) differed from the phase (1) specified by a rule in layer accuracy_5
I0409 21:58:41.081902 11538 net.cpp:58] Initializing net from parameters: 
state {
  phase: TRAIN
  level: 0
  stage: ""
}
layer {
  name: "data"
  type: "Data"
  top: "data"
  top: "label"
  include {
    phase: TRAIN
  }
  transform_param {
    mirror: false
    crop_size: 48
    mean_value: 132
    mean_value: 132
    mean_value: 131
  }
  data_param {
    source: "../local_data/lmdb/rtsd-r1/CoNorm/train/lmdb"
    batch_size: 1024
    backend: LMDB
  }
}
layer {
  name: "conv1"
  type: "Convolution"
  bottom: "data"
  top: "conv1"
  convolution_param {
    num_output: 100
    pad: 0
    kernel_size: 7
    group: 1
    stride: 1
    weight_filler {
      type: "xavier"
    }
  }
}
layer {
  name: "conv1_sTanH"
  type: "TanH"
  bottom: "conv1"
  top: "conv1"
}
layer {
  name: "pool1"
  type: "Pooling"
  bottom: "conv1"
  top: "pool1"
  pooling_param {
    pool: MAX
    kernel_size: 2
    stride: 2
  }
}
layer {
  name: "conv2"
  type: "Convolution"
  bottom: "pool1"
  top: "conv2"
  convolution_param {
    num_output: 150
    pad: 0
    kernel_size: 4
    group: 1
    stride: 1
    weight_filler {
      type: "xavier"
    }
  }
}
layer {
  name: "conv2_sTanH"
  type: "TanH"
  bottom: "conv2"
  top: "conv2"
}
layer {
  name: "pool2"
  type: "Pooling"
  bottom: "conv2"
  top: "pool2"
  pooling_param {
    pool: MAX
    kernel_size: 2
    stride: 2
  }
}
layer {
  name: "conv3"
  type: "Convolution"
  bottom: "pool2"
  top: "conv3"
  convolution_param {
    num_output: 250
    pad: 0
    kernel_size: 4
    group: 1
    stride: 1
    weight_filler {
      type: "xavier"
    }
  }
}
layer {
  name: "conv3_sTanH"
  type: "TanH"
  bottom: "conv3"
  top: "conv3"
}
layer {
  name: "pool3"
  type: "Pooling"
  bottom: "conv3"
  top: "pool3"
  pooling_param {
    pool: MAX
    kernel_size: 2
    stride: 2
  }
}
layer {
  name: "fc4_300"
  type: "InnerProduct"
  bottom: "pool3"
  top: "fc4_300"
  inner_product_param {
    num_output: 300
    weight_filler {
      type: "xavier"
    }
  }
}
layer {
  name: "fc4_sTanH"
  type: "TanH"
  bottom: "fc4_300"
  top: "fc4_300"
}
layer {
  name: "drop4"
  type: "Dropout"
  bottom: "fc4_300"
  top: "fc4_300"
  dropout_param {
    dropout_ratio: 0.4
  }
}
layer {
  name: "fc5_67"
  type: "InnerProduct"
  bottom: "fc4_300"
  top: "fc5_classes"
  inner_product_param {
    num_output: 67
    weight_filler {
      type: "xavier"
    }
  }
}
layer {
  name: "loss"
  type: "SoftmaxWithLoss"
  bottom: "fc5_classes"
  bottom: "label"
  top: "loss"
}
I0409 21:58:41.082015 11538 layer_factory.hpp:77] Creating layer data
I0409 21:58:41.083909 11538 net.cpp:100] Creating Layer data
I0409 21:58:41.083932 11538 net.cpp:408] data -> data
I0409 21:58:41.083964 11538 net.cpp:408] data -> label
I0409 21:58:41.085163 11629 db_lmdb.cpp:35] Opened lmdb ../local_data/lmdb/rtsd-r1/CoNorm/train/lmdb
I0409 21:58:41.108871 11538 data_layer.cpp:41] output data size: 1024,3,48,48
I0409 21:58:41.175443 11538 net.cpp:150] Setting up data
I0409 21:58:41.175477 11538 net.cpp:157] Top shape: 1024 3 48 48 (7077888)
I0409 21:58:41.175508 11538 net.cpp:157] Top shape: 1024 (1024)
I0409 21:58:41.175511 11538 net.cpp:165] Memory required for data: 28315648
I0409 21:58:41.175521 11538 layer_factory.hpp:77] Creating layer conv1
I0409 21:58:41.175549 11538 net.cpp:100] Creating Layer conv1
I0409 21:58:41.175557 11538 net.cpp:434] conv1 <- data
I0409 21:58:41.175571 11538 net.cpp:408] conv1 -> conv1
I0409 21:58:41.462110 11538 net.cpp:150] Setting up conv1
I0409 21:58:41.462149 11538 net.cpp:157] Top shape: 1024 100 42 42 (180633600)
I0409 21:58:41.462153 11538 net.cpp:165] Memory required for data: 750850048
I0409 21:58:41.462175 11538 layer_factory.hpp:77] Creating layer conv1_sTanH
I0409 21:58:41.462188 11538 net.cpp:100] Creating Layer conv1_sTanH
I0409 21:58:41.462193 11538 net.cpp:434] conv1_sTanH <- conv1
I0409 21:58:41.462198 11538 net.cpp:395] conv1_sTanH -> conv1 (in-place)
I0409 21:58:41.462395 11538 net.cpp:150] Setting up conv1_sTanH
I0409 21:58:41.462409 11538 net.cpp:157] Top shape: 1024 100 42 42 (180633600)
I0409 21:58:41.462412 11538 net.cpp:165] Memory required for data: 1473384448
I0409 21:58:41.462416 11538 layer_factory.hpp:77] Creating layer pool1
I0409 21:58:41.462424 11538 net.cpp:100] Creating Layer pool1
I0409 21:58:41.462426 11538 net.cpp:434] pool1 <- conv1
I0409 21:58:41.462432 11538 net.cpp:408] pool1 -> pool1
I0409 21:58:41.462491 11538 net.cpp:150] Setting up pool1
I0409 21:58:41.462501 11538 net.cpp:157] Top shape: 1024 100 21 21 (45158400)
I0409 21:58:41.462503 11538 net.cpp:165] Memory required for data: 1654018048
I0409 21:58:41.462507 11538 layer_factory.hpp:77] Creating layer conv2
I0409 21:58:41.462518 11538 net.cpp:100] Creating Layer conv2
I0409 21:58:41.462523 11538 net.cpp:434] conv2 <- pool1
I0409 21:58:41.462528 11538 net.cpp:408] conv2 -> conv2
I0409 21:58:41.467720 11538 net.cpp:150] Setting up conv2
I0409 21:58:41.467748 11538 net.cpp:157] Top shape: 1024 150 18 18 (49766400)
I0409 21:58:41.467751 11538 net.cpp:165] Memory required for data: 1853083648
I0409 21:58:41.467762 11538 layer_factory.hpp:77] Creating layer conv2_sTanH
I0409 21:58:41.467768 11538 net.cpp:100] Creating Layer conv2_sTanH
I0409 21:58:41.467772 11538 net.cpp:434] conv2_sTanH <- conv2
I0409 21:58:41.467777 11538 net.cpp:395] conv2_sTanH -> conv2 (in-place)
I0409 21:58:41.470357 11538 net.cpp:150] Setting up conv2_sTanH
I0409 21:58:41.470388 11538 net.cpp:157] Top shape: 1024 150 18 18 (49766400)
I0409 21:58:41.470391 11538 net.cpp:165] Memory required for data: 2052149248
I0409 21:58:41.470396 11538 layer_factory.hpp:77] Creating layer pool2
I0409 21:58:41.470403 11538 net.cpp:100] Creating Layer pool2
I0409 21:58:41.470408 11538 net.cpp:434] pool2 <- conv2
I0409 21:58:41.470414 11538 net.cpp:408] pool2 -> pool2
I0409 21:58:41.470463 11538 net.cpp:150] Setting up pool2
I0409 21:58:41.470473 11538 net.cpp:157] Top shape: 1024 150 9 9 (12441600)
I0409 21:58:41.470474 11538 net.cpp:165] Memory required for data: 2101915648
I0409 21:58:41.470477 11538 layer_factory.hpp:77] Creating layer conv3
I0409 21:58:41.470487 11538 net.cpp:100] Creating Layer conv3
I0409 21:58:41.470490 11538 net.cpp:434] conv3 <- pool2
I0409 21:58:41.470495 11538 net.cpp:408] conv3 -> conv3
I0409 21:58:41.476497 11538 net.cpp:150] Setting up conv3
I0409 21:58:41.476516 11538 net.cpp:157] Top shape: 1024 250 6 6 (9216000)
I0409 21:58:41.476521 11538 net.cpp:165] Memory required for data: 2138779648
I0409 21:58:41.476531 11538 layer_factory.hpp:77] Creating layer conv3_sTanH
I0409 21:58:41.476538 11538 net.cpp:100] Creating Layer conv3_sTanH
I0409 21:58:41.476541 11538 net.cpp:434] conv3_sTanH <- conv3
I0409 21:58:41.476547 11538 net.cpp:395] conv3_sTanH -> conv3 (in-place)
I0409 21:58:41.477461 11538 net.cpp:150] Setting up conv3_sTanH
I0409 21:58:41.477478 11538 net.cpp:157] Top shape: 1024 250 6 6 (9216000)
I0409 21:58:41.477481 11538 net.cpp:165] Memory required for data: 2175643648
I0409 21:58:41.477484 11538 layer_factory.hpp:77] Creating layer pool3
I0409 21:58:41.477491 11538 net.cpp:100] Creating Layer pool3
I0409 21:58:41.477494 11538 net.cpp:434] pool3 <- conv3
I0409 21:58:41.477520 11538 net.cpp:408] pool3 -> pool3
I0409 21:58:41.477571 11538 net.cpp:150] Setting up pool3
I0409 21:58:41.477581 11538 net.cpp:157] Top shape: 1024 250 3 3 (2304000)
I0409 21:58:41.477583 11538 net.cpp:165] Memory required for data: 2184859648
I0409 21:58:41.477592 11538 layer_factory.hpp:77] Creating layer fc4_300
I0409 21:58:41.477599 11538 net.cpp:100] Creating Layer fc4_300
I0409 21:58:41.477602 11538 net.cpp:434] fc4_300 <- pool3
I0409 21:58:41.477607 11538 net.cpp:408] fc4_300 -> fc4_300
I0409 21:58:41.483100 11538 net.cpp:150] Setting up fc4_300
I0409 21:58:41.483119 11538 net.cpp:157] Top shape: 1024 300 (307200)
I0409 21:58:41.483134 11538 net.cpp:165] Memory required for data: 2186088448
I0409 21:58:41.483140 11538 layer_factory.hpp:77] Creating layer fc4_sTanH
I0409 21:58:41.483146 11538 net.cpp:100] Creating Layer fc4_sTanH
I0409 21:58:41.483150 11538 net.cpp:434] fc4_sTanH <- fc4_300
I0409 21:58:41.483155 11538 net.cpp:395] fc4_sTanH -> fc4_300 (in-place)
I0409 21:58:41.483342 11538 net.cpp:150] Setting up fc4_sTanH
I0409 21:58:41.483355 11538 net.cpp:157] Top shape: 1024 300 (307200)
I0409 21:58:41.483357 11538 net.cpp:165] Memory required for data: 2187317248
I0409 21:58:41.483361 11538 layer_factory.hpp:77] Creating layer drop4
I0409 21:58:41.483368 11538 net.cpp:100] Creating Layer drop4
I0409 21:58:41.483371 11538 net.cpp:434] drop4 <- fc4_300
I0409 21:58:41.483376 11538 net.cpp:395] drop4 -> fc4_300 (in-place)
I0409 21:58:41.483409 11538 net.cpp:150] Setting up drop4
I0409 21:58:41.483417 11538 net.cpp:157] Top shape: 1024 300 (307200)
I0409 21:58:41.483420 11538 net.cpp:165] Memory required for data: 2188546048
I0409 21:58:41.483423 11538 layer_factory.hpp:77] Creating layer fc5_67
I0409 21:58:41.483429 11538 net.cpp:100] Creating Layer fc5_67
I0409 21:58:41.483431 11538 net.cpp:434] fc5_67 <- fc4_300
I0409 21:58:41.483436 11538 net.cpp:408] fc5_67 -> fc5_classes
I0409 21:58:41.485150 11538 net.cpp:150] Setting up fc5_67
I0409 21:58:41.485165 11538 net.cpp:157] Top shape: 1024 67 (68608)
I0409 21:58:41.485168 11538 net.cpp:165] Memory required for data: 2188820480
I0409 21:58:41.485178 11538 layer_factory.hpp:77] Creating layer loss
I0409 21:58:41.485184 11538 net.cpp:100] Creating Layer loss
I0409 21:58:41.485188 11538 net.cpp:434] loss <- fc5_classes
I0409 21:58:41.485193 11538 net.cpp:434] loss <- label
I0409 21:58:41.485198 11538 net.cpp:408] loss -> loss
I0409 21:58:41.485209 11538 layer_factory.hpp:77] Creating layer loss
…
I0409 21:58:41.485884 11538 solver.cpp:193] Creating test net (#0) specified by test_net file: ./Prototxt/experiment_7/rtsd-r1/CoNorm/trial_4/test.prototxt
I0409 21:58:41.486012 11538 net.cpp:58] Initializing net from parameters: 
state {
  phase: TEST
}
layer {
  name: "data"
  type: "Data"
  top: "data"
  top: "label"
  include {
    phase: TEST
  }
  transform_param {
    mirror: false
    crop_size: 48
    mean_value: 133
    mean_value: 133
    mean_value: 132
  }
  data_param {
    source: "../local_data/lmdb/rtsd-r1/CoNorm/test/lmdb"
    batch_size: 1024
    backend: LMDB
  }
}
layer {
  name: "conv1"
  type: "Convolution"
  bottom: "data"
  top: "conv1"
  convolution_param {
    num_output: 100
    pad: 0
    kernel_size: 7
    group: 1
    stride: 1
    weight_filler {
      type: "xavier"
    }
  }
}
layer {
  name: "conv1_sTanH"
  type: "TanH"
  bottom: "conv1"
  top: "conv1"
}
layer {
  name: "pool1"
  type: "Pooling"
  bottom: "conv1"
  top: "pool1"
  pooling_param {
    pool: MAX
    kernel_size: 2
    stride: 2
  }
}
layer {
  name: "conv2"
  type: "Convolution"
  bottom: "pool1"
  top: "conv2"
  convolution_param {
    num_output: 150
    pad: 0
    kernel_size: 4
    group: 1
    stride: 1
    weight_filler {
      type: "xavier"
    }
  }
}
layer {
  name: "conv2_sTanH"
  type: "TanH"
  bottom: "conv2"
  top: "conv2"
}
layer {
  name: "pool2"
  type: "Pooling"
  bottom: "conv2"
  top: "pool2"
  pooling_param {
    pool: MAX
    kernel_size: 2
    stride: 2
  }
}
layer {
  name: "conv3"
  type: "Convolution"
  bottom: "pool2"
  top: "conv3"
  convolution_param {
    num_output: 250
    pad: 0
    kernel_size: 4
    group: 1
    stride: 1
    weight_filler {
      type: "xavier"
    }
  }
}
layer {
  name: "conv3_sTanH"
  type: "TanH"
  bottom: "conv3"
  top: "conv3"
}
layer {
  name: "pool3"
  type: "Pooling"
  bottom: "conv3"
  top: "pool3"
  pooling_param {
    pool: MAX
    kernel_size: 2
    stride: 2
  }
}
layer {
  name: "fc4_300"
  type: "InnerProduct"
  bottom: "pool3"
  top: "fc4_300"
  inner_product_param {
    num_output: 300
    weight_filler {
      type: "xavier"
    }
  }
}
layer {
  name: "fc4_sTanH"
  type: "TanH"
  bottom: "fc4_300"
  top: "fc4_300"
}
layer {
  name: "drop4"
  type: "Dropout"
  bottom: "fc4_300"
  top: "fc4_300"
  dropout_param {
    dropout_ratio: 0.4
  }
}
layer {
  name: "fc5_67"
  type: "InnerProduct"
  bottom: "fc4_300"
  top: "fc5_classes"
  inner_product_param {
    num_output: 67
    weight_filler {
      type: "xavier"
    }
  }
}
layer {
  name: "loss"
  type: "SoftmaxWithLoss"
  bottom: "fc5_classes"
  bottom: "label"
  top: "loss"
}
layer {
  name: "accuracy_1"
  type: "Accuracy"
  bottom: "fc5_classes"
  bottom: "label"
  top: "accuracy_1"
  include {
    phase: TEST
  }
  accuracy_param {
    top_k: 1
  }
}
layer {
  name: "accuracy_5"
  type: "Accuracy"
  bottom: "fc5_classes"
  bottom: "label"
  top: "accuracy_5"
  include {
    phase: TEST
  }
  accuracy_param {
    top_k: 5
  }
}
I0409 21:58:41.486095 11538 layer_factory.hpp:77] Creating layer data
I0409 21:58:41.486654 11538 net.cpp:100] Creating Layer data
I0409 21:58:41.486666 11538 net.cpp:408] data -> data
I0409 21:58:41.486675 11538 net.cpp:408] data -> label
I0409 21:58:41.489531 11655 db_lmdb.cpp:35] Opened lmdb ../local_data/lmdb/rtsd-r1/CoNorm/test/lmdb
I0409 21:58:41.489704 11538 data_layer.cpp:41] output data size: 1024,3,48,48
I0409 21:58:41.530469 11538 net.cpp:150] Setting up data
I0409 21:58:41.530499 11538 net.cpp:157] Top shape: 1024 3 48 48 (7077888)
I0409 21:58:41.530504 11538 net.cpp:157] Top shape: 1024 (1024)
I0409 21:58:41.530508 11538 net.cpp:165] Memory required for data: 28315648
I0409 21:58:41.530514 11538 layer_factory.hpp:77] Creating layer label_data_1_split
I0409 21:58:41.530527 11538 net.cpp:100] Creating Layer label_data_1_split
I0409 21:58:41.530531 11538 net.cpp:434] label_data_1_split <- label
I0409 21:58:41.530539 11538 net.cpp:408] label_data_1_split -> label_data_1_split_0
I0409 21:58:41.530549 11538 net.cpp:408] label_data_1_split -> label_data_1_split_1
I0409 21:58:41.530565 11538 net.cpp:408] label_data_1_split -> label_data_1_split_2
I0409 21:58:41.530756 11538 net.cpp:150] Setting up label_data_1_split
I0409 21:58:41.530766 11538 net.cpp:157] Top shape: 1024 (1024)
I0409 21:58:41.530771 11538 net.cpp:157] Top shape: 1024 (1024)
I0409 21:58:41.530774 11538 net.cpp:157] Top shape: 1024 (1024)
I0409 21:58:41.530776 11538 net.cpp:165] Memory required for data: 28327936
I0409 21:58:41.530779 11538 layer_factory.hpp:77] Creating layer conv1
I0409 21:58:41.530792 11538 net.cpp:100] Creating Layer conv1
I0409 21:58:41.530797 11538 net.cpp:434] conv1 <- data
I0409 21:58:41.530802 11538 net.cpp:408] conv1 -> conv1
I0409 21:58:41.532639 11538 net.cpp:150] Setting up conv1
I0409 21:58:41.532657 11538 net.cpp:157] Top shape: 1024 100 42 42 (180633600)
I0409 21:58:41.532661 11538 net.cpp:165] Memory required for data: 750862336
I0409 21:58:41.532685 11538 layer_factory.hpp:77] Creating layer conv1_sTanH
I0409 21:58:41.532692 11538 net.cpp:100] Creating Layer conv1_sTanH
I0409 21:58:41.532698 11538 net.cpp:434] conv1_sTanH <- conv1
I0409 21:58:41.532703 11538 net.cpp:395] conv1_sTanH -> conv1 (in-place)
I0409 21:58:41.532891 11538 net.cpp:150] Setting up conv1_sTanH
I0409 21:58:41.532907 11538 net.cpp:157] Top shape: 1024 100 42 42 (180633600)
I0409 21:58:41.532909 11538 net.cpp:165] Memory required for data: 1473396736
I0409 21:58:41.532912 11538 layer_factory.hpp:77] Creating layer pool1
I0409 21:58:41.532922 11538 net.cpp:100] Creating Layer pool1
I0409 21:58:41.532924 11538 net.cpp:434] pool1 <- conv1
I0409 21:58:41.532929 11538 net.cpp:408] pool1 -> pool1
I0409 21:58:41.533040 11538 net.cpp:150] Setting up pool1
I0409 21:58:41.533048 11538 net.cpp:157] Top shape: 1024 100 21 21 (45158400)
I0409 21:58:41.533058 11538 net.cpp:165] Memory required for data: 1654030336
I0409 21:58:41.533061 11538 layer_factory.hpp:77] Creating layer conv2
I0409 21:58:41.533071 11538 net.cpp:100] Creating Layer conv2
I0409 21:58:41.533073 11538 net.cpp:434] conv2 <- pool1
I0409 21:58:41.533083 11538 net.cpp:408] conv2 -> conv2
I0409 21:58:41.539376 11538 net.cpp:150] Setting up conv2
I0409 21:58:41.539397 11538 net.cpp:157] Top shape: 1024 150 18 18 (49766400)
I0409 21:58:41.539400 11538 net.cpp:165] Memory required for data: 1853095936
I0409 21:58:41.539410 11538 layer_factory.hpp:77] Creating layer conv2_sTanH
I0409 21:58:41.539417 11538 net.cpp:100] Creating Layer conv2_sTanH
I0409 21:58:41.539420 11538 net.cpp:434] conv2_sTanH <- conv2
I0409 21:58:41.539424 11538 net.cpp:395] conv2_sTanH -> conv2 (in-place)
I0409 21:58:41.540263 11538 net.cpp:150] Setting up conv2_sTanH
I0409 21:58:41.540280 11538 net.cpp:157] Top shape: 1024 150 18 18 (49766400)
I0409 21:58:41.540285 11538 net.cpp:165] Memory required for data: 2052161536
I0409 21:58:41.540289 11538 layer_factory.hpp:77] Creating layer pool2
I0409 21:58:41.540297 11538 net.cpp:100] Creating Layer pool2
I0409 21:58:41.540299 11538 net.cpp:434] pool2 <- conv2
I0409 21:58:41.540305 11538 net.cpp:408] pool2 -> pool2
I0409 21:58:41.540359 11538 net.cpp:150] Setting up pool2
I0409 21:58:41.540369 11538 net.cpp:157] Top shape: 1024 150 9 9 (12441600)
I0409 21:58:41.540372 11538 net.cpp:165] Memory required for data: 2101927936
I0409 21:58:41.540375 11538 layer_factory.hpp:77] Creating layer conv3
I0409 21:58:41.540385 11538 net.cpp:100] Creating Layer conv3
I0409 21:58:41.540388 11538 net.cpp:434] conv3 <- pool2
I0409 21:58:41.540395 11538 net.cpp:408] conv3 -> conv3
I0409 21:58:41.545953 11538 net.cpp:150] Setting up conv3
I0409 21:58:41.545974 11538 net.cpp:157] Top shape: 1024 250 6 6 (9216000)
I0409 21:58:41.545977 11538 net.cpp:165] Memory required for data: 2138791936
I0409 21:58:41.545987 11538 layer_factory.hpp:77] Creating layer conv3_sTanH
I0409 21:58:41.545995 11538 net.cpp:100] Creating Layer conv3_sTanH
I0409 21:58:41.545999 11538 net.cpp:434] conv3_sTanH <- conv3
I0409 21:58:41.546003 11538 net.cpp:395] conv3_sTanH -> conv3 (in-place)
I0409 21:58:41.546793 11538 net.cpp:150] Setting up conv3_sTanH
I0409 21:58:41.546810 11538 net.cpp:157] Top shape: 1024 250 6 6 (9216000)
I0409 21:58:41.546831 11538 net.cpp:165] Memory required for data: 2175655936
I0409 21:58:41.546835 11538 layer_factory.hpp:77] Creating layer pool3
I0409 21:58:41.546844 11538 net.cpp:100] Creating Layer pool3
I0409 21:58:41.546846 11538 net.cpp:434] pool3 <- conv3
I0409 21:58:41.546854 11538 net.cpp:408] pool3 -> pool3
I0409 21:58:41.546905 11538 net.cpp:150] Setting up pool3
I0409 21:58:41.546919 11538 net.cpp:157] Top shape: 1024 250 3 3 (2304000)
I0409 21:58:41.546922 11538 net.cpp:165] Memory required for data: 2184871936
I0409 21:58:41.546926 11538 layer_factory.hpp:77] Creating layer fc4_300
I0409 21:58:41.546932 11538 net.cpp:100] Creating Layer fc4_300
I0409 21:58:41.546936 11538 net.cpp:434] fc4_300 <- pool3
I0409 21:58:41.546939 11538 net.cpp:408] fc4_300 -> fc4_300
I0409 21:58:41.552353 11538 net.cpp:150] Setting up fc4_300
I0409 21:58:41.552371 11538 net.cpp:157] Top shape: 1024 300 (307200)
I0409 21:58:41.552374 11538 net.cpp:165] Memory required for data: 2186100736
I0409 21:58:41.552381 11538 layer_factory.hpp:77] Creating layer fc4_sTanH
I0409 21:58:41.552387 11538 net.cpp:100] Creating Layer fc4_sTanH
I0409 21:58:41.552405 11538 net.cpp:434] fc4_sTanH <- fc4_300
I0409 21:58:41.552412 11538 net.cpp:395] fc4_sTanH -> fc4_300 (in-place)
I0409 21:58:41.552606 11538 net.cpp:150] Setting up fc4_sTanH
I0409 21:58:41.552618 11538 net.cpp:157] Top shape: 1024 300 (307200)
I0409 21:58:41.552621 11538 net.cpp:165] Memory required for data: 2187329536
I0409 21:58:41.552625 11538 layer_factory.hpp:77] Creating layer drop4
I0409 21:58:41.552633 11538 net.cpp:100] Creating Layer drop4
I0409 21:58:41.552636 11538 net.cpp:434] drop4 <- fc4_300
I0409 21:58:41.552641 11538 net.cpp:395] drop4 -> fc4_300 (in-place)
I0409 21:58:41.552670 11538 net.cpp:150] Setting up drop4
I0409 21:58:41.552677 11538 net.cpp:157] Top shape: 1024 300 (307200)
I0409 21:58:41.552681 11538 net.cpp:165] Memory required for data: 2188558336
I0409 21:58:41.552691 11538 layer_factory.hpp:77] Creating layer fc5_67
I0409 21:58:41.552698 11538 net.cpp:100] Creating Layer fc5_67
I0409 21:58:41.552701 11538 net.cpp:434] fc5_67 <- fc4_300
I0409 21:58:41.552706 11538 net.cpp:408] fc5_67 -> fc5_classes
I0409 21:58:41.552956 11538 net.cpp:150] Setting up fc5_67
I0409 21:58:41.552965 11538 net.cpp:157] Top shape: 1024 67 (68608)
I0409 21:58:41.552980 11538 net.cpp:165] Memory required for data: 2188832768
I0409 21:58:41.552990 11538 layer_factory.hpp:77] Creating layer fc5_classes_fc5_67_0_split
I0409 21:58:41.552999 11538 net.cpp:100] Creating Layer fc5_classes_fc5_67_0_split
I0409 21:58:41.553002 11538 net.cpp:434] fc5_classes_fc5_67_0_split <- fc5_classes
I0409 21:58:41.553007 11538 net.cpp:408] fc5_classes_fc5_67_0_split -> fc5_classes_fc5_67_0_split_0
I0409 21:58:41.553014 11538 net.cpp:408] fc5_classes_fc5_67_0_split -> fc5_classes_fc5_67_0_split_1
I0409 21:58:41.553023 11538 net.cpp:408] fc5_classes_fc5_67_0_split -> fc5_classes_fc5_67_0_split_2
I0409 21:58:41.553077 11538 net.cpp:150] Setting up fc5_classes_fc5_67_0_split
I0409 21:58:41.553084 11538 net.cpp:157] Top shape: 1024 67 (68608)
I0409 21:58:41.553088 11538 net.cpp:157] Top shape: 1024 67 (68608)
I0409 21:58:41.553092 11538 net.cpp:157] Top shape: 1024 67 (68608)
I0409 21:58:41.553093 11538 net.cpp:165] Memory required for data: 2189656064
I0409 21:58:41.553097 11538 layer_factory.hpp:77] Creating layer loss
I0409 21:58:41.553105 11538 net.cpp:100] Creating Layer loss
I0409 21:58:41.553109 11538 net.cpp:434] loss <- fc5_classes_fc5_67_0_split_0
I0409 21:58:41.553114 11538 net.cpp:434] loss <- label_data_1_split_0
I0409 21:58:41.553120 11538 net.cpp:408] loss -> loss
…
