…
I0414 15:25:39.269894   819 solver.cpp:93] Creating training net from train_net file: ./Prototxt/experiment_10/rtsd-r3/orig/trial_4/train.prototxt
I0414 15:25:39.291600   819 net.cpp:58] Initializing net from parameters: 
state {
  phase: TRAIN
  level: 0
  stage: ""
}
layer {
  name: "data"
  type: "Data"
  top: "data"
  top: "label"
  include {
    phase: TRAIN
  }
  transform_param {
    scale: 0.0039215689
    mirror: false
    crop_size: 48
    mean_value: 120
    mean_value: 113
    mean_value: 112
  }
  data_param {
    source: "../local_data/lmdb/rtsd-r3/orig/train/lmdb"
    batch_size: 1024
    backend: LMDB
  }
}
layer {
  name: "conv1"
  type: "Convolution"
  bottom: "data"
  top: "conv1"
  convolution_param {
    num_output: 100
    pad: 0
    kernel_size: 7
    group: 1
    stride: 1
    weight_filler {
      type: "xavier"
    }
  }
}
layer {
  name: "conv1_relu"
  type: "ReLU"
  bottom: "conv1"
  top: "conv1"
}
layer {
  name: "pool1"
  type: "Pooling"
  bottom: "conv1"
  top: "pool1"
  pooling_param {
    pool: MAX
    kernel_size: 2
    stride: 2
  }
}
layer {
  name: "conv2"
  type: "Convolution"
  bottom: "pool1"
  top: "conv2"
  convolution_param {
    num_output: 150
    pad: 0
    kernel_size: 4
    group: 1
    stride: 1
    weight_filler {
      type: "xavier"
    }
  }
}
layer {
  name: "conv2_relu"
  type: "ReLU"
  bottom: "conv2"
  top: "conv2"
}
layer {
  name: "pool2"
  type: "Pooling"
  bottom: "conv2"
  top: "pool2"
  pooling_param {
    pool: MAX
    kernel_size: 2
    stride: 2
  }
}
layer {
  name: "conv3"
  type: "Convolution"
  bottom: "pool2"
  top: "conv3"
  convolution_param {
    num_output: 250
    pad: 0
    kernel_size: 4
    group: 1
    stride: 1
    weight_filler {
      type: "xavier"
    }
  }
}
layer {
  name: "conv3_relu"
  type: "ReLU"
  bottom: "conv3"
  top: "conv3"
}
layer {
  name: "pool3"
  type: "Pooling"
  bottom: "conv3"
  top: "pool3"
  pooling_param {
    pool: MAX
    kernel_size: 2
    stride: 2
  }
}
layer {
  name: "fc4_300"
  type: "InnerProduct"
  bottom: "pool3"
  top: "fc4_300"
  inner_product_param {
    num_output: 300
    weight_filler {
      type: "xavier"
    }
  }
}
layer {
  name: "fc4_relu"
  type: "ReLU"
  bottom: "fc4_300"
  top: "fc4_300"
}
layer {
  name: "fc5_106"
  type: "InnerProduct"
  bottom: "fc4_300"
  top: "fc5_classes"
  inner_product_param {
    num_output: 106
    weight_filler {
      type: "xavier"
    }
  }
}
layer {
  name: "softmax"
  type: "Softmax"
  bottom: "fc5_classes"
  top: "softmax"
}
layer {
  name: "loss"
  type: "MultinomialLogisticLoss"
  bottom: "softmax"
  bottom: "label"
  top: "loss"
}
layer {
  name: "accuracy_1"
  type: "Accuracy"
  bottom: "fc5_classes"
  bottom: "label"
  top: "accuracy_1"
  accuracy_param {
    top_k: 1
  }
}
layer {
  name: "accuracy_5"
  type: "Accuracy"
  bottom: "fc5_classes"
  bottom: "label"
  top: "accuracy_5"
  accuracy_param {
    top_k: 5
  }
}
layer {
  name: "silence"
  type: "Silence"
  bottom: "accuracy_1"
  bottom: "accuracy_5"
}
I0414 15:25:39.291728   819 layer_factory.hpp:77] Creating layer data
I0414 15:25:39.292804   819 net.cpp:100] Creating Layer data
I0414 15:25:39.292824   819 net.cpp:408] data -> data
I0414 15:25:39.292850   819 net.cpp:408] data -> label
I0414 15:25:39.297253   950 db_lmdb.cpp:35] Opened lmdb ../local_data/lmdb/rtsd-r3/orig/train/lmdb
I0414 15:25:39.318845   819 data_layer.cpp:41] output data size: 1024,3,48,48
I0414 15:25:39.380569   819 net.cpp:150] Setting up data
I0414 15:25:39.380623   819 net.cpp:157] Top shape: 1024 3 48 48 (7077888)
I0414 15:25:39.380630   819 net.cpp:157] Top shape: 1024 (1024)
I0414 15:25:39.380633   819 net.cpp:165] Memory required for data: 28315648
I0414 15:25:39.380645   819 layer_factory.hpp:77] Creating layer label_data_1_split
I0414 15:25:39.380658   819 net.cpp:100] Creating Layer label_data_1_split
I0414 15:25:39.380666   819 net.cpp:434] label_data_1_split <- label
I0414 15:25:39.380681   819 net.cpp:408] label_data_1_split -> label_data_1_split_0
I0414 15:25:39.380694   819 net.cpp:408] label_data_1_split -> label_data_1_split_1
I0414 15:25:39.380702   819 net.cpp:408] label_data_1_split -> label_data_1_split_2
I0414 15:25:39.380767   819 net.cpp:150] Setting up label_data_1_split
I0414 15:25:39.380776   819 net.cpp:157] Top shape: 1024 (1024)
I0414 15:25:39.380781   819 net.cpp:157] Top shape: 1024 (1024)
I0414 15:25:39.380785   819 net.cpp:157] Top shape: 1024 (1024)
I0414 15:25:39.380789   819 net.cpp:165] Memory required for data: 28327936
I0414 15:25:39.380791   819 layer_factory.hpp:77] Creating layer conv1
I0414 15:25:39.380808   819 net.cpp:100] Creating Layer conv1
I0414 15:25:39.380813   819 net.cpp:434] conv1 <- data
I0414 15:25:39.380820   819 net.cpp:408] conv1 -> conv1
I0414 15:25:39.859222   819 net.cpp:150] Setting up conv1
I0414 15:25:39.859251   819 net.cpp:157] Top shape: 1024 100 42 42 (180633600)
I0414 15:25:39.859256   819 net.cpp:165] Memory required for data: 750862336
I0414 15:25:39.859278   819 layer_factory.hpp:77] Creating layer conv1_relu
I0414 15:25:39.859289   819 net.cpp:100] Creating Layer conv1_relu
I0414 15:25:39.859297   819 net.cpp:434] conv1_relu <- conv1
I0414 15:25:39.859302   819 net.cpp:395] conv1_relu -> conv1 (in-place)
I0414 15:25:39.859508   819 net.cpp:150] Setting up conv1_relu
I0414 15:25:39.859520   819 net.cpp:157] Top shape: 1024 100 42 42 (180633600)
I0414 15:25:39.859525   819 net.cpp:165] Memory required for data: 1473396736
I0414 15:25:39.859529   819 layer_factory.hpp:77] Creating layer pool1
I0414 15:25:39.859539   819 net.cpp:100] Creating Layer pool1
I0414 15:25:39.859544   819 net.cpp:434] pool1 <- conv1
I0414 15:25:39.859549   819 net.cpp:408] pool1 -> pool1
I0414 15:25:39.859606   819 net.cpp:150] Setting up pool1
I0414 15:25:39.859616   819 net.cpp:157] Top shape: 1024 100 21 21 (45158400)
I0414 15:25:39.859622   819 net.cpp:165] Memory required for data: 1654030336
I0414 15:25:39.859624   819 layer_factory.hpp:77] Creating layer conv2
I0414 15:25:39.859635   819 net.cpp:100] Creating Layer conv2
I0414 15:25:39.859639   819 net.cpp:434] conv2 <- pool1
I0414 15:25:39.859645   819 net.cpp:408] conv2 -> conv2
I0414 15:25:39.890482   819 net.cpp:150] Setting up conv2
I0414 15:25:39.890503   819 net.cpp:157] Top shape: 1024 150 18 18 (49766400)
I0414 15:25:39.890508   819 net.cpp:165] Memory required for data: 1853095936
I0414 15:25:39.890521   819 layer_factory.hpp:77] Creating layer conv2_relu
I0414 15:25:39.890529   819 net.cpp:100] Creating Layer conv2_relu
I0414 15:25:39.890533   819 net.cpp:434] conv2_relu <- conv2
I0414 15:25:39.890539   819 net.cpp:395] conv2_relu -> conv2 (in-place)
I0414 15:25:39.891667   819 net.cpp:150] Setting up conv2_relu
I0414 15:25:39.891685   819 net.cpp:157] Top shape: 1024 150 18 18 (49766400)
I0414 15:25:39.891688   819 net.cpp:165] Memory required for data: 2052161536
I0414 15:25:39.891692   819 layer_factory.hpp:77] Creating layer pool2
I0414 15:25:39.891700   819 net.cpp:100] Creating Layer pool2
I0414 15:25:39.891703   819 net.cpp:434] pool2 <- conv2
I0414 15:25:39.891710   819 net.cpp:408] pool2 -> pool2
I0414 15:25:39.891762   819 net.cpp:150] Setting up pool2
I0414 15:25:39.891770   819 net.cpp:157] Top shape: 1024 150 9 9 (12441600)
I0414 15:25:39.891774   819 net.cpp:165] Memory required for data: 2101927936
I0414 15:25:39.891778   819 layer_factory.hpp:77] Creating layer conv3
I0414 15:25:39.891791   819 net.cpp:100] Creating Layer conv3
I0414 15:25:39.891796   819 net.cpp:434] conv3 <- pool2
I0414 15:25:39.891801   819 net.cpp:408] conv3 -> conv3
I0414 15:25:39.897790   819 net.cpp:150] Setting up conv3
I0414 15:25:39.897809   819 net.cpp:157] Top shape: 1024 250 6 6 (9216000)
I0414 15:25:39.897815   819 net.cpp:165] Memory required for data: 2138791936
I0414 15:25:39.897826   819 layer_factory.hpp:77] Creating layer conv3_relu
I0414 15:25:39.897835   819 net.cpp:100] Creating Layer conv3_relu
I0414 15:25:39.897840   819 net.cpp:434] conv3_relu <- conv3
I0414 15:25:39.897845   819 net.cpp:395] conv3_relu -> conv3 (in-place)
I0414 15:25:39.911092   819 net.cpp:150] Setting up conv3_relu
I0414 15:25:39.911113   819 net.cpp:157] Top shape: 1024 250 6 6 (9216000)
I0414 15:25:39.911116   819 net.cpp:165] Memory required for data: 2175655936
I0414 15:25:39.911120   819 layer_factory.hpp:77] Creating layer pool3
I0414 15:25:39.911128   819 net.cpp:100] Creating Layer pool3
I0414 15:25:39.911133   819 net.cpp:434] pool3 <- conv3
I0414 15:25:39.911139   819 net.cpp:408] pool3 -> pool3
I0414 15:25:39.911188   819 net.cpp:150] Setting up pool3
I0414 15:25:39.911198   819 net.cpp:157] Top shape: 1024 250 3 3 (2304000)
I0414 15:25:39.911203   819 net.cpp:165] Memory required for data: 2184871936
I0414 15:25:39.911206   819 layer_factory.hpp:77] Creating layer fc4_300
I0414 15:25:39.911214   819 net.cpp:100] Creating Layer fc4_300
I0414 15:25:39.911218   819 net.cpp:434] fc4_300 <- pool3
I0414 15:25:39.911224   819 net.cpp:408] fc4_300 -> fc4_300
I0414 15:25:39.917394   819 net.cpp:150] Setting up fc4_300
I0414 15:25:39.917412   819 net.cpp:157] Top shape: 1024 300 (307200)
I0414 15:25:39.917418   819 net.cpp:165] Memory required for data: 2186100736
I0414 15:25:39.917424   819 layer_factory.hpp:77] Creating layer fc4_relu
I0414 15:25:39.917431   819 net.cpp:100] Creating Layer fc4_relu
I0414 15:25:39.917435   819 net.cpp:434] fc4_relu <- fc4_300
I0414 15:25:39.917440   819 net.cpp:395] fc4_relu -> fc4_300 (in-place)
I0414 15:25:39.917634   819 net.cpp:150] Setting up fc4_relu
I0414 15:25:39.917649   819 net.cpp:157] Top shape: 1024 300 (307200)
I0414 15:25:39.917652   819 net.cpp:165] Memory required for data: 2187329536
I0414 15:25:39.917656   819 layer_factory.hpp:77] Creating layer fc5_106
I0414 15:25:39.917664   819 net.cpp:100] Creating Layer fc5_106
I0414 15:25:39.917668   819 net.cpp:434] fc5_106 <- fc4_300
I0414 15:25:39.917675   819 net.cpp:408] fc5_106 -> fc5_classes
I0414 15:25:39.920581   819 net.cpp:150] Setting up fc5_106
I0414 15:25:39.920598   819 net.cpp:157] Top shape: 1024 106 (108544)
I0414 15:25:39.920603   819 net.cpp:165] Memory required for data: 2187763712
I0414 15:25:39.920613   819 layer_factory.hpp:77] Creating layer fc5_classes_fc5_106_0_split
I0414 15:25:39.920621   819 net.cpp:100] Creating Layer fc5_classes_fc5_106_0_split
I0414 15:25:39.920625   819 net.cpp:434] fc5_classes_fc5_106_0_split <- fc5_classes
I0414 15:25:39.920630   819 net.cpp:408] fc5_classes_fc5_106_0_split -> fc5_classes_fc5_106_0_split_0
I0414 15:25:39.920639   819 net.cpp:408] fc5_classes_fc5_106_0_split -> fc5_classes_fc5_106_0_split_1
I0414 15:25:39.920647   819 net.cpp:408] fc5_classes_fc5_106_0_split -> fc5_classes_fc5_106_0_split_2
I0414 15:25:39.920699   819 net.cpp:150] Setting up fc5_classes_fc5_106_0_split
I0414 15:25:39.920708   819 net.cpp:157] Top shape: 1024 106 (108544)
I0414 15:25:39.920713   819 net.cpp:157] Top shape: 1024 106 (108544)
I0414 15:25:39.920717   819 net.cpp:157] Top shape: 1024 106 (108544)
I0414 15:25:39.920720   819 net.cpp:165] Memory required for data: 2189066240
I0414 15:25:39.920723   819 layer_factory.hpp:77] Creating layer softmax
I0414 15:25:39.920730   819 net.cpp:100] Creating Layer softmax
I0414 15:25:39.920735   819 net.cpp:434] softmax <- fc5_classes_fc5_106_0_split_0
I0414 15:25:39.920742   819 net.cpp:408] softmax -> softmax
I0414 15:25:39.921001   819 net.cpp:150] Setting up softmax
I0414 15:25:39.921015   819 net.cpp:157] Top shape: 1024 106 (108544)
I0414 15:25:39.921020   819 net.cpp:165] Memory required for data: 2189500416
I0414 15:25:39.921025   819 layer_factory.hpp:77] Creating layer loss
I0414 15:25:39.921053   819 net.cpp:100] Creating Layer loss
I0414 15:25:39.921058   819 net.cpp:434] loss <- softmax
I0414 15:25:39.921063   819 net.cpp:434] loss <- label_data_1_split_0
I0414 15:25:39.921069   819 net.cpp:408] loss -> loss
…
