…
I0410 00:29:01.429534 27479 net.cpp:322] The NetState phase (0) differed from the phase (1) specified by a rule in layer accuracy_5
I0410 00:29:01.429647 27479 net.cpp:58] Initializing net from parameters: 
state {
  phase: TRAIN
  level: 0
  stage: ""
}
layer {
  name: "data"
  type: "Data"
  top: "data"
  top: "label"
  include {
    phase: TRAIN
  }
  transform_param {
    mirror: false
    crop_size: 48
    mean_value: 132
    mean_value: 126
    mean_value: 140
  }
  data_param {
    source: "../local_data/lmdb/rtsd-r1/AHE/train/lmdb"
    batch_size: 1024
    backend: LMDB
  }
}
layer {
  name: "conv1"
  type: "Convolution"
  bottom: "data"
  top: "conv1"
  convolution_param {
    num_output: 100
    pad: 0
    kernel_size: 7
    group: 1
    stride: 1
    weight_filler {
      type: "xavier"
    }
  }
}
layer {
  name: "conv1_sTanH"
  type: "TanH"
  bottom: "conv1"
  top: "conv1"
}
layer {
  name: "pool1"
  type: "Pooling"
  bottom: "conv1"
  top: "pool1"
  pooling_param {
    pool: MAX
    kernel_size: 2
    stride: 2
  }
}
layer {
  name: "conv2"
  type: "Convolution"
  bottom: "pool1"
  top: "conv2"
  convolution_param {
    num_output: 150
    pad: 0
    kernel_size: 4
    group: 1
    stride: 1
    weight_filler {
      type: "xavier"
    }
  }
}
layer {
  name: "conv2_sTanH"
  type: "TanH"
  bottom: "conv2"
  top: "conv2"
}
layer {
  name: "pool2"
  type: "Pooling"
  bottom: "conv2"
  top: "pool2"
  pooling_param {
    pool: MAX
    kernel_size: 2
    stride: 2
  }
}
layer {
  name: "conv3"
  type: "Convolution"
  bottom: "pool2"
  top: "conv3"
  convolution_param {
    num_output: 250
    pad: 0
    kernel_size: 4
    group: 1
    stride: 1
    weight_filler {
      type: "xavier"
    }
  }
}
layer {
  name: "conv3_sTanH"
  type: "TanH"
  bottom: "conv3"
  top: "conv3"
}
layer {
  name: "pool3"
  type: "Pooling"
  bottom: "conv3"
  top: "pool3"
  pooling_param {
    pool: MAX
    kernel_size: 2
    stride: 2
  }
}
layer {
  name: "fc4_300"
  type: "InnerProduct"
  bottom: "pool3"
  top: "fc4_300"
  inner_product_param {
    num_output: 300
    weight_filler {
      type: "xavier"
    }
  }
}
layer {
  name: "fc4_sTanH"
  type: "TanH"
  bottom: "fc4_300"
  top: "fc4_300"
}
layer {
  name: "drop4"
  type: "Dropout"
  bottom: "fc4_300"
  top: "fc4_300"
  dropout_param {
    dropout_ratio: 0.4
  }
}
layer {
  name: "fc5_67"
  type: "InnerProduct"
  bottom: "fc4_300"
  top: "fc5_classes"
  inner_product_param {
    num_output: 67
    weight_filler {
      type: "xavier"
    }
  }
}
layer {
  name: "loss"
  type: "SoftmaxWithLoss"
  bottom: "fc5_classes"
  bottom: "label"
  top: "loss"
}
I0410 00:29:01.429730 27479 layer_factory.hpp:77] Creating layer data
I0410 00:29:01.430999 27479 net.cpp:100] Creating Layer data
I0410 00:29:01.431017 27479 net.cpp:408] data -> data
I0410 00:29:01.431046 27479 net.cpp:408] data -> label
I0410 00:29:01.432297 27554 db_lmdb.cpp:35] Opened lmdb ../local_data/lmdb/rtsd-r1/AHE/train/lmdb
I0410 00:29:01.455401 27479 data_layer.cpp:41] output data size: 1024,3,48,48
I0410 00:29:01.514114 27479 net.cpp:150] Setting up data
I0410 00:29:01.514152 27479 net.cpp:157] Top shape: 1024 3 48 48 (7077888)
I0410 00:29:01.514158 27479 net.cpp:157] Top shape: 1024 (1024)
I0410 00:29:01.514192 27479 net.cpp:165] Memory required for data: 28315648
I0410 00:29:01.514207 27479 layer_factory.hpp:77] Creating layer conv1
I0410 00:29:01.514235 27479 net.cpp:100] Creating Layer conv1
I0410 00:29:01.514243 27479 net.cpp:434] conv1 <- data
I0410 00:29:01.514259 27479 net.cpp:408] conv1 -> conv1
I0410 00:29:01.782052 27479 net.cpp:150] Setting up conv1
I0410 00:29:01.782090 27479 net.cpp:157] Top shape: 1024 100 42 42 (180633600)
I0410 00:29:01.782094 27479 net.cpp:165] Memory required for data: 750850048
I0410 00:29:01.782119 27479 layer_factory.hpp:77] Creating layer conv1_sTanH
I0410 00:29:01.782146 27479 net.cpp:100] Creating Layer conv1_sTanH
I0410 00:29:01.782153 27479 net.cpp:434] conv1_sTanH <- conv1
I0410 00:29:01.782161 27479 net.cpp:395] conv1_sTanH -> conv1 (in-place)
I0410 00:29:01.782367 27479 net.cpp:150] Setting up conv1_sTanH
I0410 00:29:01.782380 27479 net.cpp:157] Top shape: 1024 100 42 42 (180633600)
I0410 00:29:01.782387 27479 net.cpp:165] Memory required for data: 1473384448
I0410 00:29:01.782392 27479 layer_factory.hpp:77] Creating layer pool1
I0410 00:29:01.782402 27479 net.cpp:100] Creating Layer pool1
I0410 00:29:01.782407 27479 net.cpp:434] pool1 <- conv1
I0410 00:29:01.782414 27479 net.cpp:408] pool1 -> pool1
I0410 00:29:01.782472 27479 net.cpp:150] Setting up pool1
I0410 00:29:01.782482 27479 net.cpp:157] Top shape: 1024 100 21 21 (45158400)
I0410 00:29:01.782488 27479 net.cpp:165] Memory required for data: 1654018048
I0410 00:29:01.782492 27479 layer_factory.hpp:77] Creating layer conv2
I0410 00:29:01.782507 27479 net.cpp:100] Creating Layer conv2
I0410 00:29:01.782512 27479 net.cpp:434] conv2 <- pool1
I0410 00:29:01.782519 27479 net.cpp:408] conv2 -> conv2
I0410 00:29:01.792749 27479 net.cpp:150] Setting up conv2
I0410 00:29:01.792768 27479 net.cpp:157] Top shape: 1024 150 18 18 (49766400)
I0410 00:29:01.792776 27479 net.cpp:165] Memory required for data: 1853083648
I0410 00:29:01.792790 27479 layer_factory.hpp:77] Creating layer conv2_sTanH
I0410 00:29:01.792799 27479 net.cpp:100] Creating Layer conv2_sTanH
I0410 00:29:01.792806 27479 net.cpp:434] conv2_sTanH <- conv2
I0410 00:29:01.792814 27479 net.cpp:395] conv2_sTanH -> conv2 (in-place)
I0410 00:29:01.793589 27479 net.cpp:150] Setting up conv2_sTanH
I0410 00:29:01.793606 27479 net.cpp:157] Top shape: 1024 150 18 18 (49766400)
I0410 00:29:01.793609 27479 net.cpp:165] Memory required for data: 2052149248
I0410 00:29:01.793613 27479 layer_factory.hpp:77] Creating layer pool2
I0410 00:29:01.793623 27479 net.cpp:100] Creating Layer pool2
I0410 00:29:01.793628 27479 net.cpp:434] pool2 <- conv2
I0410 00:29:01.793637 27479 net.cpp:408] pool2 -> pool2
I0410 00:29:01.793685 27479 net.cpp:150] Setting up pool2
I0410 00:29:01.793702 27479 net.cpp:157] Top shape: 1024 150 9 9 (12441600)
I0410 00:29:01.793707 27479 net.cpp:165] Memory required for data: 2101915648
I0410 00:29:01.793712 27479 layer_factory.hpp:77] Creating layer conv3
I0410 00:29:01.793726 27479 net.cpp:100] Creating Layer conv3
I0410 00:29:01.793732 27479 net.cpp:434] conv3 <- pool2
I0410 00:29:01.793762 27479 net.cpp:408] conv3 -> conv3
I0410 00:29:01.799078 27479 net.cpp:150] Setting up conv3
I0410 00:29:01.799106 27479 net.cpp:157] Top shape: 1024 250 6 6 (9216000)
I0410 00:29:01.799110 27479 net.cpp:165] Memory required for data: 2138779648
I0410 00:29:01.799120 27479 layer_factory.hpp:77] Creating layer conv3_sTanH
I0410 00:29:01.799131 27479 net.cpp:100] Creating Layer conv3_sTanH
I0410 00:29:01.799137 27479 net.cpp:434] conv3_sTanH <- conv3
I0410 00:29:01.799161 27479 net.cpp:395] conv3_sTanH -> conv3 (in-place)
I0410 00:29:01.799958 27479 net.cpp:150] Setting up conv3_sTanH
I0410 00:29:01.799975 27479 net.cpp:157] Top shape: 1024 250 6 6 (9216000)
I0410 00:29:01.799979 27479 net.cpp:165] Memory required for data: 2175643648
I0410 00:29:01.799983 27479 layer_factory.hpp:77] Creating layer pool3
I0410 00:29:01.799989 27479 net.cpp:100] Creating Layer pool3
I0410 00:29:01.799993 27479 net.cpp:434] pool3 <- conv3
I0410 00:29:01.800017 27479 net.cpp:408] pool3 -> pool3
I0410 00:29:01.800068 27479 net.cpp:150] Setting up pool3
I0410 00:29:01.800077 27479 net.cpp:157] Top shape: 1024 250 3 3 (2304000)
I0410 00:29:01.800081 27479 net.cpp:165] Memory required for data: 2184859648
I0410 00:29:01.800084 27479 layer_factory.hpp:77] Creating layer fc4_300
I0410 00:29:01.800092 27479 net.cpp:100] Creating Layer fc4_300
I0410 00:29:01.800096 27479 net.cpp:434] fc4_300 <- pool3
I0410 00:29:01.800102 27479 net.cpp:408] fc4_300 -> fc4_300
I0410 00:29:01.805327 27479 net.cpp:150] Setting up fc4_300
I0410 00:29:01.805343 27479 net.cpp:157] Top shape: 1024 300 (307200)
I0410 00:29:01.805358 27479 net.cpp:165] Memory required for data: 2186088448
I0410 00:29:01.805366 27479 layer_factory.hpp:77] Creating layer fc4_sTanH
I0410 00:29:01.805373 27479 net.cpp:100] Creating Layer fc4_sTanH
I0410 00:29:01.805377 27479 net.cpp:434] fc4_sTanH <- fc4_300
I0410 00:29:01.805382 27479 net.cpp:395] fc4_sTanH -> fc4_300 (in-place)
I0410 00:29:01.805579 27479 net.cpp:150] Setting up fc4_sTanH
I0410 00:29:01.805591 27479 net.cpp:157] Top shape: 1024 300 (307200)
I0410 00:29:01.805595 27479 net.cpp:165] Memory required for data: 2187317248
I0410 00:29:01.805598 27479 layer_factory.hpp:77] Creating layer drop4
I0410 00:29:01.805605 27479 net.cpp:100] Creating Layer drop4
I0410 00:29:01.805608 27479 net.cpp:434] drop4 <- fc4_300
I0410 00:29:01.805615 27479 net.cpp:395] drop4 -> fc4_300 (in-place)
I0410 00:29:01.805646 27479 net.cpp:150] Setting up drop4
I0410 00:29:01.805655 27479 net.cpp:157] Top shape: 1024 300 (307200)
I0410 00:29:01.805657 27479 net.cpp:165] Memory required for data: 2188546048
I0410 00:29:01.805660 27479 layer_factory.hpp:77] Creating layer fc5_67
I0410 00:29:01.805668 27479 net.cpp:100] Creating Layer fc5_67
I0410 00:29:01.805671 27479 net.cpp:434] fc5_67 <- fc4_300
I0410 00:29:01.805677 27479 net.cpp:408] fc5_67 -> fc5_classes
I0410 00:29:01.806860 27479 net.cpp:150] Setting up fc5_67
I0410 00:29:01.806876 27479 net.cpp:157] Top shape: 1024 67 (68608)
I0410 00:29:01.806879 27479 net.cpp:165] Memory required for data: 2188820480
I0410 00:29:01.806888 27479 layer_factory.hpp:77] Creating layer loss
I0410 00:29:01.806897 27479 net.cpp:100] Creating Layer loss
I0410 00:29:01.806900 27479 net.cpp:434] loss <- fc5_classes
I0410 00:29:01.806905 27479 net.cpp:434] loss <- label
I0410 00:29:01.806912 27479 net.cpp:408] loss -> loss
I0410 00:29:01.806926 27479 layer_factory.hpp:77] Creating layer loss
…
I0410 00:29:01.807595 27479 solver.cpp:193] Creating test net (#0) specified by test_net file: ./Prototxt/experiment_7/rtsd-r1/AHE/trial_4/test.prototxt
I0410 00:29:01.807731 27479 net.cpp:58] Initializing net from parameters: 
state {
  phase: TEST
}
layer {
  name: "data"
  type: "Data"
  top: "data"
  top: "label"
  include {
    phase: TEST
  }
  transform_param {
    mirror: false
    crop_size: 48
    mean_value: 126
    mean_value: 124
    mean_value: 145
  }
  data_param {
    source: "../local_data/lmdb/rtsd-r1/AHE/test/lmdb"
    batch_size: 1024
    backend: LMDB
  }
}
layer {
  name: "conv1"
  type: "Convolution"
  bottom: "data"
  top: "conv1"
  convolution_param {
    num_output: 100
    pad: 0
    kernel_size: 7
    group: 1
    stride: 1
    weight_filler {
      type: "xavier"
    }
  }
}
layer {
  name: "conv1_sTanH"
  type: "TanH"
  bottom: "conv1"
  top: "conv1"
}
layer {
  name: "pool1"
  type: "Pooling"
  bottom: "conv1"
  top: "pool1"
  pooling_param {
    pool: MAX
    kernel_size: 2
    stride: 2
  }
}
layer {
  name: "conv2"
  type: "Convolution"
  bottom: "pool1"
  top: "conv2"
  convolution_param {
    num_output: 150
    pad: 0
    kernel_size: 4
    group: 1
    stride: 1
    weight_filler {
      type: "xavier"
    }
  }
}
layer {
  name: "conv2_sTanH"
  type: "TanH"
  bottom: "conv2"
  top: "conv2"
}
layer {
  name: "pool2"
  type: "Pooling"
  bottom: "conv2"
  top: "pool2"
  pooling_param {
    pool: MAX
    kernel_size: 2
    stride: 2
  }
}
layer {
  name: "conv3"
  type: "Convolution"
  bottom: "pool2"
  top: "conv3"
  convolution_param {
    num_output: 250
    pad: 0
    kernel_size: 4
    group: 1
    stride: 1
    weight_filler {
      type: "xavier"
    }
  }
}
layer {
  name: "conv3_sTanH"
  type: "TanH"
  bottom: "conv3"
  top: "conv3"
}
layer {
  name: "pool3"
  type: "Pooling"
  bottom: "conv3"
  top: "pool3"
  pooling_param {
    pool: MAX
    kernel_size: 2
    stride: 2
  }
}
layer {
  name: "fc4_300"
  type: "InnerProduct"
  bottom: "pool3"
  top: "fc4_300"
  inner_product_param {
    num_output: 300
    weight_filler {
      type: "xavier"
    }
  }
}
layer {
  name: "fc4_sTanH"
  type: "TanH"
  bottom: "fc4_300"
  top: "fc4_300"
}
layer {
  name: "drop4"
  type: "Dropout"
  bottom: "fc4_300"
  top: "fc4_300"
  dropout_param {
    dropout_ratio: 0.4
  }
}
layer {
  name: "fc5_67"
  type: "InnerProduct"
  bottom: "fc4_300"
  top: "fc5_classes"
  inner_product_param {
    num_output: 67
    weight_filler {
      type: "xavier"
    }
  }
}
layer {
  name: "loss"
  type: "SoftmaxWithLoss"
  bottom: "fc5_classes"
  bottom: "label"
  top: "loss"
}
layer {
  name: "accuracy_1"
  type: "Accuracy"
  bottom: "fc5_classes"
  bottom: "label"
  top: "accuracy_1"
  include {
    phase: TEST
  }
  accuracy_param {
    top_k: 1
  }
}
layer {
  name: "accuracy_5"
  type: "Accuracy"
  bottom: "fc5_classes"
  bottom: "label"
  top: "accuracy_5"
  include {
    phase: TEST
  }
  accuracy_param {
    top_k: 5
  }
}
I0410 00:29:01.807818 27479 layer_factory.hpp:77] Creating layer data
I0410 00:29:01.808504 27479 net.cpp:100] Creating Layer data
I0410 00:29:01.808531 27479 net.cpp:408] data -> data
I0410 00:29:01.808540 27479 net.cpp:408] data -> label
I0410 00:29:01.809725 27574 db_lmdb.cpp:35] Opened lmdb ../local_data/lmdb/rtsd-r1/AHE/test/lmdb
I0410 00:29:01.809895 27479 data_layer.cpp:41] output data size: 1024,3,48,48
I0410 00:29:01.850872 27479 net.cpp:150] Setting up data
I0410 00:29:01.850899 27479 net.cpp:157] Top shape: 1024 3 48 48 (7077888)
I0410 00:29:01.850904 27479 net.cpp:157] Top shape: 1024 (1024)
I0410 00:29:01.850908 27479 net.cpp:165] Memory required for data: 28315648
I0410 00:29:01.850914 27479 layer_factory.hpp:77] Creating layer label_data_1_split
I0410 00:29:01.850939 27479 net.cpp:100] Creating Layer label_data_1_split
I0410 00:29:01.850944 27479 net.cpp:434] label_data_1_split <- label
I0410 00:29:01.850951 27479 net.cpp:408] label_data_1_split -> label_data_1_split_0
I0410 00:29:01.850961 27479 net.cpp:408] label_data_1_split -> label_data_1_split_1
I0410 00:29:01.850967 27479 net.cpp:408] label_data_1_split -> label_data_1_split_2
I0410 00:29:01.851120 27479 net.cpp:150] Setting up label_data_1_split
I0410 00:29:01.851130 27479 net.cpp:157] Top shape: 1024 (1024)
I0410 00:29:01.851135 27479 net.cpp:157] Top shape: 1024 (1024)
I0410 00:29:01.851138 27479 net.cpp:157] Top shape: 1024 (1024)
I0410 00:29:01.851140 27479 net.cpp:165] Memory required for data: 28327936
I0410 00:29:01.851145 27479 layer_factory.hpp:77] Creating layer conv1
I0410 00:29:01.851166 27479 net.cpp:100] Creating Layer conv1
I0410 00:29:01.851169 27479 net.cpp:434] conv1 <- data
I0410 00:29:01.851176 27479 net.cpp:408] conv1 -> conv1
I0410 00:29:01.853260 27479 net.cpp:150] Setting up conv1
I0410 00:29:01.853276 27479 net.cpp:157] Top shape: 1024 100 42 42 (180633600)
I0410 00:29:01.853281 27479 net.cpp:165] Memory required for data: 750862336
I0410 00:29:01.853304 27479 layer_factory.hpp:77] Creating layer conv1_sTanH
I0410 00:29:01.853313 27479 net.cpp:100] Creating Layer conv1_sTanH
I0410 00:29:01.853317 27479 net.cpp:434] conv1_sTanH <- conv1
I0410 00:29:01.853325 27479 net.cpp:395] conv1_sTanH -> conv1 (in-place)
I0410 00:29:01.853612 27479 net.cpp:150] Setting up conv1_sTanH
I0410 00:29:01.853624 27479 net.cpp:157] Top shape: 1024 100 42 42 (180633600)
I0410 00:29:01.853627 27479 net.cpp:165] Memory required for data: 1473396736
I0410 00:29:01.853631 27479 layer_factory.hpp:77] Creating layer pool1
I0410 00:29:01.853641 27479 net.cpp:100] Creating Layer pool1
I0410 00:29:01.853646 27479 net.cpp:434] pool1 <- conv1
I0410 00:29:01.853653 27479 net.cpp:408] pool1 -> pool1
I0410 00:29:01.855870 27479 net.cpp:150] Setting up pool1
I0410 00:29:01.855890 27479 net.cpp:157] Top shape: 1024 100 21 21 (45158400)
I0410 00:29:01.855895 27479 net.cpp:165] Memory required for data: 1654030336
I0410 00:29:01.855898 27479 layer_factory.hpp:77] Creating layer conv2
I0410 00:29:01.855909 27479 net.cpp:100] Creating Layer conv2
I0410 00:29:01.855914 27479 net.cpp:434] conv2 <- pool1
I0410 00:29:01.855921 27479 net.cpp:408] conv2 -> conv2
I0410 00:29:01.859848 27479 net.cpp:150] Setting up conv2
I0410 00:29:01.859865 27479 net.cpp:157] Top shape: 1024 150 18 18 (49766400)
I0410 00:29:01.859869 27479 net.cpp:165] Memory required for data: 1853095936
I0410 00:29:01.859890 27479 layer_factory.hpp:77] Creating layer conv2_sTanH
I0410 00:29:01.859904 27479 net.cpp:100] Creating Layer conv2_sTanH
I0410 00:29:01.859906 27479 net.cpp:434] conv2_sTanH <- conv2
I0410 00:29:01.859915 27479 net.cpp:395] conv2_sTanH -> conv2 (in-place)
I0410 00:29:01.860713 27479 net.cpp:150] Setting up conv2_sTanH
I0410 00:29:01.860731 27479 net.cpp:157] Top shape: 1024 150 18 18 (49766400)
I0410 00:29:01.860735 27479 net.cpp:165] Memory required for data: 2052161536
I0410 00:29:01.860739 27479 layer_factory.hpp:77] Creating layer pool2
I0410 00:29:01.860746 27479 net.cpp:100] Creating Layer pool2
I0410 00:29:01.860750 27479 net.cpp:434] pool2 <- conv2
I0410 00:29:01.860756 27479 net.cpp:408] pool2 -> pool2
I0410 00:29:01.860813 27479 net.cpp:150] Setting up pool2
I0410 00:29:01.860822 27479 net.cpp:157] Top shape: 1024 150 9 9 (12441600)
I0410 00:29:01.860826 27479 net.cpp:165] Memory required for data: 2101927936
I0410 00:29:01.860829 27479 layer_factory.hpp:77] Creating layer conv3
I0410 00:29:01.860842 27479 net.cpp:100] Creating Layer conv3
I0410 00:29:01.860848 27479 net.cpp:434] conv3 <- pool2
I0410 00:29:01.860854 27479 net.cpp:408] conv3 -> conv3
I0410 00:29:01.866454 27479 net.cpp:150] Setting up conv3
I0410 00:29:01.866472 27479 net.cpp:157] Top shape: 1024 250 6 6 (9216000)
I0410 00:29:01.866475 27479 net.cpp:165] Memory required for data: 2138791936
I0410 00:29:01.866487 27479 layer_factory.hpp:77] Creating layer conv3_sTanH
I0410 00:29:01.866498 27479 net.cpp:100] Creating Layer conv3_sTanH
I0410 00:29:01.866504 27479 net.cpp:434] conv3_sTanH <- conv3
I0410 00:29:01.866510 27479 net.cpp:395] conv3_sTanH -> conv3 (in-place)
I0410 00:29:01.867312 27479 net.cpp:150] Setting up conv3_sTanH
I0410 00:29:01.867328 27479 net.cpp:157] Top shape: 1024 250 6 6 (9216000)
I0410 00:29:01.867350 27479 net.cpp:165] Memory required for data: 2175655936
I0410 00:29:01.867355 27479 layer_factory.hpp:77] Creating layer pool3
I0410 00:29:01.867364 27479 net.cpp:100] Creating Layer pool3
I0410 00:29:01.867368 27479 net.cpp:434] pool3 <- conv3
I0410 00:29:01.867374 27479 net.cpp:408] pool3 -> pool3
I0410 00:29:01.867429 27479 net.cpp:150] Setting up pool3
I0410 00:29:01.867439 27479 net.cpp:157] Top shape: 1024 250 3 3 (2304000)
I0410 00:29:01.867441 27479 net.cpp:165] Memory required for data: 2184871936
I0410 00:29:01.867444 27479 layer_factory.hpp:77] Creating layer fc4_300
I0410 00:29:01.867450 27479 net.cpp:100] Creating Layer fc4_300
I0410 00:29:01.867455 27479 net.cpp:434] fc4_300 <- pool3
I0410 00:29:01.867460 27479 net.cpp:408] fc4_300 -> fc4_300
I0410 00:29:01.873090 27479 net.cpp:150] Setting up fc4_300
I0410 00:29:01.873107 27479 net.cpp:157] Top shape: 1024 300 (307200)
I0410 00:29:01.873111 27479 net.cpp:165] Memory required for data: 2186100736
I0410 00:29:01.873129 27479 layer_factory.hpp:77] Creating layer fc4_sTanH
I0410 00:29:01.873137 27479 net.cpp:100] Creating Layer fc4_sTanH
I0410 00:29:01.873143 27479 net.cpp:434] fc4_sTanH <- fc4_300
I0410 00:29:01.873152 27479 net.cpp:395] fc4_sTanH -> fc4_300 (in-place)
I0410 00:29:01.873352 27479 net.cpp:150] Setting up fc4_sTanH
I0410 00:29:01.873363 27479 net.cpp:157] Top shape: 1024 300 (307200)
I0410 00:29:01.873366 27479 net.cpp:165] Memory required for data: 2187329536
I0410 00:29:01.873370 27479 layer_factory.hpp:77] Creating layer drop4
I0410 00:29:01.873378 27479 net.cpp:100] Creating Layer drop4
I0410 00:29:01.873383 27479 net.cpp:434] drop4 <- fc4_300
I0410 00:29:01.873389 27479 net.cpp:395] drop4 -> fc4_300 (in-place)
I0410 00:29:01.873425 27479 net.cpp:150] Setting up drop4
I0410 00:29:01.873431 27479 net.cpp:157] Top shape: 1024 300 (307200)
I0410 00:29:01.873435 27479 net.cpp:165] Memory required for data: 2188558336
I0410 00:29:01.873438 27479 layer_factory.hpp:77] Creating layer fc5_67
I0410 00:29:01.873445 27479 net.cpp:100] Creating Layer fc5_67
I0410 00:29:01.873447 27479 net.cpp:434] fc5_67 <- fc4_300
I0410 00:29:01.873455 27479 net.cpp:408] fc5_67 -> fc5_classes
I0410 00:29:01.873708 27479 net.cpp:150] Setting up fc5_67
I0410 00:29:01.873719 27479 net.cpp:157] Top shape: 1024 67 (68608)
I0410 00:29:01.873723 27479 net.cpp:165] Memory required for data: 2188832768
I0410 00:29:01.873731 27479 layer_factory.hpp:77] Creating layer fc5_classes_fc5_67_0_split
I0410 00:29:01.873739 27479 net.cpp:100] Creating Layer fc5_classes_fc5_67_0_split
I0410 00:29:01.873742 27479 net.cpp:434] fc5_classes_fc5_67_0_split <- fc5_classes
I0410 00:29:01.873749 27479 net.cpp:408] fc5_classes_fc5_67_0_split -> fc5_classes_fc5_67_0_split_0
I0410 00:29:01.873759 27479 net.cpp:408] fc5_classes_fc5_67_0_split -> fc5_classes_fc5_67_0_split_1
I0410 00:29:01.873769 27479 net.cpp:408] fc5_classes_fc5_67_0_split -> fc5_classes_fc5_67_0_split_2
I0410 00:29:01.873821 27479 net.cpp:150] Setting up fc5_classes_fc5_67_0_split
I0410 00:29:01.873829 27479 net.cpp:157] Top shape: 1024 67 (68608)
I0410 00:29:01.873832 27479 net.cpp:157] Top shape: 1024 67 (68608)
I0410 00:29:01.873836 27479 net.cpp:157] Top shape: 1024 67 (68608)
I0410 00:29:01.873852 27479 net.cpp:165] Memory required for data: 2189656064
I0410 00:29:01.873855 27479 layer_factory.hpp:77] Creating layer loss
I0410 00:29:01.873867 27479 net.cpp:100] Creating Layer loss
I0410 00:29:01.873872 27479 net.cpp:434] loss <- fc5_classes_fc5_67_0_split_0
I0410 00:29:01.873877 27479 net.cpp:434] loss <- label_data_1_split_0
I0410 00:29:01.873881 27479 net.cpp:408] loss -> loss
…
