…
I0414 04:45:18.421118 24680 solver.cpp:93] Creating training net from train_net file: ./Prototxt/experiment_11/rtsd-r1/orig/trial_3/train.prototxt
I0414 04:45:18.421840 24680 net.cpp:58] Initializing net from parameters: 
state {
  phase: TRAIN
  level: 0
  stage: ""
}
layer {
  name: "data"
  type: "Data"
  top: "data"
  top: "label"
  include {
    phase: TRAIN
  }
  transform_param {
    scale: 0.0039215689
    mirror: false
    crop_size: 48
    mean_value: 122
    mean_value: 115
    mean_value: 129
  }
  data_param {
    source: "../local_data/lmdb/rtsd-r1/orig/train/lmdb"
    batch_size: 1024
    backend: LMDB
  }
}
layer {
  name: "conv1"
  type: "Convolution"
  bottom: "data"
  top: "conv1"
  convolution_param {
    num_output: 100
    pad: 0
    kernel_size: 7
    group: 1
    stride: 1
    weight_filler {
      type: "xavier"
    }
  }
}
layer {
  name: "conv1_prescale"
  type: "Scale"
  bottom: "conv1"
  top: "conv1"
  param {
    lr_mult: 0
    decay_mult: 0
  }
  scale_param {
    filler {
      value: 0.6666
    }
    bias_term: false
  }
}
layer {
  name: "conv1_sTanH"
  type: "TanH"
  bottom: "conv1"
  top: "conv1"
}
layer {
  name: "conv1_postscale"
  type: "Scale"
  bottom: "conv1"
  top: "conv1"
  param {
    lr_mult: 0
    decay_mult: 0
  }
  scale_param {
    filler {
      value: 1.7159
    }
    bias_term: false
  }
}
layer {
  name: "pool1"
  type: "Pooling"
  bottom: "conv1"
  top: "pool1"
  pooling_param {
    pool: MAX
    kernel_size: 2
    stride: 2
  }
}
layer {
  name: "conv2"
  type: "Convolution"
  bottom: "pool1"
  top: "conv2"
  convolution_param {
    num_output: 150
    pad: 0
    kernel_size: 4
    group: 1
    stride: 1
    weight_filler {
      type: "xavier"
    }
  }
}
layer {
  name: "conv2_prescale"
  type: "Scale"
  bottom: "conv2"
  top: "conv2"
  param {
    lr_mult: 0
    decay_mult: 0
  }
  scale_param {
    filler {
      value: 0.6666
    }
    bias_term: false
  }
}
layer {
  name: "conv2_sTanH"
  type: "TanH"
  bottom: "conv2"
  top: "conv2"
}
layer {
  name: "conv2_postscale"
  type: "Scale"
  bottom: "conv2"
  top: "conv2"
  param {
    lr_mult: 0
    decay_mult: 0
  }
  scale_param {
    filler {
      value: 1.7159
    }
    bias_term: false
  }
}
layer {
  name: "pool2"
  type: "Pooling"
  bottom: "conv2"
  top: "pool2"
  pooling_param {
    pool: MAX
    kernel_size: 2
    stride: 2
  }
}
layer {
  name: "conv3"
  type: "Convolution"
  bottom: "pool2"
  top: "conv3"
  convolution_param {
    num_output: 250
    pad: 0
    kernel_size: 4
    group: 1
    stride: 1
    weight_filler {
      type: "xavier"
    }
  }
}
layer {
  name: "conv3_prescale"
  type: "Scale"
  bottom: "conv3"
  top: "conv3"
  param {
    lr_mult: 0
    decay_mult: 0
  }
  scale_param {
    filler {
      value: 0.6666
    }
    bias_term: false
  }
}
layer {
  name: "conv3_sTanH"
  type: "TanH"
  bottom: "conv3"
  top: "conv3"
}
layer {
  name: "conv3_postscale"
  type: "Scale"
  bottom: "conv3"
  top: "conv3"
  param {
    lr_mult: 0
    decay_mult: 0
  }
  scale_param {
    filler {
      value: 1.7159
    }
    bias_term: false
  }
}
layer {
  name: "pool3"
  type: "Pooling"
  bottom: "conv3"
  top: "pool3"
  pooling_param {
    pool: MAX
    kernel_size: 2
    stride: 2
  }
}
layer {
  name: "fc4_300"
  type: "InnerProduct"
  bottom: "pool3"
  top: "fc4_300"
  inner_product_param {
    num_output: 300
    weight_filler {
      type: "xavier"
    }
  }
}
layer {
  name: "fc4_prescale"
  type: "Scale"
  bottom: "fc4_300"
  top: "fc4_300"
  param {
    lr_mult: 0
    decay_mult: 0
  }
  scale_param {
    filler {
      value: 0.6666
    }
    bias_term: false
  }
}
layer {
  name: "fc4_sTanH"
  type: "TanH"
  bottom: "fc4_300"
  top: "fc4_300"
}
layer {
  name: "fc4_postscale"
  type: "Scale"
  bottom: "fc4_300"
  top: "fc4_300"
  param {
    lr_mult: 0
    decay_mult: 0
  }
  scale_param {
    filler {
      value: 1.7159
    }
    bias_term: false
  }
}
layer {
  name: "fc5_67"
  type: "InnerProduct"
  bottom: "fc4_300"
  top: "fc5_classes"
  inner_product_param {
    num_output: 67
    weight_filler {
      type: "xavier"
    }
  }
}
layer {
  name: "softmax"
  type: "Softmax"
  bottom: "fc5_classes"
  top: "softmax"
}
layer {
  name: "loss"
  type: "MultinomialLogisticLoss"
  bottom: "softmax"
  bottom: "label"
  top: "loss"
}
layer {
  name: "accuracy_1"
  type: "Accuracy"
  bottom: "fc5_classes"
  bottom: "label"
  top: "accuracy_1"
  accuracy_param {
    top_k: 1
  }
}
layer {
  name: "accuracy_5"
  type: "Accuracy"
  bottom: "fc5_classes"
  bottom: "label"
  top: "accuracy_5"
  accuracy_param {
    top_k: 5
  }
}
layer {
  name: "silence"
  type: "Silence"
  bottom: "accuracy_1"
  bottom: "accuracy_5"
}
I0414 04:45:18.422065 24680 layer_factory.hpp:77] Creating layer data
I0414 04:45:18.423684 24680 net.cpp:100] Creating Layer data
I0414 04:45:18.423703 24680 net.cpp:408] data -> data
I0414 04:45:18.423732 24680 net.cpp:408] data -> label
I0414 04:45:18.425284 24796 db_lmdb.cpp:35] Opened lmdb ../local_data/lmdb/rtsd-r1/orig/train/lmdb
I0414 04:45:18.448339 24680 data_layer.cpp:41] output data size: 1024,3,48,48
I0414 04:45:18.526074 24680 net.cpp:150] Setting up data
I0414 04:45:18.526103 24680 net.cpp:157] Top shape: 1024 3 48 48 (7077888)
I0414 04:45:18.526108 24680 net.cpp:157] Top shape: 1024 (1024)
I0414 04:45:18.526110 24680 net.cpp:165] Memory required for data: 28315648
I0414 04:45:18.526121 24680 layer_factory.hpp:77] Creating layer label_data_1_split
I0414 04:45:18.526135 24680 net.cpp:100] Creating Layer label_data_1_split
I0414 04:45:18.526142 24680 net.cpp:434] label_data_1_split <- label
I0414 04:45:18.526155 24680 net.cpp:408] label_data_1_split -> label_data_1_split_0
I0414 04:45:18.526167 24680 net.cpp:408] label_data_1_split -> label_data_1_split_1
I0414 04:45:18.526175 24680 net.cpp:408] label_data_1_split -> label_data_1_split_2
I0414 04:45:18.526279 24680 net.cpp:150] Setting up label_data_1_split
I0414 04:45:18.526288 24680 net.cpp:157] Top shape: 1024 (1024)
I0414 04:45:18.526293 24680 net.cpp:157] Top shape: 1024 (1024)
I0414 04:45:18.526298 24680 net.cpp:157] Top shape: 1024 (1024)
I0414 04:45:18.526299 24680 net.cpp:165] Memory required for data: 28327936
I0414 04:45:18.526304 24680 layer_factory.hpp:77] Creating layer conv1
I0414 04:45:18.526319 24680 net.cpp:100] Creating Layer conv1
I0414 04:45:18.526324 24680 net.cpp:434] conv1 <- data
I0414 04:45:18.526329 24680 net.cpp:408] conv1 -> conv1
I0414 04:45:18.931656 24680 net.cpp:150] Setting up conv1
I0414 04:45:18.931680 24680 net.cpp:157] Top shape: 1024 100 42 42 (180633600)
I0414 04:45:18.931684 24680 net.cpp:165] Memory required for data: 750862336
I0414 04:45:18.931706 24680 layer_factory.hpp:77] Creating layer conv1_prescale
I0414 04:45:18.931721 24680 net.cpp:100] Creating Layer conv1_prescale
I0414 04:45:18.931727 24680 net.cpp:434] conv1_prescale <- conv1
I0414 04:45:18.931735 24680 net.cpp:395] conv1_prescale -> conv1 (in-place)
I0414 04:45:18.931852 24680 net.cpp:150] Setting up conv1_prescale
I0414 04:45:18.931862 24680 net.cpp:157] Top shape: 1024 100 42 42 (180633600)
I0414 04:45:18.931864 24680 net.cpp:165] Memory required for data: 1473396736
I0414 04:45:18.931876 24680 layer_factory.hpp:77] Creating layer conv1_sTanH
I0414 04:45:18.931898 24680 net.cpp:100] Creating Layer conv1_sTanH
I0414 04:45:18.931902 24680 net.cpp:434] conv1_sTanH <- conv1
I0414 04:45:18.931908 24680 net.cpp:395] conv1_sTanH -> conv1 (in-place)
I0414 04:45:18.932117 24680 net.cpp:150] Setting up conv1_sTanH
I0414 04:45:18.932129 24680 net.cpp:157] Top shape: 1024 100 42 42 (180633600)
I0414 04:45:18.932152 24680 net.cpp:165] Memory required for data: 2195931136
I0414 04:45:18.932157 24680 layer_factory.hpp:77] Creating layer conv1_postscale
I0414 04:45:18.932164 24680 net.cpp:100] Creating Layer conv1_postscale
I0414 04:45:18.932168 24680 net.cpp:434] conv1_postscale <- conv1
I0414 04:45:18.932173 24680 net.cpp:395] conv1_postscale -> conv1 (in-place)
I0414 04:45:18.932276 24680 net.cpp:150] Setting up conv1_postscale
I0414 04:45:18.932286 24680 net.cpp:157] Top shape: 1024 100 42 42 (180633600)
I0414 04:45:18.932289 24680 net.cpp:165] Memory required for data: 2918465536
I0414 04:45:18.932294 24680 layer_factory.hpp:77] Creating layer pool1
I0414 04:45:18.932302 24680 net.cpp:100] Creating Layer pool1
I0414 04:45:18.932306 24680 net.cpp:434] pool1 <- conv1
I0414 04:45:18.932310 24680 net.cpp:408] pool1 -> pool1
I0414 04:45:18.932365 24680 net.cpp:150] Setting up pool1
I0414 04:45:18.932374 24680 net.cpp:157] Top shape: 1024 100 21 21 (45158400)
I0414 04:45:18.932376 24680 net.cpp:165] Memory required for data: 3099099136
I0414 04:45:18.932380 24680 layer_factory.hpp:77] Creating layer conv2
I0414 04:45:18.932391 24680 net.cpp:100] Creating Layer conv2
I0414 04:45:18.932396 24680 net.cpp:434] conv2 <- pool1
I0414 04:45:18.932404 24680 net.cpp:408] conv2 -> conv2
I0414 04:45:18.943542 24680 net.cpp:150] Setting up conv2
I0414 04:45:18.943564 24680 net.cpp:157] Top shape: 1024 150 18 18 (49766400)
I0414 04:45:18.943568 24680 net.cpp:165] Memory required for data: 3298164736
I0414 04:45:18.943581 24680 layer_factory.hpp:77] Creating layer conv2_prescale
I0414 04:45:18.943593 24680 net.cpp:100] Creating Layer conv2_prescale
I0414 04:45:18.943598 24680 net.cpp:434] conv2_prescale <- conv2
I0414 04:45:18.943604 24680 net.cpp:395] conv2_prescale -> conv2 (in-place)
I0414 04:45:18.943728 24680 net.cpp:150] Setting up conv2_prescale
I0414 04:45:18.943738 24680 net.cpp:157] Top shape: 1024 150 18 18 (49766400)
I0414 04:45:18.943742 24680 net.cpp:165] Memory required for data: 3497230336
I0414 04:45:18.943747 24680 layer_factory.hpp:77] Creating layer conv2_sTanH
I0414 04:45:18.943753 24680 net.cpp:100] Creating Layer conv2_sTanH
I0414 04:45:18.943755 24680 net.cpp:434] conv2_sTanH <- conv2
I0414 04:45:18.943761 24680 net.cpp:395] conv2_sTanH -> conv2 (in-place)
I0414 04:45:18.945484 24680 net.cpp:150] Setting up conv2_sTanH
I0414 04:45:18.945500 24680 net.cpp:157] Top shape: 1024 150 18 18 (49766400)
I0414 04:45:18.945504 24680 net.cpp:165] Memory required for data: 3696295936
I0414 04:45:18.945508 24680 layer_factory.hpp:77] Creating layer conv2_postscale
I0414 04:45:18.945516 24680 net.cpp:100] Creating Layer conv2_postscale
I0414 04:45:18.945520 24680 net.cpp:434] conv2_postscale <- conv2
I0414 04:45:18.945525 24680 net.cpp:395] conv2_postscale -> conv2 (in-place)
I0414 04:45:18.945634 24680 net.cpp:150] Setting up conv2_postscale
I0414 04:45:18.945644 24680 net.cpp:157] Top shape: 1024 150 18 18 (49766400)
I0414 04:45:18.945647 24680 net.cpp:165] Memory required for data: 3895361536
I0414 04:45:18.945652 24680 layer_factory.hpp:77] Creating layer pool2
I0414 04:45:18.945658 24680 net.cpp:100] Creating Layer pool2
I0414 04:45:18.945662 24680 net.cpp:434] pool2 <- conv2
I0414 04:45:18.945668 24680 net.cpp:408] pool2 -> pool2
I0414 04:45:18.945714 24680 net.cpp:150] Setting up pool2
I0414 04:45:18.945722 24680 net.cpp:157] Top shape: 1024 150 9 9 (12441600)
I0414 04:45:18.945725 24680 net.cpp:165] Memory required for data: 3945127936
I0414 04:45:18.945729 24680 layer_factory.hpp:77] Creating layer conv3
I0414 04:45:18.945739 24680 net.cpp:100] Creating Layer conv3
I0414 04:45:18.945741 24680 net.cpp:434] conv3 <- pool2
I0414 04:45:18.945746 24680 net.cpp:408] conv3 -> conv3
I0414 04:45:18.955148 24680 net.cpp:150] Setting up conv3
I0414 04:45:18.955171 24680 net.cpp:157] Top shape: 1024 250 6 6 (9216000)
I0414 04:45:18.955175 24680 net.cpp:165] Memory required for data: 3981991936
I0414 04:45:18.955189 24680 layer_factory.hpp:77] Creating layer conv3_prescale
I0414 04:45:18.955219 24680 net.cpp:100] Creating Layer conv3_prescale
I0414 04:45:18.955224 24680 net.cpp:434] conv3_prescale <- conv3
I0414 04:45:18.955232 24680 net.cpp:395] conv3_prescale -> conv3 (in-place)
I0414 04:45:18.955333 24680 net.cpp:150] Setting up conv3_prescale
I0414 04:45:18.955343 24680 net.cpp:157] Top shape: 1024 250 6 6 (9216000)
I0414 04:45:18.955346 24680 net.cpp:165] Memory required for data: 4018855936
I0414 04:45:18.955351 24680 layer_factory.hpp:77] Creating layer conv3_sTanH
I0414 04:45:18.955358 24680 net.cpp:100] Creating Layer conv3_sTanH
I0414 04:45:18.955361 24680 net.cpp:434] conv3_sTanH <- conv3
I0414 04:45:18.955365 24680 net.cpp:395] conv3_sTanH -> conv3 (in-place)
I0414 04:45:18.967214 24680 net.cpp:150] Setting up conv3_sTanH
I0414 04:45:18.967234 24680 net.cpp:157] Top shape: 1024 250 6 6 (9216000)
I0414 04:45:18.967238 24680 net.cpp:165] Memory required for data: 4055719936
I0414 04:45:18.967242 24680 layer_factory.hpp:77] Creating layer conv3_postscale
I0414 04:45:18.967252 24680 net.cpp:100] Creating Layer conv3_postscale
I0414 04:45:18.967255 24680 net.cpp:434] conv3_postscale <- conv3
I0414 04:45:18.967264 24680 net.cpp:395] conv3_postscale -> conv3 (in-place)
I0414 04:45:18.967376 24680 net.cpp:150] Setting up conv3_postscale
I0414 04:45:18.967386 24680 net.cpp:157] Top shape: 1024 250 6 6 (9216000)
I0414 04:45:18.967389 24680 net.cpp:165] Memory required for data: 4092583936
I0414 04:45:18.967394 24680 layer_factory.hpp:77] Creating layer pool3
I0414 04:45:18.967406 24680 net.cpp:100] Creating Layer pool3
I0414 04:45:18.967411 24680 net.cpp:434] pool3 <- conv3
I0414 04:45:18.967416 24680 net.cpp:408] pool3 -> pool3
I0414 04:45:18.967458 24680 net.cpp:150] Setting up pool3
I0414 04:45:18.967465 24680 net.cpp:157] Top shape: 1024 250 3 3 (2304000)
I0414 04:45:18.967468 24680 net.cpp:165] Memory required for data: 4101799936
I0414 04:45:18.967470 24680 layer_factory.hpp:77] Creating layer fc4_300
I0414 04:45:18.967478 24680 net.cpp:100] Creating Layer fc4_300
I0414 04:45:18.967481 24680 net.cpp:434] fc4_300 <- pool3
I0414 04:45:18.967488 24680 net.cpp:408] fc4_300 -> fc4_300
I0414 04:45:18.975469 24680 net.cpp:150] Setting up fc4_300
I0414 04:45:18.975486 24680 net.cpp:157] Top shape: 1024 300 (307200)
I0414 04:45:18.975489 24680 net.cpp:165] Memory required for data: 4103028736
I0414 04:45:18.975497 24680 layer_factory.hpp:77] Creating layer fc4_prescale
I0414 04:45:18.975505 24680 net.cpp:100] Creating Layer fc4_prescale
I0414 04:45:18.975509 24680 net.cpp:434] fc4_prescale <- fc4_300
I0414 04:45:18.975514 24680 net.cpp:395] fc4_prescale -> fc4_300 (in-place)
I0414 04:45:18.975606 24680 net.cpp:150] Setting up fc4_prescale
I0414 04:45:18.975615 24680 net.cpp:157] Top shape: 1024 300 (307200)
I0414 04:45:18.975618 24680 net.cpp:165] Memory required for data: 4104257536
I0414 04:45:18.975622 24680 layer_factory.hpp:77] Creating layer fc4_sTanH
I0414 04:45:18.975628 24680 net.cpp:100] Creating Layer fc4_sTanH
I0414 04:45:18.975631 24680 net.cpp:434] fc4_sTanH <- fc4_300
I0414 04:45:18.975636 24680 net.cpp:395] fc4_sTanH -> fc4_300 (in-place)
I0414 04:45:18.975834 24680 net.cpp:150] Setting up fc4_sTanH
I0414 04:45:18.975847 24680 net.cpp:157] Top shape: 1024 300 (307200)
I0414 04:45:18.975849 24680 net.cpp:165] Memory required for data: 4105486336
I0414 04:45:18.975853 24680 layer_factory.hpp:77] Creating layer fc4_postscale
I0414 04:45:18.975860 24680 net.cpp:100] Creating Layer fc4_postscale
I0414 04:45:18.975863 24680 net.cpp:434] fc4_postscale <- fc4_300
I0414 04:45:18.975872 24680 net.cpp:395] fc4_postscale -> fc4_300 (in-place)
I0414 04:45:18.975978 24680 net.cpp:150] Setting up fc4_postscale
I0414 04:45:18.975988 24680 net.cpp:157] Top shape: 1024 300 (307200)
I0414 04:45:18.975991 24680 net.cpp:165] Memory required for data: 4106715136
I0414 04:45:18.975996 24680 layer_factory.hpp:77] Creating layer fc5_67
I0414 04:45:18.976003 24680 net.cpp:100] Creating Layer fc5_67
I0414 04:45:18.976006 24680 net.cpp:434] fc5_67 <- fc4_300
I0414 04:45:18.976011 24680 net.cpp:408] fc5_67 -> fc5_classes
I0414 04:45:18.978408 24680 net.cpp:150] Setting up fc5_67
I0414 04:45:18.978423 24680 net.cpp:157] Top shape: 1024 67 (68608)
I0414 04:45:18.978426 24680 net.cpp:165] Memory required for data: 4106989568
I0414 04:45:18.978440 24680 layer_factory.hpp:77] Creating layer fc5_classes_fc5_67_0_split
I0414 04:45:18.978448 24680 net.cpp:100] Creating Layer fc5_classes_fc5_67_0_split
I0414 04:45:18.978452 24680 net.cpp:434] fc5_classes_fc5_67_0_split <- fc5_classes
I0414 04:45:18.978457 24680 net.cpp:408] fc5_classes_fc5_67_0_split -> fc5_classes_fc5_67_0_split_0
I0414 04:45:18.978464 24680 net.cpp:408] fc5_classes_fc5_67_0_split -> fc5_classes_fc5_67_0_split_1
I0414 04:45:18.978471 24680 net.cpp:408] fc5_classes_fc5_67_0_split -> fc5_classes_fc5_67_0_split_2
I0414 04:45:18.978524 24680 net.cpp:150] Setting up fc5_classes_fc5_67_0_split
I0414 04:45:18.978531 24680 net.cpp:157] Top shape: 1024 67 (68608)
I0414 04:45:18.978535 24680 net.cpp:157] Top shape: 1024 67 (68608)
I0414 04:45:18.978538 24680 net.cpp:157] Top shape: 1024 67 (68608)
I0414 04:45:18.978540 24680 net.cpp:165] Memory required for data: 4107812864
I0414 04:45:18.978543 24680 layer_factory.hpp:77] Creating layer softmax
I0414 04:45:18.978551 24680 net.cpp:100] Creating Layer softmax
I0414 04:45:18.978555 24680 net.cpp:434] softmax <- fc5_classes_fc5_67_0_split_0
I0414 04:45:18.978560 24680 net.cpp:408] softmax -> softmax
I0414 04:45:18.978818 24680 net.cpp:150] Setting up softmax
I0414 04:45:18.978830 24680 net.cpp:157] Top shape: 1024 67 (68608)
I0414 04:45:18.978833 24680 net.cpp:165] Memory required for data: 4108087296
I0414 04:45:18.978837 24680 layer_factory.hpp:77] Creating layer loss
I0414 04:45:18.978842 24680 net.cpp:100] Creating Layer loss
I0414 04:45:18.978847 24680 net.cpp:434] loss <- softmax
I0414 04:45:18.978850 24680 net.cpp:434] loss <- label_data_1_split_0
I0414 04:45:18.978857 24680 net.cpp:408] loss -> loss
…
