…
I0417 17:38:10.718854 24735 solver.cpp:93] Creating training net from train_net file: ./Prototxt/experiment_11/rtsd-r1/orig/trial_3/train.prototxt
I0417 17:38:10.719477 24735 net.cpp:58] Initializing net from parameters: 
state {
  phase: TRAIN
  level: 0
  stage: ""
}
layer {
  name: "data"
  type: "Data"
  top: "data"
  top: "label"
  include {
    phase: TRAIN
  }
  transform_param {
    scale: 0.0039215689
    mirror: false
    crop_size: 48
    mean_value: 122
    mean_value: 115
    mean_value: 129
  }
  data_param {
    source: "../local_data/lmdb/rtsd-r1/orig/train/lmdb"
    batch_size: 1024
    backend: LMDB
  }
}
layer {
  name: "conv1"
  type: "Convolution"
  bottom: "data"
  top: "conv1"
  convolution_param {
    num_output: 100
    pad: 0
    kernel_size: 7
    group: 1
    stride: 1
    weight_filler {
      type: "xavier"
    }
  }
}
layer {
  name: "conv1_prescale"
  type: "Scale"
  bottom: "conv1"
  top: "conv1"
  param {
    lr_mult: 0
    decay_mult: 0
  }
  scale_param {
    filler {
      value: 0.6666
    }
    bias_term: false
  }
}
layer {
  name: "conv1_sTanH"
  type: "TanH"
  bottom: "conv1"
  top: "conv1"
}
layer {
  name: "conv1_postscale"
  type: "Scale"
  bottom: "conv1"
  top: "conv1"
  param {
    lr_mult: 0
    decay_mult: 0
  }
  scale_param {
    filler {
      value: 1.7159
    }
    bias_term: false
  }
}
layer {
  name: "pool1"
  type: "Pooling"
  bottom: "conv1"
  top: "pool1"
  pooling_param {
    pool: MAX
    kernel_size: 2
    stride: 2
  }
}
layer {
  name: "conv2"
  type: "Convolution"
  bottom: "pool1"
  top: "conv2"
  convolution_param {
    num_output: 150
    pad: 0
    kernel_size: 4
    group: 1
    stride: 1
    weight_filler {
      type: "xavier"
    }
  }
}
layer {
  name: "conv2_prescale"
  type: "Scale"
  bottom: "conv2"
  top: "conv2"
  param {
    lr_mult: 0
    decay_mult: 0
  }
  scale_param {
    filler {
      value: 0.6666
    }
    bias_term: false
  }
}
layer {
  name: "conv2_sTanH"
  type: "TanH"
  bottom: "conv2"
  top: "conv2"
}
layer {
  name: "conv2_postscale"
  type: "Scale"
  bottom: "conv2"
  top: "conv2"
  param {
    lr_mult: 0
    decay_mult: 0
  }
  scale_param {
    filler {
      value: 1.7159
    }
    bias_term: false
  }
}
layer {
  name: "pool2"
  type: "Pooling"
  bottom: "conv2"
  top: "pool2"
  pooling_param {
    pool: MAX
    kernel_size: 2
    stride: 2
  }
}
layer {
  name: "conv3"
  type: "Convolution"
  bottom: "pool2"
  top: "conv3"
  convolution_param {
    num_output: 250
    pad: 0
    kernel_size: 4
    group: 1
    stride: 1
    weight_filler {
      type: "xavier"
    }
  }
}
layer {
  name: "conv3_prescale"
  type: "Scale"
  bottom: "conv3"
  top: "conv3"
  param {
    lr_mult: 0
    decay_mult: 0
  }
  scale_param {
    filler {
      value: 0.6666
    }
    bias_term: false
  }
}
layer {
  name: "conv3_sTanH"
  type: "TanH"
  bottom: "conv3"
  top: "conv3"
}
layer {
  name: "conv3_postscale"
  type: "Scale"
  bottom: "conv3"
  top: "conv3"
  param {
    lr_mult: 0
    decay_mult: 0
  }
  scale_param {
    filler {
      value: 1.7159
    }
    bias_term: false
  }
}
layer {
  name: "pool3"
  type: "Pooling"
  bottom: "conv3"
  top: "pool3"
  pooling_param {
    pool: MAX
    kernel_size: 2
    stride: 2
  }
}
layer {
  name: "fc4_300"
  type: "InnerProduct"
  bottom: "pool3"
  top: "fc4_300"
  inner_product_param {
    num_output: 300
    weight_filler {
      type: "xavier"
    }
  }
}
layer {
  name: "fc4_prescale"
  type: "Scale"
  bottom: "fc4_300"
  top: "fc4_300"
  param {
    lr_mult: 0
    decay_mult: 0
  }
  scale_param {
    filler {
      value: 0.6666
    }
    bias_term: false
  }
}
layer {
  name: "fc4_sTanH"
  type: "TanH"
  bottom: "fc4_300"
  top: "fc4_300"
}
layer {
  name: "fc4_postscale"
  type: "Scale"
  bottom: "fc4_300"
  top: "fc4_300"
  param {
    lr_mult: 0
    decay_mult: 0
  }
  scale_param {
    filler {
      value: 1.7159
    }
    bias_term: false
  }
}
layer {
  name: "fc5_67"
  type: "InnerProduct"
  bottom: "fc4_300"
  top: "fc5_classes"
  inner_product_param {
    num_output: 67
    weight_filler {
      type: "xavier"
    }
  }
}
layer {
  name: "softmax"
  type: "Softmax"
  bottom: "fc5_classes"
  top: "softmax"
}
layer {
  name: "loss"
  type: "MultinomialLogisticLoss"
  bottom: "softmax"
  bottom: "label"
  top: "loss"
}
layer {
  name: "accuracy_1"
  type: "Accuracy"
  bottom: "fc5_classes"
  bottom: "label"
  top: "accuracy_1"
  accuracy_param {
    top_k: 1
  }
}
layer {
  name: "accuracy_5"
  type: "Accuracy"
  bottom: "fc5_classes"
  bottom: "label"
  top: "accuracy_5"
  accuracy_param {
    top_k: 5
  }
}
layer {
  name: "silence"
  type: "Silence"
  bottom: "accuracy_1"
  bottom: "accuracy_5"
}
I0417 17:38:10.719662 24735 layer_factory.hpp:77] Creating layer data
I0417 17:38:10.721302 24735 net.cpp:100] Creating Layer data
I0417 17:38:10.721321 24735 net.cpp:408] data -> data
I0417 17:38:10.721349 24735 net.cpp:408] data -> label
I0417 17:38:10.727242 24841 db_lmdb.cpp:35] Opened lmdb ../local_data/lmdb/rtsd-r1/orig/train/lmdb
I0417 17:38:10.753087 24735 data_layer.cpp:41] output data size: 1024,3,48,48
I0417 17:38:10.809875 24735 net.cpp:150] Setting up data
I0417 17:38:10.809902 24735 net.cpp:157] Top shape: 1024 3 48 48 (7077888)
I0417 17:38:10.809908 24735 net.cpp:157] Top shape: 1024 (1024)
I0417 17:38:10.809911 24735 net.cpp:165] Memory required for data: 28315648
I0417 17:38:10.809922 24735 layer_factory.hpp:77] Creating layer label_data_1_split
I0417 17:38:10.809936 24735 net.cpp:100] Creating Layer label_data_1_split
I0417 17:38:10.809943 24735 net.cpp:434] label_data_1_split <- label
I0417 17:38:10.809959 24735 net.cpp:408] label_data_1_split -> label_data_1_split_0
I0417 17:38:10.809973 24735 net.cpp:408] label_data_1_split -> label_data_1_split_1
I0417 17:38:10.809979 24735 net.cpp:408] label_data_1_split -> label_data_1_split_2
I0417 17:38:10.810106 24735 net.cpp:150] Setting up label_data_1_split
I0417 17:38:10.810114 24735 net.cpp:157] Top shape: 1024 (1024)
I0417 17:38:10.810118 24735 net.cpp:157] Top shape: 1024 (1024)
I0417 17:38:10.810122 24735 net.cpp:157] Top shape: 1024 (1024)
I0417 17:38:10.810124 24735 net.cpp:165] Memory required for data: 28327936
I0417 17:38:10.810128 24735 layer_factory.hpp:77] Creating layer conv1
I0417 17:38:10.810147 24735 net.cpp:100] Creating Layer conv1
I0417 17:38:10.810151 24735 net.cpp:434] conv1 <- data
I0417 17:38:10.810158 24735 net.cpp:408] conv1 -> conv1
I0417 17:38:11.191411 24735 net.cpp:150] Setting up conv1
I0417 17:38:11.191442 24735 net.cpp:157] Top shape: 1024 100 42 42 (180633600)
I0417 17:38:11.191447 24735 net.cpp:165] Memory required for data: 750862336
I0417 17:38:11.191473 24735 layer_factory.hpp:77] Creating layer conv1_prescale
I0417 17:38:11.191488 24735 net.cpp:100] Creating Layer conv1_prescale
I0417 17:38:11.191498 24735 net.cpp:434] conv1_prescale <- conv1
I0417 17:38:11.191504 24735 net.cpp:395] conv1_prescale -> conv1 (in-place)
I0417 17:38:11.191640 24735 net.cpp:150] Setting up conv1_prescale
I0417 17:38:11.191650 24735 net.cpp:157] Top shape: 1024 100 42 42 (180633600)
I0417 17:38:11.191654 24735 net.cpp:165] Memory required for data: 1473396736
I0417 17:38:11.191663 24735 layer_factory.hpp:77] Creating layer conv1_sTanH
I0417 17:38:11.191673 24735 net.cpp:100] Creating Layer conv1_sTanH
I0417 17:38:11.191679 24735 net.cpp:434] conv1_sTanH <- conv1
I0417 17:38:11.191684 24735 net.cpp:395] conv1_sTanH -> conv1 (in-place)
I0417 17:38:11.191936 24735 net.cpp:150] Setting up conv1_sTanH
I0417 17:38:11.191951 24735 net.cpp:157] Top shape: 1024 100 42 42 (180633600)
I0417 17:38:11.191978 24735 net.cpp:165] Memory required for data: 2195931136
I0417 17:38:11.191983 24735 layer_factory.hpp:77] Creating layer conv1_postscale
I0417 17:38:11.191992 24735 net.cpp:100] Creating Layer conv1_postscale
I0417 17:38:11.191998 24735 net.cpp:434] conv1_postscale <- conv1
I0417 17:38:11.192005 24735 net.cpp:395] conv1_postscale -> conv1 (in-place)
I0417 17:38:11.192127 24735 net.cpp:150] Setting up conv1_postscale
I0417 17:38:11.192137 24735 net.cpp:157] Top shape: 1024 100 42 42 (180633600)
I0417 17:38:11.192142 24735 net.cpp:165] Memory required for data: 2918465536
I0417 17:38:11.192147 24735 layer_factory.hpp:77] Creating layer pool1
I0417 17:38:11.192157 24735 net.cpp:100] Creating Layer pool1
I0417 17:38:11.192162 24735 net.cpp:434] pool1 <- conv1
I0417 17:38:11.192169 24735 net.cpp:408] pool1 -> pool1
I0417 17:38:11.192226 24735 net.cpp:150] Setting up pool1
I0417 17:38:11.192236 24735 net.cpp:157] Top shape: 1024 100 21 21 (45158400)
I0417 17:38:11.192241 24735 net.cpp:165] Memory required for data: 3099099136
I0417 17:38:11.192245 24735 layer_factory.hpp:77] Creating layer conv2
I0417 17:38:11.192256 24735 net.cpp:100] Creating Layer conv2
I0417 17:38:11.192261 24735 net.cpp:434] conv2 <- pool1
I0417 17:38:11.192268 24735 net.cpp:408] conv2 -> conv2
I0417 17:38:11.205904 24735 net.cpp:150] Setting up conv2
I0417 17:38:11.205926 24735 net.cpp:157] Top shape: 1024 150 18 18 (49766400)
I0417 17:38:11.205932 24735 net.cpp:165] Memory required for data: 3298164736
I0417 17:38:11.205945 24735 layer_factory.hpp:77] Creating layer conv2_prescale
I0417 17:38:11.205960 24735 net.cpp:100] Creating Layer conv2_prescale
I0417 17:38:11.205965 24735 net.cpp:434] conv2_prescale <- conv2
I0417 17:38:11.205972 24735 net.cpp:395] conv2_prescale -> conv2 (in-place)
I0417 17:38:11.206100 24735 net.cpp:150] Setting up conv2_prescale
I0417 17:38:11.206110 24735 net.cpp:157] Top shape: 1024 150 18 18 (49766400)
I0417 17:38:11.206116 24735 net.cpp:165] Memory required for data: 3497230336
I0417 17:38:11.206123 24735 layer_factory.hpp:77] Creating layer conv2_sTanH
I0417 17:38:11.206131 24735 net.cpp:100] Creating Layer conv2_sTanH
I0417 17:38:11.206137 24735 net.cpp:434] conv2_sTanH <- conv2
I0417 17:38:11.206143 24735 net.cpp:395] conv2_sTanH -> conv2 (in-place)
I0417 17:38:11.210013 24735 net.cpp:150] Setting up conv2_sTanH
I0417 17:38:11.210036 24735 net.cpp:157] Top shape: 1024 150 18 18 (49766400)
I0417 17:38:11.210041 24735 net.cpp:165] Memory required for data: 3696295936
I0417 17:38:11.210047 24735 layer_factory.hpp:77] Creating layer conv2_postscale
I0417 17:38:11.210055 24735 net.cpp:100] Creating Layer conv2_postscale
I0417 17:38:11.210062 24735 net.cpp:434] conv2_postscale <- conv2
I0417 17:38:11.210068 24735 net.cpp:395] conv2_postscale -> conv2 (in-place)
I0417 17:38:11.210187 24735 net.cpp:150] Setting up conv2_postscale
I0417 17:38:11.210197 24735 net.cpp:157] Top shape: 1024 150 18 18 (49766400)
I0417 17:38:11.210201 24735 net.cpp:165] Memory required for data: 3895361536
I0417 17:38:11.210207 24735 layer_factory.hpp:77] Creating layer pool2
I0417 17:38:11.210216 24735 net.cpp:100] Creating Layer pool2
I0417 17:38:11.210222 24735 net.cpp:434] pool2 <- conv2
I0417 17:38:11.210227 24735 net.cpp:408] pool2 -> pool2
I0417 17:38:11.210278 24735 net.cpp:150] Setting up pool2
I0417 17:38:11.210289 24735 net.cpp:157] Top shape: 1024 150 9 9 (12441600)
I0417 17:38:11.210294 24735 net.cpp:165] Memory required for data: 3945127936
I0417 17:38:11.210296 24735 layer_factory.hpp:77] Creating layer conv3
I0417 17:38:11.210306 24735 net.cpp:100] Creating Layer conv3
I0417 17:38:11.210312 24735 net.cpp:434] conv3 <- pool2
I0417 17:38:11.210319 24735 net.cpp:408] conv3 -> conv3
I0417 17:38:11.217684 24735 net.cpp:150] Setting up conv3
I0417 17:38:11.217705 24735 net.cpp:157] Top shape: 1024 250 6 6 (9216000)
I0417 17:38:11.217710 24735 net.cpp:165] Memory required for data: 3981991936
I0417 17:38:11.217722 24735 layer_factory.hpp:77] Creating layer conv3_prescale
I0417 17:38:11.217751 24735 net.cpp:100] Creating Layer conv3_prescale
I0417 17:38:11.217757 24735 net.cpp:434] conv3_prescale <- conv3
I0417 17:38:11.217764 24735 net.cpp:395] conv3_prescale -> conv3 (in-place)
I0417 17:38:11.217876 24735 net.cpp:150] Setting up conv3_prescale
I0417 17:38:11.217885 24735 net.cpp:157] Top shape: 1024 250 6 6 (9216000)
I0417 17:38:11.217890 24735 net.cpp:165] Memory required for data: 4018855936
I0417 17:38:11.217895 24735 layer_factory.hpp:77] Creating layer conv3_sTanH
I0417 17:38:11.217903 24735 net.cpp:100] Creating Layer conv3_sTanH
I0417 17:38:11.217907 24735 net.cpp:434] conv3_sTanH <- conv3
I0417 17:38:11.217913 24735 net.cpp:395] conv3_sTanH -> conv3 (in-place)
I0417 17:38:11.219758 24735 net.cpp:150] Setting up conv3_sTanH
I0417 17:38:11.219779 24735 net.cpp:157] Top shape: 1024 250 6 6 (9216000)
I0417 17:38:11.219785 24735 net.cpp:165] Memory required for data: 4055719936
I0417 17:38:11.219790 24735 layer_factory.hpp:77] Creating layer conv3_postscale
I0417 17:38:11.219800 24735 net.cpp:100] Creating Layer conv3_postscale
I0417 17:38:11.219806 24735 net.cpp:434] conv3_postscale <- conv3
I0417 17:38:11.219813 24735 net.cpp:395] conv3_postscale -> conv3 (in-place)
I0417 17:38:11.219946 24735 net.cpp:150] Setting up conv3_postscale
I0417 17:38:11.219959 24735 net.cpp:157] Top shape: 1024 250 6 6 (9216000)
I0417 17:38:11.219964 24735 net.cpp:165] Memory required for data: 4092583936
I0417 17:38:11.219971 24735 layer_factory.hpp:77] Creating layer pool3
I0417 17:38:11.219983 24735 net.cpp:100] Creating Layer pool3
I0417 17:38:11.219990 24735 net.cpp:434] pool3 <- conv3
I0417 17:38:11.219996 24735 net.cpp:408] pool3 -> pool3
I0417 17:38:11.220042 24735 net.cpp:150] Setting up pool3
I0417 17:38:11.220052 24735 net.cpp:157] Top shape: 1024 250 3 3 (2304000)
I0417 17:38:11.220054 24735 net.cpp:165] Memory required for data: 4101799936
I0417 17:38:11.220058 24735 layer_factory.hpp:77] Creating layer fc4_300
I0417 17:38:11.220067 24735 net.cpp:100] Creating Layer fc4_300
I0417 17:38:11.220072 24735 net.cpp:434] fc4_300 <- pool3
I0417 17:38:11.220077 24735 net.cpp:408] fc4_300 -> fc4_300
I0417 17:38:11.226999 24735 net.cpp:150] Setting up fc4_300
I0417 17:38:11.227017 24735 net.cpp:157] Top shape: 1024 300 (307200)
I0417 17:38:11.227023 24735 net.cpp:165] Memory required for data: 4103028736
I0417 17:38:11.227032 24735 layer_factory.hpp:77] Creating layer fc4_prescale
I0417 17:38:11.227043 24735 net.cpp:100] Creating Layer fc4_prescale
I0417 17:38:11.227049 24735 net.cpp:434] fc4_prescale <- fc4_300
I0417 17:38:11.227056 24735 net.cpp:395] fc4_prescale -> fc4_300 (in-place)
I0417 17:38:11.227164 24735 net.cpp:150] Setting up fc4_prescale
I0417 17:38:11.227172 24735 net.cpp:157] Top shape: 1024 300 (307200)
I0417 17:38:11.227176 24735 net.cpp:165] Memory required for data: 4104257536
I0417 17:38:11.227182 24735 layer_factory.hpp:77] Creating layer fc4_sTanH
I0417 17:38:11.227190 24735 net.cpp:100] Creating Layer fc4_sTanH
I0417 17:38:11.227195 24735 net.cpp:434] fc4_sTanH <- fc4_300
I0417 17:38:11.227200 24735 net.cpp:395] fc4_sTanH -> fc4_300 (in-place)
I0417 17:38:11.227421 24735 net.cpp:150] Setting up fc4_sTanH
I0417 17:38:11.227434 24735 net.cpp:157] Top shape: 1024 300 (307200)
I0417 17:38:11.227439 24735 net.cpp:165] Memory required for data: 4105486336
I0417 17:38:11.227443 24735 layer_factory.hpp:77] Creating layer fc4_postscale
I0417 17:38:11.227452 24735 net.cpp:100] Creating Layer fc4_postscale
I0417 17:38:11.227457 24735 net.cpp:434] fc4_postscale <- fc4_300
I0417 17:38:11.227463 24735 net.cpp:395] fc4_postscale -> fc4_300 (in-place)
I0417 17:38:11.227576 24735 net.cpp:150] Setting up fc4_postscale
I0417 17:38:11.227584 24735 net.cpp:157] Top shape: 1024 300 (307200)
I0417 17:38:11.227588 24735 net.cpp:165] Memory required for data: 4106715136
I0417 17:38:11.227593 24735 layer_factory.hpp:77] Creating layer fc5_67
I0417 17:38:11.227602 24735 net.cpp:100] Creating Layer fc5_67
I0417 17:38:11.227608 24735 net.cpp:434] fc5_67 <- fc4_300
I0417 17:38:11.227614 24735 net.cpp:408] fc5_67 -> fc5_classes
I0417 17:38:11.234189 24735 net.cpp:150] Setting up fc5_67
I0417 17:38:11.234210 24735 net.cpp:157] Top shape: 1024 67 (68608)
I0417 17:38:11.234215 24735 net.cpp:165] Memory required for data: 4106989568
I0417 17:38:11.234228 24735 layer_factory.hpp:77] Creating layer fc5_classes_fc5_67_0_split
I0417 17:38:11.234238 24735 net.cpp:100] Creating Layer fc5_classes_fc5_67_0_split
I0417 17:38:11.234244 24735 net.cpp:434] fc5_classes_fc5_67_0_split <- fc5_classes
I0417 17:38:11.234252 24735 net.cpp:408] fc5_classes_fc5_67_0_split -> fc5_classes_fc5_67_0_split_0
I0417 17:38:11.234263 24735 net.cpp:408] fc5_classes_fc5_67_0_split -> fc5_classes_fc5_67_0_split_1
I0417 17:38:11.234272 24735 net.cpp:408] fc5_classes_fc5_67_0_split -> fc5_classes_fc5_67_0_split_2
I0417 17:38:11.234334 24735 net.cpp:150] Setting up fc5_classes_fc5_67_0_split
I0417 17:38:11.234344 24735 net.cpp:157] Top shape: 1024 67 (68608)
I0417 17:38:11.234349 24735 net.cpp:157] Top shape: 1024 67 (68608)
I0417 17:38:11.234352 24735 net.cpp:157] Top shape: 1024 67 (68608)
I0417 17:38:11.234355 24735 net.cpp:165] Memory required for data: 4107812864
I0417 17:38:11.234359 24735 layer_factory.hpp:77] Creating layer softmax
I0417 17:38:11.234366 24735 net.cpp:100] Creating Layer softmax
I0417 17:38:11.234372 24735 net.cpp:434] softmax <- fc5_classes_fc5_67_0_split_0
I0417 17:38:11.234378 24735 net.cpp:408] softmax -> softmax
I0417 17:38:11.234680 24735 net.cpp:150] Setting up softmax
I0417 17:38:11.234694 24735 net.cpp:157] Top shape: 1024 67 (68608)
I0417 17:38:11.234699 24735 net.cpp:165] Memory required for data: 4108087296
I0417 17:38:11.234704 24735 layer_factory.hpp:77] Creating layer loss
I0417 17:38:11.234711 24735 net.cpp:100] Creating Layer loss
I0417 17:38:11.234717 24735 net.cpp:434] loss <- softmax
I0417 17:38:11.234724 24735 net.cpp:434] loss <- label_data_1_split_0
I0417 17:38:11.234730 24735 net.cpp:408] loss -> loss
…
