…
I0411 07:25:35.667289 26703 net.cpp:322] The NetState phase (0) differed from the phase (1) specified by a rule in layer accuracy_5
I0411 07:25:35.667445 26703 net.cpp:58] Initializing net from parameters: 
state {
  phase: TRAIN
  level: 0
  stage: ""
}
layer {
  name: "data"
  type: "Data"
  top: "data"
  top: "label"
  include {
    phase: TRAIN
  }
  transform_param {
    scale: 0.0039215689
    mirror: false
    crop_size: 48
    mean_value: 115
    mean_value: 108
    mean_value: 122
  }
  data_param {
    source: "../local_data/lmdb/rtsd-r1/imajust/train/lmdb"
    batch_size: 1024
    backend: LMDB
  }
}
layer {
  name: "conv1"
  type: "Convolution"
  bottom: "data"
  top: "conv1"
  convolution_param {
    num_output: 100
    pad: 0
    kernel_size: 7
    group: 1
    stride: 1
    weight_filler {
      type: "xavier"
    }
  }
}
layer {
  name: "conv1_prescale"
  type: "Scale"
  bottom: "conv1"
  top: "conv1"
  param {
    lr_mult: 0
    decay_mult: 0
  }
  scale_param {
    filler {
      value: 0.6666
    }
    bias_term: false
  }
}
layer {
  name: "conv1_sTanH"
  type: "TanH"
  bottom: "conv1"
  top: "conv1"
}
layer {
  name: "conv1_postscale"
  type: "Scale"
  bottom: "conv1"
  top: "conv1"
  param {
    lr_mult: 0
    decay_mult: 0
  }
  scale_param {
    filler {
      value: 1.7159
    }
    bias_term: false
  }
}
layer {
  name: "pool1"
  type: "Pooling"
  bottom: "conv1"
  top: "pool1"
  pooling_param {
    pool: MAX
    kernel_size: 2
    stride: 2
  }
}
layer {
  name: "conv2"
  type: "Convolution"
  bottom: "pool1"
  top: "conv2"
  convolution_param {
    num_output: 150
    pad: 0
    kernel_size: 4
    group: 1
    stride: 1
    weight_filler {
      type: "xavier"
    }
  }
}
layer {
  name: "conv2_prescale"
  type: "Scale"
  bottom: "conv2"
  top: "conv2"
  param {
    lr_mult: 0
    decay_mult: 0
  }
  scale_param {
    filler {
      value: 0.6666
    }
    bias_term: false
  }
}
layer {
  name: "conv2_sTanH"
  type: "TanH"
  bottom: "conv2"
  top: "conv2"
}
layer {
  name: "conv2_postscale"
  type: "Scale"
  bottom: "conv2"
  top: "conv2"
  param {
    lr_mult: 0
    decay_mult: 0
  }
  scale_param {
    filler {
      value: 1.7159
    }
    bias_term: false
  }
}
layer {
  name: "pool2"
  type: "Pooling"
  bottom: "conv2"
  top: "pool2"
  pooling_param {
    pool: MAX
    kernel_size: 2
    stride: 2
  }
}
layer {
  name: "conv3"
  type: "Convolution"
  bottom: "pool2"
  top: "conv3"
  convolution_param {
    num_output: 250
    pad: 0
    kernel_size: 4
    group: 1
    stride: 1
    weight_filler {
      type: "xavier"
    }
  }
}
layer {
  name: "conv3_prescale"
  type: "Scale"
  bottom: "conv3"
  top: "conv3"
  param {
    lr_mult: 0
    decay_mult: 0
  }
  scale_param {
    filler {
      value: 0.6666
    }
    bias_term: false
  }
}
layer {
  name: "conv3_sTanH"
  type: "TanH"
  bottom: "conv3"
  top: "conv3"
}
layer {
  name: "conv3_postscale"
  type: "Scale"
  bottom: "conv3"
  top: "conv3"
  param {
    lr_mult: 0
    decay_mult: 0
  }
  scale_param {
    filler {
      value: 1.7159
    }
    bias_term: false
  }
}
layer {
  name: "pool3"
  type: "Pooling"
  bottom: "conv3"
  top: "pool3"
  pooling_param {
    pool: MAX
    kernel_size: 2
    stride: 2
  }
}
layer {
  name: "fc4_300"
  type: "InnerProduct"
  bottom: "pool3"
  top: "fc4_300"
  inner_product_param {
    num_output: 300
    weight_filler {
      type: "xavier"
    }
  }
}
layer {
  name: "fc4_prescale"
  type: "Scale"
  bottom: "fc4_300"
  top: "fc4_300"
  param {
    lr_mult: 0
    decay_mult: 0
  }
  scale_param {
    filler {
      value: 0.6666
    }
    bias_term: false
  }
}
layer {
  name: "fc4_sTanH"
  type: "TanH"
  bottom: "fc4_300"
  top: "fc4_300"
}
layer {
  name: "fc4_postscale"
  type: "Scale"
  bottom: "fc4_300"
  top: "fc4_300"
  param {
    lr_mult: 0
    decay_mult: 0
  }
  scale_param {
    filler {
      value: 1.7159
    }
    bias_term: false
  }
}
layer {
  name: "fc5_67"
  type: "InnerProduct"
  bottom: "fc4_300"
  top: "fc5_classes"
  inner_product_param {
    num_output: 67
    weight_filler {
      type: "xavier"
    }
  }
}
layer {
  name: "loss"
  type: "SoftmaxWithLoss"
  bottom: "fc5_classes"
  bottom: "label"
  top: "loss"
}
I0411 07:25:35.667558 26703 layer_factory.hpp:77] Creating layer data
I0411 07:25:35.668718 26703 net.cpp:100] Creating Layer data
I0411 07:25:35.668751 26703 net.cpp:408] data -> data
I0411 07:25:35.668777 26703 net.cpp:408] data -> label
I0411 07:25:35.689762 26806 db_lmdb.cpp:35] Opened lmdb ../local_data/lmdb/rtsd-r1/imajust/train/lmdb
I0411 07:25:35.723141 26703 data_layer.cpp:41] output data size: 1024,3,48,48
I0411 07:25:35.770169 26703 net.cpp:150] Setting up data
I0411 07:25:35.770210 26703 net.cpp:157] Top shape: 1024 3 48 48 (7077888)
I0411 07:25:35.770220 26703 net.cpp:157] Top shape: 1024 (1024)
I0411 07:25:35.770226 26703 net.cpp:165] Memory required for data: 28315648
I0411 07:25:35.770241 26703 layer_factory.hpp:77] Creating layer conv1
I0411 07:25:35.770272 26703 net.cpp:100] Creating Layer conv1
I0411 07:25:35.770287 26703 net.cpp:434] conv1 <- data
I0411 07:25:35.770308 26703 net.cpp:408] conv1 -> conv1
I0411 07:25:35.856273 26824 blocking_queue.cpp:50] Waiting for data
I0411 07:25:36.111515 26703 net.cpp:150] Setting up conv1
I0411 07:25:36.111544 26703 net.cpp:157] Top shape: 1024 100 42 42 (180633600)
I0411 07:25:36.111548 26703 net.cpp:165] Memory required for data: 750850048
I0411 07:25:36.111572 26703 layer_factory.hpp:77] Creating layer conv1_prescale
I0411 07:25:36.111587 26703 net.cpp:100] Creating Layer conv1_prescale
I0411 07:25:36.111591 26703 net.cpp:434] conv1_prescale <- conv1
I0411 07:25:36.111598 26703 net.cpp:395] conv1_prescale -> conv1 (in-place)
I0411 07:25:36.111708 26703 net.cpp:150] Setting up conv1_prescale
I0411 07:25:36.111719 26703 net.cpp:157] Top shape: 1024 100 42 42 (180633600)
I0411 07:25:36.111722 26703 net.cpp:165] Memory required for data: 1473384448
I0411 07:25:36.111729 26703 layer_factory.hpp:77] Creating layer conv1_sTanH
I0411 07:25:36.111737 26703 net.cpp:100] Creating Layer conv1_sTanH
I0411 07:25:36.111742 26703 net.cpp:434] conv1_sTanH <- conv1
I0411 07:25:36.111747 26703 net.cpp:395] conv1_sTanH -> conv1 (in-place)
I0411 07:25:36.111958 26703 net.cpp:150] Setting up conv1_sTanH
I0411 07:25:36.111974 26703 net.cpp:157] Top shape: 1024 100 42 42 (180633600)
I0411 07:25:36.111976 26703 net.cpp:165] Memory required for data: 2195918848
I0411 07:25:36.111980 26703 layer_factory.hpp:77] Creating layer conv1_postscale
I0411 07:25:36.111989 26703 net.cpp:100] Creating Layer conv1_postscale
I0411 07:25:36.111992 26703 net.cpp:434] conv1_postscale <- conv1
I0411 07:25:36.111999 26703 net.cpp:395] conv1_postscale -> conv1 (in-place)
I0411 07:25:36.112095 26703 net.cpp:150] Setting up conv1_postscale
I0411 07:25:36.112104 26703 net.cpp:157] Top shape: 1024 100 42 42 (180633600)
I0411 07:25:36.112107 26703 net.cpp:165] Memory required for data: 2918453248
I0411 07:25:36.112114 26703 layer_factory.hpp:77] Creating layer pool1
I0411 07:25:36.112121 26703 net.cpp:100] Creating Layer pool1
I0411 07:25:36.112125 26703 net.cpp:434] pool1 <- conv1
I0411 07:25:36.112130 26703 net.cpp:408] pool1 -> pool1
I0411 07:25:36.112179 26703 net.cpp:150] Setting up pool1
I0411 07:25:36.112211 26703 net.cpp:157] Top shape: 1024 100 21 21 (45158400)
I0411 07:25:36.112216 26703 net.cpp:165] Memory required for data: 3099086848
I0411 07:25:36.112220 26703 layer_factory.hpp:77] Creating layer conv2
I0411 07:25:36.112231 26703 net.cpp:100] Creating Layer conv2
I0411 07:25:36.112236 26703 net.cpp:434] conv2 <- pool1
I0411 07:25:36.112241 26703 net.cpp:408] conv2 -> conv2
I0411 07:25:36.120267 26703 net.cpp:150] Setting up conv2
I0411 07:25:36.120285 26703 net.cpp:157] Top shape: 1024 150 18 18 (49766400)
I0411 07:25:36.120288 26703 net.cpp:165] Memory required for data: 3298152448
I0411 07:25:36.120299 26703 layer_factory.hpp:77] Creating layer conv2_prescale
I0411 07:25:36.120307 26703 net.cpp:100] Creating Layer conv2_prescale
I0411 07:25:36.120311 26703 net.cpp:434] conv2_prescale <- conv2
I0411 07:25:36.120317 26703 net.cpp:395] conv2_prescale -> conv2 (in-place)
I0411 07:25:36.120424 26703 net.cpp:150] Setting up conv2_prescale
I0411 07:25:36.120434 26703 net.cpp:157] Top shape: 1024 150 18 18 (49766400)
I0411 07:25:36.120436 26703 net.cpp:165] Memory required for data: 3497218048
I0411 07:25:36.120442 26703 layer_factory.hpp:77] Creating layer conv2_sTanH
I0411 07:25:36.120450 26703 net.cpp:100] Creating Layer conv2_sTanH
I0411 07:25:36.120453 26703 net.cpp:434] conv2_sTanH <- conv2
I0411 07:25:36.120457 26703 net.cpp:395] conv2_sTanH -> conv2 (in-place)
I0411 07:25:36.123499 26703 net.cpp:150] Setting up conv2_sTanH
I0411 07:25:36.123517 26703 net.cpp:157] Top shape: 1024 150 18 18 (49766400)
I0411 07:25:36.123519 26703 net.cpp:165] Memory required for data: 3696283648
I0411 07:25:36.123523 26703 layer_factory.hpp:77] Creating layer conv2_postscale
I0411 07:25:36.123531 26703 net.cpp:100] Creating Layer conv2_postscale
I0411 07:25:36.123535 26703 net.cpp:434] conv2_postscale <- conv2
I0411 07:25:36.123540 26703 net.cpp:395] conv2_postscale -> conv2 (in-place)
I0411 07:25:36.123637 26703 net.cpp:150] Setting up conv2_postscale
I0411 07:25:36.123646 26703 net.cpp:157] Top shape: 1024 150 18 18 (49766400)
I0411 07:25:36.123651 26703 net.cpp:165] Memory required for data: 3895349248
I0411 07:25:36.123656 26703 layer_factory.hpp:77] Creating layer pool2
I0411 07:25:36.123661 26703 net.cpp:100] Creating Layer pool2
I0411 07:25:36.123666 26703 net.cpp:434] pool2 <- conv2
I0411 07:25:36.123670 26703 net.cpp:408] pool2 -> pool2
I0411 07:25:36.123710 26703 net.cpp:150] Setting up pool2
I0411 07:25:36.123719 26703 net.cpp:157] Top shape: 1024 150 9 9 (12441600)
I0411 07:25:36.123723 26703 net.cpp:165] Memory required for data: 3945115648
I0411 07:25:36.123725 26703 layer_factory.hpp:77] Creating layer conv3
I0411 07:25:36.123734 26703 net.cpp:100] Creating Layer conv3
I0411 07:25:36.123738 26703 net.cpp:434] conv3 <- pool2
I0411 07:25:36.123744 26703 net.cpp:408] conv3 -> conv3
I0411 07:25:36.130687 26703 net.cpp:150] Setting up conv3
I0411 07:25:36.130707 26703 net.cpp:157] Top shape: 1024 250 6 6 (9216000)
I0411 07:25:36.130723 26703 net.cpp:165] Memory required for data: 3981979648
I0411 07:25:36.130734 26703 layer_factory.hpp:77] Creating layer conv3_prescale
I0411 07:25:36.130743 26703 net.cpp:100] Creating Layer conv3_prescale
I0411 07:25:36.130748 26703 net.cpp:434] conv3_prescale <- conv3
I0411 07:25:36.130753 26703 net.cpp:395] conv3_prescale -> conv3 (in-place)
I0411 07:25:36.130848 26703 net.cpp:150] Setting up conv3_prescale
I0411 07:25:36.130858 26703 net.cpp:157] Top shape: 1024 250 6 6 (9216000)
I0411 07:25:36.130862 26703 net.cpp:165] Memory required for data: 4018843648
I0411 07:25:36.130867 26703 layer_factory.hpp:77] Creating layer conv3_sTanH
I0411 07:25:36.130872 26703 net.cpp:100] Creating Layer conv3_sTanH
I0411 07:25:36.130877 26703 net.cpp:434] conv3_sTanH <- conv3
I0411 07:25:36.130882 26703 net.cpp:395] conv3_sTanH -> conv3 (in-place)
I0411 07:25:36.135426 26703 net.cpp:150] Setting up conv3_sTanH
I0411 07:25:36.135444 26703 net.cpp:157] Top shape: 1024 250 6 6 (9216000)
I0411 07:25:36.135462 26703 net.cpp:165] Memory required for data: 4055707648
I0411 07:25:36.135465 26703 layer_factory.hpp:77] Creating layer conv3_postscale
I0411 07:25:36.135488 26703 net.cpp:100] Creating Layer conv3_postscale
I0411 07:25:36.135493 26703 net.cpp:434] conv3_postscale <- conv3
I0411 07:25:36.135499 26703 net.cpp:395] conv3_postscale -> conv3 (in-place)
I0411 07:25:36.135601 26703 net.cpp:150] Setting up conv3_postscale
I0411 07:25:36.135612 26703 net.cpp:157] Top shape: 1024 250 6 6 (9216000)
I0411 07:25:36.135615 26703 net.cpp:165] Memory required for data: 4092571648
I0411 07:25:36.135620 26703 layer_factory.hpp:77] Creating layer pool3
I0411 07:25:36.135627 26703 net.cpp:100] Creating Layer pool3
I0411 07:25:36.135632 26703 net.cpp:434] pool3 <- conv3
I0411 07:25:36.135637 26703 net.cpp:408] pool3 -> pool3
I0411 07:25:36.135675 26703 net.cpp:150] Setting up pool3
I0411 07:25:36.135684 26703 net.cpp:157] Top shape: 1024 250 3 3 (2304000)
I0411 07:25:36.135686 26703 net.cpp:165] Memory required for data: 4101787648
I0411 07:25:36.135689 26703 layer_factory.hpp:77] Creating layer fc4_300
I0411 07:25:36.135699 26703 net.cpp:100] Creating Layer fc4_300
I0411 07:25:36.135704 26703 net.cpp:434] fc4_300 <- pool3
I0411 07:25:36.135709 26703 net.cpp:408] fc4_300 -> fc4_300
I0411 07:25:36.141782 26703 net.cpp:150] Setting up fc4_300
I0411 07:25:36.141801 26703 net.cpp:157] Top shape: 1024 300 (307200)
I0411 07:25:36.141818 26703 net.cpp:165] Memory required for data: 4103016448
I0411 07:25:36.141825 26703 layer_factory.hpp:77] Creating layer fc4_prescale
I0411 07:25:36.141834 26703 net.cpp:100] Creating Layer fc4_prescale
I0411 07:25:36.141837 26703 net.cpp:434] fc4_prescale <- fc4_300
I0411 07:25:36.141844 26703 net.cpp:395] fc4_prescale -> fc4_300 (in-place)
I0411 07:25:36.141935 26703 net.cpp:150] Setting up fc4_prescale
I0411 07:25:36.141945 26703 net.cpp:157] Top shape: 1024 300 (307200)
I0411 07:25:36.141948 26703 net.cpp:165] Memory required for data: 4104245248
I0411 07:25:36.141953 26703 layer_factory.hpp:77] Creating layer fc4_sTanH
I0411 07:25:36.141959 26703 net.cpp:100] Creating Layer fc4_sTanH
I0411 07:25:36.141963 26703 net.cpp:434] fc4_sTanH <- fc4_300
I0411 07:25:36.141968 26703 net.cpp:395] fc4_sTanH -> fc4_300 (in-place)
I0411 07:25:36.142159 26703 net.cpp:150] Setting up fc4_sTanH
I0411 07:25:36.142172 26703 net.cpp:157] Top shape: 1024 300 (307200)
I0411 07:25:36.142175 26703 net.cpp:165] Memory required for data: 4105474048
I0411 07:25:36.142179 26703 layer_factory.hpp:77] Creating layer fc4_postscale
I0411 07:25:36.142186 26703 net.cpp:100] Creating Layer fc4_postscale
I0411 07:25:36.142190 26703 net.cpp:434] fc4_postscale <- fc4_300
I0411 07:25:36.142195 26703 net.cpp:395] fc4_postscale -> fc4_300 (in-place)
I0411 07:25:36.142290 26703 net.cpp:150] Setting up fc4_postscale
I0411 07:25:36.142298 26703 net.cpp:157] Top shape: 1024 300 (307200)
I0411 07:25:36.142302 26703 net.cpp:165] Memory required for data: 4106702848
I0411 07:25:36.142307 26703 layer_factory.hpp:77] Creating layer fc5_67
I0411 07:25:36.142313 26703 net.cpp:100] Creating Layer fc5_67
I0411 07:25:36.142318 26703 net.cpp:434] fc5_67 <- fc4_300
I0411 07:25:36.142323 26703 net.cpp:408] fc5_67 -> fc5_classes
I0411 07:25:36.143827 26703 net.cpp:150] Setting up fc5_67
I0411 07:25:36.143843 26703 net.cpp:157] Top shape: 1024 67 (68608)
I0411 07:25:36.143846 26703 net.cpp:165] Memory required for data: 4106977280
I0411 07:25:36.143857 26703 layer_factory.hpp:77] Creating layer loss
I0411 07:25:36.143864 26703 net.cpp:100] Creating Layer loss
I0411 07:25:36.143868 26703 net.cpp:434] loss <- fc5_classes
I0411 07:25:36.143873 26703 net.cpp:434] loss <- label
I0411 07:25:36.143893 26703 net.cpp:408] loss -> loss
I0411 07:25:36.143908 26703 layer_factory.hpp:77] Creating layer loss
…
I0411 07:25:36.144665 26703 solver.cpp:193] Creating test net (#0) specified by test_net file: ./Prototxt/experiment_8/rtsd-r1/imajust/trial_1/test.prototxt
I0411 07:25:36.144848 26703 net.cpp:58] Initializing net from parameters: 
state {
  phase: TEST
}
layer {
  name: "data"
  type: "Data"
  top: "data"
  top: "label"
  include {
    phase: TEST
  }
  transform_param {
    scale: 0.0039215689
    mirror: false
    crop_size: 48
    mean_value: 109
    mean_value: 106
    mean_value: 126
  }
  data_param {
    source: "../local_data/lmdb/rtsd-r1/imajust/test/lmdb"
    batch_size: 1024
    backend: LMDB
  }
}
layer {
  name: "conv1"
  type: "Convolution"
  bottom: "data"
  top: "conv1"
  convolution_param {
    num_output: 100
    pad: 0
    kernel_size: 7
    group: 1
    stride: 1
    weight_filler {
      type: "xavier"
    }
  }
}
layer {
  name: "conv1_prescale"
  type: "Scale"
  bottom: "conv1"
  top: "conv1"
  param {
    lr_mult: 0
    decay_mult: 0
  }
  scale_param {
    filler {
      value: 0.6666
    }
    bias_term: false
  }
}
layer {
  name: "conv1_sTanH"
  type: "TanH"
  bottom: "conv1"
  top: "conv1"
}
layer {
  name: "conv1_postscale"
  type: "Scale"
  bottom: "conv1"
  top: "conv1"
  param {
    lr_mult: 0
    decay_mult: 0
  }
  scale_param {
    filler {
      value: 1.7159
    }
    bias_term: false
  }
}
layer {
  name: "pool1"
  type: "Pooling"
  bottom: "conv1"
  top: "pool1"
  pooling_param {
    pool: MAX
    kernel_size: 2
    stride: 2
  }
}
layer {
  name: "conv2"
  type: "Convolution"
  bottom: "pool1"
  top: "conv2"
  convolution_param {
    num_output: 150
    pad: 0
    kernel_size: 4
    group: 1
    stride: 1
    weight_filler {
      type: "xavier"
    }
  }
}
layer {
  name: "conv2_prescale"
  type: "Scale"
  bottom: "conv2"
  top: "conv2"
  param {
    lr_mult: 0
    decay_mult: 0
  }
  scale_param {
    filler {
      value: 0.6666
    }
    bias_term: false
  }
}
layer {
  name: "conv2_sTanH"
  type: "TanH"
  bottom: "conv2"
  top: "conv2"
}
layer {
  name: "conv2_postscale"
  type: "Scale"
  bottom: "conv2"
  top: "conv2"
  param {
    lr_mult: 0
    decay_mult: 0
  }
  scale_param {
    filler {
      value: 1.7159
    }
    bias_term: false
  }
}
layer {
  name: "pool2"
  type: "Pooling"
  bottom: "conv2"
  top: "pool2"
  pooling_param {
    pool: MAX
    kernel_size: 2
    stride: 2
  }
}
layer {
  name: "conv3"
  type: "Convolution"
  bottom: "pool2"
  top: "conv3"
  convolution_param {
    num_output: 250
    pad: 0
    kernel_size: 4
    group: 1
    stride: 1
    weight_filler {
      type: "xavier"
    }
  }
}
layer {
  name: "conv3_prescale"
  type: "Scale"
  bottom: "conv3"
  top: "conv3"
  param {
    lr_mult: 0
    decay_mult: 0
  }
  scale_param {
    filler {
      value: 0.6666
    }
    bias_term: false
  }
}
layer {
  name: "conv3_sTanH"
  type: "TanH"
  bottom: "conv3"
  top: "conv3"
}
layer {
  name: "conv3_postscale"
  type: "Scale"
  bottom: "conv3"
  top: "conv3"
  param {
    lr_mult: 0
    decay_mult: 0
  }
  scale_param {
    filler {
      value: 1.7159
    }
    bias_term: false
  }
}
layer {
  name: "pool3"
  type: "Pooling"
  bottom: "conv3"
  top: "pool3"
  pooling_param {
    pool: MAX
    kernel_size: 2
    stride: 2
  }
}
layer {
  name: "fc4_300"
  type: "InnerProduct"
  bottom: "pool3"
  top: "fc4_300"
  inner_product_param {
    num_output: 300
    weight_filler {
      type: "xavier"
    }
  }
}
layer {
  name: "fc4_prescale"
  type: "Scale"
  bottom: "fc4_300"
  top: "fc4_300"
  param {
    lr_mult: 0
    decay_mult: 0
  }
  scale_param {
    filler {
      value: 0.6666
    }
    bias_term: false
  }
}
layer {
  name: "fc4_sTanH"
  type: "TanH"
  bottom: "fc4_300"
  top: "fc4_300"
}
layer {
  name: "fc4_postscale"
  type: "Scale"
  bottom: "fc4_300"
  top: "fc4_300"
  param {
    lr_mult: 0
    decay_mult: 0
  }
  scale_param {
    filler {
      value: 1.7159
    }
    bias_term: false
  }
}
layer {
  name: "fc5_67"
  type: "InnerProduct"
  bottom: "fc4_300"
  top: "fc5_classes"
  inner_product_param {
    num_output: 67
    weight_filler {
      type: "xavier"
    }
  }
}
layer {
  name: "loss"
  type: "SoftmaxWithLoss"
  bottom: "fc5_classes"
  bottom: "label"
  top: "loss"
}
layer {
  name: "accuracy_1"
  type: "Accuracy"
  bottom: "fc5_classes"
  bottom: "label"
  top: "accuracy_1"
  include {
    phase: TEST
  }
  accuracy_param {
    top_k: 1
  }
}
layer {
  name: "accuracy_5"
  type: "Accuracy"
  bottom: "fc5_classes"
  bottom: "label"
  top: "accuracy_5"
  include {
    phase: TEST
  }
  accuracy_param {
    top_k: 5
  }
}
I0411 07:25:36.144958 26703 layer_factory.hpp:77] Creating layer data
I0411 07:25:36.145602 26703 net.cpp:100] Creating Layer data
I0411 07:25:36.145617 26703 net.cpp:408] data -> data
I0411 07:25:36.145627 26703 net.cpp:408] data -> label
I0411 07:25:36.157644 26859 db_lmdb.cpp:35] Opened lmdb ../local_data/lmdb/rtsd-r1/imajust/test/lmdb
I0411 07:25:36.162343 26703 data_layer.cpp:41] output data size: 1024,3,48,48
I0411 07:25:36.201103 26703 net.cpp:150] Setting up data
I0411 07:25:36.201133 26703 net.cpp:157] Top shape: 1024 3 48 48 (7077888)
I0411 07:25:36.201139 26703 net.cpp:157] Top shape: 1024 (1024)
I0411 07:25:36.201143 26703 net.cpp:165] Memory required for data: 28315648
I0411 07:25:36.201148 26703 layer_factory.hpp:77] Creating layer label_data_1_split
I0411 07:25:36.201175 26703 net.cpp:100] Creating Layer label_data_1_split
I0411 07:25:36.201179 26703 net.cpp:434] label_data_1_split <- label
I0411 07:25:36.201187 26703 net.cpp:408] label_data_1_split -> label_data_1_split_0
I0411 07:25:36.201200 26703 net.cpp:408] label_data_1_split -> label_data_1_split_1
I0411 07:25:36.201207 26703 net.cpp:408] label_data_1_split -> label_data_1_split_2
I0411 07:25:36.201393 26703 net.cpp:150] Setting up label_data_1_split
I0411 07:25:36.201405 26703 net.cpp:157] Top shape: 1024 (1024)
I0411 07:25:36.201408 26703 net.cpp:157] Top shape: 1024 (1024)
I0411 07:25:36.201412 26703 net.cpp:157] Top shape: 1024 (1024)
I0411 07:25:36.201416 26703 net.cpp:165] Memory required for data: 28327936
I0411 07:25:36.201418 26703 layer_factory.hpp:77] Creating layer conv1
I0411 07:25:36.201434 26703 net.cpp:100] Creating Layer conv1
I0411 07:25:36.201439 26703 net.cpp:434] conv1 <- data
I0411 07:25:36.201445 26703 net.cpp:408] conv1 -> conv1
I0411 07:25:36.204423 26703 net.cpp:150] Setting up conv1
I0411 07:25:36.204468 26703 net.cpp:157] Top shape: 1024 100 42 42 (180633600)
I0411 07:25:36.204473 26703 net.cpp:165] Memory required for data: 750862336
I0411 07:25:36.204486 26703 layer_factory.hpp:77] Creating layer conv1_prescale
I0411 07:25:36.204497 26703 net.cpp:100] Creating Layer conv1_prescale
I0411 07:25:36.204501 26703 net.cpp:434] conv1_prescale <- conv1
I0411 07:25:36.204509 26703 net.cpp:395] conv1_prescale -> conv1 (in-place)
I0411 07:25:36.204632 26703 net.cpp:150] Setting up conv1_prescale
I0411 07:25:36.204643 26703 net.cpp:157] Top shape: 1024 100 42 42 (180633600)
I0411 07:25:36.204645 26703 net.cpp:165] Memory required for data: 1473396736
I0411 07:25:36.204653 26703 layer_factory.hpp:77] Creating layer conv1_sTanH
I0411 07:25:36.204661 26703 net.cpp:100] Creating Layer conv1_sTanH
I0411 07:25:36.204668 26703 net.cpp:434] conv1_sTanH <- conv1
I0411 07:25:36.204672 26703 net.cpp:395] conv1_sTanH -> conv1 (in-place)
I0411 07:25:36.204877 26703 net.cpp:150] Setting up conv1_sTanH
I0411 07:25:36.204890 26703 net.cpp:157] Top shape: 1024 100 42 42 (180633600)
I0411 07:25:36.204893 26703 net.cpp:165] Memory required for data: 2195931136
I0411 07:25:36.204897 26703 layer_factory.hpp:77] Creating layer conv1_postscale
I0411 07:25:36.204905 26703 net.cpp:100] Creating Layer conv1_postscale
I0411 07:25:36.204908 26703 net.cpp:434] conv1_postscale <- conv1
I0411 07:25:36.204915 26703 net.cpp:395] conv1_postscale -> conv1 (in-place)
I0411 07:25:36.205029 26703 net.cpp:150] Setting up conv1_postscale
I0411 07:25:36.205040 26703 net.cpp:157] Top shape: 1024 100 42 42 (180633600)
I0411 07:25:36.205044 26703 net.cpp:165] Memory required for data: 2918465536
I0411 07:25:36.205049 26703 layer_factory.hpp:77] Creating layer pool1
I0411 07:25:36.205056 26703 net.cpp:100] Creating Layer pool1
I0411 07:25:36.205060 26703 net.cpp:434] pool1 <- conv1
I0411 07:25:36.205065 26703 net.cpp:408] pool1 -> pool1
I0411 07:25:36.205111 26703 net.cpp:150] Setting up pool1
I0411 07:25:36.205119 26703 net.cpp:157] Top shape: 1024 100 21 21 (45158400)
I0411 07:25:36.205122 26703 net.cpp:165] Memory required for data: 3099099136
I0411 07:25:36.205126 26703 layer_factory.hpp:77] Creating layer conv2
I0411 07:25:36.205135 26703 net.cpp:100] Creating Layer conv2
I0411 07:25:36.205139 26703 net.cpp:434] conv2 <- pool1
I0411 07:25:36.205149 26703 net.cpp:408] conv2 -> conv2
I0411 07:25:36.210506 26703 net.cpp:150] Setting up conv2
I0411 07:25:36.210527 26703 net.cpp:157] Top shape: 1024 150 18 18 (49766400)
I0411 07:25:36.210531 26703 net.cpp:165] Memory required for data: 3298164736
I0411 07:25:36.210543 26703 layer_factory.hpp:77] Creating layer conv2_prescale
I0411 07:25:36.210556 26703 net.cpp:100] Creating Layer conv2_prescale
I0411 07:25:36.210561 26703 net.cpp:434] conv2_prescale <- conv2
I0411 07:25:36.210567 26703 net.cpp:395] conv2_prescale -> conv2 (in-place)
I0411 07:25:36.210685 26703 net.cpp:150] Setting up conv2_prescale
I0411 07:25:36.210695 26703 net.cpp:157] Top shape: 1024 150 18 18 (49766400)
I0411 07:25:36.210700 26703 net.cpp:165] Memory required for data: 3497230336
I0411 07:25:36.210703 26703 layer_factory.hpp:77] Creating layer conv2_sTanH
I0411 07:25:36.210711 26703 net.cpp:100] Creating Layer conv2_sTanH
I0411 07:25:36.210714 26703 net.cpp:434] conv2_sTanH <- conv2
I0411 07:25:36.210719 26703 net.cpp:395] conv2_sTanH -> conv2 (in-place)
I0411 07:25:36.211665 26703 net.cpp:150] Setting up conv2_sTanH
I0411 07:25:36.211684 26703 net.cpp:157] Top shape: 1024 150 18 18 (49766400)
I0411 07:25:36.211688 26703 net.cpp:165] Memory required for data: 3696295936
I0411 07:25:36.211693 26703 layer_factory.hpp:77] Creating layer conv2_postscale
I0411 07:25:36.211699 26703 net.cpp:100] Creating Layer conv2_postscale
I0411 07:25:36.211704 26703 net.cpp:434] conv2_postscale <- conv2
I0411 07:25:36.211710 26703 net.cpp:395] conv2_postscale -> conv2 (in-place)
I0411 07:25:36.211819 26703 net.cpp:150] Setting up conv2_postscale
I0411 07:25:36.211830 26703 net.cpp:157] Top shape: 1024 150 18 18 (49766400)
I0411 07:25:36.211850 26703 net.cpp:165] Memory required for data: 3895361536
I0411 07:25:36.211856 26703 layer_factory.hpp:77] Creating layer pool2
I0411 07:25:36.211863 26703 net.cpp:100] Creating Layer pool2
I0411 07:25:36.211866 26703 net.cpp:434] pool2 <- conv2
I0411 07:25:36.211871 26703 net.cpp:408] pool2 -> pool2
I0411 07:25:36.211938 26703 net.cpp:150] Setting up pool2
I0411 07:25:36.211958 26703 net.cpp:157] Top shape: 1024 150 9 9 (12441600)
I0411 07:25:36.211961 26703 net.cpp:165] Memory required for data: 3945127936
I0411 07:25:36.211964 26703 layer_factory.hpp:77] Creating layer conv3
I0411 07:25:36.211974 26703 net.cpp:100] Creating Layer conv3
I0411 07:25:36.211978 26703 net.cpp:434] conv3 <- pool2
I0411 07:25:36.211985 26703 net.cpp:408] conv3 -> conv3
I0411 07:25:36.217897 26703 net.cpp:150] Setting up conv3
I0411 07:25:36.217916 26703 net.cpp:157] Top shape: 1024 250 6 6 (9216000)
I0411 07:25:36.217921 26703 net.cpp:165] Memory required for data: 3981991936
I0411 07:25:36.217934 26703 layer_factory.hpp:77] Creating layer conv3_prescale
I0411 07:25:36.217942 26703 net.cpp:100] Creating Layer conv3_prescale
I0411 07:25:36.217947 26703 net.cpp:434] conv3_prescale <- conv3
I0411 07:25:36.217953 26703 net.cpp:395] conv3_prescale -> conv3 (in-place)
I0411 07:25:36.218060 26703 net.cpp:150] Setting up conv3_prescale
I0411 07:25:36.218070 26703 net.cpp:157] Top shape: 1024 250 6 6 (9216000)
I0411 07:25:36.218075 26703 net.cpp:165] Memory required for data: 4018855936
I0411 07:25:36.218088 26703 layer_factory.hpp:77] Creating layer conv3_sTanH
I0411 07:25:36.218096 26703 net.cpp:100] Creating Layer conv3_sTanH
I0411 07:25:36.218101 26703 net.cpp:434] conv3_sTanH <- conv3
I0411 07:25:36.218106 26703 net.cpp:395] conv3_sTanH -> conv3 (in-place)
I0411 07:25:36.218957 26703 net.cpp:150] Setting up conv3_sTanH
I0411 07:25:36.218984 26703 net.cpp:157] Top shape: 1024 250 6 6 (9216000)
I0411 07:25:36.218989 26703 net.cpp:165] Memory required for data: 4055719936
I0411 07:25:36.218993 26703 layer_factory.hpp:77] Creating layer conv3_postscale
I0411 07:25:36.219000 26703 net.cpp:100] Creating Layer conv3_postscale
I0411 07:25:36.219004 26703 net.cpp:434] conv3_postscale <- conv3
I0411 07:25:36.219015 26703 net.cpp:395] conv3_postscale -> conv3 (in-place)
I0411 07:25:36.219125 26703 net.cpp:150] Setting up conv3_postscale
I0411 07:25:36.219135 26703 net.cpp:157] Top shape: 1024 250 6 6 (9216000)
I0411 07:25:36.219138 26703 net.cpp:165] Memory required for data: 4092583936
I0411 07:25:36.219144 26703 layer_factory.hpp:77] Creating layer pool3
I0411 07:25:36.219154 26703 net.cpp:100] Creating Layer pool3
I0411 07:25:36.219157 26703 net.cpp:434] pool3 <- conv3
I0411 07:25:36.219164 26703 net.cpp:408] pool3 -> pool3
I0411 07:25:36.219208 26703 net.cpp:150] Setting up pool3
I0411 07:25:36.219216 26703 net.cpp:157] Top shape: 1024 250 3 3 (2304000)
I0411 07:25:36.219219 26703 net.cpp:165] Memory required for data: 4101799936
I0411 07:25:36.219223 26703 layer_factory.hpp:77] Creating layer fc4_300
I0411 07:25:36.219233 26703 net.cpp:100] Creating Layer fc4_300
I0411 07:25:36.219236 26703 net.cpp:434] fc4_300 <- pool3
I0411 07:25:36.219241 26703 net.cpp:408] fc4_300 -> fc4_300
I0411 07:25:36.232379 26703 net.cpp:150] Setting up fc4_300
I0411 07:25:36.232399 26703 net.cpp:157] Top shape: 1024 300 (307200)
I0411 07:25:36.232403 26703 net.cpp:165] Memory required for data: 4103028736
I0411 07:25:36.232411 26703 layer_factory.hpp:77] Creating layer fc4_prescale
I0411 07:25:36.232422 26703 net.cpp:100] Creating Layer fc4_prescale
I0411 07:25:36.232427 26703 net.cpp:434] fc4_prescale <- fc4_300
I0411 07:25:36.232434 26703 net.cpp:395] fc4_prescale -> fc4_300 (in-place)
I0411 07:25:36.232535 26703 net.cpp:150] Setting up fc4_prescale
I0411 07:25:36.232544 26703 net.cpp:157] Top shape: 1024 300 (307200)
I0411 07:25:36.232548 26703 net.cpp:165] Memory required for data: 4104257536
I0411 07:25:36.232553 26703 layer_factory.hpp:77] Creating layer fc4_sTanH
I0411 07:25:36.232559 26703 net.cpp:100] Creating Layer fc4_sTanH
I0411 07:25:36.232563 26703 net.cpp:434] fc4_sTanH <- fc4_300
I0411 07:25:36.232585 26703 net.cpp:395] fc4_sTanH -> fc4_300 (in-place)
I0411 07:25:36.232800 26703 net.cpp:150] Setting up fc4_sTanH
I0411 07:25:36.232815 26703 net.cpp:157] Top shape: 1024 300 (307200)
I0411 07:25:36.232818 26703 net.cpp:165] Memory required for data: 4105486336
I0411 07:25:36.232822 26703 layer_factory.hpp:77] Creating layer fc4_postscale
I0411 07:25:36.232834 26703 net.cpp:100] Creating Layer fc4_postscale
I0411 07:25:36.232838 26703 net.cpp:434] fc4_postscale <- fc4_300
I0411 07:25:36.232847 26703 net.cpp:395] fc4_postscale -> fc4_300 (in-place)
I0411 07:25:36.232954 26703 net.cpp:150] Setting up fc4_postscale
I0411 07:25:36.232964 26703 net.cpp:157] Top shape: 1024 300 (307200)
I0411 07:25:36.232966 26703 net.cpp:165] Memory required for data: 4106715136
I0411 07:25:36.232971 26703 layer_factory.hpp:77] Creating layer fc5_67
I0411 07:25:36.232995 26703 net.cpp:100] Creating Layer fc5_67
I0411 07:25:36.233000 26703 net.cpp:434] fc5_67 <- fc4_300
I0411 07:25:36.233005 26703 net.cpp:408] fc5_67 -> fc5_classes
I0411 07:25:36.233270 26703 net.cpp:150] Setting up fc5_67
I0411 07:25:36.233280 26703 net.cpp:157] Top shape: 1024 67 (68608)
I0411 07:25:36.233283 26703 net.cpp:165] Memory required for data: 4106989568
I0411 07:25:36.233294 26703 layer_factory.hpp:77] Creating layer fc5_classes_fc5_67_0_split
I0411 07:25:36.233301 26703 net.cpp:100] Creating Layer fc5_classes_fc5_67_0_split
I0411 07:25:36.233305 26703 net.cpp:434] fc5_classes_fc5_67_0_split <- fc5_classes
I0411 07:25:36.233311 26703 net.cpp:408] fc5_classes_fc5_67_0_split -> fc5_classes_fc5_67_0_split_0
I0411 07:25:36.233319 26703 net.cpp:408] fc5_classes_fc5_67_0_split -> fc5_classes_fc5_67_0_split_1
I0411 07:25:36.233325 26703 net.cpp:408] fc5_classes_fc5_67_0_split -> fc5_classes_fc5_67_0_split_2
I0411 07:25:36.233381 26703 net.cpp:150] Setting up fc5_classes_fc5_67_0_split
I0411 07:25:36.233389 26703 net.cpp:157] Top shape: 1024 67 (68608)
I0411 07:25:36.233392 26703 net.cpp:157] Top shape: 1024 67 (68608)
I0411 07:25:36.233395 26703 net.cpp:157] Top shape: 1024 67 (68608)
I0411 07:25:36.233398 26703 net.cpp:165] Memory required for data: 4107812864
I0411 07:25:36.233402 26703 layer_factory.hpp:77] Creating layer loss
I0411 07:25:36.233407 26703 net.cpp:100] Creating Layer loss
I0411 07:25:36.233412 26703 net.cpp:434] loss <- fc5_classes_fc5_67_0_split_0
I0411 07:25:36.233415 26703 net.cpp:434] loss <- label_data_1_split_0
I0411 07:25:36.233422 26703 net.cpp:408] loss -> loss
…
