…
I0415 21:38:38.282490 11161 solver.cpp:93] Creating training net from train_net file: ./Prototxt/experiment_12/rtsd-r3/imajust/trial_1/train.prototxt
I0415 21:38:38.292791 11161 net.cpp:58] Initializing net from parameters: 
state {
  phase: TRAIN
  level: 0
  stage: ""
}
layer {
  name: "data"
  type: "Data"
  top: "data"
  top: "label"
  include {
    phase: TRAIN
  }
  transform_param {
    scale: 0.0039215689
    mirror: false
    crop_size: 48
    mean_value: 118
    mean_value: 112
    mean_value: 112
  }
  data_param {
    source: "../local_data/lmdb/rtsd-r3/imajust/train/lmdb"
    batch_size: 1024
    backend: LMDB
  }
}
layer {
  name: "conv1"
  type: "Convolution"
  bottom: "data"
  top: "conv1"
  convolution_param {
    num_output: 100
    pad: 0
    kernel_size: 7
    group: 1
    stride: 1
    weight_filler {
      type: "xavier"
    }
  }
}
layer {
  name: "conv1_relu"
  type: "ReLU"
  bottom: "conv1"
  top: "conv1"
}
layer {
  name: "pool1"
  type: "Pooling"
  bottom: "conv1"
  top: "pool1"
  pooling_param {
    pool: MAX
    kernel_size: 2
    stride: 2
  }
}
layer {
  name: "conv2"
  type: "Convolution"
  bottom: "pool1"
  top: "conv2"
  convolution_param {
    num_output: 150
    pad: 0
    kernel_size: 4
    group: 1
    stride: 1
    weight_filler {
      type: "xavier"
    }
  }
}
layer {
  name: "conv2_relu"
  type: "ReLU"
  bottom: "conv2"
  top: "conv2"
}
layer {
  name: "pool2"
  type: "Pooling"
  bottom: "conv2"
  top: "pool2"
  pooling_param {
    pool: MAX
    kernel_size: 2
    stride: 2
  }
}
layer {
  name: "conv3"
  type: "Convolution"
  bottom: "pool2"
  top: "conv3"
  convolution_param {
    num_output: 250
    pad: 0
    kernel_size: 4
    group: 1
    stride: 1
    weight_filler {
      type: "xavier"
    }
  }
}
layer {
  name: "conv3_relu"
  type: "ReLU"
  bottom: "conv3"
  top: "conv3"
}
layer {
  name: "pool3"
  type: "Pooling"
  bottom: "conv3"
  top: "pool3"
  pooling_param {
    pool: MAX
    kernel_size: 2
    stride: 2
  }
}
layer {
  name: "fc4_300"
  type: "InnerProduct"
  bottom: "pool3"
  top: "fc4_300"
  inner_product_param {
    num_output: 300
    weight_filler {
      type: "xavier"
    }
  }
}
layer {
  name: "fc4_relu"
  type: "ReLU"
  bottom: "fc4_300"
  top: "fc4_300"
}
layer {
  name: "drop4"
  type: "Dropout"
  bottom: "fc4_300"
  top: "fc4_300"
  dropout_param {
    dropout_ratio: 0.5
  }
}
layer {
  name: "fc5_106"
  type: "InnerProduct"
  bottom: "fc4_300"
  top: "fc5_classes"
  inner_product_param {
    num_output: 106
    weight_filler {
      type: "xavier"
    }
  }
}
layer {
  name: "softmax"
  type: "Softmax"
  bottom: "fc5_classes"
  top: "softmax"
}
layer {
  name: "loss"
  type: "MultinomialLogisticLoss"
  bottom: "softmax"
  bottom: "label"
  top: "loss"
}
layer {
  name: "accuracy_1"
  type: "Accuracy"
  bottom: "fc5_classes"
  bottom: "label"
  top: "accuracy_1"
  accuracy_param {
    top_k: 1
  }
}
layer {
  name: "accuracy_5"
  type: "Accuracy"
  bottom: "fc5_classes"
  bottom: "label"
  top: "accuracy_5"
  accuracy_param {
    top_k: 5
  }
}
layer {
  name: "silence"
  type: "Silence"
  bottom: "accuracy_1"
  bottom: "accuracy_5"
}
I0415 21:38:38.292973 11161 layer_factory.hpp:77] Creating layer data
I0415 21:38:38.294584 11161 net.cpp:100] Creating Layer data
I0415 21:38:38.294603 11161 net.cpp:408] data -> data
I0415 21:38:38.294634 11161 net.cpp:408] data -> label
I0415 21:38:38.320063 11275 db_lmdb.cpp:35] Opened lmdb ../local_data/lmdb/rtsd-r3/imajust/train/lmdb
I0415 21:38:38.363111 11161 data_layer.cpp:41] output data size: 1024,3,48,48
I0415 21:38:38.435400 11161 net.cpp:150] Setting up data
I0415 21:38:38.435432 11161 net.cpp:157] Top shape: 1024 3 48 48 (7077888)
I0415 21:38:38.435441 11161 net.cpp:157] Top shape: 1024 (1024)
I0415 21:38:38.435444 11161 net.cpp:165] Memory required for data: 28315648
I0415 21:38:38.435457 11161 layer_factory.hpp:77] Creating layer label_data_1_split
I0415 21:38:38.435473 11161 net.cpp:100] Creating Layer label_data_1_split
I0415 21:38:38.435483 11161 net.cpp:434] label_data_1_split <- label
I0415 21:38:38.435503 11161 net.cpp:408] label_data_1_split -> label_data_1_split_0
I0415 21:38:38.435518 11161 net.cpp:408] label_data_1_split -> label_data_1_split_1
I0415 21:38:38.435529 11161 net.cpp:408] label_data_1_split -> label_data_1_split_2
I0415 21:38:38.435628 11161 net.cpp:150] Setting up label_data_1_split
I0415 21:38:38.435645 11161 net.cpp:157] Top shape: 1024 (1024)
I0415 21:38:38.435650 11161 net.cpp:157] Top shape: 1024 (1024)
I0415 21:38:38.435657 11161 net.cpp:157] Top shape: 1024 (1024)
I0415 21:38:38.435662 11161 net.cpp:165] Memory required for data: 28327936
I0415 21:38:38.435665 11161 layer_factory.hpp:77] Creating layer conv1
I0415 21:38:38.435685 11161 net.cpp:100] Creating Layer conv1
I0415 21:38:38.435693 11161 net.cpp:434] conv1 <- data
I0415 21:38:38.435700 11161 net.cpp:408] conv1 -> conv1
I0415 21:38:38.510771 11291 blocking_queue.cpp:50] Waiting for data
I0415 21:38:38.762643 11161 net.cpp:150] Setting up conv1
I0415 21:38:38.762672 11161 net.cpp:157] Top shape: 1024 100 42 42 (180633600)
I0415 21:38:38.762676 11161 net.cpp:165] Memory required for data: 750862336
I0415 21:38:38.762699 11161 layer_factory.hpp:77] Creating layer conv1_relu
I0415 21:38:38.762711 11161 net.cpp:100] Creating Layer conv1_relu
I0415 21:38:38.762717 11161 net.cpp:434] conv1_relu <- conv1
I0415 21:38:38.762722 11161 net.cpp:395] conv1_relu -> conv1 (in-place)
I0415 21:38:38.762920 11161 net.cpp:150] Setting up conv1_relu
I0415 21:38:38.762933 11161 net.cpp:157] Top shape: 1024 100 42 42 (180633600)
I0415 21:38:38.762936 11161 net.cpp:165] Memory required for data: 1473396736
I0415 21:38:38.762940 11161 layer_factory.hpp:77] Creating layer pool1
I0415 21:38:38.762950 11161 net.cpp:100] Creating Layer pool1
I0415 21:38:38.762955 11161 net.cpp:434] pool1 <- conv1
I0415 21:38:38.762961 11161 net.cpp:408] pool1 -> pool1
I0415 21:38:38.763016 11161 net.cpp:150] Setting up pool1
I0415 21:38:38.763025 11161 net.cpp:157] Top shape: 1024 100 21 21 (45158400)
I0415 21:38:38.763028 11161 net.cpp:165] Memory required for data: 1654030336
I0415 21:38:38.763032 11161 layer_factory.hpp:77] Creating layer conv2
I0415 21:38:38.763042 11161 net.cpp:100] Creating Layer conv2
I0415 21:38:38.763047 11161 net.cpp:434] conv2 <- pool1
I0415 21:38:38.763053 11161 net.cpp:408] conv2 -> conv2
I0415 21:38:38.771209 11161 net.cpp:150] Setting up conv2
I0415 21:38:38.771232 11161 net.cpp:157] Top shape: 1024 150 18 18 (49766400)
I0415 21:38:38.771237 11161 net.cpp:165] Memory required for data: 1853095936
I0415 21:38:38.771250 11161 layer_factory.hpp:77] Creating layer conv2_relu
I0415 21:38:38.771258 11161 net.cpp:100] Creating Layer conv2_relu
I0415 21:38:38.771262 11161 net.cpp:434] conv2_relu <- conv2
I0415 21:38:38.771268 11161 net.cpp:395] conv2_relu -> conv2 (in-place)
I0415 21:38:38.772569 11161 net.cpp:150] Setting up conv2_relu
I0415 21:38:38.772589 11161 net.cpp:157] Top shape: 1024 150 18 18 (49766400)
I0415 21:38:38.772593 11161 net.cpp:165] Memory required for data: 2052161536
I0415 21:38:38.772598 11161 layer_factory.hpp:77] Creating layer pool2
I0415 21:38:38.772609 11161 net.cpp:100] Creating Layer pool2
I0415 21:38:38.772619 11161 net.cpp:434] pool2 <- conv2
I0415 21:38:38.772624 11161 net.cpp:408] pool2 -> pool2
I0415 21:38:38.772678 11161 net.cpp:150] Setting up pool2
I0415 21:38:38.772687 11161 net.cpp:157] Top shape: 1024 150 9 9 (12441600)
I0415 21:38:38.772691 11161 net.cpp:165] Memory required for data: 2101927936
I0415 21:38:38.772718 11161 layer_factory.hpp:77] Creating layer conv3
I0415 21:38:38.772732 11161 net.cpp:100] Creating Layer conv3
I0415 21:38:38.772737 11161 net.cpp:434] conv3 <- pool2
I0415 21:38:38.772749 11161 net.cpp:408] conv3 -> conv3
I0415 21:38:38.778985 11161 net.cpp:150] Setting up conv3
I0415 21:38:38.779003 11161 net.cpp:157] Top shape: 1024 250 6 6 (9216000)
I0415 21:38:38.779009 11161 net.cpp:165] Memory required for data: 2138791936
I0415 21:38:38.779021 11161 layer_factory.hpp:77] Creating layer conv3_relu
I0415 21:38:38.779029 11161 net.cpp:100] Creating Layer conv3_relu
I0415 21:38:38.779036 11161 net.cpp:434] conv3_relu <- conv3
I0415 21:38:38.779042 11161 net.cpp:395] conv3_relu -> conv3 (in-place)
I0415 21:38:38.780095 11161 net.cpp:150] Setting up conv3_relu
I0415 21:38:38.780117 11161 net.cpp:157] Top shape: 1024 250 6 6 (9216000)
I0415 21:38:38.780123 11161 net.cpp:165] Memory required for data: 2175655936
I0415 21:38:38.780128 11161 layer_factory.hpp:77] Creating layer pool3
I0415 21:38:38.780135 11161 net.cpp:100] Creating Layer pool3
I0415 21:38:38.780140 11161 net.cpp:434] pool3 <- conv3
I0415 21:38:38.780146 11161 net.cpp:408] pool3 -> pool3
I0415 21:38:38.780197 11161 net.cpp:150] Setting up pool3
I0415 21:38:38.780206 11161 net.cpp:157] Top shape: 1024 250 3 3 (2304000)
I0415 21:38:38.780211 11161 net.cpp:165] Memory required for data: 2184871936
I0415 21:38:38.780215 11161 layer_factory.hpp:77] Creating layer fc4_300
I0415 21:38:38.780223 11161 net.cpp:100] Creating Layer fc4_300
I0415 21:38:38.780232 11161 net.cpp:434] fc4_300 <- pool3
I0415 21:38:38.780247 11161 net.cpp:408] fc4_300 -> fc4_300
I0415 21:38:38.786787 11161 net.cpp:150] Setting up fc4_300
I0415 21:38:38.786808 11161 net.cpp:157] Top shape: 1024 300 (307200)
I0415 21:38:38.786811 11161 net.cpp:165] Memory required for data: 2186100736
I0415 21:38:38.786819 11161 layer_factory.hpp:77] Creating layer fc4_relu
I0415 21:38:38.786828 11161 net.cpp:100] Creating Layer fc4_relu
I0415 21:38:38.786834 11161 net.cpp:434] fc4_relu <- fc4_300
I0415 21:38:38.786839 11161 net.cpp:395] fc4_relu -> fc4_300 (in-place)
I0415 21:38:38.787027 11161 net.cpp:150] Setting up fc4_relu
I0415 21:38:38.787039 11161 net.cpp:157] Top shape: 1024 300 (307200)
I0415 21:38:38.787044 11161 net.cpp:165] Memory required for data: 2187329536
I0415 21:38:38.787047 11161 layer_factory.hpp:77] Creating layer drop4
I0415 21:38:38.787057 11161 net.cpp:100] Creating Layer drop4
I0415 21:38:38.787065 11161 net.cpp:434] drop4 <- fc4_300
I0415 21:38:38.787072 11161 net.cpp:395] drop4 -> fc4_300 (in-place)
I0415 21:38:38.787118 11161 net.cpp:150] Setting up drop4
I0415 21:38:38.787134 11161 net.cpp:157] Top shape: 1024 300 (307200)
I0415 21:38:38.787142 11161 net.cpp:165] Memory required for data: 2188558336
I0415 21:38:38.787149 11161 layer_factory.hpp:77] Creating layer fc5_106
I0415 21:38:38.787163 11161 net.cpp:100] Creating Layer fc5_106
I0415 21:38:38.787169 11161 net.cpp:434] fc5_106 <- fc4_300
I0415 21:38:38.787178 11161 net.cpp:408] fc5_106 -> fc5_classes
I0415 21:38:38.789134 11161 net.cpp:150] Setting up fc5_106
I0415 21:38:38.789155 11161 net.cpp:157] Top shape: 1024 106 (108544)
I0415 21:38:38.789163 11161 net.cpp:165] Memory required for data: 2188992512
I0415 21:38:38.789180 11161 layer_factory.hpp:77] Creating layer fc5_classes_fc5_106_0_split
I0415 21:38:38.789193 11161 net.cpp:100] Creating Layer fc5_classes_fc5_106_0_split
I0415 21:38:38.789201 11161 net.cpp:434] fc5_classes_fc5_106_0_split <- fc5_classes
I0415 21:38:38.789211 11161 net.cpp:408] fc5_classes_fc5_106_0_split -> fc5_classes_fc5_106_0_split_0
I0415 21:38:38.789224 11161 net.cpp:408] fc5_classes_fc5_106_0_split -> fc5_classes_fc5_106_0_split_1
I0415 21:38:38.789237 11161 net.cpp:408] fc5_classes_fc5_106_0_split -> fc5_classes_fc5_106_0_split_2
I0415 21:38:38.789302 11161 net.cpp:150] Setting up fc5_classes_fc5_106_0_split
I0415 21:38:38.789314 11161 net.cpp:157] Top shape: 1024 106 (108544)
I0415 21:38:38.789322 11161 net.cpp:157] Top shape: 1024 106 (108544)
I0415 21:38:38.789331 11161 net.cpp:157] Top shape: 1024 106 (108544)
I0415 21:38:38.789360 11161 net.cpp:165] Memory required for data: 2190295040
I0415 21:38:38.789367 11161 layer_factory.hpp:77] Creating layer softmax
I0415 21:38:38.789379 11161 net.cpp:100] Creating Layer softmax
I0415 21:38:38.789386 11161 net.cpp:434] softmax <- fc5_classes_fc5_106_0_split_0
I0415 21:38:38.789397 11161 net.cpp:408] softmax -> softmax
I0415 21:38:38.789710 11161 net.cpp:150] Setting up softmax
I0415 21:38:38.789726 11161 net.cpp:157] Top shape: 1024 106 (108544)
I0415 21:38:38.789734 11161 net.cpp:165] Memory required for data: 2190729216
I0415 21:38:38.789741 11161 layer_factory.hpp:77] Creating layer loss
I0415 21:38:38.789752 11161 net.cpp:100] Creating Layer loss
I0415 21:38:38.789759 11161 net.cpp:434] loss <- softmax
I0415 21:38:38.789768 11161 net.cpp:434] loss <- label_data_1_split_0
I0415 21:38:38.789777 11161 net.cpp:408] loss -> loss
…
