…
I0414 17:49:20.693253 17958 solver.cpp:93] Creating training net from train_net file: ./Prototxt/experiment_11/rtsd-r3/imajust/trial_4/train.prototxt
I0414 17:49:20.711521 17958 net.cpp:58] Initializing net from parameters: 
state {
  phase: TRAIN
  level: 0
  stage: ""
}
layer {
  name: "data"
  type: "Data"
  top: "data"
  top: "label"
  include {
    phase: TRAIN
  }
  transform_param {
    scale: 0.0039215689
    mirror: false
    crop_size: 48
    mean_value: 118
    mean_value: 112
    mean_value: 112
  }
  data_param {
    source: "../local_data/lmdb/rtsd-r3/imajust/train/lmdb"
    batch_size: 1024
    backend: LMDB
  }
}
layer {
  name: "conv1"
  type: "Convolution"
  bottom: "data"
  top: "conv1"
  convolution_param {
    num_output: 100
    pad: 0
    kernel_size: 7
    group: 1
    stride: 1
    weight_filler {
      type: "xavier"
    }
  }
}
layer {
  name: "conv1_prescale"
  type: "Scale"
  bottom: "conv1"
  top: "conv1"
  param {
    lr_mult: 0
    decay_mult: 0
  }
  scale_param {
    filler {
      value: 0.6666
    }
    bias_term: false
  }
}
layer {
  name: "conv1_sTanH"
  type: "TanH"
  bottom: "conv1"
  top: "conv1"
}
layer {
  name: "conv1_postscale"
  type: "Scale"
  bottom: "conv1"
  top: "conv1"
  param {
    lr_mult: 0
    decay_mult: 0
  }
  scale_param {
    filler {
      value: 1.7159
    }
    bias_term: false
  }
}
layer {
  name: "pool1"
  type: "Pooling"
  bottom: "conv1"
  top: "pool1"
  pooling_param {
    pool: MAX
    kernel_size: 2
    stride: 2
  }
}
layer {
  name: "conv2"
  type: "Convolution"
  bottom: "pool1"
  top: "conv2"
  convolution_param {
    num_output: 150
    pad: 0
    kernel_size: 4
    group: 1
    stride: 1
    weight_filler {
      type: "xavier"
    }
  }
}
layer {
  name: "conv2_prescale"
  type: "Scale"
  bottom: "conv2"
  top: "conv2"
  param {
    lr_mult: 0
    decay_mult: 0
  }
  scale_param {
    filler {
      value: 0.6666
    }
    bias_term: false
  }
}
layer {
  name: "conv2_sTanH"
  type: "TanH"
  bottom: "conv2"
  top: "conv2"
}
layer {
  name: "conv2_postscale"
  type: "Scale"
  bottom: "conv2"
  top: "conv2"
  param {
    lr_mult: 0
    decay_mult: 0
  }
  scale_param {
    filler {
      value: 1.7159
    }
    bias_term: false
  }
}
layer {
  name: "pool2"
  type: "Pooling"
  bottom: "conv2"
  top: "pool2"
  pooling_param {
    pool: MAX
    kernel_size: 2
    stride: 2
  }
}
layer {
  name: "conv3"
  type: "Convolution"
  bottom: "pool2"
  top: "conv3"
  convolution_param {
    num_output: 250
    pad: 0
    kernel_size: 4
    group: 1
    stride: 1
    weight_filler {
      type: "xavier"
    }
  }
}
layer {
  name: "conv3_prescale"
  type: "Scale"
  bottom: "conv3"
  top: "conv3"
  param {
    lr_mult: 0
    decay_mult: 0
  }
  scale_param {
    filler {
      value: 0.6666
    }
    bias_term: false
  }
}
layer {
  name: "conv3_sTanH"
  type: "TanH"
  bottom: "conv3"
  top: "conv3"
}
layer {
  name: "conv3_postscale"
  type: "Scale"
  bottom: "conv3"
  top: "conv3"
  param {
    lr_mult: 0
    decay_mult: 0
  }
  scale_param {
    filler {
      value: 1.7159
    }
    bias_term: false
  }
}
layer {
  name: "pool3"
  type: "Pooling"
  bottom: "conv3"
  top: "pool3"
  pooling_param {
    pool: MAX
    kernel_size: 2
    stride: 2
  }
}
layer {
  name: "fc4_300"
  type: "InnerProduct"
  bottom: "pool3"
  top: "fc4_300"
  inner_product_param {
    num_output: 300
    weight_filler {
      type: "xavier"
    }
  }
}
layer {
  name: "fc4_prescale"
  type: "Scale"
  bottom: "fc4_300"
  top: "fc4_300"
  param {
    lr_mult: 0
    decay_mult: 0
  }
  scale_param {
    filler {
      value: 0.6666
    }
    bias_term: false
  }
}
layer {
  name: "fc4_sTanH"
  type: "TanH"
  bottom: "fc4_300"
  top: "fc4_300"
}
layer {
  name: "fc4_postscale"
  type: "Scale"
  bottom: "fc4_300"
  top: "fc4_300"
  param {
    lr_mult: 0
    decay_mult: 0
  }
  scale_param {
    filler {
      value: 1.7159
    }
    bias_term: false
  }
}
layer {
  name: "fc5_106"
  type: "InnerProduct"
  bottom: "fc4_300"
  top: "fc5_classes"
  inner_product_param {
    num_output: 106
    weight_filler {
      type: "xavier"
    }
  }
}
layer {
  name: "softmax"
  type: "Softmax"
  bottom: "fc5_classes"
  top: "softmax"
}
layer {
  name: "loss"
  type: "MultinomialLogisticLoss"
  bottom: "softmax"
  bottom: "label"
  top: "loss"
}
layer {
  name: "accuracy_1"
  type: "Accuracy"
  bottom: "fc5_classes"
  bottom: "label"
  top: "accuracy_1"
  accuracy_param {
    top_k: 1
  }
}
layer {
  name: "accuracy_5"
  type: "Accuracy"
  bottom: "fc5_classes"
  bottom: "label"
  top: "accuracy_5"
  accuracy_param {
    top_k: 5
  }
}
layer {
  name: "silence"
  type: "Silence"
  bottom: "accuracy_1"
  bottom: "accuracy_5"
}
I0414 17:49:20.711690 17958 layer_factory.hpp:77] Creating layer data
I0414 17:49:20.712803 17958 net.cpp:100] Creating Layer data
I0414 17:49:20.712819 17958 net.cpp:408] data -> data
I0414 17:49:20.712841 17958 net.cpp:408] data -> label
I0414 17:49:20.714857 18086 db_lmdb.cpp:35] Opened lmdb ../local_data/lmdb/rtsd-r3/imajust/train/lmdb
I0414 17:49:20.734844 17958 data_layer.cpp:41] output data size: 1024,3,48,48
I0414 17:49:20.807092 17958 net.cpp:150] Setting up data
I0414 17:49:20.807133 17958 net.cpp:157] Top shape: 1024 3 48 48 (7077888)
I0414 17:49:20.807140 17958 net.cpp:157] Top shape: 1024 (1024)
I0414 17:49:20.807147 17958 net.cpp:165] Memory required for data: 28315648
I0414 17:49:20.807162 17958 layer_factory.hpp:77] Creating layer label_data_1_split
I0414 17:49:20.807183 17958 net.cpp:100] Creating Layer label_data_1_split
I0414 17:49:20.807194 17958 net.cpp:434] label_data_1_split <- label
I0414 17:49:20.807216 17958 net.cpp:408] label_data_1_split -> label_data_1_split_0
I0414 17:49:20.807237 17958 net.cpp:408] label_data_1_split -> label_data_1_split_1
I0414 17:49:20.807250 17958 net.cpp:408] label_data_1_split -> label_data_1_split_2
I0414 17:49:20.807442 17958 net.cpp:150] Setting up label_data_1_split
I0414 17:49:20.807456 17958 net.cpp:157] Top shape: 1024 (1024)
I0414 17:49:20.807461 17958 net.cpp:157] Top shape: 1024 (1024)
I0414 17:49:20.807467 17958 net.cpp:157] Top shape: 1024 (1024)
I0414 17:49:20.807471 17958 net.cpp:165] Memory required for data: 28327936
I0414 17:49:20.807476 17958 layer_factory.hpp:77] Creating layer conv1
I0414 17:49:20.807502 17958 net.cpp:100] Creating Layer conv1
I0414 17:49:20.807509 17958 net.cpp:434] conv1 <- data
I0414 17:49:20.807521 17958 net.cpp:408] conv1 -> conv1
I0414 17:49:21.644752 17958 net.cpp:150] Setting up conv1
I0414 17:49:21.644780 17958 net.cpp:157] Top shape: 1024 100 42 42 (180633600)
I0414 17:49:21.644784 17958 net.cpp:165] Memory required for data: 750862336
I0414 17:49:21.644807 17958 layer_factory.hpp:77] Creating layer conv1_prescale
I0414 17:49:21.644821 17958 net.cpp:100] Creating Layer conv1_prescale
I0414 17:49:21.644826 17958 net.cpp:434] conv1_prescale <- conv1
I0414 17:49:21.644832 17958 net.cpp:395] conv1_prescale -> conv1 (in-place)
I0414 17:49:21.644942 17958 net.cpp:150] Setting up conv1_prescale
I0414 17:49:21.644950 17958 net.cpp:157] Top shape: 1024 100 42 42 (180633600)
I0414 17:49:21.644956 17958 net.cpp:165] Memory required for data: 1473396736
I0414 17:49:21.644963 17958 layer_factory.hpp:77] Creating layer conv1_sTanH
I0414 17:49:21.644973 17958 net.cpp:100] Creating Layer conv1_sTanH
I0414 17:49:21.644979 17958 net.cpp:434] conv1_sTanH <- conv1
I0414 17:49:21.644982 17958 net.cpp:395] conv1_sTanH -> conv1 (in-place)
I0414 17:49:21.645339 17958 net.cpp:150] Setting up conv1_sTanH
I0414 17:49:21.645390 17958 net.cpp:157] Top shape: 1024 100 42 42 (180633600)
I0414 17:49:21.645398 17958 net.cpp:165] Memory required for data: 2195931136
I0414 17:49:21.645407 17958 layer_factory.hpp:77] Creating layer conv1_postscale
I0414 17:49:21.645423 17958 net.cpp:100] Creating Layer conv1_postscale
I0414 17:49:21.645433 17958 net.cpp:434] conv1_postscale <- conv1
I0414 17:49:21.645447 17958 net.cpp:395] conv1_postscale -> conv1 (in-place)
I0414 17:49:21.645658 17958 net.cpp:150] Setting up conv1_postscale
I0414 17:49:21.645673 17958 net.cpp:157] Top shape: 1024 100 42 42 (180633600)
I0414 17:49:21.645680 17958 net.cpp:165] Memory required for data: 2918465536
I0414 17:49:21.645694 17958 layer_factory.hpp:77] Creating layer pool1
I0414 17:49:21.645710 17958 net.cpp:100] Creating Layer pool1
I0414 17:49:21.645720 17958 net.cpp:434] pool1 <- conv1
I0414 17:49:21.645732 17958 net.cpp:408] pool1 -> pool1
I0414 17:49:21.645839 17958 net.cpp:150] Setting up pool1
I0414 17:49:21.645856 17958 net.cpp:157] Top shape: 1024 100 21 21 (45158400)
I0414 17:49:21.645864 17958 net.cpp:165] Memory required for data: 3099099136
I0414 17:49:21.645874 17958 layer_factory.hpp:77] Creating layer conv2
I0414 17:49:21.645896 17958 net.cpp:100] Creating Layer conv2
I0414 17:49:21.645906 17958 net.cpp:434] conv2 <- pool1
I0414 17:49:21.645920 17958 net.cpp:408] conv2 -> conv2
I0414 17:49:21.654845 17958 net.cpp:150] Setting up conv2
I0414 17:49:21.654867 17958 net.cpp:157] Top shape: 1024 150 18 18 (49766400)
I0414 17:49:21.654871 17958 net.cpp:165] Memory required for data: 3298164736
I0414 17:49:21.654883 17958 layer_factory.hpp:77] Creating layer conv2_prescale
I0414 17:49:21.654896 17958 net.cpp:100] Creating Layer conv2_prescale
I0414 17:49:21.654901 17958 net.cpp:434] conv2_prescale <- conv2
I0414 17:49:21.654908 17958 net.cpp:395] conv2_prescale -> conv2 (in-place)
I0414 17:49:21.655020 17958 net.cpp:150] Setting up conv2_prescale
I0414 17:49:21.655030 17958 net.cpp:157] Top shape: 1024 150 18 18 (49766400)
I0414 17:49:21.655035 17958 net.cpp:165] Memory required for data: 3497230336
I0414 17:49:21.655040 17958 layer_factory.hpp:77] Creating layer conv2_sTanH
I0414 17:49:21.655045 17958 net.cpp:100] Creating Layer conv2_sTanH
I0414 17:49:21.655050 17958 net.cpp:434] conv2_sTanH <- conv2
I0414 17:49:21.655055 17958 net.cpp:395] conv2_sTanH -> conv2 (in-place)
I0414 17:49:21.656684 17958 net.cpp:150] Setting up conv2_sTanH
I0414 17:49:21.656718 17958 net.cpp:157] Top shape: 1024 150 18 18 (49766400)
I0414 17:49:21.656726 17958 net.cpp:165] Memory required for data: 3696295936
I0414 17:49:21.656734 17958 layer_factory.hpp:77] Creating layer conv2_postscale
I0414 17:49:21.656750 17958 net.cpp:100] Creating Layer conv2_postscale
I0414 17:49:21.656760 17958 net.cpp:434] conv2_postscale <- conv2
I0414 17:49:21.656775 17958 net.cpp:395] conv2_postscale -> conv2 (in-place)
I0414 17:49:21.656988 17958 net.cpp:150] Setting up conv2_postscale
I0414 17:49:21.657004 17958 net.cpp:157] Top shape: 1024 150 18 18 (49766400)
I0414 17:49:21.657012 17958 net.cpp:165] Memory required for data: 3895361536
I0414 17:49:21.657027 17958 layer_factory.hpp:77] Creating layer pool2
I0414 17:49:21.657037 17958 net.cpp:100] Creating Layer pool2
I0414 17:49:21.657042 17958 net.cpp:434] pool2 <- conv2
I0414 17:49:21.657053 17958 net.cpp:408] pool2 -> pool2
I0414 17:49:21.657150 17958 net.cpp:150] Setting up pool2
I0414 17:49:21.657167 17958 net.cpp:157] Top shape: 1024 150 9 9 (12441600)
I0414 17:49:21.657176 17958 net.cpp:165] Memory required for data: 3945127936
I0414 17:49:21.657184 17958 layer_factory.hpp:77] Creating layer conv3
I0414 17:49:21.657203 17958 net.cpp:100] Creating Layer conv3
I0414 17:49:21.657212 17958 net.cpp:434] conv3 <- pool2
I0414 17:49:21.657225 17958 net.cpp:408] conv3 -> conv3
I0414 17:49:21.671952 17958 net.cpp:150] Setting up conv3
I0414 17:49:21.671991 17958 net.cpp:157] Top shape: 1024 250 6 6 (9216000)
I0414 17:49:21.672003 17958 net.cpp:165] Memory required for data: 3981991936
I0414 17:49:21.672029 17958 layer_factory.hpp:77] Creating layer conv3_prescale
I0414 17:49:21.672086 17958 net.cpp:100] Creating Layer conv3_prescale
I0414 17:49:21.672097 17958 net.cpp:434] conv3_prescale <- conv3
I0414 17:49:21.672112 17958 net.cpp:395] conv3_prescale -> conv3 (in-place)
I0414 17:49:21.672333 17958 net.cpp:150] Setting up conv3_prescale
I0414 17:49:21.672353 17958 net.cpp:157] Top shape: 1024 250 6 6 (9216000)
I0414 17:49:21.672361 17958 net.cpp:165] Memory required for data: 4018855936
I0414 17:49:21.672374 17958 layer_factory.hpp:77] Creating layer conv3_sTanH
I0414 17:49:21.672389 17958 net.cpp:100] Creating Layer conv3_sTanH
I0414 17:49:21.672397 17958 net.cpp:434] conv3_sTanH <- conv3
I0414 17:49:21.672410 17958 net.cpp:395] conv3_sTanH -> conv3 (in-place)
I0414 17:49:21.676265 17958 net.cpp:150] Setting up conv3_sTanH
I0414 17:49:21.676301 17958 net.cpp:157] Top shape: 1024 250 6 6 (9216000)
I0414 17:49:21.676311 17958 net.cpp:165] Memory required for data: 4055719936
I0414 17:49:21.676319 17958 layer_factory.hpp:77] Creating layer conv3_postscale
I0414 17:49:21.676336 17958 net.cpp:100] Creating Layer conv3_postscale
I0414 17:49:21.676344 17958 net.cpp:434] conv3_postscale <- conv3
I0414 17:49:21.676358 17958 net.cpp:395] conv3_postscale -> conv3 (in-place)
I0414 17:49:21.676584 17958 net.cpp:150] Setting up conv3_postscale
I0414 17:49:21.676601 17958 net.cpp:157] Top shape: 1024 250 6 6 (9216000)
I0414 17:49:21.676609 17958 net.cpp:165] Memory required for data: 4092583936
I0414 17:49:21.676623 17958 layer_factory.hpp:77] Creating layer pool3
I0414 17:49:21.676645 17958 net.cpp:100] Creating Layer pool3
I0414 17:49:21.676654 17958 net.cpp:434] pool3 <- conv3
I0414 17:49:21.676668 17958 net.cpp:408] pool3 -> pool3
I0414 17:49:21.676759 17958 net.cpp:150] Setting up pool3
I0414 17:49:21.676775 17958 net.cpp:157] Top shape: 1024 250 3 3 (2304000)
I0414 17:49:21.676784 17958 net.cpp:165] Memory required for data: 4101799936
I0414 17:49:21.676792 17958 layer_factory.hpp:77] Creating layer fc4_300
I0414 17:49:21.676803 17958 net.cpp:100] Creating Layer fc4_300
I0414 17:49:21.676812 17958 net.cpp:434] fc4_300 <- pool3
I0414 17:49:21.676825 17958 net.cpp:408] fc4_300 -> fc4_300
I0414 17:49:21.685319 17958 net.cpp:150] Setting up fc4_300
I0414 17:49:21.685336 17958 net.cpp:157] Top shape: 1024 300 (307200)
I0414 17:49:21.685340 17958 net.cpp:165] Memory required for data: 4103028736
I0414 17:49:21.685348 17958 layer_factory.hpp:77] Creating layer fc4_prescale
I0414 17:49:21.685356 17958 net.cpp:100] Creating Layer fc4_prescale
I0414 17:49:21.685362 17958 net.cpp:434] fc4_prescale <- fc4_300
I0414 17:49:21.685367 17958 net.cpp:395] fc4_prescale -> fc4_300 (in-place)
I0414 17:49:21.685456 17958 net.cpp:150] Setting up fc4_prescale
I0414 17:49:21.685464 17958 net.cpp:157] Top shape: 1024 300 (307200)
I0414 17:49:21.685469 17958 net.cpp:165] Memory required for data: 4104257536
I0414 17:49:21.685473 17958 layer_factory.hpp:77] Creating layer fc4_sTanH
I0414 17:49:21.685479 17958 net.cpp:100] Creating Layer fc4_sTanH
I0414 17:49:21.685483 17958 net.cpp:434] fc4_sTanH <- fc4_300
I0414 17:49:21.685488 17958 net.cpp:395] fc4_sTanH -> fc4_300 (in-place)
I0414 17:49:21.685669 17958 net.cpp:150] Setting up fc4_sTanH
I0414 17:49:21.685680 17958 net.cpp:157] Top shape: 1024 300 (307200)
I0414 17:49:21.685684 17958 net.cpp:165] Memory required for data: 4105486336
I0414 17:49:21.685688 17958 layer_factory.hpp:77] Creating layer fc4_postscale
I0414 17:49:21.685694 17958 net.cpp:100] Creating Layer fc4_postscale
I0414 17:49:21.685699 17958 net.cpp:434] fc4_postscale <- fc4_300
I0414 17:49:21.685704 17958 net.cpp:395] fc4_postscale -> fc4_300 (in-place)
I0414 17:49:21.685799 17958 net.cpp:150] Setting up fc4_postscale
I0414 17:49:21.685807 17958 net.cpp:157] Top shape: 1024 300 (307200)
I0414 17:49:21.685811 17958 net.cpp:165] Memory required for data: 4106715136
I0414 17:49:21.685816 17958 layer_factory.hpp:77] Creating layer fc5_106
I0414 17:49:21.685823 17958 net.cpp:100] Creating Layer fc5_106
I0414 17:49:21.685828 17958 net.cpp:434] fc5_106 <- fc4_300
I0414 17:49:21.685833 17958 net.cpp:408] fc5_106 -> fc5_classes
I0414 17:49:21.688022 17958 net.cpp:150] Setting up fc5_106
I0414 17:49:21.688053 17958 net.cpp:157] Top shape: 1024 106 (108544)
I0414 17:49:21.688063 17958 net.cpp:165] Memory required for data: 4107149312
I0414 17:49:21.688091 17958 layer_factory.hpp:77] Creating layer fc5_classes_fc5_106_0_split
I0414 17:49:21.688109 17958 net.cpp:100] Creating Layer fc5_classes_fc5_106_0_split
I0414 17:49:21.688118 17958 net.cpp:434] fc5_classes_fc5_106_0_split <- fc5_classes
I0414 17:49:21.688133 17958 net.cpp:408] fc5_classes_fc5_106_0_split -> fc5_classes_fc5_106_0_split_0
I0414 17:49:21.688153 17958 net.cpp:408] fc5_classes_fc5_106_0_split -> fc5_classes_fc5_106_0_split_1
I0414 17:49:21.688169 17958 net.cpp:408] fc5_classes_fc5_106_0_split -> fc5_classes_fc5_106_0_split_2
I0414 17:49:21.688275 17958 net.cpp:150] Setting up fc5_classes_fc5_106_0_split
I0414 17:49:21.688290 17958 net.cpp:157] Top shape: 1024 106 (108544)
I0414 17:49:21.688300 17958 net.cpp:157] Top shape: 1024 106 (108544)
I0414 17:49:21.688311 17958 net.cpp:157] Top shape: 1024 106 (108544)
I0414 17:49:21.688319 17958 net.cpp:165] Memory required for data: 4108451840
I0414 17:49:21.688328 17958 layer_factory.hpp:77] Creating layer softmax
I0414 17:49:21.688344 17958 net.cpp:100] Creating Layer softmax
I0414 17:49:21.688352 17958 net.cpp:434] softmax <- fc5_classes_fc5_106_0_split_0
I0414 17:49:21.688366 17958 net.cpp:408] softmax -> softmax
I0414 17:49:21.688906 17958 net.cpp:150] Setting up softmax
I0414 17:49:21.688931 17958 net.cpp:157] Top shape: 1024 106 (108544)
I0414 17:49:21.688941 17958 net.cpp:165] Memory required for data: 4108886016
I0414 17:49:21.688947 17958 layer_factory.hpp:77] Creating layer loss
I0414 17:49:21.688963 17958 net.cpp:100] Creating Layer loss
I0414 17:49:21.688972 17958 net.cpp:434] loss <- softmax
I0414 17:49:21.688985 17958 net.cpp:434] loss <- label_data_1_split_0
I0414 17:49:21.688998 17958 net.cpp:408] loss -> loss
…
