…
I0508 02:56:00.611086 17026 solver.cpp:93] Creating training net from train_net file: ./Prototxt/experiment_16/RTSD/CoNorm/trial_3/train.prototxt
I0508 02:56:00.611599 17026 net.cpp:58] Initializing net from parameters: 
state {
  phase: TRAIN
  level: 0
  stage: ""
}
layer {
  name: "data"
  type: "Data"
  top: "data"
  top: "label"
  include {
    phase: TRAIN
  }
  transform_param {
    scale: 0.0039215689
    mirror: false
    crop_size: 48
    mean_value: 135
    mean_value: 135
    mean_value: 134
  }
  data_param {
    source: "../local_data/lmdb/RTSD/CoNorm/train/lmdb"
    batch_size: 1024
    backend: LMDB
  }
}
layer {
  name: "conv1"
  type: "Convolution"
  bottom: "data"
  top: "conv1"
  convolution_param {
    num_output: 100
    pad: 0
    kernel_size: 7
    group: 1
    stride: 1
    weight_filler {
      type: "xavier"
    }
  }
}
layer {
  name: "conv1_relu"
  type: "ReLU"
  bottom: "conv1"
  top: "conv1"
}
layer {
  name: "pool1"
  type: "Pooling"
  bottom: "conv1"
  top: "pool1"
  pooling_param {
    pool: MAX
    kernel_size: 2
    stride: 2
  }
}
layer {
  name: "conv2"
  type: "Convolution"
  bottom: "pool1"
  top: "conv2"
  convolution_param {
    num_output: 150
    pad: 0
    kernel_size: 4
    group: 2
    stride: 1
    weight_filler {
      type: "xavier"
    }
  }
}
layer {
  name: "conv2_relu"
  type: "ReLU"
  bottom: "conv2"
  top: "conv2"
}
layer {
  name: "pool2"
  type: "Pooling"
  bottom: "conv2"
  top: "pool2"
  pooling_param {
    pool: MAX
    kernel_size: 2
    stride: 2
  }
}
layer {
  name: "conv3"
  type: "Convolution"
  bottom: "pool2"
  top: "conv3"
  convolution_param {
    num_output: 250
    pad: 0
    kernel_size: 4
    group: 2
    stride: 1
    weight_filler {
      type: "xavier"
    }
  }
}
layer {
  name: "conv3_relu"
  type: "ReLU"
  bottom: "conv3"
  top: "conv3"
}
layer {
  name: "pool3"
  type: "Pooling"
  bottom: "conv3"
  top: "pool3"
  pooling_param {
    pool: MAX
    kernel_size: 2
    stride: 2
  }
}
layer {
  name: "fc4_300"
  type: "InnerProduct"
  bottom: "pool3"
  top: "fc4_300"
  inner_product_param {
    num_output: 300
    weight_filler {
      type: "xavier"
    }
  }
}
layer {
  name: "fc4_relu"
  type: "ReLU"
  bottom: "fc4_300"
  top: "fc4_300"
}
layer {
  name: "fc5_116"
  type: "InnerProduct"
  bottom: "fc4_300"
  top: "fc5_classes"
  inner_product_param {
    num_output: 116
    weight_filler {
      type: "xavier"
    }
  }
}
layer {
  name: "softmax"
  type: "Softmax"
  bottom: "fc5_classes"
  top: "softmax"
}
layer {
  name: "loss"
  type: "MultinomialLogisticLoss"
  bottom: "softmax"
  bottom: "label"
  top: "loss"
}
layer {
  name: "accuracy_1"
  type: "Accuracy"
  bottom: "fc5_classes"
  bottom: "label"
  top: "accuracy_1"
  accuracy_param {
    top_k: 1
  }
}
layer {
  name: "accuracy_5"
  type: "Accuracy"
  bottom: "fc5_classes"
  bottom: "label"
  top: "accuracy_5"
  accuracy_param {
    top_k: 5
  }
}
layer {
  name: "silence"
  type: "Silence"
  bottom: "accuracy_1"
  bottom: "accuracy_5"
}
I0508 02:56:00.611789 17026 layer_factory.hpp:77] Creating layer data
I0508 02:56:00.613580 17026 net.cpp:100] Creating Layer data
I0508 02:56:00.613605 17026 net.cpp:408] data -> data
I0508 02:56:00.613638 17026 net.cpp:408] data -> label
I0508 02:56:00.615264 17132 db_lmdb.cpp:35] Opened lmdb ../local_data/lmdb/RTSD/CoNorm/train/lmdb
I0508 02:56:00.641115 17026 data_layer.cpp:41] output data size: 1024,3,48,48
I0508 02:56:00.696748 17026 net.cpp:150] Setting up data
I0508 02:56:00.696805 17026 net.cpp:157] Top shape: 1024 3 48 48 (7077888)
I0508 02:56:00.696813 17026 net.cpp:157] Top shape: 1024 (1024)
I0508 02:56:00.696816 17026 net.cpp:165] Memory required for data: 28315648
I0508 02:56:00.696830 17026 layer_factory.hpp:77] Creating layer label_data_1_split
I0508 02:56:00.696846 17026 net.cpp:100] Creating Layer label_data_1_split
I0508 02:56:00.696852 17026 net.cpp:434] label_data_1_split <- label
I0508 02:56:00.696871 17026 net.cpp:408] label_data_1_split -> label_data_1_split_0
I0508 02:56:00.696884 17026 net.cpp:408] label_data_1_split -> label_data_1_split_1
I0508 02:56:00.696893 17026 net.cpp:408] label_data_1_split -> label_data_1_split_2
I0508 02:56:00.696966 17026 net.cpp:150] Setting up label_data_1_split
I0508 02:56:00.696976 17026 net.cpp:157] Top shape: 1024 (1024)
I0508 02:56:00.696980 17026 net.cpp:157] Top shape: 1024 (1024)
I0508 02:56:00.696985 17026 net.cpp:157] Top shape: 1024 (1024)
I0508 02:56:00.696990 17026 net.cpp:165] Memory required for data: 28327936
I0508 02:56:00.696995 17026 layer_factory.hpp:77] Creating layer conv1
I0508 02:56:00.697011 17026 net.cpp:100] Creating Layer conv1
I0508 02:56:00.697017 17026 net.cpp:434] conv1 <- data
I0508 02:56:00.697024 17026 net.cpp:408] conv1 -> conv1
I0508 02:56:01.140190 17026 net.cpp:150] Setting up conv1
I0508 02:56:01.140223 17026 net.cpp:157] Top shape: 1024 100 42 42 (180633600)
I0508 02:56:01.140229 17026 net.cpp:165] Memory required for data: 750862336
I0508 02:56:01.140257 17026 layer_factory.hpp:77] Creating layer conv1_relu
I0508 02:56:01.140272 17026 net.cpp:100] Creating Layer conv1_relu
I0508 02:56:01.140280 17026 net.cpp:434] conv1_relu <- conv1
I0508 02:56:01.140287 17026 net.cpp:395] conv1_relu -> conv1 (in-place)
I0508 02:56:01.140563 17026 net.cpp:150] Setting up conv1_relu
I0508 02:56:01.140579 17026 net.cpp:157] Top shape: 1024 100 42 42 (180633600)
I0508 02:56:01.140583 17026 net.cpp:165] Memory required for data: 1473396736
I0508 02:56:01.140588 17026 layer_factory.hpp:77] Creating layer pool1
I0508 02:56:01.140600 17026 net.cpp:100] Creating Layer pool1
I0508 02:56:01.140606 17026 net.cpp:434] pool1 <- conv1
I0508 02:56:01.140615 17026 net.cpp:408] pool1 -> pool1
I0508 02:56:01.140691 17026 net.cpp:150] Setting up pool1
I0508 02:56:01.140702 17026 net.cpp:157] Top shape: 1024 100 21 21 (45158400)
I0508 02:56:01.140708 17026 net.cpp:165] Memory required for data: 1654030336
I0508 02:56:01.140713 17026 layer_factory.hpp:77] Creating layer conv2
I0508 02:56:01.140727 17026 net.cpp:100] Creating Layer conv2
I0508 02:56:01.140733 17026 net.cpp:434] conv2 <- pool1
I0508 02:56:01.140741 17026 net.cpp:408] conv2 -> conv2
I0508 02:56:01.148496 17026 net.cpp:150] Setting up conv2
I0508 02:56:01.148521 17026 net.cpp:157] Top shape: 1024 150 18 18 (49766400)
I0508 02:56:01.148527 17026 net.cpp:165] Memory required for data: 1853095936
I0508 02:56:01.148541 17026 layer_factory.hpp:77] Creating layer conv2_relu
I0508 02:56:01.148550 17026 net.cpp:100] Creating Layer conv2_relu
I0508 02:56:01.148555 17026 net.cpp:434] conv2_relu <- conv2
I0508 02:56:01.148563 17026 net.cpp:395] conv2_relu -> conv2 (in-place)
I0508 02:56:01.148813 17026 net.cpp:150] Setting up conv2_relu
I0508 02:56:01.148828 17026 net.cpp:157] Top shape: 1024 150 18 18 (49766400)
I0508 02:56:01.148831 17026 net.cpp:165] Memory required for data: 2052161536
I0508 02:56:01.148835 17026 layer_factory.hpp:77] Creating layer pool2
I0508 02:56:01.148844 17026 net.cpp:100] Creating Layer pool2
I0508 02:56:01.148850 17026 net.cpp:434] pool2 <- conv2
I0508 02:56:01.148857 17026 net.cpp:408] pool2 -> pool2
I0508 02:56:01.148923 17026 net.cpp:150] Setting up pool2
I0508 02:56:01.148933 17026 net.cpp:157] Top shape: 1024 150 9 9 (12441600)
I0508 02:56:01.148941 17026 net.cpp:165] Memory required for data: 2101927936
I0508 02:56:01.148944 17026 layer_factory.hpp:77] Creating layer conv3
I0508 02:56:01.148957 17026 net.cpp:100] Creating Layer conv3
I0508 02:56:01.148963 17026 net.cpp:434] conv3 <- pool2
I0508 02:56:01.148970 17026 net.cpp:408] conv3 -> conv3
I0508 02:56:01.161677 17026 net.cpp:150] Setting up conv3
I0508 02:56:01.161703 17026 net.cpp:157] Top shape: 1024 250 6 6 (9216000)
I0508 02:56:01.161708 17026 net.cpp:165] Memory required for data: 2138791936
I0508 02:56:01.161721 17026 layer_factory.hpp:77] Creating layer conv3_relu
I0508 02:56:01.161733 17026 net.cpp:100] Creating Layer conv3_relu
I0508 02:56:01.161739 17026 net.cpp:434] conv3_relu <- conv3
I0508 02:56:01.161749 17026 net.cpp:395] conv3_relu -> conv3 (in-place)
I0508 02:56:01.162015 17026 net.cpp:150] Setting up conv3_relu
I0508 02:56:01.162030 17026 net.cpp:157] Top shape: 1024 250 6 6 (9216000)
I0508 02:56:01.162035 17026 net.cpp:165] Memory required for data: 2175655936
I0508 02:56:01.162040 17026 layer_factory.hpp:77] Creating layer pool3
I0508 02:56:01.162051 17026 net.cpp:100] Creating Layer pool3
I0508 02:56:01.162057 17026 net.cpp:434] pool3 <- conv3
I0508 02:56:01.162065 17026 net.cpp:408] pool3 -> pool3
I0508 02:56:01.162127 17026 net.cpp:150] Setting up pool3
I0508 02:56:01.162137 17026 net.cpp:157] Top shape: 1024 250 3 3 (2304000)
I0508 02:56:01.162142 17026 net.cpp:165] Memory required for data: 2184871936
I0508 02:56:01.162145 17026 layer_factory.hpp:77] Creating layer fc4_300
I0508 02:56:01.162156 17026 net.cpp:100] Creating Layer fc4_300
I0508 02:56:01.162161 17026 net.cpp:434] fc4_300 <- pool3
I0508 02:56:01.162168 17026 net.cpp:408] fc4_300 -> fc4_300
I0508 02:56:01.170367 17026 net.cpp:150] Setting up fc4_300
I0508 02:56:01.170392 17026 net.cpp:157] Top shape: 1024 300 (307200)
I0508 02:56:01.170398 17026 net.cpp:165] Memory required for data: 2186100736
I0508 02:56:01.170408 17026 layer_factory.hpp:77] Creating layer fc4_relu
I0508 02:56:01.170418 17026 net.cpp:100] Creating Layer fc4_relu
I0508 02:56:01.170425 17026 net.cpp:434] fc4_relu <- fc4_300
I0508 02:56:01.170434 17026 net.cpp:395] fc4_relu -> fc4_300 (in-place)
I0508 02:56:01.172935 17026 net.cpp:150] Setting up fc4_relu
I0508 02:56:01.172957 17026 net.cpp:157] Top shape: 1024 300 (307200)
I0508 02:56:01.172961 17026 net.cpp:165] Memory required for data: 2187329536
I0508 02:56:01.172966 17026 layer_factory.hpp:77] Creating layer fc5_116
I0508 02:56:01.172977 17026 net.cpp:100] Creating Layer fc5_116
I0508 02:56:01.172982 17026 net.cpp:434] fc5_116 <- fc4_300
I0508 02:56:01.172991 17026 net.cpp:408] fc5_116 -> fc5_classes
I0508 02:56:01.174969 17026 net.cpp:150] Setting up fc5_116
I0508 02:56:01.174988 17026 net.cpp:157] Top shape: 1024 116 (118784)
I0508 02:56:01.174993 17026 net.cpp:165] Memory required for data: 2187804672
I0508 02:56:01.175006 17026 layer_factory.hpp:77] Creating layer fc5_classes_fc5_116_0_split
I0508 02:56:01.175019 17026 net.cpp:100] Creating Layer fc5_classes_fc5_116_0_split
I0508 02:56:01.175024 17026 net.cpp:434] fc5_classes_fc5_116_0_split <- fc5_classes
I0508 02:56:01.175030 17026 net.cpp:408] fc5_classes_fc5_116_0_split -> fc5_classes_fc5_116_0_split_0
I0508 02:56:01.175045 17026 net.cpp:408] fc5_classes_fc5_116_0_split -> fc5_classes_fc5_116_0_split_1
I0508 02:56:01.175055 17026 net.cpp:408] fc5_classes_fc5_116_0_split -> fc5_classes_fc5_116_0_split_2
I0508 02:56:01.175127 17026 net.cpp:150] Setting up fc5_classes_fc5_116_0_split
I0508 02:56:01.175137 17026 net.cpp:157] Top shape: 1024 116 (118784)
I0508 02:56:01.175144 17026 net.cpp:157] Top shape: 1024 116 (118784)
I0508 02:56:01.175148 17026 net.cpp:157] Top shape: 1024 116 (118784)
I0508 02:56:01.175153 17026 net.cpp:165] Memory required for data: 2189230080
I0508 02:56:01.175156 17026 layer_factory.hpp:77] Creating layer softmax
I0508 02:56:01.175165 17026 net.cpp:100] Creating Layer softmax
I0508 02:56:01.175171 17026 net.cpp:434] softmax <- fc5_classes_fc5_116_0_split_0
I0508 02:56:01.175179 17026 net.cpp:408] softmax -> softmax
I0508 02:56:01.175530 17026 net.cpp:150] Setting up softmax
I0508 02:56:01.175551 17026 net.cpp:157] Top shape: 1024 116 (118784)
I0508 02:56:01.175557 17026 net.cpp:165] Memory required for data: 2189705216
I0508 02:56:01.175562 17026 layer_factory.hpp:77] Creating layer loss
I0508 02:56:01.175598 17026 net.cpp:100] Creating Layer loss
I0508 02:56:01.175604 17026 net.cpp:434] loss <- softmax
I0508 02:56:01.175611 17026 net.cpp:434] loss <- label_data_1_split_0
I0508 02:56:01.175618 17026 net.cpp:408] loss -> loss
…
