…
I0409 05:02:25.631093 28748 net.cpp:322] The NetState phase (0) differed from the phase (1) specified by a rule in layer accuracy_5
I0409 05:02:25.631256 28748 net.cpp:58] Initializing net from parameters: 
state {
  phase: TRAIN
  level: 0
  stage: ""
}
layer {
  name: "data"
  type: "Data"
  top: "data"
  top: "label"
  include {
    phase: TRAIN
  }
  transform_param {
    mirror: false
    crop_size: 48
    mean_value: 132
    mean_value: 132
    mean_value: 131
  }
  data_param {
    source: "../local_data/lmdb/rtsd-r1/CoNorm/train/lmdb"
    batch_size: 1024
    backend: LMDB
  }
}
layer {
  name: "conv1"
  type: "Convolution"
  bottom: "data"
  top: "conv1"
  convolution_param {
    num_output: 100
    pad: 0
    kernel_size: 7
    group: 1
    stride: 1
    weight_filler {
      type: "xavier"
    }
  }
}
layer {
  name: "conv1_relu"
  type: "ReLU"
  bottom: "conv1"
  top: "conv1"
}
layer {
  name: "pool1"
  type: "Pooling"
  bottom: "conv1"
  top: "pool1"
  pooling_param {
    pool: MAX
    kernel_size: 2
    stride: 2
  }
}
layer {
  name: "conv2"
  type: "Convolution"
  bottom: "pool1"
  top: "conv2"
  convolution_param {
    num_output: 150
    pad: 0
    kernel_size: 4
    group: 1
    stride: 1
    weight_filler {
      type: "xavier"
    }
  }
}
layer {
  name: "conv2_relu"
  type: "ReLU"
  bottom: "conv2"
  top: "conv2"
}
layer {
  name: "pool2"
  type: "Pooling"
  bottom: "conv2"
  top: "pool2"
  pooling_param {
    pool: MAX
    kernel_size: 2
    stride: 2
  }
}
layer {
  name: "conv3"
  type: "Convolution"
  bottom: "pool2"
  top: "conv3"
  convolution_param {
    num_output: 250
    pad: 0
    kernel_size: 4
    group: 1
    stride: 1
    weight_filler {
      type: "xavier"
    }
  }
}
layer {
  name: "conv3_relu"
  type: "ReLU"
  bottom: "conv3"
  top: "conv3"
}
layer {
  name: "pool3"
  type: "Pooling"
  bottom: "conv3"
  top: "pool3"
  pooling_param {
    pool: MAX
    kernel_size: 2
    stride: 2
  }
}
layer {
  name: "fc4_300"
  type: "InnerProduct"
  bottom: "pool3"
  top: "fc4_300"
  inner_product_param {
    num_output: 300
    weight_filler {
      type: "xavier"
    }
  }
}
layer {
  name: "fc4_relu"
  type: "ReLU"
  bottom: "fc4_300"
  top: "fc4_300"
}
layer {
  name: "drop4"
  type: "Dropout"
  bottom: "fc4_300"
  top: "fc4_300"
  dropout_param {
    dropout_ratio: 0.4
  }
}
layer {
  name: "fc5_67"
  type: "InnerProduct"
  bottom: "fc4_300"
  top: "fc5_classes"
  inner_product_param {
    num_output: 67
    weight_filler {
      type: "xavier"
    }
  }
}
layer {
  name: "loss"
  type: "SoftmaxWithLoss"
  bottom: "fc5_classes"
  bottom: "label"
  top: "loss"
}
I0409 05:02:25.631369 28748 layer_factory.hpp:77] Creating layer data
I0409 05:02:25.633119 28748 net.cpp:100] Creating Layer data
I0409 05:02:25.633142 28748 net.cpp:408] data -> data
I0409 05:02:25.633175 28748 net.cpp:408] data -> label
I0409 05:02:25.634739 28817 db_lmdb.cpp:35] Opened lmdb ../local_data/lmdb/rtsd-r1/CoNorm/train/lmdb
I0409 05:02:25.660187 28748 data_layer.cpp:41] output data size: 1024,3,48,48
I0409 05:02:25.722404 28748 net.cpp:150] Setting up data
I0409 05:02:25.722441 28748 net.cpp:157] Top shape: 1024 3 48 48 (7077888)
I0409 05:02:25.722482 28748 net.cpp:157] Top shape: 1024 (1024)
I0409 05:02:25.722487 28748 net.cpp:165] Memory required for data: 28315648
I0409 05:02:25.722501 28748 layer_factory.hpp:77] Creating layer conv1
I0409 05:02:25.722527 28748 net.cpp:100] Creating Layer conv1
I0409 05:02:25.722535 28748 net.cpp:434] conv1 <- data
I0409 05:02:25.722550 28748 net.cpp:408] conv1 -> conv1
I0409 05:02:26.066944 28748 net.cpp:150] Setting up conv1
I0409 05:02:26.066982 28748 net.cpp:157] Top shape: 1024 100 42 42 (180633600)
I0409 05:02:26.066988 28748 net.cpp:165] Memory required for data: 750850048
I0409 05:02:26.067013 28748 layer_factory.hpp:77] Creating layer conv1_relu
I0409 05:02:26.067028 28748 net.cpp:100] Creating Layer conv1_relu
I0409 05:02:26.067034 28748 net.cpp:434] conv1_relu <- conv1
I0409 05:02:26.067041 28748 net.cpp:395] conv1_relu -> conv1 (in-place)
I0409 05:02:26.067279 28748 net.cpp:150] Setting up conv1_relu
I0409 05:02:26.067294 28748 net.cpp:157] Top shape: 1024 100 42 42 (180633600)
I0409 05:02:26.067298 28748 net.cpp:165] Memory required for data: 1473384448
I0409 05:02:26.067303 28748 layer_factory.hpp:77] Creating layer pool1
I0409 05:02:26.067312 28748 net.cpp:100] Creating Layer pool1
I0409 05:02:26.067318 28748 net.cpp:434] pool1 <- conv1
I0409 05:02:26.067325 28748 net.cpp:408] pool1 -> pool1
I0409 05:02:26.067390 28748 net.cpp:150] Setting up pool1
I0409 05:02:26.067401 28748 net.cpp:157] Top shape: 1024 100 21 21 (45158400)
I0409 05:02:26.067405 28748 net.cpp:165] Memory required for data: 1654018048
I0409 05:02:26.067409 28748 layer_factory.hpp:77] Creating layer conv2
I0409 05:02:26.067425 28748 net.cpp:100] Creating Layer conv2
I0409 05:02:26.067430 28748 net.cpp:434] conv2 <- pool1
I0409 05:02:26.067436 28748 net.cpp:408] conv2 -> conv2
I0409 05:02:26.072706 28748 net.cpp:150] Setting up conv2
I0409 05:02:26.072728 28748 net.cpp:157] Top shape: 1024 150 18 18 (49766400)
I0409 05:02:26.072733 28748 net.cpp:165] Memory required for data: 1853083648
I0409 05:02:26.072746 28748 layer_factory.hpp:77] Creating layer conv2_relu
I0409 05:02:26.072754 28748 net.cpp:100] Creating Layer conv2_relu
I0409 05:02:26.072758 28748 net.cpp:434] conv2_relu <- conv2
I0409 05:02:26.072764 28748 net.cpp:395] conv2_relu -> conv2 (in-place)
I0409 05:02:26.073673 28748 net.cpp:150] Setting up conv2_relu
I0409 05:02:26.073693 28748 net.cpp:157] Top shape: 1024 150 18 18 (49766400)
I0409 05:02:26.073698 28748 net.cpp:165] Memory required for data: 2052149248
I0409 05:02:26.073703 28748 layer_factory.hpp:77] Creating layer pool2
I0409 05:02:26.073710 28748 net.cpp:100] Creating Layer pool2
I0409 05:02:26.073715 28748 net.cpp:434] pool2 <- conv2
I0409 05:02:26.073722 28748 net.cpp:408] pool2 -> pool2
I0409 05:02:26.073778 28748 net.cpp:150] Setting up pool2
I0409 05:02:26.073789 28748 net.cpp:157] Top shape: 1024 150 9 9 (12441600)
I0409 05:02:26.073793 28748 net.cpp:165] Memory required for data: 2101915648
I0409 05:02:26.073797 28748 layer_factory.hpp:77] Creating layer conv3
I0409 05:02:26.073807 28748 net.cpp:100] Creating Layer conv3
I0409 05:02:26.073815 28748 net.cpp:434] conv3 <- pool2
I0409 05:02:26.073822 28748 net.cpp:408] conv3 -> conv3
I0409 05:02:26.080540 28748 net.cpp:150] Setting up conv3
I0409 05:02:26.080562 28748 net.cpp:157] Top shape: 1024 250 6 6 (9216000)
I0409 05:02:26.080567 28748 net.cpp:165] Memory required for data: 2138779648
I0409 05:02:26.080579 28748 layer_factory.hpp:77] Creating layer conv3_relu
I0409 05:02:26.080590 28748 net.cpp:100] Creating Layer conv3_relu
I0409 05:02:26.080597 28748 net.cpp:434] conv3_relu <- conv3
I0409 05:02:26.080605 28748 net.cpp:395] conv3_relu -> conv3 (in-place)
I0409 05:02:26.081526 28748 net.cpp:150] Setting up conv3_relu
I0409 05:02:26.081544 28748 net.cpp:157] Top shape: 1024 250 6 6 (9216000)
I0409 05:02:26.081549 28748 net.cpp:165] Memory required for data: 2175643648
I0409 05:02:26.081553 28748 layer_factory.hpp:77] Creating layer pool3
I0409 05:02:26.081562 28748 net.cpp:100] Creating Layer pool3
I0409 05:02:26.081568 28748 net.cpp:434] pool3 <- conv3
I0409 05:02:26.081596 28748 net.cpp:408] pool3 -> pool3
I0409 05:02:26.081662 28748 net.cpp:150] Setting up pool3
I0409 05:02:26.081673 28748 net.cpp:157] Top shape: 1024 250 3 3 (2304000)
I0409 05:02:26.081677 28748 net.cpp:165] Memory required for data: 2184859648
I0409 05:02:26.081681 28748 layer_factory.hpp:77] Creating layer fc4_300
I0409 05:02:26.081692 28748 net.cpp:100] Creating Layer fc4_300
I0409 05:02:26.081701 28748 net.cpp:434] fc4_300 <- pool3
I0409 05:02:26.081707 28748 net.cpp:408] fc4_300 -> fc4_300
I0409 05:02:26.088311 28748 net.cpp:150] Setting up fc4_300
I0409 05:02:26.088331 28748 net.cpp:157] Top shape: 1024 300 (307200)
I0409 05:02:26.088335 28748 net.cpp:165] Memory required for data: 2186088448
I0409 05:02:26.088345 28748 layer_factory.hpp:77] Creating layer fc4_relu
I0409 05:02:26.088354 28748 net.cpp:100] Creating Layer fc4_relu
I0409 05:02:26.088359 28748 net.cpp:434] fc4_relu <- fc4_300
I0409 05:02:26.088366 28748 net.cpp:395] fc4_relu -> fc4_300 (in-place)
I0409 05:02:26.088604 28748 net.cpp:150] Setting up fc4_relu
I0409 05:02:26.088619 28748 net.cpp:157] Top shape: 1024 300 (307200)
I0409 05:02:26.088624 28748 net.cpp:165] Memory required for data: 2187317248
I0409 05:02:26.088629 28748 layer_factory.hpp:77] Creating layer drop4
I0409 05:02:26.088637 28748 net.cpp:100] Creating Layer drop4
I0409 05:02:26.088644 28748 net.cpp:434] drop4 <- fc4_300
I0409 05:02:26.088655 28748 net.cpp:395] drop4 -> fc4_300 (in-place)
I0409 05:02:26.088696 28748 net.cpp:150] Setting up drop4
I0409 05:02:26.088706 28748 net.cpp:157] Top shape: 1024 300 (307200)
I0409 05:02:26.088709 28748 net.cpp:165] Memory required for data: 2188546048
I0409 05:02:26.088713 28748 layer_factory.hpp:77] Creating layer fc5_67
I0409 05:02:26.088723 28748 net.cpp:100] Creating Layer fc5_67
I0409 05:02:26.088729 28748 net.cpp:434] fc5_67 <- fc4_300
I0409 05:02:26.088735 28748 net.cpp:408] fc5_67 -> fc5_classes
I0409 05:02:26.090163 28748 net.cpp:150] Setting up fc5_67
I0409 05:02:26.090183 28748 net.cpp:157] Top shape: 1024 67 (68608)
I0409 05:02:26.090186 28748 net.cpp:165] Memory required for data: 2188820480
I0409 05:02:26.090198 28748 layer_factory.hpp:77] Creating layer loss
I0409 05:02:26.090209 28748 net.cpp:100] Creating Layer loss
I0409 05:02:26.090214 28748 net.cpp:434] loss <- fc5_classes
I0409 05:02:26.090219 28748 net.cpp:434] loss <- label
I0409 05:02:26.090227 28748 net.cpp:408] loss -> loss
I0409 05:02:26.090242 28748 layer_factory.hpp:77] Creating layer loss
…
I0409 05:02:26.091053 28748 solver.cpp:193] Creating test net (#0) specified by test_net file: ./Prototxt/experiment_6/rtsd-r1/CoNorm/trial_2/test.prototxt
I0409 05:02:26.091225 28748 net.cpp:58] Initializing net from parameters: 
state {
  phase: TEST
}
layer {
  name: "data"
  type: "Data"
  top: "data"
  top: "label"
  include {
    phase: TEST
  }
  transform_param {
    mirror: false
    crop_size: 48
    mean_value: 133
    mean_value: 133
    mean_value: 132
  }
  data_param {
    source: "../local_data/lmdb/rtsd-r1/CoNorm/test/lmdb"
    batch_size: 1024
    backend: LMDB
  }
}
layer {
  name: "conv1"
  type: "Convolution"
  bottom: "data"
  top: "conv1"
  convolution_param {
    num_output: 100
    pad: 0
    kernel_size: 7
    group: 1
    stride: 1
    weight_filler {
      type: "xavier"
    }
  }
}
layer {
  name: "conv1_relu"
  type: "ReLU"
  bottom: "conv1"
  top: "conv1"
}
layer {
  name: "pool1"
  type: "Pooling"
  bottom: "conv1"
  top: "pool1"
  pooling_param {
    pool: MAX
    kernel_size: 2
    stride: 2
  }
}
layer {
  name: "conv2"
  type: "Convolution"
  bottom: "pool1"
  top: "conv2"
  convolution_param {
    num_output: 150
    pad: 0
    kernel_size: 4
    group: 1
    stride: 1
    weight_filler {
      type: "xavier"
    }
  }
}
layer {
  name: "conv2_relu"
  type: "ReLU"
  bottom: "conv2"
  top: "conv2"
}
layer {
  name: "pool2"
  type: "Pooling"
  bottom: "conv2"
  top: "pool2"
  pooling_param {
    pool: MAX
    kernel_size: 2
    stride: 2
  }
}
layer {
  name: "conv3"
  type: "Convolution"
  bottom: "pool2"
  top: "conv3"
  convolution_param {
    num_output: 250
    pad: 0
    kernel_size: 4
    group: 1
    stride: 1
    weight_filler {
      type: "xavier"
    }
  }
}
layer {
  name: "conv3_relu"
  type: "ReLU"
  bottom: "conv3"
  top: "conv3"
}
layer {
  name: "pool3"
  type: "Pooling"
  bottom: "conv3"
  top: "pool3"
  pooling_param {
    pool: MAX
    kernel_size: 2
    stride: 2
  }
}
layer {
  name: "fc4_300"
  type: "InnerProduct"
  bottom: "pool3"
  top: "fc4_300"
  inner_product_param {
    num_output: 300
    weight_filler {
      type: "xavier"
    }
  }
}
layer {
  name: "fc4_relu"
  type: "ReLU"
  bottom: "fc4_300"
  top: "fc4_300"
}
layer {
  name: "drop4"
  type: "Dropout"
  bottom: "fc4_300"
  top: "fc4_300"
  dropout_param {
    dropout_ratio: 0.4
  }
}
layer {
  name: "fc5_67"
  type: "InnerProduct"
  bottom: "fc4_300"
  top: "fc5_classes"
  inner_product_param {
    num_output: 67
    weight_filler {
      type: "xavier"
    }
  }
}
layer {
  name: "loss"
  type: "SoftmaxWithLoss"
  bottom: "fc5_classes"
  bottom: "label"
  top: "loss"
}
layer {
  name: "accuracy_1"
  type: "Accuracy"
  bottom: "fc5_classes"
  bottom: "label"
  top: "accuracy_1"
  include {
    phase: TEST
  }
  accuracy_param {
    top_k: 1
  }
}
layer {
  name: "accuracy_5"
  type: "Accuracy"
  bottom: "fc5_classes"
  bottom: "label"
  top: "accuracy_5"
  include {
    phase: TEST
  }
  accuracy_param {
    top_k: 5
  }
}
I0409 05:02:26.091341 28748 layer_factory.hpp:77] Creating layer data
I0409 05:02:26.092190 28748 net.cpp:100] Creating Layer data
I0409 05:02:26.092207 28748 net.cpp:408] data -> data
I0409 05:02:26.092219 28748 net.cpp:408] data -> label
I0409 05:02:26.093472 28832 db_lmdb.cpp:35] Opened lmdb ../local_data/lmdb/rtsd-r1/CoNorm/test/lmdb
I0409 05:02:26.093667 28748 data_layer.cpp:41] output data size: 1024,3,48,48
I0409 05:02:26.141062 28748 net.cpp:150] Setting up data
I0409 05:02:26.141095 28748 net.cpp:157] Top shape: 1024 3 48 48 (7077888)
I0409 05:02:26.141101 28748 net.cpp:157] Top shape: 1024 (1024)
I0409 05:02:26.141105 28748 net.cpp:165] Memory required for data: 28315648
I0409 05:02:26.141113 28748 layer_factory.hpp:77] Creating layer label_data_1_split
I0409 05:02:26.141131 28748 net.cpp:100] Creating Layer label_data_1_split
I0409 05:02:26.141136 28748 net.cpp:434] label_data_1_split <- label
I0409 05:02:26.141145 28748 net.cpp:408] label_data_1_split -> label_data_1_split_0
I0409 05:02:26.141162 28748 net.cpp:408] label_data_1_split -> label_data_1_split_1
I0409 05:02:26.141172 28748 net.cpp:408] label_data_1_split -> label_data_1_split_2
I0409 05:02:26.141382 28748 net.cpp:150] Setting up label_data_1_split
I0409 05:02:26.141396 28748 net.cpp:157] Top shape: 1024 (1024)
I0409 05:02:26.141400 28748 net.cpp:157] Top shape: 1024 (1024)
I0409 05:02:26.141405 28748 net.cpp:157] Top shape: 1024 (1024)
I0409 05:02:26.141408 28748 net.cpp:165] Memory required for data: 28327936
I0409 05:02:26.141412 28748 layer_factory.hpp:77] Creating layer conv1
I0409 05:02:26.141432 28748 net.cpp:100] Creating Layer conv1
I0409 05:02:26.141438 28748 net.cpp:434] conv1 <- data
I0409 05:02:26.141445 28748 net.cpp:408] conv1 -> conv1
I0409 05:02:26.145195 28748 net.cpp:150] Setting up conv1
I0409 05:02:26.145217 28748 net.cpp:157] Top shape: 1024 100 42 42 (180633600)
I0409 05:02:26.145222 28748 net.cpp:165] Memory required for data: 750862336
I0409 05:02:26.145236 28748 layer_factory.hpp:77] Creating layer conv1_relu
I0409 05:02:26.145248 28748 net.cpp:100] Creating Layer conv1_relu
I0409 05:02:26.145252 28748 net.cpp:434] conv1_relu <- conv1
I0409 05:02:26.145259 28748 net.cpp:395] conv1_relu -> conv1 (in-place)
I0409 05:02:26.145512 28748 net.cpp:150] Setting up conv1_relu
I0409 05:02:26.145531 28748 net.cpp:157] Top shape: 1024 100 42 42 (180633600)
I0409 05:02:26.145536 28748 net.cpp:165] Memory required for data: 1473396736
I0409 05:02:26.145540 28748 layer_factory.hpp:77] Creating layer pool1
I0409 05:02:26.145551 28748 net.cpp:100] Creating Layer pool1
I0409 05:02:26.145557 28748 net.cpp:434] pool1 <- conv1
I0409 05:02:26.145565 28748 net.cpp:408] pool1 -> pool1
I0409 05:02:26.145632 28748 net.cpp:150] Setting up pool1
I0409 05:02:26.145643 28748 net.cpp:157] Top shape: 1024 100 21 21 (45158400)
I0409 05:02:26.145647 28748 net.cpp:165] Memory required for data: 1654030336
I0409 05:02:26.145651 28748 layer_factory.hpp:77] Creating layer conv2
I0409 05:02:26.145663 28748 net.cpp:100] Creating Layer conv2
I0409 05:02:26.145669 28748 net.cpp:434] conv2 <- pool1
I0409 05:02:26.145679 28748 net.cpp:408] conv2 -> conv2
I0409 05:02:26.151504 28748 net.cpp:150] Setting up conv2
I0409 05:02:26.151525 28748 net.cpp:157] Top shape: 1024 150 18 18 (49766400)
I0409 05:02:26.151530 28748 net.cpp:165] Memory required for data: 1853095936
I0409 05:02:26.151543 28748 layer_factory.hpp:77] Creating layer conv2_relu
I0409 05:02:26.151562 28748 net.cpp:100] Creating Layer conv2_relu
I0409 05:02:26.151567 28748 net.cpp:434] conv2_relu <- conv2
I0409 05:02:26.151574 28748 net.cpp:395] conv2_relu -> conv2 (in-place)
I0409 05:02:26.153328 28748 net.cpp:150] Setting up conv2_relu
I0409 05:02:26.153347 28748 net.cpp:157] Top shape: 1024 150 18 18 (49766400)
I0409 05:02:26.153352 28748 net.cpp:165] Memory required for data: 2052161536
I0409 05:02:26.153358 28748 layer_factory.hpp:77] Creating layer pool2
I0409 05:02:26.153374 28748 net.cpp:100] Creating Layer pool2
I0409 05:02:26.153379 28748 net.cpp:434] pool2 <- conv2
I0409 05:02:26.153388 28748 net.cpp:408] pool2 -> pool2
I0409 05:02:26.153470 28748 net.cpp:150] Setting up pool2
I0409 05:02:26.153483 28748 net.cpp:157] Top shape: 1024 150 9 9 (12441600)
I0409 05:02:26.153487 28748 net.cpp:165] Memory required for data: 2101927936
I0409 05:02:26.153491 28748 layer_factory.hpp:77] Creating layer conv3
I0409 05:02:26.153507 28748 net.cpp:100] Creating Layer conv3
I0409 05:02:26.153515 28748 net.cpp:434] conv3 <- pool2
I0409 05:02:26.153522 28748 net.cpp:408] conv3 -> conv3
I0409 05:02:26.161038 28748 net.cpp:150] Setting up conv3
I0409 05:02:26.161062 28748 net.cpp:157] Top shape: 1024 250 6 6 (9216000)
I0409 05:02:26.161067 28748 net.cpp:165] Memory required for data: 2138791936
I0409 05:02:26.161082 28748 layer_factory.hpp:77] Creating layer conv3_relu
I0409 05:02:26.161092 28748 net.cpp:100] Creating Layer conv3_relu
I0409 05:02:26.161097 28748 net.cpp:434] conv3_relu <- conv3
I0409 05:02:26.161106 28748 net.cpp:395] conv3_relu -> conv3 (in-place)
I0409 05:02:26.166530 28748 net.cpp:150] Setting up conv3_relu
I0409 05:02:26.166554 28748 net.cpp:157] Top shape: 1024 250 6 6 (9216000)
I0409 05:02:26.166559 28748 net.cpp:165] Memory required for data: 2175655936
I0409 05:02:26.166584 28748 layer_factory.hpp:77] Creating layer pool3
I0409 05:02:26.166599 28748 net.cpp:100] Creating Layer pool3
I0409 05:02:26.166602 28748 net.cpp:434] pool3 <- conv3
I0409 05:02:26.166610 28748 net.cpp:408] pool3 -> pool3
I0409 05:02:26.166681 28748 net.cpp:150] Setting up pool3
I0409 05:02:26.166692 28748 net.cpp:157] Top shape: 1024 250 3 3 (2304000)
I0409 05:02:26.166695 28748 net.cpp:165] Memory required for data: 2184871936
I0409 05:02:26.166699 28748 layer_factory.hpp:77] Creating layer fc4_300
I0409 05:02:26.166709 28748 net.cpp:100] Creating Layer fc4_300
I0409 05:02:26.166713 28748 net.cpp:434] fc4_300 <- pool3
I0409 05:02:26.166723 28748 net.cpp:408] fc4_300 -> fc4_300
I0409 05:02:26.178601 28748 net.cpp:150] Setting up fc4_300
I0409 05:02:26.178624 28748 net.cpp:157] Top shape: 1024 300 (307200)
I0409 05:02:26.178629 28748 net.cpp:165] Memory required for data: 2186100736
I0409 05:02:26.178638 28748 layer_factory.hpp:77] Creating layer fc4_relu
I0409 05:02:26.178647 28748 net.cpp:100] Creating Layer fc4_relu
I0409 05:02:26.178652 28748 net.cpp:434] fc4_relu <- fc4_300
I0409 05:02:26.178658 28748 net.cpp:395] fc4_relu -> fc4_300 (in-place)
I0409 05:02:26.178910 28748 net.cpp:150] Setting up fc4_relu
I0409 05:02:26.178925 28748 net.cpp:157] Top shape: 1024 300 (307200)
I0409 05:02:26.178930 28748 net.cpp:165] Memory required for data: 2187329536
I0409 05:02:26.178936 28748 layer_factory.hpp:77] Creating layer drop4
I0409 05:02:26.178944 28748 net.cpp:100] Creating Layer drop4
I0409 05:02:26.178951 28748 net.cpp:434] drop4 <- fc4_300
I0409 05:02:26.178958 28748 net.cpp:395] drop4 -> fc4_300 (in-place)
I0409 05:02:26.178995 28748 net.cpp:150] Setting up drop4
I0409 05:02:26.179006 28748 net.cpp:157] Top shape: 1024 300 (307200)
I0409 05:02:26.179010 28748 net.cpp:165] Memory required for data: 2188558336
I0409 05:02:26.179014 28748 layer_factory.hpp:77] Creating layer fc5_67
I0409 05:02:26.179023 28748 net.cpp:100] Creating Layer fc5_67
I0409 05:02:26.179026 28748 net.cpp:434] fc5_67 <- fc4_300
I0409 05:02:26.179034 28748 net.cpp:408] fc5_67 -> fc5_classes
I0409 05:02:26.179354 28748 net.cpp:150] Setting up fc5_67
I0409 05:02:26.179365 28748 net.cpp:157] Top shape: 1024 67 (68608)
I0409 05:02:26.179368 28748 net.cpp:165] Memory required for data: 2188832768
I0409 05:02:26.179379 28748 layer_factory.hpp:77] Creating layer fc5_classes_fc5_67_0_split
I0409 05:02:26.179390 28748 net.cpp:100] Creating Layer fc5_classes_fc5_67_0_split
I0409 05:02:26.179394 28748 net.cpp:434] fc5_classes_fc5_67_0_split <- fc5_classes
I0409 05:02:26.179402 28748 net.cpp:408] fc5_classes_fc5_67_0_split -> fc5_classes_fc5_67_0_split_0
I0409 05:02:26.179411 28748 net.cpp:408] fc5_classes_fc5_67_0_split -> fc5_classes_fc5_67_0_split_1
I0409 05:02:26.179419 28748 net.cpp:408] fc5_classes_fc5_67_0_split -> fc5_classes_fc5_67_0_split_2
I0409 05:02:26.179486 28748 net.cpp:150] Setting up fc5_classes_fc5_67_0_split
I0409 05:02:26.179494 28748 net.cpp:157] Top shape: 1024 67 (68608)
I0409 05:02:26.179498 28748 net.cpp:157] Top shape: 1024 67 (68608)
I0409 05:02:26.179503 28748 net.cpp:157] Top shape: 1024 67 (68608)
I0409 05:02:26.179507 28748 net.cpp:165] Memory required for data: 2189656064
I0409 05:02:26.179510 28748 layer_factory.hpp:77] Creating layer loss
I0409 05:02:26.179523 28748 net.cpp:100] Creating Layer loss
I0409 05:02:26.179529 28748 net.cpp:434] loss <- fc5_classes_fc5_67_0_split_0
I0409 05:02:26.179535 28748 net.cpp:434] loss <- label_data_1_split_0
I0409 05:02:26.179541 28748 net.cpp:408] loss -> loss
…
