…
I0507 07:16:14.545660  2983 solver.cpp:93] Creating training net from train_net file: ./Prototxt/experiment_14/RTSD/imajust/trial_1/train.prototxt
I0507 07:16:14.546103  2983 net.cpp:58] Initializing net from parameters: 
state {
  phase: TRAIN
  level: 0
  stage: ""
}
layer {
  name: "data"
  type: "Data"
  top: "data"
  top: "label"
  include {
    phase: TRAIN
  }
  transform_param {
    scale: 0.0039215689
    mirror: false
    crop_size: 48
    mean_value: 119
    mean_value: 113
    mean_value: 114
  }
  data_param {
    source: "../local_data/lmdb/RTSD/imajust/train/lmdb"
    batch_size: 512
    backend: LMDB
  }
}
layer {
  name: "conv1"
  type: "Convolution"
  bottom: "data"
  top: "conv1"
  convolution_param {
    num_output: 100
    pad: 0
    kernel_size: 7
    group: 1
    stride: 1
    weight_filler {
      type: "xavier"
    }
  }
}
layer {
  name: "conv1_relu"
  type: "ReLU"
  bottom: "conv1"
  top: "conv1"
}
layer {
  name: "pool1"
  type: "Pooling"
  bottom: "conv1"
  top: "pool1"
  pooling_param {
    pool: MAX
    kernel_size: 2
    stride: 2
  }
}
layer {
  name: "conv2"
  type: "Convolution"
  bottom: "pool1"
  top: "conv2"
  convolution_param {
    num_output: 150
    pad: 0
    kernel_size: 4
    group: 1
    stride: 1
    weight_filler {
      type: "xavier"
    }
  }
}
layer {
  name: "conv2_relu"
  type: "ReLU"
  bottom: "conv2"
  top: "conv2"
}
layer {
  name: "pool2"
  type: "Pooling"
  bottom: "conv2"
  top: "pool2"
  pooling_param {
    pool: MAX
    kernel_size: 2
    stride: 2
  }
}
layer {
  name: "conv3"
  type: "Convolution"
  bottom: "pool2"
  top: "conv3"
  convolution_param {
    num_output: 250
    pad: 0
    kernel_size: 4
    group: 1
    stride: 1
    weight_filler {
      type: "xavier"
    }
  }
}
layer {
  name: "conv3_relu"
  type: "ReLU"
  bottom: "conv3"
  top: "conv3"
}
layer {
  name: "pool3"
  type: "Pooling"
  bottom: "conv3"
  top: "pool3"
  pooling_param {
    pool: MAX
    kernel_size: 2
    stride: 2
  }
}
layer {
  name: "fc4_300"
  type: "InnerProduct"
  bottom: "pool3"
  top: "fc4_300"
  inner_product_param {
    num_output: 300
    weight_filler {
      type: "xavier"
    }
  }
}
layer {
  name: "fc4_relu"
  type: "ReLU"
  bottom: "fc4_300"
  top: "fc4_300"
}
layer {
  name: "fc5_116"
  type: "InnerProduct"
  bottom: "fc4_300"
  top: "fc5_classes"
  inner_product_param {
    num_output: 116
    weight_filler {
      type: "xavier"
    }
  }
}
layer {
  name: "softmax"
  type: "Softmax"
  bottom: "fc5_classes"
  top: "softmax"
}
layer {
  name: "loss"
  type: "MultinomialLogisticLoss"
  bottom: "softmax"
  bottom: "label"
  top: "loss"
}
layer {
  name: "accuracy_1"
  type: "Accuracy"
  bottom: "fc5_classes"
  bottom: "label"
  top: "accuracy_1"
  accuracy_param {
    top_k: 1
  }
}
layer {
  name: "accuracy_5"
  type: "Accuracy"
  bottom: "fc5_classes"
  bottom: "label"
  top: "accuracy_5"
  accuracy_param {
    top_k: 5
  }
}
layer {
  name: "silence"
  type: "Silence"
  bottom: "accuracy_1"
  bottom: "accuracy_5"
}
I0507 07:16:14.546241  2983 layer_factory.hpp:77] Creating layer data
I0507 07:16:14.547224  2983 net.cpp:100] Creating Layer data
I0507 07:16:14.547245  2983 net.cpp:408] data -> data
I0507 07:16:14.547271  2983 net.cpp:408] data -> label
I0507 07:16:14.555001  3117 db_lmdb.cpp:35] Opened lmdb ../local_data/lmdb/RTSD/imajust/train/lmdb
I0507 07:16:14.585598  2983 data_layer.cpp:41] output data size: 512,3,48,48
I0507 07:16:14.689774  2983 net.cpp:150] Setting up data
I0507 07:16:14.689834  2983 net.cpp:157] Top shape: 512 3 48 48 (3538944)
I0507 07:16:14.689842  2983 net.cpp:157] Top shape: 512 (512)
I0507 07:16:14.689846  2983 net.cpp:165] Memory required for data: 14157824
I0507 07:16:14.689858  2983 layer_factory.hpp:77] Creating layer label_data_1_split
I0507 07:16:14.689873  2983 net.cpp:100] Creating Layer label_data_1_split
I0507 07:16:14.689880  2983 net.cpp:434] label_data_1_split <- label
I0507 07:16:14.689898  2983 net.cpp:408] label_data_1_split -> label_data_1_split_0
I0507 07:16:14.689913  2983 net.cpp:408] label_data_1_split -> label_data_1_split_1
I0507 07:16:14.689923  2983 net.cpp:408] label_data_1_split -> label_data_1_split_2
I0507 07:16:14.689996  2983 net.cpp:150] Setting up label_data_1_split
I0507 07:16:14.690006  2983 net.cpp:157] Top shape: 512 (512)
I0507 07:16:14.690011  2983 net.cpp:157] Top shape: 512 (512)
I0507 07:16:14.690016  2983 net.cpp:157] Top shape: 512 (512)
I0507 07:16:14.690018  2983 net.cpp:165] Memory required for data: 14163968
I0507 07:16:14.690022  2983 layer_factory.hpp:77] Creating layer conv1
I0507 07:16:14.690039  2983 net.cpp:100] Creating Layer conv1
I0507 07:16:14.690045  2983 net.cpp:434] conv1 <- data
I0507 07:16:14.690052  2983 net.cpp:408] conv1 -> conv1
I0507 07:16:16.031854  2983 net.cpp:150] Setting up conv1
I0507 07:16:16.031896  2983 net.cpp:157] Top shape: 512 100 42 42 (90316800)
I0507 07:16:16.031903  2983 net.cpp:165] Memory required for data: 375431168
I0507 07:16:16.031925  2983 layer_factory.hpp:77] Creating layer conv1_relu
I0507 07:16:16.031935  2983 net.cpp:100] Creating Layer conv1_relu
I0507 07:16:16.031940  2983 net.cpp:434] conv1_relu <- conv1
I0507 07:16:16.031949  2983 net.cpp:395] conv1_relu -> conv1 (in-place)
I0507 07:16:16.032150  2983 net.cpp:150] Setting up conv1_relu
I0507 07:16:16.032161  2983 net.cpp:157] Top shape: 512 100 42 42 (90316800)
I0507 07:16:16.032166  2983 net.cpp:165] Memory required for data: 736698368
I0507 07:16:16.032169  2983 layer_factory.hpp:77] Creating layer pool1
I0507 07:16:16.032179  2983 net.cpp:100] Creating Layer pool1
I0507 07:16:16.032183  2983 net.cpp:434] pool1 <- conv1
I0507 07:16:16.032189  2983 net.cpp:408] pool1 -> pool1
I0507 07:16:16.032246  2983 net.cpp:150] Setting up pool1
I0507 07:16:16.032254  2983 net.cpp:157] Top shape: 512 100 21 21 (22579200)
I0507 07:16:16.032258  2983 net.cpp:165] Memory required for data: 827015168
I0507 07:16:16.032261  2983 layer_factory.hpp:77] Creating layer conv2
I0507 07:16:16.032272  2983 net.cpp:100] Creating Layer conv2
I0507 07:16:16.032277  2983 net.cpp:434] conv2 <- pool1
I0507 07:16:16.032282  2983 net.cpp:408] conv2 -> conv2
I0507 07:16:16.042510  2983 net.cpp:150] Setting up conv2
I0507 07:16:16.042527  2983 net.cpp:157] Top shape: 512 150 18 18 (24883200)
I0507 07:16:16.042531  2983 net.cpp:165] Memory required for data: 926547968
I0507 07:16:16.042542  2983 layer_factory.hpp:77] Creating layer conv2_relu
I0507 07:16:16.042549  2983 net.cpp:100] Creating Layer conv2_relu
I0507 07:16:16.042552  2983 net.cpp:434] conv2_relu <- conv2
I0507 07:16:16.042557  2983 net.cpp:395] conv2_relu -> conv2 (in-place)
I0507 07:16:16.047461  2983 net.cpp:150] Setting up conv2_relu
I0507 07:16:16.047478  2983 net.cpp:157] Top shape: 512 150 18 18 (24883200)
I0507 07:16:16.047482  2983 net.cpp:165] Memory required for data: 1026080768
I0507 07:16:16.047487  2983 layer_factory.hpp:77] Creating layer pool2
I0507 07:16:16.047494  2983 net.cpp:100] Creating Layer pool2
I0507 07:16:16.047498  2983 net.cpp:434] pool2 <- conv2
I0507 07:16:16.047504  2983 net.cpp:408] pool2 -> pool2
I0507 07:16:16.047554  2983 net.cpp:150] Setting up pool2
I0507 07:16:16.047564  2983 net.cpp:157] Top shape: 512 150 9 9 (6220800)
I0507 07:16:16.047567  2983 net.cpp:165] Memory required for data: 1050963968
I0507 07:16:16.047571  2983 layer_factory.hpp:77] Creating layer conv3
I0507 07:16:16.047582  2983 net.cpp:100] Creating Layer conv3
I0507 07:16:16.047587  2983 net.cpp:434] conv3 <- pool2
I0507 07:16:16.047592  2983 net.cpp:408] conv3 -> conv3
I0507 07:16:16.054616  2983 net.cpp:150] Setting up conv3
I0507 07:16:16.054635  2983 net.cpp:157] Top shape: 512 250 6 6 (4608000)
I0507 07:16:16.054639  2983 net.cpp:165] Memory required for data: 1069395968
I0507 07:16:16.054649  2983 layer_factory.hpp:77] Creating layer conv3_relu
I0507 07:16:16.054656  2983 net.cpp:100] Creating Layer conv3_relu
I0507 07:16:16.054659  2983 net.cpp:434] conv3_relu <- conv3
I0507 07:16:16.054664  2983 net.cpp:395] conv3_relu -> conv3 (in-place)
I0507 07:16:16.057162  2983 net.cpp:150] Setting up conv3_relu
I0507 07:16:16.057180  2983 net.cpp:157] Top shape: 512 250 6 6 (4608000)
I0507 07:16:16.057184  2983 net.cpp:165] Memory required for data: 1087827968
I0507 07:16:16.057188  2983 layer_factory.hpp:77] Creating layer pool3
I0507 07:16:16.057196  2983 net.cpp:100] Creating Layer pool3
I0507 07:16:16.057199  2983 net.cpp:434] pool3 <- conv3
I0507 07:16:16.057205  2983 net.cpp:408] pool3 -> pool3
I0507 07:16:16.057253  2983 net.cpp:150] Setting up pool3
I0507 07:16:16.057262  2983 net.cpp:157] Top shape: 512 250 3 3 (1152000)
I0507 07:16:16.057265  2983 net.cpp:165] Memory required for data: 1092435968
I0507 07:16:16.057270  2983 layer_factory.hpp:77] Creating layer fc4_300
I0507 07:16:16.057276  2983 net.cpp:100] Creating Layer fc4_300
I0507 07:16:16.057281  2983 net.cpp:434] fc4_300 <- pool3
I0507 07:16:16.057286  2983 net.cpp:408] fc4_300 -> fc4_300
I0507 07:16:16.063249  2983 net.cpp:150] Setting up fc4_300
I0507 07:16:16.063269  2983 net.cpp:157] Top shape: 512 300 (153600)
I0507 07:16:16.063273  2983 net.cpp:165] Memory required for data: 1093050368
I0507 07:16:16.063282  2983 layer_factory.hpp:77] Creating layer fc4_relu
I0507 07:16:16.063287  2983 net.cpp:100] Creating Layer fc4_relu
I0507 07:16:16.063292  2983 net.cpp:434] fc4_relu <- fc4_300
I0507 07:16:16.063297  2983 net.cpp:395] fc4_relu -> fc4_300 (in-place)
I0507 07:16:16.063486  2983 net.cpp:150] Setting up fc4_relu
I0507 07:16:16.063498  2983 net.cpp:157] Top shape: 512 300 (153600)
I0507 07:16:16.063503  2983 net.cpp:165] Memory required for data: 1093664768
I0507 07:16:16.063506  2983 layer_factory.hpp:77] Creating layer fc5_116
I0507 07:16:16.063513  2983 net.cpp:100] Creating Layer fc5_116
I0507 07:16:16.063519  2983 net.cpp:434] fc5_116 <- fc4_300
I0507 07:16:16.063524  2983 net.cpp:408] fc5_116 -> fc5_classes
I0507 07:16:16.065644  2983 net.cpp:150] Setting up fc5_116
I0507 07:16:16.065661  2983 net.cpp:157] Top shape: 512 116 (59392)
I0507 07:16:16.065665  2983 net.cpp:165] Memory required for data: 1093902336
I0507 07:16:16.065675  2983 layer_factory.hpp:77] Creating layer fc5_classes_fc5_116_0_split
I0507 07:16:16.065683  2983 net.cpp:100] Creating Layer fc5_classes_fc5_116_0_split
I0507 07:16:16.065687  2983 net.cpp:434] fc5_classes_fc5_116_0_split <- fc5_classes
I0507 07:16:16.065693  2983 net.cpp:408] fc5_classes_fc5_116_0_split -> fc5_classes_fc5_116_0_split_0
I0507 07:16:16.065701  2983 net.cpp:408] fc5_classes_fc5_116_0_split -> fc5_classes_fc5_116_0_split_1
I0507 07:16:16.065711  2983 net.cpp:408] fc5_classes_fc5_116_0_split -> fc5_classes_fc5_116_0_split_2
I0507 07:16:16.065762  2983 net.cpp:150] Setting up fc5_classes_fc5_116_0_split
I0507 07:16:16.065768  2983 net.cpp:157] Top shape: 512 116 (59392)
I0507 07:16:16.065773  2983 net.cpp:157] Top shape: 512 116 (59392)
I0507 07:16:16.065775  2983 net.cpp:157] Top shape: 512 116 (59392)
I0507 07:16:16.065778  2983 net.cpp:165] Memory required for data: 1094615040
I0507 07:16:16.065780  2983 layer_factory.hpp:77] Creating layer softmax
I0507 07:16:16.065788  2983 net.cpp:100] Creating Layer softmax
I0507 07:16:16.065790  2983 net.cpp:434] softmax <- fc5_classes_fc5_116_0_split_0
I0507 07:16:16.065796  2983 net.cpp:408] softmax -> softmax
I0507 07:16:16.066045  2983 net.cpp:150] Setting up softmax
I0507 07:16:16.066058  2983 net.cpp:157] Top shape: 512 116 (59392)
I0507 07:16:16.066061  2983 net.cpp:165] Memory required for data: 1094852608
I0507 07:16:16.066064  2983 layer_factory.hpp:77] Creating layer loss
I0507 07:16:16.066073  2983 net.cpp:100] Creating Layer loss
I0507 07:16:16.066097  2983 net.cpp:434] loss <- softmax
I0507 07:16:16.066102  2983 net.cpp:434] loss <- label_data_1_split_0
I0507 07:16:16.066109  2983 net.cpp:408] loss -> loss
…
