…
I0417 18:34:12.312839 12716 solver.cpp:93] Creating training net from train_net file: ./Prototxt/experiment_11/rtsd-r1/AHE/trial_3/train.prototxt
I0417 18:34:12.313293 12716 net.cpp:58] Initializing net from parameters: 
state {
  phase: TRAIN
  level: 0
  stage: ""
}
layer {
  name: "data"
  type: "Data"
  top: "data"
  top: "label"
  include {
    phase: TRAIN
  }
  transform_param {
    scale: 0.0039215689
    mirror: false
    crop_size: 48
    mean_value: 132
    mean_value: 126
    mean_value: 140
  }
  data_param {
    source: "../local_data/lmdb/rtsd-r1/AHE/train/lmdb"
    batch_size: 1024
    backend: LMDB
  }
}
layer {
  name: "conv1"
  type: "Convolution"
  bottom: "data"
  top: "conv1"
  convolution_param {
    num_output: 100
    pad: 0
    kernel_size: 7
    group: 1
    stride: 1
    weight_filler {
      type: "xavier"
    }
  }
}
layer {
  name: "conv1_prescale"
  type: "Scale"
  bottom: "conv1"
  top: "conv1"
  param {
    lr_mult: 0
    decay_mult: 0
  }
  scale_param {
    filler {
      value: 0.6666
    }
    bias_term: false
  }
}
layer {
  name: "conv1_sTanH"
  type: "TanH"
  bottom: "conv1"
  top: "conv1"
}
layer {
  name: "conv1_postscale"
  type: "Scale"
  bottom: "conv1"
  top: "conv1"
  param {
    lr_mult: 0
    decay_mult: 0
  }
  scale_param {
    filler {
      value: 1.7159
    }
    bias_term: false
  }
}
layer {
  name: "pool1"
  type: "Pooling"
  bottom: "conv1"
  top: "pool1"
  pooling_param {
    pool: MAX
    kernel_size: 2
    stride: 2
  }
}
layer {
  name: "conv2"
  type: "Convolution"
  bottom: "pool1"
  top: "conv2"
  convolution_param {
    num_output: 150
    pad: 0
    kernel_size: 4
    group: 1
    stride: 1
    weight_filler {
      type: "xavier"
    }
  }
}
layer {
  name: "conv2_prescale"
  type: "Scale"
  bottom: "conv2"
  top: "conv2"
  param {
    lr_mult: 0
    decay_mult: 0
  }
  scale_param {
    filler {
      value: 0.6666
    }
    bias_term: false
  }
}
layer {
  name: "conv2_sTanH"
  type: "TanH"
  bottom: "conv2"
  top: "conv2"
}
layer {
  name: "conv2_postscale"
  type: "Scale"
  bottom: "conv2"
  top: "conv2"
  param {
    lr_mult: 0
    decay_mult: 0
  }
  scale_param {
    filler {
      value: 1.7159
    }
    bias_term: false
  }
}
layer {
  name: "pool2"
  type: "Pooling"
  bottom: "conv2"
  top: "pool2"
  pooling_param {
    pool: MAX
    kernel_size: 2
    stride: 2
  }
}
layer {
  name: "conv3"
  type: "Convolution"
  bottom: "pool2"
  top: "conv3"
  convolution_param {
    num_output: 250
    pad: 0
    kernel_size: 4
    group: 1
    stride: 1
    weight_filler {
      type: "xavier"
    }
  }
}
layer {
  name: "conv3_prescale"
  type: "Scale"
  bottom: "conv3"
  top: "conv3"
  param {
    lr_mult: 0
    decay_mult: 0
  }
  scale_param {
    filler {
      value: 0.6666
    }
    bias_term: false
  }
}
layer {
  name: "conv3_sTanH"
  type: "TanH"
  bottom: "conv3"
  top: "conv3"
}
layer {
  name: "conv3_postscale"
  type: "Scale"
  bottom: "conv3"
  top: "conv3"
  param {
    lr_mult: 0
    decay_mult: 0
  }
  scale_param {
    filler {
      value: 1.7159
    }
    bias_term: false
  }
}
layer {
  name: "pool3"
  type: "Pooling"
  bottom: "conv3"
  top: "pool3"
  pooling_param {
    pool: MAX
    kernel_size: 2
    stride: 2
  }
}
layer {
  name: "fc4_300"
  type: "InnerProduct"
  bottom: "pool3"
  top: "fc4_300"
  inner_product_param {
    num_output: 300
    weight_filler {
      type: "xavier"
    }
  }
}
layer {
  name: "fc4_prescale"
  type: "Scale"
  bottom: "fc4_300"
  top: "fc4_300"
  param {
    lr_mult: 0
    decay_mult: 0
  }
  scale_param {
    filler {
      value: 0.6666
    }
    bias_term: false
  }
}
layer {
  name: "fc4_sTanH"
  type: "TanH"
  bottom: "fc4_300"
  top: "fc4_300"
}
layer {
  name: "fc4_postscale"
  type: "Scale"
  bottom: "fc4_300"
  top: "fc4_300"
  param {
    lr_mult: 0
    decay_mult: 0
  }
  scale_param {
    filler {
      value: 1.7159
    }
    bias_term: false
  }
}
layer {
  name: "fc5_67"
  type: "InnerProduct"
  bottom: "fc4_300"
  top: "fc5_classes"
  inner_product_param {
    num_output: 67
    weight_filler {
      type: "xavier"
    }
  }
}
layer {
  name: "softmax"
  type: "Softmax"
  bottom: "fc5_classes"
  top: "softmax"
}
layer {
  name: "loss"
  type: "MultinomialLogisticLoss"
  bottom: "softmax"
  bottom: "label"
  top: "loss"
}
layer {
  name: "accuracy_1"
  type: "Accuracy"
  bottom: "fc5_classes"
  bottom: "label"
  top: "accuracy_1"
  accuracy_param {
    top_k: 1
  }
}
layer {
  name: "accuracy_5"
  type: "Accuracy"
  bottom: "fc5_classes"
  bottom: "label"
  top: "accuracy_5"
  accuracy_param {
    top_k: 5
  }
}
layer {
  name: "silence"
  type: "Silence"
  bottom: "accuracy_1"
  bottom: "accuracy_5"
}
I0417 18:34:12.313442 12716 layer_factory.hpp:77] Creating layer data
I0417 18:34:12.314486 12716 net.cpp:100] Creating Layer data
I0417 18:34:12.314501 12716 net.cpp:408] data -> data
I0417 18:34:12.314522 12716 net.cpp:408] data -> label
I0417 18:34:12.316114 12842 db_lmdb.cpp:35] Opened lmdb ../local_data/lmdb/rtsd-r1/AHE/train/lmdb
I0417 18:34:12.333679 12716 data_layer.cpp:41] output data size: 1024,3,48,48
I0417 18:34:12.380708 12716 net.cpp:150] Setting up data
I0417 18:34:12.380735 12716 net.cpp:157] Top shape: 1024 3 48 48 (7077888)
I0417 18:34:12.380741 12716 net.cpp:157] Top shape: 1024 (1024)
I0417 18:34:12.380744 12716 net.cpp:165] Memory required for data: 28315648
I0417 18:34:12.380754 12716 layer_factory.hpp:77] Creating layer label_data_1_split
I0417 18:34:12.380769 12716 net.cpp:100] Creating Layer label_data_1_split
I0417 18:34:12.380777 12716 net.cpp:434] label_data_1_split <- label
I0417 18:34:12.380790 12716 net.cpp:408] label_data_1_split -> label_data_1_split_0
I0417 18:34:12.380802 12716 net.cpp:408] label_data_1_split -> label_data_1_split_1
I0417 18:34:12.380810 12716 net.cpp:408] label_data_1_split -> label_data_1_split_2
I0417 18:34:12.380877 12716 net.cpp:150] Setting up label_data_1_split
I0417 18:34:12.380884 12716 net.cpp:157] Top shape: 1024 (1024)
I0417 18:34:12.380888 12716 net.cpp:157] Top shape: 1024 (1024)
I0417 18:34:12.380892 12716 net.cpp:157] Top shape: 1024 (1024)
I0417 18:34:12.380894 12716 net.cpp:165] Memory required for data: 28327936
I0417 18:34:12.380898 12716 layer_factory.hpp:77] Creating layer conv1
I0417 18:34:12.380914 12716 net.cpp:100] Creating Layer conv1
I0417 18:34:12.380919 12716 net.cpp:434] conv1 <- data
I0417 18:34:12.380925 12716 net.cpp:408] conv1 -> conv1
I0417 18:34:13.332677 12716 net.cpp:150] Setting up conv1
I0417 18:34:13.332703 12716 net.cpp:157] Top shape: 1024 100 42 42 (180633600)
I0417 18:34:13.332708 12716 net.cpp:165] Memory required for data: 750862336
I0417 18:34:13.332731 12716 layer_factory.hpp:77] Creating layer conv1_prescale
I0417 18:34:13.332746 12716 net.cpp:100] Creating Layer conv1_prescale
I0417 18:34:13.332751 12716 net.cpp:434] conv1_prescale <- conv1
I0417 18:34:13.332758 12716 net.cpp:395] conv1_prescale -> conv1 (in-place)
I0417 18:34:13.332867 12716 net.cpp:150] Setting up conv1_prescale
I0417 18:34:13.332876 12716 net.cpp:157] Top shape: 1024 100 42 42 (180633600)
I0417 18:34:13.332880 12716 net.cpp:165] Memory required for data: 1473396736
I0417 18:34:13.332886 12716 layer_factory.hpp:77] Creating layer conv1_sTanH
I0417 18:34:13.332895 12716 net.cpp:100] Creating Layer conv1_sTanH
I0417 18:34:13.332901 12716 net.cpp:434] conv1_sTanH <- conv1
I0417 18:34:13.332906 12716 net.cpp:395] conv1_sTanH -> conv1 (in-place)
I0417 18:34:13.333096 12716 net.cpp:150] Setting up conv1_sTanH
I0417 18:34:13.333107 12716 net.cpp:157] Top shape: 1024 100 42 42 (180633600)
I0417 18:34:13.333129 12716 net.cpp:165] Memory required for data: 2195931136
I0417 18:34:13.333134 12716 layer_factory.hpp:77] Creating layer conv1_postscale
I0417 18:34:13.333142 12716 net.cpp:100] Creating Layer conv1_postscale
I0417 18:34:13.333145 12716 net.cpp:434] conv1_postscale <- conv1
I0417 18:34:13.333151 12716 net.cpp:395] conv1_postscale -> conv1 (in-place)
I0417 18:34:13.333245 12716 net.cpp:150] Setting up conv1_postscale
I0417 18:34:13.333253 12716 net.cpp:157] Top shape: 1024 100 42 42 (180633600)
I0417 18:34:13.333256 12716 net.cpp:165] Memory required for data: 2918465536
I0417 18:34:13.333261 12716 layer_factory.hpp:77] Creating layer pool1
I0417 18:34:13.333268 12716 net.cpp:100] Creating Layer pool1
I0417 18:34:13.333272 12716 net.cpp:434] pool1 <- conv1
I0417 18:34:13.333277 12716 net.cpp:408] pool1 -> pool1
I0417 18:34:13.333323 12716 net.cpp:150] Setting up pool1
I0417 18:34:13.333331 12716 net.cpp:157] Top shape: 1024 100 21 21 (45158400)
I0417 18:34:13.333334 12716 net.cpp:165] Memory required for data: 3099099136
I0417 18:34:13.333338 12716 layer_factory.hpp:77] Creating layer conv2
I0417 18:34:13.333346 12716 net.cpp:100] Creating Layer conv2
I0417 18:34:13.333350 12716 net.cpp:434] conv2 <- pool1
I0417 18:34:13.333355 12716 net.cpp:408] conv2 -> conv2
I0417 18:34:13.344301 12716 net.cpp:150] Setting up conv2
I0417 18:34:13.344318 12716 net.cpp:157] Top shape: 1024 150 18 18 (49766400)
I0417 18:34:13.344322 12716 net.cpp:165] Memory required for data: 3298164736
I0417 18:34:13.344333 12716 layer_factory.hpp:77] Creating layer conv2_prescale
I0417 18:34:13.344343 12716 net.cpp:100] Creating Layer conv2_prescale
I0417 18:34:13.344347 12716 net.cpp:434] conv2_prescale <- conv2
I0417 18:34:13.344352 12716 net.cpp:395] conv2_prescale -> conv2 (in-place)
I0417 18:34:13.344463 12716 net.cpp:150] Setting up conv2_prescale
I0417 18:34:13.344472 12716 net.cpp:157] Top shape: 1024 150 18 18 (49766400)
I0417 18:34:13.344475 12716 net.cpp:165] Memory required for data: 3497230336
I0417 18:34:13.344480 12716 layer_factory.hpp:77] Creating layer conv2_sTanH
I0417 18:34:13.344486 12716 net.cpp:100] Creating Layer conv2_sTanH
I0417 18:34:13.344490 12716 net.cpp:434] conv2_sTanH <- conv2
I0417 18:34:13.344496 12716 net.cpp:395] conv2_sTanH -> conv2 (in-place)
I0417 18:34:13.345726 12716 net.cpp:150] Setting up conv2_sTanH
I0417 18:34:13.345741 12716 net.cpp:157] Top shape: 1024 150 18 18 (49766400)
I0417 18:34:13.345744 12716 net.cpp:165] Memory required for data: 3696295936
I0417 18:34:13.345748 12716 layer_factory.hpp:77] Creating layer conv2_postscale
I0417 18:34:13.345755 12716 net.cpp:100] Creating Layer conv2_postscale
I0417 18:34:13.345759 12716 net.cpp:434] conv2_postscale <- conv2
I0417 18:34:13.345765 12716 net.cpp:395] conv2_postscale -> conv2 (in-place)
I0417 18:34:13.345860 12716 net.cpp:150] Setting up conv2_postscale
I0417 18:34:13.345868 12716 net.cpp:157] Top shape: 1024 150 18 18 (49766400)
I0417 18:34:13.345871 12716 net.cpp:165] Memory required for data: 3895361536
I0417 18:34:13.345876 12716 layer_factory.hpp:77] Creating layer pool2
I0417 18:34:13.345883 12716 net.cpp:100] Creating Layer pool2
I0417 18:34:13.345887 12716 net.cpp:434] pool2 <- conv2
I0417 18:34:13.345893 12716 net.cpp:408] pool2 -> pool2
I0417 18:34:13.345933 12716 net.cpp:150] Setting up pool2
I0417 18:34:13.345942 12716 net.cpp:157] Top shape: 1024 150 9 9 (12441600)
I0417 18:34:13.345944 12716 net.cpp:165] Memory required for data: 3945127936
I0417 18:34:13.345947 12716 layer_factory.hpp:77] Creating layer conv3
I0417 18:34:13.345955 12716 net.cpp:100] Creating Layer conv3
I0417 18:34:13.345960 12716 net.cpp:434] conv3 <- pool2
I0417 18:34:13.345965 12716 net.cpp:408] conv3 -> conv3
I0417 18:34:13.351752 12716 net.cpp:150] Setting up conv3
I0417 18:34:13.351769 12716 net.cpp:157] Top shape: 1024 250 6 6 (9216000)
I0417 18:34:13.351773 12716 net.cpp:165] Memory required for data: 3981991936
I0417 18:34:13.351784 12716 layer_factory.hpp:77] Creating layer conv3_prescale
I0417 18:34:13.351805 12716 net.cpp:100] Creating Layer conv3_prescale
I0417 18:34:13.351810 12716 net.cpp:434] conv3_prescale <- conv3
I0417 18:34:13.351821 12716 net.cpp:395] conv3_prescale -> conv3 (in-place)
I0417 18:34:13.351933 12716 net.cpp:150] Setting up conv3_prescale
I0417 18:34:13.351943 12716 net.cpp:157] Top shape: 1024 250 6 6 (9216000)
I0417 18:34:13.351946 12716 net.cpp:165] Memory required for data: 4018855936
I0417 18:34:13.351951 12716 layer_factory.hpp:77] Creating layer conv3_sTanH
I0417 18:34:13.351958 12716 net.cpp:100] Creating Layer conv3_sTanH
I0417 18:34:13.351963 12716 net.cpp:434] conv3_sTanH <- conv3
I0417 18:34:13.351968 12716 net.cpp:395] conv3_sTanH -> conv3 (in-place)
I0417 18:34:13.352875 12716 net.cpp:150] Setting up conv3_sTanH
I0417 18:34:13.352890 12716 net.cpp:157] Top shape: 1024 250 6 6 (9216000)
I0417 18:34:13.352893 12716 net.cpp:165] Memory required for data: 4055719936
I0417 18:34:13.352897 12716 layer_factory.hpp:77] Creating layer conv3_postscale
I0417 18:34:13.352905 12716 net.cpp:100] Creating Layer conv3_postscale
I0417 18:34:13.352908 12716 net.cpp:434] conv3_postscale <- conv3
I0417 18:34:13.352916 12716 net.cpp:395] conv3_postscale -> conv3 (in-place)
I0417 18:34:13.353019 12716 net.cpp:150] Setting up conv3_postscale
I0417 18:34:13.353029 12716 net.cpp:157] Top shape: 1024 250 6 6 (9216000)
I0417 18:34:13.353031 12716 net.cpp:165] Memory required for data: 4092583936
I0417 18:34:13.353036 12716 layer_factory.hpp:77] Creating layer pool3
I0417 18:34:13.353046 12716 net.cpp:100] Creating Layer pool3
I0417 18:34:13.353050 12716 net.cpp:434] pool3 <- conv3
I0417 18:34:13.353056 12716 net.cpp:408] pool3 -> pool3
I0417 18:34:13.353096 12716 net.cpp:150] Setting up pool3
I0417 18:34:13.353103 12716 net.cpp:157] Top shape: 1024 250 3 3 (2304000)
I0417 18:34:13.353106 12716 net.cpp:165] Memory required for data: 4101799936
I0417 18:34:13.353108 12716 layer_factory.hpp:77] Creating layer fc4_300
I0417 18:34:13.353117 12716 net.cpp:100] Creating Layer fc4_300
I0417 18:34:13.353122 12716 net.cpp:434] fc4_300 <- pool3
I0417 18:34:13.353128 12716 net.cpp:408] fc4_300 -> fc4_300
I0417 18:34:13.358862 12716 net.cpp:150] Setting up fc4_300
I0417 18:34:13.358877 12716 net.cpp:157] Top shape: 1024 300 (307200)
I0417 18:34:13.358881 12716 net.cpp:165] Memory required for data: 4103028736
I0417 18:34:13.358888 12716 layer_factory.hpp:77] Creating layer fc4_prescale
I0417 18:34:13.358897 12716 net.cpp:100] Creating Layer fc4_prescale
I0417 18:34:13.358902 12716 net.cpp:434] fc4_prescale <- fc4_300
I0417 18:34:13.358909 12716 net.cpp:395] fc4_prescale -> fc4_300 (in-place)
I0417 18:34:13.358999 12716 net.cpp:150] Setting up fc4_prescale
I0417 18:34:13.359007 12716 net.cpp:157] Top shape: 1024 300 (307200)
I0417 18:34:13.359010 12716 net.cpp:165] Memory required for data: 4104257536
I0417 18:34:13.359015 12716 layer_factory.hpp:77] Creating layer fc4_sTanH
I0417 18:34:13.359020 12716 net.cpp:100] Creating Layer fc4_sTanH
I0417 18:34:13.359024 12716 net.cpp:434] fc4_sTanH <- fc4_300
I0417 18:34:13.359030 12716 net.cpp:395] fc4_sTanH -> fc4_300 (in-place)
I0417 18:34:13.359217 12716 net.cpp:150] Setting up fc4_sTanH
I0417 18:34:13.359227 12716 net.cpp:157] Top shape: 1024 300 (307200)
I0417 18:34:13.359230 12716 net.cpp:165] Memory required for data: 4105486336
I0417 18:34:13.359235 12716 layer_factory.hpp:77] Creating layer fc4_postscale
I0417 18:34:13.359242 12716 net.cpp:100] Creating Layer fc4_postscale
I0417 18:34:13.359247 12716 net.cpp:434] fc4_postscale <- fc4_300
I0417 18:34:13.359253 12716 net.cpp:395] fc4_postscale -> fc4_300 (in-place)
I0417 18:34:13.359354 12716 net.cpp:150] Setting up fc4_postscale
I0417 18:34:13.359360 12716 net.cpp:157] Top shape: 1024 300 (307200)
I0417 18:34:13.359364 12716 net.cpp:165] Memory required for data: 4106715136
I0417 18:34:13.359369 12716 layer_factory.hpp:77] Creating layer fc5_67
I0417 18:34:13.359375 12716 net.cpp:100] Creating Layer fc5_67
I0417 18:34:13.359380 12716 net.cpp:434] fc5_67 <- fc4_300
I0417 18:34:13.359385 12716 net.cpp:408] fc5_67 -> fc5_classes
I0417 18:34:13.361652 12716 net.cpp:150] Setting up fc5_67
I0417 18:34:13.361672 12716 net.cpp:157] Top shape: 1024 67 (68608)
I0417 18:34:13.361676 12716 net.cpp:165] Memory required for data: 4106989568
I0417 18:34:13.361690 12716 layer_factory.hpp:77] Creating layer fc5_classes_fc5_67_0_split
I0417 18:34:13.361701 12716 net.cpp:100] Creating Layer fc5_classes_fc5_67_0_split
I0417 18:34:13.361706 12716 net.cpp:434] fc5_classes_fc5_67_0_split <- fc5_classes
I0417 18:34:13.361711 12716 net.cpp:408] fc5_classes_fc5_67_0_split -> fc5_classes_fc5_67_0_split_0
I0417 18:34:13.361719 12716 net.cpp:408] fc5_classes_fc5_67_0_split -> fc5_classes_fc5_67_0_split_1
I0417 18:34:13.361726 12716 net.cpp:408] fc5_classes_fc5_67_0_split -> fc5_classes_fc5_67_0_split_2
I0417 18:34:13.361789 12716 net.cpp:150] Setting up fc5_classes_fc5_67_0_split
I0417 18:34:13.361815 12716 net.cpp:157] Top shape: 1024 67 (68608)
I0417 18:34:13.361819 12716 net.cpp:157] Top shape: 1024 67 (68608)
I0417 18:34:13.361822 12716 net.cpp:157] Top shape: 1024 67 (68608)
I0417 18:34:13.361825 12716 net.cpp:165] Memory required for data: 4107812864
I0417 18:34:13.361829 12716 layer_factory.hpp:77] Creating layer softmax
I0417 18:34:13.361838 12716 net.cpp:100] Creating Layer softmax
I0417 18:34:13.361842 12716 net.cpp:434] softmax <- fc5_classes_fc5_67_0_split_0
I0417 18:34:13.361847 12716 net.cpp:408] softmax -> softmax
I0417 18:34:13.362160 12716 net.cpp:150] Setting up softmax
I0417 18:34:13.362174 12716 net.cpp:157] Top shape: 1024 67 (68608)
I0417 18:34:13.362179 12716 net.cpp:165] Memory required for data: 4108087296
I0417 18:34:13.362181 12716 layer_factory.hpp:77] Creating layer loss
I0417 18:34:13.362191 12716 net.cpp:100] Creating Layer loss
I0417 18:34:13.362195 12716 net.cpp:434] loss <- softmax
I0417 18:34:13.362200 12716 net.cpp:434] loss <- label_data_1_split_0
I0417 18:34:13.362210 12716 net.cpp:408] loss -> loss
…
