…
I0414 05:32:59.410420 19966 solver.cpp:93] Creating training net from train_net file: ./Prototxt/experiment_11/rtsd-r1/AHE/trial_3/train.prototxt
I0414 05:32:59.410869 19966 net.cpp:58] Initializing net from parameters: 
state {
  phase: TRAIN
  level: 0
  stage: ""
}
layer {
  name: "data"
  type: "Data"
  top: "data"
  top: "label"
  include {
    phase: TRAIN
  }
  transform_param {
    scale: 0.0039215689
    mirror: false
    crop_size: 48
    mean_value: 132
    mean_value: 126
    mean_value: 140
  }
  data_param {
    source: "../local_data/lmdb/rtsd-r1/AHE/train/lmdb"
    batch_size: 1024
    backend: LMDB
  }
}
layer {
  name: "conv1"
  type: "Convolution"
  bottom: "data"
  top: "conv1"
  convolution_param {
    num_output: 100
    pad: 0
    kernel_size: 7
    group: 1
    stride: 1
    weight_filler {
      type: "xavier"
    }
  }
}
layer {
  name: "conv1_prescale"
  type: "Scale"
  bottom: "conv1"
  top: "conv1"
  param {
    lr_mult: 0
    decay_mult: 0
  }
  scale_param {
    filler {
      value: 0.6666
    }
    bias_term: false
  }
}
layer {
  name: "conv1_sTanH"
  type: "TanH"
  bottom: "conv1"
  top: "conv1"
}
layer {
  name: "conv1_postscale"
  type: "Scale"
  bottom: "conv1"
  top: "conv1"
  param {
    lr_mult: 0
    decay_mult: 0
  }
  scale_param {
    filler {
      value: 1.7159
    }
    bias_term: false
  }
}
layer {
  name: "pool1"
  type: "Pooling"
  bottom: "conv1"
  top: "pool1"
  pooling_param {
    pool: MAX
    kernel_size: 2
    stride: 2
  }
}
layer {
  name: "conv2"
  type: "Convolution"
  bottom: "pool1"
  top: "conv2"
  convolution_param {
    num_output: 150
    pad: 0
    kernel_size: 4
    group: 1
    stride: 1
    weight_filler {
      type: "xavier"
    }
  }
}
layer {
  name: "conv2_prescale"
  type: "Scale"
  bottom: "conv2"
  top: "conv2"
  param {
    lr_mult: 0
    decay_mult: 0
  }
  scale_param {
    filler {
      value: 0.6666
    }
    bias_term: false
  }
}
layer {
  name: "conv2_sTanH"
  type: "TanH"
  bottom: "conv2"
  top: "conv2"
}
layer {
  name: "conv2_postscale"
  type: "Scale"
  bottom: "conv2"
  top: "conv2"
  param {
    lr_mult: 0
    decay_mult: 0
  }
  scale_param {
    filler {
      value: 1.7159
    }
    bias_term: false
  }
}
layer {
  name: "pool2"
  type: "Pooling"
  bottom: "conv2"
  top: "pool2"
  pooling_param {
    pool: MAX
    kernel_size: 2
    stride: 2
  }
}
layer {
  name: "conv3"
  type: "Convolution"
  bottom: "pool2"
  top: "conv3"
  convolution_param {
    num_output: 250
    pad: 0
    kernel_size: 4
    group: 1
    stride: 1
    weight_filler {
      type: "xavier"
    }
  }
}
layer {
  name: "conv3_prescale"
  type: "Scale"
  bottom: "conv3"
  top: "conv3"
  param {
    lr_mult: 0
    decay_mult: 0
  }
  scale_param {
    filler {
      value: 0.6666
    }
    bias_term: false
  }
}
layer {
  name: "conv3_sTanH"
  type: "TanH"
  bottom: "conv3"
  top: "conv3"
}
layer {
  name: "conv3_postscale"
  type: "Scale"
  bottom: "conv3"
  top: "conv3"
  param {
    lr_mult: 0
    decay_mult: 0
  }
  scale_param {
    filler {
      value: 1.7159
    }
    bias_term: false
  }
}
layer {
  name: "pool3"
  type: "Pooling"
  bottom: "conv3"
  top: "pool3"
  pooling_param {
    pool: MAX
    kernel_size: 2
    stride: 2
  }
}
layer {
  name: "fc4_300"
  type: "InnerProduct"
  bottom: "pool3"
  top: "fc4_300"
  inner_product_param {
    num_output: 300
    weight_filler {
      type: "xavier"
    }
  }
}
layer {
  name: "fc4_prescale"
  type: "Scale"
  bottom: "fc4_300"
  top: "fc4_300"
  param {
    lr_mult: 0
    decay_mult: 0
  }
  scale_param {
    filler {
      value: 0.6666
    }
    bias_term: false
  }
}
layer {
  name: "fc4_sTanH"
  type: "TanH"
  bottom: "fc4_300"
  top: "fc4_300"
}
layer {
  name: "fc4_postscale"
  type: "Scale"
  bottom: "fc4_300"
  top: "fc4_300"
  param {
    lr_mult: 0
    decay_mult: 0
  }
  scale_param {
    filler {
      value: 1.7159
    }
    bias_term: false
  }
}
layer {
  name: "fc5_67"
  type: "InnerProduct"
  bottom: "fc4_300"
  top: "fc5_classes"
  inner_product_param {
    num_output: 67
    weight_filler {
      type: "xavier"
    }
  }
}
layer {
  name: "softmax"
  type: "Softmax"
  bottom: "fc5_classes"
  top: "softmax"
}
layer {
  name: "loss"
  type: "MultinomialLogisticLoss"
  bottom: "softmax"
  bottom: "label"
  top: "loss"
}
layer {
  name: "accuracy_1"
  type: "Accuracy"
  bottom: "fc5_classes"
  bottom: "label"
  top: "accuracy_1"
  accuracy_param {
    top_k: 1
  }
}
layer {
  name: "accuracy_5"
  type: "Accuracy"
  bottom: "fc5_classes"
  bottom: "label"
  top: "accuracy_5"
  accuracy_param {
    top_k: 5
  }
}
layer {
  name: "silence"
  type: "Silence"
  bottom: "accuracy_1"
  bottom: "accuracy_5"
}
I0414 05:32:59.411034 19966 layer_factory.hpp:77] Creating layer data
I0414 05:32:59.412130 19966 net.cpp:100] Creating Layer data
I0414 05:32:59.412148 19966 net.cpp:408] data -> data
I0414 05:32:59.412178 19966 net.cpp:408] data -> label
I0414 05:32:59.421727 20086 db_lmdb.cpp:35] Opened lmdb ../local_data/lmdb/rtsd-r1/AHE/train/lmdb
I0414 05:32:59.439599 19966 data_layer.cpp:41] output data size: 1024,3,48,48
I0414 05:32:59.501325 19966 net.cpp:150] Setting up data
I0414 05:32:59.501355 19966 net.cpp:157] Top shape: 1024 3 48 48 (7077888)
I0414 05:32:59.501360 19966 net.cpp:157] Top shape: 1024 (1024)
I0414 05:32:59.501363 19966 net.cpp:165] Memory required for data: 28315648
I0414 05:32:59.501374 19966 layer_factory.hpp:77] Creating layer label_data_1_split
I0414 05:32:59.501389 19966 net.cpp:100] Creating Layer label_data_1_split
I0414 05:32:59.501394 19966 net.cpp:434] label_data_1_split <- label
I0414 05:32:59.501412 19966 net.cpp:408] label_data_1_split -> label_data_1_split_0
I0414 05:32:59.501425 19966 net.cpp:408] label_data_1_split -> label_data_1_split_1
I0414 05:32:59.501436 19966 net.cpp:408] label_data_1_split -> label_data_1_split_2
I0414 05:32:59.501507 19966 net.cpp:150] Setting up label_data_1_split
I0414 05:32:59.501514 19966 net.cpp:157] Top shape: 1024 (1024)
I0414 05:32:59.501518 19966 net.cpp:157] Top shape: 1024 (1024)
I0414 05:32:59.501521 19966 net.cpp:157] Top shape: 1024 (1024)
I0414 05:32:59.501524 19966 net.cpp:165] Memory required for data: 28327936
I0414 05:32:59.501528 19966 layer_factory.hpp:77] Creating layer conv1
I0414 05:32:59.501545 19966 net.cpp:100] Creating Layer conv1
I0414 05:32:59.501550 19966 net.cpp:434] conv1 <- data
I0414 05:32:59.501557 19966 net.cpp:408] conv1 -> conv1
I0414 05:32:59.913321 19966 net.cpp:150] Setting up conv1
I0414 05:32:59.913352 19966 net.cpp:157] Top shape: 1024 100 42 42 (180633600)
I0414 05:32:59.913357 19966 net.cpp:165] Memory required for data: 750862336
I0414 05:32:59.913379 19966 layer_factory.hpp:77] Creating layer conv1_prescale
I0414 05:32:59.913394 19966 net.cpp:100] Creating Layer conv1_prescale
I0414 05:32:59.913399 19966 net.cpp:434] conv1_prescale <- conv1
I0414 05:32:59.913406 19966 net.cpp:395] conv1_prescale -> conv1 (in-place)
I0414 05:32:59.913517 19966 net.cpp:150] Setting up conv1_prescale
I0414 05:32:59.913527 19966 net.cpp:157] Top shape: 1024 100 42 42 (180633600)
I0414 05:32:59.913529 19966 net.cpp:165] Memory required for data: 1473396736
I0414 05:32:59.913537 19966 layer_factory.hpp:77] Creating layer conv1_sTanH
I0414 05:32:59.913547 19966 net.cpp:100] Creating Layer conv1_sTanH
I0414 05:32:59.913552 19966 net.cpp:434] conv1_sTanH <- conv1
I0414 05:32:59.913556 19966 net.cpp:395] conv1_sTanH -> conv1 (in-place)
I0414 05:32:59.913767 19966 net.cpp:150] Setting up conv1_sTanH
I0414 05:32:59.913780 19966 net.cpp:157] Top shape: 1024 100 42 42 (180633600)
I0414 05:32:59.913806 19966 net.cpp:165] Memory required for data: 2195931136
I0414 05:32:59.913811 19966 layer_factory.hpp:77] Creating layer conv1_postscale
I0414 05:32:59.913822 19966 net.cpp:100] Creating Layer conv1_postscale
I0414 05:32:59.913826 19966 net.cpp:434] conv1_postscale <- conv1
I0414 05:32:59.913832 19966 net.cpp:395] conv1_postscale -> conv1 (in-place)
I0414 05:32:59.913934 19966 net.cpp:150] Setting up conv1_postscale
I0414 05:32:59.913944 19966 net.cpp:157] Top shape: 1024 100 42 42 (180633600)
I0414 05:32:59.913947 19966 net.cpp:165] Memory required for data: 2918465536
I0414 05:32:59.913952 19966 layer_factory.hpp:77] Creating layer pool1
I0414 05:32:59.913960 19966 net.cpp:100] Creating Layer pool1
I0414 05:32:59.913964 19966 net.cpp:434] pool1 <- conv1
I0414 05:32:59.913969 19966 net.cpp:408] pool1 -> pool1
I0414 05:32:59.914021 19966 net.cpp:150] Setting up pool1
I0414 05:32:59.914031 19966 net.cpp:157] Top shape: 1024 100 21 21 (45158400)
I0414 05:32:59.914034 19966 net.cpp:165] Memory required for data: 3099099136
I0414 05:32:59.914037 19966 layer_factory.hpp:77] Creating layer conv2
I0414 05:32:59.914048 19966 net.cpp:100] Creating Layer conv2
I0414 05:32:59.914053 19966 net.cpp:434] conv2 <- pool1
I0414 05:32:59.914058 19966 net.cpp:408] conv2 -> conv2
I0414 05:32:59.920336 19966 net.cpp:150] Setting up conv2
I0414 05:32:59.920364 19966 net.cpp:157] Top shape: 1024 150 18 18 (49766400)
I0414 05:32:59.920369 19966 net.cpp:165] Memory required for data: 3298164736
I0414 05:32:59.920385 19966 layer_factory.hpp:77] Creating layer conv2_prescale
I0414 05:32:59.920400 19966 net.cpp:100] Creating Layer conv2_prescale
I0414 05:32:59.920406 19966 net.cpp:434] conv2_prescale <- conv2
I0414 05:32:59.920414 19966 net.cpp:395] conv2_prescale -> conv2 (in-place)
I0414 05:32:59.920537 19966 net.cpp:150] Setting up conv2_prescale
I0414 05:32:59.920547 19966 net.cpp:157] Top shape: 1024 150 18 18 (49766400)
I0414 05:32:59.920550 19966 net.cpp:165] Memory required for data: 3497230336
I0414 05:32:59.920555 19966 layer_factory.hpp:77] Creating layer conv2_sTanH
I0414 05:32:59.920562 19966 net.cpp:100] Creating Layer conv2_sTanH
I0414 05:32:59.920567 19966 net.cpp:434] conv2_sTanH <- conv2
I0414 05:32:59.920570 19966 net.cpp:395] conv2_sTanH -> conv2 (in-place)
I0414 05:32:59.921326 19966 net.cpp:150] Setting up conv2_sTanH
I0414 05:32:59.921342 19966 net.cpp:157] Top shape: 1024 150 18 18 (49766400)
I0414 05:32:59.921347 19966 net.cpp:165] Memory required for data: 3696295936
I0414 05:32:59.921350 19966 layer_factory.hpp:77] Creating layer conv2_postscale
I0414 05:32:59.921358 19966 net.cpp:100] Creating Layer conv2_postscale
I0414 05:32:59.921362 19966 net.cpp:434] conv2_postscale <- conv2
I0414 05:32:59.921370 19966 net.cpp:395] conv2_postscale -> conv2 (in-place)
I0414 05:32:59.921473 19966 net.cpp:150] Setting up conv2_postscale
I0414 05:32:59.921481 19966 net.cpp:157] Top shape: 1024 150 18 18 (49766400)
I0414 05:32:59.921485 19966 net.cpp:165] Memory required for data: 3895361536
I0414 05:32:59.921490 19966 layer_factory.hpp:77] Creating layer pool2
I0414 05:32:59.921499 19966 net.cpp:100] Creating Layer pool2
I0414 05:32:59.921504 19966 net.cpp:434] pool2 <- conv2
I0414 05:32:59.921509 19966 net.cpp:408] pool2 -> pool2
I0414 05:32:59.921555 19966 net.cpp:150] Setting up pool2
I0414 05:32:59.921566 19966 net.cpp:157] Top shape: 1024 150 9 9 (12441600)
I0414 05:32:59.921569 19966 net.cpp:165] Memory required for data: 3945127936
I0414 05:32:59.921572 19966 layer_factory.hpp:77] Creating layer conv3
I0414 05:32:59.921582 19966 net.cpp:100] Creating Layer conv3
I0414 05:32:59.921587 19966 net.cpp:434] conv3 <- pool2
I0414 05:32:59.921592 19966 net.cpp:408] conv3 -> conv3
I0414 05:32:59.927147 19966 net.cpp:150] Setting up conv3
I0414 05:32:59.927165 19966 net.cpp:157] Top shape: 1024 250 6 6 (9216000)
I0414 05:32:59.927170 19966 net.cpp:165] Memory required for data: 3981991936
I0414 05:32:59.927179 19966 layer_factory.hpp:77] Creating layer conv3_prescale
I0414 05:32:59.927208 19966 net.cpp:100] Creating Layer conv3_prescale
I0414 05:32:59.927214 19966 net.cpp:434] conv3_prescale <- conv3
I0414 05:32:59.927223 19966 net.cpp:395] conv3_prescale -> conv3 (in-place)
I0414 05:32:59.927326 19966 net.cpp:150] Setting up conv3_prescale
I0414 05:32:59.927335 19966 net.cpp:157] Top shape: 1024 250 6 6 (9216000)
I0414 05:32:59.927340 19966 net.cpp:165] Memory required for data: 4018855936
I0414 05:32:59.927345 19966 layer_factory.hpp:77] Creating layer conv3_sTanH
I0414 05:32:59.927351 19966 net.cpp:100] Creating Layer conv3_sTanH
I0414 05:32:59.927356 19966 net.cpp:434] conv3_sTanH <- conv3
I0414 05:32:59.927361 19966 net.cpp:395] conv3_sTanH -> conv3 (in-place)
I0414 05:32:59.928128 19966 net.cpp:150] Setting up conv3_sTanH
I0414 05:32:59.928148 19966 net.cpp:157] Top shape: 1024 250 6 6 (9216000)
I0414 05:32:59.928153 19966 net.cpp:165] Memory required for data: 4055719936
I0414 05:32:59.928155 19966 layer_factory.hpp:77] Creating layer conv3_postscale
I0414 05:32:59.928163 19966 net.cpp:100] Creating Layer conv3_postscale
I0414 05:32:59.928167 19966 net.cpp:434] conv3_postscale <- conv3
I0414 05:32:59.928175 19966 net.cpp:395] conv3_postscale -> conv3 (in-place)
I0414 05:32:59.928278 19966 net.cpp:150] Setting up conv3_postscale
I0414 05:32:59.928288 19966 net.cpp:157] Top shape: 1024 250 6 6 (9216000)
I0414 05:32:59.928292 19966 net.cpp:165] Memory required for data: 4092583936
I0414 05:32:59.928297 19966 layer_factory.hpp:77] Creating layer pool3
I0414 05:32:59.928308 19966 net.cpp:100] Creating Layer pool3
I0414 05:32:59.928311 19966 net.cpp:434] pool3 <- conv3
I0414 05:32:59.928316 19966 net.cpp:408] pool3 -> pool3
I0414 05:32:59.928356 19966 net.cpp:150] Setting up pool3
I0414 05:32:59.928364 19966 net.cpp:157] Top shape: 1024 250 3 3 (2304000)
I0414 05:32:59.928366 19966 net.cpp:165] Memory required for data: 4101799936
I0414 05:32:59.928369 19966 layer_factory.hpp:77] Creating layer fc4_300
I0414 05:32:59.928378 19966 net.cpp:100] Creating Layer fc4_300
I0414 05:32:59.928382 19966 net.cpp:434] fc4_300 <- pool3
I0414 05:32:59.928387 19966 net.cpp:408] fc4_300 -> fc4_300
I0414 05:32:59.933748 19966 net.cpp:150] Setting up fc4_300
I0414 05:32:59.933764 19966 net.cpp:157] Top shape: 1024 300 (307200)
I0414 05:32:59.933768 19966 net.cpp:165] Memory required for data: 4103028736
I0414 05:32:59.933775 19966 layer_factory.hpp:77] Creating layer fc4_prescale
I0414 05:32:59.933785 19966 net.cpp:100] Creating Layer fc4_prescale
I0414 05:32:59.933791 19966 net.cpp:434] fc4_prescale <- fc4_300
I0414 05:32:59.933796 19966 net.cpp:395] fc4_prescale -> fc4_300 (in-place)
I0414 05:32:59.933889 19966 net.cpp:150] Setting up fc4_prescale
I0414 05:32:59.933897 19966 net.cpp:157] Top shape: 1024 300 (307200)
I0414 05:32:59.933900 19966 net.cpp:165] Memory required for data: 4104257536
I0414 05:32:59.933904 19966 layer_factory.hpp:77] Creating layer fc4_sTanH
I0414 05:32:59.933912 19966 net.cpp:100] Creating Layer fc4_sTanH
I0414 05:32:59.933914 19966 net.cpp:434] fc4_sTanH <- fc4_300
I0414 05:32:59.933919 19966 net.cpp:395] fc4_sTanH -> fc4_300 (in-place)
I0414 05:32:59.934109 19966 net.cpp:150] Setting up fc4_sTanH
I0414 05:32:59.934120 19966 net.cpp:157] Top shape: 1024 300 (307200)
I0414 05:32:59.934124 19966 net.cpp:165] Memory required for data: 4105486336
I0414 05:32:59.934128 19966 layer_factory.hpp:77] Creating layer fc4_postscale
I0414 05:32:59.934136 19966 net.cpp:100] Creating Layer fc4_postscale
I0414 05:32:59.934140 19966 net.cpp:434] fc4_postscale <- fc4_300
I0414 05:32:59.934145 19966 net.cpp:395] fc4_postscale -> fc4_300 (in-place)
I0414 05:32:59.934249 19966 net.cpp:150] Setting up fc4_postscale
I0414 05:32:59.934258 19966 net.cpp:157] Top shape: 1024 300 (307200)
I0414 05:32:59.934260 19966 net.cpp:165] Memory required for data: 4106715136
I0414 05:32:59.934265 19966 layer_factory.hpp:77] Creating layer fc5_67
I0414 05:32:59.934273 19966 net.cpp:100] Creating Layer fc5_67
I0414 05:32:59.934278 19966 net.cpp:434] fc5_67 <- fc4_300
I0414 05:32:59.934283 19966 net.cpp:408] fc5_67 -> fc5_classes
I0414 05:32:59.936503 19966 net.cpp:150] Setting up fc5_67
I0414 05:32:59.936522 19966 net.cpp:157] Top shape: 1024 67 (68608)
I0414 05:32:59.936527 19966 net.cpp:165] Memory required for data: 4106989568
I0414 05:32:59.936538 19966 layer_factory.hpp:77] Creating layer fc5_classes_fc5_67_0_split
I0414 05:32:59.936549 19966 net.cpp:100] Creating Layer fc5_classes_fc5_67_0_split
I0414 05:32:59.936554 19966 net.cpp:434] fc5_classes_fc5_67_0_split <- fc5_classes
I0414 05:32:59.936560 19966 net.cpp:408] fc5_classes_fc5_67_0_split -> fc5_classes_fc5_67_0_split_0
I0414 05:32:59.936570 19966 net.cpp:408] fc5_classes_fc5_67_0_split -> fc5_classes_fc5_67_0_split_1
I0414 05:32:59.936578 19966 net.cpp:408] fc5_classes_fc5_67_0_split -> fc5_classes_fc5_67_0_split_2
I0414 05:32:59.936632 19966 net.cpp:150] Setting up fc5_classes_fc5_67_0_split
I0414 05:32:59.936640 19966 net.cpp:157] Top shape: 1024 67 (68608)
I0414 05:32:59.936643 19966 net.cpp:157] Top shape: 1024 67 (68608)
I0414 05:32:59.936646 19966 net.cpp:157] Top shape: 1024 67 (68608)
I0414 05:32:59.936648 19966 net.cpp:165] Memory required for data: 4107812864
I0414 05:32:59.936651 19966 layer_factory.hpp:77] Creating layer softmax
I0414 05:32:59.936660 19966 net.cpp:100] Creating Layer softmax
I0414 05:32:59.936664 19966 net.cpp:434] softmax <- fc5_classes_fc5_67_0_split_0
I0414 05:32:59.936669 19966 net.cpp:408] softmax -> softmax
I0414 05:32:59.936933 19966 net.cpp:150] Setting up softmax
I0414 05:32:59.936946 19966 net.cpp:157] Top shape: 1024 67 (68608)
I0414 05:32:59.936950 19966 net.cpp:165] Memory required for data: 4108087296
I0414 05:32:59.936954 19966 layer_factory.hpp:77] Creating layer loss
I0414 05:32:59.936961 19966 net.cpp:100] Creating Layer loss
I0414 05:32:59.936966 19966 net.cpp:434] loss <- softmax
I0414 05:32:59.936971 19966 net.cpp:434] loss <- label_data_1_split_0
I0414 05:32:59.936977 19966 net.cpp:408] loss -> loss
…
