…
I0411 17:14:32.440579 17876 net.cpp:322] The NetState phase (0) differed from the phase (1) specified by a rule in layer accuracy_5
I0411 17:14:32.440758 17876 net.cpp:58] Initializing net from parameters: 
state {
  phase: TRAIN
  level: 0
  stage: ""
}
layer {
  name: "data"
  type: "Data"
  top: "data"
  top: "label"
  include {
    phase: TRAIN
  }
  transform_param {
    scale: 0.0039215689
    mirror: false
    crop_size: 48
    mean_value: 122
    mean_value: 115
    mean_value: 129
  }
  data_param {
    source: "../local_data/lmdb/rtsd-r1/orig/train/lmdb"
    batch_size: 1024
    backend: LMDB
  }
}
layer {
  name: "conv1"
  type: "Convolution"
  bottom: "data"
  top: "conv1"
  convolution_param {
    num_output: 100
    pad: 0
    kernel_size: 7
    group: 1
    stride: 1
    weight_filler {
      type: "xavier"
    }
  }
}
layer {
  name: "conv1_prescale"
  type: "Scale"
  bottom: "conv1"
  top: "conv1"
  param {
    lr_mult: 0
    decay_mult: 0
  }
  scale_param {
    filler {
      value: 0.6666
    }
    bias_term: false
  }
}
layer {
  name: "conv1_sTanH"
  type: "TanH"
  bottom: "conv1"
  top: "conv1"
}
layer {
  name: "conv1_postscale"
  type: "Scale"
  bottom: "conv1"
  top: "conv1"
  param {
    lr_mult: 0
    decay_mult: 0
  }
  scale_param {
    filler {
      value: 1.7159
    }
    bias_term: false
  }
}
layer {
  name: "pool1"
  type: "Pooling"
  bottom: "conv1"
  top: "pool1"
  pooling_param {
    pool: MAX
    kernel_size: 2
    stride: 2
  }
}
layer {
  name: "conv2"
  type: "Convolution"
  bottom: "pool1"
  top: "conv2"
  convolution_param {
    num_output: 150
    pad: 0
    kernel_size: 4
    group: 1
    stride: 1
    weight_filler {
      type: "xavier"
    }
  }
}
layer {
  name: "conv2_prescale"
  type: "Scale"
  bottom: "conv2"
  top: "conv2"
  param {
    lr_mult: 0
    decay_mult: 0
  }
  scale_param {
    filler {
      value: 0.6666
    }
    bias_term: false
  }
}
layer {
  name: "conv2_sTanH"
  type: "TanH"
  bottom: "conv2"
  top: "conv2"
}
layer {
  name: "conv2_postscale"
  type: "Scale"
  bottom: "conv2"
  top: "conv2"
  param {
    lr_mult: 0
    decay_mult: 0
  }
  scale_param {
    filler {
      value: 1.7159
    }
    bias_term: false
  }
}
layer {
  name: "pool2"
  type: "Pooling"
  bottom: "conv2"
  top: "pool2"
  pooling_param {
    pool: MAX
    kernel_size: 2
    stride: 2
  }
}
layer {
  name: "conv3"
  type: "Convolution"
  bottom: "pool2"
  top: "conv3"
  convolution_param {
    num_output: 250
    pad: 0
    kernel_size: 4
    group: 1
    stride: 1
    weight_filler {
      type: "xavier"
    }
  }
}
layer {
  name: "conv3_prescale"
  type: "Scale"
  bottom: "conv3"
  top: "conv3"
  param {
    lr_mult: 0
    decay_mult: 0
  }
  scale_param {
    filler {
      value: 0.6666
    }
    bias_term: false
  }
}
layer {
  name: "conv3_sTanH"
  type: "TanH"
  bottom: "conv3"
  top: "conv3"
}
layer {
  name: "conv3_postscale"
  type: "Scale"
  bottom: "conv3"
  top: "conv3"
  param {
    lr_mult: 0
    decay_mult: 0
  }
  scale_param {
    filler {
      value: 1.7159
    }
    bias_term: false
  }
}
layer {
  name: "pool3"
  type: "Pooling"
  bottom: "conv3"
  top: "pool3"
  pooling_param {
    pool: MAX
    kernel_size: 2
    stride: 2
  }
}
layer {
  name: "fc4_300"
  type: "InnerProduct"
  bottom: "pool3"
  top: "fc4_300"
  inner_product_param {
    num_output: 300
    weight_filler {
      type: "xavier"
    }
  }
}
layer {
  name: "fc4_prescale"
  type: "Scale"
  bottom: "fc4_300"
  top: "fc4_300"
  param {
    lr_mult: 0
    decay_mult: 0
  }
  scale_param {
    filler {
      value: 0.6666
    }
    bias_term: false
  }
}
layer {
  name: "fc4_sTanH"
  type: "TanH"
  bottom: "fc4_300"
  top: "fc4_300"
}
layer {
  name: "fc4_postscale"
  type: "Scale"
  bottom: "fc4_300"
  top: "fc4_300"
  param {
    lr_mult: 0
    decay_mult: 0
  }
  scale_param {
    filler {
      value: 1.7159
    }
    bias_term: false
  }
}
layer {
  name: "drop4"
  type: "Dropout"
  bottom: "fc4_300"
  top: "fc4_300"
  dropout_param {
    dropout_ratio: 0.1
  }
}
layer {
  name: "fc5_67"
  type: "InnerProduct"
  bottom: "fc4_300"
  top: "fc5_classes"
  inner_product_param {
    num_output: 67
    weight_filler {
      type: "xavier"
    }
  }
}
layer {
  name: "loss"
  type: "SoftmaxWithLoss"
  bottom: "fc5_classes"
  bottom: "label"
  top: "loss"
}
I0411 17:14:32.440876 17876 layer_factory.hpp:77] Creating layer data
I0411 17:14:32.442157 17876 net.cpp:100] Creating Layer data
I0411 17:14:32.442173 17876 net.cpp:408] data -> data
I0411 17:14:32.442198 17876 net.cpp:408] data -> label
I0411 17:14:32.480468 18027 db_lmdb.cpp:35] Opened lmdb ../local_data/lmdb/rtsd-r1/orig/train/lmdb
I0411 17:14:32.499569 17876 data_layer.cpp:41] output data size: 1024,3,48,48
I0411 17:14:32.564132 17876 net.cpp:150] Setting up data
I0411 17:14:32.564163 17876 net.cpp:157] Top shape: 1024 3 48 48 (7077888)
I0411 17:14:32.564169 17876 net.cpp:157] Top shape: 1024 (1024)
I0411 17:14:32.564172 17876 net.cpp:165] Memory required for data: 28315648
I0411 17:14:32.564182 17876 layer_factory.hpp:77] Creating layer conv1
I0411 17:14:32.564205 17876 net.cpp:100] Creating Layer conv1
I0411 17:14:32.564213 17876 net.cpp:434] conv1 <- data
I0411 17:14:32.564225 17876 net.cpp:408] conv1 -> conv1
I0411 17:14:32.919975 17876 net.cpp:150] Setting up conv1
I0411 17:14:32.920006 17876 net.cpp:157] Top shape: 1024 100 42 42 (180633600)
I0411 17:14:32.920011 17876 net.cpp:165] Memory required for data: 750850048
I0411 17:14:32.920035 17876 layer_factory.hpp:77] Creating layer conv1_prescale
I0411 17:14:32.920053 17876 net.cpp:100] Creating Layer conv1_prescale
I0411 17:14:32.920059 17876 net.cpp:434] conv1_prescale <- conv1
I0411 17:14:32.920068 17876 net.cpp:395] conv1_prescale -> conv1 (in-place)
I0411 17:14:32.920205 17876 net.cpp:150] Setting up conv1_prescale
I0411 17:14:32.920217 17876 net.cpp:157] Top shape: 1024 100 42 42 (180633600)
I0411 17:14:32.920222 17876 net.cpp:165] Memory required for data: 1473384448
I0411 17:14:32.920229 17876 layer_factory.hpp:77] Creating layer conv1_sTanH
I0411 17:14:32.920238 17876 net.cpp:100] Creating Layer conv1_sTanH
I0411 17:14:32.920243 17876 net.cpp:434] conv1_sTanH <- conv1
I0411 17:14:32.920248 17876 net.cpp:395] conv1_sTanH -> conv1 (in-place)
I0411 17:14:32.920485 17876 net.cpp:150] Setting up conv1_sTanH
I0411 17:14:32.920500 17876 net.cpp:157] Top shape: 1024 100 42 42 (180633600)
I0411 17:14:32.920505 17876 net.cpp:165] Memory required for data: 2195918848
I0411 17:14:32.920508 17876 layer_factory.hpp:77] Creating layer conv1_postscale
I0411 17:14:32.920518 17876 net.cpp:100] Creating Layer conv1_postscale
I0411 17:14:32.920523 17876 net.cpp:434] conv1_postscale <- conv1
I0411 17:14:32.920529 17876 net.cpp:395] conv1_postscale -> conv1 (in-place)
I0411 17:14:32.920673 17876 net.cpp:150] Setting up conv1_postscale
I0411 17:14:32.920686 17876 net.cpp:157] Top shape: 1024 100 42 42 (180633600)
I0411 17:14:32.920691 17876 net.cpp:165] Memory required for data: 2918453248
I0411 17:14:32.920696 17876 layer_factory.hpp:77] Creating layer pool1
I0411 17:14:32.920706 17876 net.cpp:100] Creating Layer pool1
I0411 17:14:32.920711 17876 net.cpp:434] pool1 <- conv1
I0411 17:14:32.920717 17876 net.cpp:408] pool1 -> pool1
I0411 17:14:32.920801 17876 net.cpp:150] Setting up pool1
I0411 17:14:32.920812 17876 net.cpp:157] Top shape: 1024 100 21 21 (45158400)
I0411 17:14:32.920817 17876 net.cpp:165] Memory required for data: 3099086848
I0411 17:14:32.920821 17876 layer_factory.hpp:77] Creating layer conv2
I0411 17:14:32.920832 17876 net.cpp:100] Creating Layer conv2
I0411 17:14:32.920837 17876 net.cpp:434] conv2 <- pool1
I0411 17:14:32.920843 17876 net.cpp:408] conv2 -> conv2
I0411 17:14:32.930184 17876 net.cpp:150] Setting up conv2
I0411 17:14:32.930207 17876 net.cpp:157] Top shape: 1024 150 18 18 (49766400)
I0411 17:14:32.930212 17876 net.cpp:165] Memory required for data: 3298152448
I0411 17:14:32.930225 17876 layer_factory.hpp:77] Creating layer conv2_prescale
I0411 17:14:32.930236 17876 net.cpp:100] Creating Layer conv2_prescale
I0411 17:14:32.930243 17876 net.cpp:434] conv2_prescale <- conv2
I0411 17:14:32.930248 17876 net.cpp:395] conv2_prescale -> conv2 (in-place)
I0411 17:14:32.930382 17876 net.cpp:150] Setting up conv2_prescale
I0411 17:14:32.930392 17876 net.cpp:157] Top shape: 1024 150 18 18 (49766400)
I0411 17:14:32.930397 17876 net.cpp:165] Memory required for data: 3497218048
I0411 17:14:32.930403 17876 layer_factory.hpp:77] Creating layer conv2_sTanH
I0411 17:14:32.930413 17876 net.cpp:100] Creating Layer conv2_sTanH
I0411 17:14:32.930418 17876 net.cpp:434] conv2_sTanH <- conv2
I0411 17:14:32.930423 17876 net.cpp:395] conv2_sTanH -> conv2 (in-place)
I0411 17:14:32.932941 17876 net.cpp:150] Setting up conv2_sTanH
I0411 17:14:32.932961 17876 net.cpp:157] Top shape: 1024 150 18 18 (49766400)
I0411 17:14:32.932967 17876 net.cpp:165] Memory required for data: 3696283648
I0411 17:14:32.932971 17876 layer_factory.hpp:77] Creating layer conv2_postscale
I0411 17:14:32.932986 17876 net.cpp:100] Creating Layer conv2_postscale
I0411 17:14:32.932991 17876 net.cpp:434] conv2_postscale <- conv2
I0411 17:14:32.932997 17876 net.cpp:395] conv2_postscale -> conv2 (in-place)
I0411 17:14:32.933104 17876 net.cpp:150] Setting up conv2_postscale
I0411 17:14:32.933113 17876 net.cpp:157] Top shape: 1024 150 18 18 (49766400)
I0411 17:14:32.933117 17876 net.cpp:165] Memory required for data: 3895349248
I0411 17:14:32.933123 17876 layer_factory.hpp:77] Creating layer pool2
I0411 17:14:32.933131 17876 net.cpp:100] Creating Layer pool2
I0411 17:14:32.933135 17876 net.cpp:434] pool2 <- conv2
I0411 17:14:32.933141 17876 net.cpp:408] pool2 -> pool2
I0411 17:14:32.933183 17876 net.cpp:150] Setting up pool2
I0411 17:14:32.933192 17876 net.cpp:157] Top shape: 1024 150 9 9 (12441600)
I0411 17:14:32.933195 17876 net.cpp:165] Memory required for data: 3945115648
I0411 17:14:32.933198 17876 layer_factory.hpp:77] Creating layer conv3
I0411 17:14:32.933207 17876 net.cpp:100] Creating Layer conv3
I0411 17:14:32.933212 17876 net.cpp:434] conv3 <- pool2
I0411 17:14:32.933217 17876 net.cpp:408] conv3 -> conv3
I0411 17:14:32.940681 17876 net.cpp:150] Setting up conv3
I0411 17:14:32.940706 17876 net.cpp:157] Top shape: 1024 250 6 6 (9216000)
I0411 17:14:32.940711 17876 net.cpp:165] Memory required for data: 3981979648
I0411 17:14:32.940723 17876 layer_factory.hpp:77] Creating layer conv3_prescale
I0411 17:14:32.940735 17876 net.cpp:100] Creating Layer conv3_prescale
I0411 17:14:32.940748 17876 net.cpp:434] conv3_prescale <- conv3
I0411 17:14:32.940755 17876 net.cpp:395] conv3_prescale -> conv3 (in-place)
I0411 17:14:32.940873 17876 net.cpp:150] Setting up conv3_prescale
I0411 17:14:32.940883 17876 net.cpp:157] Top shape: 1024 250 6 6 (9216000)
I0411 17:14:32.940886 17876 net.cpp:165] Memory required for data: 4018843648
I0411 17:14:32.940892 17876 layer_factory.hpp:77] Creating layer conv3_sTanH
I0411 17:14:32.940898 17876 net.cpp:100] Creating Layer conv3_sTanH
I0411 17:14:32.940902 17876 net.cpp:434] conv3_sTanH <- conv3
I0411 17:14:32.940908 17876 net.cpp:395] conv3_sTanH -> conv3 (in-place)
I0411 17:14:32.942208 17876 net.cpp:150] Setting up conv3_sTanH
I0411 17:14:32.942229 17876 net.cpp:157] Top shape: 1024 250 6 6 (9216000)
I0411 17:14:32.942234 17876 net.cpp:165] Memory required for data: 4055707648
I0411 17:14:32.942260 17876 layer_factory.hpp:77] Creating layer conv3_postscale
I0411 17:14:32.942270 17876 net.cpp:100] Creating Layer conv3_postscale
I0411 17:14:32.942276 17876 net.cpp:434] conv3_postscale <- conv3
I0411 17:14:32.942283 17876 net.cpp:395] conv3_postscale -> conv3 (in-place)
I0411 17:14:32.942409 17876 net.cpp:150] Setting up conv3_postscale
I0411 17:14:32.942420 17876 net.cpp:157] Top shape: 1024 250 6 6 (9216000)
I0411 17:14:32.942422 17876 net.cpp:165] Memory required for data: 4092571648
I0411 17:14:32.942428 17876 layer_factory.hpp:77] Creating layer pool3
I0411 17:14:32.942436 17876 net.cpp:100] Creating Layer pool3
I0411 17:14:32.942441 17876 net.cpp:434] pool3 <- conv3
I0411 17:14:32.942447 17876 net.cpp:408] pool3 -> pool3
I0411 17:14:32.942497 17876 net.cpp:150] Setting up pool3
I0411 17:14:32.942505 17876 net.cpp:157] Top shape: 1024 250 3 3 (2304000)
I0411 17:14:32.942508 17876 net.cpp:165] Memory required for data: 4101787648
I0411 17:14:32.942512 17876 layer_factory.hpp:77] Creating layer fc4_300
I0411 17:14:32.942523 17876 net.cpp:100] Creating Layer fc4_300
I0411 17:14:32.942528 17876 net.cpp:434] fc4_300 <- pool3
I0411 17:14:32.942533 17876 net.cpp:408] fc4_300 -> fc4_300
I0411 17:14:32.949635 17876 net.cpp:150] Setting up fc4_300
I0411 17:14:32.949656 17876 net.cpp:157] Top shape: 1024 300 (307200)
I0411 17:14:32.949659 17876 net.cpp:165] Memory required for data: 4103016448
I0411 17:14:32.949668 17876 layer_factory.hpp:77] Creating layer fc4_prescale
I0411 17:14:32.949677 17876 net.cpp:100] Creating Layer fc4_prescale
I0411 17:14:32.949682 17876 net.cpp:434] fc4_prescale <- fc4_300
I0411 17:14:32.949689 17876 net.cpp:395] fc4_prescale -> fc4_300 (in-place)
I0411 17:14:32.949801 17876 net.cpp:150] Setting up fc4_prescale
I0411 17:14:32.949810 17876 net.cpp:157] Top shape: 1024 300 (307200)
I0411 17:14:32.949813 17876 net.cpp:165] Memory required for data: 4104245248
I0411 17:14:32.949820 17876 layer_factory.hpp:77] Creating layer fc4_sTanH
I0411 17:14:32.949826 17876 net.cpp:100] Creating Layer fc4_sTanH
I0411 17:14:32.949828 17876 net.cpp:434] fc4_sTanH <- fc4_300
I0411 17:14:32.949833 17876 net.cpp:395] fc4_sTanH -> fc4_300 (in-place)
I0411 17:14:32.950058 17876 net.cpp:150] Setting up fc4_sTanH
I0411 17:14:32.950073 17876 net.cpp:157] Top shape: 1024 300 (307200)
I0411 17:14:32.950076 17876 net.cpp:165] Memory required for data: 4105474048
I0411 17:14:32.950080 17876 layer_factory.hpp:77] Creating layer fc4_postscale
I0411 17:14:32.950088 17876 net.cpp:100] Creating Layer fc4_postscale
I0411 17:14:32.950091 17876 net.cpp:434] fc4_postscale <- fc4_300
I0411 17:14:32.950098 17876 net.cpp:395] fc4_postscale -> fc4_300 (in-place)
I0411 17:14:32.950209 17876 net.cpp:150] Setting up fc4_postscale
I0411 17:14:32.950219 17876 net.cpp:157] Top shape: 1024 300 (307200)
I0411 17:14:32.950222 17876 net.cpp:165] Memory required for data: 4106702848
I0411 17:14:32.950228 17876 layer_factory.hpp:77] Creating layer drop4
I0411 17:14:32.950237 17876 net.cpp:100] Creating Layer drop4
I0411 17:14:32.950242 17876 net.cpp:434] drop4 <- fc4_300
I0411 17:14:32.950248 17876 net.cpp:395] drop4 -> fc4_300 (in-place)
I0411 17:14:32.950278 17876 net.cpp:150] Setting up drop4
I0411 17:14:32.950285 17876 net.cpp:157] Top shape: 1024 300 (307200)
I0411 17:14:32.950289 17876 net.cpp:165] Memory required for data: 4107931648
I0411 17:14:32.950292 17876 layer_factory.hpp:77] Creating layer fc5_67
I0411 17:14:32.950299 17876 net.cpp:100] Creating Layer fc5_67
I0411 17:14:32.950305 17876 net.cpp:434] fc5_67 <- fc4_300
I0411 17:14:32.950311 17876 net.cpp:408] fc5_67 -> fc5_classes
I0411 17:14:32.953425 17876 net.cpp:150] Setting up fc5_67
I0411 17:14:32.953449 17876 net.cpp:157] Top shape: 1024 67 (68608)
I0411 17:14:32.953452 17876 net.cpp:165] Memory required for data: 4108206080
I0411 17:14:32.953465 17876 layer_factory.hpp:77] Creating layer loss
I0411 17:14:32.953476 17876 net.cpp:100] Creating Layer loss
I0411 17:14:32.953482 17876 net.cpp:434] loss <- fc5_classes
I0411 17:14:32.953487 17876 net.cpp:434] loss <- label
I0411 17:14:32.953513 17876 net.cpp:408] loss -> loss
I0411 17:14:32.953532 17876 layer_factory.hpp:77] Creating layer loss
…
I0411 17:14:32.954440 17876 solver.cpp:193] Creating test net (#0) specified by test_net file: ./Prototxt/experiment_9/rtsd-r1/orig/trial_1/test.prototxt
I0411 17:14:32.954668 17876 net.cpp:58] Initializing net from parameters: 
state {
  phase: TEST
}
layer {
  name: "data"
  type: "Data"
  top: "data"
  top: "label"
  include {
    phase: TEST
  }
  transform_param {
    scale: 0.0039215689
    mirror: false
    crop_size: 48
    mean_value: 113
    mean_value: 110
    mean_value: 132
  }
  data_param {
    source: "../local_data/lmdb/rtsd-r1/orig/test/lmdb"
    batch_size: 1024
    backend: LMDB
  }
}
layer {
  name: "conv1"
  type: "Convolution"
  bottom: "data"
  top: "conv1"
  convolution_param {
    num_output: 100
    pad: 0
    kernel_size: 7
    group: 1
    stride: 1
    weight_filler {
      type: "xavier"
    }
  }
}
layer {
  name: "conv1_prescale"
  type: "Scale"
  bottom: "conv1"
  top: "conv1"
  param {
    lr_mult: 0
    decay_mult: 0
  }
  scale_param {
    filler {
      value: 0.6666
    }
    bias_term: false
  }
}
layer {
  name: "conv1_sTanH"
  type: "TanH"
  bottom: "conv1"
  top: "conv1"
}
layer {
  name: "conv1_postscale"
  type: "Scale"
  bottom: "conv1"
  top: "conv1"
  param {
    lr_mult: 0
    decay_mult: 0
  }
  scale_param {
    filler {
      value: 1.7159
    }
    bias_term: false
  }
}
layer {
  name: "pool1"
  type: "Pooling"
  bottom: "conv1"
  top: "pool1"
  pooling_param {
    pool: MAX
    kernel_size: 2
    stride: 2
  }
}
layer {
  name: "conv2"
  type: "Convolution"
  bottom: "pool1"
  top: "conv2"
  convolution_param {
    num_output: 150
    pad: 0
    kernel_size: 4
    group: 1
    stride: 1
    weight_filler {
      type: "xavier"
    }
  }
}
layer {
  name: "conv2_prescale"
  type: "Scale"
  bottom: "conv2"
  top: "conv2"
  param {
    lr_mult: 0
    decay_mult: 0
  }
  scale_param {
    filler {
      value: 0.6666
    }
    bias_term: false
  }
}
layer {
  name: "conv2_sTanH"
  type: "TanH"
  bottom: "conv2"
  top: "conv2"
}
layer {
  name: "conv2_postscale"
  type: "Scale"
  bottom: "conv2"
  top: "conv2"
  param {
    lr_mult: 0
    decay_mult: 0
  }
  scale_param {
    filler {
      value: 1.7159
    }
    bias_term: false
  }
}
layer {
  name: "pool2"
  type: "Pooling"
  bottom: "conv2"
  top: "pool2"
  pooling_param {
    pool: MAX
    kernel_size: 2
    stride: 2
  }
}
layer {
  name: "conv3"
  type: "Convolution"
  bottom: "pool2"
  top: "conv3"
  convolution_param {
    num_output: 250
    pad: 0
    kernel_size: 4
    group: 1
    stride: 1
    weight_filler {
      type: "xavier"
    }
  }
}
layer {
  name: "conv3_prescale"
  type: "Scale"
  bottom: "conv3"
  top: "conv3"
  param {
    lr_mult: 0
    decay_mult: 0
  }
  scale_param {
    filler {
      value: 0.6666
    }
    bias_term: false
  }
}
layer {
  name: "conv3_sTanH"
  type: "TanH"
  bottom: "conv3"
  top: "conv3"
}
layer {
  name: "conv3_postscale"
  type: "Scale"
  bottom: "conv3"
  top: "conv3"
  param {
    lr_mult: 0
    decay_mult: 0
  }
  scale_param {
    filler {
      value: 1.7159
    }
    bias_term: false
  }
}
layer {
  name: "pool3"
  type: "Pooling"
  bottom: "conv3"
  top: "pool3"
  pooling_param {
    pool: MAX
    kernel_size: 2
    stride: 2
  }
}
layer {
  name: "fc4_300"
  type: "InnerProduct"
  bottom: "pool3"
  top: "fc4_300"
  inner_product_param {
    num_output: 300
    weight_filler {
      type: "xavier"
    }
  }
}
layer {
  name: "fc4_prescale"
  type: "Scale"
  bottom: "fc4_300"
  top: "fc4_300"
  param {
    lr_mult: 0
    decay_mult: 0
  }
  scale_param {
    filler {
      value: 0.6666
    }
    bias_term: false
  }
}
layer {
  name: "fc4_sTanH"
  type: "TanH"
  bottom: "fc4_300"
  top: "fc4_300"
}
layer {
  name: "fc4_postscale"
  type: "Scale"
  bottom: "fc4_300"
  top: "fc4_300"
  param {
    lr_mult: 0
    decay_mult: 0
  }
  scale_param {
    filler {
      value: 1.7159
    }
    bias_term: false
  }
}
layer {
  name: "drop4"
  type: "Dropout"
  bottom: "fc4_300"
  top: "fc4_300"
  dropout_param {
    dropout_ratio: 0.1
  }
}
layer {
  name: "fc5_67"
  type: "InnerProduct"
  bottom: "fc4_300"
  top: "fc5_classes"
  inner_product_param {
    num_output: 67
    weight_filler {
      type: "xavier"
    }
  }
}
layer {
  name: "loss"
  type: "SoftmaxWithLoss"
  bottom: "fc5_classes"
  bottom: "label"
  top: "loss"
}
layer {
  name: "accuracy_1"
  type: "Accuracy"
  bottom: "fc5_classes"
  bottom: "label"
  top: "accuracy_1"
  include {
    phase: TEST
  }
  accuracy_param {
    top_k: 1
  }
}
layer {
  name: "accuracy_5"
  type: "Accuracy"
  bottom: "fc5_classes"
  bottom: "label"
  top: "accuracy_5"
  include {
    phase: TEST
  }
  accuracy_param {
    top_k: 5
  }
}
I0411 17:14:32.954807 17876 layer_factory.hpp:77] Creating layer data
I0411 17:14:32.955540 17876 net.cpp:100] Creating Layer data
I0411 17:14:32.955554 17876 net.cpp:408] data -> data
I0411 17:14:32.955564 17876 net.cpp:408] data -> label
I0411 17:14:32.957474 18077 db_lmdb.cpp:35] Opened lmdb ../local_data/lmdb/rtsd-r1/orig/test/lmdb
I0411 17:14:32.957681 17876 data_layer.cpp:41] output data size: 1024,3,48,48
I0411 17:14:33.009188 17876 net.cpp:150] Setting up data
I0411 17:14:33.009222 17876 net.cpp:157] Top shape: 1024 3 48 48 (7077888)
I0411 17:14:33.009229 17876 net.cpp:157] Top shape: 1024 (1024)
I0411 17:14:33.009232 17876 net.cpp:165] Memory required for data: 28315648
I0411 17:14:33.009240 17876 layer_factory.hpp:77] Creating layer label_data_1_split
I0411 17:14:33.009255 17876 net.cpp:100] Creating Layer label_data_1_split
I0411 17:14:33.009263 17876 net.cpp:434] label_data_1_split <- label
I0411 17:14:33.009271 17876 net.cpp:408] label_data_1_split -> label_data_1_split_0
I0411 17:14:33.009285 17876 net.cpp:408] label_data_1_split -> label_data_1_split_1
I0411 17:14:33.009312 17876 net.cpp:408] label_data_1_split -> label_data_1_split_2
I0411 17:14:33.009434 17876 net.cpp:150] Setting up label_data_1_split
I0411 17:14:33.009445 17876 net.cpp:157] Top shape: 1024 (1024)
I0411 17:14:33.009451 17876 net.cpp:157] Top shape: 1024 (1024)
I0411 17:14:33.009456 17876 net.cpp:157] Top shape: 1024 (1024)
I0411 17:14:33.009459 17876 net.cpp:165] Memory required for data: 28327936
I0411 17:14:33.009464 17876 layer_factory.hpp:77] Creating layer conv1
I0411 17:14:33.009479 17876 net.cpp:100] Creating Layer conv1
I0411 17:14:33.009485 17876 net.cpp:434] conv1 <- data
I0411 17:14:33.009491 17876 net.cpp:408] conv1 -> conv1
I0411 17:14:33.012583 17876 net.cpp:150] Setting up conv1
I0411 17:14:33.012603 17876 net.cpp:157] Top shape: 1024 100 42 42 (180633600)
I0411 17:14:33.012609 17876 net.cpp:165] Memory required for data: 750862336
I0411 17:14:33.012624 17876 layer_factory.hpp:77] Creating layer conv1_prescale
I0411 17:14:33.012635 17876 net.cpp:100] Creating Layer conv1_prescale
I0411 17:14:33.012641 17876 net.cpp:434] conv1_prescale <- conv1
I0411 17:14:33.012648 17876 net.cpp:395] conv1_prescale -> conv1 (in-place)
I0411 17:14:33.012781 17876 net.cpp:150] Setting up conv1_prescale
I0411 17:14:33.012792 17876 net.cpp:157] Top shape: 1024 100 42 42 (180633600)
I0411 17:14:33.012797 17876 net.cpp:165] Memory required for data: 1473396736
I0411 17:14:33.012805 17876 layer_factory.hpp:77] Creating layer conv1_sTanH
I0411 17:14:33.012816 17876 net.cpp:100] Creating Layer conv1_sTanH
I0411 17:14:33.012821 17876 net.cpp:434] conv1_sTanH <- conv1
I0411 17:14:33.012827 17876 net.cpp:395] conv1_sTanH -> conv1 (in-place)
I0411 17:14:33.013061 17876 net.cpp:150] Setting up conv1_sTanH
I0411 17:14:33.013074 17876 net.cpp:157] Top shape: 1024 100 42 42 (180633600)
I0411 17:14:33.013079 17876 net.cpp:165] Memory required for data: 2195931136
I0411 17:14:33.013083 17876 layer_factory.hpp:77] Creating layer conv1_postscale
I0411 17:14:33.013092 17876 net.cpp:100] Creating Layer conv1_postscale
I0411 17:14:33.013098 17876 net.cpp:434] conv1_postscale <- conv1
I0411 17:14:33.013103 17876 net.cpp:395] conv1_postscale -> conv1 (in-place)
I0411 17:14:33.013234 17876 net.cpp:150] Setting up conv1_postscale
I0411 17:14:33.013243 17876 net.cpp:157] Top shape: 1024 100 42 42 (180633600)
I0411 17:14:33.013248 17876 net.cpp:165] Memory required for data: 2918465536
I0411 17:14:33.013255 17876 layer_factory.hpp:77] Creating layer pool1
I0411 17:14:33.013263 17876 net.cpp:100] Creating Layer pool1
I0411 17:14:33.013268 17876 net.cpp:434] pool1 <- conv1
I0411 17:14:33.013275 17876 net.cpp:408] pool1 -> pool1
I0411 17:14:33.013326 17876 net.cpp:150] Setting up pool1
I0411 17:14:33.013335 17876 net.cpp:157] Top shape: 1024 100 21 21 (45158400)
I0411 17:14:33.013340 17876 net.cpp:165] Memory required for data: 3099099136
I0411 17:14:33.013345 17876 layer_factory.hpp:77] Creating layer conv2
I0411 17:14:33.013355 17876 net.cpp:100] Creating Layer conv2
I0411 17:14:33.013360 17876 net.cpp:434] conv2 <- pool1
I0411 17:14:33.013366 17876 net.cpp:408] conv2 -> conv2
I0411 17:14:33.028472 17876 net.cpp:150] Setting up conv2
I0411 17:14:33.028498 17876 net.cpp:157] Top shape: 1024 150 18 18 (49766400)
I0411 17:14:33.028503 17876 net.cpp:165] Memory required for data: 3298164736
I0411 17:14:33.028520 17876 layer_factory.hpp:77] Creating layer conv2_prescale
I0411 17:14:33.028537 17876 net.cpp:100] Creating Layer conv2_prescale
I0411 17:14:33.028542 17876 net.cpp:434] conv2_prescale <- conv2
I0411 17:14:33.028551 17876 net.cpp:395] conv2_prescale -> conv2 (in-place)
I0411 17:14:33.028703 17876 net.cpp:150] Setting up conv2_prescale
I0411 17:14:33.028714 17876 net.cpp:157] Top shape: 1024 150 18 18 (49766400)
I0411 17:14:33.028717 17876 net.cpp:165] Memory required for data: 3497230336
I0411 17:14:33.028723 17876 layer_factory.hpp:77] Creating layer conv2_sTanH
I0411 17:14:33.028731 17876 net.cpp:100] Creating Layer conv2_sTanH
I0411 17:14:33.028738 17876 net.cpp:434] conv2_sTanH <- conv2
I0411 17:14:33.028748 17876 net.cpp:395] conv2_sTanH -> conv2 (in-place)
I0411 17:14:33.036738 17876 net.cpp:150] Setting up conv2_sTanH
I0411 17:14:33.036761 17876 net.cpp:157] Top shape: 1024 150 18 18 (49766400)
I0411 17:14:33.036768 17876 net.cpp:165] Memory required for data: 3696295936
I0411 17:14:33.036773 17876 layer_factory.hpp:77] Creating layer conv2_postscale
I0411 17:14:33.036787 17876 net.cpp:100] Creating Layer conv2_postscale
I0411 17:14:33.036793 17876 net.cpp:434] conv2_postscale <- conv2
I0411 17:14:33.036800 17876 net.cpp:395] conv2_postscale -> conv2 (in-place)
I0411 17:14:33.036939 17876 net.cpp:150] Setting up conv2_postscale
I0411 17:14:33.036950 17876 net.cpp:157] Top shape: 1024 150 18 18 (49766400)
I0411 17:14:33.036955 17876 net.cpp:165] Memory required for data: 3895361536
I0411 17:14:33.036962 17876 layer_factory.hpp:77] Creating layer pool2
I0411 17:14:33.036972 17876 net.cpp:100] Creating Layer pool2
I0411 17:14:33.036978 17876 net.cpp:434] pool2 <- conv2
I0411 17:14:33.036988 17876 net.cpp:408] pool2 -> pool2
I0411 17:14:33.037051 17876 net.cpp:150] Setting up pool2
I0411 17:14:33.037060 17876 net.cpp:157] Top shape: 1024 150 9 9 (12441600)
I0411 17:14:33.037070 17876 net.cpp:165] Memory required for data: 3945127936
I0411 17:14:33.037075 17876 layer_factory.hpp:77] Creating layer conv3
I0411 17:14:33.037086 17876 net.cpp:100] Creating Layer conv3
I0411 17:14:33.037092 17876 net.cpp:434] conv3 <- pool2
I0411 17:14:33.037098 17876 net.cpp:408] conv3 -> conv3
I0411 17:14:33.044999 17876 net.cpp:150] Setting up conv3
I0411 17:14:33.045024 17876 net.cpp:157] Top shape: 1024 250 6 6 (9216000)
I0411 17:14:33.045028 17876 net.cpp:165] Memory required for data: 3981991936
I0411 17:14:33.045042 17876 layer_factory.hpp:77] Creating layer conv3_prescale
I0411 17:14:33.045056 17876 net.cpp:100] Creating Layer conv3_prescale
I0411 17:14:33.045063 17876 net.cpp:434] conv3_prescale <- conv3
I0411 17:14:33.045069 17876 net.cpp:395] conv3_prescale -> conv3 (in-place)
I0411 17:14:33.045198 17876 net.cpp:150] Setting up conv3_prescale
I0411 17:14:33.045208 17876 net.cpp:157] Top shape: 1024 250 6 6 (9216000)
I0411 17:14:33.045213 17876 net.cpp:165] Memory required for data: 4018855936
I0411 17:14:33.045220 17876 layer_factory.hpp:77] Creating layer conv3_sTanH
I0411 17:14:33.045228 17876 net.cpp:100] Creating Layer conv3_sTanH
I0411 17:14:33.045233 17876 net.cpp:434] conv3_sTanH <- conv3
I0411 17:14:33.045240 17876 net.cpp:395] conv3_sTanH -> conv3 (in-place)
I0411 17:14:33.047446 17876 net.cpp:150] Setting up conv3_sTanH
I0411 17:14:33.047468 17876 net.cpp:157] Top shape: 1024 250 6 6 (9216000)
I0411 17:14:33.047474 17876 net.cpp:165] Memory required for data: 4055719936
I0411 17:14:33.047484 17876 layer_factory.hpp:77] Creating layer conv3_postscale
I0411 17:14:33.047497 17876 net.cpp:100] Creating Layer conv3_postscale
I0411 17:14:33.047502 17876 net.cpp:434] conv3_postscale <- conv3
I0411 17:14:33.047509 17876 net.cpp:395] conv3_postscale -> conv3 (in-place)
I0411 17:14:33.047646 17876 net.cpp:150] Setting up conv3_postscale
I0411 17:14:33.047657 17876 net.cpp:157] Top shape: 1024 250 6 6 (9216000)
I0411 17:14:33.047662 17876 net.cpp:165] Memory required for data: 4092583936
I0411 17:14:33.047668 17876 layer_factory.hpp:77] Creating layer pool3
I0411 17:14:33.047683 17876 net.cpp:100] Creating Layer pool3
I0411 17:14:33.047689 17876 net.cpp:434] pool3 <- conv3
I0411 17:14:33.047695 17876 net.cpp:408] pool3 -> pool3
I0411 17:14:33.047755 17876 net.cpp:150] Setting up pool3
I0411 17:14:33.047765 17876 net.cpp:157] Top shape: 1024 250 3 3 (2304000)
I0411 17:14:33.047770 17876 net.cpp:165] Memory required for data: 4101799936
I0411 17:14:33.047773 17876 layer_factory.hpp:77] Creating layer fc4_300
I0411 17:14:33.047783 17876 net.cpp:100] Creating Layer fc4_300
I0411 17:14:33.047788 17876 net.cpp:434] fc4_300 <- pool3
I0411 17:14:33.047794 17876 net.cpp:408] fc4_300 -> fc4_300
I0411 17:14:33.054788 17876 net.cpp:150] Setting up fc4_300
I0411 17:14:33.054810 17876 net.cpp:157] Top shape: 1024 300 (307200)
I0411 17:14:33.054816 17876 net.cpp:165] Memory required for data: 4103028736
I0411 17:14:33.054841 17876 layer_factory.hpp:77] Creating layer fc4_prescale
I0411 17:14:33.054852 17876 net.cpp:100] Creating Layer fc4_prescale
I0411 17:14:33.054858 17876 net.cpp:434] fc4_prescale <- fc4_300
I0411 17:14:33.054867 17876 net.cpp:395] fc4_prescale -> fc4_300 (in-place)
I0411 17:14:33.054991 17876 net.cpp:150] Setting up fc4_prescale
I0411 17:14:33.054999 17876 net.cpp:157] Top shape: 1024 300 (307200)
I0411 17:14:33.055004 17876 net.cpp:165] Memory required for data: 4104257536
I0411 17:14:33.055011 17876 layer_factory.hpp:77] Creating layer fc4_sTanH
I0411 17:14:33.055016 17876 net.cpp:100] Creating Layer fc4_sTanH
I0411 17:14:33.055022 17876 net.cpp:434] fc4_sTanH <- fc4_300
I0411 17:14:33.055028 17876 net.cpp:395] fc4_sTanH -> fc4_300 (in-place)
I0411 17:14:33.057451 17876 net.cpp:150] Setting up fc4_sTanH
I0411 17:14:33.057473 17876 net.cpp:157] Top shape: 1024 300 (307200)
I0411 17:14:33.057478 17876 net.cpp:165] Memory required for data: 4105486336
I0411 17:14:33.057483 17876 layer_factory.hpp:77] Creating layer fc4_postscale
I0411 17:14:33.057492 17876 net.cpp:100] Creating Layer fc4_postscale
I0411 17:14:33.057498 17876 net.cpp:434] fc4_postscale <- fc4_300
I0411 17:14:33.057508 17876 net.cpp:395] fc4_postscale -> fc4_300 (in-place)
I0411 17:14:33.057649 17876 net.cpp:150] Setting up fc4_postscale
I0411 17:14:33.057659 17876 net.cpp:157] Top shape: 1024 300 (307200)
I0411 17:14:33.057664 17876 net.cpp:165] Memory required for data: 4106715136
I0411 17:14:33.057672 17876 layer_factory.hpp:77] Creating layer drop4
I0411 17:14:33.057682 17876 net.cpp:100] Creating Layer drop4
I0411 17:14:33.057687 17876 net.cpp:434] drop4 <- fc4_300
I0411 17:14:33.057694 17876 net.cpp:395] drop4 -> fc4_300 (in-place)
I0411 17:14:33.057726 17876 net.cpp:150] Setting up drop4
I0411 17:14:33.057737 17876 net.cpp:157] Top shape: 1024 300 (307200)
I0411 17:14:33.057746 17876 net.cpp:165] Memory required for data: 4107943936
I0411 17:14:33.057750 17876 layer_factory.hpp:77] Creating layer fc5_67
I0411 17:14:33.057759 17876 net.cpp:100] Creating Layer fc5_67
I0411 17:14:33.057763 17876 net.cpp:434] fc5_67 <- fc4_300
I0411 17:14:33.057770 17876 net.cpp:408] fc5_67 -> fc5_classes
I0411 17:14:33.058084 17876 net.cpp:150] Setting up fc5_67
I0411 17:14:33.058094 17876 net.cpp:157] Top shape: 1024 67 (68608)
I0411 17:14:33.058099 17876 net.cpp:165] Memory required for data: 4108218368
I0411 17:14:33.058113 17876 layer_factory.hpp:77] Creating layer fc5_classes_fc5_67_0_split
I0411 17:14:33.058125 17876 net.cpp:100] Creating Layer fc5_classes_fc5_67_0_split
I0411 17:14:33.058131 17876 net.cpp:434] fc5_classes_fc5_67_0_split <- fc5_classes
I0411 17:14:33.058137 17876 net.cpp:408] fc5_classes_fc5_67_0_split -> fc5_classes_fc5_67_0_split_0
I0411 17:14:33.058147 17876 net.cpp:408] fc5_classes_fc5_67_0_split -> fc5_classes_fc5_67_0_split_1
I0411 17:14:33.058156 17876 net.cpp:408] fc5_classes_fc5_67_0_split -> fc5_classes_fc5_67_0_split_2
I0411 17:14:33.058231 17876 net.cpp:150] Setting up fc5_classes_fc5_67_0_split
I0411 17:14:33.058239 17876 net.cpp:157] Top shape: 1024 67 (68608)
I0411 17:14:33.058245 17876 net.cpp:157] Top shape: 1024 67 (68608)
I0411 17:14:33.058250 17876 net.cpp:157] Top shape: 1024 67 (68608)
I0411 17:14:33.058254 17876 net.cpp:165] Memory required for data: 4109041664
I0411 17:14:33.058256 17876 layer_factory.hpp:77] Creating layer loss
I0411 17:14:33.058264 17876 net.cpp:100] Creating Layer loss
I0411 17:14:33.058269 17876 net.cpp:434] loss <- fc5_classes_fc5_67_0_split_0
I0411 17:14:33.058274 17876 net.cpp:434] loss <- label_data_1_split_0
I0411 17:14:33.058284 17876 net.cpp:408] loss -> loss
…
