…
I0414 09:23:22.267165  3436 solver.cpp:93] Creating training net from train_net file: ./Prototxt/experiment_11/rtsd-r3/CoNorm/trial_5/train.prototxt
I0414 09:23:22.267621  3436 net.cpp:58] Initializing net from parameters: 
state {
  phase: TRAIN
  level: 0
  stage: ""
}
layer {
  name: "data"
  type: "Data"
  top: "data"
  top: "label"
  include {
    phase: TRAIN
  }
  transform_param {
    scale: 0.0039215689
    mirror: false
    crop_size: 48
    mean_value: 135
    mean_value: 134
    mean_value: 134
  }
  data_param {
    source: "../local_data/lmdb/rtsd-r3/CoNorm/train/lmdb"
    batch_size: 1024
    backend: LMDB
  }
}
layer {
  name: "conv1"
  type: "Convolution"
  bottom: "data"
  top: "conv1"
  convolution_param {
    num_output: 100
    pad: 0
    kernel_size: 7
    group: 1
    stride: 1
    weight_filler {
      type: "xavier"
    }
  }
}
layer {
  name: "conv1_prescale"
  type: "Scale"
  bottom: "conv1"
  top: "conv1"
  param {
    lr_mult: 0
    decay_mult: 0
  }
  scale_param {
    filler {
      value: 0.6666
    }
    bias_term: false
  }
}
layer {
  name: "conv1_sTanH"
  type: "TanH"
  bottom: "conv1"
  top: "conv1"
}
layer {
  name: "conv1_postscale"
  type: "Scale"
  bottom: "conv1"
  top: "conv1"
  param {
    lr_mult: 0
    decay_mult: 0
  }
  scale_param {
    filler {
      value: 1.7159
    }
    bias_term: false
  }
}
layer {
  name: "pool1"
  type: "Pooling"
  bottom: "conv1"
  top: "pool1"
  pooling_param {
    pool: MAX
    kernel_size: 2
    stride: 2
  }
}
layer {
  name: "conv2"
  type: "Convolution"
  bottom: "pool1"
  top: "conv2"
  convolution_param {
    num_output: 150
    pad: 0
    kernel_size: 4
    group: 1
    stride: 1
    weight_filler {
      type: "xavier"
    }
  }
}
layer {
  name: "conv2_prescale"
  type: "Scale"
  bottom: "conv2"
  top: "conv2"
  param {
    lr_mult: 0
    decay_mult: 0
  }
  scale_param {
    filler {
      value: 0.6666
    }
    bias_term: false
  }
}
layer {
  name: "conv2_sTanH"
  type: "TanH"
  bottom: "conv2"
  top: "conv2"
}
layer {
  name: "conv2_postscale"
  type: "Scale"
  bottom: "conv2"
  top: "conv2"
  param {
    lr_mult: 0
    decay_mult: 0
  }
  scale_param {
    filler {
      value: 1.7159
    }
    bias_term: false
  }
}
layer {
  name: "pool2"
  type: "Pooling"
  bottom: "conv2"
  top: "pool2"
  pooling_param {
    pool: MAX
    kernel_size: 2
    stride: 2
  }
}
layer {
  name: "conv3"
  type: "Convolution"
  bottom: "pool2"
  top: "conv3"
  convolution_param {
    num_output: 250
    pad: 0
    kernel_size: 4
    group: 1
    stride: 1
    weight_filler {
      type: "xavier"
    }
  }
}
layer {
  name: "conv3_prescale"
  type: "Scale"
  bottom: "conv3"
  top: "conv3"
  param {
    lr_mult: 0
    decay_mult: 0
  }
  scale_param {
    filler {
      value: 0.6666
    }
    bias_term: false
  }
}
layer {
  name: "conv3_sTanH"
  type: "TanH"
  bottom: "conv3"
  top: "conv3"
}
layer {
  name: "conv3_postscale"
  type: "Scale"
  bottom: "conv3"
  top: "conv3"
  param {
    lr_mult: 0
    decay_mult: 0
  }
  scale_param {
    filler {
      value: 1.7159
    }
    bias_term: false
  }
}
layer {
  name: "pool3"
  type: "Pooling"
  bottom: "conv3"
  top: "pool3"
  pooling_param {
    pool: MAX
    kernel_size: 2
    stride: 2
  }
}
layer {
  name: "fc4_300"
  type: "InnerProduct"
  bottom: "pool3"
  top: "fc4_300"
  inner_product_param {
    num_output: 300
    weight_filler {
      type: "xavier"
    }
  }
}
layer {
  name: "fc4_prescale"
  type: "Scale"
  bottom: "fc4_300"
  top: "fc4_300"
  param {
    lr_mult: 0
    decay_mult: 0
  }
  scale_param {
    filler {
      value: 0.6666
    }
    bias_term: false
  }
}
layer {
  name: "fc4_sTanH"
  type: "TanH"
  bottom: "fc4_300"
  top: "fc4_300"
}
layer {
  name: "fc4_postscale"
  type: "Scale"
  bottom: "fc4_300"
  top: "fc4_300"
  param {
    lr_mult: 0
    decay_mult: 0
  }
  scale_param {
    filler {
      value: 1.7159
    }
    bias_term: false
  }
}
layer {
  name: "fc5_106"
  type: "InnerProduct"
  bottom: "fc4_300"
  top: "fc5_classes"
  inner_product_param {
    num_output: 106
    weight_filler {
      type: "xavier"
    }
  }
}
layer {
  name: "softmax"
  type: "Softmax"
  bottom: "fc5_classes"
  top: "softmax"
}
layer {
  name: "loss"
  type: "MultinomialLogisticLoss"
  bottom: "softmax"
  bottom: "label"
  top: "loss"
}
layer {
  name: "accuracy_1"
  type: "Accuracy"
  bottom: "fc5_classes"
  bottom: "label"
  top: "accuracy_1"
  accuracy_param {
    top_k: 1
  }
}
layer {
  name: "accuracy_5"
  type: "Accuracy"
  bottom: "fc5_classes"
  bottom: "label"
  top: "accuracy_5"
  accuracy_param {
    top_k: 5
  }
}
layer {
  name: "silence"
  type: "Silence"
  bottom: "accuracy_1"
  bottom: "accuracy_5"
}
I0414 09:23:22.267767  3436 layer_factory.hpp:77] Creating layer data
I0414 09:23:22.268858  3436 net.cpp:100] Creating Layer data
I0414 09:23:22.268873  3436 net.cpp:408] data -> data
I0414 09:23:22.268895  3436 net.cpp:408] data -> label
I0414 09:23:22.275290  3556 db_lmdb.cpp:35] Opened lmdb ../local_data/lmdb/rtsd-r3/CoNorm/train/lmdb
I0414 09:23:22.292315  3436 data_layer.cpp:41] output data size: 1024,3,48,48
I0414 09:23:22.353266  3436 net.cpp:150] Setting up data
I0414 09:23:22.353298  3436 net.cpp:157] Top shape: 1024 3 48 48 (7077888)
I0414 09:23:22.353303  3436 net.cpp:157] Top shape: 1024 (1024)
I0414 09:23:22.353307  3436 net.cpp:165] Memory required for data: 28315648
I0414 09:23:22.353318  3436 layer_factory.hpp:77] Creating layer label_data_1_split
I0414 09:23:22.353333  3436 net.cpp:100] Creating Layer label_data_1_split
I0414 09:23:22.353340  3436 net.cpp:434] label_data_1_split <- label
I0414 09:23:22.353354  3436 net.cpp:408] label_data_1_split -> label_data_1_split_0
I0414 09:23:22.353368  3436 net.cpp:408] label_data_1_split -> label_data_1_split_1
I0414 09:23:22.353376  3436 net.cpp:408] label_data_1_split -> label_data_1_split_2
I0414 09:23:22.353447  3436 net.cpp:150] Setting up label_data_1_split
I0414 09:23:22.353456  3436 net.cpp:157] Top shape: 1024 (1024)
I0414 09:23:22.353458  3436 net.cpp:157] Top shape: 1024 (1024)
I0414 09:23:22.353462  3436 net.cpp:157] Top shape: 1024 (1024)
I0414 09:23:22.353466  3436 net.cpp:165] Memory required for data: 28327936
I0414 09:23:22.353468  3436 layer_factory.hpp:77] Creating layer conv1
I0414 09:23:22.353483  3436 net.cpp:100] Creating Layer conv1
I0414 09:23:22.353487  3436 net.cpp:434] conv1 <- data
I0414 09:23:22.353493  3436 net.cpp:408] conv1 -> conv1
I0414 09:23:22.732820  3436 net.cpp:150] Setting up conv1
I0414 09:23:22.732846  3436 net.cpp:157] Top shape: 1024 100 42 42 (180633600)
I0414 09:23:22.732851  3436 net.cpp:165] Memory required for data: 750862336
I0414 09:23:22.732872  3436 layer_factory.hpp:77] Creating layer conv1_prescale
I0414 09:23:22.732885  3436 net.cpp:100] Creating Layer conv1_prescale
I0414 09:23:22.732892  3436 net.cpp:434] conv1_prescale <- conv1
I0414 09:23:22.732897  3436 net.cpp:395] conv1_prescale -> conv1 (in-place)
I0414 09:23:22.733005  3436 net.cpp:150] Setting up conv1_prescale
I0414 09:23:22.733012  3436 net.cpp:157] Top shape: 1024 100 42 42 (180633600)
I0414 09:23:22.733016  3436 net.cpp:165] Memory required for data: 1473396736
I0414 09:23:22.733022  3436 layer_factory.hpp:77] Creating layer conv1_sTanH
I0414 09:23:22.733032  3436 net.cpp:100] Creating Layer conv1_sTanH
I0414 09:23:22.733036  3436 net.cpp:434] conv1_sTanH <- conv1
I0414 09:23:22.733042  3436 net.cpp:395] conv1_sTanH -> conv1 (in-place)
I0414 09:23:22.733233  3436 net.cpp:150] Setting up conv1_sTanH
I0414 09:23:22.733268  3436 net.cpp:157] Top shape: 1024 100 42 42 (180633600)
I0414 09:23:22.733271  3436 net.cpp:165] Memory required for data: 2195931136
I0414 09:23:22.733274  3436 layer_factory.hpp:77] Creating layer conv1_postscale
I0414 09:23:22.733281  3436 net.cpp:100] Creating Layer conv1_postscale
I0414 09:23:22.733286  3436 net.cpp:434] conv1_postscale <- conv1
I0414 09:23:22.733291  3436 net.cpp:395] conv1_postscale -> conv1 (in-place)
I0414 09:23:22.733386  3436 net.cpp:150] Setting up conv1_postscale
I0414 09:23:22.733395  3436 net.cpp:157] Top shape: 1024 100 42 42 (180633600)
I0414 09:23:22.733398  3436 net.cpp:165] Memory required for data: 2918465536
I0414 09:23:22.733403  3436 layer_factory.hpp:77] Creating layer pool1
I0414 09:23:22.733410  3436 net.cpp:100] Creating Layer pool1
I0414 09:23:22.733415  3436 net.cpp:434] pool1 <- conv1
I0414 09:23:22.733420  3436 net.cpp:408] pool1 -> pool1
I0414 09:23:22.733466  3436 net.cpp:150] Setting up pool1
I0414 09:23:22.733474  3436 net.cpp:157] Top shape: 1024 100 21 21 (45158400)
I0414 09:23:22.733477  3436 net.cpp:165] Memory required for data: 3099099136
I0414 09:23:22.733480  3436 layer_factory.hpp:77] Creating layer conv2
I0414 09:23:22.733489  3436 net.cpp:100] Creating Layer conv2
I0414 09:23:22.733494  3436 net.cpp:434] conv2 <- pool1
I0414 09:23:22.733500  3436 net.cpp:408] conv2 -> conv2
I0414 09:23:22.741758  3436 net.cpp:150] Setting up conv2
I0414 09:23:22.741776  3436 net.cpp:157] Top shape: 1024 150 18 18 (49766400)
I0414 09:23:22.741780  3436 net.cpp:165] Memory required for data: 3298164736
I0414 09:23:22.741791  3436 layer_factory.hpp:77] Creating layer conv2_prescale
I0414 09:23:22.741801  3436 net.cpp:100] Creating Layer conv2_prescale
I0414 09:23:22.741804  3436 net.cpp:434] conv2_prescale <- conv2
I0414 09:23:22.741811  3436 net.cpp:395] conv2_prescale -> conv2 (in-place)
I0414 09:23:22.741922  3436 net.cpp:150] Setting up conv2_prescale
I0414 09:23:22.741931  3436 net.cpp:157] Top shape: 1024 150 18 18 (49766400)
I0414 09:23:22.741935  3436 net.cpp:165] Memory required for data: 3497230336
I0414 09:23:22.741940  3436 layer_factory.hpp:77] Creating layer conv2_sTanH
I0414 09:23:22.741946  3436 net.cpp:100] Creating Layer conv2_sTanH
I0414 09:23:22.741950  3436 net.cpp:434] conv2_sTanH <- conv2
I0414 09:23:22.741955  3436 net.cpp:395] conv2_sTanH -> conv2 (in-place)
I0414 09:23:22.742805  3436 net.cpp:150] Setting up conv2_sTanH
I0414 09:23:22.742820  3436 net.cpp:157] Top shape: 1024 150 18 18 (49766400)
I0414 09:23:22.742825  3436 net.cpp:165] Memory required for data: 3696295936
I0414 09:23:22.742827  3436 layer_factory.hpp:77] Creating layer conv2_postscale
I0414 09:23:22.742835  3436 net.cpp:100] Creating Layer conv2_postscale
I0414 09:23:22.742838  3436 net.cpp:434] conv2_postscale <- conv2
I0414 09:23:22.742843  3436 net.cpp:395] conv2_postscale -> conv2 (in-place)
I0414 09:23:22.742943  3436 net.cpp:150] Setting up conv2_postscale
I0414 09:23:22.742951  3436 net.cpp:157] Top shape: 1024 150 18 18 (49766400)
I0414 09:23:22.742956  3436 net.cpp:165] Memory required for data: 3895361536
I0414 09:23:22.742961  3436 layer_factory.hpp:77] Creating layer pool2
I0414 09:23:22.742967  3436 net.cpp:100] Creating Layer pool2
I0414 09:23:22.742972  3436 net.cpp:434] pool2 <- conv2
I0414 09:23:22.742977  3436 net.cpp:408] pool2 -> pool2
I0414 09:23:22.743019  3436 net.cpp:150] Setting up pool2
I0414 09:23:22.743026  3436 net.cpp:157] Top shape: 1024 150 9 9 (12441600)
I0414 09:23:22.743031  3436 net.cpp:165] Memory required for data: 3945127936
I0414 09:23:22.743034  3436 layer_factory.hpp:77] Creating layer conv3
I0414 09:23:22.743042  3436 net.cpp:100] Creating Layer conv3
I0414 09:23:22.743046  3436 net.cpp:434] conv3 <- pool2
I0414 09:23:22.743052  3436 net.cpp:408] conv3 -> conv3
I0414 09:23:22.748785  3436 net.cpp:150] Setting up conv3
I0414 09:23:22.748805  3436 net.cpp:157] Top shape: 1024 250 6 6 (9216000)
I0414 09:23:22.748809  3436 net.cpp:165] Memory required for data: 3981991936
I0414 09:23:22.748819  3436 layer_factory.hpp:77] Creating layer conv3_prescale
I0414 09:23:22.748843  3436 net.cpp:100] Creating Layer conv3_prescale
I0414 09:23:22.748849  3436 net.cpp:434] conv3_prescale <- conv3
I0414 09:23:22.748855  3436 net.cpp:395] conv3_prescale -> conv3 (in-place)
I0414 09:23:22.748953  3436 net.cpp:150] Setting up conv3_prescale
I0414 09:23:22.748962  3436 net.cpp:157] Top shape: 1024 250 6 6 (9216000)
I0414 09:23:22.748966  3436 net.cpp:165] Memory required for data: 4018855936
I0414 09:23:22.748971  3436 layer_factory.hpp:77] Creating layer conv3_sTanH
I0414 09:23:22.748976  3436 net.cpp:100] Creating Layer conv3_sTanH
I0414 09:23:22.748981  3436 net.cpp:434] conv3_sTanH <- conv3
I0414 09:23:22.748986  3436 net.cpp:395] conv3_sTanH -> conv3 (in-place)
I0414 09:23:22.749981  3436 net.cpp:150] Setting up conv3_sTanH
I0414 09:23:22.749997  3436 net.cpp:157] Top shape: 1024 250 6 6 (9216000)
I0414 09:23:22.750002  3436 net.cpp:165] Memory required for data: 4055719936
I0414 09:23:22.750005  3436 layer_factory.hpp:77] Creating layer conv3_postscale
I0414 09:23:22.750015  3436 net.cpp:100] Creating Layer conv3_postscale
I0414 09:23:22.750020  3436 net.cpp:434] conv3_postscale <- conv3
I0414 09:23:22.750025  3436 net.cpp:395] conv3_postscale -> conv3 (in-place)
I0414 09:23:22.750125  3436 net.cpp:150] Setting up conv3_postscale
I0414 09:23:22.750134  3436 net.cpp:157] Top shape: 1024 250 6 6 (9216000)
I0414 09:23:22.750139  3436 net.cpp:165] Memory required for data: 4092583936
I0414 09:23:22.750144  3436 layer_factory.hpp:77] Creating layer pool3
I0414 09:23:22.750154  3436 net.cpp:100] Creating Layer pool3
I0414 09:23:22.750159  3436 net.cpp:434] pool3 <- conv3
I0414 09:23:22.750164  3436 net.cpp:408] pool3 -> pool3
I0414 09:23:22.750205  3436 net.cpp:150] Setting up pool3
I0414 09:23:22.750212  3436 net.cpp:157] Top shape: 1024 250 3 3 (2304000)
I0414 09:23:22.750216  3436 net.cpp:165] Memory required for data: 4101799936
I0414 09:23:22.750219  3436 layer_factory.hpp:77] Creating layer fc4_300
I0414 09:23:22.750227  3436 net.cpp:100] Creating Layer fc4_300
I0414 09:23:22.750232  3436 net.cpp:434] fc4_300 <- pool3
I0414 09:23:22.750237  3436 net.cpp:408] fc4_300 -> fc4_300
I0414 09:23:22.758819  3436 net.cpp:150] Setting up fc4_300
I0414 09:23:22.758836  3436 net.cpp:157] Top shape: 1024 300 (307200)
I0414 09:23:22.758839  3436 net.cpp:165] Memory required for data: 4103028736
I0414 09:23:22.758846  3436 layer_factory.hpp:77] Creating layer fc4_prescale
I0414 09:23:22.758857  3436 net.cpp:100] Creating Layer fc4_prescale
I0414 09:23:22.758862  3436 net.cpp:434] fc4_prescale <- fc4_300
I0414 09:23:22.758868  3436 net.cpp:395] fc4_prescale -> fc4_300 (in-place)
I0414 09:23:22.758958  3436 net.cpp:150] Setting up fc4_prescale
I0414 09:23:22.758966  3436 net.cpp:157] Top shape: 1024 300 (307200)
I0414 09:23:22.758970  3436 net.cpp:165] Memory required for data: 4104257536
I0414 09:23:22.758973  3436 layer_factory.hpp:77] Creating layer fc4_sTanH
I0414 09:23:22.758987  3436 net.cpp:100] Creating Layer fc4_sTanH
I0414 09:23:22.758992  3436 net.cpp:434] fc4_sTanH <- fc4_300
I0414 09:23:22.758997  3436 net.cpp:395] fc4_sTanH -> fc4_300 (in-place)
I0414 09:23:22.759186  3436 net.cpp:150] Setting up fc4_sTanH
I0414 09:23:22.759198  3436 net.cpp:157] Top shape: 1024 300 (307200)
I0414 09:23:22.759202  3436 net.cpp:165] Memory required for data: 4105486336
I0414 09:23:22.759205  3436 layer_factory.hpp:77] Creating layer fc4_postscale
I0414 09:23:22.759212  3436 net.cpp:100] Creating Layer fc4_postscale
I0414 09:23:22.759215  3436 net.cpp:434] fc4_postscale <- fc4_300
I0414 09:23:22.759222  3436 net.cpp:395] fc4_postscale -> fc4_300 (in-place)
I0414 09:23:22.759320  3436 net.cpp:150] Setting up fc4_postscale
I0414 09:23:22.759327  3436 net.cpp:157] Top shape: 1024 300 (307200)
I0414 09:23:22.759330  3436 net.cpp:165] Memory required for data: 4106715136
I0414 09:23:22.759335  3436 layer_factory.hpp:77] Creating layer fc5_106
I0414 09:23:22.759344  3436 net.cpp:100] Creating Layer fc5_106
I0414 09:23:22.759349  3436 net.cpp:434] fc5_106 <- fc4_300
I0414 09:23:22.759356  3436 net.cpp:408] fc5_106 -> fc5_classes
I0414 09:23:22.761143  3436 net.cpp:150] Setting up fc5_106
I0414 09:23:22.761160  3436 net.cpp:157] Top shape: 1024 106 (108544)
I0414 09:23:22.761163  3436 net.cpp:165] Memory required for data: 4107149312
I0414 09:23:22.761175  3436 layer_factory.hpp:77] Creating layer fc5_classes_fc5_106_0_split
I0414 09:23:22.761183  3436 net.cpp:100] Creating Layer fc5_classes_fc5_106_0_split
I0414 09:23:22.761186  3436 net.cpp:434] fc5_classes_fc5_106_0_split <- fc5_classes
I0414 09:23:22.761193  3436 net.cpp:408] fc5_classes_fc5_106_0_split -> fc5_classes_fc5_106_0_split_0
I0414 09:23:22.761199  3436 net.cpp:408] fc5_classes_fc5_106_0_split -> fc5_classes_fc5_106_0_split_1
I0414 09:23:22.761209  3436 net.cpp:408] fc5_classes_fc5_106_0_split -> fc5_classes_fc5_106_0_split_2
I0414 09:23:22.761261  3436 net.cpp:150] Setting up fc5_classes_fc5_106_0_split
I0414 09:23:22.761268  3436 net.cpp:157] Top shape: 1024 106 (108544)
I0414 09:23:22.761272  3436 net.cpp:157] Top shape: 1024 106 (108544)
I0414 09:23:22.761276  3436 net.cpp:157] Top shape: 1024 106 (108544)
I0414 09:23:22.761278  3436 net.cpp:165] Memory required for data: 4108451840
I0414 09:23:22.761281  3436 layer_factory.hpp:77] Creating layer softmax
I0414 09:23:22.761287  3436 net.cpp:100] Creating Layer softmax
I0414 09:23:22.761292  3436 net.cpp:434] softmax <- fc5_classes_fc5_106_0_split_0
I0414 09:23:22.761297  3436 net.cpp:408] softmax -> softmax
I0414 09:23:22.761548  3436 net.cpp:150] Setting up softmax
I0414 09:23:22.761561  3436 net.cpp:157] Top shape: 1024 106 (108544)
I0414 09:23:22.761566  3436 net.cpp:165] Memory required for data: 4108886016
I0414 09:23:22.761569  3436 layer_factory.hpp:77] Creating layer loss
I0414 09:23:22.761575  3436 net.cpp:100] Creating Layer loss
I0414 09:23:22.761580  3436 net.cpp:434] loss <- softmax
I0414 09:23:22.761584  3436 net.cpp:434] loss <- label_data_1_split_0
I0414 09:23:22.761590  3436 net.cpp:408] loss -> loss
…
