…
I0415 00:36:52.936612 24280 solver.cpp:93] Creating training net from train_net file: ./Prototxt/experiment_12/rtsd-r1/CoNorm/trial_1/train.prototxt
I0415 00:36:52.936977 24280 net.cpp:58] Initializing net from parameters: 
state {
  phase: TRAIN
  level: 0
  stage: ""
}
layer {
  name: "data"
  type: "Data"
  top: "data"
  top: "label"
  include {
    phase: TRAIN
  }
  transform_param {
    scale: 0.0039215689
    mirror: false
    crop_size: 48
    mean_value: 132
    mean_value: 132
    mean_value: 131
  }
  data_param {
    source: "../local_data/lmdb/rtsd-r1/CoNorm/train/lmdb"
    batch_size: 1024
    backend: LMDB
  }
}
layer {
  name: "conv1"
  type: "Convolution"
  bottom: "data"
  top: "conv1"
  convolution_param {
    num_output: 100
    pad: 0
    kernel_size: 7
    group: 1
    stride: 1
    weight_filler {
      type: "xavier"
    }
  }
}
layer {
  name: "conv1_relu"
  type: "ReLU"
  bottom: "conv1"
  top: "conv1"
}
layer {
  name: "pool1"
  type: "Pooling"
  bottom: "conv1"
  top: "pool1"
  pooling_param {
    pool: MAX
    kernel_size: 2
    stride: 2
  }
}
layer {
  name: "conv2"
  type: "Convolution"
  bottom: "pool1"
  top: "conv2"
  convolution_param {
    num_output: 150
    pad: 0
    kernel_size: 4
    group: 1
    stride: 1
    weight_filler {
      type: "xavier"
    }
  }
}
layer {
  name: "conv2_relu"
  type: "ReLU"
  bottom: "conv2"
  top: "conv2"
}
layer {
  name: "pool2"
  type: "Pooling"
  bottom: "conv2"
  top: "pool2"
  pooling_param {
    pool: MAX
    kernel_size: 2
    stride: 2
  }
}
layer {
  name: "conv3"
  type: "Convolution"
  bottom: "pool2"
  top: "conv3"
  convolution_param {
    num_output: 250
    pad: 0
    kernel_size: 4
    group: 1
    stride: 1
    weight_filler {
      type: "xavier"
    }
  }
}
layer {
  name: "conv3_relu"
  type: "ReLU"
  bottom: "conv3"
  top: "conv3"
}
layer {
  name: "pool3"
  type: "Pooling"
  bottom: "conv3"
  top: "pool3"
  pooling_param {
    pool: MAX
    kernel_size: 2
    stride: 2
  }
}
layer {
  name: "fc4_300"
  type: "InnerProduct"
  bottom: "pool3"
  top: "fc4_300"
  inner_product_param {
    num_output: 300
    weight_filler {
      type: "xavier"
    }
  }
}
layer {
  name: "fc4_relu"
  type: "ReLU"
  bottom: "fc4_300"
  top: "fc4_300"
}
layer {
  name: "drop4"
  type: "Dropout"
  bottom: "fc4_300"
  top: "fc4_300"
  dropout_param {
    dropout_ratio: 0.5
  }
}
layer {
  name: "fc5_67"
  type: "InnerProduct"
  bottom: "fc4_300"
  top: "fc5_classes"
  inner_product_param {
    num_output: 67
    weight_filler {
      type: "xavier"
    }
  }
}
layer {
  name: "softmax"
  type: "Softmax"
  bottom: "fc5_classes"
  top: "softmax"
}
layer {
  name: "loss"
  type: "MultinomialLogisticLoss"
  bottom: "softmax"
  bottom: "label"
  top: "loss"
}
layer {
  name: "accuracy_1"
  type: "Accuracy"
  bottom: "fc5_classes"
  bottom: "label"
  top: "accuracy_1"
  accuracy_param {
    top_k: 1
  }
}
layer {
  name: "accuracy_5"
  type: "Accuracy"
  bottom: "fc5_classes"
  bottom: "label"
  top: "accuracy_5"
  accuracy_param {
    top_k: 5
  }
}
layer {
  name: "silence"
  type: "Silence"
  bottom: "accuracy_1"
  bottom: "accuracy_5"
}
I0415 00:36:52.937103 24280 layer_factory.hpp:77] Creating layer data
I0415 00:36:52.938194 24280 net.cpp:100] Creating Layer data
I0415 00:36:52.938211 24280 net.cpp:408] data -> data
I0415 00:36:52.938238 24280 net.cpp:408] data -> label
I0415 00:36:52.978117 25045 db_lmdb.cpp:35] Opened lmdb ../local_data/lmdb/rtsd-r1/CoNorm/train/lmdb
I0415 00:36:53.013870 24280 data_layer.cpp:41] output data size: 1024,3,48,48
I0415 00:36:53.064687 24280 net.cpp:150] Setting up data
I0415 00:36:53.064718 24280 net.cpp:157] Top shape: 1024 3 48 48 (7077888)
I0415 00:36:53.064724 24280 net.cpp:157] Top shape: 1024 (1024)
I0415 00:36:53.064728 24280 net.cpp:165] Memory required for data: 28315648
I0415 00:36:53.064739 24280 layer_factory.hpp:77] Creating layer label_data_1_split
I0415 00:36:53.064754 24280 net.cpp:100] Creating Layer label_data_1_split
I0415 00:36:53.064761 24280 net.cpp:434] label_data_1_split <- label
I0415 00:36:53.064776 24280 net.cpp:408] label_data_1_split -> label_data_1_split_0
I0415 00:36:53.064790 24280 net.cpp:408] label_data_1_split -> label_data_1_split_1
I0415 00:36:53.064797 24280 net.cpp:408] label_data_1_split -> label_data_1_split_2
I0415 00:36:53.064862 24280 net.cpp:150] Setting up label_data_1_split
I0415 00:36:53.064870 24280 net.cpp:157] Top shape: 1024 (1024)
I0415 00:36:53.064874 24280 net.cpp:157] Top shape: 1024 (1024)
I0415 00:36:53.064877 24280 net.cpp:157] Top shape: 1024 (1024)
I0415 00:36:53.064880 24280 net.cpp:165] Memory required for data: 28327936
I0415 00:36:53.064883 24280 layer_factory.hpp:77] Creating layer conv1
I0415 00:36:53.064900 24280 net.cpp:100] Creating Layer conv1
I0415 00:36:53.064904 24280 net.cpp:434] conv1 <- data
I0415 00:36:53.064909 24280 net.cpp:408] conv1 -> conv1
I0415 00:36:53.115113 25149 blocking_queue.cpp:50] Waiting for data
I0415 00:36:54.159725 24280 net.cpp:150] Setting up conv1
I0415 00:36:54.159770 24280 net.cpp:157] Top shape: 1024 100 42 42 (180633600)
I0415 00:36:54.159780 24280 net.cpp:165] Memory required for data: 750862336
I0415 00:36:54.159814 24280 layer_factory.hpp:77] Creating layer conv1_relu
I0415 00:36:54.159835 24280 net.cpp:100] Creating Layer conv1_relu
I0415 00:36:54.159847 24280 net.cpp:434] conv1_relu <- conv1
I0415 00:36:54.159859 24280 net.cpp:395] conv1_relu -> conv1 (in-place)
I0415 00:36:54.160218 24280 net.cpp:150] Setting up conv1_relu
I0415 00:36:54.160236 24280 net.cpp:157] Top shape: 1024 100 42 42 (180633600)
I0415 00:36:54.160243 24280 net.cpp:165] Memory required for data: 1473396736
I0415 00:36:54.160248 24280 layer_factory.hpp:77] Creating layer pool1
I0415 00:36:54.160264 24280 net.cpp:100] Creating Layer pool1
I0415 00:36:54.160269 24280 net.cpp:434] pool1 <- conv1
I0415 00:36:54.160279 24280 net.cpp:408] pool1 -> pool1
I0415 00:36:54.160375 24280 net.cpp:150] Setting up pool1
I0415 00:36:54.160389 24280 net.cpp:157] Top shape: 1024 100 21 21 (45158400)
I0415 00:36:54.160398 24280 net.cpp:165] Memory required for data: 1654030336
I0415 00:36:54.160404 24280 layer_factory.hpp:77] Creating layer conv2
I0415 00:36:54.160423 24280 net.cpp:100] Creating Layer conv2
I0415 00:36:54.160431 24280 net.cpp:434] conv2 <- pool1
I0415 00:36:54.160442 24280 net.cpp:408] conv2 -> conv2
I0415 00:36:54.172240 24280 net.cpp:150] Setting up conv2
I0415 00:36:54.172284 24280 net.cpp:157] Top shape: 1024 150 18 18 (49766400)
I0415 00:36:54.172296 24280 net.cpp:165] Memory required for data: 1853095936
I0415 00:36:54.172319 24280 layer_factory.hpp:77] Creating layer conv2_relu
I0415 00:36:54.172339 24280 net.cpp:100] Creating Layer conv2_relu
I0415 00:36:54.172349 24280 net.cpp:434] conv2_relu <- conv2
I0415 00:36:54.172363 24280 net.cpp:395] conv2_relu -> conv2 (in-place)
I0415 00:36:54.173614 24280 net.cpp:150] Setting up conv2_relu
I0415 00:36:54.173638 24280 net.cpp:157] Top shape: 1024 150 18 18 (49766400)
I0415 00:36:54.173646 24280 net.cpp:165] Memory required for data: 2052161536
I0415 00:36:54.173653 24280 layer_factory.hpp:77] Creating layer pool2
I0415 00:36:54.173667 24280 net.cpp:100] Creating Layer pool2
I0415 00:36:54.173678 24280 net.cpp:434] pool2 <- conv2
I0415 00:36:54.173692 24280 net.cpp:408] pool2 -> pool2
I0415 00:36:54.173789 24280 net.cpp:150] Setting up pool2
I0415 00:36:54.173805 24280 net.cpp:157] Top shape: 1024 150 9 9 (12441600)
I0415 00:36:54.173813 24280 net.cpp:165] Memory required for data: 2101927936
I0415 00:36:54.173853 24280 layer_factory.hpp:77] Creating layer conv3
I0415 00:36:54.173876 24280 net.cpp:100] Creating Layer conv3
I0415 00:36:54.173885 24280 net.cpp:434] conv3 <- pool2
I0415 00:36:54.173897 24280 net.cpp:408] conv3 -> conv3
I0415 00:36:54.184342 24280 net.cpp:150] Setting up conv3
I0415 00:36:54.184383 24280 net.cpp:157] Top shape: 1024 250 6 6 (9216000)
I0415 00:36:54.184392 24280 net.cpp:165] Memory required for data: 2138791936
I0415 00:36:54.184415 24280 layer_factory.hpp:77] Creating layer conv3_relu
I0415 00:36:54.184435 24280 net.cpp:100] Creating Layer conv3_relu
I0415 00:36:54.184447 24280 net.cpp:434] conv3_relu <- conv3
I0415 00:36:54.184459 24280 net.cpp:395] conv3_relu -> conv3 (in-place)
I0415 00:36:54.186053 24280 net.cpp:150] Setting up conv3_relu
I0415 00:36:54.186080 24280 net.cpp:157] Top shape: 1024 250 6 6 (9216000)
I0415 00:36:54.186090 24280 net.cpp:165] Memory required for data: 2175655936
I0415 00:36:54.186100 24280 layer_factory.hpp:77] Creating layer pool3
I0415 00:36:54.186117 24280 net.cpp:100] Creating Layer pool3
I0415 00:36:54.186126 24280 net.cpp:434] pool3 <- conv3
I0415 00:36:54.186141 24280 net.cpp:408] pool3 -> pool3
I0415 00:36:54.186229 24280 net.cpp:150] Setting up pool3
I0415 00:36:54.186244 24280 net.cpp:157] Top shape: 1024 250 3 3 (2304000)
I0415 00:36:54.186250 24280 net.cpp:165] Memory required for data: 2184871936
I0415 00:36:54.186259 24280 layer_factory.hpp:77] Creating layer fc4_300
I0415 00:36:54.186271 24280 net.cpp:100] Creating Layer fc4_300
I0415 00:36:54.186280 24280 net.cpp:434] fc4_300 <- pool3
I0415 00:36:54.186290 24280 net.cpp:408] fc4_300 -> fc4_300
I0415 00:36:54.196581 24280 net.cpp:150] Setting up fc4_300
I0415 00:36:54.196621 24280 net.cpp:157] Top shape: 1024 300 (307200)
I0415 00:36:54.196631 24280 net.cpp:165] Memory required for data: 2186100736
I0415 00:36:54.196648 24280 layer_factory.hpp:77] Creating layer fc4_relu
I0415 00:36:54.196666 24280 net.cpp:100] Creating Layer fc4_relu
I0415 00:36:54.196677 24280 net.cpp:434] fc4_relu <- fc4_300
I0415 00:36:54.196691 24280 net.cpp:395] fc4_relu -> fc4_300 (in-place)
I0415 00:36:54.197026 24280 net.cpp:150] Setting up fc4_relu
I0415 00:36:54.197041 24280 net.cpp:157] Top shape: 1024 300 (307200)
I0415 00:36:54.197047 24280 net.cpp:165] Memory required for data: 2187329536
I0415 00:36:54.197052 24280 layer_factory.hpp:77] Creating layer drop4
I0415 00:36:54.197063 24280 net.cpp:100] Creating Layer drop4
I0415 00:36:54.197072 24280 net.cpp:434] drop4 <- fc4_300
I0415 00:36:54.197079 24280 net.cpp:395] drop4 -> fc4_300 (in-place)
I0415 00:36:54.197125 24280 net.cpp:150] Setting up drop4
I0415 00:36:54.197139 24280 net.cpp:157] Top shape: 1024 300 (307200)
I0415 00:36:54.197144 24280 net.cpp:165] Memory required for data: 2188558336
I0415 00:36:54.197149 24280 layer_factory.hpp:77] Creating layer fc5_67
I0415 00:36:54.197160 24280 net.cpp:100] Creating Layer fc5_67
I0415 00:36:54.197167 24280 net.cpp:434] fc5_67 <- fc4_300
I0415 00:36:54.197176 24280 net.cpp:408] fc5_67 -> fc5_classes
I0415 00:36:54.199774 24280 net.cpp:150] Setting up fc5_67
I0415 00:36:54.199805 24280 net.cpp:157] Top shape: 1024 67 (68608)
I0415 00:36:54.199812 24280 net.cpp:165] Memory required for data: 2188832768
I0415 00:36:54.199832 24280 layer_factory.hpp:77] Creating layer fc5_classes_fc5_67_0_split
I0415 00:36:54.199849 24280 net.cpp:100] Creating Layer fc5_classes_fc5_67_0_split
I0415 00:36:54.199859 24280 net.cpp:434] fc5_classes_fc5_67_0_split <- fc5_classes
I0415 00:36:54.199873 24280 net.cpp:408] fc5_classes_fc5_67_0_split -> fc5_classes_fc5_67_0_split_0
I0415 00:36:54.199915 24280 net.cpp:408] fc5_classes_fc5_67_0_split -> fc5_classes_fc5_67_0_split_1
I0415 00:36:54.199931 24280 net.cpp:408] fc5_classes_fc5_67_0_split -> fc5_classes_fc5_67_0_split_2
I0415 00:36:54.200016 24280 net.cpp:150] Setting up fc5_classes_fc5_67_0_split
I0415 00:36:54.200029 24280 net.cpp:157] Top shape: 1024 67 (68608)
I0415 00:36:54.200038 24280 net.cpp:157] Top shape: 1024 67 (68608)
I0415 00:36:54.200047 24280 net.cpp:157] Top shape: 1024 67 (68608)
I0415 00:36:54.200078 24280 net.cpp:165] Memory required for data: 2189656064
I0415 00:36:54.200088 24280 layer_factory.hpp:77] Creating layer softmax
I0415 00:36:54.200104 24280 net.cpp:100] Creating Layer softmax
I0415 00:36:54.200114 24280 net.cpp:434] softmax <- fc5_classes_fc5_67_0_split_0
I0415 00:36:54.200125 24280 net.cpp:408] softmax -> softmax
I0415 00:36:54.200554 24280 net.cpp:150] Setting up softmax
I0415 00:36:54.200573 24280 net.cpp:157] Top shape: 1024 67 (68608)
I0415 00:36:54.200580 24280 net.cpp:165] Memory required for data: 2189930496
I0415 00:36:54.200588 24280 layer_factory.hpp:77] Creating layer loss
I0415 00:36:54.200600 24280 net.cpp:100] Creating Layer loss
I0415 00:36:54.200608 24280 net.cpp:434] loss <- softmax
I0415 00:36:54.200618 24280 net.cpp:434] loss <- label_data_1_split_0
I0415 00:36:54.200628 24280 net.cpp:408] loss -> loss
…
