…
I0507 09:04:10.436717 21486 solver.cpp:93] Creating training net from train_net file: ./Prototxt/experiment_14/RTSD/imajust/trial_5/train.prototxt
I0507 09:04:10.437124 21486 net.cpp:58] Initializing net from parameters: 
state {
  phase: TRAIN
  level: 0
  stage: ""
}
layer {
  name: "data"
  type: "Data"
  top: "data"
  top: "label"
  include {
    phase: TRAIN
  }
  transform_param {
    scale: 0.0039215689
    mirror: false
    crop_size: 48
    mean_value: 119
    mean_value: 113
    mean_value: 114
  }
  data_param {
    source: "../local_data/lmdb/RTSD/imajust/train/lmdb"
    batch_size: 512
    backend: LMDB
  }
}
layer {
  name: "conv1"
  type: "Convolution"
  bottom: "data"
  top: "conv1"
  convolution_param {
    num_output: 100
    pad: 0
    kernel_size: 7
    group: 1
    stride: 1
    weight_filler {
      type: "xavier"
    }
  }
}
layer {
  name: "conv1_relu"
  type: "ReLU"
  bottom: "conv1"
  top: "conv1"
}
layer {
  name: "pool1"
  type: "Pooling"
  bottom: "conv1"
  top: "pool1"
  pooling_param {
    pool: MAX
    kernel_size: 2
    stride: 2
  }
}
layer {
  name: "conv2"
  type: "Convolution"
  bottom: "pool1"
  top: "conv2"
  convolution_param {
    num_output: 150
    pad: 0
    kernel_size: 4
    group: 1
    stride: 1
    weight_filler {
      type: "xavier"
    }
  }
}
layer {
  name: "conv2_relu"
  type: "ReLU"
  bottom: "conv2"
  top: "conv2"
}
layer {
  name: "pool2"
  type: "Pooling"
  bottom: "conv2"
  top: "pool2"
  pooling_param {
    pool: MAX
    kernel_size: 2
    stride: 2
  }
}
layer {
  name: "conv3"
  type: "Convolution"
  bottom: "pool2"
  top: "conv3"
  convolution_param {
    num_output: 250
    pad: 0
    kernel_size: 4
    group: 1
    stride: 1
    weight_filler {
      type: "xavier"
    }
  }
}
layer {
  name: "conv3_relu"
  type: "ReLU"
  bottom: "conv3"
  top: "conv3"
}
layer {
  name: "pool3"
  type: "Pooling"
  bottom: "conv3"
  top: "pool3"
  pooling_param {
    pool: MAX
    kernel_size: 2
    stride: 2
  }
}
layer {
  name: "fc4_300"
  type: "InnerProduct"
  bottom: "pool3"
  top: "fc4_300"
  inner_product_param {
    num_output: 300
    weight_filler {
      type: "xavier"
    }
  }
}
layer {
  name: "fc4_relu"
  type: "ReLU"
  bottom: "fc4_300"
  top: "fc4_300"
}
layer {
  name: "fc5_116"
  type: "InnerProduct"
  bottom: "fc4_300"
  top: "fc5_classes"
  inner_product_param {
    num_output: 116
    weight_filler {
      type: "xavier"
    }
  }
}
layer {
  name: "softmax"
  type: "Softmax"
  bottom: "fc5_classes"
  top: "softmax"
}
layer {
  name: "loss"
  type: "MultinomialLogisticLoss"
  bottom: "softmax"
  bottom: "label"
  top: "loss"
}
layer {
  name: "accuracy_1"
  type: "Accuracy"
  bottom: "fc5_classes"
  bottom: "label"
  top: "accuracy_1"
  accuracy_param {
    top_k: 1
  }
}
layer {
  name: "accuracy_5"
  type: "Accuracy"
  bottom: "fc5_classes"
  bottom: "label"
  top: "accuracy_5"
  accuracy_param {
    top_k: 5
  }
}
layer {
  name: "silence"
  type: "Silence"
  bottom: "accuracy_1"
  bottom: "accuracy_5"
}
I0507 09:04:10.437260 21486 layer_factory.hpp:77] Creating layer data
I0507 09:04:10.438170 21486 net.cpp:100] Creating Layer data
I0507 09:04:10.438187 21486 net.cpp:408] data -> data
I0507 09:04:10.438215 21486 net.cpp:408] data -> label
I0507 09:04:10.443428 21617 db_lmdb.cpp:35] Opened lmdb ../local_data/lmdb/RTSD/imajust/train/lmdb
I0507 09:04:10.467974 21486 data_layer.cpp:41] output data size: 512,3,48,48
I0507 09:04:10.522838 21486 net.cpp:150] Setting up data
I0507 09:04:10.522896 21486 net.cpp:157] Top shape: 512 3 48 48 (3538944)
I0507 09:04:10.522902 21486 net.cpp:157] Top shape: 512 (512)
I0507 09:04:10.522904 21486 net.cpp:165] Memory required for data: 14157824
I0507 09:04:10.522915 21486 layer_factory.hpp:77] Creating layer label_data_1_split
I0507 09:04:10.522929 21486 net.cpp:100] Creating Layer label_data_1_split
I0507 09:04:10.522936 21486 net.cpp:434] label_data_1_split <- label
I0507 09:04:10.522950 21486 net.cpp:408] label_data_1_split -> label_data_1_split_0
I0507 09:04:10.522963 21486 net.cpp:408] label_data_1_split -> label_data_1_split_1
I0507 09:04:10.522969 21486 net.cpp:408] label_data_1_split -> label_data_1_split_2
I0507 09:04:10.523028 21486 net.cpp:150] Setting up label_data_1_split
I0507 09:04:10.523036 21486 net.cpp:157] Top shape: 512 (512)
I0507 09:04:10.523041 21486 net.cpp:157] Top shape: 512 (512)
I0507 09:04:10.523043 21486 net.cpp:157] Top shape: 512 (512)
I0507 09:04:10.523046 21486 net.cpp:165] Memory required for data: 14163968
I0507 09:04:10.523049 21486 layer_factory.hpp:77] Creating layer conv1
I0507 09:04:10.523066 21486 net.cpp:100] Creating Layer conv1
I0507 09:04:10.523071 21486 net.cpp:434] conv1 <- data
I0507 09:04:10.523075 21486 net.cpp:408] conv1 -> conv1
I0507 09:04:10.895565 21486 net.cpp:150] Setting up conv1
I0507 09:04:10.895592 21486 net.cpp:157] Top shape: 512 100 42 42 (90316800)
I0507 09:04:10.895596 21486 net.cpp:165] Memory required for data: 375431168
I0507 09:04:10.895618 21486 layer_factory.hpp:77] Creating layer conv1_relu
I0507 09:04:10.895630 21486 net.cpp:100] Creating Layer conv1_relu
I0507 09:04:10.895637 21486 net.cpp:434] conv1_relu <- conv1
I0507 09:04:10.895643 21486 net.cpp:395] conv1_relu -> conv1 (in-place)
I0507 09:04:10.895843 21486 net.cpp:150] Setting up conv1_relu
I0507 09:04:10.895854 21486 net.cpp:157] Top shape: 512 100 42 42 (90316800)
I0507 09:04:10.895859 21486 net.cpp:165] Memory required for data: 736698368
I0507 09:04:10.895861 21486 layer_factory.hpp:77] Creating layer pool1
I0507 09:04:10.895871 21486 net.cpp:100] Creating Layer pool1
I0507 09:04:10.895875 21486 net.cpp:434] pool1 <- conv1
I0507 09:04:10.895892 21486 net.cpp:408] pool1 -> pool1
I0507 09:04:10.895951 21486 net.cpp:150] Setting up pool1
I0507 09:04:10.895961 21486 net.cpp:157] Top shape: 512 100 21 21 (22579200)
I0507 09:04:10.895963 21486 net.cpp:165] Memory required for data: 827015168
I0507 09:04:10.895967 21486 layer_factory.hpp:77] Creating layer conv2
I0507 09:04:10.895977 21486 net.cpp:100] Creating Layer conv2
I0507 09:04:10.895983 21486 net.cpp:434] conv2 <- pool1
I0507 09:04:10.895988 21486 net.cpp:408] conv2 -> conv2
I0507 09:04:10.907001 21486 net.cpp:150] Setting up conv2
I0507 09:04:10.907019 21486 net.cpp:157] Top shape: 512 150 18 18 (24883200)
I0507 09:04:10.907023 21486 net.cpp:165] Memory required for data: 926547968
I0507 09:04:10.907033 21486 layer_factory.hpp:77] Creating layer conv2_relu
I0507 09:04:10.907045 21486 net.cpp:100] Creating Layer conv2_relu
I0507 09:04:10.907049 21486 net.cpp:434] conv2_relu <- conv2
I0507 09:04:10.907054 21486 net.cpp:395] conv2_relu -> conv2 (in-place)
I0507 09:04:10.908481 21486 net.cpp:150] Setting up conv2_relu
I0507 09:04:10.908500 21486 net.cpp:157] Top shape: 512 150 18 18 (24883200)
I0507 09:04:10.908504 21486 net.cpp:165] Memory required for data: 1026080768
I0507 09:04:10.908507 21486 layer_factory.hpp:77] Creating layer pool2
I0507 09:04:10.908515 21486 net.cpp:100] Creating Layer pool2
I0507 09:04:10.908521 21486 net.cpp:434] pool2 <- conv2
I0507 09:04:10.908527 21486 net.cpp:408] pool2 -> pool2
I0507 09:04:10.908576 21486 net.cpp:150] Setting up pool2
I0507 09:04:10.908586 21486 net.cpp:157] Top shape: 512 150 9 9 (6220800)
I0507 09:04:10.908588 21486 net.cpp:165] Memory required for data: 1050963968
I0507 09:04:10.908591 21486 layer_factory.hpp:77] Creating layer conv3
I0507 09:04:10.908602 21486 net.cpp:100] Creating Layer conv3
I0507 09:04:10.908607 21486 net.cpp:434] conv3 <- pool2
I0507 09:04:10.908612 21486 net.cpp:408] conv3 -> conv3
I0507 09:04:10.915742 21486 net.cpp:150] Setting up conv3
I0507 09:04:10.915762 21486 net.cpp:157] Top shape: 512 250 6 6 (4608000)
I0507 09:04:10.915766 21486 net.cpp:165] Memory required for data: 1069395968
I0507 09:04:10.915777 21486 layer_factory.hpp:77] Creating layer conv3_relu
I0507 09:04:10.915784 21486 net.cpp:100] Creating Layer conv3_relu
I0507 09:04:10.915788 21486 net.cpp:434] conv3_relu <- conv3
I0507 09:04:10.915793 21486 net.cpp:395] conv3_relu -> conv3 (in-place)
I0507 09:04:10.916959 21486 net.cpp:150] Setting up conv3_relu
I0507 09:04:10.916975 21486 net.cpp:157] Top shape: 512 250 6 6 (4608000)
I0507 09:04:10.916980 21486 net.cpp:165] Memory required for data: 1087827968
I0507 09:04:10.916983 21486 layer_factory.hpp:77] Creating layer pool3
I0507 09:04:10.916990 21486 net.cpp:100] Creating Layer pool3
I0507 09:04:10.916995 21486 net.cpp:434] pool3 <- conv3
I0507 09:04:10.916999 21486 net.cpp:408] pool3 -> pool3
I0507 09:04:10.917047 21486 net.cpp:150] Setting up pool3
I0507 09:04:10.917057 21486 net.cpp:157] Top shape: 512 250 3 3 (1152000)
I0507 09:04:10.917059 21486 net.cpp:165] Memory required for data: 1092435968
I0507 09:04:10.917062 21486 layer_factory.hpp:77] Creating layer fc4_300
I0507 09:04:10.917069 21486 net.cpp:100] Creating Layer fc4_300
I0507 09:04:10.917073 21486 net.cpp:434] fc4_300 <- pool3
I0507 09:04:10.917078 21486 net.cpp:408] fc4_300 -> fc4_300
I0507 09:04:10.924746 21486 net.cpp:150] Setting up fc4_300
I0507 09:04:10.924764 21486 net.cpp:157] Top shape: 512 300 (153600)
I0507 09:04:10.924768 21486 net.cpp:165] Memory required for data: 1093050368
I0507 09:04:10.924775 21486 layer_factory.hpp:77] Creating layer fc4_relu
I0507 09:04:10.924782 21486 net.cpp:100] Creating Layer fc4_relu
I0507 09:04:10.924787 21486 net.cpp:434] fc4_relu <- fc4_300
I0507 09:04:10.924792 21486 net.cpp:395] fc4_relu -> fc4_300 (in-place)
I0507 09:04:10.924978 21486 net.cpp:150] Setting up fc4_relu
I0507 09:04:10.924991 21486 net.cpp:157] Top shape: 512 300 (153600)
I0507 09:04:10.924994 21486 net.cpp:165] Memory required for data: 1093664768
I0507 09:04:10.924998 21486 layer_factory.hpp:77] Creating layer fc5_116
I0507 09:04:10.925005 21486 net.cpp:100] Creating Layer fc5_116
I0507 09:04:10.925009 21486 net.cpp:434] fc5_116 <- fc4_300
I0507 09:04:10.925014 21486 net.cpp:408] fc5_116 -> fc5_classes
I0507 09:04:10.930450 21486 net.cpp:150] Setting up fc5_116
I0507 09:04:10.930469 21486 net.cpp:157] Top shape: 512 116 (59392)
I0507 09:04:10.930474 21486 net.cpp:165] Memory required for data: 1093902336
I0507 09:04:10.930483 21486 layer_factory.hpp:77] Creating layer fc5_classes_fc5_116_0_split
I0507 09:04:10.930492 21486 net.cpp:100] Creating Layer fc5_classes_fc5_116_0_split
I0507 09:04:10.930497 21486 net.cpp:434] fc5_classes_fc5_116_0_split <- fc5_classes
I0507 09:04:10.930503 21486 net.cpp:408] fc5_classes_fc5_116_0_split -> fc5_classes_fc5_116_0_split_0
I0507 09:04:10.930512 21486 net.cpp:408] fc5_classes_fc5_116_0_split -> fc5_classes_fc5_116_0_split_1
I0507 09:04:10.930518 21486 net.cpp:408] fc5_classes_fc5_116_0_split -> fc5_classes_fc5_116_0_split_2
I0507 09:04:10.930569 21486 net.cpp:150] Setting up fc5_classes_fc5_116_0_split
I0507 09:04:10.930577 21486 net.cpp:157] Top shape: 512 116 (59392)
I0507 09:04:10.930579 21486 net.cpp:157] Top shape: 512 116 (59392)
I0507 09:04:10.930583 21486 net.cpp:157] Top shape: 512 116 (59392)
I0507 09:04:10.930585 21486 net.cpp:165] Memory required for data: 1094615040
I0507 09:04:10.930588 21486 layer_factory.hpp:77] Creating layer softmax
I0507 09:04:10.930594 21486 net.cpp:100] Creating Layer softmax
I0507 09:04:10.930598 21486 net.cpp:434] softmax <- fc5_classes_fc5_116_0_split_0
I0507 09:04:10.930603 21486 net.cpp:408] softmax -> softmax
I0507 09:04:10.930852 21486 net.cpp:150] Setting up softmax
I0507 09:04:10.930866 21486 net.cpp:157] Top shape: 512 116 (59392)
I0507 09:04:10.930868 21486 net.cpp:165] Memory required for data: 1094852608
I0507 09:04:10.930871 21486 layer_factory.hpp:77] Creating layer loss
I0507 09:04:10.930881 21486 net.cpp:100] Creating Layer loss
I0507 09:04:10.930902 21486 net.cpp:434] loss <- softmax
I0507 09:04:10.930908 21486 net.cpp:434] loss <- label_data_1_split_0
I0507 09:04:10.930914 21486 net.cpp:408] loss -> loss
…
