…
I0411 03:34:29.095369 19367 net.cpp:322] The NetState phase (0) differed from the phase (1) specified by a rule in layer accuracy_5
I0411 03:34:29.095532 19367 net.cpp:58] Initializing net from parameters: 
state {
  phase: TRAIN
  level: 0
  stage: ""
}
layer {
  name: "data"
  type: "Data"
  top: "data"
  top: "label"
  include {
    phase: TRAIN
  }
  transform_param {
    scale: 0.0039215689
    mirror: false
    crop_size: 48
    mean_value: 122
    mean_value: 115
    mean_value: 129
  }
  data_param {
    source: "../local_data/lmdb/rtsd-r1/orig/train/lmdb"
    batch_size: 1024
    backend: LMDB
  }
}
layer {
  name: "conv1"
  type: "Convolution"
  bottom: "data"
  top: "conv1"
  convolution_param {
    num_output: 100
    pad: 0
    kernel_size: 7
    group: 1
    stride: 1
    weight_filler {
      type: "xavier"
    }
  }
}
layer {
  name: "conv1_prescale"
  type: "Scale"
  bottom: "conv1"
  top: "conv1"
  param {
    lr_mult: 0
    decay_mult: 0
  }
  scale_param {
    filler {
      value: 0.6666
    }
    bias_term: false
  }
}
layer {
  name: "conv1_sTanH"
  type: "TanH"
  bottom: "conv1"
  top: "conv1"
}
layer {
  name: "conv1_postscale"
  type: "Scale"
  bottom: "conv1"
  top: "conv1"
  param {
    lr_mult: 0
    decay_mult: 0
  }
  scale_param {
    filler {
      value: 1.7159
    }
    bias_term: false
  }
}
layer {
  name: "pool1"
  type: "Pooling"
  bottom: "conv1"
  top: "pool1"
  pooling_param {
    pool: MAX
    kernel_size: 2
    stride: 2
  }
}
layer {
  name: "conv2"
  type: "Convolution"
  bottom: "pool1"
  top: "conv2"
  convolution_param {
    num_output: 150
    pad: 0
    kernel_size: 4
    group: 1
    stride: 1
    weight_filler {
      type: "xavier"
    }
  }
}
layer {
  name: "conv2_prescale"
  type: "Scale"
  bottom: "conv2"
  top: "conv2"
  param {
    lr_mult: 0
    decay_mult: 0
  }
  scale_param {
    filler {
      value: 0.6666
    }
    bias_term: false
  }
}
layer {
  name: "conv2_sTanH"
  type: "TanH"
  bottom: "conv2"
  top: "conv2"
}
layer {
  name: "conv2_postscale"
  type: "Scale"
  bottom: "conv2"
  top: "conv2"
  param {
    lr_mult: 0
    decay_mult: 0
  }
  scale_param {
    filler {
      value: 1.7159
    }
    bias_term: false
  }
}
layer {
  name: "pool2"
  type: "Pooling"
  bottom: "conv2"
  top: "pool2"
  pooling_param {
    pool: MAX
    kernel_size: 2
    stride: 2
  }
}
layer {
  name: "conv3"
  type: "Convolution"
  bottom: "pool2"
  top: "conv3"
  convolution_param {
    num_output: 250
    pad: 0
    kernel_size: 4
    group: 1
    stride: 1
    weight_filler {
      type: "xavier"
    }
  }
}
layer {
  name: "conv3_prescale"
  type: "Scale"
  bottom: "conv3"
  top: "conv3"
  param {
    lr_mult: 0
    decay_mult: 0
  }
  scale_param {
    filler {
      value: 0.6666
    }
    bias_term: false
  }
}
layer {
  name: "conv3_sTanH"
  type: "TanH"
  bottom: "conv3"
  top: "conv3"
}
layer {
  name: "conv3_postscale"
  type: "Scale"
  bottom: "conv3"
  top: "conv3"
  param {
    lr_mult: 0
    decay_mult: 0
  }
  scale_param {
    filler {
      value: 1.7159
    }
    bias_term: false
  }
}
layer {
  name: "pool3"
  type: "Pooling"
  bottom: "conv3"
  top: "pool3"
  pooling_param {
    pool: MAX
    kernel_size: 2
    stride: 2
  }
}
layer {
  name: "fc4_300"
  type: "InnerProduct"
  bottom: "pool3"
  top: "fc4_300"
  inner_product_param {
    num_output: 300
    weight_filler {
      type: "xavier"
    }
  }
}
layer {
  name: "fc4_prescale"
  type: "Scale"
  bottom: "fc4_300"
  top: "fc4_300"
  param {
    lr_mult: 0
    decay_mult: 0
  }
  scale_param {
    filler {
      value: 0.6666
    }
    bias_term: false
  }
}
layer {
  name: "fc4_sTanH"
  type: "TanH"
  bottom: "fc4_300"
  top: "fc4_300"
}
layer {
  name: "fc4_postscale"
  type: "Scale"
  bottom: "fc4_300"
  top: "fc4_300"
  param {
    lr_mult: 0
    decay_mult: 0
  }
  scale_param {
    filler {
      value: 1.7159
    }
    bias_term: false
  }
}
layer {
  name: "fc5_67"
  type: "InnerProduct"
  bottom: "fc4_300"
  top: "fc5_classes"
  inner_product_param {
    num_output: 67
    weight_filler {
      type: "xavier"
    }
  }
}
layer {
  name: "loss"
  type: "SoftmaxWithLoss"
  bottom: "fc5_classes"
  bottom: "label"
  top: "loss"
}
I0411 03:34:29.095649 19367 layer_factory.hpp:77] Creating layer data
I0411 03:34:29.096848 19367 net.cpp:100] Creating Layer data
I0411 03:34:29.096866 19367 net.cpp:408] data -> data
I0411 03:34:29.096894 19367 net.cpp:408] data -> label
I0411 03:34:29.098399 19482 db_lmdb.cpp:35] Opened lmdb ../local_data/lmdb/rtsd-r1/orig/train/lmdb
I0411 03:34:29.117293 19367 data_layer.cpp:41] output data size: 1024,3,48,48
I0411 03:34:29.160673 19367 net.cpp:150] Setting up data
I0411 03:34:29.160704 19367 net.cpp:157] Top shape: 1024 3 48 48 (7077888)
I0411 03:34:29.160709 19367 net.cpp:157] Top shape: 1024 (1024)
I0411 03:34:29.160712 19367 net.cpp:165] Memory required for data: 28315648
I0411 03:34:29.160724 19367 layer_factory.hpp:77] Creating layer conv1
I0411 03:34:29.160748 19367 net.cpp:100] Creating Layer conv1
I0411 03:34:29.160755 19367 net.cpp:434] conv1 <- data
I0411 03:34:29.160768 19367 net.cpp:408] conv1 -> conv1
I0411 03:34:29.433892 19367 net.cpp:150] Setting up conv1
I0411 03:34:29.433919 19367 net.cpp:157] Top shape: 1024 100 42 42 (180633600)
I0411 03:34:29.433928 19367 net.cpp:165] Memory required for data: 750850048
I0411 03:34:29.433949 19367 layer_factory.hpp:77] Creating layer conv1_prescale
I0411 03:34:29.433970 19367 net.cpp:100] Creating Layer conv1_prescale
I0411 03:34:29.433974 19367 net.cpp:434] conv1_prescale <- conv1
I0411 03:34:29.433984 19367 net.cpp:395] conv1_prescale -> conv1 (in-place)
I0411 03:34:29.434103 19367 net.cpp:150] Setting up conv1_prescale
I0411 03:34:29.434111 19367 net.cpp:157] Top shape: 1024 100 42 42 (180633600)
I0411 03:34:29.434114 19367 net.cpp:165] Memory required for data: 1473384448
I0411 03:34:29.434120 19367 layer_factory.hpp:77] Creating layer conv1_sTanH
I0411 03:34:29.434128 19367 net.cpp:100] Creating Layer conv1_sTanH
I0411 03:34:29.434131 19367 net.cpp:434] conv1_sTanH <- conv1
I0411 03:34:29.434135 19367 net.cpp:395] conv1_sTanH -> conv1 (in-place)
I0411 03:34:29.434327 19367 net.cpp:150] Setting up conv1_sTanH
I0411 03:34:29.434340 19367 net.cpp:157] Top shape: 1024 100 42 42 (180633600)
I0411 03:34:29.434342 19367 net.cpp:165] Memory required for data: 2195918848
I0411 03:34:29.434346 19367 layer_factory.hpp:77] Creating layer conv1_postscale
I0411 03:34:29.434353 19367 net.cpp:100] Creating Layer conv1_postscale
I0411 03:34:29.434358 19367 net.cpp:434] conv1_postscale <- conv1
I0411 03:34:29.434362 19367 net.cpp:395] conv1_postscale -> conv1 (in-place)
I0411 03:34:29.434458 19367 net.cpp:150] Setting up conv1_postscale
I0411 03:34:29.434464 19367 net.cpp:157] Top shape: 1024 100 42 42 (180633600)
I0411 03:34:29.434468 19367 net.cpp:165] Memory required for data: 2918453248
I0411 03:34:29.434473 19367 layer_factory.hpp:77] Creating layer pool1
I0411 03:34:29.434479 19367 net.cpp:100] Creating Layer pool1
I0411 03:34:29.434484 19367 net.cpp:434] pool1 <- conv1
I0411 03:34:29.434487 19367 net.cpp:408] pool1 -> pool1
I0411 03:34:29.434533 19367 net.cpp:150] Setting up pool1
I0411 03:34:29.434541 19367 net.cpp:157] Top shape: 1024 100 21 21 (45158400)
I0411 03:34:29.434566 19367 net.cpp:165] Memory required for data: 3099086848
I0411 03:34:29.434569 19367 layer_factory.hpp:77] Creating layer conv2
I0411 03:34:29.434579 19367 net.cpp:100] Creating Layer conv2
I0411 03:34:29.434582 19367 net.cpp:434] conv2 <- pool1
I0411 03:34:29.434587 19367 net.cpp:408] conv2 -> conv2
I0411 03:34:29.438833 19367 net.cpp:150] Setting up conv2
I0411 03:34:29.438850 19367 net.cpp:157] Top shape: 1024 150 18 18 (49766400)
I0411 03:34:29.438854 19367 net.cpp:165] Memory required for data: 3298152448
I0411 03:34:29.438863 19367 layer_factory.hpp:77] Creating layer conv2_prescale
I0411 03:34:29.438871 19367 net.cpp:100] Creating Layer conv2_prescale
I0411 03:34:29.438875 19367 net.cpp:434] conv2_prescale <- conv2
I0411 03:34:29.438879 19367 net.cpp:395] conv2_prescale -> conv2 (in-place)
I0411 03:34:29.438997 19367 net.cpp:150] Setting up conv2_prescale
I0411 03:34:29.439007 19367 net.cpp:157] Top shape: 1024 150 18 18 (49766400)
I0411 03:34:29.439009 19367 net.cpp:165] Memory required for data: 3497218048
I0411 03:34:29.439014 19367 layer_factory.hpp:77] Creating layer conv2_sTanH
I0411 03:34:29.439020 19367 net.cpp:100] Creating Layer conv2_sTanH
I0411 03:34:29.439025 19367 net.cpp:434] conv2_sTanH <- conv2
I0411 03:34:29.439029 19367 net.cpp:395] conv2_sTanH -> conv2 (in-place)
I0411 03:34:29.440224 19367 net.cpp:150] Setting up conv2_sTanH
I0411 03:34:29.440240 19367 net.cpp:157] Top shape: 1024 150 18 18 (49766400)
I0411 03:34:29.440255 19367 net.cpp:165] Memory required for data: 3696283648
I0411 03:34:29.440259 19367 layer_factory.hpp:77] Creating layer conv2_postscale
I0411 03:34:29.440268 19367 net.cpp:100] Creating Layer conv2_postscale
I0411 03:34:29.440270 19367 net.cpp:434] conv2_postscale <- conv2
I0411 03:34:29.440275 19367 net.cpp:395] conv2_postscale -> conv2 (in-place)
I0411 03:34:29.440381 19367 net.cpp:150] Setting up conv2_postscale
I0411 03:34:29.440389 19367 net.cpp:157] Top shape: 1024 150 18 18 (49766400)
I0411 03:34:29.440392 19367 net.cpp:165] Memory required for data: 3895349248
I0411 03:34:29.440397 19367 layer_factory.hpp:77] Creating layer pool2
I0411 03:34:29.440404 19367 net.cpp:100] Creating Layer pool2
I0411 03:34:29.440408 19367 net.cpp:434] pool2 <- conv2
I0411 03:34:29.440413 19367 net.cpp:408] pool2 -> pool2
I0411 03:34:29.440451 19367 net.cpp:150] Setting up pool2
I0411 03:34:29.440459 19367 net.cpp:157] Top shape: 1024 150 9 9 (12441600)
I0411 03:34:29.440462 19367 net.cpp:165] Memory required for data: 3945115648
I0411 03:34:29.440467 19367 layer_factory.hpp:77] Creating layer conv3
I0411 03:34:29.440474 19367 net.cpp:100] Creating Layer conv3
I0411 03:34:29.440479 19367 net.cpp:434] conv3 <- pool2
I0411 03:34:29.440484 19367 net.cpp:408] conv3 -> conv3
I0411 03:34:29.446135 19367 net.cpp:150] Setting up conv3
I0411 03:34:29.446152 19367 net.cpp:157] Top shape: 1024 250 6 6 (9216000)
I0411 03:34:29.446156 19367 net.cpp:165] Memory required for data: 3981979648
I0411 03:34:29.446166 19367 layer_factory.hpp:77] Creating layer conv3_prescale
I0411 03:34:29.446173 19367 net.cpp:100] Creating Layer conv3_prescale
I0411 03:34:29.446177 19367 net.cpp:434] conv3_prescale <- conv3
I0411 03:34:29.446182 19367 net.cpp:395] conv3_prescale -> conv3 (in-place)
I0411 03:34:29.446274 19367 net.cpp:150] Setting up conv3_prescale
I0411 03:34:29.446282 19367 net.cpp:157] Top shape: 1024 250 6 6 (9216000)
I0411 03:34:29.446285 19367 net.cpp:165] Memory required for data: 4018843648
I0411 03:34:29.446290 19367 layer_factory.hpp:77] Creating layer conv3_sTanH
I0411 03:34:29.446295 19367 net.cpp:100] Creating Layer conv3_sTanH
I0411 03:34:29.446300 19367 net.cpp:434] conv3_sTanH <- conv3
I0411 03:34:29.446305 19367 net.cpp:395] conv3_sTanH -> conv3 (in-place)
I0411 03:34:29.447175 19367 net.cpp:150] Setting up conv3_sTanH
I0411 03:34:29.447191 19367 net.cpp:157] Top shape: 1024 250 6 6 (9216000)
I0411 03:34:29.447194 19367 net.cpp:165] Memory required for data: 4055707648
I0411 03:34:29.447198 19367 layer_factory.hpp:77] Creating layer conv3_postscale
I0411 03:34:29.447206 19367 net.cpp:100] Creating Layer conv3_postscale
I0411 03:34:29.447222 19367 net.cpp:434] conv3_postscale <- conv3
I0411 03:34:29.447229 19367 net.cpp:395] conv3_postscale -> conv3 (in-place)
I0411 03:34:29.447327 19367 net.cpp:150] Setting up conv3_postscale
I0411 03:34:29.447335 19367 net.cpp:157] Top shape: 1024 250 6 6 (9216000)
I0411 03:34:29.447340 19367 net.cpp:165] Memory required for data: 4092571648
I0411 03:34:29.447345 19367 layer_factory.hpp:77] Creating layer pool3
I0411 03:34:29.447351 19367 net.cpp:100] Creating Layer pool3
I0411 03:34:29.447355 19367 net.cpp:434] pool3 <- conv3
I0411 03:34:29.447360 19367 net.cpp:408] pool3 -> pool3
I0411 03:34:29.447396 19367 net.cpp:150] Setting up pool3
I0411 03:34:29.447403 19367 net.cpp:157] Top shape: 1024 250 3 3 (2304000)
I0411 03:34:29.447407 19367 net.cpp:165] Memory required for data: 4101787648
I0411 03:34:29.447409 19367 layer_factory.hpp:77] Creating layer fc4_300
I0411 03:34:29.447417 19367 net.cpp:100] Creating Layer fc4_300
I0411 03:34:29.447422 19367 net.cpp:434] fc4_300 <- pool3
I0411 03:34:29.447427 19367 net.cpp:408] fc4_300 -> fc4_300
I0411 03:34:29.452977 19367 net.cpp:150] Setting up fc4_300
I0411 03:34:29.452992 19367 net.cpp:157] Top shape: 1024 300 (307200)
I0411 03:34:29.452996 19367 net.cpp:165] Memory required for data: 4103016448
I0411 03:34:29.453002 19367 layer_factory.hpp:77] Creating layer fc4_prescale
I0411 03:34:29.453009 19367 net.cpp:100] Creating Layer fc4_prescale
I0411 03:34:29.453013 19367 net.cpp:434] fc4_prescale <- fc4_300
I0411 03:34:29.453018 19367 net.cpp:395] fc4_prescale -> fc4_300 (in-place)
I0411 03:34:29.453104 19367 net.cpp:150] Setting up fc4_prescale
I0411 03:34:29.453111 19367 net.cpp:157] Top shape: 1024 300 (307200)
I0411 03:34:29.453114 19367 net.cpp:165] Memory required for data: 4104245248
I0411 03:34:29.453119 19367 layer_factory.hpp:77] Creating layer fc4_sTanH
I0411 03:34:29.453125 19367 net.cpp:100] Creating Layer fc4_sTanH
I0411 03:34:29.453132 19367 net.cpp:434] fc4_sTanH <- fc4_300
I0411 03:34:29.453136 19367 net.cpp:395] fc4_sTanH -> fc4_300 (in-place)
I0411 03:34:29.453315 19367 net.cpp:150] Setting up fc4_sTanH
I0411 03:34:29.453326 19367 net.cpp:157] Top shape: 1024 300 (307200)
I0411 03:34:29.453330 19367 net.cpp:165] Memory required for data: 4105474048
I0411 03:34:29.453333 19367 layer_factory.hpp:77] Creating layer fc4_postscale
I0411 03:34:29.453341 19367 net.cpp:100] Creating Layer fc4_postscale
I0411 03:34:29.453343 19367 net.cpp:434] fc4_postscale <- fc4_300
I0411 03:34:29.453347 19367 net.cpp:395] fc4_postscale -> fc4_300 (in-place)
I0411 03:34:29.453438 19367 net.cpp:150] Setting up fc4_postscale
I0411 03:34:29.453446 19367 net.cpp:157] Top shape: 1024 300 (307200)
I0411 03:34:29.453449 19367 net.cpp:165] Memory required for data: 4106702848
I0411 03:34:29.453454 19367 layer_factory.hpp:77] Creating layer fc5_67
I0411 03:34:29.453459 19367 net.cpp:100] Creating Layer fc5_67
I0411 03:34:29.453462 19367 net.cpp:434] fc5_67 <- fc4_300
I0411 03:34:29.453467 19367 net.cpp:408] fc5_67 -> fc5_classes
I0411 03:34:29.455297 19367 net.cpp:150] Setting up fc5_67
I0411 03:34:29.455312 19367 net.cpp:157] Top shape: 1024 67 (68608)
I0411 03:34:29.455314 19367 net.cpp:165] Memory required for data: 4106977280
I0411 03:34:29.455325 19367 layer_factory.hpp:77] Creating layer loss
I0411 03:34:29.455332 19367 net.cpp:100] Creating Layer loss
I0411 03:34:29.455334 19367 net.cpp:434] loss <- fc5_classes
I0411 03:34:29.455340 19367 net.cpp:434] loss <- label
I0411 03:34:29.455348 19367 net.cpp:408] loss -> loss
I0411 03:34:29.455360 19367 layer_factory.hpp:77] Creating layer loss
…
I0411 03:34:29.456094 19367 solver.cpp:193] Creating test net (#0) specified by test_net file: ./Prototxt/experiment_8/rtsd-r1/orig/trial_3/test.prototxt
I0411 03:34:29.456271 19367 net.cpp:58] Initializing net from parameters: 
state {
  phase: TEST
}
layer {
  name: "data"
  type: "Data"
  top: "data"
  top: "label"
  include {
    phase: TEST
  }
  transform_param {
    scale: 0.0039215689
    mirror: false
    crop_size: 48
    mean_value: 113
    mean_value: 110
    mean_value: 132
  }
  data_param {
    source: "../local_data/lmdb/rtsd-r1/orig/test/lmdb"
    batch_size: 1024
    backend: LMDB
  }
}
layer {
  name: "conv1"
  type: "Convolution"
  bottom: "data"
  top: "conv1"
  convolution_param {
    num_output: 100
    pad: 0
    kernel_size: 7
    group: 1
    stride: 1
    weight_filler {
      type: "xavier"
    }
  }
}
layer {
  name: "conv1_prescale"
  type: "Scale"
  bottom: "conv1"
  top: "conv1"
  param {
    lr_mult: 0
    decay_mult: 0
  }
  scale_param {
    filler {
      value: 0.6666
    }
    bias_term: false
  }
}
layer {
  name: "conv1_sTanH"
  type: "TanH"
  bottom: "conv1"
  top: "conv1"
}
layer {
  name: "conv1_postscale"
  type: "Scale"
  bottom: "conv1"
  top: "conv1"
  param {
    lr_mult: 0
    decay_mult: 0
  }
  scale_param {
    filler {
      value: 1.7159
    }
    bias_term: false
  }
}
layer {
  name: "pool1"
  type: "Pooling"
  bottom: "conv1"
  top: "pool1"
  pooling_param {
    pool: MAX
    kernel_size: 2
    stride: 2
  }
}
layer {
  name: "conv2"
  type: "Convolution"
  bottom: "pool1"
  top: "conv2"
  convolution_param {
    num_output: 150
    pad: 0
    kernel_size: 4
    group: 1
    stride: 1
    weight_filler {
      type: "xavier"
    }
  }
}
layer {
  name: "conv2_prescale"
  type: "Scale"
  bottom: "conv2"
  top: "conv2"
  param {
    lr_mult: 0
    decay_mult: 0
  }
  scale_param {
    filler {
      value: 0.6666
    }
    bias_term: false
  }
}
layer {
  name: "conv2_sTanH"
  type: "TanH"
  bottom: "conv2"
  top: "conv2"
}
layer {
  name: "conv2_postscale"
  type: "Scale"
  bottom: "conv2"
  top: "conv2"
  param {
    lr_mult: 0
    decay_mult: 0
  }
  scale_param {
    filler {
      value: 1.7159
    }
    bias_term: false
  }
}
layer {
  name: "pool2"
  type: "Pooling"
  bottom: "conv2"
  top: "pool2"
  pooling_param {
    pool: MAX
    kernel_size: 2
    stride: 2
  }
}
layer {
  name: "conv3"
  type: "Convolution"
  bottom: "pool2"
  top: "conv3"
  convolution_param {
    num_output: 250
    pad: 0
    kernel_size: 4
    group: 1
    stride: 1
    weight_filler {
      type: "xavier"
    }
  }
}
layer {
  name: "conv3_prescale"
  type: "Scale"
  bottom: "conv3"
  top: "conv3"
  param {
    lr_mult: 0
    decay_mult: 0
  }
  scale_param {
    filler {
      value: 0.6666
    }
    bias_term: false
  }
}
layer {
  name: "conv3_sTanH"
  type: "TanH"
  bottom: "conv3"
  top: "conv3"
}
layer {
  name: "conv3_postscale"
  type: "Scale"
  bottom: "conv3"
  top: "conv3"
  param {
    lr_mult: 0
    decay_mult: 0
  }
  scale_param {
    filler {
      value: 1.7159
    }
    bias_term: false
  }
}
layer {
  name: "pool3"
  type: "Pooling"
  bottom: "conv3"
  top: "pool3"
  pooling_param {
    pool: MAX
    kernel_size: 2
    stride: 2
  }
}
layer {
  name: "fc4_300"
  type: "InnerProduct"
  bottom: "pool3"
  top: "fc4_300"
  inner_product_param {
    num_output: 300
    weight_filler {
      type: "xavier"
    }
  }
}
layer {
  name: "fc4_prescale"
  type: "Scale"
  bottom: "fc4_300"
  top: "fc4_300"
  param {
    lr_mult: 0
    decay_mult: 0
  }
  scale_param {
    filler {
      value: 0.6666
    }
    bias_term: false
  }
}
layer {
  name: "fc4_sTanH"
  type: "TanH"
  bottom: "fc4_300"
  top: "fc4_300"
}
layer {
  name: "fc4_postscale"
  type: "Scale"
  bottom: "fc4_300"
  top: "fc4_300"
  param {
    lr_mult: 0
    decay_mult: 0
  }
  scale_param {
    filler {
      value: 1.7159
    }
    bias_term: false
  }
}
layer {
  name: "fc5_67"
  type: "InnerProduct"
  bottom: "fc4_300"
  top: "fc5_classes"
  inner_product_param {
    num_output: 67
    weight_filler {
      type: "xavier"
    }
  }
}
layer {
  name: "loss"
  type: "SoftmaxWithLoss"
  bottom: "fc5_classes"
  bottom: "label"
  top: "loss"
}
layer {
  name: "accuracy_1"
  type: "Accuracy"
  bottom: "fc5_classes"
  bottom: "label"
  top: "accuracy_1"
  include {
    phase: TEST
  }
  accuracy_param {
    top_k: 1
  }
}
layer {
  name: "accuracy_5"
  type: "Accuracy"
  bottom: "fc5_classes"
  bottom: "label"
  top: "accuracy_5"
  include {
    phase: TEST
  }
  accuracy_param {
    top_k: 5
  }
}
I0411 03:34:29.456380 19367 layer_factory.hpp:77] Creating layer data
I0411 03:34:29.457015 19367 net.cpp:100] Creating Layer data
I0411 03:34:29.457027 19367 net.cpp:408] data -> data
I0411 03:34:29.457039 19367 net.cpp:408] data -> label
I0411 03:34:29.460121 19527 db_lmdb.cpp:35] Opened lmdb ../local_data/lmdb/rtsd-r1/orig/test/lmdb
I0411 03:34:29.460294 19367 data_layer.cpp:41] output data size: 1024,3,48,48
I0411 03:34:29.499409 19367 net.cpp:150] Setting up data
I0411 03:34:29.499436 19367 net.cpp:157] Top shape: 1024 3 48 48 (7077888)
I0411 03:34:29.499441 19367 net.cpp:157] Top shape: 1024 (1024)
I0411 03:34:29.499444 19367 net.cpp:165] Memory required for data: 28315648
I0411 03:34:29.499449 19367 layer_factory.hpp:77] Creating layer label_data_1_split
I0411 03:34:29.499464 19367 net.cpp:100] Creating Layer label_data_1_split
I0411 03:34:29.499467 19367 net.cpp:434] label_data_1_split <- label
I0411 03:34:29.499475 19367 net.cpp:408] label_data_1_split -> label_data_1_split_0
I0411 03:34:29.499486 19367 net.cpp:408] label_data_1_split -> label_data_1_split_1
I0411 03:34:29.499495 19367 net.cpp:408] label_data_1_split -> label_data_1_split_2
I0411 03:34:29.499650 19367 net.cpp:150] Setting up label_data_1_split
I0411 03:34:29.499658 19367 net.cpp:157] Top shape: 1024 (1024)
I0411 03:34:29.499665 19367 net.cpp:157] Top shape: 1024 (1024)
I0411 03:34:29.499667 19367 net.cpp:157] Top shape: 1024 (1024)
I0411 03:34:29.499670 19367 net.cpp:165] Memory required for data: 28327936
I0411 03:34:29.499673 19367 layer_factory.hpp:77] Creating layer conv1
I0411 03:34:29.499687 19367 net.cpp:100] Creating Layer conv1
I0411 03:34:29.499692 19367 net.cpp:434] conv1 <- data
I0411 03:34:29.499699 19367 net.cpp:408] conv1 -> conv1
I0411 03:34:29.501619 19367 net.cpp:150] Setting up conv1
I0411 03:34:29.501636 19367 net.cpp:157] Top shape: 1024 100 42 42 (180633600)
I0411 03:34:29.501657 19367 net.cpp:165] Memory required for data: 750862336
I0411 03:34:29.501670 19367 layer_factory.hpp:77] Creating layer conv1_prescale
I0411 03:34:29.501679 19367 net.cpp:100] Creating Layer conv1_prescale
I0411 03:34:29.501684 19367 net.cpp:434] conv1_prescale <- conv1
I0411 03:34:29.501690 19367 net.cpp:395] conv1_prescale -> conv1 (in-place)
I0411 03:34:29.501799 19367 net.cpp:150] Setting up conv1_prescale
I0411 03:34:29.501811 19367 net.cpp:157] Top shape: 1024 100 42 42 (180633600)
I0411 03:34:29.501816 19367 net.cpp:165] Memory required for data: 1473396736
I0411 03:34:29.501821 19367 layer_factory.hpp:77] Creating layer conv1_sTanH
I0411 03:34:29.501829 19367 net.cpp:100] Creating Layer conv1_sTanH
I0411 03:34:29.501834 19367 net.cpp:434] conv1_sTanH <- conv1
I0411 03:34:29.501838 19367 net.cpp:395] conv1_sTanH -> conv1 (in-place)
I0411 03:34:29.502044 19367 net.cpp:150] Setting up conv1_sTanH
I0411 03:34:29.502055 19367 net.cpp:157] Top shape: 1024 100 42 42 (180633600)
I0411 03:34:29.502059 19367 net.cpp:165] Memory required for data: 2195931136
I0411 03:34:29.502063 19367 layer_factory.hpp:77] Creating layer conv1_postscale
I0411 03:34:29.502069 19367 net.cpp:100] Creating Layer conv1_postscale
I0411 03:34:29.502074 19367 net.cpp:434] conv1_postscale <- conv1
I0411 03:34:29.502080 19367 net.cpp:395] conv1_postscale -> conv1 (in-place)
I0411 03:34:29.502197 19367 net.cpp:150] Setting up conv1_postscale
I0411 03:34:29.502205 19367 net.cpp:157] Top shape: 1024 100 42 42 (180633600)
I0411 03:34:29.502209 19367 net.cpp:165] Memory required for data: 2918465536
I0411 03:34:29.502214 19367 layer_factory.hpp:77] Creating layer pool1
I0411 03:34:29.502220 19367 net.cpp:100] Creating Layer pool1
I0411 03:34:29.502224 19367 net.cpp:434] pool1 <- conv1
I0411 03:34:29.502233 19367 net.cpp:408] pool1 -> pool1
I0411 03:34:29.502276 19367 net.cpp:150] Setting up pool1
I0411 03:34:29.502285 19367 net.cpp:157] Top shape: 1024 100 21 21 (45158400)
I0411 03:34:29.502290 19367 net.cpp:165] Memory required for data: 3099099136
I0411 03:34:29.502292 19367 layer_factory.hpp:77] Creating layer conv2
I0411 03:34:29.502301 19367 net.cpp:100] Creating Layer conv2
I0411 03:34:29.502305 19367 net.cpp:434] conv2 <- pool1
I0411 03:34:29.502310 19367 net.cpp:408] conv2 -> conv2
I0411 03:34:29.508728 19367 net.cpp:150] Setting up conv2
I0411 03:34:29.508749 19367 net.cpp:157] Top shape: 1024 150 18 18 (49766400)
I0411 03:34:29.508752 19367 net.cpp:165] Memory required for data: 3298164736
I0411 03:34:29.508764 19367 layer_factory.hpp:77] Creating layer conv2_prescale
I0411 03:34:29.508774 19367 net.cpp:100] Creating Layer conv2_prescale
I0411 03:34:29.508780 19367 net.cpp:434] conv2_prescale <- conv2
I0411 03:34:29.508785 19367 net.cpp:395] conv2_prescale -> conv2 (in-place)
I0411 03:34:29.508906 19367 net.cpp:150] Setting up conv2_prescale
I0411 03:34:29.508916 19367 net.cpp:157] Top shape: 1024 150 18 18 (49766400)
I0411 03:34:29.508919 19367 net.cpp:165] Memory required for data: 3497230336
I0411 03:34:29.508924 19367 layer_factory.hpp:77] Creating layer conv2_sTanH
I0411 03:34:29.508934 19367 net.cpp:100] Creating Layer conv2_sTanH
I0411 03:34:29.508939 19367 net.cpp:434] conv2_sTanH <- conv2
I0411 03:34:29.508944 19367 net.cpp:395] conv2_sTanH -> conv2 (in-place)
I0411 03:34:29.510273 19367 net.cpp:150] Setting up conv2_sTanH
I0411 03:34:29.510289 19367 net.cpp:157] Top shape: 1024 150 18 18 (49766400)
I0411 03:34:29.510294 19367 net.cpp:165] Memory required for data: 3696295936
I0411 03:34:29.510298 19367 layer_factory.hpp:77] Creating layer conv2_postscale
I0411 03:34:29.510305 19367 net.cpp:100] Creating Layer conv2_postscale
I0411 03:34:29.510310 19367 net.cpp:434] conv2_postscale <- conv2
I0411 03:34:29.510316 19367 net.cpp:395] conv2_postscale -> conv2 (in-place)
I0411 03:34:29.510427 19367 net.cpp:150] Setting up conv2_postscale
I0411 03:34:29.510438 19367 net.cpp:157] Top shape: 1024 150 18 18 (49766400)
I0411 03:34:29.510442 19367 net.cpp:165] Memory required for data: 3895361536
I0411 03:34:29.510447 19367 layer_factory.hpp:77] Creating layer pool2
I0411 03:34:29.510469 19367 net.cpp:100] Creating Layer pool2
I0411 03:34:29.510474 19367 net.cpp:434] pool2 <- conv2
I0411 03:34:29.510480 19367 net.cpp:408] pool2 -> pool2
I0411 03:34:29.510537 19367 net.cpp:150] Setting up pool2
I0411 03:34:29.510546 19367 net.cpp:157] Top shape: 1024 150 9 9 (12441600)
I0411 03:34:29.510550 19367 net.cpp:165] Memory required for data: 3945127936
I0411 03:34:29.510553 19367 layer_factory.hpp:77] Creating layer conv3
I0411 03:34:29.510562 19367 net.cpp:100] Creating Layer conv3
I0411 03:34:29.510567 19367 net.cpp:434] conv3 <- pool2
I0411 03:34:29.510573 19367 net.cpp:408] conv3 -> conv3
I0411 03:34:29.516552 19367 net.cpp:150] Setting up conv3
I0411 03:34:29.516569 19367 net.cpp:157] Top shape: 1024 250 6 6 (9216000)
I0411 03:34:29.516577 19367 net.cpp:165] Memory required for data: 3981991936
I0411 03:34:29.516597 19367 layer_factory.hpp:77] Creating layer conv3_prescale
I0411 03:34:29.516605 19367 net.cpp:100] Creating Layer conv3_prescale
I0411 03:34:29.516610 19367 net.cpp:434] conv3_prescale <- conv3
I0411 03:34:29.516615 19367 net.cpp:395] conv3_prescale -> conv3 (in-place)
I0411 03:34:29.516717 19367 net.cpp:150] Setting up conv3_prescale
I0411 03:34:29.516726 19367 net.cpp:157] Top shape: 1024 250 6 6 (9216000)
I0411 03:34:29.516729 19367 net.cpp:165] Memory required for data: 4018855936
I0411 03:34:29.516733 19367 layer_factory.hpp:77] Creating layer conv3_sTanH
I0411 03:34:29.516742 19367 net.cpp:100] Creating Layer conv3_sTanH
I0411 03:34:29.516746 19367 net.cpp:434] conv3_sTanH <- conv3
I0411 03:34:29.516752 19367 net.cpp:395] conv3_sTanH -> conv3 (in-place)
I0411 03:34:29.523280 19367 net.cpp:150] Setting up conv3_sTanH
I0411 03:34:29.523299 19367 net.cpp:157] Top shape: 1024 250 6 6 (9216000)
I0411 03:34:29.523303 19367 net.cpp:165] Memory required for data: 4055719936
I0411 03:34:29.523306 19367 layer_factory.hpp:77] Creating layer conv3_postscale
I0411 03:34:29.523316 19367 net.cpp:100] Creating Layer conv3_postscale
I0411 03:34:29.523319 19367 net.cpp:434] conv3_postscale <- conv3
I0411 03:34:29.523327 19367 net.cpp:395] conv3_postscale -> conv3 (in-place)
I0411 03:34:29.523437 19367 net.cpp:150] Setting up conv3_postscale
I0411 03:34:29.523447 19367 net.cpp:157] Top shape: 1024 250 6 6 (9216000)
I0411 03:34:29.523449 19367 net.cpp:165] Memory required for data: 4092583936
I0411 03:34:29.523454 19367 layer_factory.hpp:77] Creating layer pool3
I0411 03:34:29.523465 19367 net.cpp:100] Creating Layer pool3
I0411 03:34:29.523470 19367 net.cpp:434] pool3 <- conv3
I0411 03:34:29.523475 19367 net.cpp:408] pool3 -> pool3
I0411 03:34:29.523519 19367 net.cpp:150] Setting up pool3
I0411 03:34:29.523531 19367 net.cpp:157] Top shape: 1024 250 3 3 (2304000)
I0411 03:34:29.523535 19367 net.cpp:165] Memory required for data: 4101799936
I0411 03:34:29.523538 19367 layer_factory.hpp:77] Creating layer fc4_300
I0411 03:34:29.523545 19367 net.cpp:100] Creating Layer fc4_300
I0411 03:34:29.523550 19367 net.cpp:434] fc4_300 <- pool3
I0411 03:34:29.523553 19367 net.cpp:408] fc4_300 -> fc4_300
I0411 03:34:29.534596 19367 net.cpp:150] Setting up fc4_300
I0411 03:34:29.534615 19367 net.cpp:157] Top shape: 1024 300 (307200)
I0411 03:34:29.534618 19367 net.cpp:165] Memory required for data: 4103028736
I0411 03:34:29.534627 19367 layer_factory.hpp:77] Creating layer fc4_prescale
I0411 03:34:29.534639 19367 net.cpp:100] Creating Layer fc4_prescale
I0411 03:34:29.534644 19367 net.cpp:434] fc4_prescale <- fc4_300
I0411 03:34:29.534651 19367 net.cpp:395] fc4_prescale -> fc4_300 (in-place)
I0411 03:34:29.534750 19367 net.cpp:150] Setting up fc4_prescale
I0411 03:34:29.534759 19367 net.cpp:157] Top shape: 1024 300 (307200)
I0411 03:34:29.534767 19367 net.cpp:165] Memory required for data: 4104257536
I0411 03:34:29.534771 19367 layer_factory.hpp:77] Creating layer fc4_sTanH
I0411 03:34:29.534777 19367 net.cpp:100] Creating Layer fc4_sTanH
I0411 03:34:29.534781 19367 net.cpp:434] fc4_sTanH <- fc4_300
I0411 03:34:29.534786 19367 net.cpp:395] fc4_sTanH -> fc4_300 (in-place)
I0411 03:34:29.535008 19367 net.cpp:150] Setting up fc4_sTanH
I0411 03:34:29.535022 19367 net.cpp:157] Top shape: 1024 300 (307200)
I0411 03:34:29.535025 19367 net.cpp:165] Memory required for data: 4105486336
I0411 03:34:29.535028 19367 layer_factory.hpp:77] Creating layer fc4_postscale
I0411 03:34:29.535037 19367 net.cpp:100] Creating Layer fc4_postscale
I0411 03:34:29.535042 19367 net.cpp:434] fc4_postscale <- fc4_300
I0411 03:34:29.535046 19367 net.cpp:395] fc4_postscale -> fc4_300 (in-place)
I0411 03:34:29.535151 19367 net.cpp:150] Setting up fc4_postscale
I0411 03:34:29.535158 19367 net.cpp:157] Top shape: 1024 300 (307200)
I0411 03:34:29.535164 19367 net.cpp:165] Memory required for data: 4106715136
I0411 03:34:29.535169 19367 layer_factory.hpp:77] Creating layer fc5_67
I0411 03:34:29.535176 19367 net.cpp:100] Creating Layer fc5_67
I0411 03:34:29.535179 19367 net.cpp:434] fc5_67 <- fc4_300
I0411 03:34:29.535187 19367 net.cpp:408] fc5_67 -> fc5_classes
I0411 03:34:29.535445 19367 net.cpp:150] Setting up fc5_67
I0411 03:34:29.535454 19367 net.cpp:157] Top shape: 1024 67 (68608)
I0411 03:34:29.535456 19367 net.cpp:165] Memory required for data: 4106989568
I0411 03:34:29.535466 19367 layer_factory.hpp:77] Creating layer fc5_classes_fc5_67_0_split
I0411 03:34:29.535476 19367 net.cpp:100] Creating Layer fc5_classes_fc5_67_0_split
I0411 03:34:29.535481 19367 net.cpp:434] fc5_classes_fc5_67_0_split <- fc5_classes
I0411 03:34:29.535486 19367 net.cpp:408] fc5_classes_fc5_67_0_split -> fc5_classes_fc5_67_0_split_0
I0411 03:34:29.535493 19367 net.cpp:408] fc5_classes_fc5_67_0_split -> fc5_classes_fc5_67_0_split_1
I0411 03:34:29.535501 19367 net.cpp:408] fc5_classes_fc5_67_0_split -> fc5_classes_fc5_67_0_split_2
I0411 03:34:29.535554 19367 net.cpp:150] Setting up fc5_classes_fc5_67_0_split
I0411 03:34:29.535562 19367 net.cpp:157] Top shape: 1024 67 (68608)
I0411 03:34:29.535565 19367 net.cpp:157] Top shape: 1024 67 (68608)
I0411 03:34:29.535568 19367 net.cpp:157] Top shape: 1024 67 (68608)
I0411 03:34:29.535570 19367 net.cpp:165] Memory required for data: 4107812864
I0411 03:34:29.535573 19367 layer_factory.hpp:77] Creating layer loss
I0411 03:34:29.535581 19367 net.cpp:100] Creating Layer loss
I0411 03:34:29.535585 19367 net.cpp:434] loss <- fc5_classes_fc5_67_0_split_0
I0411 03:34:29.535590 19367 net.cpp:434] loss <- label_data_1_split_0
I0411 03:34:29.535594 19367 net.cpp:408] loss -> loss
…
