…
I0508 01:56:40.095250  5338 solver.cpp:93] Creating training net from train_net file: ./Prototxt/experiment_15/RTSD/orig/trial_3/train.prototxt
I0508 01:56:40.095732  5338 net.cpp:58] Initializing net from parameters: 
state {
  phase: TRAIN
  level: 0
  stage: ""
}
layer {
  name: "data"
  type: "Data"
  top: "data"
  top: "label"
  include {
    phase: TRAIN
  }
  transform_param {
    scale: 0.0039215689
    mirror: false
    crop_size: 48
    mean_value: 119
    mean_value: 113
    mean_value: 113
  }
  data_param {
    source: "../local_data/lmdb/RTSD/orig/train/lmdb"
    batch_size: 1024
    backend: LMDB
  }
}
layer {
  name: "conv1"
  type: "Convolution"
  bottom: "data"
  top: "conv1"
  convolution_param {
    num_output: 100
    pad: 0
    kernel_size: 7
    group: 1
    stride: 1
    weight_filler {
      type: "xavier"
    }
  }
}
layer {
  name: "conv1_prescale"
  type: "Scale"
  bottom: "conv1"
  top: "conv1"
  param {
    lr_mult: 0
    decay_mult: 0
  }
  scale_param {
    filler {
      value: 0.6666
    }
    bias_term: false
  }
}
layer {
  name: "conv1_sTanH"
  type: "TanH"
  bottom: "conv1"
  top: "conv1"
}
layer {
  name: "conv1_postscale"
  type: "Scale"
  bottom: "conv1"
  top: "conv1"
  param {
    lr_mult: 0
    decay_mult: 0
  }
  scale_param {
    filler {
      value: 1.7159
    }
    bias_term: false
  }
}
layer {
  name: "pool1"
  type: "Pooling"
  bottom: "conv1"
  top: "pool1"
  pooling_param {
    pool: MAX
    kernel_size: 2
    stride: 2
  }
}
layer {
  name: "conv2"
  type: "Convolution"
  bottom: "pool1"
  top: "conv2"
  convolution_param {
    num_output: 150
    pad: 0
    kernel_size: 4
    group: 2
    stride: 1
    weight_filler {
      type: "xavier"
    }
  }
}
layer {
  name: "conv2_prescale"
  type: "Scale"
  bottom: "conv2"
  top: "conv2"
  param {
    lr_mult: 0
    decay_mult: 0
  }
  scale_param {
    filler {
      value: 0.6666
    }
    bias_term: false
  }
}
layer {
  name: "conv2_sTanH"
  type: "TanH"
  bottom: "conv2"
  top: "conv2"
}
layer {
  name: "conv2_postscale"
  type: "Scale"
  bottom: "conv2"
  top: "conv2"
  param {
    lr_mult: 0
    decay_mult: 0
  }
  scale_param {
    filler {
      value: 1.7159
    }
    bias_term: false
  }
}
layer {
  name: "pool2"
  type: "Pooling"
  bottom: "conv2"
  top: "pool2"
  pooling_param {
    pool: MAX
    kernel_size: 2
    stride: 2
  }
}
layer {
  name: "conv3"
  type: "Convolution"
  bottom: "pool2"
  top: "conv3"
  convolution_param {
    num_output: 250
    pad: 0
    kernel_size: 4
    group: 2
    stride: 1
    weight_filler {
      type: "xavier"
    }
  }
}
layer {
  name: "conv3_prescale"
  type: "Scale"
  bottom: "conv3"
  top: "conv3"
  param {
    lr_mult: 0
    decay_mult: 0
  }
  scale_param {
    filler {
      value: 0.6666
    }
    bias_term: false
  }
}
layer {
  name: "conv3_sTanH"
  type: "TanH"
  bottom: "conv3"
  top: "conv3"
}
layer {
  name: "conv3_postscale"
  type: "Scale"
  bottom: "conv3"
  top: "conv3"
  param {
    lr_mult: 0
    decay_mult: 0
  }
  scale_param {
    filler {
      value: 1.7159
    }
    bias_term: false
  }
}
layer {
  name: "pool3"
  type: "Pooling"
  bottom: "conv3"
  top: "pool3"
  pooling_param {
    pool: MAX
    kernel_size: 2
    stride: 2
  }
}
layer {
  name: "fc4_300"
  type: "InnerProduct"
  bottom: "pool3"
  top: "fc4_300"
  inner_product_param {
    num_output: 300
    weight_filler {
      type: "xavier"
    }
  }
}
layer {
  name: "fc4_prescale"
  type: "Scale"
  bottom: "fc4_300"
  top: "fc4_300"
  param {
    lr_mult: 0
    decay_mult: 0
  }
  scale_param {
    filler {
      value: 0.6666
    }
    bias_term: false
  }
}
layer {
  name: "fc4_sTanH"
  type: "TanH"
  bottom: "fc4_300"
  top: "fc4_300"
}
layer {
  name: "fc4_postscale"
  type: "Scale"
  bottom: "fc4_300"
  top: "fc4_300"
  param {
    lr_mult: 0
    decay_mult: 0
  }
  scale_param {
    filler {
      value: 1.7159
    }
    bias_term: false
  }
}
layer {
  name: "fc5_116"
  type: "InnerProduct"
  bottom: "fc4_300"
  top: "fc5_classes"
  inner_product_param {
    num_output: 116
    weight_filler {
      type: "xavier"
    }
  }
}
layer {
  name: "softmax"
  type: "Softmax"
  bottom: "fc5_classes"
  top: "softmax"
}
layer {
  name: "loss"
  type: "MultinomialLogisticLoss"
  bottom: "softmax"
  bottom: "label"
  top: "loss"
}
layer {
  name: "accuracy_1"
  type: "Accuracy"
  bottom: "fc5_classes"
  bottom: "label"
  top: "accuracy_1"
  accuracy_param {
    top_k: 1
  }
}
layer {
  name: "accuracy_5"
  type: "Accuracy"
  bottom: "fc5_classes"
  bottom: "label"
  top: "accuracy_5"
  accuracy_param {
    top_k: 5
  }
}
layer {
  name: "silence"
  type: "Silence"
  bottom: "accuracy_1"
  bottom: "accuracy_5"
}
I0508 01:56:40.095907  5338 layer_factory.hpp:77] Creating layer data
I0508 01:56:40.096983  5338 net.cpp:100] Creating Layer data
I0508 01:56:40.096999  5338 net.cpp:408] data -> data
I0508 01:56:40.097025  5338 net.cpp:408] data -> label
I0508 01:56:40.107914  5457 db_lmdb.cpp:35] Opened lmdb ../local_data/lmdb/RTSD/orig/train/lmdb
I0508 01:56:40.128559  5338 data_layer.cpp:41] output data size: 1024,3,48,48
I0508 01:56:40.234515  5338 net.cpp:150] Setting up data
I0508 01:56:40.234546  5338 net.cpp:157] Top shape: 1024 3 48 48 (7077888)
I0508 01:56:40.234552  5338 net.cpp:157] Top shape: 1024 (1024)
I0508 01:56:40.234555  5338 net.cpp:165] Memory required for data: 28315648
I0508 01:56:40.234566  5338 layer_factory.hpp:77] Creating layer label_data_1_split
I0508 01:56:40.234582  5338 net.cpp:100] Creating Layer label_data_1_split
I0508 01:56:40.234591  5338 net.cpp:434] label_data_1_split <- label
I0508 01:56:40.234607  5338 net.cpp:408] label_data_1_split -> label_data_1_split_0
I0508 01:56:40.234622  5338 net.cpp:408] label_data_1_split -> label_data_1_split_1
I0508 01:56:40.234629  5338 net.cpp:408] label_data_1_split -> label_data_1_split_2
I0508 01:56:40.234700  5338 net.cpp:150] Setting up label_data_1_split
I0508 01:56:40.234710  5338 net.cpp:157] Top shape: 1024 (1024)
I0508 01:56:40.234715  5338 net.cpp:157] Top shape: 1024 (1024)
I0508 01:56:40.234719  5338 net.cpp:157] Top shape: 1024 (1024)
I0508 01:56:40.234721  5338 net.cpp:165] Memory required for data: 28327936
I0508 01:56:40.234725  5338 layer_factory.hpp:77] Creating layer conv1
I0508 01:56:40.234743  5338 net.cpp:100] Creating Layer conv1
I0508 01:56:40.234748  5338 net.cpp:434] conv1 <- data
I0508 01:56:40.234755  5338 net.cpp:408] conv1 -> conv1
I0508 01:56:40.776229  5338 net.cpp:150] Setting up conv1
I0508 01:56:40.776263  5338 net.cpp:157] Top shape: 1024 100 42 42 (180633600)
I0508 01:56:40.776268  5338 net.cpp:165] Memory required for data: 750862336
I0508 01:56:40.776293  5338 layer_factory.hpp:77] Creating layer conv1_prescale
I0508 01:56:40.776306  5338 net.cpp:100] Creating Layer conv1_prescale
I0508 01:56:40.776314  5338 net.cpp:434] conv1_prescale <- conv1
I0508 01:56:40.776321  5338 net.cpp:395] conv1_prescale -> conv1 (in-place)
I0508 01:56:40.776448  5338 net.cpp:150] Setting up conv1_prescale
I0508 01:56:40.776458  5338 net.cpp:157] Top shape: 1024 100 42 42 (180633600)
I0508 01:56:40.776463  5338 net.cpp:165] Memory required for data: 1473396736
I0508 01:56:40.776471  5338 layer_factory.hpp:77] Creating layer conv1_sTanH
I0508 01:56:40.776482  5338 net.cpp:100] Creating Layer conv1_sTanH
I0508 01:56:40.776487  5338 net.cpp:434] conv1_sTanH <- conv1
I0508 01:56:40.776492  5338 net.cpp:395] conv1_sTanH -> conv1 (in-place)
I0508 01:56:40.776721  5338 net.cpp:150] Setting up conv1_sTanH
I0508 01:56:40.776733  5338 net.cpp:157] Top shape: 1024 100 42 42 (180633600)
I0508 01:56:40.776759  5338 net.cpp:165] Memory required for data: 2195931136
I0508 01:56:40.776765  5338 layer_factory.hpp:77] Creating layer conv1_postscale
I0508 01:56:40.776775  5338 net.cpp:100] Creating Layer conv1_postscale
I0508 01:56:40.776782  5338 net.cpp:434] conv1_postscale <- conv1
I0508 01:56:40.776787  5338 net.cpp:395] conv1_postscale -> conv1 (in-place)
I0508 01:56:40.776901  5338 net.cpp:150] Setting up conv1_postscale
I0508 01:56:40.776909  5338 net.cpp:157] Top shape: 1024 100 42 42 (180633600)
I0508 01:56:40.776914  5338 net.cpp:165] Memory required for data: 2918465536
I0508 01:56:40.776921  5338 layer_factory.hpp:77] Creating layer pool1
I0508 01:56:40.776929  5338 net.cpp:100] Creating Layer pool1
I0508 01:56:40.776934  5338 net.cpp:434] pool1 <- conv1
I0508 01:56:40.776939  5338 net.cpp:408] pool1 -> pool1
I0508 01:56:40.776993  5338 net.cpp:150] Setting up pool1
I0508 01:56:40.777004  5338 net.cpp:157] Top shape: 1024 100 21 21 (45158400)
I0508 01:56:40.777009  5338 net.cpp:165] Memory required for data: 3099099136
I0508 01:56:40.777011  5338 layer_factory.hpp:77] Creating layer conv2
I0508 01:56:40.777022  5338 net.cpp:100] Creating Layer conv2
I0508 01:56:40.777027  5338 net.cpp:434] conv2 <- pool1
I0508 01:56:40.777034  5338 net.cpp:408] conv2 -> conv2
I0508 01:56:40.781781  5338 net.cpp:150] Setting up conv2
I0508 01:56:40.781801  5338 net.cpp:157] Top shape: 1024 150 18 18 (49766400)
I0508 01:56:40.781807  5338 net.cpp:165] Memory required for data: 3298164736
I0508 01:56:40.781821  5338 layer_factory.hpp:77] Creating layer conv2_prescale
I0508 01:56:40.781832  5338 net.cpp:100] Creating Layer conv2_prescale
I0508 01:56:40.781838  5338 net.cpp:434] conv2_prescale <- conv2
I0508 01:56:40.781844  5338 net.cpp:395] conv2_prescale -> conv2 (in-place)
I0508 01:56:40.781960  5338 net.cpp:150] Setting up conv2_prescale
I0508 01:56:40.781970  5338 net.cpp:157] Top shape: 1024 150 18 18 (49766400)
I0508 01:56:40.781975  5338 net.cpp:165] Memory required for data: 3497230336
I0508 01:56:40.781980  5338 layer_factory.hpp:77] Creating layer conv2_sTanH
I0508 01:56:40.781988  5338 net.cpp:100] Creating Layer conv2_sTanH
I0508 01:56:40.781993  5338 net.cpp:434] conv2_sTanH <- conv2
I0508 01:56:40.781998  5338 net.cpp:395] conv2_sTanH -> conv2 (in-place)
I0508 01:56:40.782202  5338 net.cpp:150] Setting up conv2_sTanH
I0508 01:56:40.782214  5338 net.cpp:157] Top shape: 1024 150 18 18 (49766400)
I0508 01:56:40.782219  5338 net.cpp:165] Memory required for data: 3696295936
I0508 01:56:40.782223  5338 layer_factory.hpp:77] Creating layer conv2_postscale
I0508 01:56:40.782232  5338 net.cpp:100] Creating Layer conv2_postscale
I0508 01:56:40.782236  5338 net.cpp:434] conv2_postscale <- conv2
I0508 01:56:40.782241  5338 net.cpp:395] conv2_postscale -> conv2 (in-place)
I0508 01:56:40.782349  5338 net.cpp:150] Setting up conv2_postscale
I0508 01:56:40.782359  5338 net.cpp:157] Top shape: 1024 150 18 18 (49766400)
I0508 01:56:40.782363  5338 net.cpp:165] Memory required for data: 3895361536
I0508 01:56:40.782369  5338 layer_factory.hpp:77] Creating layer pool2
I0508 01:56:40.782377  5338 net.cpp:100] Creating Layer pool2
I0508 01:56:40.782382  5338 net.cpp:434] pool2 <- conv2
I0508 01:56:40.782388  5338 net.cpp:408] pool2 -> pool2
I0508 01:56:40.782433  5338 net.cpp:150] Setting up pool2
I0508 01:56:40.782443  5338 net.cpp:157] Top shape: 1024 150 9 9 (12441600)
I0508 01:56:40.782447  5338 net.cpp:165] Memory required for data: 3945127936
I0508 01:56:40.782451  5338 layer_factory.hpp:77] Creating layer conv3
I0508 01:56:40.782460  5338 net.cpp:100] Creating Layer conv3
I0508 01:56:40.782465  5338 net.cpp:434] conv3 <- pool2
I0508 01:56:40.782471  5338 net.cpp:408] conv3 -> conv3
I0508 01:56:40.787624  5338 net.cpp:150] Setting up conv3
I0508 01:56:40.787644  5338 net.cpp:157] Top shape: 1024 250 6 6 (9216000)
I0508 01:56:40.787650  5338 net.cpp:165] Memory required for data: 3981991936
I0508 01:56:40.787662  5338 layer_factory.hpp:77] Creating layer conv3_prescale
I0508 01:56:40.787694  5338 net.cpp:100] Creating Layer conv3_prescale
I0508 01:56:40.787699  5338 net.cpp:434] conv3_prescale <- conv3
I0508 01:56:40.787706  5338 net.cpp:395] conv3_prescale -> conv3 (in-place)
I0508 01:56:40.787811  5338 net.cpp:150] Setting up conv3_prescale
I0508 01:56:40.787822  5338 net.cpp:157] Top shape: 1024 250 6 6 (9216000)
I0508 01:56:40.787827  5338 net.cpp:165] Memory required for data: 4018855936
I0508 01:56:40.787832  5338 layer_factory.hpp:77] Creating layer conv3_sTanH
I0508 01:56:40.787839  5338 net.cpp:100] Creating Layer conv3_sTanH
I0508 01:56:40.787844  5338 net.cpp:434] conv3_sTanH <- conv3
I0508 01:56:40.787850  5338 net.cpp:395] conv3_sTanH -> conv3 (in-place)
I0508 01:56:40.788077  5338 net.cpp:150] Setting up conv3_sTanH
I0508 01:56:40.788091  5338 net.cpp:157] Top shape: 1024 250 6 6 (9216000)
I0508 01:56:40.788095  5338 net.cpp:165] Memory required for data: 4055719936
I0508 01:56:40.788099  5338 layer_factory.hpp:77] Creating layer conv3_postscale
I0508 01:56:40.788107  5338 net.cpp:100] Creating Layer conv3_postscale
I0508 01:56:40.788112  5338 net.cpp:434] conv3_postscale <- conv3
I0508 01:56:40.788118  5338 net.cpp:395] conv3_postscale -> conv3 (in-place)
I0508 01:56:40.788224  5338 net.cpp:150] Setting up conv3_postscale
I0508 01:56:40.788234  5338 net.cpp:157] Top shape: 1024 250 6 6 (9216000)
I0508 01:56:40.788239  5338 net.cpp:165] Memory required for data: 4092583936
I0508 01:56:40.788244  5338 layer_factory.hpp:77] Creating layer pool3
I0508 01:56:40.788255  5338 net.cpp:100] Creating Layer pool3
I0508 01:56:40.788260  5338 net.cpp:434] pool3 <- conv3
I0508 01:56:40.788266  5338 net.cpp:408] pool3 -> pool3
I0508 01:56:40.788311  5338 net.cpp:150] Setting up pool3
I0508 01:56:40.788318  5338 net.cpp:157] Top shape: 1024 250 3 3 (2304000)
I0508 01:56:40.788321  5338 net.cpp:165] Memory required for data: 4101799936
I0508 01:56:40.788326  5338 layer_factory.hpp:77] Creating layer fc4_300
I0508 01:56:40.788333  5338 net.cpp:100] Creating Layer fc4_300
I0508 01:56:40.788338  5338 net.cpp:434] fc4_300 <- pool3
I0508 01:56:40.788343  5338 net.cpp:408] fc4_300 -> fc4_300
I0508 01:56:40.794531  5338 net.cpp:150] Setting up fc4_300
I0508 01:56:40.794549  5338 net.cpp:157] Top shape: 1024 300 (307200)
I0508 01:56:40.794554  5338 net.cpp:165] Memory required for data: 4103028736
I0508 01:56:40.794562  5338 layer_factory.hpp:77] Creating layer fc4_prescale
I0508 01:56:40.794572  5338 net.cpp:100] Creating Layer fc4_prescale
I0508 01:56:40.794577  5338 net.cpp:434] fc4_prescale <- fc4_300
I0508 01:56:40.794584  5338 net.cpp:395] fc4_prescale -> fc4_300 (in-place)
I0508 01:56:40.794683  5338 net.cpp:150] Setting up fc4_prescale
I0508 01:56:40.794693  5338 net.cpp:157] Top shape: 1024 300 (307200)
I0508 01:56:40.794697  5338 net.cpp:165] Memory required for data: 4104257536
I0508 01:56:40.794701  5338 layer_factory.hpp:77] Creating layer fc4_sTanH
I0508 01:56:40.794709  5338 net.cpp:100] Creating Layer fc4_sTanH
I0508 01:56:40.794714  5338 net.cpp:434] fc4_sTanH <- fc4_300
I0508 01:56:40.794719  5338 net.cpp:395] fc4_sTanH -> fc4_300 (in-place)
I0508 01:56:40.796608  5338 net.cpp:150] Setting up fc4_sTanH
I0508 01:56:40.796627  5338 net.cpp:157] Top shape: 1024 300 (307200)
I0508 01:56:40.796630  5338 net.cpp:165] Memory required for data: 4105486336
I0508 01:56:40.796634  5338 layer_factory.hpp:77] Creating layer fc4_postscale
I0508 01:56:40.796643  5338 net.cpp:100] Creating Layer fc4_postscale
I0508 01:56:40.796646  5338 net.cpp:434] fc4_postscale <- fc4_300
I0508 01:56:40.796653  5338 net.cpp:395] fc4_postscale -> fc4_300 (in-place)
I0508 01:56:40.796763  5338 net.cpp:150] Setting up fc4_postscale
I0508 01:56:40.796773  5338 net.cpp:157] Top shape: 1024 300 (307200)
I0508 01:56:40.796777  5338 net.cpp:165] Memory required for data: 4106715136
I0508 01:56:40.796782  5338 layer_factory.hpp:77] Creating layer fc5_116
I0508 01:56:40.796790  5338 net.cpp:100] Creating Layer fc5_116
I0508 01:56:40.796794  5338 net.cpp:434] fc5_116 <- fc4_300
I0508 01:56:40.796802  5338 net.cpp:408] fc5_116 -> fc5_classes
I0508 01:56:40.798332  5338 net.cpp:150] Setting up fc5_116
I0508 01:56:40.798349  5338 net.cpp:157] Top shape: 1024 116 (118784)
I0508 01:56:40.798353  5338 net.cpp:165] Memory required for data: 4107190272
I0508 01:56:40.798365  5338 layer_factory.hpp:77] Creating layer fc5_classes_fc5_116_0_split
I0508 01:56:40.798374  5338 net.cpp:100] Creating Layer fc5_classes_fc5_116_0_split
I0508 01:56:40.798380  5338 net.cpp:434] fc5_classes_fc5_116_0_split <- fc5_classes
I0508 01:56:40.798387  5338 net.cpp:408] fc5_classes_fc5_116_0_split -> fc5_classes_fc5_116_0_split_0
I0508 01:56:40.798396  5338 net.cpp:408] fc5_classes_fc5_116_0_split -> fc5_classes_fc5_116_0_split_1
I0508 01:56:40.798404  5338 net.cpp:408] fc5_classes_fc5_116_0_split -> fc5_classes_fc5_116_0_split_2
I0508 01:56:40.798460  5338 net.cpp:150] Setting up fc5_classes_fc5_116_0_split
I0508 01:56:40.798468  5338 net.cpp:157] Top shape: 1024 116 (118784)
I0508 01:56:40.798475  5338 net.cpp:157] Top shape: 1024 116 (118784)
I0508 01:56:40.798480  5338 net.cpp:157] Top shape: 1024 116 (118784)
I0508 01:56:40.798483  5338 net.cpp:165] Memory required for data: 4108615680
I0508 01:56:40.798487  5338 layer_factory.hpp:77] Creating layer softmax
I0508 01:56:40.798493  5338 net.cpp:100] Creating Layer softmax
I0508 01:56:40.798498  5338 net.cpp:434] softmax <- fc5_classes_fc5_116_0_split_0
I0508 01:56:40.798504  5338 net.cpp:408] softmax -> softmax
I0508 01:56:40.798776  5338 net.cpp:150] Setting up softmax
I0508 01:56:40.798789  5338 net.cpp:157] Top shape: 1024 116 (118784)
I0508 01:56:40.798794  5338 net.cpp:165] Memory required for data: 4109090816
I0508 01:56:40.798797  5338 layer_factory.hpp:77] Creating layer loss
I0508 01:56:40.798804  5338 net.cpp:100] Creating Layer loss
I0508 01:56:40.798810  5338 net.cpp:434] loss <- softmax
I0508 01:56:40.798815  5338 net.cpp:434] loss <- label_data_1_split_0
I0508 01:56:40.798821  5338 net.cpp:408] loss -> loss
…
