…
I0409 08:58:00.666764  8556 net.cpp:322] The NetState phase (0) differed from the phase (1) specified by a rule in layer accuracy_5
I0409 08:58:00.666853  8556 net.cpp:58] Initializing net from parameters: 
state {
  phase: TRAIN
  level: 0
  stage: ""
}
layer {
  name: "data"
  type: "Data"
  top: "data"
  top: "label"
  include {
    phase: TRAIN
  }
  transform_param {
    mirror: false
    crop_size: 48
    mean_value: 130
    mean_value: 123
    mean_value: 137
  }
  data_param {
    source: "../local_data/lmdb/rtsd-r1/histeq/train/lmdb"
    batch_size: 1024
    backend: LMDB
  }
}
layer {
  name: "conv1"
  type: "Convolution"
  bottom: "data"
  top: "conv1"
  convolution_param {
    num_output: 100
    pad: 0
    kernel_size: 7
    group: 1
    stride: 1
    weight_filler {
      type: "xavier"
    }
  }
}
layer {
  name: "conv1_relu"
  type: "ReLU"
  bottom: "conv1"
  top: "conv1"
}
layer {
  name: "pool1"
  type: "Pooling"
  bottom: "conv1"
  top: "pool1"
  pooling_param {
    pool: MAX
    kernel_size: 2
    stride: 2
  }
}
layer {
  name: "conv2"
  type: "Convolution"
  bottom: "pool1"
  top: "conv2"
  convolution_param {
    num_output: 150
    pad: 0
    kernel_size: 4
    group: 1
    stride: 1
    weight_filler {
      type: "xavier"
    }
  }
}
layer {
  name: "conv2_relu"
  type: "ReLU"
  bottom: "conv2"
  top: "conv2"
}
layer {
  name: "pool2"
  type: "Pooling"
  bottom: "conv2"
  top: "pool2"
  pooling_param {
    pool: MAX
    kernel_size: 2
    stride: 2
  }
}
layer {
  name: "conv3"
  type: "Convolution"
  bottom: "pool2"
  top: "conv3"
  convolution_param {
    num_output: 250
    pad: 0
    kernel_size: 4
    group: 1
    stride: 1
    weight_filler {
      type: "xavier"
    }
  }
}
layer {
  name: "conv3_relu"
  type: "ReLU"
  bottom: "conv3"
  top: "conv3"
}
layer {
  name: "pool3"
  type: "Pooling"
  bottom: "conv3"
  top: "pool3"
  pooling_param {
    pool: MAX
    kernel_size: 2
    stride: 2
  }
}
layer {
  name: "fc4_300"
  type: "InnerProduct"
  bottom: "pool3"
  top: "fc4_300"
  inner_product_param {
    num_output: 300
    weight_filler {
      type: "xavier"
    }
  }
}
layer {
  name: "fc4_relu"
  type: "ReLU"
  bottom: "fc4_300"
  top: "fc4_300"
}
layer {
  name: "drop4"
  type: "Dropout"
  bottom: "fc4_300"
  top: "fc4_300"
  dropout_param {
    dropout_ratio: 0.4
  }
}
layer {
  name: "fc5_67"
  type: "InnerProduct"
  bottom: "fc4_300"
  top: "fc5_classes"
  inner_product_param {
    num_output: 67
    weight_filler {
      type: "xavier"
    }
  }
}
layer {
  name: "loss"
  type: "SoftmaxWithLoss"
  bottom: "fc5_classes"
  bottom: "label"
  top: "loss"
}
I0409 08:58:00.666925  8556 layer_factory.hpp:77] Creating layer data
I0409 08:58:00.668002  8556 net.cpp:100] Creating Layer data
I0409 08:58:00.668018  8556 net.cpp:408] data -> data
I0409 08:58:00.668042  8556 net.cpp:408] data -> label
I0409 08:58:00.669522  8614 db_lmdb.cpp:35] Opened lmdb ../local_data/lmdb/rtsd-r1/histeq/train/lmdb
I0409 08:58:00.685679  8556 data_layer.cpp:41] output data size: 1024,3,48,48
I0409 08:58:00.726040  8556 net.cpp:150] Setting up data
I0409 08:58:00.726075  8556 net.cpp:157] Top shape: 1024 3 48 48 (7077888)
I0409 08:58:00.726109  8556 net.cpp:157] Top shape: 1024 (1024)
I0409 08:58:00.726112  8556 net.cpp:165] Memory required for data: 28315648
I0409 08:58:00.726122  8556 layer_factory.hpp:77] Creating layer conv1
I0409 08:58:00.726145  8556 net.cpp:100] Creating Layer conv1
I0409 08:58:00.726153  8556 net.cpp:434] conv1 <- data
I0409 08:58:00.726166  8556 net.cpp:408] conv1 -> conv1
I0409 08:58:00.979485  8556 net.cpp:150] Setting up conv1
I0409 08:58:00.979514  8556 net.cpp:157] Top shape: 1024 100 42 42 (180633600)
I0409 08:58:00.979518  8556 net.cpp:165] Memory required for data: 750850048
I0409 08:58:00.979539  8556 layer_factory.hpp:77] Creating layer conv1_relu
I0409 08:58:00.979563  8556 net.cpp:100] Creating Layer conv1_relu
I0409 08:58:00.979570  8556 net.cpp:434] conv1_relu <- conv1
I0409 08:58:00.979578  8556 net.cpp:395] conv1_relu -> conv1 (in-place)
I0409 08:58:00.979785  8556 net.cpp:150] Setting up conv1_relu
I0409 08:58:00.979797  8556 net.cpp:157] Top shape: 1024 100 42 42 (180633600)
I0409 08:58:00.979802  8556 net.cpp:165] Memory required for data: 1473384448
I0409 08:58:00.979805  8556 layer_factory.hpp:77] Creating layer pool1
I0409 08:58:00.979813  8556 net.cpp:100] Creating Layer pool1
I0409 08:58:00.979817  8556 net.cpp:434] pool1 <- conv1
I0409 08:58:00.979822  8556 net.cpp:408] pool1 -> pool1
I0409 08:58:00.979876  8556 net.cpp:150] Setting up pool1
I0409 08:58:00.979892  8556 net.cpp:157] Top shape: 1024 100 21 21 (45158400)
I0409 08:58:00.979895  8556 net.cpp:165] Memory required for data: 1654018048
I0409 08:58:00.979898  8556 layer_factory.hpp:77] Creating layer conv2
I0409 08:58:00.979910  8556 net.cpp:100] Creating Layer conv2
I0409 08:58:00.979913  8556 net.cpp:434] conv2 <- pool1
I0409 08:58:00.979919  8556 net.cpp:408] conv2 -> conv2
I0409 08:58:00.983974  8556 net.cpp:150] Setting up conv2
I0409 08:58:00.983991  8556 net.cpp:157] Top shape: 1024 150 18 18 (49766400)
I0409 08:58:00.983994  8556 net.cpp:165] Memory required for data: 1853083648
I0409 08:58:00.984004  8556 layer_factory.hpp:77] Creating layer conv2_relu
I0409 08:58:00.984010  8556 net.cpp:100] Creating Layer conv2_relu
I0409 08:58:00.984014  8556 net.cpp:434] conv2_relu <- conv2
I0409 08:58:00.984019  8556 net.cpp:395] conv2_relu -> conv2 (in-place)
I0409 08:58:00.984751  8556 net.cpp:150] Setting up conv2_relu
I0409 08:58:00.984766  8556 net.cpp:157] Top shape: 1024 150 18 18 (49766400)
I0409 08:58:00.984769  8556 net.cpp:165] Memory required for data: 2052149248
I0409 08:58:00.984772  8556 layer_factory.hpp:77] Creating layer pool2
I0409 08:58:00.984779  8556 net.cpp:100] Creating Layer pool2
I0409 08:58:00.984782  8556 net.cpp:434] pool2 <- conv2
I0409 08:58:00.984787  8556 net.cpp:408] pool2 -> pool2
I0409 08:58:00.984855  8556 net.cpp:150] Setting up pool2
I0409 08:58:00.984863  8556 net.cpp:157] Top shape: 1024 150 9 9 (12441600)
I0409 08:58:00.984866  8556 net.cpp:165] Memory required for data: 2101915648
I0409 08:58:00.984869  8556 layer_factory.hpp:77] Creating layer conv3
I0409 08:58:00.984876  8556 net.cpp:100] Creating Layer conv3
I0409 08:58:00.984881  8556 net.cpp:434] conv3 <- pool2
I0409 08:58:00.984886  8556 net.cpp:408] conv3 -> conv3
I0409 08:58:00.990002  8556 net.cpp:150] Setting up conv3
I0409 08:58:00.990018  8556 net.cpp:157] Top shape: 1024 250 6 6 (9216000)
I0409 08:58:00.990021  8556 net.cpp:165] Memory required for data: 2138779648
I0409 08:58:00.990031  8556 layer_factory.hpp:77] Creating layer conv3_relu
I0409 08:58:00.990037  8556 net.cpp:100] Creating Layer conv3_relu
I0409 08:58:00.990041  8556 net.cpp:434] conv3_relu <- conv3
I0409 08:58:00.990046  8556 net.cpp:395] conv3_relu -> conv3 (in-place)
I0409 08:58:00.990806  8556 net.cpp:150] Setting up conv3_relu
I0409 08:58:00.990821  8556 net.cpp:157] Top shape: 1024 250 6 6 (9216000)
I0409 08:58:00.990824  8556 net.cpp:165] Memory required for data: 2175643648
I0409 08:58:00.990828  8556 layer_factory.hpp:77] Creating layer pool3
I0409 08:58:00.990833  8556 net.cpp:100] Creating Layer pool3
I0409 08:58:00.990836  8556 net.cpp:434] pool3 <- conv3
I0409 08:58:00.990875  8556 net.cpp:408] pool3 -> pool3
I0409 08:58:00.990938  8556 net.cpp:150] Setting up pool3
I0409 08:58:00.990947  8556 net.cpp:157] Top shape: 1024 250 3 3 (2304000)
I0409 08:58:00.990949  8556 net.cpp:165] Memory required for data: 2184859648
I0409 08:58:00.990952  8556 layer_factory.hpp:77] Creating layer fc4_300
I0409 08:58:00.990958  8556 net.cpp:100] Creating Layer fc4_300
I0409 08:58:00.990964  8556 net.cpp:434] fc4_300 <- pool3
I0409 08:58:00.990968  8556 net.cpp:408] fc4_300 -> fc4_300
I0409 08:58:00.995986  8556 net.cpp:150] Setting up fc4_300
I0409 08:58:00.996001  8556 net.cpp:157] Top shape: 1024 300 (307200)
I0409 08:58:00.996016  8556 net.cpp:165] Memory required for data: 2186088448
I0409 08:58:00.996023  8556 layer_factory.hpp:77] Creating layer fc4_relu
I0409 08:58:00.996029  8556 net.cpp:100] Creating Layer fc4_relu
I0409 08:58:00.996032  8556 net.cpp:434] fc4_relu <- fc4_300
I0409 08:58:00.996037  8556 net.cpp:395] fc4_relu -> fc4_300 (in-place)
I0409 08:58:00.996243  8556 net.cpp:150] Setting up fc4_relu
I0409 08:58:00.996253  8556 net.cpp:157] Top shape: 1024 300 (307200)
I0409 08:58:00.996256  8556 net.cpp:165] Memory required for data: 2187317248
I0409 08:58:00.996260  8556 layer_factory.hpp:77] Creating layer drop4
I0409 08:58:00.996266  8556 net.cpp:100] Creating Layer drop4
I0409 08:58:00.996273  8556 net.cpp:434] drop4 <- fc4_300
I0409 08:58:00.996279  8556 net.cpp:395] drop4 -> fc4_300 (in-place)
I0409 08:58:00.996309  8556 net.cpp:150] Setting up drop4
I0409 08:58:00.996315  8556 net.cpp:157] Top shape: 1024 300 (307200)
I0409 08:58:00.996323  8556 net.cpp:165] Memory required for data: 2188546048
I0409 08:58:00.996326  8556 layer_factory.hpp:77] Creating layer fc5_67
I0409 08:58:00.996335  8556 net.cpp:100] Creating Layer fc5_67
I0409 08:58:00.996338  8556 net.cpp:434] fc5_67 <- fc4_300
I0409 08:58:00.996342  8556 net.cpp:408] fc5_67 -> fc5_classes
I0409 08:58:00.997493  8556 net.cpp:150] Setting up fc5_67
I0409 08:58:00.997506  8556 net.cpp:157] Top shape: 1024 67 (68608)
I0409 08:58:00.997521  8556 net.cpp:165] Memory required for data: 2188820480
I0409 08:58:00.997532  8556 layer_factory.hpp:77] Creating layer loss
I0409 08:58:00.997539  8556 net.cpp:100] Creating Layer loss
I0409 08:58:00.997542  8556 net.cpp:434] loss <- fc5_classes
I0409 08:58:00.997563  8556 net.cpp:434] loss <- label
I0409 08:58:00.997570  8556 net.cpp:408] loss -> loss
I0409 08:58:00.997582  8556 layer_factory.hpp:77] Creating layer loss
…
I0409 08:58:00.998282  8556 solver.cpp:193] Creating test net (#0) specified by test_net file: ./Prototxt/experiment_6/rtsd-r1/histeq/trial_3/test.prototxt
I0409 08:58:00.998421  8556 net.cpp:58] Initializing net from parameters: 
state {
  phase: TEST
}
layer {
  name: "data"
  type: "Data"
  top: "data"
  top: "label"
  include {
    phase: TEST
  }
  transform_param {
    mirror: false
    crop_size: 48
    mean_value: 124
    mean_value: 121
    mean_value: 142
  }
  data_param {
    source: "../local_data/lmdb/rtsd-r1/histeq/test/lmdb"
    batch_size: 1024
    backend: LMDB
  }
}
layer {
  name: "conv1"
  type: "Convolution"
  bottom: "data"
  top: "conv1"
  convolution_param {
    num_output: 100
    pad: 0
    kernel_size: 7
    group: 1
    stride: 1
    weight_filler {
      type: "xavier"
    }
  }
}
layer {
  name: "conv1_relu"
  type: "ReLU"
  bottom: "conv1"
  top: "conv1"
}
layer {
  name: "pool1"
  type: "Pooling"
  bottom: "conv1"
  top: "pool1"
  pooling_param {
    pool: MAX
    kernel_size: 2
    stride: 2
  }
}
layer {
  name: "conv2"
  type: "Convolution"
  bottom: "pool1"
  top: "conv2"
  convolution_param {
    num_output: 150
    pad: 0
    kernel_size: 4
    group: 1
    stride: 1
    weight_filler {
      type: "xavier"
    }
  }
}
layer {
  name: "conv2_relu"
  type: "ReLU"
  bottom: "conv2"
  top: "conv2"
}
layer {
  name: "pool2"
  type: "Pooling"
  bottom: "conv2"
  top: "pool2"
  pooling_param {
    pool: MAX
    kernel_size: 2
    stride: 2
  }
}
layer {
  name: "conv3"
  type: "Convolution"
  bottom: "pool2"
  top: "conv3"
  convolution_param {
    num_output: 250
    pad: 0
    kernel_size: 4
    group: 1
    stride: 1
    weight_filler {
      type: "xavier"
    }
  }
}
layer {
  name: "conv3_relu"
  type: "ReLU"
  bottom: "conv3"
  top: "conv3"
}
layer {
  name: "pool3"
  type: "Pooling"
  bottom: "conv3"
  top: "pool3"
  pooling_param {
    pool: MAX
    kernel_size: 2
    stride: 2
  }
}
layer {
  name: "fc4_300"
  type: "InnerProduct"
  bottom: "pool3"
  top: "fc4_300"
  inner_product_param {
    num_output: 300
    weight_filler {
      type: "xavier"
    }
  }
}
layer {
  name: "fc4_relu"
  type: "ReLU"
  bottom: "fc4_300"
  top: "fc4_300"
}
layer {
  name: "drop4"
  type: "Dropout"
  bottom: "fc4_300"
  top: "fc4_300"
  dropout_param {
    dropout_ratio: 0.4
  }
}
layer {
  name: "fc5_67"
  type: "InnerProduct"
  bottom: "fc4_300"
  top: "fc5_classes"
  inner_product_param {
    num_output: 67
    weight_filler {
      type: "xavier"
    }
  }
}
layer {
  name: "loss"
  type: "SoftmaxWithLoss"
  bottom: "fc5_classes"
  bottom: "label"
  top: "loss"
}
layer {
  name: "accuracy_1"
  type: "Accuracy"
  bottom: "fc5_classes"
  bottom: "label"
  top: "accuracy_1"
  include {
    phase: TEST
  }
  accuracy_param {
    top_k: 1
  }
}
layer {
  name: "accuracy_5"
  type: "Accuracy"
  bottom: "fc5_classes"
  bottom: "label"
  top: "accuracy_5"
  include {
    phase: TEST
  }
  accuracy_param {
    top_k: 5
  }
}
I0409 08:58:00.998518  8556 layer_factory.hpp:77] Creating layer data
I0409 08:58:00.999176  8556 net.cpp:100] Creating Layer data
I0409 08:58:00.999188  8556 net.cpp:408] data -> data
I0409 08:58:00.999198  8556 net.cpp:408] data -> label
I0409 08:58:01.000624  8627 db_lmdb.cpp:35] Opened lmdb ../local_data/lmdb/rtsd-r1/histeq/test/lmdb
I0409 08:58:01.000779  8556 data_layer.cpp:41] output data size: 1024,3,48,48
I0409 08:58:01.042130  8556 net.cpp:150] Setting up data
I0409 08:58:01.042157  8556 net.cpp:157] Top shape: 1024 3 48 48 (7077888)
I0409 08:58:01.042162  8556 net.cpp:157] Top shape: 1024 (1024)
I0409 08:58:01.042165  8556 net.cpp:165] Memory required for data: 28315648
I0409 08:58:01.042171  8556 layer_factory.hpp:77] Creating layer label_data_1_split
I0409 08:58:01.042186  8556 net.cpp:100] Creating Layer label_data_1_split
I0409 08:58:01.042189  8556 net.cpp:434] label_data_1_split <- label
I0409 08:58:01.042197  8556 net.cpp:408] label_data_1_split -> label_data_1_split_0
I0409 08:58:01.042209  8556 net.cpp:408] label_data_1_split -> label_data_1_split_1
I0409 08:58:01.042215  8556 net.cpp:408] label_data_1_split -> label_data_1_split_2
I0409 08:58:01.042325  8556 net.cpp:150] Setting up label_data_1_split
I0409 08:58:01.042335  8556 net.cpp:157] Top shape: 1024 (1024)
I0409 08:58:01.042340  8556 net.cpp:157] Top shape: 1024 (1024)
I0409 08:58:01.042343  8556 net.cpp:157] Top shape: 1024 (1024)
I0409 08:58:01.042346  8556 net.cpp:165] Memory required for data: 28327936
I0409 08:58:01.042349  8556 layer_factory.hpp:77] Creating layer conv1
I0409 08:58:01.042371  8556 net.cpp:100] Creating Layer conv1
I0409 08:58:01.042376  8556 net.cpp:434] conv1 <- data
I0409 08:58:01.042382  8556 net.cpp:408] conv1 -> conv1
I0409 08:58:01.049628  8556 net.cpp:150] Setting up conv1
I0409 08:58:01.049649  8556 net.cpp:157] Top shape: 1024 100 42 42 (180633600)
I0409 08:58:01.049654  8556 net.cpp:165] Memory required for data: 750862336
I0409 08:58:01.049665  8556 layer_factory.hpp:77] Creating layer conv1_relu
I0409 08:58:01.049674  8556 net.cpp:100] Creating Layer conv1_relu
I0409 08:58:01.049677  8556 net.cpp:434] conv1_relu <- conv1
I0409 08:58:01.049685  8556 net.cpp:395] conv1_relu -> conv1 (in-place)
I0409 08:58:01.049890  8556 net.cpp:150] Setting up conv1_relu
I0409 08:58:01.049901  8556 net.cpp:157] Top shape: 1024 100 42 42 (180633600)
I0409 08:58:01.049903  8556 net.cpp:165] Memory required for data: 1473396736
I0409 08:58:01.049907  8556 layer_factory.hpp:77] Creating layer pool1
I0409 08:58:01.049917  8556 net.cpp:100] Creating Layer pool1
I0409 08:58:01.049921  8556 net.cpp:434] pool1 <- conv1
I0409 08:58:01.049926  8556 net.cpp:408] pool1 -> pool1
I0409 08:58:01.049975  8556 net.cpp:150] Setting up pool1
I0409 08:58:01.049988  8556 net.cpp:157] Top shape: 1024 100 21 21 (45158400)
I0409 08:58:01.049990  8556 net.cpp:165] Memory required for data: 1654030336
I0409 08:58:01.049993  8556 layer_factory.hpp:77] Creating layer conv2
I0409 08:58:01.050004  8556 net.cpp:100] Creating Layer conv2
I0409 08:58:01.050009  8556 net.cpp:434] conv2 <- pool1
I0409 08:58:01.050014  8556 net.cpp:408] conv2 -> conv2
I0409 08:58:01.062268  8556 net.cpp:150] Setting up conv2
I0409 08:58:01.062288  8556 net.cpp:157] Top shape: 1024 150 18 18 (49766400)
I0409 08:58:01.062304  8556 net.cpp:165] Memory required for data: 1853095936
I0409 08:58:01.062324  8556 layer_factory.hpp:77] Creating layer conv2_relu
I0409 08:58:01.062331  8556 net.cpp:100] Creating Layer conv2_relu
I0409 08:58:01.062335  8556 net.cpp:434] conv2_relu <- conv2
I0409 08:58:01.062350  8556 net.cpp:395] conv2_relu -> conv2 (in-place)
I0409 08:58:01.063130  8556 net.cpp:150] Setting up conv2_relu
I0409 08:58:01.063146  8556 net.cpp:157] Top shape: 1024 150 18 18 (49766400)
I0409 08:58:01.063156  8556 net.cpp:165] Memory required for data: 2052161536
I0409 08:58:01.063160  8556 layer_factory.hpp:77] Creating layer pool2
I0409 08:58:01.063169  8556 net.cpp:100] Creating Layer pool2
I0409 08:58:01.063172  8556 net.cpp:434] pool2 <- conv2
I0409 08:58:01.063177  8556 net.cpp:408] pool2 -> pool2
I0409 08:58:01.063237  8556 net.cpp:150] Setting up pool2
I0409 08:58:01.063246  8556 net.cpp:157] Top shape: 1024 150 9 9 (12441600)
I0409 08:58:01.063251  8556 net.cpp:165] Memory required for data: 2101927936
I0409 08:58:01.063254  8556 layer_factory.hpp:77] Creating layer conv3
I0409 08:58:01.063266  8556 net.cpp:100] Creating Layer conv3
I0409 08:58:01.063272  8556 net.cpp:434] conv3 <- pool2
I0409 08:58:01.063278  8556 net.cpp:408] conv3 -> conv3
I0409 08:58:01.068861  8556 net.cpp:150] Setting up conv3
I0409 08:58:01.068878  8556 net.cpp:157] Top shape: 1024 250 6 6 (9216000)
I0409 08:58:01.068888  8556 net.cpp:165] Memory required for data: 2138791936
I0409 08:58:01.068898  8556 layer_factory.hpp:77] Creating layer conv3_relu
I0409 08:58:01.068904  8556 net.cpp:100] Creating Layer conv3_relu
I0409 08:58:01.068908  8556 net.cpp:434] conv3_relu <- conv3
I0409 08:58:01.068915  8556 net.cpp:395] conv3_relu -> conv3 (in-place)
I0409 08:58:01.069699  8556 net.cpp:150] Setting up conv3_relu
I0409 08:58:01.069717  8556 net.cpp:157] Top shape: 1024 250 6 6 (9216000)
I0409 08:58:01.069721  8556 net.cpp:165] Memory required for data: 2175655936
I0409 08:58:01.069746  8556 layer_factory.hpp:77] Creating layer pool3
I0409 08:58:01.069756  8556 net.cpp:100] Creating Layer pool3
I0409 08:58:01.069759  8556 net.cpp:434] pool3 <- conv3
I0409 08:58:01.069766  8556 net.cpp:408] pool3 -> pool3
I0409 08:58:01.069818  8556 net.cpp:150] Setting up pool3
I0409 08:58:01.069828  8556 net.cpp:157] Top shape: 1024 250 3 3 (2304000)
I0409 08:58:01.069830  8556 net.cpp:165] Memory required for data: 2184871936
I0409 08:58:01.069833  8556 layer_factory.hpp:77] Creating layer fc4_300
I0409 08:58:01.069840  8556 net.cpp:100] Creating Layer fc4_300
I0409 08:58:01.069844  8556 net.cpp:434] fc4_300 <- pool3
I0409 08:58:01.069852  8556 net.cpp:408] fc4_300 -> fc4_300
I0409 08:58:01.075194  8556 net.cpp:150] Setting up fc4_300
I0409 08:58:01.075215  8556 net.cpp:157] Top shape: 1024 300 (307200)
I0409 08:58:01.075219  8556 net.cpp:165] Memory required for data: 2186100736
I0409 08:58:01.075225  8556 layer_factory.hpp:77] Creating layer fc4_relu
I0409 08:58:01.075232  8556 net.cpp:100] Creating Layer fc4_relu
I0409 08:58:01.075235  8556 net.cpp:434] fc4_relu <- fc4_300
I0409 08:58:01.075242  8556 net.cpp:395] fc4_relu -> fc4_300 (in-place)
I0409 08:58:01.075441  8556 net.cpp:150] Setting up fc4_relu
I0409 08:58:01.075453  8556 net.cpp:157] Top shape: 1024 300 (307200)
I0409 08:58:01.075455  8556 net.cpp:165] Memory required for data: 2187329536
I0409 08:58:01.075459  8556 layer_factory.hpp:77] Creating layer drop4
I0409 08:58:01.075466  8556 net.cpp:100] Creating Layer drop4
I0409 08:58:01.075469  8556 net.cpp:434] drop4 <- fc4_300
I0409 08:58:01.075475  8556 net.cpp:395] drop4 -> fc4_300 (in-place)
I0409 08:58:01.075506  8556 net.cpp:150] Setting up drop4
I0409 08:58:01.075515  8556 net.cpp:157] Top shape: 1024 300 (307200)
I0409 08:58:01.075518  8556 net.cpp:165] Memory required for data: 2188558336
I0409 08:58:01.075521  8556 layer_factory.hpp:77] Creating layer fc5_67
I0409 08:58:01.075527  8556 net.cpp:100] Creating Layer fc5_67
I0409 08:58:01.075531  8556 net.cpp:434] fc5_67 <- fc4_300
I0409 08:58:01.075537  8556 net.cpp:408] fc5_67 -> fc5_classes
I0409 08:58:01.075790  8556 net.cpp:150] Setting up fc5_67
I0409 08:58:01.075798  8556 net.cpp:157] Top shape: 1024 67 (68608)
I0409 08:58:01.075801  8556 net.cpp:165] Memory required for data: 2188832768
I0409 08:58:01.075811  8556 layer_factory.hpp:77] Creating layer fc5_classes_fc5_67_0_split
I0409 08:58:01.075819  8556 net.cpp:100] Creating Layer fc5_classes_fc5_67_0_split
I0409 08:58:01.075824  8556 net.cpp:434] fc5_classes_fc5_67_0_split <- fc5_classes
I0409 08:58:01.075830  8556 net.cpp:408] fc5_classes_fc5_67_0_split -> fc5_classes_fc5_67_0_split_0
I0409 08:58:01.075837  8556 net.cpp:408] fc5_classes_fc5_67_0_split -> fc5_classes_fc5_67_0_split_1
I0409 08:58:01.075844  8556 net.cpp:408] fc5_classes_fc5_67_0_split -> fc5_classes_fc5_67_0_split_2
I0409 08:58:01.075903  8556 net.cpp:150] Setting up fc5_classes_fc5_67_0_split
I0409 08:58:01.075911  8556 net.cpp:157] Top shape: 1024 67 (68608)
I0409 08:58:01.075915  8556 net.cpp:157] Top shape: 1024 67 (68608)
I0409 08:58:01.075918  8556 net.cpp:157] Top shape: 1024 67 (68608)
I0409 08:58:01.075920  8556 net.cpp:165] Memory required for data: 2189656064
I0409 08:58:01.075932  8556 layer_factory.hpp:77] Creating layer loss
I0409 08:58:01.075943  8556 net.cpp:100] Creating Layer loss
I0409 08:58:01.075947  8556 net.cpp:434] loss <- fc5_classes_fc5_67_0_split_0
I0409 08:58:01.075953  8556 net.cpp:434] loss <- label_data_1_split_0
I0409 08:58:01.075956  8556 net.cpp:408] loss -> loss
…
