…
I0415 11:19:23.804504 13522 solver.cpp:93] Creating training net from train_net file: ./Prototxt/experiment_12/rtsd-r3/orig/trial_2/train.prototxt
I0415 11:19:23.823335 13522 net.cpp:58] Initializing net from parameters: 
state {
  phase: TRAIN
  level: 0
  stage: ""
}
layer {
  name: "data"
  type: "Data"
  top: "data"
  top: "label"
  include {
    phase: TRAIN
  }
  transform_param {
    scale: 0.0039215689
    mirror: false
    crop_size: 48
    mean_value: 120
    mean_value: 113
    mean_value: 112
  }
  data_param {
    source: "../local_data/lmdb/rtsd-r3/orig/train/lmdb"
    batch_size: 1024
    backend: LMDB
  }
}
layer {
  name: "conv1"
  type: "Convolution"
  bottom: "data"
  top: "conv1"
  convolution_param {
    num_output: 100
    pad: 0
    kernel_size: 7
    group: 1
    stride: 1
    weight_filler {
      type: "xavier"
    }
  }
}
layer {
  name: "conv1_relu"
  type: "ReLU"
  bottom: "conv1"
  top: "conv1"
}
layer {
  name: "pool1"
  type: "Pooling"
  bottom: "conv1"
  top: "pool1"
  pooling_param {
    pool: MAX
    kernel_size: 2
    stride: 2
  }
}
layer {
  name: "conv2"
  type: "Convolution"
  bottom: "pool1"
  top: "conv2"
  convolution_param {
    num_output: 150
    pad: 0
    kernel_size: 4
    group: 1
    stride: 1
    weight_filler {
      type: "xavier"
    }
  }
}
layer {
  name: "conv2_relu"
  type: "ReLU"
  bottom: "conv2"
  top: "conv2"
}
layer {
  name: "pool2"
  type: "Pooling"
  bottom: "conv2"
  top: "pool2"
  pooling_param {
    pool: MAX
    kernel_size: 2
    stride: 2
  }
}
layer {
  name: "conv3"
  type: "Convolution"
  bottom: "pool2"
  top: "conv3"
  convolution_param {
    num_output: 250
    pad: 0
    kernel_size: 4
    group: 1
    stride: 1
    weight_filler {
      type: "xavier"
    }
  }
}
layer {
  name: "conv3_relu"
  type: "ReLU"
  bottom: "conv3"
  top: "conv3"
}
layer {
  name: "pool3"
  type: "Pooling"
  bottom: "conv3"
  top: "pool3"
  pooling_param {
    pool: MAX
    kernel_size: 2
    stride: 2
  }
}
layer {
  name: "fc4_300"
  type: "InnerProduct"
  bottom: "pool3"
  top: "fc4_300"
  inner_product_param {
    num_output: 300
    weight_filler {
      type: "xavier"
    }
  }
}
layer {
  name: "fc4_relu"
  type: "ReLU"
  bottom: "fc4_300"
  top: "fc4_300"
}
layer {
  name: "drop4"
  type: "Dropout"
  bottom: "fc4_300"
  top: "fc4_300"
  dropout_param {
    dropout_ratio: 0.5
  }
}
layer {
  name: "fc5_106"
  type: "InnerProduct"
  bottom: "fc4_300"
  top: "fc5_classes"
  inner_product_param {
    num_output: 106
    weight_filler {
      type: "xavier"
    }
  }
}
layer {
  name: "softmax"
  type: "Softmax"
  bottom: "fc5_classes"
  top: "softmax"
}
layer {
  name: "loss"
  type: "MultinomialLogisticLoss"
  bottom: "softmax"
  bottom: "label"
  top: "loss"
}
layer {
  name: "accuracy_1"
  type: "Accuracy"
  bottom: "fc5_classes"
  bottom: "label"
  top: "accuracy_1"
  accuracy_param {
    top_k: 1
  }
}
layer {
  name: "accuracy_5"
  type: "Accuracy"
  bottom: "fc5_classes"
  bottom: "label"
  top: "accuracy_5"
  accuracy_param {
    top_k: 5
  }
}
layer {
  name: "silence"
  type: "Silence"
  bottom: "accuracy_1"
  bottom: "accuracy_5"
}
I0415 11:19:23.823482 13522 layer_factory.hpp:77] Creating layer data
I0415 11:19:23.824555 13522 net.cpp:100] Creating Layer data
I0415 11:19:23.824571 13522 net.cpp:408] data -> data
I0415 11:19:23.824594 13522 net.cpp:408] data -> label
I0415 11:19:23.828934 13639 db_lmdb.cpp:35] Opened lmdb ../local_data/lmdb/rtsd-r3/orig/train/lmdb
I0415 11:19:23.846138 13522 data_layer.cpp:41] output data size: 1024,3,48,48
I0415 11:19:23.894724 13522 net.cpp:150] Setting up data
I0415 11:19:23.894752 13522 net.cpp:157] Top shape: 1024 3 48 48 (7077888)
I0415 11:19:23.894757 13522 net.cpp:157] Top shape: 1024 (1024)
I0415 11:19:23.894760 13522 net.cpp:165] Memory required for data: 28315648
I0415 11:19:23.894771 13522 layer_factory.hpp:77] Creating layer label_data_1_split
I0415 11:19:23.894785 13522 net.cpp:100] Creating Layer label_data_1_split
I0415 11:19:23.894791 13522 net.cpp:434] label_data_1_split <- label
I0415 11:19:23.894807 13522 net.cpp:408] label_data_1_split -> label_data_1_split_0
I0415 11:19:23.894821 13522 net.cpp:408] label_data_1_split -> label_data_1_split_1
I0415 11:19:23.894832 13522 net.cpp:408] label_data_1_split -> label_data_1_split_2
I0415 11:19:23.894899 13522 net.cpp:150] Setting up label_data_1_split
I0415 11:19:23.894907 13522 net.cpp:157] Top shape: 1024 (1024)
I0415 11:19:23.894912 13522 net.cpp:157] Top shape: 1024 (1024)
I0415 11:19:23.894915 13522 net.cpp:157] Top shape: 1024 (1024)
I0415 11:19:23.894920 13522 net.cpp:165] Memory required for data: 28327936
I0415 11:19:23.894925 13522 layer_factory.hpp:77] Creating layer conv1
I0415 11:19:23.894945 13522 net.cpp:100] Creating Layer conv1
I0415 11:19:23.894951 13522 net.cpp:434] conv1 <- data
I0415 11:19:23.894958 13522 net.cpp:408] conv1 -> conv1
I0415 11:19:24.215952 13522 net.cpp:150] Setting up conv1
I0415 11:19:24.215979 13522 net.cpp:157] Top shape: 1024 100 42 42 (180633600)
I0415 11:19:24.215983 13522 net.cpp:165] Memory required for data: 750862336
I0415 11:19:24.216006 13522 layer_factory.hpp:77] Creating layer conv1_relu
I0415 11:19:24.216017 13522 net.cpp:100] Creating Layer conv1_relu
I0415 11:19:24.216024 13522 net.cpp:434] conv1_relu <- conv1
I0415 11:19:24.216030 13522 net.cpp:395] conv1_relu -> conv1 (in-place)
I0415 11:19:24.216224 13522 net.cpp:150] Setting up conv1_relu
I0415 11:19:24.216236 13522 net.cpp:157] Top shape: 1024 100 42 42 (180633600)
I0415 11:19:24.216239 13522 net.cpp:165] Memory required for data: 1473396736
I0415 11:19:24.216243 13522 layer_factory.hpp:77] Creating layer pool1
I0415 11:19:24.216253 13522 net.cpp:100] Creating Layer pool1
I0415 11:19:24.216258 13522 net.cpp:434] pool1 <- conv1
I0415 11:19:24.216262 13522 net.cpp:408] pool1 -> pool1
I0415 11:19:24.216315 13522 net.cpp:150] Setting up pool1
I0415 11:19:24.216322 13522 net.cpp:157] Top shape: 1024 100 21 21 (45158400)
I0415 11:19:24.216325 13522 net.cpp:165] Memory required for data: 1654030336
I0415 11:19:24.216330 13522 layer_factory.hpp:77] Creating layer conv2
I0415 11:19:24.216339 13522 net.cpp:100] Creating Layer conv2
I0415 11:19:24.216343 13522 net.cpp:434] conv2 <- pool1
I0415 11:19:24.216348 13522 net.cpp:408] conv2 -> conv2
I0415 11:19:24.232784 13522 net.cpp:150] Setting up conv2
I0415 11:19:24.232813 13522 net.cpp:157] Top shape: 1024 150 18 18 (49766400)
I0415 11:19:24.232817 13522 net.cpp:165] Memory required for data: 1853095936
I0415 11:19:24.232827 13522 layer_factory.hpp:77] Creating layer conv2_relu
I0415 11:19:24.232834 13522 net.cpp:100] Creating Layer conv2_relu
I0415 11:19:24.232837 13522 net.cpp:434] conv2_relu <- conv2
I0415 11:19:24.232842 13522 net.cpp:395] conv2_relu -> conv2 (in-place)
I0415 11:19:24.233947 13522 net.cpp:150] Setting up conv2_relu
I0415 11:19:24.233963 13522 net.cpp:157] Top shape: 1024 150 18 18 (49766400)
I0415 11:19:24.233978 13522 net.cpp:165] Memory required for data: 2052161536
I0415 11:19:24.233981 13522 layer_factory.hpp:77] Creating layer pool2
I0415 11:19:24.233989 13522 net.cpp:100] Creating Layer pool2
I0415 11:19:24.233992 13522 net.cpp:434] pool2 <- conv2
I0415 11:19:24.233997 13522 net.cpp:408] pool2 -> pool2
I0415 11:19:24.234045 13522 net.cpp:150] Setting up pool2
I0415 11:19:24.234055 13522 net.cpp:157] Top shape: 1024 150 9 9 (12441600)
I0415 11:19:24.234057 13522 net.cpp:165] Memory required for data: 2101927936
I0415 11:19:24.234061 13522 layer_factory.hpp:77] Creating layer conv3
I0415 11:19:24.234069 13522 net.cpp:100] Creating Layer conv3
I0415 11:19:24.234091 13522 net.cpp:434] conv3 <- pool2
I0415 11:19:24.234097 13522 net.cpp:408] conv3 -> conv3
I0415 11:19:24.239750 13522 net.cpp:150] Setting up conv3
I0415 11:19:24.239768 13522 net.cpp:157] Top shape: 1024 250 6 6 (9216000)
I0415 11:19:24.239771 13522 net.cpp:165] Memory required for data: 2138791936
I0415 11:19:24.239784 13522 layer_factory.hpp:77] Creating layer conv3_relu
I0415 11:19:24.239789 13522 net.cpp:100] Creating Layer conv3_relu
I0415 11:19:24.239794 13522 net.cpp:434] conv3_relu <- conv3
I0415 11:19:24.239799 13522 net.cpp:395] conv3_relu -> conv3 (in-place)
I0415 11:19:24.240820 13522 net.cpp:150] Setting up conv3_relu
I0415 11:19:24.240836 13522 net.cpp:157] Top shape: 1024 250 6 6 (9216000)
I0415 11:19:24.240839 13522 net.cpp:165] Memory required for data: 2175655936
I0415 11:19:24.240844 13522 layer_factory.hpp:77] Creating layer pool3
I0415 11:19:24.240849 13522 net.cpp:100] Creating Layer pool3
I0415 11:19:24.240854 13522 net.cpp:434] pool3 <- conv3
I0415 11:19:24.240860 13522 net.cpp:408] pool3 -> pool3
I0415 11:19:24.240908 13522 net.cpp:150] Setting up pool3
I0415 11:19:24.240917 13522 net.cpp:157] Top shape: 1024 250 3 3 (2304000)
I0415 11:19:24.240921 13522 net.cpp:165] Memory required for data: 2184871936
I0415 11:19:24.240922 13522 layer_factory.hpp:77] Creating layer fc4_300
I0415 11:19:24.240931 13522 net.cpp:100] Creating Layer fc4_300
I0415 11:19:24.240934 13522 net.cpp:434] fc4_300 <- pool3
I0415 11:19:24.240942 13522 net.cpp:408] fc4_300 -> fc4_300
I0415 11:19:24.247004 13522 net.cpp:150] Setting up fc4_300
I0415 11:19:24.247020 13522 net.cpp:157] Top shape: 1024 300 (307200)
I0415 11:19:24.247022 13522 net.cpp:165] Memory required for data: 2186100736
I0415 11:19:24.247030 13522 layer_factory.hpp:77] Creating layer fc4_relu
I0415 11:19:24.247036 13522 net.cpp:100] Creating Layer fc4_relu
I0415 11:19:24.247040 13522 net.cpp:434] fc4_relu <- fc4_300
I0415 11:19:24.247046 13522 net.cpp:395] fc4_relu -> fc4_300 (in-place)
I0415 11:19:24.247236 13522 net.cpp:150] Setting up fc4_relu
I0415 11:19:24.247248 13522 net.cpp:157] Top shape: 1024 300 (307200)
I0415 11:19:24.247251 13522 net.cpp:165] Memory required for data: 2187329536
I0415 11:19:24.247254 13522 layer_factory.hpp:77] Creating layer drop4
I0415 11:19:24.247263 13522 net.cpp:100] Creating Layer drop4
I0415 11:19:24.247267 13522 net.cpp:434] drop4 <- fc4_300
I0415 11:19:24.247272 13522 net.cpp:395] drop4 -> fc4_300 (in-place)
I0415 11:19:24.247303 13522 net.cpp:150] Setting up drop4
I0415 11:19:24.247311 13522 net.cpp:157] Top shape: 1024 300 (307200)
I0415 11:19:24.247314 13522 net.cpp:165] Memory required for data: 2188558336
I0415 11:19:24.247318 13522 layer_factory.hpp:77] Creating layer fc5_106
I0415 11:19:24.247326 13522 net.cpp:100] Creating Layer fc5_106
I0415 11:19:24.247329 13522 net.cpp:434] fc5_106 <- fc4_300
I0415 11:19:24.247334 13522 net.cpp:408] fc5_106 -> fc5_classes
I0415 11:19:24.249290 13522 net.cpp:150] Setting up fc5_106
I0415 11:19:24.249307 13522 net.cpp:157] Top shape: 1024 106 (108544)
I0415 11:19:24.249323 13522 net.cpp:165] Memory required for data: 2188992512
I0415 11:19:24.249333 13522 layer_factory.hpp:77] Creating layer fc5_classes_fc5_106_0_split
I0415 11:19:24.249343 13522 net.cpp:100] Creating Layer fc5_classes_fc5_106_0_split
I0415 11:19:24.249347 13522 net.cpp:434] fc5_classes_fc5_106_0_split <- fc5_classes
I0415 11:19:24.249353 13522 net.cpp:408] fc5_classes_fc5_106_0_split -> fc5_classes_fc5_106_0_split_0
I0415 11:19:24.249362 13522 net.cpp:408] fc5_classes_fc5_106_0_split -> fc5_classes_fc5_106_0_split_1
I0415 11:19:24.249368 13522 net.cpp:408] fc5_classes_fc5_106_0_split -> fc5_classes_fc5_106_0_split_2
I0415 11:19:24.249419 13522 net.cpp:150] Setting up fc5_classes_fc5_106_0_split
I0415 11:19:24.249428 13522 net.cpp:157] Top shape: 1024 106 (108544)
I0415 11:19:24.249433 13522 net.cpp:157] Top shape: 1024 106 (108544)
I0415 11:19:24.249435 13522 net.cpp:157] Top shape: 1024 106 (108544)
I0415 11:19:24.249439 13522 net.cpp:165] Memory required for data: 2190295040
I0415 11:19:24.249454 13522 layer_factory.hpp:77] Creating layer softmax
I0415 11:19:24.249464 13522 net.cpp:100] Creating Layer softmax
I0415 11:19:24.249469 13522 net.cpp:434] softmax <- fc5_classes_fc5_106_0_split_0
I0415 11:19:24.249475 13522 net.cpp:408] softmax -> softmax
I0415 11:19:24.249732 13522 net.cpp:150] Setting up softmax
I0415 11:19:24.249744 13522 net.cpp:157] Top shape: 1024 106 (108544)
I0415 11:19:24.249747 13522 net.cpp:165] Memory required for data: 2190729216
I0415 11:19:24.249752 13522 layer_factory.hpp:77] Creating layer loss
I0415 11:19:24.249758 13522 net.cpp:100] Creating Layer loss
I0415 11:19:24.249760 13522 net.cpp:434] loss <- softmax
I0415 11:19:24.249764 13522 net.cpp:434] loss <- label_data_1_split_0
I0415 11:19:24.249776 13522 net.cpp:408] loss -> loss
…
