…
I0508 04:44:10.176152 28192 solver.cpp:93] Creating training net from train_net file: ./Prototxt/experiment_16/RTSD/histeq/trial_3/train.prototxt
I0508 04:44:10.176520 28192 net.cpp:58] Initializing net from parameters: 
state {
  phase: TRAIN
  level: 0
  stage: ""
}
layer {
  name: "data"
  type: "Data"
  top: "data"
  top: "label"
  include {
    phase: TRAIN
  }
  transform_param {
    scale: 0.0039215689
    mirror: false
    crop_size: 48
    mean_value: 134
    mean_value: 128
    mean_value: 128
  }
  data_param {
    source: "../local_data/lmdb/RTSD/histeq/train/lmdb"
    batch_size: 1024
    backend: LMDB
  }
}
layer {
  name: "conv1"
  type: "Convolution"
  bottom: "data"
  top: "conv1"
  convolution_param {
    num_output: 100
    pad: 0
    kernel_size: 7
    group: 1
    stride: 1
    weight_filler {
      type: "xavier"
    }
  }
}
layer {
  name: "conv1_relu"
  type: "ReLU"
  bottom: "conv1"
  top: "conv1"
}
layer {
  name: "pool1"
  type: "Pooling"
  bottom: "conv1"
  top: "pool1"
  pooling_param {
    pool: MAX
    kernel_size: 2
    stride: 2
  }
}
layer {
  name: "conv2"
  type: "Convolution"
  bottom: "pool1"
  top: "conv2"
  convolution_param {
    num_output: 150
    pad: 0
    kernel_size: 4
    group: 2
    stride: 1
    weight_filler {
      type: "xavier"
    }
  }
}
layer {
  name: "conv2_relu"
  type: "ReLU"
  bottom: "conv2"
  top: "conv2"
}
layer {
  name: "pool2"
  type: "Pooling"
  bottom: "conv2"
  top: "pool2"
  pooling_param {
    pool: MAX
    kernel_size: 2
    stride: 2
  }
}
layer {
  name: "conv3"
  type: "Convolution"
  bottom: "pool2"
  top: "conv3"
  convolution_param {
    num_output: 250
    pad: 0
    kernel_size: 4
    group: 2
    stride: 1
    weight_filler {
      type: "xavier"
    }
  }
}
layer {
  name: "conv3_relu"
  type: "ReLU"
  bottom: "conv3"
  top: "conv3"
}
layer {
  name: "pool3"
  type: "Pooling"
  bottom: "conv3"
  top: "pool3"
  pooling_param {
    pool: MAX
    kernel_size: 2
    stride: 2
  }
}
layer {
  name: "fc4_300"
  type: "InnerProduct"
  bottom: "pool3"
  top: "fc4_300"
  inner_product_param {
    num_output: 300
    weight_filler {
      type: "xavier"
    }
  }
}
layer {
  name: "fc4_relu"
  type: "ReLU"
  bottom: "fc4_300"
  top: "fc4_300"
}
layer {
  name: "fc5_116"
  type: "InnerProduct"
  bottom: "fc4_300"
  top: "fc5_classes"
  inner_product_param {
    num_output: 116
    weight_filler {
      type: "xavier"
    }
  }
}
layer {
  name: "softmax"
  type: "Softmax"
  bottom: "fc5_classes"
  top: "softmax"
}
layer {
  name: "loss"
  type: "MultinomialLogisticLoss"
  bottom: "softmax"
  bottom: "label"
  top: "loss"
}
layer {
  name: "accuracy_1"
  type: "Accuracy"
  bottom: "fc5_classes"
  bottom: "label"
  top: "accuracy_1"
  accuracy_param {
    top_k: 1
  }
}
layer {
  name: "accuracy_5"
  type: "Accuracy"
  bottom: "fc5_classes"
  bottom: "label"
  top: "accuracy_5"
  accuracy_param {
    top_k: 5
  }
}
layer {
  name: "silence"
  type: "Silence"
  bottom: "accuracy_1"
  bottom: "accuracy_5"
}
I0508 04:44:10.176640 28192 layer_factory.hpp:77] Creating layer data
I0508 04:44:10.177714 28192 net.cpp:100] Creating Layer data
I0508 04:44:10.177729 28192 net.cpp:408] data -> data
I0508 04:44:10.177753 28192 net.cpp:408] data -> label
I0508 04:44:10.194866 28316 db_lmdb.cpp:35] Opened lmdb ../local_data/lmdb/RTSD/histeq/train/lmdb
I0508 04:44:10.225581 28192 data_layer.cpp:41] output data size: 1024,3,48,48
I0508 04:44:10.294800 28192 net.cpp:150] Setting up data
I0508 04:44:10.294852 28192 net.cpp:157] Top shape: 1024 3 48 48 (7077888)
I0508 04:44:10.294858 28192 net.cpp:157] Top shape: 1024 (1024)
I0508 04:44:10.294862 28192 net.cpp:165] Memory required for data: 28315648
I0508 04:44:10.294872 28192 layer_factory.hpp:77] Creating layer label_data_1_split
I0508 04:44:10.294886 28192 net.cpp:100] Creating Layer label_data_1_split
I0508 04:44:10.294895 28192 net.cpp:434] label_data_1_split <- label
I0508 04:44:10.294909 28192 net.cpp:408] label_data_1_split -> label_data_1_split_0
I0508 04:44:10.294922 28192 net.cpp:408] label_data_1_split -> label_data_1_split_1
I0508 04:44:10.294930 28192 net.cpp:408] label_data_1_split -> label_data_1_split_2
I0508 04:44:10.294992 28192 net.cpp:150] Setting up label_data_1_split
I0508 04:44:10.295001 28192 net.cpp:157] Top shape: 1024 (1024)
I0508 04:44:10.295004 28192 net.cpp:157] Top shape: 1024 (1024)
I0508 04:44:10.295008 28192 net.cpp:157] Top shape: 1024 (1024)
I0508 04:44:10.295011 28192 net.cpp:165] Memory required for data: 28327936
I0508 04:44:10.295013 28192 layer_factory.hpp:77] Creating layer conv1
I0508 04:44:10.295030 28192 net.cpp:100] Creating Layer conv1
I0508 04:44:10.295034 28192 net.cpp:434] conv1 <- data
I0508 04:44:10.295040 28192 net.cpp:408] conv1 -> conv1
I0508 04:44:10.683429 28192 net.cpp:150] Setting up conv1
I0508 04:44:10.683455 28192 net.cpp:157] Top shape: 1024 100 42 42 (180633600)
I0508 04:44:10.683459 28192 net.cpp:165] Memory required for data: 750862336
I0508 04:44:10.683480 28192 layer_factory.hpp:77] Creating layer conv1_relu
I0508 04:44:10.683491 28192 net.cpp:100] Creating Layer conv1_relu
I0508 04:44:10.683496 28192 net.cpp:434] conv1_relu <- conv1
I0508 04:44:10.683504 28192 net.cpp:395] conv1_relu -> conv1 (in-place)
I0508 04:44:10.683702 28192 net.cpp:150] Setting up conv1_relu
I0508 04:44:10.683714 28192 net.cpp:157] Top shape: 1024 100 42 42 (180633600)
I0508 04:44:10.683719 28192 net.cpp:165] Memory required for data: 1473396736
I0508 04:44:10.683722 28192 layer_factory.hpp:77] Creating layer pool1
I0508 04:44:10.683732 28192 net.cpp:100] Creating Layer pool1
I0508 04:44:10.683737 28192 net.cpp:434] pool1 <- conv1
I0508 04:44:10.683742 28192 net.cpp:408] pool1 -> pool1
I0508 04:44:10.683795 28192 net.cpp:150] Setting up pool1
I0508 04:44:10.683809 28192 net.cpp:157] Top shape: 1024 100 21 21 (45158400)
I0508 04:44:10.683814 28192 net.cpp:165] Memory required for data: 1654030336
I0508 04:44:10.683816 28192 layer_factory.hpp:77] Creating layer conv2
I0508 04:44:10.683828 28192 net.cpp:100] Creating Layer conv2
I0508 04:44:10.683832 28192 net.cpp:434] conv2 <- pool1
I0508 04:44:10.683837 28192 net.cpp:408] conv2 -> conv2
I0508 04:44:10.688089 28192 net.cpp:150] Setting up conv2
I0508 04:44:10.688107 28192 net.cpp:157] Top shape: 1024 150 18 18 (49766400)
I0508 04:44:10.688110 28192 net.cpp:165] Memory required for data: 1853095936
I0508 04:44:10.688119 28192 layer_factory.hpp:77] Creating layer conv2_relu
I0508 04:44:10.688128 28192 net.cpp:100] Creating Layer conv2_relu
I0508 04:44:10.688133 28192 net.cpp:434] conv2_relu <- conv2
I0508 04:44:10.688138 28192 net.cpp:395] conv2_relu -> conv2 (in-place)
I0508 04:44:10.688316 28192 net.cpp:150] Setting up conv2_relu
I0508 04:44:10.688328 28192 net.cpp:157] Top shape: 1024 150 18 18 (49766400)
I0508 04:44:10.688331 28192 net.cpp:165] Memory required for data: 2052161536
I0508 04:44:10.688334 28192 layer_factory.hpp:77] Creating layer pool2
I0508 04:44:10.688340 28192 net.cpp:100] Creating Layer pool2
I0508 04:44:10.688344 28192 net.cpp:434] pool2 <- conv2
I0508 04:44:10.688349 28192 net.cpp:408] pool2 -> pool2
I0508 04:44:10.688395 28192 net.cpp:150] Setting up pool2
I0508 04:44:10.688402 28192 net.cpp:157] Top shape: 1024 150 9 9 (12441600)
I0508 04:44:10.688405 28192 net.cpp:165] Memory required for data: 2101927936
I0508 04:44:10.688408 28192 layer_factory.hpp:77] Creating layer conv3
I0508 04:44:10.688417 28192 net.cpp:100] Creating Layer conv3
I0508 04:44:10.688421 28192 net.cpp:434] conv3 <- pool2
I0508 04:44:10.688426 28192 net.cpp:408] conv3 -> conv3
I0508 04:44:10.692734 28192 net.cpp:150] Setting up conv3
I0508 04:44:10.692751 28192 net.cpp:157] Top shape: 1024 250 6 6 (9216000)
I0508 04:44:10.692756 28192 net.cpp:165] Memory required for data: 2138791936
I0508 04:44:10.692766 28192 layer_factory.hpp:77] Creating layer conv3_relu
I0508 04:44:10.692775 28192 net.cpp:100] Creating Layer conv3_relu
I0508 04:44:10.692780 28192 net.cpp:434] conv3_relu <- conv3
I0508 04:44:10.692785 28192 net.cpp:395] conv3_relu -> conv3 (in-place)
I0508 04:44:10.692960 28192 net.cpp:150] Setting up conv3_relu
I0508 04:44:10.692970 28192 net.cpp:157] Top shape: 1024 250 6 6 (9216000)
I0508 04:44:10.692975 28192 net.cpp:165] Memory required for data: 2175655936
I0508 04:44:10.692978 28192 layer_factory.hpp:77] Creating layer pool3
I0508 04:44:10.692984 28192 net.cpp:100] Creating Layer pool3
I0508 04:44:10.692987 28192 net.cpp:434] pool3 <- conv3
I0508 04:44:10.692992 28192 net.cpp:408] pool3 -> pool3
I0508 04:44:10.693035 28192 net.cpp:150] Setting up pool3
I0508 04:44:10.693043 28192 net.cpp:157] Top shape: 1024 250 3 3 (2304000)
I0508 04:44:10.693047 28192 net.cpp:165] Memory required for data: 2184871936
I0508 04:44:10.693049 28192 layer_factory.hpp:77] Creating layer fc4_300
I0508 04:44:10.693055 28192 net.cpp:100] Creating Layer fc4_300
I0508 04:44:10.693059 28192 net.cpp:434] fc4_300 <- pool3
I0508 04:44:10.693064 28192 net.cpp:408] fc4_300 -> fc4_300
I0508 04:44:10.698568 28192 net.cpp:150] Setting up fc4_300
I0508 04:44:10.698585 28192 net.cpp:157] Top shape: 1024 300 (307200)
I0508 04:44:10.698588 28192 net.cpp:165] Memory required for data: 2186100736
I0508 04:44:10.698595 28192 layer_factory.hpp:77] Creating layer fc4_relu
I0508 04:44:10.698601 28192 net.cpp:100] Creating Layer fc4_relu
I0508 04:44:10.698603 28192 net.cpp:434] fc4_relu <- fc4_300
I0508 04:44:10.698608 28192 net.cpp:395] fc4_relu -> fc4_300 (in-place)
I0508 04:44:10.713603 28192 net.cpp:150] Setting up fc4_relu
I0508 04:44:10.713619 28192 net.cpp:157] Top shape: 1024 300 (307200)
I0508 04:44:10.713623 28192 net.cpp:165] Memory required for data: 2187329536
I0508 04:44:10.713625 28192 layer_factory.hpp:77] Creating layer fc5_116
I0508 04:44:10.713634 28192 net.cpp:100] Creating Layer fc5_116
I0508 04:44:10.713636 28192 net.cpp:434] fc5_116 <- fc4_300
I0508 04:44:10.713641 28192 net.cpp:408] fc5_116 -> fc5_classes
I0508 04:44:10.715157 28192 net.cpp:150] Setting up fc5_116
I0508 04:44:10.715173 28192 net.cpp:157] Top shape: 1024 116 (118784)
I0508 04:44:10.715175 28192 net.cpp:165] Memory required for data: 2187804672
I0508 04:44:10.715185 28192 layer_factory.hpp:77] Creating layer fc5_classes_fc5_116_0_split
I0508 04:44:10.715193 28192 net.cpp:100] Creating Layer fc5_classes_fc5_116_0_split
I0508 04:44:10.715196 28192 net.cpp:434] fc5_classes_fc5_116_0_split <- fc5_classes
I0508 04:44:10.715201 28192 net.cpp:408] fc5_classes_fc5_116_0_split -> fc5_classes_fc5_116_0_split_0
I0508 04:44:10.715209 28192 net.cpp:408] fc5_classes_fc5_116_0_split -> fc5_classes_fc5_116_0_split_1
I0508 04:44:10.715216 28192 net.cpp:408] fc5_classes_fc5_116_0_split -> fc5_classes_fc5_116_0_split_2
I0508 04:44:10.715267 28192 net.cpp:150] Setting up fc5_classes_fc5_116_0_split
I0508 04:44:10.715275 28192 net.cpp:157] Top shape: 1024 116 (118784)
I0508 04:44:10.715278 28192 net.cpp:157] Top shape: 1024 116 (118784)
I0508 04:44:10.715281 28192 net.cpp:157] Top shape: 1024 116 (118784)
I0508 04:44:10.715284 28192 net.cpp:165] Memory required for data: 2189230080
I0508 04:44:10.715287 28192 layer_factory.hpp:77] Creating layer softmax
I0508 04:44:10.715292 28192 net.cpp:100] Creating Layer softmax
I0508 04:44:10.715296 28192 net.cpp:434] softmax <- fc5_classes_fc5_116_0_split_0
I0508 04:44:10.715301 28192 net.cpp:408] softmax -> softmax
I0508 04:44:10.715543 28192 net.cpp:150] Setting up softmax
I0508 04:44:10.715554 28192 net.cpp:157] Top shape: 1024 116 (118784)
I0508 04:44:10.715559 28192 net.cpp:165] Memory required for data: 2189705216
I0508 04:44:10.715562 28192 layer_factory.hpp:77] Creating layer loss
I0508 04:44:10.715586 28192 net.cpp:100] Creating Layer loss
I0508 04:44:10.715590 28192 net.cpp:434] loss <- softmax
I0508 04:44:10.715595 28192 net.cpp:434] loss <- label_data_1_split_0
I0508 04:44:10.715600 28192 net.cpp:408] loss -> loss
…
