…
I0412 05:56:53.826100 21257 solver.cpp:93] Creating training net from train_net file: ./Prototxt/experiment_10/rtsd-r1/orig/trial_4/train.prototxt
I0412 05:56:53.827265 21257 net.cpp:58] Initializing net from parameters: 
state {
  phase: TRAIN
  level: 0
  stage: ""
}
layer {
  name: "data"
  type: "Data"
  top: "data"
  top: "label"
  include {
    phase: TRAIN
  }
  transform_param {
    scale: 0.0039215689
    mirror: false
    crop_size: 48
    mean_value: 122
    mean_value: 115
    mean_value: 129
  }
  data_param {
    source: "../local_data/lmdb/rtsd-r1/orig/train/lmdb"
    batch_size: 1024
    backend: LMDB
  }
}
layer {
  name: "conv1"
  type: "Convolution"
  bottom: "data"
  top: "conv1"
  convolution_param {
    num_output: 100
    pad: 0
    kernel_size: 7
    group: 1
    stride: 1
    weight_filler {
      type: "xavier"
    }
  }
}
layer {
  name: "conv1_relu"
  type: "ReLU"
  bottom: "conv1"
  top: "conv1"
}
layer {
  name: "pool1"
  type: "Pooling"
  bottom: "conv1"
  top: "pool1"
  pooling_param {
    pool: MAX
    kernel_size: 2
    stride: 2
  }
}
layer {
  name: "conv2"
  type: "Convolution"
  bottom: "pool1"
  top: "conv2"
  convolution_param {
    num_output: 150
    pad: 0
    kernel_size: 4
    group: 1
    stride: 1
    weight_filler {
      type: "xavier"
    }
  }
}
layer {
  name: "conv2_relu"
  type: "ReLU"
  bottom: "conv2"
  top: "conv2"
}
layer {
  name: "pool2"
  type: "Pooling"
  bottom: "conv2"
  top: "pool2"
  pooling_param {
    pool: MAX
    kernel_size: 2
    stride: 2
  }
}
layer {
  name: "conv3"
  type: "Convolution"
  bottom: "pool2"
  top: "conv3"
  convolution_param {
    num_output: 250
    pad: 0
    kernel_size: 4
    group: 1
    stride: 1
    weight_filler {
      type: "xavier"
    }
  }
}
layer {
  name: "conv3_relu"
  type: "ReLU"
  bottom: "conv3"
  top: "conv3"
}
layer {
  name: "pool3"
  type: "Pooling"
  bottom: "conv3"
  top: "pool3"
  pooling_param {
    pool: MAX
    kernel_size: 2
    stride: 2
  }
}
layer {
  name: "fc4_300"
  type: "InnerProduct"
  bottom: "pool3"
  top: "fc4_300"
  inner_product_param {
    num_output: 300
    weight_filler {
      type: "xavier"
    }
  }
}
layer {
  name: "fc4_relu"
  type: "ReLU"
  bottom: "fc4_300"
  top: "fc4_300"
}
layer {
  name: "drop4"
  type: "Dropout"
  bottom: "fc4_300"
  top: "fc4_300"
  dropout_param {
    dropout_ratio: 0.4
  }
}
layer {
  name: "fc5_67"
  type: "InnerProduct"
  bottom: "fc4_300"
  top: "fc5_classes"
  inner_product_param {
    num_output: 67
    weight_filler {
      type: "xavier"
    }
  }
}
layer {
  name: "softmax"
  type: "Softmax"
  bottom: "fc5_classes"
  top: "softmax"
}
layer {
  name: "loss"
  type: "MultinomialLogisticLoss"
  bottom: "softmax"
  bottom: "label"
  top: "loss"
}
layer {
  name: "accuracy_1"
  type: "Accuracy"
  bottom: "fc5_classes"
  bottom: "label"
  top: "accuracy_1"
  accuracy_param {
    top_k: 1
  }
}
layer {
  name: "accuracy_5"
  type: "Accuracy"
  bottom: "fc5_classes"
  bottom: "label"
  top: "accuracy_5"
  accuracy_param {
    top_k: 5
  }
}
I0412 05:56:53.827402 21257 layer_factory.hpp:77] Creating layer data
I0412 05:56:53.828922 21257 net.cpp:100] Creating Layer data
I0412 05:56:53.828943 21257 net.cpp:408] data -> data
I0412 05:56:53.828969 21257 net.cpp:408] data -> label
I0412 05:56:53.832414 21379 db_lmdb.cpp:35] Opened lmdb ../local_data/lmdb/rtsd-r1/orig/train/lmdb
I0412 05:56:53.852957 21257 data_layer.cpp:41] output data size: 1024,3,48,48
I0412 05:56:53.907853 21257 net.cpp:150] Setting up data
I0412 05:56:53.907901 21257 net.cpp:157] Top shape: 1024 3 48 48 (7077888)
I0412 05:56:53.907909 21257 net.cpp:157] Top shape: 1024 (1024)
I0412 05:56:53.907912 21257 net.cpp:165] Memory required for data: 28315648
I0412 05:56:53.907925 21257 layer_factory.hpp:77] Creating layer label_data_1_split
I0412 05:56:53.907940 21257 net.cpp:100] Creating Layer label_data_1_split
I0412 05:56:53.907948 21257 net.cpp:434] label_data_1_split <- label
I0412 05:56:53.907963 21257 net.cpp:408] label_data_1_split -> label_data_1_split_0
I0412 05:56:53.907977 21257 net.cpp:408] label_data_1_split -> label_data_1_split_1
I0412 05:56:53.907986 21257 net.cpp:408] label_data_1_split -> label_data_1_split_2
I0412 05:56:53.908066 21257 net.cpp:150] Setting up label_data_1_split
I0412 05:56:53.908074 21257 net.cpp:157] Top shape: 1024 (1024)
I0412 05:56:53.908079 21257 net.cpp:157] Top shape: 1024 (1024)
I0412 05:56:53.908083 21257 net.cpp:157] Top shape: 1024 (1024)
I0412 05:56:53.908087 21257 net.cpp:165] Memory required for data: 28327936
I0412 05:56:53.908090 21257 layer_factory.hpp:77] Creating layer conv1
I0412 05:56:53.908108 21257 net.cpp:100] Creating Layer conv1
I0412 05:56:53.908114 21257 net.cpp:434] conv1 <- data
I0412 05:56:53.908121 21257 net.cpp:408] conv1 -> conv1
I0412 05:56:54.273077 21257 net.cpp:150] Setting up conv1
I0412 05:56:54.273108 21257 net.cpp:157] Top shape: 1024 100 42 42 (180633600)
I0412 05:56:54.273113 21257 net.cpp:165] Memory required for data: 750862336
I0412 05:56:54.273138 21257 layer_factory.hpp:77] Creating layer conv1_relu
I0412 05:56:54.273150 21257 net.cpp:100] Creating Layer conv1_relu
I0412 05:56:54.273155 21257 net.cpp:434] conv1_relu <- conv1
I0412 05:56:54.273162 21257 net.cpp:395] conv1_relu -> conv1 (in-place)
I0412 05:56:54.273404 21257 net.cpp:150] Setting up conv1_relu
I0412 05:56:54.273419 21257 net.cpp:157] Top shape: 1024 100 42 42 (180633600)
I0412 05:56:54.273423 21257 net.cpp:165] Memory required for data: 1473396736
I0412 05:56:54.273427 21257 layer_factory.hpp:77] Creating layer pool1
I0412 05:56:54.273438 21257 net.cpp:100] Creating Layer pool1
I0412 05:56:54.273444 21257 net.cpp:434] pool1 <- conv1
I0412 05:56:54.273452 21257 net.cpp:408] pool1 -> pool1
I0412 05:56:54.273516 21257 net.cpp:150] Setting up pool1
I0412 05:56:54.273526 21257 net.cpp:157] Top shape: 1024 100 21 21 (45158400)
I0412 05:56:54.273530 21257 net.cpp:165] Memory required for data: 1654030336
I0412 05:56:54.273535 21257 layer_factory.hpp:77] Creating layer conv2
I0412 05:56:54.273545 21257 net.cpp:100] Creating Layer conv2
I0412 05:56:54.273551 21257 net.cpp:434] conv2 <- pool1
I0412 05:56:54.273557 21257 net.cpp:408] conv2 -> conv2
I0412 05:56:54.279350 21257 net.cpp:150] Setting up conv2
I0412 05:56:54.279368 21257 net.cpp:157] Top shape: 1024 150 18 18 (49766400)
I0412 05:56:54.279372 21257 net.cpp:165] Memory required for data: 1853095936
I0412 05:56:54.279384 21257 layer_factory.hpp:77] Creating layer conv2_relu
I0412 05:56:54.279394 21257 net.cpp:100] Creating Layer conv2_relu
I0412 05:56:54.279400 21257 net.cpp:434] conv2_relu <- conv2
I0412 05:56:54.279407 21257 net.cpp:395] conv2_relu -> conv2 (in-place)
I0412 05:56:54.283057 21257 net.cpp:150] Setting up conv2_relu
I0412 05:56:54.283076 21257 net.cpp:157] Top shape: 1024 150 18 18 (49766400)
I0412 05:56:54.283079 21257 net.cpp:165] Memory required for data: 2052161536
I0412 05:56:54.283083 21257 layer_factory.hpp:77] Creating layer pool2
I0412 05:56:54.283092 21257 net.cpp:100] Creating Layer pool2
I0412 05:56:54.283095 21257 net.cpp:434] pool2 <- conv2
I0412 05:56:54.283102 21257 net.cpp:408] pool2 -> pool2
I0412 05:56:54.283170 21257 net.cpp:150] Setting up pool2
I0412 05:56:54.283180 21257 net.cpp:157] Top shape: 1024 150 9 9 (12441600)
I0412 05:56:54.283184 21257 net.cpp:165] Memory required for data: 2101927936
I0412 05:56:54.283187 21257 layer_factory.hpp:77] Creating layer conv3
I0412 05:56:54.283198 21257 net.cpp:100] Creating Layer conv3
I0412 05:56:54.283205 21257 net.cpp:434] conv3 <- pool2
I0412 05:56:54.283231 21257 net.cpp:408] conv3 -> conv3
I0412 05:56:54.290297 21257 net.cpp:150] Setting up conv3
I0412 05:56:54.290316 21257 net.cpp:157] Top shape: 1024 250 6 6 (9216000)
I0412 05:56:54.290320 21257 net.cpp:165] Memory required for data: 2138791936
I0412 05:56:54.290333 21257 layer_factory.hpp:77] Creating layer conv3_relu
I0412 05:56:54.290341 21257 net.cpp:100] Creating Layer conv3_relu
I0412 05:56:54.290345 21257 net.cpp:434] conv3_relu <- conv3
I0412 05:56:54.290352 21257 net.cpp:395] conv3_relu -> conv3 (in-place)
I0412 05:56:54.291594 21257 net.cpp:150] Setting up conv3_relu
I0412 05:56:54.291611 21257 net.cpp:157] Top shape: 1024 250 6 6 (9216000)
I0412 05:56:54.291617 21257 net.cpp:165] Memory required for data: 2175655936
I0412 05:56:54.291621 21257 layer_factory.hpp:77] Creating layer pool3
I0412 05:56:54.291635 21257 net.cpp:100] Creating Layer pool3
I0412 05:56:54.291640 21257 net.cpp:434] pool3 <- conv3
I0412 05:56:54.291646 21257 net.cpp:408] pool3 -> pool3
I0412 05:56:54.291702 21257 net.cpp:150] Setting up pool3
I0412 05:56:54.291712 21257 net.cpp:157] Top shape: 1024 250 3 3 (2304000)
I0412 05:56:54.291714 21257 net.cpp:165] Memory required for data: 2184871936
I0412 05:56:54.291718 21257 layer_factory.hpp:77] Creating layer fc4_300
I0412 05:56:54.291726 21257 net.cpp:100] Creating Layer fc4_300
I0412 05:56:54.291729 21257 net.cpp:434] fc4_300 <- pool3
I0412 05:56:54.291735 21257 net.cpp:408] fc4_300 -> fc4_300
I0412 05:56:54.298686 21257 net.cpp:150] Setting up fc4_300
I0412 05:56:54.298704 21257 net.cpp:157] Top shape: 1024 300 (307200)
I0412 05:56:54.298709 21257 net.cpp:165] Memory required for data: 2186100736
I0412 05:56:54.298717 21257 layer_factory.hpp:77] Creating layer fc4_relu
I0412 05:56:54.298727 21257 net.cpp:100] Creating Layer fc4_relu
I0412 05:56:54.298730 21257 net.cpp:434] fc4_relu <- fc4_300
I0412 05:56:54.298739 21257 net.cpp:395] fc4_relu -> fc4_300 (in-place)
I0412 05:56:54.298966 21257 net.cpp:150] Setting up fc4_relu
I0412 05:56:54.298979 21257 net.cpp:157] Top shape: 1024 300 (307200)
I0412 05:56:54.298984 21257 net.cpp:165] Memory required for data: 2187329536
I0412 05:56:54.298987 21257 layer_factory.hpp:77] Creating layer drop4
I0412 05:56:54.298995 21257 net.cpp:100] Creating Layer drop4
I0412 05:56:54.299000 21257 net.cpp:434] drop4 <- fc4_300
I0412 05:56:54.299006 21257 net.cpp:395] drop4 -> fc4_300 (in-place)
I0412 05:56:54.299047 21257 net.cpp:150] Setting up drop4
I0412 05:56:54.299057 21257 net.cpp:157] Top shape: 1024 300 (307200)
I0412 05:56:54.299060 21257 net.cpp:165] Memory required for data: 2188558336
I0412 05:56:54.299063 21257 layer_factory.hpp:77] Creating layer fc5_67
I0412 05:56:54.299070 21257 net.cpp:100] Creating Layer fc5_67
I0412 05:56:54.299074 21257 net.cpp:434] fc5_67 <- fc4_300
I0412 05:56:54.299082 21257 net.cpp:408] fc5_67 -> fc5_classes
I0412 05:56:54.304464 21257 net.cpp:150] Setting up fc5_67
I0412 05:56:54.304484 21257 net.cpp:157] Top shape: 1024 67 (68608)
I0412 05:56:54.304491 21257 net.cpp:165] Memory required for data: 2188832768
I0412 05:56:54.304507 21257 layer_factory.hpp:77] Creating layer fc5_classes_fc5_67_0_split
I0412 05:56:54.304517 21257 net.cpp:100] Creating Layer fc5_classes_fc5_67_0_split
I0412 05:56:54.304522 21257 net.cpp:434] fc5_classes_fc5_67_0_split <- fc5_classes
I0412 05:56:54.304532 21257 net.cpp:408] fc5_classes_fc5_67_0_split -> fc5_classes_fc5_67_0_split_0
I0412 05:56:54.304543 21257 net.cpp:408] fc5_classes_fc5_67_0_split -> fc5_classes_fc5_67_0_split_1
I0412 05:56:54.304553 21257 net.cpp:408] fc5_classes_fc5_67_0_split -> fc5_classes_fc5_67_0_split_2
I0412 05:56:54.304618 21257 net.cpp:150] Setting up fc5_classes_fc5_67_0_split
I0412 05:56:54.304626 21257 net.cpp:157] Top shape: 1024 67 (68608)
I0412 05:56:54.304631 21257 net.cpp:157] Top shape: 1024 67 (68608)
I0412 05:56:54.304636 21257 net.cpp:157] Top shape: 1024 67 (68608)
I0412 05:56:54.304638 21257 net.cpp:165] Memory required for data: 2189656064
I0412 05:56:54.304641 21257 layer_factory.hpp:77] Creating layer softmax
I0412 05:56:54.304669 21257 net.cpp:100] Creating Layer softmax
I0412 05:56:54.304677 21257 net.cpp:434] softmax <- fc5_classes_fc5_67_0_split_0
I0412 05:56:54.304683 21257 net.cpp:408] softmax -> softmax
I0412 05:56:54.305001 21257 net.cpp:150] Setting up softmax
I0412 05:56:54.305014 21257 net.cpp:157] Top shape: 1024 67 (68608)
I0412 05:56:54.305021 21257 net.cpp:165] Memory required for data: 2189930496
I0412 05:56:54.305024 21257 layer_factory.hpp:77] Creating layer loss
I0412 05:56:54.305033 21257 net.cpp:100] Creating Layer loss
I0412 05:56:54.305039 21257 net.cpp:434] loss <- softmax
I0412 05:56:54.305044 21257 net.cpp:434] loss <- label_data_1_split_0
I0412 05:56:54.305050 21257 net.cpp:408] loss -> loss
…
