…
I0414 05:05:23.609197  2953 solver.cpp:93] Creating training net from train_net file: ./Prototxt/experiment_10/rtsd-r1/orig/trial_4/train.prototxt
I0414 05:05:23.609732  2953 net.cpp:58] Initializing net from parameters: 
state {
  phase: TRAIN
  level: 0
  stage: ""
}
layer {
  name: "data"
  type: "Data"
  top: "data"
  top: "label"
  include {
    phase: TRAIN
  }
  transform_param {
    scale: 0.0039215689
    mirror: false
    crop_size: 48
    mean_value: 122
    mean_value: 115
    mean_value: 129
  }
  data_param {
    source: "../local_data/lmdb/rtsd-r1/orig/train/lmdb"
    batch_size: 1024
    backend: LMDB
  }
}
layer {
  name: "conv1"
  type: "Convolution"
  bottom: "data"
  top: "conv1"
  convolution_param {
    num_output: 100
    pad: 0
    kernel_size: 7
    group: 1
    stride: 1
    weight_filler {
      type: "xavier"
    }
  }
}
layer {
  name: "conv1_relu"
  type: "ReLU"
  bottom: "conv1"
  top: "conv1"
}
layer {
  name: "pool1"
  type: "Pooling"
  bottom: "conv1"
  top: "pool1"
  pooling_param {
    pool: MAX
    kernel_size: 2
    stride: 2
  }
}
layer {
  name: "conv2"
  type: "Convolution"
  bottom: "pool1"
  top: "conv2"
  convolution_param {
    num_output: 150
    pad: 0
    kernel_size: 4
    group: 1
    stride: 1
    weight_filler {
      type: "xavier"
    }
  }
}
layer {
  name: "conv2_relu"
  type: "ReLU"
  bottom: "conv2"
  top: "conv2"
}
layer {
  name: "pool2"
  type: "Pooling"
  bottom: "conv2"
  top: "pool2"
  pooling_param {
    pool: MAX
    kernel_size: 2
    stride: 2
  }
}
layer {
  name: "conv3"
  type: "Convolution"
  bottom: "pool2"
  top: "conv3"
  convolution_param {
    num_output: 250
    pad: 0
    kernel_size: 4
    group: 1
    stride: 1
    weight_filler {
      type: "xavier"
    }
  }
}
layer {
  name: "conv3_relu"
  type: "ReLU"
  bottom: "conv3"
  top: "conv3"
}
layer {
  name: "pool3"
  type: "Pooling"
  bottom: "conv3"
  top: "pool3"
  pooling_param {
    pool: MAX
    kernel_size: 2
    stride: 2
  }
}
layer {
  name: "fc4_300"
  type: "InnerProduct"
  bottom: "pool3"
  top: "fc4_300"
  inner_product_param {
    num_output: 300
    weight_filler {
      type: "xavier"
    }
  }
}
layer {
  name: "fc4_relu"
  type: "ReLU"
  bottom: "fc4_300"
  top: "fc4_300"
}
layer {
  name: "fc5_67"
  type: "InnerProduct"
  bottom: "fc4_300"
  top: "fc5_classes"
  inner_product_param {
    num_output: 67
    weight_filler {
      type: "xavier"
    }
  }
}
layer {
  name: "softmax"
  type: "Softmax"
  bottom: "fc5_classes"
  top: "softmax"
}
layer {
  name: "loss"
  type: "MultinomialLogisticLoss"
  bottom: "softmax"
  bottom: "label"
  top: "loss"
}
layer {
  name: "accuracy_1"
  type: "Accuracy"
  bottom: "fc5_classes"
  bottom: "label"
  top: "accuracy_1"
  accuracy_param {
    top_k: 1
  }
}
layer {
  name: "accuracy_5"
  type: "Accuracy"
  bottom: "fc5_classes"
  bottom: "label"
  top: "accuracy_5"
  accuracy_param {
    top_k: 5
  }
}
layer {
  name: "silence"
  type: "Silence"
  bottom: "accuracy_1"
  bottom: "accuracy_5"
}
I0414 05:05:23.609905  2953 layer_factory.hpp:77] Creating layer data
I0414 05:05:23.611507  2953 net.cpp:100] Creating Layer data
I0414 05:05:23.611529  2953 net.cpp:408] data -> data
I0414 05:05:23.611562  2953 net.cpp:408] data -> label
I0414 05:05:23.621186  3070 db_lmdb.cpp:35] Opened lmdb ../local_data/lmdb/rtsd-r1/orig/train/lmdb
I0414 05:05:23.646724  2953 data_layer.cpp:41] output data size: 1024,3,48,48
I0414 05:05:23.721434  2953 net.cpp:150] Setting up data
I0414 05:05:23.721506  2953 net.cpp:157] Top shape: 1024 3 48 48 (7077888)
I0414 05:05:23.721516  2953 net.cpp:157] Top shape: 1024 (1024)
I0414 05:05:23.721521  2953 net.cpp:165] Memory required for data: 28315648
I0414 05:05:23.721537  2953 layer_factory.hpp:77] Creating layer label_data_1_split
I0414 05:05:23.721557  2953 net.cpp:100] Creating Layer label_data_1_split
I0414 05:05:23.721570  2953 net.cpp:434] label_data_1_split <- label
I0414 05:05:23.721592  2953 net.cpp:408] label_data_1_split -> label_data_1_split_0
I0414 05:05:23.721611  2953 net.cpp:408] label_data_1_split -> label_data_1_split_1
I0414 05:05:23.721624  2953 net.cpp:408] label_data_1_split -> label_data_1_split_2
I0414 05:05:23.721717  2953 net.cpp:150] Setting up label_data_1_split
I0414 05:05:23.721730  2953 net.cpp:157] Top shape: 1024 (1024)
I0414 05:05:23.721740  2953 net.cpp:157] Top shape: 1024 (1024)
I0414 05:05:23.721748  2953 net.cpp:157] Top shape: 1024 (1024)
I0414 05:05:23.721755  2953 net.cpp:165] Memory required for data: 28327936
I0414 05:05:23.721761  2953 layer_factory.hpp:77] Creating layer conv1
I0414 05:05:23.721788  2953 net.cpp:100] Creating Layer conv1
I0414 05:05:23.721797  2953 net.cpp:434] conv1 <- data
I0414 05:05:23.721808  2953 net.cpp:408] conv1 -> conv1
I0414 05:05:24.102197  2953 net.cpp:150] Setting up conv1
I0414 05:05:24.102224  2953 net.cpp:157] Top shape: 1024 100 42 42 (180633600)
I0414 05:05:24.102229  2953 net.cpp:165] Memory required for data: 750862336
I0414 05:05:24.102252  2953 layer_factory.hpp:77] Creating layer conv1_relu
I0414 05:05:24.102264  2953 net.cpp:100] Creating Layer conv1_relu
I0414 05:05:24.102284  2953 net.cpp:434] conv1_relu <- conv1
I0414 05:05:24.102290  2953 net.cpp:395] conv1_relu -> conv1 (in-place)
I0414 05:05:24.102485  2953 net.cpp:150] Setting up conv1_relu
I0414 05:05:24.102497  2953 net.cpp:157] Top shape: 1024 100 42 42 (180633600)
I0414 05:05:24.102502  2953 net.cpp:165] Memory required for data: 1473396736
I0414 05:05:24.102506  2953 layer_factory.hpp:77] Creating layer pool1
I0414 05:05:24.102516  2953 net.cpp:100] Creating Layer pool1
I0414 05:05:24.102521  2953 net.cpp:434] pool1 <- conv1
I0414 05:05:24.102527  2953 net.cpp:408] pool1 -> pool1
I0414 05:05:24.102582  2953 net.cpp:150] Setting up pool1
I0414 05:05:24.102592  2953 net.cpp:157] Top shape: 1024 100 21 21 (45158400)
I0414 05:05:24.102596  2953 net.cpp:165] Memory required for data: 1654030336
I0414 05:05:24.102599  2953 layer_factory.hpp:77] Creating layer conv2
I0414 05:05:24.102609  2953 net.cpp:100] Creating Layer conv2
I0414 05:05:24.102614  2953 net.cpp:434] conv2 <- pool1
I0414 05:05:24.102620  2953 net.cpp:408] conv2 -> conv2
I0414 05:05:24.109233  2953 net.cpp:150] Setting up conv2
I0414 05:05:24.109249  2953 net.cpp:157] Top shape: 1024 150 18 18 (49766400)
I0414 05:05:24.109256  2953 net.cpp:165] Memory required for data: 1853095936
I0414 05:05:24.109266  2953 layer_factory.hpp:77] Creating layer conv2_relu
I0414 05:05:24.109274  2953 net.cpp:100] Creating Layer conv2_relu
I0414 05:05:24.109279  2953 net.cpp:434] conv2_relu <- conv2
I0414 05:05:24.109285  2953 net.cpp:395] conv2_relu -> conv2 (in-place)
I0414 05:05:24.110390  2953 net.cpp:150] Setting up conv2_relu
I0414 05:05:24.110406  2953 net.cpp:157] Top shape: 1024 150 18 18 (49766400)
I0414 05:05:24.110411  2953 net.cpp:165] Memory required for data: 2052161536
I0414 05:05:24.110415  2953 layer_factory.hpp:77] Creating layer pool2
I0414 05:05:24.110424  2953 net.cpp:100] Creating Layer pool2
I0414 05:05:24.110429  2953 net.cpp:434] pool2 <- conv2
I0414 05:05:24.110435  2953 net.cpp:408] pool2 -> pool2
I0414 05:05:24.110484  2953 net.cpp:150] Setting up pool2
I0414 05:05:24.110493  2953 net.cpp:157] Top shape: 1024 150 9 9 (12441600)
I0414 05:05:24.110496  2953 net.cpp:165] Memory required for data: 2101927936
I0414 05:05:24.110502  2953 layer_factory.hpp:77] Creating layer conv3
I0414 05:05:24.110512  2953 net.cpp:100] Creating Layer conv3
I0414 05:05:24.110517  2953 net.cpp:434] conv3 <- pool2
I0414 05:05:24.110523  2953 net.cpp:408] conv3 -> conv3
I0414 05:05:24.116602  2953 net.cpp:150] Setting up conv3
I0414 05:05:24.116621  2953 net.cpp:157] Top shape: 1024 250 6 6 (9216000)
I0414 05:05:24.116626  2953 net.cpp:165] Memory required for data: 2138791936
I0414 05:05:24.116636  2953 layer_factory.hpp:77] Creating layer conv3_relu
I0414 05:05:24.116646  2953 net.cpp:100] Creating Layer conv3_relu
I0414 05:05:24.116650  2953 net.cpp:434] conv3_relu <- conv3
I0414 05:05:24.116657  2953 net.cpp:395] conv3_relu -> conv3 (in-place)
I0414 05:05:24.121495  2953 net.cpp:150] Setting up conv3_relu
I0414 05:05:24.121510  2953 net.cpp:157] Top shape: 1024 250 6 6 (9216000)
I0414 05:05:24.121515  2953 net.cpp:165] Memory required for data: 2175655936
I0414 05:05:24.121520  2953 layer_factory.hpp:77] Creating layer pool3
I0414 05:05:24.121527  2953 net.cpp:100] Creating Layer pool3
I0414 05:05:24.121532  2953 net.cpp:434] pool3 <- conv3
I0414 05:05:24.121538  2953 net.cpp:408] pool3 -> pool3
I0414 05:05:24.121588  2953 net.cpp:150] Setting up pool3
I0414 05:05:24.121598  2953 net.cpp:157] Top shape: 1024 250 3 3 (2304000)
I0414 05:05:24.121600  2953 net.cpp:165] Memory required for data: 2184871936
I0414 05:05:24.121604  2953 layer_factory.hpp:77] Creating layer fc4_300
I0414 05:05:24.121611  2953 net.cpp:100] Creating Layer fc4_300
I0414 05:05:24.121616  2953 net.cpp:434] fc4_300 <- pool3
I0414 05:05:24.121621  2953 net.cpp:408] fc4_300 -> fc4_300
I0414 05:05:24.128029  2953 net.cpp:150] Setting up fc4_300
I0414 05:05:24.128046  2953 net.cpp:157] Top shape: 1024 300 (307200)
I0414 05:05:24.128049  2953 net.cpp:165] Memory required for data: 2186100736
I0414 05:05:24.128057  2953 layer_factory.hpp:77] Creating layer fc4_relu
I0414 05:05:24.128064  2953 net.cpp:100] Creating Layer fc4_relu
I0414 05:05:24.128068  2953 net.cpp:434] fc4_relu <- fc4_300
I0414 05:05:24.128074  2953 net.cpp:395] fc4_relu -> fc4_300 (in-place)
I0414 05:05:24.128259  2953 net.cpp:150] Setting up fc4_relu
I0414 05:05:24.128270  2953 net.cpp:157] Top shape: 1024 300 (307200)
I0414 05:05:24.128275  2953 net.cpp:165] Memory required for data: 2187329536
I0414 05:05:24.128279  2953 layer_factory.hpp:77] Creating layer fc5_67
I0414 05:05:24.128286  2953 net.cpp:100] Creating Layer fc5_67
I0414 05:05:24.128291  2953 net.cpp:434] fc5_67 <- fc4_300
I0414 05:05:24.128298  2953 net.cpp:408] fc5_67 -> fc5_classes
I0414 05:05:24.129961  2953 net.cpp:150] Setting up fc5_67
I0414 05:05:24.129974  2953 net.cpp:157] Top shape: 1024 67 (68608)
I0414 05:05:24.129978  2953 net.cpp:165] Memory required for data: 2187603968
I0414 05:05:24.129988  2953 layer_factory.hpp:77] Creating layer fc5_classes_fc5_67_0_split
I0414 05:05:24.129997  2953 net.cpp:100] Creating Layer fc5_classes_fc5_67_0_split
I0414 05:05:24.130000  2953 net.cpp:434] fc5_classes_fc5_67_0_split <- fc5_classes
I0414 05:05:24.130007  2953 net.cpp:408] fc5_classes_fc5_67_0_split -> fc5_classes_fc5_67_0_split_0
I0414 05:05:24.130015  2953 net.cpp:408] fc5_classes_fc5_67_0_split -> fc5_classes_fc5_67_0_split_1
I0414 05:05:24.130023  2953 net.cpp:408] fc5_classes_fc5_67_0_split -> fc5_classes_fc5_67_0_split_2
I0414 05:05:24.130075  2953 net.cpp:150] Setting up fc5_classes_fc5_67_0_split
I0414 05:05:24.130084  2953 net.cpp:157] Top shape: 1024 67 (68608)
I0414 05:05:24.130087  2953 net.cpp:157] Top shape: 1024 67 (68608)
I0414 05:05:24.130091  2953 net.cpp:157] Top shape: 1024 67 (68608)
I0414 05:05:24.130095  2953 net.cpp:165] Memory required for data: 2188427264
I0414 05:05:24.130097  2953 layer_factory.hpp:77] Creating layer softmax
I0414 05:05:24.130103  2953 net.cpp:100] Creating Layer softmax
I0414 05:05:24.130108  2953 net.cpp:434] softmax <- fc5_classes_fc5_67_0_split_0
I0414 05:05:24.130115  2953 net.cpp:408] softmax -> softmax
I0414 05:05:24.130359  2953 net.cpp:150] Setting up softmax
I0414 05:05:24.130372  2953 net.cpp:157] Top shape: 1024 67 (68608)
I0414 05:05:24.130375  2953 net.cpp:165] Memory required for data: 2188701696
I0414 05:05:24.130378  2953 layer_factory.hpp:77] Creating layer loss
I0414 05:05:24.130388  2953 net.cpp:100] Creating Layer loss
I0414 05:05:24.130406  2953 net.cpp:434] loss <- softmax
I0414 05:05:24.130412  2953 net.cpp:434] loss <- label_data_1_split_0
I0414 05:05:24.130419  2953 net.cpp:408] loss -> loss
…
