…
I0415 04:07:36.022939 27557 solver.cpp:93] Creating training net from train_net file: ./Prototxt/experiment_12/rtsd-r1/AHE/trial_5/train.prototxt
I0415 04:07:36.090056 27557 net.cpp:58] Initializing net from parameters: 
state {
  phase: TRAIN
  level: 0
  stage: ""
}
layer {
  name: "data"
  type: "Data"
  top: "data"
  top: "label"
  include {
    phase: TRAIN
  }
  transform_param {
    scale: 0.0039215689
    mirror: false
    crop_size: 48
    mean_value: 132
    mean_value: 126
    mean_value: 140
  }
  data_param {
    source: "../local_data/lmdb/rtsd-r1/AHE/train/lmdb"
    batch_size: 1024
    backend: LMDB
  }
}
layer {
  name: "conv1"
  type: "Convolution"
  bottom: "data"
  top: "conv1"
  convolution_param {
    num_output: 100
    pad: 0
    kernel_size: 7
    group: 1
    stride: 1
    weight_filler {
      type: "xavier"
    }
  }
}
layer {
  name: "conv1_relu"
  type: "ReLU"
  bottom: "conv1"
  top: "conv1"
}
layer {
  name: "pool1"
  type: "Pooling"
  bottom: "conv1"
  top: "pool1"
  pooling_param {
    pool: MAX
    kernel_size: 2
    stride: 2
  }
}
layer {
  name: "conv2"
  type: "Convolution"
  bottom: "pool1"
  top: "conv2"
  convolution_param {
    num_output: 150
    pad: 0
    kernel_size: 4
    group: 1
    stride: 1
    weight_filler {
      type: "xavier"
    }
  }
}
layer {
  name: "conv2_relu"
  type: "ReLU"
  bottom: "conv2"
  top: "conv2"
}
layer {
  name: "pool2"
  type: "Pooling"
  bottom: "conv2"
  top: "pool2"
  pooling_param {
    pool: MAX
    kernel_size: 2
    stride: 2
  }
}
layer {
  name: "conv3"
  type: "Convolution"
  bottom: "pool2"
  top: "conv3"
  convolution_param {
    num_output: 250
    pad: 0
    kernel_size: 4
    group: 1
    stride: 1
    weight_filler {
      type: "xavier"
    }
  }
}
layer {
  name: "conv3_relu"
  type: "ReLU"
  bottom: "conv3"
  top: "conv3"
}
layer {
  name: "pool3"
  type: "Pooling"
  bottom: "conv3"
  top: "pool3"
  pooling_param {
    pool: MAX
    kernel_size: 2
    stride: 2
  }
}
layer {
  name: "fc4_300"
  type: "InnerProduct"
  bottom: "pool3"
  top: "fc4_300"
  inner_product_param {
    num_output: 300
    weight_filler {
      type: "xavier"
    }
  }
}
layer {
  name: "fc4_relu"
  type: "ReLU"
  bottom: "fc4_300"
  top: "fc4_300"
}
layer {
  name: "drop4"
  type: "Dropout"
  bottom: "fc4_300"
  top: "fc4_300"
  dropout_param {
    dropout_ratio: 0.5
  }
}
layer {
  name: "fc5_67"
  type: "InnerProduct"
  bottom: "fc4_300"
  top: "fc5_classes"
  inner_product_param {
    num_output: 67
    weight_filler {
      type: "xavier"
    }
  }
}
layer {
  name: "softmax"
  type: "Softmax"
  bottom: "fc5_classes"
  top: "softmax"
}
layer {
  name: "loss"
  type: "MultinomialLogisticLoss"
  bottom: "softmax"
  bottom: "label"
  top: "loss"
}
layer {
  name: "accuracy_1"
  type: "Accuracy"
  bottom: "fc5_classes"
  bottom: "label"
  top: "accuracy_1"
  accuracy_param {
    top_k: 1
  }
}
layer {
  name: "accuracy_5"
  type: "Accuracy"
  bottom: "fc5_classes"
  bottom: "label"
  top: "accuracy_5"
  accuracy_param {
    top_k: 5
  }
}
layer {
  name: "silence"
  type: "Silence"
  bottom: "accuracy_1"
  bottom: "accuracy_5"
}
I0415 04:07:36.090245 27557 layer_factory.hpp:77] Creating layer data
I0415 04:07:36.091915 27557 net.cpp:100] Creating Layer data
I0415 04:07:36.091938 27557 net.cpp:408] data -> data
I0415 04:07:36.091974 27557 net.cpp:408] data -> label
I0415 04:07:36.095672 27833 db_lmdb.cpp:35] Opened lmdb ../local_data/lmdb/rtsd-r1/AHE/train/lmdb
I0415 04:07:36.118753 27557 data_layer.cpp:41] output data size: 1024,3,48,48
I0415 04:07:36.188397 27557 net.cpp:150] Setting up data
I0415 04:07:36.188431 27557 net.cpp:157] Top shape: 1024 3 48 48 (7077888)
I0415 04:07:36.188437 27557 net.cpp:157] Top shape: 1024 (1024)
I0415 04:07:36.188441 27557 net.cpp:165] Memory required for data: 28315648
I0415 04:07:36.188452 27557 layer_factory.hpp:77] Creating layer label_data_1_split
I0415 04:07:36.188467 27557 net.cpp:100] Creating Layer label_data_1_split
I0415 04:07:36.188472 27557 net.cpp:434] label_data_1_split <- label
I0415 04:07:36.188486 27557 net.cpp:408] label_data_1_split -> label_data_1_split_0
I0415 04:07:36.188499 27557 net.cpp:408] label_data_1_split -> label_data_1_split_1
I0415 04:07:36.188508 27557 net.cpp:408] label_data_1_split -> label_data_1_split_2
I0415 04:07:36.188596 27557 net.cpp:150] Setting up label_data_1_split
I0415 04:07:36.188606 27557 net.cpp:157] Top shape: 1024 (1024)
I0415 04:07:36.188611 27557 net.cpp:157] Top shape: 1024 (1024)
I0415 04:07:36.188614 27557 net.cpp:157] Top shape: 1024 (1024)
I0415 04:07:36.188617 27557 net.cpp:165] Memory required for data: 28327936
I0415 04:07:36.188621 27557 layer_factory.hpp:77] Creating layer conv1
I0415 04:07:36.188638 27557 net.cpp:100] Creating Layer conv1
I0415 04:07:36.188644 27557 net.cpp:434] conv1 <- data
I0415 04:07:36.188652 27557 net.cpp:408] conv1 -> conv1
I0415 04:07:37.701550 27557 net.cpp:150] Setting up conv1
I0415 04:07:37.701581 27557 net.cpp:157] Top shape: 1024 100 42 42 (180633600)
I0415 04:07:37.701584 27557 net.cpp:165] Memory required for data: 750862336
I0415 04:07:37.701608 27557 layer_factory.hpp:77] Creating layer conv1_relu
I0415 04:07:37.701620 27557 net.cpp:100] Creating Layer conv1_relu
I0415 04:07:37.701627 27557 net.cpp:434] conv1_relu <- conv1
I0415 04:07:37.701632 27557 net.cpp:395] conv1_relu -> conv1 (in-place)
I0415 04:07:37.701833 27557 net.cpp:150] Setting up conv1_relu
I0415 04:07:37.701845 27557 net.cpp:157] Top shape: 1024 100 42 42 (180633600)
I0415 04:07:37.701849 27557 net.cpp:165] Memory required for data: 1473396736
I0415 04:07:37.701853 27557 layer_factory.hpp:77] Creating layer pool1
I0415 04:07:37.701864 27557 net.cpp:100] Creating Layer pool1
I0415 04:07:37.701867 27557 net.cpp:434] pool1 <- conv1
I0415 04:07:37.701874 27557 net.cpp:408] pool1 -> pool1
I0415 04:07:37.701930 27557 net.cpp:150] Setting up pool1
I0415 04:07:37.701938 27557 net.cpp:157] Top shape: 1024 100 21 21 (45158400)
I0415 04:07:37.701943 27557 net.cpp:165] Memory required for data: 1654030336
I0415 04:07:37.701946 27557 layer_factory.hpp:77] Creating layer conv2
I0415 04:07:37.701956 27557 net.cpp:100] Creating Layer conv2
I0415 04:07:37.701961 27557 net.cpp:434] conv2 <- pool1
I0415 04:07:37.701967 27557 net.cpp:408] conv2 -> conv2
I0415 04:07:37.707805 27557 net.cpp:150] Setting up conv2
I0415 04:07:37.707831 27557 net.cpp:157] Top shape: 1024 150 18 18 (49766400)
I0415 04:07:37.707835 27557 net.cpp:165] Memory required for data: 1853095936
I0415 04:07:37.707849 27557 layer_factory.hpp:77] Creating layer conv2_relu
I0415 04:07:37.707860 27557 net.cpp:100] Creating Layer conv2_relu
I0415 04:07:37.707865 27557 net.cpp:434] conv2_relu <- conv2
I0415 04:07:37.707872 27557 net.cpp:395] conv2_relu -> conv2 (in-place)
I0415 04:07:37.708695 27557 net.cpp:150] Setting up conv2_relu
I0415 04:07:37.708712 27557 net.cpp:157] Top shape: 1024 150 18 18 (49766400)
I0415 04:07:37.708715 27557 net.cpp:165] Memory required for data: 2052161536
I0415 04:07:37.708719 27557 layer_factory.hpp:77] Creating layer pool2
I0415 04:07:37.708727 27557 net.cpp:100] Creating Layer pool2
I0415 04:07:37.708730 27557 net.cpp:434] pool2 <- conv2
I0415 04:07:37.708736 27557 net.cpp:408] pool2 -> pool2
I0415 04:07:37.708789 27557 net.cpp:150] Setting up pool2
I0415 04:07:37.708798 27557 net.cpp:157] Top shape: 1024 150 9 9 (12441600)
I0415 04:07:37.708802 27557 net.cpp:165] Memory required for data: 2101927936
I0415 04:07:37.708806 27557 layer_factory.hpp:77] Creating layer conv3
I0415 04:07:37.708818 27557 net.cpp:100] Creating Layer conv3
I0415 04:07:37.708845 27557 net.cpp:434] conv3 <- pool2
I0415 04:07:37.708854 27557 net.cpp:408] conv3 -> conv3
I0415 04:07:37.715641 27557 net.cpp:150] Setting up conv3
I0415 04:07:37.715667 27557 net.cpp:157] Top shape: 1024 250 6 6 (9216000)
I0415 04:07:37.715672 27557 net.cpp:165] Memory required for data: 2138791936
I0415 04:07:37.715685 27557 layer_factory.hpp:77] Creating layer conv3_relu
I0415 04:07:37.715697 27557 net.cpp:100] Creating Layer conv3_relu
I0415 04:07:37.715701 27557 net.cpp:434] conv3_relu <- conv3
I0415 04:07:37.715708 27557 net.cpp:395] conv3_relu -> conv3 (in-place)
I0415 04:07:37.716953 27557 net.cpp:150] Setting up conv3_relu
I0415 04:07:37.716970 27557 net.cpp:157] Top shape: 1024 250 6 6 (9216000)
I0415 04:07:37.716974 27557 net.cpp:165] Memory required for data: 2175655936
I0415 04:07:37.716979 27557 layer_factory.hpp:77] Creating layer pool3
I0415 04:07:37.716985 27557 net.cpp:100] Creating Layer pool3
I0415 04:07:37.716989 27557 net.cpp:434] pool3 <- conv3
I0415 04:07:37.716995 27557 net.cpp:408] pool3 -> pool3
I0415 04:07:37.717046 27557 net.cpp:150] Setting up pool3
I0415 04:07:37.717053 27557 net.cpp:157] Top shape: 1024 250 3 3 (2304000)
I0415 04:07:37.717057 27557 net.cpp:165] Memory required for data: 2184871936
I0415 04:07:37.717059 27557 layer_factory.hpp:77] Creating layer fc4_300
I0415 04:07:37.717067 27557 net.cpp:100] Creating Layer fc4_300
I0415 04:07:37.717072 27557 net.cpp:434] fc4_300 <- pool3
I0415 04:07:37.717077 27557 net.cpp:408] fc4_300 -> fc4_300
I0415 04:07:37.723177 27557 net.cpp:150] Setting up fc4_300
I0415 04:07:37.723206 27557 net.cpp:157] Top shape: 1024 300 (307200)
I0415 04:07:37.723209 27557 net.cpp:165] Memory required for data: 2186100736
I0415 04:07:37.723219 27557 layer_factory.hpp:77] Creating layer fc4_relu
I0415 04:07:37.723228 27557 net.cpp:100] Creating Layer fc4_relu
I0415 04:07:37.723232 27557 net.cpp:434] fc4_relu <- fc4_300
I0415 04:07:37.723239 27557 net.cpp:395] fc4_relu -> fc4_300 (in-place)
I0415 04:07:37.723462 27557 net.cpp:150] Setting up fc4_relu
I0415 04:07:37.723474 27557 net.cpp:157] Top shape: 1024 300 (307200)
I0415 04:07:37.723492 27557 net.cpp:165] Memory required for data: 2187329536
I0415 04:07:37.723496 27557 layer_factory.hpp:77] Creating layer drop4
I0415 04:07:37.723503 27557 net.cpp:100] Creating Layer drop4
I0415 04:07:37.723507 27557 net.cpp:434] drop4 <- fc4_300
I0415 04:07:37.723513 27557 net.cpp:395] drop4 -> fc4_300 (in-place)
I0415 04:07:37.723548 27557 net.cpp:150] Setting up drop4
I0415 04:07:37.723556 27557 net.cpp:157] Top shape: 1024 300 (307200)
I0415 04:07:37.723558 27557 net.cpp:165] Memory required for data: 2188558336
I0415 04:07:37.723562 27557 layer_factory.hpp:77] Creating layer fc5_67
I0415 04:07:37.723568 27557 net.cpp:100] Creating Layer fc5_67
I0415 04:07:37.723573 27557 net.cpp:434] fc5_67 <- fc4_300
I0415 04:07:37.723578 27557 net.cpp:408] fc5_67 -> fc5_classes
I0415 04:07:37.731410 27557 net.cpp:150] Setting up fc5_67
I0415 04:07:37.731443 27557 net.cpp:157] Top shape: 1024 67 (68608)
I0415 04:07:37.731447 27557 net.cpp:165] Memory required for data: 2188832768
I0415 04:07:37.731463 27557 layer_factory.hpp:77] Creating layer fc5_classes_fc5_67_0_split
I0415 04:07:37.731477 27557 net.cpp:100] Creating Layer fc5_classes_fc5_67_0_split
I0415 04:07:37.731482 27557 net.cpp:434] fc5_classes_fc5_67_0_split <- fc5_classes
I0415 04:07:37.731490 27557 net.cpp:408] fc5_classes_fc5_67_0_split -> fc5_classes_fc5_67_0_split_0
I0415 04:07:37.731501 27557 net.cpp:408] fc5_classes_fc5_67_0_split -> fc5_classes_fc5_67_0_split_1
I0415 04:07:37.731509 27557 net.cpp:408] fc5_classes_fc5_67_0_split -> fc5_classes_fc5_67_0_split_2
I0415 04:07:37.731564 27557 net.cpp:150] Setting up fc5_classes_fc5_67_0_split
I0415 04:07:37.731570 27557 net.cpp:157] Top shape: 1024 67 (68608)
I0415 04:07:37.731575 27557 net.cpp:157] Top shape: 1024 67 (68608)
I0415 04:07:37.731577 27557 net.cpp:157] Top shape: 1024 67 (68608)
I0415 04:07:37.731580 27557 net.cpp:165] Memory required for data: 2189656064
I0415 04:07:37.731607 27557 layer_factory.hpp:77] Creating layer softmax
I0415 04:07:37.731618 27557 net.cpp:100] Creating Layer softmax
I0415 04:07:37.731624 27557 net.cpp:434] softmax <- fc5_classes_fc5_67_0_split_0
I0415 04:07:37.731631 27557 net.cpp:408] softmax -> softmax
I0415 04:07:37.731963 27557 net.cpp:150] Setting up softmax
I0415 04:07:37.731979 27557 net.cpp:157] Top shape: 1024 67 (68608)
I0415 04:07:37.731984 27557 net.cpp:165] Memory required for data: 2189930496
I0415 04:07:37.731987 27557 layer_factory.hpp:77] Creating layer loss
I0415 04:07:37.731994 27557 net.cpp:100] Creating Layer loss
I0415 04:07:37.731999 27557 net.cpp:434] loss <- softmax
I0415 04:07:37.732004 27557 net.cpp:434] loss <- label_data_1_split_0
I0415 04:07:37.732012 27557 net.cpp:408] loss -> loss
…
