…
I0415 09:12:10.594645 14036 solver.cpp:93] Creating training net from train_net file: ./Prototxt/experiment_12/rtsd-r3/CoNorm/trial_4/train.prototxt
I0415 09:12:10.614104 14036 net.cpp:58] Initializing net from parameters: 
state {
  phase: TRAIN
  level: 0
  stage: ""
}
layer {
  name: "data"
  type: "Data"
  top: "data"
  top: "label"
  include {
    phase: TRAIN
  }
  transform_param {
    scale: 0.0039215689
    mirror: false
    crop_size: 48
    mean_value: 135
    mean_value: 134
    mean_value: 134
  }
  data_param {
    source: "../local_data/lmdb/rtsd-r3/CoNorm/train/lmdb"
    batch_size: 1024
    backend: LMDB
  }
}
layer {
  name: "conv1"
  type: "Convolution"
  bottom: "data"
  top: "conv1"
  convolution_param {
    num_output: 100
    pad: 0
    kernel_size: 7
    group: 1
    stride: 1
    weight_filler {
      type: "xavier"
    }
  }
}
layer {
  name: "conv1_relu"
  type: "ReLU"
  bottom: "conv1"
  top: "conv1"
}
layer {
  name: "pool1"
  type: "Pooling"
  bottom: "conv1"
  top: "pool1"
  pooling_param {
    pool: MAX
    kernel_size: 2
    stride: 2
  }
}
layer {
  name: "conv2"
  type: "Convolution"
  bottom: "pool1"
  top: "conv2"
  convolution_param {
    num_output: 150
    pad: 0
    kernel_size: 4
    group: 1
    stride: 1
    weight_filler {
      type: "xavier"
    }
  }
}
layer {
  name: "conv2_relu"
  type: "ReLU"
  bottom: "conv2"
  top: "conv2"
}
layer {
  name: "pool2"
  type: "Pooling"
  bottom: "conv2"
  top: "pool2"
  pooling_param {
    pool: MAX
    kernel_size: 2
    stride: 2
  }
}
layer {
  name: "conv3"
  type: "Convolution"
  bottom: "pool2"
  top: "conv3"
  convolution_param {
    num_output: 250
    pad: 0
    kernel_size: 4
    group: 1
    stride: 1
    weight_filler {
      type: "xavier"
    }
  }
}
layer {
  name: "conv3_relu"
  type: "ReLU"
  bottom: "conv3"
  top: "conv3"
}
layer {
  name: "pool3"
  type: "Pooling"
  bottom: "conv3"
  top: "pool3"
  pooling_param {
    pool: MAX
    kernel_size: 2
    stride: 2
  }
}
layer {
  name: "fc4_300"
  type: "InnerProduct"
  bottom: "pool3"
  top: "fc4_300"
  inner_product_param {
    num_output: 300
    weight_filler {
      type: "xavier"
    }
  }
}
layer {
  name: "fc4_relu"
  type: "ReLU"
  bottom: "fc4_300"
  top: "fc4_300"
}
layer {
  name: "drop4"
  type: "Dropout"
  bottom: "fc4_300"
  top: "fc4_300"
  dropout_param {
    dropout_ratio: 0.5
  }
}
layer {
  name: "fc5_106"
  type: "InnerProduct"
  bottom: "fc4_300"
  top: "fc5_classes"
  inner_product_param {
    num_output: 106
    weight_filler {
      type: "xavier"
    }
  }
}
layer {
  name: "softmax"
  type: "Softmax"
  bottom: "fc5_classes"
  top: "softmax"
}
layer {
  name: "loss"
  type: "MultinomialLogisticLoss"
  bottom: "softmax"
  bottom: "label"
  top: "loss"
}
layer {
  name: "accuracy_1"
  type: "Accuracy"
  bottom: "fc5_classes"
  bottom: "label"
  top: "accuracy_1"
  accuracy_param {
    top_k: 1
  }
}
layer {
  name: "accuracy_5"
  type: "Accuracy"
  bottom: "fc5_classes"
  bottom: "label"
  top: "accuracy_5"
  accuracy_param {
    top_k: 5
  }
}
layer {
  name: "silence"
  type: "Silence"
  bottom: "accuracy_1"
  bottom: "accuracy_5"
}
I0415 09:12:10.614274 14036 layer_factory.hpp:77] Creating layer data
I0415 09:12:10.615660 14036 net.cpp:100] Creating Layer data
I0415 09:12:10.615676 14036 net.cpp:408] data -> data
I0415 09:12:10.615702 14036 net.cpp:408] data -> label
I0415 09:12:10.620353 14149 db_lmdb.cpp:35] Opened lmdb ../local_data/lmdb/rtsd-r3/CoNorm/train/lmdb
I0415 09:12:10.645781 14036 data_layer.cpp:41] output data size: 1024,3,48,48
I0415 09:12:10.711038 14036 net.cpp:150] Setting up data
I0415 09:12:10.711066 14036 net.cpp:157] Top shape: 1024 3 48 48 (7077888)
I0415 09:12:10.711071 14036 net.cpp:157] Top shape: 1024 (1024)
I0415 09:12:10.711074 14036 net.cpp:165] Memory required for data: 28315648
I0415 09:12:10.711084 14036 layer_factory.hpp:77] Creating layer label_data_1_split
I0415 09:12:10.711099 14036 net.cpp:100] Creating Layer label_data_1_split
I0415 09:12:10.711108 14036 net.cpp:434] label_data_1_split <- label
I0415 09:12:10.711132 14036 net.cpp:408] label_data_1_split -> label_data_1_split_0
I0415 09:12:10.711151 14036 net.cpp:408] label_data_1_split -> label_data_1_split_1
I0415 09:12:10.711164 14036 net.cpp:408] label_data_1_split -> label_data_1_split_2
I0415 09:12:10.711277 14036 net.cpp:150] Setting up label_data_1_split
I0415 09:12:10.711292 14036 net.cpp:157] Top shape: 1024 (1024)
I0415 09:12:10.711300 14036 net.cpp:157] Top shape: 1024 (1024)
I0415 09:12:10.711308 14036 net.cpp:157] Top shape: 1024 (1024)
I0415 09:12:10.711315 14036 net.cpp:165] Memory required for data: 28327936
I0415 09:12:10.711321 14036 layer_factory.hpp:77] Creating layer conv1
I0415 09:12:10.711347 14036 net.cpp:100] Creating Layer conv1
I0415 09:12:10.711356 14036 net.cpp:434] conv1 <- data
I0415 09:12:10.711370 14036 net.cpp:408] conv1 -> conv1
I0415 09:12:11.083369 14036 net.cpp:150] Setting up conv1
I0415 09:12:11.083396 14036 net.cpp:157] Top shape: 1024 100 42 42 (180633600)
I0415 09:12:11.083401 14036 net.cpp:165] Memory required for data: 750862336
I0415 09:12:11.083423 14036 layer_factory.hpp:77] Creating layer conv1_relu
I0415 09:12:11.083439 14036 net.cpp:100] Creating Layer conv1_relu
I0415 09:12:11.083447 14036 net.cpp:434] conv1_relu <- conv1
I0415 09:12:11.083459 14036 net.cpp:395] conv1_relu -> conv1 (in-place)
I0415 09:12:11.083732 14036 net.cpp:150] Setting up conv1_relu
I0415 09:12:11.083746 14036 net.cpp:157] Top shape: 1024 100 42 42 (180633600)
I0415 09:12:11.083751 14036 net.cpp:165] Memory required for data: 1473396736
I0415 09:12:11.083755 14036 layer_factory.hpp:77] Creating layer pool1
I0415 09:12:11.083766 14036 net.cpp:100] Creating Layer pool1
I0415 09:12:11.083771 14036 net.cpp:434] pool1 <- conv1
I0415 09:12:11.083776 14036 net.cpp:408] pool1 -> pool1
I0415 09:12:11.083849 14036 net.cpp:150] Setting up pool1
I0415 09:12:11.083864 14036 net.cpp:157] Top shape: 1024 100 21 21 (45158400)
I0415 09:12:11.083871 14036 net.cpp:165] Memory required for data: 1654030336
I0415 09:12:11.083894 14036 layer_factory.hpp:77] Creating layer conv2
I0415 09:12:11.083914 14036 net.cpp:100] Creating Layer conv2
I0415 09:12:11.083921 14036 net.cpp:434] conv2 <- pool1
I0415 09:12:11.083932 14036 net.cpp:408] conv2 -> conv2
I0415 09:12:11.090775 14036 net.cpp:150] Setting up conv2
I0415 09:12:11.090791 14036 net.cpp:157] Top shape: 1024 150 18 18 (49766400)
I0415 09:12:11.090795 14036 net.cpp:165] Memory required for data: 1853095936
I0415 09:12:11.090806 14036 layer_factory.hpp:77] Creating layer conv2_relu
I0415 09:12:11.090812 14036 net.cpp:100] Creating Layer conv2_relu
I0415 09:12:11.090816 14036 net.cpp:434] conv2_relu <- conv2
I0415 09:12:11.090823 14036 net.cpp:395] conv2_relu -> conv2 (in-place)
I0415 09:12:11.091783 14036 net.cpp:150] Setting up conv2_relu
I0415 09:12:11.091799 14036 net.cpp:157] Top shape: 1024 150 18 18 (49766400)
I0415 09:12:11.091802 14036 net.cpp:165] Memory required for data: 2052161536
I0415 09:12:11.091805 14036 layer_factory.hpp:77] Creating layer pool2
I0415 09:12:11.091812 14036 net.cpp:100] Creating Layer pool2
I0415 09:12:11.091816 14036 net.cpp:434] pool2 <- conv2
I0415 09:12:11.091821 14036 net.cpp:408] pool2 -> pool2
I0415 09:12:11.091902 14036 net.cpp:150] Setting up pool2
I0415 09:12:11.091918 14036 net.cpp:157] Top shape: 1024 150 9 9 (12441600)
I0415 09:12:11.091925 14036 net.cpp:165] Memory required for data: 2101927936
I0415 09:12:11.091930 14036 layer_factory.hpp:77] Creating layer conv3
I0415 09:12:11.091985 14036 net.cpp:100] Creating Layer conv3
I0415 09:12:11.091995 14036 net.cpp:434] conv3 <- pool2
I0415 09:12:11.092006 14036 net.cpp:408] conv3 -> conv3
I0415 09:12:11.097856 14036 net.cpp:150] Setting up conv3
I0415 09:12:11.097875 14036 net.cpp:157] Top shape: 1024 250 6 6 (9216000)
I0415 09:12:11.097883 14036 net.cpp:165] Memory required for data: 2138791936
I0415 09:12:11.097900 14036 layer_factory.hpp:77] Creating layer conv3_relu
I0415 09:12:11.097913 14036 net.cpp:100] Creating Layer conv3_relu
I0415 09:12:11.097920 14036 net.cpp:434] conv3_relu <- conv3
I0415 09:12:11.097930 14036 net.cpp:395] conv3_relu -> conv3 (in-place)
I0415 09:12:11.098774 14036 net.cpp:150] Setting up conv3_relu
I0415 09:12:11.098791 14036 net.cpp:157] Top shape: 1024 250 6 6 (9216000)
I0415 09:12:11.098795 14036 net.cpp:165] Memory required for data: 2175655936
I0415 09:12:11.098801 14036 layer_factory.hpp:77] Creating layer pool3
I0415 09:12:11.098810 14036 net.cpp:100] Creating Layer pool3
I0415 09:12:11.098817 14036 net.cpp:434] pool3 <- conv3
I0415 09:12:11.098831 14036 net.cpp:408] pool3 -> pool3
I0415 09:12:11.098902 14036 net.cpp:150] Setting up pool3
I0415 09:12:11.098918 14036 net.cpp:157] Top shape: 1024 250 3 3 (2304000)
I0415 09:12:11.098925 14036 net.cpp:165] Memory required for data: 2184871936
I0415 09:12:11.098932 14036 layer_factory.hpp:77] Creating layer fc4_300
I0415 09:12:11.098943 14036 net.cpp:100] Creating Layer fc4_300
I0415 09:12:11.098950 14036 net.cpp:434] fc4_300 <- pool3
I0415 09:12:11.098964 14036 net.cpp:408] fc4_300 -> fc4_300
I0415 09:12:11.104444 14036 net.cpp:150] Setting up fc4_300
I0415 09:12:11.104460 14036 net.cpp:157] Top shape: 1024 300 (307200)
I0415 09:12:11.104465 14036 net.cpp:165] Memory required for data: 2186100736
I0415 09:12:11.104471 14036 layer_factory.hpp:77] Creating layer fc4_relu
I0415 09:12:11.104477 14036 net.cpp:100] Creating Layer fc4_relu
I0415 09:12:11.104481 14036 net.cpp:434] fc4_relu <- fc4_300
I0415 09:12:11.104486 14036 net.cpp:395] fc4_relu -> fc4_300 (in-place)
I0415 09:12:11.104751 14036 net.cpp:150] Setting up fc4_relu
I0415 09:12:11.104765 14036 net.cpp:157] Top shape: 1024 300 (307200)
I0415 09:12:11.104769 14036 net.cpp:165] Memory required for data: 2187329536
I0415 09:12:11.104774 14036 layer_factory.hpp:77] Creating layer drop4
I0415 09:12:11.104786 14036 net.cpp:100] Creating Layer drop4
I0415 09:12:11.104794 14036 net.cpp:434] drop4 <- fc4_300
I0415 09:12:11.104805 14036 net.cpp:395] drop4 -> fc4_300 (in-place)
I0415 09:12:11.104856 14036 net.cpp:150] Setting up drop4
I0415 09:12:11.104869 14036 net.cpp:157] Top shape: 1024 300 (307200)
I0415 09:12:11.104876 14036 net.cpp:165] Memory required for data: 2188558336
I0415 09:12:11.104882 14036 layer_factory.hpp:77] Creating layer fc5_106
I0415 09:12:11.104894 14036 net.cpp:100] Creating Layer fc5_106
I0415 09:12:11.104902 14036 net.cpp:434] fc5_106 <- fc4_300
I0415 09:12:11.104913 14036 net.cpp:408] fc5_106 -> fc5_classes
I0415 09:12:11.106312 14036 net.cpp:150] Setting up fc5_106
I0415 09:12:11.106328 14036 net.cpp:157] Top shape: 1024 106 (108544)
I0415 09:12:11.106335 14036 net.cpp:165] Memory required for data: 2188992512
I0415 09:12:11.106353 14036 layer_factory.hpp:77] Creating layer fc5_classes_fc5_106_0_split
I0415 09:12:11.106366 14036 net.cpp:100] Creating Layer fc5_classes_fc5_106_0_split
I0415 09:12:11.106374 14036 net.cpp:434] fc5_classes_fc5_106_0_split <- fc5_classes
I0415 09:12:11.106385 14036 net.cpp:408] fc5_classes_fc5_106_0_split -> fc5_classes_fc5_106_0_split_0
I0415 09:12:11.106402 14036 net.cpp:408] fc5_classes_fc5_106_0_split -> fc5_classes_fc5_106_0_split_1
I0415 09:12:11.106415 14036 net.cpp:408] fc5_classes_fc5_106_0_split -> fc5_classes_fc5_106_0_split_2
I0415 09:12:11.106500 14036 net.cpp:150] Setting up fc5_classes_fc5_106_0_split
I0415 09:12:11.106514 14036 net.cpp:157] Top shape: 1024 106 (108544)
I0415 09:12:11.106523 14036 net.cpp:157] Top shape: 1024 106 (108544)
I0415 09:12:11.106533 14036 net.cpp:157] Top shape: 1024 106 (108544)
I0415 09:12:11.106539 14036 net.cpp:165] Memory required for data: 2190295040
I0415 09:12:11.106564 14036 layer_factory.hpp:77] Creating layer softmax
I0415 09:12:11.106581 14036 net.cpp:100] Creating Layer softmax
I0415 09:12:11.106590 14036 net.cpp:434] softmax <- fc5_classes_fc5_106_0_split_0
I0415 09:12:11.106601 14036 net.cpp:408] softmax -> softmax
I0415 09:12:11.106955 14036 net.cpp:150] Setting up softmax
I0415 09:12:11.106968 14036 net.cpp:157] Top shape: 1024 106 (108544)
I0415 09:12:11.106974 14036 net.cpp:165] Memory required for data: 2190729216
I0415 09:12:11.106982 14036 layer_factory.hpp:77] Creating layer loss
I0415 09:12:11.106993 14036 net.cpp:100] Creating Layer loss
I0415 09:12:11.107002 14036 net.cpp:434] loss <- softmax
I0415 09:12:11.107012 14036 net.cpp:434] loss <- label_data_1_split_0
I0415 09:12:11.107025 14036 net.cpp:408] loss -> loss
…
