…
I0507 04:34:16.955870  5632 solver.cpp:93] Creating training net from train_net file: ./Prototxt/experiment_14/RTSD/AHE/trial_5/train.prototxt
I0507 04:34:16.956375  5632 net.cpp:58] Initializing net from parameters: 
state {
  phase: TRAIN
  level: 0
  stage: ""
}
layer {
  name: "data"
  type: "Data"
  top: "data"
  top: "label"
  include {
    phase: TRAIN
  }
  transform_param {
    scale: 0.0039215689
    mirror: false
    crop_size: 48
    mean_value: 133
    mean_value: 127
    mean_value: 126
  }
  data_param {
    source: "../local_data/lmdb/RTSD/AHE/train/lmdb"
    batch_size: 512
    backend: LMDB
  }
}
layer {
  name: "conv1"
  type: "Convolution"
  bottom: "data"
  top: "conv1"
  convolution_param {
    num_output: 100
    pad: 0
    kernel_size: 7
    group: 1
    stride: 1
    weight_filler {
      type: "xavier"
    }
  }
}
layer {
  name: "conv1_relu"
  type: "ReLU"
  bottom: "conv1"
  top: "conv1"
}
layer {
  name: "pool1"
  type: "Pooling"
  bottom: "conv1"
  top: "pool1"
  pooling_param {
    pool: MAX
    kernel_size: 2
    stride: 2
  }
}
layer {
  name: "conv2"
  type: "Convolution"
  bottom: "pool1"
  top: "conv2"
  convolution_param {
    num_output: 150
    pad: 0
    kernel_size: 4
    group: 1
    stride: 1
    weight_filler {
      type: "xavier"
    }
  }
}
layer {
  name: "conv2_relu"
  type: "ReLU"
  bottom: "conv2"
  top: "conv2"
}
layer {
  name: "pool2"
  type: "Pooling"
  bottom: "conv2"
  top: "pool2"
  pooling_param {
    pool: MAX
    kernel_size: 2
    stride: 2
  }
}
layer {
  name: "conv3"
  type: "Convolution"
  bottom: "pool2"
  top: "conv3"
  convolution_param {
    num_output: 250
    pad: 0
    kernel_size: 4
    group: 1
    stride: 1
    weight_filler {
      type: "xavier"
    }
  }
}
layer {
  name: "conv3_relu"
  type: "ReLU"
  bottom: "conv3"
  top: "conv3"
}
layer {
  name: "pool3"
  type: "Pooling"
  bottom: "conv3"
  top: "pool3"
  pooling_param {
    pool: MAX
    kernel_size: 2
    stride: 2
  }
}
layer {
  name: "fc4_300"
  type: "InnerProduct"
  bottom: "pool3"
  top: "fc4_300"
  inner_product_param {
    num_output: 300
    weight_filler {
      type: "xavier"
    }
  }
}
layer {
  name: "fc4_relu"
  type: "ReLU"
  bottom: "fc4_300"
  top: "fc4_300"
}
layer {
  name: "fc5_116"
  type: "InnerProduct"
  bottom: "fc4_300"
  top: "fc5_classes"
  inner_product_param {
    num_output: 116
    weight_filler {
      type: "xavier"
    }
  }
}
layer {
  name: "softmax"
  type: "Softmax"
  bottom: "fc5_classes"
  top: "softmax"
}
layer {
  name: "loss"
  type: "MultinomialLogisticLoss"
  bottom: "softmax"
  bottom: "label"
  top: "loss"
}
layer {
  name: "accuracy_1"
  type: "Accuracy"
  bottom: "fc5_classes"
  bottom: "label"
  top: "accuracy_1"
  accuracy_param {
    top_k: 1
  }
}
layer {
  name: "accuracy_5"
  type: "Accuracy"
  bottom: "fc5_classes"
  bottom: "label"
  top: "accuracy_5"
  accuracy_param {
    top_k: 5
  }
}
layer {
  name: "silence"
  type: "Silence"
  bottom: "accuracy_1"
  bottom: "accuracy_5"
}
I0507 04:34:16.956552  5632 layer_factory.hpp:77] Creating layer data
I0507 04:34:16.957536  5632 net.cpp:100] Creating Layer data
I0507 04:34:16.957556  5632 net.cpp:408] data -> data
I0507 04:34:16.957587  5632 net.cpp:408] data -> label
I0507 04:34:16.960001  5746 db_lmdb.cpp:35] Opened lmdb ../local_data/lmdb/RTSD/AHE/train/lmdb
I0507 04:34:16.981796  5632 data_layer.cpp:41] output data size: 512,3,48,48
I0507 04:34:17.006448  5632 net.cpp:150] Setting up data
I0507 04:34:17.006507  5632 net.cpp:157] Top shape: 512 3 48 48 (3538944)
I0507 04:34:17.006515  5632 net.cpp:157] Top shape: 512 (512)
I0507 04:34:17.006520  5632 net.cpp:165] Memory required for data: 14157824
I0507 04:34:17.006531  5632 layer_factory.hpp:77] Creating layer label_data_1_split
I0507 04:34:17.006548  5632 net.cpp:100] Creating Layer label_data_1_split
I0507 04:34:17.006557  5632 net.cpp:434] label_data_1_split <- label
I0507 04:34:17.006578  5632 net.cpp:408] label_data_1_split -> label_data_1_split_0
I0507 04:34:17.006597  5632 net.cpp:408] label_data_1_split -> label_data_1_split_1
I0507 04:34:17.006608  5632 net.cpp:408] label_data_1_split -> label_data_1_split_2
I0507 04:34:17.006685  5632 net.cpp:150] Setting up label_data_1_split
I0507 04:34:17.006695  5632 net.cpp:157] Top shape: 512 (512)
I0507 04:34:17.006703  5632 net.cpp:157] Top shape: 512 (512)
I0507 04:34:17.006711  5632 net.cpp:157] Top shape: 512 (512)
I0507 04:34:17.006718  5632 net.cpp:165] Memory required for data: 14163968
I0507 04:34:17.006723  5632 layer_factory.hpp:77] Creating layer conv1
I0507 04:34:17.006745  5632 net.cpp:100] Creating Layer conv1
I0507 04:34:17.006752  5632 net.cpp:434] conv1 <- data
I0507 04:34:17.006762  5632 net.cpp:408] conv1 -> conv1
I0507 04:34:17.423918  5632 net.cpp:150] Setting up conv1
I0507 04:34:17.423944  5632 net.cpp:157] Top shape: 512 100 42 42 (90316800)
I0507 04:34:17.423949  5632 net.cpp:165] Memory required for data: 375431168
I0507 04:34:17.423970  5632 layer_factory.hpp:77] Creating layer conv1_relu
I0507 04:34:17.423984  5632 net.cpp:100] Creating Layer conv1_relu
I0507 04:34:17.423990  5632 net.cpp:434] conv1_relu <- conv1
I0507 04:34:17.423995  5632 net.cpp:395] conv1_relu -> conv1 (in-place)
I0507 04:34:17.424193  5632 net.cpp:150] Setting up conv1_relu
I0507 04:34:17.424206  5632 net.cpp:157] Top shape: 512 100 42 42 (90316800)
I0507 04:34:17.424209  5632 net.cpp:165] Memory required for data: 736698368
I0507 04:34:17.424213  5632 layer_factory.hpp:77] Creating layer pool1
I0507 04:34:17.424222  5632 net.cpp:100] Creating Layer pool1
I0507 04:34:17.424227  5632 net.cpp:434] pool1 <- conv1
I0507 04:34:17.424232  5632 net.cpp:408] pool1 -> pool1
I0507 04:34:17.424286  5632 net.cpp:150] Setting up pool1
I0507 04:34:17.424294  5632 net.cpp:157] Top shape: 512 100 21 21 (22579200)
I0507 04:34:17.424299  5632 net.cpp:165] Memory required for data: 827015168
I0507 04:34:17.424301  5632 layer_factory.hpp:77] Creating layer conv2
I0507 04:34:17.424312  5632 net.cpp:100] Creating Layer conv2
I0507 04:34:17.424316  5632 net.cpp:434] conv2 <- pool1
I0507 04:34:17.424321  5632 net.cpp:408] conv2 -> conv2
I0507 04:34:17.435865  5632 net.cpp:150] Setting up conv2
I0507 04:34:17.435900  5632 net.cpp:157] Top shape: 512 150 18 18 (24883200)
I0507 04:34:17.435909  5632 net.cpp:165] Memory required for data: 926547968
I0507 04:34:17.435922  5632 layer_factory.hpp:77] Creating layer conv2_relu
I0507 04:34:17.435931  5632 net.cpp:100] Creating Layer conv2_relu
I0507 04:34:17.435936  5632 net.cpp:434] conv2_relu <- conv2
I0507 04:34:17.435941  5632 net.cpp:395] conv2_relu -> conv2 (in-place)
I0507 04:34:17.439234  5632 net.cpp:150] Setting up conv2_relu
I0507 04:34:17.439255  5632 net.cpp:157] Top shape: 512 150 18 18 (24883200)
I0507 04:34:17.439261  5632 net.cpp:165] Memory required for data: 1026080768
I0507 04:34:17.439267  5632 layer_factory.hpp:77] Creating layer pool2
I0507 04:34:17.439277  5632 net.cpp:100] Creating Layer pool2
I0507 04:34:17.439283  5632 net.cpp:434] pool2 <- conv2
I0507 04:34:17.439291  5632 net.cpp:408] pool2 -> pool2
I0507 04:34:17.439353  5632 net.cpp:150] Setting up pool2
I0507 04:34:17.439365  5632 net.cpp:157] Top shape: 512 150 9 9 (6220800)
I0507 04:34:17.439371  5632 net.cpp:165] Memory required for data: 1050963968
I0507 04:34:17.439376  5632 layer_factory.hpp:77] Creating layer conv3
I0507 04:34:17.439390  5632 net.cpp:100] Creating Layer conv3
I0507 04:34:17.439398  5632 net.cpp:434] conv3 <- pool2
I0507 04:34:17.439404  5632 net.cpp:408] conv3 -> conv3
I0507 04:34:17.446713  5632 net.cpp:150] Setting up conv3
I0507 04:34:17.446749  5632 net.cpp:157] Top shape: 512 250 6 6 (4608000)
I0507 04:34:17.446755  5632 net.cpp:165] Memory required for data: 1069395968
I0507 04:34:17.446766  5632 layer_factory.hpp:77] Creating layer conv3_relu
I0507 04:34:17.446774  5632 net.cpp:100] Creating Layer conv3_relu
I0507 04:34:17.446779  5632 net.cpp:434] conv3_relu <- conv3
I0507 04:34:17.446784  5632 net.cpp:395] conv3_relu -> conv3 (in-place)
I0507 04:34:17.447834  5632 net.cpp:150] Setting up conv3_relu
I0507 04:34:17.447855  5632 net.cpp:157] Top shape: 512 250 6 6 (4608000)
I0507 04:34:17.447865  5632 net.cpp:165] Memory required for data: 1087827968
I0507 04:34:17.447873  5632 layer_factory.hpp:77] Creating layer pool3
I0507 04:34:17.447901  5632 net.cpp:100] Creating Layer pool3
I0507 04:34:17.447907  5632 net.cpp:434] pool3 <- conv3
I0507 04:34:17.447916  5632 net.cpp:408] pool3 -> pool3
I0507 04:34:17.447988  5632 net.cpp:150] Setting up pool3
I0507 04:34:17.448004  5632 net.cpp:157] Top shape: 512 250 3 3 (1152000)
I0507 04:34:17.448012  5632 net.cpp:165] Memory required for data: 1092435968
I0507 04:34:17.448017  5632 layer_factory.hpp:77] Creating layer fc4_300
I0507 04:34:17.448027  5632 net.cpp:100] Creating Layer fc4_300
I0507 04:34:17.448031  5632 net.cpp:434] fc4_300 <- pool3
I0507 04:34:17.448037  5632 net.cpp:408] fc4_300 -> fc4_300
I0507 04:34:17.467542  5632 net.cpp:150] Setting up fc4_300
I0507 04:34:17.467566  5632 net.cpp:157] Top shape: 512 300 (153600)
I0507 04:34:17.467574  5632 net.cpp:165] Memory required for data: 1093050368
I0507 04:34:17.467586  5632 layer_factory.hpp:77] Creating layer fc4_relu
I0507 04:34:17.467594  5632 net.cpp:100] Creating Layer fc4_relu
I0507 04:34:17.467604  5632 net.cpp:434] fc4_relu <- fc4_300
I0507 04:34:17.467614  5632 net.cpp:395] fc4_relu -> fc4_300 (in-place)
I0507 04:34:17.467846  5632 net.cpp:150] Setting up fc4_relu
I0507 04:34:17.467864  5632 net.cpp:157] Top shape: 512 300 (153600)
I0507 04:34:17.467866  5632 net.cpp:165] Memory required for data: 1093664768
I0507 04:34:17.467870  5632 layer_factory.hpp:77] Creating layer fc5_116
I0507 04:34:17.467885  5632 net.cpp:100] Creating Layer fc5_116
I0507 04:34:17.467892  5632 net.cpp:434] fc5_116 <- fc4_300
I0507 04:34:17.467898  5632 net.cpp:408] fc5_116 -> fc5_classes
I0507 04:34:17.472008  5632 net.cpp:150] Setting up fc5_116
I0507 04:34:17.472029  5632 net.cpp:157] Top shape: 512 116 (59392)
I0507 04:34:17.472034  5632 net.cpp:165] Memory required for data: 1093902336
I0507 04:34:17.472048  5632 layer_factory.hpp:77] Creating layer fc5_classes_fc5_116_0_split
I0507 04:34:17.472060  5632 net.cpp:100] Creating Layer fc5_classes_fc5_116_0_split
I0507 04:34:17.472067  5632 net.cpp:434] fc5_classes_fc5_116_0_split <- fc5_classes
I0507 04:34:17.472075  5632 net.cpp:408] fc5_classes_fc5_116_0_split -> fc5_classes_fc5_116_0_split_0
I0507 04:34:17.472088  5632 net.cpp:408] fc5_classes_fc5_116_0_split -> fc5_classes_fc5_116_0_split_1
I0507 04:34:17.472101  5632 net.cpp:408] fc5_classes_fc5_116_0_split -> fc5_classes_fc5_116_0_split_2
I0507 04:34:17.472163  5632 net.cpp:150] Setting up fc5_classes_fc5_116_0_split
I0507 04:34:17.472173  5632 net.cpp:157] Top shape: 512 116 (59392)
I0507 04:34:17.472179  5632 net.cpp:157] Top shape: 512 116 (59392)
I0507 04:34:17.472182  5632 net.cpp:157] Top shape: 512 116 (59392)
I0507 04:34:17.472185  5632 net.cpp:165] Memory required for data: 1094615040
I0507 04:34:17.472188  5632 layer_factory.hpp:77] Creating layer softmax
I0507 04:34:17.472195  5632 net.cpp:100] Creating Layer softmax
I0507 04:34:17.472198  5632 net.cpp:434] softmax <- fc5_classes_fc5_116_0_split_0
I0507 04:34:17.472203  5632 net.cpp:408] softmax -> softmax
I0507 04:34:17.472508  5632 net.cpp:150] Setting up softmax
I0507 04:34:17.472522  5632 net.cpp:157] Top shape: 512 116 (59392)
I0507 04:34:17.472527  5632 net.cpp:165] Memory required for data: 1094852608
I0507 04:34:17.472532  5632 layer_factory.hpp:77] Creating layer loss
I0507 04:34:17.472545  5632 net.cpp:100] Creating Layer loss
I0507 04:34:17.472568  5632 net.cpp:434] loss <- softmax
I0507 04:34:17.472574  5632 net.cpp:434] loss <- label_data_1_split_0
I0507 04:34:17.472581  5632 net.cpp:408] loss -> loss
…
