…
I0508 04:22:34.950760 13786 solver.cpp:93] Creating training net from train_net file: ./Prototxt/experiment_16/RTSD/histeq/trial_1/train.prototxt
I0508 04:22:34.951174 13786 net.cpp:58] Initializing net from parameters: 
state {
  phase: TRAIN
  level: 0
  stage: ""
}
layer {
  name: "data"
  type: "Data"
  top: "data"
  top: "label"
  include {
    phase: TRAIN
  }
  transform_param {
    scale: 0.0039215689
    mirror: false
    crop_size: 48
    mean_value: 134
    mean_value: 128
    mean_value: 128
  }
  data_param {
    source: "../local_data/lmdb/RTSD/histeq/train/lmdb"
    batch_size: 1024
    backend: LMDB
  }
}
layer {
  name: "conv1"
  type: "Convolution"
  bottom: "data"
  top: "conv1"
  convolution_param {
    num_output: 100
    pad: 0
    kernel_size: 7
    group: 1
    stride: 1
    weight_filler {
      type: "xavier"
    }
  }
}
layer {
  name: "conv1_relu"
  type: "ReLU"
  bottom: "conv1"
  top: "conv1"
}
layer {
  name: "pool1"
  type: "Pooling"
  bottom: "conv1"
  top: "pool1"
  pooling_param {
    pool: MAX
    kernel_size: 2
    stride: 2
  }
}
layer {
  name: "conv2"
  type: "Convolution"
  bottom: "pool1"
  top: "conv2"
  convolution_param {
    num_output: 150
    pad: 0
    kernel_size: 4
    group: 2
    stride: 1
    weight_filler {
      type: "xavier"
    }
  }
}
layer {
  name: "conv2_relu"
  type: "ReLU"
  bottom: "conv2"
  top: "conv2"
}
layer {
  name: "pool2"
  type: "Pooling"
  bottom: "conv2"
  top: "pool2"
  pooling_param {
    pool: MAX
    kernel_size: 2
    stride: 2
  }
}
layer {
  name: "conv3"
  type: "Convolution"
  bottom: "pool2"
  top: "conv3"
  convolution_param {
    num_output: 250
    pad: 0
    kernel_size: 4
    group: 2
    stride: 1
    weight_filler {
      type: "xavier"
    }
  }
}
layer {
  name: "conv3_relu"
  type: "ReLU"
  bottom: "conv3"
  top: "conv3"
}
layer {
  name: "pool3"
  type: "Pooling"
  bottom: "conv3"
  top: "pool3"
  pooling_param {
    pool: MAX
    kernel_size: 2
    stride: 2
  }
}
layer {
  name: "fc4_300"
  type: "InnerProduct"
  bottom: "pool3"
  top: "fc4_300"
  inner_product_param {
    num_output: 300
    weight_filler {
      type: "xavier"
    }
  }
}
layer {
  name: "fc4_relu"
  type: "ReLU"
  bottom: "fc4_300"
  top: "fc4_300"
}
layer {
  name: "fc5_116"
  type: "InnerProduct"
  bottom: "fc4_300"
  top: "fc5_classes"
  inner_product_param {
    num_output: 116
    weight_filler {
      type: "xavier"
    }
  }
}
layer {
  name: "softmax"
  type: "Softmax"
  bottom: "fc5_classes"
  top: "softmax"
}
layer {
  name: "loss"
  type: "MultinomialLogisticLoss"
  bottom: "softmax"
  bottom: "label"
  top: "loss"
}
layer {
  name: "accuracy_1"
  type: "Accuracy"
  bottom: "fc5_classes"
  bottom: "label"
  top: "accuracy_1"
  accuracy_param {
    top_k: 1
  }
}
layer {
  name: "accuracy_5"
  type: "Accuracy"
  bottom: "fc5_classes"
  bottom: "label"
  top: "accuracy_5"
  accuracy_param {
    top_k: 5
  }
}
layer {
  name: "silence"
  type: "Silence"
  bottom: "accuracy_1"
  bottom: "accuracy_5"
}
I0508 04:22:34.951310 13786 layer_factory.hpp:77] Creating layer data
I0508 04:22:34.952852 13786 net.cpp:100] Creating Layer data
I0508 04:22:34.952893 13786 net.cpp:408] data -> data
I0508 04:22:34.952921 13786 net.cpp:408] data -> label
I0508 04:22:35.500095 13898 db_lmdb.cpp:35] Opened lmdb ../local_data/lmdb/RTSD/histeq/train/lmdb
I0508 04:22:35.541482 13786 data_layer.cpp:41] output data size: 1024,3,48,48
I0508 04:22:35.601323 13786 net.cpp:150] Setting up data
I0508 04:22:35.601377 13786 net.cpp:157] Top shape: 1024 3 48 48 (7077888)
I0508 04:22:35.601383 13786 net.cpp:157] Top shape: 1024 (1024)
I0508 04:22:35.601387 13786 net.cpp:165] Memory required for data: 28315648
I0508 04:22:35.601397 13786 layer_factory.hpp:77] Creating layer label_data_1_split
I0508 04:22:35.601413 13786 net.cpp:100] Creating Layer label_data_1_split
I0508 04:22:35.601420 13786 net.cpp:434] label_data_1_split <- label
I0508 04:22:35.601438 13786 net.cpp:408] label_data_1_split -> label_data_1_split_0
I0508 04:22:35.601450 13786 net.cpp:408] label_data_1_split -> label_data_1_split_1
I0508 04:22:35.601459 13786 net.cpp:408] label_data_1_split -> label_data_1_split_2
I0508 04:22:35.601527 13786 net.cpp:150] Setting up label_data_1_split
I0508 04:22:35.601536 13786 net.cpp:157] Top shape: 1024 (1024)
I0508 04:22:35.601541 13786 net.cpp:157] Top shape: 1024 (1024)
I0508 04:22:35.601544 13786 net.cpp:157] Top shape: 1024 (1024)
I0508 04:22:35.601547 13786 net.cpp:165] Memory required for data: 28327936
I0508 04:22:35.601549 13786 layer_factory.hpp:77] Creating layer conv1
I0508 04:22:35.601568 13786 net.cpp:100] Creating Layer conv1
I0508 04:22:35.601573 13786 net.cpp:434] conv1 <- data
I0508 04:22:35.601580 13786 net.cpp:408] conv1 -> conv1
I0508 04:22:35.737777 13958 blocking_queue.cpp:50] Waiting for data
I0508 04:22:35.988162 13786 net.cpp:150] Setting up conv1
I0508 04:22:35.988198 13786 net.cpp:157] Top shape: 1024 100 42 42 (180633600)
I0508 04:22:35.988205 13786 net.cpp:165] Memory required for data: 750862336
I0508 04:22:35.988235 13786 layer_factory.hpp:77] Creating layer conv1_relu
I0508 04:22:35.988255 13786 net.cpp:100] Creating Layer conv1_relu
I0508 04:22:35.988271 13786 net.cpp:434] conv1_relu <- conv1
I0508 04:22:35.988282 13786 net.cpp:395] conv1_relu -> conv1 (in-place)
I0508 04:22:35.988601 13786 net.cpp:150] Setting up conv1_relu
I0508 04:22:35.988621 13786 net.cpp:157] Top shape: 1024 100 42 42 (180633600)
I0508 04:22:35.988627 13786 net.cpp:165] Memory required for data: 1473396736
I0508 04:22:35.988633 13786 layer_factory.hpp:77] Creating layer pool1
I0508 04:22:35.988651 13786 net.cpp:100] Creating Layer pool1
I0508 04:22:35.988657 13786 net.cpp:434] pool1 <- conv1
I0508 04:22:35.988667 13786 net.cpp:408] pool1 -> pool1
I0508 04:22:35.988751 13786 net.cpp:150] Setting up pool1
I0508 04:22:35.988768 13786 net.cpp:157] Top shape: 1024 100 21 21 (45158400)
I0508 04:22:35.988776 13786 net.cpp:165] Memory required for data: 1654030336
I0508 04:22:35.988781 13786 layer_factory.hpp:77] Creating layer conv2
I0508 04:22:35.988800 13786 net.cpp:100] Creating Layer conv2
I0508 04:22:35.988808 13786 net.cpp:434] conv2 <- pool1
I0508 04:22:35.988818 13786 net.cpp:408] conv2 -> conv2
I0508 04:22:36.003157 13786 net.cpp:150] Setting up conv2
I0508 04:22:36.003181 13786 net.cpp:157] Top shape: 1024 150 18 18 (49766400)
I0508 04:22:36.003185 13786 net.cpp:165] Memory required for data: 1853095936
I0508 04:22:36.003197 13786 layer_factory.hpp:77] Creating layer conv2_relu
I0508 04:22:36.003206 13786 net.cpp:100] Creating Layer conv2_relu
I0508 04:22:36.003209 13786 net.cpp:434] conv2_relu <- conv2
I0508 04:22:36.003216 13786 net.cpp:395] conv2_relu -> conv2 (in-place)
I0508 04:22:36.003417 13786 net.cpp:150] Setting up conv2_relu
I0508 04:22:36.003429 13786 net.cpp:157] Top shape: 1024 150 18 18 (49766400)
I0508 04:22:36.003433 13786 net.cpp:165] Memory required for data: 2052161536
I0508 04:22:36.003437 13786 layer_factory.hpp:77] Creating layer pool2
I0508 04:22:36.003445 13786 net.cpp:100] Creating Layer pool2
I0508 04:22:36.003450 13786 net.cpp:434] pool2 <- conv2
I0508 04:22:36.003455 13786 net.cpp:408] pool2 -> pool2
I0508 04:22:36.003506 13786 net.cpp:150] Setting up pool2
I0508 04:22:36.003515 13786 net.cpp:157] Top shape: 1024 150 9 9 (12441600)
I0508 04:22:36.003518 13786 net.cpp:165] Memory required for data: 2101927936
I0508 04:22:36.003521 13786 layer_factory.hpp:77] Creating layer conv3
I0508 04:22:36.003535 13786 net.cpp:100] Creating Layer conv3
I0508 04:22:36.003540 13786 net.cpp:434] conv3 <- pool2
I0508 04:22:36.003566 13786 net.cpp:408] conv3 -> conv3
I0508 04:22:36.008738 13786 net.cpp:150] Setting up conv3
I0508 04:22:36.008759 13786 net.cpp:157] Top shape: 1024 250 6 6 (9216000)
I0508 04:22:36.008762 13786 net.cpp:165] Memory required for data: 2138791936
I0508 04:22:36.008772 13786 layer_factory.hpp:77] Creating layer conv3_relu
I0508 04:22:36.008780 13786 net.cpp:100] Creating Layer conv3_relu
I0508 04:22:36.008783 13786 net.cpp:434] conv3_relu <- conv3
I0508 04:22:36.008790 13786 net.cpp:395] conv3_relu -> conv3 (in-place)
I0508 04:22:36.008987 13786 net.cpp:150] Setting up conv3_relu
I0508 04:22:36.008999 13786 net.cpp:157] Top shape: 1024 250 6 6 (9216000)
I0508 04:22:36.009003 13786 net.cpp:165] Memory required for data: 2175655936
I0508 04:22:36.009006 13786 layer_factory.hpp:77] Creating layer pool3
I0508 04:22:36.009016 13786 net.cpp:100] Creating Layer pool3
I0508 04:22:36.009019 13786 net.cpp:434] pool3 <- conv3
I0508 04:22:36.009024 13786 net.cpp:408] pool3 -> pool3
I0508 04:22:36.009074 13786 net.cpp:150] Setting up pool3
I0508 04:22:36.009083 13786 net.cpp:157] Top shape: 1024 250 3 3 (2304000)
I0508 04:22:36.009085 13786 net.cpp:165] Memory required for data: 2184871936
I0508 04:22:36.009088 13786 layer_factory.hpp:77] Creating layer fc4_300
I0508 04:22:36.009095 13786 net.cpp:100] Creating Layer fc4_300
I0508 04:22:36.009099 13786 net.cpp:434] fc4_300 <- pool3
I0508 04:22:36.009105 13786 net.cpp:408] fc4_300 -> fc4_300
I0508 04:22:36.019780 13786 net.cpp:150] Setting up fc4_300
I0508 04:22:36.019801 13786 net.cpp:157] Top shape: 1024 300 (307200)
I0508 04:22:36.019804 13786 net.cpp:165] Memory required for data: 2186100736
I0508 04:22:36.019812 13786 layer_factory.hpp:77] Creating layer fc4_relu
I0508 04:22:36.019820 13786 net.cpp:100] Creating Layer fc4_relu
I0508 04:22:36.019825 13786 net.cpp:434] fc4_relu <- fc4_300
I0508 04:22:36.019831 13786 net.cpp:395] fc4_relu -> fc4_300 (in-place)
I0508 04:22:36.021306 13786 net.cpp:150] Setting up fc4_relu
I0508 04:22:36.021324 13786 net.cpp:157] Top shape: 1024 300 (307200)
I0508 04:22:36.021328 13786 net.cpp:165] Memory required for data: 2187329536
I0508 04:22:36.021332 13786 layer_factory.hpp:77] Creating layer fc5_116
I0508 04:22:36.021339 13786 net.cpp:100] Creating Layer fc5_116
I0508 04:22:36.021343 13786 net.cpp:434] fc5_116 <- fc4_300
I0508 04:22:36.021351 13786 net.cpp:408] fc5_116 -> fc5_classes
I0508 04:22:36.023313 13786 net.cpp:150] Setting up fc5_116
I0508 04:22:36.023329 13786 net.cpp:157] Top shape: 1024 116 (118784)
I0508 04:22:36.023332 13786 net.cpp:165] Memory required for data: 2187804672
I0508 04:22:36.023344 13786 layer_factory.hpp:77] Creating layer fc5_classes_fc5_116_0_split
I0508 04:22:36.023353 13786 net.cpp:100] Creating Layer fc5_classes_fc5_116_0_split
I0508 04:22:36.023356 13786 net.cpp:434] fc5_classes_fc5_116_0_split <- fc5_classes
I0508 04:22:36.023363 13786 net.cpp:408] fc5_classes_fc5_116_0_split -> fc5_classes_fc5_116_0_split_0
I0508 04:22:36.023375 13786 net.cpp:408] fc5_classes_fc5_116_0_split -> fc5_classes_fc5_116_0_split_1
I0508 04:22:36.023381 13786 net.cpp:408] fc5_classes_fc5_116_0_split -> fc5_classes_fc5_116_0_split_2
I0508 04:22:36.023437 13786 net.cpp:150] Setting up fc5_classes_fc5_116_0_split
I0508 04:22:36.023444 13786 net.cpp:157] Top shape: 1024 116 (118784)
I0508 04:22:36.023449 13786 net.cpp:157] Top shape: 1024 116 (118784)
I0508 04:22:36.023453 13786 net.cpp:157] Top shape: 1024 116 (118784)
I0508 04:22:36.023455 13786 net.cpp:165] Memory required for data: 2189230080
I0508 04:22:36.023458 13786 layer_factory.hpp:77] Creating layer softmax
I0508 04:22:36.023464 13786 net.cpp:100] Creating Layer softmax
I0508 04:22:36.023468 13786 net.cpp:434] softmax <- fc5_classes_fc5_116_0_split_0
I0508 04:22:36.023473 13786 net.cpp:408] softmax -> softmax
I0508 04:22:36.023732 13786 net.cpp:150] Setting up softmax
I0508 04:22:36.023746 13786 net.cpp:157] Top shape: 1024 116 (118784)
I0508 04:22:36.023749 13786 net.cpp:165] Memory required for data: 2189705216
I0508 04:22:36.023772 13786 layer_factory.hpp:77] Creating layer loss
I0508 04:22:36.023783 13786 net.cpp:100] Creating Layer loss
I0508 04:22:36.023788 13786 net.cpp:434] loss <- softmax
I0508 04:22:36.023792 13786 net.cpp:434] loss <- label_data_1_split_0
I0508 04:22:36.023797 13786 net.cpp:408] loss -> loss
…
