…
I0414 04:50:12.169088 18884 solver.cpp:93] Creating training net from train_net file: ./Prototxt/experiment_10/rtsd-r1/orig/trial_3/train.prototxt
I0414 04:50:12.169476 18884 net.cpp:58] Initializing net from parameters: 
state {
  phase: TRAIN
  level: 0
  stage: ""
}
layer {
  name: "data"
  type: "Data"
  top: "data"
  top: "label"
  include {
    phase: TRAIN
  }
  transform_param {
    scale: 0.0039215689
    mirror: false
    crop_size: 48
    mean_value: 122
    mean_value: 115
    mean_value: 129
  }
  data_param {
    source: "../local_data/lmdb/rtsd-r1/orig/train/lmdb"
    batch_size: 1024
    backend: LMDB
  }
}
layer {
  name: "conv1"
  type: "Convolution"
  bottom: "data"
  top: "conv1"
  convolution_param {
    num_output: 100
    pad: 0
    kernel_size: 7
    group: 1
    stride: 1
    weight_filler {
      type: "xavier"
    }
  }
}
layer {
  name: "conv1_relu"
  type: "ReLU"
  bottom: "conv1"
  top: "conv1"
}
layer {
  name: "pool1"
  type: "Pooling"
  bottom: "conv1"
  top: "pool1"
  pooling_param {
    pool: MAX
    kernel_size: 2
    stride: 2
  }
}
layer {
  name: "conv2"
  type: "Convolution"
  bottom: "pool1"
  top: "conv2"
  convolution_param {
    num_output: 150
    pad: 0
    kernel_size: 4
    group: 1
    stride: 1
    weight_filler {
      type: "xavier"
    }
  }
}
layer {
  name: "conv2_relu"
  type: "ReLU"
  bottom: "conv2"
  top: "conv2"
}
layer {
  name: "pool2"
  type: "Pooling"
  bottom: "conv2"
  top: "pool2"
  pooling_param {
    pool: MAX
    kernel_size: 2
    stride: 2
  }
}
layer {
  name: "conv3"
  type: "Convolution"
  bottom: "pool2"
  top: "conv3"
  convolution_param {
    num_output: 250
    pad: 0
    kernel_size: 4
    group: 1
    stride: 1
    weight_filler {
      type: "xavier"
    }
  }
}
layer {
  name: "conv3_relu"
  type: "ReLU"
  bottom: "conv3"
  top: "conv3"
}
layer {
  name: "pool3"
  type: "Pooling"
  bottom: "conv3"
  top: "pool3"
  pooling_param {
    pool: MAX
    kernel_size: 2
    stride: 2
  }
}
layer {
  name: "fc4_300"
  type: "InnerProduct"
  bottom: "pool3"
  top: "fc4_300"
  inner_product_param {
    num_output: 300
    weight_filler {
      type: "xavier"
    }
  }
}
layer {
  name: "fc4_relu"
  type: "ReLU"
  bottom: "fc4_300"
  top: "fc4_300"
}
layer {
  name: "fc5_67"
  type: "InnerProduct"
  bottom: "fc4_300"
  top: "fc5_classes"
  inner_product_param {
    num_output: 67
    weight_filler {
      type: "xavier"
    }
  }
}
layer {
  name: "softmax"
  type: "Softmax"
  bottom: "fc5_classes"
  top: "softmax"
}
layer {
  name: "loss"
  type: "MultinomialLogisticLoss"
  bottom: "softmax"
  bottom: "label"
  top: "loss"
}
layer {
  name: "accuracy_1"
  type: "Accuracy"
  bottom: "fc5_classes"
  bottom: "label"
  top: "accuracy_1"
  accuracy_param {
    top_k: 1
  }
}
layer {
  name: "accuracy_5"
  type: "Accuracy"
  bottom: "fc5_classes"
  bottom: "label"
  top: "accuracy_5"
  accuracy_param {
    top_k: 5
  }
}
layer {
  name: "silence"
  type: "Silence"
  bottom: "accuracy_1"
  bottom: "accuracy_5"
}
I0414 04:50:12.169597 18884 layer_factory.hpp:77] Creating layer data
I0414 04:50:12.170696 18884 net.cpp:100] Creating Layer data
I0414 04:50:12.170722 18884 net.cpp:408] data -> data
I0414 04:50:12.170750 18884 net.cpp:408] data -> label
I0414 04:50:12.177160 19002 db_lmdb.cpp:35] Opened lmdb ../local_data/lmdb/rtsd-r1/orig/train/lmdb
I0414 04:50:12.201711 18884 data_layer.cpp:41] output data size: 1024,3,48,48
I0414 04:50:12.259871 18884 net.cpp:150] Setting up data
I0414 04:50:12.259939 18884 net.cpp:157] Top shape: 1024 3 48 48 (7077888)
I0414 04:50:12.259946 18884 net.cpp:157] Top shape: 1024 (1024)
I0414 04:50:12.259949 18884 net.cpp:165] Memory required for data: 28315648
I0414 04:50:12.259964 18884 layer_factory.hpp:77] Creating layer label_data_1_split
I0414 04:50:12.259984 18884 net.cpp:100] Creating Layer label_data_1_split
I0414 04:50:12.259995 18884 net.cpp:434] label_data_1_split <- label
I0414 04:50:12.260015 18884 net.cpp:408] label_data_1_split -> label_data_1_split_0
I0414 04:50:12.260033 18884 net.cpp:408] label_data_1_split -> label_data_1_split_1
I0414 04:50:12.260051 18884 net.cpp:408] label_data_1_split -> label_data_1_split_2
I0414 04:50:12.260140 18884 net.cpp:150] Setting up label_data_1_split
I0414 04:50:12.260154 18884 net.cpp:157] Top shape: 1024 (1024)
I0414 04:50:12.260162 18884 net.cpp:157] Top shape: 1024 (1024)
I0414 04:50:12.260170 18884 net.cpp:157] Top shape: 1024 (1024)
I0414 04:50:12.260176 18884 net.cpp:165] Memory required for data: 28327936
I0414 04:50:12.260182 18884 layer_factory.hpp:77] Creating layer conv1
I0414 04:50:12.260210 18884 net.cpp:100] Creating Layer conv1
I0414 04:50:12.260218 18884 net.cpp:434] conv1 <- data
I0414 04:50:12.260229 18884 net.cpp:408] conv1 -> conv1
I0414 04:50:12.695178 18884 net.cpp:150] Setting up conv1
I0414 04:50:12.695209 18884 net.cpp:157] Top shape: 1024 100 42 42 (180633600)
I0414 04:50:12.695214 18884 net.cpp:165] Memory required for data: 750862336
I0414 04:50:12.695240 18884 layer_factory.hpp:77] Creating layer conv1_relu
I0414 04:50:12.695252 18884 net.cpp:100] Creating Layer conv1_relu
I0414 04:50:12.695258 18884 net.cpp:434] conv1_relu <- conv1
I0414 04:50:12.695267 18884 net.cpp:395] conv1_relu -> conv1 (in-place)
I0414 04:50:12.695511 18884 net.cpp:150] Setting up conv1_relu
I0414 04:50:12.695526 18884 net.cpp:157] Top shape: 1024 100 42 42 (180633600)
I0414 04:50:12.695530 18884 net.cpp:165] Memory required for data: 1473396736
I0414 04:50:12.695534 18884 layer_factory.hpp:77] Creating layer pool1
I0414 04:50:12.695546 18884 net.cpp:100] Creating Layer pool1
I0414 04:50:12.695552 18884 net.cpp:434] pool1 <- conv1
I0414 04:50:12.695559 18884 net.cpp:408] pool1 -> pool1
I0414 04:50:12.695627 18884 net.cpp:150] Setting up pool1
I0414 04:50:12.695637 18884 net.cpp:157] Top shape: 1024 100 21 21 (45158400)
I0414 04:50:12.695642 18884 net.cpp:165] Memory required for data: 1654030336
I0414 04:50:12.695647 18884 layer_factory.hpp:77] Creating layer conv2
I0414 04:50:12.695660 18884 net.cpp:100] Creating Layer conv2
I0414 04:50:12.695667 18884 net.cpp:434] conv2 <- pool1
I0414 04:50:12.695672 18884 net.cpp:408] conv2 -> conv2
I0414 04:50:12.708475 18884 net.cpp:150] Setting up conv2
I0414 04:50:12.708503 18884 net.cpp:157] Top shape: 1024 150 18 18 (49766400)
I0414 04:50:12.708508 18884 net.cpp:165] Memory required for data: 1853095936
I0414 04:50:12.708521 18884 layer_factory.hpp:77] Creating layer conv2_relu
I0414 04:50:12.708531 18884 net.cpp:100] Creating Layer conv2_relu
I0414 04:50:12.708535 18884 net.cpp:434] conv2_relu <- conv2
I0414 04:50:12.708542 18884 net.cpp:395] conv2_relu -> conv2 (in-place)
I0414 04:50:12.709646 18884 net.cpp:150] Setting up conv2_relu
I0414 04:50:12.709666 18884 net.cpp:157] Top shape: 1024 150 18 18 (49766400)
I0414 04:50:12.709671 18884 net.cpp:165] Memory required for data: 2052161536
I0414 04:50:12.709676 18884 layer_factory.hpp:77] Creating layer pool2
I0414 04:50:12.709683 18884 net.cpp:100] Creating Layer pool2
I0414 04:50:12.709689 18884 net.cpp:434] pool2 <- conv2
I0414 04:50:12.709697 18884 net.cpp:408] pool2 -> pool2
I0414 04:50:12.709758 18884 net.cpp:150] Setting up pool2
I0414 04:50:12.709769 18884 net.cpp:157] Top shape: 1024 150 9 9 (12441600)
I0414 04:50:12.709774 18884 net.cpp:165] Memory required for data: 2101927936
I0414 04:50:12.709777 18884 layer_factory.hpp:77] Creating layer conv3
I0414 04:50:12.709789 18884 net.cpp:100] Creating Layer conv3
I0414 04:50:12.709795 18884 net.cpp:434] conv3 <- pool2
I0414 04:50:12.709801 18884 net.cpp:408] conv3 -> conv3
I0414 04:50:12.716843 18884 net.cpp:150] Setting up conv3
I0414 04:50:12.716861 18884 net.cpp:157] Top shape: 1024 250 6 6 (9216000)
I0414 04:50:12.716864 18884 net.cpp:165] Memory required for data: 2138791936
I0414 04:50:12.716876 18884 layer_factory.hpp:77] Creating layer conv3_relu
I0414 04:50:12.716882 18884 net.cpp:100] Creating Layer conv3_relu
I0414 04:50:12.716886 18884 net.cpp:434] conv3_relu <- conv3
I0414 04:50:12.716892 18884 net.cpp:395] conv3_relu -> conv3 (in-place)
I0414 04:50:12.723325 18884 net.cpp:150] Setting up conv3_relu
I0414 04:50:12.723348 18884 net.cpp:157] Top shape: 1024 250 6 6 (9216000)
I0414 04:50:12.723354 18884 net.cpp:165] Memory required for data: 2175655936
I0414 04:50:12.723361 18884 layer_factory.hpp:77] Creating layer pool3
I0414 04:50:12.723372 18884 net.cpp:100] Creating Layer pool3
I0414 04:50:12.723379 18884 net.cpp:434] pool3 <- conv3
I0414 04:50:12.723388 18884 net.cpp:408] pool3 -> pool3
I0414 04:50:12.723459 18884 net.cpp:150] Setting up pool3
I0414 04:50:12.723472 18884 net.cpp:157] Top shape: 1024 250 3 3 (2304000)
I0414 04:50:12.723479 18884 net.cpp:165] Memory required for data: 2184871936
I0414 04:50:12.723484 18884 layer_factory.hpp:77] Creating layer fc4_300
I0414 04:50:12.723497 18884 net.cpp:100] Creating Layer fc4_300
I0414 04:50:12.723505 18884 net.cpp:434] fc4_300 <- pool3
I0414 04:50:12.723515 18884 net.cpp:408] fc4_300 -> fc4_300
I0414 04:50:12.734449 18884 net.cpp:150] Setting up fc4_300
I0414 04:50:12.734469 18884 net.cpp:157] Top shape: 1024 300 (307200)
I0414 04:50:12.734473 18884 net.cpp:165] Memory required for data: 2186100736
I0414 04:50:12.734482 18884 layer_factory.hpp:77] Creating layer fc4_relu
I0414 04:50:12.734488 18884 net.cpp:100] Creating Layer fc4_relu
I0414 04:50:12.734493 18884 net.cpp:434] fc4_relu <- fc4_300
I0414 04:50:12.734499 18884 net.cpp:395] fc4_relu -> fc4_300 (in-place)
I0414 04:50:12.734717 18884 net.cpp:150] Setting up fc4_relu
I0414 04:50:12.734732 18884 net.cpp:157] Top shape: 1024 300 (307200)
I0414 04:50:12.734735 18884 net.cpp:165] Memory required for data: 2187329536
I0414 04:50:12.734738 18884 layer_factory.hpp:77] Creating layer fc5_67
I0414 04:50:12.734747 18884 net.cpp:100] Creating Layer fc5_67
I0414 04:50:12.734752 18884 net.cpp:434] fc5_67 <- fc4_300
I0414 04:50:12.734758 18884 net.cpp:408] fc5_67 -> fc5_classes
I0414 04:50:12.736397 18884 net.cpp:150] Setting up fc5_67
I0414 04:50:12.736413 18884 net.cpp:157] Top shape: 1024 67 (68608)
I0414 04:50:12.736416 18884 net.cpp:165] Memory required for data: 2187603968
I0414 04:50:12.736430 18884 layer_factory.hpp:77] Creating layer fc5_classes_fc5_67_0_split
I0414 04:50:12.736443 18884 net.cpp:100] Creating Layer fc5_classes_fc5_67_0_split
I0414 04:50:12.736449 18884 net.cpp:434] fc5_classes_fc5_67_0_split <- fc5_classes
I0414 04:50:12.736455 18884 net.cpp:408] fc5_classes_fc5_67_0_split -> fc5_classes_fc5_67_0_split_0
I0414 04:50:12.736464 18884 net.cpp:408] fc5_classes_fc5_67_0_split -> fc5_classes_fc5_67_0_split_1
I0414 04:50:12.736471 18884 net.cpp:408] fc5_classes_fc5_67_0_split -> fc5_classes_fc5_67_0_split_2
I0414 04:50:12.736538 18884 net.cpp:150] Setting up fc5_classes_fc5_67_0_split
I0414 04:50:12.736552 18884 net.cpp:157] Top shape: 1024 67 (68608)
I0414 04:50:12.736558 18884 net.cpp:157] Top shape: 1024 67 (68608)
I0414 04:50:12.736567 18884 net.cpp:157] Top shape: 1024 67 (68608)
I0414 04:50:12.736572 18884 net.cpp:165] Memory required for data: 2188427264
I0414 04:50:12.736577 18884 layer_factory.hpp:77] Creating layer softmax
I0414 04:50:12.736591 18884 net.cpp:100] Creating Layer softmax
I0414 04:50:12.736599 18884 net.cpp:434] softmax <- fc5_classes_fc5_67_0_split_0
I0414 04:50:12.736610 18884 net.cpp:408] softmax -> softmax
I0414 04:50:12.736920 18884 net.cpp:150] Setting up softmax
I0414 04:50:12.736940 18884 net.cpp:157] Top shape: 1024 67 (68608)
I0414 04:50:12.736948 18884 net.cpp:165] Memory required for data: 2188701696
I0414 04:50:12.736954 18884 layer_factory.hpp:77] Creating layer loss
I0414 04:50:12.736970 18884 net.cpp:100] Creating Layer loss
I0414 04:50:12.737000 18884 net.cpp:434] loss <- softmax
I0414 04:50:12.737011 18884 net.cpp:434] loss <- label_data_1_split_0
I0414 04:50:12.737020 18884 net.cpp:408] loss -> loss
…
