…
I0412 05:42:09.673823 21529 solver.cpp:93] Creating training net from train_net file: ./Prototxt/experiment_10/rtsd-r1/orig/trial_3/train.prototxt
I0412 05:42:09.674168 21529 net.cpp:58] Initializing net from parameters: 
state {
  phase: TRAIN
  level: 0
  stage: ""
}
layer {
  name: "data"
  type: "Data"
  top: "data"
  top: "label"
  include {
    phase: TRAIN
  }
  transform_param {
    scale: 0.0039215689
    mirror: false
    crop_size: 48
    mean_value: 122
    mean_value: 115
    mean_value: 129
  }
  data_param {
    source: "../local_data/lmdb/rtsd-r1/orig/train/lmdb"
    batch_size: 1024
    backend: LMDB
  }
}
layer {
  name: "conv1"
  type: "Convolution"
  bottom: "data"
  top: "conv1"
  convolution_param {
    num_output: 100
    pad: 0
    kernel_size: 7
    group: 1
    stride: 1
    weight_filler {
      type: "xavier"
    }
  }
}
layer {
  name: "conv1_relu"
  type: "ReLU"
  bottom: "conv1"
  top: "conv1"
}
layer {
  name: "pool1"
  type: "Pooling"
  bottom: "conv1"
  top: "pool1"
  pooling_param {
    pool: MAX
    kernel_size: 2
    stride: 2
  }
}
layer {
  name: "conv2"
  type: "Convolution"
  bottom: "pool1"
  top: "conv2"
  convolution_param {
    num_output: 150
    pad: 0
    kernel_size: 4
    group: 1
    stride: 1
    weight_filler {
      type: "xavier"
    }
  }
}
layer {
  name: "conv2_relu"
  type: "ReLU"
  bottom: "conv2"
  top: "conv2"
}
layer {
  name: "pool2"
  type: "Pooling"
  bottom: "conv2"
  top: "pool2"
  pooling_param {
    pool: MAX
    kernel_size: 2
    stride: 2
  }
}
layer {
  name: "conv3"
  type: "Convolution"
  bottom: "pool2"
  top: "conv3"
  convolution_param {
    num_output: 250
    pad: 0
    kernel_size: 4
    group: 1
    stride: 1
    weight_filler {
      type: "xavier"
    }
  }
}
layer {
  name: "conv3_relu"
  type: "ReLU"
  bottom: "conv3"
  top: "conv3"
}
layer {
  name: "pool3"
  type: "Pooling"
  bottom: "conv3"
  top: "pool3"
  pooling_param {
    pool: MAX
    kernel_size: 2
    stride: 2
  }
}
layer {
  name: "fc4_300"
  type: "InnerProduct"
  bottom: "pool3"
  top: "fc4_300"
  inner_product_param {
    num_output: 300
    weight_filler {
      type: "xavier"
    }
  }
}
layer {
  name: "fc4_relu"
  type: "ReLU"
  bottom: "fc4_300"
  top: "fc4_300"
}
layer {
  name: "drop4"
  type: "Dropout"
  bottom: "fc4_300"
  top: "fc4_300"
  dropout_param {
    dropout_ratio: 0.4
  }
}
layer {
  name: "fc5_67"
  type: "InnerProduct"
  bottom: "fc4_300"
  top: "fc5_classes"
  inner_product_param {
    num_output: 67
    weight_filler {
      type: "xavier"
    }
  }
}
layer {
  name: "softmax"
  type: "Softmax"
  bottom: "fc5_classes"
  top: "softmax"
}
layer {
  name: "loss"
  type: "MultinomialLogisticLoss"
  bottom: "softmax"
  bottom: "label"
  top: "loss"
}
layer {
  name: "accuracy_1"
  type: "Accuracy"
  bottom: "fc5_classes"
  bottom: "label"
  top: "accuracy_1"
  accuracy_param {
    top_k: 1
  }
}
layer {
  name: "accuracy_5"
  type: "Accuracy"
  bottom: "fc5_classes"
  bottom: "label"
  top: "accuracy_5"
  accuracy_param {
    top_k: 5
  }
}
I0412 05:42:09.674289 21529 layer_factory.hpp:77] Creating layer data
I0412 05:42:09.675599 21529 net.cpp:100] Creating Layer data
I0412 05:42:09.675616 21529 net.cpp:408] data -> data
I0412 05:42:09.675637 21529 net.cpp:408] data -> label
I0412 05:42:09.679316 21645 db_lmdb.cpp:35] Opened lmdb ../local_data/lmdb/rtsd-r1/orig/train/lmdb
I0412 05:42:09.695616 21529 data_layer.cpp:41] output data size: 1024,3,48,48
I0412 05:42:09.743140 21529 net.cpp:150] Setting up data
I0412 05:42:09.743181 21529 net.cpp:157] Top shape: 1024 3 48 48 (7077888)
I0412 05:42:09.743186 21529 net.cpp:157] Top shape: 1024 (1024)
I0412 05:42:09.743191 21529 net.cpp:165] Memory required for data: 28315648
I0412 05:42:09.743201 21529 layer_factory.hpp:77] Creating layer label_data_1_split
I0412 05:42:09.743216 21529 net.cpp:100] Creating Layer label_data_1_split
I0412 05:42:09.743222 21529 net.cpp:434] label_data_1_split <- label
I0412 05:42:09.743239 21529 net.cpp:408] label_data_1_split -> label_data_1_split_0
I0412 05:42:09.743252 21529 net.cpp:408] label_data_1_split -> label_data_1_split_1
I0412 05:42:09.743260 21529 net.cpp:408] label_data_1_split -> label_data_1_split_2
I0412 05:42:09.743348 21529 net.cpp:150] Setting up label_data_1_split
I0412 05:42:09.743357 21529 net.cpp:157] Top shape: 1024 (1024)
I0412 05:42:09.743361 21529 net.cpp:157] Top shape: 1024 (1024)
I0412 05:42:09.743365 21529 net.cpp:157] Top shape: 1024 (1024)
I0412 05:42:09.743367 21529 net.cpp:165] Memory required for data: 28327936
I0412 05:42:09.743371 21529 layer_factory.hpp:77] Creating layer conv1
I0412 05:42:09.743389 21529 net.cpp:100] Creating Layer conv1
I0412 05:42:09.743396 21529 net.cpp:434] conv1 <- data
I0412 05:42:09.743403 21529 net.cpp:408] conv1 -> conv1
I0412 05:42:10.035609 21529 net.cpp:150] Setting up conv1
I0412 05:42:10.035636 21529 net.cpp:157] Top shape: 1024 100 42 42 (180633600)
I0412 05:42:10.035640 21529 net.cpp:165] Memory required for data: 750862336
I0412 05:42:10.035672 21529 layer_factory.hpp:77] Creating layer conv1_relu
I0412 05:42:10.035684 21529 net.cpp:100] Creating Layer conv1_relu
I0412 05:42:10.035691 21529 net.cpp:434] conv1_relu <- conv1
I0412 05:42:10.035697 21529 net.cpp:395] conv1_relu -> conv1 (in-place)
I0412 05:42:10.035907 21529 net.cpp:150] Setting up conv1_relu
I0412 05:42:10.035918 21529 net.cpp:157] Top shape: 1024 100 42 42 (180633600)
I0412 05:42:10.035928 21529 net.cpp:165] Memory required for data: 1473396736
I0412 05:42:10.035930 21529 layer_factory.hpp:77] Creating layer pool1
I0412 05:42:10.035940 21529 net.cpp:100] Creating Layer pool1
I0412 05:42:10.035944 21529 net.cpp:434] pool1 <- conv1
I0412 05:42:10.035950 21529 net.cpp:408] pool1 -> pool1
I0412 05:42:10.036005 21529 net.cpp:150] Setting up pool1
I0412 05:42:10.036015 21529 net.cpp:157] Top shape: 1024 100 21 21 (45158400)
I0412 05:42:10.036017 21529 net.cpp:165] Memory required for data: 1654030336
I0412 05:42:10.036020 21529 layer_factory.hpp:77] Creating layer conv2
I0412 05:42:10.036031 21529 net.cpp:100] Creating Layer conv2
I0412 05:42:10.036036 21529 net.cpp:434] conv2 <- pool1
I0412 05:42:10.036041 21529 net.cpp:408] conv2 -> conv2
I0412 05:42:10.041618 21529 net.cpp:150] Setting up conv2
I0412 05:42:10.041635 21529 net.cpp:157] Top shape: 1024 150 18 18 (49766400)
I0412 05:42:10.041640 21529 net.cpp:165] Memory required for data: 1853095936
I0412 05:42:10.041649 21529 layer_factory.hpp:77] Creating layer conv2_relu
I0412 05:42:10.041656 21529 net.cpp:100] Creating Layer conv2_relu
I0412 05:42:10.041659 21529 net.cpp:434] conv2_relu <- conv2
I0412 05:42:10.041664 21529 net.cpp:395] conv2_relu -> conv2 (in-place)
I0412 05:42:10.042521 21529 net.cpp:150] Setting up conv2_relu
I0412 05:42:10.042536 21529 net.cpp:157] Top shape: 1024 150 18 18 (49766400)
I0412 05:42:10.042539 21529 net.cpp:165] Memory required for data: 2052161536
I0412 05:42:10.042543 21529 layer_factory.hpp:77] Creating layer pool2
I0412 05:42:10.042549 21529 net.cpp:100] Creating Layer pool2
I0412 05:42:10.042554 21529 net.cpp:434] pool2 <- conv2
I0412 05:42:10.042560 21529 net.cpp:408] pool2 -> pool2
I0412 05:42:10.042608 21529 net.cpp:150] Setting up pool2
I0412 05:42:10.042616 21529 net.cpp:157] Top shape: 1024 150 9 9 (12441600)
I0412 05:42:10.042619 21529 net.cpp:165] Memory required for data: 2101927936
I0412 05:42:10.042623 21529 layer_factory.hpp:77] Creating layer conv3
I0412 05:42:10.042632 21529 net.cpp:100] Creating Layer conv3
I0412 05:42:10.042637 21529 net.cpp:434] conv3 <- pool2
I0412 05:42:10.042661 21529 net.cpp:408] conv3 -> conv3
I0412 05:42:10.048319 21529 net.cpp:150] Setting up conv3
I0412 05:42:10.048336 21529 net.cpp:157] Top shape: 1024 250 6 6 (9216000)
I0412 05:42:10.048341 21529 net.cpp:165] Memory required for data: 2138791936
I0412 05:42:10.048362 21529 layer_factory.hpp:77] Creating layer conv3_relu
I0412 05:42:10.048370 21529 net.cpp:100] Creating Layer conv3_relu
I0412 05:42:10.048375 21529 net.cpp:434] conv3_relu <- conv3
I0412 05:42:10.048380 21529 net.cpp:395] conv3_relu -> conv3 (in-place)
I0412 05:42:10.050249 21529 net.cpp:150] Setting up conv3_relu
I0412 05:42:10.050264 21529 net.cpp:157] Top shape: 1024 250 6 6 (9216000)
I0412 05:42:10.050268 21529 net.cpp:165] Memory required for data: 2175655936
I0412 05:42:10.050283 21529 layer_factory.hpp:77] Creating layer pool3
I0412 05:42:10.050292 21529 net.cpp:100] Creating Layer pool3
I0412 05:42:10.050297 21529 net.cpp:434] pool3 <- conv3
I0412 05:42:10.050302 21529 net.cpp:408] pool3 -> pool3
I0412 05:42:10.050349 21529 net.cpp:150] Setting up pool3
I0412 05:42:10.050357 21529 net.cpp:157] Top shape: 1024 250 3 3 (2304000)
I0412 05:42:10.050360 21529 net.cpp:165] Memory required for data: 2184871936
I0412 05:42:10.050364 21529 layer_factory.hpp:77] Creating layer fc4_300
I0412 05:42:10.050370 21529 net.cpp:100] Creating Layer fc4_300
I0412 05:42:10.050374 21529 net.cpp:434] fc4_300 <- pool3
I0412 05:42:10.050379 21529 net.cpp:408] fc4_300 -> fc4_300
I0412 05:42:10.055889 21529 net.cpp:150] Setting up fc4_300
I0412 05:42:10.055905 21529 net.cpp:157] Top shape: 1024 300 (307200)
I0412 05:42:10.055909 21529 net.cpp:165] Memory required for data: 2186100736
I0412 05:42:10.055917 21529 layer_factory.hpp:77] Creating layer fc4_relu
I0412 05:42:10.055924 21529 net.cpp:100] Creating Layer fc4_relu
I0412 05:42:10.055928 21529 net.cpp:434] fc4_relu <- fc4_300
I0412 05:42:10.055933 21529 net.cpp:395] fc4_relu -> fc4_300 (in-place)
I0412 05:42:10.056113 21529 net.cpp:150] Setting up fc4_relu
I0412 05:42:10.056123 21529 net.cpp:157] Top shape: 1024 300 (307200)
I0412 05:42:10.056126 21529 net.cpp:165] Memory required for data: 2187329536
I0412 05:42:10.056130 21529 layer_factory.hpp:77] Creating layer drop4
I0412 05:42:10.056136 21529 net.cpp:100] Creating Layer drop4
I0412 05:42:10.056140 21529 net.cpp:434] drop4 <- fc4_300
I0412 05:42:10.056145 21529 net.cpp:395] drop4 -> fc4_300 (in-place)
I0412 05:42:10.056175 21529 net.cpp:150] Setting up drop4
I0412 05:42:10.056182 21529 net.cpp:157] Top shape: 1024 300 (307200)
I0412 05:42:10.056185 21529 net.cpp:165] Memory required for data: 2188558336
I0412 05:42:10.056188 21529 layer_factory.hpp:77] Creating layer fc5_67
I0412 05:42:10.056195 21529 net.cpp:100] Creating Layer fc5_67
I0412 05:42:10.056198 21529 net.cpp:434] fc5_67 <- fc4_300
I0412 05:42:10.056203 21529 net.cpp:408] fc5_67 -> fc5_classes
I0412 05:42:10.062723 21529 net.cpp:150] Setting up fc5_67
I0412 05:42:10.062738 21529 net.cpp:157] Top shape: 1024 67 (68608)
I0412 05:42:10.062741 21529 net.cpp:165] Memory required for data: 2188832768
I0412 05:42:10.062752 21529 layer_factory.hpp:77] Creating layer fc5_classes_fc5_67_0_split
I0412 05:42:10.062760 21529 net.cpp:100] Creating Layer fc5_classes_fc5_67_0_split
I0412 05:42:10.062763 21529 net.cpp:434] fc5_classes_fc5_67_0_split <- fc5_classes
I0412 05:42:10.062769 21529 net.cpp:408] fc5_classes_fc5_67_0_split -> fc5_classes_fc5_67_0_split_0
I0412 05:42:10.062778 21529 net.cpp:408] fc5_classes_fc5_67_0_split -> fc5_classes_fc5_67_0_split_1
I0412 05:42:10.062786 21529 net.cpp:408] fc5_classes_fc5_67_0_split -> fc5_classes_fc5_67_0_split_2
I0412 05:42:10.062835 21529 net.cpp:150] Setting up fc5_classes_fc5_67_0_split
I0412 05:42:10.062841 21529 net.cpp:157] Top shape: 1024 67 (68608)
I0412 05:42:10.062845 21529 net.cpp:157] Top shape: 1024 67 (68608)
I0412 05:42:10.062849 21529 net.cpp:157] Top shape: 1024 67 (68608)
I0412 05:42:10.062851 21529 net.cpp:165] Memory required for data: 2189656064
I0412 05:42:10.062855 21529 layer_factory.hpp:77] Creating layer softmax
I0412 05:42:10.062877 21529 net.cpp:100] Creating Layer softmax
I0412 05:42:10.062881 21529 net.cpp:434] softmax <- fc5_classes_fc5_67_0_split_0
I0412 05:42:10.062887 21529 net.cpp:408] softmax -> softmax
I0412 05:42:10.063134 21529 net.cpp:150] Setting up softmax
I0412 05:42:10.063145 21529 net.cpp:157] Top shape: 1024 67 (68608)
I0412 05:42:10.063148 21529 net.cpp:165] Memory required for data: 2189930496
I0412 05:42:10.063153 21529 layer_factory.hpp:77] Creating layer loss
I0412 05:42:10.063158 21529 net.cpp:100] Creating Layer loss
I0412 05:42:10.063163 21529 net.cpp:434] loss <- softmax
I0412 05:42:10.063166 21529 net.cpp:434] loss <- label_data_1_split_0
I0412 05:42:10.063171 21529 net.cpp:408] loss -> loss
…
