…
I0508 04:54:57.237468 19107 solver.cpp:93] Creating training net from train_net file: ./Prototxt/experiment_16/RTSD/histeq/trial_4/train.prototxt
I0508 04:54:57.237817 19107 net.cpp:58] Initializing net from parameters: 
state {
  phase: TRAIN
  level: 0
  stage: ""
}
layer {
  name: "data"
  type: "Data"
  top: "data"
  top: "label"
  include {
    phase: TRAIN
  }
  transform_param {
    scale: 0.0039215689
    mirror: false
    crop_size: 48
    mean_value: 134
    mean_value: 128
    mean_value: 128
  }
  data_param {
    source: "../local_data/lmdb/RTSD/histeq/train/lmdb"
    batch_size: 1024
    backend: LMDB
  }
}
layer {
  name: "conv1"
  type: "Convolution"
  bottom: "data"
  top: "conv1"
  convolution_param {
    num_output: 100
    pad: 0
    kernel_size: 7
    group: 1
    stride: 1
    weight_filler {
      type: "xavier"
    }
  }
}
layer {
  name: "conv1_relu"
  type: "ReLU"
  bottom: "conv1"
  top: "conv1"
}
layer {
  name: "pool1"
  type: "Pooling"
  bottom: "conv1"
  top: "pool1"
  pooling_param {
    pool: MAX
    kernel_size: 2
    stride: 2
  }
}
layer {
  name: "conv2"
  type: "Convolution"
  bottom: "pool1"
  top: "conv2"
  convolution_param {
    num_output: 150
    pad: 0
    kernel_size: 4
    group: 2
    stride: 1
    weight_filler {
      type: "xavier"
    }
  }
}
layer {
  name: "conv2_relu"
  type: "ReLU"
  bottom: "conv2"
  top: "conv2"
}
layer {
  name: "pool2"
  type: "Pooling"
  bottom: "conv2"
  top: "pool2"
  pooling_param {
    pool: MAX
    kernel_size: 2
    stride: 2
  }
}
layer {
  name: "conv3"
  type: "Convolution"
  bottom: "pool2"
  top: "conv3"
  convolution_param {
    num_output: 250
    pad: 0
    kernel_size: 4
    group: 2
    stride: 1
    weight_filler {
      type: "xavier"
    }
  }
}
layer {
  name: "conv3_relu"
  type: "ReLU"
  bottom: "conv3"
  top: "conv3"
}
layer {
  name: "pool3"
  type: "Pooling"
  bottom: "conv3"
  top: "pool3"
  pooling_param {
    pool: MAX
    kernel_size: 2
    stride: 2
  }
}
layer {
  name: "fc4_300"
  type: "InnerProduct"
  bottom: "pool3"
  top: "fc4_300"
  inner_product_param {
    num_output: 300
    weight_filler {
      type: "xavier"
    }
  }
}
layer {
  name: "fc4_relu"
  type: "ReLU"
  bottom: "fc4_300"
  top: "fc4_300"
}
layer {
  name: "fc5_116"
  type: "InnerProduct"
  bottom: "fc4_300"
  top: "fc5_classes"
  inner_product_param {
    num_output: 116
    weight_filler {
      type: "xavier"
    }
  }
}
layer {
  name: "softmax"
  type: "Softmax"
  bottom: "fc5_classes"
  top: "softmax"
}
layer {
  name: "loss"
  type: "MultinomialLogisticLoss"
  bottom: "softmax"
  bottom: "label"
  top: "loss"
}
layer {
  name: "accuracy_1"
  type: "Accuracy"
  bottom: "fc5_classes"
  bottom: "label"
  top: "accuracy_1"
  accuracy_param {
    top_k: 1
  }
}
layer {
  name: "accuracy_5"
  type: "Accuracy"
  bottom: "fc5_classes"
  bottom: "label"
  top: "accuracy_5"
  accuracy_param {
    top_k: 5
  }
}
layer {
  name: "silence"
  type: "Silence"
  bottom: "accuracy_1"
  bottom: "accuracy_5"
}
I0508 04:54:57.237936 19107 layer_factory.hpp:77] Creating layer data
I0508 04:54:57.239004 19107 net.cpp:100] Creating Layer data
I0508 04:54:57.239022 19107 net.cpp:408] data -> data
I0508 04:54:57.239044 19107 net.cpp:408] data -> label
I0508 04:54:57.251566 19245 db_lmdb.cpp:35] Opened lmdb ../local_data/lmdb/RTSD/histeq/train/lmdb
I0508 04:54:57.270223 19107 data_layer.cpp:41] output data size: 1024,3,48,48
I0508 04:54:57.343698 19107 net.cpp:150] Setting up data
I0508 04:54:57.343747 19107 net.cpp:157] Top shape: 1024 3 48 48 (7077888)
I0508 04:54:57.343755 19107 net.cpp:157] Top shape: 1024 (1024)
I0508 04:54:57.343757 19107 net.cpp:165] Memory required for data: 28315648
I0508 04:54:57.343770 19107 layer_factory.hpp:77] Creating layer label_data_1_split
I0508 04:54:57.343786 19107 net.cpp:100] Creating Layer label_data_1_split
I0508 04:54:57.343793 19107 net.cpp:434] label_data_1_split <- label
I0508 04:54:57.343809 19107 net.cpp:408] label_data_1_split -> label_data_1_split_0
I0508 04:54:57.343822 19107 net.cpp:408] label_data_1_split -> label_data_1_split_1
I0508 04:54:57.343832 19107 net.cpp:408] label_data_1_split -> label_data_1_split_2
I0508 04:54:57.343956 19107 net.cpp:150] Setting up label_data_1_split
I0508 04:54:57.343968 19107 net.cpp:157] Top shape: 1024 (1024)
I0508 04:54:57.343972 19107 net.cpp:157] Top shape: 1024 (1024)
I0508 04:54:57.343976 19107 net.cpp:157] Top shape: 1024 (1024)
I0508 04:54:57.343979 19107 net.cpp:165] Memory required for data: 28327936
I0508 04:54:57.343983 19107 layer_factory.hpp:77] Creating layer conv1
I0508 04:54:57.344002 19107 net.cpp:100] Creating Layer conv1
I0508 04:54:57.344008 19107 net.cpp:434] conv1 <- data
I0508 04:54:57.344014 19107 net.cpp:408] conv1 -> conv1
I0508 04:54:57.792116 19107 net.cpp:150] Setting up conv1
I0508 04:54:57.792146 19107 net.cpp:157] Top shape: 1024 100 42 42 (180633600)
I0508 04:54:57.792152 19107 net.cpp:165] Memory required for data: 750862336
I0508 04:54:57.792178 19107 layer_factory.hpp:77] Creating layer conv1_relu
I0508 04:54:57.792194 19107 net.cpp:100] Creating Layer conv1_relu
I0508 04:54:57.792201 19107 net.cpp:434] conv1_relu <- conv1
I0508 04:54:57.792207 19107 net.cpp:395] conv1_relu -> conv1 (in-place)
I0508 04:54:57.792451 19107 net.cpp:150] Setting up conv1_relu
I0508 04:54:57.792466 19107 net.cpp:157] Top shape: 1024 100 42 42 (180633600)
I0508 04:54:57.792472 19107 net.cpp:165] Memory required for data: 1473396736
I0508 04:54:57.792477 19107 layer_factory.hpp:77] Creating layer pool1
I0508 04:54:57.792490 19107 net.cpp:100] Creating Layer pool1
I0508 04:54:57.792495 19107 net.cpp:434] pool1 <- conv1
I0508 04:54:57.792501 19107 net.cpp:408] pool1 -> pool1
I0508 04:54:57.792568 19107 net.cpp:150] Setting up pool1
I0508 04:54:57.792580 19107 net.cpp:157] Top shape: 1024 100 21 21 (45158400)
I0508 04:54:57.792584 19107 net.cpp:165] Memory required for data: 1654030336
I0508 04:54:57.792588 19107 layer_factory.hpp:77] Creating layer conv2
I0508 04:54:57.792600 19107 net.cpp:100] Creating Layer conv2
I0508 04:54:57.792606 19107 net.cpp:434] conv2 <- pool1
I0508 04:54:57.792613 19107 net.cpp:408] conv2 -> conv2
I0508 04:54:57.812831 19107 net.cpp:150] Setting up conv2
I0508 04:54:57.812855 19107 net.cpp:157] Top shape: 1024 150 18 18 (49766400)
I0508 04:54:57.812860 19107 net.cpp:165] Memory required for data: 1853095936
I0508 04:54:57.812871 19107 layer_factory.hpp:77] Creating layer conv2_relu
I0508 04:54:57.812880 19107 net.cpp:100] Creating Layer conv2_relu
I0508 04:54:57.812885 19107 net.cpp:434] conv2_relu <- conv2
I0508 04:54:57.812891 19107 net.cpp:395] conv2_relu -> conv2 (in-place)
I0508 04:54:57.813110 19107 net.cpp:150] Setting up conv2_relu
I0508 04:54:57.813124 19107 net.cpp:157] Top shape: 1024 150 18 18 (49766400)
I0508 04:54:57.813130 19107 net.cpp:165] Memory required for data: 2052161536
I0508 04:54:57.813135 19107 layer_factory.hpp:77] Creating layer pool2
I0508 04:54:57.813143 19107 net.cpp:100] Creating Layer pool2
I0508 04:54:57.813149 19107 net.cpp:434] pool2 <- conv2
I0508 04:54:57.813156 19107 net.cpp:408] pool2 -> pool2
I0508 04:54:57.813215 19107 net.cpp:150] Setting up pool2
I0508 04:54:57.813225 19107 net.cpp:157] Top shape: 1024 150 9 9 (12441600)
I0508 04:54:57.813230 19107 net.cpp:165] Memory required for data: 2101927936
I0508 04:54:57.813235 19107 layer_factory.hpp:77] Creating layer conv3
I0508 04:54:57.813246 19107 net.cpp:100] Creating Layer conv3
I0508 04:54:57.813252 19107 net.cpp:434] conv3 <- pool2
I0508 04:54:57.813258 19107 net.cpp:408] conv3 -> conv3
I0508 04:54:57.832805 19107 net.cpp:150] Setting up conv3
I0508 04:54:57.832828 19107 net.cpp:157] Top shape: 1024 250 6 6 (9216000)
I0508 04:54:57.832834 19107 net.cpp:165] Memory required for data: 2138791936
I0508 04:54:57.832849 19107 layer_factory.hpp:77] Creating layer conv3_relu
I0508 04:54:57.832859 19107 net.cpp:100] Creating Layer conv3_relu
I0508 04:54:57.832864 19107 net.cpp:434] conv3_relu <- conv3
I0508 04:54:57.832871 19107 net.cpp:395] conv3_relu -> conv3 (in-place)
I0508 04:54:57.833094 19107 net.cpp:150] Setting up conv3_relu
I0508 04:54:57.833108 19107 net.cpp:157] Top shape: 1024 250 6 6 (9216000)
I0508 04:54:57.833113 19107 net.cpp:165] Memory required for data: 2175655936
I0508 04:54:57.833118 19107 layer_factory.hpp:77] Creating layer pool3
I0508 04:54:57.833127 19107 net.cpp:100] Creating Layer pool3
I0508 04:54:57.833132 19107 net.cpp:434] pool3 <- conv3
I0508 04:54:57.833138 19107 net.cpp:408] pool3 -> pool3
I0508 04:54:57.833194 19107 net.cpp:150] Setting up pool3
I0508 04:54:57.833204 19107 net.cpp:157] Top shape: 1024 250 3 3 (2304000)
I0508 04:54:57.833209 19107 net.cpp:165] Memory required for data: 2184871936
I0508 04:54:57.833212 19107 layer_factory.hpp:77] Creating layer fc4_300
I0508 04:54:57.833220 19107 net.cpp:100] Creating Layer fc4_300
I0508 04:54:57.833226 19107 net.cpp:434] fc4_300 <- pool3
I0508 04:54:57.833232 19107 net.cpp:408] fc4_300 -> fc4_300
I0508 04:54:57.840391 19107 net.cpp:150] Setting up fc4_300
I0508 04:54:57.840411 19107 net.cpp:157] Top shape: 1024 300 (307200)
I0508 04:54:57.840417 19107 net.cpp:165] Memory required for data: 2186100736
I0508 04:54:57.840426 19107 layer_factory.hpp:77] Creating layer fc4_relu
I0508 04:54:57.840436 19107 net.cpp:100] Creating Layer fc4_relu
I0508 04:54:57.840442 19107 net.cpp:434] fc4_relu <- fc4_300
I0508 04:54:57.840450 19107 net.cpp:395] fc4_relu -> fc4_300 (in-place)
I0508 04:54:57.843279 19107 net.cpp:150] Setting up fc4_relu
I0508 04:54:57.843302 19107 net.cpp:157] Top shape: 1024 300 (307200)
I0508 04:54:57.843308 19107 net.cpp:165] Memory required for data: 2187329536
I0508 04:54:57.843313 19107 layer_factory.hpp:77] Creating layer fc5_116
I0508 04:54:57.843324 19107 net.cpp:100] Creating Layer fc5_116
I0508 04:54:57.843331 19107 net.cpp:434] fc5_116 <- fc4_300
I0508 04:54:57.843339 19107 net.cpp:408] fc5_116 -> fc5_classes
I0508 04:54:57.863965 19107 net.cpp:150] Setting up fc5_116
I0508 04:54:57.863987 19107 net.cpp:157] Top shape: 1024 116 (118784)
I0508 04:54:57.863993 19107 net.cpp:165] Memory required for data: 2187804672
I0508 04:54:57.864007 19107 layer_factory.hpp:77] Creating layer fc5_classes_fc5_116_0_split
I0508 04:54:57.864019 19107 net.cpp:100] Creating Layer fc5_classes_fc5_116_0_split
I0508 04:54:57.864025 19107 net.cpp:434] fc5_classes_fc5_116_0_split <- fc5_classes
I0508 04:54:57.864032 19107 net.cpp:408] fc5_classes_fc5_116_0_split -> fc5_classes_fc5_116_0_split_0
I0508 04:54:57.864044 19107 net.cpp:408] fc5_classes_fc5_116_0_split -> fc5_classes_fc5_116_0_split_1
I0508 04:54:57.864053 19107 net.cpp:408] fc5_classes_fc5_116_0_split -> fc5_classes_fc5_116_0_split_2
I0508 04:54:57.864116 19107 net.cpp:150] Setting up fc5_classes_fc5_116_0_split
I0508 04:54:57.864125 19107 net.cpp:157] Top shape: 1024 116 (118784)
I0508 04:54:57.864132 19107 net.cpp:157] Top shape: 1024 116 (118784)
I0508 04:54:57.864137 19107 net.cpp:157] Top shape: 1024 116 (118784)
I0508 04:54:57.864141 19107 net.cpp:165] Memory required for data: 2189230080
I0508 04:54:57.864145 19107 layer_factory.hpp:77] Creating layer softmax
I0508 04:54:57.864154 19107 net.cpp:100] Creating Layer softmax
I0508 04:54:57.864161 19107 net.cpp:434] softmax <- fc5_classes_fc5_116_0_split_0
I0508 04:54:57.864166 19107 net.cpp:408] softmax -> softmax
I0508 04:54:57.864476 19107 net.cpp:150] Setting up softmax
I0508 04:54:57.864491 19107 net.cpp:157] Top shape: 1024 116 (118784)
I0508 04:54:57.864497 19107 net.cpp:165] Memory required for data: 2189705216
I0508 04:54:57.864502 19107 layer_factory.hpp:77] Creating layer loss
I0508 04:54:57.864532 19107 net.cpp:100] Creating Layer loss
I0508 04:54:57.864539 19107 net.cpp:434] loss <- softmax
I0508 04:54:57.864545 19107 net.cpp:434] loss <- label_data_1_split_0
I0508 04:54:57.864553 19107 net.cpp:408] loss -> loss
…
