…
I0411 19:43:42.236186 27286 net.cpp:322] The NetState phase (0) differed from the phase (1) specified by a rule in layer accuracy_5
I0411 19:43:42.236356 27286 net.cpp:58] Initializing net from parameters: 
state {
  phase: TRAIN
  level: 0
  stage: ""
}
layer {
  name: "data"
  type: "Data"
  top: "data"
  top: "label"
  include {
    phase: TRAIN
  }
  transform_param {
    scale: 0.0039215689
    mirror: false
    crop_size: 48
    mean_value: 122
    mean_value: 115
    mean_value: 129
  }
  data_param {
    source: "../local_data/lmdb/rtsd-r1/orig/train/lmdb"
    batch_size: 1024
    backend: LMDB
  }
}
layer {
  name: "conv1"
  type: "Convolution"
  bottom: "data"
  top: "conv1"
  convolution_param {
    num_output: 100
    pad: 0
    kernel_size: 7
    group: 1
    stride: 1
    weight_filler {
      type: "xavier"
    }
  }
}
layer {
  name: "conv1_prescale"
  type: "Scale"
  bottom: "conv1"
  top: "conv1"
  param {
    lr_mult: 0
    decay_mult: 0
  }
  scale_param {
    filler {
      value: 0.6666
    }
    bias_term: false
  }
}
layer {
  name: "conv1_sTanH"
  type: "TanH"
  bottom: "conv1"
  top: "conv1"
}
layer {
  name: "conv1_postscale"
  type: "Scale"
  bottom: "conv1"
  top: "conv1"
  param {
    lr_mult: 0
    decay_mult: 0
  }
  scale_param {
    filler {
      value: 1.7159
    }
    bias_term: false
  }
}
layer {
  name: "pool1"
  type: "Pooling"
  bottom: "conv1"
  top: "pool1"
  pooling_param {
    pool: MAX
    kernel_size: 2
    stride: 2
  }
}
layer {
  name: "conv2"
  type: "Convolution"
  bottom: "pool1"
  top: "conv2"
  convolution_param {
    num_output: 150
    pad: 0
    kernel_size: 4
    group: 1
    stride: 1
    weight_filler {
      type: "xavier"
    }
  }
}
layer {
  name: "conv2_prescale"
  type: "Scale"
  bottom: "conv2"
  top: "conv2"
  param {
    lr_mult: 0
    decay_mult: 0
  }
  scale_param {
    filler {
      value: 0.6666
    }
    bias_term: false
  }
}
layer {
  name: "conv2_sTanH"
  type: "TanH"
  bottom: "conv2"
  top: "conv2"
}
layer {
  name: "conv2_postscale"
  type: "Scale"
  bottom: "conv2"
  top: "conv2"
  param {
    lr_mult: 0
    decay_mult: 0
  }
  scale_param {
    filler {
      value: 1.7159
    }
    bias_term: false
  }
}
layer {
  name: "pool2"
  type: "Pooling"
  bottom: "conv2"
  top: "pool2"
  pooling_param {
    pool: MAX
    kernel_size: 2
    stride: 2
  }
}
layer {
  name: "conv3"
  type: "Convolution"
  bottom: "pool2"
  top: "conv3"
  convolution_param {
    num_output: 250
    pad: 0
    kernel_size: 4
    group: 1
    stride: 1
    weight_filler {
      type: "xavier"
    }
  }
}
layer {
  name: "conv3_prescale"
  type: "Scale"
  bottom: "conv3"
  top: "conv3"
  param {
    lr_mult: 0
    decay_mult: 0
  }
  scale_param {
    filler {
      value: 0.6666
    }
    bias_term: false
  }
}
layer {
  name: "conv3_sTanH"
  type: "TanH"
  bottom: "conv3"
  top: "conv3"
}
layer {
  name: "conv3_postscale"
  type: "Scale"
  bottom: "conv3"
  top: "conv3"
  param {
    lr_mult: 0
    decay_mult: 0
  }
  scale_param {
    filler {
      value: 1.7159
    }
    bias_term: false
  }
}
layer {
  name: "pool3"
  type: "Pooling"
  bottom: "conv3"
  top: "pool3"
  pooling_param {
    pool: MAX
    kernel_size: 2
    stride: 2
  }
}
layer {
  name: "fc4_300"
  type: "InnerProduct"
  bottom: "pool3"
  top: "fc4_300"
  inner_product_param {
    num_output: 300
    weight_filler {
      type: "xavier"
    }
  }
}
layer {
  name: "fc4_prescale"
  type: "Scale"
  bottom: "fc4_300"
  top: "fc4_300"
  param {
    lr_mult: 0
    decay_mult: 0
  }
  scale_param {
    filler {
      value: 0.6666
    }
    bias_term: false
  }
}
layer {
  name: "fc4_sTanH"
  type: "TanH"
  bottom: "fc4_300"
  top: "fc4_300"
}
layer {
  name: "fc4_postscale"
  type: "Scale"
  bottom: "fc4_300"
  top: "fc4_300"
  param {
    lr_mult: 0
    decay_mult: 0
  }
  scale_param {
    filler {
      value: 1.7159
    }
    bias_term: false
  }
}
layer {
  name: "drop4"
  type: "Dropout"
  bottom: "fc4_300"
  top: "fc4_300"
  dropout_param {
    dropout_ratio: 0.1
  }
}
layer {
  name: "fc5_67"
  type: "InnerProduct"
  bottom: "fc4_300"
  top: "fc5_classes"
  inner_product_param {
    num_output: 67
    weight_filler {
      type: "xavier"
    }
  }
}
layer {
  name: "loss"
  type: "SoftmaxWithLoss"
  bottom: "fc5_classes"
  bottom: "label"
  top: "loss"
}
I0411 19:43:42.236476 27286 layer_factory.hpp:77] Creating layer data
I0411 19:43:42.237665 27286 net.cpp:100] Creating Layer data
I0411 19:43:42.237687 27286 net.cpp:408] data -> data
I0411 19:43:42.237712 27286 net.cpp:408] data -> label
I0411 19:43:42.239914 27416 db_lmdb.cpp:35] Opened lmdb ../local_data/lmdb/rtsd-r1/orig/train/lmdb
I0411 19:43:42.259765 27286 data_layer.cpp:41] output data size: 1024,3,48,48
I0411 19:43:42.317831 27286 net.cpp:150] Setting up data
I0411 19:43:42.317863 27286 net.cpp:157] Top shape: 1024 3 48 48 (7077888)
I0411 19:43:42.317868 27286 net.cpp:157] Top shape: 1024 (1024)
I0411 19:43:42.317872 27286 net.cpp:165] Memory required for data: 28315648
I0411 19:43:42.317881 27286 layer_factory.hpp:77] Creating layer conv1
I0411 19:43:42.317905 27286 net.cpp:100] Creating Layer conv1
I0411 19:43:42.317915 27286 net.cpp:434] conv1 <- data
I0411 19:43:42.317927 27286 net.cpp:408] conv1 -> conv1
I0411 19:43:42.610136 27286 net.cpp:150] Setting up conv1
I0411 19:43:42.610175 27286 net.cpp:157] Top shape: 1024 100 42 42 (180633600)
I0411 19:43:42.610179 27286 net.cpp:165] Memory required for data: 750850048
I0411 19:43:42.610200 27286 layer_factory.hpp:77] Creating layer conv1_prescale
I0411 19:43:42.610214 27286 net.cpp:100] Creating Layer conv1_prescale
I0411 19:43:42.610219 27286 net.cpp:434] conv1_prescale <- conv1
I0411 19:43:42.610225 27286 net.cpp:395] conv1_prescale -> conv1 (in-place)
I0411 19:43:42.610339 27286 net.cpp:150] Setting up conv1_prescale
I0411 19:43:42.610348 27286 net.cpp:157] Top shape: 1024 100 42 42 (180633600)
I0411 19:43:42.610352 27286 net.cpp:165] Memory required for data: 1473384448
I0411 19:43:42.610358 27286 layer_factory.hpp:77] Creating layer conv1_sTanH
I0411 19:43:42.610365 27286 net.cpp:100] Creating Layer conv1_sTanH
I0411 19:43:42.610368 27286 net.cpp:434] conv1_sTanH <- conv1
I0411 19:43:42.610373 27286 net.cpp:395] conv1_sTanH -> conv1 (in-place)
I0411 19:43:42.610574 27286 net.cpp:150] Setting up conv1_sTanH
I0411 19:43:42.610587 27286 net.cpp:157] Top shape: 1024 100 42 42 (180633600)
I0411 19:43:42.610590 27286 net.cpp:165] Memory required for data: 2195918848
I0411 19:43:42.610594 27286 layer_factory.hpp:77] Creating layer conv1_postscale
I0411 19:43:42.610601 27286 net.cpp:100] Creating Layer conv1_postscale
I0411 19:43:42.610605 27286 net.cpp:434] conv1_postscale <- conv1
I0411 19:43:42.610610 27286 net.cpp:395] conv1_postscale -> conv1 (in-place)
I0411 19:43:42.610712 27286 net.cpp:150] Setting up conv1_postscale
I0411 19:43:42.610719 27286 net.cpp:157] Top shape: 1024 100 42 42 (180633600)
I0411 19:43:42.610721 27286 net.cpp:165] Memory required for data: 2918453248
I0411 19:43:42.610726 27286 layer_factory.hpp:77] Creating layer pool1
I0411 19:43:42.610733 27286 net.cpp:100] Creating Layer pool1
I0411 19:43:42.610738 27286 net.cpp:434] pool1 <- conv1
I0411 19:43:42.610743 27286 net.cpp:408] pool1 -> pool1
I0411 19:43:42.610813 27286 net.cpp:150] Setting up pool1
I0411 19:43:42.610822 27286 net.cpp:157] Top shape: 1024 100 21 21 (45158400)
I0411 19:43:42.610826 27286 net.cpp:165] Memory required for data: 3099086848
I0411 19:43:42.610828 27286 layer_factory.hpp:77] Creating layer conv2
I0411 19:43:42.610838 27286 net.cpp:100] Creating Layer conv2
I0411 19:43:42.610843 27286 net.cpp:434] conv2 <- pool1
I0411 19:43:42.610848 27286 net.cpp:408] conv2 -> conv2
I0411 19:43:42.617331 27286 net.cpp:150] Setting up conv2
I0411 19:43:42.617349 27286 net.cpp:157] Top shape: 1024 150 18 18 (49766400)
I0411 19:43:42.617352 27286 net.cpp:165] Memory required for data: 3298152448
I0411 19:43:42.617362 27286 layer_factory.hpp:77] Creating layer conv2_prescale
I0411 19:43:42.617370 27286 net.cpp:100] Creating Layer conv2_prescale
I0411 19:43:42.617374 27286 net.cpp:434] conv2_prescale <- conv2
I0411 19:43:42.617379 27286 net.cpp:395] conv2_prescale -> conv2 (in-place)
I0411 19:43:42.617486 27286 net.cpp:150] Setting up conv2_prescale
I0411 19:43:42.617496 27286 net.cpp:157] Top shape: 1024 150 18 18 (49766400)
I0411 19:43:42.617498 27286 net.cpp:165] Memory required for data: 3497218048
I0411 19:43:42.617504 27286 layer_factory.hpp:77] Creating layer conv2_sTanH
I0411 19:43:42.617511 27286 net.cpp:100] Creating Layer conv2_sTanH
I0411 19:43:42.617516 27286 net.cpp:434] conv2_sTanH <- conv2
I0411 19:43:42.617521 27286 net.cpp:395] conv2_sTanH -> conv2 (in-place)
I0411 19:43:42.620398 27286 net.cpp:150] Setting up conv2_sTanH
I0411 19:43:42.620417 27286 net.cpp:157] Top shape: 1024 150 18 18 (49766400)
I0411 19:43:42.620420 27286 net.cpp:165] Memory required for data: 3696283648
I0411 19:43:42.620424 27286 layer_factory.hpp:77] Creating layer conv2_postscale
I0411 19:43:42.620432 27286 net.cpp:100] Creating Layer conv2_postscale
I0411 19:43:42.620436 27286 net.cpp:434] conv2_postscale <- conv2
I0411 19:43:42.620442 27286 net.cpp:395] conv2_postscale -> conv2 (in-place)
I0411 19:43:42.620542 27286 net.cpp:150] Setting up conv2_postscale
I0411 19:43:42.620551 27286 net.cpp:157] Top shape: 1024 150 18 18 (49766400)
I0411 19:43:42.620554 27286 net.cpp:165] Memory required for data: 3895349248
I0411 19:43:42.620559 27286 layer_factory.hpp:77] Creating layer pool2
I0411 19:43:42.620565 27286 net.cpp:100] Creating Layer pool2
I0411 19:43:42.620568 27286 net.cpp:434] pool2 <- conv2
I0411 19:43:42.620573 27286 net.cpp:408] pool2 -> pool2
I0411 19:43:42.620612 27286 net.cpp:150] Setting up pool2
I0411 19:43:42.620620 27286 net.cpp:157] Top shape: 1024 150 9 9 (12441600)
I0411 19:43:42.620622 27286 net.cpp:165] Memory required for data: 3945115648
I0411 19:43:42.620625 27286 layer_factory.hpp:77] Creating layer conv3
I0411 19:43:42.620633 27286 net.cpp:100] Creating Layer conv3
I0411 19:43:42.620638 27286 net.cpp:434] conv3 <- pool2
I0411 19:43:42.620643 27286 net.cpp:408] conv3 -> conv3
I0411 19:43:42.626399 27286 net.cpp:150] Setting up conv3
I0411 19:43:42.626417 27286 net.cpp:157] Top shape: 1024 250 6 6 (9216000)
I0411 19:43:42.626421 27286 net.cpp:165] Memory required for data: 3981979648
I0411 19:43:42.626431 27286 layer_factory.hpp:77] Creating layer conv3_prescale
I0411 19:43:42.626440 27286 net.cpp:100] Creating Layer conv3_prescale
I0411 19:43:42.626442 27286 net.cpp:434] conv3_prescale <- conv3
I0411 19:43:42.626448 27286 net.cpp:395] conv3_prescale -> conv3 (in-place)
I0411 19:43:42.626543 27286 net.cpp:150] Setting up conv3_prescale
I0411 19:43:42.626552 27286 net.cpp:157] Top shape: 1024 250 6 6 (9216000)
I0411 19:43:42.626554 27286 net.cpp:165] Memory required for data: 4018843648
I0411 19:43:42.626559 27286 layer_factory.hpp:77] Creating layer conv3_sTanH
I0411 19:43:42.626564 27286 net.cpp:100] Creating Layer conv3_sTanH
I0411 19:43:42.626567 27286 net.cpp:434] conv3_sTanH <- conv3
I0411 19:43:42.626572 27286 net.cpp:395] conv3_sTanH -> conv3 (in-place)
I0411 19:43:42.627591 27286 net.cpp:150] Setting up conv3_sTanH
I0411 19:43:42.627609 27286 net.cpp:157] Top shape: 1024 250 6 6 (9216000)
I0411 19:43:42.627611 27286 net.cpp:165] Memory required for data: 4055707648
I0411 19:43:42.627629 27286 layer_factory.hpp:77] Creating layer conv3_postscale
I0411 19:43:42.627638 27286 net.cpp:100] Creating Layer conv3_postscale
I0411 19:43:42.627642 27286 net.cpp:434] conv3_postscale <- conv3
I0411 19:43:42.627647 27286 net.cpp:395] conv3_postscale -> conv3 (in-place)
I0411 19:43:42.627748 27286 net.cpp:150] Setting up conv3_postscale
I0411 19:43:42.627758 27286 net.cpp:157] Top shape: 1024 250 6 6 (9216000)
I0411 19:43:42.627760 27286 net.cpp:165] Memory required for data: 4092571648
I0411 19:43:42.627765 27286 layer_factory.hpp:77] Creating layer pool3
I0411 19:43:42.627773 27286 net.cpp:100] Creating Layer pool3
I0411 19:43:42.627775 27286 net.cpp:434] pool3 <- conv3
I0411 19:43:42.627779 27286 net.cpp:408] pool3 -> pool3
I0411 19:43:42.627818 27286 net.cpp:150] Setting up pool3
I0411 19:43:42.627825 27286 net.cpp:157] Top shape: 1024 250 3 3 (2304000)
I0411 19:43:42.627828 27286 net.cpp:165] Memory required for data: 4101787648
I0411 19:43:42.627831 27286 layer_factory.hpp:77] Creating layer fc4_300
I0411 19:43:42.627840 27286 net.cpp:100] Creating Layer fc4_300
I0411 19:43:42.627843 27286 net.cpp:434] fc4_300 <- pool3
I0411 19:43:42.627848 27286 net.cpp:408] fc4_300 -> fc4_300
I0411 19:43:42.634475 27286 net.cpp:150] Setting up fc4_300
I0411 19:43:42.634492 27286 net.cpp:157] Top shape: 1024 300 (307200)
I0411 19:43:42.634495 27286 net.cpp:165] Memory required for data: 4103016448
I0411 19:43:42.634502 27286 layer_factory.hpp:77] Creating layer fc4_prescale
I0411 19:43:42.634510 27286 net.cpp:100] Creating Layer fc4_prescale
I0411 19:43:42.634513 27286 net.cpp:434] fc4_prescale <- fc4_300
I0411 19:43:42.634518 27286 net.cpp:395] fc4_prescale -> fc4_300 (in-place)
I0411 19:43:42.634608 27286 net.cpp:150] Setting up fc4_prescale
I0411 19:43:42.634618 27286 net.cpp:157] Top shape: 1024 300 (307200)
I0411 19:43:42.634620 27286 net.cpp:165] Memory required for data: 4104245248
I0411 19:43:42.634625 27286 layer_factory.hpp:77] Creating layer fc4_sTanH
I0411 19:43:42.634630 27286 net.cpp:100] Creating Layer fc4_sTanH
I0411 19:43:42.634634 27286 net.cpp:434] fc4_sTanH <- fc4_300
I0411 19:43:42.634637 27286 net.cpp:395] fc4_sTanH -> fc4_300 (in-place)
I0411 19:43:42.634821 27286 net.cpp:150] Setting up fc4_sTanH
I0411 19:43:42.634834 27286 net.cpp:157] Top shape: 1024 300 (307200)
I0411 19:43:42.634835 27286 net.cpp:165] Memory required for data: 4105474048
I0411 19:43:42.634840 27286 layer_factory.hpp:77] Creating layer fc4_postscale
I0411 19:43:42.634846 27286 net.cpp:100] Creating Layer fc4_postscale
I0411 19:43:42.634850 27286 net.cpp:434] fc4_postscale <- fc4_300
I0411 19:43:42.634855 27286 net.cpp:395] fc4_postscale -> fc4_300 (in-place)
I0411 19:43:42.634948 27286 net.cpp:150] Setting up fc4_postscale
I0411 19:43:42.634955 27286 net.cpp:157] Top shape: 1024 300 (307200)
I0411 19:43:42.634958 27286 net.cpp:165] Memory required for data: 4106702848
I0411 19:43:42.634963 27286 layer_factory.hpp:77] Creating layer drop4
I0411 19:43:42.634969 27286 net.cpp:100] Creating Layer drop4
I0411 19:43:42.634971 27286 net.cpp:434] drop4 <- fc4_300
I0411 19:43:42.634976 27286 net.cpp:395] drop4 -> fc4_300 (in-place)
I0411 19:43:42.635002 27286 net.cpp:150] Setting up drop4
I0411 19:43:42.635010 27286 net.cpp:157] Top shape: 1024 300 (307200)
I0411 19:43:42.635012 27286 net.cpp:165] Memory required for data: 4107931648
I0411 19:43:42.635015 27286 layer_factory.hpp:77] Creating layer fc5_67
I0411 19:43:42.635020 27286 net.cpp:100] Creating Layer fc5_67
I0411 19:43:42.635025 27286 net.cpp:434] fc5_67 <- fc4_300
I0411 19:43:42.635030 27286 net.cpp:408] fc5_67 -> fc5_classes
I0411 19:43:42.637070 27286 net.cpp:150] Setting up fc5_67
I0411 19:43:42.637086 27286 net.cpp:157] Top shape: 1024 67 (68608)
I0411 19:43:42.637089 27286 net.cpp:165] Memory required for data: 4108206080
I0411 19:43:42.637100 27286 layer_factory.hpp:77] Creating layer loss
I0411 19:43:42.637106 27286 net.cpp:100] Creating Layer loss
I0411 19:43:42.637110 27286 net.cpp:434] loss <- fc5_classes
I0411 19:43:42.637115 27286 net.cpp:434] loss <- label
I0411 19:43:42.637133 27286 net.cpp:408] loss -> loss
I0411 19:43:42.637151 27286 layer_factory.hpp:77] Creating layer loss
…
I0411 19:43:42.637989 27286 solver.cpp:193] Creating test net (#0) specified by test_net file: ./Prototxt/experiment_9/rtsd-r1/orig/trial_5/test.prototxt
I0411 19:43:42.638175 27286 net.cpp:58] Initializing net from parameters: 
state {
  phase: TEST
}
layer {
  name: "data"
  type: "Data"
  top: "data"
  top: "label"
  include {
    phase: TEST
  }
  transform_param {
    scale: 0.0039215689
    mirror: false
    crop_size: 48
    mean_value: 113
    mean_value: 110
    mean_value: 132
  }
  data_param {
    source: "../local_data/lmdb/rtsd-r1/orig/test/lmdb"
    batch_size: 1024
    backend: LMDB
  }
}
layer {
  name: "conv1"
  type: "Convolution"
  bottom: "data"
  top: "conv1"
  convolution_param {
    num_output: 100
    pad: 0
    kernel_size: 7
    group: 1
    stride: 1
    weight_filler {
      type: "xavier"
    }
  }
}
layer {
  name: "conv1_prescale"
  type: "Scale"
  bottom: "conv1"
  top: "conv1"
  param {
    lr_mult: 0
    decay_mult: 0
  }
  scale_param {
    filler {
      value: 0.6666
    }
    bias_term: false
  }
}
layer {
  name: "conv1_sTanH"
  type: "TanH"
  bottom: "conv1"
  top: "conv1"
}
layer {
  name: "conv1_postscale"
  type: "Scale"
  bottom: "conv1"
  top: "conv1"
  param {
    lr_mult: 0
    decay_mult: 0
  }
  scale_param {
    filler {
      value: 1.7159
    }
    bias_term: false
  }
}
layer {
  name: "pool1"
  type: "Pooling"
  bottom: "conv1"
  top: "pool1"
  pooling_param {
    pool: MAX
    kernel_size: 2
    stride: 2
  }
}
layer {
  name: "conv2"
  type: "Convolution"
  bottom: "pool1"
  top: "conv2"
  convolution_param {
    num_output: 150
    pad: 0
    kernel_size: 4
    group: 1
    stride: 1
    weight_filler {
      type: "xavier"
    }
  }
}
layer {
  name: "conv2_prescale"
  type: "Scale"
  bottom: "conv2"
  top: "conv2"
  param {
    lr_mult: 0
    decay_mult: 0
  }
  scale_param {
    filler {
      value: 0.6666
    }
    bias_term: false
  }
}
layer {
  name: "conv2_sTanH"
  type: "TanH"
  bottom: "conv2"
  top: "conv2"
}
layer {
  name: "conv2_postscale"
  type: "Scale"
  bottom: "conv2"
  top: "conv2"
  param {
    lr_mult: 0
    decay_mult: 0
  }
  scale_param {
    filler {
      value: 1.7159
    }
    bias_term: false
  }
}
layer {
  name: "pool2"
  type: "Pooling"
  bottom: "conv2"
  top: "pool2"
  pooling_param {
    pool: MAX
    kernel_size: 2
    stride: 2
  }
}
layer {
  name: "conv3"
  type: "Convolution"
  bottom: "pool2"
  top: "conv3"
  convolution_param {
    num_output: 250
    pad: 0
    kernel_size: 4
    group: 1
    stride: 1
    weight_filler {
      type: "xavier"
    }
  }
}
layer {
  name: "conv3_prescale"
  type: "Scale"
  bottom: "conv3"
  top: "conv3"
  param {
    lr_mult: 0
    decay_mult: 0
  }
  scale_param {
    filler {
      value: 0.6666
    }
    bias_term: false
  }
}
layer {
  name: "conv3_sTanH"
  type: "TanH"
  bottom: "conv3"
  top: "conv3"
}
layer {
  name: "conv3_postscale"
  type: "Scale"
  bottom: "conv3"
  top: "conv3"
  param {
    lr_mult: 0
    decay_mult: 0
  }
  scale_param {
    filler {
      value: 1.7159
    }
    bias_term: false
  }
}
layer {
  name: "pool3"
  type: "Pooling"
  bottom: "conv3"
  top: "pool3"
  pooling_param {
    pool: MAX
    kernel_size: 2
    stride: 2
  }
}
layer {
  name: "fc4_300"
  type: "InnerProduct"
  bottom: "pool3"
  top: "fc4_300"
  inner_product_param {
    num_output: 300
    weight_filler {
      type: "xavier"
    }
  }
}
layer {
  name: "fc4_prescale"
  type: "Scale"
  bottom: "fc4_300"
  top: "fc4_300"
  param {
    lr_mult: 0
    decay_mult: 0
  }
  scale_param {
    filler {
      value: 0.6666
    }
    bias_term: false
  }
}
layer {
  name: "fc4_sTanH"
  type: "TanH"
  bottom: "fc4_300"
  top: "fc4_300"
}
layer {
  name: "fc4_postscale"
  type: "Scale"
  bottom: "fc4_300"
  top: "fc4_300"
  param {
    lr_mult: 0
    decay_mult: 0
  }
  scale_param {
    filler {
      value: 1.7159
    }
    bias_term: false
  }
}
layer {
  name: "drop4"
  type: "Dropout"
  bottom: "fc4_300"
  top: "fc4_300"
  dropout_param {
    dropout_ratio: 0.1
  }
}
layer {
  name: "fc5_67"
  type: "InnerProduct"
  bottom: "fc4_300"
  top: "fc5_classes"
  inner_product_param {
    num_output: 67
    weight_filler {
      type: "xavier"
    }
  }
}
layer {
  name: "loss"
  type: "SoftmaxWithLoss"
  bottom: "fc5_classes"
  bottom: "label"
  top: "loss"
}
layer {
  name: "accuracy_1"
  type: "Accuracy"
  bottom: "fc5_classes"
  bottom: "label"
  top: "accuracy_1"
  include {
    phase: TEST
  }
  accuracy_param {
    top_k: 1
  }
}
layer {
  name: "accuracy_5"
  type: "Accuracy"
  bottom: "fc5_classes"
  bottom: "label"
  top: "accuracy_5"
  include {
    phase: TEST
  }
  accuracy_param {
    top_k: 5
  }
}
I0411 19:43:42.638288 27286 layer_factory.hpp:77] Creating layer data
I0411 19:43:42.638909 27286 net.cpp:100] Creating Layer data
I0411 19:43:42.638922 27286 net.cpp:408] data -> data
I0411 19:43:42.638933 27286 net.cpp:408] data -> label
I0411 19:43:42.642293 27460 db_lmdb.cpp:35] Opened lmdb ../local_data/lmdb/rtsd-r1/orig/test/lmdb
I0411 19:43:42.642433 27286 data_layer.cpp:41] output data size: 1024,3,48,48
I0411 19:43:42.689550 27286 net.cpp:150] Setting up data
I0411 19:43:42.689580 27286 net.cpp:157] Top shape: 1024 3 48 48 (7077888)
I0411 19:43:42.689585 27286 net.cpp:157] Top shape: 1024 (1024)
I0411 19:43:42.689589 27286 net.cpp:165] Memory required for data: 28315648
I0411 19:43:42.689594 27286 layer_factory.hpp:77] Creating layer label_data_1_split
I0411 19:43:42.689609 27286 net.cpp:100] Creating Layer label_data_1_split
I0411 19:43:42.689612 27286 net.cpp:434] label_data_1_split <- label
I0411 19:43:42.689621 27286 net.cpp:408] label_data_1_split -> label_data_1_split_0
I0411 19:43:42.689632 27286 net.cpp:408] label_data_1_split -> label_data_1_split_1
I0411 19:43:42.689663 27286 net.cpp:408] label_data_1_split -> label_data_1_split_2
I0411 19:43:42.689824 27286 net.cpp:150] Setting up label_data_1_split
I0411 19:43:42.689833 27286 net.cpp:157] Top shape: 1024 (1024)
I0411 19:43:42.689837 27286 net.cpp:157] Top shape: 1024 (1024)
I0411 19:43:42.689841 27286 net.cpp:157] Top shape: 1024 (1024)
I0411 19:43:42.689843 27286 net.cpp:165] Memory required for data: 28327936
I0411 19:43:42.689846 27286 layer_factory.hpp:77] Creating layer conv1
I0411 19:43:42.689860 27286 net.cpp:100] Creating Layer conv1
I0411 19:43:42.689864 27286 net.cpp:434] conv1 <- data
I0411 19:43:42.689872 27286 net.cpp:408] conv1 -> conv1
I0411 19:43:42.691745 27286 net.cpp:150] Setting up conv1
I0411 19:43:42.691768 27286 net.cpp:157] Top shape: 1024 100 42 42 (180633600)
I0411 19:43:42.691772 27286 net.cpp:165] Memory required for data: 750862336
I0411 19:43:42.691795 27286 layer_factory.hpp:77] Creating layer conv1_prescale
I0411 19:43:42.691807 27286 net.cpp:100] Creating Layer conv1_prescale
I0411 19:43:42.691812 27286 net.cpp:434] conv1_prescale <- conv1
I0411 19:43:42.691817 27286 net.cpp:395] conv1_prescale -> conv1 (in-place)
I0411 19:43:42.694077 27286 net.cpp:150] Setting up conv1_prescale
I0411 19:43:42.694089 27286 net.cpp:157] Top shape: 1024 100 42 42 (180633600)
I0411 19:43:42.694092 27286 net.cpp:165] Memory required for data: 1473396736
I0411 19:43:42.694100 27286 layer_factory.hpp:77] Creating layer conv1_sTanH
I0411 19:43:42.694111 27286 net.cpp:100] Creating Layer conv1_sTanH
I0411 19:43:42.694114 27286 net.cpp:434] conv1_sTanH <- conv1
I0411 19:43:42.694119 27286 net.cpp:395] conv1_sTanH -> conv1 (in-place)
I0411 19:43:42.694329 27286 net.cpp:150] Setting up conv1_sTanH
I0411 19:43:42.694342 27286 net.cpp:157] Top shape: 1024 100 42 42 (180633600)
I0411 19:43:42.694345 27286 net.cpp:165] Memory required for data: 2195931136
I0411 19:43:42.694349 27286 layer_factory.hpp:77] Creating layer conv1_postscale
I0411 19:43:42.694355 27286 net.cpp:100] Creating Layer conv1_postscale
I0411 19:43:42.694368 27286 net.cpp:434] conv1_postscale <- conv1
I0411 19:43:42.694375 27286 net.cpp:395] conv1_postscale -> conv1 (in-place)
I0411 19:43:42.694489 27286 net.cpp:150] Setting up conv1_postscale
I0411 19:43:42.694499 27286 net.cpp:157] Top shape: 1024 100 42 42 (180633600)
I0411 19:43:42.694501 27286 net.cpp:165] Memory required for data: 2918465536
I0411 19:43:42.694506 27286 layer_factory.hpp:77] Creating layer pool1
I0411 19:43:42.694514 27286 net.cpp:100] Creating Layer pool1
I0411 19:43:42.694516 27286 net.cpp:434] pool1 <- conv1
I0411 19:43:42.694524 27286 net.cpp:408] pool1 -> pool1
I0411 19:43:42.694567 27286 net.cpp:150] Setting up pool1
I0411 19:43:42.694577 27286 net.cpp:157] Top shape: 1024 100 21 21 (45158400)
I0411 19:43:42.694581 27286 net.cpp:165] Memory required for data: 3099099136
I0411 19:43:42.694583 27286 layer_factory.hpp:77] Creating layer conv2
I0411 19:43:42.694593 27286 net.cpp:100] Creating Layer conv2
I0411 19:43:42.694597 27286 net.cpp:434] conv2 <- pool1
I0411 19:43:42.694603 27286 net.cpp:408] conv2 -> conv2
I0411 19:43:42.698539 27286 net.cpp:150] Setting up conv2
I0411 19:43:42.698556 27286 net.cpp:157] Top shape: 1024 150 18 18 (49766400)
I0411 19:43:42.698561 27286 net.cpp:165] Memory required for data: 3298164736
I0411 19:43:42.698572 27286 layer_factory.hpp:77] Creating layer conv2_prescale
I0411 19:43:42.698581 27286 net.cpp:100] Creating Layer conv2_prescale
I0411 19:43:42.698585 27286 net.cpp:434] conv2_prescale <- conv2
I0411 19:43:42.698592 27286 net.cpp:395] conv2_prescale -> conv2 (in-place)
I0411 19:43:42.698709 27286 net.cpp:150] Setting up conv2_prescale
I0411 19:43:42.698720 27286 net.cpp:157] Top shape: 1024 150 18 18 (49766400)
I0411 19:43:42.698734 27286 net.cpp:165] Memory required for data: 3497230336
I0411 19:43:42.698738 27286 layer_factory.hpp:77] Creating layer conv2_sTanH
I0411 19:43:42.698745 27286 net.cpp:100] Creating Layer conv2_sTanH
I0411 19:43:42.698750 27286 net.cpp:434] conv2_sTanH <- conv2
I0411 19:43:42.698755 27286 net.cpp:395] conv2_sTanH -> conv2 (in-place)
I0411 19:43:42.699633 27286 net.cpp:150] Setting up conv2_sTanH
I0411 19:43:42.699651 27286 net.cpp:157] Top shape: 1024 150 18 18 (49766400)
I0411 19:43:42.699654 27286 net.cpp:165] Memory required for data: 3696295936
I0411 19:43:42.699657 27286 layer_factory.hpp:77] Creating layer conv2_postscale
I0411 19:43:42.699666 27286 net.cpp:100] Creating Layer conv2_postscale
I0411 19:43:42.699671 27286 net.cpp:434] conv2_postscale <- conv2
I0411 19:43:42.699676 27286 net.cpp:395] conv2_postscale -> conv2 (in-place)
I0411 19:43:42.699790 27286 net.cpp:150] Setting up conv2_postscale
I0411 19:43:42.699800 27286 net.cpp:157] Top shape: 1024 150 18 18 (49766400)
I0411 19:43:42.699803 27286 net.cpp:165] Memory required for data: 3895361536
I0411 19:43:42.699810 27286 layer_factory.hpp:77] Creating layer pool2
I0411 19:43:42.699815 27286 net.cpp:100] Creating Layer pool2
I0411 19:43:42.699817 27286 net.cpp:434] pool2 <- conv2
I0411 19:43:42.699825 27286 net.cpp:408] pool2 -> pool2
I0411 19:43:42.699873 27286 net.cpp:150] Setting up pool2
I0411 19:43:42.699898 27286 net.cpp:157] Top shape: 1024 150 9 9 (12441600)
I0411 19:43:42.699913 27286 net.cpp:165] Memory required for data: 3945127936
I0411 19:43:42.699916 27286 layer_factory.hpp:77] Creating layer conv3
I0411 19:43:42.699926 27286 net.cpp:100] Creating Layer conv3
I0411 19:43:42.699930 27286 net.cpp:434] conv3 <- pool2
I0411 19:43:42.699935 27286 net.cpp:408] conv3 -> conv3
I0411 19:43:42.705693 27286 net.cpp:150] Setting up conv3
I0411 19:43:42.705711 27286 net.cpp:157] Top shape: 1024 250 6 6 (9216000)
I0411 19:43:42.705715 27286 net.cpp:165] Memory required for data: 3981991936
I0411 19:43:42.705725 27286 layer_factory.hpp:77] Creating layer conv3_prescale
I0411 19:43:42.705735 27286 net.cpp:100] Creating Layer conv3_prescale
I0411 19:43:42.705741 27286 net.cpp:434] conv3_prescale <- conv3
I0411 19:43:42.705749 27286 net.cpp:395] conv3_prescale -> conv3 (in-place)
I0411 19:43:42.705854 27286 net.cpp:150] Setting up conv3_prescale
I0411 19:43:42.705864 27286 net.cpp:157] Top shape: 1024 250 6 6 (9216000)
I0411 19:43:42.705868 27286 net.cpp:165] Memory required for data: 4018855936
I0411 19:43:42.705871 27286 layer_factory.hpp:77] Creating layer conv3_sTanH
I0411 19:43:42.705878 27286 net.cpp:100] Creating Layer conv3_sTanH
I0411 19:43:42.705880 27286 net.cpp:434] conv3_sTanH <- conv3
I0411 19:43:42.705886 27286 net.cpp:395] conv3_sTanH -> conv3 (in-place)
I0411 19:43:42.707767 27286 net.cpp:150] Setting up conv3_sTanH
I0411 19:43:42.707787 27286 net.cpp:157] Top shape: 1024 250 6 6 (9216000)
I0411 19:43:42.707790 27286 net.cpp:165] Memory required for data: 4055719936
I0411 19:43:42.707794 27286 layer_factory.hpp:77] Creating layer conv3_postscale
I0411 19:43:42.707801 27286 net.cpp:100] Creating Layer conv3_postscale
I0411 19:43:42.707804 27286 net.cpp:434] conv3_postscale <- conv3
I0411 19:43:42.707813 27286 net.cpp:395] conv3_postscale -> conv3 (in-place)
I0411 19:43:42.707937 27286 net.cpp:150] Setting up conv3_postscale
I0411 19:43:42.707950 27286 net.cpp:157] Top shape: 1024 250 6 6 (9216000)
I0411 19:43:42.707952 27286 net.cpp:165] Memory required for data: 4092583936
I0411 19:43:42.707958 27286 layer_factory.hpp:77] Creating layer pool3
I0411 19:43:42.707968 27286 net.cpp:100] Creating Layer pool3
I0411 19:43:42.707974 27286 net.cpp:434] pool3 <- conv3
I0411 19:43:42.707981 27286 net.cpp:408] pool3 -> pool3
I0411 19:43:42.708024 27286 net.cpp:150] Setting up pool3
I0411 19:43:42.708032 27286 net.cpp:157] Top shape: 1024 250 3 3 (2304000)
I0411 19:43:42.708035 27286 net.cpp:165] Memory required for data: 4101799936
I0411 19:43:42.708039 27286 layer_factory.hpp:77] Creating layer fc4_300
I0411 19:43:42.708047 27286 net.cpp:100] Creating Layer fc4_300
I0411 19:43:42.708051 27286 net.cpp:434] fc4_300 <- pool3
I0411 19:43:42.708056 27286 net.cpp:408] fc4_300 -> fc4_300
I0411 19:43:42.713603 27286 net.cpp:150] Setting up fc4_300
I0411 19:43:42.713627 27286 net.cpp:157] Top shape: 1024 300 (307200)
I0411 19:43:42.713630 27286 net.cpp:165] Memory required for data: 4103028736
I0411 19:43:42.713654 27286 layer_factory.hpp:77] Creating layer fc4_prescale
I0411 19:43:42.713670 27286 net.cpp:100] Creating Layer fc4_prescale
I0411 19:43:42.713676 27286 net.cpp:434] fc4_prescale <- fc4_300
I0411 19:43:42.713682 27286 net.cpp:395] fc4_prescale -> fc4_300 (in-place)
I0411 19:43:42.713784 27286 net.cpp:150] Setting up fc4_prescale
I0411 19:43:42.713793 27286 net.cpp:157] Top shape: 1024 300 (307200)
I0411 19:43:42.713795 27286 net.cpp:165] Memory required for data: 4104257536
I0411 19:43:42.713800 27286 layer_factory.hpp:77] Creating layer fc4_sTanH
I0411 19:43:42.713805 27286 net.cpp:100] Creating Layer fc4_sTanH
I0411 19:43:42.713809 27286 net.cpp:434] fc4_sTanH <- fc4_300
I0411 19:43:42.713814 27286 net.cpp:395] fc4_sTanH -> fc4_300 (in-place)
I0411 19:43:42.714021 27286 net.cpp:150] Setting up fc4_sTanH
I0411 19:43:42.714033 27286 net.cpp:157] Top shape: 1024 300 (307200)
I0411 19:43:42.714036 27286 net.cpp:165] Memory required for data: 4105486336
I0411 19:43:42.714040 27286 layer_factory.hpp:77] Creating layer fc4_postscale
I0411 19:43:42.714049 27286 net.cpp:100] Creating Layer fc4_postscale
I0411 19:43:42.714054 27286 net.cpp:434] fc4_postscale <- fc4_300
I0411 19:43:42.714059 27286 net.cpp:395] fc4_postscale -> fc4_300 (in-place)
I0411 19:43:42.714166 27286 net.cpp:150] Setting up fc4_postscale
I0411 19:43:42.714175 27286 net.cpp:157] Top shape: 1024 300 (307200)
I0411 19:43:42.714177 27286 net.cpp:165] Memory required for data: 4106715136
I0411 19:43:42.714182 27286 layer_factory.hpp:77] Creating layer drop4
I0411 19:43:42.714188 27286 net.cpp:100] Creating Layer drop4
I0411 19:43:42.714191 27286 net.cpp:434] drop4 <- fc4_300
I0411 19:43:42.714197 27286 net.cpp:395] drop4 -> fc4_300 (in-place)
I0411 19:43:42.714222 27286 net.cpp:150] Setting up drop4
I0411 19:43:42.714231 27286 net.cpp:157] Top shape: 1024 300 (307200)
I0411 19:43:42.714234 27286 net.cpp:165] Memory required for data: 4107943936
I0411 19:43:42.714236 27286 layer_factory.hpp:77] Creating layer fc5_67
I0411 19:43:42.714243 27286 net.cpp:100] Creating Layer fc5_67
I0411 19:43:42.714246 27286 net.cpp:434] fc5_67 <- fc4_300
I0411 19:43:42.714251 27286 net.cpp:408] fc5_67 -> fc5_classes
I0411 19:43:42.714504 27286 net.cpp:150] Setting up fc5_67
I0411 19:43:42.714514 27286 net.cpp:157] Top shape: 1024 67 (68608)
I0411 19:43:42.714515 27286 net.cpp:165] Memory required for data: 4108218368
I0411 19:43:42.714526 27286 layer_factory.hpp:77] Creating layer fc5_classes_fc5_67_0_split
I0411 19:43:42.714535 27286 net.cpp:100] Creating Layer fc5_classes_fc5_67_0_split
I0411 19:43:42.714540 27286 net.cpp:434] fc5_classes_fc5_67_0_split <- fc5_classes
I0411 19:43:42.714545 27286 net.cpp:408] fc5_classes_fc5_67_0_split -> fc5_classes_fc5_67_0_split_0
I0411 19:43:42.714550 27286 net.cpp:408] fc5_classes_fc5_67_0_split -> fc5_classes_fc5_67_0_split_1
I0411 19:43:42.714556 27286 net.cpp:408] fc5_classes_fc5_67_0_split -> fc5_classes_fc5_67_0_split_2
I0411 19:43:42.714612 27286 net.cpp:150] Setting up fc5_classes_fc5_67_0_split
I0411 19:43:42.714619 27286 net.cpp:157] Top shape: 1024 67 (68608)
I0411 19:43:42.714622 27286 net.cpp:157] Top shape: 1024 67 (68608)
I0411 19:43:42.714625 27286 net.cpp:157] Top shape: 1024 67 (68608)
I0411 19:43:42.714628 27286 net.cpp:165] Memory required for data: 4109041664
I0411 19:43:42.714632 27286 layer_factory.hpp:77] Creating layer loss
I0411 19:43:42.714637 27286 net.cpp:100] Creating Layer loss
I0411 19:43:42.714640 27286 net.cpp:434] loss <- fc5_classes_fc5_67_0_split_0
I0411 19:43:42.714644 27286 net.cpp:434] loss <- label_data_1_split_0
I0411 19:43:42.714649 27286 net.cpp:408] loss -> loss
…
