…
I0527 21:29:30.786466 22358 solver.cpp:81] Creating training net from train_net file: ./Prototxt/experiment_20/RTSD/CoNorm/trial_3/train.prototxt
I0527 21:29:30.786815 22358 net.cpp:58] Initializing net from parameters: 
state {
  phase: TRAIN
  level: 0
  stage: ""
}
layer {
  name: "data"
  type: "Data"
  top: "data"
  top: "label"
  include {
    phase: TRAIN
  }
  transform_param {
    scale: 0.0039215689
    mirror: false
    crop_size: 48
    mean_value: 135
    mean_value: 135
    mean_value: 134
  }
  data_param {
    source: "../local_data/lmdb/RTSD/CoNorm/train/lmdb"
    batch_size: 1024
    backend: LMDB
  }
}
layer {
  name: "conv1"
  type: "Convolution"
  bottom: "data"
  top: "conv1"
  convolution_param {
    num_output: 100
    pad: 0
    kernel_size: 7
    group: 1
    stride: 1
    weight_filler {
      type: "xavier"
    }
  }
}
layer {
  name: "conv1_relu"
  type: "ReLU"
  bottom: "conv1"
  top: "conv1"
}
layer {
  name: "pool1"
  type: "Pooling"
  bottom: "conv1"
  top: "pool1"
  pooling_param {
    pool: MAX
    kernel_size: 2
    stride: 2
  }
}
layer {
  name: "conv2"
  type: "Convolution"
  bottom: "pool1"
  top: "conv2"
  convolution_param {
    num_output: 150
    pad: 0
    kernel_size: 4
    group: 1
    stride: 1
    weight_filler {
      type: "xavier"
    }
  }
}
layer {
  name: "conv2_relu"
  type: "ReLU"
  bottom: "conv2"
  top: "conv2"
}
layer {
  name: "pool2"
  type: "Pooling"
  bottom: "conv2"
  top: "pool2"
  pooling_param {
    pool: MAX
    kernel_size: 2
    stride: 2
  }
}
layer {
  name: "conv3"
  type: "Convolution"
  bottom: "pool2"
  top: "conv3"
  convolution_param {
    num_output: 250
    pad: 0
    kernel_size: 4
    group: 1
    stride: 1
    weight_filler {
      type: "xavier"
    }
  }
}
layer {
  name: "conv3_relu"
  type: "ReLU"
  bottom: "conv3"
  top: "conv3"
}
layer {
  name: "pool3"
  type: "Pooling"
  bottom: "conv3"
  top: "pool3"
  pooling_param {
    pool: MAX
    kernel_size: 2
    stride: 2
  }
}
layer {
  name: "fc4_300"
  type: "InnerProduct"
  bottom: "pool3"
  top: "fc4_300"
  inner_product_param {
    num_output: 300
    weight_filler {
      type: "xavier"
    }
  }
}
layer {
  name: "fc4_relu"
  type: "ReLU"
  bottom: "fc4_300"
  top: "fc4_300"
}
layer {
  name: "fc5_116"
  type: "InnerProduct"
  bottom: "fc4_300"
  top: "fc5_classes"
  inner_product_param {
    num_output: 116
    weight_filler {
      type: "xavier"
    }
  }
}
layer {
  name: "softmax"
  type: "Softmax"
  bottom: "fc5_classes"
  top: "softmax"
}
layer {
  name: "loss"
  type: "MultinomialLogisticLoss"
  bottom: "softmax"
  bottom: "label"
  top: "loss"
}
layer {
  name: "accuracy_1"
  type: "Accuracy"
  bottom: "fc5_classes"
  bottom: "label"
  top: "accuracy_1"
  accuracy_param {
    top_k: 1
  }
}
layer {
  name: "accuracy_5"
  type: "Accuracy"
  bottom: "fc5_classes"
  bottom: "label"
  top: "accuracy_5"
  accuracy_param {
    top_k: 5
  }
}
layer {
  name: "silence"
  type: "Silence"
  bottom: "accuracy_1"
  bottom: "accuracy_5"
}
I0527 21:29:30.786906 22358 layer_factory.hpp:77] Creating layer data
I0527 21:29:30.787663 22358 net.cpp:100] Creating Layer data
I0527 21:29:30.787683 22358 net.cpp:408] data -> data
I0527 21:29:30.787711 22358 net.cpp:408] data -> label
I0527 21:29:30.788436 22396 db_lmdb.cpp:35] Opened lmdb ../local_data/lmdb/RTSD/CoNorm/train/lmdb
I0527 21:29:30.808068 22358 data_layer.cpp:41] output data size: 1024,3,48,48
I0527 21:29:30.853058 22358 net.cpp:150] Setting up data
I0527 21:29:30.853118 22358 net.cpp:157] Top shape: 1024 3 48 48 (7077888)
I0527 21:29:30.853127 22358 net.cpp:157] Top shape: 1024 (1024)
I0527 21:29:30.853133 22358 net.cpp:165] Memory required for data: 28315648
I0527 21:29:30.853147 22358 layer_factory.hpp:77] Creating layer label_data_1_split
I0527 21:29:30.853160 22358 net.cpp:100] Creating Layer label_data_1_split
I0527 21:29:30.853168 22358 net.cpp:434] label_data_1_split <- label
I0527 21:29:30.853183 22358 net.cpp:408] label_data_1_split -> label_data_1_split_0
I0527 21:29:30.853195 22358 net.cpp:408] label_data_1_split -> label_data_1_split_1
I0527 21:29:30.853204 22358 net.cpp:408] label_data_1_split -> label_data_1_split_2
I0527 21:29:30.853266 22358 net.cpp:150] Setting up label_data_1_split
I0527 21:29:30.853279 22358 net.cpp:157] Top shape: 1024 (1024)
I0527 21:29:30.853286 22358 net.cpp:157] Top shape: 1024 (1024)
I0527 21:29:30.853291 22358 net.cpp:157] Top shape: 1024 (1024)
I0527 21:29:30.853296 22358 net.cpp:165] Memory required for data: 28327936
I0527 21:29:30.853302 22358 layer_factory.hpp:77] Creating layer conv1
I0527 21:29:30.853322 22358 net.cpp:100] Creating Layer conv1
I0527 21:29:30.853327 22358 net.cpp:434] conv1 <- data
I0527 21:29:30.853337 22358 net.cpp:408] conv1 -> conv1
I0527 21:29:31.085554 22358 net.cpp:150] Setting up conv1
I0527 21:29:31.085584 22358 net.cpp:157] Top shape: 1024 100 42 42 (180633600)
I0527 21:29:31.085592 22358 net.cpp:165] Memory required for data: 750862336
I0527 21:29:31.085610 22358 layer_factory.hpp:77] Creating layer conv1_relu
I0527 21:29:31.085625 22358 net.cpp:100] Creating Layer conv1_relu
I0527 21:29:31.085633 22358 net.cpp:434] conv1_relu <- conv1
I0527 21:29:31.085644 22358 net.cpp:395] conv1_relu -> conv1 (in-place)
I0527 21:29:31.085789 22358 net.cpp:150] Setting up conv1_relu
I0527 21:29:31.085804 22358 net.cpp:157] Top shape: 1024 100 42 42 (180633600)
I0527 21:29:31.085809 22358 net.cpp:165] Memory required for data: 1473396736
I0527 21:29:31.085816 22358 layer_factory.hpp:77] Creating layer pool1
I0527 21:29:31.085829 22358 net.cpp:100] Creating Layer pool1
I0527 21:29:31.085839 22358 net.cpp:434] pool1 <- conv1
I0527 21:29:31.085849 22358 net.cpp:408] pool1 -> pool1
I0527 21:29:31.085898 22358 net.cpp:150] Setting up pool1
I0527 21:29:31.085909 22358 net.cpp:157] Top shape: 1024 100 21 21 (45158400)
I0527 21:29:31.085916 22358 net.cpp:165] Memory required for data: 1654030336
I0527 21:29:31.085922 22358 layer_factory.hpp:77] Creating layer conv2
I0527 21:29:31.085935 22358 net.cpp:100] Creating Layer conv2
I0527 21:29:31.085945 22358 net.cpp:434] conv2 <- pool1
I0527 21:29:31.085954 22358 net.cpp:408] conv2 -> conv2
I0527 21:29:31.088796 22358 net.cpp:150] Setting up conv2
I0527 21:29:31.088812 22358 net.cpp:157] Top shape: 1024 150 18 18 (49766400)
I0527 21:29:31.088819 22358 net.cpp:165] Memory required for data: 1853095936
I0527 21:29:31.088834 22358 layer_factory.hpp:77] Creating layer conv2_relu
I0527 21:29:31.088843 22358 net.cpp:100] Creating Layer conv2_relu
I0527 21:29:31.088850 22358 net.cpp:434] conv2_relu <- conv2
I0527 21:29:31.088860 22358 net.cpp:395] conv2_relu -> conv2 (in-place)
I0527 21:29:31.089000 22358 net.cpp:150] Setting up conv2_relu
I0527 21:29:31.089015 22358 net.cpp:157] Top shape: 1024 150 18 18 (49766400)
I0527 21:29:31.089020 22358 net.cpp:165] Memory required for data: 2052161536
I0527 21:29:31.089027 22358 layer_factory.hpp:77] Creating layer pool2
I0527 21:29:31.089038 22358 net.cpp:100] Creating Layer pool2
I0527 21:29:31.089046 22358 net.cpp:434] pool2 <- conv2
I0527 21:29:31.089054 22358 net.cpp:408] pool2 -> pool2
I0527 21:29:31.089097 22358 net.cpp:150] Setting up pool2
I0527 21:29:31.089107 22358 net.cpp:157] Top shape: 1024 150 9 9 (12441600)
I0527 21:29:31.089114 22358 net.cpp:165] Memory required for data: 2101927936
I0527 21:29:31.089119 22358 layer_factory.hpp:77] Creating layer conv3
I0527 21:29:31.089133 22358 net.cpp:100] Creating Layer conv3
I0527 21:29:31.089145 22358 net.cpp:434] conv3 <- pool2
I0527 21:29:31.089157 22358 net.cpp:408] conv3 -> conv3
I0527 21:29:31.093740 22358 net.cpp:150] Setting up conv3
I0527 21:29:31.093760 22358 net.cpp:157] Top shape: 1024 250 6 6 (9216000)
I0527 21:29:31.093765 22358 net.cpp:165] Memory required for data: 2138791936
I0527 21:29:31.093780 22358 layer_factory.hpp:77] Creating layer conv3_relu
I0527 21:29:31.093789 22358 net.cpp:100] Creating Layer conv3_relu
I0527 21:29:31.093796 22358 net.cpp:434] conv3_relu <- conv3
I0527 21:29:31.093806 22358 net.cpp:395] conv3_relu -> conv3 (in-place)
I0527 21:29:31.094156 22358 net.cpp:150] Setting up conv3_relu
I0527 21:29:31.094171 22358 net.cpp:157] Top shape: 1024 250 6 6 (9216000)
I0527 21:29:31.094177 22358 net.cpp:165] Memory required for data: 2175655936
I0527 21:29:31.094184 22358 layer_factory.hpp:77] Creating layer pool3
I0527 21:29:31.094197 22358 net.cpp:100] Creating Layer pool3
I0527 21:29:31.094203 22358 net.cpp:434] pool3 <- conv3
I0527 21:29:31.094213 22358 net.cpp:408] pool3 -> pool3
I0527 21:29:31.094261 22358 net.cpp:150] Setting up pool3
I0527 21:29:31.094271 22358 net.cpp:157] Top shape: 1024 250 3 3 (2304000)
I0527 21:29:31.094277 22358 net.cpp:165] Memory required for data: 2184871936
I0527 21:29:31.094283 22358 layer_factory.hpp:77] Creating layer fc4_300
I0527 21:29:31.094295 22358 net.cpp:100] Creating Layer fc4_300
I0527 21:29:31.094305 22358 net.cpp:434] fc4_300 <- pool3
I0527 21:29:31.094312 22358 net.cpp:408] fc4_300 -> fc4_300
I0527 21:29:31.099283 22358 net.cpp:150] Setting up fc4_300
I0527 21:29:31.099301 22358 net.cpp:157] Top shape: 1024 300 (307200)
I0527 21:29:31.099309 22358 net.cpp:165] Memory required for data: 2186100736
I0527 21:29:31.099319 22358 layer_factory.hpp:77] Creating layer fc4_relu
I0527 21:29:31.099333 22358 net.cpp:100] Creating Layer fc4_relu
I0527 21:29:31.099341 22358 net.cpp:434] fc4_relu <- fc4_300
I0527 21:29:31.099350 22358 net.cpp:395] fc4_relu -> fc4_300 (in-place)
I0527 21:29:31.099496 22358 net.cpp:150] Setting up fc4_relu
I0527 21:29:31.099514 22358 net.cpp:157] Top shape: 1024 300 (307200)
I0527 21:29:31.099524 22358 net.cpp:165] Memory required for data: 2187329536
I0527 21:29:31.099532 22358 layer_factory.hpp:77] Creating layer fc5_116
I0527 21:29:31.099544 22358 net.cpp:100] Creating Layer fc5_116
I0527 21:29:31.099551 22358 net.cpp:434] fc5_116 <- fc4_300
I0527 21:29:31.099568 22358 net.cpp:408] fc5_116 -> fc5_classes
I0527 21:29:31.100541 22358 net.cpp:150] Setting up fc5_116
I0527 21:29:31.100558 22358 net.cpp:157] Top shape: 1024 116 (118784)
I0527 21:29:31.100564 22358 net.cpp:165] Memory required for data: 2187804672
I0527 21:29:31.100579 22358 layer_factory.hpp:77] Creating layer fc5_classes_fc5_116_0_split
I0527 21:29:31.100591 22358 net.cpp:100] Creating Layer fc5_classes_fc5_116_0_split
I0527 21:29:31.100606 22358 net.cpp:434] fc5_classes_fc5_116_0_split <- fc5_classes
I0527 21:29:31.100616 22358 net.cpp:408] fc5_classes_fc5_116_0_split -> fc5_classes_fc5_116_0_split_0
I0527 21:29:31.100633 22358 net.cpp:408] fc5_classes_fc5_116_0_split -> fc5_classes_fc5_116_0_split_1
I0527 21:29:31.100648 22358 net.cpp:408] fc5_classes_fc5_116_0_split -> fc5_classes_fc5_116_0_split_2
I0527 21:29:31.100715 22358 net.cpp:150] Setting up fc5_classes_fc5_116_0_split
I0527 21:29:31.100729 22358 net.cpp:157] Top shape: 1024 116 (118784)
I0527 21:29:31.100739 22358 net.cpp:157] Top shape: 1024 116 (118784)
I0527 21:29:31.100746 22358 net.cpp:157] Top shape: 1024 116 (118784)
I0527 21:29:31.100754 22358 net.cpp:165] Memory required for data: 2189230080
I0527 21:29:31.100761 22358 layer_factory.hpp:77] Creating layer softmax
I0527 21:29:31.100771 22358 net.cpp:100] Creating Layer softmax
I0527 21:29:31.100780 22358 net.cpp:434] softmax <- fc5_classes_fc5_116_0_split_0
I0527 21:29:31.100792 22358 net.cpp:408] softmax -> softmax
I0527 21:29:31.100986 22358 net.cpp:150] Setting up softmax
I0527 21:29:31.101002 22358 net.cpp:157] Top shape: 1024 116 (118784)
I0527 21:29:31.101011 22358 net.cpp:165] Memory required for data: 2189705216
I0527 21:29:31.101016 22358 layer_factory.hpp:77] Creating layer loss
I0527 21:29:31.101047 22358 net.cpp:100] Creating Layer loss
I0527 21:29:31.101056 22358 net.cpp:434] loss <- softmax
I0527 21:29:31.101064 22358 net.cpp:434] loss <- label_data_1_split_0
I0527 21:29:31.101073 22358 net.cpp:408] loss -> loss
…
