…
I0527 22:34:08.917394 28621 solver.cpp:81] Creating training net from train_net file: ./Prototxt/experiment_20/RTSD/CoNorm/trial_3/train.prototxt
I0527 22:34:08.917815 28621 net.cpp:58] Initializing net from parameters: 
state {
  phase: TRAIN
  level: 0
  stage: ""
}
layer {
  name: "data"
  type: "Data"
  top: "data"
  top: "label"
  include {
    phase: TRAIN
  }
  transform_param {
    scale: 0.0039215689
    mirror: false
    crop_size: 48
    mean_value: 135
    mean_value: 135
    mean_value: 134
  }
  data_param {
    source: "../local_data/lmdb/RTSD/CoNorm/train/lmdb"
    batch_size: 1024
    backend: LMDB
  }
}
layer {
  name: "conv1"
  type: "Convolution"
  bottom: "data"
  top: "conv1"
  convolution_param {
    num_output: 100
    pad: 0
    kernel_size: 7
    group: 1
    stride: 1
    weight_filler {
      type: "xavier"
    }
  }
}
layer {
  name: "conv1_relu"
  type: "ReLU"
  bottom: "conv1"
  top: "conv1"
}
layer {
  name: "pool1"
  type: "Pooling"
  bottom: "conv1"
  top: "pool1"
  pooling_param {
    pool: MAX
    kernel_size: 2
    stride: 2
  }
}
layer {
  name: "conv2"
  type: "Convolution"
  bottom: "pool1"
  top: "conv2"
  convolution_param {
    num_output: 150
    pad: 0
    kernel_size: 4
    group: 1
    stride: 1
    weight_filler {
      type: "xavier"
    }
  }
}
layer {
  name: "conv2_relu"
  type: "ReLU"
  bottom: "conv2"
  top: "conv2"
}
layer {
  name: "pool2"
  type: "Pooling"
  bottom: "conv2"
  top: "pool2"
  pooling_param {
    pool: MAX
    kernel_size: 2
    stride: 2
  }
}
layer {
  name: "conv3"
  type: "Convolution"
  bottom: "pool2"
  top: "conv3"
  convolution_param {
    num_output: 250
    pad: 0
    kernel_size: 4
    group: 1
    stride: 1
    weight_filler {
      type: "xavier"
    }
  }
}
layer {
  name: "conv3_relu"
  type: "ReLU"
  bottom: "conv3"
  top: "conv3"
}
layer {
  name: "pool3"
  type: "Pooling"
  bottom: "conv3"
  top: "pool3"
  pooling_param {
    pool: MAX
    kernel_size: 2
    stride: 2
  }
}
layer {
  name: "fc4_300"
  type: "InnerProduct"
  bottom: "pool3"
  top: "fc4_300"
  inner_product_param {
    num_output: 300
    weight_filler {
      type: "xavier"
    }
  }
}
layer {
  name: "fc4_relu"
  type: "ReLU"
  bottom: "fc4_300"
  top: "fc4_300"
}
layer {
  name: "fc5_116"
  type: "InnerProduct"
  bottom: "fc4_300"
  top: "fc5_classes"
  inner_product_param {
    num_output: 116
    weight_filler {
      type: "xavier"
    }
  }
}
layer {
  name: "softmax"
  type: "Softmax"
  bottom: "fc5_classes"
  top: "softmax"
}
layer {
  name: "loss"
  type: "MultinomialLogisticLoss"
  bottom: "softmax"
  bottom: "label"
  top: "loss"
}
layer {
  name: "accuracy_1"
  type: "Accuracy"
  bottom: "fc5_classes"
  bottom: "label"
  top: "accuracy_1"
  accuracy_param {
    top_k: 1
  }
}
layer {
  name: "accuracy_5"
  type: "Accuracy"
  bottom: "fc5_classes"
  bottom: "label"
  top: "accuracy_5"
  accuracy_param {
    top_k: 5
  }
}
layer {
  name: "silence"
  type: "Silence"
  bottom: "accuracy_1"
  bottom: "accuracy_5"
}
I0527 22:34:08.918426 28621 layer_factory.hpp:77] Creating layer data
I0527 22:34:08.919448 28621 net.cpp:100] Creating Layer data
I0527 22:34:08.919484 28621 net.cpp:408] data -> data
I0527 22:34:08.919517 28621 net.cpp:408] data -> label
I0527 22:34:08.921108 28667 db_lmdb.cpp:35] Opened lmdb ../local_data/lmdb/RTSD/CoNorm/train/lmdb
I0527 22:34:08.938930 28621 data_layer.cpp:41] output data size: 1024,3,48,48
I0527 22:34:08.993899 28621 net.cpp:150] Setting up data
I0527 22:34:08.993968 28621 net.cpp:157] Top shape: 1024 3 48 48 (7077888)
I0527 22:34:08.993978 28621 net.cpp:157] Top shape: 1024 (1024)
I0527 22:34:08.993984 28621 net.cpp:165] Memory required for data: 28315648
I0527 22:34:08.993999 28621 layer_factory.hpp:77] Creating layer label_data_1_split
I0527 22:34:08.994014 28621 net.cpp:100] Creating Layer label_data_1_split
I0527 22:34:08.994029 28621 net.cpp:434] label_data_1_split <- label
I0527 22:34:08.994047 28621 net.cpp:408] label_data_1_split -> label_data_1_split_0
I0527 22:34:08.994065 28621 net.cpp:408] label_data_1_split -> label_data_1_split_1
I0527 22:34:08.994079 28621 net.cpp:408] label_data_1_split -> label_data_1_split_2
I0527 22:34:08.994133 28621 net.cpp:150] Setting up label_data_1_split
I0527 22:34:08.994146 28621 net.cpp:157] Top shape: 1024 (1024)
I0527 22:34:08.994154 28621 net.cpp:157] Top shape: 1024 (1024)
I0527 22:34:08.994161 28621 net.cpp:157] Top shape: 1024 (1024)
I0527 22:34:08.994168 28621 net.cpp:165] Memory required for data: 28327936
I0527 22:34:08.994174 28621 layer_factory.hpp:77] Creating layer conv1
I0527 22:34:08.994195 28621 net.cpp:100] Creating Layer conv1
I0527 22:34:08.994205 28621 net.cpp:434] conv1 <- data
I0527 22:34:08.994215 28621 net.cpp:408] conv1 -> conv1
I0527 22:34:09.224275 28621 net.cpp:150] Setting up conv1
I0527 22:34:09.224304 28621 net.cpp:157] Top shape: 1024 100 42 42 (180633600)
I0527 22:34:09.224310 28621 net.cpp:165] Memory required for data: 750862336
I0527 22:34:09.224324 28621 layer_factory.hpp:77] Creating layer conv1_relu
I0527 22:34:09.224335 28621 net.cpp:100] Creating Layer conv1_relu
I0527 22:34:09.224341 28621 net.cpp:434] conv1_relu <- conv1
I0527 22:34:09.224347 28621 net.cpp:395] conv1_relu -> conv1 (in-place)
I0527 22:34:09.224493 28621 net.cpp:150] Setting up conv1_relu
I0527 22:34:09.224504 28621 net.cpp:157] Top shape: 1024 100 42 42 (180633600)
I0527 22:34:09.224509 28621 net.cpp:165] Memory required for data: 1473396736
I0527 22:34:09.224512 28621 layer_factory.hpp:77] Creating layer pool1
I0527 22:34:09.224521 28621 net.cpp:100] Creating Layer pool1
I0527 22:34:09.224525 28621 net.cpp:434] pool1 <- conv1
I0527 22:34:09.224530 28621 net.cpp:408] pool1 -> pool1
I0527 22:34:09.224572 28621 net.cpp:150] Setting up pool1
I0527 22:34:09.224581 28621 net.cpp:157] Top shape: 1024 100 21 21 (45158400)
I0527 22:34:09.224586 28621 net.cpp:165] Memory required for data: 1654030336
I0527 22:34:09.224589 28621 layer_factory.hpp:77] Creating layer conv2
I0527 22:34:09.224598 28621 net.cpp:100] Creating Layer conv2
I0527 22:34:09.224602 28621 net.cpp:434] conv2 <- pool1
I0527 22:34:09.224608 28621 net.cpp:408] conv2 -> conv2
I0527 22:34:09.227720 28621 net.cpp:150] Setting up conv2
I0527 22:34:09.227737 28621 net.cpp:157] Top shape: 1024 150 18 18 (49766400)
I0527 22:34:09.227742 28621 net.cpp:165] Memory required for data: 1853095936
I0527 22:34:09.227751 28621 layer_factory.hpp:77] Creating layer conv2_relu
I0527 22:34:09.227758 28621 net.cpp:100] Creating Layer conv2_relu
I0527 22:34:09.227762 28621 net.cpp:434] conv2_relu <- conv2
I0527 22:34:09.227768 28621 net.cpp:395] conv2_relu -> conv2 (in-place)
I0527 22:34:09.227896 28621 net.cpp:150] Setting up conv2_relu
I0527 22:34:09.227908 28621 net.cpp:157] Top shape: 1024 150 18 18 (49766400)
I0527 22:34:09.227912 28621 net.cpp:165] Memory required for data: 2052161536
I0527 22:34:09.227917 28621 layer_factory.hpp:77] Creating layer pool2
I0527 22:34:09.227924 28621 net.cpp:100] Creating Layer pool2
I0527 22:34:09.227927 28621 net.cpp:434] pool2 <- conv2
I0527 22:34:09.227933 28621 net.cpp:408] pool2 -> pool2
I0527 22:34:09.227967 28621 net.cpp:150] Setting up pool2
I0527 22:34:09.227972 28621 net.cpp:157] Top shape: 1024 150 9 9 (12441600)
I0527 22:34:09.227977 28621 net.cpp:165] Memory required for data: 2101927936
I0527 22:34:09.227980 28621 layer_factory.hpp:77] Creating layer conv3
I0527 22:34:09.227990 28621 net.cpp:100] Creating Layer conv3
I0527 22:34:09.227993 28621 net.cpp:434] conv3 <- pool2
I0527 22:34:09.227999 28621 net.cpp:408] conv3 -> conv3
I0527 22:34:09.232893 28621 net.cpp:150] Setting up conv3
I0527 22:34:09.232924 28621 net.cpp:157] Top shape: 1024 250 6 6 (9216000)
I0527 22:34:09.232929 28621 net.cpp:165] Memory required for data: 2138791936
I0527 22:34:09.232947 28621 layer_factory.hpp:77] Creating layer conv3_relu
I0527 22:34:09.232955 28621 net.cpp:100] Creating Layer conv3_relu
I0527 22:34:09.232959 28621 net.cpp:434] conv3_relu <- conv3
I0527 22:34:09.232965 28621 net.cpp:395] conv3_relu -> conv3 (in-place)
I0527 22:34:09.233337 28621 net.cpp:150] Setting up conv3_relu
I0527 22:34:09.233350 28621 net.cpp:157] Top shape: 1024 250 6 6 (9216000)
I0527 22:34:09.233355 28621 net.cpp:165] Memory required for data: 2175655936
I0527 22:34:09.233359 28621 layer_factory.hpp:77] Creating layer pool3
I0527 22:34:09.233366 28621 net.cpp:100] Creating Layer pool3
I0527 22:34:09.233369 28621 net.cpp:434] pool3 <- conv3
I0527 22:34:09.233376 28621 net.cpp:408] pool3 -> pool3
I0527 22:34:09.233422 28621 net.cpp:150] Setting up pool3
I0527 22:34:09.233428 28621 net.cpp:157] Top shape: 1024 250 3 3 (2304000)
I0527 22:34:09.233431 28621 net.cpp:165] Memory required for data: 2184871936
I0527 22:34:09.233435 28621 layer_factory.hpp:77] Creating layer fc4_300
I0527 22:34:09.233450 28621 net.cpp:100] Creating Layer fc4_300
I0527 22:34:09.233454 28621 net.cpp:434] fc4_300 <- pool3
I0527 22:34:09.233459 28621 net.cpp:408] fc4_300 -> fc4_300
I0527 22:34:09.238360 28621 net.cpp:150] Setting up fc4_300
I0527 22:34:09.238391 28621 net.cpp:157] Top shape: 1024 300 (307200)
I0527 22:34:09.238395 28621 net.cpp:165] Memory required for data: 2186100736
I0527 22:34:09.238414 28621 layer_factory.hpp:77] Creating layer fc4_relu
I0527 22:34:09.238430 28621 net.cpp:100] Creating Layer fc4_relu
I0527 22:34:09.238435 28621 net.cpp:434] fc4_relu <- fc4_300
I0527 22:34:09.238441 28621 net.cpp:395] fc4_relu -> fc4_300 (in-place)
I0527 22:34:09.238626 28621 net.cpp:150] Setting up fc4_relu
I0527 22:34:09.238636 28621 net.cpp:157] Top shape: 1024 300 (307200)
I0527 22:34:09.238641 28621 net.cpp:165] Memory required for data: 2187329536
I0527 22:34:09.238644 28621 layer_factory.hpp:77] Creating layer fc5_116
I0527 22:34:09.238661 28621 net.cpp:100] Creating Layer fc5_116
I0527 22:34:09.238664 28621 net.cpp:434] fc5_116 <- fc4_300
I0527 22:34:09.238670 28621 net.cpp:408] fc5_116 -> fc5_classes
I0527 22:34:09.239928 28621 net.cpp:150] Setting up fc5_116
I0527 22:34:09.239943 28621 net.cpp:157] Top shape: 1024 116 (118784)
I0527 22:34:09.239948 28621 net.cpp:165] Memory required for data: 2187804672
I0527 22:34:09.239964 28621 layer_factory.hpp:77] Creating layer fc5_classes_fc5_116_0_split
I0527 22:34:09.239971 28621 net.cpp:100] Creating Layer fc5_classes_fc5_116_0_split
I0527 22:34:09.239976 28621 net.cpp:434] fc5_classes_fc5_116_0_split <- fc5_classes
I0527 22:34:09.239982 28621 net.cpp:408] fc5_classes_fc5_116_0_split -> fc5_classes_fc5_116_0_split_0
I0527 22:34:09.239997 28621 net.cpp:408] fc5_classes_fc5_116_0_split -> fc5_classes_fc5_116_0_split_1
I0527 22:34:09.240010 28621 net.cpp:408] fc5_classes_fc5_116_0_split -> fc5_classes_fc5_116_0_split_2
I0527 22:34:09.240048 28621 net.cpp:150] Setting up fc5_classes_fc5_116_0_split
I0527 22:34:09.240058 28621 net.cpp:157] Top shape: 1024 116 (118784)
I0527 22:34:09.240062 28621 net.cpp:157] Top shape: 1024 116 (118784)
I0527 22:34:09.240067 28621 net.cpp:157] Top shape: 1024 116 (118784)
I0527 22:34:09.240070 28621 net.cpp:165] Memory required for data: 2189230080
I0527 22:34:09.240073 28621 layer_factory.hpp:77] Creating layer softmax
I0527 22:34:09.240079 28621 net.cpp:100] Creating Layer softmax
I0527 22:34:09.240083 28621 net.cpp:434] softmax <- fc5_classes_fc5_116_0_split_0
I0527 22:34:09.240088 28621 net.cpp:408] softmax -> softmax
I0527 22:34:09.240296 28621 net.cpp:150] Setting up softmax
I0527 22:34:09.240310 28621 net.cpp:157] Top shape: 1024 116 (118784)
I0527 22:34:09.240314 28621 net.cpp:165] Memory required for data: 2189705216
I0527 22:34:09.240319 28621 layer_factory.hpp:77] Creating layer loss
I0527 22:34:09.240353 28621 net.cpp:100] Creating Layer loss
I0527 22:34:09.240358 28621 net.cpp:434] loss <- softmax
I0527 22:34:09.240365 28621 net.cpp:434] loss <- label_data_1_split_0
I0527 22:34:09.240370 28621 net.cpp:408] loss -> loss
…
