…
I0415 08:29:42.655555 25010 solver.cpp:93] Creating training net from train_net file: ./Prototxt/experiment_12/rtsd-r3/CoNorm/trial_3/train.prototxt
I0415 08:29:42.672384 25010 net.cpp:58] Initializing net from parameters: 
state {
  phase: TRAIN
  level: 0
  stage: ""
}
layer {
  name: "data"
  type: "Data"
  top: "data"
  top: "label"
  include {
    phase: TRAIN
  }
  transform_param {
    scale: 0.0039215689
    mirror: false
    crop_size: 48
    mean_value: 135
    mean_value: 134
    mean_value: 134
  }
  data_param {
    source: "../local_data/lmdb/rtsd-r3/CoNorm/train/lmdb"
    batch_size: 1024
    backend: LMDB
  }
}
layer {
  name: "conv1"
  type: "Convolution"
  bottom: "data"
  top: "conv1"
  convolution_param {
    num_output: 100
    pad: 0
    kernel_size: 7
    group: 1
    stride: 1
    weight_filler {
      type: "xavier"
    }
  }
}
layer {
  name: "conv1_relu"
  type: "ReLU"
  bottom: "conv1"
  top: "conv1"
}
layer {
  name: "pool1"
  type: "Pooling"
  bottom: "conv1"
  top: "pool1"
  pooling_param {
    pool: MAX
    kernel_size: 2
    stride: 2
  }
}
layer {
  name: "conv2"
  type: "Convolution"
  bottom: "pool1"
  top: "conv2"
  convolution_param {
    num_output: 150
    pad: 0
    kernel_size: 4
    group: 1
    stride: 1
    weight_filler {
      type: "xavier"
    }
  }
}
layer {
  name: "conv2_relu"
  type: "ReLU"
  bottom: "conv2"
  top: "conv2"
}
layer {
  name: "pool2"
  type: "Pooling"
  bottom: "conv2"
  top: "pool2"
  pooling_param {
    pool: MAX
    kernel_size: 2
    stride: 2
  }
}
layer {
  name: "conv3"
  type: "Convolution"
  bottom: "pool2"
  top: "conv3"
  convolution_param {
    num_output: 250
    pad: 0
    kernel_size: 4
    group: 1
    stride: 1
    weight_filler {
      type: "xavier"
    }
  }
}
layer {
  name: "conv3_relu"
  type: "ReLU"
  bottom: "conv3"
  top: "conv3"
}
layer {
  name: "pool3"
  type: "Pooling"
  bottom: "conv3"
  top: "pool3"
  pooling_param {
    pool: MAX
    kernel_size: 2
    stride: 2
  }
}
layer {
  name: "fc4_300"
  type: "InnerProduct"
  bottom: "pool3"
  top: "fc4_300"
  inner_product_param {
    num_output: 300
    weight_filler {
      type: "xavier"
    }
  }
}
layer {
  name: "fc4_relu"
  type: "ReLU"
  bottom: "fc4_300"
  top: "fc4_300"
}
layer {
  name: "drop4"
  type: "Dropout"
  bottom: "fc4_300"
  top: "fc4_300"
  dropout_param {
    dropout_ratio: 0.5
  }
}
layer {
  name: "fc5_106"
  type: "InnerProduct"
  bottom: "fc4_300"
  top: "fc5_classes"
  inner_product_param {
    num_output: 106
    weight_filler {
      type: "xavier"
    }
  }
}
layer {
  name: "softmax"
  type: "Softmax"
  bottom: "fc5_classes"
  top: "softmax"
}
layer {
  name: "loss"
  type: "MultinomialLogisticLoss"
  bottom: "softmax"
  bottom: "label"
  top: "loss"
}
layer {
  name: "accuracy_1"
  type: "Accuracy"
  bottom: "fc5_classes"
  bottom: "label"
  top: "accuracy_1"
  accuracy_param {
    top_k: 1
  }
}
layer {
  name: "accuracy_5"
  type: "Accuracy"
  bottom: "fc5_classes"
  bottom: "label"
  top: "accuracy_5"
  accuracy_param {
    top_k: 5
  }
}
layer {
  name: "silence"
  type: "Silence"
  bottom: "accuracy_1"
  bottom: "accuracy_5"
}
I0415 08:29:42.672530 25010 layer_factory.hpp:77] Creating layer data
I0415 08:29:42.673593 25010 net.cpp:100] Creating Layer data
I0415 08:29:42.673607 25010 net.cpp:408] data -> data
I0415 08:29:42.673643 25010 net.cpp:408] data -> label
I0415 08:29:42.685410 25231 db_lmdb.cpp:35] Opened lmdb ../local_data/lmdb/rtsd-r3/CoNorm/train/lmdb
I0415 08:29:42.703550 25010 data_layer.cpp:41] output data size: 1024,3,48,48
I0415 08:29:42.755401 25010 net.cpp:150] Setting up data
I0415 08:29:42.755434 25010 net.cpp:157] Top shape: 1024 3 48 48 (7077888)
I0415 08:29:42.755440 25010 net.cpp:157] Top shape: 1024 (1024)
I0415 08:29:42.755442 25010 net.cpp:165] Memory required for data: 28315648
I0415 08:29:42.755453 25010 layer_factory.hpp:77] Creating layer label_data_1_split
I0415 08:29:42.755468 25010 net.cpp:100] Creating Layer label_data_1_split
I0415 08:29:42.755475 25010 net.cpp:434] label_data_1_split <- label
I0415 08:29:42.755488 25010 net.cpp:408] label_data_1_split -> label_data_1_split_0
I0415 08:29:42.755503 25010 net.cpp:408] label_data_1_split -> label_data_1_split_1
I0415 08:29:42.755511 25010 net.cpp:408] label_data_1_split -> label_data_1_split_2
I0415 08:29:42.755602 25010 net.cpp:150] Setting up label_data_1_split
I0415 08:29:42.755612 25010 net.cpp:157] Top shape: 1024 (1024)
I0415 08:29:42.755619 25010 net.cpp:157] Top shape: 1024 (1024)
I0415 08:29:42.755621 25010 net.cpp:157] Top shape: 1024 (1024)
I0415 08:29:42.755625 25010 net.cpp:165] Memory required for data: 28327936
I0415 08:29:42.755627 25010 layer_factory.hpp:77] Creating layer conv1
I0415 08:29:42.755643 25010 net.cpp:100] Creating Layer conv1
I0415 08:29:42.755650 25010 net.cpp:434] conv1 <- data
I0415 08:29:42.755659 25010 net.cpp:408] conv1 -> conv1
I0415 08:29:44.303244 25010 net.cpp:150] Setting up conv1
I0415 08:29:44.303275 25010 net.cpp:157] Top shape: 1024 100 42 42 (180633600)
I0415 08:29:44.303279 25010 net.cpp:165] Memory required for data: 750862336
I0415 08:29:44.303313 25010 layer_factory.hpp:77] Creating layer conv1_relu
I0415 08:29:44.303328 25010 net.cpp:100] Creating Layer conv1_relu
I0415 08:29:44.303333 25010 net.cpp:434] conv1_relu <- conv1
I0415 08:29:44.303339 25010 net.cpp:395] conv1_relu -> conv1 (in-place)
I0415 08:29:44.303541 25010 net.cpp:150] Setting up conv1_relu
I0415 08:29:44.303553 25010 net.cpp:157] Top shape: 1024 100 42 42 (180633600)
I0415 08:29:44.303557 25010 net.cpp:165] Memory required for data: 1473396736
I0415 08:29:44.303561 25010 layer_factory.hpp:77] Creating layer pool1
I0415 08:29:44.303571 25010 net.cpp:100] Creating Layer pool1
I0415 08:29:44.303577 25010 net.cpp:434] pool1 <- conv1
I0415 08:29:44.303582 25010 net.cpp:408] pool1 -> pool1
I0415 08:29:44.303637 25010 net.cpp:150] Setting up pool1
I0415 08:29:44.303645 25010 net.cpp:157] Top shape: 1024 100 21 21 (45158400)
I0415 08:29:44.303650 25010 net.cpp:165] Memory required for data: 1654030336
I0415 08:29:44.303653 25010 layer_factory.hpp:77] Creating layer conv2
I0415 08:29:44.303664 25010 net.cpp:100] Creating Layer conv2
I0415 08:29:44.303668 25010 net.cpp:434] conv2 <- pool1
I0415 08:29:44.303674 25010 net.cpp:408] conv2 -> conv2
I0415 08:29:44.310784 25010 net.cpp:150] Setting up conv2
I0415 08:29:44.310813 25010 net.cpp:157] Top shape: 1024 150 18 18 (49766400)
I0415 08:29:44.310817 25010 net.cpp:165] Memory required for data: 1853095936
I0415 08:29:44.310832 25010 layer_factory.hpp:77] Creating layer conv2_relu
I0415 08:29:44.310842 25010 net.cpp:100] Creating Layer conv2_relu
I0415 08:29:44.310848 25010 net.cpp:434] conv2_relu <- conv2
I0415 08:29:44.310855 25010 net.cpp:395] conv2_relu -> conv2 (in-place)
I0415 08:29:44.311856 25010 net.cpp:150] Setting up conv2_relu
I0415 08:29:44.311872 25010 net.cpp:157] Top shape: 1024 150 18 18 (49766400)
I0415 08:29:44.311875 25010 net.cpp:165] Memory required for data: 2052161536
I0415 08:29:44.311899 25010 layer_factory.hpp:77] Creating layer pool2
I0415 08:29:44.311908 25010 net.cpp:100] Creating Layer pool2
I0415 08:29:44.311914 25010 net.cpp:434] pool2 <- conv2
I0415 08:29:44.311923 25010 net.cpp:408] pool2 -> pool2
I0415 08:29:44.311980 25010 net.cpp:150] Setting up pool2
I0415 08:29:44.311988 25010 net.cpp:157] Top shape: 1024 150 9 9 (12441600)
I0415 08:29:44.311992 25010 net.cpp:165] Memory required for data: 2101927936
I0415 08:29:44.311995 25010 layer_factory.hpp:77] Creating layer conv3
I0415 08:29:44.312039 25010 net.cpp:100] Creating Layer conv3
I0415 08:29:44.312047 25010 net.cpp:434] conv3 <- pool2
I0415 08:29:44.312052 25010 net.cpp:408] conv3 -> conv3
I0415 08:29:44.318290 25010 net.cpp:150] Setting up conv3
I0415 08:29:44.318322 25010 net.cpp:157] Top shape: 1024 250 6 6 (9216000)
I0415 08:29:44.318326 25010 net.cpp:165] Memory required for data: 2138791936
I0415 08:29:44.318341 25010 layer_factory.hpp:77] Creating layer conv3_relu
I0415 08:29:44.318351 25010 net.cpp:100] Creating Layer conv3_relu
I0415 08:29:44.318357 25010 net.cpp:434] conv3_relu <- conv3
I0415 08:29:44.318363 25010 net.cpp:395] conv3_relu -> conv3 (in-place)
I0415 08:29:44.319955 25010 net.cpp:150] Setting up conv3_relu
I0415 08:29:44.319973 25010 net.cpp:157] Top shape: 1024 250 6 6 (9216000)
I0415 08:29:44.319977 25010 net.cpp:165] Memory required for data: 2175655936
I0415 08:29:44.319980 25010 layer_factory.hpp:77] Creating layer pool3
I0415 08:29:44.319989 25010 net.cpp:100] Creating Layer pool3
I0415 08:29:44.319994 25010 net.cpp:434] pool3 <- conv3
I0415 08:29:44.320003 25010 net.cpp:408] pool3 -> pool3
I0415 08:29:44.320055 25010 net.cpp:150] Setting up pool3
I0415 08:29:44.320065 25010 net.cpp:157] Top shape: 1024 250 3 3 (2304000)
I0415 08:29:44.320068 25010 net.cpp:165] Memory required for data: 2184871936
I0415 08:29:44.320071 25010 layer_factory.hpp:77] Creating layer fc4_300
I0415 08:29:44.320078 25010 net.cpp:100] Creating Layer fc4_300
I0415 08:29:44.320083 25010 net.cpp:434] fc4_300 <- pool3
I0415 08:29:44.320087 25010 net.cpp:408] fc4_300 -> fc4_300
I0415 08:29:44.327714 25010 net.cpp:150] Setting up fc4_300
I0415 08:29:44.327744 25010 net.cpp:157] Top shape: 1024 300 (307200)
I0415 08:29:44.327747 25010 net.cpp:165] Memory required for data: 2186100736
I0415 08:29:44.327756 25010 layer_factory.hpp:77] Creating layer fc4_relu
I0415 08:29:44.327765 25010 net.cpp:100] Creating Layer fc4_relu
I0415 08:29:44.327769 25010 net.cpp:434] fc4_relu <- fc4_300
I0415 08:29:44.327776 25010 net.cpp:395] fc4_relu -> fc4_300 (in-place)
I0415 08:29:44.328017 25010 net.cpp:150] Setting up fc4_relu
I0415 08:29:44.328032 25010 net.cpp:157] Top shape: 1024 300 (307200)
I0415 08:29:44.328035 25010 net.cpp:165] Memory required for data: 2187329536
I0415 08:29:44.328039 25010 layer_factory.hpp:77] Creating layer drop4
I0415 08:29:44.328047 25010 net.cpp:100] Creating Layer drop4
I0415 08:29:44.328052 25010 net.cpp:434] drop4 <- fc4_300
I0415 08:29:44.328057 25010 net.cpp:395] drop4 -> fc4_300 (in-place)
I0415 08:29:44.328089 25010 net.cpp:150] Setting up drop4
I0415 08:29:44.328097 25010 net.cpp:157] Top shape: 1024 300 (307200)
I0415 08:29:44.328100 25010 net.cpp:165] Memory required for data: 2188558336
I0415 08:29:44.328104 25010 layer_factory.hpp:77] Creating layer fc5_106
I0415 08:29:44.328112 25010 net.cpp:100] Creating Layer fc5_106
I0415 08:29:44.328116 25010 net.cpp:434] fc5_106 <- fc4_300
I0415 08:29:44.328121 25010 net.cpp:408] fc5_106 -> fc5_classes
I0415 08:29:44.330550 25010 net.cpp:150] Setting up fc5_106
I0415 08:29:44.330569 25010 net.cpp:157] Top shape: 1024 106 (108544)
I0415 08:29:44.330574 25010 net.cpp:165] Memory required for data: 2188992512
I0415 08:29:44.330587 25010 layer_factory.hpp:77] Creating layer fc5_classes_fc5_106_0_split
I0415 08:29:44.330596 25010 net.cpp:100] Creating Layer fc5_classes_fc5_106_0_split
I0415 08:29:44.330600 25010 net.cpp:434] fc5_classes_fc5_106_0_split <- fc5_classes
I0415 08:29:44.330606 25010 net.cpp:408] fc5_classes_fc5_106_0_split -> fc5_classes_fc5_106_0_split_0
I0415 08:29:44.330616 25010 net.cpp:408] fc5_classes_fc5_106_0_split -> fc5_classes_fc5_106_0_split_1
I0415 08:29:44.330626 25010 net.cpp:408] fc5_classes_fc5_106_0_split -> fc5_classes_fc5_106_0_split_2
I0415 08:29:44.330682 25010 net.cpp:150] Setting up fc5_classes_fc5_106_0_split
I0415 08:29:44.330689 25010 net.cpp:157] Top shape: 1024 106 (108544)
I0415 08:29:44.330693 25010 net.cpp:157] Top shape: 1024 106 (108544)
I0415 08:29:44.330696 25010 net.cpp:157] Top shape: 1024 106 (108544)
I0415 08:29:44.330699 25010 net.cpp:165] Memory required for data: 2190295040
I0415 08:29:44.330720 25010 layer_factory.hpp:77] Creating layer softmax
I0415 08:29:44.330731 25010 net.cpp:100] Creating Layer softmax
I0415 08:29:44.330736 25010 net.cpp:434] softmax <- fc5_classes_fc5_106_0_split_0
I0415 08:29:44.330744 25010 net.cpp:408] softmax -> softmax
I0415 08:29:44.331032 25010 net.cpp:150] Setting up softmax
I0415 08:29:44.331044 25010 net.cpp:157] Top shape: 1024 106 (108544)
I0415 08:29:44.331048 25010 net.cpp:165] Memory required for data: 2190729216
I0415 08:29:44.331053 25010 layer_factory.hpp:77] Creating layer loss
I0415 08:29:44.331058 25010 net.cpp:100] Creating Layer loss
I0415 08:29:44.331063 25010 net.cpp:434] loss <- softmax
I0415 08:29:44.331068 25010 net.cpp:434] loss <- label_data_1_split_0
I0415 08:29:44.331074 25010 net.cpp:408] loss -> loss
…
