…
I0527 22:01:59.238389  8890 solver.cpp:81] Creating training net from train_net file: ./Prototxt/experiment_20/RTSD/CoNorm/trial_1/train.prototxt
I0527 22:01:59.238858  8890 net.cpp:58] Initializing net from parameters: 
state {
  phase: TRAIN
  level: 0
  stage: ""
}
layer {
  name: "data"
  type: "Data"
  top: "data"
  top: "label"
  include {
    phase: TRAIN
  }
  transform_param {
    scale: 0.0039215689
    mirror: false
    crop_size: 48
    mean_value: 135
    mean_value: 135
    mean_value: 134
  }
  data_param {
    source: "../local_data/lmdb/RTSD/CoNorm/train/lmdb"
    batch_size: 1024
    backend: LMDB
  }
}
layer {
  name: "conv1"
  type: "Convolution"
  bottom: "data"
  top: "conv1"
  convolution_param {
    num_output: 100
    pad: 0
    kernel_size: 7
    group: 1
    stride: 1
    weight_filler {
      type: "xavier"
    }
  }
}
layer {
  name: "conv1_relu"
  type: "ReLU"
  bottom: "conv1"
  top: "conv1"
}
layer {
  name: "pool1"
  type: "Pooling"
  bottom: "conv1"
  top: "pool1"
  pooling_param {
    pool: MAX
    kernel_size: 2
    stride: 2
  }
}
layer {
  name: "conv2"
  type: "Convolution"
  bottom: "pool1"
  top: "conv2"
  convolution_param {
    num_output: 150
    pad: 0
    kernel_size: 4
    group: 1
    stride: 1
    weight_filler {
      type: "xavier"
    }
  }
}
layer {
  name: "conv2_relu"
  type: "ReLU"
  bottom: "conv2"
  top: "conv2"
}
layer {
  name: "pool2"
  type: "Pooling"
  bottom: "conv2"
  top: "pool2"
  pooling_param {
    pool: MAX
    kernel_size: 2
    stride: 2
  }
}
layer {
  name: "conv3"
  type: "Convolution"
  bottom: "pool2"
  top: "conv3"
  convolution_param {
    num_output: 250
    pad: 0
    kernel_size: 4
    group: 1
    stride: 1
    weight_filler {
      type: "xavier"
    }
  }
}
layer {
  name: "conv3_relu"
  type: "ReLU"
  bottom: "conv3"
  top: "conv3"
}
layer {
  name: "pool3"
  type: "Pooling"
  bottom: "conv3"
  top: "pool3"
  pooling_param {
    pool: MAX
    kernel_size: 2
    stride: 2
  }
}
layer {
  name: "fc4_300"
  type: "InnerProduct"
  bottom: "pool3"
  top: "fc4_300"
  inner_product_param {
    num_output: 300
    weight_filler {
      type: "xavier"
    }
  }
}
layer {
  name: "fc4_relu"
  type: "ReLU"
  bottom: "fc4_300"
  top: "fc4_300"
}
layer {
  name: "fc5_116"
  type: "InnerProduct"
  bottom: "fc4_300"
  top: "fc5_classes"
  inner_product_param {
    num_output: 116
    weight_filler {
      type: "xavier"
    }
  }
}
layer {
  name: "softmax"
  type: "Softmax"
  bottom: "fc5_classes"
  top: "softmax"
}
layer {
  name: "loss"
  type: "MultinomialLogisticLoss"
  bottom: "softmax"
  bottom: "label"
  top: "loss"
}
layer {
  name: "accuracy_1"
  type: "Accuracy"
  bottom: "fc5_classes"
  bottom: "label"
  top: "accuracy_1"
  accuracy_param {
    top_k: 1
  }
}
layer {
  name: "accuracy_5"
  type: "Accuracy"
  bottom: "fc5_classes"
  bottom: "label"
  top: "accuracy_5"
  accuracy_param {
    top_k: 5
  }
}
layer {
  name: "silence"
  type: "Silence"
  bottom: "accuracy_1"
  bottom: "accuracy_5"
}
I0527 22:01:59.239614  8890 layer_factory.hpp:77] Creating layer data
I0527 22:01:59.240591  8890 net.cpp:100] Creating Layer data
I0527 22:01:59.241513  8890 net.cpp:408] data -> data
I0527 22:01:59.241567  8890 net.cpp:408] data -> label
I0527 22:01:59.241492  8940 db_lmdb.cpp:35] Opened lmdb ../local_data/lmdb/RTSD/CoNorm/train/lmdb
I0527 22:01:59.264897  8890 data_layer.cpp:41] output data size: 1024,3,48,48
I0527 22:01:59.408785  8890 net.cpp:150] Setting up data
I0527 22:01:59.409453  8890 net.cpp:157] Top shape: 1024 3 48 48 (7077888)
I0527 22:01:59.414196  8890 net.cpp:157] Top shape: 1024 (1024)
I0527 22:01:59.414234  8890 net.cpp:165] Memory required for data: 28315648
I0527 22:01:59.414275  8890 layer_factory.hpp:77] Creating layer label_data_1_split
I0527 22:01:59.414301  8890 net.cpp:100] Creating Layer label_data_1_split
I0527 22:01:59.414328  8890 net.cpp:434] label_data_1_split <- label
I0527 22:01:59.414363  8890 net.cpp:408] label_data_1_split -> label_data_1_split_0
I0527 22:01:59.414397  8890 net.cpp:408] label_data_1_split -> label_data_1_split_1
I0527 22:01:59.414418  8890 net.cpp:408] label_data_1_split -> label_data_1_split_2
I0527 22:01:59.414499  8890 net.cpp:150] Setting up label_data_1_split
I0527 22:01:59.414530  8890 net.cpp:157] Top shape: 1024 (1024)
I0527 22:01:59.414556  8890 net.cpp:157] Top shape: 1024 (1024)
I0527 22:01:59.414580  8890 net.cpp:157] Top shape: 1024 (1024)
I0527 22:01:59.414603  8890 net.cpp:165] Memory required for data: 28327936
I0527 22:01:59.414624  8890 layer_factory.hpp:77] Creating layer conv1
I0527 22:01:59.414655  8890 net.cpp:100] Creating Layer conv1
I0527 22:01:59.414682  8890 net.cpp:434] conv1 <- data
I0527 22:01:59.414710  8890 net.cpp:408] conv1 -> conv1
I0527 22:01:59.859871  8890 net.cpp:150] Setting up conv1
I0527 22:01:59.859973  8890 net.cpp:157] Top shape: 1024 100 42 42 (180633600)
I0527 22:01:59.860018  8890 net.cpp:165] Memory required for data: 750862336
I0527 22:01:59.860062  8890 layer_factory.hpp:77] Creating layer conv1_relu
I0527 22:01:59.860112  8890 net.cpp:100] Creating Layer conv1_relu
I0527 22:01:59.860154  8890 net.cpp:434] conv1_relu <- conv1
I0527 22:01:59.860191  8890 net.cpp:395] conv1_relu -> conv1 (in-place)
I0527 22:01:59.860436  8890 net.cpp:150] Setting up conv1_relu
I0527 22:01:59.860469  8890 net.cpp:157] Top shape: 1024 100 42 42 (180633600)
I0527 22:01:59.860508  8890 net.cpp:165] Memory required for data: 1473396736
I0527 22:01:59.860539  8890 layer_factory.hpp:77] Creating layer pool1
I0527 22:01:59.860575  8890 net.cpp:100] Creating Layer pool1
I0527 22:01:59.860607  8890 net.cpp:434] pool1 <- conv1
I0527 22:01:59.860641  8890 net.cpp:408] pool1 -> pool1
I0527 22:01:59.860764  8890 net.cpp:150] Setting up pool1
I0527 22:01:59.860805  8890 net.cpp:157] Top shape: 1024 100 21 21 (45158400)
I0527 22:01:59.860833  8890 net.cpp:165] Memory required for data: 1654030336
I0527 22:01:59.860862  8890 layer_factory.hpp:77] Creating layer conv2
I0527 22:01:59.860910  8890 net.cpp:100] Creating Layer conv2
I0527 22:01:59.860941  8890 net.cpp:434] conv2 <- pool1
I0527 22:01:59.860975  8890 net.cpp:408] conv2 -> conv2
I0527 22:01:59.865509  8890 net.cpp:150] Setting up conv2
I0527 22:01:59.865576  8890 net.cpp:157] Top shape: 1024 150 18 18 (49766400)
I0527 22:01:59.865603  8890 net.cpp:165] Memory required for data: 1853095936
I0527 22:01:59.865639  8890 layer_factory.hpp:77] Creating layer conv2_relu
I0527 22:01:59.865670  8890 net.cpp:100] Creating Layer conv2_relu
I0527 22:01:59.865696  8890 net.cpp:434] conv2_relu <- conv2
I0527 22:01:59.865720  8890 net.cpp:395] conv2_relu -> conv2 (in-place)
I0527 22:01:59.865931  8890 net.cpp:150] Setting up conv2_relu
I0527 22:01:59.865963  8890 net.cpp:157] Top shape: 1024 150 18 18 (49766400)
I0527 22:01:59.865988  8890 net.cpp:165] Memory required for data: 2052161536
I0527 22:01:59.866011  8890 layer_factory.hpp:77] Creating layer pool2
I0527 22:01:59.866039  8890 net.cpp:100] Creating Layer pool2
I0527 22:01:59.866061  8890 net.cpp:434] pool2 <- conv2
I0527 22:01:59.866088  8890 net.cpp:408] pool2 -> pool2
I0527 22:01:59.866158  8890 net.cpp:150] Setting up pool2
I0527 22:01:59.866189  8890 net.cpp:157] Top shape: 1024 150 9 9 (12441600)
I0527 22:01:59.866225  8890 net.cpp:165] Memory required for data: 2101927936
I0527 22:01:59.866246  8890 layer_factory.hpp:77] Creating layer conv3
I0527 22:01:59.866278  8890 net.cpp:100] Creating Layer conv3
I0527 22:01:59.866303  8890 net.cpp:434] conv3 <- pool2
I0527 22:01:59.866336  8890 net.cpp:408] conv3 -> conv3
I0527 22:01:59.882500  8890 net.cpp:150] Setting up conv3
I0527 22:01:59.882529  8890 net.cpp:157] Top shape: 1024 250 6 6 (9216000)
I0527 22:01:59.882536  8890 net.cpp:165] Memory required for data: 2138791936
I0527 22:01:59.882555  8890 layer_factory.hpp:77] Creating layer conv3_relu
I0527 22:01:59.882566  8890 net.cpp:100] Creating Layer conv3_relu
I0527 22:01:59.882575  8890 net.cpp:434] conv3_relu <- conv3
I0527 22:01:59.882582  8890 net.cpp:395] conv3_relu -> conv3 (in-place)
I0527 22:01:59.883394  8890 net.cpp:150] Setting up conv3_relu
I0527 22:01:59.883414  8890 net.cpp:157] Top shape: 1024 250 6 6 (9216000)
I0527 22:01:59.883420  8890 net.cpp:165] Memory required for data: 2175655936
I0527 22:01:59.883427  8890 layer_factory.hpp:77] Creating layer pool3
I0527 22:01:59.883438  8890 net.cpp:100] Creating Layer pool3
I0527 22:01:59.883445  8890 net.cpp:434] pool3 <- conv3
I0527 22:01:59.883453  8890 net.cpp:408] pool3 -> pool3
I0527 22:01:59.883508  8890 net.cpp:150] Setting up pool3
I0527 22:01:59.883522  8890 net.cpp:157] Top shape: 1024 250 3 3 (2304000)
I0527 22:01:59.883527  8890 net.cpp:165] Memory required for data: 2184871936
I0527 22:01:59.883533  8890 layer_factory.hpp:77] Creating layer fc4_300
I0527 22:01:59.883545  8890 net.cpp:100] Creating Layer fc4_300
I0527 22:01:59.883553  8890 net.cpp:434] fc4_300 <- pool3
I0527 22:01:59.883561  8890 net.cpp:408] fc4_300 -> fc4_300
I0527 22:01:59.891490  8890 net.cpp:150] Setting up fc4_300
I0527 22:01:59.891538  8890 net.cpp:157] Top shape: 1024 300 (307200)
I0527 22:01:59.891564  8890 net.cpp:165] Memory required for data: 2186100736
I0527 22:01:59.891592  8890 layer_factory.hpp:77] Creating layer fc4_relu
I0527 22:01:59.891623  8890 net.cpp:100] Creating Layer fc4_relu
I0527 22:01:59.891649  8890 net.cpp:434] fc4_relu <- fc4_300
I0527 22:01:59.891671  8890 net.cpp:395] fc4_relu -> fc4_300 (in-place)
I0527 22:01:59.891909  8890 net.cpp:150] Setting up fc4_relu
I0527 22:01:59.891942  8890 net.cpp:157] Top shape: 1024 300 (307200)
I0527 22:01:59.891965  8890 net.cpp:165] Memory required for data: 2187329536
I0527 22:01:59.891989  8890 layer_factory.hpp:77] Creating layer fc5_116
I0527 22:01:59.892019  8890 net.cpp:100] Creating Layer fc5_116
I0527 22:01:59.892041  8890 net.cpp:434] fc5_116 <- fc4_300
I0527 22:01:59.892065  8890 net.cpp:408] fc5_116 -> fc5_classes
I0527 22:01:59.893939  8890 net.cpp:150] Setting up fc5_116
I0527 22:01:59.893981  8890 net.cpp:157] Top shape: 1024 116 (118784)
I0527 22:01:59.894006  8890 net.cpp:165] Memory required for data: 2187804672
I0527 22:01:59.894035  8890 layer_factory.hpp:77] Creating layer fc5_classes_fc5_116_0_split
I0527 22:01:59.894067  8890 net.cpp:100] Creating Layer fc5_classes_fc5_116_0_split
I0527 22:01:59.894091  8890 net.cpp:434] fc5_classes_fc5_116_0_split <- fc5_classes
I0527 22:01:59.894117  8890 net.cpp:408] fc5_classes_fc5_116_0_split -> fc5_classes_fc5_116_0_split_0
I0527 22:01:59.894157  8890 net.cpp:408] fc5_classes_fc5_116_0_split -> fc5_classes_fc5_116_0_split_1
I0527 22:01:59.894187  8890 net.cpp:408] fc5_classes_fc5_116_0_split -> fc5_classes_fc5_116_0_split_2
I0527 22:01:59.894273  8890 net.cpp:150] Setting up fc5_classes_fc5_116_0_split
I0527 22:01:59.894304  8890 net.cpp:157] Top shape: 1024 116 (118784)
I0527 22:01:59.894330  8890 net.cpp:157] Top shape: 1024 116 (118784)
I0527 22:01:59.894351  8890 net.cpp:157] Top shape: 1024 116 (118784)
I0527 22:01:59.894372  8890 net.cpp:165] Memory required for data: 2189230080
I0527 22:01:59.894392  8890 layer_factory.hpp:77] Creating layer softmax
I0527 22:01:59.894415  8890 net.cpp:100] Creating Layer softmax
I0527 22:01:59.894438  8890 net.cpp:434] softmax <- fc5_classes_fc5_116_0_split_0
I0527 22:01:59.894466  8890 net.cpp:408] softmax -> softmax
I0527 22:01:59.894775  8890 net.cpp:150] Setting up softmax
I0527 22:01:59.894810  8890 net.cpp:157] Top shape: 1024 116 (118784)
I0527 22:01:59.894832  8890 net.cpp:165] Memory required for data: 2189705216
I0527 22:01:59.894855  8890 layer_factory.hpp:77] Creating layer loss
I0527 22:01:59.894904  8890 net.cpp:100] Creating Layer loss
I0527 22:01:59.894932  8890 net.cpp:434] loss <- softmax
I0527 22:01:59.894956  8890 net.cpp:434] loss <- label_data_1_split_0
I0527 22:01:59.894984  8890 net.cpp:408] loss -> loss
…
