…
I0527 20:35:55.608866 16537 solver.cpp:81] Creating training net from train_net file: ./Prototxt/experiment_20/RTSD/CoNorm/trial_1/train.prototxt
I0527 20:35:55.609437 16537 net.cpp:58] Initializing net from parameters: 
state {
  phase: TRAIN
  level: 0
  stage: ""
}
layer {
  name: "data"
  type: "Data"
  top: "data"
  top: "label"
  include {
    phase: TRAIN
  }
  transform_param {
    scale: 0.0039215689
    mirror: false
    crop_size: 48
    mean_value: 135
    mean_value: 135
    mean_value: 134
  }
  data_param {
    source: "../local_data/lmdb/RTSD/CoNorm/train/lmdb"
    batch_size: 1024
    backend: LMDB
  }
}
layer {
  name: "conv1"
  type: "Convolution"
  bottom: "data"
  top: "conv1"
  convolution_param {
    num_output: 100
    pad: 0
    kernel_size: 7
    group: 1
    stride: 1
    weight_filler {
      type: "xavier"
    }
  }
}
layer {
  name: "conv1_relu"
  type: "ReLU"
  bottom: "conv1"
  top: "conv1"
}
layer {
  name: "pool1"
  type: "Pooling"
  bottom: "conv1"
  top: "pool1"
  pooling_param {
    pool: MAX
    kernel_size: 2
    stride: 2
  }
}
layer {
  name: "conv2"
  type: "Convolution"
  bottom: "pool1"
  top: "conv2"
  convolution_param {
    num_output: 150
    pad: 0
    kernel_size: 4
    group: 1
    stride: 1
    weight_filler {
      type: "xavier"
    }
  }
}
layer {
  name: "conv2_relu"
  type: "ReLU"
  bottom: "conv2"
  top: "conv2"
}
layer {
  name: "pool2"
  type: "Pooling"
  bottom: "conv2"
  top: "pool2"
  pooling_param {
    pool: MAX
    kernel_size: 2
    stride: 2
  }
}
layer {
  name: "conv3"
  type: "Convolution"
  bottom: "pool2"
  top: "conv3"
  convolution_param {
    num_output: 250
    pad: 0
    kernel_size: 4
    group: 1
    stride: 1
    weight_filler {
      type: "xavier"
    }
  }
}
layer {
  name: "conv3_relu"
  type: "ReLU"
  bottom: "conv3"
  top: "conv3"
}
layer {
  name: "pool3"
  type: "Pooling"
  bottom: "conv3"
  top: "pool3"
  pooling_param {
    pool: MAX
    kernel_size: 2
    stride: 2
  }
}
layer {
  name: "fc4_300"
  type: "InnerProduct"
  bottom: "pool3"
  top: "fc4_300"
  inner_product_param {
    num_output: 300
    weight_filler {
      type: "xavier"
    }
  }
}
layer {
  name: "fc4_relu"
  type: "ReLU"
  bottom: "fc4_300"
  top: "fc4_300"
}
layer {
  name: "fc5_116"
  type: "InnerProduct"
  bottom: "fc4_300"
  top: "fc5_classes"
  inner_product_param {
    num_output: 116
    weight_filler {
      type: "xavier"
    }
  }
}
layer {
  name: "softmax"
  type: "Softmax"
  bottom: "fc5_classes"
  top: "softmax"
}
layer {
  name: "loss"
  type: "MultinomialLogisticLoss"
  bottom: "softmax"
  bottom: "label"
  top: "loss"
}
layer {
  name: "accuracy_1"
  type: "Accuracy"
  bottom: "fc5_classes"
  bottom: "label"
  top: "accuracy_1"
  accuracy_param {
    top_k: 1
  }
}
layer {
  name: "accuracy_5"
  type: "Accuracy"
  bottom: "fc5_classes"
  bottom: "label"
  top: "accuracy_5"
  accuracy_param {
    top_k: 5
  }
}
layer {
  name: "silence"
  type: "Silence"
  bottom: "accuracy_1"
  bottom: "accuracy_5"
}
I0527 20:35:55.609589 16537 layer_factory.hpp:77] Creating layer data
I0527 20:35:55.610764 16537 net.cpp:100] Creating Layer data
I0527 20:35:55.610795 16537 net.cpp:408] data -> data
I0527 20:35:55.610834 16537 net.cpp:408] data -> label
I0527 20:35:55.631345 16581 db_lmdb.cpp:35] Opened lmdb ../local_data/lmdb/RTSD/CoNorm/train/lmdb
I0527 20:35:55.665455 16537 data_layer.cpp:41] output data size: 1024,3,48,48
I0527 20:35:55.761765 16537 net.cpp:150] Setting up data
I0527 20:35:55.761817 16537 net.cpp:157] Top shape: 1024 3 48 48 (7077888)
I0527 20:35:55.761828 16537 net.cpp:157] Top shape: 1024 (1024)
I0527 20:35:55.761834 16537 net.cpp:165] Memory required for data: 28315648
I0527 20:35:55.761847 16537 layer_factory.hpp:77] Creating layer label_data_1_split
I0527 20:35:55.761869 16537 net.cpp:100] Creating Layer label_data_1_split
I0527 20:35:55.761881 16537 net.cpp:434] label_data_1_split <- label
I0527 20:35:55.761899 16537 net.cpp:408] label_data_1_split -> label_data_1_split_0
I0527 20:35:55.761916 16537 net.cpp:408] label_data_1_split -> label_data_1_split_1
I0527 20:35:55.761926 16537 net.cpp:408] label_data_1_split -> label_data_1_split_2
I0527 20:35:55.761986 16537 net.cpp:150] Setting up label_data_1_split
I0527 20:35:55.761998 16537 net.cpp:157] Top shape: 1024 (1024)
I0527 20:35:55.762004 16537 net.cpp:157] Top shape: 1024 (1024)
I0527 20:35:55.762012 16537 net.cpp:157] Top shape: 1024 (1024)
I0527 20:35:55.762020 16537 net.cpp:165] Memory required for data: 28327936
I0527 20:35:55.762032 16537 layer_factory.hpp:77] Creating layer conv1
I0527 20:35:55.762053 16537 net.cpp:100] Creating Layer conv1
I0527 20:35:55.762065 16537 net.cpp:434] conv1 <- data
I0527 20:35:55.762080 16537 net.cpp:408] conv1 -> conv1
I0527 20:35:56.260984 16537 net.cpp:150] Setting up conv1
I0527 20:35:56.261076 16537 net.cpp:157] Top shape: 1024 100 42 42 (180633600)
I0527 20:35:56.261104 16537 net.cpp:165] Memory required for data: 750862336
I0527 20:35:56.261142 16537 layer_factory.hpp:77] Creating layer conv1_relu
I0527 20:35:56.261174 16537 net.cpp:100] Creating Layer conv1_relu
I0527 20:35:56.261201 16537 net.cpp:434] conv1_relu <- conv1
I0527 20:35:56.261229 16537 net.cpp:395] conv1_relu -> conv1 (in-place)
I0527 20:35:56.261613 16537 net.cpp:150] Setting up conv1_relu
I0527 20:35:56.261656 16537 net.cpp:157] Top shape: 1024 100 42 42 (180633600)
I0527 20:35:56.261728 16537 net.cpp:165] Memory required for data: 1473396736
I0527 20:35:56.261755 16537 layer_factory.hpp:77] Creating layer pool1
I0527 20:35:56.261780 16537 net.cpp:100] Creating Layer pool1
I0527 20:35:56.261797 16537 net.cpp:434] pool1 <- conv1
I0527 20:35:56.261821 16537 net.cpp:408] pool1 -> pool1
I0527 20:35:56.261895 16537 net.cpp:150] Setting up pool1
I0527 20:35:56.261919 16537 net.cpp:157] Top shape: 1024 100 21 21 (45158400)
I0527 20:35:56.261993 16537 net.cpp:165] Memory required for data: 1654030336
I0527 20:35:56.262018 16537 layer_factory.hpp:77] Creating layer conv2
I0527 20:35:56.262043 16537 net.cpp:100] Creating Layer conv2
I0527 20:35:56.262069 16537 net.cpp:434] conv2 <- pool1
I0527 20:35:56.262089 16537 net.cpp:408] conv2 -> conv2
I0527 20:35:56.269004 16537 net.cpp:150] Setting up conv2
I0527 20:35:56.269268 16537 net.cpp:157] Top shape: 1024 150 18 18 (49766400)
I0527 20:35:56.269353 16537 net.cpp:165] Memory required for data: 1853095936
I0527 20:35:56.269381 16537 layer_factory.hpp:77] Creating layer conv2_relu
I0527 20:35:56.269408 16537 net.cpp:100] Creating Layer conv2_relu
I0527 20:35:56.269434 16537 net.cpp:434] conv2_relu <- conv2
I0527 20:35:56.269459 16537 net.cpp:395] conv2_relu -> conv2 (in-place)
I0527 20:35:56.269660 16537 net.cpp:150] Setting up conv2_relu
I0527 20:35:56.269739 16537 net.cpp:157] Top shape: 1024 150 18 18 (49766400)
I0527 20:35:56.269763 16537 net.cpp:165] Memory required for data: 2052161536
I0527 20:35:56.269788 16537 layer_factory.hpp:77] Creating layer pool2
I0527 20:35:56.269817 16537 net.cpp:100] Creating Layer pool2
I0527 20:35:56.269835 16537 net.cpp:434] pool2 <- conv2
I0527 20:35:56.269853 16537 net.cpp:408] pool2 -> pool2
I0527 20:35:56.269922 16537 net.cpp:150] Setting up pool2
I0527 20:35:56.269953 16537 net.cpp:157] Top shape: 1024 150 9 9 (12441600)
I0527 20:35:56.269969 16537 net.cpp:165] Memory required for data: 2101927936
I0527 20:35:56.269986 16537 layer_factory.hpp:77] Creating layer conv3
I0527 20:35:56.270051 16537 net.cpp:100] Creating Layer conv3
I0527 20:35:56.270071 16537 net.cpp:434] conv3 <- pool2
I0527 20:35:56.270099 16537 net.cpp:408] conv3 -> conv3
I0527 20:35:56.280129 16537 net.cpp:150] Setting up conv3
I0527 20:35:56.280176 16537 net.cpp:157] Top shape: 1024 250 6 6 (9216000)
I0527 20:35:56.280195 16537 net.cpp:165] Memory required for data: 2138791936
I0527 20:35:56.280222 16537 layer_factory.hpp:77] Creating layer conv3_relu
I0527 20:35:56.280243 16537 net.cpp:100] Creating Layer conv3_relu
I0527 20:35:56.280261 16537 net.cpp:434] conv3_relu <- conv3
I0527 20:35:56.280282 16537 net.cpp:395] conv3_relu -> conv3 (in-place)
I0527 20:35:56.280975 16537 net.cpp:150] Setting up conv3_relu
I0527 20:35:56.281013 16537 net.cpp:157] Top shape: 1024 250 6 6 (9216000)
I0527 20:35:56.281050 16537 net.cpp:165] Memory required for data: 2175655936
I0527 20:35:56.281069 16537 layer_factory.hpp:77] Creating layer pool3
I0527 20:35:56.281090 16537 net.cpp:100] Creating Layer pool3
I0527 20:35:56.281107 16537 net.cpp:434] pool3 <- conv3
I0527 20:35:56.281131 16537 net.cpp:408] pool3 -> pool3
I0527 20:35:56.281193 16537 net.cpp:150] Setting up pool3
I0527 20:35:56.281219 16537 net.cpp:157] Top shape: 1024 250 3 3 (2304000)
I0527 20:35:56.281235 16537 net.cpp:165] Memory required for data: 2184871936
I0527 20:35:56.281252 16537 layer_factory.hpp:77] Creating layer fc4_300
I0527 20:35:56.281275 16537 net.cpp:100] Creating Layer fc4_300
I0527 20:35:56.281292 16537 net.cpp:434] fc4_300 <- pool3
I0527 20:35:56.281314 16537 net.cpp:408] fc4_300 -> fc4_300
I0527 20:35:56.288347 16537 net.cpp:150] Setting up fc4_300
I0527 20:35:56.288386 16537 net.cpp:157] Top shape: 1024 300 (307200)
I0527 20:35:56.288405 16537 net.cpp:165] Memory required for data: 2186100736
I0527 20:35:56.288427 16537 layer_factory.hpp:77] Creating layer fc4_relu
I0527 20:35:56.288449 16537 net.cpp:100] Creating Layer fc4_relu
I0527 20:35:56.288465 16537 net.cpp:434] fc4_relu <- fc4_300
I0527 20:35:56.288485 16537 net.cpp:395] fc4_relu -> fc4_300 (in-place)
I0527 20:35:56.288720 16537 net.cpp:150] Setting up fc4_relu
I0527 20:35:56.288754 16537 net.cpp:157] Top shape: 1024 300 (307200)
I0527 20:35:56.288800 16537 net.cpp:165] Memory required for data: 2187329536
I0527 20:35:56.288818 16537 layer_factory.hpp:77] Creating layer fc5_116
I0527 20:35:56.288843 16537 net.cpp:100] Creating Layer fc5_116
I0527 20:35:56.288861 16537 net.cpp:434] fc5_116 <- fc4_300
I0527 20:35:56.288882 16537 net.cpp:408] fc5_116 -> fc5_classes
I0527 20:35:56.290361 16537 net.cpp:150] Setting up fc5_116
I0527 20:35:56.290400 16537 net.cpp:157] Top shape: 1024 116 (118784)
I0527 20:35:56.290418 16537 net.cpp:165] Memory required for data: 2187804672
I0527 20:35:56.290443 16537 layer_factory.hpp:77] Creating layer fc5_classes_fc5_116_0_split
I0527 20:35:56.290467 16537 net.cpp:100] Creating Layer fc5_classes_fc5_116_0_split
I0527 20:35:56.290487 16537 net.cpp:434] fc5_classes_fc5_116_0_split <- fc5_classes
I0527 20:35:56.290508 16537 net.cpp:408] fc5_classes_fc5_116_0_split -> fc5_classes_fc5_116_0_split_0
I0527 20:35:56.290531 16537 net.cpp:408] fc5_classes_fc5_116_0_split -> fc5_classes_fc5_116_0_split_1
I0527 20:35:56.290554 16537 net.cpp:408] fc5_classes_fc5_116_0_split -> fc5_classes_fc5_116_0_split_2
I0527 20:35:56.290624 16537 net.cpp:150] Setting up fc5_classes_fc5_116_0_split
I0527 20:35:56.290678 16537 net.cpp:157] Top shape: 1024 116 (118784)
I0527 20:35:56.290700 16537 net.cpp:157] Top shape: 1024 116 (118784)
I0527 20:35:56.290719 16537 net.cpp:157] Top shape: 1024 116 (118784)
I0527 20:35:56.290735 16537 net.cpp:165] Memory required for data: 2189230080
I0527 20:35:56.290753 16537 layer_factory.hpp:77] Creating layer softmax
I0527 20:35:56.290776 16537 net.cpp:100] Creating Layer softmax
I0527 20:35:56.290793 16537 net.cpp:434] softmax <- fc5_classes_fc5_116_0_split_0
I0527 20:35:56.290813 16537 net.cpp:408] softmax -> softmax
I0527 20:35:56.291092 16537 net.cpp:150] Setting up softmax
I0527 20:35:56.291123 16537 net.cpp:157] Top shape: 1024 116 (118784)
I0527 20:35:56.291141 16537 net.cpp:165] Memory required for data: 2189705216
I0527 20:35:56.291158 16537 layer_factory.hpp:77] Creating layer loss
I0527 20:35:56.291199 16537 net.cpp:100] Creating Layer loss
I0527 20:35:56.291244 16537 net.cpp:434] loss <- softmax
I0527 20:35:56.291266 16537 net.cpp:434] loss <- label_data_1_split_0
I0527 20:35:56.291286 16537 net.cpp:408] loss -> loss
…
