…
I0508 03:33:57.632742 21049 solver.cpp:93] Creating training net from train_net file: ./Prototxt/experiment_15/RTSD/CoNorm/trial_2/train.prototxt
I0508 03:33:57.633215 21049 net.cpp:58] Initializing net from parameters: 
state {
  phase: TRAIN
  level: 0
  stage: ""
}
layer {
  name: "data"
  type: "Data"
  top: "data"
  top: "label"
  include {
    phase: TRAIN
  }
  transform_param {
    scale: 0.0039215689
    mirror: false
    crop_size: 48
    mean_value: 135
    mean_value: 135
    mean_value: 134
  }
  data_param {
    source: "../local_data/lmdb/RTSD/CoNorm/train/lmdb"
    batch_size: 1024
    backend: LMDB
  }
}
layer {
  name: "conv1"
  type: "Convolution"
  bottom: "data"
  top: "conv1"
  convolution_param {
    num_output: 100
    pad: 0
    kernel_size: 7
    group: 1
    stride: 1
    weight_filler {
      type: "xavier"
    }
  }
}
layer {
  name: "conv1_prescale"
  type: "Scale"
  bottom: "conv1"
  top: "conv1"
  param {
    lr_mult: 0
    decay_mult: 0
  }
  scale_param {
    filler {
      value: 0.6666
    }
    bias_term: false
  }
}
layer {
  name: "conv1_sTanH"
  type: "TanH"
  bottom: "conv1"
  top: "conv1"
}
layer {
  name: "conv1_postscale"
  type: "Scale"
  bottom: "conv1"
  top: "conv1"
  param {
    lr_mult: 0
    decay_mult: 0
  }
  scale_param {
    filler {
      value: 1.7159
    }
    bias_term: false
  }
}
layer {
  name: "pool1"
  type: "Pooling"
  bottom: "conv1"
  top: "pool1"
  pooling_param {
    pool: MAX
    kernel_size: 2
    stride: 2
  }
}
layer {
  name: "conv2"
  type: "Convolution"
  bottom: "pool1"
  top: "conv2"
  convolution_param {
    num_output: 150
    pad: 0
    kernel_size: 4
    group: 2
    stride: 1
    weight_filler {
      type: "xavier"
    }
  }
}
layer {
  name: "conv2_prescale"
  type: "Scale"
  bottom: "conv2"
  top: "conv2"
  param {
    lr_mult: 0
    decay_mult: 0
  }
  scale_param {
    filler {
      value: 0.6666
    }
    bias_term: false
  }
}
layer {
  name: "conv2_sTanH"
  type: "TanH"
  bottom: "conv2"
  top: "conv2"
}
layer {
  name: "conv2_postscale"
  type: "Scale"
  bottom: "conv2"
  top: "conv2"
  param {
    lr_mult: 0
    decay_mult: 0
  }
  scale_param {
    filler {
      value: 1.7159
    }
    bias_term: false
  }
}
layer {
  name: "pool2"
  type: "Pooling"
  bottom: "conv2"
  top: "pool2"
  pooling_param {
    pool: MAX
    kernel_size: 2
    stride: 2
  }
}
layer {
  name: "conv3"
  type: "Convolution"
  bottom: "pool2"
  top: "conv3"
  convolution_param {
    num_output: 250
    pad: 0
    kernel_size: 4
    group: 2
    stride: 1
    weight_filler {
      type: "xavier"
    }
  }
}
layer {
  name: "conv3_prescale"
  type: "Scale"
  bottom: "conv3"
  top: "conv3"
  param {
    lr_mult: 0
    decay_mult: 0
  }
  scale_param {
    filler {
      value: 0.6666
    }
    bias_term: false
  }
}
layer {
  name: "conv3_sTanH"
  type: "TanH"
  bottom: "conv3"
  top: "conv3"
}
layer {
  name: "conv3_postscale"
  type: "Scale"
  bottom: "conv3"
  top: "conv3"
  param {
    lr_mult: 0
    decay_mult: 0
  }
  scale_param {
    filler {
      value: 1.7159
    }
    bias_term: false
  }
}
layer {
  name: "pool3"
  type: "Pooling"
  bottom: "conv3"
  top: "pool3"
  pooling_param {
    pool: MAX
    kernel_size: 2
    stride: 2
  }
}
layer {
  name: "fc4_300"
  type: "InnerProduct"
  bottom: "pool3"
  top: "fc4_300"
  inner_product_param {
    num_output: 300
    weight_filler {
      type: "xavier"
    }
  }
}
layer {
  name: "fc4_prescale"
  type: "Scale"
  bottom: "fc4_300"
  top: "fc4_300"
  param {
    lr_mult: 0
    decay_mult: 0
  }
  scale_param {
    filler {
      value: 0.6666
    }
    bias_term: false
  }
}
layer {
  name: "fc4_sTanH"
  type: "TanH"
  bottom: "fc4_300"
  top: "fc4_300"
}
layer {
  name: "fc4_postscale"
  type: "Scale"
  bottom: "fc4_300"
  top: "fc4_300"
  param {
    lr_mult: 0
    decay_mult: 0
  }
  scale_param {
    filler {
      value: 1.7159
    }
    bias_term: false
  }
}
layer {
  name: "fc5_116"
  type: "InnerProduct"
  bottom: "fc4_300"
  top: "fc5_classes"
  inner_product_param {
    num_output: 116
    weight_filler {
      type: "xavier"
    }
  }
}
layer {
  name: "softmax"
  type: "Softmax"
  bottom: "fc5_classes"
  top: "softmax"
}
layer {
  name: "loss"
  type: "MultinomialLogisticLoss"
  bottom: "softmax"
  bottom: "label"
  top: "loss"
}
layer {
  name: "accuracy_1"
  type: "Accuracy"
  bottom: "fc5_classes"
  bottom: "label"
  top: "accuracy_1"
  accuracy_param {
    top_k: 1
  }
}
layer {
  name: "accuracy_5"
  type: "Accuracy"
  bottom: "fc5_classes"
  bottom: "label"
  top: "accuracy_5"
  accuracy_param {
    top_k: 5
  }
}
layer {
  name: "silence"
  type: "Silence"
  bottom: "accuracy_1"
  bottom: "accuracy_5"
}
I0508 03:33:57.633371 21049 layer_factory.hpp:77] Creating layer data
I0508 03:33:57.634435 21049 net.cpp:100] Creating Layer data
I0508 03:33:57.634451 21049 net.cpp:408] data -> data
I0508 03:33:57.634475 21049 net.cpp:408] data -> label
I0508 03:33:57.638110 21159 db_lmdb.cpp:35] Opened lmdb ../local_data/lmdb/RTSD/CoNorm/train/lmdb
I0508 03:33:57.655808 21049 data_layer.cpp:41] output data size: 1024,3,48,48
I0508 03:33:57.720481 21049 net.cpp:150] Setting up data
I0508 03:33:57.720512 21049 net.cpp:157] Top shape: 1024 3 48 48 (7077888)
I0508 03:33:57.720518 21049 net.cpp:157] Top shape: 1024 (1024)
I0508 03:33:57.720521 21049 net.cpp:165] Memory required for data: 28315648
I0508 03:33:57.720532 21049 layer_factory.hpp:77] Creating layer label_data_1_split
I0508 03:33:57.720546 21049 net.cpp:100] Creating Layer label_data_1_split
I0508 03:33:57.720556 21049 net.cpp:434] label_data_1_split <- label
I0508 03:33:57.720569 21049 net.cpp:408] label_data_1_split -> label_data_1_split_0
I0508 03:33:57.720582 21049 net.cpp:408] label_data_1_split -> label_data_1_split_1
I0508 03:33:57.720588 21049 net.cpp:408] label_data_1_split -> label_data_1_split_2
I0508 03:33:57.720703 21049 net.cpp:150] Setting up label_data_1_split
I0508 03:33:57.720713 21049 net.cpp:157] Top shape: 1024 (1024)
I0508 03:33:57.720717 21049 net.cpp:157] Top shape: 1024 (1024)
I0508 03:33:57.720721 21049 net.cpp:157] Top shape: 1024 (1024)
I0508 03:33:57.720723 21049 net.cpp:165] Memory required for data: 28327936
I0508 03:33:57.720726 21049 layer_factory.hpp:77] Creating layer conv1
I0508 03:33:57.720744 21049 net.cpp:100] Creating Layer conv1
I0508 03:33:57.720749 21049 net.cpp:434] conv1 <- data
I0508 03:33:57.720755 21049 net.cpp:408] conv1 -> conv1
I0508 03:33:58.122586 21049 net.cpp:150] Setting up conv1
I0508 03:33:58.122613 21049 net.cpp:157] Top shape: 1024 100 42 42 (180633600)
I0508 03:33:58.122617 21049 net.cpp:165] Memory required for data: 750862336
I0508 03:33:58.122639 21049 layer_factory.hpp:77] Creating layer conv1_prescale
I0508 03:33:58.122653 21049 net.cpp:100] Creating Layer conv1_prescale
I0508 03:33:58.122659 21049 net.cpp:434] conv1_prescale <- conv1
I0508 03:33:58.122665 21049 net.cpp:395] conv1_prescale -> conv1 (in-place)
I0508 03:33:58.122771 21049 net.cpp:150] Setting up conv1_prescale
I0508 03:33:58.122781 21049 net.cpp:157] Top shape: 1024 100 42 42 (180633600)
I0508 03:33:58.122783 21049 net.cpp:165] Memory required for data: 1473396736
I0508 03:33:58.122790 21049 layer_factory.hpp:77] Creating layer conv1_sTanH
I0508 03:33:58.122798 21049 net.cpp:100] Creating Layer conv1_sTanH
I0508 03:33:58.122803 21049 net.cpp:434] conv1_sTanH <- conv1
I0508 03:33:58.122808 21049 net.cpp:395] conv1_sTanH -> conv1 (in-place)
I0508 03:33:58.123001 21049 net.cpp:150] Setting up conv1_sTanH
I0508 03:33:58.123013 21049 net.cpp:157] Top shape: 1024 100 42 42 (180633600)
I0508 03:33:58.123037 21049 net.cpp:165] Memory required for data: 2195931136
I0508 03:33:58.123041 21049 layer_factory.hpp:77] Creating layer conv1_postscale
I0508 03:33:58.123049 21049 net.cpp:100] Creating Layer conv1_postscale
I0508 03:33:58.123052 21049 net.cpp:434] conv1_postscale <- conv1
I0508 03:33:58.123057 21049 net.cpp:395] conv1_postscale -> conv1 (in-place)
I0508 03:33:58.123152 21049 net.cpp:150] Setting up conv1_postscale
I0508 03:33:58.123160 21049 net.cpp:157] Top shape: 1024 100 42 42 (180633600)
I0508 03:33:58.123163 21049 net.cpp:165] Memory required for data: 2918465536
I0508 03:33:58.123168 21049 layer_factory.hpp:77] Creating layer pool1
I0508 03:33:58.123175 21049 net.cpp:100] Creating Layer pool1
I0508 03:33:58.123178 21049 net.cpp:434] pool1 <- conv1
I0508 03:33:58.123183 21049 net.cpp:408] pool1 -> pool1
I0508 03:33:58.123229 21049 net.cpp:150] Setting up pool1
I0508 03:33:58.123236 21049 net.cpp:157] Top shape: 1024 100 21 21 (45158400)
I0508 03:33:58.123239 21049 net.cpp:165] Memory required for data: 3099099136
I0508 03:33:58.123242 21049 layer_factory.hpp:77] Creating layer conv2
I0508 03:33:58.123252 21049 net.cpp:100] Creating Layer conv2
I0508 03:33:58.123257 21049 net.cpp:434] conv2 <- pool1
I0508 03:33:58.123262 21049 net.cpp:408] conv2 -> conv2
I0508 03:33:58.131932 21049 net.cpp:150] Setting up conv2
I0508 03:33:58.131954 21049 net.cpp:157] Top shape: 1024 150 18 18 (49766400)
I0508 03:33:58.131959 21049 net.cpp:165] Memory required for data: 3298164736
I0508 03:33:58.131973 21049 layer_factory.hpp:77] Creating layer conv2_prescale
I0508 03:33:58.131988 21049 net.cpp:100] Creating Layer conv2_prescale
I0508 03:33:58.131994 21049 net.cpp:434] conv2_prescale <- conv2
I0508 03:33:58.132011 21049 net.cpp:395] conv2_prescale -> conv2 (in-place)
I0508 03:33:58.132139 21049 net.cpp:150] Setting up conv2_prescale
I0508 03:33:58.132150 21049 net.cpp:157] Top shape: 1024 150 18 18 (49766400)
I0508 03:33:58.132153 21049 net.cpp:165] Memory required for data: 3497230336
I0508 03:33:58.132159 21049 layer_factory.hpp:77] Creating layer conv2_sTanH
I0508 03:33:58.132169 21049 net.cpp:100] Creating Layer conv2_sTanH
I0508 03:33:58.132174 21049 net.cpp:434] conv2_sTanH <- conv2
I0508 03:33:58.132179 21049 net.cpp:395] conv2_sTanH -> conv2 (in-place)
I0508 03:33:58.132405 21049 net.cpp:150] Setting up conv2_sTanH
I0508 03:33:58.132416 21049 net.cpp:157] Top shape: 1024 150 18 18 (49766400)
I0508 03:33:58.132421 21049 net.cpp:165] Memory required for data: 3696295936
I0508 03:33:58.132424 21049 layer_factory.hpp:77] Creating layer conv2_postscale
I0508 03:33:58.132434 21049 net.cpp:100] Creating Layer conv2_postscale
I0508 03:33:58.132439 21049 net.cpp:434] conv2_postscale <- conv2
I0508 03:33:58.132446 21049 net.cpp:395] conv2_postscale -> conv2 (in-place)
I0508 03:33:58.132568 21049 net.cpp:150] Setting up conv2_postscale
I0508 03:33:58.132578 21049 net.cpp:157] Top shape: 1024 150 18 18 (49766400)
I0508 03:33:58.132581 21049 net.cpp:165] Memory required for data: 3895361536
I0508 03:33:58.132587 21049 layer_factory.hpp:77] Creating layer pool2
I0508 03:33:58.132594 21049 net.cpp:100] Creating Layer pool2
I0508 03:33:58.132597 21049 net.cpp:434] pool2 <- conv2
I0508 03:33:58.132606 21049 net.cpp:408] pool2 -> pool2
I0508 03:33:58.132658 21049 net.cpp:150] Setting up pool2
I0508 03:33:58.132666 21049 net.cpp:157] Top shape: 1024 150 9 9 (12441600)
I0508 03:33:58.132670 21049 net.cpp:165] Memory required for data: 3945127936
I0508 03:33:58.132673 21049 layer_factory.hpp:77] Creating layer conv3
I0508 03:33:58.132684 21049 net.cpp:100] Creating Layer conv3
I0508 03:33:58.132691 21049 net.cpp:434] conv3 <- pool2
I0508 03:33:58.132697 21049 net.cpp:408] conv3 -> conv3
I0508 03:33:58.138471 21049 net.cpp:150] Setting up conv3
I0508 03:33:58.138491 21049 net.cpp:157] Top shape: 1024 250 6 6 (9216000)
I0508 03:33:58.138496 21049 net.cpp:165] Memory required for data: 3981991936
I0508 03:33:58.138509 21049 layer_factory.hpp:77] Creating layer conv3_prescale
I0508 03:33:58.138540 21049 net.cpp:100] Creating Layer conv3_prescale
I0508 03:33:58.138546 21049 net.cpp:434] conv3_prescale <- conv3
I0508 03:33:58.138553 21049 net.cpp:395] conv3_prescale -> conv3 (in-place)
I0508 03:33:58.138667 21049 net.cpp:150] Setting up conv3_prescale
I0508 03:33:58.138677 21049 net.cpp:157] Top shape: 1024 250 6 6 (9216000)
I0508 03:33:58.138681 21049 net.cpp:165] Memory required for data: 4018855936
I0508 03:33:58.138687 21049 layer_factory.hpp:77] Creating layer conv3_sTanH
I0508 03:33:58.138694 21049 net.cpp:100] Creating Layer conv3_sTanH
I0508 03:33:58.138697 21049 net.cpp:434] conv3_sTanH <- conv3
I0508 03:33:58.138705 21049 net.cpp:395] conv3_sTanH -> conv3 (in-place)
I0508 03:33:58.138937 21049 net.cpp:150] Setting up conv3_sTanH
I0508 03:33:58.138952 21049 net.cpp:157] Top shape: 1024 250 6 6 (9216000)
I0508 03:33:58.138955 21049 net.cpp:165] Memory required for data: 4055719936
I0508 03:33:58.138959 21049 layer_factory.hpp:77] Creating layer conv3_postscale
I0508 03:33:58.138972 21049 net.cpp:100] Creating Layer conv3_postscale
I0508 03:33:58.138975 21049 net.cpp:434] conv3_postscale <- conv3
I0508 03:33:58.138981 21049 net.cpp:395] conv3_postscale -> conv3 (in-place)
I0508 03:33:58.139099 21049 net.cpp:150] Setting up conv3_postscale
I0508 03:33:58.139109 21049 net.cpp:157] Top shape: 1024 250 6 6 (9216000)
I0508 03:33:58.139113 21049 net.cpp:165] Memory required for data: 4092583936
I0508 03:33:58.139118 21049 layer_factory.hpp:77] Creating layer pool3
I0508 03:33:58.139129 21049 net.cpp:100] Creating Layer pool3
I0508 03:33:58.139135 21049 net.cpp:434] pool3 <- conv3
I0508 03:33:58.139143 21049 net.cpp:408] pool3 -> pool3
I0508 03:33:58.139190 21049 net.cpp:150] Setting up pool3
I0508 03:33:58.139199 21049 net.cpp:157] Top shape: 1024 250 3 3 (2304000)
I0508 03:33:58.139202 21049 net.cpp:165] Memory required for data: 4101799936
I0508 03:33:58.139205 21049 layer_factory.hpp:77] Creating layer fc4_300
I0508 03:33:58.139215 21049 net.cpp:100] Creating Layer fc4_300
I0508 03:33:58.139219 21049 net.cpp:434] fc4_300 <- pool3
I0508 03:33:58.139225 21049 net.cpp:408] fc4_300 -> fc4_300
I0508 03:33:58.147083 21049 net.cpp:150] Setting up fc4_300
I0508 03:33:58.147104 21049 net.cpp:157] Top shape: 1024 300 (307200)
I0508 03:33:58.147109 21049 net.cpp:165] Memory required for data: 4103028736
I0508 03:33:58.147119 21049 layer_factory.hpp:77] Creating layer fc4_prescale
I0508 03:33:58.147127 21049 net.cpp:100] Creating Layer fc4_prescale
I0508 03:33:58.147131 21049 net.cpp:434] fc4_prescale <- fc4_300
I0508 03:33:58.147140 21049 net.cpp:395] fc4_prescale -> fc4_300 (in-place)
I0508 03:33:58.147255 21049 net.cpp:150] Setting up fc4_prescale
I0508 03:33:58.147265 21049 net.cpp:157] Top shape: 1024 300 (307200)
I0508 03:33:58.147269 21049 net.cpp:165] Memory required for data: 4104257536
I0508 03:33:58.147274 21049 layer_factory.hpp:77] Creating layer fc4_sTanH
I0508 03:33:58.147281 21049 net.cpp:100] Creating Layer fc4_sTanH
I0508 03:33:58.147284 21049 net.cpp:434] fc4_sTanH <- fc4_300
I0508 03:33:58.147292 21049 net.cpp:395] fc4_sTanH -> fc4_300 (in-place)
I0508 03:33:58.149348 21049 net.cpp:150] Setting up fc4_sTanH
I0508 03:33:58.149370 21049 net.cpp:157] Top shape: 1024 300 (307200)
I0508 03:33:58.149374 21049 net.cpp:165] Memory required for data: 4105486336
I0508 03:33:58.149379 21049 layer_factory.hpp:77] Creating layer fc4_postscale
I0508 03:33:58.149391 21049 net.cpp:100] Creating Layer fc4_postscale
I0508 03:33:58.149399 21049 net.cpp:434] fc4_postscale <- fc4_300
I0508 03:33:58.149405 21049 net.cpp:395] fc4_postscale -> fc4_300 (in-place)
I0508 03:33:58.149536 21049 net.cpp:150] Setting up fc4_postscale
I0508 03:33:58.149547 21049 net.cpp:157] Top shape: 1024 300 (307200)
I0508 03:33:58.149550 21049 net.cpp:165] Memory required for data: 4106715136
I0508 03:33:58.149556 21049 layer_factory.hpp:77] Creating layer fc5_116
I0508 03:33:58.149564 21049 net.cpp:100] Creating Layer fc5_116
I0508 03:33:58.149569 21049 net.cpp:434] fc5_116 <- fc4_300
I0508 03:33:58.149576 21049 net.cpp:408] fc5_116 -> fc5_classes
I0508 03:33:58.153241 21049 net.cpp:150] Setting up fc5_116
I0508 03:33:58.153261 21049 net.cpp:157] Top shape: 1024 116 (118784)
I0508 03:33:58.153266 21049 net.cpp:165] Memory required for data: 4107190272
I0508 03:33:58.153280 21049 layer_factory.hpp:77] Creating layer fc5_classes_fc5_116_0_split
I0508 03:33:58.153292 21049 net.cpp:100] Creating Layer fc5_classes_fc5_116_0_split
I0508 03:33:58.153300 21049 net.cpp:434] fc5_classes_fc5_116_0_split <- fc5_classes
I0508 03:33:58.153306 21049 net.cpp:408] fc5_classes_fc5_116_0_split -> fc5_classes_fc5_116_0_split_0
I0508 03:33:58.153316 21049 net.cpp:408] fc5_classes_fc5_116_0_split -> fc5_classes_fc5_116_0_split_1
I0508 03:33:58.153327 21049 net.cpp:408] fc5_classes_fc5_116_0_split -> fc5_classes_fc5_116_0_split_2
I0508 03:33:58.153393 21049 net.cpp:150] Setting up fc5_classes_fc5_116_0_split
I0508 03:33:58.153403 21049 net.cpp:157] Top shape: 1024 116 (118784)
I0508 03:33:58.153408 21049 net.cpp:157] Top shape: 1024 116 (118784)
I0508 03:33:58.153411 21049 net.cpp:157] Top shape: 1024 116 (118784)
I0508 03:33:58.153415 21049 net.cpp:165] Memory required for data: 4108615680
I0508 03:33:58.153419 21049 layer_factory.hpp:77] Creating layer softmax
I0508 03:33:58.153427 21049 net.cpp:100] Creating Layer softmax
I0508 03:33:58.153434 21049 net.cpp:434] softmax <- fc5_classes_fc5_116_0_split_0
I0508 03:33:58.153440 21049 net.cpp:408] softmax -> softmax
I0508 03:33:58.153759 21049 net.cpp:150] Setting up softmax
I0508 03:33:58.153775 21049 net.cpp:157] Top shape: 1024 116 (118784)
I0508 03:33:58.153779 21049 net.cpp:165] Memory required for data: 4109090816
I0508 03:33:58.153784 21049 layer_factory.hpp:77] Creating layer loss
I0508 03:33:58.153791 21049 net.cpp:100] Creating Layer loss
I0508 03:33:58.153797 21049 net.cpp:434] loss <- softmax
I0508 03:33:58.153802 21049 net.cpp:434] loss <- label_data_1_split_0
I0508 03:33:58.153808 21049 net.cpp:408] loss -> loss
…
