…
I0527 18:28:22.626220 26611 solver.cpp:81] Creating training net from train_net file: ./Prototxt/experiment_20/RTSD/orig/trial_3/train.prototxt
I0527 18:28:22.626832 26611 net.cpp:58] Initializing net from parameters: 
state {
  phase: TRAIN
  level: 0
  stage: ""
}
layer {
  name: "data"
  type: "Data"
  top: "data"
  top: "label"
  include {
    phase: TRAIN
  }
  transform_param {
    scale: 0.0039215689
    mirror: false
    crop_size: 48
    mean_value: 119
    mean_value: 113
    mean_value: 113
  }
  data_param {
    source: "../local_data/lmdb/RTSD/orig/train/lmdb"
    batch_size: 1024
    backend: LMDB
  }
}
layer {
  name: "conv1"
  type: "Convolution"
  bottom: "data"
  top: "conv1"
  convolution_param {
    num_output: 100
    pad: 0
    kernel_size: 7
    group: 1
    stride: 1
    weight_filler {
      type: "xavier"
    }
  }
}
layer {
  name: "conv1_relu"
  type: "ReLU"
  bottom: "conv1"
  top: "conv1"
}
layer {
  name: "pool1"
  type: "Pooling"
  bottom: "conv1"
  top: "pool1"
  pooling_param {
    pool: MAX
    kernel_size: 2
    stride: 2
  }
}
layer {
  name: "conv2"
  type: "Convolution"
  bottom: "pool1"
  top: "conv2"
  convolution_param {
    num_output: 150
    pad: 0
    kernel_size: 4
    group: 1
    stride: 1
    weight_filler {
      type: "xavier"
    }
  }
}
layer {
  name: "conv2_relu"
  type: "ReLU"
  bottom: "conv2"
  top: "conv2"
}
layer {
  name: "pool2"
  type: "Pooling"
  bottom: "conv2"
  top: "pool2"
  pooling_param {
    pool: MAX
    kernel_size: 2
    stride: 2
  }
}
layer {
  name: "conv3"
  type: "Convolution"
  bottom: "pool2"
  top: "conv3"
  convolution_param {
    num_output: 250
    pad: 0
    kernel_size: 4
    group: 1
    stride: 1
    weight_filler {
      type: "xavier"
    }
  }
}
layer {
  name: "conv3_relu"
  type: "ReLU"
  bottom: "conv3"
  top: "conv3"
}
layer {
  name: "pool3"
  type: "Pooling"
  bottom: "conv3"
  top: "pool3"
  pooling_param {
    pool: MAX
    kernel_size: 2
    stride: 2
  }
}
layer {
  name: "fc4_300"
  type: "InnerProduct"
  bottom: "pool3"
  top: "fc4_300"
  inner_product_param {
    num_output: 300
    weight_filler {
      type: "xavier"
    }
  }
}
layer {
  name: "fc4_relu"
  type: "ReLU"
  bottom: "fc4_300"
  top: "fc4_300"
}
layer {
  name: "fc5_116"
  type: "InnerProduct"
  bottom: "fc4_300"
  top: "fc5_classes"
  inner_product_param {
    num_output: 116
    weight_filler {
      type: "xavier"
    }
  }
}
layer {
  name: "softmax"
  type: "Softmax"
  bottom: "fc5_classes"
  top: "softmax"
}
layer {
  name: "loss"
  type: "MultinomialLogisticLoss"
  bottom: "softmax"
  bottom: "label"
  top: "loss"
}
layer {
  name: "accuracy_1"
  type: "Accuracy"
  bottom: "fc5_classes"
  bottom: "label"
  top: "accuracy_1"
  accuracy_param {
    top_k: 1
  }
}
layer {
  name: "accuracy_5"
  type: "Accuracy"
  bottom: "fc5_classes"
  bottom: "label"
  top: "accuracy_5"
  accuracy_param {
    top_k: 5
  }
}
layer {
  name: "silence"
  type: "Silence"
  bottom: "accuracy_1"
  bottom: "accuracy_5"
}
I0527 18:28:22.627794 26611 layer_factory.hpp:77] Creating layer data
I0527 18:28:22.640862 26611 net.cpp:100] Creating Layer data
I0527 18:28:22.640938 26611 net.cpp:408] data -> data
I0527 18:28:22.640995 26611 net.cpp:408] data -> label
I0527 18:28:22.651587 26664 db_lmdb.cpp:35] Opened lmdb ../local_data/lmdb/RTSD/orig/train/lmdb
I0527 18:28:22.733024 26611 data_layer.cpp:41] output data size: 1024,3,48,48
I0527 18:28:22.890628 26611 net.cpp:150] Setting up data
I0527 18:28:22.890741 26611 net.cpp:157] Top shape: 1024 3 48 48 (7077888)
I0527 18:28:22.890775 26611 net.cpp:157] Top shape: 1024 (1024)
I0527 18:28:22.890802 26611 net.cpp:165] Memory required for data: 28315648
I0527 18:28:22.890836 26611 layer_factory.hpp:77] Creating layer label_data_1_split
I0527 18:28:22.890872 26611 net.cpp:100] Creating Layer label_data_1_split
I0527 18:28:22.890899 26611 net.cpp:434] label_data_1_split <- label
I0527 18:28:22.890928 26611 net.cpp:408] label_data_1_split -> label_data_1_split_0
I0527 18:28:22.890955 26611 net.cpp:408] label_data_1_split -> label_data_1_split_1
I0527 18:28:22.890980 26611 net.cpp:408] label_data_1_split -> label_data_1_split_2
I0527 18:28:22.891052 26611 net.cpp:150] Setting up label_data_1_split
I0527 18:28:22.891079 26611 net.cpp:157] Top shape: 1024 (1024)
I0527 18:28:22.891099 26611 net.cpp:157] Top shape: 1024 (1024)
I0527 18:28:22.891119 26611 net.cpp:157] Top shape: 1024 (1024)
I0527 18:28:22.891136 26611 net.cpp:165] Memory required for data: 28327936
I0527 18:28:22.891155 26611 layer_factory.hpp:77] Creating layer conv1
I0527 18:28:22.891185 26611 net.cpp:100] Creating Layer conv1
I0527 18:28:22.891206 26611 net.cpp:434] conv1 <- data
I0527 18:28:22.891227 26611 net.cpp:408] conv1 -> conv1
I0527 18:28:23.695333 26611 net.cpp:150] Setting up conv1
I0527 18:28:23.695443 26611 net.cpp:157] Top shape: 1024 100 42 42 (180633600)
I0527 18:28:23.695472 26611 net.cpp:165] Memory required for data: 750862336
I0527 18:28:23.695514 26611 layer_factory.hpp:77] Creating layer conv1_relu
I0527 18:28:23.695551 26611 net.cpp:100] Creating Layer conv1_relu
I0527 18:28:23.695574 26611 net.cpp:434] conv1_relu <- conv1
I0527 18:28:23.695598 26611 net.cpp:395] conv1_relu -> conv1 (in-place)
I0527 18:28:23.695861 26611 net.cpp:150] Setting up conv1_relu
I0527 18:28:23.695902 26611 net.cpp:157] Top shape: 1024 100 42 42 (180633600)
I0527 18:28:23.695921 26611 net.cpp:165] Memory required for data: 1473396736
I0527 18:28:23.695947 26611 layer_factory.hpp:77] Creating layer pool1
I0527 18:28:23.695981 26611 net.cpp:100] Creating Layer pool1
I0527 18:28:23.696007 26611 net.cpp:434] pool1 <- conv1
I0527 18:28:23.696034 26611 net.cpp:408] pool1 -> pool1
I0527 18:28:23.696121 26611 net.cpp:150] Setting up pool1
I0527 18:28:23.696156 26611 net.cpp:157] Top shape: 1024 100 21 21 (45158400)
I0527 18:28:23.696177 26611 net.cpp:165] Memory required for data: 1654030336
I0527 18:28:23.696202 26611 layer_factory.hpp:77] Creating layer conv2
I0527 18:28:23.696233 26611 net.cpp:100] Creating Layer conv2
I0527 18:28:23.696259 26611 net.cpp:434] conv2 <- pool1
I0527 18:28:23.696288 26611 net.cpp:408] conv2 -> conv2
I0527 18:28:23.700556 26611 net.cpp:150] Setting up conv2
I0527 18:28:23.700625 26611 net.cpp:157] Top shape: 1024 150 18 18 (49766400)
I0527 18:28:23.700652 26611 net.cpp:165] Memory required for data: 1853095936
I0527 18:28:23.700719 26611 layer_factory.hpp:77] Creating layer conv2_relu
I0527 18:28:23.700759 26611 net.cpp:100] Creating Layer conv2_relu
I0527 18:28:23.700783 26611 net.cpp:434] conv2_relu <- conv2
I0527 18:28:23.700806 26611 net.cpp:395] conv2_relu -> conv2 (in-place)
I0527 18:28:23.701012 26611 net.cpp:150] Setting up conv2_relu
I0527 18:28:23.701052 26611 net.cpp:157] Top shape: 1024 150 18 18 (49766400)
I0527 18:28:23.701073 26611 net.cpp:165] Memory required for data: 2052161536
I0527 18:28:23.701099 26611 layer_factory.hpp:77] Creating layer pool2
I0527 18:28:23.701130 26611 net.cpp:100] Creating Layer pool2
I0527 18:28:23.701156 26611 net.cpp:434] pool2 <- conv2
I0527 18:28:23.701185 26611 net.cpp:408] pool2 -> pool2
I0527 18:28:23.701246 26611 net.cpp:150] Setting up pool2
I0527 18:28:23.701279 26611 net.cpp:157] Top shape: 1024 150 9 9 (12441600)
I0527 18:28:23.701299 26611 net.cpp:165] Memory required for data: 2101927936
I0527 18:28:23.701324 26611 layer_factory.hpp:77] Creating layer conv3
I0527 18:28:23.701356 26611 net.cpp:100] Creating Layer conv3
I0527 18:28:23.701383 26611 net.cpp:434] conv3 <- pool2
I0527 18:28:23.701413 26611 net.cpp:408] conv3 -> conv3
I0527 18:28:23.711989 26611 net.cpp:150] Setting up conv3
I0527 18:28:23.713243 26611 net.cpp:157] Top shape: 1024 250 6 6 (9216000)
I0527 18:28:23.713358 26611 net.cpp:165] Memory required for data: 2138791936
I0527 18:28:23.713490 26611 layer_factory.hpp:77] Creating layer conv3_relu
I0527 18:28:23.713640 26611 net.cpp:100] Creating Layer conv3_relu
I0527 18:28:23.713774 26611 net.cpp:434] conv3_relu <- conv3
I0527 18:28:23.713893 26611 net.cpp:395] conv3_relu -> conv3 (in-place)
I0527 18:28:23.719077 26611 net.cpp:150] Setting up conv3_relu
I0527 18:28:23.719444 26611 net.cpp:157] Top shape: 1024 250 6 6 (9216000)
I0527 18:28:23.719552 26611 net.cpp:165] Memory required for data: 2175655936
I0527 18:28:23.719655 26611 layer_factory.hpp:77] Creating layer pool3
I0527 18:28:23.719758 26611 net.cpp:100] Creating Layer pool3
I0527 18:28:23.719859 26611 net.cpp:434] pool3 <- conv3
I0527 18:28:23.719954 26611 net.cpp:408] pool3 -> pool3
I0527 18:28:23.720114 26611 net.cpp:150] Setting up pool3
I0527 18:28:23.720274 26611 net.cpp:157] Top shape: 1024 250 3 3 (2304000)
I0527 18:28:23.720371 26611 net.cpp:165] Memory required for data: 2184871936
I0527 18:28:23.720469 26611 layer_factory.hpp:77] Creating layer fc4_300
I0527 18:28:23.720568 26611 net.cpp:100] Creating Layer fc4_300
I0527 18:28:23.720667 26611 net.cpp:434] fc4_300 <- pool3
I0527 18:28:23.721346 26611 net.cpp:408] fc4_300 -> fc4_300
I0527 18:28:23.743459 26611 net.cpp:150] Setting up fc4_300
I0527 18:28:23.744541 26611 net.cpp:157] Top shape: 1024 300 (307200)
I0527 18:28:23.744743 26611 net.cpp:165] Memory required for data: 2186100736
I0527 18:28:23.744915 26611 layer_factory.hpp:77] Creating layer fc4_relu
I0527 18:28:23.745131 26611 net.cpp:100] Creating Layer fc4_relu
I0527 18:28:23.745302 26611 net.cpp:434] fc4_relu <- fc4_300
I0527 18:28:23.745465 26611 net.cpp:395] fc4_relu -> fc4_300 (in-place)
I0527 18:28:23.745885 26611 net.cpp:150] Setting up fc4_relu
I0527 18:28:23.746459 26611 net.cpp:157] Top shape: 1024 300 (307200)
I0527 18:28:23.746628 26611 net.cpp:165] Memory required for data: 2187329536
I0527 18:28:23.746760 26611 layer_factory.hpp:77] Creating layer fc5_116
I0527 18:28:23.746866 26611 net.cpp:100] Creating Layer fc5_116
I0527 18:28:23.746974 26611 net.cpp:434] fc5_116 <- fc4_300
I0527 18:28:23.747076 26611 net.cpp:408] fc5_116 -> fc5_classes
I0527 18:28:23.759069 26611 net.cpp:150] Setting up fc5_116
I0527 18:28:23.759222 26611 net.cpp:157] Top shape: 1024 116 (118784)
I0527 18:28:23.759426 26611 net.cpp:165] Memory required for data: 2187804672
I0527 18:28:23.759588 26611 layer_factory.hpp:77] Creating layer fc5_classes_fc5_116_0_split
I0527 18:28:23.759794 26611 net.cpp:100] Creating Layer fc5_classes_fc5_116_0_split
I0527 18:28:23.759945 26611 net.cpp:434] fc5_classes_fc5_116_0_split <- fc5_classes
I0527 18:28:23.760154 26611 net.cpp:408] fc5_classes_fc5_116_0_split -> fc5_classes_fc5_116_0_split_0
I0527 18:28:23.760325 26611 net.cpp:408] fc5_classes_fc5_116_0_split -> fc5_classes_fc5_116_0_split_1
I0527 18:28:23.760494 26611 net.cpp:408] fc5_classes_fc5_116_0_split -> fc5_classes_fc5_116_0_split_2
I0527 18:28:23.760756 26611 net.cpp:150] Setting up fc5_classes_fc5_116_0_split
I0527 18:28:23.764921 26611 net.cpp:157] Top shape: 1024 116 (118784)
I0527 18:28:23.765046 26611 net.cpp:157] Top shape: 1024 116 (118784)
I0527 18:28:23.765233 26611 net.cpp:157] Top shape: 1024 116 (118784)
I0527 18:28:23.765669 26611 net.cpp:165] Memory required for data: 2189230080
I0527 18:28:23.766064 26611 layer_factory.hpp:77] Creating layer softmax
I0527 18:28:23.766204 26611 net.cpp:100] Creating Layer softmax
I0527 18:28:23.766245 26611 net.cpp:434] softmax <- fc5_classes_fc5_116_0_split_0
I0527 18:28:23.766273 26611 net.cpp:408] softmax -> softmax
I0527 18:28:23.772990 26611 net.cpp:150] Setting up softmax
I0527 18:28:23.778249 26611 net.cpp:157] Top shape: 1024 116 (118784)
I0527 18:28:23.778301 26611 net.cpp:165] Memory required for data: 2189705216
I0527 18:28:23.778331 26611 layer_factory.hpp:77] Creating layer loss
I0527 18:28:23.778372 26611 net.cpp:100] Creating Layer loss
I0527 18:28:23.778411 26611 net.cpp:434] loss <- softmax
I0527 18:28:23.778434 26611 net.cpp:434] loss <- label_data_1_split_0
I0527 18:28:23.778463 26611 net.cpp:408] loss -> loss
…
