…
I0508 01:40:17.636843 25306 solver.cpp:93] Creating training net from train_net file: ./Prototxt/experiment_16/RTSD/orig/trial_1/train.prototxt
I0508 01:40:17.637187 25306 net.cpp:58] Initializing net from parameters: 
state {
  phase: TRAIN
  level: 0
  stage: ""
}
layer {
  name: "data"
  type: "Data"
  top: "data"
  top: "label"
  include {
    phase: TRAIN
  }
  transform_param {
    scale: 0.0039215689
    mirror: false
    crop_size: 48
    mean_value: 119
    mean_value: 113
    mean_value: 113
  }
  data_param {
    source: "../local_data/lmdb/RTSD/orig/train/lmdb"
    batch_size: 1024
    backend: LMDB
  }
}
layer {
  name: "conv1"
  type: "Convolution"
  bottom: "data"
  top: "conv1"
  convolution_param {
    num_output: 100
    pad: 0
    kernel_size: 7
    group: 1
    stride: 1
    weight_filler {
      type: "xavier"
    }
  }
}
layer {
  name: "conv1_relu"
  type: "ReLU"
  bottom: "conv1"
  top: "conv1"
}
layer {
  name: "pool1"
  type: "Pooling"
  bottom: "conv1"
  top: "pool1"
  pooling_param {
    pool: MAX
    kernel_size: 2
    stride: 2
  }
}
layer {
  name: "conv2"
  type: "Convolution"
  bottom: "pool1"
  top: "conv2"
  convolution_param {
    num_output: 150
    pad: 0
    kernel_size: 4
    group: 2
    stride: 1
    weight_filler {
      type: "xavier"
    }
  }
}
layer {
  name: "conv2_relu"
  type: "ReLU"
  bottom: "conv2"
  top: "conv2"
}
layer {
  name: "pool2"
  type: "Pooling"
  bottom: "conv2"
  top: "pool2"
  pooling_param {
    pool: MAX
    kernel_size: 2
    stride: 2
  }
}
layer {
  name: "conv3"
  type: "Convolution"
  bottom: "pool2"
  top: "conv3"
  convolution_param {
    num_output: 250
    pad: 0
    kernel_size: 4
    group: 2
    stride: 1
    weight_filler {
      type: "xavier"
    }
  }
}
layer {
  name: "conv3_relu"
  type: "ReLU"
  bottom: "conv3"
  top: "conv3"
}
layer {
  name: "pool3"
  type: "Pooling"
  bottom: "conv3"
  top: "pool3"
  pooling_param {
    pool: MAX
    kernel_size: 2
    stride: 2
  }
}
layer {
  name: "fc4_300"
  type: "InnerProduct"
  bottom: "pool3"
  top: "fc4_300"
  inner_product_param {
    num_output: 300
    weight_filler {
      type: "xavier"
    }
  }
}
layer {
  name: "fc4_relu"
  type: "ReLU"
  bottom: "fc4_300"
  top: "fc4_300"
}
layer {
  name: "fc5_116"
  type: "InnerProduct"
  bottom: "fc4_300"
  top: "fc5_classes"
  inner_product_param {
    num_output: 116
    weight_filler {
      type: "xavier"
    }
  }
}
layer {
  name: "softmax"
  type: "Softmax"
  bottom: "fc5_classes"
  top: "softmax"
}
layer {
  name: "loss"
  type: "MultinomialLogisticLoss"
  bottom: "softmax"
  bottom: "label"
  top: "loss"
}
layer {
  name: "accuracy_1"
  type: "Accuracy"
  bottom: "fc5_classes"
  bottom: "label"
  top: "accuracy_1"
  accuracy_param {
    top_k: 1
  }
}
layer {
  name: "accuracy_5"
  type: "Accuracy"
  bottom: "fc5_classes"
  bottom: "label"
  top: "accuracy_5"
  accuracy_param {
    top_k: 5
  }
}
layer {
  name: "silence"
  type: "Silence"
  bottom: "accuracy_1"
  bottom: "accuracy_5"
}
I0508 01:40:17.637308 25306 layer_factory.hpp:77] Creating layer data
I0508 01:40:17.638380 25306 net.cpp:100] Creating Layer data
I0508 01:40:17.638394 25306 net.cpp:408] data -> data
I0508 01:40:17.638418 25306 net.cpp:408] data -> label
I0508 01:40:17.645041 25413 db_lmdb.cpp:35] Opened lmdb ../local_data/lmdb/RTSD/orig/train/lmdb
I0508 01:40:17.664387 25306 data_layer.cpp:41] output data size: 1024,3,48,48
I0508 01:40:17.727926 25306 net.cpp:150] Setting up data
I0508 01:40:17.727982 25306 net.cpp:157] Top shape: 1024 3 48 48 (7077888)
I0508 01:40:17.727989 25306 net.cpp:157] Top shape: 1024 (1024)
I0508 01:40:17.727993 25306 net.cpp:165] Memory required for data: 28315648
I0508 01:40:17.728004 25306 layer_factory.hpp:77] Creating layer label_data_1_split
I0508 01:40:17.728018 25306 net.cpp:100] Creating Layer label_data_1_split
I0508 01:40:17.728026 25306 net.cpp:434] label_data_1_split <- label
I0508 01:40:17.728040 25306 net.cpp:408] label_data_1_split -> label_data_1_split_0
I0508 01:40:17.728054 25306 net.cpp:408] label_data_1_split -> label_data_1_split_1
I0508 01:40:17.728062 25306 net.cpp:408] label_data_1_split -> label_data_1_split_2
I0508 01:40:17.728127 25306 net.cpp:150] Setting up label_data_1_split
I0508 01:40:17.728137 25306 net.cpp:157] Top shape: 1024 (1024)
I0508 01:40:17.728140 25306 net.cpp:157] Top shape: 1024 (1024)
I0508 01:40:17.728143 25306 net.cpp:157] Top shape: 1024 (1024)
I0508 01:40:17.728147 25306 net.cpp:165] Memory required for data: 28327936
I0508 01:40:17.728150 25306 layer_factory.hpp:77] Creating layer conv1
I0508 01:40:17.728168 25306 net.cpp:100] Creating Layer conv1
I0508 01:40:17.728173 25306 net.cpp:434] conv1 <- data
I0508 01:40:17.728179 25306 net.cpp:408] conv1 -> conv1
I0508 01:40:18.140316 25306 net.cpp:150] Setting up conv1
I0508 01:40:18.140343 25306 net.cpp:157] Top shape: 1024 100 42 42 (180633600)
I0508 01:40:18.140348 25306 net.cpp:165] Memory required for data: 750862336
I0508 01:40:18.140374 25306 layer_factory.hpp:77] Creating layer conv1_relu
I0508 01:40:18.140390 25306 net.cpp:100] Creating Layer conv1_relu
I0508 01:40:18.140400 25306 net.cpp:434] conv1_relu <- conv1
I0508 01:40:18.140409 25306 net.cpp:395] conv1_relu -> conv1 (in-place)
I0508 01:40:18.140627 25306 net.cpp:150] Setting up conv1_relu
I0508 01:40:18.140641 25306 net.cpp:157] Top shape: 1024 100 42 42 (180633600)
I0508 01:40:18.140646 25306 net.cpp:165] Memory required for data: 1473396736
I0508 01:40:18.140650 25306 layer_factory.hpp:77] Creating layer pool1
I0508 01:40:18.140661 25306 net.cpp:100] Creating Layer pool1
I0508 01:40:18.140666 25306 net.cpp:434] pool1 <- conv1
I0508 01:40:18.140672 25306 net.cpp:408] pool1 -> pool1
I0508 01:40:18.140736 25306 net.cpp:150] Setting up pool1
I0508 01:40:18.140746 25306 net.cpp:157] Top shape: 1024 100 21 21 (45158400)
I0508 01:40:18.140749 25306 net.cpp:165] Memory required for data: 1654030336
I0508 01:40:18.140753 25306 layer_factory.hpp:77] Creating layer conv2
I0508 01:40:18.140764 25306 net.cpp:100] Creating Layer conv2
I0508 01:40:18.140769 25306 net.cpp:434] conv2 <- pool1
I0508 01:40:18.140775 25306 net.cpp:408] conv2 -> conv2
I0508 01:40:18.156294 25306 net.cpp:150] Setting up conv2
I0508 01:40:18.156317 25306 net.cpp:157] Top shape: 1024 150 18 18 (49766400)
I0508 01:40:18.156322 25306 net.cpp:165] Memory required for data: 1853095936
I0508 01:40:18.156334 25306 layer_factory.hpp:77] Creating layer conv2_relu
I0508 01:40:18.156342 25306 net.cpp:100] Creating Layer conv2_relu
I0508 01:40:18.156347 25306 net.cpp:434] conv2_relu <- conv2
I0508 01:40:18.156352 25306 net.cpp:395] conv2_relu -> conv2 (in-place)
I0508 01:40:18.156553 25306 net.cpp:150] Setting up conv2_relu
I0508 01:40:18.156566 25306 net.cpp:157] Top shape: 1024 150 18 18 (49766400)
I0508 01:40:18.156570 25306 net.cpp:165] Memory required for data: 2052161536
I0508 01:40:18.156574 25306 layer_factory.hpp:77] Creating layer pool2
I0508 01:40:18.156584 25306 net.cpp:100] Creating Layer pool2
I0508 01:40:18.156591 25306 net.cpp:434] pool2 <- conv2
I0508 01:40:18.156600 25306 net.cpp:408] pool2 -> pool2
I0508 01:40:18.156671 25306 net.cpp:150] Setting up pool2
I0508 01:40:18.156687 25306 net.cpp:157] Top shape: 1024 150 9 9 (12441600)
I0508 01:40:18.156692 25306 net.cpp:165] Memory required for data: 2101927936
I0508 01:40:18.156697 25306 layer_factory.hpp:77] Creating layer conv3
I0508 01:40:18.156709 25306 net.cpp:100] Creating Layer conv3
I0508 01:40:18.156714 25306 net.cpp:434] conv3 <- pool2
I0508 01:40:18.156720 25306 net.cpp:408] conv3 -> conv3
I0508 01:40:18.177537 25306 net.cpp:150] Setting up conv3
I0508 01:40:18.177568 25306 net.cpp:157] Top shape: 1024 250 6 6 (9216000)
I0508 01:40:18.177573 25306 net.cpp:165] Memory required for data: 2138791936
I0508 01:40:18.177592 25306 layer_factory.hpp:77] Creating layer conv3_relu
I0508 01:40:18.177604 25306 net.cpp:100] Creating Layer conv3_relu
I0508 01:40:18.177611 25306 net.cpp:434] conv3_relu <- conv3
I0508 01:40:18.177623 25306 net.cpp:395] conv3_relu -> conv3 (in-place)
I0508 01:40:18.177862 25306 net.cpp:150] Setting up conv3_relu
I0508 01:40:18.177877 25306 net.cpp:157] Top shape: 1024 250 6 6 (9216000)
I0508 01:40:18.177882 25306 net.cpp:165] Memory required for data: 2175655936
I0508 01:40:18.177887 25306 layer_factory.hpp:77] Creating layer pool3
I0508 01:40:18.177898 25306 net.cpp:100] Creating Layer pool3
I0508 01:40:18.177904 25306 net.cpp:434] pool3 <- conv3
I0508 01:40:18.177911 25306 net.cpp:408] pool3 -> pool3
I0508 01:40:18.177975 25306 net.cpp:150] Setting up pool3
I0508 01:40:18.177985 25306 net.cpp:157] Top shape: 1024 250 3 3 (2304000)
I0508 01:40:18.177990 25306 net.cpp:165] Memory required for data: 2184871936
I0508 01:40:18.177994 25306 layer_factory.hpp:77] Creating layer fc4_300
I0508 01:40:18.178005 25306 net.cpp:100] Creating Layer fc4_300
I0508 01:40:18.178010 25306 net.cpp:434] fc4_300 <- pool3
I0508 01:40:18.178017 25306 net.cpp:408] fc4_300 -> fc4_300
I0508 01:40:18.189360 25306 net.cpp:150] Setting up fc4_300
I0508 01:40:18.189393 25306 net.cpp:157] Top shape: 1024 300 (307200)
I0508 01:40:18.189398 25306 net.cpp:165] Memory required for data: 2186100736
I0508 01:40:18.189409 25306 layer_factory.hpp:77] Creating layer fc4_relu
I0508 01:40:18.189424 25306 net.cpp:100] Creating Layer fc4_relu
I0508 01:40:18.189430 25306 net.cpp:434] fc4_relu <- fc4_300
I0508 01:40:18.189441 25306 net.cpp:395] fc4_relu -> fc4_300 (in-place)
I0508 01:40:18.191748 25306 net.cpp:150] Setting up fc4_relu
I0508 01:40:18.191771 25306 net.cpp:157] Top shape: 1024 300 (307200)
I0508 01:40:18.191778 25306 net.cpp:165] Memory required for data: 2187329536
I0508 01:40:18.191784 25306 layer_factory.hpp:77] Creating layer fc5_116
I0508 01:40:18.191799 25306 net.cpp:100] Creating Layer fc5_116
I0508 01:40:18.191807 25306 net.cpp:434] fc5_116 <- fc4_300
I0508 01:40:18.191815 25306 net.cpp:408] fc5_116 -> fc5_classes
I0508 01:40:18.194017 25306 net.cpp:150] Setting up fc5_116
I0508 01:40:18.194038 25306 net.cpp:157] Top shape: 1024 116 (118784)
I0508 01:40:18.194043 25306 net.cpp:165] Memory required for data: 2187804672
I0508 01:40:18.194059 25306 layer_factory.hpp:77] Creating layer fc5_classes_fc5_116_0_split
I0508 01:40:18.194072 25306 net.cpp:100] Creating Layer fc5_classes_fc5_116_0_split
I0508 01:40:18.194077 25306 net.cpp:434] fc5_classes_fc5_116_0_split <- fc5_classes
I0508 01:40:18.194085 25306 net.cpp:408] fc5_classes_fc5_116_0_split -> fc5_classes_fc5_116_0_split_0
I0508 01:40:18.194098 25306 net.cpp:408] fc5_classes_fc5_116_0_split -> fc5_classes_fc5_116_0_split_1
I0508 01:40:18.194111 25306 net.cpp:408] fc5_classes_fc5_116_0_split -> fc5_classes_fc5_116_0_split_2
I0508 01:40:18.194185 25306 net.cpp:150] Setting up fc5_classes_fc5_116_0_split
I0508 01:40:18.194195 25306 net.cpp:157] Top shape: 1024 116 (118784)
I0508 01:40:18.194202 25306 net.cpp:157] Top shape: 1024 116 (118784)
I0508 01:40:18.194207 25306 net.cpp:157] Top shape: 1024 116 (118784)
I0508 01:40:18.194213 25306 net.cpp:165] Memory required for data: 2189230080
I0508 01:40:18.194217 25306 layer_factory.hpp:77] Creating layer softmax
I0508 01:40:18.194227 25306 net.cpp:100] Creating Layer softmax
I0508 01:40:18.194234 25306 net.cpp:434] softmax <- fc5_classes_fc5_116_0_split_0
I0508 01:40:18.194242 25306 net.cpp:408] softmax -> softmax
I0508 01:40:18.194594 25306 net.cpp:150] Setting up softmax
I0508 01:40:18.194615 25306 net.cpp:157] Top shape: 1024 116 (118784)
I0508 01:40:18.194622 25306 net.cpp:165] Memory required for data: 2189705216
I0508 01:40:18.194627 25306 layer_factory.hpp:77] Creating layer loss
I0508 01:40:18.194643 25306 net.cpp:100] Creating Layer loss
I0508 01:40:18.194674 25306 net.cpp:434] loss <- softmax
I0508 01:40:18.194682 25306 net.cpp:434] loss <- label_data_1_split_0
I0508 01:40:18.194691 25306 net.cpp:408] loss -> loss
…
