…
I0508 00:50:57.103971  9289 solver.cpp:93] Creating training net from train_net file: ./Prototxt/experiment_16/RTSD/orig/trial_1/train.prototxt
I0508 00:50:57.104315  9289 net.cpp:58] Initializing net from parameters: 
state {
  phase: TRAIN
  level: 0
  stage: ""
}
layer {
  name: "data"
  type: "Data"
  top: "data"
  top: "label"
  include {
    phase: TRAIN
  }
  transform_param {
    scale: 0.0039215689
    mirror: false
    crop_size: 48
    mean_value: 119
    mean_value: 113
    mean_value: 113
  }
  data_param {
    source: "../local_data/lmdb/RTSD/orig/train/lmdb"
    batch_size: 1024
    backend: LMDB
  }
}
layer {
  name: "conv1"
  type: "Convolution"
  bottom: "data"
  top: "conv1"
  convolution_param {
    num_output: 100
    pad: 0
    kernel_size: 7
    group: 1
    stride: 1
    weight_filler {
      type: "xavier"
    }
  }
}
layer {
  name: "conv1_relu"
  type: "ReLU"
  bottom: "conv1"
  top: "conv1"
}
layer {
  name: "pool1"
  type: "Pooling"
  bottom: "conv1"
  top: "pool1"
  pooling_param {
    pool: MAX
    kernel_size: 2
    stride: 2
  }
}
layer {
  name: "conv2"
  type: "Convolution"
  bottom: "pool1"
  top: "conv2"
  convolution_param {
    num_output: 150
    pad: 0
    kernel_size: 4
    group: 2
    stride: 1
    weight_filler {
      type: "xavier"
    }
  }
}
layer {
  name: "conv2_relu"
  type: "ReLU"
  bottom: "conv2"
  top: "conv2"
}
layer {
  name: "pool2"
  type: "Pooling"
  bottom: "conv2"
  top: "pool2"
  pooling_param {
    pool: MAX
    kernel_size: 2
    stride: 2
  }
}
layer {
  name: "conv3"
  type: "Convolution"
  bottom: "pool2"
  top: "conv3"
  convolution_param {
    num_output: 250
    pad: 0
    kernel_size: 4
    group: 2
    stride: 1
    weight_filler {
      type: "xavier"
    }
  }
}
layer {
  name: "conv3_relu"
  type: "ReLU"
  bottom: "conv3"
  top: "conv3"
}
layer {
  name: "pool3"
  type: "Pooling"
  bottom: "conv3"
  top: "pool3"
  pooling_param {
    pool: MAX
    kernel_size: 2
    stride: 2
  }
}
layer {
  name: "fc4_300"
  type: "InnerProduct"
  bottom: "pool3"
  top: "fc4_300"
  inner_product_param {
    num_output: 300
    weight_filler {
      type: "xavier"
    }
  }
}
layer {
  name: "fc4_relu"
  type: "ReLU"
  bottom: "fc4_300"
  top: "fc4_300"
}
layer {
  name: "fc5_116"
  type: "InnerProduct"
  bottom: "fc4_300"
  top: "fc5_classes"
  inner_product_param {
    num_output: 116
    weight_filler {
      type: "xavier"
    }
  }
}
layer {
  name: "softmax"
  type: "Softmax"
  bottom: "fc5_classes"
  top: "softmax"
}
layer {
  name: "loss"
  type: "MultinomialLogisticLoss"
  bottom: "softmax"
  bottom: "label"
  top: "loss"
}
layer {
  name: "accuracy_1"
  type: "Accuracy"
  bottom: "fc5_classes"
  bottom: "label"
  top: "accuracy_1"
  accuracy_param {
    top_k: 1
  }
}
layer {
  name: "accuracy_5"
  type: "Accuracy"
  bottom: "fc5_classes"
  bottom: "label"
  top: "accuracy_5"
  accuracy_param {
    top_k: 5
  }
}
layer {
  name: "silence"
  type: "Silence"
  bottom: "accuracy_1"
  bottom: "accuracy_5"
}
I0508 00:50:57.104439  9289 layer_factory.hpp:77] Creating layer data
I0508 00:50:57.105510  9289 net.cpp:100] Creating Layer data
I0508 00:50:57.105526  9289 net.cpp:408] data -> data
I0508 00:50:57.105551  9289 net.cpp:408] data -> label
I0508 00:50:57.112684  9441 db_lmdb.cpp:35] Opened lmdb ../local_data/lmdb/RTSD/orig/train/lmdb
I0508 00:50:57.131083  9289 data_layer.cpp:41] output data size: 1024,3,48,48
I0508 00:50:57.204035  9289 net.cpp:150] Setting up data
I0508 00:50:57.204087  9289 net.cpp:157] Top shape: 1024 3 48 48 (7077888)
I0508 00:50:57.204092  9289 net.cpp:157] Top shape: 1024 (1024)
I0508 00:50:57.204097  9289 net.cpp:165] Memory required for data: 28315648
I0508 00:50:57.204108  9289 layer_factory.hpp:77] Creating layer label_data_1_split
I0508 00:50:57.204123  9289 net.cpp:100] Creating Layer label_data_1_split
I0508 00:50:57.204131  9289 net.cpp:434] label_data_1_split <- label
I0508 00:50:57.204146  9289 net.cpp:408] label_data_1_split -> label_data_1_split_0
I0508 00:50:57.204159  9289 net.cpp:408] label_data_1_split -> label_data_1_split_1
I0508 00:50:57.204170  9289 net.cpp:408] label_data_1_split -> label_data_1_split_2
I0508 00:50:57.204237  9289 net.cpp:150] Setting up label_data_1_split
I0508 00:50:57.204246  9289 net.cpp:157] Top shape: 1024 (1024)
I0508 00:50:57.204249  9289 net.cpp:157] Top shape: 1024 (1024)
I0508 00:50:57.204253  9289 net.cpp:157] Top shape: 1024 (1024)
I0508 00:50:57.204257  9289 net.cpp:165] Memory required for data: 28327936
I0508 00:50:57.204259  9289 layer_factory.hpp:77] Creating layer conv1
I0508 00:50:57.204280  9289 net.cpp:100] Creating Layer conv1
I0508 00:50:57.204285  9289 net.cpp:434] conv1 <- data
I0508 00:50:57.204291  9289 net.cpp:408] conv1 -> conv1
I0508 00:50:57.539240  9289 net.cpp:150] Setting up conv1
I0508 00:50:57.539271  9289 net.cpp:157] Top shape: 1024 100 42 42 (180633600)
I0508 00:50:57.539275  9289 net.cpp:165] Memory required for data: 750862336
I0508 00:50:57.539299  9289 layer_factory.hpp:77] Creating layer conv1_relu
I0508 00:50:57.539311  9289 net.cpp:100] Creating Layer conv1_relu
I0508 00:50:57.539317  9289 net.cpp:434] conv1_relu <- conv1
I0508 00:50:57.539324  9289 net.cpp:395] conv1_relu -> conv1 (in-place)
I0508 00:50:57.539515  9289 net.cpp:150] Setting up conv1_relu
I0508 00:50:57.539528  9289 net.cpp:157] Top shape: 1024 100 42 42 (180633600)
I0508 00:50:57.539533  9289 net.cpp:165] Memory required for data: 1473396736
I0508 00:50:57.539536  9289 layer_factory.hpp:77] Creating layer pool1
I0508 00:50:57.539546  9289 net.cpp:100] Creating Layer pool1
I0508 00:50:57.539551  9289 net.cpp:434] pool1 <- conv1
I0508 00:50:57.539556  9289 net.cpp:408] pool1 -> pool1
I0508 00:50:57.539608  9289 net.cpp:150] Setting up pool1
I0508 00:50:57.539618  9289 net.cpp:157] Top shape: 1024 100 21 21 (45158400)
I0508 00:50:57.539620  9289 net.cpp:165] Memory required for data: 1654030336
I0508 00:50:57.539623  9289 layer_factory.hpp:77] Creating layer conv2
I0508 00:50:57.539633  9289 net.cpp:100] Creating Layer conv2
I0508 00:50:57.539638  9289 net.cpp:434] conv2 <- pool1
I0508 00:50:57.539644  9289 net.cpp:408] conv2 -> conv2
I0508 00:50:57.543560  9289 net.cpp:150] Setting up conv2
I0508 00:50:57.543576  9289 net.cpp:157] Top shape: 1024 150 18 18 (49766400)
I0508 00:50:57.543581  9289 net.cpp:165] Memory required for data: 1853095936
I0508 00:50:57.543591  9289 layer_factory.hpp:77] Creating layer conv2_relu
I0508 00:50:57.543597  9289 net.cpp:100] Creating Layer conv2_relu
I0508 00:50:57.543601  9289 net.cpp:434] conv2_relu <- conv2
I0508 00:50:57.543606  9289 net.cpp:395] conv2_relu -> conv2 (in-place)
I0508 00:50:57.543771  9289 net.cpp:150] Setting up conv2_relu
I0508 00:50:57.543782  9289 net.cpp:157] Top shape: 1024 150 18 18 (49766400)
I0508 00:50:57.543786  9289 net.cpp:165] Memory required for data: 2052161536
I0508 00:50:57.543789  9289 layer_factory.hpp:77] Creating layer pool2
I0508 00:50:57.543795  9289 net.cpp:100] Creating Layer pool2
I0508 00:50:57.543799  9289 net.cpp:434] pool2 <- conv2
I0508 00:50:57.543804  9289 net.cpp:408] pool2 -> pool2
I0508 00:50:57.543849  9289 net.cpp:150] Setting up pool2
I0508 00:50:57.543858  9289 net.cpp:157] Top shape: 1024 150 9 9 (12441600)
I0508 00:50:57.543860  9289 net.cpp:165] Memory required for data: 2101927936
I0508 00:50:57.543864  9289 layer_factory.hpp:77] Creating layer conv3
I0508 00:50:57.543874  9289 net.cpp:100] Creating Layer conv3
I0508 00:50:57.543885  9289 net.cpp:434] conv3 <- pool2
I0508 00:50:57.543892  9289 net.cpp:408] conv3 -> conv3
I0508 00:50:57.547915  9289 net.cpp:150] Setting up conv3
I0508 00:50:57.547931  9289 net.cpp:157] Top shape: 1024 250 6 6 (9216000)
I0508 00:50:57.547936  9289 net.cpp:165] Memory required for data: 2138791936
I0508 00:50:57.547946  9289 layer_factory.hpp:77] Creating layer conv3_relu
I0508 00:50:57.547953  9289 net.cpp:100] Creating Layer conv3_relu
I0508 00:50:57.547977  9289 net.cpp:434] conv3_relu <- conv3
I0508 00:50:57.547983  9289 net.cpp:395] conv3_relu -> conv3 (in-place)
I0508 00:50:57.548151  9289 net.cpp:150] Setting up conv3_relu
I0508 00:50:57.548161  9289 net.cpp:157] Top shape: 1024 250 6 6 (9216000)
I0508 00:50:57.548164  9289 net.cpp:165] Memory required for data: 2175655936
I0508 00:50:57.548168  9289 layer_factory.hpp:77] Creating layer pool3
I0508 00:50:57.548174  9289 net.cpp:100] Creating Layer pool3
I0508 00:50:57.548179  9289 net.cpp:434] pool3 <- conv3
I0508 00:50:57.548184  9289 net.cpp:408] pool3 -> pool3
I0508 00:50:57.548225  9289 net.cpp:150] Setting up pool3
I0508 00:50:57.548233  9289 net.cpp:157] Top shape: 1024 250 3 3 (2304000)
I0508 00:50:57.548236  9289 net.cpp:165] Memory required for data: 2184871936
I0508 00:50:57.548239  9289 layer_factory.hpp:77] Creating layer fc4_300
I0508 00:50:57.548247  9289 net.cpp:100] Creating Layer fc4_300
I0508 00:50:57.548251  9289 net.cpp:434] fc4_300 <- pool3
I0508 00:50:57.548256  9289 net.cpp:408] fc4_300 -> fc4_300
I0508 00:50:57.553620  9289 net.cpp:150] Setting up fc4_300
I0508 00:50:57.553637  9289 net.cpp:157] Top shape: 1024 300 (307200)
I0508 00:50:57.553640  9289 net.cpp:165] Memory required for data: 2186100736
I0508 00:50:57.553647  9289 layer_factory.hpp:77] Creating layer fc4_relu
I0508 00:50:57.553653  9289 net.cpp:100] Creating Layer fc4_relu
I0508 00:50:57.553658  9289 net.cpp:434] fc4_relu <- fc4_300
I0508 00:50:57.553663  9289 net.cpp:395] fc4_relu -> fc4_300 (in-place)
I0508 00:50:57.554842  9289 net.cpp:150] Setting up fc4_relu
I0508 00:50:57.554858  9289 net.cpp:157] Top shape: 1024 300 (307200)
I0508 00:50:57.554863  9289 net.cpp:165] Memory required for data: 2187329536
I0508 00:50:57.554867  9289 layer_factory.hpp:77] Creating layer fc5_116
I0508 00:50:57.554875  9289 net.cpp:100] Creating Layer fc5_116
I0508 00:50:57.554880  9289 net.cpp:434] fc5_116 <- fc4_300
I0508 00:50:57.554886  9289 net.cpp:408] fc5_116 -> fc5_classes
I0508 00:50:57.556206  9289 net.cpp:150] Setting up fc5_116
I0508 00:50:57.556222  9289 net.cpp:157] Top shape: 1024 116 (118784)
I0508 00:50:57.556226  9289 net.cpp:165] Memory required for data: 2187804672
I0508 00:50:57.556236  9289 layer_factory.hpp:77] Creating layer fc5_classes_fc5_116_0_split
I0508 00:50:57.556246  9289 net.cpp:100] Creating Layer fc5_classes_fc5_116_0_split
I0508 00:50:57.556251  9289 net.cpp:434] fc5_classes_fc5_116_0_split <- fc5_classes
I0508 00:50:57.556257  9289 net.cpp:408] fc5_classes_fc5_116_0_split -> fc5_classes_fc5_116_0_split_0
I0508 00:50:57.556265  9289 net.cpp:408] fc5_classes_fc5_116_0_split -> fc5_classes_fc5_116_0_split_1
I0508 00:50:57.556273  9289 net.cpp:408] fc5_classes_fc5_116_0_split -> fc5_classes_fc5_116_0_split_2
I0508 00:50:57.556321  9289 net.cpp:150] Setting up fc5_classes_fc5_116_0_split
I0508 00:50:57.556329  9289 net.cpp:157] Top shape: 1024 116 (118784)
I0508 00:50:57.556334  9289 net.cpp:157] Top shape: 1024 116 (118784)
I0508 00:50:57.556339  9289 net.cpp:157] Top shape: 1024 116 (118784)
I0508 00:50:57.556342  9289 net.cpp:165] Memory required for data: 2189230080
I0508 00:50:57.556345  9289 layer_factory.hpp:77] Creating layer softmax
I0508 00:50:57.556351  9289 net.cpp:100] Creating Layer softmax
I0508 00:50:57.556355  9289 net.cpp:434] softmax <- fc5_classes_fc5_116_0_split_0
I0508 00:50:57.556361  9289 net.cpp:408] softmax -> softmax
I0508 00:50:57.556596  9289 net.cpp:150] Setting up softmax
I0508 00:50:57.556607  9289 net.cpp:157] Top shape: 1024 116 (118784)
I0508 00:50:57.556612  9289 net.cpp:165] Memory required for data: 2189705216
I0508 00:50:57.556617  9289 layer_factory.hpp:77] Creating layer loss
I0508 00:50:57.556625  9289 net.cpp:100] Creating Layer loss
I0508 00:50:57.556644  9289 net.cpp:434] loss <- softmax
I0508 00:50:57.556650  9289 net.cpp:434] loss <- label_data_1_split_0
I0508 00:50:57.556658  9289 net.cpp:408] loss -> loss
…
