…
I0508 01:19:05.001570 11333 solver.cpp:93] Creating training net from train_net file: ./Prototxt/experiment_16/RTSD/orig/trial_1/train.prototxt
I0508 01:19:05.001917 11333 net.cpp:58] Initializing net from parameters: 
state {
  phase: TRAIN
  level: 0
  stage: ""
}
layer {
  name: "data"
  type: "Data"
  top: "data"
  top: "label"
  include {
    phase: TRAIN
  }
  transform_param {
    scale: 0.0039215689
    mirror: false
    crop_size: 48
    mean_value: 119
    mean_value: 113
    mean_value: 113
  }
  data_param {
    source: "../local_data/lmdb/RTSD/orig/train/lmdb"
    batch_size: 1024
    backend: LMDB
  }
}
layer {
  name: "conv1"
  type: "Convolution"
  bottom: "data"
  top: "conv1"
  convolution_param {
    num_output: 100
    pad: 0
    kernel_size: 7
    group: 1
    stride: 1
    weight_filler {
      type: "xavier"
    }
  }
}
layer {
  name: "conv1_relu"
  type: "ReLU"
  bottom: "conv1"
  top: "conv1"
}
layer {
  name: "pool1"
  type: "Pooling"
  bottom: "conv1"
  top: "pool1"
  pooling_param {
    pool: MAX
    kernel_size: 2
    stride: 2
  }
}
layer {
  name: "conv2"
  type: "Convolution"
  bottom: "pool1"
  top: "conv2"
  convolution_param {
    num_output: 150
    pad: 0
    kernel_size: 4
    group: 2
    stride: 1
    weight_filler {
      type: "xavier"
    }
  }
}
layer {
  name: "conv2_relu"
  type: "ReLU"
  bottom: "conv2"
  top: "conv2"
}
layer {
  name: "pool2"
  type: "Pooling"
  bottom: "conv2"
  top: "pool2"
  pooling_param {
    pool: MAX
    kernel_size: 2
    stride: 2
  }
}
layer {
  name: "conv3"
  type: "Convolution"
  bottom: "pool2"
  top: "conv3"
  convolution_param {
    num_output: 250
    pad: 0
    kernel_size: 4
    group: 2
    stride: 1
    weight_filler {
      type: "xavier"
    }
  }
}
layer {
  name: "conv3_relu"
  type: "ReLU"
  bottom: "conv3"
  top: "conv3"
}
layer {
  name: "pool3"
  type: "Pooling"
  bottom: "conv3"
  top: "pool3"
  pooling_param {
    pool: MAX
    kernel_size: 2
    stride: 2
  }
}
layer {
  name: "fc4_300"
  type: "InnerProduct"
  bottom: "pool3"
  top: "fc4_300"
  inner_product_param {
    num_output: 300
    weight_filler {
      type: "xavier"
    }
  }
}
layer {
  name: "fc4_relu"
  type: "ReLU"
  bottom: "fc4_300"
  top: "fc4_300"
}
layer {
  name: "fc5_116"
  type: "InnerProduct"
  bottom: "fc4_300"
  top: "fc5_classes"
  inner_product_param {
    num_output: 116
    weight_filler {
      type: "xavier"
    }
  }
}
layer {
  name: "softmax"
  type: "Softmax"
  bottom: "fc5_classes"
  top: "softmax"
}
layer {
  name: "loss"
  type: "MultinomialLogisticLoss"
  bottom: "softmax"
  bottom: "label"
  top: "loss"
}
layer {
  name: "accuracy_1"
  type: "Accuracy"
  bottom: "fc5_classes"
  bottom: "label"
  top: "accuracy_1"
  accuracy_param {
    top_k: 1
  }
}
layer {
  name: "accuracy_5"
  type: "Accuracy"
  bottom: "fc5_classes"
  bottom: "label"
  top: "accuracy_5"
  accuracy_param {
    top_k: 5
  }
}
layer {
  name: "silence"
  type: "Silence"
  bottom: "accuracy_1"
  bottom: "accuracy_5"
}
I0508 01:19:05.002043 11333 layer_factory.hpp:77] Creating layer data
I0508 01:19:05.003181 11333 net.cpp:100] Creating Layer data
I0508 01:19:05.003198 11333 net.cpp:408] data -> data
I0508 01:19:05.003224 11333 net.cpp:408] data -> label
I0508 01:19:05.008065 11466 db_lmdb.cpp:35] Opened lmdb ../local_data/lmdb/RTSD/orig/train/lmdb
I0508 01:19:05.026371 11333 data_layer.cpp:41] output data size: 1024,3,48,48
I0508 01:19:05.103273 11333 net.cpp:150] Setting up data
I0508 01:19:05.103330 11333 net.cpp:157] Top shape: 1024 3 48 48 (7077888)
I0508 01:19:05.103338 11333 net.cpp:157] Top shape: 1024 (1024)
I0508 01:19:05.103340 11333 net.cpp:165] Memory required for data: 28315648
I0508 01:19:05.103353 11333 layer_factory.hpp:77] Creating layer label_data_1_split
I0508 01:19:05.103368 11333 net.cpp:100] Creating Layer label_data_1_split
I0508 01:19:05.103375 11333 net.cpp:434] label_data_1_split <- label
I0508 01:19:05.103389 11333 net.cpp:408] label_data_1_split -> label_data_1_split_0
I0508 01:19:05.103402 11333 net.cpp:408] label_data_1_split -> label_data_1_split_1
I0508 01:19:05.103410 11333 net.cpp:408] label_data_1_split -> label_data_1_split_2
I0508 01:19:05.103478 11333 net.cpp:150] Setting up label_data_1_split
I0508 01:19:05.103487 11333 net.cpp:157] Top shape: 1024 (1024)
I0508 01:19:05.103492 11333 net.cpp:157] Top shape: 1024 (1024)
I0508 01:19:05.103494 11333 net.cpp:157] Top shape: 1024 (1024)
I0508 01:19:05.103497 11333 net.cpp:165] Memory required for data: 28327936
I0508 01:19:05.103502 11333 layer_factory.hpp:77] Creating layer conv1
I0508 01:19:05.103518 11333 net.cpp:100] Creating Layer conv1
I0508 01:19:05.103523 11333 net.cpp:434] conv1 <- data
I0508 01:19:05.103529 11333 net.cpp:408] conv1 -> conv1
I0508 01:19:05.606883 11333 net.cpp:150] Setting up conv1
I0508 01:19:05.606914 11333 net.cpp:157] Top shape: 1024 100 42 42 (180633600)
I0508 01:19:05.606919 11333 net.cpp:165] Memory required for data: 750862336
I0508 01:19:05.606940 11333 layer_factory.hpp:77] Creating layer conv1_relu
I0508 01:19:05.606953 11333 net.cpp:100] Creating Layer conv1_relu
I0508 01:19:05.606958 11333 net.cpp:434] conv1_relu <- conv1
I0508 01:19:05.606964 11333 net.cpp:395] conv1_relu -> conv1 (in-place)
I0508 01:19:05.607159 11333 net.cpp:150] Setting up conv1_relu
I0508 01:19:05.607172 11333 net.cpp:157] Top shape: 1024 100 42 42 (180633600)
I0508 01:19:05.607174 11333 net.cpp:165] Memory required for data: 1473396736
I0508 01:19:05.607177 11333 layer_factory.hpp:77] Creating layer pool1
I0508 01:19:05.607187 11333 net.cpp:100] Creating Layer pool1
I0508 01:19:05.607192 11333 net.cpp:434] pool1 <- conv1
I0508 01:19:05.607198 11333 net.cpp:408] pool1 -> pool1
I0508 01:19:05.607254 11333 net.cpp:150] Setting up pool1
I0508 01:19:05.607264 11333 net.cpp:157] Top shape: 1024 100 21 21 (45158400)
I0508 01:19:05.607266 11333 net.cpp:165] Memory required for data: 1654030336
I0508 01:19:05.607270 11333 layer_factory.hpp:77] Creating layer conv2
I0508 01:19:05.607280 11333 net.cpp:100] Creating Layer conv2
I0508 01:19:05.607285 11333 net.cpp:434] conv2 <- pool1
I0508 01:19:05.607290 11333 net.cpp:408] conv2 -> conv2
I0508 01:19:05.613947 11333 net.cpp:150] Setting up conv2
I0508 01:19:05.613965 11333 net.cpp:157] Top shape: 1024 150 18 18 (49766400)
I0508 01:19:05.613970 11333 net.cpp:165] Memory required for data: 1853095936
I0508 01:19:05.613979 11333 layer_factory.hpp:77] Creating layer conv2_relu
I0508 01:19:05.613986 11333 net.cpp:100] Creating Layer conv2_relu
I0508 01:19:05.613992 11333 net.cpp:434] conv2_relu <- conv2
I0508 01:19:05.613997 11333 net.cpp:395] conv2_relu -> conv2 (in-place)
I0508 01:19:05.614168 11333 net.cpp:150] Setting up conv2_relu
I0508 01:19:05.614178 11333 net.cpp:157] Top shape: 1024 150 18 18 (49766400)
I0508 01:19:05.614181 11333 net.cpp:165] Memory required for data: 2052161536
I0508 01:19:05.614186 11333 layer_factory.hpp:77] Creating layer pool2
I0508 01:19:05.614192 11333 net.cpp:100] Creating Layer pool2
I0508 01:19:05.614197 11333 net.cpp:434] pool2 <- conv2
I0508 01:19:05.614202 11333 net.cpp:408] pool2 -> pool2
I0508 01:19:05.614244 11333 net.cpp:150] Setting up pool2
I0508 01:19:05.614253 11333 net.cpp:157] Top shape: 1024 150 9 9 (12441600)
I0508 01:19:05.614255 11333 net.cpp:165] Memory required for data: 2101927936
I0508 01:19:05.614259 11333 layer_factory.hpp:77] Creating layer conv3
I0508 01:19:05.614267 11333 net.cpp:100] Creating Layer conv3
I0508 01:19:05.614272 11333 net.cpp:434] conv3 <- pool2
I0508 01:19:05.614277 11333 net.cpp:408] conv3 -> conv3
I0508 01:19:05.621783 11333 net.cpp:150] Setting up conv3
I0508 01:19:05.621800 11333 net.cpp:157] Top shape: 1024 250 6 6 (9216000)
I0508 01:19:05.621804 11333 net.cpp:165] Memory required for data: 2138791936
I0508 01:19:05.621814 11333 layer_factory.hpp:77] Creating layer conv3_relu
I0508 01:19:05.621821 11333 net.cpp:100] Creating Layer conv3_relu
I0508 01:19:05.621824 11333 net.cpp:434] conv3_relu <- conv3
I0508 01:19:05.621829 11333 net.cpp:395] conv3_relu -> conv3 (in-place)
I0508 01:19:05.622002 11333 net.cpp:150] Setting up conv3_relu
I0508 01:19:05.622014 11333 net.cpp:157] Top shape: 1024 250 6 6 (9216000)
I0508 01:19:05.622016 11333 net.cpp:165] Memory required for data: 2175655936
I0508 01:19:05.622020 11333 layer_factory.hpp:77] Creating layer pool3
I0508 01:19:05.622026 11333 net.cpp:100] Creating Layer pool3
I0508 01:19:05.622030 11333 net.cpp:434] pool3 <- conv3
I0508 01:19:05.622036 11333 net.cpp:408] pool3 -> pool3
I0508 01:19:05.622078 11333 net.cpp:150] Setting up pool3
I0508 01:19:05.622086 11333 net.cpp:157] Top shape: 1024 250 3 3 (2304000)
I0508 01:19:05.622088 11333 net.cpp:165] Memory required for data: 2184871936
I0508 01:19:05.622092 11333 layer_factory.hpp:77] Creating layer fc4_300
I0508 01:19:05.622098 11333 net.cpp:100] Creating Layer fc4_300
I0508 01:19:05.622102 11333 net.cpp:434] fc4_300 <- pool3
I0508 01:19:05.622107 11333 net.cpp:408] fc4_300 -> fc4_300
I0508 01:19:05.628618 11333 net.cpp:150] Setting up fc4_300
I0508 01:19:05.628634 11333 net.cpp:157] Top shape: 1024 300 (307200)
I0508 01:19:05.628638 11333 net.cpp:165] Memory required for data: 2186100736
I0508 01:19:05.628644 11333 layer_factory.hpp:77] Creating layer fc4_relu
I0508 01:19:05.628651 11333 net.cpp:100] Creating Layer fc4_relu
I0508 01:19:05.628654 11333 net.cpp:434] fc4_relu <- fc4_300
I0508 01:19:05.628659 11333 net.cpp:395] fc4_relu -> fc4_300 (in-place)
I0508 01:19:05.630736 11333 net.cpp:150] Setting up fc4_relu
I0508 01:19:05.630751 11333 net.cpp:157] Top shape: 1024 300 (307200)
I0508 01:19:05.630755 11333 net.cpp:165] Memory required for data: 2187329536
I0508 01:19:05.630759 11333 layer_factory.hpp:77] Creating layer fc5_116
I0508 01:19:05.630766 11333 net.cpp:100] Creating Layer fc5_116
I0508 01:19:05.630769 11333 net.cpp:434] fc5_116 <- fc4_300
I0508 01:19:05.630776 11333 net.cpp:408] fc5_116 -> fc5_classes
I0508 01:19:05.632428 11333 net.cpp:150] Setting up fc5_116
I0508 01:19:05.632444 11333 net.cpp:157] Top shape: 1024 116 (118784)
I0508 01:19:05.632447 11333 net.cpp:165] Memory required for data: 2187804672
I0508 01:19:05.632457 11333 layer_factory.hpp:77] Creating layer fc5_classes_fc5_116_0_split
I0508 01:19:05.632465 11333 net.cpp:100] Creating Layer fc5_classes_fc5_116_0_split
I0508 01:19:05.632468 11333 net.cpp:434] fc5_classes_fc5_116_0_split <- fc5_classes
I0508 01:19:05.632474 11333 net.cpp:408] fc5_classes_fc5_116_0_split -> fc5_classes_fc5_116_0_split_0
I0508 01:19:05.632481 11333 net.cpp:408] fc5_classes_fc5_116_0_split -> fc5_classes_fc5_116_0_split_1
I0508 01:19:05.632489 11333 net.cpp:408] fc5_classes_fc5_116_0_split -> fc5_classes_fc5_116_0_split_2
I0508 01:19:05.632539 11333 net.cpp:150] Setting up fc5_classes_fc5_116_0_split
I0508 01:19:05.632545 11333 net.cpp:157] Top shape: 1024 116 (118784)
I0508 01:19:05.632549 11333 net.cpp:157] Top shape: 1024 116 (118784)
I0508 01:19:05.632552 11333 net.cpp:157] Top shape: 1024 116 (118784)
I0508 01:19:05.632555 11333 net.cpp:165] Memory required for data: 2189230080
I0508 01:19:05.632558 11333 layer_factory.hpp:77] Creating layer softmax
I0508 01:19:05.632565 11333 net.cpp:100] Creating Layer softmax
I0508 01:19:05.632568 11333 net.cpp:434] softmax <- fc5_classes_fc5_116_0_split_0
I0508 01:19:05.632573 11333 net.cpp:408] softmax -> softmax
I0508 01:19:05.632815 11333 net.cpp:150] Setting up softmax
I0508 01:19:05.632827 11333 net.cpp:157] Top shape: 1024 116 (118784)
I0508 01:19:05.632830 11333 net.cpp:165] Memory required for data: 2189705216
I0508 01:19:05.632833 11333 layer_factory.hpp:77] Creating layer loss
I0508 01:19:05.632843 11333 net.cpp:100] Creating Layer loss
I0508 01:19:05.632861 11333 net.cpp:434] loss <- softmax
I0508 01:19:05.632866 11333 net.cpp:434] loss <- label_data_1_split_0
I0508 01:19:05.632874 11333 net.cpp:408] loss -> loss
…
