…
I0508 00:50:32.678356  6049 solver.cpp:93] Creating training net from train_net file: ./Prototxt/experiment_16/RTSD/orig/trial_1/train.prototxt
I0508 00:50:32.678704  6049 net.cpp:58] Initializing net from parameters: 
state {
  phase: TRAIN
  level: 0
  stage: ""
}
layer {
  name: "data"
  type: "Data"
  top: "data"
  top: "label"
  include {
    phase: TRAIN
  }
  transform_param {
    scale: 0.0039215689
    mirror: false
    crop_size: 48
    mean_value: 119
    mean_value: 113
    mean_value: 113
  }
  data_param {
    source: "../local_data/lmdb/RTSD/orig/train/lmdb"
    batch_size: 512
    backend: LMDB
  }
}
layer {
  name: "conv1"
  type: "Convolution"
  bottom: "data"
  top: "conv1"
  convolution_param {
    num_output: 100
    pad: 0
    kernel_size: 7
    group: 1
    stride: 1
    weight_filler {
      type: "xavier"
    }
  }
}
layer {
  name: "conv1_relu"
  type: "ReLU"
  bottom: "conv1"
  top: "conv1"
}
layer {
  name: "pool1"
  type: "Pooling"
  bottom: "conv1"
  top: "pool1"
  pooling_param {
    pool: MAX
    kernel_size: 2
    stride: 2
  }
}
layer {
  name: "conv2"
  type: "Convolution"
  bottom: "pool1"
  top: "conv2"
  convolution_param {
    num_output: 150
    pad: 0
    kernel_size: 4
    group: 2
    stride: 1
    weight_filler {
      type: "xavier"
    }
  }
}
layer {
  name: "conv2_relu"
  type: "ReLU"
  bottom: "conv2"
  top: "conv2"
}
layer {
  name: "pool2"
  type: "Pooling"
  bottom: "conv2"
  top: "pool2"
  pooling_param {
    pool: MAX
    kernel_size: 2
    stride: 2
  }
}
layer {
  name: "conv3"
  type: "Convolution"
  bottom: "pool2"
  top: "conv3"
  convolution_param {
    num_output: 250
    pad: 0
    kernel_size: 4
    group: 2
    stride: 1
    weight_filler {
      type: "xavier"
    }
  }
}
layer {
  name: "conv3_relu"
  type: "ReLU"
  bottom: "conv3"
  top: "conv3"
}
layer {
  name: "pool3"
  type: "Pooling"
  bottom: "conv3"
  top: "pool3"
  pooling_param {
    pool: MAX
    kernel_size: 2
    stride: 2
  }
}
layer {
  name: "fc4_300"
  type: "InnerProduct"
  bottom: "pool3"
  top: "fc4_300"
  inner_product_param {
    num_output: 300
    weight_filler {
      type: "xavier"
    }
  }
}
layer {
  name: "fc4_relu"
  type: "ReLU"
  bottom: "fc4_300"
  top: "fc4_300"
}
layer {
  name: "fc5_116"
  type: "InnerProduct"
  bottom: "fc4_300"
  top: "fc5_classes"
  inner_product_param {
    num_output: 116
    weight_filler {
      type: "xavier"
    }
  }
}
layer {
  name: "softmax"
  type: "Softmax"
  bottom: "fc5_classes"
  top: "softmax"
}
layer {
  name: "loss"
  type: "MultinomialLogisticLoss"
  bottom: "softmax"
  bottom: "label"
  top: "loss"
}
layer {
  name: "accuracy_1"
  type: "Accuracy"
  bottom: "fc5_classes"
  bottom: "label"
  top: "accuracy_1"
  accuracy_param {
    top_k: 1
  }
}
layer {
  name: "accuracy_5"
  type: "Accuracy"
  bottom: "fc5_classes"
  bottom: "label"
  top: "accuracy_5"
  accuracy_param {
    top_k: 5
  }
}
layer {
  name: "silence"
  type: "Silence"
  bottom: "accuracy_1"
  bottom: "accuracy_5"
}
I0508 00:50:32.678818  6049 layer_factory.hpp:77] Creating layer data
I0508 00:50:32.679574  6049 net.cpp:100] Creating Layer data
I0508 00:50:32.679589  6049 net.cpp:408] data -> data
I0508 00:50:32.679611  6049 net.cpp:408] data -> label
I0508 00:50:32.684430  6175 db_lmdb.cpp:35] Opened lmdb ../local_data/lmdb/RTSD/orig/train/lmdb
I0508 00:50:32.701488  6049 data_layer.cpp:41] output data size: 512,3,48,48
I0508 00:50:32.736452  6049 net.cpp:150] Setting up data
I0508 00:50:32.736507  6049 net.cpp:157] Top shape: 512 3 48 48 (3538944)
I0508 00:50:32.736513  6049 net.cpp:157] Top shape: 512 (512)
I0508 00:50:32.736516  6049 net.cpp:165] Memory required for data: 14157824
I0508 00:50:32.736529  6049 layer_factory.hpp:77] Creating layer label_data_1_split
I0508 00:50:32.736543  6049 net.cpp:100] Creating Layer label_data_1_split
I0508 00:50:32.736551  6049 net.cpp:434] label_data_1_split <- label
I0508 00:50:32.736563  6049 net.cpp:408] label_data_1_split -> label_data_1_split_0
I0508 00:50:32.736577  6049 net.cpp:408] label_data_1_split -> label_data_1_split_1
I0508 00:50:32.736583  6049 net.cpp:408] label_data_1_split -> label_data_1_split_2
I0508 00:50:32.736646  6049 net.cpp:150] Setting up label_data_1_split
I0508 00:50:32.736655  6049 net.cpp:157] Top shape: 512 (512)
I0508 00:50:32.736660  6049 net.cpp:157] Top shape: 512 (512)
I0508 00:50:32.736662  6049 net.cpp:157] Top shape: 512 (512)
I0508 00:50:32.736665  6049 net.cpp:165] Memory required for data: 14163968
I0508 00:50:32.736668  6049 layer_factory.hpp:77] Creating layer conv1
I0508 00:50:32.736685  6049 net.cpp:100] Creating Layer conv1
I0508 00:50:32.736690  6049 net.cpp:434] conv1 <- data
I0508 00:50:32.736696  6049 net.cpp:408] conv1 -> conv1
I0508 00:50:33.138347  6049 net.cpp:150] Setting up conv1
I0508 00:50:33.138382  6049 net.cpp:157] Top shape: 512 100 42 42 (90316800)
I0508 00:50:33.138387  6049 net.cpp:165] Memory required for data: 375431168
I0508 00:50:33.138412  6049 layer_factory.hpp:77] Creating layer conv1_relu
I0508 00:50:33.138425  6049 net.cpp:100] Creating Layer conv1_relu
I0508 00:50:33.138432  6049 net.cpp:434] conv1_relu <- conv1
I0508 00:50:33.138439  6049 net.cpp:395] conv1_relu -> conv1 (in-place)
I0508 00:50:33.138682  6049 net.cpp:150] Setting up conv1_relu
I0508 00:50:33.138696  6049 net.cpp:157] Top shape: 512 100 42 42 (90316800)
I0508 00:50:33.138700  6049 net.cpp:165] Memory required for data: 736698368
I0508 00:50:33.138706  6049 layer_factory.hpp:77] Creating layer pool1
I0508 00:50:33.138717  6049 net.cpp:100] Creating Layer pool1
I0508 00:50:33.138723  6049 net.cpp:434] pool1 <- conv1
I0508 00:50:33.138730  6049 net.cpp:408] pool1 -> pool1
I0508 00:50:33.138794  6049 net.cpp:150] Setting up pool1
I0508 00:50:33.138804  6049 net.cpp:157] Top shape: 512 100 21 21 (22579200)
I0508 00:50:33.138809  6049 net.cpp:165] Memory required for data: 827015168
I0508 00:50:33.138813  6049 layer_factory.hpp:77] Creating layer conv2
I0508 00:50:33.138825  6049 net.cpp:100] Creating Layer conv2
I0508 00:50:33.138831  6049 net.cpp:434] conv2 <- pool1
I0508 00:50:33.138837  6049 net.cpp:408] conv2 -> conv2
I0508 00:50:33.145368  6049 net.cpp:150] Setting up conv2
I0508 00:50:33.145390  6049 net.cpp:157] Top shape: 512 150 18 18 (24883200)
I0508 00:50:33.145395  6049 net.cpp:165] Memory required for data: 926547968
I0508 00:50:33.145406  6049 layer_factory.hpp:77] Creating layer conv2_relu
I0508 00:50:33.145417  6049 net.cpp:100] Creating Layer conv2_relu
I0508 00:50:33.145424  6049 net.cpp:434] conv2_relu <- conv2
I0508 00:50:33.145431  6049 net.cpp:395] conv2_relu -> conv2 (in-place)
I0508 00:50:33.145666  6049 net.cpp:150] Setting up conv2_relu
I0508 00:50:33.145679  6049 net.cpp:157] Top shape: 512 150 18 18 (24883200)
I0508 00:50:33.145684  6049 net.cpp:165] Memory required for data: 1026080768
I0508 00:50:33.145689  6049 layer_factory.hpp:77] Creating layer pool2
I0508 00:50:33.145696  6049 net.cpp:100] Creating Layer pool2
I0508 00:50:33.145701  6049 net.cpp:434] pool2 <- conv2
I0508 00:50:33.145709  6049 net.cpp:408] pool2 -> pool2
I0508 00:50:33.145768  6049 net.cpp:150] Setting up pool2
I0508 00:50:33.145778  6049 net.cpp:157] Top shape: 512 150 9 9 (6220800)
I0508 00:50:33.145783  6049 net.cpp:165] Memory required for data: 1050963968
I0508 00:50:33.145787  6049 layer_factory.hpp:77] Creating layer conv3
I0508 00:50:33.145799  6049 net.cpp:100] Creating Layer conv3
I0508 00:50:33.145805  6049 net.cpp:434] conv3 <- pool2
I0508 00:50:33.145813  6049 net.cpp:408] conv3 -> conv3
I0508 00:50:33.153040  6049 net.cpp:150] Setting up conv3
I0508 00:50:33.153062  6049 net.cpp:157] Top shape: 512 250 6 6 (4608000)
I0508 00:50:33.153069  6049 net.cpp:165] Memory required for data: 1069395968
I0508 00:50:33.153080  6049 layer_factory.hpp:77] Creating layer conv3_relu
I0508 00:50:33.153091  6049 net.cpp:100] Creating Layer conv3_relu
I0508 00:50:33.153097  6049 net.cpp:434] conv3_relu <- conv3
I0508 00:50:33.153105  6049 net.cpp:395] conv3_relu -> conv3 (in-place)
I0508 00:50:33.153333  6049 net.cpp:150] Setting up conv3_relu
I0508 00:50:33.153348  6049 net.cpp:157] Top shape: 512 250 6 6 (4608000)
I0508 00:50:33.153353  6049 net.cpp:165] Memory required for data: 1087827968
I0508 00:50:33.153357  6049 layer_factory.hpp:77] Creating layer pool3
I0508 00:50:33.153364  6049 net.cpp:100] Creating Layer pool3
I0508 00:50:33.153369  6049 net.cpp:434] pool3 <- conv3
I0508 00:50:33.153375  6049 net.cpp:408] pool3 -> pool3
I0508 00:50:33.153434  6049 net.cpp:150] Setting up pool3
I0508 00:50:33.153445  6049 net.cpp:157] Top shape: 512 250 3 3 (1152000)
I0508 00:50:33.153448  6049 net.cpp:165] Memory required for data: 1092435968
I0508 00:50:33.153452  6049 layer_factory.hpp:77] Creating layer fc4_300
I0508 00:50:33.153462  6049 net.cpp:100] Creating Layer fc4_300
I0508 00:50:33.153467  6049 net.cpp:434] fc4_300 <- pool3
I0508 00:50:33.153473  6049 net.cpp:408] fc4_300 -> fc4_300
I0508 00:50:33.160172  6049 net.cpp:150] Setting up fc4_300
I0508 00:50:33.160192  6049 net.cpp:157] Top shape: 512 300 (153600)
I0508 00:50:33.160195  6049 net.cpp:165] Memory required for data: 1093050368
I0508 00:50:33.160204  6049 layer_factory.hpp:77] Creating layer fc4_relu
I0508 00:50:33.160212  6049 net.cpp:100] Creating Layer fc4_relu
I0508 00:50:33.160215  6049 net.cpp:434] fc4_relu <- fc4_300
I0508 00:50:33.160223  6049 net.cpp:395] fc4_relu -> fc4_300 (in-place)
I0508 00:50:33.161217  6049 net.cpp:150] Setting up fc4_relu
I0508 00:50:33.161236  6049 net.cpp:157] Top shape: 512 300 (153600)
I0508 00:50:33.161239  6049 net.cpp:165] Memory required for data: 1093664768
I0508 00:50:33.161243  6049 layer_factory.hpp:77] Creating layer fc5_116
I0508 00:50:33.161254  6049 net.cpp:100] Creating Layer fc5_116
I0508 00:50:33.161260  6049 net.cpp:434] fc5_116 <- fc4_300
I0508 00:50:33.161267  6049 net.cpp:408] fc5_116 -> fc5_classes
I0508 00:50:33.163403  6049 net.cpp:150] Setting up fc5_116
I0508 00:50:33.163422  6049 net.cpp:157] Top shape: 512 116 (59392)
I0508 00:50:33.163426  6049 net.cpp:165] Memory required for data: 1093902336
I0508 00:50:33.163440  6049 layer_factory.hpp:77] Creating layer fc5_classes_fc5_116_0_split
I0508 00:50:33.163450  6049 net.cpp:100] Creating Layer fc5_classes_fc5_116_0_split
I0508 00:50:33.163455  6049 net.cpp:434] fc5_classes_fc5_116_0_split <- fc5_classes
I0508 00:50:33.163461  6049 net.cpp:408] fc5_classes_fc5_116_0_split -> fc5_classes_fc5_116_0_split_0
I0508 00:50:33.163472  6049 net.cpp:408] fc5_classes_fc5_116_0_split -> fc5_classes_fc5_116_0_split_1
I0508 00:50:33.163482  6049 net.cpp:408] fc5_classes_fc5_116_0_split -> fc5_classes_fc5_116_0_split_2
I0508 00:50:33.163549  6049 net.cpp:150] Setting up fc5_classes_fc5_116_0_split
I0508 00:50:33.163560  6049 net.cpp:157] Top shape: 512 116 (59392)
I0508 00:50:33.163565  6049 net.cpp:157] Top shape: 512 116 (59392)
I0508 00:50:33.163569  6049 net.cpp:157] Top shape: 512 116 (59392)
I0508 00:50:33.163573  6049 net.cpp:165] Memory required for data: 1094615040
I0508 00:50:33.163576  6049 layer_factory.hpp:77] Creating layer softmax
I0508 00:50:33.163583  6049 net.cpp:100] Creating Layer softmax
I0508 00:50:33.163588  6049 net.cpp:434] softmax <- fc5_classes_fc5_116_0_split_0
I0508 00:50:33.163594  6049 net.cpp:408] softmax -> softmax
I0508 00:50:33.163949  6049 net.cpp:150] Setting up softmax
I0508 00:50:33.163966  6049 net.cpp:157] Top shape: 512 116 (59392)
I0508 00:50:33.163972  6049 net.cpp:165] Memory required for data: 1094852608
I0508 00:50:33.163976  6049 layer_factory.hpp:77] Creating layer loss
I0508 00:50:33.163988  6049 net.cpp:100] Creating Layer loss
I0508 00:50:33.164011  6049 net.cpp:434] loss <- softmax
I0508 00:50:33.164019  6049 net.cpp:434] loss <- label_data_1_split_0
I0508 00:50:33.164027  6049 net.cpp:408] loss -> loss
…
