…
I0508 01:31:48.050638 14481 solver.cpp:93] Creating training net from train_net file: ./Prototxt/experiment_16/RTSD/orig/trial_1/train.prototxt
I0508 01:31:48.050997 14481 net.cpp:58] Initializing net from parameters: 
state {
  phase: TRAIN
  level: 0
  stage: ""
}
layer {
  name: "data"
  type: "Data"
  top: "data"
  top: "label"
  include {
    phase: TRAIN
  }
  transform_param {
    scale: 0.0039215689
    mirror: false
    crop_size: 48
    mean_value: 119
    mean_value: 113
    mean_value: 113
  }
  data_param {
    source: "../local_data/lmdb/RTSD/orig/train/lmdb"
    batch_size: 1024
    backend: LMDB
  }
}
layer {
  name: "conv1"
  type: "Convolution"
  bottom: "data"
  top: "conv1"
  convolution_param {
    num_output: 100
    pad: 0
    kernel_size: 7
    group: 1
    stride: 1
    weight_filler {
      type: "xavier"
    }
  }
}
layer {
  name: "conv1_relu"
  type: "ReLU"
  bottom: "conv1"
  top: "conv1"
}
layer {
  name: "pool1"
  type: "Pooling"
  bottom: "conv1"
  top: "pool1"
  pooling_param {
    pool: MAX
    kernel_size: 2
    stride: 2
  }
}
layer {
  name: "conv2"
  type: "Convolution"
  bottom: "pool1"
  top: "conv2"
  convolution_param {
    num_output: 150
    pad: 0
    kernel_size: 4
    group: 2
    stride: 1
    weight_filler {
      type: "xavier"
    }
  }
}
layer {
  name: "conv2_relu"
  type: "ReLU"
  bottom: "conv2"
  top: "conv2"
}
layer {
  name: "pool2"
  type: "Pooling"
  bottom: "conv2"
  top: "pool2"
  pooling_param {
    pool: MAX
    kernel_size: 2
    stride: 2
  }
}
layer {
  name: "conv3"
  type: "Convolution"
  bottom: "pool2"
  top: "conv3"
  convolution_param {
    num_output: 250
    pad: 0
    kernel_size: 4
    group: 2
    stride: 1
    weight_filler {
      type: "xavier"
    }
  }
}
layer {
  name: "conv3_relu"
  type: "ReLU"
  bottom: "conv3"
  top: "conv3"
}
layer {
  name: "pool3"
  type: "Pooling"
  bottom: "conv3"
  top: "pool3"
  pooling_param {
    pool: MAX
    kernel_size: 2
    stride: 2
  }
}
layer {
  name: "fc4_300"
  type: "InnerProduct"
  bottom: "pool3"
  top: "fc4_300"
  inner_product_param {
    num_output: 300
    weight_filler {
      type: "xavier"
    }
  }
}
layer {
  name: "fc4_relu"
  type: "ReLU"
  bottom: "fc4_300"
  top: "fc4_300"
}
layer {
  name: "fc5_116"
  type: "InnerProduct"
  bottom: "fc4_300"
  top: "fc5_classes"
  inner_product_param {
    num_output: 116
    weight_filler {
      type: "xavier"
    }
  }
}
layer {
  name: "softmax"
  type: "Softmax"
  bottom: "fc5_classes"
  top: "softmax"
}
layer {
  name: "loss"
  type: "MultinomialLogisticLoss"
  bottom: "softmax"
  bottom: "label"
  top: "loss"
}
layer {
  name: "accuracy_1"
  type: "Accuracy"
  bottom: "fc5_classes"
  bottom: "label"
  top: "accuracy_1"
  accuracy_param {
    top_k: 1
  }
}
layer {
  name: "accuracy_5"
  type: "Accuracy"
  bottom: "fc5_classes"
  bottom: "label"
  top: "accuracy_5"
  accuracy_param {
    top_k: 5
  }
}
layer {
  name: "silence"
  type: "Silence"
  bottom: "accuracy_1"
  bottom: "accuracy_5"
}
I0508 01:31:48.051116 14481 layer_factory.hpp:77] Creating layer data
I0508 01:31:48.052212 14481 net.cpp:100] Creating Layer data
I0508 01:31:48.052230 14481 net.cpp:408] data -> data
I0508 01:31:48.052253 14481 net.cpp:408] data -> label
I0508 01:31:48.055966 14594 db_lmdb.cpp:35] Opened lmdb ../local_data/lmdb/RTSD/orig/train/lmdb
I0508 01:31:48.076565 14481 data_layer.cpp:41] output data size: 1024,3,48,48
I0508 01:31:48.155653 14481 net.cpp:150] Setting up data
I0508 01:31:48.155707 14481 net.cpp:157] Top shape: 1024 3 48 48 (7077888)
I0508 01:31:48.155714 14481 net.cpp:157] Top shape: 1024 (1024)
I0508 01:31:48.155717 14481 net.cpp:165] Memory required for data: 28315648
I0508 01:31:48.155730 14481 layer_factory.hpp:77] Creating layer label_data_1_split
I0508 01:31:48.155745 14481 net.cpp:100] Creating Layer label_data_1_split
I0508 01:31:48.155751 14481 net.cpp:434] label_data_1_split <- label
I0508 01:31:48.155766 14481 net.cpp:408] label_data_1_split -> label_data_1_split_0
I0508 01:31:48.155781 14481 net.cpp:408] label_data_1_split -> label_data_1_split_1
I0508 01:31:48.155789 14481 net.cpp:408] label_data_1_split -> label_data_1_split_2
I0508 01:31:48.155875 14481 net.cpp:150] Setting up label_data_1_split
I0508 01:31:48.155900 14481 net.cpp:157] Top shape: 1024 (1024)
I0508 01:31:48.155905 14481 net.cpp:157] Top shape: 1024 (1024)
I0508 01:31:48.155910 14481 net.cpp:157] Top shape: 1024 (1024)
I0508 01:31:48.155912 14481 net.cpp:165] Memory required for data: 28327936
I0508 01:31:48.155916 14481 layer_factory.hpp:77] Creating layer conv1
I0508 01:31:48.155935 14481 net.cpp:100] Creating Layer conv1
I0508 01:31:48.155938 14481 net.cpp:434] conv1 <- data
I0508 01:31:48.155944 14481 net.cpp:408] conv1 -> conv1
I0508 01:31:48.625098 14481 net.cpp:150] Setting up conv1
I0508 01:31:48.625130 14481 net.cpp:157] Top shape: 1024 100 42 42 (180633600)
I0508 01:31:48.625135 14481 net.cpp:165] Memory required for data: 750862336
I0508 01:31:48.625157 14481 layer_factory.hpp:77] Creating layer conv1_relu
I0508 01:31:48.625169 14481 net.cpp:100] Creating Layer conv1_relu
I0508 01:31:48.625172 14481 net.cpp:434] conv1_relu <- conv1
I0508 01:31:48.625182 14481 net.cpp:395] conv1_relu -> conv1 (in-place)
I0508 01:31:48.625397 14481 net.cpp:150] Setting up conv1_relu
I0508 01:31:48.625411 14481 net.cpp:157] Top shape: 1024 100 42 42 (180633600)
I0508 01:31:48.625416 14481 net.cpp:165] Memory required for data: 1473396736
I0508 01:31:48.625419 14481 layer_factory.hpp:77] Creating layer pool1
I0508 01:31:48.625430 14481 net.cpp:100] Creating Layer pool1
I0508 01:31:48.625435 14481 net.cpp:434] pool1 <- conv1
I0508 01:31:48.625442 14481 net.cpp:408] pool1 -> pool1
I0508 01:31:48.625499 14481 net.cpp:150] Setting up pool1
I0508 01:31:48.625510 14481 net.cpp:157] Top shape: 1024 100 21 21 (45158400)
I0508 01:31:48.625515 14481 net.cpp:165] Memory required for data: 1654030336
I0508 01:31:48.625519 14481 layer_factory.hpp:77] Creating layer conv2
I0508 01:31:48.625530 14481 net.cpp:100] Creating Layer conv2
I0508 01:31:48.625535 14481 net.cpp:434] conv2 <- pool1
I0508 01:31:48.625541 14481 net.cpp:408] conv2 -> conv2
I0508 01:31:48.643007 14481 net.cpp:150] Setting up conv2
I0508 01:31:48.643030 14481 net.cpp:157] Top shape: 1024 150 18 18 (49766400)
I0508 01:31:48.643034 14481 net.cpp:165] Memory required for data: 1853095936
I0508 01:31:48.643046 14481 layer_factory.hpp:77] Creating layer conv2_relu
I0508 01:31:48.643056 14481 net.cpp:100] Creating Layer conv2_relu
I0508 01:31:48.643060 14481 net.cpp:434] conv2_relu <- conv2
I0508 01:31:48.643069 14481 net.cpp:395] conv2_relu -> conv2 (in-place)
I0508 01:31:48.643265 14481 net.cpp:150] Setting up conv2_relu
I0508 01:31:48.643276 14481 net.cpp:157] Top shape: 1024 150 18 18 (49766400)
I0508 01:31:48.643281 14481 net.cpp:165] Memory required for data: 2052161536
I0508 01:31:48.643285 14481 layer_factory.hpp:77] Creating layer pool2
I0508 01:31:48.643293 14481 net.cpp:100] Creating Layer pool2
I0508 01:31:48.643298 14481 net.cpp:434] pool2 <- conv2
I0508 01:31:48.643304 14481 net.cpp:408] pool2 -> pool2
I0508 01:31:48.643357 14481 net.cpp:150] Setting up pool2
I0508 01:31:48.643366 14481 net.cpp:157] Top shape: 1024 150 9 9 (12441600)
I0508 01:31:48.643370 14481 net.cpp:165] Memory required for data: 2101927936
I0508 01:31:48.643374 14481 layer_factory.hpp:77] Creating layer conv3
I0508 01:31:48.643388 14481 net.cpp:100] Creating Layer conv3
I0508 01:31:48.643393 14481 net.cpp:434] conv3 <- pool2
I0508 01:31:48.643400 14481 net.cpp:408] conv3 -> conv3
I0508 01:31:48.648545 14481 net.cpp:150] Setting up conv3
I0508 01:31:48.648566 14481 net.cpp:157] Top shape: 1024 250 6 6 (9216000)
I0508 01:31:48.648569 14481 net.cpp:165] Memory required for data: 2138791936
I0508 01:31:48.648581 14481 layer_factory.hpp:77] Creating layer conv3_relu
I0508 01:31:48.648593 14481 net.cpp:100] Creating Layer conv3_relu
I0508 01:31:48.648598 14481 net.cpp:434] conv3_relu <- conv3
I0508 01:31:48.648604 14481 net.cpp:395] conv3_relu -> conv3 (in-place)
I0508 01:31:48.648840 14481 net.cpp:150] Setting up conv3_relu
I0508 01:31:48.648854 14481 net.cpp:157] Top shape: 1024 250 6 6 (9216000)
I0508 01:31:48.648861 14481 net.cpp:165] Memory required for data: 2175655936
I0508 01:31:48.648866 14481 layer_factory.hpp:77] Creating layer pool3
I0508 01:31:48.648875 14481 net.cpp:100] Creating Layer pool3
I0508 01:31:48.648881 14481 net.cpp:434] pool3 <- conv3
I0508 01:31:48.648891 14481 net.cpp:408] pool3 -> pool3
I0508 01:31:48.648952 14481 net.cpp:150] Setting up pool3
I0508 01:31:48.648963 14481 net.cpp:157] Top shape: 1024 250 3 3 (2304000)
I0508 01:31:48.648968 14481 net.cpp:165] Memory required for data: 2184871936
I0508 01:31:48.648972 14481 layer_factory.hpp:77] Creating layer fc4_300
I0508 01:31:48.648982 14481 net.cpp:100] Creating Layer fc4_300
I0508 01:31:48.648988 14481 net.cpp:434] fc4_300 <- pool3
I0508 01:31:48.648994 14481 net.cpp:408] fc4_300 -> fc4_300
I0508 01:31:48.655189 14481 net.cpp:150] Setting up fc4_300
I0508 01:31:48.655210 14481 net.cpp:157] Top shape: 1024 300 (307200)
I0508 01:31:48.655215 14481 net.cpp:165] Memory required for data: 2186100736
I0508 01:31:48.655223 14481 layer_factory.hpp:77] Creating layer fc4_relu
I0508 01:31:48.655230 14481 net.cpp:100] Creating Layer fc4_relu
I0508 01:31:48.655236 14481 net.cpp:434] fc4_relu <- fc4_300
I0508 01:31:48.655244 14481 net.cpp:395] fc4_relu -> fc4_300 (in-place)
I0508 01:31:48.656055 14481 net.cpp:150] Setting up fc4_relu
I0508 01:31:48.656075 14481 net.cpp:157] Top shape: 1024 300 (307200)
I0508 01:31:48.656082 14481 net.cpp:165] Memory required for data: 2187329536
I0508 01:31:48.656086 14481 layer_factory.hpp:77] Creating layer fc5_116
I0508 01:31:48.656095 14481 net.cpp:100] Creating Layer fc5_116
I0508 01:31:48.656103 14481 net.cpp:434] fc5_116 <- fc4_300
I0508 01:31:48.656114 14481 net.cpp:408] fc5_116 -> fc5_classes
I0508 01:31:48.657651 14481 net.cpp:150] Setting up fc5_116
I0508 01:31:48.657670 14481 net.cpp:157] Top shape: 1024 116 (118784)
I0508 01:31:48.657677 14481 net.cpp:165] Memory required for data: 2187804672
I0508 01:31:48.657690 14481 layer_factory.hpp:77] Creating layer fc5_classes_fc5_116_0_split
I0508 01:31:48.657702 14481 net.cpp:100] Creating Layer fc5_classes_fc5_116_0_split
I0508 01:31:48.657708 14481 net.cpp:434] fc5_classes_fc5_116_0_split <- fc5_classes
I0508 01:31:48.657717 14481 net.cpp:408] fc5_classes_fc5_116_0_split -> fc5_classes_fc5_116_0_split_0
I0508 01:31:48.657728 14481 net.cpp:408] fc5_classes_fc5_116_0_split -> fc5_classes_fc5_116_0_split_1
I0508 01:31:48.657740 14481 net.cpp:408] fc5_classes_fc5_116_0_split -> fc5_classes_fc5_116_0_split_2
I0508 01:31:48.657810 14481 net.cpp:150] Setting up fc5_classes_fc5_116_0_split
I0508 01:31:48.657822 14481 net.cpp:157] Top shape: 1024 116 (118784)
I0508 01:31:48.657830 14481 net.cpp:157] Top shape: 1024 116 (118784)
I0508 01:31:48.657835 14481 net.cpp:157] Top shape: 1024 116 (118784)
I0508 01:31:48.657837 14481 net.cpp:165] Memory required for data: 2189230080
I0508 01:31:48.657841 14481 layer_factory.hpp:77] Creating layer softmax
I0508 01:31:48.657851 14481 net.cpp:100] Creating Layer softmax
I0508 01:31:48.657858 14481 net.cpp:434] softmax <- fc5_classes_fc5_116_0_split_0
I0508 01:31:48.657865 14481 net.cpp:408] softmax -> softmax
I0508 01:31:48.658169 14481 net.cpp:150] Setting up softmax
I0508 01:31:48.658184 14481 net.cpp:157] Top shape: 1024 116 (118784)
I0508 01:31:48.658191 14481 net.cpp:165] Memory required for data: 2189705216
I0508 01:31:48.658197 14481 layer_factory.hpp:77] Creating layer loss
I0508 01:31:48.658208 14481 net.cpp:100] Creating Layer loss
I0508 01:31:48.658232 14481 net.cpp:434] loss <- softmax
I0508 01:31:48.658241 14481 net.cpp:434] loss <- label_data_1_split_0
I0508 01:31:48.658252 14481 net.cpp:408] loss -> loss
…
