…
I0508 01:10:42.812096 28646 solver.cpp:93] Creating training net from train_net file: ./Prototxt/experiment_16/RTSD/orig/trial_1/train.prototxt
I0508 01:10:42.812433 28646 net.cpp:58] Initializing net from parameters: 
state {
  phase: TRAIN
  level: 0
  stage: ""
}
layer {
  name: "data"
  type: "Data"
  top: "data"
  top: "label"
  include {
    phase: TRAIN
  }
  transform_param {
    scale: 0.0039215689
    mirror: false
    crop_size: 48
    mean_value: 119
    mean_value: 113
    mean_value: 113
  }
  data_param {
    source: "../local_data/lmdb/RTSD/orig/train/lmdb"
    batch_size: 1024
    backend: LMDB
  }
}
layer {
  name: "conv1"
  type: "Convolution"
  bottom: "data"
  top: "conv1"
  convolution_param {
    num_output: 100
    pad: 0
    kernel_size: 7
    group: 1
    stride: 1
    weight_filler {
      type: "xavier"
    }
  }
}
layer {
  name: "conv1_relu"
  type: "ReLU"
  bottom: "conv1"
  top: "conv1"
}
layer {
  name: "pool1"
  type: "Pooling"
  bottom: "conv1"
  top: "pool1"
  pooling_param {
    pool: MAX
    kernel_size: 2
    stride: 2
  }
}
layer {
  name: "conv2"
  type: "Convolution"
  bottom: "pool1"
  top: "conv2"
  convolution_param {
    num_output: 150
    pad: 0
    kernel_size: 4
    group: 2
    stride: 1
    weight_filler {
      type: "xavier"
    }
  }
}
layer {
  name: "conv2_relu"
  type: "ReLU"
  bottom: "conv2"
  top: "conv2"
}
layer {
  name: "pool2"
  type: "Pooling"
  bottom: "conv2"
  top: "pool2"
  pooling_param {
    pool: MAX
    kernel_size: 2
    stride: 2
  }
}
layer {
  name: "conv3"
  type: "Convolution"
  bottom: "pool2"
  top: "conv3"
  convolution_param {
    num_output: 250
    pad: 0
    kernel_size: 4
    group: 2
    stride: 1
    weight_filler {
      type: "xavier"
    }
  }
}
layer {
  name: "conv3_relu"
  type: "ReLU"
  bottom: "conv3"
  top: "conv3"
}
layer {
  name: "pool3"
  type: "Pooling"
  bottom: "conv3"
  top: "pool3"
  pooling_param {
    pool: MAX
    kernel_size: 2
    stride: 2
  }
}
layer {
  name: "fc4_300"
  type: "InnerProduct"
  bottom: "pool3"
  top: "fc4_300"
  inner_product_param {
    num_output: 300
    weight_filler {
      type: "xavier"
    }
  }
}
layer {
  name: "fc4_relu"
  type: "ReLU"
  bottom: "fc4_300"
  top: "fc4_300"
}
layer {
  name: "fc5_116"
  type: "InnerProduct"
  bottom: "fc4_300"
  top: "fc5_classes"
  inner_product_param {
    num_output: 116
    weight_filler {
      type: "xavier"
    }
  }
}
layer {
  name: "softmax"
  type: "Softmax"
  bottom: "fc5_classes"
  top: "softmax"
}
layer {
  name: "loss"
  type: "MultinomialLogisticLoss"
  bottom: "softmax"
  bottom: "label"
  top: "loss"
}
layer {
  name: "accuracy_1"
  type: "Accuracy"
  bottom: "fc5_classes"
  bottom: "label"
  top: "accuracy_1"
  accuracy_param {
    top_k: 1
  }
}
layer {
  name: "accuracy_5"
  type: "Accuracy"
  bottom: "fc5_classes"
  bottom: "label"
  top: "accuracy_5"
  accuracy_param {
    top_k: 5
  }
}
layer {
  name: "silence"
  type: "Silence"
  bottom: "accuracy_1"
  bottom: "accuracy_5"
}
I0508 01:10:42.812551 28646 layer_factory.hpp:77] Creating layer data
I0508 01:10:42.813627 28646 net.cpp:100] Creating Layer data
I0508 01:10:42.813649 28646 net.cpp:408] data -> data
I0508 01:10:42.813674 28646 net.cpp:408] data -> label
I0508 01:10:42.815402 28755 db_lmdb.cpp:35] Opened lmdb ../local_data/lmdb/RTSD/orig/train/lmdb
I0508 01:10:42.832479 28646 data_layer.cpp:41] output data size: 1024,3,48,48
I0508 01:10:42.905724 28646 net.cpp:150] Setting up data
I0508 01:10:42.905779 28646 net.cpp:157] Top shape: 1024 3 48 48 (7077888)
I0508 01:10:42.905786 28646 net.cpp:157] Top shape: 1024 (1024)
I0508 01:10:42.905789 28646 net.cpp:165] Memory required for data: 28315648
I0508 01:10:42.905802 28646 layer_factory.hpp:77] Creating layer label_data_1_split
I0508 01:10:42.905817 28646 net.cpp:100] Creating Layer label_data_1_split
I0508 01:10:42.905824 28646 net.cpp:434] label_data_1_split <- label
I0508 01:10:42.905838 28646 net.cpp:408] label_data_1_split -> label_data_1_split_0
I0508 01:10:42.905848 28646 net.cpp:408] label_data_1_split -> label_data_1_split_1
I0508 01:10:42.905855 28646 net.cpp:408] label_data_1_split -> label_data_1_split_2
I0508 01:10:42.905947 28646 net.cpp:150] Setting up label_data_1_split
I0508 01:10:42.905959 28646 net.cpp:157] Top shape: 1024 (1024)
I0508 01:10:42.905963 28646 net.cpp:157] Top shape: 1024 (1024)
I0508 01:10:42.905967 28646 net.cpp:157] Top shape: 1024 (1024)
I0508 01:10:42.905971 28646 net.cpp:165] Memory required for data: 28327936
I0508 01:10:42.905974 28646 layer_factory.hpp:77] Creating layer conv1
I0508 01:10:42.905992 28646 net.cpp:100] Creating Layer conv1
I0508 01:10:42.905997 28646 net.cpp:434] conv1 <- data
I0508 01:10:42.906003 28646 net.cpp:408] conv1 -> conv1
I0508 01:10:43.298650 28646 net.cpp:150] Setting up conv1
I0508 01:10:43.298682 28646 net.cpp:157] Top shape: 1024 100 42 42 (180633600)
I0508 01:10:43.298687 28646 net.cpp:165] Memory required for data: 750862336
I0508 01:10:43.298710 28646 layer_factory.hpp:77] Creating layer conv1_relu
I0508 01:10:43.298724 28646 net.cpp:100] Creating Layer conv1_relu
I0508 01:10:43.298730 28646 net.cpp:434] conv1_relu <- conv1
I0508 01:10:43.298738 28646 net.cpp:395] conv1_relu -> conv1 (in-place)
I0508 01:10:43.298944 28646 net.cpp:150] Setting up conv1_relu
I0508 01:10:43.298957 28646 net.cpp:157] Top shape: 1024 100 42 42 (180633600)
I0508 01:10:43.298962 28646 net.cpp:165] Memory required for data: 1473396736
I0508 01:10:43.298966 28646 layer_factory.hpp:77] Creating layer pool1
I0508 01:10:43.298977 28646 net.cpp:100] Creating Layer pool1
I0508 01:10:43.298984 28646 net.cpp:434] pool1 <- conv1
I0508 01:10:43.298990 28646 net.cpp:408] pool1 -> pool1
I0508 01:10:43.299046 28646 net.cpp:150] Setting up pool1
I0508 01:10:43.299057 28646 net.cpp:157] Top shape: 1024 100 21 21 (45158400)
I0508 01:10:43.299062 28646 net.cpp:165] Memory required for data: 1654030336
I0508 01:10:43.299064 28646 layer_factory.hpp:77] Creating layer conv2
I0508 01:10:43.299077 28646 net.cpp:100] Creating Layer conv2
I0508 01:10:43.299082 28646 net.cpp:434] conv2 <- pool1
I0508 01:10:43.299088 28646 net.cpp:408] conv2 -> conv2
I0508 01:10:43.308287 28646 net.cpp:150] Setting up conv2
I0508 01:10:43.308310 28646 net.cpp:157] Top shape: 1024 150 18 18 (49766400)
I0508 01:10:43.308315 28646 net.cpp:165] Memory required for data: 1853095936
I0508 01:10:43.308327 28646 layer_factory.hpp:77] Creating layer conv2_relu
I0508 01:10:43.308337 28646 net.cpp:100] Creating Layer conv2_relu
I0508 01:10:43.308343 28646 net.cpp:434] conv2_relu <- conv2
I0508 01:10:43.308348 28646 net.cpp:395] conv2_relu -> conv2 (in-place)
I0508 01:10:43.308533 28646 net.cpp:150] Setting up conv2_relu
I0508 01:10:43.308547 28646 net.cpp:157] Top shape: 1024 150 18 18 (49766400)
I0508 01:10:43.308552 28646 net.cpp:165] Memory required for data: 2052161536
I0508 01:10:43.308557 28646 layer_factory.hpp:77] Creating layer pool2
I0508 01:10:43.308563 28646 net.cpp:100] Creating Layer pool2
I0508 01:10:43.308568 28646 net.cpp:434] pool2 <- conv2
I0508 01:10:43.308574 28646 net.cpp:408] pool2 -> pool2
I0508 01:10:43.308625 28646 net.cpp:150] Setting up pool2
I0508 01:10:43.308634 28646 net.cpp:157] Top shape: 1024 150 9 9 (12441600)
I0508 01:10:43.308639 28646 net.cpp:165] Memory required for data: 2101927936
I0508 01:10:43.308642 28646 layer_factory.hpp:77] Creating layer conv3
I0508 01:10:43.308655 28646 net.cpp:100] Creating Layer conv3
I0508 01:10:43.308660 28646 net.cpp:434] conv3 <- pool2
I0508 01:10:43.308665 28646 net.cpp:408] conv3 -> conv3
I0508 01:10:43.321455 28646 net.cpp:150] Setting up conv3
I0508 01:10:43.321475 28646 net.cpp:157] Top shape: 1024 250 6 6 (9216000)
I0508 01:10:43.321480 28646 net.cpp:165] Memory required for data: 2138791936
I0508 01:10:43.321491 28646 layer_factory.hpp:77] Creating layer conv3_relu
I0508 01:10:43.321501 28646 net.cpp:100] Creating Layer conv3_relu
I0508 01:10:43.321507 28646 net.cpp:434] conv3_relu <- conv3
I0508 01:10:43.321513 28646 net.cpp:395] conv3_relu -> conv3 (in-place)
I0508 01:10:43.321697 28646 net.cpp:150] Setting up conv3_relu
I0508 01:10:43.321709 28646 net.cpp:157] Top shape: 1024 250 6 6 (9216000)
I0508 01:10:43.321714 28646 net.cpp:165] Memory required for data: 2175655936
I0508 01:10:43.321718 28646 layer_factory.hpp:77] Creating layer pool3
I0508 01:10:43.321725 28646 net.cpp:100] Creating Layer pool3
I0508 01:10:43.321730 28646 net.cpp:434] pool3 <- conv3
I0508 01:10:43.321735 28646 net.cpp:408] pool3 -> pool3
I0508 01:10:43.321781 28646 net.cpp:150] Setting up pool3
I0508 01:10:43.321790 28646 net.cpp:157] Top shape: 1024 250 3 3 (2304000)
I0508 01:10:43.321794 28646 net.cpp:165] Memory required for data: 2184871936
I0508 01:10:43.321796 28646 layer_factory.hpp:77] Creating layer fc4_300
I0508 01:10:43.321804 28646 net.cpp:100] Creating Layer fc4_300
I0508 01:10:43.321808 28646 net.cpp:434] fc4_300 <- pool3
I0508 01:10:43.321815 28646 net.cpp:408] fc4_300 -> fc4_300
I0508 01:10:43.327558 28646 net.cpp:150] Setting up fc4_300
I0508 01:10:43.327577 28646 net.cpp:157] Top shape: 1024 300 (307200)
I0508 01:10:43.327582 28646 net.cpp:165] Memory required for data: 2186100736
I0508 01:10:43.327590 28646 layer_factory.hpp:77] Creating layer fc4_relu
I0508 01:10:43.327599 28646 net.cpp:100] Creating Layer fc4_relu
I0508 01:10:43.327605 28646 net.cpp:434] fc4_relu <- fc4_300
I0508 01:10:43.327610 28646 net.cpp:395] fc4_relu -> fc4_300 (in-place)
I0508 01:10:43.328794 28646 net.cpp:150] Setting up fc4_relu
I0508 01:10:43.328812 28646 net.cpp:157] Top shape: 1024 300 (307200)
I0508 01:10:43.328817 28646 net.cpp:165] Memory required for data: 2187329536
I0508 01:10:43.328821 28646 layer_factory.hpp:77] Creating layer fc5_116
I0508 01:10:43.328831 28646 net.cpp:100] Creating Layer fc5_116
I0508 01:10:43.328836 28646 net.cpp:434] fc5_116 <- fc4_300
I0508 01:10:43.328843 28646 net.cpp:408] fc5_116 -> fc5_classes
I0508 01:10:43.335150 28646 net.cpp:150] Setting up fc5_116
I0508 01:10:43.335170 28646 net.cpp:157] Top shape: 1024 116 (118784)
I0508 01:10:43.335173 28646 net.cpp:165] Memory required for data: 2187804672
I0508 01:10:43.335185 28646 layer_factory.hpp:77] Creating layer fc5_classes_fc5_116_0_split
I0508 01:10:43.335193 28646 net.cpp:100] Creating Layer fc5_classes_fc5_116_0_split
I0508 01:10:43.335198 28646 net.cpp:434] fc5_classes_fc5_116_0_split <- fc5_classes
I0508 01:10:43.335203 28646 net.cpp:408] fc5_classes_fc5_116_0_split -> fc5_classes_fc5_116_0_split_0
I0508 01:10:43.335212 28646 net.cpp:408] fc5_classes_fc5_116_0_split -> fc5_classes_fc5_116_0_split_1
I0508 01:10:43.335222 28646 net.cpp:408] fc5_classes_fc5_116_0_split -> fc5_classes_fc5_116_0_split_2
I0508 01:10:43.335278 28646 net.cpp:150] Setting up fc5_classes_fc5_116_0_split
I0508 01:10:43.335285 28646 net.cpp:157] Top shape: 1024 116 (118784)
I0508 01:10:43.335289 28646 net.cpp:157] Top shape: 1024 116 (118784)
I0508 01:10:43.335294 28646 net.cpp:157] Top shape: 1024 116 (118784)
I0508 01:10:43.335296 28646 net.cpp:165] Memory required for data: 2189230080
I0508 01:10:43.335299 28646 layer_factory.hpp:77] Creating layer softmax
I0508 01:10:43.335306 28646 net.cpp:100] Creating Layer softmax
I0508 01:10:43.335311 28646 net.cpp:434] softmax <- fc5_classes_fc5_116_0_split_0
I0508 01:10:43.335317 28646 net.cpp:408] softmax -> softmax
I0508 01:10:43.335574 28646 net.cpp:150] Setting up softmax
I0508 01:10:43.335588 28646 net.cpp:157] Top shape: 1024 116 (118784)
I0508 01:10:43.335592 28646 net.cpp:165] Memory required for data: 2189705216
I0508 01:10:43.335595 28646 layer_factory.hpp:77] Creating layer loss
I0508 01:10:43.335604 28646 net.cpp:100] Creating Layer loss
I0508 01:10:43.335628 28646 net.cpp:434] loss <- softmax
I0508 01:10:43.335633 28646 net.cpp:434] loss <- label_data_1_split_0
I0508 01:10:43.335639 28646 net.cpp:408] loss -> loss
…
