…
I0508 00:54:26.310902 29466 solver.cpp:93] Creating training net from train_net file: ./Prototxt/experiment_16/RTSD/orig/trial_1/train.prototxt
I0508 00:54:26.311247 29466 net.cpp:58] Initializing net from parameters: 
state {
  phase: TRAIN
  level: 0
  stage: ""
}
layer {
  name: "data"
  type: "Data"
  top: "data"
  top: "label"
  include {
    phase: TRAIN
  }
  transform_param {
    scale: 0.0039215689
    mirror: false
    crop_size: 48
    mean_value: 119
    mean_value: 113
    mean_value: 113
  }
  data_param {
    source: "../local_data/lmdb/RTSD/orig/train/lmdb"
    batch_size: 1024
    backend: LMDB
  }
}
layer {
  name: "conv1"
  type: "Convolution"
  bottom: "data"
  top: "conv1"
  convolution_param {
    num_output: 100
    pad: 0
    kernel_size: 7
    group: 1
    stride: 1
    weight_filler {
      type: "xavier"
    }
  }
}
layer {
  name: "conv1_relu"
  type: "ReLU"
  bottom: "conv1"
  top: "conv1"
}
layer {
  name: "pool1"
  type: "Pooling"
  bottom: "conv1"
  top: "pool1"
  pooling_param {
    pool: MAX
    kernel_size: 2
    stride: 2
  }
}
layer {
  name: "conv2"
  type: "Convolution"
  bottom: "pool1"
  top: "conv2"
  convolution_param {
    num_output: 150
    pad: 0
    kernel_size: 4
    group: 2
    stride: 1
    weight_filler {
      type: "xavier"
    }
  }
}
layer {
  name: "conv2_relu"
  type: "ReLU"
  bottom: "conv2"
  top: "conv2"
}
layer {
  name: "pool2"
  type: "Pooling"
  bottom: "conv2"
  top: "pool2"
  pooling_param {
    pool: MAX
    kernel_size: 2
    stride: 2
  }
}
layer {
  name: "conv3"
  type: "Convolution"
  bottom: "pool2"
  top: "conv3"
  convolution_param {
    num_output: 250
    pad: 0
    kernel_size: 4
    group: 2
    stride: 1
    weight_filler {
      type: "xavier"
    }
  }
}
layer {
  name: "conv3_relu"
  type: "ReLU"
  bottom: "conv3"
  top: "conv3"
}
layer {
  name: "pool3"
  type: "Pooling"
  bottom: "conv3"
  top: "pool3"
  pooling_param {
    pool: MAX
    kernel_size: 2
    stride: 2
  }
}
layer {
  name: "fc4_300"
  type: "InnerProduct"
  bottom: "pool3"
  top: "fc4_300"
  inner_product_param {
    num_output: 300
    weight_filler {
      type: "xavier"
    }
  }
}
layer {
  name: "fc4_relu"
  type: "ReLU"
  bottom: "fc4_300"
  top: "fc4_300"
}
layer {
  name: "fc5_116"
  type: "InnerProduct"
  bottom: "fc4_300"
  top: "fc5_classes"
  inner_product_param {
    num_output: 116
    weight_filler {
      type: "xavier"
    }
  }
}
layer {
  name: "softmax"
  type: "Softmax"
  bottom: "fc5_classes"
  top: "softmax"
}
layer {
  name: "loss"
  type: "MultinomialLogisticLoss"
  bottom: "softmax"
  bottom: "label"
  top: "loss"
}
layer {
  name: "accuracy_1"
  type: "Accuracy"
  bottom: "fc5_classes"
  bottom: "label"
  top: "accuracy_1"
  accuracy_param {
    top_k: 1
  }
}
layer {
  name: "accuracy_5"
  type: "Accuracy"
  bottom: "fc5_classes"
  bottom: "label"
  top: "accuracy_5"
  accuracy_param {
    top_k: 5
  }
}
layer {
  name: "silence"
  type: "Silence"
  bottom: "accuracy_1"
  bottom: "accuracy_5"
}
I0508 00:54:26.311367 29466 layer_factory.hpp:77] Creating layer data
I0508 00:54:26.312449 29466 net.cpp:100] Creating Layer data
I0508 00:54:26.312467 29466 net.cpp:408] data -> data
I0508 00:54:26.312490 29466 net.cpp:408] data -> label
I0508 00:54:26.318606 29592 db_lmdb.cpp:35] Opened lmdb ../local_data/lmdb/RTSD/orig/train/lmdb
I0508 00:54:26.348856 29466 data_layer.cpp:41] output data size: 1024,3,48,48
I0508 00:54:26.410130 29466 net.cpp:150] Setting up data
I0508 00:54:26.410185 29466 net.cpp:157] Top shape: 1024 3 48 48 (7077888)
I0508 00:54:26.410192 29466 net.cpp:157] Top shape: 1024 (1024)
I0508 00:54:26.410195 29466 net.cpp:165] Memory required for data: 28315648
I0508 00:54:26.410205 29466 layer_factory.hpp:77] Creating layer label_data_1_split
I0508 00:54:26.410220 29466 net.cpp:100] Creating Layer label_data_1_split
I0508 00:54:26.410226 29466 net.cpp:434] label_data_1_split <- label
I0508 00:54:26.410239 29466 net.cpp:408] label_data_1_split -> label_data_1_split_0
I0508 00:54:26.410250 29466 net.cpp:408] label_data_1_split -> label_data_1_split_1
I0508 00:54:26.410271 29466 net.cpp:408] label_data_1_split -> label_data_1_split_2
I0508 00:54:26.410342 29466 net.cpp:150] Setting up label_data_1_split
I0508 00:54:26.410351 29466 net.cpp:157] Top shape: 1024 (1024)
I0508 00:54:26.410356 29466 net.cpp:157] Top shape: 1024 (1024)
I0508 00:54:26.410359 29466 net.cpp:157] Top shape: 1024 (1024)
I0508 00:54:26.410362 29466 net.cpp:165] Memory required for data: 28327936
I0508 00:54:26.410365 29466 layer_factory.hpp:77] Creating layer conv1
I0508 00:54:26.410382 29466 net.cpp:100] Creating Layer conv1
I0508 00:54:26.410387 29466 net.cpp:434] conv1 <- data
I0508 00:54:26.410393 29466 net.cpp:408] conv1 -> conv1
I0508 00:54:26.779126 29466 net.cpp:150] Setting up conv1
I0508 00:54:26.779157 29466 net.cpp:157] Top shape: 1024 100 42 42 (180633600)
I0508 00:54:26.779161 29466 net.cpp:165] Memory required for data: 750862336
I0508 00:54:26.779183 29466 layer_factory.hpp:77] Creating layer conv1_relu
I0508 00:54:26.779196 29466 net.cpp:100] Creating Layer conv1_relu
I0508 00:54:26.779201 29466 net.cpp:434] conv1_relu <- conv1
I0508 00:54:26.779208 29466 net.cpp:395] conv1_relu -> conv1 (in-place)
I0508 00:54:26.779428 29466 net.cpp:150] Setting up conv1_relu
I0508 00:54:26.779443 29466 net.cpp:157] Top shape: 1024 100 42 42 (180633600)
I0508 00:54:26.779448 29466 net.cpp:165] Memory required for data: 1473396736
I0508 00:54:26.779451 29466 layer_factory.hpp:77] Creating layer pool1
I0508 00:54:26.779467 29466 net.cpp:100] Creating Layer pool1
I0508 00:54:26.779472 29466 net.cpp:434] pool1 <- conv1
I0508 00:54:26.779479 29466 net.cpp:408] pool1 -> pool1
I0508 00:54:26.779546 29466 net.cpp:150] Setting up pool1
I0508 00:54:26.779556 29466 net.cpp:157] Top shape: 1024 100 21 21 (45158400)
I0508 00:54:26.779561 29466 net.cpp:165] Memory required for data: 1654030336
I0508 00:54:26.779563 29466 layer_factory.hpp:77] Creating layer conv2
I0508 00:54:26.779577 29466 net.cpp:100] Creating Layer conv2
I0508 00:54:26.779582 29466 net.cpp:434] conv2 <- pool1
I0508 00:54:26.779589 29466 net.cpp:408] conv2 -> conv2
I0508 00:54:26.790664 29466 net.cpp:150] Setting up conv2
I0508 00:54:26.790684 29466 net.cpp:157] Top shape: 1024 150 18 18 (49766400)
I0508 00:54:26.790688 29466 net.cpp:165] Memory required for data: 1853095936
I0508 00:54:26.790699 29466 layer_factory.hpp:77] Creating layer conv2_relu
I0508 00:54:26.790710 29466 net.cpp:100] Creating Layer conv2_relu
I0508 00:54:26.790714 29466 net.cpp:434] conv2_relu <- conv2
I0508 00:54:26.790720 29466 net.cpp:395] conv2_relu -> conv2 (in-place)
I0508 00:54:26.790915 29466 net.cpp:150] Setting up conv2_relu
I0508 00:54:26.790930 29466 net.cpp:157] Top shape: 1024 150 18 18 (49766400)
I0508 00:54:26.790935 29466 net.cpp:165] Memory required for data: 2052161536
I0508 00:54:26.790938 29466 layer_factory.hpp:77] Creating layer pool2
I0508 00:54:26.790946 29466 net.cpp:100] Creating Layer pool2
I0508 00:54:26.790951 29466 net.cpp:434] pool2 <- conv2
I0508 00:54:26.790956 29466 net.cpp:408] pool2 -> pool2
I0508 00:54:26.791012 29466 net.cpp:150] Setting up pool2
I0508 00:54:26.791021 29466 net.cpp:157] Top shape: 1024 150 9 9 (12441600)
I0508 00:54:26.791025 29466 net.cpp:165] Memory required for data: 2101927936
I0508 00:54:26.791028 29466 layer_factory.hpp:77] Creating layer conv3
I0508 00:54:26.791043 29466 net.cpp:100] Creating Layer conv3
I0508 00:54:26.791048 29466 net.cpp:434] conv3 <- pool2
I0508 00:54:26.791054 29466 net.cpp:408] conv3 -> conv3
I0508 00:54:26.811326 29466 net.cpp:150] Setting up conv3
I0508 00:54:26.811353 29466 net.cpp:157] Top shape: 1024 250 6 6 (9216000)
I0508 00:54:26.811357 29466 net.cpp:165] Memory required for data: 2138791936
I0508 00:54:26.811372 29466 layer_factory.hpp:77] Creating layer conv3_relu
I0508 00:54:26.811383 29466 net.cpp:100] Creating Layer conv3_relu
I0508 00:54:26.811389 29466 net.cpp:434] conv3_relu <- conv3
I0508 00:54:26.811396 29466 net.cpp:395] conv3_relu -> conv3 (in-place)
I0508 00:54:26.811601 29466 net.cpp:150] Setting up conv3_relu
I0508 00:54:26.811614 29466 net.cpp:157] Top shape: 1024 250 6 6 (9216000)
I0508 00:54:26.811619 29466 net.cpp:165] Memory required for data: 2175655936
I0508 00:54:26.811622 29466 layer_factory.hpp:77] Creating layer pool3
I0508 00:54:26.811630 29466 net.cpp:100] Creating Layer pool3
I0508 00:54:26.811635 29466 net.cpp:434] pool3 <- conv3
I0508 00:54:26.811642 29466 net.cpp:408] pool3 -> pool3
I0508 00:54:26.811697 29466 net.cpp:150] Setting up pool3
I0508 00:54:26.811705 29466 net.cpp:157] Top shape: 1024 250 3 3 (2304000)
I0508 00:54:26.811709 29466 net.cpp:165] Memory required for data: 2184871936
I0508 00:54:26.811712 29466 layer_factory.hpp:77] Creating layer fc4_300
I0508 00:54:26.811720 29466 net.cpp:100] Creating Layer fc4_300
I0508 00:54:26.811725 29466 net.cpp:434] fc4_300 <- pool3
I0508 00:54:26.811733 29466 net.cpp:408] fc4_300 -> fc4_300
I0508 00:54:26.817512 29466 net.cpp:150] Setting up fc4_300
I0508 00:54:26.817529 29466 net.cpp:157] Top shape: 1024 300 (307200)
I0508 00:54:26.817533 29466 net.cpp:165] Memory required for data: 2186100736
I0508 00:54:26.817539 29466 layer_factory.hpp:77] Creating layer fc4_relu
I0508 00:54:26.817549 29466 net.cpp:100] Creating Layer fc4_relu
I0508 00:54:26.817553 29466 net.cpp:434] fc4_relu <- fc4_300
I0508 00:54:26.817559 29466 net.cpp:395] fc4_relu -> fc4_300 (in-place)
I0508 00:54:26.818639 29466 net.cpp:150] Setting up fc4_relu
I0508 00:54:26.818655 29466 net.cpp:157] Top shape: 1024 300 (307200)
I0508 00:54:26.818658 29466 net.cpp:165] Memory required for data: 2187329536
I0508 00:54:26.818661 29466 layer_factory.hpp:77] Creating layer fc5_116
I0508 00:54:26.818670 29466 net.cpp:100] Creating Layer fc5_116
I0508 00:54:26.818672 29466 net.cpp:434] fc5_116 <- fc4_300
I0508 00:54:26.818681 29466 net.cpp:408] fc5_116 -> fc5_classes
I0508 00:54:26.827760 29466 net.cpp:150] Setting up fc5_116
I0508 00:54:26.827798 29466 net.cpp:157] Top shape: 1024 116 (118784)
I0508 00:54:26.827802 29466 net.cpp:165] Memory required for data: 2187804672
I0508 00:54:26.827818 29466 layer_factory.hpp:77] Creating layer fc5_classes_fc5_116_0_split
I0508 00:54:26.827829 29466 net.cpp:100] Creating Layer fc5_classes_fc5_116_0_split
I0508 00:54:26.827834 29466 net.cpp:434] fc5_classes_fc5_116_0_split <- fc5_classes
I0508 00:54:26.827843 29466 net.cpp:408] fc5_classes_fc5_116_0_split -> fc5_classes_fc5_116_0_split_0
I0508 00:54:26.827857 29466 net.cpp:408] fc5_classes_fc5_116_0_split -> fc5_classes_fc5_116_0_split_1
I0508 00:54:26.827864 29466 net.cpp:408] fc5_classes_fc5_116_0_split -> fc5_classes_fc5_116_0_split_2
I0508 00:54:26.827946 29466 net.cpp:150] Setting up fc5_classes_fc5_116_0_split
I0508 00:54:26.827956 29466 net.cpp:157] Top shape: 1024 116 (118784)
I0508 00:54:26.827960 29466 net.cpp:157] Top shape: 1024 116 (118784)
I0508 00:54:26.827965 29466 net.cpp:157] Top shape: 1024 116 (118784)
I0508 00:54:26.827966 29466 net.cpp:165] Memory required for data: 2189230080
I0508 00:54:26.827970 29466 layer_factory.hpp:77] Creating layer softmax
I0508 00:54:26.827978 29466 net.cpp:100] Creating Layer softmax
I0508 00:54:26.827983 29466 net.cpp:434] softmax <- fc5_classes_fc5_116_0_split_0
I0508 00:54:26.827991 29466 net.cpp:408] softmax -> softmax
I0508 00:54:26.828292 29466 net.cpp:150] Setting up softmax
I0508 00:54:26.828306 29466 net.cpp:157] Top shape: 1024 116 (118784)
I0508 00:54:26.828310 29466 net.cpp:165] Memory required for data: 2189705216
I0508 00:54:26.828313 29466 layer_factory.hpp:77] Creating layer loss
I0508 00:54:26.828330 29466 net.cpp:100] Creating Layer loss
I0508 00:54:26.828354 29466 net.cpp:434] loss <- softmax
I0508 00:54:26.828361 29466 net.cpp:434] loss <- label_data_1_split_0
I0508 00:54:26.828369 29466 net.cpp:408] loss -> loss
…
