…
I0508 01:16:44.651157 30496 solver.cpp:93] Creating training net from train_net file: ./Prototxt/experiment_16/RTSD/orig/trial_1/train.prototxt
I0508 01:16:44.651504 30496 net.cpp:58] Initializing net from parameters: 
state {
  phase: TRAIN
  level: 0
  stage: ""
}
layer {
  name: "data"
  type: "Data"
  top: "data"
  top: "label"
  include {
    phase: TRAIN
  }
  transform_param {
    scale: 0.0039215689
    mirror: false
    crop_size: 48
    mean_value: 119
    mean_value: 113
    mean_value: 113
  }
  data_param {
    source: "../local_data/lmdb/RTSD/orig/train/lmdb"
    batch_size: 1024
    backend: LMDB
  }
}
layer {
  name: "conv1"
  type: "Convolution"
  bottom: "data"
  top: "conv1"
  convolution_param {
    num_output: 100
    pad: 0
    kernel_size: 7
    group: 1
    stride: 1
    weight_filler {
      type: "xavier"
    }
  }
}
layer {
  name: "conv1_relu"
  type: "ReLU"
  bottom: "conv1"
  top: "conv1"
}
layer {
  name: "pool1"
  type: "Pooling"
  bottom: "conv1"
  top: "pool1"
  pooling_param {
    pool: MAX
    kernel_size: 2
    stride: 2
  }
}
layer {
  name: "conv2"
  type: "Convolution"
  bottom: "pool1"
  top: "conv2"
  convolution_param {
    num_output: 150
    pad: 0
    kernel_size: 4
    group: 2
    stride: 1
    weight_filler {
      type: "xavier"
    }
  }
}
layer {
  name: "conv2_relu"
  type: "ReLU"
  bottom: "conv2"
  top: "conv2"
}
layer {
  name: "pool2"
  type: "Pooling"
  bottom: "conv2"
  top: "pool2"
  pooling_param {
    pool: MAX
    kernel_size: 2
    stride: 2
  }
}
layer {
  name: "conv3"
  type: "Convolution"
  bottom: "pool2"
  top: "conv3"
  convolution_param {
    num_output: 250
    pad: 0
    kernel_size: 4
    group: 2
    stride: 1
    weight_filler {
      type: "xavier"
    }
  }
}
layer {
  name: "conv3_relu"
  type: "ReLU"
  bottom: "conv3"
  top: "conv3"
}
layer {
  name: "pool3"
  type: "Pooling"
  bottom: "conv3"
  top: "pool3"
  pooling_param {
    pool: MAX
    kernel_size: 2
    stride: 2
  }
}
layer {
  name: "fc4_300"
  type: "InnerProduct"
  bottom: "pool3"
  top: "fc4_300"
  inner_product_param {
    num_output: 300
    weight_filler {
      type: "xavier"
    }
  }
}
layer {
  name: "fc4_relu"
  type: "ReLU"
  bottom: "fc4_300"
  top: "fc4_300"
}
layer {
  name: "fc5_116"
  type: "InnerProduct"
  bottom: "fc4_300"
  top: "fc5_classes"
  inner_product_param {
    num_output: 116
    weight_filler {
      type: "xavier"
    }
  }
}
layer {
  name: "softmax"
  type: "Softmax"
  bottom: "fc5_classes"
  top: "softmax"
}
layer {
  name: "loss"
  type: "MultinomialLogisticLoss"
  bottom: "softmax"
  bottom: "label"
  top: "loss"
}
layer {
  name: "accuracy_1"
  type: "Accuracy"
  bottom: "fc5_classes"
  bottom: "label"
  top: "accuracy_1"
  accuracy_param {
    top_k: 1
  }
}
layer {
  name: "accuracy_5"
  type: "Accuracy"
  bottom: "fc5_classes"
  bottom: "label"
  top: "accuracy_5"
  accuracy_param {
    top_k: 5
  }
}
layer {
  name: "silence"
  type: "Silence"
  bottom: "accuracy_1"
  bottom: "accuracy_5"
}
I0508 01:16:44.651623 30496 layer_factory.hpp:77] Creating layer data
I0508 01:16:44.652711 30496 net.cpp:100] Creating Layer data
I0508 01:16:44.652731 30496 net.cpp:408] data -> data
I0508 01:16:44.652753 30496 net.cpp:408] data -> label
I0508 01:16:44.653725 30610 db_lmdb.cpp:35] Opened lmdb ../local_data/lmdb/RTSD/orig/train/lmdb
I0508 01:16:44.671419 30496 data_layer.cpp:41] output data size: 1024,3,48,48
I0508 01:16:44.756551 30496 net.cpp:150] Setting up data
I0508 01:16:44.756611 30496 net.cpp:157] Top shape: 1024 3 48 48 (7077888)
I0508 01:16:44.756618 30496 net.cpp:157] Top shape: 1024 (1024)
I0508 01:16:44.756620 30496 net.cpp:165] Memory required for data: 28315648
I0508 01:16:44.756631 30496 layer_factory.hpp:77] Creating layer label_data_1_split
I0508 01:16:44.756644 30496 net.cpp:100] Creating Layer label_data_1_split
I0508 01:16:44.756650 30496 net.cpp:434] label_data_1_split <- label
I0508 01:16:44.756664 30496 net.cpp:408] label_data_1_split -> label_data_1_split_0
I0508 01:16:44.756676 30496 net.cpp:408] label_data_1_split -> label_data_1_split_1
I0508 01:16:44.756685 30496 net.cpp:408] label_data_1_split -> label_data_1_split_2
I0508 01:16:44.756750 30496 net.cpp:150] Setting up label_data_1_split
I0508 01:16:44.756758 30496 net.cpp:157] Top shape: 1024 (1024)
I0508 01:16:44.756762 30496 net.cpp:157] Top shape: 1024 (1024)
I0508 01:16:44.756765 30496 net.cpp:157] Top shape: 1024 (1024)
I0508 01:16:44.756768 30496 net.cpp:165] Memory required for data: 28327936
I0508 01:16:44.756772 30496 layer_factory.hpp:77] Creating layer conv1
I0508 01:16:44.756788 30496 net.cpp:100] Creating Layer conv1
I0508 01:16:44.756793 30496 net.cpp:434] conv1 <- data
I0508 01:16:44.756798 30496 net.cpp:408] conv1 -> conv1
I0508 01:16:45.225172 30496 net.cpp:150] Setting up conv1
I0508 01:16:45.225201 30496 net.cpp:157] Top shape: 1024 100 42 42 (180633600)
I0508 01:16:45.225204 30496 net.cpp:165] Memory required for data: 750862336
I0508 01:16:45.225227 30496 layer_factory.hpp:77] Creating layer conv1_relu
I0508 01:16:45.225239 30496 net.cpp:100] Creating Layer conv1_relu
I0508 01:16:45.225242 30496 net.cpp:434] conv1_relu <- conv1
I0508 01:16:45.225248 30496 net.cpp:395] conv1_relu -> conv1 (in-place)
I0508 01:16:45.225446 30496 net.cpp:150] Setting up conv1_relu
I0508 01:16:45.225458 30496 net.cpp:157] Top shape: 1024 100 42 42 (180633600)
I0508 01:16:45.225461 30496 net.cpp:165] Memory required for data: 1473396736
I0508 01:16:45.225466 30496 layer_factory.hpp:77] Creating layer pool1
I0508 01:16:45.225474 30496 net.cpp:100] Creating Layer pool1
I0508 01:16:45.225479 30496 net.cpp:434] pool1 <- conv1
I0508 01:16:45.225486 30496 net.cpp:408] pool1 -> pool1
I0508 01:16:45.225538 30496 net.cpp:150] Setting up pool1
I0508 01:16:45.225546 30496 net.cpp:157] Top shape: 1024 100 21 21 (45158400)
I0508 01:16:45.225549 30496 net.cpp:165] Memory required for data: 1654030336
I0508 01:16:45.225553 30496 layer_factory.hpp:77] Creating layer conv2
I0508 01:16:45.225563 30496 net.cpp:100] Creating Layer conv2
I0508 01:16:45.225567 30496 net.cpp:434] conv2 <- pool1
I0508 01:16:45.225572 30496 net.cpp:408] conv2 -> conv2
I0508 01:16:45.229949 30496 net.cpp:150] Setting up conv2
I0508 01:16:45.229969 30496 net.cpp:157] Top shape: 1024 150 18 18 (49766400)
I0508 01:16:45.229972 30496 net.cpp:165] Memory required for data: 1853095936
I0508 01:16:45.229984 30496 layer_factory.hpp:77] Creating layer conv2_relu
I0508 01:16:45.229990 30496 net.cpp:100] Creating Layer conv2_relu
I0508 01:16:45.229995 30496 net.cpp:434] conv2_relu <- conv2
I0508 01:16:45.229998 30496 net.cpp:395] conv2_relu -> conv2 (in-place)
I0508 01:16:45.230177 30496 net.cpp:150] Setting up conv2_relu
I0508 01:16:45.230190 30496 net.cpp:157] Top shape: 1024 150 18 18 (49766400)
I0508 01:16:45.230192 30496 net.cpp:165] Memory required for data: 2052161536
I0508 01:16:45.230195 30496 layer_factory.hpp:77] Creating layer pool2
I0508 01:16:45.230201 30496 net.cpp:100] Creating Layer pool2
I0508 01:16:45.230206 30496 net.cpp:434] pool2 <- conv2
I0508 01:16:45.230211 30496 net.cpp:408] pool2 -> pool2
I0508 01:16:45.230255 30496 net.cpp:150] Setting up pool2
I0508 01:16:45.230264 30496 net.cpp:157] Top shape: 1024 150 9 9 (12441600)
I0508 01:16:45.230268 30496 net.cpp:165] Memory required for data: 2101927936
I0508 01:16:45.230270 30496 layer_factory.hpp:77] Creating layer conv3
I0508 01:16:45.230280 30496 net.cpp:100] Creating Layer conv3
I0508 01:16:45.230285 30496 net.cpp:434] conv3 <- pool2
I0508 01:16:45.230290 30496 net.cpp:408] conv3 -> conv3
I0508 01:16:45.234973 30496 net.cpp:150] Setting up conv3
I0508 01:16:45.234992 30496 net.cpp:157] Top shape: 1024 250 6 6 (9216000)
I0508 01:16:45.234997 30496 net.cpp:165] Memory required for data: 2138791936
I0508 01:16:45.235008 30496 layer_factory.hpp:77] Creating layer conv3_relu
I0508 01:16:45.235014 30496 net.cpp:100] Creating Layer conv3_relu
I0508 01:16:45.235019 30496 net.cpp:434] conv3_relu <- conv3
I0508 01:16:45.235024 30496 net.cpp:395] conv3_relu -> conv3 (in-place)
I0508 01:16:45.235208 30496 net.cpp:150] Setting up conv3_relu
I0508 01:16:45.235219 30496 net.cpp:157] Top shape: 1024 250 6 6 (9216000)
I0508 01:16:45.235222 30496 net.cpp:165] Memory required for data: 2175655936
I0508 01:16:45.235225 30496 layer_factory.hpp:77] Creating layer pool3
I0508 01:16:45.235231 30496 net.cpp:100] Creating Layer pool3
I0508 01:16:45.235234 30496 net.cpp:434] pool3 <- conv3
I0508 01:16:45.235239 30496 net.cpp:408] pool3 -> pool3
I0508 01:16:45.235283 30496 net.cpp:150] Setting up pool3
I0508 01:16:45.235291 30496 net.cpp:157] Top shape: 1024 250 3 3 (2304000)
I0508 01:16:45.235294 30496 net.cpp:165] Memory required for data: 2184871936
I0508 01:16:45.235297 30496 layer_factory.hpp:77] Creating layer fc4_300
I0508 01:16:45.235303 30496 net.cpp:100] Creating Layer fc4_300
I0508 01:16:45.235308 30496 net.cpp:434] fc4_300 <- pool3
I0508 01:16:45.235313 30496 net.cpp:408] fc4_300 -> fc4_300
I0508 01:16:45.254654 30496 net.cpp:150] Setting up fc4_300
I0508 01:16:45.254679 30496 net.cpp:157] Top shape: 1024 300 (307200)
I0508 01:16:45.254683 30496 net.cpp:165] Memory required for data: 2186100736
I0508 01:16:45.254693 30496 layer_factory.hpp:77] Creating layer fc4_relu
I0508 01:16:45.254700 30496 net.cpp:100] Creating Layer fc4_relu
I0508 01:16:45.254704 30496 net.cpp:434] fc4_relu <- fc4_300
I0508 01:16:45.254710 30496 net.cpp:395] fc4_relu -> fc4_300 (in-place)
I0508 01:16:45.261494 30496 net.cpp:150] Setting up fc4_relu
I0508 01:16:45.261515 30496 net.cpp:157] Top shape: 1024 300 (307200)
I0508 01:16:45.261518 30496 net.cpp:165] Memory required for data: 2187329536
I0508 01:16:45.261523 30496 layer_factory.hpp:77] Creating layer fc5_116
I0508 01:16:45.261533 30496 net.cpp:100] Creating Layer fc5_116
I0508 01:16:45.261536 30496 net.cpp:434] fc5_116 <- fc4_300
I0508 01:16:45.261543 30496 net.cpp:408] fc5_116 -> fc5_classes
I0508 01:16:45.263140 30496 net.cpp:150] Setting up fc5_116
I0508 01:16:45.263159 30496 net.cpp:157] Top shape: 1024 116 (118784)
I0508 01:16:45.263161 30496 net.cpp:165] Memory required for data: 2187804672
I0508 01:16:45.263173 30496 layer_factory.hpp:77] Creating layer fc5_classes_fc5_116_0_split
I0508 01:16:45.263181 30496 net.cpp:100] Creating Layer fc5_classes_fc5_116_0_split
I0508 01:16:45.263185 30496 net.cpp:434] fc5_classes_fc5_116_0_split <- fc5_classes
I0508 01:16:45.263190 30496 net.cpp:408] fc5_classes_fc5_116_0_split -> fc5_classes_fc5_116_0_split_0
I0508 01:16:45.263198 30496 net.cpp:408] fc5_classes_fc5_116_0_split -> fc5_classes_fc5_116_0_split_1
I0508 01:16:45.263206 30496 net.cpp:408] fc5_classes_fc5_116_0_split -> fc5_classes_fc5_116_0_split_2
I0508 01:16:45.263257 30496 net.cpp:150] Setting up fc5_classes_fc5_116_0_split
I0508 01:16:45.263265 30496 net.cpp:157] Top shape: 1024 116 (118784)
I0508 01:16:45.263269 30496 net.cpp:157] Top shape: 1024 116 (118784)
I0508 01:16:45.263273 30496 net.cpp:157] Top shape: 1024 116 (118784)
I0508 01:16:45.263275 30496 net.cpp:165] Memory required for data: 2189230080
I0508 01:16:45.263278 30496 layer_factory.hpp:77] Creating layer softmax
I0508 01:16:45.263284 30496 net.cpp:100] Creating Layer softmax
I0508 01:16:45.263288 30496 net.cpp:434] softmax <- fc5_classes_fc5_116_0_split_0
I0508 01:16:45.263293 30496 net.cpp:408] softmax -> softmax
I0508 01:16:45.263540 30496 net.cpp:150] Setting up softmax
I0508 01:16:45.263555 30496 net.cpp:157] Top shape: 1024 116 (118784)
I0508 01:16:45.263557 30496 net.cpp:165] Memory required for data: 2189705216
I0508 01:16:45.263561 30496 layer_factory.hpp:77] Creating layer loss
I0508 01:16:45.263571 30496 net.cpp:100] Creating Layer loss
I0508 01:16:45.263593 30496 net.cpp:434] loss <- softmax
I0508 01:16:45.263599 30496 net.cpp:434] loss <- label_data_1_split_0
I0508 01:16:45.263605 30496 net.cpp:408] loss -> loss
…
