…
I0414 16:54:55.960471 11158 solver.cpp:93] Creating training net from train_net file: ./Prototxt/experiment_10/rtsd-r3/AHE/trial_1/train.prototxt
I0414 16:54:55.972976 11158 net.cpp:58] Initializing net from parameters: 
state {
  phase: TRAIN
  level: 0
  stage: ""
}
layer {
  name: "data"
  type: "Data"
  top: "data"
  top: "label"
  include {
    phase: TRAIN
  }
  transform_param {
    scale: 0.0039215689
    mirror: false
    crop_size: 48
    mean_value: 133
    mean_value: 126
    mean_value: 125
  }
  data_param {
    source: "../local_data/lmdb/rtsd-r3/AHE/train/lmdb"
    batch_size: 1024
    backend: LMDB
  }
}
layer {
  name: "conv1"
  type: "Convolution"
  bottom: "data"
  top: "conv1"
  convolution_param {
    num_output: 100
    pad: 0
    kernel_size: 7
    group: 1
    stride: 1
    weight_filler {
      type: "xavier"
    }
  }
}
layer {
  name: "conv1_relu"
  type: "ReLU"
  bottom: "conv1"
  top: "conv1"
}
layer {
  name: "pool1"
  type: "Pooling"
  bottom: "conv1"
  top: "pool1"
  pooling_param {
    pool: MAX
    kernel_size: 2
    stride: 2
  }
}
layer {
  name: "conv2"
  type: "Convolution"
  bottom: "pool1"
  top: "conv2"
  convolution_param {
    num_output: 150
    pad: 0
    kernel_size: 4
    group: 1
    stride: 1
    weight_filler {
      type: "xavier"
    }
  }
}
layer {
  name: "conv2_relu"
  type: "ReLU"
  bottom: "conv2"
  top: "conv2"
}
layer {
  name: "pool2"
  type: "Pooling"
  bottom: "conv2"
  top: "pool2"
  pooling_param {
    pool: MAX
    kernel_size: 2
    stride: 2
  }
}
layer {
  name: "conv3"
  type: "Convolution"
  bottom: "pool2"
  top: "conv3"
  convolution_param {
    num_output: 250
    pad: 0
    kernel_size: 4
    group: 1
    stride: 1
    weight_filler {
      type: "xavier"
    }
  }
}
layer {
  name: "conv3_relu"
  type: "ReLU"
  bottom: "conv3"
  top: "conv3"
}
layer {
  name: "pool3"
  type: "Pooling"
  bottom: "conv3"
  top: "pool3"
  pooling_param {
    pool: MAX
    kernel_size: 2
    stride: 2
  }
}
layer {
  name: "fc4_300"
  type: "InnerProduct"
  bottom: "pool3"
  top: "fc4_300"
  inner_product_param {
    num_output: 300
    weight_filler {
      type: "xavier"
    }
  }
}
layer {
  name: "fc4_relu"
  type: "ReLU"
  bottom: "fc4_300"
  top: "fc4_300"
}
layer {
  name: "fc5_106"
  type: "InnerProduct"
  bottom: "fc4_300"
  top: "fc5_classes"
  inner_product_param {
    num_output: 106
    weight_filler {
      type: "xavier"
    }
  }
}
layer {
  name: "softmax"
  type: "Softmax"
  bottom: "fc5_classes"
  top: "softmax"
}
layer {
  name: "loss"
  type: "MultinomialLogisticLoss"
  bottom: "softmax"
  bottom: "label"
  top: "loss"
}
layer {
  name: "accuracy_1"
  type: "Accuracy"
  bottom: "fc5_classes"
  bottom: "label"
  top: "accuracy_1"
  accuracy_param {
    top_k: 1
  }
}
layer {
  name: "accuracy_5"
  type: "Accuracy"
  bottom: "fc5_classes"
  bottom: "label"
  top: "accuracy_5"
  accuracy_param {
    top_k: 5
  }
}
layer {
  name: "silence"
  type: "Silence"
  bottom: "accuracy_1"
  bottom: "accuracy_5"
}
I0414 16:54:55.973160 11158 layer_factory.hpp:77] Creating layer data
I0414 16:54:55.974596 11158 net.cpp:100] Creating Layer data
I0414 16:54:55.974611 11158 net.cpp:408] data -> data
I0414 16:54:55.974637 11158 net.cpp:408] data -> label
I0414 16:54:55.976143 11341 db_lmdb.cpp:35] Opened lmdb ../local_data/lmdb/rtsd-r3/AHE/train/lmdb
I0414 16:54:55.995395 11158 data_layer.cpp:41] output data size: 1024,3,48,48
I0414 16:54:56.066236 11158 net.cpp:150] Setting up data
I0414 16:54:56.066294 11158 net.cpp:157] Top shape: 1024 3 48 48 (7077888)
I0414 16:54:56.066300 11158 net.cpp:157] Top shape: 1024 (1024)
I0414 16:54:56.066303 11158 net.cpp:165] Memory required for data: 28315648
I0414 16:54:56.066318 11158 layer_factory.hpp:77] Creating layer label_data_1_split
I0414 16:54:56.066337 11158 net.cpp:100] Creating Layer label_data_1_split
I0414 16:54:56.066349 11158 net.cpp:434] label_data_1_split <- label
I0414 16:54:56.066370 11158 net.cpp:408] label_data_1_split -> label_data_1_split_0
I0414 16:54:56.066392 11158 net.cpp:408] label_data_1_split -> label_data_1_split_1
I0414 16:54:56.066406 11158 net.cpp:408] label_data_1_split -> label_data_1_split_2
I0414 16:54:56.066499 11158 net.cpp:150] Setting up label_data_1_split
I0414 16:54:56.066512 11158 net.cpp:157] Top shape: 1024 (1024)
I0414 16:54:56.066520 11158 net.cpp:157] Top shape: 1024 (1024)
I0414 16:54:56.066529 11158 net.cpp:157] Top shape: 1024 (1024)
I0414 16:54:56.066535 11158 net.cpp:165] Memory required for data: 28327936
I0414 16:54:56.066541 11158 layer_factory.hpp:77] Creating layer conv1
I0414 16:54:56.066566 11158 net.cpp:100] Creating Layer conv1
I0414 16:54:56.066575 11158 net.cpp:434] conv1 <- data
I0414 16:54:56.066584 11158 net.cpp:408] conv1 -> conv1
I0414 16:54:56.997110 11158 net.cpp:150] Setting up conv1
I0414 16:54:56.997138 11158 net.cpp:157] Top shape: 1024 100 42 42 (180633600)
I0414 16:54:56.997143 11158 net.cpp:165] Memory required for data: 750862336
I0414 16:54:56.997164 11158 layer_factory.hpp:77] Creating layer conv1_relu
I0414 16:54:56.997176 11158 net.cpp:100] Creating Layer conv1_relu
I0414 16:54:56.997180 11158 net.cpp:434] conv1_relu <- conv1
I0414 16:54:56.997189 11158 net.cpp:395] conv1_relu -> conv1 (in-place)
I0414 16:54:56.997416 11158 net.cpp:150] Setting up conv1_relu
I0414 16:54:56.997427 11158 net.cpp:157] Top shape: 1024 100 42 42 (180633600)
I0414 16:54:56.997432 11158 net.cpp:165] Memory required for data: 1473396736
I0414 16:54:56.997437 11158 layer_factory.hpp:77] Creating layer pool1
I0414 16:54:56.997447 11158 net.cpp:100] Creating Layer pool1
I0414 16:54:56.997452 11158 net.cpp:434] pool1 <- conv1
I0414 16:54:56.997457 11158 net.cpp:408] pool1 -> pool1
I0414 16:54:56.997520 11158 net.cpp:150] Setting up pool1
I0414 16:54:56.997529 11158 net.cpp:157] Top shape: 1024 100 21 21 (45158400)
I0414 16:54:56.997532 11158 net.cpp:165] Memory required for data: 1654030336
I0414 16:54:56.997535 11158 layer_factory.hpp:77] Creating layer conv2
I0414 16:54:56.997547 11158 net.cpp:100] Creating Layer conv2
I0414 16:54:56.997552 11158 net.cpp:434] conv2 <- pool1
I0414 16:54:56.997557 11158 net.cpp:408] conv2 -> conv2
I0414 16:54:57.013628 11158 net.cpp:150] Setting up conv2
I0414 16:54:57.013660 11158 net.cpp:157] Top shape: 1024 150 18 18 (49766400)
I0414 16:54:57.013664 11158 net.cpp:165] Memory required for data: 1853095936
I0414 16:54:57.013682 11158 layer_factory.hpp:77] Creating layer conv2_relu
I0414 16:54:57.013694 11158 net.cpp:100] Creating Layer conv2_relu
I0414 16:54:57.013698 11158 net.cpp:434] conv2_relu <- conv2
I0414 16:54:57.013705 11158 net.cpp:395] conv2_relu -> conv2 (in-place)
I0414 16:54:57.014757 11158 net.cpp:150] Setting up conv2_relu
I0414 16:54:57.014776 11158 net.cpp:157] Top shape: 1024 150 18 18 (49766400)
I0414 16:54:57.014780 11158 net.cpp:165] Memory required for data: 2052161536
I0414 16:54:57.014786 11158 layer_factory.hpp:77] Creating layer pool2
I0414 16:54:57.014796 11158 net.cpp:100] Creating Layer pool2
I0414 16:54:57.014798 11158 net.cpp:434] pool2 <- conv2
I0414 16:54:57.014806 11158 net.cpp:408] pool2 -> pool2
I0414 16:54:57.014873 11158 net.cpp:150] Setting up pool2
I0414 16:54:57.014881 11158 net.cpp:157] Top shape: 1024 150 9 9 (12441600)
I0414 16:54:57.014884 11158 net.cpp:165] Memory required for data: 2101927936
I0414 16:54:57.014888 11158 layer_factory.hpp:77] Creating layer conv3
I0414 16:54:57.014900 11158 net.cpp:100] Creating Layer conv3
I0414 16:54:57.014905 11158 net.cpp:434] conv3 <- pool2
I0414 16:54:57.014911 11158 net.cpp:408] conv3 -> conv3
I0414 16:54:57.020812 11158 net.cpp:150] Setting up conv3
I0414 16:54:57.020841 11158 net.cpp:157] Top shape: 1024 250 6 6 (9216000)
I0414 16:54:57.020845 11158 net.cpp:165] Memory required for data: 2138791936
I0414 16:54:57.020860 11158 layer_factory.hpp:77] Creating layer conv3_relu
I0414 16:54:57.020870 11158 net.cpp:100] Creating Layer conv3_relu
I0414 16:54:57.020874 11158 net.cpp:434] conv3_relu <- conv3
I0414 16:54:57.020882 11158 net.cpp:395] conv3_relu -> conv3 (in-place)
I0414 16:54:57.021847 11158 net.cpp:150] Setting up conv3_relu
I0414 16:54:57.021864 11158 net.cpp:157] Top shape: 1024 250 6 6 (9216000)
I0414 16:54:57.021867 11158 net.cpp:165] Memory required for data: 2175655936
I0414 16:54:57.021872 11158 layer_factory.hpp:77] Creating layer pool3
I0414 16:54:57.021880 11158 net.cpp:100] Creating Layer pool3
I0414 16:54:57.021884 11158 net.cpp:434] pool3 <- conv3
I0414 16:54:57.021890 11158 net.cpp:408] pool3 -> pool3
I0414 16:54:57.021942 11158 net.cpp:150] Setting up pool3
I0414 16:54:57.021951 11158 net.cpp:157] Top shape: 1024 250 3 3 (2304000)
I0414 16:54:57.021955 11158 net.cpp:165] Memory required for data: 2184871936
I0414 16:54:57.021957 11158 layer_factory.hpp:77] Creating layer fc4_300
I0414 16:54:57.021963 11158 net.cpp:100] Creating Layer fc4_300
I0414 16:54:57.021968 11158 net.cpp:434] fc4_300 <- pool3
I0414 16:54:57.021973 11158 net.cpp:408] fc4_300 -> fc4_300
I0414 16:54:57.028589 11158 net.cpp:150] Setting up fc4_300
I0414 16:54:57.028620 11158 net.cpp:157] Top shape: 1024 300 (307200)
I0414 16:54:57.028622 11158 net.cpp:165] Memory required for data: 2186100736
I0414 16:54:57.028633 11158 layer_factory.hpp:77] Creating layer fc4_relu
I0414 16:54:57.028643 11158 net.cpp:100] Creating Layer fc4_relu
I0414 16:54:57.028648 11158 net.cpp:434] fc4_relu <- fc4_300
I0414 16:54:57.028656 11158 net.cpp:395] fc4_relu -> fc4_300 (in-place)
I0414 16:54:57.028894 11158 net.cpp:150] Setting up fc4_relu
I0414 16:54:57.028906 11158 net.cpp:157] Top shape: 1024 300 (307200)
I0414 16:54:57.028911 11158 net.cpp:165] Memory required for data: 2187329536
I0414 16:54:57.028914 11158 layer_factory.hpp:77] Creating layer fc5_106
I0414 16:54:57.028923 11158 net.cpp:100] Creating Layer fc5_106
I0414 16:54:57.028928 11158 net.cpp:434] fc5_106 <- fc4_300
I0414 16:54:57.028933 11158 net.cpp:408] fc5_106 -> fc5_classes
I0414 16:54:57.030479 11158 net.cpp:150] Setting up fc5_106
I0414 16:54:57.030495 11158 net.cpp:157] Top shape: 1024 106 (108544)
I0414 16:54:57.030498 11158 net.cpp:165] Memory required for data: 2187763712
I0414 16:54:57.030510 11158 layer_factory.hpp:77] Creating layer fc5_classes_fc5_106_0_split
I0414 16:54:57.030519 11158 net.cpp:100] Creating Layer fc5_classes_fc5_106_0_split
I0414 16:54:57.030522 11158 net.cpp:434] fc5_classes_fc5_106_0_split <- fc5_classes
I0414 16:54:57.030529 11158 net.cpp:408] fc5_classes_fc5_106_0_split -> fc5_classes_fc5_106_0_split_0
I0414 16:54:57.030536 11158 net.cpp:408] fc5_classes_fc5_106_0_split -> fc5_classes_fc5_106_0_split_1
I0414 16:54:57.030542 11158 net.cpp:408] fc5_classes_fc5_106_0_split -> fc5_classes_fc5_106_0_split_2
I0414 16:54:57.030591 11158 net.cpp:150] Setting up fc5_classes_fc5_106_0_split
I0414 16:54:57.030599 11158 net.cpp:157] Top shape: 1024 106 (108544)
I0414 16:54:57.030602 11158 net.cpp:157] Top shape: 1024 106 (108544)
I0414 16:54:57.030606 11158 net.cpp:157] Top shape: 1024 106 (108544)
I0414 16:54:57.030609 11158 net.cpp:165] Memory required for data: 2189066240
I0414 16:54:57.030612 11158 layer_factory.hpp:77] Creating layer softmax
I0414 16:54:57.030618 11158 net.cpp:100] Creating Layer softmax
I0414 16:54:57.030623 11158 net.cpp:434] softmax <- fc5_classes_fc5_106_0_split_0
I0414 16:54:57.030628 11158 net.cpp:408] softmax -> softmax
I0414 16:54:57.030899 11158 net.cpp:150] Setting up softmax
I0414 16:54:57.030911 11158 net.cpp:157] Top shape: 1024 106 (108544)
I0414 16:54:57.030915 11158 net.cpp:165] Memory required for data: 2189500416
I0414 16:54:57.030917 11158 layer_factory.hpp:77] Creating layer loss
I0414 16:54:57.030947 11158 net.cpp:100] Creating Layer loss
I0414 16:54:57.030951 11158 net.cpp:434] loss <- softmax
I0414 16:54:57.030956 11158 net.cpp:434] loss <- label_data_1_split_0
I0414 16:54:57.030961 11158 net.cpp:408] loss -> loss
…
