…
I0528 23:54:11.577509 31706 solver.cpp:81] Creating training net from train_net file: ./Prototxt/experiment_22/RTSD/histeq/trial_3/train.prototxt
I0528 23:54:11.583956 31706 net.cpp:58] Initializing net from parameters: 
state {
  phase: TRAIN
  level: 0
  stage: ""
}
layer {
  name: "data"
  type: "Data"
  top: "data"
  top: "label"
  include {
    phase: TRAIN
  }
  transform_param {
    scale: 0.0039215689
    mirror: false
    crop_size: 48
    mean_value: 134
    mean_value: 128
    mean_value: 128
  }
  data_param {
    source: "../local_data/lmdb/RTSD/histeq/train/lmdb"
    batch_size: 1024
    backend: LMDB
  }
}
layer {
  name: "conv1"
  type: "Convolution"
  bottom: "data"
  top: "conv1"
  convolution_param {
    num_output: 100
    pad: 0
    kernel_size: 7
    group: 1
    stride: 1
    weight_filler {
      type: "xavier"
    }
  }
}
layer {
  name: "conv1_relu"
  type: "ReLU"
  bottom: "conv1"
  top: "conv1"
}
layer {
  name: "pool1"
  type: "Pooling"
  bottom: "conv1"
  top: "pool1"
  pooling_param {
    pool: MAX
    kernel_size: 2
    stride: 2
  }
}
layer {
  name: "conv2"
  type: "Convolution"
  bottom: "pool1"
  top: "conv2"
  convolution_param {
    num_output: 150
    pad: 0
    kernel_size: 4
    group: 1
    stride: 1
    weight_filler {
      type: "xavier"
    }
  }
}
layer {
  name: "conv2_relu"
  type: "ReLU"
  bottom: "conv2"
  top: "conv2"
}
layer {
  name: "pool2"
  type: "Pooling"
  bottom: "conv2"
  top: "pool2"
  pooling_param {
    pool: MAX
    kernel_size: 2
    stride: 2
  }
}
layer {
  name: "conv3"
  type: "Convolution"
  bottom: "pool2"
  top: "conv3"
  convolution_param {
    num_output: 250
    pad: 0
    kernel_size: 4
    group: 1
    stride: 1
    weight_filler {
      type: "xavier"
    }
  }
}
layer {
  name: "conv3_relu"
  type: "ReLU"
  bottom: "conv3"
  top: "conv3"
}
layer {
  name: "pool3"
  type: "Pooling"
  bottom: "conv3"
  top: "pool3"
  pooling_param {
    pool: MAX
    kernel_size: 2
    stride: 2
  }
}
layer {
  name: "fc4_300"
  type: "InnerProduct"
  bottom: "pool3"
  top: "fc4_300"
  inner_product_param {
    num_output: 300
    weight_filler {
      type: "xavier"
    }
  }
}
layer {
  name: "fc4_relu"
  type: "ReLU"
  bottom: "fc4_300"
  top: "fc4_300"
}
layer {
  name: "fc5_116"
  type: "InnerProduct"
  bottom: "fc4_300"
  top: "fc5_classes"
  inner_product_param {
    num_output: 116
    weight_filler {
      type: "xavier"
    }
  }
}
layer {
  name: "softmax"
  type: "Softmax"
  bottom: "fc5_classes"
  top: "softmax"
}
layer {
  name: "loss"
  type: "MultinomialLogisticLoss"
  bottom: "softmax"
  bottom: "label"
  top: "loss"
}
layer {
  name: "accuracy_1"
  type: "Accuracy"
  bottom: "fc5_classes"
  bottom: "label"
  top: "accuracy_1"
  accuracy_param {
    top_k: 1
  }
}
layer {
  name: "accuracy_5"
  type: "Accuracy"
  bottom: "fc5_classes"
  bottom: "label"
  top: "accuracy_5"
  accuracy_param {
    top_k: 5
  }
}
layer {
  name: "silence"
  type: "Silence"
  bottom: "accuracy_1"
  bottom: "accuracy_5"
}
I0528 23:54:11.584050 31706 layer_factory.hpp:77] Creating layer data
I0528 23:54:11.584823 31706 net.cpp:100] Creating Layer data
I0528 23:54:11.584837 31706 net.cpp:408] data -> data
I0528 23:54:11.584864 31706 net.cpp:408] data -> label
I0528 23:54:11.585563 31744 db_lmdb.cpp:35] Opened lmdb ../local_data/lmdb/RTSD/histeq/train/lmdb
I0528 23:54:11.607874 31706 data_layer.cpp:41] output data size: 1024,3,48,48
I0528 23:54:11.652235 31706 net.cpp:150] Setting up data
I0528 23:54:11.652282 31706 net.cpp:157] Top shape: 1024 3 48 48 (7077888)
I0528 23:54:11.652289 31706 net.cpp:157] Top shape: 1024 (1024)
I0528 23:54:11.652294 31706 net.cpp:165] Memory required for data: 28315648
I0528 23:54:11.652303 31706 layer_factory.hpp:77] Creating layer label_data_1_split
I0528 23:54:11.652313 31706 net.cpp:100] Creating Layer label_data_1_split
I0528 23:54:11.652321 31706 net.cpp:434] label_data_1_split <- label
I0528 23:54:11.652333 31706 net.cpp:408] label_data_1_split -> label_data_1_split_0
I0528 23:54:11.652344 31706 net.cpp:408] label_data_1_split -> label_data_1_split_1
I0528 23:54:11.652355 31706 net.cpp:408] label_data_1_split -> label_data_1_split_2
I0528 23:54:11.652405 31706 net.cpp:150] Setting up label_data_1_split
I0528 23:54:11.652412 31706 net.cpp:157] Top shape: 1024 (1024)
I0528 23:54:11.652417 31706 net.cpp:157] Top shape: 1024 (1024)
I0528 23:54:11.652421 31706 net.cpp:157] Top shape: 1024 (1024)
I0528 23:54:11.652425 31706 net.cpp:165] Memory required for data: 28327936
I0528 23:54:11.652428 31706 layer_factory.hpp:77] Creating layer conv1
I0528 23:54:11.652442 31706 net.cpp:100] Creating Layer conv1
I0528 23:54:11.652446 31706 net.cpp:434] conv1 <- data
I0528 23:54:11.652453 31706 net.cpp:408] conv1 -> conv1
I0528 23:54:12.025540 31706 net.cpp:150] Setting up conv1
I0528 23:54:12.025566 31706 net.cpp:157] Top shape: 1024 100 42 42 (180633600)
I0528 23:54:12.025571 31706 net.cpp:165] Memory required for data: 750862336
I0528 23:54:12.025585 31706 layer_factory.hpp:77] Creating layer conv1_relu
I0528 23:54:12.025595 31706 net.cpp:100] Creating Layer conv1_relu
I0528 23:54:12.025604 31706 net.cpp:434] conv1_relu <- conv1
I0528 23:54:12.025611 31706 net.cpp:395] conv1_relu -> conv1 (in-place)
I0528 23:54:12.025758 31706 net.cpp:150] Setting up conv1_relu
I0528 23:54:12.025768 31706 net.cpp:157] Top shape: 1024 100 42 42 (180633600)
I0528 23:54:12.025773 31706 net.cpp:165] Memory required for data: 1473396736
I0528 23:54:12.025777 31706 layer_factory.hpp:77] Creating layer pool1
I0528 23:54:12.025789 31706 net.cpp:100] Creating Layer pool1
I0528 23:54:12.025795 31706 net.cpp:434] pool1 <- conv1
I0528 23:54:12.025800 31706 net.cpp:408] pool1 -> pool1
I0528 23:54:12.025842 31706 net.cpp:150] Setting up pool1
I0528 23:54:12.025851 31706 net.cpp:157] Top shape: 1024 100 21 21 (45158400)
I0528 23:54:12.025854 31706 net.cpp:165] Memory required for data: 1654030336
I0528 23:54:12.025857 31706 layer_factory.hpp:77] Creating layer conv2
I0528 23:54:12.025868 31706 net.cpp:100] Creating Layer conv2
I0528 23:54:12.025874 31706 net.cpp:434] conv2 <- pool1
I0528 23:54:12.025879 31706 net.cpp:408] conv2 -> conv2
I0528 23:54:12.028802 31706 net.cpp:150] Setting up conv2
I0528 23:54:12.028818 31706 net.cpp:157] Top shape: 1024 150 18 18 (49766400)
I0528 23:54:12.028823 31706 net.cpp:165] Memory required for data: 1853095936
I0528 23:54:12.028833 31706 layer_factory.hpp:77] Creating layer conv2_relu
I0528 23:54:12.028841 31706 net.cpp:100] Creating Layer conv2_relu
I0528 23:54:12.028846 31706 net.cpp:434] conv2_relu <- conv2
I0528 23:54:12.028852 31706 net.cpp:395] conv2_relu -> conv2 (in-place)
I0528 23:54:12.028991 31706 net.cpp:150] Setting up conv2_relu
I0528 23:54:12.029001 31706 net.cpp:157] Top shape: 1024 150 18 18 (49766400)
I0528 23:54:12.029006 31706 net.cpp:165] Memory required for data: 2052161536
I0528 23:54:12.029009 31706 layer_factory.hpp:77] Creating layer pool2
I0528 23:54:12.029016 31706 net.cpp:100] Creating Layer pool2
I0528 23:54:12.029021 31706 net.cpp:434] pool2 <- conv2
I0528 23:54:12.029026 31706 net.cpp:408] pool2 -> pool2
I0528 23:54:12.029062 31706 net.cpp:150] Setting up pool2
I0528 23:54:12.029070 31706 net.cpp:157] Top shape: 1024 150 9 9 (12441600)
I0528 23:54:12.029074 31706 net.cpp:165] Memory required for data: 2101927936
I0528 23:54:12.029078 31706 layer_factory.hpp:77] Creating layer conv3
I0528 23:54:12.029088 31706 net.cpp:100] Creating Layer conv3
I0528 23:54:12.029093 31706 net.cpp:434] conv3 <- pool2
I0528 23:54:12.029100 31706 net.cpp:408] conv3 -> conv3
I0528 23:54:12.033896 31706 net.cpp:150] Setting up conv3
I0528 23:54:12.033921 31706 net.cpp:157] Top shape: 1024 250 6 6 (9216000)
I0528 23:54:12.033926 31706 net.cpp:165] Memory required for data: 2138791936
I0528 23:54:12.033938 31706 layer_factory.hpp:77] Creating layer conv3_relu
I0528 23:54:12.033952 31706 net.cpp:100] Creating Layer conv3_relu
I0528 23:54:12.033960 31706 net.cpp:434] conv3_relu <- conv3
I0528 23:54:12.033967 31706 net.cpp:395] conv3_relu -> conv3 (in-place)
I0528 23:54:12.034330 31706 net.cpp:150] Setting up conv3_relu
I0528 23:54:12.034350 31706 net.cpp:157] Top shape: 1024 250 6 6 (9216000)
I0528 23:54:12.034355 31706 net.cpp:165] Memory required for data: 2175655936
I0528 23:54:12.034359 31706 layer_factory.hpp:77] Creating layer pool3
I0528 23:54:12.034375 31706 net.cpp:100] Creating Layer pool3
I0528 23:54:12.034381 31706 net.cpp:434] pool3 <- conv3
I0528 23:54:12.034387 31706 net.cpp:408] pool3 -> pool3
I0528 23:54:12.034423 31706 net.cpp:150] Setting up pool3
I0528 23:54:12.034430 31706 net.cpp:157] Top shape: 1024 250 3 3 (2304000)
I0528 23:54:12.034435 31706 net.cpp:165] Memory required for data: 2184871936
I0528 23:54:12.034437 31706 layer_factory.hpp:77] Creating layer fc4_300
I0528 23:54:12.034453 31706 net.cpp:100] Creating Layer fc4_300
I0528 23:54:12.034459 31706 net.cpp:434] fc4_300 <- pool3
I0528 23:54:12.034464 31706 net.cpp:408] fc4_300 -> fc4_300
I0528 23:54:12.038902 31706 net.cpp:150] Setting up fc4_300
I0528 23:54:12.038919 31706 net.cpp:157] Top shape: 1024 300 (307200)
I0528 23:54:12.038923 31706 net.cpp:165] Memory required for data: 2186100736
I0528 23:54:12.038931 31706 layer_factory.hpp:77] Creating layer fc4_relu
I0528 23:54:12.038939 31706 net.cpp:100] Creating Layer fc4_relu
I0528 23:54:12.038947 31706 net.cpp:434] fc4_relu <- fc4_300
I0528 23:54:12.038952 31706 net.cpp:395] fc4_relu -> fc4_300 (in-place)
I0528 23:54:12.039103 31706 net.cpp:150] Setting up fc4_relu
I0528 23:54:12.039113 31706 net.cpp:157] Top shape: 1024 300 (307200)
I0528 23:54:12.039117 31706 net.cpp:165] Memory required for data: 2187329536
I0528 23:54:12.039121 31706 layer_factory.hpp:77] Creating layer fc5_116
I0528 23:54:12.039127 31706 net.cpp:100] Creating Layer fc5_116
I0528 23:54:12.039131 31706 net.cpp:434] fc5_116 <- fc4_300
I0528 23:54:12.039136 31706 net.cpp:408] fc5_116 -> fc5_classes
I0528 23:54:12.040151 31706 net.cpp:150] Setting up fc5_116
I0528 23:54:12.040164 31706 net.cpp:157] Top shape: 1024 116 (118784)
I0528 23:54:12.040169 31706 net.cpp:165] Memory required for data: 2187804672
I0528 23:54:12.040182 31706 layer_factory.hpp:77] Creating layer fc5_classes_fc5_116_0_split
I0528 23:54:12.040191 31706 net.cpp:100] Creating Layer fc5_classes_fc5_116_0_split
I0528 23:54:12.040195 31706 net.cpp:434] fc5_classes_fc5_116_0_split <- fc5_classes
I0528 23:54:12.040200 31706 net.cpp:408] fc5_classes_fc5_116_0_split -> fc5_classes_fc5_116_0_split_0
I0528 23:54:12.040207 31706 net.cpp:408] fc5_classes_fc5_116_0_split -> fc5_classes_fc5_116_0_split_1
I0528 23:54:12.040215 31706 net.cpp:408] fc5_classes_fc5_116_0_split -> fc5_classes_fc5_116_0_split_2
I0528 23:54:12.040253 31706 net.cpp:150] Setting up fc5_classes_fc5_116_0_split
I0528 23:54:12.040262 31706 net.cpp:157] Top shape: 1024 116 (118784)
I0528 23:54:12.040266 31706 net.cpp:157] Top shape: 1024 116 (118784)
I0528 23:54:12.040271 31706 net.cpp:157] Top shape: 1024 116 (118784)
I0528 23:54:12.040273 31706 net.cpp:165] Memory required for data: 2189230080
I0528 23:54:12.040277 31706 layer_factory.hpp:77] Creating layer softmax
I0528 23:54:12.040283 31706 net.cpp:100] Creating Layer softmax
I0528 23:54:12.040287 31706 net.cpp:434] softmax <- fc5_classes_fc5_116_0_split_0
I0528 23:54:12.040293 31706 net.cpp:408] softmax -> softmax
I0528 23:54:12.040488 31706 net.cpp:150] Setting up softmax
I0528 23:54:12.040498 31706 net.cpp:157] Top shape: 1024 116 (118784)
I0528 23:54:12.040503 31706 net.cpp:165] Memory required for data: 2189705216
I0528 23:54:12.040506 31706 layer_factory.hpp:77] Creating layer loss
I0528 23:54:12.040531 31706 net.cpp:100] Creating Layer loss
I0528 23:54:12.040536 31706 net.cpp:434] loss <- softmax
I0528 23:54:12.040541 31706 net.cpp:434] loss <- label_data_1_split_0
I0528 23:54:12.040547 31706 net.cpp:408] loss -> loss
…
