…
I0414 19:54:48.073175 17903 solver.cpp:93] Creating training net from train_net file: ./Prototxt/experiment_10/rtsd-r3/AHE/trial_5/train.prototxt
I0414 19:54:48.078824 17903 net.cpp:58] Initializing net from parameters: 
state {
  phase: TRAIN
  level: 0
  stage: ""
}
layer {
  name: "data"
  type: "Data"
  top: "data"
  top: "label"
  include {
    phase: TRAIN
  }
  transform_param {
    scale: 0.0039215689
    mirror: false
    crop_size: 48
    mean_value: 133
    mean_value: 126
    mean_value: 125
  }
  data_param {
    source: "../local_data/lmdb/rtsd-r3/AHE/train/lmdb"
    batch_size: 1024
    backend: LMDB
  }
}
layer {
  name: "conv1"
  type: "Convolution"
  bottom: "data"
  top: "conv1"
  convolution_param {
    num_output: 100
    pad: 0
    kernel_size: 7
    group: 1
    stride: 1
    weight_filler {
      type: "xavier"
    }
  }
}
layer {
  name: "conv1_relu"
  type: "ReLU"
  bottom: "conv1"
  top: "conv1"
}
layer {
  name: "pool1"
  type: "Pooling"
  bottom: "conv1"
  top: "pool1"
  pooling_param {
    pool: MAX
    kernel_size: 2
    stride: 2
  }
}
layer {
  name: "conv2"
  type: "Convolution"
  bottom: "pool1"
  top: "conv2"
  convolution_param {
    num_output: 150
    pad: 0
    kernel_size: 4
    group: 1
    stride: 1
    weight_filler {
      type: "xavier"
    }
  }
}
layer {
  name: "conv2_relu"
  type: "ReLU"
  bottom: "conv2"
  top: "conv2"
}
layer {
  name: "pool2"
  type: "Pooling"
  bottom: "conv2"
  top: "pool2"
  pooling_param {
    pool: MAX
    kernel_size: 2
    stride: 2
  }
}
layer {
  name: "conv3"
  type: "Convolution"
  bottom: "pool2"
  top: "conv3"
  convolution_param {
    num_output: 250
    pad: 0
    kernel_size: 4
    group: 1
    stride: 1
    weight_filler {
      type: "xavier"
    }
  }
}
layer {
  name: "conv3_relu"
  type: "ReLU"
  bottom: "conv3"
  top: "conv3"
}
layer {
  name: "pool3"
  type: "Pooling"
  bottom: "conv3"
  top: "pool3"
  pooling_param {
    pool: MAX
    kernel_size: 2
    stride: 2
  }
}
layer {
  name: "fc4_300"
  type: "InnerProduct"
  bottom: "pool3"
  top: "fc4_300"
  inner_product_param {
    num_output: 300
    weight_filler {
      type: "xavier"
    }
  }
}
layer {
  name: "fc4_relu"
  type: "ReLU"
  bottom: "fc4_300"
  top: "fc4_300"
}
layer {
  name: "fc5_106"
  type: "InnerProduct"
  bottom: "fc4_300"
  top: "fc5_classes"
  inner_product_param {
    num_output: 106
    weight_filler {
      type: "xavier"
    }
  }
}
layer {
  name: "softmax"
  type: "Softmax"
  bottom: "fc5_classes"
  top: "softmax"
}
layer {
  name: "loss"
  type: "MultinomialLogisticLoss"
  bottom: "softmax"
  bottom: "label"
  top: "loss"
}
layer {
  name: "accuracy_1"
  type: "Accuracy"
  bottom: "fc5_classes"
  bottom: "label"
  top: "accuracy_1"
  accuracy_param {
    top_k: 1
  }
}
layer {
  name: "accuracy_5"
  type: "Accuracy"
  bottom: "fc5_classes"
  bottom: "label"
  top: "accuracy_5"
  accuracy_param {
    top_k: 5
  }
}
layer {
  name: "silence"
  type: "Silence"
  bottom: "accuracy_1"
  bottom: "accuracy_5"
}
I0414 19:54:48.079000 17903 layer_factory.hpp:77] Creating layer data
I0414 19:54:48.080549 17903 net.cpp:100] Creating Layer data
I0414 19:54:48.080585 17903 net.cpp:408] data -> data
I0414 19:54:48.080621 17903 net.cpp:408] data -> label
I0414 19:54:48.085995 18067 db_lmdb.cpp:35] Opened lmdb ../local_data/lmdb/rtsd-r3/AHE/train/lmdb
I0414 19:54:48.110405 17903 data_layer.cpp:41] output data size: 1024,3,48,48
I0414 19:54:48.207530 17903 net.cpp:150] Setting up data
I0414 19:54:48.207593 17903 net.cpp:157] Top shape: 1024 3 48 48 (7077888)
I0414 19:54:48.207604 17903 net.cpp:157] Top shape: 1024 (1024)
I0414 19:54:48.207609 17903 net.cpp:165] Memory required for data: 28315648
I0414 19:54:48.207623 17903 layer_factory.hpp:77] Creating layer label_data_1_split
I0414 19:54:48.207638 17903 net.cpp:100] Creating Layer label_data_1_split
I0414 19:54:48.207650 17903 net.cpp:434] label_data_1_split <- label
I0414 19:54:48.207667 17903 net.cpp:408] label_data_1_split -> label_data_1_split_0
I0414 19:54:48.207680 17903 net.cpp:408] label_data_1_split -> label_data_1_split_1
I0414 19:54:48.207691 17903 net.cpp:408] label_data_1_split -> label_data_1_split_2
I0414 19:54:48.207768 17903 net.cpp:150] Setting up label_data_1_split
I0414 19:54:48.207780 17903 net.cpp:157] Top shape: 1024 (1024)
I0414 19:54:48.207788 17903 net.cpp:157] Top shape: 1024 (1024)
I0414 19:54:48.207792 17903 net.cpp:157] Top shape: 1024 (1024)
I0414 19:54:48.207799 17903 net.cpp:165] Memory required for data: 28327936
I0414 19:54:48.207806 17903 layer_factory.hpp:77] Creating layer conv1
I0414 19:54:48.207833 17903 net.cpp:100] Creating Layer conv1
I0414 19:54:48.207841 17903 net.cpp:434] conv1 <- data
I0414 19:54:48.207852 17903 net.cpp:408] conv1 -> conv1
I0414 19:54:48.989841 17903 net.cpp:150] Setting up conv1
I0414 19:54:48.989876 17903 net.cpp:157] Top shape: 1024 100 42 42 (180633600)
I0414 19:54:48.989881 17903 net.cpp:165] Memory required for data: 750862336
I0414 19:54:48.989909 17903 layer_factory.hpp:77] Creating layer conv1_relu
I0414 19:54:48.989924 17903 net.cpp:100] Creating Layer conv1_relu
I0414 19:54:48.989930 17903 net.cpp:434] conv1_relu <- conv1
I0414 19:54:48.989943 17903 net.cpp:395] conv1_relu -> conv1 (in-place)
I0414 19:54:48.990195 17903 net.cpp:150] Setting up conv1_relu
I0414 19:54:48.990207 17903 net.cpp:157] Top shape: 1024 100 42 42 (180633600)
I0414 19:54:48.990214 17903 net.cpp:165] Memory required for data: 1473396736
I0414 19:54:48.990221 17903 layer_factory.hpp:77] Creating layer pool1
I0414 19:54:48.990232 17903 net.cpp:100] Creating Layer pool1
I0414 19:54:48.990242 17903 net.cpp:434] pool1 <- conv1
I0414 19:54:48.990248 17903 net.cpp:408] pool1 -> pool1
I0414 19:54:48.990326 17903 net.cpp:150] Setting up pool1
I0414 19:54:48.990339 17903 net.cpp:157] Top shape: 1024 100 21 21 (45158400)
I0414 19:54:48.990345 17903 net.cpp:165] Memory required for data: 1654030336
I0414 19:54:48.990351 17903 layer_factory.hpp:77] Creating layer conv2
I0414 19:54:48.990380 17903 net.cpp:100] Creating Layer conv2
I0414 19:54:48.990386 17903 net.cpp:434] conv2 <- pool1
I0414 19:54:48.990394 17903 net.cpp:408] conv2 -> conv2
I0414 19:54:48.996934 17903 net.cpp:150] Setting up conv2
I0414 19:54:48.996950 17903 net.cpp:157] Top shape: 1024 150 18 18 (49766400)
I0414 19:54:48.996954 17903 net.cpp:165] Memory required for data: 1853095936
I0414 19:54:48.996964 17903 layer_factory.hpp:77] Creating layer conv2_relu
I0414 19:54:48.996971 17903 net.cpp:100] Creating Layer conv2_relu
I0414 19:54:48.996975 17903 net.cpp:434] conv2_relu <- conv2
I0414 19:54:48.996984 17903 net.cpp:395] conv2_relu -> conv2 (in-place)
I0414 19:54:48.998962 17903 net.cpp:150] Setting up conv2_relu
I0414 19:54:48.998977 17903 net.cpp:157] Top shape: 1024 150 18 18 (49766400)
I0414 19:54:48.998980 17903 net.cpp:165] Memory required for data: 2052161536
I0414 19:54:48.998986 17903 layer_factory.hpp:77] Creating layer pool2
I0414 19:54:48.998997 17903 net.cpp:100] Creating Layer pool2
I0414 19:54:48.999003 17903 net.cpp:434] pool2 <- conv2
I0414 19:54:48.999011 17903 net.cpp:408] pool2 -> pool2
I0414 19:54:48.999063 17903 net.cpp:150] Setting up pool2
I0414 19:54:48.999073 17903 net.cpp:157] Top shape: 1024 150 9 9 (12441600)
I0414 19:54:48.999079 17903 net.cpp:165] Memory required for data: 2101927936
I0414 19:54:48.999084 17903 layer_factory.hpp:77] Creating layer conv3
I0414 19:54:48.999099 17903 net.cpp:100] Creating Layer conv3
I0414 19:54:48.999104 17903 net.cpp:434] conv3 <- pool2
I0414 19:54:48.999111 17903 net.cpp:408] conv3 -> conv3
I0414 19:54:49.009832 17903 net.cpp:150] Setting up conv3
I0414 19:54:49.009856 17903 net.cpp:157] Top shape: 1024 250 6 6 (9216000)
I0414 19:54:49.009860 17903 net.cpp:165] Memory required for data: 2138791936
I0414 19:54:49.009871 17903 layer_factory.hpp:77] Creating layer conv3_relu
I0414 19:54:49.009877 17903 net.cpp:100] Creating Layer conv3_relu
I0414 19:54:49.009889 17903 net.cpp:434] conv3_relu <- conv3
I0414 19:54:49.009898 17903 net.cpp:395] conv3_relu -> conv3 (in-place)
I0414 19:54:49.012509 17903 net.cpp:150] Setting up conv3_relu
I0414 19:54:49.012533 17903 net.cpp:157] Top shape: 1024 250 6 6 (9216000)
I0414 19:54:49.012542 17903 net.cpp:165] Memory required for data: 2175655936
I0414 19:54:49.012548 17903 layer_factory.hpp:77] Creating layer pool3
I0414 19:54:49.012558 17903 net.cpp:100] Creating Layer pool3
I0414 19:54:49.012573 17903 net.cpp:434] pool3 <- conv3
I0414 19:54:49.012591 17903 net.cpp:408] pool3 -> pool3
I0414 19:54:49.012676 17903 net.cpp:150] Setting up pool3
I0414 19:54:49.012684 17903 net.cpp:157] Top shape: 1024 250 3 3 (2304000)
I0414 19:54:49.012694 17903 net.cpp:165] Memory required for data: 2184871936
I0414 19:54:49.012706 17903 layer_factory.hpp:77] Creating layer fc4_300
I0414 19:54:49.012723 17903 net.cpp:100] Creating Layer fc4_300
I0414 19:54:49.012729 17903 net.cpp:434] fc4_300 <- pool3
I0414 19:54:49.012742 17903 net.cpp:408] fc4_300 -> fc4_300
I0414 19:54:49.019855 17903 net.cpp:150] Setting up fc4_300
I0414 19:54:49.019871 17903 net.cpp:157] Top shape: 1024 300 (307200)
I0414 19:54:49.019876 17903 net.cpp:165] Memory required for data: 2186100736
I0414 19:54:49.019892 17903 layer_factory.hpp:77] Creating layer fc4_relu
I0414 19:54:49.019901 17903 net.cpp:100] Creating Layer fc4_relu
I0414 19:54:49.019907 17903 net.cpp:434] fc4_relu <- fc4_300
I0414 19:54:49.019915 17903 net.cpp:395] fc4_relu -> fc4_300 (in-place)
I0414 19:54:49.020105 17903 net.cpp:150] Setting up fc4_relu
I0414 19:54:49.020117 17903 net.cpp:157] Top shape: 1024 300 (307200)
I0414 19:54:49.020124 17903 net.cpp:165] Memory required for data: 2187329536
I0414 19:54:49.020130 17903 layer_factory.hpp:77] Creating layer fc5_106
I0414 19:54:49.020141 17903 net.cpp:100] Creating Layer fc5_106
I0414 19:54:49.020148 17903 net.cpp:434] fc5_106 <- fc4_300
I0414 19:54:49.020154 17903 net.cpp:408] fc5_106 -> fc5_classes
I0414 19:54:49.021651 17903 net.cpp:150] Setting up fc5_106
I0414 19:54:49.021667 17903 net.cpp:157] Top shape: 1024 106 (108544)
I0414 19:54:49.021675 17903 net.cpp:165] Memory required for data: 2187763712
I0414 19:54:49.021690 17903 layer_factory.hpp:77] Creating layer fc5_classes_fc5_106_0_split
I0414 19:54:49.021700 17903 net.cpp:100] Creating Layer fc5_classes_fc5_106_0_split
I0414 19:54:49.021708 17903 net.cpp:434] fc5_classes_fc5_106_0_split <- fc5_classes
I0414 19:54:49.021718 17903 net.cpp:408] fc5_classes_fc5_106_0_split -> fc5_classes_fc5_106_0_split_0
I0414 19:54:49.021729 17903 net.cpp:408] fc5_classes_fc5_106_0_split -> fc5_classes_fc5_106_0_split_1
I0414 19:54:49.021739 17903 net.cpp:408] fc5_classes_fc5_106_0_split -> fc5_classes_fc5_106_0_split_2
I0414 19:54:49.021793 17903 net.cpp:150] Setting up fc5_classes_fc5_106_0_split
I0414 19:54:49.021801 17903 net.cpp:157] Top shape: 1024 106 (108544)
I0414 19:54:49.021808 17903 net.cpp:157] Top shape: 1024 106 (108544)
I0414 19:54:49.021816 17903 net.cpp:157] Top shape: 1024 106 (108544)
I0414 19:54:49.021822 17903 net.cpp:165] Memory required for data: 2189066240
I0414 19:54:49.021826 17903 layer_factory.hpp:77] Creating layer softmax
I0414 19:54:49.021836 17903 net.cpp:100] Creating Layer softmax
I0414 19:54:49.021842 17903 net.cpp:434] softmax <- fc5_classes_fc5_106_0_split_0
I0414 19:54:49.021850 17903 net.cpp:408] softmax -> softmax
I0414 19:54:49.022131 17903 net.cpp:150] Setting up softmax
I0414 19:54:49.022150 17903 net.cpp:157] Top shape: 1024 106 (108544)
I0414 19:54:49.022156 17903 net.cpp:165] Memory required for data: 2189500416
I0414 19:54:49.022163 17903 layer_factory.hpp:77] Creating layer loss
I0414 19:54:49.022200 17903 net.cpp:100] Creating Layer loss
I0414 19:54:49.022207 17903 net.cpp:434] loss <- softmax
I0414 19:54:49.022213 17903 net.cpp:434] loss <- label_data_1_split_0
I0414 19:54:49.022228 17903 net.cpp:408] loss -> loss
…
