…
I0409 22:58:22.033959 26457 net.cpp:322] The NetState phase (0) differed from the phase (1) specified by a rule in layer accuracy_5
I0409 22:58:22.034068 26457 net.cpp:58] Initializing net from parameters: 
state {
  phase: TRAIN
  level: 0
  stage: ""
}
layer {
  name: "data"
  type: "Data"
  top: "data"
  top: "label"
  include {
    phase: TRAIN
  }
  transform_param {
    mirror: false
    crop_size: 48
    mean_value: 122
    mean_value: 115
    mean_value: 129
  }
  data_param {
    source: "../local_data/lmdb/rtsd-r1/orig/train/lmdb"
    batch_size: 1024
    backend: LMDB
  }
}
layer {
  name: "conv1"
  type: "Convolution"
  bottom: "data"
  top: "conv1"
  convolution_param {
    num_output: 100
    pad: 0
    kernel_size: 7
    group: 1
    stride: 1
    weight_filler {
      type: "xavier"
    }
  }
}
layer {
  name: "conv1_sTanH"
  type: "TanH"
  bottom: "conv1"
  top: "conv1"
}
layer {
  name: "pool1"
  type: "Pooling"
  bottom: "conv1"
  top: "pool1"
  pooling_param {
    pool: MAX
    kernel_size: 2
    stride: 2
  }
}
layer {
  name: "conv2"
  type: "Convolution"
  bottom: "pool1"
  top: "conv2"
  convolution_param {
    num_output: 150
    pad: 0
    kernel_size: 4
    group: 1
    stride: 1
    weight_filler {
      type: "xavier"
    }
  }
}
layer {
  name: "conv2_sTanH"
  type: "TanH"
  bottom: "conv2"
  top: "conv2"
}
layer {
  name: "pool2"
  type: "Pooling"
  bottom: "conv2"
  top: "pool2"
  pooling_param {
    pool: MAX
    kernel_size: 2
    stride: 2
  }
}
layer {
  name: "conv3"
  type: "Convolution"
  bottom: "pool2"
  top: "conv3"
  convolution_param {
    num_output: 250
    pad: 0
    kernel_size: 4
    group: 1
    stride: 1
    weight_filler {
      type: "xavier"
    }
  }
}
layer {
  name: "conv3_sTanH"
  type: "TanH"
  bottom: "conv3"
  top: "conv3"
}
layer {
  name: "pool3"
  type: "Pooling"
  bottom: "conv3"
  top: "pool3"
  pooling_param {
    pool: MAX
    kernel_size: 2
    stride: 2
  }
}
layer {
  name: "fc4_300"
  type: "InnerProduct"
  bottom: "pool3"
  top: "fc4_300"
  inner_product_param {
    num_output: 300
    weight_filler {
      type: "xavier"
    }
  }
}
layer {
  name: "fc4_sTanH"
  type: "TanH"
  bottom: "fc4_300"
  top: "fc4_300"
}
layer {
  name: "drop4"
  type: "Dropout"
  bottom: "fc4_300"
  top: "fc4_300"
  dropout_param {
    dropout_ratio: 0.4
  }
}
layer {
  name: "fc5_67"
  type: "InnerProduct"
  bottom: "fc4_300"
  top: "fc5_classes"
  inner_product_param {
    num_output: 67
    weight_filler {
      type: "xavier"
    }
  }
}
layer {
  name: "loss"
  type: "SoftmaxWithLoss"
  bottom: "fc5_classes"
  bottom: "label"
  top: "loss"
}
I0409 22:58:22.034157 26457 layer_factory.hpp:77] Creating layer data
I0409 22:58:22.035445 26457 net.cpp:100] Creating Layer data
I0409 22:58:22.035464 26457 net.cpp:408] data -> data
I0409 22:58:22.035495 26457 net.cpp:408] data -> label
I0409 22:58:22.037201 26545 db_lmdb.cpp:35] Opened lmdb ../local_data/lmdb/rtsd-r1/orig/train/lmdb
I0409 22:58:22.059173 26457 data_layer.cpp:41] output data size: 1024,3,48,48
I0409 22:58:22.113224 26457 net.cpp:150] Setting up data
I0409 22:58:22.113265 26457 net.cpp:157] Top shape: 1024 3 48 48 (7077888)
I0409 22:58:22.113273 26457 net.cpp:157] Top shape: 1024 (1024)
I0409 22:58:22.113303 26457 net.cpp:165] Memory required for data: 28315648
I0409 22:58:22.113317 26457 layer_factory.hpp:77] Creating layer conv1
I0409 22:58:22.113346 26457 net.cpp:100] Creating Layer conv1
I0409 22:58:22.113355 26457 net.cpp:434] conv1 <- data
I0409 22:58:22.113371 26457 net.cpp:408] conv1 -> conv1
I0409 22:58:22.438467 26457 net.cpp:150] Setting up conv1
I0409 22:58:22.438500 26457 net.cpp:157] Top shape: 1024 100 42 42 (180633600)
I0409 22:58:22.438505 26457 net.cpp:165] Memory required for data: 750850048
I0409 22:58:22.438530 26457 layer_factory.hpp:77] Creating layer conv1_sTanH
I0409 22:58:22.438547 26457 net.cpp:100] Creating Layer conv1_sTanH
I0409 22:58:22.438554 26457 net.cpp:434] conv1_sTanH <- conv1
I0409 22:58:22.438560 26457 net.cpp:395] conv1_sTanH -> conv1 (in-place)
I0409 22:58:22.438801 26457 net.cpp:150] Setting up conv1_sTanH
I0409 22:58:22.438815 26457 net.cpp:157] Top shape: 1024 100 42 42 (180633600)
I0409 22:58:22.438820 26457 net.cpp:165] Memory required for data: 1473384448
I0409 22:58:22.438825 26457 layer_factory.hpp:77] Creating layer pool1
I0409 22:58:22.438833 26457 net.cpp:100] Creating Layer pool1
I0409 22:58:22.438839 26457 net.cpp:434] pool1 <- conv1
I0409 22:58:22.438845 26457 net.cpp:408] pool1 -> pool1
I0409 22:58:22.438915 26457 net.cpp:150] Setting up pool1
I0409 22:58:22.438925 26457 net.cpp:157] Top shape: 1024 100 21 21 (45158400)
I0409 22:58:22.438930 26457 net.cpp:165] Memory required for data: 1654018048
I0409 22:58:22.438933 26457 layer_factory.hpp:77] Creating layer conv2
I0409 22:58:22.438953 26457 net.cpp:100] Creating Layer conv2
I0409 22:58:22.438959 26457 net.cpp:434] conv2 <- pool1
I0409 22:58:22.438966 26457 net.cpp:408] conv2 -> conv2
I0409 22:58:22.444272 26457 net.cpp:150] Setting up conv2
I0409 22:58:22.444293 26457 net.cpp:157] Top shape: 1024 150 18 18 (49766400)
I0409 22:58:22.444308 26457 net.cpp:165] Memory required for data: 1853083648
I0409 22:58:22.444319 26457 layer_factory.hpp:77] Creating layer conv2_sTanH
I0409 22:58:22.444329 26457 net.cpp:100] Creating Layer conv2_sTanH
I0409 22:58:22.444335 26457 net.cpp:434] conv2_sTanH <- conv2
I0409 22:58:22.444342 26457 net.cpp:395] conv2_sTanH -> conv2 (in-place)
I0409 22:58:22.445248 26457 net.cpp:150] Setting up conv2_sTanH
I0409 22:58:22.445269 26457 net.cpp:157] Top shape: 1024 150 18 18 (49766400)
I0409 22:58:22.445274 26457 net.cpp:165] Memory required for data: 2052149248
I0409 22:58:22.445279 26457 layer_factory.hpp:77] Creating layer pool2
I0409 22:58:22.445287 26457 net.cpp:100] Creating Layer pool2
I0409 22:58:22.445293 26457 net.cpp:434] pool2 <- conv2
I0409 22:58:22.445300 26457 net.cpp:408] pool2 -> pool2
I0409 22:58:22.445359 26457 net.cpp:150] Setting up pool2
I0409 22:58:22.445369 26457 net.cpp:157] Top shape: 1024 150 9 9 (12441600)
I0409 22:58:22.445372 26457 net.cpp:165] Memory required for data: 2101915648
I0409 22:58:22.445376 26457 layer_factory.hpp:77] Creating layer conv3
I0409 22:58:22.445385 26457 net.cpp:100] Creating Layer conv3
I0409 22:58:22.445391 26457 net.cpp:434] conv3 <- pool2
I0409 22:58:22.445397 26457 net.cpp:408] conv3 -> conv3
I0409 22:58:22.452142 26457 net.cpp:150] Setting up conv3
I0409 22:58:22.452164 26457 net.cpp:157] Top shape: 1024 250 6 6 (9216000)
I0409 22:58:22.452172 26457 net.cpp:165] Memory required for data: 2138779648
I0409 22:58:22.452183 26457 layer_factory.hpp:77] Creating layer conv3_sTanH
I0409 22:58:22.452193 26457 net.cpp:100] Creating Layer conv3_sTanH
I0409 22:58:22.452199 26457 net.cpp:434] conv3_sTanH <- conv3
I0409 22:58:22.452205 26457 net.cpp:395] conv3_sTanH -> conv3 (in-place)
I0409 22:58:22.453135 26457 net.cpp:150] Setting up conv3_sTanH
I0409 22:58:22.453153 26457 net.cpp:157] Top shape: 1024 250 6 6 (9216000)
I0409 22:58:22.453157 26457 net.cpp:165] Memory required for data: 2175643648
I0409 22:58:22.453161 26457 layer_factory.hpp:77] Creating layer pool3
I0409 22:58:22.453173 26457 net.cpp:100] Creating Layer pool3
I0409 22:58:22.453178 26457 net.cpp:434] pool3 <- conv3
I0409 22:58:22.453209 26457 net.cpp:408] pool3 -> pool3
I0409 22:58:22.453275 26457 net.cpp:150] Setting up pool3
I0409 22:58:22.453285 26457 net.cpp:157] Top shape: 1024 250 3 3 (2304000)
I0409 22:58:22.453289 26457 net.cpp:165] Memory required for data: 2184859648
I0409 22:58:22.453297 26457 layer_factory.hpp:77] Creating layer fc4_300
I0409 22:58:22.453305 26457 net.cpp:100] Creating Layer fc4_300
I0409 22:58:22.453310 26457 net.cpp:434] fc4_300 <- pool3
I0409 22:58:22.453318 26457 net.cpp:408] fc4_300 -> fc4_300
I0409 22:58:22.459942 26457 net.cpp:150] Setting up fc4_300
I0409 22:58:22.459961 26457 net.cpp:157] Top shape: 1024 300 (307200)
I0409 22:58:22.459965 26457 net.cpp:165] Memory required for data: 2186088448
I0409 22:58:22.459975 26457 layer_factory.hpp:77] Creating layer fc4_sTanH
I0409 22:58:22.459983 26457 net.cpp:100] Creating Layer fc4_sTanH
I0409 22:58:22.459990 26457 net.cpp:434] fc4_sTanH <- fc4_300
I0409 22:58:22.459997 26457 net.cpp:395] fc4_sTanH -> fc4_300 (in-place)
I0409 22:58:22.460237 26457 net.cpp:150] Setting up fc4_sTanH
I0409 22:58:22.460252 26457 net.cpp:157] Top shape: 1024 300 (307200)
I0409 22:58:22.460256 26457 net.cpp:165] Memory required for data: 2187317248
I0409 22:58:22.460260 26457 layer_factory.hpp:77] Creating layer drop4
I0409 22:58:22.460269 26457 net.cpp:100] Creating Layer drop4
I0409 22:58:22.460274 26457 net.cpp:434] drop4 <- fc4_300
I0409 22:58:22.460283 26457 net.cpp:395] drop4 -> fc4_300 (in-place)
I0409 22:58:22.460325 26457 net.cpp:150] Setting up drop4
I0409 22:58:22.460333 26457 net.cpp:157] Top shape: 1024 300 (307200)
I0409 22:58:22.460337 26457 net.cpp:165] Memory required for data: 2188546048
I0409 22:58:22.460341 26457 layer_factory.hpp:77] Creating layer fc5_67
I0409 22:58:22.460348 26457 net.cpp:100] Creating Layer fc5_67
I0409 22:58:22.460353 26457 net.cpp:434] fc5_67 <- fc4_300
I0409 22:58:22.460362 26457 net.cpp:408] fc5_67 -> fc5_classes
I0409 22:58:22.461807 26457 net.cpp:150] Setting up fc5_67
I0409 22:58:22.461825 26457 net.cpp:157] Top shape: 1024 67 (68608)
I0409 22:58:22.461832 26457 net.cpp:165] Memory required for data: 2188820480
I0409 22:58:22.461844 26457 layer_factory.hpp:77] Creating layer loss
I0409 22:58:22.461854 26457 net.cpp:100] Creating Layer loss
I0409 22:58:22.461860 26457 net.cpp:434] loss <- fc5_classes
I0409 22:58:22.461865 26457 net.cpp:434] loss <- label
I0409 22:58:22.461874 26457 net.cpp:408] loss -> loss
I0409 22:58:22.461890 26457 layer_factory.hpp:77] Creating layer loss
…
I0409 22:58:22.462678 26457 solver.cpp:193] Creating test net (#0) specified by test_net file: ./Prototxt/experiment_7/rtsd-r1/orig/trial_3/test.prototxt
I0409 22:58:22.462847 26457 net.cpp:58] Initializing net from parameters: 
state {
  phase: TEST
}
layer {
  name: "data"
  type: "Data"
  top: "data"
  top: "label"
  include {
    phase: TEST
  }
  transform_param {
    mirror: false
    crop_size: 48
    mean_value: 113
    mean_value: 110
    mean_value: 132
  }
  data_param {
    source: "../local_data/lmdb/rtsd-r1/orig/test/lmdb"
    batch_size: 1024
    backend: LMDB
  }
}
layer {
  name: "conv1"
  type: "Convolution"
  bottom: "data"
  top: "conv1"
  convolution_param {
    num_output: 100
    pad: 0
    kernel_size: 7
    group: 1
    stride: 1
    weight_filler {
      type: "xavier"
    }
  }
}
layer {
  name: "conv1_sTanH"
  type: "TanH"
  bottom: "conv1"
  top: "conv1"
}
layer {
  name: "pool1"
  type: "Pooling"
  bottom: "conv1"
  top: "pool1"
  pooling_param {
    pool: MAX
    kernel_size: 2
    stride: 2
  }
}
layer {
  name: "conv2"
  type: "Convolution"
  bottom: "pool1"
  top: "conv2"
  convolution_param {
    num_output: 150
    pad: 0
    kernel_size: 4
    group: 1
    stride: 1
    weight_filler {
      type: "xavier"
    }
  }
}
layer {
  name: "conv2_sTanH"
  type: "TanH"
  bottom: "conv2"
  top: "conv2"
}
layer {
  name: "pool2"
  type: "Pooling"
  bottom: "conv2"
  top: "pool2"
  pooling_param {
    pool: MAX
    kernel_size: 2
    stride: 2
  }
}
layer {
  name: "conv3"
  type: "Convolution"
  bottom: "pool2"
  top: "conv3"
  convolution_param {
    num_output: 250
    pad: 0
    kernel_size: 4
    group: 1
    stride: 1
    weight_filler {
      type: "xavier"
    }
  }
}
layer {
  name: "conv3_sTanH"
  type: "TanH"
  bottom: "conv3"
  top: "conv3"
}
layer {
  name: "pool3"
  type: "Pooling"
  bottom: "conv3"
  top: "pool3"
  pooling_param {
    pool: MAX
    kernel_size: 2
    stride: 2
  }
}
layer {
  name: "fc4_300"
  type: "InnerProduct"
  bottom: "pool3"
  top: "fc4_300"
  inner_product_param {
    num_output: 300
    weight_filler {
      type: "xavier"
    }
  }
}
layer {
  name: "fc4_sTanH"
  type: "TanH"
  bottom: "fc4_300"
  top: "fc4_300"
}
layer {
  name: "drop4"
  type: "Dropout"
  bottom: "fc4_300"
  top: "fc4_300"
  dropout_param {
    dropout_ratio: 0.4
  }
}
layer {
  name: "fc5_67"
  type: "InnerProduct"
  bottom: "fc4_300"
  top: "fc5_classes"
  inner_product_param {
    num_output: 67
    weight_filler {
      type: "xavier"
    }
  }
}
layer {
  name: "loss"
  type: "SoftmaxWithLoss"
  bottom: "fc5_classes"
  bottom: "label"
  top: "loss"
}
layer {
  name: "accuracy_1"
  type: "Accuracy"
  bottom: "fc5_classes"
  bottom: "label"
  top: "accuracy_1"
  include {
    phase: TEST
  }
  accuracy_param {
    top_k: 1
  }
}
layer {
  name: "accuracy_5"
  type: "Accuracy"
  bottom: "fc5_classes"
  bottom: "label"
  top: "accuracy_5"
  include {
    phase: TEST
  }
  accuracy_param {
    top_k: 5
  }
}
I0409 22:58:22.462962 26457 layer_factory.hpp:77] Creating layer data
I0409 22:58:22.464076 26457 net.cpp:100] Creating Layer data
I0409 22:58:22.464090 26457 net.cpp:408] data -> data
I0409 22:58:22.464102 26457 net.cpp:408] data -> label
I0409 22:58:22.465322 26566 db_lmdb.cpp:35] Opened lmdb ../local_data/lmdb/rtsd-r1/orig/test/lmdb
I0409 22:58:22.465610 26457 data_layer.cpp:41] output data size: 1024,3,48,48
I0409 22:58:22.521306 26457 net.cpp:150] Setting up data
I0409 22:58:22.521338 26457 net.cpp:157] Top shape: 1024 3 48 48 (7077888)
I0409 22:58:22.521344 26457 net.cpp:157] Top shape: 1024 (1024)
I0409 22:58:22.521347 26457 net.cpp:165] Memory required for data: 28315648
I0409 22:58:22.521354 26457 layer_factory.hpp:77] Creating layer label_data_1_split
I0409 22:58:22.521370 26457 net.cpp:100] Creating Layer label_data_1_split
I0409 22:58:22.521375 26457 net.cpp:434] label_data_1_split <- label
I0409 22:58:22.521384 26457 net.cpp:408] label_data_1_split -> label_data_1_split_0
I0409 22:58:22.521397 26457 net.cpp:408] label_data_1_split -> label_data_1_split_1
I0409 22:58:22.521411 26457 net.cpp:408] label_data_1_split -> label_data_1_split_2
I0409 22:58:22.521615 26457 net.cpp:150] Setting up label_data_1_split
I0409 22:58:22.521627 26457 net.cpp:157] Top shape: 1024 (1024)
I0409 22:58:22.521631 26457 net.cpp:157] Top shape: 1024 (1024)
I0409 22:58:22.521636 26457 net.cpp:157] Top shape: 1024 (1024)
I0409 22:58:22.521638 26457 net.cpp:165] Memory required for data: 28327936
I0409 22:58:22.521642 26457 layer_factory.hpp:77] Creating layer conv1
I0409 22:58:22.521661 26457 net.cpp:100] Creating Layer conv1
I0409 22:58:22.521668 26457 net.cpp:434] conv1 <- data
I0409 22:58:22.521675 26457 net.cpp:408] conv1 -> conv1
I0409 22:58:22.527127 26457 net.cpp:150] Setting up conv1
I0409 22:58:22.527153 26457 net.cpp:157] Top shape: 1024 100 42 42 (180633600)
I0409 22:58:22.527156 26457 net.cpp:165] Memory required for data: 750862336
I0409 22:58:22.527170 26457 layer_factory.hpp:77] Creating layer conv1_sTanH
I0409 22:58:22.527180 26457 net.cpp:100] Creating Layer conv1_sTanH
I0409 22:58:22.527184 26457 net.cpp:434] conv1_sTanH <- conv1
I0409 22:58:22.527190 26457 net.cpp:395] conv1_sTanH -> conv1 (in-place)
I0409 22:58:22.527438 26457 net.cpp:150] Setting up conv1_sTanH
I0409 22:58:22.527453 26457 net.cpp:157] Top shape: 1024 100 42 42 (180633600)
I0409 22:58:22.527457 26457 net.cpp:165] Memory required for data: 1473396736
I0409 22:58:22.527462 26457 layer_factory.hpp:77] Creating layer pool1
I0409 22:58:22.527473 26457 net.cpp:100] Creating Layer pool1
I0409 22:58:22.527479 26457 net.cpp:434] pool1 <- conv1
I0409 22:58:22.527487 26457 net.cpp:408] pool1 -> pool1
I0409 22:58:22.527552 26457 net.cpp:150] Setting up pool1
I0409 22:58:22.527562 26457 net.cpp:157] Top shape: 1024 100 21 21 (45158400)
I0409 22:58:22.527567 26457 net.cpp:165] Memory required for data: 1654030336
I0409 22:58:22.527570 26457 layer_factory.hpp:77] Creating layer conv2
I0409 22:58:22.527582 26457 net.cpp:100] Creating Layer conv2
I0409 22:58:22.527588 26457 net.cpp:434] conv2 <- pool1
I0409 22:58:22.527595 26457 net.cpp:408] conv2 -> conv2
I0409 22:58:22.533351 26457 net.cpp:150] Setting up conv2
I0409 22:58:22.533378 26457 net.cpp:157] Top shape: 1024 150 18 18 (49766400)
I0409 22:58:22.533385 26457 net.cpp:165] Memory required for data: 1853095936
I0409 22:58:22.533397 26457 layer_factory.hpp:77] Creating layer conv2_sTanH
I0409 22:58:22.533411 26457 net.cpp:100] Creating Layer conv2_sTanH
I0409 22:58:22.533416 26457 net.cpp:434] conv2_sTanH <- conv2
I0409 22:58:22.533423 26457 net.cpp:395] conv2_sTanH -> conv2 (in-place)
I0409 22:58:22.535187 26457 net.cpp:150] Setting up conv2_sTanH
I0409 22:58:22.535205 26457 net.cpp:157] Top shape: 1024 150 18 18 (49766400)
I0409 22:58:22.535209 26457 net.cpp:165] Memory required for data: 2052161536
I0409 22:58:22.535214 26457 layer_factory.hpp:77] Creating layer pool2
I0409 22:58:22.535223 26457 net.cpp:100] Creating Layer pool2
I0409 22:58:22.535226 26457 net.cpp:434] pool2 <- conv2
I0409 22:58:22.535236 26457 net.cpp:408] pool2 -> pool2
I0409 22:58:22.535305 26457 net.cpp:150] Setting up pool2
I0409 22:58:22.535315 26457 net.cpp:157] Top shape: 1024 150 9 9 (12441600)
I0409 22:58:22.535318 26457 net.cpp:165] Memory required for data: 2101927936
I0409 22:58:22.535322 26457 layer_factory.hpp:77] Creating layer conv3
I0409 22:58:22.535336 26457 net.cpp:100] Creating Layer conv3
I0409 22:58:22.535341 26457 net.cpp:434] conv3 <- pool2
I0409 22:58:22.535362 26457 net.cpp:408] conv3 -> conv3
I0409 22:58:22.542438 26457 net.cpp:150] Setting up conv3
I0409 22:58:22.542459 26457 net.cpp:157] Top shape: 1024 250 6 6 (9216000)
I0409 22:58:22.542464 26457 net.cpp:165] Memory required for data: 2138791936
I0409 22:58:22.542475 26457 layer_factory.hpp:77] Creating layer conv3_sTanH
I0409 22:58:22.542486 26457 net.cpp:100] Creating Layer conv3_sTanH
I0409 22:58:22.542491 26457 net.cpp:434] conv3_sTanH <- conv3
I0409 22:58:22.542497 26457 net.cpp:395] conv3_sTanH -> conv3 (in-place)
I0409 22:58:22.543752 26457 net.cpp:150] Setting up conv3_sTanH
I0409 22:58:22.543774 26457 net.cpp:157] Top shape: 1024 250 6 6 (9216000)
I0409 22:58:22.543803 26457 net.cpp:165] Memory required for data: 2175655936
I0409 22:58:22.543812 26457 layer_factory.hpp:77] Creating layer pool3
I0409 22:58:22.543822 26457 net.cpp:100] Creating Layer pool3
I0409 22:58:22.543828 26457 net.cpp:434] pool3 <- conv3
I0409 22:58:22.543834 26457 net.cpp:408] pool3 -> pool3
I0409 22:58:22.543918 26457 net.cpp:150] Setting up pool3
I0409 22:58:22.543941 26457 net.cpp:157] Top shape: 1024 250 3 3 (2304000)
I0409 22:58:22.543946 26457 net.cpp:165] Memory required for data: 2184871936
I0409 22:58:22.543949 26457 layer_factory.hpp:77] Creating layer fc4_300
I0409 22:58:22.543961 26457 net.cpp:100] Creating Layer fc4_300
I0409 22:58:22.543967 26457 net.cpp:434] fc4_300 <- pool3
I0409 22:58:22.543973 26457 net.cpp:408] fc4_300 -> fc4_300
I0409 22:58:22.550889 26457 net.cpp:150] Setting up fc4_300
I0409 22:58:22.550909 26457 net.cpp:157] Top shape: 1024 300 (307200)
I0409 22:58:22.550914 26457 net.cpp:165] Memory required for data: 2186100736
I0409 22:58:22.550921 26457 layer_factory.hpp:77] Creating layer fc4_sTanH
I0409 22:58:22.550930 26457 net.cpp:100] Creating Layer fc4_sTanH
I0409 22:58:22.550933 26457 net.cpp:434] fc4_sTanH <- fc4_300
I0409 22:58:22.550941 26457 net.cpp:395] fc4_sTanH -> fc4_300 (in-place)
I0409 22:58:22.551189 26457 net.cpp:150] Setting up fc4_sTanH
I0409 22:58:22.551203 26457 net.cpp:157] Top shape: 1024 300 (307200)
I0409 22:58:22.551208 26457 net.cpp:165] Memory required for data: 2187329536
I0409 22:58:22.551213 26457 layer_factory.hpp:77] Creating layer drop4
I0409 22:58:22.551223 26457 net.cpp:100] Creating Layer drop4
I0409 22:58:22.551228 26457 net.cpp:434] drop4 <- fc4_300
I0409 22:58:22.551234 26457 net.cpp:395] drop4 -> fc4_300 (in-place)
I0409 22:58:22.551272 26457 net.cpp:150] Setting up drop4
I0409 22:58:22.551281 26457 net.cpp:157] Top shape: 1024 300 (307200)
I0409 22:58:22.551285 26457 net.cpp:165] Memory required for data: 2188558336
I0409 22:58:22.551288 26457 layer_factory.hpp:77] Creating layer fc5_67
I0409 22:58:22.551296 26457 net.cpp:100] Creating Layer fc5_67
I0409 22:58:22.551301 26457 net.cpp:434] fc5_67 <- fc4_300
I0409 22:58:22.551311 26457 net.cpp:408] fc5_67 -> fc5_classes
I0409 22:58:22.551623 26457 net.cpp:150] Setting up fc5_67
I0409 22:58:22.551633 26457 net.cpp:157] Top shape: 1024 67 (68608)
I0409 22:58:22.551636 26457 net.cpp:165] Memory required for data: 2188832768
I0409 22:58:22.551650 26457 layer_factory.hpp:77] Creating layer fc5_classes_fc5_67_0_split
I0409 22:58:22.551657 26457 net.cpp:100] Creating Layer fc5_classes_fc5_67_0_split
I0409 22:58:22.551662 26457 net.cpp:434] fc5_classes_fc5_67_0_split <- fc5_classes
I0409 22:58:22.551669 26457 net.cpp:408] fc5_classes_fc5_67_0_split -> fc5_classes_fc5_67_0_split_0
I0409 22:58:22.551677 26457 net.cpp:408] fc5_classes_fc5_67_0_split -> fc5_classes_fc5_67_0_split_1
I0409 22:58:22.551687 26457 net.cpp:408] fc5_classes_fc5_67_0_split -> fc5_classes_fc5_67_0_split_2
I0409 22:58:22.551754 26457 net.cpp:150] Setting up fc5_classes_fc5_67_0_split
I0409 22:58:22.551764 26457 net.cpp:157] Top shape: 1024 67 (68608)
I0409 22:58:22.551767 26457 net.cpp:157] Top shape: 1024 67 (68608)
I0409 22:58:22.551771 26457 net.cpp:157] Top shape: 1024 67 (68608)
I0409 22:58:22.551774 26457 net.cpp:165] Memory required for data: 2189656064
I0409 22:58:22.551777 26457 layer_factory.hpp:77] Creating layer loss
I0409 22:58:22.551789 26457 net.cpp:100] Creating Layer loss
I0409 22:58:22.551805 26457 net.cpp:434] loss <- fc5_classes_fc5_67_0_split_0
I0409 22:58:22.551810 26457 net.cpp:434] loss <- label_data_1_split_0
I0409 22:58:22.551816 26457 net.cpp:408] loss -> loss
…
