…
I0507 01:22:37.597131 14323 solver.cpp:93] Creating training net from train_net file: ./Prototxt/experiment_14/RTSD/CoNorm/trial_3/train.prototxt
I0507 01:22:37.597530 14323 net.cpp:58] Initializing net from parameters: 
state {
  phase: TRAIN
  level: 0
  stage: ""
}
layer {
  name: "data"
  type: "Data"
  top: "data"
  top: "label"
  include {
    phase: TRAIN
  }
  transform_param {
    scale: 0.0039215689
    mirror: false
    crop_size: 48
    mean_value: 135
    mean_value: 135
    mean_value: 134
  }
  data_param {
    source: "../local_data/lmdb/RTSD/CoNorm/train/lmdb"
    batch_size: 512
    backend: LMDB
  }
}
layer {
  name: "conv1"
  type: "Convolution"
  bottom: "data"
  top: "conv1"
  convolution_param {
    num_output: 100
    pad: 0
    kernel_size: 7
    group: 1
    stride: 1
    weight_filler {
      type: "xavier"
    }
  }
}
layer {
  name: "conv1_relu"
  type: "ReLU"
  bottom: "conv1"
  top: "conv1"
}
layer {
  name: "pool1"
  type: "Pooling"
  bottom: "conv1"
  top: "pool1"
  pooling_param {
    pool: MAX
    kernel_size: 2
    stride: 2
  }
}
layer {
  name: "conv2"
  type: "Convolution"
  bottom: "pool1"
  top: "conv2"
  convolution_param {
    num_output: 150
    pad: 0
    kernel_size: 4
    group: 1
    stride: 1
    weight_filler {
      type: "xavier"
    }
  }
}
layer {
  name: "conv2_relu"
  type: "ReLU"
  bottom: "conv2"
  top: "conv2"
}
layer {
  name: "pool2"
  type: "Pooling"
  bottom: "conv2"
  top: "pool2"
  pooling_param {
    pool: MAX
    kernel_size: 2
    stride: 2
  }
}
layer {
  name: "conv3"
  type: "Convolution"
  bottom: "pool2"
  top: "conv3"
  convolution_param {
    num_output: 250
    pad: 0
    kernel_size: 4
    group: 1
    stride: 1
    weight_filler {
      type: "xavier"
    }
  }
}
layer {
  name: "conv3_relu"
  type: "ReLU"
  bottom: "conv3"
  top: "conv3"
}
layer {
  name: "pool3"
  type: "Pooling"
  bottom: "conv3"
  top: "pool3"
  pooling_param {
    pool: MAX
    kernel_size: 2
    stride: 2
  }
}
layer {
  name: "fc4_300"
  type: "InnerProduct"
  bottom: "pool3"
  top: "fc4_300"
  inner_product_param {
    num_output: 300
    weight_filler {
      type: "xavier"
    }
  }
}
layer {
  name: "fc4_relu"
  type: "ReLU"
  bottom: "fc4_300"
  top: "fc4_300"
}
layer {
  name: "fc5_116"
  type: "InnerProduct"
  bottom: "fc4_300"
  top: "fc5_classes"
  inner_product_param {
    num_output: 116
    weight_filler {
      type: "xavier"
    }
  }
}
layer {
  name: "softmax"
  type: "Softmax"
  bottom: "fc5_classes"
  top: "softmax"
}
layer {
  name: "loss"
  type: "MultinomialLogisticLoss"
  bottom: "softmax"
  bottom: "label"
  top: "loss"
}
layer {
  name: "accuracy_1"
  type: "Accuracy"
  bottom: "fc5_classes"
  bottom: "label"
  top: "accuracy_1"
  accuracy_param {
    top_k: 1
  }
}
layer {
  name: "accuracy_5"
  type: "Accuracy"
  bottom: "fc5_classes"
  bottom: "label"
  top: "accuracy_5"
  accuracy_param {
    top_k: 5
  }
}
layer {
  name: "silence"
  type: "Silence"
  bottom: "accuracy_1"
  bottom: "accuracy_5"
}
I0507 01:22:37.597664 14323 layer_factory.hpp:77] Creating layer data
I0507 01:22:37.598538 14323 net.cpp:100] Creating Layer data
I0507 01:22:37.598557 14323 net.cpp:408] data -> data
I0507 01:22:37.598582 14323 net.cpp:408] data -> label
I0507 01:22:37.618522 14463 db_lmdb.cpp:35] Opened lmdb ../local_data/lmdb/RTSD/CoNorm/train/lmdb
I0507 01:22:37.637179 14323 data_layer.cpp:41] output data size: 512,3,48,48
I0507 01:22:37.671677 14323 net.cpp:150] Setting up data
I0507 01:22:37.671731 14323 net.cpp:157] Top shape: 512 3 48 48 (3538944)
I0507 01:22:37.671738 14323 net.cpp:157] Top shape: 512 (512)
I0507 01:22:37.671741 14323 net.cpp:165] Memory required for data: 14157824
I0507 01:22:37.671752 14323 layer_factory.hpp:77] Creating layer label_data_1_split
I0507 01:22:37.671766 14323 net.cpp:100] Creating Layer label_data_1_split
I0507 01:22:37.671772 14323 net.cpp:434] label_data_1_split <- label
I0507 01:22:37.671785 14323 net.cpp:408] label_data_1_split -> label_data_1_split_0
I0507 01:22:37.671798 14323 net.cpp:408] label_data_1_split -> label_data_1_split_1
I0507 01:22:37.671807 14323 net.cpp:408] label_data_1_split -> label_data_1_split_2
I0507 01:22:37.671866 14323 net.cpp:150] Setting up label_data_1_split
I0507 01:22:37.671875 14323 net.cpp:157] Top shape: 512 (512)
I0507 01:22:37.671892 14323 net.cpp:157] Top shape: 512 (512)
I0507 01:22:37.671900 14323 net.cpp:157] Top shape: 512 (512)
I0507 01:22:37.671902 14323 net.cpp:165] Memory required for data: 14163968
I0507 01:22:37.671905 14323 layer_factory.hpp:77] Creating layer conv1
I0507 01:22:37.671924 14323 net.cpp:100] Creating Layer conv1
I0507 01:22:37.671929 14323 net.cpp:434] conv1 <- data
I0507 01:22:37.671936 14323 net.cpp:408] conv1 -> conv1
I0507 01:22:38.354554 14323 net.cpp:150] Setting up conv1
I0507 01:22:38.354584 14323 net.cpp:157] Top shape: 512 100 42 42 (90316800)
I0507 01:22:38.354588 14323 net.cpp:165] Memory required for data: 375431168
I0507 01:22:38.354610 14323 layer_factory.hpp:77] Creating layer conv1_relu
I0507 01:22:38.354624 14323 net.cpp:100] Creating Layer conv1_relu
I0507 01:22:38.354629 14323 net.cpp:434] conv1_relu <- conv1
I0507 01:22:38.354635 14323 net.cpp:395] conv1_relu -> conv1 (in-place)
I0507 01:22:38.354831 14323 net.cpp:150] Setting up conv1_relu
I0507 01:22:38.354842 14323 net.cpp:157] Top shape: 512 100 42 42 (90316800)
I0507 01:22:38.354846 14323 net.cpp:165] Memory required for data: 736698368
I0507 01:22:38.354849 14323 layer_factory.hpp:77] Creating layer pool1
I0507 01:22:38.354859 14323 net.cpp:100] Creating Layer pool1
I0507 01:22:38.354864 14323 net.cpp:434] pool1 <- conv1
I0507 01:22:38.354871 14323 net.cpp:408] pool1 -> pool1
I0507 01:22:38.354923 14323 net.cpp:150] Setting up pool1
I0507 01:22:38.354930 14323 net.cpp:157] Top shape: 512 100 21 21 (22579200)
I0507 01:22:38.354934 14323 net.cpp:165] Memory required for data: 827015168
I0507 01:22:38.354938 14323 layer_factory.hpp:77] Creating layer conv2
I0507 01:22:38.354948 14323 net.cpp:100] Creating Layer conv2
I0507 01:22:38.354954 14323 net.cpp:434] conv2 <- pool1
I0507 01:22:38.354959 14323 net.cpp:408] conv2 -> conv2
I0507 01:22:38.362509 14323 net.cpp:150] Setting up conv2
I0507 01:22:38.362527 14323 net.cpp:157] Top shape: 512 150 18 18 (24883200)
I0507 01:22:38.362531 14323 net.cpp:165] Memory required for data: 926547968
I0507 01:22:38.362543 14323 layer_factory.hpp:77] Creating layer conv2_relu
I0507 01:22:38.362553 14323 net.cpp:100] Creating Layer conv2_relu
I0507 01:22:38.362560 14323 net.cpp:434] conv2_relu <- conv2
I0507 01:22:38.362565 14323 net.cpp:395] conv2_relu -> conv2 (in-place)
I0507 01:22:38.363919 14323 net.cpp:150] Setting up conv2_relu
I0507 01:22:38.363935 14323 net.cpp:157] Top shape: 512 150 18 18 (24883200)
I0507 01:22:38.363940 14323 net.cpp:165] Memory required for data: 1026080768
I0507 01:22:38.363943 14323 layer_factory.hpp:77] Creating layer pool2
I0507 01:22:38.363951 14323 net.cpp:100] Creating Layer pool2
I0507 01:22:38.363955 14323 net.cpp:434] pool2 <- conv2
I0507 01:22:38.363961 14323 net.cpp:408] pool2 -> pool2
I0507 01:22:38.364012 14323 net.cpp:150] Setting up pool2
I0507 01:22:38.364022 14323 net.cpp:157] Top shape: 512 150 9 9 (6220800)
I0507 01:22:38.364027 14323 net.cpp:165] Memory required for data: 1050963968
I0507 01:22:38.364029 14323 layer_factory.hpp:77] Creating layer conv3
I0507 01:22:38.364040 14323 net.cpp:100] Creating Layer conv3
I0507 01:22:38.364047 14323 net.cpp:434] conv3 <- pool2
I0507 01:22:38.364053 14323 net.cpp:408] conv3 -> conv3
I0507 01:22:38.374927 14323 net.cpp:150] Setting up conv3
I0507 01:22:38.374960 14323 net.cpp:157] Top shape: 512 250 6 6 (4608000)
I0507 01:22:38.374964 14323 net.cpp:165] Memory required for data: 1069395968
I0507 01:22:38.374979 14323 layer_factory.hpp:77] Creating layer conv3_relu
I0507 01:22:38.374989 14323 net.cpp:100] Creating Layer conv3_relu
I0507 01:22:38.374994 14323 net.cpp:434] conv3_relu <- conv3
I0507 01:22:38.375000 14323 net.cpp:395] conv3_relu -> conv3 (in-place)
I0507 01:22:38.383564 14323 net.cpp:150] Setting up conv3_relu
I0507 01:22:38.383591 14323 net.cpp:157] Top shape: 512 250 6 6 (4608000)
I0507 01:22:38.383595 14323 net.cpp:165] Memory required for data: 1087827968
I0507 01:22:38.383601 14323 layer_factory.hpp:77] Creating layer pool3
I0507 01:22:38.383612 14323 net.cpp:100] Creating Layer pool3
I0507 01:22:38.383617 14323 net.cpp:434] pool3 <- conv3
I0507 01:22:38.383625 14323 net.cpp:408] pool3 -> pool3
I0507 01:22:38.383692 14323 net.cpp:150] Setting up pool3
I0507 01:22:38.383700 14323 net.cpp:157] Top shape: 512 250 3 3 (1152000)
I0507 01:22:38.383703 14323 net.cpp:165] Memory required for data: 1092435968
I0507 01:22:38.383707 14323 layer_factory.hpp:77] Creating layer fc4_300
I0507 01:22:38.383713 14323 net.cpp:100] Creating Layer fc4_300
I0507 01:22:38.383718 14323 net.cpp:434] fc4_300 <- pool3
I0507 01:22:38.383723 14323 net.cpp:408] fc4_300 -> fc4_300
I0507 01:22:38.396075 14323 net.cpp:150] Setting up fc4_300
I0507 01:22:38.396105 14323 net.cpp:157] Top shape: 512 300 (153600)
I0507 01:22:38.396108 14323 net.cpp:165] Memory required for data: 1093050368
I0507 01:22:38.396118 14323 layer_factory.hpp:77] Creating layer fc4_relu
I0507 01:22:38.396129 14323 net.cpp:100] Creating Layer fc4_relu
I0507 01:22:38.396134 14323 net.cpp:434] fc4_relu <- fc4_300
I0507 01:22:38.396142 14323 net.cpp:395] fc4_relu -> fc4_300 (in-place)
I0507 01:22:38.396389 14323 net.cpp:150] Setting up fc4_relu
I0507 01:22:38.396401 14323 net.cpp:157] Top shape: 512 300 (153600)
I0507 01:22:38.396404 14323 net.cpp:165] Memory required for data: 1093664768
I0507 01:22:38.396409 14323 layer_factory.hpp:77] Creating layer fc5_116
I0507 01:22:38.396416 14323 net.cpp:100] Creating Layer fc5_116
I0507 01:22:38.396421 14323 net.cpp:434] fc5_116 <- fc4_300
I0507 01:22:38.396428 14323 net.cpp:408] fc5_116 -> fc5_classes
I0507 01:22:38.405453 14323 net.cpp:150] Setting up fc5_116
I0507 01:22:38.405484 14323 net.cpp:157] Top shape: 512 116 (59392)
I0507 01:22:38.405488 14323 net.cpp:165] Memory required for data: 1093902336
I0507 01:22:38.405503 14323 layer_factory.hpp:77] Creating layer fc5_classes_fc5_116_0_split
I0507 01:22:38.405516 14323 net.cpp:100] Creating Layer fc5_classes_fc5_116_0_split
I0507 01:22:38.405524 14323 net.cpp:434] fc5_classes_fc5_116_0_split <- fc5_classes
I0507 01:22:38.405530 14323 net.cpp:408] fc5_classes_fc5_116_0_split -> fc5_classes_fc5_116_0_split_0
I0507 01:22:38.405542 14323 net.cpp:408] fc5_classes_fc5_116_0_split -> fc5_classes_fc5_116_0_split_1
I0507 01:22:38.405551 14323 net.cpp:408] fc5_classes_fc5_116_0_split -> fc5_classes_fc5_116_0_split_2
I0507 01:22:38.405609 14323 net.cpp:150] Setting up fc5_classes_fc5_116_0_split
I0507 01:22:38.405616 14323 net.cpp:157] Top shape: 512 116 (59392)
I0507 01:22:38.405620 14323 net.cpp:157] Top shape: 512 116 (59392)
I0507 01:22:38.405623 14323 net.cpp:157] Top shape: 512 116 (59392)
I0507 01:22:38.405627 14323 net.cpp:165] Memory required for data: 1094615040
I0507 01:22:38.405629 14323 layer_factory.hpp:77] Creating layer softmax
I0507 01:22:38.405637 14323 net.cpp:100] Creating Layer softmax
I0507 01:22:38.405642 14323 net.cpp:434] softmax <- fc5_classes_fc5_116_0_split_0
I0507 01:22:38.405647 14323 net.cpp:408] softmax -> softmax
I0507 01:22:38.405956 14323 net.cpp:150] Setting up softmax
I0507 01:22:38.405968 14323 net.cpp:157] Top shape: 512 116 (59392)
I0507 01:22:38.405972 14323 net.cpp:165] Memory required for data: 1094852608
I0507 01:22:38.405977 14323 layer_factory.hpp:77] Creating layer loss
I0507 01:22:38.405989 14323 net.cpp:100] Creating Layer loss
I0507 01:22:38.406011 14323 net.cpp:434] loss <- softmax
I0507 01:22:38.406018 14323 net.cpp:434] loss <- label_data_1_split_0
I0507 01:22:38.406024 14323 net.cpp:408] loss -> loss
…
