…
I0508 09:29:35.236366 10333 solver.cpp:93] Creating training net from train_net file: ./Prototxt/experiment_15/RTSD/imajust/trial_2/train.prototxt
I0508 09:29:35.237099 10333 net.cpp:58] Initializing net from parameters: 
state {
  phase: TRAIN
  level: 0
  stage: ""
}
layer {
  name: "data"
  type: "Data"
  top: "data"
  top: "label"
  include {
    phase: TRAIN
  }
  transform_param {
    scale: 0.0039215689
    mirror: false
    crop_size: 48
    mean_value: 119
    mean_value: 113
    mean_value: 114
  }
  data_param {
    source: "../local_data/lmdb/RTSD/imajust/train/lmdb"
    batch_size: 1024
    backend: LMDB
  }
}
layer {
  name: "conv1"
  type: "Convolution"
  bottom: "data"
  top: "conv1"
  convolution_param {
    num_output: 100
    pad: 0
    kernel_size: 7
    group: 1
    stride: 1
    weight_filler {
      type: "xavier"
    }
  }
}
layer {
  name: "conv1_prescale"
  type: "Scale"
  bottom: "conv1"
  top: "conv1"
  param {
    lr_mult: 0
    decay_mult: 0
  }
  scale_param {
    filler {
      value: 0.6666
    }
    bias_term: false
  }
}
layer {
  name: "conv1_sTanH"
  type: "TanH"
  bottom: "conv1"
  top: "conv1"
}
layer {
  name: "conv1_postscale"
  type: "Scale"
  bottom: "conv1"
  top: "conv1"
  param {
    lr_mult: 0
    decay_mult: 0
  }
  scale_param {
    filler {
      value: 1.7159
    }
    bias_term: false
  }
}
layer {
  name: "pool1"
  type: "Pooling"
  bottom: "conv1"
  top: "pool1"
  pooling_param {
    pool: MAX
    kernel_size: 2
    stride: 2
  }
}
layer {
  name: "conv2"
  type: "Convolution"
  bottom: "pool1"
  top: "conv2"
  convolution_param {
    num_output: 150
    pad: 0
    kernel_size: 4
    group: 2
    stride: 1
    weight_filler {
      type: "xavier"
    }
  }
}
layer {
  name: "conv2_prescale"
  type: "Scale"
  bottom: "conv2"
  top: "conv2"
  param {
    lr_mult: 0
    decay_mult: 0
  }
  scale_param {
    filler {
      value: 0.6666
    }
    bias_term: false
  }
}
layer {
  name: "conv2_sTanH"
  type: "TanH"
  bottom: "conv2"
  top: "conv2"
}
layer {
  name: "conv2_postscale"
  type: "Scale"
  bottom: "conv2"
  top: "conv2"
  param {
    lr_mult: 0
    decay_mult: 0
  }
  scale_param {
    filler {
      value: 1.7159
    }
    bias_term: false
  }
}
layer {
  name: "pool2"
  type: "Pooling"
  bottom: "conv2"
  top: "pool2"
  pooling_param {
    pool: MAX
    kernel_size: 2
    stride: 2
  }
}
layer {
  name: "conv3"
  type: "Convolution"
  bottom: "pool2"
  top: "conv3"
  convolution_param {
    num_output: 250
    pad: 0
    kernel_size: 4
    group: 2
    stride: 1
    weight_filler {
      type: "xavier"
    }
  }
}
layer {
  name: "conv3_prescale"
  type: "Scale"
  bottom: "conv3"
  top: "conv3"
  param {
    lr_mult: 0
    decay_mult: 0
  }
  scale_param {
    filler {
      value: 0.6666
    }
    bias_term: false
  }
}
layer {
  name: "conv3_sTanH"
  type: "TanH"
  bottom: "conv3"
  top: "conv3"
}
layer {
  name: "conv3_postscale"
  type: "Scale"
  bottom: "conv3"
  top: "conv3"
  param {
    lr_mult: 0
    decay_mult: 0
  }
  scale_param {
    filler {
      value: 1.7159
    }
    bias_term: false
  }
}
layer {
  name: "pool3"
  type: "Pooling"
  bottom: "conv3"
  top: "pool3"
  pooling_param {
    pool: MAX
    kernel_size: 2
    stride: 2
  }
}
layer {
  name: "fc4_300"
  type: "InnerProduct"
  bottom: "pool3"
  top: "fc4_300"
  inner_product_param {
    num_output: 300
    weight_filler {
      type: "xavier"
    }
  }
}
layer {
  name: "fc4_prescale"
  type: "Scale"
  bottom: "fc4_300"
  top: "fc4_300"
  param {
    lr_mult: 0
    decay_mult: 0
  }
  scale_param {
    filler {
      value: 0.6666
    }
    bias_term: false
  }
}
layer {
  name: "fc4_sTanH"
  type: "TanH"
  bottom: "fc4_300"
  top: "fc4_300"
}
layer {
  name: "fc4_postscale"
  type: "Scale"
  bottom: "fc4_300"
  top: "fc4_300"
  param {
    lr_mult: 0
    decay_mult: 0
  }
  scale_param {
    filler {
      value: 1.7159
    }
    bias_term: false
  }
}
layer {
  name: "fc5_116"
  type: "InnerProduct"
  bottom: "fc4_300"
  top: "fc5_classes"
  inner_product_param {
    num_output: 116
    weight_filler {
      type: "xavier"
    }
  }
}
layer {
  name: "softmax"
  type: "Softmax"
  bottom: "fc5_classes"
  top: "softmax"
}
layer {
  name: "loss"
  type: "MultinomialLogisticLoss"
  bottom: "softmax"
  bottom: "label"
  top: "loss"
}
layer {
  name: "accuracy_1"
  type: "Accuracy"
  bottom: "fc5_classes"
  bottom: "label"
  top: "accuracy_1"
  accuracy_param {
    top_k: 1
  }
}
layer {
  name: "accuracy_5"
  type: "Accuracy"
  bottom: "fc5_classes"
  bottom: "label"
  top: "accuracy_5"
  accuracy_param {
    top_k: 5
  }
}
layer {
  name: "silence"
  type: "Silence"
  bottom: "accuracy_1"
  bottom: "accuracy_5"
}
I0508 09:29:35.237344 10333 layer_factory.hpp:77] Creating layer data
I0508 09:29:35.239085 10333 net.cpp:100] Creating Layer data
I0508 09:29:35.239110 10333 net.cpp:408] data -> data
I0508 09:29:35.239146 10333 net.cpp:408] data -> label
I0508 09:29:35.246049 10448 db_lmdb.cpp:35] Opened lmdb ../local_data/lmdb/RTSD/imajust/train/lmdb
I0508 09:29:35.281852 10333 data_layer.cpp:41] output data size: 1024,3,48,48
I0508 09:29:35.395969 10333 net.cpp:150] Setting up data
I0508 09:29:35.396003 10333 net.cpp:157] Top shape: 1024 3 48 48 (7077888)
I0508 09:29:35.396009 10333 net.cpp:157] Top shape: 1024 (1024)
I0508 09:29:35.396013 10333 net.cpp:165] Memory required for data: 28315648
I0508 09:29:35.396024 10333 layer_factory.hpp:77] Creating layer label_data_1_split
I0508 09:29:35.396040 10333 net.cpp:100] Creating Layer label_data_1_split
I0508 09:29:35.396047 10333 net.cpp:434] label_data_1_split <- label
I0508 09:29:35.396066 10333 net.cpp:408] label_data_1_split -> label_data_1_split_0
I0508 09:29:35.396081 10333 net.cpp:408] label_data_1_split -> label_data_1_split_1
I0508 09:29:35.396090 10333 net.cpp:408] label_data_1_split -> label_data_1_split_2
I0508 09:29:35.396167 10333 net.cpp:150] Setting up label_data_1_split
I0508 09:29:35.396176 10333 net.cpp:157] Top shape: 1024 (1024)
I0508 09:29:35.396180 10333 net.cpp:157] Top shape: 1024 (1024)
I0508 09:29:35.396184 10333 net.cpp:157] Top shape: 1024 (1024)
I0508 09:29:35.396188 10333 net.cpp:165] Memory required for data: 28327936
I0508 09:29:35.396191 10333 layer_factory.hpp:77] Creating layer conv1
I0508 09:29:35.396209 10333 net.cpp:100] Creating Layer conv1
I0508 09:29:35.396215 10333 net.cpp:434] conv1 <- data
I0508 09:29:35.396222 10333 net.cpp:408] conv1 -> conv1
I0508 09:29:35.838656 10333 net.cpp:150] Setting up conv1
I0508 09:29:35.838685 10333 net.cpp:157] Top shape: 1024 100 42 42 (180633600)
I0508 09:29:35.838688 10333 net.cpp:165] Memory required for data: 750862336
I0508 09:29:35.838709 10333 layer_factory.hpp:77] Creating layer conv1_prescale
I0508 09:29:35.838722 10333 net.cpp:100] Creating Layer conv1_prescale
I0508 09:29:35.838726 10333 net.cpp:434] conv1_prescale <- conv1
I0508 09:29:35.838732 10333 net.cpp:395] conv1_prescale -> conv1 (in-place)
I0508 09:29:35.838835 10333 net.cpp:150] Setting up conv1_prescale
I0508 09:29:35.838845 10333 net.cpp:157] Top shape: 1024 100 42 42 (180633600)
I0508 09:29:35.838848 10333 net.cpp:165] Memory required for data: 1473396736
I0508 09:29:35.838855 10333 layer_factory.hpp:77] Creating layer conv1_sTanH
I0508 09:29:35.838863 10333 net.cpp:100] Creating Layer conv1_sTanH
I0508 09:29:35.838866 10333 net.cpp:434] conv1_sTanH <- conv1
I0508 09:29:35.838871 10333 net.cpp:395] conv1_sTanH -> conv1 (in-place)
I0508 09:29:35.839061 10333 net.cpp:150] Setting up conv1_sTanH
I0508 09:29:35.839073 10333 net.cpp:157] Top shape: 1024 100 42 42 (180633600)
I0508 09:29:35.839099 10333 net.cpp:165] Memory required for data: 2195931136
I0508 09:29:35.839103 10333 layer_factory.hpp:77] Creating layer conv1_postscale
I0508 09:29:35.839110 10333 net.cpp:100] Creating Layer conv1_postscale
I0508 09:29:35.839114 10333 net.cpp:434] conv1_postscale <- conv1
I0508 09:29:35.839119 10333 net.cpp:395] conv1_postscale -> conv1 (in-place)
I0508 09:29:35.839213 10333 net.cpp:150] Setting up conv1_postscale
I0508 09:29:35.839222 10333 net.cpp:157] Top shape: 1024 100 42 42 (180633600)
I0508 09:29:35.839224 10333 net.cpp:165] Memory required for data: 2918465536
I0508 09:29:35.839229 10333 layer_factory.hpp:77] Creating layer pool1
I0508 09:29:35.839244 10333 net.cpp:100] Creating Layer pool1
I0508 09:29:35.839247 10333 net.cpp:434] pool1 <- conv1
I0508 09:29:35.839252 10333 net.cpp:408] pool1 -> pool1
I0508 09:29:35.839298 10333 net.cpp:150] Setting up pool1
I0508 09:29:35.839306 10333 net.cpp:157] Top shape: 1024 100 21 21 (45158400)
I0508 09:29:35.839309 10333 net.cpp:165] Memory required for data: 3099099136
I0508 09:29:35.839313 10333 layer_factory.hpp:77] Creating layer conv2
I0508 09:29:35.839321 10333 net.cpp:100] Creating Layer conv2
I0508 09:29:35.839326 10333 net.cpp:434] conv2 <- pool1
I0508 09:29:35.839331 10333 net.cpp:408] conv2 -> conv2
I0508 09:29:35.851979 10333 net.cpp:150] Setting up conv2
I0508 09:29:35.852002 10333 net.cpp:157] Top shape: 1024 150 18 18 (49766400)
I0508 09:29:35.852008 10333 net.cpp:165] Memory required for data: 3298164736
I0508 09:29:35.852026 10333 layer_factory.hpp:77] Creating layer conv2_prescale
I0508 09:29:35.852056 10333 net.cpp:100] Creating Layer conv2_prescale
I0508 09:29:35.852063 10333 net.cpp:434] conv2_prescale <- conv2
I0508 09:29:35.852075 10333 net.cpp:395] conv2_prescale -> conv2 (in-place)
I0508 09:29:35.852198 10333 net.cpp:150] Setting up conv2_prescale
I0508 09:29:35.852211 10333 net.cpp:157] Top shape: 1024 150 18 18 (49766400)
I0508 09:29:35.852216 10333 net.cpp:165] Memory required for data: 3497230336
I0508 09:29:35.852224 10333 layer_factory.hpp:77] Creating layer conv2_sTanH
I0508 09:29:35.852233 10333 net.cpp:100] Creating Layer conv2_sTanH
I0508 09:29:35.852241 10333 net.cpp:434] conv2_sTanH <- conv2
I0508 09:29:35.852252 10333 net.cpp:395] conv2_sTanH -> conv2 (in-place)
I0508 09:29:35.852457 10333 net.cpp:150] Setting up conv2_sTanH
I0508 09:29:35.852471 10333 net.cpp:157] Top shape: 1024 150 18 18 (49766400)
I0508 09:29:35.852476 10333 net.cpp:165] Memory required for data: 3696295936
I0508 09:29:35.852483 10333 layer_factory.hpp:77] Creating layer conv2_postscale
I0508 09:29:35.852494 10333 net.cpp:100] Creating Layer conv2_postscale
I0508 09:29:35.852502 10333 net.cpp:434] conv2_postscale <- conv2
I0508 09:29:35.852511 10333 net.cpp:395] conv2_postscale -> conv2 (in-place)
I0508 09:29:35.852619 10333 net.cpp:150] Setting up conv2_postscale
I0508 09:29:35.852630 10333 net.cpp:157] Top shape: 1024 150 18 18 (49766400)
I0508 09:29:35.852635 10333 net.cpp:165] Memory required for data: 3895361536
I0508 09:29:35.852644 10333 layer_factory.hpp:77] Creating layer pool2
I0508 09:29:35.852656 10333 net.cpp:100] Creating Layer pool2
I0508 09:29:35.852663 10333 net.cpp:434] pool2 <- conv2
I0508 09:29:35.852671 10333 net.cpp:408] pool2 -> pool2
I0508 09:29:35.852726 10333 net.cpp:150] Setting up pool2
I0508 09:29:35.852737 10333 net.cpp:157] Top shape: 1024 150 9 9 (12441600)
I0508 09:29:35.852742 10333 net.cpp:165] Memory required for data: 3945127936
I0508 09:29:35.852748 10333 layer_factory.hpp:77] Creating layer conv3
I0508 09:29:35.852764 10333 net.cpp:100] Creating Layer conv3
I0508 09:29:35.852771 10333 net.cpp:434] conv3 <- pool2
I0508 09:29:35.852782 10333 net.cpp:408] conv3 -> conv3
I0508 09:29:35.863823 10333 net.cpp:150] Setting up conv3
I0508 09:29:35.863849 10333 net.cpp:157] Top shape: 1024 250 6 6 (9216000)
I0508 09:29:35.863857 10333 net.cpp:165] Memory required for data: 3981991936
I0508 09:29:35.863875 10333 layer_factory.hpp:77] Creating layer conv3_prescale
I0508 09:29:35.863932 10333 net.cpp:100] Creating Layer conv3_prescale
I0508 09:29:35.863940 10333 net.cpp:434] conv3_prescale <- conv3
I0508 09:29:35.863951 10333 net.cpp:395] conv3_prescale -> conv3 (in-place)
I0508 09:29:35.864114 10333 net.cpp:150] Setting up conv3_prescale
I0508 09:29:35.864132 10333 net.cpp:157] Top shape: 1024 250 6 6 (9216000)
I0508 09:29:35.864140 10333 net.cpp:165] Memory required for data: 4018855936
I0508 09:29:35.864148 10333 layer_factory.hpp:77] Creating layer conv3_sTanH
I0508 09:29:35.864162 10333 net.cpp:100] Creating Layer conv3_sTanH
I0508 09:29:35.864171 10333 net.cpp:434] conv3_sTanH <- conv3
I0508 09:29:35.864179 10333 net.cpp:395] conv3_sTanH -> conv3 (in-place)
I0508 09:29:35.864398 10333 net.cpp:150] Setting up conv3_sTanH
I0508 09:29:35.864414 10333 net.cpp:157] Top shape: 1024 250 6 6 (9216000)
I0508 09:29:35.864418 10333 net.cpp:165] Memory required for data: 4055719936
I0508 09:29:35.864420 10333 layer_factory.hpp:77] Creating layer conv3_postscale
I0508 09:29:35.864428 10333 net.cpp:100] Creating Layer conv3_postscale
I0508 09:29:35.864431 10333 net.cpp:434] conv3_postscale <- conv3
I0508 09:29:35.864437 10333 net.cpp:395] conv3_postscale -> conv3 (in-place)
I0508 09:29:35.864536 10333 net.cpp:150] Setting up conv3_postscale
I0508 09:29:35.864545 10333 net.cpp:157] Top shape: 1024 250 6 6 (9216000)
I0508 09:29:35.864548 10333 net.cpp:165] Memory required for data: 4092583936
I0508 09:29:35.864553 10333 layer_factory.hpp:77] Creating layer pool3
I0508 09:29:35.864562 10333 net.cpp:100] Creating Layer pool3
I0508 09:29:35.864567 10333 net.cpp:434] pool3 <- conv3
I0508 09:29:35.864573 10333 net.cpp:408] pool3 -> pool3
I0508 09:29:35.864611 10333 net.cpp:150] Setting up pool3
I0508 09:29:35.864619 10333 net.cpp:157] Top shape: 1024 250 3 3 (2304000)
I0508 09:29:35.864621 10333 net.cpp:165] Memory required for data: 4101799936
I0508 09:29:35.864625 10333 layer_factory.hpp:77] Creating layer fc4_300
I0508 09:29:35.864632 10333 net.cpp:100] Creating Layer fc4_300
I0508 09:29:35.864636 10333 net.cpp:434] fc4_300 <- pool3
I0508 09:29:35.864642 10333 net.cpp:408] fc4_300 -> fc4_300
I0508 09:29:35.877270 10333 net.cpp:150] Setting up fc4_300
I0508 09:29:35.877290 10333 net.cpp:157] Top shape: 1024 300 (307200)
I0508 09:29:35.877293 10333 net.cpp:165] Memory required for data: 4103028736
I0508 09:29:35.877300 10333 layer_factory.hpp:77] Creating layer fc4_prescale
I0508 09:29:35.877310 10333 net.cpp:100] Creating Layer fc4_prescale
I0508 09:29:35.877313 10333 net.cpp:434] fc4_prescale <- fc4_300
I0508 09:29:35.877320 10333 net.cpp:395] fc4_prescale -> fc4_300 (in-place)
I0508 09:29:35.877413 10333 net.cpp:150] Setting up fc4_prescale
I0508 09:29:35.877421 10333 net.cpp:157] Top shape: 1024 300 (307200)
I0508 09:29:35.877424 10333 net.cpp:165] Memory required for data: 4104257536
I0508 09:29:35.877429 10333 layer_factory.hpp:77] Creating layer fc4_sTanH
I0508 09:29:35.877434 10333 net.cpp:100] Creating Layer fc4_sTanH
I0508 09:29:35.877436 10333 net.cpp:434] fc4_sTanH <- fc4_300
I0508 09:29:35.877442 10333 net.cpp:395] fc4_sTanH -> fc4_300 (in-place)
I0508 09:29:35.892125 10333 net.cpp:150] Setting up fc4_sTanH
I0508 09:29:35.892143 10333 net.cpp:157] Top shape: 1024 300 (307200)
I0508 09:29:35.892148 10333 net.cpp:165] Memory required for data: 4105486336
I0508 09:29:35.892151 10333 layer_factory.hpp:77] Creating layer fc4_postscale
I0508 09:29:35.892160 10333 net.cpp:100] Creating Layer fc4_postscale
I0508 09:29:35.892164 10333 net.cpp:434] fc4_postscale <- fc4_300
I0508 09:29:35.892170 10333 net.cpp:395] fc4_postscale -> fc4_300 (in-place)
I0508 09:29:35.892282 10333 net.cpp:150] Setting up fc4_postscale
I0508 09:29:35.892292 10333 net.cpp:157] Top shape: 1024 300 (307200)
I0508 09:29:35.892295 10333 net.cpp:165] Memory required for data: 4106715136
I0508 09:29:35.892300 10333 layer_factory.hpp:77] Creating layer fc5_116
I0508 09:29:35.892308 10333 net.cpp:100] Creating Layer fc5_116
I0508 09:29:35.892313 10333 net.cpp:434] fc5_116 <- fc4_300
I0508 09:29:35.892318 10333 net.cpp:408] fc5_116 -> fc5_classes
I0508 09:29:35.894273 10333 net.cpp:150] Setting up fc5_116
I0508 09:29:35.894292 10333 net.cpp:157] Top shape: 1024 116 (118784)
I0508 09:29:35.894295 10333 net.cpp:165] Memory required for data: 4107190272
I0508 09:29:35.894306 10333 layer_factory.hpp:77] Creating layer fc5_classes_fc5_116_0_split
I0508 09:29:35.894315 10333 net.cpp:100] Creating Layer fc5_classes_fc5_116_0_split
I0508 09:29:35.894320 10333 net.cpp:434] fc5_classes_fc5_116_0_split <- fc5_classes
I0508 09:29:35.894325 10333 net.cpp:408] fc5_classes_fc5_116_0_split -> fc5_classes_fc5_116_0_split_0
I0508 09:29:35.894335 10333 net.cpp:408] fc5_classes_fc5_116_0_split -> fc5_classes_fc5_116_0_split_1
I0508 09:29:35.894341 10333 net.cpp:408] fc5_classes_fc5_116_0_split -> fc5_classes_fc5_116_0_split_2
I0508 09:29:35.894394 10333 net.cpp:150] Setting up fc5_classes_fc5_116_0_split
I0508 09:29:35.894404 10333 net.cpp:157] Top shape: 1024 116 (118784)
I0508 09:29:35.894408 10333 net.cpp:157] Top shape: 1024 116 (118784)
I0508 09:29:35.894412 10333 net.cpp:157] Top shape: 1024 116 (118784)
I0508 09:29:35.894414 10333 net.cpp:165] Memory required for data: 4108615680
I0508 09:29:35.894418 10333 layer_factory.hpp:77] Creating layer softmax
I0508 09:29:35.894423 10333 net.cpp:100] Creating Layer softmax
I0508 09:29:35.894428 10333 net.cpp:434] softmax <- fc5_classes_fc5_116_0_split_0
I0508 09:29:35.894433 10333 net.cpp:408] softmax -> softmax
I0508 09:29:35.894690 10333 net.cpp:150] Setting up softmax
I0508 09:29:35.894702 10333 net.cpp:157] Top shape: 1024 116 (118784)
I0508 09:29:35.894706 10333 net.cpp:165] Memory required for data: 4109090816
I0508 09:29:35.894708 10333 layer_factory.hpp:77] Creating layer loss
I0508 09:29:35.894714 10333 net.cpp:100] Creating Layer loss
I0508 09:29:35.894718 10333 net.cpp:434] loss <- softmax
I0508 09:29:35.894722 10333 net.cpp:434] loss <- label_data_1_split_0
I0508 09:29:35.894728 10333 net.cpp:408] loss -> loss
…
