…
I0528 03:04:49.089738  4538 solver.cpp:81] Creating training net from train_net file: ./Prototxt/experiment_21/RTSD/CoNorm/trial_5/train.prototxt
I0528 03:04:49.090112  4538 net.cpp:58] Initializing net from parameters: 
state {
  phase: TRAIN
  level: 0
  stage: ""
}
layer {
  name: "data"
  type: "Data"
  top: "data"
  top: "label"
  include {
    phase: TRAIN
  }
  transform_param {
    scale: 0.0039215689
    mirror: false
    crop_size: 48
    mean_value: 135
    mean_value: 135
    mean_value: 134
  }
  data_param {
    source: "../local_data/lmdb/RTSD/CoNorm/train/lmdb"
    batch_size: 1024
    backend: LMDB
  }
}
layer {
  name: "conv1"
  type: "Convolution"
  bottom: "data"
  top: "conv1"
  convolution_param {
    num_output: 100
    pad: 0
    kernel_size: 7
    group: 1
    stride: 1
    weight_filler {
      type: "xavier"
    }
  }
}
layer {
  name: "conv1_relu"
  type: "ReLU"
  bottom: "conv1"
  top: "conv1"
}
layer {
  name: "pool1"
  type: "Pooling"
  bottom: "conv1"
  top: "pool1"
  pooling_param {
    pool: MAX
    kernel_size: 2
    stride: 2
  }
}
layer {
  name: "conv2"
  type: "Convolution"
  bottom: "pool1"
  top: "conv2"
  convolution_param {
    num_output: 150
    pad: 0
    kernel_size: 4
    group: 1
    stride: 1
    weight_filler {
      type: "xavier"
    }
  }
}
layer {
  name: "conv2_relu"
  type: "ReLU"
  bottom: "conv2"
  top: "conv2"
}
layer {
  name: "pool2"
  type: "Pooling"
  bottom: "conv2"
  top: "pool2"
  pooling_param {
    pool: MAX
    kernel_size: 2
    stride: 2
  }
}
layer {
  name: "conv3"
  type: "Convolution"
  bottom: "pool2"
  top: "conv3"
  convolution_param {
    num_output: 250
    pad: 0
    kernel_size: 4
    group: 1
    stride: 1
    weight_filler {
      type: "xavier"
    }
  }
}
layer {
  name: "conv3_relu"
  type: "ReLU"
  bottom: "conv3"
  top: "conv3"
}
layer {
  name: "pool3"
  type: "Pooling"
  bottom: "conv3"
  top: "pool3"
  pooling_param {
    pool: MAX
    kernel_size: 2
    stride: 2
  }
}
layer {
  name: "fc4_300"
  type: "InnerProduct"
  bottom: "pool3"
  top: "fc4_300"
  inner_product_param {
    num_output: 300
    weight_filler {
      type: "xavier"
    }
  }
}
layer {
  name: "fc4_relu"
  type: "ReLU"
  bottom: "fc4_300"
  top: "fc4_300"
}
layer {
  name: "fc5_116"
  type: "InnerProduct"
  bottom: "fc4_300"
  top: "fc5_classes"
  inner_product_param {
    num_output: 116
    weight_filler {
      type: "xavier"
    }
  }
}
layer {
  name: "softmax"
  type: "Softmax"
  bottom: "fc5_classes"
  top: "softmax"
}
layer {
  name: "loss"
  type: "MultinomialLogisticLoss"
  bottom: "softmax"
  bottom: "label"
  top: "loss"
}
layer {
  name: "accuracy_1"
  type: "Accuracy"
  bottom: "fc5_classes"
  bottom: "label"
  top: "accuracy_1"
  accuracy_param {
    top_k: 1
  }
}
layer {
  name: "accuracy_5"
  type: "Accuracy"
  bottom: "fc5_classes"
  bottom: "label"
  top: "accuracy_5"
  accuracy_param {
    top_k: 5
  }
}
layer {
  name: "silence"
  type: "Silence"
  bottom: "accuracy_1"
  bottom: "accuracy_5"
}
I0528 03:04:49.090215  4538 layer_factory.hpp:77] Creating layer data
I0528 03:04:49.091017  4538 net.cpp:100] Creating Layer data
I0528 03:04:49.091030  4538 net.cpp:408] data -> data
I0528 03:04:49.091060  4538 net.cpp:408] data -> label
I0528 03:04:49.092473  4568 db_lmdb.cpp:35] Opened lmdb ../local_data/lmdb/RTSD/CoNorm/train/lmdb
I0528 03:04:49.113780  4538 data_layer.cpp:41] output data size: 1024,3,48,48
I0528 03:04:49.159734  4538 net.cpp:150] Setting up data
I0528 03:04:49.159788  4538 net.cpp:157] Top shape: 1024 3 48 48 (7077888)
I0528 03:04:49.159797  4538 net.cpp:157] Top shape: 1024 (1024)
I0528 03:04:49.159803  4538 net.cpp:165] Memory required for data: 28315648
I0528 03:04:49.159814  4538 layer_factory.hpp:77] Creating layer label_data_1_split
I0528 03:04:49.159827  4538 net.cpp:100] Creating Layer label_data_1_split
I0528 03:04:49.159835  4538 net.cpp:434] label_data_1_split <- label
I0528 03:04:49.159847  4538 net.cpp:408] label_data_1_split -> label_data_1_split_0
I0528 03:04:49.159858  4538 net.cpp:408] label_data_1_split -> label_data_1_split_1
I0528 03:04:49.159865  4538 net.cpp:408] label_data_1_split -> label_data_1_split_2
I0528 03:04:49.159930  4538 net.cpp:150] Setting up label_data_1_split
I0528 03:04:49.159941  4538 net.cpp:157] Top shape: 1024 (1024)
I0528 03:04:49.159948  4538 net.cpp:157] Top shape: 1024 (1024)
I0528 03:04:49.159953  4538 net.cpp:157] Top shape: 1024 (1024)
I0528 03:04:49.159958  4538 net.cpp:165] Memory required for data: 28327936
I0528 03:04:49.159965  4538 layer_factory.hpp:77] Creating layer conv1
I0528 03:04:49.159981  4538 net.cpp:100] Creating Layer conv1
I0528 03:04:49.159986  4538 net.cpp:434] conv1 <- data
I0528 03:04:49.159993  4538 net.cpp:408] conv1 -> conv1
I0528 03:04:49.648742  4538 net.cpp:150] Setting up conv1
I0528 03:04:49.648777  4538 net.cpp:157] Top shape: 1024 100 42 42 (180633600)
I0528 03:04:49.648785  4538 net.cpp:165] Memory required for data: 750862336
I0528 03:04:49.648808  4538 layer_factory.hpp:77] Creating layer conv1_relu
I0528 03:04:49.648828  4538 net.cpp:100] Creating Layer conv1_relu
I0528 03:04:49.648843  4538 net.cpp:434] conv1_relu <- conv1
I0528 03:04:49.648856  4538 net.cpp:395] conv1_relu -> conv1 (in-place)
I0528 03:04:49.649020  4538 net.cpp:150] Setting up conv1_relu
I0528 03:04:49.649035  4538 net.cpp:157] Top shape: 1024 100 42 42 (180633600)
I0528 03:04:49.649045  4538 net.cpp:165] Memory required for data: 1473396736
I0528 03:04:49.649080  4538 layer_factory.hpp:77] Creating layer pool1
I0528 03:04:49.649096  4538 net.cpp:100] Creating Layer pool1
I0528 03:04:49.649119  4538 net.cpp:434] pool1 <- conv1
I0528 03:04:49.649132  4538 net.cpp:408] pool1 -> pool1
I0528 03:04:49.649199  4538 net.cpp:150] Setting up pool1
I0528 03:04:49.649214  4538 net.cpp:157] Top shape: 1024 100 21 21 (45158400)
I0528 03:04:49.649219  4538 net.cpp:165] Memory required for data: 1654030336
I0528 03:04:49.649226  4538 layer_factory.hpp:77] Creating layer conv2
I0528 03:04:49.649255  4538 net.cpp:100] Creating Layer conv2
I0528 03:04:49.649267  4538 net.cpp:434] conv2 <- pool1
I0528 03:04:49.649276  4538 net.cpp:408] conv2 -> conv2
I0528 03:04:49.652312  4538 net.cpp:150] Setting up conv2
I0528 03:04:49.652339  4538 net.cpp:157] Top shape: 1024 150 18 18 (49766400)
I0528 03:04:49.652348  4538 net.cpp:165] Memory required for data: 1853095936
I0528 03:04:49.652364  4538 layer_factory.hpp:77] Creating layer conv2_relu
I0528 03:04:49.652400  4538 net.cpp:100] Creating Layer conv2_relu
I0528 03:04:49.652412  4538 net.cpp:434] conv2_relu <- conv2
I0528 03:04:49.652421  4538 net.cpp:395] conv2_relu -> conv2 (in-place)
I0528 03:04:49.652565  4538 net.cpp:150] Setting up conv2_relu
I0528 03:04:49.652585  4538 net.cpp:157] Top shape: 1024 150 18 18 (49766400)
I0528 03:04:49.652592  4538 net.cpp:165] Memory required for data: 2052161536
I0528 03:04:49.652621  4538 layer_factory.hpp:77] Creating layer pool2
I0528 03:04:49.652637  4538 net.cpp:100] Creating Layer pool2
I0528 03:04:49.652647  4538 net.cpp:434] pool2 <- conv2
I0528 03:04:49.652659  4538 net.cpp:408] pool2 -> pool2
I0528 03:04:49.652729  4538 net.cpp:150] Setting up pool2
I0528 03:04:49.652742  4538 net.cpp:157] Top shape: 1024 150 9 9 (12441600)
I0528 03:04:49.652750  4538 net.cpp:165] Memory required for data: 2101927936
I0528 03:04:49.652760  4538 layer_factory.hpp:77] Creating layer conv3
I0528 03:04:49.652777  4538 net.cpp:100] Creating Layer conv3
I0528 03:04:49.652789  4538 net.cpp:434] conv3 <- pool2
I0528 03:04:49.652798  4538 net.cpp:408] conv3 -> conv3
I0528 03:04:49.715663  4538 net.cpp:150] Setting up conv3
I0528 03:04:49.715730  4538 net.cpp:157] Top shape: 1024 250 6 6 (9216000)
I0528 03:04:49.715759  4538 net.cpp:165] Memory required for data: 2138791936
I0528 03:04:49.715790  4538 layer_factory.hpp:77] Creating layer conv3_relu
I0528 03:04:49.715831  4538 net.cpp:100] Creating Layer conv3_relu
I0528 03:04:49.715845  4538 net.cpp:434] conv3_relu <- conv3
I0528 03:04:49.715867  4538 net.cpp:395] conv3_relu -> conv3 (in-place)
I0528 03:04:49.717910  4538 net.cpp:150] Setting up conv3_relu
I0528 03:04:49.717942  4538 net.cpp:157] Top shape: 1024 250 6 6 (9216000)
I0528 03:04:49.717949  4538 net.cpp:165] Memory required for data: 2175655936
I0528 03:04:49.717955  4538 layer_factory.hpp:77] Creating layer pool3
I0528 03:04:49.717975  4538 net.cpp:100] Creating Layer pool3
I0528 03:04:49.717993  4538 net.cpp:434] pool3 <- conv3
I0528 03:04:49.718021  4538 net.cpp:408] pool3 -> pool3
I0528 03:04:49.718122  4538 net.cpp:150] Setting up pool3
I0528 03:04:49.718152  4538 net.cpp:157] Top shape: 1024 250 3 3 (2304000)
I0528 03:04:49.718160  4538 net.cpp:165] Memory required for data: 2184871936
I0528 03:04:49.718168  4538 layer_factory.hpp:77] Creating layer fc4_300
I0528 03:04:49.718194  4538 net.cpp:100] Creating Layer fc4_300
I0528 03:04:49.718205  4538 net.cpp:434] fc4_300 <- pool3
I0528 03:04:49.718225  4538 net.cpp:408] fc4_300 -> fc4_300
I0528 03:04:49.725625  4538 net.cpp:150] Setting up fc4_300
I0528 03:04:49.725673  4538 net.cpp:157] Top shape: 1024 300 (307200)
I0528 03:04:49.725679  4538 net.cpp:165] Memory required for data: 2186100736
I0528 03:04:49.725699  4538 layer_factory.hpp:77] Creating layer fc4_relu
I0528 03:04:49.725723  4538 net.cpp:100] Creating Layer fc4_relu
I0528 03:04:49.725736  4538 net.cpp:434] fc4_relu <- fc4_300
I0528 03:04:49.725761  4538 net.cpp:395] fc4_relu -> fc4_300 (in-place)
I0528 03:04:49.726088  4538 net.cpp:150] Setting up fc4_relu
I0528 03:04:49.726114  4538 net.cpp:157] Top shape: 1024 300 (307200)
I0528 03:04:49.726119  4538 net.cpp:165] Memory required for data: 2187329536
I0528 03:04:49.726125  4538 layer_factory.hpp:77] Creating layer fc5_116
I0528 03:04:49.726146  4538 net.cpp:100] Creating Layer fc5_116
I0528 03:04:49.726158  4538 net.cpp:434] fc5_116 <- fc4_300
I0528 03:04:49.726182  4538 net.cpp:408] fc5_116 -> fc5_classes
I0528 03:04:49.729017  4538 net.cpp:150] Setting up fc5_116
I0528 03:04:49.729048  4538 net.cpp:157] Top shape: 1024 116 (118784)
I0528 03:04:49.729054  4538 net.cpp:165] Memory required for data: 2187804672
I0528 03:04:49.729082  4538 layer_factory.hpp:77] Creating layer fc5_classes_fc5_116_0_split
I0528 03:04:49.729116  4538 net.cpp:100] Creating Layer fc5_classes_fc5_116_0_split
I0528 03:04:49.729128  4538 net.cpp:434] fc5_classes_fc5_116_0_split <- fc5_classes
I0528 03:04:49.729143  4538 net.cpp:408] fc5_classes_fc5_116_0_split -> fc5_classes_fc5_116_0_split_0
I0528 03:04:49.729168  4538 net.cpp:408] fc5_classes_fc5_116_0_split -> fc5_classes_fc5_116_0_split_1
I0528 03:04:49.729183  4538 net.cpp:408] fc5_classes_fc5_116_0_split -> fc5_classes_fc5_116_0_split_2
I0528 03:04:49.729284  4538 net.cpp:150] Setting up fc5_classes_fc5_116_0_split
I0528 03:04:49.729300  4538 net.cpp:157] Top shape: 1024 116 (118784)
I0528 03:04:49.729312  4538 net.cpp:157] Top shape: 1024 116 (118784)
I0528 03:04:49.729326  4538 net.cpp:157] Top shape: 1024 116 (118784)
I0528 03:04:49.729336  4538 net.cpp:165] Memory required for data: 2189230080
I0528 03:04:49.729346  4538 layer_factory.hpp:77] Creating layer softmax
I0528 03:04:49.729364  4538 net.cpp:100] Creating Layer softmax
I0528 03:04:49.729375  4538 net.cpp:434] softmax <- fc5_classes_fc5_116_0_split_0
I0528 03:04:49.729398  4538 net.cpp:408] softmax -> softmax
I0528 03:04:49.729785  4538 net.cpp:150] Setting up softmax
I0528 03:04:49.729805  4538 net.cpp:157] Top shape: 1024 116 (118784)
I0528 03:04:49.729812  4538 net.cpp:165] Memory required for data: 2189705216
I0528 03:04:49.729820  4538 layer_factory.hpp:77] Creating layer loss
I0528 03:04:49.729881  4538 net.cpp:100] Creating Layer loss
I0528 03:04:49.729902  4538 net.cpp:434] loss <- softmax
I0528 03:04:49.729915  4538 net.cpp:434] loss <- label_data_1_split_0
I0528 03:04:49.729930  4538 net.cpp:408] loss -> loss
…
