…
I0528 22:10:30.946247  9094 solver.cpp:81] Creating training net from train_net file: ./Prototxt/experiment_22/RTSD/AHE/trial_1/train.prototxt
I0528 22:10:30.946614  9094 net.cpp:58] Initializing net from parameters: 
state {
  phase: TRAIN
  level: 0
  stage: ""
}
layer {
  name: "data"
  type: "Data"
  top: "data"
  top: "label"
  include {
    phase: TRAIN
  }
  transform_param {
    scale: 0.0039215689
    mirror: false
    crop_size: 48
    mean_value: 133
    mean_value: 127
    mean_value: 126
  }
  data_param {
    source: "../local_data/lmdb/RTSD/AHE/train/lmdb"
    batch_size: 1024
    backend: LMDB
  }
}
layer {
  name: "conv1"
  type: "Convolution"
  bottom: "data"
  top: "conv1"
  convolution_param {
    num_output: 100
    pad: 0
    kernel_size: 7
    group: 1
    stride: 1
    weight_filler {
      type: "xavier"
    }
  }
}
layer {
  name: "conv1_relu"
  type: "ReLU"
  bottom: "conv1"
  top: "conv1"
}
layer {
  name: "pool1"
  type: "Pooling"
  bottom: "conv1"
  top: "pool1"
  pooling_param {
    pool: MAX
    kernel_size: 2
    stride: 2
  }
}
layer {
  name: "conv2"
  type: "Convolution"
  bottom: "pool1"
  top: "conv2"
  convolution_param {
    num_output: 150
    pad: 0
    kernel_size: 4
    group: 1
    stride: 1
    weight_filler {
      type: "xavier"
    }
  }
}
layer {
  name: "conv2_relu"
  type: "ReLU"
  bottom: "conv2"
  top: "conv2"
}
layer {
  name: "pool2"
  type: "Pooling"
  bottom: "conv2"
  top: "pool2"
  pooling_param {
    pool: MAX
    kernel_size: 2
    stride: 2
  }
}
layer {
  name: "conv3"
  type: "Convolution"
  bottom: "pool2"
  top: "conv3"
  convolution_param {
    num_output: 250
    pad: 0
    kernel_size: 4
    group: 1
    stride: 1
    weight_filler {
      type: "xavier"
    }
  }
}
layer {
  name: "conv3_relu"
  type: "ReLU"
  bottom: "conv3"
  top: "conv3"
}
layer {
  name: "pool3"
  type: "Pooling"
  bottom: "conv3"
  top: "pool3"
  pooling_param {
    pool: MAX
    kernel_size: 2
    stride: 2
  }
}
layer {
  name: "fc4_300"
  type: "InnerProduct"
  bottom: "pool3"
  top: "fc4_300"
  inner_product_param {
    num_output: 300
    weight_filler {
      type: "xavier"
    }
  }
}
layer {
  name: "fc4_relu"
  type: "ReLU"
  bottom: "fc4_300"
  top: "fc4_300"
}
layer {
  name: "fc5_116"
  type: "InnerProduct"
  bottom: "fc4_300"
  top: "fc5_classes"
  inner_product_param {
    num_output: 116
    weight_filler {
      type: "xavier"
    }
  }
}
layer {
  name: "softmax"
  type: "Softmax"
  bottom: "fc5_classes"
  top: "softmax"
}
layer {
  name: "loss"
  type: "MultinomialLogisticLoss"
  bottom: "softmax"
  bottom: "label"
  top: "loss"
}
layer {
  name: "accuracy_1"
  type: "Accuracy"
  bottom: "fc5_classes"
  bottom: "label"
  top: "accuracy_1"
  accuracy_param {
    top_k: 1
  }
}
layer {
  name: "accuracy_5"
  type: "Accuracy"
  bottom: "fc5_classes"
  bottom: "label"
  top: "accuracy_5"
  accuracy_param {
    top_k: 5
  }
}
layer {
  name: "silence"
  type: "Silence"
  bottom: "accuracy_1"
  bottom: "accuracy_5"
}
I0528 22:10:30.946712  9094 layer_factory.hpp:77] Creating layer data
I0528 22:10:30.947470  9094 net.cpp:100] Creating Layer data
I0528 22:10:30.947482  9094 net.cpp:408] data -> data
I0528 22:10:30.947504  9094 net.cpp:408] data -> label
I0528 22:10:30.958375  9190 db_lmdb.cpp:35] Opened lmdb ../local_data/lmdb/RTSD/AHE/train/lmdb
I0528 22:10:30.969967  9094 data_layer.cpp:41] output data size: 1024,3,48,48
I0528 22:10:31.033849  9094 net.cpp:150] Setting up data
I0528 22:10:31.033926  9094 net.cpp:157] Top shape: 1024 3 48 48 (7077888)
I0528 22:10:31.033946  9094 net.cpp:157] Top shape: 1024 (1024)
I0528 22:10:31.034001  9094 net.cpp:165] Memory required for data: 28315648
I0528 22:10:31.034023  9094 layer_factory.hpp:77] Creating layer label_data_1_split
I0528 22:10:31.034040  9094 net.cpp:100] Creating Layer label_data_1_split
I0528 22:10:31.034050  9094 net.cpp:434] label_data_1_split <- label
I0528 22:10:31.034067  9094 net.cpp:408] label_data_1_split -> label_data_1_split_0
I0528 22:10:31.034088  9094 net.cpp:408] label_data_1_split -> label_data_1_split_1
I0528 22:10:31.034101  9094 net.cpp:408] label_data_1_split -> label_data_1_split_2
I0528 22:10:31.034191  9094 net.cpp:150] Setting up label_data_1_split
I0528 22:10:31.034206  9094 net.cpp:157] Top shape: 1024 (1024)
I0528 22:10:31.034215  9094 net.cpp:157] Top shape: 1024 (1024)
I0528 22:10:31.034226  9094 net.cpp:157] Top shape: 1024 (1024)
I0528 22:10:31.034234  9094 net.cpp:165] Memory required for data: 28327936
I0528 22:10:31.034240  9094 layer_factory.hpp:77] Creating layer conv1
I0528 22:10:31.034262  9094 net.cpp:100] Creating Layer conv1
I0528 22:10:31.034272  9094 net.cpp:434] conv1 <- data
I0528 22:10:31.034282  9094 net.cpp:408] conv1 -> conv1
I0528 22:10:31.115584  9198 blocking_queue.cpp:50] Waiting for data
I0528 22:10:31.312191  9094 net.cpp:150] Setting up conv1
I0528 22:10:31.312221  9094 net.cpp:157] Top shape: 1024 100 42 42 (180633600)
I0528 22:10:31.312227  9094 net.cpp:165] Memory required for data: 750862336
I0528 22:10:31.312243  9094 layer_factory.hpp:77] Creating layer conv1_relu
I0528 22:10:31.312257  9094 net.cpp:100] Creating Layer conv1_relu
I0528 22:10:31.312263  9094 net.cpp:434] conv1_relu <- conv1
I0528 22:10:31.312270  9094 net.cpp:395] conv1_relu -> conv1 (in-place)
I0528 22:10:31.312438  9094 net.cpp:150] Setting up conv1_relu
I0528 22:10:31.312453  9094 net.cpp:157] Top shape: 1024 100 42 42 (180633600)
I0528 22:10:31.312460  9094 net.cpp:165] Memory required for data: 1473396736
I0528 22:10:31.312467  9094 layer_factory.hpp:77] Creating layer pool1
I0528 22:10:31.312476  9094 net.cpp:100] Creating Layer pool1
I0528 22:10:31.312484  9094 net.cpp:434] pool1 <- conv1
I0528 22:10:31.312494  9094 net.cpp:408] pool1 -> pool1
I0528 22:10:31.312546  9094 net.cpp:150] Setting up pool1
I0528 22:10:31.312557  9094 net.cpp:157] Top shape: 1024 100 21 21 (45158400)
I0528 22:10:31.312563  9094 net.cpp:165] Memory required for data: 1654030336
I0528 22:10:31.312573  9094 layer_factory.hpp:77] Creating layer conv2
I0528 22:10:31.312585  9094 net.cpp:100] Creating Layer conv2
I0528 22:10:31.312595  9094 net.cpp:434] conv2 <- pool1
I0528 22:10:31.312602  9094 net.cpp:408] conv2 -> conv2
I0528 22:10:31.321610  9094 net.cpp:150] Setting up conv2
I0528 22:10:31.321629  9094 net.cpp:157] Top shape: 1024 150 18 18 (49766400)
I0528 22:10:31.321635  9094 net.cpp:165] Memory required for data: 1853095936
I0528 22:10:31.321648  9094 layer_factory.hpp:77] Creating layer conv2_relu
I0528 22:10:31.321657  9094 net.cpp:100] Creating Layer conv2_relu
I0528 22:10:31.321665  9094 net.cpp:434] conv2_relu <- conv2
I0528 22:10:31.321671  9094 net.cpp:395] conv2_relu -> conv2 (in-place)
I0528 22:10:31.321816  9094 net.cpp:150] Setting up conv2_relu
I0528 22:10:31.321830  9094 net.cpp:157] Top shape: 1024 150 18 18 (49766400)
I0528 22:10:31.321838  9094 net.cpp:165] Memory required for data: 2052161536
I0528 22:10:31.321844  9094 layer_factory.hpp:77] Creating layer pool2
I0528 22:10:31.321853  9094 net.cpp:100] Creating Layer pool2
I0528 22:10:31.321861  9094 net.cpp:434] pool2 <- conv2
I0528 22:10:31.321869  9094 net.cpp:408] pool2 -> pool2
I0528 22:10:31.321916  9094 net.cpp:150] Setting up pool2
I0528 22:10:31.321933  9094 net.cpp:157] Top shape: 1024 150 9 9 (12441600)
I0528 22:10:31.321943  9094 net.cpp:165] Memory required for data: 2101927936
I0528 22:10:31.321955  9094 layer_factory.hpp:77] Creating layer conv3
I0528 22:10:31.321969  9094 net.cpp:100] Creating Layer conv3
I0528 22:10:31.321976  9094 net.cpp:434] conv3 <- pool2
I0528 22:10:31.322010  9094 net.cpp:408] conv3 -> conv3
I0528 22:10:31.327561  9094 net.cpp:150] Setting up conv3
I0528 22:10:31.327581  9094 net.cpp:157] Top shape: 1024 250 6 6 (9216000)
I0528 22:10:31.327589  9094 net.cpp:165] Memory required for data: 2138791936
I0528 22:10:31.327603  9094 layer_factory.hpp:77] Creating layer conv3_relu
I0528 22:10:31.327615  9094 net.cpp:100] Creating Layer conv3_relu
I0528 22:10:31.327622  9094 net.cpp:434] conv3_relu <- conv3
I0528 22:10:31.327632  9094 net.cpp:395] conv3_relu -> conv3 (in-place)
I0528 22:10:31.329370  9094 net.cpp:150] Setting up conv3_relu
I0528 22:10:31.329390  9094 net.cpp:157] Top shape: 1024 250 6 6 (9216000)
I0528 22:10:31.329397  9094 net.cpp:165] Memory required for data: 2175655936
I0528 22:10:31.329404  9094 layer_factory.hpp:77] Creating layer pool3
I0528 22:10:31.329416  9094 net.cpp:100] Creating Layer pool3
I0528 22:10:31.329424  9094 net.cpp:434] pool3 <- conv3
I0528 22:10:31.329437  9094 net.cpp:408] pool3 -> pool3
I0528 22:10:31.329493  9094 net.cpp:150] Setting up pool3
I0528 22:10:31.329506  9094 net.cpp:157] Top shape: 1024 250 3 3 (2304000)
I0528 22:10:31.329515  9094 net.cpp:165] Memory required for data: 2184871936
I0528 22:10:31.329524  9094 layer_factory.hpp:77] Creating layer fc4_300
I0528 22:10:31.329533  9094 net.cpp:100] Creating Layer fc4_300
I0528 22:10:31.329540  9094 net.cpp:434] fc4_300 <- pool3
I0528 22:10:31.329550  9094 net.cpp:408] fc4_300 -> fc4_300
I0528 22:10:31.334487  9094 net.cpp:150] Setting up fc4_300
I0528 22:10:31.334513  9094 net.cpp:157] Top shape: 1024 300 (307200)
I0528 22:10:31.334519  9094 net.cpp:165] Memory required for data: 2186100736
I0528 22:10:31.334533  9094 layer_factory.hpp:77] Creating layer fc4_relu
I0528 22:10:31.334550  9094 net.cpp:100] Creating Layer fc4_relu
I0528 22:10:31.334559  9094 net.cpp:434] fc4_relu <- fc4_300
I0528 22:10:31.334569  9094 net.cpp:395] fc4_relu -> fc4_300 (in-place)
I0528 22:10:31.334748  9094 net.cpp:150] Setting up fc4_relu
I0528 22:10:31.334767  9094 net.cpp:157] Top shape: 1024 300 (307200)
I0528 22:10:31.334774  9094 net.cpp:165] Memory required for data: 2187329536
I0528 22:10:31.334782  9094 layer_factory.hpp:77] Creating layer fc5_116
I0528 22:10:31.334794  9094 net.cpp:100] Creating Layer fc5_116
I0528 22:10:31.334806  9094 net.cpp:434] fc5_116 <- fc4_300
I0528 22:10:31.334820  9094 net.cpp:408] fc5_116 -> fc5_classes
I0528 22:10:31.337776  9094 net.cpp:150] Setting up fc5_116
I0528 22:10:31.337795  9094 net.cpp:157] Top shape: 1024 116 (118784)
I0528 22:10:31.337802  9094 net.cpp:165] Memory required for data: 2187804672
I0528 22:10:31.337819  9094 layer_factory.hpp:77] Creating layer fc5_classes_fc5_116_0_split
I0528 22:10:31.337831  9094 net.cpp:100] Creating Layer fc5_classes_fc5_116_0_split
I0528 22:10:31.337847  9094 net.cpp:434] fc5_classes_fc5_116_0_split <- fc5_classes
I0528 22:10:31.337857  9094 net.cpp:408] fc5_classes_fc5_116_0_split -> fc5_classes_fc5_116_0_split_0
I0528 22:10:31.337869  9094 net.cpp:408] fc5_classes_fc5_116_0_split -> fc5_classes_fc5_116_0_split_1
I0528 22:10:31.337889  9094 net.cpp:408] fc5_classes_fc5_116_0_split -> fc5_classes_fc5_116_0_split_2
I0528 22:10:31.337941  9094 net.cpp:150] Setting up fc5_classes_fc5_116_0_split
I0528 22:10:31.337957  9094 net.cpp:157] Top shape: 1024 116 (118784)
I0528 22:10:31.337965  9094 net.cpp:157] Top shape: 1024 116 (118784)
I0528 22:10:31.337972  9094 net.cpp:157] Top shape: 1024 116 (118784)
I0528 22:10:31.337978  9094 net.cpp:165] Memory required for data: 2189230080
I0528 22:10:31.337985  9094 layer_factory.hpp:77] Creating layer softmax
I0528 22:10:31.337998  9094 net.cpp:100] Creating Layer softmax
I0528 22:10:31.338012  9094 net.cpp:434] softmax <- fc5_classes_fc5_116_0_split_0
I0528 22:10:31.338021  9094 net.cpp:408] softmax -> softmax
I0528 22:10:31.338238  9094 net.cpp:150] Setting up softmax
I0528 22:10:31.338253  9094 net.cpp:157] Top shape: 1024 116 (118784)
I0528 22:10:31.338261  9094 net.cpp:165] Memory required for data: 2189705216
I0528 22:10:31.338269  9094 layer_factory.hpp:77] Creating layer loss
I0528 22:10:31.338299  9094 net.cpp:100] Creating Layer loss
I0528 22:10:31.338312  9094 net.cpp:434] loss <- softmax
I0528 22:10:31.338321  9094 net.cpp:434] loss <- label_data_1_split_0
I0528 22:10:31.338330  9094 net.cpp:408] loss -> loss
…
