…
I0528 03:21:45.501606  4372 solver.cpp:81] Creating training net from train_net file: ./Prototxt/experiment_21/RTSD/AHE/trial_1/train.prototxt
I0528 03:21:45.501961  4372 net.cpp:58] Initializing net from parameters: 
state {
  phase: TRAIN
  level: 0
  stage: ""
}
layer {
  name: "data"
  type: "Data"
  top: "data"
  top: "label"
  include {
    phase: TRAIN
  }
  transform_param {
    scale: 0.0039215689
    mirror: false
    crop_size: 48
    mean_value: 133
    mean_value: 127
    mean_value: 126
  }
  data_param {
    source: "../local_data/lmdb/RTSD/AHE/train/lmdb"
    batch_size: 1024
    backend: LMDB
  }
}
layer {
  name: "conv1"
  type: "Convolution"
  bottom: "data"
  top: "conv1"
  convolution_param {
    num_output: 100
    pad: 0
    kernel_size: 7
    group: 1
    stride: 1
    weight_filler {
      type: "xavier"
    }
  }
}
layer {
  name: "conv1_relu"
  type: "ReLU"
  bottom: "conv1"
  top: "conv1"
}
layer {
  name: "pool1"
  type: "Pooling"
  bottom: "conv1"
  top: "pool1"
  pooling_param {
    pool: MAX
    kernel_size: 2
    stride: 2
  }
}
layer {
  name: "conv2"
  type: "Convolution"
  bottom: "pool1"
  top: "conv2"
  convolution_param {
    num_output: 150
    pad: 0
    kernel_size: 4
    group: 1
    stride: 1
    weight_filler {
      type: "xavier"
    }
  }
}
layer {
  name: "conv2_relu"
  type: "ReLU"
  bottom: "conv2"
  top: "conv2"
}
layer {
  name: "pool2"
  type: "Pooling"
  bottom: "conv2"
  top: "pool2"
  pooling_param {
    pool: MAX
    kernel_size: 2
    stride: 2
  }
}
layer {
  name: "conv3"
  type: "Convolution"
  bottom: "pool2"
  top: "conv3"
  convolution_param {
    num_output: 250
    pad: 0
    kernel_size: 4
    group: 1
    stride: 1
    weight_filler {
      type: "xavier"
    }
  }
}
layer {
  name: "conv3_relu"
  type: "ReLU"
  bottom: "conv3"
  top: "conv3"
}
layer {
  name: "pool3"
  type: "Pooling"
  bottom: "conv3"
  top: "pool3"
  pooling_param {
    pool: MAX
    kernel_size: 2
    stride: 2
  }
}
layer {
  name: "fc4_300"
  type: "InnerProduct"
  bottom: "pool3"
  top: "fc4_300"
  inner_product_param {
    num_output: 300
    weight_filler {
      type: "xavier"
    }
  }
}
layer {
  name: "fc4_relu"
  type: "ReLU"
  bottom: "fc4_300"
  top: "fc4_300"
}
layer {
  name: "fc5_116"
  type: "InnerProduct"
  bottom: "fc4_300"
  top: "fc5_classes"
  inner_product_param {
    num_output: 116
    weight_filler {
      type: "xavier"
    }
  }
}
layer {
  name: "softmax"
  type: "Softmax"
  bottom: "fc5_classes"
  top: "softmax"
}
layer {
  name: "loss"
  type: "MultinomialLogisticLoss"
  bottom: "softmax"
  bottom: "label"
  top: "loss"
}
layer {
  name: "accuracy_1"
  type: "Accuracy"
  bottom: "fc5_classes"
  bottom: "label"
  top: "accuracy_1"
  accuracy_param {
    top_k: 1
  }
}
layer {
  name: "accuracy_5"
  type: "Accuracy"
  bottom: "fc5_classes"
  bottom: "label"
  top: "accuracy_5"
  accuracy_param {
    top_k: 5
  }
}
layer {
  name: "silence"
  type: "Silence"
  bottom: "accuracy_1"
  bottom: "accuracy_5"
}
I0528 03:21:45.502096  4372 layer_factory.hpp:77] Creating layer data
I0528 03:21:45.503203  4372 net.cpp:100] Creating Layer data
I0528 03:21:45.503243  4372 net.cpp:408] data -> data
I0528 03:21:45.503294  4372 net.cpp:408] data -> label
I0528 03:21:45.504181  4410 db_lmdb.cpp:35] Opened lmdb ../local_data/lmdb/RTSD/AHE/train/lmdb
I0528 03:21:45.521028  4372 data_layer.cpp:41] output data size: 1024,3,48,48
I0528 03:21:45.565155  4372 net.cpp:150] Setting up data
I0528 03:21:45.565210  4372 net.cpp:157] Top shape: 1024 3 48 48 (7077888)
I0528 03:21:45.565220  4372 net.cpp:157] Top shape: 1024 (1024)
I0528 03:21:45.565227  4372 net.cpp:165] Memory required for data: 28315648
I0528 03:21:45.565239  4372 layer_factory.hpp:77] Creating layer label_data_1_split
I0528 03:21:45.565255  4372 net.cpp:100] Creating Layer label_data_1_split
I0528 03:21:45.565284  4372 net.cpp:434] label_data_1_split <- label
I0528 03:21:45.565315  4372 net.cpp:408] label_data_1_split -> label_data_1_split_0
I0528 03:21:45.565342  4372 net.cpp:408] label_data_1_split -> label_data_1_split_1
I0528 03:21:45.565366  4372 net.cpp:408] label_data_1_split -> label_data_1_split_2
I0528 03:21:45.565448  4372 net.cpp:150] Setting up label_data_1_split
I0528 03:21:45.565479  4372 net.cpp:157] Top shape: 1024 (1024)
I0528 03:21:45.565501  4372 net.cpp:157] Top shape: 1024 (1024)
I0528 03:21:45.565523  4372 net.cpp:157] Top shape: 1024 (1024)
I0528 03:21:45.565543  4372 net.cpp:165] Memory required for data: 28327936
I0528 03:21:45.565564  4372 layer_factory.hpp:77] Creating layer conv1
I0528 03:21:45.565603  4372 net.cpp:100] Creating Layer conv1
I0528 03:21:45.565631  4372 net.cpp:434] conv1 <- data
I0528 03:21:45.565655  4372 net.cpp:408] conv1 -> conv1
I0528 03:21:46.050565  4372 net.cpp:150] Setting up conv1
I0528 03:21:46.050614  4372 net.cpp:157] Top shape: 1024 100 42 42 (180633600)
I0528 03:21:46.050623  4372 net.cpp:165] Memory required for data: 750862336
I0528 03:21:46.050654  4372 layer_factory.hpp:77] Creating layer conv1_relu
I0528 03:21:46.050679  4372 net.cpp:100] Creating Layer conv1_relu
I0528 03:21:46.050690  4372 net.cpp:434] conv1_relu <- conv1
I0528 03:21:46.050709  4372 net.cpp:395] conv1_relu -> conv1 (in-place)
I0528 03:21:46.050916  4372 net.cpp:150] Setting up conv1_relu
I0528 03:21:46.050933  4372 net.cpp:157] Top shape: 1024 100 42 42 (180633600)
I0528 03:21:46.050941  4372 net.cpp:165] Memory required for data: 1473396736
I0528 03:21:46.050948  4372 layer_factory.hpp:77] Creating layer pool1
I0528 03:21:46.050962  4372 net.cpp:100] Creating Layer pool1
I0528 03:21:46.050974  4372 net.cpp:434] pool1 <- conv1
I0528 03:21:46.050984  4372 net.cpp:408] pool1 -> pool1
I0528 03:21:46.051040  4372 net.cpp:150] Setting up pool1
I0528 03:21:46.051054  4372 net.cpp:157] Top shape: 1024 100 21 21 (45158400)
I0528 03:21:46.051061  4372 net.cpp:165] Memory required for data: 1654030336
I0528 03:21:46.051067  4372 layer_factory.hpp:77] Creating layer conv2
I0528 03:21:46.051081  4372 net.cpp:100] Creating Layer conv2
I0528 03:21:46.051093  4372 net.cpp:434] conv2 <- pool1
I0528 03:21:46.051102  4372 net.cpp:408] conv2 -> conv2
I0528 03:21:46.058334  4372 net.cpp:150] Setting up conv2
I0528 03:21:46.058357  4372 net.cpp:157] Top shape: 1024 150 18 18 (49766400)
I0528 03:21:46.058362  4372 net.cpp:165] Memory required for data: 1853095936
I0528 03:21:46.058372  4372 layer_factory.hpp:77] Creating layer conv2_relu
I0528 03:21:46.058377  4372 net.cpp:100] Creating Layer conv2_relu
I0528 03:21:46.058382  4372 net.cpp:434] conv2_relu <- conv2
I0528 03:21:46.058387  4372 net.cpp:395] conv2_relu -> conv2 (in-place)
I0528 03:21:46.058518  4372 net.cpp:150] Setting up conv2_relu
I0528 03:21:46.058528  4372 net.cpp:157] Top shape: 1024 150 18 18 (49766400)
I0528 03:21:46.058532  4372 net.cpp:165] Memory required for data: 2052161536
I0528 03:21:46.058537  4372 layer_factory.hpp:77] Creating layer pool2
I0528 03:21:46.058543  4372 net.cpp:100] Creating Layer pool2
I0528 03:21:46.058547  4372 net.cpp:434] pool2 <- conv2
I0528 03:21:46.058552  4372 net.cpp:408] pool2 -> pool2
I0528 03:21:46.058583  4372 net.cpp:150] Setting up pool2
I0528 03:21:46.058591  4372 net.cpp:157] Top shape: 1024 150 9 9 (12441600)
I0528 03:21:46.058595  4372 net.cpp:165] Memory required for data: 2101927936
I0528 03:21:46.058598  4372 layer_factory.hpp:77] Creating layer conv3
I0528 03:21:46.058607  4372 net.cpp:100] Creating Layer conv3
I0528 03:21:46.058610  4372 net.cpp:434] conv3 <- pool2
I0528 03:21:46.058615  4372 net.cpp:408] conv3 -> conv3
I0528 03:21:46.065488  4372 net.cpp:150] Setting up conv3
I0528 03:21:46.065503  4372 net.cpp:157] Top shape: 1024 250 6 6 (9216000)
I0528 03:21:46.065507  4372 net.cpp:165] Memory required for data: 2138791936
I0528 03:21:46.065516  4372 layer_factory.hpp:77] Creating layer conv3_relu
I0528 03:21:46.065522  4372 net.cpp:100] Creating Layer conv3_relu
I0528 03:21:46.065527  4372 net.cpp:434] conv3_relu <- conv3
I0528 03:21:46.065532  4372 net.cpp:395] conv3_relu -> conv3 (in-place)
I0528 03:21:46.066314  4372 net.cpp:150] Setting up conv3_relu
I0528 03:21:46.066344  4372 net.cpp:157] Top shape: 1024 250 6 6 (9216000)
I0528 03:21:46.066347  4372 net.cpp:165] Memory required for data: 2175655936
I0528 03:21:46.066351  4372 layer_factory.hpp:77] Creating layer pool3
I0528 03:21:46.066359  4372 net.cpp:100] Creating Layer pool3
I0528 03:21:46.066370  4372 net.cpp:434] pool3 <- conv3
I0528 03:21:46.066375  4372 net.cpp:408] pool3 -> pool3
I0528 03:21:46.066414  4372 net.cpp:150] Setting up pool3
I0528 03:21:46.066422  4372 net.cpp:157] Top shape: 1024 250 3 3 (2304000)
I0528 03:21:46.066426  4372 net.cpp:165] Memory required for data: 2184871936
I0528 03:21:46.066429  4372 layer_factory.hpp:77] Creating layer fc4_300
I0528 03:21:46.066437  4372 net.cpp:100] Creating Layer fc4_300
I0528 03:21:46.066440  4372 net.cpp:434] fc4_300 <- pool3
I0528 03:21:46.066445  4372 net.cpp:408] fc4_300 -> fc4_300
I0528 03:21:46.071002  4372 net.cpp:150] Setting up fc4_300
I0528 03:21:46.071034  4372 net.cpp:157] Top shape: 1024 300 (307200)
I0528 03:21:46.071039  4372 net.cpp:165] Memory required for data: 2186100736
I0528 03:21:46.071045  4372 layer_factory.hpp:77] Creating layer fc4_relu
I0528 03:21:46.071051  4372 net.cpp:100] Creating Layer fc4_relu
I0528 03:21:46.071055  4372 net.cpp:434] fc4_relu <- fc4_300
I0528 03:21:46.071060  4372 net.cpp:395] fc4_relu -> fc4_300 (in-place)
I0528 03:21:46.071193  4372 net.cpp:150] Setting up fc4_relu
I0528 03:21:46.071204  4372 net.cpp:157] Top shape: 1024 300 (307200)
I0528 03:21:46.071208  4372 net.cpp:165] Memory required for data: 2187329536
I0528 03:21:46.071213  4372 layer_factory.hpp:77] Creating layer fc5_116
I0528 03:21:46.071218  4372 net.cpp:100] Creating Layer fc5_116
I0528 03:21:46.071223  4372 net.cpp:434] fc5_116 <- fc4_300
I0528 03:21:46.071228  4372 net.cpp:408] fc5_116 -> fc5_classes
I0528 03:21:46.072157  4372 net.cpp:150] Setting up fc5_116
I0528 03:21:46.072180  4372 net.cpp:157] Top shape: 1024 116 (118784)
I0528 03:21:46.072183  4372 net.cpp:165] Memory required for data: 2187804672
I0528 03:21:46.072191  4372 layer_factory.hpp:77] Creating layer fc5_classes_fc5_116_0_split
I0528 03:21:46.072206  4372 net.cpp:100] Creating Layer fc5_classes_fc5_116_0_split
I0528 03:21:46.072209  4372 net.cpp:434] fc5_classes_fc5_116_0_split <- fc5_classes
I0528 03:21:46.072214  4372 net.cpp:408] fc5_classes_fc5_116_0_split -> fc5_classes_fc5_116_0_split_0
I0528 03:21:46.072221  4372 net.cpp:408] fc5_classes_fc5_116_0_split -> fc5_classes_fc5_116_0_split_1
I0528 03:21:46.072227  4372 net.cpp:408] fc5_classes_fc5_116_0_split -> fc5_classes_fc5_116_0_split_2
I0528 03:21:46.072262  4372 net.cpp:150] Setting up fc5_classes_fc5_116_0_split
I0528 03:21:46.072269  4372 net.cpp:157] Top shape: 1024 116 (118784)
I0528 03:21:46.072274  4372 net.cpp:157] Top shape: 1024 116 (118784)
I0528 03:21:46.072278  4372 net.cpp:157] Top shape: 1024 116 (118784)
I0528 03:21:46.072281  4372 net.cpp:165] Memory required for data: 2189230080
I0528 03:21:46.072284  4372 layer_factory.hpp:77] Creating layer softmax
I0528 03:21:46.072290  4372 net.cpp:100] Creating Layer softmax
I0528 03:21:46.072294  4372 net.cpp:434] softmax <- fc5_classes_fc5_116_0_split_0
I0528 03:21:46.072299  4372 net.cpp:408] softmax -> softmax
I0528 03:21:46.072482  4372 net.cpp:150] Setting up softmax
I0528 03:21:46.072494  4372 net.cpp:157] Top shape: 1024 116 (118784)
I0528 03:21:46.072496  4372 net.cpp:165] Memory required for data: 2189705216
I0528 03:21:46.072500  4372 layer_factory.hpp:77] Creating layer loss
I0528 03:21:46.072509  4372 net.cpp:100] Creating Layer loss
I0528 03:21:46.072530  4372 net.cpp:434] loss <- softmax
I0528 03:21:46.072535  4372 net.cpp:434] loss <- label_data_1_split_0
I0528 03:21:46.072540  4372 net.cpp:408] loss -> loss
…
