…
I0528 07:01:21.498426 24002 solver.cpp:81] Creating training net from train_net file: ./Prototxt/experiment_21/RTSD/imajust/trial_4/train.prototxt
I0528 07:01:21.498796 24002 net.cpp:58] Initializing net from parameters: 
state {
  phase: TRAIN
  level: 0
  stage: ""
}
layer {
  name: "data"
  type: "Data"
  top: "data"
  top: "label"
  include {
    phase: TRAIN
  }
  transform_param {
    scale: 0.0039215689
    mirror: false
    crop_size: 48
    mean_value: 119
    mean_value: 113
    mean_value: 113
  }
  data_param {
    source: "../local_data/lmdb/RTSD/imajust/train/lmdb"
    batch_size: 1024
    backend: LMDB
  }
}
layer {
  name: "conv1"
  type: "Convolution"
  bottom: "data"
  top: "conv1"
  convolution_param {
    num_output: 100
    pad: 0
    kernel_size: 7
    group: 1
    stride: 1
    weight_filler {
      type: "xavier"
    }
  }
}
layer {
  name: "conv1_relu"
  type: "ReLU"
  bottom: "conv1"
  top: "conv1"
}
layer {
  name: "pool1"
  type: "Pooling"
  bottom: "conv1"
  top: "pool1"
  pooling_param {
    pool: MAX
    kernel_size: 2
    stride: 2
  }
}
layer {
  name: "conv2"
  type: "Convolution"
  bottom: "pool1"
  top: "conv2"
  convolution_param {
    num_output: 150
    pad: 0
    kernel_size: 4
    group: 1
    stride: 1
    weight_filler {
      type: "xavier"
    }
  }
}
layer {
  name: "conv2_relu"
  type: "ReLU"
  bottom: "conv2"
  top: "conv2"
}
layer {
  name: "pool2"
  type: "Pooling"
  bottom: "conv2"
  top: "pool2"
  pooling_param {
    pool: MAX
    kernel_size: 2
    stride: 2
  }
}
layer {
  name: "conv3"
  type: "Convolution"
  bottom: "pool2"
  top: "conv3"
  convolution_param {
    num_output: 250
    pad: 0
    kernel_size: 4
    group: 1
    stride: 1
    weight_filler {
      type: "xavier"
    }
  }
}
layer {
  name: "conv3_relu"
  type: "ReLU"
  bottom: "conv3"
  top: "conv3"
}
layer {
  name: "pool3"
  type: "Pooling"
  bottom: "conv3"
  top: "pool3"
  pooling_param {
    pool: MAX
    kernel_size: 2
    stride: 2
  }
}
layer {
  name: "fc4_300"
  type: "InnerProduct"
  bottom: "pool3"
  top: "fc4_300"
  inner_product_param {
    num_output: 300
    weight_filler {
      type: "xavier"
    }
  }
}
layer {
  name: "fc4_relu"
  type: "ReLU"
  bottom: "fc4_300"
  top: "fc4_300"
}
layer {
  name: "fc5_116"
  type: "InnerProduct"
  bottom: "fc4_300"
  top: "fc5_classes"
  inner_product_param {
    num_output: 116
    weight_filler {
      type: "xavier"
    }
  }
}
layer {
  name: "softmax"
  type: "Softmax"
  bottom: "fc5_classes"
  top: "softmax"
}
layer {
  name: "loss"
  type: "MultinomialLogisticLoss"
  bottom: "softmax"
  bottom: "label"
  top: "loss"
}
layer {
  name: "accuracy_1"
  type: "Accuracy"
  bottom: "fc5_classes"
  bottom: "label"
  top: "accuracy_1"
  accuracy_param {
    top_k: 1
  }
}
layer {
  name: "accuracy_5"
  type: "Accuracy"
  bottom: "fc5_classes"
  bottom: "label"
  top: "accuracy_5"
  accuracy_param {
    top_k: 5
  }
}
layer {
  name: "silence"
  type: "Silence"
  bottom: "accuracy_1"
  bottom: "accuracy_5"
}
I0528 07:01:21.498898 24002 layer_factory.hpp:77] Creating layer data
I0528 07:01:21.499698 24002 net.cpp:100] Creating Layer data
I0528 07:01:21.499711 24002 net.cpp:408] data -> data
I0528 07:01:21.499739 24002 net.cpp:408] data -> label
I0528 07:01:21.500468 24031 db_lmdb.cpp:35] Opened lmdb ../local_data/lmdb/RTSD/imajust/train/lmdb
I0528 07:01:21.520684 24002 data_layer.cpp:41] output data size: 1024,3,48,48
I0528 07:01:21.583211 24002 net.cpp:150] Setting up data
I0528 07:01:21.583257 24002 net.cpp:157] Top shape: 1024 3 48 48 (7077888)
I0528 07:01:21.583266 24002 net.cpp:157] Top shape: 1024 (1024)
I0528 07:01:21.583271 24002 net.cpp:165] Memory required for data: 28315648
I0528 07:01:21.583281 24002 layer_factory.hpp:77] Creating layer label_data_1_split
I0528 07:01:21.583293 24002 net.cpp:100] Creating Layer label_data_1_split
I0528 07:01:21.583300 24002 net.cpp:434] label_data_1_split <- label
I0528 07:01:21.583312 24002 net.cpp:408] label_data_1_split -> label_data_1_split_0
I0528 07:01:21.583324 24002 net.cpp:408] label_data_1_split -> label_data_1_split_1
I0528 07:01:21.583331 24002 net.cpp:408] label_data_1_split -> label_data_1_split_2
I0528 07:01:21.583377 24002 net.cpp:150] Setting up label_data_1_split
I0528 07:01:21.583389 24002 net.cpp:157] Top shape: 1024 (1024)
I0528 07:01:21.583394 24002 net.cpp:157] Top shape: 1024 (1024)
I0528 07:01:21.583400 24002 net.cpp:157] Top shape: 1024 (1024)
I0528 07:01:21.583405 24002 net.cpp:165] Memory required for data: 28327936
I0528 07:01:21.583410 24002 layer_factory.hpp:77] Creating layer conv1
I0528 07:01:21.583426 24002 net.cpp:100] Creating Layer conv1
I0528 07:01:21.583432 24002 net.cpp:434] conv1 <- data
I0528 07:01:21.583438 24002 net.cpp:408] conv1 -> conv1
I0528 07:01:21.956905 24002 net.cpp:150] Setting up conv1
I0528 07:01:21.956933 24002 net.cpp:157] Top shape: 1024 100 42 42 (180633600)
I0528 07:01:21.956938 24002 net.cpp:165] Memory required for data: 750862336
I0528 07:01:21.956954 24002 layer_factory.hpp:77] Creating layer conv1_relu
I0528 07:01:21.956967 24002 net.cpp:100] Creating Layer conv1_relu
I0528 07:01:21.956974 24002 net.cpp:434] conv1_relu <- conv1
I0528 07:01:21.956979 24002 net.cpp:395] conv1_relu -> conv1 (in-place)
I0528 07:01:21.957120 24002 net.cpp:150] Setting up conv1_relu
I0528 07:01:21.957134 24002 net.cpp:157] Top shape: 1024 100 42 42 (180633600)
I0528 07:01:21.957139 24002 net.cpp:165] Memory required for data: 1473396736
I0528 07:01:21.957144 24002 layer_factory.hpp:77] Creating layer pool1
I0528 07:01:21.957154 24002 net.cpp:100] Creating Layer pool1
I0528 07:01:21.957157 24002 net.cpp:434] pool1 <- conv1
I0528 07:01:21.957165 24002 net.cpp:408] pool1 -> pool1
I0528 07:01:21.957203 24002 net.cpp:150] Setting up pool1
I0528 07:01:21.957212 24002 net.cpp:157] Top shape: 1024 100 21 21 (45158400)
I0528 07:01:21.957217 24002 net.cpp:165] Memory required for data: 1654030336
I0528 07:01:21.957222 24002 layer_factory.hpp:77] Creating layer conv2
I0528 07:01:21.957233 24002 net.cpp:100] Creating Layer conv2
I0528 07:01:21.957237 24002 net.cpp:434] conv2 <- pool1
I0528 07:01:21.957245 24002 net.cpp:408] conv2 -> conv2
I0528 07:01:21.960039 24002 net.cpp:150] Setting up conv2
I0528 07:01:21.960054 24002 net.cpp:157] Top shape: 1024 150 18 18 (49766400)
I0528 07:01:21.960060 24002 net.cpp:165] Memory required for data: 1853095936
I0528 07:01:21.960068 24002 layer_factory.hpp:77] Creating layer conv2_relu
I0528 07:01:21.960077 24002 net.cpp:100] Creating Layer conv2_relu
I0528 07:01:21.960083 24002 net.cpp:434] conv2_relu <- conv2
I0528 07:01:21.960089 24002 net.cpp:395] conv2_relu -> conv2 (in-place)
I0528 07:01:21.960212 24002 net.cpp:150] Setting up conv2_relu
I0528 07:01:21.960224 24002 net.cpp:157] Top shape: 1024 150 18 18 (49766400)
I0528 07:01:21.960229 24002 net.cpp:165] Memory required for data: 2052161536
I0528 07:01:21.960234 24002 layer_factory.hpp:77] Creating layer pool2
I0528 07:01:21.960242 24002 net.cpp:100] Creating Layer pool2
I0528 07:01:21.960247 24002 net.cpp:434] pool2 <- conv2
I0528 07:01:21.960252 24002 net.cpp:408] pool2 -> pool2
I0528 07:01:21.960284 24002 net.cpp:150] Setting up pool2
I0528 07:01:21.960294 24002 net.cpp:157] Top shape: 1024 150 9 9 (12441600)
I0528 07:01:21.960299 24002 net.cpp:165] Memory required for data: 2101927936
I0528 07:01:21.960302 24002 layer_factory.hpp:77] Creating layer conv3
I0528 07:01:21.960312 24002 net.cpp:100] Creating Layer conv3
I0528 07:01:21.960317 24002 net.cpp:434] conv3 <- pool2
I0528 07:01:21.960325 24002 net.cpp:408] conv3 -> conv3
I0528 07:01:21.965584 24002 net.cpp:150] Setting up conv3
I0528 07:01:21.965598 24002 net.cpp:157] Top shape: 1024 250 6 6 (9216000)
I0528 07:01:21.965603 24002 net.cpp:165] Memory required for data: 2138791936
I0528 07:01:21.965612 24002 layer_factory.hpp:77] Creating layer conv3_relu
I0528 07:01:21.965618 24002 net.cpp:100] Creating Layer conv3_relu
I0528 07:01:21.965622 24002 net.cpp:434] conv3_relu <- conv3
I0528 07:01:21.965628 24002 net.cpp:395] conv3_relu -> conv3 (in-place)
I0528 07:01:21.965960 24002 net.cpp:150] Setting up conv3_relu
I0528 07:01:21.965973 24002 net.cpp:157] Top shape: 1024 250 6 6 (9216000)
I0528 07:01:21.965977 24002 net.cpp:165] Memory required for data: 2175655936
I0528 07:01:21.965981 24002 layer_factory.hpp:77] Creating layer pool3
I0528 07:01:21.965988 24002 net.cpp:100] Creating Layer pool3
I0528 07:01:21.965992 24002 net.cpp:434] pool3 <- conv3
I0528 07:01:21.965998 24002 net.cpp:408] pool3 -> pool3
I0528 07:01:21.966032 24002 net.cpp:150] Setting up pool3
I0528 07:01:21.966039 24002 net.cpp:157] Top shape: 1024 250 3 3 (2304000)
I0528 07:01:21.966043 24002 net.cpp:165] Memory required for data: 2184871936
I0528 07:01:21.966048 24002 layer_factory.hpp:77] Creating layer fc4_300
I0528 07:01:21.966054 24002 net.cpp:100] Creating Layer fc4_300
I0528 07:01:21.966058 24002 net.cpp:434] fc4_300 <- pool3
I0528 07:01:21.966064 24002 net.cpp:408] fc4_300 -> fc4_300
I0528 07:01:21.970952 24002 net.cpp:150] Setting up fc4_300
I0528 07:01:21.970973 24002 net.cpp:157] Top shape: 1024 300 (307200)
I0528 07:01:21.970978 24002 net.cpp:165] Memory required for data: 2186100736
I0528 07:01:21.970985 24002 layer_factory.hpp:77] Creating layer fc4_relu
I0528 07:01:21.970993 24002 net.cpp:100] Creating Layer fc4_relu
I0528 07:01:21.970999 24002 net.cpp:434] fc4_relu <- fc4_300
I0528 07:01:21.971004 24002 net.cpp:395] fc4_relu -> fc4_300 (in-place)
I0528 07:01:21.971153 24002 net.cpp:150] Setting up fc4_relu
I0528 07:01:21.971163 24002 net.cpp:157] Top shape: 1024 300 (307200)
I0528 07:01:21.971166 24002 net.cpp:165] Memory required for data: 2187329536
I0528 07:01:21.971170 24002 layer_factory.hpp:77] Creating layer fc5_116
I0528 07:01:21.971177 24002 net.cpp:100] Creating Layer fc5_116
I0528 07:01:21.971181 24002 net.cpp:434] fc5_116 <- fc4_300
I0528 07:01:21.971186 24002 net.cpp:408] fc5_116 -> fc5_classes
I0528 07:01:21.972128 24002 net.cpp:150] Setting up fc5_116
I0528 07:01:21.972141 24002 net.cpp:157] Top shape: 1024 116 (118784)
I0528 07:01:21.972146 24002 net.cpp:165] Memory required for data: 2187804672
I0528 07:01:21.972156 24002 layer_factory.hpp:77] Creating layer fc5_classes_fc5_116_0_split
I0528 07:01:21.972162 24002 net.cpp:100] Creating Layer fc5_classes_fc5_116_0_split
I0528 07:01:21.972165 24002 net.cpp:434] fc5_classes_fc5_116_0_split <- fc5_classes
I0528 07:01:21.972172 24002 net.cpp:408] fc5_classes_fc5_116_0_split -> fc5_classes_fc5_116_0_split_0
I0528 07:01:21.972179 24002 net.cpp:408] fc5_classes_fc5_116_0_split -> fc5_classes_fc5_116_0_split_1
I0528 07:01:21.972185 24002 net.cpp:408] fc5_classes_fc5_116_0_split -> fc5_classes_fc5_116_0_split_2
I0528 07:01:21.972219 24002 net.cpp:150] Setting up fc5_classes_fc5_116_0_split
I0528 07:01:21.972228 24002 net.cpp:157] Top shape: 1024 116 (118784)
I0528 07:01:21.972232 24002 net.cpp:157] Top shape: 1024 116 (118784)
I0528 07:01:21.972237 24002 net.cpp:157] Top shape: 1024 116 (118784)
I0528 07:01:21.972241 24002 net.cpp:165] Memory required for data: 2189230080
I0528 07:01:21.972245 24002 layer_factory.hpp:77] Creating layer softmax
I0528 07:01:21.972251 24002 net.cpp:100] Creating Layer softmax
I0528 07:01:21.972255 24002 net.cpp:434] softmax <- fc5_classes_fc5_116_0_split_0
I0528 07:01:21.972260 24002 net.cpp:408] softmax -> softmax
I0528 07:01:21.972447 24002 net.cpp:150] Setting up softmax
I0528 07:01:21.972458 24002 net.cpp:157] Top shape: 1024 116 (118784)
I0528 07:01:21.972462 24002 net.cpp:165] Memory required for data: 2189705216
I0528 07:01:21.972466 24002 layer_factory.hpp:77] Creating layer loss
I0528 07:01:21.972496 24002 net.cpp:100] Creating Layer loss
I0528 07:01:21.972501 24002 net.cpp:434] loss <- softmax
I0528 07:01:21.972506 24002 net.cpp:434] loss <- label_data_1_split_0
I0528 07:01:21.972510 24002 net.cpp:408] loss -> loss
…
