…
I0415 00:25:18.481232  1299 solver.cpp:93] Creating training net from train_net file: ./Prototxt/experiment_10/rtsd-r3/imajust/trial_1/train.prototxt
I0415 00:25:18.490272  1299 net.cpp:58] Initializing net from parameters: 
state {
  phase: TRAIN
  level: 0
  stage: ""
}
layer {
  name: "data"
  type: "Data"
  top: "data"
  top: "label"
  include {
    phase: TRAIN
  }
  transform_param {
    scale: 0.0039215689
    mirror: false
    crop_size: 48
    mean_value: 118
    mean_value: 112
    mean_value: 112
  }
  data_param {
    source: "../local_data/lmdb/rtsd-r3/imajust/train/lmdb"
    batch_size: 1024
    backend: LMDB
  }
}
layer {
  name: "conv1"
  type: "Convolution"
  bottom: "data"
  top: "conv1"
  convolution_param {
    num_output: 100
    pad: 0
    kernel_size: 7
    group: 1
    stride: 1
    weight_filler {
      type: "xavier"
    }
  }
}
layer {
  name: "conv1_relu"
  type: "ReLU"
  bottom: "conv1"
  top: "conv1"
}
layer {
  name: "pool1"
  type: "Pooling"
  bottom: "conv1"
  top: "pool1"
  pooling_param {
    pool: MAX
    kernel_size: 2
    stride: 2
  }
}
layer {
  name: "conv2"
  type: "Convolution"
  bottom: "pool1"
  top: "conv2"
  convolution_param {
    num_output: 150
    pad: 0
    kernel_size: 4
    group: 1
    stride: 1
    weight_filler {
      type: "xavier"
    }
  }
}
layer {
  name: "conv2_relu"
  type: "ReLU"
  bottom: "conv2"
  top: "conv2"
}
layer {
  name: "pool2"
  type: "Pooling"
  bottom: "conv2"
  top: "pool2"
  pooling_param {
    pool: MAX
    kernel_size: 2
    stride: 2
  }
}
layer {
  name: "conv3"
  type: "Convolution"
  bottom: "pool2"
  top: "conv3"
  convolution_param {
    num_output: 250
    pad: 0
    kernel_size: 4
    group: 1
    stride: 1
    weight_filler {
      type: "xavier"
    }
  }
}
layer {
  name: "conv3_relu"
  type: "ReLU"
  bottom: "conv3"
  top: "conv3"
}
layer {
  name: "pool3"
  type: "Pooling"
  bottom: "conv3"
  top: "pool3"
  pooling_param {
    pool: MAX
    kernel_size: 2
    stride: 2
  }
}
layer {
  name: "fc4_300"
  type: "InnerProduct"
  bottom: "pool3"
  top: "fc4_300"
  inner_product_param {
    num_output: 300
    weight_filler {
      type: "xavier"
    }
  }
}
layer {
  name: "fc4_relu"
  type: "ReLU"
  bottom: "fc4_300"
  top: "fc4_300"
}
layer {
  name: "fc5_106"
  type: "InnerProduct"
  bottom: "fc4_300"
  top: "fc5_classes"
  inner_product_param {
    num_output: 106
    weight_filler {
      type: "xavier"
    }
  }
}
layer {
  name: "softmax"
  type: "Softmax"
  bottom: "fc5_classes"
  top: "softmax"
}
layer {
  name: "loss"
  type: "MultinomialLogisticLoss"
  bottom: "softmax"
  bottom: "label"
  top: "loss"
}
layer {
  name: "accuracy_1"
  type: "Accuracy"
  bottom: "fc5_classes"
  bottom: "label"
  top: "accuracy_1"
  accuracy_param {
    top_k: 1
  }
}
layer {
  name: "accuracy_5"
  type: "Accuracy"
  bottom: "fc5_classes"
  bottom: "label"
  top: "accuracy_5"
  accuracy_param {
    top_k: 5
  }
}
layer {
  name: "silence"
  type: "Silence"
  bottom: "accuracy_1"
  bottom: "accuracy_5"
}
I0415 00:25:18.490408  1299 layer_factory.hpp:77] Creating layer data
I0415 00:25:18.491484  1299 net.cpp:100] Creating Layer data
I0415 00:25:18.491502  1299 net.cpp:408] data -> data
I0415 00:25:18.491525  1299 net.cpp:408] data -> label
I0415 00:25:18.551769  1400 db_lmdb.cpp:35] Opened lmdb ../local_data/lmdb/rtsd-r3/imajust/train/lmdb
I0415 00:25:18.584446  1299 data_layer.cpp:41] output data size: 1024,3,48,48
I0415 00:25:18.646714  1299 net.cpp:150] Setting up data
I0415 00:25:18.646802  1299 net.cpp:157] Top shape: 1024 3 48 48 (7077888)
I0415 00:25:18.646814  1299 net.cpp:157] Top shape: 1024 (1024)
I0415 00:25:18.646821  1299 net.cpp:165] Memory required for data: 28315648
I0415 00:25:18.646841  1299 layer_factory.hpp:77] Creating layer label_data_1_split
I0415 00:25:18.646867  1299 net.cpp:100] Creating Layer label_data_1_split
I0415 00:25:18.646880  1299 net.cpp:434] label_data_1_split <- label
I0415 00:25:18.646905  1299 net.cpp:408] label_data_1_split -> label_data_1_split_0
I0415 00:25:18.646926  1299 net.cpp:408] label_data_1_split -> label_data_1_split_1
I0415 00:25:18.646937  1299 net.cpp:408] label_data_1_split -> label_data_1_split_2
I0415 00:25:18.647030  1299 net.cpp:150] Setting up label_data_1_split
I0415 00:25:18.647042  1299 net.cpp:157] Top shape: 1024 (1024)
I0415 00:25:18.647047  1299 net.cpp:157] Top shape: 1024 (1024)
I0415 00:25:18.647050  1299 net.cpp:157] Top shape: 1024 (1024)
I0415 00:25:18.647053  1299 net.cpp:165] Memory required for data: 28327936
I0415 00:25:18.647058  1299 layer_factory.hpp:77] Creating layer conv1
I0415 00:25:18.647081  1299 net.cpp:100] Creating Layer conv1
I0415 00:25:18.647088  1299 net.cpp:434] conv1 <- data
I0415 00:25:18.647095  1299 net.cpp:408] conv1 -> conv1
I0415 00:25:18.719388  1419 blocking_queue.cpp:50] Waiting for data
I0415 00:25:19.099112  1299 net.cpp:150] Setting up conv1
I0415 00:25:19.099138  1299 net.cpp:157] Top shape: 1024 100 42 42 (180633600)
I0415 00:25:19.099143  1299 net.cpp:165] Memory required for data: 750862336
I0415 00:25:19.099167  1299 layer_factory.hpp:77] Creating layer conv1_relu
I0415 00:25:19.099179  1299 net.cpp:100] Creating Layer conv1_relu
I0415 00:25:19.099182  1299 net.cpp:434] conv1_relu <- conv1
I0415 00:25:19.099190  1299 net.cpp:395] conv1_relu -> conv1 (in-place)
I0415 00:25:19.099396  1299 net.cpp:150] Setting up conv1_relu
I0415 00:25:19.099409  1299 net.cpp:157] Top shape: 1024 100 42 42 (180633600)
I0415 00:25:19.099413  1299 net.cpp:165] Memory required for data: 1473396736
I0415 00:25:19.099417  1299 layer_factory.hpp:77] Creating layer pool1
I0415 00:25:19.099427  1299 net.cpp:100] Creating Layer pool1
I0415 00:25:19.099432  1299 net.cpp:434] pool1 <- conv1
I0415 00:25:19.099438  1299 net.cpp:408] pool1 -> pool1
I0415 00:25:19.099493  1299 net.cpp:150] Setting up pool1
I0415 00:25:19.099501  1299 net.cpp:157] Top shape: 1024 100 21 21 (45158400)
I0415 00:25:19.099504  1299 net.cpp:165] Memory required for data: 1654030336
I0415 00:25:19.099508  1299 layer_factory.hpp:77] Creating layer conv2
I0415 00:25:19.099519  1299 net.cpp:100] Creating Layer conv2
I0415 00:25:19.099524  1299 net.cpp:434] conv2 <- pool1
I0415 00:25:19.099529  1299 net.cpp:408] conv2 -> conv2
I0415 00:25:19.119074  1299 net.cpp:150] Setting up conv2
I0415 00:25:19.119112  1299 net.cpp:157] Top shape: 1024 150 18 18 (49766400)
I0415 00:25:19.119117  1299 net.cpp:165] Memory required for data: 1853095936
I0415 00:25:19.119132  1299 layer_factory.hpp:77] Creating layer conv2_relu
I0415 00:25:19.119140  1299 net.cpp:100] Creating Layer conv2_relu
I0415 00:25:19.119144  1299 net.cpp:434] conv2_relu <- conv2
I0415 00:25:19.119150  1299 net.cpp:395] conv2_relu -> conv2 (in-place)
I0415 00:25:19.120725  1299 net.cpp:150] Setting up conv2_relu
I0415 00:25:19.120770  1299 net.cpp:157] Top shape: 1024 150 18 18 (49766400)
I0415 00:25:19.120779  1299 net.cpp:165] Memory required for data: 2052161536
I0415 00:25:19.120787  1299 layer_factory.hpp:77] Creating layer pool2
I0415 00:25:19.120805  1299 net.cpp:100] Creating Layer pool2
I0415 00:25:19.120815  1299 net.cpp:434] pool2 <- conv2
I0415 00:25:19.120824  1299 net.cpp:408] pool2 -> pool2
I0415 00:25:19.120928  1299 net.cpp:150] Setting up pool2
I0415 00:25:19.120946  1299 net.cpp:157] Top shape: 1024 150 9 9 (12441600)
I0415 00:25:19.120955  1299 net.cpp:165] Memory required for data: 2101927936
I0415 00:25:19.120965  1299 layer_factory.hpp:77] Creating layer conv3
I0415 00:25:19.120990  1299 net.cpp:100] Creating Layer conv3
I0415 00:25:19.121037  1299 net.cpp:434] conv3 <- pool2
I0415 00:25:19.121054  1299 net.cpp:408] conv3 -> conv3
I0415 00:25:19.127310  1299 net.cpp:150] Setting up conv3
I0415 00:25:19.127327  1299 net.cpp:157] Top shape: 1024 250 6 6 (9216000)
I0415 00:25:19.127331  1299 net.cpp:165] Memory required for data: 2138791936
I0415 00:25:19.127342  1299 layer_factory.hpp:77] Creating layer conv3_relu
I0415 00:25:19.127349  1299 net.cpp:100] Creating Layer conv3_relu
I0415 00:25:19.127353  1299 net.cpp:434] conv3_relu <- conv3
I0415 00:25:19.127358  1299 net.cpp:395] conv3_relu -> conv3 (in-place)
I0415 00:25:19.129391  1299 net.cpp:150] Setting up conv3_relu
I0415 00:25:19.129423  1299 net.cpp:157] Top shape: 1024 250 6 6 (9216000)
I0415 00:25:19.129431  1299 net.cpp:165] Memory required for data: 2175655936
I0415 00:25:19.129438  1299 layer_factory.hpp:77] Creating layer pool3
I0415 00:25:19.129451  1299 net.cpp:100] Creating Layer pool3
I0415 00:25:19.129463  1299 net.cpp:434] pool3 <- conv3
I0415 00:25:19.129470  1299 net.cpp:408] pool3 -> pool3
I0415 00:25:19.129565  1299 net.cpp:150] Setting up pool3
I0415 00:25:19.129580  1299 net.cpp:157] Top shape: 1024 250 3 3 (2304000)
I0415 00:25:19.129590  1299 net.cpp:165] Memory required for data: 2184871936
I0415 00:25:19.129593  1299 layer_factory.hpp:77] Creating layer fc4_300
I0415 00:25:19.129609  1299 net.cpp:100] Creating Layer fc4_300
I0415 00:25:19.129618  1299 net.cpp:434] fc4_300 <- pool3
I0415 00:25:19.129627  1299 net.cpp:408] fc4_300 -> fc4_300
I0415 00:25:19.137907  1299 net.cpp:150] Setting up fc4_300
I0415 00:25:19.137938  1299 net.cpp:157] Top shape: 1024 300 (307200)
I0415 00:25:19.137945  1299 net.cpp:165] Memory required for data: 2186100736
I0415 00:25:19.137974  1299 layer_factory.hpp:77] Creating layer fc4_relu
I0415 00:25:19.137991  1299 net.cpp:100] Creating Layer fc4_relu
I0415 00:25:19.137998  1299 net.cpp:434] fc4_relu <- fc4_300
I0415 00:25:19.138010  1299 net.cpp:395] fc4_relu -> fc4_300 (in-place)
I0415 00:25:19.138408  1299 net.cpp:150] Setting up fc4_relu
I0415 00:25:19.138432  1299 net.cpp:157] Top shape: 1024 300 (307200)
I0415 00:25:19.138439  1299 net.cpp:165] Memory required for data: 2187329536
I0415 00:25:19.138445  1299 layer_factory.hpp:77] Creating layer fc5_106
I0415 00:25:19.138460  1299 net.cpp:100] Creating Layer fc5_106
I0415 00:25:19.138470  1299 net.cpp:434] fc5_106 <- fc4_300
I0415 00:25:19.138479  1299 net.cpp:408] fc5_106 -> fc5_classes
I0415 00:25:19.140499  1299 net.cpp:150] Setting up fc5_106
I0415 00:25:19.140516  1299 net.cpp:157] Top shape: 1024 106 (108544)
I0415 00:25:19.140519  1299 net.cpp:165] Memory required for data: 2187763712
I0415 00:25:19.140542  1299 layer_factory.hpp:77] Creating layer fc5_classes_fc5_106_0_split
I0415 00:25:19.140552  1299 net.cpp:100] Creating Layer fc5_classes_fc5_106_0_split
I0415 00:25:19.140555  1299 net.cpp:434] fc5_classes_fc5_106_0_split <- fc5_classes
I0415 00:25:19.140561  1299 net.cpp:408] fc5_classes_fc5_106_0_split -> fc5_classes_fc5_106_0_split_0
I0415 00:25:19.140569  1299 net.cpp:408] fc5_classes_fc5_106_0_split -> fc5_classes_fc5_106_0_split_1
I0415 00:25:19.140578  1299 net.cpp:408] fc5_classes_fc5_106_0_split -> fc5_classes_fc5_106_0_split_2
I0415 00:25:19.140628  1299 net.cpp:150] Setting up fc5_classes_fc5_106_0_split
I0415 00:25:19.140636  1299 net.cpp:157] Top shape: 1024 106 (108544)
I0415 00:25:19.140640  1299 net.cpp:157] Top shape: 1024 106 (108544)
I0415 00:25:19.140645  1299 net.cpp:157] Top shape: 1024 106 (108544)
I0415 00:25:19.140646  1299 net.cpp:165] Memory required for data: 2189066240
I0415 00:25:19.140650  1299 layer_factory.hpp:77] Creating layer softmax
I0415 00:25:19.140655  1299 net.cpp:100] Creating Layer softmax
I0415 00:25:19.140660  1299 net.cpp:434] softmax <- fc5_classes_fc5_106_0_split_0
I0415 00:25:19.140666  1299 net.cpp:408] softmax -> softmax
I0415 00:25:19.140918  1299 net.cpp:150] Setting up softmax
I0415 00:25:19.140930  1299 net.cpp:157] Top shape: 1024 106 (108544)
I0415 00:25:19.140934  1299 net.cpp:165] Memory required for data: 2189500416
I0415 00:25:19.140954  1299 layer_factory.hpp:77] Creating layer loss
I0415 00:25:19.140964  1299 net.cpp:100] Creating Layer loss
I0415 00:25:19.140969  1299 net.cpp:434] loss <- softmax
I0415 00:25:19.140974  1299 net.cpp:434] loss <- label_data_1_split_0
I0415 00:25:19.140980  1299 net.cpp:408] loss -> loss
…
