…
I0402 04:33:37.750001 12513 net.cpp:322] The NetState phase (0) differed from the phase (1) specified by a rule in layer accuracy_5
I0402 04:33:37.750092 12513 net.cpp:58] Initializing net from parameters: 
state {
  phase: TRAIN
  level: 0
  stage: ""
}
layer {
  name: "data"
  type: "Data"
  top: "data"
  top: "label"
  include {
    phase: TRAIN
  }
  transform_param {
    mirror: false
    crop_size: 48
    mean_value: 133
    mean_value: 126
    mean_value: 125
  }
  data_param {
    source: "../local_data/lmdb/rtsd-r3/AHE/train/lmdb"
    batch_size: 1024
    backend: LMDB
  }
}
layer {
  name: "conv1"
  type: "Convolution"
  bottom: "data"
  top: "conv1"
  convolution_param {
    num_output: 100
    pad: 0
    kernel_size: 7
    group: 1
    stride: 1
    weight_filler {
      type: "xavier"
    }
  }
}
layer {
  name: "conv1_relu"
  type: "ReLU"
  bottom: "conv1"
  top: "conv1"
}
layer {
  name: "pool1"
  type: "Pooling"
  bottom: "conv1"
  top: "pool1"
  pooling_param {
    pool: MAX
    kernel_size: 2
    stride: 2
  }
}
layer {
  name: "conv2"
  type: "Convolution"
  bottom: "pool1"
  top: "conv2"
  convolution_param {
    num_output: 150
    pad: 0
    kernel_size: 4
    group: 1
    stride: 1
    weight_filler {
      type: "xavier"
    }
  }
}
layer {
  name: "conv2_relu"
  type: "ReLU"
  bottom: "conv2"
  top: "conv2"
}
layer {
  name: "pool2"
  type: "Pooling"
  bottom: "conv2"
  top: "pool2"
  pooling_param {
    pool: MAX
    kernel_size: 2
    stride: 2
  }
}
layer {
  name: "conv3"
  type: "Convolution"
  bottom: "pool2"
  top: "conv3"
  convolution_param {
    num_output: 250
    pad: 0
    kernel_size: 4
    group: 1
    stride: 1
    weight_filler {
      type: "xavier"
    }
  }
}
layer {
  name: "conv3_relu"
  type: "ReLU"
  bottom: "conv3"
  top: "conv3"
}
layer {
  name: "pool3"
  type: "Pooling"
  bottom: "conv3"
  top: "pool3"
  pooling_param {
    pool: MAX
    kernel_size: 2
    stride: 2
  }
}
layer {
  name: "fc4_300"
  type: "InnerProduct"
  bottom: "pool3"
  top: "fc4_300"
  inner_product_param {
    num_output: 300
    weight_filler {
      type: "xavier"
    }
  }
}
layer {
  name: "fc4_relu"
  type: "ReLU"
  bottom: "fc4_300"
  top: "fc4_300"
}
layer {
  name: "drop4"
  type: "Dropout"
  bottom: "fc4_300"
  top: "fc4_300"
  dropout_param {
    dropout_ratio: 0.4
  }
}
layer {
  name: "fc5_106"
  type: "InnerProduct"
  bottom: "fc4_300"
  top: "fc5_classes"
  inner_product_param {
    num_output: 106
    weight_filler {
      type: "xavier"
    }
  }
}
layer {
  name: "loss"
  type: "SoftmaxWithLoss"
  bottom: "fc5_classes"
  bottom: "label"
  top: "loss"
}
I0402 04:33:37.750174 12513 layer_factory.hpp:77] Creating layer data
I0402 04:33:37.751255 12513 net.cpp:100] Creating Layer data
I0402 04:33:37.751268 12513 net.cpp:408] data -> data
I0402 04:33:37.751303 12513 net.cpp:408] data -> label
I0402 04:33:37.753386 12565 db_lmdb.cpp:35] Opened lmdb ../local_data/lmdb/rtsd-r3/AHE/train/lmdb
I0402 04:33:37.769984 12513 data_layer.cpp:41] output data size: 1024,3,48,48
I0402 04:33:37.811832 12513 net.cpp:150] Setting up data
I0402 04:33:37.811863 12513 net.cpp:157] Top shape: 1024 3 48 48 (7077888)
I0402 04:33:37.811868 12513 net.cpp:157] Top shape: 1024 (1024)
I0402 04:33:37.811872 12513 net.cpp:165] Memory required for data: 28315648
I0402 04:33:37.811910 12513 layer_factory.hpp:77] Creating layer conv1
I0402 04:33:37.811933 12513 net.cpp:100] Creating Layer conv1
I0402 04:33:37.811941 12513 net.cpp:434] conv1 <- data
I0402 04:33:37.811954 12513 net.cpp:408] conv1 -> conv1
I0402 04:33:38.075208 12513 net.cpp:150] Setting up conv1
I0402 04:33:38.075249 12513 net.cpp:157] Top shape: 1024 100 42 42 (180633600)
I0402 04:33:38.075253 12513 net.cpp:165] Memory required for data: 750850048
I0402 04:33:38.075275 12513 layer_factory.hpp:77] Creating layer conv1_relu
I0402 04:33:38.075299 12513 net.cpp:100] Creating Layer conv1_relu
I0402 04:33:38.075304 12513 net.cpp:434] conv1_relu <- conv1
I0402 04:33:38.075309 12513 net.cpp:395] conv1_relu -> conv1 (in-place)
I0402 04:33:38.075497 12513 net.cpp:150] Setting up conv1_relu
I0402 04:33:38.075510 12513 net.cpp:157] Top shape: 1024 100 42 42 (180633600)
I0402 04:33:38.075512 12513 net.cpp:165] Memory required for data: 1473384448
I0402 04:33:38.075516 12513 layer_factory.hpp:77] Creating layer pool1
I0402 04:33:38.075523 12513 net.cpp:100] Creating Layer pool1
I0402 04:33:38.075526 12513 net.cpp:434] pool1 <- conv1
I0402 04:33:38.075531 12513 net.cpp:408] pool1 -> pool1
I0402 04:33:38.075582 12513 net.cpp:150] Setting up pool1
I0402 04:33:38.075589 12513 net.cpp:157] Top shape: 1024 100 21 21 (45158400)
I0402 04:33:38.075592 12513 net.cpp:165] Memory required for data: 1654018048
I0402 04:33:38.075595 12513 layer_factory.hpp:77] Creating layer conv2
I0402 04:33:38.075606 12513 net.cpp:100] Creating Layer conv2
I0402 04:33:38.075609 12513 net.cpp:434] conv2 <- pool1
I0402 04:33:38.075613 12513 net.cpp:408] conv2 -> conv2
I0402 04:33:38.080222 12513 net.cpp:150] Setting up conv2
I0402 04:33:38.080268 12513 net.cpp:157] Top shape: 1024 150 18 18 (49766400)
I0402 04:33:38.080273 12513 net.cpp:165] Memory required for data: 1853083648
I0402 04:33:38.080283 12513 layer_factory.hpp:77] Creating layer conv2_relu
I0402 04:33:38.080302 12513 net.cpp:100] Creating Layer conv2_relu
I0402 04:33:38.080304 12513 net.cpp:434] conv2_relu <- conv2
I0402 04:33:38.080322 12513 net.cpp:395] conv2_relu -> conv2 (in-place)
I0402 04:33:38.081077 12513 net.cpp:150] Setting up conv2_relu
I0402 04:33:38.081094 12513 net.cpp:157] Top shape: 1024 150 18 18 (49766400)
I0402 04:33:38.081096 12513 net.cpp:165] Memory required for data: 2052149248
I0402 04:33:38.081111 12513 layer_factory.hpp:77] Creating layer pool2
I0402 04:33:38.081117 12513 net.cpp:100] Creating Layer pool2
I0402 04:33:38.081120 12513 net.cpp:434] pool2 <- conv2
I0402 04:33:38.081137 12513 net.cpp:408] pool2 -> pool2
I0402 04:33:38.081192 12513 net.cpp:150] Setting up pool2
I0402 04:33:38.081200 12513 net.cpp:157] Top shape: 1024 150 9 9 (12441600)
I0402 04:33:38.081203 12513 net.cpp:165] Memory required for data: 2101915648
I0402 04:33:38.081207 12513 layer_factory.hpp:77] Creating layer conv3
I0402 04:33:38.081215 12513 net.cpp:100] Creating Layer conv3
I0402 04:33:38.081218 12513 net.cpp:434] conv3 <- pool2
I0402 04:33:38.081223 12513 net.cpp:408] conv3 -> conv3
I0402 04:33:38.086462 12513 net.cpp:150] Setting up conv3
I0402 04:33:38.086489 12513 net.cpp:157] Top shape: 1024 250 6 6 (9216000)
I0402 04:33:38.086493 12513 net.cpp:165] Memory required for data: 2138779648
I0402 04:33:38.086501 12513 layer_factory.hpp:77] Creating layer conv3_relu
I0402 04:33:38.086509 12513 net.cpp:100] Creating Layer conv3_relu
I0402 04:33:38.086513 12513 net.cpp:434] conv3_relu <- conv3
I0402 04:33:38.086516 12513 net.cpp:395] conv3_relu -> conv3 (in-place)
I0402 04:33:38.087288 12513 net.cpp:150] Setting up conv3_relu
I0402 04:33:38.087306 12513 net.cpp:157] Top shape: 1024 250 6 6 (9216000)
I0402 04:33:38.087308 12513 net.cpp:165] Memory required for data: 2175643648
I0402 04:33:38.087312 12513 layer_factory.hpp:77] Creating layer pool3
I0402 04:33:38.087319 12513 net.cpp:100] Creating Layer pool3
I0402 04:33:38.087323 12513 net.cpp:434] pool3 <- conv3
I0402 04:33:38.087330 12513 net.cpp:408] pool3 -> pool3
I0402 04:33:38.087376 12513 net.cpp:150] Setting up pool3
I0402 04:33:38.087400 12513 net.cpp:157] Top shape: 1024 250 3 3 (2304000)
I0402 04:33:38.087404 12513 net.cpp:165] Memory required for data: 2184859648
I0402 04:33:38.087407 12513 layer_factory.hpp:77] Creating layer fc4_300
I0402 04:33:38.087414 12513 net.cpp:100] Creating Layer fc4_300
I0402 04:33:38.087419 12513 net.cpp:434] fc4_300 <- pool3
I0402 04:33:38.087424 12513 net.cpp:408] fc4_300 -> fc4_300
I0402 04:33:38.092485 12513 net.cpp:150] Setting up fc4_300
I0402 04:33:38.092512 12513 net.cpp:157] Top shape: 1024 300 (307200)
I0402 04:33:38.092515 12513 net.cpp:165] Memory required for data: 2186088448
I0402 04:33:38.092522 12513 layer_factory.hpp:77] Creating layer fc4_relu
I0402 04:33:38.092528 12513 net.cpp:100] Creating Layer fc4_relu
I0402 04:33:38.092532 12513 net.cpp:434] fc4_relu <- fc4_300
I0402 04:33:38.092537 12513 net.cpp:395] fc4_relu -> fc4_300 (in-place)
I0402 04:33:38.092790 12513 net.cpp:150] Setting up fc4_relu
I0402 04:33:38.092809 12513 net.cpp:157] Top shape: 1024 300 (307200)
I0402 04:33:38.092814 12513 net.cpp:165] Memory required for data: 2187317248
I0402 04:33:38.092820 12513 layer_factory.hpp:77] Creating layer drop4
I0402 04:33:38.092830 12513 net.cpp:100] Creating Layer drop4
I0402 04:33:38.092839 12513 net.cpp:434] drop4 <- fc4_300
I0402 04:33:38.092847 12513 net.cpp:395] drop4 -> fc4_300 (in-place)
I0402 04:33:38.092895 12513 net.cpp:150] Setting up drop4
I0402 04:33:38.092911 12513 net.cpp:157] Top shape: 1024 300 (307200)
I0402 04:33:38.092916 12513 net.cpp:165] Memory required for data: 2188546048
I0402 04:33:38.092921 12513 layer_factory.hpp:77] Creating layer fc5_106
I0402 04:33:38.092931 12513 net.cpp:100] Creating Layer fc5_106
I0402 04:33:38.092939 12513 net.cpp:434] fc5_106 <- fc4_300
I0402 04:33:38.092947 12513 net.cpp:408] fc5_106 -> fc5_classes
I0402 04:33:38.094250 12513 net.cpp:150] Setting up fc5_106
I0402 04:33:38.094264 12513 net.cpp:157] Top shape: 1024 106 (108544)
I0402 04:33:38.094280 12513 net.cpp:165] Memory required for data: 2188980224
I0402 04:33:38.094290 12513 layer_factory.hpp:77] Creating layer loss
I0402 04:33:38.094295 12513 net.cpp:100] Creating Layer loss
I0402 04:33:38.094300 12513 net.cpp:434] loss <- fc5_classes
I0402 04:33:38.094303 12513 net.cpp:434] loss <- label
I0402 04:33:38.094308 12513 net.cpp:408] loss -> loss
I0402 04:33:38.094331 12513 layer_factory.hpp:77] Creating layer loss
…
I0402 04:33:38.095011 12513 solver.cpp:193] Creating test net (#0) specified by test_net file: ./Prototxt/rtsd-r3/AHE/test.prototxt
I0402 04:33:38.095149 12513 net.cpp:58] Initializing net from parameters: 
state {
  phase: TEST
}
layer {
  name: "data"
  type: "Data"
  top: "data"
  top: "label"
  include {
    phase: TEST
  }
  transform_param {
    mirror: false
    crop_size: 48
    mean_value: 129
    mean_value: 124
    mean_value: 125
  }
  data_param {
    source: "../local_data/lmdb/rtsd-r3/AHE/test/lmdb"
    batch_size: 1024
    backend: LMDB
  }
}
layer {
  name: "conv1"
  type: "Convolution"
  bottom: "data"
  top: "conv1"
  convolution_param {
    num_output: 100
    pad: 0
    kernel_size: 7
    group: 1
    stride: 1
    weight_filler {
      type: "xavier"
    }
  }
}
layer {
  name: "conv1_relu"
  type: "ReLU"
  bottom: "conv1"
  top: "conv1"
}
layer {
  name: "pool1"
  type: "Pooling"
  bottom: "conv1"
  top: "pool1"
  pooling_param {
    pool: MAX
    kernel_size: 2
    stride: 2
  }
}
layer {
  name: "conv2"
  type: "Convolution"
  bottom: "pool1"
  top: "conv2"
  convolution_param {
    num_output: 150
    pad: 0
    kernel_size: 4
    group: 1
    stride: 1
    weight_filler {
      type: "xavier"
    }
  }
}
layer {
  name: "conv2_relu"
  type: "ReLU"
  bottom: "conv2"
  top: "conv2"
}
layer {
  name: "pool2"
  type: "Pooling"
  bottom: "conv2"
  top: "pool2"
  pooling_param {
    pool: MAX
    kernel_size: 2
    stride: 2
  }
}
layer {
  name: "conv3"
  type: "Convolution"
  bottom: "pool2"
  top: "conv3"
  convolution_param {
    num_output: 250
    pad: 0
    kernel_size: 4
    group: 1
    stride: 1
    weight_filler {
      type: "xavier"
    }
  }
}
layer {
  name: "conv3_relu"
  type: "ReLU"
  bottom: "conv3"
  top: "conv3"
}
layer {
  name: "pool3"
  type: "Pooling"
  bottom: "conv3"
  top: "pool3"
  pooling_param {
    pool: MAX
    kernel_size: 2
    stride: 2
  }
}
layer {
  name: "fc4_300"
  type: "InnerProduct"
  bottom: "pool3"
  top: "fc4_300"
  inner_product_param {
    num_output: 300
    weight_filler {
      type: "xavier"
    }
  }
}
layer {
  name: "fc4_relu"
  type: "ReLU"
  bottom: "fc4_300"
  top: "fc4_300"
}
layer {
  name: "drop4"
  type: "Dropout"
  bottom: "fc4_300"
  top: "fc4_300"
  dropout_param {
    dropout_ratio: 0.4
  }
}
layer {
  name: "fc5_106"
  type: "InnerProduct"
  bottom: "fc4_300"
  top: "fc5_classes"
  inner_product_param {
    num_output: 106
    weight_filler {
      type: "xavier"
    }
  }
}
layer {
  name: "loss"
  type: "SoftmaxWithLoss"
  bottom: "fc5_classes"
  bottom: "label"
  top: "loss"
}
layer {
  name: "accuracy_1"
  type: "Accuracy"
  bottom: "fc5_classes"
  bottom: "label"
  top: "accuracy_1"
  include {
    phase: TEST
  }
  accuracy_param {
    top_k: 1
  }
}
layer {
  name: "accuracy_5"
  type: "Accuracy"
  bottom: "fc5_classes"
  bottom: "label"
  top: "accuracy_5"
  include {
    phase: TEST
  }
  accuracy_param {
    top_k: 5
  }
}
I0402 04:33:38.095235 12513 layer_factory.hpp:77] Creating layer data
I0402 04:33:38.095896 12513 net.cpp:100] Creating Layer data
I0402 04:33:38.095907 12513 net.cpp:408] data -> data
I0402 04:33:38.095916 12513 net.cpp:408] data -> label
I0402 04:33:38.097584 12573 db_lmdb.cpp:35] Opened lmdb ../local_data/lmdb/rtsd-r3/AHE/test/lmdb
I0402 04:33:38.097779 12513 data_layer.cpp:41] output data size: 1024,3,48,48
I0402 04:33:38.144652 12513 net.cpp:150] Setting up data
I0402 04:33:38.144692 12513 net.cpp:157] Top shape: 1024 3 48 48 (7077888)
I0402 04:33:38.144698 12513 net.cpp:157] Top shape: 1024 (1024)
I0402 04:33:38.144701 12513 net.cpp:165] Memory required for data: 28315648
I0402 04:33:38.144707 12513 layer_factory.hpp:77] Creating layer label_data_1_split
I0402 04:33:38.144722 12513 net.cpp:100] Creating Layer label_data_1_split
I0402 04:33:38.144726 12513 net.cpp:434] label_data_1_split <- label
I0402 04:33:38.144733 12513 net.cpp:408] label_data_1_split -> label_data_1_split_0
I0402 04:33:38.144743 12513 net.cpp:408] label_data_1_split -> label_data_1_split_1
I0402 04:33:38.144749 12513 net.cpp:408] label_data_1_split -> label_data_1_split_2
I0402 04:33:38.144879 12513 net.cpp:150] Setting up label_data_1_split
I0402 04:33:38.144907 12513 net.cpp:157] Top shape: 1024 (1024)
I0402 04:33:38.144912 12513 net.cpp:157] Top shape: 1024 (1024)
I0402 04:33:38.144915 12513 net.cpp:157] Top shape: 1024 (1024)
I0402 04:33:38.144917 12513 net.cpp:165] Memory required for data: 28327936
I0402 04:33:38.144920 12513 layer_factory.hpp:77] Creating layer conv1
I0402 04:33:38.144935 12513 net.cpp:100] Creating Layer conv1
I0402 04:33:38.144938 12513 net.cpp:434] conv1 <- data
I0402 04:33:38.144944 12513 net.cpp:408] conv1 -> conv1
I0402 04:33:38.148874 12513 net.cpp:150] Setting up conv1
I0402 04:33:38.148893 12513 net.cpp:157] Top shape: 1024 100 42 42 (180633600)
I0402 04:33:38.148897 12513 net.cpp:165] Memory required for data: 750862336
I0402 04:33:38.148910 12513 layer_factory.hpp:77] Creating layer conv1_relu
I0402 04:33:38.148918 12513 net.cpp:100] Creating Layer conv1_relu
I0402 04:33:38.148922 12513 net.cpp:434] conv1_relu <- conv1
I0402 04:33:38.148927 12513 net.cpp:395] conv1_relu -> conv1 (in-place)
I0402 04:33:38.149128 12513 net.cpp:150] Setting up conv1_relu
I0402 04:33:38.149140 12513 net.cpp:157] Top shape: 1024 100 42 42 (180633600)
I0402 04:33:38.149143 12513 net.cpp:165] Memory required for data: 1473396736
I0402 04:33:38.149147 12513 layer_factory.hpp:77] Creating layer pool1
I0402 04:33:38.149157 12513 net.cpp:100] Creating Layer pool1
I0402 04:33:38.149160 12513 net.cpp:434] pool1 <- conv1
I0402 04:33:38.149165 12513 net.cpp:408] pool1 -> pool1
I0402 04:33:38.149216 12513 net.cpp:150] Setting up pool1
I0402 04:33:38.149224 12513 net.cpp:157] Top shape: 1024 100 21 21 (45158400)
I0402 04:33:38.149227 12513 net.cpp:165] Memory required for data: 1654030336
I0402 04:33:38.149230 12513 layer_factory.hpp:77] Creating layer conv2
I0402 04:33:38.149240 12513 net.cpp:100] Creating Layer conv2
I0402 04:33:38.149243 12513 net.cpp:434] conv2 <- pool1
I0402 04:33:38.149250 12513 net.cpp:408] conv2 -> conv2
I0402 04:33:38.153200 12513 net.cpp:150] Setting up conv2
I0402 04:33:38.153228 12513 net.cpp:157] Top shape: 1024 150 18 18 (49766400)
I0402 04:33:38.153231 12513 net.cpp:165] Memory required for data: 1853095936
I0402 04:33:38.153240 12513 layer_factory.hpp:77] Creating layer conv2_relu
I0402 04:33:38.153247 12513 net.cpp:100] Creating Layer conv2_relu
I0402 04:33:38.153250 12513 net.cpp:434] conv2_relu <- conv2
I0402 04:33:38.153256 12513 net.cpp:395] conv2_relu -> conv2 (in-place)
I0402 04:33:38.154084 12513 net.cpp:150] Setting up conv2_relu
I0402 04:33:38.154100 12513 net.cpp:157] Top shape: 1024 150 18 18 (49766400)
I0402 04:33:38.154103 12513 net.cpp:165] Memory required for data: 2052161536
I0402 04:33:38.154106 12513 layer_factory.hpp:77] Creating layer pool2
I0402 04:33:38.154114 12513 net.cpp:100] Creating Layer pool2
I0402 04:33:38.154116 12513 net.cpp:434] pool2 <- conv2
I0402 04:33:38.154124 12513 net.cpp:408] pool2 -> pool2
I0402 04:33:38.154187 12513 net.cpp:150] Setting up pool2
I0402 04:33:38.154198 12513 net.cpp:157] Top shape: 1024 150 9 9 (12441600)
I0402 04:33:38.154201 12513 net.cpp:165] Memory required for data: 2101927936
I0402 04:33:38.154206 12513 layer_factory.hpp:77] Creating layer conv3
I0402 04:33:38.154220 12513 net.cpp:100] Creating Layer conv3
I0402 04:33:38.154225 12513 net.cpp:434] conv3 <- pool2
I0402 04:33:38.154232 12513 net.cpp:408] conv3 -> conv3
I0402 04:33:38.159756 12513 net.cpp:150] Setting up conv3
I0402 04:33:38.159780 12513 net.cpp:157] Top shape: 1024 250 6 6 (9216000)
I0402 04:33:38.159783 12513 net.cpp:165] Memory required for data: 2138791936
I0402 04:33:38.159793 12513 layer_factory.hpp:77] Creating layer conv3_relu
I0402 04:33:38.159801 12513 net.cpp:100] Creating Layer conv3_relu
I0402 04:33:38.159803 12513 net.cpp:434] conv3_relu <- conv3
I0402 04:33:38.159808 12513 net.cpp:395] conv3_relu -> conv3 (in-place)
I0402 04:33:38.160645 12513 net.cpp:150] Setting up conv3_relu
I0402 04:33:38.160661 12513 net.cpp:157] Top shape: 1024 250 6 6 (9216000)
I0402 04:33:38.160665 12513 net.cpp:165] Memory required for data: 2175655936
I0402 04:33:38.160668 12513 layer_factory.hpp:77] Creating layer pool3
I0402 04:33:38.160693 12513 net.cpp:100] Creating Layer pool3
I0402 04:33:38.160697 12513 net.cpp:434] pool3 <- conv3
I0402 04:33:38.160704 12513 net.cpp:408] pool3 -> pool3
I0402 04:33:38.160758 12513 net.cpp:150] Setting up pool3
I0402 04:33:38.160768 12513 net.cpp:157] Top shape: 1024 250 3 3 (2304000)
I0402 04:33:38.160770 12513 net.cpp:165] Memory required for data: 2184871936
I0402 04:33:38.160773 12513 layer_factory.hpp:77] Creating layer fc4_300
I0402 04:33:38.160782 12513 net.cpp:100] Creating Layer fc4_300
I0402 04:33:38.160785 12513 net.cpp:434] fc4_300 <- pool3
I0402 04:33:38.160790 12513 net.cpp:408] fc4_300 -> fc4_300
I0402 04:33:38.166084 12513 net.cpp:150] Setting up fc4_300
I0402 04:33:38.166111 12513 net.cpp:157] Top shape: 1024 300 (307200)
I0402 04:33:38.166116 12513 net.cpp:165] Memory required for data: 2186100736
I0402 04:33:38.166123 12513 layer_factory.hpp:77] Creating layer fc4_relu
I0402 04:33:38.166129 12513 net.cpp:100] Creating Layer fc4_relu
I0402 04:33:38.166132 12513 net.cpp:434] fc4_relu <- fc4_300
I0402 04:33:38.166139 12513 net.cpp:395] fc4_relu -> fc4_300 (in-place)
I0402 04:33:38.166338 12513 net.cpp:150] Setting up fc4_relu
I0402 04:33:38.166350 12513 net.cpp:157] Top shape: 1024 300 (307200)
I0402 04:33:38.166357 12513 net.cpp:165] Memory required for data: 2187329536
I0402 04:33:38.166360 12513 layer_factory.hpp:77] Creating layer drop4
I0402 04:33:38.166368 12513 net.cpp:100] Creating Layer drop4
I0402 04:33:38.166371 12513 net.cpp:434] drop4 <- fc4_300
I0402 04:33:38.166376 12513 net.cpp:395] drop4 -> fc4_300 (in-place)
I0402 04:33:38.166407 12513 net.cpp:150] Setting up drop4
I0402 04:33:38.166415 12513 net.cpp:157] Top shape: 1024 300 (307200)
I0402 04:33:38.166419 12513 net.cpp:165] Memory required for data: 2188558336
I0402 04:33:38.166421 12513 layer_factory.hpp:77] Creating layer fc5_106
I0402 04:33:38.166427 12513 net.cpp:100] Creating Layer fc5_106
I0402 04:33:38.166430 12513 net.cpp:434] fc5_106 <- fc4_300
I0402 04:33:38.166436 12513 net.cpp:408] fc5_106 -> fc5_classes
I0402 04:33:38.166761 12513 net.cpp:150] Setting up fc5_106
I0402 04:33:38.166770 12513 net.cpp:157] Top shape: 1024 106 (108544)
I0402 04:33:38.166774 12513 net.cpp:165] Memory required for data: 2188992512
I0402 04:33:38.166782 12513 layer_factory.hpp:77] Creating layer fc5_classes_fc5_106_0_split
I0402 04:33:38.166790 12513 net.cpp:100] Creating Layer fc5_classes_fc5_106_0_split
I0402 04:33:38.166793 12513 net.cpp:434] fc5_classes_fc5_106_0_split <- fc5_classes
I0402 04:33:38.166800 12513 net.cpp:408] fc5_classes_fc5_106_0_split -> fc5_classes_fc5_106_0_split_0
I0402 04:33:38.166806 12513 net.cpp:408] fc5_classes_fc5_106_0_split -> fc5_classes_fc5_106_0_split_1
I0402 04:33:38.166812 12513 net.cpp:408] fc5_classes_fc5_106_0_split -> fc5_classes_fc5_106_0_split_2
I0402 04:33:38.166864 12513 net.cpp:150] Setting up fc5_classes_fc5_106_0_split
I0402 04:33:38.166872 12513 net.cpp:157] Top shape: 1024 106 (108544)
I0402 04:33:38.166877 12513 net.cpp:157] Top shape: 1024 106 (108544)
I0402 04:33:38.166879 12513 net.cpp:157] Top shape: 1024 106 (108544)
I0402 04:33:38.166882 12513 net.cpp:165] Memory required for data: 2190295040
I0402 04:33:38.166885 12513 layer_factory.hpp:77] Creating layer loss
I0402 04:33:38.166893 12513 net.cpp:100] Creating Layer loss
I0402 04:33:38.166896 12513 net.cpp:434] loss <- fc5_classes_fc5_106_0_split_0
I0402 04:33:38.166900 12513 net.cpp:434] loss <- label_data_1_split_0
I0402 04:33:38.166905 12513 net.cpp:408] loss -> loss
…
