…
I0402 14:37:47.154413 21344 net.cpp:322] The NetState phase (0) differed from the phase (1) specified by a rule in layer accuracy_5
I0402 14:37:47.154531 21344 net.cpp:58] Initializing net from parameters: 
state {
  phase: TRAIN
  level: 0
  stage: ""
}
layer {
  name: "data"
  type: "Data"
  top: "data"
  top: "label"
  include {
    phase: TRAIN
  }
  transform_param {
    mirror: false
    crop_size: 48
    mean_value: 132
    mean_value: 126
    mean_value: 140
  }
  data_param {
    source: "../local_data/lmdb/rtsd-r1/AHE/train/lmdb"
    batch_size: 1024
    backend: LMDB
  }
}
layer {
  name: "conv1"
  type: "Convolution"
  bottom: "data"
  top: "conv1"
  convolution_param {
    num_output: 100
    pad: 0
    kernel_size: 7
    group: 1
    stride: 1
    weight_filler {
      type: "xavier"
    }
  }
}
layer {
  name: "conv1_relu"
  type: "ReLU"
  bottom: "conv1"
  top: "conv1"
}
layer {
  name: "pool1"
  type: "Pooling"
  bottom: "conv1"
  top: "pool1"
  pooling_param {
    pool: MAX
    kernel_size: 2
    stride: 2
  }
}
layer {
  name: "conv2"
  type: "Convolution"
  bottom: "pool1"
  top: "conv2"
  convolution_param {
    num_output: 150
    pad: 0
    kernel_size: 4
    group: 1
    stride: 1
    weight_filler {
      type: "xavier"
    }
  }
}
layer {
  name: "conv2_relu"
  type: "ReLU"
  bottom: "conv2"
  top: "conv2"
}
layer {
  name: "pool2"
  type: "Pooling"
  bottom: "conv2"
  top: "pool2"
  pooling_param {
    pool: MAX
    kernel_size: 2
    stride: 2
  }
}
layer {
  name: "conv3"
  type: "Convolution"
  bottom: "pool2"
  top: "conv3"
  convolution_param {
    num_output: 250
    pad: 0
    kernel_size: 4
    group: 1
    stride: 1
    weight_filler {
      type: "xavier"
    }
  }
}
layer {
  name: "conv3_relu"
  type: "ReLU"
  bottom: "conv3"
  top: "conv3"
}
layer {
  name: "pool3"
  type: "Pooling"
  bottom: "conv3"
  top: "pool3"
  pooling_param {
    pool: MAX
    kernel_size: 2
    stride: 2
  }
}
layer {
  name: "fc4_300"
  type: "InnerProduct"
  bottom: "pool3"
  top: "fc4_300"
  inner_product_param {
    num_output: 300
    weight_filler {
      type: "xavier"
    }
  }
}
layer {
  name: "fc4_relu"
  type: "ReLU"
  bottom: "fc4_300"
  top: "fc4_300"
}
layer {
  name: "drop4"
  type: "Dropout"
  bottom: "fc4_300"
  top: "fc4_300"
  dropout_param {
    dropout_ratio: 0.4
  }
}
layer {
  name: "fc5_67"
  type: "InnerProduct"
  bottom: "fc4_300"
  top: "fc5_classes"
  inner_product_param {
    num_output: 67
    weight_filler {
      type: "xavier"
    }
  }
}
layer {
  name: "loss"
  type: "SoftmaxWithLoss"
  bottom: "fc5_classes"
  bottom: "label"
  top: "loss"
}
I0402 14:37:47.154623 21344 layer_factory.hpp:77] Creating layer data
I0402 14:37:47.155913 21344 net.cpp:100] Creating Layer data
I0402 14:37:47.155932 21344 net.cpp:408] data -> data
I0402 14:37:47.155961 21344 net.cpp:408] data -> label
I0402 14:37:47.163574 21399 db_lmdb.cpp:35] Opened lmdb ../local_data/lmdb/rtsd-r1/AHE/train/lmdb
I0402 14:37:47.192652 21344 data_layer.cpp:41] output data size: 1024,3,48,48
I0402 14:37:47.244081 21344 net.cpp:150] Setting up data
I0402 14:37:47.244120 21344 net.cpp:157] Top shape: 1024 3 48 48 (7077888)
I0402 14:37:47.244128 21344 net.cpp:157] Top shape: 1024 (1024)
I0402 14:37:47.244158 21344 net.cpp:165] Memory required for data: 28315648
I0402 14:37:47.244170 21344 layer_factory.hpp:77] Creating layer conv1
I0402 14:37:47.244204 21344 net.cpp:100] Creating Layer conv1
I0402 14:37:47.244215 21344 net.cpp:434] conv1 <- data
I0402 14:37:47.244231 21344 net.cpp:408] conv1 -> conv1
I0402 14:37:47.579537 21344 net.cpp:150] Setting up conv1
I0402 14:37:47.579581 21344 net.cpp:157] Top shape: 1024 100 42 42 (180633600)
I0402 14:37:47.579586 21344 net.cpp:165] Memory required for data: 750850048
I0402 14:37:47.579613 21344 layer_factory.hpp:77] Creating layer conv1_relu
I0402 14:37:47.579634 21344 net.cpp:100] Creating Layer conv1_relu
I0402 14:37:47.579639 21344 net.cpp:434] conv1_relu <- conv1
I0402 14:37:47.579646 21344 net.cpp:395] conv1_relu -> conv1 (in-place)
I0402 14:37:47.579897 21344 net.cpp:150] Setting up conv1_relu
I0402 14:37:47.579913 21344 net.cpp:157] Top shape: 1024 100 42 42 (180633600)
I0402 14:37:47.579918 21344 net.cpp:165] Memory required for data: 1473384448
I0402 14:37:47.579922 21344 layer_factory.hpp:77] Creating layer pool1
I0402 14:37:47.579931 21344 net.cpp:100] Creating Layer pool1
I0402 14:37:47.579937 21344 net.cpp:434] pool1 <- conv1
I0402 14:37:47.579948 21344 net.cpp:408] pool1 -> pool1
I0402 14:37:47.580015 21344 net.cpp:150] Setting up pool1
I0402 14:37:47.580026 21344 net.cpp:157] Top shape: 1024 100 21 21 (45158400)
I0402 14:37:47.580030 21344 net.cpp:165] Memory required for data: 1654018048
I0402 14:37:47.580034 21344 layer_factory.hpp:77] Creating layer conv2
I0402 14:37:47.580049 21344 net.cpp:100] Creating Layer conv2
I0402 14:37:47.580055 21344 net.cpp:434] conv2 <- pool1
I0402 14:37:47.580062 21344 net.cpp:408] conv2 -> conv2
I0402 14:37:47.585422 21344 net.cpp:150] Setting up conv2
I0402 14:37:47.585443 21344 net.cpp:157] Top shape: 1024 150 18 18 (49766400)
I0402 14:37:47.585449 21344 net.cpp:165] Memory required for data: 1853083648
I0402 14:37:47.585464 21344 layer_factory.hpp:77] Creating layer conv2_relu
I0402 14:37:47.585472 21344 net.cpp:100] Creating Layer conv2_relu
I0402 14:37:47.585479 21344 net.cpp:434] conv2_relu <- conv2
I0402 14:37:47.585486 21344 net.cpp:395] conv2_relu -> conv2 (in-place)
I0402 14:37:47.586405 21344 net.cpp:150] Setting up conv2_relu
I0402 14:37:47.586424 21344 net.cpp:157] Top shape: 1024 150 18 18 (49766400)
I0402 14:37:47.586428 21344 net.cpp:165] Memory required for data: 2052149248
I0402 14:37:47.586433 21344 layer_factory.hpp:77] Creating layer pool2
I0402 14:37:47.586443 21344 net.cpp:100] Creating Layer pool2
I0402 14:37:47.586448 21344 net.cpp:434] pool2 <- conv2
I0402 14:37:47.586455 21344 net.cpp:408] pool2 -> pool2
I0402 14:37:47.586515 21344 net.cpp:150] Setting up pool2
I0402 14:37:47.586526 21344 net.cpp:157] Top shape: 1024 150 9 9 (12441600)
I0402 14:37:47.586530 21344 net.cpp:165] Memory required for data: 2101915648
I0402 14:37:47.586534 21344 layer_factory.hpp:77] Creating layer conv3
I0402 14:37:47.586545 21344 net.cpp:100] Creating Layer conv3
I0402 14:37:47.586552 21344 net.cpp:434] conv3 <- pool2
I0402 14:37:47.586560 21344 net.cpp:408] conv3 -> conv3
I0402 14:37:47.593351 21344 net.cpp:150] Setting up conv3
I0402 14:37:47.593384 21344 net.cpp:157] Top shape: 1024 250 6 6 (9216000)
I0402 14:37:47.593394 21344 net.cpp:165] Memory required for data: 2138779648
I0402 14:37:47.593406 21344 layer_factory.hpp:77] Creating layer conv3_relu
I0402 14:37:47.593420 21344 net.cpp:100] Creating Layer conv3_relu
I0402 14:37:47.593425 21344 net.cpp:434] conv3_relu <- conv3
I0402 14:37:47.593435 21344 net.cpp:395] conv3_relu -> conv3 (in-place)
I0402 14:37:47.594369 21344 net.cpp:150] Setting up conv3_relu
I0402 14:37:47.594389 21344 net.cpp:157] Top shape: 1024 250 6 6 (9216000)
I0402 14:37:47.594394 21344 net.cpp:165] Memory required for data: 2175643648
I0402 14:37:47.594398 21344 layer_factory.hpp:77] Creating layer pool3
I0402 14:37:47.594408 21344 net.cpp:100] Creating Layer pool3
I0402 14:37:47.594411 21344 net.cpp:434] pool3 <- conv3
I0402 14:37:47.594422 21344 net.cpp:408] pool3 -> pool3
I0402 14:37:47.594502 21344 net.cpp:150] Setting up pool3
I0402 14:37:47.594518 21344 net.cpp:157] Top shape: 1024 250 3 3 (2304000)
I0402 14:37:47.594522 21344 net.cpp:165] Memory required for data: 2184859648
I0402 14:37:47.594527 21344 layer_factory.hpp:77] Creating layer fc4_300
I0402 14:37:47.594535 21344 net.cpp:100] Creating Layer fc4_300
I0402 14:37:47.594542 21344 net.cpp:434] fc4_300 <- pool3
I0402 14:37:47.594553 21344 net.cpp:408] fc4_300 -> fc4_300
I0402 14:37:47.601169 21344 net.cpp:150] Setting up fc4_300
I0402 14:37:47.601191 21344 net.cpp:157] Top shape: 1024 300 (307200)
I0402 14:37:47.601196 21344 net.cpp:165] Memory required for data: 2186088448
I0402 14:37:47.601203 21344 layer_factory.hpp:77] Creating layer fc4_relu
I0402 14:37:47.601212 21344 net.cpp:100] Creating Layer fc4_relu
I0402 14:37:47.601217 21344 net.cpp:434] fc4_relu <- fc4_300
I0402 14:37:47.601222 21344 net.cpp:395] fc4_relu -> fc4_300 (in-place)
I0402 14:37:47.601457 21344 net.cpp:150] Setting up fc4_relu
I0402 14:37:47.601472 21344 net.cpp:157] Top shape: 1024 300 (307200)
I0402 14:37:47.601476 21344 net.cpp:165] Memory required for data: 2187317248
I0402 14:37:47.601480 21344 layer_factory.hpp:77] Creating layer drop4
I0402 14:37:47.601488 21344 net.cpp:100] Creating Layer drop4
I0402 14:37:47.601493 21344 net.cpp:434] drop4 <- fc4_300
I0402 14:37:47.601500 21344 net.cpp:395] drop4 -> fc4_300 (in-place)
I0402 14:37:47.601539 21344 net.cpp:150] Setting up drop4
I0402 14:37:47.601550 21344 net.cpp:157] Top shape: 1024 300 (307200)
I0402 14:37:47.601555 21344 net.cpp:165] Memory required for data: 2188546048
I0402 14:37:47.601559 21344 layer_factory.hpp:77] Creating layer fc5_67
I0402 14:37:47.601567 21344 net.cpp:100] Creating Layer fc5_67
I0402 14:37:47.601572 21344 net.cpp:434] fc5_67 <- fc4_300
I0402 14:37:47.601577 21344 net.cpp:408] fc5_67 -> fc5_classes
I0402 14:37:47.604651 21344 net.cpp:150] Setting up fc5_67
I0402 14:37:47.604671 21344 net.cpp:157] Top shape: 1024 67 (68608)
I0402 14:37:47.604676 21344 net.cpp:165] Memory required for data: 2188820480
I0402 14:37:47.604692 21344 layer_factory.hpp:77] Creating layer loss
I0402 14:37:47.604701 21344 net.cpp:100] Creating Layer loss
I0402 14:37:47.604706 21344 net.cpp:434] loss <- fc5_classes
I0402 14:37:47.604712 21344 net.cpp:434] loss <- label
I0402 14:37:47.604719 21344 net.cpp:408] loss -> loss
I0402 14:37:47.604734 21344 layer_factory.hpp:77] Creating layer loss
…
I0402 14:37:47.605547 21344 solver.cpp:193] Creating test net (#0) specified by test_net file: ./Prototxt/experiment_3/rtsd-r1/AHE/test.prototxt
I0402 14:37:47.605718 21344 net.cpp:58] Initializing net from parameters: 
state {
  phase: TEST
}
layer {
  name: "data"
  type: "Data"
  top: "data"
  top: "label"
  include {
    phase: TEST
  }
  transform_param {
    mirror: false
    crop_size: 48
    mean_value: 126
    mean_value: 124
    mean_value: 145
  }
  data_param {
    source: "../local_data/lmdb/rtsd-r1/AHE/test/lmdb"
    batch_size: 1024
    backend: LMDB
  }
}
layer {
  name: "conv1"
  type: "Convolution"
  bottom: "data"
  top: "conv1"
  convolution_param {
    num_output: 100
    pad: 0
    kernel_size: 7
    group: 1
    stride: 1
    weight_filler {
      type: "xavier"
    }
  }
}
layer {
  name: "conv1_relu"
  type: "ReLU"
  bottom: "conv1"
  top: "conv1"
}
layer {
  name: "pool1"
  type: "Pooling"
  bottom: "conv1"
  top: "pool1"
  pooling_param {
    pool: MAX
    kernel_size: 2
    stride: 2
  }
}
layer {
  name: "conv2"
  type: "Convolution"
  bottom: "pool1"
  top: "conv2"
  convolution_param {
    num_output: 150
    pad: 0
    kernel_size: 4
    group: 1
    stride: 1
    weight_filler {
      type: "xavier"
    }
  }
}
layer {
  name: "conv2_relu"
  type: "ReLU"
  bottom: "conv2"
  top: "conv2"
}
layer {
  name: "pool2"
  type: "Pooling"
  bottom: "conv2"
  top: "pool2"
  pooling_param {
    pool: MAX
    kernel_size: 2
    stride: 2
  }
}
layer {
  name: "conv3"
  type: "Convolution"
  bottom: "pool2"
  top: "conv3"
  convolution_param {
    num_output: 250
    pad: 0
    kernel_size: 4
    group: 1
    stride: 1
    weight_filler {
      type: "xavier"
    }
  }
}
layer {
  name: "conv3_relu"
  type: "ReLU"
  bottom: "conv3"
  top: "conv3"
}
layer {
  name: "pool3"
  type: "Pooling"
  bottom: "conv3"
  top: "pool3"
  pooling_param {
    pool: MAX
    kernel_size: 2
    stride: 2
  }
}
layer {
  name: "fc4_300"
  type: "InnerProduct"
  bottom: "pool3"
  top: "fc4_300"
  inner_product_param {
    num_output: 300
    weight_filler {
      type: "xavier"
    }
  }
}
layer {
  name: "fc4_relu"
  type: "ReLU"
  bottom: "fc4_300"
  top: "fc4_300"
}
layer {
  name: "drop4"
  type: "Dropout"
  bottom: "fc4_300"
  top: "fc4_300"
  dropout_param {
    dropout_ratio: 0.4
  }
}
layer {
  name: "fc5_67"
  type: "InnerProduct"
  bottom: "fc4_300"
  top: "fc5_classes"
  inner_product_param {
    num_output: 67
    weight_filler {
      type: "xavier"
    }
  }
}
layer {
  name: "loss"
  type: "SoftmaxWithLoss"
  bottom: "fc5_classes"
  bottom: "label"
  top: "loss"
}
layer {
  name: "accuracy_1"
  type: "Accuracy"
  bottom: "fc5_classes"
  bottom: "label"
  top: "accuracy_1"
  include {
    phase: TEST
  }
  accuracy_param {
    top_k: 1
  }
}
layer {
  name: "accuracy_5"
  type: "Accuracy"
  bottom: "fc5_classes"
  bottom: "label"
  top: "accuracy_5"
  include {
    phase: TEST
  }
  accuracy_param {
    top_k: 5
  }
}
I0402 14:37:47.605836 21344 layer_factory.hpp:77] Creating layer data
I0402 14:37:47.606909 21344 net.cpp:100] Creating Layer data
I0402 14:37:47.606922 21344 net.cpp:408] data -> data
I0402 14:37:47.606935 21344 net.cpp:408] data -> label
I0402 14:37:47.613993 21415 db_lmdb.cpp:35] Opened lmdb ../local_data/lmdb/rtsd-r1/AHE/test/lmdb
I0402 14:37:47.614238 21344 data_layer.cpp:41] output data size: 1024,3,48,48
I0402 14:37:47.670202 21344 net.cpp:150] Setting up data
I0402 14:37:47.670238 21344 net.cpp:157] Top shape: 1024 3 48 48 (7077888)
I0402 14:37:47.670245 21344 net.cpp:157] Top shape: 1024 (1024)
I0402 14:37:47.670249 21344 net.cpp:165] Memory required for data: 28315648
I0402 14:37:47.670258 21344 layer_factory.hpp:77] Creating layer label_data_1_split
I0402 14:37:47.670279 21344 net.cpp:100] Creating Layer label_data_1_split
I0402 14:37:47.670284 21344 net.cpp:434] label_data_1_split <- label
I0402 14:37:47.670295 21344 net.cpp:408] label_data_1_split -> label_data_1_split_0
I0402 14:37:47.670307 21344 net.cpp:408] label_data_1_split -> label_data_1_split_1
I0402 14:37:47.670317 21344 net.cpp:408] label_data_1_split -> label_data_1_split_2
I0402 14:37:47.670485 21344 net.cpp:150] Setting up label_data_1_split
I0402 14:37:47.670514 21344 net.cpp:157] Top shape: 1024 (1024)
I0402 14:37:47.670522 21344 net.cpp:157] Top shape: 1024 (1024)
I0402 14:37:47.670526 21344 net.cpp:157] Top shape: 1024 (1024)
I0402 14:37:47.670531 21344 net.cpp:165] Memory required for data: 28327936
I0402 14:37:47.670534 21344 layer_factory.hpp:77] Creating layer conv1
I0402 14:37:47.670550 21344 net.cpp:100] Creating Layer conv1
I0402 14:37:47.670557 21344 net.cpp:434] conv1 <- data
I0402 14:37:47.670567 21344 net.cpp:408] conv1 -> conv1
I0402 14:37:47.675189 21344 net.cpp:150] Setting up conv1
I0402 14:37:47.675223 21344 net.cpp:157] Top shape: 1024 100 42 42 (180633600)
I0402 14:37:47.675230 21344 net.cpp:165] Memory required for data: 750862336
I0402 14:37:47.675246 21344 layer_factory.hpp:77] Creating layer conv1_relu
I0402 14:37:47.675256 21344 net.cpp:100] Creating Layer conv1_relu
I0402 14:37:47.675266 21344 net.cpp:434] conv1_relu <- conv1
I0402 14:37:47.675271 21344 net.cpp:395] conv1_relu -> conv1 (in-place)
I0402 14:37:47.675536 21344 net.cpp:150] Setting up conv1_relu
I0402 14:37:47.675550 21344 net.cpp:157] Top shape: 1024 100 42 42 (180633600)
I0402 14:37:47.675554 21344 net.cpp:165] Memory required for data: 1473396736
I0402 14:37:47.675559 21344 layer_factory.hpp:77] Creating layer pool1
I0402 14:37:47.675571 21344 net.cpp:100] Creating Layer pool1
I0402 14:37:47.675575 21344 net.cpp:434] pool1 <- conv1
I0402 14:37:47.675582 21344 net.cpp:408] pool1 -> pool1
I0402 14:37:47.675644 21344 net.cpp:150] Setting up pool1
I0402 14:37:47.675654 21344 net.cpp:157] Top shape: 1024 100 21 21 (45158400)
I0402 14:37:47.675658 21344 net.cpp:165] Memory required for data: 1654030336
I0402 14:37:47.675662 21344 layer_factory.hpp:77] Creating layer conv2
I0402 14:37:47.675679 21344 net.cpp:100] Creating Layer conv2
I0402 14:37:47.675688 21344 net.cpp:434] conv2 <- pool1
I0402 14:37:47.675694 21344 net.cpp:408] conv2 -> conv2
I0402 14:37:47.680558 21344 net.cpp:150] Setting up conv2
I0402 14:37:47.680579 21344 net.cpp:157] Top shape: 1024 150 18 18 (49766400)
I0402 14:37:47.680586 21344 net.cpp:165] Memory required for data: 1853095936
I0402 14:37:47.680599 21344 layer_factory.hpp:77] Creating layer conv2_relu
I0402 14:37:47.680608 21344 net.cpp:100] Creating Layer conv2_relu
I0402 14:37:47.680613 21344 net.cpp:434] conv2_relu <- conv2
I0402 14:37:47.680622 21344 net.cpp:395] conv2_relu -> conv2 (in-place)
I0402 14:37:47.681586 21344 net.cpp:150] Setting up conv2_relu
I0402 14:37:47.681608 21344 net.cpp:157] Top shape: 1024 150 18 18 (49766400)
I0402 14:37:47.681613 21344 net.cpp:165] Memory required for data: 2052161536
I0402 14:37:47.681618 21344 layer_factory.hpp:77] Creating layer pool2
I0402 14:37:47.681627 21344 net.cpp:100] Creating Layer pool2
I0402 14:37:47.681632 21344 net.cpp:434] pool2 <- conv2
I0402 14:37:47.681651 21344 net.cpp:408] pool2 -> pool2
I0402 14:37:47.681720 21344 net.cpp:150] Setting up pool2
I0402 14:37:47.681731 21344 net.cpp:157] Top shape: 1024 150 9 9 (12441600)
I0402 14:37:47.681736 21344 net.cpp:165] Memory required for data: 2101927936
I0402 14:37:47.681740 21344 layer_factory.hpp:77] Creating layer conv3
I0402 14:37:47.681754 21344 net.cpp:100] Creating Layer conv3
I0402 14:37:47.681759 21344 net.cpp:434] conv3 <- pool2
I0402 14:37:47.681767 21344 net.cpp:408] conv3 -> conv3
I0402 14:37:47.688671 21344 net.cpp:150] Setting up conv3
I0402 14:37:47.688694 21344 net.cpp:157] Top shape: 1024 250 6 6 (9216000)
I0402 14:37:47.688700 21344 net.cpp:165] Memory required for data: 2138791936
I0402 14:37:47.688714 21344 layer_factory.hpp:77] Creating layer conv3_relu
I0402 14:37:47.688724 21344 net.cpp:100] Creating Layer conv3_relu
I0402 14:37:47.688730 21344 net.cpp:434] conv3_relu <- conv3
I0402 14:37:47.688735 21344 net.cpp:395] conv3_relu -> conv3 (in-place)
I0402 14:37:47.689693 21344 net.cpp:150] Setting up conv3_relu
I0402 14:37:47.689715 21344 net.cpp:157] Top shape: 1024 250 6 6 (9216000)
I0402 14:37:47.689720 21344 net.cpp:165] Memory required for data: 2175655936
I0402 14:37:47.689724 21344 layer_factory.hpp:77] Creating layer pool3
I0402 14:37:47.689752 21344 net.cpp:100] Creating Layer pool3
I0402 14:37:47.689765 21344 net.cpp:434] pool3 <- conv3
I0402 14:37:47.689775 21344 net.cpp:408] pool3 -> pool3
I0402 14:37:47.689843 21344 net.cpp:150] Setting up pool3
I0402 14:37:47.689854 21344 net.cpp:157] Top shape: 1024 250 3 3 (2304000)
I0402 14:37:47.689862 21344 net.cpp:165] Memory required for data: 2184871936
I0402 14:37:47.689867 21344 layer_factory.hpp:77] Creating layer fc4_300
I0402 14:37:47.689889 21344 net.cpp:100] Creating Layer fc4_300
I0402 14:37:47.689896 21344 net.cpp:434] fc4_300 <- pool3
I0402 14:37:47.689903 21344 net.cpp:408] fc4_300 -> fc4_300
I0402 14:37:47.696914 21344 net.cpp:150] Setting up fc4_300
I0402 14:37:47.696935 21344 net.cpp:157] Top shape: 1024 300 (307200)
I0402 14:37:47.696941 21344 net.cpp:165] Memory required for data: 2186100736
I0402 14:37:47.696955 21344 layer_factory.hpp:77] Creating layer fc4_relu
I0402 14:37:47.696965 21344 net.cpp:100] Creating Layer fc4_relu
I0402 14:37:47.696969 21344 net.cpp:434] fc4_relu <- fc4_300
I0402 14:37:47.696979 21344 net.cpp:395] fc4_relu -> fc4_300 (in-place)
I0402 14:37:47.697229 21344 net.cpp:150] Setting up fc4_relu
I0402 14:37:47.697244 21344 net.cpp:157] Top shape: 1024 300 (307200)
I0402 14:37:47.697248 21344 net.cpp:165] Memory required for data: 2187329536
I0402 14:37:47.697252 21344 layer_factory.hpp:77] Creating layer drop4
I0402 14:37:47.697262 21344 net.cpp:100] Creating Layer drop4
I0402 14:37:47.697268 21344 net.cpp:434] drop4 <- fc4_300
I0402 14:37:47.697274 21344 net.cpp:395] drop4 -> fc4_300 (in-place)
I0402 14:37:47.697315 21344 net.cpp:150] Setting up drop4
I0402 14:37:47.697325 21344 net.cpp:157] Top shape: 1024 300 (307200)
I0402 14:37:47.697329 21344 net.cpp:165] Memory required for data: 2188558336
I0402 14:37:47.697332 21344 layer_factory.hpp:77] Creating layer fc5_67
I0402 14:37:47.697341 21344 net.cpp:100] Creating Layer fc5_67
I0402 14:37:47.697347 21344 net.cpp:434] fc5_67 <- fc4_300
I0402 14:37:47.697356 21344 net.cpp:408] fc5_67 -> fc5_classes
I0402 14:37:47.697677 21344 net.cpp:150] Setting up fc5_67
I0402 14:37:47.697688 21344 net.cpp:157] Top shape: 1024 67 (68608)
I0402 14:37:47.697692 21344 net.cpp:165] Memory required for data: 2188832768
I0402 14:37:47.697705 21344 layer_factory.hpp:77] Creating layer fc5_classes_fc5_67_0_split
I0402 14:37:47.697715 21344 net.cpp:100] Creating Layer fc5_classes_fc5_67_0_split
I0402 14:37:47.697721 21344 net.cpp:434] fc5_classes_fc5_67_0_split <- fc5_classes
I0402 14:37:47.697729 21344 net.cpp:408] fc5_classes_fc5_67_0_split -> fc5_classes_fc5_67_0_split_0
I0402 14:37:47.697741 21344 net.cpp:408] fc5_classes_fc5_67_0_split -> fc5_classes_fc5_67_0_split_1
I0402 14:37:47.697754 21344 net.cpp:408] fc5_classes_fc5_67_0_split -> fc5_classes_fc5_67_0_split_2
I0402 14:37:47.697824 21344 net.cpp:150] Setting up fc5_classes_fc5_67_0_split
I0402 14:37:47.697834 21344 net.cpp:157] Top shape: 1024 67 (68608)
I0402 14:37:47.697837 21344 net.cpp:157] Top shape: 1024 67 (68608)
I0402 14:37:47.697841 21344 net.cpp:157] Top shape: 1024 67 (68608)
I0402 14:37:47.697845 21344 net.cpp:165] Memory required for data: 2189656064
I0402 14:37:47.697849 21344 layer_factory.hpp:77] Creating layer loss
I0402 14:37:47.697860 21344 net.cpp:100] Creating Layer loss
I0402 14:37:47.697865 21344 net.cpp:434] loss <- fc5_classes_fc5_67_0_split_0
I0402 14:37:47.697871 21344 net.cpp:434] loss <- label_data_1_split_0
I0402 14:37:47.697877 21344 net.cpp:408] loss -> loss
…
