…
I0528 21:55:42.730839 27854 solver.cpp:81] Creating training net from train_net file: ./Prototxt/experiment_22/RTSD/CoNorm/trial_5/train.prototxt
I0528 21:55:42.731209 27854 net.cpp:58] Initializing net from parameters: 
state {
  phase: TRAIN
  level: 0
  stage: ""
}
layer {
  name: "data"
  type: "Data"
  top: "data"
  top: "label"
  include {
    phase: TRAIN
  }
  transform_param {
    scale: 0.0039215689
    mirror: false
    crop_size: 48
    mean_value: 135
    mean_value: 135
    mean_value: 134
  }
  data_param {
    source: "../local_data/lmdb/RTSD/CoNorm/train/lmdb"
    batch_size: 1024
    backend: LMDB
  }
}
layer {
  name: "conv1"
  type: "Convolution"
  bottom: "data"
  top: "conv1"
  convolution_param {
    num_output: 100
    pad: 0
    kernel_size: 7
    group: 1
    stride: 1
    weight_filler {
      type: "xavier"
    }
  }
}
layer {
  name: "conv1_relu"
  type: "ReLU"
  bottom: "conv1"
  top: "conv1"
}
layer {
  name: "pool1"
  type: "Pooling"
  bottom: "conv1"
  top: "pool1"
  pooling_param {
    pool: MAX
    kernel_size: 2
    stride: 2
  }
}
layer {
  name: "conv2"
  type: "Convolution"
  bottom: "pool1"
  top: "conv2"
  convolution_param {
    num_output: 150
    pad: 0
    kernel_size: 4
    group: 1
    stride: 1
    weight_filler {
      type: "xavier"
    }
  }
}
layer {
  name: "conv2_relu"
  type: "ReLU"
  bottom: "conv2"
  top: "conv2"
}
layer {
  name: "pool2"
  type: "Pooling"
  bottom: "conv2"
  top: "pool2"
  pooling_param {
    pool: MAX
    kernel_size: 2
    stride: 2
  }
}
layer {
  name: "conv3"
  type: "Convolution"
  bottom: "pool2"
  top: "conv3"
  convolution_param {
    num_output: 250
    pad: 0
    kernel_size: 4
    group: 1
    stride: 1
    weight_filler {
      type: "xavier"
    }
  }
}
layer {
  name: "conv3_relu"
  type: "ReLU"
  bottom: "conv3"
  top: "conv3"
}
layer {
  name: "pool3"
  type: "Pooling"
  bottom: "conv3"
  top: "pool3"
  pooling_param {
    pool: MAX
    kernel_size: 2
    stride: 2
  }
}
layer {
  name: "fc4_300"
  type: "InnerProduct"
  bottom: "pool3"
  top: "fc4_300"
  inner_product_param {
    num_output: 300
    weight_filler {
      type: "xavier"
    }
  }
}
layer {
  name: "fc4_relu"
  type: "ReLU"
  bottom: "fc4_300"
  top: "fc4_300"
}
layer {
  name: "fc5_116"
  type: "InnerProduct"
  bottom: "fc4_300"
  top: "fc5_classes"
  inner_product_param {
    num_output: 116
    weight_filler {
      type: "xavier"
    }
  }
}
layer {
  name: "softmax"
  type: "Softmax"
  bottom: "fc5_classes"
  top: "softmax"
}
layer {
  name: "loss"
  type: "MultinomialLogisticLoss"
  bottom: "softmax"
  bottom: "label"
  top: "loss"
}
layer {
  name: "accuracy_1"
  type: "Accuracy"
  bottom: "fc5_classes"
  bottom: "label"
  top: "accuracy_1"
  accuracy_param {
    top_k: 1
  }
}
layer {
  name: "accuracy_5"
  type: "Accuracy"
  bottom: "fc5_classes"
  bottom: "label"
  top: "accuracy_5"
  accuracy_param {
    top_k: 5
  }
}
layer {
  name: "silence"
  type: "Silence"
  bottom: "accuracy_1"
  bottom: "accuracy_5"
}
I0528 21:55:42.731309 27854 layer_factory.hpp:77] Creating layer data
I0528 21:55:42.732141 27854 net.cpp:100] Creating Layer data
I0528 21:55:42.732177 27854 net.cpp:408] data -> data
I0528 21:55:42.732220 27854 net.cpp:408] data -> label
I0528 21:55:42.733162 27895 db_lmdb.cpp:35] Opened lmdb ../local_data/lmdb/RTSD/CoNorm/train/lmdb
I0528 21:55:42.751281 27854 data_layer.cpp:41] output data size: 1024,3,48,48
I0528 21:55:42.810695 27854 net.cpp:150] Setting up data
I0528 21:55:42.810763 27854 net.cpp:157] Top shape: 1024 3 48 48 (7077888)
I0528 21:55:42.810775 27854 net.cpp:157] Top shape: 1024 (1024)
I0528 21:55:42.810782 27854 net.cpp:165] Memory required for data: 28315648
I0528 21:55:42.810796 27854 layer_factory.hpp:77] Creating layer label_data_1_split
I0528 21:55:42.810812 27854 net.cpp:100] Creating Layer label_data_1_split
I0528 21:55:42.810825 27854 net.cpp:434] label_data_1_split <- label
I0528 21:55:42.810844 27854 net.cpp:408] label_data_1_split -> label_data_1_split_0
I0528 21:55:42.810866 27854 net.cpp:408] label_data_1_split -> label_data_1_split_1
I0528 21:55:42.810883 27854 net.cpp:408] label_data_1_split -> label_data_1_split_2
I0528 21:55:42.810953 27854 net.cpp:150] Setting up label_data_1_split
I0528 21:55:42.810974 27854 net.cpp:157] Top shape: 1024 (1024)
I0528 21:55:42.810988 27854 net.cpp:157] Top shape: 1024 (1024)
I0528 21:55:42.810997 27854 net.cpp:157] Top shape: 1024 (1024)
I0528 21:55:42.811009 27854 net.cpp:165] Memory required for data: 28327936
I0528 21:55:42.811018 27854 layer_factory.hpp:77] Creating layer conv1
I0528 21:55:42.811044 27854 net.cpp:100] Creating Layer conv1
I0528 21:55:42.811054 27854 net.cpp:434] conv1 <- data
I0528 21:55:42.811064 27854 net.cpp:408] conv1 -> conv1
I0528 21:55:43.107262 27854 net.cpp:150] Setting up conv1
I0528 21:55:43.107293 27854 net.cpp:157] Top shape: 1024 100 42 42 (180633600)
I0528 21:55:43.107300 27854 net.cpp:165] Memory required for data: 750862336
I0528 21:55:43.107316 27854 layer_factory.hpp:77] Creating layer conv1_relu
I0528 21:55:43.107327 27854 net.cpp:100] Creating Layer conv1_relu
I0528 21:55:43.107347 27854 net.cpp:434] conv1_relu <- conv1
I0528 21:55:43.107353 27854 net.cpp:395] conv1_relu -> conv1 (in-place)
I0528 21:55:43.107549 27854 net.cpp:150] Setting up conv1_relu
I0528 21:55:43.107565 27854 net.cpp:157] Top shape: 1024 100 42 42 (180633600)
I0528 21:55:43.107571 27854 net.cpp:165] Memory required for data: 1473396736
I0528 21:55:43.107578 27854 layer_factory.hpp:77] Creating layer pool1
I0528 21:55:43.107589 27854 net.cpp:100] Creating Layer pool1
I0528 21:55:43.107594 27854 net.cpp:434] pool1 <- conv1
I0528 21:55:43.107602 27854 net.cpp:408] pool1 -> pool1
I0528 21:55:43.107653 27854 net.cpp:150] Setting up pool1
I0528 21:55:43.107667 27854 net.cpp:157] Top shape: 1024 100 21 21 (45158400)
I0528 21:55:43.107673 27854 net.cpp:165] Memory required for data: 1654030336
I0528 21:55:43.107679 27854 layer_factory.hpp:77] Creating layer conv2
I0528 21:55:43.107692 27854 net.cpp:100] Creating Layer conv2
I0528 21:55:43.107704 27854 net.cpp:434] conv2 <- pool1
I0528 21:55:43.107712 27854 net.cpp:408] conv2 -> conv2
I0528 21:55:43.110795 27854 net.cpp:150] Setting up conv2
I0528 21:55:43.110811 27854 net.cpp:157] Top shape: 1024 150 18 18 (49766400)
I0528 21:55:43.110816 27854 net.cpp:165] Memory required for data: 1853095936
I0528 21:55:43.110826 27854 layer_factory.hpp:77] Creating layer conv2_relu
I0528 21:55:43.110831 27854 net.cpp:100] Creating Layer conv2_relu
I0528 21:55:43.110836 27854 net.cpp:434] conv2_relu <- conv2
I0528 21:55:43.110844 27854 net.cpp:395] conv2_relu -> conv2 (in-place)
I0528 21:55:43.111016 27854 net.cpp:150] Setting up conv2_relu
I0528 21:55:43.111032 27854 net.cpp:157] Top shape: 1024 150 18 18 (49766400)
I0528 21:55:43.111037 27854 net.cpp:165] Memory required for data: 2052161536
I0528 21:55:43.111047 27854 layer_factory.hpp:77] Creating layer pool2
I0528 21:55:43.111057 27854 net.cpp:100] Creating Layer pool2
I0528 21:55:43.111064 27854 net.cpp:434] pool2 <- conv2
I0528 21:55:43.111073 27854 net.cpp:408] pool2 -> pool2
I0528 21:55:43.111120 27854 net.cpp:150] Setting up pool2
I0528 21:55:43.111135 27854 net.cpp:157] Top shape: 1024 150 9 9 (12441600)
I0528 21:55:43.111140 27854 net.cpp:165] Memory required for data: 2101927936
I0528 21:55:43.111146 27854 layer_factory.hpp:77] Creating layer conv3
I0528 21:55:43.111160 27854 net.cpp:100] Creating Layer conv3
I0528 21:55:43.111166 27854 net.cpp:434] conv3 <- pool2
I0528 21:55:43.111174 27854 net.cpp:408] conv3 -> conv3
I0528 21:55:43.116194 27854 net.cpp:150] Setting up conv3
I0528 21:55:43.116235 27854 net.cpp:157] Top shape: 1024 250 6 6 (9216000)
I0528 21:55:43.116238 27854 net.cpp:165] Memory required for data: 2138791936
I0528 21:55:43.116257 27854 layer_factory.hpp:77] Creating layer conv3_relu
I0528 21:55:43.116276 27854 net.cpp:100] Creating Layer conv3_relu
I0528 21:55:43.116288 27854 net.cpp:434] conv3_relu <- conv3
I0528 21:55:43.116305 27854 net.cpp:395] conv3_relu -> conv3 (in-place)
I0528 21:55:43.116837 27854 net.cpp:150] Setting up conv3_relu
I0528 21:55:43.116858 27854 net.cpp:157] Top shape: 1024 250 6 6 (9216000)
I0528 21:55:43.116863 27854 net.cpp:165] Memory required for data: 2175655936
I0528 21:55:43.116869 27854 layer_factory.hpp:77] Creating layer pool3
I0528 21:55:43.116878 27854 net.cpp:100] Creating Layer pool3
I0528 21:55:43.116884 27854 net.cpp:434] pool3 <- conv3
I0528 21:55:43.116895 27854 net.cpp:408] pool3 -> pool3
I0528 21:55:43.116947 27854 net.cpp:150] Setting up pool3
I0528 21:55:43.116977 27854 net.cpp:157] Top shape: 1024 250 3 3 (2304000)
I0528 21:55:43.116983 27854 net.cpp:165] Memory required for data: 2184871936
I0528 21:55:43.116989 27854 layer_factory.hpp:77] Creating layer fc4_300
I0528 21:55:43.116999 27854 net.cpp:100] Creating Layer fc4_300
I0528 21:55:43.117007 27854 net.cpp:434] fc4_300 <- pool3
I0528 21:55:43.117017 27854 net.cpp:408] fc4_300 -> fc4_300
I0528 21:55:43.121649 27854 net.cpp:150] Setting up fc4_300
I0528 21:55:43.121675 27854 net.cpp:157] Top shape: 1024 300 (307200)
I0528 21:55:43.121680 27854 net.cpp:165] Memory required for data: 2186100736
I0528 21:55:43.121690 27854 layer_factory.hpp:77] Creating layer fc4_relu
I0528 21:55:43.121698 27854 net.cpp:100] Creating Layer fc4_relu
I0528 21:55:43.121703 27854 net.cpp:434] fc4_relu <- fc4_300
I0528 21:55:43.121713 27854 net.cpp:395] fc4_relu -> fc4_300 (in-place)
I0528 21:55:43.121937 27854 net.cpp:150] Setting up fc4_relu
I0528 21:55:43.121954 27854 net.cpp:157] Top shape: 1024 300 (307200)
I0528 21:55:43.121960 27854 net.cpp:165] Memory required for data: 2187329536
I0528 21:55:43.121966 27854 layer_factory.hpp:77] Creating layer fc5_116
I0528 21:55:43.121976 27854 net.cpp:100] Creating Layer fc5_116
I0528 21:55:43.121981 27854 net.cpp:434] fc5_116 <- fc4_300
I0528 21:55:43.121989 27854 net.cpp:408] fc5_116 -> fc5_classes
I0528 21:55:43.124729 27854 net.cpp:150] Setting up fc5_116
I0528 21:55:43.124766 27854 net.cpp:157] Top shape: 1024 116 (118784)
I0528 21:55:43.124771 27854 net.cpp:165] Memory required for data: 2187804672
I0528 21:55:43.124791 27854 layer_factory.hpp:77] Creating layer fc5_classes_fc5_116_0_split
I0528 21:55:43.124810 27854 net.cpp:100] Creating Layer fc5_classes_fc5_116_0_split
I0528 21:55:43.124819 27854 net.cpp:434] fc5_classes_fc5_116_0_split <- fc5_classes
I0528 21:55:43.124837 27854 net.cpp:408] fc5_classes_fc5_116_0_split -> fc5_classes_fc5_116_0_split_0
I0528 21:55:43.124850 27854 net.cpp:408] fc5_classes_fc5_116_0_split -> fc5_classes_fc5_116_0_split_1
I0528 21:55:43.124868 27854 net.cpp:408] fc5_classes_fc5_116_0_split -> fc5_classes_fc5_116_0_split_2
I0528 21:55:43.124940 27854 net.cpp:150] Setting up fc5_classes_fc5_116_0_split
I0528 21:55:43.124953 27854 net.cpp:157] Top shape: 1024 116 (118784)
I0528 21:55:43.124959 27854 net.cpp:157] Top shape: 1024 116 (118784)
I0528 21:55:43.124967 27854 net.cpp:157] Top shape: 1024 116 (118784)
I0528 21:55:43.124972 27854 net.cpp:165] Memory required for data: 2189230080
I0528 21:55:43.124979 27854 layer_factory.hpp:77] Creating layer softmax
I0528 21:55:43.124989 27854 net.cpp:100] Creating Layer softmax
I0528 21:55:43.124999 27854 net.cpp:434] softmax <- fc5_classes_fc5_116_0_split_0
I0528 21:55:43.125006 27854 net.cpp:408] softmax -> softmax
I0528 21:55:43.125309 27854 net.cpp:150] Setting up softmax
I0528 21:55:43.125329 27854 net.cpp:157] Top shape: 1024 116 (118784)
I0528 21:55:43.125335 27854 net.cpp:165] Memory required for data: 2189705216
I0528 21:55:43.125341 27854 layer_factory.hpp:77] Creating layer loss
I0528 21:55:43.125381 27854 net.cpp:100] Creating Layer loss
I0528 21:55:43.125391 27854 net.cpp:434] loss <- softmax
I0528 21:55:43.125398 27854 net.cpp:434] loss <- label_data_1_split_0
I0528 21:55:43.125408 27854 net.cpp:408] loss -> loss
…
