…
I0527 22:18:02.018895 18690 solver.cpp:81] Creating training net from train_net file: ./Prototxt/experiment_20/RTSD/CoNorm/trial_2/train.prototxt
I0527 22:18:02.019428 18690 net.cpp:58] Initializing net from parameters: 
state {
  phase: TRAIN
  level: 0
  stage: ""
}
layer {
  name: "data"
  type: "Data"
  top: "data"
  top: "label"
  include {
    phase: TRAIN
  }
  transform_param {
    scale: 0.0039215689
    mirror: false
    crop_size: 48
    mean_value: 135
    mean_value: 135
    mean_value: 134
  }
  data_param {
    source: "../local_data/lmdb/RTSD/CoNorm/train/lmdb"
    batch_size: 1024
    backend: LMDB
  }
}
layer {
  name: "conv1"
  type: "Convolution"
  bottom: "data"
  top: "conv1"
  convolution_param {
    num_output: 100
    pad: 0
    kernel_size: 7
    group: 1
    stride: 1
    weight_filler {
      type: "xavier"
    }
  }
}
layer {
  name: "conv1_relu"
  type: "ReLU"
  bottom: "conv1"
  top: "conv1"
}
layer {
  name: "pool1"
  type: "Pooling"
  bottom: "conv1"
  top: "pool1"
  pooling_param {
    pool: MAX
    kernel_size: 2
    stride: 2
  }
}
layer {
  name: "conv2"
  type: "Convolution"
  bottom: "pool1"
  top: "conv2"
  convolution_param {
    num_output: 150
    pad: 0
    kernel_size: 4
    group: 1
    stride: 1
    weight_filler {
      type: "xavier"
    }
  }
}
layer {
  name: "conv2_relu"
  type: "ReLU"
  bottom: "conv2"
  top: "conv2"
}
layer {
  name: "pool2"
  type: "Pooling"
  bottom: "conv2"
  top: "pool2"
  pooling_param {
    pool: MAX
    kernel_size: 2
    stride: 2
  }
}
layer {
  name: "conv3"
  type: "Convolution"
  bottom: "pool2"
  top: "conv3"
  convolution_param {
    num_output: 250
    pad: 0
    kernel_size: 4
    group: 1
    stride: 1
    weight_filler {
      type: "xavier"
    }
  }
}
layer {
  name: "conv3_relu"
  type: "ReLU"
  bottom: "conv3"
  top: "conv3"
}
layer {
  name: "pool3"
  type: "Pooling"
  bottom: "conv3"
  top: "pool3"
  pooling_param {
    pool: MAX
    kernel_size: 2
    stride: 2
  }
}
layer {
  name: "fc4_300"
  type: "InnerProduct"
  bottom: "pool3"
  top: "fc4_300"
  inner_product_param {
    num_output: 300
    weight_filler {
      type: "xavier"
    }
  }
}
layer {
  name: "fc4_relu"
  type: "ReLU"
  bottom: "fc4_300"
  top: "fc4_300"
}
layer {
  name: "fc5_116"
  type: "InnerProduct"
  bottom: "fc4_300"
  top: "fc5_classes"
  inner_product_param {
    num_output: 116
    weight_filler {
      type: "xavier"
    }
  }
}
layer {
  name: "softmax"
  type: "Softmax"
  bottom: "fc5_classes"
  top: "softmax"
}
layer {
  name: "loss"
  type: "MultinomialLogisticLoss"
  bottom: "softmax"
  bottom: "label"
  top: "loss"
}
layer {
  name: "accuracy_1"
  type: "Accuracy"
  bottom: "fc5_classes"
  bottom: "label"
  top: "accuracy_1"
  accuracy_param {
    top_k: 1
  }
}
layer {
  name: "accuracy_5"
  type: "Accuracy"
  bottom: "fc5_classes"
  bottom: "label"
  top: "accuracy_5"
  accuracy_param {
    top_k: 5
  }
}
layer {
  name: "silence"
  type: "Silence"
  bottom: "accuracy_1"
  bottom: "accuracy_5"
}
I0527 22:18:02.019560 18690 layer_factory.hpp:77] Creating layer data
I0527 22:18:02.020594 18690 net.cpp:100] Creating Layer data
I0527 22:18:02.020617 18690 net.cpp:408] data -> data
I0527 22:18:02.020648 18690 net.cpp:408] data -> label
I0527 22:18:02.022621 18731 db_lmdb.cpp:35] Opened lmdb ../local_data/lmdb/RTSD/CoNorm/train/lmdb
I0527 22:18:02.047107 18690 data_layer.cpp:41] output data size: 1024,3,48,48
I0527 22:18:02.098314 18690 net.cpp:150] Setting up data
I0527 22:18:02.098394 18690 net.cpp:157] Top shape: 1024 3 48 48 (7077888)
I0527 22:18:02.098405 18690 net.cpp:157] Top shape: 1024 (1024)
I0527 22:18:02.098412 18690 net.cpp:165] Memory required for data: 28315648
I0527 22:18:02.098435 18690 layer_factory.hpp:77] Creating layer label_data_1_split
I0527 22:18:02.098461 18690 net.cpp:100] Creating Layer label_data_1_split
I0527 22:18:02.098474 18690 net.cpp:434] label_data_1_split <- label
I0527 22:18:02.098500 18690 net.cpp:408] label_data_1_split -> label_data_1_split_0
I0527 22:18:02.098527 18690 net.cpp:408] label_data_1_split -> label_data_1_split_1
I0527 22:18:02.098541 18690 net.cpp:408] label_data_1_split -> label_data_1_split_2
I0527 22:18:02.098614 18690 net.cpp:150] Setting up label_data_1_split
I0527 22:18:02.098626 18690 net.cpp:157] Top shape: 1024 (1024)
I0527 22:18:02.098634 18690 net.cpp:157] Top shape: 1024 (1024)
I0527 22:18:02.098642 18690 net.cpp:157] Top shape: 1024 (1024)
I0527 22:18:02.098649 18690 net.cpp:165] Memory required for data: 28327936
I0527 22:18:02.098655 18690 layer_factory.hpp:77] Creating layer conv1
I0527 22:18:02.098686 18690 net.cpp:100] Creating Layer conv1
I0527 22:18:02.098698 18690 net.cpp:434] conv1 <- data
I0527 22:18:02.098716 18690 net.cpp:408] conv1 -> conv1
I0527 22:18:02.341490 18690 net.cpp:150] Setting up conv1
I0527 22:18:02.341518 18690 net.cpp:157] Top shape: 1024 100 42 42 (180633600)
I0527 22:18:02.341526 18690 net.cpp:165] Memory required for data: 750862336
I0527 22:18:02.341540 18690 layer_factory.hpp:77] Creating layer conv1_relu
I0527 22:18:02.341550 18690 net.cpp:100] Creating Layer conv1_relu
I0527 22:18:02.341555 18690 net.cpp:434] conv1_relu <- conv1
I0527 22:18:02.341562 18690 net.cpp:395] conv1_relu -> conv1 (in-place)
I0527 22:18:02.341701 18690 net.cpp:150] Setting up conv1_relu
I0527 22:18:02.341711 18690 net.cpp:157] Top shape: 1024 100 42 42 (180633600)
I0527 22:18:02.341716 18690 net.cpp:165] Memory required for data: 1473396736
I0527 22:18:02.341720 18690 layer_factory.hpp:77] Creating layer pool1
I0527 22:18:02.341729 18690 net.cpp:100] Creating Layer pool1
I0527 22:18:02.341735 18690 net.cpp:434] pool1 <- conv1
I0527 22:18:02.341742 18690 net.cpp:408] pool1 -> pool1
I0527 22:18:02.341779 18690 net.cpp:150] Setting up pool1
I0527 22:18:02.341786 18690 net.cpp:157] Top shape: 1024 100 21 21 (45158400)
I0527 22:18:02.341790 18690 net.cpp:165] Memory required for data: 1654030336
I0527 22:18:02.341795 18690 layer_factory.hpp:77] Creating layer conv2
I0527 22:18:02.341805 18690 net.cpp:100] Creating Layer conv2
I0527 22:18:02.341810 18690 net.cpp:434] conv2 <- pool1
I0527 22:18:02.341815 18690 net.cpp:408] conv2 -> conv2
I0527 22:18:02.346696 18690 net.cpp:150] Setting up conv2
I0527 22:18:02.346714 18690 net.cpp:157] Top shape: 1024 150 18 18 (49766400)
I0527 22:18:02.346719 18690 net.cpp:165] Memory required for data: 1853095936
I0527 22:18:02.346730 18690 layer_factory.hpp:77] Creating layer conv2_relu
I0527 22:18:02.346736 18690 net.cpp:100] Creating Layer conv2_relu
I0527 22:18:02.346741 18690 net.cpp:434] conv2_relu <- conv2
I0527 22:18:02.346748 18690 net.cpp:395] conv2_relu -> conv2 (in-place)
I0527 22:18:02.346875 18690 net.cpp:150] Setting up conv2_relu
I0527 22:18:02.346887 18690 net.cpp:157] Top shape: 1024 150 18 18 (49766400)
I0527 22:18:02.346892 18690 net.cpp:165] Memory required for data: 2052161536
I0527 22:18:02.346897 18690 layer_factory.hpp:77] Creating layer pool2
I0527 22:18:02.346906 18690 net.cpp:100] Creating Layer pool2
I0527 22:18:02.346913 18690 net.cpp:434] pool2 <- conv2
I0527 22:18:02.346921 18690 net.cpp:408] pool2 -> pool2
I0527 22:18:02.346956 18690 net.cpp:150] Setting up pool2
I0527 22:18:02.346966 18690 net.cpp:157] Top shape: 1024 150 9 9 (12441600)
I0527 22:18:02.346971 18690 net.cpp:165] Memory required for data: 2101927936
I0527 22:18:02.346974 18690 layer_factory.hpp:77] Creating layer conv3
I0527 22:18:02.346987 18690 net.cpp:100] Creating Layer conv3
I0527 22:18:02.346993 18690 net.cpp:434] conv3 <- pool2
I0527 22:18:02.347000 18690 net.cpp:408] conv3 -> conv3
I0527 22:18:02.351605 18690 net.cpp:150] Setting up conv3
I0527 22:18:02.351620 18690 net.cpp:157] Top shape: 1024 250 6 6 (9216000)
I0527 22:18:02.351626 18690 net.cpp:165] Memory required for data: 2138791936
I0527 22:18:02.351636 18690 layer_factory.hpp:77] Creating layer conv3_relu
I0527 22:18:02.351642 18690 net.cpp:100] Creating Layer conv3_relu
I0527 22:18:02.351647 18690 net.cpp:434] conv3_relu <- conv3
I0527 22:18:02.351652 18690 net.cpp:395] conv3_relu -> conv3 (in-place)
I0527 22:18:02.351997 18690 net.cpp:150] Setting up conv3_relu
I0527 22:18:02.352011 18690 net.cpp:157] Top shape: 1024 250 6 6 (9216000)
I0527 22:18:02.352017 18690 net.cpp:165] Memory required for data: 2175655936
I0527 22:18:02.352022 18690 layer_factory.hpp:77] Creating layer pool3
I0527 22:18:02.352030 18690 net.cpp:100] Creating Layer pool3
I0527 22:18:02.352039 18690 net.cpp:434] pool3 <- conv3
I0527 22:18:02.352047 18690 net.cpp:408] pool3 -> pool3
I0527 22:18:02.352082 18690 net.cpp:150] Setting up pool3
I0527 22:18:02.352092 18690 net.cpp:157] Top shape: 1024 250 3 3 (2304000)
I0527 22:18:02.352095 18690 net.cpp:165] Memory required for data: 2184871936
I0527 22:18:02.352100 18690 layer_factory.hpp:77] Creating layer fc4_300
I0527 22:18:02.352108 18690 net.cpp:100] Creating Layer fc4_300
I0527 22:18:02.352115 18690 net.cpp:434] fc4_300 <- pool3
I0527 22:18:02.352120 18690 net.cpp:408] fc4_300 -> fc4_300
I0527 22:18:02.356477 18690 net.cpp:150] Setting up fc4_300
I0527 22:18:02.356492 18690 net.cpp:157] Top shape: 1024 300 (307200)
I0527 22:18:02.356498 18690 net.cpp:165] Memory required for data: 2186100736
I0527 22:18:02.356506 18690 layer_factory.hpp:77] Creating layer fc4_relu
I0527 22:18:02.356514 18690 net.cpp:100] Creating Layer fc4_relu
I0527 22:18:02.356519 18690 net.cpp:434] fc4_relu <- fc4_300
I0527 22:18:02.356524 18690 net.cpp:395] fc4_relu -> fc4_300 (in-place)
I0527 22:18:02.356653 18690 net.cpp:150] Setting up fc4_relu
I0527 22:18:02.356665 18690 net.cpp:157] Top shape: 1024 300 (307200)
I0527 22:18:02.356669 18690 net.cpp:165] Memory required for data: 2187329536
I0527 22:18:02.356673 18690 layer_factory.hpp:77] Creating layer fc5_116
I0527 22:18:02.356684 18690 net.cpp:100] Creating Layer fc5_116
I0527 22:18:02.356714 18690 net.cpp:434] fc5_116 <- fc4_300
I0527 22:18:02.356724 18690 net.cpp:408] fc5_116 -> fc5_classes
I0527 22:18:02.357693 18690 net.cpp:150] Setting up fc5_116
I0527 22:18:02.357707 18690 net.cpp:157] Top shape: 1024 116 (118784)
I0527 22:18:02.357710 18690 net.cpp:165] Memory required for data: 2187804672
I0527 22:18:02.357720 18690 layer_factory.hpp:77] Creating layer fc5_classes_fc5_116_0_split
I0527 22:18:02.357729 18690 net.cpp:100] Creating Layer fc5_classes_fc5_116_0_split
I0527 22:18:02.357733 18690 net.cpp:434] fc5_classes_fc5_116_0_split <- fc5_classes
I0527 22:18:02.357738 18690 net.cpp:408] fc5_classes_fc5_116_0_split -> fc5_classes_fc5_116_0_split_0
I0527 22:18:02.357746 18690 net.cpp:408] fc5_classes_fc5_116_0_split -> fc5_classes_fc5_116_0_split_1
I0527 22:18:02.357753 18690 net.cpp:408] fc5_classes_fc5_116_0_split -> fc5_classes_fc5_116_0_split_2
I0527 22:18:02.357796 18690 net.cpp:150] Setting up fc5_classes_fc5_116_0_split
I0527 22:18:02.357805 18690 net.cpp:157] Top shape: 1024 116 (118784)
I0527 22:18:02.357810 18690 net.cpp:157] Top shape: 1024 116 (118784)
I0527 22:18:02.357815 18690 net.cpp:157] Top shape: 1024 116 (118784)
I0527 22:18:02.357820 18690 net.cpp:165] Memory required for data: 2189230080
I0527 22:18:02.357823 18690 layer_factory.hpp:77] Creating layer softmax
I0527 22:18:02.357830 18690 net.cpp:100] Creating Layer softmax
I0527 22:18:02.357833 18690 net.cpp:434] softmax <- fc5_classes_fc5_116_0_split_0
I0527 22:18:02.357843 18690 net.cpp:408] softmax -> softmax
I0527 22:18:02.358027 18690 net.cpp:150] Setting up softmax
I0527 22:18:02.358041 18690 net.cpp:157] Top shape: 1024 116 (118784)
I0527 22:18:02.358045 18690 net.cpp:165] Memory required for data: 2189705216
I0527 22:18:02.358049 18690 layer_factory.hpp:77] Creating layer loss
I0527 22:18:02.358072 18690 net.cpp:100] Creating Layer loss
I0527 22:18:02.358078 18690 net.cpp:434] loss <- softmax
I0527 22:18:02.358083 18690 net.cpp:434] loss <- label_data_1_split_0
I0527 22:18:02.358089 18690 net.cpp:408] loss -> loss
…
