…
I0527 21:02:51.259553 18369 solver.cpp:81] Creating training net from train_net file: ./Prototxt/experiment_20/RTSD/CoNorm/trial_2/train.prototxt
I0527 21:02:51.260123 18369 net.cpp:58] Initializing net from parameters: 
state {
  phase: TRAIN
  level: 0
  stage: ""
}
layer {
  name: "data"
  type: "Data"
  top: "data"
  top: "label"
  include {
    phase: TRAIN
  }
  transform_param {
    scale: 0.0039215689
    mirror: false
    crop_size: 48
    mean_value: 135
    mean_value: 135
    mean_value: 134
  }
  data_param {
    source: "../local_data/lmdb/RTSD/CoNorm/train/lmdb"
    batch_size: 1024
    backend: LMDB
  }
}
layer {
  name: "conv1"
  type: "Convolution"
  bottom: "data"
  top: "conv1"
  convolution_param {
    num_output: 100
    pad: 0
    kernel_size: 7
    group: 1
    stride: 1
    weight_filler {
      type: "xavier"
    }
  }
}
layer {
  name: "conv1_relu"
  type: "ReLU"
  bottom: "conv1"
  top: "conv1"
}
layer {
  name: "pool1"
  type: "Pooling"
  bottom: "conv1"
  top: "pool1"
  pooling_param {
    pool: MAX
    kernel_size: 2
    stride: 2
  }
}
layer {
  name: "conv2"
  type: "Convolution"
  bottom: "pool1"
  top: "conv2"
  convolution_param {
    num_output: 150
    pad: 0
    kernel_size: 4
    group: 1
    stride: 1
    weight_filler {
      type: "xavier"
    }
  }
}
layer {
  name: "conv2_relu"
  type: "ReLU"
  bottom: "conv2"
  top: "conv2"
}
layer {
  name: "pool2"
  type: "Pooling"
  bottom: "conv2"
  top: "pool2"
  pooling_param {
    pool: MAX
    kernel_size: 2
    stride: 2
  }
}
layer {
  name: "conv3"
  type: "Convolution"
  bottom: "pool2"
  top: "conv3"
  convolution_param {
    num_output: 250
    pad: 0
    kernel_size: 4
    group: 1
    stride: 1
    weight_filler {
      type: "xavier"
    }
  }
}
layer {
  name: "conv3_relu"
  type: "ReLU"
  bottom: "conv3"
  top: "conv3"
}
layer {
  name: "pool3"
  type: "Pooling"
  bottom: "conv3"
  top: "pool3"
  pooling_param {
    pool: MAX
    kernel_size: 2
    stride: 2
  }
}
layer {
  name: "fc4_300"
  type: "InnerProduct"
  bottom: "pool3"
  top: "fc4_300"
  inner_product_param {
    num_output: 300
    weight_filler {
      type: "xavier"
    }
  }
}
layer {
  name: "fc4_relu"
  type: "ReLU"
  bottom: "fc4_300"
  top: "fc4_300"
}
layer {
  name: "fc5_116"
  type: "InnerProduct"
  bottom: "fc4_300"
  top: "fc5_classes"
  inner_product_param {
    num_output: 116
    weight_filler {
      type: "xavier"
    }
  }
}
layer {
  name: "softmax"
  type: "Softmax"
  bottom: "fc5_classes"
  top: "softmax"
}
layer {
  name: "loss"
  type: "MultinomialLogisticLoss"
  bottom: "softmax"
  bottom: "label"
  top: "loss"
}
layer {
  name: "accuracy_1"
  type: "Accuracy"
  bottom: "fc5_classes"
  bottom: "label"
  top: "accuracy_1"
  accuracy_param {
    top_k: 1
  }
}
layer {
  name: "accuracy_5"
  type: "Accuracy"
  bottom: "fc5_classes"
  bottom: "label"
  top: "accuracy_5"
  accuracy_param {
    top_k: 5
  }
}
layer {
  name: "silence"
  type: "Silence"
  bottom: "accuracy_1"
  bottom: "accuracy_5"
}
I0527 21:02:51.260977 18369 layer_factory.hpp:77] Creating layer data
I0527 21:02:51.262116 18369 net.cpp:100] Creating Layer data
I0527 21:02:51.262893 18369 net.cpp:408] data -> data
I0527 21:02:51.262962 18369 net.cpp:408] data -> label
I0527 21:02:51.269258 18410 db_lmdb.cpp:35] Opened lmdb ../local_data/lmdb/RTSD/CoNorm/train/lmdb
I0527 21:02:51.337577 18369 data_layer.cpp:41] output data size: 1024,3,48,48
I0527 21:02:51.425329 18369 net.cpp:150] Setting up data
I0527 21:02:51.425405 18369 net.cpp:157] Top shape: 1024 3 48 48 (7077888)
I0527 21:02:51.425415 18369 net.cpp:157] Top shape: 1024 (1024)
I0527 21:02:51.425421 18369 net.cpp:165] Memory required for data: 28315648
I0527 21:02:51.425434 18369 layer_factory.hpp:77] Creating layer label_data_1_split
I0527 21:02:51.425449 18369 net.cpp:100] Creating Layer label_data_1_split
I0527 21:02:51.425484 18369 net.cpp:434] label_data_1_split <- label
I0527 21:02:51.425513 18369 net.cpp:408] label_data_1_split -> label_data_1_split_0
I0527 21:02:51.425540 18369 net.cpp:408] label_data_1_split -> label_data_1_split_1
I0527 21:02:51.425564 18369 net.cpp:408] label_data_1_split -> label_data_1_split_2
I0527 21:02:51.425635 18369 net.cpp:150] Setting up label_data_1_split
I0527 21:02:51.425662 18369 net.cpp:157] Top shape: 1024 (1024)
I0527 21:02:51.425680 18369 net.cpp:157] Top shape: 1024 (1024)
I0527 21:02:51.425699 18369 net.cpp:157] Top shape: 1024 (1024)
I0527 21:02:51.425715 18369 net.cpp:165] Memory required for data: 28327936
I0527 21:02:51.425734 18369 layer_factory.hpp:77] Creating layer conv1
I0527 21:02:51.425763 18369 net.cpp:100] Creating Layer conv1
I0527 21:02:51.425781 18369 net.cpp:434] conv1 <- data
I0527 21:02:51.425801 18369 net.cpp:408] conv1 -> conv1
I0527 21:02:51.850143 18369 net.cpp:150] Setting up conv1
I0527 21:02:51.850178 18369 net.cpp:157] Top shape: 1024 100 42 42 (180633600)
I0527 21:02:51.850186 18369 net.cpp:165] Memory required for data: 750862336
I0527 21:02:51.850208 18369 layer_factory.hpp:77] Creating layer conv1_relu
I0527 21:02:51.850220 18369 net.cpp:100] Creating Layer conv1_relu
I0527 21:02:51.850229 18369 net.cpp:434] conv1_relu <- conv1
I0527 21:02:51.850236 18369 net.cpp:395] conv1_relu -> conv1 (in-place)
I0527 21:02:51.850412 18369 net.cpp:150] Setting up conv1_relu
I0527 21:02:51.850425 18369 net.cpp:157] Top shape: 1024 100 42 42 (180633600)
I0527 21:02:51.850430 18369 net.cpp:165] Memory required for data: 1473396736
I0527 21:02:51.850437 18369 layer_factory.hpp:77] Creating layer pool1
I0527 21:02:51.850448 18369 net.cpp:100] Creating Layer pool1
I0527 21:02:51.850455 18369 net.cpp:434] pool1 <- conv1
I0527 21:02:51.850463 18369 net.cpp:408] pool1 -> pool1
I0527 21:02:51.850512 18369 net.cpp:150] Setting up pool1
I0527 21:02:51.850520 18369 net.cpp:157] Top shape: 1024 100 21 21 (45158400)
I0527 21:02:51.850525 18369 net.cpp:165] Memory required for data: 1654030336
I0527 21:02:51.850530 18369 layer_factory.hpp:77] Creating layer conv2
I0527 21:02:51.850543 18369 net.cpp:100] Creating Layer conv2
I0527 21:02:51.850548 18369 net.cpp:434] conv2 <- pool1
I0527 21:02:51.850555 18369 net.cpp:408] conv2 -> conv2
I0527 21:02:51.863090 18369 net.cpp:150] Setting up conv2
I0527 21:02:51.863109 18369 net.cpp:157] Top shape: 1024 150 18 18 (49766400)
I0527 21:02:51.863116 18369 net.cpp:165] Memory required for data: 1853095936
I0527 21:02:51.863127 18369 layer_factory.hpp:77] Creating layer conv2_relu
I0527 21:02:51.863135 18369 net.cpp:100] Creating Layer conv2_relu
I0527 21:02:51.863142 18369 net.cpp:434] conv2_relu <- conv2
I0527 21:02:51.863148 18369 net.cpp:395] conv2_relu -> conv2 (in-place)
I0527 21:02:51.863309 18369 net.cpp:150] Setting up conv2_relu
I0527 21:02:51.863319 18369 net.cpp:157] Top shape: 1024 150 18 18 (49766400)
I0527 21:02:51.863325 18369 net.cpp:165] Memory required for data: 2052161536
I0527 21:02:51.863332 18369 layer_factory.hpp:77] Creating layer pool2
I0527 21:02:51.863339 18369 net.cpp:100] Creating Layer pool2
I0527 21:02:51.863345 18369 net.cpp:434] pool2 <- conv2
I0527 21:02:51.863353 18369 net.cpp:408] pool2 -> pool2
I0527 21:02:51.863392 18369 net.cpp:150] Setting up pool2
I0527 21:02:51.863400 18369 net.cpp:157] Top shape: 1024 150 9 9 (12441600)
I0527 21:02:51.863406 18369 net.cpp:165] Memory required for data: 2101927936
I0527 21:02:51.863411 18369 layer_factory.hpp:77] Creating layer conv3
I0527 21:02:51.863423 18369 net.cpp:100] Creating Layer conv3
I0527 21:02:51.863428 18369 net.cpp:434] conv3 <- pool2
I0527 21:02:51.863435 18369 net.cpp:408] conv3 -> conv3
I0527 21:02:51.876176 18369 net.cpp:150] Setting up conv3
I0527 21:02:51.876210 18369 net.cpp:157] Top shape: 1024 250 6 6 (9216000)
I0527 21:02:51.876217 18369 net.cpp:165] Memory required for data: 2138791936
I0527 21:02:51.876233 18369 layer_factory.hpp:77] Creating layer conv3_relu
I0527 21:02:51.876247 18369 net.cpp:100] Creating Layer conv3_relu
I0527 21:02:51.876255 18369 net.cpp:434] conv3_relu <- conv3
I0527 21:02:51.876266 18369 net.cpp:395] conv3_relu -> conv3 (in-place)
I0527 21:02:51.877147 18369 net.cpp:150] Setting up conv3_relu
I0527 21:02:51.877166 18369 net.cpp:157] Top shape: 1024 250 6 6 (9216000)
I0527 21:02:51.877172 18369 net.cpp:165] Memory required for data: 2175655936
I0527 21:02:51.877178 18369 layer_factory.hpp:77] Creating layer pool3
I0527 21:02:51.877190 18369 net.cpp:100] Creating Layer pool3
I0527 21:02:51.877198 18369 net.cpp:434] pool3 <- conv3
I0527 21:02:51.877207 18369 net.cpp:408] pool3 -> pool3
I0527 21:02:51.877254 18369 net.cpp:150] Setting up pool3
I0527 21:02:51.877264 18369 net.cpp:157] Top shape: 1024 250 3 3 (2304000)
I0527 21:02:51.877269 18369 net.cpp:165] Memory required for data: 2184871936
I0527 21:02:51.877274 18369 layer_factory.hpp:77] Creating layer fc4_300
I0527 21:02:51.877284 18369 net.cpp:100] Creating Layer fc4_300
I0527 21:02:51.877288 18369 net.cpp:434] fc4_300 <- pool3
I0527 21:02:51.877302 18369 net.cpp:408] fc4_300 -> fc4_300
I0527 21:02:51.884161 18369 net.cpp:150] Setting up fc4_300
I0527 21:02:51.884232 18369 net.cpp:157] Top shape: 1024 300 (307200)
I0527 21:02:51.884251 18369 net.cpp:165] Memory required for data: 2186100736
I0527 21:02:51.884274 18369 layer_factory.hpp:77] Creating layer fc4_relu
I0527 21:02:51.884299 18369 net.cpp:100] Creating Layer fc4_relu
I0527 21:02:51.884316 18369 net.cpp:434] fc4_relu <- fc4_300
I0527 21:02:51.884336 18369 net.cpp:395] fc4_relu -> fc4_300 (in-place)
I0527 21:02:51.884567 18369 net.cpp:150] Setting up fc4_relu
I0527 21:02:51.884595 18369 net.cpp:157] Top shape: 1024 300 (307200)
I0527 21:02:51.884620 18369 net.cpp:165] Memory required for data: 2187329536
I0527 21:02:51.884644 18369 layer_factory.hpp:77] Creating layer fc5_116
I0527 21:02:51.884665 18369 net.cpp:100] Creating Layer fc5_116
I0527 21:02:51.884682 18369 net.cpp:434] fc5_116 <- fc4_300
I0527 21:02:51.884744 18369 net.cpp:408] fc5_116 -> fc5_classes
I0527 21:02:51.892385 18369 net.cpp:150] Setting up fc5_116
I0527 21:02:51.892436 18369 net.cpp:157] Top shape: 1024 116 (118784)
I0527 21:02:51.892454 18369 net.cpp:165] Memory required for data: 2187804672
I0527 21:02:51.892480 18369 layer_factory.hpp:77] Creating layer fc5_classes_fc5_116_0_split
I0527 21:02:51.892503 18369 net.cpp:100] Creating Layer fc5_classes_fc5_116_0_split
I0527 21:02:51.892520 18369 net.cpp:434] fc5_classes_fc5_116_0_split <- fc5_classes
I0527 21:02:51.892540 18369 net.cpp:408] fc5_classes_fc5_116_0_split -> fc5_classes_fc5_116_0_split_0
I0527 21:02:51.892565 18369 net.cpp:408] fc5_classes_fc5_116_0_split -> fc5_classes_fc5_116_0_split_1
I0527 21:02:51.892586 18369 net.cpp:408] fc5_classes_fc5_116_0_split -> fc5_classes_fc5_116_0_split_2
I0527 21:02:51.892655 18369 net.cpp:150] Setting up fc5_classes_fc5_116_0_split
I0527 21:02:51.892680 18369 net.cpp:157] Top shape: 1024 116 (118784)
I0527 21:02:51.892734 18369 net.cpp:157] Top shape: 1024 116 (118784)
I0527 21:02:51.892751 18369 net.cpp:157] Top shape: 1024 116 (118784)
I0527 21:02:51.892767 18369 net.cpp:165] Memory required for data: 2189230080
I0527 21:02:51.892784 18369 layer_factory.hpp:77] Creating layer softmax
I0527 21:02:51.892807 18369 net.cpp:100] Creating Layer softmax
I0527 21:02:51.892823 18369 net.cpp:434] softmax <- fc5_classes_fc5_116_0_split_0
I0527 21:02:51.892843 18369 net.cpp:408] softmax -> softmax
I0527 21:02:51.893141 18369 net.cpp:150] Setting up softmax
I0527 21:02:51.893170 18369 net.cpp:157] Top shape: 1024 116 (118784)
I0527 21:02:51.893190 18369 net.cpp:165] Memory required for data: 2189705216
I0527 21:02:51.893208 18369 layer_factory.hpp:77] Creating layer loss
I0527 21:02:51.893249 18369 net.cpp:100] Creating Layer loss
I0527 21:02:51.893266 18369 net.cpp:434] loss <- softmax
I0527 21:02:51.893285 18369 net.cpp:434] loss <- label_data_1_split_0
I0527 21:02:51.893303 18369 net.cpp:408] loss -> loss
…
