…
I0508 05:35:24.734146 32252 solver.cpp:93] Creating training net from train_net file: ./Prototxt/experiment_15/RTSD/AHE/trial_2/train.prototxt
I0508 05:35:24.734612 32252 net.cpp:58] Initializing net from parameters: 
state {
  phase: TRAIN
  level: 0
  stage: ""
}
layer {
  name: "data"
  type: "Data"
  top: "data"
  top: "label"
  include {
    phase: TRAIN
  }
  transform_param {
    scale: 0.0039215689
    mirror: false
    crop_size: 48
    mean_value: 133
    mean_value: 127
    mean_value: 126
  }
  data_param {
    source: "../local_data/lmdb/RTSD/AHE/train/lmdb"
    batch_size: 1024
    backend: LMDB
  }
}
layer {
  name: "conv1"
  type: "Convolution"
  bottom: "data"
  top: "conv1"
  convolution_param {
    num_output: 100
    pad: 0
    kernel_size: 7
    group: 1
    stride: 1
    weight_filler {
      type: "xavier"
    }
  }
}
layer {
  name: "conv1_prescale"
  type: "Scale"
  bottom: "conv1"
  top: "conv1"
  param {
    lr_mult: 0
    decay_mult: 0
  }
  scale_param {
    filler {
      value: 0.6666
    }
    bias_term: false
  }
}
layer {
  name: "conv1_sTanH"
  type: "TanH"
  bottom: "conv1"
  top: "conv1"
}
layer {
  name: "conv1_postscale"
  type: "Scale"
  bottom: "conv1"
  top: "conv1"
  param {
    lr_mult: 0
    decay_mult: 0
  }
  scale_param {
    filler {
      value: 1.7159
    }
    bias_term: false
  }
}
layer {
  name: "pool1"
  type: "Pooling"
  bottom: "conv1"
  top: "pool1"
  pooling_param {
    pool: MAX
    kernel_size: 2
    stride: 2
  }
}
layer {
  name: "conv2"
  type: "Convolution"
  bottom: "pool1"
  top: "conv2"
  convolution_param {
    num_output: 150
    pad: 0
    kernel_size: 4
    group: 2
    stride: 1
    weight_filler {
      type: "xavier"
    }
  }
}
layer {
  name: "conv2_prescale"
  type: "Scale"
  bottom: "conv2"
  top: "conv2"
  param {
    lr_mult: 0
    decay_mult: 0
  }
  scale_param {
    filler {
      value: 0.6666
    }
    bias_term: false
  }
}
layer {
  name: "conv2_sTanH"
  type: "TanH"
  bottom: "conv2"
  top: "conv2"
}
layer {
  name: "conv2_postscale"
  type: "Scale"
  bottom: "conv2"
  top: "conv2"
  param {
    lr_mult: 0
    decay_mult: 0
  }
  scale_param {
    filler {
      value: 1.7159
    }
    bias_term: false
  }
}
layer {
  name: "pool2"
  type: "Pooling"
  bottom: "conv2"
  top: "pool2"
  pooling_param {
    pool: MAX
    kernel_size: 2
    stride: 2
  }
}
layer {
  name: "conv3"
  type: "Convolution"
  bottom: "pool2"
  top: "conv3"
  convolution_param {
    num_output: 250
    pad: 0
    kernel_size: 4
    group: 2
    stride: 1
    weight_filler {
      type: "xavier"
    }
  }
}
layer {
  name: "conv3_prescale"
  type: "Scale"
  bottom: "conv3"
  top: "conv3"
  param {
    lr_mult: 0
    decay_mult: 0
  }
  scale_param {
    filler {
      value: 0.6666
    }
    bias_term: false
  }
}
layer {
  name: "conv3_sTanH"
  type: "TanH"
  bottom: "conv3"
  top: "conv3"
}
layer {
  name: "conv3_postscale"
  type: "Scale"
  bottom: "conv3"
  top: "conv3"
  param {
    lr_mult: 0
    decay_mult: 0
  }
  scale_param {
    filler {
      value: 1.7159
    }
    bias_term: false
  }
}
layer {
  name: "pool3"
  type: "Pooling"
  bottom: "conv3"
  top: "pool3"
  pooling_param {
    pool: MAX
    kernel_size: 2
    stride: 2
  }
}
layer {
  name: "fc4_300"
  type: "InnerProduct"
  bottom: "pool3"
  top: "fc4_300"
  inner_product_param {
    num_output: 300
    weight_filler {
      type: "xavier"
    }
  }
}
layer {
  name: "fc4_prescale"
  type: "Scale"
  bottom: "fc4_300"
  top: "fc4_300"
  param {
    lr_mult: 0
    decay_mult: 0
  }
  scale_param {
    filler {
      value: 0.6666
    }
    bias_term: false
  }
}
layer {
  name: "fc4_sTanH"
  type: "TanH"
  bottom: "fc4_300"
  top: "fc4_300"
}
layer {
  name: "fc4_postscale"
  type: "Scale"
  bottom: "fc4_300"
  top: "fc4_300"
  param {
    lr_mult: 0
    decay_mult: 0
  }
  scale_param {
    filler {
      value: 1.7159
    }
    bias_term: false
  }
}
layer {
  name: "fc5_116"
  type: "InnerProduct"
  bottom: "fc4_300"
  top: "fc5_classes"
  inner_product_param {
    num_output: 116
    weight_filler {
      type: "xavier"
    }
  }
}
layer {
  name: "softmax"
  type: "Softmax"
  bottom: "fc5_classes"
  top: "softmax"
}
layer {
  name: "loss"
  type: "MultinomialLogisticLoss"
  bottom: "softmax"
  bottom: "label"
  top: "loss"
}
layer {
  name: "accuracy_1"
  type: "Accuracy"
  bottom: "fc5_classes"
  bottom: "label"
  top: "accuracy_1"
  accuracy_param {
    top_k: 1
  }
}
layer {
  name: "accuracy_5"
  type: "Accuracy"
  bottom: "fc5_classes"
  bottom: "label"
  top: "accuracy_5"
  accuracy_param {
    top_k: 5
  }
}
layer {
  name: "silence"
  type: "Silence"
  bottom: "accuracy_1"
  bottom: "accuracy_5"
}
I0508 05:35:24.734767 32252 layer_factory.hpp:77] Creating layer data
I0508 05:35:24.735841 32252 net.cpp:100] Creating Layer data
I0508 05:35:24.735858 32252 net.cpp:408] data -> data
I0508 05:35:24.735894 32252 net.cpp:408] data -> label
I0508 05:35:24.740514 32370 db_lmdb.cpp:35] Opened lmdb ../local_data/lmdb/RTSD/AHE/train/lmdb
I0508 05:35:24.767916 32252 data_layer.cpp:41] output data size: 1024,3,48,48
I0508 05:35:24.836205 32252 net.cpp:150] Setting up data
I0508 05:35:24.836235 32252 net.cpp:157] Top shape: 1024 3 48 48 (7077888)
I0508 05:35:24.836241 32252 net.cpp:157] Top shape: 1024 (1024)
I0508 05:35:24.836244 32252 net.cpp:165] Memory required for data: 28315648
I0508 05:35:24.836256 32252 layer_factory.hpp:77] Creating layer label_data_1_split
I0508 05:35:24.836271 32252 net.cpp:100] Creating Layer label_data_1_split
I0508 05:35:24.836277 32252 net.cpp:434] label_data_1_split <- label
I0508 05:35:24.836292 32252 net.cpp:408] label_data_1_split -> label_data_1_split_0
I0508 05:35:24.836307 32252 net.cpp:408] label_data_1_split -> label_data_1_split_1
I0508 05:35:24.836314 32252 net.cpp:408] label_data_1_split -> label_data_1_split_2
I0508 05:35:24.836402 32252 net.cpp:150] Setting up label_data_1_split
I0508 05:35:24.836413 32252 net.cpp:157] Top shape: 1024 (1024)
I0508 05:35:24.836419 32252 net.cpp:157] Top shape: 1024 (1024)
I0508 05:35:24.836423 32252 net.cpp:157] Top shape: 1024 (1024)
I0508 05:35:24.836426 32252 net.cpp:165] Memory required for data: 28327936
I0508 05:35:24.836431 32252 layer_factory.hpp:77] Creating layer conv1
I0508 05:35:24.836449 32252 net.cpp:100] Creating Layer conv1
I0508 05:35:24.836455 32252 net.cpp:434] conv1 <- data
I0508 05:35:24.836462 32252 net.cpp:408] conv1 -> conv1
I0508 05:35:25.244997 32252 net.cpp:150] Setting up conv1
I0508 05:35:25.245025 32252 net.cpp:157] Top shape: 1024 100 42 42 (180633600)
I0508 05:35:25.245030 32252 net.cpp:165] Memory required for data: 750862336
I0508 05:35:25.245054 32252 layer_factory.hpp:77] Creating layer conv1_prescale
I0508 05:35:25.245069 32252 net.cpp:100] Creating Layer conv1_prescale
I0508 05:35:25.245075 32252 net.cpp:434] conv1_prescale <- conv1
I0508 05:35:25.245082 32252 net.cpp:395] conv1_prescale -> conv1 (in-place)
I0508 05:35:25.245187 32252 net.cpp:150] Setting up conv1_prescale
I0508 05:35:25.245196 32252 net.cpp:157] Top shape: 1024 100 42 42 (180633600)
I0508 05:35:25.245200 32252 net.cpp:165] Memory required for data: 1473396736
I0508 05:35:25.245208 32252 layer_factory.hpp:77] Creating layer conv1_sTanH
I0508 05:35:25.245218 32252 net.cpp:100] Creating Layer conv1_sTanH
I0508 05:35:25.245223 32252 net.cpp:434] conv1_sTanH <- conv1
I0508 05:35:25.245229 32252 net.cpp:395] conv1_sTanH -> conv1 (in-place)
I0508 05:35:25.245421 32252 net.cpp:150] Setting up conv1_sTanH
I0508 05:35:25.245434 32252 net.cpp:157] Top shape: 1024 100 42 42 (180633600)
I0508 05:35:25.245458 32252 net.cpp:165] Memory required for data: 2195931136
I0508 05:35:25.245463 32252 layer_factory.hpp:77] Creating layer conv1_postscale
I0508 05:35:25.245471 32252 net.cpp:100] Creating Layer conv1_postscale
I0508 05:35:25.245476 32252 net.cpp:434] conv1_postscale <- conv1
I0508 05:35:25.245482 32252 net.cpp:395] conv1_postscale -> conv1 (in-place)
I0508 05:35:25.245580 32252 net.cpp:150] Setting up conv1_postscale
I0508 05:35:25.245590 32252 net.cpp:157] Top shape: 1024 100 42 42 (180633600)
I0508 05:35:25.245595 32252 net.cpp:165] Memory required for data: 2918465536
I0508 05:35:25.245601 32252 layer_factory.hpp:77] Creating layer pool1
I0508 05:35:25.245610 32252 net.cpp:100] Creating Layer pool1
I0508 05:35:25.245615 32252 net.cpp:434] pool1 <- conv1
I0508 05:35:25.245620 32252 net.cpp:408] pool1 -> pool1
I0508 05:35:25.245667 32252 net.cpp:150] Setting up pool1
I0508 05:35:25.245676 32252 net.cpp:157] Top shape: 1024 100 21 21 (45158400)
I0508 05:35:25.245682 32252 net.cpp:165] Memory required for data: 3099099136
I0508 05:35:25.245685 32252 layer_factory.hpp:77] Creating layer conv2
I0508 05:35:25.245697 32252 net.cpp:100] Creating Layer conv2
I0508 05:35:25.245702 32252 net.cpp:434] conv2 <- pool1
I0508 05:35:25.245707 32252 net.cpp:408] conv2 -> conv2
I0508 05:35:25.264042 32252 net.cpp:150] Setting up conv2
I0508 05:35:25.264061 32252 net.cpp:157] Top shape: 1024 150 18 18 (49766400)
I0508 05:35:25.264065 32252 net.cpp:165] Memory required for data: 3298164736
I0508 05:35:25.264077 32252 layer_factory.hpp:77] Creating layer conv2_prescale
I0508 05:35:25.264091 32252 net.cpp:100] Creating Layer conv2_prescale
I0508 05:35:25.264098 32252 net.cpp:434] conv2_prescale <- conv2
I0508 05:35:25.264106 32252 net.cpp:395] conv2_prescale -> conv2 (in-place)
I0508 05:35:25.264215 32252 net.cpp:150] Setting up conv2_prescale
I0508 05:35:25.264225 32252 net.cpp:157] Top shape: 1024 150 18 18 (49766400)
I0508 05:35:25.264228 32252 net.cpp:165] Memory required for data: 3497230336
I0508 05:35:25.264235 32252 layer_factory.hpp:77] Creating layer conv2_sTanH
I0508 05:35:25.264243 32252 net.cpp:100] Creating Layer conv2_sTanH
I0508 05:35:25.264248 32252 net.cpp:434] conv2_sTanH <- conv2
I0508 05:35:25.264255 32252 net.cpp:395] conv2_sTanH -> conv2 (in-place)
I0508 05:35:25.264441 32252 net.cpp:150] Setting up conv2_sTanH
I0508 05:35:25.264453 32252 net.cpp:157] Top shape: 1024 150 18 18 (49766400)
I0508 05:35:25.264456 32252 net.cpp:165] Memory required for data: 3696295936
I0508 05:35:25.264461 32252 layer_factory.hpp:77] Creating layer conv2_postscale
I0508 05:35:25.264469 32252 net.cpp:100] Creating Layer conv2_postscale
I0508 05:35:25.264474 32252 net.cpp:434] conv2_postscale <- conv2
I0508 05:35:25.264480 32252 net.cpp:395] conv2_postscale -> conv2 (in-place)
I0508 05:35:25.264578 32252 net.cpp:150] Setting up conv2_postscale
I0508 05:35:25.264587 32252 net.cpp:157] Top shape: 1024 150 18 18 (49766400)
I0508 05:35:25.264591 32252 net.cpp:165] Memory required for data: 3895361536
I0508 05:35:25.264596 32252 layer_factory.hpp:77] Creating layer pool2
I0508 05:35:25.264606 32252 net.cpp:100] Creating Layer pool2
I0508 05:35:25.264611 32252 net.cpp:434] pool2 <- conv2
I0508 05:35:25.264616 32252 net.cpp:408] pool2 -> pool2
I0508 05:35:25.264662 32252 net.cpp:150] Setting up pool2
I0508 05:35:25.264670 32252 net.cpp:157] Top shape: 1024 150 9 9 (12441600)
I0508 05:35:25.264675 32252 net.cpp:165] Memory required for data: 3945127936
I0508 05:35:25.264679 32252 layer_factory.hpp:77] Creating layer conv3
I0508 05:35:25.264689 32252 net.cpp:100] Creating Layer conv3
I0508 05:35:25.264694 32252 net.cpp:434] conv3 <- pool2
I0508 05:35:25.264701 32252 net.cpp:408] conv3 -> conv3
I0508 05:35:25.271682 32252 net.cpp:150] Setting up conv3
I0508 05:35:25.271699 32252 net.cpp:157] Top shape: 1024 250 6 6 (9216000)
I0508 05:35:25.271703 32252 net.cpp:165] Memory required for data: 3981991936
I0508 05:35:25.271716 32252 layer_factory.hpp:77] Creating layer conv3_prescale
I0508 05:35:25.271726 32252 net.cpp:100] Creating Layer conv3_prescale
I0508 05:35:25.271749 32252 net.cpp:434] conv3_prescale <- conv3
I0508 05:35:25.271756 32252 net.cpp:395] conv3_prescale -> conv3 (in-place)
I0508 05:35:25.271854 32252 net.cpp:150] Setting up conv3_prescale
I0508 05:35:25.271864 32252 net.cpp:157] Top shape: 1024 250 6 6 (9216000)
I0508 05:35:25.271869 32252 net.cpp:165] Memory required for data: 4018855936
I0508 05:35:25.271874 32252 layer_factory.hpp:77] Creating layer conv3_sTanH
I0508 05:35:25.271894 32252 net.cpp:100] Creating Layer conv3_sTanH
I0508 05:35:25.271899 32252 net.cpp:434] conv3_sTanH <- conv3
I0508 05:35:25.271904 32252 net.cpp:395] conv3_sTanH -> conv3 (in-place)
I0508 05:35:25.272101 32252 net.cpp:150] Setting up conv3_sTanH
I0508 05:35:25.272114 32252 net.cpp:157] Top shape: 1024 250 6 6 (9216000)
I0508 05:35:25.272117 32252 net.cpp:165] Memory required for data: 4055719936
I0508 05:35:25.272121 32252 layer_factory.hpp:77] Creating layer conv3_postscale
I0508 05:35:25.272128 32252 net.cpp:100] Creating Layer conv3_postscale
I0508 05:35:25.272133 32252 net.cpp:434] conv3_postscale <- conv3
I0508 05:35:25.272141 32252 net.cpp:395] conv3_postscale -> conv3 (in-place)
I0508 05:35:25.272238 32252 net.cpp:150] Setting up conv3_postscale
I0508 05:35:25.272248 32252 net.cpp:157] Top shape: 1024 250 6 6 (9216000)
I0508 05:35:25.272251 32252 net.cpp:165] Memory required for data: 4092583936
I0508 05:35:25.272258 32252 layer_factory.hpp:77] Creating layer pool3
I0508 05:35:25.272266 32252 net.cpp:100] Creating Layer pool3
I0508 05:35:25.272272 32252 net.cpp:434] pool3 <- conv3
I0508 05:35:25.272279 32252 net.cpp:408] pool3 -> pool3
I0508 05:35:25.272318 32252 net.cpp:150] Setting up pool3
I0508 05:35:25.272327 32252 net.cpp:157] Top shape: 1024 250 3 3 (2304000)
I0508 05:35:25.272330 32252 net.cpp:165] Memory required for data: 4101799936
I0508 05:35:25.272334 32252 layer_factory.hpp:77] Creating layer fc4_300
I0508 05:35:25.272343 32252 net.cpp:100] Creating Layer fc4_300
I0508 05:35:25.272348 32252 net.cpp:434] fc4_300 <- pool3
I0508 05:35:25.272356 32252 net.cpp:408] fc4_300 -> fc4_300
I0508 05:35:25.278803 32252 net.cpp:150] Setting up fc4_300
I0508 05:35:25.278821 32252 net.cpp:157] Top shape: 1024 300 (307200)
I0508 05:35:25.278825 32252 net.cpp:165] Memory required for data: 4103028736
I0508 05:35:25.278833 32252 layer_factory.hpp:77] Creating layer fc4_prescale
I0508 05:35:25.278842 32252 net.cpp:100] Creating Layer fc4_prescale
I0508 05:35:25.278846 32252 net.cpp:434] fc4_prescale <- fc4_300
I0508 05:35:25.278852 32252 net.cpp:395] fc4_prescale -> fc4_300 (in-place)
I0508 05:35:25.278944 32252 net.cpp:150] Setting up fc4_prescale
I0508 05:35:25.278954 32252 net.cpp:157] Top shape: 1024 300 (307200)
I0508 05:35:25.278957 32252 net.cpp:165] Memory required for data: 4104257536
I0508 05:35:25.278962 32252 layer_factory.hpp:77] Creating layer fc4_sTanH
I0508 05:35:25.278969 32252 net.cpp:100] Creating Layer fc4_sTanH
I0508 05:35:25.278972 32252 net.cpp:434] fc4_sTanH <- fc4_300
I0508 05:35:25.278978 32252 net.cpp:395] fc4_sTanH -> fc4_300 (in-place)
I0508 05:35:25.280086 32252 net.cpp:150] Setting up fc4_sTanH
I0508 05:35:25.280104 32252 net.cpp:157] Top shape: 1024 300 (307200)
I0508 05:35:25.280112 32252 net.cpp:165] Memory required for data: 4105486336
I0508 05:35:25.280117 32252 layer_factory.hpp:77] Creating layer fc4_postscale
I0508 05:35:25.280133 32252 net.cpp:100] Creating Layer fc4_postscale
I0508 05:35:25.280143 32252 net.cpp:434] fc4_postscale <- fc4_300
I0508 05:35:25.280153 32252 net.cpp:395] fc4_postscale -> fc4_300 (in-place)
I0508 05:35:25.280270 32252 net.cpp:150] Setting up fc4_postscale
I0508 05:35:25.280283 32252 net.cpp:157] Top shape: 1024 300 (307200)
I0508 05:35:25.280288 32252 net.cpp:165] Memory required for data: 4106715136
I0508 05:35:25.280297 32252 layer_factory.hpp:77] Creating layer fc5_116
I0508 05:35:25.280313 32252 net.cpp:100] Creating Layer fc5_116
I0508 05:35:25.280320 32252 net.cpp:434] fc5_116 <- fc4_300
I0508 05:35:25.280329 32252 net.cpp:408] fc5_116 -> fc5_classes
I0508 05:35:25.282078 32252 net.cpp:150] Setting up fc5_116
I0508 05:35:25.282101 32252 net.cpp:157] Top shape: 1024 116 (118784)
I0508 05:35:25.282107 32252 net.cpp:165] Memory required for data: 4107190272
I0508 05:35:25.282133 32252 layer_factory.hpp:77] Creating layer fc5_classes_fc5_116_0_split
I0508 05:35:25.282146 32252 net.cpp:100] Creating Layer fc5_classes_fc5_116_0_split
I0508 05:35:25.282155 32252 net.cpp:434] fc5_classes_fc5_116_0_split <- fc5_classes
I0508 05:35:25.282166 32252 net.cpp:408] fc5_classes_fc5_116_0_split -> fc5_classes_fc5_116_0_split_0
I0508 05:35:25.282177 32252 net.cpp:408] fc5_classes_fc5_116_0_split -> fc5_classes_fc5_116_0_split_1
I0508 05:35:25.282186 32252 net.cpp:408] fc5_classes_fc5_116_0_split -> fc5_classes_fc5_116_0_split_2
I0508 05:35:25.282244 32252 net.cpp:150] Setting up fc5_classes_fc5_116_0_split
I0508 05:35:25.282253 32252 net.cpp:157] Top shape: 1024 116 (118784)
I0508 05:35:25.282258 32252 net.cpp:157] Top shape: 1024 116 (118784)
I0508 05:35:25.282265 32252 net.cpp:157] Top shape: 1024 116 (118784)
I0508 05:35:25.282270 32252 net.cpp:165] Memory required for data: 4108615680
I0508 05:35:25.282275 32252 layer_factory.hpp:77] Creating layer softmax
I0508 05:35:25.282284 32252 net.cpp:100] Creating Layer softmax
I0508 05:35:25.282291 32252 net.cpp:434] softmax <- fc5_classes_fc5_116_0_split_0
I0508 05:35:25.282300 32252 net.cpp:408] softmax -> softmax
I0508 05:35:25.282675 32252 net.cpp:150] Setting up softmax
I0508 05:35:25.282694 32252 net.cpp:157] Top shape: 1024 116 (118784)
I0508 05:35:25.282702 32252 net.cpp:165] Memory required for data: 4109090816
I0508 05:35:25.282711 32252 layer_factory.hpp:77] Creating layer loss
I0508 05:35:25.282724 32252 net.cpp:100] Creating Layer loss
I0508 05:35:25.282733 32252 net.cpp:434] loss <- softmax
I0508 05:35:25.282743 32252 net.cpp:434] loss <- label_data_1_split_0
I0508 05:35:25.282757 32252 net.cpp:408] loss -> loss
…
