…
I0404 01:08:22.177958  1095 net.cpp:322] The NetState phase (0) differed from the phase (1) specified by a rule in layer accuracy_1
I0404 01:08:22.177969  1095 net.cpp:322] The NetState phase (0) differed from the phase (1) specified by a rule in layer accuracy_5
I0404 01:08:22.178055  1095 net.cpp:58] Initializing net from parameters: 
state {
  phase: TRAIN
  level: 0
  stage: ""
}
layer {
  name: "data"
  type: "Data"
  top: "data"
  top: "label"
  include {
    phase: TRAIN
  }
  transform_param {
    mirror: false
    crop_size: 48
  }
  data_param {
    source: "../local_data/lmdb/rtsd-r3/orig/train/lmdb"
    batch_size: 1500
    backend: LMDB
  }
}
layer {
  name: "conv1"
  type: "Convolution"
  bottom: "data"
  top: "conv1"
  convolution_param {
    num_output: 100
    pad: 0
    kernel_size: 7
    group: 1
    stride: 1
    weight_filler {
      type: "xavier"
    }
  }
}
layer {
  name: "conv1_relu"
  type: "ReLU"
  bottom: "conv1"
  top: "conv1"
}
layer {
  name: "pool1"
  type: "Pooling"
  bottom: "conv1"
  top: "pool1"
  pooling_param {
    pool: MAX
    kernel_size: 2
    stride: 2
  }
}
layer {
  name: "conv2"
  type: "Convolution"
  bottom: "pool1"
  top: "conv2"
  convolution_param {
    num_output: 150
    pad: 0
    kernel_size: 4
    group: 1
    stride: 1
    weight_filler {
      type: "xavier"
    }
  }
}
layer {
  name: "conv2_relu"
  type: "ReLU"
  bottom: "conv2"
  top: "conv2"
}
layer {
  name: "pool2"
  type: "Pooling"
  bottom: "conv2"
  top: "pool2"
  pooling_param {
    pool: MAX
    kernel_size: 2
    stride: 2
  }
}
layer {
  name: "conv3"
  type: "Convolution"
  bottom: "pool2"
  top: "conv3"
  convolution_param {
    num_output: 250
    pad: 0
    kernel_size: 4
    group: 1
    stride: 1
    weight_filler {
      type: "xavier"
    }
  }
}
layer {
  name: "conv3_relu"
  type: "ReLU"
  bottom: "conv3"
  top: "conv3"
}
layer {
  name: "pool3"
  type: "Pooling"
  bottom: "conv3"
  top: "pool3"
  pooling_param {
    pool: MAX
    kernel_size: 2
    stride: 2
  }
}
layer {
  name: "fc4_300"
  type: "InnerProduct"
  bottom: "pool3"
  top: "fc4_300"
  inner_product_param {
    num_output: 300
    weight_filler {
      type: "xavier"
    }
  }
}
layer {
  name: "fc4_relu"
  type: "ReLU"
  bottom: "fc4_300"
  top: "fc4_300"
}
layer {
  name: "drop4"
  type: "Dropout"
  bottom: "fc4_300"
  top: "fc4_300"
  dropout_param {
    dropout_ratio: 0.4
  }
}
layer {
  name: "fc5_106"
  type: "InnerProduct"
  bottom: "fc4_300"
  top: "fc5_classes"
  inner_product_param {
    num_output: 106
    weight_filler {
      type: "xavier"
    }
  }
}
layer {
  name: "loss"
  type: "SoftmaxWithLoss"
  bottom: "fc5_classes"
  bottom: "label"
  top: "loss"
}
I0404 01:08:22.178128  1095 layer_factory.hpp:77] Creating layer data
I0404 01:08:22.179496  1095 net.cpp:100] Creating Layer data
I0404 01:08:22.179509  1095 net.cpp:408] data -> data
I0404 01:08:22.179532  1095 net.cpp:408] data -> label
I0404 01:08:22.262675  1212 db_lmdb.cpp:35] Opened lmdb ../local_data/lmdb/rtsd-r3/orig/train/lmdb
I0404 01:08:22.401311  1095 data_layer.cpp:41] output data size: 1500,3,48,48
I0404 01:08:22.501430  1095 net.cpp:150] Setting up data
I0404 01:08:22.501477  1095 net.cpp:157] Top shape: 1500 3 48 48 (10368000)
I0404 01:08:22.501484  1095 net.cpp:157] Top shape: 1500 (1500)
I0404 01:08:22.501488  1095 net.cpp:165] Memory required for data: 41478000
I0404 01:08:22.501523  1095 layer_factory.hpp:77] Creating layer conv1
I0404 01:08:22.501554  1095 net.cpp:100] Creating Layer conv1
I0404 01:08:22.501564  1095 net.cpp:434] conv1 <- data
I0404 01:08:22.501582  1095 net.cpp:408] conv1 -> conv1
I0404 01:08:22.509434  1346 blocking_queue.cpp:50] Waiting for data
I0404 01:08:23.044464  1095 net.cpp:150] Setting up conv1
I0404 01:08:23.044500  1095 net.cpp:157] Top shape: 1500 100 42 42 (264600000)
I0404 01:08:23.044505  1095 net.cpp:165] Memory required for data: 1099878000
I0404 01:08:23.044538  1095 layer_factory.hpp:77] Creating layer conv1_relu
I0404 01:08:23.044559  1095 net.cpp:100] Creating Layer conv1_relu
I0404 01:08:23.044569  1095 net.cpp:434] conv1_relu <- conv1
I0404 01:08:23.044579  1095 net.cpp:395] conv1_relu -> conv1 (in-place)
I0404 01:08:23.046517  1095 net.cpp:150] Setting up conv1_relu
I0404 01:08:23.046535  1095 net.cpp:157] Top shape: 1500 100 42 42 (264600000)
I0404 01:08:23.046538  1095 net.cpp:165] Memory required for data: 2158278000
I0404 01:08:23.046542  1095 layer_factory.hpp:77] Creating layer pool1
I0404 01:08:23.046550  1095 net.cpp:100] Creating Layer pool1
I0404 01:08:23.046555  1095 net.cpp:434] pool1 <- conv1
I0404 01:08:23.046562  1095 net.cpp:408] pool1 -> pool1
I0404 01:08:23.046643  1095 net.cpp:150] Setting up pool1
I0404 01:08:23.046661  1095 net.cpp:157] Top shape: 1500 100 21 21 (66150000)
I0404 01:08:23.046669  1095 net.cpp:165] Memory required for data: 2422878000
I0404 01:08:23.046677  1095 layer_factory.hpp:77] Creating layer conv2
I0404 01:08:23.046697  1095 net.cpp:100] Creating Layer conv2
I0404 01:08:23.046706  1095 net.cpp:434] conv2 <- pool1
I0404 01:08:23.046717  1095 net.cpp:408] conv2 -> conv2
I0404 01:08:23.056219  1095 net.cpp:150] Setting up conv2
I0404 01:08:23.056269  1095 net.cpp:157] Top shape: 1500 150 18 18 (72900000)
I0404 01:08:23.056278  1095 net.cpp:165] Memory required for data: 2714478000
I0404 01:08:23.056298  1095 layer_factory.hpp:77] Creating layer conv2_relu
I0404 01:08:23.056311  1095 net.cpp:100] Creating Layer conv2_relu
I0404 01:08:23.056318  1095 net.cpp:434] conv2_relu <- conv2
I0404 01:08:23.056326  1095 net.cpp:395] conv2_relu -> conv2 (in-place)
I0404 01:08:23.057363  1095 net.cpp:150] Setting up conv2_relu
I0404 01:08:23.057384  1095 net.cpp:157] Top shape: 1500 150 18 18 (72900000)
I0404 01:08:23.057389  1095 net.cpp:165] Memory required for data: 3006078000
I0404 01:08:23.057395  1095 layer_factory.hpp:77] Creating layer pool2
I0404 01:08:23.057406  1095 net.cpp:100] Creating Layer pool2
I0404 01:08:23.057425  1095 net.cpp:434] pool2 <- conv2
I0404 01:08:23.057443  1095 net.cpp:408] pool2 -> pool2
I0404 01:08:23.057507  1095 net.cpp:150] Setting up pool2
I0404 01:08:23.057518  1095 net.cpp:157] Top shape: 1500 150 9 9 (18225000)
I0404 01:08:23.057523  1095 net.cpp:165] Memory required for data: 3078978000
I0404 01:08:23.057538  1095 layer_factory.hpp:77] Creating layer conv3
I0404 01:08:23.057554  1095 net.cpp:100] Creating Layer conv3
I0404 01:08:23.057560  1095 net.cpp:434] conv3 <- pool2
I0404 01:08:23.057570  1095 net.cpp:408] conv3 -> conv3
I0404 01:08:23.070837  1095 net.cpp:150] Setting up conv3
I0404 01:08:23.071007  1095 net.cpp:157] Top shape: 1500 250 6 6 (13500000)
I0404 01:08:23.071039  1095 net.cpp:165] Memory required for data: 3132978000
I0404 01:08:23.071080  1095 layer_factory.hpp:77] Creating layer conv3_relu
I0404 01:08:23.071118  1095 net.cpp:100] Creating Layer conv3_relu
I0404 01:08:23.071142  1095 net.cpp:434] conv3_relu <- conv3
I0404 01:08:23.071171  1095 net.cpp:395] conv3_relu -> conv3 (in-place)
I0404 01:08:23.073714  1095 net.cpp:150] Setting up conv3_relu
I0404 01:08:23.073737  1095 net.cpp:157] Top shape: 1500 250 6 6 (13500000)
I0404 01:08:23.073742  1095 net.cpp:165] Memory required for data: 3186978000
I0404 01:08:23.073748  1095 layer_factory.hpp:77] Creating layer pool3
I0404 01:08:23.073760  1095 net.cpp:100] Creating Layer pool3
I0404 01:08:23.073767  1095 net.cpp:434] pool3 <- conv3
I0404 01:08:23.073776  1095 net.cpp:408] pool3 -> pool3
I0404 01:08:23.073873  1095 net.cpp:150] Setting up pool3
I0404 01:08:23.073889  1095 net.cpp:157] Top shape: 1500 250 3 3 (3375000)
I0404 01:08:23.073894  1095 net.cpp:165] Memory required for data: 3200478000
I0404 01:08:23.073899  1095 layer_factory.hpp:77] Creating layer fc4_300
I0404 01:08:23.073909  1095 net.cpp:100] Creating Layer fc4_300
I0404 01:08:23.073916  1095 net.cpp:434] fc4_300 <- pool3
I0404 01:08:23.073923  1095 net.cpp:408] fc4_300 -> fc4_300
I0404 01:08:23.082746  1095 net.cpp:150] Setting up fc4_300
I0404 01:08:23.082787  1095 net.cpp:157] Top shape: 1500 300 (450000)
I0404 01:08:23.082803  1095 net.cpp:165] Memory required for data: 3202278000
I0404 01:08:23.082828  1095 layer_factory.hpp:77] Creating layer fc4_relu
I0404 01:08:23.082844  1095 net.cpp:100] Creating Layer fc4_relu
I0404 01:08:23.082854  1095 net.cpp:434] fc4_relu <- fc4_300
I0404 01:08:23.082865  1095 net.cpp:395] fc4_relu -> fc4_300 (in-place)
I0404 01:08:23.083145  1095 net.cpp:150] Setting up fc4_relu
I0404 01:08:23.083164  1095 net.cpp:157] Top shape: 1500 300 (450000)
I0404 01:08:23.083171  1095 net.cpp:165] Memory required for data: 3204078000
I0404 01:08:23.083178  1095 layer_factory.hpp:77] Creating layer drop4
I0404 01:08:23.083187  1095 net.cpp:100] Creating Layer drop4
I0404 01:08:23.083194  1095 net.cpp:434] drop4 <- fc4_300
I0404 01:08:23.083202  1095 net.cpp:395] drop4 -> fc4_300 (in-place)
I0404 01:08:23.083254  1095 net.cpp:150] Setting up drop4
I0404 01:08:23.083268  1095 net.cpp:157] Top shape: 1500 300 (450000)
I0404 01:08:23.083272  1095 net.cpp:165] Memory required for data: 3205878000
I0404 01:08:23.083278  1095 layer_factory.hpp:77] Creating layer fc5_106
I0404 01:08:23.083289  1095 net.cpp:100] Creating Layer fc5_106
I0404 01:08:23.083294  1095 net.cpp:434] fc5_106 <- fc4_300
I0404 01:08:23.083302  1095 net.cpp:408] fc5_106 -> fc5_classes
I0404 01:08:23.087450  1095 net.cpp:150] Setting up fc5_106
I0404 01:08:23.087473  1095 net.cpp:157] Top shape: 1500 106 (159000)
I0404 01:08:23.087479  1095 net.cpp:165] Memory required for data: 3206514000
I0404 01:08:23.087499  1095 layer_factory.hpp:77] Creating layer loss
I0404 01:08:23.087527  1095 net.cpp:100] Creating Layer loss
I0404 01:08:23.087538  1095 net.cpp:434] loss <- fc5_classes
I0404 01:08:23.087545  1095 net.cpp:434] loss <- label
I0404 01:08:23.087556  1095 net.cpp:408] loss -> loss
I0404 01:08:23.087579  1095 layer_factory.hpp:77] Creating layer loss
…
I0404 01:08:23.088285  1095 net.cpp:283] Network initialization done.
I0404 01:08:23.088536  1095 solver.cpp:193] Creating test net (#0) specified by test_net file: ./Prototxt/experiment_4/rtsd-r3/orig/test.prototxt
I0404 01:08:23.088750  1095 net.cpp:58] Initializing net from parameters: 
state {
  phase: TEST
}
layer {
  name: "data"
  type: "Data"
  top: "data"
  top: "label"
  include {
    phase: TEST
  }
  transform_param {
    mirror: false
    crop_size: 48
  }
  data_param {
    source: "../local_data/lmdb/rtsd-r3/orig/test/lmdb"
    batch_size: 1500
    backend: LMDB
  }
}
layer {
  name: "conv1"
  type: "Convolution"
  bottom: "data"
  top: "conv1"
  convolution_param {
    num_output: 100
    pad: 0
    kernel_size: 7
    group: 1
    stride: 1
    weight_filler {
      type: "xavier"
    }
  }
}
layer {
  name: "conv1_relu"
  type: "ReLU"
  bottom: "conv1"
  top: "conv1"
}
layer {
  name: "pool1"
  type: "Pooling"
  bottom: "conv1"
  top: "pool1"
  pooling_param {
    pool: MAX
    kernel_size: 2
    stride: 2
  }
}
layer {
  name: "conv2"
  type: "Convolution"
  bottom: "pool1"
  top: "conv2"
  convolution_param {
    num_output: 150
    pad: 0
    kernel_size: 4
    group: 1
    stride: 1
    weight_filler {
      type: "xavier"
    }
  }
}
layer {
  name: "conv2_relu"
  type: "ReLU"
  bottom: "conv2"
  top: "conv2"
}
layer {
  name: "pool2"
  type: "Pooling"
  bottom: "conv2"
  top: "pool2"
  pooling_param {
    pool: MAX
    kernel_size: 2
    stride: 2
  }
}
layer {
  name: "conv3"
  type: "Convolution"
  bottom: "pool2"
  top: "conv3"
  convolution_param {
    num_output: 250
    pad: 0
    kernel_size: 4
    group: 1
    stride: 1
    weight_filler {
      type: "xavier"
    }
  }
}
layer {
  name: "conv3_relu"
  type: "ReLU"
  bottom: "conv3"
  top: "conv3"
}
layer {
  name: "pool3"
  type: "Pooling"
  bottom: "conv3"
  top: "pool3"
  pooling_param {
    pool: MAX
    kernel_size: 2
    stride: 2
  }
}
layer {
  name: "fc4_300"
  type: "InnerProduct"
  bottom: "pool3"
  top: "fc4_300"
  inner_product_param {
    num_output: 300
    weight_filler {
      type: "xavier"
    }
  }
}
layer {
  name: "fc4_relu"
  type: "ReLU"
  bottom: "fc4_300"
  top: "fc4_300"
}
layer {
  name: "drop4"
  type: "Dropout"
  bottom: "fc4_300"
  top: "fc4_300"
  dropout_param {
    dropout_ratio: 0.4
  }
}
layer {
  name: "fc5_106"
  type: "InnerProduct"
  bottom: "fc4_300"
  top: "fc5_classes"
  inner_product_param {
    num_output: 106
    weight_filler {
      type: "xavier"
    }
  }
}
layer {
  name: "loss"
  type: "SoftmaxWithLoss"
  bottom: "fc5_classes"
  bottom: "label"
  top: "loss"
}
layer {
  name: "accuracy_1"
  type: "Accuracy"
  bottom: "fc5_classes"
  bottom: "label"
  top: "accuracy_1"
  include {
    phase: TEST
  }
  accuracy_param {
    top_k: 1
  }
}
layer {
  name: "accuracy_5"
  type: "Accuracy"
  bottom: "fc5_classes"
  bottom: "label"
  top: "accuracy_5"
  include {
    phase: TEST
  }
  accuracy_param {
    top_k: 5
  }
}
I0404 01:08:23.088876  1095 layer_factory.hpp:77] Creating layer data
I0404 01:08:23.089931  1095 net.cpp:100] Creating Layer data
I0404 01:08:23.089972  1095 net.cpp:408] data -> data
I0404 01:08:23.090003  1095 net.cpp:408] data -> label
I0404 01:08:23.181066  1383 db_lmdb.cpp:35] Opened lmdb ../local_data/lmdb/rtsd-r3/orig/test/lmdb
I0404 01:08:23.181280  1095 data_layer.cpp:41] output data size: 1500,3,48,48
I0404 01:08:23.274915  1095 net.cpp:150] Setting up data
I0404 01:08:23.274997  1095 net.cpp:157] Top shape: 1500 3 48 48 (10368000)
I0404 01:08:23.275025  1095 net.cpp:157] Top shape: 1500 (1500)
I0404 01:08:23.275043  1095 net.cpp:165] Memory required for data: 41478000
I0404 01:08:23.275064  1095 layer_factory.hpp:77] Creating layer label_data_1_split
I0404 01:08:23.275101  1095 net.cpp:100] Creating Layer label_data_1_split
I0404 01:08:23.275123  1095 net.cpp:434] label_data_1_split <- label
I0404 01:08:23.275146  1095 net.cpp:408] label_data_1_split -> label_data_1_split_0
I0404 01:08:23.275176  1095 net.cpp:408] label_data_1_split -> label_data_1_split_1
I0404 01:08:23.275205  1095 net.cpp:408] label_data_1_split -> label_data_1_split_2
I0404 01:08:23.275342  1095 net.cpp:150] Setting up label_data_1_split
I0404 01:08:23.275393  1095 net.cpp:157] Top shape: 1500 (1500)
I0404 01:08:23.275414  1095 net.cpp:157] Top shape: 1500 (1500)
I0404 01:08:23.275435  1095 net.cpp:157] Top shape: 1500 (1500)
I0404 01:08:23.275452  1095 net.cpp:165] Memory required for data: 41496000
I0404 01:08:23.275471  1095 layer_factory.hpp:77] Creating layer conv1
I0404 01:08:23.275506  1095 net.cpp:100] Creating Layer conv1
I0404 01:08:23.275526  1095 net.cpp:434] conv1 <- data
I0404 01:08:23.275549  1095 net.cpp:408] conv1 -> conv1
I0404 01:08:23.292217  1095 net.cpp:150] Setting up conv1
I0404 01:08:23.292268  1095 net.cpp:157] Top shape: 1500 100 42 42 (264600000)
I0404 01:08:23.292278  1095 net.cpp:165] Memory required for data: 1099896000
I0404 01:08:23.292299  1095 layer_factory.hpp:77] Creating layer conv1_relu
I0404 01:08:23.292322  1095 net.cpp:100] Creating Layer conv1_relu
I0404 01:08:23.292332  1095 net.cpp:434] conv1_relu <- conv1
I0404 01:08:23.292342  1095 net.cpp:395] conv1_relu -> conv1 (in-place)
I0404 01:08:23.296528  1095 net.cpp:150] Setting up conv1_relu
I0404 01:08:23.296550  1095 net.cpp:157] Top shape: 1500 100 42 42 (264600000)
I0404 01:08:23.296556  1095 net.cpp:165] Memory required for data: 2158296000
I0404 01:08:23.296563  1095 layer_factory.hpp:77] Creating layer pool1
I0404 01:08:23.296586  1095 net.cpp:100] Creating Layer pool1
I0404 01:08:23.296594  1095 net.cpp:434] pool1 <- conv1
I0404 01:08:23.296605  1095 net.cpp:408] pool1 -> pool1
I0404 01:08:23.296682  1095 net.cpp:150] Setting up pool1
I0404 01:08:23.296695  1095 net.cpp:157] Top shape: 1500 100 21 21 (66150000)
I0404 01:08:23.296700  1095 net.cpp:165] Memory required for data: 2422896000
I0404 01:08:23.296705  1095 layer_factory.hpp:77] Creating layer conv2
I0404 01:08:23.296725  1095 net.cpp:100] Creating Layer conv2
I0404 01:08:23.296730  1095 net.cpp:434] conv2 <- pool1
I0404 01:08:23.296741  1095 net.cpp:408] conv2 -> conv2
I0404 01:08:23.309731  1095 net.cpp:150] Setting up conv2
I0404 01:08:23.309764  1095 net.cpp:157] Top shape: 1500 150 18 18 (72900000)
I0404 01:08:23.309770  1095 net.cpp:165] Memory required for data: 2714496000
I0404 01:08:23.309792  1095 layer_factory.hpp:77] Creating layer conv2_relu
I0404 01:08:23.309829  1095 net.cpp:100] Creating Layer conv2_relu
I0404 01:08:23.309840  1095 net.cpp:434] conv2_relu <- conv2
I0404 01:08:23.309852  1095 net.cpp:395] conv2_relu -> conv2 (in-place)
I0404 01:08:23.311851  1095 net.cpp:150] Setting up conv2_relu
I0404 01:08:23.311895  1095 net.cpp:157] Top shape: 1500 150 18 18 (72900000)
I0404 01:08:23.311918  1095 net.cpp:165] Memory required for data: 3006096000
I0404 01:08:23.311926  1095 layer_factory.hpp:77] Creating layer pool2
I0404 01:08:23.311939  1095 net.cpp:100] Creating Layer pool2
I0404 01:08:23.311947  1095 net.cpp:434] pool2 <- conv2
I0404 01:08:23.311957  1095 net.cpp:408] pool2 -> pool2
I0404 01:08:23.312036  1095 net.cpp:150] Setting up pool2
I0404 01:08:23.312048  1095 net.cpp:157] Top shape: 1500 150 9 9 (18225000)
I0404 01:08:23.312053  1095 net.cpp:165] Memory required for data: 3078996000
I0404 01:08:23.312059  1095 layer_factory.hpp:77] Creating layer conv3
I0404 01:08:23.312079  1095 net.cpp:100] Creating Layer conv3
I0404 01:08:23.312086  1095 net.cpp:434] conv3 <- pool2
I0404 01:08:23.312096  1095 net.cpp:408] conv3 -> conv3
I0404 01:08:23.320811  1095 net.cpp:150] Setting up conv3
I0404 01:08:23.320896  1095 net.cpp:157] Top shape: 1500 250 6 6 (13500000)
I0404 01:08:23.320932  1095 net.cpp:165] Memory required for data: 3132996000
I0404 01:08:23.320974  1095 layer_factory.hpp:77] Creating layer conv3_relu
I0404 01:08:23.321013  1095 net.cpp:100] Creating Layer conv3_relu
I0404 01:08:23.321038  1095 net.cpp:434] conv3_relu <- conv3
I0404 01:08:23.321072  1095 net.cpp:395] conv3_relu -> conv3 (in-place)
I0404 01:08:23.322815  1095 net.cpp:150] Setting up conv3_relu
I0404 01:08:23.322839  1095 net.cpp:157] Top shape: 1500 250 6 6 (13500000)
I0404 01:08:23.322846  1095 net.cpp:165] Memory required for data: 3186996000
I0404 01:08:23.322852  1095 layer_factory.hpp:77] Creating layer pool3
I0404 01:08:23.322906  1095 net.cpp:100] Creating Layer pool3
I0404 01:08:23.322916  1095 net.cpp:434] pool3 <- conv3
I0404 01:08:23.322931  1095 net.cpp:408] pool3 -> pool3
I0404 01:08:23.323026  1095 net.cpp:150] Setting up pool3
I0404 01:08:23.323042  1095 net.cpp:157] Top shape: 1500 250 3 3 (3375000)
I0404 01:08:23.323047  1095 net.cpp:165] Memory required for data: 3200496000
I0404 01:08:23.323053  1095 layer_factory.hpp:77] Creating layer fc4_300
I0404 01:08:23.323070  1095 net.cpp:100] Creating Layer fc4_300
I0404 01:08:23.323079  1095 net.cpp:434] fc4_300 <- pool3
I0404 01:08:23.323092  1095 net.cpp:408] fc4_300 -> fc4_300
I0404 01:08:23.331663  1095 net.cpp:150] Setting up fc4_300
I0404 01:08:23.331735  1095 net.cpp:157] Top shape: 1500 300 (450000)
I0404 01:08:23.331764  1095 net.cpp:165] Memory required for data: 3202296000
I0404 01:08:23.331799  1095 layer_factory.hpp:77] Creating layer fc4_relu
I0404 01:08:23.331831  1095 net.cpp:100] Creating Layer fc4_relu
I0404 01:08:23.331853  1095 net.cpp:434] fc4_relu <- fc4_300
I0404 01:08:23.331879  1095 net.cpp:395] fc4_relu -> fc4_300 (in-place)
I0404 01:08:23.332255  1095 net.cpp:150] Setting up fc4_relu
I0404 01:08:23.332296  1095 net.cpp:157] Top shape: 1500 300 (450000)
I0404 01:08:23.332324  1095 net.cpp:165] Memory required for data: 3204096000
I0404 01:08:23.332350  1095 layer_factory.hpp:77] Creating layer drop4
I0404 01:08:23.332381  1095 net.cpp:100] Creating Layer drop4
I0404 01:08:23.332406  1095 net.cpp:434] drop4 <- fc4_300
I0404 01:08:23.332433  1095 net.cpp:395] drop4 -> fc4_300 (in-place)
I0404 01:08:23.332509  1095 net.cpp:150] Setting up drop4
I0404 01:08:23.332540  1095 net.cpp:157] Top shape: 1500 300 (450000)
I0404 01:08:23.332561  1095 net.cpp:165] Memory required for data: 3205896000
I0404 01:08:23.332578  1095 layer_factory.hpp:77] Creating layer fc5_106
I0404 01:08:23.332602  1095 net.cpp:100] Creating Layer fc5_106
I0404 01:08:23.332623  1095 net.cpp:434] fc5_106 <- fc4_300
I0404 01:08:23.332649  1095 net.cpp:408] fc5_106 -> fc5_classes
I0404 01:08:23.333243  1095 net.cpp:150] Setting up fc5_106
I0404 01:08:23.333281  1095 net.cpp:157] Top shape: 1500 106 (159000)
I0404 01:08:23.333302  1095 net.cpp:165] Memory required for data: 3206532000
I0404 01:08:23.333346  1095 layer_factory.hpp:77] Creating layer fc5_classes_fc5_106_0_split
I0404 01:08:23.333385  1095 net.cpp:100] Creating Layer fc5_classes_fc5_106_0_split
I0404 01:08:23.333406  1095 net.cpp:434] fc5_classes_fc5_106_0_split <- fc5_classes
I0404 01:08:23.333431  1095 net.cpp:408] fc5_classes_fc5_106_0_split -> fc5_classes_fc5_106_0_split_0
I0404 01:08:23.333461  1095 net.cpp:408] fc5_classes_fc5_106_0_split -> fc5_classes_fc5_106_0_split_1
I0404 01:08:23.333503  1095 net.cpp:408] fc5_classes_fc5_106_0_split -> fc5_classes_fc5_106_0_split_2
I0404 01:08:23.333616  1095 net.cpp:150] Setting up fc5_classes_fc5_106_0_split
I0404 01:08:23.333647  1095 net.cpp:157] Top shape: 1500 106 (159000)
I0404 01:08:23.333674  1095 net.cpp:157] Top shape: 1500 106 (159000)
I0404 01:08:23.333699  1095 net.cpp:157] Top shape: 1500 106 (159000)
I0404 01:08:23.333721  1095 net.cpp:165] Memory required for data: 3208440000
I0404 01:08:23.333744  1095 layer_factory.hpp:77] Creating layer loss
I0404 01:08:23.333776  1095 net.cpp:100] Creating Layer loss
I0404 01:08:23.333806  1095 net.cpp:434] loss <- fc5_classes_fc5_106_0_split_0
I0404 01:08:23.333827  1095 net.cpp:434] loss <- label_data_1_split_0
I0404 01:08:23.333851  1095 net.cpp:408] loss -> loss
…
