…
I0508 02:21:03.258662 29520 solver.cpp:93] Creating training net from train_net file: ./Prototxt/experiment_15/RTSD/orig/trial_4/train.prototxt
I0508 02:21:03.259229 29520 net.cpp:58] Initializing net from parameters: 
state {
  phase: TRAIN
  level: 0
  stage: ""
}
layer {
  name: "data"
  type: "Data"
  top: "data"
  top: "label"
  include {
    phase: TRAIN
  }
  transform_param {
    scale: 0.0039215689
    mirror: false
    crop_size: 48
    mean_value: 119
    mean_value: 113
    mean_value: 113
  }
  data_param {
    source: "../local_data/lmdb/RTSD/orig/train/lmdb"
    batch_size: 1024
    backend: LMDB
  }
}
layer {
  name: "conv1"
  type: "Convolution"
  bottom: "data"
  top: "conv1"
  convolution_param {
    num_output: 100
    pad: 0
    kernel_size: 7
    group: 1
    stride: 1
    weight_filler {
      type: "xavier"
    }
  }
}
layer {
  name: "conv1_prescale"
  type: "Scale"
  bottom: "conv1"
  top: "conv1"
  param {
    lr_mult: 0
    decay_mult: 0
  }
  scale_param {
    filler {
      value: 0.6666
    }
    bias_term: false
  }
}
layer {
  name: "conv1_sTanH"
  type: "TanH"
  bottom: "conv1"
  top: "conv1"
}
layer {
  name: "conv1_postscale"
  type: "Scale"
  bottom: "conv1"
  top: "conv1"
  param {
    lr_mult: 0
    decay_mult: 0
  }
  scale_param {
    filler {
      value: 1.7159
    }
    bias_term: false
  }
}
layer {
  name: "pool1"
  type: "Pooling"
  bottom: "conv1"
  top: "pool1"
  pooling_param {
    pool: MAX
    kernel_size: 2
    stride: 2
  }
}
layer {
  name: "conv2"
  type: "Convolution"
  bottom: "pool1"
  top: "conv2"
  convolution_param {
    num_output: 150
    pad: 0
    kernel_size: 4
    group: 2
    stride: 1
    weight_filler {
      type: "xavier"
    }
  }
}
layer {
  name: "conv2_prescale"
  type: "Scale"
  bottom: "conv2"
  top: "conv2"
  param {
    lr_mult: 0
    decay_mult: 0
  }
  scale_param {
    filler {
      value: 0.6666
    }
    bias_term: false
  }
}
layer {
  name: "conv2_sTanH"
  type: "TanH"
  bottom: "conv2"
  top: "conv2"
}
layer {
  name: "conv2_postscale"
  type: "Scale"
  bottom: "conv2"
  top: "conv2"
  param {
    lr_mult: 0
    decay_mult: 0
  }
  scale_param {
    filler {
      value: 1.7159
    }
    bias_term: false
  }
}
layer {
  name: "pool2"
  type: "Pooling"
  bottom: "conv2"
  top: "pool2"
  pooling_param {
    pool: MAX
    kernel_size: 2
    stride: 2
  }
}
layer {
  name: "conv3"
  type: "Convolution"
  bottom: "pool2"
  top: "conv3"
  convolution_param {
    num_output: 250
    pad: 0
    kernel_size: 4
    group: 2
    stride: 1
    weight_filler {
      type: "xavier"
    }
  }
}
layer {
  name: "conv3_prescale"
  type: "Scale"
  bottom: "conv3"
  top: "conv3"
  param {
    lr_mult: 0
    decay_mult: 0
  }
  scale_param {
    filler {
      value: 0.6666
    }
    bias_term: false
  }
}
layer {
  name: "conv3_sTanH"
  type: "TanH"
  bottom: "conv3"
  top: "conv3"
}
layer {
  name: "conv3_postscale"
  type: "Scale"
  bottom: "conv3"
  top: "conv3"
  param {
    lr_mult: 0
    decay_mult: 0
  }
  scale_param {
    filler {
      value: 1.7159
    }
    bias_term: false
  }
}
layer {
  name: "pool3"
  type: "Pooling"
  bottom: "conv3"
  top: "pool3"
  pooling_param {
    pool: MAX
    kernel_size: 2
    stride: 2
  }
}
layer {
  name: "fc4_300"
  type: "InnerProduct"
  bottom: "pool3"
  top: "fc4_300"
  inner_product_param {
    num_output: 300
    weight_filler {
      type: "xavier"
    }
  }
}
layer {
  name: "fc4_prescale"
  type: "Scale"
  bottom: "fc4_300"
  top: "fc4_300"
  param {
    lr_mult: 0
    decay_mult: 0
  }
  scale_param {
    filler {
      value: 0.6666
    }
    bias_term: false
  }
}
layer {
  name: "fc4_sTanH"
  type: "TanH"
  bottom: "fc4_300"
  top: "fc4_300"
}
layer {
  name: "fc4_postscale"
  type: "Scale"
  bottom: "fc4_300"
  top: "fc4_300"
  param {
    lr_mult: 0
    decay_mult: 0
  }
  scale_param {
    filler {
      value: 1.7159
    }
    bias_term: false
  }
}
layer {
  name: "fc5_116"
  type: "InnerProduct"
  bottom: "fc4_300"
  top: "fc5_classes"
  inner_product_param {
    num_output: 116
    weight_filler {
      type: "xavier"
    }
  }
}
layer {
  name: "softmax"
  type: "Softmax"
  bottom: "fc5_classes"
  top: "softmax"
}
layer {
  name: "loss"
  type: "MultinomialLogisticLoss"
  bottom: "softmax"
  bottom: "label"
  top: "loss"
}
layer {
  name: "accuracy_1"
  type: "Accuracy"
  bottom: "fc5_classes"
  bottom: "label"
  top: "accuracy_1"
  accuracy_param {
    top_k: 1
  }
}
layer {
  name: "accuracy_5"
  type: "Accuracy"
  bottom: "fc5_classes"
  bottom: "label"
  top: "accuracy_5"
  accuracy_param {
    top_k: 5
  }
}
layer {
  name: "silence"
  type: "Silence"
  bottom: "accuracy_1"
  bottom: "accuracy_5"
}
I0508 02:21:03.259409 29520 layer_factory.hpp:77] Creating layer data
I0508 02:21:03.260710 29520 net.cpp:100] Creating Layer data
I0508 02:21:03.260730 29520 net.cpp:408] data -> data
I0508 02:21:03.260756 29520 net.cpp:408] data -> label
I0508 02:21:03.265341 29661 db_lmdb.cpp:35] Opened lmdb ../local_data/lmdb/RTSD/orig/train/lmdb
I0508 02:21:03.287773 29520 data_layer.cpp:41] output data size: 1024,3,48,48
I0508 02:21:03.356477 29520 net.cpp:150] Setting up data
I0508 02:21:03.356508 29520 net.cpp:157] Top shape: 1024 3 48 48 (7077888)
I0508 02:21:03.356516 29520 net.cpp:157] Top shape: 1024 (1024)
I0508 02:21:03.356520 29520 net.cpp:165] Memory required for data: 28315648
I0508 02:21:03.356534 29520 layer_factory.hpp:77] Creating layer label_data_1_split
I0508 02:21:03.356549 29520 net.cpp:100] Creating Layer label_data_1_split
I0508 02:21:03.356559 29520 net.cpp:434] label_data_1_split <- label
I0508 02:21:03.356578 29520 net.cpp:408] label_data_1_split -> label_data_1_split_0
I0508 02:21:03.356595 29520 net.cpp:408] label_data_1_split -> label_data_1_split_1
I0508 02:21:03.356604 29520 net.cpp:408] label_data_1_split -> label_data_1_split_2
I0508 02:21:03.356683 29520 net.cpp:150] Setting up label_data_1_split
I0508 02:21:03.356693 29520 net.cpp:157] Top shape: 1024 (1024)
I0508 02:21:03.356700 29520 net.cpp:157] Top shape: 1024 (1024)
I0508 02:21:03.356705 29520 net.cpp:157] Top shape: 1024 (1024)
I0508 02:21:03.356709 29520 net.cpp:165] Memory required for data: 28327936
I0508 02:21:03.356714 29520 layer_factory.hpp:77] Creating layer conv1
I0508 02:21:03.356734 29520 net.cpp:100] Creating Layer conv1
I0508 02:21:03.356740 29520 net.cpp:434] conv1 <- data
I0508 02:21:03.356747 29520 net.cpp:408] conv1 -> conv1
I0508 02:21:03.720790 29520 net.cpp:150] Setting up conv1
I0508 02:21:03.720819 29520 net.cpp:157] Top shape: 1024 100 42 42 (180633600)
I0508 02:21:03.720824 29520 net.cpp:165] Memory required for data: 750862336
I0508 02:21:03.720847 29520 layer_factory.hpp:77] Creating layer conv1_prescale
I0508 02:21:03.720860 29520 net.cpp:100] Creating Layer conv1_prescale
I0508 02:21:03.720866 29520 net.cpp:434] conv1_prescale <- conv1
I0508 02:21:03.720873 29520 net.cpp:395] conv1_prescale -> conv1 (in-place)
I0508 02:21:03.720978 29520 net.cpp:150] Setting up conv1_prescale
I0508 02:21:03.720986 29520 net.cpp:157] Top shape: 1024 100 42 42 (180633600)
I0508 02:21:03.720989 29520 net.cpp:165] Memory required for data: 1473396736
I0508 02:21:03.720998 29520 layer_factory.hpp:77] Creating layer conv1_sTanH
I0508 02:21:03.721006 29520 net.cpp:100] Creating Layer conv1_sTanH
I0508 02:21:03.721011 29520 net.cpp:434] conv1_sTanH <- conv1
I0508 02:21:03.721016 29520 net.cpp:395] conv1_sTanH -> conv1 (in-place)
I0508 02:21:03.721207 29520 net.cpp:150] Setting up conv1_sTanH
I0508 02:21:03.721220 29520 net.cpp:157] Top shape: 1024 100 42 42 (180633600)
I0508 02:21:03.721240 29520 net.cpp:165] Memory required for data: 2195931136
I0508 02:21:03.721245 29520 layer_factory.hpp:77] Creating layer conv1_postscale
I0508 02:21:03.721251 29520 net.cpp:100] Creating Layer conv1_postscale
I0508 02:21:03.721257 29520 net.cpp:434] conv1_postscale <- conv1
I0508 02:21:03.721263 29520 net.cpp:395] conv1_postscale -> conv1 (in-place)
I0508 02:21:03.721356 29520 net.cpp:150] Setting up conv1_postscale
I0508 02:21:03.721365 29520 net.cpp:157] Top shape: 1024 100 42 42 (180633600)
I0508 02:21:03.721369 29520 net.cpp:165] Memory required for data: 2918465536
I0508 02:21:03.721374 29520 layer_factory.hpp:77] Creating layer pool1
I0508 02:21:03.721381 29520 net.cpp:100] Creating Layer pool1
I0508 02:21:03.721385 29520 net.cpp:434] pool1 <- conv1
I0508 02:21:03.721391 29520 net.cpp:408] pool1 -> pool1
I0508 02:21:03.721436 29520 net.cpp:150] Setting up pool1
I0508 02:21:03.721444 29520 net.cpp:157] Top shape: 1024 100 21 21 (45158400)
I0508 02:21:03.721448 29520 net.cpp:165] Memory required for data: 3099099136
I0508 02:21:03.721451 29520 layer_factory.hpp:77] Creating layer conv2
I0508 02:21:03.721462 29520 net.cpp:100] Creating Layer conv2
I0508 02:21:03.721467 29520 net.cpp:434] conv2 <- pool1
I0508 02:21:03.721472 29520 net.cpp:408] conv2 -> conv2
I0508 02:21:03.728109 29520 net.cpp:150] Setting up conv2
I0508 02:21:03.728127 29520 net.cpp:157] Top shape: 1024 150 18 18 (49766400)
I0508 02:21:03.728132 29520 net.cpp:165] Memory required for data: 3298164736
I0508 02:21:03.728142 29520 layer_factory.hpp:77] Creating layer conv2_prescale
I0508 02:21:03.728155 29520 net.cpp:100] Creating Layer conv2_prescale
I0508 02:21:03.728162 29520 net.cpp:434] conv2_prescale <- conv2
I0508 02:21:03.728168 29520 net.cpp:395] conv2_prescale -> conv2 (in-place)
I0508 02:21:03.728276 29520 net.cpp:150] Setting up conv2_prescale
I0508 02:21:03.728284 29520 net.cpp:157] Top shape: 1024 150 18 18 (49766400)
I0508 02:21:03.728287 29520 net.cpp:165] Memory required for data: 3497230336
I0508 02:21:03.728292 29520 layer_factory.hpp:77] Creating layer conv2_sTanH
I0508 02:21:03.728301 29520 net.cpp:100] Creating Layer conv2_sTanH
I0508 02:21:03.728305 29520 net.cpp:434] conv2_sTanH <- conv2
I0508 02:21:03.728310 29520 net.cpp:395] conv2_sTanH -> conv2 (in-place)
I0508 02:21:03.728497 29520 net.cpp:150] Setting up conv2_sTanH
I0508 02:21:03.728508 29520 net.cpp:157] Top shape: 1024 150 18 18 (49766400)
I0508 02:21:03.728513 29520 net.cpp:165] Memory required for data: 3696295936
I0508 02:21:03.728516 29520 layer_factory.hpp:77] Creating layer conv2_postscale
I0508 02:21:03.728523 29520 net.cpp:100] Creating Layer conv2_postscale
I0508 02:21:03.728528 29520 net.cpp:434] conv2_postscale <- conv2
I0508 02:21:03.728534 29520 net.cpp:395] conv2_postscale -> conv2 (in-place)
I0508 02:21:03.728633 29520 net.cpp:150] Setting up conv2_postscale
I0508 02:21:03.728642 29520 net.cpp:157] Top shape: 1024 150 18 18 (49766400)
I0508 02:21:03.728646 29520 net.cpp:165] Memory required for data: 3895361536
I0508 02:21:03.728651 29520 layer_factory.hpp:77] Creating layer pool2
I0508 02:21:03.728657 29520 net.cpp:100] Creating Layer pool2
I0508 02:21:03.728662 29520 net.cpp:434] pool2 <- conv2
I0508 02:21:03.728669 29520 net.cpp:408] pool2 -> pool2
I0508 02:21:03.728711 29520 net.cpp:150] Setting up pool2
I0508 02:21:03.728720 29520 net.cpp:157] Top shape: 1024 150 9 9 (12441600)
I0508 02:21:03.728725 29520 net.cpp:165] Memory required for data: 3945127936
I0508 02:21:03.728729 29520 layer_factory.hpp:77] Creating layer conv3
I0508 02:21:03.728739 29520 net.cpp:100] Creating Layer conv3
I0508 02:21:03.728744 29520 net.cpp:434] conv3 <- pool2
I0508 02:21:03.728749 29520 net.cpp:408] conv3 -> conv3
I0508 02:21:03.738901 29520 net.cpp:150] Setting up conv3
I0508 02:21:03.738921 29520 net.cpp:157] Top shape: 1024 250 6 6 (9216000)
I0508 02:21:03.738926 29520 net.cpp:165] Memory required for data: 3981991936
I0508 02:21:03.738936 29520 layer_factory.hpp:77] Creating layer conv3_prescale
I0508 02:21:03.738960 29520 net.cpp:100] Creating Layer conv3_prescale
I0508 02:21:03.738965 29520 net.cpp:434] conv3_prescale <- conv3
I0508 02:21:03.738970 29520 net.cpp:395] conv3_prescale -> conv3 (in-place)
I0508 02:21:03.739073 29520 net.cpp:150] Setting up conv3_prescale
I0508 02:21:03.739082 29520 net.cpp:157] Top shape: 1024 250 6 6 (9216000)
I0508 02:21:03.739085 29520 net.cpp:165] Memory required for data: 4018855936
I0508 02:21:03.739090 29520 layer_factory.hpp:77] Creating layer conv3_sTanH
I0508 02:21:03.739096 29520 net.cpp:100] Creating Layer conv3_sTanH
I0508 02:21:03.739101 29520 net.cpp:434] conv3_sTanH <- conv3
I0508 02:21:03.739107 29520 net.cpp:395] conv3_sTanH -> conv3 (in-place)
I0508 02:21:03.739300 29520 net.cpp:150] Setting up conv3_sTanH
I0508 02:21:03.739310 29520 net.cpp:157] Top shape: 1024 250 6 6 (9216000)
I0508 02:21:03.739313 29520 net.cpp:165] Memory required for data: 4055719936
I0508 02:21:03.739317 29520 layer_factory.hpp:77] Creating layer conv3_postscale
I0508 02:21:03.739331 29520 net.cpp:100] Creating Layer conv3_postscale
I0508 02:21:03.739336 29520 net.cpp:434] conv3_postscale <- conv3
I0508 02:21:03.739341 29520 net.cpp:395] conv3_postscale -> conv3 (in-place)
I0508 02:21:03.739435 29520 net.cpp:150] Setting up conv3_postscale
I0508 02:21:03.739444 29520 net.cpp:157] Top shape: 1024 250 6 6 (9216000)
I0508 02:21:03.739447 29520 net.cpp:165] Memory required for data: 4092583936
I0508 02:21:03.739452 29520 layer_factory.hpp:77] Creating layer pool3
I0508 02:21:03.739462 29520 net.cpp:100] Creating Layer pool3
I0508 02:21:03.739467 29520 net.cpp:434] pool3 <- conv3
I0508 02:21:03.739472 29520 net.cpp:408] pool3 -> pool3
I0508 02:21:03.739513 29520 net.cpp:150] Setting up pool3
I0508 02:21:03.739521 29520 net.cpp:157] Top shape: 1024 250 3 3 (2304000)
I0508 02:21:03.739524 29520 net.cpp:165] Memory required for data: 4101799936
I0508 02:21:03.739527 29520 layer_factory.hpp:77] Creating layer fc4_300
I0508 02:21:03.739536 29520 net.cpp:100] Creating Layer fc4_300
I0508 02:21:03.739539 29520 net.cpp:434] fc4_300 <- pool3
I0508 02:21:03.739544 29520 net.cpp:408] fc4_300 -> fc4_300
I0508 02:21:03.745908 29520 net.cpp:150] Setting up fc4_300
I0508 02:21:03.745926 29520 net.cpp:157] Top shape: 1024 300 (307200)
I0508 02:21:03.745930 29520 net.cpp:165] Memory required for data: 4103028736
I0508 02:21:03.745939 29520 layer_factory.hpp:77] Creating layer fc4_prescale
I0508 02:21:03.745945 29520 net.cpp:100] Creating Layer fc4_prescale
I0508 02:21:03.745949 29520 net.cpp:434] fc4_prescale <- fc4_300
I0508 02:21:03.745957 29520 net.cpp:395] fc4_prescale -> fc4_300 (in-place)
I0508 02:21:03.746052 29520 net.cpp:150] Setting up fc4_prescale
I0508 02:21:03.746062 29520 net.cpp:157] Top shape: 1024 300 (307200)
I0508 02:21:03.746064 29520 net.cpp:165] Memory required for data: 4104257536
I0508 02:21:03.746069 29520 layer_factory.hpp:77] Creating layer fc4_sTanH
I0508 02:21:03.746075 29520 net.cpp:100] Creating Layer fc4_sTanH
I0508 02:21:03.746078 29520 net.cpp:434] fc4_sTanH <- fc4_300
I0508 02:21:03.746083 29520 net.cpp:395] fc4_sTanH -> fc4_300 (in-place)
I0508 02:21:03.761029 29520 net.cpp:150] Setting up fc4_sTanH
I0508 02:21:03.761054 29520 net.cpp:157] Top shape: 1024 300 (307200)
I0508 02:21:03.761057 29520 net.cpp:165] Memory required for data: 4105486336
I0508 02:21:03.761062 29520 layer_factory.hpp:77] Creating layer fc4_postscale
I0508 02:21:03.761073 29520 net.cpp:100] Creating Layer fc4_postscale
I0508 02:21:03.761078 29520 net.cpp:434] fc4_postscale <- fc4_300
I0508 02:21:03.761085 29520 net.cpp:395] fc4_postscale -> fc4_300 (in-place)
I0508 02:21:03.761209 29520 net.cpp:150] Setting up fc4_postscale
I0508 02:21:03.761217 29520 net.cpp:157] Top shape: 1024 300 (307200)
I0508 02:21:03.761220 29520 net.cpp:165] Memory required for data: 4106715136
I0508 02:21:03.761226 29520 layer_factory.hpp:77] Creating layer fc5_116
I0508 02:21:03.761234 29520 net.cpp:100] Creating Layer fc5_116
I0508 02:21:03.761236 29520 net.cpp:434] fc5_116 <- fc4_300
I0508 02:21:03.761243 29520 net.cpp:408] fc5_116 -> fc5_classes
I0508 02:21:03.763511 29520 net.cpp:150] Setting up fc5_116
I0508 02:21:03.763530 29520 net.cpp:157] Top shape: 1024 116 (118784)
I0508 02:21:03.763533 29520 net.cpp:165] Memory required for data: 4107190272
I0508 02:21:03.763547 29520 layer_factory.hpp:77] Creating layer fc5_classes_fc5_116_0_split
I0508 02:21:03.763557 29520 net.cpp:100] Creating Layer fc5_classes_fc5_116_0_split
I0508 02:21:03.763563 29520 net.cpp:434] fc5_classes_fc5_116_0_split <- fc5_classes
I0508 02:21:03.763569 29520 net.cpp:408] fc5_classes_fc5_116_0_split -> fc5_classes_fc5_116_0_split_0
I0508 02:21:03.763579 29520 net.cpp:408] fc5_classes_fc5_116_0_split -> fc5_classes_fc5_116_0_split_1
I0508 02:21:03.763589 29520 net.cpp:408] fc5_classes_fc5_116_0_split -> fc5_classes_fc5_116_0_split_2
I0508 02:21:03.763648 29520 net.cpp:150] Setting up fc5_classes_fc5_116_0_split
I0508 02:21:03.763656 29520 net.cpp:157] Top shape: 1024 116 (118784)
I0508 02:21:03.763660 29520 net.cpp:157] Top shape: 1024 116 (118784)
I0508 02:21:03.763664 29520 net.cpp:157] Top shape: 1024 116 (118784)
I0508 02:21:03.763667 29520 net.cpp:165] Memory required for data: 4108615680
I0508 02:21:03.763670 29520 layer_factory.hpp:77] Creating layer softmax
I0508 02:21:03.763676 29520 net.cpp:100] Creating Layer softmax
I0508 02:21:03.763680 29520 net.cpp:434] softmax <- fc5_classes_fc5_116_0_split_0
I0508 02:21:03.763685 29520 net.cpp:408] softmax -> softmax
I0508 02:21:03.764003 29520 net.cpp:150] Setting up softmax
I0508 02:21:03.764021 29520 net.cpp:157] Top shape: 1024 116 (118784)
I0508 02:21:03.764025 29520 net.cpp:165] Memory required for data: 4109090816
I0508 02:21:03.764029 29520 layer_factory.hpp:77] Creating layer loss
I0508 02:21:03.764036 29520 net.cpp:100] Creating Layer loss
I0508 02:21:03.764041 29520 net.cpp:434] loss <- softmax
I0508 02:21:03.764046 29520 net.cpp:434] loss <- label_data_1_split_0
I0508 02:21:03.764052 29520 net.cpp:408] loss -> loss
…
