…
I0414 13:49:21.916944  8454 solver.cpp:93] Creating training net from train_net file: ./Prototxt/experiment_11/rtsd-r3/AHE/trial_5/train.prototxt
I0414 13:49:21.917692  8454 net.cpp:58] Initializing net from parameters: 
state {
  phase: TRAIN
  level: 0
  stage: ""
}
layer {
  name: "data"
  type: "Data"
  top: "data"
  top: "label"
  include {
    phase: TRAIN
  }
  transform_param {
    scale: 0.0039215689
    mirror: false
    crop_size: 48
    mean_value: 133
    mean_value: 126
    mean_value: 125
  }
  data_param {
    source: "../local_data/lmdb/rtsd-r3/AHE/train/lmdb"
    batch_size: 1024
    backend: LMDB
  }
}
layer {
  name: "conv1"
  type: "Convolution"
  bottom: "data"
  top: "conv1"
  convolution_param {
    num_output: 100
    pad: 0
    kernel_size: 7
    group: 1
    stride: 1
    weight_filler {
      type: "xavier"
    }
  }
}
layer {
  name: "conv1_prescale"
  type: "Scale"
  bottom: "conv1"
  top: "conv1"
  param {
    lr_mult: 0
    decay_mult: 0
  }
  scale_param {
    filler {
      value: 0.6666
    }
    bias_term: false
  }
}
layer {
  name: "conv1_sTanH"
  type: "TanH"
  bottom: "conv1"
  top: "conv1"
}
layer {
  name: "conv1_postscale"
  type: "Scale"
  bottom: "conv1"
  top: "conv1"
  param {
    lr_mult: 0
    decay_mult: 0
  }
  scale_param {
    filler {
      value: 1.7159
    }
    bias_term: false
  }
}
layer {
  name: "pool1"
  type: "Pooling"
  bottom: "conv1"
  top: "pool1"
  pooling_param {
    pool: MAX
    kernel_size: 2
    stride: 2
  }
}
layer {
  name: "conv2"
  type: "Convolution"
  bottom: "pool1"
  top: "conv2"
  convolution_param {
    num_output: 150
    pad: 0
    kernel_size: 4
    group: 1
    stride: 1
    weight_filler {
      type: "xavier"
    }
  }
}
layer {
  name: "conv2_prescale"
  type: "Scale"
  bottom: "conv2"
  top: "conv2"
  param {
    lr_mult: 0
    decay_mult: 0
  }
  scale_param {
    filler {
      value: 0.6666
    }
    bias_term: false
  }
}
layer {
  name: "conv2_sTanH"
  type: "TanH"
  bottom: "conv2"
  top: "conv2"
}
layer {
  name: "conv2_postscale"
  type: "Scale"
  bottom: "conv2"
  top: "conv2"
  param {
    lr_mult: 0
    decay_mult: 0
  }
  scale_param {
    filler {
      value: 1.7159
    }
    bias_term: false
  }
}
layer {
  name: "pool2"
  type: "Pooling"
  bottom: "conv2"
  top: "pool2"
  pooling_param {
    pool: MAX
    kernel_size: 2
    stride: 2
  }
}
layer {
  name: "conv3"
  type: "Convolution"
  bottom: "pool2"
  top: "conv3"
  convolution_param {
    num_output: 250
    pad: 0
    kernel_size: 4
    group: 1
    stride: 1
    weight_filler {
      type: "xavier"
    }
  }
}
layer {
  name: "conv3_prescale"
  type: "Scale"
  bottom: "conv3"
  top: "conv3"
  param {
    lr_mult: 0
    decay_mult: 0
  }
  scale_param {
    filler {
      value: 0.6666
    }
    bias_term: false
  }
}
layer {
  name: "conv3_sTanH"
  type: "TanH"
  bottom: "conv3"
  top: "conv3"
}
layer {
  name: "conv3_postscale"
  type: "Scale"
  bottom: "conv3"
  top: "conv3"
  param {
    lr_mult: 0
    decay_mult: 0
  }
  scale_param {
    filler {
      value: 1.7159
    }
    bias_term: false
  }
}
layer {
  name: "pool3"
  type: "Pooling"
  bottom: "conv3"
  top: "pool3"
  pooling_param {
    pool: MAX
    kernel_size: 2
    stride: 2
  }
}
layer {
  name: "fc4_300"
  type: "InnerProduct"
  bottom: "pool3"
  top: "fc4_300"
  inner_product_param {
    num_output: 300
    weight_filler {
      type: "xavier"
    }
  }
}
layer {
  name: "fc4_prescale"
  type: "Scale"
  bottom: "fc4_300"
  top: "fc4_300"
  param {
    lr_mult: 0
    decay_mult: 0
  }
  scale_param {
    filler {
      value: 0.6666
    }
    bias_term: false
  }
}
layer {
  name: "fc4_sTanH"
  type: "TanH"
  bottom: "fc4_300"
  top: "fc4_300"
}
layer {
  name: "fc4_postscale"
  type: "Scale"
  bottom: "fc4_300"
  top: "fc4_300"
  param {
    lr_mult: 0
    decay_mult: 0
  }
  scale_param {
    filler {
      value: 1.7159
    }
    bias_term: false
  }
}
layer {
  name: "fc5_106"
  type: "InnerProduct"
  bottom: "fc4_300"
  top: "fc5_classes"
  inner_product_param {
    num_output: 106
    weight_filler {
      type: "xavier"
    }
  }
}
layer {
  name: "softmax"
  type: "Softmax"
  bottom: "fc5_classes"
  top: "softmax"
}
layer {
  name: "loss"
  type: "MultinomialLogisticLoss"
  bottom: "softmax"
  bottom: "label"
  top: "loss"
}
layer {
  name: "accuracy_1"
  type: "Accuracy"
  bottom: "fc5_classes"
  bottom: "label"
  top: "accuracy_1"
  accuracy_param {
    top_k: 1
  }
}
layer {
  name: "accuracy_5"
  type: "Accuracy"
  bottom: "fc5_classes"
  bottom: "label"
  top: "accuracy_5"
  accuracy_param {
    top_k: 5
  }
}
layer {
  name: "silence"
  type: "Silence"
  bottom: "accuracy_1"
  bottom: "accuracy_5"
}
I0414 13:49:21.917943  8454 layer_factory.hpp:77] Creating layer data
I0414 13:49:21.919708  8454 net.cpp:100] Creating Layer data
I0414 13:49:21.919731  8454 net.cpp:408] data -> data
I0414 13:49:21.919765  8454 net.cpp:408] data -> label
I0414 13:49:21.930263  8582 db_lmdb.cpp:35] Opened lmdb ../local_data/lmdb/rtsd-r3/AHE/train/lmdb
I0414 13:49:21.959635  8454 data_layer.cpp:41] output data size: 1024,3,48,48
I0414 13:49:22.038820  8454 net.cpp:150] Setting up data
I0414 13:49:22.038851  8454 net.cpp:157] Top shape: 1024 3 48 48 (7077888)
I0414 13:49:22.038858  8454 net.cpp:157] Top shape: 1024 (1024)
I0414 13:49:22.038862  8454 net.cpp:165] Memory required for data: 28315648
I0414 13:49:22.038874  8454 layer_factory.hpp:77] Creating layer label_data_1_split
I0414 13:49:22.038890  8454 net.cpp:100] Creating Layer label_data_1_split
I0414 13:49:22.038897  8454 net.cpp:434] label_data_1_split <- label
I0414 13:49:22.038914  8454 net.cpp:408] label_data_1_split -> label_data_1_split_0
I0414 13:49:22.038933  8454 net.cpp:408] label_data_1_split -> label_data_1_split_1
I0414 13:49:22.038942  8454 net.cpp:408] label_data_1_split -> label_data_1_split_2
I0414 13:49:22.039019  8454 net.cpp:150] Setting up label_data_1_split
I0414 13:49:22.039029  8454 net.cpp:157] Top shape: 1024 (1024)
I0414 13:49:22.039036  8454 net.cpp:157] Top shape: 1024 (1024)
I0414 13:49:22.039039  8454 net.cpp:157] Top shape: 1024 (1024)
I0414 13:49:22.039044  8454 net.cpp:165] Memory required for data: 28327936
I0414 13:49:22.039048  8454 layer_factory.hpp:77] Creating layer conv1
I0414 13:49:22.039067  8454 net.cpp:100] Creating Layer conv1
I0414 13:49:22.039073  8454 net.cpp:434] conv1 <- data
I0414 13:49:22.039082  8454 net.cpp:408] conv1 -> conv1
I0414 13:49:22.624433  8454 net.cpp:150] Setting up conv1
I0414 13:49:22.624464  8454 net.cpp:157] Top shape: 1024 100 42 42 (180633600)
I0414 13:49:22.624469  8454 net.cpp:165] Memory required for data: 750862336
I0414 13:49:22.624492  8454 layer_factory.hpp:77] Creating layer conv1_prescale
I0414 13:49:22.624507  8454 net.cpp:100] Creating Layer conv1_prescale
I0414 13:49:22.624514  8454 net.cpp:434] conv1_prescale <- conv1
I0414 13:49:22.624522  8454 net.cpp:395] conv1_prescale -> conv1 (in-place)
I0414 13:49:22.624655  8454 net.cpp:150] Setting up conv1_prescale
I0414 13:49:22.624667  8454 net.cpp:157] Top shape: 1024 100 42 42 (180633600)
I0414 13:49:22.624670  8454 net.cpp:165] Memory required for data: 1473396736
I0414 13:49:22.624680  8454 layer_factory.hpp:77] Creating layer conv1_sTanH
I0414 13:49:22.624689  8454 net.cpp:100] Creating Layer conv1_sTanH
I0414 13:49:22.624696  8454 net.cpp:434] conv1_sTanH <- conv1
I0414 13:49:22.624701  8454 net.cpp:395] conv1_sTanH -> conv1 (in-place)
I0414 13:49:22.624935  8454 net.cpp:150] Setting up conv1_sTanH
I0414 13:49:22.624949  8454 net.cpp:157] Top shape: 1024 100 42 42 (180633600)
I0414 13:49:22.624979  8454 net.cpp:165] Memory required for data: 2195931136
I0414 13:49:22.624985  8454 layer_factory.hpp:77] Creating layer conv1_postscale
I0414 13:49:22.624994  8454 net.cpp:100] Creating Layer conv1_postscale
I0414 13:49:22.625000  8454 net.cpp:434] conv1_postscale <- conv1
I0414 13:49:22.625006  8454 net.cpp:395] conv1_postscale -> conv1 (in-place)
I0414 13:49:22.625126  8454 net.cpp:150] Setting up conv1_postscale
I0414 13:49:22.625138  8454 net.cpp:157] Top shape: 1024 100 42 42 (180633600)
I0414 13:49:22.625141  8454 net.cpp:165] Memory required for data: 2918465536
I0414 13:49:22.625147  8454 layer_factory.hpp:77] Creating layer pool1
I0414 13:49:22.625156  8454 net.cpp:100] Creating Layer pool1
I0414 13:49:22.625162  8454 net.cpp:434] pool1 <- conv1
I0414 13:49:22.625169  8454 net.cpp:408] pool1 -> pool1
I0414 13:49:22.625224  8454 net.cpp:150] Setting up pool1
I0414 13:49:22.625234  8454 net.cpp:157] Top shape: 1024 100 21 21 (45158400)
I0414 13:49:22.625237  8454 net.cpp:165] Memory required for data: 3099099136
I0414 13:49:22.625241  8454 layer_factory.hpp:77] Creating layer conv2
I0414 13:49:22.625253  8454 net.cpp:100] Creating Layer conv2
I0414 13:49:22.625258  8454 net.cpp:434] conv2 <- pool1
I0414 13:49:22.625264  8454 net.cpp:408] conv2 -> conv2
I0414 13:49:22.638617  8454 net.cpp:150] Setting up conv2
I0414 13:49:22.638638  8454 net.cpp:157] Top shape: 1024 150 18 18 (49766400)
I0414 13:49:22.638643  8454 net.cpp:165] Memory required for data: 3298164736
I0414 13:49:22.638655  8454 layer_factory.hpp:77] Creating layer conv2_prescale
I0414 13:49:22.638669  8454 net.cpp:100] Creating Layer conv2_prescale
I0414 13:49:22.638675  8454 net.cpp:434] conv2_prescale <- conv2
I0414 13:49:22.638682  8454 net.cpp:395] conv2_prescale -> conv2 (in-place)
I0414 13:49:22.638813  8454 net.cpp:150] Setting up conv2_prescale
I0414 13:49:22.638824  8454 net.cpp:157] Top shape: 1024 150 18 18 (49766400)
I0414 13:49:22.638828  8454 net.cpp:165] Memory required for data: 3497230336
I0414 13:49:22.638834  8454 layer_factory.hpp:77] Creating layer conv2_sTanH
I0414 13:49:22.638844  8454 net.cpp:100] Creating Layer conv2_sTanH
I0414 13:49:22.638849  8454 net.cpp:434] conv2_sTanH <- conv2
I0414 13:49:22.638854  8454 net.cpp:395] conv2_sTanH -> conv2 (in-place)
I0414 13:49:22.641407  8454 net.cpp:150] Setting up conv2_sTanH
I0414 13:49:22.641429  8454 net.cpp:157] Top shape: 1024 150 18 18 (49766400)
I0414 13:49:22.641433  8454 net.cpp:165] Memory required for data: 3696295936
I0414 13:49:22.641438  8454 layer_factory.hpp:77] Creating layer conv2_postscale
I0414 13:49:22.641448  8454 net.cpp:100] Creating Layer conv2_postscale
I0414 13:49:22.641453  8454 net.cpp:434] conv2_postscale <- conv2
I0414 13:49:22.641458  8454 net.cpp:395] conv2_postscale -> conv2 (in-place)
I0414 13:49:22.641583  8454 net.cpp:150] Setting up conv2_postscale
I0414 13:49:22.641594  8454 net.cpp:157] Top shape: 1024 150 18 18 (49766400)
I0414 13:49:22.641597  8454 net.cpp:165] Memory required for data: 3895361536
I0414 13:49:22.641604  8454 layer_factory.hpp:77] Creating layer pool2
I0414 13:49:22.641614  8454 net.cpp:100] Creating Layer pool2
I0414 13:49:22.641619  8454 net.cpp:434] pool2 <- conv2
I0414 13:49:22.641625  8454 net.cpp:408] pool2 -> pool2
I0414 13:49:22.641675  8454 net.cpp:150] Setting up pool2
I0414 13:49:22.641685  8454 net.cpp:157] Top shape: 1024 150 9 9 (12441600)
I0414 13:49:22.641690  8454 net.cpp:165] Memory required for data: 3945127936
I0414 13:49:22.641692  8454 layer_factory.hpp:77] Creating layer conv3
I0414 13:49:22.641702  8454 net.cpp:100] Creating Layer conv3
I0414 13:49:22.641706  8454 net.cpp:434] conv3 <- pool2
I0414 13:49:22.641712  8454 net.cpp:408] conv3 -> conv3
I0414 13:49:22.649444  8454 net.cpp:150] Setting up conv3
I0414 13:49:22.649466  8454 net.cpp:157] Top shape: 1024 250 6 6 (9216000)
I0414 13:49:22.649471  8454 net.cpp:165] Memory required for data: 3981991936
I0414 13:49:22.649484  8454 layer_factory.hpp:77] Creating layer conv3_prescale
I0414 13:49:22.649510  8454 net.cpp:100] Creating Layer conv3_prescale
I0414 13:49:22.649519  8454 net.cpp:434] conv3_prescale <- conv3
I0414 13:49:22.649528  8454 net.cpp:395] conv3_prescale -> conv3 (in-place)
I0414 13:49:22.649642  8454 net.cpp:150] Setting up conv3_prescale
I0414 13:49:22.649653  8454 net.cpp:157] Top shape: 1024 250 6 6 (9216000)
I0414 13:49:22.649657  8454 net.cpp:165] Memory required for data: 4018855936
I0414 13:49:22.649662  8454 layer_factory.hpp:77] Creating layer conv3_sTanH
I0414 13:49:22.649672  8454 net.cpp:100] Creating Layer conv3_sTanH
I0414 13:49:22.649677  8454 net.cpp:434] conv3_sTanH <- conv3
I0414 13:49:22.649682  8454 net.cpp:395] conv3_sTanH -> conv3 (in-place)
I0414 13:49:22.654881  8454 net.cpp:150] Setting up conv3_sTanH
I0414 13:49:22.654902  8454 net.cpp:157] Top shape: 1024 250 6 6 (9216000)
I0414 13:49:22.654907  8454 net.cpp:165] Memory required for data: 4055719936
I0414 13:49:22.654911  8454 layer_factory.hpp:77] Creating layer conv3_postscale
I0414 13:49:22.654922  8454 net.cpp:100] Creating Layer conv3_postscale
I0414 13:49:22.654927  8454 net.cpp:434] conv3_postscale <- conv3
I0414 13:49:22.654934  8454 net.cpp:395] conv3_postscale -> conv3 (in-place)
I0414 13:49:22.655056  8454 net.cpp:150] Setting up conv3_postscale
I0414 13:49:22.655067  8454 net.cpp:157] Top shape: 1024 250 6 6 (9216000)
I0414 13:49:22.655071  8454 net.cpp:165] Memory required for data: 4092583936
I0414 13:49:22.655077  8454 layer_factory.hpp:77] Creating layer pool3
I0414 13:49:22.655088  8454 net.cpp:100] Creating Layer pool3
I0414 13:49:22.655094  8454 net.cpp:434] pool3 <- conv3
I0414 13:49:22.655100  8454 net.cpp:408] pool3 -> pool3
I0414 13:49:22.655148  8454 net.cpp:150] Setting up pool3
I0414 13:49:22.655156  8454 net.cpp:157] Top shape: 1024 250 3 3 (2304000)
I0414 13:49:22.655160  8454 net.cpp:165] Memory required for data: 4101799936
I0414 13:49:22.655164  8454 layer_factory.hpp:77] Creating layer fc4_300
I0414 13:49:22.655172  8454 net.cpp:100] Creating Layer fc4_300
I0414 13:49:22.655177  8454 net.cpp:434] fc4_300 <- pool3
I0414 13:49:22.655184  8454 net.cpp:408] fc4_300 -> fc4_300
I0414 13:49:22.664952  8454 net.cpp:150] Setting up fc4_300
I0414 13:49:22.664974  8454 net.cpp:157] Top shape: 1024 300 (307200)
I0414 13:49:22.664980  8454 net.cpp:165] Memory required for data: 4103028736
I0414 13:49:22.664989  8454 layer_factory.hpp:77] Creating layer fc4_prescale
I0414 13:49:22.665000  8454 net.cpp:100] Creating Layer fc4_prescale
I0414 13:49:22.665006  8454 net.cpp:434] fc4_prescale <- fc4_300
I0414 13:49:22.665014  8454 net.cpp:395] fc4_prescale -> fc4_300 (in-place)
I0414 13:49:22.665127  8454 net.cpp:150] Setting up fc4_prescale
I0414 13:49:22.665138  8454 net.cpp:157] Top shape: 1024 300 (307200)
I0414 13:49:22.665140  8454 net.cpp:165] Memory required for data: 4104257536
I0414 13:49:22.665146  8454 layer_factory.hpp:77] Creating layer fc4_sTanH
I0414 13:49:22.665154  8454 net.cpp:100] Creating Layer fc4_sTanH
I0414 13:49:22.665160  8454 net.cpp:434] fc4_sTanH <- fc4_300
I0414 13:49:22.665166  8454 net.cpp:395] fc4_sTanH -> fc4_300 (in-place)
I0414 13:49:22.665387  8454 net.cpp:150] Setting up fc4_sTanH
I0414 13:49:22.665401  8454 net.cpp:157] Top shape: 1024 300 (307200)
I0414 13:49:22.665405  8454 net.cpp:165] Memory required for data: 4105486336
I0414 13:49:22.665410  8454 layer_factory.hpp:77] Creating layer fc4_postscale
I0414 13:49:22.665416  8454 net.cpp:100] Creating Layer fc4_postscale
I0414 13:49:22.665422  8454 net.cpp:434] fc4_postscale <- fc4_300
I0414 13:49:22.665428  8454 net.cpp:395] fc4_postscale -> fc4_300 (in-place)
I0414 13:49:22.665542  8454 net.cpp:150] Setting up fc4_postscale
I0414 13:49:22.665551  8454 net.cpp:157] Top shape: 1024 300 (307200)
I0414 13:49:22.665555  8454 net.cpp:165] Memory required for data: 4106715136
I0414 13:49:22.665561  8454 layer_factory.hpp:77] Creating layer fc5_106
I0414 13:49:22.665568  8454 net.cpp:100] Creating Layer fc5_106
I0414 13:49:22.665573  8454 net.cpp:434] fc5_106 <- fc4_300
I0414 13:49:22.665580  8454 net.cpp:408] fc5_106 -> fc5_classes
I0414 13:49:22.667901  8454 net.cpp:150] Setting up fc5_106
I0414 13:49:22.667925  8454 net.cpp:157] Top shape: 1024 106 (108544)
I0414 13:49:22.667930  8454 net.cpp:165] Memory required for data: 4107149312
I0414 13:49:22.667943  8454 layer_factory.hpp:77] Creating layer fc5_classes_fc5_106_0_split
I0414 13:49:22.667951  8454 net.cpp:100] Creating Layer fc5_classes_fc5_106_0_split
I0414 13:49:22.667955  8454 net.cpp:434] fc5_classes_fc5_106_0_split <- fc5_classes
I0414 13:49:22.667963  8454 net.cpp:408] fc5_classes_fc5_106_0_split -> fc5_classes_fc5_106_0_split_0
I0414 13:49:22.667973  8454 net.cpp:408] fc5_classes_fc5_106_0_split -> fc5_classes_fc5_106_0_split_1
I0414 13:49:22.667984  8454 net.cpp:408] fc5_classes_fc5_106_0_split -> fc5_classes_fc5_106_0_split_2
I0414 13:49:22.668051  8454 net.cpp:150] Setting up fc5_classes_fc5_106_0_split
I0414 13:49:22.668061  8454 net.cpp:157] Top shape: 1024 106 (108544)
I0414 13:49:22.668064  8454 net.cpp:157] Top shape: 1024 106 (108544)
I0414 13:49:22.668069  8454 net.cpp:157] Top shape: 1024 106 (108544)
I0414 13:49:22.668072  8454 net.cpp:165] Memory required for data: 4108451840
I0414 13:49:22.668076  8454 layer_factory.hpp:77] Creating layer softmax
I0414 13:49:22.668084  8454 net.cpp:100] Creating Layer softmax
I0414 13:49:22.668088  8454 net.cpp:434] softmax <- fc5_classes_fc5_106_0_split_0
I0414 13:49:22.668094  8454 net.cpp:408] softmax -> softmax
I0414 13:49:22.668396  8454 net.cpp:150] Setting up softmax
I0414 13:49:22.668411  8454 net.cpp:157] Top shape: 1024 106 (108544)
I0414 13:49:22.668416  8454 net.cpp:165] Memory required for data: 4108886016
I0414 13:49:22.668419  8454 layer_factory.hpp:77] Creating layer loss
I0414 13:49:22.668427  8454 net.cpp:100] Creating Layer loss
I0414 13:49:22.668431  8454 net.cpp:434] loss <- softmax
I0414 13:49:22.668437  8454 net.cpp:434] loss <- label_data_1_split_0
I0414 13:49:22.668442  8454 net.cpp:408] loss -> loss
…
