…
I0415 15:40:58.346518 28866 solver.cpp:93] Creating training net from train_net file: ./Prototxt/experiment_12/rtsd-r3/AHE/trial_3/train.prototxt
I0415 15:40:58.348263 28866 net.cpp:58] Initializing net from parameters: 
state {
  phase: TRAIN
  level: 0
  stage: ""
}
layer {
  name: "data"
  type: "Data"
  top: "data"
  top: "label"
  include {
    phase: TRAIN
  }
  transform_param {
    scale: 0.0039215689
    mirror: false
    crop_size: 48
    mean_value: 133
    mean_value: 126
    mean_value: 125
  }
  data_param {
    source: "../local_data/lmdb/rtsd-r3/AHE/train/lmdb"
    batch_size: 1024
    backend: LMDB
  }
}
layer {
  name: "conv1"
  type: "Convolution"
  bottom: "data"
  top: "conv1"
  convolution_param {
    num_output: 100
    pad: 0
    kernel_size: 7
    group: 1
    stride: 1
    weight_filler {
      type: "xavier"
    }
  }
}
layer {
  name: "conv1_relu"
  type: "ReLU"
  bottom: "conv1"
  top: "conv1"
}
layer {
  name: "pool1"
  type: "Pooling"
  bottom: "conv1"
  top: "pool1"
  pooling_param {
    pool: MAX
    kernel_size: 2
    stride: 2
  }
}
layer {
  name: "conv2"
  type: "Convolution"
  bottom: "pool1"
  top: "conv2"
  convolution_param {
    num_output: 150
    pad: 0
    kernel_size: 4
    group: 1
    stride: 1
    weight_filler {
      type: "xavier"
    }
  }
}
layer {
  name: "conv2_relu"
  type: "ReLU"
  bottom: "conv2"
  top: "conv2"
}
layer {
  name: "pool2"
  type: "Pooling"
  bottom: "conv2"
  top: "pool2"
  pooling_param {
    pool: MAX
    kernel_size: 2
    stride: 2
  }
}
layer {
  name: "conv3"
  type: "Convolution"
  bottom: "pool2"
  top: "conv3"
  convolution_param {
    num_output: 250
    pad: 0
    kernel_size: 4
    group: 1
    stride: 1
    weight_filler {
      type: "xavier"
    }
  }
}
layer {
  name: "conv3_relu"
  type: "ReLU"
  bottom: "conv3"
  top: "conv3"
}
layer {
  name: "pool3"
  type: "Pooling"
  bottom: "conv3"
  top: "pool3"
  pooling_param {
    pool: MAX
    kernel_size: 2
    stride: 2
  }
}
layer {
  name: "fc4_300"
  type: "InnerProduct"
  bottom: "pool3"
  top: "fc4_300"
  inner_product_param {
    num_output: 300
    weight_filler {
      type: "xavier"
    }
  }
}
layer {
  name: "fc4_relu"
  type: "ReLU"
  bottom: "fc4_300"
  top: "fc4_300"
}
layer {
  name: "drop4"
  type: "Dropout"
  bottom: "fc4_300"
  top: "fc4_300"
  dropout_param {
    dropout_ratio: 0.5
  }
}
layer {
  name: "fc5_106"
  type: "InnerProduct"
  bottom: "fc4_300"
  top: "fc5_classes"
  inner_product_param {
    num_output: 106
    weight_filler {
      type: "xavier"
    }
  }
}
layer {
  name: "softmax"
  type: "Softmax"
  bottom: "fc5_classes"
  top: "softmax"
}
layer {
  name: "loss"
  type: "MultinomialLogisticLoss"
  bottom: "softmax"
  bottom: "label"
  top: "loss"
}
layer {
  name: "accuracy_1"
  type: "Accuracy"
  bottom: "fc5_classes"
  bottom: "label"
  top: "accuracy_1"
  accuracy_param {
    top_k: 1
  }
}
layer {
  name: "accuracy_5"
  type: "Accuracy"
  bottom: "fc5_classes"
  bottom: "label"
  top: "accuracy_5"
  accuracy_param {
    top_k: 5
  }
}
layer {
  name: "silence"
  type: "Silence"
  bottom: "accuracy_1"
  bottom: "accuracy_5"
}
I0415 15:40:58.348417 28866 layer_factory.hpp:77] Creating layer data
I0415 15:40:58.349531 28866 net.cpp:100] Creating Layer data
I0415 15:40:58.349547 28866 net.cpp:408] data -> data
I0415 15:40:58.349572 28866 net.cpp:408] data -> label
I0415 15:40:58.352568 29011 db_lmdb.cpp:35] Opened lmdb ../local_data/lmdb/rtsd-r3/AHE/train/lmdb
I0415 15:40:58.369577 28866 data_layer.cpp:41] output data size: 1024,3,48,48
I0415 15:40:58.421998 28866 net.cpp:150] Setting up data
I0415 15:40:58.422024 28866 net.cpp:157] Top shape: 1024 3 48 48 (7077888)
I0415 15:40:58.422030 28866 net.cpp:157] Top shape: 1024 (1024)
I0415 15:40:58.422034 28866 net.cpp:165] Memory required for data: 28315648
I0415 15:40:58.422049 28866 layer_factory.hpp:77] Creating layer label_data_1_split
I0415 15:40:58.422065 28866 net.cpp:100] Creating Layer label_data_1_split
I0415 15:40:58.422072 28866 net.cpp:434] label_data_1_split <- label
I0415 15:40:58.422088 28866 net.cpp:408] label_data_1_split -> label_data_1_split_0
I0415 15:40:58.422106 28866 net.cpp:408] label_data_1_split -> label_data_1_split_1
I0415 15:40:58.422114 28866 net.cpp:408] label_data_1_split -> label_data_1_split_2
I0415 15:40:58.422184 28866 net.cpp:150] Setting up label_data_1_split
I0415 15:40:58.422194 28866 net.cpp:157] Top shape: 1024 (1024)
I0415 15:40:58.422199 28866 net.cpp:157] Top shape: 1024 (1024)
I0415 15:40:58.422206 28866 net.cpp:157] Top shape: 1024 (1024)
I0415 15:40:58.422210 28866 net.cpp:165] Memory required for data: 28327936
I0415 15:40:58.422215 28866 layer_factory.hpp:77] Creating layer conv1
I0415 15:40:58.422237 28866 net.cpp:100] Creating Layer conv1
I0415 15:40:58.422243 28866 net.cpp:434] conv1 <- data
I0415 15:40:58.422250 28866 net.cpp:408] conv1 -> conv1
I0415 15:40:58.988025 28866 net.cpp:150] Setting up conv1
I0415 15:40:58.988064 28866 net.cpp:157] Top shape: 1024 100 42 42 (180633600)
I0415 15:40:58.988067 28866 net.cpp:165] Memory required for data: 750862336
I0415 15:40:58.988090 28866 layer_factory.hpp:77] Creating layer conv1_relu
I0415 15:40:58.988111 28866 net.cpp:100] Creating Layer conv1_relu
I0415 15:40:58.988117 28866 net.cpp:434] conv1_relu <- conv1
I0415 15:40:58.988124 28866 net.cpp:395] conv1_relu -> conv1 (in-place)
I0415 15:40:58.988400 28866 net.cpp:150] Setting up conv1_relu
I0415 15:40:58.988412 28866 net.cpp:157] Top shape: 1024 100 42 42 (180633600)
I0415 15:40:58.988417 28866 net.cpp:165] Memory required for data: 1473396736
I0415 15:40:58.988425 28866 layer_factory.hpp:77] Creating layer pool1
I0415 15:40:58.988440 28866 net.cpp:100] Creating Layer pool1
I0415 15:40:58.988445 28866 net.cpp:434] pool1 <- conv1
I0415 15:40:58.988456 28866 net.cpp:408] pool1 -> pool1
I0415 15:40:58.988555 28866 net.cpp:150] Setting up pool1
I0415 15:40:58.988566 28866 net.cpp:157] Top shape: 1024 100 21 21 (45158400)
I0415 15:40:58.988574 28866 net.cpp:165] Memory required for data: 1654030336
I0415 15:40:58.988581 28866 layer_factory.hpp:77] Creating layer conv2
I0415 15:40:58.988602 28866 net.cpp:100] Creating Layer conv2
I0415 15:40:58.988608 28866 net.cpp:434] conv2 <- pool1
I0415 15:40:58.988620 28866 net.cpp:408] conv2 -> conv2
I0415 15:40:59.011152 28866 net.cpp:150] Setting up conv2
I0415 15:40:59.011178 28866 net.cpp:157] Top shape: 1024 150 18 18 (49766400)
I0415 15:40:59.011183 28866 net.cpp:165] Memory required for data: 1853095936
I0415 15:40:59.011198 28866 layer_factory.hpp:77] Creating layer conv2_relu
I0415 15:40:59.011207 28866 net.cpp:100] Creating Layer conv2_relu
I0415 15:40:59.011211 28866 net.cpp:434] conv2_relu <- conv2
I0415 15:40:59.011219 28866 net.cpp:395] conv2_relu -> conv2 (in-place)
I0415 15:40:59.012964 28866 net.cpp:150] Setting up conv2_relu
I0415 15:40:59.012984 28866 net.cpp:157] Top shape: 1024 150 18 18 (49766400)
I0415 15:40:59.012987 28866 net.cpp:165] Memory required for data: 2052161536
I0415 15:40:59.012990 28866 layer_factory.hpp:77] Creating layer pool2
I0415 15:40:59.012998 28866 net.cpp:100] Creating Layer pool2
I0415 15:40:59.013002 28866 net.cpp:434] pool2 <- conv2
I0415 15:40:59.013008 28866 net.cpp:408] pool2 -> pool2
I0415 15:40:59.013062 28866 net.cpp:150] Setting up pool2
I0415 15:40:59.013070 28866 net.cpp:157] Top shape: 1024 150 9 9 (12441600)
I0415 15:40:59.013073 28866 net.cpp:165] Memory required for data: 2101927936
I0415 15:40:59.013077 28866 layer_factory.hpp:77] Creating layer conv3
I0415 15:40:59.013088 28866 net.cpp:100] Creating Layer conv3
I0415 15:40:59.013116 28866 net.cpp:434] conv3 <- pool2
I0415 15:40:59.013123 28866 net.cpp:408] conv3 -> conv3
I0415 15:40:59.021014 28866 net.cpp:150] Setting up conv3
I0415 15:40:59.021045 28866 net.cpp:157] Top shape: 1024 250 6 6 (9216000)
I0415 15:40:59.021049 28866 net.cpp:165] Memory required for data: 2138791936
I0415 15:40:59.021069 28866 layer_factory.hpp:77] Creating layer conv3_relu
I0415 15:40:59.021083 28866 net.cpp:100] Creating Layer conv3_relu
I0415 15:40:59.021090 28866 net.cpp:434] conv3_relu <- conv3
I0415 15:40:59.021102 28866 net.cpp:395] conv3_relu -> conv3 (in-place)
I0415 15:40:59.022853 28866 net.cpp:150] Setting up conv3_relu
I0415 15:40:59.022888 28866 net.cpp:157] Top shape: 1024 250 6 6 (9216000)
I0415 15:40:59.022897 28866 net.cpp:165] Memory required for data: 2175655936
I0415 15:40:59.022903 28866 layer_factory.hpp:77] Creating layer pool3
I0415 15:40:59.022917 28866 net.cpp:100] Creating Layer pool3
I0415 15:40:59.022923 28866 net.cpp:434] pool3 <- conv3
I0415 15:40:59.022933 28866 net.cpp:408] pool3 -> pool3
I0415 15:40:59.023012 28866 net.cpp:150] Setting up pool3
I0415 15:40:59.023025 28866 net.cpp:157] Top shape: 1024 250 3 3 (2304000)
I0415 15:40:59.023031 28866 net.cpp:165] Memory required for data: 2184871936
I0415 15:40:59.023036 28866 layer_factory.hpp:77] Creating layer fc4_300
I0415 15:40:59.023048 28866 net.cpp:100] Creating Layer fc4_300
I0415 15:40:59.023056 28866 net.cpp:434] fc4_300 <- pool3
I0415 15:40:59.023062 28866 net.cpp:408] fc4_300 -> fc4_300
I0415 15:40:59.031592 28866 net.cpp:150] Setting up fc4_300
I0415 15:40:59.031616 28866 net.cpp:157] Top shape: 1024 300 (307200)
I0415 15:40:59.031621 28866 net.cpp:165] Memory required for data: 2186100736
I0415 15:40:59.031630 28866 layer_factory.hpp:77] Creating layer fc4_relu
I0415 15:40:59.031638 28866 net.cpp:100] Creating Layer fc4_relu
I0415 15:40:59.031642 28866 net.cpp:434] fc4_relu <- fc4_300
I0415 15:40:59.031651 28866 net.cpp:395] fc4_relu -> fc4_300 (in-place)
I0415 15:40:59.031942 28866 net.cpp:150] Setting up fc4_relu
I0415 15:40:59.031960 28866 net.cpp:157] Top shape: 1024 300 (307200)
I0415 15:40:59.031963 28866 net.cpp:165] Memory required for data: 2187329536
I0415 15:40:59.031968 28866 layer_factory.hpp:77] Creating layer drop4
I0415 15:40:59.031980 28866 net.cpp:100] Creating Layer drop4
I0415 15:40:59.031986 28866 net.cpp:434] drop4 <- fc4_300
I0415 15:40:59.031992 28866 net.cpp:395] drop4 -> fc4_300 (in-place)
I0415 15:40:59.032038 28866 net.cpp:150] Setting up drop4
I0415 15:40:59.032048 28866 net.cpp:157] Top shape: 1024 300 (307200)
I0415 15:40:59.032052 28866 net.cpp:165] Memory required for data: 2188558336
I0415 15:40:59.032057 28866 layer_factory.hpp:77] Creating layer fc5_106
I0415 15:40:59.032064 28866 net.cpp:100] Creating Layer fc5_106
I0415 15:40:59.032068 28866 net.cpp:434] fc5_106 <- fc4_300
I0415 15:40:59.032076 28866 net.cpp:408] fc5_106 -> fc5_classes
I0415 15:40:59.034170 28866 net.cpp:150] Setting up fc5_106
I0415 15:40:59.034189 28866 net.cpp:157] Top shape: 1024 106 (108544)
I0415 15:40:59.034196 28866 net.cpp:165] Memory required for data: 2188992512
I0415 15:40:59.034206 28866 layer_factory.hpp:77] Creating layer fc5_classes_fc5_106_0_split
I0415 15:40:59.034217 28866 net.cpp:100] Creating Layer fc5_classes_fc5_106_0_split
I0415 15:40:59.034222 28866 net.cpp:434] fc5_classes_fc5_106_0_split <- fc5_classes
I0415 15:40:59.034230 28866 net.cpp:408] fc5_classes_fc5_106_0_split -> fc5_classes_fc5_106_0_split_0
I0415 15:40:59.034240 28866 net.cpp:408] fc5_classes_fc5_106_0_split -> fc5_classes_fc5_106_0_split_1
I0415 15:40:59.034250 28866 net.cpp:408] fc5_classes_fc5_106_0_split -> fc5_classes_fc5_106_0_split_2
I0415 15:40:59.034319 28866 net.cpp:150] Setting up fc5_classes_fc5_106_0_split
I0415 15:40:59.034329 28866 net.cpp:157] Top shape: 1024 106 (108544)
I0415 15:40:59.034337 28866 net.cpp:157] Top shape: 1024 106 (108544)
I0415 15:40:59.034343 28866 net.cpp:157] Top shape: 1024 106 (108544)
I0415 15:40:59.034346 28866 net.cpp:165] Memory required for data: 2190295040
I0415 15:40:59.034373 28866 layer_factory.hpp:77] Creating layer softmax
I0415 15:40:59.034390 28866 net.cpp:100] Creating Layer softmax
I0415 15:40:59.034399 28866 net.cpp:434] softmax <- fc5_classes_fc5_106_0_split_0
I0415 15:40:59.034405 28866 net.cpp:408] softmax -> softmax
I0415 15:40:59.034701 28866 net.cpp:150] Setting up softmax
I0415 15:40:59.034728 28866 net.cpp:157] Top shape: 1024 106 (108544)
I0415 15:40:59.034734 28866 net.cpp:165] Memory required for data: 2190729216
I0415 15:40:59.034739 28866 layer_factory.hpp:77] Creating layer loss
I0415 15:40:59.034749 28866 net.cpp:100] Creating Layer loss
I0415 15:40:59.034754 28866 net.cpp:434] loss <- softmax
I0415 15:40:59.034765 28866 net.cpp:434] loss <- label_data_1_split_0
I0415 15:40:59.034773 28866 net.cpp:408] loss -> loss
…
