…
I0508 04:11:43.766844 22274 solver.cpp:93] Creating training net from train_net file: ./Prototxt/experiment_16/RTSD/AHE/trial_5/train.prototxt
I0508 04:11:43.767236 22274 net.cpp:58] Initializing net from parameters: 
state {
  phase: TRAIN
  level: 0
  stage: ""
}
layer {
  name: "data"
  type: "Data"
  top: "data"
  top: "label"
  include {
    phase: TRAIN
  }
  transform_param {
    scale: 0.0039215689
    mirror: false
    crop_size: 48
    mean_value: 133
    mean_value: 127
    mean_value: 126
  }
  data_param {
    source: "../local_data/lmdb/RTSD/AHE/train/lmdb"
    batch_size: 1024
    backend: LMDB
  }
}
layer {
  name: "conv1"
  type: "Convolution"
  bottom: "data"
  top: "conv1"
  convolution_param {
    num_output: 100
    pad: 0
    kernel_size: 7
    group: 1
    stride: 1
    weight_filler {
      type: "xavier"
    }
  }
}
layer {
  name: "conv1_relu"
  type: "ReLU"
  bottom: "conv1"
  top: "conv1"
}
layer {
  name: "pool1"
  type: "Pooling"
  bottom: "conv1"
  top: "pool1"
  pooling_param {
    pool: MAX
    kernel_size: 2
    stride: 2
  }
}
layer {
  name: "conv2"
  type: "Convolution"
  bottom: "pool1"
  top: "conv2"
  convolution_param {
    num_output: 150
    pad: 0
    kernel_size: 4
    group: 2
    stride: 1
    weight_filler {
      type: "xavier"
    }
  }
}
layer {
  name: "conv2_relu"
  type: "ReLU"
  bottom: "conv2"
  top: "conv2"
}
layer {
  name: "pool2"
  type: "Pooling"
  bottom: "conv2"
  top: "pool2"
  pooling_param {
    pool: MAX
    kernel_size: 2
    stride: 2
  }
}
layer {
  name: "conv3"
  type: "Convolution"
  bottom: "pool2"
  top: "conv3"
  convolution_param {
    num_output: 250
    pad: 0
    kernel_size: 4
    group: 2
    stride: 1
    weight_filler {
      type: "xavier"
    }
  }
}
layer {
  name: "conv3_relu"
  type: "ReLU"
  bottom: "conv3"
  top: "conv3"
}
layer {
  name: "pool3"
  type: "Pooling"
  bottom: "conv3"
  top: "pool3"
  pooling_param {
    pool: MAX
    kernel_size: 2
    stride: 2
  }
}
layer {
  name: "fc4_300"
  type: "InnerProduct"
  bottom: "pool3"
  top: "fc4_300"
  inner_product_param {
    num_output: 300
    weight_filler {
      type: "xavier"
    }
  }
}
layer {
  name: "fc4_relu"
  type: "ReLU"
  bottom: "fc4_300"
  top: "fc4_300"
}
layer {
  name: "fc5_116"
  type: "InnerProduct"
  bottom: "fc4_300"
  top: "fc5_classes"
  inner_product_param {
    num_output: 116
    weight_filler {
      type: "xavier"
    }
  }
}
layer {
  name: "softmax"
  type: "Softmax"
  bottom: "fc5_classes"
  top: "softmax"
}
layer {
  name: "loss"
  type: "MultinomialLogisticLoss"
  bottom: "softmax"
  bottom: "label"
  top: "loss"
}
layer {
  name: "accuracy_1"
  type: "Accuracy"
  bottom: "fc5_classes"
  bottom: "label"
  top: "accuracy_1"
  accuracy_param {
    top_k: 1
  }
}
layer {
  name: "accuracy_5"
  type: "Accuracy"
  bottom: "fc5_classes"
  bottom: "label"
  top: "accuracy_5"
  accuracy_param {
    top_k: 5
  }
}
layer {
  name: "silence"
  type: "Silence"
  bottom: "accuracy_1"
  bottom: "accuracy_5"
}
I0508 04:11:43.767374 22274 layer_factory.hpp:77] Creating layer data
I0508 04:11:43.768802 22274 net.cpp:100] Creating Layer data
I0508 04:11:43.768821 22274 net.cpp:408] data -> data
I0508 04:11:43.768842 22274 net.cpp:408] data -> label
I0508 04:11:43.781857 22378 db_lmdb.cpp:35] Opened lmdb ../local_data/lmdb/RTSD/AHE/train/lmdb
I0508 04:11:43.798807 22274 data_layer.cpp:41] output data size: 1024,3,48,48
I0508 04:11:43.862216 22274 net.cpp:150] Setting up data
I0508 04:11:43.862272 22274 net.cpp:157] Top shape: 1024 3 48 48 (7077888)
I0508 04:11:43.862277 22274 net.cpp:157] Top shape: 1024 (1024)
I0508 04:11:43.862280 22274 net.cpp:165] Memory required for data: 28315648
I0508 04:11:43.862292 22274 layer_factory.hpp:77] Creating layer label_data_1_split
I0508 04:11:43.862305 22274 net.cpp:100] Creating Layer label_data_1_split
I0508 04:11:43.862313 22274 net.cpp:434] label_data_1_split <- label
I0508 04:11:43.862329 22274 net.cpp:408] label_data_1_split -> label_data_1_split_0
I0508 04:11:43.862349 22274 net.cpp:408] label_data_1_split -> label_data_1_split_1
I0508 04:11:43.862361 22274 net.cpp:408] label_data_1_split -> label_data_1_split_2
I0508 04:11:43.862449 22274 net.cpp:150] Setting up label_data_1_split
I0508 04:11:43.862464 22274 net.cpp:157] Top shape: 1024 (1024)
I0508 04:11:43.862473 22274 net.cpp:157] Top shape: 1024 (1024)
I0508 04:11:43.862480 22274 net.cpp:157] Top shape: 1024 (1024)
I0508 04:11:43.862488 22274 net.cpp:165] Memory required for data: 28327936
I0508 04:11:43.862493 22274 layer_factory.hpp:77] Creating layer conv1
I0508 04:11:43.862520 22274 net.cpp:100] Creating Layer conv1
I0508 04:11:43.862529 22274 net.cpp:434] conv1 <- data
I0508 04:11:43.862540 22274 net.cpp:408] conv1 -> conv1
I0508 04:11:44.218518 22274 net.cpp:150] Setting up conv1
I0508 04:11:44.218545 22274 net.cpp:157] Top shape: 1024 100 42 42 (180633600)
I0508 04:11:44.218550 22274 net.cpp:165] Memory required for data: 750862336
I0508 04:11:44.218572 22274 layer_factory.hpp:77] Creating layer conv1_relu
I0508 04:11:44.218583 22274 net.cpp:100] Creating Layer conv1_relu
I0508 04:11:44.218587 22274 net.cpp:434] conv1_relu <- conv1
I0508 04:11:44.218593 22274 net.cpp:395] conv1_relu -> conv1 (in-place)
I0508 04:11:44.218883 22274 net.cpp:150] Setting up conv1_relu
I0508 04:11:44.218904 22274 net.cpp:157] Top shape: 1024 100 42 42 (180633600)
I0508 04:11:44.218909 22274 net.cpp:165] Memory required for data: 1473396736
I0508 04:11:44.218915 22274 layer_factory.hpp:77] Creating layer pool1
I0508 04:11:44.218932 22274 net.cpp:100] Creating Layer pool1
I0508 04:11:44.218941 22274 net.cpp:434] pool1 <- conv1
I0508 04:11:44.218951 22274 net.cpp:408] pool1 -> pool1
I0508 04:11:44.219032 22274 net.cpp:150] Setting up pool1
I0508 04:11:44.219048 22274 net.cpp:157] Top shape: 1024 100 21 21 (45158400)
I0508 04:11:44.219051 22274 net.cpp:165] Memory required for data: 1654030336
I0508 04:11:44.219055 22274 layer_factory.hpp:77] Creating layer conv2
I0508 04:11:44.219069 22274 net.cpp:100] Creating Layer conv2
I0508 04:11:44.219074 22274 net.cpp:434] conv2 <- pool1
I0508 04:11:44.219079 22274 net.cpp:408] conv2 -> conv2
I0508 04:11:44.233523 22274 net.cpp:150] Setting up conv2
I0508 04:11:44.233541 22274 net.cpp:157] Top shape: 1024 150 18 18 (49766400)
I0508 04:11:44.233546 22274 net.cpp:165] Memory required for data: 1853095936
I0508 04:11:44.233556 22274 layer_factory.hpp:77] Creating layer conv2_relu
I0508 04:11:44.233564 22274 net.cpp:100] Creating Layer conv2_relu
I0508 04:11:44.233568 22274 net.cpp:434] conv2_relu <- conv2
I0508 04:11:44.233579 22274 net.cpp:395] conv2_relu -> conv2 (in-place)
I0508 04:11:44.233780 22274 net.cpp:150] Setting up conv2_relu
I0508 04:11:44.233793 22274 net.cpp:157] Top shape: 1024 150 18 18 (49766400)
I0508 04:11:44.233801 22274 net.cpp:165] Memory required for data: 2052161536
I0508 04:11:44.233808 22274 layer_factory.hpp:77] Creating layer pool2
I0508 04:11:44.233821 22274 net.cpp:100] Creating Layer pool2
I0508 04:11:44.233827 22274 net.cpp:434] pool2 <- conv2
I0508 04:11:44.233834 22274 net.cpp:408] pool2 -> pool2
I0508 04:11:44.233891 22274 net.cpp:150] Setting up pool2
I0508 04:11:44.233901 22274 net.cpp:157] Top shape: 1024 150 9 9 (12441600)
I0508 04:11:44.233907 22274 net.cpp:165] Memory required for data: 2101927936
I0508 04:11:44.233911 22274 layer_factory.hpp:77] Creating layer conv3
I0508 04:11:44.233932 22274 net.cpp:100] Creating Layer conv3
I0508 04:11:44.233937 22274 net.cpp:434] conv3 <- pool2
I0508 04:11:44.233945 22274 net.cpp:408] conv3 -> conv3
I0508 04:11:44.242446 22274 net.cpp:150] Setting up conv3
I0508 04:11:44.242463 22274 net.cpp:157] Top shape: 1024 250 6 6 (9216000)
I0508 04:11:44.242472 22274 net.cpp:165] Memory required for data: 2138791936
I0508 04:11:44.242491 22274 layer_factory.hpp:77] Creating layer conv3_relu
I0508 04:11:44.242501 22274 net.cpp:100] Creating Layer conv3_relu
I0508 04:11:44.242507 22274 net.cpp:434] conv3_relu <- conv3
I0508 04:11:44.242516 22274 net.cpp:395] conv3_relu -> conv3 (in-place)
I0508 04:11:44.242718 22274 net.cpp:150] Setting up conv3_relu
I0508 04:11:44.242732 22274 net.cpp:157] Top shape: 1024 250 6 6 (9216000)
I0508 04:11:44.242738 22274 net.cpp:165] Memory required for data: 2175655936
I0508 04:11:44.242744 22274 layer_factory.hpp:77] Creating layer pool3
I0508 04:11:44.242758 22274 net.cpp:100] Creating Layer pool3
I0508 04:11:44.242764 22274 net.cpp:434] pool3 <- conv3
I0508 04:11:44.242771 22274 net.cpp:408] pool3 -> pool3
I0508 04:11:44.242825 22274 net.cpp:150] Setting up pool3
I0508 04:11:44.242835 22274 net.cpp:157] Top shape: 1024 250 3 3 (2304000)
I0508 04:11:44.242841 22274 net.cpp:165] Memory required for data: 2184871936
I0508 04:11:44.242846 22274 layer_factory.hpp:77] Creating layer fc4_300
I0508 04:11:44.242859 22274 net.cpp:100] Creating Layer fc4_300
I0508 04:11:44.242866 22274 net.cpp:434] fc4_300 <- pool3
I0508 04:11:44.242875 22274 net.cpp:408] fc4_300 -> fc4_300
I0508 04:11:44.248862 22274 net.cpp:150] Setting up fc4_300
I0508 04:11:44.248880 22274 net.cpp:157] Top shape: 1024 300 (307200)
I0508 04:11:44.248884 22274 net.cpp:165] Memory required for data: 2186100736
I0508 04:11:44.248890 22274 layer_factory.hpp:77] Creating layer fc4_relu
I0508 04:11:44.248898 22274 net.cpp:100] Creating Layer fc4_relu
I0508 04:11:44.248901 22274 net.cpp:434] fc4_relu <- fc4_300
I0508 04:11:44.248906 22274 net.cpp:395] fc4_relu -> fc4_300 (in-place)
I0508 04:11:44.255055 22274 net.cpp:150] Setting up fc4_relu
I0508 04:11:44.255074 22274 net.cpp:157] Top shape: 1024 300 (307200)
I0508 04:11:44.255077 22274 net.cpp:165] Memory required for data: 2187329536
I0508 04:11:44.255081 22274 layer_factory.hpp:77] Creating layer fc5_116
I0508 04:11:44.255089 22274 net.cpp:100] Creating Layer fc5_116
I0508 04:11:44.255092 22274 net.cpp:434] fc5_116 <- fc4_300
I0508 04:11:44.255102 22274 net.cpp:408] fc5_116 -> fc5_classes
I0508 04:11:44.256922 22274 net.cpp:150] Setting up fc5_116
I0508 04:11:44.256938 22274 net.cpp:157] Top shape: 1024 116 (118784)
I0508 04:11:44.256942 22274 net.cpp:165] Memory required for data: 2187804672
I0508 04:11:44.256954 22274 layer_factory.hpp:77] Creating layer fc5_classes_fc5_116_0_split
I0508 04:11:44.256963 22274 net.cpp:100] Creating Layer fc5_classes_fc5_116_0_split
I0508 04:11:44.256968 22274 net.cpp:434] fc5_classes_fc5_116_0_split <- fc5_classes
I0508 04:11:44.256978 22274 net.cpp:408] fc5_classes_fc5_116_0_split -> fc5_classes_fc5_116_0_split_0
I0508 04:11:44.256994 22274 net.cpp:408] fc5_classes_fc5_116_0_split -> fc5_classes_fc5_116_0_split_1
I0508 04:11:44.257004 22274 net.cpp:408] fc5_classes_fc5_116_0_split -> fc5_classes_fc5_116_0_split_2
I0508 04:11:44.257067 22274 net.cpp:150] Setting up fc5_classes_fc5_116_0_split
I0508 04:11:44.257077 22274 net.cpp:157] Top shape: 1024 116 (118784)
I0508 04:11:44.257086 22274 net.cpp:157] Top shape: 1024 116 (118784)
I0508 04:11:44.257092 22274 net.cpp:157] Top shape: 1024 116 (118784)
I0508 04:11:44.257097 22274 net.cpp:165] Memory required for data: 2189230080
I0508 04:11:44.257102 22274 layer_factory.hpp:77] Creating layer softmax
I0508 04:11:44.257113 22274 net.cpp:100] Creating Layer softmax
I0508 04:11:44.257120 22274 net.cpp:434] softmax <- fc5_classes_fc5_116_0_split_0
I0508 04:11:44.257128 22274 net.cpp:408] softmax -> softmax
I0508 04:11:44.257391 22274 net.cpp:150] Setting up softmax
I0508 04:11:44.257405 22274 net.cpp:157] Top shape: 1024 116 (118784)
I0508 04:11:44.257411 22274 net.cpp:165] Memory required for data: 2189705216
I0508 04:11:44.257417 22274 layer_factory.hpp:77] Creating layer loss
I0508 04:11:44.257433 22274 net.cpp:100] Creating Layer loss
I0508 04:11:44.257454 22274 net.cpp:434] loss <- softmax
I0508 04:11:44.257464 22274 net.cpp:434] loss <- label_data_1_split_0
I0508 04:11:44.257474 22274 net.cpp:408] loss -> loss
…
