…
I0412 04:19:30.300098 20365 net.cpp:322] The NetState phase (0) differed from the phase (1) specified by a rule in layer accuracy_5
I0412 04:19:30.300315 20365 net.cpp:58] Initializing net from parameters: 
state {
  phase: TRAIN
  level: 0
  stage: ""
}
layer {
  name: "data"
  type: "Data"
  top: "data"
  top: "label"
  include {
    phase: TRAIN
  }
  transform_param {
    scale: 0.0039215689
    mirror: false
    crop_size: 48
    mean_value: 115
    mean_value: 108
    mean_value: 122
  }
  data_param {
    source: "../local_data/lmdb/rtsd-r1/imajust/train/lmdb"
    batch_size: 1024
    backend: LMDB
  }
}
layer {
  name: "conv1"
  type: "Convolution"
  bottom: "data"
  top: "conv1"
  convolution_param {
    num_output: 100
    pad: 0
    kernel_size: 7
    group: 1
    stride: 1
    weight_filler {
      type: "xavier"
    }
  }
}
layer {
  name: "conv1_prescale"
  type: "Scale"
  bottom: "conv1"
  top: "conv1"
  param {
    lr_mult: 0
    decay_mult: 0
  }
  scale_param {
    filler {
      value: 0.6666
    }
    bias_term: false
  }
}
layer {
  name: "conv1_sTanH"
  type: "TanH"
  bottom: "conv1"
  top: "conv1"
}
layer {
  name: "conv1_postscale"
  type: "Scale"
  bottom: "conv1"
  top: "conv1"
  param {
    lr_mult: 0
    decay_mult: 0
  }
  scale_param {
    filler {
      value: 1.7159
    }
    bias_term: false
  }
}
layer {
  name: "pool1"
  type: "Pooling"
  bottom: "conv1"
  top: "pool1"
  pooling_param {
    pool: MAX
    kernel_size: 2
    stride: 2
  }
}
layer {
  name: "conv2"
  type: "Convolution"
  bottom: "pool1"
  top: "conv2"
  convolution_param {
    num_output: 150
    pad: 0
    kernel_size: 4
    group: 1
    stride: 1
    weight_filler {
      type: "xavier"
    }
  }
}
layer {
  name: "conv2_prescale"
  type: "Scale"
  bottom: "conv2"
  top: "conv2"
  param {
    lr_mult: 0
    decay_mult: 0
  }
  scale_param {
    filler {
      value: 0.6666
    }
    bias_term: false
  }
}
layer {
  name: "conv2_sTanH"
  type: "TanH"
  bottom: "conv2"
  top: "conv2"
}
layer {
  name: "conv2_postscale"
  type: "Scale"
  bottom: "conv2"
  top: "conv2"
  param {
    lr_mult: 0
    decay_mult: 0
  }
  scale_param {
    filler {
      value: 1.7159
    }
    bias_term: false
  }
}
layer {
  name: "pool2"
  type: "Pooling"
  bottom: "conv2"
  top: "pool2"
  pooling_param {
    pool: MAX
    kernel_size: 2
    stride: 2
  }
}
layer {
  name: "conv3"
  type: "Convolution"
  bottom: "pool2"
  top: "conv3"
  convolution_param {
    num_output: 250
    pad: 0
    kernel_size: 4
    group: 1
    stride: 1
    weight_filler {
      type: "xavier"
    }
  }
}
layer {
  name: "conv3_prescale"
  type: "Scale"
  bottom: "conv3"
  top: "conv3"
  param {
    lr_mult: 0
    decay_mult: 0
  }
  scale_param {
    filler {
      value: 0.6666
    }
    bias_term: false
  }
}
layer {
  name: "conv3_sTanH"
  type: "TanH"
  bottom: "conv3"
  top: "conv3"
}
layer {
  name: "conv3_postscale"
  type: "Scale"
  bottom: "conv3"
  top: "conv3"
  param {
    lr_mult: 0
    decay_mult: 0
  }
  scale_param {
    filler {
      value: 1.7159
    }
    bias_term: false
  }
}
layer {
  name: "pool3"
  type: "Pooling"
  bottom: "conv3"
  top: "pool3"
  pooling_param {
    pool: MAX
    kernel_size: 2
    stride: 2
  }
}
layer {
  name: "fc4_300"
  type: "InnerProduct"
  bottom: "pool3"
  top: "fc4_300"
  inner_product_param {
    num_output: 300
    weight_filler {
      type: "xavier"
    }
  }
}
layer {
  name: "fc4_prescale"
  type: "Scale"
  bottom: "fc4_300"
  top: "fc4_300"
  param {
    lr_mult: 0
    decay_mult: 0
  }
  scale_param {
    filler {
      value: 0.6666
    }
    bias_term: false
  }
}
layer {
  name: "fc4_sTanH"
  type: "TanH"
  bottom: "fc4_300"
  top: "fc4_300"
}
layer {
  name: "fc4_postscale"
  type: "Scale"
  bottom: "fc4_300"
  top: "fc4_300"
  param {
    lr_mult: 0
    decay_mult: 0
  }
  scale_param {
    filler {
      value: 1.7159
    }
    bias_term: false
  }
}
layer {
  name: "drop4"
  type: "Dropout"
  bottom: "fc4_300"
  top: "fc4_300"
  dropout_param {
    dropout_ratio: 0.1
  }
}
layer {
  name: "fc5_67"
  type: "InnerProduct"
  bottom: "fc4_300"
  top: "fc5_classes"
  inner_product_param {
    num_output: 67
    weight_filler {
      type: "xavier"
    }
  }
}
layer {
  name: "loss"
  type: "SoftmaxWithLoss"
  bottom: "fc5_classes"
  bottom: "label"
  top: "loss"
}
I0412 04:19:30.300452 20365 layer_factory.hpp:77] Creating layer data
I0412 04:19:30.301753 20365 net.cpp:100] Creating Layer data
I0412 04:19:30.301771 20365 net.cpp:408] data -> data
I0412 04:19:30.301796 20365 net.cpp:408] data -> label
I0412 04:19:30.314620 20487 db_lmdb.cpp:35] Opened lmdb ../local_data/lmdb/rtsd-r1/imajust/train/lmdb
I0412 04:19:30.340675 20365 data_layer.cpp:41] output data size: 1024,3,48,48
I0412 04:19:30.414762 20365 net.cpp:150] Setting up data
I0412 04:19:30.414813 20365 net.cpp:157] Top shape: 1024 3 48 48 (7077888)
I0412 04:19:30.414824 20365 net.cpp:157] Top shape: 1024 (1024)
I0412 04:19:30.414830 20365 net.cpp:165] Memory required for data: 28315648
I0412 04:19:30.414846 20365 layer_factory.hpp:77] Creating layer conv1
I0412 04:19:30.414883 20365 net.cpp:100] Creating Layer conv1
I0412 04:19:30.414896 20365 net.cpp:434] conv1 <- data
I0412 04:19:30.414914 20365 net.cpp:408] conv1 -> conv1
I0412 04:19:30.741719 20365 net.cpp:150] Setting up conv1
I0412 04:19:30.741750 20365 net.cpp:157] Top shape: 1024 100 42 42 (180633600)
I0412 04:19:30.741753 20365 net.cpp:165] Memory required for data: 750850048
I0412 04:19:30.741775 20365 layer_factory.hpp:77] Creating layer conv1_prescale
I0412 04:19:30.741793 20365 net.cpp:100] Creating Layer conv1_prescale
I0412 04:19:30.741797 20365 net.cpp:434] conv1_prescale <- conv1
I0412 04:19:30.741804 20365 net.cpp:395] conv1_prescale -> conv1 (in-place)
I0412 04:19:30.741915 20365 net.cpp:150] Setting up conv1_prescale
I0412 04:19:30.741926 20365 net.cpp:157] Top shape: 1024 100 42 42 (180633600)
I0412 04:19:30.741930 20365 net.cpp:165] Memory required for data: 1473384448
I0412 04:19:30.741935 20365 layer_factory.hpp:77] Creating layer conv1_sTanH
I0412 04:19:30.741941 20365 net.cpp:100] Creating Layer conv1_sTanH
I0412 04:19:30.741945 20365 net.cpp:434] conv1_sTanH <- conv1
I0412 04:19:30.741950 20365 net.cpp:395] conv1_sTanH -> conv1 (in-place)
I0412 04:19:30.742146 20365 net.cpp:150] Setting up conv1_sTanH
I0412 04:19:30.742158 20365 net.cpp:157] Top shape: 1024 100 42 42 (180633600)
I0412 04:19:30.742163 20365 net.cpp:165] Memory required for data: 2195918848
I0412 04:19:30.742167 20365 layer_factory.hpp:77] Creating layer conv1_postscale
I0412 04:19:30.742175 20365 net.cpp:100] Creating Layer conv1_postscale
I0412 04:19:30.742179 20365 net.cpp:434] conv1_postscale <- conv1
I0412 04:19:30.742184 20365 net.cpp:395] conv1_postscale -> conv1 (in-place)
I0412 04:19:30.742280 20365 net.cpp:150] Setting up conv1_postscale
I0412 04:19:30.742288 20365 net.cpp:157] Top shape: 1024 100 42 42 (180633600)
I0412 04:19:30.742291 20365 net.cpp:165] Memory required for data: 2918453248
I0412 04:19:30.742296 20365 layer_factory.hpp:77] Creating layer pool1
I0412 04:19:30.742303 20365 net.cpp:100] Creating Layer pool1
I0412 04:19:30.742308 20365 net.cpp:434] pool1 <- conv1
I0412 04:19:30.742312 20365 net.cpp:408] pool1 -> pool1
I0412 04:19:30.742383 20365 net.cpp:150] Setting up pool1
I0412 04:19:30.742393 20365 net.cpp:157] Top shape: 1024 100 21 21 (45158400)
I0412 04:19:30.742395 20365 net.cpp:165] Memory required for data: 3099086848
I0412 04:19:30.742398 20365 layer_factory.hpp:77] Creating layer conv2
I0412 04:19:30.742409 20365 net.cpp:100] Creating Layer conv2
I0412 04:19:30.742413 20365 net.cpp:434] conv2 <- pool1
I0412 04:19:30.742419 20365 net.cpp:408] conv2 -> conv2
I0412 04:19:30.748426 20365 net.cpp:150] Setting up conv2
I0412 04:19:30.748445 20365 net.cpp:157] Top shape: 1024 150 18 18 (49766400)
I0412 04:19:30.748450 20365 net.cpp:165] Memory required for data: 3298152448
I0412 04:19:30.748459 20365 layer_factory.hpp:77] Creating layer conv2_prescale
I0412 04:19:30.748466 20365 net.cpp:100] Creating Layer conv2_prescale
I0412 04:19:30.748471 20365 net.cpp:434] conv2_prescale <- conv2
I0412 04:19:30.748477 20365 net.cpp:395] conv2_prescale -> conv2 (in-place)
I0412 04:19:30.748594 20365 net.cpp:150] Setting up conv2_prescale
I0412 04:19:30.748605 20365 net.cpp:157] Top shape: 1024 150 18 18 (49766400)
I0412 04:19:30.748607 20365 net.cpp:165] Memory required for data: 3497218048
I0412 04:19:30.748612 20365 layer_factory.hpp:77] Creating layer conv2_sTanH
I0412 04:19:30.748620 20365 net.cpp:100] Creating Layer conv2_sTanH
I0412 04:19:30.748625 20365 net.cpp:434] conv2_sTanH <- conv2
I0412 04:19:30.748630 20365 net.cpp:395] conv2_sTanH -> conv2 (in-place)
I0412 04:19:30.749387 20365 net.cpp:150] Setting up conv2_sTanH
I0412 04:19:30.749402 20365 net.cpp:157] Top shape: 1024 150 18 18 (49766400)
I0412 04:19:30.749408 20365 net.cpp:165] Memory required for data: 3696283648
I0412 04:19:30.749411 20365 layer_factory.hpp:77] Creating layer conv2_postscale
I0412 04:19:30.749418 20365 net.cpp:100] Creating Layer conv2_postscale
I0412 04:19:30.749421 20365 net.cpp:434] conv2_postscale <- conv2
I0412 04:19:30.749426 20365 net.cpp:395] conv2_postscale -> conv2 (in-place)
I0412 04:19:30.749526 20365 net.cpp:150] Setting up conv2_postscale
I0412 04:19:30.749536 20365 net.cpp:157] Top shape: 1024 150 18 18 (49766400)
I0412 04:19:30.749538 20365 net.cpp:165] Memory required for data: 3895349248
I0412 04:19:30.749543 20365 layer_factory.hpp:77] Creating layer pool2
I0412 04:19:30.749552 20365 net.cpp:100] Creating Layer pool2
I0412 04:19:30.749555 20365 net.cpp:434] pool2 <- conv2
I0412 04:19:30.749560 20365 net.cpp:408] pool2 -> pool2
I0412 04:19:30.749603 20365 net.cpp:150] Setting up pool2
I0412 04:19:30.749611 20365 net.cpp:157] Top shape: 1024 150 9 9 (12441600)
I0412 04:19:30.749614 20365 net.cpp:165] Memory required for data: 3945115648
I0412 04:19:30.749616 20365 layer_factory.hpp:77] Creating layer conv3
I0412 04:19:30.749626 20365 net.cpp:100] Creating Layer conv3
I0412 04:19:30.749631 20365 net.cpp:434] conv3 <- pool2
I0412 04:19:30.749636 20365 net.cpp:408] conv3 -> conv3
I0412 04:19:30.755200 20365 net.cpp:150] Setting up conv3
I0412 04:19:30.755219 20365 net.cpp:157] Top shape: 1024 250 6 6 (9216000)
I0412 04:19:30.755223 20365 net.cpp:165] Memory required for data: 3981979648
I0412 04:19:30.755235 20365 layer_factory.hpp:77] Creating layer conv3_prescale
I0412 04:19:30.755244 20365 net.cpp:100] Creating Layer conv3_prescale
I0412 04:19:30.755246 20365 net.cpp:434] conv3_prescale <- conv3
I0412 04:19:30.755254 20365 net.cpp:395] conv3_prescale -> conv3 (in-place)
I0412 04:19:30.755352 20365 net.cpp:150] Setting up conv3_prescale
I0412 04:19:30.755362 20365 net.cpp:157] Top shape: 1024 250 6 6 (9216000)
I0412 04:19:30.755363 20365 net.cpp:165] Memory required for data: 4018843648
I0412 04:19:30.755368 20365 layer_factory.hpp:77] Creating layer conv3_sTanH
I0412 04:19:30.755374 20365 net.cpp:100] Creating Layer conv3_sTanH
I0412 04:19:30.755379 20365 net.cpp:434] conv3_sTanH <- conv3
I0412 04:19:30.755383 20365 net.cpp:395] conv3_sTanH -> conv3 (in-place)
I0412 04:19:30.759925 20365 net.cpp:150] Setting up conv3_sTanH
I0412 04:19:30.759944 20365 net.cpp:157] Top shape: 1024 250 6 6 (9216000)
I0412 04:19:30.759948 20365 net.cpp:165] Memory required for data: 4055707648
I0412 04:19:30.759968 20365 layer_factory.hpp:77] Creating layer conv3_postscale
I0412 04:19:30.759975 20365 net.cpp:100] Creating Layer conv3_postscale
I0412 04:19:30.759979 20365 net.cpp:434] conv3_postscale <- conv3
I0412 04:19:30.759989 20365 net.cpp:395] conv3_postscale -> conv3 (in-place)
I0412 04:19:30.760097 20365 net.cpp:150] Setting up conv3_postscale
I0412 04:19:30.760107 20365 net.cpp:157] Top shape: 1024 250 6 6 (9216000)
I0412 04:19:30.760109 20365 net.cpp:165] Memory required for data: 4092571648
I0412 04:19:30.760114 20365 layer_factory.hpp:77] Creating layer pool3
I0412 04:19:30.760121 20365 net.cpp:100] Creating Layer pool3
I0412 04:19:30.760125 20365 net.cpp:434] pool3 <- conv3
I0412 04:19:30.760133 20365 net.cpp:408] pool3 -> pool3
I0412 04:19:30.760174 20365 net.cpp:150] Setting up pool3
I0412 04:19:30.760181 20365 net.cpp:157] Top shape: 1024 250 3 3 (2304000)
I0412 04:19:30.760185 20365 net.cpp:165] Memory required for data: 4101787648
I0412 04:19:30.760187 20365 layer_factory.hpp:77] Creating layer fc4_300
I0412 04:19:30.760200 20365 net.cpp:100] Creating Layer fc4_300
I0412 04:19:30.760205 20365 net.cpp:434] fc4_300 <- pool3
I0412 04:19:30.760210 20365 net.cpp:408] fc4_300 -> fc4_300
I0412 04:19:30.766613 20365 net.cpp:150] Setting up fc4_300
I0412 04:19:30.766633 20365 net.cpp:157] Top shape: 1024 300 (307200)
I0412 04:19:30.766636 20365 net.cpp:165] Memory required for data: 4103016448
I0412 04:19:30.766644 20365 layer_factory.hpp:77] Creating layer fc4_prescale
I0412 04:19:30.766654 20365 net.cpp:100] Creating Layer fc4_prescale
I0412 04:19:30.766657 20365 net.cpp:434] fc4_prescale <- fc4_300
I0412 04:19:30.766664 20365 net.cpp:395] fc4_prescale -> fc4_300 (in-place)
I0412 04:19:30.766758 20365 net.cpp:150] Setting up fc4_prescale
I0412 04:19:30.766767 20365 net.cpp:157] Top shape: 1024 300 (307200)
I0412 04:19:30.766770 20365 net.cpp:165] Memory required for data: 4104245248
I0412 04:19:30.766774 20365 layer_factory.hpp:77] Creating layer fc4_sTanH
I0412 04:19:30.766782 20365 net.cpp:100] Creating Layer fc4_sTanH
I0412 04:19:30.766785 20365 net.cpp:434] fc4_sTanH <- fc4_300
I0412 04:19:30.766790 20365 net.cpp:395] fc4_sTanH -> fc4_300 (in-place)
I0412 04:19:30.766990 20365 net.cpp:150] Setting up fc4_sTanH
I0412 04:19:30.767002 20365 net.cpp:157] Top shape: 1024 300 (307200)
I0412 04:19:30.767006 20365 net.cpp:165] Memory required for data: 4105474048
I0412 04:19:30.767010 20365 layer_factory.hpp:77] Creating layer fc4_postscale
I0412 04:19:30.767017 20365 net.cpp:100] Creating Layer fc4_postscale
I0412 04:19:30.767022 20365 net.cpp:434] fc4_postscale <- fc4_300
I0412 04:19:30.767029 20365 net.cpp:395] fc4_postscale -> fc4_300 (in-place)
I0412 04:19:30.767128 20365 net.cpp:150] Setting up fc4_postscale
I0412 04:19:30.767138 20365 net.cpp:157] Top shape: 1024 300 (307200)
I0412 04:19:30.767139 20365 net.cpp:165] Memory required for data: 4106702848
I0412 04:19:30.767144 20365 layer_factory.hpp:77] Creating layer drop4
I0412 04:19:30.767153 20365 net.cpp:100] Creating Layer drop4
I0412 04:19:30.767156 20365 net.cpp:434] drop4 <- fc4_300
I0412 04:19:30.767163 20365 net.cpp:395] drop4 -> fc4_300 (in-place)
I0412 04:19:30.767189 20365 net.cpp:150] Setting up drop4
I0412 04:19:30.767196 20365 net.cpp:157] Top shape: 1024 300 (307200)
I0412 04:19:30.767199 20365 net.cpp:165] Memory required for data: 4107931648
I0412 04:19:30.767201 20365 layer_factory.hpp:77] Creating layer fc5_67
I0412 04:19:30.767210 20365 net.cpp:100] Creating Layer fc5_67
I0412 04:19:30.767215 20365 net.cpp:434] fc5_67 <- fc4_300
I0412 04:19:30.767220 20365 net.cpp:408] fc5_67 -> fc5_classes
I0412 04:19:30.769083 20365 net.cpp:150] Setting up fc5_67
I0412 04:19:30.769101 20365 net.cpp:157] Top shape: 1024 67 (68608)
I0412 04:19:30.769105 20365 net.cpp:165] Memory required for data: 4108206080
I0412 04:19:30.769119 20365 layer_factory.hpp:77] Creating layer loss
I0412 04:19:30.769125 20365 net.cpp:100] Creating Layer loss
I0412 04:19:30.769130 20365 net.cpp:434] loss <- fc5_classes
I0412 04:19:30.769150 20365 net.cpp:434] loss <- label
I0412 04:19:30.769160 20365 net.cpp:408] loss -> loss
I0412 04:19:30.769176 20365 layer_factory.hpp:77] Creating layer loss
…
I0412 04:19:30.770274 20365 solver.cpp:193] Creating test net (#0) specified by test_net file: ./Prototxt/experiment_9/rtsd-r1/imajust/trial_4/test.prototxt
I0412 04:19:30.770648 20365 net.cpp:58] Initializing net from parameters: 
state {
  phase: TEST
}
layer {
  name: "data"
  type: "Data"
  top: "data"
  top: "label"
  include {
    phase: TEST
  }
  transform_param {
    scale: 0.0039215689
    mirror: false
    crop_size: 48
    mean_value: 109
    mean_value: 106
    mean_value: 126
  }
  data_param {
    source: "../local_data/lmdb/rtsd-r1/imajust/test/lmdb"
    batch_size: 1024
    backend: LMDB
  }
}
layer {
  name: "conv1"
  type: "Convolution"
  bottom: "data"
  top: "conv1"
  convolution_param {
    num_output: 100
    pad: 0
    kernel_size: 7
    group: 1
    stride: 1
    weight_filler {
      type: "xavier"
    }
  }
}
layer {
  name: "conv1_prescale"
  type: "Scale"
  bottom: "conv1"
  top: "conv1"
  param {
    lr_mult: 0
    decay_mult: 0
  }
  scale_param {
    filler {
      value: 0.6666
    }
    bias_term: false
  }
}
layer {
  name: "conv1_sTanH"
  type: "TanH"
  bottom: "conv1"
  top: "conv1"
}
layer {
  name: "conv1_postscale"
  type: "Scale"
  bottom: "conv1"
  top: "conv1"
  param {
    lr_mult: 0
    decay_mult: 0
  }
  scale_param {
    filler {
      value: 1.7159
    }
    bias_term: false
  }
}
layer {
  name: "pool1"
  type: "Pooling"
  bottom: "conv1"
  top: "pool1"
  pooling_param {
    pool: MAX
    kernel_size: 2
    stride: 2
  }
}
layer {
  name: "conv2"
  type: "Convolution"
  bottom: "pool1"
  top: "conv2"
  convolution_param {
    num_output: 150
    pad: 0
    kernel_size: 4
    group: 1
    stride: 1
    weight_filler {
      type: "xavier"
    }
  }
}
layer {
  name: "conv2_prescale"
  type: "Scale"
  bottom: "conv2"
  top: "conv2"
  param {
    lr_mult: 0
    decay_mult: 0
  }
  scale_param {
    filler {
      value: 0.6666
    }
    bias_term: false
  }
}
layer {
  name: "conv2_sTanH"
  type: "TanH"
  bottom: "conv2"
  top: "conv2"
}
layer {
  name: "conv2_postscale"
  type: "Scale"
  bottom: "conv2"
  top: "conv2"
  param {
    lr_mult: 0
    decay_mult: 0
  }
  scale_param {
    filler {
      value: 1.7159
    }
    bias_term: false
  }
}
layer {
  name: "pool2"
  type: "Pooling"
  bottom: "conv2"
  top: "pool2"
  pooling_param {
    pool: MAX
    kernel_size: 2
    stride: 2
  }
}
layer {
  name: "conv3"
  type: "Convolution"
  bottom: "pool2"
  top: "conv3"
  convolution_param {
    num_output: 250
    pad: 0
    kernel_size: 4
    group: 1
    stride: 1
    weight_filler {
      type: "xavier"
    }
  }
}
layer {
  name: "conv3_prescale"
  type: "Scale"
  bottom: "conv3"
  top: "conv3"
  param {
    lr_mult: 0
    decay_mult: 0
  }
  scale_param {
    filler {
      value: 0.6666
    }
    bias_term: false
  }
}
layer {
  name: "conv3_sTanH"
  type: "TanH"
  bottom: "conv3"
  top: "conv3"
}
layer {
  name: "conv3_postscale"
  type: "Scale"
  bottom: "conv3"
  top: "conv3"
  param {
    lr_mult: 0
    decay_mult: 0
  }
  scale_param {
    filler {
      value: 1.7159
    }
    bias_term: false
  }
}
layer {
  name: "pool3"
  type: "Pooling"
  bottom: "conv3"
  top: "pool3"
  pooling_param {
    pool: MAX
    kernel_size: 2
    stride: 2
  }
}
layer {
  name: "fc4_300"
  type: "InnerProduct"
  bottom: "pool3"
  top: "fc4_300"
  inner_product_param {
    num_output: 300
    weight_filler {
      type: "xavier"
    }
  }
}
layer {
  name: "fc4_prescale"
  type: "Scale"
  bottom: "fc4_300"
  top: "fc4_300"
  param {
    lr_mult: 0
    decay_mult: 0
  }
  scale_param {
    filler {
      value: 0.6666
    }
    bias_term: false
  }
}
layer {
  name: "fc4_sTanH"
  type: "TanH"
  bottom: "fc4_300"
  top: "fc4_300"
}
layer {
  name: "fc4_postscale"
  type: "Scale"
  bottom: "fc4_300"
  top: "fc4_300"
  param {
    lr_mult: 0
    decay_mult: 0
  }
  scale_param {
    filler {
      value: 1.7159
    }
    bias_term: false
  }
}
layer {
  name: "drop4"
  type: "Dropout"
  bottom: "fc4_300"
  top: "fc4_300"
  dropout_param {
    dropout_ratio: 0.1
  }
}
layer {
  name: "fc5_67"
  type: "InnerProduct"
  bottom: "fc4_300"
  top: "fc5_classes"
  inner_product_param {
    num_output: 67
    weight_filler {
      type: "xavier"
    }
  }
}
layer {
  name: "loss"
  type: "SoftmaxWithLoss"
  bottom: "fc5_classes"
  bottom: "label"
  top: "loss"
}
layer {
  name: "accuracy_1"
  type: "Accuracy"
  bottom: "fc5_classes"
  bottom: "label"
  top: "accuracy_1"
  include {
    phase: TEST
  }
  accuracy_param {
    top_k: 1
  }
}
layer {
  name: "accuracy_5"
  type: "Accuracy"
  bottom: "fc5_classes"
  bottom: "label"
  top: "accuracy_5"
  include {
    phase: TEST
  }
  accuracy_param {
    top_k: 5
  }
}
I0412 04:19:30.770889 20365 layer_factory.hpp:77] Creating layer data
I0412 04:19:30.772256 20365 net.cpp:100] Creating Layer data
I0412 04:19:30.772294 20365 net.cpp:408] data -> data
I0412 04:19:30.772315 20365 net.cpp:408] data -> label
I0412 04:19:30.775704 20536 db_lmdb.cpp:35] Opened lmdb ../local_data/lmdb/rtsd-r1/imajust/test/lmdb
I0412 04:19:30.775892 20365 data_layer.cpp:41] output data size: 1024,3,48,48
I0412 04:19:30.835613 20365 net.cpp:150] Setting up data
I0412 04:19:30.835644 20365 net.cpp:157] Top shape: 1024 3 48 48 (7077888)
I0412 04:19:30.835650 20365 net.cpp:157] Top shape: 1024 (1024)
I0412 04:19:30.835654 20365 net.cpp:165] Memory required for data: 28315648
I0412 04:19:30.835661 20365 layer_factory.hpp:77] Creating layer label_data_1_split
I0412 04:19:30.835680 20365 net.cpp:100] Creating Layer label_data_1_split
I0412 04:19:30.835686 20365 net.cpp:434] label_data_1_split <- label
I0412 04:19:30.835696 20365 net.cpp:408] label_data_1_split -> label_data_1_split_0
I0412 04:19:30.835711 20365 net.cpp:408] label_data_1_split -> label_data_1_split_1
I0412 04:19:30.835742 20365 net.cpp:408] label_data_1_split -> label_data_1_split_2
I0412 04:19:30.835897 20365 net.cpp:150] Setting up label_data_1_split
I0412 04:19:30.835911 20365 net.cpp:157] Top shape: 1024 (1024)
I0412 04:19:30.835916 20365 net.cpp:157] Top shape: 1024 (1024)
I0412 04:19:30.835922 20365 net.cpp:157] Top shape: 1024 (1024)
I0412 04:19:30.835924 20365 net.cpp:165] Memory required for data: 28327936
I0412 04:19:30.835928 20365 layer_factory.hpp:77] Creating layer conv1
I0412 04:19:30.835942 20365 net.cpp:100] Creating Layer conv1
I0412 04:19:30.835947 20365 net.cpp:434] conv1 <- data
I0412 04:19:30.835954 20365 net.cpp:408] conv1 -> conv1
I0412 04:19:30.839186 20365 net.cpp:150] Setting up conv1
I0412 04:19:30.839208 20365 net.cpp:157] Top shape: 1024 100 42 42 (180633600)
I0412 04:19:30.839215 20365 net.cpp:165] Memory required for data: 750862336
I0412 04:19:30.839228 20365 layer_factory.hpp:77] Creating layer conv1_prescale
I0412 04:19:30.839242 20365 net.cpp:100] Creating Layer conv1_prescale
I0412 04:19:30.839248 20365 net.cpp:434] conv1_prescale <- conv1
I0412 04:19:30.839256 20365 net.cpp:395] conv1_prescale -> conv1 (in-place)
I0412 04:19:30.839390 20365 net.cpp:150] Setting up conv1_prescale
I0412 04:19:30.839401 20365 net.cpp:157] Top shape: 1024 100 42 42 (180633600)
I0412 04:19:30.839404 20365 net.cpp:165] Memory required for data: 1473396736
I0412 04:19:30.839413 20365 layer_factory.hpp:77] Creating layer conv1_sTanH
I0412 04:19:30.839424 20365 net.cpp:100] Creating Layer conv1_sTanH
I0412 04:19:30.839429 20365 net.cpp:434] conv1_sTanH <- conv1
I0412 04:19:30.839435 20365 net.cpp:395] conv1_sTanH -> conv1 (in-place)
I0412 04:19:30.842056 20365 net.cpp:150] Setting up conv1_sTanH
I0412 04:19:30.842078 20365 net.cpp:157] Top shape: 1024 100 42 42 (180633600)
I0412 04:19:30.842083 20365 net.cpp:165] Memory required for data: 2195931136
I0412 04:19:30.842090 20365 layer_factory.hpp:77] Creating layer conv1_postscale
I0412 04:19:30.842103 20365 net.cpp:100] Creating Layer conv1_postscale
I0412 04:19:30.842110 20365 net.cpp:434] conv1_postscale <- conv1
I0412 04:19:30.842118 20365 net.cpp:395] conv1_postscale -> conv1 (in-place)
I0412 04:19:30.842278 20365 net.cpp:150] Setting up conv1_postscale
I0412 04:19:30.842289 20365 net.cpp:157] Top shape: 1024 100 42 42 (180633600)
I0412 04:19:30.842294 20365 net.cpp:165] Memory required for data: 2918465536
I0412 04:19:30.842300 20365 layer_factory.hpp:77] Creating layer pool1
I0412 04:19:30.842310 20365 net.cpp:100] Creating Layer pool1
I0412 04:19:30.842316 20365 net.cpp:434] pool1 <- conv1
I0412 04:19:30.842322 20365 net.cpp:408] pool1 -> pool1
I0412 04:19:30.842376 20365 net.cpp:150] Setting up pool1
I0412 04:19:30.842386 20365 net.cpp:157] Top shape: 1024 100 21 21 (45158400)
I0412 04:19:30.842389 20365 net.cpp:165] Memory required for data: 3099099136
I0412 04:19:30.842392 20365 layer_factory.hpp:77] Creating layer conv2
I0412 04:19:30.842404 20365 net.cpp:100] Creating Layer conv2
I0412 04:19:30.842411 20365 net.cpp:434] conv2 <- pool1
I0412 04:19:30.842418 20365 net.cpp:408] conv2 -> conv2
I0412 04:19:30.858428 20365 net.cpp:150] Setting up conv2
I0412 04:19:30.858459 20365 net.cpp:157] Top shape: 1024 150 18 18 (49766400)
I0412 04:19:30.858464 20365 net.cpp:165] Memory required for data: 3298164736
I0412 04:19:30.858484 20365 layer_factory.hpp:77] Creating layer conv2_prescale
I0412 04:19:30.858502 20365 net.cpp:100] Creating Layer conv2_prescale
I0412 04:19:30.858510 20365 net.cpp:434] conv2_prescale <- conv2
I0412 04:19:30.858517 20365 net.cpp:395] conv2_prescale -> conv2 (in-place)
I0412 04:19:30.858665 20365 net.cpp:150] Setting up conv2_prescale
I0412 04:19:30.858677 20365 net.cpp:157] Top shape: 1024 150 18 18 (49766400)
I0412 04:19:30.858682 20365 net.cpp:165] Memory required for data: 3497230336
I0412 04:19:30.858688 20365 layer_factory.hpp:77] Creating layer conv2_sTanH
I0412 04:19:30.858695 20365 net.cpp:100] Creating Layer conv2_sTanH
I0412 04:19:30.858700 20365 net.cpp:434] conv2_sTanH <- conv2
I0412 04:19:30.858705 20365 net.cpp:395] conv2_sTanH -> conv2 (in-place)
I0412 04:19:30.859951 20365 net.cpp:150] Setting up conv2_sTanH
I0412 04:19:30.859974 20365 net.cpp:157] Top shape: 1024 150 18 18 (49766400)
I0412 04:19:30.859980 20365 net.cpp:165] Memory required for data: 3696295936
I0412 04:19:30.859984 20365 layer_factory.hpp:77] Creating layer conv2_postscale
I0412 04:19:30.859992 20365 net.cpp:100] Creating Layer conv2_postscale
I0412 04:19:30.859998 20365 net.cpp:434] conv2_postscale <- conv2
I0412 04:19:30.860007 20365 net.cpp:395] conv2_postscale -> conv2 (in-place)
I0412 04:19:30.860146 20365 net.cpp:150] Setting up conv2_postscale
I0412 04:19:30.860157 20365 net.cpp:157] Top shape: 1024 150 18 18 (49766400)
I0412 04:19:30.860160 20365 net.cpp:165] Memory required for data: 3895361536
I0412 04:19:30.860167 20365 layer_factory.hpp:77] Creating layer pool2
I0412 04:19:30.860177 20365 net.cpp:100] Creating Layer pool2
I0412 04:19:30.860183 20365 net.cpp:434] pool2 <- conv2
I0412 04:19:30.860189 20365 net.cpp:408] pool2 -> pool2
I0412 04:19:30.860249 20365 net.cpp:150] Setting up pool2
I0412 04:19:30.860261 20365 net.cpp:157] Top shape: 1024 150 9 9 (12441600)
I0412 04:19:30.860266 20365 net.cpp:165] Memory required for data: 3945127936
I0412 04:19:30.860270 20365 layer_factory.hpp:77] Creating layer conv3
I0412 04:19:30.860280 20365 net.cpp:100] Creating Layer conv3
I0412 04:19:30.860285 20365 net.cpp:434] conv3 <- pool2
I0412 04:19:30.860293 20365 net.cpp:408] conv3 -> conv3
I0412 04:19:30.869154 20365 net.cpp:150] Setting up conv3
I0412 04:19:30.869181 20365 net.cpp:157] Top shape: 1024 250 6 6 (9216000)
I0412 04:19:30.869186 20365 net.cpp:165] Memory required for data: 3981991936
I0412 04:19:30.869199 20365 layer_factory.hpp:77] Creating layer conv3_prescale
I0412 04:19:30.869211 20365 net.cpp:100] Creating Layer conv3_prescale
I0412 04:19:30.869217 20365 net.cpp:434] conv3_prescale <- conv3
I0412 04:19:30.869226 20365 net.cpp:395] conv3_prescale -> conv3 (in-place)
I0412 04:19:30.869354 20365 net.cpp:150] Setting up conv3_prescale
I0412 04:19:30.869366 20365 net.cpp:157] Top shape: 1024 250 6 6 (9216000)
I0412 04:19:30.869372 20365 net.cpp:165] Memory required for data: 4018855936
I0412 04:19:30.869377 20365 layer_factory.hpp:77] Creating layer conv3_sTanH
I0412 04:19:30.869385 20365 net.cpp:100] Creating Layer conv3_sTanH
I0412 04:19:30.869390 20365 net.cpp:434] conv3_sTanH <- conv3
I0412 04:19:30.869396 20365 net.cpp:395] conv3_sTanH -> conv3 (in-place)
I0412 04:19:30.871098 20365 net.cpp:150] Setting up conv3_sTanH
I0412 04:19:30.871117 20365 net.cpp:157] Top shape: 1024 250 6 6 (9216000)
I0412 04:19:30.871122 20365 net.cpp:165] Memory required for data: 4055719936
I0412 04:19:30.871127 20365 layer_factory.hpp:77] Creating layer conv3_postscale
I0412 04:19:30.871140 20365 net.cpp:100] Creating Layer conv3_postscale
I0412 04:19:30.871145 20365 net.cpp:434] conv3_postscale <- conv3
I0412 04:19:30.871151 20365 net.cpp:395] conv3_postscale -> conv3 (in-place)
I0412 04:19:30.871282 20365 net.cpp:150] Setting up conv3_postscale
I0412 04:19:30.871294 20365 net.cpp:157] Top shape: 1024 250 6 6 (9216000)
I0412 04:19:30.871297 20365 net.cpp:165] Memory required for data: 4092583936
I0412 04:19:30.871304 20365 layer_factory.hpp:77] Creating layer pool3
I0412 04:19:30.871317 20365 net.cpp:100] Creating Layer pool3
I0412 04:19:30.871323 20365 net.cpp:434] pool3 <- conv3
I0412 04:19:30.871335 20365 net.cpp:408] pool3 -> pool3
I0412 04:19:30.871389 20365 net.cpp:150] Setting up pool3
I0412 04:19:30.871398 20365 net.cpp:157] Top shape: 1024 250 3 3 (2304000)
I0412 04:19:30.871405 20365 net.cpp:165] Memory required for data: 4101799936
I0412 04:19:30.871409 20365 layer_factory.hpp:77] Creating layer fc4_300
I0412 04:19:30.871417 20365 net.cpp:100] Creating Layer fc4_300
I0412 04:19:30.871423 20365 net.cpp:434] fc4_300 <- pool3
I0412 04:19:30.871430 20365 net.cpp:408] fc4_300 -> fc4_300
I0412 04:19:30.878294 20365 net.cpp:150] Setting up fc4_300
I0412 04:19:30.878314 20365 net.cpp:157] Top shape: 1024 300 (307200)
I0412 04:19:30.878317 20365 net.cpp:165] Memory required for data: 4103028736
I0412 04:19:30.878345 20365 layer_factory.hpp:77] Creating layer fc4_prescale
I0412 04:19:30.878360 20365 net.cpp:100] Creating Layer fc4_prescale
I0412 04:19:30.878365 20365 net.cpp:434] fc4_prescale <- fc4_300
I0412 04:19:30.878373 20365 net.cpp:395] fc4_prescale -> fc4_300 (in-place)
I0412 04:19:30.878495 20365 net.cpp:150] Setting up fc4_prescale
I0412 04:19:30.878505 20365 net.cpp:157] Top shape: 1024 300 (307200)
I0412 04:19:30.878509 20365 net.cpp:165] Memory required for data: 4104257536
I0412 04:19:30.878515 20365 layer_factory.hpp:77] Creating layer fc4_sTanH
I0412 04:19:30.878522 20365 net.cpp:100] Creating Layer fc4_sTanH
I0412 04:19:30.878528 20365 net.cpp:434] fc4_sTanH <- fc4_300
I0412 04:19:30.878533 20365 net.cpp:395] fc4_sTanH -> fc4_300 (in-place)
I0412 04:19:30.878779 20365 net.cpp:150] Setting up fc4_sTanH
I0412 04:19:30.878793 20365 net.cpp:157] Top shape: 1024 300 (307200)
I0412 04:19:30.878798 20365 net.cpp:165] Memory required for data: 4105486336
I0412 04:19:30.878801 20365 layer_factory.hpp:77] Creating layer fc4_postscale
I0412 04:19:30.878809 20365 net.cpp:100] Creating Layer fc4_postscale
I0412 04:19:30.878814 20365 net.cpp:434] fc4_postscale <- fc4_300
I0412 04:19:30.878823 20365 net.cpp:395] fc4_postscale -> fc4_300 (in-place)
I0412 04:19:30.878953 20365 net.cpp:150] Setting up fc4_postscale
I0412 04:19:30.878963 20365 net.cpp:157] Top shape: 1024 300 (307200)
I0412 04:19:30.878970 20365 net.cpp:165] Memory required for data: 4106715136
I0412 04:19:30.878976 20365 layer_factory.hpp:77] Creating layer drop4
I0412 04:19:30.878984 20365 net.cpp:100] Creating Layer drop4
I0412 04:19:30.878989 20365 net.cpp:434] drop4 <- fc4_300
I0412 04:19:30.878994 20365 net.cpp:395] drop4 -> fc4_300 (in-place)
I0412 04:19:30.879026 20365 net.cpp:150] Setting up drop4
I0412 04:19:30.879034 20365 net.cpp:157] Top shape: 1024 300 (307200)
I0412 04:19:30.879048 20365 net.cpp:165] Memory required for data: 4107943936
I0412 04:19:30.879051 20365 layer_factory.hpp:77] Creating layer fc5_67
I0412 04:19:30.879060 20365 net.cpp:100] Creating Layer fc5_67
I0412 04:19:30.879066 20365 net.cpp:434] fc5_67 <- fc4_300
I0412 04:19:30.879071 20365 net.cpp:408] fc5_67 -> fc5_classes
I0412 04:19:30.879379 20365 net.cpp:150] Setting up fc5_67
I0412 04:19:30.879389 20365 net.cpp:157] Top shape: 1024 67 (68608)
I0412 04:19:30.879392 20365 net.cpp:165] Memory required for data: 4108218368
I0412 04:19:30.879406 20365 layer_factory.hpp:77] Creating layer fc5_classes_fc5_67_0_split
I0412 04:19:30.879415 20365 net.cpp:100] Creating Layer fc5_classes_fc5_67_0_split
I0412 04:19:30.879421 20365 net.cpp:434] fc5_classes_fc5_67_0_split <- fc5_classes
I0412 04:19:30.879427 20365 net.cpp:408] fc5_classes_fc5_67_0_split -> fc5_classes_fc5_67_0_split_0
I0412 04:19:30.879436 20365 net.cpp:408] fc5_classes_fc5_67_0_split -> fc5_classes_fc5_67_0_split_1
I0412 04:19:30.879446 20365 net.cpp:408] fc5_classes_fc5_67_0_split -> fc5_classes_fc5_67_0_split_2
I0412 04:19:30.879513 20365 net.cpp:150] Setting up fc5_classes_fc5_67_0_split
I0412 04:19:30.879520 20365 net.cpp:157] Top shape: 1024 67 (68608)
I0412 04:19:30.879528 20365 net.cpp:157] Top shape: 1024 67 (68608)
I0412 04:19:30.879532 20365 net.cpp:157] Top shape: 1024 67 (68608)
I0412 04:19:30.879535 20365 net.cpp:165] Memory required for data: 4109041664
I0412 04:19:30.879539 20365 layer_factory.hpp:77] Creating layer loss
I0412 04:19:30.879549 20365 net.cpp:100] Creating Layer loss
I0412 04:19:30.879554 20365 net.cpp:434] loss <- fc5_classes_fc5_67_0_split_0
I0412 04:19:30.879559 20365 net.cpp:434] loss <- label_data_1_split_0
I0412 04:19:30.879575 20365 net.cpp:408] loss -> loss
…
