…
I0415 06:15:56.998167 11493 solver.cpp:93] Creating training net from train_net file: ./Prototxt/experiment_12/rtsd-r1/imajust/trial_3/train.prototxt
I0415 06:15:57.008762 11493 net.cpp:58] Initializing net from parameters: 
state {
  phase: TRAIN
  level: 0
  stage: ""
}
layer {
  name: "data"
  type: "Data"
  top: "data"
  top: "label"
  include {
    phase: TRAIN
  }
  transform_param {
    scale: 0.0039215689
    mirror: false
    crop_size: 48
    mean_value: 115
    mean_value: 108
    mean_value: 122
  }
  data_param {
    source: "../local_data/lmdb/rtsd-r1/imajust/train/lmdb"
    batch_size: 1024
    backend: LMDB
  }
}
layer {
  name: "conv1"
  type: "Convolution"
  bottom: "data"
  top: "conv1"
  convolution_param {
    num_output: 100
    pad: 0
    kernel_size: 7
    group: 1
    stride: 1
    weight_filler {
      type: "xavier"
    }
  }
}
layer {
  name: "conv1_relu"
  type: "ReLU"
  bottom: "conv1"
  top: "conv1"
}
layer {
  name: "pool1"
  type: "Pooling"
  bottom: "conv1"
  top: "pool1"
  pooling_param {
    pool: MAX
    kernel_size: 2
    stride: 2
  }
}
layer {
  name: "conv2"
  type: "Convolution"
  bottom: "pool1"
  top: "conv2"
  convolution_param {
    num_output: 150
    pad: 0
    kernel_size: 4
    group: 1
    stride: 1
    weight_filler {
      type: "xavier"
    }
  }
}
layer {
  name: "conv2_relu"
  type: "ReLU"
  bottom: "conv2"
  top: "conv2"
}
layer {
  name: "pool2"
  type: "Pooling"
  bottom: "conv2"
  top: "pool2"
  pooling_param {
    pool: MAX
    kernel_size: 2
    stride: 2
  }
}
layer {
  name: "conv3"
  type: "Convolution"
  bottom: "pool2"
  top: "conv3"
  convolution_param {
    num_output: 250
    pad: 0
    kernel_size: 4
    group: 1
    stride: 1
    weight_filler {
      type: "xavier"
    }
  }
}
layer {
  name: "conv3_relu"
  type: "ReLU"
  bottom: "conv3"
  top: "conv3"
}
layer {
  name: "pool3"
  type: "Pooling"
  bottom: "conv3"
  top: "pool3"
  pooling_param {
    pool: MAX
    kernel_size: 2
    stride: 2
  }
}
layer {
  name: "fc4_300"
  type: "InnerProduct"
  bottom: "pool3"
  top: "fc4_300"
  inner_product_param {
    num_output: 300
    weight_filler {
      type: "xavier"
    }
  }
}
layer {
  name: "fc4_relu"
  type: "ReLU"
  bottom: "fc4_300"
  top: "fc4_300"
}
layer {
  name: "drop4"
  type: "Dropout"
  bottom: "fc4_300"
  top: "fc4_300"
  dropout_param {
    dropout_ratio: 0.5
  }
}
layer {
  name: "fc5_67"
  type: "InnerProduct"
  bottom: "fc4_300"
  top: "fc5_classes"
  inner_product_param {
    num_output: 67
    weight_filler {
      type: "xavier"
    }
  }
}
layer {
  name: "softmax"
  type: "Softmax"
  bottom: "fc5_classes"
  top: "softmax"
}
layer {
  name: "loss"
  type: "MultinomialLogisticLoss"
  bottom: "softmax"
  bottom: "label"
  top: "loss"
}
layer {
  name: "accuracy_1"
  type: "Accuracy"
  bottom: "fc5_classes"
  bottom: "label"
  top: "accuracy_1"
  accuracy_param {
    top_k: 1
  }
}
layer {
  name: "accuracy_5"
  type: "Accuracy"
  bottom: "fc5_classes"
  bottom: "label"
  top: "accuracy_5"
  accuracy_param {
    top_k: 5
  }
}
layer {
  name: "silence"
  type: "Silence"
  bottom: "accuracy_1"
  bottom: "accuracy_5"
}
I0415 06:15:57.008911 11493 layer_factory.hpp:77] Creating layer data
I0415 06:15:57.009995 11493 net.cpp:100] Creating Layer data
I0415 06:15:57.010015 11493 net.cpp:408] data -> data
I0415 06:15:57.010038 11493 net.cpp:408] data -> label
I0415 06:15:57.012631 11726 db_lmdb.cpp:35] Opened lmdb ../local_data/lmdb/rtsd-r1/imajust/train/lmdb
I0415 06:15:57.033985 11493 data_layer.cpp:41] output data size: 1024,3,48,48
I0415 06:15:57.127990 11493 net.cpp:150] Setting up data
I0415 06:15:57.128026 11493 net.cpp:157] Top shape: 1024 3 48 48 (7077888)
I0415 06:15:57.128031 11493 net.cpp:157] Top shape: 1024 (1024)
I0415 06:15:57.128034 11493 net.cpp:165] Memory required for data: 28315648
I0415 06:15:57.128047 11493 layer_factory.hpp:77] Creating layer label_data_1_split
I0415 06:15:57.128062 11493 net.cpp:100] Creating Layer label_data_1_split
I0415 06:15:57.128068 11493 net.cpp:434] label_data_1_split <- label
I0415 06:15:57.128087 11493 net.cpp:408] label_data_1_split -> label_data_1_split_0
I0415 06:15:57.128099 11493 net.cpp:408] label_data_1_split -> label_data_1_split_1
I0415 06:15:57.128108 11493 net.cpp:408] label_data_1_split -> label_data_1_split_2
I0415 06:15:57.128209 11493 net.cpp:150] Setting up label_data_1_split
I0415 06:15:57.128218 11493 net.cpp:157] Top shape: 1024 (1024)
I0415 06:15:57.128222 11493 net.cpp:157] Top shape: 1024 (1024)
I0415 06:15:57.128226 11493 net.cpp:157] Top shape: 1024 (1024)
I0415 06:15:57.128229 11493 net.cpp:165] Memory required for data: 28327936
I0415 06:15:57.128232 11493 layer_factory.hpp:77] Creating layer conv1
I0415 06:15:57.128249 11493 net.cpp:100] Creating Layer conv1
I0415 06:15:57.128254 11493 net.cpp:434] conv1 <- data
I0415 06:15:57.128260 11493 net.cpp:408] conv1 -> conv1
I0415 06:15:58.463394 11493 net.cpp:150] Setting up conv1
I0415 06:15:58.463441 11493 net.cpp:157] Top shape: 1024 100 42 42 (180633600)
I0415 06:15:58.463445 11493 net.cpp:165] Memory required for data: 750862336
I0415 06:15:58.463469 11493 layer_factory.hpp:77] Creating layer conv1_relu
I0415 06:15:58.463482 11493 net.cpp:100] Creating Layer conv1_relu
I0415 06:15:58.463486 11493 net.cpp:434] conv1_relu <- conv1
I0415 06:15:58.463493 11493 net.cpp:395] conv1_relu -> conv1 (in-place)
I0415 06:15:58.463734 11493 net.cpp:150] Setting up conv1_relu
I0415 06:15:58.463747 11493 net.cpp:157] Top shape: 1024 100 42 42 (180633600)
I0415 06:15:58.463752 11493 net.cpp:165] Memory required for data: 1473396736
I0415 06:15:58.463754 11493 layer_factory.hpp:77] Creating layer pool1
I0415 06:15:58.463764 11493 net.cpp:100] Creating Layer pool1
I0415 06:15:58.463769 11493 net.cpp:434] pool1 <- conv1
I0415 06:15:58.463774 11493 net.cpp:408] pool1 -> pool1
I0415 06:15:58.463843 11493 net.cpp:150] Setting up pool1
I0415 06:15:58.463852 11493 net.cpp:157] Top shape: 1024 100 21 21 (45158400)
I0415 06:15:58.463856 11493 net.cpp:165] Memory required for data: 1654030336
I0415 06:15:58.463860 11493 layer_factory.hpp:77] Creating layer conv2
I0415 06:15:58.463871 11493 net.cpp:100] Creating Layer conv2
I0415 06:15:58.463874 11493 net.cpp:434] conv2 <- pool1
I0415 06:15:58.463913 11493 net.cpp:408] conv2 -> conv2
I0415 06:15:58.471535 11493 net.cpp:150] Setting up conv2
I0415 06:15:58.471560 11493 net.cpp:157] Top shape: 1024 150 18 18 (49766400)
I0415 06:15:58.471565 11493 net.cpp:165] Memory required for data: 1853095936
I0415 06:15:58.471577 11493 layer_factory.hpp:77] Creating layer conv2_relu
I0415 06:15:58.471588 11493 net.cpp:100] Creating Layer conv2_relu
I0415 06:15:58.471595 11493 net.cpp:434] conv2_relu <- conv2
I0415 06:15:58.471601 11493 net.cpp:395] conv2_relu -> conv2 (in-place)
I0415 06:15:58.473378 11493 net.cpp:150] Setting up conv2_relu
I0415 06:15:58.473399 11493 net.cpp:157] Top shape: 1024 150 18 18 (49766400)
I0415 06:15:58.473403 11493 net.cpp:165] Memory required for data: 2052161536
I0415 06:15:58.473407 11493 layer_factory.hpp:77] Creating layer pool2
I0415 06:15:58.473417 11493 net.cpp:100] Creating Layer pool2
I0415 06:15:58.473422 11493 net.cpp:434] pool2 <- conv2
I0415 06:15:58.473428 11493 net.cpp:408] pool2 -> pool2
I0415 06:15:58.473486 11493 net.cpp:150] Setting up pool2
I0415 06:15:58.473495 11493 net.cpp:157] Top shape: 1024 150 9 9 (12441600)
I0415 06:15:58.473500 11493 net.cpp:165] Memory required for data: 2101927936
I0415 06:15:58.473502 11493 layer_factory.hpp:77] Creating layer conv3
I0415 06:15:58.473541 11493 net.cpp:100] Creating Layer conv3
I0415 06:15:58.473547 11493 net.cpp:434] conv3 <- pool2
I0415 06:15:58.473553 11493 net.cpp:408] conv3 -> conv3
I0415 06:15:58.480410 11493 net.cpp:150] Setting up conv3
I0415 06:15:58.480442 11493 net.cpp:157] Top shape: 1024 250 6 6 (9216000)
I0415 06:15:58.480445 11493 net.cpp:165] Memory required for data: 2138791936
I0415 06:15:58.480459 11493 layer_factory.hpp:77] Creating layer conv3_relu
I0415 06:15:58.480470 11493 net.cpp:100] Creating Layer conv3_relu
I0415 06:15:58.480475 11493 net.cpp:434] conv3_relu <- conv3
I0415 06:15:58.480482 11493 net.cpp:395] conv3_relu -> conv3 (in-place)
I0415 06:15:58.482020 11493 net.cpp:150] Setting up conv3_relu
I0415 06:15:58.482038 11493 net.cpp:157] Top shape: 1024 250 6 6 (9216000)
I0415 06:15:58.482054 11493 net.cpp:165] Memory required for data: 2175655936
I0415 06:15:58.482059 11493 layer_factory.hpp:77] Creating layer pool3
I0415 06:15:58.482067 11493 net.cpp:100] Creating Layer pool3
I0415 06:15:58.482071 11493 net.cpp:434] pool3 <- conv3
I0415 06:15:58.482080 11493 net.cpp:408] pool3 -> pool3
I0415 06:15:58.482137 11493 net.cpp:150] Setting up pool3
I0415 06:15:58.482146 11493 net.cpp:157] Top shape: 1024 250 3 3 (2304000)
I0415 06:15:58.482151 11493 net.cpp:165] Memory required for data: 2184871936
I0415 06:15:58.482153 11493 layer_factory.hpp:77] Creating layer fc4_300
I0415 06:15:58.482161 11493 net.cpp:100] Creating Layer fc4_300
I0415 06:15:58.482167 11493 net.cpp:434] fc4_300 <- pool3
I0415 06:15:58.482172 11493 net.cpp:408] fc4_300 -> fc4_300
I0415 06:15:58.487787 11493 net.cpp:150] Setting up fc4_300
I0415 06:15:58.487815 11493 net.cpp:157] Top shape: 1024 300 (307200)
I0415 06:15:58.487818 11493 net.cpp:165] Memory required for data: 2186100736
I0415 06:15:58.487828 11493 layer_factory.hpp:77] Creating layer fc4_relu
I0415 06:15:58.487839 11493 net.cpp:100] Creating Layer fc4_relu
I0415 06:15:58.487844 11493 net.cpp:434] fc4_relu <- fc4_300
I0415 06:15:58.487851 11493 net.cpp:395] fc4_relu -> fc4_300 (in-place)
I0415 06:15:58.488096 11493 net.cpp:150] Setting up fc4_relu
I0415 06:15:58.488109 11493 net.cpp:157] Top shape: 1024 300 (307200)
I0415 06:15:58.488112 11493 net.cpp:165] Memory required for data: 2187329536
I0415 06:15:58.488116 11493 layer_factory.hpp:77] Creating layer drop4
I0415 06:15:58.488123 11493 net.cpp:100] Creating Layer drop4
I0415 06:15:58.488127 11493 net.cpp:434] drop4 <- fc4_300
I0415 06:15:58.488134 11493 net.cpp:395] drop4 -> fc4_300 (in-place)
I0415 06:15:58.488167 11493 net.cpp:150] Setting up drop4
I0415 06:15:58.488174 11493 net.cpp:157] Top shape: 1024 300 (307200)
I0415 06:15:58.488178 11493 net.cpp:165] Memory required for data: 2188558336
I0415 06:15:58.488180 11493 layer_factory.hpp:77] Creating layer fc5_67
I0415 06:15:58.488189 11493 net.cpp:100] Creating Layer fc5_67
I0415 06:15:58.488193 11493 net.cpp:434] fc5_67 <- fc4_300
I0415 06:15:58.488198 11493 net.cpp:408] fc5_67 -> fc5_classes
I0415 06:15:58.489800 11493 net.cpp:150] Setting up fc5_67
I0415 06:15:58.489815 11493 net.cpp:157] Top shape: 1024 67 (68608)
I0415 06:15:58.489820 11493 net.cpp:165] Memory required for data: 2188832768
I0415 06:15:58.489832 11493 layer_factory.hpp:77] Creating layer fc5_classes_fc5_67_0_split
I0415 06:15:58.489843 11493 net.cpp:100] Creating Layer fc5_classes_fc5_67_0_split
I0415 06:15:58.489848 11493 net.cpp:434] fc5_classes_fc5_67_0_split <- fc5_classes
I0415 06:15:58.489853 11493 net.cpp:408] fc5_classes_fc5_67_0_split -> fc5_classes_fc5_67_0_split_0
I0415 06:15:58.489864 11493 net.cpp:408] fc5_classes_fc5_67_0_split -> fc5_classes_fc5_67_0_split_1
I0415 06:15:58.489872 11493 net.cpp:408] fc5_classes_fc5_67_0_split -> fc5_classes_fc5_67_0_split_2
I0415 06:15:58.489929 11493 net.cpp:150] Setting up fc5_classes_fc5_67_0_split
I0415 06:15:58.489936 11493 net.cpp:157] Top shape: 1024 67 (68608)
I0415 06:15:58.489939 11493 net.cpp:157] Top shape: 1024 67 (68608)
I0415 06:15:58.489943 11493 net.cpp:157] Top shape: 1024 67 (68608)
I0415 06:15:58.489945 11493 net.cpp:165] Memory required for data: 2189656064
I0415 06:15:58.489965 11493 layer_factory.hpp:77] Creating layer softmax
I0415 06:15:58.489977 11493 net.cpp:100] Creating Layer softmax
I0415 06:15:58.489982 11493 net.cpp:434] softmax <- fc5_classes_fc5_67_0_split_0
I0415 06:15:58.489989 11493 net.cpp:408] softmax -> softmax
I0415 06:15:58.490272 11493 net.cpp:150] Setting up softmax
I0415 06:15:58.490285 11493 net.cpp:157] Top shape: 1024 67 (68608)
I0415 06:15:58.490289 11493 net.cpp:165] Memory required for data: 2189930496
I0415 06:15:58.490293 11493 layer_factory.hpp:77] Creating layer loss
I0415 06:15:58.490298 11493 net.cpp:100] Creating Layer loss
I0415 06:15:58.490303 11493 net.cpp:434] loss <- softmax
I0415 06:15:58.490309 11493 net.cpp:434] loss <- label_data_1_split_0
I0415 06:15:58.490315 11493 net.cpp:408] loss -> loss
…
