…
I0528 06:44:29.519248 25067 solver.cpp:81] Creating training net from train_net file: ./Prototxt/experiment_21/RTSD/imajust/trial_3/train.prototxt
I0528 06:44:29.519599 25067 net.cpp:58] Initializing net from parameters: 
state {
  phase: TRAIN
  level: 0
  stage: ""
}
layer {
  name: "data"
  type: "Data"
  top: "data"
  top: "label"
  include {
    phase: TRAIN
  }
  transform_param {
    scale: 0.0039215689
    mirror: false
    crop_size: 48
    mean_value: 119
    mean_value: 113
    mean_value: 113
  }
  data_param {
    source: "../local_data/lmdb/RTSD/imajust/train/lmdb"
    batch_size: 1024
    backend: LMDB
  }
}
layer {
  name: "conv1"
  type: "Convolution"
  bottom: "data"
  top: "conv1"
  convolution_param {
    num_output: 100
    pad: 0
    kernel_size: 7
    group: 1
    stride: 1
    weight_filler {
      type: "xavier"
    }
  }
}
layer {
  name: "conv1_relu"
  type: "ReLU"
  bottom: "conv1"
  top: "conv1"
}
layer {
  name: "pool1"
  type: "Pooling"
  bottom: "conv1"
  top: "pool1"
  pooling_param {
    pool: MAX
    kernel_size: 2
    stride: 2
  }
}
layer {
  name: "conv2"
  type: "Convolution"
  bottom: "pool1"
  top: "conv2"
  convolution_param {
    num_output: 150
    pad: 0
    kernel_size: 4
    group: 1
    stride: 1
    weight_filler {
      type: "xavier"
    }
  }
}
layer {
  name: "conv2_relu"
  type: "ReLU"
  bottom: "conv2"
  top: "conv2"
}
layer {
  name: "pool2"
  type: "Pooling"
  bottom: "conv2"
  top: "pool2"
  pooling_param {
    pool: MAX
    kernel_size: 2
    stride: 2
  }
}
layer {
  name: "conv3"
  type: "Convolution"
  bottom: "pool2"
  top: "conv3"
  convolution_param {
    num_output: 250
    pad: 0
    kernel_size: 4
    group: 1
    stride: 1
    weight_filler {
      type: "xavier"
    }
  }
}
layer {
  name: "conv3_relu"
  type: "ReLU"
  bottom: "conv3"
  top: "conv3"
}
layer {
  name: "pool3"
  type: "Pooling"
  bottom: "conv3"
  top: "pool3"
  pooling_param {
    pool: MAX
    kernel_size: 2
    stride: 2
  }
}
layer {
  name: "fc4_300"
  type: "InnerProduct"
  bottom: "pool3"
  top: "fc4_300"
  inner_product_param {
    num_output: 300
    weight_filler {
      type: "xavier"
    }
  }
}
layer {
  name: "fc4_relu"
  type: "ReLU"
  bottom: "fc4_300"
  top: "fc4_300"
}
layer {
  name: "fc5_116"
  type: "InnerProduct"
  bottom: "fc4_300"
  top: "fc5_classes"
  inner_product_param {
    num_output: 116
    weight_filler {
      type: "xavier"
    }
  }
}
layer {
  name: "softmax"
  type: "Softmax"
  bottom: "fc5_classes"
  top: "softmax"
}
layer {
  name: "loss"
  type: "MultinomialLogisticLoss"
  bottom: "softmax"
  bottom: "label"
  top: "loss"
}
layer {
  name: "accuracy_1"
  type: "Accuracy"
  bottom: "fc5_classes"
  bottom: "label"
  top: "accuracy_1"
  accuracy_param {
    top_k: 1
  }
}
layer {
  name: "accuracy_5"
  type: "Accuracy"
  bottom: "fc5_classes"
  bottom: "label"
  top: "accuracy_5"
  accuracy_param {
    top_k: 5
  }
}
layer {
  name: "silence"
  type: "Silence"
  bottom: "accuracy_1"
  bottom: "accuracy_5"
}
I0528 06:44:29.519695 25067 layer_factory.hpp:77] Creating layer data
I0528 06:44:29.520442 25067 net.cpp:100] Creating Layer data
I0528 06:44:29.520455 25067 net.cpp:408] data -> data
I0528 06:44:29.520499 25067 net.cpp:408] data -> label
I0528 06:44:29.521406 25114 db_lmdb.cpp:35] Opened lmdb ../local_data/lmdb/RTSD/imajust/train/lmdb
I0528 06:44:29.538872 25067 data_layer.cpp:41] output data size: 1024,3,48,48
I0528 06:44:29.589128 25067 net.cpp:150] Setting up data
I0528 06:44:29.589181 25067 net.cpp:157] Top shape: 1024 3 48 48 (7077888)
I0528 06:44:29.589187 25067 net.cpp:157] Top shape: 1024 (1024)
I0528 06:44:29.589191 25067 net.cpp:165] Memory required for data: 28315648
I0528 06:44:29.589200 25067 layer_factory.hpp:77] Creating layer label_data_1_split
I0528 06:44:29.589212 25067 net.cpp:100] Creating Layer label_data_1_split
I0528 06:44:29.589218 25067 net.cpp:434] label_data_1_split <- label
I0528 06:44:29.589229 25067 net.cpp:408] label_data_1_split -> label_data_1_split_0
I0528 06:44:29.589239 25067 net.cpp:408] label_data_1_split -> label_data_1_split_1
I0528 06:44:29.589249 25067 net.cpp:408] label_data_1_split -> label_data_1_split_2
I0528 06:44:29.589296 25067 net.cpp:150] Setting up label_data_1_split
I0528 06:44:29.589305 25067 net.cpp:157] Top shape: 1024 (1024)
I0528 06:44:29.589310 25067 net.cpp:157] Top shape: 1024 (1024)
I0528 06:44:29.589314 25067 net.cpp:157] Top shape: 1024 (1024)
I0528 06:44:29.589319 25067 net.cpp:165] Memory required for data: 28327936
I0528 06:44:29.589323 25067 layer_factory.hpp:77] Creating layer conv1
I0528 06:44:29.589337 25067 net.cpp:100] Creating Layer conv1
I0528 06:44:29.589344 25067 net.cpp:434] conv1 <- data
I0528 06:44:29.589349 25067 net.cpp:408] conv1 -> conv1
I0528 06:44:30.948216 25067 net.cpp:150] Setting up conv1
I0528 06:44:30.948243 25067 net.cpp:157] Top shape: 1024 100 42 42 (180633600)
I0528 06:44:30.948248 25067 net.cpp:165] Memory required for data: 750862336
I0528 06:44:30.948266 25067 layer_factory.hpp:77] Creating layer conv1_relu
I0528 06:44:30.948276 25067 net.cpp:100] Creating Layer conv1_relu
I0528 06:44:30.948282 25067 net.cpp:434] conv1_relu <- conv1
I0528 06:44:30.948288 25067 net.cpp:395] conv1_relu -> conv1 (in-place)
I0528 06:44:30.948431 25067 net.cpp:150] Setting up conv1_relu
I0528 06:44:30.948441 25067 net.cpp:157] Top shape: 1024 100 42 42 (180633600)
I0528 06:44:30.948446 25067 net.cpp:165] Memory required for data: 1473396736
I0528 06:44:30.948451 25067 layer_factory.hpp:77] Creating layer pool1
I0528 06:44:30.948459 25067 net.cpp:100] Creating Layer pool1
I0528 06:44:30.948463 25067 net.cpp:434] pool1 <- conv1
I0528 06:44:30.948469 25067 net.cpp:408] pool1 -> pool1
I0528 06:44:30.948508 25067 net.cpp:150] Setting up pool1
I0528 06:44:30.948516 25067 net.cpp:157] Top shape: 1024 100 21 21 (45158400)
I0528 06:44:30.948519 25067 net.cpp:165] Memory required for data: 1654030336
I0528 06:44:30.948523 25067 layer_factory.hpp:77] Creating layer conv2
I0528 06:44:30.948534 25067 net.cpp:100] Creating Layer conv2
I0528 06:44:30.948539 25067 net.cpp:434] conv2 <- pool1
I0528 06:44:30.948544 25067 net.cpp:408] conv2 -> conv2
I0528 06:44:30.958588 25067 net.cpp:150] Setting up conv2
I0528 06:44:30.958608 25067 net.cpp:157] Top shape: 1024 150 18 18 (49766400)
I0528 06:44:30.958612 25067 net.cpp:165] Memory required for data: 1853095936
I0528 06:44:30.958621 25067 layer_factory.hpp:77] Creating layer conv2_relu
I0528 06:44:30.958629 25067 net.cpp:100] Creating Layer conv2_relu
I0528 06:44:30.958634 25067 net.cpp:434] conv2_relu <- conv2
I0528 06:44:30.958642 25067 net.cpp:395] conv2_relu -> conv2 (in-place)
I0528 06:44:30.958773 25067 net.cpp:150] Setting up conv2_relu
I0528 06:44:30.958784 25067 net.cpp:157] Top shape: 1024 150 18 18 (49766400)
I0528 06:44:30.958788 25067 net.cpp:165] Memory required for data: 2052161536
I0528 06:44:30.958793 25067 layer_factory.hpp:77] Creating layer pool2
I0528 06:44:30.958801 25067 net.cpp:100] Creating Layer pool2
I0528 06:44:30.958804 25067 net.cpp:434] pool2 <- conv2
I0528 06:44:30.958811 25067 net.cpp:408] pool2 -> pool2
I0528 06:44:30.958847 25067 net.cpp:150] Setting up pool2
I0528 06:44:30.958855 25067 net.cpp:157] Top shape: 1024 150 9 9 (12441600)
I0528 06:44:30.958859 25067 net.cpp:165] Memory required for data: 2101927936
I0528 06:44:30.958863 25067 layer_factory.hpp:77] Creating layer conv3
I0528 06:44:30.958875 25067 net.cpp:100] Creating Layer conv3
I0528 06:44:30.958879 25067 net.cpp:434] conv3 <- pool2
I0528 06:44:30.958884 25067 net.cpp:408] conv3 -> conv3
I0528 06:44:30.973850 25067 net.cpp:150] Setting up conv3
I0528 06:44:30.973866 25067 net.cpp:157] Top shape: 1024 250 6 6 (9216000)
I0528 06:44:30.973871 25067 net.cpp:165] Memory required for data: 2138791936
I0528 06:44:30.973882 25067 layer_factory.hpp:77] Creating layer conv3_relu
I0528 06:44:30.973891 25067 net.cpp:100] Creating Layer conv3_relu
I0528 06:44:30.973896 25067 net.cpp:434] conv3_relu <- conv3
I0528 06:44:30.973902 25067 net.cpp:395] conv3_relu -> conv3 (in-place)
I0528 06:44:30.975172 25067 net.cpp:150] Setting up conv3_relu
I0528 06:44:30.975186 25067 net.cpp:157] Top shape: 1024 250 6 6 (9216000)
I0528 06:44:30.975191 25067 net.cpp:165] Memory required for data: 2175655936
I0528 06:44:30.975195 25067 layer_factory.hpp:77] Creating layer pool3
I0528 06:44:30.975203 25067 net.cpp:100] Creating Layer pool3
I0528 06:44:30.975208 25067 net.cpp:434] pool3 <- conv3
I0528 06:44:30.975214 25067 net.cpp:408] pool3 -> pool3
I0528 06:44:30.975250 25067 net.cpp:150] Setting up pool3
I0528 06:44:30.975258 25067 net.cpp:157] Top shape: 1024 250 3 3 (2304000)
I0528 06:44:30.975262 25067 net.cpp:165] Memory required for data: 2184871936
I0528 06:44:30.975266 25067 layer_factory.hpp:77] Creating layer fc4_300
I0528 06:44:30.975275 25067 net.cpp:100] Creating Layer fc4_300
I0528 06:44:30.975278 25067 net.cpp:434] fc4_300 <- pool3
I0528 06:44:30.975284 25067 net.cpp:408] fc4_300 -> fc4_300
I0528 06:44:30.979665 25067 net.cpp:150] Setting up fc4_300
I0528 06:44:30.979682 25067 net.cpp:157] Top shape: 1024 300 (307200)
I0528 06:44:30.979687 25067 net.cpp:165] Memory required for data: 2186100736
I0528 06:44:30.979694 25067 layer_factory.hpp:77] Creating layer fc4_relu
I0528 06:44:30.979701 25067 net.cpp:100] Creating Layer fc4_relu
I0528 06:44:30.979706 25067 net.cpp:434] fc4_relu <- fc4_300
I0528 06:44:30.979712 25067 net.cpp:395] fc4_relu -> fc4_300 (in-place)
I0528 06:44:30.979848 25067 net.cpp:150] Setting up fc4_relu
I0528 06:44:30.979864 25067 net.cpp:157] Top shape: 1024 300 (307200)
I0528 06:44:30.979868 25067 net.cpp:165] Memory required for data: 2187329536
I0528 06:44:30.979872 25067 layer_factory.hpp:77] Creating layer fc5_116
I0528 06:44:30.979879 25067 net.cpp:100] Creating Layer fc5_116
I0528 06:44:30.979883 25067 net.cpp:434] fc5_116 <- fc4_300
I0528 06:44:30.979889 25067 net.cpp:408] fc5_116 -> fc5_classes
I0528 06:44:30.980825 25067 net.cpp:150] Setting up fc5_116
I0528 06:44:30.980839 25067 net.cpp:157] Top shape: 1024 116 (118784)
I0528 06:44:30.980844 25067 net.cpp:165] Memory required for data: 2187804672
I0528 06:44:30.980854 25067 layer_factory.hpp:77] Creating layer fc5_classes_fc5_116_0_split
I0528 06:44:30.980861 25067 net.cpp:100] Creating Layer fc5_classes_fc5_116_0_split
I0528 06:44:30.980866 25067 net.cpp:434] fc5_classes_fc5_116_0_split <- fc5_classes
I0528 06:44:30.980873 25067 net.cpp:408] fc5_classes_fc5_116_0_split -> fc5_classes_fc5_116_0_split_0
I0528 06:44:30.980881 25067 net.cpp:408] fc5_classes_fc5_116_0_split -> fc5_classes_fc5_116_0_split_1
I0528 06:44:30.980888 25067 net.cpp:408] fc5_classes_fc5_116_0_split -> fc5_classes_fc5_116_0_split_2
I0528 06:44:30.980928 25067 net.cpp:150] Setting up fc5_classes_fc5_116_0_split
I0528 06:44:30.980938 25067 net.cpp:157] Top shape: 1024 116 (118784)
I0528 06:44:30.980943 25067 net.cpp:157] Top shape: 1024 116 (118784)
I0528 06:44:30.980947 25067 net.cpp:157] Top shape: 1024 116 (118784)
I0528 06:44:30.980952 25067 net.cpp:165] Memory required for data: 2189230080
I0528 06:44:30.980955 25067 layer_factory.hpp:77] Creating layer softmax
I0528 06:44:30.980962 25067 net.cpp:100] Creating Layer softmax
I0528 06:44:30.980965 25067 net.cpp:434] softmax <- fc5_classes_fc5_116_0_split_0
I0528 06:44:30.980970 25067 net.cpp:408] softmax -> softmax
I0528 06:44:30.981154 25067 net.cpp:150] Setting up softmax
I0528 06:44:30.981165 25067 net.cpp:157] Top shape: 1024 116 (118784)
I0528 06:44:30.981169 25067 net.cpp:165] Memory required for data: 2189705216
I0528 06:44:30.981173 25067 layer_factory.hpp:77] Creating layer loss
I0528 06:44:30.981192 25067 net.cpp:100] Creating Layer loss
I0528 06:44:30.981197 25067 net.cpp:434] loss <- softmax
I0528 06:44:30.981204 25067 net.cpp:434] loss <- label_data_1_split_0
I0528 06:44:30.981209 25067 net.cpp:408] loss -> loss
…
