…
I0508 09:53:13.810519 26903 solver.cpp:93] Creating training net from train_net file: ./Prototxt/experiment_15/RTSD/imajust/trial_3/train.prototxt
I0508 09:53:13.811393 26903 net.cpp:58] Initializing net from parameters: 
state {
  phase: TRAIN
  level: 0
  stage: ""
}
layer {
  name: "data"
  type: "Data"
  top: "data"
  top: "label"
  include {
    phase: TRAIN
  }
  transform_param {
    scale: 0.0039215689
    mirror: false
    crop_size: 48
    mean_value: 119
    mean_value: 113
    mean_value: 114
  }
  data_param {
    source: "../local_data/lmdb/RTSD/imajust/train/lmdb"
    batch_size: 1024
    backend: LMDB
  }
}
layer {
  name: "conv1"
  type: "Convolution"
  bottom: "data"
  top: "conv1"
  convolution_param {
    num_output: 100
    pad: 0
    kernel_size: 7
    group: 1
    stride: 1
    weight_filler {
      type: "xavier"
    }
  }
}
layer {
  name: "conv1_prescale"
  type: "Scale"
  bottom: "conv1"
  top: "conv1"
  param {
    lr_mult: 0
    decay_mult: 0
  }
  scale_param {
    filler {
      value: 0.6666
    }
    bias_term: false
  }
}
layer {
  name: "conv1_sTanH"
  type: "TanH"
  bottom: "conv1"
  top: "conv1"
}
layer {
  name: "conv1_postscale"
  type: "Scale"
  bottom: "conv1"
  top: "conv1"
  param {
    lr_mult: 0
    decay_mult: 0
  }
  scale_param {
    filler {
      value: 1.7159
    }
    bias_term: false
  }
}
layer {
  name: "pool1"
  type: "Pooling"
  bottom: "conv1"
  top: "pool1"
  pooling_param {
    pool: MAX
    kernel_size: 2
    stride: 2
  }
}
layer {
  name: "conv2"
  type: "Convolution"
  bottom: "pool1"
  top: "conv2"
  convolution_param {
    num_output: 150
    pad: 0
    kernel_size: 4
    group: 2
    stride: 1
    weight_filler {
      type: "xavier"
    }
  }
}
layer {
  name: "conv2_prescale"
  type: "Scale"
  bottom: "conv2"
  top: "conv2"
  param {
    lr_mult: 0
    decay_mult: 0
  }
  scale_param {
    filler {
      value: 0.6666
    }
    bias_term: false
  }
}
layer {
  name: "conv2_sTanH"
  type: "TanH"
  bottom: "conv2"
  top: "conv2"
}
layer {
  name: "conv2_postscale"
  type: "Scale"
  bottom: "conv2"
  top: "conv2"
  param {
    lr_mult: 0
    decay_mult: 0
  }
  scale_param {
    filler {
      value: 1.7159
    }
    bias_term: false
  }
}
layer {
  name: "pool2"
  type: "Pooling"
  bottom: "conv2"
  top: "pool2"
  pooling_param {
    pool: MAX
    kernel_size: 2
    stride: 2
  }
}
layer {
  name: "conv3"
  type: "Convolution"
  bottom: "pool2"
  top: "conv3"
  convolution_param {
    num_output: 250
    pad: 0
    kernel_size: 4
    group: 2
    stride: 1
    weight_filler {
      type: "xavier"
    }
  }
}
layer {
  name: "conv3_prescale"
  type: "Scale"
  bottom: "conv3"
  top: "conv3"
  param {
    lr_mult: 0
    decay_mult: 0
  }
  scale_param {
    filler {
      value: 0.6666
    }
    bias_term: false
  }
}
layer {
  name: "conv3_sTanH"
  type: "TanH"
  bottom: "conv3"
  top: "conv3"
}
layer {
  name: "conv3_postscale"
  type: "Scale"
  bottom: "conv3"
  top: "conv3"
  param {
    lr_mult: 0
    decay_mult: 0
  }
  scale_param {
    filler {
      value: 1.7159
    }
    bias_term: false
  }
}
layer {
  name: "pool3"
  type: "Pooling"
  bottom: "conv3"
  top: "pool3"
  pooling_param {
    pool: MAX
    kernel_size: 2
    stride: 2
  }
}
layer {
  name: "fc4_300"
  type: "InnerProduct"
  bottom: "pool3"
  top: "fc4_300"
  inner_product_param {
    num_output: 300
    weight_filler {
      type: "xavier"
    }
  }
}
layer {
  name: "fc4_prescale"
  type: "Scale"
  bottom: "fc4_300"
  top: "fc4_300"
  param {
    lr_mult: 0
    decay_mult: 0
  }
  scale_param {
    filler {
      value: 0.6666
    }
    bias_term: false
  }
}
layer {
  name: "fc4_sTanH"
  type: "TanH"
  bottom: "fc4_300"
  top: "fc4_300"
}
layer {
  name: "fc4_postscale"
  type: "Scale"
  bottom: "fc4_300"
  top: "fc4_300"
  param {
    lr_mult: 0
    decay_mult: 0
  }
  scale_param {
    filler {
      value: 1.7159
    }
    bias_term: false
  }
}
layer {
  name: "fc5_116"
  type: "InnerProduct"
  bottom: "fc4_300"
  top: "fc5_classes"
  inner_product_param {
    num_output: 116
    weight_filler {
      type: "xavier"
    }
  }
}
layer {
  name: "softmax"
  type: "Softmax"
  bottom: "fc5_classes"
  top: "softmax"
}
layer {
  name: "loss"
  type: "MultinomialLogisticLoss"
  bottom: "softmax"
  bottom: "label"
  top: "loss"
}
layer {
  name: "accuracy_1"
  type: "Accuracy"
  bottom: "fc5_classes"
  bottom: "label"
  top: "accuracy_1"
  accuracy_param {
    top_k: 1
  }
}
layer {
  name: "accuracy_5"
  type: "Accuracy"
  bottom: "fc5_classes"
  bottom: "label"
  top: "accuracy_5"
  accuracy_param {
    top_k: 5
  }
}
layer {
  name: "silence"
  type: "Silence"
  bottom: "accuracy_1"
  bottom: "accuracy_5"
}
I0508 09:53:13.811676 26903 layer_factory.hpp:77] Creating layer data
I0508 09:53:13.813614 26903 net.cpp:100] Creating Layer data
I0508 09:53:13.813642 26903 net.cpp:408] data -> data
I0508 09:53:13.813683 26903 net.cpp:408] data -> label
I0508 09:53:13.822386 27042 db_lmdb.cpp:35] Opened lmdb ../local_data/lmdb/RTSD/imajust/train/lmdb
I0508 09:53:13.851539 26903 data_layer.cpp:41] output data size: 1024,3,48,48
I0508 09:53:13.924538 26903 net.cpp:150] Setting up data
I0508 09:53:13.924569 26903 net.cpp:157] Top shape: 1024 3 48 48 (7077888)
I0508 09:53:13.924577 26903 net.cpp:157] Top shape: 1024 (1024)
I0508 09:53:13.924582 26903 net.cpp:165] Memory required for data: 28315648
I0508 09:53:13.924592 26903 layer_factory.hpp:77] Creating layer label_data_1_split
I0508 09:53:13.924605 26903 net.cpp:100] Creating Layer label_data_1_split
I0508 09:53:13.924612 26903 net.cpp:434] label_data_1_split <- label
I0508 09:53:13.924625 26903 net.cpp:408] label_data_1_split -> label_data_1_split_0
I0508 09:53:13.924639 26903 net.cpp:408] label_data_1_split -> label_data_1_split_1
I0508 09:53:13.924651 26903 net.cpp:408] label_data_1_split -> label_data_1_split_2
I0508 09:53:13.924720 26903 net.cpp:150] Setting up label_data_1_split
I0508 09:53:13.924729 26903 net.cpp:157] Top shape: 1024 (1024)
I0508 09:53:13.924732 26903 net.cpp:157] Top shape: 1024 (1024)
I0508 09:53:13.924741 26903 net.cpp:157] Top shape: 1024 (1024)
I0508 09:53:13.924742 26903 net.cpp:165] Memory required for data: 28327936
I0508 09:53:13.924746 26903 layer_factory.hpp:77] Creating layer conv1
I0508 09:53:13.924767 26903 net.cpp:100] Creating Layer conv1
I0508 09:53:13.924772 26903 net.cpp:434] conv1 <- data
I0508 09:53:13.924780 26903 net.cpp:408] conv1 -> conv1
I0508 09:53:14.343145 26903 net.cpp:150] Setting up conv1
I0508 09:53:14.343181 26903 net.cpp:157] Top shape: 1024 100 42 42 (180633600)
I0508 09:53:14.343188 26903 net.cpp:165] Memory required for data: 750862336
I0508 09:53:14.343216 26903 layer_factory.hpp:77] Creating layer conv1_prescale
I0508 09:53:14.343235 26903 net.cpp:100] Creating Layer conv1_prescale
I0508 09:53:14.343242 26903 net.cpp:434] conv1_prescale <- conv1
I0508 09:53:14.343252 26903 net.cpp:395] conv1_prescale -> conv1 (in-place)
I0508 09:53:14.343413 26903 net.cpp:150] Setting up conv1_prescale
I0508 09:53:14.343425 26903 net.cpp:157] Top shape: 1024 100 42 42 (180633600)
I0508 09:53:14.343431 26903 net.cpp:165] Memory required for data: 1473396736
I0508 09:53:14.343441 26903 layer_factory.hpp:77] Creating layer conv1_sTanH
I0508 09:53:14.343453 26903 net.cpp:100] Creating Layer conv1_sTanH
I0508 09:53:14.343459 26903 net.cpp:434] conv1_sTanH <- conv1
I0508 09:53:14.343466 26903 net.cpp:395] conv1_sTanH -> conv1 (in-place)
I0508 09:53:14.343765 26903 net.cpp:150] Setting up conv1_sTanH
I0508 09:53:14.343780 26903 net.cpp:157] Top shape: 1024 100 42 42 (180633600)
I0508 09:53:14.343813 26903 net.cpp:165] Memory required for data: 2195931136
I0508 09:53:14.343821 26903 layer_factory.hpp:77] Creating layer conv1_postscale
I0508 09:53:14.343832 26903 net.cpp:100] Creating Layer conv1_postscale
I0508 09:53:14.343839 26903 net.cpp:434] conv1_postscale <- conv1
I0508 09:53:14.343847 26903 net.cpp:395] conv1_postscale -> conv1 (in-place)
I0508 09:53:14.344024 26903 net.cpp:150] Setting up conv1_postscale
I0508 09:53:14.344039 26903 net.cpp:157] Top shape: 1024 100 42 42 (180633600)
I0508 09:53:14.344045 26903 net.cpp:165] Memory required for data: 2918465536
I0508 09:53:14.344053 26903 layer_factory.hpp:77] Creating layer pool1
I0508 09:53:14.344064 26903 net.cpp:100] Creating Layer pool1
I0508 09:53:14.344070 26903 net.cpp:434] pool1 <- conv1
I0508 09:53:14.344079 26903 net.cpp:408] pool1 -> pool1
I0508 09:53:14.344146 26903 net.cpp:150] Setting up pool1
I0508 09:53:14.344157 26903 net.cpp:157] Top shape: 1024 100 21 21 (45158400)
I0508 09:53:14.344163 26903 net.cpp:165] Memory required for data: 3099099136
I0508 09:53:14.344172 26903 layer_factory.hpp:77] Creating layer conv2
I0508 09:53:14.344187 26903 net.cpp:100] Creating Layer conv2
I0508 09:53:14.344193 26903 net.cpp:434] conv2 <- pool1
I0508 09:53:14.344204 26903 net.cpp:408] conv2 -> conv2
I0508 09:53:14.356462 26903 net.cpp:150] Setting up conv2
I0508 09:53:14.356499 26903 net.cpp:157] Top shape: 1024 150 18 18 (49766400)
I0508 09:53:14.356504 26903 net.cpp:165] Memory required for data: 3298164736
I0508 09:53:14.356519 26903 layer_factory.hpp:77] Creating layer conv2_prescale
I0508 09:53:14.356540 26903 net.cpp:100] Creating Layer conv2_prescale
I0508 09:53:14.356549 26903 net.cpp:434] conv2_prescale <- conv2
I0508 09:53:14.356557 26903 net.cpp:395] conv2_prescale -> conv2 (in-place)
I0508 09:53:14.356711 26903 net.cpp:150] Setting up conv2_prescale
I0508 09:53:14.356724 26903 net.cpp:157] Top shape: 1024 150 18 18 (49766400)
I0508 09:53:14.356729 26903 net.cpp:165] Memory required for data: 3497230336
I0508 09:53:14.356735 26903 layer_factory.hpp:77] Creating layer conv2_sTanH
I0508 09:53:14.356748 26903 net.cpp:100] Creating Layer conv2_sTanH
I0508 09:53:14.356752 26903 net.cpp:434] conv2_sTanH <- conv2
I0508 09:53:14.356763 26903 net.cpp:395] conv2_sTanH -> conv2 (in-place)
I0508 09:53:14.357040 26903 net.cpp:150] Setting up conv2_sTanH
I0508 09:53:14.357055 26903 net.cpp:157] Top shape: 1024 150 18 18 (49766400)
I0508 09:53:14.357061 26903 net.cpp:165] Memory required for data: 3696295936
I0508 09:53:14.357066 26903 layer_factory.hpp:77] Creating layer conv2_postscale
I0508 09:53:14.357077 26903 net.cpp:100] Creating Layer conv2_postscale
I0508 09:53:14.357084 26903 net.cpp:434] conv2_postscale <- conv2
I0508 09:53:14.357094 26903 net.cpp:395] conv2_postscale -> conv2 (in-place)
I0508 09:53:14.357235 26903 net.cpp:150] Setting up conv2_postscale
I0508 09:53:14.357246 26903 net.cpp:157] Top shape: 1024 150 18 18 (49766400)
I0508 09:53:14.357251 26903 net.cpp:165] Memory required for data: 3895361536
I0508 09:53:14.357259 26903 layer_factory.hpp:77] Creating layer pool2
I0508 09:53:14.357270 26903 net.cpp:100] Creating Layer pool2
I0508 09:53:14.357276 26903 net.cpp:434] pool2 <- conv2
I0508 09:53:14.357283 26903 net.cpp:408] pool2 -> pool2
I0508 09:53:14.357349 26903 net.cpp:150] Setting up pool2
I0508 09:53:14.357360 26903 net.cpp:157] Top shape: 1024 150 9 9 (12441600)
I0508 09:53:14.357365 26903 net.cpp:165] Memory required for data: 3945127936
I0508 09:53:14.357369 26903 layer_factory.hpp:77] Creating layer conv3
I0508 09:53:14.357383 26903 net.cpp:100] Creating Layer conv3
I0508 09:53:14.357389 26903 net.cpp:434] conv3 <- pool2
I0508 09:53:14.357399 26903 net.cpp:408] conv3 -> conv3
I0508 09:53:14.366149 26903 net.cpp:150] Setting up conv3
I0508 09:53:14.366173 26903 net.cpp:157] Top shape: 1024 250 6 6 (9216000)
I0508 09:53:14.366178 26903 net.cpp:165] Memory required for data: 3981991936
I0508 09:53:14.366196 26903 layer_factory.hpp:77] Creating layer conv3_prescale
I0508 09:53:14.366230 26903 net.cpp:100] Creating Layer conv3_prescale
I0508 09:53:14.366236 26903 net.cpp:434] conv3_prescale <- conv3
I0508 09:53:14.366246 26903 net.cpp:395] conv3_prescale -> conv3 (in-place)
I0508 09:53:14.366382 26903 net.cpp:150] Setting up conv3_prescale
I0508 09:53:14.366394 26903 net.cpp:157] Top shape: 1024 250 6 6 (9216000)
I0508 09:53:14.366400 26903 net.cpp:165] Memory required for data: 4018855936
I0508 09:53:14.366406 26903 layer_factory.hpp:77] Creating layer conv3_sTanH
I0508 09:53:14.366416 26903 net.cpp:100] Creating Layer conv3_sTanH
I0508 09:53:14.366422 26903 net.cpp:434] conv3_sTanH <- conv3
I0508 09:53:14.366428 26903 net.cpp:395] conv3_sTanH -> conv3 (in-place)
I0508 09:53:14.366689 26903 net.cpp:150] Setting up conv3_sTanH
I0508 09:53:14.366704 26903 net.cpp:157] Top shape: 1024 250 6 6 (9216000)
I0508 09:53:14.366708 26903 net.cpp:165] Memory required for data: 4055719936
I0508 09:53:14.366713 26903 layer_factory.hpp:77] Creating layer conv3_postscale
I0508 09:53:14.366722 26903 net.cpp:100] Creating Layer conv3_postscale
I0508 09:53:14.366727 26903 net.cpp:434] conv3_postscale <- conv3
I0508 09:53:14.366734 26903 net.cpp:395] conv3_postscale -> conv3 (in-place)
I0508 09:53:14.366868 26903 net.cpp:150] Setting up conv3_postscale
I0508 09:53:14.366878 26903 net.cpp:157] Top shape: 1024 250 6 6 (9216000)
I0508 09:53:14.366884 26903 net.cpp:165] Memory required for data: 4092583936
I0508 09:53:14.366890 26903 layer_factory.hpp:77] Creating layer pool3
I0508 09:53:14.366904 26903 net.cpp:100] Creating Layer pool3
I0508 09:53:14.366911 26903 net.cpp:434] pool3 <- conv3
I0508 09:53:14.366919 26903 net.cpp:408] pool3 -> pool3
I0508 09:53:14.366976 26903 net.cpp:150] Setting up pool3
I0508 09:53:14.366986 26903 net.cpp:157] Top shape: 1024 250 3 3 (2304000)
I0508 09:53:14.366992 26903 net.cpp:165] Memory required for data: 4101799936
I0508 09:53:14.366997 26903 layer_factory.hpp:77] Creating layer fc4_300
I0508 09:53:14.367005 26903 net.cpp:100] Creating Layer fc4_300
I0508 09:53:14.367012 26903 net.cpp:434] fc4_300 <- pool3
I0508 09:53:14.367020 26903 net.cpp:408] fc4_300 -> fc4_300
I0508 09:53:14.375202 26903 net.cpp:150] Setting up fc4_300
I0508 09:53:14.375226 26903 net.cpp:157] Top shape: 1024 300 (307200)
I0508 09:53:14.375231 26903 net.cpp:165] Memory required for data: 4103028736
I0508 09:53:14.375241 26903 layer_factory.hpp:77] Creating layer fc4_prescale
I0508 09:53:14.375252 26903 net.cpp:100] Creating Layer fc4_prescale
I0508 09:53:14.375255 26903 net.cpp:434] fc4_prescale <- fc4_300
I0508 09:53:14.375265 26903 net.cpp:395] fc4_prescale -> fc4_300 (in-place)
I0508 09:53:14.375396 26903 net.cpp:150] Setting up fc4_prescale
I0508 09:53:14.375407 26903 net.cpp:157] Top shape: 1024 300 (307200)
I0508 09:53:14.375412 26903 net.cpp:165] Memory required for data: 4104257536
I0508 09:53:14.375419 26903 layer_factory.hpp:77] Creating layer fc4_sTanH
I0508 09:53:14.375428 26903 net.cpp:100] Creating Layer fc4_sTanH
I0508 09:53:14.375433 26903 net.cpp:434] fc4_sTanH <- fc4_300
I0508 09:53:14.375439 26903 net.cpp:395] fc4_sTanH -> fc4_300 (in-place)
I0508 09:53:14.383172 26903 net.cpp:150] Setting up fc4_sTanH
I0508 09:53:14.383208 26903 net.cpp:157] Top shape: 1024 300 (307200)
I0508 09:53:14.383215 26903 net.cpp:165] Memory required for data: 4105486336
I0508 09:53:14.383225 26903 layer_factory.hpp:77] Creating layer fc4_postscale
I0508 09:53:14.383242 26903 net.cpp:100] Creating Layer fc4_postscale
I0508 09:53:14.383250 26903 net.cpp:434] fc4_postscale <- fc4_300
I0508 09:53:14.383265 26903 net.cpp:395] fc4_postscale -> fc4_300 (in-place)
I0508 09:53:14.383455 26903 net.cpp:150] Setting up fc4_postscale
I0508 09:53:14.383473 26903 net.cpp:157] Top shape: 1024 300 (307200)
I0508 09:53:14.383482 26903 net.cpp:165] Memory required for data: 4106715136
I0508 09:53:14.383494 26903 layer_factory.hpp:77] Creating layer fc5_116
I0508 09:53:14.383512 26903 net.cpp:100] Creating Layer fc5_116
I0508 09:53:14.383522 26903 net.cpp:434] fc5_116 <- fc4_300
I0508 09:53:14.383534 26903 net.cpp:408] fc5_116 -> fc5_classes
I0508 09:53:14.391620 26903 net.cpp:150] Setting up fc5_116
I0508 09:53:14.391639 26903 net.cpp:157] Top shape: 1024 116 (118784)
I0508 09:53:14.391644 26903 net.cpp:165] Memory required for data: 4107190272
I0508 09:53:14.391659 26903 layer_factory.hpp:77] Creating layer fc5_classes_fc5_116_0_split
I0508 09:53:14.391669 26903 net.cpp:100] Creating Layer fc5_classes_fc5_116_0_split
I0508 09:53:14.391675 26903 net.cpp:434] fc5_classes_fc5_116_0_split <- fc5_classes
I0508 09:53:14.391682 26903 net.cpp:408] fc5_classes_fc5_116_0_split -> fc5_classes_fc5_116_0_split_0
I0508 09:53:14.391693 26903 net.cpp:408] fc5_classes_fc5_116_0_split -> fc5_classes_fc5_116_0_split_1
I0508 09:53:14.391702 26903 net.cpp:408] fc5_classes_fc5_116_0_split -> fc5_classes_fc5_116_0_split_2
I0508 09:53:14.391770 26903 net.cpp:150] Setting up fc5_classes_fc5_116_0_split
I0508 09:53:14.391780 26903 net.cpp:157] Top shape: 1024 116 (118784)
I0508 09:53:14.391785 26903 net.cpp:157] Top shape: 1024 116 (118784)
I0508 09:53:14.391789 26903 net.cpp:157] Top shape: 1024 116 (118784)
I0508 09:53:14.391793 26903 net.cpp:165] Memory required for data: 4108615680
I0508 09:53:14.391796 26903 layer_factory.hpp:77] Creating layer softmax
I0508 09:53:14.391803 26903 net.cpp:100] Creating Layer softmax
I0508 09:53:14.391808 26903 net.cpp:434] softmax <- fc5_classes_fc5_116_0_split_0
I0508 09:53:14.391815 26903 net.cpp:408] softmax -> softmax
I0508 09:53:14.392148 26903 net.cpp:150] Setting up softmax
I0508 09:53:14.392163 26903 net.cpp:157] Top shape: 1024 116 (118784)
I0508 09:53:14.392166 26903 net.cpp:165] Memory required for data: 4109090816
I0508 09:53:14.392170 26903 layer_factory.hpp:77] Creating layer loss
I0508 09:53:14.392180 26903 net.cpp:100] Creating Layer loss
I0508 09:53:14.392186 26903 net.cpp:434] loss <- softmax
I0508 09:53:14.392192 26903 net.cpp:434] loss <- label_data_1_split_0
I0508 09:53:14.392199 26903 net.cpp:408] loss -> loss
…
