…
I0417 18:23:00.166010  8716 solver.cpp:93] Creating training net from train_net file: ./Prototxt/experiment_11/rtsd-r1/AHE/trial_2/train.prototxt
I0417 18:23:00.166505  8716 net.cpp:58] Initializing net from parameters: 
state {
  phase: TRAIN
  level: 0
  stage: ""
}
layer {
  name: "data"
  type: "Data"
  top: "data"
  top: "label"
  include {
    phase: TRAIN
  }
  transform_param {
    scale: 0.0039215689
    mirror: false
    crop_size: 48
    mean_value: 132
    mean_value: 126
    mean_value: 140
  }
  data_param {
    source: "../local_data/lmdb/rtsd-r1/AHE/train/lmdb"
    batch_size: 1024
    backend: LMDB
  }
}
layer {
  name: "conv1"
  type: "Convolution"
  bottom: "data"
  top: "conv1"
  convolution_param {
    num_output: 100
    pad: 0
    kernel_size: 7
    group: 1
    stride: 1
    weight_filler {
      type: "xavier"
    }
  }
}
layer {
  name: "conv1_prescale"
  type: "Scale"
  bottom: "conv1"
  top: "conv1"
  param {
    lr_mult: 0
    decay_mult: 0
  }
  scale_param {
    filler {
      value: 0.6666
    }
    bias_term: false
  }
}
layer {
  name: "conv1_sTanH"
  type: "TanH"
  bottom: "conv1"
  top: "conv1"
}
layer {
  name: "conv1_postscale"
  type: "Scale"
  bottom: "conv1"
  top: "conv1"
  param {
    lr_mult: 0
    decay_mult: 0
  }
  scale_param {
    filler {
      value: 1.7159
    }
    bias_term: false
  }
}
layer {
  name: "pool1"
  type: "Pooling"
  bottom: "conv1"
  top: "pool1"
  pooling_param {
    pool: MAX
    kernel_size: 2
    stride: 2
  }
}
layer {
  name: "conv2"
  type: "Convolution"
  bottom: "pool1"
  top: "conv2"
  convolution_param {
    num_output: 150
    pad: 0
    kernel_size: 4
    group: 1
    stride: 1
    weight_filler {
      type: "xavier"
    }
  }
}
layer {
  name: "conv2_prescale"
  type: "Scale"
  bottom: "conv2"
  top: "conv2"
  param {
    lr_mult: 0
    decay_mult: 0
  }
  scale_param {
    filler {
      value: 0.6666
    }
    bias_term: false
  }
}
layer {
  name: "conv2_sTanH"
  type: "TanH"
  bottom: "conv2"
  top: "conv2"
}
layer {
  name: "conv2_postscale"
  type: "Scale"
  bottom: "conv2"
  top: "conv2"
  param {
    lr_mult: 0
    decay_mult: 0
  }
  scale_param {
    filler {
      value: 1.7159
    }
    bias_term: false
  }
}
layer {
  name: "pool2"
  type: "Pooling"
  bottom: "conv2"
  top: "pool2"
  pooling_param {
    pool: MAX
    kernel_size: 2
    stride: 2
  }
}
layer {
  name: "conv3"
  type: "Convolution"
  bottom: "pool2"
  top: "conv3"
  convolution_param {
    num_output: 250
    pad: 0
    kernel_size: 4
    group: 1
    stride: 1
    weight_filler {
      type: "xavier"
    }
  }
}
layer {
  name: "conv3_prescale"
  type: "Scale"
  bottom: "conv3"
  top: "conv3"
  param {
    lr_mult: 0
    decay_mult: 0
  }
  scale_param {
    filler {
      value: 0.6666
    }
    bias_term: false
  }
}
layer {
  name: "conv3_sTanH"
  type: "TanH"
  bottom: "conv3"
  top: "conv3"
}
layer {
  name: "conv3_postscale"
  type: "Scale"
  bottom: "conv3"
  top: "conv3"
  param {
    lr_mult: 0
    decay_mult: 0
  }
  scale_param {
    filler {
      value: 1.7159
    }
    bias_term: false
  }
}
layer {
  name: "pool3"
  type: "Pooling"
  bottom: "conv3"
  top: "pool3"
  pooling_param {
    pool: MAX
    kernel_size: 2
    stride: 2
  }
}
layer {
  name: "fc4_300"
  type: "InnerProduct"
  bottom: "pool3"
  top: "fc4_300"
  inner_product_param {
    num_output: 300
    weight_filler {
      type: "xavier"
    }
  }
}
layer {
  name: "fc4_prescale"
  type: "Scale"
  bottom: "fc4_300"
  top: "fc4_300"
  param {
    lr_mult: 0
    decay_mult: 0
  }
  scale_param {
    filler {
      value: 0.6666
    }
    bias_term: false
  }
}
layer {
  name: "fc4_sTanH"
  type: "TanH"
  bottom: "fc4_300"
  top: "fc4_300"
}
layer {
  name: "fc4_postscale"
  type: "Scale"
  bottom: "fc4_300"
  top: "fc4_300"
  param {
    lr_mult: 0
    decay_mult: 0
  }
  scale_param {
    filler {
      value: 1.7159
    }
    bias_term: false
  }
}
layer {
  name: "fc5_67"
  type: "InnerProduct"
  bottom: "fc4_300"
  top: "fc5_classes"
  inner_product_param {
    num_output: 67
    weight_filler {
      type: "xavier"
    }
  }
}
layer {
  name: "softmax"
  type: "Softmax"
  bottom: "fc5_classes"
  top: "softmax"
}
layer {
  name: "loss"
  type: "MultinomialLogisticLoss"
  bottom: "softmax"
  bottom: "label"
  top: "loss"
}
layer {
  name: "accuracy_1"
  type: "Accuracy"
  bottom: "fc5_classes"
  bottom: "label"
  top: "accuracy_1"
  accuracy_param {
    top_k: 1
  }
}
layer {
  name: "accuracy_5"
  type: "Accuracy"
  bottom: "fc5_classes"
  bottom: "label"
  top: "accuracy_5"
  accuracy_param {
    top_k: 5
  }
}
layer {
  name: "silence"
  type: "Silence"
  bottom: "accuracy_1"
  bottom: "accuracy_5"
}
I0417 18:23:00.166663  8716 layer_factory.hpp:77] Creating layer data
I0417 18:23:00.167735  8716 net.cpp:100] Creating Layer data
I0417 18:23:00.167752  8716 net.cpp:408] data -> data
I0417 18:23:00.167774  8716 net.cpp:408] data -> label
I0417 18:23:00.171411  8871 db_lmdb.cpp:35] Opened lmdb ../local_data/lmdb/rtsd-r1/AHE/train/lmdb
I0417 18:23:00.190724  8716 data_layer.cpp:41] output data size: 1024,3,48,48
I0417 18:23:00.264014  8716 net.cpp:150] Setting up data
I0417 18:23:00.264047  8716 net.cpp:157] Top shape: 1024 3 48 48 (7077888)
I0417 18:23:00.264056  8716 net.cpp:157] Top shape: 1024 (1024)
I0417 18:23:00.264061  8716 net.cpp:165] Memory required for data: 28315648
I0417 18:23:00.264075  8716 layer_factory.hpp:77] Creating layer label_data_1_split
I0417 18:23:00.264094  8716 net.cpp:100] Creating Layer label_data_1_split
I0417 18:23:00.264106  8716 net.cpp:434] label_data_1_split <- label
I0417 18:23:00.264124  8716 net.cpp:408] label_data_1_split -> label_data_1_split_0
I0417 18:23:00.264142  8716 net.cpp:408] label_data_1_split -> label_data_1_split_1
I0417 18:23:00.264158  8716 net.cpp:408] label_data_1_split -> label_data_1_split_2
I0417 18:23:00.264253  8716 net.cpp:150] Setting up label_data_1_split
I0417 18:23:00.264266  8716 net.cpp:157] Top shape: 1024 (1024)
I0417 18:23:00.264271  8716 net.cpp:157] Top shape: 1024 (1024)
I0417 18:23:00.264278  8716 net.cpp:157] Top shape: 1024 (1024)
I0417 18:23:00.264283  8716 net.cpp:165] Memory required for data: 28327936
I0417 18:23:00.264289  8716 layer_factory.hpp:77] Creating layer conv1
I0417 18:23:00.264312  8716 net.cpp:100] Creating Layer conv1
I0417 18:23:00.264320  8716 net.cpp:434] conv1 <- data
I0417 18:23:00.264330  8716 net.cpp:408] conv1 -> conv1
I0417 18:23:00.749411  8716 net.cpp:150] Setting up conv1
I0417 18:23:00.749465  8716 net.cpp:157] Top shape: 1024 100 42 42 (180633600)
I0417 18:23:00.749475  8716 net.cpp:165] Memory required for data: 750862336
I0417 18:23:00.749521  8716 layer_factory.hpp:77] Creating layer conv1_prescale
I0417 18:23:00.749548  8716 net.cpp:100] Creating Layer conv1_prescale
I0417 18:23:00.749560  8716 net.cpp:434] conv1_prescale <- conv1
I0417 18:23:00.749578  8716 net.cpp:395] conv1_prescale -> conv1 (in-place)
I0417 18:23:00.749768  8716 net.cpp:150] Setting up conv1_prescale
I0417 18:23:00.749783  8716 net.cpp:157] Top shape: 1024 100 42 42 (180633600)
I0417 18:23:00.749792  8716 net.cpp:165] Memory required for data: 1473396736
I0417 18:23:00.749809  8716 layer_factory.hpp:77] Creating layer conv1_sTanH
I0417 18:23:00.749827  8716 net.cpp:100] Creating Layer conv1_sTanH
I0417 18:23:00.749836  8716 net.cpp:434] conv1_sTanH <- conv1
I0417 18:23:00.749850  8716 net.cpp:395] conv1_sTanH -> conv1 (in-place)
I0417 18:23:00.750241  8716 net.cpp:150] Setting up conv1_sTanH
I0417 18:23:00.750260  8716 net.cpp:157] Top shape: 1024 100 42 42 (180633600)
I0417 18:23:00.750303  8716 net.cpp:165] Memory required for data: 2195931136
I0417 18:23:00.750313  8716 layer_factory.hpp:77] Creating layer conv1_postscale
I0417 18:23:00.750329  8716 net.cpp:100] Creating Layer conv1_postscale
I0417 18:23:00.750339  8716 net.cpp:434] conv1_postscale <- conv1
I0417 18:23:00.750350  8716 net.cpp:395] conv1_postscale -> conv1 (in-place)
I0417 18:23:00.750535  8716 net.cpp:150] Setting up conv1_postscale
I0417 18:23:00.750552  8716 net.cpp:157] Top shape: 1024 100 42 42 (180633600)
I0417 18:23:00.750560  8716 net.cpp:165] Memory required for data: 2918465536
I0417 18:23:00.750572  8716 layer_factory.hpp:77] Creating layer pool1
I0417 18:23:00.750586  8716 net.cpp:100] Creating Layer pool1
I0417 18:23:00.750594  8716 net.cpp:434] pool1 <- conv1
I0417 18:23:00.750608  8716 net.cpp:408] pool1 -> pool1
I0417 18:23:00.750702  8716 net.cpp:150] Setting up pool1
I0417 18:23:00.750718  8716 net.cpp:157] Top shape: 1024 100 21 21 (45158400)
I0417 18:23:00.750725  8716 net.cpp:165] Memory required for data: 3099099136
I0417 18:23:00.750731  8716 layer_factory.hpp:77] Creating layer conv2
I0417 18:23:00.750749  8716 net.cpp:100] Creating Layer conv2
I0417 18:23:00.750759  8716 net.cpp:434] conv2 <- pool1
I0417 18:23:00.750769  8716 net.cpp:408] conv2 -> conv2
I0417 18:23:00.768522  8716 net.cpp:150] Setting up conv2
I0417 18:23:00.768560  8716 net.cpp:157] Top shape: 1024 150 18 18 (49766400)
I0417 18:23:00.768568  8716 net.cpp:165] Memory required for data: 3298164736
I0417 18:23:00.768586  8716 layer_factory.hpp:77] Creating layer conv2_prescale
I0417 18:23:00.768609  8716 net.cpp:100] Creating Layer conv2_prescale
I0417 18:23:00.768615  8716 net.cpp:434] conv2_prescale <- conv2
I0417 18:23:00.768630  8716 net.cpp:395] conv2_prescale -> conv2 (in-place)
I0417 18:23:00.768868  8716 net.cpp:150] Setting up conv2_prescale
I0417 18:23:00.768884  8716 net.cpp:157] Top shape: 1024 150 18 18 (49766400)
I0417 18:23:00.768893  8716 net.cpp:165] Memory required for data: 3497230336
I0417 18:23:00.768900  8716 layer_factory.hpp:77] Creating layer conv2_sTanH
I0417 18:23:00.768914  8716 net.cpp:100] Creating Layer conv2_sTanH
I0417 18:23:00.768923  8716 net.cpp:434] conv2_sTanH <- conv2
I0417 18:23:00.768932  8716 net.cpp:395] conv2_sTanH -> conv2 (in-place)
I0417 18:23:00.770539  8716 net.cpp:150] Setting up conv2_sTanH
I0417 18:23:00.770565  8716 net.cpp:157] Top shape: 1024 150 18 18 (49766400)
I0417 18:23:00.770577  8716 net.cpp:165] Memory required for data: 3696295936
I0417 18:23:00.770587  8716 layer_factory.hpp:77] Creating layer conv2_postscale
I0417 18:23:00.770606  8716 net.cpp:100] Creating Layer conv2_postscale
I0417 18:23:00.770615  8716 net.cpp:434] conv2_postscale <- conv2
I0417 18:23:00.770630  8716 net.cpp:395] conv2_postscale -> conv2 (in-place)
I0417 18:23:00.770836  8716 net.cpp:150] Setting up conv2_postscale
I0417 18:23:00.770853  8716 net.cpp:157] Top shape: 1024 150 18 18 (49766400)
I0417 18:23:00.770860  8716 net.cpp:165] Memory required for data: 3895361536
I0417 18:23:00.770874  8716 layer_factory.hpp:77] Creating layer pool2
I0417 18:23:00.770891  8716 net.cpp:100] Creating Layer pool2
I0417 18:23:00.770900  8716 net.cpp:434] pool2 <- conv2
I0417 18:23:00.770910  8716 net.cpp:408] pool2 -> pool2
I0417 18:23:00.771015  8716 net.cpp:150] Setting up pool2
I0417 18:23:00.771031  8716 net.cpp:157] Top shape: 1024 150 9 9 (12441600)
I0417 18:23:00.771040  8716 net.cpp:165] Memory required for data: 3945127936
I0417 18:23:00.771049  8716 layer_factory.hpp:77] Creating layer conv3
I0417 18:23:00.771071  8716 net.cpp:100] Creating Layer conv3
I0417 18:23:00.771081  8716 net.cpp:434] conv3 <- pool2
I0417 18:23:00.771091  8716 net.cpp:408] conv3 -> conv3
I0417 18:23:00.782168  8716 net.cpp:150] Setting up conv3
I0417 18:23:00.782202  8716 net.cpp:157] Top shape: 1024 250 6 6 (9216000)
I0417 18:23:00.782212  8716 net.cpp:165] Memory required for data: 3981991936
I0417 18:23:00.782238  8716 layer_factory.hpp:77] Creating layer conv3_prescale
I0417 18:23:00.782282  8716 net.cpp:100] Creating Layer conv3_prescale
I0417 18:23:00.782295  8716 net.cpp:434] conv3_prescale <- conv3
I0417 18:23:00.782311  8716 net.cpp:395] conv3_prescale -> conv3 (in-place)
I0417 18:23:00.782531  8716 net.cpp:150] Setting up conv3_prescale
I0417 18:23:00.782555  8716 net.cpp:157] Top shape: 1024 250 6 6 (9216000)
I0417 18:23:00.782563  8716 net.cpp:165] Memory required for data: 4018855936
I0417 18:23:00.782577  8716 layer_factory.hpp:77] Creating layer conv3_sTanH
I0417 18:23:00.782593  8716 net.cpp:100] Creating Layer conv3_sTanH
I0417 18:23:00.782600  8716 net.cpp:434] conv3_sTanH <- conv3
I0417 18:23:00.782613  8716 net.cpp:395] conv3_sTanH -> conv3 (in-place)
I0417 18:23:00.784036  8716 net.cpp:150] Setting up conv3_sTanH
I0417 18:23:00.784072  8716 net.cpp:157] Top shape: 1024 250 6 6 (9216000)
I0417 18:23:00.784082  8716 net.cpp:165] Memory required for data: 4055719936
I0417 18:23:00.784093  8716 layer_factory.hpp:77] Creating layer conv3_postscale
I0417 18:23:00.784111  8716 net.cpp:100] Creating Layer conv3_postscale
I0417 18:23:00.784121  8716 net.cpp:434] conv3_postscale <- conv3
I0417 18:23:00.784138  8716 net.cpp:395] conv3_postscale -> conv3 (in-place)
I0417 18:23:00.784349  8716 net.cpp:150] Setting up conv3_postscale
I0417 18:23:00.784364  8716 net.cpp:157] Top shape: 1024 250 6 6 (9216000)
I0417 18:23:00.784368  8716 net.cpp:165] Memory required for data: 4092583936
I0417 18:23:00.784377  8716 layer_factory.hpp:77] Creating layer pool3
I0417 18:23:00.784404  8716 net.cpp:100] Creating Layer pool3
I0417 18:23:00.784413  8716 net.cpp:434] pool3 <- conv3
I0417 18:23:00.784425  8716 net.cpp:408] pool3 -> pool3
I0417 18:23:00.784517  8716 net.cpp:150] Setting up pool3
I0417 18:23:00.784535  8716 net.cpp:157] Top shape: 1024 250 3 3 (2304000)
I0417 18:23:00.784544  8716 net.cpp:165] Memory required for data: 4101799936
I0417 18:23:00.784553  8716 layer_factory.hpp:77] Creating layer fc4_300
I0417 18:23:00.784569  8716 net.cpp:100] Creating Layer fc4_300
I0417 18:23:00.784579  8716 net.cpp:434] fc4_300 <- pool3
I0417 18:23:00.784591  8716 net.cpp:408] fc4_300 -> fc4_300
I0417 18:23:00.794136  8716 net.cpp:150] Setting up fc4_300
I0417 18:23:00.794167  8716 net.cpp:157] Top shape: 1024 300 (307200)
I0417 18:23:00.794175  8716 net.cpp:165] Memory required for data: 4103028736
I0417 18:23:00.794190  8716 layer_factory.hpp:77] Creating layer fc4_prescale
I0417 18:23:00.794212  8716 net.cpp:100] Creating Layer fc4_prescale
I0417 18:23:00.794222  8716 net.cpp:434] fc4_prescale <- fc4_300
I0417 18:23:00.794236  8716 net.cpp:395] fc4_prescale -> fc4_300 (in-place)
I0417 18:23:00.794435  8716 net.cpp:150] Setting up fc4_prescale
I0417 18:23:00.794452  8716 net.cpp:157] Top shape: 1024 300 (307200)
I0417 18:23:00.794461  8716 net.cpp:165] Memory required for data: 4104257536
I0417 18:23:00.794472  8716 layer_factory.hpp:77] Creating layer fc4_sTanH
I0417 18:23:00.794484  8716 net.cpp:100] Creating Layer fc4_sTanH
I0417 18:23:00.794494  8716 net.cpp:434] fc4_sTanH <- fc4_300
I0417 18:23:00.794507  8716 net.cpp:395] fc4_sTanH -> fc4_300 (in-place)
I0417 18:23:00.794876  8716 net.cpp:150] Setting up fc4_sTanH
I0417 18:23:00.794893  8716 net.cpp:157] Top shape: 1024 300 (307200)
I0417 18:23:00.794900  8716 net.cpp:165] Memory required for data: 4105486336
I0417 18:23:00.794906  8716 layer_factory.hpp:77] Creating layer fc4_postscale
I0417 18:23:00.794921  8716 net.cpp:100] Creating Layer fc4_postscale
I0417 18:23:00.794930  8716 net.cpp:434] fc4_postscale <- fc4_300
I0417 18:23:00.794941  8716 net.cpp:395] fc4_postscale -> fc4_300 (in-place)
I0417 18:23:00.795125  8716 net.cpp:150] Setting up fc4_postscale
I0417 18:23:00.795142  8716 net.cpp:157] Top shape: 1024 300 (307200)
I0417 18:23:00.795150  8716 net.cpp:165] Memory required for data: 4106715136
I0417 18:23:00.795163  8716 layer_factory.hpp:77] Creating layer fc5_67
I0417 18:23:00.795181  8716 net.cpp:100] Creating Layer fc5_67
I0417 18:23:00.795192  8716 net.cpp:434] fc5_67 <- fc4_300
I0417 18:23:00.795204  8716 net.cpp:408] fc5_67 -> fc5_classes
I0417 18:23:00.797219  8716 net.cpp:150] Setting up fc5_67
I0417 18:23:00.797235  8716 net.cpp:157] Top shape: 1024 67 (68608)
I0417 18:23:00.797238  8716 net.cpp:165] Memory required for data: 4106989568
I0417 18:23:00.797250  8716 layer_factory.hpp:77] Creating layer fc5_classes_fc5_67_0_split
I0417 18:23:00.797258  8716 net.cpp:100] Creating Layer fc5_classes_fc5_67_0_split
I0417 18:23:00.797264  8716 net.cpp:434] fc5_classes_fc5_67_0_split <- fc5_classes
I0417 18:23:00.797271  8716 net.cpp:408] fc5_classes_fc5_67_0_split -> fc5_classes_fc5_67_0_split_0
I0417 18:23:00.797281  8716 net.cpp:408] fc5_classes_fc5_67_0_split -> fc5_classes_fc5_67_0_split_1
I0417 18:23:00.797289  8716 net.cpp:408] fc5_classes_fc5_67_0_split -> fc5_classes_fc5_67_0_split_2
I0417 18:23:00.797343  8716 net.cpp:150] Setting up fc5_classes_fc5_67_0_split
I0417 18:23:00.797351  8716 net.cpp:157] Top shape: 1024 67 (68608)
I0417 18:23:00.797356  8716 net.cpp:157] Top shape: 1024 67 (68608)
I0417 18:23:00.797360  8716 net.cpp:157] Top shape: 1024 67 (68608)
I0417 18:23:00.797363  8716 net.cpp:165] Memory required for data: 4107812864
I0417 18:23:00.797366  8716 layer_factory.hpp:77] Creating layer softmax
I0417 18:23:00.797372  8716 net.cpp:100] Creating Layer softmax
I0417 18:23:00.797376  8716 net.cpp:434] softmax <- fc5_classes_fc5_67_0_split_0
I0417 18:23:00.797381  8716 net.cpp:408] softmax -> softmax
I0417 18:23:00.797655  8716 net.cpp:150] Setting up softmax
I0417 18:23:00.797672  8716 net.cpp:157] Top shape: 1024 67 (68608)
I0417 18:23:00.797678  8716 net.cpp:165] Memory required for data: 4108087296
I0417 18:23:00.797683  8716 layer_factory.hpp:77] Creating layer loss
I0417 18:23:00.797693  8716 net.cpp:100] Creating Layer loss
I0417 18:23:00.797700  8716 net.cpp:434] loss <- softmax
I0417 18:23:00.797706  8716 net.cpp:434] loss <- label_data_1_split_0
I0417 18:23:00.797719  8716 net.cpp:408] loss -> loss
…
