…
I0414 05:23:27.713155  2892 solver.cpp:93] Creating training net from train_net file: ./Prototxt/experiment_11/rtsd-r1/AHE/trial_2/train.prototxt
I0414 05:23:27.713901  2892 net.cpp:58] Initializing net from parameters: 
state {
  phase: TRAIN
  level: 0
  stage: ""
}
layer {
  name: "data"
  type: "Data"
  top: "data"
  top: "label"
  include {
    phase: TRAIN
  }
  transform_param {
    scale: 0.0039215689
    mirror: false
    crop_size: 48
    mean_value: 132
    mean_value: 126
    mean_value: 140
  }
  data_param {
    source: "../local_data/lmdb/rtsd-r1/AHE/train/lmdb"
    batch_size: 1024
    backend: LMDB
  }
}
layer {
  name: "conv1"
  type: "Convolution"
  bottom: "data"
  top: "conv1"
  convolution_param {
    num_output: 100
    pad: 0
    kernel_size: 7
    group: 1
    stride: 1
    weight_filler {
      type: "xavier"
    }
  }
}
layer {
  name: "conv1_prescale"
  type: "Scale"
  bottom: "conv1"
  top: "conv1"
  param {
    lr_mult: 0
    decay_mult: 0
  }
  scale_param {
    filler {
      value: 0.6666
    }
    bias_term: false
  }
}
layer {
  name: "conv1_sTanH"
  type: "TanH"
  bottom: "conv1"
  top: "conv1"
}
layer {
  name: "conv1_postscale"
  type: "Scale"
  bottom: "conv1"
  top: "conv1"
  param {
    lr_mult: 0
    decay_mult: 0
  }
  scale_param {
    filler {
      value: 1.7159
    }
    bias_term: false
  }
}
layer {
  name: "pool1"
  type: "Pooling"
  bottom: "conv1"
  top: "pool1"
  pooling_param {
    pool: MAX
    kernel_size: 2
    stride: 2
  }
}
layer {
  name: "conv2"
  type: "Convolution"
  bottom: "pool1"
  top: "conv2"
  convolution_param {
    num_output: 150
    pad: 0
    kernel_size: 4
    group: 1
    stride: 1
    weight_filler {
      type: "xavier"
    }
  }
}
layer {
  name: "conv2_prescale"
  type: "Scale"
  bottom: "conv2"
  top: "conv2"
  param {
    lr_mult: 0
    decay_mult: 0
  }
  scale_param {
    filler {
      value: 0.6666
    }
    bias_term: false
  }
}
layer {
  name: "conv2_sTanH"
  type: "TanH"
  bottom: "conv2"
  top: "conv2"
}
layer {
  name: "conv2_postscale"
  type: "Scale"
  bottom: "conv2"
  top: "conv2"
  param {
    lr_mult: 0
    decay_mult: 0
  }
  scale_param {
    filler {
      value: 1.7159
    }
    bias_term: false
  }
}
layer {
  name: "pool2"
  type: "Pooling"
  bottom: "conv2"
  top: "pool2"
  pooling_param {
    pool: MAX
    kernel_size: 2
    stride: 2
  }
}
layer {
  name: "conv3"
  type: "Convolution"
  bottom: "pool2"
  top: "conv3"
  convolution_param {
    num_output: 250
    pad: 0
    kernel_size: 4
    group: 1
    stride: 1
    weight_filler {
      type: "xavier"
    }
  }
}
layer {
  name: "conv3_prescale"
  type: "Scale"
  bottom: "conv3"
  top: "conv3"
  param {
    lr_mult: 0
    decay_mult: 0
  }
  scale_param {
    filler {
      value: 0.6666
    }
    bias_term: false
  }
}
layer {
  name: "conv3_sTanH"
  type: "TanH"
  bottom: "conv3"
  top: "conv3"
}
layer {
  name: "conv3_postscale"
  type: "Scale"
  bottom: "conv3"
  top: "conv3"
  param {
    lr_mult: 0
    decay_mult: 0
  }
  scale_param {
    filler {
      value: 1.7159
    }
    bias_term: false
  }
}
layer {
  name: "pool3"
  type: "Pooling"
  bottom: "conv3"
  top: "pool3"
  pooling_param {
    pool: MAX
    kernel_size: 2
    stride: 2
  }
}
layer {
  name: "fc4_300"
  type: "InnerProduct"
  bottom: "pool3"
  top: "fc4_300"
  inner_product_param {
    num_output: 300
    weight_filler {
      type: "xavier"
    }
  }
}
layer {
  name: "fc4_prescale"
  type: "Scale"
  bottom: "fc4_300"
  top: "fc4_300"
  param {
    lr_mult: 0
    decay_mult: 0
  }
  scale_param {
    filler {
      value: 0.6666
    }
    bias_term: false
  }
}
layer {
  name: "fc4_sTanH"
  type: "TanH"
  bottom: "fc4_300"
  top: "fc4_300"
}
layer {
  name: "fc4_postscale"
  type: "Scale"
  bottom: "fc4_300"
  top: "fc4_300"
  param {
    lr_mult: 0
    decay_mult: 0
  }
  scale_param {
    filler {
      value: 1.7159
    }
    bias_term: false
  }
}
layer {
  name: "fc5_67"
  type: "InnerProduct"
  bottom: "fc4_300"
  top: "fc5_classes"
  inner_product_param {
    num_output: 67
    weight_filler {
      type: "xavier"
    }
  }
}
layer {
  name: "softmax"
  type: "Softmax"
  bottom: "fc5_classes"
  top: "softmax"
}
layer {
  name: "loss"
  type: "MultinomialLogisticLoss"
  bottom: "softmax"
  bottom: "label"
  top: "loss"
}
layer {
  name: "accuracy_1"
  type: "Accuracy"
  bottom: "fc5_classes"
  bottom: "label"
  top: "accuracy_1"
  accuracy_param {
    top_k: 1
  }
}
layer {
  name: "accuracy_5"
  type: "Accuracy"
  bottom: "fc5_classes"
  bottom: "label"
  top: "accuracy_5"
  accuracy_param {
    top_k: 5
  }
}
layer {
  name: "silence"
  type: "Silence"
  bottom: "accuracy_1"
  bottom: "accuracy_5"
}
I0414 05:23:27.714156  2892 layer_factory.hpp:77] Creating layer data
I0414 05:23:27.715920  2892 net.cpp:100] Creating Layer data
I0414 05:23:27.715945  2892 net.cpp:408] data -> data
I0414 05:23:27.715981  2892 net.cpp:408] data -> label
I0414 05:23:27.731425  2999 db_lmdb.cpp:35] Opened lmdb ../local_data/lmdb/rtsd-r1/AHE/train/lmdb
I0414 05:23:27.757778  2892 data_layer.cpp:41] output data size: 1024,3,48,48
I0414 05:23:27.849647  2892 net.cpp:150] Setting up data
I0414 05:23:27.849679  2892 net.cpp:157] Top shape: 1024 3 48 48 (7077888)
I0414 05:23:27.849686  2892 net.cpp:157] Top shape: 1024 (1024)
I0414 05:23:27.849690  2892 net.cpp:165] Memory required for data: 28315648
I0414 05:23:27.849704  2892 layer_factory.hpp:77] Creating layer label_data_1_split
I0414 05:23:27.849720  2892 net.cpp:100] Creating Layer label_data_1_split
I0414 05:23:27.849730  2892 net.cpp:434] label_data_1_split <- label
I0414 05:23:27.849745  2892 net.cpp:408] label_data_1_split -> label_data_1_split_0
I0414 05:23:27.849761  2892 net.cpp:408] label_data_1_split -> label_data_1_split_1
I0414 05:23:27.849769  2892 net.cpp:408] label_data_1_split -> label_data_1_split_2
I0414 05:23:27.849845  2892 net.cpp:150] Setting up label_data_1_split
I0414 05:23:27.849855  2892 net.cpp:157] Top shape: 1024 (1024)
I0414 05:23:27.849859  2892 net.cpp:157] Top shape: 1024 (1024)
I0414 05:23:27.849866  2892 net.cpp:157] Top shape: 1024 (1024)
I0414 05:23:27.849869  2892 net.cpp:165] Memory required for data: 28327936
I0414 05:23:27.849874  2892 layer_factory.hpp:77] Creating layer conv1
I0414 05:23:27.849891  2892 net.cpp:100] Creating Layer conv1
I0414 05:23:27.849897  2892 net.cpp:434] conv1 <- data
I0414 05:23:27.849905  2892 net.cpp:408] conv1 -> conv1
I0414 05:23:28.335089  2892 net.cpp:150] Setting up conv1
I0414 05:23:28.335120  2892 net.cpp:157] Top shape: 1024 100 42 42 (180633600)
I0414 05:23:28.335125  2892 net.cpp:165] Memory required for data: 750862336
I0414 05:23:28.335153  2892 layer_factory.hpp:77] Creating layer conv1_prescale
I0414 05:23:28.335178  2892 net.cpp:100] Creating Layer conv1_prescale
I0414 05:23:28.335187  2892 net.cpp:434] conv1_prescale <- conv1
I0414 05:23:28.335198  2892 net.cpp:395] conv1_prescale -> conv1 (in-place)
I0414 05:23:28.335331  2892 net.cpp:150] Setting up conv1_prescale
I0414 05:23:28.335343  2892 net.cpp:157] Top shape: 1024 100 42 42 (180633600)
I0414 05:23:28.335351  2892 net.cpp:165] Memory required for data: 1473396736
I0414 05:23:28.335363  2892 layer_factory.hpp:77] Creating layer conv1_sTanH
I0414 05:23:28.335378  2892 net.cpp:100] Creating Layer conv1_sTanH
I0414 05:23:28.335384  2892 net.cpp:434] conv1_sTanH <- conv1
I0414 05:23:28.335392  2892 net.cpp:395] conv1_sTanH -> conv1 (in-place)
I0414 05:23:28.335633  2892 net.cpp:150] Setting up conv1_sTanH
I0414 05:23:28.335649  2892 net.cpp:157] Top shape: 1024 100 42 42 (180633600)
I0414 05:23:28.335685  2892 net.cpp:165] Memory required for data: 2195931136
I0414 05:23:28.335695  2892 layer_factory.hpp:77] Creating layer conv1_postscale
I0414 05:23:28.335710  2892 net.cpp:100] Creating Layer conv1_postscale
I0414 05:23:28.335716  2892 net.cpp:434] conv1_postscale <- conv1
I0414 05:23:28.335726  2892 net.cpp:395] conv1_postscale -> conv1 (in-place)
I0414 05:23:28.335849  2892 net.cpp:150] Setting up conv1_postscale
I0414 05:23:28.335860  2892 net.cpp:157] Top shape: 1024 100 42 42 (180633600)
I0414 05:23:28.335865  2892 net.cpp:165] Memory required for data: 2918465536
I0414 05:23:28.335891  2892 layer_factory.hpp:77] Creating layer pool1
I0414 05:23:28.335909  2892 net.cpp:100] Creating Layer pool1
I0414 05:23:28.335916  2892 net.cpp:434] pool1 <- conv1
I0414 05:23:28.335925  2892 net.cpp:408] pool1 -> pool1
I0414 05:23:28.335990  2892 net.cpp:150] Setting up pool1
I0414 05:23:28.336001  2892 net.cpp:157] Top shape: 1024 100 21 21 (45158400)
I0414 05:23:28.336009  2892 net.cpp:165] Memory required for data: 3099099136
I0414 05:23:28.336014  2892 layer_factory.hpp:77] Creating layer conv2
I0414 05:23:28.336032  2892 net.cpp:100] Creating Layer conv2
I0414 05:23:28.336038  2892 net.cpp:434] conv2 <- pool1
I0414 05:23:28.336047  2892 net.cpp:408] conv2 -> conv2
I0414 05:23:28.341658  2892 net.cpp:150] Setting up conv2
I0414 05:23:28.341681  2892 net.cpp:157] Top shape: 1024 150 18 18 (49766400)
I0414 05:23:28.341691  2892 net.cpp:165] Memory required for data: 3298164736
I0414 05:23:28.341711  2892 layer_factory.hpp:77] Creating layer conv2_prescale
I0414 05:23:28.341727  2892 net.cpp:100] Creating Layer conv2_prescale
I0414 05:23:28.341733  2892 net.cpp:434] conv2_prescale <- conv2
I0414 05:23:28.341743  2892 net.cpp:395] conv2_prescale -> conv2 (in-place)
I0414 05:23:28.341877  2892 net.cpp:150] Setting up conv2_prescale
I0414 05:23:28.341889  2892 net.cpp:157] Top shape: 1024 150 18 18 (49766400)
I0414 05:23:28.341897  2892 net.cpp:165] Memory required for data: 3497230336
I0414 05:23:28.341908  2892 layer_factory.hpp:77] Creating layer conv2_sTanH
I0414 05:23:28.341919  2892 net.cpp:100] Creating Layer conv2_sTanH
I0414 05:23:28.341927  2892 net.cpp:434] conv2_sTanH <- conv2
I0414 05:23:28.341934  2892 net.cpp:395] conv2_sTanH -> conv2 (in-place)
I0414 05:23:28.342828  2892 net.cpp:150] Setting up conv2_sTanH
I0414 05:23:28.342849  2892 net.cpp:157] Top shape: 1024 150 18 18 (49766400)
I0414 05:23:28.342859  2892 net.cpp:165] Memory required for data: 3696295936
I0414 05:23:28.342864  2892 layer_factory.hpp:77] Creating layer conv2_postscale
I0414 05:23:28.342874  2892 net.cpp:100] Creating Layer conv2_postscale
I0414 05:23:28.342877  2892 net.cpp:434] conv2_postscale <- conv2
I0414 05:23:28.342885  2892 net.cpp:395] conv2_postscale -> conv2 (in-place)
I0414 05:23:28.342998  2892 net.cpp:150] Setting up conv2_postscale
I0414 05:23:28.343009  2892 net.cpp:157] Top shape: 1024 150 18 18 (49766400)
I0414 05:23:28.343014  2892 net.cpp:165] Memory required for data: 3895361536
I0414 05:23:28.343019  2892 layer_factory.hpp:77] Creating layer pool2
I0414 05:23:28.343026  2892 net.cpp:100] Creating Layer pool2
I0414 05:23:28.343034  2892 net.cpp:434] pool2 <- conv2
I0414 05:23:28.343039  2892 net.cpp:408] pool2 -> pool2
I0414 05:23:28.343086  2892 net.cpp:150] Setting up pool2
I0414 05:23:28.343096  2892 net.cpp:157] Top shape: 1024 150 9 9 (12441600)
I0414 05:23:28.343098  2892 net.cpp:165] Memory required for data: 3945127936
I0414 05:23:28.343102  2892 layer_factory.hpp:77] Creating layer conv3
I0414 05:23:28.343111  2892 net.cpp:100] Creating Layer conv3
I0414 05:23:28.343117  2892 net.cpp:434] conv3 <- pool2
I0414 05:23:28.343123  2892 net.cpp:408] conv3 -> conv3
I0414 05:23:28.349817  2892 net.cpp:150] Setting up conv3
I0414 05:23:28.349845  2892 net.cpp:157] Top shape: 1024 250 6 6 (9216000)
I0414 05:23:28.349850  2892 net.cpp:165] Memory required for data: 3981991936
I0414 05:23:28.349862  2892 layer_factory.hpp:77] Creating layer conv3_prescale
I0414 05:23:28.349890  2892 net.cpp:100] Creating Layer conv3_prescale
I0414 05:23:28.349895  2892 net.cpp:434] conv3_prescale <- conv3
I0414 05:23:28.349902  2892 net.cpp:395] conv3_prescale -> conv3 (in-place)
I0414 05:23:28.350010  2892 net.cpp:150] Setting up conv3_prescale
I0414 05:23:28.350020  2892 net.cpp:157] Top shape: 1024 250 6 6 (9216000)
I0414 05:23:28.350024  2892 net.cpp:165] Memory required for data: 4018855936
I0414 05:23:28.350030  2892 layer_factory.hpp:77] Creating layer conv3_sTanH
I0414 05:23:28.350038  2892 net.cpp:100] Creating Layer conv3_sTanH
I0414 05:23:28.350041  2892 net.cpp:434] conv3_sTanH <- conv3
I0414 05:23:28.350046  2892 net.cpp:395] conv3_sTanH -> conv3 (in-place)
I0414 05:23:28.350939  2892 net.cpp:150] Setting up conv3_sTanH
I0414 05:23:28.350958  2892 net.cpp:157] Top shape: 1024 250 6 6 (9216000)
I0414 05:23:28.350963  2892 net.cpp:165] Memory required for data: 4055719936
I0414 05:23:28.350968  2892 layer_factory.hpp:77] Creating layer conv3_postscale
I0414 05:23:28.350977  2892 net.cpp:100] Creating Layer conv3_postscale
I0414 05:23:28.350981  2892 net.cpp:434] conv3_postscale <- conv3
I0414 05:23:28.350987  2892 net.cpp:395] conv3_postscale -> conv3 (in-place)
I0414 05:23:28.351099  2892 net.cpp:150] Setting up conv3_postscale
I0414 05:23:28.351109  2892 net.cpp:157] Top shape: 1024 250 6 6 (9216000)
I0414 05:23:28.351112  2892 net.cpp:165] Memory required for data: 4092583936
I0414 05:23:28.351119  2892 layer_factory.hpp:77] Creating layer pool3
I0414 05:23:28.351128  2892 net.cpp:100] Creating Layer pool3
I0414 05:23:28.351133  2892 net.cpp:434] pool3 <- conv3
I0414 05:23:28.351140  2892 net.cpp:408] pool3 -> pool3
I0414 05:23:28.351182  2892 net.cpp:150] Setting up pool3
I0414 05:23:28.351191  2892 net.cpp:157] Top shape: 1024 250 3 3 (2304000)
I0414 05:23:28.351196  2892 net.cpp:165] Memory required for data: 4101799936
I0414 05:23:28.351198  2892 layer_factory.hpp:77] Creating layer fc4_300
I0414 05:23:28.351207  2892 net.cpp:100] Creating Layer fc4_300
I0414 05:23:28.351210  2892 net.cpp:434] fc4_300 <- pool3
I0414 05:23:28.351217  2892 net.cpp:408] fc4_300 -> fc4_300
I0414 05:23:28.357393  2892 net.cpp:150] Setting up fc4_300
I0414 05:23:28.357411  2892 net.cpp:157] Top shape: 1024 300 (307200)
I0414 05:23:28.357414  2892 net.cpp:165] Memory required for data: 4103028736
I0414 05:23:28.357421  2892 layer_factory.hpp:77] Creating layer fc4_prescale
I0414 05:23:28.357429  2892 net.cpp:100] Creating Layer fc4_prescale
I0414 05:23:28.357434  2892 net.cpp:434] fc4_prescale <- fc4_300
I0414 05:23:28.357440  2892 net.cpp:395] fc4_prescale -> fc4_300 (in-place)
I0414 05:23:28.357524  2892 net.cpp:150] Setting up fc4_prescale
I0414 05:23:28.357532  2892 net.cpp:157] Top shape: 1024 300 (307200)
I0414 05:23:28.357535  2892 net.cpp:165] Memory required for data: 4104257536
I0414 05:23:28.357540  2892 layer_factory.hpp:77] Creating layer fc4_sTanH
I0414 05:23:28.357545  2892 net.cpp:100] Creating Layer fc4_sTanH
I0414 05:23:28.357548  2892 net.cpp:434] fc4_sTanH <- fc4_300
I0414 05:23:28.357553  2892 net.cpp:395] fc4_sTanH -> fc4_300 (in-place)
I0414 05:23:28.357730  2892 net.cpp:150] Setting up fc4_sTanH
I0414 05:23:28.357746  2892 net.cpp:157] Top shape: 1024 300 (307200)
I0414 05:23:28.357749  2892 net.cpp:165] Memory required for data: 4105486336
I0414 05:23:28.357753  2892 layer_factory.hpp:77] Creating layer fc4_postscale
I0414 05:23:28.357760  2892 net.cpp:100] Creating Layer fc4_postscale
I0414 05:23:28.357764  2892 net.cpp:434] fc4_postscale <- fc4_300
I0414 05:23:28.357769  2892 net.cpp:395] fc4_postscale -> fc4_300 (in-place)
I0414 05:23:28.357857  2892 net.cpp:150] Setting up fc4_postscale
I0414 05:23:28.357866  2892 net.cpp:157] Top shape: 1024 300 (307200)
I0414 05:23:28.357867  2892 net.cpp:165] Memory required for data: 4106715136
I0414 05:23:28.357872  2892 layer_factory.hpp:77] Creating layer fc5_67
I0414 05:23:28.357878  2892 net.cpp:100] Creating Layer fc5_67
I0414 05:23:28.357882  2892 net.cpp:434] fc5_67 <- fc4_300
I0414 05:23:28.357887  2892 net.cpp:408] fc5_67 -> fc5_classes
I0414 05:23:28.365648  2892 net.cpp:150] Setting up fc5_67
I0414 05:23:28.365666  2892 net.cpp:157] Top shape: 1024 67 (68608)
I0414 05:23:28.365670  2892 net.cpp:165] Memory required for data: 4106989568
I0414 05:23:28.365682  2892 layer_factory.hpp:77] Creating layer fc5_classes_fc5_67_0_split
I0414 05:23:28.365692  2892 net.cpp:100] Creating Layer fc5_classes_fc5_67_0_split
I0414 05:23:28.365698  2892 net.cpp:434] fc5_classes_fc5_67_0_split <- fc5_classes
I0414 05:23:28.365705  2892 net.cpp:408] fc5_classes_fc5_67_0_split -> fc5_classes_fc5_67_0_split_0
I0414 05:23:28.365713  2892 net.cpp:408] fc5_classes_fc5_67_0_split -> fc5_classes_fc5_67_0_split_1
I0414 05:23:28.365721  2892 net.cpp:408] fc5_classes_fc5_67_0_split -> fc5_classes_fc5_67_0_split_2
I0414 05:23:28.365778  2892 net.cpp:150] Setting up fc5_classes_fc5_67_0_split
I0414 05:23:28.365787  2892 net.cpp:157] Top shape: 1024 67 (68608)
I0414 05:23:28.365790  2892 net.cpp:157] Top shape: 1024 67 (68608)
I0414 05:23:28.365793  2892 net.cpp:157] Top shape: 1024 67 (68608)
I0414 05:23:28.365797  2892 net.cpp:165] Memory required for data: 4107812864
I0414 05:23:28.365800  2892 layer_factory.hpp:77] Creating layer softmax
I0414 05:23:28.365806  2892 net.cpp:100] Creating Layer softmax
I0414 05:23:28.365810  2892 net.cpp:434] softmax <- fc5_classes_fc5_67_0_split_0
I0414 05:23:28.365815  2892 net.cpp:408] softmax -> softmax
I0414 05:23:28.366080  2892 net.cpp:150] Setting up softmax
I0414 05:23:28.366101  2892 net.cpp:157] Top shape: 1024 67 (68608)
I0414 05:23:28.366104  2892 net.cpp:165] Memory required for data: 4108087296
I0414 05:23:28.366108  2892 layer_factory.hpp:77] Creating layer loss
I0414 05:23:28.366116  2892 net.cpp:100] Creating Layer loss
I0414 05:23:28.366119  2892 net.cpp:434] loss <- softmax
I0414 05:23:28.366124  2892 net.cpp:434] loss <- label_data_1_split_0
I0414 05:23:28.366129  2892 net.cpp:408] loss -> loss
…
