…
I0415 22:23:10.135608 13882 solver.cpp:93] Creating training net from train_net file: ./Prototxt/experiment_12/rtsd-r3/imajust/trial_2/train.prototxt
I0415 22:23:10.146603 13882 net.cpp:58] Initializing net from parameters: 
state {
  phase: TRAIN
  level: 0
  stage: ""
}
layer {
  name: "data"
  type: "Data"
  top: "data"
  top: "label"
  include {
    phase: TRAIN
  }
  transform_param {
    scale: 0.0039215689
    mirror: false
    crop_size: 48
    mean_value: 118
    mean_value: 112
    mean_value: 112
  }
  data_param {
    source: "../local_data/lmdb/rtsd-r3/imajust/train/lmdb"
    batch_size: 1024
    backend: LMDB
  }
}
layer {
  name: "conv1"
  type: "Convolution"
  bottom: "data"
  top: "conv1"
  convolution_param {
    num_output: 100
    pad: 0
    kernel_size: 7
    group: 1
    stride: 1
    weight_filler {
      type: "xavier"
    }
  }
}
layer {
  name: "conv1_relu"
  type: "ReLU"
  bottom: "conv1"
  top: "conv1"
}
layer {
  name: "pool1"
  type: "Pooling"
  bottom: "conv1"
  top: "pool1"
  pooling_param {
    pool: MAX
    kernel_size: 2
    stride: 2
  }
}
layer {
  name: "conv2"
  type: "Convolution"
  bottom: "pool1"
  top: "conv2"
  convolution_param {
    num_output: 150
    pad: 0
    kernel_size: 4
    group: 1
    stride: 1
    weight_filler {
      type: "xavier"
    }
  }
}
layer {
  name: "conv2_relu"
  type: "ReLU"
  bottom: "conv2"
  top: "conv2"
}
layer {
  name: "pool2"
  type: "Pooling"
  bottom: "conv2"
  top: "pool2"
  pooling_param {
    pool: MAX
    kernel_size: 2
    stride: 2
  }
}
layer {
  name: "conv3"
  type: "Convolution"
  bottom: "pool2"
  top: "conv3"
  convolution_param {
    num_output: 250
    pad: 0
    kernel_size: 4
    group: 1
    stride: 1
    weight_filler {
      type: "xavier"
    }
  }
}
layer {
  name: "conv3_relu"
  type: "ReLU"
  bottom: "conv3"
  top: "conv3"
}
layer {
  name: "pool3"
  type: "Pooling"
  bottom: "conv3"
  top: "pool3"
  pooling_param {
    pool: MAX
    kernel_size: 2
    stride: 2
  }
}
layer {
  name: "fc4_300"
  type: "InnerProduct"
  bottom: "pool3"
  top: "fc4_300"
  inner_product_param {
    num_output: 300
    weight_filler {
      type: "xavier"
    }
  }
}
layer {
  name: "fc4_relu"
  type: "ReLU"
  bottom: "fc4_300"
  top: "fc4_300"
}
layer {
  name: "drop4"
  type: "Dropout"
  bottom: "fc4_300"
  top: "fc4_300"
  dropout_param {
    dropout_ratio: 0.5
  }
}
layer {
  name: "fc5_106"
  type: "InnerProduct"
  bottom: "fc4_300"
  top: "fc5_classes"
  inner_product_param {
    num_output: 106
    weight_filler {
      type: "xavier"
    }
  }
}
layer {
  name: "softmax"
  type: "Softmax"
  bottom: "fc5_classes"
  top: "softmax"
}
layer {
  name: "loss"
  type: "MultinomialLogisticLoss"
  bottom: "softmax"
  bottom: "label"
  top: "loss"
}
layer {
  name: "accuracy_1"
  type: "Accuracy"
  bottom: "fc5_classes"
  bottom: "label"
  top: "accuracy_1"
  accuracy_param {
    top_k: 1
  }
}
layer {
  name: "accuracy_5"
  type: "Accuracy"
  bottom: "fc5_classes"
  bottom: "label"
  top: "accuracy_5"
  accuracy_param {
    top_k: 5
  }
}
layer {
  name: "silence"
  type: "Silence"
  bottom: "accuracy_1"
  bottom: "accuracy_5"
}
I0415 22:23:10.146733 13882 layer_factory.hpp:77] Creating layer data
I0415 22:23:10.147789 13882 net.cpp:100] Creating Layer data
I0415 22:23:10.147802 13882 net.cpp:408] data -> data
I0415 22:23:10.147825 13882 net.cpp:408] data -> label
I0415 22:23:10.163688 13989 db_lmdb.cpp:35] Opened lmdb ../local_data/lmdb/rtsd-r3/imajust/train/lmdb
I0415 22:23:10.180964 13882 data_layer.cpp:41] output data size: 1024,3,48,48
I0415 22:23:10.233726 13882 net.cpp:150] Setting up data
I0415 22:23:10.233760 13882 net.cpp:157] Top shape: 1024 3 48 48 (7077888)
I0415 22:23:10.233765 13882 net.cpp:157] Top shape: 1024 (1024)
I0415 22:23:10.233768 13882 net.cpp:165] Memory required for data: 28315648
I0415 22:23:10.233780 13882 layer_factory.hpp:77] Creating layer label_data_1_split
I0415 22:23:10.233794 13882 net.cpp:100] Creating Layer label_data_1_split
I0415 22:23:10.233803 13882 net.cpp:434] label_data_1_split <- label
I0415 22:23:10.233817 13882 net.cpp:408] label_data_1_split -> label_data_1_split_0
I0415 22:23:10.233831 13882 net.cpp:408] label_data_1_split -> label_data_1_split_1
I0415 22:23:10.233839 13882 net.cpp:408] label_data_1_split -> label_data_1_split_2
I0415 22:23:10.233927 13882 net.cpp:150] Setting up label_data_1_split
I0415 22:23:10.233937 13882 net.cpp:157] Top shape: 1024 (1024)
I0415 22:23:10.233940 13882 net.cpp:157] Top shape: 1024 (1024)
I0415 22:23:10.233944 13882 net.cpp:157] Top shape: 1024 (1024)
I0415 22:23:10.233947 13882 net.cpp:165] Memory required for data: 28327936
I0415 22:23:10.233949 13882 layer_factory.hpp:77] Creating layer conv1
I0415 22:23:10.233966 13882 net.cpp:100] Creating Layer conv1
I0415 22:23:10.233971 13882 net.cpp:434] conv1 <- data
I0415 22:23:10.233978 13882 net.cpp:408] conv1 -> conv1
I0415 22:23:10.530642 13882 net.cpp:150] Setting up conv1
I0415 22:23:10.530671 13882 net.cpp:157] Top shape: 1024 100 42 42 (180633600)
I0415 22:23:10.530675 13882 net.cpp:165] Memory required for data: 750862336
I0415 22:23:10.530697 13882 layer_factory.hpp:77] Creating layer conv1_relu
I0415 22:23:10.530709 13882 net.cpp:100] Creating Layer conv1_relu
I0415 22:23:10.530714 13882 net.cpp:434] conv1_relu <- conv1
I0415 22:23:10.530720 13882 net.cpp:395] conv1_relu -> conv1 (in-place)
I0415 22:23:10.530916 13882 net.cpp:150] Setting up conv1_relu
I0415 22:23:10.530928 13882 net.cpp:157] Top shape: 1024 100 42 42 (180633600)
I0415 22:23:10.530931 13882 net.cpp:165] Memory required for data: 1473396736
I0415 22:23:10.530936 13882 layer_factory.hpp:77] Creating layer pool1
I0415 22:23:10.530946 13882 net.cpp:100] Creating Layer pool1
I0415 22:23:10.530948 13882 net.cpp:434] pool1 <- conv1
I0415 22:23:10.530954 13882 net.cpp:408] pool1 -> pool1
I0415 22:23:10.531008 13882 net.cpp:150] Setting up pool1
I0415 22:23:10.531015 13882 net.cpp:157] Top shape: 1024 100 21 21 (45158400)
I0415 22:23:10.531018 13882 net.cpp:165] Memory required for data: 1654030336
I0415 22:23:10.531021 13882 layer_factory.hpp:77] Creating layer conv2
I0415 22:23:10.531031 13882 net.cpp:100] Creating Layer conv2
I0415 22:23:10.531035 13882 net.cpp:434] conv2 <- pool1
I0415 22:23:10.531041 13882 net.cpp:408] conv2 -> conv2
I0415 22:23:10.555796 13882 net.cpp:150] Setting up conv2
I0415 22:23:10.555814 13882 net.cpp:157] Top shape: 1024 150 18 18 (49766400)
I0415 22:23:10.555819 13882 net.cpp:165] Memory required for data: 1853095936
I0415 22:23:10.555829 13882 layer_factory.hpp:77] Creating layer conv2_relu
I0415 22:23:10.555835 13882 net.cpp:100] Creating Layer conv2_relu
I0415 22:23:10.555840 13882 net.cpp:434] conv2_relu <- conv2
I0415 22:23:10.555843 13882 net.cpp:395] conv2_relu -> conv2 (in-place)
I0415 22:23:10.557255 13882 net.cpp:150] Setting up conv2_relu
I0415 22:23:10.557273 13882 net.cpp:157] Top shape: 1024 150 18 18 (49766400)
I0415 22:23:10.557276 13882 net.cpp:165] Memory required for data: 2052161536
I0415 22:23:10.557281 13882 layer_factory.hpp:77] Creating layer pool2
I0415 22:23:10.557288 13882 net.cpp:100] Creating Layer pool2
I0415 22:23:10.557291 13882 net.cpp:434] pool2 <- conv2
I0415 22:23:10.557296 13882 net.cpp:408] pool2 -> pool2
I0415 22:23:10.557345 13882 net.cpp:150] Setting up pool2
I0415 22:23:10.557354 13882 net.cpp:157] Top shape: 1024 150 9 9 (12441600)
I0415 22:23:10.557358 13882 net.cpp:165] Memory required for data: 2101927936
I0415 22:23:10.557360 13882 layer_factory.hpp:77] Creating layer conv3
I0415 22:23:10.557392 13882 net.cpp:100] Creating Layer conv3
I0415 22:23:10.557396 13882 net.cpp:434] conv3 <- pool2
I0415 22:23:10.557401 13882 net.cpp:408] conv3 -> conv3
I0415 22:23:10.563568 13882 net.cpp:150] Setting up conv3
I0415 22:23:10.563585 13882 net.cpp:157] Top shape: 1024 250 6 6 (9216000)
I0415 22:23:10.563590 13882 net.cpp:165] Memory required for data: 2138791936
I0415 22:23:10.563599 13882 layer_factory.hpp:77] Creating layer conv3_relu
I0415 22:23:10.563606 13882 net.cpp:100] Creating Layer conv3_relu
I0415 22:23:10.563609 13882 net.cpp:434] conv3_relu <- conv3
I0415 22:23:10.563614 13882 net.cpp:395] conv3_relu -> conv3 (in-place)
I0415 22:23:10.564458 13882 net.cpp:150] Setting up conv3_relu
I0415 22:23:10.564474 13882 net.cpp:157] Top shape: 1024 250 6 6 (9216000)
I0415 22:23:10.564477 13882 net.cpp:165] Memory required for data: 2175655936
I0415 22:23:10.564481 13882 layer_factory.hpp:77] Creating layer pool3
I0415 22:23:10.564487 13882 net.cpp:100] Creating Layer pool3
I0415 22:23:10.564491 13882 net.cpp:434] pool3 <- conv3
I0415 22:23:10.564496 13882 net.cpp:408] pool3 -> pool3
I0415 22:23:10.564541 13882 net.cpp:150] Setting up pool3
I0415 22:23:10.564549 13882 net.cpp:157] Top shape: 1024 250 3 3 (2304000)
I0415 22:23:10.564553 13882 net.cpp:165] Memory required for data: 2184871936
I0415 22:23:10.564555 13882 layer_factory.hpp:77] Creating layer fc4_300
I0415 22:23:10.564561 13882 net.cpp:100] Creating Layer fc4_300
I0415 22:23:10.564564 13882 net.cpp:434] fc4_300 <- pool3
I0415 22:23:10.564569 13882 net.cpp:408] fc4_300 -> fc4_300
I0415 22:23:10.570258 13882 net.cpp:150] Setting up fc4_300
I0415 22:23:10.570276 13882 net.cpp:157] Top shape: 1024 300 (307200)
I0415 22:23:10.570278 13882 net.cpp:165] Memory required for data: 2186100736
I0415 22:23:10.570286 13882 layer_factory.hpp:77] Creating layer fc4_relu
I0415 22:23:10.570291 13882 net.cpp:100] Creating Layer fc4_relu
I0415 22:23:10.570294 13882 net.cpp:434] fc4_relu <- fc4_300
I0415 22:23:10.570299 13882 net.cpp:395] fc4_relu -> fc4_300 (in-place)
I0415 22:23:10.570480 13882 net.cpp:150] Setting up fc4_relu
I0415 22:23:10.570492 13882 net.cpp:157] Top shape: 1024 300 (307200)
I0415 22:23:10.570494 13882 net.cpp:165] Memory required for data: 2187329536
I0415 22:23:10.570497 13882 layer_factory.hpp:77] Creating layer drop4
I0415 22:23:10.570503 13882 net.cpp:100] Creating Layer drop4
I0415 22:23:10.570507 13882 net.cpp:434] drop4 <- fc4_300
I0415 22:23:10.570511 13882 net.cpp:395] drop4 -> fc4_300 (in-place)
I0415 22:23:10.570543 13882 net.cpp:150] Setting up drop4
I0415 22:23:10.570549 13882 net.cpp:157] Top shape: 1024 300 (307200)
I0415 22:23:10.570552 13882 net.cpp:165] Memory required for data: 2188558336
I0415 22:23:10.570555 13882 layer_factory.hpp:77] Creating layer fc5_106
I0415 22:23:10.570560 13882 net.cpp:100] Creating Layer fc5_106
I0415 22:23:10.570564 13882 net.cpp:434] fc5_106 <- fc4_300
I0415 22:23:10.570569 13882 net.cpp:408] fc5_106 -> fc5_classes
I0415 22:23:10.572007 13882 net.cpp:150] Setting up fc5_106
I0415 22:23:10.572022 13882 net.cpp:157] Top shape: 1024 106 (108544)
I0415 22:23:10.572026 13882 net.cpp:165] Memory required for data: 2188992512
I0415 22:23:10.572034 13882 layer_factory.hpp:77] Creating layer fc5_classes_fc5_106_0_split
I0415 22:23:10.572042 13882 net.cpp:100] Creating Layer fc5_classes_fc5_106_0_split
I0415 22:23:10.572046 13882 net.cpp:434] fc5_classes_fc5_106_0_split <- fc5_classes
I0415 22:23:10.572052 13882 net.cpp:408] fc5_classes_fc5_106_0_split -> fc5_classes_fc5_106_0_split_0
I0415 22:23:10.572058 13882 net.cpp:408] fc5_classes_fc5_106_0_split -> fc5_classes_fc5_106_0_split_1
I0415 22:23:10.572064 13882 net.cpp:408] fc5_classes_fc5_106_0_split -> fc5_classes_fc5_106_0_split_2
I0415 22:23:10.572113 13882 net.cpp:150] Setting up fc5_classes_fc5_106_0_split
I0415 22:23:10.572119 13882 net.cpp:157] Top shape: 1024 106 (108544)
I0415 22:23:10.572124 13882 net.cpp:157] Top shape: 1024 106 (108544)
I0415 22:23:10.572127 13882 net.cpp:157] Top shape: 1024 106 (108544)
I0415 22:23:10.572130 13882 net.cpp:165] Memory required for data: 2190295040
I0415 22:23:10.572145 13882 layer_factory.hpp:77] Creating layer softmax
I0415 22:23:10.572154 13882 net.cpp:100] Creating Layer softmax
I0415 22:23:10.572157 13882 net.cpp:434] softmax <- fc5_classes_fc5_106_0_split_0
I0415 22:23:10.572163 13882 net.cpp:408] softmax -> softmax
I0415 22:23:10.572408 13882 net.cpp:150] Setting up softmax
I0415 22:23:10.572422 13882 net.cpp:157] Top shape: 1024 106 (108544)
I0415 22:23:10.572424 13882 net.cpp:165] Memory required for data: 2190729216
I0415 22:23:10.572427 13882 layer_factory.hpp:77] Creating layer loss
I0415 22:23:10.572434 13882 net.cpp:100] Creating Layer loss
I0415 22:23:10.572438 13882 net.cpp:434] loss <- softmax
I0415 22:23:10.572441 13882 net.cpp:434] loss <- label_data_1_split_0
I0415 22:23:10.572446 13882 net.cpp:408] loss -> loss
…
