…
I0508 05:11:08.403301  4837 solver.cpp:93] Creating training net from train_net file: ./Prototxt/experiment_15/RTSD/AHE/trial_1/train.prototxt
I0508 05:11:08.403903  4837 net.cpp:58] Initializing net from parameters: 
state {
  phase: TRAIN
  level: 0
  stage: ""
}
layer {
  name: "data"
  type: "Data"
  top: "data"
  top: "label"
  include {
    phase: TRAIN
  }
  transform_param {
    scale: 0.0039215689
    mirror: false
    crop_size: 48
    mean_value: 133
    mean_value: 127
    mean_value: 126
  }
  data_param {
    source: "../local_data/lmdb/RTSD/AHE/train/lmdb"
    batch_size: 1024
    backend: LMDB
  }
}
layer {
  name: "conv1"
  type: "Convolution"
  bottom: "data"
  top: "conv1"
  convolution_param {
    num_output: 100
    pad: 0
    kernel_size: 7
    group: 1
    stride: 1
    weight_filler {
      type: "xavier"
    }
  }
}
layer {
  name: "conv1_prescale"
  type: "Scale"
  bottom: "conv1"
  top: "conv1"
  param {
    lr_mult: 0
    decay_mult: 0
  }
  scale_param {
    filler {
      value: 0.6666
    }
    bias_term: false
  }
}
layer {
  name: "conv1_sTanH"
  type: "TanH"
  bottom: "conv1"
  top: "conv1"
}
layer {
  name: "conv1_postscale"
  type: "Scale"
  bottom: "conv1"
  top: "conv1"
  param {
    lr_mult: 0
    decay_mult: 0
  }
  scale_param {
    filler {
      value: 1.7159
    }
    bias_term: false
  }
}
layer {
  name: "pool1"
  type: "Pooling"
  bottom: "conv1"
  top: "pool1"
  pooling_param {
    pool: MAX
    kernel_size: 2
    stride: 2
  }
}
layer {
  name: "conv2"
  type: "Convolution"
  bottom: "pool1"
  top: "conv2"
  convolution_param {
    num_output: 150
    pad: 0
    kernel_size: 4
    group: 2
    stride: 1
    weight_filler {
      type: "xavier"
    }
  }
}
layer {
  name: "conv2_prescale"
  type: "Scale"
  bottom: "conv2"
  top: "conv2"
  param {
    lr_mult: 0
    decay_mult: 0
  }
  scale_param {
    filler {
      value: 0.6666
    }
    bias_term: false
  }
}
layer {
  name: "conv2_sTanH"
  type: "TanH"
  bottom: "conv2"
  top: "conv2"
}
layer {
  name: "conv2_postscale"
  type: "Scale"
  bottom: "conv2"
  top: "conv2"
  param {
    lr_mult: 0
    decay_mult: 0
  }
  scale_param {
    filler {
      value: 1.7159
    }
    bias_term: false
  }
}
layer {
  name: "pool2"
  type: "Pooling"
  bottom: "conv2"
  top: "pool2"
  pooling_param {
    pool: MAX
    kernel_size: 2
    stride: 2
  }
}
layer {
  name: "conv3"
  type: "Convolution"
  bottom: "pool2"
  top: "conv3"
  convolution_param {
    num_output: 250
    pad: 0
    kernel_size: 4
    group: 2
    stride: 1
    weight_filler {
      type: "xavier"
    }
  }
}
layer {
  name: "conv3_prescale"
  type: "Scale"
  bottom: "conv3"
  top: "conv3"
  param {
    lr_mult: 0
    decay_mult: 0
  }
  scale_param {
    filler {
      value: 0.6666
    }
    bias_term: false
  }
}
layer {
  name: "conv3_sTanH"
  type: "TanH"
  bottom: "conv3"
  top: "conv3"
}
layer {
  name: "conv3_postscale"
  type: "Scale"
  bottom: "conv3"
  top: "conv3"
  param {
    lr_mult: 0
    decay_mult: 0
  }
  scale_param {
    filler {
      value: 1.7159
    }
    bias_term: false
  }
}
layer {
  name: "pool3"
  type: "Pooling"
  bottom: "conv3"
  top: "pool3"
  pooling_param {
    pool: MAX
    kernel_size: 2
    stride: 2
  }
}
layer {
  name: "fc4_300"
  type: "InnerProduct"
  bottom: "pool3"
  top: "fc4_300"
  inner_product_param {
    num_output: 300
    weight_filler {
      type: "xavier"
    }
  }
}
layer {
  name: "fc4_prescale"
  type: "Scale"
  bottom: "fc4_300"
  top: "fc4_300"
  param {
    lr_mult: 0
    decay_mult: 0
  }
  scale_param {
    filler {
      value: 0.6666
    }
    bias_term: false
  }
}
layer {
  name: "fc4_sTanH"
  type: "TanH"
  bottom: "fc4_300"
  top: "fc4_300"
}
layer {
  name: "fc4_postscale"
  type: "Scale"
  bottom: "fc4_300"
  top: "fc4_300"
  param {
    lr_mult: 0
    decay_mult: 0
  }
  scale_param {
    filler {
      value: 1.7159
    }
    bias_term: false
  }
}
layer {
  name: "fc5_116"
  type: "InnerProduct"
  bottom: "fc4_300"
  top: "fc5_classes"
  inner_product_param {
    num_output: 116
    weight_filler {
      type: "xavier"
    }
  }
}
layer {
  name: "softmax"
  type: "Softmax"
  bottom: "fc5_classes"
  top: "softmax"
}
layer {
  name: "loss"
  type: "MultinomialLogisticLoss"
  bottom: "softmax"
  bottom: "label"
  top: "loss"
}
layer {
  name: "accuracy_1"
  type: "Accuracy"
  bottom: "fc5_classes"
  bottom: "label"
  top: "accuracy_1"
  accuracy_param {
    top_k: 1
  }
}
layer {
  name: "accuracy_5"
  type: "Accuracy"
  bottom: "fc5_classes"
  bottom: "label"
  top: "accuracy_5"
  accuracy_param {
    top_k: 5
  }
}
layer {
  name: "silence"
  type: "Silence"
  bottom: "accuracy_1"
  bottom: "accuracy_5"
}
I0508 05:11:08.404098  4837 layer_factory.hpp:77] Creating layer data
I0508 05:11:08.405184  4837 net.cpp:100] Creating Layer data
I0508 05:11:08.405199  4837 net.cpp:408] data -> data
I0508 05:11:08.405221  4837 net.cpp:408] data -> label
I0508 05:11:08.407971  4958 db_lmdb.cpp:35] Opened lmdb ../local_data/lmdb/RTSD/AHE/train/lmdb
I0508 05:11:08.429572  4837 data_layer.cpp:41] output data size: 1024,3,48,48
I0508 05:11:08.503901  4837 net.cpp:150] Setting up data
I0508 05:11:08.503931  4837 net.cpp:157] Top shape: 1024 3 48 48 (7077888)
I0508 05:11:08.503937  4837 net.cpp:157] Top shape: 1024 (1024)
I0508 05:11:08.503939  4837 net.cpp:165] Memory required for data: 28315648
I0508 05:11:08.503950  4837 layer_factory.hpp:77] Creating layer label_data_1_split
I0508 05:11:08.503964  4837 net.cpp:100] Creating Layer label_data_1_split
I0508 05:11:08.503971  4837 net.cpp:434] label_data_1_split <- label
I0508 05:11:08.503984  4837 net.cpp:408] label_data_1_split -> label_data_1_split_0
I0508 05:11:08.503998  4837 net.cpp:408] label_data_1_split -> label_data_1_split_1
I0508 05:11:08.504005  4837 net.cpp:408] label_data_1_split -> label_data_1_split_2
I0508 05:11:08.504081  4837 net.cpp:150] Setting up label_data_1_split
I0508 05:11:08.504093  4837 net.cpp:157] Top shape: 1024 (1024)
I0508 05:11:08.504101  4837 net.cpp:157] Top shape: 1024 (1024)
I0508 05:11:08.504106  4837 net.cpp:157] Top shape: 1024 (1024)
I0508 05:11:08.504112  4837 net.cpp:165] Memory required for data: 28327936
I0508 05:11:08.504118  4837 layer_factory.hpp:77] Creating layer conv1
I0508 05:11:08.504139  4837 net.cpp:100] Creating Layer conv1
I0508 05:11:08.504146  4837 net.cpp:434] conv1 <- data
I0508 05:11:08.504153  4837 net.cpp:408] conv1 -> conv1
I0508 05:11:08.953436  4837 net.cpp:150] Setting up conv1
I0508 05:11:08.953469  4837 net.cpp:157] Top shape: 1024 100 42 42 (180633600)
I0508 05:11:08.953474  4837 net.cpp:165] Memory required for data: 750862336
I0508 05:11:08.953501  4837 layer_factory.hpp:77] Creating layer conv1_prescale
I0508 05:11:08.953516  4837 net.cpp:100] Creating Layer conv1_prescale
I0508 05:11:08.953522  4837 net.cpp:434] conv1_prescale <- conv1
I0508 05:11:08.953529  4837 net.cpp:395] conv1_prescale -> conv1 (in-place)
I0508 05:11:08.953661  4837 net.cpp:150] Setting up conv1_prescale
I0508 05:11:08.953675  4837 net.cpp:157] Top shape: 1024 100 42 42 (180633600)
I0508 05:11:08.953681  4837 net.cpp:165] Memory required for data: 1473396736
I0508 05:11:08.953689  4837 layer_factory.hpp:77] Creating layer conv1_sTanH
I0508 05:11:08.953701  4837 net.cpp:100] Creating Layer conv1_sTanH
I0508 05:11:08.953706  4837 net.cpp:434] conv1_sTanH <- conv1
I0508 05:11:08.953711  4837 net.cpp:395] conv1_sTanH -> conv1 (in-place)
I0508 05:11:08.953963  4837 net.cpp:150] Setting up conv1_sTanH
I0508 05:11:08.953976  4837 net.cpp:157] Top shape: 1024 100 42 42 (180633600)
I0508 05:11:08.954001  4837 net.cpp:165] Memory required for data: 2195931136
I0508 05:11:08.954007  4837 layer_factory.hpp:77] Creating layer conv1_postscale
I0508 05:11:08.954018  4837 net.cpp:100] Creating Layer conv1_postscale
I0508 05:11:08.954025  4837 net.cpp:434] conv1_postscale <- conv1
I0508 05:11:08.954031  4837 net.cpp:395] conv1_postscale -> conv1 (in-place)
I0508 05:11:08.954159  4837 net.cpp:150] Setting up conv1_postscale
I0508 05:11:08.954169  4837 net.cpp:157] Top shape: 1024 100 42 42 (180633600)
I0508 05:11:08.954174  4837 net.cpp:165] Memory required for data: 2918465536
I0508 05:11:08.954180  4837 layer_factory.hpp:77] Creating layer pool1
I0508 05:11:08.954191  4837 net.cpp:100] Creating Layer pool1
I0508 05:11:08.954196  4837 net.cpp:434] pool1 <- conv1
I0508 05:11:08.954202  4837 net.cpp:408] pool1 -> pool1
I0508 05:11:08.954263  4837 net.cpp:150] Setting up pool1
I0508 05:11:08.954272  4837 net.cpp:157] Top shape: 1024 100 21 21 (45158400)
I0508 05:11:08.954277  4837 net.cpp:165] Memory required for data: 3099099136
I0508 05:11:08.954282  4837 layer_factory.hpp:77] Creating layer conv2
I0508 05:11:08.954291  4837 net.cpp:100] Creating Layer conv2
I0508 05:11:08.954296  4837 net.cpp:434] conv2 <- pool1
I0508 05:11:08.954303  4837 net.cpp:408] conv2 -> conv2
I0508 05:11:08.965852  4837 net.cpp:150] Setting up conv2
I0508 05:11:08.965874  4837 net.cpp:157] Top shape: 1024 150 18 18 (49766400)
I0508 05:11:08.965880  4837 net.cpp:165] Memory required for data: 3298164736
I0508 05:11:08.965893  4837 layer_factory.hpp:77] Creating layer conv2_prescale
I0508 05:11:08.965909  4837 net.cpp:100] Creating Layer conv2_prescale
I0508 05:11:08.965914  4837 net.cpp:434] conv2_prescale <- conv2
I0508 05:11:08.965921  4837 net.cpp:395] conv2_prescale -> conv2 (in-place)
I0508 05:11:08.966056  4837 net.cpp:150] Setting up conv2_prescale
I0508 05:11:08.966066  4837 net.cpp:157] Top shape: 1024 150 18 18 (49766400)
I0508 05:11:08.966071  4837 net.cpp:165] Memory required for data: 3497230336
I0508 05:11:08.966078  4837 layer_factory.hpp:77] Creating layer conv2_sTanH
I0508 05:11:08.966089  4837 net.cpp:100] Creating Layer conv2_sTanH
I0508 05:11:08.966094  4837 net.cpp:434] conv2_sTanH <- conv2
I0508 05:11:08.966099  4837 net.cpp:395] conv2_sTanH -> conv2 (in-place)
I0508 05:11:08.966326  4837 net.cpp:150] Setting up conv2_sTanH
I0508 05:11:08.966339  4837 net.cpp:157] Top shape: 1024 150 18 18 (49766400)
I0508 05:11:08.966344  4837 net.cpp:165] Memory required for data: 3696295936
I0508 05:11:08.966348  4837 layer_factory.hpp:77] Creating layer conv2_postscale
I0508 05:11:08.966356  4837 net.cpp:100] Creating Layer conv2_postscale
I0508 05:11:08.966363  4837 net.cpp:434] conv2_postscale <- conv2
I0508 05:11:08.966369  4837 net.cpp:395] conv2_postscale -> conv2 (in-place)
I0508 05:11:08.966490  4837 net.cpp:150] Setting up conv2_postscale
I0508 05:11:08.966500  4837 net.cpp:157] Top shape: 1024 150 18 18 (49766400)
I0508 05:11:08.966503  4837 net.cpp:165] Memory required for data: 3895361536
I0508 05:11:08.966509  4837 layer_factory.hpp:77] Creating layer pool2
I0508 05:11:08.966518  4837 net.cpp:100] Creating Layer pool2
I0508 05:11:08.966523  4837 net.cpp:434] pool2 <- conv2
I0508 05:11:08.966531  4837 net.cpp:408] pool2 -> pool2
I0508 05:11:08.966583  4837 net.cpp:150] Setting up pool2
I0508 05:11:08.966593  4837 net.cpp:157] Top shape: 1024 150 9 9 (12441600)
I0508 05:11:08.966598  4837 net.cpp:165] Memory required for data: 3945127936
I0508 05:11:08.966601  4837 layer_factory.hpp:77] Creating layer conv3
I0508 05:11:08.966612  4837 net.cpp:100] Creating Layer conv3
I0508 05:11:08.966617  4837 net.cpp:434] conv3 <- pool2
I0508 05:11:08.966624  4837 net.cpp:408] conv3 -> conv3
I0508 05:11:08.975147  4837 net.cpp:150] Setting up conv3
I0508 05:11:08.975170  4837 net.cpp:157] Top shape: 1024 250 6 6 (9216000)
I0508 05:11:08.975175  4837 net.cpp:165] Memory required for data: 3981991936
I0508 05:11:08.975188  4837 layer_factory.hpp:77] Creating layer conv3_prescale
I0508 05:11:08.975199  4837 net.cpp:100] Creating Layer conv3_prescale
I0508 05:11:08.975222  4837 net.cpp:434] conv3_prescale <- conv3
I0508 05:11:08.975232  4837 net.cpp:395] conv3_prescale -> conv3 (in-place)
I0508 05:11:08.975355  4837 net.cpp:150] Setting up conv3_prescale
I0508 05:11:08.975365  4837 net.cpp:157] Top shape: 1024 250 6 6 (9216000)
I0508 05:11:08.975370  4837 net.cpp:165] Memory required for data: 4018855936
I0508 05:11:08.975376  4837 layer_factory.hpp:77] Creating layer conv3_sTanH
I0508 05:11:08.975384  4837 net.cpp:100] Creating Layer conv3_sTanH
I0508 05:11:08.975389  4837 net.cpp:434] conv3_sTanH <- conv3
I0508 05:11:08.975396  4837 net.cpp:395] conv3_sTanH -> conv3 (in-place)
I0508 05:11:08.975626  4837 net.cpp:150] Setting up conv3_sTanH
I0508 05:11:08.975639  4837 net.cpp:157] Top shape: 1024 250 6 6 (9216000)
I0508 05:11:08.975644  4837 net.cpp:165] Memory required for data: 4055719936
I0508 05:11:08.975648  4837 layer_factory.hpp:77] Creating layer conv3_postscale
I0508 05:11:08.975661  4837 net.cpp:100] Creating Layer conv3_postscale
I0508 05:11:08.975666  4837 net.cpp:434] conv3_postscale <- conv3
I0508 05:11:08.975672  4837 net.cpp:395] conv3_postscale -> conv3 (in-place)
I0508 05:11:08.975791  4837 net.cpp:150] Setting up conv3_postscale
I0508 05:11:08.975800  4837 net.cpp:157] Top shape: 1024 250 6 6 (9216000)
I0508 05:11:08.975805  4837 net.cpp:165] Memory required for data: 4092583936
I0508 05:11:08.975811  4837 layer_factory.hpp:77] Creating layer pool3
I0508 05:11:08.975823  4837 net.cpp:100] Creating Layer pool3
I0508 05:11:08.975829  4837 net.cpp:434] pool3 <- conv3
I0508 05:11:08.975836  4837 net.cpp:408] pool3 -> pool3
I0508 05:11:08.975901  4837 net.cpp:150] Setting up pool3
I0508 05:11:08.975911  4837 net.cpp:157] Top shape: 1024 250 3 3 (2304000)
I0508 05:11:08.975916  4837 net.cpp:165] Memory required for data: 4101799936
I0508 05:11:08.975919  4837 layer_factory.hpp:77] Creating layer fc4_300
I0508 05:11:08.975929  4837 net.cpp:100] Creating Layer fc4_300
I0508 05:11:08.975935  4837 net.cpp:434] fc4_300 <- pool3
I0508 05:11:08.975941  4837 net.cpp:408] fc4_300 -> fc4_300
I0508 05:11:08.985301  4837 net.cpp:150] Setting up fc4_300
I0508 05:11:08.985322  4837 net.cpp:157] Top shape: 1024 300 (307200)
I0508 05:11:08.985328  4837 net.cpp:165] Memory required for data: 4103028736
I0508 05:11:08.985337  4837 layer_factory.hpp:77] Creating layer fc4_prescale
I0508 05:11:08.985347  4837 net.cpp:100] Creating Layer fc4_prescale
I0508 05:11:08.985353  4837 net.cpp:434] fc4_prescale <- fc4_300
I0508 05:11:08.985363  4837 net.cpp:395] fc4_prescale -> fc4_300 (in-place)
I0508 05:11:08.985482  4837 net.cpp:150] Setting up fc4_prescale
I0508 05:11:08.985491  4837 net.cpp:157] Top shape: 1024 300 (307200)
I0508 05:11:08.985496  4837 net.cpp:165] Memory required for data: 4104257536
I0508 05:11:08.985502  4837 layer_factory.hpp:77] Creating layer fc4_sTanH
I0508 05:11:08.985510  4837 net.cpp:100] Creating Layer fc4_sTanH
I0508 05:11:08.985515  4837 net.cpp:434] fc4_sTanH <- fc4_300
I0508 05:11:08.985520  4837 net.cpp:395] fc4_sTanH -> fc4_300 (in-place)
I0508 05:11:08.988463  4837 net.cpp:150] Setting up fc4_sTanH
I0508 05:11:08.988483  4837 net.cpp:157] Top shape: 1024 300 (307200)
I0508 05:11:08.988488  4837 net.cpp:165] Memory required for data: 4105486336
I0508 05:11:08.988492  4837 layer_factory.hpp:77] Creating layer fc4_postscale
I0508 05:11:08.988507  4837 net.cpp:100] Creating Layer fc4_postscale
I0508 05:11:08.988512  4837 net.cpp:434] fc4_postscale <- fc4_300
I0508 05:11:08.988519  4837 net.cpp:395] fc4_postscale -> fc4_300 (in-place)
I0508 05:11:08.988651  4837 net.cpp:150] Setting up fc4_postscale
I0508 05:11:08.988661  4837 net.cpp:157] Top shape: 1024 300 (307200)
I0508 05:11:08.988665  4837 net.cpp:165] Memory required for data: 4106715136
I0508 05:11:08.988672  4837 layer_factory.hpp:77] Creating layer fc5_116
I0508 05:11:08.988680  4837 net.cpp:100] Creating Layer fc5_116
I0508 05:11:08.988685  4837 net.cpp:434] fc5_116 <- fc4_300
I0508 05:11:08.988693  4837 net.cpp:408] fc5_116 -> fc5_classes
I0508 05:11:08.992339  4837 net.cpp:150] Setting up fc5_116
I0508 05:11:08.992358  4837 net.cpp:157] Top shape: 1024 116 (118784)
I0508 05:11:08.992363  4837 net.cpp:165] Memory required for data: 4107190272
I0508 05:11:08.992378  4837 layer_factory.hpp:77] Creating layer fc5_classes_fc5_116_0_split
I0508 05:11:08.992389  4837 net.cpp:100] Creating Layer fc5_classes_fc5_116_0_split
I0508 05:11:08.992394  4837 net.cpp:434] fc5_classes_fc5_116_0_split <- fc5_classes
I0508 05:11:08.992401  4837 net.cpp:408] fc5_classes_fc5_116_0_split -> fc5_classes_fc5_116_0_split_0
I0508 05:11:08.992413  4837 net.cpp:408] fc5_classes_fc5_116_0_split -> fc5_classes_fc5_116_0_split_1
I0508 05:11:08.992424  4837 net.cpp:408] fc5_classes_fc5_116_0_split -> fc5_classes_fc5_116_0_split_2
I0508 05:11:08.992488  4837 net.cpp:150] Setting up fc5_classes_fc5_116_0_split
I0508 05:11:08.992497  4837 net.cpp:157] Top shape: 1024 116 (118784)
I0508 05:11:08.992502  4837 net.cpp:157] Top shape: 1024 116 (118784)
I0508 05:11:08.992506  4837 net.cpp:157] Top shape: 1024 116 (118784)
I0508 05:11:08.992511  4837 net.cpp:165] Memory required for data: 4108615680
I0508 05:11:08.992516  4837 layer_factory.hpp:77] Creating layer softmax
I0508 05:11:08.992522  4837 net.cpp:100] Creating Layer softmax
I0508 05:11:08.992527  4837 net.cpp:434] softmax <- fc5_classes_fc5_116_0_split_0
I0508 05:11:08.992533  4837 net.cpp:408] softmax -> softmax
I0508 05:11:08.992851  4837 net.cpp:150] Setting up softmax
I0508 05:11:08.992867  4837 net.cpp:157] Top shape: 1024 116 (118784)
I0508 05:11:08.992872  4837 net.cpp:165] Memory required for data: 4109090816
I0508 05:11:08.992877  4837 layer_factory.hpp:77] Creating layer loss
I0508 05:11:08.992887  4837 net.cpp:100] Creating Layer loss
I0508 05:11:08.992892  4837 net.cpp:434] loss <- softmax
I0508 05:11:08.992897  4837 net.cpp:434] loss <- label_data_1_split_0
I0508 05:11:08.992904  4837 net.cpp:408] loss -> loss
…
