…
I0409 07:44:28.474948 13023 net.cpp:322] The NetState phase (0) differed from the phase (1) specified by a rule in layer accuracy_5
I0409 07:44:28.475128 13023 net.cpp:58] Initializing net from parameters: 
state {
  phase: TRAIN
  level: 0
  stage: ""
}
layer {
  name: "data"
  type: "Data"
  top: "data"
  top: "label"
  include {
    phase: TRAIN
  }
  transform_param {
    mirror: false
    crop_size: 48
    mean_value: 132
    mean_value: 126
    mean_value: 140
  }
  data_param {
    source: "../local_data/lmdb/rtsd-r1/AHE/train/lmdb"
    batch_size: 1024
    backend: LMDB
  }
}
layer {
  name: "conv1"
  type: "Convolution"
  bottom: "data"
  top: "conv1"
  convolution_param {
    num_output: 100
    pad: 0
    kernel_size: 7
    group: 1
    stride: 1
    weight_filler {
      type: "xavier"
    }
  }
}
layer {
  name: "conv1_relu"
  type: "ReLU"
  bottom: "conv1"
  top: "conv1"
}
layer {
  name: "pool1"
  type: "Pooling"
  bottom: "conv1"
  top: "pool1"
  pooling_param {
    pool: MAX
    kernel_size: 2
    stride: 2
  }
}
layer {
  name: "conv2"
  type: "Convolution"
  bottom: "pool1"
  top: "conv2"
  convolution_param {
    num_output: 150
    pad: 0
    kernel_size: 4
    group: 1
    stride: 1
    weight_filler {
      type: "xavier"
    }
  }
}
layer {
  name: "conv2_relu"
  type: "ReLU"
  bottom: "conv2"
  top: "conv2"
}
layer {
  name: "pool2"
  type: "Pooling"
  bottom: "conv2"
  top: "pool2"
  pooling_param {
    pool: MAX
    kernel_size: 2
    stride: 2
  }
}
layer {
  name: "conv3"
  type: "Convolution"
  bottom: "pool2"
  top: "conv3"
  convolution_param {
    num_output: 250
    pad: 0
    kernel_size: 4
    group: 1
    stride: 1
    weight_filler {
      type: "xavier"
    }
  }
}
layer {
  name: "conv3_relu"
  type: "ReLU"
  bottom: "conv3"
  top: "conv3"
}
layer {
  name: "pool3"
  type: "Pooling"
  bottom: "conv3"
  top: "pool3"
  pooling_param {
    pool: MAX
    kernel_size: 2
    stride: 2
  }
}
layer {
  name: "fc4_300"
  type: "InnerProduct"
  bottom: "pool3"
  top: "fc4_300"
  inner_product_param {
    num_output: 300
    weight_filler {
      type: "xavier"
    }
  }
}
layer {
  name: "fc4_relu"
  type: "ReLU"
  bottom: "fc4_300"
  top: "fc4_300"
}
layer {
  name: "drop4"
  type: "Dropout"
  bottom: "fc4_300"
  top: "fc4_300"
  dropout_param {
    dropout_ratio: 0.4
  }
}
layer {
  name: "fc5_67"
  type: "InnerProduct"
  bottom: "fc4_300"
  top: "fc5_classes"
  inner_product_param {
    num_output: 67
    weight_filler {
      type: "xavier"
    }
  }
}
layer {
  name: "loss"
  type: "SoftmaxWithLoss"
  bottom: "fc5_classes"
  bottom: "label"
  top: "loss"
}
I0409 07:44:28.475250 13023 layer_factory.hpp:77] Creating layer data
I0409 07:44:28.477509 13023 net.cpp:100] Creating Layer data
I0409 07:44:28.477567 13023 net.cpp:408] data -> data
I0409 07:44:28.477610 13023 net.cpp:408] data -> label
I0409 07:44:28.479128 13086 db_lmdb.cpp:35] Opened lmdb ../local_data/lmdb/rtsd-r1/AHE/train/lmdb
I0409 07:44:28.508628 13023 data_layer.cpp:41] output data size: 1024,3,48,48
I0409 07:44:28.568087 13023 net.cpp:150] Setting up data
I0409 07:44:28.568128 13023 net.cpp:157] Top shape: 1024 3 48 48 (7077888)
I0409 07:44:28.568136 13023 net.cpp:157] Top shape: 1024 (1024)
I0409 07:44:28.568178 13023 net.cpp:165] Memory required for data: 28315648
I0409 07:44:28.568192 13023 layer_factory.hpp:77] Creating layer conv1
I0409 07:44:28.568217 13023 net.cpp:100] Creating Layer conv1
I0409 07:44:28.568228 13023 net.cpp:434] conv1 <- data
I0409 07:44:28.568253 13023 net.cpp:408] conv1 -> conv1
I0409 07:44:28.899961 13023 net.cpp:150] Setting up conv1
I0409 07:44:28.899994 13023 net.cpp:157] Top shape: 1024 100 42 42 (180633600)
I0409 07:44:28.899999 13023 net.cpp:165] Memory required for data: 750850048
I0409 07:44:28.900020 13023 layer_factory.hpp:77] Creating layer conv1_relu
I0409 07:44:28.900032 13023 net.cpp:100] Creating Layer conv1_relu
I0409 07:44:28.900038 13023 net.cpp:434] conv1_relu <- conv1
I0409 07:44:28.900045 13023 net.cpp:395] conv1_relu -> conv1 (in-place)
I0409 07:44:28.900264 13023 net.cpp:150] Setting up conv1_relu
I0409 07:44:28.900276 13023 net.cpp:157] Top shape: 1024 100 42 42 (180633600)
I0409 07:44:28.900280 13023 net.cpp:165] Memory required for data: 1473384448
I0409 07:44:28.900285 13023 layer_factory.hpp:77] Creating layer pool1
I0409 07:44:28.900293 13023 net.cpp:100] Creating Layer pool1
I0409 07:44:28.900297 13023 net.cpp:434] pool1 <- conv1
I0409 07:44:28.900302 13023 net.cpp:408] pool1 -> pool1
I0409 07:44:28.900359 13023 net.cpp:150] Setting up pool1
I0409 07:44:28.900368 13023 net.cpp:157] Top shape: 1024 100 21 21 (45158400)
I0409 07:44:28.900372 13023 net.cpp:165] Memory required for data: 1654018048
I0409 07:44:28.900375 13023 layer_factory.hpp:77] Creating layer conv2
I0409 07:44:28.900388 13023 net.cpp:100] Creating Layer conv2
I0409 07:44:28.900393 13023 net.cpp:434] conv2 <- pool1
I0409 07:44:28.900400 13023 net.cpp:408] conv2 -> conv2
I0409 07:44:28.904707 13023 net.cpp:150] Setting up conv2
I0409 07:44:28.904737 13023 net.cpp:157] Top shape: 1024 150 18 18 (49766400)
I0409 07:44:28.904742 13023 net.cpp:165] Memory required for data: 1853083648
I0409 07:44:28.904752 13023 layer_factory.hpp:77] Creating layer conv2_relu
I0409 07:44:28.904759 13023 net.cpp:100] Creating Layer conv2_relu
I0409 07:44:28.904762 13023 net.cpp:434] conv2_relu <- conv2
I0409 07:44:28.904773 13023 net.cpp:395] conv2_relu -> conv2 (in-place)
I0409 07:44:28.905525 13023 net.cpp:150] Setting up conv2_relu
I0409 07:44:28.905542 13023 net.cpp:157] Top shape: 1024 150 18 18 (49766400)
I0409 07:44:28.905545 13023 net.cpp:165] Memory required for data: 2052149248
I0409 07:44:28.905550 13023 layer_factory.hpp:77] Creating layer pool2
I0409 07:44:28.905556 13023 net.cpp:100] Creating Layer pool2
I0409 07:44:28.905560 13023 net.cpp:434] pool2 <- conv2
I0409 07:44:28.905566 13023 net.cpp:408] pool2 -> pool2
I0409 07:44:28.905625 13023 net.cpp:150] Setting up pool2
I0409 07:44:28.905634 13023 net.cpp:157] Top shape: 1024 150 9 9 (12441600)
I0409 07:44:28.905637 13023 net.cpp:165] Memory required for data: 2101915648
I0409 07:44:28.905642 13023 layer_factory.hpp:77] Creating layer conv3
I0409 07:44:28.905650 13023 net.cpp:100] Creating Layer conv3
I0409 07:44:28.905656 13023 net.cpp:434] conv3 <- pool2
I0409 07:44:28.905663 13023 net.cpp:408] conv3 -> conv3
I0409 07:44:28.911139 13023 net.cpp:150] Setting up conv3
I0409 07:44:28.911157 13023 net.cpp:157] Top shape: 1024 250 6 6 (9216000)
I0409 07:44:28.911161 13023 net.cpp:165] Memory required for data: 2138779648
I0409 07:44:28.911171 13023 layer_factory.hpp:77] Creating layer conv3_relu
I0409 07:44:28.911181 13023 net.cpp:100] Creating Layer conv3_relu
I0409 07:44:28.911185 13023 net.cpp:434] conv3_relu <- conv3
I0409 07:44:28.911190 13023 net.cpp:395] conv3_relu -> conv3 (in-place)
I0409 07:44:28.911960 13023 net.cpp:150] Setting up conv3_relu
I0409 07:44:28.911978 13023 net.cpp:157] Top shape: 1024 250 6 6 (9216000)
I0409 07:44:28.911983 13023 net.cpp:165] Memory required for data: 2175643648
I0409 07:44:28.911986 13023 layer_factory.hpp:77] Creating layer pool3
I0409 07:44:28.911993 13023 net.cpp:100] Creating Layer pool3
I0409 07:44:28.911996 13023 net.cpp:434] pool3 <- conv3
I0409 07:44:28.912003 13023 net.cpp:408] pool3 -> pool3
I0409 07:44:28.912073 13023 net.cpp:150] Setting up pool3
I0409 07:44:28.912084 13023 net.cpp:157] Top shape: 1024 250 3 3 (2304000)
I0409 07:44:28.912087 13023 net.cpp:165] Memory required for data: 2184859648
I0409 07:44:28.912091 13023 layer_factory.hpp:77] Creating layer fc4_300
I0409 07:44:28.912098 13023 net.cpp:100] Creating Layer fc4_300
I0409 07:44:28.912103 13023 net.cpp:434] fc4_300 <- pool3
I0409 07:44:28.912111 13023 net.cpp:408] fc4_300 -> fc4_300
I0409 07:44:28.917428 13023 net.cpp:150] Setting up fc4_300
I0409 07:44:28.917443 13023 net.cpp:157] Top shape: 1024 300 (307200)
I0409 07:44:28.917448 13023 net.cpp:165] Memory required for data: 2186088448
I0409 07:44:28.917454 13023 layer_factory.hpp:77] Creating layer fc4_relu
I0409 07:44:28.917460 13023 net.cpp:100] Creating Layer fc4_relu
I0409 07:44:28.917464 13023 net.cpp:434] fc4_relu <- fc4_300
I0409 07:44:28.917470 13023 net.cpp:395] fc4_relu -> fc4_300 (in-place)
I0409 07:44:28.917665 13023 net.cpp:150] Setting up fc4_relu
I0409 07:44:28.917677 13023 net.cpp:157] Top shape: 1024 300 (307200)
I0409 07:44:28.917681 13023 net.cpp:165] Memory required for data: 2187317248
I0409 07:44:28.917685 13023 layer_factory.hpp:77] Creating layer drop4
I0409 07:44:28.917693 13023 net.cpp:100] Creating Layer drop4
I0409 07:44:28.917696 13023 net.cpp:434] drop4 <- fc4_300
I0409 07:44:28.917701 13023 net.cpp:395] drop4 -> fc4_300 (in-place)
I0409 07:44:28.917737 13023 net.cpp:150] Setting up drop4
I0409 07:44:28.917744 13023 net.cpp:157] Top shape: 1024 300 (307200)
I0409 07:44:28.917747 13023 net.cpp:165] Memory required for data: 2188546048
I0409 07:44:28.917752 13023 layer_factory.hpp:77] Creating layer fc5_67
I0409 07:44:28.917757 13023 net.cpp:100] Creating Layer fc5_67
I0409 07:44:28.917762 13023 net.cpp:434] fc5_67 <- fc4_300
I0409 07:44:28.917769 13023 net.cpp:408] fc5_67 -> fc5_classes
I0409 07:44:28.918938 13023 net.cpp:150] Setting up fc5_67
I0409 07:44:28.918953 13023 net.cpp:157] Top shape: 1024 67 (68608)
I0409 07:44:28.918957 13023 net.cpp:165] Memory required for data: 2188820480
I0409 07:44:28.918967 13023 layer_factory.hpp:77] Creating layer loss
I0409 07:44:28.918974 13023 net.cpp:100] Creating Layer loss
I0409 07:44:28.918978 13023 net.cpp:434] loss <- fc5_classes
I0409 07:44:28.918983 13023 net.cpp:434] loss <- label
I0409 07:44:28.918992 13023 net.cpp:408] loss -> loss
I0409 07:44:28.919004 13023 layer_factory.hpp:77] Creating layer loss
…
I0409 07:44:28.919661 13023 solver.cpp:193] Creating test net (#0) specified by test_net file: ./Prototxt/experiment_6/rtsd-r1/AHE/trial_3/test.prototxt
I0409 07:44:28.919800 13023 net.cpp:58] Initializing net from parameters: 
state {
  phase: TEST
}
layer {
  name: "data"
  type: "Data"
  top: "data"
  top: "label"
  include {
    phase: TEST
  }
  transform_param {
    mirror: false
    crop_size: 48
    mean_value: 126
    mean_value: 124
    mean_value: 145
  }
  data_param {
    source: "../local_data/lmdb/rtsd-r1/AHE/test/lmdb"
    batch_size: 1024
    backend: LMDB
  }
}
layer {
  name: "conv1"
  type: "Convolution"
  bottom: "data"
  top: "conv1"
  convolution_param {
    num_output: 100
    pad: 0
    kernel_size: 7
    group: 1
    stride: 1
    weight_filler {
      type: "xavier"
    }
  }
}
layer {
  name: "conv1_relu"
  type: "ReLU"
  bottom: "conv1"
  top: "conv1"
}
layer {
  name: "pool1"
  type: "Pooling"
  bottom: "conv1"
  top: "pool1"
  pooling_param {
    pool: MAX
    kernel_size: 2
    stride: 2
  }
}
layer {
  name: "conv2"
  type: "Convolution"
  bottom: "pool1"
  top: "conv2"
  convolution_param {
    num_output: 150
    pad: 0
    kernel_size: 4
    group: 1
    stride: 1
    weight_filler {
      type: "xavier"
    }
  }
}
layer {
  name: "conv2_relu"
  type: "ReLU"
  bottom: "conv2"
  top: "conv2"
}
layer {
  name: "pool2"
  type: "Pooling"
  bottom: "conv2"
  top: "pool2"
  pooling_param {
    pool: MAX
    kernel_size: 2
    stride: 2
  }
}
layer {
  name: "conv3"
  type: "Convolution"
  bottom: "pool2"
  top: "conv3"
  convolution_param {
    num_output: 250
    pad: 0
    kernel_size: 4
    group: 1
    stride: 1
    weight_filler {
      type: "xavier"
    }
  }
}
layer {
  name: "conv3_relu"
  type: "ReLU"
  bottom: "conv3"
  top: "conv3"
}
layer {
  name: "pool3"
  type: "Pooling"
  bottom: "conv3"
  top: "pool3"
  pooling_param {
    pool: MAX
    kernel_size: 2
    stride: 2
  }
}
layer {
  name: "fc4_300"
  type: "InnerProduct"
  bottom: "pool3"
  top: "fc4_300"
  inner_product_param {
    num_output: 300
    weight_filler {
      type: "xavier"
    }
  }
}
layer {
  name: "fc4_relu"
  type: "ReLU"
  bottom: "fc4_300"
  top: "fc4_300"
}
layer {
  name: "drop4"
  type: "Dropout"
  bottom: "fc4_300"
  top: "fc4_300"
  dropout_param {
    dropout_ratio: 0.4
  }
}
layer {
  name: "fc5_67"
  type: "InnerProduct"
  bottom: "fc4_300"
  top: "fc5_classes"
  inner_product_param {
    num_output: 67
    weight_filler {
      type: "xavier"
    }
  }
}
layer {
  name: "loss"
  type: "SoftmaxWithLoss"
  bottom: "fc5_classes"
  bottom: "label"
  top: "loss"
}
layer {
  name: "accuracy_1"
  type: "Accuracy"
  bottom: "fc5_classes"
  bottom: "label"
  top: "accuracy_1"
  include {
    phase: TEST
  }
  accuracy_param {
    top_k: 1
  }
}
layer {
  name: "accuracy_5"
  type: "Accuracy"
  bottom: "fc5_classes"
  bottom: "label"
  top: "accuracy_5"
  include {
    phase: TEST
  }
  accuracy_param {
    top_k: 5
  }
}
I0409 07:44:28.919901 13023 layer_factory.hpp:77] Creating layer data
I0409 07:44:28.920563 13023 net.cpp:100] Creating Layer data
I0409 07:44:28.920575 13023 net.cpp:408] data -> data
I0409 07:44:28.920586 13023 net.cpp:408] data -> label
I0409 07:44:28.921810 13101 db_lmdb.cpp:35] Opened lmdb ../local_data/lmdb/rtsd-r1/AHE/test/lmdb
I0409 07:44:28.921973 13023 data_layer.cpp:41] output data size: 1024,3,48,48
I0409 07:44:28.960948 13023 net.cpp:150] Setting up data
I0409 07:44:28.960974 13023 net.cpp:157] Top shape: 1024 3 48 48 (7077888)
I0409 07:44:28.960980 13023 net.cpp:157] Top shape: 1024 (1024)
I0409 07:44:28.960983 13023 net.cpp:165] Memory required for data: 28315648
I0409 07:44:28.960989 13023 layer_factory.hpp:77] Creating layer label_data_1_split
I0409 07:44:28.961002 13023 net.cpp:100] Creating Layer label_data_1_split
I0409 07:44:28.961007 13023 net.cpp:434] label_data_1_split <- label
I0409 07:44:28.961015 13023 net.cpp:408] label_data_1_split -> label_data_1_split_0
I0409 07:44:28.961026 13023 net.cpp:408] label_data_1_split -> label_data_1_split_1
I0409 07:44:28.961033 13023 net.cpp:408] label_data_1_split -> label_data_1_split_2
I0409 07:44:28.961199 13023 net.cpp:150] Setting up label_data_1_split
I0409 07:44:28.961211 13023 net.cpp:157] Top shape: 1024 (1024)
I0409 07:44:28.961215 13023 net.cpp:157] Top shape: 1024 (1024)
I0409 07:44:28.961218 13023 net.cpp:157] Top shape: 1024 (1024)
I0409 07:44:28.961221 13023 net.cpp:165] Memory required for data: 28327936
I0409 07:44:28.961225 13023 layer_factory.hpp:77] Creating layer conv1
I0409 07:44:28.961239 13023 net.cpp:100] Creating Layer conv1
I0409 07:44:28.961244 13023 net.cpp:434] conv1 <- data
I0409 07:44:28.961253 13023 net.cpp:408] conv1 -> conv1
I0409 07:44:28.963244 13023 net.cpp:150] Setting up conv1
I0409 07:44:28.963260 13023 net.cpp:157] Top shape: 1024 100 42 42 (180633600)
I0409 07:44:28.963264 13023 net.cpp:165] Memory required for data: 750862336
I0409 07:44:28.963276 13023 layer_factory.hpp:77] Creating layer conv1_relu
I0409 07:44:28.963310 13023 net.cpp:100] Creating Layer conv1_relu
I0409 07:44:28.963320 13023 net.cpp:434] conv1_relu <- conv1
I0409 07:44:28.963330 13023 net.cpp:395] conv1_relu -> conv1 (in-place)
I0409 07:44:28.965893 13023 net.cpp:150] Setting up conv1_relu
I0409 07:44:28.965929 13023 net.cpp:157] Top shape: 1024 100 42 42 (180633600)
I0409 07:44:28.965937 13023 net.cpp:165] Memory required for data: 1473396736
I0409 07:44:28.965946 13023 layer_factory.hpp:77] Creating layer pool1
I0409 07:44:28.965971 13023 net.cpp:100] Creating Layer pool1
I0409 07:44:28.965986 13023 net.cpp:434] pool1 <- conv1
I0409 07:44:28.966001 13023 net.cpp:408] pool1 -> pool1
I0409 07:44:28.966126 13023 net.cpp:150] Setting up pool1
I0409 07:44:28.966135 13023 net.cpp:157] Top shape: 1024 100 21 21 (45158400)
I0409 07:44:28.966140 13023 net.cpp:165] Memory required for data: 1654030336
I0409 07:44:28.966142 13023 layer_factory.hpp:77] Creating layer conv2
I0409 07:44:28.966152 13023 net.cpp:100] Creating Layer conv2
I0409 07:44:28.966156 13023 net.cpp:434] conv2 <- pool1
I0409 07:44:28.966174 13023 net.cpp:408] conv2 -> conv2
I0409 07:44:28.970178 13023 net.cpp:150] Setting up conv2
I0409 07:44:28.970197 13023 net.cpp:157] Top shape: 1024 150 18 18 (49766400)
I0409 07:44:28.970201 13023 net.cpp:165] Memory required for data: 1853095936
I0409 07:44:28.970212 13023 layer_factory.hpp:77] Creating layer conv2_relu
I0409 07:44:28.970227 13023 net.cpp:100] Creating Layer conv2_relu
I0409 07:44:28.970232 13023 net.cpp:434] conv2_relu <- conv2
I0409 07:44:28.970240 13023 net.cpp:395] conv2_relu -> conv2 (in-place)
I0409 07:44:28.971130 13023 net.cpp:150] Setting up conv2_relu
I0409 07:44:28.971149 13023 net.cpp:157] Top shape: 1024 150 18 18 (49766400)
I0409 07:44:28.971154 13023 net.cpp:165] Memory required for data: 2052161536
I0409 07:44:28.971158 13023 layer_factory.hpp:77] Creating layer pool2
I0409 07:44:28.971165 13023 net.cpp:100] Creating Layer pool2
I0409 07:44:28.971169 13023 net.cpp:434] pool2 <- conv2
I0409 07:44:28.971177 13023 net.cpp:408] pool2 -> pool2
I0409 07:44:28.971231 13023 net.cpp:150] Setting up pool2
I0409 07:44:28.971241 13023 net.cpp:157] Top shape: 1024 150 9 9 (12441600)
I0409 07:44:28.971249 13023 net.cpp:165] Memory required for data: 2101927936
I0409 07:44:28.971253 13023 layer_factory.hpp:77] Creating layer conv3
I0409 07:44:28.971264 13023 net.cpp:100] Creating Layer conv3
I0409 07:44:28.971271 13023 net.cpp:434] conv3 <- pool2
I0409 07:44:28.971276 13023 net.cpp:408] conv3 -> conv3
I0409 07:44:28.976979 13023 net.cpp:150] Setting up conv3
I0409 07:44:28.976999 13023 net.cpp:157] Top shape: 1024 250 6 6 (9216000)
I0409 07:44:28.977002 13023 net.cpp:165] Memory required for data: 2138791936
I0409 07:44:28.977012 13023 layer_factory.hpp:77] Creating layer conv3_relu
I0409 07:44:28.977020 13023 net.cpp:100] Creating Layer conv3_relu
I0409 07:44:28.977023 13023 net.cpp:434] conv3_relu <- conv3
I0409 07:44:28.977030 13023 net.cpp:395] conv3_relu -> conv3 (in-place)
I0409 07:44:28.978425 13023 net.cpp:150] Setting up conv3_relu
I0409 07:44:28.978440 13023 net.cpp:157] Top shape: 1024 250 6 6 (9216000)
I0409 07:44:28.978444 13023 net.cpp:165] Memory required for data: 2175655936
I0409 07:44:28.978466 13023 layer_factory.hpp:77] Creating layer pool3
I0409 07:44:28.978473 13023 net.cpp:100] Creating Layer pool3
I0409 07:44:28.978477 13023 net.cpp:434] pool3 <- conv3
I0409 07:44:28.978484 13023 net.cpp:408] pool3 -> pool3
I0409 07:44:28.978541 13023 net.cpp:150] Setting up pool3
I0409 07:44:28.978551 13023 net.cpp:157] Top shape: 1024 250 3 3 (2304000)
I0409 07:44:28.978559 13023 net.cpp:165] Memory required for data: 2184871936
I0409 07:44:28.978562 13023 layer_factory.hpp:77] Creating layer fc4_300
I0409 07:44:28.978572 13023 net.cpp:100] Creating Layer fc4_300
I0409 07:44:28.978577 13023 net.cpp:434] fc4_300 <- pool3
I0409 07:44:28.978585 13023 net.cpp:408] fc4_300 -> fc4_300
I0409 07:44:28.984552 13023 net.cpp:150] Setting up fc4_300
I0409 07:44:28.984570 13023 net.cpp:157] Top shape: 1024 300 (307200)
I0409 07:44:28.984576 13023 net.cpp:165] Memory required for data: 2186100736
I0409 07:44:28.984593 13023 layer_factory.hpp:77] Creating layer fc4_relu
I0409 07:44:28.984601 13023 net.cpp:100] Creating Layer fc4_relu
I0409 07:44:28.984607 13023 net.cpp:434] fc4_relu <- fc4_300
I0409 07:44:28.984612 13023 net.cpp:395] fc4_relu -> fc4_300 (in-place)
I0409 07:44:28.984812 13023 net.cpp:150] Setting up fc4_relu
I0409 07:44:28.984824 13023 net.cpp:157] Top shape: 1024 300 (307200)
I0409 07:44:28.984836 13023 net.cpp:165] Memory required for data: 2187329536
I0409 07:44:28.984839 13023 layer_factory.hpp:77] Creating layer drop4
I0409 07:44:28.984848 13023 net.cpp:100] Creating Layer drop4
I0409 07:44:28.984853 13023 net.cpp:434] drop4 <- fc4_300
I0409 07:44:28.984859 13023 net.cpp:395] drop4 -> fc4_300 (in-place)
I0409 07:44:28.984890 13023 net.cpp:150] Setting up drop4
I0409 07:44:28.984899 13023 net.cpp:157] Top shape: 1024 300 (307200)
I0409 07:44:28.984901 13023 net.cpp:165] Memory required for data: 2188558336
I0409 07:44:28.984905 13023 layer_factory.hpp:77] Creating layer fc5_67
I0409 07:44:28.984913 13023 net.cpp:100] Creating Layer fc5_67
I0409 07:44:28.984917 13023 net.cpp:434] fc5_67 <- fc4_300
I0409 07:44:28.984922 13023 net.cpp:408] fc5_67 -> fc5_classes
I0409 07:44:28.985177 13023 net.cpp:150] Setting up fc5_67
I0409 07:44:28.985186 13023 net.cpp:157] Top shape: 1024 67 (68608)
I0409 07:44:28.985189 13023 net.cpp:165] Memory required for data: 2188832768
I0409 07:44:28.985201 13023 layer_factory.hpp:77] Creating layer fc5_classes_fc5_67_0_split
I0409 07:44:28.985210 13023 net.cpp:100] Creating Layer fc5_classes_fc5_67_0_split
I0409 07:44:28.985213 13023 net.cpp:434] fc5_classes_fc5_67_0_split <- fc5_classes
I0409 07:44:28.985219 13023 net.cpp:408] fc5_classes_fc5_67_0_split -> fc5_classes_fc5_67_0_split_0
I0409 07:44:28.985229 13023 net.cpp:408] fc5_classes_fc5_67_0_split -> fc5_classes_fc5_67_0_split_1
I0409 07:44:28.985235 13023 net.cpp:408] fc5_classes_fc5_67_0_split -> fc5_classes_fc5_67_0_split_2
I0409 07:44:28.985290 13023 net.cpp:150] Setting up fc5_classes_fc5_67_0_split
I0409 07:44:28.985296 13023 net.cpp:157] Top shape: 1024 67 (68608)
I0409 07:44:28.985301 13023 net.cpp:157] Top shape: 1024 67 (68608)
I0409 07:44:28.985306 13023 net.cpp:157] Top shape: 1024 67 (68608)
I0409 07:44:28.985308 13023 net.cpp:165] Memory required for data: 2189656064
I0409 07:44:28.985311 13023 layer_factory.hpp:77] Creating layer loss
I0409 07:44:28.985321 13023 net.cpp:100] Creating Layer loss
I0409 07:44:28.985325 13023 net.cpp:434] loss <- fc5_classes_fc5_67_0_split_0
I0409 07:44:28.985330 13023 net.cpp:434] loss <- label_data_1_split_0
I0409 07:44:28.985335 13023 net.cpp:408] loss -> loss
…
