…
I0528 00:18:37.894199 18667 solver.cpp:81] Creating training net from train_net file: ./Prototxt/experiment_20/RTSD/AHE/trial_3/train.prototxt
I0528 00:18:37.894564 18667 net.cpp:58] Initializing net from parameters: 
state {
  phase: TRAIN
  level: 0
  stage: ""
}
layer {
  name: "data"
  type: "Data"
  top: "data"
  top: "label"
  include {
    phase: TRAIN
  }
  transform_param {
    scale: 0.0039215689
    mirror: false
    crop_size: 48
    mean_value: 133
    mean_value: 127
    mean_value: 126
  }
  data_param {
    source: "../local_data/lmdb/RTSD/AHE/train/lmdb"
    batch_size: 1024
    backend: LMDB
  }
}
layer {
  name: "conv1"
  type: "Convolution"
  bottom: "data"
  top: "conv1"
  convolution_param {
    num_output: 100
    pad: 0
    kernel_size: 7
    group: 1
    stride: 1
    weight_filler {
      type: "xavier"
    }
  }
}
layer {
  name: "conv1_relu"
  type: "ReLU"
  bottom: "conv1"
  top: "conv1"
}
layer {
  name: "pool1"
  type: "Pooling"
  bottom: "conv1"
  top: "pool1"
  pooling_param {
    pool: MAX
    kernel_size: 2
    stride: 2
  }
}
layer {
  name: "conv2"
  type: "Convolution"
  bottom: "pool1"
  top: "conv2"
  convolution_param {
    num_output: 150
    pad: 0
    kernel_size: 4
    group: 1
    stride: 1
    weight_filler {
      type: "xavier"
    }
  }
}
layer {
  name: "conv2_relu"
  type: "ReLU"
  bottom: "conv2"
  top: "conv2"
}
layer {
  name: "pool2"
  type: "Pooling"
  bottom: "conv2"
  top: "pool2"
  pooling_param {
    pool: MAX
    kernel_size: 2
    stride: 2
  }
}
layer {
  name: "conv3"
  type: "Convolution"
  bottom: "pool2"
  top: "conv3"
  convolution_param {
    num_output: 250
    pad: 0
    kernel_size: 4
    group: 1
    stride: 1
    weight_filler {
      type: "xavier"
    }
  }
}
layer {
  name: "conv3_relu"
  type: "ReLU"
  bottom: "conv3"
  top: "conv3"
}
layer {
  name: "pool3"
  type: "Pooling"
  bottom: "conv3"
  top: "pool3"
  pooling_param {
    pool: MAX
    kernel_size: 2
    stride: 2
  }
}
layer {
  name: "fc4_300"
  type: "InnerProduct"
  bottom: "pool3"
  top: "fc4_300"
  inner_product_param {
    num_output: 300
    weight_filler {
      type: "xavier"
    }
  }
}
layer {
  name: "fc4_relu"
  type: "ReLU"
  bottom: "fc4_300"
  top: "fc4_300"
}
layer {
  name: "fc5_116"
  type: "InnerProduct"
  bottom: "fc4_300"
  top: "fc5_classes"
  inner_product_param {
    num_output: 116
    weight_filler {
      type: "xavier"
    }
  }
}
layer {
  name: "softmax"
  type: "Softmax"
  bottom: "fc5_classes"
  top: "softmax"
}
layer {
  name: "loss"
  type: "MultinomialLogisticLoss"
  bottom: "softmax"
  bottom: "label"
  top: "loss"
}
layer {
  name: "accuracy_1"
  type: "Accuracy"
  bottom: "fc5_classes"
  bottom: "label"
  top: "accuracy_1"
  accuracy_param {
    top_k: 1
  }
}
layer {
  name: "accuracy_5"
  type: "Accuracy"
  bottom: "fc5_classes"
  bottom: "label"
  top: "accuracy_5"
  accuracy_param {
    top_k: 5
  }
}
layer {
  name: "silence"
  type: "Silence"
  bottom: "accuracy_1"
  bottom: "accuracy_5"
}
I0528 00:18:37.894670 18667 layer_factory.hpp:77] Creating layer data
I0528 00:18:37.901051 18667 net.cpp:100] Creating Layer data
I0528 00:18:37.901072 18667 net.cpp:408] data -> data
I0528 00:18:37.901120 18667 net.cpp:408] data -> label
I0528 00:18:37.903158 18699 db_lmdb.cpp:35] Opened lmdb ../local_data/lmdb/RTSD/AHE/train/lmdb
I0528 00:18:37.968425 18667 data_layer.cpp:41] output data size: 1024,3,48,48
I0528 00:18:38.057973 18667 net.cpp:150] Setting up data
I0528 00:18:38.058053 18667 net.cpp:157] Top shape: 1024 3 48 48 (7077888)
I0528 00:18:38.058063 18667 net.cpp:157] Top shape: 1024 (1024)
I0528 00:18:38.058070 18667 net.cpp:165] Memory required for data: 28315648
I0528 00:18:38.058084 18667 layer_factory.hpp:77] Creating layer label_data_1_split
I0528 00:18:38.058104 18667 net.cpp:100] Creating Layer label_data_1_split
I0528 00:18:38.058116 18667 net.cpp:434] label_data_1_split <- label
I0528 00:18:38.058135 18667 net.cpp:408] label_data_1_split -> label_data_1_split_0
I0528 00:18:38.058151 18667 net.cpp:408] label_data_1_split -> label_data_1_split_1
I0528 00:18:38.058162 18667 net.cpp:408] label_data_1_split -> label_data_1_split_2
I0528 00:18:38.058233 18667 net.cpp:150] Setting up label_data_1_split
I0528 00:18:38.058244 18667 net.cpp:157] Top shape: 1024 (1024)
I0528 00:18:38.058251 18667 net.cpp:157] Top shape: 1024 (1024)
I0528 00:18:38.058259 18667 net.cpp:157] Top shape: 1024 (1024)
I0528 00:18:38.058264 18667 net.cpp:165] Memory required for data: 28327936
I0528 00:18:38.058272 18667 layer_factory.hpp:77] Creating layer conv1
I0528 00:18:38.058292 18667 net.cpp:100] Creating Layer conv1
I0528 00:18:38.058300 18667 net.cpp:434] conv1 <- data
I0528 00:18:38.058308 18667 net.cpp:408] conv1 -> conv1
I0528 00:18:38.530957 18667 net.cpp:150] Setting up conv1
I0528 00:18:38.531000 18667 net.cpp:157] Top shape: 1024 100 42 42 (180633600)
I0528 00:18:38.531008 18667 net.cpp:165] Memory required for data: 750862336
I0528 00:18:38.531029 18667 layer_factory.hpp:77] Creating layer conv1_relu
I0528 00:18:38.531044 18667 net.cpp:100] Creating Layer conv1_relu
I0528 00:18:38.531059 18667 net.cpp:434] conv1_relu <- conv1
I0528 00:18:38.531069 18667 net.cpp:395] conv1_relu -> conv1 (in-place)
I0528 00:18:38.531285 18667 net.cpp:150] Setting up conv1_relu
I0528 00:18:38.531301 18667 net.cpp:157] Top shape: 1024 100 42 42 (180633600)
I0528 00:18:38.531307 18667 net.cpp:165] Memory required for data: 1473396736
I0528 00:18:38.531319 18667 layer_factory.hpp:77] Creating layer pool1
I0528 00:18:38.531332 18667 net.cpp:100] Creating Layer pool1
I0528 00:18:38.531342 18667 net.cpp:434] pool1 <- conv1
I0528 00:18:38.531352 18667 net.cpp:408] pool1 -> pool1
I0528 00:18:38.531412 18667 net.cpp:150] Setting up pool1
I0528 00:18:38.531425 18667 net.cpp:157] Top shape: 1024 100 21 21 (45158400)
I0528 00:18:38.531432 18667 net.cpp:165] Memory required for data: 1654030336
I0528 00:18:38.531438 18667 layer_factory.hpp:77] Creating layer conv2
I0528 00:18:38.531455 18667 net.cpp:100] Creating Layer conv2
I0528 00:18:38.531463 18667 net.cpp:434] conv2 <- pool1
I0528 00:18:38.531472 18667 net.cpp:408] conv2 -> conv2
I0528 00:18:38.548336 18667 net.cpp:150] Setting up conv2
I0528 00:18:38.548354 18667 net.cpp:157] Top shape: 1024 150 18 18 (49766400)
I0528 00:18:38.548359 18667 net.cpp:165] Memory required for data: 1853095936
I0528 00:18:38.548372 18667 layer_factory.hpp:77] Creating layer conv2_relu
I0528 00:18:38.548379 18667 net.cpp:100] Creating Layer conv2_relu
I0528 00:18:38.548384 18667 net.cpp:434] conv2_relu <- conv2
I0528 00:18:38.548389 18667 net.cpp:395] conv2_relu -> conv2 (in-place)
I0528 00:18:38.548521 18667 net.cpp:150] Setting up conv2_relu
I0528 00:18:38.548532 18667 net.cpp:157] Top shape: 1024 150 18 18 (49766400)
I0528 00:18:38.548537 18667 net.cpp:165] Memory required for data: 2052161536
I0528 00:18:38.548542 18667 layer_factory.hpp:77] Creating layer pool2
I0528 00:18:38.548550 18667 net.cpp:100] Creating Layer pool2
I0528 00:18:38.548554 18667 net.cpp:434] pool2 <- conv2
I0528 00:18:38.548560 18667 net.cpp:408] pool2 -> pool2
I0528 00:18:38.548599 18667 net.cpp:150] Setting up pool2
I0528 00:18:38.548609 18667 net.cpp:157] Top shape: 1024 150 9 9 (12441600)
I0528 00:18:38.548614 18667 net.cpp:165] Memory required for data: 2101927936
I0528 00:18:38.548617 18667 layer_factory.hpp:77] Creating layer conv3
I0528 00:18:38.548629 18667 net.cpp:100] Creating Layer conv3
I0528 00:18:38.548637 18667 net.cpp:434] conv3 <- pool2
I0528 00:18:38.548645 18667 net.cpp:408] conv3 -> conv3
I0528 00:18:38.555999 18667 net.cpp:150] Setting up conv3
I0528 00:18:38.556017 18667 net.cpp:157] Top shape: 1024 250 6 6 (9216000)
I0528 00:18:38.556023 18667 net.cpp:165] Memory required for data: 2138791936
I0528 00:18:38.556036 18667 layer_factory.hpp:77] Creating layer conv3_relu
I0528 00:18:38.556043 18667 net.cpp:100] Creating Layer conv3_relu
I0528 00:18:38.556051 18667 net.cpp:434] conv3_relu <- conv3
I0528 00:18:38.556058 18667 net.cpp:395] conv3_relu -> conv3 (in-place)
I0528 00:18:38.558172 18667 net.cpp:150] Setting up conv3_relu
I0528 00:18:38.558187 18667 net.cpp:157] Top shape: 1024 250 6 6 (9216000)
I0528 00:18:38.558195 18667 net.cpp:165] Memory required for data: 2175655936
I0528 00:18:38.558202 18667 layer_factory.hpp:77] Creating layer pool3
I0528 00:18:38.558212 18667 net.cpp:100] Creating Layer pool3
I0528 00:18:38.558218 18667 net.cpp:434] pool3 <- conv3
I0528 00:18:38.558226 18667 net.cpp:408] pool3 -> pool3
I0528 00:18:38.558261 18667 net.cpp:150] Setting up pool3
I0528 00:18:38.558271 18667 net.cpp:157] Top shape: 1024 250 3 3 (2304000)
I0528 00:18:38.558276 18667 net.cpp:165] Memory required for data: 2184871936
I0528 00:18:38.558284 18667 layer_factory.hpp:77] Creating layer fc4_300
I0528 00:18:38.558291 18667 net.cpp:100] Creating Layer fc4_300
I0528 00:18:38.558296 18667 net.cpp:434] fc4_300 <- pool3
I0528 00:18:38.558303 18667 net.cpp:408] fc4_300 -> fc4_300
I0528 00:18:38.563659 18667 net.cpp:150] Setting up fc4_300
I0528 00:18:38.563681 18667 net.cpp:157] Top shape: 1024 300 (307200)
I0528 00:18:38.563686 18667 net.cpp:165] Memory required for data: 2186100736
I0528 00:18:38.563696 18667 layer_factory.hpp:77] Creating layer fc4_relu
I0528 00:18:38.563704 18667 net.cpp:100] Creating Layer fc4_relu
I0528 00:18:38.563709 18667 net.cpp:434] fc4_relu <- fc4_300
I0528 00:18:38.563716 18667 net.cpp:395] fc4_relu -> fc4_300 (in-place)
I0528 00:18:38.563855 18667 net.cpp:150] Setting up fc4_relu
I0528 00:18:38.563868 18667 net.cpp:157] Top shape: 1024 300 (307200)
I0528 00:18:38.563872 18667 net.cpp:165] Memory required for data: 2187329536
I0528 00:18:38.563877 18667 layer_factory.hpp:77] Creating layer fc5_116
I0528 00:18:38.563885 18667 net.cpp:100] Creating Layer fc5_116
I0528 00:18:38.563894 18667 net.cpp:434] fc5_116 <- fc4_300
I0528 00:18:38.563901 18667 net.cpp:408] fc5_116 -> fc5_classes
I0528 00:18:38.564918 18667 net.cpp:150] Setting up fc5_116
I0528 00:18:38.564934 18667 net.cpp:157] Top shape: 1024 116 (118784)
I0528 00:18:38.564940 18667 net.cpp:165] Memory required for data: 2187804672
I0528 00:18:38.564950 18667 layer_factory.hpp:77] Creating layer fc5_classes_fc5_116_0_split
I0528 00:18:38.564956 18667 net.cpp:100] Creating Layer fc5_classes_fc5_116_0_split
I0528 00:18:38.564962 18667 net.cpp:434] fc5_classes_fc5_116_0_split <- fc5_classes
I0528 00:18:38.564968 18667 net.cpp:408] fc5_classes_fc5_116_0_split -> fc5_classes_fc5_116_0_split_0
I0528 00:18:38.564975 18667 net.cpp:408] fc5_classes_fc5_116_0_split -> fc5_classes_fc5_116_0_split_1
I0528 00:18:38.564987 18667 net.cpp:408] fc5_classes_fc5_116_0_split -> fc5_classes_fc5_116_0_split_2
I0528 00:18:38.565024 18667 net.cpp:150] Setting up fc5_classes_fc5_116_0_split
I0528 00:18:38.565032 18667 net.cpp:157] Top shape: 1024 116 (118784)
I0528 00:18:38.565037 18667 net.cpp:157] Top shape: 1024 116 (118784)
I0528 00:18:38.565042 18667 net.cpp:157] Top shape: 1024 116 (118784)
I0528 00:18:38.565047 18667 net.cpp:165] Memory required for data: 2189230080
I0528 00:18:38.565052 18667 layer_factory.hpp:77] Creating layer softmax
I0528 00:18:38.565057 18667 net.cpp:100] Creating Layer softmax
I0528 00:18:38.565062 18667 net.cpp:434] softmax <- fc5_classes_fc5_116_0_split_0
I0528 00:18:38.565068 18667 net.cpp:408] softmax -> softmax
I0528 00:18:38.565243 18667 net.cpp:150] Setting up softmax
I0528 00:18:38.565255 18667 net.cpp:157] Top shape: 1024 116 (118784)
I0528 00:18:38.565259 18667 net.cpp:165] Memory required for data: 2189705216
I0528 00:18:38.565264 18667 layer_factory.hpp:77] Creating layer loss
I0528 00:18:38.565273 18667 net.cpp:100] Creating Layer loss
I0528 00:18:38.565290 18667 net.cpp:434] loss <- softmax
I0528 00:18:38.565297 18667 net.cpp:434] loss <- label_data_1_split_0
I0528 00:18:38.565304 18667 net.cpp:408] loss -> loss
…
