…
I0528 04:46:12.746971 31747 solver.cpp:81] Creating training net from train_net file: ./Prototxt/experiment_21/RTSD/histeq/trial_1/train.prototxt
I0528 04:46:12.747382 31747 net.cpp:58] Initializing net from parameters: 
state {
  phase: TRAIN
  level: 0
  stage: ""
}
layer {
  name: "data"
  type: "Data"
  top: "data"
  top: "label"
  include {
    phase: TRAIN
  }
  transform_param {
    scale: 0.0039215689
    mirror: false
    crop_size: 48
    mean_value: 135
    mean_value: 128
    mean_value: 128
  }
  data_param {
    source: "../local_data/lmdb/RTSD/histeq/train/lmdb"
    batch_size: 1024
    backend: LMDB
  }
}
layer {
  name: "conv1"
  type: "Convolution"
  bottom: "data"
  top: "conv1"
  convolution_param {
    num_output: 100
    pad: 0
    kernel_size: 7
    group: 1
    stride: 1
    weight_filler {
      type: "xavier"
    }
  }
}
layer {
  name: "conv1_relu"
  type: "ReLU"
  bottom: "conv1"
  top: "conv1"
}
layer {
  name: "pool1"
  type: "Pooling"
  bottom: "conv1"
  top: "pool1"
  pooling_param {
    pool: MAX
    kernel_size: 2
    stride: 2
  }
}
layer {
  name: "conv2"
  type: "Convolution"
  bottom: "pool1"
  top: "conv2"
  convolution_param {
    num_output: 150
    pad: 0
    kernel_size: 4
    group: 1
    stride: 1
    weight_filler {
      type: "xavier"
    }
  }
}
layer {
  name: "conv2_relu"
  type: "ReLU"
  bottom: "conv2"
  top: "conv2"
}
layer {
  name: "pool2"
  type: "Pooling"
  bottom: "conv2"
  top: "pool2"
  pooling_param {
    pool: MAX
    kernel_size: 2
    stride: 2
  }
}
layer {
  name: "conv3"
  type: "Convolution"
  bottom: "pool2"
  top: "conv3"
  convolution_param {
    num_output: 250
    pad: 0
    kernel_size: 4
    group: 1
    stride: 1
    weight_filler {
      type: "xavier"
    }
  }
}
layer {
  name: "conv3_relu"
  type: "ReLU"
  bottom: "conv3"
  top: "conv3"
}
layer {
  name: "pool3"
  type: "Pooling"
  bottom: "conv3"
  top: "pool3"
  pooling_param {
    pool: MAX
    kernel_size: 2
    stride: 2
  }
}
layer {
  name: "fc4_300"
  type: "InnerProduct"
  bottom: "pool3"
  top: "fc4_300"
  inner_product_param {
    num_output: 300
    weight_filler {
      type: "xavier"
    }
  }
}
layer {
  name: "fc4_relu"
  type: "ReLU"
  bottom: "fc4_300"
  top: "fc4_300"
}
layer {
  name: "fc5_116"
  type: "InnerProduct"
  bottom: "fc4_300"
  top: "fc5_classes"
  inner_product_param {
    num_output: 116
    weight_filler {
      type: "xavier"
    }
  }
}
layer {
  name: "softmax"
  type: "Softmax"
  bottom: "fc5_classes"
  top: "softmax"
}
layer {
  name: "loss"
  type: "MultinomialLogisticLoss"
  bottom: "softmax"
  bottom: "label"
  top: "loss"
}
layer {
  name: "accuracy_1"
  type: "Accuracy"
  bottom: "fc5_classes"
  bottom: "label"
  top: "accuracy_1"
  accuracy_param {
    top_k: 1
  }
}
layer {
  name: "accuracy_5"
  type: "Accuracy"
  bottom: "fc5_classes"
  bottom: "label"
  top: "accuracy_5"
  accuracy_param {
    top_k: 5
  }
}
layer {
  name: "silence"
  type: "Silence"
  bottom: "accuracy_1"
  bottom: "accuracy_5"
}
I0528 04:46:12.747521 31747 layer_factory.hpp:77] Creating layer data
I0528 04:46:12.748716 31747 net.cpp:100] Creating Layer data
I0528 04:46:12.748734 31747 net.cpp:408] data -> data
I0528 04:46:12.748769 31747 net.cpp:408] data -> label
I0528 04:46:12.750144 31794 db_lmdb.cpp:35] Opened lmdb ../local_data/lmdb/RTSD/histeq/train/lmdb
I0528 04:46:12.769220 31747 data_layer.cpp:41] output data size: 1024,3,48,48
I0528 04:46:12.821840 31747 net.cpp:150] Setting up data
I0528 04:46:12.821946 31747 net.cpp:157] Top shape: 1024 3 48 48 (7077888)
I0528 04:46:12.821974 31747 net.cpp:157] Top shape: 1024 (1024)
I0528 04:46:12.821993 31747 net.cpp:165] Memory required for data: 28315648
I0528 04:46:12.822018 31747 layer_factory.hpp:77] Creating layer label_data_1_split
I0528 04:46:12.822046 31747 net.cpp:100] Creating Layer label_data_1_split
I0528 04:46:12.822067 31747 net.cpp:434] label_data_1_split <- label
I0528 04:46:12.822094 31747 net.cpp:408] label_data_1_split -> label_data_1_split_0
I0528 04:46:12.822124 31747 net.cpp:408] label_data_1_split -> label_data_1_split_1
I0528 04:46:12.822146 31747 net.cpp:408] label_data_1_split -> label_data_1_split_2
I0528 04:46:12.822233 31747 net.cpp:150] Setting up label_data_1_split
I0528 04:46:12.822262 31747 net.cpp:157] Top shape: 1024 (1024)
I0528 04:46:12.822283 31747 net.cpp:157] Top shape: 1024 (1024)
I0528 04:46:12.822301 31747 net.cpp:157] Top shape: 1024 (1024)
I0528 04:46:12.822320 31747 net.cpp:165] Memory required for data: 28327936
I0528 04:46:12.822340 31747 layer_factory.hpp:77] Creating layer conv1
I0528 04:46:12.822379 31747 net.cpp:100] Creating Layer conv1
I0528 04:46:12.822401 31747 net.cpp:434] conv1 <- data
I0528 04:46:12.822422 31747 net.cpp:408] conv1 -> conv1
I0528 04:46:13.166029 31747 net.cpp:150] Setting up conv1
I0528 04:46:13.166060 31747 net.cpp:157] Top shape: 1024 100 42 42 (180633600)
I0528 04:46:13.166067 31747 net.cpp:165] Memory required for data: 750862336
I0528 04:46:13.166087 31747 layer_factory.hpp:77] Creating layer conv1_relu
I0528 04:46:13.166121 31747 net.cpp:100] Creating Layer conv1_relu
I0528 04:46:13.166131 31747 net.cpp:434] conv1_relu <- conv1
I0528 04:46:13.166142 31747 net.cpp:395] conv1_relu -> conv1 (in-place)
I0528 04:46:13.166313 31747 net.cpp:150] Setting up conv1_relu
I0528 04:46:13.166328 31747 net.cpp:157] Top shape: 1024 100 42 42 (180633600)
I0528 04:46:13.166335 31747 net.cpp:165] Memory required for data: 1473396736
I0528 04:46:13.166343 31747 layer_factory.hpp:77] Creating layer pool1
I0528 04:46:13.166362 31747 net.cpp:100] Creating Layer pool1
I0528 04:46:13.166373 31747 net.cpp:434] pool1 <- conv1
I0528 04:46:13.166383 31747 net.cpp:408] pool1 -> pool1
I0528 04:46:13.166442 31747 net.cpp:150] Setting up pool1
I0528 04:46:13.166455 31747 net.cpp:157] Top shape: 1024 100 21 21 (45158400)
I0528 04:46:13.166461 31747 net.cpp:165] Memory required for data: 1654030336
I0528 04:46:13.166488 31747 layer_factory.hpp:77] Creating layer conv2
I0528 04:46:13.166505 31747 net.cpp:100] Creating Layer conv2
I0528 04:46:13.166517 31747 net.cpp:434] conv2 <- pool1
I0528 04:46:13.166530 31747 net.cpp:408] conv2 -> conv2
I0528 04:46:13.169847 31747 net.cpp:150] Setting up conv2
I0528 04:46:13.169872 31747 net.cpp:157] Top shape: 1024 150 18 18 (49766400)
I0528 04:46:13.169879 31747 net.cpp:165] Memory required for data: 1853095936
I0528 04:46:13.169894 31747 layer_factory.hpp:77] Creating layer conv2_relu
I0528 04:46:13.169925 31747 net.cpp:100] Creating Layer conv2_relu
I0528 04:46:13.169935 31747 net.cpp:434] conv2_relu <- conv2
I0528 04:46:13.169945 31747 net.cpp:395] conv2_relu -> conv2 (in-place)
I0528 04:46:13.170081 31747 net.cpp:150] Setting up conv2_relu
I0528 04:46:13.170095 31747 net.cpp:157] Top shape: 1024 150 18 18 (49766400)
I0528 04:46:13.170101 31747 net.cpp:165] Memory required for data: 2052161536
I0528 04:46:13.170107 31747 layer_factory.hpp:77] Creating layer pool2
I0528 04:46:13.170131 31747 net.cpp:100] Creating Layer pool2
I0528 04:46:13.170141 31747 net.cpp:434] pool2 <- conv2
I0528 04:46:13.170150 31747 net.cpp:408] pool2 -> pool2
I0528 04:46:13.170195 31747 net.cpp:150] Setting up pool2
I0528 04:46:13.170207 31747 net.cpp:157] Top shape: 1024 150 9 9 (12441600)
I0528 04:46:13.170212 31747 net.cpp:165] Memory required for data: 2101927936
I0528 04:46:13.170230 31747 layer_factory.hpp:77] Creating layer conv3
I0528 04:46:13.170248 31747 net.cpp:100] Creating Layer conv3
I0528 04:46:13.170258 31747 net.cpp:434] conv3 <- pool2
I0528 04:46:13.170267 31747 net.cpp:408] conv3 -> conv3
I0528 04:46:13.175032 31747 net.cpp:150] Setting up conv3
I0528 04:46:13.175065 31747 net.cpp:157] Top shape: 1024 250 6 6 (9216000)
I0528 04:46:13.175071 31747 net.cpp:165] Memory required for data: 2138791936
I0528 04:46:13.175086 31747 layer_factory.hpp:77] Creating layer conv3_relu
I0528 04:46:13.175101 31747 net.cpp:100] Creating Layer conv3_relu
I0528 04:46:13.175132 31747 net.cpp:434] conv3_relu <- conv3
I0528 04:46:13.175145 31747 net.cpp:395] conv3_relu -> conv3 (in-place)
I0528 04:46:13.175511 31747 net.cpp:150] Setting up conv3_relu
I0528 04:46:13.175531 31747 net.cpp:157] Top shape: 1024 250 6 6 (9216000)
I0528 04:46:13.175539 31747 net.cpp:165] Memory required for data: 2175655936
I0528 04:46:13.175547 31747 layer_factory.hpp:77] Creating layer pool3
I0528 04:46:13.175570 31747 net.cpp:100] Creating Layer pool3
I0528 04:46:13.175576 31747 net.cpp:434] pool3 <- conv3
I0528 04:46:13.175583 31747 net.cpp:408] pool3 -> pool3
I0528 04:46:13.175621 31747 net.cpp:150] Setting up pool3
I0528 04:46:13.175631 31747 net.cpp:157] Top shape: 1024 250 3 3 (2304000)
I0528 04:46:13.175637 31747 net.cpp:165] Memory required for data: 2184871936
I0528 04:46:13.175642 31747 layer_factory.hpp:77] Creating layer fc4_300
I0528 04:46:13.175649 31747 net.cpp:100] Creating Layer fc4_300
I0528 04:46:13.175657 31747 net.cpp:434] fc4_300 <- pool3
I0528 04:46:13.175664 31747 net.cpp:408] fc4_300 -> fc4_300
I0528 04:46:13.180438 31747 net.cpp:150] Setting up fc4_300
I0528 04:46:13.180454 31747 net.cpp:157] Top shape: 1024 300 (307200)
I0528 04:46:13.180459 31747 net.cpp:165] Memory required for data: 2186100736
I0528 04:46:13.180465 31747 layer_factory.hpp:77] Creating layer fc4_relu
I0528 04:46:13.180472 31747 net.cpp:100] Creating Layer fc4_relu
I0528 04:46:13.180476 31747 net.cpp:434] fc4_relu <- fc4_300
I0528 04:46:13.180481 31747 net.cpp:395] fc4_relu -> fc4_300 (in-place)
I0528 04:46:13.180618 31747 net.cpp:150] Setting up fc4_relu
I0528 04:46:13.180629 31747 net.cpp:157] Top shape: 1024 300 (307200)
I0528 04:46:13.180632 31747 net.cpp:165] Memory required for data: 2187329536
I0528 04:46:13.180636 31747 layer_factory.hpp:77] Creating layer fc5_116
I0528 04:46:13.180644 31747 net.cpp:100] Creating Layer fc5_116
I0528 04:46:13.180647 31747 net.cpp:434] fc5_116 <- fc4_300
I0528 04:46:13.180655 31747 net.cpp:408] fc5_116 -> fc5_classes
I0528 04:46:13.181608 31747 net.cpp:150] Setting up fc5_116
I0528 04:46:13.181622 31747 net.cpp:157] Top shape: 1024 116 (118784)
I0528 04:46:13.181625 31747 net.cpp:165] Memory required for data: 2187804672
I0528 04:46:13.181637 31747 layer_factory.hpp:77] Creating layer fc5_classes_fc5_116_0_split
I0528 04:46:13.181643 31747 net.cpp:100] Creating Layer fc5_classes_fc5_116_0_split
I0528 04:46:13.181648 31747 net.cpp:434] fc5_classes_fc5_116_0_split <- fc5_classes
I0528 04:46:13.181653 31747 net.cpp:408] fc5_classes_fc5_116_0_split -> fc5_classes_fc5_116_0_split_0
I0528 04:46:13.181658 31747 net.cpp:408] fc5_classes_fc5_116_0_split -> fc5_classes_fc5_116_0_split_1
I0528 04:46:13.181665 31747 net.cpp:408] fc5_classes_fc5_116_0_split -> fc5_classes_fc5_116_0_split_2
I0528 04:46:13.181704 31747 net.cpp:150] Setting up fc5_classes_fc5_116_0_split
I0528 04:46:13.181711 31747 net.cpp:157] Top shape: 1024 116 (118784)
I0528 04:46:13.181716 31747 net.cpp:157] Top shape: 1024 116 (118784)
I0528 04:46:13.181720 31747 net.cpp:157] Top shape: 1024 116 (118784)
I0528 04:46:13.181725 31747 net.cpp:165] Memory required for data: 2189230080
I0528 04:46:13.181728 31747 layer_factory.hpp:77] Creating layer softmax
I0528 04:46:13.181735 31747 net.cpp:100] Creating Layer softmax
I0528 04:46:13.181741 31747 net.cpp:434] softmax <- fc5_classes_fc5_116_0_split_0
I0528 04:46:13.181746 31747 net.cpp:408] softmax -> softmax
I0528 04:46:13.181929 31747 net.cpp:150] Setting up softmax
I0528 04:46:13.181941 31747 net.cpp:157] Top shape: 1024 116 (118784)
I0528 04:46:13.181944 31747 net.cpp:165] Memory required for data: 2189705216
I0528 04:46:13.181949 31747 layer_factory.hpp:77] Creating layer loss
I0528 04:46:13.181972 31747 net.cpp:100] Creating Layer loss
I0528 04:46:13.181977 31747 net.cpp:434] loss <- softmax
I0528 04:46:13.181982 31747 net.cpp:434] loss <- label_data_1_split_0
I0528 04:46:13.181988 31747 net.cpp:408] loss -> loss
…
