…
I0417 17:26:58.525878 25166 solver.cpp:93] Creating training net from train_net file: ./Prototxt/experiment_11/rtsd-r1/orig/trial_2/train.prototxt
I0417 17:26:58.526358 25166 net.cpp:58] Initializing net from parameters: 
state {
  phase: TRAIN
  level: 0
  stage: ""
}
layer {
  name: "data"
  type: "Data"
  top: "data"
  top: "label"
  include {
    phase: TRAIN
  }
  transform_param {
    scale: 0.0039215689
    mirror: false
    crop_size: 48
    mean_value: 122
    mean_value: 115
    mean_value: 129
  }
  data_param {
    source: "../local_data/lmdb/rtsd-r1/orig/train/lmdb"
    batch_size: 1024
    backend: LMDB
  }
}
layer {
  name: "conv1"
  type: "Convolution"
  bottom: "data"
  top: "conv1"
  convolution_param {
    num_output: 100
    pad: 0
    kernel_size: 7
    group: 1
    stride: 1
    weight_filler {
      type: "xavier"
    }
  }
}
layer {
  name: "conv1_prescale"
  type: "Scale"
  bottom: "conv1"
  top: "conv1"
  param {
    lr_mult: 0
    decay_mult: 0
  }
  scale_param {
    filler {
      value: 0.6666
    }
    bias_term: false
  }
}
layer {
  name: "conv1_sTanH"
  type: "TanH"
  bottom: "conv1"
  top: "conv1"
}
layer {
  name: "conv1_postscale"
  type: "Scale"
  bottom: "conv1"
  top: "conv1"
  param {
    lr_mult: 0
    decay_mult: 0
  }
  scale_param {
    filler {
      value: 1.7159
    }
    bias_term: false
  }
}
layer {
  name: "pool1"
  type: "Pooling"
  bottom: "conv1"
  top: "pool1"
  pooling_param {
    pool: MAX
    kernel_size: 2
    stride: 2
  }
}
layer {
  name: "conv2"
  type: "Convolution"
  bottom: "pool1"
  top: "conv2"
  convolution_param {
    num_output: 150
    pad: 0
    kernel_size: 4
    group: 1
    stride: 1
    weight_filler {
      type: "xavier"
    }
  }
}
layer {
  name: "conv2_prescale"
  type: "Scale"
  bottom: "conv2"
  top: "conv2"
  param {
    lr_mult: 0
    decay_mult: 0
  }
  scale_param {
    filler {
      value: 0.6666
    }
    bias_term: false
  }
}
layer {
  name: "conv2_sTanH"
  type: "TanH"
  bottom: "conv2"
  top: "conv2"
}
layer {
  name: "conv2_postscale"
  type: "Scale"
  bottom: "conv2"
  top: "conv2"
  param {
    lr_mult: 0
    decay_mult: 0
  }
  scale_param {
    filler {
      value: 1.7159
    }
    bias_term: false
  }
}
layer {
  name: "pool2"
  type: "Pooling"
  bottom: "conv2"
  top: "pool2"
  pooling_param {
    pool: MAX
    kernel_size: 2
    stride: 2
  }
}
layer {
  name: "conv3"
  type: "Convolution"
  bottom: "pool2"
  top: "conv3"
  convolution_param {
    num_output: 250
    pad: 0
    kernel_size: 4
    group: 1
    stride: 1
    weight_filler {
      type: "xavier"
    }
  }
}
layer {
  name: "conv3_prescale"
  type: "Scale"
  bottom: "conv3"
  top: "conv3"
  param {
    lr_mult: 0
    decay_mult: 0
  }
  scale_param {
    filler {
      value: 0.6666
    }
    bias_term: false
  }
}
layer {
  name: "conv3_sTanH"
  type: "TanH"
  bottom: "conv3"
  top: "conv3"
}
layer {
  name: "conv3_postscale"
  type: "Scale"
  bottom: "conv3"
  top: "conv3"
  param {
    lr_mult: 0
    decay_mult: 0
  }
  scale_param {
    filler {
      value: 1.7159
    }
    bias_term: false
  }
}
layer {
  name: "pool3"
  type: "Pooling"
  bottom: "conv3"
  top: "pool3"
  pooling_param {
    pool: MAX
    kernel_size: 2
    stride: 2
  }
}
layer {
  name: "fc4_300"
  type: "InnerProduct"
  bottom: "pool3"
  top: "fc4_300"
  inner_product_param {
    num_output: 300
    weight_filler {
      type: "xavier"
    }
  }
}
layer {
  name: "fc4_prescale"
  type: "Scale"
  bottom: "fc4_300"
  top: "fc4_300"
  param {
    lr_mult: 0
    decay_mult: 0
  }
  scale_param {
    filler {
      value: 0.6666
    }
    bias_term: false
  }
}
layer {
  name: "fc4_sTanH"
  type: "TanH"
  bottom: "fc4_300"
  top: "fc4_300"
}
layer {
  name: "fc4_postscale"
  type: "Scale"
  bottom: "fc4_300"
  top: "fc4_300"
  param {
    lr_mult: 0
    decay_mult: 0
  }
  scale_param {
    filler {
      value: 1.7159
    }
    bias_term: false
  }
}
layer {
  name: "fc5_67"
  type: "InnerProduct"
  bottom: "fc4_300"
  top: "fc5_classes"
  inner_product_param {
    num_output: 67
    weight_filler {
      type: "xavier"
    }
  }
}
layer {
  name: "softmax"
  type: "Softmax"
  bottom: "fc5_classes"
  top: "softmax"
}
layer {
  name: "loss"
  type: "MultinomialLogisticLoss"
  bottom: "softmax"
  bottom: "label"
  top: "loss"
}
layer {
  name: "accuracy_1"
  type: "Accuracy"
  bottom: "fc5_classes"
  bottom: "label"
  top: "accuracy_1"
  accuracy_param {
    top_k: 1
  }
}
layer {
  name: "accuracy_5"
  type: "Accuracy"
  bottom: "fc5_classes"
  bottom: "label"
  top: "accuracy_5"
  accuracy_param {
    top_k: 5
  }
}
layer {
  name: "silence"
  type: "Silence"
  bottom: "accuracy_1"
  bottom: "accuracy_5"
}
I0417 17:26:58.526510 25166 layer_factory.hpp:77] Creating layer data
I0417 17:26:58.527580 25166 net.cpp:100] Creating Layer data
I0417 17:26:58.527601 25166 net.cpp:408] data -> data
I0417 17:26:58.527624 25166 net.cpp:408] data -> label
I0417 17:26:58.533579 25294 db_lmdb.cpp:35] Opened lmdb ../local_data/lmdb/rtsd-r1/orig/train/lmdb
I0417 17:26:58.556321 25166 data_layer.cpp:41] output data size: 1024,3,48,48
I0417 17:26:58.624826 25166 net.cpp:150] Setting up data
I0417 17:26:58.624856 25166 net.cpp:157] Top shape: 1024 3 48 48 (7077888)
I0417 17:26:58.624861 25166 net.cpp:157] Top shape: 1024 (1024)
I0417 17:26:58.624864 25166 net.cpp:165] Memory required for data: 28315648
I0417 17:26:58.624876 25166 layer_factory.hpp:77] Creating layer label_data_1_split
I0417 17:26:58.624891 25166 net.cpp:100] Creating Layer label_data_1_split
I0417 17:26:58.624898 25166 net.cpp:434] label_data_1_split <- label
I0417 17:26:58.624917 25166 net.cpp:408] label_data_1_split -> label_data_1_split_0
I0417 17:26:58.624930 25166 net.cpp:408] label_data_1_split -> label_data_1_split_1
I0417 17:26:58.624938 25166 net.cpp:408] label_data_1_split -> label_data_1_split_2
I0417 17:26:58.625049 25166 net.cpp:150] Setting up label_data_1_split
I0417 17:26:58.625058 25166 net.cpp:157] Top shape: 1024 (1024)
I0417 17:26:58.625062 25166 net.cpp:157] Top shape: 1024 (1024)
I0417 17:26:58.625066 25166 net.cpp:157] Top shape: 1024 (1024)
I0417 17:26:58.625069 25166 net.cpp:165] Memory required for data: 28327936
I0417 17:26:58.625073 25166 layer_factory.hpp:77] Creating layer conv1
I0417 17:26:58.625092 25166 net.cpp:100] Creating Layer conv1
I0417 17:26:58.625098 25166 net.cpp:434] conv1 <- data
I0417 17:26:58.625107 25166 net.cpp:408] conv1 -> conv1
I0417 17:26:58.951647 25166 net.cpp:150] Setting up conv1
I0417 17:26:58.951690 25166 net.cpp:157] Top shape: 1024 100 42 42 (180633600)
I0417 17:26:58.951699 25166 net.cpp:165] Memory required for data: 750862336
I0417 17:26:58.951733 25166 layer_factory.hpp:77] Creating layer conv1_prescale
I0417 17:26:58.951756 25166 net.cpp:100] Creating Layer conv1_prescale
I0417 17:26:58.951776 25166 net.cpp:434] conv1_prescale <- conv1
I0417 17:26:58.951782 25166 net.cpp:395] conv1_prescale -> conv1 (in-place)
I0417 17:26:58.951908 25166 net.cpp:150] Setting up conv1_prescale
I0417 17:26:58.951920 25166 net.cpp:157] Top shape: 1024 100 42 42 (180633600)
I0417 17:26:58.951922 25166 net.cpp:165] Memory required for data: 1473396736
I0417 17:26:58.951930 25166 layer_factory.hpp:77] Creating layer conv1_sTanH
I0417 17:26:58.951939 25166 net.cpp:100] Creating Layer conv1_sTanH
I0417 17:26:58.951944 25166 net.cpp:434] conv1_sTanH <- conv1
I0417 17:26:58.951949 25166 net.cpp:395] conv1_sTanH -> conv1 (in-place)
I0417 17:26:58.952144 25166 net.cpp:150] Setting up conv1_sTanH
I0417 17:26:58.952157 25166 net.cpp:157] Top shape: 1024 100 42 42 (180633600)
I0417 17:26:58.952178 25166 net.cpp:165] Memory required for data: 2195931136
I0417 17:26:58.952181 25166 layer_factory.hpp:77] Creating layer conv1_postscale
I0417 17:26:58.952189 25166 net.cpp:100] Creating Layer conv1_postscale
I0417 17:26:58.952194 25166 net.cpp:434] conv1_postscale <- conv1
I0417 17:26:58.952200 25166 net.cpp:395] conv1_postscale -> conv1 (in-place)
I0417 17:26:58.952301 25166 net.cpp:150] Setting up conv1_postscale
I0417 17:26:58.952309 25166 net.cpp:157] Top shape: 1024 100 42 42 (180633600)
I0417 17:26:58.952312 25166 net.cpp:165] Memory required for data: 2918465536
I0417 17:26:58.952317 25166 layer_factory.hpp:77] Creating layer pool1
I0417 17:26:58.952325 25166 net.cpp:100] Creating Layer pool1
I0417 17:26:58.952330 25166 net.cpp:434] pool1 <- conv1
I0417 17:26:58.952335 25166 net.cpp:408] pool1 -> pool1
I0417 17:26:58.952385 25166 net.cpp:150] Setting up pool1
I0417 17:26:58.952394 25166 net.cpp:157] Top shape: 1024 100 21 21 (45158400)
I0417 17:26:58.952396 25166 net.cpp:165] Memory required for data: 3099099136
I0417 17:26:58.952400 25166 layer_factory.hpp:77] Creating layer conv2
I0417 17:26:58.952409 25166 net.cpp:100] Creating Layer conv2
I0417 17:26:58.952414 25166 net.cpp:434] conv2 <- pool1
I0417 17:26:58.952419 25166 net.cpp:408] conv2 -> conv2
I0417 17:26:58.958228 25166 net.cpp:150] Setting up conv2
I0417 17:26:58.958245 25166 net.cpp:157] Top shape: 1024 150 18 18 (49766400)
I0417 17:26:58.958250 25166 net.cpp:165] Memory required for data: 3298164736
I0417 17:26:58.958261 25166 layer_factory.hpp:77] Creating layer conv2_prescale
I0417 17:26:58.958271 25166 net.cpp:100] Creating Layer conv2_prescale
I0417 17:26:58.958276 25166 net.cpp:434] conv2_prescale <- conv2
I0417 17:26:58.958282 25166 net.cpp:395] conv2_prescale -> conv2 (in-place)
I0417 17:26:58.958387 25166 net.cpp:150] Setting up conv2_prescale
I0417 17:26:58.958396 25166 net.cpp:157] Top shape: 1024 150 18 18 (49766400)
I0417 17:26:58.958401 25166 net.cpp:165] Memory required for data: 3497230336
I0417 17:26:58.958406 25166 layer_factory.hpp:77] Creating layer conv2_sTanH
I0417 17:26:58.958411 25166 net.cpp:100] Creating Layer conv2_sTanH
I0417 17:26:58.958416 25166 net.cpp:434] conv2_sTanH <- conv2
I0417 17:26:58.958420 25166 net.cpp:395] conv2_sTanH -> conv2 (in-place)
I0417 17:26:58.959610 25166 net.cpp:150] Setting up conv2_sTanH
I0417 17:26:58.959625 25166 net.cpp:157] Top shape: 1024 150 18 18 (49766400)
I0417 17:26:58.959630 25166 net.cpp:165] Memory required for data: 3696295936
I0417 17:26:58.959635 25166 layer_factory.hpp:77] Creating layer conv2_postscale
I0417 17:26:58.959641 25166 net.cpp:100] Creating Layer conv2_postscale
I0417 17:26:58.959646 25166 net.cpp:434] conv2_postscale <- conv2
I0417 17:26:58.959652 25166 net.cpp:395] conv2_postscale -> conv2 (in-place)
I0417 17:26:58.959746 25166 net.cpp:150] Setting up conv2_postscale
I0417 17:26:58.959754 25166 net.cpp:157] Top shape: 1024 150 18 18 (49766400)
I0417 17:26:58.959758 25166 net.cpp:165] Memory required for data: 3895361536
I0417 17:26:58.959763 25166 layer_factory.hpp:77] Creating layer pool2
I0417 17:26:58.959770 25166 net.cpp:100] Creating Layer pool2
I0417 17:26:58.959775 25166 net.cpp:434] pool2 <- conv2
I0417 17:26:58.959780 25166 net.cpp:408] pool2 -> pool2
I0417 17:26:58.959820 25166 net.cpp:150] Setting up pool2
I0417 17:26:58.959827 25166 net.cpp:157] Top shape: 1024 150 9 9 (12441600)
I0417 17:26:58.959832 25166 net.cpp:165] Memory required for data: 3945127936
I0417 17:26:58.959836 25166 layer_factory.hpp:77] Creating layer conv3
I0417 17:26:58.959843 25166 net.cpp:100] Creating Layer conv3
I0417 17:26:58.959848 25166 net.cpp:434] conv3 <- pool2
I0417 17:26:58.959853 25166 net.cpp:408] conv3 -> conv3
I0417 17:26:58.967093 25166 net.cpp:150] Setting up conv3
I0417 17:26:58.967111 25166 net.cpp:157] Top shape: 1024 250 6 6 (9216000)
I0417 17:26:58.967115 25166 net.cpp:165] Memory required for data: 3981991936
I0417 17:26:58.967125 25166 layer_factory.hpp:77] Creating layer conv3_prescale
I0417 17:26:58.967146 25166 net.cpp:100] Creating Layer conv3_prescale
I0417 17:26:58.967151 25166 net.cpp:434] conv3_prescale <- conv3
I0417 17:26:58.967157 25166 net.cpp:395] conv3_prescale -> conv3 (in-place)
I0417 17:26:58.967250 25166 net.cpp:150] Setting up conv3_prescale
I0417 17:26:58.967259 25166 net.cpp:157] Top shape: 1024 250 6 6 (9216000)
I0417 17:26:58.967264 25166 net.cpp:165] Memory required for data: 4018855936
I0417 17:26:58.967269 25166 layer_factory.hpp:77] Creating layer conv3_sTanH
I0417 17:26:58.967275 25166 net.cpp:100] Creating Layer conv3_sTanH
I0417 17:26:58.967280 25166 net.cpp:434] conv3_sTanH <- conv3
I0417 17:26:58.967284 25166 net.cpp:395] conv3_sTanH -> conv3 (in-place)
I0417 17:26:58.969313 25166 net.cpp:150] Setting up conv3_sTanH
I0417 17:26:58.969331 25166 net.cpp:157] Top shape: 1024 250 6 6 (9216000)
I0417 17:26:58.969336 25166 net.cpp:165] Memory required for data: 4055719936
I0417 17:26:58.969339 25166 layer_factory.hpp:77] Creating layer conv3_postscale
I0417 17:26:58.969347 25166 net.cpp:100] Creating Layer conv3_postscale
I0417 17:26:58.969352 25166 net.cpp:434] conv3_postscale <- conv3
I0417 17:26:58.969357 25166 net.cpp:395] conv3_postscale -> conv3 (in-place)
I0417 17:26:58.969455 25166 net.cpp:150] Setting up conv3_postscale
I0417 17:26:58.969465 25166 net.cpp:157] Top shape: 1024 250 6 6 (9216000)
I0417 17:26:58.969470 25166 net.cpp:165] Memory required for data: 4092583936
I0417 17:26:58.969475 25166 layer_factory.hpp:77] Creating layer pool3
I0417 17:26:58.969485 25166 net.cpp:100] Creating Layer pool3
I0417 17:26:58.969491 25166 net.cpp:434] pool3 <- conv3
I0417 17:26:58.969497 25166 net.cpp:408] pool3 -> pool3
I0417 17:26:58.969537 25166 net.cpp:150] Setting up pool3
I0417 17:26:58.969544 25166 net.cpp:157] Top shape: 1024 250 3 3 (2304000)
I0417 17:26:58.969547 25166 net.cpp:165] Memory required for data: 4101799936
I0417 17:26:58.969552 25166 layer_factory.hpp:77] Creating layer fc4_300
I0417 17:26:58.969558 25166 net.cpp:100] Creating Layer fc4_300
I0417 17:26:58.969563 25166 net.cpp:434] fc4_300 <- pool3
I0417 17:26:58.969568 25166 net.cpp:408] fc4_300 -> fc4_300
I0417 17:26:58.975335 25166 net.cpp:150] Setting up fc4_300
I0417 17:26:58.975352 25166 net.cpp:157] Top shape: 1024 300 (307200)
I0417 17:26:58.975355 25166 net.cpp:165] Memory required for data: 4103028736
I0417 17:26:58.975363 25166 layer_factory.hpp:77] Creating layer fc4_prescale
I0417 17:26:58.975370 25166 net.cpp:100] Creating Layer fc4_prescale
I0417 17:26:58.975374 25166 net.cpp:434] fc4_prescale <- fc4_300
I0417 17:26:58.975379 25166 net.cpp:395] fc4_prescale -> fc4_300 (in-place)
I0417 17:26:58.975466 25166 net.cpp:150] Setting up fc4_prescale
I0417 17:26:58.975473 25166 net.cpp:157] Top shape: 1024 300 (307200)
I0417 17:26:58.975476 25166 net.cpp:165] Memory required for data: 4104257536
I0417 17:26:58.975481 25166 layer_factory.hpp:77] Creating layer fc4_sTanH
I0417 17:26:58.975488 25166 net.cpp:100] Creating Layer fc4_sTanH
I0417 17:26:58.975492 25166 net.cpp:434] fc4_sTanH <- fc4_300
I0417 17:26:58.975495 25166 net.cpp:395] fc4_sTanH -> fc4_300 (in-place)
I0417 17:26:58.975679 25166 net.cpp:150] Setting up fc4_sTanH
I0417 17:26:58.975690 25166 net.cpp:157] Top shape: 1024 300 (307200)
I0417 17:26:58.975694 25166 net.cpp:165] Memory required for data: 4105486336
I0417 17:26:58.975698 25166 layer_factory.hpp:77] Creating layer fc4_postscale
I0417 17:26:58.975705 25166 net.cpp:100] Creating Layer fc4_postscale
I0417 17:26:58.975709 25166 net.cpp:434] fc4_postscale <- fc4_300
I0417 17:26:58.975715 25166 net.cpp:395] fc4_postscale -> fc4_300 (in-place)
I0417 17:26:58.975853 25166 net.cpp:150] Setting up fc4_postscale
I0417 17:26:58.975870 25166 net.cpp:157] Top shape: 1024 300 (307200)
I0417 17:26:58.975885 25166 net.cpp:165] Memory required for data: 4106715136
I0417 17:26:58.975895 25166 layer_factory.hpp:77] Creating layer fc5_67
I0417 17:26:58.975908 25166 net.cpp:100] Creating Layer fc5_67
I0417 17:26:58.975916 25166 net.cpp:434] fc5_67 <- fc4_300
I0417 17:26:58.975927 25166 net.cpp:408] fc5_67 -> fc5_classes
I0417 17:26:58.985137 25166 net.cpp:150] Setting up fc5_67
I0417 17:26:58.985154 25166 net.cpp:157] Top shape: 1024 67 (68608)
I0417 17:26:58.985164 25166 net.cpp:165] Memory required for data: 4106989568
I0417 17:26:58.985177 25166 layer_factory.hpp:77] Creating layer fc5_classes_fc5_67_0_split
I0417 17:26:58.985185 25166 net.cpp:100] Creating Layer fc5_classes_fc5_67_0_split
I0417 17:26:58.985189 25166 net.cpp:434] fc5_classes_fc5_67_0_split <- fc5_classes
I0417 17:26:58.985195 25166 net.cpp:408] fc5_classes_fc5_67_0_split -> fc5_classes_fc5_67_0_split_0
I0417 17:26:58.985203 25166 net.cpp:408] fc5_classes_fc5_67_0_split -> fc5_classes_fc5_67_0_split_1
I0417 17:26:58.985209 25166 net.cpp:408] fc5_classes_fc5_67_0_split -> fc5_classes_fc5_67_0_split_2
I0417 17:26:58.985260 25166 net.cpp:150] Setting up fc5_classes_fc5_67_0_split
I0417 17:26:58.985266 25166 net.cpp:157] Top shape: 1024 67 (68608)
I0417 17:26:58.985270 25166 net.cpp:157] Top shape: 1024 67 (68608)
I0417 17:26:58.985273 25166 net.cpp:157] Top shape: 1024 67 (68608)
I0417 17:26:58.985276 25166 net.cpp:165] Memory required for data: 4107812864
I0417 17:26:58.985280 25166 layer_factory.hpp:77] Creating layer softmax
I0417 17:26:58.985285 25166 net.cpp:100] Creating Layer softmax
I0417 17:26:58.985293 25166 net.cpp:434] softmax <- fc5_classes_fc5_67_0_split_0
I0417 17:26:58.985298 25166 net.cpp:408] softmax -> softmax
I0417 17:26:58.985549 25166 net.cpp:150] Setting up softmax
I0417 17:26:58.985563 25166 net.cpp:157] Top shape: 1024 67 (68608)
I0417 17:26:58.985566 25166 net.cpp:165] Memory required for data: 4108087296
I0417 17:26:58.985570 25166 layer_factory.hpp:77] Creating layer loss
I0417 17:26:58.985577 25166 net.cpp:100] Creating Layer loss
I0417 17:26:58.985582 25166 net.cpp:434] loss <- softmax
I0417 17:26:58.985587 25166 net.cpp:434] loss <- label_data_1_split_0
I0417 17:26:58.985592 25166 net.cpp:408] loss -> loss
…
