…
I0414 04:35:46.602037  5514 solver.cpp:93] Creating training net from train_net file: ./Prototxt/experiment_11/rtsd-r1/orig/trial_2/train.prototxt
I0414 04:35:46.602514  5514 net.cpp:58] Initializing net from parameters: 
state {
  phase: TRAIN
  level: 0
  stage: ""
}
layer {
  name: "data"
  type: "Data"
  top: "data"
  top: "label"
  include {
    phase: TRAIN
  }
  transform_param {
    scale: 0.0039215689
    mirror: false
    crop_size: 48
    mean_value: 122
    mean_value: 115
    mean_value: 129
  }
  data_param {
    source: "../local_data/lmdb/rtsd-r1/orig/train/lmdb"
    batch_size: 1024
    backend: LMDB
  }
}
layer {
  name: "conv1"
  type: "Convolution"
  bottom: "data"
  top: "conv1"
  convolution_param {
    num_output: 100
    pad: 0
    kernel_size: 7
    group: 1
    stride: 1
    weight_filler {
      type: "xavier"
    }
  }
}
layer {
  name: "conv1_prescale"
  type: "Scale"
  bottom: "conv1"
  top: "conv1"
  param {
    lr_mult: 0
    decay_mult: 0
  }
  scale_param {
    filler {
      value: 0.6666
    }
    bias_term: false
  }
}
layer {
  name: "conv1_sTanH"
  type: "TanH"
  bottom: "conv1"
  top: "conv1"
}
layer {
  name: "conv1_postscale"
  type: "Scale"
  bottom: "conv1"
  top: "conv1"
  param {
    lr_mult: 0
    decay_mult: 0
  }
  scale_param {
    filler {
      value: 1.7159
    }
    bias_term: false
  }
}
layer {
  name: "pool1"
  type: "Pooling"
  bottom: "conv1"
  top: "pool1"
  pooling_param {
    pool: MAX
    kernel_size: 2
    stride: 2
  }
}
layer {
  name: "conv2"
  type: "Convolution"
  bottom: "pool1"
  top: "conv2"
  convolution_param {
    num_output: 150
    pad: 0
    kernel_size: 4
    group: 1
    stride: 1
    weight_filler {
      type: "xavier"
    }
  }
}
layer {
  name: "conv2_prescale"
  type: "Scale"
  bottom: "conv2"
  top: "conv2"
  param {
    lr_mult: 0
    decay_mult: 0
  }
  scale_param {
    filler {
      value: 0.6666
    }
    bias_term: false
  }
}
layer {
  name: "conv2_sTanH"
  type: "TanH"
  bottom: "conv2"
  top: "conv2"
}
layer {
  name: "conv2_postscale"
  type: "Scale"
  bottom: "conv2"
  top: "conv2"
  param {
    lr_mult: 0
    decay_mult: 0
  }
  scale_param {
    filler {
      value: 1.7159
    }
    bias_term: false
  }
}
layer {
  name: "pool2"
  type: "Pooling"
  bottom: "conv2"
  top: "pool2"
  pooling_param {
    pool: MAX
    kernel_size: 2
    stride: 2
  }
}
layer {
  name: "conv3"
  type: "Convolution"
  bottom: "pool2"
  top: "conv3"
  convolution_param {
    num_output: 250
    pad: 0
    kernel_size: 4
    group: 1
    stride: 1
    weight_filler {
      type: "xavier"
    }
  }
}
layer {
  name: "conv3_prescale"
  type: "Scale"
  bottom: "conv3"
  top: "conv3"
  param {
    lr_mult: 0
    decay_mult: 0
  }
  scale_param {
    filler {
      value: 0.6666
    }
    bias_term: false
  }
}
layer {
  name: "conv3_sTanH"
  type: "TanH"
  bottom: "conv3"
  top: "conv3"
}
layer {
  name: "conv3_postscale"
  type: "Scale"
  bottom: "conv3"
  top: "conv3"
  param {
    lr_mult: 0
    decay_mult: 0
  }
  scale_param {
    filler {
      value: 1.7159
    }
    bias_term: false
  }
}
layer {
  name: "pool3"
  type: "Pooling"
  bottom: "conv3"
  top: "pool3"
  pooling_param {
    pool: MAX
    kernel_size: 2
    stride: 2
  }
}
layer {
  name: "fc4_300"
  type: "InnerProduct"
  bottom: "pool3"
  top: "fc4_300"
  inner_product_param {
    num_output: 300
    weight_filler {
      type: "xavier"
    }
  }
}
layer {
  name: "fc4_prescale"
  type: "Scale"
  bottom: "fc4_300"
  top: "fc4_300"
  param {
    lr_mult: 0
    decay_mult: 0
  }
  scale_param {
    filler {
      value: 0.6666
    }
    bias_term: false
  }
}
layer {
  name: "fc4_sTanH"
  type: "TanH"
  bottom: "fc4_300"
  top: "fc4_300"
}
layer {
  name: "fc4_postscale"
  type: "Scale"
  bottom: "fc4_300"
  top: "fc4_300"
  param {
    lr_mult: 0
    decay_mult: 0
  }
  scale_param {
    filler {
      value: 1.7159
    }
    bias_term: false
  }
}
layer {
  name: "fc5_67"
  type: "InnerProduct"
  bottom: "fc4_300"
  top: "fc5_classes"
  inner_product_param {
    num_output: 67
    weight_filler {
      type: "xavier"
    }
  }
}
layer {
  name: "softmax"
  type: "Softmax"
  bottom: "fc5_classes"
  top: "softmax"
}
layer {
  name: "loss"
  type: "MultinomialLogisticLoss"
  bottom: "softmax"
  bottom: "label"
  top: "loss"
}
layer {
  name: "accuracy_1"
  type: "Accuracy"
  bottom: "fc5_classes"
  bottom: "label"
  top: "accuracy_1"
  accuracy_param {
    top_k: 1
  }
}
layer {
  name: "accuracy_5"
  type: "Accuracy"
  bottom: "fc5_classes"
  bottom: "label"
  top: "accuracy_5"
  accuracy_param {
    top_k: 5
  }
}
layer {
  name: "silence"
  type: "Silence"
  bottom: "accuracy_1"
  bottom: "accuracy_5"
}
I0414 04:35:46.602674  5514 layer_factory.hpp:77] Creating layer data
I0414 04:35:46.603762  5514 net.cpp:100] Creating Layer data
I0414 04:35:46.603791  5514 net.cpp:408] data -> data
I0414 04:35:46.603814  5514 net.cpp:408] data -> label
I0414 04:35:46.610520  5637 db_lmdb.cpp:35] Opened lmdb ../local_data/lmdb/rtsd-r1/orig/train/lmdb
I0414 04:35:46.639240  5514 data_layer.cpp:41] output data size: 1024,3,48,48
I0414 04:35:46.720736  5514 net.cpp:150] Setting up data
I0414 04:35:46.720764  5514 net.cpp:157] Top shape: 1024 3 48 48 (7077888)
I0414 04:35:46.720770  5514 net.cpp:157] Top shape: 1024 (1024)
I0414 04:35:46.720772  5514 net.cpp:165] Memory required for data: 28315648
I0414 04:35:46.720783  5514 layer_factory.hpp:77] Creating layer label_data_1_split
I0414 04:35:46.720798  5514 net.cpp:100] Creating Layer label_data_1_split
I0414 04:35:46.720803  5514 net.cpp:434] label_data_1_split <- label
I0414 04:35:46.720816  5514 net.cpp:408] label_data_1_split -> label_data_1_split_0
I0414 04:35:46.720827  5514 net.cpp:408] label_data_1_split -> label_data_1_split_1
I0414 04:35:46.720834  5514 net.cpp:408] label_data_1_split -> label_data_1_split_2
I0414 04:35:46.720966  5514 net.cpp:150] Setting up label_data_1_split
I0414 04:35:46.720976  5514 net.cpp:157] Top shape: 1024 (1024)
I0414 04:35:46.720980  5514 net.cpp:157] Top shape: 1024 (1024)
I0414 04:35:46.720983  5514 net.cpp:157] Top shape: 1024 (1024)
I0414 04:35:46.720986  5514 net.cpp:165] Memory required for data: 28327936
I0414 04:35:46.720989  5514 layer_factory.hpp:77] Creating layer conv1
I0414 04:35:46.721004  5514 net.cpp:100] Creating Layer conv1
I0414 04:35:46.721009  5514 net.cpp:434] conv1 <- data
I0414 04:35:46.721016  5514 net.cpp:408] conv1 -> conv1
I0414 04:35:47.168814  5514 net.cpp:150] Setting up conv1
I0414 04:35:47.168843  5514 net.cpp:157] Top shape: 1024 100 42 42 (180633600)
I0414 04:35:47.168846  5514 net.cpp:165] Memory required for data: 750862336
I0414 04:35:47.168869  5514 layer_factory.hpp:77] Creating layer conv1_prescale
I0414 04:35:47.168884  5514 net.cpp:100] Creating Layer conv1_prescale
I0414 04:35:47.168889  5514 net.cpp:434] conv1_prescale <- conv1
I0414 04:35:47.168895  5514 net.cpp:395] conv1_prescale -> conv1 (in-place)
I0414 04:35:47.169001  5514 net.cpp:150] Setting up conv1_prescale
I0414 04:35:47.169013  5514 net.cpp:157] Top shape: 1024 100 42 42 (180633600)
I0414 04:35:47.169015  5514 net.cpp:165] Memory required for data: 1473396736
I0414 04:35:47.169023  5514 layer_factory.hpp:77] Creating layer conv1_sTanH
I0414 04:35:47.169033  5514 net.cpp:100] Creating Layer conv1_sTanH
I0414 04:35:47.169037  5514 net.cpp:434] conv1_sTanH <- conv1
I0414 04:35:47.169041  5514 net.cpp:395] conv1_sTanH -> conv1 (in-place)
I0414 04:35:47.169240  5514 net.cpp:150] Setting up conv1_sTanH
I0414 04:35:47.169252  5514 net.cpp:157] Top shape: 1024 100 42 42 (180633600)
I0414 04:35:47.169278  5514 net.cpp:165] Memory required for data: 2195931136
I0414 04:35:47.169283  5514 layer_factory.hpp:77] Creating layer conv1_postscale
I0414 04:35:47.169291  5514 net.cpp:100] Creating Layer conv1_postscale
I0414 04:35:47.169296  5514 net.cpp:434] conv1_postscale <- conv1
I0414 04:35:47.169301  5514 net.cpp:395] conv1_postscale -> conv1 (in-place)
I0414 04:35:47.169399  5514 net.cpp:150] Setting up conv1_postscale
I0414 04:35:47.169407  5514 net.cpp:157] Top shape: 1024 100 42 42 (180633600)
I0414 04:35:47.169410  5514 net.cpp:165] Memory required for data: 2918465536
I0414 04:35:47.169415  5514 layer_factory.hpp:77] Creating layer pool1
I0414 04:35:47.169422  5514 net.cpp:100] Creating Layer pool1
I0414 04:35:47.169425  5514 net.cpp:434] pool1 <- conv1
I0414 04:35:47.169430  5514 net.cpp:408] pool1 -> pool1
I0414 04:35:47.169479  5514 net.cpp:150] Setting up pool1
I0414 04:35:47.169488  5514 net.cpp:157] Top shape: 1024 100 21 21 (45158400)
I0414 04:35:47.169492  5514 net.cpp:165] Memory required for data: 3099099136
I0414 04:35:47.169494  5514 layer_factory.hpp:77] Creating layer conv2
I0414 04:35:47.169503  5514 net.cpp:100] Creating Layer conv2
I0414 04:35:47.169508  5514 net.cpp:434] conv2 <- pool1
I0414 04:35:47.169513  5514 net.cpp:408] conv2 -> conv2
I0414 04:35:47.187146  5514 net.cpp:150] Setting up conv2
I0414 04:35:47.187166  5514 net.cpp:157] Top shape: 1024 150 18 18 (49766400)
I0414 04:35:47.187170  5514 net.cpp:165] Memory required for data: 3298164736
I0414 04:35:47.187181  5514 layer_factory.hpp:77] Creating layer conv2_prescale
I0414 04:35:47.187191  5514 net.cpp:100] Creating Layer conv2_prescale
I0414 04:35:47.187196  5514 net.cpp:434] conv2_prescale <- conv2
I0414 04:35:47.187201  5514 net.cpp:395] conv2_prescale -> conv2 (in-place)
I0414 04:35:47.187310  5514 net.cpp:150] Setting up conv2_prescale
I0414 04:35:47.187320  5514 net.cpp:157] Top shape: 1024 150 18 18 (49766400)
I0414 04:35:47.187324  5514 net.cpp:165] Memory required for data: 3497230336
I0414 04:35:47.187328  5514 layer_factory.hpp:77] Creating layer conv2_sTanH
I0414 04:35:47.187335  5514 net.cpp:100] Creating Layer conv2_sTanH
I0414 04:35:47.187337  5514 net.cpp:434] conv2_sTanH <- conv2
I0414 04:35:47.187342  5514 net.cpp:395] conv2_sTanH -> conv2 (in-place)
I0414 04:35:47.188535  5514 net.cpp:150] Setting up conv2_sTanH
I0414 04:35:47.188552  5514 net.cpp:157] Top shape: 1024 150 18 18 (49766400)
I0414 04:35:47.188556  5514 net.cpp:165] Memory required for data: 3696295936
I0414 04:35:47.188560  5514 layer_factory.hpp:77] Creating layer conv2_postscale
I0414 04:35:47.188567  5514 net.cpp:100] Creating Layer conv2_postscale
I0414 04:35:47.188571  5514 net.cpp:434] conv2_postscale <- conv2
I0414 04:35:47.188577  5514 net.cpp:395] conv2_postscale -> conv2 (in-place)
I0414 04:35:47.188673  5514 net.cpp:150] Setting up conv2_postscale
I0414 04:35:47.188683  5514 net.cpp:157] Top shape: 1024 150 18 18 (49766400)
I0414 04:35:47.188685  5514 net.cpp:165] Memory required for data: 3895361536
I0414 04:35:47.188690  5514 layer_factory.hpp:77] Creating layer pool2
I0414 04:35:47.188696  5514 net.cpp:100] Creating Layer pool2
I0414 04:35:47.188701  5514 net.cpp:434] pool2 <- conv2
I0414 04:35:47.188706  5514 net.cpp:408] pool2 -> pool2
I0414 04:35:47.188747  5514 net.cpp:150] Setting up pool2
I0414 04:35:47.188755  5514 net.cpp:157] Top shape: 1024 150 9 9 (12441600)
I0414 04:35:47.188758  5514 net.cpp:165] Memory required for data: 3945127936
I0414 04:35:47.188761  5514 layer_factory.hpp:77] Creating layer conv3
I0414 04:35:47.188769  5514 net.cpp:100] Creating Layer conv3
I0414 04:35:47.188774  5514 net.cpp:434] conv3 <- pool2
I0414 04:35:47.188779  5514 net.cpp:408] conv3 -> conv3
I0414 04:35:47.194914  5514 net.cpp:150] Setting up conv3
I0414 04:35:47.194934  5514 net.cpp:157] Top shape: 1024 250 6 6 (9216000)
I0414 04:35:47.194938  5514 net.cpp:165] Memory required for data: 3981991936
I0414 04:35:47.194949  5514 layer_factory.hpp:77] Creating layer conv3_prescale
I0414 04:35:47.194975  5514 net.cpp:100] Creating Layer conv3_prescale
I0414 04:35:47.194980  5514 net.cpp:434] conv3_prescale <- conv3
I0414 04:35:47.194986  5514 net.cpp:395] conv3_prescale -> conv3 (in-place)
I0414 04:35:47.195082  5514 net.cpp:150] Setting up conv3_prescale
I0414 04:35:47.195091  5514 net.cpp:157] Top shape: 1024 250 6 6 (9216000)
I0414 04:35:47.195094  5514 net.cpp:165] Memory required for data: 4018855936
I0414 04:35:47.195099  5514 layer_factory.hpp:77] Creating layer conv3_sTanH
I0414 04:35:47.195106  5514 net.cpp:100] Creating Layer conv3_sTanH
I0414 04:35:47.195111  5514 net.cpp:434] conv3_sTanH <- conv3
I0414 04:35:47.195116  5514 net.cpp:395] conv3_sTanH -> conv3 (in-place)
I0414 04:35:47.205454  5514 net.cpp:150] Setting up conv3_sTanH
I0414 04:35:47.205474  5514 net.cpp:157] Top shape: 1024 250 6 6 (9216000)
I0414 04:35:47.205477  5514 net.cpp:165] Memory required for data: 4055719936
I0414 04:35:47.205482  5514 layer_factory.hpp:77] Creating layer conv3_postscale
I0414 04:35:47.205490  5514 net.cpp:100] Creating Layer conv3_postscale
I0414 04:35:47.205497  5514 net.cpp:434] conv3_postscale <- conv3
I0414 04:35:47.205502  5514 net.cpp:395] conv3_postscale -> conv3 (in-place)
I0414 04:35:47.205602  5514 net.cpp:150] Setting up conv3_postscale
I0414 04:35:47.205611  5514 net.cpp:157] Top shape: 1024 250 6 6 (9216000)
I0414 04:35:47.205615  5514 net.cpp:165] Memory required for data: 4092583936
I0414 04:35:47.205621  5514 layer_factory.hpp:77] Creating layer pool3
I0414 04:35:47.205628  5514 net.cpp:100] Creating Layer pool3
I0414 04:35:47.205633  5514 net.cpp:434] pool3 <- conv3
I0414 04:35:47.205639  5514 net.cpp:408] pool3 -> pool3
I0414 04:35:47.205677  5514 net.cpp:150] Setting up pool3
I0414 04:35:47.205685  5514 net.cpp:157] Top shape: 1024 250 3 3 (2304000)
I0414 04:35:47.205688  5514 net.cpp:165] Memory required for data: 4101799936
I0414 04:35:47.205691  5514 layer_factory.hpp:77] Creating layer fc4_300
I0414 04:35:47.205698  5514 net.cpp:100] Creating Layer fc4_300
I0414 04:35:47.205701  5514 net.cpp:434] fc4_300 <- pool3
I0414 04:35:47.205708  5514 net.cpp:408] fc4_300 -> fc4_300
I0414 04:35:47.216176  5514 net.cpp:150] Setting up fc4_300
I0414 04:35:47.216195  5514 net.cpp:157] Top shape: 1024 300 (307200)
I0414 04:35:47.216199  5514 net.cpp:165] Memory required for data: 4103028736
I0414 04:35:47.216207  5514 layer_factory.hpp:77] Creating layer fc4_prescale
I0414 04:35:47.216215  5514 net.cpp:100] Creating Layer fc4_prescale
I0414 04:35:47.216218  5514 net.cpp:434] fc4_prescale <- fc4_300
I0414 04:35:47.216224  5514 net.cpp:395] fc4_prescale -> fc4_300 (in-place)
I0414 04:35:47.216315  5514 net.cpp:150] Setting up fc4_prescale
I0414 04:35:47.216325  5514 net.cpp:157] Top shape: 1024 300 (307200)
I0414 04:35:47.216327  5514 net.cpp:165] Memory required for data: 4104257536
I0414 04:35:47.216333  5514 layer_factory.hpp:77] Creating layer fc4_sTanH
I0414 04:35:47.216338  5514 net.cpp:100] Creating Layer fc4_sTanH
I0414 04:35:47.216341  5514 net.cpp:434] fc4_sTanH <- fc4_300
I0414 04:35:47.216346  5514 net.cpp:395] fc4_sTanH -> fc4_300 (in-place)
I0414 04:35:47.216534  5514 net.cpp:150] Setting up fc4_sTanH
I0414 04:35:47.216547  5514 net.cpp:157] Top shape: 1024 300 (307200)
I0414 04:35:47.216549  5514 net.cpp:165] Memory required for data: 4105486336
I0414 04:35:47.216552  5514 layer_factory.hpp:77] Creating layer fc4_postscale
I0414 04:35:47.216559  5514 net.cpp:100] Creating Layer fc4_postscale
I0414 04:35:47.216563  5514 net.cpp:434] fc4_postscale <- fc4_300
I0414 04:35:47.216568  5514 net.cpp:395] fc4_postscale -> fc4_300 (in-place)
I0414 04:35:47.216670  5514 net.cpp:150] Setting up fc4_postscale
I0414 04:35:47.216678  5514 net.cpp:157] Top shape: 1024 300 (307200)
I0414 04:35:47.216681  5514 net.cpp:165] Memory required for data: 4106715136
I0414 04:35:47.216686  5514 layer_factory.hpp:77] Creating layer fc5_67
I0414 04:35:47.216692  5514 net.cpp:100] Creating Layer fc5_67
I0414 04:35:47.216696  5514 net.cpp:434] fc5_67 <- fc4_300
I0414 04:35:47.216701  5514 net.cpp:408] fc5_67 -> fc5_classes
I0414 04:35:47.229511  5514 net.cpp:150] Setting up fc5_67
I0414 04:35:47.229531  5514 net.cpp:157] Top shape: 1024 67 (68608)
I0414 04:35:47.229534  5514 net.cpp:165] Memory required for data: 4106989568
I0414 04:35:47.229547  5514 layer_factory.hpp:77] Creating layer fc5_classes_fc5_67_0_split
I0414 04:35:47.229554  5514 net.cpp:100] Creating Layer fc5_classes_fc5_67_0_split
I0414 04:35:47.229558  5514 net.cpp:434] fc5_classes_fc5_67_0_split <- fc5_classes
I0414 04:35:47.229564  5514 net.cpp:408] fc5_classes_fc5_67_0_split -> fc5_classes_fc5_67_0_split_0
I0414 04:35:47.229573  5514 net.cpp:408] fc5_classes_fc5_67_0_split -> fc5_classes_fc5_67_0_split_1
I0414 04:35:47.229579  5514 net.cpp:408] fc5_classes_fc5_67_0_split -> fc5_classes_fc5_67_0_split_2
I0414 04:35:47.229634  5514 net.cpp:150] Setting up fc5_classes_fc5_67_0_split
I0414 04:35:47.229641  5514 net.cpp:157] Top shape: 1024 67 (68608)
I0414 04:35:47.229645  5514 net.cpp:157] Top shape: 1024 67 (68608)
I0414 04:35:47.229648  5514 net.cpp:157] Top shape: 1024 67 (68608)
I0414 04:35:47.229650  5514 net.cpp:165] Memory required for data: 4107812864
I0414 04:35:47.229653  5514 layer_factory.hpp:77] Creating layer softmax
I0414 04:35:47.229660  5514 net.cpp:100] Creating Layer softmax
I0414 04:35:47.229663  5514 net.cpp:434] softmax <- fc5_classes_fc5_67_0_split_0
I0414 04:35:47.229668  5514 net.cpp:408] softmax -> softmax
I0414 04:35:47.229930  5514 net.cpp:150] Setting up softmax
I0414 04:35:47.229944  5514 net.cpp:157] Top shape: 1024 67 (68608)
I0414 04:35:47.229948  5514 net.cpp:165] Memory required for data: 4108087296
I0414 04:35:47.229951  5514 layer_factory.hpp:77] Creating layer loss
I0414 04:35:47.229957  5514 net.cpp:100] Creating Layer loss
I0414 04:35:47.229961  5514 net.cpp:434] loss <- softmax
I0414 04:35:47.229966  5514 net.cpp:434] loss <- label_data_1_split_0
I0414 04:35:47.229971  5514 net.cpp:408] loss -> loss
…
