…
I0402 16:44:23.835963 11128 net.cpp:322] The NetState phase (0) differed from the phase (1) specified by a rule in layer accuracy_5
I0402 16:44:23.836056 11128 net.cpp:58] Initializing net from parameters: 
state {
  phase: TRAIN
  level: 0
  stage: ""
}
layer {
  name: "data"
  type: "Data"
  top: "data"
  top: "label"
  include {
    phase: TRAIN
  }
  transform_param {
    mirror: false
    crop_size: 48
    mean_value: 133
    mean_value: 126
    mean_value: 125
  }
  data_param {
    source: "../local_data/lmdb/rtsd-r3/AHE/train/lmdb"
    batch_size: 1024
    backend: LMDB
  }
}
layer {
  name: "conv1"
  type: "Convolution"
  bottom: "data"
  top: "conv1"
  convolution_param {
    num_output: 100
    pad: 0
    kernel_size: 7
    group: 1
    stride: 1
    weight_filler {
      type: "xavier"
    }
  }
}
layer {
  name: "conv1_relu"
  type: "ReLU"
  bottom: "conv1"
  top: "conv1"
}
layer {
  name: "pool1"
  type: "Pooling"
  bottom: "conv1"
  top: "pool1"
  pooling_param {
    pool: MAX
    kernel_size: 2
    stride: 2
  }
}
layer {
  name: "conv2"
  type: "Convolution"
  bottom: "pool1"
  top: "conv2"
  convolution_param {
    num_output: 150
    pad: 0
    kernel_size: 4
    group: 1
    stride: 1
    weight_filler {
      type: "xavier"
    }
  }
}
layer {
  name: "conv2_relu"
  type: "ReLU"
  bottom: "conv2"
  top: "conv2"
}
layer {
  name: "pool2"
  type: "Pooling"
  bottom: "conv2"
  top: "pool2"
  pooling_param {
    pool: MAX
    kernel_size: 2
    stride: 2
  }
}
layer {
  name: "conv3"
  type: "Convolution"
  bottom: "pool2"
  top: "conv3"
  convolution_param {
    num_output: 250
    pad: 0
    kernel_size: 4
    group: 1
    stride: 1
    weight_filler {
      type: "xavier"
    }
  }
}
layer {
  name: "conv3_relu"
  type: "ReLU"
  bottom: "conv3"
  top: "conv3"
}
layer {
  name: "pool3"
  type: "Pooling"
  bottom: "conv3"
  top: "pool3"
  pooling_param {
    pool: MAX
    kernel_size: 2
    stride: 2
  }
}
layer {
  name: "fc4_300"
  type: "InnerProduct"
  bottom: "pool3"
  top: "fc4_300"
  inner_product_param {
    num_output: 300
    weight_filler {
      type: "xavier"
    }
  }
}
layer {
  name: "fc4_relu"
  type: "ReLU"
  bottom: "fc4_300"
  top: "fc4_300"
}
layer {
  name: "drop4"
  type: "Dropout"
  bottom: "fc4_300"
  top: "fc4_300"
  dropout_param {
    dropout_ratio: 0.4
  }
}
layer {
  name: "fc5_106"
  type: "InnerProduct"
  bottom: "fc4_300"
  top: "fc5_classes"
  inner_product_param {
    num_output: 106
    weight_filler {
      type: "xavier"
    }
  }
}
layer {
  name: "loss"
  type: "SoftmaxWithLoss"
  bottom: "fc5_classes"
  bottom: "label"
  top: "loss"
}
I0402 16:44:23.836127 11128 layer_factory.hpp:77] Creating layer data
I0402 16:44:23.837447 11128 net.cpp:100] Creating Layer data
I0402 16:44:23.837462 11128 net.cpp:408] data -> data
I0402 16:44:23.837486 11128 net.cpp:408] data -> label
I0402 16:44:23.839031 11177 db_lmdb.cpp:35] Opened lmdb ../local_data/lmdb/rtsd-r3/AHE/train/lmdb
I0402 16:44:23.855635 11128 data_layer.cpp:41] output data size: 1024,3,48,48
I0402 16:44:23.896667 11128 net.cpp:150] Setting up data
I0402 16:44:23.896702 11128 net.cpp:157] Top shape: 1024 3 48 48 (7077888)
I0402 16:44:23.896706 11128 net.cpp:157] Top shape: 1024 (1024)
I0402 16:44:23.896733 11128 net.cpp:165] Memory required for data: 28315648
I0402 16:44:23.896744 11128 layer_factory.hpp:77] Creating layer conv1
I0402 16:44:23.896766 11128 net.cpp:100] Creating Layer conv1
I0402 16:44:23.896771 11128 net.cpp:434] conv1 <- data
I0402 16:44:23.896785 11128 net.cpp:408] conv1 -> conv1
I0402 16:44:24.161531 11128 net.cpp:150] Setting up conv1
I0402 16:44:24.161572 11128 net.cpp:157] Top shape: 1024 100 42 42 (180633600)
I0402 16:44:24.161576 11128 net.cpp:165] Memory required for data: 750850048
I0402 16:44:24.161597 11128 layer_factory.hpp:77] Creating layer conv1_relu
I0402 16:44:24.161609 11128 net.cpp:100] Creating Layer conv1_relu
I0402 16:44:24.161613 11128 net.cpp:434] conv1_relu <- conv1
I0402 16:44:24.161630 11128 net.cpp:395] conv1_relu -> conv1 (in-place)
I0402 16:44:24.161830 11128 net.cpp:150] Setting up conv1_relu
I0402 16:44:24.161842 11128 net.cpp:157] Top shape: 1024 100 42 42 (180633600)
I0402 16:44:24.161845 11128 net.cpp:165] Memory required for data: 1473384448
I0402 16:44:24.161849 11128 layer_factory.hpp:77] Creating layer pool1
I0402 16:44:24.161856 11128 net.cpp:100] Creating Layer pool1
I0402 16:44:24.161859 11128 net.cpp:434] pool1 <- conv1
I0402 16:44:24.161864 11128 net.cpp:408] pool1 -> pool1
I0402 16:44:24.161916 11128 net.cpp:150] Setting up pool1
I0402 16:44:24.161926 11128 net.cpp:157] Top shape: 1024 100 21 21 (45158400)
I0402 16:44:24.161928 11128 net.cpp:165] Memory required for data: 1654018048
I0402 16:44:24.161931 11128 layer_factory.hpp:77] Creating layer conv2
I0402 16:44:24.161942 11128 net.cpp:100] Creating Layer conv2
I0402 16:44:24.161947 11128 net.cpp:434] conv2 <- pool1
I0402 16:44:24.161952 11128 net.cpp:408] conv2 -> conv2
I0402 16:44:24.166065 11128 net.cpp:150] Setting up conv2
I0402 16:44:24.166093 11128 net.cpp:157] Top shape: 1024 150 18 18 (49766400)
I0402 16:44:24.166097 11128 net.cpp:165] Memory required for data: 1853083648
I0402 16:44:24.166105 11128 layer_factory.hpp:77] Creating layer conv2_relu
I0402 16:44:24.166113 11128 net.cpp:100] Creating Layer conv2_relu
I0402 16:44:24.166116 11128 net.cpp:434] conv2_relu <- conv2
I0402 16:44:24.166121 11128 net.cpp:395] conv2_relu -> conv2 (in-place)
I0402 16:44:24.166867 11128 net.cpp:150] Setting up conv2_relu
I0402 16:44:24.166882 11128 net.cpp:157] Top shape: 1024 150 18 18 (49766400)
I0402 16:44:24.166895 11128 net.cpp:165] Memory required for data: 2052149248
I0402 16:44:24.166899 11128 layer_factory.hpp:77] Creating layer pool2
I0402 16:44:24.166905 11128 net.cpp:100] Creating Layer pool2
I0402 16:44:24.166908 11128 net.cpp:434] pool2 <- conv2
I0402 16:44:24.166914 11128 net.cpp:408] pool2 -> pool2
I0402 16:44:24.166970 11128 net.cpp:150] Setting up pool2
I0402 16:44:24.166977 11128 net.cpp:157] Top shape: 1024 150 9 9 (12441600)
I0402 16:44:24.166980 11128 net.cpp:165] Memory required for data: 2101915648
I0402 16:44:24.166982 11128 layer_factory.hpp:77] Creating layer conv3
I0402 16:44:24.166990 11128 net.cpp:100] Creating Layer conv3
I0402 16:44:24.166995 11128 net.cpp:434] conv3 <- pool2
I0402 16:44:24.166998 11128 net.cpp:408] conv3 -> conv3
I0402 16:44:24.172413 11128 net.cpp:150] Setting up conv3
I0402 16:44:24.172430 11128 net.cpp:157] Top shape: 1024 250 6 6 (9216000)
I0402 16:44:24.172435 11128 net.cpp:165] Memory required for data: 2138779648
I0402 16:44:24.172444 11128 layer_factory.hpp:77] Creating layer conv3_relu
I0402 16:44:24.172452 11128 net.cpp:100] Creating Layer conv3_relu
I0402 16:44:24.172456 11128 net.cpp:434] conv3_relu <- conv3
I0402 16:44:24.172461 11128 net.cpp:395] conv3_relu -> conv3 (in-place)
I0402 16:44:24.173207 11128 net.cpp:150] Setting up conv3_relu
I0402 16:44:24.173234 11128 net.cpp:157] Top shape: 1024 250 6 6 (9216000)
I0402 16:44:24.173238 11128 net.cpp:165] Memory required for data: 2175643648
I0402 16:44:24.173240 11128 layer_factory.hpp:77] Creating layer pool3
I0402 16:44:24.173247 11128 net.cpp:100] Creating Layer pool3
I0402 16:44:24.173251 11128 net.cpp:434] pool3 <- conv3
I0402 16:44:24.173257 11128 net.cpp:408] pool3 -> pool3
I0402 16:44:24.173319 11128 net.cpp:150] Setting up pool3
I0402 16:44:24.173329 11128 net.cpp:157] Top shape: 1024 250 3 3 (2304000)
I0402 16:44:24.173332 11128 net.cpp:165] Memory required for data: 2184859648
I0402 16:44:24.173336 11128 layer_factory.hpp:77] Creating layer fc4_300
I0402 16:44:24.173342 11128 net.cpp:100] Creating Layer fc4_300
I0402 16:44:24.173346 11128 net.cpp:434] fc4_300 <- pool3
I0402 16:44:24.173351 11128 net.cpp:408] fc4_300 -> fc4_300
I0402 16:44:24.178680 11128 net.cpp:150] Setting up fc4_300
I0402 16:44:24.178696 11128 net.cpp:157] Top shape: 1024 300 (307200)
I0402 16:44:24.178700 11128 net.cpp:165] Memory required for data: 2186088448
I0402 16:44:24.178707 11128 layer_factory.hpp:77] Creating layer fc4_relu
I0402 16:44:24.178714 11128 net.cpp:100] Creating Layer fc4_relu
I0402 16:44:24.178717 11128 net.cpp:434] fc4_relu <- fc4_300
I0402 16:44:24.178725 11128 net.cpp:395] fc4_relu -> fc4_300 (in-place)
I0402 16:44:24.178915 11128 net.cpp:150] Setting up fc4_relu
I0402 16:44:24.178930 11128 net.cpp:157] Top shape: 1024 300 (307200)
I0402 16:44:24.178932 11128 net.cpp:165] Memory required for data: 2187317248
I0402 16:44:24.178936 11128 layer_factory.hpp:77] Creating layer drop4
I0402 16:44:24.178943 11128 net.cpp:100] Creating Layer drop4
I0402 16:44:24.178956 11128 net.cpp:434] drop4 <- fc4_300
I0402 16:44:24.178961 11128 net.cpp:395] drop4 -> fc4_300 (in-place)
I0402 16:44:24.178993 11128 net.cpp:150] Setting up drop4
I0402 16:44:24.179000 11128 net.cpp:157] Top shape: 1024 300 (307200)
I0402 16:44:24.179003 11128 net.cpp:165] Memory required for data: 2188546048
I0402 16:44:24.179006 11128 layer_factory.hpp:77] Creating layer fc5_106
I0402 16:44:24.179013 11128 net.cpp:100] Creating Layer fc5_106
I0402 16:44:24.179016 11128 net.cpp:434] fc5_106 <- fc4_300
I0402 16:44:24.179020 11128 net.cpp:408] fc5_106 -> fc5_classes
I0402 16:44:24.180307 11128 net.cpp:150] Setting up fc5_106
I0402 16:44:24.180325 11128 net.cpp:157] Top shape: 1024 106 (108544)
I0402 16:44:24.180328 11128 net.cpp:165] Memory required for data: 2188980224
I0402 16:44:24.180337 11128 layer_factory.hpp:77] Creating layer loss
I0402 16:44:24.180344 11128 net.cpp:100] Creating Layer loss
I0402 16:44:24.180348 11128 net.cpp:434] loss <- fc5_classes
I0402 16:44:24.180352 11128 net.cpp:434] loss <- label
I0402 16:44:24.180357 11128 net.cpp:408] loss -> loss
I0402 16:44:24.180369 11128 layer_factory.hpp:77] Creating layer loss
…
I0402 16:44:24.181025 11128 solver.cpp:193] Creating test net (#0) specified by test_net file: ./Prototxt/experiment_3/rtsd-r3/AHE/test.prototxt
I0402 16:44:24.181160 11128 net.cpp:58] Initializing net from parameters: 
state {
  phase: TEST
}
layer {
  name: "data"
  type: "Data"
  top: "data"
  top: "label"
  include {
    phase: TEST
  }
  transform_param {
    mirror: false
    crop_size: 48
    mean_value: 129
    mean_value: 124
    mean_value: 125
  }
  data_param {
    source: "../local_data/lmdb/rtsd-r3/AHE/test/lmdb"
    batch_size: 1024
    backend: LMDB
  }
}
layer {
  name: "conv1"
  type: "Convolution"
  bottom: "data"
  top: "conv1"
  convolution_param {
    num_output: 100
    pad: 0
    kernel_size: 7
    group: 1
    stride: 1
    weight_filler {
      type: "xavier"
    }
  }
}
layer {
  name: "conv1_relu"
  type: "ReLU"
  bottom: "conv1"
  top: "conv1"
}
layer {
  name: "pool1"
  type: "Pooling"
  bottom: "conv1"
  top: "pool1"
  pooling_param {
    pool: MAX
    kernel_size: 2
    stride: 2
  }
}
layer {
  name: "conv2"
  type: "Convolution"
  bottom: "pool1"
  top: "conv2"
  convolution_param {
    num_output: 150
    pad: 0
    kernel_size: 4
    group: 1
    stride: 1
    weight_filler {
      type: "xavier"
    }
  }
}
layer {
  name: "conv2_relu"
  type: "ReLU"
  bottom: "conv2"
  top: "conv2"
}
layer {
  name: "pool2"
  type: "Pooling"
  bottom: "conv2"
  top: "pool2"
  pooling_param {
    pool: MAX
    kernel_size: 2
    stride: 2
  }
}
layer {
  name: "conv3"
  type: "Convolution"
  bottom: "pool2"
  top: "conv3"
  convolution_param {
    num_output: 250
    pad: 0
    kernel_size: 4
    group: 1
    stride: 1
    weight_filler {
      type: "xavier"
    }
  }
}
layer {
  name: "conv3_relu"
  type: "ReLU"
  bottom: "conv3"
  top: "conv3"
}
layer {
  name: "pool3"
  type: "Pooling"
  bottom: "conv3"
  top: "pool3"
  pooling_param {
    pool: MAX
    kernel_size: 2
    stride: 2
  }
}
layer {
  name: "fc4_300"
  type: "InnerProduct"
  bottom: "pool3"
  top: "fc4_300"
  inner_product_param {
    num_output: 300
    weight_filler {
      type: "xavier"
    }
  }
}
layer {
  name: "fc4_relu"
  type: "ReLU"
  bottom: "fc4_300"
  top: "fc4_300"
}
layer {
  name: "drop4"
  type: "Dropout"
  bottom: "fc4_300"
  top: "fc4_300"
  dropout_param {
    dropout_ratio: 0.4
  }
}
layer {
  name: "fc5_106"
  type: "InnerProduct"
  bottom: "fc4_300"
  top: "fc5_classes"
  inner_product_param {
    num_output: 106
    weight_filler {
      type: "xavier"
    }
  }
}
layer {
  name: "loss"
  type: "SoftmaxWithLoss"
  bottom: "fc5_classes"
  bottom: "label"
  top: "loss"
}
layer {
  name: "accuracy_1"
  type: "Accuracy"
  bottom: "fc5_classes"
  bottom: "label"
  top: "accuracy_1"
  include {
    phase: TEST
  }
  accuracy_param {
    top_k: 1
  }
}
layer {
  name: "accuracy_5"
  type: "Accuracy"
  bottom: "fc5_classes"
  bottom: "label"
  top: "accuracy_5"
  include {
    phase: TEST
  }
  accuracy_param {
    top_k: 5
  }
}
I0402 16:44:24.181241 11128 layer_factory.hpp:77] Creating layer data
I0402 16:44:24.181800 11128 net.cpp:100] Creating Layer data
I0402 16:44:24.181812 11128 net.cpp:408] data -> data
I0402 16:44:24.181819 11128 net.cpp:408] data -> label
I0402 16:44:24.183328 11185 db_lmdb.cpp:35] Opened lmdb ../local_data/lmdb/rtsd-r3/AHE/test/lmdb
I0402 16:44:24.183488 11128 data_layer.cpp:41] output data size: 1024,3,48,48
I0402 16:44:24.234242 11128 net.cpp:150] Setting up data
I0402 16:44:24.234277 11128 net.cpp:157] Top shape: 1024 3 48 48 (7077888)
I0402 16:44:24.234283 11128 net.cpp:157] Top shape: 1024 (1024)
I0402 16:44:24.234287 11128 net.cpp:165] Memory required for data: 28315648
I0402 16:44:24.234292 11128 layer_factory.hpp:77] Creating layer label_data_1_split
I0402 16:44:24.234305 11128 net.cpp:100] Creating Layer label_data_1_split
I0402 16:44:24.234309 11128 net.cpp:434] label_data_1_split <- label
I0402 16:44:24.234316 11128 net.cpp:408] label_data_1_split -> label_data_1_split_0
I0402 16:44:24.234328 11128 net.cpp:408] label_data_1_split -> label_data_1_split_1
I0402 16:44:24.234333 11128 net.cpp:408] label_data_1_split -> label_data_1_split_2
I0402 16:44:24.234453 11128 net.cpp:150] Setting up label_data_1_split
I0402 16:44:24.234477 11128 net.cpp:157] Top shape: 1024 (1024)
I0402 16:44:24.234483 11128 net.cpp:157] Top shape: 1024 (1024)
I0402 16:44:24.234485 11128 net.cpp:157] Top shape: 1024 (1024)
I0402 16:44:24.234488 11128 net.cpp:165] Memory required for data: 28327936
I0402 16:44:24.234491 11128 layer_factory.hpp:77] Creating layer conv1
I0402 16:44:24.234504 11128 net.cpp:100] Creating Layer conv1
I0402 16:44:24.234511 11128 net.cpp:434] conv1 <- data
I0402 16:44:24.234518 11128 net.cpp:408] conv1 -> conv1
I0402 16:44:24.238329 11128 net.cpp:150] Setting up conv1
I0402 16:44:24.238350 11128 net.cpp:157] Top shape: 1024 100 42 42 (180633600)
I0402 16:44:24.238354 11128 net.cpp:165] Memory required for data: 750862336
I0402 16:44:24.238366 11128 layer_factory.hpp:77] Creating layer conv1_relu
I0402 16:44:24.238374 11128 net.cpp:100] Creating Layer conv1_relu
I0402 16:44:24.238379 11128 net.cpp:434] conv1_relu <- conv1
I0402 16:44:24.238384 11128 net.cpp:395] conv1_relu -> conv1 (in-place)
I0402 16:44:24.238559 11128 net.cpp:150] Setting up conv1_relu
I0402 16:44:24.238570 11128 net.cpp:157] Top shape: 1024 100 42 42 (180633600)
I0402 16:44:24.238574 11128 net.cpp:165] Memory required for data: 1473396736
I0402 16:44:24.238576 11128 layer_factory.hpp:77] Creating layer pool1
I0402 16:44:24.238584 11128 net.cpp:100] Creating Layer pool1
I0402 16:44:24.238587 11128 net.cpp:434] pool1 <- conv1
I0402 16:44:24.238593 11128 net.cpp:408] pool1 -> pool1
I0402 16:44:24.238638 11128 net.cpp:150] Setting up pool1
I0402 16:44:24.238646 11128 net.cpp:157] Top shape: 1024 100 21 21 (45158400)
I0402 16:44:24.238648 11128 net.cpp:165] Memory required for data: 1654030336
I0402 16:44:24.238651 11128 layer_factory.hpp:77] Creating layer conv2
I0402 16:44:24.238661 11128 net.cpp:100] Creating Layer conv2
I0402 16:44:24.238667 11128 net.cpp:434] conv2 <- pool1
I0402 16:44:24.238672 11128 net.cpp:408] conv2 -> conv2
I0402 16:44:24.242518 11128 net.cpp:150] Setting up conv2
I0402 16:44:24.242537 11128 net.cpp:157] Top shape: 1024 150 18 18 (49766400)
I0402 16:44:24.242540 11128 net.cpp:165] Memory required for data: 1853095936
I0402 16:44:24.242549 11128 layer_factory.hpp:77] Creating layer conv2_relu
I0402 16:44:24.242558 11128 net.cpp:100] Creating Layer conv2_relu
I0402 16:44:24.242560 11128 net.cpp:434] conv2_relu <- conv2
I0402 16:44:24.242566 11128 net.cpp:395] conv2_relu -> conv2 (in-place)
I0402 16:44:24.243319 11128 net.cpp:150] Setting up conv2_relu
I0402 16:44:24.243336 11128 net.cpp:157] Top shape: 1024 150 18 18 (49766400)
I0402 16:44:24.243340 11128 net.cpp:165] Memory required for data: 2052161536
I0402 16:44:24.243345 11128 layer_factory.hpp:77] Creating layer pool2
I0402 16:44:24.243351 11128 net.cpp:100] Creating Layer pool2
I0402 16:44:24.243355 11128 net.cpp:434] pool2 <- conv2
I0402 16:44:24.243360 11128 net.cpp:408] pool2 -> pool2
I0402 16:44:24.243409 11128 net.cpp:150] Setting up pool2
I0402 16:44:24.243417 11128 net.cpp:157] Top shape: 1024 150 9 9 (12441600)
I0402 16:44:24.243420 11128 net.cpp:165] Memory required for data: 2101927936
I0402 16:44:24.243423 11128 layer_factory.hpp:77] Creating layer conv3
I0402 16:44:24.243434 11128 net.cpp:100] Creating Layer conv3
I0402 16:44:24.243439 11128 net.cpp:434] conv3 <- pool2
I0402 16:44:24.243444 11128 net.cpp:408] conv3 -> conv3
I0402 16:44:24.248893 11128 net.cpp:150] Setting up conv3
I0402 16:44:24.248921 11128 net.cpp:157] Top shape: 1024 250 6 6 (9216000)
I0402 16:44:24.248929 11128 net.cpp:165] Memory required for data: 2138791936
I0402 16:44:24.248939 11128 layer_factory.hpp:77] Creating layer conv3_relu
I0402 16:44:24.248946 11128 net.cpp:100] Creating Layer conv3_relu
I0402 16:44:24.248950 11128 net.cpp:434] conv3_relu <- conv3
I0402 16:44:24.248955 11128 net.cpp:395] conv3_relu -> conv3 (in-place)
I0402 16:44:24.249717 11128 net.cpp:150] Setting up conv3_relu
I0402 16:44:24.249732 11128 net.cpp:157] Top shape: 1024 250 6 6 (9216000)
I0402 16:44:24.249747 11128 net.cpp:165] Memory required for data: 2175655936
I0402 16:44:24.249769 11128 layer_factory.hpp:77] Creating layer pool3
I0402 16:44:24.249778 11128 net.cpp:100] Creating Layer pool3
I0402 16:44:24.249781 11128 net.cpp:434] pool3 <- conv3
I0402 16:44:24.249788 11128 net.cpp:408] pool3 -> pool3
I0402 16:44:24.249835 11128 net.cpp:150] Setting up pool3
I0402 16:44:24.249842 11128 net.cpp:157] Top shape: 1024 250 3 3 (2304000)
I0402 16:44:24.249845 11128 net.cpp:165] Memory required for data: 2184871936
I0402 16:44:24.249850 11128 layer_factory.hpp:77] Creating layer fc4_300
I0402 16:44:24.249856 11128 net.cpp:100] Creating Layer fc4_300
I0402 16:44:24.249860 11128 net.cpp:434] fc4_300 <- pool3
I0402 16:44:24.249864 11128 net.cpp:408] fc4_300 -> fc4_300
I0402 16:44:24.255193 11128 net.cpp:150] Setting up fc4_300
I0402 16:44:24.255209 11128 net.cpp:157] Top shape: 1024 300 (307200)
I0402 16:44:24.255213 11128 net.cpp:165] Memory required for data: 2186100736
I0402 16:44:24.255220 11128 layer_factory.hpp:77] Creating layer fc4_relu
I0402 16:44:24.255226 11128 net.cpp:100] Creating Layer fc4_relu
I0402 16:44:24.255234 11128 net.cpp:434] fc4_relu <- fc4_300
I0402 16:44:24.255239 11128 net.cpp:395] fc4_relu -> fc4_300 (in-place)
I0402 16:44:24.255422 11128 net.cpp:150] Setting up fc4_relu
I0402 16:44:24.255434 11128 net.cpp:157] Top shape: 1024 300 (307200)
I0402 16:44:24.255437 11128 net.cpp:165] Memory required for data: 2187329536
I0402 16:44:24.255440 11128 layer_factory.hpp:77] Creating layer drop4
I0402 16:44:24.255446 11128 net.cpp:100] Creating Layer drop4
I0402 16:44:24.255450 11128 net.cpp:434] drop4 <- fc4_300
I0402 16:44:24.255455 11128 net.cpp:395] drop4 -> fc4_300 (in-place)
I0402 16:44:24.255486 11128 net.cpp:150] Setting up drop4
I0402 16:44:24.255494 11128 net.cpp:157] Top shape: 1024 300 (307200)
I0402 16:44:24.255497 11128 net.cpp:165] Memory required for data: 2188558336
I0402 16:44:24.255501 11128 layer_factory.hpp:77] Creating layer fc5_106
I0402 16:44:24.255506 11128 net.cpp:100] Creating Layer fc5_106
I0402 16:44:24.255509 11128 net.cpp:434] fc5_106 <- fc4_300
I0402 16:44:24.255514 11128 net.cpp:408] fc5_106 -> fc5_classes
I0402 16:44:24.255828 11128 net.cpp:150] Setting up fc5_106
I0402 16:44:24.255836 11128 net.cpp:157] Top shape: 1024 106 (108544)
I0402 16:44:24.255839 11128 net.cpp:165] Memory required for data: 2188992512
I0402 16:44:24.255848 11128 layer_factory.hpp:77] Creating layer fc5_classes_fc5_106_0_split
I0402 16:44:24.255856 11128 net.cpp:100] Creating Layer fc5_classes_fc5_106_0_split
I0402 16:44:24.255858 11128 net.cpp:434] fc5_classes_fc5_106_0_split <- fc5_classes
I0402 16:44:24.255863 11128 net.cpp:408] fc5_classes_fc5_106_0_split -> fc5_classes_fc5_106_0_split_0
I0402 16:44:24.255870 11128 net.cpp:408] fc5_classes_fc5_106_0_split -> fc5_classes_fc5_106_0_split_1
I0402 16:44:24.255877 11128 net.cpp:408] fc5_classes_fc5_106_0_split -> fc5_classes_fc5_106_0_split_2
I0402 16:44:24.255924 11128 net.cpp:150] Setting up fc5_classes_fc5_106_0_split
I0402 16:44:24.255931 11128 net.cpp:157] Top shape: 1024 106 (108544)
I0402 16:44:24.255935 11128 net.cpp:157] Top shape: 1024 106 (108544)
I0402 16:44:24.255939 11128 net.cpp:157] Top shape: 1024 106 (108544)
I0402 16:44:24.255941 11128 net.cpp:165] Memory required for data: 2190295040
I0402 16:44:24.255944 11128 layer_factory.hpp:77] Creating layer loss
I0402 16:44:24.255952 11128 net.cpp:100] Creating Layer loss
I0402 16:44:24.255955 11128 net.cpp:434] loss <- fc5_classes_fc5_106_0_split_0
I0402 16:44:24.255960 11128 net.cpp:434] loss <- label_data_1_split_0
I0402 16:44:24.255965 11128 net.cpp:408] loss -> loss
…
