…
I0529 01:37:32.090342  9564 solver.cpp:81] Creating training net from train_net file: ./Prototxt/experiment_22/RTSD/imajust/trial_5/train.prototxt
I0529 01:37:32.098121  9564 net.cpp:58] Initializing net from parameters: 
state {
  phase: TRAIN
  level: 0
  stage: ""
}
layer {
  name: "data"
  type: "Data"
  top: "data"
  top: "label"
  include {
    phase: TRAIN
  }
  transform_param {
    scale: 0.0039215689
    mirror: false
    crop_size: 48
    mean_value: 119
    mean_value: 113
    mean_value: 114
  }
  data_param {
    source: "../local_data/lmdb/RTSD/imajust/train/lmdb"
    batch_size: 1024
    backend: LMDB
  }
}
layer {
  name: "conv1"
  type: "Convolution"
  bottom: "data"
  top: "conv1"
  convolution_param {
    num_output: 100
    pad: 0
    kernel_size: 7
    group: 1
    stride: 1
    weight_filler {
      type: "xavier"
    }
  }
}
layer {
  name: "conv1_relu"
  type: "ReLU"
  bottom: "conv1"
  top: "conv1"
}
layer {
  name: "pool1"
  type: "Pooling"
  bottom: "conv1"
  top: "pool1"
  pooling_param {
    pool: MAX
    kernel_size: 2
    stride: 2
  }
}
layer {
  name: "conv2"
  type: "Convolution"
  bottom: "pool1"
  top: "conv2"
  convolution_param {
    num_output: 150
    pad: 0
    kernel_size: 4
    group: 1
    stride: 1
    weight_filler {
      type: "xavier"
    }
  }
}
layer {
  name: "conv2_relu"
  type: "ReLU"
  bottom: "conv2"
  top: "conv2"
}
layer {
  name: "pool2"
  type: "Pooling"
  bottom: "conv2"
  top: "pool2"
  pooling_param {
    pool: MAX
    kernel_size: 2
    stride: 2
  }
}
layer {
  name: "conv3"
  type: "Convolution"
  bottom: "pool2"
  top: "conv3"
  convolution_param {
    num_output: 250
    pad: 0
    kernel_size: 4
    group: 1
    stride: 1
    weight_filler {
      type: "xavier"
    }
  }
}
layer {
  name: "conv3_relu"
  type: "ReLU"
  bottom: "conv3"
  top: "conv3"
}
layer {
  name: "pool3"
  type: "Pooling"
  bottom: "conv3"
  top: "pool3"
  pooling_param {
    pool: MAX
    kernel_size: 2
    stride: 2
  }
}
layer {
  name: "fc4_300"
  type: "InnerProduct"
  bottom: "pool3"
  top: "fc4_300"
  inner_product_param {
    num_output: 300
    weight_filler {
      type: "xavier"
    }
  }
}
layer {
  name: "fc4_relu"
  type: "ReLU"
  bottom: "fc4_300"
  top: "fc4_300"
}
layer {
  name: "fc5_116"
  type: "InnerProduct"
  bottom: "fc4_300"
  top: "fc5_classes"
  inner_product_param {
    num_output: 116
    weight_filler {
      type: "xavier"
    }
  }
}
layer {
  name: "softmax"
  type: "Softmax"
  bottom: "fc5_classes"
  top: "softmax"
}
layer {
  name: "loss"
  type: "MultinomialLogisticLoss"
  bottom: "softmax"
  bottom: "label"
  top: "loss"
}
layer {
  name: "accuracy_1"
  type: "Accuracy"
  bottom: "fc5_classes"
  bottom: "label"
  top: "accuracy_1"
  accuracy_param {
    top_k: 1
  }
}
layer {
  name: "accuracy_5"
  type: "Accuracy"
  bottom: "fc5_classes"
  bottom: "label"
  top: "accuracy_5"
  accuracy_param {
    top_k: 5
  }
}
layer {
  name: "silence"
  type: "Silence"
  bottom: "accuracy_1"
  bottom: "accuracy_5"
}
I0529 01:37:32.098222  9564 layer_factory.hpp:77] Creating layer data
I0529 01:37:32.099017  9564 net.cpp:100] Creating Layer data
I0529 01:37:32.099032  9564 net.cpp:408] data -> data
I0529 01:37:32.099068  9564 net.cpp:408] data -> label
I0529 01:37:32.100426  9613 db_lmdb.cpp:35] Opened lmdb ../local_data/lmdb/RTSD/imajust/train/lmdb
I0529 01:37:32.127382  9564 data_layer.cpp:41] output data size: 1024,3,48,48
I0529 01:37:32.184029  9564 net.cpp:150] Setting up data
I0529 01:37:32.184094  9564 net.cpp:157] Top shape: 1024 3 48 48 (7077888)
I0529 01:37:32.184111  9564 net.cpp:157] Top shape: 1024 (1024)
I0529 01:37:32.184121  9564 net.cpp:165] Memory required for data: 28315648
I0529 01:37:32.184139  9564 layer_factory.hpp:77] Creating layer label_data_1_split
I0529 01:37:32.184159  9564 net.cpp:100] Creating Layer label_data_1_split
I0529 01:37:32.184180  9564 net.cpp:434] label_data_1_split <- label
I0529 01:37:32.184201  9564 net.cpp:408] label_data_1_split -> label_data_1_split_0
I0529 01:37:32.184222  9564 net.cpp:408] label_data_1_split -> label_data_1_split_1
I0529 01:37:32.184243  9564 net.cpp:408] label_data_1_split -> label_data_1_split_2
I0529 01:37:32.184322  9564 net.cpp:150] Setting up label_data_1_split
I0529 01:37:32.184339  9564 net.cpp:157] Top shape: 1024 (1024)
I0529 01:37:32.184350  9564 net.cpp:157] Top shape: 1024 (1024)
I0529 01:37:32.184360  9564 net.cpp:157] Top shape: 1024 (1024)
I0529 01:37:32.184367  9564 net.cpp:165] Memory required for data: 28327936
I0529 01:37:32.184376  9564 layer_factory.hpp:77] Creating layer conv1
I0529 01:37:32.184406  9564 net.cpp:100] Creating Layer conv1
I0529 01:37:32.184418  9564 net.cpp:434] conv1 <- data
I0529 01:37:32.184433  9564 net.cpp:408] conv1 -> conv1
I0529 01:37:32.478554  9564 net.cpp:150] Setting up conv1
I0529 01:37:32.478588  9564 net.cpp:157] Top shape: 1024 100 42 42 (180633600)
I0529 01:37:32.478593  9564 net.cpp:165] Memory required for data: 750862336
I0529 01:37:32.478610  9564 layer_factory.hpp:77] Creating layer conv1_relu
I0529 01:37:32.478627  9564 net.cpp:100] Creating Layer conv1_relu
I0529 01:37:32.478633  9564 net.cpp:434] conv1_relu <- conv1
I0529 01:37:32.478639  9564 net.cpp:395] conv1_relu -> conv1 (in-place)
I0529 01:37:32.478797  9564 net.cpp:150] Setting up conv1_relu
I0529 01:37:32.478808  9564 net.cpp:157] Top shape: 1024 100 42 42 (180633600)
I0529 01:37:32.478813  9564 net.cpp:165] Memory required for data: 1473396736
I0529 01:37:32.478817  9564 layer_factory.hpp:77] Creating layer pool1
I0529 01:37:32.478826  9564 net.cpp:100] Creating Layer pool1
I0529 01:37:32.478830  9564 net.cpp:434] pool1 <- conv1
I0529 01:37:32.478837  9564 net.cpp:408] pool1 -> pool1
I0529 01:37:32.478885  9564 net.cpp:150] Setting up pool1
I0529 01:37:32.478893  9564 net.cpp:157] Top shape: 1024 100 21 21 (45158400)
I0529 01:37:32.478898  9564 net.cpp:165] Memory required for data: 1654030336
I0529 01:37:32.478900  9564 layer_factory.hpp:77] Creating layer conv2
I0529 01:37:32.478919  9564 net.cpp:100] Creating Layer conv2
I0529 01:37:32.478925  9564 net.cpp:434] conv2 <- pool1
I0529 01:37:32.478930  9564 net.cpp:408] conv2 -> conv2
I0529 01:37:32.485532  9564 net.cpp:150] Setting up conv2
I0529 01:37:32.485555  9564 net.cpp:157] Top shape: 1024 150 18 18 (49766400)
I0529 01:37:32.485560  9564 net.cpp:165] Memory required for data: 1853095936
I0529 01:37:32.485577  9564 layer_factory.hpp:77] Creating layer conv2_relu
I0529 01:37:32.485587  9564 net.cpp:100] Creating Layer conv2_relu
I0529 01:37:32.485592  9564 net.cpp:434] conv2_relu <- conv2
I0529 01:37:32.485597  9564 net.cpp:395] conv2_relu -> conv2 (in-place)
I0529 01:37:32.485734  9564 net.cpp:150] Setting up conv2_relu
I0529 01:37:32.485745  9564 net.cpp:157] Top shape: 1024 150 18 18 (49766400)
I0529 01:37:32.485749  9564 net.cpp:165] Memory required for data: 2052161536
I0529 01:37:32.485754  9564 layer_factory.hpp:77] Creating layer pool2
I0529 01:37:32.485760  9564 net.cpp:100] Creating Layer pool2
I0529 01:37:32.485764  9564 net.cpp:434] pool2 <- conv2
I0529 01:37:32.485770  9564 net.cpp:408] pool2 -> pool2
I0529 01:37:32.485808  9564 net.cpp:150] Setting up pool2
I0529 01:37:32.485817  9564 net.cpp:157] Top shape: 1024 150 9 9 (12441600)
I0529 01:37:32.485821  9564 net.cpp:165] Memory required for data: 2101927936
I0529 01:37:32.485824  9564 layer_factory.hpp:77] Creating layer conv3
I0529 01:37:32.485843  9564 net.cpp:100] Creating Layer conv3
I0529 01:37:32.485848  9564 net.cpp:434] conv3 <- pool2
I0529 01:37:32.485854  9564 net.cpp:408] conv3 -> conv3
I0529 01:37:32.492988  9564 net.cpp:150] Setting up conv3
I0529 01:37:32.493006  9564 net.cpp:157] Top shape: 1024 250 6 6 (9216000)
I0529 01:37:32.493011  9564 net.cpp:165] Memory required for data: 2138791936
I0529 01:37:32.493021  9564 layer_factory.hpp:77] Creating layer conv3_relu
I0529 01:37:32.493031  9564 net.cpp:100] Creating Layer conv3_relu
I0529 01:37:32.493036  9564 net.cpp:434] conv3_relu <- conv3
I0529 01:37:32.493041  9564 net.cpp:395] conv3_relu -> conv3 (in-place)
I0529 01:37:32.494225  9564 net.cpp:150] Setting up conv3_relu
I0529 01:37:32.494247  9564 net.cpp:157] Top shape: 1024 250 6 6 (9216000)
I0529 01:37:32.494259  9564 net.cpp:165] Memory required for data: 2175655936
I0529 01:37:32.494263  9564 layer_factory.hpp:77] Creating layer pool3
I0529 01:37:32.494271  9564 net.cpp:100] Creating Layer pool3
I0529 01:37:32.494276  9564 net.cpp:434] pool3 <- conv3
I0529 01:37:32.494280  9564 net.cpp:408] pool3 -> pool3
I0529 01:37:32.494323  9564 net.cpp:150] Setting up pool3
I0529 01:37:32.494331  9564 net.cpp:157] Top shape: 1024 250 3 3 (2304000)
I0529 01:37:32.494334  9564 net.cpp:165] Memory required for data: 2184871936
I0529 01:37:32.494338  9564 layer_factory.hpp:77] Creating layer fc4_300
I0529 01:37:32.494346  9564 net.cpp:100] Creating Layer fc4_300
I0529 01:37:32.494354  9564 net.cpp:434] fc4_300 <- pool3
I0529 01:37:32.494359  9564 net.cpp:408] fc4_300 -> fc4_300
I0529 01:37:32.500866  9564 net.cpp:150] Setting up fc4_300
I0529 01:37:32.500900  9564 net.cpp:157] Top shape: 1024 300 (307200)
I0529 01:37:32.500903  9564 net.cpp:165] Memory required for data: 2186100736
I0529 01:37:32.500910  9564 layer_factory.hpp:77] Creating layer fc4_relu
I0529 01:37:32.500917  9564 net.cpp:100] Creating Layer fc4_relu
I0529 01:37:32.500921  9564 net.cpp:434] fc4_relu <- fc4_300
I0529 01:37:32.500927  9564 net.cpp:395] fc4_relu -> fc4_300 (in-place)
I0529 01:37:32.501075  9564 net.cpp:150] Setting up fc4_relu
I0529 01:37:32.501085  9564 net.cpp:157] Top shape: 1024 300 (307200)
I0529 01:37:32.501088  9564 net.cpp:165] Memory required for data: 2187329536
I0529 01:37:32.501093  9564 layer_factory.hpp:77] Creating layer fc5_116
I0529 01:37:32.501101  9564 net.cpp:100] Creating Layer fc5_116
I0529 01:37:32.501114  9564 net.cpp:434] fc5_116 <- fc4_300
I0529 01:37:32.501121  9564 net.cpp:408] fc5_116 -> fc5_classes
I0529 01:37:32.502096  9564 net.cpp:150] Setting up fc5_116
I0529 01:37:32.502123  9564 net.cpp:157] Top shape: 1024 116 (118784)
I0529 01:37:32.502127  9564 net.cpp:165] Memory required for data: 2187804672
I0529 01:37:32.502144  9564 layer_factory.hpp:77] Creating layer fc5_classes_fc5_116_0_split
I0529 01:37:32.502153  9564 net.cpp:100] Creating Layer fc5_classes_fc5_116_0_split
I0529 01:37:32.502158  9564 net.cpp:434] fc5_classes_fc5_116_0_split <- fc5_classes
I0529 01:37:32.502163  9564 net.cpp:408] fc5_classes_fc5_116_0_split -> fc5_classes_fc5_116_0_split_0
I0529 01:37:32.502172  9564 net.cpp:408] fc5_classes_fc5_116_0_split -> fc5_classes_fc5_116_0_split_1
I0529 01:37:32.502178  9564 net.cpp:408] fc5_classes_fc5_116_0_split -> fc5_classes_fc5_116_0_split_2
I0529 01:37:32.502229  9564 net.cpp:150] Setting up fc5_classes_fc5_116_0_split
I0529 01:37:32.502238  9564 net.cpp:157] Top shape: 1024 116 (118784)
I0529 01:37:32.502243  9564 net.cpp:157] Top shape: 1024 116 (118784)
I0529 01:37:32.502246  9564 net.cpp:157] Top shape: 1024 116 (118784)
I0529 01:37:32.502249  9564 net.cpp:165] Memory required for data: 2189230080
I0529 01:37:32.502254  9564 layer_factory.hpp:77] Creating layer softmax
I0529 01:37:32.502260  9564 net.cpp:100] Creating Layer softmax
I0529 01:37:32.502266  9564 net.cpp:434] softmax <- fc5_classes_fc5_116_0_split_0
I0529 01:37:32.502272  9564 net.cpp:408] softmax -> softmax
I0529 01:37:32.502472  9564 net.cpp:150] Setting up softmax
I0529 01:37:32.502485  9564 net.cpp:157] Top shape: 1024 116 (118784)
I0529 01:37:32.502488  9564 net.cpp:165] Memory required for data: 2189705216
I0529 01:37:32.502492  9564 layer_factory.hpp:77] Creating layer loss
I0529 01:37:32.634281  9564 net.cpp:100] Creating Layer loss
I0529 01:37:32.634312  9564 net.cpp:434] loss <- softmax
I0529 01:37:32.634344  9564 net.cpp:434] loss <- label_data_1_split_0
I0529 01:37:32.634366  9564 net.cpp:408] loss -> loss
…
