…
I0507 05:55:13.129030  3451 solver.cpp:93] Creating training net from train_net file: ./Prototxt/experiment_14/RTSD/histeq/trial_3/train.prototxt
I0507 05:55:13.129498  3451 net.cpp:58] Initializing net from parameters: 
state {
  phase: TRAIN
  level: 0
  stage: ""
}
layer {
  name: "data"
  type: "Data"
  top: "data"
  top: "label"
  include {
    phase: TRAIN
  }
  transform_param {
    scale: 0.0039215689
    mirror: false
    crop_size: 48
    mean_value: 134
    mean_value: 128
    mean_value: 128
  }
  data_param {
    source: "../local_data/lmdb/RTSD/histeq/train/lmdb"
    batch_size: 512
    backend: LMDB
  }
}
layer {
  name: "conv1"
  type: "Convolution"
  bottom: "data"
  top: "conv1"
  convolution_param {
    num_output: 100
    pad: 0
    kernel_size: 7
    group: 1
    stride: 1
    weight_filler {
      type: "xavier"
    }
  }
}
layer {
  name: "conv1_relu"
  type: "ReLU"
  bottom: "conv1"
  top: "conv1"
}
layer {
  name: "pool1"
  type: "Pooling"
  bottom: "conv1"
  top: "pool1"
  pooling_param {
    pool: MAX
    kernel_size: 2
    stride: 2
  }
}
layer {
  name: "conv2"
  type: "Convolution"
  bottom: "pool1"
  top: "conv2"
  convolution_param {
    num_output: 150
    pad: 0
    kernel_size: 4
    group: 1
    stride: 1
    weight_filler {
      type: "xavier"
    }
  }
}
layer {
  name: "conv2_relu"
  type: "ReLU"
  bottom: "conv2"
  top: "conv2"
}
layer {
  name: "pool2"
  type: "Pooling"
  bottom: "conv2"
  top: "pool2"
  pooling_param {
    pool: MAX
    kernel_size: 2
    stride: 2
  }
}
layer {
  name: "conv3"
  type: "Convolution"
  bottom: "pool2"
  top: "conv3"
  convolution_param {
    num_output: 250
    pad: 0
    kernel_size: 4
    group: 1
    stride: 1
    weight_filler {
      type: "xavier"
    }
  }
}
layer {
  name: "conv3_relu"
  type: "ReLU"
  bottom: "conv3"
  top: "conv3"
}
layer {
  name: "pool3"
  type: "Pooling"
  bottom: "conv3"
  top: "pool3"
  pooling_param {
    pool: MAX
    kernel_size: 2
    stride: 2
  }
}
layer {
  name: "fc4_300"
  type: "InnerProduct"
  bottom: "pool3"
  top: "fc4_300"
  inner_product_param {
    num_output: 300
    weight_filler {
      type: "xavier"
    }
  }
}
layer {
  name: "fc4_relu"
  type: "ReLU"
  bottom: "fc4_300"
  top: "fc4_300"
}
layer {
  name: "fc5_116"
  type: "InnerProduct"
  bottom: "fc4_300"
  top: "fc5_classes"
  inner_product_param {
    num_output: 116
    weight_filler {
      type: "xavier"
    }
  }
}
layer {
  name: "softmax"
  type: "Softmax"
  bottom: "fc5_classes"
  top: "softmax"
}
layer {
  name: "loss"
  type: "MultinomialLogisticLoss"
  bottom: "softmax"
  bottom: "label"
  top: "loss"
}
layer {
  name: "accuracy_1"
  type: "Accuracy"
  bottom: "fc5_classes"
  bottom: "label"
  top: "accuracy_1"
  accuracy_param {
    top_k: 1
  }
}
layer {
  name: "accuracy_5"
  type: "Accuracy"
  bottom: "fc5_classes"
  bottom: "label"
  top: "accuracy_5"
  accuracy_param {
    top_k: 5
  }
}
layer {
  name: "silence"
  type: "Silence"
  bottom: "accuracy_1"
  bottom: "accuracy_5"
}
I0507 05:55:13.129679  3451 layer_factory.hpp:77] Creating layer data
I0507 05:55:13.131031  3451 net.cpp:100] Creating Layer data
I0507 05:55:13.131057  3451 net.cpp:408] data -> data
I0507 05:55:13.131089  3451 net.cpp:408] data -> label
I0507 05:55:13.153537  3604 db_lmdb.cpp:35] Opened lmdb ../local_data/lmdb/RTSD/histeq/train/lmdb
I0507 05:55:13.184319  3451 data_layer.cpp:41] output data size: 512,3,48,48
I0507 05:55:13.223731  3451 net.cpp:150] Setting up data
I0507 05:55:13.223791  3451 net.cpp:157] Top shape: 512 3 48 48 (3538944)
I0507 05:55:13.223798  3451 net.cpp:157] Top shape: 512 (512)
I0507 05:55:13.223803  3451 net.cpp:165] Memory required for data: 14157824
I0507 05:55:13.223814  3451 layer_factory.hpp:77] Creating layer label_data_1_split
I0507 05:55:13.223829  3451 net.cpp:100] Creating Layer label_data_1_split
I0507 05:55:13.223840  3451 net.cpp:434] label_data_1_split <- label
I0507 05:55:13.223861  3451 net.cpp:408] label_data_1_split -> label_data_1_split_0
I0507 05:55:13.223896  3451 net.cpp:408] label_data_1_split -> label_data_1_split_1
I0507 05:55:13.223913  3451 net.cpp:408] label_data_1_split -> label_data_1_split_2
I0507 05:55:13.224014  3451 net.cpp:150] Setting up label_data_1_split
I0507 05:55:13.224030  3451 net.cpp:157] Top shape: 512 (512)
I0507 05:55:13.224040  3451 net.cpp:157] Top shape: 512 (512)
I0507 05:55:13.224050  3451 net.cpp:157] Top shape: 512 (512)
I0507 05:55:13.224056  3451 net.cpp:165] Memory required for data: 14163968
I0507 05:55:13.224063  3451 layer_factory.hpp:77] Creating layer conv1
I0507 05:55:13.224090  3451 net.cpp:100] Creating Layer conv1
I0507 05:55:13.224100  3451 net.cpp:434] conv1 <- data
I0507 05:55:13.224113  3451 net.cpp:408] conv1 -> conv1
I0507 05:55:13.626186  3451 net.cpp:150] Setting up conv1
I0507 05:55:13.626214  3451 net.cpp:157] Top shape: 512 100 42 42 (90316800)
I0507 05:55:13.626217  3451 net.cpp:165] Memory required for data: 375431168
I0507 05:55:13.626240  3451 layer_factory.hpp:77] Creating layer conv1_relu
I0507 05:55:13.626255  3451 net.cpp:100] Creating Layer conv1_relu
I0507 05:55:13.626261  3451 net.cpp:434] conv1_relu <- conv1
I0507 05:55:13.626271  3451 net.cpp:395] conv1_relu -> conv1 (in-place)
I0507 05:55:13.626540  3451 net.cpp:150] Setting up conv1_relu
I0507 05:55:13.626555  3451 net.cpp:157] Top shape: 512 100 42 42 (90316800)
I0507 05:55:13.626559  3451 net.cpp:165] Memory required for data: 736698368
I0507 05:55:13.626562  3451 layer_factory.hpp:77] Creating layer pool1
I0507 05:55:13.626572  3451 net.cpp:100] Creating Layer pool1
I0507 05:55:13.626579  3451 net.cpp:434] pool1 <- conv1
I0507 05:55:13.626583  3451 net.cpp:408] pool1 -> pool1
I0507 05:55:13.626655  3451 net.cpp:150] Setting up pool1
I0507 05:55:13.626670  3451 net.cpp:157] Top shape: 512 100 21 21 (22579200)
I0507 05:55:13.626675  3451 net.cpp:165] Memory required for data: 827015168
I0507 05:55:13.626682  3451 layer_factory.hpp:77] Creating layer conv2
I0507 05:55:13.626696  3451 net.cpp:100] Creating Layer conv2
I0507 05:55:13.626703  3451 net.cpp:434] conv2 <- pool1
I0507 05:55:13.626713  3451 net.cpp:408] conv2 -> conv2
I0507 05:55:13.645076  3451 net.cpp:150] Setting up conv2
I0507 05:55:13.645094  3451 net.cpp:157] Top shape: 512 150 18 18 (24883200)
I0507 05:55:13.645098  3451 net.cpp:165] Memory required for data: 926547968
I0507 05:55:13.645108  3451 layer_factory.hpp:77] Creating layer conv2_relu
I0507 05:55:13.645115  3451 net.cpp:100] Creating Layer conv2_relu
I0507 05:55:13.645120  3451 net.cpp:434] conv2_relu <- conv2
I0507 05:55:13.645125  3451 net.cpp:395] conv2_relu -> conv2 (in-place)
I0507 05:55:13.647732  3451 net.cpp:150] Setting up conv2_relu
I0507 05:55:13.647748  3451 net.cpp:157] Top shape: 512 150 18 18 (24883200)
I0507 05:55:13.647753  3451 net.cpp:165] Memory required for data: 1026080768
I0507 05:55:13.647756  3451 layer_factory.hpp:77] Creating layer pool2
I0507 05:55:13.647763  3451 net.cpp:100] Creating Layer pool2
I0507 05:55:13.647769  3451 net.cpp:434] pool2 <- conv2
I0507 05:55:13.647778  3451 net.cpp:408] pool2 -> pool2
I0507 05:55:13.647846  3451 net.cpp:150] Setting up pool2
I0507 05:55:13.647862  3451 net.cpp:157] Top shape: 512 150 9 9 (6220800)
I0507 05:55:13.647867  3451 net.cpp:165] Memory required for data: 1050963968
I0507 05:55:13.647873  3451 layer_factory.hpp:77] Creating layer conv3
I0507 05:55:13.647904  3451 net.cpp:100] Creating Layer conv3
I0507 05:55:13.647912  3451 net.cpp:434] conv3 <- pool2
I0507 05:55:13.647920  3451 net.cpp:408] conv3 -> conv3
I0507 05:55:13.654323  3451 net.cpp:150] Setting up conv3
I0507 05:55:13.654342  3451 net.cpp:157] Top shape: 512 250 6 6 (4608000)
I0507 05:55:13.654346  3451 net.cpp:165] Memory required for data: 1069395968
I0507 05:55:13.654356  3451 layer_factory.hpp:77] Creating layer conv3_relu
I0507 05:55:13.654364  3451 net.cpp:100] Creating Layer conv3_relu
I0507 05:55:13.654368  3451 net.cpp:434] conv3_relu <- conv3
I0507 05:55:13.654374  3451 net.cpp:395] conv3_relu -> conv3 (in-place)
I0507 05:55:13.656819  3451 net.cpp:150] Setting up conv3_relu
I0507 05:55:13.656836  3451 net.cpp:157] Top shape: 512 250 6 6 (4608000)
I0507 05:55:13.656838  3451 net.cpp:165] Memory required for data: 1087827968
I0507 05:55:13.656842  3451 layer_factory.hpp:77] Creating layer pool3
I0507 05:55:13.656849  3451 net.cpp:100] Creating Layer pool3
I0507 05:55:13.656852  3451 net.cpp:434] pool3 <- conv3
I0507 05:55:13.656860  3451 net.cpp:408] pool3 -> pool3
I0507 05:55:13.656926  3451 net.cpp:150] Setting up pool3
I0507 05:55:13.656942  3451 net.cpp:157] Top shape: 512 250 3 3 (1152000)
I0507 05:55:13.656947  3451 net.cpp:165] Memory required for data: 1092435968
I0507 05:55:13.656954  3451 layer_factory.hpp:77] Creating layer fc4_300
I0507 05:55:13.656966  3451 net.cpp:100] Creating Layer fc4_300
I0507 05:55:13.656975  3451 net.cpp:434] fc4_300 <- pool3
I0507 05:55:13.656983  3451 net.cpp:408] fc4_300 -> fc4_300
I0507 05:55:13.662848  3451 net.cpp:150] Setting up fc4_300
I0507 05:55:13.662864  3451 net.cpp:157] Top shape: 512 300 (153600)
I0507 05:55:13.662868  3451 net.cpp:165] Memory required for data: 1093050368
I0507 05:55:13.662874  3451 layer_factory.hpp:77] Creating layer fc4_relu
I0507 05:55:13.662885  3451 net.cpp:100] Creating Layer fc4_relu
I0507 05:55:13.662892  3451 net.cpp:434] fc4_relu <- fc4_300
I0507 05:55:13.662899  3451 net.cpp:395] fc4_relu -> fc4_300 (in-place)
I0507 05:55:13.663162  3451 net.cpp:150] Setting up fc4_relu
I0507 05:55:13.663177  3451 net.cpp:157] Top shape: 512 300 (153600)
I0507 05:55:13.663179  3451 net.cpp:165] Memory required for data: 1093664768
I0507 05:55:13.663183  3451 layer_factory.hpp:77] Creating layer fc5_116
I0507 05:55:13.663192  3451 net.cpp:100] Creating Layer fc5_116
I0507 05:55:13.663195  3451 net.cpp:434] fc5_116 <- fc4_300
I0507 05:55:13.663200  3451 net.cpp:408] fc5_116 -> fc5_classes
I0507 05:55:13.677256  3451 net.cpp:150] Setting up fc5_116
I0507 05:55:13.677273  3451 net.cpp:157] Top shape: 512 116 (59392)
I0507 05:55:13.677278  3451 net.cpp:165] Memory required for data: 1093902336
I0507 05:55:13.677287  3451 layer_factory.hpp:77] Creating layer fc5_classes_fc5_116_0_split
I0507 05:55:13.677296  3451 net.cpp:100] Creating Layer fc5_classes_fc5_116_0_split
I0507 05:55:13.677300  3451 net.cpp:434] fc5_classes_fc5_116_0_split <- fc5_classes
I0507 05:55:13.677309  3451 net.cpp:408] fc5_classes_fc5_116_0_split -> fc5_classes_fc5_116_0_split_0
I0507 05:55:13.677323  3451 net.cpp:408] fc5_classes_fc5_116_0_split -> fc5_classes_fc5_116_0_split_1
I0507 05:55:13.677335  3451 net.cpp:408] fc5_classes_fc5_116_0_split -> fc5_classes_fc5_116_0_split_2
I0507 05:55:13.677423  3451 net.cpp:150] Setting up fc5_classes_fc5_116_0_split
I0507 05:55:13.677435  3451 net.cpp:157] Top shape: 512 116 (59392)
I0507 05:55:13.677441  3451 net.cpp:157] Top shape: 512 116 (59392)
I0507 05:55:13.677448  3451 net.cpp:157] Top shape: 512 116 (59392)
I0507 05:55:13.677453  3451 net.cpp:165] Memory required for data: 1094615040
I0507 05:55:13.677458  3451 layer_factory.hpp:77] Creating layer softmax
I0507 05:55:13.677469  3451 net.cpp:100] Creating Layer softmax
I0507 05:55:13.677477  3451 net.cpp:434] softmax <- fc5_classes_fc5_116_0_split_0
I0507 05:55:13.677485  3451 net.cpp:408] softmax -> softmax
I0507 05:55:13.677857  3451 net.cpp:150] Setting up softmax
I0507 05:55:13.677875  3451 net.cpp:157] Top shape: 512 116 (59392)
I0507 05:55:13.677878  3451 net.cpp:165] Memory required for data: 1094852608
I0507 05:55:13.677882  3451 layer_factory.hpp:77] Creating layer loss
I0507 05:55:13.677897  3451 net.cpp:100] Creating Layer loss
I0507 05:55:13.677923  3451 net.cpp:434] loss <- softmax
I0507 05:55:13.677932  3451 net.cpp:434] loss <- label_data_1_split_0
I0507 05:55:13.677942  3451 net.cpp:408] loss -> loss
…
