…
I0409 09:56:39.594908 10746 net.cpp:322] The NetState phase (0) differed from the phase (1) specified by a rule in layer accuracy_5
I0409 09:56:39.595000 10746 net.cpp:58] Initializing net from parameters: 
state {
  phase: TRAIN
  level: 0
  stage: ""
}
layer {
  name: "data"
  type: "Data"
  top: "data"
  top: "label"
  include {
    phase: TRAIN
  }
  transform_param {
    mirror: false
    crop_size: 48
    mean_value: 115
    mean_value: 108
    mean_value: 122
  }
  data_param {
    source: "../local_data/lmdb/rtsd-r1/imajust/train/lmdb"
    batch_size: 1024
    backend: LMDB
  }
}
layer {
  name: "conv1"
  type: "Convolution"
  bottom: "data"
  top: "conv1"
  convolution_param {
    num_output: 100
    pad: 0
    kernel_size: 7
    group: 1
    stride: 1
    weight_filler {
      type: "xavier"
    }
  }
}
layer {
  name: "conv1_relu"
  type: "ReLU"
  bottom: "conv1"
  top: "conv1"
}
layer {
  name: "pool1"
  type: "Pooling"
  bottom: "conv1"
  top: "pool1"
  pooling_param {
    pool: MAX
    kernel_size: 2
    stride: 2
  }
}
layer {
  name: "conv2"
  type: "Convolution"
  bottom: "pool1"
  top: "conv2"
  convolution_param {
    num_output: 150
    pad: 0
    kernel_size: 4
    group: 1
    stride: 1
    weight_filler {
      type: "xavier"
    }
  }
}
layer {
  name: "conv2_relu"
  type: "ReLU"
  bottom: "conv2"
  top: "conv2"
}
layer {
  name: "pool2"
  type: "Pooling"
  bottom: "conv2"
  top: "pool2"
  pooling_param {
    pool: MAX
    kernel_size: 2
    stride: 2
  }
}
layer {
  name: "conv3"
  type: "Convolution"
  bottom: "pool2"
  top: "conv3"
  convolution_param {
    num_output: 250
    pad: 0
    kernel_size: 4
    group: 1
    stride: 1
    weight_filler {
      type: "xavier"
    }
  }
}
layer {
  name: "conv3_relu"
  type: "ReLU"
  bottom: "conv3"
  top: "conv3"
}
layer {
  name: "pool3"
  type: "Pooling"
  bottom: "conv3"
  top: "pool3"
  pooling_param {
    pool: MAX
    kernel_size: 2
    stride: 2
  }
}
layer {
  name: "fc4_300"
  type: "InnerProduct"
  bottom: "pool3"
  top: "fc4_300"
  inner_product_param {
    num_output: 300
    weight_filler {
      type: "xavier"
    }
  }
}
layer {
  name: "fc4_relu"
  type: "ReLU"
  bottom: "fc4_300"
  top: "fc4_300"
}
layer {
  name: "drop4"
  type: "Dropout"
  bottom: "fc4_300"
  top: "fc4_300"
  dropout_param {
    dropout_ratio: 0.4
  }
}
layer {
  name: "fc5_67"
  type: "InnerProduct"
  bottom: "fc4_300"
  top: "fc5_classes"
  inner_product_param {
    num_output: 67
    weight_filler {
      type: "xavier"
    }
  }
}
layer {
  name: "loss"
  type: "SoftmaxWithLoss"
  bottom: "fc5_classes"
  bottom: "label"
  top: "loss"
}
I0409 09:56:39.595072 10746 layer_factory.hpp:77] Creating layer data
I0409 09:56:39.596135 10746 net.cpp:100] Creating Layer data
I0409 09:56:39.596149 10746 net.cpp:408] data -> data
I0409 09:56:39.596174 10746 net.cpp:408] data -> label
I0409 09:56:39.597594 10800 db_lmdb.cpp:35] Opened lmdb ../local_data/lmdb/rtsd-r1/imajust/train/lmdb
I0409 09:56:39.613791 10746 data_layer.cpp:41] output data size: 1024,3,48,48
I0409 09:56:39.654361 10746 net.cpp:150] Setting up data
I0409 09:56:39.654395 10746 net.cpp:157] Top shape: 1024 3 48 48 (7077888)
I0409 09:56:39.654428 10746 net.cpp:157] Top shape: 1024 (1024)
I0409 09:56:39.654433 10746 net.cpp:165] Memory required for data: 28315648
I0409 09:56:39.654443 10746 layer_factory.hpp:77] Creating layer conv1
I0409 09:56:39.654465 10746 net.cpp:100] Creating Layer conv1
I0409 09:56:39.654474 10746 net.cpp:434] conv1 <- data
I0409 09:56:39.654486 10746 net.cpp:408] conv1 -> conv1
I0409 09:56:39.915702 10746 net.cpp:150] Setting up conv1
I0409 09:56:39.915731 10746 net.cpp:157] Top shape: 1024 100 42 42 (180633600)
I0409 09:56:39.915735 10746 net.cpp:165] Memory required for data: 750850048
I0409 09:56:39.915757 10746 layer_factory.hpp:77] Creating layer conv1_relu
I0409 09:56:39.915769 10746 net.cpp:100] Creating Layer conv1_relu
I0409 09:56:39.915773 10746 net.cpp:434] conv1_relu <- conv1
I0409 09:56:39.915779 10746 net.cpp:395] conv1_relu -> conv1 (in-place)
I0409 09:56:39.915988 10746 net.cpp:150] Setting up conv1_relu
I0409 09:56:39.916002 10746 net.cpp:157] Top shape: 1024 100 42 42 (180633600)
I0409 09:56:39.916004 10746 net.cpp:165] Memory required for data: 1473384448
I0409 09:56:39.916008 10746 layer_factory.hpp:77] Creating layer pool1
I0409 09:56:39.916015 10746 net.cpp:100] Creating Layer pool1
I0409 09:56:39.916019 10746 net.cpp:434] pool1 <- conv1
I0409 09:56:39.916024 10746 net.cpp:408] pool1 -> pool1
I0409 09:56:39.916077 10746 net.cpp:150] Setting up pool1
I0409 09:56:39.916085 10746 net.cpp:157] Top shape: 1024 100 21 21 (45158400)
I0409 09:56:39.916088 10746 net.cpp:165] Memory required for data: 1654018048
I0409 09:56:39.916092 10746 layer_factory.hpp:77] Creating layer conv2
I0409 09:56:39.916103 10746 net.cpp:100] Creating Layer conv2
I0409 09:56:39.916107 10746 net.cpp:434] conv2 <- pool1
I0409 09:56:39.916112 10746 net.cpp:408] conv2 -> conv2
I0409 09:56:39.920354 10746 net.cpp:150] Setting up conv2
I0409 09:56:39.920370 10746 net.cpp:157] Top shape: 1024 150 18 18 (49766400)
I0409 09:56:39.920387 10746 net.cpp:165] Memory required for data: 1853083648
I0409 09:56:39.920395 10746 layer_factory.hpp:77] Creating layer conv2_relu
I0409 09:56:39.920403 10746 net.cpp:100] Creating Layer conv2_relu
I0409 09:56:39.920405 10746 net.cpp:434] conv2_relu <- conv2
I0409 09:56:39.920410 10746 net.cpp:395] conv2_relu -> conv2 (in-place)
I0409 09:56:39.921159 10746 net.cpp:150] Setting up conv2_relu
I0409 09:56:39.921172 10746 net.cpp:157] Top shape: 1024 150 18 18 (49766400)
I0409 09:56:39.921187 10746 net.cpp:165] Memory required for data: 2052149248
I0409 09:56:39.921191 10746 layer_factory.hpp:77] Creating layer pool2
I0409 09:56:39.921197 10746 net.cpp:100] Creating Layer pool2
I0409 09:56:39.921201 10746 net.cpp:434] pool2 <- conv2
I0409 09:56:39.921206 10746 net.cpp:408] pool2 -> pool2
I0409 09:56:39.921252 10746 net.cpp:150] Setting up pool2
I0409 09:56:39.921260 10746 net.cpp:157] Top shape: 1024 150 9 9 (12441600)
I0409 09:56:39.921262 10746 net.cpp:165] Memory required for data: 2101915648
I0409 09:56:39.921265 10746 layer_factory.hpp:77] Creating layer conv3
I0409 09:56:39.921274 10746 net.cpp:100] Creating Layer conv3
I0409 09:56:39.921277 10746 net.cpp:434] conv3 <- pool2
I0409 09:56:39.921283 10746 net.cpp:408] conv3 -> conv3
I0409 09:56:39.926559 10746 net.cpp:150] Setting up conv3
I0409 09:56:39.926576 10746 net.cpp:157] Top shape: 1024 250 6 6 (9216000)
I0409 09:56:39.926580 10746 net.cpp:165] Memory required for data: 2138779648
I0409 09:56:39.926589 10746 layer_factory.hpp:77] Creating layer conv3_relu
I0409 09:56:39.926596 10746 net.cpp:100] Creating Layer conv3_relu
I0409 09:56:39.926600 10746 net.cpp:434] conv3_relu <- conv3
I0409 09:56:39.926606 10746 net.cpp:395] conv3_relu -> conv3 (in-place)
I0409 09:56:39.927374 10746 net.cpp:150] Setting up conv3_relu
I0409 09:56:39.927389 10746 net.cpp:157] Top shape: 1024 250 6 6 (9216000)
I0409 09:56:39.927392 10746 net.cpp:165] Memory required for data: 2175643648
I0409 09:56:39.927395 10746 layer_factory.hpp:77] Creating layer pool3
I0409 09:56:39.927403 10746 net.cpp:100] Creating Layer pool3
I0409 09:56:39.927407 10746 net.cpp:434] pool3 <- conv3
I0409 09:56:39.927445 10746 net.cpp:408] pool3 -> pool3
I0409 09:56:39.927498 10746 net.cpp:150] Setting up pool3
I0409 09:56:39.927507 10746 net.cpp:157] Top shape: 1024 250 3 3 (2304000)
I0409 09:56:39.927510 10746 net.cpp:165] Memory required for data: 2184859648
I0409 09:56:39.927513 10746 layer_factory.hpp:77] Creating layer fc4_300
I0409 09:56:39.927520 10746 net.cpp:100] Creating Layer fc4_300
I0409 09:56:39.927525 10746 net.cpp:434] fc4_300 <- pool3
I0409 09:56:39.927532 10746 net.cpp:408] fc4_300 -> fc4_300
I0409 09:56:39.932775 10746 net.cpp:150] Setting up fc4_300
I0409 09:56:39.932791 10746 net.cpp:157] Top shape: 1024 300 (307200)
I0409 09:56:39.932806 10746 net.cpp:165] Memory required for data: 2186088448
I0409 09:56:39.932813 10746 layer_factory.hpp:77] Creating layer fc4_relu
I0409 09:56:39.932819 10746 net.cpp:100] Creating Layer fc4_relu
I0409 09:56:39.932823 10746 net.cpp:434] fc4_relu <- fc4_300
I0409 09:56:39.932831 10746 net.cpp:395] fc4_relu -> fc4_300 (in-place)
I0409 09:56:39.933017 10746 net.cpp:150] Setting up fc4_relu
I0409 09:56:39.933028 10746 net.cpp:157] Top shape: 1024 300 (307200)
I0409 09:56:39.933032 10746 net.cpp:165] Memory required for data: 2187317248
I0409 09:56:39.933035 10746 layer_factory.hpp:77] Creating layer drop4
I0409 09:56:39.933042 10746 net.cpp:100] Creating Layer drop4
I0409 09:56:39.933044 10746 net.cpp:434] drop4 <- fc4_300
I0409 09:56:39.933051 10746 net.cpp:395] drop4 -> fc4_300 (in-place)
I0409 09:56:39.933084 10746 net.cpp:150] Setting up drop4
I0409 09:56:39.933092 10746 net.cpp:157] Top shape: 1024 300 (307200)
I0409 09:56:39.933095 10746 net.cpp:165] Memory required for data: 2188546048
I0409 09:56:39.933099 10746 layer_factory.hpp:77] Creating layer fc5_67
I0409 09:56:39.933109 10746 net.cpp:100] Creating Layer fc5_67
I0409 09:56:39.933112 10746 net.cpp:434] fc5_67 <- fc4_300
I0409 09:56:39.933120 10746 net.cpp:408] fc5_67 -> fc5_classes
I0409 09:56:39.934300 10746 net.cpp:150] Setting up fc5_67
I0409 09:56:39.934316 10746 net.cpp:157] Top shape: 1024 67 (68608)
I0409 09:56:39.934319 10746 net.cpp:165] Memory required for data: 2188820480
I0409 09:56:39.934329 10746 layer_factory.hpp:77] Creating layer loss
I0409 09:56:39.934335 10746 net.cpp:100] Creating Layer loss
I0409 09:56:39.934339 10746 net.cpp:434] loss <- fc5_classes
I0409 09:56:39.934343 10746 net.cpp:434] loss <- label
I0409 09:56:39.934350 10746 net.cpp:408] loss -> loss
I0409 09:56:39.934363 10746 layer_factory.hpp:77] Creating layer loss
…
I0409 09:56:39.934994 10746 solver.cpp:193] Creating test net (#0) specified by test_net file: ./Prototxt/experiment_6/rtsd-r1/imajust/trial_2/test.prototxt
I0409 09:56:39.935137 10746 net.cpp:58] Initializing net from parameters: 
state {
  phase: TEST
}
layer {
  name: "data"
  type: "Data"
  top: "data"
  top: "label"
  include {
    phase: TEST
  }
  transform_param {
    mirror: false
    crop_size: 48
    mean_value: 109
    mean_value: 106
    mean_value: 126
  }
  data_param {
    source: "../local_data/lmdb/rtsd-r1/imajust/test/lmdb"
    batch_size: 1024
    backend: LMDB
  }
}
layer {
  name: "conv1"
  type: "Convolution"
  bottom: "data"
  top: "conv1"
  convolution_param {
    num_output: 100
    pad: 0
    kernel_size: 7
    group: 1
    stride: 1
    weight_filler {
      type: "xavier"
    }
  }
}
layer {
  name: "conv1_relu"
  type: "ReLU"
  bottom: "conv1"
  top: "conv1"
}
layer {
  name: "pool1"
  type: "Pooling"
  bottom: "conv1"
  top: "pool1"
  pooling_param {
    pool: MAX
    kernel_size: 2
    stride: 2
  }
}
layer {
  name: "conv2"
  type: "Convolution"
  bottom: "pool1"
  top: "conv2"
  convolution_param {
    num_output: 150
    pad: 0
    kernel_size: 4
    group: 1
    stride: 1
    weight_filler {
      type: "xavier"
    }
  }
}
layer {
  name: "conv2_relu"
  type: "ReLU"
  bottom: "conv2"
  top: "conv2"
}
layer {
  name: "pool2"
  type: "Pooling"
  bottom: "conv2"
  top: "pool2"
  pooling_param {
    pool: MAX
    kernel_size: 2
    stride: 2
  }
}
layer {
  name: "conv3"
  type: "Convolution"
  bottom: "pool2"
  top: "conv3"
  convolution_param {
    num_output: 250
    pad: 0
    kernel_size: 4
    group: 1
    stride: 1
    weight_filler {
      type: "xavier"
    }
  }
}
layer {
  name: "conv3_relu"
  type: "ReLU"
  bottom: "conv3"
  top: "conv3"
}
layer {
  name: "pool3"
  type: "Pooling"
  bottom: "conv3"
  top: "pool3"
  pooling_param {
    pool: MAX
    kernel_size: 2
    stride: 2
  }
}
layer {
  name: "fc4_300"
  type: "InnerProduct"
  bottom: "pool3"
  top: "fc4_300"
  inner_product_param {
    num_output: 300
    weight_filler {
      type: "xavier"
    }
  }
}
layer {
  name: "fc4_relu"
  type: "ReLU"
  bottom: "fc4_300"
  top: "fc4_300"
}
layer {
  name: "drop4"
  type: "Dropout"
  bottom: "fc4_300"
  top: "fc4_300"
  dropout_param {
    dropout_ratio: 0.4
  }
}
layer {
  name: "fc5_67"
  type: "InnerProduct"
  bottom: "fc4_300"
  top: "fc5_classes"
  inner_product_param {
    num_output: 67
    weight_filler {
      type: "xavier"
    }
  }
}
layer {
  name: "loss"
  type: "SoftmaxWithLoss"
  bottom: "fc5_classes"
  bottom: "label"
  top: "loss"
}
layer {
  name: "accuracy_1"
  type: "Accuracy"
  bottom: "fc5_classes"
  bottom: "label"
  top: "accuracy_1"
  include {
    phase: TEST
  }
  accuracy_param {
    top_k: 1
  }
}
layer {
  name: "accuracy_5"
  type: "Accuracy"
  bottom: "fc5_classes"
  bottom: "label"
  top: "accuracy_5"
  include {
    phase: TEST
  }
  accuracy_param {
    top_k: 5
  }
}
I0409 09:56:39.935230 10746 layer_factory.hpp:77] Creating layer data
I0409 09:56:39.935915 10746 net.cpp:100] Creating Layer data
I0409 09:56:39.935928 10746 net.cpp:408] data -> data
I0409 09:56:39.935937 10746 net.cpp:408] data -> label
I0409 09:56:39.937619 10810 db_lmdb.cpp:35] Opened lmdb ../local_data/lmdb/rtsd-r1/imajust/test/lmdb
I0409 09:56:39.937818 10746 data_layer.cpp:41] output data size: 1024,3,48,48
I0409 09:56:39.979007 10746 net.cpp:150] Setting up data
I0409 09:56:39.979034 10746 net.cpp:157] Top shape: 1024 3 48 48 (7077888)
I0409 09:56:39.979039 10746 net.cpp:157] Top shape: 1024 (1024)
I0409 09:56:39.979043 10746 net.cpp:165] Memory required for data: 28315648
I0409 09:56:39.979048 10746 layer_factory.hpp:77] Creating layer label_data_1_split
I0409 09:56:39.979077 10746 net.cpp:100] Creating Layer label_data_1_split
I0409 09:56:39.979082 10746 net.cpp:434] label_data_1_split <- label
I0409 09:56:39.979090 10746 net.cpp:408] label_data_1_split -> label_data_1_split_0
I0409 09:56:39.979101 10746 net.cpp:408] label_data_1_split -> label_data_1_split_1
I0409 09:56:39.979107 10746 net.cpp:408] label_data_1_split -> label_data_1_split_2
I0409 09:56:39.979238 10746 net.cpp:150] Setting up label_data_1_split
I0409 09:56:39.979246 10746 net.cpp:157] Top shape: 1024 (1024)
I0409 09:56:39.979250 10746 net.cpp:157] Top shape: 1024 (1024)
I0409 09:56:39.979254 10746 net.cpp:157] Top shape: 1024 (1024)
I0409 09:56:39.979256 10746 net.cpp:165] Memory required for data: 28327936
I0409 09:56:39.979259 10746 layer_factory.hpp:77] Creating layer conv1
I0409 09:56:39.979274 10746 net.cpp:100] Creating Layer conv1
I0409 09:56:39.979277 10746 net.cpp:434] conv1 <- data
I0409 09:56:39.979284 10746 net.cpp:408] conv1 -> conv1
I0409 09:56:39.982492 10746 net.cpp:150] Setting up conv1
I0409 09:56:39.982511 10746 net.cpp:157] Top shape: 1024 100 42 42 (180633600)
I0409 09:56:39.982516 10746 net.cpp:165] Memory required for data: 750862336
I0409 09:56:39.982527 10746 layer_factory.hpp:77] Creating layer conv1_relu
I0409 09:56:39.982534 10746 net.cpp:100] Creating Layer conv1_relu
I0409 09:56:39.982538 10746 net.cpp:434] conv1_relu <- conv1
I0409 09:56:39.982544 10746 net.cpp:395] conv1_relu -> conv1 (in-place)
I0409 09:56:39.982745 10746 net.cpp:150] Setting up conv1_relu
I0409 09:56:39.982758 10746 net.cpp:157] Top shape: 1024 100 42 42 (180633600)
I0409 09:56:39.982760 10746 net.cpp:165] Memory required for data: 1473396736
I0409 09:56:39.982764 10746 layer_factory.hpp:77] Creating layer pool1
I0409 09:56:39.982774 10746 net.cpp:100] Creating Layer pool1
I0409 09:56:39.982777 10746 net.cpp:434] pool1 <- conv1
I0409 09:56:39.982784 10746 net.cpp:408] pool1 -> pool1
I0409 09:56:39.982834 10746 net.cpp:150] Setting up pool1
I0409 09:56:39.982842 10746 net.cpp:157] Top shape: 1024 100 21 21 (45158400)
I0409 09:56:39.982846 10746 net.cpp:165] Memory required for data: 1654030336
I0409 09:56:39.982848 10746 layer_factory.hpp:77] Creating layer conv2
I0409 09:56:39.982857 10746 net.cpp:100] Creating Layer conv2
I0409 09:56:39.982861 10746 net.cpp:434] conv2 <- pool1
I0409 09:56:39.982866 10746 net.cpp:408] conv2 -> conv2
I0409 09:56:39.988361 10746 net.cpp:150] Setting up conv2
I0409 09:56:39.988379 10746 net.cpp:157] Top shape: 1024 150 18 18 (49766400)
I0409 09:56:39.988382 10746 net.cpp:165] Memory required for data: 1853095936
I0409 09:56:39.988401 10746 layer_factory.hpp:77] Creating layer conv2_relu
I0409 09:56:39.988409 10746 net.cpp:100] Creating Layer conv2_relu
I0409 09:56:39.988414 10746 net.cpp:434] conv2_relu <- conv2
I0409 09:56:39.988418 10746 net.cpp:395] conv2_relu -> conv2 (in-place)
I0409 09:56:39.989331 10746 net.cpp:150] Setting up conv2_relu
I0409 09:56:39.989346 10746 net.cpp:157] Top shape: 1024 150 18 18 (49766400)
I0409 09:56:39.989349 10746 net.cpp:165] Memory required for data: 2052161536
I0409 09:56:39.989352 10746 layer_factory.hpp:77] Creating layer pool2
I0409 09:56:39.989361 10746 net.cpp:100] Creating Layer pool2
I0409 09:56:39.989364 10746 net.cpp:434] pool2 <- conv2
I0409 09:56:39.989372 10746 net.cpp:408] pool2 -> pool2
I0409 09:56:39.989426 10746 net.cpp:150] Setting up pool2
I0409 09:56:39.989435 10746 net.cpp:157] Top shape: 1024 150 9 9 (12441600)
I0409 09:56:39.989439 10746 net.cpp:165] Memory required for data: 2101927936
I0409 09:56:39.989441 10746 layer_factory.hpp:77] Creating layer conv3
I0409 09:56:39.989454 10746 net.cpp:100] Creating Layer conv3
I0409 09:56:39.989459 10746 net.cpp:434] conv3 <- pool2
I0409 09:56:39.989464 10746 net.cpp:408] conv3 -> conv3
I0409 09:56:40.002641 10746 net.cpp:150] Setting up conv3
I0409 09:56:40.002668 10746 net.cpp:157] Top shape: 1024 250 6 6 (9216000)
I0409 09:56:40.002672 10746 net.cpp:165] Memory required for data: 2138791936
I0409 09:56:40.002684 10746 layer_factory.hpp:77] Creating layer conv3_relu
I0409 09:56:40.002696 10746 net.cpp:100] Creating Layer conv3_relu
I0409 09:56:40.002701 10746 net.cpp:434] conv3_relu <- conv3
I0409 09:56:40.002707 10746 net.cpp:395] conv3_relu -> conv3 (in-place)
I0409 09:56:40.005056 10746 net.cpp:150] Setting up conv3_relu
I0409 09:56:40.005075 10746 net.cpp:157] Top shape: 1024 250 6 6 (9216000)
I0409 09:56:40.005079 10746 net.cpp:165] Memory required for data: 2175655936
I0409 09:56:40.005101 10746 layer_factory.hpp:77] Creating layer pool3
I0409 09:56:40.005110 10746 net.cpp:100] Creating Layer pool3
I0409 09:56:40.005115 10746 net.cpp:434] pool3 <- conv3
I0409 09:56:40.005122 10746 net.cpp:408] pool3 -> pool3
I0409 09:56:40.005177 10746 net.cpp:150] Setting up pool3
I0409 09:56:40.005187 10746 net.cpp:157] Top shape: 1024 250 3 3 (2304000)
I0409 09:56:40.005189 10746 net.cpp:165] Memory required for data: 2184871936
I0409 09:56:40.005192 10746 layer_factory.hpp:77] Creating layer fc4_300
I0409 09:56:40.005201 10746 net.cpp:100] Creating Layer fc4_300
I0409 09:56:40.005208 10746 net.cpp:434] fc4_300 <- pool3
I0409 09:56:40.005213 10746 net.cpp:408] fc4_300 -> fc4_300
I0409 09:56:40.010921 10746 net.cpp:150] Setting up fc4_300
I0409 09:56:40.010936 10746 net.cpp:157] Top shape: 1024 300 (307200)
I0409 09:56:40.010941 10746 net.cpp:165] Memory required for data: 2186100736
I0409 09:56:40.010947 10746 layer_factory.hpp:77] Creating layer fc4_relu
I0409 09:56:40.010956 10746 net.cpp:100] Creating Layer fc4_relu
I0409 09:56:40.010959 10746 net.cpp:434] fc4_relu <- fc4_300
I0409 09:56:40.010964 10746 net.cpp:395] fc4_relu -> fc4_300 (in-place)
I0409 09:56:40.011162 10746 net.cpp:150] Setting up fc4_relu
I0409 09:56:40.011173 10746 net.cpp:157] Top shape: 1024 300 (307200)
I0409 09:56:40.011176 10746 net.cpp:165] Memory required for data: 2187329536
I0409 09:56:40.011181 10746 layer_factory.hpp:77] Creating layer drop4
I0409 09:56:40.011189 10746 net.cpp:100] Creating Layer drop4
I0409 09:56:40.011196 10746 net.cpp:434] drop4 <- fc4_300
I0409 09:56:40.011201 10746 net.cpp:395] drop4 -> fc4_300 (in-place)
I0409 09:56:40.011234 10746 net.cpp:150] Setting up drop4
I0409 09:56:40.011240 10746 net.cpp:157] Top shape: 1024 300 (307200)
I0409 09:56:40.011243 10746 net.cpp:165] Memory required for data: 2188558336
I0409 09:56:40.011250 10746 layer_factory.hpp:77] Creating layer fc5_67
I0409 09:56:40.011256 10746 net.cpp:100] Creating Layer fc5_67
I0409 09:56:40.011260 10746 net.cpp:434] fc5_67 <- fc4_300
I0409 09:56:40.011267 10746 net.cpp:408] fc5_67 -> fc5_classes
I0409 09:56:40.011526 10746 net.cpp:150] Setting up fc5_67
I0409 09:56:40.011535 10746 net.cpp:157] Top shape: 1024 67 (68608)
I0409 09:56:40.011538 10746 net.cpp:165] Memory required for data: 2188832768
I0409 09:56:40.011548 10746 layer_factory.hpp:77] Creating layer fc5_classes_fc5_67_0_split
I0409 09:56:40.011556 10746 net.cpp:100] Creating Layer fc5_classes_fc5_67_0_split
I0409 09:56:40.011561 10746 net.cpp:434] fc5_classes_fc5_67_0_split <- fc5_classes
I0409 09:56:40.011567 10746 net.cpp:408] fc5_classes_fc5_67_0_split -> fc5_classes_fc5_67_0_split_0
I0409 09:56:40.011574 10746 net.cpp:408] fc5_classes_fc5_67_0_split -> fc5_classes_fc5_67_0_split_1
I0409 09:56:40.011581 10746 net.cpp:408] fc5_classes_fc5_67_0_split -> fc5_classes_fc5_67_0_split_2
I0409 09:56:40.011634 10746 net.cpp:150] Setting up fc5_classes_fc5_67_0_split
I0409 09:56:40.011641 10746 net.cpp:157] Top shape: 1024 67 (68608)
I0409 09:56:40.011646 10746 net.cpp:157] Top shape: 1024 67 (68608)
I0409 09:56:40.011648 10746 net.cpp:157] Top shape: 1024 67 (68608)
I0409 09:56:40.011651 10746 net.cpp:165] Memory required for data: 2189656064
I0409 09:56:40.011653 10746 layer_factory.hpp:77] Creating layer loss
I0409 09:56:40.011662 10746 net.cpp:100] Creating Layer loss
I0409 09:56:40.011665 10746 net.cpp:434] loss <- fc5_classes_fc5_67_0_split_0
I0409 09:56:40.011669 10746 net.cpp:434] loss <- label_data_1_split_0
I0409 09:56:40.011674 10746 net.cpp:408] loss -> loss
…
