…
I0414 15:36:08.973845 24027 solver.cpp:93] Creating training net from train_net file: ./Prototxt/experiment_11/rtsd-r3/histeq/trial_4/train.prototxt
I0414 15:36:08.995451 24027 net.cpp:58] Initializing net from parameters: 
state {
  phase: TRAIN
  level: 0
  stage: ""
}
layer {
  name: "data"
  type: "Data"
  top: "data"
  top: "label"
  include {
    phase: TRAIN
  }
  transform_param {
    scale: 0.0039215689
    mirror: false
    crop_size: 48
    mean_value: 135
    mean_value: 128
    mean_value: 128
  }
  data_param {
    source: "../local_data/lmdb/rtsd-r3/histeq/train/lmdb"
    batch_size: 1024
    backend: LMDB
  }
}
layer {
  name: "conv1"
  type: "Convolution"
  bottom: "data"
  top: "conv1"
  convolution_param {
    num_output: 100
    pad: 0
    kernel_size: 7
    group: 1
    stride: 1
    weight_filler {
      type: "xavier"
    }
  }
}
layer {
  name: "conv1_prescale"
  type: "Scale"
  bottom: "conv1"
  top: "conv1"
  param {
    lr_mult: 0
    decay_mult: 0
  }
  scale_param {
    filler {
      value: 0.6666
    }
    bias_term: false
  }
}
layer {
  name: "conv1_sTanH"
  type: "TanH"
  bottom: "conv1"
  top: "conv1"
}
layer {
  name: "conv1_postscale"
  type: "Scale"
  bottom: "conv1"
  top: "conv1"
  param {
    lr_mult: 0
    decay_mult: 0
  }
  scale_param {
    filler {
      value: 1.7159
    }
    bias_term: false
  }
}
layer {
  name: "pool1"
  type: "Pooling"
  bottom: "conv1"
  top: "pool1"
  pooling_param {
    pool: MAX
    kernel_size: 2
    stride: 2
  }
}
layer {
  name: "conv2"
  type: "Convolution"
  bottom: "pool1"
  top: "conv2"
  convolution_param {
    num_output: 150
    pad: 0
    kernel_size: 4
    group: 1
    stride: 1
    weight_filler {
      type: "xavier"
    }
  }
}
layer {
  name: "conv2_prescale"
  type: "Scale"
  bottom: "conv2"
  top: "conv2"
  param {
    lr_mult: 0
    decay_mult: 0
  }
  scale_param {
    filler {
      value: 0.6666
    }
    bias_term: false
  }
}
layer {
  name: "conv2_sTanH"
  type: "TanH"
  bottom: "conv2"
  top: "conv2"
}
layer {
  name: "conv2_postscale"
  type: "Scale"
  bottom: "conv2"
  top: "conv2"
  param {
    lr_mult: 0
    decay_mult: 0
  }
  scale_param {
    filler {
      value: 1.7159
    }
    bias_term: false
  }
}
layer {
  name: "pool2"
  type: "Pooling"
  bottom: "conv2"
  top: "pool2"
  pooling_param {
    pool: MAX
    kernel_size: 2
    stride: 2
  }
}
layer {
  name: "conv3"
  type: "Convolution"
  bottom: "pool2"
  top: "conv3"
  convolution_param {
    num_output: 250
    pad: 0
    kernel_size: 4
    group: 1
    stride: 1
    weight_filler {
      type: "xavier"
    }
  }
}
layer {
  name: "conv3_prescale"
  type: "Scale"
  bottom: "conv3"
  top: "conv3"
  param {
    lr_mult: 0
    decay_mult: 0
  }
  scale_param {
    filler {
      value: 0.6666
    }
    bias_term: false
  }
}
layer {
  name: "conv3_sTanH"
  type: "TanH"
  bottom: "conv3"
  top: "conv3"
}
layer {
  name: "conv3_postscale"
  type: "Scale"
  bottom: "conv3"
  top: "conv3"
  param {
    lr_mult: 0
    decay_mult: 0
  }
  scale_param {
    filler {
      value: 1.7159
    }
    bias_term: false
  }
}
layer {
  name: "pool3"
  type: "Pooling"
  bottom: "conv3"
  top: "pool3"
  pooling_param {
    pool: MAX
    kernel_size: 2
    stride: 2
  }
}
layer {
  name: "fc4_300"
  type: "InnerProduct"
  bottom: "pool3"
  top: "fc4_300"
  inner_product_param {
    num_output: 300
    weight_filler {
      type: "xavier"
    }
  }
}
layer {
  name: "fc4_prescale"
  type: "Scale"
  bottom: "fc4_300"
  top: "fc4_300"
  param {
    lr_mult: 0
    decay_mult: 0
  }
  scale_param {
    filler {
      value: 0.6666
    }
    bias_term: false
  }
}
layer {
  name: "fc4_sTanH"
  type: "TanH"
  bottom: "fc4_300"
  top: "fc4_300"
}
layer {
  name: "fc4_postscale"
  type: "Scale"
  bottom: "fc4_300"
  top: "fc4_300"
  param {
    lr_mult: 0
    decay_mult: 0
  }
  scale_param {
    filler {
      value: 1.7159
    }
    bias_term: false
  }
}
layer {
  name: "fc5_106"
  type: "InnerProduct"
  bottom: "fc4_300"
  top: "fc5_classes"
  inner_product_param {
    num_output: 106
    weight_filler {
      type: "xavier"
    }
  }
}
layer {
  name: "softmax"
  type: "Softmax"
  bottom: "fc5_classes"
  top: "softmax"
}
layer {
  name: "loss"
  type: "MultinomialLogisticLoss"
  bottom: "softmax"
  bottom: "label"
  top: "loss"
}
layer {
  name: "accuracy_1"
  type: "Accuracy"
  bottom: "fc5_classes"
  bottom: "label"
  top: "accuracy_1"
  accuracy_param {
    top_k: 1
  }
}
layer {
  name: "accuracy_5"
  type: "Accuracy"
  bottom: "fc5_classes"
  bottom: "label"
  top: "accuracy_5"
  accuracy_param {
    top_k: 5
  }
}
layer {
  name: "silence"
  type: "Silence"
  bottom: "accuracy_1"
  bottom: "accuracy_5"
}
I0414 15:36:08.995615 24027 layer_factory.hpp:77] Creating layer data
I0414 15:36:08.996709 24027 net.cpp:100] Creating Layer data
I0414 15:36:08.996726 24027 net.cpp:408] data -> data
I0414 15:36:08.996749 24027 net.cpp:408] data -> label
I0414 15:36:08.997781 24293 db_lmdb.cpp:35] Opened lmdb ../local_data/lmdb/rtsd-r3/histeq/train/lmdb
I0414 15:36:09.024418 24027 data_layer.cpp:41] output data size: 1024,3,48,48
I0414 15:36:09.102501 24027 net.cpp:150] Setting up data
I0414 15:36:09.102530 24027 net.cpp:157] Top shape: 1024 3 48 48 (7077888)
I0414 15:36:09.102536 24027 net.cpp:157] Top shape: 1024 (1024)
I0414 15:36:09.102540 24027 net.cpp:165] Memory required for data: 28315648
I0414 15:36:09.102550 24027 layer_factory.hpp:77] Creating layer label_data_1_split
I0414 15:36:09.102566 24027 net.cpp:100] Creating Layer label_data_1_split
I0414 15:36:09.102572 24027 net.cpp:434] label_data_1_split <- label
I0414 15:36:09.102587 24027 net.cpp:408] label_data_1_split -> label_data_1_split_0
I0414 15:36:09.102601 24027 net.cpp:408] label_data_1_split -> label_data_1_split_1
I0414 15:36:09.102613 24027 net.cpp:408] label_data_1_split -> label_data_1_split_2
I0414 15:36:09.102694 24027 net.cpp:150] Setting up label_data_1_split
I0414 15:36:09.102708 24027 net.cpp:157] Top shape: 1024 (1024)
I0414 15:36:09.102716 24027 net.cpp:157] Top shape: 1024 (1024)
I0414 15:36:09.102722 24027 net.cpp:157] Top shape: 1024 (1024)
I0414 15:36:09.102725 24027 net.cpp:165] Memory required for data: 28327936
I0414 15:36:09.102728 24027 layer_factory.hpp:77] Creating layer conv1
I0414 15:36:09.102746 24027 net.cpp:100] Creating Layer conv1
I0414 15:36:09.102752 24027 net.cpp:434] conv1 <- data
I0414 15:36:09.102759 24027 net.cpp:408] conv1 -> conv1
I0414 15:36:09.575376 24027 net.cpp:150] Setting up conv1
I0414 15:36:09.575404 24027 net.cpp:157] Top shape: 1024 100 42 42 (180633600)
I0414 15:36:09.575408 24027 net.cpp:165] Memory required for data: 750862336
I0414 15:36:09.575431 24027 layer_factory.hpp:77] Creating layer conv1_prescale
I0414 15:36:09.575444 24027 net.cpp:100] Creating Layer conv1_prescale
I0414 15:36:09.575448 24027 net.cpp:434] conv1_prescale <- conv1
I0414 15:36:09.575455 24027 net.cpp:395] conv1_prescale -> conv1 (in-place)
I0414 15:36:09.575573 24027 net.cpp:150] Setting up conv1_prescale
I0414 15:36:09.575582 24027 net.cpp:157] Top shape: 1024 100 42 42 (180633600)
I0414 15:36:09.575585 24027 net.cpp:165] Memory required for data: 1473396736
I0414 15:36:09.575592 24027 layer_factory.hpp:77] Creating layer conv1_sTanH
I0414 15:36:09.575601 24027 net.cpp:100] Creating Layer conv1_sTanH
I0414 15:36:09.575605 24027 net.cpp:434] conv1_sTanH <- conv1
I0414 15:36:09.575610 24027 net.cpp:395] conv1_sTanH -> conv1 (in-place)
I0414 15:36:09.575817 24027 net.cpp:150] Setting up conv1_sTanH
I0414 15:36:09.575852 24027 net.cpp:157] Top shape: 1024 100 42 42 (180633600)
I0414 15:36:09.575856 24027 net.cpp:165] Memory required for data: 2195931136
I0414 15:36:09.575860 24027 layer_factory.hpp:77] Creating layer conv1_postscale
I0414 15:36:09.575867 24027 net.cpp:100] Creating Layer conv1_postscale
I0414 15:36:09.575872 24027 net.cpp:434] conv1_postscale <- conv1
I0414 15:36:09.575892 24027 net.cpp:395] conv1_postscale -> conv1 (in-place)
I0414 15:36:09.575997 24027 net.cpp:150] Setting up conv1_postscale
I0414 15:36:09.576005 24027 net.cpp:157] Top shape: 1024 100 42 42 (180633600)
I0414 15:36:09.576010 24027 net.cpp:165] Memory required for data: 2918465536
I0414 15:36:09.576015 24027 layer_factory.hpp:77] Creating layer pool1
I0414 15:36:09.576022 24027 net.cpp:100] Creating Layer pool1
I0414 15:36:09.576026 24027 net.cpp:434] pool1 <- conv1
I0414 15:36:09.576032 24027 net.cpp:408] pool1 -> pool1
I0414 15:36:09.576082 24027 net.cpp:150] Setting up pool1
I0414 15:36:09.576091 24027 net.cpp:157] Top shape: 1024 100 21 21 (45158400)
I0414 15:36:09.576094 24027 net.cpp:165] Memory required for data: 3099099136
I0414 15:36:09.576097 24027 layer_factory.hpp:77] Creating layer conv2
I0414 15:36:09.576107 24027 net.cpp:100] Creating Layer conv2
I0414 15:36:09.576112 24027 net.cpp:434] conv2 <- pool1
I0414 15:36:09.576118 24027 net.cpp:408] conv2 -> conv2
I0414 15:36:09.589887 24027 net.cpp:150] Setting up conv2
I0414 15:36:09.589908 24027 net.cpp:157] Top shape: 1024 150 18 18 (49766400)
I0414 15:36:09.589911 24027 net.cpp:165] Memory required for data: 3298164736
I0414 15:36:09.589923 24027 layer_factory.hpp:77] Creating layer conv2_prescale
I0414 15:36:09.589934 24027 net.cpp:100] Creating Layer conv2_prescale
I0414 15:36:09.589938 24027 net.cpp:434] conv2_prescale <- conv2
I0414 15:36:09.589943 24027 net.cpp:395] conv2_prescale -> conv2 (in-place)
I0414 15:36:09.590052 24027 net.cpp:150] Setting up conv2_prescale
I0414 15:36:09.590062 24027 net.cpp:157] Top shape: 1024 150 18 18 (49766400)
I0414 15:36:09.590065 24027 net.cpp:165] Memory required for data: 3497230336
I0414 15:36:09.590070 24027 layer_factory.hpp:77] Creating layer conv2_sTanH
I0414 15:36:09.590076 24027 net.cpp:100] Creating Layer conv2_sTanH
I0414 15:36:09.590081 24027 net.cpp:434] conv2_sTanH <- conv2
I0414 15:36:09.590085 24027 net.cpp:395] conv2_sTanH -> conv2 (in-place)
I0414 15:36:09.591486 24027 net.cpp:150] Setting up conv2_sTanH
I0414 15:36:09.591508 24027 net.cpp:157] Top shape: 1024 150 18 18 (49766400)
I0414 15:36:09.591516 24027 net.cpp:165] Memory required for data: 3696295936
I0414 15:36:09.591523 24027 layer_factory.hpp:77] Creating layer conv2_postscale
I0414 15:36:09.591536 24027 net.cpp:100] Creating Layer conv2_postscale
I0414 15:36:09.591544 24027 net.cpp:434] conv2_postscale <- conv2
I0414 15:36:09.591554 24027 net.cpp:395] conv2_postscale -> conv2 (in-place)
I0414 15:36:09.591696 24027 net.cpp:150] Setting up conv2_postscale
I0414 15:36:09.591712 24027 net.cpp:157] Top shape: 1024 150 18 18 (49766400)
I0414 15:36:09.591719 24027 net.cpp:165] Memory required for data: 3895361536
I0414 15:36:09.591728 24027 layer_factory.hpp:77] Creating layer pool2
I0414 15:36:09.591740 24027 net.cpp:100] Creating Layer pool2
I0414 15:36:09.591748 24027 net.cpp:434] pool2 <- conv2
I0414 15:36:09.591759 24027 net.cpp:408] pool2 -> pool2
I0414 15:36:09.591822 24027 net.cpp:150] Setting up pool2
I0414 15:36:09.591835 24027 net.cpp:157] Top shape: 1024 150 9 9 (12441600)
I0414 15:36:09.591842 24027 net.cpp:165] Memory required for data: 3945127936
I0414 15:36:09.591850 24027 layer_factory.hpp:77] Creating layer conv3
I0414 15:36:09.591864 24027 net.cpp:100] Creating Layer conv3
I0414 15:36:09.591872 24027 net.cpp:434] conv3 <- pool2
I0414 15:36:09.591897 24027 net.cpp:408] conv3 -> conv3
I0414 15:36:09.598783 24027 net.cpp:150] Setting up conv3
I0414 15:36:09.598803 24027 net.cpp:157] Top shape: 1024 250 6 6 (9216000)
I0414 15:36:09.598808 24027 net.cpp:165] Memory required for data: 3981991936
I0414 15:36:09.598817 24027 layer_factory.hpp:77] Creating layer conv3_prescale
I0414 15:36:09.598847 24027 net.cpp:100] Creating Layer conv3_prescale
I0414 15:36:09.598853 24027 net.cpp:434] conv3_prescale <- conv3
I0414 15:36:09.598858 24027 net.cpp:395] conv3_prescale -> conv3 (in-place)
I0414 15:36:09.598955 24027 net.cpp:150] Setting up conv3_prescale
I0414 15:36:09.598963 24027 net.cpp:157] Top shape: 1024 250 6 6 (9216000)
I0414 15:36:09.598968 24027 net.cpp:165] Memory required for data: 4018855936
I0414 15:36:09.598973 24027 layer_factory.hpp:77] Creating layer conv3_sTanH
I0414 15:36:09.598978 24027 net.cpp:100] Creating Layer conv3_sTanH
I0414 15:36:09.598983 24027 net.cpp:434] conv3_sTanH <- conv3
I0414 15:36:09.598986 24027 net.cpp:395] conv3_sTanH -> conv3 (in-place)
I0414 15:36:09.600267 24027 net.cpp:150] Setting up conv3_sTanH
I0414 15:36:09.600283 24027 net.cpp:157] Top shape: 1024 250 6 6 (9216000)
I0414 15:36:09.600288 24027 net.cpp:165] Memory required for data: 4055719936
I0414 15:36:09.600292 24027 layer_factory.hpp:77] Creating layer conv3_postscale
I0414 15:36:09.600299 24027 net.cpp:100] Creating Layer conv3_postscale
I0414 15:36:09.600304 24027 net.cpp:434] conv3_postscale <- conv3
I0414 15:36:09.600311 24027 net.cpp:395] conv3_postscale -> conv3 (in-place)
I0414 15:36:09.600409 24027 net.cpp:150] Setting up conv3_postscale
I0414 15:36:09.600416 24027 net.cpp:157] Top shape: 1024 250 6 6 (9216000)
I0414 15:36:09.600421 24027 net.cpp:165] Memory required for data: 4092583936
I0414 15:36:09.600426 24027 layer_factory.hpp:77] Creating layer pool3
I0414 15:36:09.600435 24027 net.cpp:100] Creating Layer pool3
I0414 15:36:09.600440 24027 net.cpp:434] pool3 <- conv3
I0414 15:36:09.600445 24027 net.cpp:408] pool3 -> pool3
I0414 15:36:09.600484 24027 net.cpp:150] Setting up pool3
I0414 15:36:09.600492 24027 net.cpp:157] Top shape: 1024 250 3 3 (2304000)
I0414 15:36:09.600497 24027 net.cpp:165] Memory required for data: 4101799936
I0414 15:36:09.600499 24027 layer_factory.hpp:77] Creating layer fc4_300
I0414 15:36:09.600507 24027 net.cpp:100] Creating Layer fc4_300
I0414 15:36:09.600512 24027 net.cpp:434] fc4_300 <- pool3
I0414 15:36:09.600515 24027 net.cpp:408] fc4_300 -> fc4_300
I0414 15:36:09.607331 24027 net.cpp:150] Setting up fc4_300
I0414 15:36:09.607347 24027 net.cpp:157] Top shape: 1024 300 (307200)
I0414 15:36:09.607349 24027 net.cpp:165] Memory required for data: 4103028736
I0414 15:36:09.607357 24027 layer_factory.hpp:77] Creating layer fc4_prescale
I0414 15:36:09.607363 24027 net.cpp:100] Creating Layer fc4_prescale
I0414 15:36:09.607367 24027 net.cpp:434] fc4_prescale <- fc4_300
I0414 15:36:09.607372 24027 net.cpp:395] fc4_prescale -> fc4_300 (in-place)
I0414 15:36:09.607460 24027 net.cpp:150] Setting up fc4_prescale
I0414 15:36:09.607468 24027 net.cpp:157] Top shape: 1024 300 (307200)
I0414 15:36:09.607471 24027 net.cpp:165] Memory required for data: 4104257536
I0414 15:36:09.607475 24027 layer_factory.hpp:77] Creating layer fc4_sTanH
I0414 15:36:09.607483 24027 net.cpp:100] Creating Layer fc4_sTanH
I0414 15:36:09.607488 24027 net.cpp:434] fc4_sTanH <- fc4_300
I0414 15:36:09.607492 24027 net.cpp:395] fc4_sTanH -> fc4_300 (in-place)
I0414 15:36:09.607676 24027 net.cpp:150] Setting up fc4_sTanH
I0414 15:36:09.607686 24027 net.cpp:157] Top shape: 1024 300 (307200)
I0414 15:36:09.607692 24027 net.cpp:165] Memory required for data: 4105486336
I0414 15:36:09.607694 24027 layer_factory.hpp:77] Creating layer fc4_postscale
I0414 15:36:09.607700 24027 net.cpp:100] Creating Layer fc4_postscale
I0414 15:36:09.607704 24027 net.cpp:434] fc4_postscale <- fc4_300
I0414 15:36:09.607710 24027 net.cpp:395] fc4_postscale -> fc4_300 (in-place)
I0414 15:36:09.607820 24027 net.cpp:150] Setting up fc4_postscale
I0414 15:36:09.607834 24027 net.cpp:157] Top shape: 1024 300 (307200)
I0414 15:36:09.607841 24027 net.cpp:165] Memory required for data: 4106715136
I0414 15:36:09.607852 24027 layer_factory.hpp:77] Creating layer fc5_106
I0414 15:36:09.607864 24027 net.cpp:100] Creating Layer fc5_106
I0414 15:36:09.607872 24027 net.cpp:434] fc5_106 <- fc4_300
I0414 15:36:09.607906 24027 net.cpp:408] fc5_106 -> fc5_classes
I0414 15:36:09.609630 24027 net.cpp:150] Setting up fc5_106
I0414 15:36:09.609647 24027 net.cpp:157] Top shape: 1024 106 (108544)
I0414 15:36:09.609649 24027 net.cpp:165] Memory required for data: 4107149312
I0414 15:36:09.609660 24027 layer_factory.hpp:77] Creating layer fc5_classes_fc5_106_0_split
I0414 15:36:09.609669 24027 net.cpp:100] Creating Layer fc5_classes_fc5_106_0_split
I0414 15:36:09.609674 24027 net.cpp:434] fc5_classes_fc5_106_0_split <- fc5_classes
I0414 15:36:09.609680 24027 net.cpp:408] fc5_classes_fc5_106_0_split -> fc5_classes_fc5_106_0_split_0
I0414 15:36:09.609688 24027 net.cpp:408] fc5_classes_fc5_106_0_split -> fc5_classes_fc5_106_0_split_1
I0414 15:36:09.609696 24027 net.cpp:408] fc5_classes_fc5_106_0_split -> fc5_classes_fc5_106_0_split_2
I0414 15:36:09.609747 24027 net.cpp:150] Setting up fc5_classes_fc5_106_0_split
I0414 15:36:09.609755 24027 net.cpp:157] Top shape: 1024 106 (108544)
I0414 15:36:09.609758 24027 net.cpp:157] Top shape: 1024 106 (108544)
I0414 15:36:09.609761 24027 net.cpp:157] Top shape: 1024 106 (108544)
I0414 15:36:09.609764 24027 net.cpp:165] Memory required for data: 4108451840
I0414 15:36:09.609767 24027 layer_factory.hpp:77] Creating layer softmax
I0414 15:36:09.609773 24027 net.cpp:100] Creating Layer softmax
I0414 15:36:09.609777 24027 net.cpp:434] softmax <- fc5_classes_fc5_106_0_split_0
I0414 15:36:09.609782 24027 net.cpp:408] softmax -> softmax
I0414 15:36:09.610033 24027 net.cpp:150] Setting up softmax
I0414 15:36:09.610044 24027 net.cpp:157] Top shape: 1024 106 (108544)
I0414 15:36:09.610049 24027 net.cpp:165] Memory required for data: 4108886016
I0414 15:36:09.610051 24027 layer_factory.hpp:77] Creating layer loss
I0414 15:36:09.610057 24027 net.cpp:100] Creating Layer loss
I0414 15:36:09.610062 24027 net.cpp:434] loss <- softmax
I0414 15:36:09.610066 24027 net.cpp:434] loss <- label_data_1_split_0
I0414 15:36:09.610071 24027 net.cpp:408] loss -> loss
…
