…
I0409 23:58:06.056015  6562 net.cpp:322] The NetState phase (0) differed from the phase (1) specified by a rule in layer accuracy_5
I0409 23:58:06.056107  6562 net.cpp:58] Initializing net from parameters: 
state {
  phase: TRAIN
  level: 0
  stage: ""
}
layer {
  name: "data"
  type: "Data"
  top: "data"
  top: "label"
  include {
    phase: TRAIN
  }
  transform_param {
    mirror: false
    crop_size: 48
    mean_value: 132
    mean_value: 126
    mean_value: 140
  }
  data_param {
    source: "../local_data/lmdb/rtsd-r1/AHE/train/lmdb"
    batch_size: 1024
    backend: LMDB
  }
}
layer {
  name: "conv1"
  type: "Convolution"
  bottom: "data"
  top: "conv1"
  convolution_param {
    num_output: 100
    pad: 0
    kernel_size: 7
    group: 1
    stride: 1
    weight_filler {
      type: "xavier"
    }
  }
}
layer {
  name: "conv1_sTanH"
  type: "TanH"
  bottom: "conv1"
  top: "conv1"
}
layer {
  name: "pool1"
  type: "Pooling"
  bottom: "conv1"
  top: "pool1"
  pooling_param {
    pool: MAX
    kernel_size: 2
    stride: 2
  }
}
layer {
  name: "conv2"
  type: "Convolution"
  bottom: "pool1"
  top: "conv2"
  convolution_param {
    num_output: 150
    pad: 0
    kernel_size: 4
    group: 1
    stride: 1
    weight_filler {
      type: "xavier"
    }
  }
}
layer {
  name: "conv2_sTanH"
  type: "TanH"
  bottom: "conv2"
  top: "conv2"
}
layer {
  name: "pool2"
  type: "Pooling"
  bottom: "conv2"
  top: "pool2"
  pooling_param {
    pool: MAX
    kernel_size: 2
    stride: 2
  }
}
layer {
  name: "conv3"
  type: "Convolution"
  bottom: "pool2"
  top: "conv3"
  convolution_param {
    num_output: 250
    pad: 0
    kernel_size: 4
    group: 1
    stride: 1
    weight_filler {
      type: "xavier"
    }
  }
}
layer {
  name: "conv3_sTanH"
  type: "TanH"
  bottom: "conv3"
  top: "conv3"
}
layer {
  name: "pool3"
  type: "Pooling"
  bottom: "conv3"
  top: "pool3"
  pooling_param {
    pool: MAX
    kernel_size: 2
    stride: 2
  }
}
layer {
  name: "fc4_300"
  type: "InnerProduct"
  bottom: "pool3"
  top: "fc4_300"
  inner_product_param {
    num_output: 300
    weight_filler {
      type: "xavier"
    }
  }
}
layer {
  name: "fc4_sTanH"
  type: "TanH"
  bottom: "fc4_300"
  top: "fc4_300"
}
layer {
  name: "drop4"
  type: "Dropout"
  bottom: "fc4_300"
  top: "fc4_300"
  dropout_param {
    dropout_ratio: 0.4
  }
}
layer {
  name: "fc5_67"
  type: "InnerProduct"
  bottom: "fc4_300"
  top: "fc5_classes"
  inner_product_param {
    num_output: 67
    weight_filler {
      type: "xavier"
    }
  }
}
layer {
  name: "loss"
  type: "SoftmaxWithLoss"
  bottom: "fc5_classes"
  bottom: "label"
  top: "loss"
}
I0409 23:58:06.056177  6562 layer_factory.hpp:77] Creating layer data
I0409 23:58:06.057221  6562 net.cpp:100] Creating Layer data
I0409 23:58:06.057235  6562 net.cpp:408] data -> data
I0409 23:58:06.057258  6562 net.cpp:408] data -> label
I0409 23:58:06.058424  6662 db_lmdb.cpp:35] Opened lmdb ../local_data/lmdb/rtsd-r1/AHE/train/lmdb
I0409 23:58:06.075475  6562 data_layer.cpp:41] output data size: 1024,3,48,48
I0409 23:58:06.122288  6562 net.cpp:150] Setting up data
I0409 23:58:06.122318  6562 net.cpp:157] Top shape: 1024 3 48 48 (7077888)
I0409 23:58:06.122323  6562 net.cpp:157] Top shape: 1024 (1024)
I0409 23:58:06.122349  6562 net.cpp:165] Memory required for data: 28315648
I0409 23:58:06.122360  6562 layer_factory.hpp:77] Creating layer conv1
I0409 23:58:06.122385  6562 net.cpp:100] Creating Layer conv1
I0409 23:58:06.122390  6562 net.cpp:434] conv1 <- data
I0409 23:58:06.122403  6562 net.cpp:408] conv1 -> conv1
I0409 23:58:06.392881  6562 net.cpp:150] Setting up conv1
I0409 23:58:06.392930  6562 net.cpp:157] Top shape: 1024 100 42 42 (180633600)
I0409 23:58:06.392935  6562 net.cpp:165] Memory required for data: 750850048
I0409 23:58:06.392956  6562 layer_factory.hpp:77] Creating layer conv1_sTanH
I0409 23:58:06.392969  6562 net.cpp:100] Creating Layer conv1_sTanH
I0409 23:58:06.392973  6562 net.cpp:434] conv1_sTanH <- conv1
I0409 23:58:06.392980  6562 net.cpp:395] conv1_sTanH -> conv1 (in-place)
I0409 23:58:06.393177  6562 net.cpp:150] Setting up conv1_sTanH
I0409 23:58:06.393189  6562 net.cpp:157] Top shape: 1024 100 42 42 (180633600)
I0409 23:58:06.393193  6562 net.cpp:165] Memory required for data: 1473384448
I0409 23:58:06.393195  6562 layer_factory.hpp:77] Creating layer pool1
I0409 23:58:06.393203  6562 net.cpp:100] Creating Layer pool1
I0409 23:58:06.393208  6562 net.cpp:434] pool1 <- conv1
I0409 23:58:06.393214  6562 net.cpp:408] pool1 -> pool1
I0409 23:58:06.393266  6562 net.cpp:150] Setting up pool1
I0409 23:58:06.393275  6562 net.cpp:157] Top shape: 1024 100 21 21 (45158400)
I0409 23:58:06.393277  6562 net.cpp:165] Memory required for data: 1654018048
I0409 23:58:06.393280  6562 layer_factory.hpp:77] Creating layer conv2
I0409 23:58:06.393291  6562 net.cpp:100] Creating Layer conv2
I0409 23:58:06.393296  6562 net.cpp:434] conv2 <- pool1
I0409 23:58:06.393301  6562 net.cpp:408] conv2 -> conv2
I0409 23:58:06.398411  6562 net.cpp:150] Setting up conv2
I0409 23:58:06.398429  6562 net.cpp:157] Top shape: 1024 150 18 18 (49766400)
I0409 23:58:06.398432  6562 net.cpp:165] Memory required for data: 1853083648
I0409 23:58:06.398442  6562 layer_factory.hpp:77] Creating layer conv2_sTanH
I0409 23:58:06.398449  6562 net.cpp:100] Creating Layer conv2_sTanH
I0409 23:58:06.398452  6562 net.cpp:434] conv2_sTanH <- conv2
I0409 23:58:06.398458  6562 net.cpp:395] conv2_sTanH -> conv2 (in-place)
I0409 23:58:06.399189  6562 net.cpp:150] Setting up conv2_sTanH
I0409 23:58:06.399205  6562 net.cpp:157] Top shape: 1024 150 18 18 (49766400)
I0409 23:58:06.399209  6562 net.cpp:165] Memory required for data: 2052149248
I0409 23:58:06.399211  6562 layer_factory.hpp:77] Creating layer pool2
I0409 23:58:06.399219  6562 net.cpp:100] Creating Layer pool2
I0409 23:58:06.399221  6562 net.cpp:434] pool2 <- conv2
I0409 23:58:06.399226  6562 net.cpp:408] pool2 -> pool2
I0409 23:58:06.399271  6562 net.cpp:150] Setting up pool2
I0409 23:58:06.399279  6562 net.cpp:157] Top shape: 1024 150 9 9 (12441600)
I0409 23:58:06.399281  6562 net.cpp:165] Memory required for data: 2101915648
I0409 23:58:06.399284  6562 layer_factory.hpp:77] Creating layer conv3
I0409 23:58:06.399293  6562 net.cpp:100] Creating Layer conv3
I0409 23:58:06.399298  6562 net.cpp:434] conv3 <- pool2
I0409 23:58:06.399303  6562 net.cpp:408] conv3 -> conv3
I0409 23:58:06.404723  6562 net.cpp:150] Setting up conv3
I0409 23:58:06.404739  6562 net.cpp:157] Top shape: 1024 250 6 6 (9216000)
I0409 23:58:06.404742  6562 net.cpp:165] Memory required for data: 2138779648
I0409 23:58:06.404752  6562 layer_factory.hpp:77] Creating layer conv3_sTanH
I0409 23:58:06.404759  6562 net.cpp:100] Creating Layer conv3_sTanH
I0409 23:58:06.404763  6562 net.cpp:434] conv3_sTanH <- conv3
I0409 23:58:06.404767  6562 net.cpp:395] conv3_sTanH -> conv3 (in-place)
I0409 23:58:06.405509  6562 net.cpp:150] Setting up conv3_sTanH
I0409 23:58:06.405529  6562 net.cpp:157] Top shape: 1024 250 6 6 (9216000)
I0409 23:58:06.405534  6562 net.cpp:165] Memory required for data: 2175643648
I0409 23:58:06.405539  6562 layer_factory.hpp:77] Creating layer pool3
I0409 23:58:06.405550  6562 net.cpp:100] Creating Layer pool3
I0409 23:58:06.405555  6562 net.cpp:434] pool3 <- conv3
I0409 23:58:06.405599  6562 net.cpp:408] pool3 -> pool3
I0409 23:58:06.405663  6562 net.cpp:150] Setting up pool3
I0409 23:58:06.405674  6562 net.cpp:157] Top shape: 1024 250 3 3 (2304000)
I0409 23:58:06.405679  6562 net.cpp:165] Memory required for data: 2184859648
I0409 23:58:06.405684  6562 layer_factory.hpp:77] Creating layer fc4_300
I0409 23:58:06.405695  6562 net.cpp:100] Creating Layer fc4_300
I0409 23:58:06.405714  6562 net.cpp:434] fc4_300 <- pool3
I0409 23:58:06.405722  6562 net.cpp:408] fc4_300 -> fc4_300
I0409 23:58:06.411295  6562 net.cpp:150] Setting up fc4_300
I0409 23:58:06.411314  6562 net.cpp:157] Top shape: 1024 300 (307200)
I0409 23:58:06.411319  6562 net.cpp:165] Memory required for data: 2186088448
I0409 23:58:06.411330  6562 layer_factory.hpp:77] Creating layer fc4_sTanH
I0409 23:58:06.411341  6562 net.cpp:100] Creating Layer fc4_sTanH
I0409 23:58:06.411350  6562 net.cpp:434] fc4_sTanH <- fc4_300
I0409 23:58:06.411358  6562 net.cpp:395] fc4_sTanH -> fc4_300 (in-place)
I0409 23:58:06.411552  6562 net.cpp:150] Setting up fc4_sTanH
I0409 23:58:06.411566  6562 net.cpp:157] Top shape: 1024 300 (307200)
I0409 23:58:06.411571  6562 net.cpp:165] Memory required for data: 2187317248
I0409 23:58:06.411576  6562 layer_factory.hpp:77] Creating layer drop4
I0409 23:58:06.411586  6562 net.cpp:100] Creating Layer drop4
I0409 23:58:06.411593  6562 net.cpp:434] drop4 <- fc4_300
I0409 23:58:06.411602  6562 net.cpp:395] drop4 -> fc4_300 (in-place)
I0409 23:58:06.411638  6562 net.cpp:150] Setting up drop4
I0409 23:58:06.411648  6562 net.cpp:157] Top shape: 1024 300 (307200)
I0409 23:58:06.411653  6562 net.cpp:165] Memory required for data: 2188546048
I0409 23:58:06.411659  6562 layer_factory.hpp:77] Creating layer fc5_67
I0409 23:58:06.411667  6562 net.cpp:100] Creating Layer fc5_67
I0409 23:58:06.411674  6562 net.cpp:434] fc5_67 <- fc4_300
I0409 23:58:06.411682  6562 net.cpp:408] fc5_67 -> fc5_classes
I0409 23:58:06.413030  6562 net.cpp:150] Setting up fc5_67
I0409 23:58:06.413048  6562 net.cpp:157] Top shape: 1024 67 (68608)
I0409 23:58:06.413053  6562 net.cpp:165] Memory required for data: 2188820480
I0409 23:58:06.413067  6562 layer_factory.hpp:77] Creating layer loss
I0409 23:58:06.413079  6562 net.cpp:100] Creating Layer loss
I0409 23:58:06.413086  6562 net.cpp:434] loss <- fc5_classes
I0409 23:58:06.413094  6562 net.cpp:434] loss <- label
I0409 23:58:06.413105  6562 net.cpp:408] loss -> loss
I0409 23:58:06.413123  6562 layer_factory.hpp:77] Creating layer loss
…
I0409 23:58:06.413825  6562 solver.cpp:193] Creating test net (#0) specified by test_net file: ./Prototxt/experiment_7/rtsd-r1/AHE/trial_2/test.prototxt
I0409 23:58:06.413976  6562 net.cpp:58] Initializing net from parameters: 
state {
  phase: TEST
}
layer {
  name: "data"
  type: "Data"
  top: "data"
  top: "label"
  include {
    phase: TEST
  }
  transform_param {
    mirror: false
    crop_size: 48
    mean_value: 126
    mean_value: 124
    mean_value: 145
  }
  data_param {
    source: "../local_data/lmdb/rtsd-r1/AHE/test/lmdb"
    batch_size: 1024
    backend: LMDB
  }
}
layer {
  name: "conv1"
  type: "Convolution"
  bottom: "data"
  top: "conv1"
  convolution_param {
    num_output: 100
    pad: 0
    kernel_size: 7
    group: 1
    stride: 1
    weight_filler {
      type: "xavier"
    }
  }
}
layer {
  name: "conv1_sTanH"
  type: "TanH"
  bottom: "conv1"
  top: "conv1"
}
layer {
  name: "pool1"
  type: "Pooling"
  bottom: "conv1"
  top: "pool1"
  pooling_param {
    pool: MAX
    kernel_size: 2
    stride: 2
  }
}
layer {
  name: "conv2"
  type: "Convolution"
  bottom: "pool1"
  top: "conv2"
  convolution_param {
    num_output: 150
    pad: 0
    kernel_size: 4
    group: 1
    stride: 1
    weight_filler {
      type: "xavier"
    }
  }
}
layer {
  name: "conv2_sTanH"
  type: "TanH"
  bottom: "conv2"
  top: "conv2"
}
layer {
  name: "pool2"
  type: "Pooling"
  bottom: "conv2"
  top: "pool2"
  pooling_param {
    pool: MAX
    kernel_size: 2
    stride: 2
  }
}
layer {
  name: "conv3"
  type: "Convolution"
  bottom: "pool2"
  top: "conv3"
  convolution_param {
    num_output: 250
    pad: 0
    kernel_size: 4
    group: 1
    stride: 1
    weight_filler {
      type: "xavier"
    }
  }
}
layer {
  name: "conv3_sTanH"
  type: "TanH"
  bottom: "conv3"
  top: "conv3"
}
layer {
  name: "pool3"
  type: "Pooling"
  bottom: "conv3"
  top: "pool3"
  pooling_param {
    pool: MAX
    kernel_size: 2
    stride: 2
  }
}
layer {
  name: "fc4_300"
  type: "InnerProduct"
  bottom: "pool3"
  top: "fc4_300"
  inner_product_param {
    num_output: 300
    weight_filler {
      type: "xavier"
    }
  }
}
layer {
  name: "fc4_sTanH"
  type: "TanH"
  bottom: "fc4_300"
  top: "fc4_300"
}
layer {
  name: "drop4"
  type: "Dropout"
  bottom: "fc4_300"
  top: "fc4_300"
  dropout_param {
    dropout_ratio: 0.4
  }
}
layer {
  name: "fc5_67"
  type: "InnerProduct"
  bottom: "fc4_300"
  top: "fc5_classes"
  inner_product_param {
    num_output: 67
    weight_filler {
      type: "xavier"
    }
  }
}
layer {
  name: "loss"
  type: "SoftmaxWithLoss"
  bottom: "fc5_classes"
  bottom: "label"
  top: "loss"
}
layer {
  name: "accuracy_1"
  type: "Accuracy"
  bottom: "fc5_classes"
  bottom: "label"
  top: "accuracy_1"
  include {
    phase: TEST
  }
  accuracy_param {
    top_k: 1
  }
}
layer {
  name: "accuracy_5"
  type: "Accuracy"
  bottom: "fc5_classes"
  bottom: "label"
  top: "accuracy_5"
  include {
    phase: TEST
  }
  accuracy_param {
    top_k: 5
  }
}
I0409 23:58:06.414091  6562 layer_factory.hpp:77] Creating layer data
I0409 23:58:06.414798  6562 net.cpp:100] Creating Layer data
I0409 23:58:06.414810  6562 net.cpp:408] data -> data
I0409 23:58:06.414826  6562 net.cpp:408] data -> label
I0409 23:58:06.416991  6693 db_lmdb.cpp:35] Opened lmdb ../local_data/lmdb/rtsd-r1/AHE/test/lmdb
I0409 23:58:06.417158  6562 data_layer.cpp:41] output data size: 1024,3,48,48
I0409 23:58:06.463367  6562 net.cpp:150] Setting up data
I0409 23:58:06.463398  6562 net.cpp:157] Top shape: 1024 3 48 48 (7077888)
I0409 23:58:06.463405  6562 net.cpp:157] Top shape: 1024 (1024)
I0409 23:58:06.463409  6562 net.cpp:165] Memory required for data: 28315648
I0409 23:58:06.463418  6562 layer_factory.hpp:77] Creating layer label_data_1_split
I0409 23:58:06.463435  6562 net.cpp:100] Creating Layer label_data_1_split
I0409 23:58:06.463444  6562 net.cpp:434] label_data_1_split <- label
I0409 23:58:06.463462  6562 net.cpp:408] label_data_1_split -> label_data_1_split_0
I0409 23:58:06.463480  6562 net.cpp:408] label_data_1_split -> label_data_1_split_1
I0409 23:58:06.463492  6562 net.cpp:408] label_data_1_split -> label_data_1_split_2
I0409 23:58:06.463611  6562 net.cpp:150] Setting up label_data_1_split
I0409 23:58:06.463624  6562 net.cpp:157] Top shape: 1024 (1024)
I0409 23:58:06.463629  6562 net.cpp:157] Top shape: 1024 (1024)
I0409 23:58:06.463635  6562 net.cpp:157] Top shape: 1024 (1024)
I0409 23:58:06.463639  6562 net.cpp:165] Memory required for data: 28327936
I0409 23:58:06.463645  6562 layer_factory.hpp:77] Creating layer conv1
I0409 23:58:06.463665  6562 net.cpp:100] Creating Layer conv1
I0409 23:58:06.463671  6562 net.cpp:434] conv1 <- data
I0409 23:58:06.463681  6562 net.cpp:408] conv1 -> conv1
I0409 23:58:06.467661  6562 net.cpp:150] Setting up conv1
I0409 23:58:06.467681  6562 net.cpp:157] Top shape: 1024 100 42 42 (180633600)
I0409 23:58:06.467687  6562 net.cpp:165] Memory required for data: 750862336
I0409 23:58:06.467705  6562 layer_factory.hpp:77] Creating layer conv1_sTanH
I0409 23:58:06.467717  6562 net.cpp:100] Creating Layer conv1_sTanH
I0409 23:58:06.467725  6562 net.cpp:434] conv1_sTanH <- conv1
I0409 23:58:06.467739  6562 net.cpp:395] conv1_sTanH -> conv1 (in-place)
I0409 23:58:06.467970  6562 net.cpp:150] Setting up conv1_sTanH
I0409 23:58:06.467985  6562 net.cpp:157] Top shape: 1024 100 42 42 (180633600)
I0409 23:58:06.467991  6562 net.cpp:165] Memory required for data: 1473396736
I0409 23:58:06.468004  6562 layer_factory.hpp:77] Creating layer pool1
I0409 23:58:06.468020  6562 net.cpp:100] Creating Layer pool1
I0409 23:58:06.468027  6562 net.cpp:434] pool1 <- conv1
I0409 23:58:06.468039  6562 net.cpp:408] pool1 -> pool1
I0409 23:58:06.468098  6562 net.cpp:150] Setting up pool1
I0409 23:58:06.468114  6562 net.cpp:157] Top shape: 1024 100 21 21 (45158400)
I0409 23:58:06.468119  6562 net.cpp:165] Memory required for data: 1654030336
I0409 23:58:06.468125  6562 layer_factory.hpp:77] Creating layer conv2
I0409 23:58:06.468143  6562 net.cpp:100] Creating Layer conv2
I0409 23:58:06.468149  6562 net.cpp:434] conv2 <- pool1
I0409 23:58:06.468160  6562 net.cpp:408] conv2 -> conv2
I0409 23:58:06.473165  6562 net.cpp:150] Setting up conv2
I0409 23:58:06.473183  6562 net.cpp:157] Top shape: 1024 150 18 18 (49766400)
I0409 23:58:06.473189  6562 net.cpp:165] Memory required for data: 1853095936
I0409 23:58:06.473204  6562 layer_factory.hpp:77] Creating layer conv2_sTanH
I0409 23:58:06.473217  6562 net.cpp:100] Creating Layer conv2_sTanH
I0409 23:58:06.473224  6562 net.cpp:434] conv2_sTanH <- conv2
I0409 23:58:06.473237  6562 net.cpp:395] conv2_sTanH -> conv2 (in-place)
I0409 23:58:06.476521  6562 net.cpp:150] Setting up conv2_sTanH
I0409 23:58:06.476538  6562 net.cpp:157] Top shape: 1024 150 18 18 (49766400)
I0409 23:58:06.476544  6562 net.cpp:165] Memory required for data: 2052161536
I0409 23:58:06.476550  6562 layer_factory.hpp:77] Creating layer pool2
I0409 23:58:06.476563  6562 net.cpp:100] Creating Layer pool2
I0409 23:58:06.476570  6562 net.cpp:434] pool2 <- conv2
I0409 23:58:06.476579  6562 net.cpp:408] pool2 -> pool2
I0409 23:58:06.476642  6562 net.cpp:150] Setting up pool2
I0409 23:58:06.476655  6562 net.cpp:157] Top shape: 1024 150 9 9 (12441600)
I0409 23:58:06.476660  6562 net.cpp:165] Memory required for data: 2101927936
I0409 23:58:06.476665  6562 layer_factory.hpp:77] Creating layer conv3
I0409 23:58:06.476680  6562 net.cpp:100] Creating Layer conv3
I0409 23:58:06.476688  6562 net.cpp:434] conv3 <- pool2
I0409 23:58:06.476698  6562 net.cpp:408] conv3 -> conv3
I0409 23:58:06.482343  6562 net.cpp:150] Setting up conv3
I0409 23:58:06.482362  6562 net.cpp:157] Top shape: 1024 250 6 6 (9216000)
I0409 23:58:06.482372  6562 net.cpp:165] Memory required for data: 2138791936
I0409 23:58:06.482391  6562 layer_factory.hpp:77] Creating layer conv3_sTanH
I0409 23:58:06.482403  6562 net.cpp:100] Creating Layer conv3_sTanH
I0409 23:58:06.482410  6562 net.cpp:434] conv3_sTanH <- conv3
I0409 23:58:06.482419  6562 net.cpp:395] conv3_sTanH -> conv3 (in-place)
I0409 23:58:06.483376  6562 net.cpp:150] Setting up conv3_sTanH
I0409 23:58:06.483392  6562 net.cpp:157] Top shape: 1024 250 6 6 (9216000)
I0409 23:58:06.483419  6562 net.cpp:165] Memory required for data: 2175655936
I0409 23:58:06.483430  6562 layer_factory.hpp:77] Creating layer pool3
I0409 23:58:06.483441  6562 net.cpp:100] Creating Layer pool3
I0409 23:58:06.483448  6562 net.cpp:434] pool3 <- conv3
I0409 23:58:06.483460  6562 net.cpp:408] pool3 -> pool3
I0409 23:58:06.483526  6562 net.cpp:150] Setting up pool3
I0409 23:58:06.483538  6562 net.cpp:157] Top shape: 1024 250 3 3 (2304000)
I0409 23:58:06.483543  6562 net.cpp:165] Memory required for data: 2184871936
I0409 23:58:06.483548  6562 layer_factory.hpp:77] Creating layer fc4_300
I0409 23:58:06.483562  6562 net.cpp:100] Creating Layer fc4_300
I0409 23:58:06.483568  6562 net.cpp:434] fc4_300 <- pool3
I0409 23:58:06.483577  6562 net.cpp:408] fc4_300 -> fc4_300
I0409 23:58:06.490447  6562 net.cpp:150] Setting up fc4_300
I0409 23:58:06.490464  6562 net.cpp:157] Top shape: 1024 300 (307200)
I0409 23:58:06.490470  6562 net.cpp:165] Memory required for data: 2186100736
I0409 23:58:06.490481  6562 layer_factory.hpp:77] Creating layer fc4_sTanH
I0409 23:58:06.490495  6562 net.cpp:100] Creating Layer fc4_sTanH
I0409 23:58:06.490504  6562 net.cpp:434] fc4_sTanH <- fc4_300
I0409 23:58:06.490517  6562 net.cpp:395] fc4_sTanH -> fc4_300 (in-place)
I0409 23:58:06.490726  6562 net.cpp:150] Setting up fc4_sTanH
I0409 23:58:06.490743  6562 net.cpp:157] Top shape: 1024 300 (307200)
I0409 23:58:06.490748  6562 net.cpp:165] Memory required for data: 2187329536
I0409 23:58:06.490754  6562 layer_factory.hpp:77] Creating layer drop4
I0409 23:58:06.490764  6562 net.cpp:100] Creating Layer drop4
I0409 23:58:06.490772  6562 net.cpp:434] drop4 <- fc4_300
I0409 23:58:06.490779  6562 net.cpp:395] drop4 -> fc4_300 (in-place)
I0409 23:58:06.490819  6562 net.cpp:150] Setting up drop4
I0409 23:58:06.490829  6562 net.cpp:157] Top shape: 1024 300 (307200)
I0409 23:58:06.490834  6562 net.cpp:165] Memory required for data: 2188558336
I0409 23:58:06.490839  6562 layer_factory.hpp:77] Creating layer fc5_67
I0409 23:58:06.490852  6562 net.cpp:100] Creating Layer fc5_67
I0409 23:58:06.490859  6562 net.cpp:434] fc5_67 <- fc4_300
I0409 23:58:06.490867  6562 net.cpp:408] fc5_67 -> fc5_classes
I0409 23:58:06.491133  6562 net.cpp:150] Setting up fc5_67
I0409 23:58:06.491145  6562 net.cpp:157] Top shape: 1024 67 (68608)
I0409 23:58:06.491149  6562 net.cpp:165] Memory required for data: 2188832768
I0409 23:58:06.491164  6562 layer_factory.hpp:77] Creating layer fc5_classes_fc5_67_0_split
I0409 23:58:06.491178  6562 net.cpp:100] Creating Layer fc5_classes_fc5_67_0_split
I0409 23:58:06.491185  6562 net.cpp:434] fc5_classes_fc5_67_0_split <- fc5_classes
I0409 23:58:06.491204  6562 net.cpp:408] fc5_classes_fc5_67_0_split -> fc5_classes_fc5_67_0_split_0
I0409 23:58:06.491216  6562 net.cpp:408] fc5_classes_fc5_67_0_split -> fc5_classes_fc5_67_0_split_1
I0409 23:58:06.491238  6562 net.cpp:408] fc5_classes_fc5_67_0_split -> fc5_classes_fc5_67_0_split_2
I0409 23:58:06.491300  6562 net.cpp:150] Setting up fc5_classes_fc5_67_0_split
I0409 23:58:06.491310  6562 net.cpp:157] Top shape: 1024 67 (68608)
I0409 23:58:06.491317  6562 net.cpp:157] Top shape: 1024 67 (68608)
I0409 23:58:06.491322  6562 net.cpp:157] Top shape: 1024 67 (68608)
I0409 23:58:06.491328  6562 net.cpp:165] Memory required for data: 2189656064
I0409 23:58:06.491333  6562 layer_factory.hpp:77] Creating layer loss
I0409 23:58:06.491345  6562 net.cpp:100] Creating Layer loss
I0409 23:58:06.491351  6562 net.cpp:434] loss <- fc5_classes_fc5_67_0_split_0
I0409 23:58:06.491364  6562 net.cpp:434] loss <- label_data_1_split_0
I0409 23:58:06.491374  6562 net.cpp:408] loss -> loss
…
