…
I0402 01:25:29.995035 11370 net.cpp:322] The NetState phase (0) differed from the phase (1) specified by a rule in layer accuracy_5
I0402 01:25:29.995157 11370 net.cpp:58] Initializing net from parameters: 
state {
  phase: TRAIN
  level: 0
  stage: ""
}
layer {
  name: "data"
  type: "Data"
  top: "data"
  top: "label"
  include {
    phase: TRAIN
  }
  transform_param {
    mirror: false
    crop_size: 48
    mean_value: 132
    mean_value: 132
    mean_value: 131
  }
  data_param {
    source: "../local_data/lmdb/rtsd-r1/CoNorm/train/lmdb"
    batch_size: 512
    backend: LMDB
  }
}
layer {
  name: "conv1"
  type: "Convolution"
  bottom: "data"
  top: "conv1"
  convolution_param {
    num_output: 100
    pad: 0
    kernel_size: 7
    group: 1
    stride: 1
    weight_filler {
      type: "xavier"
    }
  }
}
layer {
  name: "conv1_relu"
  type: "ReLU"
  bottom: "conv1"
  top: "conv1"
}
layer {
  name: "pool1"
  type: "Pooling"
  bottom: "conv1"
  top: "pool1"
  pooling_param {
    pool: MAX
    kernel_size: 2
    stride: 2
  }
}
layer {
  name: "conv2"
  type: "Convolution"
  bottom: "pool1"
  top: "conv2"
  convolution_param {
    num_output: 150
    pad: 0
    kernel_size: 4
    group: 1
    stride: 1
    weight_filler {
      type: "xavier"
    }
  }
}
layer {
  name: "conv2_relu"
  type: "ReLU"
  bottom: "conv2"
  top: "conv2"
}
layer {
  name: "pool2"
  type: "Pooling"
  bottom: "conv2"
  top: "pool2"
  pooling_param {
    pool: MAX
    kernel_size: 2
    stride: 2
  }
}
layer {
  name: "conv3"
  type: "Convolution"
  bottom: "pool2"
  top: "conv3"
  convolution_param {
    num_output: 250
    pad: 0
    kernel_size: 4
    group: 1
    stride: 1
    weight_filler {
      type: "xavier"
    }
  }
}
layer {
  name: "conv3_relu"
  type: "ReLU"
  bottom: "conv3"
  top: "conv3"
}
layer {
  name: "pool3"
  type: "Pooling"
  bottom: "conv3"
  top: "pool3"
  pooling_param {
    pool: MAX
    kernel_size: 2
    stride: 2
  }
}
layer {
  name: "fc4_300"
  type: "InnerProduct"
  bottom: "pool3"
  top: "fc4_300"
  inner_product_param {
    num_output: 300
    weight_filler {
      type: "xavier"
    }
  }
}
layer {
  name: "fc4_relu"
  type: "ReLU"
  bottom: "fc4_300"
  top: "fc4_300"
}
layer {
  name: "drop4"
  type: "Dropout"
  bottom: "fc4_300"
  top: "fc4_300"
  dropout_param {
    dropout_ratio: 0.4
  }
}
layer {
  name: "fc5_67"
  type: "InnerProduct"
  bottom: "fc4_300"
  top: "fc5_classes"
  inner_product_param {
    num_output: 67
    weight_filler {
      type: "xavier"
    }
  }
}
layer {
  name: "loss"
  type: "SoftmaxWithLoss"
  bottom: "fc5_classes"
  bottom: "label"
  top: "loss"
}
I0402 01:25:29.995273 11370 layer_factory.hpp:77] Creating layer data
I0402 01:25:29.996230 11370 net.cpp:100] Creating Layer data
I0402 01:25:29.996260 11370 net.cpp:408] data -> data
I0402 01:25:29.996297 11370 net.cpp:408] data -> label
I0402 01:25:29.997956 11404 db_lmdb.cpp:35] Opened lmdb ../local_data/lmdb/rtsd-r1/CoNorm/train/lmdb
I0402 01:25:30.018110 11370 data_layer.cpp:41] output data size: 512,3,48,48
I0402 01:25:30.045614 11370 net.cpp:150] Setting up data
I0402 01:25:30.045661 11370 net.cpp:157] Top shape: 512 3 48 48 (3538944)
I0402 01:25:30.045672 11370 net.cpp:157] Top shape: 512 (512)
I0402 01:25:30.045678 11370 net.cpp:165] Memory required for data: 14157824
I0402 01:25:30.045722 11370 layer_factory.hpp:77] Creating layer conv1
I0402 01:25:30.045761 11370 net.cpp:100] Creating Layer conv1
I0402 01:25:30.045774 11370 net.cpp:434] conv1 <- data
I0402 01:25:30.045796 11370 net.cpp:408] conv1 -> conv1
I0402 01:25:30.325507 11370 net.cpp:150] Setting up conv1
I0402 01:25:30.325541 11370 net.cpp:157] Top shape: 512 100 42 42 (90316800)
I0402 01:25:30.325547 11370 net.cpp:165] Memory required for data: 375425024
I0402 01:25:30.325577 11370 layer_factory.hpp:77] Creating layer conv1_relu
I0402 01:25:30.325597 11370 net.cpp:100] Creating Layer conv1_relu
I0402 01:25:30.325605 11370 net.cpp:434] conv1_relu <- conv1
I0402 01:25:30.325616 11370 net.cpp:395] conv1_relu -> conv1 (in-place)
I0402 01:25:30.325817 11370 net.cpp:150] Setting up conv1_relu
I0402 01:25:30.325832 11370 net.cpp:157] Top shape: 512 100 42 42 (90316800)
I0402 01:25:30.325839 11370 net.cpp:165] Memory required for data: 736692224
I0402 01:25:30.325844 11370 layer_factory.hpp:77] Creating layer pool1
I0402 01:25:30.325855 11370 net.cpp:100] Creating Layer pool1
I0402 01:25:30.325862 11370 net.cpp:434] pool1 <- conv1
I0402 01:25:30.325871 11370 net.cpp:408] pool1 -> pool1
I0402 01:25:30.325935 11370 net.cpp:150] Setting up pool1
I0402 01:25:30.325948 11370 net.cpp:157] Top shape: 512 100 21 21 (22579200)
I0402 01:25:30.325953 11370 net.cpp:165] Memory required for data: 827009024
I0402 01:25:30.325959 11370 layer_factory.hpp:77] Creating layer conv2
I0402 01:25:30.325976 11370 net.cpp:100] Creating Layer conv2
I0402 01:25:30.325984 11370 net.cpp:434] conv2 <- pool1
I0402 01:25:30.325992 11370 net.cpp:408] conv2 -> conv2
I0402 01:25:30.330355 11370 net.cpp:150] Setting up conv2
I0402 01:25:30.330375 11370 net.cpp:157] Top shape: 512 150 18 18 (24883200)
I0402 01:25:30.330381 11370 net.cpp:165] Memory required for data: 926541824
I0402 01:25:30.330397 11370 layer_factory.hpp:77] Creating layer conv2_relu
I0402 01:25:30.330425 11370 net.cpp:100] Creating Layer conv2_relu
I0402 01:25:30.330431 11370 net.cpp:434] conv2_relu <- conv2
I0402 01:25:30.330440 11370 net.cpp:395] conv2_relu -> conv2 (in-place)
I0402 01:25:30.331194 11370 net.cpp:150] Setting up conv2_relu
I0402 01:25:30.331212 11370 net.cpp:157] Top shape: 512 150 18 18 (24883200)
I0402 01:25:30.331218 11370 net.cpp:165] Memory required for data: 1026074624
I0402 01:25:30.331223 11370 layer_factory.hpp:77] Creating layer pool2
I0402 01:25:30.331238 11370 net.cpp:100] Creating Layer pool2
I0402 01:25:30.331245 11370 net.cpp:434] pool2 <- conv2
I0402 01:25:30.331254 11370 net.cpp:408] pool2 -> pool2
I0402 01:25:30.331307 11370 net.cpp:150] Setting up pool2
I0402 01:25:30.331318 11370 net.cpp:157] Top shape: 512 150 9 9 (6220800)
I0402 01:25:30.331324 11370 net.cpp:165] Memory required for data: 1050957824
I0402 01:25:30.331329 11370 layer_factory.hpp:77] Creating layer conv3
I0402 01:25:30.331348 11370 net.cpp:100] Creating Layer conv3
I0402 01:25:30.331357 11370 net.cpp:434] conv3 <- pool2
I0402 01:25:30.331365 11370 net.cpp:408] conv3 -> conv3
I0402 01:25:30.336935 11370 net.cpp:150] Setting up conv3
I0402 01:25:30.336953 11370 net.cpp:157] Top shape: 512 250 6 6 (4608000)
I0402 01:25:30.336961 11370 net.cpp:165] Memory required for data: 1069389824
I0402 01:25:30.336987 11370 layer_factory.hpp:77] Creating layer conv3_relu
I0402 01:25:30.337000 11370 net.cpp:100] Creating Layer conv3_relu
I0402 01:25:30.337009 11370 net.cpp:434] conv3_relu <- conv3
I0402 01:25:30.337018 11370 net.cpp:395] conv3_relu -> conv3 (in-place)
I0402 01:25:30.337780 11370 net.cpp:150] Setting up conv3_relu
I0402 01:25:30.337798 11370 net.cpp:157] Top shape: 512 250 6 6 (4608000)
I0402 01:25:30.337803 11370 net.cpp:165] Memory required for data: 1087821824
I0402 01:25:30.337810 11370 layer_factory.hpp:77] Creating layer pool3
I0402 01:25:30.337821 11370 net.cpp:100] Creating Layer pool3
I0402 01:25:30.337828 11370 net.cpp:434] pool3 <- conv3
I0402 01:25:30.337837 11370 net.cpp:408] pool3 -> pool3
I0402 01:25:30.337898 11370 net.cpp:150] Setting up pool3
I0402 01:25:30.337924 11370 net.cpp:157] Top shape: 512 250 3 3 (1152000)
I0402 01:25:30.337930 11370 net.cpp:165] Memory required for data: 1092429824
I0402 01:25:30.337935 11370 layer_factory.hpp:77] Creating layer fc4_300
I0402 01:25:30.337946 11370 net.cpp:100] Creating Layer fc4_300
I0402 01:25:30.337954 11370 net.cpp:434] fc4_300 <- pool3
I0402 01:25:30.337962 11370 net.cpp:408] fc4_300 -> fc4_300
I0402 01:25:30.345458 11370 net.cpp:150] Setting up fc4_300
I0402 01:25:30.345508 11370 net.cpp:157] Top shape: 512 300 (153600)
I0402 01:25:30.345530 11370 net.cpp:165] Memory required for data: 1093044224
I0402 01:25:30.345556 11370 layer_factory.hpp:77] Creating layer fc4_relu
I0402 01:25:30.345579 11370 net.cpp:100] Creating Layer fc4_relu
I0402 01:25:30.345599 11370 net.cpp:434] fc4_relu <- fc4_300
I0402 01:25:30.345620 11370 net.cpp:395] fc4_relu -> fc4_300 (in-place)
I0402 01:25:30.345890 11370 net.cpp:150] Setting up fc4_relu
I0402 01:25:30.345923 11370 net.cpp:157] Top shape: 512 300 (153600)
I0402 01:25:30.345942 11370 net.cpp:165] Memory required for data: 1093658624
I0402 01:25:30.345960 11370 layer_factory.hpp:77] Creating layer drop4
I0402 01:25:30.345983 11370 net.cpp:100] Creating Layer drop4
I0402 01:25:30.346001 11370 net.cpp:434] drop4 <- fc4_300
I0402 01:25:30.346024 11370 net.cpp:395] drop4 -> fc4_300 (in-place)
I0402 01:25:30.346084 11370 net.cpp:150] Setting up drop4
I0402 01:25:30.346112 11370 net.cpp:157] Top shape: 512 300 (153600)
I0402 01:25:30.346130 11370 net.cpp:165] Memory required for data: 1094273024
I0402 01:25:30.346148 11370 layer_factory.hpp:77] Creating layer fc5_67
I0402 01:25:30.346171 11370 net.cpp:100] Creating Layer fc5_67
I0402 01:25:30.346190 11370 net.cpp:434] fc5_67 <- fc4_300
I0402 01:25:30.346211 11370 net.cpp:408] fc5_67 -> fc5_classes
I0402 01:25:30.348078 11370 net.cpp:150] Setting up fc5_67
I0402 01:25:30.348119 11370 net.cpp:157] Top shape: 512 67 (34304)
I0402 01:25:30.348140 11370 net.cpp:165] Memory required for data: 1094410240
I0402 01:25:30.348188 11370 layer_factory.hpp:77] Creating layer loss
I0402 01:25:30.348217 11370 net.cpp:100] Creating Layer loss
I0402 01:25:30.348247 11370 net.cpp:434] loss <- fc5_classes
I0402 01:25:30.348275 11370 net.cpp:434] loss <- label
I0402 01:25:30.348304 11370 net.cpp:408] loss -> loss
I0402 01:25:30.348343 11370 layer_factory.hpp:77] Creating layer loss
…
I0402 01:25:30.349537 11370 solver.cpp:193] Creating test net (#0) specified by test_net file: ./Prototxt/rtsd-r1/CoNorm/test.prototxt
I0402 01:25:30.349810 11370 net.cpp:58] Initializing net from parameters: 
state {
  phase: TEST
}
layer {
  name: "data"
  type: "Data"
  top: "data"
  top: "label"
  include {
    phase: TEST
  }
  transform_param {
    mirror: false
    crop_size: 48
    mean_value: 133
    mean_value: 133
    mean_value: 132
  }
  data_param {
    source: "../local_data/lmdb/rtsd-r1/CoNorm/test/lmdb"
    batch_size: 512
    backend: LMDB
  }
}
layer {
  name: "conv1"
  type: "Convolution"
  bottom: "data"
  top: "conv1"
  convolution_param {
    num_output: 100
    pad: 0
    kernel_size: 7
    group: 1
    stride: 1
    weight_filler {
      type: "xavier"
    }
  }
}
layer {
  name: "conv1_relu"
  type: "ReLU"
  bottom: "conv1"
  top: "conv1"
}
layer {
  name: "pool1"
  type: "Pooling"
  bottom: "conv1"
  top: "pool1"
  pooling_param {
    pool: MAX
    kernel_size: 2
    stride: 2
  }
}
layer {
  name: "conv2"
  type: "Convolution"
  bottom: "pool1"
  top: "conv2"
  convolution_param {
    num_output: 150
    pad: 0
    kernel_size: 4
    group: 1
    stride: 1
    weight_filler {
      type: "xavier"
    }
  }
}
layer {
  name: "conv2_relu"
  type: "ReLU"
  bottom: "conv2"
  top: "conv2"
}
layer {
  name: "pool2"
  type: "Pooling"
  bottom: "conv2"
  top: "pool2"
  pooling_param {
    pool: MAX
    kernel_size: 2
    stride: 2
  }
}
layer {
  name: "conv3"
  type: "Convolution"
  bottom: "pool2"
  top: "conv3"
  convolution_param {
    num_output: 250
    pad: 0
    kernel_size: 4
    group: 1
    stride: 1
    weight_filler {
      type: "xavier"
    }
  }
}
layer {
  name: "conv3_relu"
  type: "ReLU"
  bottom: "conv3"
  top: "conv3"
}
layer {
  name: "pool3"
  type: "Pooling"
  bottom: "conv3"
  top: "pool3"
  pooling_param {
    pool: MAX
    kernel_size: 2
    stride: 2
  }
}
layer {
  name: "fc4_300"
  type: "InnerProduct"
  bottom: "pool3"
  top: "fc4_300"
  inner_product_param {
    num_output: 300
    weight_filler {
      type: "xavier"
    }
  }
}
layer {
  name: "fc4_relu"
  type: "ReLU"
  bottom: "fc4_300"
  top: "fc4_300"
}
layer {
  name: "drop4"
  type: "Dropout"
  bottom: "fc4_300"
  top: "fc4_300"
  dropout_param {
    dropout_ratio: 0.4
  }
}
layer {
  name: "fc5_67"
  type: "InnerProduct"
  bottom: "fc4_300"
  top: "fc5_classes"
  inner_product_param {
    num_output: 67
    weight_filler {
      type: "xavier"
    }
  }
}
layer {
  name: "loss"
  type: "SoftmaxWithLoss"
  bottom: "fc5_classes"
  bottom: "label"
  top: "loss"
}
layer {
  name: "accuracy_1"
  type: "Accuracy"
  bottom: "fc5_classes"
  bottom: "label"
  top: "accuracy_1"
  include {
    phase: TEST
  }
  accuracy_param {
    top_k: 1
  }
}
layer {
  name: "accuracy_5"
  type: "Accuracy"
  bottom: "fc5_classes"
  bottom: "label"
  top: "accuracy_5"
  include {
    phase: TEST
  }
  accuracy_param {
    top_k: 5
  }
}
I0402 01:25:30.350066 11370 layer_factory.hpp:77] Creating layer data
I0402 01:25:30.350571 11370 net.cpp:100] Creating Layer data
I0402 01:25:30.350606 11370 net.cpp:408] data -> data
I0402 01:25:30.350636 11370 net.cpp:408] data -> label
I0402 01:25:30.352721 11406 db_lmdb.cpp:35] Opened lmdb ../local_data/lmdb/rtsd-r1/CoNorm/test/lmdb
I0402 01:25:30.352921 11370 data_layer.cpp:41] output data size: 512,3,48,48
I0402 01:25:30.382081 11370 net.cpp:150] Setting up data
I0402 01:25:30.382165 11370 net.cpp:157] Top shape: 512 3 48 48 (3538944)
I0402 01:25:30.382290 11370 net.cpp:157] Top shape: 512 (512)
I0402 01:25:30.382315 11370 net.cpp:165] Memory required for data: 14157824
I0402 01:25:30.382339 11370 layer_factory.hpp:77] Creating layer label_data_1_split
I0402 01:25:30.382370 11370 net.cpp:100] Creating Layer label_data_1_split
I0402 01:25:30.382391 11370 net.cpp:434] label_data_1_split <- label
I0402 01:25:30.382416 11370 net.cpp:408] label_data_1_split -> label_data_1_split_0
I0402 01:25:30.383239 11370 net.cpp:408] label_data_1_split -> label_data_1_split_1
I0402 01:25:30.383268 11370 net.cpp:408] label_data_1_split -> label_data_1_split_2
I0402 01:25:30.384032 11370 net.cpp:150] Setting up label_data_1_split
I0402 01:25:30.384076 11370 net.cpp:157] Top shape: 512 (512)
I0402 01:25:30.384111 11370 net.cpp:157] Top shape: 512 (512)
I0402 01:25:30.384132 11370 net.cpp:157] Top shape: 512 (512)
I0402 01:25:30.384150 11370 net.cpp:165] Memory required for data: 14163968
I0402 01:25:30.384167 11370 layer_factory.hpp:77] Creating layer conv1
I0402 01:25:30.384201 11370 net.cpp:100] Creating Layer conv1
I0402 01:25:30.384222 11370 net.cpp:434] conv1 <- data
I0402 01:25:30.384258 11370 net.cpp:408] conv1 -> conv1
I0402 01:25:30.394989 11370 net.cpp:150] Setting up conv1
I0402 01:25:30.395066 11370 net.cpp:157] Top shape: 512 100 42 42 (90316800)
I0402 01:25:30.395087 11370 net.cpp:165] Memory required for data: 375431168
I0402 01:25:30.395122 11370 layer_factory.hpp:77] Creating layer conv1_relu
I0402 01:25:30.395148 11370 net.cpp:100] Creating Layer conv1_relu
I0402 01:25:30.395169 11370 net.cpp:434] conv1_relu <- conv1
I0402 01:25:30.395191 11370 net.cpp:395] conv1_relu -> conv1 (in-place)
I0402 01:25:30.395483 11370 net.cpp:150] Setting up conv1_relu
I0402 01:25:30.395519 11370 net.cpp:157] Top shape: 512 100 42 42 (90316800)
I0402 01:25:30.395546 11370 net.cpp:165] Memory required for data: 736698368
I0402 01:25:30.395565 11370 layer_factory.hpp:77] Creating layer pool1
I0402 01:25:30.395593 11370 net.cpp:100] Creating Layer pool1
I0402 01:25:30.395614 11370 net.cpp:434] pool1 <- conv1
I0402 01:25:30.395637 11370 net.cpp:408] pool1 -> pool1
I0402 01:25:30.395721 11370 net.cpp:150] Setting up pool1
I0402 01:25:30.395754 11370 net.cpp:157] Top shape: 512 100 21 21 (22579200)
I0402 01:25:30.395773 11370 net.cpp:165] Memory required for data: 827015168
I0402 01:25:30.395792 11370 layer_factory.hpp:77] Creating layer conv2
I0402 01:25:30.395822 11370 net.cpp:100] Creating Layer conv2
I0402 01:25:30.395843 11370 net.cpp:434] conv2 <- pool1
I0402 01:25:30.395864 11370 net.cpp:408] conv2 -> conv2
I0402 01:25:30.409994 11370 net.cpp:150] Setting up conv2
I0402 01:25:30.410491 11370 net.cpp:157] Top shape: 512 150 18 18 (24883200)
I0402 01:25:30.410528 11370 net.cpp:165] Memory required for data: 926547968
I0402 01:25:30.410573 11370 layer_factory.hpp:77] Creating layer conv2_relu
I0402 01:25:30.410604 11370 net.cpp:100] Creating Layer conv2_relu
I0402 01:25:30.410637 11370 net.cpp:434] conv2_relu <- conv2
I0402 01:25:30.410666 11370 net.cpp:395] conv2_relu -> conv2 (in-place)
I0402 01:25:30.411880 11370 net.cpp:150] Setting up conv2_relu
I0402 01:25:30.412022 11370 net.cpp:157] Top shape: 512 150 18 18 (24883200)
I0402 01:25:30.412055 11370 net.cpp:165] Memory required for data: 1026080768
I0402 01:25:30.412076 11370 layer_factory.hpp:77] Creating layer pool2
I0402 01:25:30.412101 11370 net.cpp:100] Creating Layer pool2
I0402 01:25:30.412138 11370 net.cpp:434] pool2 <- conv2
I0402 01:25:30.412168 11370 net.cpp:408] pool2 -> pool2
I0402 01:25:30.412304 11370 net.cpp:150] Setting up pool2
I0402 01:25:30.412339 11370 net.cpp:157] Top shape: 512 150 9 9 (6220800)
I0402 01:25:30.412358 11370 net.cpp:165] Memory required for data: 1050963968
I0402 01:25:30.412377 11370 layer_factory.hpp:77] Creating layer conv3
I0402 01:25:30.412411 11370 net.cpp:100] Creating Layer conv3
I0402 01:25:30.412433 11370 net.cpp:434] conv3 <- pool2
I0402 01:25:30.412459 11370 net.cpp:408] conv3 -> conv3
I0402 01:25:30.422549 11370 net.cpp:150] Setting up conv3
I0402 01:25:30.422637 11370 net.cpp:157] Top shape: 512 250 6 6 (4608000)
I0402 01:25:30.422662 11370 net.cpp:165] Memory required for data: 1069395968
I0402 01:25:30.422700 11370 layer_factory.hpp:77] Creating layer conv3_relu
I0402 01:25:30.422730 11370 net.cpp:100] Creating Layer conv3_relu
I0402 01:25:30.422752 11370 net.cpp:434] conv3_relu <- conv3
I0402 01:25:30.422776 11370 net.cpp:395] conv3_relu -> conv3 (in-place)
I0402 01:25:30.423995 11370 net.cpp:150] Setting up conv3_relu
I0402 01:25:30.424042 11370 net.cpp:157] Top shape: 512 250 6 6 (4608000)
I0402 01:25:30.424063 11370 net.cpp:165] Memory required for data: 1087827968
I0402 01:25:30.424083 11370 layer_factory.hpp:77] Creating layer pool3
I0402 01:25:30.424118 11370 net.cpp:100] Creating Layer pool3
I0402 01:25:30.424154 11370 net.cpp:434] pool3 <- conv3
I0402 01:25:30.424180 11370 net.cpp:408] pool3 -> pool3
I0402 01:25:30.424288 11370 net.cpp:150] Setting up pool3
I0402 01:25:30.424322 11370 net.cpp:157] Top shape: 512 250 3 3 (1152000)
I0402 01:25:30.424340 11370 net.cpp:165] Memory required for data: 1092435968
I0402 01:25:30.424360 11370 layer_factory.hpp:77] Creating layer fc4_300
I0402 01:25:30.424386 11370 net.cpp:100] Creating Layer fc4_300
I0402 01:25:30.424407 11370 net.cpp:434] fc4_300 <- pool3
I0402 01:25:30.424428 11370 net.cpp:408] fc4_300 -> fc4_300
I0402 01:25:30.434392 11370 net.cpp:150] Setting up fc4_300
I0402 01:25:30.448272 11370 net.cpp:157] Top shape: 512 300 (153600)
I0402 01:25:30.448326 11370 net.cpp:165] Memory required for data: 1093050368
I0402 01:25:30.448357 11370 layer_factory.hpp:77] Creating layer fc4_relu
I0402 01:25:30.448391 11370 net.cpp:100] Creating Layer fc4_relu
I0402 01:25:30.448415 11370 net.cpp:434] fc4_relu <- fc4_300
I0402 01:25:30.448438 11370 net.cpp:395] fc4_relu -> fc4_300 (in-place)
I0402 01:25:30.448832 11370 net.cpp:150] Setting up fc4_relu
I0402 01:25:30.448870 11370 net.cpp:157] Top shape: 512 300 (153600)
I0402 01:25:30.448891 11370 net.cpp:165] Memory required for data: 1093664768
I0402 01:25:30.448909 11370 layer_factory.hpp:77] Creating layer drop4
I0402 01:25:30.448933 11370 net.cpp:100] Creating Layer drop4
I0402 01:25:30.448952 11370 net.cpp:434] drop4 <- fc4_300
I0402 01:25:30.448973 11370 net.cpp:395] drop4 -> fc4_300 (in-place)
I0402 01:25:30.449051 11370 net.cpp:150] Setting up drop4
I0402 01:25:30.449079 11370 net.cpp:157] Top shape: 512 300 (153600)
I0402 01:25:30.449098 11370 net.cpp:165] Memory required for data: 1094279168
I0402 01:25:30.449116 11370 layer_factory.hpp:77] Creating layer fc5_67
I0402 01:25:30.449141 11370 net.cpp:100] Creating Layer fc5_67
I0402 01:25:30.449163 11370 net.cpp:434] fc5_67 <- fc4_300
I0402 01:25:30.449184 11370 net.cpp:408] fc5_67 -> fc5_classes
I0402 01:25:30.449627 11370 net.cpp:150] Setting up fc5_67
I0402 01:25:30.449662 11370 net.cpp:157] Top shape: 512 67 (34304)
I0402 01:25:30.449681 11370 net.cpp:165] Memory required for data: 1094416384
I0402 01:25:30.449710 11370 layer_factory.hpp:77] Creating layer fc5_classes_fc5_67_0_split
I0402 01:25:30.449734 11370 net.cpp:100] Creating Layer fc5_classes_fc5_67_0_split
I0402 01:25:30.449753 11370 net.cpp:434] fc5_classes_fc5_67_0_split <- fc5_classes
I0402 01:25:30.449779 11370 net.cpp:408] fc5_classes_fc5_67_0_split -> fc5_classes_fc5_67_0_split_0
I0402 01:25:30.449805 11370 net.cpp:408] fc5_classes_fc5_67_0_split -> fc5_classes_fc5_67_0_split_1
I0402 01:25:30.449829 11370 net.cpp:408] fc5_classes_fc5_67_0_split -> fc5_classes_fc5_67_0_split_2
I0402 01:25:30.449928 11370 net.cpp:150] Setting up fc5_classes_fc5_67_0_split
I0402 01:25:30.449954 11370 net.cpp:157] Top shape: 512 67 (34304)
I0402 01:25:30.449975 11370 net.cpp:157] Top shape: 512 67 (34304)
I0402 01:25:30.449992 11370 net.cpp:157] Top shape: 512 67 (34304)
I0402 01:25:30.450011 11370 net.cpp:165] Memory required for data: 1094828032
I0402 01:25:30.450028 11370 layer_factory.hpp:77] Creating layer loss
I0402 01:25:30.450057 11370 net.cpp:100] Creating Layer loss
I0402 01:25:30.450078 11370 net.cpp:434] loss <- fc5_classes_fc5_67_0_split_0
I0402 01:25:30.450098 11370 net.cpp:434] loss <- label_data_1_split_0
I0402 01:25:30.450119 11370 net.cpp:408] loss -> loss
…
