…
I0402 01:49:53.538553 22272 net.cpp:322] The NetState phase (0) differed from the phase (1) specified by a rule in layer accuracy_5
I0402 01:49:53.538666 22272 net.cpp:58] Initializing net from parameters: 
state {
  phase: TRAIN
  level: 0
  stage: ""
}
layer {
  name: "data"
  type: "Data"
  top: "data"
  top: "label"
  include {
    phase: TRAIN
  }
  transform_param {
    mirror: false
    crop_size: 48
    mean_value: 132
    mean_value: 132
    mean_value: 131
  }
  data_param {
    source: "../local_data/lmdb/rtsd-r1/CoNorm/train/lmdb"
    batch_size: 512
    backend: LMDB
  }
}
layer {
  name: "conv1"
  type: "Convolution"
  bottom: "data"
  top: "conv1"
  convolution_param {
    num_output: 100
    pad: 0
    kernel_size: 7
    group: 1
    stride: 1
    weight_filler {
      type: "xavier"
    }
  }
}
layer {
  name: "conv1_relu"
  type: "ReLU"
  bottom: "conv1"
  top: "conv1"
}
layer {
  name: "pool1"
  type: "Pooling"
  bottom: "conv1"
  top: "pool1"
  pooling_param {
    pool: MAX
    kernel_size: 2
    stride: 2
  }
}
layer {
  name: "conv2"
  type: "Convolution"
  bottom: "pool1"
  top: "conv2"
  convolution_param {
    num_output: 150
    pad: 0
    kernel_size: 4
    group: 1
    stride: 1
    weight_filler {
      type: "xavier"
    }
  }
}
layer {
  name: "conv2_relu"
  type: "ReLU"
  bottom: "conv2"
  top: "conv2"
}
layer {
  name: "pool2"
  type: "Pooling"
  bottom: "conv2"
  top: "pool2"
  pooling_param {
    pool: MAX
    kernel_size: 2
    stride: 2
  }
}
layer {
  name: "conv3"
  type: "Convolution"
  bottom: "pool2"
  top: "conv3"
  convolution_param {
    num_output: 250
    pad: 0
    kernel_size: 4
    group: 1
    stride: 1
    weight_filler {
      type: "xavier"
    }
  }
}
layer {
  name: "conv3_relu"
  type: "ReLU"
  bottom: "conv3"
  top: "conv3"
}
layer {
  name: "pool3"
  type: "Pooling"
  bottom: "conv3"
  top: "pool3"
  pooling_param {
    pool: MAX
    kernel_size: 2
    stride: 2
  }
}
layer {
  name: "fc4_300"
  type: "InnerProduct"
  bottom: "pool3"
  top: "fc4_300"
  inner_product_param {
    num_output: 300
    weight_filler {
      type: "xavier"
    }
  }
}
layer {
  name: "fc4_relu"
  type: "ReLU"
  bottom: "fc4_300"
  top: "fc4_300"
}
layer {
  name: "drop4"
  type: "Dropout"
  bottom: "fc4_300"
  top: "fc4_300"
  dropout_param {
    dropout_ratio: 0.4
  }
}
layer {
  name: "fc5_67"
  type: "InnerProduct"
  bottom: "fc4_300"
  top: "fc5_classes"
  inner_product_param {
    num_output: 67
    weight_filler {
      type: "xavier"
    }
  }
}
layer {
  name: "loss"
  type: "SoftmaxWithLoss"
  bottom: "fc5_classes"
  bottom: "label"
  top: "loss"
}
I0402 01:49:53.538749 22272 layer_factory.hpp:77] Creating layer data
I0402 01:49:53.539664 22272 net.cpp:100] Creating Layer data
I0402 01:49:53.539690 22272 net.cpp:408] data -> data
I0402 01:49:53.539715 22272 net.cpp:408] data -> label
I0402 01:49:53.541473 22306 db_lmdb.cpp:35] Opened lmdb ../local_data/lmdb/rtsd-r1/CoNorm/train/lmdb
I0402 01:49:53.561987 22272 data_layer.cpp:41] output data size: 512,3,48,48
I0402 01:49:53.588129 22272 net.cpp:150] Setting up data
I0402 01:49:53.588168 22272 net.cpp:157] Top shape: 512 3 48 48 (3538944)
I0402 01:49:53.588176 22272 net.cpp:157] Top shape: 512 (512)
I0402 01:49:53.588186 22272 net.cpp:165] Memory required for data: 14157824
I0402 01:49:53.588222 22272 layer_factory.hpp:77] Creating layer conv1
I0402 01:49:53.588258 22272 net.cpp:100] Creating Layer conv1
I0402 01:49:53.588266 22272 net.cpp:434] conv1 <- data
I0402 01:49:53.588284 22272 net.cpp:408] conv1 -> conv1
I0402 01:49:53.888733 22272 net.cpp:150] Setting up conv1
I0402 01:49:53.888769 22272 net.cpp:157] Top shape: 512 100 42 42 (90316800)
I0402 01:49:53.888773 22272 net.cpp:165] Memory required for data: 375425024
I0402 01:49:53.888799 22272 layer_factory.hpp:77] Creating layer conv1_relu
I0402 01:49:53.888813 22272 net.cpp:100] Creating Layer conv1_relu
I0402 01:49:53.888821 22272 net.cpp:434] conv1_relu <- conv1
I0402 01:49:53.888828 22272 net.cpp:395] conv1_relu -> conv1 (in-place)
I0402 01:49:53.889052 22272 net.cpp:150] Setting up conv1_relu
I0402 01:49:53.889065 22272 net.cpp:157] Top shape: 512 100 42 42 (90316800)
I0402 01:49:53.889070 22272 net.cpp:165] Memory required for data: 736692224
I0402 01:49:53.889075 22272 layer_factory.hpp:77] Creating layer pool1
I0402 01:49:53.889082 22272 net.cpp:100] Creating Layer pool1
I0402 01:49:53.889087 22272 net.cpp:434] pool1 <- conv1
I0402 01:49:53.889093 22272 net.cpp:408] pool1 -> pool1
I0402 01:49:53.889156 22272 net.cpp:150] Setting up pool1
I0402 01:49:53.889165 22272 net.cpp:157] Top shape: 512 100 21 21 (22579200)
I0402 01:49:53.889168 22272 net.cpp:165] Memory required for data: 827009024
I0402 01:49:53.889173 22272 layer_factory.hpp:77] Creating layer conv2
I0402 01:49:53.889184 22272 net.cpp:100] Creating Layer conv2
I0402 01:49:53.889190 22272 net.cpp:434] conv2 <- pool1
I0402 01:49:53.889196 22272 net.cpp:408] conv2 -> conv2
I0402 01:49:53.894107 22272 net.cpp:150] Setting up conv2
I0402 01:49:53.894142 22272 net.cpp:157] Top shape: 512 150 18 18 (24883200)
I0402 01:49:53.894146 22272 net.cpp:165] Memory required for data: 926541824
I0402 01:49:53.894160 22272 layer_factory.hpp:77] Creating layer conv2_relu
I0402 01:49:53.894170 22272 net.cpp:100] Creating Layer conv2_relu
I0402 01:49:53.894174 22272 net.cpp:434] conv2_relu <- conv2
I0402 01:49:53.894181 22272 net.cpp:395] conv2_relu -> conv2 (in-place)
I0402 01:49:53.895037 22272 net.cpp:150] Setting up conv2_relu
I0402 01:49:53.895054 22272 net.cpp:157] Top shape: 512 150 18 18 (24883200)
I0402 01:49:53.895058 22272 net.cpp:165] Memory required for data: 1026074624
I0402 01:49:53.895062 22272 layer_factory.hpp:77] Creating layer pool2
I0402 01:49:53.895071 22272 net.cpp:100] Creating Layer pool2
I0402 01:49:53.895074 22272 net.cpp:434] pool2 <- conv2
I0402 01:49:53.895081 22272 net.cpp:408] pool2 -> pool2
I0402 01:49:53.895133 22272 net.cpp:150] Setting up pool2
I0402 01:49:53.895141 22272 net.cpp:157] Top shape: 512 150 9 9 (6220800)
I0402 01:49:53.895145 22272 net.cpp:165] Memory required for data: 1050957824
I0402 01:49:53.895148 22272 layer_factory.hpp:77] Creating layer conv3
I0402 01:49:53.895159 22272 net.cpp:100] Creating Layer conv3
I0402 01:49:53.895164 22272 net.cpp:434] conv3 <- pool2
I0402 01:49:53.895169 22272 net.cpp:408] conv3 -> conv3
I0402 01:49:53.901484 22272 net.cpp:150] Setting up conv3
I0402 01:49:53.901517 22272 net.cpp:157] Top shape: 512 250 6 6 (4608000)
I0402 01:49:53.901521 22272 net.cpp:165] Memory required for data: 1069389824
I0402 01:49:53.901536 22272 layer_factory.hpp:77] Creating layer conv3_relu
I0402 01:49:53.901548 22272 net.cpp:100] Creating Layer conv3_relu
I0402 01:49:53.901553 22272 net.cpp:434] conv3_relu <- conv3
I0402 01:49:53.901561 22272 net.cpp:395] conv3_relu -> conv3 (in-place)
I0402 01:49:53.902499 22272 net.cpp:150] Setting up conv3_relu
I0402 01:49:53.902516 22272 net.cpp:157] Top shape: 512 250 6 6 (4608000)
I0402 01:49:53.902520 22272 net.cpp:165] Memory required for data: 1087821824
I0402 01:49:53.902524 22272 layer_factory.hpp:77] Creating layer pool3
I0402 01:49:53.902539 22272 net.cpp:100] Creating Layer pool3
I0402 01:49:53.902544 22272 net.cpp:434] pool3 <- conv3
I0402 01:49:53.902549 22272 net.cpp:408] pool3 -> pool3
I0402 01:49:53.902607 22272 net.cpp:150] Setting up pool3
I0402 01:49:53.902640 22272 net.cpp:157] Top shape: 512 250 3 3 (1152000)
I0402 01:49:53.902645 22272 net.cpp:165] Memory required for data: 1092429824
I0402 01:49:53.902649 22272 layer_factory.hpp:77] Creating layer fc4_300
I0402 01:49:53.902657 22272 net.cpp:100] Creating Layer fc4_300
I0402 01:49:53.902662 22272 net.cpp:434] fc4_300 <- pool3
I0402 01:49:53.902668 22272 net.cpp:408] fc4_300 -> fc4_300
I0402 01:49:53.908685 22272 net.cpp:150] Setting up fc4_300
I0402 01:49:53.908717 22272 net.cpp:157] Top shape: 512 300 (153600)
I0402 01:49:53.908721 22272 net.cpp:165] Memory required for data: 1093044224
I0402 01:49:53.908731 22272 layer_factory.hpp:77] Creating layer fc4_relu
I0402 01:49:53.908741 22272 net.cpp:100] Creating Layer fc4_relu
I0402 01:49:53.908746 22272 net.cpp:434] fc4_relu <- fc4_300
I0402 01:49:53.908752 22272 net.cpp:395] fc4_relu -> fc4_300 (in-place)
I0402 01:49:53.908999 22272 net.cpp:150] Setting up fc4_relu
I0402 01:49:53.909011 22272 net.cpp:157] Top shape: 512 300 (153600)
I0402 01:49:53.909015 22272 net.cpp:165] Memory required for data: 1093658624
I0402 01:49:53.909018 22272 layer_factory.hpp:77] Creating layer drop4
I0402 01:49:53.909026 22272 net.cpp:100] Creating Layer drop4
I0402 01:49:53.909030 22272 net.cpp:434] drop4 <- fc4_300
I0402 01:49:53.909036 22272 net.cpp:395] drop4 -> fc4_300 (in-place)
I0402 01:49:53.909070 22272 net.cpp:150] Setting up drop4
I0402 01:49:53.909076 22272 net.cpp:157] Top shape: 512 300 (153600)
I0402 01:49:53.909080 22272 net.cpp:165] Memory required for data: 1094273024
I0402 01:49:53.909082 22272 layer_factory.hpp:77] Creating layer fc5_67
I0402 01:49:53.909090 22272 net.cpp:100] Creating Layer fc5_67
I0402 01:49:53.909096 22272 net.cpp:434] fc5_67 <- fc4_300
I0402 01:49:53.909101 22272 net.cpp:408] fc5_67 -> fc5_classes
I0402 01:49:53.910560 22272 net.cpp:150] Setting up fc5_67
I0402 01:49:53.910576 22272 net.cpp:157] Top shape: 512 67 (34304)
I0402 01:49:53.910580 22272 net.cpp:165] Memory required for data: 1094410240
I0402 01:49:53.910593 22272 layer_factory.hpp:77] Creating layer loss
I0402 01:49:53.910600 22272 net.cpp:100] Creating Layer loss
I0402 01:49:53.910604 22272 net.cpp:434] loss <- fc5_classes
I0402 01:49:53.910609 22272 net.cpp:434] loss <- label
I0402 01:49:53.910622 22272 net.cpp:408] loss -> loss
I0402 01:49:53.910639 22272 layer_factory.hpp:77] Creating layer loss
…
I0402 01:49:53.911322 22272 solver.cpp:193] Creating test net (#0) specified by test_net file: ./Prototxt/rtsd-r1/CoNorm/test.prototxt
I0402 01:49:53.911484 22272 net.cpp:58] Initializing net from parameters: 
state {
  phase: TEST
}
layer {
  name: "data"
  type: "Data"
  top: "data"
  top: "label"
  include {
    phase: TEST
  }
  transform_param {
    mirror: false
    crop_size: 48
    mean_value: 133
    mean_value: 133
    mean_value: 132
  }
  data_param {
    source: "../local_data/lmdb/rtsd-r1/CoNorm/test/lmdb"
    batch_size: 512
    backend: LMDB
  }
}
layer {
  name: "conv1"
  type: "Convolution"
  bottom: "data"
  top: "conv1"
  convolution_param {
    num_output: 100
    pad: 0
    kernel_size: 7
    group: 1
    stride: 1
    weight_filler {
      type: "xavier"
    }
  }
}
layer {
  name: "conv1_relu"
  type: "ReLU"
  bottom: "conv1"
  top: "conv1"
}
layer {
  name: "pool1"
  type: "Pooling"
  bottom: "conv1"
  top: "pool1"
  pooling_param {
    pool: MAX
    kernel_size: 2
    stride: 2
  }
}
layer {
  name: "conv2"
  type: "Convolution"
  bottom: "pool1"
  top: "conv2"
  convolution_param {
    num_output: 150
    pad: 0
    kernel_size: 4
    group: 1
    stride: 1
    weight_filler {
      type: "xavier"
    }
  }
}
layer {
  name: "conv2_relu"
  type: "ReLU"
  bottom: "conv2"
  top: "conv2"
}
layer {
  name: "pool2"
  type: "Pooling"
  bottom: "conv2"
  top: "pool2"
  pooling_param {
    pool: MAX
    kernel_size: 2
    stride: 2
  }
}
layer {
  name: "conv3"
  type: "Convolution"
  bottom: "pool2"
  top: "conv3"
  convolution_param {
    num_output: 250
    pad: 0
    kernel_size: 4
    group: 1
    stride: 1
    weight_filler {
      type: "xavier"
    }
  }
}
layer {
  name: "conv3_relu"
  type: "ReLU"
  bottom: "conv3"
  top: "conv3"
}
layer {
  name: "pool3"
  type: "Pooling"
  bottom: "conv3"
  top: "pool3"
  pooling_param {
    pool: MAX
    kernel_size: 2
    stride: 2
  }
}
layer {
  name: "fc4_300"
  type: "InnerProduct"
  bottom: "pool3"
  top: "fc4_300"
  inner_product_param {
    num_output: 300
    weight_filler {
      type: "xavier"
    }
  }
}
layer {
  name: "fc4_relu"
  type: "ReLU"
  bottom: "fc4_300"
  top: "fc4_300"
}
layer {
  name: "drop4"
  type: "Dropout"
  bottom: "fc4_300"
  top: "fc4_300"
  dropout_param {
    dropout_ratio: 0.4
  }
}
layer {
  name: "fc5_67"
  type: "InnerProduct"
  bottom: "fc4_300"
  top: "fc5_classes"
  inner_product_param {
    num_output: 67
    weight_filler {
      type: "xavier"
    }
  }
}
layer {
  name: "loss"
  type: "SoftmaxWithLoss"
  bottom: "fc5_classes"
  bottom: "label"
  top: "loss"
}
layer {
  name: "accuracy_1"
  type: "Accuracy"
  bottom: "fc5_classes"
  bottom: "label"
  top: "accuracy_1"
  include {
    phase: TEST
  }
  accuracy_param {
    top_k: 1
  }
}
layer {
  name: "accuracy_5"
  type: "Accuracy"
  bottom: "fc5_classes"
  bottom: "label"
  top: "accuracy_5"
  include {
    phase: TEST
  }
  accuracy_param {
    top_k: 5
  }
}
I0402 01:49:53.911573 22272 layer_factory.hpp:77] Creating layer data
I0402 01:49:53.911965 22272 net.cpp:100] Creating Layer data
I0402 01:49:53.911978 22272 net.cpp:408] data -> data
I0402 01:49:53.911988 22272 net.cpp:408] data -> label
I0402 01:49:53.913269 22308 db_lmdb.cpp:35] Opened lmdb ../local_data/lmdb/rtsd-r1/CoNorm/test/lmdb
I0402 01:49:53.913444 22272 data_layer.cpp:41] output data size: 512,3,48,48
I0402 01:49:53.936637 22272 net.cpp:150] Setting up data
I0402 01:49:53.936667 22272 net.cpp:157] Top shape: 512 3 48 48 (3538944)
I0402 01:49:53.936673 22272 net.cpp:157] Top shape: 512 (512)
I0402 01:49:53.936676 22272 net.cpp:165] Memory required for data: 14157824
I0402 01:49:53.936682 22272 layer_factory.hpp:77] Creating layer label_data_1_split
I0402 01:49:53.936697 22272 net.cpp:100] Creating Layer label_data_1_split
I0402 01:49:53.936700 22272 net.cpp:434] label_data_1_split <- label
I0402 01:49:53.936709 22272 net.cpp:408] label_data_1_split -> label_data_1_split_0
I0402 01:49:53.936722 22272 net.cpp:408] label_data_1_split -> label_data_1_split_1
I0402 01:49:53.936730 22272 net.cpp:408] label_data_1_split -> label_data_1_split_2
I0402 01:49:53.936900 22272 net.cpp:150] Setting up label_data_1_split
I0402 01:49:53.936926 22272 net.cpp:157] Top shape: 512 (512)
I0402 01:49:53.936931 22272 net.cpp:157] Top shape: 512 (512)
I0402 01:49:53.936934 22272 net.cpp:157] Top shape: 512 (512)
I0402 01:49:53.936938 22272 net.cpp:165] Memory required for data: 14163968
I0402 01:49:53.936940 22272 layer_factory.hpp:77] Creating layer conv1
I0402 01:49:53.936954 22272 net.cpp:100] Creating Layer conv1
I0402 01:49:53.936959 22272 net.cpp:434] conv1 <- data
I0402 01:49:53.936970 22272 net.cpp:408] conv1 -> conv1
I0402 01:49:53.939807 22272 net.cpp:150] Setting up conv1
I0402 01:49:53.939827 22272 net.cpp:157] Top shape: 512 100 42 42 (90316800)
I0402 01:49:53.939831 22272 net.cpp:165] Memory required for data: 375431168
I0402 01:49:53.939844 22272 layer_factory.hpp:77] Creating layer conv1_relu
I0402 01:49:53.939854 22272 net.cpp:100] Creating Layer conv1_relu
I0402 01:49:53.939857 22272 net.cpp:434] conv1_relu <- conv1
I0402 01:49:53.939874 22272 net.cpp:395] conv1_relu -> conv1 (in-place)
I0402 01:49:53.940079 22272 net.cpp:150] Setting up conv1_relu
I0402 01:49:53.940090 22272 net.cpp:157] Top shape: 512 100 42 42 (90316800)
I0402 01:49:53.940093 22272 net.cpp:165] Memory required for data: 736698368
I0402 01:49:53.940096 22272 layer_factory.hpp:77] Creating layer pool1
I0402 01:49:53.940106 22272 net.cpp:100] Creating Layer pool1
I0402 01:49:53.940114 22272 net.cpp:434] pool1 <- conv1
I0402 01:49:53.940119 22272 net.cpp:408] pool1 -> pool1
I0402 01:49:53.940170 22272 net.cpp:150] Setting up pool1
I0402 01:49:53.940177 22272 net.cpp:157] Top shape: 512 100 21 21 (22579200)
I0402 01:49:53.940181 22272 net.cpp:165] Memory required for data: 827015168
I0402 01:49:53.940183 22272 layer_factory.hpp:77] Creating layer conv2
I0402 01:49:53.940192 22272 net.cpp:100] Creating Layer conv2
I0402 01:49:53.940196 22272 net.cpp:434] conv2 <- pool1
I0402 01:49:53.940203 22272 net.cpp:408] conv2 -> conv2
I0402 01:49:53.943212 22272 net.cpp:150] Setting up conv2
I0402 01:49:53.943233 22272 net.cpp:157] Top shape: 512 150 18 18 (24883200)
I0402 01:49:53.943235 22272 net.cpp:165] Memory required for data: 926547968
I0402 01:49:53.943246 22272 layer_factory.hpp:77] Creating layer conv2_relu
I0402 01:49:53.943253 22272 net.cpp:100] Creating Layer conv2_relu
I0402 01:49:53.943256 22272 net.cpp:434] conv2_relu <- conv2
I0402 01:49:53.943264 22272 net.cpp:395] conv2_relu -> conv2 (in-place)
I0402 01:49:53.944030 22272 net.cpp:150] Setting up conv2_relu
I0402 01:49:53.944046 22272 net.cpp:157] Top shape: 512 150 18 18 (24883200)
I0402 01:49:53.944048 22272 net.cpp:165] Memory required for data: 1026080768
I0402 01:49:53.944052 22272 layer_factory.hpp:77] Creating layer pool2
I0402 01:49:53.944058 22272 net.cpp:100] Creating Layer pool2
I0402 01:49:53.944062 22272 net.cpp:434] pool2 <- conv2
I0402 01:49:53.944070 22272 net.cpp:408] pool2 -> pool2
I0402 01:49:53.944123 22272 net.cpp:150] Setting up pool2
I0402 01:49:53.944133 22272 net.cpp:157] Top shape: 512 150 9 9 (6220800)
I0402 01:49:53.944136 22272 net.cpp:165] Memory required for data: 1050963968
I0402 01:49:53.944139 22272 layer_factory.hpp:77] Creating layer conv3
I0402 01:49:53.944150 22272 net.cpp:100] Creating Layer conv3
I0402 01:49:53.944154 22272 net.cpp:434] conv3 <- pool2
I0402 01:49:53.944159 22272 net.cpp:408] conv3 -> conv3
I0402 01:49:53.949823 22272 net.cpp:150] Setting up conv3
I0402 01:49:53.949844 22272 net.cpp:157] Top shape: 512 250 6 6 (4608000)
I0402 01:49:53.949849 22272 net.cpp:165] Memory required for data: 1069395968
I0402 01:49:53.949863 22272 layer_factory.hpp:77] Creating layer conv3_relu
I0402 01:49:53.949870 22272 net.cpp:100] Creating Layer conv3_relu
I0402 01:49:53.949874 22272 net.cpp:434] conv3_relu <- conv3
I0402 01:49:53.949880 22272 net.cpp:395] conv3_relu -> conv3 (in-place)
I0402 01:49:53.950675 22272 net.cpp:150] Setting up conv3_relu
I0402 01:49:53.950691 22272 net.cpp:157] Top shape: 512 250 6 6 (4608000)
I0402 01:49:53.950712 22272 net.cpp:165] Memory required for data: 1087827968
I0402 01:49:53.950716 22272 layer_factory.hpp:77] Creating layer pool3
I0402 01:49:53.950723 22272 net.cpp:100] Creating Layer pool3
I0402 01:49:53.950744 22272 net.cpp:434] pool3 <- conv3
I0402 01:49:53.950752 22272 net.cpp:408] pool3 -> pool3
I0402 01:49:53.950808 22272 net.cpp:150] Setting up pool3
I0402 01:49:53.950816 22272 net.cpp:157] Top shape: 512 250 3 3 (1152000)
I0402 01:49:53.950819 22272 net.cpp:165] Memory required for data: 1092435968
I0402 01:49:53.950821 22272 layer_factory.hpp:77] Creating layer fc4_300
I0402 01:49:53.950830 22272 net.cpp:100] Creating Layer fc4_300
I0402 01:49:53.950834 22272 net.cpp:434] fc4_300 <- pool3
I0402 01:49:53.950839 22272 net.cpp:408] fc4_300 -> fc4_300
I0402 01:49:53.956301 22272 net.cpp:150] Setting up fc4_300
I0402 01:49:53.956322 22272 net.cpp:157] Top shape: 512 300 (153600)
I0402 01:49:53.956326 22272 net.cpp:165] Memory required for data: 1093050368
I0402 01:49:53.956334 22272 layer_factory.hpp:77] Creating layer fc4_relu
I0402 01:49:53.956341 22272 net.cpp:100] Creating Layer fc4_relu
I0402 01:49:53.956347 22272 net.cpp:434] fc4_relu <- fc4_300
I0402 01:49:53.956353 22272 net.cpp:395] fc4_relu -> fc4_300 (in-place)
I0402 01:49:53.956568 22272 net.cpp:150] Setting up fc4_relu
I0402 01:49:53.956580 22272 net.cpp:157] Top shape: 512 300 (153600)
I0402 01:49:53.956583 22272 net.cpp:165] Memory required for data: 1093664768
I0402 01:49:53.956586 22272 layer_factory.hpp:77] Creating layer drop4
I0402 01:49:53.956595 22272 net.cpp:100] Creating Layer drop4
I0402 01:49:53.956598 22272 net.cpp:434] drop4 <- fc4_300
I0402 01:49:53.956604 22272 net.cpp:395] drop4 -> fc4_300 (in-place)
I0402 01:49:53.956634 22272 net.cpp:150] Setting up drop4
I0402 01:49:53.956641 22272 net.cpp:157] Top shape: 512 300 (153600)
I0402 01:49:53.956643 22272 net.cpp:165] Memory required for data: 1094279168
I0402 01:49:53.956656 22272 layer_factory.hpp:77] Creating layer fc5_67
I0402 01:49:53.956663 22272 net.cpp:100] Creating Layer fc5_67
I0402 01:49:53.956667 22272 net.cpp:434] fc5_67 <- fc4_300
I0402 01:49:53.956673 22272 net.cpp:408] fc5_67 -> fc5_classes
I0402 01:49:53.956930 22272 net.cpp:150] Setting up fc5_67
I0402 01:49:53.956939 22272 net.cpp:157] Top shape: 512 67 (34304)
I0402 01:49:53.956943 22272 net.cpp:165] Memory required for data: 1094416384
I0402 01:49:53.956954 22272 layer_factory.hpp:77] Creating layer fc5_classes_fc5_67_0_split
I0402 01:49:53.956961 22272 net.cpp:100] Creating Layer fc5_classes_fc5_67_0_split
I0402 01:49:53.956964 22272 net.cpp:434] fc5_classes_fc5_67_0_split <- fc5_classes
I0402 01:49:53.956970 22272 net.cpp:408] fc5_classes_fc5_67_0_split -> fc5_classes_fc5_67_0_split_0
I0402 01:49:53.956977 22272 net.cpp:408] fc5_classes_fc5_67_0_split -> fc5_classes_fc5_67_0_split_1
I0402 01:49:53.956984 22272 net.cpp:408] fc5_classes_fc5_67_0_split -> fc5_classes_fc5_67_0_split_2
I0402 01:49:53.957037 22272 net.cpp:150] Setting up fc5_classes_fc5_67_0_split
I0402 01:49:53.957046 22272 net.cpp:157] Top shape: 512 67 (34304)
I0402 01:49:53.957056 22272 net.cpp:157] Top shape: 512 67 (34304)
I0402 01:49:53.957059 22272 net.cpp:157] Top shape: 512 67 (34304)
I0402 01:49:53.957062 22272 net.cpp:165] Memory required for data: 1094828032
I0402 01:49:53.957065 22272 layer_factory.hpp:77] Creating layer loss
I0402 01:49:53.957077 22272 net.cpp:100] Creating Layer loss
I0402 01:49:53.957079 22272 net.cpp:434] loss <- fc5_classes_fc5_67_0_split_0
I0402 01:49:53.957084 22272 net.cpp:434] loss <- label_data_1_split_0
I0402 01:49:53.957089 22272 net.cpp:408] loss -> loss
…
