…
I0402 02:11:44.376667 26352 net.cpp:322] The NetState phase (0) differed from the phase (1) specified by a rule in layer accuracy_5
I0402 02:11:44.376772 26352 net.cpp:58] Initializing net from parameters: 
state {
  phase: TRAIN
  level: 0
  stage: ""
}
layer {
  name: "data"
  type: "Data"
  top: "data"
  top: "label"
  include {
    phase: TRAIN
  }
  transform_param {
    mirror: false
    crop_size: 48
    mean_value: 132
    mean_value: 132
    mean_value: 131
  }
  data_param {
    source: "../local_data/lmdb/rtsd-r1/CoNorm/train/lmdb"
    batch_size: 1024
    backend: LMDB
  }
}
layer {
  name: "conv1"
  type: "Convolution"
  bottom: "data"
  top: "conv1"
  convolution_param {
    num_output: 100
    pad: 0
    kernel_size: 7
    group: 1
    stride: 1
    weight_filler {
      type: "xavier"
    }
  }
}
layer {
  name: "conv1_relu"
  type: "ReLU"
  bottom: "conv1"
  top: "conv1"
}
layer {
  name: "pool1"
  type: "Pooling"
  bottom: "conv1"
  top: "pool1"
  pooling_param {
    pool: MAX
    kernel_size: 2
    stride: 2
  }
}
layer {
  name: "conv2"
  type: "Convolution"
  bottom: "pool1"
  top: "conv2"
  convolution_param {
    num_output: 150
    pad: 0
    kernel_size: 4
    group: 1
    stride: 1
    weight_filler {
      type: "xavier"
    }
  }
}
layer {
  name: "conv2_relu"
  type: "ReLU"
  bottom: "conv2"
  top: "conv2"
}
layer {
  name: "pool2"
  type: "Pooling"
  bottom: "conv2"
  top: "pool2"
  pooling_param {
    pool: MAX
    kernel_size: 2
    stride: 2
  }
}
layer {
  name: "conv3"
  type: "Convolution"
  bottom: "pool2"
  top: "conv3"
  convolution_param {
    num_output: 250
    pad: 0
    kernel_size: 4
    group: 1
    stride: 1
    weight_filler {
      type: "xavier"
    }
  }
}
layer {
  name: "conv3_relu"
  type: "ReLU"
  bottom: "conv3"
  top: "conv3"
}
layer {
  name: "pool3"
  type: "Pooling"
  bottom: "conv3"
  top: "pool3"
  pooling_param {
    pool: MAX
    kernel_size: 2
    stride: 2
  }
}
layer {
  name: "fc4_300"
  type: "InnerProduct"
  bottom: "pool3"
  top: "fc4_300"
  inner_product_param {
    num_output: 300
    weight_filler {
      type: "xavier"
    }
  }
}
layer {
  name: "fc4_relu"
  type: "ReLU"
  bottom: "fc4_300"
  top: "fc4_300"
}
layer {
  name: "drop4"
  type: "Dropout"
  bottom: "fc4_300"
  top: "fc4_300"
  dropout_param {
    dropout_ratio: 0.4
  }
}
layer {
  name: "fc5_67"
  type: "InnerProduct"
  bottom: "fc4_300"
  top: "fc5_classes"
  inner_product_param {
    num_output: 67
    weight_filler {
      type: "xavier"
    }
  }
}
layer {
  name: "loss"
  type: "SoftmaxWithLoss"
  bottom: "fc5_classes"
  bottom: "label"
  top: "loss"
}
I0402 02:11:44.376844 26352 layer_factory.hpp:77] Creating layer data
I0402 02:11:44.377935 26352 net.cpp:100] Creating Layer data
I0402 02:11:44.377961 26352 net.cpp:408] data -> data
I0402 02:11:44.377995 26352 net.cpp:408] data -> label
I0402 02:11:44.379566 26398 db_lmdb.cpp:35] Opened lmdb ../local_data/lmdb/rtsd-r1/CoNorm/train/lmdb
I0402 02:11:44.395869 26352 data_layer.cpp:41] output data size: 1024,3,48,48
I0402 02:11:44.437041 26352 net.cpp:150] Setting up data
I0402 02:11:44.437073 26352 net.cpp:157] Top shape: 1024 3 48 48 (7077888)
I0402 02:11:44.437078 26352 net.cpp:157] Top shape: 1024 (1024)
I0402 02:11:44.437081 26352 net.cpp:165] Memory required for data: 28315648
I0402 02:11:44.437125 26352 layer_factory.hpp:77] Creating layer conv1
I0402 02:11:44.437160 26352 net.cpp:100] Creating Layer conv1
I0402 02:11:44.437173 26352 net.cpp:434] conv1 <- data
I0402 02:11:44.437187 26352 net.cpp:408] conv1 -> conv1
I0402 02:11:44.702201 26352 net.cpp:150] Setting up conv1
I0402 02:11:44.702232 26352 net.cpp:157] Top shape: 1024 100 42 42 (180633600)
I0402 02:11:44.702236 26352 net.cpp:165] Memory required for data: 750850048
I0402 02:11:44.702272 26352 layer_factory.hpp:77] Creating layer conv1_relu
I0402 02:11:44.702287 26352 net.cpp:100] Creating Layer conv1_relu
I0402 02:11:44.702292 26352 net.cpp:434] conv1_relu <- conv1
I0402 02:11:44.702298 26352 net.cpp:395] conv1_relu -> conv1 (in-place)
I0402 02:11:44.702486 26352 net.cpp:150] Setting up conv1_relu
I0402 02:11:44.702498 26352 net.cpp:157] Top shape: 1024 100 42 42 (180633600)
I0402 02:11:44.702502 26352 net.cpp:165] Memory required for data: 1473384448
I0402 02:11:44.702505 26352 layer_factory.hpp:77] Creating layer pool1
I0402 02:11:44.702512 26352 net.cpp:100] Creating Layer pool1
I0402 02:11:44.702515 26352 net.cpp:434] pool1 <- conv1
I0402 02:11:44.702520 26352 net.cpp:408] pool1 -> pool1
I0402 02:11:44.702572 26352 net.cpp:150] Setting up pool1
I0402 02:11:44.702580 26352 net.cpp:157] Top shape: 1024 100 21 21 (45158400)
I0402 02:11:44.702584 26352 net.cpp:165] Memory required for data: 1654018048
I0402 02:11:44.702586 26352 layer_factory.hpp:77] Creating layer conv2
I0402 02:11:44.702599 26352 net.cpp:100] Creating Layer conv2
I0402 02:11:44.702603 26352 net.cpp:434] conv2 <- pool1
I0402 02:11:44.702610 26352 net.cpp:408] conv2 -> conv2
I0402 02:11:44.706863 26352 net.cpp:150] Setting up conv2
I0402 02:11:44.706881 26352 net.cpp:157] Top shape: 1024 150 18 18 (49766400)
I0402 02:11:44.706887 26352 net.cpp:165] Memory required for data: 1853083648
I0402 02:11:44.706895 26352 layer_factory.hpp:77] Creating layer conv2_relu
I0402 02:11:44.706903 26352 net.cpp:100] Creating Layer conv2_relu
I0402 02:11:44.706908 26352 net.cpp:434] conv2_relu <- conv2
I0402 02:11:44.706913 26352 net.cpp:395] conv2_relu -> conv2 (in-place)
I0402 02:11:44.707672 26352 net.cpp:150] Setting up conv2_relu
I0402 02:11:44.707687 26352 net.cpp:157] Top shape: 1024 150 18 18 (49766400)
I0402 02:11:44.707692 26352 net.cpp:165] Memory required for data: 2052149248
I0402 02:11:44.707696 26352 layer_factory.hpp:77] Creating layer pool2
I0402 02:11:44.707703 26352 net.cpp:100] Creating Layer pool2
I0402 02:11:44.707708 26352 net.cpp:434] pool2 <- conv2
I0402 02:11:44.707715 26352 net.cpp:408] pool2 -> pool2
I0402 02:11:44.707758 26352 net.cpp:150] Setting up pool2
I0402 02:11:44.707767 26352 net.cpp:157] Top shape: 1024 150 9 9 (12441600)
I0402 02:11:44.707769 26352 net.cpp:165] Memory required for data: 2101915648
I0402 02:11:44.707772 26352 layer_factory.hpp:77] Creating layer conv3
I0402 02:11:44.707782 26352 net.cpp:100] Creating Layer conv3
I0402 02:11:44.707785 26352 net.cpp:434] conv3 <- pool2
I0402 02:11:44.707792 26352 net.cpp:408] conv3 -> conv3
I0402 02:11:44.713260 26352 net.cpp:150] Setting up conv3
I0402 02:11:44.713276 26352 net.cpp:157] Top shape: 1024 250 6 6 (9216000)
I0402 02:11:44.713280 26352 net.cpp:165] Memory required for data: 2138779648
I0402 02:11:44.713291 26352 layer_factory.hpp:77] Creating layer conv3_relu
I0402 02:11:44.713299 26352 net.cpp:100] Creating Layer conv3_relu
I0402 02:11:44.713302 26352 net.cpp:434] conv3_relu <- conv3
I0402 02:11:44.713307 26352 net.cpp:395] conv3_relu -> conv3 (in-place)
I0402 02:11:44.714120 26352 net.cpp:150] Setting up conv3_relu
I0402 02:11:44.714135 26352 net.cpp:157] Top shape: 1024 250 6 6 (9216000)
I0402 02:11:44.714138 26352 net.cpp:165] Memory required for data: 2175643648
I0402 02:11:44.714143 26352 layer_factory.hpp:77] Creating layer pool3
I0402 02:11:44.714148 26352 net.cpp:100] Creating Layer pool3
I0402 02:11:44.714153 26352 net.cpp:434] pool3 <- conv3
I0402 02:11:44.714159 26352 net.cpp:408] pool3 -> pool3
I0402 02:11:44.714220 26352 net.cpp:150] Setting up pool3
I0402 02:11:44.714246 26352 net.cpp:157] Top shape: 1024 250 3 3 (2304000)
I0402 02:11:44.714251 26352 net.cpp:165] Memory required for data: 2184859648
I0402 02:11:44.714254 26352 layer_factory.hpp:77] Creating layer fc4_300
I0402 02:11:44.714262 26352 net.cpp:100] Creating Layer fc4_300
I0402 02:11:44.714264 26352 net.cpp:434] fc4_300 <- pool3
I0402 02:11:44.714270 26352 net.cpp:408] fc4_300 -> fc4_300
I0402 02:11:44.719554 26352 net.cpp:150] Setting up fc4_300
I0402 02:11:44.719573 26352 net.cpp:157] Top shape: 1024 300 (307200)
I0402 02:11:44.719576 26352 net.cpp:165] Memory required for data: 2186088448
I0402 02:11:44.719583 26352 layer_factory.hpp:77] Creating layer fc4_relu
I0402 02:11:44.719588 26352 net.cpp:100] Creating Layer fc4_relu
I0402 02:11:44.719593 26352 net.cpp:434] fc4_relu <- fc4_300
I0402 02:11:44.719597 26352 net.cpp:395] fc4_relu -> fc4_300 (in-place)
I0402 02:11:44.719804 26352 net.cpp:150] Setting up fc4_relu
I0402 02:11:44.719815 26352 net.cpp:157] Top shape: 1024 300 (307200)
I0402 02:11:44.719818 26352 net.cpp:165] Memory required for data: 2187317248
I0402 02:11:44.719821 26352 layer_factory.hpp:77] Creating layer drop4
I0402 02:11:44.719828 26352 net.cpp:100] Creating Layer drop4
I0402 02:11:44.719832 26352 net.cpp:434] drop4 <- fc4_300
I0402 02:11:44.719838 26352 net.cpp:395] drop4 -> fc4_300 (in-place)
I0402 02:11:44.719871 26352 net.cpp:150] Setting up drop4
I0402 02:11:44.719880 26352 net.cpp:157] Top shape: 1024 300 (307200)
I0402 02:11:44.719885 26352 net.cpp:165] Memory required for data: 2188546048
I0402 02:11:44.719888 26352 layer_factory.hpp:77] Creating layer fc5_67
I0402 02:11:44.719895 26352 net.cpp:100] Creating Layer fc5_67
I0402 02:11:44.719898 26352 net.cpp:434] fc5_67 <- fc4_300
I0402 02:11:44.719903 26352 net.cpp:408] fc5_67 -> fc5_classes
I0402 02:11:44.721146 26352 net.cpp:150] Setting up fc5_67
I0402 02:11:44.721163 26352 net.cpp:157] Top shape: 1024 67 (68608)
I0402 02:11:44.721165 26352 net.cpp:165] Memory required for data: 2188820480
I0402 02:11:44.721176 26352 layer_factory.hpp:77] Creating layer loss
I0402 02:11:44.721184 26352 net.cpp:100] Creating Layer loss
I0402 02:11:44.721187 26352 net.cpp:434] loss <- fc5_classes
I0402 02:11:44.721191 26352 net.cpp:434] loss <- label
I0402 02:11:44.721197 26352 net.cpp:408] loss -> loss
I0402 02:11:44.721211 26352 layer_factory.hpp:77] Creating layer loss
…
I0402 02:11:44.721863 26352 solver.cpp:193] Creating test net (#0) specified by test_net file: ./Prototxt/rtsd-r1/CoNorm/test.prototxt
I0402 02:11:44.722004 26352 net.cpp:58] Initializing net from parameters: 
state {
  phase: TEST
}
layer {
  name: "data"
  type: "Data"
  top: "data"
  top: "label"
  include {
    phase: TEST
  }
  transform_param {
    mirror: false
    crop_size: 48
    mean_value: 133
    mean_value: 133
    mean_value: 132
  }
  data_param {
    source: "../local_data/lmdb/rtsd-r1/CoNorm/test/lmdb"
    batch_size: 1024
    backend: LMDB
  }
}
layer {
  name: "conv1"
  type: "Convolution"
  bottom: "data"
  top: "conv1"
  convolution_param {
    num_output: 100
    pad: 0
    kernel_size: 7
    group: 1
    stride: 1
    weight_filler {
      type: "xavier"
    }
  }
}
layer {
  name: "conv1_relu"
  type: "ReLU"
  bottom: "conv1"
  top: "conv1"
}
layer {
  name: "pool1"
  type: "Pooling"
  bottom: "conv1"
  top: "pool1"
  pooling_param {
    pool: MAX
    kernel_size: 2
    stride: 2
  }
}
layer {
  name: "conv2"
  type: "Convolution"
  bottom: "pool1"
  top: "conv2"
  convolution_param {
    num_output: 150
    pad: 0
    kernel_size: 4
    group: 1
    stride: 1
    weight_filler {
      type: "xavier"
    }
  }
}
layer {
  name: "conv2_relu"
  type: "ReLU"
  bottom: "conv2"
  top: "conv2"
}
layer {
  name: "pool2"
  type: "Pooling"
  bottom: "conv2"
  top: "pool2"
  pooling_param {
    pool: MAX
    kernel_size: 2
    stride: 2
  }
}
layer {
  name: "conv3"
  type: "Convolution"
  bottom: "pool2"
  top: "conv3"
  convolution_param {
    num_output: 250
    pad: 0
    kernel_size: 4
    group: 1
    stride: 1
    weight_filler {
      type: "xavier"
    }
  }
}
layer {
  name: "conv3_relu"
  type: "ReLU"
  bottom: "conv3"
  top: "conv3"
}
layer {
  name: "pool3"
  type: "Pooling"
  bottom: "conv3"
  top: "pool3"
  pooling_param {
    pool: MAX
    kernel_size: 2
    stride: 2
  }
}
layer {
  name: "fc4_300"
  type: "InnerProduct"
  bottom: "pool3"
  top: "fc4_300"
  inner_product_param {
    num_output: 300
    weight_filler {
      type: "xavier"
    }
  }
}
layer {
  name: "fc4_relu"
  type: "ReLU"
  bottom: "fc4_300"
  top: "fc4_300"
}
layer {
  name: "drop4"
  type: "Dropout"
  bottom: "fc4_300"
  top: "fc4_300"
  dropout_param {
    dropout_ratio: 0.4
  }
}
layer {
  name: "fc5_67"
  type: "InnerProduct"
  bottom: "fc4_300"
  top: "fc5_classes"
  inner_product_param {
    num_output: 67
    weight_filler {
      type: "xavier"
    }
  }
}
layer {
  name: "loss"
  type: "SoftmaxWithLoss"
  bottom: "fc5_classes"
  bottom: "label"
  top: "loss"
}
layer {
  name: "accuracy_1"
  type: "Accuracy"
  bottom: "fc5_classes"
  bottom: "label"
  top: "accuracy_1"
  include {
    phase: TEST
  }
  accuracy_param {
    top_k: 1
  }
}
layer {
  name: "accuracy_5"
  type: "Accuracy"
  bottom: "fc5_classes"
  bottom: "label"
  top: "accuracy_5"
  include {
    phase: TEST
  }
  accuracy_param {
    top_k: 5
  }
}
I0402 02:11:44.722100 26352 layer_factory.hpp:77] Creating layer data
I0402 02:11:44.722777 26352 net.cpp:100] Creating Layer data
I0402 02:11:44.722791 26352 net.cpp:408] data -> data
I0402 02:11:44.722800 26352 net.cpp:408] data -> label
I0402 02:11:44.724228 26411 db_lmdb.cpp:35] Opened lmdb ../local_data/lmdb/rtsd-r1/CoNorm/test/lmdb
I0402 02:11:44.724473 26352 data_layer.cpp:41] output data size: 1024,3,48,48
I0402 02:11:44.764876 26352 net.cpp:150] Setting up data
I0402 02:11:44.764901 26352 net.cpp:157] Top shape: 1024 3 48 48 (7077888)
I0402 02:11:44.764907 26352 net.cpp:157] Top shape: 1024 (1024)
I0402 02:11:44.764910 26352 net.cpp:165] Memory required for data: 28315648
I0402 02:11:44.764917 26352 layer_factory.hpp:77] Creating layer label_data_1_split
I0402 02:11:44.764931 26352 net.cpp:100] Creating Layer label_data_1_split
I0402 02:11:44.764935 26352 net.cpp:434] label_data_1_split <- label
I0402 02:11:44.764945 26352 net.cpp:408] label_data_1_split -> label_data_1_split_0
I0402 02:11:44.764958 26352 net.cpp:408] label_data_1_split -> label_data_1_split_1
I0402 02:11:44.764967 26352 net.cpp:408] label_data_1_split -> label_data_1_split_2
I0402 02:11:44.765097 26352 net.cpp:150] Setting up label_data_1_split
I0402 02:11:44.765121 26352 net.cpp:157] Top shape: 1024 (1024)
I0402 02:11:44.765126 26352 net.cpp:157] Top shape: 1024 (1024)
I0402 02:11:44.765130 26352 net.cpp:157] Top shape: 1024 (1024)
I0402 02:11:44.765132 26352 net.cpp:165] Memory required for data: 28327936
I0402 02:11:44.765136 26352 layer_factory.hpp:77] Creating layer conv1
I0402 02:11:44.765148 26352 net.cpp:100] Creating Layer conv1
I0402 02:11:44.765153 26352 net.cpp:434] conv1 <- data
I0402 02:11:44.765159 26352 net.cpp:408] conv1 -> conv1
I0402 02:11:44.767236 26352 net.cpp:150] Setting up conv1
I0402 02:11:44.767254 26352 net.cpp:157] Top shape: 1024 100 42 42 (180633600)
I0402 02:11:44.767258 26352 net.cpp:165] Memory required for data: 750862336
I0402 02:11:44.767271 26352 layer_factory.hpp:77] Creating layer conv1_relu
I0402 02:11:44.767277 26352 net.cpp:100] Creating Layer conv1_relu
I0402 02:11:44.767282 26352 net.cpp:434] conv1_relu <- conv1
I0402 02:11:44.767288 26352 net.cpp:395] conv1_relu -> conv1 (in-place)
I0402 02:11:44.767484 26352 net.cpp:150] Setting up conv1_relu
I0402 02:11:44.767496 26352 net.cpp:157] Top shape: 1024 100 42 42 (180633600)
I0402 02:11:44.767499 26352 net.cpp:165] Memory required for data: 1473396736
I0402 02:11:44.767503 26352 layer_factory.hpp:77] Creating layer pool1
I0402 02:11:44.767514 26352 net.cpp:100] Creating Layer pool1
I0402 02:11:44.767520 26352 net.cpp:434] pool1 <- conv1
I0402 02:11:44.767525 26352 net.cpp:408] pool1 -> pool1
I0402 02:11:44.767578 26352 net.cpp:150] Setting up pool1
I0402 02:11:44.767586 26352 net.cpp:157] Top shape: 1024 100 21 21 (45158400)
I0402 02:11:44.767590 26352 net.cpp:165] Memory required for data: 1654030336
I0402 02:11:44.767592 26352 layer_factory.hpp:77] Creating layer conv2
I0402 02:11:44.767602 26352 net.cpp:100] Creating Layer conv2
I0402 02:11:44.767607 26352 net.cpp:434] conv2 <- pool1
I0402 02:11:44.767613 26352 net.cpp:408] conv2 -> conv2
I0402 02:11:44.773224 26352 net.cpp:150] Setting up conv2
I0402 02:11:44.773242 26352 net.cpp:157] Top shape: 1024 150 18 18 (49766400)
I0402 02:11:44.773247 26352 net.cpp:165] Memory required for data: 1853095936
I0402 02:11:44.773273 26352 layer_factory.hpp:77] Creating layer conv2_relu
I0402 02:11:44.773284 26352 net.cpp:100] Creating Layer conv2_relu
I0402 02:11:44.773290 26352 net.cpp:434] conv2_relu <- conv2
I0402 02:11:44.773296 26352 net.cpp:395] conv2_relu -> conv2 (in-place)
I0402 02:11:44.774253 26352 net.cpp:150] Setting up conv2_relu
I0402 02:11:44.774269 26352 net.cpp:157] Top shape: 1024 150 18 18 (49766400)
I0402 02:11:44.774273 26352 net.cpp:165] Memory required for data: 2052161536
I0402 02:11:44.774277 26352 layer_factory.hpp:77] Creating layer pool2
I0402 02:11:44.774283 26352 net.cpp:100] Creating Layer pool2
I0402 02:11:44.774287 26352 net.cpp:434] pool2 <- conv2
I0402 02:11:44.774296 26352 net.cpp:408] pool2 -> pool2
I0402 02:11:44.774353 26352 net.cpp:150] Setting up pool2
I0402 02:11:44.774363 26352 net.cpp:157] Top shape: 1024 150 9 9 (12441600)
I0402 02:11:44.774365 26352 net.cpp:165] Memory required for data: 2101927936
I0402 02:11:44.774369 26352 layer_factory.hpp:77] Creating layer conv3
I0402 02:11:44.774380 26352 net.cpp:100] Creating Layer conv3
I0402 02:11:44.774385 26352 net.cpp:434] conv3 <- pool2
I0402 02:11:44.774392 26352 net.cpp:408] conv3 -> conv3
I0402 02:11:44.780357 26352 net.cpp:150] Setting up conv3
I0402 02:11:44.780375 26352 net.cpp:157] Top shape: 1024 250 6 6 (9216000)
I0402 02:11:44.780378 26352 net.cpp:165] Memory required for data: 2138791936
I0402 02:11:44.780391 26352 layer_factory.hpp:77] Creating layer conv3_relu
I0402 02:11:44.780400 26352 net.cpp:100] Creating Layer conv3_relu
I0402 02:11:44.780402 26352 net.cpp:434] conv3_relu <- conv3
I0402 02:11:44.780408 26352 net.cpp:395] conv3_relu -> conv3 (in-place)
I0402 02:11:44.781391 26352 net.cpp:150] Setting up conv3_relu
I0402 02:11:44.781406 26352 net.cpp:157] Top shape: 1024 250 6 6 (9216000)
I0402 02:11:44.781409 26352 net.cpp:165] Memory required for data: 2175655936
I0402 02:11:44.781414 26352 layer_factory.hpp:77] Creating layer pool3
I0402 02:11:44.781450 26352 net.cpp:100] Creating Layer pool3
I0402 02:11:44.781455 26352 net.cpp:434] pool3 <- conv3
I0402 02:11:44.781460 26352 net.cpp:408] pool3 -> pool3
I0402 02:11:44.781517 26352 net.cpp:150] Setting up pool3
I0402 02:11:44.781525 26352 net.cpp:157] Top shape: 1024 250 3 3 (2304000)
I0402 02:11:44.781528 26352 net.cpp:165] Memory required for data: 2184871936
I0402 02:11:44.781533 26352 layer_factory.hpp:77] Creating layer fc4_300
I0402 02:11:44.781545 26352 net.cpp:100] Creating Layer fc4_300
I0402 02:11:44.781550 26352 net.cpp:434] fc4_300 <- pool3
I0402 02:11:44.781558 26352 net.cpp:408] fc4_300 -> fc4_300
I0402 02:11:44.787307 26352 net.cpp:150] Setting up fc4_300
I0402 02:11:44.787325 26352 net.cpp:157] Top shape: 1024 300 (307200)
I0402 02:11:44.787329 26352 net.cpp:165] Memory required for data: 2186100736
I0402 02:11:44.787336 26352 layer_factory.hpp:77] Creating layer fc4_relu
I0402 02:11:44.787343 26352 net.cpp:100] Creating Layer fc4_relu
I0402 02:11:44.787353 26352 net.cpp:434] fc4_relu <- fc4_300
I0402 02:11:44.787360 26352 net.cpp:395] fc4_relu -> fc4_300 (in-place)
I0402 02:11:44.787559 26352 net.cpp:150] Setting up fc4_relu
I0402 02:11:44.787569 26352 net.cpp:157] Top shape: 1024 300 (307200)
I0402 02:11:44.787572 26352 net.cpp:165] Memory required for data: 2187329536
I0402 02:11:44.787576 26352 layer_factory.hpp:77] Creating layer drop4
I0402 02:11:44.787583 26352 net.cpp:100] Creating Layer drop4
I0402 02:11:44.787587 26352 net.cpp:434] drop4 <- fc4_300
I0402 02:11:44.787593 26352 net.cpp:395] drop4 -> fc4_300 (in-place)
I0402 02:11:44.787627 26352 net.cpp:150] Setting up drop4
I0402 02:11:44.787634 26352 net.cpp:157] Top shape: 1024 300 (307200)
I0402 02:11:44.787637 26352 net.cpp:165] Memory required for data: 2188558336
I0402 02:11:44.787642 26352 layer_factory.hpp:77] Creating layer fc5_67
I0402 02:11:44.787647 26352 net.cpp:100] Creating Layer fc5_67
I0402 02:11:44.787652 26352 net.cpp:434] fc5_67 <- fc4_300
I0402 02:11:44.787659 26352 net.cpp:408] fc5_67 -> fc5_classes
I0402 02:11:44.787914 26352 net.cpp:150] Setting up fc5_67
I0402 02:11:44.787924 26352 net.cpp:157] Top shape: 1024 67 (68608)
I0402 02:11:44.787926 26352 net.cpp:165] Memory required for data: 2188832768
I0402 02:11:44.787937 26352 layer_factory.hpp:77] Creating layer fc5_classes_fc5_67_0_split
I0402 02:11:44.787945 26352 net.cpp:100] Creating Layer fc5_classes_fc5_67_0_split
I0402 02:11:44.787950 26352 net.cpp:434] fc5_classes_fc5_67_0_split <- fc5_classes
I0402 02:11:44.787956 26352 net.cpp:408] fc5_classes_fc5_67_0_split -> fc5_classes_fc5_67_0_split_0
I0402 02:11:44.787963 26352 net.cpp:408] fc5_classes_fc5_67_0_split -> fc5_classes_fc5_67_0_split_1
I0402 02:11:44.787971 26352 net.cpp:408] fc5_classes_fc5_67_0_split -> fc5_classes_fc5_67_0_split_2
I0402 02:11:44.788024 26352 net.cpp:150] Setting up fc5_classes_fc5_67_0_split
I0402 02:11:44.788035 26352 net.cpp:157] Top shape: 1024 67 (68608)
I0402 02:11:44.788040 26352 net.cpp:157] Top shape: 1024 67 (68608)
I0402 02:11:44.788043 26352 net.cpp:157] Top shape: 1024 67 (68608)
I0402 02:11:44.788046 26352 net.cpp:165] Memory required for data: 2189656064
I0402 02:11:44.788049 26352 layer_factory.hpp:77] Creating layer loss
I0402 02:11:44.788059 26352 net.cpp:100] Creating Layer loss
I0402 02:11:44.788065 26352 net.cpp:434] loss <- fc5_classes_fc5_67_0_split_0
I0402 02:11:44.788070 26352 net.cpp:434] loss <- label_data_1_split_0
I0402 02:11:44.788075 26352 net.cpp:408] loss -> loss
…
