…
I0402 02:38:48.930167  9343 net.cpp:322] The NetState phase (0) differed from the phase (1) specified by a rule in layer accuracy_5
I0402 02:38:48.930263  9343 net.cpp:58] Initializing net from parameters: 
state {
  phase: TRAIN
  level: 0
  stage: ""
}
layer {
  name: "data"
  type: "Data"
  top: "data"
  top: "label"
  include {
    phase: TRAIN
  }
  transform_param {
    mirror: false
    crop_size: 48
    mean_value: 132
    mean_value: 126
    mean_value: 140
  }
  data_param {
    source: "../local_data/lmdb/rtsd-r1/AHE/train/lmdb"
    batch_size: 1024
    backend: LMDB
  }
}
layer {
  name: "conv1"
  type: "Convolution"
  bottom: "data"
  top: "conv1"
  convolution_param {
    num_output: 100
    pad: 0
    kernel_size: 7
    group: 1
    stride: 1
    weight_filler {
      type: "xavier"
    }
  }
}
layer {
  name: "conv1_relu"
  type: "ReLU"
  bottom: "conv1"
  top: "conv1"
}
layer {
  name: "pool1"
  type: "Pooling"
  bottom: "conv1"
  top: "pool1"
  pooling_param {
    pool: MAX
    kernel_size: 2
    stride: 2
  }
}
layer {
  name: "conv2"
  type: "Convolution"
  bottom: "pool1"
  top: "conv2"
  convolution_param {
    num_output: 150
    pad: 0
    kernel_size: 4
    group: 1
    stride: 1
    weight_filler {
      type: "xavier"
    }
  }
}
layer {
  name: "conv2_relu"
  type: "ReLU"
  bottom: "conv2"
  top: "conv2"
}
layer {
  name: "pool2"
  type: "Pooling"
  bottom: "conv2"
  top: "pool2"
  pooling_param {
    pool: MAX
    kernel_size: 2
    stride: 2
  }
}
layer {
  name: "conv3"
  type: "Convolution"
  bottom: "pool2"
  top: "conv3"
  convolution_param {
    num_output: 250
    pad: 0
    kernel_size: 4
    group: 1
    stride: 1
    weight_filler {
      type: "xavier"
    }
  }
}
layer {
  name: "conv3_relu"
  type: "ReLU"
  bottom: "conv3"
  top: "conv3"
}
layer {
  name: "pool3"
  type: "Pooling"
  bottom: "conv3"
  top: "pool3"
  pooling_param {
    pool: MAX
    kernel_size: 2
    stride: 2
  }
}
layer {
  name: "fc4_300"
  type: "InnerProduct"
  bottom: "pool3"
  top: "fc4_300"
  inner_product_param {
    num_output: 300
    weight_filler {
      type: "xavier"
    }
  }
}
layer {
  name: "fc4_relu"
  type: "ReLU"
  bottom: "fc4_300"
  top: "fc4_300"
}
layer {
  name: "drop4"
  type: "Dropout"
  bottom: "fc4_300"
  top: "fc4_300"
  dropout_param {
    dropout_ratio: 0.4
  }
}
layer {
  name: "fc5_67"
  type: "InnerProduct"
  bottom: "fc4_300"
  top: "fc5_classes"
  inner_product_param {
    num_output: 67
    weight_filler {
      type: "xavier"
    }
  }
}
layer {
  name: "loss"
  type: "SoftmaxWithLoss"
  bottom: "fc5_classes"
  bottom: "label"
  top: "loss"
}
I0402 02:38:48.930337  9343 layer_factory.hpp:77] Creating layer data
I0402 02:38:48.931397  9343 net.cpp:100] Creating Layer data
I0402 02:38:48.931411  9343 net.cpp:408] data -> data
I0402 02:38:48.931433  9343 net.cpp:408] data -> label
I0402 02:38:48.933037  9394 db_lmdb.cpp:35] Opened lmdb ../local_data/lmdb/rtsd-r1/AHE/train/lmdb
I0402 02:38:48.949635  9343 data_layer.cpp:41] output data size: 1024,3,48,48
I0402 02:38:48.995434  9343 net.cpp:150] Setting up data
I0402 02:38:48.995465  9343 net.cpp:157] Top shape: 1024 3 48 48 (7077888)
I0402 02:38:48.995470  9343 net.cpp:157] Top shape: 1024 (1024)
I0402 02:38:48.995472  9343 net.cpp:165] Memory required for data: 28315648
I0402 02:38:48.995503  9343 layer_factory.hpp:77] Creating layer conv1
I0402 02:38:48.995525  9343 net.cpp:100] Creating Layer conv1
I0402 02:38:48.995533  9343 net.cpp:434] conv1 <- data
I0402 02:38:48.995546  9343 net.cpp:408] conv1 -> conv1
I0402 02:38:49.265159  9343 net.cpp:150] Setting up conv1
I0402 02:38:49.265198  9343 net.cpp:157] Top shape: 1024 100 42 42 (180633600)
I0402 02:38:49.265202  9343 net.cpp:165] Memory required for data: 750850048
I0402 02:38:49.265223  9343 layer_factory.hpp:77] Creating layer conv1_relu
I0402 02:38:49.265236  9343 net.cpp:100] Creating Layer conv1_relu
I0402 02:38:49.265240  9343 net.cpp:434] conv1_relu <- conv1
I0402 02:38:49.265246  9343 net.cpp:395] conv1_relu -> conv1 (in-place)
I0402 02:38:49.265440  9343 net.cpp:150] Setting up conv1_relu
I0402 02:38:49.265453  9343 net.cpp:157] Top shape: 1024 100 42 42 (180633600)
I0402 02:38:49.265456  9343 net.cpp:165] Memory required for data: 1473384448
I0402 02:38:49.265460  9343 layer_factory.hpp:77] Creating layer pool1
I0402 02:38:49.265467  9343 net.cpp:100] Creating Layer pool1
I0402 02:38:49.265470  9343 net.cpp:434] pool1 <- conv1
I0402 02:38:49.265475  9343 net.cpp:408] pool1 -> pool1
I0402 02:38:49.265527  9343 net.cpp:150] Setting up pool1
I0402 02:38:49.265535  9343 net.cpp:157] Top shape: 1024 100 21 21 (45158400)
I0402 02:38:49.265538  9343 net.cpp:165] Memory required for data: 1654018048
I0402 02:38:49.265542  9343 layer_factory.hpp:77] Creating layer conv2
I0402 02:38:49.265552  9343 net.cpp:100] Creating Layer conv2
I0402 02:38:49.265558  9343 net.cpp:434] conv2 <- pool1
I0402 02:38:49.265563  9343 net.cpp:408] conv2 -> conv2
I0402 02:38:49.271090  9343 net.cpp:150] Setting up conv2
I0402 02:38:49.271106  9343 net.cpp:157] Top shape: 1024 150 18 18 (49766400)
I0402 02:38:49.271108  9343 net.cpp:165] Memory required for data: 1853083648
I0402 02:38:49.271118  9343 layer_factory.hpp:77] Creating layer conv2_relu
I0402 02:38:49.271124  9343 net.cpp:100] Creating Layer conv2_relu
I0402 02:38:49.271128  9343 net.cpp:434] conv2_relu <- conv2
I0402 02:38:49.271133  9343 net.cpp:395] conv2_relu -> conv2 (in-place)
I0402 02:38:49.272411  9343 net.cpp:150] Setting up conv2_relu
I0402 02:38:49.272428  9343 net.cpp:157] Top shape: 1024 150 18 18 (49766400)
I0402 02:38:49.272430  9343 net.cpp:165] Memory required for data: 2052149248
I0402 02:38:49.272434  9343 layer_factory.hpp:77] Creating layer pool2
I0402 02:38:49.272440  9343 net.cpp:100] Creating Layer pool2
I0402 02:38:49.272444  9343 net.cpp:434] pool2 <- conv2
I0402 02:38:49.272449  9343 net.cpp:408] pool2 -> pool2
I0402 02:38:49.272493  9343 net.cpp:150] Setting up pool2
I0402 02:38:49.272502  9343 net.cpp:157] Top shape: 1024 150 9 9 (12441600)
I0402 02:38:49.272505  9343 net.cpp:165] Memory required for data: 2101915648
I0402 02:38:49.272507  9343 layer_factory.hpp:77] Creating layer conv3
I0402 02:38:49.272516  9343 net.cpp:100] Creating Layer conv3
I0402 02:38:49.272519  9343 net.cpp:434] conv3 <- pool2
I0402 02:38:49.272523  9343 net.cpp:408] conv3 -> conv3
I0402 02:38:49.278401  9343 net.cpp:150] Setting up conv3
I0402 02:38:49.278417  9343 net.cpp:157] Top shape: 1024 250 6 6 (9216000)
I0402 02:38:49.278421  9343 net.cpp:165] Memory required for data: 2138779648
I0402 02:38:49.278430  9343 layer_factory.hpp:77] Creating layer conv3_relu
I0402 02:38:49.278437  9343 net.cpp:100] Creating Layer conv3_relu
I0402 02:38:49.278441  9343 net.cpp:434] conv3_relu <- conv3
I0402 02:38:49.278445  9343 net.cpp:395] conv3_relu -> conv3 (in-place)
I0402 02:38:49.279475  9343 net.cpp:150] Setting up conv3_relu
I0402 02:38:49.279490  9343 net.cpp:157] Top shape: 1024 250 6 6 (9216000)
I0402 02:38:49.279494  9343 net.cpp:165] Memory required for data: 2175643648
I0402 02:38:49.279496  9343 layer_factory.hpp:77] Creating layer pool3
I0402 02:38:49.279503  9343 net.cpp:100] Creating Layer pool3
I0402 02:38:49.279506  9343 net.cpp:434] pool3 <- conv3
I0402 02:38:49.279511  9343 net.cpp:408] pool3 -> pool3
I0402 02:38:49.279567  9343 net.cpp:150] Setting up pool3
I0402 02:38:49.279592  9343 net.cpp:157] Top shape: 1024 250 3 3 (2304000)
I0402 02:38:49.279595  9343 net.cpp:165] Memory required for data: 2184859648
I0402 02:38:49.279598  9343 layer_factory.hpp:77] Creating layer fc4_300
I0402 02:38:49.279605  9343 net.cpp:100] Creating Layer fc4_300
I0402 02:38:49.279610  9343 net.cpp:434] fc4_300 <- pool3
I0402 02:38:49.279615  9343 net.cpp:408] fc4_300 -> fc4_300
I0402 02:38:49.285605  9343 net.cpp:150] Setting up fc4_300
I0402 02:38:49.285622  9343 net.cpp:157] Top shape: 1024 300 (307200)
I0402 02:38:49.285626  9343 net.cpp:165] Memory required for data: 2186088448
I0402 02:38:49.285634  9343 layer_factory.hpp:77] Creating layer fc4_relu
I0402 02:38:49.285639  9343 net.cpp:100] Creating Layer fc4_relu
I0402 02:38:49.285642  9343 net.cpp:434] fc4_relu <- fc4_300
I0402 02:38:49.285647  9343 net.cpp:395] fc4_relu -> fc4_300 (in-place)
I0402 02:38:49.285828  9343 net.cpp:150] Setting up fc4_relu
I0402 02:38:49.285840  9343 net.cpp:157] Top shape: 1024 300 (307200)
I0402 02:38:49.285843  9343 net.cpp:165] Memory required for data: 2187317248
I0402 02:38:49.285846  9343 layer_factory.hpp:77] Creating layer drop4
I0402 02:38:49.285853  9343 net.cpp:100] Creating Layer drop4
I0402 02:38:49.285857  9343 net.cpp:434] drop4 <- fc4_300
I0402 02:38:49.285862  9343 net.cpp:395] drop4 -> fc4_300 (in-place)
I0402 02:38:49.285893  9343 net.cpp:150] Setting up drop4
I0402 02:38:49.285900  9343 net.cpp:157] Top shape: 1024 300 (307200)
I0402 02:38:49.285903  9343 net.cpp:165] Memory required for data: 2188546048
I0402 02:38:49.285907  9343 layer_factory.hpp:77] Creating layer fc5_67
I0402 02:38:49.285912  9343 net.cpp:100] Creating Layer fc5_67
I0402 02:38:49.285914  9343 net.cpp:434] fc5_67 <- fc4_300
I0402 02:38:49.285919  9343 net.cpp:408] fc5_67 -> fc5_classes
I0402 02:38:49.293378  9343 net.cpp:150] Setting up fc5_67
I0402 02:38:49.293395  9343 net.cpp:157] Top shape: 1024 67 (68608)
I0402 02:38:49.293397  9343 net.cpp:165] Memory required for data: 2188820480
I0402 02:38:49.293419  9343 layer_factory.hpp:77] Creating layer loss
I0402 02:38:49.293426  9343 net.cpp:100] Creating Layer loss
I0402 02:38:49.293431  9343 net.cpp:434] loss <- fc5_classes
I0402 02:38:49.293434  9343 net.cpp:434] loss <- label
I0402 02:38:49.293440  9343 net.cpp:408] loss -> loss
I0402 02:38:49.293452  9343 layer_factory.hpp:77] Creating layer loss
…
I0402 02:38:49.294091  9343 solver.cpp:193] Creating test net (#0) specified by test_net file: ./Prototxt/rtsd-r1/AHE/test.prototxt
I0402 02:38:49.294232  9343 net.cpp:58] Initializing net from parameters: 
state {
  phase: TEST
}
layer {
  name: "data"
  type: "Data"
  top: "data"
  top: "label"
  include {
    phase: TEST
  }
  transform_param {
    mirror: false
    crop_size: 48
    mean_value: 126
    mean_value: 124
    mean_value: 145
  }
  data_param {
    source: "../local_data/lmdb/rtsd-r1/AHE/test/lmdb"
    batch_size: 1024
    backend: LMDB
  }
}
layer {
  name: "conv1"
  type: "Convolution"
  bottom: "data"
  top: "conv1"
  convolution_param {
    num_output: 100
    pad: 0
    kernel_size: 7
    group: 1
    stride: 1
    weight_filler {
      type: "xavier"
    }
  }
}
layer {
  name: "conv1_relu"
  type: "ReLU"
  bottom: "conv1"
  top: "conv1"
}
layer {
  name: "pool1"
  type: "Pooling"
  bottom: "conv1"
  top: "pool1"
  pooling_param {
    pool: MAX
    kernel_size: 2
    stride: 2
  }
}
layer {
  name: "conv2"
  type: "Convolution"
  bottom: "pool1"
  top: "conv2"
  convolution_param {
    num_output: 150
    pad: 0
    kernel_size: 4
    group: 1
    stride: 1
    weight_filler {
      type: "xavier"
    }
  }
}
layer {
  name: "conv2_relu"
  type: "ReLU"
  bottom: "conv2"
  top: "conv2"
}
layer {
  name: "pool2"
  type: "Pooling"
  bottom: "conv2"
  top: "pool2"
  pooling_param {
    pool: MAX
    kernel_size: 2
    stride: 2
  }
}
layer {
  name: "conv3"
  type: "Convolution"
  bottom: "pool2"
  top: "conv3"
  convolution_param {
    num_output: 250
    pad: 0
    kernel_size: 4
    group: 1
    stride: 1
    weight_filler {
      type: "xavier"
    }
  }
}
layer {
  name: "conv3_relu"
  type: "ReLU"
  bottom: "conv3"
  top: "conv3"
}
layer {
  name: "pool3"
  type: "Pooling"
  bottom: "conv3"
  top: "pool3"
  pooling_param {
    pool: MAX
    kernel_size: 2
    stride: 2
  }
}
layer {
  name: "fc4_300"
  type: "InnerProduct"
  bottom: "pool3"
  top: "fc4_300"
  inner_product_param {
    num_output: 300
    weight_filler {
      type: "xavier"
    }
  }
}
layer {
  name: "fc4_relu"
  type: "ReLU"
  bottom: "fc4_300"
  top: "fc4_300"
}
layer {
  name: "drop4"
  type: "Dropout"
  bottom: "fc4_300"
  top: "fc4_300"
  dropout_param {
    dropout_ratio: 0.4
  }
}
layer {
  name: "fc5_67"
  type: "InnerProduct"
  bottom: "fc4_300"
  top: "fc5_classes"
  inner_product_param {
    num_output: 67
    weight_filler {
      type: "xavier"
    }
  }
}
layer {
  name: "loss"
  type: "SoftmaxWithLoss"
  bottom: "fc5_classes"
  bottom: "label"
  top: "loss"
}
layer {
  name: "accuracy_1"
  type: "Accuracy"
  bottom: "fc5_classes"
  bottom: "label"
  top: "accuracy_1"
  include {
    phase: TEST
  }
  accuracy_param {
    top_k: 1
  }
}
layer {
  name: "accuracy_5"
  type: "Accuracy"
  bottom: "fc5_classes"
  bottom: "label"
  top: "accuracy_5"
  include {
    phase: TEST
  }
  accuracy_param {
    top_k: 5
  }
}
I0402 02:38:49.294317  9343 layer_factory.hpp:77] Creating layer data
I0402 02:38:49.294900  9343 net.cpp:100] Creating Layer data
I0402 02:38:49.294910  9343 net.cpp:408] data -> data
I0402 02:38:49.294919  9343 net.cpp:408] data -> label
I0402 02:38:49.298207  9411 db_lmdb.cpp:35] Opened lmdb ../local_data/lmdb/rtsd-r1/AHE/test/lmdb
I0402 02:38:49.298387  9343 data_layer.cpp:41] output data size: 1024,3,48,48
I0402 02:38:49.338059  9343 net.cpp:150] Setting up data
I0402 02:38:49.338088  9343 net.cpp:157] Top shape: 1024 3 48 48 (7077888)
I0402 02:38:49.338093  9343 net.cpp:157] Top shape: 1024 (1024)
I0402 02:38:49.338096  9343 net.cpp:165] Memory required for data: 28315648
I0402 02:38:49.338102  9343 layer_factory.hpp:77] Creating layer label_data_1_split
I0402 02:38:49.338127  9343 net.cpp:100] Creating Layer label_data_1_split
I0402 02:38:49.338131  9343 net.cpp:434] label_data_1_split <- label
I0402 02:38:49.338138  9343 net.cpp:408] label_data_1_split -> label_data_1_split_0
I0402 02:38:49.338150  9343 net.cpp:408] label_data_1_split -> label_data_1_split_1
I0402 02:38:49.338155  9343 net.cpp:408] label_data_1_split -> label_data_1_split_2
I0402 02:38:49.338238  9343 net.cpp:150] Setting up label_data_1_split
I0402 02:38:49.338245  9343 net.cpp:157] Top shape: 1024 (1024)
I0402 02:38:49.338265  9343 net.cpp:157] Top shape: 1024 (1024)
I0402 02:38:49.338270  9343 net.cpp:157] Top shape: 1024 (1024)
I0402 02:38:49.338273  9343 net.cpp:165] Memory required for data: 28327936
I0402 02:38:49.338275  9343 layer_factory.hpp:77] Creating layer conv1
I0402 02:38:49.338310  9343 net.cpp:100] Creating Layer conv1
I0402 02:38:49.338318  9343 net.cpp:434] conv1 <- data
I0402 02:38:49.338325  9343 net.cpp:408] conv1 -> conv1
I0402 02:38:49.340163  9343 net.cpp:150] Setting up conv1
I0402 02:38:49.340180  9343 net.cpp:157] Top shape: 1024 100 42 42 (180633600)
I0402 02:38:49.340184  9343 net.cpp:165] Memory required for data: 750862336
I0402 02:38:49.340196  9343 layer_factory.hpp:77] Creating layer conv1_relu
I0402 02:38:49.340204  9343 net.cpp:100] Creating Layer conv1_relu
I0402 02:38:49.340206  9343 net.cpp:434] conv1_relu <- conv1
I0402 02:38:49.340212  9343 net.cpp:395] conv1_relu -> conv1 (in-place)
I0402 02:38:49.342667  9343 net.cpp:150] Setting up conv1_relu
I0402 02:38:49.342680  9343 net.cpp:157] Top shape: 1024 100 42 42 (180633600)
I0402 02:38:49.342685  9343 net.cpp:165] Memory required for data: 1473396736
I0402 02:38:49.342689  9343 layer_factory.hpp:77] Creating layer pool1
I0402 02:38:49.342697  9343 net.cpp:100] Creating Layer pool1
I0402 02:38:49.342700  9343 net.cpp:434] pool1 <- conv1
I0402 02:38:49.342705  9343 net.cpp:408] pool1 -> pool1
I0402 02:38:49.342777  9343 net.cpp:150] Setting up pool1
I0402 02:38:49.342784  9343 net.cpp:157] Top shape: 1024 100 21 21 (45158400)
I0402 02:38:49.342787  9343 net.cpp:165] Memory required for data: 1654030336
I0402 02:38:49.342792  9343 layer_factory.hpp:77] Creating layer conv2
I0402 02:38:49.342800  9343 net.cpp:100] Creating Layer conv2
I0402 02:38:49.342803  9343 net.cpp:434] conv2 <- pool1
I0402 02:38:49.342808  9343 net.cpp:408] conv2 -> conv2
I0402 02:38:49.346665  9343 net.cpp:150] Setting up conv2
I0402 02:38:49.346681  9343 net.cpp:157] Top shape: 1024 150 18 18 (49766400)
I0402 02:38:49.346685  9343 net.cpp:165] Memory required for data: 1853095936
I0402 02:38:49.346695  9343 layer_factory.hpp:77] Creating layer conv2_relu
I0402 02:38:49.346714  9343 net.cpp:100] Creating Layer conv2_relu
I0402 02:38:49.346716  9343 net.cpp:434] conv2_relu <- conv2
I0402 02:38:49.346721  9343 net.cpp:395] conv2_relu -> conv2 (in-place)
I0402 02:38:49.347514  9343 net.cpp:150] Setting up conv2_relu
I0402 02:38:49.347530  9343 net.cpp:157] Top shape: 1024 150 18 18 (49766400)
I0402 02:38:49.347533  9343 net.cpp:165] Memory required for data: 2052161536
I0402 02:38:49.347537  9343 layer_factory.hpp:77] Creating layer pool2
I0402 02:38:49.347544  9343 net.cpp:100] Creating Layer pool2
I0402 02:38:49.347548  9343 net.cpp:434] pool2 <- conv2
I0402 02:38:49.347553  9343 net.cpp:408] pool2 -> pool2
I0402 02:38:49.347602  9343 net.cpp:150] Setting up pool2
I0402 02:38:49.347611  9343 net.cpp:157] Top shape: 1024 150 9 9 (12441600)
I0402 02:38:49.347615  9343 net.cpp:165] Memory required for data: 2101927936
I0402 02:38:49.347617  9343 layer_factory.hpp:77] Creating layer conv3
I0402 02:38:49.347627  9343 net.cpp:100] Creating Layer conv3
I0402 02:38:49.347630  9343 net.cpp:434] conv3 <- pool2
I0402 02:38:49.347635  9343 net.cpp:408] conv3 -> conv3
I0402 02:38:49.352974  9343 net.cpp:150] Setting up conv3
I0402 02:38:49.352991  9343 net.cpp:157] Top shape: 1024 250 6 6 (9216000)
I0402 02:38:49.352995  9343 net.cpp:165] Memory required for data: 2138791936
I0402 02:38:49.353005  9343 layer_factory.hpp:77] Creating layer conv3_relu
I0402 02:38:49.353024  9343 net.cpp:100] Creating Layer conv3_relu
I0402 02:38:49.353027  9343 net.cpp:434] conv3_relu <- conv3
I0402 02:38:49.353032  9343 net.cpp:395] conv3_relu -> conv3 (in-place)
I0402 02:38:49.353828  9343 net.cpp:150] Setting up conv3_relu
I0402 02:38:49.353843  9343 net.cpp:157] Top shape: 1024 250 6 6 (9216000)
I0402 02:38:49.353847  9343 net.cpp:165] Memory required for data: 2175655936
I0402 02:38:49.353850  9343 layer_factory.hpp:77] Creating layer pool3
I0402 02:38:49.353874  9343 net.cpp:100] Creating Layer pool3
I0402 02:38:49.353880  9343 net.cpp:434] pool3 <- conv3
I0402 02:38:49.353895  9343 net.cpp:408] pool3 -> pool3
I0402 02:38:49.353945  9343 net.cpp:150] Setting up pool3
I0402 02:38:49.353955  9343 net.cpp:157] Top shape: 1024 250 3 3 (2304000)
I0402 02:38:49.353957  9343 net.cpp:165] Memory required for data: 2184871936
I0402 02:38:49.353960  9343 layer_factory.hpp:77] Creating layer fc4_300
I0402 02:38:49.353967  9343 net.cpp:100] Creating Layer fc4_300
I0402 02:38:49.353971  9343 net.cpp:434] fc4_300 <- pool3
I0402 02:38:49.353976  9343 net.cpp:408] fc4_300 -> fc4_300
I0402 02:38:49.359161  9343 net.cpp:150] Setting up fc4_300
I0402 02:38:49.359177  9343 net.cpp:157] Top shape: 1024 300 (307200)
I0402 02:38:49.359181  9343 net.cpp:165] Memory required for data: 2186100736
I0402 02:38:49.359189  9343 layer_factory.hpp:77] Creating layer fc4_relu
I0402 02:38:49.359205  9343 net.cpp:100] Creating Layer fc4_relu
I0402 02:38:49.359210  9343 net.cpp:434] fc4_relu <- fc4_300
I0402 02:38:49.359215  9343 net.cpp:395] fc4_relu -> fc4_300 (in-place)
I0402 02:38:49.359405  9343 net.cpp:150] Setting up fc4_relu
I0402 02:38:49.359416  9343 net.cpp:157] Top shape: 1024 300 (307200)
I0402 02:38:49.359419  9343 net.cpp:165] Memory required for data: 2187329536
I0402 02:38:49.359422  9343 layer_factory.hpp:77] Creating layer drop4
I0402 02:38:49.359429  9343 net.cpp:100] Creating Layer drop4
I0402 02:38:49.359432  9343 net.cpp:434] drop4 <- fc4_300
I0402 02:38:49.359437  9343 net.cpp:395] drop4 -> fc4_300 (in-place)
I0402 02:38:49.359467  9343 net.cpp:150] Setting up drop4
I0402 02:38:49.359473  9343 net.cpp:157] Top shape: 1024 300 (307200)
I0402 02:38:49.359477  9343 net.cpp:165] Memory required for data: 2188558336
I0402 02:38:49.359479  9343 layer_factory.hpp:77] Creating layer fc5_67
I0402 02:38:49.359485  9343 net.cpp:100] Creating Layer fc5_67
I0402 02:38:49.359498  9343 net.cpp:434] fc5_67 <- fc4_300
I0402 02:38:49.359503  9343 net.cpp:408] fc5_67 -> fc5_classes
I0402 02:38:49.359773  9343 net.cpp:150] Setting up fc5_67
I0402 02:38:49.359786  9343 net.cpp:157] Top shape: 1024 67 (68608)
I0402 02:38:49.359789  9343 net.cpp:165] Memory required for data: 2188832768
I0402 02:38:49.359799  9343 layer_factory.hpp:77] Creating layer fc5_classes_fc5_67_0_split
I0402 02:38:49.359807  9343 net.cpp:100] Creating Layer fc5_classes_fc5_67_0_split
I0402 02:38:49.359809  9343 net.cpp:434] fc5_classes_fc5_67_0_split <- fc5_classes
I0402 02:38:49.359815  9343 net.cpp:408] fc5_classes_fc5_67_0_split -> fc5_classes_fc5_67_0_split_0
I0402 02:38:49.359822  9343 net.cpp:408] fc5_classes_fc5_67_0_split -> fc5_classes_fc5_67_0_split_1
I0402 02:38:49.359828  9343 net.cpp:408] fc5_classes_fc5_67_0_split -> fc5_classes_fc5_67_0_split_2
I0402 02:38:49.359876  9343 net.cpp:150] Setting up fc5_classes_fc5_67_0_split
I0402 02:38:49.359884  9343 net.cpp:157] Top shape: 1024 67 (68608)
I0402 02:38:49.359889  9343 net.cpp:157] Top shape: 1024 67 (68608)
I0402 02:38:49.359891  9343 net.cpp:157] Top shape: 1024 67 (68608)
I0402 02:38:49.359894  9343 net.cpp:165] Memory required for data: 2189656064
I0402 02:38:49.359896  9343 layer_factory.hpp:77] Creating layer loss
I0402 02:38:49.359905  9343 net.cpp:100] Creating Layer loss
I0402 02:38:49.359908  9343 net.cpp:434] loss <- fc5_classes_fc5_67_0_split_0
I0402 02:38:49.359912  9343 net.cpp:434] loss <- label_data_1_split_0
I0402 02:38:49.359918  9343 net.cpp:408] loss -> loss
…
