…
I0409 08:13:53.887605 29969 net.cpp:322] The NetState phase (0) differed from the phase (1) specified by a rule in layer accuracy_5
I0409 08:13:53.887773 29969 net.cpp:58] Initializing net from parameters: 
state {
  phase: TRAIN
  level: 0
  stage: ""
}
layer {
  name: "data"
  type: "Data"
  top: "data"
  top: "label"
  include {
    phase: TRAIN
  }
  transform_param {
    mirror: false
    crop_size: 48
    mean_value: 132
    mean_value: 126
    mean_value: 140
  }
  data_param {
    source: "../local_data/lmdb/rtsd-r1/AHE/train/lmdb"
    batch_size: 1024
    backend: LMDB
  }
}
layer {
  name: "conv1"
  type: "Convolution"
  bottom: "data"
  top: "conv1"
  convolution_param {
    num_output: 100
    pad: 0
    kernel_size: 7
    group: 1
    stride: 1
    weight_filler {
      type: "xavier"
    }
  }
}
layer {
  name: "conv1_relu"
  type: "ReLU"
  bottom: "conv1"
  top: "conv1"
}
layer {
  name: "pool1"
  type: "Pooling"
  bottom: "conv1"
  top: "pool1"
  pooling_param {
    pool: MAX
    kernel_size: 2
    stride: 2
  }
}
layer {
  name: "conv2"
  type: "Convolution"
  bottom: "pool1"
  top: "conv2"
  convolution_param {
    num_output: 150
    pad: 0
    kernel_size: 4
    group: 1
    stride: 1
    weight_filler {
      type: "xavier"
    }
  }
}
layer {
  name: "conv2_relu"
  type: "ReLU"
  bottom: "conv2"
  top: "conv2"
}
layer {
  name: "pool2"
  type: "Pooling"
  bottom: "conv2"
  top: "pool2"
  pooling_param {
    pool: MAX
    kernel_size: 2
    stride: 2
  }
}
layer {
  name: "conv3"
  type: "Convolution"
  bottom: "pool2"
  top: "conv3"
  convolution_param {
    num_output: 250
    pad: 0
    kernel_size: 4
    group: 1
    stride: 1
    weight_filler {
      type: "xavier"
    }
  }
}
layer {
  name: "conv3_relu"
  type: "ReLU"
  bottom: "conv3"
  top: "conv3"
}
layer {
  name: "pool3"
  type: "Pooling"
  bottom: "conv3"
  top: "pool3"
  pooling_param {
    pool: MAX
    kernel_size: 2
    stride: 2
  }
}
layer {
  name: "fc4_300"
  type: "InnerProduct"
  bottom: "pool3"
  top: "fc4_300"
  inner_product_param {
    num_output: 300
    weight_filler {
      type: "xavier"
    }
  }
}
layer {
  name: "fc4_relu"
  type: "ReLU"
  bottom: "fc4_300"
  top: "fc4_300"
}
layer {
  name: "drop4"
  type: "Dropout"
  bottom: "fc4_300"
  top: "fc4_300"
  dropout_param {
    dropout_ratio: 0.4
  }
}
layer {
  name: "fc5_67"
  type: "InnerProduct"
  bottom: "fc4_300"
  top: "fc5_classes"
  inner_product_param {
    num_output: 67
    weight_filler {
      type: "xavier"
    }
  }
}
layer {
  name: "loss"
  type: "SoftmaxWithLoss"
  bottom: "fc5_classes"
  bottom: "label"
  top: "loss"
}
I0409 08:13:53.887920 29969 layer_factory.hpp:77] Creating layer data
I0409 08:13:53.889938 29969 net.cpp:100] Creating Layer data
I0409 08:13:53.889964 29969 net.cpp:408] data -> data
I0409 08:13:53.890002 29969 net.cpp:408] data -> label
I0409 08:13:53.891639 30041 db_lmdb.cpp:35] Opened lmdb ../local_data/lmdb/rtsd-r1/AHE/train/lmdb
I0409 08:13:53.921360 29969 data_layer.cpp:41] output data size: 1024,3,48,48
I0409 08:13:53.990980 29969 net.cpp:150] Setting up data
I0409 08:13:53.991019 29969 net.cpp:157] Top shape: 1024 3 48 48 (7077888)
I0409 08:13:53.991027 29969 net.cpp:157] Top shape: 1024 (1024)
I0409 08:13:53.991065 29969 net.cpp:165] Memory required for data: 28315648
I0409 08:13:53.991077 29969 layer_factory.hpp:77] Creating layer conv1
I0409 08:13:53.991112 29969 net.cpp:100] Creating Layer conv1
I0409 08:13:53.991124 29969 net.cpp:434] conv1 <- data
I0409 08:13:53.991140 29969 net.cpp:408] conv1 -> conv1
I0409 08:13:54.310748 29969 net.cpp:150] Setting up conv1
I0409 08:13:54.310781 29969 net.cpp:157] Top shape: 1024 100 42 42 (180633600)
I0409 08:13:54.310786 29969 net.cpp:165] Memory required for data: 750850048
I0409 08:13:54.310812 29969 layer_factory.hpp:77] Creating layer conv1_relu
I0409 08:13:54.310827 29969 net.cpp:100] Creating Layer conv1_relu
I0409 08:13:54.310834 29969 net.cpp:434] conv1_relu <- conv1
I0409 08:13:54.310842 29969 net.cpp:395] conv1_relu -> conv1 (in-place)
I0409 08:13:54.311076 29969 net.cpp:150] Setting up conv1_relu
I0409 08:13:54.311091 29969 net.cpp:157] Top shape: 1024 100 42 42 (180633600)
I0409 08:13:54.311096 29969 net.cpp:165] Memory required for data: 1473384448
I0409 08:13:54.311101 29969 layer_factory.hpp:77] Creating layer pool1
I0409 08:13:54.311110 29969 net.cpp:100] Creating Layer pool1
I0409 08:13:54.311115 29969 net.cpp:434] pool1 <- conv1
I0409 08:13:54.311121 29969 net.cpp:408] pool1 -> pool1
I0409 08:13:54.311185 29969 net.cpp:150] Setting up pool1
I0409 08:13:54.311195 29969 net.cpp:157] Top shape: 1024 100 21 21 (45158400)
I0409 08:13:54.311202 29969 net.cpp:165] Memory required for data: 1654018048
I0409 08:13:54.311205 29969 layer_factory.hpp:77] Creating layer conv2
I0409 08:13:54.311219 29969 net.cpp:100] Creating Layer conv2
I0409 08:13:54.311225 29969 net.cpp:434] conv2 <- pool1
I0409 08:13:54.311231 29969 net.cpp:408] conv2 -> conv2
I0409 08:13:54.316459 29969 net.cpp:150] Setting up conv2
I0409 08:13:54.316480 29969 net.cpp:157] Top shape: 1024 150 18 18 (49766400)
I0409 08:13:54.316488 29969 net.cpp:165] Memory required for data: 1853083648
I0409 08:13:54.316499 29969 layer_factory.hpp:77] Creating layer conv2_relu
I0409 08:13:54.316510 29969 net.cpp:100] Creating Layer conv2_relu
I0409 08:13:54.316516 29969 net.cpp:434] conv2_relu <- conv2
I0409 08:13:54.316524 29969 net.cpp:395] conv2_relu -> conv2 (in-place)
I0409 08:13:54.317417 29969 net.cpp:150] Setting up conv2_relu
I0409 08:13:54.317436 29969 net.cpp:157] Top shape: 1024 150 18 18 (49766400)
I0409 08:13:54.317441 29969 net.cpp:165] Memory required for data: 2052149248
I0409 08:13:54.317445 29969 layer_factory.hpp:77] Creating layer pool2
I0409 08:13:54.317454 29969 net.cpp:100] Creating Layer pool2
I0409 08:13:54.317458 29969 net.cpp:434] pool2 <- conv2
I0409 08:13:54.317466 29969 net.cpp:408] pool2 -> pool2
I0409 08:13:54.317520 29969 net.cpp:150] Setting up pool2
I0409 08:13:54.317530 29969 net.cpp:157] Top shape: 1024 150 9 9 (12441600)
I0409 08:13:54.317534 29969 net.cpp:165] Memory required for data: 2101915648
I0409 08:13:54.317544 29969 layer_factory.hpp:77] Creating layer conv3
I0409 08:13:54.317554 29969 net.cpp:100] Creating Layer conv3
I0409 08:13:54.317560 29969 net.cpp:434] conv3 <- pool2
I0409 08:13:54.317566 29969 net.cpp:408] conv3 -> conv3
I0409 08:13:54.324303 29969 net.cpp:150] Setting up conv3
I0409 08:13:54.324324 29969 net.cpp:157] Top shape: 1024 250 6 6 (9216000)
I0409 08:13:54.324329 29969 net.cpp:165] Memory required for data: 2138779648
I0409 08:13:54.324342 29969 layer_factory.hpp:77] Creating layer conv3_relu
I0409 08:13:54.324353 29969 net.cpp:100] Creating Layer conv3_relu
I0409 08:13:54.324358 29969 net.cpp:434] conv3_relu <- conv3
I0409 08:13:54.324364 29969 net.cpp:395] conv3_relu -> conv3 (in-place)
I0409 08:13:54.325292 29969 net.cpp:150] Setting up conv3_relu
I0409 08:13:54.325311 29969 net.cpp:157] Top shape: 1024 250 6 6 (9216000)
I0409 08:13:54.325316 29969 net.cpp:165] Memory required for data: 2175643648
I0409 08:13:54.325320 29969 layer_factory.hpp:77] Creating layer pool3
I0409 08:13:54.325330 29969 net.cpp:100] Creating Layer pool3
I0409 08:13:54.325335 29969 net.cpp:434] pool3 <- conv3
I0409 08:13:54.325342 29969 net.cpp:408] pool3 -> pool3
I0409 08:13:54.325433 29969 net.cpp:150] Setting up pool3
I0409 08:13:54.325444 29969 net.cpp:157] Top shape: 1024 250 3 3 (2304000)
I0409 08:13:54.325449 29969 net.cpp:165] Memory required for data: 2184859648
I0409 08:13:54.325453 29969 layer_factory.hpp:77] Creating layer fc4_300
I0409 08:13:54.325462 29969 net.cpp:100] Creating Layer fc4_300
I0409 08:13:54.325469 29969 net.cpp:434] fc4_300 <- pool3
I0409 08:13:54.325476 29969 net.cpp:408] fc4_300 -> fc4_300
I0409 08:13:54.332063 29969 net.cpp:150] Setting up fc4_300
I0409 08:13:54.332083 29969 net.cpp:157] Top shape: 1024 300 (307200)
I0409 08:13:54.332087 29969 net.cpp:165] Memory required for data: 2186088448
I0409 08:13:54.332096 29969 layer_factory.hpp:77] Creating layer fc4_relu
I0409 08:13:54.332104 29969 net.cpp:100] Creating Layer fc4_relu
I0409 08:13:54.332109 29969 net.cpp:434] fc4_relu <- fc4_300
I0409 08:13:54.332118 29969 net.cpp:395] fc4_relu -> fc4_300 (in-place)
I0409 08:13:54.332353 29969 net.cpp:150] Setting up fc4_relu
I0409 08:13:54.332367 29969 net.cpp:157] Top shape: 1024 300 (307200)
I0409 08:13:54.332373 29969 net.cpp:165] Memory required for data: 2187317248
I0409 08:13:54.332377 29969 layer_factory.hpp:77] Creating layer drop4
I0409 08:13:54.332388 29969 net.cpp:100] Creating Layer drop4
I0409 08:13:54.332393 29969 net.cpp:434] drop4 <- fc4_300
I0409 08:13:54.332399 29969 net.cpp:395] drop4 -> fc4_300 (in-place)
I0409 08:13:54.332439 29969 net.cpp:150] Setting up drop4
I0409 08:13:54.332448 29969 net.cpp:157] Top shape: 1024 300 (307200)
I0409 08:13:54.332453 29969 net.cpp:165] Memory required for data: 2188546048
I0409 08:13:54.332456 29969 layer_factory.hpp:77] Creating layer fc5_67
I0409 08:13:54.332463 29969 net.cpp:100] Creating Layer fc5_67
I0409 08:13:54.332469 29969 net.cpp:434] fc5_67 <- fc4_300
I0409 08:13:54.332478 29969 net.cpp:408] fc5_67 -> fc5_classes
I0409 08:13:54.333886 29969 net.cpp:150] Setting up fc5_67
I0409 08:13:54.333905 29969 net.cpp:157] Top shape: 1024 67 (68608)
I0409 08:13:54.333909 29969 net.cpp:165] Memory required for data: 2188820480
I0409 08:13:54.333921 29969 layer_factory.hpp:77] Creating layer loss
I0409 08:13:54.333930 29969 net.cpp:100] Creating Layer loss
I0409 08:13:54.333935 29969 net.cpp:434] loss <- fc5_classes
I0409 08:13:54.333940 29969 net.cpp:434] loss <- label
I0409 08:13:54.333950 29969 net.cpp:408] loss -> loss
I0409 08:13:54.333967 29969 layer_factory.hpp:77] Creating layer loss
…
I0409 08:13:54.334746 29969 solver.cpp:193] Creating test net (#0) specified by test_net file: ./Prototxt/experiment_6/rtsd-r1/AHE/trial_5/test.prototxt
I0409 08:13:54.334914 29969 net.cpp:58] Initializing net from parameters: 
state {
  phase: TEST
}
layer {
  name: "data"
  type: "Data"
  top: "data"
  top: "label"
  include {
    phase: TEST
  }
  transform_param {
    mirror: false
    crop_size: 48
    mean_value: 126
    mean_value: 124
    mean_value: 145
  }
  data_param {
    source: "../local_data/lmdb/rtsd-r1/AHE/test/lmdb"
    batch_size: 1024
    backend: LMDB
  }
}
layer {
  name: "conv1"
  type: "Convolution"
  bottom: "data"
  top: "conv1"
  convolution_param {
    num_output: 100
    pad: 0
    kernel_size: 7
    group: 1
    stride: 1
    weight_filler {
      type: "xavier"
    }
  }
}
layer {
  name: "conv1_relu"
  type: "ReLU"
  bottom: "conv1"
  top: "conv1"
}
layer {
  name: "pool1"
  type: "Pooling"
  bottom: "conv1"
  top: "pool1"
  pooling_param {
    pool: MAX
    kernel_size: 2
    stride: 2
  }
}
layer {
  name: "conv2"
  type: "Convolution"
  bottom: "pool1"
  top: "conv2"
  convolution_param {
    num_output: 150
    pad: 0
    kernel_size: 4
    group: 1
    stride: 1
    weight_filler {
      type: "xavier"
    }
  }
}
layer {
  name: "conv2_relu"
  type: "ReLU"
  bottom: "conv2"
  top: "conv2"
}
layer {
  name: "pool2"
  type: "Pooling"
  bottom: "conv2"
  top: "pool2"
  pooling_param {
    pool: MAX
    kernel_size: 2
    stride: 2
  }
}
layer {
  name: "conv3"
  type: "Convolution"
  bottom: "pool2"
  top: "conv3"
  convolution_param {
    num_output: 250
    pad: 0
    kernel_size: 4
    group: 1
    stride: 1
    weight_filler {
      type: "xavier"
    }
  }
}
layer {
  name: "conv3_relu"
  type: "ReLU"
  bottom: "conv3"
  top: "conv3"
}
layer {
  name: "pool3"
  type: "Pooling"
  bottom: "conv3"
  top: "pool3"
  pooling_param {
    pool: MAX
    kernel_size: 2
    stride: 2
  }
}
layer {
  name: "fc4_300"
  type: "InnerProduct"
  bottom: "pool3"
  top: "fc4_300"
  inner_product_param {
    num_output: 300
    weight_filler {
      type: "xavier"
    }
  }
}
layer {
  name: "fc4_relu"
  type: "ReLU"
  bottom: "fc4_300"
  top: "fc4_300"
}
layer {
  name: "drop4"
  type: "Dropout"
  bottom: "fc4_300"
  top: "fc4_300"
  dropout_param {
    dropout_ratio: 0.4
  }
}
layer {
  name: "fc5_67"
  type: "InnerProduct"
  bottom: "fc4_300"
  top: "fc5_classes"
  inner_product_param {
    num_output: 67
    weight_filler {
      type: "xavier"
    }
  }
}
layer {
  name: "loss"
  type: "SoftmaxWithLoss"
  bottom: "fc5_classes"
  bottom: "label"
  top: "loss"
}
layer {
  name: "accuracy_1"
  type: "Accuracy"
  bottom: "fc5_classes"
  bottom: "label"
  top: "accuracy_1"
  include {
    phase: TEST
  }
  accuracy_param {
    top_k: 1
  }
}
layer {
  name: "accuracy_5"
  type: "Accuracy"
  bottom: "fc5_classes"
  bottom: "label"
  top: "accuracy_5"
  include {
    phase: TEST
  }
  accuracy_param {
    top_k: 5
  }
}
I0409 08:13:54.335027 29969 layer_factory.hpp:77] Creating layer data
I0409 08:13:54.335855 29969 net.cpp:100] Creating Layer data
I0409 08:13:54.335868 29969 net.cpp:408] data -> data
I0409 08:13:54.335892 29969 net.cpp:408] data -> label
I0409 08:13:54.337081 30059 db_lmdb.cpp:35] Opened lmdb ../local_data/lmdb/rtsd-r1/AHE/test/lmdb
I0409 08:13:54.337272 29969 data_layer.cpp:41] output data size: 1024,3,48,48
I0409 08:13:54.383289 29969 net.cpp:150] Setting up data
I0409 08:13:54.383319 29969 net.cpp:157] Top shape: 1024 3 48 48 (7077888)
I0409 08:13:54.383327 29969 net.cpp:157] Top shape: 1024 (1024)
I0409 08:13:54.383330 29969 net.cpp:165] Memory required for data: 28315648
I0409 08:13:54.383337 29969 layer_factory.hpp:77] Creating layer label_data_1_split
I0409 08:13:54.383354 29969 net.cpp:100] Creating Layer label_data_1_split
I0409 08:13:54.383363 29969 net.cpp:434] label_data_1_split <- label
I0409 08:13:54.383376 29969 net.cpp:408] label_data_1_split -> label_data_1_split_0
I0409 08:13:54.383396 29969 net.cpp:408] label_data_1_split -> label_data_1_split_1
I0409 08:13:54.383421 29969 net.cpp:408] label_data_1_split -> label_data_1_split_2
I0409 08:13:54.383574 29969 net.cpp:150] Setting up label_data_1_split
I0409 08:13:54.383589 29969 net.cpp:157] Top shape: 1024 (1024)
I0409 08:13:54.383594 29969 net.cpp:157] Top shape: 1024 (1024)
I0409 08:13:54.383597 29969 net.cpp:157] Top shape: 1024 (1024)
I0409 08:13:54.383601 29969 net.cpp:165] Memory required for data: 28327936
I0409 08:13:54.383605 29969 layer_factory.hpp:77] Creating layer conv1
I0409 08:13:54.383621 29969 net.cpp:100] Creating Layer conv1
I0409 08:13:54.383627 29969 net.cpp:434] conv1 <- data
I0409 08:13:54.383637 29969 net.cpp:408] conv1 -> conv1
I0409 08:13:54.385993 29969 net.cpp:150] Setting up conv1
I0409 08:13:54.386013 29969 net.cpp:157] Top shape: 1024 100 42 42 (180633600)
I0409 08:13:54.386018 29969 net.cpp:165] Memory required for data: 750862336
I0409 08:13:54.386032 29969 layer_factory.hpp:77] Creating layer conv1_relu
I0409 08:13:54.386041 29969 net.cpp:100] Creating Layer conv1_relu
I0409 08:13:54.386046 29969 net.cpp:434] conv1_relu <- conv1
I0409 08:13:54.386054 29969 net.cpp:395] conv1_relu -> conv1 (in-place)
I0409 08:13:54.386307 29969 net.cpp:150] Setting up conv1_relu
I0409 08:13:54.386320 29969 net.cpp:157] Top shape: 1024 100 42 42 (180633600)
I0409 08:13:54.386324 29969 net.cpp:165] Memory required for data: 1473396736
I0409 08:13:54.386329 29969 layer_factory.hpp:77] Creating layer pool1
I0409 08:13:54.386343 29969 net.cpp:100] Creating Layer pool1
I0409 08:13:54.386348 29969 net.cpp:434] pool1 <- conv1
I0409 08:13:54.386356 29969 net.cpp:408] pool1 -> pool1
I0409 08:13:54.386417 29969 net.cpp:150] Setting up pool1
I0409 08:13:54.386426 29969 net.cpp:157] Top shape: 1024 100 21 21 (45158400)
I0409 08:13:54.386430 29969 net.cpp:165] Memory required for data: 1654030336
I0409 08:13:54.386435 29969 layer_factory.hpp:77] Creating layer conv2
I0409 08:13:54.386446 29969 net.cpp:100] Creating Layer conv2
I0409 08:13:54.386452 29969 net.cpp:434] conv2 <- pool1
I0409 08:13:54.386461 29969 net.cpp:408] conv2 -> conv2
I0409 08:13:54.392971 29969 net.cpp:150] Setting up conv2
I0409 08:13:54.392993 29969 net.cpp:157] Top shape: 1024 150 18 18 (49766400)
I0409 08:13:54.392998 29969 net.cpp:165] Memory required for data: 1853095936
I0409 08:13:54.393013 29969 layer_factory.hpp:77] Creating layer conv2_relu
I0409 08:13:54.393023 29969 net.cpp:100] Creating Layer conv2_relu
I0409 08:13:54.393029 29969 net.cpp:434] conv2_relu <- conv2
I0409 08:13:54.393038 29969 net.cpp:395] conv2_relu -> conv2 (in-place)
I0409 08:13:54.396442 29969 net.cpp:150] Setting up conv2_relu
I0409 08:13:54.396463 29969 net.cpp:157] Top shape: 1024 150 18 18 (49766400)
I0409 08:13:54.396473 29969 net.cpp:165] Memory required for data: 2052161536
I0409 08:13:54.396478 29969 layer_factory.hpp:77] Creating layer pool2
I0409 08:13:54.396489 29969 net.cpp:100] Creating Layer pool2
I0409 08:13:54.396497 29969 net.cpp:434] pool2 <- conv2
I0409 08:13:54.396503 29969 net.cpp:408] pool2 -> pool2
I0409 08:13:54.396572 29969 net.cpp:150] Setting up pool2
I0409 08:13:54.396584 29969 net.cpp:157] Top shape: 1024 150 9 9 (12441600)
I0409 08:13:54.396591 29969 net.cpp:165] Memory required for data: 2101927936
I0409 08:13:54.396596 29969 layer_factory.hpp:77] Creating layer conv3
I0409 08:13:54.396612 29969 net.cpp:100] Creating Layer conv3
I0409 08:13:54.396620 29969 net.cpp:434] conv3 <- pool2
I0409 08:13:54.396626 29969 net.cpp:408] conv3 -> conv3
I0409 08:13:54.403839 29969 net.cpp:150] Setting up conv3
I0409 08:13:54.403861 29969 net.cpp:157] Top shape: 1024 250 6 6 (9216000)
I0409 08:13:54.403867 29969 net.cpp:165] Memory required for data: 2138791936
I0409 08:13:54.403893 29969 layer_factory.hpp:77] Creating layer conv3_relu
I0409 08:13:54.403920 29969 net.cpp:100] Creating Layer conv3_relu
I0409 08:13:54.403928 29969 net.cpp:434] conv3_relu <- conv3
I0409 08:13:54.403934 29969 net.cpp:395] conv3_relu -> conv3 (in-place)
I0409 08:13:54.405004 29969 net.cpp:150] Setting up conv3_relu
I0409 08:13:54.405024 29969 net.cpp:157] Top shape: 1024 250 6 6 (9216000)
I0409 08:13:54.405027 29969 net.cpp:165] Memory required for data: 2175655936
I0409 08:13:54.405053 29969 layer_factory.hpp:77] Creating layer pool3
I0409 08:13:54.405066 29969 net.cpp:100] Creating Layer pool3
I0409 08:13:54.405071 29969 net.cpp:434] pool3 <- conv3
I0409 08:13:54.405082 29969 net.cpp:408] pool3 -> pool3
I0409 08:13:54.405148 29969 net.cpp:150] Setting up pool3
I0409 08:13:54.405158 29969 net.cpp:157] Top shape: 1024 250 3 3 (2304000)
I0409 08:13:54.405163 29969 net.cpp:165] Memory required for data: 2184871936
I0409 08:13:54.405167 29969 layer_factory.hpp:77] Creating layer fc4_300
I0409 08:13:54.405179 29969 net.cpp:100] Creating Layer fc4_300
I0409 08:13:54.405185 29969 net.cpp:434] fc4_300 <- pool3
I0409 08:13:54.405194 29969 net.cpp:408] fc4_300 -> fc4_300
I0409 08:13:54.420815 29969 net.cpp:150] Setting up fc4_300
I0409 08:13:54.420841 29969 net.cpp:157] Top shape: 1024 300 (307200)
I0409 08:13:54.420850 29969 net.cpp:165] Memory required for data: 2186100736
I0409 08:13:54.420861 29969 layer_factory.hpp:77] Creating layer fc4_relu
I0409 08:13:54.420871 29969 net.cpp:100] Creating Layer fc4_relu
I0409 08:13:54.420878 29969 net.cpp:434] fc4_relu <- fc4_300
I0409 08:13:54.420886 29969 net.cpp:395] fc4_relu -> fc4_300 (in-place)
I0409 08:13:54.421147 29969 net.cpp:150] Setting up fc4_relu
I0409 08:13:54.421162 29969 net.cpp:157] Top shape: 1024 300 (307200)
I0409 08:13:54.421166 29969 net.cpp:165] Memory required for data: 2187329536
I0409 08:13:54.421170 29969 layer_factory.hpp:77] Creating layer drop4
I0409 08:13:54.421180 29969 net.cpp:100] Creating Layer drop4
I0409 08:13:54.421186 29969 net.cpp:434] drop4 <- fc4_300
I0409 08:13:54.421192 29969 net.cpp:395] drop4 -> fc4_300 (in-place)
I0409 08:13:54.421232 29969 net.cpp:150] Setting up drop4
I0409 08:13:54.421241 29969 net.cpp:157] Top shape: 1024 300 (307200)
I0409 08:13:54.421244 29969 net.cpp:165] Memory required for data: 2188558336
I0409 08:13:54.421248 29969 layer_factory.hpp:77] Creating layer fc5_67
I0409 08:13:54.421259 29969 net.cpp:100] Creating Layer fc5_67
I0409 08:13:54.421264 29969 net.cpp:434] fc5_67 <- fc4_300
I0409 08:13:54.421270 29969 net.cpp:408] fc5_67 -> fc5_classes
I0409 08:13:54.421586 29969 net.cpp:150] Setting up fc5_67
I0409 08:13:54.421597 29969 net.cpp:157] Top shape: 1024 67 (68608)
I0409 08:13:54.421599 29969 net.cpp:165] Memory required for data: 2188832768
I0409 08:13:54.421615 29969 layer_factory.hpp:77] Creating layer fc5_classes_fc5_67_0_split
I0409 08:13:54.421627 29969 net.cpp:100] Creating Layer fc5_classes_fc5_67_0_split
I0409 08:13:54.421633 29969 net.cpp:434] fc5_classes_fc5_67_0_split <- fc5_classes
I0409 08:13:54.421638 29969 net.cpp:408] fc5_classes_fc5_67_0_split -> fc5_classes_fc5_67_0_split_0
I0409 08:13:54.421648 29969 net.cpp:408] fc5_classes_fc5_67_0_split -> fc5_classes_fc5_67_0_split_1
I0409 08:13:54.421658 29969 net.cpp:408] fc5_classes_fc5_67_0_split -> fc5_classes_fc5_67_0_split_2
I0409 08:13:54.421723 29969 net.cpp:150] Setting up fc5_classes_fc5_67_0_split
I0409 08:13:54.421732 29969 net.cpp:157] Top shape: 1024 67 (68608)
I0409 08:13:54.421737 29969 net.cpp:157] Top shape: 1024 67 (68608)
I0409 08:13:54.421741 29969 net.cpp:157] Top shape: 1024 67 (68608)
I0409 08:13:54.421744 29969 net.cpp:165] Memory required for data: 2189656064
I0409 08:13:54.421748 29969 layer_factory.hpp:77] Creating layer loss
I0409 08:13:54.421758 29969 net.cpp:100] Creating Layer loss
I0409 08:13:54.421764 29969 net.cpp:434] loss <- fc5_classes_fc5_67_0_split_0
I0409 08:13:54.421771 29969 net.cpp:434] loss <- label_data_1_split_0
I0409 08:13:54.421782 29969 net.cpp:408] loss -> loss
…
