…
I0412 01:53:50.714854 18985 net.cpp:322] The NetState phase (0) differed from the phase (1) specified by a rule in layer accuracy_5
I0412 01:53:50.715044 18985 net.cpp:58] Initializing net from parameters: 
state {
  phase: TRAIN
  level: 0
  stage: ""
}
layer {
  name: "data"
  type: "Data"
  top: "data"
  top: "label"
  include {
    phase: TRAIN
  }
  transform_param {
    scale: 0.0039215689
    mirror: false
    crop_size: 48
    mean_value: 130
    mean_value: 123
    mean_value: 137
  }
  data_param {
    source: "../local_data/lmdb/rtsd-r1/histeq/train/lmdb"
    batch_size: 1024
    backend: LMDB
  }
}
layer {
  name: "conv1"
  type: "Convolution"
  bottom: "data"
  top: "conv1"
  convolution_param {
    num_output: 100
    pad: 0
    kernel_size: 7
    group: 1
    stride: 1
    weight_filler {
      type: "xavier"
    }
  }
}
layer {
  name: "conv1_prescale"
  type: "Scale"
  bottom: "conv1"
  top: "conv1"
  param {
    lr_mult: 0
    decay_mult: 0
  }
  scale_param {
    filler {
      value: 0.6666
    }
    bias_term: false
  }
}
layer {
  name: "conv1_sTanH"
  type: "TanH"
  bottom: "conv1"
  top: "conv1"
}
layer {
  name: "conv1_postscale"
  type: "Scale"
  bottom: "conv1"
  top: "conv1"
  param {
    lr_mult: 0
    decay_mult: 0
  }
  scale_param {
    filler {
      value: 1.7159
    }
    bias_term: false
  }
}
layer {
  name: "pool1"
  type: "Pooling"
  bottom: "conv1"
  top: "pool1"
  pooling_param {
    pool: MAX
    kernel_size: 2
    stride: 2
  }
}
layer {
  name: "conv2"
  type: "Convolution"
  bottom: "pool1"
  top: "conv2"
  convolution_param {
    num_output: 150
    pad: 0
    kernel_size: 4
    group: 1
    stride: 1
    weight_filler {
      type: "xavier"
    }
  }
}
layer {
  name: "conv2_prescale"
  type: "Scale"
  bottom: "conv2"
  top: "conv2"
  param {
    lr_mult: 0
    decay_mult: 0
  }
  scale_param {
    filler {
      value: 0.6666
    }
    bias_term: false
  }
}
layer {
  name: "conv2_sTanH"
  type: "TanH"
  bottom: "conv2"
  top: "conv2"
}
layer {
  name: "conv2_postscale"
  type: "Scale"
  bottom: "conv2"
  top: "conv2"
  param {
    lr_mult: 0
    decay_mult: 0
  }
  scale_param {
    filler {
      value: 1.7159
    }
    bias_term: false
  }
}
layer {
  name: "pool2"
  type: "Pooling"
  bottom: "conv2"
  top: "pool2"
  pooling_param {
    pool: MAX
    kernel_size: 2
    stride: 2
  }
}
layer {
  name: "conv3"
  type: "Convolution"
  bottom: "pool2"
  top: "conv3"
  convolution_param {
    num_output: 250
    pad: 0
    kernel_size: 4
    group: 1
    stride: 1
    weight_filler {
      type: "xavier"
    }
  }
}
layer {
  name: "conv3_prescale"
  type: "Scale"
  bottom: "conv3"
  top: "conv3"
  param {
    lr_mult: 0
    decay_mult: 0
  }
  scale_param {
    filler {
      value: 0.6666
    }
    bias_term: false
  }
}
layer {
  name: "conv3_sTanH"
  type: "TanH"
  bottom: "conv3"
  top: "conv3"
}
layer {
  name: "conv3_postscale"
  type: "Scale"
  bottom: "conv3"
  top: "conv3"
  param {
    lr_mult: 0
    decay_mult: 0
  }
  scale_param {
    filler {
      value: 1.7159
    }
    bias_term: false
  }
}
layer {
  name: "pool3"
  type: "Pooling"
  bottom: "conv3"
  top: "pool3"
  pooling_param {
    pool: MAX
    kernel_size: 2
    stride: 2
  }
}
layer {
  name: "fc4_300"
  type: "InnerProduct"
  bottom: "pool3"
  top: "fc4_300"
  inner_product_param {
    num_output: 300
    weight_filler {
      type: "xavier"
    }
  }
}
layer {
  name: "fc4_prescale"
  type: "Scale"
  bottom: "fc4_300"
  top: "fc4_300"
  param {
    lr_mult: 0
    decay_mult: 0
  }
  scale_param {
    filler {
      value: 0.6666
    }
    bias_term: false
  }
}
layer {
  name: "fc4_sTanH"
  type: "TanH"
  bottom: "fc4_300"
  top: "fc4_300"
}
layer {
  name: "fc4_postscale"
  type: "Scale"
  bottom: "fc4_300"
  top: "fc4_300"
  param {
    lr_mult: 0
    decay_mult: 0
  }
  scale_param {
    filler {
      value: 1.7159
    }
    bias_term: false
  }
}
layer {
  name: "drop4"
  type: "Dropout"
  bottom: "fc4_300"
  top: "fc4_300"
  dropout_param {
    dropout_ratio: 0.1
  }
}
layer {
  name: "fc5_67"
  type: "InnerProduct"
  bottom: "fc4_300"
  top: "fc5_classes"
  inner_product_param {
    num_output: 67
    weight_filler {
      type: "xavier"
    }
  }
}
layer {
  name: "loss"
  type: "SoftmaxWithLoss"
  bottom: "fc5_classes"
  bottom: "label"
  top: "loss"
}
I0412 01:53:50.715184 18985 layer_factory.hpp:77] Creating layer data
I0412 01:53:50.716918 18985 net.cpp:100] Creating Layer data
I0412 01:53:50.716945 18985 net.cpp:408] data -> data
I0412 01:53:50.716984 18985 net.cpp:408] data -> label
I0412 01:53:50.719310 19102 db_lmdb.cpp:35] Opened lmdb ../local_data/lmdb/rtsd-r1/histeq/train/lmdb
I0412 01:53:50.740365 18985 data_layer.cpp:41] output data size: 1024,3,48,48
I0412 01:53:50.803825 18985 net.cpp:150] Setting up data
I0412 01:53:50.803864 18985 net.cpp:157] Top shape: 1024 3 48 48 (7077888)
I0412 01:53:50.803870 18985 net.cpp:157] Top shape: 1024 (1024)
I0412 01:53:50.803874 18985 net.cpp:165] Memory required for data: 28315648
I0412 01:53:50.803900 18985 layer_factory.hpp:77] Creating layer conv1
I0412 01:53:50.803927 18985 net.cpp:100] Creating Layer conv1
I0412 01:53:50.803936 18985 net.cpp:434] conv1 <- data
I0412 01:53:50.803953 18985 net.cpp:408] conv1 -> conv1
I0412 01:53:51.178146 18985 net.cpp:150] Setting up conv1
I0412 01:53:51.178180 18985 net.cpp:157] Top shape: 1024 100 42 42 (180633600)
I0412 01:53:51.178185 18985 net.cpp:165] Memory required for data: 750850048
I0412 01:53:51.178211 18985 layer_factory.hpp:77] Creating layer conv1_prescale
I0412 01:53:51.178227 18985 net.cpp:100] Creating Layer conv1_prescale
I0412 01:53:51.178234 18985 net.cpp:434] conv1_prescale <- conv1
I0412 01:53:51.178242 18985 net.cpp:395] conv1_prescale -> conv1 (in-place)
I0412 01:53:51.178375 18985 net.cpp:150] Setting up conv1_prescale
I0412 01:53:51.178386 18985 net.cpp:157] Top shape: 1024 100 42 42 (180633600)
I0412 01:53:51.178391 18985 net.cpp:165] Memory required for data: 1473384448
I0412 01:53:51.178400 18985 layer_factory.hpp:77] Creating layer conv1_sTanH
I0412 01:53:51.178409 18985 net.cpp:100] Creating Layer conv1_sTanH
I0412 01:53:51.178416 18985 net.cpp:434] conv1_sTanH <- conv1
I0412 01:53:51.178421 18985 net.cpp:395] conv1_sTanH -> conv1 (in-place)
I0412 01:53:51.178658 18985 net.cpp:150] Setting up conv1_sTanH
I0412 01:53:51.178673 18985 net.cpp:157] Top shape: 1024 100 42 42 (180633600)
I0412 01:53:51.178678 18985 net.cpp:165] Memory required for data: 2195918848
I0412 01:53:51.178681 18985 layer_factory.hpp:77] Creating layer conv1_postscale
I0412 01:53:51.178690 18985 net.cpp:100] Creating Layer conv1_postscale
I0412 01:53:51.178696 18985 net.cpp:434] conv1_postscale <- conv1
I0412 01:53:51.178702 18985 net.cpp:395] conv1_postscale -> conv1 (in-place)
I0412 01:53:51.178819 18985 net.cpp:150] Setting up conv1_postscale
I0412 01:53:51.178829 18985 net.cpp:157] Top shape: 1024 100 42 42 (180633600)
I0412 01:53:51.178834 18985 net.cpp:165] Memory required for data: 2918453248
I0412 01:53:51.178840 18985 layer_factory.hpp:77] Creating layer pool1
I0412 01:53:51.178848 18985 net.cpp:100] Creating Layer pool1
I0412 01:53:51.178853 18985 net.cpp:434] pool1 <- conv1
I0412 01:53:51.178859 18985 net.cpp:408] pool1 -> pool1
I0412 01:53:51.178947 18985 net.cpp:150] Setting up pool1
I0412 01:53:51.178959 18985 net.cpp:157] Top shape: 1024 100 21 21 (45158400)
I0412 01:53:51.178964 18985 net.cpp:165] Memory required for data: 3099086848
I0412 01:53:51.178968 18985 layer_factory.hpp:77] Creating layer conv2
I0412 01:53:51.178980 18985 net.cpp:100] Creating Layer conv2
I0412 01:53:51.178987 18985 net.cpp:434] conv2 <- pool1
I0412 01:53:51.178992 18985 net.cpp:408] conv2 -> conv2
I0412 01:53:51.198668 18985 net.cpp:150] Setting up conv2
I0412 01:53:51.198696 18985 net.cpp:157] Top shape: 1024 150 18 18 (49766400)
I0412 01:53:51.198701 18985 net.cpp:165] Memory required for data: 3298152448
I0412 01:53:51.198717 18985 layer_factory.hpp:77] Creating layer conv2_prescale
I0412 01:53:51.198729 18985 net.cpp:100] Creating Layer conv2_prescale
I0412 01:53:51.198734 18985 net.cpp:434] conv2_prescale <- conv2
I0412 01:53:51.198746 18985 net.cpp:395] conv2_prescale -> conv2 (in-place)
I0412 01:53:51.198887 18985 net.cpp:150] Setting up conv2_prescale
I0412 01:53:51.198899 18985 net.cpp:157] Top shape: 1024 150 18 18 (49766400)
I0412 01:53:51.198901 18985 net.cpp:165] Memory required for data: 3497218048
I0412 01:53:51.198907 18985 layer_factory.hpp:77] Creating layer conv2_sTanH
I0412 01:53:51.198917 18985 net.cpp:100] Creating Layer conv2_sTanH
I0412 01:53:51.198920 18985 net.cpp:434] conv2_sTanH <- conv2
I0412 01:53:51.198925 18985 net.cpp:395] conv2_sTanH -> conv2 (in-place)
I0412 01:53:51.200151 18985 net.cpp:150] Setting up conv2_sTanH
I0412 01:53:51.200171 18985 net.cpp:157] Top shape: 1024 150 18 18 (49766400)
I0412 01:53:51.200176 18985 net.cpp:165] Memory required for data: 3696283648
I0412 01:53:51.200181 18985 layer_factory.hpp:77] Creating layer conv2_postscale
I0412 01:53:51.200191 18985 net.cpp:100] Creating Layer conv2_postscale
I0412 01:53:51.200197 18985 net.cpp:434] conv2_postscale <- conv2
I0412 01:53:51.200204 18985 net.cpp:395] conv2_postscale -> conv2 (in-place)
I0412 01:53:51.200328 18985 net.cpp:150] Setting up conv2_postscale
I0412 01:53:51.200340 18985 net.cpp:157] Top shape: 1024 150 18 18 (49766400)
I0412 01:53:51.200343 18985 net.cpp:165] Memory required for data: 3895349248
I0412 01:53:51.200350 18985 layer_factory.hpp:77] Creating layer pool2
I0412 01:53:51.200359 18985 net.cpp:100] Creating Layer pool2
I0412 01:53:51.200364 18985 net.cpp:434] pool2 <- conv2
I0412 01:53:51.200371 18985 net.cpp:408] pool2 -> pool2
I0412 01:53:51.200419 18985 net.cpp:150] Setting up pool2
I0412 01:53:51.200428 18985 net.cpp:157] Top shape: 1024 150 9 9 (12441600)
I0412 01:53:51.200431 18985 net.cpp:165] Memory required for data: 3945115648
I0412 01:53:51.200435 18985 layer_factory.hpp:77] Creating layer conv3
I0412 01:53:51.200446 18985 net.cpp:100] Creating Layer conv3
I0412 01:53:51.200451 18985 net.cpp:434] conv3 <- pool2
I0412 01:53:51.200458 18985 net.cpp:408] conv3 -> conv3
I0412 01:53:51.207288 18985 net.cpp:150] Setting up conv3
I0412 01:53:51.207309 18985 net.cpp:157] Top shape: 1024 250 6 6 (9216000)
I0412 01:53:51.207314 18985 net.cpp:165] Memory required for data: 3981979648
I0412 01:53:51.207326 18985 layer_factory.hpp:77] Creating layer conv3_prescale
I0412 01:53:51.207337 18985 net.cpp:100] Creating Layer conv3_prescale
I0412 01:53:51.207343 18985 net.cpp:434] conv3_prescale <- conv3
I0412 01:53:51.207350 18985 net.cpp:395] conv3_prescale -> conv3 (in-place)
I0412 01:53:51.207463 18985 net.cpp:150] Setting up conv3_prescale
I0412 01:53:51.207474 18985 net.cpp:157] Top shape: 1024 250 6 6 (9216000)
I0412 01:53:51.207478 18985 net.cpp:165] Memory required for data: 4018843648
I0412 01:53:51.207484 18985 layer_factory.hpp:77] Creating layer conv3_sTanH
I0412 01:53:51.207490 18985 net.cpp:100] Creating Layer conv3_sTanH
I0412 01:53:51.207494 18985 net.cpp:434] conv3_sTanH <- conv3
I0412 01:53:51.207499 18985 net.cpp:395] conv3_sTanH -> conv3 (in-place)
I0412 01:53:51.208742 18985 net.cpp:150] Setting up conv3_sTanH
I0412 01:53:51.208761 18985 net.cpp:157] Top shape: 1024 250 6 6 (9216000)
I0412 01:53:51.208770 18985 net.cpp:165] Memory required for data: 4055707648
I0412 01:53:51.208794 18985 layer_factory.hpp:77] Creating layer conv3_postscale
I0412 01:53:51.208806 18985 net.cpp:100] Creating Layer conv3_postscale
I0412 01:53:51.208809 18985 net.cpp:434] conv3_postscale <- conv3
I0412 01:53:51.208817 18985 net.cpp:395] conv3_postscale -> conv3 (in-place)
I0412 01:53:51.208936 18985 net.cpp:150] Setting up conv3_postscale
I0412 01:53:51.208948 18985 net.cpp:157] Top shape: 1024 250 6 6 (9216000)
I0412 01:53:51.208951 18985 net.cpp:165] Memory required for data: 4092571648
I0412 01:53:51.208958 18985 layer_factory.hpp:77] Creating layer pool3
I0412 01:53:51.208966 18985 net.cpp:100] Creating Layer pool3
I0412 01:53:51.208972 18985 net.cpp:434] pool3 <- conv3
I0412 01:53:51.208978 18985 net.cpp:408] pool3 -> pool3
I0412 01:53:51.209024 18985 net.cpp:150] Setting up pool3
I0412 01:53:51.209033 18985 net.cpp:157] Top shape: 1024 250 3 3 (2304000)
I0412 01:53:51.209036 18985 net.cpp:165] Memory required for data: 4101787648
I0412 01:53:51.209040 18985 layer_factory.hpp:77] Creating layer fc4_300
I0412 01:53:51.209050 18985 net.cpp:100] Creating Layer fc4_300
I0412 01:53:51.209056 18985 net.cpp:434] fc4_300 <- pool3
I0412 01:53:51.209062 18985 net.cpp:408] fc4_300 -> fc4_300
I0412 01:53:51.216773 18985 net.cpp:150] Setting up fc4_300
I0412 01:53:51.216794 18985 net.cpp:157] Top shape: 1024 300 (307200)
I0412 01:53:51.216797 18985 net.cpp:165] Memory required for data: 4103016448
I0412 01:53:51.216806 18985 layer_factory.hpp:77] Creating layer fc4_prescale
I0412 01:53:51.216815 18985 net.cpp:100] Creating Layer fc4_prescale
I0412 01:53:51.216821 18985 net.cpp:434] fc4_prescale <- fc4_300
I0412 01:53:51.216828 18985 net.cpp:395] fc4_prescale -> fc4_300 (in-place)
I0412 01:53:51.216938 18985 net.cpp:150] Setting up fc4_prescale
I0412 01:53:51.216948 18985 net.cpp:157] Top shape: 1024 300 (307200)
I0412 01:53:51.216951 18985 net.cpp:165] Memory required for data: 4104245248
I0412 01:53:51.216958 18985 layer_factory.hpp:77] Creating layer fc4_sTanH
I0412 01:53:51.216964 18985 net.cpp:100] Creating Layer fc4_sTanH
I0412 01:53:51.216970 18985 net.cpp:434] fc4_sTanH <- fc4_300
I0412 01:53:51.216975 18985 net.cpp:395] fc4_sTanH -> fc4_300 (in-place)
I0412 01:53:51.217201 18985 net.cpp:150] Setting up fc4_sTanH
I0412 01:53:51.217213 18985 net.cpp:157] Top shape: 1024 300 (307200)
I0412 01:53:51.217217 18985 net.cpp:165] Memory required for data: 4105474048
I0412 01:53:51.217221 18985 layer_factory.hpp:77] Creating layer fc4_postscale
I0412 01:53:51.217229 18985 net.cpp:100] Creating Layer fc4_postscale
I0412 01:53:51.217236 18985 net.cpp:434] fc4_postscale <- fc4_300
I0412 01:53:51.217242 18985 net.cpp:395] fc4_postscale -> fc4_300 (in-place)
I0412 01:53:51.217360 18985 net.cpp:150] Setting up fc4_postscale
I0412 01:53:51.217370 18985 net.cpp:157] Top shape: 1024 300 (307200)
I0412 01:53:51.217373 18985 net.cpp:165] Memory required for data: 4106702848
I0412 01:53:51.217378 18985 layer_factory.hpp:77] Creating layer drop4
I0412 01:53:51.217386 18985 net.cpp:100] Creating Layer drop4
I0412 01:53:51.217391 18985 net.cpp:434] drop4 <- fc4_300
I0412 01:53:51.217396 18985 net.cpp:395] drop4 -> fc4_300 (in-place)
I0412 01:53:51.217428 18985 net.cpp:150] Setting up drop4
I0412 01:53:51.217437 18985 net.cpp:157] Top shape: 1024 300 (307200)
I0412 01:53:51.217442 18985 net.cpp:165] Memory required for data: 4107931648
I0412 01:53:51.217445 18985 layer_factory.hpp:77] Creating layer fc5_67
I0412 01:53:51.217453 18985 net.cpp:100] Creating Layer fc5_67
I0412 01:53:51.217458 18985 net.cpp:434] fc5_67 <- fc4_300
I0412 01:53:51.217464 18985 net.cpp:408] fc5_67 -> fc5_classes
I0412 01:53:51.219560 18985 net.cpp:150] Setting up fc5_67
I0412 01:53:51.219578 18985 net.cpp:157] Top shape: 1024 67 (68608)
I0412 01:53:51.219583 18985 net.cpp:165] Memory required for data: 4108206080
I0412 01:53:51.219595 18985 layer_factory.hpp:77] Creating layer loss
I0412 01:53:51.219605 18985 net.cpp:100] Creating Layer loss
I0412 01:53:51.219609 18985 net.cpp:434] loss <- fc5_classes
I0412 01:53:51.219633 18985 net.cpp:434] loss <- label
I0412 01:53:51.219642 18985 net.cpp:408] loss -> loss
I0412 01:53:51.219658 18985 layer_factory.hpp:77] Creating layer loss
…
I0412 01:53:51.220680 18985 solver.cpp:193] Creating test net (#0) specified by test_net file: ./Prototxt/experiment_9/rtsd-r1/histeq/trial_5/test.prototxt
I0412 01:53:51.220909 18985 net.cpp:58] Initializing net from parameters: 
state {
  phase: TEST
}
layer {
  name: "data"
  type: "Data"
  top: "data"
  top: "label"
  include {
    phase: TEST
  }
  transform_param {
    scale: 0.0039215689
    mirror: false
    crop_size: 48
    mean_value: 124
    mean_value: 121
    mean_value: 142
  }
  data_param {
    source: "../local_data/lmdb/rtsd-r1/histeq/test/lmdb"
    batch_size: 1024
    backend: LMDB
  }
}
layer {
  name: "conv1"
  type: "Convolution"
  bottom: "data"
  top: "conv1"
  convolution_param {
    num_output: 100
    pad: 0
    kernel_size: 7
    group: 1
    stride: 1
    weight_filler {
      type: "xavier"
    }
  }
}
layer {
  name: "conv1_prescale"
  type: "Scale"
  bottom: "conv1"
  top: "conv1"
  param {
    lr_mult: 0
    decay_mult: 0
  }
  scale_param {
    filler {
      value: 0.6666
    }
    bias_term: false
  }
}
layer {
  name: "conv1_sTanH"
  type: "TanH"
  bottom: "conv1"
  top: "conv1"
}
layer {
  name: "conv1_postscale"
  type: "Scale"
  bottom: "conv1"
  top: "conv1"
  param {
    lr_mult: 0
    decay_mult: 0
  }
  scale_param {
    filler {
      value: 1.7159
    }
    bias_term: false
  }
}
layer {
  name: "pool1"
  type: "Pooling"
  bottom: "conv1"
  top: "pool1"
  pooling_param {
    pool: MAX
    kernel_size: 2
    stride: 2
  }
}
layer {
  name: "conv2"
  type: "Convolution"
  bottom: "pool1"
  top: "conv2"
  convolution_param {
    num_output: 150
    pad: 0
    kernel_size: 4
    group: 1
    stride: 1
    weight_filler {
      type: "xavier"
    }
  }
}
layer {
  name: "conv2_prescale"
  type: "Scale"
  bottom: "conv2"
  top: "conv2"
  param {
    lr_mult: 0
    decay_mult: 0
  }
  scale_param {
    filler {
      value: 0.6666
    }
    bias_term: false
  }
}
layer {
  name: "conv2_sTanH"
  type: "TanH"
  bottom: "conv2"
  top: "conv2"
}
layer {
  name: "conv2_postscale"
  type: "Scale"
  bottom: "conv2"
  top: "conv2"
  param {
    lr_mult: 0
    decay_mult: 0
  }
  scale_param {
    filler {
      value: 1.7159
    }
    bias_term: false
  }
}
layer {
  name: "pool2"
  type: "Pooling"
  bottom: "conv2"
  top: "pool2"
  pooling_param {
    pool: MAX
    kernel_size: 2
    stride: 2
  }
}
layer {
  name: "conv3"
  type: "Convolution"
  bottom: "pool2"
  top: "conv3"
  convolution_param {
    num_output: 250
    pad: 0
    kernel_size: 4
    group: 1
    stride: 1
    weight_filler {
      type: "xavier"
    }
  }
}
layer {
  name: "conv3_prescale"
  type: "Scale"
  bottom: "conv3"
  top: "conv3"
  param {
    lr_mult: 0
    decay_mult: 0
  }
  scale_param {
    filler {
      value: 0.6666
    }
    bias_term: false
  }
}
layer {
  name: "conv3_sTanH"
  type: "TanH"
  bottom: "conv3"
  top: "conv3"
}
layer {
  name: "conv3_postscale"
  type: "Scale"
  bottom: "conv3"
  top: "conv3"
  param {
    lr_mult: 0
    decay_mult: 0
  }
  scale_param {
    filler {
      value: 1.7159
    }
    bias_term: false
  }
}
layer {
  name: "pool3"
  type: "Pooling"
  bottom: "conv3"
  top: "pool3"
  pooling_param {
    pool: MAX
    kernel_size: 2
    stride: 2
  }
}
layer {
  name: "fc4_300"
  type: "InnerProduct"
  bottom: "pool3"
  top: "fc4_300"
  inner_product_param {
    num_output: 300
    weight_filler {
      type: "xavier"
    }
  }
}
layer {
  name: "fc4_prescale"
  type: "Scale"
  bottom: "fc4_300"
  top: "fc4_300"
  param {
    lr_mult: 0
    decay_mult: 0
  }
  scale_param {
    filler {
      value: 0.6666
    }
    bias_term: false
  }
}
layer {
  name: "fc4_sTanH"
  type: "TanH"
  bottom: "fc4_300"
  top: "fc4_300"
}
layer {
  name: "fc4_postscale"
  type: "Scale"
  bottom: "fc4_300"
  top: "fc4_300"
  param {
    lr_mult: 0
    decay_mult: 0
  }
  scale_param {
    filler {
      value: 1.7159
    }
    bias_term: false
  }
}
layer {
  name: "drop4"
  type: "Dropout"
  bottom: "fc4_300"
  top: "fc4_300"
  dropout_param {
    dropout_ratio: 0.1
  }
}
layer {
  name: "fc5_67"
  type: "InnerProduct"
  bottom: "fc4_300"
  top: "fc5_classes"
  inner_product_param {
    num_output: 67
    weight_filler {
      type: "xavier"
    }
  }
}
layer {
  name: "loss"
  type: "SoftmaxWithLoss"
  bottom: "fc5_classes"
  bottom: "label"
  top: "loss"
}
layer {
  name: "accuracy_1"
  type: "Accuracy"
  bottom: "fc5_classes"
  bottom: "label"
  top: "accuracy_1"
  include {
    phase: TEST
  }
  accuracy_param {
    top_k: 1
  }
}
layer {
  name: "accuracy_5"
  type: "Accuracy"
  bottom: "fc5_classes"
  bottom: "label"
  top: "accuracy_5"
  include {
    phase: TEST
  }
  accuracy_param {
    top_k: 5
  }
}
I0412 01:53:51.221058 18985 layer_factory.hpp:77] Creating layer data
I0412 01:53:51.222067 18985 net.cpp:100] Creating Layer data
I0412 01:53:51.222090 18985 net.cpp:408] data -> data
I0412 01:53:51.222110 18985 net.cpp:408] data -> label
I0412 01:53:51.226421 19149 db_lmdb.cpp:35] Opened lmdb ../local_data/lmdb/rtsd-r1/histeq/test/lmdb
I0412 01:53:51.226672 18985 data_layer.cpp:41] output data size: 1024,3,48,48
I0412 01:53:51.279497 18985 net.cpp:150] Setting up data
I0412 01:53:51.279531 18985 net.cpp:157] Top shape: 1024 3 48 48 (7077888)
I0412 01:53:51.279538 18985 net.cpp:157] Top shape: 1024 (1024)
I0412 01:53:51.279541 18985 net.cpp:165] Memory required for data: 28315648
I0412 01:53:51.279549 18985 layer_factory.hpp:77] Creating layer label_data_1_split
I0412 01:53:51.279566 18985 net.cpp:100] Creating Layer label_data_1_split
I0412 01:53:51.279569 18985 net.cpp:434] label_data_1_split <- label
I0412 01:53:51.279579 18985 net.cpp:408] label_data_1_split -> label_data_1_split_0
I0412 01:53:51.279593 18985 net.cpp:408] label_data_1_split -> label_data_1_split_1
I0412 01:53:51.279626 18985 net.cpp:408] label_data_1_split -> label_data_1_split_2
I0412 01:53:51.279734 18985 net.cpp:150] Setting up label_data_1_split
I0412 01:53:51.279745 18985 net.cpp:157] Top shape: 1024 (1024)
I0412 01:53:51.279749 18985 net.cpp:157] Top shape: 1024 (1024)
I0412 01:53:51.279754 18985 net.cpp:157] Top shape: 1024 (1024)
I0412 01:53:51.279757 18985 net.cpp:165] Memory required for data: 28327936
I0412 01:53:51.279760 18985 layer_factory.hpp:77] Creating layer conv1
I0412 01:53:51.279774 18985 net.cpp:100] Creating Layer conv1
I0412 01:53:51.279780 18985 net.cpp:434] conv1 <- data
I0412 01:53:51.279788 18985 net.cpp:408] conv1 -> conv1
I0412 01:53:51.288882 18985 net.cpp:150] Setting up conv1
I0412 01:53:51.288918 18985 net.cpp:157] Top shape: 1024 100 42 42 (180633600)
I0412 01:53:51.288923 18985 net.cpp:165] Memory required for data: 750862336
I0412 01:53:51.288939 18985 layer_factory.hpp:77] Creating layer conv1_prescale
I0412 01:53:51.288954 18985 net.cpp:100] Creating Layer conv1_prescale
I0412 01:53:51.288959 18985 net.cpp:434] conv1_prescale <- conv1
I0412 01:53:51.288965 18985 net.cpp:395] conv1_prescale -> conv1 (in-place)
I0412 01:53:51.289099 18985 net.cpp:150] Setting up conv1_prescale
I0412 01:53:51.289109 18985 net.cpp:157] Top shape: 1024 100 42 42 (180633600)
I0412 01:53:51.289113 18985 net.cpp:165] Memory required for data: 1473396736
I0412 01:53:51.289121 18985 layer_factory.hpp:77] Creating layer conv1_sTanH
I0412 01:53:51.289132 18985 net.cpp:100] Creating Layer conv1_sTanH
I0412 01:53:51.289139 18985 net.cpp:434] conv1_sTanH <- conv1
I0412 01:53:51.289144 18985 net.cpp:395] conv1_sTanH -> conv1 (in-place)
I0412 01:53:51.289369 18985 net.cpp:150] Setting up conv1_sTanH
I0412 01:53:51.289382 18985 net.cpp:157] Top shape: 1024 100 42 42 (180633600)
I0412 01:53:51.289387 18985 net.cpp:165] Memory required for data: 2195931136
I0412 01:53:51.289391 18985 layer_factory.hpp:77] Creating layer conv1_postscale
I0412 01:53:51.289399 18985 net.cpp:100] Creating Layer conv1_postscale
I0412 01:53:51.289404 18985 net.cpp:434] conv1_postscale <- conv1
I0412 01:53:51.289412 18985 net.cpp:395] conv1_postscale -> conv1 (in-place)
I0412 01:53:51.289541 18985 net.cpp:150] Setting up conv1_postscale
I0412 01:53:51.289551 18985 net.cpp:157] Top shape: 1024 100 42 42 (180633600)
I0412 01:53:51.289553 18985 net.cpp:165] Memory required for data: 2918465536
I0412 01:53:51.289559 18985 layer_factory.hpp:77] Creating layer pool1
I0412 01:53:51.289569 18985 net.cpp:100] Creating Layer pool1
I0412 01:53:51.289574 18985 net.cpp:434] pool1 <- conv1
I0412 01:53:51.289580 18985 net.cpp:408] pool1 -> pool1
I0412 01:53:51.289631 18985 net.cpp:150] Setting up pool1
I0412 01:53:51.289640 18985 net.cpp:157] Top shape: 1024 100 21 21 (45158400)
I0412 01:53:51.289644 18985 net.cpp:165] Memory required for data: 3099099136
I0412 01:53:51.289647 18985 layer_factory.hpp:77] Creating layer conv2
I0412 01:53:51.289659 18985 net.cpp:100] Creating Layer conv2
I0412 01:53:51.289664 18985 net.cpp:434] conv2 <- pool1
I0412 01:53:51.289670 18985 net.cpp:408] conv2 -> conv2
I0412 01:53:51.304301 18985 net.cpp:150] Setting up conv2
I0412 01:53:51.304330 18985 net.cpp:157] Top shape: 1024 150 18 18 (49766400)
I0412 01:53:51.304335 18985 net.cpp:165] Memory required for data: 3298164736
I0412 01:53:51.304352 18985 layer_factory.hpp:77] Creating layer conv2_prescale
I0412 01:53:51.304366 18985 net.cpp:100] Creating Layer conv2_prescale
I0412 01:53:51.304373 18985 net.cpp:434] conv2_prescale <- conv2
I0412 01:53:51.304381 18985 net.cpp:395] conv2_prescale -> conv2 (in-place)
I0412 01:53:51.304519 18985 net.cpp:150] Setting up conv2_prescale
I0412 01:53:51.304530 18985 net.cpp:157] Top shape: 1024 150 18 18 (49766400)
I0412 01:53:51.304535 18985 net.cpp:165] Memory required for data: 3497230336
I0412 01:53:51.304543 18985 layer_factory.hpp:77] Creating layer conv2_sTanH
I0412 01:53:51.304551 18985 net.cpp:100] Creating Layer conv2_sTanH
I0412 01:53:51.304556 18985 net.cpp:434] conv2_sTanH <- conv2
I0412 01:53:51.304561 18985 net.cpp:395] conv2_sTanH -> conv2 (in-place)
I0412 01:53:51.305719 18985 net.cpp:150] Setting up conv2_sTanH
I0412 01:53:51.305738 18985 net.cpp:157] Top shape: 1024 150 18 18 (49766400)
I0412 01:53:51.305747 18985 net.cpp:165] Memory required for data: 3696295936
I0412 01:53:51.305757 18985 layer_factory.hpp:77] Creating layer conv2_postscale
I0412 01:53:51.305765 18985 net.cpp:100] Creating Layer conv2_postscale
I0412 01:53:51.305771 18985 net.cpp:434] conv2_postscale <- conv2
I0412 01:53:51.305778 18985 net.cpp:395] conv2_postscale -> conv2 (in-place)
I0412 01:53:51.305905 18985 net.cpp:150] Setting up conv2_postscale
I0412 01:53:51.305917 18985 net.cpp:157] Top shape: 1024 150 18 18 (49766400)
I0412 01:53:51.305922 18985 net.cpp:165] Memory required for data: 3895361536
I0412 01:53:51.305928 18985 layer_factory.hpp:77] Creating layer pool2
I0412 01:53:51.305939 18985 net.cpp:100] Creating Layer pool2
I0412 01:53:51.305944 18985 net.cpp:434] pool2 <- conv2
I0412 01:53:51.305951 18985 net.cpp:408] pool2 -> pool2
I0412 01:53:51.306007 18985 net.cpp:150] Setting up pool2
I0412 01:53:51.306018 18985 net.cpp:157] Top shape: 1024 150 9 9 (12441600)
I0412 01:53:51.306025 18985 net.cpp:165] Memory required for data: 3945127936
I0412 01:53:51.306027 18985 layer_factory.hpp:77] Creating layer conv3
I0412 01:53:51.306038 18985 net.cpp:100] Creating Layer conv3
I0412 01:53:51.306043 18985 net.cpp:434] conv3 <- pool2
I0412 01:53:51.306051 18985 net.cpp:408] conv3 -> conv3
I0412 01:53:51.313174 18985 net.cpp:150] Setting up conv3
I0412 01:53:51.313202 18985 net.cpp:157] Top shape: 1024 250 6 6 (9216000)
I0412 01:53:51.313207 18985 net.cpp:165] Memory required for data: 3981991936
I0412 01:53:51.313221 18985 layer_factory.hpp:77] Creating layer conv3_prescale
I0412 01:53:51.313236 18985 net.cpp:100] Creating Layer conv3_prescale
I0412 01:53:51.313242 18985 net.cpp:434] conv3_prescale <- conv3
I0412 01:53:51.313258 18985 net.cpp:395] conv3_prescale -> conv3 (in-place)
I0412 01:53:51.313391 18985 net.cpp:150] Setting up conv3_prescale
I0412 01:53:51.313402 18985 net.cpp:157] Top shape: 1024 250 6 6 (9216000)
I0412 01:53:51.313408 18985 net.cpp:165] Memory required for data: 4018855936
I0412 01:53:51.313415 18985 layer_factory.hpp:77] Creating layer conv3_sTanH
I0412 01:53:51.313421 18985 net.cpp:100] Creating Layer conv3_sTanH
I0412 01:53:51.313431 18985 net.cpp:434] conv3_sTanH <- conv3
I0412 01:53:51.313441 18985 net.cpp:395] conv3_sTanH -> conv3 (in-place)
I0412 01:53:51.314570 18985 net.cpp:150] Setting up conv3_sTanH
I0412 01:53:51.314591 18985 net.cpp:157] Top shape: 1024 250 6 6 (9216000)
I0412 01:53:51.314596 18985 net.cpp:165] Memory required for data: 4055719936
I0412 01:53:51.314600 18985 layer_factory.hpp:77] Creating layer conv3_postscale
I0412 01:53:51.314611 18985 net.cpp:100] Creating Layer conv3_postscale
I0412 01:53:51.314617 18985 net.cpp:434] conv3_postscale <- conv3
I0412 01:53:51.314623 18985 net.cpp:395] conv3_postscale -> conv3 (in-place)
I0412 01:53:51.314756 18985 net.cpp:150] Setting up conv3_postscale
I0412 01:53:51.314767 18985 net.cpp:157] Top shape: 1024 250 6 6 (9216000)
I0412 01:53:51.314774 18985 net.cpp:165] Memory required for data: 4092583936
I0412 01:53:51.314779 18985 layer_factory.hpp:77] Creating layer pool3
I0412 01:53:51.314797 18985 net.cpp:100] Creating Layer pool3
I0412 01:53:51.314803 18985 net.cpp:434] pool3 <- conv3
I0412 01:53:51.314810 18985 net.cpp:408] pool3 -> pool3
I0412 01:53:51.314868 18985 net.cpp:150] Setting up pool3
I0412 01:53:51.314878 18985 net.cpp:157] Top shape: 1024 250 3 3 (2304000)
I0412 01:53:51.314883 18985 net.cpp:165] Memory required for data: 4101799936
I0412 01:53:51.314888 18985 layer_factory.hpp:77] Creating layer fc4_300
I0412 01:53:51.314896 18985 net.cpp:100] Creating Layer fc4_300
I0412 01:53:51.314901 18985 net.cpp:434] fc4_300 <- pool3
I0412 01:53:51.314909 18985 net.cpp:408] fc4_300 -> fc4_300
I0412 01:53:51.321701 18985 net.cpp:150] Setting up fc4_300
I0412 01:53:51.321724 18985 net.cpp:157] Top shape: 1024 300 (307200)
I0412 01:53:51.321730 18985 net.cpp:165] Memory required for data: 4103028736
I0412 01:53:51.321758 18985 layer_factory.hpp:77] Creating layer fc4_prescale
I0412 01:53:51.321769 18985 net.cpp:100] Creating Layer fc4_prescale
I0412 01:53:51.321775 18985 net.cpp:434] fc4_prescale <- fc4_300
I0412 01:53:51.321784 18985 net.cpp:395] fc4_prescale -> fc4_300 (in-place)
I0412 01:53:51.321907 18985 net.cpp:150] Setting up fc4_prescale
I0412 01:53:51.321919 18985 net.cpp:157] Top shape: 1024 300 (307200)
I0412 01:53:51.321924 18985 net.cpp:165] Memory required for data: 4104257536
I0412 01:53:51.321930 18985 layer_factory.hpp:77] Creating layer fc4_sTanH
I0412 01:53:51.321936 18985 net.cpp:100] Creating Layer fc4_sTanH
I0412 01:53:51.321943 18985 net.cpp:434] fc4_sTanH <- fc4_300
I0412 01:53:51.321948 18985 net.cpp:395] fc4_sTanH -> fc4_300 (in-place)
I0412 01:53:51.322194 18985 net.cpp:150] Setting up fc4_sTanH
I0412 01:53:51.322207 18985 net.cpp:157] Top shape: 1024 300 (307200)
I0412 01:53:51.322212 18985 net.cpp:165] Memory required for data: 4105486336
I0412 01:53:51.322216 18985 layer_factory.hpp:77] Creating layer fc4_postscale
I0412 01:53:51.322224 18985 net.cpp:100] Creating Layer fc4_postscale
I0412 01:53:51.322229 18985 net.cpp:434] fc4_postscale <- fc4_300
I0412 01:53:51.322249 18985 net.cpp:395] fc4_postscale -> fc4_300 (in-place)
I0412 01:53:51.322382 18985 net.cpp:150] Setting up fc4_postscale
I0412 01:53:51.322396 18985 net.cpp:157] Top shape: 1024 300 (307200)
I0412 01:53:51.322401 18985 net.cpp:165] Memory required for data: 4106715136
I0412 01:53:51.322407 18985 layer_factory.hpp:77] Creating layer drop4
I0412 01:53:51.322413 18985 net.cpp:100] Creating Layer drop4
I0412 01:53:51.322419 18985 net.cpp:434] drop4 <- fc4_300
I0412 01:53:51.322424 18985 net.cpp:395] drop4 -> fc4_300 (in-place)
I0412 01:53:51.322458 18985 net.cpp:150] Setting up drop4
I0412 01:53:51.322466 18985 net.cpp:157] Top shape: 1024 300 (307200)
I0412 01:53:51.322470 18985 net.cpp:165] Memory required for data: 4107943936
I0412 01:53:51.322474 18985 layer_factory.hpp:77] Creating layer fc5_67
I0412 01:53:51.322484 18985 net.cpp:100] Creating Layer fc5_67
I0412 01:53:51.322489 18985 net.cpp:434] fc5_67 <- fc4_300
I0412 01:53:51.322495 18985 net.cpp:408] fc5_67 -> fc5_classes
I0412 01:53:51.322803 18985 net.cpp:150] Setting up fc5_67
I0412 01:53:51.322813 18985 net.cpp:157] Top shape: 1024 67 (68608)
I0412 01:53:51.322816 18985 net.cpp:165] Memory required for data: 4108218368
I0412 01:53:51.322829 18985 layer_factory.hpp:77] Creating layer fc5_classes_fc5_67_0_split
I0412 01:53:51.322839 18985 net.cpp:100] Creating Layer fc5_classes_fc5_67_0_split
I0412 01:53:51.322845 18985 net.cpp:434] fc5_classes_fc5_67_0_split <- fc5_classes
I0412 01:53:51.322854 18985 net.cpp:408] fc5_classes_fc5_67_0_split -> fc5_classes_fc5_67_0_split_0
I0412 01:53:51.322863 18985 net.cpp:408] fc5_classes_fc5_67_0_split -> fc5_classes_fc5_67_0_split_1
I0412 01:53:51.322872 18985 net.cpp:408] fc5_classes_fc5_67_0_split -> fc5_classes_fc5_67_0_split_2
I0412 01:53:51.322943 18985 net.cpp:150] Setting up fc5_classes_fc5_67_0_split
I0412 01:53:51.322952 18985 net.cpp:157] Top shape: 1024 67 (68608)
I0412 01:53:51.322957 18985 net.cpp:157] Top shape: 1024 67 (68608)
I0412 01:53:51.322962 18985 net.cpp:157] Top shape: 1024 67 (68608)
I0412 01:53:51.322964 18985 net.cpp:165] Memory required for data: 4109041664
I0412 01:53:51.322968 18985 layer_factory.hpp:77] Creating layer loss
I0412 01:53:51.322976 18985 net.cpp:100] Creating Layer loss
I0412 01:53:51.322983 18985 net.cpp:434] loss <- fc5_classes_fc5_67_0_split_0
I0412 01:53:51.322988 18985 net.cpp:434] loss <- label_data_1_split_0
I0412 01:53:51.322994 18985 net.cpp:408] loss -> loss
…
