…
I0412 01:16:55.701511 10104 net.cpp:322] The NetState phase (0) differed from the phase (1) specified by a rule in layer accuracy_5
I0412 01:16:55.701675 10104 net.cpp:58] Initializing net from parameters: 
state {
  phase: TRAIN
  level: 0
  stage: ""
}
layer {
  name: "data"
  type: "Data"
  top: "data"
  top: "label"
  include {
    phase: TRAIN
  }
  transform_param {
    scale: 0.0039215689
    mirror: false
    crop_size: 48
    mean_value: 130
    mean_value: 123
    mean_value: 137
  }
  data_param {
    source: "../local_data/lmdb/rtsd-r1/histeq/train/lmdb"
    batch_size: 1024
    backend: LMDB
  }
}
layer {
  name: "conv1"
  type: "Convolution"
  bottom: "data"
  top: "conv1"
  convolution_param {
    num_output: 100
    pad: 0
    kernel_size: 7
    group: 1
    stride: 1
    weight_filler {
      type: "xavier"
    }
  }
}
layer {
  name: "conv1_prescale"
  type: "Scale"
  bottom: "conv1"
  top: "conv1"
  param {
    lr_mult: 0
    decay_mult: 0
  }
  scale_param {
    filler {
      value: 0.6666
    }
    bias_term: false
  }
}
layer {
  name: "conv1_sTanH"
  type: "TanH"
  bottom: "conv1"
  top: "conv1"
}
layer {
  name: "conv1_postscale"
  type: "Scale"
  bottom: "conv1"
  top: "conv1"
  param {
    lr_mult: 0
    decay_mult: 0
  }
  scale_param {
    filler {
      value: 1.7159
    }
    bias_term: false
  }
}
layer {
  name: "pool1"
  type: "Pooling"
  bottom: "conv1"
  top: "pool1"
  pooling_param {
    pool: MAX
    kernel_size: 2
    stride: 2
  }
}
layer {
  name: "conv2"
  type: "Convolution"
  bottom: "pool1"
  top: "conv2"
  convolution_param {
    num_output: 150
    pad: 0
    kernel_size: 4
    group: 1
    stride: 1
    weight_filler {
      type: "xavier"
    }
  }
}
layer {
  name: "conv2_prescale"
  type: "Scale"
  bottom: "conv2"
  top: "conv2"
  param {
    lr_mult: 0
    decay_mult: 0
  }
  scale_param {
    filler {
      value: 0.6666
    }
    bias_term: false
  }
}
layer {
  name: "conv2_sTanH"
  type: "TanH"
  bottom: "conv2"
  top: "conv2"
}
layer {
  name: "conv2_postscale"
  type: "Scale"
  bottom: "conv2"
  top: "conv2"
  param {
    lr_mult: 0
    decay_mult: 0
  }
  scale_param {
    filler {
      value: 1.7159
    }
    bias_term: false
  }
}
layer {
  name: "pool2"
  type: "Pooling"
  bottom: "conv2"
  top: "pool2"
  pooling_param {
    pool: MAX
    kernel_size: 2
    stride: 2
  }
}
layer {
  name: "conv3"
  type: "Convolution"
  bottom: "pool2"
  top: "conv3"
  convolution_param {
    num_output: 250
    pad: 0
    kernel_size: 4
    group: 1
    stride: 1
    weight_filler {
      type: "xavier"
    }
  }
}
layer {
  name: "conv3_prescale"
  type: "Scale"
  bottom: "conv3"
  top: "conv3"
  param {
    lr_mult: 0
    decay_mult: 0
  }
  scale_param {
    filler {
      value: 0.6666
    }
    bias_term: false
  }
}
layer {
  name: "conv3_sTanH"
  type: "TanH"
  bottom: "conv3"
  top: "conv3"
}
layer {
  name: "conv3_postscale"
  type: "Scale"
  bottom: "conv3"
  top: "conv3"
  param {
    lr_mult: 0
    decay_mult: 0
  }
  scale_param {
    filler {
      value: 1.7159
    }
    bias_term: false
  }
}
layer {
  name: "pool3"
  type: "Pooling"
  bottom: "conv3"
  top: "pool3"
  pooling_param {
    pool: MAX
    kernel_size: 2
    stride: 2
  }
}
layer {
  name: "fc4_300"
  type: "InnerProduct"
  bottom: "pool3"
  top: "fc4_300"
  inner_product_param {
    num_output: 300
    weight_filler {
      type: "xavier"
    }
  }
}
layer {
  name: "fc4_prescale"
  type: "Scale"
  bottom: "fc4_300"
  top: "fc4_300"
  param {
    lr_mult: 0
    decay_mult: 0
  }
  scale_param {
    filler {
      value: 0.6666
    }
    bias_term: false
  }
}
layer {
  name: "fc4_sTanH"
  type: "TanH"
  bottom: "fc4_300"
  top: "fc4_300"
}
layer {
  name: "fc4_postscale"
  type: "Scale"
  bottom: "fc4_300"
  top: "fc4_300"
  param {
    lr_mult: 0
    decay_mult: 0
  }
  scale_param {
    filler {
      value: 1.7159
    }
    bias_term: false
  }
}
layer {
  name: "drop4"
  type: "Dropout"
  bottom: "fc4_300"
  top: "fc4_300"
  dropout_param {
    dropout_ratio: 0.1
  }
}
layer {
  name: "fc5_67"
  type: "InnerProduct"
  bottom: "fc4_300"
  top: "fc5_classes"
  inner_product_param {
    num_output: 67
    weight_filler {
      type: "xavier"
    }
  }
}
layer {
  name: "loss"
  type: "SoftmaxWithLoss"
  bottom: "fc5_classes"
  bottom: "label"
  top: "loss"
}
I0412 01:16:55.701798 10104 layer_factory.hpp:77] Creating layer data
I0412 01:16:55.702899 10104 net.cpp:100] Creating Layer data
I0412 01:16:55.702917 10104 net.cpp:408] data -> data
I0412 01:16:55.702941 10104 net.cpp:408] data -> label
I0412 01:16:55.705255 10237 db_lmdb.cpp:35] Opened lmdb ../local_data/lmdb/rtsd-r1/histeq/train/lmdb
I0412 01:16:55.722689 10104 data_layer.cpp:41] output data size: 1024,3,48,48
I0412 01:16:55.775518 10104 net.cpp:150] Setting up data
I0412 01:16:55.775553 10104 net.cpp:157] Top shape: 1024 3 48 48 (7077888)
I0412 01:16:55.775559 10104 net.cpp:157] Top shape: 1024 (1024)
I0412 01:16:55.775563 10104 net.cpp:165] Memory required for data: 28315648
I0412 01:16:55.775574 10104 layer_factory.hpp:77] Creating layer conv1
I0412 01:16:55.775599 10104 net.cpp:100] Creating Layer conv1
I0412 01:16:55.775607 10104 net.cpp:434] conv1 <- data
I0412 01:16:55.775624 10104 net.cpp:408] conv1 -> conv1
I0412 01:16:56.148939 10104 net.cpp:150] Setting up conv1
I0412 01:16:56.148970 10104 net.cpp:157] Top shape: 1024 100 42 42 (180633600)
I0412 01:16:56.148974 10104 net.cpp:165] Memory required for data: 750850048
I0412 01:16:56.148998 10104 layer_factory.hpp:77] Creating layer conv1_prescale
I0412 01:16:56.149013 10104 net.cpp:100] Creating Layer conv1_prescale
I0412 01:16:56.149020 10104 net.cpp:434] conv1_prescale <- conv1
I0412 01:16:56.149027 10104 net.cpp:395] conv1_prescale -> conv1 (in-place)
I0412 01:16:56.149142 10104 net.cpp:150] Setting up conv1_prescale
I0412 01:16:56.149152 10104 net.cpp:157] Top shape: 1024 100 42 42 (180633600)
I0412 01:16:56.149166 10104 net.cpp:165] Memory required for data: 1473384448
I0412 01:16:56.149173 10104 layer_factory.hpp:77] Creating layer conv1_sTanH
I0412 01:16:56.149179 10104 net.cpp:100] Creating Layer conv1_sTanH
I0412 01:16:56.149183 10104 net.cpp:434] conv1_sTanH <- conv1
I0412 01:16:56.149188 10104 net.cpp:395] conv1_sTanH -> conv1 (in-place)
I0412 01:16:56.149394 10104 net.cpp:150] Setting up conv1_sTanH
I0412 01:16:56.149406 10104 net.cpp:157] Top shape: 1024 100 42 42 (180633600)
I0412 01:16:56.149411 10104 net.cpp:165] Memory required for data: 2195918848
I0412 01:16:56.149415 10104 layer_factory.hpp:77] Creating layer conv1_postscale
I0412 01:16:56.149423 10104 net.cpp:100] Creating Layer conv1_postscale
I0412 01:16:56.149427 10104 net.cpp:434] conv1_postscale <- conv1
I0412 01:16:56.149433 10104 net.cpp:395] conv1_postscale -> conv1 (in-place)
I0412 01:16:56.149528 10104 net.cpp:150] Setting up conv1_postscale
I0412 01:16:56.149538 10104 net.cpp:157] Top shape: 1024 100 42 42 (180633600)
I0412 01:16:56.149543 10104 net.cpp:165] Memory required for data: 2918453248
I0412 01:16:56.149547 10104 layer_factory.hpp:77] Creating layer pool1
I0412 01:16:56.149554 10104 net.cpp:100] Creating Layer pool1
I0412 01:16:56.149559 10104 net.cpp:434] pool1 <- conv1
I0412 01:16:56.149564 10104 net.cpp:408] pool1 -> pool1
I0412 01:16:56.149636 10104 net.cpp:150] Setting up pool1
I0412 01:16:56.149646 10104 net.cpp:157] Top shape: 1024 100 21 21 (45158400)
I0412 01:16:56.149651 10104 net.cpp:165] Memory required for data: 3099086848
I0412 01:16:56.149653 10104 layer_factory.hpp:77] Creating layer conv2
I0412 01:16:56.149664 10104 net.cpp:100] Creating Layer conv2
I0412 01:16:56.149668 10104 net.cpp:434] conv2 <- pool1
I0412 01:16:56.149682 10104 net.cpp:408] conv2 -> conv2
I0412 01:16:56.157299 10104 net.cpp:150] Setting up conv2
I0412 01:16:56.157326 10104 net.cpp:157] Top shape: 1024 150 18 18 (49766400)
I0412 01:16:56.157330 10104 net.cpp:165] Memory required for data: 3298152448
I0412 01:16:56.157343 10104 layer_factory.hpp:77] Creating layer conv2_prescale
I0412 01:16:56.157361 10104 net.cpp:100] Creating Layer conv2_prescale
I0412 01:16:56.157364 10104 net.cpp:434] conv2_prescale <- conv2
I0412 01:16:56.157371 10104 net.cpp:395] conv2_prescale -> conv2 (in-place)
I0412 01:16:56.157488 10104 net.cpp:150] Setting up conv2_prescale
I0412 01:16:56.157498 10104 net.cpp:157] Top shape: 1024 150 18 18 (49766400)
I0412 01:16:56.157501 10104 net.cpp:165] Memory required for data: 3497218048
I0412 01:16:56.157506 10104 layer_factory.hpp:77] Creating layer conv2_sTanH
I0412 01:16:56.157517 10104 net.cpp:100] Creating Layer conv2_sTanH
I0412 01:16:56.157522 10104 net.cpp:434] conv2_sTanH <- conv2
I0412 01:16:56.157526 10104 net.cpp:395] conv2_sTanH -> conv2 (in-place)
I0412 01:16:56.158687 10104 net.cpp:150] Setting up conv2_sTanH
I0412 01:16:56.158707 10104 net.cpp:157] Top shape: 1024 150 18 18 (49766400)
I0412 01:16:56.158712 10104 net.cpp:165] Memory required for data: 3696283648
I0412 01:16:56.158716 10104 layer_factory.hpp:77] Creating layer conv2_postscale
I0412 01:16:56.158730 10104 net.cpp:100] Creating Layer conv2_postscale
I0412 01:16:56.158735 10104 net.cpp:434] conv2_postscale <- conv2
I0412 01:16:56.158746 10104 net.cpp:395] conv2_postscale -> conv2 (in-place)
I0412 01:16:56.158886 10104 net.cpp:150] Setting up conv2_postscale
I0412 01:16:56.158900 10104 net.cpp:157] Top shape: 1024 150 18 18 (49766400)
I0412 01:16:56.158905 10104 net.cpp:165] Memory required for data: 3895349248
I0412 01:16:56.158911 10104 layer_factory.hpp:77] Creating layer pool2
I0412 01:16:56.158923 10104 net.cpp:100] Creating Layer pool2
I0412 01:16:56.158928 10104 net.cpp:434] pool2 <- conv2
I0412 01:16:56.158933 10104 net.cpp:408] pool2 -> pool2
I0412 01:16:56.158977 10104 net.cpp:150] Setting up pool2
I0412 01:16:56.158985 10104 net.cpp:157] Top shape: 1024 150 9 9 (12441600)
I0412 01:16:56.158990 10104 net.cpp:165] Memory required for data: 3945115648
I0412 01:16:56.158993 10104 layer_factory.hpp:77] Creating layer conv3
I0412 01:16:56.159003 10104 net.cpp:100] Creating Layer conv3
I0412 01:16:56.159008 10104 net.cpp:434] conv3 <- pool2
I0412 01:16:56.159013 10104 net.cpp:408] conv3 -> conv3
I0412 01:16:56.165788 10104 net.cpp:150] Setting up conv3
I0412 01:16:56.165812 10104 net.cpp:157] Top shape: 1024 250 6 6 (9216000)
I0412 01:16:56.165815 10104 net.cpp:165] Memory required for data: 3981979648
I0412 01:16:56.165827 10104 layer_factory.hpp:77] Creating layer conv3_prescale
I0412 01:16:56.165837 10104 net.cpp:100] Creating Layer conv3_prescale
I0412 01:16:56.165840 10104 net.cpp:434] conv3_prescale <- conv3
I0412 01:16:56.165849 10104 net.cpp:395] conv3_prescale -> conv3 (in-place)
I0412 01:16:56.165951 10104 net.cpp:150] Setting up conv3_prescale
I0412 01:16:56.165961 10104 net.cpp:157] Top shape: 1024 250 6 6 (9216000)
I0412 01:16:56.165964 10104 net.cpp:165] Memory required for data: 4018843648
I0412 01:16:56.165969 10104 layer_factory.hpp:77] Creating layer conv3_sTanH
I0412 01:16:56.165977 10104 net.cpp:100] Creating Layer conv3_sTanH
I0412 01:16:56.165982 10104 net.cpp:434] conv3_sTanH <- conv3
I0412 01:16:56.165985 10104 net.cpp:395] conv3_sTanH -> conv3 (in-place)
I0412 01:16:56.166911 10104 net.cpp:150] Setting up conv3_sTanH
I0412 01:16:56.166929 10104 net.cpp:157] Top shape: 1024 250 6 6 (9216000)
I0412 01:16:56.166931 10104 net.cpp:165] Memory required for data: 4055707648
I0412 01:16:56.166955 10104 layer_factory.hpp:77] Creating layer conv3_postscale
I0412 01:16:56.166967 10104 net.cpp:100] Creating Layer conv3_postscale
I0412 01:16:56.166972 10104 net.cpp:434] conv3_postscale <- conv3
I0412 01:16:56.166978 10104 net.cpp:395] conv3_postscale -> conv3 (in-place)
I0412 01:16:56.167085 10104 net.cpp:150] Setting up conv3_postscale
I0412 01:16:56.167094 10104 net.cpp:157] Top shape: 1024 250 6 6 (9216000)
I0412 01:16:56.167099 10104 net.cpp:165] Memory required for data: 4092571648
I0412 01:16:56.167104 10104 layer_factory.hpp:77] Creating layer pool3
I0412 01:16:56.167112 10104 net.cpp:100] Creating Layer pool3
I0412 01:16:56.167116 10104 net.cpp:434] pool3 <- conv3
I0412 01:16:56.167124 10104 net.cpp:408] pool3 -> pool3
I0412 01:16:56.167168 10104 net.cpp:150] Setting up pool3
I0412 01:16:56.167177 10104 net.cpp:157] Top shape: 1024 250 3 3 (2304000)
I0412 01:16:56.167181 10104 net.cpp:165] Memory required for data: 4101787648
I0412 01:16:56.167186 10104 layer_factory.hpp:77] Creating layer fc4_300
I0412 01:16:56.167196 10104 net.cpp:100] Creating Layer fc4_300
I0412 01:16:56.167201 10104 net.cpp:434] fc4_300 <- pool3
I0412 01:16:56.167206 10104 net.cpp:408] fc4_300 -> fc4_300
I0412 01:16:56.174644 10104 net.cpp:150] Setting up fc4_300
I0412 01:16:56.174661 10104 net.cpp:157] Top shape: 1024 300 (307200)
I0412 01:16:56.174664 10104 net.cpp:165] Memory required for data: 4103016448
I0412 01:16:56.174671 10104 layer_factory.hpp:77] Creating layer fc4_prescale
I0412 01:16:56.174679 10104 net.cpp:100] Creating Layer fc4_prescale
I0412 01:16:56.174682 10104 net.cpp:434] fc4_prescale <- fc4_300
I0412 01:16:56.174690 10104 net.cpp:395] fc4_prescale -> fc4_300 (in-place)
I0412 01:16:56.174782 10104 net.cpp:150] Setting up fc4_prescale
I0412 01:16:56.174790 10104 net.cpp:157] Top shape: 1024 300 (307200)
I0412 01:16:56.174793 10104 net.cpp:165] Memory required for data: 4104245248
I0412 01:16:56.174798 10104 layer_factory.hpp:77] Creating layer fc4_sTanH
I0412 01:16:56.174804 10104 net.cpp:100] Creating Layer fc4_sTanH
I0412 01:16:56.174808 10104 net.cpp:434] fc4_sTanH <- fc4_300
I0412 01:16:56.174813 10104 net.cpp:395] fc4_sTanH -> fc4_300 (in-place)
I0412 01:16:56.175011 10104 net.cpp:150] Setting up fc4_sTanH
I0412 01:16:56.175024 10104 net.cpp:157] Top shape: 1024 300 (307200)
I0412 01:16:56.175029 10104 net.cpp:165] Memory required for data: 4105474048
I0412 01:16:56.175031 10104 layer_factory.hpp:77] Creating layer fc4_postscale
I0412 01:16:56.175038 10104 net.cpp:100] Creating Layer fc4_postscale
I0412 01:16:56.175042 10104 net.cpp:434] fc4_postscale <- fc4_300
I0412 01:16:56.175050 10104 net.cpp:395] fc4_postscale -> fc4_300 (in-place)
I0412 01:16:56.175153 10104 net.cpp:150] Setting up fc4_postscale
I0412 01:16:56.175161 10104 net.cpp:157] Top shape: 1024 300 (307200)
I0412 01:16:56.175164 10104 net.cpp:165] Memory required for data: 4106702848
I0412 01:16:56.175169 10104 layer_factory.hpp:77] Creating layer drop4
I0412 01:16:56.175178 10104 net.cpp:100] Creating Layer drop4
I0412 01:16:56.175181 10104 net.cpp:434] drop4 <- fc4_300
I0412 01:16:56.175186 10104 net.cpp:395] drop4 -> fc4_300 (in-place)
I0412 01:16:56.175215 10104 net.cpp:150] Setting up drop4
I0412 01:16:56.175222 10104 net.cpp:157] Top shape: 1024 300 (307200)
I0412 01:16:56.175225 10104 net.cpp:165] Memory required for data: 4107931648
I0412 01:16:56.175230 10104 layer_factory.hpp:77] Creating layer fc5_67
I0412 01:16:56.175236 10104 net.cpp:100] Creating Layer fc5_67
I0412 01:16:56.175241 10104 net.cpp:434] fc5_67 <- fc4_300
I0412 01:16:56.175246 10104 net.cpp:408] fc5_67 -> fc5_classes
I0412 01:16:56.176733 10104 net.cpp:150] Setting up fc5_67
I0412 01:16:56.176749 10104 net.cpp:157] Top shape: 1024 67 (68608)
I0412 01:16:56.176755 10104 net.cpp:165] Memory required for data: 4108206080
I0412 01:16:56.176765 10104 layer_factory.hpp:77] Creating layer loss
I0412 01:16:56.176774 10104 net.cpp:100] Creating Layer loss
I0412 01:16:56.176779 10104 net.cpp:434] loss <- fc5_classes
I0412 01:16:56.176800 10104 net.cpp:434] loss <- label
I0412 01:16:56.176807 10104 net.cpp:408] loss -> loss
I0412 01:16:56.176823 10104 layer_factory.hpp:77] Creating layer loss
…
I0412 01:16:56.178324 10104 solver.cpp:193] Creating test net (#0) specified by test_net file: ./Prototxt/experiment_9/rtsd-r1/histeq/trial_4/test.prototxt
I0412 01:16:56.178715 10104 net.cpp:58] Initializing net from parameters: 
state {
  phase: TEST
}
layer {
  name: "data"
  type: "Data"
  top: "data"
  top: "label"
  include {
    phase: TEST
  }
  transform_param {
    scale: 0.0039215689
    mirror: false
    crop_size: 48
    mean_value: 124
    mean_value: 121
    mean_value: 142
  }
  data_param {
    source: "../local_data/lmdb/rtsd-r1/histeq/test/lmdb"
    batch_size: 1024
    backend: LMDB
  }
}
layer {
  name: "conv1"
  type: "Convolution"
  bottom: "data"
  top: "conv1"
  convolution_param {
    num_output: 100
    pad: 0
    kernel_size: 7
    group: 1
    stride: 1
    weight_filler {
      type: "xavier"
    }
  }
}
layer {
  name: "conv1_prescale"
  type: "Scale"
  bottom: "conv1"
  top: "conv1"
  param {
    lr_mult: 0
    decay_mult: 0
  }
  scale_param {
    filler {
      value: 0.6666
    }
    bias_term: false
  }
}
layer {
  name: "conv1_sTanH"
  type: "TanH"
  bottom: "conv1"
  top: "conv1"
}
layer {
  name: "conv1_postscale"
  type: "Scale"
  bottom: "conv1"
  top: "conv1"
  param {
    lr_mult: 0
    decay_mult: 0
  }
  scale_param {
    filler {
      value: 1.7159
    }
    bias_term: false
  }
}
layer {
  name: "pool1"
  type: "Pooling"
  bottom: "conv1"
  top: "pool1"
  pooling_param {
    pool: MAX
    kernel_size: 2
    stride: 2
  }
}
layer {
  name: "conv2"
  type: "Convolution"
  bottom: "pool1"
  top: "conv2"
  convolution_param {
    num_output: 150
    pad: 0
    kernel_size: 4
    group: 1
    stride: 1
    weight_filler {
      type: "xavier"
    }
  }
}
layer {
  name: "conv2_prescale"
  type: "Scale"
  bottom: "conv2"
  top: "conv2"
  param {
    lr_mult: 0
    decay_mult: 0
  }
  scale_param {
    filler {
      value: 0.6666
    }
    bias_term: false
  }
}
layer {
  name: "conv2_sTanH"
  type: "TanH"
  bottom: "conv2"
  top: "conv2"
}
layer {
  name: "conv2_postscale"
  type: "Scale"
  bottom: "conv2"
  top: "conv2"
  param {
    lr_mult: 0
    decay_mult: 0
  }
  scale_param {
    filler {
      value: 1.7159
    }
    bias_term: false
  }
}
layer {
  name: "pool2"
  type: "Pooling"
  bottom: "conv2"
  top: "pool2"
  pooling_param {
    pool: MAX
    kernel_size: 2
    stride: 2
  }
}
layer {
  name: "conv3"
  type: "Convolution"
  bottom: "pool2"
  top: "conv3"
  convolution_param {
    num_output: 250
    pad: 0
    kernel_size: 4
    group: 1
    stride: 1
    weight_filler {
      type: "xavier"
    }
  }
}
layer {
  name: "conv3_prescale"
  type: "Scale"
  bottom: "conv3"
  top: "conv3"
  param {
    lr_mult: 0
    decay_mult: 0
  }
  scale_param {
    filler {
      value: 0.6666
    }
    bias_term: false
  }
}
layer {
  name: "conv3_sTanH"
  type: "TanH"
  bottom: "conv3"
  top: "conv3"
}
layer {
  name: "conv3_postscale"
  type: "Scale"
  bottom: "conv3"
  top: "conv3"
  param {
    lr_mult: 0
    decay_mult: 0
  }
  scale_param {
    filler {
      value: 1.7159
    }
    bias_term: false
  }
}
layer {
  name: "pool3"
  type: "Pooling"
  bottom: "conv3"
  top: "pool3"
  pooling_param {
    pool: MAX
    kernel_size: 2
    stride: 2
  }
}
layer {
  name: "fc4_300"
  type: "InnerProduct"
  bottom: "pool3"
  top: "fc4_300"
  inner_product_param {
    num_output: 300
    weight_filler {
      type: "xavier"
    }
  }
}
layer {
  name: "fc4_prescale"
  type: "Scale"
  bottom: "fc4_300"
  top: "fc4_300"
  param {
    lr_mult: 0
    decay_mult: 0
  }
  scale_param {
    filler {
      value: 0.6666
    }
    bias_term: false
  }
}
layer {
  name: "fc4_sTanH"
  type: "TanH"
  bottom: "fc4_300"
  top: "fc4_300"
}
layer {
  name: "fc4_postscale"
  type: "Scale"
  bottom: "fc4_300"
  top: "fc4_300"
  param {
    lr_mult: 0
    decay_mult: 0
  }
  scale_param {
    filler {
      value: 1.7159
    }
    bias_term: false
  }
}
layer {
  name: "drop4"
  type: "Dropout"
  bottom: "fc4_300"
  top: "fc4_300"
  dropout_param {
    dropout_ratio: 0.1
  }
}
layer {
  name: "fc5_67"
  type: "InnerProduct"
  bottom: "fc4_300"
  top: "fc5_classes"
  inner_product_param {
    num_output: 67
    weight_filler {
      type: "xavier"
    }
  }
}
layer {
  name: "loss"
  type: "SoftmaxWithLoss"
  bottom: "fc5_classes"
  bottom: "label"
  top: "loss"
}
layer {
  name: "accuracy_1"
  type: "Accuracy"
  bottom: "fc5_classes"
  bottom: "label"
  top: "accuracy_1"
  include {
    phase: TEST
  }
  accuracy_param {
    top_k: 1
  }
}
layer {
  name: "accuracy_5"
  type: "Accuracy"
  bottom: "fc5_classes"
  bottom: "label"
  top: "accuracy_5"
  include {
    phase: TEST
  }
  accuracy_param {
    top_k: 5
  }
}
I0412 01:16:56.178979 10104 layer_factory.hpp:77] Creating layer data
I0412 01:16:56.179769 10104 net.cpp:100] Creating Layer data
I0412 01:16:56.179782 10104 net.cpp:408] data -> data
I0412 01:16:56.179793 10104 net.cpp:408] data -> label
I0412 01:16:56.182775 10304 db_lmdb.cpp:35] Opened lmdb ../local_data/lmdb/rtsd-r1/histeq/test/lmdb
I0412 01:16:56.182946 10104 data_layer.cpp:41] output data size: 1024,3,48,48
I0412 01:16:56.265007 10104 net.cpp:150] Setting up data
I0412 01:16:56.265035 10104 net.cpp:157] Top shape: 1024 3 48 48 (7077888)
I0412 01:16:56.265041 10104 net.cpp:157] Top shape: 1024 (1024)
I0412 01:16:56.265044 10104 net.cpp:165] Memory required for data: 28315648
I0412 01:16:56.265051 10104 layer_factory.hpp:77] Creating layer label_data_1_split
I0412 01:16:56.265066 10104 net.cpp:100] Creating Layer label_data_1_split
I0412 01:16:56.265070 10104 net.cpp:434] label_data_1_split <- label
I0412 01:16:56.265080 10104 net.cpp:408] label_data_1_split -> label_data_1_split_0
I0412 01:16:56.265094 10104 net.cpp:408] label_data_1_split -> label_data_1_split_1
I0412 01:16:56.265120 10104 net.cpp:408] label_data_1_split -> label_data_1_split_2
I0412 01:16:56.265260 10104 net.cpp:150] Setting up label_data_1_split
I0412 01:16:56.265271 10104 net.cpp:157] Top shape: 1024 (1024)
I0412 01:16:56.265276 10104 net.cpp:157] Top shape: 1024 (1024)
I0412 01:16:56.265280 10104 net.cpp:157] Top shape: 1024 (1024)
I0412 01:16:56.265283 10104 net.cpp:165] Memory required for data: 28327936
I0412 01:16:56.265286 10104 layer_factory.hpp:77] Creating layer conv1
I0412 01:16:56.265300 10104 net.cpp:100] Creating Layer conv1
I0412 01:16:56.265305 10104 net.cpp:434] conv1 <- data
I0412 01:16:56.265312 10104 net.cpp:408] conv1 -> conv1
I0412 01:16:56.267797 10104 net.cpp:150] Setting up conv1
I0412 01:16:56.267817 10104 net.cpp:157] Top shape: 1024 100 42 42 (180633600)
I0412 01:16:56.267820 10104 net.cpp:165] Memory required for data: 750862336
I0412 01:16:56.267832 10104 layer_factory.hpp:77] Creating layer conv1_prescale
I0412 01:16:56.267841 10104 net.cpp:100] Creating Layer conv1_prescale
I0412 01:16:56.267845 10104 net.cpp:434] conv1_prescale <- conv1
I0412 01:16:56.267853 10104 net.cpp:395] conv1_prescale -> conv1 (in-place)
I0412 01:16:56.268002 10104 net.cpp:150] Setting up conv1_prescale
I0412 01:16:56.268016 10104 net.cpp:157] Top shape: 1024 100 42 42 (180633600)
I0412 01:16:56.268019 10104 net.cpp:165] Memory required for data: 1473396736
I0412 01:16:56.268028 10104 layer_factory.hpp:77] Creating layer conv1_sTanH
I0412 01:16:56.268039 10104 net.cpp:100] Creating Layer conv1_sTanH
I0412 01:16:56.268045 10104 net.cpp:434] conv1_sTanH <- conv1
I0412 01:16:56.268050 10104 net.cpp:395] conv1_sTanH -> conv1 (in-place)
I0412 01:16:56.268260 10104 net.cpp:150] Setting up conv1_sTanH
I0412 01:16:56.268272 10104 net.cpp:157] Top shape: 1024 100 42 42 (180633600)
I0412 01:16:56.268277 10104 net.cpp:165] Memory required for data: 2195931136
I0412 01:16:56.268280 10104 layer_factory.hpp:77] Creating layer conv1_postscale
I0412 01:16:56.268290 10104 net.cpp:100] Creating Layer conv1_postscale
I0412 01:16:56.268295 10104 net.cpp:434] conv1_postscale <- conv1
I0412 01:16:56.268299 10104 net.cpp:395] conv1_postscale -> conv1 (in-place)
I0412 01:16:56.268416 10104 net.cpp:150] Setting up conv1_postscale
I0412 01:16:56.268429 10104 net.cpp:157] Top shape: 1024 100 42 42 (180633600)
I0412 01:16:56.268432 10104 net.cpp:165] Memory required for data: 2918465536
I0412 01:16:56.268437 10104 layer_factory.hpp:77] Creating layer pool1
I0412 01:16:56.268446 10104 net.cpp:100] Creating Layer pool1
I0412 01:16:56.268451 10104 net.cpp:434] pool1 <- conv1
I0412 01:16:56.268456 10104 net.cpp:408] pool1 -> pool1
I0412 01:16:56.268504 10104 net.cpp:150] Setting up pool1
I0412 01:16:56.268512 10104 net.cpp:157] Top shape: 1024 100 21 21 (45158400)
I0412 01:16:56.268517 10104 net.cpp:165] Memory required for data: 3099099136
I0412 01:16:56.268520 10104 layer_factory.hpp:77] Creating layer conv2
I0412 01:16:56.268530 10104 net.cpp:100] Creating Layer conv2
I0412 01:16:56.268534 10104 net.cpp:434] conv2 <- pool1
I0412 01:16:56.268543 10104 net.cpp:408] conv2 -> conv2
I0412 01:16:56.275564 10104 net.cpp:150] Setting up conv2
I0412 01:16:56.275586 10104 net.cpp:157] Top shape: 1024 150 18 18 (49766400)
I0412 01:16:56.275590 10104 net.cpp:165] Memory required for data: 3298164736
I0412 01:16:56.275602 10104 layer_factory.hpp:77] Creating layer conv2_prescale
I0412 01:16:56.275616 10104 net.cpp:100] Creating Layer conv2_prescale
I0412 01:16:56.275621 10104 net.cpp:434] conv2_prescale <- conv2
I0412 01:16:56.275629 10104 net.cpp:395] conv2_prescale -> conv2 (in-place)
I0412 01:16:56.275753 10104 net.cpp:150] Setting up conv2_prescale
I0412 01:16:56.275763 10104 net.cpp:157] Top shape: 1024 150 18 18 (49766400)
I0412 01:16:56.275768 10104 net.cpp:165] Memory required for data: 3497230336
I0412 01:16:56.275773 10104 layer_factory.hpp:77] Creating layer conv2_sTanH
I0412 01:16:56.275779 10104 net.cpp:100] Creating Layer conv2_sTanH
I0412 01:16:56.275784 10104 net.cpp:434] conv2_sTanH <- conv2
I0412 01:16:56.275791 10104 net.cpp:395] conv2_sTanH -> conv2 (in-place)
I0412 01:16:56.277878 10104 net.cpp:150] Setting up conv2_sTanH
I0412 01:16:56.277904 10104 net.cpp:157] Top shape: 1024 150 18 18 (49766400)
I0412 01:16:56.277910 10104 net.cpp:165] Memory required for data: 3696295936
I0412 01:16:56.277917 10104 layer_factory.hpp:77] Creating layer conv2_postscale
I0412 01:16:56.277933 10104 net.cpp:100] Creating Layer conv2_postscale
I0412 01:16:56.277941 10104 net.cpp:434] conv2_postscale <- conv2
I0412 01:16:56.277952 10104 net.cpp:395] conv2_postscale -> conv2 (in-place)
I0412 01:16:56.278128 10104 net.cpp:150] Setting up conv2_postscale
I0412 01:16:56.278142 10104 net.cpp:157] Top shape: 1024 150 18 18 (49766400)
I0412 01:16:56.278148 10104 net.cpp:165] Memory required for data: 3895361536
I0412 01:16:56.278157 10104 layer_factory.hpp:77] Creating layer pool2
I0412 01:16:56.278169 10104 net.cpp:100] Creating Layer pool2
I0412 01:16:56.278177 10104 net.cpp:434] pool2 <- conv2
I0412 01:16:56.278197 10104 net.cpp:408] pool2 -> pool2
I0412 01:16:56.278285 10104 net.cpp:150] Setting up pool2
I0412 01:16:56.278300 10104 net.cpp:157] Top shape: 1024 150 9 9 (12441600)
I0412 01:16:56.278304 10104 net.cpp:165] Memory required for data: 3945127936
I0412 01:16:56.278311 10104 layer_factory.hpp:77] Creating layer conv3
I0412 01:16:56.278327 10104 net.cpp:100] Creating Layer conv3
I0412 01:16:56.278336 10104 net.cpp:434] conv3 <- pool2
I0412 01:16:56.278344 10104 net.cpp:408] conv3 -> conv3
I0412 01:16:56.286501 10104 net.cpp:150] Setting up conv3
I0412 01:16:56.286527 10104 net.cpp:157] Top shape: 1024 250 6 6 (9216000)
I0412 01:16:56.286531 10104 net.cpp:165] Memory required for data: 3981991936
I0412 01:16:56.286542 10104 layer_factory.hpp:77] Creating layer conv3_prescale
I0412 01:16:56.286556 10104 net.cpp:100] Creating Layer conv3_prescale
I0412 01:16:56.286561 10104 net.cpp:434] conv3_prescale <- conv3
I0412 01:16:56.286567 10104 net.cpp:395] conv3_prescale -> conv3 (in-place)
I0412 01:16:56.286674 10104 net.cpp:150] Setting up conv3_prescale
I0412 01:16:56.286684 10104 net.cpp:157] Top shape: 1024 250 6 6 (9216000)
I0412 01:16:56.286687 10104 net.cpp:165] Memory required for data: 4018855936
I0412 01:16:56.286692 10104 layer_factory.hpp:77] Creating layer conv3_sTanH
I0412 01:16:56.286700 10104 net.cpp:100] Creating Layer conv3_sTanH
I0412 01:16:56.286705 10104 net.cpp:434] conv3_sTanH <- conv3
I0412 01:16:56.286712 10104 net.cpp:395] conv3_sTanH -> conv3 (in-place)
I0412 01:16:56.287817 10104 net.cpp:150] Setting up conv3_sTanH
I0412 01:16:56.287833 10104 net.cpp:157] Top shape: 1024 250 6 6 (9216000)
I0412 01:16:56.287837 10104 net.cpp:165] Memory required for data: 4055719936
I0412 01:16:56.287842 10104 layer_factory.hpp:77] Creating layer conv3_postscale
I0412 01:16:56.287850 10104 net.cpp:100] Creating Layer conv3_postscale
I0412 01:16:56.287854 10104 net.cpp:434] conv3_postscale <- conv3
I0412 01:16:56.287860 10104 net.cpp:395] conv3_postscale -> conv3 (in-place)
I0412 01:16:56.287999 10104 net.cpp:150] Setting up conv3_postscale
I0412 01:16:56.288012 10104 net.cpp:157] Top shape: 1024 250 6 6 (9216000)
I0412 01:16:56.288015 10104 net.cpp:165] Memory required for data: 4092583936
I0412 01:16:56.288022 10104 layer_factory.hpp:77] Creating layer pool3
I0412 01:16:56.288036 10104 net.cpp:100] Creating Layer pool3
I0412 01:16:56.288041 10104 net.cpp:434] pool3 <- conv3
I0412 01:16:56.288048 10104 net.cpp:408] pool3 -> pool3
I0412 01:16:56.288096 10104 net.cpp:150] Setting up pool3
I0412 01:16:56.288105 10104 net.cpp:157] Top shape: 1024 250 3 3 (2304000)
I0412 01:16:56.288108 10104 net.cpp:165] Memory required for data: 4101799936
I0412 01:16:56.288112 10104 layer_factory.hpp:77] Creating layer fc4_300
I0412 01:16:56.288120 10104 net.cpp:100] Creating Layer fc4_300
I0412 01:16:56.288125 10104 net.cpp:434] fc4_300 <- pool3
I0412 01:16:56.288131 10104 net.cpp:408] fc4_300 -> fc4_300
I0412 01:16:56.296007 10104 net.cpp:150] Setting up fc4_300
I0412 01:16:56.296035 10104 net.cpp:157] Top shape: 1024 300 (307200)
I0412 01:16:56.296037 10104 net.cpp:165] Memory required for data: 4103028736
I0412 01:16:56.296066 10104 layer_factory.hpp:77] Creating layer fc4_prescale
I0412 01:16:56.296083 10104 net.cpp:100] Creating Layer fc4_prescale
I0412 01:16:56.296089 10104 net.cpp:434] fc4_prescale <- fc4_300
I0412 01:16:56.296098 10104 net.cpp:395] fc4_prescale -> fc4_300 (in-place)
I0412 01:16:56.296208 10104 net.cpp:150] Setting up fc4_prescale
I0412 01:16:56.296226 10104 net.cpp:157] Top shape: 1024 300 (307200)
I0412 01:16:56.296231 10104 net.cpp:165] Memory required for data: 4104257536
I0412 01:16:56.296236 10104 layer_factory.hpp:77] Creating layer fc4_sTanH
I0412 01:16:56.296242 10104 net.cpp:100] Creating Layer fc4_sTanH
I0412 01:16:56.296247 10104 net.cpp:434] fc4_sTanH <- fc4_300
I0412 01:16:56.296252 10104 net.cpp:395] fc4_sTanH -> fc4_300 (in-place)
I0412 01:16:56.296507 10104 net.cpp:150] Setting up fc4_sTanH
I0412 01:16:56.296519 10104 net.cpp:157] Top shape: 1024 300 (307200)
I0412 01:16:56.296524 10104 net.cpp:165] Memory required for data: 4105486336
I0412 01:16:56.296527 10104 layer_factory.hpp:77] Creating layer fc4_postscale
I0412 01:16:56.296533 10104 net.cpp:100] Creating Layer fc4_postscale
I0412 01:16:56.296538 10104 net.cpp:434] fc4_postscale <- fc4_300
I0412 01:16:56.296547 10104 net.cpp:395] fc4_postscale -> fc4_300 (in-place)
I0412 01:16:56.296655 10104 net.cpp:150] Setting up fc4_postscale
I0412 01:16:56.296663 10104 net.cpp:157] Top shape: 1024 300 (307200)
I0412 01:16:56.296669 10104 net.cpp:165] Memory required for data: 4106715136
I0412 01:16:56.296674 10104 layer_factory.hpp:77] Creating layer drop4
I0412 01:16:56.296682 10104 net.cpp:100] Creating Layer drop4
I0412 01:16:56.296686 10104 net.cpp:434] drop4 <- fc4_300
I0412 01:16:56.296694 10104 net.cpp:395] drop4 -> fc4_300 (in-place)
I0412 01:16:56.296720 10104 net.cpp:150] Setting up drop4
I0412 01:16:56.296727 10104 net.cpp:157] Top shape: 1024 300 (307200)
I0412 01:16:56.296730 10104 net.cpp:165] Memory required for data: 4107943936
I0412 01:16:56.296733 10104 layer_factory.hpp:77] Creating layer fc5_67
I0412 01:16:56.296742 10104 net.cpp:100] Creating Layer fc5_67
I0412 01:16:56.296746 10104 net.cpp:434] fc5_67 <- fc4_300
I0412 01:16:56.296751 10104 net.cpp:408] fc5_67 -> fc5_classes
I0412 01:16:56.297022 10104 net.cpp:150] Setting up fc5_67
I0412 01:16:56.297032 10104 net.cpp:157] Top shape: 1024 67 (68608)
I0412 01:16:56.297035 10104 net.cpp:165] Memory required for data: 4108218368
I0412 01:16:56.297046 10104 layer_factory.hpp:77] Creating layer fc5_classes_fc5_67_0_split
I0412 01:16:56.297055 10104 net.cpp:100] Creating Layer fc5_classes_fc5_67_0_split
I0412 01:16:56.297060 10104 net.cpp:434] fc5_classes_fc5_67_0_split <- fc5_classes
I0412 01:16:56.297071 10104 net.cpp:408] fc5_classes_fc5_67_0_split -> fc5_classes_fc5_67_0_split_0
I0412 01:16:56.297080 10104 net.cpp:408] fc5_classes_fc5_67_0_split -> fc5_classes_fc5_67_0_split_1
I0412 01:16:56.297087 10104 net.cpp:408] fc5_classes_fc5_67_0_split -> fc5_classes_fc5_67_0_split_2
I0412 01:16:56.297143 10104 net.cpp:150] Setting up fc5_classes_fc5_67_0_split
I0412 01:16:56.297152 10104 net.cpp:157] Top shape: 1024 67 (68608)
I0412 01:16:56.297155 10104 net.cpp:157] Top shape: 1024 67 (68608)
I0412 01:16:56.297158 10104 net.cpp:157] Top shape: 1024 67 (68608)
I0412 01:16:56.297161 10104 net.cpp:165] Memory required for data: 4109041664
I0412 01:16:56.297164 10104 layer_factory.hpp:77] Creating layer loss
I0412 01:16:56.297170 10104 net.cpp:100] Creating Layer loss
I0412 01:16:56.297178 10104 net.cpp:434] loss <- fc5_classes_fc5_67_0_split_0
I0412 01:16:56.297186 10104 net.cpp:434] loss <- label_data_1_split_0
I0412 01:16:56.297195 10104 net.cpp:408] loss -> loss
…
