…
I0402 18:07:10.049834 22799 net.cpp:322] The NetState phase (0) differed from the phase (1) specified by a rule in layer accuracy_5
I0402 18:07:10.049957 22799 net.cpp:58] Initializing net from parameters: 
state {
  phase: TRAIN
  level: 0
  stage: ""
}
layer {
  name: "data"
  type: "Data"
  top: "data"
  top: "label"
  include {
    phase: TRAIN
  }
  transform_param {
    mirror: false
    crop_size: 48
    mean_value: 118
    mean_value: 112
    mean_value: 112
  }
  data_param {
    source: "../local_data/lmdb/rtsd-r3/imajust/train/lmdb"
    batch_size: 1024
    backend: LMDB
  }
}
layer {
  name: "conv1"
  type: "Convolution"
  bottom: "data"
  top: "conv1"
  convolution_param {
    num_output: 100
    pad: 0
    kernel_size: 7
    group: 1
    stride: 1
    weight_filler {
      type: "xavier"
    }
  }
}
layer {
  name: "conv1_relu"
  type: "ReLU"
  bottom: "conv1"
  top: "conv1"
}
layer {
  name: "pool1"
  type: "Pooling"
  bottom: "conv1"
  top: "pool1"
  pooling_param {
    pool: MAX
    kernel_size: 2
    stride: 2
  }
}
layer {
  name: "conv2"
  type: "Convolution"
  bottom: "pool1"
  top: "conv2"
  convolution_param {
    num_output: 150
    pad: 0
    kernel_size: 4
    group: 1
    stride: 1
    weight_filler {
      type: "xavier"
    }
  }
}
layer {
  name: "conv2_relu"
  type: "ReLU"
  bottom: "conv2"
  top: "conv2"
}
layer {
  name: "pool2"
  type: "Pooling"
  bottom: "conv2"
  top: "pool2"
  pooling_param {
    pool: MAX
    kernel_size: 2
    stride: 2
  }
}
layer {
  name: "conv3"
  type: "Convolution"
  bottom: "pool2"
  top: "conv3"
  convolution_param {
    num_output: 250
    pad: 0
    kernel_size: 4
    group: 1
    stride: 1
    weight_filler {
      type: "xavier"
    }
  }
}
layer {
  name: "conv3_relu"
  type: "ReLU"
  bottom: "conv3"
  top: "conv3"
}
layer {
  name: "pool3"
  type: "Pooling"
  bottom: "conv3"
  top: "pool3"
  pooling_param {
    pool: MAX
    kernel_size: 2
    stride: 2
  }
}
layer {
  name: "fc4_300"
  type: "InnerProduct"
  bottom: "pool3"
  top: "fc4_300"
  inner_product_param {
    num_output: 300
    weight_filler {
      type: "xavier"
    }
  }
}
layer {
  name: "fc4_relu"
  type: "ReLU"
  bottom: "fc4_300"
  top: "fc4_300"
}
layer {
  name: "drop4"
  type: "Dropout"
  bottom: "fc4_300"
  top: "fc4_300"
  dropout_param {
    dropout_ratio: 0.4
  }
}
layer {
  name: "fc5_106"
  type: "InnerProduct"
  bottom: "fc4_300"
  top: "fc5_classes"
  inner_product_param {
    num_output: 106
    weight_filler {
      type: "xavier"
    }
  }
}
layer {
  name: "loss"
  type: "SoftmaxWithLoss"
  bottom: "fc5_classes"
  bottom: "label"
  top: "loss"
}
I0402 18:07:10.050043 22799 layer_factory.hpp:77] Creating layer data
I0402 18:07:10.051357 22799 net.cpp:100] Creating Layer data
I0402 18:07:10.051376 22799 net.cpp:408] data -> data
I0402 18:07:10.051404 22799 net.cpp:408] data -> label
I0402 18:07:10.053160 22854 db_lmdb.cpp:35] Opened lmdb ../local_data/lmdb/rtsd-r3/imajust/train/lmdb
I0402 18:07:10.073616 22799 data_layer.cpp:41] output data size: 1024,3,48,48
I0402 18:07:10.131958 22799 net.cpp:150] Setting up data
I0402 18:07:10.131994 22799 net.cpp:157] Top shape: 1024 3 48 48 (7077888)
I0402 18:07:10.131999 22799 net.cpp:157] Top shape: 1024 (1024)
I0402 18:07:10.132025 22799 net.cpp:165] Memory required for data: 28315648
I0402 18:07:10.132037 22799 layer_factory.hpp:77] Creating layer conv1
I0402 18:07:10.132061 22799 net.cpp:100] Creating Layer conv1
I0402 18:07:10.132071 22799 net.cpp:434] conv1 <- data
I0402 18:07:10.132087 22799 net.cpp:408] conv1 -> conv1
I0402 18:07:10.399248 22799 net.cpp:150] Setting up conv1
I0402 18:07:10.399276 22799 net.cpp:157] Top shape: 1024 100 42 42 (180633600)
I0402 18:07:10.399281 22799 net.cpp:165] Memory required for data: 750850048
I0402 18:07:10.399303 22799 layer_factory.hpp:77] Creating layer conv1_relu
I0402 18:07:10.399317 22799 net.cpp:100] Creating Layer conv1_relu
I0402 18:07:10.399322 22799 net.cpp:434] conv1_relu <- conv1
I0402 18:07:10.399327 22799 net.cpp:395] conv1_relu -> conv1 (in-place)
I0402 18:07:10.399540 22799 net.cpp:150] Setting up conv1_relu
I0402 18:07:10.399554 22799 net.cpp:157] Top shape: 1024 100 42 42 (180633600)
I0402 18:07:10.399559 22799 net.cpp:165] Memory required for data: 1473384448
I0402 18:07:10.399562 22799 layer_factory.hpp:77] Creating layer pool1
I0402 18:07:10.399569 22799 net.cpp:100] Creating Layer pool1
I0402 18:07:10.399574 22799 net.cpp:434] pool1 <- conv1
I0402 18:07:10.399579 22799 net.cpp:408] pool1 -> pool1
I0402 18:07:10.399637 22799 net.cpp:150] Setting up pool1
I0402 18:07:10.399647 22799 net.cpp:157] Top shape: 1024 100 21 21 (45158400)
I0402 18:07:10.399652 22799 net.cpp:165] Memory required for data: 1654018048
I0402 18:07:10.399654 22799 layer_factory.hpp:77] Creating layer conv2
I0402 18:07:10.399668 22799 net.cpp:100] Creating Layer conv2
I0402 18:07:10.399674 22799 net.cpp:434] conv2 <- pool1
I0402 18:07:10.399682 22799 net.cpp:408] conv2 -> conv2
I0402 18:07:10.404765 22799 net.cpp:150] Setting up conv2
I0402 18:07:10.404783 22799 net.cpp:157] Top shape: 1024 150 18 18 (49766400)
I0402 18:07:10.404788 22799 net.cpp:165] Memory required for data: 1853083648
I0402 18:07:10.404798 22799 layer_factory.hpp:77] Creating layer conv2_relu
I0402 18:07:10.404804 22799 net.cpp:100] Creating Layer conv2_relu
I0402 18:07:10.404808 22799 net.cpp:434] conv2_relu <- conv2
I0402 18:07:10.404814 22799 net.cpp:395] conv2_relu -> conv2 (in-place)
I0402 18:07:10.405623 22799 net.cpp:150] Setting up conv2_relu
I0402 18:07:10.405639 22799 net.cpp:157] Top shape: 1024 150 18 18 (49766400)
I0402 18:07:10.405643 22799 net.cpp:165] Memory required for data: 2052149248
I0402 18:07:10.405647 22799 layer_factory.hpp:77] Creating layer pool2
I0402 18:07:10.405654 22799 net.cpp:100] Creating Layer pool2
I0402 18:07:10.405658 22799 net.cpp:434] pool2 <- conv2
I0402 18:07:10.405663 22799 net.cpp:408] pool2 -> pool2
I0402 18:07:10.405712 22799 net.cpp:150] Setting up pool2
I0402 18:07:10.405721 22799 net.cpp:157] Top shape: 1024 150 9 9 (12441600)
I0402 18:07:10.405725 22799 net.cpp:165] Memory required for data: 2101915648
I0402 18:07:10.405728 22799 layer_factory.hpp:77] Creating layer conv3
I0402 18:07:10.405737 22799 net.cpp:100] Creating Layer conv3
I0402 18:07:10.405740 22799 net.cpp:434] conv3 <- pool2
I0402 18:07:10.405745 22799 net.cpp:408] conv3 -> conv3
I0402 18:07:10.418226 22799 net.cpp:150] Setting up conv3
I0402 18:07:10.418246 22799 net.cpp:157] Top shape: 1024 250 6 6 (9216000)
I0402 18:07:10.418251 22799 net.cpp:165] Memory required for data: 2138779648
I0402 18:07:10.418262 22799 layer_factory.hpp:77] Creating layer conv3_relu
I0402 18:07:10.418269 22799 net.cpp:100] Creating Layer conv3_relu
I0402 18:07:10.418273 22799 net.cpp:434] conv3_relu <- conv3
I0402 18:07:10.418278 22799 net.cpp:395] conv3_relu -> conv3 (in-place)
I0402 18:07:10.423902 22799 net.cpp:150] Setting up conv3_relu
I0402 18:07:10.423921 22799 net.cpp:157] Top shape: 1024 250 6 6 (9216000)
I0402 18:07:10.423925 22799 net.cpp:165] Memory required for data: 2175643648
I0402 18:07:10.423929 22799 layer_factory.hpp:77] Creating layer pool3
I0402 18:07:10.423938 22799 net.cpp:100] Creating Layer pool3
I0402 18:07:10.423940 22799 net.cpp:434] pool3 <- conv3
I0402 18:07:10.423946 22799 net.cpp:408] pool3 -> pool3
I0402 18:07:10.424017 22799 net.cpp:150] Setting up pool3
I0402 18:07:10.424029 22799 net.cpp:157] Top shape: 1024 250 3 3 (2304000)
I0402 18:07:10.424032 22799 net.cpp:165] Memory required for data: 2184859648
I0402 18:07:10.424036 22799 layer_factory.hpp:77] Creating layer fc4_300
I0402 18:07:10.424043 22799 net.cpp:100] Creating Layer fc4_300
I0402 18:07:10.424047 22799 net.cpp:434] fc4_300 <- pool3
I0402 18:07:10.424052 22799 net.cpp:408] fc4_300 -> fc4_300
I0402 18:07:10.429642 22799 net.cpp:150] Setting up fc4_300
I0402 18:07:10.429659 22799 net.cpp:157] Top shape: 1024 300 (307200)
I0402 18:07:10.429663 22799 net.cpp:165] Memory required for data: 2186088448
I0402 18:07:10.429671 22799 layer_factory.hpp:77] Creating layer fc4_relu
I0402 18:07:10.429677 22799 net.cpp:100] Creating Layer fc4_relu
I0402 18:07:10.429679 22799 net.cpp:434] fc4_relu <- fc4_300
I0402 18:07:10.429685 22799 net.cpp:395] fc4_relu -> fc4_300 (in-place)
I0402 18:07:10.429884 22799 net.cpp:150] Setting up fc4_relu
I0402 18:07:10.429896 22799 net.cpp:157] Top shape: 1024 300 (307200)
I0402 18:07:10.429901 22799 net.cpp:165] Memory required for data: 2187317248
I0402 18:07:10.429905 22799 layer_factory.hpp:77] Creating layer drop4
I0402 18:07:10.429913 22799 net.cpp:100] Creating Layer drop4
I0402 18:07:10.429918 22799 net.cpp:434] drop4 <- fc4_300
I0402 18:07:10.429922 22799 net.cpp:395] drop4 -> fc4_300 (in-place)
I0402 18:07:10.429956 22799 net.cpp:150] Setting up drop4
I0402 18:07:10.429965 22799 net.cpp:157] Top shape: 1024 300 (307200)
I0402 18:07:10.429970 22799 net.cpp:165] Memory required for data: 2188546048
I0402 18:07:10.429973 22799 layer_factory.hpp:77] Creating layer fc5_106
I0402 18:07:10.429980 22799 net.cpp:100] Creating Layer fc5_106
I0402 18:07:10.429986 22799 net.cpp:434] fc5_106 <- fc4_300
I0402 18:07:10.429991 22799 net.cpp:408] fc5_106 -> fc5_classes
I0402 18:07:10.431270 22799 net.cpp:150] Setting up fc5_106
I0402 18:07:10.431288 22799 net.cpp:157] Top shape: 1024 106 (108544)
I0402 18:07:10.431293 22799 net.cpp:165] Memory required for data: 2188980224
I0402 18:07:10.431303 22799 layer_factory.hpp:77] Creating layer loss
I0402 18:07:10.431313 22799 net.cpp:100] Creating Layer loss
I0402 18:07:10.431318 22799 net.cpp:434] loss <- fc5_classes
I0402 18:07:10.431323 22799 net.cpp:434] loss <- label
I0402 18:07:10.431329 22799 net.cpp:408] loss -> loss
I0402 18:07:10.431344 22799 layer_factory.hpp:77] Creating layer loss
…
I0402 18:07:10.432106 22799 solver.cpp:193] Creating test net (#0) specified by test_net file: ./Prototxt/experiment_3/rtsd-r3/imajust/test.prototxt
I0402 18:07:10.432277 22799 net.cpp:58] Initializing net from parameters: 
state {
  phase: TEST
}
layer {
  name: "data"
  type: "Data"
  top: "data"
  top: "label"
  include {
    phase: TEST
  }
  transform_param {
    mirror: false
    crop_size: 48
    mean_value: 113
    mean_value: 109
    mean_value: 110
  }
  data_param {
    source: "../local_data/lmdb/rtsd-r3/imajust/test/lmdb"
    batch_size: 1024
    backend: LMDB
  }
}
layer {
  name: "conv1"
  type: "Convolution"
  bottom: "data"
  top: "conv1"
  convolution_param {
    num_output: 100
    pad: 0
    kernel_size: 7
    group: 1
    stride: 1
    weight_filler {
      type: "xavier"
    }
  }
}
layer {
  name: "conv1_relu"
  type: "ReLU"
  bottom: "conv1"
  top: "conv1"
}
layer {
  name: "pool1"
  type: "Pooling"
  bottom: "conv1"
  top: "pool1"
  pooling_param {
    pool: MAX
    kernel_size: 2
    stride: 2
  }
}
layer {
  name: "conv2"
  type: "Convolution"
  bottom: "pool1"
  top: "conv2"
  convolution_param {
    num_output: 150
    pad: 0
    kernel_size: 4
    group: 1
    stride: 1
    weight_filler {
      type: "xavier"
    }
  }
}
layer {
  name: "conv2_relu"
  type: "ReLU"
  bottom: "conv2"
  top: "conv2"
}
layer {
  name: "pool2"
  type: "Pooling"
  bottom: "conv2"
  top: "pool2"
  pooling_param {
    pool: MAX
    kernel_size: 2
    stride: 2
  }
}
layer {
  name: "conv3"
  type: "Convolution"
  bottom: "pool2"
  top: "conv3"
  convolution_param {
    num_output: 250
    pad: 0
    kernel_size: 4
    group: 1
    stride: 1
    weight_filler {
      type: "xavier"
    }
  }
}
layer {
  name: "conv3_relu"
  type: "ReLU"
  bottom: "conv3"
  top: "conv3"
}
layer {
  name: "pool3"
  type: "Pooling"
  bottom: "conv3"
  top: "pool3"
  pooling_param {
    pool: MAX
    kernel_size: 2
    stride: 2
  }
}
layer {
  name: "fc4_300"
  type: "InnerProduct"
  bottom: "pool3"
  top: "fc4_300"
  inner_product_param {
    num_output: 300
    weight_filler {
      type: "xavier"
    }
  }
}
layer {
  name: "fc4_relu"
  type: "ReLU"
  bottom: "fc4_300"
  top: "fc4_300"
}
layer {
  name: "drop4"
  type: "Dropout"
  bottom: "fc4_300"
  top: "fc4_300"
  dropout_param {
    dropout_ratio: 0.4
  }
}
layer {
  name: "fc5_106"
  type: "InnerProduct"
  bottom: "fc4_300"
  top: "fc5_classes"
  inner_product_param {
    num_output: 106
    weight_filler {
      type: "xavier"
    }
  }
}
layer {
  name: "loss"
  type: "SoftmaxWithLoss"
  bottom: "fc5_classes"
  bottom: "label"
  top: "loss"
}
layer {
  name: "accuracy_1"
  type: "Accuracy"
  bottom: "fc5_classes"
  bottom: "label"
  top: "accuracy_1"
  include {
    phase: TEST
  }
  accuracy_param {
    top_k: 1
  }
}
layer {
  name: "accuracy_5"
  type: "Accuracy"
  bottom: "fc5_classes"
  bottom: "label"
  top: "accuracy_5"
  include {
    phase: TEST
  }
  accuracy_param {
    top_k: 5
  }
}
I0402 18:07:10.432364 22799 layer_factory.hpp:77] Creating layer data
I0402 18:07:10.432960 22799 net.cpp:100] Creating Layer data
I0402 18:07:10.432971 22799 net.cpp:408] data -> data
I0402 18:07:10.432981 22799 net.cpp:408] data -> label
I0402 18:07:10.434541 22866 db_lmdb.cpp:35] Opened lmdb ../local_data/lmdb/rtsd-r3/imajust/test/lmdb
I0402 18:07:10.434710 22799 data_layer.cpp:41] output data size: 1024,3,48,48
I0402 18:07:10.475623 22799 net.cpp:150] Setting up data
I0402 18:07:10.475652 22799 net.cpp:157] Top shape: 1024 3 48 48 (7077888)
I0402 18:07:10.475657 22799 net.cpp:157] Top shape: 1024 (1024)
I0402 18:07:10.475661 22799 net.cpp:165] Memory required for data: 28315648
I0402 18:07:10.475667 22799 layer_factory.hpp:77] Creating layer label_data_1_split
I0402 18:07:10.475682 22799 net.cpp:100] Creating Layer label_data_1_split
I0402 18:07:10.475685 22799 net.cpp:434] label_data_1_split <- label
I0402 18:07:10.475692 22799 net.cpp:408] label_data_1_split -> label_data_1_split_0
I0402 18:07:10.475704 22799 net.cpp:408] label_data_1_split -> label_data_1_split_1
I0402 18:07:10.475713 22799 net.cpp:408] label_data_1_split -> label_data_1_split_2
I0402 18:07:10.475877 22799 net.cpp:150] Setting up label_data_1_split
I0402 18:07:10.475888 22799 net.cpp:157] Top shape: 1024 (1024)
I0402 18:07:10.475891 22799 net.cpp:157] Top shape: 1024 (1024)
I0402 18:07:10.475895 22799 net.cpp:157] Top shape: 1024 (1024)
I0402 18:07:10.475898 22799 net.cpp:165] Memory required for data: 28327936
I0402 18:07:10.475903 22799 layer_factory.hpp:77] Creating layer conv1
I0402 18:07:10.475915 22799 net.cpp:100] Creating Layer conv1
I0402 18:07:10.475920 22799 net.cpp:434] conv1 <- data
I0402 18:07:10.475926 22799 net.cpp:408] conv1 -> conv1
I0402 18:07:10.477785 22799 net.cpp:150] Setting up conv1
I0402 18:07:10.477803 22799 net.cpp:157] Top shape: 1024 100 42 42 (180633600)
I0402 18:07:10.477807 22799 net.cpp:165] Memory required for data: 750862336
I0402 18:07:10.477819 22799 layer_factory.hpp:77] Creating layer conv1_relu
I0402 18:07:10.477828 22799 net.cpp:100] Creating Layer conv1_relu
I0402 18:07:10.477830 22799 net.cpp:434] conv1_relu <- conv1
I0402 18:07:10.477835 22799 net.cpp:395] conv1_relu -> conv1 (in-place)
I0402 18:07:10.478106 22799 net.cpp:150] Setting up conv1_relu
I0402 18:07:10.478117 22799 net.cpp:157] Top shape: 1024 100 42 42 (180633600)
I0402 18:07:10.478121 22799 net.cpp:165] Memory required for data: 1473396736
I0402 18:07:10.478124 22799 layer_factory.hpp:77] Creating layer pool1
I0402 18:07:10.478133 22799 net.cpp:100] Creating Layer pool1
I0402 18:07:10.478137 22799 net.cpp:434] pool1 <- conv1
I0402 18:07:10.478142 22799 net.cpp:408] pool1 -> pool1
I0402 18:07:10.480370 22799 net.cpp:150] Setting up pool1
I0402 18:07:10.480384 22799 net.cpp:157] Top shape: 1024 100 21 21 (45158400)
I0402 18:07:10.480387 22799 net.cpp:165] Memory required for data: 1654030336
I0402 18:07:10.480391 22799 layer_factory.hpp:77] Creating layer conv2
I0402 18:07:10.480401 22799 net.cpp:100] Creating Layer conv2
I0402 18:07:10.480407 22799 net.cpp:434] conv2 <- pool1
I0402 18:07:10.480414 22799 net.cpp:408] conv2 -> conv2
I0402 18:07:10.484419 22799 net.cpp:150] Setting up conv2
I0402 18:07:10.484438 22799 net.cpp:157] Top shape: 1024 150 18 18 (49766400)
I0402 18:07:10.484443 22799 net.cpp:165] Memory required for data: 1853095936
I0402 18:07:10.484454 22799 layer_factory.hpp:77] Creating layer conv2_relu
I0402 18:07:10.484462 22799 net.cpp:100] Creating Layer conv2_relu
I0402 18:07:10.484465 22799 net.cpp:434] conv2_relu <- conv2
I0402 18:07:10.484470 22799 net.cpp:395] conv2_relu -> conv2 (in-place)
I0402 18:07:10.485265 22799 net.cpp:150] Setting up conv2_relu
I0402 18:07:10.485281 22799 net.cpp:157] Top shape: 1024 150 18 18 (49766400)
I0402 18:07:10.485285 22799 net.cpp:165] Memory required for data: 2052161536
I0402 18:07:10.485288 22799 layer_factory.hpp:77] Creating layer pool2
I0402 18:07:10.485296 22799 net.cpp:100] Creating Layer pool2
I0402 18:07:10.485299 22799 net.cpp:434] pool2 <- conv2
I0402 18:07:10.485306 22799 net.cpp:408] pool2 -> pool2
I0402 18:07:10.485359 22799 net.cpp:150] Setting up pool2
I0402 18:07:10.485370 22799 net.cpp:157] Top shape: 1024 150 9 9 (12441600)
I0402 18:07:10.485373 22799 net.cpp:165] Memory required for data: 2101927936
I0402 18:07:10.485376 22799 layer_factory.hpp:77] Creating layer conv3
I0402 18:07:10.485388 22799 net.cpp:100] Creating Layer conv3
I0402 18:07:10.485394 22799 net.cpp:434] conv3 <- pool2
I0402 18:07:10.485399 22799 net.cpp:408] conv3 -> conv3
I0402 18:07:10.490989 22799 net.cpp:150] Setting up conv3
I0402 18:07:10.491008 22799 net.cpp:157] Top shape: 1024 250 6 6 (9216000)
I0402 18:07:10.491011 22799 net.cpp:165] Memory required for data: 2138791936
I0402 18:07:10.491021 22799 layer_factory.hpp:77] Creating layer conv3_relu
I0402 18:07:10.491029 22799 net.cpp:100] Creating Layer conv3_relu
I0402 18:07:10.491032 22799 net.cpp:434] conv3_relu <- conv3
I0402 18:07:10.491039 22799 net.cpp:395] conv3_relu -> conv3 (in-place)
I0402 18:07:10.491828 22799 net.cpp:150] Setting up conv3_relu
I0402 18:07:10.491845 22799 net.cpp:157] Top shape: 1024 250 6 6 (9216000)
I0402 18:07:10.491849 22799 net.cpp:165] Memory required for data: 2175655936
I0402 18:07:10.491868 22799 layer_factory.hpp:77] Creating layer pool3
I0402 18:07:10.491878 22799 net.cpp:100] Creating Layer pool3
I0402 18:07:10.491880 22799 net.cpp:434] pool3 <- conv3
I0402 18:07:10.491886 22799 net.cpp:408] pool3 -> pool3
I0402 18:07:10.491938 22799 net.cpp:150] Setting up pool3
I0402 18:07:10.491950 22799 net.cpp:157] Top shape: 1024 250 3 3 (2304000)
I0402 18:07:10.491953 22799 net.cpp:165] Memory required for data: 2184871936
I0402 18:07:10.491963 22799 layer_factory.hpp:77] Creating layer fc4_300
I0402 18:07:10.491971 22799 net.cpp:100] Creating Layer fc4_300
I0402 18:07:10.491976 22799 net.cpp:434] fc4_300 <- pool3
I0402 18:07:10.491981 22799 net.cpp:408] fc4_300 -> fc4_300
I0402 18:07:10.497467 22799 net.cpp:150] Setting up fc4_300
I0402 18:07:10.497485 22799 net.cpp:157] Top shape: 1024 300 (307200)
I0402 18:07:10.497489 22799 net.cpp:165] Memory required for data: 2186100736
I0402 18:07:10.497496 22799 layer_factory.hpp:77] Creating layer fc4_relu
I0402 18:07:10.497503 22799 net.cpp:100] Creating Layer fc4_relu
I0402 18:07:10.497509 22799 net.cpp:434] fc4_relu <- fc4_300
I0402 18:07:10.497514 22799 net.cpp:395] fc4_relu -> fc4_300 (in-place)
I0402 18:07:10.497725 22799 net.cpp:150] Setting up fc4_relu
I0402 18:07:10.497740 22799 net.cpp:157] Top shape: 1024 300 (307200)
I0402 18:07:10.497743 22799 net.cpp:165] Memory required for data: 2187329536
I0402 18:07:10.497746 22799 layer_factory.hpp:77] Creating layer drop4
I0402 18:07:10.497755 22799 net.cpp:100] Creating Layer drop4
I0402 18:07:10.497757 22799 net.cpp:434] drop4 <- fc4_300
I0402 18:07:10.497762 22799 net.cpp:395] drop4 -> fc4_300 (in-place)
I0402 18:07:10.497794 22799 net.cpp:150] Setting up drop4
I0402 18:07:10.497802 22799 net.cpp:157] Top shape: 1024 300 (307200)
I0402 18:07:10.497807 22799 net.cpp:165] Memory required for data: 2188558336
I0402 18:07:10.497809 22799 layer_factory.hpp:77] Creating layer fc5_106
I0402 18:07:10.497815 22799 net.cpp:100] Creating Layer fc5_106
I0402 18:07:10.497820 22799 net.cpp:434] fc5_106 <- fc4_300
I0402 18:07:10.497825 22799 net.cpp:408] fc5_106 -> fc5_classes
I0402 18:07:10.498149 22799 net.cpp:150] Setting up fc5_106
I0402 18:07:10.498160 22799 net.cpp:157] Top shape: 1024 106 (108544)
I0402 18:07:10.498163 22799 net.cpp:165] Memory required for data: 2188992512
I0402 18:07:10.498173 22799 layer_factory.hpp:77] Creating layer fc5_classes_fc5_106_0_split
I0402 18:07:10.498180 22799 net.cpp:100] Creating Layer fc5_classes_fc5_106_0_split
I0402 18:07:10.498183 22799 net.cpp:434] fc5_classes_fc5_106_0_split <- fc5_classes
I0402 18:07:10.498189 22799 net.cpp:408] fc5_classes_fc5_106_0_split -> fc5_classes_fc5_106_0_split_0
I0402 18:07:10.498196 22799 net.cpp:408] fc5_classes_fc5_106_0_split -> fc5_classes_fc5_106_0_split_1
I0402 18:07:10.498203 22799 net.cpp:408] fc5_classes_fc5_106_0_split -> fc5_classes_fc5_106_0_split_2
I0402 18:07:10.498255 22799 net.cpp:150] Setting up fc5_classes_fc5_106_0_split
I0402 18:07:10.498262 22799 net.cpp:157] Top shape: 1024 106 (108544)
I0402 18:07:10.498266 22799 net.cpp:157] Top shape: 1024 106 (108544)
I0402 18:07:10.498270 22799 net.cpp:157] Top shape: 1024 106 (108544)
I0402 18:07:10.498273 22799 net.cpp:165] Memory required for data: 2190295040
I0402 18:07:10.498276 22799 layer_factory.hpp:77] Creating layer loss
I0402 18:07:10.498286 22799 net.cpp:100] Creating Layer loss
I0402 18:07:10.498291 22799 net.cpp:434] loss <- fc5_classes_fc5_106_0_split_0
I0402 18:07:10.498297 22799 net.cpp:434] loss <- label_data_1_split_0
I0402 18:07:10.498303 22799 net.cpp:408] loss -> loss
…
