…
I0415 17:10:25.723331   816 solver.cpp:93] Creating training net from train_net file: ./Prototxt/experiment_12/rtsd-r3/AHE/trial_5/train.prototxt
I0415 17:10:25.735179   816 net.cpp:58] Initializing net from parameters: 
state {
  phase: TRAIN
  level: 0
  stage: ""
}
layer {
  name: "data"
  type: "Data"
  top: "data"
  top: "label"
  include {
    phase: TRAIN
  }
  transform_param {
    scale: 0.0039215689
    mirror: false
    crop_size: 48
    mean_value: 133
    mean_value: 126
    mean_value: 125
  }
  data_param {
    source: "../local_data/lmdb/rtsd-r3/AHE/train/lmdb"
    batch_size: 1024
    backend: LMDB
  }
}
layer {
  name: "conv1"
  type: "Convolution"
  bottom: "data"
  top: "conv1"
  convolution_param {
    num_output: 100
    pad: 0
    kernel_size: 7
    group: 1
    stride: 1
    weight_filler {
      type: "xavier"
    }
  }
}
layer {
  name: "conv1_relu"
  type: "ReLU"
  bottom: "conv1"
  top: "conv1"
}
layer {
  name: "pool1"
  type: "Pooling"
  bottom: "conv1"
  top: "pool1"
  pooling_param {
    pool: MAX
    kernel_size: 2
    stride: 2
  }
}
layer {
  name: "conv2"
  type: "Convolution"
  bottom: "pool1"
  top: "conv2"
  convolution_param {
    num_output: 150
    pad: 0
    kernel_size: 4
    group: 1
    stride: 1
    weight_filler {
      type: "xavier"
    }
  }
}
layer {
  name: "conv2_relu"
  type: "ReLU"
  bottom: "conv2"
  top: "conv2"
}
layer {
  name: "pool2"
  type: "Pooling"
  bottom: "conv2"
  top: "pool2"
  pooling_param {
    pool: MAX
    kernel_size: 2
    stride: 2
  }
}
layer {
  name: "conv3"
  type: "Convolution"
  bottom: "pool2"
  top: "conv3"
  convolution_param {
    num_output: 250
    pad: 0
    kernel_size: 4
    group: 1
    stride: 1
    weight_filler {
      type: "xavier"
    }
  }
}
layer {
  name: "conv3_relu"
  type: "ReLU"
  bottom: "conv3"
  top: "conv3"
}
layer {
  name: "pool3"
  type: "Pooling"
  bottom: "conv3"
  top: "pool3"
  pooling_param {
    pool: MAX
    kernel_size: 2
    stride: 2
  }
}
layer {
  name: "fc4_300"
  type: "InnerProduct"
  bottom: "pool3"
  top: "fc4_300"
  inner_product_param {
    num_output: 300
    weight_filler {
      type: "xavier"
    }
  }
}
layer {
  name: "fc4_relu"
  type: "ReLU"
  bottom: "fc4_300"
  top: "fc4_300"
}
layer {
  name: "drop4"
  type: "Dropout"
  bottom: "fc4_300"
  top: "fc4_300"
  dropout_param {
    dropout_ratio: 0.5
  }
}
layer {
  name: "fc5_106"
  type: "InnerProduct"
  bottom: "fc4_300"
  top: "fc5_classes"
  inner_product_param {
    num_output: 106
    weight_filler {
      type: "xavier"
    }
  }
}
layer {
  name: "softmax"
  type: "Softmax"
  bottom: "fc5_classes"
  top: "softmax"
}
layer {
  name: "loss"
  type: "MultinomialLogisticLoss"
  bottom: "softmax"
  bottom: "label"
  top: "loss"
}
layer {
  name: "accuracy_1"
  type: "Accuracy"
  bottom: "fc5_classes"
  bottom: "label"
  top: "accuracy_1"
  accuracy_param {
    top_k: 1
  }
}
layer {
  name: "accuracy_5"
  type: "Accuracy"
  bottom: "fc5_classes"
  bottom: "label"
  top: "accuracy_5"
  accuracy_param {
    top_k: 5
  }
}
layer {
  name: "silence"
  type: "Silence"
  bottom: "accuracy_1"
  bottom: "accuracy_5"
}
I0415 17:10:25.735302   816 layer_factory.hpp:77] Creating layer data
I0415 17:10:25.736415   816 net.cpp:100] Creating Layer data
I0415 17:10:25.736431   816 net.cpp:408] data -> data
I0415 17:10:25.736454   816 net.cpp:408] data -> label
I0415 17:10:25.737855   987 db_lmdb.cpp:35] Opened lmdb ../local_data/lmdb/rtsd-r3/AHE/train/lmdb
I0415 17:10:25.755192   816 data_layer.cpp:41] output data size: 1024,3,48,48
I0415 17:10:25.830435   816 net.cpp:150] Setting up data
I0415 17:10:25.830463   816 net.cpp:157] Top shape: 1024 3 48 48 (7077888)
I0415 17:10:25.830468   816 net.cpp:157] Top shape: 1024 (1024)
I0415 17:10:25.830471   816 net.cpp:165] Memory required for data: 28315648
I0415 17:10:25.830482   816 layer_factory.hpp:77] Creating layer label_data_1_split
I0415 17:10:25.830497   816 net.cpp:100] Creating Layer label_data_1_split
I0415 17:10:25.830503   816 net.cpp:434] label_data_1_split <- label
I0415 17:10:25.830515   816 net.cpp:408] label_data_1_split -> label_data_1_split_0
I0415 17:10:25.830529   816 net.cpp:408] label_data_1_split -> label_data_1_split_1
I0415 17:10:25.830538   816 net.cpp:408] label_data_1_split -> label_data_1_split_2
I0415 17:10:25.830602   816 net.cpp:150] Setting up label_data_1_split
I0415 17:10:25.830610   816 net.cpp:157] Top shape: 1024 (1024)
I0415 17:10:25.830613   816 net.cpp:157] Top shape: 1024 (1024)
I0415 17:10:25.830617   816 net.cpp:157] Top shape: 1024 (1024)
I0415 17:10:25.830621   816 net.cpp:165] Memory required for data: 28327936
I0415 17:10:25.830623   816 layer_factory.hpp:77] Creating layer conv1
I0415 17:10:25.830639   816 net.cpp:100] Creating Layer conv1
I0415 17:10:25.830644   816 net.cpp:434] conv1 <- data
I0415 17:10:25.830649   816 net.cpp:408] conv1 -> conv1
I0415 17:10:26.188748   816 net.cpp:150] Setting up conv1
I0415 17:10:26.188776   816 net.cpp:157] Top shape: 1024 100 42 42 (180633600)
I0415 17:10:26.188779   816 net.cpp:165] Memory required for data: 750862336
I0415 17:10:26.188802   816 layer_factory.hpp:77] Creating layer conv1_relu
I0415 17:10:26.188815   816 net.cpp:100] Creating Layer conv1_relu
I0415 17:10:26.188820   816 net.cpp:434] conv1_relu <- conv1
I0415 17:10:26.188827   816 net.cpp:395] conv1_relu -> conv1 (in-place)
I0415 17:10:26.189029   816 net.cpp:150] Setting up conv1_relu
I0415 17:10:26.189041   816 net.cpp:157] Top shape: 1024 100 42 42 (180633600)
I0415 17:10:26.189045   816 net.cpp:165] Memory required for data: 1473396736
I0415 17:10:26.189049   816 layer_factory.hpp:77] Creating layer pool1
I0415 17:10:26.189059   816 net.cpp:100] Creating Layer pool1
I0415 17:10:26.189064   816 net.cpp:434] pool1 <- conv1
I0415 17:10:26.189069   816 net.cpp:408] pool1 -> pool1
I0415 17:10:26.189126   816 net.cpp:150] Setting up pool1
I0415 17:10:26.189136   816 net.cpp:157] Top shape: 1024 100 21 21 (45158400)
I0415 17:10:26.189139   816 net.cpp:165] Memory required for data: 1654030336
I0415 17:10:26.189143   816 layer_factory.hpp:77] Creating layer conv2
I0415 17:10:26.189153   816 net.cpp:100] Creating Layer conv2
I0415 17:10:26.189158   816 net.cpp:434] conv2 <- pool1
I0415 17:10:26.189164   816 net.cpp:408] conv2 -> conv2
I0415 17:10:26.194130   816 net.cpp:150] Setting up conv2
I0415 17:10:26.194146   816 net.cpp:157] Top shape: 1024 150 18 18 (49766400)
I0415 17:10:26.194150   816 net.cpp:165] Memory required for data: 1853095936
I0415 17:10:26.194160   816 layer_factory.hpp:77] Creating layer conv2_relu
I0415 17:10:26.194169   816 net.cpp:100] Creating Layer conv2_relu
I0415 17:10:26.194175   816 net.cpp:434] conv2_relu <- conv2
I0415 17:10:26.194180   816 net.cpp:395] conv2_relu -> conv2 (in-place)
I0415 17:10:26.195262   816 net.cpp:150] Setting up conv2_relu
I0415 17:10:26.195276   816 net.cpp:157] Top shape: 1024 150 18 18 (49766400)
I0415 17:10:26.195281   816 net.cpp:165] Memory required for data: 2052161536
I0415 17:10:26.195286   816 layer_factory.hpp:77] Creating layer pool2
I0415 17:10:26.195292   816 net.cpp:100] Creating Layer pool2
I0415 17:10:26.195297   816 net.cpp:434] pool2 <- conv2
I0415 17:10:26.195302   816 net.cpp:408] pool2 -> pool2
I0415 17:10:26.195351   816 net.cpp:150] Setting up pool2
I0415 17:10:26.195359   816 net.cpp:157] Top shape: 1024 150 9 9 (12441600)
I0415 17:10:26.195363   816 net.cpp:165] Memory required for data: 2101927936
I0415 17:10:26.195366   816 layer_factory.hpp:77] Creating layer conv3
I0415 17:10:26.195376   816 net.cpp:100] Creating Layer conv3
I0415 17:10:26.195401   816 net.cpp:434] conv3 <- pool2
I0415 17:10:26.195408   816 net.cpp:408] conv3 -> conv3
I0415 17:10:26.205085   816 net.cpp:150] Setting up conv3
I0415 17:10:26.205106   816 net.cpp:157] Top shape: 1024 250 6 6 (9216000)
I0415 17:10:26.205111   816 net.cpp:165] Memory required for data: 2138791936
I0415 17:10:26.205121   816 layer_factory.hpp:77] Creating layer conv3_relu
I0415 17:10:26.205128   816 net.cpp:100] Creating Layer conv3_relu
I0415 17:10:26.205132   816 net.cpp:434] conv3_relu <- conv3
I0415 17:10:26.205137   816 net.cpp:395] conv3_relu -> conv3 (in-place)
I0415 17:10:26.207643   816 net.cpp:150] Setting up conv3_relu
I0415 17:10:26.207659   816 net.cpp:157] Top shape: 1024 250 6 6 (9216000)
I0415 17:10:26.207664   816 net.cpp:165] Memory required for data: 2175655936
I0415 17:10:26.207667   816 layer_factory.hpp:77] Creating layer pool3
I0415 17:10:26.207674   816 net.cpp:100] Creating Layer pool3
I0415 17:10:26.207679   816 net.cpp:434] pool3 <- conv3
I0415 17:10:26.207686   816 net.cpp:408] pool3 -> pool3
I0415 17:10:26.207742   816 net.cpp:150] Setting up pool3
I0415 17:10:26.207749   816 net.cpp:157] Top shape: 1024 250 3 3 (2304000)
I0415 17:10:26.207752   816 net.cpp:165] Memory required for data: 2184871936
I0415 17:10:26.207756   816 layer_factory.hpp:77] Creating layer fc4_300
I0415 17:10:26.207763   816 net.cpp:100] Creating Layer fc4_300
I0415 17:10:26.207767   816 net.cpp:434] fc4_300 <- pool3
I0415 17:10:26.207772   816 net.cpp:408] fc4_300 -> fc4_300
I0415 17:10:26.213703   816 net.cpp:150] Setting up fc4_300
I0415 17:10:26.213726   816 net.cpp:157] Top shape: 1024 300 (307200)
I0415 17:10:26.213728   816 net.cpp:165] Memory required for data: 2186100736
I0415 17:10:26.213737   816 layer_factory.hpp:77] Creating layer fc4_relu
I0415 17:10:26.213747   816 net.cpp:100] Creating Layer fc4_relu
I0415 17:10:26.213749   816 net.cpp:434] fc4_relu <- fc4_300
I0415 17:10:26.213755   816 net.cpp:395] fc4_relu -> fc4_300 (in-place)
I0415 17:10:26.213961   816 net.cpp:150] Setting up fc4_relu
I0415 17:10:26.213973   816 net.cpp:157] Top shape: 1024 300 (307200)
I0415 17:10:26.213975   816 net.cpp:165] Memory required for data: 2187329536
I0415 17:10:26.213979   816 layer_factory.hpp:77] Creating layer drop4
I0415 17:10:26.213985   816 net.cpp:100] Creating Layer drop4
I0415 17:10:26.213990   816 net.cpp:434] drop4 <- fc4_300
I0415 17:10:26.213995   816 net.cpp:395] drop4 -> fc4_300 (in-place)
I0415 17:10:26.214026   816 net.cpp:150] Setting up drop4
I0415 17:10:26.214033   816 net.cpp:157] Top shape: 1024 300 (307200)
I0415 17:10:26.214036   816 net.cpp:165] Memory required for data: 2188558336
I0415 17:10:26.214040   816 layer_factory.hpp:77] Creating layer fc5_106
I0415 17:10:26.214046   816 net.cpp:100] Creating Layer fc5_106
I0415 17:10:26.214051   816 net.cpp:434] fc5_106 <- fc4_300
I0415 17:10:26.214054   816 net.cpp:408] fc5_106 -> fc5_classes
I0415 17:10:26.215945   816 net.cpp:150] Setting up fc5_106
I0415 17:10:26.215960   816 net.cpp:157] Top shape: 1024 106 (108544)
I0415 17:10:26.215963   816 net.cpp:165] Memory required for data: 2188992512
I0415 17:10:26.215975   816 layer_factory.hpp:77] Creating layer fc5_classes_fc5_106_0_split
I0415 17:10:26.215983   816 net.cpp:100] Creating Layer fc5_classes_fc5_106_0_split
I0415 17:10:26.215988   816 net.cpp:434] fc5_classes_fc5_106_0_split <- fc5_classes
I0415 17:10:26.215993   816 net.cpp:408] fc5_classes_fc5_106_0_split -> fc5_classes_fc5_106_0_split_0
I0415 17:10:26.216002   816 net.cpp:408] fc5_classes_fc5_106_0_split -> fc5_classes_fc5_106_0_split_1
I0415 17:10:26.216011   816 net.cpp:408] fc5_classes_fc5_106_0_split -> fc5_classes_fc5_106_0_split_2
I0415 17:10:26.216061   816 net.cpp:150] Setting up fc5_classes_fc5_106_0_split
I0415 17:10:26.216068   816 net.cpp:157] Top shape: 1024 106 (108544)
I0415 17:10:26.216073   816 net.cpp:157] Top shape: 1024 106 (108544)
I0415 17:10:26.216076   816 net.cpp:157] Top shape: 1024 106 (108544)
I0415 17:10:26.216079   816 net.cpp:165] Memory required for data: 2190295040
I0415 17:10:26.216100   816 layer_factory.hpp:77] Creating layer softmax
I0415 17:10:26.216110   816 net.cpp:100] Creating Layer softmax
I0415 17:10:26.216115   816 net.cpp:434] softmax <- fc5_classes_fc5_106_0_split_0
I0415 17:10:26.216120   816 net.cpp:408] softmax -> softmax
I0415 17:10:26.216377   816 net.cpp:150] Setting up softmax
I0415 17:10:26.216388   816 net.cpp:157] Top shape: 1024 106 (108544)
I0415 17:10:26.216393   816 net.cpp:165] Memory required for data: 2190729216
I0415 17:10:26.216397   816 layer_factory.hpp:77] Creating layer loss
I0415 17:10:26.216403   816 net.cpp:100] Creating Layer loss
I0415 17:10:26.216408   816 net.cpp:434] loss <- softmax
I0415 17:10:26.216411   816 net.cpp:434] loss <- label_data_1_split_0
I0415 17:10:26.216416   816 net.cpp:408] loss -> loss
…
