…
I0415 07:04:34.396562 24354 solver.cpp:93] Creating training net from train_net file: ./Prototxt/experiment_12/rtsd-r3/CoNorm/trial_1/train.prototxt
I0415 07:04:34.406895 24354 net.cpp:58] Initializing net from parameters: 
state {
  phase: TRAIN
  level: 0
  stage: ""
}
layer {
  name: "data"
  type: "Data"
  top: "data"
  top: "label"
  include {
    phase: TRAIN
  }
  transform_param {
    scale: 0.0039215689
    mirror: false
    crop_size: 48
    mean_value: 135
    mean_value: 134
    mean_value: 134
  }
  data_param {
    source: "../local_data/lmdb/rtsd-r3/CoNorm/train/lmdb"
    batch_size: 1024
    backend: LMDB
  }
}
layer {
  name: "conv1"
  type: "Convolution"
  bottom: "data"
  top: "conv1"
  convolution_param {
    num_output: 100
    pad: 0
    kernel_size: 7
    group: 1
    stride: 1
    weight_filler {
      type: "xavier"
    }
  }
}
layer {
  name: "conv1_relu"
  type: "ReLU"
  bottom: "conv1"
  top: "conv1"
}
layer {
  name: "pool1"
  type: "Pooling"
  bottom: "conv1"
  top: "pool1"
  pooling_param {
    pool: MAX
    kernel_size: 2
    stride: 2
  }
}
layer {
  name: "conv2"
  type: "Convolution"
  bottom: "pool1"
  top: "conv2"
  convolution_param {
    num_output: 150
    pad: 0
    kernel_size: 4
    group: 1
    stride: 1
    weight_filler {
      type: "xavier"
    }
  }
}
layer {
  name: "conv2_relu"
  type: "ReLU"
  bottom: "conv2"
  top: "conv2"
}
layer {
  name: "pool2"
  type: "Pooling"
  bottom: "conv2"
  top: "pool2"
  pooling_param {
    pool: MAX
    kernel_size: 2
    stride: 2
  }
}
layer {
  name: "conv3"
  type: "Convolution"
  bottom: "pool2"
  top: "conv3"
  convolution_param {
    num_output: 250
    pad: 0
    kernel_size: 4
    group: 1
    stride: 1
    weight_filler {
      type: "xavier"
    }
  }
}
layer {
  name: "conv3_relu"
  type: "ReLU"
  bottom: "conv3"
  top: "conv3"
}
layer {
  name: "pool3"
  type: "Pooling"
  bottom: "conv3"
  top: "pool3"
  pooling_param {
    pool: MAX
    kernel_size: 2
    stride: 2
  }
}
layer {
  name: "fc4_300"
  type: "InnerProduct"
  bottom: "pool3"
  top: "fc4_300"
  inner_product_param {
    num_output: 300
    weight_filler {
      type: "xavier"
    }
  }
}
layer {
  name: "fc4_relu"
  type: "ReLU"
  bottom: "fc4_300"
  top: "fc4_300"
}
layer {
  name: "drop4"
  type: "Dropout"
  bottom: "fc4_300"
  top: "fc4_300"
  dropout_param {
    dropout_ratio: 0.5
  }
}
layer {
  name: "fc5_106"
  type: "InnerProduct"
  bottom: "fc4_300"
  top: "fc5_classes"
  inner_product_param {
    num_output: 106
    weight_filler {
      type: "xavier"
    }
  }
}
layer {
  name: "softmax"
  type: "Softmax"
  bottom: "fc5_classes"
  top: "softmax"
}
layer {
  name: "loss"
  type: "MultinomialLogisticLoss"
  bottom: "softmax"
  bottom: "label"
  top: "loss"
}
layer {
  name: "accuracy_1"
  type: "Accuracy"
  bottom: "fc5_classes"
  bottom: "label"
  top: "accuracy_1"
  accuracy_param {
    top_k: 1
  }
}
layer {
  name: "accuracy_5"
  type: "Accuracy"
  bottom: "fc5_classes"
  bottom: "label"
  top: "accuracy_5"
  accuracy_param {
    top_k: 5
  }
}
layer {
  name: "silence"
  type: "Silence"
  bottom: "accuracy_1"
  bottom: "accuracy_5"
}
I0415 07:04:34.407107 24354 layer_factory.hpp:77] Creating layer data
I0415 07:04:34.408859 24354 net.cpp:100] Creating Layer data
I0415 07:04:34.408879 24354 net.cpp:408] data -> data
I0415 07:04:34.408915 24354 net.cpp:408] data -> label
I0415 07:04:34.446440 24589 db_lmdb.cpp:35] Opened lmdb ../local_data/lmdb/rtsd-r3/CoNorm/train/lmdb
I0415 07:04:34.478535 24354 data_layer.cpp:41] output data size: 1024,3,48,48
I0415 07:04:34.603996 24354 net.cpp:150] Setting up data
I0415 07:04:34.604037 24354 net.cpp:157] Top shape: 1024 3 48 48 (7077888)
I0415 07:04:34.604044 24354 net.cpp:157] Top shape: 1024 (1024)
I0415 07:04:34.604048 24354 net.cpp:165] Memory required for data: 28315648
I0415 07:04:34.604066 24354 layer_factory.hpp:77] Creating layer label_data_1_split
I0415 07:04:34.604085 24354 net.cpp:100] Creating Layer label_data_1_split
I0415 07:04:34.604095 24354 net.cpp:434] label_data_1_split <- label
I0415 07:04:34.604116 24354 net.cpp:408] label_data_1_split -> label_data_1_split_0
I0415 07:04:34.604135 24354 net.cpp:408] label_data_1_split -> label_data_1_split_1
I0415 07:04:34.604145 24354 net.cpp:408] label_data_1_split -> label_data_1_split_2
I0415 07:04:34.604264 24354 net.cpp:150] Setting up label_data_1_split
I0415 07:04:34.604275 24354 net.cpp:157] Top shape: 1024 (1024)
I0415 07:04:34.604284 24354 net.cpp:157] Top shape: 1024 (1024)
I0415 07:04:34.604291 24354 net.cpp:157] Top shape: 1024 (1024)
I0415 07:04:34.604296 24354 net.cpp:165] Memory required for data: 28327936
I0415 07:04:34.604300 24354 layer_factory.hpp:77] Creating layer conv1
I0415 07:04:34.604328 24354 net.cpp:100] Creating Layer conv1
I0415 07:04:34.604336 24354 net.cpp:434] conv1 <- data
I0415 07:04:34.604348 24354 net.cpp:408] conv1 -> conv1
I0415 07:04:35.156728 24615 blocking_queue.cpp:50] Waiting for data
I0415 07:04:36.058792 24354 net.cpp:150] Setting up conv1
I0415 07:04:36.058821 24354 net.cpp:157] Top shape: 1024 100 42 42 (180633600)
I0415 07:04:36.058825 24354 net.cpp:165] Memory required for data: 750862336
I0415 07:04:36.058854 24354 layer_factory.hpp:77] Creating layer conv1_relu
I0415 07:04:36.058866 24354 net.cpp:100] Creating Layer conv1_relu
I0415 07:04:36.058871 24354 net.cpp:434] conv1_relu <- conv1
I0415 07:04:36.058888 24354 net.cpp:395] conv1_relu -> conv1 (in-place)
I0415 07:04:36.059089 24354 net.cpp:150] Setting up conv1_relu
I0415 07:04:36.059101 24354 net.cpp:157] Top shape: 1024 100 42 42 (180633600)
I0415 07:04:36.059104 24354 net.cpp:165] Memory required for data: 1473396736
I0415 07:04:36.059108 24354 layer_factory.hpp:77] Creating layer pool1
I0415 07:04:36.059118 24354 net.cpp:100] Creating Layer pool1
I0415 07:04:36.059123 24354 net.cpp:434] pool1 <- conv1
I0415 07:04:36.059128 24354 net.cpp:408] pool1 -> pool1
I0415 07:04:36.059181 24354 net.cpp:150] Setting up pool1
I0415 07:04:36.059190 24354 net.cpp:157] Top shape: 1024 100 21 21 (45158400)
I0415 07:04:36.059192 24354 net.cpp:165] Memory required for data: 1654030336
I0415 07:04:36.059195 24354 layer_factory.hpp:77] Creating layer conv2
I0415 07:04:36.059206 24354 net.cpp:100] Creating Layer conv2
I0415 07:04:36.059211 24354 net.cpp:434] conv2 <- pool1
I0415 07:04:36.059216 24354 net.cpp:408] conv2 -> conv2
I0415 07:04:36.064767 24354 net.cpp:150] Setting up conv2
I0415 07:04:36.064790 24354 net.cpp:157] Top shape: 1024 150 18 18 (49766400)
I0415 07:04:36.064793 24354 net.cpp:165] Memory required for data: 1853095936
I0415 07:04:36.064806 24354 layer_factory.hpp:77] Creating layer conv2_relu
I0415 07:04:36.064815 24354 net.cpp:100] Creating Layer conv2_relu
I0415 07:04:36.064821 24354 net.cpp:434] conv2_relu <- conv2
I0415 07:04:36.064826 24354 net.cpp:395] conv2_relu -> conv2 (in-place)
I0415 07:04:36.065564 24354 net.cpp:150] Setting up conv2_relu
I0415 07:04:36.065579 24354 net.cpp:157] Top shape: 1024 150 18 18 (49766400)
I0415 07:04:36.065584 24354 net.cpp:165] Memory required for data: 2052161536
I0415 07:04:36.065594 24354 layer_factory.hpp:77] Creating layer pool2
I0415 07:04:36.065603 24354 net.cpp:100] Creating Layer pool2
I0415 07:04:36.065608 24354 net.cpp:434] pool2 <- conv2
I0415 07:04:36.065613 24354 net.cpp:408] pool2 -> pool2
I0415 07:04:36.065676 24354 net.cpp:150] Setting up pool2
I0415 07:04:36.065685 24354 net.cpp:157] Top shape: 1024 150 9 9 (12441600)
I0415 07:04:36.065688 24354 net.cpp:165] Memory required for data: 2101927936
I0415 07:04:36.065714 24354 layer_factory.hpp:77] Creating layer conv3
I0415 07:04:36.065727 24354 net.cpp:100] Creating Layer conv3
I0415 07:04:36.065731 24354 net.cpp:434] conv3 <- pool2
I0415 07:04:36.065735 24354 net.cpp:408] conv3 -> conv3
I0415 07:04:36.071183 24354 net.cpp:150] Setting up conv3
I0415 07:04:36.071213 24354 net.cpp:157] Top shape: 1024 250 6 6 (9216000)
I0415 07:04:36.071216 24354 net.cpp:165] Memory required for data: 2138791936
I0415 07:04:36.071240 24354 layer_factory.hpp:77] Creating layer conv3_relu
I0415 07:04:36.071251 24354 net.cpp:100] Creating Layer conv3_relu
I0415 07:04:36.071256 24354 net.cpp:434] conv3_relu <- conv3
I0415 07:04:36.071264 24354 net.cpp:395] conv3_relu -> conv3 (in-place)
I0415 07:04:36.072124 24354 net.cpp:150] Setting up conv3_relu
I0415 07:04:36.072140 24354 net.cpp:157] Top shape: 1024 250 6 6 (9216000)
I0415 07:04:36.072144 24354 net.cpp:165] Memory required for data: 2175655936
I0415 07:04:36.072147 24354 layer_factory.hpp:77] Creating layer pool3
I0415 07:04:36.072158 24354 net.cpp:100] Creating Layer pool3
I0415 07:04:36.072163 24354 net.cpp:434] pool3 <- conv3
I0415 07:04:36.072170 24354 net.cpp:408] pool3 -> pool3
I0415 07:04:36.072223 24354 net.cpp:150] Setting up pool3
I0415 07:04:36.072232 24354 net.cpp:157] Top shape: 1024 250 3 3 (2304000)
I0415 07:04:36.072237 24354 net.cpp:165] Memory required for data: 2184871936
I0415 07:04:36.072239 24354 layer_factory.hpp:77] Creating layer fc4_300
I0415 07:04:36.072247 24354 net.cpp:100] Creating Layer fc4_300
I0415 07:04:36.072252 24354 net.cpp:434] fc4_300 <- pool3
I0415 07:04:36.072259 24354 net.cpp:408] fc4_300 -> fc4_300
I0415 07:04:36.077611 24354 net.cpp:150] Setting up fc4_300
I0415 07:04:36.077639 24354 net.cpp:157] Top shape: 1024 300 (307200)
I0415 07:04:36.077643 24354 net.cpp:165] Memory required for data: 2186100736
I0415 07:04:36.077666 24354 layer_factory.hpp:77] Creating layer fc4_relu
I0415 07:04:36.077677 24354 net.cpp:100] Creating Layer fc4_relu
I0415 07:04:36.077682 24354 net.cpp:434] fc4_relu <- fc4_300
I0415 07:04:36.077690 24354 net.cpp:395] fc4_relu -> fc4_300 (in-place)
I0415 07:04:36.077921 24354 net.cpp:150] Setting up fc4_relu
I0415 07:04:36.077932 24354 net.cpp:157] Top shape: 1024 300 (307200)
I0415 07:04:36.077936 24354 net.cpp:165] Memory required for data: 2187329536
I0415 07:04:36.077940 24354 layer_factory.hpp:77] Creating layer drop4
I0415 07:04:36.077949 24354 net.cpp:100] Creating Layer drop4
I0415 07:04:36.077952 24354 net.cpp:434] drop4 <- fc4_300
I0415 07:04:36.077960 24354 net.cpp:395] drop4 -> fc4_300 (in-place)
I0415 07:04:36.077991 24354 net.cpp:150] Setting up drop4
I0415 07:04:36.077998 24354 net.cpp:157] Top shape: 1024 300 (307200)
I0415 07:04:36.078001 24354 net.cpp:165] Memory required for data: 2188558336
I0415 07:04:36.078004 24354 layer_factory.hpp:77] Creating layer fc5_106
I0415 07:04:36.078012 24354 net.cpp:100] Creating Layer fc5_106
I0415 07:04:36.078017 24354 net.cpp:434] fc5_106 <- fc4_300
I0415 07:04:36.078023 24354 net.cpp:408] fc5_106 -> fc5_classes
I0415 07:04:36.079401 24354 net.cpp:150] Setting up fc5_106
I0415 07:04:36.079416 24354 net.cpp:157] Top shape: 1024 106 (108544)
I0415 07:04:36.079419 24354 net.cpp:165] Memory required for data: 2188992512
I0415 07:04:36.079445 24354 layer_factory.hpp:77] Creating layer fc5_classes_fc5_106_0_split
I0415 07:04:36.079454 24354 net.cpp:100] Creating Layer fc5_classes_fc5_106_0_split
I0415 07:04:36.079459 24354 net.cpp:434] fc5_classes_fc5_106_0_split <- fc5_classes
I0415 07:04:36.079466 24354 net.cpp:408] fc5_classes_fc5_106_0_split -> fc5_classes_fc5_106_0_split_0
I0415 07:04:36.079475 24354 net.cpp:408] fc5_classes_fc5_106_0_split -> fc5_classes_fc5_106_0_split_1
I0415 07:04:36.079483 24354 net.cpp:408] fc5_classes_fc5_106_0_split -> fc5_classes_fc5_106_0_split_2
I0415 07:04:36.079538 24354 net.cpp:150] Setting up fc5_classes_fc5_106_0_split
I0415 07:04:36.079545 24354 net.cpp:157] Top shape: 1024 106 (108544)
I0415 07:04:36.079548 24354 net.cpp:157] Top shape: 1024 106 (108544)
I0415 07:04:36.079552 24354 net.cpp:157] Top shape: 1024 106 (108544)
I0415 07:04:36.079573 24354 net.cpp:165] Memory required for data: 2190295040
I0415 07:04:36.079577 24354 layer_factory.hpp:77] Creating layer softmax
I0415 07:04:36.079586 24354 net.cpp:100] Creating Layer softmax
I0415 07:04:36.079591 24354 net.cpp:434] softmax <- fc5_classes_fc5_106_0_split_0
I0415 07:04:36.079596 24354 net.cpp:408] softmax -> softmax
I0415 07:04:36.079871 24354 net.cpp:150] Setting up softmax
I0415 07:04:36.079898 24354 net.cpp:157] Top shape: 1024 106 (108544)
I0415 07:04:36.079903 24354 net.cpp:165] Memory required for data: 2190729216
I0415 07:04:36.079906 24354 layer_factory.hpp:77] Creating layer loss
I0415 07:04:36.079913 24354 net.cpp:100] Creating Layer loss
I0415 07:04:36.079918 24354 net.cpp:434] loss <- softmax
I0415 07:04:36.079922 24354 net.cpp:434] loss <- label_data_1_split_0
I0415 07:04:36.079927 24354 net.cpp:408] loss -> loss
…
