…
I0411 08:36:43.428542  6243 net.cpp:322] The NetState phase (0) differed from the phase (1) specified by a rule in layer accuracy_5
I0411 08:36:43.428724  6243 net.cpp:58] Initializing net from parameters: 
state {
  phase: TRAIN
  level: 0
  stage: ""
}
layer {
  name: "data"
  type: "Data"
  top: "data"
  top: "label"
  include {
    phase: TRAIN
  }
  transform_param {
    scale: 0.0039215689
    mirror: false
    crop_size: 48
    mean_value: 115
    mean_value: 108
    mean_value: 122
  }
  data_param {
    source: "../local_data/lmdb/rtsd-r1/imajust/train/lmdb"
    batch_size: 1024
    backend: LMDB
  }
}
layer {
  name: "conv1"
  type: "Convolution"
  bottom: "data"
  top: "conv1"
  convolution_param {
    num_output: 100
    pad: 0
    kernel_size: 7
    group: 1
    stride: 1
    weight_filler {
      type: "xavier"
    }
  }
}
layer {
  name: "conv1_prescale"
  type: "Scale"
  bottom: "conv1"
  top: "conv1"
  param {
    lr_mult: 0
    decay_mult: 0
  }
  scale_param {
    filler {
      value: 0.6666
    }
    bias_term: false
  }
}
layer {
  name: "conv1_sTanH"
  type: "TanH"
  bottom: "conv1"
  top: "conv1"
}
layer {
  name: "conv1_postscale"
  type: "Scale"
  bottom: "conv1"
  top: "conv1"
  param {
    lr_mult: 0
    decay_mult: 0
  }
  scale_param {
    filler {
      value: 1.7159
    }
    bias_term: false
  }
}
layer {
  name: "pool1"
  type: "Pooling"
  bottom: "conv1"
  top: "pool1"
  pooling_param {
    pool: MAX
    kernel_size: 2
    stride: 2
  }
}
layer {
  name: "conv2"
  type: "Convolution"
  bottom: "pool1"
  top: "conv2"
  convolution_param {
    num_output: 150
    pad: 0
    kernel_size: 4
    group: 1
    stride: 1
    weight_filler {
      type: "xavier"
    }
  }
}
layer {
  name: "conv2_prescale"
  type: "Scale"
  bottom: "conv2"
  top: "conv2"
  param {
    lr_mult: 0
    decay_mult: 0
  }
  scale_param {
    filler {
      value: 0.6666
    }
    bias_term: false
  }
}
layer {
  name: "conv2_sTanH"
  type: "TanH"
  bottom: "conv2"
  top: "conv2"
}
layer {
  name: "conv2_postscale"
  type: "Scale"
  bottom: "conv2"
  top: "conv2"
  param {
    lr_mult: 0
    decay_mult: 0
  }
  scale_param {
    filler {
      value: 1.7159
    }
    bias_term: false
  }
}
layer {
  name: "pool2"
  type: "Pooling"
  bottom: "conv2"
  top: "pool2"
  pooling_param {
    pool: MAX
    kernel_size: 2
    stride: 2
  }
}
layer {
  name: "conv3"
  type: "Convolution"
  bottom: "pool2"
  top: "conv3"
  convolution_param {
    num_output: 250
    pad: 0
    kernel_size: 4
    group: 1
    stride: 1
    weight_filler {
      type: "xavier"
    }
  }
}
layer {
  name: "conv3_prescale"
  type: "Scale"
  bottom: "conv3"
  top: "conv3"
  param {
    lr_mult: 0
    decay_mult: 0
  }
  scale_param {
    filler {
      value: 0.6666
    }
    bias_term: false
  }
}
layer {
  name: "conv3_sTanH"
  type: "TanH"
  bottom: "conv3"
  top: "conv3"
}
layer {
  name: "conv3_postscale"
  type: "Scale"
  bottom: "conv3"
  top: "conv3"
  param {
    lr_mult: 0
    decay_mult: 0
  }
  scale_param {
    filler {
      value: 1.7159
    }
    bias_term: false
  }
}
layer {
  name: "pool3"
  type: "Pooling"
  bottom: "conv3"
  top: "pool3"
  pooling_param {
    pool: MAX
    kernel_size: 2
    stride: 2
  }
}
layer {
  name: "fc4_300"
  type: "InnerProduct"
  bottom: "pool3"
  top: "fc4_300"
  inner_product_param {
    num_output: 300
    weight_filler {
      type: "xavier"
    }
  }
}
layer {
  name: "fc4_prescale"
  type: "Scale"
  bottom: "fc4_300"
  top: "fc4_300"
  param {
    lr_mult: 0
    decay_mult: 0
  }
  scale_param {
    filler {
      value: 0.6666
    }
    bias_term: false
  }
}
layer {
  name: "fc4_sTanH"
  type: "TanH"
  bottom: "fc4_300"
  top: "fc4_300"
}
layer {
  name: "fc4_postscale"
  type: "Scale"
  bottom: "fc4_300"
  top: "fc4_300"
  param {
    lr_mult: 0
    decay_mult: 0
  }
  scale_param {
    filler {
      value: 1.7159
    }
    bias_term: false
  }
}
layer {
  name: "fc5_67"
  type: "InnerProduct"
  bottom: "fc4_300"
  top: "fc5_classes"
  inner_product_param {
    num_output: 67
    weight_filler {
      type: "xavier"
    }
  }
}
layer {
  name: "loss"
  type: "SoftmaxWithLoss"
  bottom: "fc5_classes"
  bottom: "label"
  top: "loss"
}
I0411 08:36:43.428884  6243 layer_factory.hpp:77] Creating layer data
I0411 08:36:43.430184  6243 net.cpp:100] Creating Layer data
I0411 08:36:43.430217  6243 net.cpp:408] data -> data
I0411 08:36:43.430248  6243 net.cpp:408] data -> label
I0411 08:36:43.431479  6495 db_lmdb.cpp:35] Opened lmdb ../local_data/lmdb/rtsd-r1/imajust/train/lmdb
I0411 08:36:43.451778  6243 data_layer.cpp:41] output data size: 1024,3,48,48
I0411 08:36:43.505455  6243 net.cpp:150] Setting up data
I0411 08:36:43.505497  6243 net.cpp:157] Top shape: 1024 3 48 48 (7077888)
I0411 08:36:43.505504  6243 net.cpp:157] Top shape: 1024 (1024)
I0411 08:36:43.505508  6243 net.cpp:165] Memory required for data: 28315648
I0411 08:36:43.505522  6243 layer_factory.hpp:77] Creating layer conv1
I0411 08:36:43.505551  6243 net.cpp:100] Creating Layer conv1
I0411 08:36:43.505563  6243 net.cpp:434] conv1 <- data
I0411 08:36:43.505584  6243 net.cpp:408] conv1 -> conv1
I0411 08:36:43.855952  6243 net.cpp:150] Setting up conv1
I0411 08:36:43.855986  6243 net.cpp:157] Top shape: 1024 100 42 42 (180633600)
I0411 08:36:43.855991  6243 net.cpp:165] Memory required for data: 750850048
I0411 08:36:43.856016  6243 layer_factory.hpp:77] Creating layer conv1_prescale
I0411 08:36:43.856039  6243 net.cpp:100] Creating Layer conv1_prescale
I0411 08:36:43.856045  6243 net.cpp:434] conv1_prescale <- conv1
I0411 08:36:43.856053  6243 net.cpp:395] conv1_prescale -> conv1 (in-place)
I0411 08:36:43.856195  6243 net.cpp:150] Setting up conv1_prescale
I0411 08:36:43.856206  6243 net.cpp:157] Top shape: 1024 100 42 42 (180633600)
I0411 08:36:43.856212  6243 net.cpp:165] Memory required for data: 1473384448
I0411 08:36:43.856221  6243 layer_factory.hpp:77] Creating layer conv1_sTanH
I0411 08:36:43.856232  6243 net.cpp:100] Creating Layer conv1_sTanH
I0411 08:36:43.856238  6243 net.cpp:434] conv1_sTanH <- conv1
I0411 08:36:43.856250  6243 net.cpp:395] conv1_sTanH -> conv1 (in-place)
I0411 08:36:43.856508  6243 net.cpp:150] Setting up conv1_sTanH
I0411 08:36:43.856524  6243 net.cpp:157] Top shape: 1024 100 42 42 (180633600)
I0411 08:36:43.856530  6243 net.cpp:165] Memory required for data: 2195918848
I0411 08:36:43.856534  6243 layer_factory.hpp:77] Creating layer conv1_postscale
I0411 08:36:43.856544  6243 net.cpp:100] Creating Layer conv1_postscale
I0411 08:36:43.856550  6243 net.cpp:434] conv1_postscale <- conv1
I0411 08:36:43.856559  6243 net.cpp:395] conv1_postscale -> conv1 (in-place)
I0411 08:36:43.856685  6243 net.cpp:150] Setting up conv1_postscale
I0411 08:36:43.856695  6243 net.cpp:157] Top shape: 1024 100 42 42 (180633600)
I0411 08:36:43.856701  6243 net.cpp:165] Memory required for data: 2918453248
I0411 08:36:43.856708  6243 layer_factory.hpp:77] Creating layer pool1
I0411 08:36:43.856717  6243 net.cpp:100] Creating Layer pool1
I0411 08:36:43.856722  6243 net.cpp:434] pool1 <- conv1
I0411 08:36:43.856731  6243 net.cpp:408] pool1 -> pool1
I0411 08:36:43.856792  6243 net.cpp:150] Setting up pool1
I0411 08:36:43.856804  6243 net.cpp:157] Top shape: 1024 100 21 21 (45158400)
I0411 08:36:43.856828  6243 net.cpp:165] Memory required for data: 3099086848
I0411 08:36:43.856833  6243 layer_factory.hpp:77] Creating layer conv2
I0411 08:36:43.856845  6243 net.cpp:100] Creating Layer conv2
I0411 08:36:43.856850  6243 net.cpp:434] conv2 <- pool1
I0411 08:36:43.856859  6243 net.cpp:408] conv2 -> conv2
I0411 08:36:43.863055  6243 net.cpp:150] Setting up conv2
I0411 08:36:43.863077  6243 net.cpp:157] Top shape: 1024 150 18 18 (49766400)
I0411 08:36:43.863083  6243 net.cpp:165] Memory required for data: 3298152448
I0411 08:36:43.863096  6243 layer_factory.hpp:77] Creating layer conv2_prescale
I0411 08:36:43.863108  6243 net.cpp:100] Creating Layer conv2_prescale
I0411 08:36:43.863114  6243 net.cpp:434] conv2_prescale <- conv2
I0411 08:36:43.863121  6243 net.cpp:395] conv2_prescale -> conv2 (in-place)
I0411 08:36:43.863251  6243 net.cpp:150] Setting up conv2_prescale
I0411 08:36:43.863263  6243 net.cpp:157] Top shape: 1024 150 18 18 (49766400)
I0411 08:36:43.863268  6243 net.cpp:165] Memory required for data: 3497218048
I0411 08:36:43.863275  6243 layer_factory.hpp:77] Creating layer conv2_sTanH
I0411 08:36:43.863283  6243 net.cpp:100] Creating Layer conv2_sTanH
I0411 08:36:43.863288  6243 net.cpp:434] conv2_sTanH <- conv2
I0411 08:36:43.863294  6243 net.cpp:395] conv2_sTanH -> conv2 (in-place)
I0411 08:36:43.864387  6243 net.cpp:150] Setting up conv2_sTanH
I0411 08:36:43.864406  6243 net.cpp:157] Top shape: 1024 150 18 18 (49766400)
I0411 08:36:43.864413  6243 net.cpp:165] Memory required for data: 3696283648
I0411 08:36:43.864418  6243 layer_factory.hpp:77] Creating layer conv2_postscale
I0411 08:36:43.864428  6243 net.cpp:100] Creating Layer conv2_postscale
I0411 08:36:43.864434  6243 net.cpp:434] conv2_postscale <- conv2
I0411 08:36:43.864440  6243 net.cpp:395] conv2_postscale -> conv2 (in-place)
I0411 08:36:43.864558  6243 net.cpp:150] Setting up conv2_postscale
I0411 08:36:43.864569  6243 net.cpp:157] Top shape: 1024 150 18 18 (49766400)
I0411 08:36:43.864575  6243 net.cpp:165] Memory required for data: 3895349248
I0411 08:36:43.864581  6243 layer_factory.hpp:77] Creating layer pool2
I0411 08:36:43.864588  6243 net.cpp:100] Creating Layer pool2
I0411 08:36:43.864593  6243 net.cpp:434] pool2 <- conv2
I0411 08:36:43.864600  6243 net.cpp:408] pool2 -> pool2
I0411 08:36:43.864647  6243 net.cpp:150] Setting up pool2
I0411 08:36:43.864657  6243 net.cpp:157] Top shape: 1024 150 9 9 (12441600)
I0411 08:36:43.864660  6243 net.cpp:165] Memory required for data: 3945115648
I0411 08:36:43.864665  6243 layer_factory.hpp:77] Creating layer conv3
I0411 08:36:43.864675  6243 net.cpp:100] Creating Layer conv3
I0411 08:36:43.864679  6243 net.cpp:434] conv3 <- pool2
I0411 08:36:43.864686  6243 net.cpp:408] conv3 -> conv3
I0411 08:36:43.872459  6243 net.cpp:150] Setting up conv3
I0411 08:36:43.872481  6243 net.cpp:157] Top shape: 1024 250 6 6 (9216000)
I0411 08:36:43.872488  6243 net.cpp:165] Memory required for data: 3981979648
I0411 08:36:43.872500  6243 layer_factory.hpp:77] Creating layer conv3_prescale
I0411 08:36:43.872512  6243 net.cpp:100] Creating Layer conv3_prescale
I0411 08:36:43.872519  6243 net.cpp:434] conv3_prescale <- conv3
I0411 08:36:43.872524  6243 net.cpp:395] conv3_prescale -> conv3 (in-place)
I0411 08:36:43.872638  6243 net.cpp:150] Setting up conv3_prescale
I0411 08:36:43.872649  6243 net.cpp:157] Top shape: 1024 250 6 6 (9216000)
I0411 08:36:43.872654  6243 net.cpp:165] Memory required for data: 4018843648
I0411 08:36:43.872660  6243 layer_factory.hpp:77] Creating layer conv3_sTanH
I0411 08:36:43.872670  6243 net.cpp:100] Creating Layer conv3_sTanH
I0411 08:36:43.872675  6243 net.cpp:434] conv3_sTanH <- conv3
I0411 08:36:43.872681  6243 net.cpp:395] conv3_sTanH -> conv3 (in-place)
I0411 08:36:43.874308  6243 net.cpp:150] Setting up conv3_sTanH
I0411 08:36:43.874327  6243 net.cpp:157] Top shape: 1024 250 6 6 (9216000)
I0411 08:36:43.874333  6243 net.cpp:165] Memory required for data: 4055707648
I0411 08:36:43.874338  6243 layer_factory.hpp:77] Creating layer conv3_postscale
I0411 08:36:43.874366  6243 net.cpp:100] Creating Layer conv3_postscale
I0411 08:36:43.874372  6243 net.cpp:434] conv3_postscale <- conv3
I0411 08:36:43.874379  6243 net.cpp:395] conv3_postscale -> conv3 (in-place)
I0411 08:36:43.874500  6243 net.cpp:150] Setting up conv3_postscale
I0411 08:36:43.874511  6243 net.cpp:157] Top shape: 1024 250 6 6 (9216000)
I0411 08:36:43.874516  6243 net.cpp:165] Memory required for data: 4092571648
I0411 08:36:43.874522  6243 layer_factory.hpp:77] Creating layer pool3
I0411 08:36:43.874532  6243 net.cpp:100] Creating Layer pool3
I0411 08:36:43.874537  6243 net.cpp:434] pool3 <- conv3
I0411 08:36:43.874543  6243 net.cpp:408] pool3 -> pool3
I0411 08:36:43.874589  6243 net.cpp:150] Setting up pool3
I0411 08:36:43.874598  6243 net.cpp:157] Top shape: 1024 250 3 3 (2304000)
I0411 08:36:43.874601  6243 net.cpp:165] Memory required for data: 4101787648
I0411 08:36:43.874605  6243 layer_factory.hpp:77] Creating layer fc4_300
I0411 08:36:43.874615  6243 net.cpp:100] Creating Layer fc4_300
I0411 08:36:43.874621  6243 net.cpp:434] fc4_300 <- pool3
I0411 08:36:43.874627  6243 net.cpp:408] fc4_300 -> fc4_300
I0411 08:36:43.881778  6243 net.cpp:150] Setting up fc4_300
I0411 08:36:43.881798  6243 net.cpp:157] Top shape: 1024 300 (307200)
I0411 08:36:43.881804  6243 net.cpp:165] Memory required for data: 4103016448
I0411 08:36:43.881813  6243 layer_factory.hpp:77] Creating layer fc4_prescale
I0411 08:36:43.881824  6243 net.cpp:100] Creating Layer fc4_prescale
I0411 08:36:43.881829  6243 net.cpp:434] fc4_prescale <- fc4_300
I0411 08:36:43.881836  6243 net.cpp:395] fc4_prescale -> fc4_300 (in-place)
I0411 08:36:43.881945  6243 net.cpp:150] Setting up fc4_prescale
I0411 08:36:43.881955  6243 net.cpp:157] Top shape: 1024 300 (307200)
I0411 08:36:43.881959  6243 net.cpp:165] Memory required for data: 4104245248
I0411 08:36:43.881965  6243 layer_factory.hpp:77] Creating layer fc4_sTanH
I0411 08:36:43.881973  6243 net.cpp:100] Creating Layer fc4_sTanH
I0411 08:36:43.881978  6243 net.cpp:434] fc4_sTanH <- fc4_300
I0411 08:36:43.881983  6243 net.cpp:395] fc4_sTanH -> fc4_300 (in-place)
I0411 08:36:43.882208  6243 net.cpp:150] Setting up fc4_sTanH
I0411 08:36:43.882222  6243 net.cpp:157] Top shape: 1024 300 (307200)
I0411 08:36:43.882228  6243 net.cpp:165] Memory required for data: 4105474048
I0411 08:36:43.882232  6243 layer_factory.hpp:77] Creating layer fc4_postscale
I0411 08:36:43.882241  6243 net.cpp:100] Creating Layer fc4_postscale
I0411 08:36:43.882246  6243 net.cpp:434] fc4_postscale <- fc4_300
I0411 08:36:43.882252  6243 net.cpp:395] fc4_postscale -> fc4_300 (in-place)
I0411 08:36:43.882365  6243 net.cpp:150] Setting up fc4_postscale
I0411 08:36:43.882375  6243 net.cpp:157] Top shape: 1024 300 (307200)
I0411 08:36:43.882380  6243 net.cpp:165] Memory required for data: 4106702848
I0411 08:36:43.882385  6243 layer_factory.hpp:77] Creating layer fc5_67
I0411 08:36:43.882393  6243 net.cpp:100] Creating Layer fc5_67
I0411 08:36:43.882400  6243 net.cpp:434] fc5_67 <- fc4_300
I0411 08:36:43.882405  6243 net.cpp:408] fc5_67 -> fc5_classes
I0411 08:36:43.884652  6243 net.cpp:150] Setting up fc5_67
I0411 08:36:43.884671  6243 net.cpp:157] Top shape: 1024 67 (68608)
I0411 08:36:43.884677  6243 net.cpp:165] Memory required for data: 4106977280
I0411 08:36:43.884690  6243 layer_factory.hpp:77] Creating layer loss
I0411 08:36:43.884701  6243 net.cpp:100] Creating Layer loss
I0411 08:36:43.884706  6243 net.cpp:434] loss <- fc5_classes
I0411 08:36:43.884711  6243 net.cpp:434] loss <- label
I0411 08:36:43.884718  6243 net.cpp:408] loss -> loss
I0411 08:36:43.884735  6243 layer_factory.hpp:77] Creating layer loss
…
I0411 08:36:43.885627  6243 solver.cpp:193] Creating test net (#0) specified by test_net file: ./Prototxt/experiment_8/rtsd-r1/imajust/trial_5/test.prototxt
I0411 08:36:43.885848  6243 net.cpp:58] Initializing net from parameters: 
state {
  phase: TEST
}
layer {
  name: "data"
  type: "Data"
  top: "data"
  top: "label"
  include {
    phase: TEST
  }
  transform_param {
    scale: 0.0039215689
    mirror: false
    crop_size: 48
    mean_value: 109
    mean_value: 106
    mean_value: 126
  }
  data_param {
    source: "../local_data/lmdb/rtsd-r1/imajust/test/lmdb"
    batch_size: 1024
    backend: LMDB
  }
}
layer {
  name: "conv1"
  type: "Convolution"
  bottom: "data"
  top: "conv1"
  convolution_param {
    num_output: 100
    pad: 0
    kernel_size: 7
    group: 1
    stride: 1
    weight_filler {
      type: "xavier"
    }
  }
}
layer {
  name: "conv1_prescale"
  type: "Scale"
  bottom: "conv1"
  top: "conv1"
  param {
    lr_mult: 0
    decay_mult: 0
  }
  scale_param {
    filler {
      value: 0.6666
    }
    bias_term: false
  }
}
layer {
  name: "conv1_sTanH"
  type: "TanH"
  bottom: "conv1"
  top: "conv1"
}
layer {
  name: "conv1_postscale"
  type: "Scale"
  bottom: "conv1"
  top: "conv1"
  param {
    lr_mult: 0
    decay_mult: 0
  }
  scale_param {
    filler {
      value: 1.7159
    }
    bias_term: false
  }
}
layer {
  name: "pool1"
  type: "Pooling"
  bottom: "conv1"
  top: "pool1"
  pooling_param {
    pool: MAX
    kernel_size: 2
    stride: 2
  }
}
layer {
  name: "conv2"
  type: "Convolution"
  bottom: "pool1"
  top: "conv2"
  convolution_param {
    num_output: 150
    pad: 0
    kernel_size: 4
    group: 1
    stride: 1
    weight_filler {
      type: "xavier"
    }
  }
}
layer {
  name: "conv2_prescale"
  type: "Scale"
  bottom: "conv2"
  top: "conv2"
  param {
    lr_mult: 0
    decay_mult: 0
  }
  scale_param {
    filler {
      value: 0.6666
    }
    bias_term: false
  }
}
layer {
  name: "conv2_sTanH"
  type: "TanH"
  bottom: "conv2"
  top: "conv2"
}
layer {
  name: "conv2_postscale"
  type: "Scale"
  bottom: "conv2"
  top: "conv2"
  param {
    lr_mult: 0
    decay_mult: 0
  }
  scale_param {
    filler {
      value: 1.7159
    }
    bias_term: false
  }
}
layer {
  name: "pool2"
  type: "Pooling"
  bottom: "conv2"
  top: "pool2"
  pooling_param {
    pool: MAX
    kernel_size: 2
    stride: 2
  }
}
layer {
  name: "conv3"
  type: "Convolution"
  bottom: "pool2"
  top: "conv3"
  convolution_param {
    num_output: 250
    pad: 0
    kernel_size: 4
    group: 1
    stride: 1
    weight_filler {
      type: "xavier"
    }
  }
}
layer {
  name: "conv3_prescale"
  type: "Scale"
  bottom: "conv3"
  top: "conv3"
  param {
    lr_mult: 0
    decay_mult: 0
  }
  scale_param {
    filler {
      value: 0.6666
    }
    bias_term: false
  }
}
layer {
  name: "conv3_sTanH"
  type: "TanH"
  bottom: "conv3"
  top: "conv3"
}
layer {
  name: "conv3_postscale"
  type: "Scale"
  bottom: "conv3"
  top: "conv3"
  param {
    lr_mult: 0
    decay_mult: 0
  }
  scale_param {
    filler {
      value: 1.7159
    }
    bias_term: false
  }
}
layer {
  name: "pool3"
  type: "Pooling"
  bottom: "conv3"
  top: "pool3"
  pooling_param {
    pool: MAX
    kernel_size: 2
    stride: 2
  }
}
layer {
  name: "fc4_300"
  type: "InnerProduct"
  bottom: "pool3"
  top: "fc4_300"
  inner_product_param {
    num_output: 300
    weight_filler {
      type: "xavier"
    }
  }
}
layer {
  name: "fc4_prescale"
  type: "Scale"
  bottom: "fc4_300"
  top: "fc4_300"
  param {
    lr_mult: 0
    decay_mult: 0
  }
  scale_param {
    filler {
      value: 0.6666
    }
    bias_term: false
  }
}
layer {
  name: "fc4_sTanH"
  type: "TanH"
  bottom: "fc4_300"
  top: "fc4_300"
}
layer {
  name: "fc4_postscale"
  type: "Scale"
  bottom: "fc4_300"
  top: "fc4_300"
  param {
    lr_mult: 0
    decay_mult: 0
  }
  scale_param {
    filler {
      value: 1.7159
    }
    bias_term: false
  }
}
layer {
  name: "fc5_67"
  type: "InnerProduct"
  bottom: "fc4_300"
  top: "fc5_classes"
  inner_product_param {
    num_output: 67
    weight_filler {
      type: "xavier"
    }
  }
}
layer {
  name: "loss"
  type: "SoftmaxWithLoss"
  bottom: "fc5_classes"
  bottom: "label"
  top: "loss"
}
layer {
  name: "accuracy_1"
  type: "Accuracy"
  bottom: "fc5_classes"
  bottom: "label"
  top: "accuracy_1"
  include {
    phase: TEST
  }
  accuracy_param {
    top_k: 1
  }
}
layer {
  name: "accuracy_5"
  type: "Accuracy"
  bottom: "fc5_classes"
  bottom: "label"
  top: "accuracy_5"
  include {
    phase: TEST
  }
  accuracy_param {
    top_k: 5
  }
}
I0411 08:36:43.885982  6243 layer_factory.hpp:77] Creating layer data
I0411 08:36:43.886678  6243 net.cpp:100] Creating Layer data
I0411 08:36:43.886693  6243 net.cpp:408] data -> data
I0411 08:36:43.886703  6243 net.cpp:408] data -> label
I0411 08:36:43.890000  6548 db_lmdb.cpp:35] Opened lmdb ../local_data/lmdb/rtsd-r1/imajust/test/lmdb
I0411 08:36:43.890177  6243 data_layer.cpp:41] output data size: 1024,3,48,48
I0411 08:36:43.939180  6243 net.cpp:150] Setting up data
I0411 08:36:43.939210  6243 net.cpp:157] Top shape: 1024 3 48 48 (7077888)
I0411 08:36:43.939216  6243 net.cpp:157] Top shape: 1024 (1024)
I0411 08:36:43.939220  6243 net.cpp:165] Memory required for data: 28315648
I0411 08:36:43.939230  6243 layer_factory.hpp:77] Creating layer label_data_1_split
I0411 08:36:43.939244  6243 net.cpp:100] Creating Layer label_data_1_split
I0411 08:36:43.939251  6243 net.cpp:434] label_data_1_split <- label
I0411 08:36:43.939260  6243 net.cpp:408] label_data_1_split -> label_data_1_split_0
I0411 08:36:43.939272  6243 net.cpp:408] label_data_1_split -> label_data_1_split_1
I0411 08:36:43.939281  6243 net.cpp:408] label_data_1_split -> label_data_1_split_2
I0411 08:36:43.939411  6243 net.cpp:150] Setting up label_data_1_split
I0411 08:36:43.939421  6243 net.cpp:157] Top shape: 1024 (1024)
I0411 08:36:43.939425  6243 net.cpp:157] Top shape: 1024 (1024)
I0411 08:36:43.939429  6243 net.cpp:157] Top shape: 1024 (1024)
I0411 08:36:43.939432  6243 net.cpp:165] Memory required for data: 28327936
I0411 08:36:43.939435  6243 layer_factory.hpp:77] Creating layer conv1
I0411 08:36:43.939450  6243 net.cpp:100] Creating Layer conv1
I0411 08:36:43.939455  6243 net.cpp:434] conv1 <- data
I0411 08:36:43.939461  6243 net.cpp:408] conv1 -> conv1
I0411 08:36:43.943423  6243 net.cpp:150] Setting up conv1
I0411 08:36:43.943444  6243 net.cpp:157] Top shape: 1024 100 42 42 (180633600)
I0411 08:36:43.943467  6243 net.cpp:165] Memory required for data: 750862336
I0411 08:36:43.943482  6243 layer_factory.hpp:77] Creating layer conv1_prescale
I0411 08:36:43.943498  6243 net.cpp:100] Creating Layer conv1_prescale
I0411 08:36:43.943505  6243 net.cpp:434] conv1_prescale <- conv1
I0411 08:36:43.943511  6243 net.cpp:395] conv1_prescale -> conv1 (in-place)
I0411 08:36:43.943621  6243 net.cpp:150] Setting up conv1_prescale
I0411 08:36:43.943630  6243 net.cpp:157] Top shape: 1024 100 42 42 (180633600)
I0411 08:36:43.943634  6243 net.cpp:165] Memory required for data: 1473396736
I0411 08:36:43.943641  6243 layer_factory.hpp:77] Creating layer conv1_sTanH
I0411 08:36:43.943650  6243 net.cpp:100] Creating Layer conv1_sTanH
I0411 08:36:43.943655  6243 net.cpp:434] conv1_sTanH <- conv1
I0411 08:36:43.943661  6243 net.cpp:395] conv1_sTanH -> conv1 (in-place)
I0411 08:36:43.943861  6243 net.cpp:150] Setting up conv1_sTanH
I0411 08:36:43.943873  6243 net.cpp:157] Top shape: 1024 100 42 42 (180633600)
I0411 08:36:43.943889  6243 net.cpp:165] Memory required for data: 2195931136
I0411 08:36:43.943894  6243 layer_factory.hpp:77] Creating layer conv1_postscale
I0411 08:36:43.943902  6243 net.cpp:100] Creating Layer conv1_postscale
I0411 08:36:43.943905  6243 net.cpp:434] conv1_postscale <- conv1
I0411 08:36:43.943910  6243 net.cpp:395] conv1_postscale -> conv1 (in-place)
I0411 08:36:43.944023  6243 net.cpp:150] Setting up conv1_postscale
I0411 08:36:43.944036  6243 net.cpp:157] Top shape: 1024 100 42 42 (180633600)
I0411 08:36:43.944039  6243 net.cpp:165] Memory required for data: 2918465536
I0411 08:36:43.944046  6243 layer_factory.hpp:77] Creating layer pool1
I0411 08:36:43.944052  6243 net.cpp:100] Creating Layer pool1
I0411 08:36:43.944056  6243 net.cpp:434] pool1 <- conv1
I0411 08:36:43.944061  6243 net.cpp:408] pool1 -> pool1
I0411 08:36:43.944105  6243 net.cpp:150] Setting up pool1
I0411 08:36:43.944114  6243 net.cpp:157] Top shape: 1024 100 21 21 (45158400)
I0411 08:36:43.944118  6243 net.cpp:165] Memory required for data: 3099099136
I0411 08:36:43.944120  6243 layer_factory.hpp:77] Creating layer conv2
I0411 08:36:43.944129  6243 net.cpp:100] Creating Layer conv2
I0411 08:36:43.944133  6243 net.cpp:434] conv2 <- pool1
I0411 08:36:43.944139  6243 net.cpp:408] conv2 -> conv2
I0411 08:36:43.948472  6243 net.cpp:150] Setting up conv2
I0411 08:36:43.948492  6243 net.cpp:157] Top shape: 1024 150 18 18 (49766400)
I0411 08:36:43.948495  6243 net.cpp:165] Memory required for data: 3298164736
I0411 08:36:43.948508  6243 layer_factory.hpp:77] Creating layer conv2_prescale
I0411 08:36:43.948518  6243 net.cpp:100] Creating Layer conv2_prescale
I0411 08:36:43.948521  6243 net.cpp:434] conv2_prescale <- conv2
I0411 08:36:43.948528  6243 net.cpp:395] conv2_prescale -> conv2 (in-place)
I0411 08:36:43.948642  6243 net.cpp:150] Setting up conv2_prescale
I0411 08:36:43.948652  6243 net.cpp:157] Top shape: 1024 150 18 18 (49766400)
I0411 08:36:43.948655  6243 net.cpp:165] Memory required for data: 3497230336
I0411 08:36:43.948660  6243 layer_factory.hpp:77] Creating layer conv2_sTanH
I0411 08:36:43.948667  6243 net.cpp:100] Creating Layer conv2_sTanH
I0411 08:36:43.948669  6243 net.cpp:434] conv2_sTanH <- conv2
I0411 08:36:43.948674  6243 net.cpp:395] conv2_sTanH -> conv2 (in-place)
I0411 08:36:43.949669  6243 net.cpp:150] Setting up conv2_sTanH
I0411 08:36:43.949687  6243 net.cpp:157] Top shape: 1024 150 18 18 (49766400)
I0411 08:36:43.949690  6243 net.cpp:165] Memory required for data: 3696295936
I0411 08:36:43.949694  6243 layer_factory.hpp:77] Creating layer conv2_postscale
I0411 08:36:43.949702  6243 net.cpp:100] Creating Layer conv2_postscale
I0411 08:36:43.949707  6243 net.cpp:434] conv2_postscale <- conv2
I0411 08:36:43.949712  6243 net.cpp:395] conv2_postscale -> conv2 (in-place)
I0411 08:36:43.949815  6243 net.cpp:150] Setting up conv2_postscale
I0411 08:36:43.949826  6243 net.cpp:157] Top shape: 1024 150 18 18 (49766400)
I0411 08:36:43.949829  6243 net.cpp:165] Memory required for data: 3895361536
I0411 08:36:43.949851  6243 layer_factory.hpp:77] Creating layer pool2
I0411 08:36:43.949867  6243 net.cpp:100] Creating Layer pool2
I0411 08:36:43.949870  6243 net.cpp:434] pool2 <- conv2
I0411 08:36:43.949877  6243 net.cpp:408] pool2 -> pool2
I0411 08:36:43.949926  6243 net.cpp:150] Setting up pool2
I0411 08:36:43.949935  6243 net.cpp:157] Top shape: 1024 150 9 9 (12441600)
I0411 08:36:43.949939  6243 net.cpp:165] Memory required for data: 3945127936
I0411 08:36:43.949942  6243 layer_factory.hpp:77] Creating layer conv3
I0411 08:36:43.949950  6243 net.cpp:100] Creating Layer conv3
I0411 08:36:43.949954  6243 net.cpp:434] conv3 <- pool2
I0411 08:36:43.949959  6243 net.cpp:408] conv3 -> conv3
I0411 08:36:43.955740  6243 net.cpp:150] Setting up conv3
I0411 08:36:43.955760  6243 net.cpp:157] Top shape: 1024 250 6 6 (9216000)
I0411 08:36:43.955763  6243 net.cpp:165] Memory required for data: 3981991936
I0411 08:36:43.955775  6243 layer_factory.hpp:77] Creating layer conv3_prescale
I0411 08:36:43.955782  6243 net.cpp:100] Creating Layer conv3_prescale
I0411 08:36:43.955787  6243 net.cpp:434] conv3_prescale <- conv3
I0411 08:36:43.955793  6243 net.cpp:395] conv3_prescale -> conv3 (in-place)
I0411 08:36:43.955898  6243 net.cpp:150] Setting up conv3_prescale
I0411 08:36:43.955909  6243 net.cpp:157] Top shape: 1024 250 6 6 (9216000)
I0411 08:36:43.955911  6243 net.cpp:165] Memory required for data: 4018855936
I0411 08:36:43.955916  6243 layer_factory.hpp:77] Creating layer conv3_sTanH
I0411 08:36:43.955926  6243 net.cpp:100] Creating Layer conv3_sTanH
I0411 08:36:43.955930  6243 net.cpp:434] conv3_sTanH <- conv3
I0411 08:36:43.955935  6243 net.cpp:395] conv3_sTanH -> conv3 (in-place)
I0411 08:36:43.956825  6243 net.cpp:150] Setting up conv3_sTanH
I0411 08:36:43.956841  6243 net.cpp:157] Top shape: 1024 250 6 6 (9216000)
I0411 08:36:43.956845  6243 net.cpp:165] Memory required for data: 4055719936
I0411 08:36:43.956849  6243 layer_factory.hpp:77] Creating layer conv3_postscale
I0411 08:36:43.956857  6243 net.cpp:100] Creating Layer conv3_postscale
I0411 08:36:43.956861  6243 net.cpp:434] conv3_postscale <- conv3
I0411 08:36:43.956867  6243 net.cpp:395] conv3_postscale -> conv3 (in-place)
I0411 08:36:43.956967  6243 net.cpp:150] Setting up conv3_postscale
I0411 08:36:43.956977  6243 net.cpp:157] Top shape: 1024 250 6 6 (9216000)
I0411 08:36:43.956984  6243 net.cpp:165] Memory required for data: 4092583936
I0411 08:36:43.956998  6243 layer_factory.hpp:77] Creating layer pool3
I0411 08:36:43.957007  6243 net.cpp:100] Creating Layer pool3
I0411 08:36:43.957015  6243 net.cpp:434] pool3 <- conv3
I0411 08:36:43.957020  6243 net.cpp:408] pool3 -> pool3
I0411 08:36:43.957063  6243 net.cpp:150] Setting up pool3
I0411 08:36:43.957072  6243 net.cpp:157] Top shape: 1024 250 3 3 (2304000)
I0411 08:36:43.957074  6243 net.cpp:165] Memory required for data: 4101799936
I0411 08:36:43.957078  6243 layer_factory.hpp:77] Creating layer fc4_300
I0411 08:36:43.957085  6243 net.cpp:100] Creating Layer fc4_300
I0411 08:36:43.957088  6243 net.cpp:434] fc4_300 <- pool3
I0411 08:36:43.957093  6243 net.cpp:408] fc4_300 -> fc4_300
I0411 08:36:43.962716  6243 net.cpp:150] Setting up fc4_300
I0411 08:36:43.962735  6243 net.cpp:157] Top shape: 1024 300 (307200)
I0411 08:36:43.962739  6243 net.cpp:165] Memory required for data: 4103028736
I0411 08:36:43.962746  6243 layer_factory.hpp:77] Creating layer fc4_prescale
I0411 08:36:43.962755  6243 net.cpp:100] Creating Layer fc4_prescale
I0411 08:36:43.962759  6243 net.cpp:434] fc4_prescale <- fc4_300
I0411 08:36:43.962766  6243 net.cpp:395] fc4_prescale -> fc4_300 (in-place)
I0411 08:36:43.962857  6243 net.cpp:150] Setting up fc4_prescale
I0411 08:36:43.962867  6243 net.cpp:157] Top shape: 1024 300 (307200)
I0411 08:36:43.962869  6243 net.cpp:165] Memory required for data: 4104257536
I0411 08:36:43.962874  6243 layer_factory.hpp:77] Creating layer fc4_sTanH
I0411 08:36:43.962879  6243 net.cpp:100] Creating Layer fc4_sTanH
I0411 08:36:43.962883  6243 net.cpp:434] fc4_sTanH <- fc4_300
I0411 08:36:43.962888  6243 net.cpp:395] fc4_sTanH -> fc4_300 (in-place)
I0411 08:36:43.963109  6243 net.cpp:150] Setting up fc4_sTanH
I0411 08:36:43.963122  6243 net.cpp:157] Top shape: 1024 300 (307200)
I0411 08:36:43.963125  6243 net.cpp:165] Memory required for data: 4105486336
I0411 08:36:43.963129  6243 layer_factory.hpp:77] Creating layer fc4_postscale
I0411 08:36:43.963136  6243 net.cpp:100] Creating Layer fc4_postscale
I0411 08:36:43.963140  6243 net.cpp:434] fc4_postscale <- fc4_300
I0411 08:36:43.963146  6243 net.cpp:395] fc4_postscale -> fc4_300 (in-place)
I0411 08:36:43.963240  6243 net.cpp:150] Setting up fc4_postscale
I0411 08:36:43.963249  6243 net.cpp:157] Top shape: 1024 300 (307200)
I0411 08:36:43.963253  6243 net.cpp:165] Memory required for data: 4106715136
I0411 08:36:43.963258  6243 layer_factory.hpp:77] Creating layer fc5_67
I0411 08:36:43.963263  6243 net.cpp:100] Creating Layer fc5_67
I0411 08:36:43.963268  6243 net.cpp:434] fc5_67 <- fc4_300
I0411 08:36:43.963273  6243 net.cpp:408] fc5_67 -> fc5_classes
I0411 08:36:43.963517  6243 net.cpp:150] Setting up fc5_67
I0411 08:36:43.963527  6243 net.cpp:157] Top shape: 1024 67 (68608)
I0411 08:36:43.963529  6243 net.cpp:165] Memory required for data: 4106989568
I0411 08:36:43.963541  6243 layer_factory.hpp:77] Creating layer fc5_classes_fc5_67_0_split
I0411 08:36:43.963553  6243 net.cpp:100] Creating Layer fc5_classes_fc5_67_0_split
I0411 08:36:43.963557  6243 net.cpp:434] fc5_classes_fc5_67_0_split <- fc5_classes
I0411 08:36:43.963562  6243 net.cpp:408] fc5_classes_fc5_67_0_split -> fc5_classes_fc5_67_0_split_0
I0411 08:36:43.963569  6243 net.cpp:408] fc5_classes_fc5_67_0_split -> fc5_classes_fc5_67_0_split_1
I0411 08:36:43.963575  6243 net.cpp:408] fc5_classes_fc5_67_0_split -> fc5_classes_fc5_67_0_split_2
I0411 08:36:43.963624  6243 net.cpp:150] Setting up fc5_classes_fc5_67_0_split
I0411 08:36:43.963631  6243 net.cpp:157] Top shape: 1024 67 (68608)
I0411 08:36:43.963635  6243 net.cpp:157] Top shape: 1024 67 (68608)
I0411 08:36:43.963639  6243 net.cpp:157] Top shape: 1024 67 (68608)
I0411 08:36:43.963641  6243 net.cpp:165] Memory required for data: 4107812864
I0411 08:36:43.963644  6243 layer_factory.hpp:77] Creating layer loss
I0411 08:36:43.963650  6243 net.cpp:100] Creating Layer loss
I0411 08:36:43.963654  6243 net.cpp:434] loss <- fc5_classes_fc5_67_0_split_0
I0411 08:36:43.963657  6243 net.cpp:434] loss <- label_data_1_split_0
I0411 08:36:43.963662  6243 net.cpp:408] loss -> loss
…
