…
I0415 05:59:46.191632 28219 solver.cpp:93] Creating training net from train_net file: ./Prototxt/experiment_12/rtsd-r1/imajust/trial_2/train.prototxt
I0415 05:59:46.211755 28219 net.cpp:58] Initializing net from parameters: 
state {
  phase: TRAIN
  level: 0
  stage: ""
}
layer {
  name: "data"
  type: "Data"
  top: "data"
  top: "label"
  include {
    phase: TRAIN
  }
  transform_param {
    scale: 0.0039215689
    mirror: false
    crop_size: 48
    mean_value: 115
    mean_value: 108
    mean_value: 122
  }
  data_param {
    source: "../local_data/lmdb/rtsd-r1/imajust/train/lmdb"
    batch_size: 1024
    backend: LMDB
  }
}
layer {
  name: "conv1"
  type: "Convolution"
  bottom: "data"
  top: "conv1"
  convolution_param {
    num_output: 100
    pad: 0
    kernel_size: 7
    group: 1
    stride: 1
    weight_filler {
      type: "xavier"
    }
  }
}
layer {
  name: "conv1_relu"
  type: "ReLU"
  bottom: "conv1"
  top: "conv1"
}
layer {
  name: "pool1"
  type: "Pooling"
  bottom: "conv1"
  top: "pool1"
  pooling_param {
    pool: MAX
    kernel_size: 2
    stride: 2
  }
}
layer {
  name: "conv2"
  type: "Convolution"
  bottom: "pool1"
  top: "conv2"
  convolution_param {
    num_output: 150
    pad: 0
    kernel_size: 4
    group: 1
    stride: 1
    weight_filler {
      type: "xavier"
    }
  }
}
layer {
  name: "conv2_relu"
  type: "ReLU"
  bottom: "conv2"
  top: "conv2"
}
layer {
  name: "pool2"
  type: "Pooling"
  bottom: "conv2"
  top: "pool2"
  pooling_param {
    pool: MAX
    kernel_size: 2
    stride: 2
  }
}
layer {
  name: "conv3"
  type: "Convolution"
  bottom: "pool2"
  top: "conv3"
  convolution_param {
    num_output: 250
    pad: 0
    kernel_size: 4
    group: 1
    stride: 1
    weight_filler {
      type: "xavier"
    }
  }
}
layer {
  name: "conv3_relu"
  type: "ReLU"
  bottom: "conv3"
  top: "conv3"
}
layer {
  name: "pool3"
  type: "Pooling"
  bottom: "conv3"
  top: "pool3"
  pooling_param {
    pool: MAX
    kernel_size: 2
    stride: 2
  }
}
layer {
  name: "fc4_300"
  type: "InnerProduct"
  bottom: "pool3"
  top: "fc4_300"
  inner_product_param {
    num_output: 300
    weight_filler {
      type: "xavier"
    }
  }
}
layer {
  name: "fc4_relu"
  type: "ReLU"
  bottom: "fc4_300"
  top: "fc4_300"
}
layer {
  name: "drop4"
  type: "Dropout"
  bottom: "fc4_300"
  top: "fc4_300"
  dropout_param {
    dropout_ratio: 0.5
  }
}
layer {
  name: "fc5_67"
  type: "InnerProduct"
  bottom: "fc4_300"
  top: "fc5_classes"
  inner_product_param {
    num_output: 67
    weight_filler {
      type: "xavier"
    }
  }
}
layer {
  name: "softmax"
  type: "Softmax"
  bottom: "fc5_classes"
  top: "softmax"
}
layer {
  name: "loss"
  type: "MultinomialLogisticLoss"
  bottom: "softmax"
  bottom: "label"
  top: "loss"
}
layer {
  name: "accuracy_1"
  type: "Accuracy"
  bottom: "fc5_classes"
  bottom: "label"
  top: "accuracy_1"
  accuracy_param {
    top_k: 1
  }
}
layer {
  name: "accuracy_5"
  type: "Accuracy"
  bottom: "fc5_classes"
  bottom: "label"
  top: "accuracy_5"
  accuracy_param {
    top_k: 5
  }
}
layer {
  name: "silence"
  type: "Silence"
  bottom: "accuracy_1"
  bottom: "accuracy_5"
}
I0415 05:59:46.211958 28219 layer_factory.hpp:77] Creating layer data
I0415 05:59:46.213357 28219 net.cpp:100] Creating Layer data
I0415 05:59:46.213379 28219 net.cpp:408] data -> data
I0415 05:59:46.213412 28219 net.cpp:408] data -> label
I0415 05:59:46.219405 28416 db_lmdb.cpp:35] Opened lmdb ../local_data/lmdb/rtsd-r1/imajust/train/lmdb
I0415 05:59:46.237143 28219 data_layer.cpp:41] output data size: 1024,3,48,48
I0415 05:59:46.290925 28219 net.cpp:150] Setting up data
I0415 05:59:46.290956 28219 net.cpp:157] Top shape: 1024 3 48 48 (7077888)
I0415 05:59:46.290961 28219 net.cpp:157] Top shape: 1024 (1024)
I0415 05:59:46.290963 28219 net.cpp:165] Memory required for data: 28315648
I0415 05:59:46.290974 28219 layer_factory.hpp:77] Creating layer label_data_1_split
I0415 05:59:46.290987 28219 net.cpp:100] Creating Layer label_data_1_split
I0415 05:59:46.290993 28219 net.cpp:434] label_data_1_split <- label
I0415 05:59:46.291007 28219 net.cpp:408] label_data_1_split -> label_data_1_split_0
I0415 05:59:46.291018 28219 net.cpp:408] label_data_1_split -> label_data_1_split_1
I0415 05:59:46.291029 28219 net.cpp:408] label_data_1_split -> label_data_1_split_2
I0415 05:59:46.291118 28219 net.cpp:150] Setting up label_data_1_split
I0415 05:59:46.291127 28219 net.cpp:157] Top shape: 1024 (1024)
I0415 05:59:46.291131 28219 net.cpp:157] Top shape: 1024 (1024)
I0415 05:59:46.291136 28219 net.cpp:157] Top shape: 1024 (1024)
I0415 05:59:46.291137 28219 net.cpp:165] Memory required for data: 28327936
I0415 05:59:46.291141 28219 layer_factory.hpp:77] Creating layer conv1
I0415 05:59:46.291158 28219 net.cpp:100] Creating Layer conv1
I0415 05:59:46.291163 28219 net.cpp:434] conv1 <- data
I0415 05:59:46.291169 28219 net.cpp:408] conv1 -> conv1
I0415 05:59:47.368314 28219 net.cpp:150] Setting up conv1
I0415 05:59:47.368356 28219 net.cpp:157] Top shape: 1024 100 42 42 (180633600)
I0415 05:59:47.368360 28219 net.cpp:165] Memory required for data: 750862336
I0415 05:59:47.368383 28219 layer_factory.hpp:77] Creating layer conv1_relu
I0415 05:59:47.368396 28219 net.cpp:100] Creating Layer conv1_relu
I0415 05:59:47.368401 28219 net.cpp:434] conv1_relu <- conv1
I0415 05:59:47.368407 28219 net.cpp:395] conv1_relu -> conv1 (in-place)
I0415 05:59:47.368609 28219 net.cpp:150] Setting up conv1_relu
I0415 05:59:47.368621 28219 net.cpp:157] Top shape: 1024 100 42 42 (180633600)
I0415 05:59:47.368626 28219 net.cpp:165] Memory required for data: 1473396736
I0415 05:59:47.368629 28219 layer_factory.hpp:77] Creating layer pool1
I0415 05:59:47.368639 28219 net.cpp:100] Creating Layer pool1
I0415 05:59:47.368643 28219 net.cpp:434] pool1 <- conv1
I0415 05:59:47.368649 28219 net.cpp:408] pool1 -> pool1
I0415 05:59:47.368706 28219 net.cpp:150] Setting up pool1
I0415 05:59:47.368716 28219 net.cpp:157] Top shape: 1024 100 21 21 (45158400)
I0415 05:59:47.368719 28219 net.cpp:165] Memory required for data: 1654030336
I0415 05:59:47.368722 28219 layer_factory.hpp:77] Creating layer conv2
I0415 05:59:47.368733 28219 net.cpp:100] Creating Layer conv2
I0415 05:59:47.368737 28219 net.cpp:434] conv2 <- pool1
I0415 05:59:47.368742 28219 net.cpp:408] conv2 -> conv2
I0415 05:59:47.374718 28219 net.cpp:150] Setting up conv2
I0415 05:59:47.374747 28219 net.cpp:157] Top shape: 1024 150 18 18 (49766400)
I0415 05:59:47.374750 28219 net.cpp:165] Memory required for data: 1853095936
I0415 05:59:47.374765 28219 layer_factory.hpp:77] Creating layer conv2_relu
I0415 05:59:47.374776 28219 net.cpp:100] Creating Layer conv2_relu
I0415 05:59:47.374783 28219 net.cpp:434] conv2_relu <- conv2
I0415 05:59:47.374788 28219 net.cpp:395] conv2_relu -> conv2 (in-place)
I0415 05:59:47.376654 28219 net.cpp:150] Setting up conv2_relu
I0415 05:59:47.376674 28219 net.cpp:157] Top shape: 1024 150 18 18 (49766400)
I0415 05:59:47.376678 28219 net.cpp:165] Memory required for data: 2052161536
I0415 05:59:47.376682 28219 layer_factory.hpp:77] Creating layer pool2
I0415 05:59:47.376691 28219 net.cpp:100] Creating Layer pool2
I0415 05:59:47.376695 28219 net.cpp:434] pool2 <- conv2
I0415 05:59:47.376703 28219 net.cpp:408] pool2 -> pool2
I0415 05:59:47.376758 28219 net.cpp:150] Setting up pool2
I0415 05:59:47.376766 28219 net.cpp:157] Top shape: 1024 150 9 9 (12441600)
I0415 05:59:47.376770 28219 net.cpp:165] Memory required for data: 2101927936
I0415 05:59:47.376773 28219 layer_factory.hpp:77] Creating layer conv3
I0415 05:59:47.376821 28219 net.cpp:100] Creating Layer conv3
I0415 05:59:47.376827 28219 net.cpp:434] conv3 <- pool2
I0415 05:59:47.376832 28219 net.cpp:408] conv3 -> conv3
I0415 05:59:47.382421 28219 net.cpp:150] Setting up conv3
I0415 05:59:47.382449 28219 net.cpp:157] Top shape: 1024 250 6 6 (9216000)
I0415 05:59:47.382453 28219 net.cpp:165] Memory required for data: 2138791936
I0415 05:59:47.382467 28219 layer_factory.hpp:77] Creating layer conv3_relu
I0415 05:59:47.382474 28219 net.cpp:100] Creating Layer conv3_relu
I0415 05:59:47.382479 28219 net.cpp:434] conv3_relu <- conv3
I0415 05:59:47.382485 28219 net.cpp:395] conv3_relu -> conv3 (in-place)
I0415 05:59:47.383358 28219 net.cpp:150] Setting up conv3_relu
I0415 05:59:47.383373 28219 net.cpp:157] Top shape: 1024 250 6 6 (9216000)
I0415 05:59:47.383389 28219 net.cpp:165] Memory required for data: 2175655936
I0415 05:59:47.383394 28219 layer_factory.hpp:77] Creating layer pool3
I0415 05:59:47.383401 28219 net.cpp:100] Creating Layer pool3
I0415 05:59:47.383404 28219 net.cpp:434] pool3 <- conv3
I0415 05:59:47.383410 28219 net.cpp:408] pool3 -> pool3
I0415 05:59:47.383463 28219 net.cpp:150] Setting up pool3
I0415 05:59:47.383471 28219 net.cpp:157] Top shape: 1024 250 3 3 (2304000)
I0415 05:59:47.383476 28219 net.cpp:165] Memory required for data: 2184871936
I0415 05:59:47.383478 28219 layer_factory.hpp:77] Creating layer fc4_300
I0415 05:59:47.383486 28219 net.cpp:100] Creating Layer fc4_300
I0415 05:59:47.383491 28219 net.cpp:434] fc4_300 <- pool3
I0415 05:59:47.383494 28219 net.cpp:408] fc4_300 -> fc4_300
I0415 05:59:47.389026 28219 net.cpp:150] Setting up fc4_300
I0415 05:59:47.389052 28219 net.cpp:157] Top shape: 1024 300 (307200)
I0415 05:59:47.389067 28219 net.cpp:165] Memory required for data: 2186100736
I0415 05:59:47.389077 28219 layer_factory.hpp:77] Creating layer fc4_relu
I0415 05:59:47.389086 28219 net.cpp:100] Creating Layer fc4_relu
I0415 05:59:47.389091 28219 net.cpp:434] fc4_relu <- fc4_300
I0415 05:59:47.389097 28219 net.cpp:395] fc4_relu -> fc4_300 (in-place)
I0415 05:59:47.389320 28219 net.cpp:150] Setting up fc4_relu
I0415 05:59:47.389330 28219 net.cpp:157] Top shape: 1024 300 (307200)
I0415 05:59:47.389334 28219 net.cpp:165] Memory required for data: 2187329536
I0415 05:59:47.389338 28219 layer_factory.hpp:77] Creating layer drop4
I0415 05:59:47.389344 28219 net.cpp:100] Creating Layer drop4
I0415 05:59:47.389349 28219 net.cpp:434] drop4 <- fc4_300
I0415 05:59:47.389353 28219 net.cpp:395] drop4 -> fc4_300 (in-place)
I0415 05:59:47.389385 28219 net.cpp:150] Setting up drop4
I0415 05:59:47.389392 28219 net.cpp:157] Top shape: 1024 300 (307200)
I0415 05:59:47.389395 28219 net.cpp:165] Memory required for data: 2188558336
I0415 05:59:47.389399 28219 layer_factory.hpp:77] Creating layer fc5_67
I0415 05:59:47.389405 28219 net.cpp:100] Creating Layer fc5_67
I0415 05:59:47.389410 28219 net.cpp:434] fc5_67 <- fc4_300
I0415 05:59:47.389413 28219 net.cpp:408] fc5_67 -> fc5_classes
I0415 05:59:47.393323 28219 net.cpp:150] Setting up fc5_67
I0415 05:59:47.393344 28219 net.cpp:157] Top shape: 1024 67 (68608)
I0415 05:59:47.393360 28219 net.cpp:165] Memory required for data: 2188832768
I0415 05:59:47.393373 28219 layer_factory.hpp:77] Creating layer fc5_classes_fc5_67_0_split
I0415 05:59:47.393381 28219 net.cpp:100] Creating Layer fc5_classes_fc5_67_0_split
I0415 05:59:47.393386 28219 net.cpp:434] fc5_classes_fc5_67_0_split <- fc5_classes
I0415 05:59:47.393393 28219 net.cpp:408] fc5_classes_fc5_67_0_split -> fc5_classes_fc5_67_0_split_0
I0415 05:59:47.393400 28219 net.cpp:408] fc5_classes_fc5_67_0_split -> fc5_classes_fc5_67_0_split_1
I0415 05:59:47.393409 28219 net.cpp:408] fc5_classes_fc5_67_0_split -> fc5_classes_fc5_67_0_split_2
I0415 05:59:47.393460 28219 net.cpp:150] Setting up fc5_classes_fc5_67_0_split
I0415 05:59:47.393466 28219 net.cpp:157] Top shape: 1024 67 (68608)
I0415 05:59:47.393471 28219 net.cpp:157] Top shape: 1024 67 (68608)
I0415 05:59:47.393473 28219 net.cpp:157] Top shape: 1024 67 (68608)
I0415 05:59:47.393476 28219 net.cpp:165] Memory required for data: 2189656064
I0415 05:59:47.393498 28219 layer_factory.hpp:77] Creating layer softmax
I0415 05:59:47.393509 28219 net.cpp:100] Creating Layer softmax
I0415 05:59:47.393514 28219 net.cpp:434] softmax <- fc5_classes_fc5_67_0_split_0
I0415 05:59:47.393520 28219 net.cpp:408] softmax -> softmax
I0415 05:59:47.393803 28219 net.cpp:150] Setting up softmax
I0415 05:59:47.393815 28219 net.cpp:157] Top shape: 1024 67 (68608)
I0415 05:59:47.393820 28219 net.cpp:165] Memory required for data: 2189930496
I0415 05:59:47.393822 28219 layer_factory.hpp:77] Creating layer loss
I0415 05:59:47.393829 28219 net.cpp:100] Creating Layer loss
I0415 05:59:47.393833 28219 net.cpp:434] loss <- softmax
I0415 05:59:47.393838 28219 net.cpp:434] loss <- label_data_1_split_0
I0415 05:59:47.393843 28219 net.cpp:408] loss -> loss
…
