…
I0412 07:55:00.905437 22071 solver.cpp:93] Creating training net from train_net file: ./Prototxt/experiment_10/rtsd-r1/histeq/trial_2/train.prototxt
I0412 07:55:00.905848 22071 net.cpp:58] Initializing net from parameters: 
state {
  phase: TRAIN
  level: 0
  stage: ""
}
layer {
  name: "data"
  type: "Data"
  top: "data"
  top: "label"
  include {
    phase: TRAIN
  }
  transform_param {
    scale: 0.0039215689
    mirror: false
    crop_size: 48
    mean_value: 130
    mean_value: 123
    mean_value: 137
  }
  data_param {
    source: "../local_data/lmdb/rtsd-r1/histeq/train/lmdb"
    batch_size: 1024
    backend: LMDB
  }
}
layer {
  name: "conv1"
  type: "Convolution"
  bottom: "data"
  top: "conv1"
  convolution_param {
    num_output: 100
    pad: 0
    kernel_size: 7
    group: 1
    stride: 1
    weight_filler {
      type: "xavier"
    }
  }
}
layer {
  name: "conv1_relu"
  type: "ReLU"
  bottom: "conv1"
  top: "conv1"
}
layer {
  name: "pool1"
  type: "Pooling"
  bottom: "conv1"
  top: "pool1"
  pooling_param {
    pool: MAX
    kernel_size: 2
    stride: 2
  }
}
layer {
  name: "conv2"
  type: "Convolution"
  bottom: "pool1"
  top: "conv2"
  convolution_param {
    num_output: 150
    pad: 0
    kernel_size: 4
    group: 1
    stride: 1
    weight_filler {
      type: "xavier"
    }
  }
}
layer {
  name: "conv2_relu"
  type: "ReLU"
  bottom: "conv2"
  top: "conv2"
}
layer {
  name: "pool2"
  type: "Pooling"
  bottom: "conv2"
  top: "pool2"
  pooling_param {
    pool: MAX
    kernel_size: 2
    stride: 2
  }
}
layer {
  name: "conv3"
  type: "Convolution"
  bottom: "pool2"
  top: "conv3"
  convolution_param {
    num_output: 250
    pad: 0
    kernel_size: 4
    group: 1
    stride: 1
    weight_filler {
      type: "xavier"
    }
  }
}
layer {
  name: "conv3_relu"
  type: "ReLU"
  bottom: "conv3"
  top: "conv3"
}
layer {
  name: "pool3"
  type: "Pooling"
  bottom: "conv3"
  top: "pool3"
  pooling_param {
    pool: MAX
    kernel_size: 2
    stride: 2
  }
}
layer {
  name: "fc4_300"
  type: "InnerProduct"
  bottom: "pool3"
  top: "fc4_300"
  inner_product_param {
    num_output: 300
    weight_filler {
      type: "xavier"
    }
  }
}
layer {
  name: "fc4_relu"
  type: "ReLU"
  bottom: "fc4_300"
  top: "fc4_300"
}
layer {
  name: "drop4"
  type: "Dropout"
  bottom: "fc4_300"
  top: "fc4_300"
  dropout_param {
    dropout_ratio: 0.4
  }
}
layer {
  name: "fc5_67"
  type: "InnerProduct"
  bottom: "fc4_300"
  top: "fc5_classes"
  inner_product_param {
    num_output: 67
    weight_filler {
      type: "xavier"
    }
  }
}
layer {
  name: "softmax"
  type: "Softmax"
  bottom: "fc5_classes"
  top: "softmax"
}
layer {
  name: "loss"
  type: "MultinomialLogisticLoss"
  bottom: "softmax"
  bottom: "label"
  top: "loss"
}
layer {
  name: "accuracy_1"
  type: "Accuracy"
  bottom: "fc5_classes"
  bottom: "label"
  top: "accuracy_1"
  accuracy_param {
    top_k: 1
  }
}
layer {
  name: "accuracy_5"
  type: "Accuracy"
  bottom: "fc5_classes"
  bottom: "label"
  top: "accuracy_5"
  accuracy_param {
    top_k: 5
  }
}
I0412 07:55:00.905984 22071 layer_factory.hpp:77] Creating layer data
I0412 07:55:00.907274 22071 net.cpp:100] Creating Layer data
I0412 07:55:00.907290 22071 net.cpp:408] data -> data
I0412 07:55:00.907316 22071 net.cpp:408] data -> label
I0412 07:55:00.910873 22198 db_lmdb.cpp:35] Opened lmdb ../local_data/lmdb/rtsd-r1/histeq/train/lmdb
I0412 07:55:00.932721 22071 data_layer.cpp:41] output data size: 1024,3,48,48
I0412 07:55:00.995242 22071 net.cpp:150] Setting up data
I0412 07:55:00.995275 22071 net.cpp:157] Top shape: 1024 3 48 48 (7077888)
I0412 07:55:00.995281 22071 net.cpp:157] Top shape: 1024 (1024)
I0412 07:55:00.995285 22071 net.cpp:165] Memory required for data: 28315648
I0412 07:55:00.995296 22071 layer_factory.hpp:77] Creating layer label_data_1_split
I0412 07:55:00.995311 22071 net.cpp:100] Creating Layer label_data_1_split
I0412 07:55:00.995321 22071 net.cpp:434] label_data_1_split <- label
I0412 07:55:00.995335 22071 net.cpp:408] label_data_1_split -> label_data_1_split_0
I0412 07:55:00.995350 22071 net.cpp:408] label_data_1_split -> label_data_1_split_1
I0412 07:55:00.995359 22071 net.cpp:408] label_data_1_split -> label_data_1_split_2
I0412 07:55:00.995474 22071 net.cpp:150] Setting up label_data_1_split
I0412 07:55:00.995486 22071 net.cpp:157] Top shape: 1024 (1024)
I0412 07:55:00.995491 22071 net.cpp:157] Top shape: 1024 (1024)
I0412 07:55:00.995496 22071 net.cpp:157] Top shape: 1024 (1024)
I0412 07:55:00.995498 22071 net.cpp:165] Memory required for data: 28327936
I0412 07:55:00.995502 22071 layer_factory.hpp:77] Creating layer conv1
I0412 07:55:00.995523 22071 net.cpp:100] Creating Layer conv1
I0412 07:55:00.995529 22071 net.cpp:434] conv1 <- data
I0412 07:55:00.995537 22071 net.cpp:408] conv1 -> conv1
I0412 07:55:01.361974 22071 net.cpp:150] Setting up conv1
I0412 07:55:01.362006 22071 net.cpp:157] Top shape: 1024 100 42 42 (180633600)
I0412 07:55:01.362011 22071 net.cpp:165] Memory required for data: 750862336
I0412 07:55:01.362036 22071 layer_factory.hpp:77] Creating layer conv1_relu
I0412 07:55:01.362049 22071 net.cpp:100] Creating Layer conv1_relu
I0412 07:55:01.362056 22071 net.cpp:434] conv1_relu <- conv1
I0412 07:55:01.362063 22071 net.cpp:395] conv1_relu -> conv1 (in-place)
I0412 07:55:01.362295 22071 net.cpp:150] Setting up conv1_relu
I0412 07:55:01.362314 22071 net.cpp:157] Top shape: 1024 100 42 42 (180633600)
I0412 07:55:01.362320 22071 net.cpp:165] Memory required for data: 1473396736
I0412 07:55:01.362324 22071 layer_factory.hpp:77] Creating layer pool1
I0412 07:55:01.362336 22071 net.cpp:100] Creating Layer pool1
I0412 07:55:01.362341 22071 net.cpp:434] pool1 <- conv1
I0412 07:55:01.362347 22071 net.cpp:408] pool1 -> pool1
I0412 07:55:01.362412 22071 net.cpp:150] Setting up pool1
I0412 07:55:01.362421 22071 net.cpp:157] Top shape: 1024 100 21 21 (45158400)
I0412 07:55:01.362426 22071 net.cpp:165] Memory required for data: 1654030336
I0412 07:55:01.362429 22071 layer_factory.hpp:77] Creating layer conv2
I0412 07:55:01.362442 22071 net.cpp:100] Creating Layer conv2
I0412 07:55:01.362447 22071 net.cpp:434] conv2 <- pool1
I0412 07:55:01.362453 22071 net.cpp:408] conv2 -> conv2
I0412 07:55:01.379678 22071 net.cpp:150] Setting up conv2
I0412 07:55:01.379699 22071 net.cpp:157] Top shape: 1024 150 18 18 (49766400)
I0412 07:55:01.379705 22071 net.cpp:165] Memory required for data: 1853095936
I0412 07:55:01.379719 22071 layer_factory.hpp:77] Creating layer conv2_relu
I0412 07:55:01.379729 22071 net.cpp:100] Creating Layer conv2_relu
I0412 07:55:01.379734 22071 net.cpp:434] conv2_relu <- conv2
I0412 07:55:01.379741 22071 net.cpp:395] conv2_relu -> conv2 (in-place)
I0412 07:55:01.380890 22071 net.cpp:150] Setting up conv2_relu
I0412 07:55:01.380910 22071 net.cpp:157] Top shape: 1024 150 18 18 (49766400)
I0412 07:55:01.380926 22071 net.cpp:165] Memory required for data: 2052161536
I0412 07:55:01.380931 22071 layer_factory.hpp:77] Creating layer pool2
I0412 07:55:01.380940 22071 net.cpp:100] Creating Layer pool2
I0412 07:55:01.380946 22071 net.cpp:434] pool2 <- conv2
I0412 07:55:01.380954 22071 net.cpp:408] pool2 -> pool2
I0412 07:55:01.381014 22071 net.cpp:150] Setting up pool2
I0412 07:55:01.381024 22071 net.cpp:157] Top shape: 1024 150 9 9 (12441600)
I0412 07:55:01.381029 22071 net.cpp:165] Memory required for data: 2101927936
I0412 07:55:01.381033 22071 layer_factory.hpp:77] Creating layer conv3
I0412 07:55:01.381045 22071 net.cpp:100] Creating Layer conv3
I0412 07:55:01.381052 22071 net.cpp:434] conv3 <- pool2
I0412 07:55:01.381083 22071 net.cpp:408] conv3 -> conv3
I0412 07:55:01.388242 22071 net.cpp:150] Setting up conv3
I0412 07:55:01.388263 22071 net.cpp:157] Top shape: 1024 250 6 6 (9216000)
I0412 07:55:01.388269 22071 net.cpp:165] Memory required for data: 2138791936
I0412 07:55:01.388281 22071 layer_factory.hpp:77] Creating layer conv3_relu
I0412 07:55:01.388290 22071 net.cpp:100] Creating Layer conv3_relu
I0412 07:55:01.388296 22071 net.cpp:434] conv3_relu <- conv3
I0412 07:55:01.388303 22071 net.cpp:395] conv3_relu -> conv3 (in-place)
I0412 07:55:01.389775 22071 net.cpp:150] Setting up conv3_relu
I0412 07:55:01.389792 22071 net.cpp:157] Top shape: 1024 250 6 6 (9216000)
I0412 07:55:01.389798 22071 net.cpp:165] Memory required for data: 2175655936
I0412 07:55:01.389802 22071 layer_factory.hpp:77] Creating layer pool3
I0412 07:55:01.389812 22071 net.cpp:100] Creating Layer pool3
I0412 07:55:01.389818 22071 net.cpp:434] pool3 <- conv3
I0412 07:55:01.389824 22071 net.cpp:408] pool3 -> pool3
I0412 07:55:01.389879 22071 net.cpp:150] Setting up pool3
I0412 07:55:01.389889 22071 net.cpp:157] Top shape: 1024 250 3 3 (2304000)
I0412 07:55:01.389894 22071 net.cpp:165] Memory required for data: 2184871936
I0412 07:55:01.389899 22071 layer_factory.hpp:77] Creating layer fc4_300
I0412 07:55:01.389906 22071 net.cpp:100] Creating Layer fc4_300
I0412 07:55:01.389911 22071 net.cpp:434] fc4_300 <- pool3
I0412 07:55:01.389917 22071 net.cpp:408] fc4_300 -> fc4_300
I0412 07:55:01.397068 22071 net.cpp:150] Setting up fc4_300
I0412 07:55:01.397088 22071 net.cpp:157] Top shape: 1024 300 (307200)
I0412 07:55:01.397094 22071 net.cpp:165] Memory required for data: 2186100736
I0412 07:55:01.397102 22071 layer_factory.hpp:77] Creating layer fc4_relu
I0412 07:55:01.397110 22071 net.cpp:100] Creating Layer fc4_relu
I0412 07:55:01.397116 22071 net.cpp:434] fc4_relu <- fc4_300
I0412 07:55:01.397122 22071 net.cpp:395] fc4_relu -> fc4_300 (in-place)
I0412 07:55:01.397346 22071 net.cpp:150] Setting up fc4_relu
I0412 07:55:01.397361 22071 net.cpp:157] Top shape: 1024 300 (307200)
I0412 07:55:01.397366 22071 net.cpp:165] Memory required for data: 2187329536
I0412 07:55:01.397369 22071 layer_factory.hpp:77] Creating layer drop4
I0412 07:55:01.397377 22071 net.cpp:100] Creating Layer drop4
I0412 07:55:01.397382 22071 net.cpp:434] drop4 <- fc4_300
I0412 07:55:01.397388 22071 net.cpp:395] drop4 -> fc4_300 (in-place)
I0412 07:55:01.397424 22071 net.cpp:150] Setting up drop4
I0412 07:55:01.397433 22071 net.cpp:157] Top shape: 1024 300 (307200)
I0412 07:55:01.397436 22071 net.cpp:165] Memory required for data: 2188558336
I0412 07:55:01.397440 22071 layer_factory.hpp:77] Creating layer fc5_67
I0412 07:55:01.397447 22071 net.cpp:100] Creating Layer fc5_67
I0412 07:55:01.397452 22071 net.cpp:434] fc5_67 <- fc4_300
I0412 07:55:01.397459 22071 net.cpp:408] fc5_67 -> fc5_classes
I0412 07:55:01.400485 22071 net.cpp:150] Setting up fc5_67
I0412 07:55:01.400502 22071 net.cpp:157] Top shape: 1024 67 (68608)
I0412 07:55:01.400507 22071 net.cpp:165] Memory required for data: 2188832768
I0412 07:55:01.400519 22071 layer_factory.hpp:77] Creating layer fc5_classes_fc5_67_0_split
I0412 07:55:01.400530 22071 net.cpp:100] Creating Layer fc5_classes_fc5_67_0_split
I0412 07:55:01.400535 22071 net.cpp:434] fc5_classes_fc5_67_0_split <- fc5_classes
I0412 07:55:01.400542 22071 net.cpp:408] fc5_classes_fc5_67_0_split -> fc5_classes_fc5_67_0_split_0
I0412 07:55:01.400552 22071 net.cpp:408] fc5_classes_fc5_67_0_split -> fc5_classes_fc5_67_0_split_1
I0412 07:55:01.400563 22071 net.cpp:408] fc5_classes_fc5_67_0_split -> fc5_classes_fc5_67_0_split_2
I0412 07:55:01.400624 22071 net.cpp:150] Setting up fc5_classes_fc5_67_0_split
I0412 07:55:01.400631 22071 net.cpp:157] Top shape: 1024 67 (68608)
I0412 07:55:01.400635 22071 net.cpp:157] Top shape: 1024 67 (68608)
I0412 07:55:01.400640 22071 net.cpp:157] Top shape: 1024 67 (68608)
I0412 07:55:01.400642 22071 net.cpp:165] Memory required for data: 2189656064
I0412 07:55:01.400645 22071 layer_factory.hpp:77] Creating layer softmax
I0412 07:55:01.400676 22071 net.cpp:100] Creating Layer softmax
I0412 07:55:01.400681 22071 net.cpp:434] softmax <- fc5_classes_fc5_67_0_split_0
I0412 07:55:01.400688 22071 net.cpp:408] softmax -> softmax
I0412 07:55:01.400990 22071 net.cpp:150] Setting up softmax
I0412 07:55:01.401005 22071 net.cpp:157] Top shape: 1024 67 (68608)
I0412 07:55:01.401010 22071 net.cpp:165] Memory required for data: 2189930496
I0412 07:55:01.401013 22071 layer_factory.hpp:77] Creating layer loss
I0412 07:55:01.401021 22071 net.cpp:100] Creating Layer loss
I0412 07:55:01.401027 22071 net.cpp:434] loss <- softmax
I0412 07:55:01.401032 22071 net.cpp:434] loss <- label_data_1_split_0
I0412 07:55:01.401038 22071 net.cpp:408] loss -> loss
…
