…
I0414 07:07:02.533953 26407 solver.cpp:93] Creating training net from train_net file: ./Prototxt/experiment_10/rtsd-r1/histeq/trial_2/train.prototxt
I0414 07:07:02.534328 26407 net.cpp:58] Initializing net from parameters: 
state {
  phase: TRAIN
  level: 0
  stage: ""
}
layer {
  name: "data"
  type: "Data"
  top: "data"
  top: "label"
  include {
    phase: TRAIN
  }
  transform_param {
    scale: 0.0039215689
    mirror: false
    crop_size: 48
    mean_value: 130
    mean_value: 123
    mean_value: 137
  }
  data_param {
    source: "../local_data/lmdb/rtsd-r1/histeq/train/lmdb"
    batch_size: 1024
    backend: LMDB
  }
}
layer {
  name: "conv1"
  type: "Convolution"
  bottom: "data"
  top: "conv1"
  convolution_param {
    num_output: 100
    pad: 0
    kernel_size: 7
    group: 1
    stride: 1
    weight_filler {
      type: "xavier"
    }
  }
}
layer {
  name: "conv1_relu"
  type: "ReLU"
  bottom: "conv1"
  top: "conv1"
}
layer {
  name: "pool1"
  type: "Pooling"
  bottom: "conv1"
  top: "pool1"
  pooling_param {
    pool: MAX
    kernel_size: 2
    stride: 2
  }
}
layer {
  name: "conv2"
  type: "Convolution"
  bottom: "pool1"
  top: "conv2"
  convolution_param {
    num_output: 150
    pad: 0
    kernel_size: 4
    group: 1
    stride: 1
    weight_filler {
      type: "xavier"
    }
  }
}
layer {
  name: "conv2_relu"
  type: "ReLU"
  bottom: "conv2"
  top: "conv2"
}
layer {
  name: "pool2"
  type: "Pooling"
  bottom: "conv2"
  top: "pool2"
  pooling_param {
    pool: MAX
    kernel_size: 2
    stride: 2
  }
}
layer {
  name: "conv3"
  type: "Convolution"
  bottom: "pool2"
  top: "conv3"
  convolution_param {
    num_output: 250
    pad: 0
    kernel_size: 4
    group: 1
    stride: 1
    weight_filler {
      type: "xavier"
    }
  }
}
layer {
  name: "conv3_relu"
  type: "ReLU"
  bottom: "conv3"
  top: "conv3"
}
layer {
  name: "pool3"
  type: "Pooling"
  bottom: "conv3"
  top: "pool3"
  pooling_param {
    pool: MAX
    kernel_size: 2
    stride: 2
  }
}
layer {
  name: "fc4_300"
  type: "InnerProduct"
  bottom: "pool3"
  top: "fc4_300"
  inner_product_param {
    num_output: 300
    weight_filler {
      type: "xavier"
    }
  }
}
layer {
  name: "fc4_relu"
  type: "ReLU"
  bottom: "fc4_300"
  top: "fc4_300"
}
layer {
  name: "fc5_67"
  type: "InnerProduct"
  bottom: "fc4_300"
  top: "fc5_classes"
  inner_product_param {
    num_output: 67
    weight_filler {
      type: "xavier"
    }
  }
}
layer {
  name: "softmax"
  type: "Softmax"
  bottom: "fc5_classes"
  top: "softmax"
}
layer {
  name: "loss"
  type: "MultinomialLogisticLoss"
  bottom: "softmax"
  bottom: "label"
  top: "loss"
}
layer {
  name: "accuracy_1"
  type: "Accuracy"
  bottom: "fc5_classes"
  bottom: "label"
  top: "accuracy_1"
  accuracy_param {
    top_k: 1
  }
}
layer {
  name: "accuracy_5"
  type: "Accuracy"
  bottom: "fc5_classes"
  bottom: "label"
  top: "accuracy_5"
  accuracy_param {
    top_k: 5
  }
}
layer {
  name: "silence"
  type: "Silence"
  bottom: "accuracy_1"
  bottom: "accuracy_5"
}
I0414 07:07:02.534449 26407 layer_factory.hpp:77] Creating layer data
I0414 07:07:02.535500 26407 net.cpp:100] Creating Layer data
I0414 07:07:02.535516 26407 net.cpp:408] data -> data
I0414 07:07:02.535538 26407 net.cpp:408] data -> label
I0414 07:07:02.543095 26521 db_lmdb.cpp:35] Opened lmdb ../local_data/lmdb/rtsd-r1/histeq/train/lmdb
I0414 07:07:02.562381 26407 data_layer.cpp:41] output data size: 1024,3,48,48
I0414 07:07:02.622504 26407 net.cpp:150] Setting up data
I0414 07:07:02.622555 26407 net.cpp:157] Top shape: 1024 3 48 48 (7077888)
I0414 07:07:02.622562 26407 net.cpp:157] Top shape: 1024 (1024)
I0414 07:07:02.622565 26407 net.cpp:165] Memory required for data: 28315648
I0414 07:07:02.622576 26407 layer_factory.hpp:77] Creating layer label_data_1_split
I0414 07:07:02.622589 26407 net.cpp:100] Creating Layer label_data_1_split
I0414 07:07:02.622596 26407 net.cpp:434] label_data_1_split <- label
I0414 07:07:02.622609 26407 net.cpp:408] label_data_1_split -> label_data_1_split_0
I0414 07:07:02.622627 26407 net.cpp:408] label_data_1_split -> label_data_1_split_1
I0414 07:07:02.622634 26407 net.cpp:408] label_data_1_split -> label_data_1_split_2
I0414 07:07:02.622710 26407 net.cpp:150] Setting up label_data_1_split
I0414 07:07:02.622720 26407 net.cpp:157] Top shape: 1024 (1024)
I0414 07:07:02.622725 26407 net.cpp:157] Top shape: 1024 (1024)
I0414 07:07:02.622727 26407 net.cpp:157] Top shape: 1024 (1024)
I0414 07:07:02.622730 26407 net.cpp:165] Memory required for data: 28327936
I0414 07:07:02.622735 26407 layer_factory.hpp:77] Creating layer conv1
I0414 07:07:02.622751 26407 net.cpp:100] Creating Layer conv1
I0414 07:07:02.622757 26407 net.cpp:434] conv1 <- data
I0414 07:07:02.622764 26407 net.cpp:408] conv1 -> conv1
I0414 07:07:02.964226 26407 net.cpp:150] Setting up conv1
I0414 07:07:02.964256 26407 net.cpp:157] Top shape: 1024 100 42 42 (180633600)
I0414 07:07:02.964260 26407 net.cpp:165] Memory required for data: 750862336
I0414 07:07:02.964282 26407 layer_factory.hpp:77] Creating layer conv1_relu
I0414 07:07:02.964294 26407 net.cpp:100] Creating Layer conv1_relu
I0414 07:07:02.964300 26407 net.cpp:434] conv1_relu <- conv1
I0414 07:07:02.964308 26407 net.cpp:395] conv1_relu -> conv1 (in-place)
I0414 07:07:02.964524 26407 net.cpp:150] Setting up conv1_relu
I0414 07:07:02.964535 26407 net.cpp:157] Top shape: 1024 100 42 42 (180633600)
I0414 07:07:02.964540 26407 net.cpp:165] Memory required for data: 1473396736
I0414 07:07:02.964543 26407 layer_factory.hpp:77] Creating layer pool1
I0414 07:07:02.964555 26407 net.cpp:100] Creating Layer pool1
I0414 07:07:02.964560 26407 net.cpp:434] pool1 <- conv1
I0414 07:07:02.964565 26407 net.cpp:408] pool1 -> pool1
I0414 07:07:02.964624 26407 net.cpp:150] Setting up pool1
I0414 07:07:02.964633 26407 net.cpp:157] Top shape: 1024 100 21 21 (45158400)
I0414 07:07:02.964637 26407 net.cpp:165] Memory required for data: 1654030336
I0414 07:07:02.964640 26407 layer_factory.hpp:77] Creating layer conv2
I0414 07:07:02.964653 26407 net.cpp:100] Creating Layer conv2
I0414 07:07:02.964658 26407 net.cpp:434] conv2 <- pool1
I0414 07:07:02.964663 26407 net.cpp:408] conv2 -> conv2
I0414 07:07:02.974212 26407 net.cpp:150] Setting up conv2
I0414 07:07:02.974231 26407 net.cpp:157] Top shape: 1024 150 18 18 (49766400)
I0414 07:07:02.974236 26407 net.cpp:165] Memory required for data: 1853095936
I0414 07:07:02.974246 26407 layer_factory.hpp:77] Creating layer conv2_relu
I0414 07:07:02.974256 26407 net.cpp:100] Creating Layer conv2_relu
I0414 07:07:02.974259 26407 net.cpp:434] conv2_relu <- conv2
I0414 07:07:02.974264 26407 net.cpp:395] conv2_relu -> conv2 (in-place)
I0414 07:07:02.975322 26407 net.cpp:150] Setting up conv2_relu
I0414 07:07:02.975339 26407 net.cpp:157] Top shape: 1024 150 18 18 (49766400)
I0414 07:07:02.975342 26407 net.cpp:165] Memory required for data: 2052161536
I0414 07:07:02.975347 26407 layer_factory.hpp:77] Creating layer pool2
I0414 07:07:02.975353 26407 net.cpp:100] Creating Layer pool2
I0414 07:07:02.975358 26407 net.cpp:434] pool2 <- conv2
I0414 07:07:02.975363 26407 net.cpp:408] pool2 -> pool2
I0414 07:07:02.975415 26407 net.cpp:150] Setting up pool2
I0414 07:07:02.975425 26407 net.cpp:157] Top shape: 1024 150 9 9 (12441600)
I0414 07:07:02.975428 26407 net.cpp:165] Memory required for data: 2101927936
I0414 07:07:02.975432 26407 layer_factory.hpp:77] Creating layer conv3
I0414 07:07:02.975445 26407 net.cpp:100] Creating Layer conv3
I0414 07:07:02.975450 26407 net.cpp:434] conv3 <- pool2
I0414 07:07:02.975455 26407 net.cpp:408] conv3 -> conv3
I0414 07:07:02.981402 26407 net.cpp:150] Setting up conv3
I0414 07:07:02.981418 26407 net.cpp:157] Top shape: 1024 250 6 6 (9216000)
I0414 07:07:02.981422 26407 net.cpp:165] Memory required for data: 2138791936
I0414 07:07:02.981434 26407 layer_factory.hpp:77] Creating layer conv3_relu
I0414 07:07:02.981441 26407 net.cpp:100] Creating Layer conv3_relu
I0414 07:07:02.981446 26407 net.cpp:434] conv3_relu <- conv3
I0414 07:07:02.981451 26407 net.cpp:395] conv3_relu -> conv3 (in-place)
I0414 07:07:02.983671 26407 net.cpp:150] Setting up conv3_relu
I0414 07:07:02.983690 26407 net.cpp:157] Top shape: 1024 250 6 6 (9216000)
I0414 07:07:02.983695 26407 net.cpp:165] Memory required for data: 2175655936
I0414 07:07:02.983698 26407 layer_factory.hpp:77] Creating layer pool3
I0414 07:07:02.983705 26407 net.cpp:100] Creating Layer pool3
I0414 07:07:02.983708 26407 net.cpp:434] pool3 <- conv3
I0414 07:07:02.983713 26407 net.cpp:408] pool3 -> pool3
I0414 07:07:02.983764 26407 net.cpp:150] Setting up pool3
I0414 07:07:02.983772 26407 net.cpp:157] Top shape: 1024 250 3 3 (2304000)
I0414 07:07:02.983777 26407 net.cpp:165] Memory required for data: 2184871936
I0414 07:07:02.983779 26407 layer_factory.hpp:77] Creating layer fc4_300
I0414 07:07:02.983788 26407 net.cpp:100] Creating Layer fc4_300
I0414 07:07:02.983793 26407 net.cpp:434] fc4_300 <- pool3
I0414 07:07:02.983798 26407 net.cpp:408] fc4_300 -> fc4_300
I0414 07:07:02.996279 26407 net.cpp:150] Setting up fc4_300
I0414 07:07:02.996304 26407 net.cpp:157] Top shape: 1024 300 (307200)
I0414 07:07:02.996307 26407 net.cpp:165] Memory required for data: 2186100736
I0414 07:07:02.996315 26407 layer_factory.hpp:77] Creating layer fc4_relu
I0414 07:07:02.996323 26407 net.cpp:100] Creating Layer fc4_relu
I0414 07:07:02.996327 26407 net.cpp:434] fc4_relu <- fc4_300
I0414 07:07:02.996335 26407 net.cpp:395] fc4_relu -> fc4_300 (in-place)
I0414 07:07:02.996556 26407 net.cpp:150] Setting up fc4_relu
I0414 07:07:02.996568 26407 net.cpp:157] Top shape: 1024 300 (307200)
I0414 07:07:02.996572 26407 net.cpp:165] Memory required for data: 2187329536
I0414 07:07:02.996574 26407 layer_factory.hpp:77] Creating layer fc5_67
I0414 07:07:02.996583 26407 net.cpp:100] Creating Layer fc5_67
I0414 07:07:02.996587 26407 net.cpp:434] fc5_67 <- fc4_300
I0414 07:07:02.996592 26407 net.cpp:408] fc5_67 -> fc5_classes
I0414 07:07:03.000558 26407 net.cpp:150] Setting up fc5_67
I0414 07:07:03.000576 26407 net.cpp:157] Top shape: 1024 67 (68608)
I0414 07:07:03.000579 26407 net.cpp:165] Memory required for data: 2187603968
I0414 07:07:03.000592 26407 layer_factory.hpp:77] Creating layer fc5_classes_fc5_67_0_split
I0414 07:07:03.000603 26407 net.cpp:100] Creating Layer fc5_classes_fc5_67_0_split
I0414 07:07:03.000608 26407 net.cpp:434] fc5_classes_fc5_67_0_split <- fc5_classes
I0414 07:07:03.000614 26407 net.cpp:408] fc5_classes_fc5_67_0_split -> fc5_classes_fc5_67_0_split_0
I0414 07:07:03.000624 26407 net.cpp:408] fc5_classes_fc5_67_0_split -> fc5_classes_fc5_67_0_split_1
I0414 07:07:03.000633 26407 net.cpp:408] fc5_classes_fc5_67_0_split -> fc5_classes_fc5_67_0_split_2
I0414 07:07:03.000689 26407 net.cpp:150] Setting up fc5_classes_fc5_67_0_split
I0414 07:07:03.000697 26407 net.cpp:157] Top shape: 1024 67 (68608)
I0414 07:07:03.000700 26407 net.cpp:157] Top shape: 1024 67 (68608)
I0414 07:07:03.000705 26407 net.cpp:157] Top shape: 1024 67 (68608)
I0414 07:07:03.000706 26407 net.cpp:165] Memory required for data: 2188427264
I0414 07:07:03.000710 26407 layer_factory.hpp:77] Creating layer softmax
I0414 07:07:03.000715 26407 net.cpp:100] Creating Layer softmax
I0414 07:07:03.000720 26407 net.cpp:434] softmax <- fc5_classes_fc5_67_0_split_0
I0414 07:07:03.000725 26407 net.cpp:408] softmax -> softmax
I0414 07:07:03.000996 26407 net.cpp:150] Setting up softmax
I0414 07:07:03.001011 26407 net.cpp:157] Top shape: 1024 67 (68608)
I0414 07:07:03.001016 26407 net.cpp:165] Memory required for data: 2188701696
I0414 07:07:03.001020 26407 layer_factory.hpp:77] Creating layer loss
I0414 07:07:03.001031 26407 net.cpp:100] Creating Layer loss
I0414 07:07:03.001052 26407 net.cpp:434] loss <- softmax
I0414 07:07:03.001057 26407 net.cpp:434] loss <- label_data_1_split_0
I0414 07:07:03.001063 26407 net.cpp:408] loss -> loss
…
