…
I0409 09:12:42.032328 32527 net.cpp:322] The NetState phase (0) differed from the phase (1) specified by a rule in layer accuracy_5
I0409 09:12:42.032536 32527 net.cpp:58] Initializing net from parameters: 
state {
  phase: TRAIN
  level: 0
  stage: ""
}
layer {
  name: "data"
  type: "Data"
  top: "data"
  top: "label"
  include {
    phase: TRAIN
  }
  transform_param {
    mirror: false
    crop_size: 48
    mean_value: 130
    mean_value: 123
    mean_value: 137
  }
  data_param {
    source: "../local_data/lmdb/rtsd-r1/histeq/train/lmdb"
    batch_size: 1024
    backend: LMDB
  }
}
layer {
  name: "conv1"
  type: "Convolution"
  bottom: "data"
  top: "conv1"
  convolution_param {
    num_output: 100
    pad: 0
    kernel_size: 7
    group: 1
    stride: 1
    weight_filler {
      type: "xavier"
    }
  }
}
layer {
  name: "conv1_relu"
  type: "ReLU"
  bottom: "conv1"
  top: "conv1"
}
layer {
  name: "pool1"
  type: "Pooling"
  bottom: "conv1"
  top: "pool1"
  pooling_param {
    pool: MAX
    kernel_size: 2
    stride: 2
  }
}
layer {
  name: "conv2"
  type: "Convolution"
  bottom: "pool1"
  top: "conv2"
  convolution_param {
    num_output: 150
    pad: 0
    kernel_size: 4
    group: 1
    stride: 1
    weight_filler {
      type: "xavier"
    }
  }
}
layer {
  name: "conv2_relu"
  type: "ReLU"
  bottom: "conv2"
  top: "conv2"
}
layer {
  name: "pool2"
  type: "Pooling"
  bottom: "conv2"
  top: "pool2"
  pooling_param {
    pool: MAX
    kernel_size: 2
    stride: 2
  }
}
layer {
  name: "conv3"
  type: "Convolution"
  bottom: "pool2"
  top: "conv3"
  convolution_param {
    num_output: 250
    pad: 0
    kernel_size: 4
    group: 1
    stride: 1
    weight_filler {
      type: "xavier"
    }
  }
}
layer {
  name: "conv3_relu"
  type: "ReLU"
  bottom: "conv3"
  top: "conv3"
}
layer {
  name: "pool3"
  type: "Pooling"
  bottom: "conv3"
  top: "pool3"
  pooling_param {
    pool: MAX
    kernel_size: 2
    stride: 2
  }
}
layer {
  name: "fc4_300"
  type: "InnerProduct"
  bottom: "pool3"
  top: "fc4_300"
  inner_product_param {
    num_output: 300
    weight_filler {
      type: "xavier"
    }
  }
}
layer {
  name: "fc4_relu"
  type: "ReLU"
  bottom: "fc4_300"
  top: "fc4_300"
}
layer {
  name: "drop4"
  type: "Dropout"
  bottom: "fc4_300"
  top: "fc4_300"
  dropout_param {
    dropout_ratio: 0.4
  }
}
layer {
  name: "fc5_67"
  type: "InnerProduct"
  bottom: "fc4_300"
  top: "fc5_classes"
  inner_product_param {
    num_output: 67
    weight_filler {
      type: "xavier"
    }
  }
}
layer {
  name: "loss"
  type: "SoftmaxWithLoss"
  bottom: "fc5_classes"
  bottom: "label"
  top: "loss"
}
I0409 09:12:42.032717 32527 layer_factory.hpp:77] Creating layer data
I0409 09:12:42.034807 32527 net.cpp:100] Creating Layer data
I0409 09:12:42.034839 32527 net.cpp:408] data -> data
I0409 09:12:42.034889 32527 net.cpp:408] data -> label
I0409 09:12:42.036459 32578 db_lmdb.cpp:35] Opened lmdb ../local_data/lmdb/rtsd-r1/histeq/train/lmdb
I0409 09:12:42.066601 32527 data_layer.cpp:41] output data size: 1024,3,48,48
I0409 09:12:42.124400 32527 net.cpp:150] Setting up data
I0409 09:12:42.124446 32527 net.cpp:157] Top shape: 1024 3 48 48 (7077888)
I0409 09:12:42.124491 32527 net.cpp:157] Top shape: 1024 (1024)
I0409 09:12:42.124500 32527 net.cpp:165] Memory required for data: 28315648
I0409 09:12:42.124518 32527 layer_factory.hpp:77] Creating layer conv1
I0409 09:12:42.124553 32527 net.cpp:100] Creating Layer conv1
I0409 09:12:42.124565 32527 net.cpp:434] conv1 <- data
I0409 09:12:42.124588 32527 net.cpp:408] conv1 -> conv1
I0409 09:12:42.444535 32527 net.cpp:150] Setting up conv1
I0409 09:12:42.444576 32527 net.cpp:157] Top shape: 1024 100 42 42 (180633600)
I0409 09:12:42.444583 32527 net.cpp:165] Memory required for data: 750850048
I0409 09:12:42.444618 32527 layer_factory.hpp:77] Creating layer conv1_relu
I0409 09:12:42.444641 32527 net.cpp:100] Creating Layer conv1_relu
I0409 09:12:42.444651 32527 net.cpp:434] conv1_relu <- conv1
I0409 09:12:42.444664 32527 net.cpp:395] conv1_relu -> conv1 (in-place)
I0409 09:12:42.444912 32527 net.cpp:150] Setting up conv1_relu
I0409 09:12:42.444931 32527 net.cpp:157] Top shape: 1024 100 42 42 (180633600)
I0409 09:12:42.444938 32527 net.cpp:165] Memory required for data: 1473384448
I0409 09:12:42.444947 32527 layer_factory.hpp:77] Creating layer pool1
I0409 09:12:42.444962 32527 net.cpp:100] Creating Layer pool1
I0409 09:12:42.444970 32527 net.cpp:434] pool1 <- conv1
I0409 09:12:42.444983 32527 net.cpp:408] pool1 -> pool1
I0409 09:12:42.445060 32527 net.cpp:150] Setting up pool1
I0409 09:12:42.445075 32527 net.cpp:157] Top shape: 1024 100 21 21 (45158400)
I0409 09:12:42.445081 32527 net.cpp:165] Memory required for data: 1654018048
I0409 09:12:42.445089 32527 layer_factory.hpp:77] Creating layer conv2
I0409 09:12:42.445109 32527 net.cpp:100] Creating Layer conv2
I0409 09:12:42.445116 32527 net.cpp:434] conv2 <- pool1
I0409 09:12:42.445127 32527 net.cpp:408] conv2 -> conv2
I0409 09:12:42.450372 32527 net.cpp:150] Setting up conv2
I0409 09:12:42.450397 32527 net.cpp:157] Top shape: 1024 150 18 18 (49766400)
I0409 09:12:42.450405 32527 net.cpp:165] Memory required for data: 1853083648
I0409 09:12:42.450424 32527 layer_factory.hpp:77] Creating layer conv2_relu
I0409 09:12:42.450439 32527 net.cpp:100] Creating Layer conv2_relu
I0409 09:12:42.450449 32527 net.cpp:434] conv2_relu <- conv2
I0409 09:12:42.450460 32527 net.cpp:395] conv2_relu -> conv2 (in-place)
I0409 09:12:42.451371 32527 net.cpp:150] Setting up conv2_relu
I0409 09:12:42.451393 32527 net.cpp:157] Top shape: 1024 150 18 18 (49766400)
I0409 09:12:42.451401 32527 net.cpp:165] Memory required for data: 2052149248
I0409 09:12:42.451408 32527 layer_factory.hpp:77] Creating layer pool2
I0409 09:12:42.451421 32527 net.cpp:100] Creating Layer pool2
I0409 09:12:42.451431 32527 net.cpp:434] pool2 <- conv2
I0409 09:12:42.451443 32527 net.cpp:408] pool2 -> pool2
I0409 09:12:42.451511 32527 net.cpp:150] Setting up pool2
I0409 09:12:42.451525 32527 net.cpp:157] Top shape: 1024 150 9 9 (12441600)
I0409 09:12:42.451532 32527 net.cpp:165] Memory required for data: 2101915648
I0409 09:12:42.451539 32527 layer_factory.hpp:77] Creating layer conv3
I0409 09:12:42.451555 32527 net.cpp:100] Creating Layer conv3
I0409 09:12:42.451563 32527 net.cpp:434] conv3 <- pool2
I0409 09:12:42.451575 32527 net.cpp:408] conv3 -> conv3
I0409 09:12:42.458319 32527 net.cpp:150] Setting up conv3
I0409 09:12:42.458345 32527 net.cpp:157] Top shape: 1024 250 6 6 (9216000)
I0409 09:12:42.458354 32527 net.cpp:165] Memory required for data: 2138779648
I0409 09:12:42.458374 32527 layer_factory.hpp:77] Creating layer conv3_relu
I0409 09:12:42.458395 32527 net.cpp:100] Creating Layer conv3_relu
I0409 09:12:42.458405 32527 net.cpp:434] conv3_relu <- conv3
I0409 09:12:42.458416 32527 net.cpp:395] conv3_relu -> conv3 (in-place)
I0409 09:12:42.459360 32527 net.cpp:150] Setting up conv3_relu
I0409 09:12:42.459383 32527 net.cpp:157] Top shape: 1024 250 6 6 (9216000)
I0409 09:12:42.459390 32527 net.cpp:165] Memory required for data: 2175643648
I0409 09:12:42.459398 32527 layer_factory.hpp:77] Creating layer pool3
I0409 09:12:42.459414 32527 net.cpp:100] Creating Layer pool3
I0409 09:12:42.459424 32527 net.cpp:434] pool3 <- conv3
I0409 09:12:42.459460 32527 net.cpp:408] pool3 -> pool3
I0409 09:12:42.459537 32527 net.cpp:150] Setting up pool3
I0409 09:12:42.459552 32527 net.cpp:157] Top shape: 1024 250 3 3 (2304000)
I0409 09:12:42.459558 32527 net.cpp:165] Memory required for data: 2184859648
I0409 09:12:42.459566 32527 layer_factory.hpp:77] Creating layer fc4_300
I0409 09:12:42.459579 32527 net.cpp:100] Creating Layer fc4_300
I0409 09:12:42.459589 32527 net.cpp:434] fc4_300 <- pool3
I0409 09:12:42.459602 32527 net.cpp:408] fc4_300 -> fc4_300
I0409 09:12:42.466188 32527 net.cpp:150] Setting up fc4_300
I0409 09:12:42.466212 32527 net.cpp:157] Top shape: 1024 300 (307200)
I0409 09:12:42.466219 32527 net.cpp:165] Memory required for data: 2186088448
I0409 09:12:42.466233 32527 layer_factory.hpp:77] Creating layer fc4_relu
I0409 09:12:42.466248 32527 net.cpp:100] Creating Layer fc4_relu
I0409 09:12:42.466258 32527 net.cpp:434] fc4_relu <- fc4_300
I0409 09:12:42.466272 32527 net.cpp:395] fc4_relu -> fc4_300 (in-place)
I0409 09:12:42.466521 32527 net.cpp:150] Setting up fc4_relu
I0409 09:12:42.466538 32527 net.cpp:157] Top shape: 1024 300 (307200)
I0409 09:12:42.466545 32527 net.cpp:165] Memory required for data: 2187317248
I0409 09:12:42.466552 32527 layer_factory.hpp:77] Creating layer drop4
I0409 09:12:42.466568 32527 net.cpp:100] Creating Layer drop4
I0409 09:12:42.466578 32527 net.cpp:434] drop4 <- fc4_300
I0409 09:12:42.466589 32527 net.cpp:395] drop4 -> fc4_300 (in-place)
I0409 09:12:42.466645 32527 net.cpp:150] Setting up drop4
I0409 09:12:42.466658 32527 net.cpp:157] Top shape: 1024 300 (307200)
I0409 09:12:42.466665 32527 net.cpp:165] Memory required for data: 2188546048
I0409 09:12:42.466672 32527 layer_factory.hpp:77] Creating layer fc5_67
I0409 09:12:42.466684 32527 net.cpp:100] Creating Layer fc5_67
I0409 09:12:42.466693 32527 net.cpp:434] fc5_67 <- fc4_300
I0409 09:12:42.466707 32527 net.cpp:408] fc5_67 -> fc5_classes
I0409 09:12:42.468140 32527 net.cpp:150] Setting up fc5_67
I0409 09:12:42.468161 32527 net.cpp:157] Top shape: 1024 67 (68608)
I0409 09:12:42.468168 32527 net.cpp:165] Memory required for data: 2188820480
I0409 09:12:42.468191 32527 layer_factory.hpp:77] Creating layer loss
I0409 09:12:42.468205 32527 net.cpp:100] Creating Layer loss
I0409 09:12:42.468215 32527 net.cpp:434] loss <- fc5_classes
I0409 09:12:42.468225 32527 net.cpp:434] loss <- label
I0409 09:12:42.468242 32527 net.cpp:408] loss -> loss
I0409 09:12:42.468264 32527 layer_factory.hpp:77] Creating layer loss
…
I0409 09:12:42.469154 32527 solver.cpp:193] Creating test net (#0) specified by test_net file: ./Prototxt/experiment_6/rtsd-r1/histeq/trial_4/test.prototxt
I0409 09:12:42.469333 32527 net.cpp:58] Initializing net from parameters: 
state {
  phase: TEST
}
layer {
  name: "data"
  type: "Data"
  top: "data"
  top: "label"
  include {
    phase: TEST
  }
  transform_param {
    mirror: false
    crop_size: 48
    mean_value: 124
    mean_value: 121
    mean_value: 142
  }
  data_param {
    source: "../local_data/lmdb/rtsd-r1/histeq/test/lmdb"
    batch_size: 1024
    backend: LMDB
  }
}
layer {
  name: "conv1"
  type: "Convolution"
  bottom: "data"
  top: "conv1"
  convolution_param {
    num_output: 100
    pad: 0
    kernel_size: 7
    group: 1
    stride: 1
    weight_filler {
      type: "xavier"
    }
  }
}
layer {
  name: "conv1_relu"
  type: "ReLU"
  bottom: "conv1"
  top: "conv1"
}
layer {
  name: "pool1"
  type: "Pooling"
  bottom: "conv1"
  top: "pool1"
  pooling_param {
    pool: MAX
    kernel_size: 2
    stride: 2
  }
}
layer {
  name: "conv2"
  type: "Convolution"
  bottom: "pool1"
  top: "conv2"
  convolution_param {
    num_output: 150
    pad: 0
    kernel_size: 4
    group: 1
    stride: 1
    weight_filler {
      type: "xavier"
    }
  }
}
layer {
  name: "conv2_relu"
  type: "ReLU"
  bottom: "conv2"
  top: "conv2"
}
layer {
  name: "pool2"
  type: "Pooling"
  bottom: "conv2"
  top: "pool2"
  pooling_param {
    pool: MAX
    kernel_size: 2
    stride: 2
  }
}
layer {
  name: "conv3"
  type: "Convolution"
  bottom: "pool2"
  top: "conv3"
  convolution_param {
    num_output: 250
    pad: 0
    kernel_size: 4
    group: 1
    stride: 1
    weight_filler {
      type: "xavier"
    }
  }
}
layer {
  name: "conv3_relu"
  type: "ReLU"
  bottom: "conv3"
  top: "conv3"
}
layer {
  name: "pool3"
  type: "Pooling"
  bottom: "conv3"
  top: "pool3"
  pooling_param {
    pool: MAX
    kernel_size: 2
    stride: 2
  }
}
layer {
  name: "fc4_300"
  type: "InnerProduct"
  bottom: "pool3"
  top: "fc4_300"
  inner_product_param {
    num_output: 300
    weight_filler {
      type: "xavier"
    }
  }
}
layer {
  name: "fc4_relu"
  type: "ReLU"
  bottom: "fc4_300"
  top: "fc4_300"
}
layer {
  name: "drop4"
  type: "Dropout"
  bottom: "fc4_300"
  top: "fc4_300"
  dropout_param {
    dropout_ratio: 0.4
  }
}
layer {
  name: "fc5_67"
  type: "InnerProduct"
  bottom: "fc4_300"
  top: "fc5_classes"
  inner_product_param {
    num_output: 67
    weight_filler {
      type: "xavier"
    }
  }
}
layer {
  name: "loss"
  type: "SoftmaxWithLoss"
  bottom: "fc5_classes"
  bottom: "label"
  top: "loss"
}
layer {
  name: "accuracy_1"
  type: "Accuracy"
  bottom: "fc5_classes"
  bottom: "label"
  top: "accuracy_1"
  include {
    phase: TEST
  }
  accuracy_param {
    top_k: 1
  }
}
layer {
  name: "accuracy_5"
  type: "Accuracy"
  bottom: "fc5_classes"
  bottom: "label"
  top: "accuracy_5"
  include {
    phase: TEST
  }
  accuracy_param {
    top_k: 5
  }
}
I0409 09:12:42.469492 32527 layer_factory.hpp:77] Creating layer data
I0409 09:12:42.470391 32527 net.cpp:100] Creating Layer data
I0409 09:12:42.470408 32527 net.cpp:408] data -> data
I0409 09:12:42.470443 32527 net.cpp:408] data -> label
I0409 09:12:42.471731 32589 db_lmdb.cpp:35] Opened lmdb ../local_data/lmdb/rtsd-r1/histeq/test/lmdb
I0409 09:12:42.471935 32527 data_layer.cpp:41] output data size: 1024,3,48,48
I0409 09:12:42.520056 32527 net.cpp:150] Setting up data
I0409 09:12:42.520089 32527 net.cpp:157] Top shape: 1024 3 48 48 (7077888)
I0409 09:12:42.520100 32527 net.cpp:157] Top shape: 1024 (1024)
I0409 09:12:42.520107 32527 net.cpp:165] Memory required for data: 28315648
I0409 09:12:42.520117 32527 layer_factory.hpp:77] Creating layer label_data_1_split
I0409 09:12:42.520139 32527 net.cpp:100] Creating Layer label_data_1_split
I0409 09:12:42.520149 32527 net.cpp:434] label_data_1_split <- label
I0409 09:12:42.520167 32527 net.cpp:408] label_data_1_split -> label_data_1_split_0
I0409 09:12:42.520190 32527 net.cpp:408] label_data_1_split -> label_data_1_split_1
I0409 09:12:42.520203 32527 net.cpp:408] label_data_1_split -> label_data_1_split_2
I0409 09:12:42.520357 32527 net.cpp:150] Setting up label_data_1_split
I0409 09:12:42.520373 32527 net.cpp:157] Top shape: 1024 (1024)
I0409 09:12:42.520382 32527 net.cpp:157] Top shape: 1024 (1024)
I0409 09:12:42.520390 32527 net.cpp:157] Top shape: 1024 (1024)
I0409 09:12:42.520401 32527 net.cpp:165] Memory required for data: 28327936
I0409 09:12:42.520408 32527 layer_factory.hpp:77] Creating layer conv1
I0409 09:12:42.520439 32527 net.cpp:100] Creating Layer conv1
I0409 09:12:42.520448 32527 net.cpp:434] conv1 <- data
I0409 09:12:42.520462 32527 net.cpp:408] conv1 -> conv1
I0409 09:12:42.523277 32527 net.cpp:150] Setting up conv1
I0409 09:12:42.523299 32527 net.cpp:157] Top shape: 1024 100 42 42 (180633600)
I0409 09:12:42.523308 32527 net.cpp:165] Memory required for data: 750862336
I0409 09:12:42.523329 32527 layer_factory.hpp:77] Creating layer conv1_relu
I0409 09:12:42.523347 32527 net.cpp:100] Creating Layer conv1_relu
I0409 09:12:42.523357 32527 net.cpp:434] conv1_relu <- conv1
I0409 09:12:42.523370 32527 net.cpp:395] conv1_relu -> conv1 (in-place)
I0409 09:12:42.523632 32527 net.cpp:150] Setting up conv1_relu
I0409 09:12:42.523653 32527 net.cpp:157] Top shape: 1024 100 42 42 (180633600)
I0409 09:12:42.523660 32527 net.cpp:165] Memory required for data: 1473396736
I0409 09:12:42.523668 32527 layer_factory.hpp:77] Creating layer pool1
I0409 09:12:42.523684 32527 net.cpp:100] Creating Layer pool1
I0409 09:12:42.523692 32527 net.cpp:434] pool1 <- conv1
I0409 09:12:42.523703 32527 net.cpp:408] pool1 -> pool1
I0409 09:12:42.523830 32527 net.cpp:150] Setting up pool1
I0409 09:12:42.523854 32527 net.cpp:157] Top shape: 1024 100 21 21 (45158400)
I0409 09:12:42.523861 32527 net.cpp:165] Memory required for data: 1654030336
I0409 09:12:42.523869 32527 layer_factory.hpp:77] Creating layer conv2
I0409 09:12:42.523906 32527 net.cpp:100] Creating Layer conv2
I0409 09:12:42.523918 32527 net.cpp:434] conv2 <- pool1
I0409 09:12:42.523936 32527 net.cpp:408] conv2 -> conv2
I0409 09:12:42.540390 32527 net.cpp:150] Setting up conv2
I0409 09:12:42.540422 32527 net.cpp:157] Top shape: 1024 150 18 18 (49766400)
I0409 09:12:42.540429 32527 net.cpp:165] Memory required for data: 1853095936
I0409 09:12:42.540451 32527 layer_factory.hpp:77] Creating layer conv2_relu
I0409 09:12:42.540469 32527 net.cpp:100] Creating Layer conv2_relu
I0409 09:12:42.540482 32527 net.cpp:434] conv2_relu <- conv2
I0409 09:12:42.540498 32527 net.cpp:395] conv2_relu -> conv2 (in-place)
I0409 09:12:42.541628 32527 net.cpp:150] Setting up conv2_relu
I0409 09:12:42.541651 32527 net.cpp:157] Top shape: 1024 150 18 18 (49766400)
I0409 09:12:42.541662 32527 net.cpp:165] Memory required for data: 2052161536
I0409 09:12:42.541674 32527 layer_factory.hpp:77] Creating layer pool2
I0409 09:12:42.541690 32527 net.cpp:100] Creating Layer pool2
I0409 09:12:42.541700 32527 net.cpp:434] pool2 <- conv2
I0409 09:12:42.541716 32527 net.cpp:408] pool2 -> pool2
I0409 09:12:42.541798 32527 net.cpp:150] Setting up pool2
I0409 09:12:42.541815 32527 net.cpp:157] Top shape: 1024 150 9 9 (12441600)
I0409 09:12:42.541821 32527 net.cpp:165] Memory required for data: 2101927936
I0409 09:12:42.541828 32527 layer_factory.hpp:77] Creating layer conv3
I0409 09:12:42.541851 32527 net.cpp:100] Creating Layer conv3
I0409 09:12:42.541859 32527 net.cpp:434] conv3 <- pool2
I0409 09:12:42.541874 32527 net.cpp:408] conv3 -> conv3
I0409 09:12:42.548784 32527 net.cpp:150] Setting up conv3
I0409 09:12:42.548810 32527 net.cpp:157] Top shape: 1024 250 6 6 (9216000)
I0409 09:12:42.548817 32527 net.cpp:165] Memory required for data: 2138791936
I0409 09:12:42.548841 32527 layer_factory.hpp:77] Creating layer conv3_relu
I0409 09:12:42.548856 32527 net.cpp:100] Creating Layer conv3_relu
I0409 09:12:42.548867 32527 net.cpp:434] conv3_relu <- conv3
I0409 09:12:42.548878 32527 net.cpp:395] conv3_relu -> conv3 (in-place)
I0409 09:12:42.549836 32527 net.cpp:150] Setting up conv3_relu
I0409 09:12:42.549862 32527 net.cpp:157] Top shape: 1024 250 6 6 (9216000)
I0409 09:12:42.549870 32527 net.cpp:165] Memory required for data: 2175655936
I0409 09:12:42.549904 32527 layer_factory.hpp:77] Creating layer pool3
I0409 09:12:42.549921 32527 net.cpp:100] Creating Layer pool3
I0409 09:12:42.549929 32527 net.cpp:434] pool3 <- conv3
I0409 09:12:42.549944 32527 net.cpp:408] pool3 -> pool3
I0409 09:12:42.550024 32527 net.cpp:150] Setting up pool3
I0409 09:12:42.550038 32527 net.cpp:157] Top shape: 1024 250 3 3 (2304000)
I0409 09:12:42.550045 32527 net.cpp:165] Memory required for data: 2184871936
I0409 09:12:42.550053 32527 layer_factory.hpp:77] Creating layer fc4_300
I0409 09:12:42.550071 32527 net.cpp:100] Creating Layer fc4_300
I0409 09:12:42.550079 32527 net.cpp:434] fc4_300 <- pool3
I0409 09:12:42.550091 32527 net.cpp:408] fc4_300 -> fc4_300
I0409 09:12:42.556954 32527 net.cpp:150] Setting up fc4_300
I0409 09:12:42.556977 32527 net.cpp:157] Top shape: 1024 300 (307200)
I0409 09:12:42.556985 32527 net.cpp:165] Memory required for data: 2186100736
I0409 09:12:42.556999 32527 layer_factory.hpp:77] Creating layer fc4_relu
I0409 09:12:42.557018 32527 net.cpp:100] Creating Layer fc4_relu
I0409 09:12:42.557027 32527 net.cpp:434] fc4_relu <- fc4_300
I0409 09:12:42.557039 32527 net.cpp:395] fc4_relu -> fc4_300 (in-place)
I0409 09:12:42.557292 32527 net.cpp:150] Setting up fc4_relu
I0409 09:12:42.557312 32527 net.cpp:157] Top shape: 1024 300 (307200)
I0409 09:12:42.557327 32527 net.cpp:165] Memory required for data: 2187329536
I0409 09:12:42.557335 32527 layer_factory.hpp:77] Creating layer drop4
I0409 09:12:42.557348 32527 net.cpp:100] Creating Layer drop4
I0409 09:12:42.557356 32527 net.cpp:434] drop4 <- fc4_300
I0409 09:12:42.557368 32527 net.cpp:395] drop4 -> fc4_300 (in-place)
I0409 09:12:42.557420 32527 net.cpp:150] Setting up drop4
I0409 09:12:42.557433 32527 net.cpp:157] Top shape: 1024 300 (307200)
I0409 09:12:42.557442 32527 net.cpp:165] Memory required for data: 2188558336
I0409 09:12:42.557449 32527 layer_factory.hpp:77] Creating layer fc5_67
I0409 09:12:42.557464 32527 net.cpp:100] Creating Layer fc5_67
I0409 09:12:42.557473 32527 net.cpp:434] fc5_67 <- fc4_300
I0409 09:12:42.557484 32527 net.cpp:408] fc5_67 -> fc5_classes
I0409 09:12:42.557822 32527 net.cpp:150] Setting up fc5_67
I0409 09:12:42.557837 32527 net.cpp:157] Top shape: 1024 67 (68608)
I0409 09:12:42.557844 32527 net.cpp:165] Memory required for data: 2188832768
I0409 09:12:42.557862 32527 layer_factory.hpp:77] Creating layer fc5_classes_fc5_67_0_split
I0409 09:12:42.557878 32527 net.cpp:100] Creating Layer fc5_classes_fc5_67_0_split
I0409 09:12:42.557888 32527 net.cpp:434] fc5_classes_fc5_67_0_split <- fc5_classes
I0409 09:12:42.557904 32527 net.cpp:408] fc5_classes_fc5_67_0_split -> fc5_classes_fc5_67_0_split_0
I0409 09:12:42.557919 32527 net.cpp:408] fc5_classes_fc5_67_0_split -> fc5_classes_fc5_67_0_split_1
I0409 09:12:42.557938 32527 net.cpp:408] fc5_classes_fc5_67_0_split -> fc5_classes_fc5_67_0_split_2
I0409 09:12:42.558018 32527 net.cpp:150] Setting up fc5_classes_fc5_67_0_split
I0409 09:12:42.558032 32527 net.cpp:157] Top shape: 1024 67 (68608)
I0409 09:12:42.558039 32527 net.cpp:157] Top shape: 1024 67 (68608)
I0409 09:12:42.558048 32527 net.cpp:157] Top shape: 1024 67 (68608)
I0409 09:12:42.558054 32527 net.cpp:165] Memory required for data: 2189656064
I0409 09:12:42.558061 32527 layer_factory.hpp:77] Creating layer loss
I0409 09:12:42.558085 32527 net.cpp:100] Creating Layer loss
I0409 09:12:42.558094 32527 net.cpp:434] loss <- fc5_classes_fc5_67_0_split_0
I0409 09:12:42.558104 32527 net.cpp:434] loss <- label_data_1_split_0
I0409 09:12:42.558116 32527 net.cpp:408] loss -> loss
…
