…
I0412 06:55:58.818313 21185 solver.cpp:93] Creating training net from train_net file: ./Prototxt/experiment_10/rtsd-r1/AHE/trial_3/train.prototxt
I0412 06:55:58.818670 21185 net.cpp:58] Initializing net from parameters: 
state {
  phase: TRAIN
  level: 0
  stage: ""
}
layer {
  name: "data"
  type: "Data"
  top: "data"
  top: "label"
  include {
    phase: TRAIN
  }
  transform_param {
    scale: 0.0039215689
    mirror: false
    crop_size: 48
    mean_value: 132
    mean_value: 126
    mean_value: 140
  }
  data_param {
    source: "../local_data/lmdb/rtsd-r1/AHE/train/lmdb"
    batch_size: 1024
    backend: LMDB
  }
}
layer {
  name: "conv1"
  type: "Convolution"
  bottom: "data"
  top: "conv1"
  convolution_param {
    num_output: 100
    pad: 0
    kernel_size: 7
    group: 1
    stride: 1
    weight_filler {
      type: "xavier"
    }
  }
}
layer {
  name: "conv1_relu"
  type: "ReLU"
  bottom: "conv1"
  top: "conv1"
}
layer {
  name: "pool1"
  type: "Pooling"
  bottom: "conv1"
  top: "pool1"
  pooling_param {
    pool: MAX
    kernel_size: 2
    stride: 2
  }
}
layer {
  name: "conv2"
  type: "Convolution"
  bottom: "pool1"
  top: "conv2"
  convolution_param {
    num_output: 150
    pad: 0
    kernel_size: 4
    group: 1
    stride: 1
    weight_filler {
      type: "xavier"
    }
  }
}
layer {
  name: "conv2_relu"
  type: "ReLU"
  bottom: "conv2"
  top: "conv2"
}
layer {
  name: "pool2"
  type: "Pooling"
  bottom: "conv2"
  top: "pool2"
  pooling_param {
    pool: MAX
    kernel_size: 2
    stride: 2
  }
}
layer {
  name: "conv3"
  type: "Convolution"
  bottom: "pool2"
  top: "conv3"
  convolution_param {
    num_output: 250
    pad: 0
    kernel_size: 4
    group: 1
    stride: 1
    weight_filler {
      type: "xavier"
    }
  }
}
layer {
  name: "conv3_relu"
  type: "ReLU"
  bottom: "conv3"
  top: "conv3"
}
layer {
  name: "pool3"
  type: "Pooling"
  bottom: "conv3"
  top: "pool3"
  pooling_param {
    pool: MAX
    kernel_size: 2
    stride: 2
  }
}
layer {
  name: "fc4_300"
  type: "InnerProduct"
  bottom: "pool3"
  top: "fc4_300"
  inner_product_param {
    num_output: 300
    weight_filler {
      type: "xavier"
    }
  }
}
layer {
  name: "fc4_relu"
  type: "ReLU"
  bottom: "fc4_300"
  top: "fc4_300"
}
layer {
  name: "drop4"
  type: "Dropout"
  bottom: "fc4_300"
  top: "fc4_300"
  dropout_param {
    dropout_ratio: 0.4
  }
}
layer {
  name: "fc5_67"
  type: "InnerProduct"
  bottom: "fc4_300"
  top: "fc5_classes"
  inner_product_param {
    num_output: 67
    weight_filler {
      type: "xavier"
    }
  }
}
layer {
  name: "softmax"
  type: "Softmax"
  bottom: "fc5_classes"
  top: "softmax"
}
layer {
  name: "loss"
  type: "MultinomialLogisticLoss"
  bottom: "softmax"
  bottom: "label"
  top: "loss"
}
layer {
  name: "accuracy_1"
  type: "Accuracy"
  bottom: "fc5_classes"
  bottom: "label"
  top: "accuracy_1"
  accuracy_param {
    top_k: 1
  }
}
layer {
  name: "accuracy_5"
  type: "Accuracy"
  bottom: "fc5_classes"
  bottom: "label"
  top: "accuracy_5"
  accuracy_param {
    top_k: 5
  }
}
I0412 06:55:58.818799 21185 layer_factory.hpp:77] Creating layer data
I0412 06:55:58.819905 21185 net.cpp:100] Creating Layer data
I0412 06:55:58.819952 21185 net.cpp:408] data -> data
I0412 06:55:58.819980 21185 net.cpp:408] data -> label
I0412 06:55:58.827533 21318 db_lmdb.cpp:35] Opened lmdb ../local_data/lmdb/rtsd-r1/AHE/train/lmdb
I0412 06:55:58.846174 21185 data_layer.cpp:41] output data size: 1024,3,48,48
I0412 06:55:58.898289 21185 net.cpp:150] Setting up data
I0412 06:55:58.898329 21185 net.cpp:157] Top shape: 1024 3 48 48 (7077888)
I0412 06:55:58.898334 21185 net.cpp:157] Top shape: 1024 (1024)
I0412 06:55:58.898337 21185 net.cpp:165] Memory required for data: 28315648
I0412 06:55:58.898349 21185 layer_factory.hpp:77] Creating layer label_data_1_split
I0412 06:55:58.898362 21185 net.cpp:100] Creating Layer label_data_1_split
I0412 06:55:58.898368 21185 net.cpp:434] label_data_1_split <- label
I0412 06:55:58.898385 21185 net.cpp:408] label_data_1_split -> label_data_1_split_0
I0412 06:55:58.898396 21185 net.cpp:408] label_data_1_split -> label_data_1_split_1
I0412 06:55:58.898406 21185 net.cpp:408] label_data_1_split -> label_data_1_split_2
I0412 06:55:58.898476 21185 net.cpp:150] Setting up label_data_1_split
I0412 06:55:58.898485 21185 net.cpp:157] Top shape: 1024 (1024)
I0412 06:55:58.898489 21185 net.cpp:157] Top shape: 1024 (1024)
I0412 06:55:58.898494 21185 net.cpp:157] Top shape: 1024 (1024)
I0412 06:55:58.898495 21185 net.cpp:165] Memory required for data: 28327936
I0412 06:55:58.898499 21185 layer_factory.hpp:77] Creating layer conv1
I0412 06:55:58.898516 21185 net.cpp:100] Creating Layer conv1
I0412 06:55:58.898521 21185 net.cpp:434] conv1 <- data
I0412 06:55:58.898528 21185 net.cpp:408] conv1 -> conv1
I0412 06:55:59.262315 21185 net.cpp:150] Setting up conv1
I0412 06:55:59.262344 21185 net.cpp:157] Top shape: 1024 100 42 42 (180633600)
I0412 06:55:59.262348 21185 net.cpp:165] Memory required for data: 750862336
I0412 06:55:59.262372 21185 layer_factory.hpp:77] Creating layer conv1_relu
I0412 06:55:59.262383 21185 net.cpp:100] Creating Layer conv1_relu
I0412 06:55:59.262387 21185 net.cpp:434] conv1_relu <- conv1
I0412 06:55:59.262393 21185 net.cpp:395] conv1_relu -> conv1 (in-place)
I0412 06:55:59.262593 21185 net.cpp:150] Setting up conv1_relu
I0412 06:55:59.262609 21185 net.cpp:157] Top shape: 1024 100 42 42 (180633600)
I0412 06:55:59.262611 21185 net.cpp:165] Memory required for data: 1473396736
I0412 06:55:59.262615 21185 layer_factory.hpp:77] Creating layer pool1
I0412 06:55:59.262625 21185 net.cpp:100] Creating Layer pool1
I0412 06:55:59.262629 21185 net.cpp:434] pool1 <- conv1
I0412 06:55:59.262634 21185 net.cpp:408] pool1 -> pool1
I0412 06:55:59.262691 21185 net.cpp:150] Setting up pool1
I0412 06:55:59.262701 21185 net.cpp:157] Top shape: 1024 100 21 21 (45158400)
I0412 06:55:59.262704 21185 net.cpp:165] Memory required for data: 1654030336
I0412 06:55:59.262707 21185 layer_factory.hpp:77] Creating layer conv2
I0412 06:55:59.262719 21185 net.cpp:100] Creating Layer conv2
I0412 06:55:59.262724 21185 net.cpp:434] conv2 <- pool1
I0412 06:55:59.262730 21185 net.cpp:408] conv2 -> conv2
I0412 06:55:59.268695 21185 net.cpp:150] Setting up conv2
I0412 06:55:59.268712 21185 net.cpp:157] Top shape: 1024 150 18 18 (49766400)
I0412 06:55:59.268717 21185 net.cpp:165] Memory required for data: 1853095936
I0412 06:55:59.268728 21185 layer_factory.hpp:77] Creating layer conv2_relu
I0412 06:55:59.268734 21185 net.cpp:100] Creating Layer conv2_relu
I0412 06:55:59.268738 21185 net.cpp:434] conv2_relu <- conv2
I0412 06:55:59.268743 21185 net.cpp:395] conv2_relu -> conv2 (in-place)
I0412 06:55:59.270719 21185 net.cpp:150] Setting up conv2_relu
I0412 06:55:59.270737 21185 net.cpp:157] Top shape: 1024 150 18 18 (49766400)
I0412 06:55:59.270741 21185 net.cpp:165] Memory required for data: 2052161536
I0412 06:55:59.270745 21185 layer_factory.hpp:77] Creating layer pool2
I0412 06:55:59.270753 21185 net.cpp:100] Creating Layer pool2
I0412 06:55:59.270756 21185 net.cpp:434] pool2 <- conv2
I0412 06:55:59.270762 21185 net.cpp:408] pool2 -> pool2
I0412 06:55:59.270813 21185 net.cpp:150] Setting up pool2
I0412 06:55:59.270823 21185 net.cpp:157] Top shape: 1024 150 9 9 (12441600)
I0412 06:55:59.270826 21185 net.cpp:165] Memory required for data: 2101927936
I0412 06:55:59.270829 21185 layer_factory.hpp:77] Creating layer conv3
I0412 06:55:59.270840 21185 net.cpp:100] Creating Layer conv3
I0412 06:55:59.270845 21185 net.cpp:434] conv3 <- pool2
I0412 06:55:59.270877 21185 net.cpp:408] conv3 -> conv3
I0412 06:55:59.276366 21185 net.cpp:150] Setting up conv3
I0412 06:55:59.276384 21185 net.cpp:157] Top shape: 1024 250 6 6 (9216000)
I0412 06:55:59.276388 21185 net.cpp:165] Memory required for data: 2138791936
I0412 06:55:59.276398 21185 layer_factory.hpp:77] Creating layer conv3_relu
I0412 06:55:59.276406 21185 net.cpp:100] Creating Layer conv3_relu
I0412 06:55:59.276408 21185 net.cpp:434] conv3_relu <- conv3
I0412 06:55:59.276414 21185 net.cpp:395] conv3_relu -> conv3 (in-place)
I0412 06:55:59.277189 21185 net.cpp:150] Setting up conv3_relu
I0412 06:55:59.277204 21185 net.cpp:157] Top shape: 1024 250 6 6 (9216000)
I0412 06:55:59.277220 21185 net.cpp:165] Memory required for data: 2175655936
I0412 06:55:59.277225 21185 layer_factory.hpp:77] Creating layer pool3
I0412 06:55:59.277231 21185 net.cpp:100] Creating Layer pool3
I0412 06:55:59.277235 21185 net.cpp:434] pool3 <- conv3
I0412 06:55:59.277240 21185 net.cpp:408] pool3 -> pool3
I0412 06:55:59.277288 21185 net.cpp:150] Setting up pool3
I0412 06:55:59.277297 21185 net.cpp:157] Top shape: 1024 250 3 3 (2304000)
I0412 06:55:59.277300 21185 net.cpp:165] Memory required for data: 2184871936
I0412 06:55:59.277303 21185 layer_factory.hpp:77] Creating layer fc4_300
I0412 06:55:59.277310 21185 net.cpp:100] Creating Layer fc4_300
I0412 06:55:59.277313 21185 net.cpp:434] fc4_300 <- pool3
I0412 06:55:59.277318 21185 net.cpp:408] fc4_300 -> fc4_300
I0412 06:55:59.282670 21185 net.cpp:150] Setting up fc4_300
I0412 06:55:59.282686 21185 net.cpp:157] Top shape: 1024 300 (307200)
I0412 06:55:59.282701 21185 net.cpp:165] Memory required for data: 2186100736
I0412 06:55:59.282708 21185 layer_factory.hpp:77] Creating layer fc4_relu
I0412 06:55:59.282716 21185 net.cpp:100] Creating Layer fc4_relu
I0412 06:55:59.282718 21185 net.cpp:434] fc4_relu <- fc4_300
I0412 06:55:59.282724 21185 net.cpp:395] fc4_relu -> fc4_300 (in-place)
I0412 06:55:59.282913 21185 net.cpp:150] Setting up fc4_relu
I0412 06:55:59.282927 21185 net.cpp:157] Top shape: 1024 300 (307200)
I0412 06:55:59.282929 21185 net.cpp:165] Memory required for data: 2187329536
I0412 06:55:59.282933 21185 layer_factory.hpp:77] Creating layer drop4
I0412 06:55:59.282939 21185 net.cpp:100] Creating Layer drop4
I0412 06:55:59.282943 21185 net.cpp:434] drop4 <- fc4_300
I0412 06:55:59.282948 21185 net.cpp:395] drop4 -> fc4_300 (in-place)
I0412 06:55:59.282984 21185 net.cpp:150] Setting up drop4
I0412 06:55:59.282991 21185 net.cpp:157] Top shape: 1024 300 (307200)
I0412 06:55:59.282994 21185 net.cpp:165] Memory required for data: 2188558336
I0412 06:55:59.282997 21185 layer_factory.hpp:77] Creating layer fc5_67
I0412 06:55:59.283004 21185 net.cpp:100] Creating Layer fc5_67
I0412 06:55:59.283006 21185 net.cpp:434] fc5_67 <- fc4_300
I0412 06:55:59.283011 21185 net.cpp:408] fc5_67 -> fc5_classes
I0412 06:55:59.284303 21185 net.cpp:150] Setting up fc5_67
I0412 06:55:59.284319 21185 net.cpp:157] Top shape: 1024 67 (68608)
I0412 06:55:59.284334 21185 net.cpp:165] Memory required for data: 2188832768
I0412 06:55:59.284344 21185 layer_factory.hpp:77] Creating layer fc5_classes_fc5_67_0_split
I0412 06:55:59.284353 21185 net.cpp:100] Creating Layer fc5_classes_fc5_67_0_split
I0412 06:55:59.284356 21185 net.cpp:434] fc5_classes_fc5_67_0_split <- fc5_classes
I0412 06:55:59.284361 21185 net.cpp:408] fc5_classes_fc5_67_0_split -> fc5_classes_fc5_67_0_split_0
I0412 06:55:59.284369 21185 net.cpp:408] fc5_classes_fc5_67_0_split -> fc5_classes_fc5_67_0_split_1
I0412 06:55:59.284379 21185 net.cpp:408] fc5_classes_fc5_67_0_split -> fc5_classes_fc5_67_0_split_2
I0412 06:55:59.284432 21185 net.cpp:150] Setting up fc5_classes_fc5_67_0_split
I0412 06:55:59.284440 21185 net.cpp:157] Top shape: 1024 67 (68608)
I0412 06:55:59.284443 21185 net.cpp:157] Top shape: 1024 67 (68608)
I0412 06:55:59.284447 21185 net.cpp:157] Top shape: 1024 67 (68608)
I0412 06:55:59.284449 21185 net.cpp:165] Memory required for data: 2189656064
I0412 06:55:59.284452 21185 layer_factory.hpp:77] Creating layer softmax
I0412 06:55:59.284466 21185 net.cpp:100] Creating Layer softmax
I0412 06:55:59.284483 21185 net.cpp:434] softmax <- fc5_classes_fc5_67_0_split_0
I0412 06:55:59.284490 21185 net.cpp:408] softmax -> softmax
I0412 06:55:59.284760 21185 net.cpp:150] Setting up softmax
I0412 06:55:59.284775 21185 net.cpp:157] Top shape: 1024 67 (68608)
I0412 06:55:59.284778 21185 net.cpp:165] Memory required for data: 2189930496
I0412 06:55:59.284781 21185 layer_factory.hpp:77] Creating layer loss
I0412 06:55:59.284787 21185 net.cpp:100] Creating Layer loss
I0412 06:55:59.284797 21185 net.cpp:434] loss <- softmax
I0412 06:55:59.284802 21185 net.cpp:434] loss <- label_data_1_split_0
I0412 06:55:59.284809 21185 net.cpp:408] loss -> loss
…
