…
I0414 06:06:10.157476 28792 solver.cpp:93] Creating training net from train_net file: ./Prototxt/experiment_10/rtsd-r1/AHE/trial_3/train.prototxt
I0414 06:06:10.157814 28792 net.cpp:58] Initializing net from parameters: 
state {
  phase: TRAIN
  level: 0
  stage: ""
}
layer {
  name: "data"
  type: "Data"
  top: "data"
  top: "label"
  include {
    phase: TRAIN
  }
  transform_param {
    scale: 0.0039215689
    mirror: false
    crop_size: 48
    mean_value: 132
    mean_value: 126
    mean_value: 140
  }
  data_param {
    source: "../local_data/lmdb/rtsd-r1/AHE/train/lmdb"
    batch_size: 1024
    backend: LMDB
  }
}
layer {
  name: "conv1"
  type: "Convolution"
  bottom: "data"
  top: "conv1"
  convolution_param {
    num_output: 100
    pad: 0
    kernel_size: 7
    group: 1
    stride: 1
    weight_filler {
      type: "xavier"
    }
  }
}
layer {
  name: "conv1_relu"
  type: "ReLU"
  bottom: "conv1"
  top: "conv1"
}
layer {
  name: "pool1"
  type: "Pooling"
  bottom: "conv1"
  top: "pool1"
  pooling_param {
    pool: MAX
    kernel_size: 2
    stride: 2
  }
}
layer {
  name: "conv2"
  type: "Convolution"
  bottom: "pool1"
  top: "conv2"
  convolution_param {
    num_output: 150
    pad: 0
    kernel_size: 4
    group: 1
    stride: 1
    weight_filler {
      type: "xavier"
    }
  }
}
layer {
  name: "conv2_relu"
  type: "ReLU"
  bottom: "conv2"
  top: "conv2"
}
layer {
  name: "pool2"
  type: "Pooling"
  bottom: "conv2"
  top: "pool2"
  pooling_param {
    pool: MAX
    kernel_size: 2
    stride: 2
  }
}
layer {
  name: "conv3"
  type: "Convolution"
  bottom: "pool2"
  top: "conv3"
  convolution_param {
    num_output: 250
    pad: 0
    kernel_size: 4
    group: 1
    stride: 1
    weight_filler {
      type: "xavier"
    }
  }
}
layer {
  name: "conv3_relu"
  type: "ReLU"
  bottom: "conv3"
  top: "conv3"
}
layer {
  name: "pool3"
  type: "Pooling"
  bottom: "conv3"
  top: "pool3"
  pooling_param {
    pool: MAX
    kernel_size: 2
    stride: 2
  }
}
layer {
  name: "fc4_300"
  type: "InnerProduct"
  bottom: "pool3"
  top: "fc4_300"
  inner_product_param {
    num_output: 300
    weight_filler {
      type: "xavier"
    }
  }
}
layer {
  name: "fc4_relu"
  type: "ReLU"
  bottom: "fc4_300"
  top: "fc4_300"
}
layer {
  name: "fc5_67"
  type: "InnerProduct"
  bottom: "fc4_300"
  top: "fc5_classes"
  inner_product_param {
    num_output: 67
    weight_filler {
      type: "xavier"
    }
  }
}
layer {
  name: "softmax"
  type: "Softmax"
  bottom: "fc5_classes"
  top: "softmax"
}
layer {
  name: "loss"
  type: "MultinomialLogisticLoss"
  bottom: "softmax"
  bottom: "label"
  top: "loss"
}
layer {
  name: "accuracy_1"
  type: "Accuracy"
  bottom: "fc5_classes"
  bottom: "label"
  top: "accuracy_1"
  accuracy_param {
    top_k: 1
  }
}
layer {
  name: "accuracy_5"
  type: "Accuracy"
  bottom: "fc5_classes"
  bottom: "label"
  top: "accuracy_5"
  accuracy_param {
    top_k: 5
  }
}
layer {
  name: "silence"
  type: "Silence"
  bottom: "accuracy_1"
  bottom: "accuracy_5"
}
I0414 06:06:10.157932 28792 layer_factory.hpp:77] Creating layer data
I0414 06:06:10.159037 28792 net.cpp:100] Creating Layer data
I0414 06:06:10.159054 28792 net.cpp:408] data -> data
I0414 06:06:10.159075 28792 net.cpp:408] data -> label
I0414 06:06:10.161748 28910 db_lmdb.cpp:35] Opened lmdb ../local_data/lmdb/rtsd-r1/AHE/train/lmdb
I0414 06:06:10.178794 28792 data_layer.cpp:41] output data size: 1024,3,48,48
I0414 06:06:10.243804 28792 net.cpp:150] Setting up data
I0414 06:06:10.243857 28792 net.cpp:157] Top shape: 1024 3 48 48 (7077888)
I0414 06:06:10.243863 28792 net.cpp:157] Top shape: 1024 (1024)
I0414 06:06:10.243866 28792 net.cpp:165] Memory required for data: 28315648
I0414 06:06:10.243891 28792 layer_factory.hpp:77] Creating layer label_data_1_split
I0414 06:06:10.243907 28792 net.cpp:100] Creating Layer label_data_1_split
I0414 06:06:10.243916 28792 net.cpp:434] label_data_1_split <- label
I0414 06:06:10.243933 28792 net.cpp:408] label_data_1_split -> label_data_1_split_0
I0414 06:06:10.243945 28792 net.cpp:408] label_data_1_split -> label_data_1_split_1
I0414 06:06:10.243953 28792 net.cpp:408] label_data_1_split -> label_data_1_split_2
I0414 06:06:10.244021 28792 net.cpp:150] Setting up label_data_1_split
I0414 06:06:10.244029 28792 net.cpp:157] Top shape: 1024 (1024)
I0414 06:06:10.244035 28792 net.cpp:157] Top shape: 1024 (1024)
I0414 06:06:10.244038 28792 net.cpp:157] Top shape: 1024 (1024)
I0414 06:06:10.244041 28792 net.cpp:165] Memory required for data: 28327936
I0414 06:06:10.244045 28792 layer_factory.hpp:77] Creating layer conv1
I0414 06:06:10.244062 28792 net.cpp:100] Creating Layer conv1
I0414 06:06:10.244068 28792 net.cpp:434] conv1 <- data
I0414 06:06:10.244074 28792 net.cpp:408] conv1 -> conv1
I0414 06:06:10.610096 28792 net.cpp:150] Setting up conv1
I0414 06:06:10.610134 28792 net.cpp:157] Top shape: 1024 100 42 42 (180633600)
I0414 06:06:10.610141 28792 net.cpp:165] Memory required for data: 750862336
I0414 06:06:10.610172 28792 layer_factory.hpp:77] Creating layer conv1_relu
I0414 06:06:10.610189 28792 net.cpp:100] Creating Layer conv1_relu
I0414 06:06:10.610200 28792 net.cpp:434] conv1_relu <- conv1
I0414 06:06:10.610213 28792 net.cpp:395] conv1_relu -> conv1 (in-place)
I0414 06:06:10.610548 28792 net.cpp:150] Setting up conv1_relu
I0414 06:06:10.610564 28792 net.cpp:157] Top shape: 1024 100 42 42 (180633600)
I0414 06:06:10.610572 28792 net.cpp:165] Memory required for data: 1473396736
I0414 06:06:10.610577 28792 layer_factory.hpp:77] Creating layer pool1
I0414 06:06:10.610592 28792 net.cpp:100] Creating Layer pool1
I0414 06:06:10.610600 28792 net.cpp:434] pool1 <- conv1
I0414 06:06:10.610610 28792 net.cpp:408] pool1 -> pool1
I0414 06:06:10.610702 28792 net.cpp:150] Setting up pool1
I0414 06:06:10.610716 28792 net.cpp:157] Top shape: 1024 100 21 21 (45158400)
I0414 06:06:10.610723 28792 net.cpp:165] Memory required for data: 1654030336
I0414 06:06:10.610729 28792 layer_factory.hpp:77] Creating layer conv2
I0414 06:06:10.610750 28792 net.cpp:100] Creating Layer conv2
I0414 06:06:10.610759 28792 net.cpp:434] conv2 <- pool1
I0414 06:06:10.610772 28792 net.cpp:408] conv2 -> conv2
I0414 06:06:10.632808 28792 net.cpp:150] Setting up conv2
I0414 06:06:10.632830 28792 net.cpp:157] Top shape: 1024 150 18 18 (49766400)
I0414 06:06:10.632834 28792 net.cpp:165] Memory required for data: 1853095936
I0414 06:06:10.632845 28792 layer_factory.hpp:77] Creating layer conv2_relu
I0414 06:06:10.632855 28792 net.cpp:100] Creating Layer conv2_relu
I0414 06:06:10.632861 28792 net.cpp:434] conv2_relu <- conv2
I0414 06:06:10.632868 28792 net.cpp:395] conv2_relu -> conv2 (in-place)
I0414 06:06:10.634217 28792 net.cpp:150] Setting up conv2_relu
I0414 06:06:10.634237 28792 net.cpp:157] Top shape: 1024 150 18 18 (49766400)
I0414 06:06:10.634245 28792 net.cpp:165] Memory required for data: 2052161536
I0414 06:06:10.634251 28792 layer_factory.hpp:77] Creating layer pool2
I0414 06:06:10.634261 28792 net.cpp:100] Creating Layer pool2
I0414 06:06:10.634268 28792 net.cpp:434] pool2 <- conv2
I0414 06:06:10.634276 28792 net.cpp:408] pool2 -> pool2
I0414 06:06:10.634351 28792 net.cpp:150] Setting up pool2
I0414 06:06:10.634367 28792 net.cpp:157] Top shape: 1024 150 9 9 (12441600)
I0414 06:06:10.634376 28792 net.cpp:165] Memory required for data: 2101927936
I0414 06:06:10.634380 28792 layer_factory.hpp:77] Creating layer conv3
I0414 06:06:10.634402 28792 net.cpp:100] Creating Layer conv3
I0414 06:06:10.634410 28792 net.cpp:434] conv3 <- pool2
I0414 06:06:10.634423 28792 net.cpp:408] conv3 -> conv3
I0414 06:06:10.641926 28792 net.cpp:150] Setting up conv3
I0414 06:06:10.641942 28792 net.cpp:157] Top shape: 1024 250 6 6 (9216000)
I0414 06:06:10.641947 28792 net.cpp:165] Memory required for data: 2138791936
I0414 06:06:10.641955 28792 layer_factory.hpp:77] Creating layer conv3_relu
I0414 06:06:10.641973 28792 net.cpp:100] Creating Layer conv3_relu
I0414 06:06:10.641981 28792 net.cpp:434] conv3_relu <- conv3
I0414 06:06:10.641986 28792 net.cpp:395] conv3_relu -> conv3 (in-place)
I0414 06:06:10.644258 28792 net.cpp:150] Setting up conv3_relu
I0414 06:06:10.644274 28792 net.cpp:157] Top shape: 1024 250 6 6 (9216000)
I0414 06:06:10.644279 28792 net.cpp:165] Memory required for data: 2175655936
I0414 06:06:10.644284 28792 layer_factory.hpp:77] Creating layer pool3
I0414 06:06:10.644291 28792 net.cpp:100] Creating Layer pool3
I0414 06:06:10.644296 28792 net.cpp:434] pool3 <- conv3
I0414 06:06:10.644302 28792 net.cpp:408] pool3 -> pool3
I0414 06:06:10.644353 28792 net.cpp:150] Setting up pool3
I0414 06:06:10.644361 28792 net.cpp:157] Top shape: 1024 250 3 3 (2304000)
I0414 06:06:10.644364 28792 net.cpp:165] Memory required for data: 2184871936
I0414 06:06:10.644367 28792 layer_factory.hpp:77] Creating layer fc4_300
I0414 06:06:10.644374 28792 net.cpp:100] Creating Layer fc4_300
I0414 06:06:10.644381 28792 net.cpp:434] fc4_300 <- pool3
I0414 06:06:10.644385 28792 net.cpp:408] fc4_300 -> fc4_300
I0414 06:06:10.650861 28792 net.cpp:150] Setting up fc4_300
I0414 06:06:10.650878 28792 net.cpp:157] Top shape: 1024 300 (307200)
I0414 06:06:10.650882 28792 net.cpp:165] Memory required for data: 2186100736
I0414 06:06:10.650888 28792 layer_factory.hpp:77] Creating layer fc4_relu
I0414 06:06:10.650894 28792 net.cpp:100] Creating Layer fc4_relu
I0414 06:06:10.650897 28792 net.cpp:434] fc4_relu <- fc4_300
I0414 06:06:10.650904 28792 net.cpp:395] fc4_relu -> fc4_300 (in-place)
I0414 06:06:10.651093 28792 net.cpp:150] Setting up fc4_relu
I0414 06:06:10.651105 28792 net.cpp:157] Top shape: 1024 300 (307200)
I0414 06:06:10.651108 28792 net.cpp:165] Memory required for data: 2187329536
I0414 06:06:10.651111 28792 layer_factory.hpp:77] Creating layer fc5_67
I0414 06:06:10.651119 28792 net.cpp:100] Creating Layer fc5_67
I0414 06:06:10.651124 28792 net.cpp:434] fc5_67 <- fc4_300
I0414 06:06:10.651130 28792 net.cpp:408] fc5_67 -> fc5_classes
I0414 06:06:10.671200 28792 net.cpp:150] Setting up fc5_67
I0414 06:06:10.671218 28792 net.cpp:157] Top shape: 1024 67 (68608)
I0414 06:06:10.671221 28792 net.cpp:165] Memory required for data: 2187603968
I0414 06:06:10.671233 28792 layer_factory.hpp:77] Creating layer fc5_classes_fc5_67_0_split
I0414 06:06:10.671244 28792 net.cpp:100] Creating Layer fc5_classes_fc5_67_0_split
I0414 06:06:10.671250 28792 net.cpp:434] fc5_classes_fc5_67_0_split <- fc5_classes
I0414 06:06:10.671257 28792 net.cpp:408] fc5_classes_fc5_67_0_split -> fc5_classes_fc5_67_0_split_0
I0414 06:06:10.671267 28792 net.cpp:408] fc5_classes_fc5_67_0_split -> fc5_classes_fc5_67_0_split_1
I0414 06:06:10.671275 28792 net.cpp:408] fc5_classes_fc5_67_0_split -> fc5_classes_fc5_67_0_split_2
I0414 06:06:10.671332 28792 net.cpp:150] Setting up fc5_classes_fc5_67_0_split
I0414 06:06:10.671340 28792 net.cpp:157] Top shape: 1024 67 (68608)
I0414 06:06:10.671344 28792 net.cpp:157] Top shape: 1024 67 (68608)
I0414 06:06:10.671347 28792 net.cpp:157] Top shape: 1024 67 (68608)
I0414 06:06:10.671350 28792 net.cpp:165] Memory required for data: 2188427264
I0414 06:06:10.671352 28792 layer_factory.hpp:77] Creating layer softmax
I0414 06:06:10.671360 28792 net.cpp:100] Creating Layer softmax
I0414 06:06:10.671365 28792 net.cpp:434] softmax <- fc5_classes_fc5_67_0_split_0
I0414 06:06:10.671370 28792 net.cpp:408] softmax -> softmax
I0414 06:06:10.671645 28792 net.cpp:150] Setting up softmax
I0414 06:06:10.671661 28792 net.cpp:157] Top shape: 1024 67 (68608)
I0414 06:06:10.671665 28792 net.cpp:165] Memory required for data: 2188701696
I0414 06:06:10.671669 28792 layer_factory.hpp:77] Creating layer loss
I0414 06:06:10.671680 28792 net.cpp:100] Creating Layer loss
I0414 06:06:10.671703 28792 net.cpp:434] loss <- softmax
I0414 06:06:10.671710 28792 net.cpp:434] loss <- label_data_1_split_0
I0414 06:06:10.671716 28792 net.cpp:408] loss -> loss
…
