…
I0404 01:06:55.933279 18408 net.cpp:322] The NetState phase (0) differed from the phase (1) specified by a rule in layer accuracy_1
I0404 01:06:55.933289 18408 net.cpp:322] The NetState phase (0) differed from the phase (1) specified by a rule in layer accuracy_5
I0404 01:06:55.933413 18408 net.cpp:58] Initializing net from parameters: 
state {
  phase: TRAIN
  level: 0
  stage: ""
}
layer {
  name: "data"
  type: "Data"
  top: "data"
  top: "label"
  include {
    phase: TRAIN
  }
  transform_param {
    mirror: false
    crop_size: 48
  }
  data_param {
    source: "../local_data/lmdb/rtsd-r1/CoNorm/train/lmdb"
    batch_size: 1024
    backend: LMDB
  }
}
layer {
  name: "conv1"
  type: "Convolution"
  bottom: "data"
  top: "conv1"
  convolution_param {
    num_output: 100
    pad: 0
    kernel_size: 7
    group: 1
    stride: 1
    weight_filler {
      type: "xavier"
    }
  }
}
layer {
  name: "conv1_prescale"
  type: "Scale"
  bottom: "conv1"
  top: "conv1"
  param {
    lr_mult: 0
    decay_mult: 0
  }
  scale_param {
    filler {
      value: 0.6666
    }
  }
}
layer {
  name: "conv1_sTanH"
  type: "TanH"
  bottom: "conv1"
  top: "conv1"
}
layer {
  name: "conv1_postscale"
  type: "Scale"
  bottom: "conv1"
  top: "conv1"
  param {
    lr_mult: 0
    decay_mult: 0
  }
  scale_param {
    filler {
      value: 1.7159
    }
  }
}
layer {
  name: "pool1"
  type: "Pooling"
  bottom: "conv1"
  top: "pool1"
  pooling_param {
    pool: MAX
    kernel_size: 2
    stride: 2
  }
}
layer {
  name: "conv2"
  type: "Convolution"
  bottom: "pool1"
  top: "conv2"
  convolution_param {
    num_output: 150
    pad: 0
    kernel_size: 4
    group: 1
    stride: 1
    weight_filler {
      type: "xavier"
    }
  }
}
layer {
  name: "conv2_prescale"
  type: "Scale"
  bottom: "conv2"
  top: "conv2"
  param {
    lr_mult: 0
    decay_mult: 0
  }
  scale_param {
    filler {
      value: 0.6666
    }
  }
}
layer {
  name: "conv2_sTanH"
  type: "TanH"
  bottom: "conv2"
  top: "conv2"
}
layer {
  name: "conv2_postscale"
  type: "Scale"
  bottom: "conv2"
  top: "conv2"
  param {
    lr_mult: 0
    decay_mult: 0
  }
  scale_param {
    filler {
      value: 1.7159
    }
  }
}
layer {
  name: "pool2"
  type: "Pooling"
  bottom: "conv2"
  top: "pool2"
  pooling_param {
    pool: MAX
    kernel_size: 2
    stride: 2
  }
}
layer {
  name: "conv3"
  type: "Convolution"
  bottom: "pool2"
  top: "conv3"
  convolution_param {
    num_output: 250
    pad: 0
    kernel_size: 4
    group: 1
    stride: 1
    weight_filler {
      type: "xavier"
    }
  }
}
layer {
  name: "conv3_prescale"
  type: "Scale"
  bottom: "conv3"
  top: "conv3"
  param {
    lr_mult: 0
    decay_mult: 0
  }
  scale_param {
    filler {
      value: 0.6666
    }
  }
}
layer {
  name: "conv3_sTanH"
  type: "TanH"
  bottom: "conv3"
  top: "conv3"
}
layer {
  name: "conv3_postscale"
  type: "Scale"
  bottom: "conv3"
  top: "conv3"
  param {
    lr_mult: 0
    decay_mult: 0
  }
  scale_param {
    filler {
      value: 1.7159
    }
  }
}
layer {
  name: "pool3"
  type: "Pooling"
  bottom: "conv3"
  top: "pool3"
  pooling_param {
    pool: MAX
    kernel_size: 2
    stride: 2
  }
}
layer {
  name: "fc4_300"
  type: "InnerProduct"
  bottom: "pool3"
  top: "fc4_300"
  inner_product_param {
    num_output: 300
    weight_filler {
      type: "xavier"
    }
  }
}
layer {
  name: "fc4_relu"
  type: "ReLU"
  bottom: "fc4_300"
  top: "fc4_300"
}
layer {
  name: "drop4"
  type: "Dropout"
  bottom: "fc4_300"
  top: "fc4_300"
  dropout_param {
    dropout_ratio: 0.4
  }
}
layer {
  name: "fc5_67"
  type: "InnerProduct"
  bottom: "fc4_300"
  top: "fc5_classes"
  inner_product_param {
    num_output: 67
    weight_filler {
      type: "xavier"
    }
  }
}
layer {
  name: "loss"
  type: "SoftmaxWithLoss"
  bottom: "fc5_classes"
  bottom: "label"
  top: "loss"
}
I0404 01:06:55.933513 18408 layer_factory.hpp:77] Creating layer data
I0404 01:06:55.934587 18408 net.cpp:100] Creating Layer data
I0404 01:06:55.934607 18408 net.cpp:408] data -> data
I0404 01:06:55.934628 18408 net.cpp:408] data -> label
I0404 01:06:55.936395 18596 db_lmdb.cpp:35] Opened lmdb ../local_data/lmdb/rtsd-r1/CoNorm/train/lmdb
I0404 01:06:55.958932 18408 data_layer.cpp:41] output data size: 1024,3,48,48
I0404 01:06:56.022222 18408 net.cpp:150] Setting up data
I0404 01:06:56.022260 18408 net.cpp:157] Top shape: 1024 3 48 48 (7077888)
I0404 01:06:56.022269 18408 net.cpp:157] Top shape: 1024 (1024)
I0404 01:06:56.022274 18408 net.cpp:165] Memory required for data: 28315648
I0404 01:06:56.022292 18408 layer_factory.hpp:77] Creating layer conv1
I0404 01:06:56.022332 18408 net.cpp:100] Creating Layer conv1
I0404 01:06:56.022342 18408 net.cpp:434] conv1 <- data
I0404 01:06:56.022363 18408 net.cpp:408] conv1 -> conv1
I0404 01:06:56.678689 18408 net.cpp:150] Setting up conv1
I0404 01:06:56.678730 18408 net.cpp:157] Top shape: 1024 100 42 42 (180633600)
I0404 01:06:56.678740 18408 net.cpp:165] Memory required for data: 750850048
I0404 01:06:56.678774 18408 layer_factory.hpp:77] Creating layer conv1_prescale
I0404 01:06:56.678802 18408 net.cpp:100] Creating Layer conv1_prescale
I0404 01:06:56.678814 18408 net.cpp:434] conv1_prescale <- conv1
I0404 01:06:56.678828 18408 net.cpp:395] conv1_prescale -> conv1 (in-place)
I0404 01:06:56.679000 18408 net.cpp:150] Setting up conv1_prescale
I0404 01:06:56.679023 18408 net.cpp:157] Top shape: 1024 100 42 42 (180633600)
I0404 01:06:56.679033 18408 net.cpp:165] Memory required for data: 1473384448
I0404 01:06:56.679046 18408 layer_factory.hpp:77] Creating layer conv1_sTanH
I0404 01:06:56.679064 18408 net.cpp:100] Creating Layer conv1_sTanH
I0404 01:06:56.679077 18408 net.cpp:434] conv1_sTanH <- conv1
I0404 01:06:56.679086 18408 net.cpp:395] conv1_sTanH -> conv1 (in-place)
I0404 01:06:56.679389 18408 net.cpp:150] Setting up conv1_sTanH
I0404 01:06:56.679414 18408 net.cpp:157] Top shape: 1024 100 42 42 (180633600)
I0404 01:06:56.679420 18408 net.cpp:165] Memory required for data: 2195918848
I0404 01:06:56.679427 18408 layer_factory.hpp:77] Creating layer conv1_postscale
I0404 01:06:56.679443 18408 net.cpp:100] Creating Layer conv1_postscale
I0404 01:06:56.679453 18408 net.cpp:434] conv1_postscale <- conv1
I0404 01:06:56.679466 18408 net.cpp:395] conv1_postscale -> conv1 (in-place)
I0404 01:06:56.679616 18408 net.cpp:150] Setting up conv1_postscale
I0404 01:06:56.679636 18408 net.cpp:157] Top shape: 1024 100 42 42 (180633600)
I0404 01:06:56.679644 18408 net.cpp:165] Memory required for data: 2918453248
I0404 01:06:56.679656 18408 layer_factory.hpp:77] Creating layer pool1
I0404 01:06:56.679669 18408 net.cpp:100] Creating Layer pool1
I0404 01:06:56.679678 18408 net.cpp:434] pool1 <- conv1
I0404 01:06:56.679689 18408 net.cpp:408] pool1 -> pool1
I0404 01:06:56.679769 18408 net.cpp:150] Setting up pool1
I0404 01:06:56.679788 18408 net.cpp:157] Top shape: 1024 100 21 21 (45158400)
I0404 01:06:56.679796 18408 net.cpp:165] Memory required for data: 3099086848
I0404 01:06:56.679805 18408 layer_factory.hpp:77] Creating layer conv2
I0404 01:06:56.679822 18408 net.cpp:100] Creating Layer conv2
I0404 01:06:56.679831 18408 net.cpp:434] conv2 <- pool1
I0404 01:06:56.679842 18408 net.cpp:408] conv2 -> conv2
I0404 01:06:56.686975 18408 net.cpp:150] Setting up conv2
I0404 01:06:56.687007 18408 net.cpp:157] Top shape: 1024 150 18 18 (49766400)
I0404 01:06:56.687016 18408 net.cpp:165] Memory required for data: 3298152448
I0404 01:06:56.687064 18408 layer_factory.hpp:77] Creating layer conv2_prescale
I0404 01:06:56.687088 18408 net.cpp:100] Creating Layer conv2_prescale
I0404 01:06:56.687098 18408 net.cpp:434] conv2_prescale <- conv2
I0404 01:06:56.687110 18408 net.cpp:395] conv2_prescale -> conv2 (in-place)
I0404 01:06:56.687296 18408 net.cpp:150] Setting up conv2_prescale
I0404 01:06:56.687322 18408 net.cpp:157] Top shape: 1024 150 18 18 (49766400)
I0404 01:06:56.687331 18408 net.cpp:165] Memory required for data: 3497218048
I0404 01:06:56.687343 18408 layer_factory.hpp:77] Creating layer conv2_sTanH
I0404 01:06:56.687358 18408 net.cpp:100] Creating Layer conv2_sTanH
I0404 01:06:56.687366 18408 net.cpp:434] conv2_sTanH <- conv2
I0404 01:06:56.687377 18408 net.cpp:395] conv2_sTanH -> conv2 (in-place)
I0404 01:06:56.688493 18408 net.cpp:150] Setting up conv2_sTanH
I0404 01:06:56.688520 18408 net.cpp:157] Top shape: 1024 150 18 18 (49766400)
I0404 01:06:56.688531 18408 net.cpp:165] Memory required for data: 3696283648
I0404 01:06:56.688539 18408 layer_factory.hpp:77] Creating layer conv2_postscale
I0404 01:06:56.688554 18408 net.cpp:100] Creating Layer conv2_postscale
I0404 01:06:56.688563 18408 net.cpp:434] conv2_postscale <- conv2
I0404 01:06:56.688578 18408 net.cpp:395] conv2_postscale -> conv2 (in-place)
I0404 01:06:56.688747 18408 net.cpp:150] Setting up conv2_postscale
I0404 01:06:56.688768 18408 net.cpp:157] Top shape: 1024 150 18 18 (49766400)
I0404 01:06:56.688776 18408 net.cpp:165] Memory required for data: 3895349248
I0404 01:06:56.688786 18408 layer_factory.hpp:77] Creating layer pool2
I0404 01:06:56.688799 18408 net.cpp:100] Creating Layer pool2
I0404 01:06:56.688809 18408 net.cpp:434] pool2 <- conv2
I0404 01:06:56.688824 18408 net.cpp:408] pool2 -> pool2
I0404 01:06:56.688897 18408 net.cpp:150] Setting up pool2
I0404 01:06:56.688915 18408 net.cpp:157] Top shape: 1024 150 9 9 (12441600)
I0404 01:06:56.688922 18408 net.cpp:165] Memory required for data: 3945115648
I0404 01:06:56.688930 18408 layer_factory.hpp:77] Creating layer conv3
I0404 01:06:56.688949 18408 net.cpp:100] Creating Layer conv3
I0404 01:06:56.688959 18408 net.cpp:434] conv3 <- pool2
I0404 01:06:56.688973 18408 net.cpp:408] conv3 -> conv3
I0404 01:06:56.697978 18408 net.cpp:150] Setting up conv3
I0404 01:06:56.698019 18408 net.cpp:157] Top shape: 1024 250 6 6 (9216000)
I0404 01:06:56.698029 18408 net.cpp:165] Memory required for data: 3981979648
I0404 01:06:56.698052 18408 layer_factory.hpp:77] Creating layer conv3_prescale
I0404 01:06:56.698078 18408 net.cpp:100] Creating Layer conv3_prescale
I0404 01:06:56.698091 18408 net.cpp:434] conv3_prescale <- conv3
I0404 01:06:56.698103 18408 net.cpp:395] conv3_prescale -> conv3 (in-place)
I0404 01:06:56.698283 18408 net.cpp:150] Setting up conv3_prescale
I0404 01:06:56.698305 18408 net.cpp:157] Top shape: 1024 250 6 6 (9216000)
I0404 01:06:56.698312 18408 net.cpp:165] Memory required for data: 4018843648
I0404 01:06:56.698320 18408 layer_factory.hpp:77] Creating layer conv3_sTanH
I0404 01:06:56.698331 18408 net.cpp:100] Creating Layer conv3_sTanH
I0404 01:06:56.698338 18408 net.cpp:434] conv3_sTanH <- conv3
I0404 01:06:56.698349 18408 net.cpp:395] conv3_sTanH -> conv3 (in-place)
I0404 01:06:56.699798 18408 net.cpp:150] Setting up conv3_sTanH
I0404 01:06:56.699822 18408 net.cpp:157] Top shape: 1024 250 6 6 (9216000)
I0404 01:06:56.699831 18408 net.cpp:165] Memory required for data: 4055707648
I0404 01:06:56.699841 18408 layer_factory.hpp:77] Creating layer conv3_postscale
I0404 01:06:56.699858 18408 net.cpp:100] Creating Layer conv3_postscale
I0404 01:06:56.699867 18408 net.cpp:434] conv3_postscale <- conv3
I0404 01:06:56.699877 18408 net.cpp:395] conv3_postscale -> conv3 (in-place)
I0404 01:06:56.700053 18408 net.cpp:150] Setting up conv3_postscale
I0404 01:06:56.700073 18408 net.cpp:157] Top shape: 1024 250 6 6 (9216000)
I0404 01:06:56.700083 18408 net.cpp:165] Memory required for data: 4092571648
I0404 01:06:56.700093 18408 layer_factory.hpp:77] Creating layer pool3
I0404 01:06:56.700110 18408 net.cpp:100] Creating Layer pool3
I0404 01:06:56.700140 18408 net.cpp:434] pool3 <- conv3
I0404 01:06:56.700155 18408 net.cpp:408] pool3 -> pool3
I0404 01:06:56.700237 18408 net.cpp:150] Setting up pool3
I0404 01:06:56.700270 18408 net.cpp:157] Top shape: 1024 250 3 3 (2304000)
I0404 01:06:56.700279 18408 net.cpp:165] Memory required for data: 4101787648
I0404 01:06:56.700285 18408 layer_factory.hpp:77] Creating layer fc4_300
I0404 01:06:56.700304 18408 net.cpp:100] Creating Layer fc4_300
I0404 01:06:56.700314 18408 net.cpp:434] fc4_300 <- pool3
I0404 01:06:56.700325 18408 net.cpp:408] fc4_300 -> fc4_300
I0404 01:06:56.710219 18408 net.cpp:150] Setting up fc4_300
I0404 01:06:56.710258 18408 net.cpp:157] Top shape: 1024 300 (307200)
I0404 01:06:56.710268 18408 net.cpp:165] Memory required for data: 4103016448
I0404 01:06:56.710284 18408 layer_factory.hpp:77] Creating layer fc4_relu
I0404 01:06:56.710299 18408 net.cpp:100] Creating Layer fc4_relu
I0404 01:06:56.710314 18408 net.cpp:434] fc4_relu <- fc4_300
I0404 01:06:56.710330 18408 net.cpp:395] fc4_relu -> fc4_300 (in-place)
I0404 01:06:56.710696 18408 net.cpp:150] Setting up fc4_relu
I0404 01:06:56.710718 18408 net.cpp:157] Top shape: 1024 300 (307200)
I0404 01:06:56.710729 18408 net.cpp:165] Memory required for data: 4104245248
I0404 01:06:56.710736 18408 layer_factory.hpp:77] Creating layer drop4
I0404 01:06:56.710750 18408 net.cpp:100] Creating Layer drop4
I0404 01:06:56.710762 18408 net.cpp:434] drop4 <- fc4_300
I0404 01:06:56.710774 18408 net.cpp:395] drop4 -> fc4_300 (in-place)
I0404 01:06:56.710829 18408 net.cpp:150] Setting up drop4
I0404 01:06:56.710878 18408 net.cpp:157] Top shape: 1024 300 (307200)
I0404 01:06:56.710907 18408 net.cpp:165] Memory required for data: 4105474048
I0404 01:06:56.710935 18408 layer_factory.hpp:77] Creating layer fc5_67
I0404 01:06:56.710968 18408 net.cpp:100] Creating Layer fc5_67
I0404 01:06:56.710990 18408 net.cpp:434] fc5_67 <- fc4_300
I0404 01:06:56.711020 18408 net.cpp:408] fc5_67 -> fc5_classes
I0404 01:06:56.713564 18408 net.cpp:150] Setting up fc5_67
I0404 01:06:56.713591 18408 net.cpp:157] Top shape: 1024 67 (68608)
I0404 01:06:56.713599 18408 net.cpp:165] Memory required for data: 4105748480
I0404 01:06:56.713613 18408 layer_factory.hpp:77] Creating layer loss
I0404 01:06:56.713629 18408 net.cpp:100] Creating Layer loss
I0404 01:06:56.713637 18408 net.cpp:434] loss <- fc5_classes
I0404 01:06:56.713647 18408 net.cpp:434] loss <- label
I0404 01:06:56.713661 18408 net.cpp:408] loss -> loss
I0404 01:06:56.713687 18408 layer_factory.hpp:77] Creating layer loss
…
I0404 01:06:56.714537 18408 net.cpp:283] Network initialization done.
I0404 01:06:56.714954 18408 solver.cpp:193] Creating test net (#0) specified by test_net file: ./Prototxt/experiment_5/rtsd-r1/CoNorm/test.prototxt
I0404 01:06:56.715237 18408 net.cpp:58] Initializing net from parameters: 
state {
  phase: TEST
}
layer {
  name: "data"
  type: "Data"
  top: "data"
  top: "label"
  include {
    phase: TEST
  }
  transform_param {
    mirror: false
    crop_size: 48
  }
  data_param {
    source: "../local_data/lmdb/rtsd-r1/CoNorm/test/lmdb"
    batch_size: 1024
    backend: LMDB
  }
}
layer {
  name: "conv1"
  type: "Convolution"
  bottom: "data"
  top: "conv1"
  convolution_param {
    num_output: 100
    pad: 0
    kernel_size: 7
    group: 1
    stride: 1
    weight_filler {
      type: "xavier"
    }
  }
}
layer {
  name: "conv1_prescale"
  type: "Scale"
  bottom: "conv1"
  top: "conv1"
  param {
    lr_mult: 0
    decay_mult: 0
  }
  scale_param {
    filler {
      value: 0.6666
    }
  }
}
layer {
  name: "conv1_sTanH"
  type: "TanH"
  bottom: "conv1"
  top: "conv1"
}
layer {
  name: "conv1_postscale"
  type: "Scale"
  bottom: "conv1"
  top: "conv1"
  param {
    lr_mult: 0
    decay_mult: 0
  }
  scale_param {
    filler {
      value: 1.7159
    }
  }
}
layer {
  name: "pool1"
  type: "Pooling"
  bottom: "conv1"
  top: "pool1"
  pooling_param {
    pool: MAX
    kernel_size: 2
    stride: 2
  }
}
layer {
  name: "conv2"
  type: "Convolution"
  bottom: "pool1"
  top: "conv2"
  convolution_param {
    num_output: 150
    pad: 0
    kernel_size: 4
    group: 1
    stride: 1
    weight_filler {
      type: "xavier"
    }
  }
}
layer {
  name: "conv2_prescale"
  type: "Scale"
  bottom: "conv2"
  top: "conv2"
  param {
    lr_mult: 0
    decay_mult: 0
  }
  scale_param {
    filler {
      value: 0.6666
    }
  }
}
layer {
  name: "conv2_sTanH"
  type: "TanH"
  bottom: "conv2"
  top: "conv2"
}
layer {
  name: "conv2_postscale"
  type: "Scale"
  bottom: "conv2"
  top: "conv2"
  param {
    lr_mult: 0
    decay_mult: 0
  }
  scale_param {
    filler {
      value: 1.7159
    }
  }
}
layer {
  name: "pool2"
  type: "Pooling"
  bottom: "conv2"
  top: "pool2"
  pooling_param {
    pool: MAX
    kernel_size: 2
    stride: 2
  }
}
layer {
  name: "conv3"
  type: "Convolution"
  bottom: "pool2"
  top: "conv3"
  convolution_param {
    num_output: 250
    pad: 0
    kernel_size: 4
    group: 1
    stride: 1
    weight_filler {
      type: "xavier"
    }
  }
}
layer {
  name: "conv3_prescale"
  type: "Scale"
  bottom: "conv3"
  top: "conv3"
  param {
    lr_mult: 0
    decay_mult: 0
  }
  scale_param {
    filler {
      value: 0.6666
    }
  }
}
layer {
  name: "conv3_sTanH"
  type: "TanH"
  bottom: "conv3"
  top: "conv3"
}
layer {
  name: "conv3_postscale"
  type: "Scale"
  bottom: "conv3"
  top: "conv3"
  param {
    lr_mult: 0
    decay_mult: 0
  }
  scale_param {
    filler {
      value: 1.7159
    }
  }
}
layer {
  name: "pool3"
  type: "Pooling"
  bottom: "conv3"
  top: "pool3"
  pooling_param {
    pool: MAX
    kernel_size: 2
    stride: 2
  }
}
layer {
  name: "fc4_300"
  type: "InnerProduct"
  bottom: "pool3"
  top: "fc4_300"
  inner_product_param {
    num_output: 300
    weight_filler {
      type: "xavier"
    }
  }
}
layer {
  name: "fc4_relu"
  type: "ReLU"
  bottom: "fc4_300"
  top: "fc4_300"
}
layer {
  name: "drop4"
  type: "Dropout"
  bottom: "fc4_300"
  top: "fc4_300"
  dropout_param {
    dropout_ratio: 0.4
  }
}
layer {
  name: "fc5_67"
  type: "InnerProduct"
  bottom: "fc4_300"
  top: "fc5_classes"
  inner_product_param {
    num_output: 67
    weight_filler {
      type: "xavier"
    }
  }
}
layer {
  name: "loss"
  type: "SoftmaxWithLoss"
  bottom: "fc5_classes"
  bottom: "label"
  top: "loss"
}
layer {
  name: "accuracy_1"
  type: "Accuracy"
  bottom: "fc5_classes"
  bottom: "label"
  top: "accuracy_1"
  include {
    phase: TEST
  }
  accuracy_param {
    top_k: 1
  }
}
layer {
  name: "accuracy_5"
  type: "Accuracy"
  bottom: "fc5_classes"
  bottom: "label"
  top: "accuracy_5"
  include {
    phase: TEST
  }
  accuracy_param {
    top_k: 5
  }
}
I0404 01:06:56.715431 18408 layer_factory.hpp:77] Creating layer data
I0404 01:06:56.716399 18408 net.cpp:100] Creating Layer data
I0404 01:06:56.716423 18408 net.cpp:408] data -> data
I0404 01:06:56.716444 18408 net.cpp:408] data -> label
I0404 01:06:56.717489 18697 db_lmdb.cpp:35] Opened lmdb ../local_data/lmdb/rtsd-r1/CoNorm/test/lmdb
I0404 01:06:56.717711 18408 data_layer.cpp:41] output data size: 1024,3,48,48
I0404 01:06:56.785176 18408 net.cpp:150] Setting up data
I0404 01:06:56.785255 18408 net.cpp:157] Top shape: 1024 3 48 48 (7077888)
I0404 01:06:56.785298 18408 net.cpp:157] Top shape: 1024 (1024)
I0404 01:06:56.785327 18408 net.cpp:165] Memory required for data: 28315648
I0404 01:06:56.785358 18408 layer_factory.hpp:77] Creating layer label_data_1_split
I0404 01:06:56.785408 18408 net.cpp:100] Creating Layer label_data_1_split
I0404 01:06:56.785441 18408 net.cpp:434] label_data_1_split <- label
I0404 01:06:56.785476 18408 net.cpp:408] label_data_1_split -> label_data_1_split_0
I0404 01:06:56.785521 18408 net.cpp:408] label_data_1_split -> label_data_1_split_1
I0404 01:06:56.785568 18408 net.cpp:408] label_data_1_split -> label_data_1_split_2
I0404 01:06:56.785713 18408 net.cpp:150] Setting up label_data_1_split
I0404 01:06:56.785755 18408 net.cpp:157] Top shape: 1024 (1024)
I0404 01:06:56.785787 18408 net.cpp:157] Top shape: 1024 (1024)
I0404 01:06:56.785820 18408 net.cpp:157] Top shape: 1024 (1024)
I0404 01:06:56.785845 18408 net.cpp:165] Memory required for data: 28327936
I0404 01:06:56.785871 18408 layer_factory.hpp:77] Creating layer conv1
I0404 01:06:56.785917 18408 net.cpp:100] Creating Layer conv1
I0404 01:06:56.785959 18408 net.cpp:434] conv1 <- data
I0404 01:06:56.785998 18408 net.cpp:408] conv1 -> conv1
I0404 01:06:56.797282 18408 net.cpp:150] Setting up conv1
I0404 01:06:56.797369 18408 net.cpp:157] Top shape: 1024 100 42 42 (180633600)
I0404 01:06:56.797404 18408 net.cpp:165] Memory required for data: 750862336
I0404 01:06:56.797452 18408 layer_factory.hpp:77] Creating layer conv1_prescale
I0404 01:06:56.797505 18408 net.cpp:100] Creating Layer conv1_prescale
I0404 01:06:56.797541 18408 net.cpp:434] conv1_prescale <- conv1
I0404 01:06:56.797580 18408 net.cpp:395] conv1_prescale -> conv1 (in-place)
I0404 01:06:56.797799 18408 net.cpp:150] Setting up conv1_prescale
I0404 01:06:56.797874 18408 net.cpp:157] Top shape: 1024 100 42 42 (180633600)
I0404 01:06:56.797907 18408 net.cpp:165] Memory required for data: 1473396736
I0404 01:06:56.798126 18408 layer_factory.hpp:77] Creating layer conv1_sTanH
I0404 01:06:56.798172 18408 net.cpp:100] Creating Layer conv1_sTanH
I0404 01:06:56.798205 18408 net.cpp:434] conv1_sTanH <- conv1
I0404 01:06:56.798241 18408 net.cpp:395] conv1_sTanH -> conv1 (in-place)
I0404 01:06:56.798589 18408 net.cpp:150] Setting up conv1_sTanH
I0404 01:06:56.798640 18408 net.cpp:157] Top shape: 1024 100 42 42 (180633600)
I0404 01:06:56.798672 18408 net.cpp:165] Memory required for data: 2195931136
I0404 01:06:56.798702 18408 layer_factory.hpp:77] Creating layer conv1_postscale
I0404 01:06:56.798738 18408 net.cpp:100] Creating Layer conv1_postscale
I0404 01:06:56.798768 18408 net.cpp:434] conv1_postscale <- conv1
I0404 01:06:56.798809 18408 net.cpp:395] conv1_postscale -> conv1 (in-place)
I0404 01:06:56.799027 18408 net.cpp:150] Setting up conv1_postscale
I0404 01:06:56.799074 18408 net.cpp:157] Top shape: 1024 100 42 42 (180633600)
I0404 01:06:56.799106 18408 net.cpp:165] Memory required for data: 2918465536
I0404 01:06:56.799150 18408 layer_factory.hpp:77] Creating layer pool1
I0404 01:06:56.799206 18408 net.cpp:100] Creating Layer pool1
I0404 01:06:56.799235 18408 net.cpp:434] pool1 <- conv1
I0404 01:06:56.799273 18408 net.cpp:408] pool1 -> pool1
I0404 01:06:56.799381 18408 net.cpp:150] Setting up pool1
I0404 01:06:56.799427 18408 net.cpp:157] Top shape: 1024 100 21 21 (45158400)
I0404 01:06:56.799458 18408 net.cpp:165] Memory required for data: 3099099136
I0404 01:06:56.799487 18408 layer_factory.hpp:77] Creating layer conv2
I0404 01:06:56.799531 18408 net.cpp:100] Creating Layer conv2
I0404 01:06:56.799566 18408 net.cpp:434] conv2 <- pool1
I0404 01:06:56.799602 18408 net.cpp:408] conv2 -> conv2
I0404 01:06:56.810581 18408 net.cpp:150] Setting up conv2
I0404 01:06:56.810650 18408 net.cpp:157] Top shape: 1024 150 18 18 (49766400)
I0404 01:06:56.810667 18408 net.cpp:165] Memory required for data: 3298164736
I0404 01:06:56.810691 18408 layer_factory.hpp:77] Creating layer conv2_prescale
I0404 01:06:56.810714 18408 net.cpp:100] Creating Layer conv2_prescale
I0404 01:06:56.810725 18408 net.cpp:434] conv2_prescale <- conv2
I0404 01:06:56.810745 18408 net.cpp:395] conv2_prescale -> conv2 (in-place)
I0404 01:06:56.810957 18408 net.cpp:150] Setting up conv2_prescale
I0404 01:06:56.810983 18408 net.cpp:157] Top shape: 1024 150 18 18 (49766400)
I0404 01:06:56.810992 18408 net.cpp:165] Memory required for data: 3497230336
I0404 01:06:56.811004 18408 layer_factory.hpp:77] Creating layer conv2_sTanH
I0404 01:06:56.811023 18408 net.cpp:100] Creating Layer conv2_sTanH
I0404 01:06:56.811033 18408 net.cpp:434] conv2_sTanH <- conv2
I0404 01:06:56.811048 18408 net.cpp:395] conv2_sTanH -> conv2 (in-place)
I0404 01:06:56.816308 18408 net.cpp:150] Setting up conv2_sTanH
I0404 01:06:56.816344 18408 net.cpp:157] Top shape: 1024 150 18 18 (49766400)
I0404 01:06:56.816352 18408 net.cpp:165] Memory required for data: 3696295936
I0404 01:06:56.816365 18408 layer_factory.hpp:77] Creating layer conv2_postscale
I0404 01:06:56.816390 18408 net.cpp:100] Creating Layer conv2_postscale
I0404 01:06:56.816401 18408 net.cpp:434] conv2_postscale <- conv2
I0404 01:06:56.816412 18408 net.cpp:395] conv2_postscale -> conv2 (in-place)
I0404 01:06:56.816630 18408 net.cpp:150] Setting up conv2_postscale
I0404 01:06:56.816653 18408 net.cpp:157] Top shape: 1024 150 18 18 (49766400)
I0404 01:06:56.816660 18408 net.cpp:165] Memory required for data: 3895361536
I0404 01:06:56.816671 18408 layer_factory.hpp:77] Creating layer pool2
I0404 01:06:56.816684 18408 net.cpp:100] Creating Layer pool2
I0404 01:06:56.816709 18408 net.cpp:434] pool2 <- conv2
I0404 01:06:56.816723 18408 net.cpp:408] pool2 -> pool2
I0404 01:06:56.816808 18408 net.cpp:150] Setting up pool2
I0404 01:06:56.816828 18408 net.cpp:157] Top shape: 1024 150 9 9 (12441600)
I0404 01:06:56.816835 18408 net.cpp:165] Memory required for data: 3945127936
I0404 01:06:56.816841 18408 layer_factory.hpp:77] Creating layer conv3
I0404 01:06:56.816884 18408 net.cpp:100] Creating Layer conv3
I0404 01:06:56.816901 18408 net.cpp:434] conv3 <- pool2
I0404 01:06:56.816913 18408 net.cpp:408] conv3 -> conv3
I0404 01:06:56.841495 18408 net.cpp:150] Setting up conv3
I0404 01:06:56.841542 18408 net.cpp:157] Top shape: 1024 250 6 6 (9216000)
I0404 01:06:56.841593 18408 net.cpp:165] Memory required for data: 3981991936
I0404 01:06:56.841616 18408 layer_factory.hpp:77] Creating layer conv3_prescale
I0404 01:06:56.841732 18408 net.cpp:100] Creating Layer conv3_prescale
I0404 01:06:56.841748 18408 net.cpp:434] conv3_prescale <- conv3
I0404 01:06:56.841761 18408 net.cpp:395] conv3_prescale -> conv3 (in-place)
I0404 01:06:56.841964 18408 net.cpp:150] Setting up conv3_prescale
I0404 01:06:56.841987 18408 net.cpp:157] Top shape: 1024 250 6 6 (9216000)
I0404 01:06:56.841995 18408 net.cpp:165] Memory required for data: 4018855936
I0404 01:06:56.842088 18408 layer_factory.hpp:77] Creating layer conv3_sTanH
I0404 01:06:56.842136 18408 net.cpp:100] Creating Layer conv3_sTanH
I0404 01:06:56.842150 18408 net.cpp:434] conv3_sTanH <- conv3
I0404 01:06:56.842191 18408 net.cpp:395] conv3_sTanH -> conv3 (in-place)
I0404 01:06:56.843976 18408 net.cpp:150] Setting up conv3_sTanH
I0404 01:06:56.844002 18408 net.cpp:157] Top shape: 1024 250 6 6 (9216000)
I0404 01:06:56.844008 18408 net.cpp:165] Memory required for data: 4055719936
I0404 01:06:56.844027 18408 layer_factory.hpp:77] Creating layer conv3_postscale
I0404 01:06:56.844041 18408 net.cpp:100] Creating Layer conv3_postscale
I0404 01:06:56.844048 18408 net.cpp:434] conv3_postscale <- conv3
I0404 01:06:56.844061 18408 net.cpp:395] conv3_postscale -> conv3 (in-place)
I0404 01:06:56.844274 18408 net.cpp:150] Setting up conv3_postscale
I0404 01:06:56.844295 18408 net.cpp:157] Top shape: 1024 250 6 6 (9216000)
I0404 01:06:56.844301 18408 net.cpp:165] Memory required for data: 4092583936
I0404 01:06:56.844310 18408 layer_factory.hpp:77] Creating layer pool3
I0404 01:06:56.844327 18408 net.cpp:100] Creating Layer pool3
I0404 01:06:56.844333 18408 net.cpp:434] pool3 <- conv3
I0404 01:06:56.844344 18408 net.cpp:408] pool3 -> pool3
I0404 01:06:56.844413 18408 net.cpp:150] Setting up pool3
I0404 01:06:56.844424 18408 net.cpp:157] Top shape: 1024 250 3 3 (2304000)
I0404 01:06:56.844429 18408 net.cpp:165] Memory required for data: 4101799936
I0404 01:06:56.844434 18408 layer_factory.hpp:77] Creating layer fc4_300
I0404 01:06:56.850029 18408 net.cpp:100] Creating Layer fc4_300
I0404 01:06:56.850051 18408 net.cpp:434] fc4_300 <- pool3
I0404 01:06:56.850067 18408 net.cpp:408] fc4_300 -> fc4_300
I0404 01:06:56.863934 18408 net.cpp:150] Setting up fc4_300
I0404 01:06:56.863976 18408 net.cpp:157] Top shape: 1024 300 (307200)
I0404 01:06:56.863984 18408 net.cpp:165] Memory required for data: 4103028736
I0404 01:06:56.863999 18408 layer_factory.hpp:77] Creating layer fc4_relu
I0404 01:06:56.864020 18408 net.cpp:100] Creating Layer fc4_relu
I0404 01:06:56.864032 18408 net.cpp:434] fc4_relu <- fc4_300
I0404 01:06:56.864048 18408 net.cpp:395] fc4_relu -> fc4_300 (in-place)
I0404 01:06:56.864446 18408 net.cpp:150] Setting up fc4_relu
I0404 01:06:56.864470 18408 net.cpp:157] Top shape: 1024 300 (307200)
I0404 01:06:56.864513 18408 net.cpp:165] Memory required for data: 4104257536
I0404 01:06:56.864529 18408 layer_factory.hpp:77] Creating layer drop4
I0404 01:06:56.864544 18408 net.cpp:100] Creating Layer drop4
I0404 01:06:56.864562 18408 net.cpp:434] drop4 <- fc4_300
I0404 01:06:56.864578 18408 net.cpp:395] drop4 -> fc4_300 (in-place)
I0404 01:06:56.864637 18408 net.cpp:150] Setting up drop4
I0404 01:06:56.864658 18408 net.cpp:157] Top shape: 1024 300 (307200)
I0404 01:06:56.864667 18408 net.cpp:165] Memory required for data: 4105486336
I0404 01:06:56.864673 18408 layer_factory.hpp:77] Creating layer fc5_67
I0404 01:06:56.864687 18408 net.cpp:100] Creating Layer fc5_67
I0404 01:06:56.864699 18408 net.cpp:434] fc5_67 <- fc4_300
I0404 01:06:56.864713 18408 net.cpp:408] fc5_67 -> fc5_classes
I0404 01:06:56.865203 18408 net.cpp:150] Setting up fc5_67
I0404 01:06:56.865250 18408 net.cpp:157] Top shape: 1024 67 (68608)
I0404 01:06:56.865278 18408 net.cpp:165] Memory required for data: 4105760768
I0404 01:06:56.865296 18408 layer_factory.hpp:77] Creating layer fc5_classes_fc5_67_0_split
I0404 01:06:56.865316 18408 net.cpp:100] Creating Layer fc5_classes_fc5_67_0_split
I0404 01:06:56.865326 18408 net.cpp:434] fc5_classes_fc5_67_0_split <- fc5_classes
I0404 01:06:56.865340 18408 net.cpp:408] fc5_classes_fc5_67_0_split -> fc5_classes_fc5_67_0_split_0
I0404 01:06:56.865361 18408 net.cpp:408] fc5_classes_fc5_67_0_split -> fc5_classes_fc5_67_0_split_1
I0404 01:06:56.865376 18408 net.cpp:408] fc5_classes_fc5_67_0_split -> fc5_classes_fc5_67_0_split_2
I0404 01:06:56.865499 18408 net.cpp:150] Setting up fc5_classes_fc5_67_0_split
I0404 01:06:56.865520 18408 net.cpp:157] Top shape: 1024 67 (68608)
I0404 01:06:56.865528 18408 net.cpp:157] Top shape: 1024 67 (68608)
I0404 01:06:56.865537 18408 net.cpp:157] Top shape: 1024 67 (68608)
I0404 01:06:56.865543 18408 net.cpp:165] Memory required for data: 4106584064
I0404 01:06:56.865550 18408 layer_factory.hpp:77] Creating layer loss
I0404 01:06:56.865566 18408 net.cpp:100] Creating Layer loss
I0404 01:06:56.865594 18408 net.cpp:434] loss <- fc5_classes_fc5_67_0_split_0
I0404 01:06:56.865607 18408 net.cpp:434] loss <- label_data_1_split_0
I0404 01:06:56.865617 18408 net.cpp:408] loss -> loss
…
