…
I0404 14:17:08.878221 18919 net.cpp:322] The NetState phase (0) differed from the phase (1) specified by a rule in layer accuracy_5
I0404 14:17:08.878420 18919 net.cpp:58] Initializing net from parameters: 
state {
  phase: TRAIN
  level: 0
  stage: ""
}
layer {
  name: "data"
  type: "Data"
  top: "data"
  top: "label"
  include {
    phase: TRAIN
  }
  transform_param {
    mirror: false
    crop_size: 48
    mean_value: 124
    mean_value: 123
    mean_value: 123
  }
  data_param {
    source: "../local_data/lmdb/rtsd-r1/CoNorm/train/lmdb"
    batch_size: 1500
    backend: LMDB
  }
}
layer {
  name: "conv1"
  type: "Convolution"
  bottom: "data"
  top: "conv1"
  convolution_param {
    num_output: 100
    pad: 0
    kernel_size: 7
    group: 1
    stride: 1
    weight_filler {
      type: "xavier"
    }
  }
}
layer {
  name: "conv1_prescale"
  type: "Scale"
  bottom: "conv1"
  top: "conv1"
  param {
    lr_mult: 0
    decay_mult: 0
  }
  scale_param {
    filler {
      value: 0.6666
    }
  }
}
layer {
  name: "conv1_sTanH"
  type: "TanH"
  bottom: "conv1"
  top: "conv1"
}
layer {
  name: "conv1_postscale"
  type: "Scale"
  bottom: "conv1"
  top: "conv1"
  param {
    lr_mult: 0
    decay_mult: 0
  }
  scale_param {
    filler {
      value: 1.7159
    }
  }
}
layer {
  name: "pool1"
  type: "Pooling"
  bottom: "conv1"
  top: "pool1"
  pooling_param {
    pool: MAX
    kernel_size: 2
    stride: 2
  }
}
layer {
  name: "conv2"
  type: "Convolution"
  bottom: "pool1"
  top: "conv2"
  convolution_param {
    num_output: 150
    pad: 0
    kernel_size: 4
    group: 1
    stride: 1
    weight_filler {
      type: "xavier"
    }
  }
}
layer {
  name: "conv2_prescale"
  type: "Scale"
  bottom: "conv2"
  top: "conv2"
  param {
    lr_mult: 0
    decay_mult: 0
  }
  scale_param {
    filler {
      value: 0.6666
    }
  }
}
layer {
  name: "conv2_sTanH"
  type: "TanH"
  bottom: "conv2"
  top: "conv2"
}
layer {
  name: "conv2_postscale"
  type: "Scale"
  bottom: "conv2"
  top: "conv2"
  param {
    lr_mult: 0
    decay_mult: 0
  }
  scale_param {
    filler {
      value: 1.7159
    }
  }
}
layer {
  name: "pool2"
  type: "Pooling"
  bottom: "conv2"
  top: "pool2"
  pooling_param {
    pool: MAX
    kernel_size: 2
    stride: 2
  }
}
layer {
  name: "conv3"
  type: "Convolution"
  bottom: "pool2"
  top: "conv3"
  convolution_param {
    num_output: 250
    pad: 0
    kernel_size: 4
    group: 1
    stride: 1
    weight_filler {
      type: "xavier"
    }
  }
}
layer {
  name: "conv3_prescale"
  type: "Scale"
  bottom: "conv3"
  top: "conv3"
  param {
    lr_mult: 0
    decay_mult: 0
  }
  scale_param {
    filler {
      value: 0.6666
    }
  }
}
layer {
  name: "conv3_sTanH"
  type: "TanH"
  bottom: "conv3"
  top: "conv3"
}
layer {
  name: "conv3_postscale"
  type: "Scale"
  bottom: "conv3"
  top: "conv3"
  param {
    lr_mult: 0
    decay_mult: 0
  }
  scale_param {
    filler {
      value: 1.7159
    }
  }
}
layer {
  name: "pool3"
  type: "Pooling"
  bottom: "conv3"
  top: "pool3"
  pooling_param {
    pool: MAX
    kernel_size: 2
    stride: 2
  }
}
layer {
  name: "fc4_300"
  type: "InnerProduct"
  bottom: "pool3"
  top: "fc4_300"
  inner_product_param {
    num_output: 300
    weight_filler {
      type: "xavier"
    }
  }
}
layer {
  name: "fc4_relu"
  type: "ReLU"
  bottom: "fc4_300"
  top: "fc4_300"
}
layer {
  name: "drop4"
  type: "Dropout"
  bottom: "fc4_300"
  top: "fc4_300"
  dropout_param {
    dropout_ratio: 0.4
  }
}
layer {
  name: "fc5_67"
  type: "InnerProduct"
  bottom: "fc4_300"
  top: "fc5_classes"
  inner_product_param {
    num_output: 67
    weight_filler {
      type: "xavier"
    }
  }
}
layer {
  name: "loss"
  type: "SoftmaxWithLoss"
  bottom: "fc5_classes"
  bottom: "label"
  top: "loss"
}
I0404 14:17:08.878528 18919 layer_factory.hpp:77] Creating layer data
I0404 14:17:08.879870 18919 net.cpp:100] Creating Layer data
I0404 14:17:08.879894 18919 net.cpp:408] data -> data
I0404 14:17:08.879917 18919 net.cpp:408] data -> label
I0404 14:17:08.881343 18979 db_lmdb.cpp:35] Opened lmdb ../local_data/lmdb/rtsd-r1/CoNorm/train/lmdb
I0404 14:17:08.897908 18919 data_layer.cpp:41] output data size: 1500,3,48,48
I0404 14:17:08.965682 18919 net.cpp:150] Setting up data
I0404 14:17:08.965716 18919 net.cpp:157] Top shape: 1500 3 48 48 (10368000)
I0404 14:17:08.965723 18919 net.cpp:157] Top shape: 1500 (1500)
I0404 14:17:08.965726 18919 net.cpp:165] Memory required for data: 41478000
I0404 14:17:08.965735 18919 layer_factory.hpp:77] Creating layer conv1
I0404 14:17:08.965759 18919 net.cpp:100] Creating Layer conv1
I0404 14:17:08.965766 18919 net.cpp:434] conv1 <- data
I0404 14:17:08.965782 18919 net.cpp:408] conv1 -> conv1
I0404 14:17:09.236534 18919 net.cpp:150] Setting up conv1
I0404 14:17:09.236563 18919 net.cpp:157] Top shape: 1500 100 42 42 (264600000)
I0404 14:17:09.236567 18919 net.cpp:165] Memory required for data: 1099878000
I0404 14:17:09.236599 18919 layer_factory.hpp:77] Creating layer conv1_prescale
I0404 14:17:09.236625 18919 net.cpp:100] Creating Layer conv1_prescale
I0404 14:17:09.236629 18919 net.cpp:434] conv1_prescale <- conv1
I0404 14:17:09.236636 18919 net.cpp:395] conv1_prescale -> conv1 (in-place)
I0404 14:17:09.236743 18919 net.cpp:150] Setting up conv1_prescale
I0404 14:17:09.236752 18919 net.cpp:157] Top shape: 1500 100 42 42 (264600000)
I0404 14:17:09.236754 18919 net.cpp:165] Memory required for data: 2158278000
I0404 14:17:09.236760 18919 layer_factory.hpp:77] Creating layer conv1_sTanH
I0404 14:17:09.236768 18919 net.cpp:100] Creating Layer conv1_sTanH
I0404 14:17:09.236771 18919 net.cpp:434] conv1_sTanH <- conv1
I0404 14:17:09.236775 18919 net.cpp:395] conv1_sTanH -> conv1 (in-place)
I0404 14:17:09.236959 18919 net.cpp:150] Setting up conv1_sTanH
I0404 14:17:09.236970 18919 net.cpp:157] Top shape: 1500 100 42 42 (264600000)
I0404 14:17:09.236974 18919 net.cpp:165] Memory required for data: 3216678000
I0404 14:17:09.236977 18919 layer_factory.hpp:77] Creating layer conv1_postscale
I0404 14:17:09.236984 18919 net.cpp:100] Creating Layer conv1_postscale
I0404 14:17:09.236987 18919 net.cpp:434] conv1_postscale <- conv1
I0404 14:17:09.236992 18919 net.cpp:395] conv1_postscale -> conv1 (in-place)
I0404 14:17:09.237094 18919 net.cpp:150] Setting up conv1_postscale
I0404 14:17:09.237102 18919 net.cpp:157] Top shape: 1500 100 42 42 (264600000)
I0404 14:17:09.237104 18919 net.cpp:165] Memory required for data: 4275078000
I0404 14:17:09.237109 18919 layer_factory.hpp:77] Creating layer pool1
I0404 14:17:09.237115 18919 net.cpp:100] Creating Layer pool1
I0404 14:17:09.237120 18919 net.cpp:434] pool1 <- conv1
I0404 14:17:09.237124 18919 net.cpp:408] pool1 -> pool1
I0404 14:17:09.237169 18919 net.cpp:150] Setting up pool1
I0404 14:17:09.237176 18919 net.cpp:157] Top shape: 1500 100 21 21 (66150000)
I0404 14:17:09.237179 18919 net.cpp:165] Memory required for data: 4539678000
I0404 14:17:09.237182 18919 layer_factory.hpp:77] Creating layer conv2
I0404 14:17:09.237202 18919 net.cpp:100] Creating Layer conv2
I0404 14:17:09.237207 18919 net.cpp:434] conv2 <- pool1
I0404 14:17:09.237212 18919 net.cpp:408] conv2 -> conv2
I0404 14:17:09.241878 18919 net.cpp:150] Setting up conv2
I0404 14:17:09.241895 18919 net.cpp:157] Top shape: 1500 150 18 18 (72900000)
I0404 14:17:09.241932 18919 net.cpp:165] Memory required for data: 4831278000
I0404 14:17:09.241943 18919 layer_factory.hpp:77] Creating layer conv2_prescale
I0404 14:17:09.241951 18919 net.cpp:100] Creating Layer conv2_prescale
I0404 14:17:09.241956 18919 net.cpp:434] conv2_prescale <- conv2
I0404 14:17:09.241961 18919 net.cpp:395] conv2_prescale -> conv2 (in-place)
I0404 14:17:09.242058 18919 net.cpp:150] Setting up conv2_prescale
I0404 14:17:09.242066 18919 net.cpp:157] Top shape: 1500 150 18 18 (72900000)
I0404 14:17:09.242069 18919 net.cpp:165] Memory required for data: 5122878000
I0404 14:17:09.242074 18919 layer_factory.hpp:77] Creating layer conv2_sTanH
I0404 14:17:09.242080 18919 net.cpp:100] Creating Layer conv2_sTanH
I0404 14:17:09.242084 18919 net.cpp:434] conv2_sTanH <- conv2
I0404 14:17:09.242087 18919 net.cpp:395] conv2_sTanH -> conv2 (in-place)
I0404 14:17:09.242871 18919 net.cpp:150] Setting up conv2_sTanH
I0404 14:17:09.242884 18919 net.cpp:157] Top shape: 1500 150 18 18 (72900000)
I0404 14:17:09.242887 18919 net.cpp:165] Memory required for data: 5414478000
I0404 14:17:09.242892 18919 layer_factory.hpp:77] Creating layer conv2_postscale
I0404 14:17:09.242897 18919 net.cpp:100] Creating Layer conv2_postscale
I0404 14:17:09.242900 18919 net.cpp:434] conv2_postscale <- conv2
I0404 14:17:09.242905 18919 net.cpp:395] conv2_postscale -> conv2 (in-place)
I0404 14:17:09.243010 18919 net.cpp:150] Setting up conv2_postscale
I0404 14:17:09.243016 18919 net.cpp:157] Top shape: 1500 150 18 18 (72900000)
I0404 14:17:09.243019 18919 net.cpp:165] Memory required for data: 5706078000
I0404 14:17:09.243024 18919 layer_factory.hpp:77] Creating layer pool2
I0404 14:17:09.243042 18919 net.cpp:100] Creating Layer pool2
I0404 14:17:09.243046 18919 net.cpp:434] pool2 <- conv2
I0404 14:17:09.243050 18919 net.cpp:408] pool2 -> pool2
I0404 14:17:09.243088 18919 net.cpp:150] Setting up pool2
I0404 14:17:09.243094 18919 net.cpp:157] Top shape: 1500 150 9 9 (18225000)
I0404 14:17:09.243098 18919 net.cpp:165] Memory required for data: 5778978000
I0404 14:17:09.243100 18919 layer_factory.hpp:77] Creating layer conv3
I0404 14:17:09.243108 18919 net.cpp:100] Creating Layer conv3
I0404 14:17:09.243113 18919 net.cpp:434] conv3 <- pool2
I0404 14:17:09.243118 18919 net.cpp:408] conv3 -> conv3
I0404 14:17:09.248452 18919 net.cpp:150] Setting up conv3
I0404 14:17:09.248469 18919 net.cpp:157] Top shape: 1500 250 6 6 (13500000)
I0404 14:17:09.248473 18919 net.cpp:165] Memory required for data: 5832978000
I0404 14:17:09.248483 18919 layer_factory.hpp:77] Creating layer conv3_prescale
I0404 14:17:09.248491 18919 net.cpp:100] Creating Layer conv3_prescale
I0404 14:17:09.248493 18919 net.cpp:434] conv3_prescale <- conv3
I0404 14:17:09.248499 18919 net.cpp:395] conv3_prescale -> conv3 (in-place)
I0404 14:17:09.248589 18919 net.cpp:150] Setting up conv3_prescale
I0404 14:17:09.248596 18919 net.cpp:157] Top shape: 1500 250 6 6 (13500000)
I0404 14:17:09.248600 18919 net.cpp:165] Memory required for data: 5886978000
I0404 14:17:09.248605 18919 layer_factory.hpp:77] Creating layer conv3_sTanH
I0404 14:17:09.248610 18919 net.cpp:100] Creating Layer conv3_sTanH
I0404 14:17:09.248612 18919 net.cpp:434] conv3_sTanH <- conv3
I0404 14:17:09.248616 18919 net.cpp:395] conv3_sTanH -> conv3 (in-place)
I0404 14:17:09.249425 18919 net.cpp:150] Setting up conv3_sTanH
I0404 14:17:09.249451 18919 net.cpp:157] Top shape: 1500 250 6 6 (13500000)
I0404 14:17:09.249466 18919 net.cpp:165] Memory required for data: 5940978000
I0404 14:17:09.249470 18919 layer_factory.hpp:77] Creating layer conv3_postscale
I0404 14:17:09.249476 18919 net.cpp:100] Creating Layer conv3_postscale
I0404 14:17:09.249480 18919 net.cpp:434] conv3_postscale <- conv3
I0404 14:17:09.249485 18919 net.cpp:395] conv3_postscale -> conv3 (in-place)
I0404 14:17:09.249586 18919 net.cpp:150] Setting up conv3_postscale
I0404 14:17:09.249595 18919 net.cpp:157] Top shape: 1500 250 6 6 (13500000)
I0404 14:17:09.249598 18919 net.cpp:165] Memory required for data: 5994978000
I0404 14:17:09.249603 18919 layer_factory.hpp:77] Creating layer pool3
I0404 14:17:09.249627 18919 net.cpp:100] Creating Layer pool3
I0404 14:17:09.249634 18919 net.cpp:434] pool3 <- conv3
I0404 14:17:09.249639 18919 net.cpp:408] pool3 -> pool3
I0404 14:17:09.249680 18919 net.cpp:150] Setting up pool3
I0404 14:17:09.249688 18919 net.cpp:157] Top shape: 1500 250 3 3 (3375000)
I0404 14:17:09.249691 18919 net.cpp:165] Memory required for data: 6008478000
I0404 14:17:09.249694 18919 layer_factory.hpp:77] Creating layer fc4_300
I0404 14:17:09.249704 18919 net.cpp:100] Creating Layer fc4_300
I0404 14:17:09.249708 18919 net.cpp:434] fc4_300 <- pool3
I0404 14:17:09.249713 18919 net.cpp:408] fc4_300 -> fc4_300
I0404 14:17:09.255023 18919 net.cpp:150] Setting up fc4_300
I0404 14:17:09.255040 18919 net.cpp:157] Top shape: 1500 300 (450000)
I0404 14:17:09.255043 18919 net.cpp:165] Memory required for data: 6010278000
I0404 14:17:09.255050 18919 layer_factory.hpp:77] Creating layer fc4_relu
I0404 14:17:09.255056 18919 net.cpp:100] Creating Layer fc4_relu
I0404 14:17:09.255059 18919 net.cpp:434] fc4_relu <- fc4_300
I0404 14:17:09.255064 18919 net.cpp:395] fc4_relu -> fc4_300 (in-place)
I0404 14:17:09.255255 18919 net.cpp:150] Setting up fc4_relu
I0404 14:17:09.255266 18919 net.cpp:157] Top shape: 1500 300 (450000)
I0404 14:17:09.255270 18919 net.cpp:165] Memory required for data: 6012078000
I0404 14:17:09.255273 18919 layer_factory.hpp:77] Creating layer drop4
I0404 14:17:09.255280 18919 net.cpp:100] Creating Layer drop4
I0404 14:17:09.255282 18919 net.cpp:434] drop4 <- fc4_300
I0404 14:17:09.255288 18919 net.cpp:395] drop4 -> fc4_300 (in-place)
I0404 14:17:09.255318 18919 net.cpp:150] Setting up drop4
I0404 14:17:09.255327 18919 net.cpp:157] Top shape: 1500 300 (450000)
I0404 14:17:09.255331 18919 net.cpp:165] Memory required for data: 6013878000
I0404 14:17:09.255333 18919 layer_factory.hpp:77] Creating layer fc5_67
I0404 14:17:09.255339 18919 net.cpp:100] Creating Layer fc5_67
I0404 14:17:09.255342 18919 net.cpp:434] fc5_67 <- fc4_300
I0404 14:17:09.255347 18919 net.cpp:408] fc5_67 -> fc5_classes
I0404 14:17:09.256577 18919 net.cpp:150] Setting up fc5_67
I0404 14:17:09.256593 18919 net.cpp:157] Top shape: 1500 67 (100500)
I0404 14:17:09.256598 18919 net.cpp:165] Memory required for data: 6014280000
I0404 14:17:09.256604 18919 layer_factory.hpp:77] Creating layer loss
I0404 14:17:09.256610 18919 net.cpp:100] Creating Layer loss
I0404 14:17:09.256614 18919 net.cpp:434] loss <- fc5_classes
I0404 14:17:09.256618 18919 net.cpp:434] loss <- label
I0404 14:17:09.256624 18919 net.cpp:408] loss -> loss
I0404 14:17:09.256636 18919 layer_factory.hpp:77] Creating layer loss
…
I0404 14:17:09.257369 18919 solver.cpp:193] Creating test net (#0) specified by test_net file: ./Prototxt/experiment_5/rtsd-r1/CoNorm/test.prototxt
I0404 14:17:09.257534 18919 net.cpp:58] Initializing net from parameters: 
state {
  phase: TEST
}
layer {
  name: "data"
  type: "Data"
  top: "data"
  top: "label"
  include {
    phase: TEST
  }
  transform_param {
    mirror: false
    crop_size: 48
    mean_value: 124
    mean_value: 124
    mean_value: 124
  }
  data_param {
    source: "../local_data/lmdb/rtsd-r1/CoNorm/test/lmdb"
    batch_size: 1500
    backend: LMDB
  }
}
layer {
  name: "conv1"
  type: "Convolution"
  bottom: "data"
  top: "conv1"
  convolution_param {
    num_output: 100
    pad: 0
    kernel_size: 7
    group: 1
    stride: 1
    weight_filler {
      type: "xavier"
    }
  }
}
layer {
  name: "conv1_prescale"
  type: "Scale"
  bottom: "conv1"
  top: "conv1"
  param {
    lr_mult: 0
    decay_mult: 0
  }
  scale_param {
    filler {
      value: 0.6666
    }
  }
}
layer {
  name: "conv1_sTanH"
  type: "TanH"
  bottom: "conv1"
  top: "conv1"
}
layer {
  name: "conv1_postscale"
  type: "Scale"
  bottom: "conv1"
  top: "conv1"
  param {
    lr_mult: 0
    decay_mult: 0
  }
  scale_param {
    filler {
      value: 1.7159
    }
  }
}
layer {
  name: "pool1"
  type: "Pooling"
  bottom: "conv1"
  top: "pool1"
  pooling_param {
    pool: MAX
    kernel_size: 2
    stride: 2
  }
}
layer {
  name: "conv2"
  type: "Convolution"
  bottom: "pool1"
  top: "conv2"
  convolution_param {
    num_output: 150
    pad: 0
    kernel_size: 4
    group: 1
    stride: 1
    weight_filler {
      type: "xavier"
    }
  }
}
layer {
  name: "conv2_prescale"
  type: "Scale"
  bottom: "conv2"
  top: "conv2"
  param {
    lr_mult: 0
    decay_mult: 0
  }
  scale_param {
    filler {
      value: 0.6666
    }
  }
}
layer {
  name: "conv2_sTanH"
  type: "TanH"
  bottom: "conv2"
  top: "conv2"
}
layer {
  name: "conv2_postscale"
  type: "Scale"
  bottom: "conv2"
  top: "conv2"
  param {
    lr_mult: 0
    decay_mult: 0
  }
  scale_param {
    filler {
      value: 1.7159
    }
  }
}
layer {
  name: "pool2"
  type: "Pooling"
  bottom: "conv2"
  top: "pool2"
  pooling_param {
    pool: MAX
    kernel_size: 2
    stride: 2
  }
}
layer {
  name: "conv3"
  type: "Convolution"
  bottom: "pool2"
  top: "conv3"
  convolution_param {
    num_output: 250
    pad: 0
    kernel_size: 4
    group: 1
    stride: 1
    weight_filler {
      type: "xavier"
    }
  }
}
layer {
  name: "conv3_prescale"
  type: "Scale"
  bottom: "conv3"
  top: "conv3"
  param {
    lr_mult: 0
    decay_mult: 0
  }
  scale_param {
    filler {
      value: 0.6666
    }
  }
}
layer {
  name: "conv3_sTanH"
  type: "TanH"
  bottom: "conv3"
  top: "conv3"
}
layer {
  name: "conv3_postscale"
  type: "Scale"
  bottom: "conv3"
  top: "conv3"
  param {
    lr_mult: 0
    decay_mult: 0
  }
  scale_param {
    filler {
      value: 1.7159
    }
  }
}
layer {
  name: "pool3"
  type: "Pooling"
  bottom: "conv3"
  top: "pool3"
  pooling_param {
    pool: MAX
    kernel_size: 2
    stride: 2
  }
}
layer {
  name: "fc4_300"
  type: "InnerProduct"
  bottom: "pool3"
  top: "fc4_300"
  inner_product_param {
    num_output: 300
    weight_filler {
      type: "xavier"
    }
  }
}
layer {
  name: "fc4_relu"
  type: "ReLU"
  bottom: "fc4_300"
  top: "fc4_300"
}
layer {
  name: "drop4"
  type: "Dropout"
  bottom: "fc4_300"
  top: "fc4_300"
  dropout_param {
    dropout_ratio: 0.4
  }
}
layer {
  name: "fc5_67"
  type: "InnerProduct"
  bottom: "fc4_300"
  top: "fc5_classes"
  inner_product_param {
    num_output: 67
    weight_filler {
      type: "xavier"
    }
  }
}
layer {
  name: "loss"
  type: "SoftmaxWithLoss"
  bottom: "fc5_classes"
  bottom: "label"
  top: "loss"
}
layer {
  name: "accuracy_1"
  type: "Accuracy"
  bottom: "fc5_classes"
  bottom: "label"
  top: "accuracy_1"
  include {
    phase: TEST
  }
  accuracy_param {
    top_k: 1
  }
}
layer {
  name: "accuracy_5"
  type: "Accuracy"
  bottom: "fc5_classes"
  bottom: "label"
  top: "accuracy_5"
  include {
    phase: TEST
  }
  accuracy_param {
    top_k: 5
  }
}
I0404 14:17:09.257653 18919 layer_factory.hpp:77] Creating layer data
I0404 14:17:09.258592 18919 net.cpp:100] Creating Layer data
I0404 14:17:09.258605 18919 net.cpp:408] data -> data
I0404 14:17:09.258615 18919 net.cpp:408] data -> label
I0404 14:17:09.259940 18997 db_lmdb.cpp:35] Opened lmdb ../local_data/lmdb/rtsd-r1/CoNorm/test/lmdb
I0404 14:17:09.260093 18919 data_layer.cpp:41] output data size: 1500,3,48,48
I0404 14:17:09.324057 18919 net.cpp:150] Setting up data
I0404 14:17:09.324087 18919 net.cpp:157] Top shape: 1500 3 48 48 (10368000)
I0404 14:17:09.324092 18919 net.cpp:157] Top shape: 1500 (1500)
I0404 14:17:09.324095 18919 net.cpp:165] Memory required for data: 41478000
I0404 14:17:09.324101 18919 layer_factory.hpp:77] Creating layer label_data_1_split
I0404 14:17:09.324116 18919 net.cpp:100] Creating Layer label_data_1_split
I0404 14:17:09.324122 18919 net.cpp:434] label_data_1_split <- label
I0404 14:17:09.324131 18919 net.cpp:408] label_data_1_split -> label_data_1_split_0
I0404 14:17:09.324143 18919 net.cpp:408] label_data_1_split -> label_data_1_split_1
I0404 14:17:09.324151 18919 net.cpp:408] label_data_1_split -> label_data_1_split_2
I0404 14:17:09.324283 18919 net.cpp:150] Setting up label_data_1_split
I0404 14:17:09.324293 18919 net.cpp:157] Top shape: 1500 (1500)
I0404 14:17:09.324297 18919 net.cpp:157] Top shape: 1500 (1500)
I0404 14:17:09.324301 18919 net.cpp:157] Top shape: 1500 (1500)
I0404 14:17:09.324302 18919 net.cpp:165] Memory required for data: 41496000
I0404 14:17:09.324306 18919 layer_factory.hpp:77] Creating layer conv1
I0404 14:17:09.324321 18919 net.cpp:100] Creating Layer conv1
I0404 14:17:09.324326 18919 net.cpp:434] conv1 <- data
I0404 14:17:09.324331 18919 net.cpp:408] conv1 -> conv1
I0404 14:17:09.329481 18919 net.cpp:150] Setting up conv1
I0404 14:17:09.329499 18919 net.cpp:157] Top shape: 1500 100 42 42 (264600000)
I0404 14:17:09.329514 18919 net.cpp:165] Memory required for data: 1099896000
I0404 14:17:09.329527 18919 layer_factory.hpp:77] Creating layer conv1_prescale
I0404 14:17:09.329540 18919 net.cpp:100] Creating Layer conv1_prescale
I0404 14:17:09.329545 18919 net.cpp:434] conv1_prescale <- conv1
I0404 14:17:09.329550 18919 net.cpp:395] conv1_prescale -> conv1 (in-place)
I0404 14:17:09.329663 18919 net.cpp:150] Setting up conv1_prescale
I0404 14:17:09.329671 18919 net.cpp:157] Top shape: 1500 100 42 42 (264600000)
I0404 14:17:09.329674 18919 net.cpp:165] Memory required for data: 2158296000
I0404 14:17:09.329684 18919 layer_factory.hpp:77] Creating layer conv1_sTanH
I0404 14:17:09.329691 18919 net.cpp:100] Creating Layer conv1_sTanH
I0404 14:17:09.329696 18919 net.cpp:434] conv1_sTanH <- conv1
I0404 14:17:09.329701 18919 net.cpp:395] conv1_sTanH -> conv1 (in-place)
I0404 14:17:09.329905 18919 net.cpp:150] Setting up conv1_sTanH
I0404 14:17:09.329917 18919 net.cpp:157] Top shape: 1500 100 42 42 (264600000)
I0404 14:17:09.329921 18919 net.cpp:165] Memory required for data: 3216696000
I0404 14:17:09.329923 18919 layer_factory.hpp:77] Creating layer conv1_postscale
I0404 14:17:09.329929 18919 net.cpp:100] Creating Layer conv1_postscale
I0404 14:17:09.329932 18919 net.cpp:434] conv1_postscale <- conv1
I0404 14:17:09.329941 18919 net.cpp:395] conv1_postscale -> conv1 (in-place)
I0404 14:17:09.330052 18919 net.cpp:150] Setting up conv1_postscale
I0404 14:17:09.330061 18919 net.cpp:157] Top shape: 1500 100 42 42 (264600000)
I0404 14:17:09.330082 18919 net.cpp:165] Memory required for data: 4275096000
I0404 14:17:09.330088 18919 layer_factory.hpp:77] Creating layer pool1
I0404 14:17:09.330096 18919 net.cpp:100] Creating Layer pool1
I0404 14:17:09.330098 18919 net.cpp:434] pool1 <- conv1
I0404 14:17:09.330106 18919 net.cpp:408] pool1 -> pool1
I0404 14:17:09.330150 18919 net.cpp:150] Setting up pool1
I0404 14:17:09.330158 18919 net.cpp:157] Top shape: 1500 100 21 21 (66150000)
I0404 14:17:09.330162 18919 net.cpp:165] Memory required for data: 4539696000
I0404 14:17:09.330163 18919 layer_factory.hpp:77] Creating layer conv2
I0404 14:17:09.330173 18919 net.cpp:100] Creating Layer conv2
I0404 14:17:09.330179 18919 net.cpp:434] conv2 <- pool1
I0404 14:17:09.330184 18919 net.cpp:408] conv2 -> conv2
I0404 14:17:09.334349 18919 net.cpp:150] Setting up conv2
I0404 14:17:09.334367 18919 net.cpp:157] Top shape: 1500 150 18 18 (72900000)
I0404 14:17:09.334372 18919 net.cpp:165] Memory required for data: 4831296000
I0404 14:17:09.334383 18919 layer_factory.hpp:77] Creating layer conv2_prescale
I0404 14:17:09.334393 18919 net.cpp:100] Creating Layer conv2_prescale
I0404 14:17:09.334398 18919 net.cpp:434] conv2_prescale <- conv2
I0404 14:17:09.334403 18919 net.cpp:395] conv2_prescale -> conv2 (in-place)
I0404 14:17:09.334517 18919 net.cpp:150] Setting up conv2_prescale
I0404 14:17:09.334525 18919 net.cpp:157] Top shape: 1500 150 18 18 (72900000)
I0404 14:17:09.334528 18919 net.cpp:165] Memory required for data: 5122896000
I0404 14:17:09.334533 18919 layer_factory.hpp:77] Creating layer conv2_sTanH
I0404 14:17:09.334538 18919 net.cpp:100] Creating Layer conv2_sTanH
I0404 14:17:09.334542 18919 net.cpp:434] conv2_sTanH <- conv2
I0404 14:17:09.334547 18919 net.cpp:395] conv2_sTanH -> conv2 (in-place)
I0404 14:17:09.335428 18919 net.cpp:150] Setting up conv2_sTanH
I0404 14:17:09.335444 18919 net.cpp:157] Top shape: 1500 150 18 18 (72900000)
I0404 14:17:09.335448 18919 net.cpp:165] Memory required for data: 5414496000
I0404 14:17:09.335451 18919 layer_factory.hpp:77] Creating layer conv2_postscale
I0404 14:17:09.335459 18919 net.cpp:100] Creating Layer conv2_postscale
I0404 14:17:09.335464 18919 net.cpp:434] conv2_postscale <- conv2
I0404 14:17:09.335470 18919 net.cpp:395] conv2_postscale -> conv2 (in-place)
I0404 14:17:09.335579 18919 net.cpp:150] Setting up conv2_postscale
I0404 14:17:09.335587 18919 net.cpp:157] Top shape: 1500 150 18 18 (72900000)
I0404 14:17:09.335590 18919 net.cpp:165] Memory required for data: 5706096000
I0404 14:17:09.335595 18919 layer_factory.hpp:77] Creating layer pool2
I0404 14:17:09.335604 18919 net.cpp:100] Creating Layer pool2
I0404 14:17:09.335608 18919 net.cpp:434] pool2 <- conv2
I0404 14:17:09.335611 18919 net.cpp:408] pool2 -> pool2
I0404 14:17:09.335661 18919 net.cpp:150] Setting up pool2
I0404 14:17:09.335672 18919 net.cpp:157] Top shape: 1500 150 9 9 (18225000)
I0404 14:17:09.335675 18919 net.cpp:165] Memory required for data: 5778996000
I0404 14:17:09.335678 18919 layer_factory.hpp:77] Creating layer conv3
I0404 14:17:09.335686 18919 net.cpp:100] Creating Layer conv3
I0404 14:17:09.335690 18919 net.cpp:434] conv3 <- pool2
I0404 14:17:09.335697 18919 net.cpp:408] conv3 -> conv3
I0404 14:17:09.341542 18919 net.cpp:150] Setting up conv3
I0404 14:17:09.341559 18919 net.cpp:157] Top shape: 1500 250 6 6 (13500000)
I0404 14:17:09.341563 18919 net.cpp:165] Memory required for data: 5832996000
I0404 14:17:09.341589 18919 layer_factory.hpp:77] Creating layer conv3_prescale
I0404 14:17:09.341598 18919 net.cpp:100] Creating Layer conv3_prescale
I0404 14:17:09.341601 18919 net.cpp:434] conv3_prescale <- conv3
I0404 14:17:09.341609 18919 net.cpp:395] conv3_prescale -> conv3 (in-place)
I0404 14:17:09.341717 18919 net.cpp:150] Setting up conv3_prescale
I0404 14:17:09.341727 18919 net.cpp:157] Top shape: 1500 250 6 6 (13500000)
I0404 14:17:09.341729 18919 net.cpp:165] Memory required for data: 5886996000
I0404 14:17:09.341734 18919 layer_factory.hpp:77] Creating layer conv3_sTanH
I0404 14:17:09.341739 18919 net.cpp:100] Creating Layer conv3_sTanH
I0404 14:17:09.341758 18919 net.cpp:434] conv3_sTanH <- conv3
I0404 14:17:09.341766 18919 net.cpp:395] conv3_sTanH -> conv3 (in-place)
I0404 14:17:09.343042 18919 net.cpp:150] Setting up conv3_sTanH
I0404 14:17:09.343057 18919 net.cpp:157] Top shape: 1500 250 6 6 (13500000)
I0404 14:17:09.343060 18919 net.cpp:165] Memory required for data: 5940996000
I0404 14:17:09.343063 18919 layer_factory.hpp:77] Creating layer conv3_postscale
I0404 14:17:09.343072 18919 net.cpp:100] Creating Layer conv3_postscale
I0404 14:17:09.343078 18919 net.cpp:434] conv3_postscale <- conv3
I0404 14:17:09.343083 18919 net.cpp:395] conv3_postscale -> conv3 (in-place)
I0404 14:17:09.343197 18919 net.cpp:150] Setting up conv3_postscale
I0404 14:17:09.343209 18919 net.cpp:157] Top shape: 1500 250 6 6 (13500000)
I0404 14:17:09.343211 18919 net.cpp:165] Memory required for data: 5994996000
I0404 14:17:09.343216 18919 layer_factory.hpp:77] Creating layer pool3
I0404 14:17:09.343227 18919 net.cpp:100] Creating Layer pool3
I0404 14:17:09.343232 18919 net.cpp:434] pool3 <- conv3
I0404 14:17:09.343237 18919 net.cpp:408] pool3 -> pool3
I0404 14:17:09.343281 18919 net.cpp:150] Setting up pool3
I0404 14:17:09.343289 18919 net.cpp:157] Top shape: 1500 250 3 3 (3375000)
I0404 14:17:09.343291 18919 net.cpp:165] Memory required for data: 6008496000
I0404 14:17:09.343294 18919 layer_factory.hpp:77] Creating layer fc4_300
I0404 14:17:09.343302 18919 net.cpp:100] Creating Layer fc4_300
I0404 14:17:09.343307 18919 net.cpp:434] fc4_300 <- pool3
I0404 14:17:09.343310 18919 net.cpp:408] fc4_300 -> fc4_300
I0404 14:17:09.348716 18919 net.cpp:150] Setting up fc4_300
I0404 14:17:09.348736 18919 net.cpp:157] Top shape: 1500 300 (450000)
I0404 14:17:09.348739 18919 net.cpp:165] Memory required for data: 6010296000
I0404 14:17:09.348745 18919 layer_factory.hpp:77] Creating layer fc4_relu
I0404 14:17:09.348753 18919 net.cpp:100] Creating Layer fc4_relu
I0404 14:17:09.348757 18919 net.cpp:434] fc4_relu <- fc4_300
I0404 14:17:09.348762 18919 net.cpp:395] fc4_relu -> fc4_300 (in-place)
I0404 14:17:09.348960 18919 net.cpp:150] Setting up fc4_relu
I0404 14:17:09.348976 18919 net.cpp:157] Top shape: 1500 300 (450000)
I0404 14:17:09.348980 18919 net.cpp:165] Memory required for data: 6012096000
I0404 14:17:09.348984 18919 layer_factory.hpp:77] Creating layer drop4
I0404 14:17:09.348989 18919 net.cpp:100] Creating Layer drop4
I0404 14:17:09.348994 18919 net.cpp:434] drop4 <- fc4_300
I0404 14:17:09.348999 18919 net.cpp:395] drop4 -> fc4_300 (in-place)
I0404 14:17:09.349030 18919 net.cpp:150] Setting up drop4
I0404 14:17:09.349041 18919 net.cpp:157] Top shape: 1500 300 (450000)
I0404 14:17:09.349046 18919 net.cpp:165] Memory required for data: 6013896000
I0404 14:17:09.349052 18919 layer_factory.hpp:77] Creating layer fc5_67
I0404 14:17:09.349061 18919 net.cpp:100] Creating Layer fc5_67
I0404 14:17:09.349064 18919 net.cpp:434] fc5_67 <- fc4_300
I0404 14:17:09.349069 18919 net.cpp:408] fc5_67 -> fc5_classes
I0404 14:17:09.349367 18919 net.cpp:150] Setting up fc5_67
I0404 14:17:09.349380 18919 net.cpp:157] Top shape: 1500 67 (100500)
I0404 14:17:09.349383 18919 net.cpp:165] Memory required for data: 6014298000
I0404 14:17:09.349390 18919 layer_factory.hpp:77] Creating layer fc5_classes_fc5_67_0_split
I0404 14:17:09.349396 18919 net.cpp:100] Creating Layer fc5_classes_fc5_67_0_split
I0404 14:17:09.349400 18919 net.cpp:434] fc5_classes_fc5_67_0_split <- fc5_classes
I0404 14:17:09.349406 18919 net.cpp:408] fc5_classes_fc5_67_0_split -> fc5_classes_fc5_67_0_split_0
I0404 14:17:09.349413 18919 net.cpp:408] fc5_classes_fc5_67_0_split -> fc5_classes_fc5_67_0_split_1
I0404 14:17:09.349421 18919 net.cpp:408] fc5_classes_fc5_67_0_split -> fc5_classes_fc5_67_0_split_2
I0404 14:17:09.349484 18919 net.cpp:150] Setting up fc5_classes_fc5_67_0_split
I0404 14:17:09.349493 18919 net.cpp:157] Top shape: 1500 67 (100500)
I0404 14:17:09.349498 18919 net.cpp:157] Top shape: 1500 67 (100500)
I0404 14:17:09.349500 18919 net.cpp:157] Top shape: 1500 67 (100500)
I0404 14:17:09.349503 18919 net.cpp:165] Memory required for data: 6015504000
I0404 14:17:09.349519 18919 layer_factory.hpp:77] Creating layer loss
I0404 14:17:09.349525 18919 net.cpp:100] Creating Layer loss
I0404 14:17:09.349529 18919 net.cpp:434] loss <- fc5_classes_fc5_67_0_split_0
I0404 14:17:09.349534 18919 net.cpp:434] loss <- label_data_1_split_0
I0404 14:17:09.349539 18919 net.cpp:408] loss -> loss
…
