…
I0414 04:35:00.473296  1260 solver.cpp:93] Creating training net from train_net file: ./Prototxt/experiment_10/rtsd-r1/orig/trial_2/train.prototxt
I0414 04:35:00.473876  1260 net.cpp:58] Initializing net from parameters: 
state {
  phase: TRAIN
  level: 0
  stage: ""
}
layer {
  name: "data"
  type: "Data"
  top: "data"
  top: "label"
  include {
    phase: TRAIN
  }
  transform_param {
    scale: 0.0039215689
    mirror: false
    crop_size: 48
    mean_value: 122
    mean_value: 115
    mean_value: 129
  }
  data_param {
    source: "../local_data/lmdb/rtsd-r1/orig/train/lmdb"
    batch_size: 1024
    backend: LMDB
  }
}
layer {
  name: "conv1"
  type: "Convolution"
  bottom: "data"
  top: "conv1"
  convolution_param {
    num_output: 100
    pad: 0
    kernel_size: 7
    group: 1
    stride: 1
    weight_filler {
      type: "xavier"
    }
  }
}
layer {
  name: "conv1_relu"
  type: "ReLU"
  bottom: "conv1"
  top: "conv1"
}
layer {
  name: "pool1"
  type: "Pooling"
  bottom: "conv1"
  top: "pool1"
  pooling_param {
    pool: MAX
    kernel_size: 2
    stride: 2
  }
}
layer {
  name: "conv2"
  type: "Convolution"
  bottom: "pool1"
  top: "conv2"
  convolution_param {
    num_output: 150
    pad: 0
    kernel_size: 4
    group: 1
    stride: 1
    weight_filler {
      type: "xavier"
    }
  }
}
layer {
  name: "conv2_relu"
  type: "ReLU"
  bottom: "conv2"
  top: "conv2"
}
layer {
  name: "pool2"
  type: "Pooling"
  bottom: "conv2"
  top: "pool2"
  pooling_param {
    pool: MAX
    kernel_size: 2
    stride: 2
  }
}
layer {
  name: "conv3"
  type: "Convolution"
  bottom: "pool2"
  top: "conv3"
  convolution_param {
    num_output: 250
    pad: 0
    kernel_size: 4
    group: 1
    stride: 1
    weight_filler {
      type: "xavier"
    }
  }
}
layer {
  name: "conv3_relu"
  type: "ReLU"
  bottom: "conv3"
  top: "conv3"
}
layer {
  name: "pool3"
  type: "Pooling"
  bottom: "conv3"
  top: "pool3"
  pooling_param {
    pool: MAX
    kernel_size: 2
    stride: 2
  }
}
layer {
  name: "fc4_300"
  type: "InnerProduct"
  bottom: "pool3"
  top: "fc4_300"
  inner_product_param {
    num_output: 300
    weight_filler {
      type: "xavier"
    }
  }
}
layer {
  name: "fc4_relu"
  type: "ReLU"
  bottom: "fc4_300"
  top: "fc4_300"
}
layer {
  name: "fc5_67"
  type: "InnerProduct"
  bottom: "fc4_300"
  top: "fc5_classes"
  inner_product_param {
    num_output: 67
    weight_filler {
      type: "xavier"
    }
  }
}
layer {
  name: "softmax"
  type: "Softmax"
  bottom: "fc5_classes"
  top: "softmax"
}
layer {
  name: "loss"
  type: "MultinomialLogisticLoss"
  bottom: "softmax"
  bottom: "label"
  top: "loss"
}
layer {
  name: "accuracy_1"
  type: "Accuracy"
  bottom: "fc5_classes"
  bottom: "label"
  top: "accuracy_1"
  accuracy_param {
    top_k: 1
  }
}
layer {
  name: "accuracy_5"
  type: "Accuracy"
  bottom: "fc5_classes"
  bottom: "label"
  top: "accuracy_5"
  accuracy_param {
    top_k: 5
  }
}
layer {
  name: "silence"
  type: "Silence"
  bottom: "accuracy_1"
  bottom: "accuracy_5"
}
I0414 04:35:00.474066  1260 layer_factory.hpp:77] Creating layer data
I0414 04:35:00.475827  1260 net.cpp:100] Creating Layer data
I0414 04:35:00.475852  1260 net.cpp:408] data -> data
I0414 04:35:00.475904  1260 net.cpp:408] data -> label
I0414 04:35:00.486443  1377 db_lmdb.cpp:35] Opened lmdb ../local_data/lmdb/rtsd-r1/orig/train/lmdb
I0414 04:35:00.515352  1260 data_layer.cpp:41] output data size: 1024,3,48,48
I0414 04:35:00.579051  1260 net.cpp:150] Setting up data
I0414 04:35:00.579102  1260 net.cpp:157] Top shape: 1024 3 48 48 (7077888)
I0414 04:35:00.579108  1260 net.cpp:157] Top shape: 1024 (1024)
I0414 04:35:00.579111  1260 net.cpp:165] Memory required for data: 28315648
I0414 04:35:00.579121  1260 layer_factory.hpp:77] Creating layer label_data_1_split
I0414 04:35:00.579138  1260 net.cpp:100] Creating Layer label_data_1_split
I0414 04:35:00.579144  1260 net.cpp:434] label_data_1_split <- label
I0414 04:35:00.579159  1260 net.cpp:408] label_data_1_split -> label_data_1_split_0
I0414 04:35:00.579171  1260 net.cpp:408] label_data_1_split -> label_data_1_split_1
I0414 04:35:00.579180  1260 net.cpp:408] label_data_1_split -> label_data_1_split_2
I0414 04:35:00.579244  1260 net.cpp:150] Setting up label_data_1_split
I0414 04:35:00.579252  1260 net.cpp:157] Top shape: 1024 (1024)
I0414 04:35:00.579257  1260 net.cpp:157] Top shape: 1024 (1024)
I0414 04:35:00.579260  1260 net.cpp:157] Top shape: 1024 (1024)
I0414 04:35:00.579262  1260 net.cpp:165] Memory required for data: 28327936
I0414 04:35:00.579267  1260 layer_factory.hpp:77] Creating layer conv1
I0414 04:35:00.579283  1260 net.cpp:100] Creating Layer conv1
I0414 04:35:00.579288  1260 net.cpp:434] conv1 <- data
I0414 04:35:00.579293  1260 net.cpp:408] conv1 -> conv1
I0414 04:35:01.010583  1260 net.cpp:150] Setting up conv1
I0414 04:35:01.010623  1260 net.cpp:157] Top shape: 1024 100 42 42 (180633600)
I0414 04:35:01.010632  1260 net.cpp:165] Memory required for data: 750862336
I0414 04:35:01.010664  1260 layer_factory.hpp:77] Creating layer conv1_relu
I0414 04:35:01.010684  1260 net.cpp:100] Creating Layer conv1_relu
I0414 04:35:01.010695  1260 net.cpp:434] conv1_relu <- conv1
I0414 04:35:01.010706  1260 net.cpp:395] conv1_relu -> conv1 (in-place)
I0414 04:35:01.011042  1260 net.cpp:150] Setting up conv1_relu
I0414 04:35:01.011062  1260 net.cpp:157] Top shape: 1024 100 42 42 (180633600)
I0414 04:35:01.011078  1260 net.cpp:165] Memory required for data: 1473396736
I0414 04:35:01.011088  1260 layer_factory.hpp:77] Creating layer pool1
I0414 04:35:01.011106  1260 net.cpp:100] Creating Layer pool1
I0414 04:35:01.011112  1260 net.cpp:434] pool1 <- conv1
I0414 04:35:01.011122  1260 net.cpp:408] pool1 -> pool1
I0414 04:35:01.011207  1260 net.cpp:150] Setting up pool1
I0414 04:35:01.011222  1260 net.cpp:157] Top shape: 1024 100 21 21 (45158400)
I0414 04:35:01.011231  1260 net.cpp:165] Memory required for data: 1654030336
I0414 04:35:01.011240  1260 layer_factory.hpp:77] Creating layer conv2
I0414 04:35:01.011258  1260 net.cpp:100] Creating Layer conv2
I0414 04:35:01.011267  1260 net.cpp:434] conv2 <- pool1
I0414 04:35:01.011279  1260 net.cpp:408] conv2 -> conv2
I0414 04:35:01.018220  1260 net.cpp:150] Setting up conv2
I0414 04:35:01.018239  1260 net.cpp:157] Top shape: 1024 150 18 18 (49766400)
I0414 04:35:01.018244  1260 net.cpp:165] Memory required for data: 1853095936
I0414 04:35:01.018254  1260 layer_factory.hpp:77] Creating layer conv2_relu
I0414 04:35:01.018262  1260 net.cpp:100] Creating Layer conv2_relu
I0414 04:35:01.018266  1260 net.cpp:434] conv2_relu <- conv2
I0414 04:35:01.018271  1260 net.cpp:395] conv2_relu -> conv2 (in-place)
I0414 04:35:01.019291  1260 net.cpp:150] Setting up conv2_relu
I0414 04:35:01.019307  1260 net.cpp:157] Top shape: 1024 150 18 18 (49766400)
I0414 04:35:01.019310  1260 net.cpp:165] Memory required for data: 2052161536
I0414 04:35:01.019315  1260 layer_factory.hpp:77] Creating layer pool2
I0414 04:35:01.019322  1260 net.cpp:100] Creating Layer pool2
I0414 04:35:01.019327  1260 net.cpp:434] pool2 <- conv2
I0414 04:35:01.019333  1260 net.cpp:408] pool2 -> pool2
I0414 04:35:01.019383  1260 net.cpp:150] Setting up pool2
I0414 04:35:01.019392  1260 net.cpp:157] Top shape: 1024 150 9 9 (12441600)
I0414 04:35:01.019398  1260 net.cpp:165] Memory required for data: 2101927936
I0414 04:35:01.019402  1260 layer_factory.hpp:77] Creating layer conv3
I0414 04:35:01.019412  1260 net.cpp:100] Creating Layer conv3
I0414 04:35:01.019417  1260 net.cpp:434] conv3 <- pool2
I0414 04:35:01.019421  1260 net.cpp:408] conv3 -> conv3
I0414 04:35:01.025130  1260 net.cpp:150] Setting up conv3
I0414 04:35:01.025146  1260 net.cpp:157] Top shape: 1024 250 6 6 (9216000)
I0414 04:35:01.025149  1260 net.cpp:165] Memory required for data: 2138791936
I0414 04:35:01.025159  1260 layer_factory.hpp:77] Creating layer conv3_relu
I0414 04:35:01.025167  1260 net.cpp:100] Creating Layer conv3_relu
I0414 04:35:01.025171  1260 net.cpp:434] conv3_relu <- conv3
I0414 04:35:01.025176  1260 net.cpp:395] conv3_relu -> conv3 (in-place)
I0414 04:35:01.026829  1260 net.cpp:150] Setting up conv3_relu
I0414 04:35:01.026847  1260 net.cpp:157] Top shape: 1024 250 6 6 (9216000)
I0414 04:35:01.026851  1260 net.cpp:165] Memory required for data: 2175655936
I0414 04:35:01.026854  1260 layer_factory.hpp:77] Creating layer pool3
I0414 04:35:01.026862  1260 net.cpp:100] Creating Layer pool3
I0414 04:35:01.026865  1260 net.cpp:434] pool3 <- conv3
I0414 04:35:01.026871  1260 net.cpp:408] pool3 -> pool3
I0414 04:35:01.026918  1260 net.cpp:150] Setting up pool3
I0414 04:35:01.026927  1260 net.cpp:157] Top shape: 1024 250 3 3 (2304000)
I0414 04:35:01.026931  1260 net.cpp:165] Memory required for data: 2184871936
I0414 04:35:01.026933  1260 layer_factory.hpp:77] Creating layer fc4_300
I0414 04:35:01.026940  1260 net.cpp:100] Creating Layer fc4_300
I0414 04:35:01.026945  1260 net.cpp:434] fc4_300 <- pool3
I0414 04:35:01.026950  1260 net.cpp:408] fc4_300 -> fc4_300
I0414 04:35:01.032407  1260 net.cpp:150] Setting up fc4_300
I0414 04:35:01.032423  1260 net.cpp:157] Top shape: 1024 300 (307200)
I0414 04:35:01.032426  1260 net.cpp:165] Memory required for data: 2186100736
I0414 04:35:01.032433  1260 layer_factory.hpp:77] Creating layer fc4_relu
I0414 04:35:01.032440  1260 net.cpp:100] Creating Layer fc4_relu
I0414 04:35:01.032444  1260 net.cpp:434] fc4_relu <- fc4_300
I0414 04:35:01.032449  1260 net.cpp:395] fc4_relu -> fc4_300 (in-place)
I0414 04:35:01.032627  1260 net.cpp:150] Setting up fc4_relu
I0414 04:35:01.032637  1260 net.cpp:157] Top shape: 1024 300 (307200)
I0414 04:35:01.032641  1260 net.cpp:165] Memory required for data: 2187329536
I0414 04:35:01.032644  1260 layer_factory.hpp:77] Creating layer fc5_67
I0414 04:35:01.032651  1260 net.cpp:100] Creating Layer fc5_67
I0414 04:35:01.032655  1260 net.cpp:434] fc5_67 <- fc4_300
I0414 04:35:01.032661  1260 net.cpp:408] fc5_67 -> fc5_classes
I0414 04:35:01.048372  1260 net.cpp:150] Setting up fc5_67
I0414 04:35:01.048394  1260 net.cpp:157] Top shape: 1024 67 (68608)
I0414 04:35:01.048398  1260 net.cpp:165] Memory required for data: 2187603968
I0414 04:35:01.048411  1260 layer_factory.hpp:77] Creating layer fc5_classes_fc5_67_0_split
I0414 04:35:01.048420  1260 net.cpp:100] Creating Layer fc5_classes_fc5_67_0_split
I0414 04:35:01.048426  1260 net.cpp:434] fc5_classes_fc5_67_0_split <- fc5_classes
I0414 04:35:01.048432  1260 net.cpp:408] fc5_classes_fc5_67_0_split -> fc5_classes_fc5_67_0_split_0
I0414 04:35:01.048441  1260 net.cpp:408] fc5_classes_fc5_67_0_split -> fc5_classes_fc5_67_0_split_1
I0414 04:35:01.048449  1260 net.cpp:408] fc5_classes_fc5_67_0_split -> fc5_classes_fc5_67_0_split_2
I0414 04:35:01.048501  1260 net.cpp:150] Setting up fc5_classes_fc5_67_0_split
I0414 04:35:01.048508  1260 net.cpp:157] Top shape: 1024 67 (68608)
I0414 04:35:01.048511  1260 net.cpp:157] Top shape: 1024 67 (68608)
I0414 04:35:01.048516  1260 net.cpp:157] Top shape: 1024 67 (68608)
I0414 04:35:01.048518  1260 net.cpp:165] Memory required for data: 2188427264
I0414 04:35:01.048521  1260 layer_factory.hpp:77] Creating layer softmax
I0414 04:35:01.048527  1260 net.cpp:100] Creating Layer softmax
I0414 04:35:01.048532  1260 net.cpp:434] softmax <- fc5_classes_fc5_67_0_split_0
I0414 04:35:01.048537  1260 net.cpp:408] softmax -> softmax
I0414 04:35:01.048802  1260 net.cpp:150] Setting up softmax
I0414 04:35:01.048815  1260 net.cpp:157] Top shape: 1024 67 (68608)
I0414 04:35:01.048817  1260 net.cpp:165] Memory required for data: 2188701696
I0414 04:35:01.048820  1260 layer_factory.hpp:77] Creating layer loss
I0414 04:35:01.048830  1260 net.cpp:100] Creating Layer loss
I0414 04:35:01.048852  1260 net.cpp:434] loss <- softmax
I0414 04:35:01.048858  1260 net.cpp:434] loss <- label_data_1_split_0
I0414 04:35:01.048869  1260 net.cpp:408] loss -> loss
…
