…
I0412 05:27:24.724603 23880 solver.cpp:93] Creating training net from train_net file: ./Prototxt/experiment_10/rtsd-r1/orig/trial_2/train.prototxt
I0412 05:27:24.725009 23880 net.cpp:58] Initializing net from parameters: 
state {
  phase: TRAIN
  level: 0
  stage: ""
}
layer {
  name: "data"
  type: "Data"
  top: "data"
  top: "label"
  include {
    phase: TRAIN
  }
  transform_param {
    scale: 0.0039215689
    mirror: false
    crop_size: 48
    mean_value: 122
    mean_value: 115
    mean_value: 129
  }
  data_param {
    source: "../local_data/lmdb/rtsd-r1/orig/train/lmdb"
    batch_size: 1024
    backend: LMDB
  }
}
layer {
  name: "conv1"
  type: "Convolution"
  bottom: "data"
  top: "conv1"
  convolution_param {
    num_output: 100
    pad: 0
    kernel_size: 7
    group: 1
    stride: 1
    weight_filler {
      type: "xavier"
    }
  }
}
layer {
  name: "conv1_relu"
  type: "ReLU"
  bottom: "conv1"
  top: "conv1"
}
layer {
  name: "pool1"
  type: "Pooling"
  bottom: "conv1"
  top: "pool1"
  pooling_param {
    pool: MAX
    kernel_size: 2
    stride: 2
  }
}
layer {
  name: "conv2"
  type: "Convolution"
  bottom: "pool1"
  top: "conv2"
  convolution_param {
    num_output: 150
    pad: 0
    kernel_size: 4
    group: 1
    stride: 1
    weight_filler {
      type: "xavier"
    }
  }
}
layer {
  name: "conv2_relu"
  type: "ReLU"
  bottom: "conv2"
  top: "conv2"
}
layer {
  name: "pool2"
  type: "Pooling"
  bottom: "conv2"
  top: "pool2"
  pooling_param {
    pool: MAX
    kernel_size: 2
    stride: 2
  }
}
layer {
  name: "conv3"
  type: "Convolution"
  bottom: "pool2"
  top: "conv3"
  convolution_param {
    num_output: 250
    pad: 0
    kernel_size: 4
    group: 1
    stride: 1
    weight_filler {
      type: "xavier"
    }
  }
}
layer {
  name: "conv3_relu"
  type: "ReLU"
  bottom: "conv3"
  top: "conv3"
}
layer {
  name: "pool3"
  type: "Pooling"
  bottom: "conv3"
  top: "pool3"
  pooling_param {
    pool: MAX
    kernel_size: 2
    stride: 2
  }
}
layer {
  name: "fc4_300"
  type: "InnerProduct"
  bottom: "pool3"
  top: "fc4_300"
  inner_product_param {
    num_output: 300
    weight_filler {
      type: "xavier"
    }
  }
}
layer {
  name: "fc4_relu"
  type: "ReLU"
  bottom: "fc4_300"
  top: "fc4_300"
}
layer {
  name: "drop4"
  type: "Dropout"
  bottom: "fc4_300"
  top: "fc4_300"
  dropout_param {
    dropout_ratio: 0.4
  }
}
layer {
  name: "fc5_67"
  type: "InnerProduct"
  bottom: "fc4_300"
  top: "fc5_classes"
  inner_product_param {
    num_output: 67
    weight_filler {
      type: "xavier"
    }
  }
}
layer {
  name: "softmax"
  type: "Softmax"
  bottom: "fc5_classes"
  top: "softmax"
}
layer {
  name: "loss"
  type: "MultinomialLogisticLoss"
  bottom: "softmax"
  bottom: "label"
  top: "loss"
}
layer {
  name: "accuracy_1"
  type: "Accuracy"
  bottom: "fc5_classes"
  bottom: "label"
  top: "accuracy_1"
  accuracy_param {
    top_k: 1
  }
}
layer {
  name: "accuracy_5"
  type: "Accuracy"
  bottom: "fc5_classes"
  bottom: "label"
  top: "accuracy_5"
  accuracy_param {
    top_k: 5
  }
}
I0412 05:27:24.725143 23880 layer_factory.hpp:77] Creating layer data
I0412 05:27:24.726658 23880 net.cpp:100] Creating Layer data
I0412 05:27:24.726675 23880 net.cpp:408] data -> data
I0412 05:27:24.726701 23880 net.cpp:408] data -> label
I0412 05:27:24.728492 23979 db_lmdb.cpp:35] Opened lmdb ../local_data/lmdb/rtsd-r1/orig/train/lmdb
I0412 05:27:24.748817 23880 data_layer.cpp:41] output data size: 1024,3,48,48
I0412 05:27:24.807394 23880 net.cpp:150] Setting up data
I0412 05:27:24.807423 23880 net.cpp:157] Top shape: 1024 3 48 48 (7077888)
I0412 05:27:24.807430 23880 net.cpp:157] Top shape: 1024 (1024)
I0412 05:27:24.807432 23880 net.cpp:165] Memory required for data: 28315648
I0412 05:27:24.807443 23880 layer_factory.hpp:77] Creating layer label_data_1_split
I0412 05:27:24.807457 23880 net.cpp:100] Creating Layer label_data_1_split
I0412 05:27:24.807464 23880 net.cpp:434] label_data_1_split <- label
I0412 05:27:24.807477 23880 net.cpp:408] label_data_1_split -> label_data_1_split_0
I0412 05:27:24.807489 23880 net.cpp:408] label_data_1_split -> label_data_1_split_1
I0412 05:27:24.807495 23880 net.cpp:408] label_data_1_split -> label_data_1_split_2
I0412 05:27:24.807560 23880 net.cpp:150] Setting up label_data_1_split
I0412 05:27:24.807569 23880 net.cpp:157] Top shape: 1024 (1024)
I0412 05:27:24.807574 23880 net.cpp:157] Top shape: 1024 (1024)
I0412 05:27:24.807579 23880 net.cpp:157] Top shape: 1024 (1024)
I0412 05:27:24.807580 23880 net.cpp:165] Memory required for data: 28327936
I0412 05:27:24.807584 23880 layer_factory.hpp:77] Creating layer conv1
I0412 05:27:24.807600 23880 net.cpp:100] Creating Layer conv1
I0412 05:27:24.807605 23880 net.cpp:434] conv1 <- data
I0412 05:27:24.807610 23880 net.cpp:408] conv1 -> conv1
I0412 05:27:25.219116 23880 net.cpp:150] Setting up conv1
I0412 05:27:25.219146 23880 net.cpp:157] Top shape: 1024 100 42 42 (180633600)
I0412 05:27:25.219151 23880 net.cpp:165] Memory required for data: 750862336
I0412 05:27:25.219177 23880 layer_factory.hpp:77] Creating layer conv1_relu
I0412 05:27:25.219189 23880 net.cpp:100] Creating Layer conv1_relu
I0412 05:27:25.219194 23880 net.cpp:434] conv1_relu <- conv1
I0412 05:27:25.219202 23880 net.cpp:395] conv1_relu -> conv1 (in-place)
I0412 05:27:25.219434 23880 net.cpp:150] Setting up conv1_relu
I0412 05:27:25.219447 23880 net.cpp:157] Top shape: 1024 100 42 42 (180633600)
I0412 05:27:25.219451 23880 net.cpp:165] Memory required for data: 1473396736
I0412 05:27:25.219455 23880 layer_factory.hpp:77] Creating layer pool1
I0412 05:27:25.219466 23880 net.cpp:100] Creating Layer pool1
I0412 05:27:25.219472 23880 net.cpp:434] pool1 <- conv1
I0412 05:27:25.219478 23880 net.cpp:408] pool1 -> pool1
I0412 05:27:25.219540 23880 net.cpp:150] Setting up pool1
I0412 05:27:25.219549 23880 net.cpp:157] Top shape: 1024 100 21 21 (45158400)
I0412 05:27:25.219553 23880 net.cpp:165] Memory required for data: 1654030336
I0412 05:27:25.219558 23880 layer_factory.hpp:77] Creating layer conv2
I0412 05:27:25.219568 23880 net.cpp:100] Creating Layer conv2
I0412 05:27:25.219574 23880 net.cpp:434] conv2 <- pool1
I0412 05:27:25.219580 23880 net.cpp:408] conv2 -> conv2
I0412 05:27:25.229110 23880 net.cpp:150] Setting up conv2
I0412 05:27:25.229128 23880 net.cpp:157] Top shape: 1024 150 18 18 (49766400)
I0412 05:27:25.229132 23880 net.cpp:165] Memory required for data: 1853095936
I0412 05:27:25.229145 23880 layer_factory.hpp:77] Creating layer conv2_relu
I0412 05:27:25.229152 23880 net.cpp:100] Creating Layer conv2_relu
I0412 05:27:25.229156 23880 net.cpp:434] conv2_relu <- conv2
I0412 05:27:25.229162 23880 net.cpp:395] conv2_relu -> conv2 (in-place)
I0412 05:27:25.231935 23880 net.cpp:150] Setting up conv2_relu
I0412 05:27:25.231955 23880 net.cpp:157] Top shape: 1024 150 18 18 (49766400)
I0412 05:27:25.231958 23880 net.cpp:165] Memory required for data: 2052161536
I0412 05:27:25.231962 23880 layer_factory.hpp:77] Creating layer pool2
I0412 05:27:25.231971 23880 net.cpp:100] Creating Layer pool2
I0412 05:27:25.231976 23880 net.cpp:434] pool2 <- conv2
I0412 05:27:25.231981 23880 net.cpp:408] pool2 -> pool2
I0412 05:27:25.232041 23880 net.cpp:150] Setting up pool2
I0412 05:27:25.232051 23880 net.cpp:157] Top shape: 1024 150 9 9 (12441600)
I0412 05:27:25.232054 23880 net.cpp:165] Memory required for data: 2101927936
I0412 05:27:25.232059 23880 layer_factory.hpp:77] Creating layer conv3
I0412 05:27:25.232070 23880 net.cpp:100] Creating Layer conv3
I0412 05:27:25.232075 23880 net.cpp:434] conv3 <- pool2
I0412 05:27:25.232105 23880 net.cpp:408] conv3 -> conv3
I0412 05:27:25.239594 23880 net.cpp:150] Setting up conv3
I0412 05:27:25.239617 23880 net.cpp:157] Top shape: 1024 250 6 6 (9216000)
I0412 05:27:25.239621 23880 net.cpp:165] Memory required for data: 2138791936
I0412 05:27:25.239634 23880 layer_factory.hpp:77] Creating layer conv3_relu
I0412 05:27:25.239642 23880 net.cpp:100] Creating Layer conv3_relu
I0412 05:27:25.239646 23880 net.cpp:434] conv3_relu <- conv3
I0412 05:27:25.239653 23880 net.cpp:395] conv3_relu -> conv3 (in-place)
I0412 05:27:25.242656 23880 net.cpp:150] Setting up conv3_relu
I0412 05:27:25.242678 23880 net.cpp:157] Top shape: 1024 250 6 6 (9216000)
I0412 05:27:25.242682 23880 net.cpp:165] Memory required for data: 2175655936
I0412 05:27:25.242687 23880 layer_factory.hpp:77] Creating layer pool3
I0412 05:27:25.242697 23880 net.cpp:100] Creating Layer pool3
I0412 05:27:25.242700 23880 net.cpp:434] pool3 <- conv3
I0412 05:27:25.242707 23880 net.cpp:408] pool3 -> pool3
I0412 05:27:25.242765 23880 net.cpp:150] Setting up pool3
I0412 05:27:25.242775 23880 net.cpp:157] Top shape: 1024 250 3 3 (2304000)
I0412 05:27:25.242779 23880 net.cpp:165] Memory required for data: 2184871936
I0412 05:27:25.242782 23880 layer_factory.hpp:77] Creating layer fc4_300
I0412 05:27:25.242789 23880 net.cpp:100] Creating Layer fc4_300
I0412 05:27:25.242794 23880 net.cpp:434] fc4_300 <- pool3
I0412 05:27:25.242799 23880 net.cpp:408] fc4_300 -> fc4_300
I0412 05:27:25.250123 23880 net.cpp:150] Setting up fc4_300
I0412 05:27:25.250145 23880 net.cpp:157] Top shape: 1024 300 (307200)
I0412 05:27:25.250149 23880 net.cpp:165] Memory required for data: 2186100736
I0412 05:27:25.250159 23880 layer_factory.hpp:77] Creating layer fc4_relu
I0412 05:27:25.250166 23880 net.cpp:100] Creating Layer fc4_relu
I0412 05:27:25.250174 23880 net.cpp:434] fc4_relu <- fc4_300
I0412 05:27:25.250180 23880 net.cpp:395] fc4_relu -> fc4_300 (in-place)
I0412 05:27:25.250404 23880 net.cpp:150] Setting up fc4_relu
I0412 05:27:25.250418 23880 net.cpp:157] Top shape: 1024 300 (307200)
I0412 05:27:25.250423 23880 net.cpp:165] Memory required for data: 2187329536
I0412 05:27:25.250427 23880 layer_factory.hpp:77] Creating layer drop4
I0412 05:27:25.250434 23880 net.cpp:100] Creating Layer drop4
I0412 05:27:25.250438 23880 net.cpp:434] drop4 <- fc4_300
I0412 05:27:25.250444 23880 net.cpp:395] drop4 -> fc4_300 (in-place)
I0412 05:27:25.250483 23880 net.cpp:150] Setting up drop4
I0412 05:27:25.250490 23880 net.cpp:157] Top shape: 1024 300 (307200)
I0412 05:27:25.250494 23880 net.cpp:165] Memory required for data: 2188558336
I0412 05:27:25.250499 23880 layer_factory.hpp:77] Creating layer fc5_67
I0412 05:27:25.250505 23880 net.cpp:100] Creating Layer fc5_67
I0412 05:27:25.250510 23880 net.cpp:434] fc5_67 <- fc4_300
I0412 05:27:25.250516 23880 net.cpp:408] fc5_67 -> fc5_classes
I0412 05:27:25.252388 23880 net.cpp:150] Setting up fc5_67
I0412 05:27:25.252405 23880 net.cpp:157] Top shape: 1024 67 (68608)
I0412 05:27:25.252409 23880 net.cpp:165] Memory required for data: 2188832768
I0412 05:27:25.252423 23880 layer_factory.hpp:77] Creating layer fc5_classes_fc5_67_0_split
I0412 05:27:25.252432 23880 net.cpp:100] Creating Layer fc5_classes_fc5_67_0_split
I0412 05:27:25.252439 23880 net.cpp:434] fc5_classes_fc5_67_0_split <- fc5_classes
I0412 05:27:25.252445 23880 net.cpp:408] fc5_classes_fc5_67_0_split -> fc5_classes_fc5_67_0_split_0
I0412 05:27:25.252454 23880 net.cpp:408] fc5_classes_fc5_67_0_split -> fc5_classes_fc5_67_0_split_1
I0412 05:27:25.252463 23880 net.cpp:408] fc5_classes_fc5_67_0_split -> fc5_classes_fc5_67_0_split_2
I0412 05:27:25.252524 23880 net.cpp:150] Setting up fc5_classes_fc5_67_0_split
I0412 05:27:25.252532 23880 net.cpp:157] Top shape: 1024 67 (68608)
I0412 05:27:25.252537 23880 net.cpp:157] Top shape: 1024 67 (68608)
I0412 05:27:25.252542 23880 net.cpp:157] Top shape: 1024 67 (68608)
I0412 05:27:25.252544 23880 net.cpp:165] Memory required for data: 2189656064
I0412 05:27:25.252547 23880 layer_factory.hpp:77] Creating layer softmax
I0412 05:27:25.252574 23880 net.cpp:100] Creating Layer softmax
I0412 05:27:25.252579 23880 net.cpp:434] softmax <- fc5_classes_fc5_67_0_split_0
I0412 05:27:25.252586 23880 net.cpp:408] softmax -> softmax
I0412 05:27:25.252888 23880 net.cpp:150] Setting up softmax
I0412 05:27:25.252902 23880 net.cpp:157] Top shape: 1024 67 (68608)
I0412 05:27:25.252907 23880 net.cpp:165] Memory required for data: 2189930496
I0412 05:27:25.252912 23880 layer_factory.hpp:77] Creating layer loss
I0412 05:27:25.252919 23880 net.cpp:100] Creating Layer loss
I0412 05:27:25.252924 23880 net.cpp:434] loss <- softmax
I0412 05:27:25.252930 23880 net.cpp:434] loss <- label_data_1_split_0
I0412 05:27:25.252936 23880 net.cpp:408] loss -> loss
…
