…
I0411 23:26:13.047447 12010 net.cpp:322] The NetState phase (0) differed from the phase (1) specified by a rule in layer accuracy_5
I0411 23:26:13.047653 12010 net.cpp:58] Initializing net from parameters: 
state {
  phase: TRAIN
  level: 0
  stage: ""
}
layer {
  name: "data"
  type: "Data"
  top: "data"
  top: "label"
  include {
    phase: TRAIN
  }
  transform_param {
    scale: 0.0039215689
    mirror: false
    crop_size: 48
    mean_value: 130
    mean_value: 123
    mean_value: 137
  }
  data_param {
    source: "../local_data/lmdb/rtsd-r1/histeq/train/lmdb"
    batch_size: 1024
    backend: LMDB
  }
}
layer {
  name: "conv1"
  type: "Convolution"
  bottom: "data"
  top: "conv1"
  convolution_param {
    num_output: 100
    pad: 0
    kernel_size: 7
    group: 1
    stride: 1
    weight_filler {
      type: "xavier"
    }
  }
}
layer {
  name: "conv1_prescale"
  type: "Scale"
  bottom: "conv1"
  top: "conv1"
  param {
    lr_mult: 0
    decay_mult: 0
  }
  scale_param {
    filler {
      value: 0.6666
    }
    bias_term: false
  }
}
layer {
  name: "conv1_sTanH"
  type: "TanH"
  bottom: "conv1"
  top: "conv1"
}
layer {
  name: "conv1_postscale"
  type: "Scale"
  bottom: "conv1"
  top: "conv1"
  param {
    lr_mult: 0
    decay_mult: 0
  }
  scale_param {
    filler {
      value: 1.7159
    }
    bias_term: false
  }
}
layer {
  name: "pool1"
  type: "Pooling"
  bottom: "conv1"
  top: "pool1"
  pooling_param {
    pool: MAX
    kernel_size: 2
    stride: 2
  }
}
layer {
  name: "conv2"
  type: "Convolution"
  bottom: "pool1"
  top: "conv2"
  convolution_param {
    num_output: 150
    pad: 0
    kernel_size: 4
    group: 1
    stride: 1
    weight_filler {
      type: "xavier"
    }
  }
}
layer {
  name: "conv2_prescale"
  type: "Scale"
  bottom: "conv2"
  top: "conv2"
  param {
    lr_mult: 0
    decay_mult: 0
  }
  scale_param {
    filler {
      value: 0.6666
    }
    bias_term: false
  }
}
layer {
  name: "conv2_sTanH"
  type: "TanH"
  bottom: "conv2"
  top: "conv2"
}
layer {
  name: "conv2_postscale"
  type: "Scale"
  bottom: "conv2"
  top: "conv2"
  param {
    lr_mult: 0
    decay_mult: 0
  }
  scale_param {
    filler {
      value: 1.7159
    }
    bias_term: false
  }
}
layer {
  name: "pool2"
  type: "Pooling"
  bottom: "conv2"
  top: "pool2"
  pooling_param {
    pool: MAX
    kernel_size: 2
    stride: 2
  }
}
layer {
  name: "conv3"
  type: "Convolution"
  bottom: "pool2"
  top: "conv3"
  convolution_param {
    num_output: 250
    pad: 0
    kernel_size: 4
    group: 1
    stride: 1
    weight_filler {
      type: "xavier"
    }
  }
}
layer {
  name: "conv3_prescale"
  type: "Scale"
  bottom: "conv3"
  top: "conv3"
  param {
    lr_mult: 0
    decay_mult: 0
  }
  scale_param {
    filler {
      value: 0.6666
    }
    bias_term: false
  }
}
layer {
  name: "conv3_sTanH"
  type: "TanH"
  bottom: "conv3"
  top: "conv3"
}
layer {
  name: "conv3_postscale"
  type: "Scale"
  bottom: "conv3"
  top: "conv3"
  param {
    lr_mult: 0
    decay_mult: 0
  }
  scale_param {
    filler {
      value: 1.7159
    }
    bias_term: false
  }
}
layer {
  name: "pool3"
  type: "Pooling"
  bottom: "conv3"
  top: "pool3"
  pooling_param {
    pool: MAX
    kernel_size: 2
    stride: 2
  }
}
layer {
  name: "fc4_300"
  type: "InnerProduct"
  bottom: "pool3"
  top: "fc4_300"
  inner_product_param {
    num_output: 300
    weight_filler {
      type: "xavier"
    }
  }
}
layer {
  name: "fc4_prescale"
  type: "Scale"
  bottom: "fc4_300"
  top: "fc4_300"
  param {
    lr_mult: 0
    decay_mult: 0
  }
  scale_param {
    filler {
      value: 0.6666
    }
    bias_term: false
  }
}
layer {
  name: "fc4_sTanH"
  type: "TanH"
  bottom: "fc4_300"
  top: "fc4_300"
}
layer {
  name: "fc4_postscale"
  type: "Scale"
  bottom: "fc4_300"
  top: "fc4_300"
  param {
    lr_mult: 0
    decay_mult: 0
  }
  scale_param {
    filler {
      value: 1.7159
    }
    bias_term: false
  }
}
layer {
  name: "drop4"
  type: "Dropout"
  bottom: "fc4_300"
  top: "fc4_300"
  dropout_param {
    dropout_ratio: 0.1
  }
}
layer {
  name: "fc5_67"
  type: "InnerProduct"
  bottom: "fc4_300"
  top: "fc5_classes"
  inner_product_param {
    num_output: 67
    weight_filler {
      type: "xavier"
    }
  }
}
layer {
  name: "loss"
  type: "SoftmaxWithLoss"
  bottom: "fc5_classes"
  bottom: "label"
  top: "loss"
}
I0411 23:26:13.047788 12010 layer_factory.hpp:77] Creating layer data
I0411 23:26:13.049243 12010 net.cpp:100] Creating Layer data
I0411 23:26:13.049278 12010 net.cpp:408] data -> data
I0411 23:26:13.049309 12010 net.cpp:408] data -> label
I0411 23:26:13.086702 12132 db_lmdb.cpp:35] Opened lmdb ../local_data/lmdb/rtsd-r1/histeq/train/lmdb
I0411 23:26:13.103612 12010 data_layer.cpp:41] output data size: 1024,3,48,48
I0411 23:26:13.156250 12010 net.cpp:150] Setting up data
I0411 23:26:13.156281 12010 net.cpp:157] Top shape: 1024 3 48 48 (7077888)
I0411 23:26:13.156287 12010 net.cpp:157] Top shape: 1024 (1024)
I0411 23:26:13.156291 12010 net.cpp:165] Memory required for data: 28315648
I0411 23:26:13.156299 12010 layer_factory.hpp:77] Creating layer conv1
I0411 23:26:13.156322 12010 net.cpp:100] Creating Layer conv1
I0411 23:26:13.156327 12010 net.cpp:434] conv1 <- data
I0411 23:26:13.156340 12010 net.cpp:408] conv1 -> conv1
I0411 23:26:13.479041 12010 net.cpp:150] Setting up conv1
I0411 23:26:13.479069 12010 net.cpp:157] Top shape: 1024 100 42 42 (180633600)
I0411 23:26:13.479074 12010 net.cpp:165] Memory required for data: 750850048
I0411 23:26:13.479095 12010 layer_factory.hpp:77] Creating layer conv1_prescale
I0411 23:26:13.479116 12010 net.cpp:100] Creating Layer conv1_prescale
I0411 23:26:13.479122 12010 net.cpp:434] conv1_prescale <- conv1
I0411 23:26:13.479128 12010 net.cpp:395] conv1_prescale -> conv1 (in-place)
I0411 23:26:13.479249 12010 net.cpp:150] Setting up conv1_prescale
I0411 23:26:13.479256 12010 net.cpp:157] Top shape: 1024 100 42 42 (180633600)
I0411 23:26:13.479259 12010 net.cpp:165] Memory required for data: 1473384448
I0411 23:26:13.479266 12010 layer_factory.hpp:77] Creating layer conv1_sTanH
I0411 23:26:13.479274 12010 net.cpp:100] Creating Layer conv1_sTanH
I0411 23:26:13.479279 12010 net.cpp:434] conv1_sTanH <- conv1
I0411 23:26:13.479284 12010 net.cpp:395] conv1_sTanH -> conv1 (in-place)
I0411 23:26:13.479475 12010 net.cpp:150] Setting up conv1_sTanH
I0411 23:26:13.479486 12010 net.cpp:157] Top shape: 1024 100 42 42 (180633600)
I0411 23:26:13.479490 12010 net.cpp:165] Memory required for data: 2195918848
I0411 23:26:13.479495 12010 layer_factory.hpp:77] Creating layer conv1_postscale
I0411 23:26:13.479501 12010 net.cpp:100] Creating Layer conv1_postscale
I0411 23:26:13.479506 12010 net.cpp:434] conv1_postscale <- conv1
I0411 23:26:13.479511 12010 net.cpp:395] conv1_postscale -> conv1 (in-place)
I0411 23:26:13.479605 12010 net.cpp:150] Setting up conv1_postscale
I0411 23:26:13.479614 12010 net.cpp:157] Top shape: 1024 100 42 42 (180633600)
I0411 23:26:13.479616 12010 net.cpp:165] Memory required for data: 2918453248
I0411 23:26:13.479621 12010 layer_factory.hpp:77] Creating layer pool1
I0411 23:26:13.479629 12010 net.cpp:100] Creating Layer pool1
I0411 23:26:13.479632 12010 net.cpp:434] pool1 <- conv1
I0411 23:26:13.479637 12010 net.cpp:408] pool1 -> pool1
I0411 23:26:13.479708 12010 net.cpp:150] Setting up pool1
I0411 23:26:13.479717 12010 net.cpp:157] Top shape: 1024 100 21 21 (45158400)
I0411 23:26:13.479720 12010 net.cpp:165] Memory required for data: 3099086848
I0411 23:26:13.479723 12010 layer_factory.hpp:77] Creating layer conv2
I0411 23:26:13.479733 12010 net.cpp:100] Creating Layer conv2
I0411 23:26:13.479738 12010 net.cpp:434] conv2 <- pool1
I0411 23:26:13.479743 12010 net.cpp:408] conv2 -> conv2
I0411 23:26:13.498504 12010 net.cpp:150] Setting up conv2
I0411 23:26:13.498522 12010 net.cpp:157] Top shape: 1024 150 18 18 (49766400)
I0411 23:26:13.498527 12010 net.cpp:165] Memory required for data: 3298152448
I0411 23:26:13.498538 12010 layer_factory.hpp:77] Creating layer conv2_prescale
I0411 23:26:13.498545 12010 net.cpp:100] Creating Layer conv2_prescale
I0411 23:26:13.498549 12010 net.cpp:434] conv2_prescale <- conv2
I0411 23:26:13.498554 12010 net.cpp:395] conv2_prescale -> conv2 (in-place)
I0411 23:26:13.498661 12010 net.cpp:150] Setting up conv2_prescale
I0411 23:26:13.498670 12010 net.cpp:157] Top shape: 1024 150 18 18 (49766400)
I0411 23:26:13.498673 12010 net.cpp:165] Memory required for data: 3497218048
I0411 23:26:13.498678 12010 layer_factory.hpp:77] Creating layer conv2_sTanH
I0411 23:26:13.498687 12010 net.cpp:100] Creating Layer conv2_sTanH
I0411 23:26:13.498692 12010 net.cpp:434] conv2_sTanH <- conv2
I0411 23:26:13.498697 12010 net.cpp:395] conv2_sTanH -> conv2 (in-place)
I0411 23:26:13.499614 12010 net.cpp:150] Setting up conv2_sTanH
I0411 23:26:13.499629 12010 net.cpp:157] Top shape: 1024 150 18 18 (49766400)
I0411 23:26:13.499634 12010 net.cpp:165] Memory required for data: 3696283648
I0411 23:26:13.499636 12010 layer_factory.hpp:77] Creating layer conv2_postscale
I0411 23:26:13.499644 12010 net.cpp:100] Creating Layer conv2_postscale
I0411 23:26:13.499647 12010 net.cpp:434] conv2_postscale <- conv2
I0411 23:26:13.499653 12010 net.cpp:395] conv2_postscale -> conv2 (in-place)
I0411 23:26:13.499747 12010 net.cpp:150] Setting up conv2_postscale
I0411 23:26:13.499754 12010 net.cpp:157] Top shape: 1024 150 18 18 (49766400)
I0411 23:26:13.499758 12010 net.cpp:165] Memory required for data: 3895349248
I0411 23:26:13.499763 12010 layer_factory.hpp:77] Creating layer pool2
I0411 23:26:13.499768 12010 net.cpp:100] Creating Layer pool2
I0411 23:26:13.499773 12010 net.cpp:434] pool2 <- conv2
I0411 23:26:13.499778 12010 net.cpp:408] pool2 -> pool2
I0411 23:26:13.499814 12010 net.cpp:150] Setting up pool2
I0411 23:26:13.499821 12010 net.cpp:157] Top shape: 1024 150 9 9 (12441600)
I0411 23:26:13.499825 12010 net.cpp:165] Memory required for data: 3945115648
I0411 23:26:13.499827 12010 layer_factory.hpp:77] Creating layer conv3
I0411 23:26:13.499835 12010 net.cpp:100] Creating Layer conv3
I0411 23:26:13.499840 12010 net.cpp:434] conv3 <- pool2
I0411 23:26:13.499845 12010 net.cpp:408] conv3 -> conv3
I0411 23:26:13.505648 12010 net.cpp:150] Setting up conv3
I0411 23:26:13.505666 12010 net.cpp:157] Top shape: 1024 250 6 6 (9216000)
I0411 23:26:13.505669 12010 net.cpp:165] Memory required for data: 3981979648
I0411 23:26:13.505679 12010 layer_factory.hpp:77] Creating layer conv3_prescale
I0411 23:26:13.505687 12010 net.cpp:100] Creating Layer conv3_prescale
I0411 23:26:13.505691 12010 net.cpp:434] conv3_prescale <- conv3
I0411 23:26:13.505697 12010 net.cpp:395] conv3_prescale -> conv3 (in-place)
I0411 23:26:13.505787 12010 net.cpp:150] Setting up conv3_prescale
I0411 23:26:13.505796 12010 net.cpp:157] Top shape: 1024 250 6 6 (9216000)
I0411 23:26:13.505800 12010 net.cpp:165] Memory required for data: 4018843648
I0411 23:26:13.505803 12010 layer_factory.hpp:77] Creating layer conv3_sTanH
I0411 23:26:13.505808 12010 net.cpp:100] Creating Layer conv3_sTanH
I0411 23:26:13.505813 12010 net.cpp:434] conv3_sTanH <- conv3
I0411 23:26:13.505817 12010 net.cpp:395] conv3_sTanH -> conv3 (in-place)
I0411 23:26:13.507225 12010 net.cpp:150] Setting up conv3_sTanH
I0411 23:26:13.507243 12010 net.cpp:157] Top shape: 1024 250 6 6 (9216000)
I0411 23:26:13.507247 12010 net.cpp:165] Memory required for data: 4055707648
I0411 23:26:13.507266 12010 layer_factory.hpp:77] Creating layer conv3_postscale
I0411 23:26:13.507274 12010 net.cpp:100] Creating Layer conv3_postscale
I0411 23:26:13.507277 12010 net.cpp:434] conv3_postscale <- conv3
I0411 23:26:13.507283 12010 net.cpp:395] conv3_postscale -> conv3 (in-place)
I0411 23:26:13.507385 12010 net.cpp:150] Setting up conv3_postscale
I0411 23:26:13.507393 12010 net.cpp:157] Top shape: 1024 250 6 6 (9216000)
I0411 23:26:13.507396 12010 net.cpp:165] Memory required for data: 4092571648
I0411 23:26:13.507401 12010 layer_factory.hpp:77] Creating layer pool3
I0411 23:26:13.507410 12010 net.cpp:100] Creating Layer pool3
I0411 23:26:13.507414 12010 net.cpp:434] pool3 <- conv3
I0411 23:26:13.507419 12010 net.cpp:408] pool3 -> pool3
I0411 23:26:13.507455 12010 net.cpp:150] Setting up pool3
I0411 23:26:13.507462 12010 net.cpp:157] Top shape: 1024 250 3 3 (2304000)
I0411 23:26:13.507465 12010 net.cpp:165] Memory required for data: 4101787648
I0411 23:26:13.507468 12010 layer_factory.hpp:77] Creating layer fc4_300
I0411 23:26:13.507477 12010 net.cpp:100] Creating Layer fc4_300
I0411 23:26:13.507481 12010 net.cpp:434] fc4_300 <- pool3
I0411 23:26:13.507488 12010 net.cpp:408] fc4_300 -> fc4_300
I0411 23:26:13.513077 12010 net.cpp:150] Setting up fc4_300
I0411 23:26:13.513093 12010 net.cpp:157] Top shape: 1024 300 (307200)
I0411 23:26:13.513098 12010 net.cpp:165] Memory required for data: 4103016448
I0411 23:26:13.513104 12010 layer_factory.hpp:77] Creating layer fc4_prescale
I0411 23:26:13.513111 12010 net.cpp:100] Creating Layer fc4_prescale
I0411 23:26:13.513114 12010 net.cpp:434] fc4_prescale <- fc4_300
I0411 23:26:13.513120 12010 net.cpp:395] fc4_prescale -> fc4_300 (in-place)
I0411 23:26:13.513206 12010 net.cpp:150] Setting up fc4_prescale
I0411 23:26:13.513216 12010 net.cpp:157] Top shape: 1024 300 (307200)
I0411 23:26:13.513218 12010 net.cpp:165] Memory required for data: 4104245248
I0411 23:26:13.513223 12010 layer_factory.hpp:77] Creating layer fc4_sTanH
I0411 23:26:13.513228 12010 net.cpp:100] Creating Layer fc4_sTanH
I0411 23:26:13.513231 12010 net.cpp:434] fc4_sTanH <- fc4_300
I0411 23:26:13.513236 12010 net.cpp:395] fc4_sTanH -> fc4_300 (in-place)
I0411 23:26:13.513414 12010 net.cpp:150] Setting up fc4_sTanH
I0411 23:26:13.513427 12010 net.cpp:157] Top shape: 1024 300 (307200)
I0411 23:26:13.513429 12010 net.cpp:165] Memory required for data: 4105474048
I0411 23:26:13.513432 12010 layer_factory.hpp:77] Creating layer fc4_postscale
I0411 23:26:13.513438 12010 net.cpp:100] Creating Layer fc4_postscale
I0411 23:26:13.513442 12010 net.cpp:434] fc4_postscale <- fc4_300
I0411 23:26:13.513447 12010 net.cpp:395] fc4_postscale -> fc4_300 (in-place)
I0411 23:26:13.513542 12010 net.cpp:150] Setting up fc4_postscale
I0411 23:26:13.513550 12010 net.cpp:157] Top shape: 1024 300 (307200)
I0411 23:26:13.513553 12010 net.cpp:165] Memory required for data: 4106702848
I0411 23:26:13.513557 12010 layer_factory.hpp:77] Creating layer drop4
I0411 23:26:13.513563 12010 net.cpp:100] Creating Layer drop4
I0411 23:26:13.513566 12010 net.cpp:434] drop4 <- fc4_300
I0411 23:26:13.513571 12010 net.cpp:395] drop4 -> fc4_300 (in-place)
I0411 23:26:13.513595 12010 net.cpp:150] Setting up drop4
I0411 23:26:13.513602 12010 net.cpp:157] Top shape: 1024 300 (307200)
I0411 23:26:13.513605 12010 net.cpp:165] Memory required for data: 4107931648
I0411 23:26:13.513608 12010 layer_factory.hpp:77] Creating layer fc5_67
I0411 23:26:13.513613 12010 net.cpp:100] Creating Layer fc5_67
I0411 23:26:13.513617 12010 net.cpp:434] fc5_67 <- fc4_300
I0411 23:26:13.513622 12010 net.cpp:408] fc5_67 -> fc5_classes
I0411 23:26:13.515190 12010 net.cpp:150] Setting up fc5_67
I0411 23:26:13.515204 12010 net.cpp:157] Top shape: 1024 67 (68608)
I0411 23:26:13.515208 12010 net.cpp:165] Memory required for data: 4108206080
I0411 23:26:13.515218 12010 layer_factory.hpp:77] Creating layer loss
I0411 23:26:13.515224 12010 net.cpp:100] Creating Layer loss
I0411 23:26:13.515228 12010 net.cpp:434] loss <- fc5_classes
I0411 23:26:13.515244 12010 net.cpp:434] loss <- label
I0411 23:26:13.515251 12010 net.cpp:408] loss -> loss
I0411 23:26:13.515264 12010 layer_factory.hpp:77] Creating layer loss
…
I0411 23:26:13.516145 12010 solver.cpp:193] Creating test net (#0) specified by test_net file: ./Prototxt/experiment_9/rtsd-r1/histeq/trial_1/test.prototxt
I0411 23:26:13.516384 12010 net.cpp:58] Initializing net from parameters: 
state {
  phase: TEST
}
layer {
  name: "data"
  type: "Data"
  top: "data"
  top: "label"
  include {
    phase: TEST
  }
  transform_param {
    scale: 0.0039215689
    mirror: false
    crop_size: 48
    mean_value: 124
    mean_value: 121
    mean_value: 142
  }
  data_param {
    source: "../local_data/lmdb/rtsd-r1/histeq/test/lmdb"
    batch_size: 1024
    backend: LMDB
  }
}
layer {
  name: "conv1"
  type: "Convolution"
  bottom: "data"
  top: "conv1"
  convolution_param {
    num_output: 100
    pad: 0
    kernel_size: 7
    group: 1
    stride: 1
    weight_filler {
      type: "xavier"
    }
  }
}
layer {
  name: "conv1_prescale"
  type: "Scale"
  bottom: "conv1"
  top: "conv1"
  param {
    lr_mult: 0
    decay_mult: 0
  }
  scale_param {
    filler {
      value: 0.6666
    }
    bias_term: false
  }
}
layer {
  name: "conv1_sTanH"
  type: "TanH"
  bottom: "conv1"
  top: "conv1"
}
layer {
  name: "conv1_postscale"
  type: "Scale"
  bottom: "conv1"
  top: "conv1"
  param {
    lr_mult: 0
    decay_mult: 0
  }
  scale_param {
    filler {
      value: 1.7159
    }
    bias_term: false
  }
}
layer {
  name: "pool1"
  type: "Pooling"
  bottom: "conv1"
  top: "pool1"
  pooling_param {
    pool: MAX
    kernel_size: 2
    stride: 2
  }
}
layer {
  name: "conv2"
  type: "Convolution"
  bottom: "pool1"
  top: "conv2"
  convolution_param {
    num_output: 150
    pad: 0
    kernel_size: 4
    group: 1
    stride: 1
    weight_filler {
      type: "xavier"
    }
  }
}
layer {
  name: "conv2_prescale"
  type: "Scale"
  bottom: "conv2"
  top: "conv2"
  param {
    lr_mult: 0
    decay_mult: 0
  }
  scale_param {
    filler {
      value: 0.6666
    }
    bias_term: false
  }
}
layer {
  name: "conv2_sTanH"
  type: "TanH"
  bottom: "conv2"
  top: "conv2"
}
layer {
  name: "conv2_postscale"
  type: "Scale"
  bottom: "conv2"
  top: "conv2"
  param {
    lr_mult: 0
    decay_mult: 0
  }
  scale_param {
    filler {
      value: 1.7159
    }
    bias_term: false
  }
}
layer {
  name: "pool2"
  type: "Pooling"
  bottom: "conv2"
  top: "pool2"
  pooling_param {
    pool: MAX
    kernel_size: 2
    stride: 2
  }
}
layer {
  name: "conv3"
  type: "Convolution"
  bottom: "pool2"
  top: "conv3"
  convolution_param {
    num_output: 250
    pad: 0
    kernel_size: 4
    group: 1
    stride: 1
    weight_filler {
      type: "xavier"
    }
  }
}
layer {
  name: "conv3_prescale"
  type: "Scale"
  bottom: "conv3"
  top: "conv3"
  param {
    lr_mult: 0
    decay_mult: 0
  }
  scale_param {
    filler {
      value: 0.6666
    }
    bias_term: false
  }
}
layer {
  name: "conv3_sTanH"
  type: "TanH"
  bottom: "conv3"
  top: "conv3"
}
layer {
  name: "conv3_postscale"
  type: "Scale"
  bottom: "conv3"
  top: "conv3"
  param {
    lr_mult: 0
    decay_mult: 0
  }
  scale_param {
    filler {
      value: 1.7159
    }
    bias_term: false
  }
}
layer {
  name: "pool3"
  type: "Pooling"
  bottom: "conv3"
  top: "pool3"
  pooling_param {
    pool: MAX
    kernel_size: 2
    stride: 2
  }
}
layer {
  name: "fc4_300"
  type: "InnerProduct"
  bottom: "pool3"
  top: "fc4_300"
  inner_product_param {
    num_output: 300
    weight_filler {
      type: "xavier"
    }
  }
}
layer {
  name: "fc4_prescale"
  type: "Scale"
  bottom: "fc4_300"
  top: "fc4_300"
  param {
    lr_mult: 0
    decay_mult: 0
  }
  scale_param {
    filler {
      value: 0.6666
    }
    bias_term: false
  }
}
layer {
  name: "fc4_sTanH"
  type: "TanH"
  bottom: "fc4_300"
  top: "fc4_300"
}
layer {
  name: "fc4_postscale"
  type: "Scale"
  bottom: "fc4_300"
  top: "fc4_300"
  param {
    lr_mult: 0
    decay_mult: 0
  }
  scale_param {
    filler {
      value: 1.7159
    }
    bias_term: false
  }
}
layer {
  name: "drop4"
  type: "Dropout"
  bottom: "fc4_300"
  top: "fc4_300"
  dropout_param {
    dropout_ratio: 0.1
  }
}
layer {
  name: "fc5_67"
  type: "InnerProduct"
  bottom: "fc4_300"
  top: "fc5_classes"
  inner_product_param {
    num_output: 67
    weight_filler {
      type: "xavier"
    }
  }
}
layer {
  name: "loss"
  type: "SoftmaxWithLoss"
  bottom: "fc5_classes"
  bottom: "label"
  top: "loss"
}
layer {
  name: "accuracy_1"
  type: "Accuracy"
  bottom: "fc5_classes"
  bottom: "label"
  top: "accuracy_1"
  include {
    phase: TEST
  }
  accuracy_param {
    top_k: 1
  }
}
layer {
  name: "accuracy_5"
  type: "Accuracy"
  bottom: "fc5_classes"
  bottom: "label"
  top: "accuracy_5"
  include {
    phase: TEST
  }
  accuracy_param {
    top_k: 5
  }
}
I0411 23:26:13.516527 12010 layer_factory.hpp:77] Creating layer data
I0411 23:26:13.517258 12010 net.cpp:100] Creating Layer data
I0411 23:26:13.517272 12010 net.cpp:408] data -> data
I0411 23:26:13.517284 12010 net.cpp:408] data -> label
I0411 23:26:13.520830 12186 db_lmdb.cpp:35] Opened lmdb ../local_data/lmdb/rtsd-r1/histeq/test/lmdb
I0411 23:26:13.520992 12010 data_layer.cpp:41] output data size: 1024,3,48,48
I0411 23:26:13.576174 12010 net.cpp:150] Setting up data
I0411 23:26:13.576213 12010 net.cpp:157] Top shape: 1024 3 48 48 (7077888)
I0411 23:26:13.576220 12010 net.cpp:157] Top shape: 1024 (1024)
I0411 23:26:13.576223 12010 net.cpp:165] Memory required for data: 28315648
I0411 23:26:13.576231 12010 layer_factory.hpp:77] Creating layer label_data_1_split
I0411 23:26:13.576248 12010 net.cpp:100] Creating Layer label_data_1_split
I0411 23:26:13.576253 12010 net.cpp:434] label_data_1_split <- label
I0411 23:26:13.576262 12010 net.cpp:408] label_data_1_split -> label_data_1_split_0
I0411 23:26:13.576274 12010 net.cpp:408] label_data_1_split -> label_data_1_split_1
I0411 23:26:13.576311 12010 net.cpp:408] label_data_1_split -> label_data_1_split_2
I0411 23:26:13.576442 12010 net.cpp:150] Setting up label_data_1_split
I0411 23:26:13.576453 12010 net.cpp:157] Top shape: 1024 (1024)
I0411 23:26:13.576458 12010 net.cpp:157] Top shape: 1024 (1024)
I0411 23:26:13.576462 12010 net.cpp:157] Top shape: 1024 (1024)
I0411 23:26:13.576465 12010 net.cpp:165] Memory required for data: 28327936
I0411 23:26:13.576469 12010 layer_factory.hpp:77] Creating layer conv1
I0411 23:26:13.576483 12010 net.cpp:100] Creating Layer conv1
I0411 23:26:13.576489 12010 net.cpp:434] conv1 <- data
I0411 23:26:13.576496 12010 net.cpp:408] conv1 -> conv1
I0411 23:26:13.581094 12010 net.cpp:150] Setting up conv1
I0411 23:26:13.581125 12010 net.cpp:157] Top shape: 1024 100 42 42 (180633600)
I0411 23:26:13.581130 12010 net.cpp:165] Memory required for data: 750862336
I0411 23:26:13.581148 12010 layer_factory.hpp:77] Creating layer conv1_prescale
I0411 23:26:13.581162 12010 net.cpp:100] Creating Layer conv1_prescale
I0411 23:26:13.581171 12010 net.cpp:434] conv1_prescale <- conv1
I0411 23:26:13.581178 12010 net.cpp:395] conv1_prescale -> conv1 (in-place)
I0411 23:26:13.581332 12010 net.cpp:150] Setting up conv1_prescale
I0411 23:26:13.581344 12010 net.cpp:157] Top shape: 1024 100 42 42 (180633600)
I0411 23:26:13.581353 12010 net.cpp:165] Memory required for data: 1473396736
I0411 23:26:13.581362 12010 layer_factory.hpp:77] Creating layer conv1_sTanH
I0411 23:26:13.581369 12010 net.cpp:100] Creating Layer conv1_sTanH
I0411 23:26:13.581373 12010 net.cpp:434] conv1_sTanH <- conv1
I0411 23:26:13.581379 12010 net.cpp:395] conv1_sTanH -> conv1 (in-place)
I0411 23:26:13.581604 12010 net.cpp:150] Setting up conv1_sTanH
I0411 23:26:13.581617 12010 net.cpp:157] Top shape: 1024 100 42 42 (180633600)
I0411 23:26:13.581620 12010 net.cpp:165] Memory required for data: 2195931136
I0411 23:26:13.581624 12010 layer_factory.hpp:77] Creating layer conv1_postscale
I0411 23:26:13.581634 12010 net.cpp:100] Creating Layer conv1_postscale
I0411 23:26:13.581637 12010 net.cpp:434] conv1_postscale <- conv1
I0411 23:26:13.581645 12010 net.cpp:395] conv1_postscale -> conv1 (in-place)
I0411 23:26:13.581766 12010 net.cpp:150] Setting up conv1_postscale
I0411 23:26:13.581776 12010 net.cpp:157] Top shape: 1024 100 42 42 (180633600)
I0411 23:26:13.581780 12010 net.cpp:165] Memory required for data: 2918465536
I0411 23:26:13.581786 12010 layer_factory.hpp:77] Creating layer pool1
I0411 23:26:13.581794 12010 net.cpp:100] Creating Layer pool1
I0411 23:26:13.581797 12010 net.cpp:434] pool1 <- conv1
I0411 23:26:13.581804 12010 net.cpp:408] pool1 -> pool1
I0411 23:26:13.581852 12010 net.cpp:150] Setting up pool1
I0411 23:26:13.581861 12010 net.cpp:157] Top shape: 1024 100 21 21 (45158400)
I0411 23:26:13.581866 12010 net.cpp:165] Memory required for data: 3099099136
I0411 23:26:13.581868 12010 layer_factory.hpp:77] Creating layer conv2
I0411 23:26:13.581878 12010 net.cpp:100] Creating Layer conv2
I0411 23:26:13.581884 12010 net.cpp:434] conv2 <- pool1
I0411 23:26:13.581892 12010 net.cpp:408] conv2 -> conv2
I0411 23:26:13.594216 12010 net.cpp:150] Setting up conv2
I0411 23:26:13.594245 12010 net.cpp:157] Top shape: 1024 150 18 18 (49766400)
I0411 23:26:13.594250 12010 net.cpp:165] Memory required for data: 3298164736
I0411 23:26:13.594264 12010 layer_factory.hpp:77] Creating layer conv2_prescale
I0411 23:26:13.594276 12010 net.cpp:100] Creating Layer conv2_prescale
I0411 23:26:13.594283 12010 net.cpp:434] conv2_prescale <- conv2
I0411 23:26:13.594293 12010 net.cpp:395] conv2_prescale -> conv2 (in-place)
I0411 23:26:13.594424 12010 net.cpp:150] Setting up conv2_prescale
I0411 23:26:13.594434 12010 net.cpp:157] Top shape: 1024 150 18 18 (49766400)
I0411 23:26:13.594439 12010 net.cpp:165] Memory required for data: 3497230336
I0411 23:26:13.594444 12010 layer_factory.hpp:77] Creating layer conv2_sTanH
I0411 23:26:13.594452 12010 net.cpp:100] Creating Layer conv2_sTanH
I0411 23:26:13.594455 12010 net.cpp:434] conv2_sTanH <- conv2
I0411 23:26:13.594461 12010 net.cpp:395] conv2_sTanH -> conv2 (in-place)
I0411 23:26:13.600381 12010 net.cpp:150] Setting up conv2_sTanH
I0411 23:26:13.600412 12010 net.cpp:157] Top shape: 1024 150 18 18 (49766400)
I0411 23:26:13.600416 12010 net.cpp:165] Memory required for data: 3696295936
I0411 23:26:13.600421 12010 layer_factory.hpp:77] Creating layer conv2_postscale
I0411 23:26:13.600431 12010 net.cpp:100] Creating Layer conv2_postscale
I0411 23:26:13.600437 12010 net.cpp:434] conv2_postscale <- conv2
I0411 23:26:13.600445 12010 net.cpp:395] conv2_postscale -> conv2 (in-place)
I0411 23:26:13.600567 12010 net.cpp:150] Setting up conv2_postscale
I0411 23:26:13.600579 12010 net.cpp:157] Top shape: 1024 150 18 18 (49766400)
I0411 23:26:13.600581 12010 net.cpp:165] Memory required for data: 3895361536
I0411 23:26:13.600589 12010 layer_factory.hpp:77] Creating layer pool2
I0411 23:26:13.600595 12010 net.cpp:100] Creating Layer pool2
I0411 23:26:13.600605 12010 net.cpp:434] pool2 <- conv2
I0411 23:26:13.600611 12010 net.cpp:408] pool2 -> pool2
I0411 23:26:13.600669 12010 net.cpp:150] Setting up pool2
I0411 23:26:13.600679 12010 net.cpp:157] Top shape: 1024 150 9 9 (12441600)
I0411 23:26:13.600682 12010 net.cpp:165] Memory required for data: 3945127936
I0411 23:26:13.600687 12010 layer_factory.hpp:77] Creating layer conv3
I0411 23:26:13.600697 12010 net.cpp:100] Creating Layer conv3
I0411 23:26:13.600703 12010 net.cpp:434] conv3 <- pool2
I0411 23:26:13.600709 12010 net.cpp:408] conv3 -> conv3
I0411 23:26:13.607501 12010 net.cpp:150] Setting up conv3
I0411 23:26:13.607523 12010 net.cpp:157] Top shape: 1024 250 6 6 (9216000)
I0411 23:26:13.607527 12010 net.cpp:165] Memory required for data: 3981991936
I0411 23:26:13.607540 12010 layer_factory.hpp:77] Creating layer conv3_prescale
I0411 23:26:13.607550 12010 net.cpp:100] Creating Layer conv3_prescale
I0411 23:26:13.607555 12010 net.cpp:434] conv3_prescale <- conv3
I0411 23:26:13.607563 12010 net.cpp:395] conv3_prescale -> conv3 (in-place)
I0411 23:26:13.607674 12010 net.cpp:150] Setting up conv3_prescale
I0411 23:26:13.607686 12010 net.cpp:157] Top shape: 1024 250 6 6 (9216000)
I0411 23:26:13.607688 12010 net.cpp:165] Memory required for data: 4018855936
I0411 23:26:13.607694 12010 layer_factory.hpp:77] Creating layer conv3_sTanH
I0411 23:26:13.607702 12010 net.cpp:100] Creating Layer conv3_sTanH
I0411 23:26:13.607704 12010 net.cpp:434] conv3_sTanH <- conv3
I0411 23:26:13.607710 12010 net.cpp:395] conv3_sTanH -> conv3 (in-place)
I0411 23:26:13.611338 12010 net.cpp:150] Setting up conv3_sTanH
I0411 23:26:13.611367 12010 net.cpp:157] Top shape: 1024 250 6 6 (9216000)
I0411 23:26:13.611372 12010 net.cpp:165] Memory required for data: 4055719936
I0411 23:26:13.611378 12010 layer_factory.hpp:77] Creating layer conv3_postscale
I0411 23:26:13.611392 12010 net.cpp:100] Creating Layer conv3_postscale
I0411 23:26:13.611397 12010 net.cpp:434] conv3_postscale <- conv3
I0411 23:26:13.611407 12010 net.cpp:395] conv3_postscale -> conv3 (in-place)
I0411 23:26:13.611557 12010 net.cpp:150] Setting up conv3_postscale
I0411 23:26:13.611569 12010 net.cpp:157] Top shape: 1024 250 6 6 (9216000)
I0411 23:26:13.611588 12010 net.cpp:165] Memory required for data: 4092583936
I0411 23:26:13.611595 12010 layer_factory.hpp:77] Creating layer pool3
I0411 23:26:13.611606 12010 net.cpp:100] Creating Layer pool3
I0411 23:26:13.611613 12010 net.cpp:434] pool3 <- conv3
I0411 23:26:13.611619 12010 net.cpp:408] pool3 -> pool3
I0411 23:26:13.611667 12010 net.cpp:150] Setting up pool3
I0411 23:26:13.611676 12010 net.cpp:157] Top shape: 1024 250 3 3 (2304000)
I0411 23:26:13.611680 12010 net.cpp:165] Memory required for data: 4101799936
I0411 23:26:13.611686 12010 layer_factory.hpp:77] Creating layer fc4_300
I0411 23:26:13.611696 12010 net.cpp:100] Creating Layer fc4_300
I0411 23:26:13.611699 12010 net.cpp:434] fc4_300 <- pool3
I0411 23:26:13.611706 12010 net.cpp:408] fc4_300 -> fc4_300
I0411 23:26:13.618379 12010 net.cpp:150] Setting up fc4_300
I0411 23:26:13.618402 12010 net.cpp:157] Top shape: 1024 300 (307200)
I0411 23:26:13.618405 12010 net.cpp:165] Memory required for data: 4103028736
I0411 23:26:13.618433 12010 layer_factory.hpp:77] Creating layer fc4_prescale
I0411 23:26:13.618443 12010 net.cpp:100] Creating Layer fc4_prescale
I0411 23:26:13.618453 12010 net.cpp:434] fc4_prescale <- fc4_300
I0411 23:26:13.618460 12010 net.cpp:395] fc4_prescale -> fc4_300 (in-place)
I0411 23:26:13.618573 12010 net.cpp:150] Setting up fc4_prescale
I0411 23:26:13.618583 12010 net.cpp:157] Top shape: 1024 300 (307200)
I0411 23:26:13.618587 12010 net.cpp:165] Memory required for data: 4104257536
I0411 23:26:13.618592 12010 layer_factory.hpp:77] Creating layer fc4_sTanH
I0411 23:26:13.618602 12010 net.cpp:100] Creating Layer fc4_sTanH
I0411 23:26:13.618609 12010 net.cpp:434] fc4_sTanH <- fc4_300
I0411 23:26:13.618615 12010 net.cpp:395] fc4_sTanH -> fc4_300 (in-place)
I0411 23:26:13.618844 12010 net.cpp:150] Setting up fc4_sTanH
I0411 23:26:13.618856 12010 net.cpp:157] Top shape: 1024 300 (307200)
I0411 23:26:13.618861 12010 net.cpp:165] Memory required for data: 4105486336
I0411 23:26:13.618866 12010 layer_factory.hpp:77] Creating layer fc4_postscale
I0411 23:26:13.618875 12010 net.cpp:100] Creating Layer fc4_postscale
I0411 23:26:13.618881 12010 net.cpp:434] fc4_postscale <- fc4_300
I0411 23:26:13.618887 12010 net.cpp:395] fc4_postscale -> fc4_300 (in-place)
I0411 23:26:13.619001 12010 net.cpp:150] Setting up fc4_postscale
I0411 23:26:13.619010 12010 net.cpp:157] Top shape: 1024 300 (307200)
I0411 23:26:13.619015 12010 net.cpp:165] Memory required for data: 4106715136
I0411 23:26:13.619020 12010 layer_factory.hpp:77] Creating layer drop4
I0411 23:26:13.619029 12010 net.cpp:100] Creating Layer drop4
I0411 23:26:13.619035 12010 net.cpp:434] drop4 <- fc4_300
I0411 23:26:13.619040 12010 net.cpp:395] drop4 -> fc4_300 (in-place)
I0411 23:26:13.619071 12010 net.cpp:150] Setting up drop4
I0411 23:26:13.619077 12010 net.cpp:157] Top shape: 1024 300 (307200)
I0411 23:26:13.619082 12010 net.cpp:165] Memory required for data: 4107943936
I0411 23:26:13.619086 12010 layer_factory.hpp:77] Creating layer fc5_67
I0411 23:26:13.619093 12010 net.cpp:100] Creating Layer fc5_67
I0411 23:26:13.619098 12010 net.cpp:434] fc5_67 <- fc4_300
I0411 23:26:13.619104 12010 net.cpp:408] fc5_67 -> fc5_classes
I0411 23:26:13.619400 12010 net.cpp:150] Setting up fc5_67
I0411 23:26:13.619410 12010 net.cpp:157] Top shape: 1024 67 (68608)
I0411 23:26:13.619415 12010 net.cpp:165] Memory required for data: 4108218368
I0411 23:26:13.619427 12010 layer_factory.hpp:77] Creating layer fc5_classes_fc5_67_0_split
I0411 23:26:13.619436 12010 net.cpp:100] Creating Layer fc5_classes_fc5_67_0_split
I0411 23:26:13.619442 12010 net.cpp:434] fc5_classes_fc5_67_0_split <- fc5_classes
I0411 23:26:13.619448 12010 net.cpp:408] fc5_classes_fc5_67_0_split -> fc5_classes_fc5_67_0_split_0
I0411 23:26:13.619457 12010 net.cpp:408] fc5_classes_fc5_67_0_split -> fc5_classes_fc5_67_0_split_1
I0411 23:26:13.619465 12010 net.cpp:408] fc5_classes_fc5_67_0_split -> fc5_classes_fc5_67_0_split_2
I0411 23:26:13.619524 12010 net.cpp:150] Setting up fc5_classes_fc5_67_0_split
I0411 23:26:13.619534 12010 net.cpp:157] Top shape: 1024 67 (68608)
I0411 23:26:13.619539 12010 net.cpp:157] Top shape: 1024 67 (68608)
I0411 23:26:13.619544 12010 net.cpp:157] Top shape: 1024 67 (68608)
I0411 23:26:13.619546 12010 net.cpp:165] Memory required for data: 4109041664
I0411 23:26:13.619550 12010 layer_factory.hpp:77] Creating layer loss
I0411 23:26:13.619557 12010 net.cpp:100] Creating Layer loss
I0411 23:26:13.619562 12010 net.cpp:434] loss <- fc5_classes_fc5_67_0_split_0
I0411 23:26:13.619568 12010 net.cpp:434] loss <- label_data_1_split_0
I0411 23:26:13.619575 12010 net.cpp:408] loss -> loss
…
