…
I0529 00:08:55.120790  9677 solver.cpp:81] Creating training net from train_net file: ./Prototxt/experiment_22/RTSD/histeq/trial_4/train.prototxt
I0529 00:08:55.130242  9677 net.cpp:58] Initializing net from parameters: 
state {
  phase: TRAIN
  level: 0
  stage: ""
}
layer {
  name: "data"
  type: "Data"
  top: "data"
  top: "label"
  include {
    phase: TRAIN
  }
  transform_param {
    scale: 0.0039215689
    mirror: false
    crop_size: 48
    mean_value: 134
    mean_value: 128
    mean_value: 128
  }
  data_param {
    source: "../local_data/lmdb/RTSD/histeq/train/lmdb"
    batch_size: 1024
    backend: LMDB
  }
}
layer {
  name: "conv1"
  type: "Convolution"
  bottom: "data"
  top: "conv1"
  convolution_param {
    num_output: 100
    pad: 0
    kernel_size: 7
    group: 1
    stride: 1
    weight_filler {
      type: "xavier"
    }
  }
}
layer {
  name: "conv1_relu"
  type: "ReLU"
  bottom: "conv1"
  top: "conv1"
}
layer {
  name: "pool1"
  type: "Pooling"
  bottom: "conv1"
  top: "pool1"
  pooling_param {
    pool: MAX
    kernel_size: 2
    stride: 2
  }
}
layer {
  name: "conv2"
  type: "Convolution"
  bottom: "pool1"
  top: "conv2"
  convolution_param {
    num_output: 150
    pad: 0
    kernel_size: 4
    group: 1
    stride: 1
    weight_filler {
      type: "xavier"
    }
  }
}
layer {
  name: "conv2_relu"
  type: "ReLU"
  bottom: "conv2"
  top: "conv2"
}
layer {
  name: "pool2"
  type: "Pooling"
  bottom: "conv2"
  top: "pool2"
  pooling_param {
    pool: MAX
    kernel_size: 2
    stride: 2
  }
}
layer {
  name: "conv3"
  type: "Convolution"
  bottom: "pool2"
  top: "conv3"
  convolution_param {
    num_output: 250
    pad: 0
    kernel_size: 4
    group: 1
    stride: 1
    weight_filler {
      type: "xavier"
    }
  }
}
layer {
  name: "conv3_relu"
  type: "ReLU"
  bottom: "conv3"
  top: "conv3"
}
layer {
  name: "pool3"
  type: "Pooling"
  bottom: "conv3"
  top: "pool3"
  pooling_param {
    pool: MAX
    kernel_size: 2
    stride: 2
  }
}
layer {
  name: "fc4_300"
  type: "InnerProduct"
  bottom: "pool3"
  top: "fc4_300"
  inner_product_param {
    num_output: 300
    weight_filler {
      type: "xavier"
    }
  }
}
layer {
  name: "fc4_relu"
  type: "ReLU"
  bottom: "fc4_300"
  top: "fc4_300"
}
layer {
  name: "fc5_116"
  type: "InnerProduct"
  bottom: "fc4_300"
  top: "fc5_classes"
  inner_product_param {
    num_output: 116
    weight_filler {
      type: "xavier"
    }
  }
}
layer {
  name: "softmax"
  type: "Softmax"
  bottom: "fc5_classes"
  top: "softmax"
}
layer {
  name: "loss"
  type: "MultinomialLogisticLoss"
  bottom: "softmax"
  bottom: "label"
  top: "loss"
}
layer {
  name: "accuracy_1"
  type: "Accuracy"
  bottom: "fc5_classes"
  bottom: "label"
  top: "accuracy_1"
  accuracy_param {
    top_k: 1
  }
}
layer {
  name: "accuracy_5"
  type: "Accuracy"
  bottom: "fc5_classes"
  bottom: "label"
  top: "accuracy_5"
  accuracy_param {
    top_k: 5
  }
}
layer {
  name: "silence"
  type: "Silence"
  bottom: "accuracy_1"
  bottom: "accuracy_5"
}
I0529 00:08:55.130370  9677 layer_factory.hpp:77] Creating layer data
I0529 00:08:55.131412  9677 net.cpp:100] Creating Layer data
I0529 00:08:55.131430  9677 net.cpp:408] data -> data
I0529 00:08:55.131474  9677 net.cpp:408] data -> label
I0529 00:08:55.132901  9712 db_lmdb.cpp:35] Opened lmdb ../local_data/lmdb/RTSD/histeq/train/lmdb
I0529 00:08:55.166234  9677 data_layer.cpp:41] output data size: 1024,3,48,48
I0529 00:08:55.233490  9677 net.cpp:150] Setting up data
I0529 00:08:55.233566  9677 net.cpp:157] Top shape: 1024 3 48 48 (7077888)
I0529 00:08:55.233575  9677 net.cpp:157] Top shape: 1024 (1024)
I0529 00:08:55.233582  9677 net.cpp:165] Memory required for data: 28315648
I0529 00:08:55.233603  9677 layer_factory.hpp:77] Creating layer label_data_1_split
I0529 00:08:55.233618  9677 net.cpp:100] Creating Layer label_data_1_split
I0529 00:08:55.233630  9677 net.cpp:434] label_data_1_split <- label
I0529 00:08:55.233655  9677 net.cpp:408] label_data_1_split -> label_data_1_split_0
I0529 00:08:55.233672  9677 net.cpp:408] label_data_1_split -> label_data_1_split_1
I0529 00:08:55.233685  9677 net.cpp:408] label_data_1_split -> label_data_1_split_2
I0529 00:08:55.233762  9677 net.cpp:150] Setting up label_data_1_split
I0529 00:08:55.233774  9677 net.cpp:157] Top shape: 1024 (1024)
I0529 00:08:55.233781  9677 net.cpp:157] Top shape: 1024 (1024)
I0529 00:08:55.233788  9677 net.cpp:157] Top shape: 1024 (1024)
I0529 00:08:55.233793  9677 net.cpp:165] Memory required for data: 28327936
I0529 00:08:55.233799  9677 layer_factory.hpp:77] Creating layer conv1
I0529 00:08:55.233819  9677 net.cpp:100] Creating Layer conv1
I0529 00:08:55.233829  9677 net.cpp:434] conv1 <- data
I0529 00:08:55.233837  9677 net.cpp:408] conv1 -> conv1
I0529 00:08:55.501458  9677 net.cpp:150] Setting up conv1
I0529 00:08:55.501487  9677 net.cpp:157] Top shape: 1024 100 42 42 (180633600)
I0529 00:08:55.501492  9677 net.cpp:165] Memory required for data: 750862336
I0529 00:08:55.501507  9677 layer_factory.hpp:77] Creating layer conv1_relu
I0529 00:08:55.501518  9677 net.cpp:100] Creating Layer conv1_relu
I0529 00:08:55.501524  9677 net.cpp:434] conv1_relu <- conv1
I0529 00:08:55.501533  9677 net.cpp:395] conv1_relu -> conv1 (in-place)
I0529 00:08:55.501680  9677 net.cpp:150] Setting up conv1_relu
I0529 00:08:55.501693  9677 net.cpp:157] Top shape: 1024 100 42 42 (180633600)
I0529 00:08:55.501698  9677 net.cpp:165] Memory required for data: 1473396736
I0529 00:08:55.501703  9677 layer_factory.hpp:77] Creating layer pool1
I0529 00:08:55.501713  9677 net.cpp:100] Creating Layer pool1
I0529 00:08:55.501718  9677 net.cpp:434] pool1 <- conv1
I0529 00:08:55.501725  9677 net.cpp:408] pool1 -> pool1
I0529 00:08:55.501766  9677 net.cpp:150] Setting up pool1
I0529 00:08:55.501775  9677 net.cpp:157] Top shape: 1024 100 21 21 (45158400)
I0529 00:08:55.501780  9677 net.cpp:165] Memory required for data: 1654030336
I0529 00:08:55.501785  9677 layer_factory.hpp:77] Creating layer conv2
I0529 00:08:55.501796  9677 net.cpp:100] Creating Layer conv2
I0529 00:08:55.501801  9677 net.cpp:434] conv2 <- pool1
I0529 00:08:55.501806  9677 net.cpp:408] conv2 -> conv2
I0529 00:08:55.505444  9677 net.cpp:150] Setting up conv2
I0529 00:08:55.505460  9677 net.cpp:157] Top shape: 1024 150 18 18 (49766400)
I0529 00:08:55.505466  9677 net.cpp:165] Memory required for data: 1853095936
I0529 00:08:55.505475  9677 layer_factory.hpp:77] Creating layer conv2_relu
I0529 00:08:55.505481  9677 net.cpp:100] Creating Layer conv2_relu
I0529 00:08:55.505486  9677 net.cpp:434] conv2_relu <- conv2
I0529 00:08:55.505491  9677 net.cpp:395] conv2_relu -> conv2 (in-place)
I0529 00:08:55.505630  9677 net.cpp:150] Setting up conv2_relu
I0529 00:08:55.505641  9677 net.cpp:157] Top shape: 1024 150 18 18 (49766400)
I0529 00:08:55.505645  9677 net.cpp:165] Memory required for data: 2052161536
I0529 00:08:55.505650  9677 layer_factory.hpp:77] Creating layer pool2
I0529 00:08:55.505656  9677 net.cpp:100] Creating Layer pool2
I0529 00:08:55.505661  9677 net.cpp:434] pool2 <- conv2
I0529 00:08:55.505666  9677 net.cpp:408] pool2 -> pool2
I0529 00:08:55.505702  9677 net.cpp:150] Setting up pool2
I0529 00:08:55.505710  9677 net.cpp:157] Top shape: 1024 150 9 9 (12441600)
I0529 00:08:55.505715  9677 net.cpp:165] Memory required for data: 2101927936
I0529 00:08:55.505719  9677 layer_factory.hpp:77] Creating layer conv3
I0529 00:08:55.505730  9677 net.cpp:100] Creating Layer conv3
I0529 00:08:55.505734  9677 net.cpp:434] conv3 <- pool2
I0529 00:08:55.505740  9677 net.cpp:408] conv3 -> conv3
I0529 00:08:55.510591  9677 net.cpp:150] Setting up conv3
I0529 00:08:55.510607  9677 net.cpp:157] Top shape: 1024 250 6 6 (9216000)
I0529 00:08:55.510612  9677 net.cpp:165] Memory required for data: 2138791936
I0529 00:08:55.510622  9677 layer_factory.hpp:77] Creating layer conv3_relu
I0529 00:08:55.510627  9677 net.cpp:100] Creating Layer conv3_relu
I0529 00:08:55.510632  9677 net.cpp:434] conv3_relu <- conv3
I0529 00:08:55.510639  9677 net.cpp:395] conv3_relu -> conv3 (in-place)
I0529 00:08:55.510992  9677 net.cpp:150] Setting up conv3_relu
I0529 00:08:55.511005  9677 net.cpp:157] Top shape: 1024 250 6 6 (9216000)
I0529 00:08:55.511010  9677 net.cpp:165] Memory required for data: 2175655936
I0529 00:08:55.511014  9677 layer_factory.hpp:77] Creating layer pool3
I0529 00:08:55.511023  9677 net.cpp:100] Creating Layer pool3
I0529 00:08:55.511028  9677 net.cpp:434] pool3 <- conv3
I0529 00:08:55.511034  9677 net.cpp:408] pool3 -> pool3
I0529 00:08:55.511070  9677 net.cpp:150] Setting up pool3
I0529 00:08:55.511078  9677 net.cpp:157] Top shape: 1024 250 3 3 (2304000)
I0529 00:08:55.511082  9677 net.cpp:165] Memory required for data: 2184871936
I0529 00:08:55.511087  9677 layer_factory.hpp:77] Creating layer fc4_300
I0529 00:08:55.511095  9677 net.cpp:100] Creating Layer fc4_300
I0529 00:08:55.511098  9677 net.cpp:434] fc4_300 <- pool3
I0529 00:08:55.511108  9677 net.cpp:408] fc4_300 -> fc4_300
I0529 00:08:55.515730  9677 net.cpp:150] Setting up fc4_300
I0529 00:08:55.515745  9677 net.cpp:157] Top shape: 1024 300 (307200)
I0529 00:08:55.515750  9677 net.cpp:165] Memory required for data: 2186100736
I0529 00:08:55.515758  9677 layer_factory.hpp:77] Creating layer fc4_relu
I0529 00:08:55.515764  9677 net.cpp:100] Creating Layer fc4_relu
I0529 00:08:55.515770  9677 net.cpp:434] fc4_relu <- fc4_300
I0529 00:08:55.515775  9677 net.cpp:395] fc4_relu -> fc4_300 (in-place)
I0529 00:08:55.515916  9677 net.cpp:150] Setting up fc4_relu
I0529 00:08:55.515928  9677 net.cpp:157] Top shape: 1024 300 (307200)
I0529 00:08:55.515931  9677 net.cpp:165] Memory required for data: 2187329536
I0529 00:08:55.515936  9677 layer_factory.hpp:77] Creating layer fc5_116
I0529 00:08:55.515943  9677 net.cpp:100] Creating Layer fc5_116
I0529 00:08:55.515946  9677 net.cpp:434] fc5_116 <- fc4_300
I0529 00:08:55.515954  9677 net.cpp:408] fc5_116 -> fc5_classes
I0529 00:08:55.519397  9677 net.cpp:150] Setting up fc5_116
I0529 00:08:55.519410  9677 net.cpp:157] Top shape: 1024 116 (118784)
I0529 00:08:55.519414  9677 net.cpp:165] Memory required for data: 2187804672
I0529 00:08:55.519423  9677 layer_factory.hpp:77] Creating layer fc5_classes_fc5_116_0_split
I0529 00:08:55.519430  9677 net.cpp:100] Creating Layer fc5_classes_fc5_116_0_split
I0529 00:08:55.519434  9677 net.cpp:434] fc5_classes_fc5_116_0_split <- fc5_classes
I0529 00:08:55.519441  9677 net.cpp:408] fc5_classes_fc5_116_0_split -> fc5_classes_fc5_116_0_split_0
I0529 00:08:55.519448  9677 net.cpp:408] fc5_classes_fc5_116_0_split -> fc5_classes_fc5_116_0_split_1
I0529 00:08:55.519455  9677 net.cpp:408] fc5_classes_fc5_116_0_split -> fc5_classes_fc5_116_0_split_2
I0529 00:08:55.519495  9677 net.cpp:150] Setting up fc5_classes_fc5_116_0_split
I0529 00:08:55.519505  9677 net.cpp:157] Top shape: 1024 116 (118784)
I0529 00:08:55.519510  9677 net.cpp:157] Top shape: 1024 116 (118784)
I0529 00:08:55.519513  9677 net.cpp:157] Top shape: 1024 116 (118784)
I0529 00:08:55.519517  9677 net.cpp:165] Memory required for data: 2189230080
I0529 00:08:55.519521  9677 layer_factory.hpp:77] Creating layer softmax
I0529 00:08:55.519528  9677 net.cpp:100] Creating Layer softmax
I0529 00:08:55.519532  9677 net.cpp:434] softmax <- fc5_classes_fc5_116_0_split_0
I0529 00:08:55.519537  9677 net.cpp:408] softmax -> softmax
I0529 00:08:55.519732  9677 net.cpp:150] Setting up softmax
I0529 00:08:55.519745  9677 net.cpp:157] Top shape: 1024 116 (118784)
I0529 00:08:55.519749  9677 net.cpp:165] Memory required for data: 2189705216
I0529 00:08:55.519753  9677 layer_factory.hpp:77] Creating layer loss
I0529 00:08:55.519773  9677 net.cpp:100] Creating Layer loss
I0529 00:08:55.519778  9677 net.cpp:434] loss <- softmax
I0529 00:08:55.519783  9677 net.cpp:434] loss <- label_data_1_split_0
I0529 00:08:55.519789  9677 net.cpp:408] loss -> loss
…
