…
I0412 02:30:12.813020 25534 net.cpp:322] The NetState phase (0) differed from the phase (1) specified by a rule in layer accuracy_5
I0412 02:30:12.813346 25534 net.cpp:58] Initializing net from parameters: 
state {
  phase: TRAIN
  level: 0
  stage: ""
}
layer {
  name: "data"
  type: "Data"
  top: "data"
  top: "label"
  include {
    phase: TRAIN
  }
  transform_param {
    scale: 0.0039215689
    mirror: false
    crop_size: 48
    mean_value: 115
    mean_value: 108
    mean_value: 122
  }
  data_param {
    source: "../local_data/lmdb/rtsd-r1/imajust/train/lmdb"
    batch_size: 1024
    backend: LMDB
  }
}
layer {
  name: "conv1"
  type: "Convolution"
  bottom: "data"
  top: "conv1"
  convolution_param {
    num_output: 100
    pad: 0
    kernel_size: 7
    group: 1
    stride: 1
    weight_filler {
      type: "xavier"
    }
  }
}
layer {
  name: "conv1_prescale"
  type: "Scale"
  bottom: "conv1"
  top: "conv1"
  param {
    lr_mult: 0
    decay_mult: 0
  }
  scale_param {
    filler {
      value: 0.6666
    }
    bias_term: false
  }
}
layer {
  name: "conv1_sTanH"
  type: "TanH"
  bottom: "conv1"
  top: "conv1"
}
layer {
  name: "conv1_postscale"
  type: "Scale"
  bottom: "conv1"
  top: "conv1"
  param {
    lr_mult: 0
    decay_mult: 0
  }
  scale_param {
    filler {
      value: 1.7159
    }
    bias_term: false
  }
}
layer {
  name: "pool1"
  type: "Pooling"
  bottom: "conv1"
  top: "pool1"
  pooling_param {
    pool: MAX
    kernel_size: 2
    stride: 2
  }
}
layer {
  name: "conv2"
  type: "Convolution"
  bottom: "pool1"
  top: "conv2"
  convolution_param {
    num_output: 150
    pad: 0
    kernel_size: 4
    group: 1
    stride: 1
    weight_filler {
      type: "xavier"
    }
  }
}
layer {
  name: "conv2_prescale"
  type: "Scale"
  bottom: "conv2"
  top: "conv2"
  param {
    lr_mult: 0
    decay_mult: 0
  }
  scale_param {
    filler {
      value: 0.6666
    }
    bias_term: false
  }
}
layer {
  name: "conv2_sTanH"
  type: "TanH"
  bottom: "conv2"
  top: "conv2"
}
layer {
  name: "conv2_postscale"
  type: "Scale"
  bottom: "conv2"
  top: "conv2"
  param {
    lr_mult: 0
    decay_mult: 0
  }
  scale_param {
    filler {
      value: 1.7159
    }
    bias_term: false
  }
}
layer {
  name: "pool2"
  type: "Pooling"
  bottom: "conv2"
  top: "pool2"
  pooling_param {
    pool: MAX
    kernel_size: 2
    stride: 2
  }
}
layer {
  name: "conv3"
  type: "Convolution"
  bottom: "pool2"
  top: "conv3"
  convolution_param {
    num_output: 250
    pad: 0
    kernel_size: 4
    group: 1
    stride: 1
    weight_filler {
      type: "xavier"
    }
  }
}
layer {
  name: "conv3_prescale"
  type: "Scale"
  bottom: "conv3"
  top: "conv3"
  param {
    lr_mult: 0
    decay_mult: 0
  }
  scale_param {
    filler {
      value: 0.6666
    }
    bias_term: false
  }
}
layer {
  name: "conv3_sTanH"
  type: "TanH"
  bottom: "conv3"
  top: "conv3"
}
layer {
  name: "conv3_postscale"
  type: "Scale"
  bottom: "conv3"
  top: "conv3"
  param {
    lr_mult: 0
    decay_mult: 0
  }
  scale_param {
    filler {
      value: 1.7159
    }
    bias_term: false
  }
}
layer {
  name: "pool3"
  type: "Pooling"
  bottom: "conv3"
  top: "pool3"
  pooling_param {
    pool: MAX
    kernel_size: 2
    stride: 2
  }
}
layer {
  name: "fc4_300"
  type: "InnerProduct"
  bottom: "pool3"
  top: "fc4_300"
  inner_product_param {
    num_output: 300
    weight_filler {
      type: "xavier"
    }
  }
}
layer {
  name: "fc4_prescale"
  type: "Scale"
  bottom: "fc4_300"
  top: "fc4_300"
  param {
    lr_mult: 0
    decay_mult: 0
  }
  scale_param {
    filler {
      value: 0.6666
    }
    bias_term: false
  }
}
layer {
  name: "fc4_sTanH"
  type: "TanH"
  bottom: "fc4_300"
  top: "fc4_300"
}
layer {
  name: "fc4_postscale"
  type: "Scale"
  bottom: "fc4_300"
  top: "fc4_300"
  param {
    lr_mult: 0
    decay_mult: 0
  }
  scale_param {
    filler {
      value: 1.7159
    }
    bias_term: false
  }
}
layer {
  name: "drop4"
  type: "Dropout"
  bottom: "fc4_300"
  top: "fc4_300"
  dropout_param {
    dropout_ratio: 0.1
  }
}
layer {
  name: "fc5_67"
  type: "InnerProduct"
  bottom: "fc4_300"
  top: "fc5_classes"
  inner_product_param {
    num_output: 67
    weight_filler {
      type: "xavier"
    }
  }
}
layer {
  name: "loss"
  type: "SoftmaxWithLoss"
  bottom: "fc5_classes"
  bottom: "label"
  top: "loss"
}
I0412 02:30:12.813539 25534 layer_factory.hpp:77] Creating layer data
I0412 02:30:12.815451 25534 net.cpp:100] Creating Layer data
I0412 02:30:12.815477 25534 net.cpp:408] data -> data
I0412 02:30:12.815518 25534 net.cpp:408] data -> label
I0412 02:30:12.818997 25670 db_lmdb.cpp:35] Opened lmdb ../local_data/lmdb/rtsd-r1/imajust/train/lmdb
I0412 02:30:12.841330 25534 data_layer.cpp:41] output data size: 1024,3,48,48
I0412 02:30:12.905745 25534 net.cpp:150] Setting up data
I0412 02:30:12.905781 25534 net.cpp:157] Top shape: 1024 3 48 48 (7077888)
I0412 02:30:12.905787 25534 net.cpp:157] Top shape: 1024 (1024)
I0412 02:30:12.905792 25534 net.cpp:165] Memory required for data: 28315648
I0412 02:30:12.905803 25534 layer_factory.hpp:77] Creating layer conv1
I0412 02:30:12.905828 25534 net.cpp:100] Creating Layer conv1
I0412 02:30:12.905836 25534 net.cpp:434] conv1 <- data
I0412 02:30:12.905851 25534 net.cpp:408] conv1 -> conv1
I0412 02:30:13.264329 25534 net.cpp:150] Setting up conv1
I0412 02:30:13.264360 25534 net.cpp:157] Top shape: 1024 100 42 42 (180633600)
I0412 02:30:13.264365 25534 net.cpp:165] Memory required for data: 750850048
I0412 02:30:13.264391 25534 layer_factory.hpp:77] Creating layer conv1_prescale
I0412 02:30:13.264407 25534 net.cpp:100] Creating Layer conv1_prescale
I0412 02:30:13.264415 25534 net.cpp:434] conv1_prescale <- conv1
I0412 02:30:13.264422 25534 net.cpp:395] conv1_prescale -> conv1 (in-place)
I0412 02:30:13.264554 25534 net.cpp:150] Setting up conv1_prescale
I0412 02:30:13.264565 25534 net.cpp:157] Top shape: 1024 100 42 42 (180633600)
I0412 02:30:13.264570 25534 net.cpp:165] Memory required for data: 1473384448
I0412 02:30:13.264578 25534 layer_factory.hpp:77] Creating layer conv1_sTanH
I0412 02:30:13.264586 25534 net.cpp:100] Creating Layer conv1_sTanH
I0412 02:30:13.264591 25534 net.cpp:434] conv1_sTanH <- conv1
I0412 02:30:13.264597 25534 net.cpp:395] conv1_sTanH -> conv1 (in-place)
I0412 02:30:13.264835 25534 net.cpp:150] Setting up conv1_sTanH
I0412 02:30:13.264849 25534 net.cpp:157] Top shape: 1024 100 42 42 (180633600)
I0412 02:30:13.264854 25534 net.cpp:165] Memory required for data: 2195918848
I0412 02:30:13.264858 25534 layer_factory.hpp:77] Creating layer conv1_postscale
I0412 02:30:13.264868 25534 net.cpp:100] Creating Layer conv1_postscale
I0412 02:30:13.264873 25534 net.cpp:434] conv1_postscale <- conv1
I0412 02:30:13.264879 25534 net.cpp:395] conv1_postscale -> conv1 (in-place)
I0412 02:30:13.264995 25534 net.cpp:150] Setting up conv1_postscale
I0412 02:30:13.265004 25534 net.cpp:157] Top shape: 1024 100 42 42 (180633600)
I0412 02:30:13.265008 25534 net.cpp:165] Memory required for data: 2918453248
I0412 02:30:13.265013 25534 layer_factory.hpp:77] Creating layer pool1
I0412 02:30:13.265022 25534 net.cpp:100] Creating Layer pool1
I0412 02:30:13.265027 25534 net.cpp:434] pool1 <- conv1
I0412 02:30:13.265033 25534 net.cpp:408] pool1 -> pool1
I0412 02:30:13.265115 25534 net.cpp:150] Setting up pool1
I0412 02:30:13.265125 25534 net.cpp:157] Top shape: 1024 100 21 21 (45158400)
I0412 02:30:13.265130 25534 net.cpp:165] Memory required for data: 3099086848
I0412 02:30:13.265135 25534 layer_factory.hpp:77] Creating layer conv2
I0412 02:30:13.265146 25534 net.cpp:100] Creating Layer conv2
I0412 02:30:13.265151 25534 net.cpp:434] conv2 <- pool1
I0412 02:30:13.265157 25534 net.cpp:408] conv2 -> conv2
I0412 02:30:13.274096 25534 net.cpp:150] Setting up conv2
I0412 02:30:13.274119 25534 net.cpp:157] Top shape: 1024 150 18 18 (49766400)
I0412 02:30:13.274124 25534 net.cpp:165] Memory required for data: 3298152448
I0412 02:30:13.274138 25534 layer_factory.hpp:77] Creating layer conv2_prescale
I0412 02:30:13.274152 25534 net.cpp:100] Creating Layer conv2_prescale
I0412 02:30:13.274158 25534 net.cpp:434] conv2_prescale <- conv2
I0412 02:30:13.274164 25534 net.cpp:395] conv2_prescale -> conv2 (in-place)
I0412 02:30:13.274300 25534 net.cpp:150] Setting up conv2_prescale
I0412 02:30:13.274310 25534 net.cpp:157] Top shape: 1024 150 18 18 (49766400)
I0412 02:30:13.274317 25534 net.cpp:165] Memory required for data: 3497218048
I0412 02:30:13.274322 25534 layer_factory.hpp:77] Creating layer conv2_sTanH
I0412 02:30:13.274330 25534 net.cpp:100] Creating Layer conv2_sTanH
I0412 02:30:13.274336 25534 net.cpp:434] conv2_sTanH <- conv2
I0412 02:30:13.274341 25534 net.cpp:395] conv2_sTanH -> conv2 (in-place)
I0412 02:30:13.287474 25534 net.cpp:150] Setting up conv2_sTanH
I0412 02:30:13.287497 25534 net.cpp:157] Top shape: 1024 150 18 18 (49766400)
I0412 02:30:13.287500 25534 net.cpp:165] Memory required for data: 3696283648
I0412 02:30:13.287505 25534 layer_factory.hpp:77] Creating layer conv2_postscale
I0412 02:30:13.287515 25534 net.cpp:100] Creating Layer conv2_postscale
I0412 02:30:13.287519 25534 net.cpp:434] conv2_postscale <- conv2
I0412 02:30:13.287526 25534 net.cpp:395] conv2_postscale -> conv2 (in-place)
I0412 02:30:13.287644 25534 net.cpp:150] Setting up conv2_postscale
I0412 02:30:13.287655 25534 net.cpp:157] Top shape: 1024 150 18 18 (49766400)
I0412 02:30:13.287658 25534 net.cpp:165] Memory required for data: 3895349248
I0412 02:30:13.287665 25534 layer_factory.hpp:77] Creating layer pool2
I0412 02:30:13.287674 25534 net.cpp:100] Creating Layer pool2
I0412 02:30:13.287679 25534 net.cpp:434] pool2 <- conv2
I0412 02:30:13.287685 25534 net.cpp:408] pool2 -> pool2
I0412 02:30:13.287734 25534 net.cpp:150] Setting up pool2
I0412 02:30:13.287742 25534 net.cpp:157] Top shape: 1024 150 9 9 (12441600)
I0412 02:30:13.287747 25534 net.cpp:165] Memory required for data: 3945115648
I0412 02:30:13.287751 25534 layer_factory.hpp:77] Creating layer conv3
I0412 02:30:13.287762 25534 net.cpp:100] Creating Layer conv3
I0412 02:30:13.287767 25534 net.cpp:434] conv3 <- pool2
I0412 02:30:13.287773 25534 net.cpp:408] conv3 -> conv3
I0412 02:30:13.298094 25534 net.cpp:150] Setting up conv3
I0412 02:30:13.298117 25534 net.cpp:157] Top shape: 1024 250 6 6 (9216000)
I0412 02:30:13.298122 25534 net.cpp:165] Memory required for data: 3981979648
I0412 02:30:13.298136 25534 layer_factory.hpp:77] Creating layer conv3_prescale
I0412 02:30:13.298146 25534 net.cpp:100] Creating Layer conv3_prescale
I0412 02:30:13.298151 25534 net.cpp:434] conv3_prescale <- conv3
I0412 02:30:13.298158 25534 net.cpp:395] conv3_prescale -> conv3 (in-place)
I0412 02:30:13.298274 25534 net.cpp:150] Setting up conv3_prescale
I0412 02:30:13.298285 25534 net.cpp:157] Top shape: 1024 250 6 6 (9216000)
I0412 02:30:13.298288 25534 net.cpp:165] Memory required for data: 4018843648
I0412 02:30:13.298293 25534 layer_factory.hpp:77] Creating layer conv3_sTanH
I0412 02:30:13.298302 25534 net.cpp:100] Creating Layer conv3_sTanH
I0412 02:30:13.298307 25534 net.cpp:434] conv3_sTanH <- conv3
I0412 02:30:13.298312 25534 net.cpp:395] conv3_sTanH -> conv3 (in-place)
I0412 02:30:13.299934 25534 net.cpp:150] Setting up conv3_sTanH
I0412 02:30:13.299954 25534 net.cpp:157] Top shape: 1024 250 6 6 (9216000)
I0412 02:30:13.299958 25534 net.cpp:165] Memory required for data: 4055707648
I0412 02:30:13.299986 25534 layer_factory.hpp:77] Creating layer conv3_postscale
I0412 02:30:13.299996 25534 net.cpp:100] Creating Layer conv3_postscale
I0412 02:30:13.300002 25534 net.cpp:434] conv3_postscale <- conv3
I0412 02:30:13.300009 25534 net.cpp:395] conv3_postscale -> conv3 (in-place)
I0412 02:30:13.300132 25534 net.cpp:150] Setting up conv3_postscale
I0412 02:30:13.300143 25534 net.cpp:157] Top shape: 1024 250 6 6 (9216000)
I0412 02:30:13.300148 25534 net.cpp:165] Memory required for data: 4092571648
I0412 02:30:13.300158 25534 layer_factory.hpp:77] Creating layer pool3
I0412 02:30:13.300165 25534 net.cpp:100] Creating Layer pool3
I0412 02:30:13.300171 25534 net.cpp:434] pool3 <- conv3
I0412 02:30:13.300176 25534 net.cpp:408] pool3 -> pool3
I0412 02:30:13.300223 25534 net.cpp:150] Setting up pool3
I0412 02:30:13.300232 25534 net.cpp:157] Top shape: 1024 250 3 3 (2304000)
I0412 02:30:13.300237 25534 net.cpp:165] Memory required for data: 4101787648
I0412 02:30:13.300241 25534 layer_factory.hpp:77] Creating layer fc4_300
I0412 02:30:13.300251 25534 net.cpp:100] Creating Layer fc4_300
I0412 02:30:13.300256 25534 net.cpp:434] fc4_300 <- pool3
I0412 02:30:13.300263 25534 net.cpp:408] fc4_300 -> fc4_300
I0412 02:30:13.307051 25534 net.cpp:150] Setting up fc4_300
I0412 02:30:13.307072 25534 net.cpp:157] Top shape: 1024 300 (307200)
I0412 02:30:13.307078 25534 net.cpp:165] Memory required for data: 4103016448
I0412 02:30:13.307087 25534 layer_factory.hpp:77] Creating layer fc4_prescale
I0412 02:30:13.307097 25534 net.cpp:100] Creating Layer fc4_prescale
I0412 02:30:13.307103 25534 net.cpp:434] fc4_prescale <- fc4_300
I0412 02:30:13.307109 25534 net.cpp:395] fc4_prescale -> fc4_300 (in-place)
I0412 02:30:13.307220 25534 net.cpp:150] Setting up fc4_prescale
I0412 02:30:13.307229 25534 net.cpp:157] Top shape: 1024 300 (307200)
I0412 02:30:13.307235 25534 net.cpp:165] Memory required for data: 4104245248
I0412 02:30:13.307240 25534 layer_factory.hpp:77] Creating layer fc4_sTanH
I0412 02:30:13.307246 25534 net.cpp:100] Creating Layer fc4_sTanH
I0412 02:30:13.307251 25534 net.cpp:434] fc4_sTanH <- fc4_300
I0412 02:30:13.307256 25534 net.cpp:395] fc4_sTanH -> fc4_300 (in-place)
I0412 02:30:13.307483 25534 net.cpp:150] Setting up fc4_sTanH
I0412 02:30:13.307495 25534 net.cpp:157] Top shape: 1024 300 (307200)
I0412 02:30:13.307500 25534 net.cpp:165] Memory required for data: 4105474048
I0412 02:30:13.307504 25534 layer_factory.hpp:77] Creating layer fc4_postscale
I0412 02:30:13.307512 25534 net.cpp:100] Creating Layer fc4_postscale
I0412 02:30:13.307518 25534 net.cpp:434] fc4_postscale <- fc4_300
I0412 02:30:13.307523 25534 net.cpp:395] fc4_postscale -> fc4_300 (in-place)
I0412 02:30:13.307636 25534 net.cpp:150] Setting up fc4_postscale
I0412 02:30:13.307646 25534 net.cpp:157] Top shape: 1024 300 (307200)
I0412 02:30:13.307648 25534 net.cpp:165] Memory required for data: 4106702848
I0412 02:30:13.307654 25534 layer_factory.hpp:77] Creating layer drop4
I0412 02:30:13.307663 25534 net.cpp:100] Creating Layer drop4
I0412 02:30:13.307668 25534 net.cpp:434] drop4 <- fc4_300
I0412 02:30:13.307673 25534 net.cpp:395] drop4 -> fc4_300 (in-place)
I0412 02:30:13.307703 25534 net.cpp:150] Setting up drop4
I0412 02:30:13.307711 25534 net.cpp:157] Top shape: 1024 300 (307200)
I0412 02:30:13.307714 25534 net.cpp:165] Memory required for data: 4107931648
I0412 02:30:13.307718 25534 layer_factory.hpp:77] Creating layer fc5_67
I0412 02:30:13.307725 25534 net.cpp:100] Creating Layer fc5_67
I0412 02:30:13.307730 25534 net.cpp:434] fc5_67 <- fc4_300
I0412 02:30:13.307736 25534 net.cpp:408] fc5_67 -> fc5_classes
I0412 02:30:13.310554 25534 net.cpp:150] Setting up fc5_67
I0412 02:30:13.310572 25534 net.cpp:157] Top shape: 1024 67 (68608)
I0412 02:30:13.310578 25534 net.cpp:165] Memory required for data: 4108206080
I0412 02:30:13.310591 25534 layer_factory.hpp:77] Creating layer loss
I0412 02:30:13.310600 25534 net.cpp:100] Creating Layer loss
I0412 02:30:13.310606 25534 net.cpp:434] loss <- fc5_classes
I0412 02:30:13.310628 25534 net.cpp:434] loss <- label
I0412 02:30:13.310638 25534 net.cpp:408] loss -> loss
I0412 02:30:13.310655 25534 layer_factory.hpp:77] Creating layer loss
…
I0412 02:30:13.311640 25534 solver.cpp:193] Creating test net (#0) specified by test_net file: ./Prototxt/experiment_9/rtsd-r1/imajust/trial_1/test.prototxt
I0412 02:30:13.311868 25534 net.cpp:58] Initializing net from parameters: 
state {
  phase: TEST
}
layer {
  name: "data"
  type: "Data"
  top: "data"
  top: "label"
  include {
    phase: TEST
  }
  transform_param {
    scale: 0.0039215689
    mirror: false
    crop_size: 48
    mean_value: 109
    mean_value: 106
    mean_value: 126
  }
  data_param {
    source: "../local_data/lmdb/rtsd-r1/imajust/test/lmdb"
    batch_size: 1024
    backend: LMDB
  }
}
layer {
  name: "conv1"
  type: "Convolution"
  bottom: "data"
  top: "conv1"
  convolution_param {
    num_output: 100
    pad: 0
    kernel_size: 7
    group: 1
    stride: 1
    weight_filler {
      type: "xavier"
    }
  }
}
layer {
  name: "conv1_prescale"
  type: "Scale"
  bottom: "conv1"
  top: "conv1"
  param {
    lr_mult: 0
    decay_mult: 0
  }
  scale_param {
    filler {
      value: 0.6666
    }
    bias_term: false
  }
}
layer {
  name: "conv1_sTanH"
  type: "TanH"
  bottom: "conv1"
  top: "conv1"
}
layer {
  name: "conv1_postscale"
  type: "Scale"
  bottom: "conv1"
  top: "conv1"
  param {
    lr_mult: 0
    decay_mult: 0
  }
  scale_param {
    filler {
      value: 1.7159
    }
    bias_term: false
  }
}
layer {
  name: "pool1"
  type: "Pooling"
  bottom: "conv1"
  top: "pool1"
  pooling_param {
    pool: MAX
    kernel_size: 2
    stride: 2
  }
}
layer {
  name: "conv2"
  type: "Convolution"
  bottom: "pool1"
  top: "conv2"
  convolution_param {
    num_output: 150
    pad: 0
    kernel_size: 4
    group: 1
    stride: 1
    weight_filler {
      type: "xavier"
    }
  }
}
layer {
  name: "conv2_prescale"
  type: "Scale"
  bottom: "conv2"
  top: "conv2"
  param {
    lr_mult: 0
    decay_mult: 0
  }
  scale_param {
    filler {
      value: 0.6666
    }
    bias_term: false
  }
}
layer {
  name: "conv2_sTanH"
  type: "TanH"
  bottom: "conv2"
  top: "conv2"
}
layer {
  name: "conv2_postscale"
  type: "Scale"
  bottom: "conv2"
  top: "conv2"
  param {
    lr_mult: 0
    decay_mult: 0
  }
  scale_param {
    filler {
      value: 1.7159
    }
    bias_term: false
  }
}
layer {
  name: "pool2"
  type: "Pooling"
  bottom: "conv2"
  top: "pool2"
  pooling_param {
    pool: MAX
    kernel_size: 2
    stride: 2
  }
}
layer {
  name: "conv3"
  type: "Convolution"
  bottom: "pool2"
  top: "conv3"
  convolution_param {
    num_output: 250
    pad: 0
    kernel_size: 4
    group: 1
    stride: 1
    weight_filler {
      type: "xavier"
    }
  }
}
layer {
  name: "conv3_prescale"
  type: "Scale"
  bottom: "conv3"
  top: "conv3"
  param {
    lr_mult: 0
    decay_mult: 0
  }
  scale_param {
    filler {
      value: 0.6666
    }
    bias_term: false
  }
}
layer {
  name: "conv3_sTanH"
  type: "TanH"
  bottom: "conv3"
  top: "conv3"
}
layer {
  name: "conv3_postscale"
  type: "Scale"
  bottom: "conv3"
  top: "conv3"
  param {
    lr_mult: 0
    decay_mult: 0
  }
  scale_param {
    filler {
      value: 1.7159
    }
    bias_term: false
  }
}
layer {
  name: "pool3"
  type: "Pooling"
  bottom: "conv3"
  top: "pool3"
  pooling_param {
    pool: MAX
    kernel_size: 2
    stride: 2
  }
}
layer {
  name: "fc4_300"
  type: "InnerProduct"
  bottom: "pool3"
  top: "fc4_300"
  inner_product_param {
    num_output: 300
    weight_filler {
      type: "xavier"
    }
  }
}
layer {
  name: "fc4_prescale"
  type: "Scale"
  bottom: "fc4_300"
  top: "fc4_300"
  param {
    lr_mult: 0
    decay_mult: 0
  }
  scale_param {
    filler {
      value: 0.6666
    }
    bias_term: false
  }
}
layer {
  name: "fc4_sTanH"
  type: "TanH"
  bottom: "fc4_300"
  top: "fc4_300"
}
layer {
  name: "fc4_postscale"
  type: "Scale"
  bottom: "fc4_300"
  top: "fc4_300"
  param {
    lr_mult: 0
    decay_mult: 0
  }
  scale_param {
    filler {
      value: 1.7159
    }
    bias_term: false
  }
}
layer {
  name: "drop4"
  type: "Dropout"
  bottom: "fc4_300"
  top: "fc4_300"
  dropout_param {
    dropout_ratio: 0.1
  }
}
layer {
  name: "fc5_67"
  type: "InnerProduct"
  bottom: "fc4_300"
  top: "fc5_classes"
  inner_product_param {
    num_output: 67
    weight_filler {
      type: "xavier"
    }
  }
}
layer {
  name: "loss"
  type: "SoftmaxWithLoss"
  bottom: "fc5_classes"
  bottom: "label"
  top: "loss"
}
layer {
  name: "accuracy_1"
  type: "Accuracy"
  bottom: "fc5_classes"
  bottom: "label"
  top: "accuracy_1"
  include {
    phase: TEST
  }
  accuracy_param {
    top_k: 1
  }
}
layer {
  name: "accuracy_5"
  type: "Accuracy"
  bottom: "fc5_classes"
  bottom: "label"
  top: "accuracy_5"
  include {
    phase: TEST
  }
  accuracy_param {
    top_k: 5
  }
}
I0412 02:30:13.312022 25534 layer_factory.hpp:77] Creating layer data
I0412 02:30:13.312728 25534 net.cpp:100] Creating Layer data
I0412 02:30:13.312741 25534 net.cpp:408] data -> data
I0412 02:30:13.312752 25534 net.cpp:408] data -> label
I0412 02:30:13.316164 25728 db_lmdb.cpp:35] Opened lmdb ../local_data/lmdb/rtsd-r1/imajust/test/lmdb
I0412 02:30:13.316318 25534 data_layer.cpp:41] output data size: 1024,3,48,48
I0412 02:30:13.385754 25534 net.cpp:150] Setting up data
I0412 02:30:13.385789 25534 net.cpp:157] Top shape: 1024 3 48 48 (7077888)
I0412 02:30:13.385797 25534 net.cpp:157] Top shape: 1024 (1024)
I0412 02:30:13.385800 25534 net.cpp:165] Memory required for data: 28315648
I0412 02:30:13.385807 25534 layer_factory.hpp:77] Creating layer label_data_1_split
I0412 02:30:13.385823 25534 net.cpp:100] Creating Layer label_data_1_split
I0412 02:30:13.385828 25534 net.cpp:434] label_data_1_split <- label
I0412 02:30:13.385838 25534 net.cpp:408] label_data_1_split -> label_data_1_split_0
I0412 02:30:13.385849 25534 net.cpp:408] label_data_1_split -> label_data_1_split_1
I0412 02:30:13.385877 25534 net.cpp:408] label_data_1_split -> label_data_1_split_2
I0412 02:30:13.386003 25534 net.cpp:150] Setting up label_data_1_split
I0412 02:30:13.386013 25534 net.cpp:157] Top shape: 1024 (1024)
I0412 02:30:13.386018 25534 net.cpp:157] Top shape: 1024 (1024)
I0412 02:30:13.386023 25534 net.cpp:157] Top shape: 1024 (1024)
I0412 02:30:13.386025 25534 net.cpp:165] Memory required for data: 28327936
I0412 02:30:13.386029 25534 layer_factory.hpp:77] Creating layer conv1
I0412 02:30:13.386044 25534 net.cpp:100] Creating Layer conv1
I0412 02:30:13.386050 25534 net.cpp:434] conv1 <- data
I0412 02:30:13.386059 25534 net.cpp:408] conv1 -> conv1
I0412 02:30:13.388548 25534 net.cpp:150] Setting up conv1
I0412 02:30:13.388571 25534 net.cpp:157] Top shape: 1024 100 42 42 (180633600)
I0412 02:30:13.388579 25534 net.cpp:165] Memory required for data: 750862336
I0412 02:30:13.388593 25534 layer_factory.hpp:77] Creating layer conv1_prescale
I0412 02:30:13.388603 25534 net.cpp:100] Creating Layer conv1_prescale
I0412 02:30:13.388609 25534 net.cpp:434] conv1_prescale <- conv1
I0412 02:30:13.388618 25534 net.cpp:395] conv1_prescale -> conv1 (in-place)
I0412 02:30:13.388752 25534 net.cpp:150] Setting up conv1_prescale
I0412 02:30:13.388762 25534 net.cpp:157] Top shape: 1024 100 42 42 (180633600)
I0412 02:30:13.388767 25534 net.cpp:165] Memory required for data: 1473396736
I0412 02:30:13.388773 25534 layer_factory.hpp:77] Creating layer conv1_sTanH
I0412 02:30:13.388784 25534 net.cpp:100] Creating Layer conv1_sTanH
I0412 02:30:13.388789 25534 net.cpp:434] conv1_sTanH <- conv1
I0412 02:30:13.388795 25534 net.cpp:395] conv1_sTanH -> conv1 (in-place)
I0412 02:30:13.389029 25534 net.cpp:150] Setting up conv1_sTanH
I0412 02:30:13.389045 25534 net.cpp:157] Top shape: 1024 100 42 42 (180633600)
I0412 02:30:13.389047 25534 net.cpp:165] Memory required for data: 2195931136
I0412 02:30:13.389051 25534 layer_factory.hpp:77] Creating layer conv1_postscale
I0412 02:30:13.389058 25534 net.cpp:100] Creating Layer conv1_postscale
I0412 02:30:13.389062 25534 net.cpp:434] conv1_postscale <- conv1
I0412 02:30:13.389070 25534 net.cpp:395] conv1_postscale -> conv1 (in-place)
I0412 02:30:13.389206 25534 net.cpp:150] Setting up conv1_postscale
I0412 02:30:13.389219 25534 net.cpp:157] Top shape: 1024 100 42 42 (180633600)
I0412 02:30:13.389221 25534 net.cpp:165] Memory required for data: 2918465536
I0412 02:30:13.389228 25534 layer_factory.hpp:77] Creating layer pool1
I0412 02:30:13.389235 25534 net.cpp:100] Creating Layer pool1
I0412 02:30:13.389241 25534 net.cpp:434] pool1 <- conv1
I0412 02:30:13.389246 25534 net.cpp:408] pool1 -> pool1
I0412 02:30:13.389298 25534 net.cpp:150] Setting up pool1
I0412 02:30:13.389307 25534 net.cpp:157] Top shape: 1024 100 21 21 (45158400)
I0412 02:30:13.389312 25534 net.cpp:165] Memory required for data: 3099099136
I0412 02:30:13.389314 25534 layer_factory.hpp:77] Creating layer conv2
I0412 02:30:13.389328 25534 net.cpp:100] Creating Layer conv2
I0412 02:30:13.389333 25534 net.cpp:434] conv2 <- pool1
I0412 02:30:13.389339 25534 net.cpp:408] conv2 -> conv2
I0412 02:30:13.395217 25534 net.cpp:150] Setting up conv2
I0412 02:30:13.395242 25534 net.cpp:157] Top shape: 1024 150 18 18 (49766400)
I0412 02:30:13.395246 25534 net.cpp:165] Memory required for data: 3298164736
I0412 02:30:13.395262 25534 layer_factory.hpp:77] Creating layer conv2_prescale
I0412 02:30:13.395275 25534 net.cpp:100] Creating Layer conv2_prescale
I0412 02:30:13.395280 25534 net.cpp:434] conv2_prescale <- conv2
I0412 02:30:13.395289 25534 net.cpp:395] conv2_prescale -> conv2 (in-place)
I0412 02:30:13.395437 25534 net.cpp:150] Setting up conv2_prescale
I0412 02:30:13.395449 25534 net.cpp:157] Top shape: 1024 150 18 18 (49766400)
I0412 02:30:13.395453 25534 net.cpp:165] Memory required for data: 3497230336
I0412 02:30:13.395458 25534 layer_factory.hpp:77] Creating layer conv2_sTanH
I0412 02:30:13.395465 25534 net.cpp:100] Creating Layer conv2_sTanH
I0412 02:30:13.395469 25534 net.cpp:434] conv2_sTanH <- conv2
I0412 02:30:13.395475 25534 net.cpp:395] conv2_sTanH -> conv2 (in-place)
I0412 02:30:13.396770 25534 net.cpp:150] Setting up conv2_sTanH
I0412 02:30:13.396791 25534 net.cpp:157] Top shape: 1024 150 18 18 (49766400)
I0412 02:30:13.396796 25534 net.cpp:165] Memory required for data: 3696295936
I0412 02:30:13.396800 25534 layer_factory.hpp:77] Creating layer conv2_postscale
I0412 02:30:13.396812 25534 net.cpp:100] Creating Layer conv2_postscale
I0412 02:30:13.396816 25534 net.cpp:434] conv2_postscale <- conv2
I0412 02:30:13.396826 25534 net.cpp:395] conv2_postscale -> conv2 (in-place)
I0412 02:30:13.396958 25534 net.cpp:150] Setting up conv2_postscale
I0412 02:30:13.396971 25534 net.cpp:157] Top shape: 1024 150 18 18 (49766400)
I0412 02:30:13.396975 25534 net.cpp:165] Memory required for data: 3895361536
I0412 02:30:13.396981 25534 layer_factory.hpp:77] Creating layer pool2
I0412 02:30:13.396991 25534 net.cpp:100] Creating Layer pool2
I0412 02:30:13.396996 25534 net.cpp:434] pool2 <- conv2
I0412 02:30:13.397003 25534 net.cpp:408] pool2 -> pool2
I0412 02:30:13.397060 25534 net.cpp:150] Setting up pool2
I0412 02:30:13.397073 25534 net.cpp:157] Top shape: 1024 150 9 9 (12441600)
I0412 02:30:13.397075 25534 net.cpp:165] Memory required for data: 3945127936
I0412 02:30:13.397080 25534 layer_factory.hpp:77] Creating layer conv3
I0412 02:30:13.397089 25534 net.cpp:100] Creating Layer conv3
I0412 02:30:13.397097 25534 net.cpp:434] conv3 <- pool2
I0412 02:30:13.397105 25534 net.cpp:408] conv3 -> conv3
I0412 02:30:13.404623 25534 net.cpp:150] Setting up conv3
I0412 02:30:13.404644 25534 net.cpp:157] Top shape: 1024 250 6 6 (9216000)
I0412 02:30:13.404649 25534 net.cpp:165] Memory required for data: 3981991936
I0412 02:30:13.404662 25534 layer_factory.hpp:77] Creating layer conv3_prescale
I0412 02:30:13.404675 25534 net.cpp:100] Creating Layer conv3_prescale
I0412 02:30:13.404680 25534 net.cpp:434] conv3_prescale <- conv3
I0412 02:30:13.404687 25534 net.cpp:395] conv3_prescale -> conv3 (in-place)
I0412 02:30:13.404811 25534 net.cpp:150] Setting up conv3_prescale
I0412 02:30:13.404822 25534 net.cpp:157] Top shape: 1024 250 6 6 (9216000)
I0412 02:30:13.404825 25534 net.cpp:165] Memory required for data: 4018855936
I0412 02:30:13.404831 25534 layer_factory.hpp:77] Creating layer conv3_sTanH
I0412 02:30:13.404837 25534 net.cpp:100] Creating Layer conv3_sTanH
I0412 02:30:13.404841 25534 net.cpp:434] conv3_sTanH <- conv3
I0412 02:30:13.404848 25534 net.cpp:395] conv3_sTanH -> conv3 (in-place)
I0412 02:30:13.406013 25534 net.cpp:150] Setting up conv3_sTanH
I0412 02:30:13.406033 25534 net.cpp:157] Top shape: 1024 250 6 6 (9216000)
I0412 02:30:13.406036 25534 net.cpp:165] Memory required for data: 4055719936
I0412 02:30:13.406040 25534 layer_factory.hpp:77] Creating layer conv3_postscale
I0412 02:30:13.406051 25534 net.cpp:100] Creating Layer conv3_postscale
I0412 02:30:13.406055 25534 net.cpp:434] conv3_postscale <- conv3
I0412 02:30:13.406061 25534 net.cpp:395] conv3_postscale -> conv3 (in-place)
I0412 02:30:13.406190 25534 net.cpp:150] Setting up conv3_postscale
I0412 02:30:13.406203 25534 net.cpp:157] Top shape: 1024 250 6 6 (9216000)
I0412 02:30:13.406208 25534 net.cpp:165] Memory required for data: 4092583936
I0412 02:30:13.406214 25534 layer_factory.hpp:77] Creating layer pool3
I0412 02:30:13.406226 25534 net.cpp:100] Creating Layer pool3
I0412 02:30:13.406231 25534 net.cpp:434] pool3 <- conv3
I0412 02:30:13.406239 25534 net.cpp:408] pool3 -> pool3
I0412 02:30:13.406297 25534 net.cpp:150] Setting up pool3
I0412 02:30:13.406307 25534 net.cpp:157] Top shape: 1024 250 3 3 (2304000)
I0412 02:30:13.406311 25534 net.cpp:165] Memory required for data: 4101799936
I0412 02:30:13.406313 25534 layer_factory.hpp:77] Creating layer fc4_300
I0412 02:30:13.406322 25534 net.cpp:100] Creating Layer fc4_300
I0412 02:30:13.406327 25534 net.cpp:434] fc4_300 <- pool3
I0412 02:30:13.406333 25534 net.cpp:408] fc4_300 -> fc4_300
I0412 02:30:13.413254 25534 net.cpp:150] Setting up fc4_300
I0412 02:30:13.413274 25534 net.cpp:157] Top shape: 1024 300 (307200)
I0412 02:30:13.413278 25534 net.cpp:165] Memory required for data: 4103028736
I0412 02:30:13.413306 25534 layer_factory.hpp:77] Creating layer fc4_prescale
I0412 02:30:13.413316 25534 net.cpp:100] Creating Layer fc4_prescale
I0412 02:30:13.413321 25534 net.cpp:434] fc4_prescale <- fc4_300
I0412 02:30:13.413329 25534 net.cpp:395] fc4_prescale -> fc4_300 (in-place)
I0412 02:30:13.413451 25534 net.cpp:150] Setting up fc4_prescale
I0412 02:30:13.413461 25534 net.cpp:157] Top shape: 1024 300 (307200)
I0412 02:30:13.413468 25534 net.cpp:165] Memory required for data: 4104257536
I0412 02:30:13.413473 25534 layer_factory.hpp:77] Creating layer fc4_sTanH
I0412 02:30:13.413480 25534 net.cpp:100] Creating Layer fc4_sTanH
I0412 02:30:13.413485 25534 net.cpp:434] fc4_sTanH <- fc4_300
I0412 02:30:13.413489 25534 net.cpp:395] fc4_sTanH -> fc4_300 (in-place)
I0412 02:30:13.413734 25534 net.cpp:150] Setting up fc4_sTanH
I0412 02:30:13.413748 25534 net.cpp:157] Top shape: 1024 300 (307200)
I0412 02:30:13.413751 25534 net.cpp:165] Memory required for data: 4105486336
I0412 02:30:13.413755 25534 layer_factory.hpp:77] Creating layer fc4_postscale
I0412 02:30:13.413763 25534 net.cpp:100] Creating Layer fc4_postscale
I0412 02:30:13.413767 25534 net.cpp:434] fc4_postscale <- fc4_300
I0412 02:30:13.413777 25534 net.cpp:395] fc4_postscale -> fc4_300 (in-place)
I0412 02:30:13.413907 25534 net.cpp:150] Setting up fc4_postscale
I0412 02:30:13.413916 25534 net.cpp:157] Top shape: 1024 300 (307200)
I0412 02:30:13.413919 25534 net.cpp:165] Memory required for data: 4106715136
I0412 02:30:13.413924 25534 layer_factory.hpp:77] Creating layer drop4
I0412 02:30:13.413933 25534 net.cpp:100] Creating Layer drop4
I0412 02:30:13.413936 25534 net.cpp:434] drop4 <- fc4_300
I0412 02:30:13.413941 25534 net.cpp:395] drop4 -> fc4_300 (in-place)
I0412 02:30:13.413972 25534 net.cpp:150] Setting up drop4
I0412 02:30:13.413980 25534 net.cpp:157] Top shape: 1024 300 (307200)
I0412 02:30:13.413983 25534 net.cpp:165] Memory required for data: 4107943936
I0412 02:30:13.413986 25534 layer_factory.hpp:77] Creating layer fc5_67
I0412 02:30:13.413995 25534 net.cpp:100] Creating Layer fc5_67
I0412 02:30:13.414000 25534 net.cpp:434] fc5_67 <- fc4_300
I0412 02:30:13.414005 25534 net.cpp:408] fc5_67 -> fc5_classes
I0412 02:30:13.414310 25534 net.cpp:150] Setting up fc5_67
I0412 02:30:13.414320 25534 net.cpp:157] Top shape: 1024 67 (68608)
I0412 02:30:13.414324 25534 net.cpp:165] Memory required for data: 4108218368
I0412 02:30:13.414337 25534 layer_factory.hpp:77] Creating layer fc5_classes_fc5_67_0_split
I0412 02:30:13.414350 25534 net.cpp:100] Creating Layer fc5_classes_fc5_67_0_split
I0412 02:30:13.414353 25534 net.cpp:434] fc5_classes_fc5_67_0_split <- fc5_classes
I0412 02:30:13.414360 25534 net.cpp:408] fc5_classes_fc5_67_0_split -> fc5_classes_fc5_67_0_split_0
I0412 02:30:13.414367 25534 net.cpp:408] fc5_classes_fc5_67_0_split -> fc5_classes_fc5_67_0_split_1
I0412 02:30:13.414374 25534 net.cpp:408] fc5_classes_fc5_67_0_split -> fc5_classes_fc5_67_0_split_2
I0412 02:30:13.414439 25534 net.cpp:150] Setting up fc5_classes_fc5_67_0_split
I0412 02:30:13.414448 25534 net.cpp:157] Top shape: 1024 67 (68608)
I0412 02:30:13.414453 25534 net.cpp:157] Top shape: 1024 67 (68608)
I0412 02:30:13.414455 25534 net.cpp:157] Top shape: 1024 67 (68608)
I0412 02:30:13.414458 25534 net.cpp:165] Memory required for data: 4109041664
I0412 02:30:13.414463 25534 layer_factory.hpp:77] Creating layer loss
I0412 02:30:13.414474 25534 net.cpp:100] Creating Layer loss
I0412 02:30:13.414477 25534 net.cpp:434] loss <- fc5_classes_fc5_67_0_split_0
I0412 02:30:13.414482 25534 net.cpp:434] loss <- label_data_1_split_0
I0412 02:30:13.414489 25534 net.cpp:408] loss -> loss
…
