…
I0409 05:31:48.878093 14293 net.cpp:322] The NetState phase (0) differed from the phase (1) specified by a rule in layer accuracy_5
I0409 05:31:48.878199 14293 net.cpp:58] Initializing net from parameters: 
state {
  phase: TRAIN
  level: 0
  stage: ""
}
layer {
  name: "data"
  type: "Data"
  top: "data"
  top: "label"
  include {
    phase: TRAIN
  }
  transform_param {
    mirror: false
    crop_size: 48
    mean_value: 132
    mean_value: 132
    mean_value: 131
  }
  data_param {
    source: "../local_data/lmdb/rtsd-r1/CoNorm/train/lmdb"
    batch_size: 1024
    backend: LMDB
  }
}
layer {
  name: "conv1"
  type: "Convolution"
  bottom: "data"
  top: "conv1"
  convolution_param {
    num_output: 100
    pad: 0
    kernel_size: 7
    group: 1
    stride: 1
    weight_filler {
      type: "xavier"
    }
  }
}
layer {
  name: "conv1_relu"
  type: "ReLU"
  bottom: "conv1"
  top: "conv1"
}
layer {
  name: "pool1"
  type: "Pooling"
  bottom: "conv1"
  top: "pool1"
  pooling_param {
    pool: MAX
    kernel_size: 2
    stride: 2
  }
}
layer {
  name: "conv2"
  type: "Convolution"
  bottom: "pool1"
  top: "conv2"
  convolution_param {
    num_output: 150
    pad: 0
    kernel_size: 4
    group: 1
    stride: 1
    weight_filler {
      type: "xavier"
    }
  }
}
layer {
  name: "conv2_relu"
  type: "ReLU"
  bottom: "conv2"
  top: "conv2"
}
layer {
  name: "pool2"
  type: "Pooling"
  bottom: "conv2"
  top: "pool2"
  pooling_param {
    pool: MAX
    kernel_size: 2
    stride: 2
  }
}
layer {
  name: "conv3"
  type: "Convolution"
  bottom: "pool2"
  top: "conv3"
  convolution_param {
    num_output: 250
    pad: 0
    kernel_size: 4
    group: 1
    stride: 1
    weight_filler {
      type: "xavier"
    }
  }
}
layer {
  name: "conv3_relu"
  type: "ReLU"
  bottom: "conv3"
  top: "conv3"
}
layer {
  name: "pool3"
  type: "Pooling"
  bottom: "conv3"
  top: "pool3"
  pooling_param {
    pool: MAX
    kernel_size: 2
    stride: 2
  }
}
layer {
  name: "fc4_300"
  type: "InnerProduct"
  bottom: "pool3"
  top: "fc4_300"
  inner_product_param {
    num_output: 300
    weight_filler {
      type: "xavier"
    }
  }
}
layer {
  name: "fc4_relu"
  type: "ReLU"
  bottom: "fc4_300"
  top: "fc4_300"
}
layer {
  name: "drop4"
  type: "Dropout"
  bottom: "fc4_300"
  top: "fc4_300"
  dropout_param {
    dropout_ratio: 0.4
  }
}
layer {
  name: "fc5_67"
  type: "InnerProduct"
  bottom: "fc4_300"
  top: "fc5_classes"
  inner_product_param {
    num_output: 67
    weight_filler {
      type: "xavier"
    }
  }
}
layer {
  name: "loss"
  type: "SoftmaxWithLoss"
  bottom: "fc5_classes"
  bottom: "label"
  top: "loss"
}
I0409 05:31:48.878293 14293 layer_factory.hpp:77] Creating layer data
I0409 05:31:48.879581 14293 net.cpp:100] Creating Layer data
I0409 05:31:48.879597 14293 net.cpp:408] data -> data
I0409 05:31:48.879621 14293 net.cpp:408] data -> label
I0409 05:31:48.881235 14357 db_lmdb.cpp:35] Opened lmdb ../local_data/lmdb/rtsd-r1/CoNorm/train/lmdb
I0409 05:31:48.902099 14293 data_layer.cpp:41] output data size: 1024,3,48,48
I0409 05:31:48.961232 14293 net.cpp:150] Setting up data
I0409 05:31:48.961269 14293 net.cpp:157] Top shape: 1024 3 48 48 (7077888)
I0409 05:31:48.961300 14293 net.cpp:157] Top shape: 1024 (1024)
I0409 05:31:48.961304 14293 net.cpp:165] Memory required for data: 28315648
I0409 05:31:48.961315 14293 layer_factory.hpp:77] Creating layer conv1
I0409 05:31:48.961339 14293 net.cpp:100] Creating Layer conv1
I0409 05:31:48.961347 14293 net.cpp:434] conv1 <- data
I0409 05:31:48.961361 14293 net.cpp:408] conv1 -> conv1
I0409 05:31:49.274540 14293 net.cpp:150] Setting up conv1
I0409 05:31:49.274574 14293 net.cpp:157] Top shape: 1024 100 42 42 (180633600)
I0409 05:31:49.274579 14293 net.cpp:165] Memory required for data: 750850048
I0409 05:31:49.274603 14293 layer_factory.hpp:77] Creating layer conv1_relu
I0409 05:31:49.274617 14293 net.cpp:100] Creating Layer conv1_relu
I0409 05:31:49.274626 14293 net.cpp:434] conv1_relu <- conv1
I0409 05:31:49.274632 14293 net.cpp:395] conv1_relu -> conv1 (in-place)
I0409 05:31:49.274873 14293 net.cpp:150] Setting up conv1_relu
I0409 05:31:49.274888 14293 net.cpp:157] Top shape: 1024 100 42 42 (180633600)
I0409 05:31:49.274893 14293 net.cpp:165] Memory required for data: 1473384448
I0409 05:31:49.274896 14293 layer_factory.hpp:77] Creating layer pool1
I0409 05:31:49.274905 14293 net.cpp:100] Creating Layer pool1
I0409 05:31:49.274910 14293 net.cpp:434] pool1 <- conv1
I0409 05:31:49.274916 14293 net.cpp:408] pool1 -> pool1
I0409 05:31:49.274978 14293 net.cpp:150] Setting up pool1
I0409 05:31:49.274987 14293 net.cpp:157] Top shape: 1024 100 21 21 (45158400)
I0409 05:31:49.274991 14293 net.cpp:165] Memory required for data: 1654018048
I0409 05:31:49.274994 14293 layer_factory.hpp:77] Creating layer conv2
I0409 05:31:49.275007 14293 net.cpp:100] Creating Layer conv2
I0409 05:31:49.275012 14293 net.cpp:434] conv2 <- pool1
I0409 05:31:49.275018 14293 net.cpp:408] conv2 -> conv2
I0409 05:31:49.280215 14293 net.cpp:150] Setting up conv2
I0409 05:31:49.280234 14293 net.cpp:157] Top shape: 1024 150 18 18 (49766400)
I0409 05:31:49.280238 14293 net.cpp:165] Memory required for data: 1853083648
I0409 05:31:49.280251 14293 layer_factory.hpp:77] Creating layer conv2_relu
I0409 05:31:49.280258 14293 net.cpp:100] Creating Layer conv2_relu
I0409 05:31:49.280262 14293 net.cpp:434] conv2_relu <- conv2
I0409 05:31:49.280268 14293 net.cpp:395] conv2_relu -> conv2 (in-place)
I0409 05:31:49.281154 14293 net.cpp:150] Setting up conv2_relu
I0409 05:31:49.281172 14293 net.cpp:157] Top shape: 1024 150 18 18 (49766400)
I0409 05:31:49.281177 14293 net.cpp:165] Memory required for data: 2052149248
I0409 05:31:49.281180 14293 layer_factory.hpp:77] Creating layer pool2
I0409 05:31:49.281188 14293 net.cpp:100] Creating Layer pool2
I0409 05:31:49.281193 14293 net.cpp:434] pool2 <- conv2
I0409 05:31:49.281199 14293 net.cpp:408] pool2 -> pool2
I0409 05:31:49.281255 14293 net.cpp:150] Setting up pool2
I0409 05:31:49.281265 14293 net.cpp:157] Top shape: 1024 150 9 9 (12441600)
I0409 05:31:49.281267 14293 net.cpp:165] Memory required for data: 2101915648
I0409 05:31:49.281271 14293 layer_factory.hpp:77] Creating layer conv3
I0409 05:31:49.281280 14293 net.cpp:100] Creating Layer conv3
I0409 05:31:49.281286 14293 net.cpp:434] conv3 <- pool2
I0409 05:31:49.281291 14293 net.cpp:408] conv3 -> conv3
I0409 05:31:49.287945 14293 net.cpp:150] Setting up conv3
I0409 05:31:49.287963 14293 net.cpp:157] Top shape: 1024 250 6 6 (9216000)
I0409 05:31:49.287968 14293 net.cpp:165] Memory required for data: 2138779648
I0409 05:31:49.287979 14293 layer_factory.hpp:77] Creating layer conv3_relu
I0409 05:31:49.287988 14293 net.cpp:100] Creating Layer conv3_relu
I0409 05:31:49.287992 14293 net.cpp:434] conv3_relu <- conv3
I0409 05:31:49.287998 14293 net.cpp:395] conv3_relu -> conv3 (in-place)
I0409 05:31:49.288905 14293 net.cpp:150] Setting up conv3_relu
I0409 05:31:49.288924 14293 net.cpp:157] Top shape: 1024 250 6 6 (9216000)
I0409 05:31:49.288928 14293 net.cpp:165] Memory required for data: 2175643648
I0409 05:31:49.288933 14293 layer_factory.hpp:77] Creating layer pool3
I0409 05:31:49.288939 14293 net.cpp:100] Creating Layer pool3
I0409 05:31:49.288944 14293 net.cpp:434] pool3 <- conv3
I0409 05:31:49.288970 14293 net.cpp:408] pool3 -> pool3
I0409 05:31:49.289027 14293 net.cpp:150] Setting up pool3
I0409 05:31:49.289036 14293 net.cpp:157] Top shape: 1024 250 3 3 (2304000)
I0409 05:31:49.289041 14293 net.cpp:165] Memory required for data: 2184859648
I0409 05:31:49.289043 14293 layer_factory.hpp:77] Creating layer fc4_300
I0409 05:31:49.289052 14293 net.cpp:100] Creating Layer fc4_300
I0409 05:31:49.289057 14293 net.cpp:434] fc4_300 <- pool3
I0409 05:31:49.289062 14293 net.cpp:408] fc4_300 -> fc4_300
I0409 05:31:49.295600 14293 net.cpp:150] Setting up fc4_300
I0409 05:31:49.295619 14293 net.cpp:157] Top shape: 1024 300 (307200)
I0409 05:31:49.295624 14293 net.cpp:165] Memory required for data: 2186088448
I0409 05:31:49.295634 14293 layer_factory.hpp:77] Creating layer fc4_relu
I0409 05:31:49.295640 14293 net.cpp:100] Creating Layer fc4_relu
I0409 05:31:49.295645 14293 net.cpp:434] fc4_relu <- fc4_300
I0409 05:31:49.295651 14293 net.cpp:395] fc4_relu -> fc4_300 (in-place)
I0409 05:31:49.295867 14293 net.cpp:150] Setting up fc4_relu
I0409 05:31:49.295886 14293 net.cpp:157] Top shape: 1024 300 (307200)
I0409 05:31:49.295891 14293 net.cpp:165] Memory required for data: 2187317248
I0409 05:31:49.295894 14293 layer_factory.hpp:77] Creating layer drop4
I0409 05:31:49.295902 14293 net.cpp:100] Creating Layer drop4
I0409 05:31:49.295907 14293 net.cpp:434] drop4 <- fc4_300
I0409 05:31:49.295913 14293 net.cpp:395] drop4 -> fc4_300 (in-place)
I0409 05:31:49.295949 14293 net.cpp:150] Setting up drop4
I0409 05:31:49.295958 14293 net.cpp:157] Top shape: 1024 300 (307200)
I0409 05:31:49.295960 14293 net.cpp:165] Memory required for data: 2188546048
I0409 05:31:49.295964 14293 layer_factory.hpp:77] Creating layer fc5_67
I0409 05:31:49.295971 14293 net.cpp:100] Creating Layer fc5_67
I0409 05:31:49.295976 14293 net.cpp:434] fc5_67 <- fc4_300
I0409 05:31:49.295981 14293 net.cpp:408] fc5_67 -> fc5_classes
I0409 05:31:49.297538 14293 net.cpp:150] Setting up fc5_67
I0409 05:31:49.297555 14293 net.cpp:157] Top shape: 1024 67 (68608)
I0409 05:31:49.297559 14293 net.cpp:165] Memory required for data: 2188820480
I0409 05:31:49.297571 14293 layer_factory.hpp:77] Creating layer loss
I0409 05:31:49.297580 14293 net.cpp:100] Creating Layer loss
I0409 05:31:49.297583 14293 net.cpp:434] loss <- fc5_classes
I0409 05:31:49.297588 14293 net.cpp:434] loss <- label
I0409 05:31:49.297595 14293 net.cpp:408] loss -> loss
I0409 05:31:49.297616 14293 layer_factory.hpp:77] Creating layer loss
…
I0409 05:31:49.298347 14293 solver.cpp:193] Creating test net (#0) specified by test_net file: ./Prototxt/experiment_6/rtsd-r1/CoNorm/trial_4/test.prototxt
I0409 05:31:49.298514 14293 net.cpp:58] Initializing net from parameters: 
state {
  phase: TEST
}
layer {
  name: "data"
  type: "Data"
  top: "data"
  top: "label"
  include {
    phase: TEST
  }
  transform_param {
    mirror: false
    crop_size: 48
    mean_value: 133
    mean_value: 133
    mean_value: 132
  }
  data_param {
    source: "../local_data/lmdb/rtsd-r1/CoNorm/test/lmdb"
    batch_size: 1024
    backend: LMDB
  }
}
layer {
  name: "conv1"
  type: "Convolution"
  bottom: "data"
  top: "conv1"
  convolution_param {
    num_output: 100
    pad: 0
    kernel_size: 7
    group: 1
    stride: 1
    weight_filler {
      type: "xavier"
    }
  }
}
layer {
  name: "conv1_relu"
  type: "ReLU"
  bottom: "conv1"
  top: "conv1"
}
layer {
  name: "pool1"
  type: "Pooling"
  bottom: "conv1"
  top: "pool1"
  pooling_param {
    pool: MAX
    kernel_size: 2
    stride: 2
  }
}
layer {
  name: "conv2"
  type: "Convolution"
  bottom: "pool1"
  top: "conv2"
  convolution_param {
    num_output: 150
    pad: 0
    kernel_size: 4
    group: 1
    stride: 1
    weight_filler {
      type: "xavier"
    }
  }
}
layer {
  name: "conv2_relu"
  type: "ReLU"
  bottom: "conv2"
  top: "conv2"
}
layer {
  name: "pool2"
  type: "Pooling"
  bottom: "conv2"
  top: "pool2"
  pooling_param {
    pool: MAX
    kernel_size: 2
    stride: 2
  }
}
layer {
  name: "conv3"
  type: "Convolution"
  bottom: "pool2"
  top: "conv3"
  convolution_param {
    num_output: 250
    pad: 0
    kernel_size: 4
    group: 1
    stride: 1
    weight_filler {
      type: "xavier"
    }
  }
}
layer {
  name: "conv3_relu"
  type: "ReLU"
  bottom: "conv3"
  top: "conv3"
}
layer {
  name: "pool3"
  type: "Pooling"
  bottom: "conv3"
  top: "pool3"
  pooling_param {
    pool: MAX
    kernel_size: 2
    stride: 2
  }
}
layer {
  name: "fc4_300"
  type: "InnerProduct"
  bottom: "pool3"
  top: "fc4_300"
  inner_product_param {
    num_output: 300
    weight_filler {
      type: "xavier"
    }
  }
}
layer {
  name: "fc4_relu"
  type: "ReLU"
  bottom: "fc4_300"
  top: "fc4_300"
}
layer {
  name: "drop4"
  type: "Dropout"
  bottom: "fc4_300"
  top: "fc4_300"
  dropout_param {
    dropout_ratio: 0.4
  }
}
layer {
  name: "fc5_67"
  type: "InnerProduct"
  bottom: "fc4_300"
  top: "fc5_classes"
  inner_product_param {
    num_output: 67
    weight_filler {
      type: "xavier"
    }
  }
}
layer {
  name: "loss"
  type: "SoftmaxWithLoss"
  bottom: "fc5_classes"
  bottom: "label"
  top: "loss"
}
layer {
  name: "accuracy_1"
  type: "Accuracy"
  bottom: "fc5_classes"
  bottom: "label"
  top: "accuracy_1"
  include {
    phase: TEST
  }
  accuracy_param {
    top_k: 1
  }
}
layer {
  name: "accuracy_5"
  type: "Accuracy"
  bottom: "fc5_classes"
  bottom: "label"
  top: "accuracy_5"
  include {
    phase: TEST
  }
  accuracy_param {
    top_k: 5
  }
}
I0409 05:31:49.298611 14293 layer_factory.hpp:77] Creating layer data
I0409 05:31:49.299305 14293 net.cpp:100] Creating Layer data
I0409 05:31:49.299317 14293 net.cpp:408] data -> data
I0409 05:31:49.299329 14293 net.cpp:408] data -> label
I0409 05:31:49.301703 14373 db_lmdb.cpp:35] Opened lmdb ../local_data/lmdb/rtsd-r1/CoNorm/test/lmdb
I0409 05:31:49.301868 14293 data_layer.cpp:41] output data size: 1024,3,48,48
I0409 05:31:49.345001 14293 net.cpp:150] Setting up data
I0409 05:31:49.345032 14293 net.cpp:157] Top shape: 1024 3 48 48 (7077888)
I0409 05:31:49.345038 14293 net.cpp:157] Top shape: 1024 (1024)
I0409 05:31:49.345041 14293 net.cpp:165] Memory required for data: 28315648
I0409 05:31:49.345047 14293 layer_factory.hpp:77] Creating layer label_data_1_split
I0409 05:31:49.345062 14293 net.cpp:100] Creating Layer label_data_1_split
I0409 05:31:49.345067 14293 net.cpp:434] label_data_1_split <- label
I0409 05:31:49.345074 14293 net.cpp:408] label_data_1_split -> label_data_1_split_0
I0409 05:31:49.345084 14293 net.cpp:408] label_data_1_split -> label_data_1_split_1
I0409 05:31:49.345090 14293 net.cpp:408] label_data_1_split -> label_data_1_split_2
I0409 05:31:49.345191 14293 net.cpp:150] Setting up label_data_1_split
I0409 05:31:49.345201 14293 net.cpp:157] Top shape: 1024 (1024)
I0409 05:31:49.345206 14293 net.cpp:157] Top shape: 1024 (1024)
I0409 05:31:49.345208 14293 net.cpp:157] Top shape: 1024 (1024)
I0409 05:31:49.345211 14293 net.cpp:165] Memory required for data: 28327936
I0409 05:31:49.345214 14293 layer_factory.hpp:77] Creating layer conv1
I0409 05:31:49.345227 14293 net.cpp:100] Creating Layer conv1
I0409 05:31:49.345232 14293 net.cpp:434] conv1 <- data
I0409 05:31:49.345238 14293 net.cpp:408] conv1 -> conv1
I0409 05:31:49.347082 14293 net.cpp:150] Setting up conv1
I0409 05:31:49.347100 14293 net.cpp:157] Top shape: 1024 100 42 42 (180633600)
I0409 05:31:49.347103 14293 net.cpp:165] Memory required for data: 750862336
I0409 05:31:49.347115 14293 layer_factory.hpp:77] Creating layer conv1_relu
I0409 05:31:49.347122 14293 net.cpp:100] Creating Layer conv1_relu
I0409 05:31:49.347126 14293 net.cpp:434] conv1_relu <- conv1
I0409 05:31:49.347131 14293 net.cpp:395] conv1_relu -> conv1 (in-place)
I0409 05:31:49.349567 14293 net.cpp:150] Setting up conv1_relu
I0409 05:31:49.349581 14293 net.cpp:157] Top shape: 1024 100 42 42 (180633600)
I0409 05:31:49.349584 14293 net.cpp:165] Memory required for data: 1473396736
I0409 05:31:49.349588 14293 layer_factory.hpp:77] Creating layer pool1
I0409 05:31:49.349598 14293 net.cpp:100] Creating Layer pool1
I0409 05:31:49.349601 14293 net.cpp:434] pool1 <- conv1
I0409 05:31:49.349606 14293 net.cpp:408] pool1 -> pool1
I0409 05:31:49.349660 14293 net.cpp:150] Setting up pool1
I0409 05:31:49.349668 14293 net.cpp:157] Top shape: 1024 100 21 21 (45158400)
I0409 05:31:49.349671 14293 net.cpp:165] Memory required for data: 1654030336
I0409 05:31:49.349674 14293 layer_factory.hpp:77] Creating layer conv2
I0409 05:31:49.349684 14293 net.cpp:100] Creating Layer conv2
I0409 05:31:49.349689 14293 net.cpp:434] conv2 <- pool1
I0409 05:31:49.349695 14293 net.cpp:408] conv2 -> conv2
I0409 05:31:49.353749 14293 net.cpp:150] Setting up conv2
I0409 05:31:49.353767 14293 net.cpp:157] Top shape: 1024 150 18 18 (49766400)
I0409 05:31:49.353772 14293 net.cpp:165] Memory required for data: 1853095936
I0409 05:31:49.353782 14293 layer_factory.hpp:77] Creating layer conv2_relu
I0409 05:31:49.353790 14293 net.cpp:100] Creating Layer conv2_relu
I0409 05:31:49.353793 14293 net.cpp:434] conv2_relu <- conv2
I0409 05:31:49.353798 14293 net.cpp:395] conv2_relu -> conv2 (in-place)
I0409 05:31:49.354751 14293 net.cpp:150] Setting up conv2_relu
I0409 05:31:49.354768 14293 net.cpp:157] Top shape: 1024 150 18 18 (49766400)
I0409 05:31:49.354771 14293 net.cpp:165] Memory required for data: 2052161536
I0409 05:31:49.354775 14293 layer_factory.hpp:77] Creating layer pool2
I0409 05:31:49.354781 14293 net.cpp:100] Creating Layer pool2
I0409 05:31:49.354785 14293 net.cpp:434] pool2 <- conv2
I0409 05:31:49.354790 14293 net.cpp:408] pool2 -> pool2
I0409 05:31:49.354842 14293 net.cpp:150] Setting up pool2
I0409 05:31:49.354851 14293 net.cpp:157] Top shape: 1024 150 9 9 (12441600)
I0409 05:31:49.354853 14293 net.cpp:165] Memory required for data: 2101927936
I0409 05:31:49.354856 14293 layer_factory.hpp:77] Creating layer conv3
I0409 05:31:49.354866 14293 net.cpp:100] Creating Layer conv3
I0409 05:31:49.354869 14293 net.cpp:434] conv3 <- pool2
I0409 05:31:49.354876 14293 net.cpp:408] conv3 -> conv3
I0409 05:31:49.360774 14293 net.cpp:150] Setting up conv3
I0409 05:31:49.360792 14293 net.cpp:157] Top shape: 1024 250 6 6 (9216000)
I0409 05:31:49.360795 14293 net.cpp:165] Memory required for data: 2138791936
I0409 05:31:49.360807 14293 layer_factory.hpp:77] Creating layer conv3_relu
I0409 05:31:49.360815 14293 net.cpp:100] Creating Layer conv3_relu
I0409 05:31:49.360817 14293 net.cpp:434] conv3_relu <- conv3
I0409 05:31:49.360822 14293 net.cpp:395] conv3_relu -> conv3 (in-place)
I0409 05:31:49.361750 14293 net.cpp:150] Setting up conv3_relu
I0409 05:31:49.361766 14293 net.cpp:157] Top shape: 1024 250 6 6 (9216000)
I0409 05:31:49.361769 14293 net.cpp:165] Memory required for data: 2175655936
I0409 05:31:49.361791 14293 layer_factory.hpp:77] Creating layer pool3
I0409 05:31:49.361799 14293 net.cpp:100] Creating Layer pool3
I0409 05:31:49.361802 14293 net.cpp:434] pool3 <- conv3
I0409 05:31:49.361809 14293 net.cpp:408] pool3 -> pool3
I0409 05:31:49.361858 14293 net.cpp:150] Setting up pool3
I0409 05:31:49.361867 14293 net.cpp:157] Top shape: 1024 250 3 3 (2304000)
I0409 05:31:49.361871 14293 net.cpp:165] Memory required for data: 2184871936
I0409 05:31:49.361872 14293 layer_factory.hpp:77] Creating layer fc4_300
I0409 05:31:49.361881 14293 net.cpp:100] Creating Layer fc4_300
I0409 05:31:49.361884 14293 net.cpp:434] fc4_300 <- pool3
I0409 05:31:49.361889 14293 net.cpp:408] fc4_300 -> fc4_300
I0409 05:31:49.367590 14293 net.cpp:150] Setting up fc4_300
I0409 05:31:49.367607 14293 net.cpp:157] Top shape: 1024 300 (307200)
I0409 05:31:49.367610 14293 net.cpp:165] Memory required for data: 2186100736
I0409 05:31:49.367619 14293 layer_factory.hpp:77] Creating layer fc4_relu
I0409 05:31:49.367624 14293 net.cpp:100] Creating Layer fc4_relu
I0409 05:31:49.367627 14293 net.cpp:434] fc4_relu <- fc4_300
I0409 05:31:49.367632 14293 net.cpp:395] fc4_relu -> fc4_300 (in-place)
I0409 05:31:49.367822 14293 net.cpp:150] Setting up fc4_relu
I0409 05:31:49.367835 14293 net.cpp:157] Top shape: 1024 300 (307200)
I0409 05:31:49.367837 14293 net.cpp:165] Memory required for data: 2187329536
I0409 05:31:49.367841 14293 layer_factory.hpp:77] Creating layer drop4
I0409 05:31:49.367846 14293 net.cpp:100] Creating Layer drop4
I0409 05:31:49.367849 14293 net.cpp:434] drop4 <- fc4_300
I0409 05:31:49.367854 14293 net.cpp:395] drop4 -> fc4_300 (in-place)
I0409 05:31:49.367892 14293 net.cpp:150] Setting up drop4
I0409 05:31:49.367899 14293 net.cpp:157] Top shape: 1024 300 (307200)
I0409 05:31:49.367902 14293 net.cpp:165] Memory required for data: 2188558336
I0409 05:31:49.367905 14293 layer_factory.hpp:77] Creating layer fc5_67
I0409 05:31:49.367921 14293 net.cpp:100] Creating Layer fc5_67
I0409 05:31:49.367924 14293 net.cpp:434] fc5_67 <- fc4_300
I0409 05:31:49.367929 14293 net.cpp:408] fc5_67 -> fc5_classes
I0409 05:31:49.368177 14293 net.cpp:150] Setting up fc5_67
I0409 05:31:49.368185 14293 net.cpp:157] Top shape: 1024 67 (68608)
I0409 05:31:49.368191 14293 net.cpp:165] Memory required for data: 2188832768
I0409 05:31:49.368201 14293 layer_factory.hpp:77] Creating layer fc5_classes_fc5_67_0_split
I0409 05:31:49.368207 14293 net.cpp:100] Creating Layer fc5_classes_fc5_67_0_split
I0409 05:31:49.368212 14293 net.cpp:434] fc5_classes_fc5_67_0_split <- fc5_classes
I0409 05:31:49.368217 14293 net.cpp:408] fc5_classes_fc5_67_0_split -> fc5_classes_fc5_67_0_split_0
I0409 05:31:49.368224 14293 net.cpp:408] fc5_classes_fc5_67_0_split -> fc5_classes_fc5_67_0_split_1
I0409 05:31:49.368232 14293 net.cpp:408] fc5_classes_fc5_67_0_split -> fc5_classes_fc5_67_0_split_2
I0409 05:31:49.368278 14293 net.cpp:150] Setting up fc5_classes_fc5_67_0_split
I0409 05:31:49.368284 14293 net.cpp:157] Top shape: 1024 67 (68608)
I0409 05:31:49.368288 14293 net.cpp:157] Top shape: 1024 67 (68608)
I0409 05:31:49.368291 14293 net.cpp:157] Top shape: 1024 67 (68608)
I0409 05:31:49.368294 14293 net.cpp:165] Memory required for data: 2189656064
I0409 05:31:49.368297 14293 layer_factory.hpp:77] Creating layer loss
I0409 05:31:49.368305 14293 net.cpp:100] Creating Layer loss
I0409 05:31:49.368309 14293 net.cpp:434] loss <- fc5_classes_fc5_67_0_split_0
I0409 05:31:49.368314 14293 net.cpp:434] loss <- label_data_1_split_0
I0409 05:31:49.368319 14293 net.cpp:408] loss -> loss
…
