…
I0507 05:28:13.762565  5279 solver.cpp:93] Creating training net from train_net file: ./Prototxt/experiment_14/RTSD/histeq/trial_2/train.prototxt
I0507 05:28:13.762933  5279 net.cpp:58] Initializing net from parameters: 
state {
  phase: TRAIN
  level: 0
  stage: ""
}
layer {
  name: "data"
  type: "Data"
  top: "data"
  top: "label"
  include {
    phase: TRAIN
  }
  transform_param {
    scale: 0.0039215689
    mirror: false
    crop_size: 48
    mean_value: 134
    mean_value: 128
    mean_value: 128
  }
  data_param {
    source: "../local_data/lmdb/RTSD/histeq/train/lmdb"
    batch_size: 512
    backend: LMDB
  }
}
layer {
  name: "conv1"
  type: "Convolution"
  bottom: "data"
  top: "conv1"
  convolution_param {
    num_output: 100
    pad: 0
    kernel_size: 7
    group: 1
    stride: 1
    weight_filler {
      type: "xavier"
    }
  }
}
layer {
  name: "conv1_relu"
  type: "ReLU"
  bottom: "conv1"
  top: "conv1"
}
layer {
  name: "pool1"
  type: "Pooling"
  bottom: "conv1"
  top: "pool1"
  pooling_param {
    pool: MAX
    kernel_size: 2
    stride: 2
  }
}
layer {
  name: "conv2"
  type: "Convolution"
  bottom: "pool1"
  top: "conv2"
  convolution_param {
    num_output: 150
    pad: 0
    kernel_size: 4
    group: 1
    stride: 1
    weight_filler {
      type: "xavier"
    }
  }
}
layer {
  name: "conv2_relu"
  type: "ReLU"
  bottom: "conv2"
  top: "conv2"
}
layer {
  name: "pool2"
  type: "Pooling"
  bottom: "conv2"
  top: "pool2"
  pooling_param {
    pool: MAX
    kernel_size: 2
    stride: 2
  }
}
layer {
  name: "conv3"
  type: "Convolution"
  bottom: "pool2"
  top: "conv3"
  convolution_param {
    num_output: 250
    pad: 0
    kernel_size: 4
    group: 1
    stride: 1
    weight_filler {
      type: "xavier"
    }
  }
}
layer {
  name: "conv3_relu"
  type: "ReLU"
  bottom: "conv3"
  top: "conv3"
}
layer {
  name: "pool3"
  type: "Pooling"
  bottom: "conv3"
  top: "pool3"
  pooling_param {
    pool: MAX
    kernel_size: 2
    stride: 2
  }
}
layer {
  name: "fc4_300"
  type: "InnerProduct"
  bottom: "pool3"
  top: "fc4_300"
  inner_product_param {
    num_output: 300
    weight_filler {
      type: "xavier"
    }
  }
}
layer {
  name: "fc4_relu"
  type: "ReLU"
  bottom: "fc4_300"
  top: "fc4_300"
}
layer {
  name: "fc5_116"
  type: "InnerProduct"
  bottom: "fc4_300"
  top: "fc5_classes"
  inner_product_param {
    num_output: 116
    weight_filler {
      type: "xavier"
    }
  }
}
layer {
  name: "softmax"
  type: "Softmax"
  bottom: "fc5_classes"
  top: "softmax"
}
layer {
  name: "loss"
  type: "MultinomialLogisticLoss"
  bottom: "softmax"
  bottom: "label"
  top: "loss"
}
layer {
  name: "accuracy_1"
  type: "Accuracy"
  bottom: "fc5_classes"
  bottom: "label"
  top: "accuracy_1"
  accuracy_param {
    top_k: 1
  }
}
layer {
  name: "accuracy_5"
  type: "Accuracy"
  bottom: "fc5_classes"
  bottom: "label"
  top: "accuracy_5"
  accuracy_param {
    top_k: 5
  }
}
layer {
  name: "silence"
  type: "Silence"
  bottom: "accuracy_1"
  bottom: "accuracy_5"
}
I0507 05:28:13.763048  5279 layer_factory.hpp:77] Creating layer data
I0507 05:28:13.763806  5279 net.cpp:100] Creating Layer data
I0507 05:28:13.763823  5279 net.cpp:408] data -> data
I0507 05:28:13.763844  5279 net.cpp:408] data -> label
I0507 05:28:13.771484  5396 db_lmdb.cpp:35] Opened lmdb ../local_data/lmdb/RTSD/histeq/train/lmdb
I0507 05:28:13.793918  5279 data_layer.cpp:41] output data size: 512,3,48,48
I0507 05:28:13.832448  5279 net.cpp:150] Setting up data
I0507 05:28:13.832495  5279 net.cpp:157] Top shape: 512 3 48 48 (3538944)
I0507 05:28:13.832502  5279 net.cpp:157] Top shape: 512 (512)
I0507 05:28:13.832504  5279 net.cpp:165] Memory required for data: 14157824
I0507 05:28:13.832515  5279 layer_factory.hpp:77] Creating layer label_data_1_split
I0507 05:28:13.832530  5279 net.cpp:100] Creating Layer label_data_1_split
I0507 05:28:13.832542  5279 net.cpp:434] label_data_1_split <- label
I0507 05:28:13.832556  5279 net.cpp:408] label_data_1_split -> label_data_1_split_0
I0507 05:28:13.832567  5279 net.cpp:408] label_data_1_split -> label_data_1_split_1
I0507 05:28:13.832578  5279 net.cpp:408] label_data_1_split -> label_data_1_split_2
I0507 05:28:13.832638  5279 net.cpp:150] Setting up label_data_1_split
I0507 05:28:13.832645  5279 net.cpp:157] Top shape: 512 (512)
I0507 05:28:13.832649  5279 net.cpp:157] Top shape: 512 (512)
I0507 05:28:13.832653  5279 net.cpp:157] Top shape: 512 (512)
I0507 05:28:13.832655  5279 net.cpp:165] Memory required for data: 14163968
I0507 05:28:13.832659  5279 layer_factory.hpp:77] Creating layer conv1
I0507 05:28:13.832676  5279 net.cpp:100] Creating Layer conv1
I0507 05:28:13.832692  5279 net.cpp:434] conv1 <- data
I0507 05:28:13.832700  5279 net.cpp:408] conv1 -> conv1
I0507 05:28:14.206881  5279 net.cpp:150] Setting up conv1
I0507 05:28:14.206908  5279 net.cpp:157] Top shape: 512 100 42 42 (90316800)
I0507 05:28:14.206912  5279 net.cpp:165] Memory required for data: 375431168
I0507 05:28:14.206934  5279 layer_factory.hpp:77] Creating layer conv1_relu
I0507 05:28:14.206945  5279 net.cpp:100] Creating Layer conv1_relu
I0507 05:28:14.206954  5279 net.cpp:434] conv1_relu <- conv1
I0507 05:28:14.206959  5279 net.cpp:395] conv1_relu -> conv1 (in-place)
I0507 05:28:14.207166  5279 net.cpp:150] Setting up conv1_relu
I0507 05:28:14.207180  5279 net.cpp:157] Top shape: 512 100 42 42 (90316800)
I0507 05:28:14.207183  5279 net.cpp:165] Memory required for data: 736698368
I0507 05:28:14.207186  5279 layer_factory.hpp:77] Creating layer pool1
I0507 05:28:14.207197  5279 net.cpp:100] Creating Layer pool1
I0507 05:28:14.207203  5279 net.cpp:434] pool1 <- conv1
I0507 05:28:14.207209  5279 net.cpp:408] pool1 -> pool1
I0507 05:28:14.207267  5279 net.cpp:150] Setting up pool1
I0507 05:28:14.207274  5279 net.cpp:157] Top shape: 512 100 21 21 (22579200)
I0507 05:28:14.207278  5279 net.cpp:165] Memory required for data: 827015168
I0507 05:28:14.207280  5279 layer_factory.hpp:77] Creating layer conv2
I0507 05:28:14.207293  5279 net.cpp:100] Creating Layer conv2
I0507 05:28:14.207298  5279 net.cpp:434] conv2 <- pool1
I0507 05:28:14.207303  5279 net.cpp:408] conv2 -> conv2
I0507 05:28:14.212530  5279 net.cpp:150] Setting up conv2
I0507 05:28:14.212548  5279 net.cpp:157] Top shape: 512 150 18 18 (24883200)
I0507 05:28:14.212550  5279 net.cpp:165] Memory required for data: 926547968
I0507 05:28:14.212561  5279 layer_factory.hpp:77] Creating layer conv2_relu
I0507 05:28:14.212568  5279 net.cpp:100] Creating Layer conv2_relu
I0507 05:28:14.212571  5279 net.cpp:434] conv2_relu <- conv2
I0507 05:28:14.212579  5279 net.cpp:395] conv2_relu -> conv2 (in-place)
I0507 05:28:14.213551  5279 net.cpp:150] Setting up conv2_relu
I0507 05:28:14.213565  5279 net.cpp:157] Top shape: 512 150 18 18 (24883200)
I0507 05:28:14.213568  5279 net.cpp:165] Memory required for data: 1026080768
I0507 05:28:14.213572  5279 layer_factory.hpp:77] Creating layer pool2
I0507 05:28:14.213580  5279 net.cpp:100] Creating Layer pool2
I0507 05:28:14.213584  5279 net.cpp:434] pool2 <- conv2
I0507 05:28:14.213589  5279 net.cpp:408] pool2 -> pool2
I0507 05:28:14.213641  5279 net.cpp:150] Setting up pool2
I0507 05:28:14.213650  5279 net.cpp:157] Top shape: 512 150 9 9 (6220800)
I0507 05:28:14.213654  5279 net.cpp:165] Memory required for data: 1050963968
I0507 05:28:14.213656  5279 layer_factory.hpp:77] Creating layer conv3
I0507 05:28:14.213668  5279 net.cpp:100] Creating Layer conv3
I0507 05:28:14.213675  5279 net.cpp:434] conv3 <- pool2
I0507 05:28:14.213680  5279 net.cpp:408] conv3 -> conv3
I0507 05:28:14.219885  5279 net.cpp:150] Setting up conv3
I0507 05:28:14.219903  5279 net.cpp:157] Top shape: 512 250 6 6 (4608000)
I0507 05:28:14.219907  5279 net.cpp:165] Memory required for data: 1069395968
I0507 05:28:14.219918  5279 layer_factory.hpp:77] Creating layer conv3_relu
I0507 05:28:14.219923  5279 net.cpp:100] Creating Layer conv3_relu
I0507 05:28:14.219928  5279 net.cpp:434] conv3_relu <- conv3
I0507 05:28:14.219934  5279 net.cpp:395] conv3_relu -> conv3 (in-place)
I0507 05:28:14.221647  5279 net.cpp:150] Setting up conv3_relu
I0507 05:28:14.221664  5279 net.cpp:157] Top shape: 512 250 6 6 (4608000)
I0507 05:28:14.221668  5279 net.cpp:165] Memory required for data: 1087827968
I0507 05:28:14.221673  5279 layer_factory.hpp:77] Creating layer pool3
I0507 05:28:14.221684  5279 net.cpp:100] Creating Layer pool3
I0507 05:28:14.221693  5279 net.cpp:434] pool3 <- conv3
I0507 05:28:14.221698  5279 net.cpp:408] pool3 -> pool3
I0507 05:28:14.221750  5279 net.cpp:150] Setting up pool3
I0507 05:28:14.221758  5279 net.cpp:157] Top shape: 512 250 3 3 (1152000)
I0507 05:28:14.221760  5279 net.cpp:165] Memory required for data: 1092435968
I0507 05:28:14.221763  5279 layer_factory.hpp:77] Creating layer fc4_300
I0507 05:28:14.221771  5279 net.cpp:100] Creating Layer fc4_300
I0507 05:28:14.221774  5279 net.cpp:434] fc4_300 <- pool3
I0507 05:28:14.221781  5279 net.cpp:408] fc4_300 -> fc4_300
I0507 05:28:14.227964  5279 net.cpp:150] Setting up fc4_300
I0507 05:28:14.227982  5279 net.cpp:157] Top shape: 512 300 (153600)
I0507 05:28:14.227985  5279 net.cpp:165] Memory required for data: 1093050368
I0507 05:28:14.227993  5279 layer_factory.hpp:77] Creating layer fc4_relu
I0507 05:28:14.227998  5279 net.cpp:100] Creating Layer fc4_relu
I0507 05:28:14.228001  5279 net.cpp:434] fc4_relu <- fc4_300
I0507 05:28:14.228008  5279 net.cpp:395] fc4_relu -> fc4_300 (in-place)
I0507 05:28:14.228209  5279 net.cpp:150] Setting up fc4_relu
I0507 05:28:14.228220  5279 net.cpp:157] Top shape: 512 300 (153600)
I0507 05:28:14.228224  5279 net.cpp:165] Memory required for data: 1093664768
I0507 05:28:14.228226  5279 layer_factory.hpp:77] Creating layer fc5_116
I0507 05:28:14.228233  5279 net.cpp:100] Creating Layer fc5_116
I0507 05:28:14.228237  5279 net.cpp:434] fc5_116 <- fc4_300
I0507 05:28:14.228243  5279 net.cpp:408] fc5_116 -> fc5_classes
I0507 05:28:14.239094  5279 net.cpp:150] Setting up fc5_116
I0507 05:28:14.239114  5279 net.cpp:157] Top shape: 512 116 (59392)
I0507 05:28:14.239117  5279 net.cpp:165] Memory required for data: 1093902336
I0507 05:28:14.239130  5279 layer_factory.hpp:77] Creating layer fc5_classes_fc5_116_0_split
I0507 05:28:14.239140  5279 net.cpp:100] Creating Layer fc5_classes_fc5_116_0_split
I0507 05:28:14.239148  5279 net.cpp:434] fc5_classes_fc5_116_0_split <- fc5_classes
I0507 05:28:14.239154  5279 net.cpp:408] fc5_classes_fc5_116_0_split -> fc5_classes_fc5_116_0_split_0
I0507 05:28:14.239161  5279 net.cpp:408] fc5_classes_fc5_116_0_split -> fc5_classes_fc5_116_0_split_1
I0507 05:28:14.239167  5279 net.cpp:408] fc5_classes_fc5_116_0_split -> fc5_classes_fc5_116_0_split_2
I0507 05:28:14.239223  5279 net.cpp:150] Setting up fc5_classes_fc5_116_0_split
I0507 05:28:14.239231  5279 net.cpp:157] Top shape: 512 116 (59392)
I0507 05:28:14.239235  5279 net.cpp:157] Top shape: 512 116 (59392)
I0507 05:28:14.239238  5279 net.cpp:157] Top shape: 512 116 (59392)
I0507 05:28:14.239240  5279 net.cpp:165] Memory required for data: 1094615040
I0507 05:28:14.239243  5279 layer_factory.hpp:77] Creating layer softmax
I0507 05:28:14.239249  5279 net.cpp:100] Creating Layer softmax
I0507 05:28:14.239253  5279 net.cpp:434] softmax <- fc5_classes_fc5_116_0_split_0
I0507 05:28:14.239258  5279 net.cpp:408] softmax -> softmax
I0507 05:28:14.239532  5279 net.cpp:150] Setting up softmax
I0507 05:28:14.239544  5279 net.cpp:157] Top shape: 512 116 (59392)
I0507 05:28:14.239547  5279 net.cpp:165] Memory required for data: 1094852608
I0507 05:28:14.239552  5279 layer_factory.hpp:77] Creating layer loss
I0507 05:28:14.239562  5279 net.cpp:100] Creating Layer loss
I0507 05:28:14.239583  5279 net.cpp:434] loss <- softmax
I0507 05:28:14.239588  5279 net.cpp:434] loss <- label_data_1_split_0
I0507 05:28:14.239594  5279 net.cpp:408] loss -> loss
…
