…
I0507 06:49:12.275125  2959 solver.cpp:93] Creating training net from train_net file: ./Prototxt/experiment_14/RTSD/histeq/trial_5/train.prototxt
I0507 06:49:12.275483  2959 net.cpp:58] Initializing net from parameters: 
state {
  phase: TRAIN
  level: 0
  stage: ""
}
layer {
  name: "data"
  type: "Data"
  top: "data"
  top: "label"
  include {
    phase: TRAIN
  }
  transform_param {
    scale: 0.0039215689
    mirror: false
    crop_size: 48
    mean_value: 134
    mean_value: 128
    mean_value: 128
  }
  data_param {
    source: "../local_data/lmdb/RTSD/histeq/train/lmdb"
    batch_size: 512
    backend: LMDB
  }
}
layer {
  name: "conv1"
  type: "Convolution"
  bottom: "data"
  top: "conv1"
  convolution_param {
    num_output: 100
    pad: 0
    kernel_size: 7
    group: 1
    stride: 1
    weight_filler {
      type: "xavier"
    }
  }
}
layer {
  name: "conv1_relu"
  type: "ReLU"
  bottom: "conv1"
  top: "conv1"
}
layer {
  name: "pool1"
  type: "Pooling"
  bottom: "conv1"
  top: "pool1"
  pooling_param {
    pool: MAX
    kernel_size: 2
    stride: 2
  }
}
layer {
  name: "conv2"
  type: "Convolution"
  bottom: "pool1"
  top: "conv2"
  convolution_param {
    num_output: 150
    pad: 0
    kernel_size: 4
    group: 1
    stride: 1
    weight_filler {
      type: "xavier"
    }
  }
}
layer {
  name: "conv2_relu"
  type: "ReLU"
  bottom: "conv2"
  top: "conv2"
}
layer {
  name: "pool2"
  type: "Pooling"
  bottom: "conv2"
  top: "pool2"
  pooling_param {
    pool: MAX
    kernel_size: 2
    stride: 2
  }
}
layer {
  name: "conv3"
  type: "Convolution"
  bottom: "pool2"
  top: "conv3"
  convolution_param {
    num_output: 250
    pad: 0
    kernel_size: 4
    group: 1
    stride: 1
    weight_filler {
      type: "xavier"
    }
  }
}
layer {
  name: "conv3_relu"
  type: "ReLU"
  bottom: "conv3"
  top: "conv3"
}
layer {
  name: "pool3"
  type: "Pooling"
  bottom: "conv3"
  top: "pool3"
  pooling_param {
    pool: MAX
    kernel_size: 2
    stride: 2
  }
}
layer {
  name: "fc4_300"
  type: "InnerProduct"
  bottom: "pool3"
  top: "fc4_300"
  inner_product_param {
    num_output: 300
    weight_filler {
      type: "xavier"
    }
  }
}
layer {
  name: "fc4_relu"
  type: "ReLU"
  bottom: "fc4_300"
  top: "fc4_300"
}
layer {
  name: "fc5_116"
  type: "InnerProduct"
  bottom: "fc4_300"
  top: "fc5_classes"
  inner_product_param {
    num_output: 116
    weight_filler {
      type: "xavier"
    }
  }
}
layer {
  name: "softmax"
  type: "Softmax"
  bottom: "fc5_classes"
  top: "softmax"
}
layer {
  name: "loss"
  type: "MultinomialLogisticLoss"
  bottom: "softmax"
  bottom: "label"
  top: "loss"
}
layer {
  name: "accuracy_1"
  type: "Accuracy"
  bottom: "fc5_classes"
  bottom: "label"
  top: "accuracy_1"
  accuracy_param {
    top_k: 1
  }
}
layer {
  name: "accuracy_5"
  type: "Accuracy"
  bottom: "fc5_classes"
  bottom: "label"
  top: "accuracy_5"
  accuracy_param {
    top_k: 5
  }
}
layer {
  name: "silence"
  type: "Silence"
  bottom: "accuracy_1"
  bottom: "accuracy_5"
}
I0507 06:49:12.275609  2959 layer_factory.hpp:77] Creating layer data
I0507 06:49:12.276424  2959 net.cpp:100] Creating Layer data
I0507 06:49:12.276439  2959 net.cpp:408] data -> data
I0507 06:49:12.276463  2959 net.cpp:408] data -> label
I0507 06:49:12.292778  3074 db_lmdb.cpp:35] Opened lmdb ../local_data/lmdb/RTSD/histeq/train/lmdb
I0507 06:49:12.314378  2959 data_layer.cpp:41] output data size: 512,3,48,48
I0507 06:49:12.347192  2959 net.cpp:150] Setting up data
I0507 06:49:12.347241  2959 net.cpp:157] Top shape: 512 3 48 48 (3538944)
I0507 06:49:12.347249  2959 net.cpp:157] Top shape: 512 (512)
I0507 06:49:12.347251  2959 net.cpp:165] Memory required for data: 14157824
I0507 06:49:12.347262  2959 layer_factory.hpp:77] Creating layer label_data_1_split
I0507 06:49:12.347276  2959 net.cpp:100] Creating Layer label_data_1_split
I0507 06:49:12.347281  2959 net.cpp:434] label_data_1_split <- label
I0507 06:49:12.347297  2959 net.cpp:408] label_data_1_split -> label_data_1_split_0
I0507 06:49:12.347311  2959 net.cpp:408] label_data_1_split -> label_data_1_split_1
I0507 06:49:12.347317  2959 net.cpp:408] label_data_1_split -> label_data_1_split_2
I0507 06:49:12.347388  2959 net.cpp:150] Setting up label_data_1_split
I0507 06:49:12.347395  2959 net.cpp:157] Top shape: 512 (512)
I0507 06:49:12.347399  2959 net.cpp:157] Top shape: 512 (512)
I0507 06:49:12.347403  2959 net.cpp:157] Top shape: 512 (512)
I0507 06:49:12.347405  2959 net.cpp:165] Memory required for data: 14163968
I0507 06:49:12.347409  2959 layer_factory.hpp:77] Creating layer conv1
I0507 06:49:12.347425  2959 net.cpp:100] Creating Layer conv1
I0507 06:49:12.347429  2959 net.cpp:434] conv1 <- data
I0507 06:49:12.347436  2959 net.cpp:408] conv1 -> conv1
I0507 06:49:12.805387  2959 net.cpp:150] Setting up conv1
I0507 06:49:12.805415  2959 net.cpp:157] Top shape: 512 100 42 42 (90316800)
I0507 06:49:12.805419  2959 net.cpp:165] Memory required for data: 375431168
I0507 06:49:12.805444  2959 layer_factory.hpp:77] Creating layer conv1_relu
I0507 06:49:12.805457  2959 net.cpp:100] Creating Layer conv1_relu
I0507 06:49:12.805464  2959 net.cpp:434] conv1_relu <- conv1
I0507 06:49:12.805469  2959 net.cpp:395] conv1_relu -> conv1 (in-place)
I0507 06:49:12.805704  2959 net.cpp:150] Setting up conv1_relu
I0507 06:49:12.805718  2959 net.cpp:157] Top shape: 512 100 42 42 (90316800)
I0507 06:49:12.805721  2959 net.cpp:165] Memory required for data: 736698368
I0507 06:49:12.805726  2959 layer_factory.hpp:77] Creating layer pool1
I0507 06:49:12.805737  2959 net.cpp:100] Creating Layer pool1
I0507 06:49:12.805742  2959 net.cpp:434] pool1 <- conv1
I0507 06:49:12.805749  2959 net.cpp:408] pool1 -> pool1
I0507 06:49:12.805812  2959 net.cpp:150] Setting up pool1
I0507 06:49:12.805822  2959 net.cpp:157] Top shape: 512 100 21 21 (22579200)
I0507 06:49:12.805825  2959 net.cpp:165] Memory required for data: 827015168
I0507 06:49:12.805830  2959 layer_factory.hpp:77] Creating layer conv2
I0507 06:49:12.805841  2959 net.cpp:100] Creating Layer conv2
I0507 06:49:12.805846  2959 net.cpp:434] conv2 <- pool1
I0507 06:49:12.805855  2959 net.cpp:408] conv2 -> conv2
I0507 06:49:12.832958  2959 net.cpp:150] Setting up conv2
I0507 06:49:12.832988  2959 net.cpp:157] Top shape: 512 150 18 18 (24883200)
I0507 06:49:12.832993  2959 net.cpp:165] Memory required for data: 926547968
I0507 06:49:12.833009  2959 layer_factory.hpp:77] Creating layer conv2_relu
I0507 06:49:12.833019  2959 net.cpp:100] Creating Layer conv2_relu
I0507 06:49:12.833026  2959 net.cpp:434] conv2_relu <- conv2
I0507 06:49:12.833034  2959 net.cpp:395] conv2_relu -> conv2 (in-place)
I0507 06:49:12.834172  2959 net.cpp:150] Setting up conv2_relu
I0507 06:49:12.834190  2959 net.cpp:157] Top shape: 512 150 18 18 (24883200)
I0507 06:49:12.834193  2959 net.cpp:165] Memory required for data: 1026080768
I0507 06:49:12.834198  2959 layer_factory.hpp:77] Creating layer pool2
I0507 06:49:12.834206  2959 net.cpp:100] Creating Layer pool2
I0507 06:49:12.834211  2959 net.cpp:434] pool2 <- conv2
I0507 06:49:12.834219  2959 net.cpp:408] pool2 -> pool2
I0507 06:49:12.834285  2959 net.cpp:150] Setting up pool2
I0507 06:49:12.834293  2959 net.cpp:157] Top shape: 512 150 9 9 (6220800)
I0507 06:49:12.834296  2959 net.cpp:165] Memory required for data: 1050963968
I0507 06:49:12.834300  2959 layer_factory.hpp:77] Creating layer conv3
I0507 06:49:12.834312  2959 net.cpp:100] Creating Layer conv3
I0507 06:49:12.834317  2959 net.cpp:434] conv3 <- pool2
I0507 06:49:12.834324  2959 net.cpp:408] conv3 -> conv3
I0507 06:49:12.840209  2959 net.cpp:150] Setting up conv3
I0507 06:49:12.840231  2959 net.cpp:157] Top shape: 512 250 6 6 (4608000)
I0507 06:49:12.840236  2959 net.cpp:165] Memory required for data: 1069395968
I0507 06:49:12.840251  2959 layer_factory.hpp:77] Creating layer conv3_relu
I0507 06:49:12.840270  2959 net.cpp:100] Creating Layer conv3_relu
I0507 06:49:12.840278  2959 net.cpp:434] conv3_relu <- conv3
I0507 06:49:12.840291  2959 net.cpp:395] conv3_relu -> conv3 (in-place)
I0507 06:49:12.849905  2959 net.cpp:150] Setting up conv3_relu
I0507 06:49:12.849926  2959 net.cpp:157] Top shape: 512 250 6 6 (4608000)
I0507 06:49:12.849931  2959 net.cpp:165] Memory required for data: 1087827968
I0507 06:49:12.849936  2959 layer_factory.hpp:77] Creating layer pool3
I0507 06:49:12.849944  2959 net.cpp:100] Creating Layer pool3
I0507 06:49:12.849951  2959 net.cpp:434] pool3 <- conv3
I0507 06:49:12.849958  2959 net.cpp:408] pool3 -> pool3
I0507 06:49:12.850023  2959 net.cpp:150] Setting up pool3
I0507 06:49:12.850031  2959 net.cpp:157] Top shape: 512 250 3 3 (1152000)
I0507 06:49:12.850034  2959 net.cpp:165] Memory required for data: 1092435968
I0507 06:49:12.850037  2959 layer_factory.hpp:77] Creating layer fc4_300
I0507 06:49:12.850046  2959 net.cpp:100] Creating Layer fc4_300
I0507 06:49:12.850051  2959 net.cpp:434] fc4_300 <- pool3
I0507 06:49:12.850057  2959 net.cpp:408] fc4_300 -> fc4_300
I0507 06:49:12.856323  2959 net.cpp:150] Setting up fc4_300
I0507 06:49:12.856339  2959 net.cpp:157] Top shape: 512 300 (153600)
I0507 06:49:12.856343  2959 net.cpp:165] Memory required for data: 1093050368
I0507 06:49:12.856351  2959 layer_factory.hpp:77] Creating layer fc4_relu
I0507 06:49:12.856359  2959 net.cpp:100] Creating Layer fc4_relu
I0507 06:49:12.856362  2959 net.cpp:434] fc4_relu <- fc4_300
I0507 06:49:12.856367  2959 net.cpp:395] fc4_relu -> fc4_300 (in-place)
I0507 06:49:12.856561  2959 net.cpp:150] Setting up fc4_relu
I0507 06:49:12.856573  2959 net.cpp:157] Top shape: 512 300 (153600)
I0507 06:49:12.856576  2959 net.cpp:165] Memory required for data: 1093664768
I0507 06:49:12.856580  2959 layer_factory.hpp:77] Creating layer fc5_116
I0507 06:49:12.856587  2959 net.cpp:100] Creating Layer fc5_116
I0507 06:49:12.856592  2959 net.cpp:434] fc5_116 <- fc4_300
I0507 06:49:12.856600  2959 net.cpp:408] fc5_116 -> fc5_classes
I0507 06:49:12.858638  2959 net.cpp:150] Setting up fc5_116
I0507 06:49:12.858651  2959 net.cpp:157] Top shape: 512 116 (59392)
I0507 06:49:12.858654  2959 net.cpp:165] Memory required for data: 1093902336
I0507 06:49:12.858669  2959 layer_factory.hpp:77] Creating layer fc5_classes_fc5_116_0_split
I0507 06:49:12.858677  2959 net.cpp:100] Creating Layer fc5_classes_fc5_116_0_split
I0507 06:49:12.858682  2959 net.cpp:434] fc5_classes_fc5_116_0_split <- fc5_classes
I0507 06:49:12.858690  2959 net.cpp:408] fc5_classes_fc5_116_0_split -> fc5_classes_fc5_116_0_split_0
I0507 06:49:12.858700  2959 net.cpp:408] fc5_classes_fc5_116_0_split -> fc5_classes_fc5_116_0_split_1
I0507 06:49:12.858706  2959 net.cpp:408] fc5_classes_fc5_116_0_split -> fc5_classes_fc5_116_0_split_2
I0507 06:49:12.858765  2959 net.cpp:150] Setting up fc5_classes_fc5_116_0_split
I0507 06:49:12.858772  2959 net.cpp:157] Top shape: 512 116 (59392)
I0507 06:49:12.858777  2959 net.cpp:157] Top shape: 512 116 (59392)
I0507 06:49:12.858779  2959 net.cpp:157] Top shape: 512 116 (59392)
I0507 06:49:12.858783  2959 net.cpp:165] Memory required for data: 1094615040
I0507 06:49:12.858785  2959 layer_factory.hpp:77] Creating layer softmax
I0507 06:49:12.858790  2959 net.cpp:100] Creating Layer softmax
I0507 06:49:12.858796  2959 net.cpp:434] softmax <- fc5_classes_fc5_116_0_split_0
I0507 06:49:12.858801  2959 net.cpp:408] softmax -> softmax
I0507 06:49:12.859063  2959 net.cpp:150] Setting up softmax
I0507 06:49:12.859076  2959 net.cpp:157] Top shape: 512 116 (59392)
I0507 06:49:12.859081  2959 net.cpp:165] Memory required for data: 1094852608
I0507 06:49:12.859084  2959 layer_factory.hpp:77] Creating layer loss
I0507 06:49:12.859094  2959 net.cpp:100] Creating Layer loss
I0507 06:49:12.859114  2959 net.cpp:434] loss <- softmax
I0507 06:49:12.859120  2959 net.cpp:434] loss <- label_data_1_split_0
I0507 06:49:12.859125  2959 net.cpp:408] loss -> loss
…
