…
I0508 05:59:43.495992 28211 solver.cpp:93] Creating training net from train_net file: ./Prototxt/experiment_16/RTSD/imajust/trial_5/train.prototxt
I0508 05:59:43.496403 28211 net.cpp:58] Initializing net from parameters: 
state {
  phase: TRAIN
  level: 0
  stage: ""
}
layer {
  name: "data"
  type: "Data"
  top: "data"
  top: "label"
  include {
    phase: TRAIN
  }
  transform_param {
    scale: 0.0039215689
    mirror: false
    crop_size: 48
    mean_value: 119
    mean_value: 113
    mean_value: 114
  }
  data_param {
    source: "../local_data/lmdb/RTSD/imajust/train/lmdb"
    batch_size: 1024
    backend: LMDB
  }
}
layer {
  name: "conv1"
  type: "Convolution"
  bottom: "data"
  top: "conv1"
  convolution_param {
    num_output: 100
    pad: 0
    kernel_size: 7
    group: 1
    stride: 1
    weight_filler {
      type: "xavier"
    }
  }
}
layer {
  name: "conv1_relu"
  type: "ReLU"
  bottom: "conv1"
  top: "conv1"
}
layer {
  name: "pool1"
  type: "Pooling"
  bottom: "conv1"
  top: "pool1"
  pooling_param {
    pool: MAX
    kernel_size: 2
    stride: 2
  }
}
layer {
  name: "conv2"
  type: "Convolution"
  bottom: "pool1"
  top: "conv2"
  convolution_param {
    num_output: 150
    pad: 0
    kernel_size: 4
    group: 2
    stride: 1
    weight_filler {
      type: "xavier"
    }
  }
}
layer {
  name: "conv2_relu"
  type: "ReLU"
  bottom: "conv2"
  top: "conv2"
}
layer {
  name: "pool2"
  type: "Pooling"
  bottom: "conv2"
  top: "pool2"
  pooling_param {
    pool: MAX
    kernel_size: 2
    stride: 2
  }
}
layer {
  name: "conv3"
  type: "Convolution"
  bottom: "pool2"
  top: "conv3"
  convolution_param {
    num_output: 250
    pad: 0
    kernel_size: 4
    group: 2
    stride: 1
    weight_filler {
      type: "xavier"
    }
  }
}
layer {
  name: "conv3_relu"
  type: "ReLU"
  bottom: "conv3"
  top: "conv3"
}
layer {
  name: "pool3"
  type: "Pooling"
  bottom: "conv3"
  top: "pool3"
  pooling_param {
    pool: MAX
    kernel_size: 2
    stride: 2
  }
}
layer {
  name: "fc4_300"
  type: "InnerProduct"
  bottom: "pool3"
  top: "fc4_300"
  inner_product_param {
    num_output: 300
    weight_filler {
      type: "xavier"
    }
  }
}
layer {
  name: "fc4_relu"
  type: "ReLU"
  bottom: "fc4_300"
  top: "fc4_300"
}
layer {
  name: "fc5_116"
  type: "InnerProduct"
  bottom: "fc4_300"
  top: "fc5_classes"
  inner_product_param {
    num_output: 116
    weight_filler {
      type: "xavier"
    }
  }
}
layer {
  name: "softmax"
  type: "Softmax"
  bottom: "fc5_classes"
  top: "softmax"
}
layer {
  name: "loss"
  type: "MultinomialLogisticLoss"
  bottom: "softmax"
  bottom: "label"
  top: "loss"
}
layer {
  name: "accuracy_1"
  type: "Accuracy"
  bottom: "fc5_classes"
  bottom: "label"
  top: "accuracy_1"
  accuracy_param {
    top_k: 1
  }
}
layer {
  name: "accuracy_5"
  type: "Accuracy"
  bottom: "fc5_classes"
  bottom: "label"
  top: "accuracy_5"
  accuracy_param {
    top_k: 5
  }
}
layer {
  name: "silence"
  type: "Silence"
  bottom: "accuracy_1"
  bottom: "accuracy_5"
}
I0508 05:59:43.496542 28211 layer_factory.hpp:77] Creating layer data
I0508 05:59:43.497822 28211 net.cpp:100] Creating Layer data
I0508 05:59:43.497840 28211 net.cpp:408] data -> data
I0508 05:59:43.497865 28211 net.cpp:408] data -> label
I0508 05:59:43.511415 28318 db_lmdb.cpp:35] Opened lmdb ../local_data/lmdb/RTSD/imajust/train/lmdb
I0508 05:59:43.532363 28211 data_layer.cpp:41] output data size: 1024,3,48,48
I0508 05:59:43.594668 28211 net.cpp:150] Setting up data
I0508 05:59:43.594727 28211 net.cpp:157] Top shape: 1024 3 48 48 (7077888)
I0508 05:59:43.594735 28211 net.cpp:157] Top shape: 1024 (1024)
I0508 05:59:43.594739 28211 net.cpp:165] Memory required for data: 28315648
I0508 05:59:43.594751 28211 layer_factory.hpp:77] Creating layer label_data_1_split
I0508 05:59:43.594768 28211 net.cpp:100] Creating Layer label_data_1_split
I0508 05:59:43.594776 28211 net.cpp:434] label_data_1_split <- label
I0508 05:59:43.594792 28211 net.cpp:408] label_data_1_split -> label_data_1_split_0
I0508 05:59:43.594807 28211 net.cpp:408] label_data_1_split -> label_data_1_split_1
I0508 05:59:43.594817 28211 net.cpp:408] label_data_1_split -> label_data_1_split_2
I0508 05:59:43.594892 28211 net.cpp:150] Setting up label_data_1_split
I0508 05:59:43.594900 28211 net.cpp:157] Top shape: 1024 (1024)
I0508 05:59:43.594907 28211 net.cpp:157] Top shape: 1024 (1024)
I0508 05:59:43.594911 28211 net.cpp:157] Top shape: 1024 (1024)
I0508 05:59:43.594914 28211 net.cpp:165] Memory required for data: 28327936
I0508 05:59:43.594918 28211 layer_factory.hpp:77] Creating layer conv1
I0508 05:59:43.594938 28211 net.cpp:100] Creating Layer conv1
I0508 05:59:43.594944 28211 net.cpp:434] conv1 <- data
I0508 05:59:43.594950 28211 net.cpp:408] conv1 -> conv1
I0508 05:59:44.032428 28211 net.cpp:150] Setting up conv1
I0508 05:59:44.032456 28211 net.cpp:157] Top shape: 1024 100 42 42 (180633600)
I0508 05:59:44.032460 28211 net.cpp:165] Memory required for data: 750862336
I0508 05:59:44.032485 28211 layer_factory.hpp:77] Creating layer conv1_relu
I0508 05:59:44.032496 28211 net.cpp:100] Creating Layer conv1_relu
I0508 05:59:44.032502 28211 net.cpp:434] conv1_relu <- conv1
I0508 05:59:44.032507 28211 net.cpp:395] conv1_relu -> conv1 (in-place)
I0508 05:59:44.032708 28211 net.cpp:150] Setting up conv1_relu
I0508 05:59:44.032721 28211 net.cpp:157] Top shape: 1024 100 42 42 (180633600)
I0508 05:59:44.032726 28211 net.cpp:165] Memory required for data: 1473396736
I0508 05:59:44.032728 28211 layer_factory.hpp:77] Creating layer pool1
I0508 05:59:44.032738 28211 net.cpp:100] Creating Layer pool1
I0508 05:59:44.032742 28211 net.cpp:434] pool1 <- conv1
I0508 05:59:44.032748 28211 net.cpp:408] pool1 -> pool1
I0508 05:59:44.032804 28211 net.cpp:150] Setting up pool1
I0508 05:59:44.032811 28211 net.cpp:157] Top shape: 1024 100 21 21 (45158400)
I0508 05:59:44.032815 28211 net.cpp:165] Memory required for data: 1654030336
I0508 05:59:44.032819 28211 layer_factory.hpp:77] Creating layer conv2
I0508 05:59:44.032829 28211 net.cpp:100] Creating Layer conv2
I0508 05:59:44.032835 28211 net.cpp:434] conv2 <- pool1
I0508 05:59:44.032840 28211 net.cpp:408] conv2 -> conv2
I0508 05:59:44.039238 28211 net.cpp:150] Setting up conv2
I0508 05:59:44.039257 28211 net.cpp:157] Top shape: 1024 150 18 18 (49766400)
I0508 05:59:44.039260 28211 net.cpp:165] Memory required for data: 1853095936
I0508 05:59:44.039271 28211 layer_factory.hpp:77] Creating layer conv2_relu
I0508 05:59:44.039279 28211 net.cpp:100] Creating Layer conv2_relu
I0508 05:59:44.039284 28211 net.cpp:434] conv2_relu <- conv2
I0508 05:59:44.039289 28211 net.cpp:395] conv2_relu -> conv2 (in-place)
I0508 05:59:44.039461 28211 net.cpp:150] Setting up conv2_relu
I0508 05:59:44.039474 28211 net.cpp:157] Top shape: 1024 150 18 18 (49766400)
I0508 05:59:44.039477 28211 net.cpp:165] Memory required for data: 2052161536
I0508 05:59:44.039480 28211 layer_factory.hpp:77] Creating layer pool2
I0508 05:59:44.039486 28211 net.cpp:100] Creating Layer pool2
I0508 05:59:44.039491 28211 net.cpp:434] pool2 <- conv2
I0508 05:59:44.039497 28211 net.cpp:408] pool2 -> pool2
I0508 05:59:44.039543 28211 net.cpp:150] Setting up pool2
I0508 05:59:44.039551 28211 net.cpp:157] Top shape: 1024 150 9 9 (12441600)
I0508 05:59:44.039556 28211 net.cpp:165] Memory required for data: 2101927936
I0508 05:59:44.039558 28211 layer_factory.hpp:77] Creating layer conv3
I0508 05:59:44.039567 28211 net.cpp:100] Creating Layer conv3
I0508 05:59:44.039572 28211 net.cpp:434] conv3 <- pool2
I0508 05:59:44.039577 28211 net.cpp:408] conv3 -> conv3
I0508 05:59:44.046871 28211 net.cpp:150] Setting up conv3
I0508 05:59:44.046890 28211 net.cpp:157] Top shape: 1024 250 6 6 (9216000)
I0508 05:59:44.046893 28211 net.cpp:165] Memory required for data: 2138791936
I0508 05:59:44.046903 28211 layer_factory.hpp:77] Creating layer conv3_relu
I0508 05:59:44.046910 28211 net.cpp:100] Creating Layer conv3_relu
I0508 05:59:44.046913 28211 net.cpp:434] conv3_relu <- conv3
I0508 05:59:44.046918 28211 net.cpp:395] conv3_relu -> conv3 (in-place)
I0508 05:59:44.047094 28211 net.cpp:150] Setting up conv3_relu
I0508 05:59:44.047106 28211 net.cpp:157] Top shape: 1024 250 6 6 (9216000)
I0508 05:59:44.047108 28211 net.cpp:165] Memory required for data: 2175655936
I0508 05:59:44.047112 28211 layer_factory.hpp:77] Creating layer pool3
I0508 05:59:44.047118 28211 net.cpp:100] Creating Layer pool3
I0508 05:59:44.047124 28211 net.cpp:434] pool3 <- conv3
I0508 05:59:44.047129 28211 net.cpp:408] pool3 -> pool3
I0508 05:59:44.047171 28211 net.cpp:150] Setting up pool3
I0508 05:59:44.047179 28211 net.cpp:157] Top shape: 1024 250 3 3 (2304000)
I0508 05:59:44.047181 28211 net.cpp:165] Memory required for data: 2184871936
I0508 05:59:44.047184 28211 layer_factory.hpp:77] Creating layer fc4_300
I0508 05:59:44.047191 28211 net.cpp:100] Creating Layer fc4_300
I0508 05:59:44.047196 28211 net.cpp:434] fc4_300 <- pool3
I0508 05:59:44.047201 28211 net.cpp:408] fc4_300 -> fc4_300
I0508 05:59:44.055546 28211 net.cpp:150] Setting up fc4_300
I0508 05:59:44.055563 28211 net.cpp:157] Top shape: 1024 300 (307200)
I0508 05:59:44.055567 28211 net.cpp:165] Memory required for data: 2186100736
I0508 05:59:44.055573 28211 layer_factory.hpp:77] Creating layer fc4_relu
I0508 05:59:44.055579 28211 net.cpp:100] Creating Layer fc4_relu
I0508 05:59:44.055583 28211 net.cpp:434] fc4_relu <- fc4_300
I0508 05:59:44.055588 28211 net.cpp:395] fc4_relu -> fc4_300 (in-place)
I0508 05:59:44.058195 28211 net.cpp:150] Setting up fc4_relu
I0508 05:59:44.058212 28211 net.cpp:157] Top shape: 1024 300 (307200)
I0508 05:59:44.058215 28211 net.cpp:165] Memory required for data: 2187329536
I0508 05:59:44.058219 28211 layer_factory.hpp:77] Creating layer fc5_116
I0508 05:59:44.058226 28211 net.cpp:100] Creating Layer fc5_116
I0508 05:59:44.058231 28211 net.cpp:434] fc5_116 <- fc4_300
I0508 05:59:44.058238 28211 net.cpp:408] fc5_116 -> fc5_classes
I0508 05:59:44.060590 28211 net.cpp:150] Setting up fc5_116
I0508 05:59:44.060607 28211 net.cpp:157] Top shape: 1024 116 (118784)
I0508 05:59:44.060611 28211 net.cpp:165] Memory required for data: 2187804672
I0508 05:59:44.060621 28211 layer_factory.hpp:77] Creating layer fc5_classes_fc5_116_0_split
I0508 05:59:44.060629 28211 net.cpp:100] Creating Layer fc5_classes_fc5_116_0_split
I0508 05:59:44.060634 28211 net.cpp:434] fc5_classes_fc5_116_0_split <- fc5_classes
I0508 05:59:44.060644 28211 net.cpp:408] fc5_classes_fc5_116_0_split -> fc5_classes_fc5_116_0_split_0
I0508 05:59:44.060653 28211 net.cpp:408] fc5_classes_fc5_116_0_split -> fc5_classes_fc5_116_0_split_1
I0508 05:59:44.060662 28211 net.cpp:408] fc5_classes_fc5_116_0_split -> fc5_classes_fc5_116_0_split_2
I0508 05:59:44.060714 28211 net.cpp:150] Setting up fc5_classes_fc5_116_0_split
I0508 05:59:44.060722 28211 net.cpp:157] Top shape: 1024 116 (118784)
I0508 05:59:44.060727 28211 net.cpp:157] Top shape: 1024 116 (118784)
I0508 05:59:44.060731 28211 net.cpp:157] Top shape: 1024 116 (118784)
I0508 05:59:44.060734 28211 net.cpp:165] Memory required for data: 2189230080
I0508 05:59:44.060737 28211 layer_factory.hpp:77] Creating layer softmax
I0508 05:59:44.060742 28211 net.cpp:100] Creating Layer softmax
I0508 05:59:44.060747 28211 net.cpp:434] softmax <- fc5_classes_fc5_116_0_split_0
I0508 05:59:44.060755 28211 net.cpp:408] softmax -> softmax
I0508 05:59:44.061010 28211 net.cpp:150] Setting up softmax
I0508 05:59:44.061023 28211 net.cpp:157] Top shape: 1024 116 (118784)
I0508 05:59:44.061028 28211 net.cpp:165] Memory required for data: 2189705216
I0508 05:59:44.061031 28211 layer_factory.hpp:77] Creating layer loss
I0508 05:59:44.061055 28211 net.cpp:100] Creating Layer loss
I0508 05:59:44.061061 28211 net.cpp:434] loss <- softmax
I0508 05:59:44.061065 28211 net.cpp:434] loss <- label_data_1_split_0
I0508 05:59:44.061071 28211 net.cpp:408] loss -> loss
…
