…
I0410 01:30:57.684852  3961 net.cpp:322] The NetState phase (0) differed from the phase (1) specified by a rule in layer accuracy_5
I0410 01:30:57.684948  3961 net.cpp:58] Initializing net from parameters: 
state {
  phase: TRAIN
  level: 0
  stage: ""
}
layer {
  name: "data"
  type: "Data"
  top: "data"
  top: "label"
  include {
    phase: TRAIN
  }
  transform_param {
    mirror: false
    crop_size: 48
    mean_value: 130
    mean_value: 123
    mean_value: 137
  }
  data_param {
    source: "../local_data/lmdb/rtsd-r1/histeq/train/lmdb"
    batch_size: 1024
    backend: LMDB
  }
}
layer {
  name: "conv1"
  type: "Convolution"
  bottom: "data"
  top: "conv1"
  convolution_param {
    num_output: 100
    pad: 0
    kernel_size: 7
    group: 1
    stride: 1
    weight_filler {
      type: "xavier"
    }
  }
}
layer {
  name: "conv1_sTanH"
  type: "TanH"
  bottom: "conv1"
  top: "conv1"
}
layer {
  name: "pool1"
  type: "Pooling"
  bottom: "conv1"
  top: "pool1"
  pooling_param {
    pool: MAX
    kernel_size: 2
    stride: 2
  }
}
layer {
  name: "conv2"
  type: "Convolution"
  bottom: "pool1"
  top: "conv2"
  convolution_param {
    num_output: 150
    pad: 0
    kernel_size: 4
    group: 1
    stride: 1
    weight_filler {
      type: "xavier"
    }
  }
}
layer {
  name: "conv2_sTanH"
  type: "TanH"
  bottom: "conv2"
  top: "conv2"
}
layer {
  name: "pool2"
  type: "Pooling"
  bottom: "conv2"
  top: "pool2"
  pooling_param {
    pool: MAX
    kernel_size: 2
    stride: 2
  }
}
layer {
  name: "conv3"
  type: "Convolution"
  bottom: "pool2"
  top: "conv3"
  convolution_param {
    num_output: 250
    pad: 0
    kernel_size: 4
    group: 1
    stride: 1
    weight_filler {
      type: "xavier"
    }
  }
}
layer {
  name: "conv3_sTanH"
  type: "TanH"
  bottom: "conv3"
  top: "conv3"
}
layer {
  name: "pool3"
  type: "Pooling"
  bottom: "conv3"
  top: "pool3"
  pooling_param {
    pool: MAX
    kernel_size: 2
    stride: 2
  }
}
layer {
  name: "fc4_300"
  type: "InnerProduct"
  bottom: "pool3"
  top: "fc4_300"
  inner_product_param {
    num_output: 300
    weight_filler {
      type: "xavier"
    }
  }
}
layer {
  name: "fc4_sTanH"
  type: "TanH"
  bottom: "fc4_300"
  top: "fc4_300"
}
layer {
  name: "drop4"
  type: "Dropout"
  bottom: "fc4_300"
  top: "fc4_300"
  dropout_param {
    dropout_ratio: 0.4
  }
}
layer {
  name: "fc5_67"
  type: "InnerProduct"
  bottom: "fc4_300"
  top: "fc5_classes"
  inner_product_param {
    num_output: 67
    weight_filler {
      type: "xavier"
    }
  }
}
layer {
  name: "loss"
  type: "SoftmaxWithLoss"
  bottom: "fc5_classes"
  bottom: "label"
  top: "loss"
}
I0410 01:30:57.685020  3961 layer_factory.hpp:77] Creating layer data
I0410 01:30:57.686295  3961 net.cpp:100] Creating Layer data
I0410 01:30:57.686309  3961 net.cpp:408] data -> data
I0410 01:30:57.686331  3961 net.cpp:408] data -> label
I0410 01:30:57.687503  4041 db_lmdb.cpp:35] Opened lmdb ../local_data/lmdb/rtsd-r1/histeq/train/lmdb
I0410 01:30:57.704478  3961 data_layer.cpp:41] output data size: 1024,3,48,48
I0410 01:30:57.748096  3961 net.cpp:150] Setting up data
I0410 01:30:57.748126  3961 net.cpp:157] Top shape: 1024 3 48 48 (7077888)
I0410 01:30:57.748159  3961 net.cpp:157] Top shape: 1024 (1024)
I0410 01:30:57.748162  3961 net.cpp:165] Memory required for data: 28315648
I0410 01:30:57.748173  3961 layer_factory.hpp:77] Creating layer conv1
I0410 01:30:57.748198  3961 net.cpp:100] Creating Layer conv1
I0410 01:30:57.748205  3961 net.cpp:434] conv1 <- data
I0410 01:30:57.748217  3961 net.cpp:408] conv1 -> conv1
I0410 01:30:58.034508  3961 net.cpp:150] Setting up conv1
I0410 01:30:58.034548  3961 net.cpp:157] Top shape: 1024 100 42 42 (180633600)
I0410 01:30:58.034551  3961 net.cpp:165] Memory required for data: 750850048
I0410 01:30:58.034574  3961 layer_factory.hpp:77] Creating layer conv1_sTanH
I0410 01:30:58.034587  3961 net.cpp:100] Creating Layer conv1_sTanH
I0410 01:30:58.034593  3961 net.cpp:434] conv1_sTanH <- conv1
I0410 01:30:58.034600  3961 net.cpp:395] conv1_sTanH -> conv1 (in-place)
I0410 01:30:58.034795  3961 net.cpp:150] Setting up conv1_sTanH
I0410 01:30:58.034807  3961 net.cpp:157] Top shape: 1024 100 42 42 (180633600)
I0410 01:30:58.034811  3961 net.cpp:165] Memory required for data: 1473384448
I0410 01:30:58.034813  3961 layer_factory.hpp:77] Creating layer pool1
I0410 01:30:58.034821  3961 net.cpp:100] Creating Layer pool1
I0410 01:30:58.034826  3961 net.cpp:434] pool1 <- conv1
I0410 01:30:58.034832  3961 net.cpp:408] pool1 -> pool1
I0410 01:30:58.034883  3961 net.cpp:150] Setting up pool1
I0410 01:30:58.034891  3961 net.cpp:157] Top shape: 1024 100 21 21 (45158400)
I0410 01:30:58.034894  3961 net.cpp:165] Memory required for data: 1654018048
I0410 01:30:58.034898  3961 layer_factory.hpp:77] Creating layer conv2
I0410 01:30:58.034909  3961 net.cpp:100] Creating Layer conv2
I0410 01:30:58.034912  3961 net.cpp:434] conv2 <- pool1
I0410 01:30:58.034917  3961 net.cpp:408] conv2 -> conv2
I0410 01:30:58.043143  3961 net.cpp:150] Setting up conv2
I0410 01:30:58.043160  3961 net.cpp:157] Top shape: 1024 150 18 18 (49766400)
I0410 01:30:58.043164  3961 net.cpp:165] Memory required for data: 1853083648
I0410 01:30:58.043172  3961 layer_factory.hpp:77] Creating layer conv2_sTanH
I0410 01:30:58.043179  3961 net.cpp:100] Creating Layer conv2_sTanH
I0410 01:30:58.043182  3961 net.cpp:434] conv2_sTanH <- conv2
I0410 01:30:58.043189  3961 net.cpp:395] conv2_sTanH -> conv2 (in-place)
I0410 01:30:58.044291  3961 net.cpp:150] Setting up conv2_sTanH
I0410 01:30:58.044307  3961 net.cpp:157] Top shape: 1024 150 18 18 (49766400)
I0410 01:30:58.044312  3961 net.cpp:165] Memory required for data: 2052149248
I0410 01:30:58.044314  3961 layer_factory.hpp:77] Creating layer pool2
I0410 01:30:58.044322  3961 net.cpp:100] Creating Layer pool2
I0410 01:30:58.044327  3961 net.cpp:434] pool2 <- conv2
I0410 01:30:58.044335  3961 net.cpp:408] pool2 -> pool2
I0410 01:30:58.044384  3961 net.cpp:150] Setting up pool2
I0410 01:30:58.044394  3961 net.cpp:157] Top shape: 1024 150 9 9 (12441600)
I0410 01:30:58.044399  3961 net.cpp:165] Memory required for data: 2101915648
I0410 01:30:58.044401  3961 layer_factory.hpp:77] Creating layer conv3
I0410 01:30:58.044409  3961 net.cpp:100] Creating Layer conv3
I0410 01:30:58.044414  3961 net.cpp:434] conv3 <- pool2
I0410 01:30:58.044420  3961 net.cpp:408] conv3 -> conv3
I0410 01:30:58.050482  3961 net.cpp:150] Setting up conv3
I0410 01:30:58.050499  3961 net.cpp:157] Top shape: 1024 250 6 6 (9216000)
I0410 01:30:58.050514  3961 net.cpp:165] Memory required for data: 2138779648
I0410 01:30:58.050524  3961 layer_factory.hpp:77] Creating layer conv3_sTanH
I0410 01:30:58.050534  3961 net.cpp:100] Creating Layer conv3_sTanH
I0410 01:30:58.050537  3961 net.cpp:434] conv3_sTanH <- conv3
I0410 01:30:58.050542  3961 net.cpp:395] conv3_sTanH -> conv3 (in-place)
I0410 01:30:58.059372  3961 net.cpp:150] Setting up conv3_sTanH
I0410 01:30:58.059402  3961 net.cpp:157] Top shape: 1024 250 6 6 (9216000)
I0410 01:30:58.059406  3961 net.cpp:165] Memory required for data: 2175643648
I0410 01:30:58.059411  3961 layer_factory.hpp:77] Creating layer pool3
I0410 01:30:58.059417  3961 net.cpp:100] Creating Layer pool3
I0410 01:30:58.059422  3961 net.cpp:434] pool3 <- conv3
I0410 01:30:58.059448  3961 net.cpp:408] pool3 -> pool3
I0410 01:30:58.059504  3961 net.cpp:150] Setting up pool3
I0410 01:30:58.059512  3961 net.cpp:157] Top shape: 1024 250 3 3 (2304000)
I0410 01:30:58.059515  3961 net.cpp:165] Memory required for data: 2184859648
I0410 01:30:58.059518  3961 layer_factory.hpp:77] Creating layer fc4_300
I0410 01:30:58.059527  3961 net.cpp:100] Creating Layer fc4_300
I0410 01:30:58.059531  3961 net.cpp:434] fc4_300 <- pool3
I0410 01:30:58.059536  3961 net.cpp:408] fc4_300 -> fc4_300
I0410 01:30:58.071468  3961 net.cpp:150] Setting up fc4_300
I0410 01:30:58.071485  3961 net.cpp:157] Top shape: 1024 300 (307200)
I0410 01:30:58.071501  3961 net.cpp:165] Memory required for data: 2186088448
I0410 01:30:58.071507  3961 layer_factory.hpp:77] Creating layer fc4_sTanH
I0410 01:30:58.071516  3961 net.cpp:100] Creating Layer fc4_sTanH
I0410 01:30:58.071521  3961 net.cpp:434] fc4_sTanH <- fc4_300
I0410 01:30:58.071526  3961 net.cpp:395] fc4_sTanH -> fc4_300 (in-place)
I0410 01:30:58.071720  3961 net.cpp:150] Setting up fc4_sTanH
I0410 01:30:58.071732  3961 net.cpp:157] Top shape: 1024 300 (307200)
I0410 01:30:58.071735  3961 net.cpp:165] Memory required for data: 2187317248
I0410 01:30:58.071738  3961 layer_factory.hpp:77] Creating layer drop4
I0410 01:30:58.071746  3961 net.cpp:100] Creating Layer drop4
I0410 01:30:58.071749  3961 net.cpp:434] drop4 <- fc4_300
I0410 01:30:58.071754  3961 net.cpp:395] drop4 -> fc4_300 (in-place)
I0410 01:30:58.071787  3961 net.cpp:150] Setting up drop4
I0410 01:30:58.071795  3961 net.cpp:157] Top shape: 1024 300 (307200)
I0410 01:30:58.071799  3961 net.cpp:165] Memory required for data: 2188546048
I0410 01:30:58.071804  3961 layer_factory.hpp:77] Creating layer fc5_67
I0410 01:30:58.071812  3961 net.cpp:100] Creating Layer fc5_67
I0410 01:30:58.071815  3961 net.cpp:434] fc5_67 <- fc4_300
I0410 01:30:58.071820  3961 net.cpp:408] fc5_67 -> fc5_classes
I0410 01:30:58.073024  3961 net.cpp:150] Setting up fc5_67
I0410 01:30:58.073040  3961 net.cpp:157] Top shape: 1024 67 (68608)
I0410 01:30:58.073043  3961 net.cpp:165] Memory required for data: 2188820480
I0410 01:30:58.073052  3961 layer_factory.hpp:77] Creating layer loss
I0410 01:30:58.073061  3961 net.cpp:100] Creating Layer loss
I0410 01:30:58.073065  3961 net.cpp:434] loss <- fc5_classes
I0410 01:30:58.073070  3961 net.cpp:434] loss <- label
I0410 01:30:58.073076  3961 net.cpp:408] loss -> loss
I0410 01:30:58.073087  3961 layer_factory.hpp:77] Creating layer loss
…
I0410 01:30:58.073742  3961 solver.cpp:193] Creating test net (#0) specified by test_net file: ./Prototxt/experiment_7/rtsd-r1/histeq/trial_3/test.prototxt
I0410 01:30:58.073873  3961 net.cpp:58] Initializing net from parameters: 
state {
  phase: TEST
}
layer {
  name: "data"
  type: "Data"
  top: "data"
  top: "label"
  include {
    phase: TEST
  }
  transform_param {
    mirror: false
    crop_size: 48
    mean_value: 124
    mean_value: 121
    mean_value: 142
  }
  data_param {
    source: "../local_data/lmdb/rtsd-r1/histeq/test/lmdb"
    batch_size: 1024
    backend: LMDB
  }
}
layer {
  name: "conv1"
  type: "Convolution"
  bottom: "data"
  top: "conv1"
  convolution_param {
    num_output: 100
    pad: 0
    kernel_size: 7
    group: 1
    stride: 1
    weight_filler {
      type: "xavier"
    }
  }
}
layer {
  name: "conv1_sTanH"
  type: "TanH"
  bottom: "conv1"
  top: "conv1"
}
layer {
  name: "pool1"
  type: "Pooling"
  bottom: "conv1"
  top: "pool1"
  pooling_param {
    pool: MAX
    kernel_size: 2
    stride: 2
  }
}
layer {
  name: "conv2"
  type: "Convolution"
  bottom: "pool1"
  top: "conv2"
  convolution_param {
    num_output: 150
    pad: 0
    kernel_size: 4
    group: 1
    stride: 1
    weight_filler {
      type: "xavier"
    }
  }
}
layer {
  name: "conv2_sTanH"
  type: "TanH"
  bottom: "conv2"
  top: "conv2"
}
layer {
  name: "pool2"
  type: "Pooling"
  bottom: "conv2"
  top: "pool2"
  pooling_param {
    pool: MAX
    kernel_size: 2
    stride: 2
  }
}
layer {
  name: "conv3"
  type: "Convolution"
  bottom: "pool2"
  top: "conv3"
  convolution_param {
    num_output: 250
    pad: 0
    kernel_size: 4
    group: 1
    stride: 1
    weight_filler {
      type: "xavier"
    }
  }
}
layer {
  name: "conv3_sTanH"
  type: "TanH"
  bottom: "conv3"
  top: "conv3"
}
layer {
  name: "pool3"
  type: "Pooling"
  bottom: "conv3"
  top: "pool3"
  pooling_param {
    pool: MAX
    kernel_size: 2
    stride: 2
  }
}
layer {
  name: "fc4_300"
  type: "InnerProduct"
  bottom: "pool3"
  top: "fc4_300"
  inner_product_param {
    num_output: 300
    weight_filler {
      type: "xavier"
    }
  }
}
layer {
  name: "fc4_sTanH"
  type: "TanH"
  bottom: "fc4_300"
  top: "fc4_300"
}
layer {
  name: "drop4"
  type: "Dropout"
  bottom: "fc4_300"
  top: "fc4_300"
  dropout_param {
    dropout_ratio: 0.4
  }
}
layer {
  name: "fc5_67"
  type: "InnerProduct"
  bottom: "fc4_300"
  top: "fc5_classes"
  inner_product_param {
    num_output: 67
    weight_filler {
      type: "xavier"
    }
  }
}
layer {
  name: "loss"
  type: "SoftmaxWithLoss"
  bottom: "fc5_classes"
  bottom: "label"
  top: "loss"
}
layer {
  name: "accuracy_1"
  type: "Accuracy"
  bottom: "fc5_classes"
  bottom: "label"
  top: "accuracy_1"
  include {
    phase: TEST
  }
  accuracy_param {
    top_k: 1
  }
}
layer {
  name: "accuracy_5"
  type: "Accuracy"
  bottom: "fc5_classes"
  bottom: "label"
  top: "accuracy_5"
  include {
    phase: TEST
  }
  accuracy_param {
    top_k: 5
  }
}
I0410 01:30:58.073961  3961 layer_factory.hpp:77] Creating layer data
I0410 01:30:58.074630  3961 net.cpp:100] Creating Layer data
I0410 01:30:58.074642  3961 net.cpp:408] data -> data
I0410 01:30:58.074651  3961 net.cpp:408] data -> label
I0410 01:30:58.076364  4073 db_lmdb.cpp:35] Opened lmdb ../local_data/lmdb/rtsd-r1/histeq/test/lmdb
I0410 01:30:58.076527  3961 data_layer.cpp:41] output data size: 1024,3,48,48
I0410 01:30:58.116585  3961 net.cpp:150] Setting up data
I0410 01:30:58.116614  3961 net.cpp:157] Top shape: 1024 3 48 48 (7077888)
I0410 01:30:58.116619  3961 net.cpp:157] Top shape: 1024 (1024)
I0410 01:30:58.116622  3961 net.cpp:165] Memory required for data: 28315648
I0410 01:30:58.116627  3961 layer_factory.hpp:77] Creating layer label_data_1_split
I0410 01:30:58.116641  3961 net.cpp:100] Creating Layer label_data_1_split
I0410 01:30:58.116647  3961 net.cpp:434] label_data_1_split <- label
I0410 01:30:58.116653  3961 net.cpp:408] label_data_1_split -> label_data_1_split_0
I0410 01:30:58.116664  3961 net.cpp:408] label_data_1_split -> label_data_1_split_1
I0410 01:30:58.116670  3961 net.cpp:408] label_data_1_split -> label_data_1_split_2
I0410 01:30:58.116828  3961 net.cpp:150] Setting up label_data_1_split
I0410 01:30:58.116839  3961 net.cpp:157] Top shape: 1024 (1024)
I0410 01:30:58.116842  3961 net.cpp:157] Top shape: 1024 (1024)
I0410 01:30:58.116845  3961 net.cpp:157] Top shape: 1024 (1024)
I0410 01:30:58.116848  3961 net.cpp:165] Memory required for data: 28327936
I0410 01:30:58.116852  3961 layer_factory.hpp:77] Creating layer conv1
I0410 01:30:58.116868  3961 net.cpp:100] Creating Layer conv1
I0410 01:30:58.116873  3961 net.cpp:434] conv1 <- data
I0410 01:30:58.116881  3961 net.cpp:408] conv1 -> conv1
I0410 01:30:58.120805  3961 net.cpp:150] Setting up conv1
I0410 01:30:58.120821  3961 net.cpp:157] Top shape: 1024 100 42 42 (180633600)
I0410 01:30:58.120826  3961 net.cpp:165] Memory required for data: 750862336
I0410 01:30:58.120838  3961 layer_factory.hpp:77] Creating layer conv1_sTanH
I0410 01:30:58.120847  3961 net.cpp:100] Creating Layer conv1_sTanH
I0410 01:30:58.120851  3961 net.cpp:434] conv1_sTanH <- conv1
I0410 01:30:58.120857  3961 net.cpp:395] conv1_sTanH -> conv1 (in-place)
I0410 01:30:58.121062  3961 net.cpp:150] Setting up conv1_sTanH
I0410 01:30:58.121073  3961 net.cpp:157] Top shape: 1024 100 42 42 (180633600)
I0410 01:30:58.121078  3961 net.cpp:165] Memory required for data: 1473396736
I0410 01:30:58.121081  3961 layer_factory.hpp:77] Creating layer pool1
I0410 01:30:58.121090  3961 net.cpp:100] Creating Layer pool1
I0410 01:30:58.121093  3961 net.cpp:434] pool1 <- conv1
I0410 01:30:58.121100  3961 net.cpp:408] pool1 -> pool1
I0410 01:30:58.121151  3961 net.cpp:150] Setting up pool1
I0410 01:30:58.121163  3961 net.cpp:157] Top shape: 1024 100 21 21 (45158400)
I0410 01:30:58.121166  3961 net.cpp:165] Memory required for data: 1654030336
I0410 01:30:58.121170  3961 layer_factory.hpp:77] Creating layer conv2
I0410 01:30:58.121178  3961 net.cpp:100] Creating Layer conv2
I0410 01:30:58.121184  3961 net.cpp:434] conv2 <- pool1
I0410 01:30:58.121191  3961 net.cpp:408] conv2 -> conv2
I0410 01:30:58.125136  3961 net.cpp:150] Setting up conv2
I0410 01:30:58.125156  3961 net.cpp:157] Top shape: 1024 150 18 18 (49766400)
I0410 01:30:58.125159  3961 net.cpp:165] Memory required for data: 1853095936
I0410 01:30:58.125170  3961 layer_factory.hpp:77] Creating layer conv2_sTanH
I0410 01:30:58.125177  3961 net.cpp:100] Creating Layer conv2_sTanH
I0410 01:30:58.125180  3961 net.cpp:434] conv2_sTanH <- conv2
I0410 01:30:58.125186  3961 net.cpp:395] conv2_sTanH -> conv2 (in-place)
I0410 01:30:58.125988  3961 net.cpp:150] Setting up conv2_sTanH
I0410 01:30:58.126005  3961 net.cpp:157] Top shape: 1024 150 18 18 (49766400)
I0410 01:30:58.126009  3961 net.cpp:165] Memory required for data: 2052161536
I0410 01:30:58.126013  3961 layer_factory.hpp:77] Creating layer pool2
I0410 01:30:58.126019  3961 net.cpp:100] Creating Layer pool2
I0410 01:30:58.126022  3961 net.cpp:434] pool2 <- conv2
I0410 01:30:58.126037  3961 net.cpp:408] pool2 -> pool2
I0410 01:30:58.126093  3961 net.cpp:150] Setting up pool2
I0410 01:30:58.126102  3961 net.cpp:157] Top shape: 1024 150 9 9 (12441600)
I0410 01:30:58.126106  3961 net.cpp:165] Memory required for data: 2101927936
I0410 01:30:58.126108  3961 layer_factory.hpp:77] Creating layer conv3
I0410 01:30:58.126123  3961 net.cpp:100] Creating Layer conv3
I0410 01:30:58.126128  3961 net.cpp:434] conv3 <- pool2
I0410 01:30:58.126134  3961 net.cpp:408] conv3 -> conv3
I0410 01:30:58.131722  3961 net.cpp:150] Setting up conv3
I0410 01:30:58.131742  3961 net.cpp:157] Top shape: 1024 250 6 6 (9216000)
I0410 01:30:58.131747  3961 net.cpp:165] Memory required for data: 2138791936
I0410 01:30:58.131755  3961 layer_factory.hpp:77] Creating layer conv3_sTanH
I0410 01:30:58.131762  3961 net.cpp:100] Creating Layer conv3_sTanH
I0410 01:30:58.131768  3961 net.cpp:434] conv3_sTanH <- conv3
I0410 01:30:58.131775  3961 net.cpp:395] conv3_sTanH -> conv3 (in-place)
I0410 01:30:58.132568  3961 net.cpp:150] Setting up conv3_sTanH
I0410 01:30:58.132585  3961 net.cpp:157] Top shape: 1024 250 6 6 (9216000)
I0410 01:30:58.132612  3961 net.cpp:165] Memory required for data: 2175655936
I0410 01:30:58.132616  3961 layer_factory.hpp:77] Creating layer pool3
I0410 01:30:58.132625  3961 net.cpp:100] Creating Layer pool3
I0410 01:30:58.132628  3961 net.cpp:434] pool3 <- conv3
I0410 01:30:58.132634  3961 net.cpp:408] pool3 -> pool3
I0410 01:30:58.132689  3961 net.cpp:150] Setting up pool3
I0410 01:30:58.132699  3961 net.cpp:157] Top shape: 1024 250 3 3 (2304000)
I0410 01:30:58.132701  3961 net.cpp:165] Memory required for data: 2184871936
I0410 01:30:58.132704  3961 layer_factory.hpp:77] Creating layer fc4_300
I0410 01:30:58.132710  3961 net.cpp:100] Creating Layer fc4_300
I0410 01:30:58.132714  3961 net.cpp:434] fc4_300 <- pool3
I0410 01:30:58.132721  3961 net.cpp:408] fc4_300 -> fc4_300
I0410 01:30:58.138072  3961 net.cpp:150] Setting up fc4_300
I0410 01:30:58.138088  3961 net.cpp:157] Top shape: 1024 300 (307200)
I0410 01:30:58.138092  3961 net.cpp:165] Memory required for data: 2186100736
I0410 01:30:58.138098  3961 layer_factory.hpp:77] Creating layer fc4_sTanH
I0410 01:30:58.138103  3961 net.cpp:100] Creating Layer fc4_sTanH
I0410 01:30:58.138108  3961 net.cpp:434] fc4_sTanH <- fc4_300
I0410 01:30:58.138113  3961 net.cpp:395] fc4_sTanH -> fc4_300 (in-place)
I0410 01:30:58.138314  3961 net.cpp:150] Setting up fc4_sTanH
I0410 01:30:58.138325  3961 net.cpp:157] Top shape: 1024 300 (307200)
I0410 01:30:58.138332  3961 net.cpp:165] Memory required for data: 2187329536
I0410 01:30:58.138335  3961 layer_factory.hpp:77] Creating layer drop4
I0410 01:30:58.138344  3961 net.cpp:100] Creating Layer drop4
I0410 01:30:58.138346  3961 net.cpp:434] drop4 <- fc4_300
I0410 01:30:58.138352  3961 net.cpp:395] drop4 -> fc4_300 (in-place)
I0410 01:30:58.138384  3961 net.cpp:150] Setting up drop4
I0410 01:30:58.138391  3961 net.cpp:157] Top shape: 1024 300 (307200)
I0410 01:30:58.138393  3961 net.cpp:165] Memory required for data: 2188558336
I0410 01:30:58.138396  3961 layer_factory.hpp:77] Creating layer fc5_67
I0410 01:30:58.138406  3961 net.cpp:100] Creating Layer fc5_67
I0410 01:30:58.138408  3961 net.cpp:434] fc5_67 <- fc4_300
I0410 01:30:58.138415  3961 net.cpp:408] fc5_67 -> fc5_classes
I0410 01:30:58.138669  3961 net.cpp:150] Setting up fc5_67
I0410 01:30:58.138677  3961 net.cpp:157] Top shape: 1024 67 (68608)
I0410 01:30:58.138681  3961 net.cpp:165] Memory required for data: 2188832768
I0410 01:30:58.138700  3961 layer_factory.hpp:77] Creating layer fc5_classes_fc5_67_0_split
I0410 01:30:58.138707  3961 net.cpp:100] Creating Layer fc5_classes_fc5_67_0_split
I0410 01:30:58.138710  3961 net.cpp:434] fc5_classes_fc5_67_0_split <- fc5_classes
I0410 01:30:58.138717  3961 net.cpp:408] fc5_classes_fc5_67_0_split -> fc5_classes_fc5_67_0_split_0
I0410 01:30:58.138725  3961 net.cpp:408] fc5_classes_fc5_67_0_split -> fc5_classes_fc5_67_0_split_1
I0410 01:30:58.138730  3961 net.cpp:408] fc5_classes_fc5_67_0_split -> fc5_classes_fc5_67_0_split_2
I0410 01:30:58.138793  3961 net.cpp:150] Setting up fc5_classes_fc5_67_0_split
I0410 01:30:58.138800  3961 net.cpp:157] Top shape: 1024 67 (68608)
I0410 01:30:58.138804  3961 net.cpp:157] Top shape: 1024 67 (68608)
I0410 01:30:58.138808  3961 net.cpp:157] Top shape: 1024 67 (68608)
I0410 01:30:58.138809  3961 net.cpp:165] Memory required for data: 2189656064
I0410 01:30:58.138813  3961 layer_factory.hpp:77] Creating layer loss
I0410 01:30:58.138821  3961 net.cpp:100] Creating Layer loss
I0410 01:30:58.138825  3961 net.cpp:434] loss <- fc5_classes_fc5_67_0_split_0
I0410 01:30:58.138829  3961 net.cpp:434] loss <- label_data_1_split_0
I0410 01:30:58.138834  3961 net.cpp:408] loss -> loss
…
