…
I0411 02:58:55.979780 13585 net.cpp:322] The NetState phase (0) differed from the phase (1) specified by a rule in layer accuracy_5
I0411 02:58:55.979943 13585 net.cpp:58] Initializing net from parameters: 
state {
  phase: TRAIN
  level: 0
  stage: ""
}
layer {
  name: "data"
  type: "Data"
  top: "data"
  top: "label"
  include {
    phase: TRAIN
  }
  transform_param {
    scale: 0.0039215689
    mirror: false
    crop_size: 48
    mean_value: 122
    mean_value: 115
    mean_value: 129
  }
  data_param {
    source: "../local_data/lmdb/rtsd-r1/orig/train/lmdb"
    batch_size: 1024
    backend: LMDB
  }
}
layer {
  name: "conv1"
  type: "Convolution"
  bottom: "data"
  top: "conv1"
  convolution_param {
    num_output: 100
    pad: 0
    kernel_size: 7
    group: 1
    stride: 1
    weight_filler {
      type: "xavier"
    }
  }
}
layer {
  name: "conv1_prescale"
  type: "Scale"
  bottom: "conv1"
  top: "conv1"
  param {
    lr_mult: 0
    decay_mult: 0
  }
  scale_param {
    filler {
      value: 0.6666
    }
    bias_term: false
  }
}
layer {
  name: "conv1_sTanH"
  type: "TanH"
  bottom: "conv1"
  top: "conv1"
}
layer {
  name: "conv1_postscale"
  type: "Scale"
  bottom: "conv1"
  top: "conv1"
  param {
    lr_mult: 0
    decay_mult: 0
  }
  scale_param {
    filler {
      value: 1.7159
    }
    bias_term: false
  }
}
layer {
  name: "pool1"
  type: "Pooling"
  bottom: "conv1"
  top: "pool1"
  pooling_param {
    pool: MAX
    kernel_size: 2
    stride: 2
  }
}
layer {
  name: "conv2"
  type: "Convolution"
  bottom: "pool1"
  top: "conv2"
  convolution_param {
    num_output: 150
    pad: 0
    kernel_size: 4
    group: 1
    stride: 1
    weight_filler {
      type: "xavier"
    }
  }
}
layer {
  name: "conv2_prescale"
  type: "Scale"
  bottom: "conv2"
  top: "conv2"
  param {
    lr_mult: 0
    decay_mult: 0
  }
  scale_param {
    filler {
      value: 0.6666
    }
    bias_term: false
  }
}
layer {
  name: "conv2_sTanH"
  type: "TanH"
  bottom: "conv2"
  top: "conv2"
}
layer {
  name: "conv2_postscale"
  type: "Scale"
  bottom: "conv2"
  top: "conv2"
  param {
    lr_mult: 0
    decay_mult: 0
  }
  scale_param {
    filler {
      value: 1.7159
    }
    bias_term: false
  }
}
layer {
  name: "pool2"
  type: "Pooling"
  bottom: "conv2"
  top: "pool2"
  pooling_param {
    pool: MAX
    kernel_size: 2
    stride: 2
  }
}
layer {
  name: "conv3"
  type: "Convolution"
  bottom: "pool2"
  top: "conv3"
  convolution_param {
    num_output: 250
    pad: 0
    kernel_size: 4
    group: 1
    stride: 1
    weight_filler {
      type: "xavier"
    }
  }
}
layer {
  name: "conv3_prescale"
  type: "Scale"
  bottom: "conv3"
  top: "conv3"
  param {
    lr_mult: 0
    decay_mult: 0
  }
  scale_param {
    filler {
      value: 0.6666
    }
    bias_term: false
  }
}
layer {
  name: "conv3_sTanH"
  type: "TanH"
  bottom: "conv3"
  top: "conv3"
}
layer {
  name: "conv3_postscale"
  type: "Scale"
  bottom: "conv3"
  top: "conv3"
  param {
    lr_mult: 0
    decay_mult: 0
  }
  scale_param {
    filler {
      value: 1.7159
    }
    bias_term: false
  }
}
layer {
  name: "pool3"
  type: "Pooling"
  bottom: "conv3"
  top: "pool3"
  pooling_param {
    pool: MAX
    kernel_size: 2
    stride: 2
  }
}
layer {
  name: "fc4_300"
  type: "InnerProduct"
  bottom: "pool3"
  top: "fc4_300"
  inner_product_param {
    num_output: 300
    weight_filler {
      type: "xavier"
    }
  }
}
layer {
  name: "fc4_prescale"
  type: "Scale"
  bottom: "fc4_300"
  top: "fc4_300"
  param {
    lr_mult: 0
    decay_mult: 0
  }
  scale_param {
    filler {
      value: 0.6666
    }
    bias_term: false
  }
}
layer {
  name: "fc4_sTanH"
  type: "TanH"
  bottom: "fc4_300"
  top: "fc4_300"
}
layer {
  name: "fc4_postscale"
  type: "Scale"
  bottom: "fc4_300"
  top: "fc4_300"
  param {
    lr_mult: 0
    decay_mult: 0
  }
  scale_param {
    filler {
      value: 1.7159
    }
    bias_term: false
  }
}
layer {
  name: "fc5_67"
  type: "InnerProduct"
  bottom: "fc4_300"
  top: "fc5_classes"
  inner_product_param {
    num_output: 67
    weight_filler {
      type: "xavier"
    }
  }
}
layer {
  name: "loss"
  type: "SoftmaxWithLoss"
  bottom: "fc5_classes"
  bottom: "label"
  top: "loss"
}
I0411 02:58:55.980052 13585 layer_factory.hpp:77] Creating layer data
I0411 02:58:55.981350 13585 net.cpp:100] Creating Layer data
I0411 02:58:55.981371 13585 net.cpp:408] data -> data
I0411 02:58:55.981395 13585 net.cpp:408] data -> label
I0411 02:58:55.982619 13701 db_lmdb.cpp:35] Opened lmdb ../local_data/lmdb/rtsd-r1/orig/train/lmdb
I0411 02:58:55.999619 13585 data_layer.cpp:41] output data size: 1024,3,48,48
I0411 02:58:56.047453 13585 net.cpp:150] Setting up data
I0411 02:58:56.047487 13585 net.cpp:157] Top shape: 1024 3 48 48 (7077888)
I0411 02:58:56.047493 13585 net.cpp:157] Top shape: 1024 (1024)
I0411 02:58:56.047497 13585 net.cpp:165] Memory required for data: 28315648
I0411 02:58:56.047508 13585 layer_factory.hpp:77] Creating layer conv1
I0411 02:58:56.047534 13585 net.cpp:100] Creating Layer conv1
I0411 02:58:56.047543 13585 net.cpp:434] conv1 <- data
I0411 02:58:56.047556 13585 net.cpp:408] conv1 -> conv1
I0411 02:58:56.348889 13585 net.cpp:150] Setting up conv1
I0411 02:58:56.348920 13585 net.cpp:157] Top shape: 1024 100 42 42 (180633600)
I0411 02:58:56.348924 13585 net.cpp:165] Memory required for data: 750850048
I0411 02:58:56.348947 13585 layer_factory.hpp:77] Creating layer conv1_prescale
I0411 02:58:56.348963 13585 net.cpp:100] Creating Layer conv1_prescale
I0411 02:58:56.348966 13585 net.cpp:434] conv1_prescale <- conv1
I0411 02:58:56.348978 13585 net.cpp:395] conv1_prescale -> conv1 (in-place)
I0411 02:58:56.349090 13585 net.cpp:150] Setting up conv1_prescale
I0411 02:58:56.349099 13585 net.cpp:157] Top shape: 1024 100 42 42 (180633600)
I0411 02:58:56.349103 13585 net.cpp:165] Memory required for data: 1473384448
I0411 02:58:56.349110 13585 layer_factory.hpp:77] Creating layer conv1_sTanH
I0411 02:58:56.349118 13585 net.cpp:100] Creating Layer conv1_sTanH
I0411 02:58:56.349123 13585 net.cpp:434] conv1_sTanH <- conv1
I0411 02:58:56.349128 13585 net.cpp:395] conv1_sTanH -> conv1 (in-place)
I0411 02:58:56.349326 13585 net.cpp:150] Setting up conv1_sTanH
I0411 02:58:56.349339 13585 net.cpp:157] Top shape: 1024 100 42 42 (180633600)
I0411 02:58:56.349342 13585 net.cpp:165] Memory required for data: 2195918848
I0411 02:58:56.349346 13585 layer_factory.hpp:77] Creating layer conv1_postscale
I0411 02:58:56.349354 13585 net.cpp:100] Creating Layer conv1_postscale
I0411 02:58:56.349359 13585 net.cpp:434] conv1_postscale <- conv1
I0411 02:58:56.349365 13585 net.cpp:395] conv1_postscale -> conv1 (in-place)
I0411 02:58:56.349462 13585 net.cpp:150] Setting up conv1_postscale
I0411 02:58:56.349472 13585 net.cpp:157] Top shape: 1024 100 42 42 (180633600)
I0411 02:58:56.349474 13585 net.cpp:165] Memory required for data: 2918453248
I0411 02:58:56.349480 13585 layer_factory.hpp:77] Creating layer pool1
I0411 02:58:56.349486 13585 net.cpp:100] Creating Layer pool1
I0411 02:58:56.349491 13585 net.cpp:434] pool1 <- conv1
I0411 02:58:56.349496 13585 net.cpp:408] pool1 -> pool1
I0411 02:58:56.349544 13585 net.cpp:150] Setting up pool1
I0411 02:58:56.349552 13585 net.cpp:157] Top shape: 1024 100 21 21 (45158400)
I0411 02:58:56.349575 13585 net.cpp:165] Memory required for data: 3099086848
I0411 02:58:56.349581 13585 layer_factory.hpp:77] Creating layer conv2
I0411 02:58:56.349591 13585 net.cpp:100] Creating Layer conv2
I0411 02:58:56.349594 13585 net.cpp:434] conv2 <- pool1
I0411 02:58:56.349601 13585 net.cpp:408] conv2 -> conv2
I0411 02:58:56.353916 13585 net.cpp:150] Setting up conv2
I0411 02:58:56.353935 13585 net.cpp:157] Top shape: 1024 150 18 18 (49766400)
I0411 02:58:56.353938 13585 net.cpp:165] Memory required for data: 3298152448
I0411 02:58:56.353950 13585 layer_factory.hpp:77] Creating layer conv2_prescale
I0411 02:58:56.353957 13585 net.cpp:100] Creating Layer conv2_prescale
I0411 02:58:56.353961 13585 net.cpp:434] conv2_prescale <- conv2
I0411 02:58:56.353966 13585 net.cpp:395] conv2_prescale -> conv2 (in-place)
I0411 02:58:56.354073 13585 net.cpp:150] Setting up conv2_prescale
I0411 02:58:56.354084 13585 net.cpp:157] Top shape: 1024 150 18 18 (49766400)
I0411 02:58:56.354087 13585 net.cpp:165] Memory required for data: 3497218048
I0411 02:58:56.354092 13585 layer_factory.hpp:77] Creating layer conv2_sTanH
I0411 02:58:56.354099 13585 net.cpp:100] Creating Layer conv2_sTanH
I0411 02:58:56.354104 13585 net.cpp:434] conv2_sTanH <- conv2
I0411 02:58:56.354110 13585 net.cpp:395] conv2_sTanH -> conv2 (in-place)
I0411 02:58:56.354852 13585 net.cpp:150] Setting up conv2_sTanH
I0411 02:58:56.354869 13585 net.cpp:157] Top shape: 1024 150 18 18 (49766400)
I0411 02:58:56.354872 13585 net.cpp:165] Memory required for data: 3696283648
I0411 02:58:56.354876 13585 layer_factory.hpp:77] Creating layer conv2_postscale
I0411 02:58:56.354884 13585 net.cpp:100] Creating Layer conv2_postscale
I0411 02:58:56.354887 13585 net.cpp:434] conv2_postscale <- conv2
I0411 02:58:56.354893 13585 net.cpp:395] conv2_postscale -> conv2 (in-place)
I0411 02:58:56.354986 13585 net.cpp:150] Setting up conv2_postscale
I0411 02:58:56.354996 13585 net.cpp:157] Top shape: 1024 150 18 18 (49766400)
I0411 02:58:56.355000 13585 net.cpp:165] Memory required for data: 3895349248
I0411 02:58:56.355005 13585 layer_factory.hpp:77] Creating layer pool2
I0411 02:58:56.355011 13585 net.cpp:100] Creating Layer pool2
I0411 02:58:56.355016 13585 net.cpp:434] pool2 <- conv2
I0411 02:58:56.355021 13585 net.cpp:408] pool2 -> pool2
I0411 02:58:56.355060 13585 net.cpp:150] Setting up pool2
I0411 02:58:56.355068 13585 net.cpp:157] Top shape: 1024 150 9 9 (12441600)
I0411 02:58:56.355072 13585 net.cpp:165] Memory required for data: 3945115648
I0411 02:58:56.355074 13585 layer_factory.hpp:77] Creating layer conv3
I0411 02:58:56.355083 13585 net.cpp:100] Creating Layer conv3
I0411 02:58:56.355088 13585 net.cpp:434] conv3 <- pool2
I0411 02:58:56.355093 13585 net.cpp:408] conv3 -> conv3
I0411 02:58:56.360524 13585 net.cpp:150] Setting up conv3
I0411 02:58:56.360543 13585 net.cpp:157] Top shape: 1024 250 6 6 (9216000)
I0411 02:58:56.360546 13585 net.cpp:165] Memory required for data: 3981979648
I0411 02:58:56.360558 13585 layer_factory.hpp:77] Creating layer conv3_prescale
I0411 02:58:56.360565 13585 net.cpp:100] Creating Layer conv3_prescale
I0411 02:58:56.360569 13585 net.cpp:434] conv3_prescale <- conv3
I0411 02:58:56.360575 13585 net.cpp:395] conv3_prescale -> conv3 (in-place)
I0411 02:58:56.360666 13585 net.cpp:150] Setting up conv3_prescale
I0411 02:58:56.360677 13585 net.cpp:157] Top shape: 1024 250 6 6 (9216000)
I0411 02:58:56.360679 13585 net.cpp:165] Memory required for data: 4018843648
I0411 02:58:56.360684 13585 layer_factory.hpp:77] Creating layer conv3_sTanH
I0411 02:58:56.360690 13585 net.cpp:100] Creating Layer conv3_sTanH
I0411 02:58:56.360693 13585 net.cpp:434] conv3_sTanH <- conv3
I0411 02:58:56.360698 13585 net.cpp:395] conv3_sTanH -> conv3 (in-place)
I0411 02:58:56.361450 13585 net.cpp:150] Setting up conv3_sTanH
I0411 02:58:56.361469 13585 net.cpp:157] Top shape: 1024 250 6 6 (9216000)
I0411 02:58:56.361472 13585 net.cpp:165] Memory required for data: 4055707648
I0411 02:58:56.361476 13585 layer_factory.hpp:77] Creating layer conv3_postscale
I0411 02:58:56.361484 13585 net.cpp:100] Creating Layer conv3_postscale
I0411 02:58:56.361501 13585 net.cpp:434] conv3_postscale <- conv3
I0411 02:58:56.361508 13585 net.cpp:395] conv3_postscale -> conv3 (in-place)
I0411 02:58:56.361604 13585 net.cpp:150] Setting up conv3_postscale
I0411 02:58:56.361614 13585 net.cpp:157] Top shape: 1024 250 6 6 (9216000)
I0411 02:58:56.361618 13585 net.cpp:165] Memory required for data: 4092571648
I0411 02:58:56.361624 13585 layer_factory.hpp:77] Creating layer pool3
I0411 02:58:56.361629 13585 net.cpp:100] Creating Layer pool3
I0411 02:58:56.361634 13585 net.cpp:434] pool3 <- conv3
I0411 02:58:56.361639 13585 net.cpp:408] pool3 -> pool3
I0411 02:58:56.361676 13585 net.cpp:150] Setting up pool3
I0411 02:58:56.361685 13585 net.cpp:157] Top shape: 1024 250 3 3 (2304000)
I0411 02:58:56.361688 13585 net.cpp:165] Memory required for data: 4101787648
I0411 02:58:56.361691 13585 layer_factory.hpp:77] Creating layer fc4_300
I0411 02:58:56.361701 13585 net.cpp:100] Creating Layer fc4_300
I0411 02:58:56.361704 13585 net.cpp:434] fc4_300 <- pool3
I0411 02:58:56.361711 13585 net.cpp:408] fc4_300 -> fc4_300
I0411 02:58:56.367033 13585 net.cpp:150] Setting up fc4_300
I0411 02:58:56.367051 13585 net.cpp:157] Top shape: 1024 300 (307200)
I0411 02:58:56.367055 13585 net.cpp:165] Memory required for data: 4103016448
I0411 02:58:56.367063 13585 layer_factory.hpp:77] Creating layer fc4_prescale
I0411 02:58:56.367070 13585 net.cpp:100] Creating Layer fc4_prescale
I0411 02:58:56.367074 13585 net.cpp:434] fc4_prescale <- fc4_300
I0411 02:58:56.367080 13585 net.cpp:395] fc4_prescale -> fc4_300 (in-place)
I0411 02:58:56.367166 13585 net.cpp:150] Setting up fc4_prescale
I0411 02:58:56.367175 13585 net.cpp:157] Top shape: 1024 300 (307200)
I0411 02:58:56.367179 13585 net.cpp:165] Memory required for data: 4104245248
I0411 02:58:56.367183 13585 layer_factory.hpp:77] Creating layer fc4_sTanH
I0411 02:58:56.367189 13585 net.cpp:100] Creating Layer fc4_sTanH
I0411 02:58:56.367192 13585 net.cpp:434] fc4_sTanH <- fc4_300
I0411 02:58:56.367197 13585 net.cpp:395] fc4_sTanH -> fc4_300 (in-place)
I0411 02:58:56.367374 13585 net.cpp:150] Setting up fc4_sTanH
I0411 02:58:56.367386 13585 net.cpp:157] Top shape: 1024 300 (307200)
I0411 02:58:56.367389 13585 net.cpp:165] Memory required for data: 4105474048
I0411 02:58:56.367393 13585 layer_factory.hpp:77] Creating layer fc4_postscale
I0411 02:58:56.367400 13585 net.cpp:100] Creating Layer fc4_postscale
I0411 02:58:56.367404 13585 net.cpp:434] fc4_postscale <- fc4_300
I0411 02:58:56.367410 13585 net.cpp:395] fc4_postscale -> fc4_300 (in-place)
I0411 02:58:56.367501 13585 net.cpp:150] Setting up fc4_postscale
I0411 02:58:56.367508 13585 net.cpp:157] Top shape: 1024 300 (307200)
I0411 02:58:56.367511 13585 net.cpp:165] Memory required for data: 4106702848
I0411 02:58:56.367517 13585 layer_factory.hpp:77] Creating layer fc5_67
I0411 02:58:56.367524 13585 net.cpp:100] Creating Layer fc5_67
I0411 02:58:56.367528 13585 net.cpp:434] fc5_67 <- fc4_300
I0411 02:58:56.367533 13585 net.cpp:408] fc5_67 -> fc5_classes
I0411 02:58:56.368746 13585 net.cpp:150] Setting up fc5_67
I0411 02:58:56.368762 13585 net.cpp:157] Top shape: 1024 67 (68608)
I0411 02:58:56.368765 13585 net.cpp:165] Memory required for data: 4106977280
I0411 02:58:56.368775 13585 layer_factory.hpp:77] Creating layer loss
I0411 02:58:56.368782 13585 net.cpp:100] Creating Layer loss
I0411 02:58:56.368787 13585 net.cpp:434] loss <- fc5_classes
I0411 02:58:56.368790 13585 net.cpp:434] loss <- label
I0411 02:58:56.368796 13585 net.cpp:408] loss -> loss
I0411 02:58:56.368809 13585 layer_factory.hpp:77] Creating layer loss
…
I0411 02:58:56.369596 13585 solver.cpp:193] Creating test net (#0) specified by test_net file: ./Prototxt/experiment_8/rtsd-r1/orig/trial_1/test.prototxt
I0411 02:58:56.369797 13585 net.cpp:58] Initializing net from parameters: 
state {
  phase: TEST
}
layer {
  name: "data"
  type: "Data"
  top: "data"
  top: "label"
  include {
    phase: TEST
  }
  transform_param {
    scale: 0.0039215689
    mirror: false
    crop_size: 48
    mean_value: 113
    mean_value: 110
    mean_value: 132
  }
  data_param {
    source: "../local_data/lmdb/rtsd-r1/orig/test/lmdb"
    batch_size: 1024
    backend: LMDB
  }
}
layer {
  name: "conv1"
  type: "Convolution"
  bottom: "data"
  top: "conv1"
  convolution_param {
    num_output: 100
    pad: 0
    kernel_size: 7
    group: 1
    stride: 1
    weight_filler {
      type: "xavier"
    }
  }
}
layer {
  name: "conv1_prescale"
  type: "Scale"
  bottom: "conv1"
  top: "conv1"
  param {
    lr_mult: 0
    decay_mult: 0
  }
  scale_param {
    filler {
      value: 0.6666
    }
    bias_term: false
  }
}
layer {
  name: "conv1_sTanH"
  type: "TanH"
  bottom: "conv1"
  top: "conv1"
}
layer {
  name: "conv1_postscale"
  type: "Scale"
  bottom: "conv1"
  top: "conv1"
  param {
    lr_mult: 0
    decay_mult: 0
  }
  scale_param {
    filler {
      value: 1.7159
    }
    bias_term: false
  }
}
layer {
  name: "pool1"
  type: "Pooling"
  bottom: "conv1"
  top: "pool1"
  pooling_param {
    pool: MAX
    kernel_size: 2
    stride: 2
  }
}
layer {
  name: "conv2"
  type: "Convolution"
  bottom: "pool1"
  top: "conv2"
  convolution_param {
    num_output: 150
    pad: 0
    kernel_size: 4
    group: 1
    stride: 1
    weight_filler {
      type: "xavier"
    }
  }
}
layer {
  name: "conv2_prescale"
  type: "Scale"
  bottom: "conv2"
  top: "conv2"
  param {
    lr_mult: 0
    decay_mult: 0
  }
  scale_param {
    filler {
      value: 0.6666
    }
    bias_term: false
  }
}
layer {
  name: "conv2_sTanH"
  type: "TanH"
  bottom: "conv2"
  top: "conv2"
}
layer {
  name: "conv2_postscale"
  type: "Scale"
  bottom: "conv2"
  top: "conv2"
  param {
    lr_mult: 0
    decay_mult: 0
  }
  scale_param {
    filler {
      value: 1.7159
    }
    bias_term: false
  }
}
layer {
  name: "pool2"
  type: "Pooling"
  bottom: "conv2"
  top: "pool2"
  pooling_param {
    pool: MAX
    kernel_size: 2
    stride: 2
  }
}
layer {
  name: "conv3"
  type: "Convolution"
  bottom: "pool2"
  top: "conv3"
  convolution_param {
    num_output: 250
    pad: 0
    kernel_size: 4
    group: 1
    stride: 1
    weight_filler {
      type: "xavier"
    }
  }
}
layer {
  name: "conv3_prescale"
  type: "Scale"
  bottom: "conv3"
  top: "conv3"
  param {
    lr_mult: 0
    decay_mult: 0
  }
  scale_param {
    filler {
      value: 0.6666
    }
    bias_term: false
  }
}
layer {
  name: "conv3_sTanH"
  type: "TanH"
  bottom: "conv3"
  top: "conv3"
}
layer {
  name: "conv3_postscale"
  type: "Scale"
  bottom: "conv3"
  top: "conv3"
  param {
    lr_mult: 0
    decay_mult: 0
  }
  scale_param {
    filler {
      value: 1.7159
    }
    bias_term: false
  }
}
layer {
  name: "pool3"
  type: "Pooling"
  bottom: "conv3"
  top: "pool3"
  pooling_param {
    pool: MAX
    kernel_size: 2
    stride: 2
  }
}
layer {
  name: "fc4_300"
  type: "InnerProduct"
  bottom: "pool3"
  top: "fc4_300"
  inner_product_param {
    num_output: 300
    weight_filler {
      type: "xavier"
    }
  }
}
layer {
  name: "fc4_prescale"
  type: "Scale"
  bottom: "fc4_300"
  top: "fc4_300"
  param {
    lr_mult: 0
    decay_mult: 0
  }
  scale_param {
    filler {
      value: 0.6666
    }
    bias_term: false
  }
}
layer {
  name: "fc4_sTanH"
  type: "TanH"
  bottom: "fc4_300"
  top: "fc4_300"
}
layer {
  name: "fc4_postscale"
  type: "Scale"
  bottom: "fc4_300"
  top: "fc4_300"
  param {
    lr_mult: 0
    decay_mult: 0
  }
  scale_param {
    filler {
      value: 1.7159
    }
    bias_term: false
  }
}
layer {
  name: "fc5_67"
  type: "InnerProduct"
  bottom: "fc4_300"
  top: "fc5_classes"
  inner_product_param {
    num_output: 67
    weight_filler {
      type: "xavier"
    }
  }
}
layer {
  name: "loss"
  type: "SoftmaxWithLoss"
  bottom: "fc5_classes"
  bottom: "label"
  top: "loss"
}
layer {
  name: "accuracy_1"
  type: "Accuracy"
  bottom: "fc5_classes"
  bottom: "label"
  top: "accuracy_1"
  include {
    phase: TEST
  }
  accuracy_param {
    top_k: 1
  }
}
layer {
  name: "accuracy_5"
  type: "Accuracy"
  bottom: "fc5_classes"
  bottom: "label"
  top: "accuracy_5"
  include {
    phase: TEST
  }
  accuracy_param {
    top_k: 5
  }
}
I0411 02:58:56.369909 13585 layer_factory.hpp:77] Creating layer data
I0411 02:58:56.370501 13585 net.cpp:100] Creating Layer data
I0411 02:58:56.370512 13585 net.cpp:408] data -> data
I0411 02:58:56.370533 13585 net.cpp:408] data -> label
I0411 02:58:56.371702 13736 db_lmdb.cpp:35] Opened lmdb ../local_data/lmdb/rtsd-r1/orig/test/lmdb
I0411 02:58:56.371958 13585 data_layer.cpp:41] output data size: 1024,3,48,48
I0411 02:58:56.412472 13585 net.cpp:150] Setting up data
I0411 02:58:56.412499 13585 net.cpp:157] Top shape: 1024 3 48 48 (7077888)
I0411 02:58:56.412505 13585 net.cpp:157] Top shape: 1024 (1024)
I0411 02:58:56.412508 13585 net.cpp:165] Memory required for data: 28315648
I0411 02:58:56.412514 13585 layer_factory.hpp:77] Creating layer label_data_1_split
I0411 02:58:56.412528 13585 net.cpp:100] Creating Layer label_data_1_split
I0411 02:58:56.412533 13585 net.cpp:434] label_data_1_split <- label
I0411 02:58:56.412541 13585 net.cpp:408] label_data_1_split -> label_data_1_split_0
I0411 02:58:56.412552 13585 net.cpp:408] label_data_1_split -> label_data_1_split_1
I0411 02:58:56.412559 13585 net.cpp:408] label_data_1_split -> label_data_1_split_2
I0411 02:58:56.412641 13585 net.cpp:150] Setting up label_data_1_split
I0411 02:58:56.412649 13585 net.cpp:157] Top shape: 1024 (1024)
I0411 02:58:56.412654 13585 net.cpp:157] Top shape: 1024 (1024)
I0411 02:58:56.412657 13585 net.cpp:157] Top shape: 1024 (1024)
I0411 02:58:56.412660 13585 net.cpp:165] Memory required for data: 28327936
I0411 02:58:56.412664 13585 layer_factory.hpp:77] Creating layer conv1
I0411 02:58:56.412677 13585 net.cpp:100] Creating Layer conv1
I0411 02:58:56.412680 13585 net.cpp:434] conv1 <- data
I0411 02:58:56.412691 13585 net.cpp:408] conv1 -> conv1
I0411 02:58:56.415366 13585 net.cpp:150] Setting up conv1
I0411 02:58:56.415383 13585 net.cpp:157] Top shape: 1024 100 42 42 (180633600)
I0411 02:58:56.415408 13585 net.cpp:165] Memory required for data: 750862336
I0411 02:58:56.415422 13585 layer_factory.hpp:77] Creating layer conv1_prescale
I0411 02:58:56.415431 13585 net.cpp:100] Creating Layer conv1_prescale
I0411 02:58:56.415436 13585 net.cpp:434] conv1_prescale <- conv1
I0411 02:58:56.415442 13585 net.cpp:395] conv1_prescale -> conv1 (in-place)
I0411 02:58:56.415552 13585 net.cpp:150] Setting up conv1_prescale
I0411 02:58:56.415562 13585 net.cpp:157] Top shape: 1024 100 42 42 (180633600)
I0411 02:58:56.415565 13585 net.cpp:165] Memory required for data: 1473396736
I0411 02:58:56.415572 13585 layer_factory.hpp:77] Creating layer conv1_sTanH
I0411 02:58:56.415582 13585 net.cpp:100] Creating Layer conv1_sTanH
I0411 02:58:56.415586 13585 net.cpp:434] conv1_sTanH <- conv1
I0411 02:58:56.415591 13585 net.cpp:395] conv1_sTanH -> conv1 (in-place)
I0411 02:58:56.415773 13585 net.cpp:150] Setting up conv1_sTanH
I0411 02:58:56.415786 13585 net.cpp:157] Top shape: 1024 100 42 42 (180633600)
I0411 02:58:56.415788 13585 net.cpp:165] Memory required for data: 2195931136
I0411 02:58:56.415792 13585 layer_factory.hpp:77] Creating layer conv1_postscale
I0411 02:58:56.415799 13585 net.cpp:100] Creating Layer conv1_postscale
I0411 02:58:56.415803 13585 net.cpp:434] conv1_postscale <- conv1
I0411 02:58:56.415808 13585 net.cpp:395] conv1_postscale -> conv1 (in-place)
I0411 02:58:56.415927 13585 net.cpp:150] Setting up conv1_postscale
I0411 02:58:56.415938 13585 net.cpp:157] Top shape: 1024 100 42 42 (180633600)
I0411 02:58:56.415942 13585 net.cpp:165] Memory required for data: 2918465536
I0411 02:58:56.415947 13585 layer_factory.hpp:77] Creating layer pool1
I0411 02:58:56.415954 13585 net.cpp:100] Creating Layer pool1
I0411 02:58:56.415958 13585 net.cpp:434] pool1 <- conv1
I0411 02:58:56.415963 13585 net.cpp:408] pool1 -> pool1
I0411 02:58:56.416007 13585 net.cpp:150] Setting up pool1
I0411 02:58:56.416016 13585 net.cpp:157] Top shape: 1024 100 21 21 (45158400)
I0411 02:58:56.416019 13585 net.cpp:165] Memory required for data: 3099099136
I0411 02:58:56.416023 13585 layer_factory.hpp:77] Creating layer conv2
I0411 02:58:56.416031 13585 net.cpp:100] Creating Layer conv2
I0411 02:58:56.416035 13585 net.cpp:434] conv2 <- pool1
I0411 02:58:56.416041 13585 net.cpp:408] conv2 -> conv2
I0411 02:58:56.421203 13585 net.cpp:150] Setting up conv2
I0411 02:58:56.421226 13585 net.cpp:157] Top shape: 1024 150 18 18 (49766400)
I0411 02:58:56.421231 13585 net.cpp:165] Memory required for data: 3298164736
I0411 02:58:56.421241 13585 layer_factory.hpp:77] Creating layer conv2_prescale
I0411 02:58:56.421252 13585 net.cpp:100] Creating Layer conv2_prescale
I0411 02:58:56.421259 13585 net.cpp:434] conv2_prescale <- conv2
I0411 02:58:56.421267 13585 net.cpp:395] conv2_prescale -> conv2 (in-place)
I0411 02:58:56.421378 13585 net.cpp:150] Setting up conv2_prescale
I0411 02:58:56.421388 13585 net.cpp:157] Top shape: 1024 150 18 18 (49766400)
I0411 02:58:56.421391 13585 net.cpp:165] Memory required for data: 3497230336
I0411 02:58:56.421397 13585 layer_factory.hpp:77] Creating layer conv2_sTanH
I0411 02:58:56.421403 13585 net.cpp:100] Creating Layer conv2_sTanH
I0411 02:58:56.421406 13585 net.cpp:434] conv2_sTanH <- conv2
I0411 02:58:56.421412 13585 net.cpp:395] conv2_sTanH -> conv2 (in-place)
I0411 02:58:56.422549 13585 net.cpp:150] Setting up conv2_sTanH
I0411 02:58:56.422565 13585 net.cpp:157] Top shape: 1024 150 18 18 (49766400)
I0411 02:58:56.422569 13585 net.cpp:165] Memory required for data: 3696295936
I0411 02:58:56.422586 13585 layer_factory.hpp:77] Creating layer conv2_postscale
I0411 02:58:56.422595 13585 net.cpp:100] Creating Layer conv2_postscale
I0411 02:58:56.422598 13585 net.cpp:434] conv2_postscale <- conv2
I0411 02:58:56.422605 13585 net.cpp:395] conv2_postscale -> conv2 (in-place)
I0411 02:58:56.422706 13585 net.cpp:150] Setting up conv2_postscale
I0411 02:58:56.422716 13585 net.cpp:157] Top shape: 1024 150 18 18 (49766400)
I0411 02:58:56.422719 13585 net.cpp:165] Memory required for data: 3895361536
I0411 02:58:56.422724 13585 layer_factory.hpp:77] Creating layer pool2
I0411 02:58:56.422754 13585 net.cpp:100] Creating Layer pool2
I0411 02:58:56.422757 13585 net.cpp:434] pool2 <- conv2
I0411 02:58:56.422763 13585 net.cpp:408] pool2 -> pool2
I0411 02:58:56.422817 13585 net.cpp:150] Setting up pool2
I0411 02:58:56.422827 13585 net.cpp:157] Top shape: 1024 150 9 9 (12441600)
I0411 02:58:56.422829 13585 net.cpp:165] Memory required for data: 3945127936
I0411 02:58:56.422833 13585 layer_factory.hpp:77] Creating layer conv3
I0411 02:58:56.422842 13585 net.cpp:100] Creating Layer conv3
I0411 02:58:56.422847 13585 net.cpp:434] conv3 <- pool2
I0411 02:58:56.422852 13585 net.cpp:408] conv3 -> conv3
I0411 02:58:56.428867 13585 net.cpp:150] Setting up conv3
I0411 02:58:56.428889 13585 net.cpp:157] Top shape: 1024 250 6 6 (9216000)
I0411 02:58:56.428892 13585 net.cpp:165] Memory required for data: 3981991936
I0411 02:58:56.428903 13585 layer_factory.hpp:77] Creating layer conv3_prescale
I0411 02:58:56.428911 13585 net.cpp:100] Creating Layer conv3_prescale
I0411 02:58:56.428917 13585 net.cpp:434] conv3_prescale <- conv3
I0411 02:58:56.428923 13585 net.cpp:395] conv3_prescale -> conv3 (in-place)
I0411 02:58:56.429018 13585 net.cpp:150] Setting up conv3_prescale
I0411 02:58:56.429028 13585 net.cpp:157] Top shape: 1024 250 6 6 (9216000)
I0411 02:58:56.429030 13585 net.cpp:165] Memory required for data: 4018855936
I0411 02:58:56.429036 13585 layer_factory.hpp:77] Creating layer conv3_sTanH
I0411 02:58:56.429042 13585 net.cpp:100] Creating Layer conv3_sTanH
I0411 02:58:56.429045 13585 net.cpp:434] conv3_sTanH <- conv3
I0411 02:58:56.429050 13585 net.cpp:395] conv3_sTanH -> conv3 (in-place)
I0411 02:58:56.433296 13585 net.cpp:150] Setting up conv3_sTanH
I0411 02:58:56.433315 13585 net.cpp:157] Top shape: 1024 250 6 6 (9216000)
I0411 02:58:56.433320 13585 net.cpp:165] Memory required for data: 4055719936
I0411 02:58:56.433339 13585 layer_factory.hpp:77] Creating layer conv3_postscale
I0411 02:58:56.433348 13585 net.cpp:100] Creating Layer conv3_postscale
I0411 02:58:56.433352 13585 net.cpp:434] conv3_postscale <- conv3
I0411 02:58:56.433358 13585 net.cpp:395] conv3_postscale -> conv3 (in-place)
I0411 02:58:56.433464 13585 net.cpp:150] Setting up conv3_postscale
I0411 02:58:56.433475 13585 net.cpp:157] Top shape: 1024 250 6 6 (9216000)
I0411 02:58:56.433477 13585 net.cpp:165] Memory required for data: 4092583936
I0411 02:58:56.433483 13585 layer_factory.hpp:77] Creating layer pool3
I0411 02:58:56.433493 13585 net.cpp:100] Creating Layer pool3
I0411 02:58:56.433498 13585 net.cpp:434] pool3 <- conv3
I0411 02:58:56.433504 13585 net.cpp:408] pool3 -> pool3
I0411 02:58:56.433545 13585 net.cpp:150] Setting up pool3
I0411 02:58:56.433553 13585 net.cpp:157] Top shape: 1024 250 3 3 (2304000)
I0411 02:58:56.433557 13585 net.cpp:165] Memory required for data: 4101799936
I0411 02:58:56.433560 13585 layer_factory.hpp:77] Creating layer fc4_300
I0411 02:58:56.433568 13585 net.cpp:100] Creating Layer fc4_300
I0411 02:58:56.433571 13585 net.cpp:434] fc4_300 <- pool3
I0411 02:58:56.433578 13585 net.cpp:408] fc4_300 -> fc4_300
I0411 02:58:56.443929 13585 net.cpp:150] Setting up fc4_300
I0411 02:58:56.443949 13585 net.cpp:157] Top shape: 1024 300 (307200)
I0411 02:58:56.443953 13585 net.cpp:165] Memory required for data: 4103028736
I0411 02:58:56.443963 13585 layer_factory.hpp:77] Creating layer fc4_prescale
I0411 02:58:56.443971 13585 net.cpp:100] Creating Layer fc4_prescale
I0411 02:58:56.443975 13585 net.cpp:434] fc4_prescale <- fc4_300
I0411 02:58:56.443982 13585 net.cpp:395] fc4_prescale -> fc4_300 (in-place)
I0411 02:58:56.444074 13585 net.cpp:150] Setting up fc4_prescale
I0411 02:58:56.444084 13585 net.cpp:157] Top shape: 1024 300 (307200)
I0411 02:58:56.444088 13585 net.cpp:165] Memory required for data: 4104257536
I0411 02:58:56.444093 13585 layer_factory.hpp:77] Creating layer fc4_sTanH
I0411 02:58:56.444099 13585 net.cpp:100] Creating Layer fc4_sTanH
I0411 02:58:56.444103 13585 net.cpp:434] fc4_sTanH <- fc4_300
I0411 02:58:56.444108 13585 net.cpp:395] fc4_sTanH -> fc4_300 (in-place)
I0411 02:58:56.444321 13585 net.cpp:150] Setting up fc4_sTanH
I0411 02:58:56.444334 13585 net.cpp:157] Top shape: 1024 300 (307200)
I0411 02:58:56.444337 13585 net.cpp:165] Memory required for data: 4105486336
I0411 02:58:56.444341 13585 layer_factory.hpp:77] Creating layer fc4_postscale
I0411 02:58:56.444350 13585 net.cpp:100] Creating Layer fc4_postscale
I0411 02:58:56.444352 13585 net.cpp:434] fc4_postscale <- fc4_300
I0411 02:58:56.444358 13585 net.cpp:395] fc4_postscale -> fc4_300 (in-place)
I0411 02:58:56.444453 13585 net.cpp:150] Setting up fc4_postscale
I0411 02:58:56.444461 13585 net.cpp:157] Top shape: 1024 300 (307200)
I0411 02:58:56.444465 13585 net.cpp:165] Memory required for data: 4106715136
I0411 02:58:56.444470 13585 layer_factory.hpp:77] Creating layer fc5_67
I0411 02:58:56.444488 13585 net.cpp:100] Creating Layer fc5_67
I0411 02:58:56.444491 13585 net.cpp:434] fc5_67 <- fc4_300
I0411 02:58:56.444497 13585 net.cpp:408] fc5_67 -> fc5_classes
I0411 02:58:56.444744 13585 net.cpp:150] Setting up fc5_67
I0411 02:58:56.444754 13585 net.cpp:157] Top shape: 1024 67 (68608)
I0411 02:58:56.444757 13585 net.cpp:165] Memory required for data: 4106989568
I0411 02:58:56.444768 13585 layer_factory.hpp:77] Creating layer fc5_classes_fc5_67_0_split
I0411 02:58:56.444777 13585 net.cpp:100] Creating Layer fc5_classes_fc5_67_0_split
I0411 02:58:56.444780 13585 net.cpp:434] fc5_classes_fc5_67_0_split <- fc5_classes
I0411 02:58:56.444787 13585 net.cpp:408] fc5_classes_fc5_67_0_split -> fc5_classes_fc5_67_0_split_0
I0411 02:58:56.444793 13585 net.cpp:408] fc5_classes_fc5_67_0_split -> fc5_classes_fc5_67_0_split_1
I0411 02:58:56.444799 13585 net.cpp:408] fc5_classes_fc5_67_0_split -> fc5_classes_fc5_67_0_split_2
I0411 02:58:56.444849 13585 net.cpp:150] Setting up fc5_classes_fc5_67_0_split
I0411 02:58:56.444856 13585 net.cpp:157] Top shape: 1024 67 (68608)
I0411 02:58:56.444860 13585 net.cpp:157] Top shape: 1024 67 (68608)
I0411 02:58:56.444864 13585 net.cpp:157] Top shape: 1024 67 (68608)
I0411 02:58:56.444866 13585 net.cpp:165] Memory required for data: 4107812864
I0411 02:58:56.444870 13585 layer_factory.hpp:77] Creating layer loss
I0411 02:58:56.444876 13585 net.cpp:100] Creating Layer loss
I0411 02:58:56.444895 13585 net.cpp:434] loss <- fc5_classes_fc5_67_0_split_0
I0411 02:58:56.444900 13585 net.cpp:434] loss <- label_data_1_split_0
I0411 02:58:56.444905 13585 net.cpp:408] loss -> loss
…
