…
I0529 11:57:36.296910  9853 solver.cpp:81] Creating training net from train_net file: ./Prototxt/experiment_23/RTSD/CoNorm/trial_1/train.prototxt
I0529 11:57:36.297487  9853 net.cpp:58] Initializing net from parameters: 
state {
  phase: TRAIN
  level: 0
  stage: ""
}
layer {
  name: "data"
  type: "Data"
  top: "data"
  top: "label"
  include {
    phase: TRAIN
  }
  transform_param {
    scale: 0.0039215689
    mirror: false
    crop_size: 48
    mean_value: 135
    mean_value: 135
    mean_value: 134
  }
  data_param {
    source: "../local_data/lmdb/RTSD/CoNorm/train/lmdb"
    batch_size: 1024
    backend: LMDB
  }
}
layer {
  name: "conv1"
  type: "Convolution"
  bottom: "data"
  top: "conv1"
  convolution_param {
    num_output: 100
    pad: 0
    kernel_size: 7
    group: 1
    stride: 1
    weight_filler {
      type: "xavier"
    }
  }
}
layer {
  name: "conv1_relu"
  type: "ReLU"
  bottom: "conv1"
  top: "conv1"
}
layer {
  name: "pool1"
  type: "Pooling"
  bottom: "conv1"
  top: "pool1"
  pooling_param {
    pool: MAX
    kernel_size: 2
    stride: 2
  }
}
layer {
  name: "conv2"
  type: "Convolution"
  bottom: "pool1"
  top: "conv2"
  convolution_param {
    num_output: 150
    pad: 0
    kernel_size: 4
    group: 1
    stride: 1
    weight_filler {
      type: "xavier"
    }
  }
}
layer {
  name: "conv2_relu"
  type: "ReLU"
  bottom: "conv2"
  top: "conv2"
}
layer {
  name: "pool2"
  type: "Pooling"
  bottom: "conv2"
  top: "pool2"
  pooling_param {
    pool: MAX
    kernel_size: 2
    stride: 2
  }
}
layer {
  name: "conv3"
  type: "Convolution"
  bottom: "pool2"
  top: "conv3"
  convolution_param {
    num_output: 250
    pad: 0
    kernel_size: 4
    group: 1
    stride: 1
    weight_filler {
      type: "xavier"
    }
  }
}
layer {
  name: "conv3_relu"
  type: "ReLU"
  bottom: "conv3"
  top: "conv3"
}
layer {
  name: "pool3"
  type: "Pooling"
  bottom: "conv3"
  top: "pool3"
  pooling_param {
    pool: MAX
    kernel_size: 2
    stride: 2
  }
}
layer {
  name: "fc4_300"
  type: "InnerProduct"
  bottom: "pool3"
  top: "fc4_300"
  inner_product_param {
    num_output: 300
    weight_filler {
      type: "xavier"
    }
  }
}
layer {
  name: "fc4_relu"
  type: "ReLU"
  bottom: "fc4_300"
  top: "fc4_300"
}
layer {
  name: "fc5_116"
  type: "InnerProduct"
  bottom: "fc4_300"
  top: "fc5_classes"
  inner_product_param {
    num_output: 116
    weight_filler {
      type: "xavier"
    }
  }
}
layer {
  name: "softmax"
  type: "Softmax"
  bottom: "fc5_classes"
  top: "softmax"
}
layer {
  name: "loss"
  type: "MultinomialLogisticLoss"
  bottom: "softmax"
  bottom: "label"
  top: "loss"
}
layer {
  name: "accuracy_1"
  type: "Accuracy"
  bottom: "fc5_classes"
  bottom: "label"
  top: "accuracy_1"
  accuracy_param {
    top_k: 1
  }
}
layer {
  name: "accuracy_5"
  type: "Accuracy"
  bottom: "fc5_classes"
  bottom: "label"
  top: "accuracy_5"
  accuracy_param {
    top_k: 5
  }
}
layer {
  name: "silence"
  type: "Silence"
  bottom: "accuracy_1"
  bottom: "accuracy_5"
}
I0529 11:57:36.297631  9853 layer_factory.hpp:77] Creating layer data
I0529 11:57:36.298720  9853 net.cpp:100] Creating Layer data
I0529 11:57:36.298741  9853 net.cpp:408] data -> data
I0529 11:57:36.298802  9853 net.cpp:408] data -> label
I0529 11:57:36.309600  9901 db_lmdb.cpp:35] Opened lmdb ../local_data/lmdb/RTSD/CoNorm/train/lmdb
I0529 11:57:36.347719  9853 data_layer.cpp:41] output data size: 1024,3,48,48
I0529 11:57:36.402451  9853 net.cpp:150] Setting up data
I0529 11:57:36.402549  9853 net.cpp:157] Top shape: 1024 3 48 48 (7077888)
I0529 11:57:36.402570  9853 net.cpp:157] Top shape: 1024 (1024)
I0529 11:57:36.402577  9853 net.cpp:165] Memory required for data: 28315648
I0529 11:57:36.402600  9853 layer_factory.hpp:77] Creating layer label_data_1_split
I0529 11:57:36.402623  9853 net.cpp:100] Creating Layer label_data_1_split
I0529 11:57:36.402642  9853 net.cpp:434] label_data_1_split <- label
I0529 11:57:36.402667  9853 net.cpp:408] label_data_1_split -> label_data_1_split_0
I0529 11:57:36.402691  9853 net.cpp:408] label_data_1_split -> label_data_1_split_1
I0529 11:57:36.402711  9853 net.cpp:408] label_data_1_split -> label_data_1_split_2
I0529 11:57:36.402802  9853 net.cpp:150] Setting up label_data_1_split
I0529 11:57:36.402827  9853 net.cpp:157] Top shape: 1024 (1024)
I0529 11:57:36.402834  9853 net.cpp:157] Top shape: 1024 (1024)
I0529 11:57:36.402842  9853 net.cpp:157] Top shape: 1024 (1024)
I0529 11:57:36.402846  9853 net.cpp:165] Memory required for data: 28327936
I0529 11:57:36.402853  9853 layer_factory.hpp:77] Creating layer conv1
I0529 11:57:36.402887  9853 net.cpp:100] Creating Layer conv1
I0529 11:57:36.402895  9853 net.cpp:434] conv1 <- data
I0529 11:57:36.402912  9853 net.cpp:408] conv1 -> conv1
I0529 11:57:36.719202  9853 net.cpp:150] Setting up conv1
I0529 11:57:36.719238  9853 net.cpp:157] Top shape: 1024 100 42 42 (180633600)
I0529 11:57:36.719244  9853 net.cpp:165] Memory required for data: 750862336
I0529 11:57:36.719259  9853 layer_factory.hpp:77] Creating layer conv1_relu
I0529 11:57:36.719269  9853 net.cpp:100] Creating Layer conv1_relu
I0529 11:57:36.719274  9853 net.cpp:434] conv1_relu <- conv1
I0529 11:57:36.719281  9853 net.cpp:395] conv1_relu -> conv1 (in-place)
I0529 11:57:36.719424  9853 net.cpp:150] Setting up conv1_relu
I0529 11:57:36.719434  9853 net.cpp:157] Top shape: 1024 100 42 42 (180633600)
I0529 11:57:36.719439  9853 net.cpp:165] Memory required for data: 1473396736
I0529 11:57:36.719444  9853 layer_factory.hpp:77] Creating layer pool1
I0529 11:57:36.719452  9853 net.cpp:100] Creating Layer pool1
I0529 11:57:36.719457  9853 net.cpp:434] pool1 <- conv1
I0529 11:57:36.719462  9853 net.cpp:408] pool1 -> pool1
I0529 11:57:36.719504  9853 net.cpp:150] Setting up pool1
I0529 11:57:36.719511  9853 net.cpp:157] Top shape: 1024 100 21 21 (45158400)
I0529 11:57:36.719513  9853 net.cpp:165] Memory required for data: 1654030336
I0529 11:57:36.719517  9853 layer_factory.hpp:77] Creating layer conv2
I0529 11:57:36.719527  9853 net.cpp:100] Creating Layer conv2
I0529 11:57:36.719532  9853 net.cpp:434] conv2 <- pool1
I0529 11:57:36.719537  9853 net.cpp:408] conv2 -> conv2
I0529 11:57:36.722578  9853 net.cpp:150] Setting up conv2
I0529 11:57:36.722592  9853 net.cpp:157] Top shape: 1024 150 18 18 (49766400)
I0529 11:57:36.722597  9853 net.cpp:165] Memory required for data: 1853095936
I0529 11:57:36.722606  9853 layer_factory.hpp:77] Creating layer conv2_relu
I0529 11:57:36.722614  9853 net.cpp:100] Creating Layer conv2_relu
I0529 11:57:36.722618  9853 net.cpp:434] conv2_relu <- conv2
I0529 11:57:36.722625  9853 net.cpp:395] conv2_relu -> conv2 (in-place)
I0529 11:57:36.722760  9853 net.cpp:150] Setting up conv2_relu
I0529 11:57:36.722771  9853 net.cpp:157] Top shape: 1024 150 18 18 (49766400)
I0529 11:57:36.722776  9853 net.cpp:165] Memory required for data: 2052161536
I0529 11:57:36.722781  9853 layer_factory.hpp:77] Creating layer pool2
I0529 11:57:36.722787  9853 net.cpp:100] Creating Layer pool2
I0529 11:57:36.722791  9853 net.cpp:434] pool2 <- conv2
I0529 11:57:36.722798  9853 net.cpp:408] pool2 -> pool2
I0529 11:57:36.722834  9853 net.cpp:150] Setting up pool2
I0529 11:57:36.722844  9853 net.cpp:157] Top shape: 1024 150 9 9 (12441600)
I0529 11:57:36.722848  9853 net.cpp:165] Memory required for data: 2101927936
I0529 11:57:36.722852  9853 layer_factory.hpp:77] Creating layer conv3
I0529 11:57:36.722864  9853 net.cpp:100] Creating Layer conv3
I0529 11:57:36.722868  9853 net.cpp:434] conv3 <- pool2
I0529 11:57:36.722873  9853 net.cpp:408] conv3 -> conv3
I0529 11:57:36.729212  9853 net.cpp:150] Setting up conv3
I0529 11:57:36.729234  9853 net.cpp:157] Top shape: 1024 250 6 6 (9216000)
I0529 11:57:36.729239  9853 net.cpp:165] Memory required for data: 2138791936
I0529 11:57:36.729248  9853 layer_factory.hpp:77] Creating layer conv3_relu
I0529 11:57:36.729262  9853 net.cpp:100] Creating Layer conv3_relu
I0529 11:57:36.729266  9853 net.cpp:434] conv3_relu <- conv3
I0529 11:57:36.729271  9853 net.cpp:395] conv3_relu -> conv3 (in-place)
I0529 11:57:36.729682  9853 net.cpp:150] Setting up conv3_relu
I0529 11:57:36.729703  9853 net.cpp:157] Top shape: 1024 250 6 6 (9216000)
I0529 11:57:36.729707  9853 net.cpp:165] Memory required for data: 2175655936
I0529 11:57:36.729712  9853 layer_factory.hpp:77] Creating layer pool3
I0529 11:57:36.729717  9853 net.cpp:100] Creating Layer pool3
I0529 11:57:36.729722  9853 net.cpp:434] pool3 <- conv3
I0529 11:57:36.729728  9853 net.cpp:408] pool3 -> pool3
I0529 11:57:36.729763  9853 net.cpp:150] Setting up pool3
I0529 11:57:36.729769  9853 net.cpp:157] Top shape: 1024 250 3 3 (2304000)
I0529 11:57:36.729773  9853 net.cpp:165] Memory required for data: 2184871936
I0529 11:57:36.729775  9853 layer_factory.hpp:77] Creating layer fc4_300
I0529 11:57:36.729790  9853 net.cpp:100] Creating Layer fc4_300
I0529 11:57:36.729794  9853 net.cpp:434] fc4_300 <- pool3
I0529 11:57:36.729799  9853 net.cpp:408] fc4_300 -> fc4_300
I0529 11:57:36.734772  9853 net.cpp:150] Setting up fc4_300
I0529 11:57:36.734788  9853 net.cpp:157] Top shape: 1024 300 (307200)
I0529 11:57:36.734793  9853 net.cpp:165] Memory required for data: 2186100736
I0529 11:57:36.734802  9853 layer_factory.hpp:77] Creating layer fc4_relu
I0529 11:57:36.734808  9853 net.cpp:100] Creating Layer fc4_relu
I0529 11:57:36.734814  9853 net.cpp:434] fc4_relu <- fc4_300
I0529 11:57:36.734822  9853 net.cpp:395] fc4_relu -> fc4_300 (in-place)
I0529 11:57:36.734974  9853 net.cpp:150] Setting up fc4_relu
I0529 11:57:36.734985  9853 net.cpp:157] Top shape: 1024 300 (307200)
I0529 11:57:36.734989  9853 net.cpp:165] Memory required for data: 2187329536
I0529 11:57:36.734993  9853 layer_factory.hpp:77] Creating layer fc5_116
I0529 11:57:36.735002  9853 net.cpp:100] Creating Layer fc5_116
I0529 11:57:36.735007  9853 net.cpp:434] fc5_116 <- fc4_300
I0529 11:57:36.735011  9853 net.cpp:408] fc5_116 -> fc5_classes
I0529 11:57:36.737043  9853 net.cpp:150] Setting up fc5_116
I0529 11:57:36.737066  9853 net.cpp:157] Top shape: 1024 116 (118784)
I0529 11:57:36.737069  9853 net.cpp:165] Memory required for data: 2187804672
I0529 11:57:36.737085  9853 layer_factory.hpp:77] Creating layer fc5_classes_fc5_116_0_split
I0529 11:57:36.737105  9853 net.cpp:100] Creating Layer fc5_classes_fc5_116_0_split
I0529 11:57:36.737110  9853 net.cpp:434] fc5_classes_fc5_116_0_split <- fc5_classes
I0529 11:57:36.737116  9853 net.cpp:408] fc5_classes_fc5_116_0_split -> fc5_classes_fc5_116_0_split_0
I0529 11:57:36.737123  9853 net.cpp:408] fc5_classes_fc5_116_0_split -> fc5_classes_fc5_116_0_split_1
I0529 11:57:36.737128  9853 net.cpp:408] fc5_classes_fc5_116_0_split -> fc5_classes_fc5_116_0_split_2
I0529 11:57:36.737181  9853 net.cpp:150] Setting up fc5_classes_fc5_116_0_split
I0529 11:57:36.737188  9853 net.cpp:157] Top shape: 1024 116 (118784)
I0529 11:57:36.737193  9853 net.cpp:157] Top shape: 1024 116 (118784)
I0529 11:57:36.737196  9853 net.cpp:157] Top shape: 1024 116 (118784)
I0529 11:57:36.737200  9853 net.cpp:165] Memory required for data: 2189230080
I0529 11:57:36.737203  9853 layer_factory.hpp:77] Creating layer softmax
I0529 11:57:36.737208  9853 net.cpp:100] Creating Layer softmax
I0529 11:57:36.737212  9853 net.cpp:434] softmax <- fc5_classes_fc5_116_0_split_0
I0529 11:57:36.737217  9853 net.cpp:408] softmax -> softmax
I0529 11:57:36.737411  9853 net.cpp:150] Setting up softmax
I0529 11:57:36.737422  9853 net.cpp:157] Top shape: 1024 116 (118784)
I0529 11:57:36.737426  9853 net.cpp:165] Memory required for data: 2189705216
I0529 11:57:36.737431  9853 layer_factory.hpp:77] Creating layer loss
I0529 11:57:36.870995  9853 net.cpp:100] Creating Layer loss
I0529 11:57:36.871031  9853 net.cpp:434] loss <- softmax
I0529 11:57:36.871052  9853 net.cpp:434] loss <- label_data_1_split_0
I0529 11:57:36.871074  9853 net.cpp:408] loss -> loss
…
