…
I0415 01:21:32.953907 15292 solver.cpp:93] Creating training net from train_net file: ./Prototxt/experiment_12/rtsd-r1/CoNorm/trial_4/train.prototxt
I0415 01:21:32.965441 15292 net.cpp:58] Initializing net from parameters: 
state {
  phase: TRAIN
  level: 0
  stage: ""
}
layer {
  name: "data"
  type: "Data"
  top: "data"
  top: "label"
  include {
    phase: TRAIN
  }
  transform_param {
    scale: 0.0039215689
    mirror: false
    crop_size: 48
    mean_value: 132
    mean_value: 132
    mean_value: 131
  }
  data_param {
    source: "../local_data/lmdb/rtsd-r1/CoNorm/train/lmdb"
    batch_size: 1024
    backend: LMDB
  }
}
layer {
  name: "conv1"
  type: "Convolution"
  bottom: "data"
  top: "conv1"
  convolution_param {
    num_output: 100
    pad: 0
    kernel_size: 7
    group: 1
    stride: 1
    weight_filler {
      type: "xavier"
    }
  }
}
layer {
  name: "conv1_relu"
  type: "ReLU"
  bottom: "conv1"
  top: "conv1"
}
layer {
  name: "pool1"
  type: "Pooling"
  bottom: "conv1"
  top: "pool1"
  pooling_param {
    pool: MAX
    kernel_size: 2
    stride: 2
  }
}
layer {
  name: "conv2"
  type: "Convolution"
  bottom: "pool1"
  top: "conv2"
  convolution_param {
    num_output: 150
    pad: 0
    kernel_size: 4
    group: 1
    stride: 1
    weight_filler {
      type: "xavier"
    }
  }
}
layer {
  name: "conv2_relu"
  type: "ReLU"
  bottom: "conv2"
  top: "conv2"
}
layer {
  name: "pool2"
  type: "Pooling"
  bottom: "conv2"
  top: "pool2"
  pooling_param {
    pool: MAX
    kernel_size: 2
    stride: 2
  }
}
layer {
  name: "conv3"
  type: "Convolution"
  bottom: "pool2"
  top: "conv3"
  convolution_param {
    num_output: 250
    pad: 0
    kernel_size: 4
    group: 1
    stride: 1
    weight_filler {
      type: "xavier"
    }
  }
}
layer {
  name: "conv3_relu"
  type: "ReLU"
  bottom: "conv3"
  top: "conv3"
}
layer {
  name: "pool3"
  type: "Pooling"
  bottom: "conv3"
  top: "pool3"
  pooling_param {
    pool: MAX
    kernel_size: 2
    stride: 2
  }
}
layer {
  name: "fc4_300"
  type: "InnerProduct"
  bottom: "pool3"
  top: "fc4_300"
  inner_product_param {
    num_output: 300
    weight_filler {
      type: "xavier"
    }
  }
}
layer {
  name: "fc4_relu"
  type: "ReLU"
  bottom: "fc4_300"
  top: "fc4_300"
}
layer {
  name: "drop4"
  type: "Dropout"
  bottom: "fc4_300"
  top: "fc4_300"
  dropout_param {
    dropout_ratio: 0.5
  }
}
layer {
  name: "fc5_67"
  type: "InnerProduct"
  bottom: "fc4_300"
  top: "fc5_classes"
  inner_product_param {
    num_output: 67
    weight_filler {
      type: "xavier"
    }
  }
}
layer {
  name: "softmax"
  type: "Softmax"
  bottom: "fc5_classes"
  top: "softmax"
}
layer {
  name: "loss"
  type: "MultinomialLogisticLoss"
  bottom: "softmax"
  bottom: "label"
  top: "loss"
}
layer {
  name: "accuracy_1"
  type: "Accuracy"
  bottom: "fc5_classes"
  bottom: "label"
  top: "accuracy_1"
  accuracy_param {
    top_k: 1
  }
}
layer {
  name: "accuracy_5"
  type: "Accuracy"
  bottom: "fc5_classes"
  bottom: "label"
  top: "accuracy_5"
  accuracy_param {
    top_k: 5
  }
}
layer {
  name: "silence"
  type: "Silence"
  bottom: "accuracy_1"
  bottom: "accuracy_5"
}
I0415 01:21:32.965626 15292 layer_factory.hpp:77] Creating layer data
I0415 01:21:32.967284 15292 net.cpp:100] Creating Layer data
I0415 01:21:32.967304 15292 net.cpp:408] data -> data
I0415 01:21:32.967335 15292 net.cpp:408] data -> label
I0415 01:21:32.968796 15514 db_lmdb.cpp:35] Opened lmdb ../local_data/lmdb/rtsd-r1/CoNorm/train/lmdb
I0415 01:21:32.995882 15292 data_layer.cpp:41] output data size: 1024,3,48,48
I0415 01:21:33.180178 15292 net.cpp:150] Setting up data
I0415 01:21:33.180227 15292 net.cpp:157] Top shape: 1024 3 48 48 (7077888)
I0415 01:21:33.180236 15292 net.cpp:157] Top shape: 1024 (1024)
I0415 01:21:33.180241 15292 net.cpp:165] Memory required for data: 28315648
I0415 01:21:33.180258 15292 layer_factory.hpp:77] Creating layer label_data_1_split
I0415 01:21:33.180279 15292 net.cpp:100] Creating Layer label_data_1_split
I0415 01:21:33.180294 15292 net.cpp:434] label_data_1_split <- label
I0415 01:21:33.180331 15292 net.cpp:408] label_data_1_split -> label_data_1_split_0
I0415 01:21:33.180361 15292 net.cpp:408] label_data_1_split -> label_data_1_split_1
I0415 01:21:33.180378 15292 net.cpp:408] label_data_1_split -> label_data_1_split_2
I0415 01:21:33.180546 15292 net.cpp:150] Setting up label_data_1_split
I0415 01:21:33.180569 15292 net.cpp:157] Top shape: 1024 (1024)
I0415 01:21:33.180582 15292 net.cpp:157] Top shape: 1024 (1024)
I0415 01:21:33.180588 15292 net.cpp:157] Top shape: 1024 (1024)
I0415 01:21:33.180593 15292 net.cpp:165] Memory required for data: 28327936
I0415 01:21:33.180598 15292 layer_factory.hpp:77] Creating layer conv1
I0415 01:21:33.180635 15292 net.cpp:100] Creating Layer conv1
I0415 01:21:33.180650 15292 net.cpp:434] conv1 <- data
I0415 01:21:33.180661 15292 net.cpp:408] conv1 -> conv1
I0415 01:21:34.232683 15292 net.cpp:150] Setting up conv1
I0415 01:21:34.232722 15292 net.cpp:157] Top shape: 1024 100 42 42 (180633600)
I0415 01:21:34.232729 15292 net.cpp:165] Memory required for data: 750862336
I0415 01:21:34.232760 15292 layer_factory.hpp:77] Creating layer conv1_relu
I0415 01:21:34.232775 15292 net.cpp:100] Creating Layer conv1_relu
I0415 01:21:34.232781 15292 net.cpp:434] conv1_relu <- conv1
I0415 01:21:34.232790 15292 net.cpp:395] conv1_relu -> conv1 (in-place)
I0415 01:21:34.233060 15292 net.cpp:150] Setting up conv1_relu
I0415 01:21:34.233073 15292 net.cpp:157] Top shape: 1024 100 42 42 (180633600)
I0415 01:21:34.233078 15292 net.cpp:165] Memory required for data: 1473396736
I0415 01:21:34.233083 15292 layer_factory.hpp:77] Creating layer pool1
I0415 01:21:34.233098 15292 net.cpp:100] Creating Layer pool1
I0415 01:21:34.233103 15292 net.cpp:434] pool1 <- conv1
I0415 01:21:34.233111 15292 net.cpp:408] pool1 -> pool1
I0415 01:21:34.233182 15292 net.cpp:150] Setting up pool1
I0415 01:21:34.233193 15292 net.cpp:157] Top shape: 1024 100 21 21 (45158400)
I0415 01:21:34.233198 15292 net.cpp:165] Memory required for data: 1654030336
I0415 01:21:34.233204 15292 layer_factory.hpp:77] Creating layer conv2
I0415 01:21:34.233218 15292 net.cpp:100] Creating Layer conv2
I0415 01:21:34.233224 15292 net.cpp:434] conv2 <- pool1
I0415 01:21:34.233232 15292 net.cpp:408] conv2 -> conv2
I0415 01:21:34.240015 15292 net.cpp:150] Setting up conv2
I0415 01:21:34.240041 15292 net.cpp:157] Top shape: 1024 150 18 18 (49766400)
I0415 01:21:34.240047 15292 net.cpp:165] Memory required for data: 1853095936
I0415 01:21:34.240062 15292 layer_factory.hpp:77] Creating layer conv2_relu
I0415 01:21:34.240072 15292 net.cpp:100] Creating Layer conv2_relu
I0415 01:21:34.240078 15292 net.cpp:434] conv2_relu <- conv2
I0415 01:21:34.240087 15292 net.cpp:395] conv2_relu -> conv2 (in-place)
I0415 01:21:34.252598 15292 net.cpp:150] Setting up conv2_relu
I0415 01:21:34.252858 15292 net.cpp:157] Top shape: 1024 150 18 18 (49766400)
I0415 01:21:34.252892 15292 net.cpp:165] Memory required for data: 2052161536
I0415 01:21:34.252913 15292 layer_factory.hpp:77] Creating layer pool2
I0415 01:21:34.252938 15292 net.cpp:100] Creating Layer pool2
I0415 01:21:34.252957 15292 net.cpp:434] pool2 <- conv2
I0415 01:21:34.252979 15292 net.cpp:408] pool2 -> pool2
I0415 01:21:34.253069 15292 net.cpp:150] Setting up pool2
I0415 01:21:34.253101 15292 net.cpp:157] Top shape: 1024 150 9 9 (12441600)
I0415 01:21:34.253120 15292 net.cpp:165] Memory required for data: 2101927936
I0415 01:21:34.253142 15292 layer_factory.hpp:77] Creating layer conv3
I0415 01:21:34.253204 15292 net.cpp:100] Creating Layer conv3
I0415 01:21:34.253227 15292 net.cpp:434] conv3 <- pool2
I0415 01:21:34.253252 15292 net.cpp:408] conv3 -> conv3
I0415 01:21:34.273938 15292 net.cpp:150] Setting up conv3
I0415 01:21:34.273967 15292 net.cpp:157] Top shape: 1024 250 6 6 (9216000)
I0415 01:21:34.273972 15292 net.cpp:165] Memory required for data: 2138791936
I0415 01:21:34.274194 15292 layer_factory.hpp:77] Creating layer conv3_relu
I0415 01:21:34.274226 15292 net.cpp:100] Creating Layer conv3_relu
I0415 01:21:34.274240 15292 net.cpp:434] conv3_relu <- conv3
I0415 01:21:34.274248 15292 net.cpp:395] conv3_relu -> conv3 (in-place)
I0415 01:21:34.281654 15292 net.cpp:150] Setting up conv3_relu
I0415 01:21:34.281714 15292 net.cpp:157] Top shape: 1024 250 6 6 (9216000)
I0415 01:21:34.281741 15292 net.cpp:165] Memory required for data: 2175655936
I0415 01:21:34.281764 15292 layer_factory.hpp:77] Creating layer pool3
I0415 01:21:34.281787 15292 net.cpp:100] Creating Layer pool3
I0415 01:21:34.281805 15292 net.cpp:434] pool3 <- conv3
I0415 01:21:34.281831 15292 net.cpp:408] pool3 -> pool3
I0415 01:21:34.281939 15292 net.cpp:150] Setting up pool3
I0415 01:21:34.281970 15292 net.cpp:157] Top shape: 1024 250 3 3 (2304000)
I0415 01:21:34.281986 15292 net.cpp:165] Memory required for data: 2184871936
I0415 01:21:34.282008 15292 layer_factory.hpp:77] Creating layer fc4_300
I0415 01:21:34.282063 15292 net.cpp:100] Creating Layer fc4_300
I0415 01:21:34.282085 15292 net.cpp:434] fc4_300 <- pool3
I0415 01:21:34.282116 15292 net.cpp:408] fc4_300 -> fc4_300
I0415 01:21:34.297969 15292 net.cpp:150] Setting up fc4_300
I0415 01:21:34.305274 15292 net.cpp:157] Top shape: 1024 300 (307200)
I0415 01:21:34.305409 15292 net.cpp:165] Memory required for data: 2186100736
I0415 01:21:34.305580 15292 layer_factory.hpp:77] Creating layer fc4_relu
I0415 01:21:34.305892 15292 net.cpp:100] Creating Layer fc4_relu
I0415 01:21:34.305999 15292 net.cpp:434] fc4_relu <- fc4_300
I0415 01:21:34.306107 15292 net.cpp:395] fc4_relu -> fc4_300 (in-place)
I0415 01:21:34.306728 15292 net.cpp:150] Setting up fc4_relu
I0415 01:21:34.307415 15292 net.cpp:157] Top shape: 1024 300 (307200)
I0415 01:21:34.307493 15292 net.cpp:165] Memory required for data: 2187329536
I0415 01:21:34.307535 15292 layer_factory.hpp:77] Creating layer drop4
I0415 01:21:34.307580 15292 net.cpp:100] Creating Layer drop4
I0415 01:21:34.307623 15292 net.cpp:434] drop4 <- fc4_300
I0415 01:21:34.307673 15292 net.cpp:395] drop4 -> fc4_300 (in-place)
I0415 01:21:34.307819 15292 net.cpp:150] Setting up drop4
I0415 01:21:34.307972 15292 net.cpp:157] Top shape: 1024 300 (307200)
I0415 01:21:34.308017 15292 net.cpp:165] Memory required for data: 2188558336
I0415 01:21:34.308050 15292 layer_factory.hpp:77] Creating layer fc5_67
I0415 01:21:34.308506 15292 net.cpp:100] Creating Layer fc5_67
I0415 01:21:34.308539 15292 net.cpp:434] fc5_67 <- fc4_300
I0415 01:21:34.308573 15292 net.cpp:408] fc5_67 -> fc5_classes
I0415 01:21:34.316944 15292 net.cpp:150] Setting up fc5_67
I0415 01:21:34.317293 15292 net.cpp:157] Top shape: 1024 67 (68608)
I0415 01:21:34.317339 15292 net.cpp:165] Memory required for data: 2188832768
I0415 01:21:34.317384 15292 layer_factory.hpp:77] Creating layer fc5_classes_fc5_67_0_split
I0415 01:21:34.317452 15292 net.cpp:100] Creating Layer fc5_classes_fc5_67_0_split
I0415 01:21:34.317514 15292 net.cpp:434] fc5_classes_fc5_67_0_split <- fc5_classes
I0415 01:21:34.317569 15292 net.cpp:408] fc5_classes_fc5_67_0_split -> fc5_classes_fc5_67_0_split_0
I0415 01:21:34.317921 15292 net.cpp:408] fc5_classes_fc5_67_0_split -> fc5_classes_fc5_67_0_split_1
I0415 01:21:34.318004 15292 net.cpp:408] fc5_classes_fc5_67_0_split -> fc5_classes_fc5_67_0_split_2
I0415 01:21:34.318192 15292 net.cpp:150] Setting up fc5_classes_fc5_67_0_split
I0415 01:21:34.318369 15292 net.cpp:157] Top shape: 1024 67 (68608)
I0415 01:21:34.318416 15292 net.cpp:157] Top shape: 1024 67 (68608)
I0415 01:21:34.318454 15292 net.cpp:157] Top shape: 1024 67 (68608)
I0415 01:21:34.318500 15292 net.cpp:165] Memory required for data: 2189656064
I0415 01:21:34.318590 15292 layer_factory.hpp:77] Creating layer softmax
I0415 01:21:34.318641 15292 net.cpp:100] Creating Layer softmax
I0415 01:21:34.318688 15292 net.cpp:434] softmax <- fc5_classes_fc5_67_0_split_0
I0415 01:21:34.318732 15292 net.cpp:408] softmax -> softmax
I0415 01:21:34.320101 15292 net.cpp:150] Setting up softmax
I0415 01:21:34.320502 15292 net.cpp:157] Top shape: 1024 67 (68608)
I0415 01:21:34.320534 15292 net.cpp:165] Memory required for data: 2189930496
I0415 01:21:34.320562 15292 layer_factory.hpp:77] Creating layer loss
I0415 01:21:34.320813 15292 net.cpp:100] Creating Layer loss
I0415 01:21:34.320947 15292 net.cpp:434] loss <- softmax
I0415 01:21:34.321331 15292 net.cpp:434] loss <- label_data_1_split_0
I0415 01:21:34.321363 15292 net.cpp:408] loss -> loss
…
