…
I0409 06:45:15.448683  9753 net.cpp:322] The NetState phase (0) differed from the phase (1) specified by a rule in layer accuracy_5
I0409 06:45:15.448794  9753 net.cpp:58] Initializing net from parameters: 
state {
  phase: TRAIN
  level: 0
  stage: ""
}
layer {
  name: "data"
  type: "Data"
  top: "data"
  top: "label"
  include {
    phase: TRAIN
  }
  transform_param {
    mirror: false
    crop_size: 48
    mean_value: 122
    mean_value: 115
    mean_value: 129
  }
  data_param {
    source: "../local_data/lmdb/rtsd-r1/orig/train/lmdb"
    batch_size: 1024
    backend: LMDB
  }
}
layer {
  name: "conv1"
  type: "Convolution"
  bottom: "data"
  top: "conv1"
  convolution_param {
    num_output: 100
    pad: 0
    kernel_size: 7
    group: 1
    stride: 1
    weight_filler {
      type: "xavier"
    }
  }
}
layer {
  name: "conv1_relu"
  type: "ReLU"
  bottom: "conv1"
  top: "conv1"
}
layer {
  name: "pool1"
  type: "Pooling"
  bottom: "conv1"
  top: "pool1"
  pooling_param {
    pool: MAX
    kernel_size: 2
    stride: 2
  }
}
layer {
  name: "conv2"
  type: "Convolution"
  bottom: "pool1"
  top: "conv2"
  convolution_param {
    num_output: 150
    pad: 0
    kernel_size: 4
    group: 1
    stride: 1
    weight_filler {
      type: "xavier"
    }
  }
}
layer {
  name: "conv2_relu"
  type: "ReLU"
  bottom: "conv2"
  top: "conv2"
}
layer {
  name: "pool2"
  type: "Pooling"
  bottom: "conv2"
  top: "pool2"
  pooling_param {
    pool: MAX
    kernel_size: 2
    stride: 2
  }
}
layer {
  name: "conv3"
  type: "Convolution"
  bottom: "pool2"
  top: "conv3"
  convolution_param {
    num_output: 250
    pad: 0
    kernel_size: 4
    group: 1
    stride: 1
    weight_filler {
      type: "xavier"
    }
  }
}
layer {
  name: "conv3_relu"
  type: "ReLU"
  bottom: "conv3"
  top: "conv3"
}
layer {
  name: "pool3"
  type: "Pooling"
  bottom: "conv3"
  top: "pool3"
  pooling_param {
    pool: MAX
    kernel_size: 2
    stride: 2
  }
}
layer {
  name: "fc4_300"
  type: "InnerProduct"
  bottom: "pool3"
  top: "fc4_300"
  inner_product_param {
    num_output: 300
    weight_filler {
      type: "xavier"
    }
  }
}
layer {
  name: "fc4_relu"
  type: "ReLU"
  bottom: "fc4_300"
  top: "fc4_300"
}
layer {
  name: "drop4"
  type: "Dropout"
  bottom: "fc4_300"
  top: "fc4_300"
  dropout_param {
    dropout_ratio: 0.4
  }
}
layer {
  name: "fc5_67"
  type: "InnerProduct"
  bottom: "fc4_300"
  top: "fc5_classes"
  inner_product_param {
    num_output: 67
    weight_filler {
      type: "xavier"
    }
  }
}
layer {
  name: "loss"
  type: "SoftmaxWithLoss"
  bottom: "fc5_classes"
  bottom: "label"
  top: "loss"
}
I0409 06:45:15.448882  9753 layer_factory.hpp:77] Creating layer data
I0409 06:45:15.450176  9753 net.cpp:100] Creating Layer data
I0409 06:45:15.450194  9753 net.cpp:408] data -> data
I0409 06:45:15.450222  9753 net.cpp:408] data -> label
I0409 06:45:15.451411  9806 db_lmdb.cpp:35] Opened lmdb ../local_data/lmdb/rtsd-r1/orig/train/lmdb
I0409 06:45:15.473162  9753 data_layer.cpp:41] output data size: 1024,3,48,48
I0409 06:45:15.526357  9753 net.cpp:150] Setting up data
I0409 06:45:15.526396  9753 net.cpp:157] Top shape: 1024 3 48 48 (7077888)
I0409 06:45:15.526404  9753 net.cpp:157] Top shape: 1024 (1024)
I0409 06:45:15.526437  9753 net.cpp:165] Memory required for data: 28315648
I0409 06:45:15.526450  9753 layer_factory.hpp:77] Creating layer conv1
I0409 06:45:15.526476  9753 net.cpp:100] Creating Layer conv1
I0409 06:45:15.526485  9753 net.cpp:434] conv1 <- data
I0409 06:45:15.526500  9753 net.cpp:408] conv1 -> conv1
I0409 06:45:15.907150  9753 net.cpp:150] Setting up conv1
I0409 06:45:15.907189  9753 net.cpp:157] Top shape: 1024 100 42 42 (180633600)
I0409 06:45:15.907194  9753 net.cpp:165] Memory required for data: 750850048
I0409 06:45:15.907217  9753 layer_factory.hpp:77] Creating layer conv1_relu
I0409 06:45:15.907229  9753 net.cpp:100] Creating Layer conv1_relu
I0409 06:45:15.907234  9753 net.cpp:434] conv1_relu <- conv1
I0409 06:45:15.907243  9753 net.cpp:395] conv1_relu -> conv1 (in-place)
I0409 06:45:15.907460  9753 net.cpp:150] Setting up conv1_relu
I0409 06:45:15.907475  9753 net.cpp:157] Top shape: 1024 100 42 42 (180633600)
I0409 06:45:15.907480  9753 net.cpp:165] Memory required for data: 1473384448
I0409 06:45:15.907485  9753 layer_factory.hpp:77] Creating layer pool1
I0409 06:45:15.907491  9753 net.cpp:100] Creating Layer pool1
I0409 06:45:15.907495  9753 net.cpp:434] pool1 <- conv1
I0409 06:45:15.907501  9753 net.cpp:408] pool1 -> pool1
I0409 06:45:15.907560  9753 net.cpp:150] Setting up pool1
I0409 06:45:15.907570  9753 net.cpp:157] Top shape: 1024 100 21 21 (45158400)
I0409 06:45:15.907573  9753 net.cpp:165] Memory required for data: 1654018048
I0409 06:45:15.907577  9753 layer_factory.hpp:77] Creating layer conv2
I0409 06:45:15.907590  9753 net.cpp:100] Creating Layer conv2
I0409 06:45:15.907596  9753 net.cpp:434] conv2 <- pool1
I0409 06:45:15.907603  9753 net.cpp:408] conv2 -> conv2
I0409 06:45:15.913269  9753 net.cpp:150] Setting up conv2
I0409 06:45:15.913288  9753 net.cpp:157] Top shape: 1024 150 18 18 (49766400)
I0409 06:45:15.913293  9753 net.cpp:165] Memory required for data: 1853083648
I0409 06:45:15.913303  9753 layer_factory.hpp:77] Creating layer conv2_relu
I0409 06:45:15.913311  9753 net.cpp:100] Creating Layer conv2_relu
I0409 06:45:15.913314  9753 net.cpp:434] conv2_relu <- conv2
I0409 06:45:15.913321  9753 net.cpp:395] conv2_relu -> conv2 (in-place)
I0409 06:45:15.914247  9753 net.cpp:150] Setting up conv2_relu
I0409 06:45:15.914263  9753 net.cpp:157] Top shape: 1024 150 18 18 (49766400)
I0409 06:45:15.914268  9753 net.cpp:165] Memory required for data: 2052149248
I0409 06:45:15.914270  9753 layer_factory.hpp:77] Creating layer pool2
I0409 06:45:15.914278  9753 net.cpp:100] Creating Layer pool2
I0409 06:45:15.914281  9753 net.cpp:434] pool2 <- conv2
I0409 06:45:15.914289  9753 net.cpp:408] pool2 -> pool2
I0409 06:45:15.914338  9753 net.cpp:150] Setting up pool2
I0409 06:45:15.914350  9753 net.cpp:157] Top shape: 1024 150 9 9 (12441600)
I0409 06:45:15.914352  9753 net.cpp:165] Memory required for data: 2101915648
I0409 06:45:15.914356  9753 layer_factory.hpp:77] Creating layer conv3
I0409 06:45:15.914364  9753 net.cpp:100] Creating Layer conv3
I0409 06:45:15.914371  9753 net.cpp:434] conv3 <- pool2
I0409 06:45:15.914377  9753 net.cpp:408] conv3 -> conv3
I0409 06:45:15.921085  9753 net.cpp:150] Setting up conv3
I0409 06:45:15.921103  9753 net.cpp:157] Top shape: 1024 250 6 6 (9216000)
I0409 06:45:15.921108  9753 net.cpp:165] Memory required for data: 2138779648
I0409 06:45:15.921116  9753 layer_factory.hpp:77] Creating layer conv3_relu
I0409 06:45:15.921128  9753 net.cpp:100] Creating Layer conv3_relu
I0409 06:45:15.921131  9753 net.cpp:434] conv3_relu <- conv3
I0409 06:45:15.921136  9753 net.cpp:395] conv3_relu -> conv3 (in-place)
I0409 06:45:15.922107  9753 net.cpp:150] Setting up conv3_relu
I0409 06:45:15.922124  9753 net.cpp:157] Top shape: 1024 250 6 6 (9216000)
I0409 06:45:15.922128  9753 net.cpp:165] Memory required for data: 2175643648
I0409 06:45:15.922132  9753 layer_factory.hpp:77] Creating layer pool3
I0409 06:45:15.922139  9753 net.cpp:100] Creating Layer pool3
I0409 06:45:15.922143  9753 net.cpp:434] pool3 <- conv3
I0409 06:45:15.922148  9753 net.cpp:408] pool3 -> pool3
I0409 06:45:15.922232  9753 net.cpp:150] Setting up pool3
I0409 06:45:15.922242  9753 net.cpp:157] Top shape: 1024 250 3 3 (2304000)
I0409 06:45:15.922245  9753 net.cpp:165] Memory required for data: 2184859648
I0409 06:45:15.922250  9753 layer_factory.hpp:77] Creating layer fc4_300
I0409 06:45:15.922260  9753 net.cpp:100] Creating Layer fc4_300
I0409 06:45:15.922266  9753 net.cpp:434] fc4_300 <- pool3
I0409 06:45:15.922271  9753 net.cpp:408] fc4_300 -> fc4_300
I0409 06:45:15.934222  9753 net.cpp:150] Setting up fc4_300
I0409 06:45:15.934240  9753 net.cpp:157] Top shape: 1024 300 (307200)
I0409 06:45:15.934244  9753 net.cpp:165] Memory required for data: 2186088448
I0409 06:45:15.934252  9753 layer_factory.hpp:77] Creating layer fc4_relu
I0409 06:45:15.934260  9753 net.cpp:100] Creating Layer fc4_relu
I0409 06:45:15.934264  9753 net.cpp:434] fc4_relu <- fc4_300
I0409 06:45:15.934270  9753 net.cpp:395] fc4_relu -> fc4_300 (in-place)
I0409 06:45:15.934478  9753 net.cpp:150] Setting up fc4_relu
I0409 06:45:15.934490  9753 net.cpp:157] Top shape: 1024 300 (307200)
I0409 06:45:15.934494  9753 net.cpp:165] Memory required for data: 2187317248
I0409 06:45:15.934499  9753 layer_factory.hpp:77] Creating layer drop4
I0409 06:45:15.934507  9753 net.cpp:100] Creating Layer drop4
I0409 06:45:15.934514  9753 net.cpp:434] drop4 <- fc4_300
I0409 06:45:15.934520  9753 net.cpp:395] drop4 -> fc4_300 (in-place)
I0409 06:45:15.934554  9753 net.cpp:150] Setting up drop4
I0409 06:45:15.934562  9753 net.cpp:157] Top shape: 1024 300 (307200)
I0409 06:45:15.934566  9753 net.cpp:165] Memory required for data: 2188546048
I0409 06:45:15.934569  9753 layer_factory.hpp:77] Creating layer fc5_67
I0409 06:45:15.934576  9753 net.cpp:100] Creating Layer fc5_67
I0409 06:45:15.934579  9753 net.cpp:434] fc5_67 <- fc4_300
I0409 06:45:15.934587  9753 net.cpp:408] fc5_67 -> fc5_classes
I0409 06:45:15.936700  9753 net.cpp:150] Setting up fc5_67
I0409 06:45:15.936715  9753 net.cpp:157] Top shape: 1024 67 (68608)
I0409 06:45:15.936731  9753 net.cpp:165] Memory required for data: 2188820480
I0409 06:45:15.936741  9753 layer_factory.hpp:77] Creating layer loss
I0409 06:45:15.936751  9753 net.cpp:100] Creating Layer loss
I0409 06:45:15.936755  9753 net.cpp:434] loss <- fc5_classes
I0409 06:45:15.936760  9753 net.cpp:434] loss <- label
I0409 06:45:15.936766  9753 net.cpp:408] loss -> loss
I0409 06:45:15.936779  9753 layer_factory.hpp:77] Creating layer loss
…
I0409 06:45:15.937449  9753 solver.cpp:193] Creating test net (#0) specified by test_net file: ./Prototxt/experiment_6/rtsd-r1/orig/trial_4/test.prototxt
I0409 06:45:15.937593  9753 net.cpp:58] Initializing net from parameters: 
state {
  phase: TEST
}
layer {
  name: "data"
  type: "Data"
  top: "data"
  top: "label"
  include {
    phase: TEST
  }
  transform_param {
    mirror: false
    crop_size: 48
    mean_value: 113
    mean_value: 110
    mean_value: 132
  }
  data_param {
    source: "../local_data/lmdb/rtsd-r1/orig/test/lmdb"
    batch_size: 1024
    backend: LMDB
  }
}
layer {
  name: "conv1"
  type: "Convolution"
  bottom: "data"
  top: "conv1"
  convolution_param {
    num_output: 100
    pad: 0
    kernel_size: 7
    group: 1
    stride: 1
    weight_filler {
      type: "xavier"
    }
  }
}
layer {
  name: "conv1_relu"
  type: "ReLU"
  bottom: "conv1"
  top: "conv1"
}
layer {
  name: "pool1"
  type: "Pooling"
  bottom: "conv1"
  top: "pool1"
  pooling_param {
    pool: MAX
    kernel_size: 2
    stride: 2
  }
}
layer {
  name: "conv2"
  type: "Convolution"
  bottom: "pool1"
  top: "conv2"
  convolution_param {
    num_output: 150
    pad: 0
    kernel_size: 4
    group: 1
    stride: 1
    weight_filler {
      type: "xavier"
    }
  }
}
layer {
  name: "conv2_relu"
  type: "ReLU"
  bottom: "conv2"
  top: "conv2"
}
layer {
  name: "pool2"
  type: "Pooling"
  bottom: "conv2"
  top: "pool2"
  pooling_param {
    pool: MAX
    kernel_size: 2
    stride: 2
  }
}
layer {
  name: "conv3"
  type: "Convolution"
  bottom: "pool2"
  top: "conv3"
  convolution_param {
    num_output: 250
    pad: 0
    kernel_size: 4
    group: 1
    stride: 1
    weight_filler {
      type: "xavier"
    }
  }
}
layer {
  name: "conv3_relu"
  type: "ReLU"
  bottom: "conv3"
  top: "conv3"
}
layer {
  name: "pool3"
  type: "Pooling"
  bottom: "conv3"
  top: "pool3"
  pooling_param {
    pool: MAX
    kernel_size: 2
    stride: 2
  }
}
layer {
  name: "fc4_300"
  type: "InnerProduct"
  bottom: "pool3"
  top: "fc4_300"
  inner_product_param {
    num_output: 300
    weight_filler {
      type: "xavier"
    }
  }
}
layer {
  name: "fc4_relu"
  type: "ReLU"
  bottom: "fc4_300"
  top: "fc4_300"
}
layer {
  name: "drop4"
  type: "Dropout"
  bottom: "fc4_300"
  top: "fc4_300"
  dropout_param {
    dropout_ratio: 0.4
  }
}
layer {
  name: "fc5_67"
  type: "InnerProduct"
  bottom: "fc4_300"
  top: "fc5_classes"
  inner_product_param {
    num_output: 67
    weight_filler {
      type: "xavier"
    }
  }
}
layer {
  name: "loss"
  type: "SoftmaxWithLoss"
  bottom: "fc5_classes"
  bottom: "label"
  top: "loss"
}
layer {
  name: "accuracy_1"
  type: "Accuracy"
  bottom: "fc5_classes"
  bottom: "label"
  top: "accuracy_1"
  include {
    phase: TEST
  }
  accuracy_param {
    top_k: 1
  }
}
layer {
  name: "accuracy_5"
  type: "Accuracy"
  bottom: "fc5_classes"
  bottom: "label"
  top: "accuracy_5"
  include {
    phase: TEST
  }
  accuracy_param {
    top_k: 5
  }
}
I0409 06:45:15.937686  9753 layer_factory.hpp:77] Creating layer data
I0409 06:45:15.938361  9753 net.cpp:100] Creating Layer data
I0409 06:45:15.938382  9753 net.cpp:408] data -> data
I0409 06:45:15.938393  9753 net.cpp:408] data -> label
I0409 06:45:15.939841  9820 db_lmdb.cpp:35] Opened lmdb ../local_data/lmdb/rtsd-r1/orig/test/lmdb
I0409 06:45:15.940102  9753 data_layer.cpp:41] output data size: 1024,3,48,48
I0409 06:45:15.980351  9753 net.cpp:150] Setting up data
I0409 06:45:15.980381  9753 net.cpp:157] Top shape: 1024 3 48 48 (7077888)
I0409 06:45:15.980387  9753 net.cpp:157] Top shape: 1024 (1024)
I0409 06:45:15.980391  9753 net.cpp:165] Memory required for data: 28315648
I0409 06:45:15.980396  9753 layer_factory.hpp:77] Creating layer label_data_1_split
I0409 06:45:15.980410  9753 net.cpp:100] Creating Layer label_data_1_split
I0409 06:45:15.980415  9753 net.cpp:434] label_data_1_split <- label
I0409 06:45:15.980443  9753 net.cpp:408] label_data_1_split -> label_data_1_split_0
I0409 06:45:15.980454  9753 net.cpp:408] label_data_1_split -> label_data_1_split_1
I0409 06:45:15.980465  9753 net.cpp:408] label_data_1_split -> label_data_1_split_2
I0409 06:45:15.980649  9753 net.cpp:150] Setting up label_data_1_split
I0409 06:45:15.980660  9753 net.cpp:157] Top shape: 1024 (1024)
I0409 06:45:15.980664  9753 net.cpp:157] Top shape: 1024 (1024)
I0409 06:45:15.980669  9753 net.cpp:157] Top shape: 1024 (1024)
I0409 06:45:15.980671  9753 net.cpp:165] Memory required for data: 28327936
I0409 06:45:15.980675  9753 layer_factory.hpp:77] Creating layer conv1
I0409 06:45:15.980689  9753 net.cpp:100] Creating Layer conv1
I0409 06:45:15.980695  9753 net.cpp:434] conv1 <- data
I0409 06:45:15.980701  9753 net.cpp:408] conv1 -> conv1
I0409 06:45:15.982578  9753 net.cpp:150] Setting up conv1
I0409 06:45:15.982596  9753 net.cpp:157] Top shape: 1024 100 42 42 (180633600)
I0409 06:45:15.982600  9753 net.cpp:165] Memory required for data: 750862336
I0409 06:45:15.982612  9753 layer_factory.hpp:77] Creating layer conv1_relu
I0409 06:45:15.982620  9753 net.cpp:100] Creating Layer conv1_relu
I0409 06:45:15.982623  9753 net.cpp:434] conv1_relu <- conv1
I0409 06:45:15.982628  9753 net.cpp:395] conv1_relu -> conv1 (in-place)
I0409 06:45:15.985183  9753 net.cpp:150] Setting up conv1_relu
I0409 06:45:15.985198  9753 net.cpp:157] Top shape: 1024 100 42 42 (180633600)
I0409 06:45:15.985201  9753 net.cpp:165] Memory required for data: 1473396736
I0409 06:45:15.985205  9753 layer_factory.hpp:77] Creating layer pool1
I0409 06:45:15.985215  9753 net.cpp:100] Creating Layer pool1
I0409 06:45:15.985220  9753 net.cpp:434] pool1 <- conv1
I0409 06:45:15.985229  9753 net.cpp:408] pool1 -> pool1
I0409 06:45:15.985293  9753 net.cpp:150] Setting up pool1
I0409 06:45:15.985306  9753 net.cpp:157] Top shape: 1024 100 21 21 (45158400)
I0409 06:45:15.985316  9753 net.cpp:165] Memory required for data: 1654030336
I0409 06:45:15.985318  9753 layer_factory.hpp:77] Creating layer conv2
I0409 06:45:15.985328  9753 net.cpp:100] Creating Layer conv2
I0409 06:45:15.985332  9753 net.cpp:434] conv2 <- pool1
I0409 06:45:15.985340  9753 net.cpp:408] conv2 -> conv2
I0409 06:45:15.989331  9753 net.cpp:150] Setting up conv2
I0409 06:45:15.989349  9753 net.cpp:157] Top shape: 1024 150 18 18 (49766400)
I0409 06:45:15.989358  9753 net.cpp:165] Memory required for data: 1853095936
I0409 06:45:15.989370  9753 layer_factory.hpp:77] Creating layer conv2_relu
I0409 06:45:15.989378  9753 net.cpp:100] Creating Layer conv2_relu
I0409 06:45:15.989382  9753 net.cpp:434] conv2_relu <- conv2
I0409 06:45:15.989389  9753 net.cpp:395] conv2_relu -> conv2 (in-place)
I0409 06:45:15.990195  9753 net.cpp:150] Setting up conv2_relu
I0409 06:45:15.990211  9753 net.cpp:157] Top shape: 1024 150 18 18 (49766400)
I0409 06:45:15.990214  9753 net.cpp:165] Memory required for data: 2052161536
I0409 06:45:15.990218  9753 layer_factory.hpp:77] Creating layer pool2
I0409 06:45:15.990226  9753 net.cpp:100] Creating Layer pool2
I0409 06:45:15.990231  9753 net.cpp:434] pool2 <- conv2
I0409 06:45:15.990238  9753 net.cpp:408] pool2 -> pool2
I0409 06:45:15.990295  9753 net.cpp:150] Setting up pool2
I0409 06:45:15.990305  9753 net.cpp:157] Top shape: 1024 150 9 9 (12441600)
I0409 06:45:15.990314  9753 net.cpp:165] Memory required for data: 2101927936
I0409 06:45:15.990317  9753 layer_factory.hpp:77] Creating layer conv3
I0409 06:45:15.990339  9753 net.cpp:100] Creating Layer conv3
I0409 06:45:15.990346  9753 net.cpp:434] conv3 <- pool2
I0409 06:45:15.990353  9753 net.cpp:408] conv3 -> conv3
I0409 06:45:15.996021  9753 net.cpp:150] Setting up conv3
I0409 06:45:15.996038  9753 net.cpp:157] Top shape: 1024 250 6 6 (9216000)
I0409 06:45:15.996043  9753 net.cpp:165] Memory required for data: 2138791936
I0409 06:45:15.996057  9753 layer_factory.hpp:77] Creating layer conv3_relu
I0409 06:45:15.996064  9753 net.cpp:100] Creating Layer conv3_relu
I0409 06:45:15.996068  9753 net.cpp:434] conv3_relu <- conv3
I0409 06:45:15.996080  9753 net.cpp:395] conv3_relu -> conv3 (in-place)
I0409 06:45:15.996892  9753 net.cpp:150] Setting up conv3_relu
I0409 06:45:15.996908  9753 net.cpp:157] Top shape: 1024 250 6 6 (9216000)
I0409 06:45:15.996925  9753 net.cpp:165] Memory required for data: 2175655936
I0409 06:45:15.996948  9753 layer_factory.hpp:77] Creating layer pool3
I0409 06:45:15.996958  9753 net.cpp:100] Creating Layer pool3
I0409 06:45:15.996963  9753 net.cpp:434] pool3 <- conv3
I0409 06:45:15.996968  9753 net.cpp:408] pool3 -> pool3
I0409 06:45:15.997025  9753 net.cpp:150] Setting up pool3
I0409 06:45:15.997035  9753 net.cpp:157] Top shape: 1024 250 3 3 (2304000)
I0409 06:45:15.997038  9753 net.cpp:165] Memory required for data: 2184871936
I0409 06:45:15.997041  9753 layer_factory.hpp:77] Creating layer fc4_300
I0409 06:45:15.997051  9753 net.cpp:100] Creating Layer fc4_300
I0409 06:45:15.997053  9753 net.cpp:434] fc4_300 <- pool3
I0409 06:45:15.997061  9753 net.cpp:408] fc4_300 -> fc4_300
I0409 06:45:16.002333  9753 net.cpp:150] Setting up fc4_300
I0409 06:45:16.002362  9753 net.cpp:157] Top shape: 1024 300 (307200)
I0409 06:45:16.002367  9753 net.cpp:165] Memory required for data: 2186100736
I0409 06:45:16.002374  9753 layer_factory.hpp:77] Creating layer fc4_relu
I0409 06:45:16.002382  9753 net.cpp:100] Creating Layer fc4_relu
I0409 06:45:16.002388  9753 net.cpp:434] fc4_relu <- fc4_300
I0409 06:45:16.002393  9753 net.cpp:395] fc4_relu -> fc4_300 (in-place)
I0409 06:45:16.002600  9753 net.cpp:150] Setting up fc4_relu
I0409 06:45:16.002612  9753 net.cpp:157] Top shape: 1024 300 (307200)
I0409 06:45:16.002616  9753 net.cpp:165] Memory required for data: 2187329536
I0409 06:45:16.002620  9753 layer_factory.hpp:77] Creating layer drop4
I0409 06:45:16.002629  9753 net.cpp:100] Creating Layer drop4
I0409 06:45:16.002632  9753 net.cpp:434] drop4 <- fc4_300
I0409 06:45:16.002638  9753 net.cpp:395] drop4 -> fc4_300 (in-place)
I0409 06:45:16.002670  9753 net.cpp:150] Setting up drop4
I0409 06:45:16.002678  9753 net.cpp:157] Top shape: 1024 300 (307200)
I0409 06:45:16.002681  9753 net.cpp:165] Memory required for data: 2188558336
I0409 06:45:16.002684  9753 layer_factory.hpp:77] Creating layer fc5_67
I0409 06:45:16.002696  9753 net.cpp:100] Creating Layer fc5_67
I0409 06:45:16.002701  9753 net.cpp:434] fc5_67 <- fc4_300
I0409 06:45:16.002707  9753 net.cpp:408] fc5_67 -> fc5_classes
I0409 06:45:16.002965  9753 net.cpp:150] Setting up fc5_67
I0409 06:45:16.002975  9753 net.cpp:157] Top shape: 1024 67 (68608)
I0409 06:45:16.002979  9753 net.cpp:165] Memory required for data: 2188832768
I0409 06:45:16.002990  9753 layer_factory.hpp:77] Creating layer fc5_classes_fc5_67_0_split
I0409 06:45:16.003000  9753 net.cpp:100] Creating Layer fc5_classes_fc5_67_0_split
I0409 06:45:16.003006  9753 net.cpp:434] fc5_classes_fc5_67_0_split <- fc5_classes
I0409 06:45:16.003011  9753 net.cpp:408] fc5_classes_fc5_67_0_split -> fc5_classes_fc5_67_0_split_0
I0409 06:45:16.003021  9753 net.cpp:408] fc5_classes_fc5_67_0_split -> fc5_classes_fc5_67_0_split_1
I0409 06:45:16.003029  9753 net.cpp:408] fc5_classes_fc5_67_0_split -> fc5_classes_fc5_67_0_split_2
I0409 06:45:16.003087  9753 net.cpp:150] Setting up fc5_classes_fc5_67_0_split
I0409 06:45:16.003094  9753 net.cpp:157] Top shape: 1024 67 (68608)
I0409 06:45:16.003098  9753 net.cpp:157] Top shape: 1024 67 (68608)
I0409 06:45:16.003103  9753 net.cpp:157] Top shape: 1024 67 (68608)
I0409 06:45:16.003105  9753 net.cpp:165] Memory required for data: 2189656064
I0409 06:45:16.003108  9753 layer_factory.hpp:77] Creating layer loss
I0409 06:45:16.003118  9753 net.cpp:100] Creating Layer loss
I0409 06:45:16.003123  9753 net.cpp:434] loss <- fc5_classes_fc5_67_0_split_0
I0409 06:45:16.003129  9753 net.cpp:434] loss <- label_data_1_split_0
I0409 06:45:16.003134  9753 net.cpp:408] loss -> loss
…
