…
I0528 07:35:12.440788 21993 solver.cpp:81] Creating training net from train_net file: ./Prototxt/experiment_21/RTSD/orig/trial_1/train.prototxt
I0528 07:35:12.441192 21993 net.cpp:58] Initializing net from parameters: 
state {
  phase: TRAIN
  level: 0
  stage: ""
}
layer {
  name: "data"
  type: "Data"
  top: "data"
  top: "label"
  include {
    phase: TRAIN
  }
  transform_param {
    scale: 0.0039215689
    mirror: false
    crop_size: 48
    mean_value: 119
    mean_value: 113
    mean_value: 113
  }
  data_param {
    source: "../local_data/lmdb/RTSD/orig/train/lmdb"
    batch_size: 1024
    backend: LMDB
  }
}
layer {
  name: "conv1"
  type: "Convolution"
  bottom: "data"
  top: "conv1"
  convolution_param {
    num_output: 100
    pad: 0
    kernel_size: 7
    group: 1
    stride: 1
    weight_filler {
      type: "xavier"
    }
  }
}
layer {
  name: "conv1_relu"
  type: "ReLU"
  bottom: "conv1"
  top: "conv1"
}
layer {
  name: "pool1"
  type: "Pooling"
  bottom: "conv1"
  top: "pool1"
  pooling_param {
    pool: MAX
    kernel_size: 2
    stride: 2
  }
}
layer {
  name: "conv2"
  type: "Convolution"
  bottom: "pool1"
  top: "conv2"
  convolution_param {
    num_output: 150
    pad: 0
    kernel_size: 4
    group: 1
    stride: 1
    weight_filler {
      type: "xavier"
    }
  }
}
layer {
  name: "conv2_relu"
  type: "ReLU"
  bottom: "conv2"
  top: "conv2"
}
layer {
  name: "pool2"
  type: "Pooling"
  bottom: "conv2"
  top: "pool2"
  pooling_param {
    pool: MAX
    kernel_size: 2
    stride: 2
  }
}
layer {
  name: "conv3"
  type: "Convolution"
  bottom: "pool2"
  top: "conv3"
  convolution_param {
    num_output: 250
    pad: 0
    kernel_size: 4
    group: 1
    stride: 1
    weight_filler {
      type: "xavier"
    }
  }
}
layer {
  name: "conv3_relu"
  type: "ReLU"
  bottom: "conv3"
  top: "conv3"
}
layer {
  name: "pool3"
  type: "Pooling"
  bottom: "conv3"
  top: "pool3"
  pooling_param {
    pool: MAX
    kernel_size: 2
    stride: 2
  }
}
layer {
  name: "fc4_300"
  type: "InnerProduct"
  bottom: "pool3"
  top: "fc4_300"
  inner_product_param {
    num_output: 300
    weight_filler {
      type: "xavier"
    }
  }
}
layer {
  name: "fc4_relu"
  type: "ReLU"
  bottom: "fc4_300"
  top: "fc4_300"
}
layer {
  name: "fc5_116"
  type: "InnerProduct"
  bottom: "fc4_300"
  top: "fc5_classes"
  inner_product_param {
    num_output: 116
    weight_filler {
      type: "xavier"
    }
  }
}
layer {
  name: "softmax"
  type: "Softmax"
  bottom: "fc5_classes"
  top: "softmax"
}
layer {
  name: "loss"
  type: "MultinomialLogisticLoss"
  bottom: "softmax"
  bottom: "label"
  top: "loss"
}
layer {
  name: "accuracy_1"
  type: "Accuracy"
  bottom: "fc5_classes"
  bottom: "label"
  top: "accuracy_1"
  accuracy_param {
    top_k: 1
  }
}
layer {
  name: "accuracy_5"
  type: "Accuracy"
  bottom: "fc5_classes"
  bottom: "label"
  top: "accuracy_5"
  accuracy_param {
    top_k: 5
  }
}
layer {
  name: "silence"
  type: "Silence"
  bottom: "accuracy_1"
  bottom: "accuracy_5"
}
I0528 07:35:12.441314 21993 layer_factory.hpp:77] Creating layer data
I0528 07:35:12.442322 21993 net.cpp:100] Creating Layer data
I0528 07:35:12.442364 21993 net.cpp:408] data -> data
I0528 07:35:12.442407 21993 net.cpp:408] data -> label
I0528 07:35:12.443214 22042 db_lmdb.cpp:35] Opened lmdb ../local_data/lmdb/RTSD/orig/train/lmdb
I0528 07:35:12.464624 21993 data_layer.cpp:41] output data size: 1024,3,48,48
I0528 07:35:12.556983 21993 net.cpp:150] Setting up data
I0528 07:35:12.557044 21993 net.cpp:157] Top shape: 1024 3 48 48 (7077888)
I0528 07:35:12.557051 21993 net.cpp:157] Top shape: 1024 (1024)
I0528 07:35:12.557055 21993 net.cpp:165] Memory required for data: 28315648
I0528 07:35:12.557065 21993 layer_factory.hpp:77] Creating layer label_data_1_split
I0528 07:35:12.557077 21993 net.cpp:100] Creating Layer label_data_1_split
I0528 07:35:12.557085 21993 net.cpp:434] label_data_1_split <- label
I0528 07:35:12.557096 21993 net.cpp:408] label_data_1_split -> label_data_1_split_0
I0528 07:35:12.557106 21993 net.cpp:408] label_data_1_split -> label_data_1_split_1
I0528 07:35:12.557112 21993 net.cpp:408] label_data_1_split -> label_data_1_split_2
I0528 07:35:12.557201 21993 net.cpp:150] Setting up label_data_1_split
I0528 07:35:12.557212 21993 net.cpp:157] Top shape: 1024 (1024)
I0528 07:35:12.557217 21993 net.cpp:157] Top shape: 1024 (1024)
I0528 07:35:12.557222 21993 net.cpp:157] Top shape: 1024 (1024)
I0528 07:35:12.557226 21993 net.cpp:165] Memory required for data: 28327936
I0528 07:35:12.557230 21993 layer_factory.hpp:77] Creating layer conv1
I0528 07:35:12.557245 21993 net.cpp:100] Creating Layer conv1
I0528 07:35:12.557250 21993 net.cpp:434] conv1 <- data
I0528 07:35:12.557256 21993 net.cpp:408] conv1 -> conv1
I0528 07:35:14.260663 21993 net.cpp:150] Setting up conv1
I0528 07:35:14.260704 21993 net.cpp:157] Top shape: 1024 100 42 42 (180633600)
I0528 07:35:14.260711 21993 net.cpp:165] Memory required for data: 750862336
I0528 07:35:14.260727 21993 layer_factory.hpp:77] Creating layer conv1_relu
I0528 07:35:14.260738 21993 net.cpp:100] Creating Layer conv1_relu
I0528 07:35:14.260746 21993 net.cpp:434] conv1_relu <- conv1
I0528 07:35:14.260751 21993 net.cpp:395] conv1_relu -> conv1 (in-place)
I0528 07:35:14.260890 21993 net.cpp:150] Setting up conv1_relu
I0528 07:35:14.260900 21993 net.cpp:157] Top shape: 1024 100 42 42 (180633600)
I0528 07:35:14.260905 21993 net.cpp:165] Memory required for data: 1473396736
I0528 07:35:14.260908 21993 layer_factory.hpp:77] Creating layer pool1
I0528 07:35:14.260920 21993 net.cpp:100] Creating Layer pool1
I0528 07:35:14.260926 21993 net.cpp:434] pool1 <- conv1
I0528 07:35:14.260933 21993 net.cpp:408] pool1 -> pool1
I0528 07:35:14.260972 21993 net.cpp:150] Setting up pool1
I0528 07:35:14.260980 21993 net.cpp:157] Top shape: 1024 100 21 21 (45158400)
I0528 07:35:14.260983 21993 net.cpp:165] Memory required for data: 1654030336
I0528 07:35:14.260987 21993 layer_factory.hpp:77] Creating layer conv2
I0528 07:35:14.260998 21993 net.cpp:100] Creating Layer conv2
I0528 07:35:14.261003 21993 net.cpp:434] conv2 <- pool1
I0528 07:35:14.261008 21993 net.cpp:408] conv2 -> conv2
I0528 07:35:14.263801 21993 net.cpp:150] Setting up conv2
I0528 07:35:14.263816 21993 net.cpp:157] Top shape: 1024 150 18 18 (49766400)
I0528 07:35:14.263821 21993 net.cpp:165] Memory required for data: 1853095936
I0528 07:35:14.263829 21993 layer_factory.hpp:77] Creating layer conv2_relu
I0528 07:35:14.263836 21993 net.cpp:100] Creating Layer conv2_relu
I0528 07:35:14.263840 21993 net.cpp:434] conv2_relu <- conv2
I0528 07:35:14.263845 21993 net.cpp:395] conv2_relu -> conv2 (in-place)
I0528 07:35:14.263967 21993 net.cpp:150] Setting up conv2_relu
I0528 07:35:14.263978 21993 net.cpp:157] Top shape: 1024 150 18 18 (49766400)
I0528 07:35:14.263981 21993 net.cpp:165] Memory required for data: 2052161536
I0528 07:35:14.263986 21993 layer_factory.hpp:77] Creating layer pool2
I0528 07:35:14.263993 21993 net.cpp:100] Creating Layer pool2
I0528 07:35:14.263998 21993 net.cpp:434] pool2 <- conv2
I0528 07:35:14.264003 21993 net.cpp:408] pool2 -> pool2
I0528 07:35:14.264034 21993 net.cpp:150] Setting up pool2
I0528 07:35:14.264042 21993 net.cpp:157] Top shape: 1024 150 9 9 (12441600)
I0528 07:35:14.264046 21993 net.cpp:165] Memory required for data: 2101927936
I0528 07:35:14.264050 21993 layer_factory.hpp:77] Creating layer conv3
I0528 07:35:14.264058 21993 net.cpp:100] Creating Layer conv3
I0528 07:35:14.264062 21993 net.cpp:434] conv3 <- pool2
I0528 07:35:14.264067 21993 net.cpp:408] conv3 -> conv3
I0528 07:35:14.268573 21993 net.cpp:150] Setting up conv3
I0528 07:35:14.268601 21993 net.cpp:157] Top shape: 1024 250 6 6 (9216000)
I0528 07:35:14.268606 21993 net.cpp:165] Memory required for data: 2138791936
I0528 07:35:14.268622 21993 layer_factory.hpp:77] Creating layer conv3_relu
I0528 07:35:14.268628 21993 net.cpp:100] Creating Layer conv3_relu
I0528 07:35:14.268632 21993 net.cpp:434] conv3_relu <- conv3
I0528 07:35:14.268637 21993 net.cpp:395] conv3_relu -> conv3 (in-place)
I0528 07:35:14.269026 21993 net.cpp:150] Setting up conv3_relu
I0528 07:35:14.269047 21993 net.cpp:157] Top shape: 1024 250 6 6 (9216000)
I0528 07:35:14.269052 21993 net.cpp:165] Memory required for data: 2175655936
I0528 07:35:14.269055 21993 layer_factory.hpp:77] Creating layer pool3
I0528 07:35:14.269062 21993 net.cpp:100] Creating Layer pool3
I0528 07:35:14.269065 21993 net.cpp:434] pool3 <- conv3
I0528 07:35:14.269071 21993 net.cpp:408] pool3 -> pool3
I0528 07:35:14.269112 21993 net.cpp:150] Setting up pool3
I0528 07:35:14.269120 21993 net.cpp:157] Top shape: 1024 250 3 3 (2304000)
I0528 07:35:14.269124 21993 net.cpp:165] Memory required for data: 2184871936
I0528 07:35:14.269129 21993 layer_factory.hpp:77] Creating layer fc4_300
I0528 07:35:14.269135 21993 net.cpp:100] Creating Layer fc4_300
I0528 07:35:14.269146 21993 net.cpp:434] fc4_300 <- pool3
I0528 07:35:14.269151 21993 net.cpp:408] fc4_300 -> fc4_300
I0528 07:35:14.273514 21993 net.cpp:150] Setting up fc4_300
I0528 07:35:14.273546 21993 net.cpp:157] Top shape: 1024 300 (307200)
I0528 07:35:14.273551 21993 net.cpp:165] Memory required for data: 2186100736
I0528 07:35:14.273560 21993 layer_factory.hpp:77] Creating layer fc4_relu
I0528 07:35:14.273583 21993 net.cpp:100] Creating Layer fc4_relu
I0528 07:35:14.273588 21993 net.cpp:434] fc4_relu <- fc4_300
I0528 07:35:14.273594 21993 net.cpp:395] fc4_relu -> fc4_300 (in-place)
I0528 07:35:14.273761 21993 net.cpp:150] Setting up fc4_relu
I0528 07:35:14.273772 21993 net.cpp:157] Top shape: 1024 300 (307200)
I0528 07:35:14.273775 21993 net.cpp:165] Memory required for data: 2187329536
I0528 07:35:14.273779 21993 layer_factory.hpp:77] Creating layer fc5_116
I0528 07:35:14.273787 21993 net.cpp:100] Creating Layer fc5_116
I0528 07:35:14.273790 21993 net.cpp:434] fc5_116 <- fc4_300
I0528 07:35:14.273795 21993 net.cpp:408] fc5_116 -> fc5_classes
I0528 07:35:14.274772 21993 net.cpp:150] Setting up fc5_116
I0528 07:35:14.274794 21993 net.cpp:157] Top shape: 1024 116 (118784)
I0528 07:35:14.274798 21993 net.cpp:165] Memory required for data: 2187804672
I0528 07:35:14.274816 21993 layer_factory.hpp:77] Creating layer fc5_classes_fc5_116_0_split
I0528 07:35:14.274822 21993 net.cpp:100] Creating Layer fc5_classes_fc5_116_0_split
I0528 07:35:14.274827 21993 net.cpp:434] fc5_classes_fc5_116_0_split <- fc5_classes
I0528 07:35:14.274832 21993 net.cpp:408] fc5_classes_fc5_116_0_split -> fc5_classes_fc5_116_0_split_0
I0528 07:35:14.274838 21993 net.cpp:408] fc5_classes_fc5_116_0_split -> fc5_classes_fc5_116_0_split_1
I0528 07:35:14.274844 21993 net.cpp:408] fc5_classes_fc5_116_0_split -> fc5_classes_fc5_116_0_split_2
I0528 07:35:14.274881 21993 net.cpp:150] Setting up fc5_classes_fc5_116_0_split
I0528 07:35:14.274889 21993 net.cpp:157] Top shape: 1024 116 (118784)
I0528 07:35:14.274893 21993 net.cpp:157] Top shape: 1024 116 (118784)
I0528 07:35:14.274897 21993 net.cpp:157] Top shape: 1024 116 (118784)
I0528 07:35:14.274900 21993 net.cpp:165] Memory required for data: 2189230080
I0528 07:35:14.274904 21993 layer_factory.hpp:77] Creating layer softmax
I0528 07:35:14.274910 21993 net.cpp:100] Creating Layer softmax
I0528 07:35:14.274914 21993 net.cpp:434] softmax <- fc5_classes_fc5_116_0_split_0
I0528 07:35:14.274919 21993 net.cpp:408] softmax -> softmax
I0528 07:35:14.275099 21993 net.cpp:150] Setting up softmax
I0528 07:35:14.275110 21993 net.cpp:157] Top shape: 1024 116 (118784)
I0528 07:35:14.275113 21993 net.cpp:165] Memory required for data: 2189705216
I0528 07:35:14.275117 21993 layer_factory.hpp:77] Creating layer loss
I0528 07:35:14.275125 21993 net.cpp:100] Creating Layer loss
I0528 07:35:14.275151 21993 net.cpp:434] loss <- softmax
I0528 07:35:14.275156 21993 net.cpp:434] loss <- label_data_1_split_0
I0528 07:35:14.275161 21993 net.cpp:408] loss -> loss
…
