…
I0402 14:23:02.139461 28358 net.cpp:322] The NetState phase (0) differed from the phase (1) specified by a rule in layer accuracy_5
I0402 14:23:02.139560 28358 net.cpp:58] Initializing net from parameters: 
state {
  phase: TRAIN
  level: 0
  stage: ""
}
layer {
  name: "data"
  type: "Data"
  top: "data"
  top: "label"
  include {
    phase: TRAIN
  }
  transform_param {
    mirror: false
    crop_size: 48
    mean_value: 122
    mean_value: 115
    mean_value: 129
  }
  data_param {
    source: "../local_data/lmdb/rtsd-r1/orig/train/lmdb"
    batch_size: 1024
    backend: LMDB
  }
}
layer {
  name: "conv1"
  type: "Convolution"
  bottom: "data"
  top: "conv1"
  convolution_param {
    num_output: 100
    pad: 0
    kernel_size: 7
    group: 1
    stride: 1
    weight_filler {
      type: "xavier"
    }
  }
}
layer {
  name: "conv1_relu"
  type: "ReLU"
  bottom: "conv1"
  top: "conv1"
}
layer {
  name: "pool1"
  type: "Pooling"
  bottom: "conv1"
  top: "pool1"
  pooling_param {
    pool: MAX
    kernel_size: 2
    stride: 2
  }
}
layer {
  name: "conv2"
  type: "Convolution"
  bottom: "pool1"
  top: "conv2"
  convolution_param {
    num_output: 150
    pad: 0
    kernel_size: 4
    group: 1
    stride: 1
    weight_filler {
      type: "xavier"
    }
  }
}
layer {
  name: "conv2_relu"
  type: "ReLU"
  bottom: "conv2"
  top: "conv2"
}
layer {
  name: "pool2"
  type: "Pooling"
  bottom: "conv2"
  top: "pool2"
  pooling_param {
    pool: MAX
    kernel_size: 2
    stride: 2
  }
}
layer {
  name: "conv3"
  type: "Convolution"
  bottom: "pool2"
  top: "conv3"
  convolution_param {
    num_output: 250
    pad: 0
    kernel_size: 4
    group: 1
    stride: 1
    weight_filler {
      type: "xavier"
    }
  }
}
layer {
  name: "conv3_relu"
  type: "ReLU"
  bottom: "conv3"
  top: "conv3"
}
layer {
  name: "pool3"
  type: "Pooling"
  bottom: "conv3"
  top: "pool3"
  pooling_param {
    pool: MAX
    kernel_size: 2
    stride: 2
  }
}
layer {
  name: "fc4_300"
  type: "InnerProduct"
  bottom: "pool3"
  top: "fc4_300"
  inner_product_param {
    num_output: 300
    weight_filler {
      type: "xavier"
    }
  }
}
layer {
  name: "fc4_relu"
  type: "ReLU"
  bottom: "fc4_300"
  top: "fc4_300"
}
layer {
  name: "drop4"
  type: "Dropout"
  bottom: "fc4_300"
  top: "fc4_300"
  dropout_param {
    dropout_ratio: 0.4
  }
}
layer {
  name: "fc5_67"
  type: "InnerProduct"
  bottom: "fc4_300"
  top: "fc5_classes"
  inner_product_param {
    num_output: 67
    weight_filler {
      type: "xavier"
    }
  }
}
layer {
  name: "loss"
  type: "SoftmaxWithLoss"
  bottom: "fc5_classes"
  bottom: "label"
  top: "loss"
}
I0402 14:23:02.139659 28358 layer_factory.hpp:77] Creating layer data
I0402 14:23:02.141013 28358 net.cpp:100] Creating Layer data
I0402 14:23:02.141034 28358 net.cpp:408] data -> data
I0402 14:23:02.141063 28358 net.cpp:408] data -> label
I0402 14:23:02.142552 28406 db_lmdb.cpp:35] Opened lmdb ../local_data/lmdb/rtsd-r1/orig/train/lmdb
I0402 14:23:02.160039 28358 data_layer.cpp:41] output data size: 1024,3,48,48
I0402 14:23:02.213435 28358 net.cpp:150] Setting up data
I0402 14:23:02.213474 28358 net.cpp:157] Top shape: 1024 3 48 48 (7077888)
I0402 14:23:02.213484 28358 net.cpp:157] Top shape: 1024 (1024)
I0402 14:23:02.213510 28358 net.cpp:165] Memory required for data: 28315648
I0402 14:23:02.213529 28358 layer_factory.hpp:77] Creating layer conv1
I0402 14:23:02.213560 28358 net.cpp:100] Creating Layer conv1
I0402 14:23:02.213570 28358 net.cpp:434] conv1 <- data
I0402 14:23:02.213588 28358 net.cpp:408] conv1 -> conv1
I0402 14:23:02.495323 28358 net.cpp:150] Setting up conv1
I0402 14:23:02.495357 28358 net.cpp:157] Top shape: 1024 100 42 42 (180633600)
I0402 14:23:02.495365 28358 net.cpp:165] Memory required for data: 750850048
I0402 14:23:02.495394 28358 layer_factory.hpp:77] Creating layer conv1_relu
I0402 14:23:02.495414 28358 net.cpp:100] Creating Layer conv1_relu
I0402 14:23:02.495422 28358 net.cpp:434] conv1_relu <- conv1
I0402 14:23:02.495434 28358 net.cpp:395] conv1_relu -> conv1 (in-place)
I0402 14:23:02.495645 28358 net.cpp:150] Setting up conv1_relu
I0402 14:23:02.495659 28358 net.cpp:157] Top shape: 1024 100 42 42 (180633600)
I0402 14:23:02.495664 28358 net.cpp:165] Memory required for data: 1473384448
I0402 14:23:02.495671 28358 layer_factory.hpp:77] Creating layer pool1
I0402 14:23:02.495682 28358 net.cpp:100] Creating Layer pool1
I0402 14:23:02.495690 28358 net.cpp:434] pool1 <- conv1
I0402 14:23:02.495699 28358 net.cpp:408] pool1 -> pool1
I0402 14:23:02.495762 28358 net.cpp:150] Setting up pool1
I0402 14:23:02.495775 28358 net.cpp:157] Top shape: 1024 100 21 21 (45158400)
I0402 14:23:02.495781 28358 net.cpp:165] Memory required for data: 1654018048
I0402 14:23:02.495786 28358 layer_factory.hpp:77] Creating layer conv2
I0402 14:23:02.495805 28358 net.cpp:100] Creating Layer conv2
I0402 14:23:02.495810 28358 net.cpp:434] conv2 <- pool1
I0402 14:23:02.495820 28358 net.cpp:408] conv2 -> conv2
I0402 14:23:02.500231 28358 net.cpp:150] Setting up conv2
I0402 14:23:02.500258 28358 net.cpp:157] Top shape: 1024 150 18 18 (49766400)
I0402 14:23:02.500267 28358 net.cpp:165] Memory required for data: 1853083648
I0402 14:23:02.500282 28358 layer_factory.hpp:77] Creating layer conv2_relu
I0402 14:23:02.500298 28358 net.cpp:100] Creating Layer conv2_relu
I0402 14:23:02.500306 28358 net.cpp:434] conv2_relu <- conv2
I0402 14:23:02.500315 28358 net.cpp:395] conv2_relu -> conv2 (in-place)
I0402 14:23:02.501093 28358 net.cpp:150] Setting up conv2_relu
I0402 14:23:02.501111 28358 net.cpp:157] Top shape: 1024 150 18 18 (49766400)
I0402 14:23:02.501117 28358 net.cpp:165] Memory required for data: 2052149248
I0402 14:23:02.501123 28358 layer_factory.hpp:77] Creating layer pool2
I0402 14:23:02.501137 28358 net.cpp:100] Creating Layer pool2
I0402 14:23:02.501144 28358 net.cpp:434] pool2 <- conv2
I0402 14:23:02.501154 28358 net.cpp:408] pool2 -> pool2
I0402 14:23:02.501214 28358 net.cpp:150] Setting up pool2
I0402 14:23:02.501226 28358 net.cpp:157] Top shape: 1024 150 9 9 (12441600)
I0402 14:23:02.501232 28358 net.cpp:165] Memory required for data: 2101915648
I0402 14:23:02.501237 28358 layer_factory.hpp:77] Creating layer conv3
I0402 14:23:02.501252 28358 net.cpp:100] Creating Layer conv3
I0402 14:23:02.501260 28358 net.cpp:434] conv3 <- pool2
I0402 14:23:02.501269 28358 net.cpp:408] conv3 -> conv3
I0402 14:23:02.507012 28358 net.cpp:150] Setting up conv3
I0402 14:23:02.507041 28358 net.cpp:157] Top shape: 1024 250 6 6 (9216000)
I0402 14:23:02.507047 28358 net.cpp:165] Memory required for data: 2138779648
I0402 14:23:02.507063 28358 layer_factory.hpp:77] Creating layer conv3_relu
I0402 14:23:02.507077 28358 net.cpp:100] Creating Layer conv3_relu
I0402 14:23:02.507086 28358 net.cpp:434] conv3_relu <- conv3
I0402 14:23:02.507098 28358 net.cpp:395] conv3_relu -> conv3 (in-place)
I0402 14:23:02.510479 28358 net.cpp:150] Setting up conv3_relu
I0402 14:23:02.510498 28358 net.cpp:157] Top shape: 1024 250 6 6 (9216000)
I0402 14:23:02.510514 28358 net.cpp:165] Memory required for data: 2175643648
I0402 14:23:02.510517 28358 layer_factory.hpp:77] Creating layer pool3
I0402 14:23:02.510526 28358 net.cpp:100] Creating Layer pool3
I0402 14:23:02.510530 28358 net.cpp:434] pool3 <- conv3
I0402 14:23:02.510536 28358 net.cpp:408] pool3 -> pool3
I0402 14:23:02.510607 28358 net.cpp:150] Setting up pool3
I0402 14:23:02.510617 28358 net.cpp:157] Top shape: 1024 250 3 3 (2304000)
I0402 14:23:02.510622 28358 net.cpp:165] Memory required for data: 2184859648
I0402 14:23:02.510624 28358 layer_factory.hpp:77] Creating layer fc4_300
I0402 14:23:02.510632 28358 net.cpp:100] Creating Layer fc4_300
I0402 14:23:02.510637 28358 net.cpp:434] fc4_300 <- pool3
I0402 14:23:02.510648 28358 net.cpp:408] fc4_300 -> fc4_300
I0402 14:23:02.516037 28358 net.cpp:150] Setting up fc4_300
I0402 14:23:02.516055 28358 net.cpp:157] Top shape: 1024 300 (307200)
I0402 14:23:02.516060 28358 net.cpp:165] Memory required for data: 2186088448
I0402 14:23:02.516067 28358 layer_factory.hpp:77] Creating layer fc4_relu
I0402 14:23:02.516077 28358 net.cpp:100] Creating Layer fc4_relu
I0402 14:23:02.516082 28358 net.cpp:434] fc4_relu <- fc4_300
I0402 14:23:02.516088 28358 net.cpp:395] fc4_relu -> fc4_300 (in-place)
I0402 14:23:02.516296 28358 net.cpp:150] Setting up fc4_relu
I0402 14:23:02.516309 28358 net.cpp:157] Top shape: 1024 300 (307200)
I0402 14:23:02.516312 28358 net.cpp:165] Memory required for data: 2187317248
I0402 14:23:02.516316 28358 layer_factory.hpp:77] Creating layer drop4
I0402 14:23:02.516324 28358 net.cpp:100] Creating Layer drop4
I0402 14:23:02.516329 28358 net.cpp:434] drop4 <- fc4_300
I0402 14:23:02.516335 28358 net.cpp:395] drop4 -> fc4_300 (in-place)
I0402 14:23:02.516371 28358 net.cpp:150] Setting up drop4
I0402 14:23:02.516379 28358 net.cpp:157] Top shape: 1024 300 (307200)
I0402 14:23:02.516382 28358 net.cpp:165] Memory required for data: 2188546048
I0402 14:23:02.516386 28358 layer_factory.hpp:77] Creating layer fc5_67
I0402 14:23:02.516392 28358 net.cpp:100] Creating Layer fc5_67
I0402 14:23:02.516396 28358 net.cpp:434] fc5_67 <- fc4_300
I0402 14:23:02.516404 28358 net.cpp:408] fc5_67 -> fc5_classes
I0402 14:23:02.517630 28358 net.cpp:150] Setting up fc5_67
I0402 14:23:02.517647 28358 net.cpp:157] Top shape: 1024 67 (68608)
I0402 14:23:02.517652 28358 net.cpp:165] Memory required for data: 2188820480
I0402 14:23:02.517663 28358 layer_factory.hpp:77] Creating layer loss
I0402 14:23:02.517673 28358 net.cpp:100] Creating Layer loss
I0402 14:23:02.517678 28358 net.cpp:434] loss <- fc5_classes
I0402 14:23:02.517683 28358 net.cpp:434] loss <- label
I0402 14:23:02.517690 28358 net.cpp:408] loss -> loss
I0402 14:23:02.517706 28358 layer_factory.hpp:77] Creating layer loss
…
I0402 14:23:02.518376 28358 solver.cpp:193] Creating test net (#0) specified by test_net file: ./Prototxt/experiment_3/rtsd-r1/orig/test.prototxt
I0402 14:23:02.518519 28358 net.cpp:58] Initializing net from parameters: 
state {
  phase: TEST
}
layer {
  name: "data"
  type: "Data"
  top: "data"
  top: "label"
  include {
    phase: TEST
  }
  transform_param {
    mirror: false
    crop_size: 48
    mean_value: 113
    mean_value: 110
    mean_value: 132
  }
  data_param {
    source: "../local_data/lmdb/rtsd-r1/orig/test/lmdb"
    batch_size: 1024
    backend: LMDB
  }
}
layer {
  name: "conv1"
  type: "Convolution"
  bottom: "data"
  top: "conv1"
  convolution_param {
    num_output: 100
    pad: 0
    kernel_size: 7
    group: 1
    stride: 1
    weight_filler {
      type: "xavier"
    }
  }
}
layer {
  name: "conv1_relu"
  type: "ReLU"
  bottom: "conv1"
  top: "conv1"
}
layer {
  name: "pool1"
  type: "Pooling"
  bottom: "conv1"
  top: "pool1"
  pooling_param {
    pool: MAX
    kernel_size: 2
    stride: 2
  }
}
layer {
  name: "conv2"
  type: "Convolution"
  bottom: "pool1"
  top: "conv2"
  convolution_param {
    num_output: 150
    pad: 0
    kernel_size: 4
    group: 1
    stride: 1
    weight_filler {
      type: "xavier"
    }
  }
}
layer {
  name: "conv2_relu"
  type: "ReLU"
  bottom: "conv2"
  top: "conv2"
}
layer {
  name: "pool2"
  type: "Pooling"
  bottom: "conv2"
  top: "pool2"
  pooling_param {
    pool: MAX
    kernel_size: 2
    stride: 2
  }
}
layer {
  name: "conv3"
  type: "Convolution"
  bottom: "pool2"
  top: "conv3"
  convolution_param {
    num_output: 250
    pad: 0
    kernel_size: 4
    group: 1
    stride: 1
    weight_filler {
      type: "xavier"
    }
  }
}
layer {
  name: "conv3_relu"
  type: "ReLU"
  bottom: "conv3"
  top: "conv3"
}
layer {
  name: "pool3"
  type: "Pooling"
  bottom: "conv3"
  top: "pool3"
  pooling_param {
    pool: MAX
    kernel_size: 2
    stride: 2
  }
}
layer {
  name: "fc4_300"
  type: "InnerProduct"
  bottom: "pool3"
  top: "fc4_300"
  inner_product_param {
    num_output: 300
    weight_filler {
      type: "xavier"
    }
  }
}
layer {
  name: "fc4_relu"
  type: "ReLU"
  bottom: "fc4_300"
  top: "fc4_300"
}
layer {
  name: "drop4"
  type: "Dropout"
  bottom: "fc4_300"
  top: "fc4_300"
  dropout_param {
    dropout_ratio: 0.4
  }
}
layer {
  name: "fc5_67"
  type: "InnerProduct"
  bottom: "fc4_300"
  top: "fc5_classes"
  inner_product_param {
    num_output: 67
    weight_filler {
      type: "xavier"
    }
  }
}
layer {
  name: "loss"
  type: "SoftmaxWithLoss"
  bottom: "fc5_classes"
  bottom: "label"
  top: "loss"
}
layer {
  name: "accuracy_1"
  type: "Accuracy"
  bottom: "fc5_classes"
  bottom: "label"
  top: "accuracy_1"
  include {
    phase: TEST
  }
  accuracy_param {
    top_k: 1
  }
}
layer {
  name: "accuracy_5"
  type: "Accuracy"
  bottom: "fc5_classes"
  bottom: "label"
  top: "accuracy_5"
  include {
    phase: TEST
  }
  accuracy_param {
    top_k: 5
  }
}
I0402 14:23:02.518615 28358 layer_factory.hpp:77] Creating layer data
I0402 14:23:02.519286 28358 net.cpp:100] Creating Layer data
I0402 14:23:02.519297 28358 net.cpp:408] data -> data
I0402 14:23:02.519307 28358 net.cpp:408] data -> label
I0402 14:23:02.520371 28417 db_lmdb.cpp:35] Opened lmdb ../local_data/lmdb/rtsd-r1/orig/test/lmdb
I0402 14:23:02.520519 28358 data_layer.cpp:41] output data size: 1024,3,48,48
I0402 14:23:02.567507 28358 net.cpp:150] Setting up data
I0402 14:23:02.567538 28358 net.cpp:157] Top shape: 1024 3 48 48 (7077888)
I0402 14:23:02.567543 28358 net.cpp:157] Top shape: 1024 (1024)
I0402 14:23:02.567546 28358 net.cpp:165] Memory required for data: 28315648
I0402 14:23:02.567553 28358 layer_factory.hpp:77] Creating layer label_data_1_split
I0402 14:23:02.567567 28358 net.cpp:100] Creating Layer label_data_1_split
I0402 14:23:02.567572 28358 net.cpp:434] label_data_1_split <- label
I0402 14:23:02.567581 28358 net.cpp:408] label_data_1_split -> label_data_1_split_0
I0402 14:23:02.567594 28358 net.cpp:408] label_data_1_split -> label_data_1_split_1
I0402 14:23:02.567601 28358 net.cpp:408] label_data_1_split -> label_data_1_split_2
I0402 14:23:02.567783 28358 net.cpp:150] Setting up label_data_1_split
I0402 14:23:02.567816 28358 net.cpp:157] Top shape: 1024 (1024)
I0402 14:23:02.567821 28358 net.cpp:157] Top shape: 1024 (1024)
I0402 14:23:02.567826 28358 net.cpp:157] Top shape: 1024 (1024)
I0402 14:23:02.567827 28358 net.cpp:165] Memory required for data: 28327936
I0402 14:23:02.567831 28358 layer_factory.hpp:77] Creating layer conv1
I0402 14:23:02.567847 28358 net.cpp:100] Creating Layer conv1
I0402 14:23:02.567852 28358 net.cpp:434] conv1 <- data
I0402 14:23:02.567858 28358 net.cpp:408] conv1 -> conv1
I0402 14:23:02.569738 28358 net.cpp:150] Setting up conv1
I0402 14:23:02.569756 28358 net.cpp:157] Top shape: 1024 100 42 42 (180633600)
I0402 14:23:02.569759 28358 net.cpp:165] Memory required for data: 750862336
I0402 14:23:02.569772 28358 layer_factory.hpp:77] Creating layer conv1_relu
I0402 14:23:02.569782 28358 net.cpp:100] Creating Layer conv1_relu
I0402 14:23:02.569787 28358 net.cpp:434] conv1_relu <- conv1
I0402 14:23:02.569792 28358 net.cpp:395] conv1_relu -> conv1 (in-place)
I0402 14:23:02.572384 28358 net.cpp:150] Setting up conv1_relu
I0402 14:23:02.572402 28358 net.cpp:157] Top shape: 1024 100 42 42 (180633600)
I0402 14:23:02.572407 28358 net.cpp:165] Memory required for data: 1473396736
I0402 14:23:02.572410 28358 layer_factory.hpp:77] Creating layer pool1
I0402 14:23:02.572422 28358 net.cpp:100] Creating Layer pool1
I0402 14:23:02.572427 28358 net.cpp:434] pool1 <- conv1
I0402 14:23:02.572433 28358 net.cpp:408] pool1 -> pool1
I0402 14:23:02.572492 28358 net.cpp:150] Setting up pool1
I0402 14:23:02.572501 28358 net.cpp:157] Top shape: 1024 100 21 21 (45158400)
I0402 14:23:02.572504 28358 net.cpp:165] Memory required for data: 1654030336
I0402 14:23:02.572507 28358 layer_factory.hpp:77] Creating layer conv2
I0402 14:23:02.572517 28358 net.cpp:100] Creating Layer conv2
I0402 14:23:02.572523 28358 net.cpp:434] conv2 <- pool1
I0402 14:23:02.572530 28358 net.cpp:408] conv2 -> conv2
I0402 14:23:02.576449 28358 net.cpp:150] Setting up conv2
I0402 14:23:02.576467 28358 net.cpp:157] Top shape: 1024 150 18 18 (49766400)
I0402 14:23:02.576472 28358 net.cpp:165] Memory required for data: 1853095936
I0402 14:23:02.576481 28358 layer_factory.hpp:77] Creating layer conv2_relu
I0402 14:23:02.576490 28358 net.cpp:100] Creating Layer conv2_relu
I0402 14:23:02.576495 28358 net.cpp:434] conv2_relu <- conv2
I0402 14:23:02.576501 28358 net.cpp:395] conv2_relu -> conv2 (in-place)
I0402 14:23:02.577292 28358 net.cpp:150] Setting up conv2_relu
I0402 14:23:02.577309 28358 net.cpp:157] Top shape: 1024 150 18 18 (49766400)
I0402 14:23:02.577314 28358 net.cpp:165] Memory required for data: 2052161536
I0402 14:23:02.577318 28358 layer_factory.hpp:77] Creating layer pool2
I0402 14:23:02.577325 28358 net.cpp:100] Creating Layer pool2
I0402 14:23:02.577328 28358 net.cpp:434] pool2 <- conv2
I0402 14:23:02.577337 28358 net.cpp:408] pool2 -> pool2
I0402 14:23:02.577402 28358 net.cpp:150] Setting up pool2
I0402 14:23:02.577415 28358 net.cpp:157] Top shape: 1024 150 9 9 (12441600)
I0402 14:23:02.577419 28358 net.cpp:165] Memory required for data: 2101927936
I0402 14:23:02.577421 28358 layer_factory.hpp:77] Creating layer conv3
I0402 14:23:02.577435 28358 net.cpp:100] Creating Layer conv3
I0402 14:23:02.577440 28358 net.cpp:434] conv3 <- pool2
I0402 14:23:02.577447 28358 net.cpp:408] conv3 -> conv3
I0402 14:23:02.583031 28358 net.cpp:150] Setting up conv3
I0402 14:23:02.583050 28358 net.cpp:157] Top shape: 1024 250 6 6 (9216000)
I0402 14:23:02.583053 28358 net.cpp:165] Memory required for data: 2138791936
I0402 14:23:02.583062 28358 layer_factory.hpp:77] Creating layer conv3_relu
I0402 14:23:02.583073 28358 net.cpp:100] Creating Layer conv3_relu
I0402 14:23:02.583078 28358 net.cpp:434] conv3_relu <- conv3
I0402 14:23:02.583084 28358 net.cpp:395] conv3_relu -> conv3 (in-place)
I0402 14:23:02.583869 28358 net.cpp:150] Setting up conv3_relu
I0402 14:23:02.583889 28358 net.cpp:157] Top shape: 1024 250 6 6 (9216000)
I0402 14:23:02.583894 28358 net.cpp:165] Memory required for data: 2175655936
I0402 14:23:02.583916 28358 layer_factory.hpp:77] Creating layer pool3
I0402 14:23:02.583925 28358 net.cpp:100] Creating Layer pool3
I0402 14:23:02.583928 28358 net.cpp:434] pool3 <- conv3
I0402 14:23:02.583935 28358 net.cpp:408] pool3 -> pool3
I0402 14:23:02.583989 28358 net.cpp:150] Setting up pool3
I0402 14:23:02.583998 28358 net.cpp:157] Top shape: 1024 250 3 3 (2304000)
I0402 14:23:02.584002 28358 net.cpp:165] Memory required for data: 2184871936
I0402 14:23:02.584005 28358 layer_factory.hpp:77] Creating layer fc4_300
I0402 14:23:02.584015 28358 net.cpp:100] Creating Layer fc4_300
I0402 14:23:02.584020 28358 net.cpp:434] fc4_300 <- pool3
I0402 14:23:02.584025 28358 net.cpp:408] fc4_300 -> fc4_300
I0402 14:23:02.589912 28358 net.cpp:150] Setting up fc4_300
I0402 14:23:02.589934 28358 net.cpp:157] Top shape: 1024 300 (307200)
I0402 14:23:02.589938 28358 net.cpp:165] Memory required for data: 2186100736
I0402 14:23:02.589946 28358 layer_factory.hpp:77] Creating layer fc4_relu
I0402 14:23:02.589954 28358 net.cpp:100] Creating Layer fc4_relu
I0402 14:23:02.589959 28358 net.cpp:434] fc4_relu <- fc4_300
I0402 14:23:02.589967 28358 net.cpp:395] fc4_relu -> fc4_300 (in-place)
I0402 14:23:02.590178 28358 net.cpp:150] Setting up fc4_relu
I0402 14:23:02.590190 28358 net.cpp:157] Top shape: 1024 300 (307200)
I0402 14:23:02.590193 28358 net.cpp:165] Memory required for data: 2187329536
I0402 14:23:02.590196 28358 layer_factory.hpp:77] Creating layer drop4
I0402 14:23:02.590205 28358 net.cpp:100] Creating Layer drop4
I0402 14:23:02.590210 28358 net.cpp:434] drop4 <- fc4_300
I0402 14:23:02.590216 28358 net.cpp:395] drop4 -> fc4_300 (in-place)
I0402 14:23:02.590251 28358 net.cpp:150] Setting up drop4
I0402 14:23:02.590260 28358 net.cpp:157] Top shape: 1024 300 (307200)
I0402 14:23:02.590263 28358 net.cpp:165] Memory required for data: 2188558336
I0402 14:23:02.590266 28358 layer_factory.hpp:77] Creating layer fc5_67
I0402 14:23:02.590272 28358 net.cpp:100] Creating Layer fc5_67
I0402 14:23:02.590277 28358 net.cpp:434] fc5_67 <- fc4_300
I0402 14:23:02.590286 28358 net.cpp:408] fc5_67 -> fc5_classes
I0402 14:23:02.590548 28358 net.cpp:150] Setting up fc5_67
I0402 14:23:02.590557 28358 net.cpp:157] Top shape: 1024 67 (68608)
I0402 14:23:02.590560 28358 net.cpp:165] Memory required for data: 2188832768
I0402 14:23:02.590570 28358 layer_factory.hpp:77] Creating layer fc5_classes_fc5_67_0_split
I0402 14:23:02.590579 28358 net.cpp:100] Creating Layer fc5_classes_fc5_67_0_split
I0402 14:23:02.590584 28358 net.cpp:434] fc5_classes_fc5_67_0_split <- fc5_classes
I0402 14:23:02.590593 28358 net.cpp:408] fc5_classes_fc5_67_0_split -> fc5_classes_fc5_67_0_split_0
I0402 14:23:02.590600 28358 net.cpp:408] fc5_classes_fc5_67_0_split -> fc5_classes_fc5_67_0_split_1
I0402 14:23:02.590610 28358 net.cpp:408] fc5_classes_fc5_67_0_split -> fc5_classes_fc5_67_0_split_2
I0402 14:23:02.590667 28358 net.cpp:150] Setting up fc5_classes_fc5_67_0_split
I0402 14:23:02.590674 28358 net.cpp:157] Top shape: 1024 67 (68608)
I0402 14:23:02.590677 28358 net.cpp:157] Top shape: 1024 67 (68608)
I0402 14:23:02.590682 28358 net.cpp:157] Top shape: 1024 67 (68608)
I0402 14:23:02.590684 28358 net.cpp:165] Memory required for data: 2189656064
I0402 14:23:02.590687 28358 layer_factory.hpp:77] Creating layer loss
I0402 14:23:02.590695 28358 net.cpp:100] Creating Layer loss
I0402 14:23:02.590700 28358 net.cpp:434] loss <- fc5_classes_fc5_67_0_split_0
I0402 14:23:02.590705 28358 net.cpp:434] loss <- label_data_1_split_0
I0402 14:23:02.590710 28358 net.cpp:408] loss -> loss
…
