…
I0411 13:35:34.766878 27783 net.cpp:322] The NetState phase (0) differed from the phase (1) specified by a rule in layer accuracy_5
I0411 13:35:34.767022 27783 net.cpp:58] Initializing net from parameters: 
state {
  phase: TRAIN
  level: 0
  stage: ""
}
layer {
  name: "data"
  type: "Data"
  top: "data"
  top: "label"
  include {
    phase: TRAIN
  }
  transform_param {
    scale: 0.0039215689
    mirror: false
    crop_size: 48
    mean_value: 132
    mean_value: 132
    mean_value: 131
  }
  data_param {
    source: "../local_data/lmdb/rtsd-r1/CoNorm/train/lmdb"
    batch_size: 1024
    backend: LMDB
  }
}
layer {
  name: "conv1"
  type: "Convolution"
  bottom: "data"
  top: "conv1"
  convolution_param {
    num_output: 100
    pad: 0
    kernel_size: 7
    group: 1
    stride: 1
    weight_filler {
      type: "xavier"
    }
  }
}
layer {
  name: "conv1_prescale"
  type: "Scale"
  bottom: "conv1"
  top: "conv1"
  param {
    lr_mult: 0
    decay_mult: 0
  }
  scale_param {
    filler {
      value: 0.6666
    }
    bias_term: false
  }
}
layer {
  name: "conv1_sTanH"
  type: "TanH"
  bottom: "conv1"
  top: "conv1"
}
layer {
  name: "conv1_postscale"
  type: "Scale"
  bottom: "conv1"
  top: "conv1"
  param {
    lr_mult: 0
    decay_mult: 0
  }
  scale_param {
    filler {
      value: 1.7159
    }
    bias_term: false
  }
}
layer {
  name: "pool1"
  type: "Pooling"
  bottom: "conv1"
  top: "pool1"
  pooling_param {
    pool: MAX
    kernel_size: 2
    stride: 2
  }
}
layer {
  name: "conv2"
  type: "Convolution"
  bottom: "pool1"
  top: "conv2"
  convolution_param {
    num_output: 150
    pad: 0
    kernel_size: 4
    group: 1
    stride: 1
    weight_filler {
      type: "xavier"
    }
  }
}
layer {
  name: "conv2_prescale"
  type: "Scale"
  bottom: "conv2"
  top: "conv2"
  param {
    lr_mult: 0
    decay_mult: 0
  }
  scale_param {
    filler {
      value: 0.6666
    }
    bias_term: false
  }
}
layer {
  name: "conv2_sTanH"
  type: "TanH"
  bottom: "conv2"
  top: "conv2"
}
layer {
  name: "conv2_postscale"
  type: "Scale"
  bottom: "conv2"
  top: "conv2"
  param {
    lr_mult: 0
    decay_mult: 0
  }
  scale_param {
    filler {
      value: 1.7159
    }
    bias_term: false
  }
}
layer {
  name: "pool2"
  type: "Pooling"
  bottom: "conv2"
  top: "pool2"
  pooling_param {
    pool: MAX
    kernel_size: 2
    stride: 2
  }
}
layer {
  name: "conv3"
  type: "Convolution"
  bottom: "pool2"
  top: "conv3"
  convolution_param {
    num_output: 250
    pad: 0
    kernel_size: 4
    group: 1
    stride: 1
    weight_filler {
      type: "xavier"
    }
  }
}
layer {
  name: "conv3_prescale"
  type: "Scale"
  bottom: "conv3"
  top: "conv3"
  param {
    lr_mult: 0
    decay_mult: 0
  }
  scale_param {
    filler {
      value: 0.6666
    }
    bias_term: false
  }
}
layer {
  name: "conv3_sTanH"
  type: "TanH"
  bottom: "conv3"
  top: "conv3"
}
layer {
  name: "conv3_postscale"
  type: "Scale"
  bottom: "conv3"
  top: "conv3"
  param {
    lr_mult: 0
    decay_mult: 0
  }
  scale_param {
    filler {
      value: 1.7159
    }
    bias_term: false
  }
}
layer {
  name: "pool3"
  type: "Pooling"
  bottom: "conv3"
  top: "pool3"
  pooling_param {
    pool: MAX
    kernel_size: 2
    stride: 2
  }
}
layer {
  name: "fc4_300"
  type: "InnerProduct"
  bottom: "pool3"
  top: "fc4_300"
  inner_product_param {
    num_output: 300
    weight_filler {
      type: "xavier"
    }
  }
}
layer {
  name: "fc4_prescale"
  type: "Scale"
  bottom: "fc4_300"
  top: "fc4_300"
  param {
    lr_mult: 0
    decay_mult: 0
  }
  scale_param {
    filler {
      value: 0.6666
    }
    bias_term: false
  }
}
layer {
  name: "fc4_sTanH"
  type: "TanH"
  bottom: "fc4_300"
  top: "fc4_300"
}
layer {
  name: "fc4_postscale"
  type: "Scale"
  bottom: "fc4_300"
  top: "fc4_300"
  param {
    lr_mult: 0
    decay_mult: 0
  }
  scale_param {
    filler {
      value: 1.7159
    }
    bias_term: false
  }
}
layer {
  name: "drop4"
  type: "Dropout"
  bottom: "fc4_300"
  top: "fc4_300"
  dropout_param {
    dropout_ratio: 0.4
  }
}
layer {
  name: "fc5_67"
  type: "InnerProduct"
  bottom: "fc4_300"
  top: "fc5_classes"
  inner_product_param {
    num_output: 67
    weight_filler {
      type: "xavier"
    }
  }
}
layer {
  name: "loss"
  type: "SoftmaxWithLoss"
  bottom: "fc5_classes"
  bottom: "label"
  top: "loss"
}
I0411 13:35:34.767129 27783 layer_factory.hpp:77] Creating layer data
I0411 13:35:34.768229 27783 net.cpp:100] Creating Layer data
I0411 13:35:34.768246 27783 net.cpp:408] data -> data
I0411 13:35:34.768268 27783 net.cpp:408] data -> label
I0411 13:35:34.769294 27879 db_lmdb.cpp:35] Opened lmdb ../local_data/lmdb/rtsd-r1/CoNorm/train/lmdb
I0411 13:35:34.787813 27783 data_layer.cpp:41] output data size: 1024,3,48,48
I0411 13:35:34.832840 27783 net.cpp:150] Setting up data
I0411 13:35:34.832872 27783 net.cpp:157] Top shape: 1024 3 48 48 (7077888)
I0411 13:35:34.832877 27783 net.cpp:157] Top shape: 1024 (1024)
I0411 13:35:34.832880 27783 net.cpp:165] Memory required for data: 28315648
I0411 13:35:34.832890 27783 layer_factory.hpp:77] Creating layer conv1
I0411 13:35:34.832912 27783 net.cpp:100] Creating Layer conv1
I0411 13:35:34.832921 27783 net.cpp:434] conv1 <- data
I0411 13:35:34.832933 27783 net.cpp:408] conv1 -> conv1
I0411 13:35:35.316179 27783 net.cpp:150] Setting up conv1
I0411 13:35:35.316206 27783 net.cpp:157] Top shape: 1024 100 42 42 (180633600)
I0411 13:35:35.316211 27783 net.cpp:165] Memory required for data: 750850048
I0411 13:35:35.316233 27783 layer_factory.hpp:77] Creating layer conv1_prescale
I0411 13:35:35.316247 27783 net.cpp:100] Creating Layer conv1_prescale
I0411 13:35:35.316252 27783 net.cpp:434] conv1_prescale <- conv1
I0411 13:35:35.316258 27783 net.cpp:395] conv1_prescale -> conv1 (in-place)
I0411 13:35:35.316368 27783 net.cpp:150] Setting up conv1_prescale
I0411 13:35:35.316377 27783 net.cpp:157] Top shape: 1024 100 42 42 (180633600)
I0411 13:35:35.316380 27783 net.cpp:165] Memory required for data: 1473384448
I0411 13:35:35.316386 27783 layer_factory.hpp:77] Creating layer conv1_sTanH
I0411 13:35:35.316393 27783 net.cpp:100] Creating Layer conv1_sTanH
I0411 13:35:35.316396 27783 net.cpp:434] conv1_sTanH <- conv1
I0411 13:35:35.316401 27783 net.cpp:395] conv1_sTanH -> conv1 (in-place)
I0411 13:35:35.316597 27783 net.cpp:150] Setting up conv1_sTanH
I0411 13:35:35.316611 27783 net.cpp:157] Top shape: 1024 100 42 42 (180633600)
I0411 13:35:35.316613 27783 net.cpp:165] Memory required for data: 2195918848
I0411 13:35:35.316617 27783 layer_factory.hpp:77] Creating layer conv1_postscale
I0411 13:35:35.316625 27783 net.cpp:100] Creating Layer conv1_postscale
I0411 13:35:35.316628 27783 net.cpp:434] conv1_postscale <- conv1
I0411 13:35:35.316633 27783 net.cpp:395] conv1_postscale -> conv1 (in-place)
I0411 13:35:35.316733 27783 net.cpp:150] Setting up conv1_postscale
I0411 13:35:35.316741 27783 net.cpp:157] Top shape: 1024 100 42 42 (180633600)
I0411 13:35:35.316745 27783 net.cpp:165] Memory required for data: 2918453248
I0411 13:35:35.316748 27783 layer_factory.hpp:77] Creating layer pool1
I0411 13:35:35.316756 27783 net.cpp:100] Creating Layer pool1
I0411 13:35:35.316758 27783 net.cpp:434] pool1 <- conv1
I0411 13:35:35.316766 27783 net.cpp:408] pool1 -> pool1
I0411 13:35:35.316835 27783 net.cpp:150] Setting up pool1
I0411 13:35:35.316848 27783 net.cpp:157] Top shape: 1024 100 21 21 (45158400)
I0411 13:35:35.316851 27783 net.cpp:165] Memory required for data: 3099086848
I0411 13:35:35.316855 27783 layer_factory.hpp:77] Creating layer conv2
I0411 13:35:35.316866 27783 net.cpp:100] Creating Layer conv2
I0411 13:35:35.316871 27783 net.cpp:434] conv2 <- pool1
I0411 13:35:35.316876 27783 net.cpp:408] conv2 -> conv2
I0411 13:35:35.323266 27783 net.cpp:150] Setting up conv2
I0411 13:35:35.323282 27783 net.cpp:157] Top shape: 1024 150 18 18 (49766400)
I0411 13:35:35.323285 27783 net.cpp:165] Memory required for data: 3298152448
I0411 13:35:35.323294 27783 layer_factory.hpp:77] Creating layer conv2_prescale
I0411 13:35:35.323307 27783 net.cpp:100] Creating Layer conv2_prescale
I0411 13:35:35.323310 27783 net.cpp:434] conv2_prescale <- conv2
I0411 13:35:35.323317 27783 net.cpp:395] conv2_prescale -> conv2 (in-place)
I0411 13:35:35.323428 27783 net.cpp:150] Setting up conv2_prescale
I0411 13:35:35.323437 27783 net.cpp:157] Top shape: 1024 150 18 18 (49766400)
I0411 13:35:35.323441 27783 net.cpp:165] Memory required for data: 3497218048
I0411 13:35:35.323444 27783 layer_factory.hpp:77] Creating layer conv2_sTanH
I0411 13:35:35.323453 27783 net.cpp:100] Creating Layer conv2_sTanH
I0411 13:35:35.323457 27783 net.cpp:434] conv2_sTanH <- conv2
I0411 13:35:35.323462 27783 net.cpp:395] conv2_sTanH -> conv2 (in-place)
I0411 13:35:35.324331 27783 net.cpp:150] Setting up conv2_sTanH
I0411 13:35:35.324348 27783 net.cpp:157] Top shape: 1024 150 18 18 (49766400)
I0411 13:35:35.324352 27783 net.cpp:165] Memory required for data: 3696283648
I0411 13:35:35.324355 27783 layer_factory.hpp:77] Creating layer conv2_postscale
I0411 13:35:35.324362 27783 net.cpp:100] Creating Layer conv2_postscale
I0411 13:35:35.324367 27783 net.cpp:434] conv2_postscale <- conv2
I0411 13:35:35.324373 27783 net.cpp:395] conv2_postscale -> conv2 (in-place)
I0411 13:35:35.324472 27783 net.cpp:150] Setting up conv2_postscale
I0411 13:35:35.324482 27783 net.cpp:157] Top shape: 1024 150 18 18 (49766400)
I0411 13:35:35.324486 27783 net.cpp:165] Memory required for data: 3895349248
I0411 13:35:35.324489 27783 layer_factory.hpp:77] Creating layer pool2
I0411 13:35:35.324496 27783 net.cpp:100] Creating Layer pool2
I0411 13:35:35.324499 27783 net.cpp:434] pool2 <- conv2
I0411 13:35:35.324503 27783 net.cpp:408] pool2 -> pool2
I0411 13:35:35.324546 27783 net.cpp:150] Setting up pool2
I0411 13:35:35.324553 27783 net.cpp:157] Top shape: 1024 150 9 9 (12441600)
I0411 13:35:35.324556 27783 net.cpp:165] Memory required for data: 3945115648
I0411 13:35:35.324559 27783 layer_factory.hpp:77] Creating layer conv3
I0411 13:35:35.324568 27783 net.cpp:100] Creating Layer conv3
I0411 13:35:35.324571 27783 net.cpp:434] conv3 <- pool2
I0411 13:35:35.324579 27783 net.cpp:408] conv3 -> conv3
I0411 13:35:35.330504 27783 net.cpp:150] Setting up conv3
I0411 13:35:35.330523 27783 net.cpp:157] Top shape: 1024 250 6 6 (9216000)
I0411 13:35:35.330526 27783 net.cpp:165] Memory required for data: 3981979648
I0411 13:35:35.330536 27783 layer_factory.hpp:77] Creating layer conv3_prescale
I0411 13:35:35.330545 27783 net.cpp:100] Creating Layer conv3_prescale
I0411 13:35:35.330550 27783 net.cpp:434] conv3_prescale <- conv3
I0411 13:35:35.330555 27783 net.cpp:395] conv3_prescale -> conv3 (in-place)
I0411 13:35:35.330654 27783 net.cpp:150] Setting up conv3_prescale
I0411 13:35:35.330663 27783 net.cpp:157] Top shape: 1024 250 6 6 (9216000)
I0411 13:35:35.330665 27783 net.cpp:165] Memory required for data: 4018843648
I0411 13:35:35.330670 27783 layer_factory.hpp:77] Creating layer conv3_sTanH
I0411 13:35:35.330675 27783 net.cpp:100] Creating Layer conv3_sTanH
I0411 13:35:35.330678 27783 net.cpp:434] conv3_sTanH <- conv3
I0411 13:35:35.330684 27783 net.cpp:395] conv3_sTanH -> conv3 (in-place)
I0411 13:35:35.331589 27783 net.cpp:150] Setting up conv3_sTanH
I0411 13:35:35.331604 27783 net.cpp:157] Top shape: 1024 250 6 6 (9216000)
I0411 13:35:35.331607 27783 net.cpp:165] Memory required for data: 4055707648
I0411 13:35:35.331624 27783 layer_factory.hpp:77] Creating layer conv3_postscale
I0411 13:35:35.331634 27783 net.cpp:100] Creating Layer conv3_postscale
I0411 13:35:35.331639 27783 net.cpp:434] conv3_postscale <- conv3
I0411 13:35:35.331643 27783 net.cpp:395] conv3_postscale -> conv3 (in-place)
I0411 13:35:35.331745 27783 net.cpp:150] Setting up conv3_postscale
I0411 13:35:35.331754 27783 net.cpp:157] Top shape: 1024 250 6 6 (9216000)
I0411 13:35:35.331758 27783 net.cpp:165] Memory required for data: 4092571648
I0411 13:35:35.331763 27783 layer_factory.hpp:77] Creating layer pool3
I0411 13:35:35.331768 27783 net.cpp:100] Creating Layer pool3
I0411 13:35:35.331773 27783 net.cpp:434] pool3 <- conv3
I0411 13:35:35.331779 27783 net.cpp:408] pool3 -> pool3
I0411 13:35:35.331818 27783 net.cpp:150] Setting up pool3
I0411 13:35:35.331825 27783 net.cpp:157] Top shape: 1024 250 3 3 (2304000)
I0411 13:35:35.331828 27783 net.cpp:165] Memory required for data: 4101787648
I0411 13:35:35.331831 27783 layer_factory.hpp:77] Creating layer fc4_300
I0411 13:35:35.331842 27783 net.cpp:100] Creating Layer fc4_300
I0411 13:35:35.331848 27783 net.cpp:434] fc4_300 <- pool3
I0411 13:35:35.331853 27783 net.cpp:408] fc4_300 -> fc4_300
I0411 13:35:35.337508 27783 net.cpp:150] Setting up fc4_300
I0411 13:35:35.337523 27783 net.cpp:157] Top shape: 1024 300 (307200)
I0411 13:35:35.337527 27783 net.cpp:165] Memory required for data: 4103016448
I0411 13:35:35.337533 27783 layer_factory.hpp:77] Creating layer fc4_prescale
I0411 13:35:35.337540 27783 net.cpp:100] Creating Layer fc4_prescale
I0411 13:35:35.337546 27783 net.cpp:434] fc4_prescale <- fc4_300
I0411 13:35:35.337551 27783 net.cpp:395] fc4_prescale -> fc4_300 (in-place)
I0411 13:35:35.337638 27783 net.cpp:150] Setting up fc4_prescale
I0411 13:35:35.337646 27783 net.cpp:157] Top shape: 1024 300 (307200)
I0411 13:35:35.337649 27783 net.cpp:165] Memory required for data: 4104245248
I0411 13:35:35.337653 27783 layer_factory.hpp:77] Creating layer fc4_sTanH
I0411 13:35:35.337658 27783 net.cpp:100] Creating Layer fc4_sTanH
I0411 13:35:35.337661 27783 net.cpp:434] fc4_sTanH <- fc4_300
I0411 13:35:35.337666 27783 net.cpp:395] fc4_sTanH -> fc4_300 (in-place)
I0411 13:35:35.337854 27783 net.cpp:150] Setting up fc4_sTanH
I0411 13:35:35.337865 27783 net.cpp:157] Top shape: 1024 300 (307200)
I0411 13:35:35.337868 27783 net.cpp:165] Memory required for data: 4105474048
I0411 13:35:35.337872 27783 layer_factory.hpp:77] Creating layer fc4_postscale
I0411 13:35:35.337879 27783 net.cpp:100] Creating Layer fc4_postscale
I0411 13:35:35.337883 27783 net.cpp:434] fc4_postscale <- fc4_300
I0411 13:35:35.337888 27783 net.cpp:395] fc4_postscale -> fc4_300 (in-place)
I0411 13:35:35.337983 27783 net.cpp:150] Setting up fc4_postscale
I0411 13:35:35.337991 27783 net.cpp:157] Top shape: 1024 300 (307200)
I0411 13:35:35.337994 27783 net.cpp:165] Memory required for data: 4106702848
I0411 13:35:35.337998 27783 layer_factory.hpp:77] Creating layer drop4
I0411 13:35:35.338004 27783 net.cpp:100] Creating Layer drop4
I0411 13:35:35.338007 27783 net.cpp:434] drop4 <- fc4_300
I0411 13:35:35.338012 27783 net.cpp:395] drop4 -> fc4_300 (in-place)
I0411 13:35:35.338038 27783 net.cpp:150] Setting up drop4
I0411 13:35:35.338045 27783 net.cpp:157] Top shape: 1024 300 (307200)
I0411 13:35:35.338048 27783 net.cpp:165] Memory required for data: 4107931648
I0411 13:35:35.338050 27783 layer_factory.hpp:77] Creating layer fc5_67
I0411 13:35:35.338058 27783 net.cpp:100] Creating Layer fc5_67
I0411 13:35:35.338062 27783 net.cpp:434] fc5_67 <- fc4_300
I0411 13:35:35.338065 27783 net.cpp:408] fc5_67 -> fc5_classes
I0411 13:35:35.345537 27783 net.cpp:150] Setting up fc5_67
I0411 13:35:35.345554 27783 net.cpp:157] Top shape: 1024 67 (68608)
I0411 13:35:35.345558 27783 net.cpp:165] Memory required for data: 4108206080
I0411 13:35:35.345571 27783 layer_factory.hpp:77] Creating layer loss
I0411 13:35:35.345577 27783 net.cpp:100] Creating Layer loss
I0411 13:35:35.345582 27783 net.cpp:434] loss <- fc5_classes
I0411 13:35:35.345585 27783 net.cpp:434] loss <- label
I0411 13:35:35.345607 27783 net.cpp:408] loss -> loss
I0411 13:35:35.345621 27783 layer_factory.hpp:77] Creating layer loss
…
I0411 13:35:35.346369 27783 solver.cpp:193] Creating test net (#0) specified by test_net file: ./Prototxt/experiment_9/rtsd-r1/CoNorm/trial_1/test.prototxt
I0411 13:35:35.346560 27783 net.cpp:58] Initializing net from parameters: 
state {
  phase: TEST
}
layer {
  name: "data"
  type: "Data"
  top: "data"
  top: "label"
  include {
    phase: TEST
  }
  transform_param {
    scale: 0.0039215689
    mirror: false
    crop_size: 48
    mean_value: 133
    mean_value: 133
    mean_value: 132
  }
  data_param {
    source: "../local_data/lmdb/rtsd-r1/CoNorm/test/lmdb"
    batch_size: 1024
    backend: LMDB
  }
}
layer {
  name: "conv1"
  type: "Convolution"
  bottom: "data"
  top: "conv1"
  convolution_param {
    num_output: 100
    pad: 0
    kernel_size: 7
    group: 1
    stride: 1
    weight_filler {
      type: "xavier"
    }
  }
}
layer {
  name: "conv1_prescale"
  type: "Scale"
  bottom: "conv1"
  top: "conv1"
  param {
    lr_mult: 0
    decay_mult: 0
  }
  scale_param {
    filler {
      value: 0.6666
    }
    bias_term: false
  }
}
layer {
  name: "conv1_sTanH"
  type: "TanH"
  bottom: "conv1"
  top: "conv1"
}
layer {
  name: "conv1_postscale"
  type: "Scale"
  bottom: "conv1"
  top: "conv1"
  param {
    lr_mult: 0
    decay_mult: 0
  }
  scale_param {
    filler {
      value: 1.7159
    }
    bias_term: false
  }
}
layer {
  name: "pool1"
  type: "Pooling"
  bottom: "conv1"
  top: "pool1"
  pooling_param {
    pool: MAX
    kernel_size: 2
    stride: 2
  }
}
layer {
  name: "conv2"
  type: "Convolution"
  bottom: "pool1"
  top: "conv2"
  convolution_param {
    num_output: 150
    pad: 0
    kernel_size: 4
    group: 1
    stride: 1
    weight_filler {
      type: "xavier"
    }
  }
}
layer {
  name: "conv2_prescale"
  type: "Scale"
  bottom: "conv2"
  top: "conv2"
  param {
    lr_mult: 0
    decay_mult: 0
  }
  scale_param {
    filler {
      value: 0.6666
    }
    bias_term: false
  }
}
layer {
  name: "conv2_sTanH"
  type: "TanH"
  bottom: "conv2"
  top: "conv2"
}
layer {
  name: "conv2_postscale"
  type: "Scale"
  bottom: "conv2"
  top: "conv2"
  param {
    lr_mult: 0
    decay_mult: 0
  }
  scale_param {
    filler {
      value: 1.7159
    }
    bias_term: false
  }
}
layer {
  name: "pool2"
  type: "Pooling"
  bottom: "conv2"
  top: "pool2"
  pooling_param {
    pool: MAX
    kernel_size: 2
    stride: 2
  }
}
layer {
  name: "conv3"
  type: "Convolution"
  bottom: "pool2"
  top: "conv3"
  convolution_param {
    num_output: 250
    pad: 0
    kernel_size: 4
    group: 1
    stride: 1
    weight_filler {
      type: "xavier"
    }
  }
}
layer {
  name: "conv3_prescale"
  type: "Scale"
  bottom: "conv3"
  top: "conv3"
  param {
    lr_mult: 0
    decay_mult: 0
  }
  scale_param {
    filler {
      value: 0.6666
    }
    bias_term: false
  }
}
layer {
  name: "conv3_sTanH"
  type: "TanH"
  bottom: "conv3"
  top: "conv3"
}
layer {
  name: "conv3_postscale"
  type: "Scale"
  bottom: "conv3"
  top: "conv3"
  param {
    lr_mult: 0
    decay_mult: 0
  }
  scale_param {
    filler {
      value: 1.7159
    }
    bias_term: false
  }
}
layer {
  name: "pool3"
  type: "Pooling"
  bottom: "conv3"
  top: "pool3"
  pooling_param {
    pool: MAX
    kernel_size: 2
    stride: 2
  }
}
layer {
  name: "fc4_300"
  type: "InnerProduct"
  bottom: "pool3"
  top: "fc4_300"
  inner_product_param {
    num_output: 300
    weight_filler {
      type: "xavier"
    }
  }
}
layer {
  name: "fc4_prescale"
  type: "Scale"
  bottom: "fc4_300"
  top: "fc4_300"
  param {
    lr_mult: 0
    decay_mult: 0
  }
  scale_param {
    filler {
      value: 0.6666
    }
    bias_term: false
  }
}
layer {
  name: "fc4_sTanH"
  type: "TanH"
  bottom: "fc4_300"
  top: "fc4_300"
}
layer {
  name: "fc4_postscale"
  type: "Scale"
  bottom: "fc4_300"
  top: "fc4_300"
  param {
    lr_mult: 0
    decay_mult: 0
  }
  scale_param {
    filler {
      value: 1.7159
    }
    bias_term: false
  }
}
layer {
  name: "drop4"
  type: "Dropout"
  bottom: "fc4_300"
  top: "fc4_300"
  dropout_param {
    dropout_ratio: 0.4
  }
}
layer {
  name: "fc5_67"
  type: "InnerProduct"
  bottom: "fc4_300"
  top: "fc5_classes"
  inner_product_param {
    num_output: 67
    weight_filler {
      type: "xavier"
    }
  }
}
layer {
  name: "loss"
  type: "SoftmaxWithLoss"
  bottom: "fc5_classes"
  bottom: "label"
  top: "loss"
}
layer {
  name: "accuracy_1"
  type: "Accuracy"
  bottom: "fc5_classes"
  bottom: "label"
  top: "accuracy_1"
  include {
    phase: TEST
  }
  accuracy_param {
    top_k: 1
  }
}
layer {
  name: "accuracy_5"
  type: "Accuracy"
  bottom: "fc5_classes"
  bottom: "label"
  top: "accuracy_5"
  include {
    phase: TEST
  }
  accuracy_param {
    top_k: 5
  }
}
I0411 13:35:35.346685 27783 layer_factory.hpp:77] Creating layer data
I0411 13:35:35.347373 27783 net.cpp:100] Creating Layer data
I0411 13:35:35.347386 27783 net.cpp:408] data -> data
I0411 13:35:35.347398 27783 net.cpp:408] data -> label
I0411 13:35:35.354526 27939 db_lmdb.cpp:35] Opened lmdb ../local_data/lmdb/rtsd-r1/CoNorm/test/lmdb
I0411 13:35:35.354691 27783 data_layer.cpp:41] output data size: 1024,3,48,48
I0411 13:35:35.404366 27783 net.cpp:150] Setting up data
I0411 13:35:35.404393 27783 net.cpp:157] Top shape: 1024 3 48 48 (7077888)
I0411 13:35:35.404398 27783 net.cpp:157] Top shape: 1024 (1024)
I0411 13:35:35.404402 27783 net.cpp:165] Memory required for data: 28315648
I0411 13:35:35.404407 27783 layer_factory.hpp:77] Creating layer label_data_1_split
I0411 13:35:35.404424 27783 net.cpp:100] Creating Layer label_data_1_split
I0411 13:35:35.404428 27783 net.cpp:434] label_data_1_split <- label
I0411 13:35:35.404438 27783 net.cpp:408] label_data_1_split -> label_data_1_split_0
I0411 13:35:35.404451 27783 net.cpp:408] label_data_1_split -> label_data_1_split_1
I0411 13:35:35.404480 27783 net.cpp:408] label_data_1_split -> label_data_1_split_2
I0411 13:35:35.404603 27783 net.cpp:150] Setting up label_data_1_split
I0411 13:35:35.404613 27783 net.cpp:157] Top shape: 1024 (1024)
I0411 13:35:35.404616 27783 net.cpp:157] Top shape: 1024 (1024)
I0411 13:35:35.404620 27783 net.cpp:157] Top shape: 1024 (1024)
I0411 13:35:35.404623 27783 net.cpp:165] Memory required for data: 28327936
I0411 13:35:35.404626 27783 layer_factory.hpp:77] Creating layer conv1
I0411 13:35:35.404640 27783 net.cpp:100] Creating Layer conv1
I0411 13:35:35.404645 27783 net.cpp:434] conv1 <- data
I0411 13:35:35.404652 27783 net.cpp:408] conv1 -> conv1
I0411 13:35:35.406965 27783 net.cpp:150] Setting up conv1
I0411 13:35:35.406983 27783 net.cpp:157] Top shape: 1024 100 42 42 (180633600)
I0411 13:35:35.406986 27783 net.cpp:165] Memory required for data: 750862336
I0411 13:35:35.406998 27783 layer_factory.hpp:77] Creating layer conv1_prescale
I0411 13:35:35.407008 27783 net.cpp:100] Creating Layer conv1_prescale
I0411 13:35:35.407011 27783 net.cpp:434] conv1_prescale <- conv1
I0411 13:35:35.407016 27783 net.cpp:395] conv1_prescale -> conv1 (in-place)
I0411 13:35:35.407122 27783 net.cpp:150] Setting up conv1_prescale
I0411 13:35:35.407131 27783 net.cpp:157] Top shape: 1024 100 42 42 (180633600)
I0411 13:35:35.407135 27783 net.cpp:165] Memory required for data: 1473396736
I0411 13:35:35.407140 27783 layer_factory.hpp:77] Creating layer conv1_sTanH
I0411 13:35:35.407151 27783 net.cpp:100] Creating Layer conv1_sTanH
I0411 13:35:35.407155 27783 net.cpp:434] conv1_sTanH <- conv1
I0411 13:35:35.407160 27783 net.cpp:395] conv1_sTanH -> conv1 (in-place)
I0411 13:35:35.407357 27783 net.cpp:150] Setting up conv1_sTanH
I0411 13:35:35.407371 27783 net.cpp:157] Top shape: 1024 100 42 42 (180633600)
I0411 13:35:35.407374 27783 net.cpp:165] Memory required for data: 2195931136
I0411 13:35:35.407378 27783 layer_factory.hpp:77] Creating layer conv1_postscale
I0411 13:35:35.407384 27783 net.cpp:100] Creating Layer conv1_postscale
I0411 13:35:35.407389 27783 net.cpp:434] conv1_postscale <- conv1
I0411 13:35:35.407395 27783 net.cpp:395] conv1_postscale -> conv1 (in-place)
I0411 13:35:35.407505 27783 net.cpp:150] Setting up conv1_postscale
I0411 13:35:35.407512 27783 net.cpp:157] Top shape: 1024 100 42 42 (180633600)
I0411 13:35:35.407516 27783 net.cpp:165] Memory required for data: 2918465536
I0411 13:35:35.407521 27783 layer_factory.hpp:77] Creating layer pool1
I0411 13:35:35.407528 27783 net.cpp:100] Creating Layer pool1
I0411 13:35:35.407533 27783 net.cpp:434] pool1 <- conv1
I0411 13:35:35.407541 27783 net.cpp:408] pool1 -> pool1
I0411 13:35:35.407585 27783 net.cpp:150] Setting up pool1
I0411 13:35:35.407593 27783 net.cpp:157] Top shape: 1024 100 21 21 (45158400)
I0411 13:35:35.407596 27783 net.cpp:165] Memory required for data: 3099099136
I0411 13:35:35.407599 27783 layer_factory.hpp:77] Creating layer conv2
I0411 13:35:35.407609 27783 net.cpp:100] Creating Layer conv2
I0411 13:35:35.407615 27783 net.cpp:434] conv2 <- pool1
I0411 13:35:35.407621 27783 net.cpp:408] conv2 -> conv2
I0411 13:35:35.416119 27783 net.cpp:150] Setting up conv2
I0411 13:35:35.416138 27783 net.cpp:157] Top shape: 1024 150 18 18 (49766400)
I0411 13:35:35.416141 27783 net.cpp:165] Memory required for data: 3298164736
I0411 13:35:35.416153 27783 layer_factory.hpp:77] Creating layer conv2_prescale
I0411 13:35:35.416165 27783 net.cpp:100] Creating Layer conv2_prescale
I0411 13:35:35.416170 27783 net.cpp:434] conv2_prescale <- conv2
I0411 13:35:35.416180 27783 net.cpp:395] conv2_prescale -> conv2 (in-place)
I0411 13:35:35.416297 27783 net.cpp:150] Setting up conv2_prescale
I0411 13:35:35.416306 27783 net.cpp:157] Top shape: 1024 150 18 18 (49766400)
I0411 13:35:35.416311 27783 net.cpp:165] Memory required for data: 3497230336
I0411 13:35:35.416314 27783 layer_factory.hpp:77] Creating layer conv2_sTanH
I0411 13:35:35.416321 27783 net.cpp:100] Creating Layer conv2_sTanH
I0411 13:35:35.416326 27783 net.cpp:434] conv2_sTanH <- conv2
I0411 13:35:35.416329 27783 net.cpp:395] conv2_sTanH -> conv2 (in-place)
I0411 13:35:35.418099 27783 net.cpp:150] Setting up conv2_sTanH
I0411 13:35:35.418118 27783 net.cpp:157] Top shape: 1024 150 18 18 (49766400)
I0411 13:35:35.418120 27783 net.cpp:165] Memory required for data: 3696295936
I0411 13:35:35.418124 27783 layer_factory.hpp:77] Creating layer conv2_postscale
I0411 13:35:35.418134 27783 net.cpp:100] Creating Layer conv2_postscale
I0411 13:35:35.418140 27783 net.cpp:434] conv2_postscale <- conv2
I0411 13:35:35.418145 27783 net.cpp:395] conv2_postscale -> conv2 (in-place)
I0411 13:35:35.418256 27783 net.cpp:150] Setting up conv2_postscale
I0411 13:35:35.418264 27783 net.cpp:157] Top shape: 1024 150 18 18 (49766400)
I0411 13:35:35.418268 27783 net.cpp:165] Memory required for data: 3895361536
I0411 13:35:35.418273 27783 layer_factory.hpp:77] Creating layer pool2
I0411 13:35:35.418280 27783 net.cpp:100] Creating Layer pool2
I0411 13:35:35.418285 27783 net.cpp:434] pool2 <- conv2
I0411 13:35:35.418292 27783 net.cpp:408] pool2 -> pool2
I0411 13:35:35.418342 27783 net.cpp:150] Setting up pool2
I0411 13:35:35.418351 27783 net.cpp:157] Top shape: 1024 150 9 9 (12441600)
I0411 13:35:35.418355 27783 net.cpp:165] Memory required for data: 3945127936
I0411 13:35:35.418359 27783 layer_factory.hpp:77] Creating layer conv3
I0411 13:35:35.418368 27783 net.cpp:100] Creating Layer conv3
I0411 13:35:35.418372 27783 net.cpp:434] conv3 <- pool2
I0411 13:35:35.418378 27783 net.cpp:408] conv3 -> conv3
I0411 13:35:35.432364 27783 net.cpp:150] Setting up conv3
I0411 13:35:35.432404 27783 net.cpp:157] Top shape: 1024 250 6 6 (9216000)
I0411 13:35:35.432411 27783 net.cpp:165] Memory required for data: 3981991936
I0411 13:35:35.432431 27783 layer_factory.hpp:77] Creating layer conv3_prescale
I0411 13:35:35.432451 27783 net.cpp:100] Creating Layer conv3_prescale
I0411 13:35:35.432458 27783 net.cpp:434] conv3_prescale <- conv3
I0411 13:35:35.432469 27783 net.cpp:395] conv3_prescale -> conv3 (in-place)
I0411 13:35:35.432659 27783 net.cpp:150] Setting up conv3_prescale
I0411 13:35:35.432673 27783 net.cpp:157] Top shape: 1024 250 6 6 (9216000)
I0411 13:35:35.432680 27783 net.cpp:165] Memory required for data: 4018855936
I0411 13:35:35.432688 27783 layer_factory.hpp:77] Creating layer conv3_sTanH
I0411 13:35:35.432699 27783 net.cpp:100] Creating Layer conv3_sTanH
I0411 13:35:35.432708 27783 net.cpp:434] conv3_sTanH <- conv3
I0411 13:35:35.432718 27783 net.cpp:395] conv3_sTanH -> conv3 (in-place)
I0411 13:35:35.437338 27783 net.cpp:150] Setting up conv3_sTanH
I0411 13:35:35.437371 27783 net.cpp:157] Top shape: 1024 250 6 6 (9216000)
I0411 13:35:35.437378 27783 net.cpp:165] Memory required for data: 4055719936
I0411 13:35:35.437384 27783 layer_factory.hpp:77] Creating layer conv3_postscale
I0411 13:35:35.437402 27783 net.cpp:100] Creating Layer conv3_postscale
I0411 13:35:35.437409 27783 net.cpp:434] conv3_postscale <- conv3
I0411 13:35:35.437420 27783 net.cpp:395] conv3_postscale -> conv3 (in-place)
I0411 13:35:35.437593 27783 net.cpp:150] Setting up conv3_postscale
I0411 13:35:35.437608 27783 net.cpp:157] Top shape: 1024 250 6 6 (9216000)
I0411 13:35:35.437613 27783 net.cpp:165] Memory required for data: 4092583936
I0411 13:35:35.437621 27783 layer_factory.hpp:77] Creating layer pool3
I0411 13:35:35.437640 27783 net.cpp:100] Creating Layer pool3
I0411 13:35:35.437649 27783 net.cpp:434] pool3 <- conv3
I0411 13:35:35.437671 27783 net.cpp:408] pool3 -> pool3
I0411 13:35:35.437746 27783 net.cpp:150] Setting up pool3
I0411 13:35:35.437758 27783 net.cpp:157] Top shape: 1024 250 3 3 (2304000)
I0411 13:35:35.437764 27783 net.cpp:165] Memory required for data: 4101799936
I0411 13:35:35.437769 27783 layer_factory.hpp:77] Creating layer fc4_300
I0411 13:35:35.437784 27783 net.cpp:100] Creating Layer fc4_300
I0411 13:35:35.437791 27783 net.cpp:434] fc4_300 <- pool3
I0411 13:35:35.437799 27783 net.cpp:408] fc4_300 -> fc4_300
I0411 13:35:35.446579 27783 net.cpp:150] Setting up fc4_300
I0411 13:35:35.446604 27783 net.cpp:157] Top shape: 1024 300 (307200)
I0411 13:35:35.446609 27783 net.cpp:165] Memory required for data: 4103028736
I0411 13:35:35.446648 27783 layer_factory.hpp:77] Creating layer fc4_prescale
I0411 13:35:35.446662 27783 net.cpp:100] Creating Layer fc4_prescale
I0411 13:35:35.446671 27783 net.cpp:434] fc4_prescale <- fc4_300
I0411 13:35:35.446681 27783 net.cpp:395] fc4_prescale -> fc4_300 (in-place)
I0411 13:35:35.446841 27783 net.cpp:150] Setting up fc4_prescale
I0411 13:35:35.446853 27783 net.cpp:157] Top shape: 1024 300 (307200)
I0411 13:35:35.446859 27783 net.cpp:165] Memory required for data: 4104257536
I0411 13:35:35.446866 27783 layer_factory.hpp:77] Creating layer fc4_sTanH
I0411 13:35:35.446877 27783 net.cpp:100] Creating Layer fc4_sTanH
I0411 13:35:35.446883 27783 net.cpp:434] fc4_sTanH <- fc4_300
I0411 13:35:35.446890 27783 net.cpp:395] fc4_sTanH -> fc4_300 (in-place)
I0411 13:35:35.447213 27783 net.cpp:150] Setting up fc4_sTanH
I0411 13:35:35.447230 27783 net.cpp:157] Top shape: 1024 300 (307200)
I0411 13:35:35.447237 27783 net.cpp:165] Memory required for data: 4105486336
I0411 13:35:35.447242 27783 layer_factory.hpp:77] Creating layer fc4_postscale
I0411 13:35:35.447253 27783 net.cpp:100] Creating Layer fc4_postscale
I0411 13:35:35.447259 27783 net.cpp:434] fc4_postscale <- fc4_300
I0411 13:35:35.447270 27783 net.cpp:395] fc4_postscale -> fc4_300 (in-place)
I0411 13:35:35.447435 27783 net.cpp:150] Setting up fc4_postscale
I0411 13:35:35.447448 27783 net.cpp:157] Top shape: 1024 300 (307200)
I0411 13:35:35.447453 27783 net.cpp:165] Memory required for data: 4106715136
I0411 13:35:35.447460 27783 layer_factory.hpp:77] Creating layer drop4
I0411 13:35:35.447473 27783 net.cpp:100] Creating Layer drop4
I0411 13:35:35.447479 27783 net.cpp:434] drop4 <- fc4_300
I0411 13:35:35.447489 27783 net.cpp:395] drop4 -> fc4_300 (in-place)
I0411 13:35:35.447528 27783 net.cpp:150] Setting up drop4
I0411 13:35:35.447540 27783 net.cpp:157] Top shape: 1024 300 (307200)
I0411 13:35:35.447546 27783 net.cpp:165] Memory required for data: 4107943936
I0411 13:35:35.447551 27783 layer_factory.hpp:77] Creating layer fc5_67
I0411 13:35:35.447561 27783 net.cpp:100] Creating Layer fc5_67
I0411 13:35:35.447567 27783 net.cpp:434] fc5_67 <- fc4_300
I0411 13:35:35.447574 27783 net.cpp:408] fc5_67 -> fc5_classes
I0411 13:35:35.447994 27783 net.cpp:150] Setting up fc5_67
I0411 13:35:35.448020 27783 net.cpp:157] Top shape: 1024 67 (68608)
I0411 13:35:35.448024 27783 net.cpp:165] Memory required for data: 4108218368
I0411 13:35:35.448041 27783 layer_factory.hpp:77] Creating layer fc5_classes_fc5_67_0_split
I0411 13:35:35.448053 27783 net.cpp:100] Creating Layer fc5_classes_fc5_67_0_split
I0411 13:35:35.448060 27783 net.cpp:434] fc5_classes_fc5_67_0_split <- fc5_classes
I0411 13:35:35.448068 27783 net.cpp:408] fc5_classes_fc5_67_0_split -> fc5_classes_fc5_67_0_split_0
I0411 13:35:35.448081 27783 net.cpp:408] fc5_classes_fc5_67_0_split -> fc5_classes_fc5_67_0_split_1
I0411 13:35:35.448092 27783 net.cpp:408] fc5_classes_fc5_67_0_split -> fc5_classes_fc5_67_0_split_2
I0411 13:35:35.448176 27783 net.cpp:150] Setting up fc5_classes_fc5_67_0_split
I0411 13:35:35.448186 27783 net.cpp:157] Top shape: 1024 67 (68608)
I0411 13:35:35.448194 27783 net.cpp:157] Top shape: 1024 67 (68608)
I0411 13:35:35.448197 27783 net.cpp:157] Top shape: 1024 67 (68608)
I0411 13:35:35.448202 27783 net.cpp:165] Memory required for data: 4109041664
I0411 13:35:35.448207 27783 layer_factory.hpp:77] Creating layer loss
I0411 13:35:35.448215 27783 net.cpp:100] Creating Layer loss
I0411 13:35:35.448222 27783 net.cpp:434] loss <- fc5_classes_fc5_67_0_split_0
I0411 13:35:35.448228 27783 net.cpp:434] loss <- label_data_1_split_0
I0411 13:35:35.448237 27783 net.cpp:408] loss -> loss
…
