…
I0411 13:24:44.690428  1455 net.cpp:322] The NetState phase (0) differed from the phase (1) specified by a rule in layer accuracy_5
I0411 13:24:44.690588  1455 net.cpp:58] Initializing net from parameters: 
state {
  phase: TRAIN
  level: 0
  stage: ""
}
layer {
  name: "data"
  type: "Data"
  top: "data"
  top: "label"
  include {
    phase: TRAIN
  }
  transform_param {
    scale: 0.0039215689
    mirror: false
    crop_size: 48
    mean_value: 132
    mean_value: 132
    mean_value: 131
  }
  data_param {
    source: "../local_data/lmdb/rtsd-r1/CoNorm/train/lmdb"
    batch_size: 1024
    backend: LMDB
  }
}
layer {
  name: "conv1"
  type: "Convolution"
  bottom: "data"
  top: "conv1"
  convolution_param {
    num_output: 100
    pad: 0
    kernel_size: 7
    group: 1
    stride: 1
    weight_filler {
      type: "xavier"
    }
  }
}
layer {
  name: "conv1_prescale"
  type: "Scale"
  bottom: "conv1"
  top: "conv1"
  param {
    lr_mult: 0
    decay_mult: 0
  }
  scale_param {
    filler {
      value: 0.6666
    }
    bias_term: false
  }
}
layer {
  name: "conv1_sTanH"
  type: "TanH"
  bottom: "conv1"
  top: "conv1"
}
layer {
  name: "conv1_postscale"
  type: "Scale"
  bottom: "conv1"
  top: "conv1"
  param {
    lr_mult: 0
    decay_mult: 0
  }
  scale_param {
    filler {
      value: 1.7159
    }
    bias_term: false
  }
}
layer {
  name: "pool1"
  type: "Pooling"
  bottom: "conv1"
  top: "pool1"
  pooling_param {
    pool: MAX
    kernel_size: 2
    stride: 2
  }
}
layer {
  name: "conv2"
  type: "Convolution"
  bottom: "pool1"
  top: "conv2"
  convolution_param {
    num_output: 150
    pad: 0
    kernel_size: 4
    group: 1
    stride: 1
    weight_filler {
      type: "xavier"
    }
  }
}
layer {
  name: "conv2_prescale"
  type: "Scale"
  bottom: "conv2"
  top: "conv2"
  param {
    lr_mult: 0
    decay_mult: 0
  }
  scale_param {
    filler {
      value: 0.6666
    }
    bias_term: false
  }
}
layer {
  name: "conv2_sTanH"
  type: "TanH"
  bottom: "conv2"
  top: "conv2"
}
layer {
  name: "conv2_postscale"
  type: "Scale"
  bottom: "conv2"
  top: "conv2"
  param {
    lr_mult: 0
    decay_mult: 0
  }
  scale_param {
    filler {
      value: 1.7159
    }
    bias_term: false
  }
}
layer {
  name: "pool2"
  type: "Pooling"
  bottom: "conv2"
  top: "pool2"
  pooling_param {
    pool: MAX
    kernel_size: 2
    stride: 2
  }
}
layer {
  name: "conv3"
  type: "Convolution"
  bottom: "pool2"
  top: "conv3"
  convolution_param {
    num_output: 250
    pad: 0
    kernel_size: 4
    group: 1
    stride: 1
    weight_filler {
      type: "xavier"
    }
  }
}
layer {
  name: "conv3_prescale"
  type: "Scale"
  bottom: "conv3"
  top: "conv3"
  param {
    lr_mult: 0
    decay_mult: 0
  }
  scale_param {
    filler {
      value: 0.6666
    }
    bias_term: false
  }
}
layer {
  name: "conv3_sTanH"
  type: "TanH"
  bottom: "conv3"
  top: "conv3"
}
layer {
  name: "conv3_postscale"
  type: "Scale"
  bottom: "conv3"
  top: "conv3"
  param {
    lr_mult: 0
    decay_mult: 0
  }
  scale_param {
    filler {
      value: 1.7159
    }
    bias_term: false
  }
}
layer {
  name: "pool3"
  type: "Pooling"
  bottom: "conv3"
  top: "pool3"
  pooling_param {
    pool: MAX
    kernel_size: 2
    stride: 2
  }
}
layer {
  name: "fc4_300"
  type: "InnerProduct"
  bottom: "pool3"
  top: "fc4_300"
  inner_product_param {
    num_output: 300
    weight_filler {
      type: "xavier"
    }
  }
}
layer {
  name: "fc4_prescale"
  type: "Scale"
  bottom: "fc4_300"
  top: "fc4_300"
  param {
    lr_mult: 0
    decay_mult: 0
  }
  scale_param {
    filler {
      value: 0.6666
    }
    bias_term: false
  }
}
layer {
  name: "fc4_sTanH"
  type: "TanH"
  bottom: "fc4_300"
  top: "fc4_300"
}
layer {
  name: "fc4_postscale"
  type: "Scale"
  bottom: "fc4_300"
  top: "fc4_300"
  param {
    lr_mult: 0
    decay_mult: 0
  }
  scale_param {
    filler {
      value: 1.7159
    }
    bias_term: false
  }
}
layer {
  name: "drop4"
  type: "Dropout"
  bottom: "fc4_300"
  top: "fc4_300"
  dropout_param {
    dropout_ratio: 0.4
  }
}
layer {
  name: "fc5_67"
  type: "InnerProduct"
  bottom: "fc4_300"
  top: "fc5_classes"
  inner_product_param {
    num_output: 67
    weight_filler {
      type: "xavier"
    }
  }
}
layer {
  name: "loss"
  type: "SoftmaxWithLoss"
  bottom: "fc5_classes"
  bottom: "label"
  top: "loss"
}
I0411 13:24:44.690696  1455 layer_factory.hpp:77] Creating layer data
I0411 13:24:44.691781  1455 net.cpp:100] Creating Layer data
I0411 13:24:44.691797  1455 net.cpp:408] data -> data
I0411 13:24:44.691821  1455 net.cpp:408] data -> label
I0411 13:24:44.694424  1559 db_lmdb.cpp:35] Opened lmdb ../local_data/lmdb/rtsd-r1/CoNorm/train/lmdb
I0411 13:24:44.711570  1455 data_layer.cpp:41] output data size: 1024,3,48,48
I0411 13:24:44.771232  1455 net.cpp:150] Setting up data
I0411 13:24:44.771263  1455 net.cpp:157] Top shape: 1024 3 48 48 (7077888)
I0411 13:24:44.771270  1455 net.cpp:157] Top shape: 1024 (1024)
I0411 13:24:44.771273  1455 net.cpp:165] Memory required for data: 28315648
I0411 13:24:44.771283  1455 layer_factory.hpp:77] Creating layer conv1
I0411 13:24:44.771306  1455 net.cpp:100] Creating Layer conv1
I0411 13:24:44.771313  1455 net.cpp:434] conv1 <- data
I0411 13:24:44.771327  1455 net.cpp:408] conv1 -> conv1
I0411 13:24:45.278231  1455 net.cpp:150] Setting up conv1
I0411 13:24:45.278262  1455 net.cpp:157] Top shape: 1024 100 42 42 (180633600)
I0411 13:24:45.278267  1455 net.cpp:165] Memory required for data: 750850048
I0411 13:24:45.278291  1455 layer_factory.hpp:77] Creating layer conv1_prescale
I0411 13:24:45.278309  1455 net.cpp:100] Creating Layer conv1_prescale
I0411 13:24:45.278316  1455 net.cpp:434] conv1_prescale <- conv1
I0411 13:24:45.278324  1455 net.cpp:395] conv1_prescale -> conv1 (in-place)
I0411 13:24:45.278455  1455 net.cpp:150] Setting up conv1_prescale
I0411 13:24:45.278465  1455 net.cpp:157] Top shape: 1024 100 42 42 (180633600)
I0411 13:24:45.278470  1455 net.cpp:165] Memory required for data: 1473384448
I0411 13:24:45.278477  1455 layer_factory.hpp:77] Creating layer conv1_sTanH
I0411 13:24:45.278486  1455 net.cpp:100] Creating Layer conv1_sTanH
I0411 13:24:45.278491  1455 net.cpp:434] conv1_sTanH <- conv1
I0411 13:24:45.278496  1455 net.cpp:395] conv1_sTanH -> conv1 (in-place)
I0411 13:24:45.278741  1455 net.cpp:150] Setting up conv1_sTanH
I0411 13:24:45.278755  1455 net.cpp:157] Top shape: 1024 100 42 42 (180633600)
I0411 13:24:45.278759  1455 net.cpp:165] Memory required for data: 2195918848
I0411 13:24:45.278764  1455 layer_factory.hpp:77] Creating layer conv1_postscale
I0411 13:24:45.278772  1455 net.cpp:100] Creating Layer conv1_postscale
I0411 13:24:45.278776  1455 net.cpp:434] conv1_postscale <- conv1
I0411 13:24:45.278782  1455 net.cpp:395] conv1_postscale -> conv1 (in-place)
I0411 13:24:45.278900  1455 net.cpp:150] Setting up conv1_postscale
I0411 13:24:45.278910  1455 net.cpp:157] Top shape: 1024 100 42 42 (180633600)
I0411 13:24:45.278913  1455 net.cpp:165] Memory required for data: 2918453248
I0411 13:24:45.278920  1455 layer_factory.hpp:77] Creating layer pool1
I0411 13:24:45.278929  1455 net.cpp:100] Creating Layer pool1
I0411 13:24:45.278935  1455 net.cpp:434] pool1 <- conv1
I0411 13:24:45.278942  1455 net.cpp:408] pool1 -> pool1
I0411 13:24:45.279024  1455 net.cpp:150] Setting up pool1
I0411 13:24:45.279036  1455 net.cpp:157] Top shape: 1024 100 21 21 (45158400)
I0411 13:24:45.279038  1455 net.cpp:165] Memory required for data: 3099086848
I0411 13:24:45.279042  1455 layer_factory.hpp:77] Creating layer conv2
I0411 13:24:45.279053  1455 net.cpp:100] Creating Layer conv2
I0411 13:24:45.279059  1455 net.cpp:434] conv2 <- pool1
I0411 13:24:45.279065  1455 net.cpp:408] conv2 -> conv2
I0411 13:24:45.288265  1455 net.cpp:150] Setting up conv2
I0411 13:24:45.288285  1455 net.cpp:157] Top shape: 1024 150 18 18 (49766400)
I0411 13:24:45.288290  1455 net.cpp:165] Memory required for data: 3298152448
I0411 13:24:45.288301  1455 layer_factory.hpp:77] Creating layer conv2_prescale
I0411 13:24:45.288311  1455 net.cpp:100] Creating Layer conv2_prescale
I0411 13:24:45.288316  1455 net.cpp:434] conv2_prescale <- conv2
I0411 13:24:45.288322  1455 net.cpp:395] conv2_prescale -> conv2 (in-place)
I0411 13:24:45.288451  1455 net.cpp:150] Setting up conv2_prescale
I0411 13:24:45.288461  1455 net.cpp:157] Top shape: 1024 150 18 18 (49766400)
I0411 13:24:45.288465  1455 net.cpp:165] Memory required for data: 3497218048
I0411 13:24:45.288471  1455 layer_factory.hpp:77] Creating layer conv2_sTanH
I0411 13:24:45.288480  1455 net.cpp:100] Creating Layer conv2_sTanH
I0411 13:24:45.288486  1455 net.cpp:434] conv2_sTanH <- conv2
I0411 13:24:45.288491  1455 net.cpp:395] conv2_sTanH -> conv2 (in-place)
I0411 13:24:45.289976  1455 net.cpp:150] Setting up conv2_sTanH
I0411 13:24:45.289997  1455 net.cpp:157] Top shape: 1024 150 18 18 (49766400)
I0411 13:24:45.290001  1455 net.cpp:165] Memory required for data: 3696283648
I0411 13:24:45.290006  1455 layer_factory.hpp:77] Creating layer conv2_postscale
I0411 13:24:45.290015  1455 net.cpp:100] Creating Layer conv2_postscale
I0411 13:24:45.290021  1455 net.cpp:434] conv2_postscale <- conv2
I0411 13:24:45.290029  1455 net.cpp:395] conv2_postscale -> conv2 (in-place)
I0411 13:24:45.290148  1455 net.cpp:150] Setting up conv2_postscale
I0411 13:24:45.290158  1455 net.cpp:157] Top shape: 1024 150 18 18 (49766400)
I0411 13:24:45.290161  1455 net.cpp:165] Memory required for data: 3895349248
I0411 13:24:45.290168  1455 layer_factory.hpp:77] Creating layer pool2
I0411 13:24:45.290176  1455 net.cpp:100] Creating Layer pool2
I0411 13:24:45.290181  1455 net.cpp:434] pool2 <- conv2
I0411 13:24:45.290187  1455 net.cpp:408] pool2 -> pool2
I0411 13:24:45.290235  1455 net.cpp:150] Setting up pool2
I0411 13:24:45.290243  1455 net.cpp:157] Top shape: 1024 150 9 9 (12441600)
I0411 13:24:45.290246  1455 net.cpp:165] Memory required for data: 3945115648
I0411 13:24:45.290251  1455 layer_factory.hpp:77] Creating layer conv3
I0411 13:24:45.290261  1455 net.cpp:100] Creating Layer conv3
I0411 13:24:45.290266  1455 net.cpp:434] conv3 <- pool2
I0411 13:24:45.290272  1455 net.cpp:408] conv3 -> conv3
I0411 13:24:45.297605  1455 net.cpp:150] Setting up conv3
I0411 13:24:45.297626  1455 net.cpp:157] Top shape: 1024 250 6 6 (9216000)
I0411 13:24:45.297631  1455 net.cpp:165] Memory required for data: 3981979648
I0411 13:24:45.297643  1455 layer_factory.hpp:77] Creating layer conv3_prescale
I0411 13:24:45.297655  1455 net.cpp:100] Creating Layer conv3_prescale
I0411 13:24:45.297660  1455 net.cpp:434] conv3_prescale <- conv3
I0411 13:24:45.297667  1455 net.cpp:395] conv3_prescale -> conv3 (in-place)
I0411 13:24:45.297781  1455 net.cpp:150] Setting up conv3_prescale
I0411 13:24:45.297791  1455 net.cpp:157] Top shape: 1024 250 6 6 (9216000)
I0411 13:24:45.297794  1455 net.cpp:165] Memory required for data: 4018843648
I0411 13:24:45.297801  1455 layer_factory.hpp:77] Creating layer conv3_sTanH
I0411 13:24:45.297806  1455 net.cpp:100] Creating Layer conv3_sTanH
I0411 13:24:45.297811  1455 net.cpp:434] conv3_sTanH <- conv3
I0411 13:24:45.297816  1455 net.cpp:395] conv3_sTanH -> conv3 (in-place)
I0411 13:24:45.305459  1455 net.cpp:150] Setting up conv3_sTanH
I0411 13:24:45.305481  1455 net.cpp:157] Top shape: 1024 250 6 6 (9216000)
I0411 13:24:45.305485  1455 net.cpp:165] Memory required for data: 4055707648
I0411 13:24:45.305510  1455 layer_factory.hpp:77] Creating layer conv3_postscale
I0411 13:24:45.305521  1455 net.cpp:100] Creating Layer conv3_postscale
I0411 13:24:45.305527  1455 net.cpp:434] conv3_postscale <- conv3
I0411 13:24:45.305534  1455 net.cpp:395] conv3_postscale -> conv3 (in-place)
I0411 13:24:45.305655  1455 net.cpp:150] Setting up conv3_postscale
I0411 13:24:45.305666  1455 net.cpp:157] Top shape: 1024 250 6 6 (9216000)
I0411 13:24:45.305670  1455 net.cpp:165] Memory required for data: 4092571648
I0411 13:24:45.305675  1455 layer_factory.hpp:77] Creating layer pool3
I0411 13:24:45.305682  1455 net.cpp:100] Creating Layer pool3
I0411 13:24:45.305686  1455 net.cpp:434] pool3 <- conv3
I0411 13:24:45.305693  1455 net.cpp:408] pool3 -> pool3
I0411 13:24:45.305739  1455 net.cpp:150] Setting up pool3
I0411 13:24:45.305748  1455 net.cpp:157] Top shape: 1024 250 3 3 (2304000)
I0411 13:24:45.305752  1455 net.cpp:165] Memory required for data: 4101787648
I0411 13:24:45.305755  1455 layer_factory.hpp:77] Creating layer fc4_300
I0411 13:24:45.305765  1455 net.cpp:100] Creating Layer fc4_300
I0411 13:24:45.305769  1455 net.cpp:434] fc4_300 <- pool3
I0411 13:24:45.305776  1455 net.cpp:408] fc4_300 -> fc4_300
I0411 13:24:45.320188  1455 net.cpp:150] Setting up fc4_300
I0411 13:24:45.320209  1455 net.cpp:157] Top shape: 1024 300 (307200)
I0411 13:24:45.320214  1455 net.cpp:165] Memory required for data: 4103016448
I0411 13:24:45.320222  1455 layer_factory.hpp:77] Creating layer fc4_prescale
I0411 13:24:45.320235  1455 net.cpp:100] Creating Layer fc4_prescale
I0411 13:24:45.320240  1455 net.cpp:434] fc4_prescale <- fc4_300
I0411 13:24:45.320247  1455 net.cpp:395] fc4_prescale -> fc4_300 (in-place)
I0411 13:24:45.320358  1455 net.cpp:150] Setting up fc4_prescale
I0411 13:24:45.320369  1455 net.cpp:157] Top shape: 1024 300 (307200)
I0411 13:24:45.320374  1455 net.cpp:165] Memory required for data: 4104245248
I0411 13:24:45.320379  1455 layer_factory.hpp:77] Creating layer fc4_sTanH
I0411 13:24:45.320387  1455 net.cpp:100] Creating Layer fc4_sTanH
I0411 13:24:45.320392  1455 net.cpp:434] fc4_sTanH <- fc4_300
I0411 13:24:45.320399  1455 net.cpp:395] fc4_sTanH -> fc4_300 (in-place)
I0411 13:24:45.320626  1455 net.cpp:150] Setting up fc4_sTanH
I0411 13:24:45.320641  1455 net.cpp:157] Top shape: 1024 300 (307200)
I0411 13:24:45.320646  1455 net.cpp:165] Memory required for data: 4105474048
I0411 13:24:45.320649  1455 layer_factory.hpp:77] Creating layer fc4_postscale
I0411 13:24:45.320657  1455 net.cpp:100] Creating Layer fc4_postscale
I0411 13:24:45.320662  1455 net.cpp:434] fc4_postscale <- fc4_300
I0411 13:24:45.320669  1455 net.cpp:395] fc4_postscale -> fc4_300 (in-place)
I0411 13:24:45.320785  1455 net.cpp:150] Setting up fc4_postscale
I0411 13:24:45.320794  1455 net.cpp:157] Top shape: 1024 300 (307200)
I0411 13:24:45.320798  1455 net.cpp:165] Memory required for data: 4106702848
I0411 13:24:45.320803  1455 layer_factory.hpp:77] Creating layer drop4
I0411 13:24:45.320811  1455 net.cpp:100] Creating Layer drop4
I0411 13:24:45.320816  1455 net.cpp:434] drop4 <- fc4_300
I0411 13:24:45.320822  1455 net.cpp:395] drop4 -> fc4_300 (in-place)
I0411 13:24:45.320852  1455 net.cpp:150] Setting up drop4
I0411 13:24:45.320860  1455 net.cpp:157] Top shape: 1024 300 (307200)
I0411 13:24:45.320863  1455 net.cpp:165] Memory required for data: 4107931648
I0411 13:24:45.320868  1455 layer_factory.hpp:77] Creating layer fc5_67
I0411 13:24:45.320874  1455 net.cpp:100] Creating Layer fc5_67
I0411 13:24:45.320879  1455 net.cpp:434] fc5_67 <- fc4_300
I0411 13:24:45.320885  1455 net.cpp:408] fc5_67 -> fc5_classes
I0411 13:24:45.322607  1455 net.cpp:150] Setting up fc5_67
I0411 13:24:45.322624  1455 net.cpp:157] Top shape: 1024 67 (68608)
I0411 13:24:45.322628  1455 net.cpp:165] Memory required for data: 4108206080
I0411 13:24:45.322641  1455 layer_factory.hpp:77] Creating layer loss
I0411 13:24:45.322651  1455 net.cpp:100] Creating Layer loss
I0411 13:24:45.322657  1455 net.cpp:434] loss <- fc5_classes
I0411 13:24:45.322662  1455 net.cpp:434] loss <- label
I0411 13:24:45.322688  1455 net.cpp:408] loss -> loss
I0411 13:24:45.322706  1455 layer_factory.hpp:77] Creating layer loss
…
I0411 13:24:45.323593  1455 solver.cpp:193] Creating test net (#0) specified by test_net file: ./Prototxt/experiment_9/rtsd-r1/CoNorm/trial_1/test.prototxt
I0411 13:24:45.323820  1455 net.cpp:58] Initializing net from parameters: 
state {
  phase: TEST
}
layer {
  name: "data"
  type: "Data"
  top: "data"
  top: "label"
  include {
    phase: TEST
  }
  transform_param {
    scale: 0.0039215689
    mirror: false
    crop_size: 48
    mean_value: 133
    mean_value: 133
    mean_value: 132
  }
  data_param {
    source: "../local_data/lmdb/rtsd-r1/CoNorm/test/lmdb"
    batch_size: 1024
    backend: LMDB
  }
}
layer {
  name: "conv1"
  type: "Convolution"
  bottom: "data"
  top: "conv1"
  convolution_param {
    num_output: 100
    pad: 0
    kernel_size: 7
    group: 1
    stride: 1
    weight_filler {
      type: "xavier"
    }
  }
}
layer {
  name: "conv1_prescale"
  type: "Scale"
  bottom: "conv1"
  top: "conv1"
  param {
    lr_mult: 0
    decay_mult: 0
  }
  scale_param {
    filler {
      value: 0.6666
    }
    bias_term: false
  }
}
layer {
  name: "conv1_sTanH"
  type: "TanH"
  bottom: "conv1"
  top: "conv1"
}
layer {
  name: "conv1_postscale"
  type: "Scale"
  bottom: "conv1"
  top: "conv1"
  param {
    lr_mult: 0
    decay_mult: 0
  }
  scale_param {
    filler {
      value: 1.7159
    }
    bias_term: false
  }
}
layer {
  name: "pool1"
  type: "Pooling"
  bottom: "conv1"
  top: "pool1"
  pooling_param {
    pool: MAX
    kernel_size: 2
    stride: 2
  }
}
layer {
  name: "conv2"
  type: "Convolution"
  bottom: "pool1"
  top: "conv2"
  convolution_param {
    num_output: 150
    pad: 0
    kernel_size: 4
    group: 1
    stride: 1
    weight_filler {
      type: "xavier"
    }
  }
}
layer {
  name: "conv2_prescale"
  type: "Scale"
  bottom: "conv2"
  top: "conv2"
  param {
    lr_mult: 0
    decay_mult: 0
  }
  scale_param {
    filler {
      value: 0.6666
    }
    bias_term: false
  }
}
layer {
  name: "conv2_sTanH"
  type: "TanH"
  bottom: "conv2"
  top: "conv2"
}
layer {
  name: "conv2_postscale"
  type: "Scale"
  bottom: "conv2"
  top: "conv2"
  param {
    lr_mult: 0
    decay_mult: 0
  }
  scale_param {
    filler {
      value: 1.7159
    }
    bias_term: false
  }
}
layer {
  name: "pool2"
  type: "Pooling"
  bottom: "conv2"
  top: "pool2"
  pooling_param {
    pool: MAX
    kernel_size: 2
    stride: 2
  }
}
layer {
  name: "conv3"
  type: "Convolution"
  bottom: "pool2"
  top: "conv3"
  convolution_param {
    num_output: 250
    pad: 0
    kernel_size: 4
    group: 1
    stride: 1
    weight_filler {
      type: "xavier"
    }
  }
}
layer {
  name: "conv3_prescale"
  type: "Scale"
  bottom: "conv3"
  top: "conv3"
  param {
    lr_mult: 0
    decay_mult: 0
  }
  scale_param {
    filler {
      value: 0.6666
    }
    bias_term: false
  }
}
layer {
  name: "conv3_sTanH"
  type: "TanH"
  bottom: "conv3"
  top: "conv3"
}
layer {
  name: "conv3_postscale"
  type: "Scale"
  bottom: "conv3"
  top: "conv3"
  param {
    lr_mult: 0
    decay_mult: 0
  }
  scale_param {
    filler {
      value: 1.7159
    }
    bias_term: false
  }
}
layer {
  name: "pool3"
  type: "Pooling"
  bottom: "conv3"
  top: "pool3"
  pooling_param {
    pool: MAX
    kernel_size: 2
    stride: 2
  }
}
layer {
  name: "fc4_300"
  type: "InnerProduct"
  bottom: "pool3"
  top: "fc4_300"
  inner_product_param {
    num_output: 300
    weight_filler {
      type: "xavier"
    }
  }
}
layer {
  name: "fc4_prescale"
  type: "Scale"
  bottom: "fc4_300"
  top: "fc4_300"
  param {
    lr_mult: 0
    decay_mult: 0
  }
  scale_param {
    filler {
      value: 0.6666
    }
    bias_term: false
  }
}
layer {
  name: "fc4_sTanH"
  type: "TanH"
  bottom: "fc4_300"
  top: "fc4_300"
}
layer {
  name: "fc4_postscale"
  type: "Scale"
  bottom: "fc4_300"
  top: "fc4_300"
  param {
    lr_mult: 0
    decay_mult: 0
  }
  scale_param {
    filler {
      value: 1.7159
    }
    bias_term: false
  }
}
layer {
  name: "drop4"
  type: "Dropout"
  bottom: "fc4_300"
  top: "fc4_300"
  dropout_param {
    dropout_ratio: 0.4
  }
}
layer {
  name: "fc5_67"
  type: "InnerProduct"
  bottom: "fc4_300"
  top: "fc5_classes"
  inner_product_param {
    num_output: 67
    weight_filler {
      type: "xavier"
    }
  }
}
layer {
  name: "loss"
  type: "SoftmaxWithLoss"
  bottom: "fc5_classes"
  bottom: "label"
  top: "loss"
}
layer {
  name: "accuracy_1"
  type: "Accuracy"
  bottom: "fc5_classes"
  bottom: "label"
  top: "accuracy_1"
  include {
    phase: TEST
  }
  accuracy_param {
    top_k: 1
  }
}
layer {
  name: "accuracy_5"
  type: "Accuracy"
  bottom: "fc5_classes"
  bottom: "label"
  top: "accuracy_5"
  include {
    phase: TEST
  }
  accuracy_param {
    top_k: 5
  }
}
I0411 13:24:45.323974  1455 layer_factory.hpp:77] Creating layer data
I0411 13:24:45.324702  1455 net.cpp:100] Creating Layer data
I0411 13:24:45.324714  1455 net.cpp:408] data -> data
I0411 13:24:45.324726  1455 net.cpp:408] data -> label
I0411 13:24:45.328346  1617 db_lmdb.cpp:35] Opened lmdb ../local_data/lmdb/rtsd-r1/CoNorm/test/lmdb
I0411 13:24:45.328528  1455 data_layer.cpp:41] output data size: 1024,3,48,48
I0411 13:24:45.386973  1455 net.cpp:150] Setting up data
I0411 13:24:45.387008  1455 net.cpp:157] Top shape: 1024 3 48 48 (7077888)
I0411 13:24:45.387015  1455 net.cpp:157] Top shape: 1024 (1024)
I0411 13:24:45.387018  1455 net.cpp:165] Memory required for data: 28315648
I0411 13:24:45.387025  1455 layer_factory.hpp:77] Creating layer label_data_1_split
I0411 13:24:45.387040  1455 net.cpp:100] Creating Layer label_data_1_split
I0411 13:24:45.387045  1455 net.cpp:434] label_data_1_split <- label
I0411 13:24:45.387055  1455 net.cpp:408] label_data_1_split -> label_data_1_split_0
I0411 13:24:45.387070  1455 net.cpp:408] label_data_1_split -> label_data_1_split_1
I0411 13:24:45.387104  1455 net.cpp:408] label_data_1_split -> label_data_1_split_2
I0411 13:24:45.387217  1455 net.cpp:150] Setting up label_data_1_split
I0411 13:24:45.387228  1455 net.cpp:157] Top shape: 1024 (1024)
I0411 13:24:45.387233  1455 net.cpp:157] Top shape: 1024 (1024)
I0411 13:24:45.387238  1455 net.cpp:157] Top shape: 1024 (1024)
I0411 13:24:45.387243  1455 net.cpp:165] Memory required for data: 28327936
I0411 13:24:45.387246  1455 layer_factory.hpp:77] Creating layer conv1
I0411 13:24:45.387261  1455 net.cpp:100] Creating Layer conv1
I0411 13:24:45.387267  1455 net.cpp:434] conv1 <- data
I0411 13:24:45.387274  1455 net.cpp:408] conv1 -> conv1
I0411 13:24:45.390148  1455 net.cpp:150] Setting up conv1
I0411 13:24:45.390171  1455 net.cpp:157] Top shape: 1024 100 42 42 (180633600)
I0411 13:24:45.390175  1455 net.cpp:165] Memory required for data: 750862336
I0411 13:24:45.390190  1455 layer_factory.hpp:77] Creating layer conv1_prescale
I0411 13:24:45.390202  1455 net.cpp:100] Creating Layer conv1_prescale
I0411 13:24:45.390208  1455 net.cpp:434] conv1_prescale <- conv1
I0411 13:24:45.390216  1455 net.cpp:395] conv1_prescale -> conv1 (in-place)
I0411 13:24:45.390342  1455 net.cpp:150] Setting up conv1_prescale
I0411 13:24:45.390352  1455 net.cpp:157] Top shape: 1024 100 42 42 (180633600)
I0411 13:24:45.390357  1455 net.cpp:165] Memory required for data: 1473396736
I0411 13:24:45.390365  1455 layer_factory.hpp:77] Creating layer conv1_sTanH
I0411 13:24:45.390375  1455 net.cpp:100] Creating Layer conv1_sTanH
I0411 13:24:45.390380  1455 net.cpp:434] conv1_sTanH <- conv1
I0411 13:24:45.390386  1455 net.cpp:395] conv1_sTanH -> conv1 (in-place)
I0411 13:24:45.392879  1455 net.cpp:150] Setting up conv1_sTanH
I0411 13:24:45.392906  1455 net.cpp:157] Top shape: 1024 100 42 42 (180633600)
I0411 13:24:45.392912  1455 net.cpp:165] Memory required for data: 2195931136
I0411 13:24:45.392917  1455 layer_factory.hpp:77] Creating layer conv1_postscale
I0411 13:24:45.392928  1455 net.cpp:100] Creating Layer conv1_postscale
I0411 13:24:45.392935  1455 net.cpp:434] conv1_postscale <- conv1
I0411 13:24:45.392943  1455 net.cpp:395] conv1_postscale -> conv1 (in-place)
I0411 13:24:45.393082  1455 net.cpp:150] Setting up conv1_postscale
I0411 13:24:45.393093  1455 net.cpp:157] Top shape: 1024 100 42 42 (180633600)
I0411 13:24:45.393098  1455 net.cpp:165] Memory required for data: 2918465536
I0411 13:24:45.393105  1455 layer_factory.hpp:77] Creating layer pool1
I0411 13:24:45.393115  1455 net.cpp:100] Creating Layer pool1
I0411 13:24:45.393120  1455 net.cpp:434] pool1 <- conv1
I0411 13:24:45.393128  1455 net.cpp:408] pool1 -> pool1
I0411 13:24:45.393179  1455 net.cpp:150] Setting up pool1
I0411 13:24:45.393191  1455 net.cpp:157] Top shape: 1024 100 21 21 (45158400)
I0411 13:24:45.393195  1455 net.cpp:165] Memory required for data: 3099099136
I0411 13:24:45.393199  1455 layer_factory.hpp:77] Creating layer conv2
I0411 13:24:45.393209  1455 net.cpp:100] Creating Layer conv2
I0411 13:24:45.393214  1455 net.cpp:434] conv2 <- pool1
I0411 13:24:45.393221  1455 net.cpp:408] conv2 -> conv2
I0411 13:24:45.397825  1455 net.cpp:150] Setting up conv2
I0411 13:24:45.397846  1455 net.cpp:157] Top shape: 1024 150 18 18 (49766400)
I0411 13:24:45.397852  1455 net.cpp:165] Memory required for data: 3298164736
I0411 13:24:45.397864  1455 layer_factory.hpp:77] Creating layer conv2_prescale
I0411 13:24:45.397877  1455 net.cpp:100] Creating Layer conv2_prescale
I0411 13:24:45.397883  1455 net.cpp:434] conv2_prescale <- conv2
I0411 13:24:45.397891  1455 net.cpp:395] conv2_prescale -> conv2 (in-place)
I0411 13:24:45.398023  1455 net.cpp:150] Setting up conv2_prescale
I0411 13:24:45.398033  1455 net.cpp:157] Top shape: 1024 150 18 18 (49766400)
I0411 13:24:45.398038  1455 net.cpp:165] Memory required for data: 3497230336
I0411 13:24:45.398044  1455 layer_factory.hpp:77] Creating layer conv2_sTanH
I0411 13:24:45.398052  1455 net.cpp:100] Creating Layer conv2_sTanH
I0411 13:24:45.398061  1455 net.cpp:434] conv2_sTanH <- conv2
I0411 13:24:45.398066  1455 net.cpp:395] conv2_sTanH -> conv2 (in-place)
I0411 13:24:45.399003  1455 net.cpp:150] Setting up conv2_sTanH
I0411 13:24:45.399024  1455 net.cpp:157] Top shape: 1024 150 18 18 (49766400)
I0411 13:24:45.399030  1455 net.cpp:165] Memory required for data: 3696295936
I0411 13:24:45.399034  1455 layer_factory.hpp:77] Creating layer conv2_postscale
I0411 13:24:45.399044  1455 net.cpp:100] Creating Layer conv2_postscale
I0411 13:24:45.399050  1455 net.cpp:434] conv2_postscale <- conv2
I0411 13:24:45.399057  1455 net.cpp:395] conv2_postscale -> conv2 (in-place)
I0411 13:24:45.399178  1455 net.cpp:150] Setting up conv2_postscale
I0411 13:24:45.399190  1455 net.cpp:157] Top shape: 1024 150 18 18 (49766400)
I0411 13:24:45.399195  1455 net.cpp:165] Memory required for data: 3895361536
I0411 13:24:45.399201  1455 layer_factory.hpp:77] Creating layer pool2
I0411 13:24:45.399210  1455 net.cpp:100] Creating Layer pool2
I0411 13:24:45.399215  1455 net.cpp:434] pool2 <- conv2
I0411 13:24:45.399221  1455 net.cpp:408] pool2 -> pool2
I0411 13:24:45.399276  1455 net.cpp:150] Setting up pool2
I0411 13:24:45.399286  1455 net.cpp:157] Top shape: 1024 150 9 9 (12441600)
I0411 13:24:45.399291  1455 net.cpp:165] Memory required for data: 3945127936
I0411 13:24:45.399293  1455 layer_factory.hpp:77] Creating layer conv3
I0411 13:24:45.399307  1455 net.cpp:100] Creating Layer conv3
I0411 13:24:45.399313  1455 net.cpp:434] conv3 <- pool2
I0411 13:24:45.399319  1455 net.cpp:408] conv3 -> conv3
I0411 13:24:45.406025  1455 net.cpp:150] Setting up conv3
I0411 13:24:45.406046  1455 net.cpp:157] Top shape: 1024 250 6 6 (9216000)
I0411 13:24:45.406051  1455 net.cpp:165] Memory required for data: 3981991936
I0411 13:24:45.406083  1455 layer_factory.hpp:77] Creating layer conv3_prescale
I0411 13:24:45.406095  1455 net.cpp:100] Creating Layer conv3_prescale
I0411 13:24:45.406100  1455 net.cpp:434] conv3_prescale <- conv3
I0411 13:24:45.406111  1455 net.cpp:395] conv3_prescale -> conv3 (in-place)
I0411 13:24:45.406234  1455 net.cpp:150] Setting up conv3_prescale
I0411 13:24:45.406244  1455 net.cpp:157] Top shape: 1024 250 6 6 (9216000)
I0411 13:24:45.406250  1455 net.cpp:165] Memory required for data: 4018855936
I0411 13:24:45.406255  1455 layer_factory.hpp:77] Creating layer conv3_sTanH
I0411 13:24:45.406263  1455 net.cpp:100] Creating Layer conv3_sTanH
I0411 13:24:45.406268  1455 net.cpp:434] conv3_sTanH <- conv3
I0411 13:24:45.406275  1455 net.cpp:395] conv3_sTanH -> conv3 (in-place)
I0411 13:24:45.408179  1455 net.cpp:150] Setting up conv3_sTanH
I0411 13:24:45.408197  1455 net.cpp:157] Top shape: 1024 250 6 6 (9216000)
I0411 13:24:45.408202  1455 net.cpp:165] Memory required for data: 4055719936
I0411 13:24:45.408207  1455 layer_factory.hpp:77] Creating layer conv3_postscale
I0411 13:24:45.408228  1455 net.cpp:100] Creating Layer conv3_postscale
I0411 13:24:45.408234  1455 net.cpp:434] conv3_postscale <- conv3
I0411 13:24:45.408241  1455 net.cpp:395] conv3_postscale -> conv3 (in-place)
I0411 13:24:45.408365  1455 net.cpp:150] Setting up conv3_postscale
I0411 13:24:45.408375  1455 net.cpp:157] Top shape: 1024 250 6 6 (9216000)
I0411 13:24:45.408380  1455 net.cpp:165] Memory required for data: 4092583936
I0411 13:24:45.408385  1455 layer_factory.hpp:77] Creating layer pool3
I0411 13:24:45.408396  1455 net.cpp:100] Creating Layer pool3
I0411 13:24:45.408401  1455 net.cpp:434] pool3 <- conv3
I0411 13:24:45.408407  1455 net.cpp:408] pool3 -> pool3
I0411 13:24:45.408458  1455 net.cpp:150] Setting up pool3
I0411 13:24:45.408466  1455 net.cpp:157] Top shape: 1024 250 3 3 (2304000)
I0411 13:24:45.408471  1455 net.cpp:165] Memory required for data: 4101799936
I0411 13:24:45.408475  1455 layer_factory.hpp:77] Creating layer fc4_300
I0411 13:24:45.408488  1455 net.cpp:100] Creating Layer fc4_300
I0411 13:24:45.408493  1455 net.cpp:434] fc4_300 <- pool3
I0411 13:24:45.408499  1455 net.cpp:408] fc4_300 -> fc4_300
I0411 13:24:45.415002  1455 net.cpp:150] Setting up fc4_300
I0411 13:24:45.415021  1455 net.cpp:157] Top shape: 1024 300 (307200)
I0411 13:24:45.415027  1455 net.cpp:165] Memory required for data: 4103028736
I0411 13:24:45.415055  1455 layer_factory.hpp:77] Creating layer fc4_prescale
I0411 13:24:45.415066  1455 net.cpp:100] Creating Layer fc4_prescale
I0411 13:24:45.415072  1455 net.cpp:434] fc4_prescale <- fc4_300
I0411 13:24:45.415079  1455 net.cpp:395] fc4_prescale -> fc4_300 (in-place)
I0411 13:24:45.415199  1455 net.cpp:150] Setting up fc4_prescale
I0411 13:24:45.415208  1455 net.cpp:157] Top shape: 1024 300 (307200)
I0411 13:24:45.415213  1455 net.cpp:165] Memory required for data: 4104257536
I0411 13:24:45.415220  1455 layer_factory.hpp:77] Creating layer fc4_sTanH
I0411 13:24:45.415227  1455 net.cpp:100] Creating Layer fc4_sTanH
I0411 13:24:45.415232  1455 net.cpp:434] fc4_sTanH <- fc4_300
I0411 13:24:45.415237  1455 net.cpp:395] fc4_sTanH -> fc4_300 (in-place)
I0411 13:24:45.415473  1455 net.cpp:150] Setting up fc4_sTanH
I0411 13:24:45.415487  1455 net.cpp:157] Top shape: 1024 300 (307200)
I0411 13:24:45.415491  1455 net.cpp:165] Memory required for data: 4105486336
I0411 13:24:45.415495  1455 layer_factory.hpp:77] Creating layer fc4_postscale
I0411 13:24:45.415505  1455 net.cpp:100] Creating Layer fc4_postscale
I0411 13:24:45.415510  1455 net.cpp:434] fc4_postscale <- fc4_300
I0411 13:24:45.415518  1455 net.cpp:395] fc4_postscale -> fc4_300 (in-place)
I0411 13:24:45.415635  1455 net.cpp:150] Setting up fc4_postscale
I0411 13:24:45.415645  1455 net.cpp:157] Top shape: 1024 300 (307200)
I0411 13:24:45.415650  1455 net.cpp:165] Memory required for data: 4106715136
I0411 13:24:45.415655  1455 layer_factory.hpp:77] Creating layer drop4
I0411 13:24:45.415664  1455 net.cpp:100] Creating Layer drop4
I0411 13:24:45.415669  1455 net.cpp:434] drop4 <- fc4_300
I0411 13:24:45.415675  1455 net.cpp:395] drop4 -> fc4_300 (in-place)
I0411 13:24:45.415706  1455 net.cpp:150] Setting up drop4
I0411 13:24:45.415714  1455 net.cpp:157] Top shape: 1024 300 (307200)
I0411 13:24:45.415717  1455 net.cpp:165] Memory required for data: 4107943936
I0411 13:24:45.415721  1455 layer_factory.hpp:77] Creating layer fc5_67
I0411 13:24:45.415731  1455 net.cpp:100] Creating Layer fc5_67
I0411 13:24:45.415736  1455 net.cpp:434] fc5_67 <- fc4_300
I0411 13:24:45.415742  1455 net.cpp:408] fc5_67 -> fc5_classes
I0411 13:24:45.416052  1455 net.cpp:150] Setting up fc5_67
I0411 13:24:45.416064  1455 net.cpp:157] Top shape: 1024 67 (68608)
I0411 13:24:45.416069  1455 net.cpp:165] Memory required for data: 4108218368
I0411 13:24:45.416080  1455 layer_factory.hpp:77] Creating layer fc5_classes_fc5_67_0_split
I0411 13:24:45.416090  1455 net.cpp:100] Creating Layer fc5_classes_fc5_67_0_split
I0411 13:24:45.416095  1455 net.cpp:434] fc5_classes_fc5_67_0_split <- fc5_classes
I0411 13:24:45.416102  1455 net.cpp:408] fc5_classes_fc5_67_0_split -> fc5_classes_fc5_67_0_split_0
I0411 13:24:45.416115  1455 net.cpp:408] fc5_classes_fc5_67_0_split -> fc5_classes_fc5_67_0_split_1
I0411 13:24:45.416124  1455 net.cpp:408] fc5_classes_fc5_67_0_split -> fc5_classes_fc5_67_0_split_2
I0411 13:24:45.416188  1455 net.cpp:150] Setting up fc5_classes_fc5_67_0_split
I0411 13:24:45.416196  1455 net.cpp:157] Top shape: 1024 67 (68608)
I0411 13:24:45.416200  1455 net.cpp:157] Top shape: 1024 67 (68608)
I0411 13:24:45.416206  1455 net.cpp:157] Top shape: 1024 67 (68608)
I0411 13:24:45.416209  1455 net.cpp:165] Memory required for data: 4109041664
I0411 13:24:45.416213  1455 layer_factory.hpp:77] Creating layer loss
I0411 13:24:45.416225  1455 net.cpp:100] Creating Layer loss
I0411 13:24:45.416231  1455 net.cpp:434] loss <- fc5_classes_fc5_67_0_split_0
I0411 13:24:45.416236  1455 net.cpp:434] loss <- label_data_1_split_0
I0411 13:24:45.416244  1455 net.cpp:408] loss -> loss
…
