…
I0411 13:46:52.210825 25130 net.cpp:322] The NetState phase (0) differed from the phase (1) specified by a rule in layer accuracy_5
I0411 13:46:52.211009 25130 net.cpp:58] Initializing net from parameters: 
state {
  phase: TRAIN
  level: 0
  stage: ""
}
layer {
  name: "data"
  type: "Data"
  top: "data"
  top: "label"
  include {
    phase: TRAIN
  }
  transform_param {
    scale: 0.0039215689
    mirror: false
    crop_size: 48
    mean_value: 132
    mean_value: 132
    mean_value: 131
  }
  data_param {
    source: "../local_data/lmdb/rtsd-r1/CoNorm/train/lmdb"
    batch_size: 1024
    backend: LMDB
  }
}
layer {
  name: "conv1"
  type: "Convolution"
  bottom: "data"
  top: "conv1"
  convolution_param {
    num_output: 100
    pad: 0
    kernel_size: 7
    group: 1
    stride: 1
    weight_filler {
      type: "xavier"
    }
  }
}
layer {
  name: "conv1_prescale"
  type: "Scale"
  bottom: "conv1"
  top: "conv1"
  param {
    lr_mult: 0
    decay_mult: 0
  }
  scale_param {
    filler {
      value: 0.6666
    }
    bias_term: false
  }
}
layer {
  name: "conv1_sTanH"
  type: "TanH"
  bottom: "conv1"
  top: "conv1"
}
layer {
  name: "conv1_postscale"
  type: "Scale"
  bottom: "conv1"
  top: "conv1"
  param {
    lr_mult: 0
    decay_mult: 0
  }
  scale_param {
    filler {
      value: 1.7159
    }
    bias_term: false
  }
}
layer {
  name: "pool1"
  type: "Pooling"
  bottom: "conv1"
  top: "pool1"
  pooling_param {
    pool: MAX
    kernel_size: 2
    stride: 2
  }
}
layer {
  name: "conv2"
  type: "Convolution"
  bottom: "pool1"
  top: "conv2"
  convolution_param {
    num_output: 150
    pad: 0
    kernel_size: 4
    group: 1
    stride: 1
    weight_filler {
      type: "xavier"
    }
  }
}
layer {
  name: "conv2_prescale"
  type: "Scale"
  bottom: "conv2"
  top: "conv2"
  param {
    lr_mult: 0
    decay_mult: 0
  }
  scale_param {
    filler {
      value: 0.6666
    }
    bias_term: false
  }
}
layer {
  name: "conv2_sTanH"
  type: "TanH"
  bottom: "conv2"
  top: "conv2"
}
layer {
  name: "conv2_postscale"
  type: "Scale"
  bottom: "conv2"
  top: "conv2"
  param {
    lr_mult: 0
    decay_mult: 0
  }
  scale_param {
    filler {
      value: 1.7159
    }
    bias_term: false
  }
}
layer {
  name: "pool2"
  type: "Pooling"
  bottom: "conv2"
  top: "pool2"
  pooling_param {
    pool: MAX
    kernel_size: 2
    stride: 2
  }
}
layer {
  name: "conv3"
  type: "Convolution"
  bottom: "pool2"
  top: "conv3"
  convolution_param {
    num_output: 250
    pad: 0
    kernel_size: 4
    group: 1
    stride: 1
    weight_filler {
      type: "xavier"
    }
  }
}
layer {
  name: "conv3_prescale"
  type: "Scale"
  bottom: "conv3"
  top: "conv3"
  param {
    lr_mult: 0
    decay_mult: 0
  }
  scale_param {
    filler {
      value: 0.6666
    }
    bias_term: false
  }
}
layer {
  name: "conv3_sTanH"
  type: "TanH"
  bottom: "conv3"
  top: "conv3"
}
layer {
  name: "conv3_postscale"
  type: "Scale"
  bottom: "conv3"
  top: "conv3"
  param {
    lr_mult: 0
    decay_mult: 0
  }
  scale_param {
    filler {
      value: 1.7159
    }
    bias_term: false
  }
}
layer {
  name: "pool3"
  type: "Pooling"
  bottom: "conv3"
  top: "pool3"
  pooling_param {
    pool: MAX
    kernel_size: 2
    stride: 2
  }
}
layer {
  name: "fc4_300"
  type: "InnerProduct"
  bottom: "pool3"
  top: "fc4_300"
  inner_product_param {
    num_output: 300
    weight_filler {
      type: "xavier"
    }
  }
}
layer {
  name: "fc4_prescale"
  type: "Scale"
  bottom: "fc4_300"
  top: "fc4_300"
  param {
    lr_mult: 0
    decay_mult: 0
  }
  scale_param {
    filler {
      value: 0.6666
    }
    bias_term: false
  }
}
layer {
  name: "fc4_sTanH"
  type: "TanH"
  bottom: "fc4_300"
  top: "fc4_300"
}
layer {
  name: "fc4_postscale"
  type: "Scale"
  bottom: "fc4_300"
  top: "fc4_300"
  param {
    lr_mult: 0
    decay_mult: 0
  }
  scale_param {
    filler {
      value: 1.7159
    }
    bias_term: false
  }
}
layer {
  name: "drop4"
  type: "Dropout"
  bottom: "fc4_300"
  top: "fc4_300"
  dropout_param {
    dropout_ratio: 0.1
  }
}
layer {
  name: "fc5_67"
  type: "InnerProduct"
  bottom: "fc4_300"
  top: "fc5_classes"
  inner_product_param {
    num_output: 67
    weight_filler {
      type: "xavier"
    }
  }
}
layer {
  name: "loss"
  type: "SoftmaxWithLoss"
  bottom: "fc5_classes"
  bottom: "label"
  top: "loss"
}
I0411 13:46:52.211163 25130 layer_factory.hpp:77] Creating layer data
I0411 13:46:52.212496 25130 net.cpp:100] Creating Layer data
I0411 13:46:52.212517 25130 net.cpp:408] data -> data
I0411 13:46:52.212546 25130 net.cpp:408] data -> label
I0411 13:46:52.214232 25236 db_lmdb.cpp:35] Opened lmdb ../local_data/lmdb/rtsd-r1/CoNorm/train/lmdb
I0411 13:46:52.236220 25130 data_layer.cpp:41] output data size: 1024,3,48,48
I0411 13:46:52.298727 25130 net.cpp:150] Setting up data
I0411 13:46:52.298761 25130 net.cpp:157] Top shape: 1024 3 48 48 (7077888)
I0411 13:46:52.298769 25130 net.cpp:157] Top shape: 1024 (1024)
I0411 13:46:52.298773 25130 net.cpp:165] Memory required for data: 28315648
I0411 13:46:52.298784 25130 layer_factory.hpp:77] Creating layer conv1
I0411 13:46:52.298809 25130 net.cpp:100] Creating Layer conv1
I0411 13:46:52.298818 25130 net.cpp:434] conv1 <- data
I0411 13:46:52.298836 25130 net.cpp:408] conv1 -> conv1
I0411 13:46:52.640883 25130 net.cpp:150] Setting up conv1
I0411 13:46:52.640916 25130 net.cpp:157] Top shape: 1024 100 42 42 (180633600)
I0411 13:46:52.640921 25130 net.cpp:165] Memory required for data: 750850048
I0411 13:46:52.640947 25130 layer_factory.hpp:77] Creating layer conv1_prescale
I0411 13:46:52.640965 25130 net.cpp:100] Creating Layer conv1_prescale
I0411 13:46:52.640972 25130 net.cpp:434] conv1_prescale <- conv1
I0411 13:46:52.640981 25130 net.cpp:395] conv1_prescale -> conv1 (in-place)
I0411 13:46:52.641113 25130 net.cpp:150] Setting up conv1_prescale
I0411 13:46:52.641124 25130 net.cpp:157] Top shape: 1024 100 42 42 (180633600)
I0411 13:46:52.641129 25130 net.cpp:165] Memory required for data: 1473384448
I0411 13:46:52.641139 25130 layer_factory.hpp:77] Creating layer conv1_sTanH
I0411 13:46:52.641147 25130 net.cpp:100] Creating Layer conv1_sTanH
I0411 13:46:52.641154 25130 net.cpp:434] conv1_sTanH <- conv1
I0411 13:46:52.641160 25130 net.cpp:395] conv1_sTanH -> conv1 (in-place)
I0411 13:46:52.641389 25130 net.cpp:150] Setting up conv1_sTanH
I0411 13:46:52.641404 25130 net.cpp:157] Top shape: 1024 100 42 42 (180633600)
I0411 13:46:52.641410 25130 net.cpp:165] Memory required for data: 2195918848
I0411 13:46:52.641415 25130 layer_factory.hpp:77] Creating layer conv1_postscale
I0411 13:46:52.641425 25130 net.cpp:100] Creating Layer conv1_postscale
I0411 13:46:52.641432 25130 net.cpp:434] conv1_postscale <- conv1
I0411 13:46:52.641438 25130 net.cpp:395] conv1_postscale -> conv1 (in-place)
I0411 13:46:52.641553 25130 net.cpp:150] Setting up conv1_postscale
I0411 13:46:52.641564 25130 net.cpp:157] Top shape: 1024 100 42 42 (180633600)
I0411 13:46:52.641571 25130 net.cpp:165] Memory required for data: 2918453248
I0411 13:46:52.641577 25130 layer_factory.hpp:77] Creating layer pool1
I0411 13:46:52.641587 25130 net.cpp:100] Creating Layer pool1
I0411 13:46:52.641592 25130 net.cpp:434] pool1 <- conv1
I0411 13:46:52.641598 25130 net.cpp:408] pool1 -> pool1
I0411 13:46:52.641690 25130 net.cpp:150] Setting up pool1
I0411 13:46:52.641710 25130 net.cpp:157] Top shape: 1024 100 21 21 (45158400)
I0411 13:46:52.641718 25130 net.cpp:165] Memory required for data: 3099086848
I0411 13:46:52.641728 25130 layer_factory.hpp:77] Creating layer conv2
I0411 13:46:52.641748 25130 net.cpp:100] Creating Layer conv2
I0411 13:46:52.641757 25130 net.cpp:434] conv2 <- pool1
I0411 13:46:52.641763 25130 net.cpp:408] conv2 -> conv2
I0411 13:46:52.649009 25130 net.cpp:150] Setting up conv2
I0411 13:46:52.649030 25130 net.cpp:157] Top shape: 1024 150 18 18 (49766400)
I0411 13:46:52.649035 25130 net.cpp:165] Memory required for data: 3298152448
I0411 13:46:52.649047 25130 layer_factory.hpp:77] Creating layer conv2_prescale
I0411 13:46:52.649057 25130 net.cpp:100] Creating Layer conv2_prescale
I0411 13:46:52.649061 25130 net.cpp:434] conv2_prescale <- conv2
I0411 13:46:52.649068 25130 net.cpp:395] conv2_prescale -> conv2 (in-place)
I0411 13:46:52.649194 25130 net.cpp:150] Setting up conv2_prescale
I0411 13:46:52.649204 25130 net.cpp:157] Top shape: 1024 150 18 18 (49766400)
I0411 13:46:52.649209 25130 net.cpp:165] Memory required for data: 3497218048
I0411 13:46:52.649216 25130 layer_factory.hpp:77] Creating layer conv2_sTanH
I0411 13:46:52.649224 25130 net.cpp:100] Creating Layer conv2_sTanH
I0411 13:46:52.649230 25130 net.cpp:434] conv2_sTanH <- conv2
I0411 13:46:52.649235 25130 net.cpp:395] conv2_sTanH -> conv2 (in-place)
I0411 13:46:52.650637 25130 net.cpp:150] Setting up conv2_sTanH
I0411 13:46:52.650658 25130 net.cpp:157] Top shape: 1024 150 18 18 (49766400)
I0411 13:46:52.650662 25130 net.cpp:165] Memory required for data: 3696283648
I0411 13:46:52.650667 25130 layer_factory.hpp:77] Creating layer conv2_postscale
I0411 13:46:52.650676 25130 net.cpp:100] Creating Layer conv2_postscale
I0411 13:46:52.650681 25130 net.cpp:434] conv2_postscale <- conv2
I0411 13:46:52.650687 25130 net.cpp:395] conv2_postscale -> conv2 (in-place)
I0411 13:46:52.650805 25130 net.cpp:150] Setting up conv2_postscale
I0411 13:46:52.650817 25130 net.cpp:157] Top shape: 1024 150 18 18 (49766400)
I0411 13:46:52.650823 25130 net.cpp:165] Memory required for data: 3895349248
I0411 13:46:52.650830 25130 layer_factory.hpp:77] Creating layer pool2
I0411 13:46:52.650836 25130 net.cpp:100] Creating Layer pool2
I0411 13:46:52.650842 25130 net.cpp:434] pool2 <- conv2
I0411 13:46:52.650851 25130 net.cpp:408] pool2 -> pool2
I0411 13:46:52.650904 25130 net.cpp:150] Setting up pool2
I0411 13:46:52.650914 25130 net.cpp:157] Top shape: 1024 150 9 9 (12441600)
I0411 13:46:52.650919 25130 net.cpp:165] Memory required for data: 3945115648
I0411 13:46:52.650923 25130 layer_factory.hpp:77] Creating layer conv3
I0411 13:46:52.650936 25130 net.cpp:100] Creating Layer conv3
I0411 13:46:52.650943 25130 net.cpp:434] conv3 <- pool2
I0411 13:46:52.650949 25130 net.cpp:408] conv3 -> conv3
I0411 13:46:52.657939 25130 net.cpp:150] Setting up conv3
I0411 13:46:52.657960 25130 net.cpp:157] Top shape: 1024 250 6 6 (9216000)
I0411 13:46:52.657965 25130 net.cpp:165] Memory required for data: 3981979648
I0411 13:46:52.657980 25130 layer_factory.hpp:77] Creating layer conv3_prescale
I0411 13:46:52.657990 25130 net.cpp:100] Creating Layer conv3_prescale
I0411 13:46:52.657994 25130 net.cpp:434] conv3_prescale <- conv3
I0411 13:46:52.658006 25130 net.cpp:395] conv3_prescale -> conv3 (in-place)
I0411 13:46:52.658128 25130 net.cpp:150] Setting up conv3_prescale
I0411 13:46:52.658143 25130 net.cpp:157] Top shape: 1024 250 6 6 (9216000)
I0411 13:46:52.658149 25130 net.cpp:165] Memory required for data: 4018843648
I0411 13:46:52.658154 25130 layer_factory.hpp:77] Creating layer conv3_sTanH
I0411 13:46:52.658160 25130 net.cpp:100] Creating Layer conv3_sTanH
I0411 13:46:52.658166 25130 net.cpp:434] conv3_sTanH <- conv3
I0411 13:46:52.658172 25130 net.cpp:395] conv3_sTanH -> conv3 (in-place)
I0411 13:46:52.659848 25130 net.cpp:150] Setting up conv3_sTanH
I0411 13:46:52.659870 25130 net.cpp:157] Top shape: 1024 250 6 6 (9216000)
I0411 13:46:52.659875 25130 net.cpp:165] Memory required for data: 4055707648
I0411 13:46:52.659910 25130 layer_factory.hpp:77] Creating layer conv3_postscale
I0411 13:46:52.659920 25130 net.cpp:100] Creating Layer conv3_postscale
I0411 13:46:52.659925 25130 net.cpp:434] conv3_postscale <- conv3
I0411 13:46:52.659934 25130 net.cpp:395] conv3_postscale -> conv3 (in-place)
I0411 13:46:52.660066 25130 net.cpp:150] Setting up conv3_postscale
I0411 13:46:52.660079 25130 net.cpp:157] Top shape: 1024 250 6 6 (9216000)
I0411 13:46:52.660084 25130 net.cpp:165] Memory required for data: 4092571648
I0411 13:46:52.660091 25130 layer_factory.hpp:77] Creating layer pool3
I0411 13:46:52.660102 25130 net.cpp:100] Creating Layer pool3
I0411 13:46:52.660109 25130 net.cpp:434] pool3 <- conv3
I0411 13:46:52.660116 25130 net.cpp:408] pool3 -> pool3
I0411 13:46:52.660167 25130 net.cpp:150] Setting up pool3
I0411 13:46:52.660177 25130 net.cpp:157] Top shape: 1024 250 3 3 (2304000)
I0411 13:46:52.660182 25130 net.cpp:165] Memory required for data: 4101787648
I0411 13:46:52.660187 25130 layer_factory.hpp:77] Creating layer fc4_300
I0411 13:46:52.660198 25130 net.cpp:100] Creating Layer fc4_300
I0411 13:46:52.660204 25130 net.cpp:434] fc4_300 <- pool3
I0411 13:46:52.660212 25130 net.cpp:408] fc4_300 -> fc4_300
I0411 13:46:52.666869 25130 net.cpp:150] Setting up fc4_300
I0411 13:46:52.666893 25130 net.cpp:157] Top shape: 1024 300 (307200)
I0411 13:46:52.666899 25130 net.cpp:165] Memory required for data: 4103016448
I0411 13:46:52.666908 25130 layer_factory.hpp:77] Creating layer fc4_prescale
I0411 13:46:52.666918 25130 net.cpp:100] Creating Layer fc4_prescale
I0411 13:46:52.666924 25130 net.cpp:434] fc4_prescale <- fc4_300
I0411 13:46:52.666934 25130 net.cpp:395] fc4_prescale -> fc4_300 (in-place)
I0411 13:46:52.667042 25130 net.cpp:150] Setting up fc4_prescale
I0411 13:46:52.667053 25130 net.cpp:157] Top shape: 1024 300 (307200)
I0411 13:46:52.667058 25130 net.cpp:165] Memory required for data: 4104245248
I0411 13:46:52.667064 25130 layer_factory.hpp:77] Creating layer fc4_sTanH
I0411 13:46:52.667071 25130 net.cpp:100] Creating Layer fc4_sTanH
I0411 13:46:52.667076 25130 net.cpp:434] fc4_sTanH <- fc4_300
I0411 13:46:52.667083 25130 net.cpp:395] fc4_sTanH -> fc4_300 (in-place)
I0411 13:46:52.667313 25130 net.cpp:150] Setting up fc4_sTanH
I0411 13:46:52.667328 25130 net.cpp:157] Top shape: 1024 300 (307200)
I0411 13:46:52.667335 25130 net.cpp:165] Memory required for data: 4105474048
I0411 13:46:52.667340 25130 layer_factory.hpp:77] Creating layer fc4_postscale
I0411 13:46:52.667346 25130 net.cpp:100] Creating Layer fc4_postscale
I0411 13:46:52.667352 25130 net.cpp:434] fc4_postscale <- fc4_300
I0411 13:46:52.667363 25130 net.cpp:395] fc4_postscale -> fc4_300 (in-place)
I0411 13:46:52.667486 25130 net.cpp:150] Setting up fc4_postscale
I0411 13:46:52.667500 25130 net.cpp:157] Top shape: 1024 300 (307200)
I0411 13:46:52.667505 25130 net.cpp:165] Memory required for data: 4106702848
I0411 13:46:52.667511 25130 layer_factory.hpp:77] Creating layer drop4
I0411 13:46:52.667518 25130 net.cpp:100] Creating Layer drop4
I0411 13:46:52.667523 25130 net.cpp:434] drop4 <- fc4_300
I0411 13:46:52.667529 25130 net.cpp:395] drop4 -> fc4_300 (in-place)
I0411 13:46:52.667568 25130 net.cpp:150] Setting up drop4
I0411 13:46:52.667578 25130 net.cpp:157] Top shape: 1024 300 (307200)
I0411 13:46:52.667587 25130 net.cpp:165] Memory required for data: 4107931648
I0411 13:46:52.667595 25130 layer_factory.hpp:77] Creating layer fc5_67
I0411 13:46:52.667609 25130 net.cpp:100] Creating Layer fc5_67
I0411 13:46:52.667621 25130 net.cpp:434] fc5_67 <- fc4_300
I0411 13:46:52.667635 25130 net.cpp:408] fc5_67 -> fc5_classes
I0411 13:46:52.669167 25130 net.cpp:150] Setting up fc5_67
I0411 13:46:52.669188 25130 net.cpp:157] Top shape: 1024 67 (68608)
I0411 13:46:52.669193 25130 net.cpp:165] Memory required for data: 4108206080
I0411 13:46:52.669206 25130 layer_factory.hpp:77] Creating layer loss
I0411 13:46:52.669217 25130 net.cpp:100] Creating Layer loss
I0411 13:46:52.669224 25130 net.cpp:434] loss <- fc5_classes
I0411 13:46:52.669229 25130 net.cpp:434] loss <- label
I0411 13:46:52.669252 25130 net.cpp:408] loss -> loss
I0411 13:46:52.669270 25130 layer_factory.hpp:77] Creating layer loss
…
I0411 13:46:52.670202 25130 solver.cpp:193] Creating test net (#0) specified by test_net file: ./Prototxt/experiment_9/rtsd-r1/CoNorm/trial_1/test.prototxt
I0411 13:46:52.670445 25130 net.cpp:58] Initializing net from parameters: 
state {
  phase: TEST
}
layer {
  name: "data"
  type: "Data"
  top: "data"
  top: "label"
  include {
    phase: TEST
  }
  transform_param {
    scale: 0.0039215689
    mirror: false
    crop_size: 48
    mean_value: 133
    mean_value: 133
    mean_value: 132
  }
  data_param {
    source: "../local_data/lmdb/rtsd-r1/CoNorm/test/lmdb"
    batch_size: 1024
    backend: LMDB
  }
}
layer {
  name: "conv1"
  type: "Convolution"
  bottom: "data"
  top: "conv1"
  convolution_param {
    num_output: 100
    pad: 0
    kernel_size: 7
    group: 1
    stride: 1
    weight_filler {
      type: "xavier"
    }
  }
}
layer {
  name: "conv1_prescale"
  type: "Scale"
  bottom: "conv1"
  top: "conv1"
  param {
    lr_mult: 0
    decay_mult: 0
  }
  scale_param {
    filler {
      value: 0.6666
    }
    bias_term: false
  }
}
layer {
  name: "conv1_sTanH"
  type: "TanH"
  bottom: "conv1"
  top: "conv1"
}
layer {
  name: "conv1_postscale"
  type: "Scale"
  bottom: "conv1"
  top: "conv1"
  param {
    lr_mult: 0
    decay_mult: 0
  }
  scale_param {
    filler {
      value: 1.7159
    }
    bias_term: false
  }
}
layer {
  name: "pool1"
  type: "Pooling"
  bottom: "conv1"
  top: "pool1"
  pooling_param {
    pool: MAX
    kernel_size: 2
    stride: 2
  }
}
layer {
  name: "conv2"
  type: "Convolution"
  bottom: "pool1"
  top: "conv2"
  convolution_param {
    num_output: 150
    pad: 0
    kernel_size: 4
    group: 1
    stride: 1
    weight_filler {
      type: "xavier"
    }
  }
}
layer {
  name: "conv2_prescale"
  type: "Scale"
  bottom: "conv2"
  top: "conv2"
  param {
    lr_mult: 0
    decay_mult: 0
  }
  scale_param {
    filler {
      value: 0.6666
    }
    bias_term: false
  }
}
layer {
  name: "conv2_sTanH"
  type: "TanH"
  bottom: "conv2"
  top: "conv2"
}
layer {
  name: "conv2_postscale"
  type: "Scale"
  bottom: "conv2"
  top: "conv2"
  param {
    lr_mult: 0
    decay_mult: 0
  }
  scale_param {
    filler {
      value: 1.7159
    }
    bias_term: false
  }
}
layer {
  name: "pool2"
  type: "Pooling"
  bottom: "conv2"
  top: "pool2"
  pooling_param {
    pool: MAX
    kernel_size: 2
    stride: 2
  }
}
layer {
  name: "conv3"
  type: "Convolution"
  bottom: "pool2"
  top: "conv3"
  convolution_param {
    num_output: 250
    pad: 0
    kernel_size: 4
    group: 1
    stride: 1
    weight_filler {
      type: "xavier"
    }
  }
}
layer {
  name: "conv3_prescale"
  type: "Scale"
  bottom: "conv3"
  top: "conv3"
  param {
    lr_mult: 0
    decay_mult: 0
  }
  scale_param {
    filler {
      value: 0.6666
    }
    bias_term: false
  }
}
layer {
  name: "conv3_sTanH"
  type: "TanH"
  bottom: "conv3"
  top: "conv3"
}
layer {
  name: "conv3_postscale"
  type: "Scale"
  bottom: "conv3"
  top: "conv3"
  param {
    lr_mult: 0
    decay_mult: 0
  }
  scale_param {
    filler {
      value: 1.7159
    }
    bias_term: false
  }
}
layer {
  name: "pool3"
  type: "Pooling"
  bottom: "conv3"
  top: "pool3"
  pooling_param {
    pool: MAX
    kernel_size: 2
    stride: 2
  }
}
layer {
  name: "fc4_300"
  type: "InnerProduct"
  bottom: "pool3"
  top: "fc4_300"
  inner_product_param {
    num_output: 300
    weight_filler {
      type: "xavier"
    }
  }
}
layer {
  name: "fc4_prescale"
  type: "Scale"
  bottom: "fc4_300"
  top: "fc4_300"
  param {
    lr_mult: 0
    decay_mult: 0
  }
  scale_param {
    filler {
      value: 0.6666
    }
    bias_term: false
  }
}
layer {
  name: "fc4_sTanH"
  type: "TanH"
  bottom: "fc4_300"
  top: "fc4_300"
}
layer {
  name: "fc4_postscale"
  type: "Scale"
  bottom: "fc4_300"
  top: "fc4_300"
  param {
    lr_mult: 0
    decay_mult: 0
  }
  scale_param {
    filler {
      value: 1.7159
    }
    bias_term: false
  }
}
layer {
  name: "drop4"
  type: "Dropout"
  bottom: "fc4_300"
  top: "fc4_300"
  dropout_param {
    dropout_ratio: 0.1
  }
}
layer {
  name: "fc5_67"
  type: "InnerProduct"
  bottom: "fc4_300"
  top: "fc5_classes"
  inner_product_param {
    num_output: 67
    weight_filler {
      type: "xavier"
    }
  }
}
layer {
  name: "loss"
  type: "SoftmaxWithLoss"
  bottom: "fc5_classes"
  bottom: "label"
  top: "loss"
}
layer {
  name: "accuracy_1"
  type: "Accuracy"
  bottom: "fc5_classes"
  bottom: "label"
  top: "accuracy_1"
  include {
    phase: TEST
  }
  accuracy_param {
    top_k: 1
  }
}
layer {
  name: "accuracy_5"
  type: "Accuracy"
  bottom: "fc5_classes"
  bottom: "label"
  top: "accuracy_5"
  include {
    phase: TEST
  }
  accuracy_param {
    top_k: 5
  }
}
I0411 13:46:52.670600 25130 layer_factory.hpp:77] Creating layer data
I0411 13:46:52.671710 25130 net.cpp:100] Creating Layer data
I0411 13:46:52.671736 25130 net.cpp:408] data -> data
I0411 13:46:52.671752 25130 net.cpp:408] data -> label
I0411 13:46:52.672895 25277 db_lmdb.cpp:35] Opened lmdb ../local_data/lmdb/rtsd-r1/CoNorm/test/lmdb
I0411 13:46:52.673164 25130 data_layer.cpp:41] output data size: 1024,3,48,48
I0411 13:46:52.731029 25130 net.cpp:150] Setting up data
I0411 13:46:52.731062 25130 net.cpp:157] Top shape: 1024 3 48 48 (7077888)
I0411 13:46:52.731070 25130 net.cpp:157] Top shape: 1024 (1024)
I0411 13:46:52.731072 25130 net.cpp:165] Memory required for data: 28315648
I0411 13:46:52.731081 25130 layer_factory.hpp:77] Creating layer label_data_1_split
I0411 13:46:52.731096 25130 net.cpp:100] Creating Layer label_data_1_split
I0411 13:46:52.731102 25130 net.cpp:434] label_data_1_split <- label
I0411 13:46:52.731115 25130 net.cpp:408] label_data_1_split -> label_data_1_split_0
I0411 13:46:52.731132 25130 net.cpp:408] label_data_1_split -> label_data_1_split_1
I0411 13:46:52.731168 25130 net.cpp:408] label_data_1_split -> label_data_1_split_2
I0411 13:46:52.731292 25130 net.cpp:150] Setting up label_data_1_split
I0411 13:46:52.731305 25130 net.cpp:157] Top shape: 1024 (1024)
I0411 13:46:52.731312 25130 net.cpp:157] Top shape: 1024 (1024)
I0411 13:46:52.731317 25130 net.cpp:157] Top shape: 1024 (1024)
I0411 13:46:52.731320 25130 net.cpp:165] Memory required for data: 28327936
I0411 13:46:52.731325 25130 layer_factory.hpp:77] Creating layer conv1
I0411 13:46:52.731339 25130 net.cpp:100] Creating Layer conv1
I0411 13:46:52.731345 25130 net.cpp:434] conv1 <- data
I0411 13:46:52.731358 25130 net.cpp:408] conv1 -> conv1
I0411 13:46:52.736804 25130 net.cpp:150] Setting up conv1
I0411 13:46:52.736827 25130 net.cpp:157] Top shape: 1024 100 42 42 (180633600)
I0411 13:46:52.736832 25130 net.cpp:165] Memory required for data: 750862336
I0411 13:46:52.736850 25130 layer_factory.hpp:77] Creating layer conv1_prescale
I0411 13:46:52.736860 25130 net.cpp:100] Creating Layer conv1_prescale
I0411 13:46:52.736865 25130 net.cpp:434] conv1_prescale <- conv1
I0411 13:46:52.736873 25130 net.cpp:395] conv1_prescale -> conv1 (in-place)
I0411 13:46:52.737009 25130 net.cpp:150] Setting up conv1_prescale
I0411 13:46:52.737020 25130 net.cpp:157] Top shape: 1024 100 42 42 (180633600)
I0411 13:46:52.737026 25130 net.cpp:165] Memory required for data: 1473396736
I0411 13:46:52.737035 25130 layer_factory.hpp:77] Creating layer conv1_sTanH
I0411 13:46:52.737046 25130 net.cpp:100] Creating Layer conv1_sTanH
I0411 13:46:52.737051 25130 net.cpp:434] conv1_sTanH <- conv1
I0411 13:46:52.737061 25130 net.cpp:395] conv1_sTanH -> conv1 (in-place)
I0411 13:46:52.737305 25130 net.cpp:150] Setting up conv1_sTanH
I0411 13:46:52.737321 25130 net.cpp:157] Top shape: 1024 100 42 42 (180633600)
I0411 13:46:52.737325 25130 net.cpp:165] Memory required for data: 2195931136
I0411 13:46:52.737329 25130 layer_factory.hpp:77] Creating layer conv1_postscale
I0411 13:46:52.737339 25130 net.cpp:100] Creating Layer conv1_postscale
I0411 13:46:52.737344 25130 net.cpp:434] conv1_postscale <- conv1
I0411 13:46:52.737350 25130 net.cpp:395] conv1_postscale -> conv1 (in-place)
I0411 13:46:52.737519 25130 net.cpp:150] Setting up conv1_postscale
I0411 13:46:52.737534 25130 net.cpp:157] Top shape: 1024 100 42 42 (180633600)
I0411 13:46:52.737538 25130 net.cpp:165] Memory required for data: 2918465536
I0411 13:46:52.737545 25130 layer_factory.hpp:77] Creating layer pool1
I0411 13:46:52.737555 25130 net.cpp:100] Creating Layer pool1
I0411 13:46:52.737561 25130 net.cpp:434] pool1 <- conv1
I0411 13:46:52.737568 25130 net.cpp:408] pool1 -> pool1
I0411 13:46:52.737640 25130 net.cpp:150] Setting up pool1
I0411 13:46:52.737651 25130 net.cpp:157] Top shape: 1024 100 21 21 (45158400)
I0411 13:46:52.737655 25130 net.cpp:165] Memory required for data: 3099099136
I0411 13:46:52.737659 25130 layer_factory.hpp:77] Creating layer conv2
I0411 13:46:52.737671 25130 net.cpp:100] Creating Layer conv2
I0411 13:46:52.737678 25130 net.cpp:434] conv2 <- pool1
I0411 13:46:52.737685 25130 net.cpp:408] conv2 -> conv2
I0411 13:46:52.746726 25130 net.cpp:150] Setting up conv2
I0411 13:46:52.746749 25130 net.cpp:157] Top shape: 1024 150 18 18 (49766400)
I0411 13:46:52.746754 25130 net.cpp:165] Memory required for data: 3298164736
I0411 13:46:52.746767 25130 layer_factory.hpp:77] Creating layer conv2_prescale
I0411 13:46:52.746784 25130 net.cpp:100] Creating Layer conv2_prescale
I0411 13:46:52.746791 25130 net.cpp:434] conv2_prescale <- conv2
I0411 13:46:52.746799 25130 net.cpp:395] conv2_prescale -> conv2 (in-place)
I0411 13:46:52.746945 25130 net.cpp:150] Setting up conv2_prescale
I0411 13:46:52.746958 25130 net.cpp:157] Top shape: 1024 150 18 18 (49766400)
I0411 13:46:52.746961 25130 net.cpp:165] Memory required for data: 3497230336
I0411 13:46:52.746968 25130 layer_factory.hpp:77] Creating layer conv2_sTanH
I0411 13:46:52.746978 25130 net.cpp:100] Creating Layer conv2_sTanH
I0411 13:46:52.746984 25130 net.cpp:434] conv2_sTanH <- conv2
I0411 13:46:52.746990 25130 net.cpp:395] conv2_sTanH -> conv2 (in-place)
I0411 13:46:52.749083 25130 net.cpp:150] Setting up conv2_sTanH
I0411 13:46:52.749109 25130 net.cpp:157] Top shape: 1024 150 18 18 (49766400)
I0411 13:46:52.749114 25130 net.cpp:165] Memory required for data: 3696295936
I0411 13:46:52.749119 25130 layer_factory.hpp:77] Creating layer conv2_postscale
I0411 13:46:52.749128 25130 net.cpp:100] Creating Layer conv2_postscale
I0411 13:46:52.749135 25130 net.cpp:434] conv2_postscale <- conv2
I0411 13:46:52.749145 25130 net.cpp:395] conv2_postscale -> conv2 (in-place)
I0411 13:46:52.749282 25130 net.cpp:150] Setting up conv2_postscale
I0411 13:46:52.749296 25130 net.cpp:157] Top shape: 1024 150 18 18 (49766400)
I0411 13:46:52.749302 25130 net.cpp:165] Memory required for data: 3895361536
I0411 13:46:52.749310 25130 layer_factory.hpp:77] Creating layer pool2
I0411 13:46:52.749316 25130 net.cpp:100] Creating Layer pool2
I0411 13:46:52.749322 25130 net.cpp:434] pool2 <- conv2
I0411 13:46:52.749330 25130 net.cpp:408] pool2 -> pool2
I0411 13:46:52.749389 25130 net.cpp:150] Setting up pool2
I0411 13:46:52.749400 25130 net.cpp:157] Top shape: 1024 150 9 9 (12441600)
I0411 13:46:52.749405 25130 net.cpp:165] Memory required for data: 3945127936
I0411 13:46:52.749409 25130 layer_factory.hpp:77] Creating layer conv3
I0411 13:46:52.749423 25130 net.cpp:100] Creating Layer conv3
I0411 13:46:52.749428 25130 net.cpp:434] conv3 <- pool2
I0411 13:46:52.749438 25130 net.cpp:408] conv3 -> conv3
I0411 13:46:52.756716 25130 net.cpp:150] Setting up conv3
I0411 13:46:52.756738 25130 net.cpp:157] Top shape: 1024 250 6 6 (9216000)
I0411 13:46:52.756744 25130 net.cpp:165] Memory required for data: 3981991936
I0411 13:46:52.756764 25130 layer_factory.hpp:77] Creating layer conv3_prescale
I0411 13:46:52.756777 25130 net.cpp:100] Creating Layer conv3_prescale
I0411 13:46:52.756783 25130 net.cpp:434] conv3_prescale <- conv3
I0411 13:46:52.756793 25130 net.cpp:395] conv3_prescale -> conv3 (in-place)
I0411 13:46:52.756927 25130 net.cpp:150] Setting up conv3_prescale
I0411 13:46:52.756939 25130 net.cpp:157] Top shape: 1024 250 6 6 (9216000)
I0411 13:46:52.756947 25130 net.cpp:165] Memory required for data: 4018855936
I0411 13:46:52.756954 25130 layer_factory.hpp:77] Creating layer conv3_sTanH
I0411 13:46:52.756963 25130 net.cpp:100] Creating Layer conv3_sTanH
I0411 13:46:52.756968 25130 net.cpp:434] conv3_sTanH <- conv3
I0411 13:46:52.756974 25130 net.cpp:395] conv3_sTanH -> conv3 (in-place)
I0411 13:46:52.758589 25130 net.cpp:150] Setting up conv3_sTanH
I0411 13:46:52.758610 25130 net.cpp:157] Top shape: 1024 250 6 6 (9216000)
I0411 13:46:52.758615 25130 net.cpp:165] Memory required for data: 4055719936
I0411 13:46:52.758620 25130 layer_factory.hpp:77] Creating layer conv3_postscale
I0411 13:46:52.758628 25130 net.cpp:100] Creating Layer conv3_postscale
I0411 13:46:52.758635 25130 net.cpp:434] conv3_postscale <- conv3
I0411 13:46:52.758646 25130 net.cpp:395] conv3_postscale -> conv3 (in-place)
I0411 13:46:52.758782 25130 net.cpp:150] Setting up conv3_postscale
I0411 13:46:52.758795 25130 net.cpp:157] Top shape: 1024 250 6 6 (9216000)
I0411 13:46:52.758798 25130 net.cpp:165] Memory required for data: 4092583936
I0411 13:46:52.758805 25130 layer_factory.hpp:77] Creating layer pool3
I0411 13:46:52.758817 25130 net.cpp:100] Creating Layer pool3
I0411 13:46:52.758826 25130 net.cpp:434] pool3 <- conv3
I0411 13:46:52.758832 25130 net.cpp:408] pool3 -> pool3
I0411 13:46:52.758888 25130 net.cpp:150] Setting up pool3
I0411 13:46:52.758899 25130 net.cpp:157] Top shape: 1024 250 3 3 (2304000)
I0411 13:46:52.758903 25130 net.cpp:165] Memory required for data: 4101799936
I0411 13:46:52.758908 25130 layer_factory.hpp:77] Creating layer fc4_300
I0411 13:46:52.758915 25130 net.cpp:100] Creating Layer fc4_300
I0411 13:46:52.758922 25130 net.cpp:434] fc4_300 <- pool3
I0411 13:46:52.758930 25130 net.cpp:408] fc4_300 -> fc4_300
I0411 13:46:52.766954 25130 net.cpp:150] Setting up fc4_300
I0411 13:46:52.766978 25130 net.cpp:157] Top shape: 1024 300 (307200)
I0411 13:46:52.766983 25130 net.cpp:165] Memory required for data: 4103028736
I0411 13:46:52.767012 25130 layer_factory.hpp:77] Creating layer fc4_prescale
I0411 13:46:52.767029 25130 net.cpp:100] Creating Layer fc4_prescale
I0411 13:46:52.767038 25130 net.cpp:434] fc4_prescale <- fc4_300
I0411 13:46:52.767055 25130 net.cpp:395] fc4_prescale -> fc4_300 (in-place)
I0411 13:46:52.767177 25130 net.cpp:150] Setting up fc4_prescale
I0411 13:46:52.767189 25130 net.cpp:157] Top shape: 1024 300 (307200)
I0411 13:46:52.767192 25130 net.cpp:165] Memory required for data: 4104257536
I0411 13:46:52.767199 25130 layer_factory.hpp:77] Creating layer fc4_sTanH
I0411 13:46:52.767206 25130 net.cpp:100] Creating Layer fc4_sTanH
I0411 13:46:52.767213 25130 net.cpp:434] fc4_sTanH <- fc4_300
I0411 13:46:52.767220 25130 net.cpp:395] fc4_sTanH -> fc4_300 (in-place)
I0411 13:46:52.767467 25130 net.cpp:150] Setting up fc4_sTanH
I0411 13:46:52.767482 25130 net.cpp:157] Top shape: 1024 300 (307200)
I0411 13:46:52.767490 25130 net.cpp:165] Memory required for data: 4105486336
I0411 13:46:52.767495 25130 layer_factory.hpp:77] Creating layer fc4_postscale
I0411 13:46:52.767505 25130 net.cpp:100] Creating Layer fc4_postscale
I0411 13:46:52.767511 25130 net.cpp:434] fc4_postscale <- fc4_300
I0411 13:46:52.767521 25130 net.cpp:395] fc4_postscale -> fc4_300 (in-place)
I0411 13:46:52.767652 25130 net.cpp:150] Setting up fc4_postscale
I0411 13:46:52.767664 25130 net.cpp:157] Top shape: 1024 300 (307200)
I0411 13:46:52.767668 25130 net.cpp:165] Memory required for data: 4106715136
I0411 13:46:52.767673 25130 layer_factory.hpp:77] Creating layer drop4
I0411 13:46:52.767688 25130 net.cpp:100] Creating Layer drop4
I0411 13:46:52.767693 25130 net.cpp:434] drop4 <- fc4_300
I0411 13:46:52.767704 25130 net.cpp:395] drop4 -> fc4_300 (in-place)
I0411 13:46:52.767757 25130 net.cpp:150] Setting up drop4
I0411 13:46:52.767773 25130 net.cpp:157] Top shape: 1024 300 (307200)
I0411 13:46:52.767781 25130 net.cpp:165] Memory required for data: 4107943936
I0411 13:46:52.767786 25130 layer_factory.hpp:77] Creating layer fc5_67
I0411 13:46:52.767794 25130 net.cpp:100] Creating Layer fc5_67
I0411 13:46:52.767801 25130 net.cpp:434] fc5_67 <- fc4_300
I0411 13:46:52.767810 25130 net.cpp:408] fc5_67 -> fc5_classes
I0411 13:46:52.768134 25130 net.cpp:150] Setting up fc5_67
I0411 13:46:52.768147 25130 net.cpp:157] Top shape: 1024 67 (68608)
I0411 13:46:52.768151 25130 net.cpp:165] Memory required for data: 4108218368
I0411 13:46:52.768165 25130 layer_factory.hpp:77] Creating layer fc5_classes_fc5_67_0_split
I0411 13:46:52.768177 25130 net.cpp:100] Creating Layer fc5_classes_fc5_67_0_split
I0411 13:46:52.768182 25130 net.cpp:434] fc5_classes_fc5_67_0_split <- fc5_classes
I0411 13:46:52.768189 25130 net.cpp:408] fc5_classes_fc5_67_0_split -> fc5_classes_fc5_67_0_split_0
I0411 13:46:52.768203 25130 net.cpp:408] fc5_classes_fc5_67_0_split -> fc5_classes_fc5_67_0_split_1
I0411 13:46:52.768213 25130 net.cpp:408] fc5_classes_fc5_67_0_split -> fc5_classes_fc5_67_0_split_2
I0411 13:46:52.768285 25130 net.cpp:150] Setting up fc5_classes_fc5_67_0_split
I0411 13:46:52.768298 25130 net.cpp:157] Top shape: 1024 67 (68608)
I0411 13:46:52.768303 25130 net.cpp:157] Top shape: 1024 67 (68608)
I0411 13:46:52.768307 25130 net.cpp:157] Top shape: 1024 67 (68608)
I0411 13:46:52.768311 25130 net.cpp:165] Memory required for data: 4109041664
I0411 13:46:52.768314 25130 layer_factory.hpp:77] Creating layer loss
I0411 13:46:52.768321 25130 net.cpp:100] Creating Layer loss
I0411 13:46:52.768327 25130 net.cpp:434] loss <- fc5_classes_fc5_67_0_split_0
I0411 13:46:52.768333 25130 net.cpp:434] loss <- label_data_1_split_0
I0411 13:46:52.768339 25130 net.cpp:408] loss -> loss
…
