…
I0411 13:16:40.078755 22203 net.cpp:322] The NetState phase (0) differed from the phase (1) specified by a rule in layer accuracy_5
I0411 13:16:40.078943 22203 net.cpp:58] Initializing net from parameters: 
state {
  phase: TRAIN
  level: 0
  stage: ""
}
layer {
  name: "data"
  type: "Data"
  top: "data"
  top: "label"
  include {
    phase: TRAIN
  }
  transform_param {
    scale: 0.0039215689
    mirror: false
    crop_size: 48
    mean_value: 132
    mean_value: 132
    mean_value: 131
  }
  data_param {
    source: "../local_data/lmdb/rtsd-r1/CoNorm/train/lmdb"
    batch_size: 1024
    backend: LMDB
  }
}
layer {
  name: "conv1"
  type: "Convolution"
  bottom: "data"
  top: "conv1"
  convolution_param {
    num_output: 100
    pad: 0
    kernel_size: 7
    group: 1
    stride: 1
    weight_filler {
      type: "xavier"
    }
  }
}
layer {
  name: "conv1_prescale"
  type: "Scale"
  bottom: "conv1"
  top: "conv1"
  param {
    lr_mult: 0
    decay_mult: 0
  }
  scale_param {
    filler {
      value: 0.6666
    }
    bias_term: false
  }
}
layer {
  name: "conv1_sTanH"
  type: "TanH"
  bottom: "conv1"
  top: "conv1"
}
layer {
  name: "conv1_postscale"
  type: "Scale"
  bottom: "conv1"
  top: "conv1"
  param {
    lr_mult: 0
    decay_mult: 0
  }
  scale_param {
    filler {
      value: 1.7159
    }
    bias_term: false
  }
}
layer {
  name: "pool1"
  type: "Pooling"
  bottom: "conv1"
  top: "pool1"
  pooling_param {
    pool: MAX
    kernel_size: 2
    stride: 2
  }
}
layer {
  name: "conv2"
  type: "Convolution"
  bottom: "pool1"
  top: "conv2"
  convolution_param {
    num_output: 150
    pad: 0
    kernel_size: 4
    group: 1
    stride: 1
    weight_filler {
      type: "xavier"
    }
  }
}
layer {
  name: "conv2_prescale"
  type: "Scale"
  bottom: "conv2"
  top: "conv2"
  param {
    lr_mult: 0
    decay_mult: 0
  }
  scale_param {
    filler {
      value: 0.6666
    }
    bias_term: false
  }
}
layer {
  name: "conv2_sTanH"
  type: "TanH"
  bottom: "conv2"
  top: "conv2"
}
layer {
  name: "conv2_postscale"
  type: "Scale"
  bottom: "conv2"
  top: "conv2"
  param {
    lr_mult: 0
    decay_mult: 0
  }
  scale_param {
    filler {
      value: 1.7159
    }
    bias_term: false
  }
}
layer {
  name: "pool2"
  type: "Pooling"
  bottom: "conv2"
  top: "pool2"
  pooling_param {
    pool: MAX
    kernel_size: 2
    stride: 2
  }
}
layer {
  name: "conv3"
  type: "Convolution"
  bottom: "pool2"
  top: "conv3"
  convolution_param {
    num_output: 250
    pad: 0
    kernel_size: 4
    group: 1
    stride: 1
    weight_filler {
      type: "xavier"
    }
  }
}
layer {
  name: "conv3_prescale"
  type: "Scale"
  bottom: "conv3"
  top: "conv3"
  param {
    lr_mult: 0
    decay_mult: 0
  }
  scale_param {
    filler {
      value: 0.6666
    }
    bias_term: false
  }
}
layer {
  name: "conv3_sTanH"
  type: "TanH"
  bottom: "conv3"
  top: "conv3"
}
layer {
  name: "conv3_postscale"
  type: "Scale"
  bottom: "conv3"
  top: "conv3"
  param {
    lr_mult: 0
    decay_mult: 0
  }
  scale_param {
    filler {
      value: 1.7159
    }
    bias_term: false
  }
}
layer {
  name: "pool3"
  type: "Pooling"
  bottom: "conv3"
  top: "pool3"
  pooling_param {
    pool: MAX
    kernel_size: 2
    stride: 2
  }
}
layer {
  name: "fc4_300"
  type: "InnerProduct"
  bottom: "pool3"
  top: "fc4_300"
  inner_product_param {
    num_output: 300
    weight_filler {
      type: "xavier"
    }
  }
}
layer {
  name: "fc4_prescale"
  type: "Scale"
  bottom: "fc4_300"
  top: "fc4_300"
  param {
    lr_mult: 0
    decay_mult: 0
  }
  scale_param {
    filler {
      value: 0.6666
    }
    bias_term: false
  }
}
layer {
  name: "fc4_sTanH"
  type: "TanH"
  bottom: "fc4_300"
  top: "fc4_300"
}
layer {
  name: "fc4_postscale"
  type: "Scale"
  bottom: "fc4_300"
  top: "fc4_300"
  param {
    lr_mult: 0
    decay_mult: 0
  }
  scale_param {
    filler {
      value: 1.7159
    }
    bias_term: false
  }
}
layer {
  name: "drop4"
  type: "Dropout"
  bottom: "fc4_300"
  top: "fc4_300"
  dropout_param {
    dropout_ratio: 0.4
  }
}
layer {
  name: "fc5_67"
  type: "InnerProduct"
  bottom: "fc4_300"
  top: "fc5_classes"
  inner_product_param {
    num_output: 67
    weight_filler {
      type: "xavier"
    }
  }
}
layer {
  name: "loss"
  type: "SoftmaxWithLoss"
  bottom: "fc5_classes"
  bottom: "label"
  top: "loss"
}
I0411 13:16:40.079071 22203 layer_factory.hpp:77] Creating layer data
I0411 13:16:40.080375 22203 net.cpp:100] Creating Layer data
I0411 13:16:40.080394 22203 net.cpp:408] data -> data
I0411 13:16:40.080420 22203 net.cpp:408] data -> label
I0411 13:16:40.082379 22314 db_lmdb.cpp:35] Opened lmdb ../local_data/lmdb/rtsd-r1/CoNorm/train/lmdb
I0411 13:16:40.103518 22203 data_layer.cpp:41] output data size: 1024,3,48,48
I0411 13:16:40.170331 22203 net.cpp:150] Setting up data
I0411 13:16:40.170367 22203 net.cpp:157] Top shape: 1024 3 48 48 (7077888)
I0411 13:16:40.170374 22203 net.cpp:157] Top shape: 1024 (1024)
I0411 13:16:40.170377 22203 net.cpp:165] Memory required for data: 28315648
I0411 13:16:40.170388 22203 layer_factory.hpp:77] Creating layer conv1
I0411 13:16:40.170414 22203 net.cpp:100] Creating Layer conv1
I0411 13:16:40.170423 22203 net.cpp:434] conv1 <- data
I0411 13:16:40.170438 22203 net.cpp:408] conv1 -> conv1
I0411 13:16:40.692241 22203 net.cpp:150] Setting up conv1
I0411 13:16:40.692284 22203 net.cpp:157] Top shape: 1024 100 42 42 (180633600)
I0411 13:16:40.692288 22203 net.cpp:165] Memory required for data: 750850048
I0411 13:16:40.692309 22203 layer_factory.hpp:77] Creating layer conv1_prescale
I0411 13:16:40.692325 22203 net.cpp:100] Creating Layer conv1_prescale
I0411 13:16:40.692329 22203 net.cpp:434] conv1_prescale <- conv1
I0411 13:16:40.692337 22203 net.cpp:395] conv1_prescale -> conv1 (in-place)
I0411 13:16:40.692448 22203 net.cpp:150] Setting up conv1_prescale
I0411 13:16:40.692457 22203 net.cpp:157] Top shape: 1024 100 42 42 (180633600)
I0411 13:16:40.692461 22203 net.cpp:165] Memory required for data: 1473384448
I0411 13:16:40.692467 22203 layer_factory.hpp:77] Creating layer conv1_sTanH
I0411 13:16:40.692476 22203 net.cpp:100] Creating Layer conv1_sTanH
I0411 13:16:40.692478 22203 net.cpp:434] conv1_sTanH <- conv1
I0411 13:16:40.692482 22203 net.cpp:395] conv1_sTanH -> conv1 (in-place)
I0411 13:16:40.692683 22203 net.cpp:150] Setting up conv1_sTanH
I0411 13:16:40.692695 22203 net.cpp:157] Top shape: 1024 100 42 42 (180633600)
I0411 13:16:40.692698 22203 net.cpp:165] Memory required for data: 2195918848
I0411 13:16:40.692701 22203 layer_factory.hpp:77] Creating layer conv1_postscale
I0411 13:16:40.692709 22203 net.cpp:100] Creating Layer conv1_postscale
I0411 13:16:40.692713 22203 net.cpp:434] conv1_postscale <- conv1
I0411 13:16:40.692719 22203 net.cpp:395] conv1_postscale -> conv1 (in-place)
I0411 13:16:40.692823 22203 net.cpp:150] Setting up conv1_postscale
I0411 13:16:40.692831 22203 net.cpp:157] Top shape: 1024 100 42 42 (180633600)
I0411 13:16:40.692834 22203 net.cpp:165] Memory required for data: 2918453248
I0411 13:16:40.692839 22203 layer_factory.hpp:77] Creating layer pool1
I0411 13:16:40.692847 22203 net.cpp:100] Creating Layer pool1
I0411 13:16:40.692849 22203 net.cpp:434] pool1 <- conv1
I0411 13:16:40.692857 22203 net.cpp:408] pool1 -> pool1
I0411 13:16:40.692939 22203 net.cpp:150] Setting up pool1
I0411 13:16:40.692950 22203 net.cpp:157] Top shape: 1024 100 21 21 (45158400)
I0411 13:16:40.692953 22203 net.cpp:165] Memory required for data: 3099086848
I0411 13:16:40.692957 22203 layer_factory.hpp:77] Creating layer conv2
I0411 13:16:40.692968 22203 net.cpp:100] Creating Layer conv2
I0411 13:16:40.692975 22203 net.cpp:434] conv2 <- pool1
I0411 13:16:40.692980 22203 net.cpp:408] conv2 -> conv2
I0411 13:16:40.697348 22203 net.cpp:150] Setting up conv2
I0411 13:16:40.697366 22203 net.cpp:157] Top shape: 1024 150 18 18 (49766400)
I0411 13:16:40.697369 22203 net.cpp:165] Memory required for data: 3298152448
I0411 13:16:40.697381 22203 layer_factory.hpp:77] Creating layer conv2_prescale
I0411 13:16:40.697389 22203 net.cpp:100] Creating Layer conv2_prescale
I0411 13:16:40.697393 22203 net.cpp:434] conv2_prescale <- conv2
I0411 13:16:40.697398 22203 net.cpp:395] conv2_prescale -> conv2 (in-place)
I0411 13:16:40.697511 22203 net.cpp:150] Setting up conv2_prescale
I0411 13:16:40.697520 22203 net.cpp:157] Top shape: 1024 150 18 18 (49766400)
I0411 13:16:40.697523 22203 net.cpp:165] Memory required for data: 3497218048
I0411 13:16:40.697528 22203 layer_factory.hpp:77] Creating layer conv2_sTanH
I0411 13:16:40.697536 22203 net.cpp:100] Creating Layer conv2_sTanH
I0411 13:16:40.697541 22203 net.cpp:434] conv2_sTanH <- conv2
I0411 13:16:40.697546 22203 net.cpp:395] conv2_sTanH -> conv2 (in-place)
I0411 13:16:40.698302 22203 net.cpp:150] Setting up conv2_sTanH
I0411 13:16:40.698320 22203 net.cpp:157] Top shape: 1024 150 18 18 (49766400)
I0411 13:16:40.698323 22203 net.cpp:165] Memory required for data: 3696283648
I0411 13:16:40.698328 22203 layer_factory.hpp:77] Creating layer conv2_postscale
I0411 13:16:40.698333 22203 net.cpp:100] Creating Layer conv2_postscale
I0411 13:16:40.698338 22203 net.cpp:434] conv2_postscale <- conv2
I0411 13:16:40.698343 22203 net.cpp:395] conv2_postscale -> conv2 (in-place)
I0411 13:16:40.698443 22203 net.cpp:150] Setting up conv2_postscale
I0411 13:16:40.698453 22203 net.cpp:157] Top shape: 1024 150 18 18 (49766400)
I0411 13:16:40.698457 22203 net.cpp:165] Memory required for data: 3895349248
I0411 13:16:40.698462 22203 layer_factory.hpp:77] Creating layer pool2
I0411 13:16:40.698467 22203 net.cpp:100] Creating Layer pool2
I0411 13:16:40.698470 22203 net.cpp:434] pool2 <- conv2
I0411 13:16:40.698475 22203 net.cpp:408] pool2 -> pool2
I0411 13:16:40.698519 22203 net.cpp:150] Setting up pool2
I0411 13:16:40.698528 22203 net.cpp:157] Top shape: 1024 150 9 9 (12441600)
I0411 13:16:40.698530 22203 net.cpp:165] Memory required for data: 3945115648
I0411 13:16:40.698534 22203 layer_factory.hpp:77] Creating layer conv3
I0411 13:16:40.698542 22203 net.cpp:100] Creating Layer conv3
I0411 13:16:40.698546 22203 net.cpp:434] conv3 <- pool2
I0411 13:16:40.698554 22203 net.cpp:408] conv3 -> conv3
I0411 13:16:40.704061 22203 net.cpp:150] Setting up conv3
I0411 13:16:40.704079 22203 net.cpp:157] Top shape: 1024 250 6 6 (9216000)
I0411 13:16:40.704083 22203 net.cpp:165] Memory required for data: 3981979648
I0411 13:16:40.704093 22203 layer_factory.hpp:77] Creating layer conv3_prescale
I0411 13:16:40.704102 22203 net.cpp:100] Creating Layer conv3_prescale
I0411 13:16:40.704107 22203 net.cpp:434] conv3_prescale <- conv3
I0411 13:16:40.704111 22203 net.cpp:395] conv3_prescale -> conv3 (in-place)
I0411 13:16:40.704210 22203 net.cpp:150] Setting up conv3_prescale
I0411 13:16:40.704219 22203 net.cpp:157] Top shape: 1024 250 6 6 (9216000)
I0411 13:16:40.704222 22203 net.cpp:165] Memory required for data: 4018843648
I0411 13:16:40.704226 22203 layer_factory.hpp:77] Creating layer conv3_sTanH
I0411 13:16:40.704231 22203 net.cpp:100] Creating Layer conv3_sTanH
I0411 13:16:40.704234 22203 net.cpp:434] conv3_sTanH <- conv3
I0411 13:16:40.704241 22203 net.cpp:395] conv3_sTanH -> conv3 (in-place)
I0411 13:16:40.705168 22203 net.cpp:150] Setting up conv3_sTanH
I0411 13:16:40.705183 22203 net.cpp:157] Top shape: 1024 250 6 6 (9216000)
I0411 13:16:40.705186 22203 net.cpp:165] Memory required for data: 4055707648
I0411 13:16:40.705204 22203 layer_factory.hpp:77] Creating layer conv3_postscale
I0411 13:16:40.705214 22203 net.cpp:100] Creating Layer conv3_postscale
I0411 13:16:40.705219 22203 net.cpp:434] conv3_postscale <- conv3
I0411 13:16:40.705224 22203 net.cpp:395] conv3_postscale -> conv3 (in-place)
I0411 13:16:40.705328 22203 net.cpp:150] Setting up conv3_postscale
I0411 13:16:40.705338 22203 net.cpp:157] Top shape: 1024 250 6 6 (9216000)
I0411 13:16:40.705340 22203 net.cpp:165] Memory required for data: 4092571648
I0411 13:16:40.705345 22203 layer_factory.hpp:77] Creating layer pool3
I0411 13:16:40.705351 22203 net.cpp:100] Creating Layer pool3
I0411 13:16:40.705354 22203 net.cpp:434] pool3 <- conv3
I0411 13:16:40.705360 22203 net.cpp:408] pool3 -> pool3
I0411 13:16:40.705400 22203 net.cpp:150] Setting up pool3
I0411 13:16:40.705409 22203 net.cpp:157] Top shape: 1024 250 3 3 (2304000)
I0411 13:16:40.705411 22203 net.cpp:165] Memory required for data: 4101787648
I0411 13:16:40.705415 22203 layer_factory.hpp:77] Creating layer fc4_300
I0411 13:16:40.705425 22203 net.cpp:100] Creating Layer fc4_300
I0411 13:16:40.705428 22203 net.cpp:434] fc4_300 <- pool3
I0411 13:16:40.705433 22203 net.cpp:408] fc4_300 -> fc4_300
I0411 13:16:40.710891 22203 net.cpp:150] Setting up fc4_300
I0411 13:16:40.710908 22203 net.cpp:157] Top shape: 1024 300 (307200)
I0411 13:16:40.710911 22203 net.cpp:165] Memory required for data: 4103016448
I0411 13:16:40.710918 22203 layer_factory.hpp:77] Creating layer fc4_prescale
I0411 13:16:40.710927 22203 net.cpp:100] Creating Layer fc4_prescale
I0411 13:16:40.710930 22203 net.cpp:434] fc4_prescale <- fc4_300
I0411 13:16:40.710937 22203 net.cpp:395] fc4_prescale -> fc4_300 (in-place)
I0411 13:16:40.711027 22203 net.cpp:150] Setting up fc4_prescale
I0411 13:16:40.711036 22203 net.cpp:157] Top shape: 1024 300 (307200)
I0411 13:16:40.711040 22203 net.cpp:165] Memory required for data: 4104245248
I0411 13:16:40.711043 22203 layer_factory.hpp:77] Creating layer fc4_sTanH
I0411 13:16:40.711048 22203 net.cpp:100] Creating Layer fc4_sTanH
I0411 13:16:40.711051 22203 net.cpp:434] fc4_sTanH <- fc4_300
I0411 13:16:40.711055 22203 net.cpp:395] fc4_sTanH -> fc4_300 (in-place)
I0411 13:16:40.711247 22203 net.cpp:150] Setting up fc4_sTanH
I0411 13:16:40.711258 22203 net.cpp:157] Top shape: 1024 300 (307200)
I0411 13:16:40.711261 22203 net.cpp:165] Memory required for data: 4105474048
I0411 13:16:40.711264 22203 layer_factory.hpp:77] Creating layer fc4_postscale
I0411 13:16:40.711272 22203 net.cpp:100] Creating Layer fc4_postscale
I0411 13:16:40.711275 22203 net.cpp:434] fc4_postscale <- fc4_300
I0411 13:16:40.711280 22203 net.cpp:395] fc4_postscale -> fc4_300 (in-place)
I0411 13:16:40.711379 22203 net.cpp:150] Setting up fc4_postscale
I0411 13:16:40.711387 22203 net.cpp:157] Top shape: 1024 300 (307200)
I0411 13:16:40.711390 22203 net.cpp:165] Memory required for data: 4106702848
I0411 13:16:40.711395 22203 layer_factory.hpp:77] Creating layer drop4
I0411 13:16:40.711400 22203 net.cpp:100] Creating Layer drop4
I0411 13:16:40.711403 22203 net.cpp:434] drop4 <- fc4_300
I0411 13:16:40.711408 22203 net.cpp:395] drop4 -> fc4_300 (in-place)
I0411 13:16:40.711438 22203 net.cpp:150] Setting up drop4
I0411 13:16:40.711446 22203 net.cpp:157] Top shape: 1024 300 (307200)
I0411 13:16:40.711448 22203 net.cpp:165] Memory required for data: 4107931648
I0411 13:16:40.711452 22203 layer_factory.hpp:77] Creating layer fc5_67
I0411 13:16:40.711459 22203 net.cpp:100] Creating Layer fc5_67
I0411 13:16:40.711462 22203 net.cpp:434] fc5_67 <- fc4_300
I0411 13:16:40.711467 22203 net.cpp:408] fc5_67 -> fc5_classes
I0411 13:16:40.713316 22203 net.cpp:150] Setting up fc5_67
I0411 13:16:40.713332 22203 net.cpp:157] Top shape: 1024 67 (68608)
I0411 13:16:40.713336 22203 net.cpp:165] Memory required for data: 4108206080
I0411 13:16:40.713348 22203 layer_factory.hpp:77] Creating layer loss
I0411 13:16:40.713356 22203 net.cpp:100] Creating Layer loss
I0411 13:16:40.713359 22203 net.cpp:434] loss <- fc5_classes
I0411 13:16:40.713363 22203 net.cpp:434] loss <- label
I0411 13:16:40.713384 22203 net.cpp:408] loss -> loss
I0411 13:16:40.713398 22203 layer_factory.hpp:77] Creating layer loss
…
I0411 13:16:40.714157 22203 solver.cpp:193] Creating test net (#0) specified by test_net file: ./Prototxt/experiment_9/rtsd-r1/CoNorm/trial_1/test.prototxt
I0411 13:16:40.714345 22203 net.cpp:58] Initializing net from parameters: 
state {
  phase: TEST
}
layer {
  name: "data"
  type: "Data"
  top: "data"
  top: "label"
  include {
    phase: TEST
  }
  transform_param {
    scale: 0.0039215689
    mirror: false
    crop_size: 48
    mean_value: 133
    mean_value: 133
    mean_value: 132
  }
  data_param {
    source: "../local_data/lmdb/rtsd-r1/CoNorm/test/lmdb"
    batch_size: 1024
    backend: LMDB
  }
}
layer {
  name: "conv1"
  type: "Convolution"
  bottom: "data"
  top: "conv1"
  convolution_param {
    num_output: 100
    pad: 0
    kernel_size: 7
    group: 1
    stride: 1
    weight_filler {
      type: "xavier"
    }
  }
}
layer {
  name: "conv1_prescale"
  type: "Scale"
  bottom: "conv1"
  top: "conv1"
  param {
    lr_mult: 0
    decay_mult: 0
  }
  scale_param {
    filler {
      value: 0.6666
    }
    bias_term: false
  }
}
layer {
  name: "conv1_sTanH"
  type: "TanH"
  bottom: "conv1"
  top: "conv1"
}
layer {
  name: "conv1_postscale"
  type: "Scale"
  bottom: "conv1"
  top: "conv1"
  param {
    lr_mult: 0
    decay_mult: 0
  }
  scale_param {
    filler {
      value: 1.7159
    }
    bias_term: false
  }
}
layer {
  name: "pool1"
  type: "Pooling"
  bottom: "conv1"
  top: "pool1"
  pooling_param {
    pool: MAX
    kernel_size: 2
    stride: 2
  }
}
layer {
  name: "conv2"
  type: "Convolution"
  bottom: "pool1"
  top: "conv2"
  convolution_param {
    num_output: 150
    pad: 0
    kernel_size: 4
    group: 1
    stride: 1
    weight_filler {
      type: "xavier"
    }
  }
}
layer {
  name: "conv2_prescale"
  type: "Scale"
  bottom: "conv2"
  top: "conv2"
  param {
    lr_mult: 0
    decay_mult: 0
  }
  scale_param {
    filler {
      value: 0.6666
    }
    bias_term: false
  }
}
layer {
  name: "conv2_sTanH"
  type: "TanH"
  bottom: "conv2"
  top: "conv2"
}
layer {
  name: "conv2_postscale"
  type: "Scale"
  bottom: "conv2"
  top: "conv2"
  param {
    lr_mult: 0
    decay_mult: 0
  }
  scale_param {
    filler {
      value: 1.7159
    }
    bias_term: false
  }
}
layer {
  name: "pool2"
  type: "Pooling"
  bottom: "conv2"
  top: "pool2"
  pooling_param {
    pool: MAX
    kernel_size: 2
    stride: 2
  }
}
layer {
  name: "conv3"
  type: "Convolution"
  bottom: "pool2"
  top: "conv3"
  convolution_param {
    num_output: 250
    pad: 0
    kernel_size: 4
    group: 1
    stride: 1
    weight_filler {
      type: "xavier"
    }
  }
}
layer {
  name: "conv3_prescale"
  type: "Scale"
  bottom: "conv3"
  top: "conv3"
  param {
    lr_mult: 0
    decay_mult: 0
  }
  scale_param {
    filler {
      value: 0.6666
    }
    bias_term: false
  }
}
layer {
  name: "conv3_sTanH"
  type: "TanH"
  bottom: "conv3"
  top: "conv3"
}
layer {
  name: "conv3_postscale"
  type: "Scale"
  bottom: "conv3"
  top: "conv3"
  param {
    lr_mult: 0
    decay_mult: 0
  }
  scale_param {
    filler {
      value: 1.7159
    }
    bias_term: false
  }
}
layer {
  name: "pool3"
  type: "Pooling"
  bottom: "conv3"
  top: "pool3"
  pooling_param {
    pool: MAX
    kernel_size: 2
    stride: 2
  }
}
layer {
  name: "fc4_300"
  type: "InnerProduct"
  bottom: "pool3"
  top: "fc4_300"
  inner_product_param {
    num_output: 300
    weight_filler {
      type: "xavier"
    }
  }
}
layer {
  name: "fc4_prescale"
  type: "Scale"
  bottom: "fc4_300"
  top: "fc4_300"
  param {
    lr_mult: 0
    decay_mult: 0
  }
  scale_param {
    filler {
      value: 0.6666
    }
    bias_term: false
  }
}
layer {
  name: "fc4_sTanH"
  type: "TanH"
  bottom: "fc4_300"
  top: "fc4_300"
}
layer {
  name: "fc4_postscale"
  type: "Scale"
  bottom: "fc4_300"
  top: "fc4_300"
  param {
    lr_mult: 0
    decay_mult: 0
  }
  scale_param {
    filler {
      value: 1.7159
    }
    bias_term: false
  }
}
layer {
  name: "drop4"
  type: "Dropout"
  bottom: "fc4_300"
  top: "fc4_300"
  dropout_param {
    dropout_ratio: 0.4
  }
}
layer {
  name: "fc5_67"
  type: "InnerProduct"
  bottom: "fc4_300"
  top: "fc5_classes"
  inner_product_param {
    num_output: 67
    weight_filler {
      type: "xavier"
    }
  }
}
layer {
  name: "loss"
  type: "SoftmaxWithLoss"
  bottom: "fc5_classes"
  bottom: "label"
  top: "loss"
}
layer {
  name: "accuracy_1"
  type: "Accuracy"
  bottom: "fc5_classes"
  bottom: "label"
  top: "accuracy_1"
  include {
    phase: TEST
  }
  accuracy_param {
    top_k: 1
  }
}
layer {
  name: "accuracy_5"
  type: "Accuracy"
  bottom: "fc5_classes"
  bottom: "label"
  top: "accuracy_5"
  include {
    phase: TEST
  }
  accuracy_param {
    top_k: 5
  }
}
I0411 13:16:40.714471 22203 layer_factory.hpp:77] Creating layer data
I0411 13:16:40.715147 22203 net.cpp:100] Creating Layer data
I0411 13:16:40.715158 22203 net.cpp:408] data -> data
I0411 13:16:40.715169 22203 net.cpp:408] data -> label
I0411 13:16:40.716940 22384 db_lmdb.cpp:35] Opened lmdb ../local_data/lmdb/rtsd-r1/CoNorm/test/lmdb
I0411 13:16:40.717090 22203 data_layer.cpp:41] output data size: 1024,3,48,48
I0411 13:16:40.775475 22203 net.cpp:150] Setting up data
I0411 13:16:40.775540 22203 net.cpp:157] Top shape: 1024 3 48 48 (7077888)
I0411 13:16:40.775547 22203 net.cpp:157] Top shape: 1024 (1024)
I0411 13:16:40.775550 22203 net.cpp:165] Memory required for data: 28315648
I0411 13:16:40.775557 22203 layer_factory.hpp:77] Creating layer label_data_1_split
I0411 13:16:40.775571 22203 net.cpp:100] Creating Layer label_data_1_split
I0411 13:16:40.775575 22203 net.cpp:434] label_data_1_split <- label
I0411 13:16:40.775584 22203 net.cpp:408] label_data_1_split -> label_data_1_split_0
I0411 13:16:40.775598 22203 net.cpp:408] label_data_1_split -> label_data_1_split_1
I0411 13:16:40.775631 22203 net.cpp:408] label_data_1_split -> label_data_1_split_2
I0411 13:16:40.775712 22203 net.cpp:150] Setting up label_data_1_split
I0411 13:16:40.775720 22203 net.cpp:157] Top shape: 1024 (1024)
I0411 13:16:40.775723 22203 net.cpp:157] Top shape: 1024 (1024)
I0411 13:16:40.775727 22203 net.cpp:157] Top shape: 1024 (1024)
I0411 13:16:40.775729 22203 net.cpp:165] Memory required for data: 28327936
I0411 13:16:40.775732 22203 layer_factory.hpp:77] Creating layer conv1
I0411 13:16:40.775744 22203 net.cpp:100] Creating Layer conv1
I0411 13:16:40.775749 22203 net.cpp:434] conv1 <- data
I0411 13:16:40.775760 22203 net.cpp:408] conv1 -> conv1
I0411 13:16:40.777884 22203 net.cpp:150] Setting up conv1
I0411 13:16:40.777904 22203 net.cpp:157] Top shape: 1024 100 42 42 (180633600)
I0411 13:16:40.777906 22203 net.cpp:165] Memory required for data: 750862336
I0411 13:16:40.777918 22203 layer_factory.hpp:77] Creating layer conv1_prescale
I0411 13:16:40.777930 22203 net.cpp:100] Creating Layer conv1_prescale
I0411 13:16:40.777933 22203 net.cpp:434] conv1_prescale <- conv1
I0411 13:16:40.777938 22203 net.cpp:395] conv1_prescale -> conv1 (in-place)
I0411 13:16:40.778046 22203 net.cpp:150] Setting up conv1_prescale
I0411 13:16:40.778056 22203 net.cpp:157] Top shape: 1024 100 42 42 (180633600)
I0411 13:16:40.778059 22203 net.cpp:165] Memory required for data: 1473396736
I0411 13:16:40.778065 22203 layer_factory.hpp:77] Creating layer conv1_sTanH
I0411 13:16:40.778074 22203 net.cpp:100] Creating Layer conv1_sTanH
I0411 13:16:40.778077 22203 net.cpp:434] conv1_sTanH <- conv1
I0411 13:16:40.778082 22203 net.cpp:395] conv1_sTanH -> conv1 (in-place)
I0411 13:16:40.778277 22203 net.cpp:150] Setting up conv1_sTanH
I0411 13:16:40.778290 22203 net.cpp:157] Top shape: 1024 100 42 42 (180633600)
I0411 13:16:40.778293 22203 net.cpp:165] Memory required for data: 2195931136
I0411 13:16:40.778296 22203 layer_factory.hpp:77] Creating layer conv1_postscale
I0411 13:16:40.778302 22203 net.cpp:100] Creating Layer conv1_postscale
I0411 13:16:40.778306 22203 net.cpp:434] conv1_postscale <- conv1
I0411 13:16:40.778311 22203 net.cpp:395] conv1_postscale -> conv1 (in-place)
I0411 13:16:40.778425 22203 net.cpp:150] Setting up conv1_postscale
I0411 13:16:40.778434 22203 net.cpp:157] Top shape: 1024 100 42 42 (180633600)
I0411 13:16:40.778437 22203 net.cpp:165] Memory required for data: 2918465536
I0411 13:16:40.778442 22203 layer_factory.hpp:77] Creating layer pool1
I0411 13:16:40.778453 22203 net.cpp:100] Creating Layer pool1
I0411 13:16:40.778456 22203 net.cpp:434] pool1 <- conv1
I0411 13:16:40.778462 22203 net.cpp:408] pool1 -> pool1
I0411 13:16:40.778506 22203 net.cpp:150] Setting up pool1
I0411 13:16:40.778513 22203 net.cpp:157] Top shape: 1024 100 21 21 (45158400)
I0411 13:16:40.778517 22203 net.cpp:165] Memory required for data: 3099099136
I0411 13:16:40.778519 22203 layer_factory.hpp:77] Creating layer conv2
I0411 13:16:40.778528 22203 net.cpp:100] Creating Layer conv2
I0411 13:16:40.778533 22203 net.cpp:434] conv2 <- pool1
I0411 13:16:40.778538 22203 net.cpp:408] conv2 -> conv2
I0411 13:16:40.785396 22203 net.cpp:150] Setting up conv2
I0411 13:16:40.785418 22203 net.cpp:157] Top shape: 1024 150 18 18 (49766400)
I0411 13:16:40.785423 22203 net.cpp:165] Memory required for data: 3298164736
I0411 13:16:40.785434 22203 layer_factory.hpp:77] Creating layer conv2_prescale
I0411 13:16:40.785445 22203 net.cpp:100] Creating Layer conv2_prescale
I0411 13:16:40.785449 22203 net.cpp:434] conv2_prescale <- conv2
I0411 13:16:40.785459 22203 net.cpp:395] conv2_prescale -> conv2 (in-place)
I0411 13:16:40.785578 22203 net.cpp:150] Setting up conv2_prescale
I0411 13:16:40.785588 22203 net.cpp:157] Top shape: 1024 150 18 18 (49766400)
I0411 13:16:40.785590 22203 net.cpp:165] Memory required for data: 3497230336
I0411 13:16:40.785594 22203 layer_factory.hpp:77] Creating layer conv2_sTanH
I0411 13:16:40.785601 22203 net.cpp:100] Creating Layer conv2_sTanH
I0411 13:16:40.785604 22203 net.cpp:434] conv2_sTanH <- conv2
I0411 13:16:40.785609 22203 net.cpp:395] conv2_sTanH -> conv2 (in-place)
I0411 13:16:40.787259 22203 net.cpp:150] Setting up conv2_sTanH
I0411 13:16:40.787276 22203 net.cpp:157] Top shape: 1024 150 18 18 (49766400)
I0411 13:16:40.787279 22203 net.cpp:165] Memory required for data: 3696295936
I0411 13:16:40.787283 22203 layer_factory.hpp:77] Creating layer conv2_postscale
I0411 13:16:40.787292 22203 net.cpp:100] Creating Layer conv2_postscale
I0411 13:16:40.787295 22203 net.cpp:434] conv2_postscale <- conv2
I0411 13:16:40.787302 22203 net.cpp:395] conv2_postscale -> conv2 (in-place)
I0411 13:16:40.787413 22203 net.cpp:150] Setting up conv2_postscale
I0411 13:16:40.787422 22203 net.cpp:157] Top shape: 1024 150 18 18 (49766400)
I0411 13:16:40.787426 22203 net.cpp:165] Memory required for data: 3895361536
I0411 13:16:40.787431 22203 layer_factory.hpp:77] Creating layer pool2
I0411 13:16:40.787437 22203 net.cpp:100] Creating Layer pool2
I0411 13:16:40.787441 22203 net.cpp:434] pool2 <- conv2
I0411 13:16:40.787447 22203 net.cpp:408] pool2 -> pool2
I0411 13:16:40.787500 22203 net.cpp:150] Setting up pool2
I0411 13:16:40.787509 22203 net.cpp:157] Top shape: 1024 150 9 9 (12441600)
I0411 13:16:40.787511 22203 net.cpp:165] Memory required for data: 3945127936
I0411 13:16:40.787514 22203 layer_factory.hpp:77] Creating layer conv3
I0411 13:16:40.787524 22203 net.cpp:100] Creating Layer conv3
I0411 13:16:40.787528 22203 net.cpp:434] conv3 <- pool2
I0411 13:16:40.787533 22203 net.cpp:408] conv3 -> conv3
I0411 13:16:40.793614 22203 net.cpp:150] Setting up conv3
I0411 13:16:40.793632 22203 net.cpp:157] Top shape: 1024 250 6 6 (9216000)
I0411 13:16:40.793637 22203 net.cpp:165] Memory required for data: 3981991936
I0411 13:16:40.793648 22203 layer_factory.hpp:77] Creating layer conv3_prescale
I0411 13:16:40.793659 22203 net.cpp:100] Creating Layer conv3_prescale
I0411 13:16:40.793664 22203 net.cpp:434] conv3_prescale <- conv3
I0411 13:16:40.793671 22203 net.cpp:395] conv3_prescale -> conv3 (in-place)
I0411 13:16:40.793773 22203 net.cpp:150] Setting up conv3_prescale
I0411 13:16:40.793782 22203 net.cpp:157] Top shape: 1024 250 6 6 (9216000)
I0411 13:16:40.793787 22203 net.cpp:165] Memory required for data: 4018855936
I0411 13:16:40.793792 22203 layer_factory.hpp:77] Creating layer conv3_sTanH
I0411 13:16:40.793797 22203 net.cpp:100] Creating Layer conv3_sTanH
I0411 13:16:40.793800 22203 net.cpp:434] conv3_sTanH <- conv3
I0411 13:16:40.793807 22203 net.cpp:395] conv3_sTanH -> conv3 (in-place)
I0411 13:16:40.800052 22203 net.cpp:150] Setting up conv3_sTanH
I0411 13:16:40.800072 22203 net.cpp:157] Top shape: 1024 250 6 6 (9216000)
I0411 13:16:40.800076 22203 net.cpp:165] Memory required for data: 4055719936
I0411 13:16:40.800079 22203 layer_factory.hpp:77] Creating layer conv3_postscale
I0411 13:16:40.800089 22203 net.cpp:100] Creating Layer conv3_postscale
I0411 13:16:40.800096 22203 net.cpp:434] conv3_postscale <- conv3
I0411 13:16:40.800101 22203 net.cpp:395] conv3_postscale -> conv3 (in-place)
I0411 13:16:40.800213 22203 net.cpp:150] Setting up conv3_postscale
I0411 13:16:40.800222 22203 net.cpp:157] Top shape: 1024 250 6 6 (9216000)
I0411 13:16:40.800225 22203 net.cpp:165] Memory required for data: 4092583936
I0411 13:16:40.800231 22203 layer_factory.hpp:77] Creating layer pool3
I0411 13:16:40.800241 22203 net.cpp:100] Creating Layer pool3
I0411 13:16:40.800246 22203 net.cpp:434] pool3 <- conv3
I0411 13:16:40.800252 22203 net.cpp:408] pool3 -> pool3
I0411 13:16:40.800297 22203 net.cpp:150] Setting up pool3
I0411 13:16:40.800304 22203 net.cpp:157] Top shape: 1024 250 3 3 (2304000)
I0411 13:16:40.800307 22203 net.cpp:165] Memory required for data: 4101799936
I0411 13:16:40.800310 22203 layer_factory.hpp:77] Creating layer fc4_300
I0411 13:16:40.800318 22203 net.cpp:100] Creating Layer fc4_300
I0411 13:16:40.800321 22203 net.cpp:434] fc4_300 <- pool3
I0411 13:16:40.800326 22203 net.cpp:408] fc4_300 -> fc4_300
I0411 13:16:40.808344 22203 net.cpp:150] Setting up fc4_300
I0411 13:16:40.808363 22203 net.cpp:157] Top shape: 1024 300 (307200)
I0411 13:16:40.808367 22203 net.cpp:165] Memory required for data: 4103028736
I0411 13:16:40.808393 22203 layer_factory.hpp:77] Creating layer fc4_prescale
I0411 13:16:40.808405 22203 net.cpp:100] Creating Layer fc4_prescale
I0411 13:16:40.808409 22203 net.cpp:434] fc4_prescale <- fc4_300
I0411 13:16:40.808416 22203 net.cpp:395] fc4_prescale -> fc4_300 (in-place)
I0411 13:16:40.808519 22203 net.cpp:150] Setting up fc4_prescale
I0411 13:16:40.808531 22203 net.cpp:157] Top shape: 1024 300 (307200)
I0411 13:16:40.808533 22203 net.cpp:165] Memory required for data: 4104257536
I0411 13:16:40.808537 22203 layer_factory.hpp:77] Creating layer fc4_sTanH
I0411 13:16:40.808543 22203 net.cpp:100] Creating Layer fc4_sTanH
I0411 13:16:40.808547 22203 net.cpp:434] fc4_sTanH <- fc4_300
I0411 13:16:40.808552 22203 net.cpp:395] fc4_sTanH -> fc4_300 (in-place)
I0411 13:16:40.808758 22203 net.cpp:150] Setting up fc4_sTanH
I0411 13:16:40.808770 22203 net.cpp:157] Top shape: 1024 300 (307200)
I0411 13:16:40.808773 22203 net.cpp:165] Memory required for data: 4105486336
I0411 13:16:40.808776 22203 layer_factory.hpp:77] Creating layer fc4_postscale
I0411 13:16:40.808782 22203 net.cpp:100] Creating Layer fc4_postscale
I0411 13:16:40.808786 22203 net.cpp:434] fc4_postscale <- fc4_300
I0411 13:16:40.808799 22203 net.cpp:395] fc4_postscale -> fc4_300 (in-place)
I0411 13:16:40.808907 22203 net.cpp:150] Setting up fc4_postscale
I0411 13:16:40.808921 22203 net.cpp:157] Top shape: 1024 300 (307200)
I0411 13:16:40.808924 22203 net.cpp:165] Memory required for data: 4106715136
I0411 13:16:40.808929 22203 layer_factory.hpp:77] Creating layer drop4
I0411 13:16:40.808941 22203 net.cpp:100] Creating Layer drop4
I0411 13:16:40.808948 22203 net.cpp:434] drop4 <- fc4_300
I0411 13:16:40.808955 22203 net.cpp:395] drop4 -> fc4_300 (in-place)
I0411 13:16:40.808984 22203 net.cpp:150] Setting up drop4
I0411 13:16:40.808993 22203 net.cpp:157] Top shape: 1024 300 (307200)
I0411 13:16:40.808995 22203 net.cpp:165] Memory required for data: 4107943936
I0411 13:16:40.808998 22203 layer_factory.hpp:77] Creating layer fc5_67
I0411 13:16:40.809005 22203 net.cpp:100] Creating Layer fc5_67
I0411 13:16:40.809007 22203 net.cpp:434] fc5_67 <- fc4_300
I0411 13:16:40.809012 22203 net.cpp:408] fc5_67 -> fc5_classes
I0411 13:16:40.809264 22203 net.cpp:150] Setting up fc5_67
I0411 13:16:40.809273 22203 net.cpp:157] Top shape: 1024 67 (68608)
I0411 13:16:40.809276 22203 net.cpp:165] Memory required for data: 4108218368
I0411 13:16:40.809286 22203 layer_factory.hpp:77] Creating layer fc5_classes_fc5_67_0_split
I0411 13:16:40.809298 22203 net.cpp:100] Creating Layer fc5_classes_fc5_67_0_split
I0411 13:16:40.809304 22203 net.cpp:434] fc5_classes_fc5_67_0_split <- fc5_classes
I0411 13:16:40.809310 22203 net.cpp:408] fc5_classes_fc5_67_0_split -> fc5_classes_fc5_67_0_split_0
I0411 13:16:40.809319 22203 net.cpp:408] fc5_classes_fc5_67_0_split -> fc5_classes_fc5_67_0_split_1
I0411 13:16:40.809324 22203 net.cpp:408] fc5_classes_fc5_67_0_split -> fc5_classes_fc5_67_0_split_2
I0411 13:16:40.809386 22203 net.cpp:150] Setting up fc5_classes_fc5_67_0_split
I0411 13:16:40.809392 22203 net.cpp:157] Top shape: 1024 67 (68608)
I0411 13:16:40.809396 22203 net.cpp:157] Top shape: 1024 67 (68608)
I0411 13:16:40.809399 22203 net.cpp:157] Top shape: 1024 67 (68608)
I0411 13:16:40.809401 22203 net.cpp:165] Memory required for data: 4109041664
I0411 13:16:40.809415 22203 layer_factory.hpp:77] Creating layer loss
I0411 13:16:40.809422 22203 net.cpp:100] Creating Layer loss
I0411 13:16:40.809425 22203 net.cpp:434] loss <- fc5_classes_fc5_67_0_split_0
I0411 13:16:40.809429 22203 net.cpp:434] loss <- label_data_1_split_0
I0411 13:16:40.809434 22203 net.cpp:408] loss -> loss
…
