…
I0411 13:20:15.880671 10031 net.cpp:322] The NetState phase (0) differed from the phase (1) specified by a rule in layer accuracy_5
I0411 13:20:15.880821 10031 net.cpp:58] Initializing net from parameters: 
state {
  phase: TRAIN
  level: 0
  stage: ""
}
layer {
  name: "data"
  type: "Data"
  top: "data"
  top: "label"
  include {
    phase: TRAIN
  }
  transform_param {
    scale: 0.0039215689
    mirror: false
    crop_size: 48
    mean_value: 132
    mean_value: 132
    mean_value: 131
  }
  data_param {
    source: "../local_data/lmdb/rtsd-r1/CoNorm/train/lmdb"
    batch_size: 1024
    backend: LMDB
  }
}
layer {
  name: "conv1"
  type: "Convolution"
  bottom: "data"
  top: "conv1"
  convolution_param {
    num_output: 100
    pad: 0
    kernel_size: 7
    group: 1
    stride: 1
    weight_filler {
      type: "xavier"
    }
  }
}
layer {
  name: "conv1_prescale"
  type: "Scale"
  bottom: "conv1"
  top: "conv1"
  param {
    lr_mult: 0
    decay_mult: 0
  }
  scale_param {
    filler {
      value: 0.6666
    }
    bias_term: false
  }
}
layer {
  name: "conv1_sTanH"
  type: "TanH"
  bottom: "conv1"
  top: "conv1"
}
layer {
  name: "conv1_postscale"
  type: "Scale"
  bottom: "conv1"
  top: "conv1"
  param {
    lr_mult: 0
    decay_mult: 0
  }
  scale_param {
    filler {
      value: 1.7159
    }
    bias_term: false
  }
}
layer {
  name: "pool1"
  type: "Pooling"
  bottom: "conv1"
  top: "pool1"
  pooling_param {
    pool: MAX
    kernel_size: 2
    stride: 2
  }
}
layer {
  name: "conv2"
  type: "Convolution"
  bottom: "pool1"
  top: "conv2"
  convolution_param {
    num_output: 150
    pad: 0
    kernel_size: 4
    group: 1
    stride: 1
    weight_filler {
      type: "xavier"
    }
  }
}
layer {
  name: "conv2_prescale"
  type: "Scale"
  bottom: "conv2"
  top: "conv2"
  param {
    lr_mult: 0
    decay_mult: 0
  }
  scale_param {
    filler {
      value: 0.6666
    }
    bias_term: false
  }
}
layer {
  name: "conv2_sTanH"
  type: "TanH"
  bottom: "conv2"
  top: "conv2"
}
layer {
  name: "conv2_postscale"
  type: "Scale"
  bottom: "conv2"
  top: "conv2"
  param {
    lr_mult: 0
    decay_mult: 0
  }
  scale_param {
    filler {
      value: 1.7159
    }
    bias_term: false
  }
}
layer {
  name: "pool2"
  type: "Pooling"
  bottom: "conv2"
  top: "pool2"
  pooling_param {
    pool: MAX
    kernel_size: 2
    stride: 2
  }
}
layer {
  name: "conv3"
  type: "Convolution"
  bottom: "pool2"
  top: "conv3"
  convolution_param {
    num_output: 250
    pad: 0
    kernel_size: 4
    group: 1
    stride: 1
    weight_filler {
      type: "xavier"
    }
  }
}
layer {
  name: "conv3_prescale"
  type: "Scale"
  bottom: "conv3"
  top: "conv3"
  param {
    lr_mult: 0
    decay_mult: 0
  }
  scale_param {
    filler {
      value: 0.6666
    }
    bias_term: false
  }
}
layer {
  name: "conv3_sTanH"
  type: "TanH"
  bottom: "conv3"
  top: "conv3"
}
layer {
  name: "conv3_postscale"
  type: "Scale"
  bottom: "conv3"
  top: "conv3"
  param {
    lr_mult: 0
    decay_mult: 0
  }
  scale_param {
    filler {
      value: 1.7159
    }
    bias_term: false
  }
}
layer {
  name: "pool3"
  type: "Pooling"
  bottom: "conv3"
  top: "pool3"
  pooling_param {
    pool: MAX
    kernel_size: 2
    stride: 2
  }
}
layer {
  name: "fc4_300"
  type: "InnerProduct"
  bottom: "pool3"
  top: "fc4_300"
  inner_product_param {
    num_output: 300
    weight_filler {
      type: "xavier"
    }
  }
}
layer {
  name: "fc4_prescale"
  type: "Scale"
  bottom: "fc4_300"
  top: "fc4_300"
  param {
    lr_mult: 0
    decay_mult: 0
  }
  scale_param {
    filler {
      value: 0.6666
    }
    bias_term: false
  }
}
layer {
  name: "fc4_sTanH"
  type: "TanH"
  bottom: "fc4_300"
  top: "fc4_300"
}
layer {
  name: "fc4_postscale"
  type: "Scale"
  bottom: "fc4_300"
  top: "fc4_300"
  param {
    lr_mult: 0
    decay_mult: 0
  }
  scale_param {
    filler {
      value: 1.7159
    }
    bias_term: false
  }
}
layer {
  name: "drop4"
  type: "Dropout"
  bottom: "fc4_300"
  top: "fc4_300"
  dropout_param {
    dropout_ratio: 0.4
  }
}
layer {
  name: "fc5_67"
  type: "InnerProduct"
  bottom: "fc4_300"
  top: "fc5_classes"
  inner_product_param {
    num_output: 67
    weight_filler {
      type: "xavier"
    }
  }
}
layer {
  name: "loss"
  type: "SoftmaxWithLoss"
  bottom: "fc5_classes"
  bottom: "label"
  top: "loss"
}
I0411 13:20:15.880925 10031 layer_factory.hpp:77] Creating layer data
I0411 13:20:15.882058 10031 net.cpp:100] Creating Layer data
I0411 13:20:15.882077 10031 net.cpp:408] data -> data
I0411 13:20:15.882100 10031 net.cpp:408] data -> label
I0411 13:20:15.884228 10130 db_lmdb.cpp:35] Opened lmdb ../local_data/lmdb/rtsd-r1/CoNorm/train/lmdb
I0411 13:20:15.902812 10031 data_layer.cpp:41] output data size: 1024,3,48,48
I0411 13:20:15.950364 10031 net.cpp:150] Setting up data
I0411 13:20:15.950394 10031 net.cpp:157] Top shape: 1024 3 48 48 (7077888)
I0411 13:20:15.950400 10031 net.cpp:157] Top shape: 1024 (1024)
I0411 13:20:15.950405 10031 net.cpp:165] Memory required for data: 28315648
I0411 13:20:15.950415 10031 layer_factory.hpp:77] Creating layer conv1
I0411 13:20:15.950438 10031 net.cpp:100] Creating Layer conv1
I0411 13:20:15.950444 10031 net.cpp:434] conv1 <- data
I0411 13:20:15.950458 10031 net.cpp:408] conv1 -> conv1
I0411 13:20:16.552623 10031 net.cpp:150] Setting up conv1
I0411 13:20:16.552654 10031 net.cpp:157] Top shape: 1024 100 42 42 (180633600)
I0411 13:20:16.552657 10031 net.cpp:165] Memory required for data: 750850048
I0411 13:20:16.552680 10031 layer_factory.hpp:77] Creating layer conv1_prescale
I0411 13:20:16.552696 10031 net.cpp:100] Creating Layer conv1_prescale
I0411 13:20:16.552702 10031 net.cpp:434] conv1_prescale <- conv1
I0411 13:20:16.552708 10031 net.cpp:395] conv1_prescale -> conv1 (in-place)
I0411 13:20:16.552817 10031 net.cpp:150] Setting up conv1_prescale
I0411 13:20:16.552827 10031 net.cpp:157] Top shape: 1024 100 42 42 (180633600)
I0411 13:20:16.552830 10031 net.cpp:165] Memory required for data: 1473384448
I0411 13:20:16.552837 10031 layer_factory.hpp:77] Creating layer conv1_sTanH
I0411 13:20:16.552845 10031 net.cpp:100] Creating Layer conv1_sTanH
I0411 13:20:16.552847 10031 net.cpp:434] conv1_sTanH <- conv1
I0411 13:20:16.552852 10031 net.cpp:395] conv1_sTanH -> conv1 (in-place)
I0411 13:20:16.553047 10031 net.cpp:150] Setting up conv1_sTanH
I0411 13:20:16.553062 10031 net.cpp:157] Top shape: 1024 100 42 42 (180633600)
I0411 13:20:16.553067 10031 net.cpp:165] Memory required for data: 2195918848
I0411 13:20:16.553071 10031 layer_factory.hpp:77] Creating layer conv1_postscale
I0411 13:20:16.553079 10031 net.cpp:100] Creating Layer conv1_postscale
I0411 13:20:16.553083 10031 net.cpp:434] conv1_postscale <- conv1
I0411 13:20:16.553088 10031 net.cpp:395] conv1_postscale -> conv1 (in-place)
I0411 13:20:16.553184 10031 net.cpp:150] Setting up conv1_postscale
I0411 13:20:16.553191 10031 net.cpp:157] Top shape: 1024 100 42 42 (180633600)
I0411 13:20:16.553194 10031 net.cpp:165] Memory required for data: 2918453248
I0411 13:20:16.553200 10031 layer_factory.hpp:77] Creating layer pool1
I0411 13:20:16.553206 10031 net.cpp:100] Creating Layer pool1
I0411 13:20:16.553210 10031 net.cpp:434] pool1 <- conv1
I0411 13:20:16.553215 10031 net.cpp:408] pool1 -> pool1
I0411 13:20:16.553287 10031 net.cpp:150] Setting up pool1
I0411 13:20:16.553297 10031 net.cpp:157] Top shape: 1024 100 21 21 (45158400)
I0411 13:20:16.553299 10031 net.cpp:165] Memory required for data: 3099086848
I0411 13:20:16.553303 10031 layer_factory.hpp:77] Creating layer conv2
I0411 13:20:16.553313 10031 net.cpp:100] Creating Layer conv2
I0411 13:20:16.553318 10031 net.cpp:434] conv2 <- pool1
I0411 13:20:16.553323 10031 net.cpp:408] conv2 -> conv2
I0411 13:20:16.566525 10031 net.cpp:150] Setting up conv2
I0411 13:20:16.566545 10031 net.cpp:157] Top shape: 1024 150 18 18 (49766400)
I0411 13:20:16.566550 10031 net.cpp:165] Memory required for data: 3298152448
I0411 13:20:16.566560 10031 layer_factory.hpp:77] Creating layer conv2_prescale
I0411 13:20:16.566573 10031 net.cpp:100] Creating Layer conv2_prescale
I0411 13:20:16.566579 10031 net.cpp:434] conv2_prescale <- conv2
I0411 13:20:16.566584 10031 net.cpp:395] conv2_prescale -> conv2 (in-place)
I0411 13:20:16.566700 10031 net.cpp:150] Setting up conv2_prescale
I0411 13:20:16.566709 10031 net.cpp:157] Top shape: 1024 150 18 18 (49766400)
I0411 13:20:16.566712 10031 net.cpp:165] Memory required for data: 3497218048
I0411 13:20:16.566717 10031 layer_factory.hpp:77] Creating layer conv2_sTanH
I0411 13:20:16.566725 10031 net.cpp:100] Creating Layer conv2_sTanH
I0411 13:20:16.566730 10031 net.cpp:434] conv2_sTanH <- conv2
I0411 13:20:16.566735 10031 net.cpp:395] conv2_sTanH -> conv2 (in-place)
I0411 13:20:16.567692 10031 net.cpp:150] Setting up conv2_sTanH
I0411 13:20:16.567708 10031 net.cpp:157] Top shape: 1024 150 18 18 (49766400)
I0411 13:20:16.567713 10031 net.cpp:165] Memory required for data: 3696283648
I0411 13:20:16.567716 10031 layer_factory.hpp:77] Creating layer conv2_postscale
I0411 13:20:16.567723 10031 net.cpp:100] Creating Layer conv2_postscale
I0411 13:20:16.567728 10031 net.cpp:434] conv2_postscale <- conv2
I0411 13:20:16.567734 10031 net.cpp:395] conv2_postscale -> conv2 (in-place)
I0411 13:20:16.567836 10031 net.cpp:150] Setting up conv2_postscale
I0411 13:20:16.567845 10031 net.cpp:157] Top shape: 1024 150 18 18 (49766400)
I0411 13:20:16.567848 10031 net.cpp:165] Memory required for data: 3895349248
I0411 13:20:16.567853 10031 layer_factory.hpp:77] Creating layer pool2
I0411 13:20:16.567859 10031 net.cpp:100] Creating Layer pool2
I0411 13:20:16.567863 10031 net.cpp:434] pool2 <- conv2
I0411 13:20:16.567870 10031 net.cpp:408] pool2 -> pool2
I0411 13:20:16.567932 10031 net.cpp:150] Setting up pool2
I0411 13:20:16.567942 10031 net.cpp:157] Top shape: 1024 150 9 9 (12441600)
I0411 13:20:16.567945 10031 net.cpp:165] Memory required for data: 3945115648
I0411 13:20:16.567948 10031 layer_factory.hpp:77] Creating layer conv3
I0411 13:20:16.567958 10031 net.cpp:100] Creating Layer conv3
I0411 13:20:16.567962 10031 net.cpp:434] conv3 <- pool2
I0411 13:20:16.567970 10031 net.cpp:408] conv3 -> conv3
I0411 13:20:16.578279 10031 net.cpp:150] Setting up conv3
I0411 13:20:16.578296 10031 net.cpp:157] Top shape: 1024 250 6 6 (9216000)
I0411 13:20:16.578300 10031 net.cpp:165] Memory required for data: 3981979648
I0411 13:20:16.578310 10031 layer_factory.hpp:77] Creating layer conv3_prescale
I0411 13:20:16.578321 10031 net.cpp:100] Creating Layer conv3_prescale
I0411 13:20:16.578326 10031 net.cpp:434] conv3_prescale <- conv3
I0411 13:20:16.578331 10031 net.cpp:395] conv3_prescale -> conv3 (in-place)
I0411 13:20:16.578431 10031 net.cpp:150] Setting up conv3_prescale
I0411 13:20:16.578440 10031 net.cpp:157] Top shape: 1024 250 6 6 (9216000)
I0411 13:20:16.578444 10031 net.cpp:165] Memory required for data: 4018843648
I0411 13:20:16.578447 10031 layer_factory.hpp:77] Creating layer conv3_sTanH
I0411 13:20:16.578454 10031 net.cpp:100] Creating Layer conv3_sTanH
I0411 13:20:16.578457 10031 net.cpp:434] conv3_sTanH <- conv3
I0411 13:20:16.578464 10031 net.cpp:395] conv3_sTanH -> conv3 (in-place)
I0411 13:20:16.580117 10031 net.cpp:150] Setting up conv3_sTanH
I0411 13:20:16.580137 10031 net.cpp:157] Top shape: 1024 250 6 6 (9216000)
I0411 13:20:16.580140 10031 net.cpp:165] Memory required for data: 4055707648
I0411 13:20:16.580157 10031 layer_factory.hpp:77] Creating layer conv3_postscale
I0411 13:20:16.580169 10031 net.cpp:100] Creating Layer conv3_postscale
I0411 13:20:16.580174 10031 net.cpp:434] conv3_postscale <- conv3
I0411 13:20:16.580180 10031 net.cpp:395] conv3_postscale -> conv3 (in-place)
I0411 13:20:16.580287 10031 net.cpp:150] Setting up conv3_postscale
I0411 13:20:16.580297 10031 net.cpp:157] Top shape: 1024 250 6 6 (9216000)
I0411 13:20:16.580302 10031 net.cpp:165] Memory required for data: 4092571648
I0411 13:20:16.580307 10031 layer_factory.hpp:77] Creating layer pool3
I0411 13:20:16.580314 10031 net.cpp:100] Creating Layer pool3
I0411 13:20:16.580319 10031 net.cpp:434] pool3 <- conv3
I0411 13:20:16.580324 10031 net.cpp:408] pool3 -> pool3
I0411 13:20:16.580365 10031 net.cpp:150] Setting up pool3
I0411 13:20:16.580374 10031 net.cpp:157] Top shape: 1024 250 3 3 (2304000)
I0411 13:20:16.580375 10031 net.cpp:165] Memory required for data: 4101787648
I0411 13:20:16.580379 10031 layer_factory.hpp:77] Creating layer fc4_300
I0411 13:20:16.580389 10031 net.cpp:100] Creating Layer fc4_300
I0411 13:20:16.580394 10031 net.cpp:434] fc4_300 <- pool3
I0411 13:20:16.580399 10031 net.cpp:408] fc4_300 -> fc4_300
I0411 13:20:16.585912 10031 net.cpp:150] Setting up fc4_300
I0411 13:20:16.585929 10031 net.cpp:157] Top shape: 1024 300 (307200)
I0411 13:20:16.585933 10031 net.cpp:165] Memory required for data: 4103016448
I0411 13:20:16.585940 10031 layer_factory.hpp:77] Creating layer fc4_prescale
I0411 13:20:16.585950 10031 net.cpp:100] Creating Layer fc4_prescale
I0411 13:20:16.585957 10031 net.cpp:434] fc4_prescale <- fc4_300
I0411 13:20:16.585961 10031 net.cpp:395] fc4_prescale -> fc4_300 (in-place)
I0411 13:20:16.586055 10031 net.cpp:150] Setting up fc4_prescale
I0411 13:20:16.586063 10031 net.cpp:157] Top shape: 1024 300 (307200)
I0411 13:20:16.586066 10031 net.cpp:165] Memory required for data: 4104245248
I0411 13:20:16.586071 10031 layer_factory.hpp:77] Creating layer fc4_sTanH
I0411 13:20:16.586076 10031 net.cpp:100] Creating Layer fc4_sTanH
I0411 13:20:16.586078 10031 net.cpp:434] fc4_sTanH <- fc4_300
I0411 13:20:16.586082 10031 net.cpp:395] fc4_sTanH -> fc4_300 (in-place)
I0411 13:20:16.586273 10031 net.cpp:150] Setting up fc4_sTanH
I0411 13:20:16.586285 10031 net.cpp:157] Top shape: 1024 300 (307200)
I0411 13:20:16.586288 10031 net.cpp:165] Memory required for data: 4105474048
I0411 13:20:16.586292 10031 layer_factory.hpp:77] Creating layer fc4_postscale
I0411 13:20:16.586299 10031 net.cpp:100] Creating Layer fc4_postscale
I0411 13:20:16.586304 10031 net.cpp:434] fc4_postscale <- fc4_300
I0411 13:20:16.586308 10031 net.cpp:395] fc4_postscale -> fc4_300 (in-place)
I0411 13:20:16.586406 10031 net.cpp:150] Setting up fc4_postscale
I0411 13:20:16.586414 10031 net.cpp:157] Top shape: 1024 300 (307200)
I0411 13:20:16.586417 10031 net.cpp:165] Memory required for data: 4106702848
I0411 13:20:16.586431 10031 layer_factory.hpp:77] Creating layer drop4
I0411 13:20:16.586436 10031 net.cpp:100] Creating Layer drop4
I0411 13:20:16.586441 10031 net.cpp:434] drop4 <- fc4_300
I0411 13:20:16.586447 10031 net.cpp:395] drop4 -> fc4_300 (in-place)
I0411 13:20:16.586472 10031 net.cpp:150] Setting up drop4
I0411 13:20:16.586480 10031 net.cpp:157] Top shape: 1024 300 (307200)
I0411 13:20:16.586483 10031 net.cpp:165] Memory required for data: 4107931648
I0411 13:20:16.586485 10031 layer_factory.hpp:77] Creating layer fc5_67
I0411 13:20:16.586498 10031 net.cpp:100] Creating Layer fc5_67
I0411 13:20:16.586503 10031 net.cpp:434] fc5_67 <- fc4_300
I0411 13:20:16.586508 10031 net.cpp:408] fc5_67 -> fc5_classes
I0411 13:20:16.589545 10031 net.cpp:150] Setting up fc5_67
I0411 13:20:16.589567 10031 net.cpp:157] Top shape: 1024 67 (68608)
I0411 13:20:16.589576 10031 net.cpp:165] Memory required for data: 4108206080
I0411 13:20:16.589593 10031 layer_factory.hpp:77] Creating layer loss
I0411 13:20:16.589604 10031 net.cpp:100] Creating Layer loss
I0411 13:20:16.589609 10031 net.cpp:434] loss <- fc5_classes
I0411 13:20:16.589613 10031 net.cpp:434] loss <- label
I0411 13:20:16.589635 10031 net.cpp:408] loss -> loss
I0411 13:20:16.589648 10031 layer_factory.hpp:77] Creating layer loss
…
I0411 13:20:16.590391 10031 solver.cpp:193] Creating test net (#0) specified by test_net file: ./Prototxt/experiment_9/rtsd-r1/CoNorm/trial_1/test.prototxt
I0411 13:20:16.590574 10031 net.cpp:58] Initializing net from parameters: 
state {
  phase: TEST
}
layer {
  name: "data"
  type: "Data"
  top: "data"
  top: "label"
  include {
    phase: TEST
  }
  transform_param {
    scale: 0.0039215689
    mirror: false
    crop_size: 48
    mean_value: 133
    mean_value: 133
    mean_value: 132
  }
  data_param {
    source: "../local_data/lmdb/rtsd-r1/CoNorm/test/lmdb"
    batch_size: 1024
    backend: LMDB
  }
}
layer {
  name: "conv1"
  type: "Convolution"
  bottom: "data"
  top: "conv1"
  convolution_param {
    num_output: 100
    pad: 0
    kernel_size: 7
    group: 1
    stride: 1
    weight_filler {
      type: "xavier"
    }
  }
}
layer {
  name: "conv1_prescale"
  type: "Scale"
  bottom: "conv1"
  top: "conv1"
  param {
    lr_mult: 0
    decay_mult: 0
  }
  scale_param {
    filler {
      value: 0.6666
    }
    bias_term: false
  }
}
layer {
  name: "conv1_sTanH"
  type: "TanH"
  bottom: "conv1"
  top: "conv1"
}
layer {
  name: "conv1_postscale"
  type: "Scale"
  bottom: "conv1"
  top: "conv1"
  param {
    lr_mult: 0
    decay_mult: 0
  }
  scale_param {
    filler {
      value: 1.7159
    }
    bias_term: false
  }
}
layer {
  name: "pool1"
  type: "Pooling"
  bottom: "conv1"
  top: "pool1"
  pooling_param {
    pool: MAX
    kernel_size: 2
    stride: 2
  }
}
layer {
  name: "conv2"
  type: "Convolution"
  bottom: "pool1"
  top: "conv2"
  convolution_param {
    num_output: 150
    pad: 0
    kernel_size: 4
    group: 1
    stride: 1
    weight_filler {
      type: "xavier"
    }
  }
}
layer {
  name: "conv2_prescale"
  type: "Scale"
  bottom: "conv2"
  top: "conv2"
  param {
    lr_mult: 0
    decay_mult: 0
  }
  scale_param {
    filler {
      value: 0.6666
    }
    bias_term: false
  }
}
layer {
  name: "conv2_sTanH"
  type: "TanH"
  bottom: "conv2"
  top: "conv2"
}
layer {
  name: "conv2_postscale"
  type: "Scale"
  bottom: "conv2"
  top: "conv2"
  param {
    lr_mult: 0
    decay_mult: 0
  }
  scale_param {
    filler {
      value: 1.7159
    }
    bias_term: false
  }
}
layer {
  name: "pool2"
  type: "Pooling"
  bottom: "conv2"
  top: "pool2"
  pooling_param {
    pool: MAX
    kernel_size: 2
    stride: 2
  }
}
layer {
  name: "conv3"
  type: "Convolution"
  bottom: "pool2"
  top: "conv3"
  convolution_param {
    num_output: 250
    pad: 0
    kernel_size: 4
    group: 1
    stride: 1
    weight_filler {
      type: "xavier"
    }
  }
}
layer {
  name: "conv3_prescale"
  type: "Scale"
  bottom: "conv3"
  top: "conv3"
  param {
    lr_mult: 0
    decay_mult: 0
  }
  scale_param {
    filler {
      value: 0.6666
    }
    bias_term: false
  }
}
layer {
  name: "conv3_sTanH"
  type: "TanH"
  bottom: "conv3"
  top: "conv3"
}
layer {
  name: "conv3_postscale"
  type: "Scale"
  bottom: "conv3"
  top: "conv3"
  param {
    lr_mult: 0
    decay_mult: 0
  }
  scale_param {
    filler {
      value: 1.7159
    }
    bias_term: false
  }
}
layer {
  name: "pool3"
  type: "Pooling"
  bottom: "conv3"
  top: "pool3"
  pooling_param {
    pool: MAX
    kernel_size: 2
    stride: 2
  }
}
layer {
  name: "fc4_300"
  type: "InnerProduct"
  bottom: "pool3"
  top: "fc4_300"
  inner_product_param {
    num_output: 300
    weight_filler {
      type: "xavier"
    }
  }
}
layer {
  name: "fc4_prescale"
  type: "Scale"
  bottom: "fc4_300"
  top: "fc4_300"
  param {
    lr_mult: 0
    decay_mult: 0
  }
  scale_param {
    filler {
      value: 0.6666
    }
    bias_term: false
  }
}
layer {
  name: "fc4_sTanH"
  type: "TanH"
  bottom: "fc4_300"
  top: "fc4_300"
}
layer {
  name: "fc4_postscale"
  type: "Scale"
  bottom: "fc4_300"
  top: "fc4_300"
  param {
    lr_mult: 0
    decay_mult: 0
  }
  scale_param {
    filler {
      value: 1.7159
    }
    bias_term: false
  }
}
layer {
  name: "drop4"
  type: "Dropout"
  bottom: "fc4_300"
  top: "fc4_300"
  dropout_param {
    dropout_ratio: 0.4
  }
}
layer {
  name: "fc5_67"
  type: "InnerProduct"
  bottom: "fc4_300"
  top: "fc5_classes"
  inner_product_param {
    num_output: 67
    weight_filler {
      type: "xavier"
    }
  }
}
layer {
  name: "loss"
  type: "SoftmaxWithLoss"
  bottom: "fc5_classes"
  bottom: "label"
  top: "loss"
}
layer {
  name: "accuracy_1"
  type: "Accuracy"
  bottom: "fc5_classes"
  bottom: "label"
  top: "accuracy_1"
  include {
    phase: TEST
  }
  accuracy_param {
    top_k: 1
  }
}
layer {
  name: "accuracy_5"
  type: "Accuracy"
  bottom: "fc5_classes"
  bottom: "label"
  top: "accuracy_5"
  include {
    phase: TEST
  }
  accuracy_param {
    top_k: 5
  }
}
I0411 13:20:16.590697 10031 layer_factory.hpp:77] Creating layer data
I0411 13:20:16.591367 10031 net.cpp:100] Creating Layer data
I0411 13:20:16.591382 10031 net.cpp:408] data -> data
I0411 13:20:16.591390 10031 net.cpp:408] data -> label
I0411 13:20:16.595777 10203 db_lmdb.cpp:35] Opened lmdb ../local_data/lmdb/rtsd-r1/CoNorm/test/lmdb
I0411 13:20:16.595959 10031 data_layer.cpp:41] output data size: 1024,3,48,48
I0411 13:20:16.646948 10031 net.cpp:150] Setting up data
I0411 13:20:16.646977 10031 net.cpp:157] Top shape: 1024 3 48 48 (7077888)
I0411 13:20:16.646983 10031 net.cpp:157] Top shape: 1024 (1024)
I0411 13:20:16.646986 10031 net.cpp:165] Memory required for data: 28315648
I0411 13:20:16.646992 10031 layer_factory.hpp:77] Creating layer label_data_1_split
I0411 13:20:16.647006 10031 net.cpp:100] Creating Layer label_data_1_split
I0411 13:20:16.647011 10031 net.cpp:434] label_data_1_split <- label
I0411 13:20:16.647019 10031 net.cpp:408] label_data_1_split -> label_data_1_split_0
I0411 13:20:16.647032 10031 net.cpp:408] label_data_1_split -> label_data_1_split_1
I0411 13:20:16.647060 10031 net.cpp:408] label_data_1_split -> label_data_1_split_2
I0411 13:20:16.647140 10031 net.cpp:150] Setting up label_data_1_split
I0411 13:20:16.647150 10031 net.cpp:157] Top shape: 1024 (1024)
I0411 13:20:16.647156 10031 net.cpp:157] Top shape: 1024 (1024)
I0411 13:20:16.647159 10031 net.cpp:157] Top shape: 1024 (1024)
I0411 13:20:16.647161 10031 net.cpp:165] Memory required for data: 28327936
I0411 13:20:16.647164 10031 layer_factory.hpp:77] Creating layer conv1
I0411 13:20:16.647176 10031 net.cpp:100] Creating Layer conv1
I0411 13:20:16.647181 10031 net.cpp:434] conv1 <- data
I0411 13:20:16.647187 10031 net.cpp:408] conv1 -> conv1
I0411 13:20:16.651103 10031 net.cpp:150] Setting up conv1
I0411 13:20:16.651127 10031 net.cpp:157] Top shape: 1024 100 42 42 (180633600)
I0411 13:20:16.651131 10031 net.cpp:165] Memory required for data: 750862336
I0411 13:20:16.651144 10031 layer_factory.hpp:77] Creating layer conv1_prescale
I0411 13:20:16.651156 10031 net.cpp:100] Creating Layer conv1_prescale
I0411 13:20:16.651162 10031 net.cpp:434] conv1_prescale <- conv1
I0411 13:20:16.651167 10031 net.cpp:395] conv1_prescale -> conv1 (in-place)
I0411 13:20:16.651275 10031 net.cpp:150] Setting up conv1_prescale
I0411 13:20:16.651284 10031 net.cpp:157] Top shape: 1024 100 42 42 (180633600)
I0411 13:20:16.651288 10031 net.cpp:165] Memory required for data: 1473396736
I0411 13:20:16.651294 10031 layer_factory.hpp:77] Creating layer conv1_sTanH
I0411 13:20:16.651309 10031 net.cpp:100] Creating Layer conv1_sTanH
I0411 13:20:16.651314 10031 net.cpp:434] conv1_sTanH <- conv1
I0411 13:20:16.651321 10031 net.cpp:395] conv1_sTanH -> conv1 (in-place)
I0411 13:20:16.651520 10031 net.cpp:150] Setting up conv1_sTanH
I0411 13:20:16.651530 10031 net.cpp:157] Top shape: 1024 100 42 42 (180633600)
I0411 13:20:16.651536 10031 net.cpp:165] Memory required for data: 2195931136
I0411 13:20:16.651540 10031 layer_factory.hpp:77] Creating layer conv1_postscale
I0411 13:20:16.651547 10031 net.cpp:100] Creating Layer conv1_postscale
I0411 13:20:16.651551 10031 net.cpp:434] conv1_postscale <- conv1
I0411 13:20:16.651557 10031 net.cpp:395] conv1_postscale -> conv1 (in-place)
I0411 13:20:16.651672 10031 net.cpp:150] Setting up conv1_postscale
I0411 13:20:16.651680 10031 net.cpp:157] Top shape: 1024 100 42 42 (180633600)
I0411 13:20:16.651684 10031 net.cpp:165] Memory required for data: 2918465536
I0411 13:20:16.651688 10031 layer_factory.hpp:77] Creating layer pool1
I0411 13:20:16.651695 10031 net.cpp:100] Creating Layer pool1
I0411 13:20:16.651700 10031 net.cpp:434] pool1 <- conv1
I0411 13:20:16.651706 10031 net.cpp:408] pool1 -> pool1
I0411 13:20:16.651749 10031 net.cpp:150] Setting up pool1
I0411 13:20:16.651759 10031 net.cpp:157] Top shape: 1024 100 21 21 (45158400)
I0411 13:20:16.651762 10031 net.cpp:165] Memory required for data: 3099099136
I0411 13:20:16.651765 10031 layer_factory.hpp:77] Creating layer conv2
I0411 13:20:16.651779 10031 net.cpp:100] Creating Layer conv2
I0411 13:20:16.651784 10031 net.cpp:434] conv2 <- pool1
I0411 13:20:16.651789 10031 net.cpp:408] conv2 -> conv2
I0411 13:20:16.655669 10031 net.cpp:150] Setting up conv2
I0411 13:20:16.655689 10031 net.cpp:157] Top shape: 1024 150 18 18 (49766400)
I0411 13:20:16.655694 10031 net.cpp:165] Memory required for data: 3298164736
I0411 13:20:16.655704 10031 layer_factory.hpp:77] Creating layer conv2_prescale
I0411 13:20:16.655716 10031 net.cpp:100] Creating Layer conv2_prescale
I0411 13:20:16.655724 10031 net.cpp:434] conv2_prescale <- conv2
I0411 13:20:16.655730 10031 net.cpp:395] conv2_prescale -> conv2 (in-place)
I0411 13:20:16.655843 10031 net.cpp:150] Setting up conv2_prescale
I0411 13:20:16.655851 10031 net.cpp:157] Top shape: 1024 150 18 18 (49766400)
I0411 13:20:16.655854 10031 net.cpp:165] Memory required for data: 3497230336
I0411 13:20:16.655859 10031 layer_factory.hpp:77] Creating layer conv2_sTanH
I0411 13:20:16.655864 10031 net.cpp:100] Creating Layer conv2_sTanH
I0411 13:20:16.655869 10031 net.cpp:434] conv2_sTanH <- conv2
I0411 13:20:16.655875 10031 net.cpp:395] conv2_sTanH -> conv2 (in-place)
I0411 13:20:16.656687 10031 net.cpp:150] Setting up conv2_sTanH
I0411 13:20:16.656702 10031 net.cpp:157] Top shape: 1024 150 18 18 (49766400)
I0411 13:20:16.656708 10031 net.cpp:165] Memory required for data: 3696295936
I0411 13:20:16.656711 10031 layer_factory.hpp:77] Creating layer conv2_postscale
I0411 13:20:16.656720 10031 net.cpp:100] Creating Layer conv2_postscale
I0411 13:20:16.656725 10031 net.cpp:434] conv2_postscale <- conv2
I0411 13:20:16.656731 10031 net.cpp:395] conv2_postscale -> conv2 (in-place)
I0411 13:20:16.656837 10031 net.cpp:150] Setting up conv2_postscale
I0411 13:20:16.656847 10031 net.cpp:157] Top shape: 1024 150 18 18 (49766400)
I0411 13:20:16.656848 10031 net.cpp:165] Memory required for data: 3895361536
I0411 13:20:16.656853 10031 layer_factory.hpp:77] Creating layer pool2
I0411 13:20:16.656859 10031 net.cpp:100] Creating Layer pool2
I0411 13:20:16.656867 10031 net.cpp:434] pool2 <- conv2
I0411 13:20:16.656872 10031 net.cpp:408] pool2 -> pool2
I0411 13:20:16.656920 10031 net.cpp:150] Setting up pool2
I0411 13:20:16.656929 10031 net.cpp:157] Top shape: 1024 150 9 9 (12441600)
I0411 13:20:16.656931 10031 net.cpp:165] Memory required for data: 3945127936
I0411 13:20:16.656934 10031 layer_factory.hpp:77] Creating layer conv3
I0411 13:20:16.656944 10031 net.cpp:100] Creating Layer conv3
I0411 13:20:16.656952 10031 net.cpp:434] conv3 <- pool2
I0411 13:20:16.656957 10031 net.cpp:408] conv3 -> conv3
I0411 13:20:16.662506 10031 net.cpp:150] Setting up conv3
I0411 13:20:16.662524 10031 net.cpp:157] Top shape: 1024 250 6 6 (9216000)
I0411 13:20:16.662529 10031 net.cpp:165] Memory required for data: 3981991936
I0411 13:20:16.662544 10031 layer_factory.hpp:77] Creating layer conv3_prescale
I0411 13:20:16.662554 10031 net.cpp:100] Creating Layer conv3_prescale
I0411 13:20:16.662559 10031 net.cpp:434] conv3_prescale <- conv3
I0411 13:20:16.662566 10031 net.cpp:395] conv3_prescale -> conv3 (in-place)
I0411 13:20:16.662680 10031 net.cpp:150] Setting up conv3_prescale
I0411 13:20:16.662690 10031 net.cpp:157] Top shape: 1024 250 6 6 (9216000)
I0411 13:20:16.662693 10031 net.cpp:165] Memory required for data: 4018855936
I0411 13:20:16.662699 10031 layer_factory.hpp:77] Creating layer conv3_sTanH
I0411 13:20:16.662708 10031 net.cpp:100] Creating Layer conv3_sTanH
I0411 13:20:16.662713 10031 net.cpp:434] conv3_sTanH <- conv3
I0411 13:20:16.662717 10031 net.cpp:395] conv3_sTanH -> conv3 (in-place)
I0411 13:20:16.663487 10031 net.cpp:150] Setting up conv3_sTanH
I0411 13:20:16.663508 10031 net.cpp:157] Top shape: 1024 250 6 6 (9216000)
I0411 13:20:16.663517 10031 net.cpp:165] Memory required for data: 4055719936
I0411 13:20:16.663522 10031 layer_factory.hpp:77] Creating layer conv3_postscale
I0411 13:20:16.663528 10031 net.cpp:100] Creating Layer conv3_postscale
I0411 13:20:16.663532 10031 net.cpp:434] conv3_postscale <- conv3
I0411 13:20:16.663539 10031 net.cpp:395] conv3_postscale -> conv3 (in-place)
I0411 13:20:16.663650 10031 net.cpp:150] Setting up conv3_postscale
I0411 13:20:16.663660 10031 net.cpp:157] Top shape: 1024 250 6 6 (9216000)
I0411 13:20:16.663664 10031 net.cpp:165] Memory required for data: 4092583936
I0411 13:20:16.663671 10031 layer_factory.hpp:77] Creating layer pool3
I0411 13:20:16.663679 10031 net.cpp:100] Creating Layer pool3
I0411 13:20:16.663684 10031 net.cpp:434] pool3 <- conv3
I0411 13:20:16.663689 10031 net.cpp:408] pool3 -> pool3
I0411 13:20:16.663733 10031 net.cpp:150] Setting up pool3
I0411 13:20:16.663741 10031 net.cpp:157] Top shape: 1024 250 3 3 (2304000)
I0411 13:20:16.663743 10031 net.cpp:165] Memory required for data: 4101799936
I0411 13:20:16.663748 10031 layer_factory.hpp:77] Creating layer fc4_300
I0411 13:20:16.663755 10031 net.cpp:100] Creating Layer fc4_300
I0411 13:20:16.663760 10031 net.cpp:434] fc4_300 <- pool3
I0411 13:20:16.663764 10031 net.cpp:408] fc4_300 -> fc4_300
I0411 13:20:16.669127 10031 net.cpp:150] Setting up fc4_300
I0411 13:20:16.669143 10031 net.cpp:157] Top shape: 1024 300 (307200)
I0411 13:20:16.669147 10031 net.cpp:165] Memory required for data: 4103028736
I0411 13:20:16.669167 10031 layer_factory.hpp:77] Creating layer fc4_prescale
I0411 13:20:16.669178 10031 net.cpp:100] Creating Layer fc4_prescale
I0411 13:20:16.669181 10031 net.cpp:434] fc4_prescale <- fc4_300
I0411 13:20:16.669186 10031 net.cpp:395] fc4_prescale -> fc4_300 (in-place)
I0411 13:20:16.669322 10031 net.cpp:150] Setting up fc4_prescale
I0411 13:20:16.669339 10031 net.cpp:157] Top shape: 1024 300 (307200)
I0411 13:20:16.669348 10031 net.cpp:165] Memory required for data: 4104257536
I0411 13:20:16.669355 10031 layer_factory.hpp:77] Creating layer fc4_sTanH
I0411 13:20:16.669366 10031 net.cpp:100] Creating Layer fc4_sTanH
I0411 13:20:16.669373 10031 net.cpp:434] fc4_sTanH <- fc4_300
I0411 13:20:16.669384 10031 net.cpp:395] fc4_sTanH -> fc4_300 (in-place)
I0411 13:20:16.669600 10031 net.cpp:150] Setting up fc4_sTanH
I0411 13:20:16.669611 10031 net.cpp:157] Top shape: 1024 300 (307200)
I0411 13:20:16.669615 10031 net.cpp:165] Memory required for data: 4105486336
I0411 13:20:16.669617 10031 layer_factory.hpp:77] Creating layer fc4_postscale
I0411 13:20:16.669626 10031 net.cpp:100] Creating Layer fc4_postscale
I0411 13:20:16.669631 10031 net.cpp:434] fc4_postscale <- fc4_300
I0411 13:20:16.669637 10031 net.cpp:395] fc4_postscale -> fc4_300 (in-place)
I0411 13:20:16.669749 10031 net.cpp:150] Setting up fc4_postscale
I0411 13:20:16.669757 10031 net.cpp:157] Top shape: 1024 300 (307200)
I0411 13:20:16.669760 10031 net.cpp:165] Memory required for data: 4106715136
I0411 13:20:16.669765 10031 layer_factory.hpp:77] Creating layer drop4
I0411 13:20:16.669771 10031 net.cpp:100] Creating Layer drop4
I0411 13:20:16.669776 10031 net.cpp:434] drop4 <- fc4_300
I0411 13:20:16.669782 10031 net.cpp:395] drop4 -> fc4_300 (in-place)
I0411 13:20:16.669816 10031 net.cpp:150] Setting up drop4
I0411 13:20:16.669823 10031 net.cpp:157] Top shape: 1024 300 (307200)
I0411 13:20:16.669826 10031 net.cpp:165] Memory required for data: 4107943936
I0411 13:20:16.669829 10031 layer_factory.hpp:77] Creating layer fc5_67
I0411 13:20:16.669836 10031 net.cpp:100] Creating Layer fc5_67
I0411 13:20:16.669838 10031 net.cpp:434] fc5_67 <- fc4_300
I0411 13:20:16.669844 10031 net.cpp:408] fc5_67 -> fc5_classes
I0411 13:20:16.670099 10031 net.cpp:150] Setting up fc5_67
I0411 13:20:16.670106 10031 net.cpp:157] Top shape: 1024 67 (68608)
I0411 13:20:16.670121 10031 net.cpp:165] Memory required for data: 4108218368
I0411 13:20:16.670133 10031 layer_factory.hpp:77] Creating layer fc5_classes_fc5_67_0_split
I0411 13:20:16.670142 10031 net.cpp:100] Creating Layer fc5_classes_fc5_67_0_split
I0411 13:20:16.670147 10031 net.cpp:434] fc5_classes_fc5_67_0_split <- fc5_classes
I0411 13:20:16.670153 10031 net.cpp:408] fc5_classes_fc5_67_0_split -> fc5_classes_fc5_67_0_split_0
I0411 13:20:16.670161 10031 net.cpp:408] fc5_classes_fc5_67_0_split -> fc5_classes_fc5_67_0_split_1
I0411 13:20:16.670167 10031 net.cpp:408] fc5_classes_fc5_67_0_split -> fc5_classes_fc5_67_0_split_2
I0411 13:20:16.670222 10031 net.cpp:150] Setting up fc5_classes_fc5_67_0_split
I0411 13:20:16.670229 10031 net.cpp:157] Top shape: 1024 67 (68608)
I0411 13:20:16.670233 10031 net.cpp:157] Top shape: 1024 67 (68608)
I0411 13:20:16.670236 10031 net.cpp:157] Top shape: 1024 67 (68608)
I0411 13:20:16.670249 10031 net.cpp:165] Memory required for data: 4109041664
I0411 13:20:16.670253 10031 layer_factory.hpp:77] Creating layer loss
I0411 13:20:16.670258 10031 net.cpp:100] Creating Layer loss
I0411 13:20:16.670262 10031 net.cpp:434] loss <- fc5_classes_fc5_67_0_split_0
I0411 13:20:16.670266 10031 net.cpp:434] loss <- label_data_1_split_0
I0411 13:20:16.670279 10031 net.cpp:408] loss -> loss
…
