…
I0411 13:21:16.972231 15559 net.cpp:322] The NetState phase (0) differed from the phase (1) specified by a rule in layer accuracy_5
I0411 13:21:16.972380 15559 net.cpp:58] Initializing net from parameters: 
state {
  phase: TRAIN
  level: 0
  stage: ""
}
layer {
  name: "data"
  type: "Data"
  top: "data"
  top: "label"
  include {
    phase: TRAIN
  }
  transform_param {
    scale: 0.0039215689
    mirror: false
    crop_size: 48
    mean_value: 132
    mean_value: 132
    mean_value: 131
  }
  data_param {
    source: "../local_data/lmdb/rtsd-r1/CoNorm/train/lmdb"
    batch_size: 1024
    backend: LMDB
  }
}
layer {
  name: "conv1"
  type: "Convolution"
  bottom: "data"
  top: "conv1"
  convolution_param {
    num_output: 100
    pad: 0
    kernel_size: 7
    group: 1
    stride: 1
    weight_filler {
      type: "xavier"
    }
  }
}
layer {
  name: "conv1_prescale"
  type: "Scale"
  bottom: "conv1"
  top: "conv1"
  param {
    lr_mult: 0
    decay_mult: 0
  }
  scale_param {
    filler {
      value: 0.6666
    }
    bias_term: false
  }
}
layer {
  name: "conv1_sTanH"
  type: "TanH"
  bottom: "conv1"
  top: "conv1"
}
layer {
  name: "conv1_postscale"
  type: "Scale"
  bottom: "conv1"
  top: "conv1"
  param {
    lr_mult: 0
    decay_mult: 0
  }
  scale_param {
    filler {
      value: 1.7159
    }
    bias_term: false
  }
}
layer {
  name: "pool1"
  type: "Pooling"
  bottom: "conv1"
  top: "pool1"
  pooling_param {
    pool: MAX
    kernel_size: 2
    stride: 2
  }
}
layer {
  name: "conv2"
  type: "Convolution"
  bottom: "pool1"
  top: "conv2"
  convolution_param {
    num_output: 150
    pad: 0
    kernel_size: 4
    group: 1
    stride: 1
    weight_filler {
      type: "xavier"
    }
  }
}
layer {
  name: "conv2_prescale"
  type: "Scale"
  bottom: "conv2"
  top: "conv2"
  param {
    lr_mult: 0
    decay_mult: 0
  }
  scale_param {
    filler {
      value: 0.6666
    }
    bias_term: false
  }
}
layer {
  name: "conv2_sTanH"
  type: "TanH"
  bottom: "conv2"
  top: "conv2"
}
layer {
  name: "conv2_postscale"
  type: "Scale"
  bottom: "conv2"
  top: "conv2"
  param {
    lr_mult: 0
    decay_mult: 0
  }
  scale_param {
    filler {
      value: 1.7159
    }
    bias_term: false
  }
}
layer {
  name: "pool2"
  type: "Pooling"
  bottom: "conv2"
  top: "pool2"
  pooling_param {
    pool: MAX
    kernel_size: 2
    stride: 2
  }
}
layer {
  name: "conv3"
  type: "Convolution"
  bottom: "pool2"
  top: "conv3"
  convolution_param {
    num_output: 250
    pad: 0
    kernel_size: 4
    group: 1
    stride: 1
    weight_filler {
      type: "xavier"
    }
  }
}
layer {
  name: "conv3_prescale"
  type: "Scale"
  bottom: "conv3"
  top: "conv3"
  param {
    lr_mult: 0
    decay_mult: 0
  }
  scale_param {
    filler {
      value: 0.6666
    }
    bias_term: false
  }
}
layer {
  name: "conv3_sTanH"
  type: "TanH"
  bottom: "conv3"
  top: "conv3"
}
layer {
  name: "conv3_postscale"
  type: "Scale"
  bottom: "conv3"
  top: "conv3"
  param {
    lr_mult: 0
    decay_mult: 0
  }
  scale_param {
    filler {
      value: 1.7159
    }
    bias_term: false
  }
}
layer {
  name: "pool3"
  type: "Pooling"
  bottom: "conv3"
  top: "pool3"
  pooling_param {
    pool: MAX
    kernel_size: 2
    stride: 2
  }
}
layer {
  name: "fc4_300"
  type: "InnerProduct"
  bottom: "pool3"
  top: "fc4_300"
  inner_product_param {
    num_output: 300
    weight_filler {
      type: "xavier"
    }
  }
}
layer {
  name: "fc4_prescale"
  type: "Scale"
  bottom: "fc4_300"
  top: "fc4_300"
  param {
    lr_mult: 0
    decay_mult: 0
  }
  scale_param {
    filler {
      value: 0.6666
    }
    bias_term: false
  }
}
layer {
  name: "fc4_sTanH"
  type: "TanH"
  bottom: "fc4_300"
  top: "fc4_300"
}
layer {
  name: "fc4_postscale"
  type: "Scale"
  bottom: "fc4_300"
  top: "fc4_300"
  param {
    lr_mult: 0
    decay_mult: 0
  }
  scale_param {
    filler {
      value: 1.7159
    }
    bias_term: false
  }
}
layer {
  name: "drop4"
  type: "Dropout"
  bottom: "fc4_300"
  top: "fc4_300"
  dropout_param {
    dropout_ratio: 0.4
  }
}
layer {
  name: "fc5_67"
  type: "InnerProduct"
  bottom: "fc4_300"
  top: "fc5_classes"
  inner_product_param {
    num_output: 67
    weight_filler {
      type: "xavier"
    }
  }
}
layer {
  name: "loss"
  type: "SoftmaxWithLoss"
  bottom: "fc5_classes"
  bottom: "label"
  top: "loss"
}
I0411 13:21:16.972489 15559 layer_factory.hpp:77] Creating layer data
I0411 13:21:16.973557 15559 net.cpp:100] Creating Layer data
I0411 13:21:16.973573 15559 net.cpp:408] data -> data
I0411 13:21:16.973595 15559 net.cpp:408] data -> label
I0411 13:21:16.989434 15668 db_lmdb.cpp:35] Opened lmdb ../local_data/lmdb/rtsd-r1/CoNorm/train/lmdb
I0411 13:21:17.006431 15559 data_layer.cpp:41] output data size: 1024,3,48,48
I0411 13:21:17.050017 15559 net.cpp:150] Setting up data
I0411 13:21:17.050050 15559 net.cpp:157] Top shape: 1024 3 48 48 (7077888)
I0411 13:21:17.050056 15559 net.cpp:157] Top shape: 1024 (1024)
I0411 13:21:17.050060 15559 net.cpp:165] Memory required for data: 28315648
I0411 13:21:17.050068 15559 layer_factory.hpp:77] Creating layer conv1
I0411 13:21:17.050091 15559 net.cpp:100] Creating Layer conv1
I0411 13:21:17.050097 15559 net.cpp:434] conv1 <- data
I0411 13:21:17.050112 15559 net.cpp:408] conv1 -> conv1
I0411 13:21:17.502101 15559 net.cpp:150] Setting up conv1
I0411 13:21:17.502128 15559 net.cpp:157] Top shape: 1024 100 42 42 (180633600)
I0411 13:21:17.502132 15559 net.cpp:165] Memory required for data: 750850048
I0411 13:21:17.502154 15559 layer_factory.hpp:77] Creating layer conv1_prescale
I0411 13:21:17.502172 15559 net.cpp:100] Creating Layer conv1_prescale
I0411 13:21:17.502178 15559 net.cpp:434] conv1_prescale <- conv1
I0411 13:21:17.502185 15559 net.cpp:395] conv1_prescale -> conv1 (in-place)
I0411 13:21:17.502295 15559 net.cpp:150] Setting up conv1_prescale
I0411 13:21:17.502303 15559 net.cpp:157] Top shape: 1024 100 42 42 (180633600)
I0411 13:21:17.502306 15559 net.cpp:165] Memory required for data: 1473384448
I0411 13:21:17.502313 15559 layer_factory.hpp:77] Creating layer conv1_sTanH
I0411 13:21:17.502320 15559 net.cpp:100] Creating Layer conv1_sTanH
I0411 13:21:17.502322 15559 net.cpp:434] conv1_sTanH <- conv1
I0411 13:21:17.502326 15559 net.cpp:395] conv1_sTanH -> conv1 (in-place)
I0411 13:21:17.502518 15559 net.cpp:150] Setting up conv1_sTanH
I0411 13:21:17.502529 15559 net.cpp:157] Top shape: 1024 100 42 42 (180633600)
I0411 13:21:17.502532 15559 net.cpp:165] Memory required for data: 2195918848
I0411 13:21:17.502537 15559 layer_factory.hpp:77] Creating layer conv1_postscale
I0411 13:21:17.502545 15559 net.cpp:100] Creating Layer conv1_postscale
I0411 13:21:17.502549 15559 net.cpp:434] conv1_postscale <- conv1
I0411 13:21:17.502554 15559 net.cpp:395] conv1_postscale -> conv1 (in-place)
I0411 13:21:17.502646 15559 net.cpp:150] Setting up conv1_postscale
I0411 13:21:17.502655 15559 net.cpp:157] Top shape: 1024 100 42 42 (180633600)
I0411 13:21:17.502657 15559 net.cpp:165] Memory required for data: 2918453248
I0411 13:21:17.502662 15559 layer_factory.hpp:77] Creating layer pool1
I0411 13:21:17.502670 15559 net.cpp:100] Creating Layer pool1
I0411 13:21:17.502674 15559 net.cpp:434] pool1 <- conv1
I0411 13:21:17.502679 15559 net.cpp:408] pool1 -> pool1
I0411 13:21:17.502748 15559 net.cpp:150] Setting up pool1
I0411 13:21:17.502758 15559 net.cpp:157] Top shape: 1024 100 21 21 (45158400)
I0411 13:21:17.502760 15559 net.cpp:165] Memory required for data: 3099086848
I0411 13:21:17.502763 15559 layer_factory.hpp:77] Creating layer conv2
I0411 13:21:17.502774 15559 net.cpp:100] Creating Layer conv2
I0411 13:21:17.502779 15559 net.cpp:434] conv2 <- pool1
I0411 13:21:17.502784 15559 net.cpp:408] conv2 -> conv2
I0411 13:21:17.515758 15559 net.cpp:150] Setting up conv2
I0411 13:21:17.515776 15559 net.cpp:157] Top shape: 1024 150 18 18 (49766400)
I0411 13:21:17.515780 15559 net.cpp:165] Memory required for data: 3298152448
I0411 13:21:17.515790 15559 layer_factory.hpp:77] Creating layer conv2_prescale
I0411 13:21:17.515799 15559 net.cpp:100] Creating Layer conv2_prescale
I0411 13:21:17.515802 15559 net.cpp:434] conv2_prescale <- conv2
I0411 13:21:17.515808 15559 net.cpp:395] conv2_prescale -> conv2 (in-place)
I0411 13:21:17.515930 15559 net.cpp:150] Setting up conv2_prescale
I0411 13:21:17.515940 15559 net.cpp:157] Top shape: 1024 150 18 18 (49766400)
I0411 13:21:17.515944 15559 net.cpp:165] Memory required for data: 3497218048
I0411 13:21:17.515949 15559 layer_factory.hpp:77] Creating layer conv2_sTanH
I0411 13:21:17.515955 15559 net.cpp:100] Creating Layer conv2_sTanH
I0411 13:21:17.515960 15559 net.cpp:434] conv2_sTanH <- conv2
I0411 13:21:17.515965 15559 net.cpp:395] conv2_sTanH -> conv2 (in-place)
I0411 13:21:17.517015 15559 net.cpp:150] Setting up conv2_sTanH
I0411 13:21:17.517031 15559 net.cpp:157] Top shape: 1024 150 18 18 (49766400)
I0411 13:21:17.517035 15559 net.cpp:165] Memory required for data: 3696283648
I0411 13:21:17.517038 15559 layer_factory.hpp:77] Creating layer conv2_postscale
I0411 13:21:17.517048 15559 net.cpp:100] Creating Layer conv2_postscale
I0411 13:21:17.517053 15559 net.cpp:434] conv2_postscale <- conv2
I0411 13:21:17.517060 15559 net.cpp:395] conv2_postscale -> conv2 (in-place)
I0411 13:21:17.517156 15559 net.cpp:150] Setting up conv2_postscale
I0411 13:21:17.517165 15559 net.cpp:157] Top shape: 1024 150 18 18 (49766400)
I0411 13:21:17.517168 15559 net.cpp:165] Memory required for data: 3895349248
I0411 13:21:17.517174 15559 layer_factory.hpp:77] Creating layer pool2
I0411 13:21:17.517179 15559 net.cpp:100] Creating Layer pool2
I0411 13:21:17.517184 15559 net.cpp:434] pool2 <- conv2
I0411 13:21:17.517189 15559 net.cpp:408] pool2 -> pool2
I0411 13:21:17.517227 15559 net.cpp:150] Setting up pool2
I0411 13:21:17.517235 15559 net.cpp:157] Top shape: 1024 150 9 9 (12441600)
I0411 13:21:17.517238 15559 net.cpp:165] Memory required for data: 3945115648
I0411 13:21:17.517241 15559 layer_factory.hpp:77] Creating layer conv3
I0411 13:21:17.517251 15559 net.cpp:100] Creating Layer conv3
I0411 13:21:17.517254 15559 net.cpp:434] conv3 <- pool2
I0411 13:21:17.517259 15559 net.cpp:408] conv3 -> conv3
I0411 13:21:17.524613 15559 net.cpp:150] Setting up conv3
I0411 13:21:17.524631 15559 net.cpp:157] Top shape: 1024 250 6 6 (9216000)
I0411 13:21:17.524636 15559 net.cpp:165] Memory required for data: 3981979648
I0411 13:21:17.524646 15559 layer_factory.hpp:77] Creating layer conv3_prescale
I0411 13:21:17.524655 15559 net.cpp:100] Creating Layer conv3_prescale
I0411 13:21:17.524659 15559 net.cpp:434] conv3_prescale <- conv3
I0411 13:21:17.524664 15559 net.cpp:395] conv3_prescale -> conv3 (in-place)
I0411 13:21:17.524766 15559 net.cpp:150] Setting up conv3_prescale
I0411 13:21:17.524775 15559 net.cpp:157] Top shape: 1024 250 6 6 (9216000)
I0411 13:21:17.524780 15559 net.cpp:165] Memory required for data: 4018843648
I0411 13:21:17.524783 15559 layer_factory.hpp:77] Creating layer conv3_sTanH
I0411 13:21:17.524790 15559 net.cpp:100] Creating Layer conv3_sTanH
I0411 13:21:17.524792 15559 net.cpp:434] conv3_sTanH <- conv3
I0411 13:21:17.524798 15559 net.cpp:395] conv3_sTanH -> conv3 (in-place)
I0411 13:21:17.526217 15559 net.cpp:150] Setting up conv3_sTanH
I0411 13:21:17.526232 15559 net.cpp:157] Top shape: 1024 250 6 6 (9216000)
I0411 13:21:17.526237 15559 net.cpp:165] Memory required for data: 4055707648
I0411 13:21:17.526253 15559 layer_factory.hpp:77] Creating layer conv3_postscale
I0411 13:21:17.526264 15559 net.cpp:100] Creating Layer conv3_postscale
I0411 13:21:17.526268 15559 net.cpp:434] conv3_postscale <- conv3
I0411 13:21:17.526273 15559 net.cpp:395] conv3_postscale -> conv3 (in-place)
I0411 13:21:17.526379 15559 net.cpp:150] Setting up conv3_postscale
I0411 13:21:17.526388 15559 net.cpp:157] Top shape: 1024 250 6 6 (9216000)
I0411 13:21:17.526391 15559 net.cpp:165] Memory required for data: 4092571648
I0411 13:21:17.526396 15559 layer_factory.hpp:77] Creating layer pool3
I0411 13:21:17.526402 15559 net.cpp:100] Creating Layer pool3
I0411 13:21:17.526407 15559 net.cpp:434] pool3 <- conv3
I0411 13:21:17.526413 15559 net.cpp:408] pool3 -> pool3
I0411 13:21:17.526454 15559 net.cpp:150] Setting up pool3
I0411 13:21:17.526463 15559 net.cpp:157] Top shape: 1024 250 3 3 (2304000)
I0411 13:21:17.526465 15559 net.cpp:165] Memory required for data: 4101787648
I0411 13:21:17.526468 15559 layer_factory.hpp:77] Creating layer fc4_300
I0411 13:21:17.526480 15559 net.cpp:100] Creating Layer fc4_300
I0411 13:21:17.526484 15559 net.cpp:434] fc4_300 <- pool3
I0411 13:21:17.526490 15559 net.cpp:408] fc4_300 -> fc4_300
I0411 13:21:17.533609 15559 net.cpp:150] Setting up fc4_300
I0411 13:21:17.533627 15559 net.cpp:157] Top shape: 1024 300 (307200)
I0411 13:21:17.533632 15559 net.cpp:165] Memory required for data: 4103016448
I0411 13:21:17.533638 15559 layer_factory.hpp:77] Creating layer fc4_prescale
I0411 13:21:17.533648 15559 net.cpp:100] Creating Layer fc4_prescale
I0411 13:21:17.533651 15559 net.cpp:434] fc4_prescale <- fc4_300
I0411 13:21:17.533656 15559 net.cpp:395] fc4_prescale -> fc4_300 (in-place)
I0411 13:21:17.533752 15559 net.cpp:150] Setting up fc4_prescale
I0411 13:21:17.533761 15559 net.cpp:157] Top shape: 1024 300 (307200)
I0411 13:21:17.533764 15559 net.cpp:165] Memory required for data: 4104245248
I0411 13:21:17.533768 15559 layer_factory.hpp:77] Creating layer fc4_sTanH
I0411 13:21:17.533774 15559 net.cpp:100] Creating Layer fc4_sTanH
I0411 13:21:17.533777 15559 net.cpp:434] fc4_sTanH <- fc4_300
I0411 13:21:17.533782 15559 net.cpp:395] fc4_sTanH -> fc4_300 (in-place)
I0411 13:21:17.533979 15559 net.cpp:150] Setting up fc4_sTanH
I0411 13:21:17.533991 15559 net.cpp:157] Top shape: 1024 300 (307200)
I0411 13:21:17.533994 15559 net.cpp:165] Memory required for data: 4105474048
I0411 13:21:17.533998 15559 layer_factory.hpp:77] Creating layer fc4_postscale
I0411 13:21:17.534005 15559 net.cpp:100] Creating Layer fc4_postscale
I0411 13:21:17.534010 15559 net.cpp:434] fc4_postscale <- fc4_300
I0411 13:21:17.534016 15559 net.cpp:395] fc4_postscale -> fc4_300 (in-place)
I0411 13:21:17.534118 15559 net.cpp:150] Setting up fc4_postscale
I0411 13:21:17.534126 15559 net.cpp:157] Top shape: 1024 300 (307200)
I0411 13:21:17.534129 15559 net.cpp:165] Memory required for data: 4106702848
I0411 13:21:17.534134 15559 layer_factory.hpp:77] Creating layer drop4
I0411 13:21:17.534140 15559 net.cpp:100] Creating Layer drop4
I0411 13:21:17.534145 15559 net.cpp:434] drop4 <- fc4_300
I0411 13:21:17.534153 15559 net.cpp:395] drop4 -> fc4_300 (in-place)
I0411 13:21:17.534183 15559 net.cpp:150] Setting up drop4
I0411 13:21:17.534189 15559 net.cpp:157] Top shape: 1024 300 (307200)
I0411 13:21:17.534193 15559 net.cpp:165] Memory required for data: 4107931648
I0411 13:21:17.534195 15559 layer_factory.hpp:77] Creating layer fc5_67
I0411 13:21:17.534204 15559 net.cpp:100] Creating Layer fc5_67
I0411 13:21:17.534209 15559 net.cpp:434] fc5_67 <- fc4_300
I0411 13:21:17.534212 15559 net.cpp:408] fc5_67 -> fc5_classes
I0411 13:21:17.535965 15559 net.cpp:150] Setting up fc5_67
I0411 13:21:17.535980 15559 net.cpp:157] Top shape: 1024 67 (68608)
I0411 13:21:17.535984 15559 net.cpp:165] Memory required for data: 4108206080
I0411 13:21:17.535995 15559 layer_factory.hpp:77] Creating layer loss
I0411 13:21:17.536003 15559 net.cpp:100] Creating Layer loss
I0411 13:21:17.536007 15559 net.cpp:434] loss <- fc5_classes
I0411 13:21:17.536011 15559 net.cpp:434] loss <- label
I0411 13:21:17.536033 15559 net.cpp:408] loss -> loss
I0411 13:21:17.536048 15559 layer_factory.hpp:77] Creating layer loss
…
I0411 13:21:17.536789 15559 solver.cpp:193] Creating test net (#0) specified by test_net file: ./Prototxt/experiment_9/rtsd-r1/CoNorm/trial_1/test.prototxt
I0411 13:21:17.536998 15559 net.cpp:58] Initializing net from parameters: 
state {
  phase: TEST
}
layer {
  name: "data"
  type: "Data"
  top: "data"
  top: "label"
  include {
    phase: TEST
  }
  transform_param {
    scale: 0.0039215689
    mirror: false
    crop_size: 48
    mean_value: 133
    mean_value: 133
    mean_value: 132
  }
  data_param {
    source: "../local_data/lmdb/rtsd-r1/CoNorm/test/lmdb"
    batch_size: 1024
    backend: LMDB
  }
}
layer {
  name: "conv1"
  type: "Convolution"
  bottom: "data"
  top: "conv1"
  convolution_param {
    num_output: 100
    pad: 0
    kernel_size: 7
    group: 1
    stride: 1
    weight_filler {
      type: "xavier"
    }
  }
}
layer {
  name: "conv1_prescale"
  type: "Scale"
  bottom: "conv1"
  top: "conv1"
  param {
    lr_mult: 0
    decay_mult: 0
  }
  scale_param {
    filler {
      value: 0.6666
    }
    bias_term: false
  }
}
layer {
  name: "conv1_sTanH"
  type: "TanH"
  bottom: "conv1"
  top: "conv1"
}
layer {
  name: "conv1_postscale"
  type: "Scale"
  bottom: "conv1"
  top: "conv1"
  param {
    lr_mult: 0
    decay_mult: 0
  }
  scale_param {
    filler {
      value: 1.7159
    }
    bias_term: false
  }
}
layer {
  name: "pool1"
  type: "Pooling"
  bottom: "conv1"
  top: "pool1"
  pooling_param {
    pool: MAX
    kernel_size: 2
    stride: 2
  }
}
layer {
  name: "conv2"
  type: "Convolution"
  bottom: "pool1"
  top: "conv2"
  convolution_param {
    num_output: 150
    pad: 0
    kernel_size: 4
    group: 1
    stride: 1
    weight_filler {
      type: "xavier"
    }
  }
}
layer {
  name: "conv2_prescale"
  type: "Scale"
  bottom: "conv2"
  top: "conv2"
  param {
    lr_mult: 0
    decay_mult: 0
  }
  scale_param {
    filler {
      value: 0.6666
    }
    bias_term: false
  }
}
layer {
  name: "conv2_sTanH"
  type: "TanH"
  bottom: "conv2"
  top: "conv2"
}
layer {
  name: "conv2_postscale"
  type: "Scale"
  bottom: "conv2"
  top: "conv2"
  param {
    lr_mult: 0
    decay_mult: 0
  }
  scale_param {
    filler {
      value: 1.7159
    }
    bias_term: false
  }
}
layer {
  name: "pool2"
  type: "Pooling"
  bottom: "conv2"
  top: "pool2"
  pooling_param {
    pool: MAX
    kernel_size: 2
    stride: 2
  }
}
layer {
  name: "conv3"
  type: "Convolution"
  bottom: "pool2"
  top: "conv3"
  convolution_param {
    num_output: 250
    pad: 0
    kernel_size: 4
    group: 1
    stride: 1
    weight_filler {
      type: "xavier"
    }
  }
}
layer {
  name: "conv3_prescale"
  type: "Scale"
  bottom: "conv3"
  top: "conv3"
  param {
    lr_mult: 0
    decay_mult: 0
  }
  scale_param {
    filler {
      value: 0.6666
    }
    bias_term: false
  }
}
layer {
  name: "conv3_sTanH"
  type: "TanH"
  bottom: "conv3"
  top: "conv3"
}
layer {
  name: "conv3_postscale"
  type: "Scale"
  bottom: "conv3"
  top: "conv3"
  param {
    lr_mult: 0
    decay_mult: 0
  }
  scale_param {
    filler {
      value: 1.7159
    }
    bias_term: false
  }
}
layer {
  name: "pool3"
  type: "Pooling"
  bottom: "conv3"
  top: "pool3"
  pooling_param {
    pool: MAX
    kernel_size: 2
    stride: 2
  }
}
layer {
  name: "fc4_300"
  type: "InnerProduct"
  bottom: "pool3"
  top: "fc4_300"
  inner_product_param {
    num_output: 300
    weight_filler {
      type: "xavier"
    }
  }
}
layer {
  name: "fc4_prescale"
  type: "Scale"
  bottom: "fc4_300"
  top: "fc4_300"
  param {
    lr_mult: 0
    decay_mult: 0
  }
  scale_param {
    filler {
      value: 0.6666
    }
    bias_term: false
  }
}
layer {
  name: "fc4_sTanH"
  type: "TanH"
  bottom: "fc4_300"
  top: "fc4_300"
}
layer {
  name: "fc4_postscale"
  type: "Scale"
  bottom: "fc4_300"
  top: "fc4_300"
  param {
    lr_mult: 0
    decay_mult: 0
  }
  scale_param {
    filler {
      value: 1.7159
    }
    bias_term: false
  }
}
layer {
  name: "drop4"
  type: "Dropout"
  bottom: "fc4_300"
  top: "fc4_300"
  dropout_param {
    dropout_ratio: 0.4
  }
}
layer {
  name: "fc5_67"
  type: "InnerProduct"
  bottom: "fc4_300"
  top: "fc5_classes"
  inner_product_param {
    num_output: 67
    weight_filler {
      type: "xavier"
    }
  }
}
layer {
  name: "loss"
  type: "SoftmaxWithLoss"
  bottom: "fc5_classes"
  bottom: "label"
  top: "loss"
}
layer {
  name: "accuracy_1"
  type: "Accuracy"
  bottom: "fc5_classes"
  bottom: "label"
  top: "accuracy_1"
  include {
    phase: TEST
  }
  accuracy_param {
    top_k: 1
  }
}
layer {
  name: "accuracy_5"
  type: "Accuracy"
  bottom: "fc5_classes"
  bottom: "label"
  top: "accuracy_5"
  include {
    phase: TEST
  }
  accuracy_param {
    top_k: 5
  }
}
I0411 13:21:17.537179 15559 layer_factory.hpp:77] Creating layer data
I0411 13:21:17.544657 15559 net.cpp:100] Creating Layer data
I0411 13:21:17.544672 15559 net.cpp:408] data -> data
I0411 13:21:17.544684 15559 net.cpp:408] data -> label
I0411 13:21:17.546892 15716 db_lmdb.cpp:35] Opened lmdb ../local_data/lmdb/rtsd-r1/CoNorm/test/lmdb
I0411 13:21:17.547134 15559 data_layer.cpp:41] output data size: 1024,3,48,48
I0411 13:21:17.587600 15559 net.cpp:150] Setting up data
I0411 13:21:17.587632 15559 net.cpp:157] Top shape: 1024 3 48 48 (7077888)
I0411 13:21:17.587637 15559 net.cpp:157] Top shape: 1024 (1024)
I0411 13:21:17.587641 15559 net.cpp:165] Memory required for data: 28315648
I0411 13:21:17.587646 15559 layer_factory.hpp:77] Creating layer label_data_1_split
I0411 13:21:17.587664 15559 net.cpp:100] Creating Layer label_data_1_split
I0411 13:21:17.587669 15559 net.cpp:434] label_data_1_split <- label
I0411 13:21:17.587677 15559 net.cpp:408] label_data_1_split -> label_data_1_split_0
I0411 13:21:17.587687 15559 net.cpp:408] label_data_1_split -> label_data_1_split_1
I0411 13:21:17.587718 15559 net.cpp:408] label_data_1_split -> label_data_1_split_2
I0411 13:21:17.587828 15559 net.cpp:150] Setting up label_data_1_split
I0411 13:21:17.587838 15559 net.cpp:157] Top shape: 1024 (1024)
I0411 13:21:17.587841 15559 net.cpp:157] Top shape: 1024 (1024)
I0411 13:21:17.587846 15559 net.cpp:157] Top shape: 1024 (1024)
I0411 13:21:17.587847 15559 net.cpp:165] Memory required for data: 28327936
I0411 13:21:17.587852 15559 layer_factory.hpp:77] Creating layer conv1
I0411 13:21:17.587865 15559 net.cpp:100] Creating Layer conv1
I0411 13:21:17.587870 15559 net.cpp:434] conv1 <- data
I0411 13:21:17.587877 15559 net.cpp:408] conv1 -> conv1
I0411 13:21:17.589839 15559 net.cpp:150] Setting up conv1
I0411 13:21:17.589860 15559 net.cpp:157] Top shape: 1024 100 42 42 (180633600)
I0411 13:21:17.589864 15559 net.cpp:165] Memory required for data: 750862336
I0411 13:21:17.589875 15559 layer_factory.hpp:77] Creating layer conv1_prescale
I0411 13:21:17.589889 15559 net.cpp:100] Creating Layer conv1_prescale
I0411 13:21:17.589892 15559 net.cpp:434] conv1_prescale <- conv1
I0411 13:21:17.589897 15559 net.cpp:395] conv1_prescale -> conv1 (in-place)
I0411 13:21:17.590014 15559 net.cpp:150] Setting up conv1_prescale
I0411 13:21:17.590023 15559 net.cpp:157] Top shape: 1024 100 42 42 (180633600)
I0411 13:21:17.590026 15559 net.cpp:165] Memory required for data: 1473396736
I0411 13:21:17.590034 15559 layer_factory.hpp:77] Creating layer conv1_sTanH
I0411 13:21:17.590042 15559 net.cpp:100] Creating Layer conv1_sTanH
I0411 13:21:17.590047 15559 net.cpp:434] conv1_sTanH <- conv1
I0411 13:21:17.590052 15559 net.cpp:395] conv1_sTanH -> conv1 (in-place)
I0411 13:21:17.590302 15559 net.cpp:150] Setting up conv1_sTanH
I0411 13:21:17.590315 15559 net.cpp:157] Top shape: 1024 100 42 42 (180633600)
I0411 13:21:17.590318 15559 net.cpp:165] Memory required for data: 2195931136
I0411 13:21:17.590322 15559 layer_factory.hpp:77] Creating layer conv1_postscale
I0411 13:21:17.590328 15559 net.cpp:100] Creating Layer conv1_postscale
I0411 13:21:17.590332 15559 net.cpp:434] conv1_postscale <- conv1
I0411 13:21:17.590343 15559 net.cpp:395] conv1_postscale -> conv1 (in-place)
I0411 13:21:17.592631 15559 net.cpp:150] Setting up conv1_postscale
I0411 13:21:17.592651 15559 net.cpp:157] Top shape: 1024 100 42 42 (180633600)
I0411 13:21:17.592655 15559 net.cpp:165] Memory required for data: 2918465536
I0411 13:21:17.592661 15559 layer_factory.hpp:77] Creating layer pool1
I0411 13:21:17.592670 15559 net.cpp:100] Creating Layer pool1
I0411 13:21:17.592674 15559 net.cpp:434] pool1 <- conv1
I0411 13:21:17.592679 15559 net.cpp:408] pool1 -> pool1
I0411 13:21:17.592728 15559 net.cpp:150] Setting up pool1
I0411 13:21:17.592737 15559 net.cpp:157] Top shape: 1024 100 21 21 (45158400)
I0411 13:21:17.592741 15559 net.cpp:165] Memory required for data: 3099099136
I0411 13:21:17.592749 15559 layer_factory.hpp:77] Creating layer conv2
I0411 13:21:17.592761 15559 net.cpp:100] Creating Layer conv2
I0411 13:21:17.592767 15559 net.cpp:434] conv2 <- pool1
I0411 13:21:17.592774 15559 net.cpp:408] conv2 -> conv2
I0411 13:21:17.596796 15559 net.cpp:150] Setting up conv2
I0411 13:21:17.596814 15559 net.cpp:157] Top shape: 1024 150 18 18 (49766400)
I0411 13:21:17.596818 15559 net.cpp:165] Memory required for data: 3298164736
I0411 13:21:17.596828 15559 layer_factory.hpp:77] Creating layer conv2_prescale
I0411 13:21:17.596839 15559 net.cpp:100] Creating Layer conv2_prescale
I0411 13:21:17.596844 15559 net.cpp:434] conv2_prescale <- conv2
I0411 13:21:17.596849 15559 net.cpp:395] conv2_prescale -> conv2 (in-place)
I0411 13:21:17.596971 15559 net.cpp:150] Setting up conv2_prescale
I0411 13:21:17.596979 15559 net.cpp:157] Top shape: 1024 150 18 18 (49766400)
I0411 13:21:17.596982 15559 net.cpp:165] Memory required for data: 3497230336
I0411 13:21:17.596987 15559 layer_factory.hpp:77] Creating layer conv2_sTanH
I0411 13:21:17.596993 15559 net.cpp:100] Creating Layer conv2_sTanH
I0411 13:21:17.596997 15559 net.cpp:434] conv2_sTanH <- conv2
I0411 13:21:17.597004 15559 net.cpp:395] conv2_sTanH -> conv2 (in-place)
I0411 13:21:17.597854 15559 net.cpp:150] Setting up conv2_sTanH
I0411 13:21:17.597872 15559 net.cpp:157] Top shape: 1024 150 18 18 (49766400)
I0411 13:21:17.597875 15559 net.cpp:165] Memory required for data: 3696295936
I0411 13:21:17.597878 15559 layer_factory.hpp:77] Creating layer conv2_postscale
I0411 13:21:17.597885 15559 net.cpp:100] Creating Layer conv2_postscale
I0411 13:21:17.597889 15559 net.cpp:434] conv2_postscale <- conv2
I0411 13:21:17.597896 15559 net.cpp:395] conv2_postscale -> conv2 (in-place)
I0411 13:21:17.598003 15559 net.cpp:150] Setting up conv2_postscale
I0411 13:21:17.598012 15559 net.cpp:157] Top shape: 1024 150 18 18 (49766400)
I0411 13:21:17.598016 15559 net.cpp:165] Memory required for data: 3895361536
I0411 13:21:17.598021 15559 layer_factory.hpp:77] Creating layer pool2
I0411 13:21:17.598034 15559 net.cpp:100] Creating Layer pool2
I0411 13:21:17.598040 15559 net.cpp:434] pool2 <- conv2
I0411 13:21:17.598047 15559 net.cpp:408] pool2 -> pool2
I0411 13:21:17.598094 15559 net.cpp:150] Setting up pool2
I0411 13:21:17.598104 15559 net.cpp:157] Top shape: 1024 150 9 9 (12441600)
I0411 13:21:17.598114 15559 net.cpp:165] Memory required for data: 3945127936
I0411 13:21:17.598117 15559 layer_factory.hpp:77] Creating layer conv3
I0411 13:21:17.598127 15559 net.cpp:100] Creating Layer conv3
I0411 13:21:17.598131 15559 net.cpp:434] conv3 <- pool2
I0411 13:21:17.598136 15559 net.cpp:408] conv3 -> conv3
I0411 13:21:17.603828 15559 net.cpp:150] Setting up conv3
I0411 13:21:17.603847 15559 net.cpp:157] Top shape: 1024 250 6 6 (9216000)
I0411 13:21:17.603850 15559 net.cpp:165] Memory required for data: 3981991936
I0411 13:21:17.603863 15559 layer_factory.hpp:77] Creating layer conv3_prescale
I0411 13:21:17.603870 15559 net.cpp:100] Creating Layer conv3_prescale
I0411 13:21:17.603874 15559 net.cpp:434] conv3_prescale <- conv3
I0411 13:21:17.603893 15559 net.cpp:395] conv3_prescale -> conv3 (in-place)
I0411 13:21:17.604003 15559 net.cpp:150] Setting up conv3_prescale
I0411 13:21:17.604012 15559 net.cpp:157] Top shape: 1024 250 6 6 (9216000)
I0411 13:21:17.604015 15559 net.cpp:165] Memory required for data: 4018855936
I0411 13:21:17.604020 15559 layer_factory.hpp:77] Creating layer conv3_sTanH
I0411 13:21:17.604025 15559 net.cpp:100] Creating Layer conv3_sTanH
I0411 13:21:17.604032 15559 net.cpp:434] conv3_sTanH <- conv3
I0411 13:21:17.604037 15559 net.cpp:395] conv3_sTanH -> conv3 (in-place)
I0411 13:21:17.605115 15559 net.cpp:150] Setting up conv3_sTanH
I0411 13:21:17.605131 15559 net.cpp:157] Top shape: 1024 250 6 6 (9216000)
I0411 13:21:17.605134 15559 net.cpp:165] Memory required for data: 4055719936
I0411 13:21:17.605137 15559 layer_factory.hpp:77] Creating layer conv3_postscale
I0411 13:21:17.605144 15559 net.cpp:100] Creating Layer conv3_postscale
I0411 13:21:17.605149 15559 net.cpp:434] conv3_postscale <- conv3
I0411 13:21:17.605155 15559 net.cpp:395] conv3_postscale -> conv3 (in-place)
I0411 13:21:17.605268 15559 net.cpp:150] Setting up conv3_postscale
I0411 13:21:17.605278 15559 net.cpp:157] Top shape: 1024 250 6 6 (9216000)
I0411 13:21:17.605280 15559 net.cpp:165] Memory required for data: 4092583936
I0411 13:21:17.605285 15559 layer_factory.hpp:77] Creating layer pool3
I0411 13:21:17.605295 15559 net.cpp:100] Creating Layer pool3
I0411 13:21:17.605300 15559 net.cpp:434] pool3 <- conv3
I0411 13:21:17.605306 15559 net.cpp:408] pool3 -> pool3
I0411 13:21:17.605365 15559 net.cpp:150] Setting up pool3
I0411 13:21:17.605375 15559 net.cpp:157] Top shape: 1024 250 3 3 (2304000)
I0411 13:21:17.605377 15559 net.cpp:165] Memory required for data: 4101799936
I0411 13:21:17.605381 15559 layer_factory.hpp:77] Creating layer fc4_300
I0411 13:21:17.605386 15559 net.cpp:100] Creating Layer fc4_300
I0411 13:21:17.605391 15559 net.cpp:434] fc4_300 <- pool3
I0411 13:21:17.605396 15559 net.cpp:408] fc4_300 -> fc4_300
I0411 13:21:17.610821 15559 net.cpp:150] Setting up fc4_300
I0411 13:21:17.610837 15559 net.cpp:157] Top shape: 1024 300 (307200)
I0411 13:21:17.610841 15559 net.cpp:165] Memory required for data: 4103028736
I0411 13:21:17.610864 15559 layer_factory.hpp:77] Creating layer fc4_prescale
I0411 13:21:17.610872 15559 net.cpp:100] Creating Layer fc4_prescale
I0411 13:21:17.610875 15559 net.cpp:434] fc4_prescale <- fc4_300
I0411 13:21:17.610883 15559 net.cpp:395] fc4_prescale -> fc4_300 (in-place)
I0411 13:21:17.610983 15559 net.cpp:150] Setting up fc4_prescale
I0411 13:21:17.610992 15559 net.cpp:157] Top shape: 1024 300 (307200)
I0411 13:21:17.610996 15559 net.cpp:165] Memory required for data: 4104257536
I0411 13:21:17.610999 15559 layer_factory.hpp:77] Creating layer fc4_sTanH
I0411 13:21:17.611006 15559 net.cpp:100] Creating Layer fc4_sTanH
I0411 13:21:17.611007 15559 net.cpp:434] fc4_sTanH <- fc4_300
I0411 13:21:17.611013 15559 net.cpp:395] fc4_sTanH -> fc4_300 (in-place)
I0411 13:21:17.611210 15559 net.cpp:150] Setting up fc4_sTanH
I0411 13:21:17.611222 15559 net.cpp:157] Top shape: 1024 300 (307200)
I0411 13:21:17.611224 15559 net.cpp:165] Memory required for data: 4105486336
I0411 13:21:17.611227 15559 layer_factory.hpp:77] Creating layer fc4_postscale
I0411 13:21:17.611233 15559 net.cpp:100] Creating Layer fc4_postscale
I0411 13:21:17.611237 15559 net.cpp:434] fc4_postscale <- fc4_300
I0411 13:21:17.611245 15559 net.cpp:395] fc4_postscale -> fc4_300 (in-place)
I0411 13:21:17.611387 15559 net.cpp:150] Setting up fc4_postscale
I0411 13:21:17.611398 15559 net.cpp:157] Top shape: 1024 300 (307200)
I0411 13:21:17.611402 15559 net.cpp:165] Memory required for data: 4106715136
I0411 13:21:17.611407 15559 layer_factory.hpp:77] Creating layer drop4
I0411 13:21:17.611414 15559 net.cpp:100] Creating Layer drop4
I0411 13:21:17.611418 15559 net.cpp:434] drop4 <- fc4_300
I0411 13:21:17.611426 15559 net.cpp:395] drop4 -> fc4_300 (in-place)
I0411 13:21:17.611454 15559 net.cpp:150] Setting up drop4
I0411 13:21:17.611462 15559 net.cpp:157] Top shape: 1024 300 (307200)
I0411 13:21:17.611467 15559 net.cpp:165] Memory required for data: 4107943936
I0411 13:21:17.611470 15559 layer_factory.hpp:77] Creating layer fc5_67
I0411 13:21:17.611477 15559 net.cpp:100] Creating Layer fc5_67
I0411 13:21:17.611480 15559 net.cpp:434] fc5_67 <- fc4_300
I0411 13:21:17.611485 15559 net.cpp:408] fc5_67 -> fc5_classes
I0411 13:21:17.611757 15559 net.cpp:150] Setting up fc5_67
I0411 13:21:17.611768 15559 net.cpp:157] Top shape: 1024 67 (68608)
I0411 13:21:17.611771 15559 net.cpp:165] Memory required for data: 4108218368
I0411 13:21:17.611783 15559 layer_factory.hpp:77] Creating layer fc5_classes_fc5_67_0_split
I0411 13:21:17.611789 15559 net.cpp:100] Creating Layer fc5_classes_fc5_67_0_split
I0411 13:21:17.611793 15559 net.cpp:434] fc5_classes_fc5_67_0_split <- fc5_classes
I0411 13:21:17.611799 15559 net.cpp:408] fc5_classes_fc5_67_0_split -> fc5_classes_fc5_67_0_split_0
I0411 13:21:17.611805 15559 net.cpp:408] fc5_classes_fc5_67_0_split -> fc5_classes_fc5_67_0_split_1
I0411 13:21:17.611812 15559 net.cpp:408] fc5_classes_fc5_67_0_split -> fc5_classes_fc5_67_0_split_2
I0411 13:21:17.611871 15559 net.cpp:150] Setting up fc5_classes_fc5_67_0_split
I0411 13:21:17.611883 15559 net.cpp:157] Top shape: 1024 67 (68608)
I0411 13:21:17.611887 15559 net.cpp:157] Top shape: 1024 67 (68608)
I0411 13:21:17.611891 15559 net.cpp:157] Top shape: 1024 67 (68608)
I0411 13:21:17.611893 15559 net.cpp:165] Memory required for data: 4109041664
I0411 13:21:17.611896 15559 layer_factory.hpp:77] Creating layer loss
I0411 13:21:17.611901 15559 net.cpp:100] Creating Layer loss
I0411 13:21:17.611904 15559 net.cpp:434] loss <- fc5_classes_fc5_67_0_split_0
I0411 13:21:17.611909 15559 net.cpp:434] loss <- label_data_1_split_0
I0411 13:21:17.611918 15559 net.cpp:408] loss -> loss
…
