…
I0411 13:18:16.546499 30828 net.cpp:322] The NetState phase (0) differed from the phase (1) specified by a rule in layer accuracy_5
I0411 13:18:16.546648 30828 net.cpp:58] Initializing net from parameters: 
state {
  phase: TRAIN
  level: 0
  stage: ""
}
layer {
  name: "data"
  type: "Data"
  top: "data"
  top: "label"
  include {
    phase: TRAIN
  }
  transform_param {
    scale: 0.0039215689
    mirror: false
    crop_size: 48
    mean_value: 132
    mean_value: 132
    mean_value: 131
  }
  data_param {
    source: "../local_data/lmdb/rtsd-r1/CoNorm/train/lmdb"
    batch_size: 1024
    backend: LMDB
  }
}
layer {
  name: "conv1"
  type: "Convolution"
  bottom: "data"
  top: "conv1"
  convolution_param {
    num_output: 100
    pad: 0
    kernel_size: 7
    group: 1
    stride: 1
    weight_filler {
      type: "xavier"
    }
  }
}
layer {
  name: "conv1_prescale"
  type: "Scale"
  bottom: "conv1"
  top: "conv1"
  param {
    lr_mult: 0
    decay_mult: 0
  }
  scale_param {
    filler {
      value: 0.6666
    }
    bias_term: false
  }
}
layer {
  name: "conv1_sTanH"
  type: "TanH"
  bottom: "conv1"
  top: "conv1"
}
layer {
  name: "conv1_postscale"
  type: "Scale"
  bottom: "conv1"
  top: "conv1"
  param {
    lr_mult: 0
    decay_mult: 0
  }
  scale_param {
    filler {
      value: 1.7159
    }
    bias_term: false
  }
}
layer {
  name: "pool1"
  type: "Pooling"
  bottom: "conv1"
  top: "pool1"
  pooling_param {
    pool: MAX
    kernel_size: 2
    stride: 2
  }
}
layer {
  name: "conv2"
  type: "Convolution"
  bottom: "pool1"
  top: "conv2"
  convolution_param {
    num_output: 150
    pad: 0
    kernel_size: 4
    group: 1
    stride: 1
    weight_filler {
      type: "xavier"
    }
  }
}
layer {
  name: "conv2_prescale"
  type: "Scale"
  bottom: "conv2"
  top: "conv2"
  param {
    lr_mult: 0
    decay_mult: 0
  }
  scale_param {
    filler {
      value: 0.6666
    }
    bias_term: false
  }
}
layer {
  name: "conv2_sTanH"
  type: "TanH"
  bottom: "conv2"
  top: "conv2"
}
layer {
  name: "conv2_postscale"
  type: "Scale"
  bottom: "conv2"
  top: "conv2"
  param {
    lr_mult: 0
    decay_mult: 0
  }
  scale_param {
    filler {
      value: 1.7159
    }
    bias_term: false
  }
}
layer {
  name: "pool2"
  type: "Pooling"
  bottom: "conv2"
  top: "pool2"
  pooling_param {
    pool: MAX
    kernel_size: 2
    stride: 2
  }
}
layer {
  name: "conv3"
  type: "Convolution"
  bottom: "pool2"
  top: "conv3"
  convolution_param {
    num_output: 250
    pad: 0
    kernel_size: 4
    group: 1
    stride: 1
    weight_filler {
      type: "xavier"
    }
  }
}
layer {
  name: "conv3_prescale"
  type: "Scale"
  bottom: "conv3"
  top: "conv3"
  param {
    lr_mult: 0
    decay_mult: 0
  }
  scale_param {
    filler {
      value: 0.6666
    }
    bias_term: false
  }
}
layer {
  name: "conv3_sTanH"
  type: "TanH"
  bottom: "conv3"
  top: "conv3"
}
layer {
  name: "conv3_postscale"
  type: "Scale"
  bottom: "conv3"
  top: "conv3"
  param {
    lr_mult: 0
    decay_mult: 0
  }
  scale_param {
    filler {
      value: 1.7159
    }
    bias_term: false
  }
}
layer {
  name: "pool3"
  type: "Pooling"
  bottom: "conv3"
  top: "pool3"
  pooling_param {
    pool: MAX
    kernel_size: 2
    stride: 2
  }
}
layer {
  name: "fc4_300"
  type: "InnerProduct"
  bottom: "pool3"
  top: "fc4_300"
  inner_product_param {
    num_output: 300
    weight_filler {
      type: "xavier"
    }
  }
}
layer {
  name: "fc4_prescale"
  type: "Scale"
  bottom: "fc4_300"
  top: "fc4_300"
  param {
    lr_mult: 0
    decay_mult: 0
  }
  scale_param {
    filler {
      value: 0.6666
    }
    bias_term: false
  }
}
layer {
  name: "fc4_sTanH"
  type: "TanH"
  bottom: "fc4_300"
  top: "fc4_300"
}
layer {
  name: "fc4_postscale"
  type: "Scale"
  bottom: "fc4_300"
  top: "fc4_300"
  param {
    lr_mult: 0
    decay_mult: 0
  }
  scale_param {
    filler {
      value: 1.7159
    }
    bias_term: false
  }
}
layer {
  name: "drop4"
  type: "Dropout"
  bottom: "fc4_300"
  top: "fc4_300"
  dropout_param {
    dropout_ratio: 0.4
  }
}
layer {
  name: "fc5_67"
  type: "InnerProduct"
  bottom: "fc4_300"
  top: "fc5_classes"
  inner_product_param {
    num_output: 67
    weight_filler {
      type: "xavier"
    }
  }
}
layer {
  name: "loss"
  type: "SoftmaxWithLoss"
  bottom: "fc5_classes"
  bottom: "label"
  top: "loss"
}
I0411 13:18:16.546753 30828 layer_factory.hpp:77] Creating layer data
I0411 13:18:16.547827 30828 net.cpp:100] Creating Layer data
I0411 13:18:16.547840 30828 net.cpp:408] data -> data
I0411 13:18:16.547863 30828 net.cpp:408] data -> label
I0411 13:18:16.550637 30932 db_lmdb.cpp:35] Opened lmdb ../local_data/lmdb/rtsd-r1/CoNorm/train/lmdb
I0411 13:18:16.570483 30828 data_layer.cpp:41] output data size: 1024,3,48,48
I0411 13:18:16.614711 30828 net.cpp:150] Setting up data
I0411 13:18:16.614742 30828 net.cpp:157] Top shape: 1024 3 48 48 (7077888)
I0411 13:18:16.614748 30828 net.cpp:157] Top shape: 1024 (1024)
I0411 13:18:16.614751 30828 net.cpp:165] Memory required for data: 28315648
I0411 13:18:16.614761 30828 layer_factory.hpp:77] Creating layer conv1
I0411 13:18:16.614783 30828 net.cpp:100] Creating Layer conv1
I0411 13:18:16.614790 30828 net.cpp:434] conv1 <- data
I0411 13:18:16.614804 30828 net.cpp:408] conv1 -> conv1
I0411 13:18:17.273255 30828 net.cpp:150] Setting up conv1
I0411 13:18:17.273283 30828 net.cpp:157] Top shape: 1024 100 42 42 (180633600)
I0411 13:18:17.273288 30828 net.cpp:165] Memory required for data: 750850048
I0411 13:18:17.273309 30828 layer_factory.hpp:77] Creating layer conv1_prescale
I0411 13:18:17.273325 30828 net.cpp:100] Creating Layer conv1_prescale
I0411 13:18:17.273331 30828 net.cpp:434] conv1_prescale <- conv1
I0411 13:18:17.273350 30828 net.cpp:395] conv1_prescale -> conv1 (in-place)
I0411 13:18:17.273463 30828 net.cpp:150] Setting up conv1_prescale
I0411 13:18:17.273473 30828 net.cpp:157] Top shape: 1024 100 42 42 (180633600)
I0411 13:18:17.273476 30828 net.cpp:165] Memory required for data: 1473384448
I0411 13:18:17.273483 30828 layer_factory.hpp:77] Creating layer conv1_sTanH
I0411 13:18:17.273489 30828 net.cpp:100] Creating Layer conv1_sTanH
I0411 13:18:17.273493 30828 net.cpp:434] conv1_sTanH <- conv1
I0411 13:18:17.273497 30828 net.cpp:395] conv1_sTanH -> conv1 (in-place)
I0411 13:18:17.273697 30828 net.cpp:150] Setting up conv1_sTanH
I0411 13:18:17.273710 30828 net.cpp:157] Top shape: 1024 100 42 42 (180633600)
I0411 13:18:17.273712 30828 net.cpp:165] Memory required for data: 2195918848
I0411 13:18:17.273716 30828 layer_factory.hpp:77] Creating layer conv1_postscale
I0411 13:18:17.273725 30828 net.cpp:100] Creating Layer conv1_postscale
I0411 13:18:17.273730 30828 net.cpp:434] conv1_postscale <- conv1
I0411 13:18:17.273736 30828 net.cpp:395] conv1_postscale -> conv1 (in-place)
I0411 13:18:17.273833 30828 net.cpp:150] Setting up conv1_postscale
I0411 13:18:17.273843 30828 net.cpp:157] Top shape: 1024 100 42 42 (180633600)
I0411 13:18:17.273845 30828 net.cpp:165] Memory required for data: 2918453248
I0411 13:18:17.273849 30828 layer_factory.hpp:77] Creating layer pool1
I0411 13:18:17.273857 30828 net.cpp:100] Creating Layer pool1
I0411 13:18:17.273864 30828 net.cpp:434] pool1 <- conv1
I0411 13:18:17.273869 30828 net.cpp:408] pool1 -> pool1
I0411 13:18:17.273938 30828 net.cpp:150] Setting up pool1
I0411 13:18:17.273947 30828 net.cpp:157] Top shape: 1024 100 21 21 (45158400)
I0411 13:18:17.273950 30828 net.cpp:165] Memory required for data: 3099086848
I0411 13:18:17.273954 30828 layer_factory.hpp:77] Creating layer conv2
I0411 13:18:17.273964 30828 net.cpp:100] Creating Layer conv2
I0411 13:18:17.273969 30828 net.cpp:434] conv2 <- pool1
I0411 13:18:17.273974 30828 net.cpp:408] conv2 -> conv2
I0411 13:18:17.280789 30828 net.cpp:150] Setting up conv2
I0411 13:18:17.280807 30828 net.cpp:157] Top shape: 1024 150 18 18 (49766400)
I0411 13:18:17.280809 30828 net.cpp:165] Memory required for data: 3298152448
I0411 13:18:17.280820 30828 layer_factory.hpp:77] Creating layer conv2_prescale
I0411 13:18:17.280836 30828 net.cpp:100] Creating Layer conv2_prescale
I0411 13:18:17.280840 30828 net.cpp:434] conv2_prescale <- conv2
I0411 13:18:17.280846 30828 net.cpp:395] conv2_prescale -> conv2 (in-place)
I0411 13:18:17.280973 30828 net.cpp:150] Setting up conv2_prescale
I0411 13:18:17.280982 30828 net.cpp:157] Top shape: 1024 150 18 18 (49766400)
I0411 13:18:17.280985 30828 net.cpp:165] Memory required for data: 3497218048
I0411 13:18:17.280989 30828 layer_factory.hpp:77] Creating layer conv2_sTanH
I0411 13:18:17.280998 30828 net.cpp:100] Creating Layer conv2_sTanH
I0411 13:18:17.281002 30828 net.cpp:434] conv2_sTanH <- conv2
I0411 13:18:17.281008 30828 net.cpp:395] conv2_sTanH -> conv2 (in-place)
I0411 13:18:17.281857 30828 net.cpp:150] Setting up conv2_sTanH
I0411 13:18:17.281872 30828 net.cpp:157] Top shape: 1024 150 18 18 (49766400)
I0411 13:18:17.281875 30828 net.cpp:165] Memory required for data: 3696283648
I0411 13:18:17.281878 30828 layer_factory.hpp:77] Creating layer conv2_postscale
I0411 13:18:17.281888 30828 net.cpp:100] Creating Layer conv2_postscale
I0411 13:18:17.281893 30828 net.cpp:434] conv2_postscale <- conv2
I0411 13:18:17.281898 30828 net.cpp:395] conv2_postscale -> conv2 (in-place)
I0411 13:18:17.281999 30828 net.cpp:150] Setting up conv2_postscale
I0411 13:18:17.282008 30828 net.cpp:157] Top shape: 1024 150 18 18 (49766400)
I0411 13:18:17.282011 30828 net.cpp:165] Memory required for data: 3895349248
I0411 13:18:17.282016 30828 layer_factory.hpp:77] Creating layer pool2
I0411 13:18:17.282022 30828 net.cpp:100] Creating Layer pool2
I0411 13:18:17.282025 30828 net.cpp:434] pool2 <- conv2
I0411 13:18:17.282032 30828 net.cpp:408] pool2 -> pool2
I0411 13:18:17.282076 30828 net.cpp:150] Setting up pool2
I0411 13:18:17.282083 30828 net.cpp:157] Top shape: 1024 150 9 9 (12441600)
I0411 13:18:17.282086 30828 net.cpp:165] Memory required for data: 3945115648
I0411 13:18:17.282089 30828 layer_factory.hpp:77] Creating layer conv3
I0411 13:18:17.282099 30828 net.cpp:100] Creating Layer conv3
I0411 13:18:17.282104 30828 net.cpp:434] conv3 <- pool2
I0411 13:18:17.282109 30828 net.cpp:408] conv3 -> conv3
I0411 13:18:17.287940 30828 net.cpp:150] Setting up conv3
I0411 13:18:17.287955 30828 net.cpp:157] Top shape: 1024 250 6 6 (9216000)
I0411 13:18:17.287959 30828 net.cpp:165] Memory required for data: 3981979648
I0411 13:18:17.287971 30828 layer_factory.hpp:77] Creating layer conv3_prescale
I0411 13:18:17.287979 30828 net.cpp:100] Creating Layer conv3_prescale
I0411 13:18:17.287984 30828 net.cpp:434] conv3_prescale <- conv3
I0411 13:18:17.287991 30828 net.cpp:395] conv3_prescale -> conv3 (in-place)
I0411 13:18:17.288087 30828 net.cpp:150] Setting up conv3_prescale
I0411 13:18:17.288096 30828 net.cpp:157] Top shape: 1024 250 6 6 (9216000)
I0411 13:18:17.288100 30828 net.cpp:165] Memory required for data: 4018843648
I0411 13:18:17.288105 30828 layer_factory.hpp:77] Creating layer conv3_sTanH
I0411 13:18:17.288110 30828 net.cpp:100] Creating Layer conv3_sTanH
I0411 13:18:17.288116 30828 net.cpp:434] conv3_sTanH <- conv3
I0411 13:18:17.288120 30828 net.cpp:395] conv3_sTanH -> conv3 (in-place)
I0411 13:18:17.295368 30828 net.cpp:150] Setting up conv3_sTanH
I0411 13:18:17.295387 30828 net.cpp:157] Top shape: 1024 250 6 6 (9216000)
I0411 13:18:17.295389 30828 net.cpp:165] Memory required for data: 4055707648
I0411 13:18:17.295406 30828 layer_factory.hpp:77] Creating layer conv3_postscale
I0411 13:18:17.295418 30828 net.cpp:100] Creating Layer conv3_postscale
I0411 13:18:17.295421 30828 net.cpp:434] conv3_postscale <- conv3
I0411 13:18:17.295428 30828 net.cpp:395] conv3_postscale -> conv3 (in-place)
I0411 13:18:17.295536 30828 net.cpp:150] Setting up conv3_postscale
I0411 13:18:17.295545 30828 net.cpp:157] Top shape: 1024 250 6 6 (9216000)
I0411 13:18:17.295548 30828 net.cpp:165] Memory required for data: 4092571648
I0411 13:18:17.295553 30828 layer_factory.hpp:77] Creating layer pool3
I0411 13:18:17.295560 30828 net.cpp:100] Creating Layer pool3
I0411 13:18:17.295565 30828 net.cpp:434] pool3 <- conv3
I0411 13:18:17.295570 30828 net.cpp:408] pool3 -> pool3
I0411 13:18:17.295613 30828 net.cpp:150] Setting up pool3
I0411 13:18:17.295620 30828 net.cpp:157] Top shape: 1024 250 3 3 (2304000)
I0411 13:18:17.295624 30828 net.cpp:165] Memory required for data: 4101787648
I0411 13:18:17.295626 30828 layer_factory.hpp:77] Creating layer fc4_300
I0411 13:18:17.295636 30828 net.cpp:100] Creating Layer fc4_300
I0411 13:18:17.295640 30828 net.cpp:434] fc4_300 <- pool3
I0411 13:18:17.295645 30828 net.cpp:408] fc4_300 -> fc4_300
I0411 13:18:17.306223 30828 net.cpp:150] Setting up fc4_300
I0411 13:18:17.306241 30828 net.cpp:157] Top shape: 1024 300 (307200)
I0411 13:18:17.306244 30828 net.cpp:165] Memory required for data: 4103016448
I0411 13:18:17.306252 30828 layer_factory.hpp:77] Creating layer fc4_prescale
I0411 13:18:17.306262 30828 net.cpp:100] Creating Layer fc4_prescale
I0411 13:18:17.306269 30828 net.cpp:434] fc4_prescale <- fc4_300
I0411 13:18:17.306274 30828 net.cpp:395] fc4_prescale -> fc4_300 (in-place)
I0411 13:18:17.306370 30828 net.cpp:150] Setting up fc4_prescale
I0411 13:18:17.306378 30828 net.cpp:157] Top shape: 1024 300 (307200)
I0411 13:18:17.306381 30828 net.cpp:165] Memory required for data: 4104245248
I0411 13:18:17.306386 30828 layer_factory.hpp:77] Creating layer fc4_sTanH
I0411 13:18:17.306391 30828 net.cpp:100] Creating Layer fc4_sTanH
I0411 13:18:17.306394 30828 net.cpp:434] fc4_sTanH <- fc4_300
I0411 13:18:17.306399 30828 net.cpp:395] fc4_sTanH -> fc4_300 (in-place)
I0411 13:18:17.306591 30828 net.cpp:150] Setting up fc4_sTanH
I0411 13:18:17.306602 30828 net.cpp:157] Top shape: 1024 300 (307200)
I0411 13:18:17.306605 30828 net.cpp:165] Memory required for data: 4105474048
I0411 13:18:17.306608 30828 layer_factory.hpp:77] Creating layer fc4_postscale
I0411 13:18:17.306617 30828 net.cpp:100] Creating Layer fc4_postscale
I0411 13:18:17.306619 30828 net.cpp:434] fc4_postscale <- fc4_300
I0411 13:18:17.306624 30828 net.cpp:395] fc4_postscale -> fc4_300 (in-place)
I0411 13:18:17.306723 30828 net.cpp:150] Setting up fc4_postscale
I0411 13:18:17.306731 30828 net.cpp:157] Top shape: 1024 300 (307200)
I0411 13:18:17.306735 30828 net.cpp:165] Memory required for data: 4106702848
I0411 13:18:17.306738 30828 layer_factory.hpp:77] Creating layer drop4
I0411 13:18:17.306746 30828 net.cpp:100] Creating Layer drop4
I0411 13:18:17.306751 30828 net.cpp:434] drop4 <- fc4_300
I0411 13:18:17.306756 30828 net.cpp:395] drop4 -> fc4_300 (in-place)
I0411 13:18:17.306784 30828 net.cpp:150] Setting up drop4
I0411 13:18:17.306792 30828 net.cpp:157] Top shape: 1024 300 (307200)
I0411 13:18:17.306794 30828 net.cpp:165] Memory required for data: 4107931648
I0411 13:18:17.306797 30828 layer_factory.hpp:77] Creating layer fc5_67
I0411 13:18:17.306803 30828 net.cpp:100] Creating Layer fc5_67
I0411 13:18:17.306807 30828 net.cpp:434] fc5_67 <- fc4_300
I0411 13:18:17.306813 30828 net.cpp:408] fc5_67 -> fc5_classes
I0411 13:18:17.308109 30828 net.cpp:150] Setting up fc5_67
I0411 13:18:17.308125 30828 net.cpp:157] Top shape: 1024 67 (68608)
I0411 13:18:17.308128 30828 net.cpp:165] Memory required for data: 4108206080
I0411 13:18:17.308141 30828 layer_factory.hpp:77] Creating layer loss
I0411 13:18:17.308148 30828 net.cpp:100] Creating Layer loss
I0411 13:18:17.308151 30828 net.cpp:434] loss <- fc5_classes
I0411 13:18:17.308156 30828 net.cpp:434] loss <- label
I0411 13:18:17.308178 30828 net.cpp:408] loss -> loss
I0411 13:18:17.308192 30828 layer_factory.hpp:77] Creating layer loss
…
I0411 13:18:17.308925 30828 solver.cpp:193] Creating test net (#0) specified by test_net file: ./Prototxt/experiment_9/rtsd-r1/CoNorm/trial_1/test.prototxt
I0411 13:18:17.309108 30828 net.cpp:58] Initializing net from parameters: 
state {
  phase: TEST
}
layer {
  name: "data"
  type: "Data"
  top: "data"
  top: "label"
  include {
    phase: TEST
  }
  transform_param {
    scale: 0.0039215689
    mirror: false
    crop_size: 48
    mean_value: 133
    mean_value: 133
    mean_value: 132
  }
  data_param {
    source: "../local_data/lmdb/rtsd-r1/CoNorm/test/lmdb"
    batch_size: 1024
    backend: LMDB
  }
}
layer {
  name: "conv1"
  type: "Convolution"
  bottom: "data"
  top: "conv1"
  convolution_param {
    num_output: 100
    pad: 0
    kernel_size: 7
    group: 1
    stride: 1
    weight_filler {
      type: "xavier"
    }
  }
}
layer {
  name: "conv1_prescale"
  type: "Scale"
  bottom: "conv1"
  top: "conv1"
  param {
    lr_mult: 0
    decay_mult: 0
  }
  scale_param {
    filler {
      value: 0.6666
    }
    bias_term: false
  }
}
layer {
  name: "conv1_sTanH"
  type: "TanH"
  bottom: "conv1"
  top: "conv1"
}
layer {
  name: "conv1_postscale"
  type: "Scale"
  bottom: "conv1"
  top: "conv1"
  param {
    lr_mult: 0
    decay_mult: 0
  }
  scale_param {
    filler {
      value: 1.7159
    }
    bias_term: false
  }
}
layer {
  name: "pool1"
  type: "Pooling"
  bottom: "conv1"
  top: "pool1"
  pooling_param {
    pool: MAX
    kernel_size: 2
    stride: 2
  }
}
layer {
  name: "conv2"
  type: "Convolution"
  bottom: "pool1"
  top: "conv2"
  convolution_param {
    num_output: 150
    pad: 0
    kernel_size: 4
    group: 1
    stride: 1
    weight_filler {
      type: "xavier"
    }
  }
}
layer {
  name: "conv2_prescale"
  type: "Scale"
  bottom: "conv2"
  top: "conv2"
  param {
    lr_mult: 0
    decay_mult: 0
  }
  scale_param {
    filler {
      value: 0.6666
    }
    bias_term: false
  }
}
layer {
  name: "conv2_sTanH"
  type: "TanH"
  bottom: "conv2"
  top: "conv2"
}
layer {
  name: "conv2_postscale"
  type: "Scale"
  bottom: "conv2"
  top: "conv2"
  param {
    lr_mult: 0
    decay_mult: 0
  }
  scale_param {
    filler {
      value: 1.7159
    }
    bias_term: false
  }
}
layer {
  name: "pool2"
  type: "Pooling"
  bottom: "conv2"
  top: "pool2"
  pooling_param {
    pool: MAX
    kernel_size: 2
    stride: 2
  }
}
layer {
  name: "conv3"
  type: "Convolution"
  bottom: "pool2"
  top: "conv3"
  convolution_param {
    num_output: 250
    pad: 0
    kernel_size: 4
    group: 1
    stride: 1
    weight_filler {
      type: "xavier"
    }
  }
}
layer {
  name: "conv3_prescale"
  type: "Scale"
  bottom: "conv3"
  top: "conv3"
  param {
    lr_mult: 0
    decay_mult: 0
  }
  scale_param {
    filler {
      value: 0.6666
    }
    bias_term: false
  }
}
layer {
  name: "conv3_sTanH"
  type: "TanH"
  bottom: "conv3"
  top: "conv3"
}
layer {
  name: "conv3_postscale"
  type: "Scale"
  bottom: "conv3"
  top: "conv3"
  param {
    lr_mult: 0
    decay_mult: 0
  }
  scale_param {
    filler {
      value: 1.7159
    }
    bias_term: false
  }
}
layer {
  name: "pool3"
  type: "Pooling"
  bottom: "conv3"
  top: "pool3"
  pooling_param {
    pool: MAX
    kernel_size: 2
    stride: 2
  }
}
layer {
  name: "fc4_300"
  type: "InnerProduct"
  bottom: "pool3"
  top: "fc4_300"
  inner_product_param {
    num_output: 300
    weight_filler {
      type: "xavier"
    }
  }
}
layer {
  name: "fc4_prescale"
  type: "Scale"
  bottom: "fc4_300"
  top: "fc4_300"
  param {
    lr_mult: 0
    decay_mult: 0
  }
  scale_param {
    filler {
      value: 0.6666
    }
    bias_term: false
  }
}
layer {
  name: "fc4_sTanH"
  type: "TanH"
  bottom: "fc4_300"
  top: "fc4_300"
}
layer {
  name: "fc4_postscale"
  type: "Scale"
  bottom: "fc4_300"
  top: "fc4_300"
  param {
    lr_mult: 0
    decay_mult: 0
  }
  scale_param {
    filler {
      value: 1.7159
    }
    bias_term: false
  }
}
layer {
  name: "drop4"
  type: "Dropout"
  bottom: "fc4_300"
  top: "fc4_300"
  dropout_param {
    dropout_ratio: 0.4
  }
}
layer {
  name: "fc5_67"
  type: "InnerProduct"
  bottom: "fc4_300"
  top: "fc5_classes"
  inner_product_param {
    num_output: 67
    weight_filler {
      type: "xavier"
    }
  }
}
layer {
  name: "loss"
  type: "SoftmaxWithLoss"
  bottom: "fc5_classes"
  bottom: "label"
  top: "loss"
}
layer {
  name: "accuracy_1"
  type: "Accuracy"
  bottom: "fc5_classes"
  bottom: "label"
  top: "accuracy_1"
  include {
    phase: TEST
  }
  accuracy_param {
    top_k: 1
  }
}
layer {
  name: "accuracy_5"
  type: "Accuracy"
  bottom: "fc5_classes"
  bottom: "label"
  top: "accuracy_5"
  include {
    phase: TEST
  }
  accuracy_param {
    top_k: 5
  }
}
I0411 13:18:17.309231 30828 layer_factory.hpp:77] Creating layer data
I0411 13:18:17.309937 30828 net.cpp:100] Creating Layer data
I0411 13:18:17.309959 30828 net.cpp:408] data -> data
I0411 13:18:17.309972 30828 net.cpp:408] data -> label
I0411 13:18:17.312505 30994 db_lmdb.cpp:35] Opened lmdb ../local_data/lmdb/rtsd-r1/CoNorm/test/lmdb
I0411 13:18:17.312772 30828 data_layer.cpp:41] output data size: 1024,3,48,48
I0411 13:18:17.359839 30828 net.cpp:150] Setting up data
I0411 13:18:17.359868 30828 net.cpp:157] Top shape: 1024 3 48 48 (7077888)
I0411 13:18:17.359872 30828 net.cpp:157] Top shape: 1024 (1024)
I0411 13:18:17.359875 30828 net.cpp:165] Memory required for data: 28315648
I0411 13:18:17.359894 30828 layer_factory.hpp:77] Creating layer label_data_1_split
I0411 13:18:17.359908 30828 net.cpp:100] Creating Layer label_data_1_split
I0411 13:18:17.359912 30828 net.cpp:434] label_data_1_split <- label
I0411 13:18:17.359920 30828 net.cpp:408] label_data_1_split -> label_data_1_split_0
I0411 13:18:17.359931 30828 net.cpp:408] label_data_1_split -> label_data_1_split_1
I0411 13:18:17.359959 30828 net.cpp:408] label_data_1_split -> label_data_1_split_2
I0411 13:18:17.360100 30828 net.cpp:150] Setting up label_data_1_split
I0411 13:18:17.360115 30828 net.cpp:157] Top shape: 1024 (1024)
I0411 13:18:17.360118 30828 net.cpp:157] Top shape: 1024 (1024)
I0411 13:18:17.360122 30828 net.cpp:157] Top shape: 1024 (1024)
I0411 13:18:17.360124 30828 net.cpp:165] Memory required for data: 28327936
I0411 13:18:17.360127 30828 layer_factory.hpp:77] Creating layer conv1
I0411 13:18:17.360141 30828 net.cpp:100] Creating Layer conv1
I0411 13:18:17.360146 30828 net.cpp:434] conv1 <- data
I0411 13:18:17.360152 30828 net.cpp:408] conv1 -> conv1
I0411 13:18:17.363621 30828 net.cpp:150] Setting up conv1
I0411 13:18:17.363637 30828 net.cpp:157] Top shape: 1024 100 42 42 (180633600)
I0411 13:18:17.363641 30828 net.cpp:165] Memory required for data: 750862336
I0411 13:18:17.363656 30828 layer_factory.hpp:77] Creating layer conv1_prescale
I0411 13:18:17.363665 30828 net.cpp:100] Creating Layer conv1_prescale
I0411 13:18:17.363670 30828 net.cpp:434] conv1_prescale <- conv1
I0411 13:18:17.363679 30828 net.cpp:395] conv1_prescale -> conv1 (in-place)
I0411 13:18:17.363795 30828 net.cpp:150] Setting up conv1_prescale
I0411 13:18:17.363803 30828 net.cpp:157] Top shape: 1024 100 42 42 (180633600)
I0411 13:18:17.363806 30828 net.cpp:165] Memory required for data: 1473396736
I0411 13:18:17.363812 30828 layer_factory.hpp:77] Creating layer conv1_sTanH
I0411 13:18:17.363821 30828 net.cpp:100] Creating Layer conv1_sTanH
I0411 13:18:17.363828 30828 net.cpp:434] conv1_sTanH <- conv1
I0411 13:18:17.363833 30828 net.cpp:395] conv1_sTanH -> conv1 (in-place)
I0411 13:18:17.364040 30828 net.cpp:150] Setting up conv1_sTanH
I0411 13:18:17.364051 30828 net.cpp:157] Top shape: 1024 100 42 42 (180633600)
I0411 13:18:17.364054 30828 net.cpp:165] Memory required for data: 2195931136
I0411 13:18:17.364058 30828 layer_factory.hpp:77] Creating layer conv1_postscale
I0411 13:18:17.364065 30828 net.cpp:100] Creating Layer conv1_postscale
I0411 13:18:17.364069 30828 net.cpp:434] conv1_postscale <- conv1
I0411 13:18:17.364075 30828 net.cpp:395] conv1_postscale -> conv1 (in-place)
I0411 13:18:17.364184 30828 net.cpp:150] Setting up conv1_postscale
I0411 13:18:17.364197 30828 net.cpp:157] Top shape: 1024 100 42 42 (180633600)
I0411 13:18:17.364199 30828 net.cpp:165] Memory required for data: 2918465536
I0411 13:18:17.364204 30828 layer_factory.hpp:77] Creating layer pool1
I0411 13:18:17.364212 30828 net.cpp:100] Creating Layer pool1
I0411 13:18:17.364215 30828 net.cpp:434] pool1 <- conv1
I0411 13:18:17.364220 30828 net.cpp:408] pool1 -> pool1
I0411 13:18:17.364266 30828 net.cpp:150] Setting up pool1
I0411 13:18:17.364274 30828 net.cpp:157] Top shape: 1024 100 21 21 (45158400)
I0411 13:18:17.364277 30828 net.cpp:165] Memory required for data: 3099099136
I0411 13:18:17.364279 30828 layer_factory.hpp:77] Creating layer conv2
I0411 13:18:17.364289 30828 net.cpp:100] Creating Layer conv2
I0411 13:18:17.364293 30828 net.cpp:434] conv2 <- pool1
I0411 13:18:17.364298 30828 net.cpp:408] conv2 -> conv2
I0411 13:18:17.370141 30828 net.cpp:150] Setting up conv2
I0411 13:18:17.370160 30828 net.cpp:157] Top shape: 1024 150 18 18 (49766400)
I0411 13:18:17.370164 30828 net.cpp:165] Memory required for data: 3298164736
I0411 13:18:17.370174 30828 layer_factory.hpp:77] Creating layer conv2_prescale
I0411 13:18:17.370185 30828 net.cpp:100] Creating Layer conv2_prescale
I0411 13:18:17.370194 30828 net.cpp:434] conv2_prescale <- conv2
I0411 13:18:17.370203 30828 net.cpp:395] conv2_prescale -> conv2 (in-place)
I0411 13:18:17.370314 30828 net.cpp:150] Setting up conv2_prescale
I0411 13:18:17.370323 30828 net.cpp:157] Top shape: 1024 150 18 18 (49766400)
I0411 13:18:17.370326 30828 net.cpp:165] Memory required for data: 3497230336
I0411 13:18:17.370332 30828 layer_factory.hpp:77] Creating layer conv2_sTanH
I0411 13:18:17.370337 30828 net.cpp:100] Creating Layer conv2_sTanH
I0411 13:18:17.370340 30828 net.cpp:434] conv2_sTanH <- conv2
I0411 13:18:17.370347 30828 net.cpp:395] conv2_sTanH -> conv2 (in-place)
I0411 13:18:17.377884 30828 net.cpp:150] Setting up conv2_sTanH
I0411 13:18:17.377903 30828 net.cpp:157] Top shape: 1024 150 18 18 (49766400)
I0411 13:18:17.377908 30828 net.cpp:165] Memory required for data: 3696295936
I0411 13:18:17.377912 30828 layer_factory.hpp:77] Creating layer conv2_postscale
I0411 13:18:17.377919 30828 net.cpp:100] Creating Layer conv2_postscale
I0411 13:18:17.377923 30828 net.cpp:434] conv2_postscale <- conv2
I0411 13:18:17.377929 30828 net.cpp:395] conv2_postscale -> conv2 (in-place)
I0411 13:18:17.378036 30828 net.cpp:150] Setting up conv2_postscale
I0411 13:18:17.378046 30828 net.cpp:157] Top shape: 1024 150 18 18 (49766400)
I0411 13:18:17.378049 30828 net.cpp:165] Memory required for data: 3895361536
I0411 13:18:17.378054 30828 layer_factory.hpp:77] Creating layer pool2
I0411 13:18:17.378062 30828 net.cpp:100] Creating Layer pool2
I0411 13:18:17.378065 30828 net.cpp:434] pool2 <- conv2
I0411 13:18:17.378070 30828 net.cpp:408] pool2 -> pool2
I0411 13:18:17.378120 30828 net.cpp:150] Setting up pool2
I0411 13:18:17.378129 30828 net.cpp:157] Top shape: 1024 150 9 9 (12441600)
I0411 13:18:17.378131 30828 net.cpp:165] Memory required for data: 3945127936
I0411 13:18:17.378134 30828 layer_factory.hpp:77] Creating layer conv3
I0411 13:18:17.378144 30828 net.cpp:100] Creating Layer conv3
I0411 13:18:17.378149 30828 net.cpp:434] conv3 <- pool2
I0411 13:18:17.378155 30828 net.cpp:408] conv3 -> conv3
I0411 13:18:17.383890 30828 net.cpp:150] Setting up conv3
I0411 13:18:17.383909 30828 net.cpp:157] Top shape: 1024 250 6 6 (9216000)
I0411 13:18:17.383913 30828 net.cpp:165] Memory required for data: 3981991936
I0411 13:18:17.383925 30828 layer_factory.hpp:77] Creating layer conv3_prescale
I0411 13:18:17.383934 30828 net.cpp:100] Creating Layer conv3_prescale
I0411 13:18:17.383937 30828 net.cpp:434] conv3_prescale <- conv3
I0411 13:18:17.383944 30828 net.cpp:395] conv3_prescale -> conv3 (in-place)
I0411 13:18:17.384047 30828 net.cpp:150] Setting up conv3_prescale
I0411 13:18:17.384055 30828 net.cpp:157] Top shape: 1024 250 6 6 (9216000)
I0411 13:18:17.384058 30828 net.cpp:165] Memory required for data: 4018855936
I0411 13:18:17.384063 30828 layer_factory.hpp:77] Creating layer conv3_sTanH
I0411 13:18:17.384070 30828 net.cpp:100] Creating Layer conv3_sTanH
I0411 13:18:17.384075 30828 net.cpp:434] conv3_sTanH <- conv3
I0411 13:18:17.384080 30828 net.cpp:395] conv3_sTanH -> conv3 (in-place)
I0411 13:18:17.384974 30828 net.cpp:150] Setting up conv3_sTanH
I0411 13:18:17.384989 30828 net.cpp:157] Top shape: 1024 250 6 6 (9216000)
I0411 13:18:17.384994 30828 net.cpp:165] Memory required for data: 4055719936
I0411 13:18:17.384997 30828 layer_factory.hpp:77] Creating layer conv3_postscale
I0411 13:18:17.385004 30828 net.cpp:100] Creating Layer conv3_postscale
I0411 13:18:17.385009 30828 net.cpp:434] conv3_postscale <- conv3
I0411 13:18:17.385016 30828 net.cpp:395] conv3_postscale -> conv3 (in-place)
I0411 13:18:17.385121 30828 net.cpp:150] Setting up conv3_postscale
I0411 13:18:17.385129 30828 net.cpp:157] Top shape: 1024 250 6 6 (9216000)
I0411 13:18:17.385133 30828 net.cpp:165] Memory required for data: 4092583936
I0411 13:18:17.385138 30828 layer_factory.hpp:77] Creating layer pool3
I0411 13:18:17.385148 30828 net.cpp:100] Creating Layer pool3
I0411 13:18:17.385152 30828 net.cpp:434] pool3 <- conv3
I0411 13:18:17.385160 30828 net.cpp:408] pool3 -> pool3
I0411 13:18:17.385201 30828 net.cpp:150] Setting up pool3
I0411 13:18:17.385210 30828 net.cpp:157] Top shape: 1024 250 3 3 (2304000)
I0411 13:18:17.385212 30828 net.cpp:165] Memory required for data: 4101799936
I0411 13:18:17.385215 30828 layer_factory.hpp:77] Creating layer fc4_300
I0411 13:18:17.385222 30828 net.cpp:100] Creating Layer fc4_300
I0411 13:18:17.385231 30828 net.cpp:434] fc4_300 <- pool3
I0411 13:18:17.385236 30828 net.cpp:408] fc4_300 -> fc4_300
I0411 13:18:17.390674 30828 net.cpp:150] Setting up fc4_300
I0411 13:18:17.390689 30828 net.cpp:157] Top shape: 1024 300 (307200)
I0411 13:18:17.390693 30828 net.cpp:165] Memory required for data: 4103028736
I0411 13:18:17.390717 30828 layer_factory.hpp:77] Creating layer fc4_prescale
I0411 13:18:17.390725 30828 net.cpp:100] Creating Layer fc4_prescale
I0411 13:18:17.390733 30828 net.cpp:434] fc4_prescale <- fc4_300
I0411 13:18:17.390738 30828 net.cpp:395] fc4_prescale -> fc4_300 (in-place)
I0411 13:18:17.390838 30828 net.cpp:150] Setting up fc4_prescale
I0411 13:18:17.390847 30828 net.cpp:157] Top shape: 1024 300 (307200)
I0411 13:18:17.390851 30828 net.cpp:165] Memory required for data: 4104257536
I0411 13:18:17.390856 30828 layer_factory.hpp:77] Creating layer fc4_sTanH
I0411 13:18:17.390861 30828 net.cpp:100] Creating Layer fc4_sTanH
I0411 13:18:17.390863 30828 net.cpp:434] fc4_sTanH <- fc4_300
I0411 13:18:17.390869 30828 net.cpp:395] fc4_sTanH -> fc4_300 (in-place)
I0411 13:18:17.391062 30828 net.cpp:150] Setting up fc4_sTanH
I0411 13:18:17.391073 30828 net.cpp:157] Top shape: 1024 300 (307200)
I0411 13:18:17.391077 30828 net.cpp:165] Memory required for data: 4105486336
I0411 13:18:17.391080 30828 layer_factory.hpp:77] Creating layer fc4_postscale
I0411 13:18:17.391088 30828 net.cpp:100] Creating Layer fc4_postscale
I0411 13:18:17.391093 30828 net.cpp:434] fc4_postscale <- fc4_300
I0411 13:18:17.391100 30828 net.cpp:395] fc4_postscale -> fc4_300 (in-place)
I0411 13:18:17.391201 30828 net.cpp:150] Setting up fc4_postscale
I0411 13:18:17.391209 30828 net.cpp:157] Top shape: 1024 300 (307200)
I0411 13:18:17.391212 30828 net.cpp:165] Memory required for data: 4106715136
I0411 13:18:17.391216 30828 layer_factory.hpp:77] Creating layer drop4
I0411 13:18:17.391232 30828 net.cpp:100] Creating Layer drop4
I0411 13:18:17.391237 30828 net.cpp:434] drop4 <- fc4_300
I0411 13:18:17.391243 30828 net.cpp:395] drop4 -> fc4_300 (in-place)
I0411 13:18:17.391270 30828 net.cpp:150] Setting up drop4
I0411 13:18:17.391280 30828 net.cpp:157] Top shape: 1024 300 (307200)
I0411 13:18:17.391283 30828 net.cpp:165] Memory required for data: 4107943936
I0411 13:18:17.391286 30828 layer_factory.hpp:77] Creating layer fc5_67
I0411 13:18:17.391293 30828 net.cpp:100] Creating Layer fc5_67
I0411 13:18:17.391295 30828 net.cpp:434] fc5_67 <- fc4_300
I0411 13:18:17.391301 30828 net.cpp:408] fc5_67 -> fc5_classes
I0411 13:18:17.391551 30828 net.cpp:150] Setting up fc5_67
I0411 13:18:17.391559 30828 net.cpp:157] Top shape: 1024 67 (68608)
I0411 13:18:17.391561 30828 net.cpp:165] Memory required for data: 4108218368
I0411 13:18:17.391572 30828 layer_factory.hpp:77] Creating layer fc5_classes_fc5_67_0_split
I0411 13:18:17.391580 30828 net.cpp:100] Creating Layer fc5_classes_fc5_67_0_split
I0411 13:18:17.391584 30828 net.cpp:434] fc5_classes_fc5_67_0_split <- fc5_classes
I0411 13:18:17.391589 30828 net.cpp:408] fc5_classes_fc5_67_0_split -> fc5_classes_fc5_67_0_split_0
I0411 13:18:17.391597 30828 net.cpp:408] fc5_classes_fc5_67_0_split -> fc5_classes_fc5_67_0_split_1
I0411 13:18:17.391608 30828 net.cpp:408] fc5_classes_fc5_67_0_split -> fc5_classes_fc5_67_0_split_2
I0411 13:18:17.391661 30828 net.cpp:150] Setting up fc5_classes_fc5_67_0_split
I0411 13:18:17.391669 30828 net.cpp:157] Top shape: 1024 67 (68608)
I0411 13:18:17.391672 30828 net.cpp:157] Top shape: 1024 67 (68608)
I0411 13:18:17.391675 30828 net.cpp:157] Top shape: 1024 67 (68608)
I0411 13:18:17.391677 30828 net.cpp:165] Memory required for data: 4109041664
I0411 13:18:17.391680 30828 layer_factory.hpp:77] Creating layer loss
I0411 13:18:17.391686 30828 net.cpp:100] Creating Layer loss
I0411 13:18:17.391690 30828 net.cpp:434] loss <- fc5_classes_fc5_67_0_split_0
I0411 13:18:17.391693 30828 net.cpp:434] loss <- label_data_1_split_0
I0411 13:18:17.391698 30828 net.cpp:408] loss -> loss
…
