…
I0411 14:13:45.252383 13231 net.cpp:322] The NetState phase (0) differed from the phase (1) specified by a rule in layer accuracy_5
I0411 14:13:45.252550 13231 net.cpp:58] Initializing net from parameters: 
state {
  phase: TRAIN
  level: 0
  stage: ""
}
layer {
  name: "data"
  type: "Data"
  top: "data"
  top: "label"
  include {
    phase: TRAIN
  }
  transform_param {
    scale: 0.0039215689
    mirror: false
    crop_size: 48
    mean_value: 132
    mean_value: 132
    mean_value: 131
  }
  data_param {
    source: "../local_data/lmdb/rtsd-r1/CoNorm/train/lmdb"
    batch_size: 1024
    backend: LMDB
  }
}
layer {
  name: "conv1"
  type: "Convolution"
  bottom: "data"
  top: "conv1"
  convolution_param {
    num_output: 100
    pad: 0
    kernel_size: 7
    group: 1
    stride: 1
    weight_filler {
      type: "xavier"
    }
  }
}
layer {
  name: "conv1_prescale"
  type: "Scale"
  bottom: "conv1"
  top: "conv1"
  param {
    lr_mult: 0
    decay_mult: 0
  }
  scale_param {
    filler {
      value: 0.6666
    }
    bias_term: false
  }
}
layer {
  name: "conv1_sTanH"
  type: "TanH"
  bottom: "conv1"
  top: "conv1"
}
layer {
  name: "conv1_postscale"
  type: "Scale"
  bottom: "conv1"
  top: "conv1"
  param {
    lr_mult: 0
    decay_mult: 0
  }
  scale_param {
    filler {
      value: 1.7159
    }
    bias_term: false
  }
}
layer {
  name: "pool1"
  type: "Pooling"
  bottom: "conv1"
  top: "pool1"
  pooling_param {
    pool: MAX
    kernel_size: 2
    stride: 2
  }
}
layer {
  name: "conv2"
  type: "Convolution"
  bottom: "pool1"
  top: "conv2"
  convolution_param {
    num_output: 150
    pad: 0
    kernel_size: 4
    group: 1
    stride: 1
    weight_filler {
      type: "xavier"
    }
  }
}
layer {
  name: "conv2_prescale"
  type: "Scale"
  bottom: "conv2"
  top: "conv2"
  param {
    lr_mult: 0
    decay_mult: 0
  }
  scale_param {
    filler {
      value: 0.6666
    }
    bias_term: false
  }
}
layer {
  name: "conv2_sTanH"
  type: "TanH"
  bottom: "conv2"
  top: "conv2"
}
layer {
  name: "conv2_postscale"
  type: "Scale"
  bottom: "conv2"
  top: "conv2"
  param {
    lr_mult: 0
    decay_mult: 0
  }
  scale_param {
    filler {
      value: 1.7159
    }
    bias_term: false
  }
}
layer {
  name: "pool2"
  type: "Pooling"
  bottom: "conv2"
  top: "pool2"
  pooling_param {
    pool: MAX
    kernel_size: 2
    stride: 2
  }
}
layer {
  name: "conv3"
  type: "Convolution"
  bottom: "pool2"
  top: "conv3"
  convolution_param {
    num_output: 250
    pad: 0
    kernel_size: 4
    group: 1
    stride: 1
    weight_filler {
      type: "xavier"
    }
  }
}
layer {
  name: "conv3_prescale"
  type: "Scale"
  bottom: "conv3"
  top: "conv3"
  param {
    lr_mult: 0
    decay_mult: 0
  }
  scale_param {
    filler {
      value: 0.6666
    }
    bias_term: false
  }
}
layer {
  name: "conv3_sTanH"
  type: "TanH"
  bottom: "conv3"
  top: "conv3"
}
layer {
  name: "conv3_postscale"
  type: "Scale"
  bottom: "conv3"
  top: "conv3"
  param {
    lr_mult: 0
    decay_mult: 0
  }
  scale_param {
    filler {
      value: 1.7159
    }
    bias_term: false
  }
}
layer {
  name: "pool3"
  type: "Pooling"
  bottom: "conv3"
  top: "pool3"
  pooling_param {
    pool: MAX
    kernel_size: 2
    stride: 2
  }
}
layer {
  name: "fc4_300"
  type: "InnerProduct"
  bottom: "pool3"
  top: "fc4_300"
  inner_product_param {
    num_output: 300
    weight_filler {
      type: "xavier"
    }
  }
}
layer {
  name: "fc4_prescale"
  type: "Scale"
  bottom: "fc4_300"
  top: "fc4_300"
  param {
    lr_mult: 0
    decay_mult: 0
  }
  scale_param {
    filler {
      value: 0.6666
    }
    bias_term: false
  }
}
layer {
  name: "fc4_sTanH"
  type: "TanH"
  bottom: "fc4_300"
  top: "fc4_300"
}
layer {
  name: "fc4_postscale"
  type: "Scale"
  bottom: "fc4_300"
  top: "fc4_300"
  param {
    lr_mult: 0
    decay_mult: 0
  }
  scale_param {
    filler {
      value: 1.7159
    }
    bias_term: false
  }
}
layer {
  name: "drop4"
  type: "Dropout"
  bottom: "fc4_300"
  top: "fc4_300"
  dropout_param {
    dropout_ratio: 0.1
  }
}
layer {
  name: "fc5_67"
  type: "InnerProduct"
  bottom: "fc4_300"
  top: "fc5_classes"
  inner_product_param {
    num_output: 67
    weight_filler {
      type: "xavier"
    }
  }
}
layer {
  name: "loss"
  type: "SoftmaxWithLoss"
  bottom: "fc5_classes"
  bottom: "label"
  top: "loss"
}
I0411 14:13:45.252666 13231 layer_factory.hpp:77] Creating layer data
I0411 14:13:45.253818 13231 net.cpp:100] Creating Layer data
I0411 14:13:45.253834 13231 net.cpp:408] data -> data
I0411 14:13:45.253860 13231 net.cpp:408] data -> label
I0411 14:13:45.256017 13326 db_lmdb.cpp:35] Opened lmdb ../local_data/lmdb/rtsd-r1/CoNorm/train/lmdb
I0411 14:13:45.275257 13231 data_layer.cpp:41] output data size: 1024,3,48,48
I0411 14:13:45.323915 13231 net.cpp:150] Setting up data
I0411 14:13:45.323949 13231 net.cpp:157] Top shape: 1024 3 48 48 (7077888)
I0411 14:13:45.323956 13231 net.cpp:157] Top shape: 1024 (1024)
I0411 14:13:45.323958 13231 net.cpp:165] Memory required for data: 28315648
I0411 14:13:45.323967 13231 layer_factory.hpp:77] Creating layer conv1
I0411 14:13:45.323993 13231 net.cpp:100] Creating Layer conv1
I0411 14:13:45.324002 13231 net.cpp:434] conv1 <- data
I0411 14:13:45.324013 13231 net.cpp:408] conv1 -> conv1
I0411 14:13:45.617975 13231 net.cpp:150] Setting up conv1
I0411 14:13:45.618016 13231 net.cpp:157] Top shape: 1024 100 42 42 (180633600)
I0411 14:13:45.618021 13231 net.cpp:165] Memory required for data: 750850048
I0411 14:13:45.618042 13231 layer_factory.hpp:77] Creating layer conv1_prescale
I0411 14:13:45.618057 13231 net.cpp:100] Creating Layer conv1_prescale
I0411 14:13:45.618063 13231 net.cpp:434] conv1_prescale <- conv1
I0411 14:13:45.618069 13231 net.cpp:395] conv1_prescale -> conv1 (in-place)
I0411 14:13:45.618180 13231 net.cpp:150] Setting up conv1_prescale
I0411 14:13:45.618188 13231 net.cpp:157] Top shape: 1024 100 42 42 (180633600)
I0411 14:13:45.618191 13231 net.cpp:165] Memory required for data: 1473384448
I0411 14:13:45.618198 13231 layer_factory.hpp:77] Creating layer conv1_sTanH
I0411 14:13:45.618204 13231 net.cpp:100] Creating Layer conv1_sTanH
I0411 14:13:45.618207 13231 net.cpp:434] conv1_sTanH <- conv1
I0411 14:13:45.618211 13231 net.cpp:395] conv1_sTanH -> conv1 (in-place)
I0411 14:13:45.618408 13231 net.cpp:150] Setting up conv1_sTanH
I0411 14:13:45.618420 13231 net.cpp:157] Top shape: 1024 100 42 42 (180633600)
I0411 14:13:45.618423 13231 net.cpp:165] Memory required for data: 2195918848
I0411 14:13:45.618427 13231 layer_factory.hpp:77] Creating layer conv1_postscale
I0411 14:13:45.618434 13231 net.cpp:100] Creating Layer conv1_postscale
I0411 14:13:45.618438 13231 net.cpp:434] conv1_postscale <- conv1
I0411 14:13:45.618443 13231 net.cpp:395] conv1_postscale -> conv1 (in-place)
I0411 14:13:45.618536 13231 net.cpp:150] Setting up conv1_postscale
I0411 14:13:45.618544 13231 net.cpp:157] Top shape: 1024 100 42 42 (180633600)
I0411 14:13:45.618547 13231 net.cpp:165] Memory required for data: 2918453248
I0411 14:13:45.618552 13231 layer_factory.hpp:77] Creating layer pool1
I0411 14:13:45.618558 13231 net.cpp:100] Creating Layer pool1
I0411 14:13:45.618563 13231 net.cpp:434] pool1 <- conv1
I0411 14:13:45.618567 13231 net.cpp:408] pool1 -> pool1
I0411 14:13:45.618635 13231 net.cpp:150] Setting up pool1
I0411 14:13:45.618645 13231 net.cpp:157] Top shape: 1024 100 21 21 (45158400)
I0411 14:13:45.618649 13231 net.cpp:165] Memory required for data: 3099086848
I0411 14:13:45.618651 13231 layer_factory.hpp:77] Creating layer conv2
I0411 14:13:45.618660 13231 net.cpp:100] Creating Layer conv2
I0411 14:13:45.618665 13231 net.cpp:434] conv2 <- pool1
I0411 14:13:45.618670 13231 net.cpp:408] conv2 -> conv2
I0411 14:13:45.626241 13231 net.cpp:150] Setting up conv2
I0411 14:13:45.626260 13231 net.cpp:157] Top shape: 1024 150 18 18 (49766400)
I0411 14:13:45.626263 13231 net.cpp:165] Memory required for data: 3298152448
I0411 14:13:45.626286 13231 layer_factory.hpp:77] Creating layer conv2_prescale
I0411 14:13:45.626296 13231 net.cpp:100] Creating Layer conv2_prescale
I0411 14:13:45.626299 13231 net.cpp:434] conv2_prescale <- conv2
I0411 14:13:45.626304 13231 net.cpp:395] conv2_prescale -> conv2 (in-place)
I0411 14:13:45.626417 13231 net.cpp:150] Setting up conv2_prescale
I0411 14:13:45.626426 13231 net.cpp:157] Top shape: 1024 150 18 18 (49766400)
I0411 14:13:45.626430 13231 net.cpp:165] Memory required for data: 3497218048
I0411 14:13:45.626433 13231 layer_factory.hpp:77] Creating layer conv2_sTanH
I0411 14:13:45.626441 13231 net.cpp:100] Creating Layer conv2_sTanH
I0411 14:13:45.626444 13231 net.cpp:434] conv2_sTanH <- conv2
I0411 14:13:45.626449 13231 net.cpp:395] conv2_sTanH -> conv2 (in-place)
I0411 14:13:45.627671 13231 net.cpp:150] Setting up conv2_sTanH
I0411 14:13:45.627686 13231 net.cpp:157] Top shape: 1024 150 18 18 (49766400)
I0411 14:13:45.627691 13231 net.cpp:165] Memory required for data: 3696283648
I0411 14:13:45.627693 13231 layer_factory.hpp:77] Creating layer conv2_postscale
I0411 14:13:45.627701 13231 net.cpp:100] Creating Layer conv2_postscale
I0411 14:13:45.627704 13231 net.cpp:434] conv2_postscale <- conv2
I0411 14:13:45.627710 13231 net.cpp:395] conv2_postscale -> conv2 (in-place)
I0411 14:13:45.627805 13231 net.cpp:150] Setting up conv2_postscale
I0411 14:13:45.627815 13231 net.cpp:157] Top shape: 1024 150 18 18 (49766400)
I0411 14:13:45.627817 13231 net.cpp:165] Memory required for data: 3895349248
I0411 14:13:45.627822 13231 layer_factory.hpp:77] Creating layer pool2
I0411 14:13:45.627828 13231 net.cpp:100] Creating Layer pool2
I0411 14:13:45.627831 13231 net.cpp:434] pool2 <- conv2
I0411 14:13:45.627835 13231 net.cpp:408] pool2 -> pool2
I0411 14:13:45.627874 13231 net.cpp:150] Setting up pool2
I0411 14:13:45.627893 13231 net.cpp:157] Top shape: 1024 150 9 9 (12441600)
I0411 14:13:45.627897 13231 net.cpp:165] Memory required for data: 3945115648
I0411 14:13:45.627900 13231 layer_factory.hpp:77] Creating layer conv3
I0411 14:13:45.627908 13231 net.cpp:100] Creating Layer conv3
I0411 14:13:45.627913 13231 net.cpp:434] conv3 <- pool2
I0411 14:13:45.627918 13231 net.cpp:408] conv3 -> conv3
I0411 14:13:45.633838 13231 net.cpp:150] Setting up conv3
I0411 14:13:45.633867 13231 net.cpp:157] Top shape: 1024 250 6 6 (9216000)
I0411 14:13:45.633870 13231 net.cpp:165] Memory required for data: 3981979648
I0411 14:13:45.633882 13231 layer_factory.hpp:77] Creating layer conv3_prescale
I0411 14:13:45.633889 13231 net.cpp:100] Creating Layer conv3_prescale
I0411 14:13:45.633893 13231 net.cpp:434] conv3_prescale <- conv3
I0411 14:13:45.633898 13231 net.cpp:395] conv3_prescale -> conv3 (in-place)
I0411 14:13:45.633992 13231 net.cpp:150] Setting up conv3_prescale
I0411 14:13:45.634001 13231 net.cpp:157] Top shape: 1024 250 6 6 (9216000)
I0411 14:13:45.634004 13231 net.cpp:165] Memory required for data: 4018843648
I0411 14:13:45.634008 13231 layer_factory.hpp:77] Creating layer conv3_sTanH
I0411 14:13:45.634013 13231 net.cpp:100] Creating Layer conv3_sTanH
I0411 14:13:45.634016 13231 net.cpp:434] conv3_sTanH <- conv3
I0411 14:13:45.634021 13231 net.cpp:395] conv3_sTanH -> conv3 (in-place)
I0411 14:13:45.634941 13231 net.cpp:150] Setting up conv3_sTanH
I0411 14:13:45.634956 13231 net.cpp:157] Top shape: 1024 250 6 6 (9216000)
I0411 14:13:45.634973 13231 net.cpp:165] Memory required for data: 4055707648
I0411 14:13:45.634991 13231 layer_factory.hpp:77] Creating layer conv3_postscale
I0411 14:13:45.634999 13231 net.cpp:100] Creating Layer conv3_postscale
I0411 14:13:45.635004 13231 net.cpp:434] conv3_postscale <- conv3
I0411 14:13:45.635009 13231 net.cpp:395] conv3_postscale -> conv3 (in-place)
I0411 14:13:45.635104 13231 net.cpp:150] Setting up conv3_postscale
I0411 14:13:45.635113 13231 net.cpp:157] Top shape: 1024 250 6 6 (9216000)
I0411 14:13:45.635116 13231 net.cpp:165] Memory required for data: 4092571648
I0411 14:13:45.635121 13231 layer_factory.hpp:77] Creating layer pool3
I0411 14:13:45.635128 13231 net.cpp:100] Creating Layer pool3
I0411 14:13:45.635130 13231 net.cpp:434] pool3 <- conv3
I0411 14:13:45.635134 13231 net.cpp:408] pool3 -> pool3
I0411 14:13:45.635170 13231 net.cpp:150] Setting up pool3
I0411 14:13:45.635179 13231 net.cpp:157] Top shape: 1024 250 3 3 (2304000)
I0411 14:13:45.635180 13231 net.cpp:165] Memory required for data: 4101787648
I0411 14:13:45.635184 13231 layer_factory.hpp:77] Creating layer fc4_300
I0411 14:13:45.635191 13231 net.cpp:100] Creating Layer fc4_300
I0411 14:13:45.635196 13231 net.cpp:434] fc4_300 <- pool3
I0411 14:13:45.635201 13231 net.cpp:408] fc4_300 -> fc4_300
I0411 14:13:45.644250 13231 net.cpp:150] Setting up fc4_300
I0411 14:13:45.644266 13231 net.cpp:157] Top shape: 1024 300 (307200)
I0411 14:13:45.644269 13231 net.cpp:165] Memory required for data: 4103016448
I0411 14:13:45.644275 13231 layer_factory.hpp:77] Creating layer fc4_prescale
I0411 14:13:45.644282 13231 net.cpp:100] Creating Layer fc4_prescale
I0411 14:13:45.644286 13231 net.cpp:434] fc4_prescale <- fc4_300
I0411 14:13:45.644291 13231 net.cpp:395] fc4_prescale -> fc4_300 (in-place)
I0411 14:13:45.644373 13231 net.cpp:150] Setting up fc4_prescale
I0411 14:13:45.644381 13231 net.cpp:157] Top shape: 1024 300 (307200)
I0411 14:13:45.644383 13231 net.cpp:165] Memory required for data: 4104245248
I0411 14:13:45.644388 13231 layer_factory.hpp:77] Creating layer fc4_sTanH
I0411 14:13:45.644392 13231 net.cpp:100] Creating Layer fc4_sTanH
I0411 14:13:45.644395 13231 net.cpp:434] fc4_sTanH <- fc4_300
I0411 14:13:45.644399 13231 net.cpp:395] fc4_sTanH -> fc4_300 (in-place)
I0411 14:13:45.644572 13231 net.cpp:150] Setting up fc4_sTanH
I0411 14:13:45.644582 13231 net.cpp:157] Top shape: 1024 300 (307200)
I0411 14:13:45.644585 13231 net.cpp:165] Memory required for data: 4105474048
I0411 14:13:45.644588 13231 layer_factory.hpp:77] Creating layer fc4_postscale
I0411 14:13:45.644595 13231 net.cpp:100] Creating Layer fc4_postscale
I0411 14:13:45.644598 13231 net.cpp:434] fc4_postscale <- fc4_300
I0411 14:13:45.644603 13231 net.cpp:395] fc4_postscale -> fc4_300 (in-place)
I0411 14:13:45.644690 13231 net.cpp:150] Setting up fc4_postscale
I0411 14:13:45.644696 13231 net.cpp:157] Top shape: 1024 300 (307200)
I0411 14:13:45.644700 13231 net.cpp:165] Memory required for data: 4106702848
I0411 14:13:45.644703 13231 layer_factory.hpp:77] Creating layer drop4
I0411 14:13:45.644711 13231 net.cpp:100] Creating Layer drop4
I0411 14:13:45.644712 13231 net.cpp:434] drop4 <- fc4_300
I0411 14:13:45.644716 13231 net.cpp:395] drop4 -> fc4_300 (in-place)
I0411 14:13:45.644742 13231 net.cpp:150] Setting up drop4
I0411 14:13:45.644748 13231 net.cpp:157] Top shape: 1024 300 (307200)
I0411 14:13:45.644750 13231 net.cpp:165] Memory required for data: 4107931648
I0411 14:13:45.644753 13231 layer_factory.hpp:77] Creating layer fc5_67
I0411 14:13:45.644759 13231 net.cpp:100] Creating Layer fc5_67
I0411 14:13:45.644763 13231 net.cpp:434] fc5_67 <- fc4_300
I0411 14:13:45.644767 13231 net.cpp:408] fc5_67 -> fc5_classes
I0411 14:13:45.646028 13231 net.cpp:150] Setting up fc5_67
I0411 14:13:45.646042 13231 net.cpp:157] Top shape: 1024 67 (68608)
I0411 14:13:45.646045 13231 net.cpp:165] Memory required for data: 4108206080
I0411 14:13:45.646055 13231 layer_factory.hpp:77] Creating layer loss
I0411 14:13:45.646061 13231 net.cpp:100] Creating Layer loss
I0411 14:13:45.646064 13231 net.cpp:434] loss <- fc5_classes
I0411 14:13:45.646081 13231 net.cpp:434] loss <- label
I0411 14:13:45.646087 13231 net.cpp:408] loss -> loss
I0411 14:13:45.646111 13231 layer_factory.hpp:77] Creating layer loss
…
I0411 14:13:45.646848 13231 solver.cpp:193] Creating test net (#0) specified by test_net file: ./Prototxt/experiment_9/rtsd-r1/CoNorm/trial_1/test.prototxt
I0411 14:13:45.647055 13231 net.cpp:58] Initializing net from parameters: 
state {
  phase: TEST
}
layer {
  name: "data"
  type: "Data"
  top: "data"
  top: "label"
  include {
    phase: TEST
  }
  transform_param {
    scale: 0.0039215689
    mirror: false
    crop_size: 48
    mean_value: 133
    mean_value: 133
    mean_value: 132
  }
  data_param {
    source: "../local_data/lmdb/rtsd-r1/CoNorm/test/lmdb"
    batch_size: 1024
    backend: LMDB
  }
}
layer {
  name: "conv1"
  type: "Convolution"
  bottom: "data"
  top: "conv1"
  convolution_param {
    num_output: 100
    pad: 0
    kernel_size: 7
    group: 1
    stride: 1
    weight_filler {
      type: "xavier"
    }
  }
}
layer {
  name: "conv1_prescale"
  type: "Scale"
  bottom: "conv1"
  top: "conv1"
  param {
    lr_mult: 0
    decay_mult: 0
  }
  scale_param {
    filler {
      value: 0.6666
    }
    bias_term: false
  }
}
layer {
  name: "conv1_sTanH"
  type: "TanH"
  bottom: "conv1"
  top: "conv1"
}
layer {
  name: "conv1_postscale"
  type: "Scale"
  bottom: "conv1"
  top: "conv1"
  param {
    lr_mult: 0
    decay_mult: 0
  }
  scale_param {
    filler {
      value: 1.7159
    }
    bias_term: false
  }
}
layer {
  name: "pool1"
  type: "Pooling"
  bottom: "conv1"
  top: "pool1"
  pooling_param {
    pool: MAX
    kernel_size: 2
    stride: 2
  }
}
layer {
  name: "conv2"
  type: "Convolution"
  bottom: "pool1"
  top: "conv2"
  convolution_param {
    num_output: 150
    pad: 0
    kernel_size: 4
    group: 1
    stride: 1
    weight_filler {
      type: "xavier"
    }
  }
}
layer {
  name: "conv2_prescale"
  type: "Scale"
  bottom: "conv2"
  top: "conv2"
  param {
    lr_mult: 0
    decay_mult: 0
  }
  scale_param {
    filler {
      value: 0.6666
    }
    bias_term: false
  }
}
layer {
  name: "conv2_sTanH"
  type: "TanH"
  bottom: "conv2"
  top: "conv2"
}
layer {
  name: "conv2_postscale"
  type: "Scale"
  bottom: "conv2"
  top: "conv2"
  param {
    lr_mult: 0
    decay_mult: 0
  }
  scale_param {
    filler {
      value: 1.7159
    }
    bias_term: false
  }
}
layer {
  name: "pool2"
  type: "Pooling"
  bottom: "conv2"
  top: "pool2"
  pooling_param {
    pool: MAX
    kernel_size: 2
    stride: 2
  }
}
layer {
  name: "conv3"
  type: "Convolution"
  bottom: "pool2"
  top: "conv3"
  convolution_param {
    num_output: 250
    pad: 0
    kernel_size: 4
    group: 1
    stride: 1
    weight_filler {
      type: "xavier"
    }
  }
}
layer {
  name: "conv3_prescale"
  type: "Scale"
  bottom: "conv3"
  top: "conv3"
  param {
    lr_mult: 0
    decay_mult: 0
  }
  scale_param {
    filler {
      value: 0.6666
    }
    bias_term: false
  }
}
layer {
  name: "conv3_sTanH"
  type: "TanH"
  bottom: "conv3"
  top: "conv3"
}
layer {
  name: "conv3_postscale"
  type: "Scale"
  bottom: "conv3"
  top: "conv3"
  param {
    lr_mult: 0
    decay_mult: 0
  }
  scale_param {
    filler {
      value: 1.7159
    }
    bias_term: false
  }
}
layer {
  name: "pool3"
  type: "Pooling"
  bottom: "conv3"
  top: "pool3"
  pooling_param {
    pool: MAX
    kernel_size: 2
    stride: 2
  }
}
layer {
  name: "fc4_300"
  type: "InnerProduct"
  bottom: "pool3"
  top: "fc4_300"
  inner_product_param {
    num_output: 300
    weight_filler {
      type: "xavier"
    }
  }
}
layer {
  name: "fc4_prescale"
  type: "Scale"
  bottom: "fc4_300"
  top: "fc4_300"
  param {
    lr_mult: 0
    decay_mult: 0
  }
  scale_param {
    filler {
      value: 0.6666
    }
    bias_term: false
  }
}
layer {
  name: "fc4_sTanH"
  type: "TanH"
  bottom: "fc4_300"
  top: "fc4_300"
}
layer {
  name: "fc4_postscale"
  type: "Scale"
  bottom: "fc4_300"
  top: "fc4_300"
  param {
    lr_mult: 0
    decay_mult: 0
  }
  scale_param {
    filler {
      value: 1.7159
    }
    bias_term: false
  }
}
layer {
  name: "drop4"
  type: "Dropout"
  bottom: "fc4_300"
  top: "fc4_300"
  dropout_param {
    dropout_ratio: 0.1
  }
}
layer {
  name: "fc5_67"
  type: "InnerProduct"
  bottom: "fc4_300"
  top: "fc5_classes"
  inner_product_param {
    num_output: 67
    weight_filler {
      type: "xavier"
    }
  }
}
layer {
  name: "loss"
  type: "SoftmaxWithLoss"
  bottom: "fc5_classes"
  bottom: "label"
  top: "loss"
}
layer {
  name: "accuracy_1"
  type: "Accuracy"
  bottom: "fc5_classes"
  bottom: "label"
  top: "accuracy_1"
  include {
    phase: TEST
  }
  accuracy_param {
    top_k: 1
  }
}
layer {
  name: "accuracy_5"
  type: "Accuracy"
  bottom: "fc5_classes"
  bottom: "label"
  top: "accuracy_5"
  include {
    phase: TEST
  }
  accuracy_param {
    top_k: 5
  }
}
I0411 14:13:45.647177 13231 layer_factory.hpp:77] Creating layer data
I0411 14:13:45.647716 13231 net.cpp:100] Creating Layer data
I0411 14:13:45.647727 13231 net.cpp:408] data -> data
I0411 14:13:45.647753 13231 net.cpp:408] data -> label
I0411 14:13:45.648977 13356 db_lmdb.cpp:35] Opened lmdb ../local_data/lmdb/rtsd-r1/CoNorm/test/lmdb
I0411 14:13:45.649116 13231 data_layer.cpp:41] output data size: 1024,3,48,48
I0411 14:13:45.692234 13231 net.cpp:150] Setting up data
I0411 14:13:45.692260 13231 net.cpp:157] Top shape: 1024 3 48 48 (7077888)
I0411 14:13:45.692265 13231 net.cpp:157] Top shape: 1024 (1024)
I0411 14:13:45.692267 13231 net.cpp:165] Memory required for data: 28315648
I0411 14:13:45.692275 13231 layer_factory.hpp:77] Creating layer label_data_1_split
I0411 14:13:45.692288 13231 net.cpp:100] Creating Layer label_data_1_split
I0411 14:13:45.692292 13231 net.cpp:434] label_data_1_split <- label
I0411 14:13:45.692301 13231 net.cpp:408] label_data_1_split -> label_data_1_split_0
I0411 14:13:45.692312 13231 net.cpp:408] label_data_1_split -> label_data_1_split_1
I0411 14:13:45.692337 13231 net.cpp:408] label_data_1_split -> label_data_1_split_2
I0411 14:13:45.692423 13231 net.cpp:150] Setting up label_data_1_split
I0411 14:13:45.692432 13231 net.cpp:157] Top shape: 1024 (1024)
I0411 14:13:45.692436 13231 net.cpp:157] Top shape: 1024 (1024)
I0411 14:13:45.692440 13231 net.cpp:157] Top shape: 1024 (1024)
I0411 14:13:45.692442 13231 net.cpp:165] Memory required for data: 28327936
I0411 14:13:45.692445 13231 layer_factory.hpp:77] Creating layer conv1
I0411 14:13:45.692459 13231 net.cpp:100] Creating Layer conv1
I0411 14:13:45.692464 13231 net.cpp:434] conv1 <- data
I0411 14:13:45.692469 13231 net.cpp:408] conv1 -> conv1
I0411 14:13:45.694885 13231 net.cpp:150] Setting up conv1
I0411 14:13:45.694901 13231 net.cpp:157] Top shape: 1024 100 42 42 (180633600)
I0411 14:13:45.694905 13231 net.cpp:165] Memory required for data: 750862336
I0411 14:13:45.694916 13231 layer_factory.hpp:77] Creating layer conv1_prescale
I0411 14:13:45.694926 13231 net.cpp:100] Creating Layer conv1_prescale
I0411 14:13:45.694928 13231 net.cpp:434] conv1_prescale <- conv1
I0411 14:13:45.694934 13231 net.cpp:395] conv1_prescale -> conv1 (in-place)
I0411 14:13:45.695036 13231 net.cpp:150] Setting up conv1_prescale
I0411 14:13:45.695045 13231 net.cpp:157] Top shape: 1024 100 42 42 (180633600)
I0411 14:13:45.695049 13231 net.cpp:165] Memory required for data: 1473396736
I0411 14:13:45.695055 13231 layer_factory.hpp:77] Creating layer conv1_sTanH
I0411 14:13:45.695061 13231 net.cpp:100] Creating Layer conv1_sTanH
I0411 14:13:45.695065 13231 net.cpp:434] conv1_sTanH <- conv1
I0411 14:13:45.695070 13231 net.cpp:395] conv1_sTanH -> conv1 (in-place)
I0411 14:13:45.695252 13231 net.cpp:150] Setting up conv1_sTanH
I0411 14:13:45.695263 13231 net.cpp:157] Top shape: 1024 100 42 42 (180633600)
I0411 14:13:45.695266 13231 net.cpp:165] Memory required for data: 2195931136
I0411 14:13:45.695269 13231 layer_factory.hpp:77] Creating layer conv1_postscale
I0411 14:13:45.695276 13231 net.cpp:100] Creating Layer conv1_postscale
I0411 14:13:45.695279 13231 net.cpp:434] conv1_postscale <- conv1
I0411 14:13:45.695286 13231 net.cpp:395] conv1_postscale -> conv1 (in-place)
I0411 14:13:45.695385 13231 net.cpp:150] Setting up conv1_postscale
I0411 14:13:45.695394 13231 net.cpp:157] Top shape: 1024 100 42 42 (180633600)
I0411 14:13:45.695397 13231 net.cpp:165] Memory required for data: 2918465536
I0411 14:13:45.695401 13231 layer_factory.hpp:77] Creating layer pool1
I0411 14:13:45.695408 13231 net.cpp:100] Creating Layer pool1
I0411 14:13:45.695412 13231 net.cpp:434] pool1 <- conv1
I0411 14:13:45.695417 13231 net.cpp:408] pool1 -> pool1
I0411 14:13:45.695456 13231 net.cpp:150] Setting up pool1
I0411 14:13:45.695464 13231 net.cpp:157] Top shape: 1024 100 21 21 (45158400)
I0411 14:13:45.695467 13231 net.cpp:165] Memory required for data: 3099099136
I0411 14:13:45.695471 13231 layer_factory.hpp:77] Creating layer conv2
I0411 14:13:45.695478 13231 net.cpp:100] Creating Layer conv2
I0411 14:13:45.695482 13231 net.cpp:434] conv2 <- pool1
I0411 14:13:45.695488 13231 net.cpp:408] conv2 -> conv2
I0411 14:13:45.700654 13231 net.cpp:150] Setting up conv2
I0411 14:13:45.700680 13231 net.cpp:157] Top shape: 1024 150 18 18 (49766400)
I0411 14:13:45.700685 13231 net.cpp:165] Memory required for data: 3298164736
I0411 14:13:45.700695 13231 layer_factory.hpp:77] Creating layer conv2_prescale
I0411 14:13:45.700706 13231 net.cpp:100] Creating Layer conv2_prescale
I0411 14:13:45.700709 13231 net.cpp:434] conv2_prescale <- conv2
I0411 14:13:45.700716 13231 net.cpp:395] conv2_prescale -> conv2 (in-place)
I0411 14:13:45.700829 13231 net.cpp:150] Setting up conv2_prescale
I0411 14:13:45.700839 13231 net.cpp:157] Top shape: 1024 150 18 18 (49766400)
I0411 14:13:45.700842 13231 net.cpp:165] Memory required for data: 3497230336
I0411 14:13:45.700847 13231 layer_factory.hpp:77] Creating layer conv2_sTanH
I0411 14:13:45.700852 13231 net.cpp:100] Creating Layer conv2_sTanH
I0411 14:13:45.700855 13231 net.cpp:434] conv2_sTanH <- conv2
I0411 14:13:45.700860 13231 net.cpp:395] conv2_sTanH -> conv2 (in-place)
I0411 14:13:45.701783 13231 net.cpp:150] Setting up conv2_sTanH
I0411 14:13:45.701798 13231 net.cpp:157] Top shape: 1024 150 18 18 (49766400)
I0411 14:13:45.701802 13231 net.cpp:165] Memory required for data: 3696295936
I0411 14:13:45.701805 13231 layer_factory.hpp:77] Creating layer conv2_postscale
I0411 14:13:45.701813 13231 net.cpp:100] Creating Layer conv2_postscale
I0411 14:13:45.701817 13231 net.cpp:434] conv2_postscale <- conv2
I0411 14:13:45.701822 13231 net.cpp:395] conv2_postscale -> conv2 (in-place)
I0411 14:13:45.701925 13231 net.cpp:150] Setting up conv2_postscale
I0411 14:13:45.701934 13231 net.cpp:157] Top shape: 1024 150 18 18 (49766400)
I0411 14:13:45.701937 13231 net.cpp:165] Memory required for data: 3895361536
I0411 14:13:45.701942 13231 layer_factory.hpp:77] Creating layer pool2
I0411 14:13:45.701948 13231 net.cpp:100] Creating Layer pool2
I0411 14:13:45.701951 13231 net.cpp:434] pool2 <- conv2
I0411 14:13:45.701956 13231 net.cpp:408] pool2 -> pool2
I0411 14:13:45.702000 13231 net.cpp:150] Setting up pool2
I0411 14:13:45.702008 13231 net.cpp:157] Top shape: 1024 150 9 9 (12441600)
I0411 14:13:45.702011 13231 net.cpp:165] Memory required for data: 3945127936
I0411 14:13:45.702014 13231 layer_factory.hpp:77] Creating layer conv3
I0411 14:13:45.702023 13231 net.cpp:100] Creating Layer conv3
I0411 14:13:45.702028 13231 net.cpp:434] conv3 <- pool2
I0411 14:13:45.702033 13231 net.cpp:408] conv3 -> conv3
I0411 14:13:45.707965 13231 net.cpp:150] Setting up conv3
I0411 14:13:45.707983 13231 net.cpp:157] Top shape: 1024 250 6 6 (9216000)
I0411 14:13:45.707986 13231 net.cpp:165] Memory required for data: 3981991936
I0411 14:13:45.707996 13231 layer_factory.hpp:77] Creating layer conv3_prescale
I0411 14:13:45.708004 13231 net.cpp:100] Creating Layer conv3_prescale
I0411 14:13:45.708011 13231 net.cpp:434] conv3_prescale <- conv3
I0411 14:13:45.708017 13231 net.cpp:395] conv3_prescale -> conv3 (in-place)
I0411 14:13:45.708111 13231 net.cpp:150] Setting up conv3_prescale
I0411 14:13:45.708119 13231 net.cpp:157] Top shape: 1024 250 6 6 (9216000)
I0411 14:13:45.708122 13231 net.cpp:165] Memory required for data: 4018855936
I0411 14:13:45.708127 13231 layer_factory.hpp:77] Creating layer conv3_sTanH
I0411 14:13:45.708132 13231 net.cpp:100] Creating Layer conv3_sTanH
I0411 14:13:45.708135 13231 net.cpp:434] conv3_sTanH <- conv3
I0411 14:13:45.708140 13231 net.cpp:395] conv3_sTanH -> conv3 (in-place)
I0411 14:13:45.708910 13231 net.cpp:150] Setting up conv3_sTanH
I0411 14:13:45.708926 13231 net.cpp:157] Top shape: 1024 250 6 6 (9216000)
I0411 14:13:45.708930 13231 net.cpp:165] Memory required for data: 4055719936
I0411 14:13:45.708933 13231 layer_factory.hpp:77] Creating layer conv3_postscale
I0411 14:13:45.708940 13231 net.cpp:100] Creating Layer conv3_postscale
I0411 14:13:45.708943 13231 net.cpp:434] conv3_postscale <- conv3
I0411 14:13:45.708950 13231 net.cpp:395] conv3_postscale -> conv3 (in-place)
I0411 14:13:45.709048 13231 net.cpp:150] Setting up conv3_postscale
I0411 14:13:45.709056 13231 net.cpp:157] Top shape: 1024 250 6 6 (9216000)
I0411 14:13:45.709060 13231 net.cpp:165] Memory required for data: 4092583936
I0411 14:13:45.709065 13231 layer_factory.hpp:77] Creating layer pool3
I0411 14:13:45.709074 13231 net.cpp:100] Creating Layer pool3
I0411 14:13:45.709079 13231 net.cpp:434] pool3 <- conv3
I0411 14:13:45.709084 13231 net.cpp:408] pool3 -> pool3
I0411 14:13:45.709122 13231 net.cpp:150] Setting up pool3
I0411 14:13:45.709130 13231 net.cpp:157] Top shape: 1024 250 3 3 (2304000)
I0411 14:13:45.709132 13231 net.cpp:165] Memory required for data: 4101799936
I0411 14:13:45.709136 13231 layer_factory.hpp:77] Creating layer fc4_300
I0411 14:13:45.709142 13231 net.cpp:100] Creating Layer fc4_300
I0411 14:13:45.709146 13231 net.cpp:434] fc4_300 <- pool3
I0411 14:13:45.709151 13231 net.cpp:408] fc4_300 -> fc4_300
I0411 14:13:45.714535 13231 net.cpp:150] Setting up fc4_300
I0411 14:13:45.714551 13231 net.cpp:157] Top shape: 1024 300 (307200)
I0411 14:13:45.714567 13231 net.cpp:165] Memory required for data: 4103028736
I0411 14:13:45.714589 13231 layer_factory.hpp:77] Creating layer fc4_prescale
I0411 14:13:45.714597 13231 net.cpp:100] Creating Layer fc4_prescale
I0411 14:13:45.714601 13231 net.cpp:434] fc4_prescale <- fc4_300
I0411 14:13:45.714607 13231 net.cpp:395] fc4_prescale -> fc4_300 (in-place)
I0411 14:13:45.714704 13231 net.cpp:150] Setting up fc4_prescale
I0411 14:13:45.714711 13231 net.cpp:157] Top shape: 1024 300 (307200)
I0411 14:13:45.714715 13231 net.cpp:165] Memory required for data: 4104257536
I0411 14:13:45.714720 13231 layer_factory.hpp:77] Creating layer fc4_sTanH
I0411 14:13:45.714723 13231 net.cpp:100] Creating Layer fc4_sTanH
I0411 14:13:45.714727 13231 net.cpp:434] fc4_sTanH <- fc4_300
I0411 14:13:45.714732 13231 net.cpp:395] fc4_sTanH -> fc4_300 (in-place)
I0411 14:13:45.714921 13231 net.cpp:150] Setting up fc4_sTanH
I0411 14:13:45.714932 13231 net.cpp:157] Top shape: 1024 300 (307200)
I0411 14:13:45.714936 13231 net.cpp:165] Memory required for data: 4105486336
I0411 14:13:45.714938 13231 layer_factory.hpp:77] Creating layer fc4_postscale
I0411 14:13:45.714946 13231 net.cpp:100] Creating Layer fc4_postscale
I0411 14:13:45.714949 13231 net.cpp:434] fc4_postscale <- fc4_300
I0411 14:13:45.714954 13231 net.cpp:395] fc4_postscale -> fc4_300 (in-place)
I0411 14:13:45.715049 13231 net.cpp:150] Setting up fc4_postscale
I0411 14:13:45.715057 13231 net.cpp:157] Top shape: 1024 300 (307200)
I0411 14:13:45.715060 13231 net.cpp:165] Memory required for data: 4106715136
I0411 14:13:45.715065 13231 layer_factory.hpp:77] Creating layer drop4
I0411 14:13:45.715072 13231 net.cpp:100] Creating Layer drop4
I0411 14:13:45.715077 13231 net.cpp:434] drop4 <- fc4_300
I0411 14:13:45.715081 13231 net.cpp:395] drop4 -> fc4_300 (in-place)
I0411 14:13:45.715106 13231 net.cpp:150] Setting up drop4
I0411 14:13:45.715112 13231 net.cpp:157] Top shape: 1024 300 (307200)
I0411 14:13:45.715116 13231 net.cpp:165] Memory required for data: 4107943936
I0411 14:13:45.715117 13231 layer_factory.hpp:77] Creating layer fc5_67
I0411 14:13:45.715123 13231 net.cpp:100] Creating Layer fc5_67
I0411 14:13:45.715128 13231 net.cpp:434] fc5_67 <- fc4_300
I0411 14:13:45.715133 13231 net.cpp:408] fc5_67 -> fc5_classes
I0411 14:13:45.715379 13231 net.cpp:150] Setting up fc5_67
I0411 14:13:45.715391 13231 net.cpp:157] Top shape: 1024 67 (68608)
I0411 14:13:45.715396 13231 net.cpp:165] Memory required for data: 4108218368
I0411 14:13:45.715406 13231 layer_factory.hpp:77] Creating layer fc5_classes_fc5_67_0_split
I0411 14:13:45.715417 13231 net.cpp:100] Creating Layer fc5_classes_fc5_67_0_split
I0411 14:13:45.715422 13231 net.cpp:434] fc5_classes_fc5_67_0_split <- fc5_classes
I0411 14:13:45.715427 13231 net.cpp:408] fc5_classes_fc5_67_0_split -> fc5_classes_fc5_67_0_split_0
I0411 14:13:45.715435 13231 net.cpp:408] fc5_classes_fc5_67_0_split -> fc5_classes_fc5_67_0_split_1
I0411 14:13:45.715441 13231 net.cpp:408] fc5_classes_fc5_67_0_split -> fc5_classes_fc5_67_0_split_2
I0411 14:13:45.715495 13231 net.cpp:150] Setting up fc5_classes_fc5_67_0_split
I0411 14:13:45.715503 13231 net.cpp:157] Top shape: 1024 67 (68608)
I0411 14:13:45.715507 13231 net.cpp:157] Top shape: 1024 67 (68608)
I0411 14:13:45.715510 13231 net.cpp:157] Top shape: 1024 67 (68608)
I0411 14:13:45.715513 13231 net.cpp:165] Memory required for data: 4109041664
I0411 14:13:45.715515 13231 layer_factory.hpp:77] Creating layer loss
I0411 14:13:45.715522 13231 net.cpp:100] Creating Layer loss
I0411 14:13:45.715524 13231 net.cpp:434] loss <- fc5_classes_fc5_67_0_split_0
I0411 14:13:45.715529 13231 net.cpp:434] loss <- label_data_1_split_0
I0411 14:13:45.715533 13231 net.cpp:408] loss -> loss
…
