…
I0411 13:43:03.137688  3145 net.cpp:322] The NetState phase (0) differed from the phase (1) specified by a rule in layer accuracy_5
I0411 13:43:03.137845  3145 net.cpp:58] Initializing net from parameters: 
state {
  phase: TRAIN
  level: 0
  stage: ""
}
layer {
  name: "data"
  type: "Data"
  top: "data"
  top: "label"
  include {
    phase: TRAIN
  }
  transform_param {
    scale: 0.0039215689
    mirror: false
    crop_size: 48
    mean_value: 132
    mean_value: 132
    mean_value: 131
  }
  data_param {
    source: "../local_data/lmdb/rtsd-r1/CoNorm/train/lmdb"
    batch_size: 1024
    backend: LMDB
  }
}
layer {
  name: "conv1"
  type: "Convolution"
  bottom: "data"
  top: "conv1"
  convolution_param {
    num_output: 100
    pad: 0
    kernel_size: 7
    group: 1
    stride: 1
    weight_filler {
      type: "xavier"
    }
  }
}
layer {
  name: "conv1_prescale"
  type: "Scale"
  bottom: "conv1"
  top: "conv1"
  param {
    lr_mult: 0
    decay_mult: 0
  }
  scale_param {
    filler {
      value: 0.6666
    }
    bias_term: false
  }
}
layer {
  name: "conv1_sTanH"
  type: "TanH"
  bottom: "conv1"
  top: "conv1"
}
layer {
  name: "conv1_postscale"
  type: "Scale"
  bottom: "conv1"
  top: "conv1"
  param {
    lr_mult: 0
    decay_mult: 0
  }
  scale_param {
    filler {
      value: 1.7159
    }
    bias_term: false
  }
}
layer {
  name: "pool1"
  type: "Pooling"
  bottom: "conv1"
  top: "pool1"
  pooling_param {
    pool: MAX
    kernel_size: 2
    stride: 2
  }
}
layer {
  name: "conv2"
  type: "Convolution"
  bottom: "pool1"
  top: "conv2"
  convolution_param {
    num_output: 150
    pad: 0
    kernel_size: 4
    group: 1
    stride: 1
    weight_filler {
      type: "xavier"
    }
  }
}
layer {
  name: "conv2_prescale"
  type: "Scale"
  bottom: "conv2"
  top: "conv2"
  param {
    lr_mult: 0
    decay_mult: 0
  }
  scale_param {
    filler {
      value: 0.6666
    }
    bias_term: false
  }
}
layer {
  name: "conv2_sTanH"
  type: "TanH"
  bottom: "conv2"
  top: "conv2"
}
layer {
  name: "conv2_postscale"
  type: "Scale"
  bottom: "conv2"
  top: "conv2"
  param {
    lr_mult: 0
    decay_mult: 0
  }
  scale_param {
    filler {
      value: 1.7159
    }
    bias_term: false
  }
}
layer {
  name: "pool2"
  type: "Pooling"
  bottom: "conv2"
  top: "pool2"
  pooling_param {
    pool: MAX
    kernel_size: 2
    stride: 2
  }
}
layer {
  name: "conv3"
  type: "Convolution"
  bottom: "pool2"
  top: "conv3"
  convolution_param {
    num_output: 250
    pad: 0
    kernel_size: 4
    group: 1
    stride: 1
    weight_filler {
      type: "xavier"
    }
  }
}
layer {
  name: "conv3_prescale"
  type: "Scale"
  bottom: "conv3"
  top: "conv3"
  param {
    lr_mult: 0
    decay_mult: 0
  }
  scale_param {
    filler {
      value: 0.6666
    }
    bias_term: false
  }
}
layer {
  name: "conv3_sTanH"
  type: "TanH"
  bottom: "conv3"
  top: "conv3"
}
layer {
  name: "conv3_postscale"
  type: "Scale"
  bottom: "conv3"
  top: "conv3"
  param {
    lr_mult: 0
    decay_mult: 0
  }
  scale_param {
    filler {
      value: 1.7159
    }
    bias_term: false
  }
}
layer {
  name: "pool3"
  type: "Pooling"
  bottom: "conv3"
  top: "pool3"
  pooling_param {
    pool: MAX
    kernel_size: 2
    stride: 2
  }
}
layer {
  name: "fc4_300"
  type: "InnerProduct"
  bottom: "pool3"
  top: "fc4_300"
  inner_product_param {
    num_output: 300
    weight_filler {
      type: "xavier"
    }
  }
}
layer {
  name: "fc4_prescale"
  type: "Scale"
  bottom: "fc4_300"
  top: "fc4_300"
  param {
    lr_mult: 0
    decay_mult: 0
  }
  scale_param {
    filler {
      value: 0.6666
    }
    bias_term: false
  }
}
layer {
  name: "fc4_sTanH"
  type: "TanH"
  bottom: "fc4_300"
  top: "fc4_300"
}
layer {
  name: "fc4_postscale"
  type: "Scale"
  bottom: "fc4_300"
  top: "fc4_300"
  param {
    lr_mult: 0
    decay_mult: 0
  }
  scale_param {
    filler {
      value: 1.7159
    }
    bias_term: false
  }
}
layer {
  name: "drop4"
  type: "Dropout"
  bottom: "fc4_300"
  top: "fc4_300"
  dropout_param {
    dropout_ratio: 0.6
  }
}
layer {
  name: "fc5_67"
  type: "InnerProduct"
  bottom: "fc4_300"
  top: "fc5_classes"
  inner_product_param {
    num_output: 67
    weight_filler {
      type: "xavier"
    }
  }
}
layer {
  name: "loss"
  type: "SoftmaxWithLoss"
  bottom: "fc5_classes"
  bottom: "label"
  top: "loss"
}
I0411 13:43:03.137979  3145 layer_factory.hpp:77] Creating layer data
I0411 13:43:03.153537  3145 net.cpp:100] Creating Layer data
I0411 13:43:03.153564  3145 net.cpp:408] data -> data
I0411 13:43:03.153599  3145 net.cpp:408] data -> label
I0411 13:43:03.160295  3269 db_lmdb.cpp:35] Opened lmdb ../local_data/lmdb/rtsd-r1/CoNorm/train/lmdb
I0411 13:43:03.177291  3145 data_layer.cpp:41] output data size: 1024,3,48,48
I0411 13:43:03.233376  3145 net.cpp:150] Setting up data
I0411 13:43:03.233412  3145 net.cpp:157] Top shape: 1024 3 48 48 (7077888)
I0411 13:43:03.233420  3145 net.cpp:157] Top shape: 1024 (1024)
I0411 13:43:03.233425  3145 net.cpp:165] Memory required for data: 28315648
I0411 13:43:03.233438  3145 layer_factory.hpp:77] Creating layer conv1
I0411 13:43:03.233469  3145 net.cpp:100] Creating Layer conv1
I0411 13:43:03.233479  3145 net.cpp:434] conv1 <- data
I0411 13:43:03.233496  3145 net.cpp:408] conv1 -> conv1
I0411 13:43:03.928939  3145 net.cpp:150] Setting up conv1
I0411 13:43:03.928984  3145 net.cpp:157] Top shape: 1024 100 42 42 (180633600)
I0411 13:43:03.928994  3145 net.cpp:165] Memory required for data: 750850048
I0411 13:43:03.929033  3145 layer_factory.hpp:77] Creating layer conv1_prescale
I0411 13:43:03.929061  3145 net.cpp:100] Creating Layer conv1_prescale
I0411 13:43:03.929074  3145 net.cpp:434] conv1_prescale <- conv1
I0411 13:43:03.929096  3145 net.cpp:395] conv1_prescale -> conv1 (in-place)
I0411 13:43:03.929312  3145 net.cpp:150] Setting up conv1_prescale
I0411 13:43:03.929330  3145 net.cpp:157] Top shape: 1024 100 42 42 (180633600)
I0411 13:43:03.929340  3145 net.cpp:165] Memory required for data: 1473384448
I0411 13:43:03.929353  3145 layer_factory.hpp:77] Creating layer conv1_sTanH
I0411 13:43:03.929369  3145 net.cpp:100] Creating Layer conv1_sTanH
I0411 13:43:03.929378  3145 net.cpp:434] conv1_sTanH <- conv1
I0411 13:43:03.929391  3145 net.cpp:395] conv1_sTanH -> conv1 (in-place)
I0411 13:43:03.929767  3145 net.cpp:150] Setting up conv1_sTanH
I0411 13:43:03.929790  3145 net.cpp:157] Top shape: 1024 100 42 42 (180633600)
I0411 13:43:03.929800  3145 net.cpp:165] Memory required for data: 2195918848
I0411 13:43:03.929807  3145 layer_factory.hpp:77] Creating layer conv1_postscale
I0411 13:43:03.929827  3145 net.cpp:100] Creating Layer conv1_postscale
I0411 13:43:03.929838  3145 net.cpp:434] conv1_postscale <- conv1
I0411 13:43:03.929853  3145 net.cpp:395] conv1_postscale -> conv1 (in-place)
I0411 13:43:03.930044  3145 net.cpp:150] Setting up conv1_postscale
I0411 13:43:03.930061  3145 net.cpp:157] Top shape: 1024 100 42 42 (180633600)
I0411 13:43:03.930070  3145 net.cpp:165] Memory required for data: 2918453248
I0411 13:43:03.930080  3145 layer_factory.hpp:77] Creating layer pool1
I0411 13:43:03.930099  3145 net.cpp:100] Creating Layer pool1
I0411 13:43:03.930109  3145 net.cpp:434] pool1 <- conv1
I0411 13:43:03.930120  3145 net.cpp:408] pool1 -> pool1
I0411 13:43:03.930245  3145 net.cpp:150] Setting up pool1
I0411 13:43:03.930265  3145 net.cpp:157] Top shape: 1024 100 21 21 (45158400)
I0411 13:43:03.930274  3145 net.cpp:165] Memory required for data: 3099086848
I0411 13:43:03.930282  3145 layer_factory.hpp:77] Creating layer conv2
I0411 13:43:03.930305  3145 net.cpp:100] Creating Layer conv2
I0411 13:43:03.930315  3145 net.cpp:434] conv2 <- pool1
I0411 13:43:03.930333  3145 net.cpp:408] conv2 -> conv2
I0411 13:43:03.940001  3145 net.cpp:150] Setting up conv2
I0411 13:43:03.940035  3145 net.cpp:157] Top shape: 1024 150 18 18 (49766400)
I0411 13:43:03.940044  3145 net.cpp:165] Memory required for data: 3298152448
I0411 13:43:03.940064  3145 layer_factory.hpp:77] Creating layer conv2_prescale
I0411 13:43:03.940081  3145 net.cpp:100] Creating Layer conv2_prescale
I0411 13:43:03.940091  3145 net.cpp:434] conv2_prescale <- conv2
I0411 13:43:03.940106  3145 net.cpp:395] conv2_prescale -> conv2 (in-place)
I0411 13:43:03.940316  3145 net.cpp:150] Setting up conv2_prescale
I0411 13:43:03.940337  3145 net.cpp:157] Top shape: 1024 150 18 18 (49766400)
I0411 13:43:03.940346  3145 net.cpp:165] Memory required for data: 3497218048
I0411 13:43:03.940356  3145 layer_factory.hpp:77] Creating layer conv2_sTanH
I0411 13:43:03.940374  3145 net.cpp:100] Creating Layer conv2_sTanH
I0411 13:43:03.940383  3145 net.cpp:434] conv2_sTanH <- conv2
I0411 13:43:03.940393  3145 net.cpp:395] conv2_sTanH -> conv2 (in-place)
I0411 13:43:03.941484  3145 net.cpp:150] Setting up conv2_sTanH
I0411 13:43:03.941501  3145 net.cpp:157] Top shape: 1024 150 18 18 (49766400)
I0411 13:43:03.941505  3145 net.cpp:165] Memory required for data: 3696283648
I0411 13:43:03.941509  3145 layer_factory.hpp:77] Creating layer conv2_postscale
I0411 13:43:03.941519  3145 net.cpp:100] Creating Layer conv2_postscale
I0411 13:43:03.941527  3145 net.cpp:434] conv2_postscale <- conv2
I0411 13:43:03.941537  3145 net.cpp:395] conv2_postscale -> conv2 (in-place)
I0411 13:43:03.941684  3145 net.cpp:150] Setting up conv2_postscale
I0411 13:43:03.941696  3145 net.cpp:157] Top shape: 1024 150 18 18 (49766400)
I0411 13:43:03.941700  3145 net.cpp:165] Memory required for data: 3895349248
I0411 13:43:03.941706  3145 layer_factory.hpp:77] Creating layer pool2
I0411 13:43:03.941715  3145 net.cpp:100] Creating Layer pool2
I0411 13:43:03.941718  3145 net.cpp:434] pool2 <- conv2
I0411 13:43:03.941725  3145 net.cpp:408] pool2 -> pool2
I0411 13:43:03.941797  3145 net.cpp:150] Setting up pool2
I0411 13:43:03.941812  3145 net.cpp:157] Top shape: 1024 150 9 9 (12441600)
I0411 13:43:03.941819  3145 net.cpp:165] Memory required for data: 3945115648
I0411 13:43:03.941825  3145 layer_factory.hpp:77] Creating layer conv3
I0411 13:43:03.941843  3145 net.cpp:100] Creating Layer conv3
I0411 13:43:03.941853  3145 net.cpp:434] conv3 <- pool2
I0411 13:43:03.941859  3145 net.cpp:408] conv3 -> conv3
I0411 13:43:03.949766  3145 net.cpp:150] Setting up conv3
I0411 13:43:03.949785  3145 net.cpp:157] Top shape: 1024 250 6 6 (9216000)
I0411 13:43:03.949790  3145 net.cpp:165] Memory required for data: 3981979648
I0411 13:43:03.949803  3145 layer_factory.hpp:77] Creating layer conv3_prescale
I0411 13:43:03.949813  3145 net.cpp:100] Creating Layer conv3_prescale
I0411 13:43:03.949817  3145 net.cpp:434] conv3_prescale <- conv3
I0411 13:43:03.949825  3145 net.cpp:395] conv3_prescale -> conv3 (in-place)
I0411 13:43:03.949931  3145 net.cpp:150] Setting up conv3_prescale
I0411 13:43:03.949942  3145 net.cpp:157] Top shape: 1024 250 6 6 (9216000)
I0411 13:43:03.949945  3145 net.cpp:165] Memory required for data: 4018843648
I0411 13:43:03.949951  3145 layer_factory.hpp:77] Creating layer conv3_sTanH
I0411 13:43:03.949957  3145 net.cpp:100] Creating Layer conv3_sTanH
I0411 13:43:03.949961  3145 net.cpp:434] conv3_sTanH <- conv3
I0411 13:43:03.949966  3145 net.cpp:395] conv3_sTanH -> conv3 (in-place)
I0411 13:43:03.951122  3145 net.cpp:150] Setting up conv3_sTanH
I0411 13:43:03.951140  3145 net.cpp:157] Top shape: 1024 250 6 6 (9216000)
I0411 13:43:03.951144  3145 net.cpp:165] Memory required for data: 4055707648
I0411 13:43:03.951166  3145 layer_factory.hpp:77] Creating layer conv3_postscale
I0411 13:43:03.951175  3145 net.cpp:100] Creating Layer conv3_postscale
I0411 13:43:03.951179  3145 net.cpp:434] conv3_postscale <- conv3
I0411 13:43:03.951191  3145 net.cpp:395] conv3_postscale -> conv3 (in-place)
I0411 13:43:03.951308  3145 net.cpp:150] Setting up conv3_postscale
I0411 13:43:03.951318  3145 net.cpp:157] Top shape: 1024 250 6 6 (9216000)
I0411 13:43:03.951320  3145 net.cpp:165] Memory required for data: 4092571648
I0411 13:43:03.951326  3145 layer_factory.hpp:77] Creating layer pool3
I0411 13:43:03.951335  3145 net.cpp:100] Creating Layer pool3
I0411 13:43:03.951339  3145 net.cpp:434] pool3 <- conv3
I0411 13:43:03.951345  3145 net.cpp:408] pool3 -> pool3
I0411 13:43:03.951390  3145 net.cpp:150] Setting up pool3
I0411 13:43:03.951398  3145 net.cpp:157] Top shape: 1024 250 3 3 (2304000)
I0411 13:43:03.951402  3145 net.cpp:165] Memory required for data: 4101787648
I0411 13:43:03.951406  3145 layer_factory.hpp:77] Creating layer fc4_300
I0411 13:43:03.951416  3145 net.cpp:100] Creating Layer fc4_300
I0411 13:43:03.951421  3145 net.cpp:434] fc4_300 <- pool3
I0411 13:43:03.951428  3145 net.cpp:408] fc4_300 -> fc4_300
I0411 13:43:03.959247  3145 net.cpp:150] Setting up fc4_300
I0411 13:43:03.959267  3145 net.cpp:157] Top shape: 1024 300 (307200)
I0411 13:43:03.959271  3145 net.cpp:165] Memory required for data: 4103016448
I0411 13:43:03.959278  3145 layer_factory.hpp:77] Creating layer fc4_prescale
I0411 13:43:03.959286  3145 net.cpp:100] Creating Layer fc4_prescale
I0411 13:43:03.959290  3145 net.cpp:434] fc4_prescale <- fc4_300
I0411 13:43:03.959300  3145 net.cpp:395] fc4_prescale -> fc4_300 (in-place)
I0411 13:43:03.959399  3145 net.cpp:150] Setting up fc4_prescale
I0411 13:43:03.959408  3145 net.cpp:157] Top shape: 1024 300 (307200)
I0411 13:43:03.959413  3145 net.cpp:165] Memory required for data: 4104245248
I0411 13:43:03.959417  3145 layer_factory.hpp:77] Creating layer fc4_sTanH
I0411 13:43:03.959424  3145 net.cpp:100] Creating Layer fc4_sTanH
I0411 13:43:03.959427  3145 net.cpp:434] fc4_sTanH <- fc4_300
I0411 13:43:03.959432  3145 net.cpp:395] fc4_sTanH -> fc4_300 (in-place)
I0411 13:43:03.959642  3145 net.cpp:150] Setting up fc4_sTanH
I0411 13:43:03.959656  3145 net.cpp:157] Top shape: 1024 300 (307200)
I0411 13:43:03.959659  3145 net.cpp:165] Memory required for data: 4105474048
I0411 13:43:03.959663  3145 layer_factory.hpp:77] Creating layer fc4_postscale
I0411 13:43:03.959671  3145 net.cpp:100] Creating Layer fc4_postscale
I0411 13:43:03.959673  3145 net.cpp:434] fc4_postscale <- fc4_300
I0411 13:43:03.959681  3145 net.cpp:395] fc4_postscale -> fc4_300 (in-place)
I0411 13:43:03.959790  3145 net.cpp:150] Setting up fc4_postscale
I0411 13:43:03.959800  3145 net.cpp:157] Top shape: 1024 300 (307200)
I0411 13:43:03.959803  3145 net.cpp:165] Memory required for data: 4106702848
I0411 13:43:03.959808  3145 layer_factory.hpp:77] Creating layer drop4
I0411 13:43:03.959815  3145 net.cpp:100] Creating Layer drop4
I0411 13:43:03.959818  3145 net.cpp:434] drop4 <- fc4_300
I0411 13:43:03.959823  3145 net.cpp:395] drop4 -> fc4_300 (in-place)
I0411 13:43:03.959853  3145 net.cpp:150] Setting up drop4
I0411 13:43:03.959861  3145 net.cpp:157] Top shape: 1024 300 (307200)
I0411 13:43:03.959866  3145 net.cpp:165] Memory required for data: 4107931648
I0411 13:43:03.959868  3145 layer_factory.hpp:77] Creating layer fc5_67
I0411 13:43:03.959877  3145 net.cpp:100] Creating Layer fc5_67
I0411 13:43:03.959887  3145 net.cpp:434] fc5_67 <- fc4_300
I0411 13:43:03.959893  3145 net.cpp:408] fc5_67 -> fc5_classes
I0411 13:43:03.965627  3145 net.cpp:150] Setting up fc5_67
I0411 13:43:03.965646  3145 net.cpp:157] Top shape: 1024 67 (68608)
I0411 13:43:03.965651  3145 net.cpp:165] Memory required for data: 4108206080
I0411 13:43:03.965662  3145 layer_factory.hpp:77] Creating layer loss
I0411 13:43:03.965669  3145 net.cpp:100] Creating Layer loss
I0411 13:43:03.965673  3145 net.cpp:434] loss <- fc5_classes
I0411 13:43:03.965678  3145 net.cpp:434] loss <- label
I0411 13:43:03.965698  3145 net.cpp:408] loss -> loss
I0411 13:43:03.965714  3145 layer_factory.hpp:77] Creating layer loss
…
I0411 13:43:03.966560  3145 solver.cpp:193] Creating test net (#0) specified by test_net file: ./Prototxt/experiment_9/rtsd-r1/CoNorm/trial_1/test.prototxt
I0411 13:43:03.966768  3145 net.cpp:58] Initializing net from parameters: 
state {
  phase: TEST
}
layer {
  name: "data"
  type: "Data"
  top: "data"
  top: "label"
  include {
    phase: TEST
  }
  transform_param {
    scale: 0.0039215689
    mirror: false
    crop_size: 48
    mean_value: 133
    mean_value: 133
    mean_value: 132
  }
  data_param {
    source: "../local_data/lmdb/rtsd-r1/CoNorm/test/lmdb"
    batch_size: 1024
    backend: LMDB
  }
}
layer {
  name: "conv1"
  type: "Convolution"
  bottom: "data"
  top: "conv1"
  convolution_param {
    num_output: 100
    pad: 0
    kernel_size: 7
    group: 1
    stride: 1
    weight_filler {
      type: "xavier"
    }
  }
}
layer {
  name: "conv1_prescale"
  type: "Scale"
  bottom: "conv1"
  top: "conv1"
  param {
    lr_mult: 0
    decay_mult: 0
  }
  scale_param {
    filler {
      value: 0.6666
    }
    bias_term: false
  }
}
layer {
  name: "conv1_sTanH"
  type: "TanH"
  bottom: "conv1"
  top: "conv1"
}
layer {
  name: "conv1_postscale"
  type: "Scale"
  bottom: "conv1"
  top: "conv1"
  param {
    lr_mult: 0
    decay_mult: 0
  }
  scale_param {
    filler {
      value: 1.7159
    }
    bias_term: false
  }
}
layer {
  name: "pool1"
  type: "Pooling"
  bottom: "conv1"
  top: "pool1"
  pooling_param {
    pool: MAX
    kernel_size: 2
    stride: 2
  }
}
layer {
  name: "conv2"
  type: "Convolution"
  bottom: "pool1"
  top: "conv2"
  convolution_param {
    num_output: 150
    pad: 0
    kernel_size: 4
    group: 1
    stride: 1
    weight_filler {
      type: "xavier"
    }
  }
}
layer {
  name: "conv2_prescale"
  type: "Scale"
  bottom: "conv2"
  top: "conv2"
  param {
    lr_mult: 0
    decay_mult: 0
  }
  scale_param {
    filler {
      value: 0.6666
    }
    bias_term: false
  }
}
layer {
  name: "conv2_sTanH"
  type: "TanH"
  bottom: "conv2"
  top: "conv2"
}
layer {
  name: "conv2_postscale"
  type: "Scale"
  bottom: "conv2"
  top: "conv2"
  param {
    lr_mult: 0
    decay_mult: 0
  }
  scale_param {
    filler {
      value: 1.7159
    }
    bias_term: false
  }
}
layer {
  name: "pool2"
  type: "Pooling"
  bottom: "conv2"
  top: "pool2"
  pooling_param {
    pool: MAX
    kernel_size: 2
    stride: 2
  }
}
layer {
  name: "conv3"
  type: "Convolution"
  bottom: "pool2"
  top: "conv3"
  convolution_param {
    num_output: 250
    pad: 0
    kernel_size: 4
    group: 1
    stride: 1
    weight_filler {
      type: "xavier"
    }
  }
}
layer {
  name: "conv3_prescale"
  type: "Scale"
  bottom: "conv3"
  top: "conv3"
  param {
    lr_mult: 0
    decay_mult: 0
  }
  scale_param {
    filler {
      value: 0.6666
    }
    bias_term: false
  }
}
layer {
  name: "conv3_sTanH"
  type: "TanH"
  bottom: "conv3"
  top: "conv3"
}
layer {
  name: "conv3_postscale"
  type: "Scale"
  bottom: "conv3"
  top: "conv3"
  param {
    lr_mult: 0
    decay_mult: 0
  }
  scale_param {
    filler {
      value: 1.7159
    }
    bias_term: false
  }
}
layer {
  name: "pool3"
  type: "Pooling"
  bottom: "conv3"
  top: "pool3"
  pooling_param {
    pool: MAX
    kernel_size: 2
    stride: 2
  }
}
layer {
  name: "fc4_300"
  type: "InnerProduct"
  bottom: "pool3"
  top: "fc4_300"
  inner_product_param {
    num_output: 300
    weight_filler {
      type: "xavier"
    }
  }
}
layer {
  name: "fc4_prescale"
  type: "Scale"
  bottom: "fc4_300"
  top: "fc4_300"
  param {
    lr_mult: 0
    decay_mult: 0
  }
  scale_param {
    filler {
      value: 0.6666
    }
    bias_term: false
  }
}
layer {
  name: "fc4_sTanH"
  type: "TanH"
  bottom: "fc4_300"
  top: "fc4_300"
}
layer {
  name: "fc4_postscale"
  type: "Scale"
  bottom: "fc4_300"
  top: "fc4_300"
  param {
    lr_mult: 0
    decay_mult: 0
  }
  scale_param {
    filler {
      value: 1.7159
    }
    bias_term: false
  }
}
layer {
  name: "drop4"
  type: "Dropout"
  bottom: "fc4_300"
  top: "fc4_300"
  dropout_param {
    dropout_ratio: 0.6
  }
}
layer {
  name: "fc5_67"
  type: "InnerProduct"
  bottom: "fc4_300"
  top: "fc5_classes"
  inner_product_param {
    num_output: 67
    weight_filler {
      type: "xavier"
    }
  }
}
layer {
  name: "loss"
  type: "SoftmaxWithLoss"
  bottom: "fc5_classes"
  bottom: "label"
  top: "loss"
}
layer {
  name: "accuracy_1"
  type: "Accuracy"
  bottom: "fc5_classes"
  bottom: "label"
  top: "accuracy_1"
  include {
    phase: TEST
  }
  accuracy_param {
    top_k: 1
  }
}
layer {
  name: "accuracy_5"
  type: "Accuracy"
  bottom: "fc5_classes"
  bottom: "label"
  top: "accuracy_5"
  include {
    phase: TEST
  }
  accuracy_param {
    top_k: 5
  }
}
I0411 13:43:03.966902  3145 layer_factory.hpp:77] Creating layer data
I0411 13:43:03.967638  3145 net.cpp:100] Creating Layer data
I0411 13:43:03.967653  3145 net.cpp:408] data -> data
I0411 13:43:03.967664  3145 net.cpp:408] data -> label
I0411 13:43:03.972548  3342 db_lmdb.cpp:35] Opened lmdb ../local_data/lmdb/rtsd-r1/CoNorm/test/lmdb
I0411 13:43:03.972738  3145 data_layer.cpp:41] output data size: 1024,3,48,48
I0411 13:43:04.016206  3145 net.cpp:150] Setting up data
I0411 13:43:04.016237  3145 net.cpp:157] Top shape: 1024 3 48 48 (7077888)
I0411 13:43:04.016242  3145 net.cpp:157] Top shape: 1024 (1024)
I0411 13:43:04.016244  3145 net.cpp:165] Memory required for data: 28315648
I0411 13:43:04.016250  3145 layer_factory.hpp:77] Creating layer label_data_1_split
I0411 13:43:04.016265  3145 net.cpp:100] Creating Layer label_data_1_split
I0411 13:43:04.016269  3145 net.cpp:434] label_data_1_split <- label
I0411 13:43:04.016283  3145 net.cpp:408] label_data_1_split -> label_data_1_split_0
I0411 13:43:04.016295  3145 net.cpp:408] label_data_1_split -> label_data_1_split_1
I0411 13:43:04.016324  3145 net.cpp:408] label_data_1_split -> label_data_1_split_2
I0411 13:43:04.016424  3145 net.cpp:150] Setting up label_data_1_split
I0411 13:43:04.016436  3145 net.cpp:157] Top shape: 1024 (1024)
I0411 13:43:04.016440  3145 net.cpp:157] Top shape: 1024 (1024)
I0411 13:43:04.016443  3145 net.cpp:157] Top shape: 1024 (1024)
I0411 13:43:04.016446  3145 net.cpp:165] Memory required for data: 28327936
I0411 13:43:04.016450  3145 layer_factory.hpp:77] Creating layer conv1
I0411 13:43:04.016463  3145 net.cpp:100] Creating Layer conv1
I0411 13:43:04.016468  3145 net.cpp:434] conv1 <- data
I0411 13:43:04.016474  3145 net.cpp:408] conv1 -> conv1
I0411 13:43:04.019032  3145 net.cpp:150] Setting up conv1
I0411 13:43:04.019049  3145 net.cpp:157] Top shape: 1024 100 42 42 (180633600)
I0411 13:43:04.019053  3145 net.cpp:165] Memory required for data: 750862336
I0411 13:43:04.019065  3145 layer_factory.hpp:77] Creating layer conv1_prescale
I0411 13:43:04.019086  3145 net.cpp:100] Creating Layer conv1_prescale
I0411 13:43:04.019090  3145 net.cpp:434] conv1_prescale <- conv1
I0411 13:43:04.019095  3145 net.cpp:395] conv1_prescale -> conv1 (in-place)
I0411 13:43:04.021427  3145 net.cpp:150] Setting up conv1_prescale
I0411 13:43:04.021443  3145 net.cpp:157] Top shape: 1024 100 42 42 (180633600)
I0411 13:43:04.021447  3145 net.cpp:165] Memory required for data: 1473396736
I0411 13:43:04.021456  3145 layer_factory.hpp:77] Creating layer conv1_sTanH
I0411 13:43:04.021466  3145 net.cpp:100] Creating Layer conv1_sTanH
I0411 13:43:04.021471  3145 net.cpp:434] conv1_sTanH <- conv1
I0411 13:43:04.021477  3145 net.cpp:395] conv1_sTanH -> conv1 (in-place)
I0411 13:43:04.021709  3145 net.cpp:150] Setting up conv1_sTanH
I0411 13:43:04.021723  3145 net.cpp:157] Top shape: 1024 100 42 42 (180633600)
I0411 13:43:04.021728  3145 net.cpp:165] Memory required for data: 2195931136
I0411 13:43:04.021730  3145 layer_factory.hpp:77] Creating layer conv1_postscale
I0411 13:43:04.021736  3145 net.cpp:100] Creating Layer conv1_postscale
I0411 13:43:04.021740  3145 net.cpp:434] conv1_postscale <- conv1
I0411 13:43:04.021746  3145 net.cpp:395] conv1_postscale -> conv1 (in-place)
I0411 13:43:04.021862  3145 net.cpp:150] Setting up conv1_postscale
I0411 13:43:04.021869  3145 net.cpp:157] Top shape: 1024 100 42 42 (180633600)
I0411 13:43:04.021872  3145 net.cpp:165] Memory required for data: 2918465536
I0411 13:43:04.021878  3145 layer_factory.hpp:77] Creating layer pool1
I0411 13:43:04.021885  3145 net.cpp:100] Creating Layer pool1
I0411 13:43:04.021890  3145 net.cpp:434] pool1 <- conv1
I0411 13:43:04.021898  3145 net.cpp:408] pool1 -> pool1
I0411 13:43:04.021942  3145 net.cpp:150] Setting up pool1
I0411 13:43:04.021950  3145 net.cpp:157] Top shape: 1024 100 21 21 (45158400)
I0411 13:43:04.021953  3145 net.cpp:165] Memory required for data: 3099099136
I0411 13:43:04.021957  3145 layer_factory.hpp:77] Creating layer conv2
I0411 13:43:04.021967  3145 net.cpp:100] Creating Layer conv2
I0411 13:43:04.021972  3145 net.cpp:434] conv2 <- pool1
I0411 13:43:04.021980  3145 net.cpp:408] conv2 -> conv2
I0411 13:43:04.026456  3145 net.cpp:150] Setting up conv2
I0411 13:43:04.026476  3145 net.cpp:157] Top shape: 1024 150 18 18 (49766400)
I0411 13:43:04.026480  3145 net.cpp:165] Memory required for data: 3298164736
I0411 13:43:04.026494  3145 layer_factory.hpp:77] Creating layer conv2_prescale
I0411 13:43:04.026504  3145 net.cpp:100] Creating Layer conv2_prescale
I0411 13:43:04.026507  3145 net.cpp:434] conv2_prescale <- conv2
I0411 13:43:04.026517  3145 net.cpp:395] conv2_prescale -> conv2 (in-place)
I0411 13:43:04.026638  3145 net.cpp:150] Setting up conv2_prescale
I0411 13:43:04.026648  3145 net.cpp:157] Top shape: 1024 150 18 18 (49766400)
I0411 13:43:04.026650  3145 net.cpp:165] Memory required for data: 3497230336
I0411 13:43:04.026655  3145 layer_factory.hpp:77] Creating layer conv2_sTanH
I0411 13:43:04.026660  3145 net.cpp:100] Creating Layer conv2_sTanH
I0411 13:43:04.026664  3145 net.cpp:434] conv2_sTanH <- conv2
I0411 13:43:04.026669  3145 net.cpp:395] conv2_sTanH -> conv2 (in-place)
I0411 13:43:04.027479  3145 net.cpp:150] Setting up conv2_sTanH
I0411 13:43:04.027493  3145 net.cpp:157] Top shape: 1024 150 18 18 (49766400)
I0411 13:43:04.027498  3145 net.cpp:165] Memory required for data: 3696295936
I0411 13:43:04.027500  3145 layer_factory.hpp:77] Creating layer conv2_postscale
I0411 13:43:04.027509  3145 net.cpp:100] Creating Layer conv2_postscale
I0411 13:43:04.027513  3145 net.cpp:434] conv2_postscale <- conv2
I0411 13:43:04.027519  3145 net.cpp:395] conv2_postscale -> conv2 (in-place)
I0411 13:43:04.027626  3145 net.cpp:150] Setting up conv2_postscale
I0411 13:43:04.027636  3145 net.cpp:157] Top shape: 1024 150 18 18 (49766400)
I0411 13:43:04.027638  3145 net.cpp:165] Memory required for data: 3895361536
I0411 13:43:04.027643  3145 layer_factory.hpp:77] Creating layer pool2
I0411 13:43:04.027652  3145 net.cpp:100] Creating Layer pool2
I0411 13:43:04.027657  3145 net.cpp:434] pool2 <- conv2
I0411 13:43:04.027662  3145 net.cpp:408] pool2 -> pool2
I0411 13:43:04.027709  3145 net.cpp:150] Setting up pool2
I0411 13:43:04.027719  3145 net.cpp:157] Top shape: 1024 150 9 9 (12441600)
I0411 13:43:04.027721  3145 net.cpp:165] Memory required for data: 3945127936
I0411 13:43:04.027724  3145 layer_factory.hpp:77] Creating layer conv3
I0411 13:43:04.027734  3145 net.cpp:100] Creating Layer conv3
I0411 13:43:04.027740  3145 net.cpp:434] conv3 <- pool2
I0411 13:43:04.027747  3145 net.cpp:408] conv3 -> conv3
I0411 13:43:04.033340  3145 net.cpp:150] Setting up conv3
I0411 13:43:04.033360  3145 net.cpp:157] Top shape: 1024 250 6 6 (9216000)
I0411 13:43:04.033363  3145 net.cpp:165] Memory required for data: 3981991936
I0411 13:43:04.033373  3145 layer_factory.hpp:77] Creating layer conv3_prescale
I0411 13:43:04.033381  3145 net.cpp:100] Creating Layer conv3_prescale
I0411 13:43:04.033386  3145 net.cpp:434] conv3_prescale <- conv3
I0411 13:43:04.033392  3145 net.cpp:395] conv3_prescale -> conv3 (in-place)
I0411 13:43:04.033491  3145 net.cpp:150] Setting up conv3_prescale
I0411 13:43:04.033500  3145 net.cpp:157] Top shape: 1024 250 6 6 (9216000)
I0411 13:43:04.033504  3145 net.cpp:165] Memory required for data: 4018855936
I0411 13:43:04.033509  3145 layer_factory.hpp:77] Creating layer conv3_sTanH
I0411 13:43:04.033514  3145 net.cpp:100] Creating Layer conv3_sTanH
I0411 13:43:04.033516  3145 net.cpp:434] conv3_sTanH <- conv3
I0411 13:43:04.033522  3145 net.cpp:395] conv3_sTanH -> conv3 (in-place)
I0411 13:43:04.039948  3145 net.cpp:150] Setting up conv3_sTanH
I0411 13:43:04.039968  3145 net.cpp:157] Top shape: 1024 250 6 6 (9216000)
I0411 13:43:04.039971  3145 net.cpp:165] Memory required for data: 4055719936
I0411 13:43:04.039975  3145 layer_factory.hpp:77] Creating layer conv3_postscale
I0411 13:43:04.039983  3145 net.cpp:100] Creating Layer conv3_postscale
I0411 13:43:04.039988  3145 net.cpp:434] conv3_postscale <- conv3
I0411 13:43:04.039994  3145 net.cpp:395] conv3_postscale -> conv3 (in-place)
I0411 13:43:04.040104  3145 net.cpp:150] Setting up conv3_postscale
I0411 13:43:04.040114  3145 net.cpp:157] Top shape: 1024 250 6 6 (9216000)
I0411 13:43:04.040117  3145 net.cpp:165] Memory required for data: 4092583936
I0411 13:43:04.040123  3145 layer_factory.hpp:77] Creating layer pool3
I0411 13:43:04.040133  3145 net.cpp:100] Creating Layer pool3
I0411 13:43:04.040138  3145 net.cpp:434] pool3 <- conv3
I0411 13:43:04.040144  3145 net.cpp:408] pool3 -> pool3
I0411 13:43:04.040189  3145 net.cpp:150] Setting up pool3
I0411 13:43:04.040195  3145 net.cpp:157] Top shape: 1024 250 3 3 (2304000)
I0411 13:43:04.040200  3145 net.cpp:165] Memory required for data: 4101799936
I0411 13:43:04.040204  3145 layer_factory.hpp:77] Creating layer fc4_300
I0411 13:43:04.040210  3145 net.cpp:100] Creating Layer fc4_300
I0411 13:43:04.040213  3145 net.cpp:434] fc4_300 <- pool3
I0411 13:43:04.040220  3145 net.cpp:408] fc4_300 -> fc4_300
I0411 13:43:04.045828  3145 net.cpp:150] Setting up fc4_300
I0411 13:43:04.045843  3145 net.cpp:157] Top shape: 1024 300 (307200)
I0411 13:43:04.045847  3145 net.cpp:165] Memory required for data: 4103028736
I0411 13:43:04.045869  3145 layer_factory.hpp:77] Creating layer fc4_prescale
I0411 13:43:04.045879  3145 net.cpp:100] Creating Layer fc4_prescale
I0411 13:43:04.045883  3145 net.cpp:434] fc4_prescale <- fc4_300
I0411 13:43:04.045891  3145 net.cpp:395] fc4_prescale -> fc4_300 (in-place)
I0411 13:43:04.045989  3145 net.cpp:150] Setting up fc4_prescale
I0411 13:43:04.045999  3145 net.cpp:157] Top shape: 1024 300 (307200)
I0411 13:43:04.046001  3145 net.cpp:165] Memory required for data: 4104257536
I0411 13:43:04.046006  3145 layer_factory.hpp:77] Creating layer fc4_sTanH
I0411 13:43:04.046013  3145 net.cpp:100] Creating Layer fc4_sTanH
I0411 13:43:04.046016  3145 net.cpp:434] fc4_sTanH <- fc4_300
I0411 13:43:04.046021  3145 net.cpp:395] fc4_sTanH -> fc4_300 (in-place)
I0411 13:43:04.046214  3145 net.cpp:150] Setting up fc4_sTanH
I0411 13:43:04.046226  3145 net.cpp:157] Top shape: 1024 300 (307200)
I0411 13:43:04.046228  3145 net.cpp:165] Memory required for data: 4105486336
I0411 13:43:04.046233  3145 layer_factory.hpp:77] Creating layer fc4_postscale
I0411 13:43:04.046241  3145 net.cpp:100] Creating Layer fc4_postscale
I0411 13:43:04.046244  3145 net.cpp:434] fc4_postscale <- fc4_300
I0411 13:43:04.046252  3145 net.cpp:395] fc4_postscale -> fc4_300 (in-place)
I0411 13:43:04.046355  3145 net.cpp:150] Setting up fc4_postscale
I0411 13:43:04.046363  3145 net.cpp:157] Top shape: 1024 300 (307200)
I0411 13:43:04.046366  3145 net.cpp:165] Memory required for data: 4106715136
I0411 13:43:04.046370  3145 layer_factory.hpp:77] Creating layer drop4
I0411 13:43:04.046378  3145 net.cpp:100] Creating Layer drop4
I0411 13:43:04.046383  3145 net.cpp:434] drop4 <- fc4_300
I0411 13:43:04.046389  3145 net.cpp:395] drop4 -> fc4_300 (in-place)
I0411 13:43:04.046416  3145 net.cpp:150] Setting up drop4
I0411 13:43:04.046422  3145 net.cpp:157] Top shape: 1024 300 (307200)
I0411 13:43:04.046424  3145 net.cpp:165] Memory required for data: 4107943936
I0411 13:43:04.046427  3145 layer_factory.hpp:77] Creating layer fc5_67
I0411 13:43:04.046433  3145 net.cpp:100] Creating Layer fc5_67
I0411 13:43:04.046445  3145 net.cpp:434] fc5_67 <- fc4_300
I0411 13:43:04.046452  3145 net.cpp:408] fc5_67 -> fc5_classes
I0411 13:43:04.046705  3145 net.cpp:150] Setting up fc5_67
I0411 13:43:04.046715  3145 net.cpp:157] Top shape: 1024 67 (68608)
I0411 13:43:04.046717  3145 net.cpp:165] Memory required for data: 4108218368
I0411 13:43:04.046726  3145 layer_factory.hpp:77] Creating layer fc5_classes_fc5_67_0_split
I0411 13:43:04.046733  3145 net.cpp:100] Creating Layer fc5_classes_fc5_67_0_split
I0411 13:43:04.046737  3145 net.cpp:434] fc5_classes_fc5_67_0_split <- fc5_classes
I0411 13:43:04.046742  3145 net.cpp:408] fc5_classes_fc5_67_0_split -> fc5_classes_fc5_67_0_split_0
I0411 13:43:04.046751  3145 net.cpp:408] fc5_classes_fc5_67_0_split -> fc5_classes_fc5_67_0_split_1
I0411 13:43:04.046756  3145 net.cpp:408] fc5_classes_fc5_67_0_split -> fc5_classes_fc5_67_0_split_2
I0411 13:43:04.046813  3145 net.cpp:150] Setting up fc5_classes_fc5_67_0_split
I0411 13:43:04.046819  3145 net.cpp:157] Top shape: 1024 67 (68608)
I0411 13:43:04.046823  3145 net.cpp:157] Top shape: 1024 67 (68608)
I0411 13:43:04.046826  3145 net.cpp:157] Top shape: 1024 67 (68608)
I0411 13:43:04.046829  3145 net.cpp:165] Memory required for data: 4109041664
I0411 13:43:04.046833  3145 layer_factory.hpp:77] Creating layer loss
I0411 13:43:04.046838  3145 net.cpp:100] Creating Layer loss
I0411 13:43:04.046841  3145 net.cpp:434] loss <- fc5_classes_fc5_67_0_split_0
I0411 13:43:04.046859  3145 net.cpp:434] loss <- label_data_1_split_0
I0411 13:43:04.046864  3145 net.cpp:408] loss -> loss
…
