…
I0411 13:15:37.601953 16459 net.cpp:322] The NetState phase (0) differed from the phase (1) specified by a rule in layer accuracy_5
I0411 13:15:37.602098 16459 net.cpp:58] Initializing net from parameters: 
state {
  phase: TRAIN
  level: 0
  stage: ""
}
layer {
  name: "data"
  type: "Data"
  top: "data"
  top: "label"
  include {
    phase: TRAIN
  }
  transform_param {
    scale: 0.0039215689
    mirror: false
    crop_size: 48
    mean_value: 132
    mean_value: 132
    mean_value: 131
  }
  data_param {
    source: "../local_data/lmdb/rtsd-r1/CoNorm/train/lmdb"
    batch_size: 1024
    backend: LMDB
  }
}
layer {
  name: "conv1"
  type: "Convolution"
  bottom: "data"
  top: "conv1"
  convolution_param {
    num_output: 100
    pad: 0
    kernel_size: 7
    group: 1
    stride: 1
    weight_filler {
      type: "xavier"
    }
  }
}
layer {
  name: "conv1_prescale"
  type: "Scale"
  bottom: "conv1"
  top: "conv1"
  param {
    lr_mult: 0
    decay_mult: 0
  }
  scale_param {
    filler {
      value: 0.6666
    }
    bias_term: false
  }
}
layer {
  name: "conv1_sTanH"
  type: "TanH"
  bottom: "conv1"
  top: "conv1"
}
layer {
  name: "conv1_postscale"
  type: "Scale"
  bottom: "conv1"
  top: "conv1"
  param {
    lr_mult: 0
    decay_mult: 0
  }
  scale_param {
    filler {
      value: 1.7159
    }
    bias_term: false
  }
}
layer {
  name: "pool1"
  type: "Pooling"
  bottom: "conv1"
  top: "pool1"
  pooling_param {
    pool: MAX
    kernel_size: 2
    stride: 2
  }
}
layer {
  name: "conv2"
  type: "Convolution"
  bottom: "pool1"
  top: "conv2"
  convolution_param {
    num_output: 150
    pad: 0
    kernel_size: 4
    group: 1
    stride: 1
    weight_filler {
      type: "xavier"
    }
  }
}
layer {
  name: "conv2_prescale"
  type: "Scale"
  bottom: "conv2"
  top: "conv2"
  param {
    lr_mult: 0
    decay_mult: 0
  }
  scale_param {
    filler {
      value: 0.6666
    }
    bias_term: false
  }
}
layer {
  name: "conv2_sTanH"
  type: "TanH"
  bottom: "conv2"
  top: "conv2"
}
layer {
  name: "conv2_postscale"
  type: "Scale"
  bottom: "conv2"
  top: "conv2"
  param {
    lr_mult: 0
    decay_mult: 0
  }
  scale_param {
    filler {
      value: 1.7159
    }
    bias_term: false
  }
}
layer {
  name: "pool2"
  type: "Pooling"
  bottom: "conv2"
  top: "pool2"
  pooling_param {
    pool: MAX
    kernel_size: 2
    stride: 2
  }
}
layer {
  name: "conv3"
  type: "Convolution"
  bottom: "pool2"
  top: "conv3"
  convolution_param {
    num_output: 250
    pad: 0
    kernel_size: 4
    group: 1
    stride: 1
    weight_filler {
      type: "xavier"
    }
  }
}
layer {
  name: "conv3_prescale"
  type: "Scale"
  bottom: "conv3"
  top: "conv3"
  param {
    lr_mult: 0
    decay_mult: 0
  }
  scale_param {
    filler {
      value: 0.6666
    }
    bias_term: false
  }
}
layer {
  name: "conv3_sTanH"
  type: "TanH"
  bottom: "conv3"
  top: "conv3"
}
layer {
  name: "conv3_postscale"
  type: "Scale"
  bottom: "conv3"
  top: "conv3"
  param {
    lr_mult: 0
    decay_mult: 0
  }
  scale_param {
    filler {
      value: 1.7159
    }
    bias_term: false
  }
}
layer {
  name: "pool3"
  type: "Pooling"
  bottom: "conv3"
  top: "pool3"
  pooling_param {
    pool: MAX
    kernel_size: 2
    stride: 2
  }
}
layer {
  name: "fc4_300"
  type: "InnerProduct"
  bottom: "pool3"
  top: "fc4_300"
  inner_product_param {
    num_output: 300
    weight_filler {
      type: "xavier"
    }
  }
}
layer {
  name: "fc4_prescale"
  type: "Scale"
  bottom: "fc4_300"
  top: "fc4_300"
  param {
    lr_mult: 0
    decay_mult: 0
  }
  scale_param {
    filler {
      value: 0.6666
    }
    bias_term: false
  }
}
layer {
  name: "fc4_sTanH"
  type: "TanH"
  bottom: "fc4_300"
  top: "fc4_300"
}
layer {
  name: "fc4_postscale"
  type: "Scale"
  bottom: "fc4_300"
  top: "fc4_300"
  param {
    lr_mult: 0
    decay_mult: 0
  }
  scale_param {
    filler {
      value: 1.7159
    }
    bias_term: false
  }
}
layer {
  name: "drop4"
  type: "Dropout"
  bottom: "fc4_300"
  top: "fc4_300"
  dropout_param {
    dropout_ratio: 0.4
  }
}
layer {
  name: "fc5_67"
  type: "InnerProduct"
  bottom: "fc4_300"
  top: "fc5_classes"
  inner_product_param {
    num_output: 67
    weight_filler {
      type: "xavier"
    }
  }
}
layer {
  name: "loss"
  type: "SoftmaxWithLoss"
  bottom: "fc5_classes"
  bottom: "label"
  top: "loss"
}
I0411 13:15:37.602198 16459 layer_factory.hpp:77] Creating layer data
I0411 13:15:37.603266 16459 net.cpp:100] Creating Layer data
I0411 13:15:37.603283 16459 net.cpp:408] data -> data
I0411 13:15:37.603307 16459 net.cpp:408] data -> label
I0411 13:15:37.604837 16600 db_lmdb.cpp:35] Opened lmdb ../local_data/lmdb/rtsd-r1/CoNorm/train/lmdb
I0411 13:15:37.621870 16459 data_layer.cpp:41] output data size: 1024,3,48,48
I0411 13:15:37.705350 16459 net.cpp:150] Setting up data
I0411 13:15:37.705386 16459 net.cpp:157] Top shape: 1024 3 48 48 (7077888)
I0411 13:15:37.705394 16459 net.cpp:157] Top shape: 1024 (1024)
I0411 13:15:37.705397 16459 net.cpp:165] Memory required for data: 28315648
I0411 13:15:37.705410 16459 layer_factory.hpp:77] Creating layer conv1
I0411 13:15:37.705442 16459 net.cpp:100] Creating Layer conv1
I0411 13:15:37.705452 16459 net.cpp:434] conv1 <- data
I0411 13:15:37.705468 16459 net.cpp:408] conv1 -> conv1
I0411 13:15:38.401412 16459 net.cpp:150] Setting up conv1
I0411 13:15:38.401444 16459 net.cpp:157] Top shape: 1024 100 42 42 (180633600)
I0411 13:15:38.401448 16459 net.cpp:165] Memory required for data: 750850048
I0411 13:15:38.401473 16459 layer_factory.hpp:77] Creating layer conv1_prescale
I0411 13:15:38.401487 16459 net.cpp:100] Creating Layer conv1_prescale
I0411 13:15:38.401491 16459 net.cpp:434] conv1_prescale <- conv1
I0411 13:15:38.401499 16459 net.cpp:395] conv1_prescale -> conv1 (in-place)
I0411 13:15:38.401604 16459 net.cpp:150] Setting up conv1_prescale
I0411 13:15:38.401614 16459 net.cpp:157] Top shape: 1024 100 42 42 (180633600)
I0411 13:15:38.401618 16459 net.cpp:165] Memory required for data: 1473384448
I0411 13:15:38.401623 16459 layer_factory.hpp:77] Creating layer conv1_sTanH
I0411 13:15:38.401629 16459 net.cpp:100] Creating Layer conv1_sTanH
I0411 13:15:38.401633 16459 net.cpp:434] conv1_sTanH <- conv1
I0411 13:15:38.401638 16459 net.cpp:395] conv1_sTanH -> conv1 (in-place)
I0411 13:15:38.401828 16459 net.cpp:150] Setting up conv1_sTanH
I0411 13:15:38.401842 16459 net.cpp:157] Top shape: 1024 100 42 42 (180633600)
I0411 13:15:38.401845 16459 net.cpp:165] Memory required for data: 2195918848
I0411 13:15:38.401849 16459 layer_factory.hpp:77] Creating layer conv1_postscale
I0411 13:15:38.401857 16459 net.cpp:100] Creating Layer conv1_postscale
I0411 13:15:38.401860 16459 net.cpp:434] conv1_postscale <- conv1
I0411 13:15:38.401865 16459 net.cpp:395] conv1_postscale -> conv1 (in-place)
I0411 13:15:38.401957 16459 net.cpp:150] Setting up conv1_postscale
I0411 13:15:38.401967 16459 net.cpp:157] Top shape: 1024 100 42 42 (180633600)
I0411 13:15:38.401969 16459 net.cpp:165] Memory required for data: 2918453248
I0411 13:15:38.401975 16459 layer_factory.hpp:77] Creating layer pool1
I0411 13:15:38.401981 16459 net.cpp:100] Creating Layer pool1
I0411 13:15:38.401984 16459 net.cpp:434] pool1 <- conv1
I0411 13:15:38.401989 16459 net.cpp:408] pool1 -> pool1
I0411 13:15:38.402062 16459 net.cpp:150] Setting up pool1
I0411 13:15:38.402071 16459 net.cpp:157] Top shape: 1024 100 21 21 (45158400)
I0411 13:15:38.402074 16459 net.cpp:165] Memory required for data: 3099086848
I0411 13:15:38.402077 16459 layer_factory.hpp:77] Creating layer conv2
I0411 13:15:38.402087 16459 net.cpp:100] Creating Layer conv2
I0411 13:15:38.402092 16459 net.cpp:434] conv2 <- pool1
I0411 13:15:38.402097 16459 net.cpp:408] conv2 -> conv2
I0411 13:15:38.406713 16459 net.cpp:150] Setting up conv2
I0411 13:15:38.406728 16459 net.cpp:157] Top shape: 1024 150 18 18 (49766400)
I0411 13:15:38.406733 16459 net.cpp:165] Memory required for data: 3298152448
I0411 13:15:38.406743 16459 layer_factory.hpp:77] Creating layer conv2_prescale
I0411 13:15:38.406750 16459 net.cpp:100] Creating Layer conv2_prescale
I0411 13:15:38.406754 16459 net.cpp:434] conv2_prescale <- conv2
I0411 13:15:38.406759 16459 net.cpp:395] conv2_prescale -> conv2 (in-place)
I0411 13:15:38.406863 16459 net.cpp:150] Setting up conv2_prescale
I0411 13:15:38.406872 16459 net.cpp:157] Top shape: 1024 150 18 18 (49766400)
I0411 13:15:38.406875 16459 net.cpp:165] Memory required for data: 3497218048
I0411 13:15:38.406882 16459 layer_factory.hpp:77] Creating layer conv2_sTanH
I0411 13:15:38.406888 16459 net.cpp:100] Creating Layer conv2_sTanH
I0411 13:15:38.406893 16459 net.cpp:434] conv2_sTanH <- conv2
I0411 13:15:38.406898 16459 net.cpp:395] conv2_sTanH -> conv2 (in-place)
I0411 13:15:38.408080 16459 net.cpp:150] Setting up conv2_sTanH
I0411 13:15:38.408095 16459 net.cpp:157] Top shape: 1024 150 18 18 (49766400)
I0411 13:15:38.408098 16459 net.cpp:165] Memory required for data: 3696283648
I0411 13:15:38.408102 16459 layer_factory.hpp:77] Creating layer conv2_postscale
I0411 13:15:38.408109 16459 net.cpp:100] Creating Layer conv2_postscale
I0411 13:15:38.408113 16459 net.cpp:434] conv2_postscale <- conv2
I0411 13:15:38.408118 16459 net.cpp:395] conv2_postscale -> conv2 (in-place)
I0411 13:15:38.408210 16459 net.cpp:150] Setting up conv2_postscale
I0411 13:15:38.408219 16459 net.cpp:157] Top shape: 1024 150 18 18 (49766400)
I0411 13:15:38.408222 16459 net.cpp:165] Memory required for data: 3895349248
I0411 13:15:38.408227 16459 layer_factory.hpp:77] Creating layer pool2
I0411 13:15:38.408233 16459 net.cpp:100] Creating Layer pool2
I0411 13:15:38.408236 16459 net.cpp:434] pool2 <- conv2
I0411 13:15:38.408241 16459 net.cpp:408] pool2 -> pool2
I0411 13:15:38.408283 16459 net.cpp:150] Setting up pool2
I0411 13:15:38.408290 16459 net.cpp:157] Top shape: 1024 150 9 9 (12441600)
I0411 13:15:38.408293 16459 net.cpp:165] Memory required for data: 3945115648
I0411 13:15:38.408298 16459 layer_factory.hpp:77] Creating layer conv3
I0411 13:15:38.408305 16459 net.cpp:100] Creating Layer conv3
I0411 13:15:38.408310 16459 net.cpp:434] conv3 <- pool2
I0411 13:15:38.408315 16459 net.cpp:408] conv3 -> conv3
I0411 13:15:38.414316 16459 net.cpp:150] Setting up conv3
I0411 13:15:38.414332 16459 net.cpp:157] Top shape: 1024 250 6 6 (9216000)
I0411 13:15:38.414336 16459 net.cpp:165] Memory required for data: 3981979648
I0411 13:15:38.414346 16459 layer_factory.hpp:77] Creating layer conv3_prescale
I0411 13:15:38.414355 16459 net.cpp:100] Creating Layer conv3_prescale
I0411 13:15:38.414357 16459 net.cpp:434] conv3_prescale <- conv3
I0411 13:15:38.414363 16459 net.cpp:395] conv3_prescale -> conv3 (in-place)
I0411 13:15:38.414454 16459 net.cpp:150] Setting up conv3_prescale
I0411 13:15:38.414463 16459 net.cpp:157] Top shape: 1024 250 6 6 (9216000)
I0411 13:15:38.414466 16459 net.cpp:165] Memory required for data: 4018843648
I0411 13:15:38.414471 16459 layer_factory.hpp:77] Creating layer conv3_sTanH
I0411 13:15:38.414477 16459 net.cpp:100] Creating Layer conv3_sTanH
I0411 13:15:38.414480 16459 net.cpp:434] conv3_sTanH <- conv3
I0411 13:15:38.414484 16459 net.cpp:395] conv3_sTanH -> conv3 (in-place)
I0411 13:15:38.415326 16459 net.cpp:150] Setting up conv3_sTanH
I0411 13:15:38.415340 16459 net.cpp:157] Top shape: 1024 250 6 6 (9216000)
I0411 13:15:38.415344 16459 net.cpp:165] Memory required for data: 4055707648
I0411 13:15:38.415365 16459 layer_factory.hpp:77] Creating layer conv3_postscale
I0411 13:15:38.415374 16459 net.cpp:100] Creating Layer conv3_postscale
I0411 13:15:38.415376 16459 net.cpp:434] conv3_postscale <- conv3
I0411 13:15:38.415382 16459 net.cpp:395] conv3_postscale -> conv3 (in-place)
I0411 13:15:38.415478 16459 net.cpp:150] Setting up conv3_postscale
I0411 13:15:38.415488 16459 net.cpp:157] Top shape: 1024 250 6 6 (9216000)
I0411 13:15:38.415491 16459 net.cpp:165] Memory required for data: 4092571648
I0411 13:15:38.415496 16459 layer_factory.hpp:77] Creating layer pool3
I0411 13:15:38.415501 16459 net.cpp:100] Creating Layer pool3
I0411 13:15:38.415504 16459 net.cpp:434] pool3 <- conv3
I0411 13:15:38.415509 16459 net.cpp:408] pool3 -> pool3
I0411 13:15:38.415547 16459 net.cpp:150] Setting up pool3
I0411 13:15:38.415555 16459 net.cpp:157] Top shape: 1024 250 3 3 (2304000)
I0411 13:15:38.415558 16459 net.cpp:165] Memory required for data: 4101787648
I0411 13:15:38.415561 16459 layer_factory.hpp:77] Creating layer fc4_300
I0411 13:15:38.415570 16459 net.cpp:100] Creating Layer fc4_300
I0411 13:15:38.415575 16459 net.cpp:434] fc4_300 <- pool3
I0411 13:15:38.415580 16459 net.cpp:408] fc4_300 -> fc4_300
I0411 13:15:38.422399 16459 net.cpp:150] Setting up fc4_300
I0411 13:15:38.422415 16459 net.cpp:157] Top shape: 1024 300 (307200)
I0411 13:15:38.422420 16459 net.cpp:165] Memory required for data: 4103016448
I0411 13:15:38.422425 16459 layer_factory.hpp:77] Creating layer fc4_prescale
I0411 13:15:38.422433 16459 net.cpp:100] Creating Layer fc4_prescale
I0411 13:15:38.422436 16459 net.cpp:434] fc4_prescale <- fc4_300
I0411 13:15:38.422441 16459 net.cpp:395] fc4_prescale -> fc4_300 (in-place)
I0411 13:15:38.422528 16459 net.cpp:150] Setting up fc4_prescale
I0411 13:15:38.422538 16459 net.cpp:157] Top shape: 1024 300 (307200)
I0411 13:15:38.422539 16459 net.cpp:165] Memory required for data: 4104245248
I0411 13:15:38.422544 16459 layer_factory.hpp:77] Creating layer fc4_sTanH
I0411 13:15:38.422549 16459 net.cpp:100] Creating Layer fc4_sTanH
I0411 13:15:38.422552 16459 net.cpp:434] fc4_sTanH <- fc4_300
I0411 13:15:38.422556 16459 net.cpp:395] fc4_sTanH -> fc4_300 (in-place)
I0411 13:15:38.422735 16459 net.cpp:150] Setting up fc4_sTanH
I0411 13:15:38.422746 16459 net.cpp:157] Top shape: 1024 300 (307200)
I0411 13:15:38.422749 16459 net.cpp:165] Memory required for data: 4105474048
I0411 13:15:38.422752 16459 layer_factory.hpp:77] Creating layer fc4_postscale
I0411 13:15:38.422766 16459 net.cpp:100] Creating Layer fc4_postscale
I0411 13:15:38.422770 16459 net.cpp:434] fc4_postscale <- fc4_300
I0411 13:15:38.422775 16459 net.cpp:395] fc4_postscale -> fc4_300 (in-place)
I0411 13:15:38.422864 16459 net.cpp:150] Setting up fc4_postscale
I0411 13:15:38.422873 16459 net.cpp:157] Top shape: 1024 300 (307200)
I0411 13:15:38.422875 16459 net.cpp:165] Memory required for data: 4106702848
I0411 13:15:38.422881 16459 layer_factory.hpp:77] Creating layer drop4
I0411 13:15:38.422888 16459 net.cpp:100] Creating Layer drop4
I0411 13:15:38.422890 16459 net.cpp:434] drop4 <- fc4_300
I0411 13:15:38.422894 16459 net.cpp:395] drop4 -> fc4_300 (in-place)
I0411 13:15:38.422920 16459 net.cpp:150] Setting up drop4
I0411 13:15:38.422927 16459 net.cpp:157] Top shape: 1024 300 (307200)
I0411 13:15:38.422930 16459 net.cpp:165] Memory required for data: 4107931648
I0411 13:15:38.422933 16459 layer_factory.hpp:77] Creating layer fc5_67
I0411 13:15:38.422940 16459 net.cpp:100] Creating Layer fc5_67
I0411 13:15:38.422942 16459 net.cpp:434] fc5_67 <- fc4_300
I0411 13:15:38.422947 16459 net.cpp:408] fc5_67 -> fc5_classes
I0411 13:15:38.427096 16459 net.cpp:150] Setting up fc5_67
I0411 13:15:38.427119 16459 net.cpp:157] Top shape: 1024 67 (68608)
I0411 13:15:38.427124 16459 net.cpp:165] Memory required for data: 4108206080
I0411 13:15:38.427139 16459 layer_factory.hpp:77] Creating layer loss
I0411 13:15:38.427147 16459 net.cpp:100] Creating Layer loss
I0411 13:15:38.427152 16459 net.cpp:434] loss <- fc5_classes
I0411 13:15:38.427158 16459 net.cpp:434] loss <- label
I0411 13:15:38.427189 16459 net.cpp:408] loss -> loss
I0411 13:15:38.427209 16459 layer_factory.hpp:77] Creating layer loss
…
I0411 13:15:38.428138 16459 solver.cpp:193] Creating test net (#0) specified by test_net file: ./Prototxt/experiment_9/rtsd-r1/CoNorm/trial_1/test.prototxt
I0411 13:15:38.428365 16459 net.cpp:58] Initializing net from parameters: 
state {
  phase: TEST
}
layer {
  name: "data"
  type: "Data"
  top: "data"
  top: "label"
  include {
    phase: TEST
  }
  transform_param {
    scale: 0.0039215689
    mirror: false
    crop_size: 48
    mean_value: 133
    mean_value: 133
    mean_value: 132
  }
  data_param {
    source: "../local_data/lmdb/rtsd-r1/CoNorm/test/lmdb"
    batch_size: 1024
    backend: LMDB
  }
}
layer {
  name: "conv1"
  type: "Convolution"
  bottom: "data"
  top: "conv1"
  convolution_param {
    num_output: 100
    pad: 0
    kernel_size: 7
    group: 1
    stride: 1
    weight_filler {
      type: "xavier"
    }
  }
}
layer {
  name: "conv1_prescale"
  type: "Scale"
  bottom: "conv1"
  top: "conv1"
  param {
    lr_mult: 0
    decay_mult: 0
  }
  scale_param {
    filler {
      value: 0.6666
    }
    bias_term: false
  }
}
layer {
  name: "conv1_sTanH"
  type: "TanH"
  bottom: "conv1"
  top: "conv1"
}
layer {
  name: "conv1_postscale"
  type: "Scale"
  bottom: "conv1"
  top: "conv1"
  param {
    lr_mult: 0
    decay_mult: 0
  }
  scale_param {
    filler {
      value: 1.7159
    }
    bias_term: false
  }
}
layer {
  name: "pool1"
  type: "Pooling"
  bottom: "conv1"
  top: "pool1"
  pooling_param {
    pool: MAX
    kernel_size: 2
    stride: 2
  }
}
layer {
  name: "conv2"
  type: "Convolution"
  bottom: "pool1"
  top: "conv2"
  convolution_param {
    num_output: 150
    pad: 0
    kernel_size: 4
    group: 1
    stride: 1
    weight_filler {
      type: "xavier"
    }
  }
}
layer {
  name: "conv2_prescale"
  type: "Scale"
  bottom: "conv2"
  top: "conv2"
  param {
    lr_mult: 0
    decay_mult: 0
  }
  scale_param {
    filler {
      value: 0.6666
    }
    bias_term: false
  }
}
layer {
  name: "conv2_sTanH"
  type: "TanH"
  bottom: "conv2"
  top: "conv2"
}
layer {
  name: "conv2_postscale"
  type: "Scale"
  bottom: "conv2"
  top: "conv2"
  param {
    lr_mult: 0
    decay_mult: 0
  }
  scale_param {
    filler {
      value: 1.7159
    }
    bias_term: false
  }
}
layer {
  name: "pool2"
  type: "Pooling"
  bottom: "conv2"
  top: "pool2"
  pooling_param {
    pool: MAX
    kernel_size: 2
    stride: 2
  }
}
layer {
  name: "conv3"
  type: "Convolution"
  bottom: "pool2"
  top: "conv3"
  convolution_param {
    num_output: 250
    pad: 0
    kernel_size: 4
    group: 1
    stride: 1
    weight_filler {
      type: "xavier"
    }
  }
}
layer {
  name: "conv3_prescale"
  type: "Scale"
  bottom: "conv3"
  top: "conv3"
  param {
    lr_mult: 0
    decay_mult: 0
  }
  scale_param {
    filler {
      value: 0.6666
    }
    bias_term: false
  }
}
layer {
  name: "conv3_sTanH"
  type: "TanH"
  bottom: "conv3"
  top: "conv3"
}
layer {
  name: "conv3_postscale"
  type: "Scale"
  bottom: "conv3"
  top: "conv3"
  param {
    lr_mult: 0
    decay_mult: 0
  }
  scale_param {
    filler {
      value: 1.7159
    }
    bias_term: false
  }
}
layer {
  name: "pool3"
  type: "Pooling"
  bottom: "conv3"
  top: "pool3"
  pooling_param {
    pool: MAX
    kernel_size: 2
    stride: 2
  }
}
layer {
  name: "fc4_300"
  type: "InnerProduct"
  bottom: "pool3"
  top: "fc4_300"
  inner_product_param {
    num_output: 300
    weight_filler {
      type: "xavier"
    }
  }
}
layer {
  name: "fc4_prescale"
  type: "Scale"
  bottom: "fc4_300"
  top: "fc4_300"
  param {
    lr_mult: 0
    decay_mult: 0
  }
  scale_param {
    filler {
      value: 0.6666
    }
    bias_term: false
  }
}
layer {
  name: "fc4_sTanH"
  type: "TanH"
  bottom: "fc4_300"
  top: "fc4_300"
}
layer {
  name: "fc4_postscale"
  type: "Scale"
  bottom: "fc4_300"
  top: "fc4_300"
  param {
    lr_mult: 0
    decay_mult: 0
  }
  scale_param {
    filler {
      value: 1.7159
    }
    bias_term: false
  }
}
layer {
  name: "drop4"
  type: "Dropout"
  bottom: "fc4_300"
  top: "fc4_300"
  dropout_param {
    dropout_ratio: 0.4
  }
}
layer {
  name: "fc5_67"
  type: "InnerProduct"
  bottom: "fc4_300"
  top: "fc5_classes"
  inner_product_param {
    num_output: 67
    weight_filler {
      type: "xavier"
    }
  }
}
layer {
  name: "loss"
  type: "SoftmaxWithLoss"
  bottom: "fc5_classes"
  bottom: "label"
  top: "loss"
}
layer {
  name: "accuracy_1"
  type: "Accuracy"
  bottom: "fc5_classes"
  bottom: "label"
  top: "accuracy_1"
  include {
    phase: TEST
  }
  accuracy_param {
    top_k: 1
  }
}
layer {
  name: "accuracy_5"
  type: "Accuracy"
  bottom: "fc5_classes"
  bottom: "label"
  top: "accuracy_5"
  include {
    phase: TEST
  }
  accuracy_param {
    top_k: 5
  }
}
I0411 13:15:38.428503 16459 layer_factory.hpp:77] Creating layer data
I0411 13:15:38.439959 16459 net.cpp:100] Creating Layer data
I0411 13:15:38.439991 16459 net.cpp:408] data -> data
I0411 13:15:38.440009 16459 net.cpp:408] data -> label
I0411 13:15:38.442188 16677 db_lmdb.cpp:35] Opened lmdb ../local_data/lmdb/rtsd-r1/CoNorm/test/lmdb
I0411 13:15:38.442378 16459 data_layer.cpp:41] output data size: 1024,3,48,48
I0411 13:15:38.495600 16459 net.cpp:150] Setting up data
I0411 13:15:38.495631 16459 net.cpp:157] Top shape: 1024 3 48 48 (7077888)
I0411 13:15:38.495638 16459 net.cpp:157] Top shape: 1024 (1024)
I0411 13:15:38.495641 16459 net.cpp:165] Memory required for data: 28315648
I0411 13:15:38.495648 16459 layer_factory.hpp:77] Creating layer label_data_1_split
I0411 13:15:38.495664 16459 net.cpp:100] Creating Layer label_data_1_split
I0411 13:15:38.495669 16459 net.cpp:434] label_data_1_split <- label
I0411 13:15:38.495678 16459 net.cpp:408] label_data_1_split -> label_data_1_split_0
I0411 13:15:38.495692 16459 net.cpp:408] label_data_1_split -> label_data_1_split_1
I0411 13:15:38.495723 16459 net.cpp:408] label_data_1_split -> label_data_1_split_2
I0411 13:15:38.495841 16459 net.cpp:150] Setting up label_data_1_split
I0411 13:15:38.495852 16459 net.cpp:157] Top shape: 1024 (1024)
I0411 13:15:38.495857 16459 net.cpp:157] Top shape: 1024 (1024)
I0411 13:15:38.495862 16459 net.cpp:157] Top shape: 1024 (1024)
I0411 13:15:38.495864 16459 net.cpp:165] Memory required for data: 28327936
I0411 13:15:38.495867 16459 layer_factory.hpp:77] Creating layer conv1
I0411 13:15:38.495899 16459 net.cpp:100] Creating Layer conv1
I0411 13:15:38.495908 16459 net.cpp:434] conv1 <- data
I0411 13:15:38.495915 16459 net.cpp:408] conv1 -> conv1
I0411 13:15:38.502821 16459 net.cpp:150] Setting up conv1
I0411 13:15:38.502847 16459 net.cpp:157] Top shape: 1024 100 42 42 (180633600)
I0411 13:15:38.502852 16459 net.cpp:165] Memory required for data: 750862336
I0411 13:15:38.502867 16459 layer_factory.hpp:77] Creating layer conv1_prescale
I0411 13:15:38.502878 16459 net.cpp:100] Creating Layer conv1_prescale
I0411 13:15:38.502882 16459 net.cpp:434] conv1_prescale <- conv1
I0411 13:15:38.502890 16459 net.cpp:395] conv1_prescale -> conv1 (in-place)
I0411 13:15:38.503026 16459 net.cpp:150] Setting up conv1_prescale
I0411 13:15:38.503038 16459 net.cpp:157] Top shape: 1024 100 42 42 (180633600)
I0411 13:15:38.503042 16459 net.cpp:165] Memory required for data: 1473396736
I0411 13:15:38.503051 16459 layer_factory.hpp:77] Creating layer conv1_sTanH
I0411 13:15:38.503064 16459 net.cpp:100] Creating Layer conv1_sTanH
I0411 13:15:38.503072 16459 net.cpp:434] conv1_sTanH <- conv1
I0411 13:15:38.503077 16459 net.cpp:395] conv1_sTanH -> conv1 (in-place)
I0411 13:15:38.503315 16459 net.cpp:150] Setting up conv1_sTanH
I0411 13:15:38.503331 16459 net.cpp:157] Top shape: 1024 100 42 42 (180633600)
I0411 13:15:38.503335 16459 net.cpp:165] Memory required for data: 2195931136
I0411 13:15:38.503340 16459 layer_factory.hpp:77] Creating layer conv1_postscale
I0411 13:15:38.503346 16459 net.cpp:100] Creating Layer conv1_postscale
I0411 13:15:38.503350 16459 net.cpp:434] conv1_postscale <- conv1
I0411 13:15:38.503358 16459 net.cpp:395] conv1_postscale -> conv1 (in-place)
I0411 13:15:38.503495 16459 net.cpp:150] Setting up conv1_postscale
I0411 13:15:38.503506 16459 net.cpp:157] Top shape: 1024 100 42 42 (180633600)
I0411 13:15:38.503510 16459 net.cpp:165] Memory required for data: 2918465536
I0411 13:15:38.503516 16459 layer_factory.hpp:77] Creating layer pool1
I0411 13:15:38.503526 16459 net.cpp:100] Creating Layer pool1
I0411 13:15:38.503530 16459 net.cpp:434] pool1 <- conv1
I0411 13:15:38.503537 16459 net.cpp:408] pool1 -> pool1
I0411 13:15:38.503590 16459 net.cpp:150] Setting up pool1
I0411 13:15:38.503600 16459 net.cpp:157] Top shape: 1024 100 21 21 (45158400)
I0411 13:15:38.503607 16459 net.cpp:165] Memory required for data: 3099099136
I0411 13:15:38.503610 16459 layer_factory.hpp:77] Creating layer conv2
I0411 13:15:38.503619 16459 net.cpp:100] Creating Layer conv2
I0411 13:15:38.503625 16459 net.cpp:434] conv2 <- pool1
I0411 13:15:38.503634 16459 net.cpp:408] conv2 -> conv2
I0411 13:15:38.510319 16459 net.cpp:150] Setting up conv2
I0411 13:15:38.510345 16459 net.cpp:157] Top shape: 1024 150 18 18 (49766400)
I0411 13:15:38.510357 16459 net.cpp:165] Memory required for data: 3298164736
I0411 13:15:38.510385 16459 layer_factory.hpp:77] Creating layer conv2_prescale
I0411 13:15:38.510402 16459 net.cpp:100] Creating Layer conv2_prescale
I0411 13:15:38.510408 16459 net.cpp:434] conv2_prescale <- conv2
I0411 13:15:38.510416 16459 net.cpp:395] conv2_prescale -> conv2 (in-place)
I0411 13:15:38.510573 16459 net.cpp:150] Setting up conv2_prescale
I0411 13:15:38.510589 16459 net.cpp:157] Top shape: 1024 150 18 18 (49766400)
I0411 13:15:38.510596 16459 net.cpp:165] Memory required for data: 3497230336
I0411 13:15:38.510601 16459 layer_factory.hpp:77] Creating layer conv2_sTanH
I0411 13:15:38.510610 16459 net.cpp:100] Creating Layer conv2_sTanH
I0411 13:15:38.510617 16459 net.cpp:434] conv2_sTanH <- conv2
I0411 13:15:38.510623 16459 net.cpp:395] conv2_sTanH -> conv2 (in-place)
I0411 13:15:38.511585 16459 net.cpp:150] Setting up conv2_sTanH
I0411 13:15:38.511605 16459 net.cpp:157] Top shape: 1024 150 18 18 (49766400)
I0411 13:15:38.511611 16459 net.cpp:165] Memory required for data: 3696295936
I0411 13:15:38.511615 16459 layer_factory.hpp:77] Creating layer conv2_postscale
I0411 13:15:38.511625 16459 net.cpp:100] Creating Layer conv2_postscale
I0411 13:15:38.511631 16459 net.cpp:434] conv2_postscale <- conv2
I0411 13:15:38.511641 16459 net.cpp:395] conv2_postscale -> conv2 (in-place)
I0411 13:15:38.511775 16459 net.cpp:150] Setting up conv2_postscale
I0411 13:15:38.511785 16459 net.cpp:157] Top shape: 1024 150 18 18 (49766400)
I0411 13:15:38.511788 16459 net.cpp:165] Memory required for data: 3895361536
I0411 13:15:38.511801 16459 layer_factory.hpp:77] Creating layer pool2
I0411 13:15:38.511809 16459 net.cpp:100] Creating Layer pool2
I0411 13:15:38.511818 16459 net.cpp:434] pool2 <- conv2
I0411 13:15:38.511827 16459 net.cpp:408] pool2 -> pool2
I0411 13:15:38.511907 16459 net.cpp:150] Setting up pool2
I0411 13:15:38.511921 16459 net.cpp:157] Top shape: 1024 150 9 9 (12441600)
I0411 13:15:38.511925 16459 net.cpp:165] Memory required for data: 3945127936
I0411 13:15:38.511935 16459 layer_factory.hpp:77] Creating layer conv3
I0411 13:15:38.511950 16459 net.cpp:100] Creating Layer conv3
I0411 13:15:38.511956 16459 net.cpp:434] conv3 <- pool2
I0411 13:15:38.511965 16459 net.cpp:408] conv3 -> conv3
I0411 13:15:38.518849 16459 net.cpp:150] Setting up conv3
I0411 13:15:38.518884 16459 net.cpp:157] Top shape: 1024 250 6 6 (9216000)
I0411 13:15:38.518889 16459 net.cpp:165] Memory required for data: 3981991936
I0411 13:15:38.518901 16459 layer_factory.hpp:77] Creating layer conv3_prescale
I0411 13:15:38.518913 16459 net.cpp:100] Creating Layer conv3_prescale
I0411 13:15:38.518918 16459 net.cpp:434] conv3_prescale <- conv3
I0411 13:15:38.518924 16459 net.cpp:395] conv3_prescale -> conv3 (in-place)
I0411 13:15:38.519058 16459 net.cpp:150] Setting up conv3_prescale
I0411 13:15:38.519069 16459 net.cpp:157] Top shape: 1024 250 6 6 (9216000)
I0411 13:15:38.519073 16459 net.cpp:165] Memory required for data: 4018855936
I0411 13:15:38.519079 16459 layer_factory.hpp:77] Creating layer conv3_sTanH
I0411 13:15:38.519086 16459 net.cpp:100] Creating Layer conv3_sTanH
I0411 13:15:38.519096 16459 net.cpp:434] conv3_sTanH <- conv3
I0411 13:15:38.519107 16459 net.cpp:395] conv3_sTanH -> conv3 (in-place)
I0411 13:15:38.520076 16459 net.cpp:150] Setting up conv3_sTanH
I0411 13:15:38.520100 16459 net.cpp:157] Top shape: 1024 250 6 6 (9216000)
I0411 13:15:38.520107 16459 net.cpp:165] Memory required for data: 4055719936
I0411 13:15:38.520110 16459 layer_factory.hpp:77] Creating layer conv3_postscale
I0411 13:15:38.520123 16459 net.cpp:100] Creating Layer conv3_postscale
I0411 13:15:38.520128 16459 net.cpp:434] conv3_postscale <- conv3
I0411 13:15:38.520135 16459 net.cpp:395] conv3_postscale -> conv3 (in-place)
I0411 13:15:38.520265 16459 net.cpp:150] Setting up conv3_postscale
I0411 13:15:38.520277 16459 net.cpp:157] Top shape: 1024 250 6 6 (9216000)
I0411 13:15:38.520280 16459 net.cpp:165] Memory required for data: 4092583936
I0411 13:15:38.520287 16459 layer_factory.hpp:77] Creating layer pool3
I0411 13:15:38.520300 16459 net.cpp:100] Creating Layer pool3
I0411 13:15:38.520306 16459 net.cpp:434] pool3 <- conv3
I0411 13:15:38.520313 16459 net.cpp:408] pool3 -> pool3
I0411 13:15:38.520364 16459 net.cpp:150] Setting up pool3
I0411 13:15:38.520377 16459 net.cpp:157] Top shape: 1024 250 3 3 (2304000)
I0411 13:15:38.520381 16459 net.cpp:165] Memory required for data: 4101799936
I0411 13:15:38.520385 16459 layer_factory.hpp:77] Creating layer fc4_300
I0411 13:15:38.520395 16459 net.cpp:100] Creating Layer fc4_300
I0411 13:15:38.520401 16459 net.cpp:434] fc4_300 <- pool3
I0411 13:15:38.520406 16459 net.cpp:408] fc4_300 -> fc4_300
I0411 13:15:38.527006 16459 net.cpp:150] Setting up fc4_300
I0411 13:15:38.527025 16459 net.cpp:157] Top shape: 1024 300 (307200)
I0411 13:15:38.527030 16459 net.cpp:165] Memory required for data: 4103028736
I0411 13:15:38.527055 16459 layer_factory.hpp:77] Creating layer fc4_prescale
I0411 13:15:38.527065 16459 net.cpp:100] Creating Layer fc4_prescale
I0411 13:15:38.527070 16459 net.cpp:434] fc4_prescale <- fc4_300
I0411 13:15:38.527079 16459 net.cpp:395] fc4_prescale -> fc4_300 (in-place)
I0411 13:15:38.527197 16459 net.cpp:150] Setting up fc4_prescale
I0411 13:15:38.527209 16459 net.cpp:157] Top shape: 1024 300 (307200)
I0411 13:15:38.527220 16459 net.cpp:165] Memory required for data: 4104257536
I0411 13:15:38.527225 16459 layer_factory.hpp:77] Creating layer fc4_sTanH
I0411 13:15:38.527233 16459 net.cpp:100] Creating Layer fc4_sTanH
I0411 13:15:38.527240 16459 net.cpp:434] fc4_sTanH <- fc4_300
I0411 13:15:38.527245 16459 net.cpp:395] fc4_sTanH -> fc4_300 (in-place)
I0411 13:15:38.527489 16459 net.cpp:150] Setting up fc4_sTanH
I0411 13:15:38.527505 16459 net.cpp:157] Top shape: 1024 300 (307200)
I0411 13:15:38.527509 16459 net.cpp:165] Memory required for data: 4105486336
I0411 13:15:38.527513 16459 layer_factory.hpp:77] Creating layer fc4_postscale
I0411 13:15:38.527521 16459 net.cpp:100] Creating Layer fc4_postscale
I0411 13:15:38.527529 16459 net.cpp:434] fc4_postscale <- fc4_300
I0411 13:15:38.527535 16459 net.cpp:395] fc4_postscale -> fc4_300 (in-place)
I0411 13:15:38.527660 16459 net.cpp:150] Setting up fc4_postscale
I0411 13:15:38.527670 16459 net.cpp:157] Top shape: 1024 300 (307200)
I0411 13:15:38.527674 16459 net.cpp:165] Memory required for data: 4106715136
I0411 13:15:38.527681 16459 layer_factory.hpp:77] Creating layer drop4
I0411 13:15:38.527689 16459 net.cpp:100] Creating Layer drop4
I0411 13:15:38.527693 16459 net.cpp:434] drop4 <- fc4_300
I0411 13:15:38.527701 16459 net.cpp:395] drop4 -> fc4_300 (in-place)
I0411 13:15:38.527730 16459 net.cpp:150] Setting up drop4
I0411 13:15:38.527740 16459 net.cpp:157] Top shape: 1024 300 (307200)
I0411 13:15:38.527743 16459 net.cpp:165] Memory required for data: 4107943936
I0411 13:15:38.527746 16459 layer_factory.hpp:77] Creating layer fc5_67
I0411 13:15:38.527756 16459 net.cpp:100] Creating Layer fc5_67
I0411 13:15:38.527760 16459 net.cpp:434] fc5_67 <- fc4_300
I0411 13:15:38.527767 16459 net.cpp:408] fc5_67 -> fc5_classes
I0411 13:15:38.528092 16459 net.cpp:150] Setting up fc5_67
I0411 13:15:38.528103 16459 net.cpp:157] Top shape: 1024 67 (68608)
I0411 13:15:38.528106 16459 net.cpp:165] Memory required for data: 4108218368
I0411 13:15:38.528118 16459 layer_factory.hpp:77] Creating layer fc5_classes_fc5_67_0_split
I0411 13:15:38.528126 16459 net.cpp:100] Creating Layer fc5_classes_fc5_67_0_split
I0411 13:15:38.528129 16459 net.cpp:434] fc5_classes_fc5_67_0_split <- fc5_classes
I0411 13:15:38.528138 16459 net.cpp:408] fc5_classes_fc5_67_0_split -> fc5_classes_fc5_67_0_split_0
I0411 13:15:38.528146 16459 net.cpp:408] fc5_classes_fc5_67_0_split -> fc5_classes_fc5_67_0_split_1
I0411 13:15:38.528154 16459 net.cpp:408] fc5_classes_fc5_67_0_split -> fc5_classes_fc5_67_0_split_2
I0411 13:15:38.528220 16459 net.cpp:150] Setting up fc5_classes_fc5_67_0_split
I0411 13:15:38.528229 16459 net.cpp:157] Top shape: 1024 67 (68608)
I0411 13:15:38.528234 16459 net.cpp:157] Top shape: 1024 67 (68608)
I0411 13:15:38.528237 16459 net.cpp:157] Top shape: 1024 67 (68608)
I0411 13:15:38.528240 16459 net.cpp:165] Memory required for data: 4109041664
I0411 13:15:38.528244 16459 layer_factory.hpp:77] Creating layer loss
I0411 13:15:38.528251 16459 net.cpp:100] Creating Layer loss
I0411 13:15:38.528254 16459 net.cpp:434] loss <- fc5_classes_fc5_67_0_split_0
I0411 13:15:38.528260 16459 net.cpp:434] loss <- label_data_1_split_0
I0411 13:15:38.528267 16459 net.cpp:408] loss -> loss
…
