…
I0411 13:28:04.400297 19840 net.cpp:322] The NetState phase (0) differed from the phase (1) specified by a rule in layer accuracy_5
I0411 13:28:04.400481 19840 net.cpp:58] Initializing net from parameters: 
state {
  phase: TRAIN
  level: 0
  stage: ""
}
layer {
  name: "data"
  type: "Data"
  top: "data"
  top: "label"
  include {
    phase: TRAIN
  }
  transform_param {
    scale: 0.0039215689
    mirror: false
    crop_size: 48
    mean_value: 132
    mean_value: 132
    mean_value: 131
  }
  data_param {
    source: "../local_data/lmdb/rtsd-r1/CoNorm/train/lmdb"
    batch_size: 1024
    backend: LMDB
  }
}
layer {
  name: "conv1"
  type: "Convolution"
  bottom: "data"
  top: "conv1"
  convolution_param {
    num_output: 100
    pad: 0
    kernel_size: 7
    group: 1
    stride: 1
    weight_filler {
      type: "xavier"
    }
  }
}
layer {
  name: "conv1_prescale"
  type: "Scale"
  bottom: "conv1"
  top: "conv1"
  param {
    lr_mult: 0
    decay_mult: 0
  }
  scale_param {
    filler {
      value: 0.6666
    }
    bias_term: false
  }
}
layer {
  name: "conv1_sTanH"
  type: "TanH"
  bottom: "conv1"
  top: "conv1"
}
layer {
  name: "conv1_postscale"
  type: "Scale"
  bottom: "conv1"
  top: "conv1"
  param {
    lr_mult: 0
    decay_mult: 0
  }
  scale_param {
    filler {
      value: 1.7159
    }
    bias_term: false
  }
}
layer {
  name: "pool1"
  type: "Pooling"
  bottom: "conv1"
  top: "pool1"
  pooling_param {
    pool: MAX
    kernel_size: 2
    stride: 2
  }
}
layer {
  name: "conv2"
  type: "Convolution"
  bottom: "pool1"
  top: "conv2"
  convolution_param {
    num_output: 150
    pad: 0
    kernel_size: 4
    group: 1
    stride: 1
    weight_filler {
      type: "xavier"
    }
  }
}
layer {
  name: "conv2_prescale"
  type: "Scale"
  bottom: "conv2"
  top: "conv2"
  param {
    lr_mult: 0
    decay_mult: 0
  }
  scale_param {
    filler {
      value: 0.6666
    }
    bias_term: false
  }
}
layer {
  name: "conv2_sTanH"
  type: "TanH"
  bottom: "conv2"
  top: "conv2"
}
layer {
  name: "conv2_postscale"
  type: "Scale"
  bottom: "conv2"
  top: "conv2"
  param {
    lr_mult: 0
    decay_mult: 0
  }
  scale_param {
    filler {
      value: 1.7159
    }
    bias_term: false
  }
}
layer {
  name: "pool2"
  type: "Pooling"
  bottom: "conv2"
  top: "pool2"
  pooling_param {
    pool: MAX
    kernel_size: 2
    stride: 2
  }
}
layer {
  name: "conv3"
  type: "Convolution"
  bottom: "pool2"
  top: "conv3"
  convolution_param {
    num_output: 250
    pad: 0
    kernel_size: 4
    group: 1
    stride: 1
    weight_filler {
      type: "xavier"
    }
  }
}
layer {
  name: "conv3_prescale"
  type: "Scale"
  bottom: "conv3"
  top: "conv3"
  param {
    lr_mult: 0
    decay_mult: 0
  }
  scale_param {
    filler {
      value: 0.6666
    }
    bias_term: false
  }
}
layer {
  name: "conv3_sTanH"
  type: "TanH"
  bottom: "conv3"
  top: "conv3"
}
layer {
  name: "conv3_postscale"
  type: "Scale"
  bottom: "conv3"
  top: "conv3"
  param {
    lr_mult: 0
    decay_mult: 0
  }
  scale_param {
    filler {
      value: 1.7159
    }
    bias_term: false
  }
}
layer {
  name: "pool3"
  type: "Pooling"
  bottom: "conv3"
  top: "pool3"
  pooling_param {
    pool: MAX
    kernel_size: 2
    stride: 2
  }
}
layer {
  name: "fc4_300"
  type: "InnerProduct"
  bottom: "pool3"
  top: "fc4_300"
  inner_product_param {
    num_output: 300
    weight_filler {
      type: "xavier"
    }
  }
}
layer {
  name: "fc4_prescale"
  type: "Scale"
  bottom: "fc4_300"
  top: "fc4_300"
  param {
    lr_mult: 0
    decay_mult: 0
  }
  scale_param {
    filler {
      value: 0.6666
    }
    bias_term: false
  }
}
layer {
  name: "fc4_sTanH"
  type: "TanH"
  bottom: "fc4_300"
  top: "fc4_300"
}
layer {
  name: "fc4_postscale"
  type: "Scale"
  bottom: "fc4_300"
  top: "fc4_300"
  param {
    lr_mult: 0
    decay_mult: 0
  }
  scale_param {
    filler {
      value: 1.7159
    }
    bias_term: false
  }
}
layer {
  name: "drop4"
  type: "Dropout"
  bottom: "fc4_300"
  top: "fc4_300"
  dropout_param {
    dropout_ratio: 0.4
  }
}
layer {
  name: "fc5_67"
  type: "InnerProduct"
  bottom: "fc4_300"
  top: "fc5_classes"
  inner_product_param {
    num_output: 67
    weight_filler {
      type: "xavier"
    }
  }
}
layer {
  name: "loss"
  type: "SoftmaxWithLoss"
  bottom: "fc5_classes"
  bottom: "label"
  top: "loss"
}
I0411 13:28:04.400604 19840 layer_factory.hpp:77] Creating layer data
I0411 13:28:04.401875 19840 net.cpp:100] Creating Layer data
I0411 13:28:04.401893 19840 net.cpp:408] data -> data
I0411 13:28:04.401918 19840 net.cpp:408] data -> label
I0411 13:28:04.406482 19954 db_lmdb.cpp:35] Opened lmdb ../local_data/lmdb/rtsd-r1/CoNorm/train/lmdb
I0411 13:28:04.428532 19840 data_layer.cpp:41] output data size: 1024,3,48,48
I0411 13:28:04.479784 19840 net.cpp:150] Setting up data
I0411 13:28:04.479820 19840 net.cpp:157] Top shape: 1024 3 48 48 (7077888)
I0411 13:28:04.479826 19840 net.cpp:157] Top shape: 1024 (1024)
I0411 13:28:04.479830 19840 net.cpp:165] Memory required for data: 28315648
I0411 13:28:04.479840 19840 layer_factory.hpp:77] Creating layer conv1
I0411 13:28:04.479873 19840 net.cpp:100] Creating Layer conv1
I0411 13:28:04.479888 19840 net.cpp:434] conv1 <- data
I0411 13:28:04.479902 19840 net.cpp:408] conv1 -> conv1
I0411 13:28:05.184128 19840 net.cpp:150] Setting up conv1
I0411 13:28:05.184157 19840 net.cpp:157] Top shape: 1024 100 42 42 (180633600)
I0411 13:28:05.184161 19840 net.cpp:165] Memory required for data: 750850048
I0411 13:28:05.184183 19840 layer_factory.hpp:77] Creating layer conv1_prescale
I0411 13:28:05.184197 19840 net.cpp:100] Creating Layer conv1_prescale
I0411 13:28:05.184201 19840 net.cpp:434] conv1_prescale <- conv1
I0411 13:28:05.184211 19840 net.cpp:395] conv1_prescale -> conv1 (in-place)
I0411 13:28:05.184320 19840 net.cpp:150] Setting up conv1_prescale
I0411 13:28:05.184329 19840 net.cpp:157] Top shape: 1024 100 42 42 (180633600)
I0411 13:28:05.184332 19840 net.cpp:165] Memory required for data: 1473384448
I0411 13:28:05.184340 19840 layer_factory.hpp:77] Creating layer conv1_sTanH
I0411 13:28:05.184346 19840 net.cpp:100] Creating Layer conv1_sTanH
I0411 13:28:05.184350 19840 net.cpp:434] conv1_sTanH <- conv1
I0411 13:28:05.184353 19840 net.cpp:395] conv1_sTanH -> conv1 (in-place)
I0411 13:28:05.184548 19840 net.cpp:150] Setting up conv1_sTanH
I0411 13:28:05.184561 19840 net.cpp:157] Top shape: 1024 100 42 42 (180633600)
I0411 13:28:05.184563 19840 net.cpp:165] Memory required for data: 2195918848
I0411 13:28:05.184567 19840 layer_factory.hpp:77] Creating layer conv1_postscale
I0411 13:28:05.184574 19840 net.cpp:100] Creating Layer conv1_postscale
I0411 13:28:05.184579 19840 net.cpp:434] conv1_postscale <- conv1
I0411 13:28:05.184584 19840 net.cpp:395] conv1_postscale -> conv1 (in-place)
I0411 13:28:05.184677 19840 net.cpp:150] Setting up conv1_postscale
I0411 13:28:05.184685 19840 net.cpp:157] Top shape: 1024 100 42 42 (180633600)
I0411 13:28:05.184687 19840 net.cpp:165] Memory required for data: 2918453248
I0411 13:28:05.184692 19840 layer_factory.hpp:77] Creating layer pool1
I0411 13:28:05.184700 19840 net.cpp:100] Creating Layer pool1
I0411 13:28:05.184705 19840 net.cpp:434] pool1 <- conv1
I0411 13:28:05.184710 19840 net.cpp:408] pool1 -> pool1
I0411 13:28:05.184777 19840 net.cpp:150] Setting up pool1
I0411 13:28:05.184785 19840 net.cpp:157] Top shape: 1024 100 21 21 (45158400)
I0411 13:28:05.184788 19840 net.cpp:165] Memory required for data: 3099086848
I0411 13:28:05.184792 19840 layer_factory.hpp:77] Creating layer conv2
I0411 13:28:05.184801 19840 net.cpp:100] Creating Layer conv2
I0411 13:28:05.184805 19840 net.cpp:434] conv2 <- pool1
I0411 13:28:05.184810 19840 net.cpp:408] conv2 -> conv2
I0411 13:28:05.192935 19840 net.cpp:150] Setting up conv2
I0411 13:28:05.192953 19840 net.cpp:157] Top shape: 1024 150 18 18 (49766400)
I0411 13:28:05.192957 19840 net.cpp:165] Memory required for data: 3298152448
I0411 13:28:05.192967 19840 layer_factory.hpp:77] Creating layer conv2_prescale
I0411 13:28:05.192975 19840 net.cpp:100] Creating Layer conv2_prescale
I0411 13:28:05.192978 19840 net.cpp:434] conv2_prescale <- conv2
I0411 13:28:05.192986 19840 net.cpp:395] conv2_prescale -> conv2 (in-place)
I0411 13:28:05.193099 19840 net.cpp:150] Setting up conv2_prescale
I0411 13:28:05.193107 19840 net.cpp:157] Top shape: 1024 150 18 18 (49766400)
I0411 13:28:05.193110 19840 net.cpp:165] Memory required for data: 3497218048
I0411 13:28:05.193115 19840 layer_factory.hpp:77] Creating layer conv2_sTanH
I0411 13:28:05.193122 19840 net.cpp:100] Creating Layer conv2_sTanH
I0411 13:28:05.193126 19840 net.cpp:434] conv2_sTanH <- conv2
I0411 13:28:05.193132 19840 net.cpp:395] conv2_sTanH -> conv2 (in-place)
I0411 13:28:05.195452 19840 net.cpp:150] Setting up conv2_sTanH
I0411 13:28:05.195468 19840 net.cpp:157] Top shape: 1024 150 18 18 (49766400)
I0411 13:28:05.195472 19840 net.cpp:165] Memory required for data: 3696283648
I0411 13:28:05.195475 19840 layer_factory.hpp:77] Creating layer conv2_postscale
I0411 13:28:05.195483 19840 net.cpp:100] Creating Layer conv2_postscale
I0411 13:28:05.195487 19840 net.cpp:434] conv2_postscale <- conv2
I0411 13:28:05.195493 19840 net.cpp:395] conv2_postscale -> conv2 (in-place)
I0411 13:28:05.195598 19840 net.cpp:150] Setting up conv2_postscale
I0411 13:28:05.195607 19840 net.cpp:157] Top shape: 1024 150 18 18 (49766400)
I0411 13:28:05.195611 19840 net.cpp:165] Memory required for data: 3895349248
I0411 13:28:05.195616 19840 layer_factory.hpp:77] Creating layer pool2
I0411 13:28:05.195621 19840 net.cpp:100] Creating Layer pool2
I0411 13:28:05.195624 19840 net.cpp:434] pool2 <- conv2
I0411 13:28:05.195631 19840 net.cpp:408] pool2 -> pool2
I0411 13:28:05.195672 19840 net.cpp:150] Setting up pool2
I0411 13:28:05.195679 19840 net.cpp:157] Top shape: 1024 150 9 9 (12441600)
I0411 13:28:05.195683 19840 net.cpp:165] Memory required for data: 3945115648
I0411 13:28:05.195685 19840 layer_factory.hpp:77] Creating layer conv3
I0411 13:28:05.195694 19840 net.cpp:100] Creating Layer conv3
I0411 13:28:05.195698 19840 net.cpp:434] conv3 <- pool2
I0411 13:28:05.195704 19840 net.cpp:408] conv3 -> conv3
I0411 13:28:05.202481 19840 net.cpp:150] Setting up conv3
I0411 13:28:05.202535 19840 net.cpp:157] Top shape: 1024 250 6 6 (9216000)
I0411 13:28:05.202558 19840 net.cpp:165] Memory required for data: 3981979648
I0411 13:28:05.202584 19840 layer_factory.hpp:77] Creating layer conv3_prescale
I0411 13:28:05.202612 19840 net.cpp:100] Creating Layer conv3_prescale
I0411 13:28:05.202632 19840 net.cpp:434] conv3_prescale <- conv3
I0411 13:28:05.202656 19840 net.cpp:395] conv3_prescale -> conv3 (in-place)
I0411 13:28:05.202811 19840 net.cpp:150] Setting up conv3_prescale
I0411 13:28:05.202841 19840 net.cpp:157] Top shape: 1024 250 6 6 (9216000)
I0411 13:28:05.202857 19840 net.cpp:165] Memory required for data: 4018843648
I0411 13:28:05.202882 19840 layer_factory.hpp:77] Creating layer conv3_sTanH
I0411 13:28:05.202903 19840 net.cpp:100] Creating Layer conv3_sTanH
I0411 13:28:05.202922 19840 net.cpp:434] conv3_sTanH <- conv3
I0411 13:28:05.202941 19840 net.cpp:395] conv3_sTanH -> conv3 (in-place)
I0411 13:28:05.204803 19840 net.cpp:150] Setting up conv3_sTanH
I0411 13:28:05.204828 19840 net.cpp:157] Top shape: 1024 250 6 6 (9216000)
I0411 13:28:05.204834 19840 net.cpp:165] Memory required for data: 4055707648
I0411 13:28:05.204859 19840 layer_factory.hpp:77] Creating layer conv3_postscale
I0411 13:28:05.204871 19840 net.cpp:100] Creating Layer conv3_postscale
I0411 13:28:05.204877 19840 net.cpp:434] conv3_postscale <- conv3
I0411 13:28:05.204890 19840 net.cpp:395] conv3_postscale -> conv3 (in-place)
I0411 13:28:05.205059 19840 net.cpp:150] Setting up conv3_postscale
I0411 13:28:05.205077 19840 net.cpp:157] Top shape: 1024 250 6 6 (9216000)
I0411 13:28:05.205085 19840 net.cpp:165] Memory required for data: 4092571648
I0411 13:28:05.205093 19840 layer_factory.hpp:77] Creating layer pool3
I0411 13:28:05.205102 19840 net.cpp:100] Creating Layer pool3
I0411 13:28:05.205121 19840 net.cpp:434] pool3 <- conv3
I0411 13:28:05.205129 19840 net.cpp:408] pool3 -> pool3
I0411 13:28:05.205198 19840 net.cpp:150] Setting up pool3
I0411 13:28:05.205211 19840 net.cpp:157] Top shape: 1024 250 3 3 (2304000)
I0411 13:28:05.205215 19840 net.cpp:165] Memory required for data: 4101787648
I0411 13:28:05.205220 19840 layer_factory.hpp:77] Creating layer fc4_300
I0411 13:28:05.205232 19840 net.cpp:100] Creating Layer fc4_300
I0411 13:28:05.205236 19840 net.cpp:434] fc4_300 <- pool3
I0411 13:28:05.205243 19840 net.cpp:408] fc4_300 -> fc4_300
I0411 13:28:05.211707 19840 net.cpp:150] Setting up fc4_300
I0411 13:28:05.211724 19840 net.cpp:157] Top shape: 1024 300 (307200)
I0411 13:28:05.211727 19840 net.cpp:165] Memory required for data: 4103016448
I0411 13:28:05.211735 19840 layer_factory.hpp:77] Creating layer fc4_prescale
I0411 13:28:05.211742 19840 net.cpp:100] Creating Layer fc4_prescale
I0411 13:28:05.211746 19840 net.cpp:434] fc4_prescale <- fc4_300
I0411 13:28:05.211753 19840 net.cpp:395] fc4_prescale -> fc4_300 (in-place)
I0411 13:28:05.211841 19840 net.cpp:150] Setting up fc4_prescale
I0411 13:28:05.211850 19840 net.cpp:157] Top shape: 1024 300 (307200)
I0411 13:28:05.211853 19840 net.cpp:165] Memory required for data: 4104245248
I0411 13:28:05.211859 19840 layer_factory.hpp:77] Creating layer fc4_sTanH
I0411 13:28:05.211864 19840 net.cpp:100] Creating Layer fc4_sTanH
I0411 13:28:05.211869 19840 net.cpp:434] fc4_sTanH <- fc4_300
I0411 13:28:05.211885 19840 net.cpp:395] fc4_sTanH -> fc4_300 (in-place)
I0411 13:28:05.212086 19840 net.cpp:150] Setting up fc4_sTanH
I0411 13:28:05.212098 19840 net.cpp:157] Top shape: 1024 300 (307200)
I0411 13:28:05.212102 19840 net.cpp:165] Memory required for data: 4105474048
I0411 13:28:05.212105 19840 layer_factory.hpp:77] Creating layer fc4_postscale
I0411 13:28:05.212113 19840 net.cpp:100] Creating Layer fc4_postscale
I0411 13:28:05.212118 19840 net.cpp:434] fc4_postscale <- fc4_300
I0411 13:28:05.212124 19840 net.cpp:395] fc4_postscale -> fc4_300 (in-place)
I0411 13:28:05.212224 19840 net.cpp:150] Setting up fc4_postscale
I0411 13:28:05.212232 19840 net.cpp:157] Top shape: 1024 300 (307200)
I0411 13:28:05.212235 19840 net.cpp:165] Memory required for data: 4106702848
I0411 13:28:05.212239 19840 layer_factory.hpp:77] Creating layer drop4
I0411 13:28:05.212247 19840 net.cpp:100] Creating Layer drop4
I0411 13:28:05.212251 19840 net.cpp:434] drop4 <- fc4_300
I0411 13:28:05.212255 19840 net.cpp:395] drop4 -> fc4_300 (in-place)
I0411 13:28:05.212283 19840 net.cpp:150] Setting up drop4
I0411 13:28:05.212290 19840 net.cpp:157] Top shape: 1024 300 (307200)
I0411 13:28:05.212292 19840 net.cpp:165] Memory required for data: 4107931648
I0411 13:28:05.212296 19840 layer_factory.hpp:77] Creating layer fc5_67
I0411 13:28:05.212301 19840 net.cpp:100] Creating Layer fc5_67
I0411 13:28:05.212306 19840 net.cpp:434] fc5_67 <- fc4_300
I0411 13:28:05.212312 19840 net.cpp:408] fc5_67 -> fc5_classes
I0411 13:28:05.213495 19840 net.cpp:150] Setting up fc5_67
I0411 13:28:05.213510 19840 net.cpp:157] Top shape: 1024 67 (68608)
I0411 13:28:05.213513 19840 net.cpp:165] Memory required for data: 4108206080
I0411 13:28:05.213524 19840 layer_factory.hpp:77] Creating layer loss
I0411 13:28:05.213536 19840 net.cpp:100] Creating Layer loss
I0411 13:28:05.213541 19840 net.cpp:434] loss <- fc5_classes
I0411 13:28:05.213546 19840 net.cpp:434] loss <- label
I0411 13:28:05.213565 19840 net.cpp:408] loss -> loss
I0411 13:28:05.213580 19840 layer_factory.hpp:77] Creating layer loss
…
I0411 13:28:05.214331 19840 solver.cpp:193] Creating test net (#0) specified by test_net file: ./Prototxt/experiment_9/rtsd-r1/CoNorm/trial_1/test.prototxt
I0411 13:28:05.214514 19840 net.cpp:58] Initializing net from parameters: 
state {
  phase: TEST
}
layer {
  name: "data"
  type: "Data"
  top: "data"
  top: "label"
  include {
    phase: TEST
  }
  transform_param {
    scale: 0.0039215689
    mirror: false
    crop_size: 48
    mean_value: 133
    mean_value: 133
    mean_value: 132
  }
  data_param {
    source: "../local_data/lmdb/rtsd-r1/CoNorm/test/lmdb"
    batch_size: 1024
    backend: LMDB
  }
}
layer {
  name: "conv1"
  type: "Convolution"
  bottom: "data"
  top: "conv1"
  convolution_param {
    num_output: 100
    pad: 0
    kernel_size: 7
    group: 1
    stride: 1
    weight_filler {
      type: "xavier"
    }
  }
}
layer {
  name: "conv1_prescale"
  type: "Scale"
  bottom: "conv1"
  top: "conv1"
  param {
    lr_mult: 0
    decay_mult: 0
  }
  scale_param {
    filler {
      value: 0.6666
    }
    bias_term: false
  }
}
layer {
  name: "conv1_sTanH"
  type: "TanH"
  bottom: "conv1"
  top: "conv1"
}
layer {
  name: "conv1_postscale"
  type: "Scale"
  bottom: "conv1"
  top: "conv1"
  param {
    lr_mult: 0
    decay_mult: 0
  }
  scale_param {
    filler {
      value: 1.7159
    }
    bias_term: false
  }
}
layer {
  name: "pool1"
  type: "Pooling"
  bottom: "conv1"
  top: "pool1"
  pooling_param {
    pool: MAX
    kernel_size: 2
    stride: 2
  }
}
layer {
  name: "conv2"
  type: "Convolution"
  bottom: "pool1"
  top: "conv2"
  convolution_param {
    num_output: 150
    pad: 0
    kernel_size: 4
    group: 1
    stride: 1
    weight_filler {
      type: "xavier"
    }
  }
}
layer {
  name: "conv2_prescale"
  type: "Scale"
  bottom: "conv2"
  top: "conv2"
  param {
    lr_mult: 0
    decay_mult: 0
  }
  scale_param {
    filler {
      value: 0.6666
    }
    bias_term: false
  }
}
layer {
  name: "conv2_sTanH"
  type: "TanH"
  bottom: "conv2"
  top: "conv2"
}
layer {
  name: "conv2_postscale"
  type: "Scale"
  bottom: "conv2"
  top: "conv2"
  param {
    lr_mult: 0
    decay_mult: 0
  }
  scale_param {
    filler {
      value: 1.7159
    }
    bias_term: false
  }
}
layer {
  name: "pool2"
  type: "Pooling"
  bottom: "conv2"
  top: "pool2"
  pooling_param {
    pool: MAX
    kernel_size: 2
    stride: 2
  }
}
layer {
  name: "conv3"
  type: "Convolution"
  bottom: "pool2"
  top: "conv3"
  convolution_param {
    num_output: 250
    pad: 0
    kernel_size: 4
    group: 1
    stride: 1
    weight_filler {
      type: "xavier"
    }
  }
}
layer {
  name: "conv3_prescale"
  type: "Scale"
  bottom: "conv3"
  top: "conv3"
  param {
    lr_mult: 0
    decay_mult: 0
  }
  scale_param {
    filler {
      value: 0.6666
    }
    bias_term: false
  }
}
layer {
  name: "conv3_sTanH"
  type: "TanH"
  bottom: "conv3"
  top: "conv3"
}
layer {
  name: "conv3_postscale"
  type: "Scale"
  bottom: "conv3"
  top: "conv3"
  param {
    lr_mult: 0
    decay_mult: 0
  }
  scale_param {
    filler {
      value: 1.7159
    }
    bias_term: false
  }
}
layer {
  name: "pool3"
  type: "Pooling"
  bottom: "conv3"
  top: "pool3"
  pooling_param {
    pool: MAX
    kernel_size: 2
    stride: 2
  }
}
layer {
  name: "fc4_300"
  type: "InnerProduct"
  bottom: "pool3"
  top: "fc4_300"
  inner_product_param {
    num_output: 300
    weight_filler {
      type: "xavier"
    }
  }
}
layer {
  name: "fc4_prescale"
  type: "Scale"
  bottom: "fc4_300"
  top: "fc4_300"
  param {
    lr_mult: 0
    decay_mult: 0
  }
  scale_param {
    filler {
      value: 0.6666
    }
    bias_term: false
  }
}
layer {
  name: "fc4_sTanH"
  type: "TanH"
  bottom: "fc4_300"
  top: "fc4_300"
}
layer {
  name: "fc4_postscale"
  type: "Scale"
  bottom: "fc4_300"
  top: "fc4_300"
  param {
    lr_mult: 0
    decay_mult: 0
  }
  scale_param {
    filler {
      value: 1.7159
    }
    bias_term: false
  }
}
layer {
  name: "drop4"
  type: "Dropout"
  bottom: "fc4_300"
  top: "fc4_300"
  dropout_param {
    dropout_ratio: 0.4
  }
}
layer {
  name: "fc5_67"
  type: "InnerProduct"
  bottom: "fc4_300"
  top: "fc5_classes"
  inner_product_param {
    num_output: 67
    weight_filler {
      type: "xavier"
    }
  }
}
layer {
  name: "loss"
  type: "SoftmaxWithLoss"
  bottom: "fc5_classes"
  bottom: "label"
  top: "loss"
}
layer {
  name: "accuracy_1"
  type: "Accuracy"
  bottom: "fc5_classes"
  bottom: "label"
  top: "accuracy_1"
  include {
    phase: TEST
  }
  accuracy_param {
    top_k: 1
  }
}
layer {
  name: "accuracy_5"
  type: "Accuracy"
  bottom: "fc5_classes"
  bottom: "label"
  top: "accuracy_5"
  include {
    phase: TEST
  }
  accuracy_param {
    top_k: 5
  }
}
I0411 13:28:05.214634 19840 layer_factory.hpp:77] Creating layer data
I0411 13:28:05.236994 19840 net.cpp:100] Creating Layer data
I0411 13:28:05.237032 19840 net.cpp:408] data -> data
I0411 13:28:05.237048 19840 net.cpp:408] data -> label
I0411 13:28:05.240981 20039 db_lmdb.cpp:35] Opened lmdb ../local_data/lmdb/rtsd-r1/CoNorm/test/lmdb
I0411 13:28:05.241184 19840 data_layer.cpp:41] output data size: 1024,3,48,48
I0411 13:28:05.298960 19840 net.cpp:150] Setting up data
I0411 13:28:05.298990 19840 net.cpp:157] Top shape: 1024 3 48 48 (7077888)
I0411 13:28:05.298995 19840 net.cpp:157] Top shape: 1024 (1024)
I0411 13:28:05.298997 19840 net.cpp:165] Memory required for data: 28315648
I0411 13:28:05.299005 19840 layer_factory.hpp:77] Creating layer label_data_1_split
I0411 13:28:05.299018 19840 net.cpp:100] Creating Layer label_data_1_split
I0411 13:28:05.299022 19840 net.cpp:434] label_data_1_split <- label
I0411 13:28:05.299031 19840 net.cpp:408] label_data_1_split -> label_data_1_split_0
I0411 13:28:05.299041 19840 net.cpp:408] label_data_1_split -> label_data_1_split_1
I0411 13:28:05.299070 19840 net.cpp:408] label_data_1_split -> label_data_1_split_2
I0411 13:28:05.299172 19840 net.cpp:150] Setting up label_data_1_split
I0411 13:28:05.299181 19840 net.cpp:157] Top shape: 1024 (1024)
I0411 13:28:05.299185 19840 net.cpp:157] Top shape: 1024 (1024)
I0411 13:28:05.299188 19840 net.cpp:157] Top shape: 1024 (1024)
I0411 13:28:05.299190 19840 net.cpp:165] Memory required for data: 28327936
I0411 13:28:05.299195 19840 layer_factory.hpp:77] Creating layer conv1
I0411 13:28:05.299211 19840 net.cpp:100] Creating Layer conv1
I0411 13:28:05.299218 19840 net.cpp:434] conv1 <- data
I0411 13:28:05.299224 19840 net.cpp:408] conv1 -> conv1
I0411 13:28:05.303251 19840 net.cpp:150] Setting up conv1
I0411 13:28:05.303269 19840 net.cpp:157] Top shape: 1024 100 42 42 (180633600)
I0411 13:28:05.303273 19840 net.cpp:165] Memory required for data: 750862336
I0411 13:28:05.303285 19840 layer_factory.hpp:77] Creating layer conv1_prescale
I0411 13:28:05.303295 19840 net.cpp:100] Creating Layer conv1_prescale
I0411 13:28:05.303299 19840 net.cpp:434] conv1_prescale <- conv1
I0411 13:28:05.303305 19840 net.cpp:395] conv1_prescale -> conv1 (in-place)
I0411 13:28:05.303414 19840 net.cpp:150] Setting up conv1_prescale
I0411 13:28:05.303423 19840 net.cpp:157] Top shape: 1024 100 42 42 (180633600)
I0411 13:28:05.303426 19840 net.cpp:165] Memory required for data: 1473396736
I0411 13:28:05.303434 19840 layer_factory.hpp:77] Creating layer conv1_sTanH
I0411 13:28:05.303443 19840 net.cpp:100] Creating Layer conv1_sTanH
I0411 13:28:05.303447 19840 net.cpp:434] conv1_sTanH <- conv1
I0411 13:28:05.303454 19840 net.cpp:395] conv1_sTanH -> conv1 (in-place)
I0411 13:28:05.303652 19840 net.cpp:150] Setting up conv1_sTanH
I0411 13:28:05.303663 19840 net.cpp:157] Top shape: 1024 100 42 42 (180633600)
I0411 13:28:05.303666 19840 net.cpp:165] Memory required for data: 2195931136
I0411 13:28:05.303670 19840 layer_factory.hpp:77] Creating layer conv1_postscale
I0411 13:28:05.303678 19840 net.cpp:100] Creating Layer conv1_postscale
I0411 13:28:05.303683 19840 net.cpp:434] conv1_postscale <- conv1
I0411 13:28:05.303688 19840 net.cpp:395] conv1_postscale -> conv1 (in-place)
I0411 13:28:05.303797 19840 net.cpp:150] Setting up conv1_postscale
I0411 13:28:05.303804 19840 net.cpp:157] Top shape: 1024 100 42 42 (180633600)
I0411 13:28:05.303807 19840 net.cpp:165] Memory required for data: 2918465536
I0411 13:28:05.303812 19840 layer_factory.hpp:77] Creating layer pool1
I0411 13:28:05.303820 19840 net.cpp:100] Creating Layer pool1
I0411 13:28:05.303824 19840 net.cpp:434] pool1 <- conv1
I0411 13:28:05.303833 19840 net.cpp:408] pool1 -> pool1
I0411 13:28:05.303890 19840 net.cpp:150] Setting up pool1
I0411 13:28:05.303901 19840 net.cpp:157] Top shape: 1024 100 21 21 (45158400)
I0411 13:28:05.303905 19840 net.cpp:165] Memory required for data: 3099099136
I0411 13:28:05.303907 19840 layer_factory.hpp:77] Creating layer conv2
I0411 13:28:05.303916 19840 net.cpp:100] Creating Layer conv2
I0411 13:28:05.303920 19840 net.cpp:434] conv2 <- pool1
I0411 13:28:05.303925 19840 net.cpp:408] conv2 -> conv2
I0411 13:28:05.312505 19840 net.cpp:150] Setting up conv2
I0411 13:28:05.312525 19840 net.cpp:157] Top shape: 1024 150 18 18 (49766400)
I0411 13:28:05.312528 19840 net.cpp:165] Memory required for data: 3298164736
I0411 13:28:05.312538 19840 layer_factory.hpp:77] Creating layer conv2_prescale
I0411 13:28:05.312551 19840 net.cpp:100] Creating Layer conv2_prescale
I0411 13:28:05.312557 19840 net.cpp:434] conv2_prescale <- conv2
I0411 13:28:05.312562 19840 net.cpp:395] conv2_prescale -> conv2 (in-place)
I0411 13:28:05.312685 19840 net.cpp:150] Setting up conv2_prescale
I0411 13:28:05.312692 19840 net.cpp:157] Top shape: 1024 150 18 18 (49766400)
I0411 13:28:05.312702 19840 net.cpp:165] Memory required for data: 3497230336
I0411 13:28:05.312707 19840 layer_factory.hpp:77] Creating layer conv2_sTanH
I0411 13:28:05.312714 19840 net.cpp:100] Creating Layer conv2_sTanH
I0411 13:28:05.312718 19840 net.cpp:434] conv2_sTanH <- conv2
I0411 13:28:05.312723 19840 net.cpp:395] conv2_sTanH -> conv2 (in-place)
I0411 13:28:05.313920 19840 net.cpp:150] Setting up conv2_sTanH
I0411 13:28:05.313936 19840 net.cpp:157] Top shape: 1024 150 18 18 (49766400)
I0411 13:28:05.313940 19840 net.cpp:165] Memory required for data: 3696295936
I0411 13:28:05.313942 19840 layer_factory.hpp:77] Creating layer conv2_postscale
I0411 13:28:05.313952 19840 net.cpp:100] Creating Layer conv2_postscale
I0411 13:28:05.313968 19840 net.cpp:434] conv2_postscale <- conv2
I0411 13:28:05.313977 19840 net.cpp:395] conv2_postscale -> conv2 (in-place)
I0411 13:28:05.314087 19840 net.cpp:150] Setting up conv2_postscale
I0411 13:28:05.314096 19840 net.cpp:157] Top shape: 1024 150 18 18 (49766400)
I0411 13:28:05.314100 19840 net.cpp:165] Memory required for data: 3895361536
I0411 13:28:05.314105 19840 layer_factory.hpp:77] Creating layer pool2
I0411 13:28:05.314126 19840 net.cpp:100] Creating Layer pool2
I0411 13:28:05.314131 19840 net.cpp:434] pool2 <- conv2
I0411 13:28:05.314136 19840 net.cpp:408] pool2 -> pool2
I0411 13:28:05.314188 19840 net.cpp:150] Setting up pool2
I0411 13:28:05.314195 19840 net.cpp:157] Top shape: 1024 150 9 9 (12441600)
I0411 13:28:05.314198 19840 net.cpp:165] Memory required for data: 3945127936
I0411 13:28:05.314201 19840 layer_factory.hpp:77] Creating layer conv3
I0411 13:28:05.314210 19840 net.cpp:100] Creating Layer conv3
I0411 13:28:05.314214 19840 net.cpp:434] conv3 <- pool2
I0411 13:28:05.314221 19840 net.cpp:408] conv3 -> conv3
I0411 13:28:05.323520 19840 net.cpp:150] Setting up conv3
I0411 13:28:05.323544 19840 net.cpp:157] Top shape: 1024 250 6 6 (9216000)
I0411 13:28:05.323551 19840 net.cpp:165] Memory required for data: 3981991936
I0411 13:28:05.323561 19840 layer_factory.hpp:77] Creating layer conv3_prescale
I0411 13:28:05.323571 19840 net.cpp:100] Creating Layer conv3_prescale
I0411 13:28:05.323576 19840 net.cpp:434] conv3_prescale <- conv3
I0411 13:28:05.323583 19840 net.cpp:395] conv3_prescale -> conv3 (in-place)
I0411 13:28:05.323688 19840 net.cpp:150] Setting up conv3_prescale
I0411 13:28:05.323698 19840 net.cpp:157] Top shape: 1024 250 6 6 (9216000)
I0411 13:28:05.323701 19840 net.cpp:165] Memory required for data: 4018855936
I0411 13:28:05.323706 19840 layer_factory.hpp:77] Creating layer conv3_sTanH
I0411 13:28:05.323712 19840 net.cpp:100] Creating Layer conv3_sTanH
I0411 13:28:05.323716 19840 net.cpp:434] conv3_sTanH <- conv3
I0411 13:28:05.323720 19840 net.cpp:395] conv3_sTanH -> conv3 (in-place)
I0411 13:28:05.325273 19840 net.cpp:150] Setting up conv3_sTanH
I0411 13:28:05.325291 19840 net.cpp:157] Top shape: 1024 250 6 6 (9216000)
I0411 13:28:05.325295 19840 net.cpp:165] Memory required for data: 4055719936
I0411 13:28:05.325299 19840 layer_factory.hpp:77] Creating layer conv3_postscale
I0411 13:28:05.325307 19840 net.cpp:100] Creating Layer conv3_postscale
I0411 13:28:05.325312 19840 net.cpp:434] conv3_postscale <- conv3
I0411 13:28:05.325322 19840 net.cpp:395] conv3_postscale -> conv3 (in-place)
I0411 13:28:05.325433 19840 net.cpp:150] Setting up conv3_postscale
I0411 13:28:05.325441 19840 net.cpp:157] Top shape: 1024 250 6 6 (9216000)
I0411 13:28:05.325444 19840 net.cpp:165] Memory required for data: 4092583936
I0411 13:28:05.325449 19840 layer_factory.hpp:77] Creating layer pool3
I0411 13:28:05.325464 19840 net.cpp:100] Creating Layer pool3
I0411 13:28:05.325469 19840 net.cpp:434] pool3 <- conv3
I0411 13:28:05.325474 19840 net.cpp:408] pool3 -> pool3
I0411 13:28:05.325522 19840 net.cpp:150] Setting up pool3
I0411 13:28:05.325531 19840 net.cpp:157] Top shape: 1024 250 3 3 (2304000)
I0411 13:28:05.325533 19840 net.cpp:165] Memory required for data: 4101799936
I0411 13:28:05.325536 19840 layer_factory.hpp:77] Creating layer fc4_300
I0411 13:28:05.325542 19840 net.cpp:100] Creating Layer fc4_300
I0411 13:28:05.325547 19840 net.cpp:434] fc4_300 <- pool3
I0411 13:28:05.325553 19840 net.cpp:408] fc4_300 -> fc4_300
I0411 13:28:05.331434 19840 net.cpp:150] Setting up fc4_300
I0411 13:28:05.331450 19840 net.cpp:157] Top shape: 1024 300 (307200)
I0411 13:28:05.331454 19840 net.cpp:165] Memory required for data: 4103028736
I0411 13:28:05.331476 19840 layer_factory.hpp:77] Creating layer fc4_prescale
I0411 13:28:05.331487 19840 net.cpp:100] Creating Layer fc4_prescale
I0411 13:28:05.331492 19840 net.cpp:434] fc4_prescale <- fc4_300
I0411 13:28:05.331498 19840 net.cpp:395] fc4_prescale -> fc4_300 (in-place)
I0411 13:28:05.331600 19840 net.cpp:150] Setting up fc4_prescale
I0411 13:28:05.331609 19840 net.cpp:157] Top shape: 1024 300 (307200)
I0411 13:28:05.331611 19840 net.cpp:165] Memory required for data: 4104257536
I0411 13:28:05.331616 19840 layer_factory.hpp:77] Creating layer fc4_sTanH
I0411 13:28:05.331624 19840 net.cpp:100] Creating Layer fc4_sTanH
I0411 13:28:05.331627 19840 net.cpp:434] fc4_sTanH <- fc4_300
I0411 13:28:05.331632 19840 net.cpp:395] fc4_sTanH -> fc4_300 (in-place)
I0411 13:28:05.331845 19840 net.cpp:150] Setting up fc4_sTanH
I0411 13:28:05.331861 19840 net.cpp:157] Top shape: 1024 300 (307200)
I0411 13:28:05.331864 19840 net.cpp:165] Memory required for data: 4105486336
I0411 13:28:05.331868 19840 layer_factory.hpp:77] Creating layer fc4_postscale
I0411 13:28:05.331874 19840 net.cpp:100] Creating Layer fc4_postscale
I0411 13:28:05.331887 19840 net.cpp:434] fc4_postscale <- fc4_300
I0411 13:28:05.331894 19840 net.cpp:395] fc4_postscale -> fc4_300 (in-place)
I0411 13:28:05.332000 19840 net.cpp:150] Setting up fc4_postscale
I0411 13:28:05.332008 19840 net.cpp:157] Top shape: 1024 300 (307200)
I0411 13:28:05.332011 19840 net.cpp:165] Memory required for data: 4106715136
I0411 13:28:05.332015 19840 layer_factory.hpp:77] Creating layer drop4
I0411 13:28:05.332023 19840 net.cpp:100] Creating Layer drop4
I0411 13:28:05.332027 19840 net.cpp:434] drop4 <- fc4_300
I0411 13:28:05.332032 19840 net.cpp:395] drop4 -> fc4_300 (in-place)
I0411 13:28:05.332057 19840 net.cpp:150] Setting up drop4
I0411 13:28:05.332064 19840 net.cpp:157] Top shape: 1024 300 (307200)
I0411 13:28:05.332067 19840 net.cpp:165] Memory required for data: 4107943936
I0411 13:28:05.332070 19840 layer_factory.hpp:77] Creating layer fc5_67
I0411 13:28:05.332075 19840 net.cpp:100] Creating Layer fc5_67
I0411 13:28:05.332080 19840 net.cpp:434] fc5_67 <- fc4_300
I0411 13:28:05.332087 19840 net.cpp:408] fc5_67 -> fc5_classes
I0411 13:28:05.332341 19840 net.cpp:150] Setting up fc5_67
I0411 13:28:05.332350 19840 net.cpp:157] Top shape: 1024 67 (68608)
I0411 13:28:05.332352 19840 net.cpp:165] Memory required for data: 4108218368
I0411 13:28:05.332361 19840 layer_factory.hpp:77] Creating layer fc5_classes_fc5_67_0_split
I0411 13:28:05.332373 19840 net.cpp:100] Creating Layer fc5_classes_fc5_67_0_split
I0411 13:28:05.332378 19840 net.cpp:434] fc5_classes_fc5_67_0_split <- fc5_classes
I0411 13:28:05.332383 19840 net.cpp:408] fc5_classes_fc5_67_0_split -> fc5_classes_fc5_67_0_split_0
I0411 13:28:05.332391 19840 net.cpp:408] fc5_classes_fc5_67_0_split -> fc5_classes_fc5_67_0_split_1
I0411 13:28:05.332403 19840 net.cpp:408] fc5_classes_fc5_67_0_split -> fc5_classes_fc5_67_0_split_2
I0411 13:28:05.332458 19840 net.cpp:150] Setting up fc5_classes_fc5_67_0_split
I0411 13:28:05.332464 19840 net.cpp:157] Top shape: 1024 67 (68608)
I0411 13:28:05.332468 19840 net.cpp:157] Top shape: 1024 67 (68608)
I0411 13:28:05.332473 19840 net.cpp:157] Top shape: 1024 67 (68608)
I0411 13:28:05.332474 19840 net.cpp:165] Memory required for data: 4109041664
I0411 13:28:05.332478 19840 layer_factory.hpp:77] Creating layer loss
I0411 13:28:05.332485 19840 net.cpp:100] Creating Layer loss
I0411 13:28:05.332490 19840 net.cpp:434] loss <- fc5_classes_fc5_67_0_split_0
I0411 13:28:05.332494 19840 net.cpp:434] loss <- label_data_1_split_0
I0411 13:28:05.332499 19840 net.cpp:408] loss -> loss
…
