…
I0411 13:44:28.565820 11973 net.cpp:322] The NetState phase (0) differed from the phase (1) specified by a rule in layer accuracy_5
I0411 13:44:28.565978 11973 net.cpp:58] Initializing net from parameters: 
state {
  phase: TRAIN
  level: 0
  stage: ""
}
layer {
  name: "data"
  type: "Data"
  top: "data"
  top: "label"
  include {
    phase: TRAIN
  }
  transform_param {
    scale: 0.0039215689
    mirror: false
    crop_size: 48
    mean_value: 132
    mean_value: 132
    mean_value: 131
  }
  data_param {
    source: "../local_data/lmdb/rtsd-r1/CoNorm/train/lmdb"
    batch_size: 1024
    backend: LMDB
  }
}
layer {
  name: "conv1"
  type: "Convolution"
  bottom: "data"
  top: "conv1"
  convolution_param {
    num_output: 100
    pad: 0
    kernel_size: 7
    group: 1
    stride: 1
    weight_filler {
      type: "xavier"
    }
  }
}
layer {
  name: "conv1_prescale"
  type: "Scale"
  bottom: "conv1"
  top: "conv1"
  param {
    lr_mult: 0
    decay_mult: 0
  }
  scale_param {
    filler {
      value: 0.6666
    }
    bias_term: false
  }
}
layer {
  name: "conv1_sTanH"
  type: "TanH"
  bottom: "conv1"
  top: "conv1"
}
layer {
  name: "conv1_postscale"
  type: "Scale"
  bottom: "conv1"
  top: "conv1"
  param {
    lr_mult: 0
    decay_mult: 0
  }
  scale_param {
    filler {
      value: 1.7159
    }
    bias_term: false
  }
}
layer {
  name: "pool1"
  type: "Pooling"
  bottom: "conv1"
  top: "pool1"
  pooling_param {
    pool: MAX
    kernel_size: 2
    stride: 2
  }
}
layer {
  name: "conv2"
  type: "Convolution"
  bottom: "pool1"
  top: "conv2"
  convolution_param {
    num_output: 150
    pad: 0
    kernel_size: 4
    group: 1
    stride: 1
    weight_filler {
      type: "xavier"
    }
  }
}
layer {
  name: "conv2_prescale"
  type: "Scale"
  bottom: "conv2"
  top: "conv2"
  param {
    lr_mult: 0
    decay_mult: 0
  }
  scale_param {
    filler {
      value: 0.6666
    }
    bias_term: false
  }
}
layer {
  name: "conv2_sTanH"
  type: "TanH"
  bottom: "conv2"
  top: "conv2"
}
layer {
  name: "conv2_postscale"
  type: "Scale"
  bottom: "conv2"
  top: "conv2"
  param {
    lr_mult: 0
    decay_mult: 0
  }
  scale_param {
    filler {
      value: 1.7159
    }
    bias_term: false
  }
}
layer {
  name: "pool2"
  type: "Pooling"
  bottom: "conv2"
  top: "pool2"
  pooling_param {
    pool: MAX
    kernel_size: 2
    stride: 2
  }
}
layer {
  name: "conv3"
  type: "Convolution"
  bottom: "pool2"
  top: "conv3"
  convolution_param {
    num_output: 250
    pad: 0
    kernel_size: 4
    group: 1
    stride: 1
    weight_filler {
      type: "xavier"
    }
  }
}
layer {
  name: "conv3_prescale"
  type: "Scale"
  bottom: "conv3"
  top: "conv3"
  param {
    lr_mult: 0
    decay_mult: 0
  }
  scale_param {
    filler {
      value: 0.6666
    }
    bias_term: false
  }
}
layer {
  name: "conv3_sTanH"
  type: "TanH"
  bottom: "conv3"
  top: "conv3"
}
layer {
  name: "conv3_postscale"
  type: "Scale"
  bottom: "conv3"
  top: "conv3"
  param {
    lr_mult: 0
    decay_mult: 0
  }
  scale_param {
    filler {
      value: 1.7159
    }
    bias_term: false
  }
}
layer {
  name: "pool3"
  type: "Pooling"
  bottom: "conv3"
  top: "pool3"
  pooling_param {
    pool: MAX
    kernel_size: 2
    stride: 2
  }
}
layer {
  name: "fc4_300"
  type: "InnerProduct"
  bottom: "pool3"
  top: "fc4_300"
  inner_product_param {
    num_output: 300
    weight_filler {
      type: "xavier"
    }
  }
}
layer {
  name: "fc4_prescale"
  type: "Scale"
  bottom: "fc4_300"
  top: "fc4_300"
  param {
    lr_mult: 0
    decay_mult: 0
  }
  scale_param {
    filler {
      value: 0.6666
    }
    bias_term: false
  }
}
layer {
  name: "fc4_sTanH"
  type: "TanH"
  bottom: "fc4_300"
  top: "fc4_300"
}
layer {
  name: "fc4_postscale"
  type: "Scale"
  bottom: "fc4_300"
  top: "fc4_300"
  param {
    lr_mult: 0
    decay_mult: 0
  }
  scale_param {
    filler {
      value: 1.7159
    }
    bias_term: false
  }
}
layer {
  name: "drop4"
  type: "Dropout"
  bottom: "fc4_300"
  top: "fc4_300"
  dropout_param {
    dropout_ratio: 0.1
  }
}
layer {
  name: "fc5_67"
  type: "InnerProduct"
  bottom: "fc4_300"
  top: "fc5_classes"
  inner_product_param {
    num_output: 67
    weight_filler {
      type: "xavier"
    }
  }
}
layer {
  name: "loss"
  type: "SoftmaxWithLoss"
  bottom: "fc5_classes"
  bottom: "label"
  top: "loss"
}
I0411 13:44:28.566084 11973 layer_factory.hpp:77] Creating layer data
I0411 13:44:28.567137 11973 net.cpp:100] Creating Layer data
I0411 13:44:28.567150 11973 net.cpp:408] data -> data
I0411 13:44:28.567172 11973 net.cpp:408] data -> label
I0411 13:44:28.571985 12080 db_lmdb.cpp:35] Opened lmdb ../local_data/lmdb/rtsd-r1/CoNorm/train/lmdb
I0411 13:44:28.593250 11973 data_layer.cpp:41] output data size: 1024,3,48,48
I0411 13:44:28.637460 11973 net.cpp:150] Setting up data
I0411 13:44:28.637492 11973 net.cpp:157] Top shape: 1024 3 48 48 (7077888)
I0411 13:44:28.637497 11973 net.cpp:157] Top shape: 1024 (1024)
I0411 13:44:28.637501 11973 net.cpp:165] Memory required for data: 28315648
I0411 13:44:28.637509 11973 layer_factory.hpp:77] Creating layer conv1
I0411 13:44:28.637542 11973 net.cpp:100] Creating Layer conv1
I0411 13:44:28.637550 11973 net.cpp:434] conv1 <- data
I0411 13:44:28.637563 11973 net.cpp:408] conv1 -> conv1
I0411 13:44:28.914813 11973 net.cpp:150] Setting up conv1
I0411 13:44:28.914851 11973 net.cpp:157] Top shape: 1024 100 42 42 (180633600)
I0411 13:44:28.914855 11973 net.cpp:165] Memory required for data: 750850048
I0411 13:44:28.914877 11973 layer_factory.hpp:77] Creating layer conv1_prescale
I0411 13:44:28.914891 11973 net.cpp:100] Creating Layer conv1_prescale
I0411 13:44:28.914896 11973 net.cpp:434] conv1_prescale <- conv1
I0411 13:44:28.914903 11973 net.cpp:395] conv1_prescale -> conv1 (in-place)
I0411 13:44:28.915012 11973 net.cpp:150] Setting up conv1_prescale
I0411 13:44:28.915021 11973 net.cpp:157] Top shape: 1024 100 42 42 (180633600)
I0411 13:44:28.915024 11973 net.cpp:165] Memory required for data: 1473384448
I0411 13:44:28.915030 11973 layer_factory.hpp:77] Creating layer conv1_sTanH
I0411 13:44:28.915041 11973 net.cpp:100] Creating Layer conv1_sTanH
I0411 13:44:28.915045 11973 net.cpp:434] conv1_sTanH <- conv1
I0411 13:44:28.915050 11973 net.cpp:395] conv1_sTanH -> conv1 (in-place)
I0411 13:44:28.915295 11973 net.cpp:150] Setting up conv1_sTanH
I0411 13:44:28.915316 11973 net.cpp:157] Top shape: 1024 100 42 42 (180633600)
I0411 13:44:28.915328 11973 net.cpp:165] Memory required for data: 2195918848
I0411 13:44:28.915336 11973 layer_factory.hpp:77] Creating layer conv1_postscale
I0411 13:44:28.915350 11973 net.cpp:100] Creating Layer conv1_postscale
I0411 13:44:28.915359 11973 net.cpp:434] conv1_postscale <- conv1
I0411 13:44:28.915369 11973 net.cpp:395] conv1_postscale -> conv1 (in-place)
I0411 13:44:28.915534 11973 net.cpp:150] Setting up conv1_postscale
I0411 13:44:28.915550 11973 net.cpp:157] Top shape: 1024 100 42 42 (180633600)
I0411 13:44:28.915557 11973 net.cpp:165] Memory required for data: 2918453248
I0411 13:44:28.915566 11973 layer_factory.hpp:77] Creating layer pool1
I0411 13:44:28.915578 11973 net.cpp:100] Creating Layer pool1
I0411 13:44:28.915586 11973 net.cpp:434] pool1 <- conv1
I0411 13:44:28.915596 11973 net.cpp:408] pool1 -> pool1
I0411 13:44:28.915702 11973 net.cpp:150] Setting up pool1
I0411 13:44:28.915720 11973 net.cpp:157] Top shape: 1024 100 21 21 (45158400)
I0411 13:44:28.915729 11973 net.cpp:165] Memory required for data: 3099086848
I0411 13:44:28.915735 11973 layer_factory.hpp:77] Creating layer conv2
I0411 13:44:28.915755 11973 net.cpp:100] Creating Layer conv2
I0411 13:44:28.915763 11973 net.cpp:434] conv2 <- pool1
I0411 13:44:28.915779 11973 net.cpp:408] conv2 -> conv2
I0411 13:44:28.924012 11973 net.cpp:150] Setting up conv2
I0411 13:44:28.924032 11973 net.cpp:157] Top shape: 1024 150 18 18 (49766400)
I0411 13:44:28.924037 11973 net.cpp:165] Memory required for data: 3298152448
I0411 13:44:28.924047 11973 layer_factory.hpp:77] Creating layer conv2_prescale
I0411 13:44:28.924057 11973 net.cpp:100] Creating Layer conv2_prescale
I0411 13:44:28.924062 11973 net.cpp:434] conv2_prescale <- conv2
I0411 13:44:28.924069 11973 net.cpp:395] conv2_prescale -> conv2 (in-place)
I0411 13:44:28.924183 11973 net.cpp:150] Setting up conv2_prescale
I0411 13:44:28.924192 11973 net.cpp:157] Top shape: 1024 150 18 18 (49766400)
I0411 13:44:28.924196 11973 net.cpp:165] Memory required for data: 3497218048
I0411 13:44:28.924206 11973 layer_factory.hpp:77] Creating layer conv2_sTanH
I0411 13:44:28.924216 11973 net.cpp:100] Creating Layer conv2_sTanH
I0411 13:44:28.924219 11973 net.cpp:434] conv2_sTanH <- conv2
I0411 13:44:28.924224 11973 net.cpp:395] conv2_sTanH -> conv2 (in-place)
I0411 13:44:28.926429 11973 net.cpp:150] Setting up conv2_sTanH
I0411 13:44:28.926452 11973 net.cpp:157] Top shape: 1024 150 18 18 (49766400)
I0411 13:44:28.926457 11973 net.cpp:165] Memory required for data: 3696283648
I0411 13:44:28.926461 11973 layer_factory.hpp:77] Creating layer conv2_postscale
I0411 13:44:28.926470 11973 net.cpp:100] Creating Layer conv2_postscale
I0411 13:44:28.926475 11973 net.cpp:434] conv2_postscale <- conv2
I0411 13:44:28.926479 11973 net.cpp:395] conv2_postscale -> conv2 (in-place)
I0411 13:44:28.926584 11973 net.cpp:150] Setting up conv2_postscale
I0411 13:44:28.926594 11973 net.cpp:157] Top shape: 1024 150 18 18 (49766400)
I0411 13:44:28.926599 11973 net.cpp:165] Memory required for data: 3895349248
I0411 13:44:28.926604 11973 layer_factory.hpp:77] Creating layer pool2
I0411 13:44:28.926614 11973 net.cpp:100] Creating Layer pool2
I0411 13:44:28.926618 11973 net.cpp:434] pool2 <- conv2
I0411 13:44:28.926623 11973 net.cpp:408] pool2 -> pool2
I0411 13:44:28.926666 11973 net.cpp:150] Setting up pool2
I0411 13:44:28.926674 11973 net.cpp:157] Top shape: 1024 150 9 9 (12441600)
I0411 13:44:28.926677 11973 net.cpp:165] Memory required for data: 3945115648
I0411 13:44:28.926681 11973 layer_factory.hpp:77] Creating layer conv3
I0411 13:44:28.926689 11973 net.cpp:100] Creating Layer conv3
I0411 13:44:28.926693 11973 net.cpp:434] conv3 <- pool2
I0411 13:44:28.926700 11973 net.cpp:408] conv3 -> conv3
I0411 13:44:28.932329 11973 net.cpp:150] Setting up conv3
I0411 13:44:28.932345 11973 net.cpp:157] Top shape: 1024 250 6 6 (9216000)
I0411 13:44:28.932349 11973 net.cpp:165] Memory required for data: 3981979648
I0411 13:44:28.932374 11973 layer_factory.hpp:77] Creating layer conv3_prescale
I0411 13:44:28.932384 11973 net.cpp:100] Creating Layer conv3_prescale
I0411 13:44:28.932389 11973 net.cpp:434] conv3_prescale <- conv3
I0411 13:44:28.932395 11973 net.cpp:395] conv3_prescale -> conv3 (in-place)
I0411 13:44:28.932493 11973 net.cpp:150] Setting up conv3_prescale
I0411 13:44:28.932502 11973 net.cpp:157] Top shape: 1024 250 6 6 (9216000)
I0411 13:44:28.932504 11973 net.cpp:165] Memory required for data: 4018843648
I0411 13:44:28.932509 11973 layer_factory.hpp:77] Creating layer conv3_sTanH
I0411 13:44:28.932518 11973 net.cpp:100] Creating Layer conv3_sTanH
I0411 13:44:28.932523 11973 net.cpp:434] conv3_sTanH <- conv3
I0411 13:44:28.932526 11973 net.cpp:395] conv3_sTanH -> conv3 (in-place)
I0411 13:44:28.933827 11973 net.cpp:150] Setting up conv3_sTanH
I0411 13:44:28.933843 11973 net.cpp:157] Top shape: 1024 250 6 6 (9216000)
I0411 13:44:28.933847 11973 net.cpp:165] Memory required for data: 4055707648
I0411 13:44:28.933869 11973 layer_factory.hpp:77] Creating layer conv3_postscale
I0411 13:44:28.933877 11973 net.cpp:100] Creating Layer conv3_postscale
I0411 13:44:28.933881 11973 net.cpp:434] conv3_postscale <- conv3
I0411 13:44:28.933890 11973 net.cpp:395] conv3_postscale -> conv3 (in-place)
I0411 13:44:28.933995 11973 net.cpp:150] Setting up conv3_postscale
I0411 13:44:28.934003 11973 net.cpp:157] Top shape: 1024 250 6 6 (9216000)
I0411 13:44:28.934006 11973 net.cpp:165] Memory required for data: 4092571648
I0411 13:44:28.934011 11973 layer_factory.hpp:77] Creating layer pool3
I0411 13:44:28.934018 11973 net.cpp:100] Creating Layer pool3
I0411 13:44:28.934022 11973 net.cpp:434] pool3 <- conv3
I0411 13:44:28.934028 11973 net.cpp:408] pool3 -> pool3
I0411 13:44:28.934069 11973 net.cpp:150] Setting up pool3
I0411 13:44:28.934077 11973 net.cpp:157] Top shape: 1024 250 3 3 (2304000)
I0411 13:44:28.934079 11973 net.cpp:165] Memory required for data: 4101787648
I0411 13:44:28.934082 11973 layer_factory.hpp:77] Creating layer fc4_300
I0411 13:44:28.934093 11973 net.cpp:100] Creating Layer fc4_300
I0411 13:44:28.934098 11973 net.cpp:434] fc4_300 <- pool3
I0411 13:44:28.934103 11973 net.cpp:408] fc4_300 -> fc4_300
I0411 13:44:28.940619 11973 net.cpp:150] Setting up fc4_300
I0411 13:44:28.940635 11973 net.cpp:157] Top shape: 1024 300 (307200)
I0411 13:44:28.940639 11973 net.cpp:165] Memory required for data: 4103016448
I0411 13:44:28.940646 11973 layer_factory.hpp:77] Creating layer fc4_prescale
I0411 13:44:28.940656 11973 net.cpp:100] Creating Layer fc4_prescale
I0411 13:44:28.940661 11973 net.cpp:434] fc4_prescale <- fc4_300
I0411 13:44:28.940667 11973 net.cpp:395] fc4_prescale -> fc4_300 (in-place)
I0411 13:44:28.940757 11973 net.cpp:150] Setting up fc4_prescale
I0411 13:44:28.940765 11973 net.cpp:157] Top shape: 1024 300 (307200)
I0411 13:44:28.940768 11973 net.cpp:165] Memory required for data: 4104245248
I0411 13:44:28.940773 11973 layer_factory.hpp:77] Creating layer fc4_sTanH
I0411 13:44:28.940778 11973 net.cpp:100] Creating Layer fc4_sTanH
I0411 13:44:28.940783 11973 net.cpp:434] fc4_sTanH <- fc4_300
I0411 13:44:28.940788 11973 net.cpp:395] fc4_sTanH -> fc4_300 (in-place)
I0411 13:44:28.940979 11973 net.cpp:150] Setting up fc4_sTanH
I0411 13:44:28.940989 11973 net.cpp:157] Top shape: 1024 300 (307200)
I0411 13:44:28.940994 11973 net.cpp:165] Memory required for data: 4105474048
I0411 13:44:28.940997 11973 layer_factory.hpp:77] Creating layer fc4_postscale
I0411 13:44:28.941004 11973 net.cpp:100] Creating Layer fc4_postscale
I0411 13:44:28.941006 11973 net.cpp:434] fc4_postscale <- fc4_300
I0411 13:44:28.941014 11973 net.cpp:395] fc4_postscale -> fc4_300 (in-place)
I0411 13:44:28.941112 11973 net.cpp:150] Setting up fc4_postscale
I0411 13:44:28.941120 11973 net.cpp:157] Top shape: 1024 300 (307200)
I0411 13:44:28.941123 11973 net.cpp:165] Memory required for data: 4106702848
I0411 13:44:28.941128 11973 layer_factory.hpp:77] Creating layer drop4
I0411 13:44:28.941138 11973 net.cpp:100] Creating Layer drop4
I0411 13:44:28.941141 11973 net.cpp:434] drop4 <- fc4_300
I0411 13:44:28.941148 11973 net.cpp:395] drop4 -> fc4_300 (in-place)
I0411 13:44:28.941174 11973 net.cpp:150] Setting up drop4
I0411 13:44:28.941181 11973 net.cpp:157] Top shape: 1024 300 (307200)
I0411 13:44:28.941184 11973 net.cpp:165] Memory required for data: 4107931648
I0411 13:44:28.941187 11973 layer_factory.hpp:77] Creating layer fc5_67
I0411 13:44:28.941195 11973 net.cpp:100] Creating Layer fc5_67
I0411 13:44:28.941200 11973 net.cpp:434] fc5_67 <- fc4_300
I0411 13:44:28.941203 11973 net.cpp:408] fc5_67 -> fc5_classes
I0411 13:44:28.943440 11973 net.cpp:150] Setting up fc5_67
I0411 13:44:28.943455 11973 net.cpp:157] Top shape: 1024 67 (68608)
I0411 13:44:28.943460 11973 net.cpp:165] Memory required for data: 4108206080
I0411 13:44:28.943471 11973 layer_factory.hpp:77] Creating layer loss
I0411 13:44:28.943480 11973 net.cpp:100] Creating Layer loss
I0411 13:44:28.943485 11973 net.cpp:434] loss <- fc5_classes
I0411 13:44:28.943490 11973 net.cpp:434] loss <- label
I0411 13:44:28.943511 11973 net.cpp:408] loss -> loss
I0411 13:44:28.943524 11973 layer_factory.hpp:77] Creating layer loss
…
I0411 13:44:28.944432 11973 solver.cpp:193] Creating test net (#0) specified by test_net file: ./Prototxt/experiment_9/rtsd-r1/CoNorm/trial_1/test.prototxt
I0411 13:44:28.944615 11973 net.cpp:58] Initializing net from parameters: 
state {
  phase: TEST
}
layer {
  name: "data"
  type: "Data"
  top: "data"
  top: "label"
  include {
    phase: TEST
  }
  transform_param {
    scale: 0.0039215689
    mirror: false
    crop_size: 48
    mean_value: 133
    mean_value: 133
    mean_value: 132
  }
  data_param {
    source: "../local_data/lmdb/rtsd-r1/CoNorm/test/lmdb"
    batch_size: 1024
    backend: LMDB
  }
}
layer {
  name: "conv1"
  type: "Convolution"
  bottom: "data"
  top: "conv1"
  convolution_param {
    num_output: 100
    pad: 0
    kernel_size: 7
    group: 1
    stride: 1
    weight_filler {
      type: "xavier"
    }
  }
}
layer {
  name: "conv1_prescale"
  type: "Scale"
  bottom: "conv1"
  top: "conv1"
  param {
    lr_mult: 0
    decay_mult: 0
  }
  scale_param {
    filler {
      value: 0.6666
    }
    bias_term: false
  }
}
layer {
  name: "conv1_sTanH"
  type: "TanH"
  bottom: "conv1"
  top: "conv1"
}
layer {
  name: "conv1_postscale"
  type: "Scale"
  bottom: "conv1"
  top: "conv1"
  param {
    lr_mult: 0
    decay_mult: 0
  }
  scale_param {
    filler {
      value: 1.7159
    }
    bias_term: false
  }
}
layer {
  name: "pool1"
  type: "Pooling"
  bottom: "conv1"
  top: "pool1"
  pooling_param {
    pool: MAX
    kernel_size: 2
    stride: 2
  }
}
layer {
  name: "conv2"
  type: "Convolution"
  bottom: "pool1"
  top: "conv2"
  convolution_param {
    num_output: 150
    pad: 0
    kernel_size: 4
    group: 1
    stride: 1
    weight_filler {
      type: "xavier"
    }
  }
}
layer {
  name: "conv2_prescale"
  type: "Scale"
  bottom: "conv2"
  top: "conv2"
  param {
    lr_mult: 0
    decay_mult: 0
  }
  scale_param {
    filler {
      value: 0.6666
    }
    bias_term: false
  }
}
layer {
  name: "conv2_sTanH"
  type: "TanH"
  bottom: "conv2"
  top: "conv2"
}
layer {
  name: "conv2_postscale"
  type: "Scale"
  bottom: "conv2"
  top: "conv2"
  param {
    lr_mult: 0
    decay_mult: 0
  }
  scale_param {
    filler {
      value: 1.7159
    }
    bias_term: false
  }
}
layer {
  name: "pool2"
  type: "Pooling"
  bottom: "conv2"
  top: "pool2"
  pooling_param {
    pool: MAX
    kernel_size: 2
    stride: 2
  }
}
layer {
  name: "conv3"
  type: "Convolution"
  bottom: "pool2"
  top: "conv3"
  convolution_param {
    num_output: 250
    pad: 0
    kernel_size: 4
    group: 1
    stride: 1
    weight_filler {
      type: "xavier"
    }
  }
}
layer {
  name: "conv3_prescale"
  type: "Scale"
  bottom: "conv3"
  top: "conv3"
  param {
    lr_mult: 0
    decay_mult: 0
  }
  scale_param {
    filler {
      value: 0.6666
    }
    bias_term: false
  }
}
layer {
  name: "conv3_sTanH"
  type: "TanH"
  bottom: "conv3"
  top: "conv3"
}
layer {
  name: "conv3_postscale"
  type: "Scale"
  bottom: "conv3"
  top: "conv3"
  param {
    lr_mult: 0
    decay_mult: 0
  }
  scale_param {
    filler {
      value: 1.7159
    }
    bias_term: false
  }
}
layer {
  name: "pool3"
  type: "Pooling"
  bottom: "conv3"
  top: "pool3"
  pooling_param {
    pool: MAX
    kernel_size: 2
    stride: 2
  }
}
layer {
  name: "fc4_300"
  type: "InnerProduct"
  bottom: "pool3"
  top: "fc4_300"
  inner_product_param {
    num_output: 300
    weight_filler {
      type: "xavier"
    }
  }
}
layer {
  name: "fc4_prescale"
  type: "Scale"
  bottom: "fc4_300"
  top: "fc4_300"
  param {
    lr_mult: 0
    decay_mult: 0
  }
  scale_param {
    filler {
      value: 0.6666
    }
    bias_term: false
  }
}
layer {
  name: "fc4_sTanH"
  type: "TanH"
  bottom: "fc4_300"
  top: "fc4_300"
}
layer {
  name: "fc4_postscale"
  type: "Scale"
  bottom: "fc4_300"
  top: "fc4_300"
  param {
    lr_mult: 0
    decay_mult: 0
  }
  scale_param {
    filler {
      value: 1.7159
    }
    bias_term: false
  }
}
layer {
  name: "drop4"
  type: "Dropout"
  bottom: "fc4_300"
  top: "fc4_300"
  dropout_param {
    dropout_ratio: 0.1
  }
}
layer {
  name: "fc5_67"
  type: "InnerProduct"
  bottom: "fc4_300"
  top: "fc5_classes"
  inner_product_param {
    num_output: 67
    weight_filler {
      type: "xavier"
    }
  }
}
layer {
  name: "loss"
  type: "SoftmaxWithLoss"
  bottom: "fc5_classes"
  bottom: "label"
  top: "loss"
}
layer {
  name: "accuracy_1"
  type: "Accuracy"
  bottom: "fc5_classes"
  bottom: "label"
  top: "accuracy_1"
  include {
    phase: TEST
  }
  accuracy_param {
    top_k: 1
  }
}
layer {
  name: "accuracy_5"
  type: "Accuracy"
  bottom: "fc5_classes"
  bottom: "label"
  top: "accuracy_5"
  include {
    phase: TEST
  }
  accuracy_param {
    top_k: 5
  }
}
I0411 13:44:28.944737 11973 layer_factory.hpp:77] Creating layer data
I0411 13:44:28.945624 11973 net.cpp:100] Creating Layer data
I0411 13:44:28.945637 11973 net.cpp:408] data -> data
I0411 13:44:28.945648 11973 net.cpp:408] data -> label
I0411 13:44:28.949097 12123 db_lmdb.cpp:35] Opened lmdb ../local_data/lmdb/rtsd-r1/CoNorm/test/lmdb
I0411 13:44:28.949272 11973 data_layer.cpp:41] output data size: 1024,3,48,48
I0411 13:44:28.990244 11973 net.cpp:150] Setting up data
I0411 13:44:28.990279 11973 net.cpp:157] Top shape: 1024 3 48 48 (7077888)
I0411 13:44:28.990285 11973 net.cpp:157] Top shape: 1024 (1024)
I0411 13:44:28.990288 11973 net.cpp:165] Memory required for data: 28315648
I0411 13:44:28.990293 11973 layer_factory.hpp:77] Creating layer label_data_1_split
I0411 13:44:28.990309 11973 net.cpp:100] Creating Layer label_data_1_split
I0411 13:44:28.990312 11973 net.cpp:434] label_data_1_split <- label
I0411 13:44:28.990320 11973 net.cpp:408] label_data_1_split -> label_data_1_split_0
I0411 13:44:28.990331 11973 net.cpp:408] label_data_1_split -> label_data_1_split_1
I0411 13:44:28.990366 11973 net.cpp:408] label_data_1_split -> label_data_1_split_2
I0411 13:44:28.990461 11973 net.cpp:150] Setting up label_data_1_split
I0411 13:44:28.990471 11973 net.cpp:157] Top shape: 1024 (1024)
I0411 13:44:28.990475 11973 net.cpp:157] Top shape: 1024 (1024)
I0411 13:44:28.990478 11973 net.cpp:157] Top shape: 1024 (1024)
I0411 13:44:28.990481 11973 net.cpp:165] Memory required for data: 28327936
I0411 13:44:28.990485 11973 layer_factory.hpp:77] Creating layer conv1
I0411 13:44:28.990499 11973 net.cpp:100] Creating Layer conv1
I0411 13:44:28.990504 11973 net.cpp:434] conv1 <- data
I0411 13:44:28.990511 11973 net.cpp:408] conv1 -> conv1
I0411 13:44:28.994527 11973 net.cpp:150] Setting up conv1
I0411 13:44:28.994544 11973 net.cpp:157] Top shape: 1024 100 42 42 (180633600)
I0411 13:44:28.994549 11973 net.cpp:165] Memory required for data: 750862336
I0411 13:44:28.994560 11973 layer_factory.hpp:77] Creating layer conv1_prescale
I0411 13:44:28.994577 11973 net.cpp:100] Creating Layer conv1_prescale
I0411 13:44:28.994582 11973 net.cpp:434] conv1_prescale <- conv1
I0411 13:44:28.994587 11973 net.cpp:395] conv1_prescale -> conv1 (in-place)
I0411 13:44:28.994705 11973 net.cpp:150] Setting up conv1_prescale
I0411 13:44:28.994722 11973 net.cpp:157] Top shape: 1024 100 42 42 (180633600)
I0411 13:44:28.994725 11973 net.cpp:165] Memory required for data: 1473396736
I0411 13:44:28.994731 11973 layer_factory.hpp:77] Creating layer conv1_sTanH
I0411 13:44:28.994738 11973 net.cpp:100] Creating Layer conv1_sTanH
I0411 13:44:28.994742 11973 net.cpp:434] conv1_sTanH <- conv1
I0411 13:44:28.994746 11973 net.cpp:395] conv1_sTanH -> conv1 (in-place)
I0411 13:44:28.994953 11973 net.cpp:150] Setting up conv1_sTanH
I0411 13:44:28.994964 11973 net.cpp:157] Top shape: 1024 100 42 42 (180633600)
I0411 13:44:28.994969 11973 net.cpp:165] Memory required for data: 2195931136
I0411 13:44:28.994973 11973 layer_factory.hpp:77] Creating layer conv1_postscale
I0411 13:44:28.994979 11973 net.cpp:100] Creating Layer conv1_postscale
I0411 13:44:28.994983 11973 net.cpp:434] conv1_postscale <- conv1
I0411 13:44:28.994990 11973 net.cpp:395] conv1_postscale -> conv1 (in-place)
I0411 13:44:28.995101 11973 net.cpp:150] Setting up conv1_postscale
I0411 13:44:28.995113 11973 net.cpp:157] Top shape: 1024 100 42 42 (180633600)
I0411 13:44:28.995116 11973 net.cpp:165] Memory required for data: 2918465536
I0411 13:44:28.995121 11973 layer_factory.hpp:77] Creating layer pool1
I0411 13:44:28.995128 11973 net.cpp:100] Creating Layer pool1
I0411 13:44:28.995131 11973 net.cpp:434] pool1 <- conv1
I0411 13:44:28.995137 11973 net.cpp:408] pool1 -> pool1
I0411 13:44:28.995183 11973 net.cpp:150] Setting up pool1
I0411 13:44:28.995195 11973 net.cpp:157] Top shape: 1024 100 21 21 (45158400)
I0411 13:44:28.995198 11973 net.cpp:165] Memory required for data: 3099099136
I0411 13:44:28.995201 11973 layer_factory.hpp:77] Creating layer conv2
I0411 13:44:28.995211 11973 net.cpp:100] Creating Layer conv2
I0411 13:44:28.995216 11973 net.cpp:434] conv2 <- pool1
I0411 13:44:28.995223 11973 net.cpp:408] conv2 -> conv2
I0411 13:44:29.000273 11973 net.cpp:150] Setting up conv2
I0411 13:44:29.000290 11973 net.cpp:157] Top shape: 1024 150 18 18 (49766400)
I0411 13:44:29.000294 11973 net.cpp:165] Memory required for data: 3298164736
I0411 13:44:29.000306 11973 layer_factory.hpp:77] Creating layer conv2_prescale
I0411 13:44:29.000316 11973 net.cpp:100] Creating Layer conv2_prescale
I0411 13:44:29.000319 11973 net.cpp:434] conv2_prescale <- conv2
I0411 13:44:29.000326 11973 net.cpp:395] conv2_prescale -> conv2 (in-place)
I0411 13:44:29.000447 11973 net.cpp:150] Setting up conv2_prescale
I0411 13:44:29.000457 11973 net.cpp:157] Top shape: 1024 150 18 18 (49766400)
I0411 13:44:29.000459 11973 net.cpp:165] Memory required for data: 3497230336
I0411 13:44:29.000464 11973 layer_factory.hpp:77] Creating layer conv2_sTanH
I0411 13:44:29.000474 11973 net.cpp:100] Creating Layer conv2_sTanH
I0411 13:44:29.000478 11973 net.cpp:434] conv2_sTanH <- conv2
I0411 13:44:29.000483 11973 net.cpp:395] conv2_sTanH -> conv2 (in-place)
I0411 13:44:29.005326 11973 net.cpp:150] Setting up conv2_sTanH
I0411 13:44:29.005357 11973 net.cpp:157] Top shape: 1024 150 18 18 (49766400)
I0411 13:44:29.005362 11973 net.cpp:165] Memory required for data: 3696295936
I0411 13:44:29.005365 11973 layer_factory.hpp:77] Creating layer conv2_postscale
I0411 13:44:29.005373 11973 net.cpp:100] Creating Layer conv2_postscale
I0411 13:44:29.005376 11973 net.cpp:434] conv2_postscale <- conv2
I0411 13:44:29.005383 11973 net.cpp:395] conv2_postscale -> conv2 (in-place)
I0411 13:44:29.005496 11973 net.cpp:150] Setting up conv2_postscale
I0411 13:44:29.005506 11973 net.cpp:157] Top shape: 1024 150 18 18 (49766400)
I0411 13:44:29.005508 11973 net.cpp:165] Memory required for data: 3895361536
I0411 13:44:29.005513 11973 layer_factory.hpp:77] Creating layer pool2
I0411 13:44:29.005522 11973 net.cpp:100] Creating Layer pool2
I0411 13:44:29.005527 11973 net.cpp:434] pool2 <- conv2
I0411 13:44:29.005534 11973 net.cpp:408] pool2 -> pool2
I0411 13:44:29.005583 11973 net.cpp:150] Setting up pool2
I0411 13:44:29.005594 11973 net.cpp:157] Top shape: 1024 150 9 9 (12441600)
I0411 13:44:29.005596 11973 net.cpp:165] Memory required for data: 3945127936
I0411 13:44:29.005599 11973 layer_factory.hpp:77] Creating layer conv3
I0411 13:44:29.005609 11973 net.cpp:100] Creating Layer conv3
I0411 13:44:29.005612 11973 net.cpp:434] conv3 <- pool2
I0411 13:44:29.005621 11973 net.cpp:408] conv3 -> conv3
I0411 13:44:29.011652 11973 net.cpp:150] Setting up conv3
I0411 13:44:29.011669 11973 net.cpp:157] Top shape: 1024 250 6 6 (9216000)
I0411 13:44:29.011684 11973 net.cpp:165] Memory required for data: 3981991936
I0411 13:44:29.011695 11973 layer_factory.hpp:77] Creating layer conv3_prescale
I0411 13:44:29.011704 11973 net.cpp:100] Creating Layer conv3_prescale
I0411 13:44:29.011708 11973 net.cpp:434] conv3_prescale <- conv3
I0411 13:44:29.011713 11973 net.cpp:395] conv3_prescale -> conv3 (in-place)
I0411 13:44:29.011818 11973 net.cpp:150] Setting up conv3_prescale
I0411 13:44:29.011828 11973 net.cpp:157] Top shape: 1024 250 6 6 (9216000)
I0411 13:44:29.011831 11973 net.cpp:165] Memory required for data: 4018855936
I0411 13:44:29.011835 11973 layer_factory.hpp:77] Creating layer conv3_sTanH
I0411 13:44:29.011842 11973 net.cpp:100] Creating Layer conv3_sTanH
I0411 13:44:29.011844 11973 net.cpp:434] conv3_sTanH <- conv3
I0411 13:44:29.011850 11973 net.cpp:395] conv3_sTanH -> conv3 (in-place)
I0411 13:44:29.015312 11973 net.cpp:150] Setting up conv3_sTanH
I0411 13:44:29.015331 11973 net.cpp:157] Top shape: 1024 250 6 6 (9216000)
I0411 13:44:29.015347 11973 net.cpp:165] Memory required for data: 4055719936
I0411 13:44:29.015350 11973 layer_factory.hpp:77] Creating layer conv3_postscale
I0411 13:44:29.015359 11973 net.cpp:100] Creating Layer conv3_postscale
I0411 13:44:29.015363 11973 net.cpp:434] conv3_postscale <- conv3
I0411 13:44:29.015370 11973 net.cpp:395] conv3_postscale -> conv3 (in-place)
I0411 13:44:29.015478 11973 net.cpp:150] Setting up conv3_postscale
I0411 13:44:29.015488 11973 net.cpp:157] Top shape: 1024 250 6 6 (9216000)
I0411 13:44:29.015491 11973 net.cpp:165] Memory required for data: 4092583936
I0411 13:44:29.015497 11973 layer_factory.hpp:77] Creating layer pool3
I0411 13:44:29.015508 11973 net.cpp:100] Creating Layer pool3
I0411 13:44:29.015513 11973 net.cpp:434] pool3 <- conv3
I0411 13:44:29.015519 11973 net.cpp:408] pool3 -> pool3
I0411 13:44:29.015563 11973 net.cpp:150] Setting up pool3
I0411 13:44:29.015571 11973 net.cpp:157] Top shape: 1024 250 3 3 (2304000)
I0411 13:44:29.015574 11973 net.cpp:165] Memory required for data: 4101799936
I0411 13:44:29.015578 11973 layer_factory.hpp:77] Creating layer fc4_300
I0411 13:44:29.015584 11973 net.cpp:100] Creating Layer fc4_300
I0411 13:44:29.015589 11973 net.cpp:434] fc4_300 <- pool3
I0411 13:44:29.015599 11973 net.cpp:408] fc4_300 -> fc4_300
I0411 13:44:29.029253 11973 net.cpp:150] Setting up fc4_300
I0411 13:44:29.029273 11973 net.cpp:157] Top shape: 1024 300 (307200)
I0411 13:44:29.029278 11973 net.cpp:165] Memory required for data: 4103028736
I0411 13:44:29.029304 11973 layer_factory.hpp:77] Creating layer fc4_prescale
I0411 13:44:29.029311 11973 net.cpp:100] Creating Layer fc4_prescale
I0411 13:44:29.029315 11973 net.cpp:434] fc4_prescale <- fc4_300
I0411 13:44:29.029325 11973 net.cpp:395] fc4_prescale -> fc4_300 (in-place)
I0411 13:44:29.029425 11973 net.cpp:150] Setting up fc4_prescale
I0411 13:44:29.029435 11973 net.cpp:157] Top shape: 1024 300 (307200)
I0411 13:44:29.029438 11973 net.cpp:165] Memory required for data: 4104257536
I0411 13:44:29.029443 11973 layer_factory.hpp:77] Creating layer fc4_sTanH
I0411 13:44:29.029448 11973 net.cpp:100] Creating Layer fc4_sTanH
I0411 13:44:29.029451 11973 net.cpp:434] fc4_sTanH <- fc4_300
I0411 13:44:29.029456 11973 net.cpp:395] fc4_sTanH -> fc4_300 (in-place)
I0411 13:44:29.029670 11973 net.cpp:150] Setting up fc4_sTanH
I0411 13:44:29.029681 11973 net.cpp:157] Top shape: 1024 300 (307200)
I0411 13:44:29.029685 11973 net.cpp:165] Memory required for data: 4105486336
I0411 13:44:29.029688 11973 layer_factory.hpp:77] Creating layer fc4_postscale
I0411 13:44:29.029695 11973 net.cpp:100] Creating Layer fc4_postscale
I0411 13:44:29.029697 11973 net.cpp:434] fc4_postscale <- fc4_300
I0411 13:44:29.029705 11973 net.cpp:395] fc4_postscale -> fc4_300 (in-place)
I0411 13:44:29.029809 11973 net.cpp:150] Setting up fc4_postscale
I0411 13:44:29.029819 11973 net.cpp:157] Top shape: 1024 300 (307200)
I0411 13:44:29.029821 11973 net.cpp:165] Memory required for data: 4106715136
I0411 13:44:29.029826 11973 layer_factory.hpp:77] Creating layer drop4
I0411 13:44:29.029832 11973 net.cpp:100] Creating Layer drop4
I0411 13:44:29.029835 11973 net.cpp:434] drop4 <- fc4_300
I0411 13:44:29.029839 11973 net.cpp:395] drop4 -> fc4_300 (in-place)
I0411 13:44:29.029866 11973 net.cpp:150] Setting up drop4
I0411 13:44:29.029875 11973 net.cpp:157] Top shape: 1024 300 (307200)
I0411 13:44:29.029877 11973 net.cpp:165] Memory required for data: 4107943936
I0411 13:44:29.029881 11973 layer_factory.hpp:77] Creating layer fc5_67
I0411 13:44:29.029887 11973 net.cpp:100] Creating Layer fc5_67
I0411 13:44:29.029891 11973 net.cpp:434] fc5_67 <- fc4_300
I0411 13:44:29.029896 11973 net.cpp:408] fc5_67 -> fc5_classes
I0411 13:44:29.030144 11973 net.cpp:150] Setting up fc5_67
I0411 13:44:29.030153 11973 net.cpp:157] Top shape: 1024 67 (68608)
I0411 13:44:29.030156 11973 net.cpp:165] Memory required for data: 4108218368
I0411 13:44:29.030167 11973 layer_factory.hpp:77] Creating layer fc5_classes_fc5_67_0_split
I0411 13:44:29.030175 11973 net.cpp:100] Creating Layer fc5_classes_fc5_67_0_split
I0411 13:44:29.030179 11973 net.cpp:434] fc5_classes_fc5_67_0_split <- fc5_classes
I0411 13:44:29.030184 11973 net.cpp:408] fc5_classes_fc5_67_0_split -> fc5_classes_fc5_67_0_split_0
I0411 13:44:29.030191 11973 net.cpp:408] fc5_classes_fc5_67_0_split -> fc5_classes_fc5_67_0_split_1
I0411 13:44:29.030197 11973 net.cpp:408] fc5_classes_fc5_67_0_split -> fc5_classes_fc5_67_0_split_2
I0411 13:44:29.030251 11973 net.cpp:150] Setting up fc5_classes_fc5_67_0_split
I0411 13:44:29.030258 11973 net.cpp:157] Top shape: 1024 67 (68608)
I0411 13:44:29.030262 11973 net.cpp:157] Top shape: 1024 67 (68608)
I0411 13:44:29.030266 11973 net.cpp:157] Top shape: 1024 67 (68608)
I0411 13:44:29.030267 11973 net.cpp:165] Memory required for data: 4109041664
I0411 13:44:29.030270 11973 layer_factory.hpp:77] Creating layer loss
I0411 13:44:29.030278 11973 net.cpp:100] Creating Layer loss
I0411 13:44:29.030282 11973 net.cpp:434] loss <- fc5_classes_fc5_67_0_split_0
I0411 13:44:29.030287 11973 net.cpp:434] loss <- label_data_1_split_0
I0411 13:44:29.030290 11973 net.cpp:408] loss -> loss
…
