…
I0411 14:01:01.907454  6686 net.cpp:322] The NetState phase (0) differed from the phase (1) specified by a rule in layer accuracy_5
I0411 14:01:01.907639  6686 net.cpp:58] Initializing net from parameters: 
state {
  phase: TRAIN
  level: 0
  stage: ""
}
layer {
  name: "data"
  type: "Data"
  top: "data"
  top: "label"
  include {
    phase: TRAIN
  }
  transform_param {
    scale: 0.0039215689
    mirror: false
    crop_size: 48
    mean_value: 132
    mean_value: 132
    mean_value: 131
  }
  data_param {
    source: "../local_data/lmdb/rtsd-r1/CoNorm/train/lmdb"
    batch_size: 1024
    backend: LMDB
  }
}
layer {
  name: "conv1"
  type: "Convolution"
  bottom: "data"
  top: "conv1"
  convolution_param {
    num_output: 100
    pad: 0
    kernel_size: 7
    group: 1
    stride: 1
    weight_filler {
      type: "xavier"
    }
  }
}
layer {
  name: "conv1_prescale"
  type: "Scale"
  bottom: "conv1"
  top: "conv1"
  param {
    lr_mult: 0
    decay_mult: 0
  }
  scale_param {
    filler {
      value: 0.6666
    }
    bias_term: false
  }
}
layer {
  name: "conv1_sTanH"
  type: "TanH"
  bottom: "conv1"
  top: "conv1"
}
layer {
  name: "conv1_postscale"
  type: "Scale"
  bottom: "conv1"
  top: "conv1"
  param {
    lr_mult: 0
    decay_mult: 0
  }
  scale_param {
    filler {
      value: 1.7159
    }
    bias_term: false
  }
}
layer {
  name: "pool1"
  type: "Pooling"
  bottom: "conv1"
  top: "pool1"
  pooling_param {
    pool: MAX
    kernel_size: 2
    stride: 2
  }
}
layer {
  name: "conv2"
  type: "Convolution"
  bottom: "pool1"
  top: "conv2"
  convolution_param {
    num_output: 150
    pad: 0
    kernel_size: 4
    group: 1
    stride: 1
    weight_filler {
      type: "xavier"
    }
  }
}
layer {
  name: "conv2_prescale"
  type: "Scale"
  bottom: "conv2"
  top: "conv2"
  param {
    lr_mult: 0
    decay_mult: 0
  }
  scale_param {
    filler {
      value: 0.6666
    }
    bias_term: false
  }
}
layer {
  name: "conv2_sTanH"
  type: "TanH"
  bottom: "conv2"
  top: "conv2"
}
layer {
  name: "conv2_postscale"
  type: "Scale"
  bottom: "conv2"
  top: "conv2"
  param {
    lr_mult: 0
    decay_mult: 0
  }
  scale_param {
    filler {
      value: 1.7159
    }
    bias_term: false
  }
}
layer {
  name: "pool2"
  type: "Pooling"
  bottom: "conv2"
  top: "pool2"
  pooling_param {
    pool: MAX
    kernel_size: 2
    stride: 2
  }
}
layer {
  name: "conv3"
  type: "Convolution"
  bottom: "pool2"
  top: "conv3"
  convolution_param {
    num_output: 250
    pad: 0
    kernel_size: 4
    group: 1
    stride: 1
    weight_filler {
      type: "xavier"
    }
  }
}
layer {
  name: "conv3_prescale"
  type: "Scale"
  bottom: "conv3"
  top: "conv3"
  param {
    lr_mult: 0
    decay_mult: 0
  }
  scale_param {
    filler {
      value: 0.6666
    }
    bias_term: false
  }
}
layer {
  name: "conv3_sTanH"
  type: "TanH"
  bottom: "conv3"
  top: "conv3"
}
layer {
  name: "conv3_postscale"
  type: "Scale"
  bottom: "conv3"
  top: "conv3"
  param {
    lr_mult: 0
    decay_mult: 0
  }
  scale_param {
    filler {
      value: 1.7159
    }
    bias_term: false
  }
}
layer {
  name: "pool3"
  type: "Pooling"
  bottom: "conv3"
  top: "pool3"
  pooling_param {
    pool: MAX
    kernel_size: 2
    stride: 2
  }
}
layer {
  name: "fc4_300"
  type: "InnerProduct"
  bottom: "pool3"
  top: "fc4_300"
  inner_product_param {
    num_output: 300
    weight_filler {
      type: "xavier"
    }
  }
}
layer {
  name: "fc4_prescale"
  type: "Scale"
  bottom: "fc4_300"
  top: "fc4_300"
  param {
    lr_mult: 0
    decay_mult: 0
  }
  scale_param {
    filler {
      value: 0.6666
    }
    bias_term: false
  }
}
layer {
  name: "fc4_sTanH"
  type: "TanH"
  bottom: "fc4_300"
  top: "fc4_300"
}
layer {
  name: "fc4_postscale"
  type: "Scale"
  bottom: "fc4_300"
  top: "fc4_300"
  param {
    lr_mult: 0
    decay_mult: 0
  }
  scale_param {
    filler {
      value: 1.7159
    }
    bias_term: false
  }
}
layer {
  name: "drop4"
  type: "Dropout"
  bottom: "fc4_300"
  top: "fc4_300"
  dropout_param {
    dropout_ratio: 0.1
  }
}
layer {
  name: "fc5_67"
  type: "InnerProduct"
  bottom: "fc4_300"
  top: "fc5_classes"
  inner_product_param {
    num_output: 67
    weight_filler {
      type: "xavier"
    }
  }
}
layer {
  name: "loss"
  type: "SoftmaxWithLoss"
  bottom: "fc5_classes"
  bottom: "label"
  top: "loss"
}
I0411 14:01:01.907774  6686 layer_factory.hpp:77] Creating layer data
I0411 14:01:01.909085  6686 net.cpp:100] Creating Layer data
I0411 14:01:01.909104  6686 net.cpp:408] data -> data
I0411 14:01:01.909132  6686 net.cpp:408] data -> label
I0411 14:01:01.910759  6811 db_lmdb.cpp:35] Opened lmdb ../local_data/lmdb/rtsd-r1/CoNorm/train/lmdb
I0411 14:01:01.932821  6686 data_layer.cpp:41] output data size: 1024,3,48,48
I0411 14:01:01.986639  6686 net.cpp:150] Setting up data
I0411 14:01:01.986673  6686 net.cpp:157] Top shape: 1024 3 48 48 (7077888)
I0411 14:01:01.986680  6686 net.cpp:157] Top shape: 1024 (1024)
I0411 14:01:01.986685  6686 net.cpp:165] Memory required for data: 28315648
I0411 14:01:01.986696  6686 layer_factory.hpp:77] Creating layer conv1
I0411 14:01:01.986719  6686 net.cpp:100] Creating Layer conv1
I0411 14:01:01.986732  6686 net.cpp:434] conv1 <- data
I0411 14:01:01.986748  6686 net.cpp:408] conv1 -> conv1
I0411 14:01:02.315747  6686 net.cpp:150] Setting up conv1
I0411 14:01:02.315781  6686 net.cpp:157] Top shape: 1024 100 42 42 (180633600)
I0411 14:01:02.315788  6686 net.cpp:165] Memory required for data: 750850048
I0411 14:01:02.315812  6686 layer_factory.hpp:77] Creating layer conv1_prescale
I0411 14:01:02.315837  6686 net.cpp:100] Creating Layer conv1_prescale
I0411 14:01:02.315845  6686 net.cpp:434] conv1_prescale <- conv1
I0411 14:01:02.315853  6686 net.cpp:395] conv1_prescale -> conv1 (in-place)
I0411 14:01:02.316015  6686 net.cpp:150] Setting up conv1_prescale
I0411 14:01:02.316028  6686 net.cpp:157] Top shape: 1024 100 42 42 (180633600)
I0411 14:01:02.316035  6686 net.cpp:165] Memory required for data: 1473384448
I0411 14:01:02.316043  6686 layer_factory.hpp:77] Creating layer conv1_sTanH
I0411 14:01:02.316052  6686 net.cpp:100] Creating Layer conv1_sTanH
I0411 14:01:02.316057  6686 net.cpp:434] conv1_sTanH <- conv1
I0411 14:01:02.316063  6686 net.cpp:395] conv1_sTanH -> conv1 (in-place)
I0411 14:01:02.316304  6686 net.cpp:150] Setting up conv1_sTanH
I0411 14:01:02.316320  6686 net.cpp:157] Top shape: 1024 100 42 42 (180633600)
I0411 14:01:02.316326  6686 net.cpp:165] Memory required for data: 2195918848
I0411 14:01:02.316330  6686 layer_factory.hpp:77] Creating layer conv1_postscale
I0411 14:01:02.316340  6686 net.cpp:100] Creating Layer conv1_postscale
I0411 14:01:02.316346  6686 net.cpp:434] conv1_postscale <- conv1
I0411 14:01:02.316352  6686 net.cpp:395] conv1_postscale -> conv1 (in-place)
I0411 14:01:02.316470  6686 net.cpp:150] Setting up conv1_postscale
I0411 14:01:02.316481  6686 net.cpp:157] Top shape: 1024 100 42 42 (180633600)
I0411 14:01:02.316488  6686 net.cpp:165] Memory required for data: 2918453248
I0411 14:01:02.316493  6686 layer_factory.hpp:77] Creating layer pool1
I0411 14:01:02.316504  6686 net.cpp:100] Creating Layer pool1
I0411 14:01:02.316509  6686 net.cpp:434] pool1 <- conv1
I0411 14:01:02.316515  6686 net.cpp:408] pool1 -> pool1
I0411 14:01:02.316598  6686 net.cpp:150] Setting up pool1
I0411 14:01:02.316611  6686 net.cpp:157] Top shape: 1024 100 21 21 (45158400)
I0411 14:01:02.316617  6686 net.cpp:165] Memory required for data: 3099086848
I0411 14:01:02.316620  6686 layer_factory.hpp:77] Creating layer conv2
I0411 14:01:02.316634  6686 net.cpp:100] Creating Layer conv2
I0411 14:01:02.316640  6686 net.cpp:434] conv2 <- pool1
I0411 14:01:02.316648  6686 net.cpp:408] conv2 -> conv2
I0411 14:01:02.325464  6686 net.cpp:150] Setting up conv2
I0411 14:01:02.325485  6686 net.cpp:157] Top shape: 1024 150 18 18 (49766400)
I0411 14:01:02.325490  6686 net.cpp:165] Memory required for data: 3298152448
I0411 14:01:02.325503  6686 layer_factory.hpp:77] Creating layer conv2_prescale
I0411 14:01:02.325515  6686 net.cpp:100] Creating Layer conv2_prescale
I0411 14:01:02.325522  6686 net.cpp:434] conv2_prescale <- conv2
I0411 14:01:02.325529  6686 net.cpp:395] conv2_prescale -> conv2 (in-place)
I0411 14:01:02.325666  6686 net.cpp:150] Setting up conv2_prescale
I0411 14:01:02.325678  6686 net.cpp:157] Top shape: 1024 150 18 18 (49766400)
I0411 14:01:02.325685  6686 net.cpp:165] Memory required for data: 3497218048
I0411 14:01:02.325691  6686 layer_factory.hpp:77] Creating layer conv2_sTanH
I0411 14:01:02.325703  6686 net.cpp:100] Creating Layer conv2_sTanH
I0411 14:01:02.325709  6686 net.cpp:434] conv2_sTanH <- conv2
I0411 14:01:02.325716  6686 net.cpp:395] conv2_sTanH -> conv2 (in-place)
I0411 14:01:02.326774  6686 net.cpp:150] Setting up conv2_sTanH
I0411 14:01:02.326797  6686 net.cpp:157] Top shape: 1024 150 18 18 (49766400)
I0411 14:01:02.326802  6686 net.cpp:165] Memory required for data: 3696283648
I0411 14:01:02.326807  6686 layer_factory.hpp:77] Creating layer conv2_postscale
I0411 14:01:02.326817  6686 net.cpp:100] Creating Layer conv2_postscale
I0411 14:01:02.326822  6686 net.cpp:434] conv2_postscale <- conv2
I0411 14:01:02.326831  6686 net.cpp:395] conv2_postscale -> conv2 (in-place)
I0411 14:01:02.326957  6686 net.cpp:150] Setting up conv2_postscale
I0411 14:01:02.326970  6686 net.cpp:157] Top shape: 1024 150 18 18 (49766400)
I0411 14:01:02.326977  6686 net.cpp:165] Memory required for data: 3895349248
I0411 14:01:02.326982  6686 layer_factory.hpp:77] Creating layer pool2
I0411 14:01:02.326992  6686 net.cpp:100] Creating Layer pool2
I0411 14:01:02.326997  6686 net.cpp:434] pool2 <- conv2
I0411 14:01:02.327004  6686 net.cpp:408] pool2 -> pool2
I0411 14:01:02.327059  6686 net.cpp:150] Setting up pool2
I0411 14:01:02.327069  6686 net.cpp:157] Top shape: 1024 150 9 9 (12441600)
I0411 14:01:02.327074  6686 net.cpp:165] Memory required for data: 3945115648
I0411 14:01:02.327077  6686 layer_factory.hpp:77] Creating layer conv3
I0411 14:01:02.327088  6686 net.cpp:100] Creating Layer conv3
I0411 14:01:02.327095  6686 net.cpp:434] conv3 <- pool2
I0411 14:01:02.327103  6686 net.cpp:408] conv3 -> conv3
I0411 14:01:02.334339  6686 net.cpp:150] Setting up conv3
I0411 14:01:02.334363  6686 net.cpp:157] Top shape: 1024 250 6 6 (9216000)
I0411 14:01:02.334379  6686 net.cpp:165] Memory required for data: 3981979648
I0411 14:01:02.334393  6686 layer_factory.hpp:77] Creating layer conv3_prescale
I0411 14:01:02.334405  6686 net.cpp:100] Creating Layer conv3_prescale
I0411 14:01:02.334411  6686 net.cpp:434] conv3_prescale <- conv3
I0411 14:01:02.334419  6686 net.cpp:395] conv3_prescale -> conv3 (in-place)
I0411 14:01:02.334542  6686 net.cpp:150] Setting up conv3_prescale
I0411 14:01:02.334553  6686 net.cpp:157] Top shape: 1024 250 6 6 (9216000)
I0411 14:01:02.334558  6686 net.cpp:165] Memory required for data: 4018843648
I0411 14:01:02.334564  6686 layer_factory.hpp:77] Creating layer conv3_sTanH
I0411 14:01:02.334573  6686 net.cpp:100] Creating Layer conv3_sTanH
I0411 14:01:02.334579  6686 net.cpp:434] conv3_sTanH <- conv3
I0411 14:01:02.334586  6686 net.cpp:395] conv3_sTanH -> conv3 (in-place)
I0411 14:01:02.338016  6686 net.cpp:150] Setting up conv3_sTanH
I0411 14:01:02.338039  6686 net.cpp:157] Top shape: 1024 250 6 6 (9216000)
I0411 14:01:02.338047  6686 net.cpp:165] Memory required for data: 4055707648
I0411 14:01:02.338071  6686 layer_factory.hpp:77] Creating layer conv3_postscale
I0411 14:01:02.338088  6686 net.cpp:100] Creating Layer conv3_postscale
I0411 14:01:02.338093  6686 net.cpp:434] conv3_postscale <- conv3
I0411 14:01:02.338101  6686 net.cpp:395] conv3_postscale -> conv3 (in-place)
I0411 14:01:02.338235  6686 net.cpp:150] Setting up conv3_postscale
I0411 14:01:02.338248  6686 net.cpp:157] Top shape: 1024 250 6 6 (9216000)
I0411 14:01:02.338253  6686 net.cpp:165] Memory required for data: 4092571648
I0411 14:01:02.338260  6686 layer_factory.hpp:77] Creating layer pool3
I0411 14:01:02.338269  6686 net.cpp:100] Creating Layer pool3
I0411 14:01:02.338275  6686 net.cpp:434] pool3 <- conv3
I0411 14:01:02.338284  6686 net.cpp:408] pool3 -> pool3
I0411 14:01:02.338340  6686 net.cpp:150] Setting up pool3
I0411 14:01:02.338351  6686 net.cpp:157] Top shape: 1024 250 3 3 (2304000)
I0411 14:01:02.338356  6686 net.cpp:165] Memory required for data: 4101787648
I0411 14:01:02.338359  6686 layer_factory.hpp:77] Creating layer fc4_300
I0411 14:01:02.338377  6686 net.cpp:100] Creating Layer fc4_300
I0411 14:01:02.338383  6686 net.cpp:434] fc4_300 <- pool3
I0411 14:01:02.338390  6686 net.cpp:408] fc4_300 -> fc4_300
I0411 14:01:02.346063  6686 net.cpp:150] Setting up fc4_300
I0411 14:01:02.346093  6686 net.cpp:157] Top shape: 1024 300 (307200)
I0411 14:01:02.346098  6686 net.cpp:165] Memory required for data: 4103016448
I0411 14:01:02.346107  6686 layer_factory.hpp:77] Creating layer fc4_prescale
I0411 14:01:02.346117  6686 net.cpp:100] Creating Layer fc4_prescale
I0411 14:01:02.346123  6686 net.cpp:434] fc4_prescale <- fc4_300
I0411 14:01:02.346132  6686 net.cpp:395] fc4_prescale -> fc4_300 (in-place)
I0411 14:01:02.346252  6686 net.cpp:150] Setting up fc4_prescale
I0411 14:01:02.346263  6686 net.cpp:157] Top shape: 1024 300 (307200)
I0411 14:01:02.346269  6686 net.cpp:165] Memory required for data: 4104245248
I0411 14:01:02.346276  6686 layer_factory.hpp:77] Creating layer fc4_sTanH
I0411 14:01:02.346284  6686 net.cpp:100] Creating Layer fc4_sTanH
I0411 14:01:02.346290  6686 net.cpp:434] fc4_sTanH <- fc4_300
I0411 14:01:02.346297  6686 net.cpp:395] fc4_sTanH -> fc4_300 (in-place)
I0411 14:01:02.346539  6686 net.cpp:150] Setting up fc4_sTanH
I0411 14:01:02.346554  6686 net.cpp:157] Top shape: 1024 300 (307200)
I0411 14:01:02.346557  6686 net.cpp:165] Memory required for data: 4105474048
I0411 14:01:02.346563  6686 layer_factory.hpp:77] Creating layer fc4_postscale
I0411 14:01:02.346575  6686 net.cpp:100] Creating Layer fc4_postscale
I0411 14:01:02.346581  6686 net.cpp:434] fc4_postscale <- fc4_300
I0411 14:01:02.346588  6686 net.cpp:395] fc4_postscale -> fc4_300 (in-place)
I0411 14:01:02.346714  6686 net.cpp:150] Setting up fc4_postscale
I0411 14:01:02.346725  6686 net.cpp:157] Top shape: 1024 300 (307200)
I0411 14:01:02.346730  6686 net.cpp:165] Memory required for data: 4106702848
I0411 14:01:02.346737  6686 layer_factory.hpp:77] Creating layer drop4
I0411 14:01:02.346747  6686 net.cpp:100] Creating Layer drop4
I0411 14:01:02.346752  6686 net.cpp:434] drop4 <- fc4_300
I0411 14:01:02.346760  6686 net.cpp:395] drop4 -> fc4_300 (in-place)
I0411 14:01:02.346796  6686 net.cpp:150] Setting up drop4
I0411 14:01:02.346806  6686 net.cpp:157] Top shape: 1024 300 (307200)
I0411 14:01:02.346810  6686 net.cpp:165] Memory required for data: 4107931648
I0411 14:01:02.346814  6686 layer_factory.hpp:77] Creating layer fc5_67
I0411 14:01:02.346824  6686 net.cpp:100] Creating Layer fc5_67
I0411 14:01:02.346830  6686 net.cpp:434] fc5_67 <- fc4_300
I0411 14:01:02.346837  6686 net.cpp:408] fc5_67 -> fc5_classes
I0411 14:01:02.354244  6686 net.cpp:150] Setting up fc5_67
I0411 14:01:02.354277  6686 net.cpp:157] Top shape: 1024 67 (68608)
I0411 14:01:02.354285  6686 net.cpp:165] Memory required for data: 4108206080
I0411 14:01:02.354308  6686 layer_factory.hpp:77] Creating layer loss
I0411 14:01:02.354324  6686 net.cpp:100] Creating Layer loss
I0411 14:01:02.354334  6686 net.cpp:434] loss <- fc5_classes
I0411 14:01:02.354372  6686 net.cpp:434] loss <- label
I0411 14:01:02.354389  6686 net.cpp:408] loss -> loss
I0411 14:01:02.354413  6686 layer_factory.hpp:77] Creating layer loss
…
I0411 14:01:02.355774  6686 solver.cpp:193] Creating test net (#0) specified by test_net file: ./Prototxt/experiment_9/rtsd-r1/CoNorm/trial_1/test.prototxt
I0411 14:01:02.356153  6686 net.cpp:58] Initializing net from parameters: 
state {
  phase: TEST
}
layer {
  name: "data"
  type: "Data"
  top: "data"
  top: "label"
  include {
    phase: TEST
  }
  transform_param {
    scale: 0.0039215689
    mirror: false
    crop_size: 48
    mean_value: 133
    mean_value: 133
    mean_value: 132
  }
  data_param {
    source: "../local_data/lmdb/rtsd-r1/CoNorm/test/lmdb"
    batch_size: 1024
    backend: LMDB
  }
}
layer {
  name: "conv1"
  type: "Convolution"
  bottom: "data"
  top: "conv1"
  convolution_param {
    num_output: 100
    pad: 0
    kernel_size: 7
    group: 1
    stride: 1
    weight_filler {
      type: "xavier"
    }
  }
}
layer {
  name: "conv1_prescale"
  type: "Scale"
  bottom: "conv1"
  top: "conv1"
  param {
    lr_mult: 0
    decay_mult: 0
  }
  scale_param {
    filler {
      value: 0.6666
    }
    bias_term: false
  }
}
layer {
  name: "conv1_sTanH"
  type: "TanH"
  bottom: "conv1"
  top: "conv1"
}
layer {
  name: "conv1_postscale"
  type: "Scale"
  bottom: "conv1"
  top: "conv1"
  param {
    lr_mult: 0
    decay_mult: 0
  }
  scale_param {
    filler {
      value: 1.7159
    }
    bias_term: false
  }
}
layer {
  name: "pool1"
  type: "Pooling"
  bottom: "conv1"
  top: "pool1"
  pooling_param {
    pool: MAX
    kernel_size: 2
    stride: 2
  }
}
layer {
  name: "conv2"
  type: "Convolution"
  bottom: "pool1"
  top: "conv2"
  convolution_param {
    num_output: 150
    pad: 0
    kernel_size: 4
    group: 1
    stride: 1
    weight_filler {
      type: "xavier"
    }
  }
}
layer {
  name: "conv2_prescale"
  type: "Scale"
  bottom: "conv2"
  top: "conv2"
  param {
    lr_mult: 0
    decay_mult: 0
  }
  scale_param {
    filler {
      value: 0.6666
    }
    bias_term: false
  }
}
layer {
  name: "conv2_sTanH"
  type: "TanH"
  bottom: "conv2"
  top: "conv2"
}
layer {
  name: "conv2_postscale"
  type: "Scale"
  bottom: "conv2"
  top: "conv2"
  param {
    lr_mult: 0
    decay_mult: 0
  }
  scale_param {
    filler {
      value: 1.7159
    }
    bias_term: false
  }
}
layer {
  name: "pool2"
  type: "Pooling"
  bottom: "conv2"
  top: "pool2"
  pooling_param {
    pool: MAX
    kernel_size: 2
    stride: 2
  }
}
layer {
  name: "conv3"
  type: "Convolution"
  bottom: "pool2"
  top: "conv3"
  convolution_param {
    num_output: 250
    pad: 0
    kernel_size: 4
    group: 1
    stride: 1
    weight_filler {
      type: "xavier"
    }
  }
}
layer {
  name: "conv3_prescale"
  type: "Scale"
  bottom: "conv3"
  top: "conv3"
  param {
    lr_mult: 0
    decay_mult: 0
  }
  scale_param {
    filler {
      value: 0.6666
    }
    bias_term: false
  }
}
layer {
  name: "conv3_sTanH"
  type: "TanH"
  bottom: "conv3"
  top: "conv3"
}
layer {
  name: "conv3_postscale"
  type: "Scale"
  bottom: "conv3"
  top: "conv3"
  param {
    lr_mult: 0
    decay_mult: 0
  }
  scale_param {
    filler {
      value: 1.7159
    }
    bias_term: false
  }
}
layer {
  name: "pool3"
  type: "Pooling"
  bottom: "conv3"
  top: "pool3"
  pooling_param {
    pool: MAX
    kernel_size: 2
    stride: 2
  }
}
layer {
  name: "fc4_300"
  type: "InnerProduct"
  bottom: "pool3"
  top: "fc4_300"
  inner_product_param {
    num_output: 300
    weight_filler {
      type: "xavier"
    }
  }
}
layer {
  name: "fc4_prescale"
  type: "Scale"
  bottom: "fc4_300"
  top: "fc4_300"
  param {
    lr_mult: 0
    decay_mult: 0
  }
  scale_param {
    filler {
      value: 0.6666
    }
    bias_term: false
  }
}
layer {
  name: "fc4_sTanH"
  type: "TanH"
  bottom: "fc4_300"
  top: "fc4_300"
}
layer {
  name: "fc4_postscale"
  type: "Scale"
  bottom: "fc4_300"
  top: "fc4_300"
  param {
    lr_mult: 0
    decay_mult: 0
  }
  scale_param {
    filler {
      value: 1.7159
    }
    bias_term: false
  }
}
layer {
  name: "drop4"
  type: "Dropout"
  bottom: "fc4_300"
  top: "fc4_300"
  dropout_param {
    dropout_ratio: 0.1
  }
}
layer {
  name: "fc5_67"
  type: "InnerProduct"
  bottom: "fc4_300"
  top: "fc5_classes"
  inner_product_param {
    num_output: 67
    weight_filler {
      type: "xavier"
    }
  }
}
layer {
  name: "loss"
  type: "SoftmaxWithLoss"
  bottom: "fc5_classes"
  bottom: "label"
  top: "loss"
}
layer {
  name: "accuracy_1"
  type: "Accuracy"
  bottom: "fc5_classes"
  bottom: "label"
  top: "accuracy_1"
  include {
    phase: TEST
  }
  accuracy_param {
    top_k: 1
  }
}
layer {
  name: "accuracy_5"
  type: "Accuracy"
  bottom: "fc5_classes"
  bottom: "label"
  top: "accuracy_5"
  include {
    phase: TEST
  }
  accuracy_param {
    top_k: 5
  }
}
I0411 14:01:02.356396  6686 layer_factory.hpp:77] Creating layer data
I0411 14:01:02.357728  6686 net.cpp:100] Creating Layer data
I0411 14:01:02.357749  6686 net.cpp:408] data -> data
I0411 14:01:02.357769  6686 net.cpp:408] data -> label
I0411 14:01:02.362421  6892 db_lmdb.cpp:35] Opened lmdb ../local_data/lmdb/rtsd-r1/CoNorm/test/lmdb
I0411 14:01:02.362645  6686 data_layer.cpp:41] output data size: 1024,3,48,48
I0411 14:01:02.424839  6686 net.cpp:150] Setting up data
I0411 14:01:02.424878  6686 net.cpp:157] Top shape: 1024 3 48 48 (7077888)
I0411 14:01:02.424885  6686 net.cpp:157] Top shape: 1024 (1024)
I0411 14:01:02.424890  6686 net.cpp:165] Memory required for data: 28315648
I0411 14:01:02.424897  6686 layer_factory.hpp:77] Creating layer label_data_1_split
I0411 14:01:02.424913  6686 net.cpp:100] Creating Layer label_data_1_split
I0411 14:01:02.424921  6686 net.cpp:434] label_data_1_split <- label
I0411 14:01:02.424932  6686 net.cpp:408] label_data_1_split -> label_data_1_split_0
I0411 14:01:02.424947  6686 net.cpp:408] label_data_1_split -> label_data_1_split_1
I0411 14:01:02.424988  6686 net.cpp:408] label_data_1_split -> label_data_1_split_2
I0411 14:01:02.425112  6686 net.cpp:150] Setting up label_data_1_split
I0411 14:01:02.425125  6686 net.cpp:157] Top shape: 1024 (1024)
I0411 14:01:02.425132  6686 net.cpp:157] Top shape: 1024 (1024)
I0411 14:01:02.425137  6686 net.cpp:157] Top shape: 1024 (1024)
I0411 14:01:02.425140  6686 net.cpp:165] Memory required for data: 28327936
I0411 14:01:02.425144  6686 layer_factory.hpp:77] Creating layer conv1
I0411 14:01:02.425163  6686 net.cpp:100] Creating Layer conv1
I0411 14:01:02.425169  6686 net.cpp:434] conv1 <- data
I0411 14:01:02.425179  6686 net.cpp:408] conv1 -> conv1
I0411 14:01:02.429641  6686 net.cpp:150] Setting up conv1
I0411 14:01:02.429664  6686 net.cpp:157] Top shape: 1024 100 42 42 (180633600)
I0411 14:01:02.429671  6686 net.cpp:165] Memory required for data: 750862336
I0411 14:01:02.429688  6686 layer_factory.hpp:77] Creating layer conv1_prescale
I0411 14:01:02.429702  6686 net.cpp:100] Creating Layer conv1_prescale
I0411 14:01:02.429711  6686 net.cpp:434] conv1_prescale <- conv1
I0411 14:01:02.429719  6686 net.cpp:395] conv1_prescale -> conv1 (in-place)
I0411 14:01:02.429868  6686 net.cpp:150] Setting up conv1_prescale
I0411 14:01:02.429883  6686 net.cpp:157] Top shape: 1024 100 42 42 (180633600)
I0411 14:01:02.429888  6686 net.cpp:165] Memory required for data: 1473396736
I0411 14:01:02.429896  6686 layer_factory.hpp:77] Creating layer conv1_sTanH
I0411 14:01:02.429908  6686 net.cpp:100] Creating Layer conv1_sTanH
I0411 14:01:02.429914  6686 net.cpp:434] conv1_sTanH <- conv1
I0411 14:01:02.429921  6686 net.cpp:395] conv1_sTanH -> conv1 (in-place)
I0411 14:01:02.430198  6686 net.cpp:150] Setting up conv1_sTanH
I0411 14:01:02.430213  6686 net.cpp:157] Top shape: 1024 100 42 42 (180633600)
I0411 14:01:02.430222  6686 net.cpp:165] Memory required for data: 2195931136
I0411 14:01:02.430227  6686 layer_factory.hpp:77] Creating layer conv1_postscale
I0411 14:01:02.430235  6686 net.cpp:100] Creating Layer conv1_postscale
I0411 14:01:02.430243  6686 net.cpp:434] conv1_postscale <- conv1
I0411 14:01:02.430254  6686 net.cpp:395] conv1_postscale -> conv1 (in-place)
I0411 14:01:02.430404  6686 net.cpp:150] Setting up conv1_postscale
I0411 14:01:02.430416  6686 net.cpp:157] Top shape: 1024 100 42 42 (180633600)
I0411 14:01:02.430421  6686 net.cpp:165] Memory required for data: 2918465536
I0411 14:01:02.430428  6686 layer_factory.hpp:77] Creating layer pool1
I0411 14:01:02.430438  6686 net.cpp:100] Creating Layer pool1
I0411 14:01:02.430444  6686 net.cpp:434] pool1 <- conv1
I0411 14:01:02.430454  6686 net.cpp:408] pool1 -> pool1
I0411 14:01:02.430515  6686 net.cpp:150] Setting up pool1
I0411 14:01:02.430526  6686 net.cpp:157] Top shape: 1024 100 21 21 (45158400)
I0411 14:01:02.430532  6686 net.cpp:165] Memory required for data: 3099099136
I0411 14:01:02.430536  6686 layer_factory.hpp:77] Creating layer conv2
I0411 14:01:02.430550  6686 net.cpp:100] Creating Layer conv2
I0411 14:01:02.430558  6686 net.cpp:434] conv2 <- pool1
I0411 14:01:02.430567  6686 net.cpp:408] conv2 -> conv2
I0411 14:01:02.435775  6686 net.cpp:150] Setting up conv2
I0411 14:01:02.435801  6686 net.cpp:157] Top shape: 1024 150 18 18 (49766400)
I0411 14:01:02.435807  6686 net.cpp:165] Memory required for data: 3298164736
I0411 14:01:02.435825  6686 layer_factory.hpp:77] Creating layer conv2_prescale
I0411 14:01:02.435840  6686 net.cpp:100] Creating Layer conv2_prescale
I0411 14:01:02.435847  6686 net.cpp:434] conv2_prescale <- conv2
I0411 14:01:02.435858  6686 net.cpp:395] conv2_prescale -> conv2 (in-place)
I0411 14:01:02.436036  6686 net.cpp:150] Setting up conv2_prescale
I0411 14:01:02.436050  6686 net.cpp:157] Top shape: 1024 150 18 18 (49766400)
I0411 14:01:02.436054  6686 net.cpp:165] Memory required for data: 3497230336
I0411 14:01:02.436067  6686 layer_factory.hpp:77] Creating layer conv2_sTanH
I0411 14:01:02.436076  6686 net.cpp:100] Creating Layer conv2_sTanH
I0411 14:01:02.436081  6686 net.cpp:434] conv2_sTanH <- conv2
I0411 14:01:02.436087  6686 net.cpp:395] conv2_sTanH -> conv2 (in-place)
I0411 14:01:02.437090  6686 net.cpp:150] Setting up conv2_sTanH
I0411 14:01:02.437109  6686 net.cpp:157] Top shape: 1024 150 18 18 (49766400)
I0411 14:01:02.437116  6686 net.cpp:165] Memory required for data: 3696295936
I0411 14:01:02.437121  6686 layer_factory.hpp:77] Creating layer conv2_postscale
I0411 14:01:02.437135  6686 net.cpp:100] Creating Layer conv2_postscale
I0411 14:01:02.437142  6686 net.cpp:434] conv2_postscale <- conv2
I0411 14:01:02.437150  6686 net.cpp:395] conv2_postscale -> conv2 (in-place)
I0411 14:01:02.437291  6686 net.cpp:150] Setting up conv2_postscale
I0411 14:01:02.437302  6686 net.cpp:157] Top shape: 1024 150 18 18 (49766400)
I0411 14:01:02.437307  6686 net.cpp:165] Memory required for data: 3895361536
I0411 14:01:02.437314  6686 layer_factory.hpp:77] Creating layer pool2
I0411 14:01:02.437321  6686 net.cpp:100] Creating Layer pool2
I0411 14:01:02.437327  6686 net.cpp:434] pool2 <- conv2
I0411 14:01:02.437336  6686 net.cpp:408] pool2 -> pool2
I0411 14:01:02.437398  6686 net.cpp:150] Setting up pool2
I0411 14:01:02.437409  6686 net.cpp:157] Top shape: 1024 150 9 9 (12441600)
I0411 14:01:02.437415  6686 net.cpp:165] Memory required for data: 3945127936
I0411 14:01:02.437420  6686 layer_factory.hpp:77] Creating layer conv3
I0411 14:01:02.437432  6686 net.cpp:100] Creating Layer conv3
I0411 14:01:02.437438  6686 net.cpp:434] conv3 <- pool2
I0411 14:01:02.437445  6686 net.cpp:408] conv3 -> conv3
I0411 14:01:02.444649  6686 net.cpp:150] Setting up conv3
I0411 14:01:02.444671  6686 net.cpp:157] Top shape: 1024 250 6 6 (9216000)
I0411 14:01:02.444677  6686 net.cpp:165] Memory required for data: 3981991936
I0411 14:01:02.444691  6686 layer_factory.hpp:77] Creating layer conv3_prescale
I0411 14:01:02.444705  6686 net.cpp:100] Creating Layer conv3_prescale
I0411 14:01:02.444712  6686 net.cpp:434] conv3_prescale <- conv3
I0411 14:01:02.444720  6686 net.cpp:395] conv3_prescale -> conv3 (in-place)
I0411 14:01:02.444849  6686 net.cpp:150] Setting up conv3_prescale
I0411 14:01:02.444861  6686 net.cpp:157] Top shape: 1024 250 6 6 (9216000)
I0411 14:01:02.444865  6686 net.cpp:165] Memory required for data: 4018855936
I0411 14:01:02.444871  6686 layer_factory.hpp:77] Creating layer conv3_sTanH
I0411 14:01:02.444878  6686 net.cpp:100] Creating Layer conv3_sTanH
I0411 14:01:02.444885  6686 net.cpp:434] conv3_sTanH <- conv3
I0411 14:01:02.444893  6686 net.cpp:395] conv3_sTanH -> conv3 (in-place)
I0411 14:01:02.445864  6686 net.cpp:150] Setting up conv3_sTanH
I0411 14:01:02.445884  6686 net.cpp:157] Top shape: 1024 250 6 6 (9216000)
I0411 14:01:02.445891  6686 net.cpp:165] Memory required for data: 4055719936
I0411 14:01:02.445896  6686 layer_factory.hpp:77] Creating layer conv3_postscale
I0411 14:01:02.445907  6686 net.cpp:100] Creating Layer conv3_postscale
I0411 14:01:02.445914  6686 net.cpp:434] conv3_postscale <- conv3
I0411 14:01:02.445922  6686 net.cpp:395] conv3_postscale -> conv3 (in-place)
I0411 14:01:02.446059  6686 net.cpp:150] Setting up conv3_postscale
I0411 14:01:02.446074  6686 net.cpp:157] Top shape: 1024 250 6 6 (9216000)
I0411 14:01:02.446077  6686 net.cpp:165] Memory required for data: 4092583936
I0411 14:01:02.446084  6686 layer_factory.hpp:77] Creating layer pool3
I0411 14:01:02.446099  6686 net.cpp:100] Creating Layer pool3
I0411 14:01:02.446106  6686 net.cpp:434] pool3 <- conv3
I0411 14:01:02.446113  6686 net.cpp:408] pool3 -> pool3
I0411 14:01:02.446168  6686 net.cpp:150] Setting up pool3
I0411 14:01:02.446178  6686 net.cpp:157] Top shape: 1024 250 3 3 (2304000)
I0411 14:01:02.446185  6686 net.cpp:165] Memory required for data: 4101799936
I0411 14:01:02.446189  6686 layer_factory.hpp:77] Creating layer fc4_300
I0411 14:01:02.446202  6686 net.cpp:100] Creating Layer fc4_300
I0411 14:01:02.446208  6686 net.cpp:434] fc4_300 <- pool3
I0411 14:01:02.446213  6686 net.cpp:408] fc4_300 -> fc4_300
I0411 14:01:02.452900  6686 net.cpp:150] Setting up fc4_300
I0411 14:01:02.452919  6686 net.cpp:157] Top shape: 1024 300 (307200)
I0411 14:01:02.452931  6686 net.cpp:165] Memory required for data: 4103028736
I0411 14:01:02.452955  6686 layer_factory.hpp:77] Creating layer fc4_prescale
I0411 14:01:02.452965  6686 net.cpp:100] Creating Layer fc4_prescale
I0411 14:01:02.452972  6686 net.cpp:434] fc4_prescale <- fc4_300
I0411 14:01:02.452981  6686 net.cpp:395] fc4_prescale -> fc4_300 (in-place)
I0411 14:01:02.453107  6686 net.cpp:150] Setting up fc4_prescale
I0411 14:01:02.453119  6686 net.cpp:157] Top shape: 1024 300 (307200)
I0411 14:01:02.453122  6686 net.cpp:165] Memory required for data: 4104257536
I0411 14:01:02.453128  6686 layer_factory.hpp:77] Creating layer fc4_sTanH
I0411 14:01:02.453135  6686 net.cpp:100] Creating Layer fc4_sTanH
I0411 14:01:02.453141  6686 net.cpp:434] fc4_sTanH <- fc4_300
I0411 14:01:02.453147  6686 net.cpp:395] fc4_sTanH -> fc4_300 (in-place)
I0411 14:01:02.453388  6686 net.cpp:150] Setting up fc4_sTanH
I0411 14:01:02.453402  6686 net.cpp:157] Top shape: 1024 300 (307200)
I0411 14:01:02.453407  6686 net.cpp:165] Memory required for data: 4105486336
I0411 14:01:02.453411  6686 layer_factory.hpp:77] Creating layer fc4_postscale
I0411 14:01:02.453419  6686 net.cpp:100] Creating Layer fc4_postscale
I0411 14:01:02.453425  6686 net.cpp:434] fc4_postscale <- fc4_300
I0411 14:01:02.453433  6686 net.cpp:395] fc4_postscale -> fc4_300 (in-place)
I0411 14:01:02.453562  6686 net.cpp:150] Setting up fc4_postscale
I0411 14:01:02.453572  6686 net.cpp:157] Top shape: 1024 300 (307200)
I0411 14:01:02.453575  6686 net.cpp:165] Memory required for data: 4106715136
I0411 14:01:02.453582  6686 layer_factory.hpp:77] Creating layer drop4
I0411 14:01:02.453589  6686 net.cpp:100] Creating Layer drop4
I0411 14:01:02.453596  6686 net.cpp:434] drop4 <- fc4_300
I0411 14:01:02.453604  6686 net.cpp:395] drop4 -> fc4_300 (in-place)
I0411 14:01:02.453636  6686 net.cpp:150] Setting up drop4
I0411 14:01:02.453647  6686 net.cpp:157] Top shape: 1024 300 (307200)
I0411 14:01:02.453652  6686 net.cpp:165] Memory required for data: 4107943936
I0411 14:01:02.453656  6686 layer_factory.hpp:77] Creating layer fc5_67
I0411 14:01:02.453663  6686 net.cpp:100] Creating Layer fc5_67
I0411 14:01:02.453668  6686 net.cpp:434] fc5_67 <- fc4_300
I0411 14:01:02.453675  6686 net.cpp:408] fc5_67 -> fc5_classes
I0411 14:01:02.453984  6686 net.cpp:150] Setting up fc5_67
I0411 14:01:02.453996  6686 net.cpp:157] Top shape: 1024 67 (68608)
I0411 14:01:02.454000  6686 net.cpp:165] Memory required for data: 4108218368
I0411 14:01:02.454015  6686 layer_factory.hpp:77] Creating layer fc5_classes_fc5_67_0_split
I0411 14:01:02.454025  6686 net.cpp:100] Creating Layer fc5_classes_fc5_67_0_split
I0411 14:01:02.454031  6686 net.cpp:434] fc5_classes_fc5_67_0_split <- fc5_classes
I0411 14:01:02.454037  6686 net.cpp:408] fc5_classes_fc5_67_0_split -> fc5_classes_fc5_67_0_split_0
I0411 14:01:02.454046  6686 net.cpp:408] fc5_classes_fc5_67_0_split -> fc5_classes_fc5_67_0_split_1
I0411 14:01:02.454056  6686 net.cpp:408] fc5_classes_fc5_67_0_split -> fc5_classes_fc5_67_0_split_2
I0411 14:01:02.454130  6686 net.cpp:150] Setting up fc5_classes_fc5_67_0_split
I0411 14:01:02.454140  6686 net.cpp:157] Top shape: 1024 67 (68608)
I0411 14:01:02.454145  6686 net.cpp:157] Top shape: 1024 67 (68608)
I0411 14:01:02.454149  6686 net.cpp:157] Top shape: 1024 67 (68608)
I0411 14:01:02.454152  6686 net.cpp:165] Memory required for data: 4109041664
I0411 14:01:02.454156  6686 layer_factory.hpp:77] Creating layer loss
I0411 14:01:02.454164  6686 net.cpp:100] Creating Layer loss
I0411 14:01:02.454169  6686 net.cpp:434] loss <- fc5_classes_fc5_67_0_split_0
I0411 14:01:02.454175  6686 net.cpp:434] loss <- label_data_1_split_0
I0411 14:01:02.454181  6686 net.cpp:408] loss -> loss
…
