…
I0414 11:36:22.490207 11846 solver.cpp:93] Creating training net from train_net file: ./Prototxt/experiment_11/rtsd-r3/orig/trial_5/train.prototxt
I0414 11:36:22.490751 11846 net.cpp:58] Initializing net from parameters: 
state {
  phase: TRAIN
  level: 0
  stage: ""
}
layer {
  name: "data"
  type: "Data"
  top: "data"
  top: "label"
  include {
    phase: TRAIN
  }
  transform_param {
    scale: 0.0039215689
    mirror: false
    crop_size: 48
    mean_value: 120
    mean_value: 113
    mean_value: 112
  }
  data_param {
    source: "../local_data/lmdb/rtsd-r3/orig/train/lmdb"
    batch_size: 1024
    backend: LMDB
  }
}
layer {
  name: "conv1"
  type: "Convolution"
  bottom: "data"
  top: "conv1"
  convolution_param {
    num_output: 100
    pad: 0
    kernel_size: 7
    group: 1
    stride: 1
    weight_filler {
      type: "xavier"
    }
  }
}
layer {
  name: "conv1_prescale"
  type: "Scale"
  bottom: "conv1"
  top: "conv1"
  param {
    lr_mult: 0
    decay_mult: 0
  }
  scale_param {
    filler {
      value: 0.6666
    }
    bias_term: false
  }
}
layer {
  name: "conv1_sTanH"
  type: "TanH"
  bottom: "conv1"
  top: "conv1"
}
layer {
  name: "conv1_postscale"
  type: "Scale"
  bottom: "conv1"
  top: "conv1"
  param {
    lr_mult: 0
    decay_mult: 0
  }
  scale_param {
    filler {
      value: 1.7159
    }
    bias_term: false
  }
}
layer {
  name: "pool1"
  type: "Pooling"
  bottom: "conv1"
  top: "pool1"
  pooling_param {
    pool: MAX
    kernel_size: 2
    stride: 2
  }
}
layer {
  name: "conv2"
  type: "Convolution"
  bottom: "pool1"
  top: "conv2"
  convolution_param {
    num_output: 150
    pad: 0
    kernel_size: 4
    group: 1
    stride: 1
    weight_filler {
      type: "xavier"
    }
  }
}
layer {
  name: "conv2_prescale"
  type: "Scale"
  bottom: "conv2"
  top: "conv2"
  param {
    lr_mult: 0
    decay_mult: 0
  }
  scale_param {
    filler {
      value: 0.6666
    }
    bias_term: false
  }
}
layer {
  name: "conv2_sTanH"
  type: "TanH"
  bottom: "conv2"
  top: "conv2"
}
layer {
  name: "conv2_postscale"
  type: "Scale"
  bottom: "conv2"
  top: "conv2"
  param {
    lr_mult: 0
    decay_mult: 0
  }
  scale_param {
    filler {
      value: 1.7159
    }
    bias_term: false
  }
}
layer {
  name: "pool2"
  type: "Pooling"
  bottom: "conv2"
  top: "pool2"
  pooling_param {
    pool: MAX
    kernel_size: 2
    stride: 2
  }
}
layer {
  name: "conv3"
  type: "Convolution"
  bottom: "pool2"
  top: "conv3"
  convolution_param {
    num_output: 250
    pad: 0
    kernel_size: 4
    group: 1
    stride: 1
    weight_filler {
      type: "xavier"
    }
  }
}
layer {
  name: "conv3_prescale"
  type: "Scale"
  bottom: "conv3"
  top: "conv3"
  param {
    lr_mult: 0
    decay_mult: 0
  }
  scale_param {
    filler {
      value: 0.6666
    }
    bias_term: false
  }
}
layer {
  name: "conv3_sTanH"
  type: "TanH"
  bottom: "conv3"
  top: "conv3"
}
layer {
  name: "conv3_postscale"
  type: "Scale"
  bottom: "conv3"
  top: "conv3"
  param {
    lr_mult: 0
    decay_mult: 0
  }
  scale_param {
    filler {
      value: 1.7159
    }
    bias_term: false
  }
}
layer {
  name: "pool3"
  type: "Pooling"
  bottom: "conv3"
  top: "pool3"
  pooling_param {
    pool: MAX
    kernel_size: 2
    stride: 2
  }
}
layer {
  name: "fc4_300"
  type: "InnerProduct"
  bottom: "pool3"
  top: "fc4_300"
  inner_product_param {
    num_output: 300
    weight_filler {
      type: "xavier"
    }
  }
}
layer {
  name: "fc4_prescale"
  type: "Scale"
  bottom: "fc4_300"
  top: "fc4_300"
  param {
    lr_mult: 0
    decay_mult: 0
  }
  scale_param {
    filler {
      value: 0.6666
    }
    bias_term: false
  }
}
layer {
  name: "fc4_sTanH"
  type: "TanH"
  bottom: "fc4_300"
  top: "fc4_300"
}
layer {
  name: "fc4_postscale"
  type: "Scale"
  bottom: "fc4_300"
  top: "fc4_300"
  param {
    lr_mult: 0
    decay_mult: 0
  }
  scale_param {
    filler {
      value: 1.7159
    }
    bias_term: false
  }
}
layer {
  name: "fc5_106"
  type: "InnerProduct"
  bottom: "fc4_300"
  top: "fc5_classes"
  inner_product_param {
    num_output: 106
    weight_filler {
      type: "xavier"
    }
  }
}
layer {
  name: "softmax"
  type: "Softmax"
  bottom: "fc5_classes"
  top: "softmax"
}
layer {
  name: "loss"
  type: "MultinomialLogisticLoss"
  bottom: "softmax"
  bottom: "label"
  top: "loss"
}
layer {
  name: "accuracy_1"
  type: "Accuracy"
  bottom: "fc5_classes"
  bottom: "label"
  top: "accuracy_1"
  accuracy_param {
    top_k: 1
  }
}
layer {
  name: "accuracy_5"
  type: "Accuracy"
  bottom: "fc5_classes"
  bottom: "label"
  top: "accuracy_5"
  accuracy_param {
    top_k: 5
  }
}
layer {
  name: "silence"
  type: "Silence"
  bottom: "accuracy_1"
  bottom: "accuracy_5"
}
I0414 11:36:22.490933 11846 layer_factory.hpp:77] Creating layer data
I0414 11:36:22.492221 11846 net.cpp:100] Creating Layer data
I0414 11:36:22.492239 11846 net.cpp:408] data -> data
I0414 11:36:22.492264 11846 net.cpp:408] data -> label
I0414 11:36:22.494020 11960 db_lmdb.cpp:35] Opened lmdb ../local_data/lmdb/rtsd-r3/orig/train/lmdb
I0414 11:36:22.515543 11846 data_layer.cpp:41] output data size: 1024,3,48,48
I0414 11:36:22.565206 11846 net.cpp:150] Setting up data
I0414 11:36:22.565237 11846 net.cpp:157] Top shape: 1024 3 48 48 (7077888)
I0414 11:36:22.565243 11846 net.cpp:157] Top shape: 1024 (1024)
I0414 11:36:22.565246 11846 net.cpp:165] Memory required for data: 28315648
I0414 11:36:22.565258 11846 layer_factory.hpp:77] Creating layer label_data_1_split
I0414 11:36:22.565274 11846 net.cpp:100] Creating Layer label_data_1_split
I0414 11:36:22.565281 11846 net.cpp:434] label_data_1_split <- label
I0414 11:36:22.565297 11846 net.cpp:408] label_data_1_split -> label_data_1_split_0
I0414 11:36:22.565315 11846 net.cpp:408] label_data_1_split -> label_data_1_split_1
I0414 11:36:22.565325 11846 net.cpp:408] label_data_1_split -> label_data_1_split_2
I0414 11:36:22.565402 11846 net.cpp:150] Setting up label_data_1_split
I0414 11:36:22.565412 11846 net.cpp:157] Top shape: 1024 (1024)
I0414 11:36:22.565418 11846 net.cpp:157] Top shape: 1024 (1024)
I0414 11:36:22.565423 11846 net.cpp:157] Top shape: 1024 (1024)
I0414 11:36:22.565425 11846 net.cpp:165] Memory required for data: 28327936
I0414 11:36:22.565429 11846 layer_factory.hpp:77] Creating layer conv1
I0414 11:36:22.565450 11846 net.cpp:100] Creating Layer conv1
I0414 11:36:22.565456 11846 net.cpp:434] conv1 <- data
I0414 11:36:22.565464 11846 net.cpp:408] conv1 -> conv1
I0414 11:36:23.011682 11846 net.cpp:150] Setting up conv1
I0414 11:36:23.011711 11846 net.cpp:157] Top shape: 1024 100 42 42 (180633600)
I0414 11:36:23.011716 11846 net.cpp:165] Memory required for data: 750862336
I0414 11:36:23.011741 11846 layer_factory.hpp:77] Creating layer conv1_prescale
I0414 11:36:23.011755 11846 net.cpp:100] Creating Layer conv1_prescale
I0414 11:36:23.011764 11846 net.cpp:434] conv1_prescale <- conv1
I0414 11:36:23.011771 11846 net.cpp:395] conv1_prescale -> conv1 (in-place)
I0414 11:36:23.011914 11846 net.cpp:150] Setting up conv1_prescale
I0414 11:36:23.011926 11846 net.cpp:157] Top shape: 1024 100 42 42 (180633600)
I0414 11:36:23.011929 11846 net.cpp:165] Memory required for data: 1473396736
I0414 11:36:23.011939 11846 layer_factory.hpp:77] Creating layer conv1_sTanH
I0414 11:36:23.011956 11846 net.cpp:100] Creating Layer conv1_sTanH
I0414 11:36:23.011960 11846 net.cpp:434] conv1_sTanH <- conv1
I0414 11:36:23.011966 11846 net.cpp:395] conv1_sTanH -> conv1 (in-place)
I0414 11:36:23.012202 11846 net.cpp:150] Setting up conv1_sTanH
I0414 11:36:23.012217 11846 net.cpp:157] Top shape: 1024 100 42 42 (180633600)
I0414 11:36:23.012243 11846 net.cpp:165] Memory required for data: 2195931136
I0414 11:36:23.012249 11846 layer_factory.hpp:77] Creating layer conv1_postscale
I0414 11:36:23.012259 11846 net.cpp:100] Creating Layer conv1_postscale
I0414 11:36:23.012262 11846 net.cpp:434] conv1_postscale <- conv1
I0414 11:36:23.012269 11846 net.cpp:395] conv1_postscale -> conv1 (in-place)
I0414 11:36:23.012383 11846 net.cpp:150] Setting up conv1_postscale
I0414 11:36:23.012393 11846 net.cpp:157] Top shape: 1024 100 42 42 (180633600)
I0414 11:36:23.012397 11846 net.cpp:165] Memory required for data: 2918465536
I0414 11:36:23.012403 11846 layer_factory.hpp:77] Creating layer pool1
I0414 11:36:23.012409 11846 net.cpp:100] Creating Layer pool1
I0414 11:36:23.012413 11846 net.cpp:434] pool1 <- conv1
I0414 11:36:23.012419 11846 net.cpp:408] pool1 -> pool1
I0414 11:36:23.012473 11846 net.cpp:150] Setting up pool1
I0414 11:36:23.012482 11846 net.cpp:157] Top shape: 1024 100 21 21 (45158400)
I0414 11:36:23.012486 11846 net.cpp:165] Memory required for data: 3099099136
I0414 11:36:23.012490 11846 layer_factory.hpp:77] Creating layer conv2
I0414 11:36:23.012501 11846 net.cpp:100] Creating Layer conv2
I0414 11:36:23.012506 11846 net.cpp:434] conv2 <- pool1
I0414 11:36:23.012513 11846 net.cpp:408] conv2 -> conv2
I0414 11:36:23.023962 11846 net.cpp:150] Setting up conv2
I0414 11:36:23.023984 11846 net.cpp:157] Top shape: 1024 150 18 18 (49766400)
I0414 11:36:23.023988 11846 net.cpp:165] Memory required for data: 3298164736
I0414 11:36:23.024001 11846 layer_factory.hpp:77] Creating layer conv2_prescale
I0414 11:36:23.024013 11846 net.cpp:100] Creating Layer conv2_prescale
I0414 11:36:23.024018 11846 net.cpp:434] conv2_prescale <- conv2
I0414 11:36:23.024024 11846 net.cpp:395] conv2_prescale -> conv2 (in-place)
I0414 11:36:23.024154 11846 net.cpp:150] Setting up conv2_prescale
I0414 11:36:23.024166 11846 net.cpp:157] Top shape: 1024 150 18 18 (49766400)
I0414 11:36:23.024169 11846 net.cpp:165] Memory required for data: 3497230336
I0414 11:36:23.024175 11846 layer_factory.hpp:77] Creating layer conv2_sTanH
I0414 11:36:23.024181 11846 net.cpp:100] Creating Layer conv2_sTanH
I0414 11:36:23.024185 11846 net.cpp:434] conv2_sTanH <- conv2
I0414 11:36:23.024190 11846 net.cpp:395] conv2_sTanH -> conv2 (in-place)
I0414 11:36:23.026749 11846 net.cpp:150] Setting up conv2_sTanH
I0414 11:36:23.026770 11846 net.cpp:157] Top shape: 1024 150 18 18 (49766400)
I0414 11:36:23.026775 11846 net.cpp:165] Memory required for data: 3696295936
I0414 11:36:23.026779 11846 layer_factory.hpp:77] Creating layer conv2_postscale
I0414 11:36:23.026789 11846 net.cpp:100] Creating Layer conv2_postscale
I0414 11:36:23.026793 11846 net.cpp:434] conv2_postscale <- conv2
I0414 11:36:23.026800 11846 net.cpp:395] conv2_postscale -> conv2 (in-place)
I0414 11:36:23.026916 11846 net.cpp:150] Setting up conv2_postscale
I0414 11:36:23.026926 11846 net.cpp:157] Top shape: 1024 150 18 18 (49766400)
I0414 11:36:23.026931 11846 net.cpp:165] Memory required for data: 3895361536
I0414 11:36:23.026937 11846 layer_factory.hpp:77] Creating layer pool2
I0414 11:36:23.026944 11846 net.cpp:100] Creating Layer pool2
I0414 11:36:23.026947 11846 net.cpp:434] pool2 <- conv2
I0414 11:36:23.026953 11846 net.cpp:408] pool2 -> pool2
I0414 11:36:23.027001 11846 net.cpp:150] Setting up pool2
I0414 11:36:23.027011 11846 net.cpp:157] Top shape: 1024 150 9 9 (12441600)
I0414 11:36:23.027014 11846 net.cpp:165] Memory required for data: 3945127936
I0414 11:36:23.027019 11846 layer_factory.hpp:77] Creating layer conv3
I0414 11:36:23.027029 11846 net.cpp:100] Creating Layer conv3
I0414 11:36:23.027034 11846 net.cpp:434] conv3 <- pool2
I0414 11:36:23.027040 11846 net.cpp:408] conv3 -> conv3
I0414 11:36:23.033951 11846 net.cpp:150] Setting up conv3
I0414 11:36:23.033970 11846 net.cpp:157] Top shape: 1024 250 6 6 (9216000)
I0414 11:36:23.033974 11846 net.cpp:165] Memory required for data: 3981991936
I0414 11:36:23.033988 11846 layer_factory.hpp:77] Creating layer conv3_prescale
I0414 11:36:23.034013 11846 net.cpp:100] Creating Layer conv3_prescale
I0414 11:36:23.034018 11846 net.cpp:434] conv3_prescale <- conv3
I0414 11:36:23.034024 11846 net.cpp:395] conv3_prescale -> conv3 (in-place)
I0414 11:36:23.034147 11846 net.cpp:150] Setting up conv3_prescale
I0414 11:36:23.034157 11846 net.cpp:157] Top shape: 1024 250 6 6 (9216000)
I0414 11:36:23.034160 11846 net.cpp:165] Memory required for data: 4018855936
I0414 11:36:23.034167 11846 layer_factory.hpp:77] Creating layer conv3_sTanH
I0414 11:36:23.034174 11846 net.cpp:100] Creating Layer conv3_sTanH
I0414 11:36:23.034179 11846 net.cpp:434] conv3_sTanH <- conv3
I0414 11:36:23.034184 11846 net.cpp:395] conv3_sTanH -> conv3 (in-place)
I0414 11:36:23.037631 11846 net.cpp:150] Setting up conv3_sTanH
I0414 11:36:23.037652 11846 net.cpp:157] Top shape: 1024 250 6 6 (9216000)
I0414 11:36:23.037657 11846 net.cpp:165] Memory required for data: 4055719936
I0414 11:36:23.037662 11846 layer_factory.hpp:77] Creating layer conv3_postscale
I0414 11:36:23.037672 11846 net.cpp:100] Creating Layer conv3_postscale
I0414 11:36:23.037677 11846 net.cpp:434] conv3_postscale <- conv3
I0414 11:36:23.037685 11846 net.cpp:395] conv3_postscale -> conv3 (in-place)
I0414 11:36:23.037811 11846 net.cpp:150] Setting up conv3_postscale
I0414 11:36:23.037822 11846 net.cpp:157] Top shape: 1024 250 6 6 (9216000)
I0414 11:36:23.037824 11846 net.cpp:165] Memory required for data: 4092583936
I0414 11:36:23.037832 11846 layer_factory.hpp:77] Creating layer pool3
I0414 11:36:23.037844 11846 net.cpp:100] Creating Layer pool3
I0414 11:36:23.037849 11846 net.cpp:434] pool3 <- conv3
I0414 11:36:23.037856 11846 net.cpp:408] pool3 -> pool3
I0414 11:36:23.037902 11846 net.cpp:150] Setting up pool3
I0414 11:36:23.037914 11846 net.cpp:157] Top shape: 1024 250 3 3 (2304000)
I0414 11:36:23.037919 11846 net.cpp:165] Memory required for data: 4101799936
I0414 11:36:23.037921 11846 layer_factory.hpp:77] Creating layer fc4_300
I0414 11:36:23.037930 11846 net.cpp:100] Creating Layer fc4_300
I0414 11:36:23.037933 11846 net.cpp:434] fc4_300 <- pool3
I0414 11:36:23.037940 11846 net.cpp:408] fc4_300 -> fc4_300
I0414 11:36:23.044723 11846 net.cpp:150] Setting up fc4_300
I0414 11:36:23.044741 11846 net.cpp:157] Top shape: 1024 300 (307200)
I0414 11:36:23.044745 11846 net.cpp:165] Memory required for data: 4103028736
I0414 11:36:23.044754 11846 layer_factory.hpp:77] Creating layer fc4_prescale
I0414 11:36:23.044764 11846 net.cpp:100] Creating Layer fc4_prescale
I0414 11:36:23.044769 11846 net.cpp:434] fc4_prescale <- fc4_300
I0414 11:36:23.044775 11846 net.cpp:395] fc4_prescale -> fc4_300 (in-place)
I0414 11:36:23.044883 11846 net.cpp:150] Setting up fc4_prescale
I0414 11:36:23.044893 11846 net.cpp:157] Top shape: 1024 300 (307200)
I0414 11:36:23.044898 11846 net.cpp:165] Memory required for data: 4104257536
I0414 11:36:23.044903 11846 layer_factory.hpp:77] Creating layer fc4_sTanH
I0414 11:36:23.044909 11846 net.cpp:100] Creating Layer fc4_sTanH
I0414 11:36:23.044914 11846 net.cpp:434] fc4_sTanH <- fc4_300
I0414 11:36:23.044919 11846 net.cpp:395] fc4_sTanH -> fc4_300 (in-place)
I0414 11:36:23.045156 11846 net.cpp:150] Setting up fc4_sTanH
I0414 11:36:23.045169 11846 net.cpp:157] Top shape: 1024 300 (307200)
I0414 11:36:23.045174 11846 net.cpp:165] Memory required for data: 4105486336
I0414 11:36:23.045178 11846 layer_factory.hpp:77] Creating layer fc4_postscale
I0414 11:36:23.045187 11846 net.cpp:100] Creating Layer fc4_postscale
I0414 11:36:23.045193 11846 net.cpp:434] fc4_postscale <- fc4_300
I0414 11:36:23.045199 11846 net.cpp:395] fc4_postscale -> fc4_300 (in-place)
I0414 11:36:23.045326 11846 net.cpp:150] Setting up fc4_postscale
I0414 11:36:23.045336 11846 net.cpp:157] Top shape: 1024 300 (307200)
I0414 11:36:23.045339 11846 net.cpp:165] Memory required for data: 4106715136
I0414 11:36:23.045346 11846 layer_factory.hpp:77] Creating layer fc5_106
I0414 11:36:23.045354 11846 net.cpp:100] Creating Layer fc5_106
I0414 11:36:23.045359 11846 net.cpp:434] fc5_106 <- fc4_300
I0414 11:36:23.045367 11846 net.cpp:408] fc5_106 -> fc5_classes
I0414 11:36:23.047053 11846 net.cpp:150] Setting up fc5_106
I0414 11:36:23.047072 11846 net.cpp:157] Top shape: 1024 106 (108544)
I0414 11:36:23.047077 11846 net.cpp:165] Memory required for data: 4107149312
I0414 11:36:23.047091 11846 layer_factory.hpp:77] Creating layer fc5_classes_fc5_106_0_split
I0414 11:36:23.047102 11846 net.cpp:100] Creating Layer fc5_classes_fc5_106_0_split
I0414 11:36:23.047108 11846 net.cpp:434] fc5_classes_fc5_106_0_split <- fc5_classes
I0414 11:36:23.047116 11846 net.cpp:408] fc5_classes_fc5_106_0_split -> fc5_classes_fc5_106_0_split_0
I0414 11:36:23.047127 11846 net.cpp:408] fc5_classes_fc5_106_0_split -> fc5_classes_fc5_106_0_split_1
I0414 11:36:23.047137 11846 net.cpp:408] fc5_classes_fc5_106_0_split -> fc5_classes_fc5_106_0_split_2
I0414 11:36:23.047200 11846 net.cpp:150] Setting up fc5_classes_fc5_106_0_split
I0414 11:36:23.047211 11846 net.cpp:157] Top shape: 1024 106 (108544)
I0414 11:36:23.047217 11846 net.cpp:157] Top shape: 1024 106 (108544)
I0414 11:36:23.047221 11846 net.cpp:157] Top shape: 1024 106 (108544)
I0414 11:36:23.047225 11846 net.cpp:165] Memory required for data: 4108451840
I0414 11:36:23.047229 11846 layer_factory.hpp:77] Creating layer softmax
I0414 11:36:23.047235 11846 net.cpp:100] Creating Layer softmax
I0414 11:36:23.047241 11846 net.cpp:434] softmax <- fc5_classes_fc5_106_0_split_0
I0414 11:36:23.047247 11846 net.cpp:408] softmax -> softmax
I0414 11:36:23.047561 11846 net.cpp:150] Setting up softmax
I0414 11:36:23.047576 11846 net.cpp:157] Top shape: 1024 106 (108544)
I0414 11:36:23.047581 11846 net.cpp:165] Memory required for data: 4108886016
I0414 11:36:23.047586 11846 layer_factory.hpp:77] Creating layer loss
I0414 11:36:23.047593 11846 net.cpp:100] Creating Layer loss
I0414 11:36:23.047600 11846 net.cpp:434] loss <- softmax
I0414 11:36:23.047605 11846 net.cpp:434] loss <- label_data_1_split_0
I0414 11:36:23.047612 11846 net.cpp:408] loss -> loss
…
