…
I0527 23:22:48.828471 14887 solver.cpp:81] Creating training net from train_net file: ./Prototxt/experiment_20/RTSD/AHE/trial_1/train.prototxt
I0527 23:22:48.829066 14887 net.cpp:58] Initializing net from parameters: 
state {
  phase: TRAIN
  level: 0
  stage: ""
}
layer {
  name: "data"
  type: "Data"
  top: "data"
  top: "label"
  include {
    phase: TRAIN
  }
  transform_param {
    scale: 0.0039215689
    mirror: false
    crop_size: 48
    mean_value: 133
    mean_value: 127
    mean_value: 126
  }
  data_param {
    source: "../local_data/lmdb/RTSD/AHE/train/lmdb"
    batch_size: 1024
    backend: LMDB
  }
}
layer {
  name: "conv1"
  type: "Convolution"
  bottom: "data"
  top: "conv1"
  convolution_param {
    num_output: 100
    pad: 0
    kernel_size: 7
    group: 1
    stride: 1
    weight_filler {
      type: "xavier"
    }
  }
}
layer {
  name: "conv1_relu"
  type: "ReLU"
  bottom: "conv1"
  top: "conv1"
}
layer {
  name: "pool1"
  type: "Pooling"
  bottom: "conv1"
  top: "pool1"
  pooling_param {
    pool: MAX
    kernel_size: 2
    stride: 2
  }
}
layer {
  name: "conv2"
  type: "Convolution"
  bottom: "pool1"
  top: "conv2"
  convolution_param {
    num_output: 150
    pad: 0
    kernel_size: 4
    group: 1
    stride: 1
    weight_filler {
      type: "xavier"
    }
  }
}
layer {
  name: "conv2_relu"
  type: "ReLU"
  bottom: "conv2"
  top: "conv2"
}
layer {
  name: "pool2"
  type: "Pooling"
  bottom: "conv2"
  top: "pool2"
  pooling_param {
    pool: MAX
    kernel_size: 2
    stride: 2
  }
}
layer {
  name: "conv3"
  type: "Convolution"
  bottom: "pool2"
  top: "conv3"
  convolution_param {
    num_output: 250
    pad: 0
    kernel_size: 4
    group: 1
    stride: 1
    weight_filler {
      type: "xavier"
    }
  }
}
layer {
  name: "conv3_relu"
  type: "ReLU"
  bottom: "conv3"
  top: "conv3"
}
layer {
  name: "pool3"
  type: "Pooling"
  bottom: "conv3"
  top: "pool3"
  pooling_param {
    pool: MAX
    kernel_size: 2
    stride: 2
  }
}
layer {
  name: "fc4_300"
  type: "InnerProduct"
  bottom: "pool3"
  top: "fc4_300"
  inner_product_param {
    num_output: 300
    weight_filler {
      type: "xavier"
    }
  }
}
layer {
  name: "fc4_relu"
  type: "ReLU"
  bottom: "fc4_300"
  top: "fc4_300"
}
layer {
  name: "fc5_116"
  type: "InnerProduct"
  bottom: "fc4_300"
  top: "fc5_classes"
  inner_product_param {
    num_output: 116
    weight_filler {
      type: "xavier"
    }
  }
}
layer {
  name: "softmax"
  type: "Softmax"
  bottom: "fc5_classes"
  top: "softmax"
}
layer {
  name: "loss"
  type: "MultinomialLogisticLoss"
  bottom: "softmax"
  bottom: "label"
  top: "loss"
}
layer {
  name: "accuracy_1"
  type: "Accuracy"
  bottom: "fc5_classes"
  bottom: "label"
  top: "accuracy_1"
  accuracy_param {
    top_k: 1
  }
}
layer {
  name: "accuracy_5"
  type: "Accuracy"
  bottom: "fc5_classes"
  bottom: "label"
  top: "accuracy_5"
  accuracy_param {
    top_k: 5
  }
}
layer {
  name: "silence"
  type: "Silence"
  bottom: "accuracy_1"
  bottom: "accuracy_5"
}
I0527 23:22:48.829901 14887 layer_factory.hpp:77] Creating layer data
I0527 23:22:48.831023 14887 net.cpp:100] Creating Layer data
I0527 23:22:48.831064 14887 net.cpp:408] data -> data
I0527 23:22:48.831117 14887 net.cpp:408] data -> label
I0527 23:22:48.860615 14920 db_lmdb.cpp:35] Opened lmdb ../local_data/lmdb/RTSD/AHE/train/lmdb
I0527 23:22:48.891147 14887 data_layer.cpp:41] output data size: 1024,3,48,48
I0527 23:22:48.997911 14887 net.cpp:150] Setting up data
I0527 23:22:48.998013 14887 net.cpp:157] Top shape: 1024 3 48 48 (7077888)
I0527 23:22:48.998036 14887 net.cpp:157] Top shape: 1024 (1024)
I0527 23:22:48.998064 14887 net.cpp:165] Memory required for data: 28315648
I0527 23:22:48.998096 14887 layer_factory.hpp:77] Creating layer label_data_1_split
I0527 23:22:48.998131 14887 net.cpp:100] Creating Layer label_data_1_split
I0527 23:22:48.998160 14887 net.cpp:434] label_data_1_split <- label
I0527 23:22:48.998200 14887 net.cpp:408] label_data_1_split -> label_data_1_split_0
I0527 23:22:48.998235 14887 net.cpp:408] label_data_1_split -> label_data_1_split_1
I0527 23:22:48.998265 14887 net.cpp:408] label_data_1_split -> label_data_1_split_2
I0527 23:22:48.998347 14887 net.cpp:150] Setting up label_data_1_split
I0527 23:22:48.998383 14887 net.cpp:157] Top shape: 1024 (1024)
I0527 23:22:48.998401 14887 net.cpp:157] Top shape: 1024 (1024)
I0527 23:22:48.998427 14887 net.cpp:157] Top shape: 1024 (1024)
I0527 23:22:48.998447 14887 net.cpp:165] Memory required for data: 28327936
I0527 23:22:48.998472 14887 layer_factory.hpp:77] Creating layer conv1
I0527 23:22:48.998512 14887 net.cpp:100] Creating Layer conv1
I0527 23:22:48.998540 14887 net.cpp:434] conv1 <- data
I0527 23:22:48.998570 14887 net.cpp:408] conv1 -> conv1
I0527 23:22:49.500386 14887 net.cpp:150] Setting up conv1
I0527 23:22:49.501690 14887 net.cpp:157] Top shape: 1024 100 42 42 (180633600)
I0527 23:22:49.501792 14887 net.cpp:165] Memory required for data: 750862336
I0527 23:22:49.501873 14887 layer_factory.hpp:77] Creating layer conv1_relu
I0527 23:22:49.501943 14887 net.cpp:100] Creating Layer conv1_relu
I0527 23:22:49.502012 14887 net.cpp:434] conv1_relu <- conv1
I0527 23:22:49.502074 14887 net.cpp:395] conv1_relu -> conv1 (in-place)
I0527 23:22:49.502342 14887 net.cpp:150] Setting up conv1_relu
I0527 23:22:49.502444 14887 net.cpp:157] Top shape: 1024 100 42 42 (180633600)
I0527 23:22:49.502516 14887 net.cpp:165] Memory required for data: 1473396736
I0527 23:22:49.502580 14887 layer_factory.hpp:77] Creating layer pool1
I0527 23:22:49.502684 14887 net.cpp:100] Creating Layer pool1
I0527 23:22:49.502751 14887 net.cpp:434] pool1 <- conv1
I0527 23:22:49.502815 14887 net.cpp:408] pool1 -> pool1
I0527 23:22:49.502944 14887 net.cpp:150] Setting up pool1
I0527 23:22:49.503013 14887 net.cpp:157] Top shape: 1024 100 21 21 (45158400)
I0527 23:22:49.503077 14887 net.cpp:165] Memory required for data: 1654030336
I0527 23:22:49.503141 14887 layer_factory.hpp:77] Creating layer conv2
I0527 23:22:49.503217 14887 net.cpp:100] Creating Layer conv2
I0527 23:22:49.503283 14887 net.cpp:434] conv2 <- pool1
I0527 23:22:49.503357 14887 net.cpp:408] conv2 -> conv2
I0527 23:22:49.508816 14887 net.cpp:150] Setting up conv2
I0527 23:22:49.515214 14887 net.cpp:157] Top shape: 1024 150 18 18 (49766400)
I0527 23:22:49.515360 14887 net.cpp:165] Memory required for data: 1853095936
I0527 23:22:49.515449 14887 layer_factory.hpp:77] Creating layer conv2_relu
I0527 23:22:49.515527 14887 net.cpp:100] Creating Layer conv2_relu
I0527 23:22:49.515595 14887 net.cpp:434] conv2_relu <- conv2
I0527 23:22:49.515664 14887 net.cpp:395] conv2_relu -> conv2 (in-place)
I0527 23:22:49.515969 14887 net.cpp:150] Setting up conv2_relu
I0527 23:22:49.516072 14887 net.cpp:157] Top shape: 1024 150 18 18 (49766400)
I0527 23:22:49.516144 14887 net.cpp:165] Memory required for data: 2052161536
I0527 23:22:49.516212 14887 layer_factory.hpp:77] Creating layer pool2
I0527 23:22:49.516285 14887 net.cpp:100] Creating Layer pool2
I0527 23:22:49.516369 14887 net.cpp:434] pool2 <- conv2
I0527 23:22:49.516449 14887 net.cpp:408] pool2 -> pool2
I0527 23:22:49.516593 14887 net.cpp:150] Setting up pool2
I0527 23:22:49.516741 14887 net.cpp:157] Top shape: 1024 150 9 9 (12441600)
I0527 23:22:49.516832 14887 net.cpp:165] Memory required for data: 2101927936
I0527 23:22:49.516912 14887 layer_factory.hpp:77] Creating layer conv3
I0527 23:22:49.517001 14887 net.cpp:100] Creating Layer conv3
I0527 23:22:49.517082 14887 net.cpp:434] conv3 <- pool2
I0527 23:22:49.517175 14887 net.cpp:408] conv3 -> conv3
I0527 23:22:49.532068 14887 net.cpp:150] Setting up conv3
I0527 23:22:49.533365 14887 net.cpp:157] Top shape: 1024 250 6 6 (9216000)
I0527 23:22:49.533558 14887 net.cpp:165] Memory required for data: 2138791936
I0527 23:22:49.534764 14887 layer_factory.hpp:77] Creating layer conv3_relu
I0527 23:22:49.534925 14887 net.cpp:100] Creating Layer conv3_relu
I0527 23:22:49.535044 14887 net.cpp:434] conv3_relu <- conv3
I0527 23:22:49.535159 14887 net.cpp:395] conv3_relu -> conv3 (in-place)
I0527 23:22:49.535861 14887 net.cpp:150] Setting up conv3_relu
I0527 23:22:49.536146 14887 net.cpp:157] Top shape: 1024 250 6 6 (9216000)
I0527 23:22:49.536259 14887 net.cpp:165] Memory required for data: 2175655936
I0527 23:22:49.536371 14887 layer_factory.hpp:77] Creating layer pool3
I0527 23:22:49.536485 14887 net.cpp:100] Creating Layer pool3
I0527 23:22:49.536594 14887 net.cpp:434] pool3 <- conv3
I0527 23:22:49.537070 14887 net.cpp:408] pool3 -> pool3
I0527 23:22:49.537252 14887 net.cpp:150] Setting up pool3
I0527 23:22:49.537386 14887 net.cpp:157] Top shape: 1024 250 3 3 (2304000)
I0527 23:22:49.537504 14887 net.cpp:165] Memory required for data: 2184871936
I0527 23:22:49.537617 14887 layer_factory.hpp:77] Creating layer fc4_300
I0527 23:22:49.537734 14887 net.cpp:100] Creating Layer fc4_300
I0527 23:22:49.537847 14887 net.cpp:434] fc4_300 <- pool3
I0527 23:22:49.537955 14887 net.cpp:408] fc4_300 -> fc4_300
I0527 23:22:49.544149 14887 net.cpp:150] Setting up fc4_300
I0527 23:22:49.545773 14887 net.cpp:157] Top shape: 1024 300 (307200)
I0527 23:22:49.545886 14887 net.cpp:165] Memory required for data: 2186100736
I0527 23:22:49.546012 14887 layer_factory.hpp:77] Creating layer fc4_relu
I0527 23:22:49.546138 14887 net.cpp:100] Creating Layer fc4_relu
I0527 23:22:49.546252 14887 net.cpp:434] fc4_relu <- fc4_300
I0527 23:22:49.546370 14887 net.cpp:395] fc4_relu -> fc4_300 (in-place)
I0527 23:22:49.546747 14887 net.cpp:150] Setting up fc4_relu
I0527 23:22:49.546974 14887 net.cpp:157] Top shape: 1024 300 (307200)
I0527 23:22:49.547088 14887 net.cpp:165] Memory required for data: 2187329536
I0527 23:22:49.547165 14887 layer_factory.hpp:77] Creating layer fc5_116
I0527 23:22:49.547283 14887 net.cpp:100] Creating Layer fc5_116
I0527 23:22:49.547386 14887 net.cpp:434] fc5_116 <- fc4_300
I0527 23:22:49.547502 14887 net.cpp:408] fc5_116 -> fc5_classes
I0527 23:22:49.549103 14887 net.cpp:150] Setting up fc5_116
I0527 23:22:49.549615 14887 net.cpp:157] Top shape: 1024 116 (118784)
I0527 23:22:49.549732 14887 net.cpp:165] Memory required for data: 2187804672
I0527 23:22:49.549862 14887 layer_factory.hpp:77] Creating layer fc5_classes_fc5_116_0_split
I0527 23:22:49.549991 14887 net.cpp:100] Creating Layer fc5_classes_fc5_116_0_split
I0527 23:22:49.550109 14887 net.cpp:434] fc5_classes_fc5_116_0_split <- fc5_classes
I0527 23:22:49.550235 14887 net.cpp:408] fc5_classes_fc5_116_0_split -> fc5_classes_fc5_116_0_split_0
I0527 23:22:49.550364 14887 net.cpp:408] fc5_classes_fc5_116_0_split -> fc5_classes_fc5_116_0_split_1
I0527 23:22:49.550487 14887 net.cpp:408] fc5_classes_fc5_116_0_split -> fc5_classes_fc5_116_0_split_2
I0527 23:22:49.550686 14887 net.cpp:150] Setting up fc5_classes_fc5_116_0_split
I0527 23:22:49.550823 14887 net.cpp:157] Top shape: 1024 116 (118784)
I0527 23:22:49.550941 14887 net.cpp:157] Top shape: 1024 116 (118784)
I0527 23:22:49.551056 14887 net.cpp:157] Top shape: 1024 116 (118784)
I0527 23:22:49.551156 14887 net.cpp:165] Memory required for data: 2189230080
I0527 23:22:49.551271 14887 layer_factory.hpp:77] Creating layer softmax
I0527 23:22:49.551388 14887 net.cpp:100] Creating Layer softmax
I0527 23:22:49.551497 14887 net.cpp:434] softmax <- fc5_classes_fc5_116_0_split_0
I0527 23:22:49.551616 14887 net.cpp:408] softmax -> softmax
I0527 23:22:49.552028 14887 net.cpp:150] Setting up softmax
I0527 23:22:49.552224 14887 net.cpp:157] Top shape: 1024 116 (118784)
I0527 23:22:49.552340 14887 net.cpp:165] Memory required for data: 2189705216
I0527 23:22:49.552454 14887 layer_factory.hpp:77] Creating layer loss
I0527 23:22:49.552587 14887 net.cpp:100] Creating Layer loss
I0527 23:22:49.552762 14887 net.cpp:434] loss <- softmax
I0527 23:22:49.552861 14887 net.cpp:434] loss <- label_data_1_split_0
I0527 23:22:49.552950 14887 net.cpp:408] loss -> loss
…
