…
I0415 14:56:22.576256 14850 solver.cpp:93] Creating training net from train_net file: ./Prototxt/experiment_12/rtsd-r3/AHE/trial_2/train.prototxt
I0415 14:56:22.587759 14850 net.cpp:58] Initializing net from parameters: 
state {
  phase: TRAIN
  level: 0
  stage: ""
}
layer {
  name: "data"
  type: "Data"
  top: "data"
  top: "label"
  include {
    phase: TRAIN
  }
  transform_param {
    scale: 0.0039215689
    mirror: false
    crop_size: 48
    mean_value: 133
    mean_value: 126
    mean_value: 125
  }
  data_param {
    source: "../local_data/lmdb/rtsd-r3/AHE/train/lmdb"
    batch_size: 1024
    backend: LMDB
  }
}
layer {
  name: "conv1"
  type: "Convolution"
  bottom: "data"
  top: "conv1"
  convolution_param {
    num_output: 100
    pad: 0
    kernel_size: 7
    group: 1
    stride: 1
    weight_filler {
      type: "xavier"
    }
  }
}
layer {
  name: "conv1_relu"
  type: "ReLU"
  bottom: "conv1"
  top: "conv1"
}
layer {
  name: "pool1"
  type: "Pooling"
  bottom: "conv1"
  top: "pool1"
  pooling_param {
    pool: MAX
    kernel_size: 2
    stride: 2
  }
}
layer {
  name: "conv2"
  type: "Convolution"
  bottom: "pool1"
  top: "conv2"
  convolution_param {
    num_output: 150
    pad: 0
    kernel_size: 4
    group: 1
    stride: 1
    weight_filler {
      type: "xavier"
    }
  }
}
layer {
  name: "conv2_relu"
  type: "ReLU"
  bottom: "conv2"
  top: "conv2"
}
layer {
  name: "pool2"
  type: "Pooling"
  bottom: "conv2"
  top: "pool2"
  pooling_param {
    pool: MAX
    kernel_size: 2
    stride: 2
  }
}
layer {
  name: "conv3"
  type: "Convolution"
  bottom: "pool2"
  top: "conv3"
  convolution_param {
    num_output: 250
    pad: 0
    kernel_size: 4
    group: 1
    stride: 1
    weight_filler {
      type: "xavier"
    }
  }
}
layer {
  name: "conv3_relu"
  type: "ReLU"
  bottom: "conv3"
  top: "conv3"
}
layer {
  name: "pool3"
  type: "Pooling"
  bottom: "conv3"
  top: "pool3"
  pooling_param {
    pool: MAX
    kernel_size: 2
    stride: 2
  }
}
layer {
  name: "fc4_300"
  type: "InnerProduct"
  bottom: "pool3"
  top: "fc4_300"
  inner_product_param {
    num_output: 300
    weight_filler {
      type: "xavier"
    }
  }
}
layer {
  name: "fc4_relu"
  type: "ReLU"
  bottom: "fc4_300"
  top: "fc4_300"
}
layer {
  name: "drop4"
  type: "Dropout"
  bottom: "fc4_300"
  top: "fc4_300"
  dropout_param {
    dropout_ratio: 0.5
  }
}
layer {
  name: "fc5_106"
  type: "InnerProduct"
  bottom: "fc4_300"
  top: "fc5_classes"
  inner_product_param {
    num_output: 106
    weight_filler {
      type: "xavier"
    }
  }
}
layer {
  name: "softmax"
  type: "Softmax"
  bottom: "fc5_classes"
  top: "softmax"
}
layer {
  name: "loss"
  type: "MultinomialLogisticLoss"
  bottom: "softmax"
  bottom: "label"
  top: "loss"
}
layer {
  name: "accuracy_1"
  type: "Accuracy"
  bottom: "fc5_classes"
  bottom: "label"
  top: "accuracy_1"
  accuracy_param {
    top_k: 1
  }
}
layer {
  name: "accuracy_5"
  type: "Accuracy"
  bottom: "fc5_classes"
  bottom: "label"
  top: "accuracy_5"
  accuracy_param {
    top_k: 5
  }
}
layer {
  name: "silence"
  type: "Silence"
  bottom: "accuracy_1"
  bottom: "accuracy_5"
}
I0415 14:56:22.587932 14850 layer_factory.hpp:77] Creating layer data
I0415 14:56:22.589007 14850 net.cpp:100] Creating Layer data
I0415 14:56:22.589023 14850 net.cpp:408] data -> data
I0415 14:56:22.589046 14850 net.cpp:408] data -> label
I0415 14:56:22.592437 14957 db_lmdb.cpp:35] Opened lmdb ../local_data/lmdb/rtsd-r3/AHE/train/lmdb
I0415 14:56:22.615793 14850 data_layer.cpp:41] output data size: 1024,3,48,48
I0415 14:56:22.674458 14850 net.cpp:150] Setting up data
I0415 14:56:22.674489 14850 net.cpp:157] Top shape: 1024 3 48 48 (7077888)
I0415 14:56:22.674494 14850 net.cpp:157] Top shape: 1024 (1024)
I0415 14:56:22.674497 14850 net.cpp:165] Memory required for data: 28315648
I0415 14:56:22.674509 14850 layer_factory.hpp:77] Creating layer label_data_1_split
I0415 14:56:22.674525 14850 net.cpp:100] Creating Layer label_data_1_split
I0415 14:56:22.674541 14850 net.cpp:434] label_data_1_split <- label
I0415 14:56:22.674564 14850 net.cpp:408] label_data_1_split -> label_data_1_split_0
I0415 14:56:22.674581 14850 net.cpp:408] label_data_1_split -> label_data_1_split_1
I0415 14:56:22.674589 14850 net.cpp:408] label_data_1_split -> label_data_1_split_2
I0415 14:56:22.674695 14850 net.cpp:150] Setting up label_data_1_split
I0415 14:56:22.674706 14850 net.cpp:157] Top shape: 1024 (1024)
I0415 14:56:22.674715 14850 net.cpp:157] Top shape: 1024 (1024)
I0415 14:56:22.674721 14850 net.cpp:157] Top shape: 1024 (1024)
I0415 14:56:22.674727 14850 net.cpp:165] Memory required for data: 28327936
I0415 14:56:22.674732 14850 layer_factory.hpp:77] Creating layer conv1
I0415 14:56:22.674757 14850 net.cpp:100] Creating Layer conv1
I0415 14:56:22.674763 14850 net.cpp:434] conv1 <- data
I0415 14:56:22.674772 14850 net.cpp:408] conv1 -> conv1
I0415 14:56:23.026554 14850 net.cpp:150] Setting up conv1
I0415 14:56:23.026584 14850 net.cpp:157] Top shape: 1024 100 42 42 (180633600)
I0415 14:56:23.026587 14850 net.cpp:165] Memory required for data: 750862336
I0415 14:56:23.026612 14850 layer_factory.hpp:77] Creating layer conv1_relu
I0415 14:56:23.026624 14850 net.cpp:100] Creating Layer conv1_relu
I0415 14:56:23.026629 14850 net.cpp:434] conv1_relu <- conv1
I0415 14:56:23.026638 14850 net.cpp:395] conv1_relu -> conv1 (in-place)
I0415 14:56:23.026890 14850 net.cpp:150] Setting up conv1_relu
I0415 14:56:23.026902 14850 net.cpp:157] Top shape: 1024 100 42 42 (180633600)
I0415 14:56:23.026906 14850 net.cpp:165] Memory required for data: 1473396736
I0415 14:56:23.026908 14850 layer_factory.hpp:77] Creating layer pool1
I0415 14:56:23.026919 14850 net.cpp:100] Creating Layer pool1
I0415 14:56:23.026922 14850 net.cpp:434] pool1 <- conv1
I0415 14:56:23.026929 14850 net.cpp:408] pool1 -> pool1
I0415 14:56:23.026995 14850 net.cpp:150] Setting up pool1
I0415 14:56:23.027004 14850 net.cpp:157] Top shape: 1024 100 21 21 (45158400)
I0415 14:56:23.027007 14850 net.cpp:165] Memory required for data: 1654030336
I0415 14:56:23.027010 14850 layer_factory.hpp:77] Creating layer conv2
I0415 14:56:23.027022 14850 net.cpp:100] Creating Layer conv2
I0415 14:56:23.027027 14850 net.cpp:434] conv2 <- pool1
I0415 14:56:23.027034 14850 net.cpp:408] conv2 -> conv2
I0415 14:56:23.033298 14850 net.cpp:150] Setting up conv2
I0415 14:56:23.033324 14850 net.cpp:157] Top shape: 1024 150 18 18 (49766400)
I0415 14:56:23.033327 14850 net.cpp:165] Memory required for data: 1853095936
I0415 14:56:23.033339 14850 layer_factory.hpp:77] Creating layer conv2_relu
I0415 14:56:23.033349 14850 net.cpp:100] Creating Layer conv2_relu
I0415 14:56:23.033352 14850 net.cpp:434] conv2_relu <- conv2
I0415 14:56:23.033357 14850 net.cpp:395] conv2_relu -> conv2 (in-place)
I0415 14:56:23.034497 14850 net.cpp:150] Setting up conv2_relu
I0415 14:56:23.034512 14850 net.cpp:157] Top shape: 1024 150 18 18 (49766400)
I0415 14:56:23.034514 14850 net.cpp:165] Memory required for data: 2052161536
I0415 14:56:23.034518 14850 layer_factory.hpp:77] Creating layer pool2
I0415 14:56:23.034525 14850 net.cpp:100] Creating Layer pool2
I0415 14:56:23.034529 14850 net.cpp:434] pool2 <- conv2
I0415 14:56:23.034536 14850 net.cpp:408] pool2 -> pool2
I0415 14:56:23.034588 14850 net.cpp:150] Setting up pool2
I0415 14:56:23.034597 14850 net.cpp:157] Top shape: 1024 150 9 9 (12441600)
I0415 14:56:23.034602 14850 net.cpp:165] Memory required for data: 2101927936
I0415 14:56:23.034605 14850 layer_factory.hpp:77] Creating layer conv3
I0415 14:56:23.034620 14850 net.cpp:100] Creating Layer conv3
I0415 14:56:23.034646 14850 net.cpp:434] conv3 <- pool2
I0415 14:56:23.034653 14850 net.cpp:408] conv3 -> conv3
I0415 14:56:23.042033 14850 net.cpp:150] Setting up conv3
I0415 14:56:23.042062 14850 net.cpp:157] Top shape: 1024 250 6 6 (9216000)
I0415 14:56:23.042065 14850 net.cpp:165] Memory required for data: 2138791936
I0415 14:56:23.042079 14850 layer_factory.hpp:77] Creating layer conv3_relu
I0415 14:56:23.042089 14850 net.cpp:100] Creating Layer conv3_relu
I0415 14:56:23.042093 14850 net.cpp:434] conv3_relu <- conv3
I0415 14:56:23.042099 14850 net.cpp:395] conv3_relu -> conv3 (in-place)
I0415 14:56:23.044088 14850 net.cpp:150] Setting up conv3_relu
I0415 14:56:23.044107 14850 net.cpp:157] Top shape: 1024 250 6 6 (9216000)
I0415 14:56:23.044111 14850 net.cpp:165] Memory required for data: 2175655936
I0415 14:56:23.044116 14850 layer_factory.hpp:77] Creating layer pool3
I0415 14:56:23.044126 14850 net.cpp:100] Creating Layer pool3
I0415 14:56:23.044131 14850 net.cpp:434] pool3 <- conv3
I0415 14:56:23.044138 14850 net.cpp:408] pool3 -> pool3
I0415 14:56:23.044198 14850 net.cpp:150] Setting up pool3
I0415 14:56:23.044208 14850 net.cpp:157] Top shape: 1024 250 3 3 (2304000)
I0415 14:56:23.044210 14850 net.cpp:165] Memory required for data: 2184871936
I0415 14:56:23.044214 14850 layer_factory.hpp:77] Creating layer fc4_300
I0415 14:56:23.044220 14850 net.cpp:100] Creating Layer fc4_300
I0415 14:56:23.044224 14850 net.cpp:434] fc4_300 <- pool3
I0415 14:56:23.044229 14850 net.cpp:408] fc4_300 -> fc4_300
I0415 14:56:23.051957 14850 net.cpp:150] Setting up fc4_300
I0415 14:56:23.051975 14850 net.cpp:157] Top shape: 1024 300 (307200)
I0415 14:56:23.051978 14850 net.cpp:165] Memory required for data: 2186100736
I0415 14:56:23.051985 14850 layer_factory.hpp:77] Creating layer fc4_relu
I0415 14:56:23.051992 14850 net.cpp:100] Creating Layer fc4_relu
I0415 14:56:23.051997 14850 net.cpp:434] fc4_relu <- fc4_300
I0415 14:56:23.052002 14850 net.cpp:395] fc4_relu -> fc4_300 (in-place)
I0415 14:56:23.052194 14850 net.cpp:150] Setting up fc4_relu
I0415 14:56:23.052206 14850 net.cpp:157] Top shape: 1024 300 (307200)
I0415 14:56:23.052209 14850 net.cpp:165] Memory required for data: 2187329536
I0415 14:56:23.052212 14850 layer_factory.hpp:77] Creating layer drop4
I0415 14:56:23.052219 14850 net.cpp:100] Creating Layer drop4
I0415 14:56:23.052222 14850 net.cpp:434] drop4 <- fc4_300
I0415 14:56:23.052227 14850 net.cpp:395] drop4 -> fc4_300 (in-place)
I0415 14:56:23.052258 14850 net.cpp:150] Setting up drop4
I0415 14:56:23.052266 14850 net.cpp:157] Top shape: 1024 300 (307200)
I0415 14:56:23.052269 14850 net.cpp:165] Memory required for data: 2188558336
I0415 14:56:23.052273 14850 layer_factory.hpp:77] Creating layer fc5_106
I0415 14:56:23.052279 14850 net.cpp:100] Creating Layer fc5_106
I0415 14:56:23.052284 14850 net.cpp:434] fc5_106 <- fc4_300
I0415 14:56:23.052289 14850 net.cpp:408] fc5_106 -> fc5_classes
I0415 14:56:23.057886 14850 net.cpp:150] Setting up fc5_106
I0415 14:56:23.057904 14850 net.cpp:157] Top shape: 1024 106 (108544)
I0415 14:56:23.057907 14850 net.cpp:165] Memory required for data: 2188992512
I0415 14:56:23.057920 14850 layer_factory.hpp:77] Creating layer fc5_classes_fc5_106_0_split
I0415 14:56:23.057930 14850 net.cpp:100] Creating Layer fc5_classes_fc5_106_0_split
I0415 14:56:23.057935 14850 net.cpp:434] fc5_classes_fc5_106_0_split <- fc5_classes
I0415 14:56:23.057941 14850 net.cpp:408] fc5_classes_fc5_106_0_split -> fc5_classes_fc5_106_0_split_0
I0415 14:56:23.057950 14850 net.cpp:408] fc5_classes_fc5_106_0_split -> fc5_classes_fc5_106_0_split_1
I0415 14:56:23.057960 14850 net.cpp:408] fc5_classes_fc5_106_0_split -> fc5_classes_fc5_106_0_split_2
I0415 14:56:23.058022 14850 net.cpp:150] Setting up fc5_classes_fc5_106_0_split
I0415 14:56:23.058029 14850 net.cpp:157] Top shape: 1024 106 (108544)
I0415 14:56:23.058033 14850 net.cpp:157] Top shape: 1024 106 (108544)
I0415 14:56:23.058037 14850 net.cpp:157] Top shape: 1024 106 (108544)
I0415 14:56:23.058039 14850 net.cpp:165] Memory required for data: 2190295040
I0415 14:56:23.058059 14850 layer_factory.hpp:77] Creating layer softmax
I0415 14:56:23.058069 14850 net.cpp:100] Creating Layer softmax
I0415 14:56:23.058074 14850 net.cpp:434] softmax <- fc5_classes_fc5_106_0_split_0
I0415 14:56:23.058080 14850 net.cpp:408] softmax -> softmax
I0415 14:56:23.058342 14850 net.cpp:150] Setting up softmax
I0415 14:56:23.058354 14850 net.cpp:157] Top shape: 1024 106 (108544)
I0415 14:56:23.058357 14850 net.cpp:165] Memory required for data: 2190729216
I0415 14:56:23.058360 14850 layer_factory.hpp:77] Creating layer loss
I0415 14:56:23.058367 14850 net.cpp:100] Creating Layer loss
I0415 14:56:23.058372 14850 net.cpp:434] loss <- softmax
I0415 14:56:23.058377 14850 net.cpp:434] loss <- label_data_1_split_0
I0415 14:56:23.058387 14850 net.cpp:408] loss -> loss
…
