…
I0411 07:43:20.902654 29399 net.cpp:322] The NetState phase (0) differed from the phase (1) specified by a rule in layer accuracy_5
I0411 07:43:20.902874 29399 net.cpp:58] Initializing net from parameters: 
state {
  phase: TRAIN
  level: 0
  stage: ""
}
layer {
  name: "data"
  type: "Data"
  top: "data"
  top: "label"
  include {
    phase: TRAIN
  }
  transform_param {
    scale: 0.0039215689
    mirror: false
    crop_size: 48
    mean_value: 115
    mean_value: 108
    mean_value: 122
  }
  data_param {
    source: "../local_data/lmdb/rtsd-r1/imajust/train/lmdb"
    batch_size: 1024
    backend: LMDB
  }
}
layer {
  name: "conv1"
  type: "Convolution"
  bottom: "data"
  top: "conv1"
  convolution_param {
    num_output: 100
    pad: 0
    kernel_size: 7
    group: 1
    stride: 1
    weight_filler {
      type: "xavier"
    }
  }
}
layer {
  name: "conv1_prescale"
  type: "Scale"
  bottom: "conv1"
  top: "conv1"
  param {
    lr_mult: 0
    decay_mult: 0
  }
  scale_param {
    filler {
      value: 0.6666
    }
    bias_term: false
  }
}
layer {
  name: "conv1_sTanH"
  type: "TanH"
  bottom: "conv1"
  top: "conv1"
}
layer {
  name: "conv1_postscale"
  type: "Scale"
  bottom: "conv1"
  top: "conv1"
  param {
    lr_mult: 0
    decay_mult: 0
  }
  scale_param {
    filler {
      value: 1.7159
    }
    bias_term: false
  }
}
layer {
  name: "pool1"
  type: "Pooling"
  bottom: "conv1"
  top: "pool1"
  pooling_param {
    pool: MAX
    kernel_size: 2
    stride: 2
  }
}
layer {
  name: "conv2"
  type: "Convolution"
  bottom: "pool1"
  top: "conv2"
  convolution_param {
    num_output: 150
    pad: 0
    kernel_size: 4
    group: 1
    stride: 1
    weight_filler {
      type: "xavier"
    }
  }
}
layer {
  name: "conv2_prescale"
  type: "Scale"
  bottom: "conv2"
  top: "conv2"
  param {
    lr_mult: 0
    decay_mult: 0
  }
  scale_param {
    filler {
      value: 0.6666
    }
    bias_term: false
  }
}
layer {
  name: "conv2_sTanH"
  type: "TanH"
  bottom: "conv2"
  top: "conv2"
}
layer {
  name: "conv2_postscale"
  type: "Scale"
  bottom: "conv2"
  top: "conv2"
  param {
    lr_mult: 0
    decay_mult: 0
  }
  scale_param {
    filler {
      value: 1.7159
    }
    bias_term: false
  }
}
layer {
  name: "pool2"
  type: "Pooling"
  bottom: "conv2"
  top: "pool2"
  pooling_param {
    pool: MAX
    kernel_size: 2
    stride: 2
  }
}
layer {
  name: "conv3"
  type: "Convolution"
  bottom: "pool2"
  top: "conv3"
  convolution_param {
    num_output: 250
    pad: 0
    kernel_size: 4
    group: 1
    stride: 1
    weight_filler {
      type: "xavier"
    }
  }
}
layer {
  name: "conv3_prescale"
  type: "Scale"
  bottom: "conv3"
  top: "conv3"
  param {
    lr_mult: 0
    decay_mult: 0
  }
  scale_param {
    filler {
      value: 0.6666
    }
    bias_term: false
  }
}
layer {
  name: "conv3_sTanH"
  type: "TanH"
  bottom: "conv3"
  top: "conv3"
}
layer {
  name: "conv3_postscale"
  type: "Scale"
  bottom: "conv3"
  top: "conv3"
  param {
    lr_mult: 0
    decay_mult: 0
  }
  scale_param {
    filler {
      value: 1.7159
    }
    bias_term: false
  }
}
layer {
  name: "pool3"
  type: "Pooling"
  bottom: "conv3"
  top: "pool3"
  pooling_param {
    pool: MAX
    kernel_size: 2
    stride: 2
  }
}
layer {
  name: "fc4_300"
  type: "InnerProduct"
  bottom: "pool3"
  top: "fc4_300"
  inner_product_param {
    num_output: 300
    weight_filler {
      type: "xavier"
    }
  }
}
layer {
  name: "fc4_prescale"
  type: "Scale"
  bottom: "fc4_300"
  top: "fc4_300"
  param {
    lr_mult: 0
    decay_mult: 0
  }
  scale_param {
    filler {
      value: 0.6666
    }
    bias_term: false
  }
}
layer {
  name: "fc4_sTanH"
  type: "TanH"
  bottom: "fc4_300"
  top: "fc4_300"
}
layer {
  name: "fc4_postscale"
  type: "Scale"
  bottom: "fc4_300"
  top: "fc4_300"
  param {
    lr_mult: 0
    decay_mult: 0
  }
  scale_param {
    filler {
      value: 1.7159
    }
    bias_term: false
  }
}
layer {
  name: "fc5_67"
  type: "InnerProduct"
  bottom: "fc4_300"
  top: "fc5_classes"
  inner_product_param {
    num_output: 67
    weight_filler {
      type: "xavier"
    }
  }
}
layer {
  name: "loss"
  type: "SoftmaxWithLoss"
  bottom: "fc5_classes"
  bottom: "label"
  top: "loss"
}
I0411 07:43:20.903012 29399 layer_factory.hpp:77] Creating layer data
I0411 07:43:20.904554 29399 net.cpp:100] Creating Layer data
I0411 07:43:20.904575 29399 net.cpp:408] data -> data
I0411 07:43:20.904598 29399 net.cpp:408] data -> label
I0411 07:43:20.905628 29504 db_lmdb.cpp:35] Opened lmdb ../local_data/lmdb/rtsd-r1/imajust/train/lmdb
I0411 07:43:20.923023 29399 data_layer.cpp:41] output data size: 1024,3,48,48
I0411 07:43:20.967438 29399 net.cpp:150] Setting up data
I0411 07:43:20.967468 29399 net.cpp:157] Top shape: 1024 3 48 48 (7077888)
I0411 07:43:20.967473 29399 net.cpp:157] Top shape: 1024 (1024)
I0411 07:43:20.967476 29399 net.cpp:165] Memory required for data: 28315648
I0411 07:43:20.967486 29399 layer_factory.hpp:77] Creating layer conv1
I0411 07:43:20.967509 29399 net.cpp:100] Creating Layer conv1
I0411 07:43:20.967517 29399 net.cpp:434] conv1 <- data
I0411 07:43:20.967540 29399 net.cpp:408] conv1 -> conv1
I0411 07:43:21.248040 29399 net.cpp:150] Setting up conv1
I0411 07:43:21.248069 29399 net.cpp:157] Top shape: 1024 100 42 42 (180633600)
I0411 07:43:21.248072 29399 net.cpp:165] Memory required for data: 750850048
I0411 07:43:21.248100 29399 layer_factory.hpp:77] Creating layer conv1_prescale
I0411 07:43:21.248119 29399 net.cpp:100] Creating Layer conv1_prescale
I0411 07:43:21.248126 29399 net.cpp:434] conv1_prescale <- conv1
I0411 07:43:21.248134 29399 net.cpp:395] conv1_prescale -> conv1 (in-place)
I0411 07:43:21.248247 29399 net.cpp:150] Setting up conv1_prescale
I0411 07:43:21.248256 29399 net.cpp:157] Top shape: 1024 100 42 42 (180633600)
I0411 07:43:21.248263 29399 net.cpp:165] Memory required for data: 1473384448
I0411 07:43:21.248275 29399 layer_factory.hpp:77] Creating layer conv1_sTanH
I0411 07:43:21.248282 29399 net.cpp:100] Creating Layer conv1_sTanH
I0411 07:43:21.248289 29399 net.cpp:434] conv1_sTanH <- conv1
I0411 07:43:21.248296 29399 net.cpp:395] conv1_sTanH -> conv1 (in-place)
I0411 07:43:21.248497 29399 net.cpp:150] Setting up conv1_sTanH
I0411 07:43:21.248512 29399 net.cpp:157] Top shape: 1024 100 42 42 (180633600)
I0411 07:43:21.248517 29399 net.cpp:165] Memory required for data: 2195918848
I0411 07:43:21.248523 29399 layer_factory.hpp:77] Creating layer conv1_postscale
I0411 07:43:21.248538 29399 net.cpp:100] Creating Layer conv1_postscale
I0411 07:43:21.248543 29399 net.cpp:434] conv1_postscale <- conv1
I0411 07:43:21.248549 29399 net.cpp:395] conv1_postscale -> conv1 (in-place)
I0411 07:43:21.248651 29399 net.cpp:150] Setting up conv1_postscale
I0411 07:43:21.248659 29399 net.cpp:157] Top shape: 1024 100 42 42 (180633600)
I0411 07:43:21.248666 29399 net.cpp:165] Memory required for data: 2918453248
I0411 07:43:21.248674 29399 layer_factory.hpp:77] Creating layer pool1
I0411 07:43:21.248684 29399 net.cpp:100] Creating Layer pool1
I0411 07:43:21.248692 29399 net.cpp:434] pool1 <- conv1
I0411 07:43:21.248697 29399 net.cpp:408] pool1 -> pool1
I0411 07:43:21.248751 29399 net.cpp:150] Setting up pool1
I0411 07:43:21.248760 29399 net.cpp:157] Top shape: 1024 100 21 21 (45158400)
I0411 07:43:21.248785 29399 net.cpp:165] Memory required for data: 3099086848
I0411 07:43:21.248790 29399 layer_factory.hpp:77] Creating layer conv2
I0411 07:43:21.248803 29399 net.cpp:100] Creating Layer conv2
I0411 07:43:21.248808 29399 net.cpp:434] conv2 <- pool1
I0411 07:43:21.248816 29399 net.cpp:408] conv2 -> conv2
I0411 07:43:21.256876 29399 net.cpp:150] Setting up conv2
I0411 07:43:21.256893 29399 net.cpp:157] Top shape: 1024 150 18 18 (49766400)
I0411 07:43:21.256897 29399 net.cpp:165] Memory required for data: 3298152448
I0411 07:43:21.256907 29399 layer_factory.hpp:77] Creating layer conv2_prescale
I0411 07:43:21.256914 29399 net.cpp:100] Creating Layer conv2_prescale
I0411 07:43:21.256918 29399 net.cpp:434] conv2_prescale <- conv2
I0411 07:43:21.256924 29399 net.cpp:395] conv2_prescale -> conv2 (in-place)
I0411 07:43:21.257035 29399 net.cpp:150] Setting up conv2_prescale
I0411 07:43:21.257045 29399 net.cpp:157] Top shape: 1024 150 18 18 (49766400)
I0411 07:43:21.257050 29399 net.cpp:165] Memory required for data: 3497218048
I0411 07:43:21.257058 29399 layer_factory.hpp:77] Creating layer conv2_sTanH
I0411 07:43:21.257068 29399 net.cpp:100] Creating Layer conv2_sTanH
I0411 07:43:21.257076 29399 net.cpp:434] conv2_sTanH <- conv2
I0411 07:43:21.257081 29399 net.cpp:395] conv2_sTanH -> conv2 (in-place)
I0411 07:43:21.258388 29399 net.cpp:150] Setting up conv2_sTanH
I0411 07:43:21.258404 29399 net.cpp:157] Top shape: 1024 150 18 18 (49766400)
I0411 07:43:21.258407 29399 net.cpp:165] Memory required for data: 3696283648
I0411 07:43:21.258411 29399 layer_factory.hpp:77] Creating layer conv2_postscale
I0411 07:43:21.258419 29399 net.cpp:100] Creating Layer conv2_postscale
I0411 07:43:21.258422 29399 net.cpp:434] conv2_postscale <- conv2
I0411 07:43:21.258430 29399 net.cpp:395] conv2_postscale -> conv2 (in-place)
I0411 07:43:21.258533 29399 net.cpp:150] Setting up conv2_postscale
I0411 07:43:21.258543 29399 net.cpp:157] Top shape: 1024 150 18 18 (49766400)
I0411 07:43:21.258549 29399 net.cpp:165] Memory required for data: 3895349248
I0411 07:43:21.258556 29399 layer_factory.hpp:77] Creating layer pool2
I0411 07:43:21.258566 29399 net.cpp:100] Creating Layer pool2
I0411 07:43:21.258572 29399 net.cpp:434] pool2 <- conv2
I0411 07:43:21.258579 29399 net.cpp:408] pool2 -> pool2
I0411 07:43:21.258630 29399 net.cpp:150] Setting up pool2
I0411 07:43:21.258638 29399 net.cpp:157] Top shape: 1024 150 9 9 (12441600)
I0411 07:43:21.258644 29399 net.cpp:165] Memory required for data: 3945115648
I0411 07:43:21.258649 29399 layer_factory.hpp:77] Creating layer conv3
I0411 07:43:21.258661 29399 net.cpp:100] Creating Layer conv3
I0411 07:43:21.258666 29399 net.cpp:434] conv3 <- pool2
I0411 07:43:21.258671 29399 net.cpp:408] conv3 -> conv3
I0411 07:43:21.264377 29399 net.cpp:150] Setting up conv3
I0411 07:43:21.264395 29399 net.cpp:157] Top shape: 1024 250 6 6 (9216000)
I0411 07:43:21.264402 29399 net.cpp:165] Memory required for data: 3981979648
I0411 07:43:21.264417 29399 layer_factory.hpp:77] Creating layer conv3_prescale
I0411 07:43:21.264430 29399 net.cpp:100] Creating Layer conv3_prescale
I0411 07:43:21.264436 29399 net.cpp:434] conv3_prescale <- conv3
I0411 07:43:21.264446 29399 net.cpp:395] conv3_prescale -> conv3 (in-place)
I0411 07:43:21.264552 29399 net.cpp:150] Setting up conv3_prescale
I0411 07:43:21.264561 29399 net.cpp:157] Top shape: 1024 250 6 6 (9216000)
I0411 07:43:21.264567 29399 net.cpp:165] Memory required for data: 4018843648
I0411 07:43:21.264575 29399 layer_factory.hpp:77] Creating layer conv3_sTanH
I0411 07:43:21.264587 29399 net.cpp:100] Creating Layer conv3_sTanH
I0411 07:43:21.264593 29399 net.cpp:434] conv3_sTanH <- conv3
I0411 07:43:21.264600 29399 net.cpp:395] conv3_sTanH -> conv3 (in-place)
I0411 07:43:21.266158 29399 net.cpp:150] Setting up conv3_sTanH
I0411 07:43:21.266177 29399 net.cpp:157] Top shape: 1024 250 6 6 (9216000)
I0411 07:43:21.266185 29399 net.cpp:165] Memory required for data: 4055707648
I0411 07:43:21.266191 29399 layer_factory.hpp:77] Creating layer conv3_postscale
I0411 07:43:21.266216 29399 net.cpp:100] Creating Layer conv3_postscale
I0411 07:43:21.266222 29399 net.cpp:434] conv3_postscale <- conv3
I0411 07:43:21.266232 29399 net.cpp:395] conv3_postscale -> conv3 (in-place)
I0411 07:43:21.266341 29399 net.cpp:150] Setting up conv3_postscale
I0411 07:43:21.266352 29399 net.cpp:157] Top shape: 1024 250 6 6 (9216000)
I0411 07:43:21.266360 29399 net.cpp:165] Memory required for data: 4092571648
I0411 07:43:21.266366 29399 layer_factory.hpp:77] Creating layer pool3
I0411 07:43:21.266376 29399 net.cpp:100] Creating Layer pool3
I0411 07:43:21.266383 29399 net.cpp:434] pool3 <- conv3
I0411 07:43:21.266389 29399 net.cpp:408] pool3 -> pool3
I0411 07:43:21.266438 29399 net.cpp:150] Setting up pool3
I0411 07:43:21.266445 29399 net.cpp:157] Top shape: 1024 250 3 3 (2304000)
I0411 07:43:21.266453 29399 net.cpp:165] Memory required for data: 4101787648
I0411 07:43:21.266456 29399 layer_factory.hpp:77] Creating layer fc4_300
I0411 07:43:21.266470 29399 net.cpp:100] Creating Layer fc4_300
I0411 07:43:21.266475 29399 net.cpp:434] fc4_300 <- pool3
I0411 07:43:21.266484 29399 net.cpp:408] fc4_300 -> fc4_300
I0411 07:43:21.272502 29399 net.cpp:150] Setting up fc4_300
I0411 07:43:21.272518 29399 net.cpp:157] Top shape: 1024 300 (307200)
I0411 07:43:21.272521 29399 net.cpp:165] Memory required for data: 4103016448
I0411 07:43:21.272527 29399 layer_factory.hpp:77] Creating layer fc4_prescale
I0411 07:43:21.272536 29399 net.cpp:100] Creating Layer fc4_prescale
I0411 07:43:21.272539 29399 net.cpp:434] fc4_prescale <- fc4_300
I0411 07:43:21.272547 29399 net.cpp:395] fc4_prescale -> fc4_300 (in-place)
I0411 07:43:21.272644 29399 net.cpp:150] Setting up fc4_prescale
I0411 07:43:21.272653 29399 net.cpp:157] Top shape: 1024 300 (307200)
I0411 07:43:21.272657 29399 net.cpp:165] Memory required for data: 4104245248
I0411 07:43:21.272665 29399 layer_factory.hpp:77] Creating layer fc4_sTanH
I0411 07:43:21.272671 29399 net.cpp:100] Creating Layer fc4_sTanH
I0411 07:43:21.272675 29399 net.cpp:434] fc4_sTanH <- fc4_300
I0411 07:43:21.272680 29399 net.cpp:395] fc4_sTanH -> fc4_300 (in-place)
I0411 07:43:21.272881 29399 net.cpp:150] Setting up fc4_sTanH
I0411 07:43:21.272891 29399 net.cpp:157] Top shape: 1024 300 (307200)
I0411 07:43:21.272894 29399 net.cpp:165] Memory required for data: 4105474048
I0411 07:43:21.272897 29399 layer_factory.hpp:77] Creating layer fc4_postscale
I0411 07:43:21.272905 29399 net.cpp:100] Creating Layer fc4_postscale
I0411 07:43:21.272910 29399 net.cpp:434] fc4_postscale <- fc4_300
I0411 07:43:21.272917 29399 net.cpp:395] fc4_postscale -> fc4_300 (in-place)
I0411 07:43:21.273017 29399 net.cpp:150] Setting up fc4_postscale
I0411 07:43:21.273025 29399 net.cpp:157] Top shape: 1024 300 (307200)
I0411 07:43:21.273027 29399 net.cpp:165] Memory required for data: 4106702848
I0411 07:43:21.273032 29399 layer_factory.hpp:77] Creating layer fc5_67
I0411 07:43:21.273039 29399 net.cpp:100] Creating Layer fc5_67
I0411 07:43:21.273044 29399 net.cpp:434] fc5_67 <- fc4_300
I0411 07:43:21.273048 29399 net.cpp:408] fc5_67 -> fc5_classes
I0411 07:43:21.274514 29399 net.cpp:150] Setting up fc5_67
I0411 07:43:21.274529 29399 net.cpp:157] Top shape: 1024 67 (68608)
I0411 07:43:21.274533 29399 net.cpp:165] Memory required for data: 4106977280
I0411 07:43:21.274544 29399 layer_factory.hpp:77] Creating layer loss
I0411 07:43:21.274552 29399 net.cpp:100] Creating Layer loss
I0411 07:43:21.274557 29399 net.cpp:434] loss <- fc5_classes
I0411 07:43:21.274562 29399 net.cpp:434] loss <- label
I0411 07:43:21.274567 29399 net.cpp:408] loss -> loss
I0411 07:43:21.274580 29399 layer_factory.hpp:77] Creating layer loss
…
I0411 07:43:21.275341 29399 solver.cpp:193] Creating test net (#0) specified by test_net file: ./Prototxt/experiment_8/rtsd-r1/imajust/trial_2/test.prototxt
I0411 07:43:21.275519 29399 net.cpp:58] Initializing net from parameters: 
state {
  phase: TEST
}
layer {
  name: "data"
  type: "Data"
  top: "data"
  top: "label"
  include {
    phase: TEST
  }
  transform_param {
    scale: 0.0039215689
    mirror: false
    crop_size: 48
    mean_value: 109
    mean_value: 106
    mean_value: 126
  }
  data_param {
    source: "../local_data/lmdb/rtsd-r1/imajust/test/lmdb"
    batch_size: 1024
    backend: LMDB
  }
}
layer {
  name: "conv1"
  type: "Convolution"
  bottom: "data"
  top: "conv1"
  convolution_param {
    num_output: 100
    pad: 0
    kernel_size: 7
    group: 1
    stride: 1
    weight_filler {
      type: "xavier"
    }
  }
}
layer {
  name: "conv1_prescale"
  type: "Scale"
  bottom: "conv1"
  top: "conv1"
  param {
    lr_mult: 0
    decay_mult: 0
  }
  scale_param {
    filler {
      value: 0.6666
    }
    bias_term: false
  }
}
layer {
  name: "conv1_sTanH"
  type: "TanH"
  bottom: "conv1"
  top: "conv1"
}
layer {
  name: "conv1_postscale"
  type: "Scale"
  bottom: "conv1"
  top: "conv1"
  param {
    lr_mult: 0
    decay_mult: 0
  }
  scale_param {
    filler {
      value: 1.7159
    }
    bias_term: false
  }
}
layer {
  name: "pool1"
  type: "Pooling"
  bottom: "conv1"
  top: "pool1"
  pooling_param {
    pool: MAX
    kernel_size: 2
    stride: 2
  }
}
layer {
  name: "conv2"
  type: "Convolution"
  bottom: "pool1"
  top: "conv2"
  convolution_param {
    num_output: 150
    pad: 0
    kernel_size: 4
    group: 1
    stride: 1
    weight_filler {
      type: "xavier"
    }
  }
}
layer {
  name: "conv2_prescale"
  type: "Scale"
  bottom: "conv2"
  top: "conv2"
  param {
    lr_mult: 0
    decay_mult: 0
  }
  scale_param {
    filler {
      value: 0.6666
    }
    bias_term: false
  }
}
layer {
  name: "conv2_sTanH"
  type: "TanH"
  bottom: "conv2"
  top: "conv2"
}
layer {
  name: "conv2_postscale"
  type: "Scale"
  bottom: "conv2"
  top: "conv2"
  param {
    lr_mult: 0
    decay_mult: 0
  }
  scale_param {
    filler {
      value: 1.7159
    }
    bias_term: false
  }
}
layer {
  name: "pool2"
  type: "Pooling"
  bottom: "conv2"
  top: "pool2"
  pooling_param {
    pool: MAX
    kernel_size: 2
    stride: 2
  }
}
layer {
  name: "conv3"
  type: "Convolution"
  bottom: "pool2"
  top: "conv3"
  convolution_param {
    num_output: 250
    pad: 0
    kernel_size: 4
    group: 1
    stride: 1
    weight_filler {
      type: "xavier"
    }
  }
}
layer {
  name: "conv3_prescale"
  type: "Scale"
  bottom: "conv3"
  top: "conv3"
  param {
    lr_mult: 0
    decay_mult: 0
  }
  scale_param {
    filler {
      value: 0.6666
    }
    bias_term: false
  }
}
layer {
  name: "conv3_sTanH"
  type: "TanH"
  bottom: "conv3"
  top: "conv3"
}
layer {
  name: "conv3_postscale"
  type: "Scale"
  bottom: "conv3"
  top: "conv3"
  param {
    lr_mult: 0
    decay_mult: 0
  }
  scale_param {
    filler {
      value: 1.7159
    }
    bias_term: false
  }
}
layer {
  name: "pool3"
  type: "Pooling"
  bottom: "conv3"
  top: "pool3"
  pooling_param {
    pool: MAX
    kernel_size: 2
    stride: 2
  }
}
layer {
  name: "fc4_300"
  type: "InnerProduct"
  bottom: "pool3"
  top: "fc4_300"
  inner_product_param {
    num_output: 300
    weight_filler {
      type: "xavier"
    }
  }
}
layer {
  name: "fc4_prescale"
  type: "Scale"
  bottom: "fc4_300"
  top: "fc4_300"
  param {
    lr_mult: 0
    decay_mult: 0
  }
  scale_param {
    filler {
      value: 0.6666
    }
    bias_term: false
  }
}
layer {
  name: "fc4_sTanH"
  type: "TanH"
  bottom: "fc4_300"
  top: "fc4_300"
}
layer {
  name: "fc4_postscale"
  type: "Scale"
  bottom: "fc4_300"
  top: "fc4_300"
  param {
    lr_mult: 0
    decay_mult: 0
  }
  scale_param {
    filler {
      value: 1.7159
    }
    bias_term: false
  }
}
layer {
  name: "fc5_67"
  type: "InnerProduct"
  bottom: "fc4_300"
  top: "fc5_classes"
  inner_product_param {
    num_output: 67
    weight_filler {
      type: "xavier"
    }
  }
}
layer {
  name: "loss"
  type: "SoftmaxWithLoss"
  bottom: "fc5_classes"
  bottom: "label"
  top: "loss"
}
layer {
  name: "accuracy_1"
  type: "Accuracy"
  bottom: "fc5_classes"
  bottom: "label"
  top: "accuracy_1"
  include {
    phase: TEST
  }
  accuracy_param {
    top_k: 1
  }
}
layer {
  name: "accuracy_5"
  type: "Accuracy"
  bottom: "fc5_classes"
  bottom: "label"
  top: "accuracy_5"
  include {
    phase: TEST
  }
  accuracy_param {
    top_k: 5
  }
}
I0411 07:43:21.275681 29399 layer_factory.hpp:77] Creating layer data
I0411 07:43:21.276415 29399 net.cpp:100] Creating Layer data
I0411 07:43:21.276448 29399 net.cpp:408] data -> data
I0411 07:43:21.276463 29399 net.cpp:408] data -> label
I0411 07:43:21.279656 29540 db_lmdb.cpp:35] Opened lmdb ../local_data/lmdb/rtsd-r1/imajust/test/lmdb
I0411 07:43:21.279793 29399 data_layer.cpp:41] output data size: 1024,3,48,48
I0411 07:43:21.332599 29399 net.cpp:150] Setting up data
I0411 07:43:21.332630 29399 net.cpp:157] Top shape: 1024 3 48 48 (7077888)
I0411 07:43:21.332635 29399 net.cpp:157] Top shape: 1024 (1024)
I0411 07:43:21.332638 29399 net.cpp:165] Memory required for data: 28315648
I0411 07:43:21.332645 29399 layer_factory.hpp:77] Creating layer label_data_1_split
I0411 07:43:21.332665 29399 net.cpp:100] Creating Layer label_data_1_split
I0411 07:43:21.332675 29399 net.cpp:434] label_data_1_split <- label
I0411 07:43:21.332689 29399 net.cpp:408] label_data_1_split -> label_data_1_split_0
I0411 07:43:21.332705 29399 net.cpp:408] label_data_1_split -> label_data_1_split_1
I0411 07:43:21.332712 29399 net.cpp:408] label_data_1_split -> label_data_1_split_2
I0411 07:43:21.332829 29399 net.cpp:150] Setting up label_data_1_split
I0411 07:43:21.332841 29399 net.cpp:157] Top shape: 1024 (1024)
I0411 07:43:21.332849 29399 net.cpp:157] Top shape: 1024 (1024)
I0411 07:43:21.332852 29399 net.cpp:157] Top shape: 1024 (1024)
I0411 07:43:21.332855 29399 net.cpp:165] Memory required for data: 28327936
I0411 07:43:21.332861 29399 layer_factory.hpp:77] Creating layer conv1
I0411 07:43:21.332878 29399 net.cpp:100] Creating Layer conv1
I0411 07:43:21.332885 29399 net.cpp:434] conv1 <- data
I0411 07:43:21.332895 29399 net.cpp:408] conv1 -> conv1
I0411 07:43:21.336781 29399 net.cpp:150] Setting up conv1
I0411 07:43:21.336798 29399 net.cpp:157] Top shape: 1024 100 42 42 (180633600)
I0411 07:43:21.336830 29399 net.cpp:165] Memory required for data: 750862336
I0411 07:43:21.336845 29399 layer_factory.hpp:77] Creating layer conv1_prescale
I0411 07:43:21.336858 29399 net.cpp:100] Creating Layer conv1_prescale
I0411 07:43:21.336864 29399 net.cpp:434] conv1_prescale <- conv1
I0411 07:43:21.336871 29399 net.cpp:395] conv1_prescale -> conv1 (in-place)
I0411 07:43:21.336985 29399 net.cpp:150] Setting up conv1_prescale
I0411 07:43:21.336994 29399 net.cpp:157] Top shape: 1024 100 42 42 (180633600)
I0411 07:43:21.336997 29399 net.cpp:165] Memory required for data: 1473396736
I0411 07:43:21.337007 29399 layer_factory.hpp:77] Creating layer conv1_sTanH
I0411 07:43:21.337020 29399 net.cpp:100] Creating Layer conv1_sTanH
I0411 07:43:21.337026 29399 net.cpp:434] conv1_sTanH <- conv1
I0411 07:43:21.337033 29399 net.cpp:395] conv1_sTanH -> conv1 (in-place)
I0411 07:43:21.337232 29399 net.cpp:150] Setting up conv1_sTanH
I0411 07:43:21.337244 29399 net.cpp:157] Top shape: 1024 100 42 42 (180633600)
I0411 07:43:21.337249 29399 net.cpp:165] Memory required for data: 2195931136
I0411 07:43:21.337254 29399 layer_factory.hpp:77] Creating layer conv1_postscale
I0411 07:43:21.337260 29399 net.cpp:100] Creating Layer conv1_postscale
I0411 07:43:21.337262 29399 net.cpp:434] conv1_postscale <- conv1
I0411 07:43:21.337270 29399 net.cpp:395] conv1_postscale -> conv1 (in-place)
I0411 07:43:21.337383 29399 net.cpp:150] Setting up conv1_postscale
I0411 07:43:21.337393 29399 net.cpp:157] Top shape: 1024 100 42 42 (180633600)
I0411 07:43:21.337396 29399 net.cpp:165] Memory required for data: 2918465536
I0411 07:43:21.337401 29399 layer_factory.hpp:77] Creating layer pool1
I0411 07:43:21.337409 29399 net.cpp:100] Creating Layer pool1
I0411 07:43:21.337424 29399 net.cpp:434] pool1 <- conv1
I0411 07:43:21.337429 29399 net.cpp:408] pool1 -> pool1
I0411 07:43:21.337481 29399 net.cpp:150] Setting up pool1
I0411 07:43:21.337492 29399 net.cpp:157] Top shape: 1024 100 21 21 (45158400)
I0411 07:43:21.337496 29399 net.cpp:165] Memory required for data: 3099099136
I0411 07:43:21.337498 29399 layer_factory.hpp:77] Creating layer conv2
I0411 07:43:21.337507 29399 net.cpp:100] Creating Layer conv2
I0411 07:43:21.337512 29399 net.cpp:434] conv2 <- pool1
I0411 07:43:21.337518 29399 net.cpp:408] conv2 -> conv2
I0411 07:43:21.341400 29399 net.cpp:150] Setting up conv2
I0411 07:43:21.341418 29399 net.cpp:157] Top shape: 1024 150 18 18 (49766400)
I0411 07:43:21.341423 29399 net.cpp:165] Memory required for data: 3298164736
I0411 07:43:21.341444 29399 layer_factory.hpp:77] Creating layer conv2_prescale
I0411 07:43:21.341456 29399 net.cpp:100] Creating Layer conv2_prescale
I0411 07:43:21.341461 29399 net.cpp:434] conv2_prescale <- conv2
I0411 07:43:21.341467 29399 net.cpp:395] conv2_prescale -> conv2 (in-place)
I0411 07:43:21.341583 29399 net.cpp:150] Setting up conv2_prescale
I0411 07:43:21.341598 29399 net.cpp:157] Top shape: 1024 150 18 18 (49766400)
I0411 07:43:21.341603 29399 net.cpp:165] Memory required for data: 3497230336
I0411 07:43:21.341608 29399 layer_factory.hpp:77] Creating layer conv2_sTanH
I0411 07:43:21.341615 29399 net.cpp:100] Creating Layer conv2_sTanH
I0411 07:43:21.341621 29399 net.cpp:434] conv2_sTanH <- conv2
I0411 07:43:21.341629 29399 net.cpp:395] conv2_sTanH -> conv2 (in-place)
I0411 07:43:21.342500 29399 net.cpp:150] Setting up conv2_sTanH
I0411 07:43:21.342519 29399 net.cpp:157] Top shape: 1024 150 18 18 (49766400)
I0411 07:43:21.342522 29399 net.cpp:165] Memory required for data: 3696295936
I0411 07:43:21.342526 29399 layer_factory.hpp:77] Creating layer conv2_postscale
I0411 07:43:21.342533 29399 net.cpp:100] Creating Layer conv2_postscale
I0411 07:43:21.342538 29399 net.cpp:434] conv2_postscale <- conv2
I0411 07:43:21.342545 29399 net.cpp:395] conv2_postscale -> conv2 (in-place)
I0411 07:43:21.342655 29399 net.cpp:150] Setting up conv2_postscale
I0411 07:43:21.342661 29399 net.cpp:157] Top shape: 1024 150 18 18 (49766400)
I0411 07:43:21.342664 29399 net.cpp:165] Memory required for data: 3895361536
I0411 07:43:21.342682 29399 layer_factory.hpp:77] Creating layer pool2
I0411 07:43:21.342690 29399 net.cpp:100] Creating Layer pool2
I0411 07:43:21.342694 29399 net.cpp:434] pool2 <- conv2
I0411 07:43:21.342703 29399 net.cpp:408] pool2 -> pool2
I0411 07:43:21.342751 29399 net.cpp:150] Setting up pool2
I0411 07:43:21.342783 29399 net.cpp:157] Top shape: 1024 150 9 9 (12441600)
I0411 07:43:21.342785 29399 net.cpp:165] Memory required for data: 3945127936
I0411 07:43:21.342788 29399 layer_factory.hpp:77] Creating layer conv3
I0411 07:43:21.342797 29399 net.cpp:100] Creating Layer conv3
I0411 07:43:21.342800 29399 net.cpp:434] conv3 <- pool2
I0411 07:43:21.342806 29399 net.cpp:408] conv3 -> conv3
I0411 07:43:21.348326 29399 net.cpp:150] Setting up conv3
I0411 07:43:21.348348 29399 net.cpp:157] Top shape: 1024 250 6 6 (9216000)
I0411 07:43:21.348352 29399 net.cpp:165] Memory required for data: 3981991936
I0411 07:43:21.348361 29399 layer_factory.hpp:77] Creating layer conv3_prescale
I0411 07:43:21.348371 29399 net.cpp:100] Creating Layer conv3_prescale
I0411 07:43:21.348390 29399 net.cpp:434] conv3_prescale <- conv3
I0411 07:43:21.348403 29399 net.cpp:395] conv3_prescale -> conv3 (in-place)
I0411 07:43:21.348507 29399 net.cpp:150] Setting up conv3_prescale
I0411 07:43:21.348516 29399 net.cpp:157] Top shape: 1024 250 6 6 (9216000)
I0411 07:43:21.348518 29399 net.cpp:165] Memory required for data: 4018855936
I0411 07:43:21.348526 29399 layer_factory.hpp:77] Creating layer conv3_sTanH
I0411 07:43:21.348534 29399 net.cpp:100] Creating Layer conv3_sTanH
I0411 07:43:21.348539 29399 net.cpp:434] conv3_sTanH <- conv3
I0411 07:43:21.348546 29399 net.cpp:395] conv3_sTanH -> conv3 (in-place)
I0411 07:43:21.349325 29399 net.cpp:150] Setting up conv3_sTanH
I0411 07:43:21.349340 29399 net.cpp:157] Top shape: 1024 250 6 6 (9216000)
I0411 07:43:21.349345 29399 net.cpp:165] Memory required for data: 4055719936
I0411 07:43:21.349349 29399 layer_factory.hpp:77] Creating layer conv3_postscale
I0411 07:43:21.349359 29399 net.cpp:100] Creating Layer conv3_postscale
I0411 07:43:21.349364 29399 net.cpp:434] conv3_postscale <- conv3
I0411 07:43:21.349370 29399 net.cpp:395] conv3_postscale -> conv3 (in-place)
I0411 07:43:21.349474 29399 net.cpp:150] Setting up conv3_postscale
I0411 07:43:21.349483 29399 net.cpp:157] Top shape: 1024 250 6 6 (9216000)
I0411 07:43:21.349485 29399 net.cpp:165] Memory required for data: 4092583936
I0411 07:43:21.349493 29399 layer_factory.hpp:77] Creating layer pool3
I0411 07:43:21.349509 29399 net.cpp:100] Creating Layer pool3
I0411 07:43:21.349514 29399 net.cpp:434] pool3 <- conv3
I0411 07:43:21.349520 29399 net.cpp:408] pool3 -> pool3
I0411 07:43:21.349571 29399 net.cpp:150] Setting up pool3
I0411 07:43:21.349580 29399 net.cpp:157] Top shape: 1024 250 3 3 (2304000)
I0411 07:43:21.349586 29399 net.cpp:165] Memory required for data: 4101799936
I0411 07:43:21.349591 29399 layer_factory.hpp:77] Creating layer fc4_300
I0411 07:43:21.349601 29399 net.cpp:100] Creating Layer fc4_300
I0411 07:43:21.349609 29399 net.cpp:434] fc4_300 <- pool3
I0411 07:43:21.349617 29399 net.cpp:408] fc4_300 -> fc4_300
I0411 07:43:21.354953 29399 net.cpp:150] Setting up fc4_300
I0411 07:43:21.354971 29399 net.cpp:157] Top shape: 1024 300 (307200)
I0411 07:43:21.354974 29399 net.cpp:165] Memory required for data: 4103028736
I0411 07:43:21.354993 29399 layer_factory.hpp:77] Creating layer fc4_prescale
I0411 07:43:21.355002 29399 net.cpp:100] Creating Layer fc4_prescale
I0411 07:43:21.355008 29399 net.cpp:434] fc4_prescale <- fc4_300
I0411 07:43:21.355015 29399 net.cpp:395] fc4_prescale -> fc4_300 (in-place)
I0411 07:43:21.355123 29399 net.cpp:150] Setting up fc4_prescale
I0411 07:43:21.355134 29399 net.cpp:157] Top shape: 1024 300 (307200)
I0411 07:43:21.355140 29399 net.cpp:165] Memory required for data: 4104257536
I0411 07:43:21.355147 29399 layer_factory.hpp:77] Creating layer fc4_sTanH
I0411 07:43:21.355156 29399 net.cpp:100] Creating Layer fc4_sTanH
I0411 07:43:21.355161 29399 net.cpp:434] fc4_sTanH <- fc4_300
I0411 07:43:21.355166 29399 net.cpp:395] fc4_sTanH -> fc4_300 (in-place)
I0411 07:43:21.355381 29399 net.cpp:150] Setting up fc4_sTanH
I0411 07:43:21.355393 29399 net.cpp:157] Top shape: 1024 300 (307200)
I0411 07:43:21.355397 29399 net.cpp:165] Memory required for data: 4105486336
I0411 07:43:21.355402 29399 layer_factory.hpp:77] Creating layer fc4_postscale
I0411 07:43:21.355417 29399 net.cpp:100] Creating Layer fc4_postscale
I0411 07:43:21.355422 29399 net.cpp:434] fc4_postscale <- fc4_300
I0411 07:43:21.355429 29399 net.cpp:395] fc4_postscale -> fc4_300 (in-place)
I0411 07:43:21.355535 29399 net.cpp:150] Setting up fc4_postscale
I0411 07:43:21.355545 29399 net.cpp:157] Top shape: 1024 300 (307200)
I0411 07:43:21.355550 29399 net.cpp:165] Memory required for data: 4106715136
I0411 07:43:21.355554 29399 layer_factory.hpp:77] Creating layer fc5_67
I0411 07:43:21.355561 29399 net.cpp:100] Creating Layer fc5_67
I0411 07:43:21.355564 29399 net.cpp:434] fc5_67 <- fc4_300
I0411 07:43:21.355569 29399 net.cpp:408] fc5_67 -> fc5_classes
I0411 07:43:21.355824 29399 net.cpp:150] Setting up fc5_67
I0411 07:43:21.355834 29399 net.cpp:157] Top shape: 1024 67 (68608)
I0411 07:43:21.355837 29399 net.cpp:165] Memory required for data: 4106989568
I0411 07:43:21.355852 29399 layer_factory.hpp:77] Creating layer fc5_classes_fc5_67_0_split
I0411 07:43:21.355862 29399 net.cpp:100] Creating Layer fc5_classes_fc5_67_0_split
I0411 07:43:21.355870 29399 net.cpp:434] fc5_classes_fc5_67_0_split <- fc5_classes
I0411 07:43:21.355898 29399 net.cpp:408] fc5_classes_fc5_67_0_split -> fc5_classes_fc5_67_0_split_0
I0411 07:43:21.355911 29399 net.cpp:408] fc5_classes_fc5_67_0_split -> fc5_classes_fc5_67_0_split_1
I0411 07:43:21.355921 29399 net.cpp:408] fc5_classes_fc5_67_0_split -> fc5_classes_fc5_67_0_split_2
I0411 07:43:21.355983 29399 net.cpp:150] Setting up fc5_classes_fc5_67_0_split
I0411 07:43:21.355993 29399 net.cpp:157] Top shape: 1024 67 (68608)
I0411 07:43:21.356000 29399 net.cpp:157] Top shape: 1024 67 (68608)
I0411 07:43:21.356007 29399 net.cpp:157] Top shape: 1024 67 (68608)
I0411 07:43:21.356010 29399 net.cpp:165] Memory required for data: 4107812864
I0411 07:43:21.356016 29399 layer_factory.hpp:77] Creating layer loss
I0411 07:43:21.356026 29399 net.cpp:100] Creating Layer loss
I0411 07:43:21.356032 29399 net.cpp:434] loss <- fc5_classes_fc5_67_0_split_0
I0411 07:43:21.356043 29399 net.cpp:434] loss <- label_data_1_split_0
I0411 07:43:21.356053 29399 net.cpp:408] loss -> loss
…
