…
I0411 02:05:36.295691  4082 net.cpp:322] The NetState phase (0) differed from the phase (1) specified by a rule in layer accuracy_5
I0411 02:05:36.295848  4082 net.cpp:58] Initializing net from parameters: 
state {
  phase: TRAIN
  level: 0
  stage: ""
}
layer {
  name: "data"
  type: "Data"
  top: "data"
  top: "label"
  include {
    phase: TRAIN
  }
  transform_param {
    scale: 0.0039215689
    mirror: false
    crop_size: 48
    mean_value: 132
    mean_value: 132
    mean_value: 131
  }
  data_param {
    source: "../local_data/lmdb/rtsd-r1/CoNorm/train/lmdb"
    batch_size: 1024
    backend: LMDB
  }
}
layer {
  name: "conv1"
  type: "Convolution"
  bottom: "data"
  top: "conv1"
  convolution_param {
    num_output: 100
    pad: 0
    kernel_size: 7
    group: 1
    stride: 1
    weight_filler {
      type: "xavier"
    }
  }
}
layer {
  name: "conv1_prescale"
  type: "Scale"
  bottom: "conv1"
  top: "conv1"
  param {
    lr_mult: 0
    decay_mult: 0
  }
  scale_param {
    filler {
      value: 0.6666
    }
    bias_term: false
  }
}
layer {
  name: "conv1_sTanH"
  type: "TanH"
  bottom: "conv1"
  top: "conv1"
}
layer {
  name: "conv1_postscale"
  type: "Scale"
  bottom: "conv1"
  top: "conv1"
  param {
    lr_mult: 0
    decay_mult: 0
  }
  scale_param {
    filler {
      value: 1.7159
    }
    bias_term: false
  }
}
layer {
  name: "pool1"
  type: "Pooling"
  bottom: "conv1"
  top: "pool1"
  pooling_param {
    pool: MAX
    kernel_size: 2
    stride: 2
  }
}
layer {
  name: "conv2"
  type: "Convolution"
  bottom: "pool1"
  top: "conv2"
  convolution_param {
    num_output: 150
    pad: 0
    kernel_size: 4
    group: 1
    stride: 1
    weight_filler {
      type: "xavier"
    }
  }
}
layer {
  name: "conv2_prescale"
  type: "Scale"
  bottom: "conv2"
  top: "conv2"
  param {
    lr_mult: 0
    decay_mult: 0
  }
  scale_param {
    filler {
      value: 0.6666
    }
    bias_term: false
  }
}
layer {
  name: "conv2_sTanH"
  type: "TanH"
  bottom: "conv2"
  top: "conv2"
}
layer {
  name: "conv2_postscale"
  type: "Scale"
  bottom: "conv2"
  top: "conv2"
  param {
    lr_mult: 0
    decay_mult: 0
  }
  scale_param {
    filler {
      value: 1.7159
    }
    bias_term: false
  }
}
layer {
  name: "pool2"
  type: "Pooling"
  bottom: "conv2"
  top: "pool2"
  pooling_param {
    pool: MAX
    kernel_size: 2
    stride: 2
  }
}
layer {
  name: "conv3"
  type: "Convolution"
  bottom: "pool2"
  top: "conv3"
  convolution_param {
    num_output: 250
    pad: 0
    kernel_size: 4
    group: 1
    stride: 1
    weight_filler {
      type: "xavier"
    }
  }
}
layer {
  name: "conv3_prescale"
  type: "Scale"
  bottom: "conv3"
  top: "conv3"
  param {
    lr_mult: 0
    decay_mult: 0
  }
  scale_param {
    filler {
      value: 0.6666
    }
    bias_term: false
  }
}
layer {
  name: "conv3_sTanH"
  type: "TanH"
  bottom: "conv3"
  top: "conv3"
}
layer {
  name: "conv3_postscale"
  type: "Scale"
  bottom: "conv3"
  top: "conv3"
  param {
    lr_mult: 0
    decay_mult: 0
  }
  scale_param {
    filler {
      value: 1.7159
    }
    bias_term: false
  }
}
layer {
  name: "pool3"
  type: "Pooling"
  bottom: "conv3"
  top: "pool3"
  pooling_param {
    pool: MAX
    kernel_size: 2
    stride: 2
  }
}
layer {
  name: "fc4_300"
  type: "InnerProduct"
  bottom: "pool3"
  top: "fc4_300"
  inner_product_param {
    num_output: 300
    weight_filler {
      type: "xavier"
    }
  }
}
layer {
  name: "fc4_prescale"
  type: "Scale"
  bottom: "fc4_300"
  top: "fc4_300"
  param {
    lr_mult: 0
    decay_mult: 0
  }
  scale_param {
    filler {
      value: 0.6666
    }
    bias_term: false
  }
}
layer {
  name: "fc4_sTanH"
  type: "TanH"
  bottom: "fc4_300"
  top: "fc4_300"
}
layer {
  name: "fc4_postscale"
  type: "Scale"
  bottom: "fc4_300"
  top: "fc4_300"
  param {
    lr_mult: 0
    decay_mult: 0
  }
  scale_param {
    filler {
      value: 1.7159
    }
    bias_term: false
  }
}
layer {
  name: "fc5_67"
  type: "InnerProduct"
  bottom: "fc4_300"
  top: "fc5_classes"
  inner_product_param {
    num_output: 67
    weight_filler {
      type: "xavier"
    }
  }
}
layer {
  name: "loss"
  type: "SoftmaxWithLoss"
  bottom: "fc5_classes"
  bottom: "label"
  top: "loss"
}
I0411 02:05:36.295969  4082 layer_factory.hpp:77] Creating layer data
I0411 02:05:36.297343  4082 net.cpp:100] Creating Layer data
I0411 02:05:36.297359  4082 net.cpp:408] data -> data
I0411 02:05:36.297381  4082 net.cpp:408] data -> label
I0411 02:05:36.298496  4226 db_lmdb.cpp:35] Opened lmdb ../local_data/lmdb/rtsd-r1/CoNorm/train/lmdb
I0411 02:05:36.315218  4082 data_layer.cpp:41] output data size: 1024,3,48,48
I0411 02:05:36.359174  4082 net.cpp:150] Setting up data
I0411 02:05:36.359203  4082 net.cpp:157] Top shape: 1024 3 48 48 (7077888)
I0411 02:05:36.359210  4082 net.cpp:157] Top shape: 1024 (1024)
I0411 02:05:36.359212  4082 net.cpp:165] Memory required for data: 28315648
I0411 02:05:36.359222  4082 layer_factory.hpp:77] Creating layer conv1
I0411 02:05:36.359244  4082 net.cpp:100] Creating Layer conv1
I0411 02:05:36.359253  4082 net.cpp:434] conv1 <- data
I0411 02:05:36.359267  4082 net.cpp:408] conv1 -> conv1
I0411 02:05:36.638896  4082 net.cpp:150] Setting up conv1
I0411 02:05:36.638924  4082 net.cpp:157] Top shape: 1024 100 42 42 (180633600)
I0411 02:05:36.638928  4082 net.cpp:165] Memory required for data: 750850048
I0411 02:05:36.638950  4082 layer_factory.hpp:77] Creating layer conv1_prescale
I0411 02:05:36.638965  4082 net.cpp:100] Creating Layer conv1_prescale
I0411 02:05:36.638970  4082 net.cpp:434] conv1_prescale <- conv1
I0411 02:05:36.638977  4082 net.cpp:395] conv1_prescale -> conv1 (in-place)
I0411 02:05:36.639083  4082 net.cpp:150] Setting up conv1_prescale
I0411 02:05:36.639093  4082 net.cpp:157] Top shape: 1024 100 42 42 (180633600)
I0411 02:05:36.639096  4082 net.cpp:165] Memory required for data: 1473384448
I0411 02:05:36.639102  4082 layer_factory.hpp:77] Creating layer conv1_sTanH
I0411 02:05:36.639109  4082 net.cpp:100] Creating Layer conv1_sTanH
I0411 02:05:36.639114  4082 net.cpp:434] conv1_sTanH <- conv1
I0411 02:05:36.639119  4082 net.cpp:395] conv1_sTanH -> conv1 (in-place)
I0411 02:05:36.639314  4082 net.cpp:150] Setting up conv1_sTanH
I0411 02:05:36.639327  4082 net.cpp:157] Top shape: 1024 100 42 42 (180633600)
I0411 02:05:36.639331  4082 net.cpp:165] Memory required for data: 2195918848
I0411 02:05:36.639334  4082 layer_factory.hpp:77] Creating layer conv1_postscale
I0411 02:05:36.639343  4082 net.cpp:100] Creating Layer conv1_postscale
I0411 02:05:36.639348  4082 net.cpp:434] conv1_postscale <- conv1
I0411 02:05:36.639353  4082 net.cpp:395] conv1_postscale -> conv1 (in-place)
I0411 02:05:36.639444  4082 net.cpp:150] Setting up conv1_postscale
I0411 02:05:36.639453  4082 net.cpp:157] Top shape: 1024 100 42 42 (180633600)
I0411 02:05:36.639456  4082 net.cpp:165] Memory required for data: 2918453248
I0411 02:05:36.639461  4082 layer_factory.hpp:77] Creating layer pool1
I0411 02:05:36.639468  4082 net.cpp:100] Creating Layer pool1
I0411 02:05:36.639472  4082 net.cpp:434] pool1 <- conv1
I0411 02:05:36.639477  4082 net.cpp:408] pool1 -> pool1
I0411 02:05:36.639523  4082 net.cpp:150] Setting up pool1
I0411 02:05:36.639531  4082 net.cpp:157] Top shape: 1024 100 21 21 (45158400)
I0411 02:05:36.639551  4082 net.cpp:165] Memory required for data: 3099086848
I0411 02:05:36.639555  4082 layer_factory.hpp:77] Creating layer conv2
I0411 02:05:36.639565  4082 net.cpp:100] Creating Layer conv2
I0411 02:05:36.639570  4082 net.cpp:434] conv2 <- pool1
I0411 02:05:36.639575  4082 net.cpp:408] conv2 -> conv2
I0411 02:05:36.646644  4082 net.cpp:150] Setting up conv2
I0411 02:05:36.646662  4082 net.cpp:157] Top shape: 1024 150 18 18 (49766400)
I0411 02:05:36.646667  4082 net.cpp:165] Memory required for data: 3298152448
I0411 02:05:36.646678  4082 layer_factory.hpp:77] Creating layer conv2_prescale
I0411 02:05:36.646687  4082 net.cpp:100] Creating Layer conv2_prescale
I0411 02:05:36.646692  4082 net.cpp:434] conv2_prescale <- conv2
I0411 02:05:36.646697  4082 net.cpp:395] conv2_prescale -> conv2 (in-place)
I0411 02:05:36.646802  4082 net.cpp:150] Setting up conv2_prescale
I0411 02:05:36.646811  4082 net.cpp:157] Top shape: 1024 150 18 18 (49766400)
I0411 02:05:36.646813  4082 net.cpp:165] Memory required for data: 3497218048
I0411 02:05:36.646818  4082 layer_factory.hpp:77] Creating layer conv2_sTanH
I0411 02:05:36.646826  4082 net.cpp:100] Creating Layer conv2_sTanH
I0411 02:05:36.646831  4082 net.cpp:434] conv2_sTanH <- conv2
I0411 02:05:36.646834  4082 net.cpp:395] conv2_sTanH -> conv2 (in-place)
I0411 02:05:36.649391  4082 net.cpp:150] Setting up conv2_sTanH
I0411 02:05:36.649408  4082 net.cpp:157] Top shape: 1024 150 18 18 (49766400)
I0411 02:05:36.649413  4082 net.cpp:165] Memory required for data: 3696283648
I0411 02:05:36.649416  4082 layer_factory.hpp:77] Creating layer conv2_postscale
I0411 02:05:36.649425  4082 net.cpp:100] Creating Layer conv2_postscale
I0411 02:05:36.649430  4082 net.cpp:434] conv2_postscale <- conv2
I0411 02:05:36.649435  4082 net.cpp:395] conv2_postscale -> conv2 (in-place)
I0411 02:05:36.649528  4082 net.cpp:150] Setting up conv2_postscale
I0411 02:05:36.649538  4082 net.cpp:157] Top shape: 1024 150 18 18 (49766400)
I0411 02:05:36.649540  4082 net.cpp:165] Memory required for data: 3895349248
I0411 02:05:36.649545  4082 layer_factory.hpp:77] Creating layer pool2
I0411 02:05:36.649552  4082 net.cpp:100] Creating Layer pool2
I0411 02:05:36.649559  4082 net.cpp:434] pool2 <- conv2
I0411 02:05:36.649562  4082 net.cpp:408] pool2 -> pool2
I0411 02:05:36.649600  4082 net.cpp:150] Setting up pool2
I0411 02:05:36.649608  4082 net.cpp:157] Top shape: 1024 150 9 9 (12441600)
I0411 02:05:36.649610  4082 net.cpp:165] Memory required for data: 3945115648
I0411 02:05:36.649613  4082 layer_factory.hpp:77] Creating layer conv3
I0411 02:05:36.649621  4082 net.cpp:100] Creating Layer conv3
I0411 02:05:36.649626  4082 net.cpp:434] conv3 <- pool2
I0411 02:05:36.649631  4082 net.cpp:408] conv3 -> conv3
I0411 02:05:36.655318  4082 net.cpp:150] Setting up conv3
I0411 02:05:36.655338  4082 net.cpp:157] Top shape: 1024 250 6 6 (9216000)
I0411 02:05:36.655342  4082 net.cpp:165] Memory required for data: 3981979648
I0411 02:05:36.655352  4082 layer_factory.hpp:77] Creating layer conv3_prescale
I0411 02:05:36.655361  4082 net.cpp:100] Creating Layer conv3_prescale
I0411 02:05:36.655366  4082 net.cpp:434] conv3_prescale <- conv3
I0411 02:05:36.655371  4082 net.cpp:395] conv3_prescale -> conv3 (in-place)
I0411 02:05:36.655464  4082 net.cpp:150] Setting up conv3_prescale
I0411 02:05:36.655473  4082 net.cpp:157] Top shape: 1024 250 6 6 (9216000)
I0411 02:05:36.655477  4082 net.cpp:165] Memory required for data: 4018843648
I0411 02:05:36.655480  4082 layer_factory.hpp:77] Creating layer conv3_sTanH
I0411 02:05:36.655485  4082 net.cpp:100] Creating Layer conv3_sTanH
I0411 02:05:36.655489  4082 net.cpp:434] conv3_sTanH <- conv3
I0411 02:05:36.655494  4082 net.cpp:395] conv3_sTanH -> conv3 (in-place)
I0411 02:05:36.656406  4082 net.cpp:150] Setting up conv3_sTanH
I0411 02:05:36.656424  4082 net.cpp:157] Top shape: 1024 250 6 6 (9216000)
I0411 02:05:36.656427  4082 net.cpp:165] Memory required for data: 4055707648
I0411 02:05:36.656431  4082 layer_factory.hpp:77] Creating layer conv3_postscale
I0411 02:05:36.656453  4082 net.cpp:100] Creating Layer conv3_postscale
I0411 02:05:36.656457  4082 net.cpp:434] conv3_postscale <- conv3
I0411 02:05:36.656463  4082 net.cpp:395] conv3_postscale -> conv3 (in-place)
I0411 02:05:36.656561  4082 net.cpp:150] Setting up conv3_postscale
I0411 02:05:36.656571  4082 net.cpp:157] Top shape: 1024 250 6 6 (9216000)
I0411 02:05:36.656574  4082 net.cpp:165] Memory required for data: 4092571648
I0411 02:05:36.656579  4082 layer_factory.hpp:77] Creating layer pool3
I0411 02:05:36.656586  4082 net.cpp:100] Creating Layer pool3
I0411 02:05:36.656589  4082 net.cpp:434] pool3 <- conv3
I0411 02:05:36.656594  4082 net.cpp:408] pool3 -> pool3
I0411 02:05:36.656633  4082 net.cpp:150] Setting up pool3
I0411 02:05:36.656641  4082 net.cpp:157] Top shape: 1024 250 3 3 (2304000)
I0411 02:05:36.656643  4082 net.cpp:165] Memory required for data: 4101787648
I0411 02:05:36.656646  4082 layer_factory.hpp:77] Creating layer fc4_300
I0411 02:05:36.656654  4082 net.cpp:100] Creating Layer fc4_300
I0411 02:05:36.656658  4082 net.cpp:434] fc4_300 <- pool3
I0411 02:05:36.656664  4082 net.cpp:408] fc4_300 -> fc4_300
I0411 02:05:36.662165  4082 net.cpp:150] Setting up fc4_300
I0411 02:05:36.662183  4082 net.cpp:157] Top shape: 1024 300 (307200)
I0411 02:05:36.662185  4082 net.cpp:165] Memory required for data: 4103016448
I0411 02:05:36.662192  4082 layer_factory.hpp:77] Creating layer fc4_prescale
I0411 02:05:36.662199  4082 net.cpp:100] Creating Layer fc4_prescale
I0411 02:05:36.662202  4082 net.cpp:434] fc4_prescale <- fc4_300
I0411 02:05:36.662207  4082 net.cpp:395] fc4_prescale -> fc4_300 (in-place)
I0411 02:05:36.662293  4082 net.cpp:150] Setting up fc4_prescale
I0411 02:05:36.662302  4082 net.cpp:157] Top shape: 1024 300 (307200)
I0411 02:05:36.662304  4082 net.cpp:165] Memory required for data: 4104245248
I0411 02:05:36.662309  4082 layer_factory.hpp:77] Creating layer fc4_sTanH
I0411 02:05:36.662314  4082 net.cpp:100] Creating Layer fc4_sTanH
I0411 02:05:36.662317  4082 net.cpp:434] fc4_sTanH <- fc4_300
I0411 02:05:36.662322  4082 net.cpp:395] fc4_sTanH -> fc4_300 (in-place)
I0411 02:05:36.662505  4082 net.cpp:150] Setting up fc4_sTanH
I0411 02:05:36.662518  4082 net.cpp:157] Top shape: 1024 300 (307200)
I0411 02:05:36.662520  4082 net.cpp:165] Memory required for data: 4105474048
I0411 02:05:36.662523  4082 layer_factory.hpp:77] Creating layer fc4_postscale
I0411 02:05:36.662530  4082 net.cpp:100] Creating Layer fc4_postscale
I0411 02:05:36.662533  4082 net.cpp:434] fc4_postscale <- fc4_300
I0411 02:05:36.662539  4082 net.cpp:395] fc4_postscale -> fc4_300 (in-place)
I0411 02:05:36.662629  4082 net.cpp:150] Setting up fc4_postscale
I0411 02:05:36.662637  4082 net.cpp:157] Top shape: 1024 300 (307200)
I0411 02:05:36.662641  4082 net.cpp:165] Memory required for data: 4106702848
I0411 02:05:36.662644  4082 layer_factory.hpp:77] Creating layer fc5_67
I0411 02:05:36.662650  4082 net.cpp:100] Creating Layer fc5_67
I0411 02:05:36.662653  4082 net.cpp:434] fc5_67 <- fc4_300
I0411 02:05:36.662658  4082 net.cpp:408] fc5_67 -> fc5_classes
I0411 02:05:36.664129  4082 net.cpp:150] Setting up fc5_67
I0411 02:05:36.664145  4082 net.cpp:157] Top shape: 1024 67 (68608)
I0411 02:05:36.664149  4082 net.cpp:165] Memory required for data: 4106977280
I0411 02:05:36.664160  4082 layer_factory.hpp:77] Creating layer loss
I0411 02:05:36.664170  4082 net.cpp:100] Creating Layer loss
I0411 02:05:36.664175  4082 net.cpp:434] loss <- fc5_classes
I0411 02:05:36.664178  4082 net.cpp:434] loss <- label
I0411 02:05:36.664185  4082 net.cpp:408] loss -> loss
I0411 02:05:36.664198  4082 layer_factory.hpp:77] Creating layer loss
…
I0411 02:05:36.664924  4082 solver.cpp:193] Creating test net (#0) specified by test_net file: ./Prototxt/experiment_8/rtsd-r1/CoNorm/trial_3/test.prototxt
I0411 02:05:36.665104  4082 net.cpp:58] Initializing net from parameters: 
state {
  phase: TEST
}
layer {
  name: "data"
  type: "Data"
  top: "data"
  top: "label"
  include {
    phase: TEST
  }
  transform_param {
    scale: 0.0039215689
    mirror: false
    crop_size: 48
    mean_value: 133
    mean_value: 133
    mean_value: 132
  }
  data_param {
    source: "../local_data/lmdb/rtsd-r1/CoNorm/test/lmdb"
    batch_size: 1024
    backend: LMDB
  }
}
layer {
  name: "conv1"
  type: "Convolution"
  bottom: "data"
  top: "conv1"
  convolution_param {
    num_output: 100
    pad: 0
    kernel_size: 7
    group: 1
    stride: 1
    weight_filler {
      type: "xavier"
    }
  }
}
layer {
  name: "conv1_prescale"
  type: "Scale"
  bottom: "conv1"
  top: "conv1"
  param {
    lr_mult: 0
    decay_mult: 0
  }
  scale_param {
    filler {
      value: 0.6666
    }
    bias_term: false
  }
}
layer {
  name: "conv1_sTanH"
  type: "TanH"
  bottom: "conv1"
  top: "conv1"
}
layer {
  name: "conv1_postscale"
  type: "Scale"
  bottom: "conv1"
  top: "conv1"
  param {
    lr_mult: 0
    decay_mult: 0
  }
  scale_param {
    filler {
      value: 1.7159
    }
    bias_term: false
  }
}
layer {
  name: "pool1"
  type: "Pooling"
  bottom: "conv1"
  top: "pool1"
  pooling_param {
    pool: MAX
    kernel_size: 2
    stride: 2
  }
}
layer {
  name: "conv2"
  type: "Convolution"
  bottom: "pool1"
  top: "conv2"
  convolution_param {
    num_output: 150
    pad: 0
    kernel_size: 4
    group: 1
    stride: 1
    weight_filler {
      type: "xavier"
    }
  }
}
layer {
  name: "conv2_prescale"
  type: "Scale"
  bottom: "conv2"
  top: "conv2"
  param {
    lr_mult: 0
    decay_mult: 0
  }
  scale_param {
    filler {
      value: 0.6666
    }
    bias_term: false
  }
}
layer {
  name: "conv2_sTanH"
  type: "TanH"
  bottom: "conv2"
  top: "conv2"
}
layer {
  name: "conv2_postscale"
  type: "Scale"
  bottom: "conv2"
  top: "conv2"
  param {
    lr_mult: 0
    decay_mult: 0
  }
  scale_param {
    filler {
      value: 1.7159
    }
    bias_term: false
  }
}
layer {
  name: "pool2"
  type: "Pooling"
  bottom: "conv2"
  top: "pool2"
  pooling_param {
    pool: MAX
    kernel_size: 2
    stride: 2
  }
}
layer {
  name: "conv3"
  type: "Convolution"
  bottom: "pool2"
  top: "conv3"
  convolution_param {
    num_output: 250
    pad: 0
    kernel_size: 4
    group: 1
    stride: 1
    weight_filler {
      type: "xavier"
    }
  }
}
layer {
  name: "conv3_prescale"
  type: "Scale"
  bottom: "conv3"
  top: "conv3"
  param {
    lr_mult: 0
    decay_mult: 0
  }
  scale_param {
    filler {
      value: 0.6666
    }
    bias_term: false
  }
}
layer {
  name: "conv3_sTanH"
  type: "TanH"
  bottom: "conv3"
  top: "conv3"
}
layer {
  name: "conv3_postscale"
  type: "Scale"
  bottom: "conv3"
  top: "conv3"
  param {
    lr_mult: 0
    decay_mult: 0
  }
  scale_param {
    filler {
      value: 1.7159
    }
    bias_term: false
  }
}
layer {
  name: "pool3"
  type: "Pooling"
  bottom: "conv3"
  top: "pool3"
  pooling_param {
    pool: MAX
    kernel_size: 2
    stride: 2
  }
}
layer {
  name: "fc4_300"
  type: "InnerProduct"
  bottom: "pool3"
  top: "fc4_300"
  inner_product_param {
    num_output: 300
    weight_filler {
      type: "xavier"
    }
  }
}
layer {
  name: "fc4_prescale"
  type: "Scale"
  bottom: "fc4_300"
  top: "fc4_300"
  param {
    lr_mult: 0
    decay_mult: 0
  }
  scale_param {
    filler {
      value: 0.6666
    }
    bias_term: false
  }
}
layer {
  name: "fc4_sTanH"
  type: "TanH"
  bottom: "fc4_300"
  top: "fc4_300"
}
layer {
  name: "fc4_postscale"
  type: "Scale"
  bottom: "fc4_300"
  top: "fc4_300"
  param {
    lr_mult: 0
    decay_mult: 0
  }
  scale_param {
    filler {
      value: 1.7159
    }
    bias_term: false
  }
}
layer {
  name: "fc5_67"
  type: "InnerProduct"
  bottom: "fc4_300"
  top: "fc5_classes"
  inner_product_param {
    num_output: 67
    weight_filler {
      type: "xavier"
    }
  }
}
layer {
  name: "loss"
  type: "SoftmaxWithLoss"
  bottom: "fc5_classes"
  bottom: "label"
  top: "loss"
}
layer {
  name: "accuracy_1"
  type: "Accuracy"
  bottom: "fc5_classes"
  bottom: "label"
  top: "accuracy_1"
  include {
    phase: TEST
  }
  accuracy_param {
    top_k: 1
  }
}
layer {
  name: "accuracy_5"
  type: "Accuracy"
  bottom: "fc5_classes"
  bottom: "label"
  top: "accuracy_5"
  include {
    phase: TEST
  }
  accuracy_param {
    top_k: 5
  }
}
I0411 02:05:36.665212  4082 layer_factory.hpp:77] Creating layer data
I0411 02:05:36.665824  4082 net.cpp:100] Creating Layer data
I0411 02:05:36.665844  4082 net.cpp:408] data -> data
I0411 02:05:36.665855  4082 net.cpp:408] data -> label
I0411 02:05:36.669605  4264 db_lmdb.cpp:35] Opened lmdb ../local_data/lmdb/rtsd-r1/CoNorm/test/lmdb
I0411 02:05:36.669739  4082 data_layer.cpp:41] output data size: 1024,3,48,48
I0411 02:05:36.719271  4082 net.cpp:150] Setting up data
I0411 02:05:36.719314  4082 net.cpp:157] Top shape: 1024 3 48 48 (7077888)
I0411 02:05:36.719321  4082 net.cpp:157] Top shape: 1024 (1024)
I0411 02:05:36.719322  4082 net.cpp:165] Memory required for data: 28315648
I0411 02:05:36.719329  4082 layer_factory.hpp:77] Creating layer label_data_1_split
I0411 02:05:36.719344  4082 net.cpp:100] Creating Layer label_data_1_split
I0411 02:05:36.719348  4082 net.cpp:434] label_data_1_split <- label
I0411 02:05:36.719355  4082 net.cpp:408] label_data_1_split -> label_data_1_split_0
I0411 02:05:36.719367  4082 net.cpp:408] label_data_1_split -> label_data_1_split_1
I0411 02:05:36.719375  4082 net.cpp:408] label_data_1_split -> label_data_1_split_2
I0411 02:05:36.719467  4082 net.cpp:150] Setting up label_data_1_split
I0411 02:05:36.719476  4082 net.cpp:157] Top shape: 1024 (1024)
I0411 02:05:36.719480  4082 net.cpp:157] Top shape: 1024 (1024)
I0411 02:05:36.719483  4082 net.cpp:157] Top shape: 1024 (1024)
I0411 02:05:36.719485  4082 net.cpp:165] Memory required for data: 28327936
I0411 02:05:36.719488  4082 layer_factory.hpp:77] Creating layer conv1
I0411 02:05:36.719503  4082 net.cpp:100] Creating Layer conv1
I0411 02:05:36.719508  4082 net.cpp:434] conv1 <- data
I0411 02:05:36.719514  4082 net.cpp:408] conv1 -> conv1
I0411 02:05:36.726038  4082 net.cpp:150] Setting up conv1
I0411 02:05:36.726055  4082 net.cpp:157] Top shape: 1024 100 42 42 (180633600)
I0411 02:05:36.726079  4082 net.cpp:165] Memory required for data: 750862336
I0411 02:05:36.726094  4082 layer_factory.hpp:77] Creating layer conv1_prescale
I0411 02:05:36.726106  4082 net.cpp:100] Creating Layer conv1_prescale
I0411 02:05:36.726111  4082 net.cpp:434] conv1_prescale <- conv1
I0411 02:05:36.726119  4082 net.cpp:395] conv1_prescale -> conv1 (in-place)
I0411 02:05:36.726231  4082 net.cpp:150] Setting up conv1_prescale
I0411 02:05:36.726240  4082 net.cpp:157] Top shape: 1024 100 42 42 (180633600)
I0411 02:05:36.726243  4082 net.cpp:165] Memory required for data: 1473396736
I0411 02:05:36.726250  4082 layer_factory.hpp:77] Creating layer conv1_sTanH
I0411 02:05:36.726258  4082 net.cpp:100] Creating Layer conv1_sTanH
I0411 02:05:36.726263  4082 net.cpp:434] conv1_sTanH <- conv1
I0411 02:05:36.726270  4082 net.cpp:395] conv1_sTanH -> conv1 (in-place)
I0411 02:05:36.726467  4082 net.cpp:150] Setting up conv1_sTanH
I0411 02:05:36.726478  4082 net.cpp:157] Top shape: 1024 100 42 42 (180633600)
I0411 02:05:36.726483  4082 net.cpp:165] Memory required for data: 2195931136
I0411 02:05:36.726487  4082 layer_factory.hpp:77] Creating layer conv1_postscale
I0411 02:05:36.726495  4082 net.cpp:100] Creating Layer conv1_postscale
I0411 02:05:36.726500  4082 net.cpp:434] conv1_postscale <- conv1
I0411 02:05:36.726518  4082 net.cpp:395] conv1_postscale -> conv1 (in-place)
I0411 02:05:36.728837  4082 net.cpp:150] Setting up conv1_postscale
I0411 02:05:36.728857  4082 net.cpp:157] Top shape: 1024 100 42 42 (180633600)
I0411 02:05:36.728863  4082 net.cpp:165] Memory required for data: 2918465536
I0411 02:05:36.728869  4082 layer_factory.hpp:77] Creating layer pool1
I0411 02:05:36.728880  4082 net.cpp:100] Creating Layer pool1
I0411 02:05:36.728888  4082 net.cpp:434] pool1 <- conv1
I0411 02:05:36.728893  4082 net.cpp:408] pool1 -> pool1
I0411 02:05:36.728945  4082 net.cpp:150] Setting up pool1
I0411 02:05:36.728953  4082 net.cpp:157] Top shape: 1024 100 21 21 (45158400)
I0411 02:05:36.728957  4082 net.cpp:165] Memory required for data: 3099099136
I0411 02:05:36.728960  4082 layer_factory.hpp:77] Creating layer conv2
I0411 02:05:36.728971  4082 net.cpp:100] Creating Layer conv2
I0411 02:05:36.728979  4082 net.cpp:434] conv2 <- pool1
I0411 02:05:36.728986  4082 net.cpp:408] conv2 -> conv2
I0411 02:05:36.732894  4082 net.cpp:150] Setting up conv2
I0411 02:05:36.732915  4082 net.cpp:157] Top shape: 1024 150 18 18 (49766400)
I0411 02:05:36.732920  4082 net.cpp:165] Memory required for data: 3298164736
I0411 02:05:36.732930  4082 layer_factory.hpp:77] Creating layer conv2_prescale
I0411 02:05:36.732944  4082 net.cpp:100] Creating Layer conv2_prescale
I0411 02:05:36.732949  4082 net.cpp:434] conv2_prescale <- conv2
I0411 02:05:36.732954  4082 net.cpp:395] conv2_prescale -> conv2 (in-place)
I0411 02:05:36.733070  4082 net.cpp:150] Setting up conv2_prescale
I0411 02:05:36.733079  4082 net.cpp:157] Top shape: 1024 150 18 18 (49766400)
I0411 02:05:36.733083  4082 net.cpp:165] Memory required for data: 3497230336
I0411 02:05:36.733088  4082 layer_factory.hpp:77] Creating layer conv2_sTanH
I0411 02:05:36.733094  4082 net.cpp:100] Creating Layer conv2_sTanH
I0411 02:05:36.733098  4082 net.cpp:434] conv2_sTanH <- conv2
I0411 02:05:36.733103  4082 net.cpp:395] conv2_sTanH -> conv2 (in-place)
I0411 02:05:36.733896  4082 net.cpp:150] Setting up conv2_sTanH
I0411 02:05:36.733923  4082 net.cpp:157] Top shape: 1024 150 18 18 (49766400)
I0411 02:05:36.733932  4082 net.cpp:165] Memory required for data: 3696295936
I0411 02:05:36.733935  4082 layer_factory.hpp:77] Creating layer conv2_postscale
I0411 02:05:36.733942  4082 net.cpp:100] Creating Layer conv2_postscale
I0411 02:05:36.733947  4082 net.cpp:434] conv2_postscale <- conv2
I0411 02:05:36.733954  4082 net.cpp:395] conv2_postscale -> conv2 (in-place)
I0411 02:05:36.734064  4082 net.cpp:150] Setting up conv2_postscale
I0411 02:05:36.734076  4082 net.cpp:157] Top shape: 1024 150 18 18 (49766400)
I0411 02:05:36.734081  4082 net.cpp:165] Memory required for data: 3895361536
I0411 02:05:36.734100  4082 layer_factory.hpp:77] Creating layer pool2
I0411 02:05:36.734112  4082 net.cpp:100] Creating Layer pool2
I0411 02:05:36.734117  4082 net.cpp:434] pool2 <- conv2
I0411 02:05:36.734122  4082 net.cpp:408] pool2 -> pool2
I0411 02:05:36.734172  4082 net.cpp:150] Setting up pool2
I0411 02:05:36.734180  4082 net.cpp:157] Top shape: 1024 150 9 9 (12441600)
I0411 02:05:36.734184  4082 net.cpp:165] Memory required for data: 3945127936
I0411 02:05:36.734186  4082 layer_factory.hpp:77] Creating layer conv3
I0411 02:05:36.734195  4082 net.cpp:100] Creating Layer conv3
I0411 02:05:36.734201  4082 net.cpp:434] conv3 <- pool2
I0411 02:05:36.734207  4082 net.cpp:408] conv3 -> conv3
I0411 02:05:36.739790  4082 net.cpp:150] Setting up conv3
I0411 02:05:36.739811  4082 net.cpp:157] Top shape: 1024 250 6 6 (9216000)
I0411 02:05:36.739816  4082 net.cpp:165] Memory required for data: 3981991936
I0411 02:05:36.739828  4082 layer_factory.hpp:77] Creating layer conv3_prescale
I0411 02:05:36.739838  4082 net.cpp:100] Creating Layer conv3_prescale
I0411 02:05:36.739845  4082 net.cpp:434] conv3_prescale <- conv3
I0411 02:05:36.739850  4082 net.cpp:395] conv3_prescale -> conv3 (in-place)
I0411 02:05:36.739970  4082 net.cpp:150] Setting up conv3_prescale
I0411 02:05:36.739981  4082 net.cpp:157] Top shape: 1024 250 6 6 (9216000)
I0411 02:05:36.739985  4082 net.cpp:165] Memory required for data: 4018855936
I0411 02:05:36.739991  4082 layer_factory.hpp:77] Creating layer conv3_sTanH
I0411 02:05:36.740000  4082 net.cpp:100] Creating Layer conv3_sTanH
I0411 02:05:36.740005  4082 net.cpp:434] conv3_sTanH <- conv3
I0411 02:05:36.740010  4082 net.cpp:395] conv3_sTanH -> conv3 (in-place)
I0411 02:05:36.740787  4082 net.cpp:150] Setting up conv3_sTanH
I0411 02:05:36.740803  4082 net.cpp:157] Top shape: 1024 250 6 6 (9216000)
I0411 02:05:36.740808  4082 net.cpp:165] Memory required for data: 4055719936
I0411 02:05:36.740813  4082 layer_factory.hpp:77] Creating layer conv3_postscale
I0411 02:05:36.740819  4082 net.cpp:100] Creating Layer conv3_postscale
I0411 02:05:36.740824  4082 net.cpp:434] conv3_postscale <- conv3
I0411 02:05:36.740833  4082 net.cpp:395] conv3_postscale -> conv3 (in-place)
I0411 02:05:36.740943  4082 net.cpp:150] Setting up conv3_postscale
I0411 02:05:36.740955  4082 net.cpp:157] Top shape: 1024 250 6 6 (9216000)
I0411 02:05:36.740960  4082 net.cpp:165] Memory required for data: 4092583936
I0411 02:05:36.740965  4082 layer_factory.hpp:77] Creating layer pool3
I0411 02:05:36.740975  4082 net.cpp:100] Creating Layer pool3
I0411 02:05:36.740980  4082 net.cpp:434] pool3 <- conv3
I0411 02:05:36.740986  4082 net.cpp:408] pool3 -> pool3
I0411 02:05:36.741031  4082 net.cpp:150] Setting up pool3
I0411 02:05:36.741041  4082 net.cpp:157] Top shape: 1024 250 3 3 (2304000)
I0411 02:05:36.741044  4082 net.cpp:165] Memory required for data: 4101799936
I0411 02:05:36.741047  4082 layer_factory.hpp:77] Creating layer fc4_300
I0411 02:05:36.741053  4082 net.cpp:100] Creating Layer fc4_300
I0411 02:05:36.741058  4082 net.cpp:434] fc4_300 <- pool3
I0411 02:05:36.741065  4082 net.cpp:408] fc4_300 -> fc4_300
I0411 02:05:36.746424  4082 net.cpp:150] Setting up fc4_300
I0411 02:05:36.746441  4082 net.cpp:157] Top shape: 1024 300 (307200)
I0411 02:05:36.746445  4082 net.cpp:165] Memory required for data: 4103028736
I0411 02:05:36.746451  4082 layer_factory.hpp:77] Creating layer fc4_prescale
I0411 02:05:36.746464  4082 net.cpp:100] Creating Layer fc4_prescale
I0411 02:05:36.746469  4082 net.cpp:434] fc4_prescale <- fc4_300
I0411 02:05:36.746475  4082 net.cpp:395] fc4_prescale -> fc4_300 (in-place)
I0411 02:05:36.746575  4082 net.cpp:150] Setting up fc4_prescale
I0411 02:05:36.746584  4082 net.cpp:157] Top shape: 1024 300 (307200)
I0411 02:05:36.746587  4082 net.cpp:165] Memory required for data: 4104257536
I0411 02:05:36.746592  4082 layer_factory.hpp:77] Creating layer fc4_sTanH
I0411 02:05:36.746601  4082 net.cpp:100] Creating Layer fc4_sTanH
I0411 02:05:36.746605  4082 net.cpp:434] fc4_sTanH <- fc4_300
I0411 02:05:36.746610  4082 net.cpp:395] fc4_sTanH -> fc4_300 (in-place)
I0411 02:05:36.746822  4082 net.cpp:150] Setting up fc4_sTanH
I0411 02:05:36.746834  4082 net.cpp:157] Top shape: 1024 300 (307200)
I0411 02:05:36.746840  4082 net.cpp:165] Memory required for data: 4105486336
I0411 02:05:36.746842  4082 layer_factory.hpp:77] Creating layer fc4_postscale
I0411 02:05:36.746850  4082 net.cpp:100] Creating Layer fc4_postscale
I0411 02:05:36.746855  4082 net.cpp:434] fc4_postscale <- fc4_300
I0411 02:05:36.746862  4082 net.cpp:395] fc4_postscale -> fc4_300 (in-place)
I0411 02:05:36.746966  4082 net.cpp:150] Setting up fc4_postscale
I0411 02:05:36.746974  4082 net.cpp:157] Top shape: 1024 300 (307200)
I0411 02:05:36.746978  4082 net.cpp:165] Memory required for data: 4106715136
I0411 02:05:36.746983  4082 layer_factory.hpp:77] Creating layer fc5_67
I0411 02:05:36.746989  4082 net.cpp:100] Creating Layer fc5_67
I0411 02:05:36.746994  4082 net.cpp:434] fc5_67 <- fc4_300
I0411 02:05:36.746999  4082 net.cpp:408] fc5_67 -> fc5_classes
I0411 02:05:36.747251  4082 net.cpp:150] Setting up fc5_67
I0411 02:05:36.747259  4082 net.cpp:157] Top shape: 1024 67 (68608)
I0411 02:05:36.747262  4082 net.cpp:165] Memory required for data: 4106989568
I0411 02:05:36.747272  4082 layer_factory.hpp:77] Creating layer fc5_classes_fc5_67_0_split
I0411 02:05:36.747280  4082 net.cpp:100] Creating Layer fc5_classes_fc5_67_0_split
I0411 02:05:36.747284  4082 net.cpp:434] fc5_classes_fc5_67_0_split <- fc5_classes
I0411 02:05:36.747292  4082 net.cpp:408] fc5_classes_fc5_67_0_split -> fc5_classes_fc5_67_0_split_0
I0411 02:05:36.747299  4082 net.cpp:408] fc5_classes_fc5_67_0_split -> fc5_classes_fc5_67_0_split_1
I0411 02:05:36.747308  4082 net.cpp:408] fc5_classes_fc5_67_0_split -> fc5_classes_fc5_67_0_split_2
I0411 02:05:36.747364  4082 net.cpp:150] Setting up fc5_classes_fc5_67_0_split
I0411 02:05:36.747370  4082 net.cpp:157] Top shape: 1024 67 (68608)
I0411 02:05:36.747373  4082 net.cpp:157] Top shape: 1024 67 (68608)
I0411 02:05:36.747376  4082 net.cpp:157] Top shape: 1024 67 (68608)
I0411 02:05:36.747380  4082 net.cpp:165] Memory required for data: 4107812864
I0411 02:05:36.747383  4082 layer_factory.hpp:77] Creating layer loss
I0411 02:05:36.747390  4082 net.cpp:100] Creating Layer loss
I0411 02:05:36.747395  4082 net.cpp:434] loss <- fc5_classes_fc5_67_0_split_0
I0411 02:05:36.747398  4082 net.cpp:434] loss <- label_data_1_split_0
I0411 02:05:36.747404  4082 net.cpp:408] loss -> loss
…
