…
I0411 07:07:47.756173 23650 net.cpp:322] The NetState phase (0) differed from the phase (1) specified by a rule in layer accuracy_5
I0411 07:07:47.756350 23650 net.cpp:58] Initializing net from parameters: 
state {
  phase: TRAIN
  level: 0
  stage: ""
}
layer {
  name: "data"
  type: "Data"
  top: "data"
  top: "label"
  include {
    phase: TRAIN
  }
  transform_param {
    scale: 0.0039215689
    mirror: false
    crop_size: 48
    mean_value: 130
    mean_value: 123
    mean_value: 137
  }
  data_param {
    source: "../local_data/lmdb/rtsd-r1/histeq/train/lmdb"
    batch_size: 1024
    backend: LMDB
  }
}
layer {
  name: "conv1"
  type: "Convolution"
  bottom: "data"
  top: "conv1"
  convolution_param {
    num_output: 100
    pad: 0
    kernel_size: 7
    group: 1
    stride: 1
    weight_filler {
      type: "xavier"
    }
  }
}
layer {
  name: "conv1_prescale"
  type: "Scale"
  bottom: "conv1"
  top: "conv1"
  param {
    lr_mult: 0
    decay_mult: 0
  }
  scale_param {
    filler {
      value: 0.6666
    }
    bias_term: false
  }
}
layer {
  name: "conv1_sTanH"
  type: "TanH"
  bottom: "conv1"
  top: "conv1"
}
layer {
  name: "conv1_postscale"
  type: "Scale"
  bottom: "conv1"
  top: "conv1"
  param {
    lr_mult: 0
    decay_mult: 0
  }
  scale_param {
    filler {
      value: 1.7159
    }
    bias_term: false
  }
}
layer {
  name: "pool1"
  type: "Pooling"
  bottom: "conv1"
  top: "pool1"
  pooling_param {
    pool: MAX
    kernel_size: 2
    stride: 2
  }
}
layer {
  name: "conv2"
  type: "Convolution"
  bottom: "pool1"
  top: "conv2"
  convolution_param {
    num_output: 150
    pad: 0
    kernel_size: 4
    group: 1
    stride: 1
    weight_filler {
      type: "xavier"
    }
  }
}
layer {
  name: "conv2_prescale"
  type: "Scale"
  bottom: "conv2"
  top: "conv2"
  param {
    lr_mult: 0
    decay_mult: 0
  }
  scale_param {
    filler {
      value: 0.6666
    }
    bias_term: false
  }
}
layer {
  name: "conv2_sTanH"
  type: "TanH"
  bottom: "conv2"
  top: "conv2"
}
layer {
  name: "conv2_postscale"
  type: "Scale"
  bottom: "conv2"
  top: "conv2"
  param {
    lr_mult: 0
    decay_mult: 0
  }
  scale_param {
    filler {
      value: 1.7159
    }
    bias_term: false
  }
}
layer {
  name: "pool2"
  type: "Pooling"
  bottom: "conv2"
  top: "pool2"
  pooling_param {
    pool: MAX
    kernel_size: 2
    stride: 2
  }
}
layer {
  name: "conv3"
  type: "Convolution"
  bottom: "pool2"
  top: "conv3"
  convolution_param {
    num_output: 250
    pad: 0
    kernel_size: 4
    group: 1
    stride: 1
    weight_filler {
      type: "xavier"
    }
  }
}
layer {
  name: "conv3_prescale"
  type: "Scale"
  bottom: "conv3"
  top: "conv3"
  param {
    lr_mult: 0
    decay_mult: 0
  }
  scale_param {
    filler {
      value: 0.6666
    }
    bias_term: false
  }
}
layer {
  name: "conv3_sTanH"
  type: "TanH"
  bottom: "conv3"
  top: "conv3"
}
layer {
  name: "conv3_postscale"
  type: "Scale"
  bottom: "conv3"
  top: "conv3"
  param {
    lr_mult: 0
    decay_mult: 0
  }
  scale_param {
    filler {
      value: 1.7159
    }
    bias_term: false
  }
}
layer {
  name: "pool3"
  type: "Pooling"
  bottom: "conv3"
  top: "pool3"
  pooling_param {
    pool: MAX
    kernel_size: 2
    stride: 2
  }
}
layer {
  name: "fc4_300"
  type: "InnerProduct"
  bottom: "pool3"
  top: "fc4_300"
  inner_product_param {
    num_output: 300
    weight_filler {
      type: "xavier"
    }
  }
}
layer {
  name: "fc4_prescale"
  type: "Scale"
  bottom: "fc4_300"
  top: "fc4_300"
  param {
    lr_mult: 0
    decay_mult: 0
  }
  scale_param {
    filler {
      value: 0.6666
    }
    bias_term: false
  }
}
layer {
  name: "fc4_sTanH"
  type: "TanH"
  bottom: "fc4_300"
  top: "fc4_300"
}
layer {
  name: "fc4_postscale"
  type: "Scale"
  bottom: "fc4_300"
  top: "fc4_300"
  param {
    lr_mult: 0
    decay_mult: 0
  }
  scale_param {
    filler {
      value: 1.7159
    }
    bias_term: false
  }
}
layer {
  name: "fc5_67"
  type: "InnerProduct"
  bottom: "fc4_300"
  top: "fc5_classes"
  inner_product_param {
    num_output: 67
    weight_filler {
      type: "xavier"
    }
  }
}
layer {
  name: "loss"
  type: "SoftmaxWithLoss"
  bottom: "fc5_classes"
  bottom: "label"
  top: "loss"
}
I0411 07:07:47.756477 23650 layer_factory.hpp:77] Creating layer data
I0411 07:07:47.757742 23650 net.cpp:100] Creating Layer data
I0411 07:07:47.757760 23650 net.cpp:408] data -> data
I0411 07:07:47.757786 23650 net.cpp:408] data -> label
I0411 07:07:47.759021 23753 db_lmdb.cpp:35] Opened lmdb ../local_data/lmdb/rtsd-r1/histeq/train/lmdb
I0411 07:07:47.780051 23650 data_layer.cpp:41] output data size: 1024,3,48,48
I0411 07:07:47.825776 23650 net.cpp:150] Setting up data
I0411 07:07:47.825810 23650 net.cpp:157] Top shape: 1024 3 48 48 (7077888)
I0411 07:07:47.825817 23650 net.cpp:157] Top shape: 1024 (1024)
I0411 07:07:47.825821 23650 net.cpp:165] Memory required for data: 28315648
I0411 07:07:47.825832 23650 layer_factory.hpp:77] Creating layer conv1
I0411 07:07:47.825857 23650 net.cpp:100] Creating Layer conv1
I0411 07:07:47.825867 23650 net.cpp:434] conv1 <- data
I0411 07:07:47.825881 23650 net.cpp:408] conv1 -> conv1
I0411 07:07:48.176795 23650 net.cpp:150] Setting up conv1
I0411 07:07:48.176827 23650 net.cpp:157] Top shape: 1024 100 42 42 (180633600)
I0411 07:07:48.176833 23650 net.cpp:165] Memory required for data: 750850048
I0411 07:07:48.176859 23650 layer_factory.hpp:77] Creating layer conv1_prescale
I0411 07:07:48.176875 23650 net.cpp:100] Creating Layer conv1_prescale
I0411 07:07:48.176882 23650 net.cpp:434] conv1_prescale <- conv1
I0411 07:07:48.176889 23650 net.cpp:395] conv1_prescale -> conv1 (in-place)
I0411 07:07:48.177021 23650 net.cpp:150] Setting up conv1_prescale
I0411 07:07:48.177032 23650 net.cpp:157] Top shape: 1024 100 42 42 (180633600)
I0411 07:07:48.177037 23650 net.cpp:165] Memory required for data: 1473384448
I0411 07:07:48.177045 23650 layer_factory.hpp:77] Creating layer conv1_sTanH
I0411 07:07:48.177054 23650 net.cpp:100] Creating Layer conv1_sTanH
I0411 07:07:48.177059 23650 net.cpp:434] conv1_sTanH <- conv1
I0411 07:07:48.177064 23650 net.cpp:395] conv1_sTanH -> conv1 (in-place)
I0411 07:07:48.177300 23650 net.cpp:150] Setting up conv1_sTanH
I0411 07:07:48.177314 23650 net.cpp:157] Top shape: 1024 100 42 42 (180633600)
I0411 07:07:48.177320 23650 net.cpp:165] Memory required for data: 2195918848
I0411 07:07:48.177323 23650 layer_factory.hpp:77] Creating layer conv1_postscale
I0411 07:07:48.177333 23650 net.cpp:100] Creating Layer conv1_postscale
I0411 07:07:48.177340 23650 net.cpp:434] conv1_postscale <- conv1
I0411 07:07:48.177345 23650 net.cpp:395] conv1_postscale -> conv1 (in-place)
I0411 07:07:48.177462 23650 net.cpp:150] Setting up conv1_postscale
I0411 07:07:48.177472 23650 net.cpp:157] Top shape: 1024 100 42 42 (180633600)
I0411 07:07:48.177477 23650 net.cpp:165] Memory required for data: 2918453248
I0411 07:07:48.177484 23650 layer_factory.hpp:77] Creating layer pool1
I0411 07:07:48.177491 23650 net.cpp:100] Creating Layer pool1
I0411 07:07:48.177496 23650 net.cpp:434] pool1 <- conv1
I0411 07:07:48.177502 23650 net.cpp:408] pool1 -> pool1
I0411 07:07:48.177557 23650 net.cpp:150] Setting up pool1
I0411 07:07:48.177567 23650 net.cpp:157] Top shape: 1024 100 21 21 (45158400)
I0411 07:07:48.177592 23650 net.cpp:165] Memory required for data: 3099086848
I0411 07:07:48.177597 23650 layer_factory.hpp:77] Creating layer conv2
I0411 07:07:48.177608 23650 net.cpp:100] Creating Layer conv2
I0411 07:07:48.177613 23650 net.cpp:434] conv2 <- pool1
I0411 07:07:48.177619 23650 net.cpp:408] conv2 -> conv2
I0411 07:07:48.182870 23650 net.cpp:150] Setting up conv2
I0411 07:07:48.182890 23650 net.cpp:157] Top shape: 1024 150 18 18 (49766400)
I0411 07:07:48.182898 23650 net.cpp:165] Memory required for data: 3298152448
I0411 07:07:48.182916 23650 layer_factory.hpp:77] Creating layer conv2_prescale
I0411 07:07:48.182927 23650 net.cpp:100] Creating Layer conv2_prescale
I0411 07:07:48.182932 23650 net.cpp:434] conv2_prescale <- conv2
I0411 07:07:48.182940 23650 net.cpp:395] conv2_prescale -> conv2 (in-place)
I0411 07:07:48.183066 23650 net.cpp:150] Setting up conv2_prescale
I0411 07:07:48.183078 23650 net.cpp:157] Top shape: 1024 150 18 18 (49766400)
I0411 07:07:48.183082 23650 net.cpp:165] Memory required for data: 3497218048
I0411 07:07:48.183089 23650 layer_factory.hpp:77] Creating layer conv2_sTanH
I0411 07:07:48.183096 23650 net.cpp:100] Creating Layer conv2_sTanH
I0411 07:07:48.183101 23650 net.cpp:434] conv2_sTanH <- conv2
I0411 07:07:48.183106 23650 net.cpp:395] conv2_sTanH -> conv2 (in-place)
I0411 07:07:48.184150 23650 net.cpp:150] Setting up conv2_sTanH
I0411 07:07:48.184170 23650 net.cpp:157] Top shape: 1024 150 18 18 (49766400)
I0411 07:07:48.184175 23650 net.cpp:165] Memory required for data: 3696283648
I0411 07:07:48.184180 23650 layer_factory.hpp:77] Creating layer conv2_postscale
I0411 07:07:48.184188 23650 net.cpp:100] Creating Layer conv2_postscale
I0411 07:07:48.184193 23650 net.cpp:434] conv2_postscale <- conv2
I0411 07:07:48.184201 23650 net.cpp:395] conv2_postscale -> conv2 (in-place)
I0411 07:07:48.184319 23650 net.cpp:150] Setting up conv2_postscale
I0411 07:07:48.184329 23650 net.cpp:157] Top shape: 1024 150 18 18 (49766400)
I0411 07:07:48.184334 23650 net.cpp:165] Memory required for data: 3895349248
I0411 07:07:48.184340 23650 layer_factory.hpp:77] Creating layer pool2
I0411 07:07:48.184347 23650 net.cpp:100] Creating Layer pool2
I0411 07:07:48.184352 23650 net.cpp:434] pool2 <- conv2
I0411 07:07:48.184357 23650 net.cpp:408] pool2 -> pool2
I0411 07:07:48.184406 23650 net.cpp:150] Setting up pool2
I0411 07:07:48.184414 23650 net.cpp:157] Top shape: 1024 150 9 9 (12441600)
I0411 07:07:48.184419 23650 net.cpp:165] Memory required for data: 3945115648
I0411 07:07:48.184423 23650 layer_factory.hpp:77] Creating layer conv3
I0411 07:07:48.184433 23650 net.cpp:100] Creating Layer conv3
I0411 07:07:48.184438 23650 net.cpp:434] conv3 <- pool2
I0411 07:07:48.184444 23650 net.cpp:408] conv3 -> conv3
I0411 07:07:48.191280 23650 net.cpp:150] Setting up conv3
I0411 07:07:48.191301 23650 net.cpp:157] Top shape: 1024 250 6 6 (9216000)
I0411 07:07:48.191308 23650 net.cpp:165] Memory required for data: 3981979648
I0411 07:07:48.191320 23650 layer_factory.hpp:77] Creating layer conv3_prescale
I0411 07:07:48.191330 23650 net.cpp:100] Creating Layer conv3_prescale
I0411 07:07:48.191336 23650 net.cpp:434] conv3_prescale <- conv3
I0411 07:07:48.191342 23650 net.cpp:395] conv3_prescale -> conv3 (in-place)
I0411 07:07:48.191457 23650 net.cpp:150] Setting up conv3_prescale
I0411 07:07:48.191467 23650 net.cpp:157] Top shape: 1024 250 6 6 (9216000)
I0411 07:07:48.191471 23650 net.cpp:165] Memory required for data: 4018843648
I0411 07:07:48.191476 23650 layer_factory.hpp:77] Creating layer conv3_sTanH
I0411 07:07:48.191483 23650 net.cpp:100] Creating Layer conv3_sTanH
I0411 07:07:48.191488 23650 net.cpp:434] conv3_sTanH <- conv3
I0411 07:07:48.191493 23650 net.cpp:395] conv3_sTanH -> conv3 (in-place)
I0411 07:07:48.193519 23650 net.cpp:150] Setting up conv3_sTanH
I0411 07:07:48.193538 23650 net.cpp:157] Top shape: 1024 250 6 6 (9216000)
I0411 07:07:48.193544 23650 net.cpp:165] Memory required for data: 4055707648
I0411 07:07:48.193549 23650 layer_factory.hpp:77] Creating layer conv3_postscale
I0411 07:07:48.193578 23650 net.cpp:100] Creating Layer conv3_postscale
I0411 07:07:48.193583 23650 net.cpp:434] conv3_postscale <- conv3
I0411 07:07:48.193589 23650 net.cpp:395] conv3_postscale -> conv3 (in-place)
I0411 07:07:48.193709 23650 net.cpp:150] Setting up conv3_postscale
I0411 07:07:48.193719 23650 net.cpp:157] Top shape: 1024 250 6 6 (9216000)
I0411 07:07:48.193725 23650 net.cpp:165] Memory required for data: 4092571648
I0411 07:07:48.193732 23650 layer_factory.hpp:77] Creating layer pool3
I0411 07:07:48.193738 23650 net.cpp:100] Creating Layer pool3
I0411 07:07:48.193744 23650 net.cpp:434] pool3 <- conv3
I0411 07:07:48.193749 23650 net.cpp:408] pool3 -> pool3
I0411 07:07:48.193794 23650 net.cpp:150] Setting up pool3
I0411 07:07:48.193802 23650 net.cpp:157] Top shape: 1024 250 3 3 (2304000)
I0411 07:07:48.193806 23650 net.cpp:165] Memory required for data: 4101787648
I0411 07:07:48.193810 23650 layer_factory.hpp:77] Creating layer fc4_300
I0411 07:07:48.193819 23650 net.cpp:100] Creating Layer fc4_300
I0411 07:07:48.193825 23650 net.cpp:434] fc4_300 <- pool3
I0411 07:07:48.193831 23650 net.cpp:408] fc4_300 -> fc4_300
I0411 07:07:48.200500 23650 net.cpp:150] Setting up fc4_300
I0411 07:07:48.200518 23650 net.cpp:157] Top shape: 1024 300 (307200)
I0411 07:07:48.200522 23650 net.cpp:165] Memory required for data: 4103016448
I0411 07:07:48.200531 23650 layer_factory.hpp:77] Creating layer fc4_prescale
I0411 07:07:48.200539 23650 net.cpp:100] Creating Layer fc4_prescale
I0411 07:07:48.200543 23650 net.cpp:434] fc4_prescale <- fc4_300
I0411 07:07:48.200549 23650 net.cpp:395] fc4_prescale -> fc4_300 (in-place)
I0411 07:07:48.200662 23650 net.cpp:150] Setting up fc4_prescale
I0411 07:07:48.200672 23650 net.cpp:157] Top shape: 1024 300 (307200)
I0411 07:07:48.200676 23650 net.cpp:165] Memory required for data: 4104245248
I0411 07:07:48.200681 23650 layer_factory.hpp:77] Creating layer fc4_sTanH
I0411 07:07:48.200690 23650 net.cpp:100] Creating Layer fc4_sTanH
I0411 07:07:48.200692 23650 net.cpp:434] fc4_sTanH <- fc4_300
I0411 07:07:48.200698 23650 net.cpp:395] fc4_sTanH -> fc4_300 (in-place)
I0411 07:07:48.200922 23650 net.cpp:150] Setting up fc4_sTanH
I0411 07:07:48.200937 23650 net.cpp:157] Top shape: 1024 300 (307200)
I0411 07:07:48.200942 23650 net.cpp:165] Memory required for data: 4105474048
I0411 07:07:48.200945 23650 layer_factory.hpp:77] Creating layer fc4_postscale
I0411 07:07:48.200953 23650 net.cpp:100] Creating Layer fc4_postscale
I0411 07:07:48.200959 23650 net.cpp:434] fc4_postscale <- fc4_300
I0411 07:07:48.200965 23650 net.cpp:395] fc4_postscale -> fc4_300 (in-place)
I0411 07:07:48.201077 23650 net.cpp:150] Setting up fc4_postscale
I0411 07:07:48.201087 23650 net.cpp:157] Top shape: 1024 300 (307200)
I0411 07:07:48.201092 23650 net.cpp:165] Memory required for data: 4106702848
I0411 07:07:48.201097 23650 layer_factory.hpp:77] Creating layer fc5_67
I0411 07:07:48.201105 23650 net.cpp:100] Creating Layer fc5_67
I0411 07:07:48.201110 23650 net.cpp:434] fc5_67 <- fc4_300
I0411 07:07:48.201117 23650 net.cpp:408] fc5_67 -> fc5_classes
I0411 07:07:48.203372 23650 net.cpp:150] Setting up fc5_67
I0411 07:07:48.203388 23650 net.cpp:157] Top shape: 1024 67 (68608)
I0411 07:07:48.203394 23650 net.cpp:165] Memory required for data: 4106977280
I0411 07:07:48.203413 23650 layer_factory.hpp:77] Creating layer loss
I0411 07:07:48.203423 23650 net.cpp:100] Creating Layer loss
I0411 07:07:48.203428 23650 net.cpp:434] loss <- fc5_classes
I0411 07:07:48.203433 23650 net.cpp:434] loss <- label
I0411 07:07:48.203439 23650 net.cpp:408] loss -> loss
I0411 07:07:48.203455 23650 layer_factory.hpp:77] Creating layer loss
…
I0411 07:07:48.204349 23650 solver.cpp:193] Creating test net (#0) specified by test_net file: ./Prototxt/experiment_8/rtsd-r1/histeq/trial_5/test.prototxt
I0411 07:07:48.204565 23650 net.cpp:58] Initializing net from parameters: 
state {
  phase: TEST
}
layer {
  name: "data"
  type: "Data"
  top: "data"
  top: "label"
  include {
    phase: TEST
  }
  transform_param {
    scale: 0.0039215689
    mirror: false
    crop_size: 48
    mean_value: 124
    mean_value: 121
    mean_value: 142
  }
  data_param {
    source: "../local_data/lmdb/rtsd-r1/histeq/test/lmdb"
    batch_size: 1024
    backend: LMDB
  }
}
layer {
  name: "conv1"
  type: "Convolution"
  bottom: "data"
  top: "conv1"
  convolution_param {
    num_output: 100
    pad: 0
    kernel_size: 7
    group: 1
    stride: 1
    weight_filler {
      type: "xavier"
    }
  }
}
layer {
  name: "conv1_prescale"
  type: "Scale"
  bottom: "conv1"
  top: "conv1"
  param {
    lr_mult: 0
    decay_mult: 0
  }
  scale_param {
    filler {
      value: 0.6666
    }
    bias_term: false
  }
}
layer {
  name: "conv1_sTanH"
  type: "TanH"
  bottom: "conv1"
  top: "conv1"
}
layer {
  name: "conv1_postscale"
  type: "Scale"
  bottom: "conv1"
  top: "conv1"
  param {
    lr_mult: 0
    decay_mult: 0
  }
  scale_param {
    filler {
      value: 1.7159
    }
    bias_term: false
  }
}
layer {
  name: "pool1"
  type: "Pooling"
  bottom: "conv1"
  top: "pool1"
  pooling_param {
    pool: MAX
    kernel_size: 2
    stride: 2
  }
}
layer {
  name: "conv2"
  type: "Convolution"
  bottom: "pool1"
  top: "conv2"
  convolution_param {
    num_output: 150
    pad: 0
    kernel_size: 4
    group: 1
    stride: 1
    weight_filler {
      type: "xavier"
    }
  }
}
layer {
  name: "conv2_prescale"
  type: "Scale"
  bottom: "conv2"
  top: "conv2"
  param {
    lr_mult: 0
    decay_mult: 0
  }
  scale_param {
    filler {
      value: 0.6666
    }
    bias_term: false
  }
}
layer {
  name: "conv2_sTanH"
  type: "TanH"
  bottom: "conv2"
  top: "conv2"
}
layer {
  name: "conv2_postscale"
  type: "Scale"
  bottom: "conv2"
  top: "conv2"
  param {
    lr_mult: 0
    decay_mult: 0
  }
  scale_param {
    filler {
      value: 1.7159
    }
    bias_term: false
  }
}
layer {
  name: "pool2"
  type: "Pooling"
  bottom: "conv2"
  top: "pool2"
  pooling_param {
    pool: MAX
    kernel_size: 2
    stride: 2
  }
}
layer {
  name: "conv3"
  type: "Convolution"
  bottom: "pool2"
  top: "conv3"
  convolution_param {
    num_output: 250
    pad: 0
    kernel_size: 4
    group: 1
    stride: 1
    weight_filler {
      type: "xavier"
    }
  }
}
layer {
  name: "conv3_prescale"
  type: "Scale"
  bottom: "conv3"
  top: "conv3"
  param {
    lr_mult: 0
    decay_mult: 0
  }
  scale_param {
    filler {
      value: 0.6666
    }
    bias_term: false
  }
}
layer {
  name: "conv3_sTanH"
  type: "TanH"
  bottom: "conv3"
  top: "conv3"
}
layer {
  name: "conv3_postscale"
  type: "Scale"
  bottom: "conv3"
  top: "conv3"
  param {
    lr_mult: 0
    decay_mult: 0
  }
  scale_param {
    filler {
      value: 1.7159
    }
    bias_term: false
  }
}
layer {
  name: "pool3"
  type: "Pooling"
  bottom: "conv3"
  top: "pool3"
  pooling_param {
    pool: MAX
    kernel_size: 2
    stride: 2
  }
}
layer {
  name: "fc4_300"
  type: "InnerProduct"
  bottom: "pool3"
  top: "fc4_300"
  inner_product_param {
    num_output: 300
    weight_filler {
      type: "xavier"
    }
  }
}
layer {
  name: "fc4_prescale"
  type: "Scale"
  bottom: "fc4_300"
  top: "fc4_300"
  param {
    lr_mult: 0
    decay_mult: 0
  }
  scale_param {
    filler {
      value: 0.6666
    }
    bias_term: false
  }
}
layer {
  name: "fc4_sTanH"
  type: "TanH"
  bottom: "fc4_300"
  top: "fc4_300"
}
layer {
  name: "fc4_postscale"
  type: "Scale"
  bottom: "fc4_300"
  top: "fc4_300"
  param {
    lr_mult: 0
    decay_mult: 0
  }
  scale_param {
    filler {
      value: 1.7159
    }
    bias_term: false
  }
}
layer {
  name: "fc5_67"
  type: "InnerProduct"
  bottom: "fc4_300"
  top: "fc5_classes"
  inner_product_param {
    num_output: 67
    weight_filler {
      type: "xavier"
    }
  }
}
layer {
  name: "loss"
  type: "SoftmaxWithLoss"
  bottom: "fc5_classes"
  bottom: "label"
  top: "loss"
}
layer {
  name: "accuracy_1"
  type: "Accuracy"
  bottom: "fc5_classes"
  bottom: "label"
  top: "accuracy_1"
  include {
    phase: TEST
  }
  accuracy_param {
    top_k: 1
  }
}
layer {
  name: "accuracy_5"
  type: "Accuracy"
  bottom: "fc5_classes"
  bottom: "label"
  top: "accuracy_5"
  include {
    phase: TEST
  }
  accuracy_param {
    top_k: 5
  }
}
I0411 07:07:48.204695 23650 layer_factory.hpp:77] Creating layer data
I0411 07:07:48.205605 23650 net.cpp:100] Creating Layer data
I0411 07:07:48.205617 23650 net.cpp:408] data -> data
I0411 07:07:48.205628 23650 net.cpp:408] data -> label
I0411 07:07:48.221644 23791 db_lmdb.cpp:35] Opened lmdb ../local_data/lmdb/rtsd-r1/histeq/test/lmdb
I0411 07:07:48.221829 23650 data_layer.cpp:41] output data size: 1024,3,48,48
I0411 07:07:48.270514 23650 net.cpp:150] Setting up data
I0411 07:07:48.270550 23650 net.cpp:157] Top shape: 1024 3 48 48 (7077888)
I0411 07:07:48.270557 23650 net.cpp:157] Top shape: 1024 (1024)
I0411 07:07:48.270561 23650 net.cpp:165] Memory required for data: 28315648
I0411 07:07:48.270568 23650 layer_factory.hpp:77] Creating layer label_data_1_split
I0411 07:07:48.270583 23650 net.cpp:100] Creating Layer label_data_1_split
I0411 07:07:48.270588 23650 net.cpp:434] label_data_1_split <- label
I0411 07:07:48.270597 23650 net.cpp:408] label_data_1_split -> label_data_1_split_0
I0411 07:07:48.270609 23650 net.cpp:408] label_data_1_split -> label_data_1_split_1
I0411 07:07:48.270620 23650 net.cpp:408] label_data_1_split -> label_data_1_split_2
I0411 07:07:48.270789 23650 net.cpp:150] Setting up label_data_1_split
I0411 07:07:48.270800 23650 net.cpp:157] Top shape: 1024 (1024)
I0411 07:07:48.270804 23650 net.cpp:157] Top shape: 1024 (1024)
I0411 07:07:48.270809 23650 net.cpp:157] Top shape: 1024 (1024)
I0411 07:07:48.270812 23650 net.cpp:165] Memory required for data: 28327936
I0411 07:07:48.270817 23650 layer_factory.hpp:77] Creating layer conv1
I0411 07:07:48.270833 23650 net.cpp:100] Creating Layer conv1
I0411 07:07:48.270838 23650 net.cpp:434] conv1 <- data
I0411 07:07:48.270845 23650 net.cpp:408] conv1 -> conv1
I0411 07:07:48.272914 23650 net.cpp:150] Setting up conv1
I0411 07:07:48.272935 23650 net.cpp:157] Top shape: 1024 100 42 42 (180633600)
I0411 07:07:48.272964 23650 net.cpp:165] Memory required for data: 750862336
I0411 07:07:48.272979 23650 layer_factory.hpp:77] Creating layer conv1_prescale
I0411 07:07:48.273002 23650 net.cpp:100] Creating Layer conv1_prescale
I0411 07:07:48.273007 23650 net.cpp:434] conv1_prescale <- conv1
I0411 07:07:48.273015 23650 net.cpp:395] conv1_prescale -> conv1 (in-place)
I0411 07:07:48.275326 23650 net.cpp:150] Setting up conv1_prescale
I0411 07:07:48.275339 23650 net.cpp:157] Top shape: 1024 100 42 42 (180633600)
I0411 07:07:48.275344 23650 net.cpp:165] Memory required for data: 1473396736
I0411 07:07:48.275354 23650 layer_factory.hpp:77] Creating layer conv1_sTanH
I0411 07:07:48.275363 23650 net.cpp:100] Creating Layer conv1_sTanH
I0411 07:07:48.275367 23650 net.cpp:434] conv1_sTanH <- conv1
I0411 07:07:48.275373 23650 net.cpp:395] conv1_sTanH -> conv1 (in-place)
I0411 07:07:48.275611 23650 net.cpp:150] Setting up conv1_sTanH
I0411 07:07:48.275625 23650 net.cpp:157] Top shape: 1024 100 42 42 (180633600)
I0411 07:07:48.275629 23650 net.cpp:165] Memory required for data: 2195931136
I0411 07:07:48.275634 23650 layer_factory.hpp:77] Creating layer conv1_postscale
I0411 07:07:48.275643 23650 net.cpp:100] Creating Layer conv1_postscale
I0411 07:07:48.275647 23650 net.cpp:434] conv1_postscale <- conv1
I0411 07:07:48.275655 23650 net.cpp:395] conv1_postscale -> conv1 (in-place)
I0411 07:07:48.275784 23650 net.cpp:150] Setting up conv1_postscale
I0411 07:07:48.275794 23650 net.cpp:157] Top shape: 1024 100 42 42 (180633600)
I0411 07:07:48.275797 23650 net.cpp:165] Memory required for data: 2918465536
I0411 07:07:48.275804 23650 layer_factory.hpp:77] Creating layer pool1
I0411 07:07:48.275810 23650 net.cpp:100] Creating Layer pool1
I0411 07:07:48.275815 23650 net.cpp:434] pool1 <- conv1
I0411 07:07:48.275820 23650 net.cpp:408] pool1 -> pool1
I0411 07:07:48.275868 23650 net.cpp:150] Setting up pool1
I0411 07:07:48.275892 23650 net.cpp:157] Top shape: 1024 100 21 21 (45158400)
I0411 07:07:48.275897 23650 net.cpp:165] Memory required for data: 3099099136
I0411 07:07:48.275900 23650 layer_factory.hpp:77] Creating layer conv2
I0411 07:07:48.275912 23650 net.cpp:100] Creating Layer conv2
I0411 07:07:48.275915 23650 net.cpp:434] conv2 <- pool1
I0411 07:07:48.275921 23650 net.cpp:408] conv2 -> conv2
I0411 07:07:48.281729 23650 net.cpp:150] Setting up conv2
I0411 07:07:48.281754 23650 net.cpp:157] Top shape: 1024 150 18 18 (49766400)
I0411 07:07:48.281759 23650 net.cpp:165] Memory required for data: 3298164736
I0411 07:07:48.281770 23650 layer_factory.hpp:77] Creating layer conv2_prescale
I0411 07:07:48.281787 23650 net.cpp:100] Creating Layer conv2_prescale
I0411 07:07:48.281795 23650 net.cpp:434] conv2_prescale <- conv2
I0411 07:07:48.281803 23650 net.cpp:395] conv2_prescale -> conv2 (in-place)
I0411 07:07:48.281947 23650 net.cpp:150] Setting up conv2_prescale
I0411 07:07:48.281958 23650 net.cpp:157] Top shape: 1024 150 18 18 (49766400)
I0411 07:07:48.281963 23650 net.cpp:165] Memory required for data: 3497230336
I0411 07:07:48.281976 23650 layer_factory.hpp:77] Creating layer conv2_sTanH
I0411 07:07:48.281986 23650 net.cpp:100] Creating Layer conv2_sTanH
I0411 07:07:48.281991 23650 net.cpp:434] conv2_sTanH <- conv2
I0411 07:07:48.281997 23650 net.cpp:395] conv2_sTanH -> conv2 (in-place)
I0411 07:07:48.283066 23650 net.cpp:150] Setting up conv2_sTanH
I0411 07:07:48.283084 23650 net.cpp:157] Top shape: 1024 150 18 18 (49766400)
I0411 07:07:48.283090 23650 net.cpp:165] Memory required for data: 3696295936
I0411 07:07:48.283095 23650 layer_factory.hpp:77] Creating layer conv2_postscale
I0411 07:07:48.283103 23650 net.cpp:100] Creating Layer conv2_postscale
I0411 07:07:48.283107 23650 net.cpp:434] conv2_postscale <- conv2
I0411 07:07:48.283116 23650 net.cpp:395] conv2_postscale -> conv2 (in-place)
I0411 07:07:48.283246 23650 net.cpp:150] Setting up conv2_postscale
I0411 07:07:48.283257 23650 net.cpp:157] Top shape: 1024 150 18 18 (49766400)
I0411 07:07:48.283260 23650 net.cpp:165] Memory required for data: 3895361536
I0411 07:07:48.283284 23650 layer_factory.hpp:77] Creating layer pool2
I0411 07:07:48.283293 23650 net.cpp:100] Creating Layer pool2
I0411 07:07:48.283296 23650 net.cpp:434] pool2 <- conv2
I0411 07:07:48.283306 23650 net.cpp:408] pool2 -> pool2
I0411 07:07:48.283365 23650 net.cpp:150] Setting up pool2
I0411 07:07:48.283376 23650 net.cpp:157] Top shape: 1024 150 9 9 (12441600)
I0411 07:07:48.283381 23650 net.cpp:165] Memory required for data: 3945127936
I0411 07:07:48.283385 23650 layer_factory.hpp:77] Creating layer conv3
I0411 07:07:48.283396 23650 net.cpp:100] Creating Layer conv3
I0411 07:07:48.283402 23650 net.cpp:434] conv3 <- pool2
I0411 07:07:48.283409 23650 net.cpp:408] conv3 -> conv3
I0411 07:07:48.291836 23650 net.cpp:150] Setting up conv3
I0411 07:07:48.291858 23650 net.cpp:157] Top shape: 1024 250 6 6 (9216000)
I0411 07:07:48.291863 23650 net.cpp:165] Memory required for data: 3981991936
I0411 07:07:48.291877 23650 layer_factory.hpp:77] Creating layer conv3_prescale
I0411 07:07:48.291898 23650 net.cpp:100] Creating Layer conv3_prescale
I0411 07:07:48.291904 23650 net.cpp:434] conv3_prescale <- conv3
I0411 07:07:48.291911 23650 net.cpp:395] conv3_prescale -> conv3 (in-place)
I0411 07:07:48.292035 23650 net.cpp:150] Setting up conv3_prescale
I0411 07:07:48.292045 23650 net.cpp:157] Top shape: 1024 250 6 6 (9216000)
I0411 07:07:48.292049 23650 net.cpp:165] Memory required for data: 4018855936
I0411 07:07:48.292055 23650 layer_factory.hpp:77] Creating layer conv3_sTanH
I0411 07:07:48.292062 23650 net.cpp:100] Creating Layer conv3_sTanH
I0411 07:07:48.292073 23650 net.cpp:434] conv3_sTanH <- conv3
I0411 07:07:48.292080 23650 net.cpp:395] conv3_sTanH -> conv3 (in-place)
I0411 07:07:48.293186 23650 net.cpp:150] Setting up conv3_sTanH
I0411 07:07:48.293203 23650 net.cpp:157] Top shape: 1024 250 6 6 (9216000)
I0411 07:07:48.293210 23650 net.cpp:165] Memory required for data: 4055719936
I0411 07:07:48.293215 23650 layer_factory.hpp:77] Creating layer conv3_postscale
I0411 07:07:48.293231 23650 net.cpp:100] Creating Layer conv3_postscale
I0411 07:07:48.293237 23650 net.cpp:434] conv3_postscale <- conv3
I0411 07:07:48.293244 23650 net.cpp:395] conv3_postscale -> conv3 (in-place)
I0411 07:07:48.293375 23650 net.cpp:150] Setting up conv3_postscale
I0411 07:07:48.293393 23650 net.cpp:157] Top shape: 1024 250 6 6 (9216000)
I0411 07:07:48.293397 23650 net.cpp:165] Memory required for data: 4092583936
I0411 07:07:48.293403 23650 layer_factory.hpp:77] Creating layer pool3
I0411 07:07:48.293417 23650 net.cpp:100] Creating Layer pool3
I0411 07:07:48.293423 23650 net.cpp:434] pool3 <- conv3
I0411 07:07:48.293429 23650 net.cpp:408] pool3 -> pool3
I0411 07:07:48.293483 23650 net.cpp:150] Setting up pool3
I0411 07:07:48.293500 23650 net.cpp:157] Top shape: 1024 250 3 3 (2304000)
I0411 07:07:48.293503 23650 net.cpp:165] Memory required for data: 4101799936
I0411 07:07:48.293507 23650 layer_factory.hpp:77] Creating layer fc4_300
I0411 07:07:48.293517 23650 net.cpp:100] Creating Layer fc4_300
I0411 07:07:48.293522 23650 net.cpp:434] fc4_300 <- pool3
I0411 07:07:48.293529 23650 net.cpp:408] fc4_300 -> fc4_300
I0411 07:07:48.301712 23650 net.cpp:150] Setting up fc4_300
I0411 07:07:48.301730 23650 net.cpp:157] Top shape: 1024 300 (307200)
I0411 07:07:48.301734 23650 net.cpp:165] Memory required for data: 4103028736
I0411 07:07:48.301743 23650 layer_factory.hpp:77] Creating layer fc4_prescale
I0411 07:07:48.301754 23650 net.cpp:100] Creating Layer fc4_prescale
I0411 07:07:48.301760 23650 net.cpp:434] fc4_prescale <- fc4_300
I0411 07:07:48.301769 23650 net.cpp:395] fc4_prescale -> fc4_300 (in-place)
I0411 07:07:48.301882 23650 net.cpp:150] Setting up fc4_prescale
I0411 07:07:48.301892 23650 net.cpp:157] Top shape: 1024 300 (307200)
I0411 07:07:48.301898 23650 net.cpp:165] Memory required for data: 4104257536
I0411 07:07:48.301903 23650 layer_factory.hpp:77] Creating layer fc4_sTanH
I0411 07:07:48.301911 23650 net.cpp:100] Creating Layer fc4_sTanH
I0411 07:07:48.301914 23650 net.cpp:434] fc4_sTanH <- fc4_300
I0411 07:07:48.301919 23650 net.cpp:395] fc4_sTanH -> fc4_300 (in-place)
I0411 07:07:48.302172 23650 net.cpp:150] Setting up fc4_sTanH
I0411 07:07:48.302188 23650 net.cpp:157] Top shape: 1024 300 (307200)
I0411 07:07:48.302192 23650 net.cpp:165] Memory required for data: 4105486336
I0411 07:07:48.302196 23650 layer_factory.hpp:77] Creating layer fc4_postscale
I0411 07:07:48.302203 23650 net.cpp:100] Creating Layer fc4_postscale
I0411 07:07:48.302209 23650 net.cpp:434] fc4_postscale <- fc4_300
I0411 07:07:48.302218 23650 net.cpp:395] fc4_postscale -> fc4_300 (in-place)
I0411 07:07:48.302338 23650 net.cpp:150] Setting up fc4_postscale
I0411 07:07:48.302350 23650 net.cpp:157] Top shape: 1024 300 (307200)
I0411 07:07:48.302355 23650 net.cpp:165] Memory required for data: 4106715136
I0411 07:07:48.302359 23650 layer_factory.hpp:77] Creating layer fc5_67
I0411 07:07:48.302368 23650 net.cpp:100] Creating Layer fc5_67
I0411 07:07:48.302374 23650 net.cpp:434] fc5_67 <- fc4_300
I0411 07:07:48.302381 23650 net.cpp:408] fc5_67 -> fc5_classes
I0411 07:07:48.302672 23650 net.cpp:150] Setting up fc5_67
I0411 07:07:48.302683 23650 net.cpp:157] Top shape: 1024 67 (68608)
I0411 07:07:48.302690 23650 net.cpp:165] Memory required for data: 4106989568
I0411 07:07:48.302711 23650 layer_factory.hpp:77] Creating layer fc5_classes_fc5_67_0_split
I0411 07:07:48.302721 23650 net.cpp:100] Creating Layer fc5_classes_fc5_67_0_split
I0411 07:07:48.302726 23650 net.cpp:434] fc5_classes_fc5_67_0_split <- fc5_classes
I0411 07:07:48.302736 23650 net.cpp:408] fc5_classes_fc5_67_0_split -> fc5_classes_fc5_67_0_split_0
I0411 07:07:48.302745 23650 net.cpp:408] fc5_classes_fc5_67_0_split -> fc5_classes_fc5_67_0_split_1
I0411 07:07:48.302754 23650 net.cpp:408] fc5_classes_fc5_67_0_split -> fc5_classes_fc5_67_0_split_2
I0411 07:07:48.302817 23650 net.cpp:150] Setting up fc5_classes_fc5_67_0_split
I0411 07:07:48.302825 23650 net.cpp:157] Top shape: 1024 67 (68608)
I0411 07:07:48.302830 23650 net.cpp:157] Top shape: 1024 67 (68608)
I0411 07:07:48.302834 23650 net.cpp:157] Top shape: 1024 67 (68608)
I0411 07:07:48.302836 23650 net.cpp:165] Memory required for data: 4107812864
I0411 07:07:48.302839 23650 layer_factory.hpp:77] Creating layer loss
I0411 07:07:48.302846 23650 net.cpp:100] Creating Layer loss
I0411 07:07:48.302851 23650 net.cpp:434] loss <- fc5_classes_fc5_67_0_split_0
I0411 07:07:48.302857 23650 net.cpp:434] loss <- label_data_1_split_0
I0411 07:07:48.302865 23650 net.cpp:408] loss -> loss
…
