…
I0409 05:46:31.694197  6731 net.cpp:322] The NetState phase (0) differed from the phase (1) specified by a rule in layer accuracy_5
I0409 05:46:31.694371  6731 net.cpp:58] Initializing net from parameters: 
state {
  phase: TRAIN
  level: 0
  stage: ""
}
layer {
  name: "data"
  type: "Data"
  top: "data"
  top: "label"
  include {
    phase: TRAIN
  }
  transform_param {
    mirror: false
    crop_size: 48
    mean_value: 132
    mean_value: 132
    mean_value: 131
  }
  data_param {
    source: "../local_data/lmdb/rtsd-r1/CoNorm/train/lmdb"
    batch_size: 1024
    backend: LMDB
  }
}
layer {
  name: "conv1"
  type: "Convolution"
  bottom: "data"
  top: "conv1"
  convolution_param {
    num_output: 100
    pad: 0
    kernel_size: 7
    group: 1
    stride: 1
    weight_filler {
      type: "xavier"
    }
  }
}
layer {
  name: "conv1_relu"
  type: "ReLU"
  bottom: "conv1"
  top: "conv1"
}
layer {
  name: "pool1"
  type: "Pooling"
  bottom: "conv1"
  top: "pool1"
  pooling_param {
    pool: MAX
    kernel_size: 2
    stride: 2
  }
}
layer {
  name: "conv2"
  type: "Convolution"
  bottom: "pool1"
  top: "conv2"
  convolution_param {
    num_output: 150
    pad: 0
    kernel_size: 4
    group: 1
    stride: 1
    weight_filler {
      type: "xavier"
    }
  }
}
layer {
  name: "conv2_relu"
  type: "ReLU"
  bottom: "conv2"
  top: "conv2"
}
layer {
  name: "pool2"
  type: "Pooling"
  bottom: "conv2"
  top: "pool2"
  pooling_param {
    pool: MAX
    kernel_size: 2
    stride: 2
  }
}
layer {
  name: "conv3"
  type: "Convolution"
  bottom: "pool2"
  top: "conv3"
  convolution_param {
    num_output: 250
    pad: 0
    kernel_size: 4
    group: 1
    stride: 1
    weight_filler {
      type: "xavier"
    }
  }
}
layer {
  name: "conv3_relu"
  type: "ReLU"
  bottom: "conv3"
  top: "conv3"
}
layer {
  name: "pool3"
  type: "Pooling"
  bottom: "conv3"
  top: "pool3"
  pooling_param {
    pool: MAX
    kernel_size: 2
    stride: 2
  }
}
layer {
  name: "fc4_300"
  type: "InnerProduct"
  bottom: "pool3"
  top: "fc4_300"
  inner_product_param {
    num_output: 300
    weight_filler {
      type: "xavier"
    }
  }
}
layer {
  name: "fc4_relu"
  type: "ReLU"
  bottom: "fc4_300"
  top: "fc4_300"
}
layer {
  name: "drop4"
  type: "Dropout"
  bottom: "fc4_300"
  top: "fc4_300"
  dropout_param {
    dropout_ratio: 0.4
  }
}
layer {
  name: "fc5_67"
  type: "InnerProduct"
  bottom: "fc4_300"
  top: "fc5_classes"
  inner_product_param {
    num_output: 67
    weight_filler {
      type: "xavier"
    }
  }
}
layer {
  name: "loss"
  type: "SoftmaxWithLoss"
  bottom: "fc5_classes"
  bottom: "label"
  top: "loss"
}
I0409 05:46:31.694490  6731 layer_factory.hpp:77] Creating layer data
I0409 05:46:31.696462  6731 net.cpp:100] Creating Layer data
I0409 05:46:31.696485  6731 net.cpp:408] data -> data
I0409 05:46:31.696516  6731 net.cpp:408] data -> label
I0409 05:46:31.698077  6797 db_lmdb.cpp:35] Opened lmdb ../local_data/lmdb/rtsd-r1/CoNorm/train/lmdb
I0409 05:46:31.721771  6731 data_layer.cpp:41] output data size: 1024,3,48,48
I0409 05:46:31.770583  6731 net.cpp:150] Setting up data
I0409 05:46:31.770622  6731 net.cpp:157] Top shape: 1024 3 48 48 (7077888)
I0409 05:46:31.770661  6731 net.cpp:157] Top shape: 1024 (1024)
I0409 05:46:31.770665  6731 net.cpp:165] Memory required for data: 28315648
I0409 05:46:31.770678  6731 layer_factory.hpp:77] Creating layer conv1
I0409 05:46:31.770704  6731 net.cpp:100] Creating Layer conv1
I0409 05:46:31.770712  6731 net.cpp:434] conv1 <- data
I0409 05:46:31.770728  6731 net.cpp:408] conv1 -> conv1
I0409 05:46:32.085899  6731 net.cpp:150] Setting up conv1
I0409 05:46:32.085935  6731 net.cpp:157] Top shape: 1024 100 42 42 (180633600)
I0409 05:46:32.085942  6731 net.cpp:165] Memory required for data: 750850048
I0409 05:46:32.085966  6731 layer_factory.hpp:77] Creating layer conv1_relu
I0409 05:46:32.085980  6731 net.cpp:100] Creating Layer conv1_relu
I0409 05:46:32.085985  6731 net.cpp:434] conv1_relu <- conv1
I0409 05:46:32.085993  6731 net.cpp:395] conv1_relu -> conv1 (in-place)
I0409 05:46:32.086236  6731 net.cpp:150] Setting up conv1_relu
I0409 05:46:32.086251  6731 net.cpp:157] Top shape: 1024 100 42 42 (180633600)
I0409 05:46:32.086254  6731 net.cpp:165] Memory required for data: 1473384448
I0409 05:46:32.086259  6731 layer_factory.hpp:77] Creating layer pool1
I0409 05:46:32.086267  6731 net.cpp:100] Creating Layer pool1
I0409 05:46:32.086272  6731 net.cpp:434] pool1 <- conv1
I0409 05:46:32.086278  6731 net.cpp:408] pool1 -> pool1
I0409 05:46:32.086343  6731 net.cpp:150] Setting up pool1
I0409 05:46:32.086354  6731 net.cpp:157] Top shape: 1024 100 21 21 (45158400)
I0409 05:46:32.086356  6731 net.cpp:165] Memory required for data: 1654018048
I0409 05:46:32.086360  6731 layer_factory.hpp:77] Creating layer conv2
I0409 05:46:32.086374  6731 net.cpp:100] Creating Layer conv2
I0409 05:46:32.086379  6731 net.cpp:434] conv2 <- pool1
I0409 05:46:32.086385  6731 net.cpp:408] conv2 -> conv2
I0409 05:46:32.092717  6731 net.cpp:150] Setting up conv2
I0409 05:46:32.092737  6731 net.cpp:157] Top shape: 1024 150 18 18 (49766400)
I0409 05:46:32.092742  6731 net.cpp:165] Memory required for data: 1853083648
I0409 05:46:32.092754  6731 layer_factory.hpp:77] Creating layer conv2_relu
I0409 05:46:32.092762  6731 net.cpp:100] Creating Layer conv2_relu
I0409 05:46:32.092767  6731 net.cpp:434] conv2_relu <- conv2
I0409 05:46:32.092772  6731 net.cpp:395] conv2_relu -> conv2 (in-place)
I0409 05:46:32.093843  6731 net.cpp:150] Setting up conv2_relu
I0409 05:46:32.093863  6731 net.cpp:157] Top shape: 1024 150 18 18 (49766400)
I0409 05:46:32.093866  6731 net.cpp:165] Memory required for data: 2052149248
I0409 05:46:32.093871  6731 layer_factory.hpp:77] Creating layer pool2
I0409 05:46:32.093879  6731 net.cpp:100] Creating Layer pool2
I0409 05:46:32.093883  6731 net.cpp:434] pool2 <- conv2
I0409 05:46:32.093890  6731 net.cpp:408] pool2 -> pool2
I0409 05:46:32.093946  6731 net.cpp:150] Setting up pool2
I0409 05:46:32.093957  6731 net.cpp:157] Top shape: 1024 150 9 9 (12441600)
I0409 05:46:32.093961  6731 net.cpp:165] Memory required for data: 2101915648
I0409 05:46:32.093964  6731 layer_factory.hpp:77] Creating layer conv3
I0409 05:46:32.093974  6731 net.cpp:100] Creating Layer conv3
I0409 05:46:32.093978  6731 net.cpp:434] conv3 <- pool2
I0409 05:46:32.093984  6731 net.cpp:408] conv3 -> conv3
I0409 05:46:32.108242  6731 net.cpp:150] Setting up conv3
I0409 05:46:32.108264  6731 net.cpp:157] Top shape: 1024 250 6 6 (9216000)
I0409 05:46:32.108269  6731 net.cpp:165] Memory required for data: 2138779648
I0409 05:46:32.108283  6731 layer_factory.hpp:77] Creating layer conv3_relu
I0409 05:46:32.108291  6731 net.cpp:100] Creating Layer conv3_relu
I0409 05:46:32.108296  6731 net.cpp:434] conv3_relu <- conv3
I0409 05:46:32.108302  6731 net.cpp:395] conv3_relu -> conv3 (in-place)
I0409 05:46:32.110050  6731 net.cpp:150] Setting up conv3_relu
I0409 05:46:32.110074  6731 net.cpp:157] Top shape: 1024 250 6 6 (9216000)
I0409 05:46:32.110077  6731 net.cpp:165] Memory required for data: 2175643648
I0409 05:46:32.110082  6731 layer_factory.hpp:77] Creating layer pool3
I0409 05:46:32.110091  6731 net.cpp:100] Creating Layer pool3
I0409 05:46:32.110095  6731 net.cpp:434] pool3 <- conv3
I0409 05:46:32.110126  6731 net.cpp:408] pool3 -> pool3
I0409 05:46:32.110188  6731 net.cpp:150] Setting up pool3
I0409 05:46:32.110198  6731 net.cpp:157] Top shape: 1024 250 3 3 (2304000)
I0409 05:46:32.110201  6731 net.cpp:165] Memory required for data: 2184859648
I0409 05:46:32.110205  6731 layer_factory.hpp:77] Creating layer fc4_300
I0409 05:46:32.110213  6731 net.cpp:100] Creating Layer fc4_300
I0409 05:46:32.110218  6731 net.cpp:434] fc4_300 <- pool3
I0409 05:46:32.110224  6731 net.cpp:408] fc4_300 -> fc4_300
I0409 05:46:32.117048  6731 net.cpp:150] Setting up fc4_300
I0409 05:46:32.117069  6731 net.cpp:157] Top shape: 1024 300 (307200)
I0409 05:46:32.117074  6731 net.cpp:165] Memory required for data: 2186088448
I0409 05:46:32.117082  6731 layer_factory.hpp:77] Creating layer fc4_relu
I0409 05:46:32.117090  6731 net.cpp:100] Creating Layer fc4_relu
I0409 05:46:32.117094  6731 net.cpp:434] fc4_relu <- fc4_300
I0409 05:46:32.117100  6731 net.cpp:395] fc4_relu -> fc4_300 (in-place)
I0409 05:46:32.117331  6731 net.cpp:150] Setting up fc4_relu
I0409 05:46:32.117347  6731 net.cpp:157] Top shape: 1024 300 (307200)
I0409 05:46:32.117349  6731 net.cpp:165] Memory required for data: 2187317248
I0409 05:46:32.117353  6731 layer_factory.hpp:77] Creating layer drop4
I0409 05:46:32.117362  6731 net.cpp:100] Creating Layer drop4
I0409 05:46:32.117367  6731 net.cpp:434] drop4 <- fc4_300
I0409 05:46:32.117373  6731 net.cpp:395] drop4 -> fc4_300 (in-place)
I0409 05:46:32.117413  6731 net.cpp:150] Setting up drop4
I0409 05:46:32.117421  6731 net.cpp:157] Top shape: 1024 300 (307200)
I0409 05:46:32.117425  6731 net.cpp:165] Memory required for data: 2188546048
I0409 05:46:32.117429  6731 layer_factory.hpp:77] Creating layer fc5_67
I0409 05:46:32.117439  6731 net.cpp:100] Creating Layer fc5_67
I0409 05:46:32.117444  6731 net.cpp:434] fc5_67 <- fc4_300
I0409 05:46:32.117449  6731 net.cpp:408] fc5_67 -> fc5_classes
I0409 05:46:32.118880  6731 net.cpp:150] Setting up fc5_67
I0409 05:46:32.118898  6731 net.cpp:157] Top shape: 1024 67 (68608)
I0409 05:46:32.118902  6731 net.cpp:165] Memory required for data: 2188820480
I0409 05:46:32.118916  6731 layer_factory.hpp:77] Creating layer loss
I0409 05:46:32.118924  6731 net.cpp:100] Creating Layer loss
I0409 05:46:32.118928  6731 net.cpp:434] loss <- fc5_classes
I0409 05:46:32.118934  6731 net.cpp:434] loss <- label
I0409 05:46:32.118942  6731 net.cpp:408] loss -> loss
I0409 05:46:32.118955  6731 layer_factory.hpp:77] Creating layer loss
…
I0409 05:46:32.119751  6731 solver.cpp:193] Creating test net (#0) specified by test_net file: ./Prototxt/experiment_6/rtsd-r1/CoNorm/trial_5/test.prototxt
I0409 05:46:32.119938  6731 net.cpp:58] Initializing net from parameters: 
state {
  phase: TEST
}
layer {
  name: "data"
  type: "Data"
  top: "data"
  top: "label"
  include {
    phase: TEST
  }
  transform_param {
    mirror: false
    crop_size: 48
    mean_value: 133
    mean_value: 133
    mean_value: 132
  }
  data_param {
    source: "../local_data/lmdb/rtsd-r1/CoNorm/test/lmdb"
    batch_size: 1024
    backend: LMDB
  }
}
layer {
  name: "conv1"
  type: "Convolution"
  bottom: "data"
  top: "conv1"
  convolution_param {
    num_output: 100
    pad: 0
    kernel_size: 7
    group: 1
    stride: 1
    weight_filler {
      type: "xavier"
    }
  }
}
layer {
  name: "conv1_relu"
  type: "ReLU"
  bottom: "conv1"
  top: "conv1"
}
layer {
  name: "pool1"
  type: "Pooling"
  bottom: "conv1"
  top: "pool1"
  pooling_param {
    pool: MAX
    kernel_size: 2
    stride: 2
  }
}
layer {
  name: "conv2"
  type: "Convolution"
  bottom: "pool1"
  top: "conv2"
  convolution_param {
    num_output: 150
    pad: 0
    kernel_size: 4
    group: 1
    stride: 1
    weight_filler {
      type: "xavier"
    }
  }
}
layer {
  name: "conv2_relu"
  type: "ReLU"
  bottom: "conv2"
  top: "conv2"
}
layer {
  name: "pool2"
  type: "Pooling"
  bottom: "conv2"
  top: "pool2"
  pooling_param {
    pool: MAX
    kernel_size: 2
    stride: 2
  }
}
layer {
  name: "conv3"
  type: "Convolution"
  bottom: "pool2"
  top: "conv3"
  convolution_param {
    num_output: 250
    pad: 0
    kernel_size: 4
    group: 1
    stride: 1
    weight_filler {
      type: "xavier"
    }
  }
}
layer {
  name: "conv3_relu"
  type: "ReLU"
  bottom: "conv3"
  top: "conv3"
}
layer {
  name: "pool3"
  type: "Pooling"
  bottom: "conv3"
  top: "pool3"
  pooling_param {
    pool: MAX
    kernel_size: 2
    stride: 2
  }
}
layer {
  name: "fc4_300"
  type: "InnerProduct"
  bottom: "pool3"
  top: "fc4_300"
  inner_product_param {
    num_output: 300
    weight_filler {
      type: "xavier"
    }
  }
}
layer {
  name: "fc4_relu"
  type: "ReLU"
  bottom: "fc4_300"
  top: "fc4_300"
}
layer {
  name: "drop4"
  type: "Dropout"
  bottom: "fc4_300"
  top: "fc4_300"
  dropout_param {
    dropout_ratio: 0.4
  }
}
layer {
  name: "fc5_67"
  type: "InnerProduct"
  bottom: "fc4_300"
  top: "fc5_classes"
  inner_product_param {
    num_output: 67
    weight_filler {
      type: "xavier"
    }
  }
}
layer {
  name: "loss"
  type: "SoftmaxWithLoss"
  bottom: "fc5_classes"
  bottom: "label"
  top: "loss"
}
layer {
  name: "accuracy_1"
  type: "Accuracy"
  bottom: "fc5_classes"
  bottom: "label"
  top: "accuracy_1"
  include {
    phase: TEST
  }
  accuracy_param {
    top_k: 1
  }
}
layer {
  name: "accuracy_5"
  type: "Accuracy"
  bottom: "fc5_classes"
  bottom: "label"
  top: "accuracy_5"
  include {
    phase: TEST
  }
  accuracy_param {
    top_k: 5
  }
}
I0409 05:46:32.120057  6731 layer_factory.hpp:77] Creating layer data
I0409 05:46:32.120882  6731 net.cpp:100] Creating Layer data
I0409 05:46:32.120896  6731 net.cpp:408] data -> data
I0409 05:46:32.120908  6731 net.cpp:408] data -> label
I0409 05:46:32.122584  6808 db_lmdb.cpp:35] Opened lmdb ../local_data/lmdb/rtsd-r1/CoNorm/test/lmdb
I0409 05:46:32.122825  6731 data_layer.cpp:41] output data size: 1024,3,48,48
I0409 05:46:32.168962  6731 net.cpp:150] Setting up data
I0409 05:46:32.168998  6731 net.cpp:157] Top shape: 1024 3 48 48 (7077888)
I0409 05:46:32.169003  6731 net.cpp:157] Top shape: 1024 (1024)
I0409 05:46:32.169006  6731 net.cpp:165] Memory required for data: 28315648
I0409 05:46:32.169013  6731 layer_factory.hpp:77] Creating layer label_data_1_split
I0409 05:46:32.169030  6731 net.cpp:100] Creating Layer label_data_1_split
I0409 05:46:32.169035  6731 net.cpp:434] label_data_1_split <- label
I0409 05:46:32.169044  6731 net.cpp:408] label_data_1_split -> label_data_1_split_0
I0409 05:46:32.169065  6731 net.cpp:408] label_data_1_split -> label_data_1_split_1
I0409 05:46:32.169075  6731 net.cpp:408] label_data_1_split -> label_data_1_split_2
I0409 05:46:32.169245  6731 net.cpp:150] Setting up label_data_1_split
I0409 05:46:32.169257  6731 net.cpp:157] Top shape: 1024 (1024)
I0409 05:46:32.169261  6731 net.cpp:157] Top shape: 1024 (1024)
I0409 05:46:32.169266  6731 net.cpp:157] Top shape: 1024 (1024)
I0409 05:46:32.169270  6731 net.cpp:165] Memory required for data: 28327936
I0409 05:46:32.169273  6731 layer_factory.hpp:77] Creating layer conv1
I0409 05:46:32.169288  6731 net.cpp:100] Creating Layer conv1
I0409 05:46:32.169292  6731 net.cpp:434] conv1 <- data
I0409 05:46:32.169301  6731 net.cpp:408] conv1 -> conv1
I0409 05:46:32.173590  6731 net.cpp:150] Setting up conv1
I0409 05:46:32.173617  6731 net.cpp:157] Top shape: 1024 100 42 42 (180633600)
I0409 05:46:32.173622  6731 net.cpp:165] Memory required for data: 750862336
I0409 05:46:32.173637  6731 layer_factory.hpp:77] Creating layer conv1_relu
I0409 05:46:32.173647  6731 net.cpp:100] Creating Layer conv1_relu
I0409 05:46:32.173652  6731 net.cpp:434] conv1_relu <- conv1
I0409 05:46:32.173658  6731 net.cpp:395] conv1_relu -> conv1 (in-place)
I0409 05:46:32.173918  6731 net.cpp:150] Setting up conv1_relu
I0409 05:46:32.173933  6731 net.cpp:157] Top shape: 1024 100 42 42 (180633600)
I0409 05:46:32.173938  6731 net.cpp:165] Memory required for data: 1473396736
I0409 05:46:32.173941  6731 layer_factory.hpp:77] Creating layer pool1
I0409 05:46:32.173952  6731 net.cpp:100] Creating Layer pool1
I0409 05:46:32.173956  6731 net.cpp:434] pool1 <- conv1
I0409 05:46:32.173965  6731 net.cpp:408] pool1 -> pool1
I0409 05:46:32.174028  6731 net.cpp:150] Setting up pool1
I0409 05:46:32.174041  6731 net.cpp:157] Top shape: 1024 100 21 21 (45158400)
I0409 05:46:32.174044  6731 net.cpp:165] Memory required for data: 1654030336
I0409 05:46:32.174052  6731 layer_factory.hpp:77] Creating layer conv2
I0409 05:46:32.174063  6731 net.cpp:100] Creating Layer conv2
I0409 05:46:32.174068  6731 net.cpp:434] conv2 <- pool1
I0409 05:46:32.174074  6731 net.cpp:408] conv2 -> conv2
I0409 05:46:32.178867  6731 net.cpp:150] Setting up conv2
I0409 05:46:32.178889  6731 net.cpp:157] Top shape: 1024 150 18 18 (49766400)
I0409 05:46:32.178894  6731 net.cpp:165] Memory required for data: 1853095936
I0409 05:46:32.178905  6731 layer_factory.hpp:77] Creating layer conv2_relu
I0409 05:46:32.178915  6731 net.cpp:100] Creating Layer conv2_relu
I0409 05:46:32.178920  6731 net.cpp:434] conv2_relu <- conv2
I0409 05:46:32.178931  6731 net.cpp:395] conv2_relu -> conv2 (in-place)
I0409 05:46:32.179908  6731 net.cpp:150] Setting up conv2_relu
I0409 05:46:32.179934  6731 net.cpp:157] Top shape: 1024 150 18 18 (49766400)
I0409 05:46:32.179939  6731 net.cpp:165] Memory required for data: 2052161536
I0409 05:46:32.179942  6731 layer_factory.hpp:77] Creating layer pool2
I0409 05:46:32.179950  6731 net.cpp:100] Creating Layer pool2
I0409 05:46:32.179957  6731 net.cpp:434] pool2 <- conv2
I0409 05:46:32.179966  6731 net.cpp:408] pool2 -> pool2
I0409 05:46:32.180032  6731 net.cpp:150] Setting up pool2
I0409 05:46:32.180044  6731 net.cpp:157] Top shape: 1024 150 9 9 (12441600)
I0409 05:46:32.180060  6731 net.cpp:165] Memory required for data: 2101927936
I0409 05:46:32.180064  6731 layer_factory.hpp:77] Creating layer conv3
I0409 05:46:32.180078  6731 net.cpp:100] Creating Layer conv3
I0409 05:46:32.180083  6731 net.cpp:434] conv3 <- pool2
I0409 05:46:32.180089  6731 net.cpp:408] conv3 -> conv3
I0409 05:46:32.187016  6731 net.cpp:150] Setting up conv3
I0409 05:46:32.187038  6731 net.cpp:157] Top shape: 1024 250 6 6 (9216000)
I0409 05:46:32.187043  6731 net.cpp:165] Memory required for data: 2138791936
I0409 05:46:32.187057  6731 layer_factory.hpp:77] Creating layer conv3_relu
I0409 05:46:32.187067  6731 net.cpp:100] Creating Layer conv3_relu
I0409 05:46:32.187072  6731 net.cpp:434] conv3_relu <- conv3
I0409 05:46:32.187084  6731 net.cpp:395] conv3_relu -> conv3 (in-place)
I0409 05:46:32.188073  6731 net.cpp:150] Setting up conv3_relu
I0409 05:46:32.188094  6731 net.cpp:157] Top shape: 1024 250 6 6 (9216000)
I0409 05:46:32.188099  6731 net.cpp:165] Memory required for data: 2175655936
I0409 05:46:32.188123  6731 layer_factory.hpp:77] Creating layer pool3
I0409 05:46:32.188133  6731 net.cpp:100] Creating Layer pool3
I0409 05:46:32.188136  6731 net.cpp:434] pool3 <- conv3
I0409 05:46:32.188143  6731 net.cpp:408] pool3 -> pool3
I0409 05:46:32.188210  6731 net.cpp:150] Setting up pool3
I0409 05:46:32.188221  6731 net.cpp:157] Top shape: 1024 250 3 3 (2304000)
I0409 05:46:32.188225  6731 net.cpp:165] Memory required for data: 2184871936
I0409 05:46:32.188228  6731 layer_factory.hpp:77] Creating layer fc4_300
I0409 05:46:32.188238  6731 net.cpp:100] Creating Layer fc4_300
I0409 05:46:32.188242  6731 net.cpp:434] fc4_300 <- pool3
I0409 05:46:32.188249  6731 net.cpp:408] fc4_300 -> fc4_300
I0409 05:46:32.194890  6731 net.cpp:150] Setting up fc4_300
I0409 05:46:32.194911  6731 net.cpp:157] Top shape: 1024 300 (307200)
I0409 05:46:32.194916  6731 net.cpp:165] Memory required for data: 2186100736
I0409 05:46:32.194924  6731 layer_factory.hpp:77] Creating layer fc4_relu
I0409 05:46:32.194931  6731 net.cpp:100] Creating Layer fc4_relu
I0409 05:46:32.194937  6731 net.cpp:434] fc4_relu <- fc4_300
I0409 05:46:32.194944  6731 net.cpp:395] fc4_relu -> fc4_300 (in-place)
I0409 05:46:32.195201  6731 net.cpp:150] Setting up fc4_relu
I0409 05:46:32.195216  6731 net.cpp:157] Top shape: 1024 300 (307200)
I0409 05:46:32.195219  6731 net.cpp:165] Memory required for data: 2187329536
I0409 05:46:32.195224  6731 layer_factory.hpp:77] Creating layer drop4
I0409 05:46:32.195232  6731 net.cpp:100] Creating Layer drop4
I0409 05:46:32.195236  6731 net.cpp:434] drop4 <- fc4_300
I0409 05:46:32.195245  6731 net.cpp:395] drop4 -> fc4_300 (in-place)
I0409 05:46:32.195281  6731 net.cpp:150] Setting up drop4
I0409 05:46:32.195292  6731 net.cpp:157] Top shape: 1024 300 (307200)
I0409 05:46:32.195297  6731 net.cpp:165] Memory required for data: 2188558336
I0409 05:46:32.195299  6731 layer_factory.hpp:77] Creating layer fc5_67
I0409 05:46:32.195312  6731 net.cpp:100] Creating Layer fc5_67
I0409 05:46:32.195315  6731 net.cpp:434] fc5_67 <- fc4_300
I0409 05:46:32.195322  6731 net.cpp:408] fc5_67 -> fc5_classes
I0409 05:46:32.195636  6731 net.cpp:150] Setting up fc5_67
I0409 05:46:32.195647  6731 net.cpp:157] Top shape: 1024 67 (68608)
I0409 05:46:32.195650  6731 net.cpp:165] Memory required for data: 2188832768
I0409 05:46:32.195662  6731 layer_factory.hpp:77] Creating layer fc5_classes_fc5_67_0_split
I0409 05:46:32.195672  6731 net.cpp:100] Creating Layer fc5_classes_fc5_67_0_split
I0409 05:46:32.195678  6731 net.cpp:434] fc5_classes_fc5_67_0_split <- fc5_classes
I0409 05:46:32.195686  6731 net.cpp:408] fc5_classes_fc5_67_0_split -> fc5_classes_fc5_67_0_split_0
I0409 05:46:32.195695  6731 net.cpp:408] fc5_classes_fc5_67_0_split -> fc5_classes_fc5_67_0_split_1
I0409 05:46:32.195703  6731 net.cpp:408] fc5_classes_fc5_67_0_split -> fc5_classes_fc5_67_0_split_2
I0409 05:46:32.195766  6731 net.cpp:150] Setting up fc5_classes_fc5_67_0_split
I0409 05:46:32.195775  6731 net.cpp:157] Top shape: 1024 67 (68608)
I0409 05:46:32.195780  6731 net.cpp:157] Top shape: 1024 67 (68608)
I0409 05:46:32.195783  6731 net.cpp:157] Top shape: 1024 67 (68608)
I0409 05:46:32.195786  6731 net.cpp:165] Memory required for data: 2189656064
I0409 05:46:32.195791  6731 layer_factory.hpp:77] Creating layer loss
I0409 05:46:32.195801  6731 net.cpp:100] Creating Layer loss
I0409 05:46:32.195806  6731 net.cpp:434] loss <- fc5_classes_fc5_67_0_split_0
I0409 05:46:32.195811  6731 net.cpp:434] loss <- label_data_1_split_0
I0409 05:46:32.195817  6731 net.cpp:408] loss -> loss
…
