…
I0412 03:06:21.148360 29502 net.cpp:322] The NetState phase (0) differed from the phase (1) specified by a rule in layer accuracy_5
I0412 03:06:21.148605 29502 net.cpp:58] Initializing net from parameters: 
state {
  phase: TRAIN
  level: 0
  stage: ""
}
layer {
  name: "data"
  type: "Data"
  top: "data"
  top: "label"
  include {
    phase: TRAIN
  }
  transform_param {
    scale: 0.0039215689
    mirror: false
    crop_size: 48
    mean_value: 115
    mean_value: 108
    mean_value: 122
  }
  data_param {
    source: "../local_data/lmdb/rtsd-r1/imajust/train/lmdb"
    batch_size: 1024
    backend: LMDB
  }
}
layer {
  name: "conv1"
  type: "Convolution"
  bottom: "data"
  top: "conv1"
  convolution_param {
    num_output: 100
    pad: 0
    kernel_size: 7
    group: 1
    stride: 1
    weight_filler {
      type: "xavier"
    }
  }
}
layer {
  name: "conv1_prescale"
  type: "Scale"
  bottom: "conv1"
  top: "conv1"
  param {
    lr_mult: 0
    decay_mult: 0
  }
  scale_param {
    filler {
      value: 0.6666
    }
    bias_term: false
  }
}
layer {
  name: "conv1_sTanH"
  type: "TanH"
  bottom: "conv1"
  top: "conv1"
}
layer {
  name: "conv1_postscale"
  type: "Scale"
  bottom: "conv1"
  top: "conv1"
  param {
    lr_mult: 0
    decay_mult: 0
  }
  scale_param {
    filler {
      value: 1.7159
    }
    bias_term: false
  }
}
layer {
  name: "pool1"
  type: "Pooling"
  bottom: "conv1"
  top: "pool1"
  pooling_param {
    pool: MAX
    kernel_size: 2
    stride: 2
  }
}
layer {
  name: "conv2"
  type: "Convolution"
  bottom: "pool1"
  top: "conv2"
  convolution_param {
    num_output: 150
    pad: 0
    kernel_size: 4
    group: 1
    stride: 1
    weight_filler {
      type: "xavier"
    }
  }
}
layer {
  name: "conv2_prescale"
  type: "Scale"
  bottom: "conv2"
  top: "conv2"
  param {
    lr_mult: 0
    decay_mult: 0
  }
  scale_param {
    filler {
      value: 0.6666
    }
    bias_term: false
  }
}
layer {
  name: "conv2_sTanH"
  type: "TanH"
  bottom: "conv2"
  top: "conv2"
}
layer {
  name: "conv2_postscale"
  type: "Scale"
  bottom: "conv2"
  top: "conv2"
  param {
    lr_mult: 0
    decay_mult: 0
  }
  scale_param {
    filler {
      value: 1.7159
    }
    bias_term: false
  }
}
layer {
  name: "pool2"
  type: "Pooling"
  bottom: "conv2"
  top: "pool2"
  pooling_param {
    pool: MAX
    kernel_size: 2
    stride: 2
  }
}
layer {
  name: "conv3"
  type: "Convolution"
  bottom: "pool2"
  top: "conv3"
  convolution_param {
    num_output: 250
    pad: 0
    kernel_size: 4
    group: 1
    stride: 1
    weight_filler {
      type: "xavier"
    }
  }
}
layer {
  name: "conv3_prescale"
  type: "Scale"
  bottom: "conv3"
  top: "conv3"
  param {
    lr_mult: 0
    decay_mult: 0
  }
  scale_param {
    filler {
      value: 0.6666
    }
    bias_term: false
  }
}
layer {
  name: "conv3_sTanH"
  type: "TanH"
  bottom: "conv3"
  top: "conv3"
}
layer {
  name: "conv3_postscale"
  type: "Scale"
  bottom: "conv3"
  top: "conv3"
  param {
    lr_mult: 0
    decay_mult: 0
  }
  scale_param {
    filler {
      value: 1.7159
    }
    bias_term: false
  }
}
layer {
  name: "pool3"
  type: "Pooling"
  bottom: "conv3"
  top: "pool3"
  pooling_param {
    pool: MAX
    kernel_size: 2
    stride: 2
  }
}
layer {
  name: "fc4_300"
  type: "InnerProduct"
  bottom: "pool3"
  top: "fc4_300"
  inner_product_param {
    num_output: 300
    weight_filler {
      type: "xavier"
    }
  }
}
layer {
  name: "fc4_prescale"
  type: "Scale"
  bottom: "fc4_300"
  top: "fc4_300"
  param {
    lr_mult: 0
    decay_mult: 0
  }
  scale_param {
    filler {
      value: 0.6666
    }
    bias_term: false
  }
}
layer {
  name: "fc4_sTanH"
  type: "TanH"
  bottom: "fc4_300"
  top: "fc4_300"
}
layer {
  name: "fc4_postscale"
  type: "Scale"
  bottom: "fc4_300"
  top: "fc4_300"
  param {
    lr_mult: 0
    decay_mult: 0
  }
  scale_param {
    filler {
      value: 1.7159
    }
    bias_term: false
  }
}
layer {
  name: "drop4"
  type: "Dropout"
  bottom: "fc4_300"
  top: "fc4_300"
  dropout_param {
    dropout_ratio: 0.1
  }
}
layer {
  name: "fc5_67"
  type: "InnerProduct"
  bottom: "fc4_300"
  top: "fc5_classes"
  inner_product_param {
    num_output: 67
    weight_filler {
      type: "xavier"
    }
  }
}
layer {
  name: "loss"
  type: "SoftmaxWithLoss"
  bottom: "fc5_classes"
  bottom: "label"
  top: "loss"
}
I0412 03:06:21.148774 29502 layer_factory.hpp:77] Creating layer data
I0412 03:06:21.150713 29502 net.cpp:100] Creating Layer data
I0412 03:06:21.150738 29502 net.cpp:408] data -> data
I0412 03:06:21.150774 29502 net.cpp:408] data -> label
I0412 03:06:21.154078 29654 db_lmdb.cpp:35] Opened lmdb ../local_data/lmdb/rtsd-r1/imajust/train/lmdb
I0412 03:06:21.177886 29502 data_layer.cpp:41] output data size: 1024,3,48,48
I0412 03:06:21.241093 29502 net.cpp:150] Setting up data
I0412 03:06:21.241125 29502 net.cpp:157] Top shape: 1024 3 48 48 (7077888)
I0412 03:06:21.241130 29502 net.cpp:157] Top shape: 1024 (1024)
I0412 03:06:21.241133 29502 net.cpp:165] Memory required for data: 28315648
I0412 03:06:21.241143 29502 layer_factory.hpp:77] Creating layer conv1
I0412 03:06:21.241165 29502 net.cpp:100] Creating Layer conv1
I0412 03:06:21.241173 29502 net.cpp:434] conv1 <- data
I0412 03:06:21.241185 29502 net.cpp:408] conv1 -> conv1
I0412 03:06:21.553736 29502 net.cpp:150] Setting up conv1
I0412 03:06:21.553766 29502 net.cpp:157] Top shape: 1024 100 42 42 (180633600)
I0412 03:06:21.553769 29502 net.cpp:165] Memory required for data: 750850048
I0412 03:06:21.553791 29502 layer_factory.hpp:77] Creating layer conv1_prescale
I0412 03:06:21.553805 29502 net.cpp:100] Creating Layer conv1_prescale
I0412 03:06:21.553812 29502 net.cpp:434] conv1_prescale <- conv1
I0412 03:06:21.553818 29502 net.cpp:395] conv1_prescale -> conv1 (in-place)
I0412 03:06:21.553925 29502 net.cpp:150] Setting up conv1_prescale
I0412 03:06:21.553935 29502 net.cpp:157] Top shape: 1024 100 42 42 (180633600)
I0412 03:06:21.553937 29502 net.cpp:165] Memory required for data: 1473384448
I0412 03:06:21.553943 29502 layer_factory.hpp:77] Creating layer conv1_sTanH
I0412 03:06:21.553951 29502 net.cpp:100] Creating Layer conv1_sTanH
I0412 03:06:21.553953 29502 net.cpp:434] conv1_sTanH <- conv1
I0412 03:06:21.553957 29502 net.cpp:395] conv1_sTanH -> conv1 (in-place)
I0412 03:06:21.554159 29502 net.cpp:150] Setting up conv1_sTanH
I0412 03:06:21.554172 29502 net.cpp:157] Top shape: 1024 100 42 42 (180633600)
I0412 03:06:21.554175 29502 net.cpp:165] Memory required for data: 2195918848
I0412 03:06:21.554178 29502 layer_factory.hpp:77] Creating layer conv1_postscale
I0412 03:06:21.554188 29502 net.cpp:100] Creating Layer conv1_postscale
I0412 03:06:21.554191 29502 net.cpp:434] conv1_postscale <- conv1
I0412 03:06:21.554196 29502 net.cpp:395] conv1_postscale -> conv1 (in-place)
I0412 03:06:21.554297 29502 net.cpp:150] Setting up conv1_postscale
I0412 03:06:21.554306 29502 net.cpp:157] Top shape: 1024 100 42 42 (180633600)
I0412 03:06:21.554308 29502 net.cpp:165] Memory required for data: 2918453248
I0412 03:06:21.554313 29502 layer_factory.hpp:77] Creating layer pool1
I0412 03:06:21.554322 29502 net.cpp:100] Creating Layer pool1
I0412 03:06:21.554325 29502 net.cpp:434] pool1 <- conv1
I0412 03:06:21.554330 29502 net.cpp:408] pool1 -> pool1
I0412 03:06:21.554399 29502 net.cpp:150] Setting up pool1
I0412 03:06:21.554409 29502 net.cpp:157] Top shape: 1024 100 21 21 (45158400)
I0412 03:06:21.554412 29502 net.cpp:165] Memory required for data: 3099086848
I0412 03:06:21.554415 29502 layer_factory.hpp:77] Creating layer conv2
I0412 03:06:21.554426 29502 net.cpp:100] Creating Layer conv2
I0412 03:06:21.554432 29502 net.cpp:434] conv2 <- pool1
I0412 03:06:21.554438 29502 net.cpp:408] conv2 -> conv2
I0412 03:06:21.560688 29502 net.cpp:150] Setting up conv2
I0412 03:06:21.560704 29502 net.cpp:157] Top shape: 1024 150 18 18 (49766400)
I0412 03:06:21.560708 29502 net.cpp:165] Memory required for data: 3298152448
I0412 03:06:21.560719 29502 layer_factory.hpp:77] Creating layer conv2_prescale
I0412 03:06:21.560729 29502 net.cpp:100] Creating Layer conv2_prescale
I0412 03:06:21.560732 29502 net.cpp:434] conv2_prescale <- conv2
I0412 03:06:21.560739 29502 net.cpp:395] conv2_prescale -> conv2 (in-place)
I0412 03:06:21.560850 29502 net.cpp:150] Setting up conv2_prescale
I0412 03:06:21.560860 29502 net.cpp:157] Top shape: 1024 150 18 18 (49766400)
I0412 03:06:21.560863 29502 net.cpp:165] Memory required for data: 3497218048
I0412 03:06:21.560868 29502 layer_factory.hpp:77] Creating layer conv2_sTanH
I0412 03:06:21.560874 29502 net.cpp:100] Creating Layer conv2_sTanH
I0412 03:06:21.560878 29502 net.cpp:434] conv2_sTanH <- conv2
I0412 03:06:21.560881 29502 net.cpp:395] conv2_sTanH -> conv2 (in-place)
I0412 03:06:21.561738 29502 net.cpp:150] Setting up conv2_sTanH
I0412 03:06:21.561753 29502 net.cpp:157] Top shape: 1024 150 18 18 (49766400)
I0412 03:06:21.561756 29502 net.cpp:165] Memory required for data: 3696283648
I0412 03:06:21.561760 29502 layer_factory.hpp:77] Creating layer conv2_postscale
I0412 03:06:21.561769 29502 net.cpp:100] Creating Layer conv2_postscale
I0412 03:06:21.561772 29502 net.cpp:434] conv2_postscale <- conv2
I0412 03:06:21.561777 29502 net.cpp:395] conv2_postscale -> conv2 (in-place)
I0412 03:06:21.561878 29502 net.cpp:150] Setting up conv2_postscale
I0412 03:06:21.561887 29502 net.cpp:157] Top shape: 1024 150 18 18 (49766400)
I0412 03:06:21.561889 29502 net.cpp:165] Memory required for data: 3895349248
I0412 03:06:21.561894 29502 layer_factory.hpp:77] Creating layer pool2
I0412 03:06:21.561900 29502 net.cpp:100] Creating Layer pool2
I0412 03:06:21.561903 29502 net.cpp:434] pool2 <- conv2
I0412 03:06:21.561909 29502 net.cpp:408] pool2 -> pool2
I0412 03:06:21.561949 29502 net.cpp:150] Setting up pool2
I0412 03:06:21.561959 29502 net.cpp:157] Top shape: 1024 150 9 9 (12441600)
I0412 03:06:21.561961 29502 net.cpp:165] Memory required for data: 3945115648
I0412 03:06:21.561964 29502 layer_factory.hpp:77] Creating layer conv3
I0412 03:06:21.561971 29502 net.cpp:100] Creating Layer conv3
I0412 03:06:21.561975 29502 net.cpp:434] conv3 <- pool2
I0412 03:06:21.561981 29502 net.cpp:408] conv3 -> conv3
I0412 03:06:21.567708 29502 net.cpp:150] Setting up conv3
I0412 03:06:21.567725 29502 net.cpp:157] Top shape: 1024 250 6 6 (9216000)
I0412 03:06:21.567728 29502 net.cpp:165] Memory required for data: 3981979648
I0412 03:06:21.567739 29502 layer_factory.hpp:77] Creating layer conv3_prescale
I0412 03:06:21.567749 29502 net.cpp:100] Creating Layer conv3_prescale
I0412 03:06:21.567754 29502 net.cpp:434] conv3_prescale <- conv3
I0412 03:06:21.567759 29502 net.cpp:395] conv3_prescale -> conv3 (in-place)
I0412 03:06:21.567860 29502 net.cpp:150] Setting up conv3_prescale
I0412 03:06:21.567869 29502 net.cpp:157] Top shape: 1024 250 6 6 (9216000)
I0412 03:06:21.567873 29502 net.cpp:165] Memory required for data: 4018843648
I0412 03:06:21.567881 29502 layer_factory.hpp:77] Creating layer conv3_sTanH
I0412 03:06:21.567888 29502 net.cpp:100] Creating Layer conv3_sTanH
I0412 03:06:21.567890 29502 net.cpp:434] conv3_sTanH <- conv3
I0412 03:06:21.567896 29502 net.cpp:395] conv3_sTanH -> conv3 (in-place)
I0412 03:06:21.568805 29502 net.cpp:150] Setting up conv3_sTanH
I0412 03:06:21.568821 29502 net.cpp:157] Top shape: 1024 250 6 6 (9216000)
I0412 03:06:21.568825 29502 net.cpp:165] Memory required for data: 4055707648
I0412 03:06:21.568841 29502 layer_factory.hpp:77] Creating layer conv3_postscale
I0412 03:06:21.568848 29502 net.cpp:100] Creating Layer conv3_postscale
I0412 03:06:21.568852 29502 net.cpp:434] conv3_postscale <- conv3
I0412 03:06:21.568861 29502 net.cpp:395] conv3_postscale -> conv3 (in-place)
I0412 03:06:21.568964 29502 net.cpp:150] Setting up conv3_postscale
I0412 03:06:21.568974 29502 net.cpp:157] Top shape: 1024 250 6 6 (9216000)
I0412 03:06:21.568977 29502 net.cpp:165] Memory required for data: 4092571648
I0412 03:06:21.568981 29502 layer_factory.hpp:77] Creating layer pool3
I0412 03:06:21.568989 29502 net.cpp:100] Creating Layer pool3
I0412 03:06:21.568992 29502 net.cpp:434] pool3 <- conv3
I0412 03:06:21.568997 29502 net.cpp:408] pool3 -> pool3
I0412 03:06:21.569036 29502 net.cpp:150] Setting up pool3
I0412 03:06:21.569044 29502 net.cpp:157] Top shape: 1024 250 3 3 (2304000)
I0412 03:06:21.569047 29502 net.cpp:165] Memory required for data: 4101787648
I0412 03:06:21.569051 29502 layer_factory.hpp:77] Creating layer fc4_300
I0412 03:06:21.569061 29502 net.cpp:100] Creating Layer fc4_300
I0412 03:06:21.569064 29502 net.cpp:434] fc4_300 <- pool3
I0412 03:06:21.569069 29502 net.cpp:408] fc4_300 -> fc4_300
I0412 03:06:21.574604 29502 net.cpp:150] Setting up fc4_300
I0412 03:06:21.574620 29502 net.cpp:157] Top shape: 1024 300 (307200)
I0412 03:06:21.574623 29502 net.cpp:165] Memory required for data: 4103016448
I0412 03:06:21.574630 29502 layer_factory.hpp:77] Creating layer fc4_prescale
I0412 03:06:21.574638 29502 net.cpp:100] Creating Layer fc4_prescale
I0412 03:06:21.574643 29502 net.cpp:434] fc4_prescale <- fc4_300
I0412 03:06:21.574650 29502 net.cpp:395] fc4_prescale -> fc4_300 (in-place)
I0412 03:06:21.574739 29502 net.cpp:150] Setting up fc4_prescale
I0412 03:06:21.574748 29502 net.cpp:157] Top shape: 1024 300 (307200)
I0412 03:06:21.574750 29502 net.cpp:165] Memory required for data: 4104245248
I0412 03:06:21.574754 29502 layer_factory.hpp:77] Creating layer fc4_sTanH
I0412 03:06:21.574759 29502 net.cpp:100] Creating Layer fc4_sTanH
I0412 03:06:21.574764 29502 net.cpp:434] fc4_sTanH <- fc4_300
I0412 03:06:21.574769 29502 net.cpp:395] fc4_sTanH -> fc4_300 (in-place)
I0412 03:06:21.574954 29502 net.cpp:150] Setting up fc4_sTanH
I0412 03:06:21.574966 29502 net.cpp:157] Top shape: 1024 300 (307200)
I0412 03:06:21.574970 29502 net.cpp:165] Memory required for data: 4105474048
I0412 03:06:21.574972 29502 layer_factory.hpp:77] Creating layer fc4_postscale
I0412 03:06:21.574980 29502 net.cpp:100] Creating Layer fc4_postscale
I0412 03:06:21.574983 29502 net.cpp:434] fc4_postscale <- fc4_300
I0412 03:06:21.574988 29502 net.cpp:395] fc4_postscale -> fc4_300 (in-place)
I0412 03:06:21.575091 29502 net.cpp:150] Setting up fc4_postscale
I0412 03:06:21.575100 29502 net.cpp:157] Top shape: 1024 300 (307200)
I0412 03:06:21.575103 29502 net.cpp:165] Memory required for data: 4106702848
I0412 03:06:21.575108 29502 layer_factory.hpp:77] Creating layer drop4
I0412 03:06:21.575114 29502 net.cpp:100] Creating Layer drop4
I0412 03:06:21.575116 29502 net.cpp:434] drop4 <- fc4_300
I0412 03:06:21.575121 29502 net.cpp:395] drop4 -> fc4_300 (in-place)
I0412 03:06:21.575150 29502 net.cpp:150] Setting up drop4
I0412 03:06:21.575157 29502 net.cpp:157] Top shape: 1024 300 (307200)
I0412 03:06:21.575160 29502 net.cpp:165] Memory required for data: 4107931648
I0412 03:06:21.575163 29502 layer_factory.hpp:77] Creating layer fc5_67
I0412 03:06:21.575168 29502 net.cpp:100] Creating Layer fc5_67
I0412 03:06:21.575171 29502 net.cpp:434] fc5_67 <- fc4_300
I0412 03:06:21.575177 29502 net.cpp:408] fc5_67 -> fc5_classes
I0412 03:06:21.576540 29502 net.cpp:150] Setting up fc5_67
I0412 03:06:21.576555 29502 net.cpp:157] Top shape: 1024 67 (68608)
I0412 03:06:21.576557 29502 net.cpp:165] Memory required for data: 4108206080
I0412 03:06:21.576568 29502 layer_factory.hpp:77] Creating layer loss
I0412 03:06:21.576578 29502 net.cpp:100] Creating Layer loss
I0412 03:06:21.576583 29502 net.cpp:434] loss <- fc5_classes
I0412 03:06:21.576601 29502 net.cpp:434] loss <- label
I0412 03:06:21.576609 29502 net.cpp:408] loss -> loss
I0412 03:06:21.576622 29502 layer_factory.hpp:77] Creating layer loss
…
I0412 03:06:21.577471 29502 solver.cpp:193] Creating test net (#0) specified by test_net file: ./Prototxt/experiment_9/rtsd-r1/imajust/trial_2/test.prototxt
I0412 03:06:21.577659 29502 net.cpp:58] Initializing net from parameters: 
state {
  phase: TEST
}
layer {
  name: "data"
  type: "Data"
  top: "data"
  top: "label"
  include {
    phase: TEST
  }
  transform_param {
    scale: 0.0039215689
    mirror: false
    crop_size: 48
    mean_value: 109
    mean_value: 106
    mean_value: 126
  }
  data_param {
    source: "../local_data/lmdb/rtsd-r1/imajust/test/lmdb"
    batch_size: 1024
    backend: LMDB
  }
}
layer {
  name: "conv1"
  type: "Convolution"
  bottom: "data"
  top: "conv1"
  convolution_param {
    num_output: 100
    pad: 0
    kernel_size: 7
    group: 1
    stride: 1
    weight_filler {
      type: "xavier"
    }
  }
}
layer {
  name: "conv1_prescale"
  type: "Scale"
  bottom: "conv1"
  top: "conv1"
  param {
    lr_mult: 0
    decay_mult: 0
  }
  scale_param {
    filler {
      value: 0.6666
    }
    bias_term: false
  }
}
layer {
  name: "conv1_sTanH"
  type: "TanH"
  bottom: "conv1"
  top: "conv1"
}
layer {
  name: "conv1_postscale"
  type: "Scale"
  bottom: "conv1"
  top: "conv1"
  param {
    lr_mult: 0
    decay_mult: 0
  }
  scale_param {
    filler {
      value: 1.7159
    }
    bias_term: false
  }
}
layer {
  name: "pool1"
  type: "Pooling"
  bottom: "conv1"
  top: "pool1"
  pooling_param {
    pool: MAX
    kernel_size: 2
    stride: 2
  }
}
layer {
  name: "conv2"
  type: "Convolution"
  bottom: "pool1"
  top: "conv2"
  convolution_param {
    num_output: 150
    pad: 0
    kernel_size: 4
    group: 1
    stride: 1
    weight_filler {
      type: "xavier"
    }
  }
}
layer {
  name: "conv2_prescale"
  type: "Scale"
  bottom: "conv2"
  top: "conv2"
  param {
    lr_mult: 0
    decay_mult: 0
  }
  scale_param {
    filler {
      value: 0.6666
    }
    bias_term: false
  }
}
layer {
  name: "conv2_sTanH"
  type: "TanH"
  bottom: "conv2"
  top: "conv2"
}
layer {
  name: "conv2_postscale"
  type: "Scale"
  bottom: "conv2"
  top: "conv2"
  param {
    lr_mult: 0
    decay_mult: 0
  }
  scale_param {
    filler {
      value: 1.7159
    }
    bias_term: false
  }
}
layer {
  name: "pool2"
  type: "Pooling"
  bottom: "conv2"
  top: "pool2"
  pooling_param {
    pool: MAX
    kernel_size: 2
    stride: 2
  }
}
layer {
  name: "conv3"
  type: "Convolution"
  bottom: "pool2"
  top: "conv3"
  convolution_param {
    num_output: 250
    pad: 0
    kernel_size: 4
    group: 1
    stride: 1
    weight_filler {
      type: "xavier"
    }
  }
}
layer {
  name: "conv3_prescale"
  type: "Scale"
  bottom: "conv3"
  top: "conv3"
  param {
    lr_mult: 0
    decay_mult: 0
  }
  scale_param {
    filler {
      value: 0.6666
    }
    bias_term: false
  }
}
layer {
  name: "conv3_sTanH"
  type: "TanH"
  bottom: "conv3"
  top: "conv3"
}
layer {
  name: "conv3_postscale"
  type: "Scale"
  bottom: "conv3"
  top: "conv3"
  param {
    lr_mult: 0
    decay_mult: 0
  }
  scale_param {
    filler {
      value: 1.7159
    }
    bias_term: false
  }
}
layer {
  name: "pool3"
  type: "Pooling"
  bottom: "conv3"
  top: "pool3"
  pooling_param {
    pool: MAX
    kernel_size: 2
    stride: 2
  }
}
layer {
  name: "fc4_300"
  type: "InnerProduct"
  bottom: "pool3"
  top: "fc4_300"
  inner_product_param {
    num_output: 300
    weight_filler {
      type: "xavier"
    }
  }
}
layer {
  name: "fc4_prescale"
  type: "Scale"
  bottom: "fc4_300"
  top: "fc4_300"
  param {
    lr_mult: 0
    decay_mult: 0
  }
  scale_param {
    filler {
      value: 0.6666
    }
    bias_term: false
  }
}
layer {
  name: "fc4_sTanH"
  type: "TanH"
  bottom: "fc4_300"
  top: "fc4_300"
}
layer {
  name: "fc4_postscale"
  type: "Scale"
  bottom: "fc4_300"
  top: "fc4_300"
  param {
    lr_mult: 0
    decay_mult: 0
  }
  scale_param {
    filler {
      value: 1.7159
    }
    bias_term: false
  }
}
layer {
  name: "drop4"
  type: "Dropout"
  bottom: "fc4_300"
  top: "fc4_300"
  dropout_param {
    dropout_ratio: 0.1
  }
}
layer {
  name: "fc5_67"
  type: "InnerProduct"
  bottom: "fc4_300"
  top: "fc5_classes"
  inner_product_param {
    num_output: 67
    weight_filler {
      type: "xavier"
    }
  }
}
layer {
  name: "loss"
  type: "SoftmaxWithLoss"
  bottom: "fc5_classes"
  bottom: "label"
  top: "loss"
}
layer {
  name: "accuracy_1"
  type: "Accuracy"
  bottom: "fc5_classes"
  bottom: "label"
  top: "accuracy_1"
  include {
    phase: TEST
  }
  accuracy_param {
    top_k: 1
  }
}
layer {
  name: "accuracy_5"
  type: "Accuracy"
  bottom: "fc5_classes"
  bottom: "label"
  top: "accuracy_5"
  include {
    phase: TEST
  }
  accuracy_param {
    top_k: 5
  }
}
I0412 03:06:21.577781 29502 layer_factory.hpp:77] Creating layer data
I0412 03:06:21.578454 29502 net.cpp:100] Creating Layer data
I0412 03:06:21.578469 29502 net.cpp:408] data -> data
I0412 03:06:21.578477 29502 net.cpp:408] data -> label
I0412 03:06:21.593899 29717 db_lmdb.cpp:35] Opened lmdb ../local_data/lmdb/rtsd-r1/imajust/test/lmdb
I0412 03:06:21.594079 29502 data_layer.cpp:41] output data size: 1024,3,48,48
I0412 03:06:21.642827 29502 net.cpp:150] Setting up data
I0412 03:06:21.642856 29502 net.cpp:157] Top shape: 1024 3 48 48 (7077888)
I0412 03:06:21.642861 29502 net.cpp:157] Top shape: 1024 (1024)
I0412 03:06:21.642864 29502 net.cpp:165] Memory required for data: 28315648
I0412 03:06:21.642871 29502 layer_factory.hpp:77] Creating layer label_data_1_split
I0412 03:06:21.642889 29502 net.cpp:100] Creating Layer label_data_1_split
I0412 03:06:21.642895 29502 net.cpp:434] label_data_1_split <- label
I0412 03:06:21.642904 29502 net.cpp:408] label_data_1_split -> label_data_1_split_0
I0412 03:06:21.642915 29502 net.cpp:408] label_data_1_split -> label_data_1_split_1
I0412 03:06:21.642946 29502 net.cpp:408] label_data_1_split -> label_data_1_split_2
I0412 03:06:21.643056 29502 net.cpp:150] Setting up label_data_1_split
I0412 03:06:21.643065 29502 net.cpp:157] Top shape: 1024 (1024)
I0412 03:06:21.643069 29502 net.cpp:157] Top shape: 1024 (1024)
I0412 03:06:21.643072 29502 net.cpp:157] Top shape: 1024 (1024)
I0412 03:06:21.643074 29502 net.cpp:165] Memory required for data: 28327936
I0412 03:06:21.643079 29502 layer_factory.hpp:77] Creating layer conv1
I0412 03:06:21.643090 29502 net.cpp:100] Creating Layer conv1
I0412 03:06:21.643113 29502 net.cpp:434] conv1 <- data
I0412 03:06:21.643120 29502 net.cpp:408] conv1 -> conv1
I0412 03:06:21.645630 29502 net.cpp:150] Setting up conv1
I0412 03:06:21.645647 29502 net.cpp:157] Top shape: 1024 100 42 42 (180633600)
I0412 03:06:21.645650 29502 net.cpp:165] Memory required for data: 750862336
I0412 03:06:21.645663 29502 layer_factory.hpp:77] Creating layer conv1_prescale
I0412 03:06:21.645673 29502 net.cpp:100] Creating Layer conv1_prescale
I0412 03:06:21.645678 29502 net.cpp:434] conv1_prescale <- conv1
I0412 03:06:21.645685 29502 net.cpp:395] conv1_prescale -> conv1 (in-place)
I0412 03:06:21.645797 29502 net.cpp:150] Setting up conv1_prescale
I0412 03:06:21.645804 29502 net.cpp:157] Top shape: 1024 100 42 42 (180633600)
I0412 03:06:21.645807 29502 net.cpp:165] Memory required for data: 1473396736
I0412 03:06:21.645814 29502 layer_factory.hpp:77] Creating layer conv1_sTanH
I0412 03:06:21.645824 29502 net.cpp:100] Creating Layer conv1_sTanH
I0412 03:06:21.645829 29502 net.cpp:434] conv1_sTanH <- conv1
I0412 03:06:21.645833 29502 net.cpp:395] conv1_sTanH -> conv1 (in-place)
I0412 03:06:21.646045 29502 net.cpp:150] Setting up conv1_sTanH
I0412 03:06:21.646057 29502 net.cpp:157] Top shape: 1024 100 42 42 (180633600)
I0412 03:06:21.646060 29502 net.cpp:165] Memory required for data: 2195931136
I0412 03:06:21.646064 29502 layer_factory.hpp:77] Creating layer conv1_postscale
I0412 03:06:21.646071 29502 net.cpp:100] Creating Layer conv1_postscale
I0412 03:06:21.646075 29502 net.cpp:434] conv1_postscale <- conv1
I0412 03:06:21.646081 29502 net.cpp:395] conv1_postscale -> conv1 (in-place)
I0412 03:06:21.646194 29502 net.cpp:150] Setting up conv1_postscale
I0412 03:06:21.646203 29502 net.cpp:157] Top shape: 1024 100 42 42 (180633600)
I0412 03:06:21.646205 29502 net.cpp:165] Memory required for data: 2918465536
I0412 03:06:21.646210 29502 layer_factory.hpp:77] Creating layer pool1
I0412 03:06:21.646220 29502 net.cpp:100] Creating Layer pool1
I0412 03:06:21.646224 29502 net.cpp:434] pool1 <- conv1
I0412 03:06:21.646229 29502 net.cpp:408] pool1 -> pool1
I0412 03:06:21.646275 29502 net.cpp:150] Setting up pool1
I0412 03:06:21.646281 29502 net.cpp:157] Top shape: 1024 100 21 21 (45158400)
I0412 03:06:21.646284 29502 net.cpp:165] Memory required for data: 3099099136
I0412 03:06:21.646287 29502 layer_factory.hpp:77] Creating layer conv2
I0412 03:06:21.646296 29502 net.cpp:100] Creating Layer conv2
I0412 03:06:21.646301 29502 net.cpp:434] conv2 <- pool1
I0412 03:06:21.646308 29502 net.cpp:408] conv2 -> conv2
I0412 03:06:21.652489 29502 net.cpp:150] Setting up conv2
I0412 03:06:21.652508 29502 net.cpp:157] Top shape: 1024 150 18 18 (49766400)
I0412 03:06:21.652513 29502 net.cpp:165] Memory required for data: 3298164736
I0412 03:06:21.652523 29502 layer_factory.hpp:77] Creating layer conv2_prescale
I0412 03:06:21.652539 29502 net.cpp:100] Creating Layer conv2_prescale
I0412 03:06:21.652544 29502 net.cpp:434] conv2_prescale <- conv2
I0412 03:06:21.652550 29502 net.cpp:395] conv2_prescale -> conv2 (in-place)
I0412 03:06:21.652665 29502 net.cpp:150] Setting up conv2_prescale
I0412 03:06:21.652673 29502 net.cpp:157] Top shape: 1024 150 18 18 (49766400)
I0412 03:06:21.652676 29502 net.cpp:165] Memory required for data: 3497230336
I0412 03:06:21.652680 29502 layer_factory.hpp:77] Creating layer conv2_sTanH
I0412 03:06:21.652686 29502 net.cpp:100] Creating Layer conv2_sTanH
I0412 03:06:21.652690 29502 net.cpp:434] conv2_sTanH <- conv2
I0412 03:06:21.652696 29502 net.cpp:395] conv2_sTanH -> conv2 (in-place)
I0412 03:06:21.654098 29502 net.cpp:150] Setting up conv2_sTanH
I0412 03:06:21.654129 29502 net.cpp:157] Top shape: 1024 150 18 18 (49766400)
I0412 03:06:21.654140 29502 net.cpp:165] Memory required for data: 3696295936
I0412 03:06:21.654146 29502 layer_factory.hpp:77] Creating layer conv2_postscale
I0412 03:06:21.654166 29502 net.cpp:100] Creating Layer conv2_postscale
I0412 03:06:21.654175 29502 net.cpp:434] conv2_postscale <- conv2
I0412 03:06:21.654183 29502 net.cpp:395] conv2_postscale -> conv2 (in-place)
I0412 03:06:21.654351 29502 net.cpp:150] Setting up conv2_postscale
I0412 03:06:21.654366 29502 net.cpp:157] Top shape: 1024 150 18 18 (49766400)
I0412 03:06:21.654371 29502 net.cpp:165] Memory required for data: 3895361536
I0412 03:06:21.654379 29502 layer_factory.hpp:77] Creating layer pool2
I0412 03:06:21.654388 29502 net.cpp:100] Creating Layer pool2
I0412 03:06:21.654397 29502 net.cpp:434] pool2 <- conv2
I0412 03:06:21.654412 29502 net.cpp:408] pool2 -> pool2
I0412 03:06:21.654486 29502 net.cpp:150] Setting up pool2
I0412 03:06:21.654497 29502 net.cpp:157] Top shape: 1024 150 9 9 (12441600)
I0412 03:06:21.654502 29502 net.cpp:165] Memory required for data: 3945127936
I0412 03:06:21.654506 29502 layer_factory.hpp:77] Creating layer conv3
I0412 03:06:21.654520 29502 net.cpp:100] Creating Layer conv3
I0412 03:06:21.654527 29502 net.cpp:434] conv3 <- pool2
I0412 03:06:21.654536 29502 net.cpp:408] conv3 -> conv3
I0412 03:06:21.663853 29502 net.cpp:150] Setting up conv3
I0412 03:06:21.663898 29502 net.cpp:157] Top shape: 1024 250 6 6 (9216000)
I0412 03:06:21.663904 29502 net.cpp:165] Memory required for data: 3981991936
I0412 03:06:21.663924 29502 layer_factory.hpp:77] Creating layer conv3_prescale
I0412 03:06:21.663941 29502 net.cpp:100] Creating Layer conv3_prescale
I0412 03:06:21.663949 29502 net.cpp:434] conv3_prescale <- conv3
I0412 03:06:21.663960 29502 net.cpp:395] conv3_prescale -> conv3 (in-place)
I0412 03:06:21.664119 29502 net.cpp:150] Setting up conv3_prescale
I0412 03:06:21.664134 29502 net.cpp:157] Top shape: 1024 250 6 6 (9216000)
I0412 03:06:21.664137 29502 net.cpp:165] Memory required for data: 4018855936
I0412 03:06:21.664144 29502 layer_factory.hpp:77] Creating layer conv3_sTanH
I0412 03:06:21.664153 29502 net.cpp:100] Creating Layer conv3_sTanH
I0412 03:06:21.664160 29502 net.cpp:434] conv3_sTanH <- conv3
I0412 03:06:21.664166 29502 net.cpp:395] conv3_sTanH -> conv3 (in-place)
I0412 03:06:21.665894 29502 net.cpp:150] Setting up conv3_sTanH
I0412 03:06:21.665920 29502 net.cpp:157] Top shape: 1024 250 6 6 (9216000)
I0412 03:06:21.665925 29502 net.cpp:165] Memory required for data: 4055719936
I0412 03:06:21.665930 29502 layer_factory.hpp:77] Creating layer conv3_postscale
I0412 03:06:21.665938 29502 net.cpp:100] Creating Layer conv3_postscale
I0412 03:06:21.665947 29502 net.cpp:434] conv3_postscale <- conv3
I0412 03:06:21.665956 29502 net.cpp:395] conv3_postscale -> conv3 (in-place)
I0412 03:06:21.666108 29502 net.cpp:150] Setting up conv3_postscale
I0412 03:06:21.666119 29502 net.cpp:157] Top shape: 1024 250 6 6 (9216000)
I0412 03:06:21.666124 29502 net.cpp:165] Memory required for data: 4092583936
I0412 03:06:21.666131 29502 layer_factory.hpp:77] Creating layer pool3
I0412 03:06:21.666149 29502 net.cpp:100] Creating Layer pool3
I0412 03:06:21.666155 29502 net.cpp:434] pool3 <- conv3
I0412 03:06:21.666164 29502 net.cpp:408] pool3 -> pool3
I0412 03:06:21.666225 29502 net.cpp:150] Setting up pool3
I0412 03:06:21.666237 29502 net.cpp:157] Top shape: 1024 250 3 3 (2304000)
I0412 03:06:21.666247 29502 net.cpp:165] Memory required for data: 4101799936
I0412 03:06:21.666254 29502 layer_factory.hpp:77] Creating layer fc4_300
I0412 03:06:21.666263 29502 net.cpp:100] Creating Layer fc4_300
I0412 03:06:21.666270 29502 net.cpp:434] fc4_300 <- pool3
I0412 03:06:21.666276 29502 net.cpp:408] fc4_300 -> fc4_300
I0412 03:06:21.675201 29502 net.cpp:150] Setting up fc4_300
I0412 03:06:21.675225 29502 net.cpp:157] Top shape: 1024 300 (307200)
I0412 03:06:21.675230 29502 net.cpp:165] Memory required for data: 4103028736
I0412 03:06:21.675266 29502 layer_factory.hpp:77] Creating layer fc4_prescale
I0412 03:06:21.675283 29502 net.cpp:100] Creating Layer fc4_prescale
I0412 03:06:21.675290 29502 net.cpp:434] fc4_prescale <- fc4_300
I0412 03:06:21.675298 29502 net.cpp:395] fc4_prescale -> fc4_300 (in-place)
I0412 03:06:21.675431 29502 net.cpp:150] Setting up fc4_prescale
I0412 03:06:21.675442 29502 net.cpp:157] Top shape: 1024 300 (307200)
I0412 03:06:21.675449 29502 net.cpp:165] Memory required for data: 4104257536
I0412 03:06:21.675457 29502 layer_factory.hpp:77] Creating layer fc4_sTanH
I0412 03:06:21.675463 29502 net.cpp:100] Creating Layer fc4_sTanH
I0412 03:06:21.675469 29502 net.cpp:434] fc4_sTanH <- fc4_300
I0412 03:06:21.675475 29502 net.cpp:395] fc4_sTanH -> fc4_300 (in-place)
I0412 03:06:21.675756 29502 net.cpp:150] Setting up fc4_sTanH
I0412 03:06:21.675770 29502 net.cpp:157] Top shape: 1024 300 (307200)
I0412 03:06:21.675775 29502 net.cpp:165] Memory required for data: 4105486336
I0412 03:06:21.675778 29502 layer_factory.hpp:77] Creating layer fc4_postscale
I0412 03:06:21.675789 29502 net.cpp:100] Creating Layer fc4_postscale
I0412 03:06:21.675796 29502 net.cpp:434] fc4_postscale <- fc4_300
I0412 03:06:21.675803 29502 net.cpp:395] fc4_postscale -> fc4_300 (in-place)
I0412 03:06:21.675959 29502 net.cpp:150] Setting up fc4_postscale
I0412 03:06:21.675971 29502 net.cpp:157] Top shape: 1024 300 (307200)
I0412 03:06:21.675977 29502 net.cpp:165] Memory required for data: 4106715136
I0412 03:06:21.675984 29502 layer_factory.hpp:77] Creating layer drop4
I0412 03:06:21.675994 29502 net.cpp:100] Creating Layer drop4
I0412 03:06:21.676000 29502 net.cpp:434] drop4 <- fc4_300
I0412 03:06:21.676007 29502 net.cpp:395] drop4 -> fc4_300 (in-place)
I0412 03:06:21.676043 29502 net.cpp:150] Setting up drop4
I0412 03:06:21.676053 29502 net.cpp:157] Top shape: 1024 300 (307200)
I0412 03:06:21.676056 29502 net.cpp:165] Memory required for data: 4107943936
I0412 03:06:21.676060 29502 layer_factory.hpp:77] Creating layer fc5_67
I0412 03:06:21.676069 29502 net.cpp:100] Creating Layer fc5_67
I0412 03:06:21.676072 29502 net.cpp:434] fc5_67 <- fc4_300
I0412 03:06:21.676080 29502 net.cpp:408] fc5_67 -> fc5_classes
I0412 03:06:21.676427 29502 net.cpp:150] Setting up fc5_67
I0412 03:06:21.676439 29502 net.cpp:157] Top shape: 1024 67 (68608)
I0412 03:06:21.676442 29502 net.cpp:165] Memory required for data: 4108218368
I0412 03:06:21.676455 29502 layer_factory.hpp:77] Creating layer fc5_classes_fc5_67_0_split
I0412 03:06:21.676467 29502 net.cpp:100] Creating Layer fc5_classes_fc5_67_0_split
I0412 03:06:21.676473 29502 net.cpp:434] fc5_classes_fc5_67_0_split <- fc5_classes
I0412 03:06:21.676481 29502 net.cpp:408] fc5_classes_fc5_67_0_split -> fc5_classes_fc5_67_0_split_0
I0412 03:06:21.676491 29502 net.cpp:408] fc5_classes_fc5_67_0_split -> fc5_classes_fc5_67_0_split_1
I0412 03:06:21.676501 29502 net.cpp:408] fc5_classes_fc5_67_0_split -> fc5_classes_fc5_67_0_split_2
I0412 03:06:21.676576 29502 net.cpp:150] Setting up fc5_classes_fc5_67_0_split
I0412 03:06:21.676585 29502 net.cpp:157] Top shape: 1024 67 (68608)
I0412 03:06:21.676590 29502 net.cpp:157] Top shape: 1024 67 (68608)
I0412 03:06:21.676594 29502 net.cpp:157] Top shape: 1024 67 (68608)
I0412 03:06:21.676597 29502 net.cpp:165] Memory required for data: 4109041664
I0412 03:06:21.676601 29502 layer_factory.hpp:77] Creating layer loss
I0412 03:06:21.676612 29502 net.cpp:100] Creating Layer loss
I0412 03:06:21.676620 29502 net.cpp:434] loss <- fc5_classes_fc5_67_0_split_0
I0412 03:06:21.676625 29502 net.cpp:434] loss <- label_data_1_split_0
I0412 03:06:21.676631 29502 net.cpp:408] loss -> loss
…
