…
I0415 23:07:39.360708 18884 solver.cpp:93] Creating training net from train_net file: ./Prototxt/experiment_12/rtsd-r3/imajust/trial_3/train.prototxt
I0415 23:07:39.368427 18884 net.cpp:58] Initializing net from parameters: 
state {
  phase: TRAIN
  level: 0
  stage: ""
}
layer {
  name: "data"
  type: "Data"
  top: "data"
  top: "label"
  include {
    phase: TRAIN
  }
  transform_param {
    scale: 0.0039215689
    mirror: false
    crop_size: 48
    mean_value: 118
    mean_value: 112
    mean_value: 112
  }
  data_param {
    source: "../local_data/lmdb/rtsd-r3/imajust/train/lmdb"
    batch_size: 1024
    backend: LMDB
  }
}
layer {
  name: "conv1"
  type: "Convolution"
  bottom: "data"
  top: "conv1"
  convolution_param {
    num_output: 100
    pad: 0
    kernel_size: 7
    group: 1
    stride: 1
    weight_filler {
      type: "xavier"
    }
  }
}
layer {
  name: "conv1_relu"
  type: "ReLU"
  bottom: "conv1"
  top: "conv1"
}
layer {
  name: "pool1"
  type: "Pooling"
  bottom: "conv1"
  top: "pool1"
  pooling_param {
    pool: MAX
    kernel_size: 2
    stride: 2
  }
}
layer {
  name: "conv2"
  type: "Convolution"
  bottom: "pool1"
  top: "conv2"
  convolution_param {
    num_output: 150
    pad: 0
    kernel_size: 4
    group: 1
    stride: 1
    weight_filler {
      type: "xavier"
    }
  }
}
layer {
  name: "conv2_relu"
  type: "ReLU"
  bottom: "conv2"
  top: "conv2"
}
layer {
  name: "pool2"
  type: "Pooling"
  bottom: "conv2"
  top: "pool2"
  pooling_param {
    pool: MAX
    kernel_size: 2
    stride: 2
  }
}
layer {
  name: "conv3"
  type: "Convolution"
  bottom: "pool2"
  top: "conv3"
  convolution_param {
    num_output: 250
    pad: 0
    kernel_size: 4
    group: 1
    stride: 1
    weight_filler {
      type: "xavier"
    }
  }
}
layer {
  name: "conv3_relu"
  type: "ReLU"
  bottom: "conv3"
  top: "conv3"
}
layer {
  name: "pool3"
  type: "Pooling"
  bottom: "conv3"
  top: "pool3"
  pooling_param {
    pool: MAX
    kernel_size: 2
    stride: 2
  }
}
layer {
  name: "fc4_300"
  type: "InnerProduct"
  bottom: "pool3"
  top: "fc4_300"
  inner_product_param {
    num_output: 300
    weight_filler {
      type: "xavier"
    }
  }
}
layer {
  name: "fc4_relu"
  type: "ReLU"
  bottom: "fc4_300"
  top: "fc4_300"
}
layer {
  name: "drop4"
  type: "Dropout"
  bottom: "fc4_300"
  top: "fc4_300"
  dropout_param {
    dropout_ratio: 0.5
  }
}
layer {
  name: "fc5_106"
  type: "InnerProduct"
  bottom: "fc4_300"
  top: "fc5_classes"
  inner_product_param {
    num_output: 106
    weight_filler {
      type: "xavier"
    }
  }
}
layer {
  name: "softmax"
  type: "Softmax"
  bottom: "fc5_classes"
  top: "softmax"
}
layer {
  name: "loss"
  type: "MultinomialLogisticLoss"
  bottom: "softmax"
  bottom: "label"
  top: "loss"
}
layer {
  name: "accuracy_1"
  type: "Accuracy"
  bottom: "fc5_classes"
  bottom: "label"
  top: "accuracy_1"
  accuracy_param {
    top_k: 1
  }
}
layer {
  name: "accuracy_5"
  type: "Accuracy"
  bottom: "fc5_classes"
  bottom: "label"
  top: "accuracy_5"
  accuracy_param {
    top_k: 5
  }
}
layer {
  name: "silence"
  type: "Silence"
  bottom: "accuracy_1"
  bottom: "accuracy_5"
}
I0415 23:07:39.368553 18884 layer_factory.hpp:77] Creating layer data
I0415 23:07:39.369622 18884 net.cpp:100] Creating Layer data
I0415 23:07:39.369638 18884 net.cpp:408] data -> data
I0415 23:07:39.369663 18884 net.cpp:408] data -> label
I0415 23:07:39.371873 18994 db_lmdb.cpp:35] Opened lmdb ../local_data/lmdb/rtsd-r3/imajust/train/lmdb
I0415 23:07:39.388908 18884 data_layer.cpp:41] output data size: 1024,3,48,48
I0415 23:07:39.440596 18884 net.cpp:150] Setting up data
I0415 23:07:39.440624 18884 net.cpp:157] Top shape: 1024 3 48 48 (7077888)
I0415 23:07:39.440629 18884 net.cpp:157] Top shape: 1024 (1024)
I0415 23:07:39.440632 18884 net.cpp:165] Memory required for data: 28315648
I0415 23:07:39.440644 18884 layer_factory.hpp:77] Creating layer label_data_1_split
I0415 23:07:39.440657 18884 net.cpp:100] Creating Layer label_data_1_split
I0415 23:07:39.440663 18884 net.cpp:434] label_data_1_split <- label
I0415 23:07:39.440675 18884 net.cpp:408] label_data_1_split -> label_data_1_split_0
I0415 23:07:39.440687 18884 net.cpp:408] label_data_1_split -> label_data_1_split_1
I0415 23:07:39.440698 18884 net.cpp:408] label_data_1_split -> label_data_1_split_2
I0415 23:07:39.440768 18884 net.cpp:150] Setting up label_data_1_split
I0415 23:07:39.440775 18884 net.cpp:157] Top shape: 1024 (1024)
I0415 23:07:39.440779 18884 net.cpp:157] Top shape: 1024 (1024)
I0415 23:07:39.440783 18884 net.cpp:157] Top shape: 1024 (1024)
I0415 23:07:39.440785 18884 net.cpp:165] Memory required for data: 28327936
I0415 23:07:39.440789 18884 layer_factory.hpp:77] Creating layer conv1
I0415 23:07:39.440805 18884 net.cpp:100] Creating Layer conv1
I0415 23:07:39.440810 18884 net.cpp:434] conv1 <- data
I0415 23:07:39.440816 18884 net.cpp:408] conv1 -> conv1
I0415 23:07:39.784510 18884 net.cpp:150] Setting up conv1
I0415 23:07:39.784538 18884 net.cpp:157] Top shape: 1024 100 42 42 (180633600)
I0415 23:07:39.784543 18884 net.cpp:165] Memory required for data: 750862336
I0415 23:07:39.784564 18884 layer_factory.hpp:77] Creating layer conv1_relu
I0415 23:07:39.784576 18884 net.cpp:100] Creating Layer conv1_relu
I0415 23:07:39.784580 18884 net.cpp:434] conv1_relu <- conv1
I0415 23:07:39.784587 18884 net.cpp:395] conv1_relu -> conv1 (in-place)
I0415 23:07:39.784783 18884 net.cpp:150] Setting up conv1_relu
I0415 23:07:39.784795 18884 net.cpp:157] Top shape: 1024 100 42 42 (180633600)
I0415 23:07:39.784798 18884 net.cpp:165] Memory required for data: 1473396736
I0415 23:07:39.784802 18884 layer_factory.hpp:77] Creating layer pool1
I0415 23:07:39.784812 18884 net.cpp:100] Creating Layer pool1
I0415 23:07:39.784817 18884 net.cpp:434] pool1 <- conv1
I0415 23:07:39.784822 18884 net.cpp:408] pool1 -> pool1
I0415 23:07:39.784878 18884 net.cpp:150] Setting up pool1
I0415 23:07:39.784885 18884 net.cpp:157] Top shape: 1024 100 21 21 (45158400)
I0415 23:07:39.784889 18884 net.cpp:165] Memory required for data: 1654030336
I0415 23:07:39.784893 18884 layer_factory.hpp:77] Creating layer conv2
I0415 23:07:39.784903 18884 net.cpp:100] Creating Layer conv2
I0415 23:07:39.784907 18884 net.cpp:434] conv2 <- pool1
I0415 23:07:39.784912 18884 net.cpp:408] conv2 -> conv2
I0415 23:07:39.792852 18884 net.cpp:150] Setting up conv2
I0415 23:07:39.792870 18884 net.cpp:157] Top shape: 1024 150 18 18 (49766400)
I0415 23:07:39.792875 18884 net.cpp:165] Memory required for data: 1853095936
I0415 23:07:39.792884 18884 layer_factory.hpp:77] Creating layer conv2_relu
I0415 23:07:39.792892 18884 net.cpp:100] Creating Layer conv2_relu
I0415 23:07:39.792896 18884 net.cpp:434] conv2_relu <- conv2
I0415 23:07:39.792901 18884 net.cpp:395] conv2_relu -> conv2 (in-place)
I0415 23:07:39.794033 18884 net.cpp:150] Setting up conv2_relu
I0415 23:07:39.794049 18884 net.cpp:157] Top shape: 1024 150 18 18 (49766400)
I0415 23:07:39.794052 18884 net.cpp:165] Memory required for data: 2052161536
I0415 23:07:39.794056 18884 layer_factory.hpp:77] Creating layer pool2
I0415 23:07:39.794064 18884 net.cpp:100] Creating Layer pool2
I0415 23:07:39.794068 18884 net.cpp:434] pool2 <- conv2
I0415 23:07:39.794075 18884 net.cpp:408] pool2 -> pool2
I0415 23:07:39.794128 18884 net.cpp:150] Setting up pool2
I0415 23:07:39.794137 18884 net.cpp:157] Top shape: 1024 150 9 9 (12441600)
I0415 23:07:39.794139 18884 net.cpp:165] Memory required for data: 2101927936
I0415 23:07:39.794143 18884 layer_factory.hpp:77] Creating layer conv3
I0415 23:07:39.794178 18884 net.cpp:100] Creating Layer conv3
I0415 23:07:39.794183 18884 net.cpp:434] conv3 <- pool2
I0415 23:07:39.794188 18884 net.cpp:408] conv3 -> conv3
I0415 23:07:39.800350 18884 net.cpp:150] Setting up conv3
I0415 23:07:39.800374 18884 net.cpp:157] Top shape: 1024 250 6 6 (9216000)
I0415 23:07:39.800377 18884 net.cpp:165] Memory required for data: 2138791936
I0415 23:07:39.800390 18884 layer_factory.hpp:77] Creating layer conv3_relu
I0415 23:07:39.800398 18884 net.cpp:100] Creating Layer conv3_relu
I0415 23:07:39.800402 18884 net.cpp:434] conv3_relu <- conv3
I0415 23:07:39.800407 18884 net.cpp:395] conv3_relu -> conv3 (in-place)
I0415 23:07:39.801615 18884 net.cpp:150] Setting up conv3_relu
I0415 23:07:39.801636 18884 net.cpp:157] Top shape: 1024 250 6 6 (9216000)
I0415 23:07:39.801642 18884 net.cpp:165] Memory required for data: 2175655936
I0415 23:07:39.801650 18884 layer_factory.hpp:77] Creating layer pool3
I0415 23:07:39.801661 18884 net.cpp:100] Creating Layer pool3
I0415 23:07:39.801671 18884 net.cpp:434] pool3 <- conv3
I0415 23:07:39.801681 18884 net.cpp:408] pool3 -> pool3
I0415 23:07:39.801748 18884 net.cpp:150] Setting up pool3
I0415 23:07:39.801759 18884 net.cpp:157] Top shape: 1024 250 3 3 (2304000)
I0415 23:07:39.801765 18884 net.cpp:165] Memory required for data: 2184871936
I0415 23:07:39.801770 18884 layer_factory.hpp:77] Creating layer fc4_300
I0415 23:07:39.801781 18884 net.cpp:100] Creating Layer fc4_300
I0415 23:07:39.801789 18884 net.cpp:434] fc4_300 <- pool3
I0415 23:07:39.801797 18884 net.cpp:408] fc4_300 -> fc4_300
I0415 23:07:39.807760 18884 net.cpp:150] Setting up fc4_300
I0415 23:07:39.807780 18884 net.cpp:157] Top shape: 1024 300 (307200)
I0415 23:07:39.807785 18884 net.cpp:165] Memory required for data: 2186100736
I0415 23:07:39.807797 18884 layer_factory.hpp:77] Creating layer fc4_relu
I0415 23:07:39.807807 18884 net.cpp:100] Creating Layer fc4_relu
I0415 23:07:39.807816 18884 net.cpp:434] fc4_relu <- fc4_300
I0415 23:07:39.807824 18884 net.cpp:395] fc4_relu -> fc4_300 (in-place)
I0415 23:07:39.808020 18884 net.cpp:150] Setting up fc4_relu
I0415 23:07:39.808034 18884 net.cpp:157] Top shape: 1024 300 (307200)
I0415 23:07:39.808040 18884 net.cpp:165] Memory required for data: 2187329536
I0415 23:07:39.808046 18884 layer_factory.hpp:77] Creating layer drop4
I0415 23:07:39.808056 18884 net.cpp:100] Creating Layer drop4
I0415 23:07:39.808064 18884 net.cpp:434] drop4 <- fc4_300
I0415 23:07:39.808073 18884 net.cpp:395] drop4 -> fc4_300 (in-place)
I0415 23:07:39.808111 18884 net.cpp:150] Setting up drop4
I0415 23:07:39.808121 18884 net.cpp:157] Top shape: 1024 300 (307200)
I0415 23:07:39.808127 18884 net.cpp:165] Memory required for data: 2188558336
I0415 23:07:39.808132 18884 layer_factory.hpp:77] Creating layer fc5_106
I0415 23:07:39.808145 18884 net.cpp:100] Creating Layer fc5_106
I0415 23:07:39.808151 18884 net.cpp:434] fc5_106 <- fc4_300
I0415 23:07:39.808161 18884 net.cpp:408] fc5_106 -> fc5_classes
I0415 23:07:39.809701 18884 net.cpp:150] Setting up fc5_106
I0415 23:07:39.809718 18884 net.cpp:157] Top shape: 1024 106 (108544)
I0415 23:07:39.809725 18884 net.cpp:165] Memory required for data: 2188992512
I0415 23:07:39.809741 18884 layer_factory.hpp:77] Creating layer fc5_classes_fc5_106_0_split
I0415 23:07:39.809753 18884 net.cpp:100] Creating Layer fc5_classes_fc5_106_0_split
I0415 23:07:39.809762 18884 net.cpp:434] fc5_classes_fc5_106_0_split <- fc5_classes
I0415 23:07:39.809772 18884 net.cpp:408] fc5_classes_fc5_106_0_split -> fc5_classes_fc5_106_0_split_0
I0415 23:07:39.809784 18884 net.cpp:408] fc5_classes_fc5_106_0_split -> fc5_classes_fc5_106_0_split_1
I0415 23:07:39.809797 18884 net.cpp:408] fc5_classes_fc5_106_0_split -> fc5_classes_fc5_106_0_split_2
I0415 23:07:39.809852 18884 net.cpp:150] Setting up fc5_classes_fc5_106_0_split
I0415 23:07:39.809862 18884 net.cpp:157] Top shape: 1024 106 (108544)
I0415 23:07:39.809870 18884 net.cpp:157] Top shape: 1024 106 (108544)
I0415 23:07:39.809878 18884 net.cpp:157] Top shape: 1024 106 (108544)
I0415 23:07:39.809885 18884 net.cpp:165] Memory required for data: 2190295040
I0415 23:07:39.809912 18884 layer_factory.hpp:77] Creating layer softmax
I0415 23:07:39.809929 18884 net.cpp:100] Creating Layer softmax
I0415 23:07:39.809936 18884 net.cpp:434] softmax <- fc5_classes_fc5_106_0_split_0
I0415 23:07:39.809945 18884 net.cpp:408] softmax -> softmax
I0415 23:07:39.810194 18884 net.cpp:150] Setting up softmax
I0415 23:07:39.810209 18884 net.cpp:157] Top shape: 1024 106 (108544)
I0415 23:07:39.810214 18884 net.cpp:165] Memory required for data: 2190729216
I0415 23:07:39.810220 18884 layer_factory.hpp:77] Creating layer loss
I0415 23:07:39.810230 18884 net.cpp:100] Creating Layer loss
I0415 23:07:39.810237 18884 net.cpp:434] loss <- softmax
I0415 23:07:39.810245 18884 net.cpp:434] loss <- label_data_1_split_0
I0415 23:07:39.810256 18884 net.cpp:408] loss -> loss
…
