…
I0415 05:27:15.404549 27778 solver.cpp:93] Creating training net from train_net file: ./Prototxt/experiment_12/rtsd-r1/histeq/trial_5/train.prototxt
I0415 05:27:15.408679 27778 net.cpp:58] Initializing net from parameters: 
state {
  phase: TRAIN
  level: 0
  stage: ""
}
layer {
  name: "data"
  type: "Data"
  top: "data"
  top: "label"
  include {
    phase: TRAIN
  }
  transform_param {
    scale: 0.0039215689
    mirror: false
    crop_size: 48
    mean_value: 130
    mean_value: 123
    mean_value: 137
  }
  data_param {
    source: "../local_data/lmdb/rtsd-r1/histeq/train/lmdb"
    batch_size: 1024
    backend: LMDB
  }
}
layer {
  name: "conv1"
  type: "Convolution"
  bottom: "data"
  top: "conv1"
  convolution_param {
    num_output: 100
    pad: 0
    kernel_size: 7
    group: 1
    stride: 1
    weight_filler {
      type: "xavier"
    }
  }
}
layer {
  name: "conv1_relu"
  type: "ReLU"
  bottom: "conv1"
  top: "conv1"
}
layer {
  name: "pool1"
  type: "Pooling"
  bottom: "conv1"
  top: "pool1"
  pooling_param {
    pool: MAX
    kernel_size: 2
    stride: 2
  }
}
layer {
  name: "conv2"
  type: "Convolution"
  bottom: "pool1"
  top: "conv2"
  convolution_param {
    num_output: 150
    pad: 0
    kernel_size: 4
    group: 1
    stride: 1
    weight_filler {
      type: "xavier"
    }
  }
}
layer {
  name: "conv2_relu"
  type: "ReLU"
  bottom: "conv2"
  top: "conv2"
}
layer {
  name: "pool2"
  type: "Pooling"
  bottom: "conv2"
  top: "pool2"
  pooling_param {
    pool: MAX
    kernel_size: 2
    stride: 2
  }
}
layer {
  name: "conv3"
  type: "Convolution"
  bottom: "pool2"
  top: "conv3"
  convolution_param {
    num_output: 250
    pad: 0
    kernel_size: 4
    group: 1
    stride: 1
    weight_filler {
      type: "xavier"
    }
  }
}
layer {
  name: "conv3_relu"
  type: "ReLU"
  bottom: "conv3"
  top: "conv3"
}
layer {
  name: "pool3"
  type: "Pooling"
  bottom: "conv3"
  top: "pool3"
  pooling_param {
    pool: MAX
    kernel_size: 2
    stride: 2
  }
}
layer {
  name: "fc4_300"
  type: "InnerProduct"
  bottom: "pool3"
  top: "fc4_300"
  inner_product_param {
    num_output: 300
    weight_filler {
      type: "xavier"
    }
  }
}
layer {
  name: "fc4_relu"
  type: "ReLU"
  bottom: "fc4_300"
  top: "fc4_300"
}
layer {
  name: "drop4"
  type: "Dropout"
  bottom: "fc4_300"
  top: "fc4_300"
  dropout_param {
    dropout_ratio: 0.5
  }
}
layer {
  name: "fc5_67"
  type: "InnerProduct"
  bottom: "fc4_300"
  top: "fc5_classes"
  inner_product_param {
    num_output: 67
    weight_filler {
      type: "xavier"
    }
  }
}
layer {
  name: "softmax"
  type: "Softmax"
  bottom: "fc5_classes"
  top: "softmax"
}
layer {
  name: "loss"
  type: "MultinomialLogisticLoss"
  bottom: "softmax"
  bottom: "label"
  top: "loss"
}
layer {
  name: "accuracy_1"
  type: "Accuracy"
  bottom: "fc5_classes"
  bottom: "label"
  top: "accuracy_1"
  accuracy_param {
    top_k: 1
  }
}
layer {
  name: "accuracy_5"
  type: "Accuracy"
  bottom: "fc5_classes"
  bottom: "label"
  top: "accuracy_5"
  accuracy_param {
    top_k: 5
  }
}
layer {
  name: "silence"
  type: "Silence"
  bottom: "accuracy_1"
  bottom: "accuracy_5"
}
I0415 05:27:15.408818 27778 layer_factory.hpp:77] Creating layer data
I0415 05:27:15.409914 27778 net.cpp:100] Creating Layer data
I0415 05:27:15.409931 27778 net.cpp:408] data -> data
I0415 05:27:15.409955 27778 net.cpp:408] data -> label
I0415 05:27:15.412935 27999 db_lmdb.cpp:35] Opened lmdb ../local_data/lmdb/rtsd-r1/histeq/train/lmdb
I0415 05:27:15.433691 27778 data_layer.cpp:41] output data size: 1024,3,48,48
I0415 05:27:15.480327 27778 net.cpp:150] Setting up data
I0415 05:27:15.480360 27778 net.cpp:157] Top shape: 1024 3 48 48 (7077888)
I0415 05:27:15.480365 27778 net.cpp:157] Top shape: 1024 (1024)
I0415 05:27:15.480367 27778 net.cpp:165] Memory required for data: 28315648
I0415 05:27:15.480378 27778 layer_factory.hpp:77] Creating layer label_data_1_split
I0415 05:27:15.480392 27778 net.cpp:100] Creating Layer label_data_1_split
I0415 05:27:15.480399 27778 net.cpp:434] label_data_1_split <- label
I0415 05:27:15.480412 27778 net.cpp:408] label_data_1_split -> label_data_1_split_0
I0415 05:27:15.480427 27778 net.cpp:408] label_data_1_split -> label_data_1_split_1
I0415 05:27:15.480433 27778 net.cpp:408] label_data_1_split -> label_data_1_split_2
I0415 05:27:15.480526 27778 net.cpp:150] Setting up label_data_1_split
I0415 05:27:15.480535 27778 net.cpp:157] Top shape: 1024 (1024)
I0415 05:27:15.480538 27778 net.cpp:157] Top shape: 1024 (1024)
I0415 05:27:15.480542 27778 net.cpp:157] Top shape: 1024 (1024)
I0415 05:27:15.480545 27778 net.cpp:165] Memory required for data: 28327936
I0415 05:27:15.480548 27778 layer_factory.hpp:77] Creating layer conv1
I0415 05:27:15.480564 27778 net.cpp:100] Creating Layer conv1
I0415 05:27:15.480569 27778 net.cpp:434] conv1 <- data
I0415 05:27:15.480574 27778 net.cpp:408] conv1 -> conv1
I0415 05:27:16.844162 27778 net.cpp:150] Setting up conv1
I0415 05:27:16.844192 27778 net.cpp:157] Top shape: 1024 100 42 42 (180633600)
I0415 05:27:16.844195 27778 net.cpp:165] Memory required for data: 750862336
I0415 05:27:16.844218 27778 layer_factory.hpp:77] Creating layer conv1_relu
I0415 05:27:16.844231 27778 net.cpp:100] Creating Layer conv1_relu
I0415 05:27:16.844238 27778 net.cpp:434] conv1_relu <- conv1
I0415 05:27:16.844244 27778 net.cpp:395] conv1_relu -> conv1 (in-place)
I0415 05:27:16.844439 27778 net.cpp:150] Setting up conv1_relu
I0415 05:27:16.844450 27778 net.cpp:157] Top shape: 1024 100 42 42 (180633600)
I0415 05:27:16.844455 27778 net.cpp:165] Memory required for data: 1473396736
I0415 05:27:16.844458 27778 layer_factory.hpp:77] Creating layer pool1
I0415 05:27:16.844467 27778 net.cpp:100] Creating Layer pool1
I0415 05:27:16.844472 27778 net.cpp:434] pool1 <- conv1
I0415 05:27:16.844477 27778 net.cpp:408] pool1 -> pool1
I0415 05:27:16.844532 27778 net.cpp:150] Setting up pool1
I0415 05:27:16.844539 27778 net.cpp:157] Top shape: 1024 100 21 21 (45158400)
I0415 05:27:16.844542 27778 net.cpp:165] Memory required for data: 1654030336
I0415 05:27:16.844545 27778 layer_factory.hpp:77] Creating layer conv2
I0415 05:27:16.844555 27778 net.cpp:100] Creating Layer conv2
I0415 05:27:16.844560 27778 net.cpp:434] conv2 <- pool1
I0415 05:27:16.844565 27778 net.cpp:408] conv2 -> conv2
I0415 05:27:16.855487 27778 net.cpp:150] Setting up conv2
I0415 05:27:16.855530 27778 net.cpp:157] Top shape: 1024 150 18 18 (49766400)
I0415 05:27:16.855535 27778 net.cpp:165] Memory required for data: 1853095936
I0415 05:27:16.855551 27778 layer_factory.hpp:77] Creating layer conv2_relu
I0415 05:27:16.855561 27778 net.cpp:100] Creating Layer conv2_relu
I0415 05:27:16.855566 27778 net.cpp:434] conv2_relu <- conv2
I0415 05:27:16.855572 27778 net.cpp:395] conv2_relu -> conv2 (in-place)
I0415 05:27:16.856501 27778 net.cpp:150] Setting up conv2_relu
I0415 05:27:16.856516 27778 net.cpp:157] Top shape: 1024 150 18 18 (49766400)
I0415 05:27:16.856531 27778 net.cpp:165] Memory required for data: 2052161536
I0415 05:27:16.856535 27778 layer_factory.hpp:77] Creating layer pool2
I0415 05:27:16.856544 27778 net.cpp:100] Creating Layer pool2
I0415 05:27:16.856549 27778 net.cpp:434] pool2 <- conv2
I0415 05:27:16.856554 27778 net.cpp:408] pool2 -> pool2
I0415 05:27:16.856614 27778 net.cpp:150] Setting up pool2
I0415 05:27:16.856622 27778 net.cpp:157] Top shape: 1024 150 9 9 (12441600)
I0415 05:27:16.856626 27778 net.cpp:165] Memory required for data: 2101927936
I0415 05:27:16.856628 27778 layer_factory.hpp:77] Creating layer conv3
I0415 05:27:16.856667 27778 net.cpp:100] Creating Layer conv3
I0415 05:27:16.856673 27778 net.cpp:434] conv3 <- pool2
I0415 05:27:16.856678 27778 net.cpp:408] conv3 -> conv3
I0415 05:27:16.862563 27778 net.cpp:150] Setting up conv3
I0415 05:27:16.862591 27778 net.cpp:157] Top shape: 1024 250 6 6 (9216000)
I0415 05:27:16.862594 27778 net.cpp:165] Memory required for data: 2138791936
I0415 05:27:16.862607 27778 layer_factory.hpp:77] Creating layer conv3_relu
I0415 05:27:16.862617 27778 net.cpp:100] Creating Layer conv3_relu
I0415 05:27:16.862620 27778 net.cpp:434] conv3_relu <- conv3
I0415 05:27:16.862627 27778 net.cpp:395] conv3_relu -> conv3 (in-place)
I0415 05:27:16.863551 27778 net.cpp:150] Setting up conv3_relu
I0415 05:27:16.863566 27778 net.cpp:157] Top shape: 1024 250 6 6 (9216000)
I0415 05:27:16.863569 27778 net.cpp:165] Memory required for data: 2175655936
I0415 05:27:16.863572 27778 layer_factory.hpp:77] Creating layer pool3
I0415 05:27:16.863592 27778 net.cpp:100] Creating Layer pool3
I0415 05:27:16.863596 27778 net.cpp:434] pool3 <- conv3
I0415 05:27:16.863601 27778 net.cpp:408] pool3 -> pool3
I0415 05:27:16.863649 27778 net.cpp:150] Setting up pool3
I0415 05:27:16.863657 27778 net.cpp:157] Top shape: 1024 250 3 3 (2304000)
I0415 05:27:16.863661 27778 net.cpp:165] Memory required for data: 2184871936
I0415 05:27:16.863663 27778 layer_factory.hpp:77] Creating layer fc4_300
I0415 05:27:16.863670 27778 net.cpp:100] Creating Layer fc4_300
I0415 05:27:16.863675 27778 net.cpp:434] fc4_300 <- pool3
I0415 05:27:16.863679 27778 net.cpp:408] fc4_300 -> fc4_300
I0415 05:27:16.869166 27778 net.cpp:150] Setting up fc4_300
I0415 05:27:16.869192 27778 net.cpp:157] Top shape: 1024 300 (307200)
I0415 05:27:16.869195 27778 net.cpp:165] Memory required for data: 2186100736
I0415 05:27:16.869205 27778 layer_factory.hpp:77] Creating layer fc4_relu
I0415 05:27:16.869215 27778 net.cpp:100] Creating Layer fc4_relu
I0415 05:27:16.869218 27778 net.cpp:434] fc4_relu <- fc4_300
I0415 05:27:16.869225 27778 net.cpp:395] fc4_relu -> fc4_300 (in-place)
I0415 05:27:16.869451 27778 net.cpp:150] Setting up fc4_relu
I0415 05:27:16.869462 27778 net.cpp:157] Top shape: 1024 300 (307200)
I0415 05:27:16.869467 27778 net.cpp:165] Memory required for data: 2187329536
I0415 05:27:16.869470 27778 layer_factory.hpp:77] Creating layer drop4
I0415 05:27:16.869477 27778 net.cpp:100] Creating Layer drop4
I0415 05:27:16.869482 27778 net.cpp:434] drop4 <- fc4_300
I0415 05:27:16.869487 27778 net.cpp:395] drop4 -> fc4_300 (in-place)
I0415 05:27:16.869518 27778 net.cpp:150] Setting up drop4
I0415 05:27:16.869524 27778 net.cpp:157] Top shape: 1024 300 (307200)
I0415 05:27:16.869527 27778 net.cpp:165] Memory required for data: 2188558336
I0415 05:27:16.869530 27778 layer_factory.hpp:77] Creating layer fc5_67
I0415 05:27:16.869536 27778 net.cpp:100] Creating Layer fc5_67
I0415 05:27:16.869541 27778 net.cpp:434] fc5_67 <- fc4_300
I0415 05:27:16.869545 27778 net.cpp:408] fc5_67 -> fc5_classes
I0415 05:27:16.871804 27778 net.cpp:150] Setting up fc5_67
I0415 05:27:16.871821 27778 net.cpp:157] Top shape: 1024 67 (68608)
I0415 05:27:16.871824 27778 net.cpp:165] Memory required for data: 2188832768
I0415 05:27:16.871837 27778 layer_factory.hpp:77] Creating layer fc5_classes_fc5_67_0_split
I0415 05:27:16.871845 27778 net.cpp:100] Creating Layer fc5_classes_fc5_67_0_split
I0415 05:27:16.871850 27778 net.cpp:434] fc5_classes_fc5_67_0_split <- fc5_classes
I0415 05:27:16.871855 27778 net.cpp:408] fc5_classes_fc5_67_0_split -> fc5_classes_fc5_67_0_split_0
I0415 05:27:16.871863 27778 net.cpp:408] fc5_classes_fc5_67_0_split -> fc5_classes_fc5_67_0_split_1
I0415 05:27:16.871870 27778 net.cpp:408] fc5_classes_fc5_67_0_split -> fc5_classes_fc5_67_0_split_2
I0415 05:27:16.871937 27778 net.cpp:150] Setting up fc5_classes_fc5_67_0_split
I0415 05:27:16.871944 27778 net.cpp:157] Top shape: 1024 67 (68608)
I0415 05:27:16.871948 27778 net.cpp:157] Top shape: 1024 67 (68608)
I0415 05:27:16.871951 27778 net.cpp:157] Top shape: 1024 67 (68608)
I0415 05:27:16.871954 27778 net.cpp:165] Memory required for data: 2189656064
I0415 05:27:16.871974 27778 layer_factory.hpp:77] Creating layer softmax
I0415 05:27:16.871984 27778 net.cpp:100] Creating Layer softmax
I0415 05:27:16.871989 27778 net.cpp:434] softmax <- fc5_classes_fc5_67_0_split_0
I0415 05:27:16.871995 27778 net.cpp:408] softmax -> softmax
I0415 05:27:16.872269 27778 net.cpp:150] Setting up softmax
I0415 05:27:16.872282 27778 net.cpp:157] Top shape: 1024 67 (68608)
I0415 05:27:16.872285 27778 net.cpp:165] Memory required for data: 2189930496
I0415 05:27:16.872288 27778 layer_factory.hpp:77] Creating layer loss
I0415 05:27:16.872295 27778 net.cpp:100] Creating Layer loss
I0415 05:27:16.872299 27778 net.cpp:434] loss <- softmax
I0415 05:27:16.872303 27778 net.cpp:434] loss <- label_data_1_split_0
I0415 05:27:16.872308 27778 net.cpp:408] loss -> loss
…
