…
I0404 06:49:13.244735 15333 net.cpp:322] The NetState phase (0) differed from the phase (1) specified by a rule in layer accuracy_1
I0404 06:49:13.244766 15333 net.cpp:322] The NetState phase (0) differed from the phase (1) specified by a rule in layer accuracy_5
I0404 06:49:13.245013 15333 net.cpp:58] Initializing net from parameters: 
state {
  phase: TRAIN
  level: 0
  stage: ""
}
layer {
  name: "data"
  type: "Data"
  top: "data"
  top: "label"
  include {
    phase: TRAIN
  }
  transform_param {
    mirror: false
    crop_size: 48
  }
  data_param {
    source: "../local_data/lmdb/rtsd-r1/histeq/train/lmdb"
    batch_size: 1024
    backend: LMDB
  }
}
layer {
  name: "conv1"
  type: "Convolution"
  bottom: "data"
  top: "conv1"
  convolution_param {
    num_output: 100
    pad: 0
    kernel_size: 7
    group: 1
    stride: 1
    weight_filler {
      type: "xavier"
    }
  }
}
layer {
  name: "conv1_prescale"
  type: "Scale"
  bottom: "conv1"
  top: "conv1"
  param {
    lr_mult: 0
    decay_mult: 0
  }
  scale_param {
    filler {
      value: 0.6666
    }
  }
}
layer {
  name: "conv1_sTanH"
  type: "TanH"
  bottom: "conv1"
  top: "conv1"
}
layer {
  name: "conv1_postscale"
  type: "Scale"
  bottom: "conv1"
  top: "conv1"
  param {
    lr_mult: 0
    decay_mult: 0
  }
  scale_param {
    filler {
      value: 1.7159
    }
  }
}
layer {
  name: "pool1"
  type: "Pooling"
  bottom: "conv1"
  top: "pool1"
  pooling_param {
    pool: MAX
    kernel_size: 2
    stride: 2
  }
}
layer {
  name: "conv2"
  type: "Convolution"
  bottom: "pool1"
  top: "conv2"
  convolution_param {
    num_output: 150
    pad: 0
    kernel_size: 4
    group: 1
    stride: 1
    weight_filler {
      type: "xavier"
    }
  }
}
layer {
  name: "conv2_prescale"
  type: "Scale"
  bottom: "conv2"
  top: "conv2"
  param {
    lr_mult: 0
    decay_mult: 0
  }
  scale_param {
    filler {
      value: 0.6666
    }
  }
}
layer {
  name: "conv2_sTanH"
  type: "TanH"
  bottom: "conv2"
  top: "conv2"
}
layer {
  name: "conv2_postscale"
  type: "Scale"
  bottom: "conv2"
  top: "conv2"
  param {
    lr_mult: 0
    decay_mult: 0
  }
  scale_param {
    filler {
      value: 1.7159
    }
  }
}
layer {
  name: "pool2"
  type: "Pooling"
  bottom: "conv2"
  top: "pool2"
  pooling_param {
    pool: MAX
    kernel_size: 2
    stride: 2
  }
}
layer {
  name: "conv3"
  type: "Convolution"
  bottom: "pool2"
  top: "conv3"
  convolution_param {
    num_output: 250
    pad: 0
    kernel_size: 4
    group: 1
    stride: 1
    weight_filler {
      type: "xavier"
    }
  }
}
layer {
  name: "conv3_prescale"
  type: "Scale"
  bottom: "conv3"
  top: "conv3"
  param {
    lr_mult: 0
    decay_mult: 0
  }
  scale_param {
    filler {
      value: 0.6666
    }
  }
}
layer {
  name: "conv3_sTanH"
  type: "TanH"
  bottom: "conv3"
  top: "conv3"
}
layer {
  name: "conv3_postscale"
  type: "Scale"
  bottom: "conv3"
  top: "conv3"
  param {
    lr_mult: 0
    decay_mult: 0
  }
  scale_param {
    filler {
      value: 1.7159
    }
  }
}
layer {
  name: "pool3"
  type: "Pooling"
  bottom: "conv3"
  top: "pool3"
  pooling_param {
    pool: MAX
    kernel_size: 2
    stride: 2
  }
}
layer {
  name: "fc4_300"
  type: "InnerProduct"
  bottom: "pool3"
  top: "fc4_300"
  inner_product_param {
    num_output: 300
    weight_filler {
      type: "xavier"
    }
  }
}
layer {
  name: "fc4_relu"
  type: "ReLU"
  bottom: "fc4_300"
  top: "fc4_300"
}
layer {
  name: "drop4"
  type: "Dropout"
  bottom: "fc4_300"
  top: "fc4_300"
  dropout_param {
    dropout_ratio: 0.4
  }
}
layer {
  name: "fc5_67"
  type: "InnerProduct"
  bottom: "fc4_300"
  top: "fc5_classes"
  inner_product_param {
    num_output: 67
    weight_filler {
      type: "xavier"
    }
  }
}
layer {
  name: "loss"
  type: "SoftmaxWithLoss"
  bottom: "fc5_classes"
  bottom: "label"
  top: "loss"
}
I0404 06:49:13.245183 15333 layer_factory.hpp:77] Creating layer data
I0404 06:49:13.247088 15333 net.cpp:100] Creating Layer data
I0404 06:49:13.247120 15333 net.cpp:408] data -> data
I0404 06:49:13.247162 15333 net.cpp:408] data -> label
I0404 06:49:13.682196 15430 db_lmdb.cpp:35] Opened lmdb ../local_data/lmdb/rtsd-r1/histeq/train/lmdb
I0404 06:49:13.868192 15333 data_layer.cpp:41] output data size: 1024,3,48,48
I0404 06:49:13.923352 15333 net.cpp:150] Setting up data
I0404 06:49:13.923389 15333 net.cpp:157] Top shape: 1024 3 48 48 (7077888)
I0404 06:49:13.923398 15333 net.cpp:157] Top shape: 1024 (1024)
I0404 06:49:13.923400 15333 net.cpp:165] Memory required for data: 28315648
I0404 06:49:13.923418 15333 layer_factory.hpp:77] Creating layer conv1
I0404 06:49:13.923447 15333 net.cpp:100] Creating Layer conv1
I0404 06:49:13.923456 15333 net.cpp:434] conv1 <- data
I0404 06:49:13.923477 15333 net.cpp:408] conv1 -> conv1
I0404 06:49:13.930168 15459 blocking_queue.cpp:50] Waiting for data
I0404 06:49:14.230798 15333 net.cpp:150] Setting up conv1
I0404 06:49:14.230828 15333 net.cpp:157] Top shape: 1024 100 42 42 (180633600)
I0404 06:49:14.230834 15333 net.cpp:165] Memory required for data: 750850048
I0404 06:49:14.230857 15333 layer_factory.hpp:77] Creating layer conv1_prescale
I0404 06:49:14.230875 15333 net.cpp:100] Creating Layer conv1_prescale
I0404 06:49:14.230881 15333 net.cpp:434] conv1_prescale <- conv1
I0404 06:49:14.230890 15333 net.cpp:395] conv1_prescale -> conv1 (in-place)
I0404 06:49:14.231011 15333 net.cpp:150] Setting up conv1_prescale
I0404 06:49:14.231021 15333 net.cpp:157] Top shape: 1024 100 42 42 (180633600)
I0404 06:49:14.231025 15333 net.cpp:165] Memory required for data: 1473384448
I0404 06:49:14.231034 15333 layer_factory.hpp:77] Creating layer conv1_sTanH
I0404 06:49:14.231042 15333 net.cpp:100] Creating Layer conv1_sTanH
I0404 06:49:14.231047 15333 net.cpp:434] conv1_sTanH <- conv1
I0404 06:49:14.231052 15333 net.cpp:395] conv1_sTanH -> conv1 (in-place)
I0404 06:49:14.231267 15333 net.cpp:150] Setting up conv1_sTanH
I0404 06:49:14.231281 15333 net.cpp:157] Top shape: 1024 100 42 42 (180633600)
I0404 06:49:14.231287 15333 net.cpp:165] Memory required for data: 2195918848
I0404 06:49:14.231290 15333 layer_factory.hpp:77] Creating layer conv1_postscale
I0404 06:49:14.231299 15333 net.cpp:100] Creating Layer conv1_postscale
I0404 06:49:14.231304 15333 net.cpp:434] conv1_postscale <- conv1
I0404 06:49:14.231310 15333 net.cpp:395] conv1_postscale -> conv1 (in-place)
I0404 06:49:14.231415 15333 net.cpp:150] Setting up conv1_postscale
I0404 06:49:14.231426 15333 net.cpp:157] Top shape: 1024 100 42 42 (180633600)
I0404 06:49:14.231428 15333 net.cpp:165] Memory required for data: 2918453248
I0404 06:49:14.231434 15333 layer_factory.hpp:77] Creating layer pool1
I0404 06:49:14.231443 15333 net.cpp:100] Creating Layer pool1
I0404 06:49:14.231449 15333 net.cpp:434] pool1 <- conv1
I0404 06:49:14.231454 15333 net.cpp:408] pool1 -> pool1
I0404 06:49:14.231505 15333 net.cpp:150] Setting up pool1
I0404 06:49:14.231514 15333 net.cpp:157] Top shape: 1024 100 21 21 (45158400)
I0404 06:49:14.231518 15333 net.cpp:165] Memory required for data: 3099086848
I0404 06:49:14.231521 15333 layer_factory.hpp:77] Creating layer conv2
I0404 06:49:14.231531 15333 net.cpp:100] Creating Layer conv2
I0404 06:49:14.231536 15333 net.cpp:434] conv2 <- pool1
I0404 06:49:14.231542 15333 net.cpp:408] conv2 -> conv2
I0404 06:49:14.236526 15333 net.cpp:150] Setting up conv2
I0404 06:49:14.236546 15333 net.cpp:157] Top shape: 1024 150 18 18 (49766400)
I0404 06:49:14.236572 15333 net.cpp:165] Memory required for data: 3298152448
I0404 06:49:14.236585 15333 layer_factory.hpp:77] Creating layer conv2_prescale
I0404 06:49:14.236595 15333 net.cpp:100] Creating Layer conv2_prescale
I0404 06:49:14.236598 15333 net.cpp:434] conv2_prescale <- conv2
I0404 06:49:14.236604 15333 net.cpp:395] conv2_prescale -> conv2 (in-place)
I0404 06:49:14.236717 15333 net.cpp:150] Setting up conv2_prescale
I0404 06:49:14.236727 15333 net.cpp:157] Top shape: 1024 150 18 18 (49766400)
I0404 06:49:14.236730 15333 net.cpp:165] Memory required for data: 3497218048
I0404 06:49:14.236735 15333 layer_factory.hpp:77] Creating layer conv2_sTanH
I0404 06:49:14.236743 15333 net.cpp:100] Creating Layer conv2_sTanH
I0404 06:49:14.236747 15333 net.cpp:434] conv2_sTanH <- conv2
I0404 06:49:14.236752 15333 net.cpp:395] conv2_sTanH -> conv2 (in-place)
I0404 06:49:14.237643 15333 net.cpp:150] Setting up conv2_sTanH
I0404 06:49:14.237658 15333 net.cpp:157] Top shape: 1024 150 18 18 (49766400)
I0404 06:49:14.237665 15333 net.cpp:165] Memory required for data: 3696283648
I0404 06:49:14.237669 15333 layer_factory.hpp:77] Creating layer conv2_postscale
I0404 06:49:14.237678 15333 net.cpp:100] Creating Layer conv2_postscale
I0404 06:49:14.237681 15333 net.cpp:434] conv2_postscale <- conv2
I0404 06:49:14.237687 15333 net.cpp:395] conv2_postscale -> conv2 (in-place)
I0404 06:49:14.237787 15333 net.cpp:150] Setting up conv2_postscale
I0404 06:49:14.237797 15333 net.cpp:157] Top shape: 1024 150 18 18 (49766400)
I0404 06:49:14.237799 15333 net.cpp:165] Memory required for data: 3895349248
I0404 06:49:14.237805 15333 layer_factory.hpp:77] Creating layer pool2
I0404 06:49:14.237812 15333 net.cpp:100] Creating Layer pool2
I0404 06:49:14.237814 15333 net.cpp:434] pool2 <- conv2
I0404 06:49:14.237820 15333 net.cpp:408] pool2 -> pool2
I0404 06:49:14.237861 15333 net.cpp:150] Setting up pool2
I0404 06:49:14.237869 15333 net.cpp:157] Top shape: 1024 150 9 9 (12441600)
I0404 06:49:14.237872 15333 net.cpp:165] Memory required for data: 3945115648
I0404 06:49:14.237875 15333 layer_factory.hpp:77] Creating layer conv3
I0404 06:49:14.237884 15333 net.cpp:100] Creating Layer conv3
I0404 06:49:14.237889 15333 net.cpp:434] conv3 <- pool2
I0404 06:49:14.237893 15333 net.cpp:408] conv3 -> conv3
I0404 06:49:14.244033 15333 net.cpp:150] Setting up conv3
I0404 06:49:14.244053 15333 net.cpp:157] Top shape: 1024 250 6 6 (9216000)
I0404 06:49:14.244057 15333 net.cpp:165] Memory required for data: 3981979648
I0404 06:49:14.244068 15333 layer_factory.hpp:77] Creating layer conv3_prescale
I0404 06:49:14.244078 15333 net.cpp:100] Creating Layer conv3_prescale
I0404 06:49:14.244084 15333 net.cpp:434] conv3_prescale <- conv3
I0404 06:49:14.244091 15333 net.cpp:395] conv3_prescale -> conv3 (in-place)
I0404 06:49:14.244187 15333 net.cpp:150] Setting up conv3_prescale
I0404 06:49:14.244197 15333 net.cpp:157] Top shape: 1024 250 6 6 (9216000)
I0404 06:49:14.244200 15333 net.cpp:165] Memory required for data: 4018843648
I0404 06:49:14.244206 15333 layer_factory.hpp:77] Creating layer conv3_sTanH
I0404 06:49:14.244211 15333 net.cpp:100] Creating Layer conv3_sTanH
I0404 06:49:14.244215 15333 net.cpp:434] conv3_sTanH <- conv3
I0404 06:49:14.244220 15333 net.cpp:395] conv3_sTanH -> conv3 (in-place)
I0404 06:49:14.245017 15333 net.cpp:150] Setting up conv3_sTanH
I0404 06:49:14.245034 15333 net.cpp:157] Top shape: 1024 250 6 6 (9216000)
I0404 06:49:14.245038 15333 net.cpp:165] Memory required for data: 4055707648
I0404 06:49:14.245043 15333 layer_factory.hpp:77] Creating layer conv3_postscale
I0404 06:49:14.245050 15333 net.cpp:100] Creating Layer conv3_postscale
I0404 06:49:14.245054 15333 net.cpp:434] conv3_postscale <- conv3
I0404 06:49:14.245060 15333 net.cpp:395] conv3_postscale -> conv3 (in-place)
I0404 06:49:14.245157 15333 net.cpp:150] Setting up conv3_postscale
I0404 06:49:14.245167 15333 net.cpp:157] Top shape: 1024 250 6 6 (9216000)
I0404 06:49:14.245169 15333 net.cpp:165] Memory required for data: 4092571648
I0404 06:49:14.245174 15333 layer_factory.hpp:77] Creating layer pool3
I0404 06:49:14.245196 15333 net.cpp:100] Creating Layer pool3
I0404 06:49:14.245200 15333 net.cpp:434] pool3 <- conv3
I0404 06:49:14.245205 15333 net.cpp:408] pool3 -> pool3
I0404 06:49:14.245246 15333 net.cpp:150] Setting up pool3
I0404 06:49:14.245255 15333 net.cpp:157] Top shape: 1024 250 3 3 (2304000)
I0404 06:49:14.245259 15333 net.cpp:165] Memory required for data: 4101787648
I0404 06:49:14.245261 15333 layer_factory.hpp:77] Creating layer fc4_300
I0404 06:49:14.245270 15333 net.cpp:100] Creating Layer fc4_300
I0404 06:49:14.245275 15333 net.cpp:434] fc4_300 <- pool3
I0404 06:49:14.245280 15333 net.cpp:408] fc4_300 -> fc4_300
I0404 06:49:14.250887 15333 net.cpp:150] Setting up fc4_300
I0404 06:49:14.250906 15333 net.cpp:157] Top shape: 1024 300 (307200)
I0404 06:49:14.250910 15333 net.cpp:165] Memory required for data: 4103016448
I0404 06:49:14.250917 15333 layer_factory.hpp:77] Creating layer fc4_relu
I0404 06:49:14.250924 15333 net.cpp:100] Creating Layer fc4_relu
I0404 06:49:14.250928 15333 net.cpp:434] fc4_relu <- fc4_300
I0404 06:49:14.250934 15333 net.cpp:395] fc4_relu -> fc4_300 (in-place)
I0404 06:49:14.251117 15333 net.cpp:150] Setting up fc4_relu
I0404 06:49:14.251129 15333 net.cpp:157] Top shape: 1024 300 (307200)
I0404 06:49:14.251132 15333 net.cpp:165] Memory required for data: 4104245248
I0404 06:49:14.251137 15333 layer_factory.hpp:77] Creating layer drop4
I0404 06:49:14.251143 15333 net.cpp:100] Creating Layer drop4
I0404 06:49:14.251147 15333 net.cpp:434] drop4 <- fc4_300
I0404 06:49:14.251152 15333 net.cpp:395] drop4 -> fc4_300 (in-place)
I0404 06:49:14.251183 15333 net.cpp:150] Setting up drop4
I0404 06:49:14.251191 15333 net.cpp:157] Top shape: 1024 300 (307200)
I0404 06:49:14.251194 15333 net.cpp:165] Memory required for data: 4105474048
I0404 06:49:14.251199 15333 layer_factory.hpp:77] Creating layer fc5_67
I0404 06:49:14.251204 15333 net.cpp:100] Creating Layer fc5_67
I0404 06:49:14.251207 15333 net.cpp:434] fc5_67 <- fc4_300
I0404 06:49:14.251212 15333 net.cpp:408] fc5_67 -> fc5_classes
I0404 06:49:14.252481 15333 net.cpp:150] Setting up fc5_67
I0404 06:49:14.252497 15333 net.cpp:157] Top shape: 1024 67 (68608)
I0404 06:49:14.252501 15333 net.cpp:165] Memory required for data: 4105748480
I0404 06:49:14.252509 15333 layer_factory.hpp:77] Creating layer loss
I0404 06:49:14.252516 15333 net.cpp:100] Creating Layer loss
I0404 06:49:14.252519 15333 net.cpp:434] loss <- fc5_classes
I0404 06:49:14.252524 15333 net.cpp:434] loss <- label
I0404 06:49:14.252531 15333 net.cpp:408] loss -> loss
I0404 06:49:14.252543 15333 layer_factory.hpp:77] Creating layer loss
…
I0404 06:49:14.253010 15333 net.cpp:283] Network initialization done.
I0404 06:49:14.285002 15333 solver.cpp:193] Creating test net (#0) specified by test_net file: ./Prototxt/experiment_5/rtsd-r1/histeq/test.prototxt
I0404 06:49:14.285307 15333 net.cpp:58] Initializing net from parameters: 
state {
  phase: TEST
}
layer {
  name: "data"
  type: "Data"
  top: "data"
  top: "label"
  include {
    phase: TEST
  }
  transform_param {
    mirror: false
    crop_size: 48
  }
  data_param {
    source: "../local_data/lmdb/rtsd-r1/histeq/test/lmdb"
    batch_size: 1024
    backend: LMDB
  }
}
layer {
  name: "conv1"
  type: "Convolution"
  bottom: "data"
  top: "conv1"
  convolution_param {
    num_output: 100
    pad: 0
    kernel_size: 7
    group: 1
    stride: 1
    weight_filler {
      type: "xavier"
    }
  }
}
layer {
  name: "conv1_prescale"
  type: "Scale"
  bottom: "conv1"
  top: "conv1"
  param {
    lr_mult: 0
    decay_mult: 0
  }
  scale_param {
    filler {
      value: 0.6666
    }
  }
}
layer {
  name: "conv1_sTanH"
  type: "TanH"
  bottom: "conv1"
  top: "conv1"
}
layer {
  name: "conv1_postscale"
  type: "Scale"
  bottom: "conv1"
  top: "conv1"
  param {
    lr_mult: 0
    decay_mult: 0
  }
  scale_param {
    filler {
      value: 1.7159
    }
  }
}
layer {
  name: "pool1"
  type: "Pooling"
  bottom: "conv1"
  top: "pool1"
  pooling_param {
    pool: MAX
    kernel_size: 2
    stride: 2
  }
}
layer {
  name: "conv2"
  type: "Convolution"
  bottom: "pool1"
  top: "conv2"
  convolution_param {
    num_output: 150
    pad: 0
    kernel_size: 4
    group: 1
    stride: 1
    weight_filler {
      type: "xavier"
    }
  }
}
layer {
  name: "conv2_prescale"
  type: "Scale"
  bottom: "conv2"
  top: "conv2"
  param {
    lr_mult: 0
    decay_mult: 0
  }
  scale_param {
    filler {
      value: 0.6666
    }
  }
}
layer {
  name: "conv2_sTanH"
  type: "TanH"
  bottom: "conv2"
  top: "conv2"
}
layer {
  name: "conv2_postscale"
  type: "Scale"
  bottom: "conv2"
  top: "conv2"
  param {
    lr_mult: 0
    decay_mult: 0
  }
  scale_param {
    filler {
      value: 1.7159
    }
  }
}
layer {
  name: "pool2"
  type: "Pooling"
  bottom: "conv2"
  top: "pool2"
  pooling_param {
    pool: MAX
    kernel_size: 2
    stride: 2
  }
}
layer {
  name: "conv3"
  type: "Convolution"
  bottom: "pool2"
  top: "conv3"
  convolution_param {
    num_output: 250
    pad: 0
    kernel_size: 4
    group: 1
    stride: 1
    weight_filler {
      type: "xavier"
    }
  }
}
layer {
  name: "conv3_prescale"
  type: "Scale"
  bottom: "conv3"
  top: "conv3"
  param {
    lr_mult: 0
    decay_mult: 0
  }
  scale_param {
    filler {
      value: 0.6666
    }
  }
}
layer {
  name: "conv3_sTanH"
  type: "TanH"
  bottom: "conv3"
  top: "conv3"
}
layer {
  name: "conv3_postscale"
  type: "Scale"
  bottom: "conv3"
  top: "conv3"
  param {
    lr_mult: 0
    decay_mult: 0
  }
  scale_param {
    filler {
      value: 1.7159
    }
  }
}
layer {
  name: "pool3"
  type: "Pooling"
  bottom: "conv3"
  top: "pool3"
  pooling_param {
    pool: MAX
    kernel_size: 2
    stride: 2
  }
}
layer {
  name: "fc4_300"
  type: "InnerProduct"
  bottom: "pool3"
  top: "fc4_300"
  inner_product_param {
    num_output: 300
    weight_filler {
      type: "xavier"
    }
  }
}
layer {
  name: "fc4_relu"
  type: "ReLU"
  bottom: "fc4_300"
  top: "fc4_300"
}
layer {
  name: "drop4"
  type: "Dropout"
  bottom: "fc4_300"
  top: "fc4_300"
  dropout_param {
    dropout_ratio: 0.4
  }
}
layer {
  name: "fc5_67"
  type: "InnerProduct"
  bottom: "fc4_300"
  top: "fc5_classes"
  inner_product_param {
    num_output: 67
    weight_filler {
      type: "xavier"
    }
  }
}
layer {
  name: "loss"
  type: "SoftmaxWithLoss"
  bottom: "fc5_classes"
  bottom: "label"
  top: "loss"
}
layer {
  name: "accuracy_1"
  type: "Accuracy"
  bottom: "fc5_classes"
  bottom: "label"
  top: "accuracy_1"
  include {
    phase: TEST
  }
  accuracy_param {
    top_k: 1
  }
}
layer {
  name: "accuracy_5"
  type: "Accuracy"
  bottom: "fc5_classes"
  bottom: "label"
  top: "accuracy_5"
  include {
    phase: TEST
  }
  accuracy_param {
    top_k: 5
  }
}
I0404 06:49:14.285501 15333 layer_factory.hpp:77] Creating layer data
I0404 06:49:14.286569 15333 net.cpp:100] Creating Layer data
I0404 06:49:14.286588 15333 net.cpp:408] data -> data
I0404 06:49:14.286607 15333 net.cpp:408] data -> label
I0404 06:49:14.461987 15469 db_lmdb.cpp:35] Opened lmdb ../local_data/lmdb/rtsd-r1/histeq/test/lmdb
I0404 06:49:14.493139 15333 data_layer.cpp:41] output data size: 1024,3,48,48
I0404 06:49:14.550786 15333 net.cpp:150] Setting up data
I0404 06:49:14.550819 15333 net.cpp:157] Top shape: 1024 3 48 48 (7077888)
I0404 06:49:14.550827 15333 net.cpp:157] Top shape: 1024 (1024)
I0404 06:49:14.550832 15333 net.cpp:165] Memory required for data: 28315648
I0404 06:49:14.550839 15333 layer_factory.hpp:77] Creating layer label_data_1_split
I0404 06:49:14.550858 15333 net.cpp:100] Creating Layer label_data_1_split
I0404 06:49:14.550865 15333 net.cpp:434] label_data_1_split <- label
I0404 06:49:14.550875 15333 net.cpp:408] label_data_1_split -> label_data_1_split_0
I0404 06:49:14.550891 15333 net.cpp:408] label_data_1_split -> label_data_1_split_1
I0404 06:49:14.550901 15333 net.cpp:408] label_data_1_split -> label_data_1_split_2
I0404 06:49:14.551074 15333 net.cpp:150] Setting up label_data_1_split
I0404 06:49:14.551086 15333 net.cpp:157] Top shape: 1024 (1024)
I0404 06:49:14.551093 15333 net.cpp:157] Top shape: 1024 (1024)
I0404 06:49:14.551098 15333 net.cpp:157] Top shape: 1024 (1024)
I0404 06:49:14.551101 15333 net.cpp:165] Memory required for data: 28327936
I0404 06:49:14.551106 15333 layer_factory.hpp:77] Creating layer conv1
I0404 06:49:14.551122 15333 net.cpp:100] Creating Layer conv1
I0404 06:49:14.551128 15333 net.cpp:434] conv1 <- data
I0404 06:49:14.551136 15333 net.cpp:408] conv1 -> conv1
I0404 06:49:14.554263 15333 net.cpp:150] Setting up conv1
I0404 06:49:14.554296 15333 net.cpp:157] Top shape: 1024 100 42 42 (180633600)
I0404 06:49:14.554306 15333 net.cpp:165] Memory required for data: 750862336
I0404 06:49:14.554327 15333 layer_factory.hpp:77] Creating layer conv1_prescale
I0404 06:49:14.554345 15333 net.cpp:100] Creating Layer conv1_prescale
I0404 06:49:14.554354 15333 net.cpp:434] conv1_prescale <- conv1
I0404 06:49:14.554365 15333 net.cpp:395] conv1_prescale -> conv1 (in-place)
I0404 06:49:14.554641 15333 net.cpp:150] Setting up conv1_prescale
I0404 06:49:14.554659 15333 net.cpp:157] Top shape: 1024 100 42 42 (180633600)
I0404 06:49:14.554666 15333 net.cpp:165] Memory required for data: 1473396736
I0404 06:49:14.554680 15333 layer_factory.hpp:77] Creating layer conv1_sTanH
I0404 06:49:14.554694 15333 net.cpp:100] Creating Layer conv1_sTanH
I0404 06:49:14.554703 15333 net.cpp:434] conv1_sTanH <- conv1
I0404 06:49:14.554711 15333 net.cpp:395] conv1_sTanH -> conv1 (in-place)
I0404 06:49:14.557271 15333 net.cpp:150] Setting up conv1_sTanH
I0404 06:49:14.557303 15333 net.cpp:157] Top shape: 1024 100 42 42 (180633600)
I0404 06:49:14.557312 15333 net.cpp:165] Memory required for data: 2195931136
I0404 06:49:14.557319 15333 layer_factory.hpp:77] Creating layer conv1_postscale
I0404 06:49:14.557337 15333 net.cpp:100] Creating Layer conv1_postscale
I0404 06:49:14.557348 15333 net.cpp:434] conv1_postscale <- conv1
I0404 06:49:14.557361 15333 net.cpp:395] conv1_postscale -> conv1 (in-place)
I0404 06:49:14.557557 15333 net.cpp:150] Setting up conv1_postscale
I0404 06:49:14.557572 15333 net.cpp:157] Top shape: 1024 100 42 42 (180633600)
I0404 06:49:14.557580 15333 net.cpp:165] Memory required for data: 2918465536
I0404 06:49:14.557623 15333 layer_factory.hpp:77] Creating layer pool1
I0404 06:49:14.557641 15333 net.cpp:100] Creating Layer pool1
I0404 06:49:14.557649 15333 net.cpp:434] pool1 <- conv1
I0404 06:49:14.557658 15333 net.cpp:408] pool1 -> pool1
I0404 06:49:14.557735 15333 net.cpp:150] Setting up pool1
I0404 06:49:14.557749 15333 net.cpp:157] Top shape: 1024 100 21 21 (45158400)
I0404 06:49:14.557756 15333 net.cpp:165] Memory required for data: 3099099136
I0404 06:49:14.557762 15333 layer_factory.hpp:77] Creating layer conv2
I0404 06:49:14.557780 15333 net.cpp:100] Creating Layer conv2
I0404 06:49:14.557788 15333 net.cpp:434] conv2 <- pool1
I0404 06:49:14.557801 15333 net.cpp:408] conv2 -> conv2
I0404 06:49:14.564658 15333 net.cpp:150] Setting up conv2
I0404 06:49:14.564687 15333 net.cpp:157] Top shape: 1024 150 18 18 (49766400)
I0404 06:49:14.564695 15333 net.cpp:165] Memory required for data: 3298164736
I0404 06:49:14.564713 15333 layer_factory.hpp:77] Creating layer conv2_prescale
I0404 06:49:14.564731 15333 net.cpp:100] Creating Layer conv2_prescale
I0404 06:49:14.564740 15333 net.cpp:434] conv2_prescale <- conv2
I0404 06:49:14.564750 15333 net.cpp:395] conv2_prescale -> conv2 (in-place)
I0404 06:49:14.564924 15333 net.cpp:150] Setting up conv2_prescale
I0404 06:49:14.564936 15333 net.cpp:157] Top shape: 1024 150 18 18 (49766400)
I0404 06:49:14.564944 15333 net.cpp:165] Memory required for data: 3497230336
I0404 06:49:14.564951 15333 layer_factory.hpp:77] Creating layer conv2_sTanH
I0404 06:49:14.564962 15333 net.cpp:100] Creating Layer conv2_sTanH
I0404 06:49:14.564970 15333 net.cpp:434] conv2_sTanH <- conv2
I0404 06:49:14.564976 15333 net.cpp:395] conv2_sTanH -> conv2 (in-place)
I0404 06:49:14.566208 15333 net.cpp:150] Setting up conv2_sTanH
I0404 06:49:14.566233 15333 net.cpp:157] Top shape: 1024 150 18 18 (49766400)
I0404 06:49:14.566241 15333 net.cpp:165] Memory required for data: 3696295936
I0404 06:49:14.566247 15333 layer_factory.hpp:77] Creating layer conv2_postscale
I0404 06:49:14.566260 15333 net.cpp:100] Creating Layer conv2_postscale
I0404 06:49:14.566268 15333 net.cpp:434] conv2_postscale <- conv2
I0404 06:49:14.566277 15333 net.cpp:395] conv2_postscale -> conv2 (in-place)
I0404 06:49:14.566438 15333 net.cpp:150] Setting up conv2_postscale
I0404 06:49:14.566452 15333 net.cpp:157] Top shape: 1024 150 18 18 (49766400)
I0404 06:49:14.566458 15333 net.cpp:165] Memory required for data: 3895361536
I0404 06:49:14.566468 15333 layer_factory.hpp:77] Creating layer pool2
I0404 06:49:14.566478 15333 net.cpp:100] Creating Layer pool2
I0404 06:49:14.566485 15333 net.cpp:434] pool2 <- conv2
I0404 06:49:14.566494 15333 net.cpp:408] pool2 -> pool2
I0404 06:49:14.566561 15333 net.cpp:150] Setting up pool2
I0404 06:49:14.566575 15333 net.cpp:157] Top shape: 1024 150 9 9 (12441600)
I0404 06:49:14.566581 15333 net.cpp:165] Memory required for data: 3945127936
I0404 06:49:14.566586 15333 layer_factory.hpp:77] Creating layer conv3
I0404 06:49:14.566599 15333 net.cpp:100] Creating Layer conv3
I0404 06:49:14.566607 15333 net.cpp:434] conv3 <- pool2
I0404 06:49:14.566615 15333 net.cpp:408] conv3 -> conv3
I0404 06:49:14.576089 15333 net.cpp:150] Setting up conv3
I0404 06:49:14.576117 15333 net.cpp:157] Top shape: 1024 250 6 6 (9216000)
I0404 06:49:14.576125 15333 net.cpp:165] Memory required for data: 3981991936
I0404 06:49:14.576143 15333 layer_factory.hpp:77] Creating layer conv3_prescale
I0404 06:49:14.576159 15333 net.cpp:100] Creating Layer conv3_prescale
I0404 06:49:14.576167 15333 net.cpp:434] conv3_prescale <- conv3
I0404 06:49:14.576176 15333 net.cpp:395] conv3_prescale -> conv3 (in-place)
I0404 06:49:14.576349 15333 net.cpp:150] Setting up conv3_prescale
I0404 06:49:14.576365 15333 net.cpp:157] Top shape: 1024 250 6 6 (9216000)
I0404 06:49:14.576372 15333 net.cpp:165] Memory required for data: 4018855936
I0404 06:49:14.576381 15333 layer_factory.hpp:77] Creating layer conv3_sTanH
I0404 06:49:14.576392 15333 net.cpp:100] Creating Layer conv3_sTanH
I0404 06:49:14.576400 15333 net.cpp:434] conv3_sTanH <- conv3
I0404 06:49:14.576429 15333 net.cpp:395] conv3_sTanH -> conv3 (in-place)
I0404 06:49:14.577774 15333 net.cpp:150] Setting up conv3_sTanH
I0404 06:49:14.577797 15333 net.cpp:157] Top shape: 1024 250 6 6 (9216000)
I0404 06:49:14.577805 15333 net.cpp:165] Memory required for data: 4055719936
I0404 06:49:14.577811 15333 layer_factory.hpp:77] Creating layer conv3_postscale
I0404 06:49:14.577823 15333 net.cpp:100] Creating Layer conv3_postscale
I0404 06:49:14.577831 15333 net.cpp:434] conv3_postscale <- conv3
I0404 06:49:14.577841 15333 net.cpp:395] conv3_postscale -> conv3 (in-place)
I0404 06:49:14.577996 15333 net.cpp:150] Setting up conv3_postscale
I0404 06:49:14.578008 15333 net.cpp:157] Top shape: 1024 250 6 6 (9216000)
I0404 06:49:14.578014 15333 net.cpp:165] Memory required for data: 4092583936
I0404 06:49:14.578022 15333 layer_factory.hpp:77] Creating layer pool3
I0404 06:49:14.578037 15333 net.cpp:100] Creating Layer pool3
I0404 06:49:14.578044 15333 net.cpp:434] pool3 <- conv3
I0404 06:49:14.578052 15333 net.cpp:408] pool3 -> pool3
I0404 06:49:14.578115 15333 net.cpp:150] Setting up pool3
I0404 06:49:14.578126 15333 net.cpp:157] Top shape: 1024 250 3 3 (2304000)
I0404 06:49:14.578133 15333 net.cpp:165] Memory required for data: 4101799936
I0404 06:49:14.578138 15333 layer_factory.hpp:77] Creating layer fc4_300
I0404 06:49:14.578147 15333 net.cpp:100] Creating Layer fc4_300
I0404 06:49:14.578155 15333 net.cpp:434] fc4_300 <- pool3
I0404 06:49:14.578162 15333 net.cpp:408] fc4_300 -> fc4_300
I0404 06:49:14.587522 15333 net.cpp:150] Setting up fc4_300
I0404 06:49:14.587548 15333 net.cpp:157] Top shape: 1024 300 (307200)
I0404 06:49:14.587556 15333 net.cpp:165] Memory required for data: 4103028736
I0404 06:49:14.587568 15333 layer_factory.hpp:77] Creating layer fc4_relu
I0404 06:49:14.587581 15333 net.cpp:100] Creating Layer fc4_relu
I0404 06:49:14.587589 15333 net.cpp:434] fc4_relu <- fc4_300
I0404 06:49:14.587597 15333 net.cpp:395] fc4_relu -> fc4_300 (in-place)
I0404 06:49:14.587893 15333 net.cpp:150] Setting up fc4_relu
I0404 06:49:14.587910 15333 net.cpp:157] Top shape: 1024 300 (307200)
I0404 06:49:14.587918 15333 net.cpp:165] Memory required for data: 4104257536
I0404 06:49:14.587923 15333 layer_factory.hpp:77] Creating layer drop4
I0404 06:49:14.587935 15333 net.cpp:100] Creating Layer drop4
I0404 06:49:14.587942 15333 net.cpp:434] drop4 <- fc4_300
I0404 06:49:14.587949 15333 net.cpp:395] drop4 -> fc4_300 (in-place)
I0404 06:49:14.587996 15333 net.cpp:150] Setting up drop4
I0404 06:49:14.588006 15333 net.cpp:157] Top shape: 1024 300 (307200)
I0404 06:49:14.588012 15333 net.cpp:165] Memory required for data: 4105486336
I0404 06:49:14.588017 15333 layer_factory.hpp:77] Creating layer fc5_67
I0404 06:49:14.588027 15333 net.cpp:100] Creating Layer fc5_67
I0404 06:49:14.588033 15333 net.cpp:434] fc5_67 <- fc4_300
I0404 06:49:14.588042 15333 net.cpp:408] fc5_67 -> fc5_classes
I0404 06:49:14.588450 15333 net.cpp:150] Setting up fc5_67
I0404 06:49:14.588462 15333 net.cpp:157] Top shape: 1024 67 (68608)
I0404 06:49:14.588469 15333 net.cpp:165] Memory required for data: 4105760768
I0404 06:49:14.588479 15333 layer_factory.hpp:77] Creating layer fc5_classes_fc5_67_0_split
I0404 06:49:14.588488 15333 net.cpp:100] Creating Layer fc5_classes_fc5_67_0_split
I0404 06:49:14.588495 15333 net.cpp:434] fc5_classes_fc5_67_0_split <- fc5_classes
I0404 06:49:14.588503 15333 net.cpp:408] fc5_classes_fc5_67_0_split -> fc5_classes_fc5_67_0_split_0
I0404 06:49:14.588515 15333 net.cpp:408] fc5_classes_fc5_67_0_split -> fc5_classes_fc5_67_0_split_1
I0404 06:49:14.588526 15333 net.cpp:408] fc5_classes_fc5_67_0_split -> fc5_classes_fc5_67_0_split_2
I0404 06:49:14.588599 15333 net.cpp:150] Setting up fc5_classes_fc5_67_0_split
I0404 06:49:14.588609 15333 net.cpp:157] Top shape: 1024 67 (68608)
I0404 06:49:14.588616 15333 net.cpp:157] Top shape: 1024 67 (68608)
I0404 06:49:14.588621 15333 net.cpp:157] Top shape: 1024 67 (68608)
I0404 06:49:14.588627 15333 net.cpp:165] Memory required for data: 4106584064
I0404 06:49:14.588631 15333 layer_factory.hpp:77] Creating layer loss
I0404 06:49:14.588660 15333 net.cpp:100] Creating Layer loss
I0404 06:49:14.588668 15333 net.cpp:434] loss <- fc5_classes_fc5_67_0_split_0
I0404 06:49:14.588675 15333 net.cpp:434] loss <- label_data_1_split_0
I0404 06:49:14.588685 15333 net.cpp:408] loss -> loss
…
