…
I0402 11:57:37.660390  2686 net.cpp:322] The NetState phase (0) differed from the phase (1) specified by a rule in layer accuracy_5
I0402 11:57:37.660511  2686 net.cpp:58] Initializing net from parameters: 
state {
  phase: TRAIN
  level: 0
  stage: ""
}
layer {
  name: "data"
  type: "Data"
  top: "data"
  top: "label"
  include {
    phase: TRAIN
  }
  transform_param {
    mirror: false
    crop_size: 48
    mean_value: 132
    mean_value: 132
    mean_value: 131
  }
  data_param {
    source: "../local_data/lmdb/rtsd-r1/CoNorm/train/lmdb"
    batch_size: 1024
    backend: LMDB
  }
}
layer {
  name: "conv1"
  type: "Convolution"
  bottom: "data"
  top: "conv1"
  convolution_param {
    num_output: 100
    pad: 0
    kernel_size: 7
    group: 1
    stride: 1
    weight_filler {
      type: "xavier"
    }
  }
}
layer {
  name: "conv1_relu"
  type: "ReLU"
  bottom: "conv1"
  top: "conv1"
}
layer {
  name: "pool1"
  type: "Pooling"
  bottom: "conv1"
  top: "pool1"
  pooling_param {
    pool: MAX
    kernel_size: 2
    stride: 2
  }
}
layer {
  name: "conv2"
  type: "Convolution"
  bottom: "pool1"
  top: "conv2"
  convolution_param {
    num_output: 150
    pad: 0
    kernel_size: 4
    group: 1
    stride: 1
    weight_filler {
      type: "xavier"
    }
  }
}
layer {
  name: "conv2_relu"
  type: "ReLU"
  bottom: "conv2"
  top: "conv2"
}
layer {
  name: "pool2"
  type: "Pooling"
  bottom: "conv2"
  top: "pool2"
  pooling_param {
    pool: MAX
    kernel_size: 2
    stride: 2
  }
}
layer {
  name: "conv3"
  type: "Convolution"
  bottom: "pool2"
  top: "conv3"
  convolution_param {
    num_output: 250
    pad: 0
    kernel_size: 4
    group: 1
    stride: 1
    weight_filler {
      type: "xavier"
    }
  }
}
layer {
  name: "conv3_relu"
  type: "ReLU"
  bottom: "conv3"
  top: "conv3"
}
layer {
  name: "pool3"
  type: "Pooling"
  bottom: "conv3"
  top: "pool3"
  pooling_param {
    pool: MAX
    kernel_size: 2
    stride: 2
  }
}
layer {
  name: "fc4_300"
  type: "InnerProduct"
  bottom: "pool3"
  top: "fc4_300"
  inner_product_param {
    num_output: 300
    weight_filler {
      type: "xavier"
    }
  }
}
layer {
  name: "fc4_relu"
  type: "ReLU"
  bottom: "fc4_300"
  top: "fc4_300"
}
layer {
  name: "drop4"
  type: "Dropout"
  bottom: "fc4_300"
  top: "fc4_300"
  dropout_param {
    dropout_ratio: 0.4
  }
}
layer {
  name: "fc5_67"
  type: "InnerProduct"
  bottom: "fc4_300"
  top: "fc5_classes"
  inner_product_param {
    num_output: 67
    weight_filler {
      type: "xavier"
    }
  }
}
layer {
  name: "loss"
  type: "SoftmaxWithLoss"
  bottom: "fc5_classes"
  bottom: "label"
  top: "loss"
}
I0402 11:57:37.660619  2686 layer_factory.hpp:77] Creating layer data
I0402 11:57:37.661975  2686 net.cpp:100] Creating Layer data
I0402 11:57:37.661996  2686 net.cpp:408] data -> data
I0402 11:57:37.662026  2686 net.cpp:408] data -> label
I0402 11:57:37.663697  2739 db_lmdb.cpp:35] Opened lmdb ../local_data/lmdb/rtsd-r1/CoNorm/train/lmdb
I0402 11:57:37.684873  2686 data_layer.cpp:41] output data size: 1024,3,48,48
I0402 11:57:37.748414  2686 net.cpp:150] Setting up data
I0402 11:57:37.748453  2686 net.cpp:157] Top shape: 1024 3 48 48 (7077888)
I0402 11:57:37.748461  2686 net.cpp:157] Top shape: 1024 (1024)
I0402 11:57:37.748464  2686 net.cpp:165] Memory required for data: 28315648
I0402 11:57:37.748503  2686 layer_factory.hpp:77] Creating layer conv1
I0402 11:57:37.748530  2686 net.cpp:100] Creating Layer conv1
I0402 11:57:37.748541  2686 net.cpp:434] conv1 <- data
I0402 11:57:37.748556  2686 net.cpp:408] conv1 -> conv1
I0402 11:57:38.070906  2686 net.cpp:150] Setting up conv1
I0402 11:57:38.070943  2686 net.cpp:157] Top shape: 1024 100 42 42 (180633600)
I0402 11:57:38.070948  2686 net.cpp:165] Memory required for data: 750850048
I0402 11:57:38.070974  2686 layer_factory.hpp:77] Creating layer conv1_relu
I0402 11:57:38.070989  2686 net.cpp:100] Creating Layer conv1_relu
I0402 11:57:38.070996  2686 net.cpp:434] conv1_relu <- conv1
I0402 11:57:38.071004  2686 net.cpp:395] conv1_relu -> conv1 (in-place)
I0402 11:57:38.071255  2686 net.cpp:150] Setting up conv1_relu
I0402 11:57:38.071272  2686 net.cpp:157] Top shape: 1024 100 42 42 (180633600)
I0402 11:57:38.071276  2686 net.cpp:165] Memory required for data: 1473384448
I0402 11:57:38.071281  2686 layer_factory.hpp:77] Creating layer pool1
I0402 11:57:38.071290  2686 net.cpp:100] Creating Layer pool1
I0402 11:57:38.071295  2686 net.cpp:434] pool1 <- conv1
I0402 11:57:38.071300  2686 net.cpp:408] pool1 -> pool1
I0402 11:57:38.071367  2686 net.cpp:150] Setting up pool1
I0402 11:57:38.071375  2686 net.cpp:157] Top shape: 1024 100 21 21 (45158400)
I0402 11:57:38.071378  2686 net.cpp:165] Memory required for data: 1654018048
I0402 11:57:38.071382  2686 layer_factory.hpp:77] Creating layer conv2
I0402 11:57:38.071396  2686 net.cpp:100] Creating Layer conv2
I0402 11:57:38.071400  2686 net.cpp:434] conv2 <- pool1
I0402 11:57:38.071406  2686 net.cpp:408] conv2 -> conv2
I0402 11:57:38.076689  2686 net.cpp:150] Setting up conv2
I0402 11:57:38.076711  2686 net.cpp:157] Top shape: 1024 150 18 18 (49766400)
I0402 11:57:38.076716  2686 net.cpp:165] Memory required for data: 1853083648
I0402 11:57:38.076728  2686 layer_factory.hpp:77] Creating layer conv2_relu
I0402 11:57:38.076738  2686 net.cpp:100] Creating Layer conv2_relu
I0402 11:57:38.076743  2686 net.cpp:434] conv2_relu <- conv2
I0402 11:57:38.076750  2686 net.cpp:395] conv2_relu -> conv2 (in-place)
I0402 11:57:38.077642  2686 net.cpp:150] Setting up conv2_relu
I0402 11:57:38.077662  2686 net.cpp:157] Top shape: 1024 150 18 18 (49766400)
I0402 11:57:38.077666  2686 net.cpp:165] Memory required for data: 2052149248
I0402 11:57:38.077672  2686 layer_factory.hpp:77] Creating layer pool2
I0402 11:57:38.077679  2686 net.cpp:100] Creating Layer pool2
I0402 11:57:38.077684  2686 net.cpp:434] pool2 <- conv2
I0402 11:57:38.077692  2686 net.cpp:408] pool2 -> pool2
I0402 11:57:38.077747  2686 net.cpp:150] Setting up pool2
I0402 11:57:38.077759  2686 net.cpp:157] Top shape: 1024 150 9 9 (12441600)
I0402 11:57:38.077762  2686 net.cpp:165] Memory required for data: 2101915648
I0402 11:57:38.077765  2686 layer_factory.hpp:77] Creating layer conv3
I0402 11:57:38.077775  2686 net.cpp:100] Creating Layer conv3
I0402 11:57:38.077780  2686 net.cpp:434] conv3 <- pool2
I0402 11:57:38.077786  2686 net.cpp:408] conv3 -> conv3
I0402 11:57:38.084496  2686 net.cpp:150] Setting up conv3
I0402 11:57:38.084517  2686 net.cpp:157] Top shape: 1024 250 6 6 (9216000)
I0402 11:57:38.084520  2686 net.cpp:165] Memory required for data: 2138779648
I0402 11:57:38.084533  2686 layer_factory.hpp:77] Creating layer conv3_relu
I0402 11:57:38.084542  2686 net.cpp:100] Creating Layer conv3_relu
I0402 11:57:38.084550  2686 net.cpp:434] conv3_relu <- conv3
I0402 11:57:38.084556  2686 net.cpp:395] conv3_relu -> conv3 (in-place)
I0402 11:57:38.085458  2686 net.cpp:150] Setting up conv3_relu
I0402 11:57:38.085476  2686 net.cpp:157] Top shape: 1024 250 6 6 (9216000)
I0402 11:57:38.085480  2686 net.cpp:165] Memory required for data: 2175643648
I0402 11:57:38.085485  2686 layer_factory.hpp:77] Creating layer pool3
I0402 11:57:38.085494  2686 net.cpp:100] Creating Layer pool3
I0402 11:57:38.085497  2686 net.cpp:434] pool3 <- conv3
I0402 11:57:38.085505  2686 net.cpp:408] pool3 -> pool3
I0402 11:57:38.085566  2686 net.cpp:150] Setting up pool3
I0402 11:57:38.085595  2686 net.cpp:157] Top shape: 1024 250 3 3 (2304000)
I0402 11:57:38.085599  2686 net.cpp:165] Memory required for data: 2184859648
I0402 11:57:38.085605  2686 layer_factory.hpp:77] Creating layer fc4_300
I0402 11:57:38.085614  2686 net.cpp:100] Creating Layer fc4_300
I0402 11:57:38.085620  2686 net.cpp:434] fc4_300 <- pool3
I0402 11:57:38.085628  2686 net.cpp:408] fc4_300 -> fc4_300
I0402 11:57:38.092231  2686 net.cpp:150] Setting up fc4_300
I0402 11:57:38.092257  2686 net.cpp:157] Top shape: 1024 300 (307200)
I0402 11:57:38.092263  2686 net.cpp:165] Memory required for data: 2186088448
I0402 11:57:38.092272  2686 layer_factory.hpp:77] Creating layer fc4_relu
I0402 11:57:38.092281  2686 net.cpp:100] Creating Layer fc4_relu
I0402 11:57:38.092288  2686 net.cpp:434] fc4_relu <- fc4_300
I0402 11:57:38.092294  2686 net.cpp:395] fc4_relu -> fc4_300 (in-place)
I0402 11:57:38.092516  2686 net.cpp:150] Setting up fc4_relu
I0402 11:57:38.092530  2686 net.cpp:157] Top shape: 1024 300 (307200)
I0402 11:57:38.092535  2686 net.cpp:165] Memory required for data: 2187317248
I0402 11:57:38.092540  2686 layer_factory.hpp:77] Creating layer drop4
I0402 11:57:38.092547  2686 net.cpp:100] Creating Layer drop4
I0402 11:57:38.092551  2686 net.cpp:434] drop4 <- fc4_300
I0402 11:57:38.092556  2686 net.cpp:395] drop4 -> fc4_300 (in-place)
I0402 11:57:38.092595  2686 net.cpp:150] Setting up drop4
I0402 11:57:38.092604  2686 net.cpp:157] Top shape: 1024 300 (307200)
I0402 11:57:38.092608  2686 net.cpp:165] Memory required for data: 2188546048
I0402 11:57:38.092612  2686 layer_factory.hpp:77] Creating layer fc5_67
I0402 11:57:38.092619  2686 net.cpp:100] Creating Layer fc5_67
I0402 11:57:38.092623  2686 net.cpp:434] fc5_67 <- fc4_300
I0402 11:57:38.092629  2686 net.cpp:408] fc5_67 -> fc5_classes
I0402 11:57:38.094048  2686 net.cpp:150] Setting up fc5_67
I0402 11:57:38.094068  2686 net.cpp:157] Top shape: 1024 67 (68608)
I0402 11:57:38.094071  2686 net.cpp:165] Memory required for data: 2188820480
I0402 11:57:38.094084  2686 layer_factory.hpp:77] Creating layer loss
I0402 11:57:38.094094  2686 net.cpp:100] Creating Layer loss
I0402 11:57:38.094099  2686 net.cpp:434] loss <- fc5_classes
I0402 11:57:38.094105  2686 net.cpp:434] loss <- label
I0402 11:57:38.094111  2686 net.cpp:408] loss -> loss
I0402 11:57:38.094126  2686 layer_factory.hpp:77] Creating layer loss
…
I0402 11:57:38.094869  2686 solver.cpp:193] Creating test net (#0) specified by test_net file: ./Prototxt/rtsd-r1/CoNorm/test.prototxt
I0402 11:57:38.095038  2686 net.cpp:58] Initializing net from parameters: 
state {
  phase: TEST
}
layer {
  name: "data"
  type: "Data"
  top: "data"
  top: "label"
  include {
    phase: TEST
  }
  transform_param {
    mirror: false
    crop_size: 48
    mean_value: 133
    mean_value: 133
    mean_value: 132
  }
  data_param {
    source: "../local_data/lmdb/rtsd-r1/CoNorm/test/lmdb"
    batch_size: 1024
    backend: LMDB
  }
}
layer {
  name: "conv1"
  type: "Convolution"
  bottom: "data"
  top: "conv1"
  convolution_param {
    num_output: 100
    pad: 0
    kernel_size: 7
    group: 1
    stride: 1
    weight_filler {
      type: "xavier"
    }
  }
}
layer {
  name: "conv1_relu"
  type: "ReLU"
  bottom: "conv1"
  top: "conv1"
}
layer {
  name: "pool1"
  type: "Pooling"
  bottom: "conv1"
  top: "pool1"
  pooling_param {
    pool: MAX
    kernel_size: 2
    stride: 2
  }
}
layer {
  name: "conv2"
  type: "Convolution"
  bottom: "pool1"
  top: "conv2"
  convolution_param {
    num_output: 150
    pad: 0
    kernel_size: 4
    group: 1
    stride: 1
    weight_filler {
      type: "xavier"
    }
  }
}
layer {
  name: "conv2_relu"
  type: "ReLU"
  bottom: "conv2"
  top: "conv2"
}
layer {
  name: "pool2"
  type: "Pooling"
  bottom: "conv2"
  top: "pool2"
  pooling_param {
    pool: MAX
    kernel_size: 2
    stride: 2
  }
}
layer {
  name: "conv3"
  type: "Convolution"
  bottom: "pool2"
  top: "conv3"
  convolution_param {
    num_output: 250
    pad: 0
    kernel_size: 4
    group: 1
    stride: 1
    weight_filler {
      type: "xavier"
    }
  }
}
layer {
  name: "conv3_relu"
  type: "ReLU"
  bottom: "conv3"
  top: "conv3"
}
layer {
  name: "pool3"
  type: "Pooling"
  bottom: "conv3"
  top: "pool3"
  pooling_param {
    pool: MAX
    kernel_size: 2
    stride: 2
  }
}
layer {
  name: "fc4_300"
  type: "InnerProduct"
  bottom: "pool3"
  top: "fc4_300"
  inner_product_param {
    num_output: 300
    weight_filler {
      type: "xavier"
    }
  }
}
layer {
  name: "fc4_relu"
  type: "ReLU"
  bottom: "fc4_300"
  top: "fc4_300"
}
layer {
  name: "drop4"
  type: "Dropout"
  bottom: "fc4_300"
  top: "fc4_300"
  dropout_param {
    dropout_ratio: 0.4
  }
}
layer {
  name: "fc5_67"
  type: "InnerProduct"
  bottom: "fc4_300"
  top: "fc5_classes"
  inner_product_param {
    num_output: 67
    weight_filler {
      type: "xavier"
    }
  }
}
layer {
  name: "loss"
  type: "SoftmaxWithLoss"
  bottom: "fc5_classes"
  bottom: "label"
  top: "loss"
}
layer {
  name: "accuracy_1"
  type: "Accuracy"
  bottom: "fc5_classes"
  bottom: "label"
  top: "accuracy_1"
  include {
    phase: TEST
  }
  accuracy_param {
    top_k: 1
  }
}
layer {
  name: "accuracy_5"
  type: "Accuracy"
  bottom: "fc5_classes"
  bottom: "label"
  top: "accuracy_5"
  include {
    phase: TEST
  }
  accuracy_param {
    top_k: 5
  }
}
I0402 11:57:38.095137  2686 layer_factory.hpp:77] Creating layer data
I0402 11:57:38.095840  2686 net.cpp:100] Creating Layer data
I0402 11:57:38.095854  2686 net.cpp:408] data -> data
I0402 11:57:38.095865  2686 net.cpp:408] data -> label
I0402 11:57:38.097112  2750 db_lmdb.cpp:35] Opened lmdb ../local_data/lmdb/rtsd-r1/CoNorm/test/lmdb
I0402 11:57:38.097302  2686 data_layer.cpp:41] output data size: 1024,3,48,48
I0402 11:57:38.144542  2686 net.cpp:150] Setting up data
I0402 11:57:38.144582  2686 net.cpp:157] Top shape: 1024 3 48 48 (7077888)
I0402 11:57:38.144588  2686 net.cpp:157] Top shape: 1024 (1024)
I0402 11:57:38.144593  2686 net.cpp:165] Memory required for data: 28315648
I0402 11:57:38.144600  2686 layer_factory.hpp:77] Creating layer label_data_1_split
I0402 11:57:38.144623  2686 net.cpp:100] Creating Layer label_data_1_split
I0402 11:57:38.144629  2686 net.cpp:434] label_data_1_split <- label
I0402 11:57:38.144639  2686 net.cpp:408] label_data_1_split -> label_data_1_split_0
I0402 11:57:38.144650  2686 net.cpp:408] label_data_1_split -> label_data_1_split_1
I0402 11:57:38.144662  2686 net.cpp:408] label_data_1_split -> label_data_1_split_2
I0402 11:57:38.144829  2686 net.cpp:150] Setting up label_data_1_split
I0402 11:57:38.144860  2686 net.cpp:157] Top shape: 1024 (1024)
I0402 11:57:38.144865  2686 net.cpp:157] Top shape: 1024 (1024)
I0402 11:57:38.144870  2686 net.cpp:157] Top shape: 1024 (1024)
I0402 11:57:38.144873  2686 net.cpp:165] Memory required for data: 28327936
I0402 11:57:38.144878  2686 layer_factory.hpp:77] Creating layer conv1
I0402 11:57:38.144893  2686 net.cpp:100] Creating Layer conv1
I0402 11:57:38.144899  2686 net.cpp:434] conv1 <- data
I0402 11:57:38.144906  2686 net.cpp:408] conv1 -> conv1
I0402 11:57:38.149488  2686 net.cpp:150] Setting up conv1
I0402 11:57:38.149514  2686 net.cpp:157] Top shape: 1024 100 42 42 (180633600)
I0402 11:57:38.149518  2686 net.cpp:165] Memory required for data: 750862336
I0402 11:57:38.149534  2686 layer_factory.hpp:77] Creating layer conv1_relu
I0402 11:57:38.149546  2686 net.cpp:100] Creating Layer conv1_relu
I0402 11:57:38.149550  2686 net.cpp:434] conv1_relu <- conv1
I0402 11:57:38.149559  2686 net.cpp:395] conv1_relu -> conv1 (in-place)
I0402 11:57:38.149792  2686 net.cpp:150] Setting up conv1_relu
I0402 11:57:38.149806  2686 net.cpp:157] Top shape: 1024 100 42 42 (180633600)
I0402 11:57:38.149811  2686 net.cpp:165] Memory required for data: 1473396736
I0402 11:57:38.149814  2686 layer_factory.hpp:77] Creating layer pool1
I0402 11:57:38.149824  2686 net.cpp:100] Creating Layer pool1
I0402 11:57:38.149830  2686 net.cpp:434] pool1 <- conv1
I0402 11:57:38.149837  2686 net.cpp:408] pool1 -> pool1
I0402 11:57:38.149896  2686 net.cpp:150] Setting up pool1
I0402 11:57:38.149905  2686 net.cpp:157] Top shape: 1024 100 21 21 (45158400)
I0402 11:57:38.149916  2686 net.cpp:165] Memory required for data: 1654030336
I0402 11:57:38.149920  2686 layer_factory.hpp:77] Creating layer conv2
I0402 11:57:38.149931  2686 net.cpp:100] Creating Layer conv2
I0402 11:57:38.149935  2686 net.cpp:434] conv2 <- pool1
I0402 11:57:38.149941  2686 net.cpp:408] conv2 -> conv2
I0402 11:57:38.156306  2686 net.cpp:150] Setting up conv2
I0402 11:57:38.156334  2686 net.cpp:157] Top shape: 1024 150 18 18 (49766400)
I0402 11:57:38.156340  2686 net.cpp:165] Memory required for data: 1853095936
I0402 11:57:38.156353  2686 layer_factory.hpp:77] Creating layer conv2_relu
I0402 11:57:38.156363  2686 net.cpp:100] Creating Layer conv2_relu
I0402 11:57:38.156368  2686 net.cpp:434] conv2_relu <- conv2
I0402 11:57:38.156375  2686 net.cpp:395] conv2_relu -> conv2 (in-place)
I0402 11:57:38.157416  2686 net.cpp:150] Setting up conv2_relu
I0402 11:57:38.157439  2686 net.cpp:157] Top shape: 1024 150 18 18 (49766400)
I0402 11:57:38.157445  2686 net.cpp:165] Memory required for data: 2052161536
I0402 11:57:38.157450  2686 layer_factory.hpp:77] Creating layer pool2
I0402 11:57:38.157461  2686 net.cpp:100] Creating Layer pool2
I0402 11:57:38.157467  2686 net.cpp:434] pool2 <- conv2
I0402 11:57:38.157475  2686 net.cpp:408] pool2 -> pool2
I0402 11:57:38.157538  2686 net.cpp:150] Setting up pool2
I0402 11:57:38.157552  2686 net.cpp:157] Top shape: 1024 150 9 9 (12441600)
I0402 11:57:38.157555  2686 net.cpp:165] Memory required for data: 2101927936
I0402 11:57:38.157559  2686 layer_factory.hpp:77] Creating layer conv3
I0402 11:57:38.157572  2686 net.cpp:100] Creating Layer conv3
I0402 11:57:38.157580  2686 net.cpp:434] conv3 <- pool2
I0402 11:57:38.157587  2686 net.cpp:408] conv3 -> conv3
I0402 11:57:38.165904  2686 net.cpp:150] Setting up conv3
I0402 11:57:38.165930  2686 net.cpp:157] Top shape: 1024 250 6 6 (9216000)
I0402 11:57:38.165935  2686 net.cpp:165] Memory required for data: 2138791936
I0402 11:57:38.165947  2686 layer_factory.hpp:77] Creating layer conv3_relu
I0402 11:57:38.165959  2686 net.cpp:100] Creating Layer conv3_relu
I0402 11:57:38.165964  2686 net.cpp:434] conv3_relu <- conv3
I0402 11:57:38.165971  2686 net.cpp:395] conv3_relu -> conv3 (in-place)
I0402 11:57:38.170709  2686 net.cpp:150] Setting up conv3_relu
I0402 11:57:38.170733  2686 net.cpp:157] Top shape: 1024 250 6 6 (9216000)
I0402 11:57:38.170738  2686 net.cpp:165] Memory required for data: 2175655936
I0402 11:57:38.170743  2686 layer_factory.hpp:77] Creating layer pool3
I0402 11:57:38.170775  2686 net.cpp:100] Creating Layer pool3
I0402 11:57:38.170783  2686 net.cpp:434] pool3 <- conv3
I0402 11:57:38.170791  2686 net.cpp:408] pool3 -> pool3
I0402 11:57:38.170856  2686 net.cpp:150] Setting up pool3
I0402 11:57:38.170866  2686 net.cpp:157] Top shape: 1024 250 3 3 (2304000)
I0402 11:57:38.170871  2686 net.cpp:165] Memory required for data: 2184871936
I0402 11:57:38.170874  2686 layer_factory.hpp:77] Creating layer fc4_300
I0402 11:57:38.170884  2686 net.cpp:100] Creating Layer fc4_300
I0402 11:57:38.170888  2686 net.cpp:434] fc4_300 <- pool3
I0402 11:57:38.170894  2686 net.cpp:408] fc4_300 -> fc4_300
I0402 11:57:38.182585  2686 net.cpp:150] Setting up fc4_300
I0402 11:57:38.182608  2686 net.cpp:157] Top shape: 1024 300 (307200)
I0402 11:57:38.182613  2686 net.cpp:165] Memory required for data: 2186100736
I0402 11:57:38.182624  2686 layer_factory.hpp:77] Creating layer fc4_relu
I0402 11:57:38.182632  2686 net.cpp:100] Creating Layer fc4_relu
I0402 11:57:38.182637  2686 net.cpp:434] fc4_relu <- fc4_300
I0402 11:57:38.182644  2686 net.cpp:395] fc4_relu -> fc4_300 (in-place)
I0402 11:57:38.182886  2686 net.cpp:150] Setting up fc4_relu
I0402 11:57:38.182900  2686 net.cpp:157] Top shape: 1024 300 (307200)
I0402 11:57:38.182904  2686 net.cpp:165] Memory required for data: 2187329536
I0402 11:57:38.182909  2686 layer_factory.hpp:77] Creating layer drop4
I0402 11:57:38.182930  2686 net.cpp:100] Creating Layer drop4
I0402 11:57:38.182934  2686 net.cpp:434] drop4 <- fc4_300
I0402 11:57:38.182941  2686 net.cpp:395] drop4 -> fc4_300 (in-place)
I0402 11:57:38.182981  2686 net.cpp:150] Setting up drop4
I0402 11:57:38.182989  2686 net.cpp:157] Top shape: 1024 300 (307200)
I0402 11:57:38.182993  2686 net.cpp:165] Memory required for data: 2188558336
I0402 11:57:38.182998  2686 layer_factory.hpp:77] Creating layer fc5_67
I0402 11:57:38.183006  2686 net.cpp:100] Creating Layer fc5_67
I0402 11:57:38.183010  2686 net.cpp:434] fc5_67 <- fc4_300
I0402 11:57:38.183017  2686 net.cpp:408] fc5_67 -> fc5_classes
I0402 11:57:38.183326  2686 net.cpp:150] Setting up fc5_67
I0402 11:57:38.183338  2686 net.cpp:157] Top shape: 1024 67 (68608)
I0402 11:57:38.183342  2686 net.cpp:165] Memory required for data: 2188832768
I0402 11:57:38.183354  2686 layer_factory.hpp:77] Creating layer fc5_classes_fc5_67_0_split
I0402 11:57:38.183365  2686 net.cpp:100] Creating Layer fc5_classes_fc5_67_0_split
I0402 11:57:38.183369  2686 net.cpp:434] fc5_classes_fc5_67_0_split <- fc5_classes
I0402 11:57:38.183377  2686 net.cpp:408] fc5_classes_fc5_67_0_split -> fc5_classes_fc5_67_0_split_0
I0402 11:57:38.183384  2686 net.cpp:408] fc5_classes_fc5_67_0_split -> fc5_classes_fc5_67_0_split_1
I0402 11:57:38.183393  2686 net.cpp:408] fc5_classes_fc5_67_0_split -> fc5_classes_fc5_67_0_split_2
I0402 11:57:38.183454  2686 net.cpp:150] Setting up fc5_classes_fc5_67_0_split
I0402 11:57:38.183462  2686 net.cpp:157] Top shape: 1024 67 (68608)
I0402 11:57:38.183467  2686 net.cpp:157] Top shape: 1024 67 (68608)
I0402 11:57:38.183471  2686 net.cpp:157] Top shape: 1024 67 (68608)
I0402 11:57:38.183475  2686 net.cpp:165] Memory required for data: 2189656064
I0402 11:57:38.183480  2686 layer_factory.hpp:77] Creating layer loss
I0402 11:57:38.183490  2686 net.cpp:100] Creating Layer loss
I0402 11:57:38.183495  2686 net.cpp:434] loss <- fc5_classes_fc5_67_0_split_0
I0402 11:57:38.183501  2686 net.cpp:434] loss <- label_data_1_split_0
I0402 11:57:38.183507  2686 net.cpp:408] loss -> loss
…
