…
I0415 04:54:43.681512 27764 solver.cpp:93] Creating training net from train_net file: ./Prototxt/experiment_12/rtsd-r1/histeq/trial_3/train.prototxt
I0415 04:54:43.732237 27764 net.cpp:58] Initializing net from parameters: 
state {
  phase: TRAIN
  level: 0
  stage: ""
}
layer {
  name: "data"
  type: "Data"
  top: "data"
  top: "label"
  include {
    phase: TRAIN
  }
  transform_param {
    scale: 0.0039215689
    mirror: false
    crop_size: 48
    mean_value: 130
    mean_value: 123
    mean_value: 137
  }
  data_param {
    source: "../local_data/lmdb/rtsd-r1/histeq/train/lmdb"
    batch_size: 1024
    backend: LMDB
  }
}
layer {
  name: "conv1"
  type: "Convolution"
  bottom: "data"
  top: "conv1"
  convolution_param {
    num_output: 100
    pad: 0
    kernel_size: 7
    group: 1
    stride: 1
    weight_filler {
      type: "xavier"
    }
  }
}
layer {
  name: "conv1_relu"
  type: "ReLU"
  bottom: "conv1"
  top: "conv1"
}
layer {
  name: "pool1"
  type: "Pooling"
  bottom: "conv1"
  top: "pool1"
  pooling_param {
    pool: MAX
    kernel_size: 2
    stride: 2
  }
}
layer {
  name: "conv2"
  type: "Convolution"
  bottom: "pool1"
  top: "conv2"
  convolution_param {
    num_output: 150
    pad: 0
    kernel_size: 4
    group: 1
    stride: 1
    weight_filler {
      type: "xavier"
    }
  }
}
layer {
  name: "conv2_relu"
  type: "ReLU"
  bottom: "conv2"
  top: "conv2"
}
layer {
  name: "pool2"
  type: "Pooling"
  bottom: "conv2"
  top: "pool2"
  pooling_param {
    pool: MAX
    kernel_size: 2
    stride: 2
  }
}
layer {
  name: "conv3"
  type: "Convolution"
  bottom: "pool2"
  top: "conv3"
  convolution_param {
    num_output: 250
    pad: 0
    kernel_size: 4
    group: 1
    stride: 1
    weight_filler {
      type: "xavier"
    }
  }
}
layer {
  name: "conv3_relu"
  type: "ReLU"
  bottom: "conv3"
  top: "conv3"
}
layer {
  name: "pool3"
  type: "Pooling"
  bottom: "conv3"
  top: "pool3"
  pooling_param {
    pool: MAX
    kernel_size: 2
    stride: 2
  }
}
layer {
  name: "fc4_300"
  type: "InnerProduct"
  bottom: "pool3"
  top: "fc4_300"
  inner_product_param {
    num_output: 300
    weight_filler {
      type: "xavier"
    }
  }
}
layer {
  name: "fc4_relu"
  type: "ReLU"
  bottom: "fc4_300"
  top: "fc4_300"
}
layer {
  name: "drop4"
  type: "Dropout"
  bottom: "fc4_300"
  top: "fc4_300"
  dropout_param {
    dropout_ratio: 0.5
  }
}
layer {
  name: "fc5_67"
  type: "InnerProduct"
  bottom: "fc4_300"
  top: "fc5_classes"
  inner_product_param {
    num_output: 67
    weight_filler {
      type: "xavier"
    }
  }
}
layer {
  name: "softmax"
  type: "Softmax"
  bottom: "fc5_classes"
  top: "softmax"
}
layer {
  name: "loss"
  type: "MultinomialLogisticLoss"
  bottom: "softmax"
  bottom: "label"
  top: "loss"
}
layer {
  name: "accuracy_1"
  type: "Accuracy"
  bottom: "fc5_classes"
  bottom: "label"
  top: "accuracy_1"
  accuracy_param {
    top_k: 1
  }
}
layer {
  name: "accuracy_5"
  type: "Accuracy"
  bottom: "fc5_classes"
  bottom: "label"
  top: "accuracy_5"
  accuracy_param {
    top_k: 5
  }
}
layer {
  name: "silence"
  type: "Silence"
  bottom: "accuracy_1"
  bottom: "accuracy_5"
}
I0415 04:54:43.732440 27764 layer_factory.hpp:77] Creating layer data
I0415 04:54:43.733875 27764 net.cpp:100] Creating Layer data
I0415 04:54:43.733908 27764 net.cpp:408] data -> data
I0415 04:54:43.733944 27764 net.cpp:408] data -> label
I0415 04:54:43.736941 27885 db_lmdb.cpp:35] Opened lmdb ../local_data/lmdb/rtsd-r1/histeq/train/lmdb
I0415 04:54:43.758322 27764 data_layer.cpp:41] output data size: 1024,3,48,48
I0415 04:54:43.829963 27764 net.cpp:150] Setting up data
I0415 04:54:43.829994 27764 net.cpp:157] Top shape: 1024 3 48 48 (7077888)
I0415 04:54:43.830003 27764 net.cpp:157] Top shape: 1024 (1024)
I0415 04:54:43.830005 27764 net.cpp:165] Memory required for data: 28315648
I0415 04:54:43.830019 27764 layer_factory.hpp:77] Creating layer label_data_1_split
I0415 04:54:43.830034 27764 net.cpp:100] Creating Layer label_data_1_split
I0415 04:54:43.830042 27764 net.cpp:434] label_data_1_split <- label
I0415 04:54:43.830056 27764 net.cpp:408] label_data_1_split -> label_data_1_split_0
I0415 04:54:43.830068 27764 net.cpp:408] label_data_1_split -> label_data_1_split_1
I0415 04:54:43.830075 27764 net.cpp:408] label_data_1_split -> label_data_1_split_2
I0415 04:54:43.830139 27764 net.cpp:150] Setting up label_data_1_split
I0415 04:54:43.830148 27764 net.cpp:157] Top shape: 1024 (1024)
I0415 04:54:43.830152 27764 net.cpp:157] Top shape: 1024 (1024)
I0415 04:54:43.830155 27764 net.cpp:157] Top shape: 1024 (1024)
I0415 04:54:43.830158 27764 net.cpp:165] Memory required for data: 28327936
I0415 04:54:43.830162 27764 layer_factory.hpp:77] Creating layer conv1
I0415 04:54:43.830183 27764 net.cpp:100] Creating Layer conv1
I0415 04:54:43.830188 27764 net.cpp:434] conv1 <- data
I0415 04:54:43.830193 27764 net.cpp:408] conv1 -> conv1
I0415 04:54:44.337021 27764 net.cpp:150] Setting up conv1
I0415 04:54:44.337050 27764 net.cpp:157] Top shape: 1024 100 42 42 (180633600)
I0415 04:54:44.337054 27764 net.cpp:165] Memory required for data: 750862336
I0415 04:54:44.337077 27764 layer_factory.hpp:77] Creating layer conv1_relu
I0415 04:54:44.337088 27764 net.cpp:100] Creating Layer conv1_relu
I0415 04:54:44.337092 27764 net.cpp:434] conv1_relu <- conv1
I0415 04:54:44.337100 27764 net.cpp:395] conv1_relu -> conv1 (in-place)
I0415 04:54:44.337296 27764 net.cpp:150] Setting up conv1_relu
I0415 04:54:44.337307 27764 net.cpp:157] Top shape: 1024 100 42 42 (180633600)
I0415 04:54:44.337312 27764 net.cpp:165] Memory required for data: 1473396736
I0415 04:54:44.337316 27764 layer_factory.hpp:77] Creating layer pool1
I0415 04:54:44.337326 27764 net.cpp:100] Creating Layer pool1
I0415 04:54:44.337329 27764 net.cpp:434] pool1 <- conv1
I0415 04:54:44.337337 27764 net.cpp:408] pool1 -> pool1
I0415 04:54:44.337438 27764 net.cpp:150] Setting up pool1
I0415 04:54:44.337455 27764 net.cpp:157] Top shape: 1024 100 21 21 (45158400)
I0415 04:54:44.337463 27764 net.cpp:165] Memory required for data: 1654030336
I0415 04:54:44.337472 27764 layer_factory.hpp:77] Creating layer conv2
I0415 04:54:44.337497 27764 net.cpp:100] Creating Layer conv2
I0415 04:54:44.337507 27764 net.cpp:434] conv2 <- pool1
I0415 04:54:44.337519 27764 net.cpp:408] conv2 -> conv2
I0415 04:54:44.349776 27764 net.cpp:150] Setting up conv2
I0415 04:54:44.349810 27764 net.cpp:157] Top shape: 1024 150 18 18 (49766400)
I0415 04:54:44.349822 27764 net.cpp:165] Memory required for data: 1853095936
I0415 04:54:44.349845 27764 layer_factory.hpp:77] Creating layer conv2_relu
I0415 04:54:44.349864 27764 net.cpp:100] Creating Layer conv2_relu
I0415 04:54:44.349871 27764 net.cpp:434] conv2_relu <- conv2
I0415 04:54:44.349884 27764 net.cpp:395] conv2_relu -> conv2 (in-place)
I0415 04:54:44.351471 27764 net.cpp:150] Setting up conv2_relu
I0415 04:54:44.351492 27764 net.cpp:157] Top shape: 1024 150 18 18 (49766400)
I0415 04:54:44.351497 27764 net.cpp:165] Memory required for data: 2052161536
I0415 04:54:44.351501 27764 layer_factory.hpp:77] Creating layer pool2
I0415 04:54:44.351511 27764 net.cpp:100] Creating Layer pool2
I0415 04:54:44.351516 27764 net.cpp:434] pool2 <- conv2
I0415 04:54:44.351524 27764 net.cpp:408] pool2 -> pool2
I0415 04:54:44.351580 27764 net.cpp:150] Setting up pool2
I0415 04:54:44.351593 27764 net.cpp:157] Top shape: 1024 150 9 9 (12441600)
I0415 04:54:44.351598 27764 net.cpp:165] Memory required for data: 2101927936
I0415 04:54:44.351600 27764 layer_factory.hpp:77] Creating layer conv3
I0415 04:54:44.351642 27764 net.cpp:100] Creating Layer conv3
I0415 04:54:44.351646 27764 net.cpp:434] conv3 <- pool2
I0415 04:54:44.351651 27764 net.cpp:408] conv3 -> conv3
I0415 04:54:44.363869 27764 net.cpp:150] Setting up conv3
I0415 04:54:44.363914 27764 net.cpp:157] Top shape: 1024 250 6 6 (9216000)
I0415 04:54:44.363925 27764 net.cpp:165] Memory required for data: 2138791936
I0415 04:54:44.363950 27764 layer_factory.hpp:77] Creating layer conv3_relu
I0415 04:54:44.363968 27764 net.cpp:100] Creating Layer conv3_relu
I0415 04:54:44.363977 27764 net.cpp:434] conv3_relu <- conv3
I0415 04:54:44.363991 27764 net.cpp:395] conv3_relu -> conv3 (in-place)
I0415 04:54:44.365156 27764 net.cpp:150] Setting up conv3_relu
I0415 04:54:44.365171 27764 net.cpp:157] Top shape: 1024 250 6 6 (9216000)
I0415 04:54:44.365175 27764 net.cpp:165] Memory required for data: 2175655936
I0415 04:54:44.365178 27764 layer_factory.hpp:77] Creating layer pool3
I0415 04:54:44.365185 27764 net.cpp:100] Creating Layer pool3
I0415 04:54:44.365190 27764 net.cpp:434] pool3 <- conv3
I0415 04:54:44.365195 27764 net.cpp:408] pool3 -> pool3
I0415 04:54:44.365243 27764 net.cpp:150] Setting up pool3
I0415 04:54:44.365252 27764 net.cpp:157] Top shape: 1024 250 3 3 (2304000)
I0415 04:54:44.365254 27764 net.cpp:165] Memory required for data: 2184871936
I0415 04:54:44.365257 27764 layer_factory.hpp:77] Creating layer fc4_300
I0415 04:54:44.365263 27764 net.cpp:100] Creating Layer fc4_300
I0415 04:54:44.365268 27764 net.cpp:434] fc4_300 <- pool3
I0415 04:54:44.365272 27764 net.cpp:408] fc4_300 -> fc4_300
I0415 04:54:44.375999 27764 net.cpp:150] Setting up fc4_300
I0415 04:54:44.376031 27764 net.cpp:157] Top shape: 1024 300 (307200)
I0415 04:54:44.376042 27764 net.cpp:165] Memory required for data: 2186100736
I0415 04:54:44.376055 27764 layer_factory.hpp:77] Creating layer fc4_relu
I0415 04:54:44.376070 27764 net.cpp:100] Creating Layer fc4_relu
I0415 04:54:44.376078 27764 net.cpp:434] fc4_relu <- fc4_300
I0415 04:54:44.376090 27764 net.cpp:395] fc4_relu -> fc4_300 (in-place)
I0415 04:54:44.376478 27764 net.cpp:150] Setting up fc4_relu
I0415 04:54:44.376490 27764 net.cpp:157] Top shape: 1024 300 (307200)
I0415 04:54:44.376497 27764 net.cpp:165] Memory required for data: 2187329536
I0415 04:54:44.376502 27764 layer_factory.hpp:77] Creating layer drop4
I0415 04:54:44.376520 27764 net.cpp:100] Creating Layer drop4
I0415 04:54:44.376529 27764 net.cpp:434] drop4 <- fc4_300
I0415 04:54:44.376541 27764 net.cpp:395] drop4 -> fc4_300 (in-place)
I0415 04:54:44.376612 27764 net.cpp:150] Setting up drop4
I0415 04:54:44.376627 27764 net.cpp:157] Top shape: 1024 300 (307200)
I0415 04:54:44.376634 27764 net.cpp:165] Memory required for data: 2188558336
I0415 04:54:44.376643 27764 layer_factory.hpp:77] Creating layer fc5_67
I0415 04:54:44.376658 27764 net.cpp:100] Creating Layer fc5_67
I0415 04:54:44.376667 27764 net.cpp:434] fc5_67 <- fc4_300
I0415 04:54:44.376680 27764 net.cpp:408] fc5_67 -> fc5_classes
I0415 04:54:44.378813 27764 net.cpp:150] Setting up fc5_67
I0415 04:54:44.378841 27764 net.cpp:157] Top shape: 1024 67 (68608)
I0415 04:54:44.378851 27764 net.cpp:165] Memory required for data: 2188832768
I0415 04:54:44.378875 27764 layer_factory.hpp:77] Creating layer fc5_classes_fc5_67_0_split
I0415 04:54:44.378895 27764 net.cpp:100] Creating Layer fc5_classes_fc5_67_0_split
I0415 04:54:44.378902 27764 net.cpp:434] fc5_classes_fc5_67_0_split <- fc5_classes
I0415 04:54:44.378917 27764 net.cpp:408] fc5_classes_fc5_67_0_split -> fc5_classes_fc5_67_0_split_0
I0415 04:54:44.378935 27764 net.cpp:408] fc5_classes_fc5_67_0_split -> fc5_classes_fc5_67_0_split_1
I0415 04:54:44.378950 27764 net.cpp:408] fc5_classes_fc5_67_0_split -> fc5_classes_fc5_67_0_split_2
I0415 04:54:44.379046 27764 net.cpp:150] Setting up fc5_classes_fc5_67_0_split
I0415 04:54:44.379060 27764 net.cpp:157] Top shape: 1024 67 (68608)
I0415 04:54:44.379070 27764 net.cpp:157] Top shape: 1024 67 (68608)
I0415 04:54:44.379076 27764 net.cpp:157] Top shape: 1024 67 (68608)
I0415 04:54:44.379081 27764 net.cpp:165] Memory required for data: 2189656064
I0415 04:54:44.379112 27764 layer_factory.hpp:77] Creating layer softmax
I0415 04:54:44.379132 27764 net.cpp:100] Creating Layer softmax
I0415 04:54:44.379142 27764 net.cpp:434] softmax <- fc5_classes_fc5_67_0_split_0
I0415 04:54:44.379153 27764 net.cpp:408] softmax -> softmax
I0415 04:54:44.379694 27764 net.cpp:150] Setting up softmax
I0415 04:54:44.379719 27764 net.cpp:157] Top shape: 1024 67 (68608)
I0415 04:54:44.379726 27764 net.cpp:165] Memory required for data: 2189930496
I0415 04:54:44.379735 27764 layer_factory.hpp:77] Creating layer loss
I0415 04:54:44.379751 27764 net.cpp:100] Creating Layer loss
I0415 04:54:44.379760 27764 net.cpp:434] loss <- softmax
I0415 04:54:44.379772 27764 net.cpp:434] loss <- label_data_1_split_0
I0415 04:54:44.379784 27764 net.cpp:408] loss -> loss
…
