…
I0410 02:56:59.553510  7556 net.cpp:322] The NetState phase (0) differed from the phase (1) specified by a rule in layer accuracy_5
I0410 02:56:59.553627  7556 net.cpp:58] Initializing net from parameters: 
state {
  phase: TRAIN
  level: 0
  stage: ""
}
layer {
  name: "data"
  type: "Data"
  top: "data"
  top: "label"
  include {
    phase: TRAIN
  }
  transform_param {
    mirror: false
    crop_size: 48
    mean_value: 115
    mean_value: 108
    mean_value: 122
  }
  data_param {
    source: "../local_data/lmdb/rtsd-r1/imajust/train/lmdb"
    batch_size: 1024
    backend: LMDB
  }
}
layer {
  name: "conv1"
  type: "Convolution"
  bottom: "data"
  top: "conv1"
  convolution_param {
    num_output: 100
    pad: 0
    kernel_size: 7
    group: 1
    stride: 1
    weight_filler {
      type: "xavier"
    }
  }
}
layer {
  name: "conv1_sTanH"
  type: "TanH"
  bottom: "conv1"
  top: "conv1"
}
layer {
  name: "pool1"
  type: "Pooling"
  bottom: "conv1"
  top: "pool1"
  pooling_param {
    pool: MAX
    kernel_size: 2
    stride: 2
  }
}
layer {
  name: "conv2"
  type: "Convolution"
  bottom: "pool1"
  top: "conv2"
  convolution_param {
    num_output: 150
    pad: 0
    kernel_size: 4
    group: 1
    stride: 1
    weight_filler {
      type: "xavier"
    }
  }
}
layer {
  name: "conv2_sTanH"
  type: "TanH"
  bottom: "conv2"
  top: "conv2"
}
layer {
  name: "pool2"
  type: "Pooling"
  bottom: "conv2"
  top: "pool2"
  pooling_param {
    pool: MAX
    kernel_size: 2
    stride: 2
  }
}
layer {
  name: "conv3"
  type: "Convolution"
  bottom: "pool2"
  top: "conv3"
  convolution_param {
    num_output: 250
    pad: 0
    kernel_size: 4
    group: 1
    stride: 1
    weight_filler {
      type: "xavier"
    }
  }
}
layer {
  name: "conv3_sTanH"
  type: "TanH"
  bottom: "conv3"
  top: "conv3"
}
layer {
  name: "pool3"
  type: "Pooling"
  bottom: "conv3"
  top: "pool3"
  pooling_param {
    pool: MAX
    kernel_size: 2
    stride: 2
  }
}
layer {
  name: "fc4_300"
  type: "InnerProduct"
  bottom: "pool3"
  top: "fc4_300"
  inner_product_param {
    num_output: 300
    weight_filler {
      type: "xavier"
    }
  }
}
layer {
  name: "fc4_sTanH"
  type: "TanH"
  bottom: "fc4_300"
  top: "fc4_300"
}
layer {
  name: "drop4"
  type: "Dropout"
  bottom: "fc4_300"
  top: "fc4_300"
  dropout_param {
    dropout_ratio: 0.4
  }
}
layer {
  name: "fc5_67"
  type: "InnerProduct"
  bottom: "fc4_300"
  top: "fc5_classes"
  inner_product_param {
    num_output: 67
    weight_filler {
      type: "xavier"
    }
  }
}
layer {
  name: "loss"
  type: "SoftmaxWithLoss"
  bottom: "fc5_classes"
  bottom: "label"
  top: "loss"
}
I0410 02:56:59.553710  7556 layer_factory.hpp:77] Creating layer data
I0410 02:56:59.554988  7556 net.cpp:100] Creating Layer data
I0410 02:56:59.555006  7556 net.cpp:408] data -> data
I0410 02:56:59.555032  7556 net.cpp:408] data -> label
I0410 02:56:59.557126  7650 db_lmdb.cpp:35] Opened lmdb ../local_data/lmdb/rtsd-r1/imajust/train/lmdb
I0410 02:56:59.577527  7556 data_layer.cpp:41] output data size: 1024,3,48,48
I0410 02:56:59.631033  7556 net.cpp:150] Setting up data
I0410 02:56:59.631067  7556 net.cpp:157] Top shape: 1024 3 48 48 (7077888)
I0410 02:56:59.631109  7556 net.cpp:157] Top shape: 1024 (1024)
I0410 02:56:59.631114  7556 net.cpp:165] Memory required for data: 28315648
I0410 02:56:59.631124  7556 layer_factory.hpp:77] Creating layer conv1
I0410 02:56:59.631150  7556 net.cpp:100] Creating Layer conv1
I0410 02:56:59.631157  7556 net.cpp:434] conv1 <- data
I0410 02:56:59.631171  7556 net.cpp:408] conv1 -> conv1
I0410 02:56:59.903992  7556 net.cpp:150] Setting up conv1
I0410 02:56:59.904038  7556 net.cpp:157] Top shape: 1024 100 42 42 (180633600)
I0410 02:56:59.904047  7556 net.cpp:165] Memory required for data: 750850048
I0410 02:56:59.904089  7556 layer_factory.hpp:77] Creating layer conv1_sTanH
I0410 02:56:59.904104  7556 net.cpp:100] Creating Layer conv1_sTanH
I0410 02:56:59.904109  7556 net.cpp:434] conv1_sTanH <- conv1
I0410 02:56:59.904116  7556 net.cpp:395] conv1_sTanH -> conv1 (in-place)
I0410 02:56:59.904315  7556 net.cpp:150] Setting up conv1_sTanH
I0410 02:56:59.904328  7556 net.cpp:157] Top shape: 1024 100 42 42 (180633600)
I0410 02:56:59.904332  7556 net.cpp:165] Memory required for data: 1473384448
I0410 02:56:59.904335  7556 layer_factory.hpp:77] Creating layer pool1
I0410 02:56:59.904343  7556 net.cpp:100] Creating Layer pool1
I0410 02:56:59.904347  7556 net.cpp:434] pool1 <- conv1
I0410 02:56:59.904353  7556 net.cpp:408] pool1 -> pool1
I0410 02:56:59.904408  7556 net.cpp:150] Setting up pool1
I0410 02:56:59.904418  7556 net.cpp:157] Top shape: 1024 100 21 21 (45158400)
I0410 02:56:59.904422  7556 net.cpp:165] Memory required for data: 1654018048
I0410 02:56:59.904425  7556 layer_factory.hpp:77] Creating layer conv2
I0410 02:56:59.904436  7556 net.cpp:100] Creating Layer conv2
I0410 02:56:59.904441  7556 net.cpp:434] conv2 <- pool1
I0410 02:56:59.904446  7556 net.cpp:408] conv2 -> conv2
I0410 02:56:59.912293  7556 net.cpp:150] Setting up conv2
I0410 02:56:59.912313  7556 net.cpp:157] Top shape: 1024 150 18 18 (49766400)
I0410 02:56:59.912317  7556 net.cpp:165] Memory required for data: 1853083648
I0410 02:56:59.912327  7556 layer_factory.hpp:77] Creating layer conv2_sTanH
I0410 02:56:59.912333  7556 net.cpp:100] Creating Layer conv2_sTanH
I0410 02:56:59.912338  7556 net.cpp:434] conv2_sTanH <- conv2
I0410 02:56:59.912343  7556 net.cpp:395] conv2_sTanH -> conv2 (in-place)
I0410 02:56:59.913096  7556 net.cpp:150] Setting up conv2_sTanH
I0410 02:56:59.913113  7556 net.cpp:157] Top shape: 1024 150 18 18 (49766400)
I0410 02:56:59.913116  7556 net.cpp:165] Memory required for data: 2052149248
I0410 02:56:59.913120  7556 layer_factory.hpp:77] Creating layer pool2
I0410 02:56:59.913126  7556 net.cpp:100] Creating Layer pool2
I0410 02:56:59.913130  7556 net.cpp:434] pool2 <- conv2
I0410 02:56:59.913136  7556 net.cpp:408] pool2 -> pool2
I0410 02:56:59.913182  7556 net.cpp:150] Setting up pool2
I0410 02:56:59.913190  7556 net.cpp:157] Top shape: 1024 150 9 9 (12441600)
I0410 02:56:59.913193  7556 net.cpp:165] Memory required for data: 2101915648
I0410 02:56:59.913197  7556 layer_factory.hpp:77] Creating layer conv3
I0410 02:56:59.913204  7556 net.cpp:100] Creating Layer conv3
I0410 02:56:59.913208  7556 net.cpp:434] conv3 <- pool2
I0410 02:56:59.913213  7556 net.cpp:408] conv3 -> conv3
I0410 02:56:59.918684  7556 net.cpp:150] Setting up conv3
I0410 02:56:59.918704  7556 net.cpp:157] Top shape: 1024 250 6 6 (9216000)
I0410 02:56:59.918709  7556 net.cpp:165] Memory required for data: 2138779648
I0410 02:56:59.918717  7556 layer_factory.hpp:77] Creating layer conv3_sTanH
I0410 02:56:59.918726  7556 net.cpp:100] Creating Layer conv3_sTanH
I0410 02:56:59.918730  7556 net.cpp:434] conv3_sTanH <- conv3
I0410 02:56:59.918735  7556 net.cpp:395] conv3_sTanH -> conv3 (in-place)
I0410 02:56:59.919518  7556 net.cpp:150] Setting up conv3_sTanH
I0410 02:56:59.919534  7556 net.cpp:157] Top shape: 1024 250 6 6 (9216000)
I0410 02:56:59.919538  7556 net.cpp:165] Memory required for data: 2175643648
I0410 02:56:59.919541  7556 layer_factory.hpp:77] Creating layer pool3
I0410 02:56:59.919549  7556 net.cpp:100] Creating Layer pool3
I0410 02:56:59.919553  7556 net.cpp:434] pool3 <- conv3
I0410 02:56:59.919581  7556 net.cpp:408] pool3 -> pool3
I0410 02:56:59.919634  7556 net.cpp:150] Setting up pool3
I0410 02:56:59.919644  7556 net.cpp:157] Top shape: 1024 250 3 3 (2304000)
I0410 02:56:59.919647  7556 net.cpp:165] Memory required for data: 2184859648
I0410 02:56:59.919651  7556 layer_factory.hpp:77] Creating layer fc4_300
I0410 02:56:59.919657  7556 net.cpp:100] Creating Layer fc4_300
I0410 02:56:59.919661  7556 net.cpp:434] fc4_300 <- pool3
I0410 02:56:59.919667  7556 net.cpp:408] fc4_300 -> fc4_300
I0410 02:56:59.925019  7556 net.cpp:150] Setting up fc4_300
I0410 02:56:59.925035  7556 net.cpp:157] Top shape: 1024 300 (307200)
I0410 02:56:59.925051  7556 net.cpp:165] Memory required for data: 2186088448
I0410 02:56:59.925057  7556 layer_factory.hpp:77] Creating layer fc4_sTanH
I0410 02:56:59.925063  7556 net.cpp:100] Creating Layer fc4_sTanH
I0410 02:56:59.925067  7556 net.cpp:434] fc4_sTanH <- fc4_300
I0410 02:56:59.925074  7556 net.cpp:395] fc4_sTanH -> fc4_300 (in-place)
I0410 02:56:59.925269  7556 net.cpp:150] Setting up fc4_sTanH
I0410 02:56:59.925282  7556 net.cpp:157] Top shape: 1024 300 (307200)
I0410 02:56:59.925285  7556 net.cpp:165] Memory required for data: 2187317248
I0410 02:56:59.925289  7556 layer_factory.hpp:77] Creating layer drop4
I0410 02:56:59.925297  7556 net.cpp:100] Creating Layer drop4
I0410 02:56:59.925302  7556 net.cpp:434] drop4 <- fc4_300
I0410 02:56:59.925305  7556 net.cpp:395] drop4 -> fc4_300 (in-place)
I0410 02:56:59.925340  7556 net.cpp:150] Setting up drop4
I0410 02:56:59.925348  7556 net.cpp:157] Top shape: 1024 300 (307200)
I0410 02:56:59.925351  7556 net.cpp:165] Memory required for data: 2188546048
I0410 02:56:59.925354  7556 layer_factory.hpp:77] Creating layer fc5_67
I0410 02:56:59.925359  7556 net.cpp:100] Creating Layer fc5_67
I0410 02:56:59.925364  7556 net.cpp:434] fc5_67 <- fc4_300
I0410 02:56:59.925369  7556 net.cpp:408] fc5_67 -> fc5_classes
I0410 02:56:59.926576  7556 net.cpp:150] Setting up fc5_67
I0410 02:56:59.926591  7556 net.cpp:157] Top shape: 1024 67 (68608)
I0410 02:56:59.926605  7556 net.cpp:165] Memory required for data: 2188820480
I0410 02:56:59.926617  7556 layer_factory.hpp:77] Creating layer loss
I0410 02:56:59.926625  7556 net.cpp:100] Creating Layer loss
I0410 02:56:59.926627  7556 net.cpp:434] loss <- fc5_classes
I0410 02:56:59.926632  7556 net.cpp:434] loss <- label
I0410 02:56:59.926640  7556 net.cpp:408] loss -> loss
I0410 02:56:59.926651  7556 layer_factory.hpp:77] Creating layer loss
…
I0410 02:56:59.927311  7556 solver.cpp:193] Creating test net (#0) specified by test_net file: ./Prototxt/experiment_7/rtsd-r1/imajust/trial_3/test.prototxt
I0410 02:56:59.927439  7556 net.cpp:58] Initializing net from parameters: 
state {
  phase: TEST
}
layer {
  name: "data"
  type: "Data"
  top: "data"
  top: "label"
  include {
    phase: TEST
  }
  transform_param {
    mirror: false
    crop_size: 48
    mean_value: 109
    mean_value: 106
    mean_value: 126
  }
  data_param {
    source: "../local_data/lmdb/rtsd-r1/imajust/test/lmdb"
    batch_size: 1024
    backend: LMDB
  }
}
layer {
  name: "conv1"
  type: "Convolution"
  bottom: "data"
  top: "conv1"
  convolution_param {
    num_output: 100
    pad: 0
    kernel_size: 7
    group: 1
    stride: 1
    weight_filler {
      type: "xavier"
    }
  }
}
layer {
  name: "conv1_sTanH"
  type: "TanH"
  bottom: "conv1"
  top: "conv1"
}
layer {
  name: "pool1"
  type: "Pooling"
  bottom: "conv1"
  top: "pool1"
  pooling_param {
    pool: MAX
    kernel_size: 2
    stride: 2
  }
}
layer {
  name: "conv2"
  type: "Convolution"
  bottom: "pool1"
  top: "conv2"
  convolution_param {
    num_output: 150
    pad: 0
    kernel_size: 4
    group: 1
    stride: 1
    weight_filler {
      type: "xavier"
    }
  }
}
layer {
  name: "conv2_sTanH"
  type: "TanH"
  bottom: "conv2"
  top: "conv2"
}
layer {
  name: "pool2"
  type: "Pooling"
  bottom: "conv2"
  top: "pool2"
  pooling_param {
    pool: MAX
    kernel_size: 2
    stride: 2
  }
}
layer {
  name: "conv3"
  type: "Convolution"
  bottom: "pool2"
  top: "conv3"
  convolution_param {
    num_output: 250
    pad: 0
    kernel_size: 4
    group: 1
    stride: 1
    weight_filler {
      type: "xavier"
    }
  }
}
layer {
  name: "conv3_sTanH"
  type: "TanH"
  bottom: "conv3"
  top: "conv3"
}
layer {
  name: "pool3"
  type: "Pooling"
  bottom: "conv3"
  top: "pool3"
  pooling_param {
    pool: MAX
    kernel_size: 2
    stride: 2
  }
}
layer {
  name: "fc4_300"
  type: "InnerProduct"
  bottom: "pool3"
  top: "fc4_300"
  inner_product_param {
    num_output: 300
    weight_filler {
      type: "xavier"
    }
  }
}
layer {
  name: "fc4_sTanH"
  type: "TanH"
  bottom: "fc4_300"
  top: "fc4_300"
}
layer {
  name: "drop4"
  type: "Dropout"
  bottom: "fc4_300"
  top: "fc4_300"
  dropout_param {
    dropout_ratio: 0.4
  }
}
layer {
  name: "fc5_67"
  type: "InnerProduct"
  bottom: "fc4_300"
  top: "fc5_classes"
  inner_product_param {
    num_output: 67
    weight_filler {
      type: "xavier"
    }
  }
}
layer {
  name: "loss"
  type: "SoftmaxWithLoss"
  bottom: "fc5_classes"
  bottom: "label"
  top: "loss"
}
layer {
  name: "accuracy_1"
  type: "Accuracy"
  bottom: "fc5_classes"
  bottom: "label"
  top: "accuracy_1"
  include {
    phase: TEST
  }
  accuracy_param {
    top_k: 1
  }
}
layer {
  name: "accuracy_5"
  type: "Accuracy"
  bottom: "fc5_classes"
  bottom: "label"
  top: "accuracy_5"
  include {
    phase: TEST
  }
  accuracy_param {
    top_k: 5
  }
}
I0410 02:56:59.927531  7556 layer_factory.hpp:77] Creating layer data
I0410 02:56:59.928220  7556 net.cpp:100] Creating Layer data
I0410 02:56:59.928234  7556 net.cpp:408] data -> data
I0410 02:56:59.928246  7556 net.cpp:408] data -> label
I0410 02:56:59.929816  7667 db_lmdb.cpp:35] Opened lmdb ../local_data/lmdb/rtsd-r1/imajust/test/lmdb
I0410 02:56:59.929975  7556 data_layer.cpp:41] output data size: 1024,3,48,48
I0410 02:56:59.971504  7556 net.cpp:150] Setting up data
I0410 02:56:59.971534  7556 net.cpp:157] Top shape: 1024 3 48 48 (7077888)
I0410 02:56:59.971539  7556 net.cpp:157] Top shape: 1024 (1024)
I0410 02:56:59.971541  7556 net.cpp:165] Memory required for data: 28315648
I0410 02:56:59.971549  7556 layer_factory.hpp:77] Creating layer label_data_1_split
I0410 02:56:59.971567  7556 net.cpp:100] Creating Layer label_data_1_split
I0410 02:56:59.971571  7556 net.cpp:434] label_data_1_split <- label
I0410 02:56:59.971578  7556 net.cpp:408] label_data_1_split -> label_data_1_split_0
I0410 02:56:59.971588  7556 net.cpp:408] label_data_1_split -> label_data_1_split_1
I0410 02:56:59.971618  7556 net.cpp:408] label_data_1_split -> label_data_1_split_2
I0410 02:56:59.971738  7556 net.cpp:150] Setting up label_data_1_split
I0410 02:56:59.971748  7556 net.cpp:157] Top shape: 1024 (1024)
I0410 02:56:59.971752  7556 net.cpp:157] Top shape: 1024 (1024)
I0410 02:56:59.971755  7556 net.cpp:157] Top shape: 1024 (1024)
I0410 02:56:59.971757  7556 net.cpp:165] Memory required for data: 28327936
I0410 02:56:59.971760  7556 layer_factory.hpp:77] Creating layer conv1
I0410 02:56:59.971774  7556 net.cpp:100] Creating Layer conv1
I0410 02:56:59.971777  7556 net.cpp:434] conv1 <- data
I0410 02:56:59.971783  7556 net.cpp:408] conv1 -> conv1
I0410 02:56:59.975705  7556 net.cpp:150] Setting up conv1
I0410 02:56:59.975723  7556 net.cpp:157] Top shape: 1024 100 42 42 (180633600)
I0410 02:56:59.975728  7556 net.cpp:165] Memory required for data: 750862336
I0410 02:56:59.975739  7556 layer_factory.hpp:77] Creating layer conv1_sTanH
I0410 02:56:59.975746  7556 net.cpp:100] Creating Layer conv1_sTanH
I0410 02:56:59.975750  7556 net.cpp:434] conv1_sTanH <- conv1
I0410 02:56:59.975757  7556 net.cpp:395] conv1_sTanH -> conv1 (in-place)
I0410 02:56:59.975983  7556 net.cpp:150] Setting up conv1_sTanH
I0410 02:56:59.975999  7556 net.cpp:157] Top shape: 1024 100 42 42 (180633600)
I0410 02:56:59.976002  7556 net.cpp:165] Memory required for data: 1473396736
I0410 02:56:59.976006  7556 layer_factory.hpp:77] Creating layer pool1
I0410 02:56:59.976017  7556 net.cpp:100] Creating Layer pool1
I0410 02:56:59.976022  7556 net.cpp:434] pool1 <- conv1
I0410 02:56:59.976027  7556 net.cpp:408] pool1 -> pool1
I0410 02:56:59.976081  7556 net.cpp:150] Setting up pool1
I0410 02:56:59.976089  7556 net.cpp:157] Top shape: 1024 100 21 21 (45158400)
I0410 02:56:59.976092  7556 net.cpp:165] Memory required for data: 1654030336
I0410 02:56:59.976095  7556 layer_factory.hpp:77] Creating layer conv2
I0410 02:56:59.976105  7556 net.cpp:100] Creating Layer conv2
I0410 02:56:59.976109  7556 net.cpp:434] conv2 <- pool1
I0410 02:56:59.976119  7556 net.cpp:408] conv2 -> conv2
I0410 02:56:59.980087  7556 net.cpp:150] Setting up conv2
I0410 02:56:59.980106  7556 net.cpp:157] Top shape: 1024 150 18 18 (49766400)
I0410 02:56:59.980110  7556 net.cpp:165] Memory required for data: 1853095936
I0410 02:56:59.980120  7556 layer_factory.hpp:77] Creating layer conv2_sTanH
I0410 02:56:59.980126  7556 net.cpp:100] Creating Layer conv2_sTanH
I0410 02:56:59.980130  7556 net.cpp:434] conv2_sTanH <- conv2
I0410 02:56:59.980135  7556 net.cpp:395] conv2_sTanH -> conv2 (in-place)
I0410 02:56:59.980943  7556 net.cpp:150] Setting up conv2_sTanH
I0410 02:56:59.980958  7556 net.cpp:157] Top shape: 1024 150 18 18 (49766400)
I0410 02:56:59.980962  7556 net.cpp:165] Memory required for data: 2052161536
I0410 02:56:59.980965  7556 layer_factory.hpp:77] Creating layer pool2
I0410 02:56:59.980973  7556 net.cpp:100] Creating Layer pool2
I0410 02:56:59.980978  7556 net.cpp:434] pool2 <- conv2
I0410 02:56:59.980983  7556 net.cpp:408] pool2 -> pool2
I0410 02:56:59.981036  7556 net.cpp:150] Setting up pool2
I0410 02:56:59.981046  7556 net.cpp:157] Top shape: 1024 150 9 9 (12441600)
I0410 02:56:59.981050  7556 net.cpp:165] Memory required for data: 2101927936
I0410 02:56:59.981053  7556 layer_factory.hpp:77] Creating layer conv3
I0410 02:56:59.981065  7556 net.cpp:100] Creating Layer conv3
I0410 02:56:59.981070  7556 net.cpp:434] conv3 <- pool2
I0410 02:56:59.981076  7556 net.cpp:408] conv3 -> conv3
I0410 02:56:59.986734  7556 net.cpp:150] Setting up conv3
I0410 02:56:59.986752  7556 net.cpp:157] Top shape: 1024 250 6 6 (9216000)
I0410 02:56:59.986755  7556 net.cpp:165] Memory required for data: 2138791936
I0410 02:56:59.986766  7556 layer_factory.hpp:77] Creating layer conv3_sTanH
I0410 02:56:59.986779  7556 net.cpp:100] Creating Layer conv3_sTanH
I0410 02:56:59.986783  7556 net.cpp:434] conv3_sTanH <- conv3
I0410 02:56:59.986790  7556 net.cpp:395] conv3_sTanH -> conv3 (in-place)
I0410 02:56:59.987597  7556 net.cpp:150] Setting up conv3_sTanH
I0410 02:56:59.987613  7556 net.cpp:157] Top shape: 1024 250 6 6 (9216000)
I0410 02:56:59.987633  7556 net.cpp:165] Memory required for data: 2175655936
I0410 02:56:59.987638  7556 layer_factory.hpp:77] Creating layer pool3
I0410 02:56:59.987645  7556 net.cpp:100] Creating Layer pool3
I0410 02:56:59.987650  7556 net.cpp:434] pool3 <- conv3
I0410 02:56:59.987658  7556 net.cpp:408] pool3 -> pool3
I0410 02:56:59.987713  7556 net.cpp:150] Setting up pool3
I0410 02:56:59.987725  7556 net.cpp:157] Top shape: 1024 250 3 3 (2304000)
I0410 02:56:59.987730  7556 net.cpp:165] Memory required for data: 2184871936
I0410 02:56:59.987733  7556 layer_factory.hpp:77] Creating layer fc4_300
I0410 02:56:59.987741  7556 net.cpp:100] Creating Layer fc4_300
I0410 02:56:59.987746  7556 net.cpp:434] fc4_300 <- pool3
I0410 02:56:59.987752  7556 net.cpp:408] fc4_300 -> fc4_300
I0410 02:56:59.993177  7556 net.cpp:150] Setting up fc4_300
I0410 02:56:59.993198  7556 net.cpp:157] Top shape: 1024 300 (307200)
I0410 02:56:59.993201  7556 net.cpp:165] Memory required for data: 2186100736
I0410 02:56:59.993209  7556 layer_factory.hpp:77] Creating layer fc4_sTanH
I0410 02:56:59.993217  7556 net.cpp:100] Creating Layer fc4_sTanH
I0410 02:56:59.993223  7556 net.cpp:434] fc4_sTanH <- fc4_300
I0410 02:56:59.993228  7556 net.cpp:395] fc4_sTanH -> fc4_300 (in-place)
I0410 02:56:59.993438  7556 net.cpp:150] Setting up fc4_sTanH
I0410 02:56:59.993454  7556 net.cpp:157] Top shape: 1024 300 (307200)
I0410 02:56:59.993458  7556 net.cpp:165] Memory required for data: 2187329536
I0410 02:56:59.993463  7556 layer_factory.hpp:77] Creating layer drop4
I0410 02:56:59.993469  7556 net.cpp:100] Creating Layer drop4
I0410 02:56:59.993474  7556 net.cpp:434] drop4 <- fc4_300
I0410 02:56:59.993479  7556 net.cpp:395] drop4 -> fc4_300 (in-place)
I0410 02:56:59.993512  7556 net.cpp:150] Setting up drop4
I0410 02:56:59.993521  7556 net.cpp:157] Top shape: 1024 300 (307200)
I0410 02:56:59.993525  7556 net.cpp:165] Memory required for data: 2188558336
I0410 02:56:59.993527  7556 layer_factory.hpp:77] Creating layer fc5_67
I0410 02:56:59.993535  7556 net.cpp:100] Creating Layer fc5_67
I0410 02:56:59.993540  7556 net.cpp:434] fc5_67 <- fc4_300
I0410 02:56:59.993544  7556 net.cpp:408] fc5_67 -> fc5_classes
I0410 02:56:59.993806  7556 net.cpp:150] Setting up fc5_67
I0410 02:56:59.993816  7556 net.cpp:157] Top shape: 1024 67 (68608)
I0410 02:56:59.993819  7556 net.cpp:165] Memory required for data: 2188832768
I0410 02:56:59.993829  7556 layer_factory.hpp:77] Creating layer fc5_classes_fc5_67_0_split
I0410 02:56:59.993840  7556 net.cpp:100] Creating Layer fc5_classes_fc5_67_0_split
I0410 02:56:59.993845  7556 net.cpp:434] fc5_classes_fc5_67_0_split <- fc5_classes
I0410 02:56:59.993851  7556 net.cpp:408] fc5_classes_fc5_67_0_split -> fc5_classes_fc5_67_0_split_0
I0410 02:56:59.993858  7556 net.cpp:408] fc5_classes_fc5_67_0_split -> fc5_classes_fc5_67_0_split_1
I0410 02:56:59.993867  7556 net.cpp:408] fc5_classes_fc5_67_0_split -> fc5_classes_fc5_67_0_split_2
I0410 02:56:59.993921  7556 net.cpp:150] Setting up fc5_classes_fc5_67_0_split
I0410 02:56:59.993928  7556 net.cpp:157] Top shape: 1024 67 (68608)
I0410 02:56:59.993932  7556 net.cpp:157] Top shape: 1024 67 (68608)
I0410 02:56:59.993937  7556 net.cpp:157] Top shape: 1024 67 (68608)
I0410 02:56:59.993938  7556 net.cpp:165] Memory required for data: 2189656064
I0410 02:56:59.993942  7556 layer_factory.hpp:77] Creating layer loss
I0410 02:56:59.993952  7556 net.cpp:100] Creating Layer loss
I0410 02:56:59.993957  7556 net.cpp:434] loss <- fc5_classes_fc5_67_0_split_0
I0410 02:56:59.993960  7556 net.cpp:434] loss <- label_data_1_split_0
I0410 02:56:59.993965  7556 net.cpp:408] loss -> loss
…
