…
I0528 07:52:08.835364 21097 solver.cpp:81] Creating training net from train_net file: ./Prototxt/experiment_21/RTSD/orig/trial_2/train.prototxt
I0528 07:52:08.835741 21097 net.cpp:58] Initializing net from parameters: 
state {
  phase: TRAIN
  level: 0
  stage: ""
}
layer {
  name: "data"
  type: "Data"
  top: "data"
  top: "label"
  include {
    phase: TRAIN
  }
  transform_param {
    scale: 0.0039215689
    mirror: false
    crop_size: 48
    mean_value: 119
    mean_value: 113
    mean_value: 113
  }
  data_param {
    source: "../local_data/lmdb/RTSD/orig/train/lmdb"
    batch_size: 1024
    backend: LMDB
  }
}
layer {
  name: "conv1"
  type: "Convolution"
  bottom: "data"
  top: "conv1"
  convolution_param {
    num_output: 100
    pad: 0
    kernel_size: 7
    group: 1
    stride: 1
    weight_filler {
      type: "xavier"
    }
  }
}
layer {
  name: "conv1_relu"
  type: "ReLU"
  bottom: "conv1"
  top: "conv1"
}
layer {
  name: "pool1"
  type: "Pooling"
  bottom: "conv1"
  top: "pool1"
  pooling_param {
    pool: MAX
    kernel_size: 2
    stride: 2
  }
}
layer {
  name: "conv2"
  type: "Convolution"
  bottom: "pool1"
  top: "conv2"
  convolution_param {
    num_output: 150
    pad: 0
    kernel_size: 4
    group: 1
    stride: 1
    weight_filler {
      type: "xavier"
    }
  }
}
layer {
  name: "conv2_relu"
  type: "ReLU"
  bottom: "conv2"
  top: "conv2"
}
layer {
  name: "pool2"
  type: "Pooling"
  bottom: "conv2"
  top: "pool2"
  pooling_param {
    pool: MAX
    kernel_size: 2
    stride: 2
  }
}
layer {
  name: "conv3"
  type: "Convolution"
  bottom: "pool2"
  top: "conv3"
  convolution_param {
    num_output: 250
    pad: 0
    kernel_size: 4
    group: 1
    stride: 1
    weight_filler {
      type: "xavier"
    }
  }
}
layer {
  name: "conv3_relu"
  type: "ReLU"
  bottom: "conv3"
  top: "conv3"
}
layer {
  name: "pool3"
  type: "Pooling"
  bottom: "conv3"
  top: "pool3"
  pooling_param {
    pool: MAX
    kernel_size: 2
    stride: 2
  }
}
layer {
  name: "fc4_300"
  type: "InnerProduct"
  bottom: "pool3"
  top: "fc4_300"
  inner_product_param {
    num_output: 300
    weight_filler {
      type: "xavier"
    }
  }
}
layer {
  name: "fc4_relu"
  type: "ReLU"
  bottom: "fc4_300"
  top: "fc4_300"
}
layer {
  name: "fc5_116"
  type: "InnerProduct"
  bottom: "fc4_300"
  top: "fc5_classes"
  inner_product_param {
    num_output: 116
    weight_filler {
      type: "xavier"
    }
  }
}
layer {
  name: "softmax"
  type: "Softmax"
  bottom: "fc5_classes"
  top: "softmax"
}
layer {
  name: "loss"
  type: "MultinomialLogisticLoss"
  bottom: "softmax"
  bottom: "label"
  top: "loss"
}
layer {
  name: "accuracy_1"
  type: "Accuracy"
  bottom: "fc5_classes"
  bottom: "label"
  top: "accuracy_1"
  accuracy_param {
    top_k: 1
  }
}
layer {
  name: "accuracy_5"
  type: "Accuracy"
  bottom: "fc5_classes"
  bottom: "label"
  top: "accuracy_5"
  accuracy_param {
    top_k: 5
  }
}
layer {
  name: "silence"
  type: "Silence"
  bottom: "accuracy_1"
  bottom: "accuracy_5"
}
I0528 07:52:08.835844 21097 layer_factory.hpp:77] Creating layer data
I0528 07:52:08.836663 21097 net.cpp:100] Creating Layer data
I0528 07:52:08.836675 21097 net.cpp:408] data -> data
I0528 07:52:08.836740 21097 net.cpp:408] data -> label
I0528 07:52:08.837548 21165 db_lmdb.cpp:35] Opened lmdb ../local_data/lmdb/RTSD/orig/train/lmdb
I0528 07:52:08.858656 21097 data_layer.cpp:41] output data size: 1024,3,48,48
I0528 07:52:08.904342 21097 net.cpp:150] Setting up data
I0528 07:52:08.904395 21097 net.cpp:157] Top shape: 1024 3 48 48 (7077888)
I0528 07:52:08.904402 21097 net.cpp:157] Top shape: 1024 (1024)
I0528 07:52:08.904407 21097 net.cpp:165] Memory required for data: 28315648
I0528 07:52:08.904415 21097 layer_factory.hpp:77] Creating layer label_data_1_split
I0528 07:52:08.904426 21097 net.cpp:100] Creating Layer label_data_1_split
I0528 07:52:08.904433 21097 net.cpp:434] label_data_1_split <- label
I0528 07:52:08.904444 21097 net.cpp:408] label_data_1_split -> label_data_1_split_0
I0528 07:52:08.904454 21097 net.cpp:408] label_data_1_split -> label_data_1_split_1
I0528 07:52:08.904464 21097 net.cpp:408] label_data_1_split -> label_data_1_split_2
I0528 07:52:08.904512 21097 net.cpp:150] Setting up label_data_1_split
I0528 07:52:08.904522 21097 net.cpp:157] Top shape: 1024 (1024)
I0528 07:52:08.904526 21097 net.cpp:157] Top shape: 1024 (1024)
I0528 07:52:08.904531 21097 net.cpp:157] Top shape: 1024 (1024)
I0528 07:52:08.904536 21097 net.cpp:165] Memory required for data: 28327936
I0528 07:52:08.904541 21097 layer_factory.hpp:77] Creating layer conv1
I0528 07:52:08.904557 21097 net.cpp:100] Creating Layer conv1
I0528 07:52:08.904564 21097 net.cpp:434] conv1 <- data
I0528 07:52:08.904577 21097 net.cpp:408] conv1 -> conv1
I0528 07:52:10.063206 21097 net.cpp:150] Setting up conv1
I0528 07:52:10.063235 21097 net.cpp:157] Top shape: 1024 100 42 42 (180633600)
I0528 07:52:10.063241 21097 net.cpp:165] Memory required for data: 750862336
I0528 07:52:10.063257 21097 layer_factory.hpp:77] Creating layer conv1_relu
I0528 07:52:10.063269 21097 net.cpp:100] Creating Layer conv1_relu
I0528 07:52:10.063275 21097 net.cpp:434] conv1_relu <- conv1
I0528 07:52:10.063282 21097 net.cpp:395] conv1_relu -> conv1 (in-place)
I0528 07:52:10.063423 21097 net.cpp:150] Setting up conv1_relu
I0528 07:52:10.063436 21097 net.cpp:157] Top shape: 1024 100 42 42 (180633600)
I0528 07:52:10.063442 21097 net.cpp:165] Memory required for data: 1473396736
I0528 07:52:10.063448 21097 layer_factory.hpp:77] Creating layer pool1
I0528 07:52:10.063460 21097 net.cpp:100] Creating Layer pool1
I0528 07:52:10.063464 21097 net.cpp:434] pool1 <- conv1
I0528 07:52:10.063470 21097 net.cpp:408] pool1 -> pool1
I0528 07:52:10.063511 21097 net.cpp:150] Setting up pool1
I0528 07:52:10.063516 21097 net.cpp:157] Top shape: 1024 100 21 21 (45158400)
I0528 07:52:10.063521 21097 net.cpp:165] Memory required for data: 1654030336
I0528 07:52:10.063525 21097 layer_factory.hpp:77] Creating layer conv2
I0528 07:52:10.063536 21097 net.cpp:100] Creating Layer conv2
I0528 07:52:10.063540 21097 net.cpp:434] conv2 <- pool1
I0528 07:52:10.063547 21097 net.cpp:408] conv2 -> conv2
I0528 07:52:10.066392 21097 net.cpp:150] Setting up conv2
I0528 07:52:10.066408 21097 net.cpp:157] Top shape: 1024 150 18 18 (49766400)
I0528 07:52:10.066413 21097 net.cpp:165] Memory required for data: 1853095936
I0528 07:52:10.066424 21097 layer_factory.hpp:77] Creating layer conv2_relu
I0528 07:52:10.066432 21097 net.cpp:100] Creating Layer conv2_relu
I0528 07:52:10.066437 21097 net.cpp:434] conv2_relu <- conv2
I0528 07:52:10.066444 21097 net.cpp:395] conv2_relu -> conv2 (in-place)
I0528 07:52:10.066567 21097 net.cpp:150] Setting up conv2_relu
I0528 07:52:10.066577 21097 net.cpp:157] Top shape: 1024 150 18 18 (49766400)
I0528 07:52:10.066583 21097 net.cpp:165] Memory required for data: 2052161536
I0528 07:52:10.066591 21097 layer_factory.hpp:77] Creating layer pool2
I0528 07:52:10.066599 21097 net.cpp:100] Creating Layer pool2
I0528 07:52:10.066606 21097 net.cpp:434] pool2 <- conv2
I0528 07:52:10.066613 21097 net.cpp:408] pool2 -> pool2
I0528 07:52:10.066648 21097 net.cpp:150] Setting up pool2
I0528 07:52:10.066654 21097 net.cpp:157] Top shape: 1024 150 9 9 (12441600)
I0528 07:52:10.066658 21097 net.cpp:165] Memory required for data: 2101927936
I0528 07:52:10.066661 21097 layer_factory.hpp:77] Creating layer conv3
I0528 07:52:10.066671 21097 net.cpp:100] Creating Layer conv3
I0528 07:52:10.066674 21097 net.cpp:434] conv3 <- pool2
I0528 07:52:10.066680 21097 net.cpp:408] conv3 -> conv3
I0528 07:52:10.071393 21097 net.cpp:150] Setting up conv3
I0528 07:52:10.071418 21097 net.cpp:157] Top shape: 1024 250 6 6 (9216000)
I0528 07:52:10.071422 21097 net.cpp:165] Memory required for data: 2138791936
I0528 07:52:10.071434 21097 layer_factory.hpp:77] Creating layer conv3_relu
I0528 07:52:10.071444 21097 net.cpp:100] Creating Layer conv3_relu
I0528 07:52:10.071449 21097 net.cpp:434] conv3_relu <- conv3
I0528 07:52:10.071455 21097 net.cpp:395] conv3_relu -> conv3 (in-place)
I0528 07:52:10.071791 21097 net.cpp:150] Setting up conv3_relu
I0528 07:52:10.071802 21097 net.cpp:157] Top shape: 1024 250 6 6 (9216000)
I0528 07:52:10.071806 21097 net.cpp:165] Memory required for data: 2175655936
I0528 07:52:10.071811 21097 layer_factory.hpp:77] Creating layer pool3
I0528 07:52:10.071818 21097 net.cpp:100] Creating Layer pool3
I0528 07:52:10.071822 21097 net.cpp:434] pool3 <- conv3
I0528 07:52:10.071827 21097 net.cpp:408] pool3 -> pool3
I0528 07:52:10.071861 21097 net.cpp:150] Setting up pool3
I0528 07:52:10.071868 21097 net.cpp:157] Top shape: 1024 250 3 3 (2304000)
I0528 07:52:10.071871 21097 net.cpp:165] Memory required for data: 2184871936
I0528 07:52:10.071876 21097 layer_factory.hpp:77] Creating layer fc4_300
I0528 07:52:10.071882 21097 net.cpp:100] Creating Layer fc4_300
I0528 07:52:10.071885 21097 net.cpp:434] fc4_300 <- pool3
I0528 07:52:10.071892 21097 net.cpp:408] fc4_300 -> fc4_300
I0528 07:52:10.076232 21097 net.cpp:150] Setting up fc4_300
I0528 07:52:10.076252 21097 net.cpp:157] Top shape: 1024 300 (307200)
I0528 07:52:10.076256 21097 net.cpp:165] Memory required for data: 2186100736
I0528 07:52:10.076264 21097 layer_factory.hpp:77] Creating layer fc4_relu
I0528 07:52:10.076272 21097 net.cpp:100] Creating Layer fc4_relu
I0528 07:52:10.076277 21097 net.cpp:434] fc4_relu <- fc4_300
I0528 07:52:10.076282 21097 net.cpp:395] fc4_relu -> fc4_300 (in-place)
I0528 07:52:10.076431 21097 net.cpp:150] Setting up fc4_relu
I0528 07:52:10.076441 21097 net.cpp:157] Top shape: 1024 300 (307200)
I0528 07:52:10.076444 21097 net.cpp:165] Memory required for data: 2187329536
I0528 07:52:10.076449 21097 layer_factory.hpp:77] Creating layer fc5_116
I0528 07:52:10.076457 21097 net.cpp:100] Creating Layer fc5_116
I0528 07:52:10.076462 21097 net.cpp:434] fc5_116 <- fc4_300
I0528 07:52:10.076468 21097 net.cpp:408] fc5_116 -> fc5_classes
I0528 07:52:10.077942 21097 net.cpp:150] Setting up fc5_116
I0528 07:52:10.077960 21097 net.cpp:157] Top shape: 1024 116 (118784)
I0528 07:52:10.077965 21097 net.cpp:165] Memory required for data: 2187804672
I0528 07:52:10.077975 21097 layer_factory.hpp:77] Creating layer fc5_classes_fc5_116_0_split
I0528 07:52:10.077983 21097 net.cpp:100] Creating Layer fc5_classes_fc5_116_0_split
I0528 07:52:10.077988 21097 net.cpp:434] fc5_classes_fc5_116_0_split <- fc5_classes
I0528 07:52:10.077994 21097 net.cpp:408] fc5_classes_fc5_116_0_split -> fc5_classes_fc5_116_0_split_0
I0528 07:52:10.078001 21097 net.cpp:408] fc5_classes_fc5_116_0_split -> fc5_classes_fc5_116_0_split_1
I0528 07:52:10.078006 21097 net.cpp:408] fc5_classes_fc5_116_0_split -> fc5_classes_fc5_116_0_split_2
I0528 07:52:10.078043 21097 net.cpp:150] Setting up fc5_classes_fc5_116_0_split
I0528 07:52:10.078049 21097 net.cpp:157] Top shape: 1024 116 (118784)
I0528 07:52:10.078053 21097 net.cpp:157] Top shape: 1024 116 (118784)
I0528 07:52:10.078058 21097 net.cpp:157] Top shape: 1024 116 (118784)
I0528 07:52:10.078060 21097 net.cpp:165] Memory required for data: 2189230080
I0528 07:52:10.078064 21097 layer_factory.hpp:77] Creating layer softmax
I0528 07:52:10.078070 21097 net.cpp:100] Creating Layer softmax
I0528 07:52:10.078074 21097 net.cpp:434] softmax <- fc5_classes_fc5_116_0_split_0
I0528 07:52:10.078079 21097 net.cpp:408] softmax -> softmax
I0528 07:52:10.078282 21097 net.cpp:150] Setting up softmax
I0528 07:52:10.078294 21097 net.cpp:157] Top shape: 1024 116 (118784)
I0528 07:52:10.078299 21097 net.cpp:165] Memory required for data: 2189705216
I0528 07:52:10.078303 21097 layer_factory.hpp:77] Creating layer loss
I0528 07:52:10.078312 21097 net.cpp:100] Creating Layer loss
I0528 07:52:10.078333 21097 net.cpp:434] loss <- softmax
I0528 07:52:10.078339 21097 net.cpp:434] loss <- label_data_1_split_0
I0528 07:52:10.078344 21097 net.cpp:408] loss -> loss
…
