…
I0508 03:58:14.955968 17765 solver.cpp:93] Creating training net from train_net file: ./Prototxt/experiment_15/RTSD/CoNorm/trial_3/train.prototxt
I0508 03:58:14.956434 17765 net.cpp:58] Initializing net from parameters: 
state {
  phase: TRAIN
  level: 0
  stage: ""
}
layer {
  name: "data"
  type: "Data"
  top: "data"
  top: "label"
  include {
    phase: TRAIN
  }
  transform_param {
    scale: 0.0039215689
    mirror: false
    crop_size: 48
    mean_value: 135
    mean_value: 135
    mean_value: 134
  }
  data_param {
    source: "../local_data/lmdb/RTSD/CoNorm/train/lmdb"
    batch_size: 1024
    backend: LMDB
  }
}
layer {
  name: "conv1"
  type: "Convolution"
  bottom: "data"
  top: "conv1"
  convolution_param {
    num_output: 100
    pad: 0
    kernel_size: 7
    group: 1
    stride: 1
    weight_filler {
      type: "xavier"
    }
  }
}
layer {
  name: "conv1_prescale"
  type: "Scale"
  bottom: "conv1"
  top: "conv1"
  param {
    lr_mult: 0
    decay_mult: 0
  }
  scale_param {
    filler {
      value: 0.6666
    }
    bias_term: false
  }
}
layer {
  name: "conv1_sTanH"
  type: "TanH"
  bottom: "conv1"
  top: "conv1"
}
layer {
  name: "conv1_postscale"
  type: "Scale"
  bottom: "conv1"
  top: "conv1"
  param {
    lr_mult: 0
    decay_mult: 0
  }
  scale_param {
    filler {
      value: 1.7159
    }
    bias_term: false
  }
}
layer {
  name: "pool1"
  type: "Pooling"
  bottom: "conv1"
  top: "pool1"
  pooling_param {
    pool: MAX
    kernel_size: 2
    stride: 2
  }
}
layer {
  name: "conv2"
  type: "Convolution"
  bottom: "pool1"
  top: "conv2"
  convolution_param {
    num_output: 150
    pad: 0
    kernel_size: 4
    group: 2
    stride: 1
    weight_filler {
      type: "xavier"
    }
  }
}
layer {
  name: "conv2_prescale"
  type: "Scale"
  bottom: "conv2"
  top: "conv2"
  param {
    lr_mult: 0
    decay_mult: 0
  }
  scale_param {
    filler {
      value: 0.6666
    }
    bias_term: false
  }
}
layer {
  name: "conv2_sTanH"
  type: "TanH"
  bottom: "conv2"
  top: "conv2"
}
layer {
  name: "conv2_postscale"
  type: "Scale"
  bottom: "conv2"
  top: "conv2"
  param {
    lr_mult: 0
    decay_mult: 0
  }
  scale_param {
    filler {
      value: 1.7159
    }
    bias_term: false
  }
}
layer {
  name: "pool2"
  type: "Pooling"
  bottom: "conv2"
  top: "pool2"
  pooling_param {
    pool: MAX
    kernel_size: 2
    stride: 2
  }
}
layer {
  name: "conv3"
  type: "Convolution"
  bottom: "pool2"
  top: "conv3"
  convolution_param {
    num_output: 250
    pad: 0
    kernel_size: 4
    group: 2
    stride: 1
    weight_filler {
      type: "xavier"
    }
  }
}
layer {
  name: "conv3_prescale"
  type: "Scale"
  bottom: "conv3"
  top: "conv3"
  param {
    lr_mult: 0
    decay_mult: 0
  }
  scale_param {
    filler {
      value: 0.6666
    }
    bias_term: false
  }
}
layer {
  name: "conv3_sTanH"
  type: "TanH"
  bottom: "conv3"
  top: "conv3"
}
layer {
  name: "conv3_postscale"
  type: "Scale"
  bottom: "conv3"
  top: "conv3"
  param {
    lr_mult: 0
    decay_mult: 0
  }
  scale_param {
    filler {
      value: 1.7159
    }
    bias_term: false
  }
}
layer {
  name: "pool3"
  type: "Pooling"
  bottom: "conv3"
  top: "pool3"
  pooling_param {
    pool: MAX
    kernel_size: 2
    stride: 2
  }
}
layer {
  name: "fc4_300"
  type: "InnerProduct"
  bottom: "pool3"
  top: "fc4_300"
  inner_product_param {
    num_output: 300
    weight_filler {
      type: "xavier"
    }
  }
}
layer {
  name: "fc4_prescale"
  type: "Scale"
  bottom: "fc4_300"
  top: "fc4_300"
  param {
    lr_mult: 0
    decay_mult: 0
  }
  scale_param {
    filler {
      value: 0.6666
    }
    bias_term: false
  }
}
layer {
  name: "fc4_sTanH"
  type: "TanH"
  bottom: "fc4_300"
  top: "fc4_300"
}
layer {
  name: "fc4_postscale"
  type: "Scale"
  bottom: "fc4_300"
  top: "fc4_300"
  param {
    lr_mult: 0
    decay_mult: 0
  }
  scale_param {
    filler {
      value: 1.7159
    }
    bias_term: false
  }
}
layer {
  name: "fc5_116"
  type: "InnerProduct"
  bottom: "fc4_300"
  top: "fc5_classes"
  inner_product_param {
    num_output: 116
    weight_filler {
      type: "xavier"
    }
  }
}
layer {
  name: "softmax"
  type: "Softmax"
  bottom: "fc5_classes"
  top: "softmax"
}
layer {
  name: "loss"
  type: "MultinomialLogisticLoss"
  bottom: "softmax"
  bottom: "label"
  top: "loss"
}
layer {
  name: "accuracy_1"
  type: "Accuracy"
  bottom: "fc5_classes"
  bottom: "label"
  top: "accuracy_1"
  accuracy_param {
    top_k: 1
  }
}
layer {
  name: "accuracy_5"
  type: "Accuracy"
  bottom: "fc5_classes"
  bottom: "label"
  top: "accuracy_5"
  accuracy_param {
    top_k: 5
  }
}
layer {
  name: "silence"
  type: "Silence"
  bottom: "accuracy_1"
  bottom: "accuracy_5"
}
I0508 03:58:14.956627 17765 layer_factory.hpp:77] Creating layer data
I0508 03:58:14.957751 17765 net.cpp:100] Creating Layer data
I0508 03:58:14.957765 17765 net.cpp:408] data -> data
I0508 03:58:14.957787 17765 net.cpp:408] data -> label
I0508 03:58:14.964785 17878 db_lmdb.cpp:35] Opened lmdb ../local_data/lmdb/RTSD/CoNorm/train/lmdb
I0508 03:58:14.988858 17765 data_layer.cpp:41] output data size: 1024,3,48,48
I0508 03:58:15.052413 17765 net.cpp:150] Setting up data
I0508 03:58:15.052441 17765 net.cpp:157] Top shape: 1024 3 48 48 (7077888)
I0508 03:58:15.052446 17765 net.cpp:157] Top shape: 1024 (1024)
I0508 03:58:15.052449 17765 net.cpp:165] Memory required for data: 28315648
I0508 03:58:15.052460 17765 layer_factory.hpp:77] Creating layer label_data_1_split
I0508 03:58:15.052474 17765 net.cpp:100] Creating Layer label_data_1_split
I0508 03:58:15.052480 17765 net.cpp:434] label_data_1_split <- label
I0508 03:58:15.052494 17765 net.cpp:408] label_data_1_split -> label_data_1_split_0
I0508 03:58:15.052506 17765 net.cpp:408] label_data_1_split -> label_data_1_split_1
I0508 03:58:15.052515 17765 net.cpp:408] label_data_1_split -> label_data_1_split_2
I0508 03:58:15.052577 17765 net.cpp:150] Setting up label_data_1_split
I0508 03:58:15.052585 17765 net.cpp:157] Top shape: 1024 (1024)
I0508 03:58:15.052588 17765 net.cpp:157] Top shape: 1024 (1024)
I0508 03:58:15.052592 17765 net.cpp:157] Top shape: 1024 (1024)
I0508 03:58:15.052594 17765 net.cpp:165] Memory required for data: 28327936
I0508 03:58:15.052598 17765 layer_factory.hpp:77] Creating layer conv1
I0508 03:58:15.052614 17765 net.cpp:100] Creating Layer conv1
I0508 03:58:15.052619 17765 net.cpp:434] conv1 <- data
I0508 03:58:15.052625 17765 net.cpp:408] conv1 -> conv1
I0508 03:58:15.491133 17765 net.cpp:150] Setting up conv1
I0508 03:58:15.491165 17765 net.cpp:157] Top shape: 1024 100 42 42 (180633600)
I0508 03:58:15.491170 17765 net.cpp:165] Memory required for data: 750862336
I0508 03:58:15.491196 17765 layer_factory.hpp:77] Creating layer conv1_prescale
I0508 03:58:15.491214 17765 net.cpp:100] Creating Layer conv1_prescale
I0508 03:58:15.491220 17765 net.cpp:434] conv1_prescale <- conv1
I0508 03:58:15.491227 17765 net.cpp:395] conv1_prescale -> conv1 (in-place)
I0508 03:58:15.491358 17765 net.cpp:150] Setting up conv1_prescale
I0508 03:58:15.491367 17765 net.cpp:157] Top shape: 1024 100 42 42 (180633600)
I0508 03:58:15.491374 17765 net.cpp:165] Memory required for data: 1473396736
I0508 03:58:15.491380 17765 layer_factory.hpp:77] Creating layer conv1_sTanH
I0508 03:58:15.491391 17765 net.cpp:100] Creating Layer conv1_sTanH
I0508 03:58:15.491397 17765 net.cpp:434] conv1_sTanH <- conv1
I0508 03:58:15.491402 17765 net.cpp:395] conv1_sTanH -> conv1 (in-place)
I0508 03:58:15.491638 17765 net.cpp:150] Setting up conv1_sTanH
I0508 03:58:15.491652 17765 net.cpp:157] Top shape: 1024 100 42 42 (180633600)
I0508 03:58:15.491681 17765 net.cpp:165] Memory required for data: 2195931136
I0508 03:58:15.491688 17765 layer_factory.hpp:77] Creating layer conv1_postscale
I0508 03:58:15.491698 17765 net.cpp:100] Creating Layer conv1_postscale
I0508 03:58:15.491703 17765 net.cpp:434] conv1_postscale <- conv1
I0508 03:58:15.491710 17765 net.cpp:395] conv1_postscale -> conv1 (in-place)
I0508 03:58:15.491827 17765 net.cpp:150] Setting up conv1_postscale
I0508 03:58:15.491838 17765 net.cpp:157] Top shape: 1024 100 42 42 (180633600)
I0508 03:58:15.491842 17765 net.cpp:165] Memory required for data: 2918465536
I0508 03:58:15.491849 17765 layer_factory.hpp:77] Creating layer pool1
I0508 03:58:15.491858 17765 net.cpp:100] Creating Layer pool1
I0508 03:58:15.491863 17765 net.cpp:434] pool1 <- conv1
I0508 03:58:15.491868 17765 net.cpp:408] pool1 -> pool1
I0508 03:58:15.491941 17765 net.cpp:150] Setting up pool1
I0508 03:58:15.491952 17765 net.cpp:157] Top shape: 1024 100 21 21 (45158400)
I0508 03:58:15.491956 17765 net.cpp:165] Memory required for data: 3099099136
I0508 03:58:15.491961 17765 layer_factory.hpp:77] Creating layer conv2
I0508 03:58:15.491972 17765 net.cpp:100] Creating Layer conv2
I0508 03:58:15.491978 17765 net.cpp:434] conv2 <- pool1
I0508 03:58:15.491986 17765 net.cpp:408] conv2 -> conv2
I0508 03:58:15.498922 17765 net.cpp:150] Setting up conv2
I0508 03:58:15.498944 17765 net.cpp:157] Top shape: 1024 150 18 18 (49766400)
I0508 03:58:15.498950 17765 net.cpp:165] Memory required for data: 3298164736
I0508 03:58:15.498962 17765 layer_factory.hpp:77] Creating layer conv2_prescale
I0508 03:58:15.498976 17765 net.cpp:100] Creating Layer conv2_prescale
I0508 03:58:15.498982 17765 net.cpp:434] conv2_prescale <- conv2
I0508 03:58:15.498989 17765 net.cpp:395] conv2_prescale -> conv2 (in-place)
I0508 03:58:15.499109 17765 net.cpp:150] Setting up conv2_prescale
I0508 03:58:15.499119 17765 net.cpp:157] Top shape: 1024 150 18 18 (49766400)
I0508 03:58:15.499124 17765 net.cpp:165] Memory required for data: 3497230336
I0508 03:58:15.499130 17765 layer_factory.hpp:77] Creating layer conv2_sTanH
I0508 03:58:15.499137 17765 net.cpp:100] Creating Layer conv2_sTanH
I0508 03:58:15.499142 17765 net.cpp:434] conv2_sTanH <- conv2
I0508 03:58:15.499148 17765 net.cpp:395] conv2_sTanH -> conv2 (in-place)
I0508 03:58:15.499353 17765 net.cpp:150] Setting up conv2_sTanH
I0508 03:58:15.499366 17765 net.cpp:157] Top shape: 1024 150 18 18 (49766400)
I0508 03:58:15.499372 17765 net.cpp:165] Memory required for data: 3696295936
I0508 03:58:15.499375 17765 layer_factory.hpp:77] Creating layer conv2_postscale
I0508 03:58:15.499383 17765 net.cpp:100] Creating Layer conv2_postscale
I0508 03:58:15.499388 17765 net.cpp:434] conv2_postscale <- conv2
I0508 03:58:15.499394 17765 net.cpp:395] conv2_postscale -> conv2 (in-place)
I0508 03:58:15.499505 17765 net.cpp:150] Setting up conv2_postscale
I0508 03:58:15.499514 17765 net.cpp:157] Top shape: 1024 150 18 18 (49766400)
I0508 03:58:15.499519 17765 net.cpp:165] Memory required for data: 3895361536
I0508 03:58:15.499526 17765 layer_factory.hpp:77] Creating layer pool2
I0508 03:58:15.499534 17765 net.cpp:100] Creating Layer pool2
I0508 03:58:15.499541 17765 net.cpp:434] pool2 <- conv2
I0508 03:58:15.499546 17765 net.cpp:408] pool2 -> pool2
I0508 03:58:15.499594 17765 net.cpp:150] Setting up pool2
I0508 03:58:15.499603 17765 net.cpp:157] Top shape: 1024 150 9 9 (12441600)
I0508 03:58:15.499608 17765 net.cpp:165] Memory required for data: 3945127936
I0508 03:58:15.499613 17765 layer_factory.hpp:77] Creating layer conv3
I0508 03:58:15.499621 17765 net.cpp:100] Creating Layer conv3
I0508 03:58:15.499627 17765 net.cpp:434] conv3 <- pool2
I0508 03:58:15.499634 17765 net.cpp:408] conv3 -> conv3
I0508 03:58:15.507722 17765 net.cpp:150] Setting up conv3
I0508 03:58:15.507745 17765 net.cpp:157] Top shape: 1024 250 6 6 (9216000)
I0508 03:58:15.507751 17765 net.cpp:165] Memory required for data: 3981991936
I0508 03:58:15.507764 17765 layer_factory.hpp:77] Creating layer conv3_prescale
I0508 03:58:15.507794 17765 net.cpp:100] Creating Layer conv3_prescale
I0508 03:58:15.507802 17765 net.cpp:434] conv3_prescale <- conv3
I0508 03:58:15.507808 17765 net.cpp:395] conv3_prescale -> conv3 (in-place)
I0508 03:58:15.507941 17765 net.cpp:150] Setting up conv3_prescale
I0508 03:58:15.507954 17765 net.cpp:157] Top shape: 1024 250 6 6 (9216000)
I0508 03:58:15.507959 17765 net.cpp:165] Memory required for data: 4018855936
I0508 03:58:15.507966 17765 layer_factory.hpp:77] Creating layer conv3_sTanH
I0508 03:58:15.507973 17765 net.cpp:100] Creating Layer conv3_sTanH
I0508 03:58:15.507978 17765 net.cpp:434] conv3_sTanH <- conv3
I0508 03:58:15.507984 17765 net.cpp:395] conv3_sTanH -> conv3 (in-place)
I0508 03:58:15.508201 17765 net.cpp:150] Setting up conv3_sTanH
I0508 03:58:15.508215 17765 net.cpp:157] Top shape: 1024 250 6 6 (9216000)
I0508 03:58:15.508220 17765 net.cpp:165] Memory required for data: 4055719936
I0508 03:58:15.508224 17765 layer_factory.hpp:77] Creating layer conv3_postscale
I0508 03:58:15.508232 17765 net.cpp:100] Creating Layer conv3_postscale
I0508 03:58:15.508239 17765 net.cpp:434] conv3_postscale <- conv3
I0508 03:58:15.508244 17765 net.cpp:395] conv3_postscale -> conv3 (in-place)
I0508 03:58:15.508354 17765 net.cpp:150] Setting up conv3_postscale
I0508 03:58:15.508364 17765 net.cpp:157] Top shape: 1024 250 6 6 (9216000)
I0508 03:58:15.508369 17765 net.cpp:165] Memory required for data: 4092583936
I0508 03:58:15.508375 17765 layer_factory.hpp:77] Creating layer pool3
I0508 03:58:15.508386 17765 net.cpp:100] Creating Layer pool3
I0508 03:58:15.508393 17765 net.cpp:434] pool3 <- conv3
I0508 03:58:15.508399 17765 net.cpp:408] pool3 -> pool3
I0508 03:58:15.508445 17765 net.cpp:150] Setting up pool3
I0508 03:58:15.508455 17765 net.cpp:157] Top shape: 1024 250 3 3 (2304000)
I0508 03:58:15.508460 17765 net.cpp:165] Memory required for data: 4101799936
I0508 03:58:15.508462 17765 layer_factory.hpp:77] Creating layer fc4_300
I0508 03:58:15.508471 17765 net.cpp:100] Creating Layer fc4_300
I0508 03:58:15.508476 17765 net.cpp:434] fc4_300 <- pool3
I0508 03:58:15.508481 17765 net.cpp:408] fc4_300 -> fc4_300
I0508 03:58:15.517122 17765 net.cpp:150] Setting up fc4_300
I0508 03:58:15.517145 17765 net.cpp:157] Top shape: 1024 300 (307200)
I0508 03:58:15.517151 17765 net.cpp:165] Memory required for data: 4103028736
I0508 03:58:15.517160 17765 layer_factory.hpp:77] Creating layer fc4_prescale
I0508 03:58:15.517172 17765 net.cpp:100] Creating Layer fc4_prescale
I0508 03:58:15.517179 17765 net.cpp:434] fc4_prescale <- fc4_300
I0508 03:58:15.517185 17765 net.cpp:395] fc4_prescale -> fc4_300 (in-place)
I0508 03:58:15.517295 17765 net.cpp:150] Setting up fc4_prescale
I0508 03:58:15.517305 17765 net.cpp:157] Top shape: 1024 300 (307200)
I0508 03:58:15.517310 17765 net.cpp:165] Memory required for data: 4104257536
I0508 03:58:15.517315 17765 layer_factory.hpp:77] Creating layer fc4_sTanH
I0508 03:58:15.517323 17765 net.cpp:100] Creating Layer fc4_sTanH
I0508 03:58:15.517329 17765 net.cpp:434] fc4_sTanH <- fc4_300
I0508 03:58:15.517334 17765 net.cpp:395] fc4_sTanH -> fc4_300 (in-place)
I0508 03:58:15.524179 17765 net.cpp:150] Setting up fc4_sTanH
I0508 03:58:15.524202 17765 net.cpp:157] Top shape: 1024 300 (307200)
I0508 03:58:15.524209 17765 net.cpp:165] Memory required for data: 4105486336
I0508 03:58:15.524214 17765 layer_factory.hpp:77] Creating layer fc4_postscale
I0508 03:58:15.524225 17765 net.cpp:100] Creating Layer fc4_postscale
I0508 03:58:15.524231 17765 net.cpp:434] fc4_postscale <- fc4_300
I0508 03:58:15.524238 17765 net.cpp:395] fc4_postscale -> fc4_300 (in-place)
I0508 03:58:15.524363 17765 net.cpp:150] Setting up fc4_postscale
I0508 03:58:15.524374 17765 net.cpp:157] Top shape: 1024 300 (307200)
I0508 03:58:15.524379 17765 net.cpp:165] Memory required for data: 4106715136
I0508 03:58:15.524385 17765 layer_factory.hpp:77] Creating layer fc5_116
I0508 03:58:15.524394 17765 net.cpp:100] Creating Layer fc5_116
I0508 03:58:15.524400 17765 net.cpp:434] fc5_116 <- fc4_300
I0508 03:58:15.524406 17765 net.cpp:408] fc5_116 -> fc5_classes
I0508 03:58:15.534569 17765 net.cpp:150] Setting up fc5_116
I0508 03:58:15.534591 17765 net.cpp:157] Top shape: 1024 116 (118784)
I0508 03:58:15.534597 17765 net.cpp:165] Memory required for data: 4107190272
I0508 03:58:15.534610 17765 layer_factory.hpp:77] Creating layer fc5_classes_fc5_116_0_split
I0508 03:58:15.534621 17765 net.cpp:100] Creating Layer fc5_classes_fc5_116_0_split
I0508 03:58:15.534628 17765 net.cpp:434] fc5_classes_fc5_116_0_split <- fc5_classes
I0508 03:58:15.534636 17765 net.cpp:408] fc5_classes_fc5_116_0_split -> fc5_classes_fc5_116_0_split_0
I0508 03:58:15.534646 17765 net.cpp:408] fc5_classes_fc5_116_0_split -> fc5_classes_fc5_116_0_split_1
I0508 03:58:15.534656 17765 net.cpp:408] fc5_classes_fc5_116_0_split -> fc5_classes_fc5_116_0_split_2
I0508 03:58:15.534718 17765 net.cpp:150] Setting up fc5_classes_fc5_116_0_split
I0508 03:58:15.534728 17765 net.cpp:157] Top shape: 1024 116 (118784)
I0508 03:58:15.534734 17765 net.cpp:157] Top shape: 1024 116 (118784)
I0508 03:58:15.534739 17765 net.cpp:157] Top shape: 1024 116 (118784)
I0508 03:58:15.534744 17765 net.cpp:165] Memory required for data: 4108615680
I0508 03:58:15.534747 17765 layer_factory.hpp:77] Creating layer softmax
I0508 03:58:15.534754 17765 net.cpp:100] Creating Layer softmax
I0508 03:58:15.534759 17765 net.cpp:434] softmax <- fc5_classes_fc5_116_0_split_0
I0508 03:58:15.534765 17765 net.cpp:408] softmax -> softmax
I0508 03:58:15.535066 17765 net.cpp:150] Setting up softmax
I0508 03:58:15.535082 17765 net.cpp:157] Top shape: 1024 116 (118784)
I0508 03:58:15.535087 17765 net.cpp:165] Memory required for data: 4109090816
I0508 03:58:15.535092 17765 layer_factory.hpp:77] Creating layer loss
I0508 03:58:15.535100 17765 net.cpp:100] Creating Layer loss
I0508 03:58:15.535105 17765 net.cpp:434] loss <- softmax
I0508 03:58:15.535111 17765 net.cpp:434] loss <- label_data_1_split_0
I0508 03:58:15.535118 17765 net.cpp:408] loss -> loss
…
