…
I0528 05:53:48.808626 27929 solver.cpp:81] Creating training net from train_net file: ./Prototxt/experiment_21/RTSD/histeq/trial_5/train.prototxt
I0528 05:53:48.809003 27929 net.cpp:58] Initializing net from parameters: 
state {
  phase: TRAIN
  level: 0
  stage: ""
}
layer {
  name: "data"
  type: "Data"
  top: "data"
  top: "label"
  include {
    phase: TRAIN
  }
  transform_param {
    scale: 0.0039215689
    mirror: false
    crop_size: 48
    mean_value: 135
    mean_value: 128
    mean_value: 128
  }
  data_param {
    source: "../local_data/lmdb/RTSD/histeq/train/lmdb"
    batch_size: 1024
    backend: LMDB
  }
}
layer {
  name: "conv1"
  type: "Convolution"
  bottom: "data"
  top: "conv1"
  convolution_param {
    num_output: 100
    pad: 0
    kernel_size: 7
    group: 1
    stride: 1
    weight_filler {
      type: "xavier"
    }
  }
}
layer {
  name: "conv1_relu"
  type: "ReLU"
  bottom: "conv1"
  top: "conv1"
}
layer {
  name: "pool1"
  type: "Pooling"
  bottom: "conv1"
  top: "pool1"
  pooling_param {
    pool: MAX
    kernel_size: 2
    stride: 2
  }
}
layer {
  name: "conv2"
  type: "Convolution"
  bottom: "pool1"
  top: "conv2"
  convolution_param {
    num_output: 150
    pad: 0
    kernel_size: 4
    group: 1
    stride: 1
    weight_filler {
      type: "xavier"
    }
  }
}
layer {
  name: "conv2_relu"
  type: "ReLU"
  bottom: "conv2"
  top: "conv2"
}
layer {
  name: "pool2"
  type: "Pooling"
  bottom: "conv2"
  top: "pool2"
  pooling_param {
    pool: MAX
    kernel_size: 2
    stride: 2
  }
}
layer {
  name: "conv3"
  type: "Convolution"
  bottom: "pool2"
  top: "conv3"
  convolution_param {
    num_output: 250
    pad: 0
    kernel_size: 4
    group: 1
    stride: 1
    weight_filler {
      type: "xavier"
    }
  }
}
layer {
  name: "conv3_relu"
  type: "ReLU"
  bottom: "conv3"
  top: "conv3"
}
layer {
  name: "pool3"
  type: "Pooling"
  bottom: "conv3"
  top: "pool3"
  pooling_param {
    pool: MAX
    kernel_size: 2
    stride: 2
  }
}
layer {
  name: "fc4_300"
  type: "InnerProduct"
  bottom: "pool3"
  top: "fc4_300"
  inner_product_param {
    num_output: 300
    weight_filler {
      type: "xavier"
    }
  }
}
layer {
  name: "fc4_relu"
  type: "ReLU"
  bottom: "fc4_300"
  top: "fc4_300"
}
layer {
  name: "fc5_116"
  type: "InnerProduct"
  bottom: "fc4_300"
  top: "fc5_classes"
  inner_product_param {
    num_output: 116
    weight_filler {
      type: "xavier"
    }
  }
}
layer {
  name: "softmax"
  type: "Softmax"
  bottom: "fc5_classes"
  top: "softmax"
}
layer {
  name: "loss"
  type: "MultinomialLogisticLoss"
  bottom: "softmax"
  bottom: "label"
  top: "loss"
}
layer {
  name: "accuracy_1"
  type: "Accuracy"
  bottom: "fc5_classes"
  bottom: "label"
  top: "accuracy_1"
  accuracy_param {
    top_k: 1
  }
}
layer {
  name: "accuracy_5"
  type: "Accuracy"
  bottom: "fc5_classes"
  bottom: "label"
  top: "accuracy_5"
  accuracy_param {
    top_k: 5
  }
}
layer {
  name: "silence"
  type: "Silence"
  bottom: "accuracy_1"
  bottom: "accuracy_5"
}
I0528 05:53:48.809100 27929 layer_factory.hpp:77] Creating layer data
I0528 05:53:48.809906 27929 net.cpp:100] Creating Layer data
I0528 05:53:48.809926 27929 net.cpp:408] data -> data
I0528 05:53:48.809963 27929 net.cpp:408] data -> label
I0528 05:53:48.811484 27961 db_lmdb.cpp:35] Opened lmdb ../local_data/lmdb/RTSD/histeq/train/lmdb
I0528 05:53:48.834586 27929 data_layer.cpp:41] output data size: 1024,3,48,48
I0528 05:53:48.889703 27929 net.cpp:150] Setting up data
I0528 05:53:48.889802 27929 net.cpp:157] Top shape: 1024 3 48 48 (7077888)
I0528 05:53:48.889822 27929 net.cpp:157] Top shape: 1024 (1024)
I0528 05:53:48.889835 27929 net.cpp:165] Memory required for data: 28315648
I0528 05:53:48.889859 27929 layer_factory.hpp:77] Creating layer label_data_1_split
I0528 05:53:48.889884 27929 net.cpp:100] Creating Layer label_data_1_split
I0528 05:53:48.889899 27929 net.cpp:434] label_data_1_split <- label
I0528 05:53:48.889928 27929 net.cpp:408] label_data_1_split -> label_data_1_split_0
I0528 05:53:48.889955 27929 net.cpp:408] label_data_1_split -> label_data_1_split_1
I0528 05:53:48.889973 27929 net.cpp:408] label_data_1_split -> label_data_1_split_2
I0528 05:53:48.890041 27929 net.cpp:150] Setting up label_data_1_split
I0528 05:53:48.890053 27929 net.cpp:157] Top shape: 1024 (1024)
I0528 05:53:48.890060 27929 net.cpp:157] Top shape: 1024 (1024)
I0528 05:53:48.890070 27929 net.cpp:157] Top shape: 1024 (1024)
I0528 05:53:48.890079 27929 net.cpp:165] Memory required for data: 28327936
I0528 05:53:48.890089 27929 layer_factory.hpp:77] Creating layer conv1
I0528 05:53:48.890112 27929 net.cpp:100] Creating Layer conv1
I0528 05:53:48.890123 27929 net.cpp:434] conv1 <- data
I0528 05:53:48.890137 27929 net.cpp:408] conv1 -> conv1
I0528 05:53:49.559831 27929 net.cpp:150] Setting up conv1
I0528 05:53:49.559862 27929 net.cpp:157] Top shape: 1024 100 42 42 (180633600)
I0528 05:53:49.559869 27929 net.cpp:165] Memory required for data: 750862336
I0528 05:53:49.559883 27929 layer_factory.hpp:77] Creating layer conv1_relu
I0528 05:53:49.559895 27929 net.cpp:100] Creating Layer conv1_relu
I0528 05:53:49.559900 27929 net.cpp:434] conv1_relu <- conv1
I0528 05:53:49.559906 27929 net.cpp:395] conv1_relu -> conv1 (in-place)
I0528 05:53:49.560047 27929 net.cpp:150] Setting up conv1_relu
I0528 05:53:49.560060 27929 net.cpp:157] Top shape: 1024 100 42 42 (180633600)
I0528 05:53:49.560065 27929 net.cpp:165] Memory required for data: 1473396736
I0528 05:53:49.560071 27929 layer_factory.hpp:77] Creating layer pool1
I0528 05:53:49.560082 27929 net.cpp:100] Creating Layer pool1
I0528 05:53:49.560086 27929 net.cpp:434] pool1 <- conv1
I0528 05:53:49.560092 27929 net.cpp:408] pool1 -> pool1
I0528 05:53:49.560132 27929 net.cpp:150] Setting up pool1
I0528 05:53:49.560140 27929 net.cpp:157] Top shape: 1024 100 21 21 (45158400)
I0528 05:53:49.560144 27929 net.cpp:165] Memory required for data: 1654030336
I0528 05:53:49.560148 27929 layer_factory.hpp:77] Creating layer conv2
I0528 05:53:49.560158 27929 net.cpp:100] Creating Layer conv2
I0528 05:53:49.560163 27929 net.cpp:434] conv2 <- pool1
I0528 05:53:49.560169 27929 net.cpp:408] conv2 -> conv2
I0528 05:53:49.563108 27929 net.cpp:150] Setting up conv2
I0528 05:53:49.563127 27929 net.cpp:157] Top shape: 1024 150 18 18 (49766400)
I0528 05:53:49.563133 27929 net.cpp:165] Memory required for data: 1853095936
I0528 05:53:49.563143 27929 layer_factory.hpp:77] Creating layer conv2_relu
I0528 05:53:49.563153 27929 net.cpp:100] Creating Layer conv2_relu
I0528 05:53:49.563158 27929 net.cpp:434] conv2_relu <- conv2
I0528 05:53:49.563163 27929 net.cpp:395] conv2_relu -> conv2 (in-place)
I0528 05:53:49.563294 27929 net.cpp:150] Setting up conv2_relu
I0528 05:53:49.563307 27929 net.cpp:157] Top shape: 1024 150 18 18 (49766400)
I0528 05:53:49.563310 27929 net.cpp:165] Memory required for data: 2052161536
I0528 05:53:49.563316 27929 layer_factory.hpp:77] Creating layer pool2
I0528 05:53:49.563323 27929 net.cpp:100] Creating Layer pool2
I0528 05:53:49.563328 27929 net.cpp:434] pool2 <- conv2
I0528 05:53:49.563334 27929 net.cpp:408] pool2 -> pool2
I0528 05:53:49.563369 27929 net.cpp:150] Setting up pool2
I0528 05:53:49.563380 27929 net.cpp:157] Top shape: 1024 150 9 9 (12441600)
I0528 05:53:49.563385 27929 net.cpp:165] Memory required for data: 2101927936
I0528 05:53:49.563390 27929 layer_factory.hpp:77] Creating layer conv3
I0528 05:53:49.563400 27929 net.cpp:100] Creating Layer conv3
I0528 05:53:49.563405 27929 net.cpp:434] conv3 <- pool2
I0528 05:53:49.563410 27929 net.cpp:408] conv3 -> conv3
I0528 05:53:49.633368 27929 net.cpp:150] Setting up conv3
I0528 05:53:49.633401 27929 net.cpp:157] Top shape: 1024 250 6 6 (9216000)
I0528 05:53:49.633409 27929 net.cpp:165] Memory required for data: 2138791936
I0528 05:53:49.633430 27929 layer_factory.hpp:77] Creating layer conv3_relu
I0528 05:53:49.633443 27929 net.cpp:100] Creating Layer conv3_relu
I0528 05:53:49.633450 27929 net.cpp:434] conv3_relu <- conv3
I0528 05:53:49.633460 27929 net.cpp:395] conv3_relu -> conv3 (in-place)
I0528 05:53:49.634750 27929 net.cpp:150] Setting up conv3_relu
I0528 05:53:49.634768 27929 net.cpp:157] Top shape: 1024 250 6 6 (9216000)
I0528 05:53:49.634778 27929 net.cpp:165] Memory required for data: 2175655936
I0528 05:53:49.634785 27929 layer_factory.hpp:77] Creating layer pool3
I0528 05:53:49.634799 27929 net.cpp:100] Creating Layer pool3
I0528 05:53:49.634805 27929 net.cpp:434] pool3 <- conv3
I0528 05:53:49.634814 27929 net.cpp:408] pool3 -> pool3
I0528 05:53:49.634871 27929 net.cpp:150] Setting up pool3
I0528 05:53:49.634881 27929 net.cpp:157] Top shape: 1024 250 3 3 (2304000)
I0528 05:53:49.634887 27929 net.cpp:165] Memory required for data: 2184871936
I0528 05:53:49.634893 27929 layer_factory.hpp:77] Creating layer fc4_300
I0528 05:53:49.634905 27929 net.cpp:100] Creating Layer fc4_300
I0528 05:53:49.634912 27929 net.cpp:434] fc4_300 <- pool3
I0528 05:53:49.634919 27929 net.cpp:408] fc4_300 -> fc4_300
I0528 05:53:49.640755 27929 net.cpp:150] Setting up fc4_300
I0528 05:53:49.640794 27929 net.cpp:157] Top shape: 1024 300 (307200)
I0528 05:53:49.640800 27929 net.cpp:165] Memory required for data: 2186100736
I0528 05:53:49.640813 27929 layer_factory.hpp:77] Creating layer fc4_relu
I0528 05:53:49.640826 27929 net.cpp:100] Creating Layer fc4_relu
I0528 05:53:49.640833 27929 net.cpp:434] fc4_relu <- fc4_300
I0528 05:53:49.640846 27929 net.cpp:395] fc4_relu -> fc4_300 (in-place)
I0528 05:53:49.641072 27929 net.cpp:150] Setting up fc4_relu
I0528 05:53:49.641086 27929 net.cpp:157] Top shape: 1024 300 (307200)
I0528 05:53:49.641093 27929 net.cpp:165] Memory required for data: 2187329536
I0528 05:53:49.641099 27929 layer_factory.hpp:77] Creating layer fc5_116
I0528 05:53:49.641111 27929 net.cpp:100] Creating Layer fc5_116
I0528 05:53:49.641120 27929 net.cpp:434] fc5_116 <- fc4_300
I0528 05:53:49.641130 27929 net.cpp:408] fc5_116 -> fc5_classes
I0528 05:53:49.642500 27929 net.cpp:150] Setting up fc5_116
I0528 05:53:49.642518 27929 net.cpp:157] Top shape: 1024 116 (118784)
I0528 05:53:49.642524 27929 net.cpp:165] Memory required for data: 2187804672
I0528 05:53:49.642539 27929 layer_factory.hpp:77] Creating layer fc5_classes_fc5_116_0_split
I0528 05:53:49.642550 27929 net.cpp:100] Creating Layer fc5_classes_fc5_116_0_split
I0528 05:53:49.642556 27929 net.cpp:434] fc5_classes_fc5_116_0_split <- fc5_classes
I0528 05:53:49.642565 27929 net.cpp:408] fc5_classes_fc5_116_0_split -> fc5_classes_fc5_116_0_split_0
I0528 05:53:49.642576 27929 net.cpp:408] fc5_classes_fc5_116_0_split -> fc5_classes_fc5_116_0_split_1
I0528 05:53:49.642585 27929 net.cpp:408] fc5_classes_fc5_116_0_split -> fc5_classes_fc5_116_0_split_2
I0528 05:53:49.642638 27929 net.cpp:150] Setting up fc5_classes_fc5_116_0_split
I0528 05:53:49.642650 27929 net.cpp:157] Top shape: 1024 116 (118784)
I0528 05:53:49.642657 27929 net.cpp:157] Top shape: 1024 116 (118784)
I0528 05:53:49.642664 27929 net.cpp:157] Top shape: 1024 116 (118784)
I0528 05:53:49.642670 27929 net.cpp:165] Memory required for data: 2189230080
I0528 05:53:49.642676 27929 layer_factory.hpp:77] Creating layer softmax
I0528 05:53:49.642686 27929 net.cpp:100] Creating Layer softmax
I0528 05:53:49.642693 27929 net.cpp:434] softmax <- fc5_classes_fc5_116_0_split_0
I0528 05:53:49.642702 27929 net.cpp:408] softmax -> softmax
I0528 05:53:49.642957 27929 net.cpp:150] Setting up softmax
I0528 05:53:49.642971 27929 net.cpp:157] Top shape: 1024 116 (118784)
I0528 05:53:49.642977 27929 net.cpp:165] Memory required for data: 2189705216
I0528 05:53:49.642983 27929 layer_factory.hpp:77] Creating layer loss
I0528 05:53:49.643014 27929 net.cpp:100] Creating Layer loss
I0528 05:53:49.643021 27929 net.cpp:434] loss <- softmax
I0528 05:53:49.643028 27929 net.cpp:434] loss <- label_data_1_split_0
I0528 05:53:49.643038 27929 net.cpp:408] loss -> loss
…
