…
I0404 08:38:46.348310 18909 net.cpp:322] The NetState phase (0) differed from the phase (1) specified by a rule in layer accuracy_1
I0404 08:38:46.348326 18909 net.cpp:322] The NetState phase (0) differed from the phase (1) specified by a rule in layer accuracy_5
I0404 08:38:46.348456 18909 net.cpp:58] Initializing net from parameters: 
state {
  phase: TRAIN
  level: 0
  stage: ""
}
layer {
  name: "data"
  type: "Data"
  top: "data"
  top: "label"
  include {
    phase: TRAIN
  }
  transform_param {
    mirror: false
    crop_size: 48
  }
  data_param {
    source: "../local_data/lmdb/rtsd-r1/imajust/train/lmdb"
    batch_size: 1024
    backend: LMDB
  }
}
layer {
  name: "conv1"
  type: "Convolution"
  bottom: "data"
  top: "conv1"
  convolution_param {
    num_output: 100
    pad: 0
    kernel_size: 7
    group: 1
    stride: 1
    weight_filler {
      type: "xavier"
    }
  }
}
layer {
  name: "conv1_prescale"
  type: "Scale"
  bottom: "conv1"
  top: "conv1"
  param {
    lr_mult: 0
    decay_mult: 0
  }
  scale_param {
    filler {
      value: 0.6666
    }
  }
}
layer {
  name: "conv1_sTanH"
  type: "TanH"
  bottom: "conv1"
  top: "conv1"
}
layer {
  name: "conv1_postscale"
  type: "Scale"
  bottom: "conv1"
  top: "conv1"
  param {
    lr_mult: 0
    decay_mult: 0
  }
  scale_param {
    filler {
      value: 1.7159
    }
  }
}
layer {
  name: "pool1"
  type: "Pooling"
  bottom: "conv1"
  top: "pool1"
  pooling_param {
    pool: MAX
    kernel_size: 2
    stride: 2
  }
}
layer {
  name: "conv2"
  type: "Convolution"
  bottom: "pool1"
  top: "conv2"
  convolution_param {
    num_output: 150
    pad: 0
    kernel_size: 4
    group: 1
    stride: 1
    weight_filler {
      type: "xavier"
    }
  }
}
layer {
  name: "conv2_prescale"
  type: "Scale"
  bottom: "conv2"
  top: "conv2"
  param {
    lr_mult: 0
    decay_mult: 0
  }
  scale_param {
    filler {
      value: 0.6666
    }
  }
}
layer {
  name: "conv2_sTanH"
  type: "TanH"
  bottom: "conv2"
  top: "conv2"
}
layer {
  name: "conv2_postscale"
  type: "Scale"
  bottom: "conv2"
  top: "conv2"
  param {
    lr_mult: 0
    decay_mult: 0
  }
  scale_param {
    filler {
      value: 1.7159
    }
  }
}
layer {
  name: "pool2"
  type: "Pooling"
  bottom: "conv2"
  top: "pool2"
  pooling_param {
    pool: MAX
    kernel_size: 2
    stride: 2
  }
}
layer {
  name: "conv3"
  type: "Convolution"
  bottom: "pool2"
  top: "conv3"
  convolution_param {
    num_output: 250
    pad: 0
    kernel_size: 4
    group: 1
    stride: 1
    weight_filler {
      type: "xavier"
    }
  }
}
layer {
  name: "conv3_prescale"
  type: "Scale"
  bottom: "conv3"
  top: "conv3"
  param {
    lr_mult: 0
    decay_mult: 0
  }
  scale_param {
    filler {
      value: 0.6666
    }
  }
}
layer {
  name: "conv3_sTanH"
  type: "TanH"
  bottom: "conv3"
  top: "conv3"
}
layer {
  name: "conv3_postscale"
  type: "Scale"
  bottom: "conv3"
  top: "conv3"
  param {
    lr_mult: 0
    decay_mult: 0
  }
  scale_param {
    filler {
      value: 1.7159
    }
  }
}
layer {
  name: "pool3"
  type: "Pooling"
  bottom: "conv3"
  top: "pool3"
  pooling_param {
    pool: MAX
    kernel_size: 2
    stride: 2
  }
}
layer {
  name: "fc4_300"
  type: "InnerProduct"
  bottom: "pool3"
  top: "fc4_300"
  inner_product_param {
    num_output: 300
    weight_filler {
      type: "xavier"
    }
  }
}
layer {
  name: "fc4_relu"
  type: "ReLU"
  bottom: "fc4_300"
  top: "fc4_300"
}
layer {
  name: "drop4"
  type: "Dropout"
  bottom: "fc4_300"
  top: "fc4_300"
  dropout_param {
    dropout_ratio: 0.4
  }
}
layer {
  name: "fc5_67"
  type: "InnerProduct"
  bottom: "fc4_300"
  top: "fc5_classes"
  inner_product_param {
    num_output: 67
    weight_filler {
      type: "xavier"
    }
  }
}
layer {
  name: "loss"
  type: "SoftmaxWithLoss"
  bottom: "fc5_classes"
  bottom: "label"
  top: "loss"
}
I0404 08:38:46.348562 18909 layer_factory.hpp:77] Creating layer data
I0404 08:38:46.349638 18909 net.cpp:100] Creating Layer data
I0404 08:38:46.349658 18909 net.cpp:408] data -> data
I0404 08:38:46.349684 18909 net.cpp:408] data -> label
I0404 08:38:46.440699 18967 db_lmdb.cpp:35] Opened lmdb ../local_data/lmdb/rtsd-r1/imajust/train/lmdb
I0404 08:38:46.502879 18909 data_layer.cpp:41] output data size: 1024,3,48,48
I0404 08:38:46.562283 18909 net.cpp:150] Setting up data
I0404 08:38:46.562324 18909 net.cpp:157] Top shape: 1024 3 48 48 (7077888)
I0404 08:38:46.562331 18909 net.cpp:157] Top shape: 1024 (1024)
I0404 08:38:46.562337 18909 net.cpp:165] Memory required for data: 28315648
I0404 08:38:46.562350 18909 layer_factory.hpp:77] Creating layer conv1
I0404 08:38:46.562383 18909 net.cpp:100] Creating Layer conv1
I0404 08:38:46.562397 18909 net.cpp:434] conv1 <- data
I0404 08:38:46.562418 18909 net.cpp:408] conv1 -> conv1
I0404 08:38:46.570726 18974 blocking_queue.cpp:50] Waiting for data
I0404 08:38:46.869676 18909 net.cpp:150] Setting up conv1
I0404 08:38:46.869707 18909 net.cpp:157] Top shape: 1024 100 42 42 (180633600)
I0404 08:38:46.869714 18909 net.cpp:165] Memory required for data: 750850048
I0404 08:38:46.869738 18909 layer_factory.hpp:77] Creating layer conv1_prescale
I0404 08:38:46.869756 18909 net.cpp:100] Creating Layer conv1_prescale
I0404 08:38:46.869765 18909 net.cpp:434] conv1_prescale <- conv1
I0404 08:38:46.869777 18909 net.cpp:395] conv1_prescale -> conv1 (in-place)
I0404 08:38:46.869915 18909 net.cpp:150] Setting up conv1_prescale
I0404 08:38:46.869927 18909 net.cpp:157] Top shape: 1024 100 42 42 (180633600)
I0404 08:38:46.869932 18909 net.cpp:165] Memory required for data: 1473384448
I0404 08:38:46.869946 18909 layer_factory.hpp:77] Creating layer conv1_sTanH
I0404 08:38:46.869956 18909 net.cpp:100] Creating Layer conv1_sTanH
I0404 08:38:46.869962 18909 net.cpp:434] conv1_sTanH <- conv1
I0404 08:38:46.869971 18909 net.cpp:395] conv1_sTanH -> conv1 (in-place)
I0404 08:38:46.870216 18909 net.cpp:150] Setting up conv1_sTanH
I0404 08:38:46.870231 18909 net.cpp:157] Top shape: 1024 100 42 42 (180633600)
I0404 08:38:46.870241 18909 net.cpp:165] Memory required for data: 2195918848
I0404 08:38:46.870247 18909 layer_factory.hpp:77] Creating layer conv1_postscale
I0404 08:38:46.870261 18909 net.cpp:100] Creating Layer conv1_postscale
I0404 08:38:46.870268 18909 net.cpp:434] conv1_postscale <- conv1
I0404 08:38:46.870276 18909 net.cpp:395] conv1_postscale -> conv1 (in-place)
I0404 08:38:46.870400 18909 net.cpp:150] Setting up conv1_postscale
I0404 08:38:46.870411 18909 net.cpp:157] Top shape: 1024 100 42 42 (180633600)
I0404 08:38:46.870416 18909 net.cpp:165] Memory required for data: 2918453248
I0404 08:38:46.870425 18909 layer_factory.hpp:77] Creating layer pool1
I0404 08:38:46.870437 18909 net.cpp:100] Creating Layer pool1
I0404 08:38:46.870446 18909 net.cpp:434] pool1 <- conv1
I0404 08:38:46.870455 18909 net.cpp:408] pool1 -> pool1
I0404 08:38:46.870518 18909 net.cpp:150] Setting up pool1
I0404 08:38:46.870529 18909 net.cpp:157] Top shape: 1024 100 21 21 (45158400)
I0404 08:38:46.870534 18909 net.cpp:165] Memory required for data: 3099086848
I0404 08:38:46.870542 18909 layer_factory.hpp:77] Creating layer conv2
I0404 08:38:46.870558 18909 net.cpp:100] Creating Layer conv2
I0404 08:38:46.870563 18909 net.cpp:434] conv2 <- pool1
I0404 08:38:46.870570 18909 net.cpp:408] conv2 -> conv2
I0404 08:38:46.875774 18909 net.cpp:150] Setting up conv2
I0404 08:38:46.875797 18909 net.cpp:157] Top shape: 1024 150 18 18 (49766400)
I0404 08:38:46.875828 18909 net.cpp:165] Memory required for data: 3298152448
I0404 08:38:46.875846 18909 layer_factory.hpp:77] Creating layer conv2_prescale
I0404 08:38:46.875859 18909 net.cpp:100] Creating Layer conv2_prescale
I0404 08:38:46.875867 18909 net.cpp:434] conv2_prescale <- conv2
I0404 08:38:46.875875 18909 net.cpp:395] conv2_prescale -> conv2 (in-place)
I0404 08:38:46.876008 18909 net.cpp:150] Setting up conv2_prescale
I0404 08:38:46.876020 18909 net.cpp:157] Top shape: 1024 150 18 18 (49766400)
I0404 08:38:46.876026 18909 net.cpp:165] Memory required for data: 3497218048
I0404 08:38:46.876035 18909 layer_factory.hpp:77] Creating layer conv2_sTanH
I0404 08:38:46.876049 18909 net.cpp:100] Creating Layer conv2_sTanH
I0404 08:38:46.876056 18909 net.cpp:434] conv2_sTanH <- conv2
I0404 08:38:46.876065 18909 net.cpp:395] conv2_sTanH -> conv2 (in-place)
I0404 08:38:46.876974 18909 net.cpp:150] Setting up conv2_sTanH
I0404 08:38:46.876996 18909 net.cpp:157] Top shape: 1024 150 18 18 (49766400)
I0404 08:38:46.877004 18909 net.cpp:165] Memory required for data: 3696283648
I0404 08:38:46.877012 18909 layer_factory.hpp:77] Creating layer conv2_postscale
I0404 08:38:46.877025 18909 net.cpp:100] Creating Layer conv2_postscale
I0404 08:38:46.877032 18909 net.cpp:434] conv2_postscale <- conv2
I0404 08:38:46.877040 18909 net.cpp:395] conv2_postscale -> conv2 (in-place)
I0404 08:38:46.877161 18909 net.cpp:150] Setting up conv2_postscale
I0404 08:38:46.877172 18909 net.cpp:157] Top shape: 1024 150 18 18 (49766400)
I0404 08:38:46.877179 18909 net.cpp:165] Memory required for data: 3895349248
I0404 08:38:46.877189 18909 layer_factory.hpp:77] Creating layer pool2
I0404 08:38:46.877200 18909 net.cpp:100] Creating Layer pool2
I0404 08:38:46.877207 18909 net.cpp:434] pool2 <- conv2
I0404 08:38:46.877218 18909 net.cpp:408] pool2 -> pool2
I0404 08:38:46.877272 18909 net.cpp:150] Setting up pool2
I0404 08:38:46.877282 18909 net.cpp:157] Top shape: 1024 150 9 9 (12441600)
I0404 08:38:46.877287 18909 net.cpp:165] Memory required for data: 3945115648
I0404 08:38:46.877295 18909 layer_factory.hpp:77] Creating layer conv3
I0404 08:38:46.877308 18909 net.cpp:100] Creating Layer conv3
I0404 08:38:46.877315 18909 net.cpp:434] conv3 <- pool2
I0404 08:38:46.877322 18909 net.cpp:408] conv3 -> conv3
I0404 08:38:46.885435 18909 net.cpp:150] Setting up conv3
I0404 08:38:46.885457 18909 net.cpp:157] Top shape: 1024 250 6 6 (9216000)
I0404 08:38:46.885462 18909 net.cpp:165] Memory required for data: 3981979648
I0404 08:38:46.885473 18909 layer_factory.hpp:77] Creating layer conv3_prescale
I0404 08:38:46.885483 18909 net.cpp:100] Creating Layer conv3_prescale
I0404 08:38:46.885488 18909 net.cpp:434] conv3_prescale <- conv3
I0404 08:38:46.885493 18909 net.cpp:395] conv3_prescale -> conv3 (in-place)
I0404 08:38:46.885612 18909 net.cpp:150] Setting up conv3_prescale
I0404 08:38:46.885622 18909 net.cpp:157] Top shape: 1024 250 6 6 (9216000)
I0404 08:38:46.885627 18909 net.cpp:165] Memory required for data: 4018843648
I0404 08:38:46.885632 18909 layer_factory.hpp:77] Creating layer conv3_sTanH
I0404 08:38:46.885638 18909 net.cpp:100] Creating Layer conv3_sTanH
I0404 08:38:46.885642 18909 net.cpp:434] conv3_sTanH <- conv3
I0404 08:38:46.885646 18909 net.cpp:395] conv3_sTanH -> conv3 (in-place)
I0404 08:38:46.886570 18909 net.cpp:150] Setting up conv3_sTanH
I0404 08:38:46.886590 18909 net.cpp:157] Top shape: 1024 250 6 6 (9216000)
I0404 08:38:46.886593 18909 net.cpp:165] Memory required for data: 4055707648
I0404 08:38:46.886597 18909 layer_factory.hpp:77] Creating layer conv3_postscale
I0404 08:38:46.886606 18909 net.cpp:100] Creating Layer conv3_postscale
I0404 08:38:46.886610 18909 net.cpp:434] conv3_postscale <- conv3
I0404 08:38:46.886617 18909 net.cpp:395] conv3_postscale -> conv3 (in-place)
I0404 08:38:46.886737 18909 net.cpp:150] Setting up conv3_postscale
I0404 08:38:46.886747 18909 net.cpp:157] Top shape: 1024 250 6 6 (9216000)
I0404 08:38:46.886751 18909 net.cpp:165] Memory required for data: 4092571648
I0404 08:38:46.886757 18909 layer_factory.hpp:77] Creating layer pool3
I0404 08:38:46.886782 18909 net.cpp:100] Creating Layer pool3
I0404 08:38:46.886787 18909 net.cpp:434] pool3 <- conv3
I0404 08:38:46.886793 18909 net.cpp:408] pool3 -> pool3
I0404 08:38:46.886843 18909 net.cpp:150] Setting up pool3
I0404 08:38:46.886852 18909 net.cpp:157] Top shape: 1024 250 3 3 (2304000)
I0404 08:38:46.886857 18909 net.cpp:165] Memory required for data: 4101787648
I0404 08:38:46.886860 18909 layer_factory.hpp:77] Creating layer fc4_300
I0404 08:38:46.886871 18909 net.cpp:100] Creating Layer fc4_300
I0404 08:38:46.886876 18909 net.cpp:434] fc4_300 <- pool3
I0404 08:38:46.886883 18909 net.cpp:408] fc4_300 -> fc4_300
I0404 08:38:46.893555 18909 net.cpp:150] Setting up fc4_300
I0404 08:38:46.893575 18909 net.cpp:157] Top shape: 1024 300 (307200)
I0404 08:38:46.893580 18909 net.cpp:165] Memory required for data: 4103016448
I0404 08:38:46.893589 18909 layer_factory.hpp:77] Creating layer fc4_relu
I0404 08:38:46.893596 18909 net.cpp:100] Creating Layer fc4_relu
I0404 08:38:46.893600 18909 net.cpp:434] fc4_relu <- fc4_300
I0404 08:38:46.893607 18909 net.cpp:395] fc4_relu -> fc4_300 (in-place)
I0404 08:38:46.893831 18909 net.cpp:150] Setting up fc4_relu
I0404 08:38:46.893846 18909 net.cpp:157] Top shape: 1024 300 (307200)
I0404 08:38:46.893849 18909 net.cpp:165] Memory required for data: 4104245248
I0404 08:38:46.893854 18909 layer_factory.hpp:77] Creating layer drop4
I0404 08:38:46.893862 18909 net.cpp:100] Creating Layer drop4
I0404 08:38:46.893867 18909 net.cpp:434] drop4 <- fc4_300
I0404 08:38:46.893872 18909 net.cpp:395] drop4 -> fc4_300 (in-place)
I0404 08:38:46.893909 18909 net.cpp:150] Setting up drop4
I0404 08:38:46.893918 18909 net.cpp:157] Top shape: 1024 300 (307200)
I0404 08:38:46.893923 18909 net.cpp:165] Memory required for data: 4105474048
I0404 08:38:46.893925 18909 layer_factory.hpp:77] Creating layer fc5_67
I0404 08:38:46.893934 18909 net.cpp:100] Creating Layer fc5_67
I0404 08:38:46.893937 18909 net.cpp:434] fc5_67 <- fc4_300
I0404 08:38:46.893944 18909 net.cpp:408] fc5_67 -> fc5_classes
I0404 08:38:46.895354 18909 net.cpp:150] Setting up fc5_67
I0404 08:38:46.895376 18909 net.cpp:157] Top shape: 1024 67 (68608)
I0404 08:38:46.895387 18909 net.cpp:165] Memory required for data: 4105748480
I0404 08:38:46.895395 18909 layer_factory.hpp:77] Creating layer loss
I0404 08:38:46.895403 18909 net.cpp:100] Creating Layer loss
I0404 08:38:46.895407 18909 net.cpp:434] loss <- fc5_classes
I0404 08:38:46.895412 18909 net.cpp:434] loss <- label
I0404 08:38:46.895419 18909 net.cpp:408] loss -> loss
I0404 08:38:46.895434 18909 layer_factory.hpp:77] Creating layer loss
…
I0404 08:38:46.896041 18909 net.cpp:283] Network initialization done.
I0404 08:38:47.037129 18909 solver.cpp:193] Creating test net (#0) specified by test_net file: ./Prototxt/experiment_5/rtsd-r1/imajust/test.prototxt
I0404 08:38:47.037338 18909 net.cpp:58] Initializing net from parameters: 
state {
  phase: TEST
}
layer {
  name: "data"
  type: "Data"
  top: "data"
  top: "label"
  include {
    phase: TEST
  }
  transform_param {
    mirror: false
    crop_size: 48
  }
  data_param {
    source: "../local_data/lmdb/rtsd-r1/imajust/test/lmdb"
    batch_size: 1024
    backend: LMDB
  }
}
layer {
  name: "conv1"
  type: "Convolution"
  bottom: "data"
  top: "conv1"
  convolution_param {
    num_output: 100
    pad: 0
    kernel_size: 7
    group: 1
    stride: 1
    weight_filler {
      type: "xavier"
    }
  }
}
layer {
  name: "conv1_prescale"
  type: "Scale"
  bottom: "conv1"
  top: "conv1"
  param {
    lr_mult: 0
    decay_mult: 0
  }
  scale_param {
    filler {
      value: 0.6666
    }
  }
}
layer {
  name: "conv1_sTanH"
  type: "TanH"
  bottom: "conv1"
  top: "conv1"
}
layer {
  name: "conv1_postscale"
  type: "Scale"
  bottom: "conv1"
  top: "conv1"
  param {
    lr_mult: 0
    decay_mult: 0
  }
  scale_param {
    filler {
      value: 1.7159
    }
  }
}
layer {
  name: "pool1"
  type: "Pooling"
  bottom: "conv1"
  top: "pool1"
  pooling_param {
    pool: MAX
    kernel_size: 2
    stride: 2
  }
}
layer {
  name: "conv2"
  type: "Convolution"
  bottom: "pool1"
  top: "conv2"
  convolution_param {
    num_output: 150
    pad: 0
    kernel_size: 4
    group: 1
    stride: 1
    weight_filler {
      type: "xavier"
    }
  }
}
layer {
  name: "conv2_prescale"
  type: "Scale"
  bottom: "conv2"
  top: "conv2"
  param {
    lr_mult: 0
    decay_mult: 0
  }
  scale_param {
    filler {
      value: 0.6666
    }
  }
}
layer {
  name: "conv2_sTanH"
  type: "TanH"
  bottom: "conv2"
  top: "conv2"
}
layer {
  name: "conv2_postscale"
  type: "Scale"
  bottom: "conv2"
  top: "conv2"
  param {
    lr_mult: 0
    decay_mult: 0
  }
  scale_param {
    filler {
      value: 1.7159
    }
  }
}
layer {
  name: "pool2"
  type: "Pooling"
  bottom: "conv2"
  top: "pool2"
  pooling_param {
    pool: MAX
    kernel_size: 2
    stride: 2
  }
}
layer {
  name: "conv3"
  type: "Convolution"
  bottom: "pool2"
  top: "conv3"
  convolution_param {
    num_output: 250
    pad: 0
    kernel_size: 4
    group: 1
    stride: 1
    weight_filler {
      type: "xavier"
    }
  }
}
layer {
  name: "conv3_prescale"
  type: "Scale"
  bottom: "conv3"
  top: "conv3"
  param {
    lr_mult: 0
    decay_mult: 0
  }
  scale_param {
    filler {
      value: 0.6666
    }
  }
}
layer {
  name: "conv3_sTanH"
  type: "TanH"
  bottom: "conv3"
  top: "conv3"
}
layer {
  name: "conv3_postscale"
  type: "Scale"
  bottom: "conv3"
  top: "conv3"
  param {
    lr_mult: 0
    decay_mult: 0
  }
  scale_param {
    filler {
      value: 1.7159
    }
  }
}
layer {
  name: "pool3"
  type: "Pooling"
  bottom: "conv3"
  top: "pool3"
  pooling_param {
    pool: MAX
    kernel_size: 2
    stride: 2
  }
}
layer {
  name: "fc4_300"
  type: "InnerProduct"
  bottom: "pool3"
  top: "fc4_300"
  inner_product_param {
    num_output: 300
    weight_filler {
      type: "xavier"
    }
  }
}
layer {
  name: "fc4_relu"
  type: "ReLU"
  bottom: "fc4_300"
  top: "fc4_300"
}
layer {
  name: "drop4"
  type: "Dropout"
  bottom: "fc4_300"
  top: "fc4_300"
  dropout_param {
    dropout_ratio: 0.4
  }
}
layer {
  name: "fc5_67"
  type: "InnerProduct"
  bottom: "fc4_300"
  top: "fc5_classes"
  inner_product_param {
    num_output: 67
    weight_filler {
      type: "xavier"
    }
  }
}
layer {
  name: "loss"
  type: "SoftmaxWithLoss"
  bottom: "fc5_classes"
  bottom: "label"
  top: "loss"
}
layer {
  name: "accuracy_1"
  type: "Accuracy"
  bottom: "fc5_classes"
  bottom: "label"
  top: "accuracy_1"
  include {
    phase: TEST
  }
  accuracy_param {
    top_k: 1
  }
}
layer {
  name: "accuracy_5"
  type: "Accuracy"
  bottom: "fc5_classes"
  bottom: "label"
  top: "accuracy_5"
  include {
    phase: TEST
  }
  accuracy_param {
    top_k: 5
  }
}
I0404 08:38:47.037466 18909 layer_factory.hpp:77] Creating layer data
I0404 08:38:47.038112 18909 net.cpp:100] Creating Layer data
I0404 08:38:47.038125 18909 net.cpp:408] data -> data
I0404 08:38:47.038136 18909 net.cpp:408] data -> label
I0404 08:38:47.240631 18987 db_lmdb.cpp:35] Opened lmdb ../local_data/lmdb/rtsd-r1/imajust/test/lmdb
I0404 08:38:47.384433 18909 data_layer.cpp:41] output data size: 1024,3,48,48
I0404 08:38:47.439630 18909 net.cpp:150] Setting up data
I0404 08:38:47.439661 18909 net.cpp:157] Top shape: 1024 3 48 48 (7077888)
I0404 08:38:47.439667 18909 net.cpp:157] Top shape: 1024 (1024)
I0404 08:38:47.439671 18909 net.cpp:165] Memory required for data: 28315648
I0404 08:38:47.439678 18909 layer_factory.hpp:77] Creating layer label_data_1_split
I0404 08:38:47.439699 18909 net.cpp:100] Creating Layer label_data_1_split
I0404 08:38:47.439704 18909 net.cpp:434] label_data_1_split <- label
I0404 08:38:47.439713 18909 net.cpp:408] label_data_1_split -> label_data_1_split_0
I0404 08:38:47.439725 18909 net.cpp:408] label_data_1_split -> label_data_1_split_1
I0404 08:38:47.439733 18909 net.cpp:408] label_data_1_split -> label_data_1_split_2
I0404 08:38:47.439826 18909 net.cpp:150] Setting up label_data_1_split
I0404 08:38:47.439836 18909 net.cpp:157] Top shape: 1024 (1024)
I0404 08:38:47.439841 18909 net.cpp:157] Top shape: 1024 (1024)
I0404 08:38:47.439846 18909 net.cpp:157] Top shape: 1024 (1024)
I0404 08:38:47.439848 18909 net.cpp:165] Memory required for data: 28327936
I0404 08:38:47.439852 18909 layer_factory.hpp:77] Creating layer conv1
I0404 08:38:47.439867 18909 net.cpp:100] Creating Layer conv1
I0404 08:38:47.439872 18909 net.cpp:434] conv1 <- data
I0404 08:38:47.439877 18909 net.cpp:408] conv1 -> conv1
I0404 08:38:47.442708 18909 net.cpp:150] Setting up conv1
I0404 08:38:47.442729 18909 net.cpp:157] Top shape: 1024 100 42 42 (180633600)
I0404 08:38:47.442734 18909 net.cpp:165] Memory required for data: 750862336
I0404 08:38:47.442749 18909 layer_factory.hpp:77] Creating layer conv1_prescale
I0404 08:38:47.442759 18909 net.cpp:100] Creating Layer conv1_prescale
I0404 08:38:47.442764 18909 net.cpp:434] conv1_prescale <- conv1
I0404 08:38:47.442770 18909 net.cpp:395] conv1_prescale -> conv1 (in-place)
I0404 08:38:47.442894 18909 net.cpp:150] Setting up conv1_prescale
I0404 08:38:47.442905 18909 net.cpp:157] Top shape: 1024 100 42 42 (180633600)
I0404 08:38:47.442909 18909 net.cpp:165] Memory required for data: 1473396736
I0404 08:38:47.442917 18909 layer_factory.hpp:77] Creating layer conv1_sTanH
I0404 08:38:47.442927 18909 net.cpp:100] Creating Layer conv1_sTanH
I0404 08:38:47.442931 18909 net.cpp:434] conv1_sTanH <- conv1
I0404 08:38:47.442936 18909 net.cpp:395] conv1_sTanH -> conv1 (in-place)
I0404 08:38:47.445510 18909 net.cpp:150] Setting up conv1_sTanH
I0404 08:38:47.445526 18909 net.cpp:157] Top shape: 1024 100 42 42 (180633600)
I0404 08:38:47.445529 18909 net.cpp:165] Memory required for data: 2195931136
I0404 08:38:47.445533 18909 layer_factory.hpp:77] Creating layer conv1_postscale
I0404 08:38:47.445543 18909 net.cpp:100] Creating Layer conv1_postscale
I0404 08:38:47.445546 18909 net.cpp:434] conv1_postscale <- conv1
I0404 08:38:47.445552 18909 net.cpp:395] conv1_postscale -> conv1 (in-place)
I0404 08:38:47.445693 18909 net.cpp:150] Setting up conv1_postscale
I0404 08:38:47.445706 18909 net.cpp:157] Top shape: 1024 100 42 42 (180633600)
I0404 08:38:47.445710 18909 net.cpp:165] Memory required for data: 2918465536
I0404 08:38:47.445741 18909 layer_factory.hpp:77] Creating layer pool1
I0404 08:38:47.445750 18909 net.cpp:100] Creating Layer pool1
I0404 08:38:47.445757 18909 net.cpp:434] pool1 <- conv1
I0404 08:38:47.445763 18909 net.cpp:408] pool1 -> pool1
I0404 08:38:47.445816 18909 net.cpp:150] Setting up pool1
I0404 08:38:47.445825 18909 net.cpp:157] Top shape: 1024 100 21 21 (45158400)
I0404 08:38:47.445829 18909 net.cpp:165] Memory required for data: 3099099136
I0404 08:38:47.445833 18909 layer_factory.hpp:77] Creating layer conv2
I0404 08:38:47.445843 18909 net.cpp:100] Creating Layer conv2
I0404 08:38:47.445849 18909 net.cpp:434] conv2 <- pool1
I0404 08:38:47.445855 18909 net.cpp:408] conv2 -> conv2
I0404 08:38:47.450654 18909 net.cpp:150] Setting up conv2
I0404 08:38:47.450678 18909 net.cpp:157] Top shape: 1024 150 18 18 (49766400)
I0404 08:38:47.450683 18909 net.cpp:165] Memory required for data: 3298164736
I0404 08:38:47.450695 18909 layer_factory.hpp:77] Creating layer conv2_prescale
I0404 08:38:47.450707 18909 net.cpp:100] Creating Layer conv2_prescale
I0404 08:38:47.450712 18909 net.cpp:434] conv2_prescale <- conv2
I0404 08:38:47.450719 18909 net.cpp:395] conv2_prescale -> conv2 (in-place)
I0404 08:38:47.450855 18909 net.cpp:150] Setting up conv2_prescale
I0404 08:38:47.450867 18909 net.cpp:157] Top shape: 1024 150 18 18 (49766400)
I0404 08:38:47.450870 18909 net.cpp:165] Memory required for data: 3497230336
I0404 08:38:47.450876 18909 layer_factory.hpp:77] Creating layer conv2_sTanH
I0404 08:38:47.450882 18909 net.cpp:100] Creating Layer conv2_sTanH
I0404 08:38:47.450886 18909 net.cpp:434] conv2_sTanH <- conv2
I0404 08:38:47.450893 18909 net.cpp:395] conv2_sTanH -> conv2 (in-place)
I0404 08:38:47.451838 18909 net.cpp:150] Setting up conv2_sTanH
I0404 08:38:47.451858 18909 net.cpp:157] Top shape: 1024 150 18 18 (49766400)
I0404 08:38:47.451863 18909 net.cpp:165] Memory required for data: 3696295936
I0404 08:38:47.451866 18909 layer_factory.hpp:77] Creating layer conv2_postscale
I0404 08:38:47.451876 18909 net.cpp:100] Creating Layer conv2_postscale
I0404 08:38:47.451880 18909 net.cpp:434] conv2_postscale <- conv2
I0404 08:38:47.451887 18909 net.cpp:395] conv2_postscale -> conv2 (in-place)
I0404 08:38:47.452018 18909 net.cpp:150] Setting up conv2_postscale
I0404 08:38:47.452029 18909 net.cpp:157] Top shape: 1024 150 18 18 (49766400)
I0404 08:38:47.452033 18909 net.cpp:165] Memory required for data: 3895361536
I0404 08:38:47.452039 18909 layer_factory.hpp:77] Creating layer pool2
I0404 08:38:47.452049 18909 net.cpp:100] Creating Layer pool2
I0404 08:38:47.452054 18909 net.cpp:434] pool2 <- conv2
I0404 08:38:47.452060 18909 net.cpp:408] pool2 -> pool2
I0404 08:38:47.452114 18909 net.cpp:150] Setting up pool2
I0404 08:38:47.452124 18909 net.cpp:157] Top shape: 1024 150 9 9 (12441600)
I0404 08:38:47.452128 18909 net.cpp:165] Memory required for data: 3945127936
I0404 08:38:47.452132 18909 layer_factory.hpp:77] Creating layer conv3
I0404 08:38:47.452142 18909 net.cpp:100] Creating Layer conv3
I0404 08:38:47.452148 18909 net.cpp:434] conv3 <- pool2
I0404 08:38:47.452159 18909 net.cpp:408] conv3 -> conv3
I0404 08:38:47.459131 18909 net.cpp:150] Setting up conv3
I0404 08:38:47.459156 18909 net.cpp:157] Top shape: 1024 250 6 6 (9216000)
I0404 08:38:47.459161 18909 net.cpp:165] Memory required for data: 3981991936
I0404 08:38:47.459173 18909 layer_factory.hpp:77] Creating layer conv3_prescale
I0404 08:38:47.459183 18909 net.cpp:100] Creating Layer conv3_prescale
I0404 08:38:47.459188 18909 net.cpp:434] conv3_prescale <- conv3
I0404 08:38:47.459197 18909 net.cpp:395] conv3_prescale -> conv3 (in-place)
I0404 08:38:47.459338 18909 net.cpp:150] Setting up conv3_prescale
I0404 08:38:47.459350 18909 net.cpp:157] Top shape: 1024 250 6 6 (9216000)
I0404 08:38:47.459354 18909 net.cpp:165] Memory required for data: 4018855936
I0404 08:38:47.459360 18909 layer_factory.hpp:77] Creating layer conv3_sTanH
I0404 08:38:47.459367 18909 net.cpp:100] Creating Layer conv3_sTanH
I0404 08:38:47.459372 18909 net.cpp:434] conv3_sTanH <- conv3
I0404 08:38:47.459393 18909 net.cpp:395] conv3_sTanH -> conv3 (in-place)
I0404 08:38:47.461426 18909 net.cpp:150] Setting up conv3_sTanH
I0404 08:38:47.461462 18909 net.cpp:157] Top shape: 1024 250 6 6 (9216000)
I0404 08:38:47.461468 18909 net.cpp:165] Memory required for data: 4055719936
I0404 08:38:47.461475 18909 layer_factory.hpp:77] Creating layer conv3_postscale
I0404 08:38:47.461494 18909 net.cpp:100] Creating Layer conv3_postscale
I0404 08:38:47.461503 18909 net.cpp:434] conv3_postscale <- conv3
I0404 08:38:47.461516 18909 net.cpp:395] conv3_postscale -> conv3 (in-place)
I0404 08:38:47.461724 18909 net.cpp:150] Setting up conv3_postscale
I0404 08:38:47.461740 18909 net.cpp:157] Top shape: 1024 250 6 6 (9216000)
I0404 08:38:47.461747 18909 net.cpp:165] Memory required for data: 4092583936
I0404 08:38:47.461756 18909 layer_factory.hpp:77] Creating layer pool3
I0404 08:38:47.461776 18909 net.cpp:100] Creating Layer pool3
I0404 08:38:47.461784 18909 net.cpp:434] pool3 <- conv3
I0404 08:38:47.461793 18909 net.cpp:408] pool3 -> pool3
I0404 08:38:47.461872 18909 net.cpp:150] Setting up pool3
I0404 08:38:47.461887 18909 net.cpp:157] Top shape: 1024 250 3 3 (2304000)
I0404 08:38:47.461894 18909 net.cpp:165] Memory required for data: 4101799936
I0404 08:38:47.461900 18909 layer_factory.hpp:77] Creating layer fc4_300
I0404 08:38:47.461911 18909 net.cpp:100] Creating Layer fc4_300
I0404 08:38:47.461920 18909 net.cpp:434] fc4_300 <- pool3
I0404 08:38:47.461928 18909 net.cpp:408] fc4_300 -> fc4_300
I0404 08:38:47.471657 18909 net.cpp:150] Setting up fc4_300
I0404 08:38:47.471686 18909 net.cpp:157] Top shape: 1024 300 (307200)
I0404 08:38:47.471693 18909 net.cpp:165] Memory required for data: 4103028736
I0404 08:38:47.471704 18909 layer_factory.hpp:77] Creating layer fc4_relu
I0404 08:38:47.471724 18909 net.cpp:100] Creating Layer fc4_relu
I0404 08:38:47.471729 18909 net.cpp:434] fc4_relu <- fc4_300
I0404 08:38:47.471738 18909 net.cpp:395] fc4_relu -> fc4_300 (in-place)
I0404 08:38:47.472097 18909 net.cpp:150] Setting up fc4_relu
I0404 08:38:47.472117 18909 net.cpp:157] Top shape: 1024 300 (307200)
I0404 08:38:47.472129 18909 net.cpp:165] Memory required for data: 4104257536
I0404 08:38:47.472136 18909 layer_factory.hpp:77] Creating layer drop4
I0404 08:38:47.472146 18909 net.cpp:100] Creating Layer drop4
I0404 08:38:47.472151 18909 net.cpp:434] drop4 <- fc4_300
I0404 08:38:47.472162 18909 net.cpp:395] drop4 -> fc4_300 (in-place)
I0404 08:38:47.472213 18909 net.cpp:150] Setting up drop4
I0404 08:38:47.472224 18909 net.cpp:157] Top shape: 1024 300 (307200)
I0404 08:38:47.472229 18909 net.cpp:165] Memory required for data: 4105486336
I0404 08:38:47.472234 18909 layer_factory.hpp:77] Creating layer fc5_67
I0404 08:38:47.472260 18909 net.cpp:100] Creating Layer fc5_67
I0404 08:38:47.472270 18909 net.cpp:434] fc5_67 <- fc4_300
I0404 08:38:47.472278 18909 net.cpp:408] fc5_67 -> fc5_classes
I0404 08:38:47.472723 18909 net.cpp:150] Setting up fc5_67
I0404 08:38:47.472736 18909 net.cpp:157] Top shape: 1024 67 (68608)
I0404 08:38:47.472741 18909 net.cpp:165] Memory required for data: 4105760768
I0404 08:38:47.472751 18909 layer_factory.hpp:77] Creating layer fc5_classes_fc5_67_0_split
I0404 08:38:47.472764 18909 net.cpp:100] Creating Layer fc5_classes_fc5_67_0_split
I0404 08:38:47.472769 18909 net.cpp:434] fc5_classes_fc5_67_0_split <- fc5_classes
I0404 08:38:47.472777 18909 net.cpp:408] fc5_classes_fc5_67_0_split -> fc5_classes_fc5_67_0_split_0
I0404 08:38:47.472789 18909 net.cpp:408] fc5_classes_fc5_67_0_split -> fc5_classes_fc5_67_0_split_1
I0404 08:38:47.472800 18909 net.cpp:408] fc5_classes_fc5_67_0_split -> fc5_classes_fc5_67_0_split_2
I0404 08:38:47.472894 18909 net.cpp:150] Setting up fc5_classes_fc5_67_0_split
I0404 08:38:47.472906 18909 net.cpp:157] Top shape: 1024 67 (68608)
I0404 08:38:47.472913 18909 net.cpp:157] Top shape: 1024 67 (68608)
I0404 08:38:47.472918 18909 net.cpp:157] Top shape: 1024 67 (68608)
I0404 08:38:47.472923 18909 net.cpp:165] Memory required for data: 4106584064
I0404 08:38:47.472928 18909 layer_factory.hpp:77] Creating layer loss
I0404 08:38:47.472962 18909 net.cpp:100] Creating Layer loss
I0404 08:38:47.472973 18909 net.cpp:434] loss <- fc5_classes_fc5_67_0_split_0
I0404 08:38:47.472981 18909 net.cpp:434] loss <- label_data_1_split_0
I0404 08:38:47.472990 18909 net.cpp:408] loss -> loss
…
