…
I0409 06:15:52.306031 23937 net.cpp:322] The NetState phase (0) differed from the phase (1) specified by a rule in layer accuracy_5
I0409 06:15:52.306123 23937 net.cpp:58] Initializing net from parameters: 
state {
  phase: TRAIN
  level: 0
  stage: ""
}
layer {
  name: "data"
  type: "Data"
  top: "data"
  top: "label"
  include {
    phase: TRAIN
  }
  transform_param {
    mirror: false
    crop_size: 48
    mean_value: 122
    mean_value: 115
    mean_value: 129
  }
  data_param {
    source: "../local_data/lmdb/rtsd-r1/orig/train/lmdb"
    batch_size: 1024
    backend: LMDB
  }
}
layer {
  name: "conv1"
  type: "Convolution"
  bottom: "data"
  top: "conv1"
  convolution_param {
    num_output: 100
    pad: 0
    kernel_size: 7
    group: 1
    stride: 1
    weight_filler {
      type: "xavier"
    }
  }
}
layer {
  name: "conv1_relu"
  type: "ReLU"
  bottom: "conv1"
  top: "conv1"
}
layer {
  name: "pool1"
  type: "Pooling"
  bottom: "conv1"
  top: "pool1"
  pooling_param {
    pool: MAX
    kernel_size: 2
    stride: 2
  }
}
layer {
  name: "conv2"
  type: "Convolution"
  bottom: "pool1"
  top: "conv2"
  convolution_param {
    num_output: 150
    pad: 0
    kernel_size: 4
    group: 1
    stride: 1
    weight_filler {
      type: "xavier"
    }
  }
}
layer {
  name: "conv2_relu"
  type: "ReLU"
  bottom: "conv2"
  top: "conv2"
}
layer {
  name: "pool2"
  type: "Pooling"
  bottom: "conv2"
  top: "pool2"
  pooling_param {
    pool: MAX
    kernel_size: 2
    stride: 2
  }
}
layer {
  name: "conv3"
  type: "Convolution"
  bottom: "pool2"
  top: "conv3"
  convolution_param {
    num_output: 250
    pad: 0
    kernel_size: 4
    group: 1
    stride: 1
    weight_filler {
      type: "xavier"
    }
  }
}
layer {
  name: "conv3_relu"
  type: "ReLU"
  bottom: "conv3"
  top: "conv3"
}
layer {
  name: "pool3"
  type: "Pooling"
  bottom: "conv3"
  top: "pool3"
  pooling_param {
    pool: MAX
    kernel_size: 2
    stride: 2
  }
}
layer {
  name: "fc4_300"
  type: "InnerProduct"
  bottom: "pool3"
  top: "fc4_300"
  inner_product_param {
    num_output: 300
    weight_filler {
      type: "xavier"
    }
  }
}
layer {
  name: "fc4_relu"
  type: "ReLU"
  bottom: "fc4_300"
  top: "fc4_300"
}
layer {
  name: "drop4"
  type: "Dropout"
  bottom: "fc4_300"
  top: "fc4_300"
  dropout_param {
    dropout_ratio: 0.4
  }
}
layer {
  name: "fc5_67"
  type: "InnerProduct"
  bottom: "fc4_300"
  top: "fc5_classes"
  inner_product_param {
    num_output: 67
    weight_filler {
      type: "xavier"
    }
  }
}
layer {
  name: "loss"
  type: "SoftmaxWithLoss"
  bottom: "fc5_classes"
  bottom: "label"
  top: "loss"
}
I0409 06:15:52.306195 23937 layer_factory.hpp:77] Creating layer data
I0409 06:15:52.307235 23937 net.cpp:100] Creating Layer data
I0409 06:15:52.307250 23937 net.cpp:408] data -> data
I0409 06:15:52.307277 23937 net.cpp:408] data -> label
I0409 06:15:52.308737 24001 db_lmdb.cpp:35] Opened lmdb ../local_data/lmdb/rtsd-r1/orig/train/lmdb
I0409 06:15:52.325696 23937 data_layer.cpp:41] output data size: 1024,3,48,48
I0409 06:15:52.366888 23937 net.cpp:150] Setting up data
I0409 06:15:52.366928 23937 net.cpp:157] Top shape: 1024 3 48 48 (7077888)
I0409 06:15:52.366935 23937 net.cpp:157] Top shape: 1024 (1024)
I0409 06:15:52.366961 23937 net.cpp:165] Memory required for data: 28315648
I0409 06:15:52.366971 23937 layer_factory.hpp:77] Creating layer conv1
I0409 06:15:52.366996 23937 net.cpp:100] Creating Layer conv1
I0409 06:15:52.367003 23937 net.cpp:434] conv1 <- data
I0409 06:15:52.367017 23937 net.cpp:408] conv1 -> conv1
I0409 06:15:52.645738 23937 net.cpp:150] Setting up conv1
I0409 06:15:52.645771 23937 net.cpp:157] Top shape: 1024 100 42 42 (180633600)
I0409 06:15:52.645774 23937 net.cpp:165] Memory required for data: 750850048
I0409 06:15:52.645795 23937 layer_factory.hpp:77] Creating layer conv1_relu
I0409 06:15:52.645807 23937 net.cpp:100] Creating Layer conv1_relu
I0409 06:15:52.645812 23937 net.cpp:434] conv1_relu <- conv1
I0409 06:15:52.645829 23937 net.cpp:395] conv1_relu -> conv1 (in-place)
I0409 06:15:52.646035 23937 net.cpp:150] Setting up conv1_relu
I0409 06:15:52.646047 23937 net.cpp:157] Top shape: 1024 100 42 42 (180633600)
I0409 06:15:52.646050 23937 net.cpp:165] Memory required for data: 1473384448
I0409 06:15:52.646054 23937 layer_factory.hpp:77] Creating layer pool1
I0409 06:15:52.646061 23937 net.cpp:100] Creating Layer pool1
I0409 06:15:52.646066 23937 net.cpp:434] pool1 <- conv1
I0409 06:15:52.646071 23937 net.cpp:408] pool1 -> pool1
I0409 06:15:52.646124 23937 net.cpp:150] Setting up pool1
I0409 06:15:52.646132 23937 net.cpp:157] Top shape: 1024 100 21 21 (45158400)
I0409 06:15:52.646136 23937 net.cpp:165] Memory required for data: 1654018048
I0409 06:15:52.646139 23937 layer_factory.hpp:77] Creating layer conv2
I0409 06:15:52.646152 23937 net.cpp:100] Creating Layer conv2
I0409 06:15:52.646155 23937 net.cpp:434] conv2 <- pool1
I0409 06:15:52.646160 23937 net.cpp:408] conv2 -> conv2
I0409 06:15:52.650212 23937 net.cpp:150] Setting up conv2
I0409 06:15:52.650228 23937 net.cpp:157] Top shape: 1024 150 18 18 (49766400)
I0409 06:15:52.650230 23937 net.cpp:165] Memory required for data: 1853083648
I0409 06:15:52.650239 23937 layer_factory.hpp:77] Creating layer conv2_relu
I0409 06:15:52.650245 23937 net.cpp:100] Creating Layer conv2_relu
I0409 06:15:52.650249 23937 net.cpp:434] conv2_relu <- conv2
I0409 06:15:52.650254 23937 net.cpp:395] conv2_relu -> conv2 (in-place)
I0409 06:15:52.651010 23937 net.cpp:150] Setting up conv2_relu
I0409 06:15:52.651024 23937 net.cpp:157] Top shape: 1024 150 18 18 (49766400)
I0409 06:15:52.651027 23937 net.cpp:165] Memory required for data: 2052149248
I0409 06:15:52.651031 23937 layer_factory.hpp:77] Creating layer pool2
I0409 06:15:52.651038 23937 net.cpp:100] Creating Layer pool2
I0409 06:15:52.651041 23937 net.cpp:434] pool2 <- conv2
I0409 06:15:52.651046 23937 net.cpp:408] pool2 -> pool2
I0409 06:15:52.651113 23937 net.cpp:150] Setting up pool2
I0409 06:15:52.651121 23937 net.cpp:157] Top shape: 1024 150 9 9 (12441600)
I0409 06:15:52.651124 23937 net.cpp:165] Memory required for data: 2101915648
I0409 06:15:52.651127 23937 layer_factory.hpp:77] Creating layer conv3
I0409 06:15:52.651135 23937 net.cpp:100] Creating Layer conv3
I0409 06:15:52.651140 23937 net.cpp:434] conv3 <- pool2
I0409 06:15:52.651145 23937 net.cpp:408] conv3 -> conv3
I0409 06:15:52.656368 23937 net.cpp:150] Setting up conv3
I0409 06:15:52.656383 23937 net.cpp:157] Top shape: 1024 250 6 6 (9216000)
I0409 06:15:52.656386 23937 net.cpp:165] Memory required for data: 2138779648
I0409 06:15:52.656395 23937 layer_factory.hpp:77] Creating layer conv3_relu
I0409 06:15:52.656402 23937 net.cpp:100] Creating Layer conv3_relu
I0409 06:15:52.656405 23937 net.cpp:434] conv3_relu <- conv3
I0409 06:15:52.656411 23937 net.cpp:395] conv3_relu -> conv3 (in-place)
I0409 06:15:52.657151 23937 net.cpp:150] Setting up conv3_relu
I0409 06:15:52.657166 23937 net.cpp:157] Top shape: 1024 250 6 6 (9216000)
I0409 06:15:52.657169 23937 net.cpp:165] Memory required for data: 2175643648
I0409 06:15:52.657172 23937 layer_factory.hpp:77] Creating layer pool3
I0409 06:15:52.657178 23937 net.cpp:100] Creating Layer pool3
I0409 06:15:52.657181 23937 net.cpp:434] pool3 <- conv3
I0409 06:15:52.657187 23937 net.cpp:408] pool3 -> pool3
I0409 06:15:52.657264 23937 net.cpp:150] Setting up pool3
I0409 06:15:52.657274 23937 net.cpp:157] Top shape: 1024 250 3 3 (2304000)
I0409 06:15:52.657276 23937 net.cpp:165] Memory required for data: 2184859648
I0409 06:15:52.657279 23937 layer_factory.hpp:77] Creating layer fc4_300
I0409 06:15:52.657289 23937 net.cpp:100] Creating Layer fc4_300
I0409 06:15:52.657292 23937 net.cpp:434] fc4_300 <- pool3
I0409 06:15:52.657297 23937 net.cpp:408] fc4_300 -> fc4_300
I0409 06:15:52.662434 23937 net.cpp:150] Setting up fc4_300
I0409 06:15:52.662449 23937 net.cpp:157] Top shape: 1024 300 (307200)
I0409 06:15:52.662464 23937 net.cpp:165] Memory required for data: 2186088448
I0409 06:15:52.662472 23937 layer_factory.hpp:77] Creating layer fc4_relu
I0409 06:15:52.662478 23937 net.cpp:100] Creating Layer fc4_relu
I0409 06:15:52.662482 23937 net.cpp:434] fc4_relu <- fc4_300
I0409 06:15:52.662487 23937 net.cpp:395] fc4_relu -> fc4_300 (in-place)
I0409 06:15:52.662695 23937 net.cpp:150] Setting up fc4_relu
I0409 06:15:52.662706 23937 net.cpp:157] Top shape: 1024 300 (307200)
I0409 06:15:52.662709 23937 net.cpp:165] Memory required for data: 2187317248
I0409 06:15:52.662713 23937 layer_factory.hpp:77] Creating layer drop4
I0409 06:15:52.662720 23937 net.cpp:100] Creating Layer drop4
I0409 06:15:52.662724 23937 net.cpp:434] drop4 <- fc4_300
I0409 06:15:52.662731 23937 net.cpp:395] drop4 -> fc4_300 (in-place)
I0409 06:15:52.662762 23937 net.cpp:150] Setting up drop4
I0409 06:15:52.662770 23937 net.cpp:157] Top shape: 1024 300 (307200)
I0409 06:15:52.662771 23937 net.cpp:165] Memory required for data: 2188546048
I0409 06:15:52.662775 23937 layer_factory.hpp:77] Creating layer fc5_67
I0409 06:15:52.662782 23937 net.cpp:100] Creating Layer fc5_67
I0409 06:15:52.662787 23937 net.cpp:434] fc5_67 <- fc4_300
I0409 06:15:52.662792 23937 net.cpp:408] fc5_67 -> fc5_classes
I0409 06:15:52.664569 23937 net.cpp:150] Setting up fc5_67
I0409 06:15:52.664584 23937 net.cpp:157] Top shape: 1024 67 (68608)
I0409 06:15:52.664587 23937 net.cpp:165] Memory required for data: 2188820480
I0409 06:15:52.664597 23937 layer_factory.hpp:77] Creating layer loss
I0409 06:15:52.664607 23937 net.cpp:100] Creating Layer loss
I0409 06:15:52.664609 23937 net.cpp:434] loss <- fc5_classes
I0409 06:15:52.664614 23937 net.cpp:434] loss <- label
I0409 06:15:52.664620 23937 net.cpp:408] loss -> loss
I0409 06:15:52.664633 23937 layer_factory.hpp:77] Creating layer loss
…
I0409 06:15:52.665309 23937 solver.cpp:193] Creating test net (#0) specified by test_net file: ./Prototxt/experiment_6/rtsd-r1/orig/trial_2/test.prototxt
I0409 06:15:52.665448 23937 net.cpp:58] Initializing net from parameters: 
state {
  phase: TEST
}
layer {
  name: "data"
  type: "Data"
  top: "data"
  top: "label"
  include {
    phase: TEST
  }
  transform_param {
    mirror: false
    crop_size: 48
    mean_value: 113
    mean_value: 110
    mean_value: 132
  }
  data_param {
    source: "../local_data/lmdb/rtsd-r1/orig/test/lmdb"
    batch_size: 1024
    backend: LMDB
  }
}
layer {
  name: "conv1"
  type: "Convolution"
  bottom: "data"
  top: "conv1"
  convolution_param {
    num_output: 100
    pad: 0
    kernel_size: 7
    group: 1
    stride: 1
    weight_filler {
      type: "xavier"
    }
  }
}
layer {
  name: "conv1_relu"
  type: "ReLU"
  bottom: "conv1"
  top: "conv1"
}
layer {
  name: "pool1"
  type: "Pooling"
  bottom: "conv1"
  top: "pool1"
  pooling_param {
    pool: MAX
    kernel_size: 2
    stride: 2
  }
}
layer {
  name: "conv2"
  type: "Convolution"
  bottom: "pool1"
  top: "conv2"
  convolution_param {
    num_output: 150
    pad: 0
    kernel_size: 4
    group: 1
    stride: 1
    weight_filler {
      type: "xavier"
    }
  }
}
layer {
  name: "conv2_relu"
  type: "ReLU"
  bottom: "conv2"
  top: "conv2"
}
layer {
  name: "pool2"
  type: "Pooling"
  bottom: "conv2"
  top: "pool2"
  pooling_param {
    pool: MAX
    kernel_size: 2
    stride: 2
  }
}
layer {
  name: "conv3"
  type: "Convolution"
  bottom: "pool2"
  top: "conv3"
  convolution_param {
    num_output: 250
    pad: 0
    kernel_size: 4
    group: 1
    stride: 1
    weight_filler {
      type: "xavier"
    }
  }
}
layer {
  name: "conv3_relu"
  type: "ReLU"
  bottom: "conv3"
  top: "conv3"
}
layer {
  name: "pool3"
  type: "Pooling"
  bottom: "conv3"
  top: "pool3"
  pooling_param {
    pool: MAX
    kernel_size: 2
    stride: 2
  }
}
layer {
  name: "fc4_300"
  type: "InnerProduct"
  bottom: "pool3"
  top: "fc4_300"
  inner_product_param {
    num_output: 300
    weight_filler {
      type: "xavier"
    }
  }
}
layer {
  name: "fc4_relu"
  type: "ReLU"
  bottom: "fc4_300"
  top: "fc4_300"
}
layer {
  name: "drop4"
  type: "Dropout"
  bottom: "fc4_300"
  top: "fc4_300"
  dropout_param {
    dropout_ratio: 0.4
  }
}
layer {
  name: "fc5_67"
  type: "InnerProduct"
  bottom: "fc4_300"
  top: "fc5_classes"
  inner_product_param {
    num_output: 67
    weight_filler {
      type: "xavier"
    }
  }
}
layer {
  name: "loss"
  type: "SoftmaxWithLoss"
  bottom: "fc5_classes"
  bottom: "label"
  top: "loss"
}
layer {
  name: "accuracy_1"
  type: "Accuracy"
  bottom: "fc5_classes"
  bottom: "label"
  top: "accuracy_1"
  include {
    phase: TEST
  }
  accuracy_param {
    top_k: 1
  }
}
layer {
  name: "accuracy_5"
  type: "Accuracy"
  bottom: "fc5_classes"
  bottom: "label"
  top: "accuracy_5"
  include {
    phase: TEST
  }
  accuracy_param {
    top_k: 5
  }
}
I0409 06:15:52.665536 23937 layer_factory.hpp:77] Creating layer data
I0409 06:15:52.666203 23937 net.cpp:100] Creating Layer data
I0409 06:15:52.666215 23937 net.cpp:408] data -> data
I0409 06:15:52.666224 23937 net.cpp:408] data -> label
I0409 06:15:52.669158 24012 db_lmdb.cpp:35] Opened lmdb ../local_data/lmdb/rtsd-r1/orig/test/lmdb
I0409 06:15:52.669350 23937 data_layer.cpp:41] output data size: 1024,3,48,48
I0409 06:15:52.716048 23937 net.cpp:150] Setting up data
I0409 06:15:52.716078 23937 net.cpp:157] Top shape: 1024 3 48 48 (7077888)
I0409 06:15:52.716084 23937 net.cpp:157] Top shape: 1024 (1024)
I0409 06:15:52.716086 23937 net.cpp:165] Memory required for data: 28315648
I0409 06:15:52.716092 23937 layer_factory.hpp:77] Creating layer label_data_1_split
I0409 06:15:52.716107 23937 net.cpp:100] Creating Layer label_data_1_split
I0409 06:15:52.716111 23937 net.cpp:434] label_data_1_split <- label
I0409 06:15:52.716120 23937 net.cpp:408] label_data_1_split -> label_data_1_split_0
I0409 06:15:52.716130 23937 net.cpp:408] label_data_1_split -> label_data_1_split_1
I0409 06:15:52.716137 23937 net.cpp:408] label_data_1_split -> label_data_1_split_2
I0409 06:15:52.716312 23937 net.cpp:150] Setting up label_data_1_split
I0409 06:15:52.716323 23937 net.cpp:157] Top shape: 1024 (1024)
I0409 06:15:52.716326 23937 net.cpp:157] Top shape: 1024 (1024)
I0409 06:15:52.716331 23937 net.cpp:157] Top shape: 1024 (1024)
I0409 06:15:52.716332 23937 net.cpp:165] Memory required for data: 28327936
I0409 06:15:52.716336 23937 layer_factory.hpp:77] Creating layer conv1
I0409 06:15:52.716351 23937 net.cpp:100] Creating Layer conv1
I0409 06:15:52.716356 23937 net.cpp:434] conv1 <- data
I0409 06:15:52.716362 23937 net.cpp:408] conv1 -> conv1
I0409 06:15:52.718199 23937 net.cpp:150] Setting up conv1
I0409 06:15:52.718230 23937 net.cpp:157] Top shape: 1024 100 42 42 (180633600)
I0409 06:15:52.718235 23937 net.cpp:165] Memory required for data: 750862336
I0409 06:15:52.718246 23937 layer_factory.hpp:77] Creating layer conv1_relu
I0409 06:15:52.718253 23937 net.cpp:100] Creating Layer conv1_relu
I0409 06:15:52.718256 23937 net.cpp:434] conv1_relu <- conv1
I0409 06:15:52.718261 23937 net.cpp:395] conv1_relu -> conv1 (in-place)
I0409 06:15:52.720791 23937 net.cpp:150] Setting up conv1_relu
I0409 06:15:52.720827 23937 net.cpp:157] Top shape: 1024 100 42 42 (180633600)
I0409 06:15:52.720835 23937 net.cpp:165] Memory required for data: 1473396736
I0409 06:15:52.720842 23937 layer_factory.hpp:77] Creating layer pool1
I0409 06:15:52.720863 23937 net.cpp:100] Creating Layer pool1
I0409 06:15:52.720871 23937 net.cpp:434] pool1 <- conv1
I0409 06:15:52.720886 23937 net.cpp:408] pool1 -> pool1
I0409 06:15:52.721004 23937 net.cpp:150] Setting up pool1
I0409 06:15:52.721019 23937 net.cpp:157] Top shape: 1024 100 21 21 (45158400)
I0409 06:15:52.721026 23937 net.cpp:165] Memory required for data: 1654030336
I0409 06:15:52.721035 23937 layer_factory.hpp:77] Creating layer conv2
I0409 06:15:52.721055 23937 net.cpp:100] Creating Layer conv2
I0409 06:15:52.721063 23937 net.cpp:434] conv2 <- pool1
I0409 06:15:52.721074 23937 net.cpp:408] conv2 -> conv2
I0409 06:15:52.725111 23937 net.cpp:150] Setting up conv2
I0409 06:15:52.725128 23937 net.cpp:157] Top shape: 1024 150 18 18 (49766400)
I0409 06:15:52.725132 23937 net.cpp:165] Memory required for data: 1853095936
I0409 06:15:52.725143 23937 layer_factory.hpp:77] Creating layer conv2_relu
I0409 06:15:52.725150 23937 net.cpp:100] Creating Layer conv2_relu
I0409 06:15:52.725153 23937 net.cpp:434] conv2_relu <- conv2
I0409 06:15:52.725160 23937 net.cpp:395] conv2_relu -> conv2 (in-place)
I0409 06:15:52.725960 23937 net.cpp:150] Setting up conv2_relu
I0409 06:15:52.725975 23937 net.cpp:157] Top shape: 1024 150 18 18 (49766400)
I0409 06:15:52.725991 23937 net.cpp:165] Memory required for data: 2052161536
I0409 06:15:52.725994 23937 layer_factory.hpp:77] Creating layer pool2
I0409 06:15:52.726002 23937 net.cpp:100] Creating Layer pool2
I0409 06:15:52.726006 23937 net.cpp:434] pool2 <- conv2
I0409 06:15:52.726014 23937 net.cpp:408] pool2 -> pool2
I0409 06:15:52.726068 23937 net.cpp:150] Setting up pool2
I0409 06:15:52.726076 23937 net.cpp:157] Top shape: 1024 150 9 9 (12441600)
I0409 06:15:52.726079 23937 net.cpp:165] Memory required for data: 2101927936
I0409 06:15:52.726083 23937 layer_factory.hpp:77] Creating layer conv3
I0409 06:15:52.726097 23937 net.cpp:100] Creating Layer conv3
I0409 06:15:52.726102 23937 net.cpp:434] conv3 <- pool2
I0409 06:15:52.726109 23937 net.cpp:408] conv3 -> conv3
I0409 06:15:52.731695 23937 net.cpp:150] Setting up conv3
I0409 06:15:52.731714 23937 net.cpp:157] Top shape: 1024 250 6 6 (9216000)
I0409 06:15:52.731717 23937 net.cpp:165] Memory required for data: 2138791936
I0409 06:15:52.731727 23937 layer_factory.hpp:77] Creating layer conv3_relu
I0409 06:15:52.731734 23937 net.cpp:100] Creating Layer conv3_relu
I0409 06:15:52.731747 23937 net.cpp:434] conv3_relu <- conv3
I0409 06:15:52.731755 23937 net.cpp:395] conv3_relu -> conv3 (in-place)
I0409 06:15:52.732545 23937 net.cpp:150] Setting up conv3_relu
I0409 06:15:52.732561 23937 net.cpp:157] Top shape: 1024 250 6 6 (9216000)
I0409 06:15:52.732564 23937 net.cpp:165] Memory required for data: 2175655936
I0409 06:15:52.732586 23937 layer_factory.hpp:77] Creating layer pool3
I0409 06:15:52.732597 23937 net.cpp:100] Creating Layer pool3
I0409 06:15:52.732601 23937 net.cpp:434] pool3 <- conv3
I0409 06:15:52.732606 23937 net.cpp:408] pool3 -> pool3
I0409 06:15:52.732659 23937 net.cpp:150] Setting up pool3
I0409 06:15:52.732668 23937 net.cpp:157] Top shape: 1024 250 3 3 (2304000)
I0409 06:15:52.732671 23937 net.cpp:165] Memory required for data: 2184871936
I0409 06:15:52.732676 23937 layer_factory.hpp:77] Creating layer fc4_300
I0409 06:15:52.732681 23937 net.cpp:100] Creating Layer fc4_300
I0409 06:15:52.732686 23937 net.cpp:434] fc4_300 <- pool3
I0409 06:15:52.732692 23937 net.cpp:408] fc4_300 -> fc4_300
I0409 06:15:52.738018 23937 net.cpp:150] Setting up fc4_300
I0409 06:15:52.738034 23937 net.cpp:157] Top shape: 1024 300 (307200)
I0409 06:15:52.738036 23937 net.cpp:165] Memory required for data: 2186100736
I0409 06:15:52.738044 23937 layer_factory.hpp:77] Creating layer fc4_relu
I0409 06:15:52.738051 23937 net.cpp:100] Creating Layer fc4_relu
I0409 06:15:52.738054 23937 net.cpp:434] fc4_relu <- fc4_300
I0409 06:15:52.738061 23937 net.cpp:395] fc4_relu -> fc4_300 (in-place)
I0409 06:15:52.738255 23937 net.cpp:150] Setting up fc4_relu
I0409 06:15:52.738267 23937 net.cpp:157] Top shape: 1024 300 (307200)
I0409 06:15:52.738270 23937 net.cpp:165] Memory required for data: 2187329536
I0409 06:15:52.738275 23937 layer_factory.hpp:77] Creating layer drop4
I0409 06:15:52.738281 23937 net.cpp:100] Creating Layer drop4
I0409 06:15:52.738284 23937 net.cpp:434] drop4 <- fc4_300
I0409 06:15:52.738291 23937 net.cpp:395] drop4 -> fc4_300 (in-place)
I0409 06:15:52.738319 23937 net.cpp:150] Setting up drop4
I0409 06:15:52.738327 23937 net.cpp:157] Top shape: 1024 300 (307200)
I0409 06:15:52.738330 23937 net.cpp:165] Memory required for data: 2188558336
I0409 06:15:52.738333 23937 layer_factory.hpp:77] Creating layer fc5_67
I0409 06:15:52.738340 23937 net.cpp:100] Creating Layer fc5_67
I0409 06:15:52.738345 23937 net.cpp:434] fc5_67 <- fc4_300
I0409 06:15:52.738351 23937 net.cpp:408] fc5_67 -> fc5_classes
I0409 06:15:52.738605 23937 net.cpp:150] Setting up fc5_67
I0409 06:15:52.738613 23937 net.cpp:157] Top shape: 1024 67 (68608)
I0409 06:15:52.738615 23937 net.cpp:165] Memory required for data: 2188832768
I0409 06:15:52.738626 23937 layer_factory.hpp:77] Creating layer fc5_classes_fc5_67_0_split
I0409 06:15:52.738633 23937 net.cpp:100] Creating Layer fc5_classes_fc5_67_0_split
I0409 06:15:52.738636 23937 net.cpp:434] fc5_classes_fc5_67_0_split <- fc5_classes
I0409 06:15:52.738643 23937 net.cpp:408] fc5_classes_fc5_67_0_split -> fc5_classes_fc5_67_0_split_0
I0409 06:15:52.738651 23937 net.cpp:408] fc5_classes_fc5_67_0_split -> fc5_classes_fc5_67_0_split_1
I0409 06:15:52.738657 23937 net.cpp:408] fc5_classes_fc5_67_0_split -> fc5_classes_fc5_67_0_split_2
I0409 06:15:52.738713 23937 net.cpp:150] Setting up fc5_classes_fc5_67_0_split
I0409 06:15:52.738719 23937 net.cpp:157] Top shape: 1024 67 (68608)
I0409 06:15:52.738729 23937 net.cpp:157] Top shape: 1024 67 (68608)
I0409 06:15:52.738732 23937 net.cpp:157] Top shape: 1024 67 (68608)
I0409 06:15:52.738735 23937 net.cpp:165] Memory required for data: 2189656064
I0409 06:15:52.738739 23937 layer_factory.hpp:77] Creating layer loss
I0409 06:15:52.738747 23937 net.cpp:100] Creating Layer loss
I0409 06:15:52.738752 23937 net.cpp:434] loss <- fc5_classes_fc5_67_0_split_0
I0409 06:15:52.738757 23937 net.cpp:434] loss <- label_data_1_split_0
I0409 06:15:52.738762 23937 net.cpp:408] loss -> loss
…
