…
I0404 03:12:49.889232 17525 net.cpp:322] The NetState phase (0) differed from the phase (1) specified by a rule in layer accuracy_1
I0404 03:12:49.889245 17525 net.cpp:322] The NetState phase (0) differed from the phase (1) specified by a rule in layer accuracy_5
I0404 03:12:49.889425 17525 net.cpp:58] Initializing net from parameters: 
state {
  phase: TRAIN
  level: 0
  stage: ""
}
layer {
  name: "data"
  type: "Data"
  top: "data"
  top: "label"
  include {
    phase: TRAIN
  }
  transform_param {
    mirror: false
    crop_size: 48
  }
  data_param {
    source: "../local_data/lmdb/rtsd-r1/orig/train/lmdb"
    batch_size: 1024
    backend: LMDB
  }
}
layer {
  name: "conv1"
  type: "Convolution"
  bottom: "data"
  top: "conv1"
  convolution_param {
    num_output: 100
    pad: 0
    kernel_size: 7
    group: 1
    stride: 1
    weight_filler {
      type: "xavier"
    }
  }
}
layer {
  name: "conv1_prescale"
  type: "Scale"
  bottom: "conv1"
  top: "conv1"
  param {
    lr_mult: 0
    decay_mult: 0
  }
  scale_param {
    filler {
      value: 0.6666
    }
  }
}
layer {
  name: "conv1_sTanH"
  type: "TanH"
  bottom: "conv1"
  top: "conv1"
}
layer {
  name: "conv1_postscale"
  type: "Scale"
  bottom: "conv1"
  top: "conv1"
  param {
    lr_mult: 0
    decay_mult: 0
  }
  scale_param {
    filler {
      value: 1.7159
    }
  }
}
layer {
  name: "pool1"
  type: "Pooling"
  bottom: "conv1"
  top: "pool1"
  pooling_param {
    pool: MAX
    kernel_size: 2
    stride: 2
  }
}
layer {
  name: "conv2"
  type: "Convolution"
  bottom: "pool1"
  top: "conv2"
  convolution_param {
    num_output: 150
    pad: 0
    kernel_size: 4
    group: 1
    stride: 1
    weight_filler {
      type: "xavier"
    }
  }
}
layer {
  name: "conv2_prescale"
  type: "Scale"
  bottom: "conv2"
  top: "conv2"
  param {
    lr_mult: 0
    decay_mult: 0
  }
  scale_param {
    filler {
      value: 0.6666
    }
  }
}
layer {
  name: "conv2_sTanH"
  type: "TanH"
  bottom: "conv2"
  top: "conv2"
}
layer {
  name: "conv2_postscale"
  type: "Scale"
  bottom: "conv2"
  top: "conv2"
  param {
    lr_mult: 0
    decay_mult: 0
  }
  scale_param {
    filler {
      value: 1.7159
    }
  }
}
layer {
  name: "pool2"
  type: "Pooling"
  bottom: "conv2"
  top: "pool2"
  pooling_param {
    pool: MAX
    kernel_size: 2
    stride: 2
  }
}
layer {
  name: "conv3"
  type: "Convolution"
  bottom: "pool2"
  top: "conv3"
  convolution_param {
    num_output: 250
    pad: 0
    kernel_size: 4
    group: 1
    stride: 1
    weight_filler {
      type: "xavier"
    }
  }
}
layer {
  name: "conv3_prescale"
  type: "Scale"
  bottom: "conv3"
  top: "conv3"
  param {
    lr_mult: 0
    decay_mult: 0
  }
  scale_param {
    filler {
      value: 0.6666
    }
  }
}
layer {
  name: "conv3_sTanH"
  type: "TanH"
  bottom: "conv3"
  top: "conv3"
}
layer {
  name: "conv3_postscale"
  type: "Scale"
  bottom: "conv3"
  top: "conv3"
  param {
    lr_mult: 0
    decay_mult: 0
  }
  scale_param {
    filler {
      value: 1.7159
    }
  }
}
layer {
  name: "pool3"
  type: "Pooling"
  bottom: "conv3"
  top: "pool3"
  pooling_param {
    pool: MAX
    kernel_size: 2
    stride: 2
  }
}
layer {
  name: "fc4_300"
  type: "InnerProduct"
  bottom: "pool3"
  top: "fc4_300"
  inner_product_param {
    num_output: 300
    weight_filler {
      type: "xavier"
    }
  }
}
layer {
  name: "fc4_relu"
  type: "ReLU"
  bottom: "fc4_300"
  top: "fc4_300"
}
layer {
  name: "drop4"
  type: "Dropout"
  bottom: "fc4_300"
  top: "fc4_300"
  dropout_param {
    dropout_ratio: 0.4
  }
}
layer {
  name: "fc5_67"
  type: "InnerProduct"
  bottom: "fc4_300"
  top: "fc5_classes"
  inner_product_param {
    num_output: 67
    weight_filler {
      type: "xavier"
    }
  }
}
layer {
  name: "loss"
  type: "SoftmaxWithLoss"
  bottom: "fc5_classes"
  bottom: "label"
  top: "loss"
}
I0404 03:12:49.889566 17525 layer_factory.hpp:77] Creating layer data
I0404 03:12:49.890962 17525 net.cpp:100] Creating Layer data
I0404 03:12:49.890990 17525 net.cpp:408] data -> data
I0404 03:12:49.891017 17525 net.cpp:408] data -> label
I0404 03:12:50.076427 17606 db_lmdb.cpp:35] Opened lmdb ../local_data/lmdb/rtsd-r1/orig/train/lmdb
I0404 03:12:50.093713 17525 data_layer.cpp:41] output data size: 1024,3,48,48
I0404 03:12:50.136652 17525 net.cpp:150] Setting up data
I0404 03:12:50.136700 17525 net.cpp:157] Top shape: 1024 3 48 48 (7077888)
I0404 03:12:50.136708 17525 net.cpp:157] Top shape: 1024 (1024)
I0404 03:12:50.136710 17525 net.cpp:165] Memory required for data: 28315648
I0404 03:12:50.136719 17525 layer_factory.hpp:77] Creating layer conv1
I0404 03:12:50.136747 17525 net.cpp:100] Creating Layer conv1
I0404 03:12:50.136756 17525 net.cpp:434] conv1 <- data
I0404 03:12:50.136773 17525 net.cpp:408] conv1 -> conv1
I0404 03:12:50.769740 17613 blocking_queue.cpp:50] Waiting for data
I0404 03:12:52.858217 17525 net.cpp:150] Setting up conv1
I0404 03:12:52.858245 17525 net.cpp:157] Top shape: 1024 100 42 42 (180633600)
I0404 03:12:52.858249 17525 net.cpp:165] Memory required for data: 750850048
I0404 03:12:52.858278 17525 layer_factory.hpp:77] Creating layer conv1_prescale
I0404 03:12:52.858292 17525 net.cpp:100] Creating Layer conv1_prescale
I0404 03:12:52.858299 17525 net.cpp:434] conv1_prescale <- conv1
I0404 03:12:52.858305 17525 net.cpp:395] conv1_prescale -> conv1 (in-place)
I0404 03:12:52.858427 17525 net.cpp:150] Setting up conv1_prescale
I0404 03:12:52.858435 17525 net.cpp:157] Top shape: 1024 100 42 42 (180633600)
I0404 03:12:52.858438 17525 net.cpp:165] Memory required for data: 1473384448
I0404 03:12:52.858446 17525 layer_factory.hpp:77] Creating layer conv1_sTanH
I0404 03:12:52.858453 17525 net.cpp:100] Creating Layer conv1_sTanH
I0404 03:12:52.858458 17525 net.cpp:434] conv1_sTanH <- conv1
I0404 03:12:52.858463 17525 net.cpp:395] conv1_sTanH -> conv1 (in-place)
I0404 03:12:52.858664 17525 net.cpp:150] Setting up conv1_sTanH
I0404 03:12:52.858676 17525 net.cpp:157] Top shape: 1024 100 42 42 (180633600)
I0404 03:12:52.858681 17525 net.cpp:165] Memory required for data: 2195918848
I0404 03:12:52.858685 17525 layer_factory.hpp:77] Creating layer conv1_postscale
I0404 03:12:52.858693 17525 net.cpp:100] Creating Layer conv1_postscale
I0404 03:12:52.858698 17525 net.cpp:434] conv1_postscale <- conv1
I0404 03:12:52.858702 17525 net.cpp:395] conv1_postscale -> conv1 (in-place)
I0404 03:12:52.858798 17525 net.cpp:150] Setting up conv1_postscale
I0404 03:12:52.858806 17525 net.cpp:157] Top shape: 1024 100 42 42 (180633600)
I0404 03:12:52.858809 17525 net.cpp:165] Memory required for data: 2918453248
I0404 03:12:52.858814 17525 layer_factory.hpp:77] Creating layer pool1
I0404 03:12:52.858821 17525 net.cpp:100] Creating Layer pool1
I0404 03:12:52.858826 17525 net.cpp:434] pool1 <- conv1
I0404 03:12:52.858830 17525 net.cpp:408] pool1 -> pool1
I0404 03:12:52.858881 17525 net.cpp:150] Setting up pool1
I0404 03:12:52.858889 17525 net.cpp:157] Top shape: 1024 100 21 21 (45158400)
I0404 03:12:52.858892 17525 net.cpp:165] Memory required for data: 3099086848
I0404 03:12:52.858896 17525 layer_factory.hpp:77] Creating layer conv2
I0404 03:12:52.858906 17525 net.cpp:100] Creating Layer conv2
I0404 03:12:52.858911 17525 net.cpp:434] conv2 <- pool1
I0404 03:12:52.858916 17525 net.cpp:408] conv2 -> conv2
I0404 03:12:52.864588 17525 net.cpp:150] Setting up conv2
I0404 03:12:52.864606 17525 net.cpp:157] Top shape: 1024 150 18 18 (49766400)
I0404 03:12:52.864614 17525 net.cpp:165] Memory required for data: 3298152448
I0404 03:12:52.864660 17525 layer_factory.hpp:77] Creating layer conv2_prescale
I0404 03:12:52.864671 17525 net.cpp:100] Creating Layer conv2_prescale
I0404 03:12:52.864676 17525 net.cpp:434] conv2_prescale <- conv2
I0404 03:12:52.864684 17525 net.cpp:395] conv2_prescale -> conv2 (in-place)
I0404 03:12:52.864825 17525 net.cpp:150] Setting up conv2_prescale
I0404 03:12:52.864835 17525 net.cpp:157] Top shape: 1024 150 18 18 (49766400)
I0404 03:12:52.864840 17525 net.cpp:165] Memory required for data: 3497218048
I0404 03:12:52.864845 17525 layer_factory.hpp:77] Creating layer conv2_sTanH
I0404 03:12:52.864853 17525 net.cpp:100] Creating Layer conv2_sTanH
I0404 03:12:52.864861 17525 net.cpp:434] conv2_sTanH <- conv2
I0404 03:12:52.864866 17525 net.cpp:395] conv2_sTanH -> conv2 (in-place)
I0404 03:12:52.865777 17525 net.cpp:150] Setting up conv2_sTanH
I0404 03:12:52.865803 17525 net.cpp:157] Top shape: 1024 150 18 18 (49766400)
I0404 03:12:52.865808 17525 net.cpp:165] Memory required for data: 3696283648
I0404 03:12:52.865811 17525 layer_factory.hpp:77] Creating layer conv2_postscale
I0404 03:12:52.865821 17525 net.cpp:100] Creating Layer conv2_postscale
I0404 03:12:52.865830 17525 net.cpp:434] conv2_postscale <- conv2
I0404 03:12:52.865841 17525 net.cpp:395] conv2_postscale -> conv2 (in-place)
I0404 03:12:52.865988 17525 net.cpp:150] Setting up conv2_postscale
I0404 03:12:52.865999 17525 net.cpp:157] Top shape: 1024 150 18 18 (49766400)
I0404 03:12:52.866006 17525 net.cpp:165] Memory required for data: 3895349248
I0404 03:12:52.866017 17525 layer_factory.hpp:77] Creating layer pool2
I0404 03:12:52.866024 17525 net.cpp:100] Creating Layer pool2
I0404 03:12:52.866029 17525 net.cpp:434] pool2 <- conv2
I0404 03:12:52.866039 17525 net.cpp:408] pool2 -> pool2
I0404 03:12:52.866097 17525 net.cpp:150] Setting up pool2
I0404 03:12:52.866108 17525 net.cpp:157] Top shape: 1024 150 9 9 (12441600)
I0404 03:12:52.866117 17525 net.cpp:165] Memory required for data: 3945115648
I0404 03:12:52.866124 17525 layer_factory.hpp:77] Creating layer conv3
I0404 03:12:52.866134 17525 net.cpp:100] Creating Layer conv3
I0404 03:12:52.866142 17525 net.cpp:434] conv3 <- pool2
I0404 03:12:52.866147 17525 net.cpp:408] conv3 -> conv3
I0404 03:12:52.872359 17525 net.cpp:150] Setting up conv3
I0404 03:12:52.872380 17525 net.cpp:157] Top shape: 1024 250 6 6 (9216000)
I0404 03:12:52.872383 17525 net.cpp:165] Memory required for data: 3981979648
I0404 03:12:52.872400 17525 layer_factory.hpp:77] Creating layer conv3_prescale
I0404 03:12:52.872414 17525 net.cpp:100] Creating Layer conv3_prescale
I0404 03:12:52.872427 17525 net.cpp:434] conv3_prescale <- conv3
I0404 03:12:52.872436 17525 net.cpp:395] conv3_prescale -> conv3 (in-place)
I0404 03:12:52.872555 17525 net.cpp:150] Setting up conv3_prescale
I0404 03:12:52.872563 17525 net.cpp:157] Top shape: 1024 250 6 6 (9216000)
I0404 03:12:52.872570 17525 net.cpp:165] Memory required for data: 4018843648
I0404 03:12:52.872581 17525 layer_factory.hpp:77] Creating layer conv3_sTanH
I0404 03:12:52.872594 17525 net.cpp:100] Creating Layer conv3_sTanH
I0404 03:12:52.872599 17525 net.cpp:434] conv3_sTanH <- conv3
I0404 03:12:52.872604 17525 net.cpp:395] conv3_sTanH -> conv3 (in-place)
I0404 03:12:52.873603 17525 net.cpp:150] Setting up conv3_sTanH
I0404 03:12:52.873625 17525 net.cpp:157] Top shape: 1024 250 6 6 (9216000)
I0404 03:12:52.873632 17525 net.cpp:165] Memory required for data: 4055707648
I0404 03:12:52.873641 17525 layer_factory.hpp:77] Creating layer conv3_postscale
I0404 03:12:52.873658 17525 net.cpp:100] Creating Layer conv3_postscale
I0404 03:12:52.873663 17525 net.cpp:434] conv3_postscale <- conv3
I0404 03:12:52.873670 17525 net.cpp:395] conv3_postscale -> conv3 (in-place)
I0404 03:12:52.873805 17525 net.cpp:150] Setting up conv3_postscale
I0404 03:12:52.873814 17525 net.cpp:157] Top shape: 1024 250 6 6 (9216000)
I0404 03:12:52.873819 17525 net.cpp:165] Memory required for data: 4092571648
I0404 03:12:52.873824 17525 layer_factory.hpp:77] Creating layer pool3
I0404 03:12:52.873852 17525 net.cpp:100] Creating Layer pool3
I0404 03:12:52.873858 17525 net.cpp:434] pool3 <- conv3
I0404 03:12:52.873863 17525 net.cpp:408] pool3 -> pool3
I0404 03:12:52.873911 17525 net.cpp:150] Setting up pool3
I0404 03:12:52.873919 17525 net.cpp:157] Top shape: 1024 250 3 3 (2304000)
I0404 03:12:52.873924 17525 net.cpp:165] Memory required for data: 4101787648
I0404 03:12:52.873927 17525 layer_factory.hpp:77] Creating layer fc4_300
I0404 03:12:52.873941 17525 net.cpp:100] Creating Layer fc4_300
I0404 03:12:52.873945 17525 net.cpp:434] fc4_300 <- pool3
I0404 03:12:52.873951 17525 net.cpp:408] fc4_300 -> fc4_300
I0404 03:12:52.880184 17525 net.cpp:150] Setting up fc4_300
I0404 03:12:52.880208 17525 net.cpp:157] Top shape: 1024 300 (307200)
I0404 03:12:52.880226 17525 net.cpp:165] Memory required for data: 4103016448
I0404 03:12:52.880246 17525 layer_factory.hpp:77] Creating layer fc4_relu
I0404 03:12:52.880259 17525 net.cpp:100] Creating Layer fc4_relu
I0404 03:12:52.880267 17525 net.cpp:434] fc4_relu <- fc4_300
I0404 03:12:52.880277 17525 net.cpp:395] fc4_relu -> fc4_300 (in-place)
I0404 03:12:52.880561 17525 net.cpp:150] Setting up fc4_relu
I0404 03:12:52.880578 17525 net.cpp:157] Top shape: 1024 300 (307200)
I0404 03:12:52.880589 17525 net.cpp:165] Memory required for data: 4104245248
I0404 03:12:52.880599 17525 layer_factory.hpp:77] Creating layer drop4
I0404 03:12:52.880616 17525 net.cpp:100] Creating Layer drop4
I0404 03:12:52.880626 17525 net.cpp:434] drop4 <- fc4_300
I0404 03:12:52.880635 17525 net.cpp:395] drop4 -> fc4_300 (in-place)
I0404 03:12:52.880691 17525 net.cpp:150] Setting up drop4
I0404 03:12:52.880700 17525 net.cpp:157] Top shape: 1024 300 (307200)
I0404 03:12:52.880708 17525 net.cpp:165] Memory required for data: 4105474048
I0404 03:12:52.880714 17525 layer_factory.hpp:77] Creating layer fc5_67
I0404 03:12:52.880720 17525 net.cpp:100] Creating Layer fc5_67
I0404 03:12:52.880725 17525 net.cpp:434] fc5_67 <- fc4_300
I0404 03:12:52.880739 17525 net.cpp:408] fc5_67 -> fc5_classes
I0404 03:12:52.885021 17525 net.cpp:150] Setting up fc5_67
I0404 03:12:52.885042 17525 net.cpp:157] Top shape: 1024 67 (68608)
I0404 03:12:52.885048 17525 net.cpp:165] Memory required for data: 4105748480
I0404 03:12:52.885058 17525 layer_factory.hpp:77] Creating layer loss
I0404 03:12:52.885069 17525 net.cpp:100] Creating Layer loss
I0404 03:12:52.885074 17525 net.cpp:434] loss <- fc5_classes
I0404 03:12:52.885079 17525 net.cpp:434] loss <- label
I0404 03:12:52.885085 17525 net.cpp:408] loss -> loss
I0404 03:12:52.885105 17525 layer_factory.hpp:77] Creating layer loss
…
I0404 03:12:52.885819 17525 net.cpp:283] Network initialization done.
I0404 03:12:52.886096 17525 solver.cpp:193] Creating test net (#0) specified by test_net file: ./Prototxt/experiment_5/rtsd-r1/orig/test.prototxt
I0404 03:12:52.886309 17525 net.cpp:58] Initializing net from parameters: 
state {
  phase: TEST
}
layer {
  name: "data"
  type: "Data"
  top: "data"
  top: "label"
  include {
    phase: TEST
  }
  transform_param {
    mirror: false
    crop_size: 48
  }
  data_param {
    source: "../local_data/lmdb/rtsd-r1/orig/test/lmdb"
    batch_size: 1024
    backend: LMDB
  }
}
layer {
  name: "conv1"
  type: "Convolution"
  bottom: "data"
  top: "conv1"
  convolution_param {
    num_output: 100
    pad: 0
    kernel_size: 7
    group: 1
    stride: 1
    weight_filler {
      type: "xavier"
    }
  }
}
layer {
  name: "conv1_prescale"
  type: "Scale"
  bottom: "conv1"
  top: "conv1"
  param {
    lr_mult: 0
    decay_mult: 0
  }
  scale_param {
    filler {
      value: 0.6666
    }
  }
}
layer {
  name: "conv1_sTanH"
  type: "TanH"
  bottom: "conv1"
  top: "conv1"
}
layer {
  name: "conv1_postscale"
  type: "Scale"
  bottom: "conv1"
  top: "conv1"
  param {
    lr_mult: 0
    decay_mult: 0
  }
  scale_param {
    filler {
      value: 1.7159
    }
  }
}
layer {
  name: "pool1"
  type: "Pooling"
  bottom: "conv1"
  top: "pool1"
  pooling_param {
    pool: MAX
    kernel_size: 2
    stride: 2
  }
}
layer {
  name: "conv2"
  type: "Convolution"
  bottom: "pool1"
  top: "conv2"
  convolution_param {
    num_output: 150
    pad: 0
    kernel_size: 4
    group: 1
    stride: 1
    weight_filler {
      type: "xavier"
    }
  }
}
layer {
  name: "conv2_prescale"
  type: "Scale"
  bottom: "conv2"
  top: "conv2"
  param {
    lr_mult: 0
    decay_mult: 0
  }
  scale_param {
    filler {
      value: 0.6666
    }
  }
}
layer {
  name: "conv2_sTanH"
  type: "TanH"
  bottom: "conv2"
  top: "conv2"
}
layer {
  name: "conv2_postscale"
  type: "Scale"
  bottom: "conv2"
  top: "conv2"
  param {
    lr_mult: 0
    decay_mult: 0
  }
  scale_param {
    filler {
      value: 1.7159
    }
  }
}
layer {
  name: "pool2"
  type: "Pooling"
  bottom: "conv2"
  top: "pool2"
  pooling_param {
    pool: MAX
    kernel_size: 2
    stride: 2
  }
}
layer {
  name: "conv3"
  type: "Convolution"
  bottom: "pool2"
  top: "conv3"
  convolution_param {
    num_output: 250
    pad: 0
    kernel_size: 4
    group: 1
    stride: 1
    weight_filler {
      type: "xavier"
    }
  }
}
layer {
  name: "conv3_prescale"
  type: "Scale"
  bottom: "conv3"
  top: "conv3"
  param {
    lr_mult: 0
    decay_mult: 0
  }
  scale_param {
    filler {
      value: 0.6666
    }
  }
}
layer {
  name: "conv3_sTanH"
  type: "TanH"
  bottom: "conv3"
  top: "conv3"
}
layer {
  name: "conv3_postscale"
  type: "Scale"
  bottom: "conv3"
  top: "conv3"
  param {
    lr_mult: 0
    decay_mult: 0
  }
  scale_param {
    filler {
      value: 1.7159
    }
  }
}
layer {
  name: "pool3"
  type: "Pooling"
  bottom: "conv3"
  top: "pool3"
  pooling_param {
    pool: MAX
    kernel_size: 2
    stride: 2
  }
}
layer {
  name: "fc4_300"
  type: "InnerProduct"
  bottom: "pool3"
  top: "fc4_300"
  inner_product_param {
    num_output: 300
    weight_filler {
      type: "xavier"
    }
  }
}
layer {
  name: "fc4_relu"
  type: "ReLU"
  bottom: "fc4_300"
  top: "fc4_300"
}
layer {
  name: "drop4"
  type: "Dropout"
  bottom: "fc4_300"
  top: "fc4_300"
  dropout_param {
    dropout_ratio: 0.4
  }
}
layer {
  name: "fc5_67"
  type: "InnerProduct"
  bottom: "fc4_300"
  top: "fc5_classes"
  inner_product_param {
    num_output: 67
    weight_filler {
      type: "xavier"
    }
  }
}
layer {
  name: "loss"
  type: "SoftmaxWithLoss"
  bottom: "fc5_classes"
  bottom: "label"
  top: "loss"
}
layer {
  name: "accuracy_1"
  type: "Accuracy"
  bottom: "fc5_classes"
  bottom: "label"
  top: "accuracy_1"
  include {
    phase: TEST
  }
  accuracy_param {
    top_k: 1
  }
}
layer {
  name: "accuracy_5"
  type: "Accuracy"
  bottom: "fc5_classes"
  bottom: "label"
  top: "accuracy_5"
  include {
    phase: TEST
  }
  accuracy_param {
    top_k: 5
  }
}
I0404 03:12:52.886565 17525 layer_factory.hpp:77] Creating layer data
I0404 03:12:52.887329 17525 net.cpp:100] Creating Layer data
I0404 03:12:52.887342 17525 net.cpp:408] data -> data
I0404 03:12:52.887356 17525 net.cpp:408] data -> label
I0404 03:12:52.888808 17722 db_lmdb.cpp:35] Opened lmdb ../local_data/lmdb/rtsd-r1/orig/test/lmdb
I0404 03:12:52.888974 17525 data_layer.cpp:41] output data size: 1024,3,48,48
I0404 03:12:52.938941 17525 net.cpp:150] Setting up data
I0404 03:12:52.938983 17525 net.cpp:157] Top shape: 1024 3 48 48 (7077888)
I0404 03:12:52.938988 17525 net.cpp:157] Top shape: 1024 (1024)
I0404 03:12:52.938992 17525 net.cpp:165] Memory required for data: 28315648
I0404 03:12:52.938998 17525 layer_factory.hpp:77] Creating layer label_data_1_split
I0404 03:12:52.939013 17525 net.cpp:100] Creating Layer label_data_1_split
I0404 03:12:52.939018 17525 net.cpp:434] label_data_1_split <- label
I0404 03:12:52.939026 17525 net.cpp:408] label_data_1_split -> label_data_1_split_0
I0404 03:12:52.939043 17525 net.cpp:408] label_data_1_split -> label_data_1_split_1
I0404 03:12:52.939050 17525 net.cpp:408] label_data_1_split -> label_data_1_split_2
I0404 03:12:52.939172 17525 net.cpp:150] Setting up label_data_1_split
I0404 03:12:52.939182 17525 net.cpp:157] Top shape: 1024 (1024)
I0404 03:12:52.939187 17525 net.cpp:157] Top shape: 1024 (1024)
I0404 03:12:52.939189 17525 net.cpp:157] Top shape: 1024 (1024)
I0404 03:12:52.939193 17525 net.cpp:165] Memory required for data: 28327936
I0404 03:12:52.939195 17525 layer_factory.hpp:77] Creating layer conv1
I0404 03:12:52.939208 17525 net.cpp:100] Creating Layer conv1
I0404 03:12:52.939213 17525 net.cpp:434] conv1 <- data
I0404 03:12:52.939220 17525 net.cpp:408] conv1 -> conv1
I0404 03:12:52.944749 17525 net.cpp:150] Setting up conv1
I0404 03:12:52.944780 17525 net.cpp:157] Top shape: 1024 100 42 42 (180633600)
I0404 03:12:52.944789 17525 net.cpp:165] Memory required for data: 750862336
I0404 03:12:52.944808 17525 layer_factory.hpp:77] Creating layer conv1_prescale
I0404 03:12:52.944821 17525 net.cpp:100] Creating Layer conv1_prescale
I0404 03:12:52.944828 17525 net.cpp:434] conv1_prescale <- conv1
I0404 03:12:52.944838 17525 net.cpp:395] conv1_prescale -> conv1 (in-place)
I0404 03:12:52.945016 17525 net.cpp:150] Setting up conv1_prescale
I0404 03:12:52.945031 17525 net.cpp:157] Top shape: 1024 100 42 42 (180633600)
I0404 03:12:52.945037 17525 net.cpp:165] Memory required for data: 1473396736
I0404 03:12:52.945049 17525 layer_factory.hpp:77] Creating layer conv1_sTanH
I0404 03:12:52.945063 17525 net.cpp:100] Creating Layer conv1_sTanH
I0404 03:12:52.945075 17525 net.cpp:434] conv1_sTanH <- conv1
I0404 03:12:52.945083 17525 net.cpp:395] conv1_sTanH -> conv1 (in-place)
I0404 03:12:52.945363 17525 net.cpp:150] Setting up conv1_sTanH
I0404 03:12:52.945380 17525 net.cpp:157] Top shape: 1024 100 42 42 (180633600)
I0404 03:12:52.945386 17525 net.cpp:165] Memory required for data: 2195931136
I0404 03:12:52.945394 17525 layer_factory.hpp:77] Creating layer conv1_postscale
I0404 03:12:52.945410 17525 net.cpp:100] Creating Layer conv1_postscale
I0404 03:12:52.945415 17525 net.cpp:434] conv1_postscale <- conv1
I0404 03:12:52.945426 17525 net.cpp:395] conv1_postscale -> conv1 (in-place)
I0404 03:12:52.945590 17525 net.cpp:150] Setting up conv1_postscale
I0404 03:12:52.945602 17525 net.cpp:157] Top shape: 1024 100 42 42 (180633600)
I0404 03:12:52.945607 17525 net.cpp:165] Memory required for data: 2918465536
I0404 03:12:52.945639 17525 layer_factory.hpp:77] Creating layer pool1
I0404 03:12:52.945654 17525 net.cpp:100] Creating Layer pool1
I0404 03:12:52.945662 17525 net.cpp:434] pool1 <- conv1
I0404 03:12:52.945673 17525 net.cpp:408] pool1 -> pool1
I0404 03:12:52.945739 17525 net.cpp:150] Setting up pool1
I0404 03:12:52.945751 17525 net.cpp:157] Top shape: 1024 100 21 21 (45158400)
I0404 03:12:52.945760 17525 net.cpp:165] Memory required for data: 3099099136
I0404 03:12:52.945765 17525 layer_factory.hpp:77] Creating layer conv2
I0404 03:12:52.945775 17525 net.cpp:100] Creating Layer conv2
I0404 03:12:52.945782 17525 net.cpp:434] conv2 <- pool1
I0404 03:12:52.945792 17525 net.cpp:408] conv2 -> conv2
I0404 03:12:52.951092 17525 net.cpp:150] Setting up conv2
I0404 03:12:52.951118 17525 net.cpp:157] Top shape: 1024 150 18 18 (49766400)
I0404 03:12:52.951124 17525 net.cpp:165] Memory required for data: 3298164736
I0404 03:12:52.951139 17525 layer_factory.hpp:77] Creating layer conv2_prescale
I0404 03:12:52.951159 17525 net.cpp:100] Creating Layer conv2_prescale
I0404 03:12:52.951166 17525 net.cpp:434] conv2_prescale <- conv2
I0404 03:12:52.951176 17525 net.cpp:395] conv2_prescale -> conv2 (in-place)
I0404 03:12:52.951355 17525 net.cpp:150] Setting up conv2_prescale
I0404 03:12:52.951367 17525 net.cpp:157] Top shape: 1024 150 18 18 (49766400)
I0404 03:12:52.951373 17525 net.cpp:165] Memory required for data: 3497230336
I0404 03:12:52.951381 17525 layer_factory.hpp:77] Creating layer conv2_sTanH
I0404 03:12:52.951391 17525 net.cpp:100] Creating Layer conv2_sTanH
I0404 03:12:52.951395 17525 net.cpp:434] conv2_sTanH <- conv2
I0404 03:12:52.951405 17525 net.cpp:395] conv2_sTanH -> conv2 (in-place)
I0404 03:12:52.952409 17525 net.cpp:150] Setting up conv2_sTanH
I0404 03:12:52.952435 17525 net.cpp:157] Top shape: 1024 150 18 18 (49766400)
I0404 03:12:52.952442 17525 net.cpp:165] Memory required for data: 3696295936
I0404 03:12:52.952448 17525 layer_factory.hpp:77] Creating layer conv2_postscale
I0404 03:12:52.952464 17525 net.cpp:100] Creating Layer conv2_postscale
I0404 03:12:52.952471 17525 net.cpp:434] conv2_postscale <- conv2
I0404 03:12:52.952481 17525 net.cpp:395] conv2_postscale -> conv2 (in-place)
I0404 03:12:52.952639 17525 net.cpp:150] Setting up conv2_postscale
I0404 03:12:52.952652 17525 net.cpp:157] Top shape: 1024 150 18 18 (49766400)
I0404 03:12:52.952658 17525 net.cpp:165] Memory required for data: 3895361536
I0404 03:12:52.952664 17525 layer_factory.hpp:77] Creating layer pool2
I0404 03:12:52.952673 17525 net.cpp:100] Creating Layer pool2
I0404 03:12:52.952682 17525 net.cpp:434] pool2 <- conv2
I0404 03:12:52.952690 17525 net.cpp:408] pool2 -> pool2
I0404 03:12:52.952754 17525 net.cpp:150] Setting up pool2
I0404 03:12:52.952765 17525 net.cpp:157] Top shape: 1024 150 9 9 (12441600)
I0404 03:12:52.952770 17525 net.cpp:165] Memory required for data: 3945127936
I0404 03:12:52.952774 17525 layer_factory.hpp:77] Creating layer conv3
I0404 03:12:52.952787 17525 net.cpp:100] Creating Layer conv3
I0404 03:12:52.952795 17525 net.cpp:434] conv3 <- pool2
I0404 03:12:52.952801 17525 net.cpp:408] conv3 -> conv3
I0404 03:12:52.961720 17525 net.cpp:150] Setting up conv3
I0404 03:12:52.961750 17525 net.cpp:157] Top shape: 1024 250 6 6 (9216000)
I0404 03:12:52.961755 17525 net.cpp:165] Memory required for data: 3981991936
I0404 03:12:52.961774 17525 layer_factory.hpp:77] Creating layer conv3_prescale
I0404 03:12:52.961787 17525 net.cpp:100] Creating Layer conv3_prescale
I0404 03:12:52.961796 17525 net.cpp:434] conv3_prescale <- conv3
I0404 03:12:52.961807 17525 net.cpp:395] conv3_prescale -> conv3 (in-place)
I0404 03:12:52.961977 17525 net.cpp:150] Setting up conv3_prescale
I0404 03:12:52.961992 17525 net.cpp:157] Top shape: 1024 250 6 6 (9216000)
I0404 03:12:52.961998 17525 net.cpp:165] Memory required for data: 4018855936
I0404 03:12:52.962007 17525 layer_factory.hpp:77] Creating layer conv3_sTanH
I0404 03:12:52.962020 17525 net.cpp:100] Creating Layer conv3_sTanH
I0404 03:12:52.962028 17525 net.cpp:434] conv3_sTanH <- conv3
I0404 03:12:52.962034 17525 net.cpp:395] conv3_sTanH -> conv3 (in-place)
I0404 03:12:52.963868 17525 net.cpp:150] Setting up conv3_sTanH
I0404 03:12:52.963896 17525 net.cpp:157] Top shape: 1024 250 6 6 (9216000)
I0404 03:12:52.963903 17525 net.cpp:165] Memory required for data: 4055719936
I0404 03:12:52.963917 17525 layer_factory.hpp:77] Creating layer conv3_postscale
I0404 03:12:52.963933 17525 net.cpp:100] Creating Layer conv3_postscale
I0404 03:12:52.963942 17525 net.cpp:434] conv3_postscale <- conv3
I0404 03:12:52.963954 17525 net.cpp:395] conv3_postscale -> conv3 (in-place)
I0404 03:12:52.964143 17525 net.cpp:150] Setting up conv3_postscale
I0404 03:12:52.964159 17525 net.cpp:157] Top shape: 1024 250 6 6 (9216000)
I0404 03:12:52.964164 17525 net.cpp:165] Memory required for data: 4092583936
I0404 03:12:52.964174 17525 layer_factory.hpp:77] Creating layer pool3
I0404 03:12:52.964188 17525 net.cpp:100] Creating Layer pool3
I0404 03:12:52.964195 17525 net.cpp:434] pool3 <- conv3
I0404 03:12:52.964201 17525 net.cpp:408] pool3 -> pool3
I0404 03:12:52.964283 17525 net.cpp:150] Setting up pool3
I0404 03:12:52.964300 17525 net.cpp:157] Top shape: 1024 250 3 3 (2304000)
I0404 03:12:52.964308 17525 net.cpp:165] Memory required for data: 4101799936
I0404 03:12:52.964318 17525 layer_factory.hpp:77] Creating layer fc4_300
I0404 03:12:52.964336 17525 net.cpp:100] Creating Layer fc4_300
I0404 03:12:52.964345 17525 net.cpp:434] fc4_300 <- pool3
I0404 03:12:52.964359 17525 net.cpp:408] fc4_300 -> fc4_300
I0404 03:12:52.972226 17525 net.cpp:150] Setting up fc4_300
I0404 03:12:52.972255 17525 net.cpp:157] Top shape: 1024 300 (307200)
I0404 03:12:52.972265 17525 net.cpp:165] Memory required for data: 4103028736
I0404 03:12:52.972282 17525 layer_factory.hpp:77] Creating layer fc4_relu
I0404 03:12:52.972297 17525 net.cpp:100] Creating Layer fc4_relu
I0404 03:12:52.972306 17525 net.cpp:434] fc4_relu <- fc4_300
I0404 03:12:52.972324 17525 net.cpp:395] fc4_relu -> fc4_300 (in-place)
I0404 03:12:52.972595 17525 net.cpp:150] Setting up fc4_relu
I0404 03:12:52.972609 17525 net.cpp:157] Top shape: 1024 300 (307200)
I0404 03:12:52.972615 17525 net.cpp:165] Memory required for data: 4104257536
I0404 03:12:52.972620 17525 layer_factory.hpp:77] Creating layer drop4
I0404 03:12:52.972632 17525 net.cpp:100] Creating Layer drop4
I0404 03:12:52.972638 17525 net.cpp:434] drop4 <- fc4_300
I0404 03:12:52.972647 17525 net.cpp:395] drop4 -> fc4_300 (in-place)
I0404 03:12:52.972684 17525 net.cpp:150] Setting up drop4
I0404 03:12:52.972692 17525 net.cpp:157] Top shape: 1024 300 (307200)
I0404 03:12:52.972698 17525 net.cpp:165] Memory required for data: 4105486336
I0404 03:12:52.972703 17525 layer_factory.hpp:77] Creating layer fc5_67
I0404 03:12:52.972714 17525 net.cpp:100] Creating Layer fc5_67
I0404 03:12:52.972723 17525 net.cpp:434] fc5_67 <- fc4_300
I0404 03:12:52.972731 17525 net.cpp:408] fc5_67 -> fc5_classes
I0404 03:12:52.973153 17525 net.cpp:150] Setting up fc5_67
I0404 03:12:52.973168 17525 net.cpp:157] Top shape: 1024 67 (68608)
I0404 03:12:52.973175 17525 net.cpp:165] Memory required for data: 4105760768
I0404 03:12:52.973189 17525 layer_factory.hpp:77] Creating layer fc5_classes_fc5_67_0_split
I0404 03:12:52.973203 17525 net.cpp:100] Creating Layer fc5_classes_fc5_67_0_split
I0404 03:12:52.973211 17525 net.cpp:434] fc5_classes_fc5_67_0_split <- fc5_classes
I0404 03:12:52.973222 17525 net.cpp:408] fc5_classes_fc5_67_0_split -> fc5_classes_fc5_67_0_split_0
I0404 03:12:52.973239 17525 net.cpp:408] fc5_classes_fc5_67_0_split -> fc5_classes_fc5_67_0_split_1
I0404 03:12:52.973256 17525 net.cpp:408] fc5_classes_fc5_67_0_split -> fc5_classes_fc5_67_0_split_2
I0404 03:12:52.973358 17525 net.cpp:150] Setting up fc5_classes_fc5_67_0_split
I0404 03:12:52.973372 17525 net.cpp:157] Top shape: 1024 67 (68608)
I0404 03:12:52.973382 17525 net.cpp:157] Top shape: 1024 67 (68608)
I0404 03:12:52.973392 17525 net.cpp:157] Top shape: 1024 67 (68608)
I0404 03:12:52.973402 17525 net.cpp:165] Memory required for data: 4106584064
I0404 03:12:52.973410 17525 layer_factory.hpp:77] Creating layer loss
I0404 03:12:52.973449 17525 net.cpp:100] Creating Layer loss
I0404 03:12:52.973456 17525 net.cpp:434] loss <- fc5_classes_fc5_67_0_split_0
I0404 03:12:52.973466 17525 net.cpp:434] loss <- label_data_1_split_0
I0404 03:12:52.973475 17525 net.cpp:408] loss -> loss
…
