…
I0410 02:30:52.847618 12504 net.cpp:322] The NetState phase (0) differed from the phase (1) specified by a rule in layer accuracy_5
I0410 02:30:52.847728 12504 net.cpp:58] Initializing net from parameters: 
state {
  phase: TRAIN
  level: 0
  stage: ""
}
layer {
  name: "data"
  type: "Data"
  top: "data"
  top: "label"
  include {
    phase: TRAIN
  }
  transform_param {
    mirror: false
    crop_size: 48
    mean_value: 115
    mean_value: 108
    mean_value: 122
  }
  data_param {
    source: "../local_data/lmdb/rtsd-r1/imajust/train/lmdb"
    batch_size: 1024
    backend: LMDB
  }
}
layer {
  name: "conv1"
  type: "Convolution"
  bottom: "data"
  top: "conv1"
  convolution_param {
    num_output: 100
    pad: 0
    kernel_size: 7
    group: 1
    stride: 1
    weight_filler {
      type: "xavier"
    }
  }
}
layer {
  name: "conv1_sTanH"
  type: "TanH"
  bottom: "conv1"
  top: "conv1"
}
layer {
  name: "pool1"
  type: "Pooling"
  bottom: "conv1"
  top: "pool1"
  pooling_param {
    pool: MAX
    kernel_size: 2
    stride: 2
  }
}
layer {
  name: "conv2"
  type: "Convolution"
  bottom: "pool1"
  top: "conv2"
  convolution_param {
    num_output: 150
    pad: 0
    kernel_size: 4
    group: 1
    stride: 1
    weight_filler {
      type: "xavier"
    }
  }
}
layer {
  name: "conv2_sTanH"
  type: "TanH"
  bottom: "conv2"
  top: "conv2"
}
layer {
  name: "pool2"
  type: "Pooling"
  bottom: "conv2"
  top: "pool2"
  pooling_param {
    pool: MAX
    kernel_size: 2
    stride: 2
  }
}
layer {
  name: "conv3"
  type: "Convolution"
  bottom: "pool2"
  top: "conv3"
  convolution_param {
    num_output: 250
    pad: 0
    kernel_size: 4
    group: 1
    stride: 1
    weight_filler {
      type: "xavier"
    }
  }
}
layer {
  name: "conv3_sTanH"
  type: "TanH"
  bottom: "conv3"
  top: "conv3"
}
layer {
  name: "pool3"
  type: "Pooling"
  bottom: "conv3"
  top: "pool3"
  pooling_param {
    pool: MAX
    kernel_size: 2
    stride: 2
  }
}
layer {
  name: "fc4_300"
  type: "InnerProduct"
  bottom: "pool3"
  top: "fc4_300"
  inner_product_param {
    num_output: 300
    weight_filler {
      type: "xavier"
    }
  }
}
layer {
  name: "fc4_sTanH"
  type: "TanH"
  bottom: "fc4_300"
  top: "fc4_300"
}
layer {
  name: "drop4"
  type: "Dropout"
  bottom: "fc4_300"
  top: "fc4_300"
  dropout_param {
    dropout_ratio: 0.4
  }
}
layer {
  name: "fc5_67"
  type: "InnerProduct"
  bottom: "fc4_300"
  top: "fc5_classes"
  inner_product_param {
    num_output: 67
    weight_filler {
      type: "xavier"
    }
  }
}
layer {
  name: "loss"
  type: "SoftmaxWithLoss"
  bottom: "fc5_classes"
  bottom: "label"
  top: "loss"
}
I0410 02:30:52.847815 12504 layer_factory.hpp:77] Creating layer data
I0410 02:30:52.849105 12504 net.cpp:100] Creating Layer data
I0410 02:30:52.849123 12504 net.cpp:408] data -> data
I0410 02:30:52.849148 12504 net.cpp:408] data -> label
I0410 02:30:52.850337 12574 db_lmdb.cpp:35] Opened lmdb ../local_data/lmdb/rtsd-r1/imajust/train/lmdb
I0410 02:30:52.904664 12504 data_layer.cpp:41] output data size: 1024,3,48,48
I0410 02:30:52.966783 12504 net.cpp:150] Setting up data
I0410 02:30:52.966830 12504 net.cpp:157] Top shape: 1024 3 48 48 (7077888)
I0410 02:30:52.966879 12504 net.cpp:157] Top shape: 1024 (1024)
I0410 02:30:52.966888 12504 net.cpp:165] Memory required for data: 28315648
I0410 02:30:52.966905 12504 layer_factory.hpp:77] Creating layer conv1
I0410 02:30:52.966943 12504 net.cpp:100] Creating Layer conv1
I0410 02:30:52.966958 12504 net.cpp:434] conv1 <- data
I0410 02:30:52.966986 12504 net.cpp:408] conv1 -> conv1
I0410 02:30:53.281775 12504 net.cpp:150] Setting up conv1
I0410 02:30:53.281803 12504 net.cpp:157] Top shape: 1024 100 42 42 (180633600)
I0410 02:30:53.281808 12504 net.cpp:165] Memory required for data: 750850048
I0410 02:30:53.281842 12504 layer_factory.hpp:77] Creating layer conv1_sTanH
I0410 02:30:53.281857 12504 net.cpp:100] Creating Layer conv1_sTanH
I0410 02:30:53.281862 12504 net.cpp:434] conv1_sTanH <- conv1
I0410 02:30:53.281869 12504 net.cpp:395] conv1_sTanH -> conv1 (in-place)
I0410 02:30:53.282068 12504 net.cpp:150] Setting up conv1_sTanH
I0410 02:30:53.282080 12504 net.cpp:157] Top shape: 1024 100 42 42 (180633600)
I0410 02:30:53.282083 12504 net.cpp:165] Memory required for data: 1473384448
I0410 02:30:53.282088 12504 layer_factory.hpp:77] Creating layer pool1
I0410 02:30:53.282096 12504 net.cpp:100] Creating Layer pool1
I0410 02:30:53.282102 12504 net.cpp:434] pool1 <- conv1
I0410 02:30:53.282109 12504 net.cpp:408] pool1 -> pool1
I0410 02:30:53.282163 12504 net.cpp:150] Setting up pool1
I0410 02:30:53.282171 12504 net.cpp:157] Top shape: 1024 100 21 21 (45158400)
I0410 02:30:53.282174 12504 net.cpp:165] Memory required for data: 1654018048
I0410 02:30:53.282178 12504 layer_factory.hpp:77] Creating layer conv2
I0410 02:30:53.282191 12504 net.cpp:100] Creating Layer conv2
I0410 02:30:53.282196 12504 net.cpp:434] conv2 <- pool1
I0410 02:30:53.282200 12504 net.cpp:408] conv2 -> conv2
I0410 02:30:53.287541 12504 net.cpp:150] Setting up conv2
I0410 02:30:53.287560 12504 net.cpp:157] Top shape: 1024 150 18 18 (49766400)
I0410 02:30:53.287564 12504 net.cpp:165] Memory required for data: 1853083648
I0410 02:30:53.287575 12504 layer_factory.hpp:77] Creating layer conv2_sTanH
I0410 02:30:53.287583 12504 net.cpp:100] Creating Layer conv2_sTanH
I0410 02:30:53.287587 12504 net.cpp:434] conv2_sTanH <- conv2
I0410 02:30:53.287592 12504 net.cpp:395] conv2_sTanH -> conv2 (in-place)
I0410 02:30:53.288486 12504 net.cpp:150] Setting up conv2_sTanH
I0410 02:30:53.288501 12504 net.cpp:157] Top shape: 1024 150 18 18 (49766400)
I0410 02:30:53.288506 12504 net.cpp:165] Memory required for data: 2052149248
I0410 02:30:53.288509 12504 layer_factory.hpp:77] Creating layer pool2
I0410 02:30:53.288516 12504 net.cpp:100] Creating Layer pool2
I0410 02:30:53.288523 12504 net.cpp:434] pool2 <- conv2
I0410 02:30:53.288529 12504 net.cpp:408] pool2 -> pool2
I0410 02:30:53.288575 12504 net.cpp:150] Setting up pool2
I0410 02:30:53.288584 12504 net.cpp:157] Top shape: 1024 150 9 9 (12441600)
I0410 02:30:53.288588 12504 net.cpp:165] Memory required for data: 2101915648
I0410 02:30:53.288590 12504 layer_factory.hpp:77] Creating layer conv3
I0410 02:30:53.288599 12504 net.cpp:100] Creating Layer conv3
I0410 02:30:53.288602 12504 net.cpp:434] conv3 <- pool2
I0410 02:30:53.288607 12504 net.cpp:408] conv3 -> conv3
I0410 02:30:53.295269 12504 net.cpp:150] Setting up conv3
I0410 02:30:53.295287 12504 net.cpp:157] Top shape: 1024 250 6 6 (9216000)
I0410 02:30:53.295290 12504 net.cpp:165] Memory required for data: 2138779648
I0410 02:30:53.295312 12504 layer_factory.hpp:77] Creating layer conv3_sTanH
I0410 02:30:53.295322 12504 net.cpp:100] Creating Layer conv3_sTanH
I0410 02:30:53.295326 12504 net.cpp:434] conv3_sTanH <- conv3
I0410 02:30:53.295331 12504 net.cpp:395] conv3_sTanH -> conv3 (in-place)
I0410 02:30:53.297821 12504 net.cpp:150] Setting up conv3_sTanH
I0410 02:30:53.297842 12504 net.cpp:157] Top shape: 1024 250 6 6 (9216000)
I0410 02:30:53.297844 12504 net.cpp:165] Memory required for data: 2175643648
I0410 02:30:53.297848 12504 layer_factory.hpp:77] Creating layer pool3
I0410 02:30:53.297857 12504 net.cpp:100] Creating Layer pool3
I0410 02:30:53.297863 12504 net.cpp:434] pool3 <- conv3
I0410 02:30:53.297893 12504 net.cpp:408] pool3 -> pool3
I0410 02:30:53.297943 12504 net.cpp:150] Setting up pool3
I0410 02:30:53.297952 12504 net.cpp:157] Top shape: 1024 250 3 3 (2304000)
I0410 02:30:53.297955 12504 net.cpp:165] Memory required for data: 2184859648
I0410 02:30:53.297958 12504 layer_factory.hpp:77] Creating layer fc4_300
I0410 02:30:53.297966 12504 net.cpp:100] Creating Layer fc4_300
I0410 02:30:53.297976 12504 net.cpp:434] fc4_300 <- pool3
I0410 02:30:53.297982 12504 net.cpp:408] fc4_300 -> fc4_300
I0410 02:30:53.303547 12504 net.cpp:150] Setting up fc4_300
I0410 02:30:53.303565 12504 net.cpp:157] Top shape: 1024 300 (307200)
I0410 02:30:53.303568 12504 net.cpp:165] Memory required for data: 2186088448
I0410 02:30:53.303580 12504 layer_factory.hpp:77] Creating layer fc4_sTanH
I0410 02:30:53.303589 12504 net.cpp:100] Creating Layer fc4_sTanH
I0410 02:30:53.303592 12504 net.cpp:434] fc4_sTanH <- fc4_300
I0410 02:30:53.303598 12504 net.cpp:395] fc4_sTanH -> fc4_300 (in-place)
I0410 02:30:53.303784 12504 net.cpp:150] Setting up fc4_sTanH
I0410 02:30:53.303795 12504 net.cpp:157] Top shape: 1024 300 (307200)
I0410 02:30:53.303798 12504 net.cpp:165] Memory required for data: 2187317248
I0410 02:30:53.303802 12504 layer_factory.hpp:77] Creating layer drop4
I0410 02:30:53.303809 12504 net.cpp:100] Creating Layer drop4
I0410 02:30:53.303813 12504 net.cpp:434] drop4 <- fc4_300
I0410 02:30:53.303818 12504 net.cpp:395] drop4 -> fc4_300 (in-place)
I0410 02:30:53.303849 12504 net.cpp:150] Setting up drop4
I0410 02:30:53.303858 12504 net.cpp:157] Top shape: 1024 300 (307200)
I0410 02:30:53.303860 12504 net.cpp:165] Memory required for data: 2188546048
I0410 02:30:53.303864 12504 layer_factory.hpp:77] Creating layer fc5_67
I0410 02:30:53.303869 12504 net.cpp:100] Creating Layer fc5_67
I0410 02:30:53.303874 12504 net.cpp:434] fc5_67 <- fc4_300
I0410 02:30:53.303884 12504 net.cpp:408] fc5_67 -> fc5_classes
I0410 02:30:53.309015 12504 net.cpp:150] Setting up fc5_67
I0410 02:30:53.309032 12504 net.cpp:157] Top shape: 1024 67 (68608)
I0410 02:30:53.309036 12504 net.cpp:165] Memory required for data: 2188820480
I0410 02:30:53.309058 12504 layer_factory.hpp:77] Creating layer loss
I0410 02:30:53.309067 12504 net.cpp:100] Creating Layer loss
I0410 02:30:53.309072 12504 net.cpp:434] loss <- fc5_classes
I0410 02:30:53.309077 12504 net.cpp:434] loss <- label
I0410 02:30:53.309083 12504 net.cpp:408] loss -> loss
I0410 02:30:53.309097 12504 layer_factory.hpp:77] Creating layer loss
…
I0410 02:30:53.309749 12504 solver.cpp:193] Creating test net (#0) specified by test_net file: ./Prototxt/experiment_7/rtsd-r1/imajust/trial_2/test.prototxt
I0410 02:30:53.309880 12504 net.cpp:58] Initializing net from parameters: 
state {
  phase: TEST
}
layer {
  name: "data"
  type: "Data"
  top: "data"
  top: "label"
  include {
    phase: TEST
  }
  transform_param {
    mirror: false
    crop_size: 48
    mean_value: 109
    mean_value: 106
    mean_value: 126
  }
  data_param {
    source: "../local_data/lmdb/rtsd-r1/imajust/test/lmdb"
    batch_size: 1024
    backend: LMDB
  }
}
layer {
  name: "conv1"
  type: "Convolution"
  bottom: "data"
  top: "conv1"
  convolution_param {
    num_output: 100
    pad: 0
    kernel_size: 7
    group: 1
    stride: 1
    weight_filler {
      type: "xavier"
    }
  }
}
layer {
  name: "conv1_sTanH"
  type: "TanH"
  bottom: "conv1"
  top: "conv1"
}
layer {
  name: "pool1"
  type: "Pooling"
  bottom: "conv1"
  top: "pool1"
  pooling_param {
    pool: MAX
    kernel_size: 2
    stride: 2
  }
}
layer {
  name: "conv2"
  type: "Convolution"
  bottom: "pool1"
  top: "conv2"
  convolution_param {
    num_output: 150
    pad: 0
    kernel_size: 4
    group: 1
    stride: 1
    weight_filler {
      type: "xavier"
    }
  }
}
layer {
  name: "conv2_sTanH"
  type: "TanH"
  bottom: "conv2"
  top: "conv2"
}
layer {
  name: "pool2"
  type: "Pooling"
  bottom: "conv2"
  top: "pool2"
  pooling_param {
    pool: MAX
    kernel_size: 2
    stride: 2
  }
}
layer {
  name: "conv3"
  type: "Convolution"
  bottom: "pool2"
  top: "conv3"
  convolution_param {
    num_output: 250
    pad: 0
    kernel_size: 4
    group: 1
    stride: 1
    weight_filler {
      type: "xavier"
    }
  }
}
layer {
  name: "conv3_sTanH"
  type: "TanH"
  bottom: "conv3"
  top: "conv3"
}
layer {
  name: "pool3"
  type: "Pooling"
  bottom: "conv3"
  top: "pool3"
  pooling_param {
    pool: MAX
    kernel_size: 2
    stride: 2
  }
}
layer {
  name: "fc4_300"
  type: "InnerProduct"
  bottom: "pool3"
  top: "fc4_300"
  inner_product_param {
    num_output: 300
    weight_filler {
      type: "xavier"
    }
  }
}
layer {
  name: "fc4_sTanH"
  type: "TanH"
  bottom: "fc4_300"
  top: "fc4_300"
}
layer {
  name: "drop4"
  type: "Dropout"
  bottom: "fc4_300"
  top: "fc4_300"
  dropout_param {
    dropout_ratio: 0.4
  }
}
layer {
  name: "fc5_67"
  type: "InnerProduct"
  bottom: "fc4_300"
  top: "fc5_classes"
  inner_product_param {
    num_output: 67
    weight_filler {
      type: "xavier"
    }
  }
}
layer {
  name: "loss"
  type: "SoftmaxWithLoss"
  bottom: "fc5_classes"
  bottom: "label"
  top: "loss"
}
layer {
  name: "accuracy_1"
  type: "Accuracy"
  bottom: "fc5_classes"
  bottom: "label"
  top: "accuracy_1"
  include {
    phase: TEST
  }
  accuracy_param {
    top_k: 1
  }
}
layer {
  name: "accuracy_5"
  type: "Accuracy"
  bottom: "fc5_classes"
  bottom: "label"
  top: "accuracy_5"
  include {
    phase: TEST
  }
  accuracy_param {
    top_k: 5
  }
}
I0410 02:30:53.309962 12504 layer_factory.hpp:77] Creating layer data
I0410 02:30:53.310593 12504 net.cpp:100] Creating Layer data
I0410 02:30:53.310606 12504 net.cpp:408] data -> data
I0410 02:30:53.310617 12504 net.cpp:408] data -> label
I0410 02:30:53.311815 12602 db_lmdb.cpp:35] Opened lmdb ../local_data/lmdb/rtsd-r1/imajust/test/lmdb
I0410 02:30:53.312005 12504 data_layer.cpp:41] output data size: 1024,3,48,48
I0410 02:30:53.356847 12504 net.cpp:150] Setting up data
I0410 02:30:53.356874 12504 net.cpp:157] Top shape: 1024 3 48 48 (7077888)
I0410 02:30:53.356880 12504 net.cpp:157] Top shape: 1024 (1024)
I0410 02:30:53.356883 12504 net.cpp:165] Memory required for data: 28315648
I0410 02:30:53.356889 12504 layer_factory.hpp:77] Creating layer label_data_1_split
I0410 02:30:53.356904 12504 net.cpp:100] Creating Layer label_data_1_split
I0410 02:30:53.356909 12504 net.cpp:434] label_data_1_split <- label
I0410 02:30:53.356922 12504 net.cpp:408] label_data_1_split -> label_data_1_split_0
I0410 02:30:53.356935 12504 net.cpp:408] label_data_1_split -> label_data_1_split_1
I0410 02:30:53.356971 12504 net.cpp:408] label_data_1_split -> label_data_1_split_2
I0410 02:30:53.357128 12504 net.cpp:150] Setting up label_data_1_split
I0410 02:30:53.357139 12504 net.cpp:157] Top shape: 1024 (1024)
I0410 02:30:53.357142 12504 net.cpp:157] Top shape: 1024 (1024)
I0410 02:30:53.357146 12504 net.cpp:157] Top shape: 1024 (1024)
I0410 02:30:53.357148 12504 net.cpp:165] Memory required for data: 28327936
I0410 02:30:53.357151 12504 layer_factory.hpp:77] Creating layer conv1
I0410 02:30:53.357165 12504 net.cpp:100] Creating Layer conv1
I0410 02:30:53.357177 12504 net.cpp:434] conv1 <- data
I0410 02:30:53.357185 12504 net.cpp:408] conv1 -> conv1
I0410 02:30:53.359838 12504 net.cpp:150] Setting up conv1
I0410 02:30:53.359854 12504 net.cpp:157] Top shape: 1024 100 42 42 (180633600)
I0410 02:30:53.359858 12504 net.cpp:165] Memory required for data: 750862336
I0410 02:30:53.359875 12504 layer_factory.hpp:77] Creating layer conv1_sTanH
I0410 02:30:53.359899 12504 net.cpp:100] Creating Layer conv1_sTanH
I0410 02:30:53.359905 12504 net.cpp:434] conv1_sTanH <- conv1
I0410 02:30:53.359910 12504 net.cpp:395] conv1_sTanH -> conv1 (in-place)
I0410 02:30:53.360113 12504 net.cpp:150] Setting up conv1_sTanH
I0410 02:30:53.360124 12504 net.cpp:157] Top shape: 1024 100 42 42 (180633600)
I0410 02:30:53.360128 12504 net.cpp:165] Memory required for data: 1473396736
I0410 02:30:53.360132 12504 layer_factory.hpp:77] Creating layer pool1
I0410 02:30:53.360143 12504 net.cpp:100] Creating Layer pool1
I0410 02:30:53.360149 12504 net.cpp:434] pool1 <- conv1
I0410 02:30:53.360154 12504 net.cpp:408] pool1 -> pool1
I0410 02:30:53.360219 12504 net.cpp:150] Setting up pool1
I0410 02:30:53.360229 12504 net.cpp:157] Top shape: 1024 100 21 21 (45158400)
I0410 02:30:53.360234 12504 net.cpp:165] Memory required for data: 1654030336
I0410 02:30:53.360236 12504 layer_factory.hpp:77] Creating layer conv2
I0410 02:30:53.360247 12504 net.cpp:100] Creating Layer conv2
I0410 02:30:53.360252 12504 net.cpp:434] conv2 <- pool1
I0410 02:30:53.360258 12504 net.cpp:408] conv2 -> conv2
I0410 02:30:53.372417 12504 net.cpp:150] Setting up conv2
I0410 02:30:53.372442 12504 net.cpp:157] Top shape: 1024 150 18 18 (49766400)
I0410 02:30:53.372447 12504 net.cpp:165] Memory required for data: 1853095936
I0410 02:30:53.372458 12504 layer_factory.hpp:77] Creating layer conv2_sTanH
I0410 02:30:53.372469 12504 net.cpp:100] Creating Layer conv2_sTanH
I0410 02:30:53.372473 12504 net.cpp:434] conv2_sTanH <- conv2
I0410 02:30:53.372481 12504 net.cpp:395] conv2_sTanH -> conv2 (in-place)
I0410 02:30:53.379577 12504 net.cpp:150] Setting up conv2_sTanH
I0410 02:30:53.379596 12504 net.cpp:157] Top shape: 1024 150 18 18 (49766400)
I0410 02:30:53.379601 12504 net.cpp:165] Memory required for data: 2052161536
I0410 02:30:53.379604 12504 layer_factory.hpp:77] Creating layer pool2
I0410 02:30:53.379614 12504 net.cpp:100] Creating Layer pool2
I0410 02:30:53.379621 12504 net.cpp:434] pool2 <- conv2
I0410 02:30:53.379627 12504 net.cpp:408] pool2 -> pool2
I0410 02:30:53.379688 12504 net.cpp:150] Setting up pool2
I0410 02:30:53.379698 12504 net.cpp:157] Top shape: 1024 150 9 9 (12441600)
I0410 02:30:53.379701 12504 net.cpp:165] Memory required for data: 2101927936
I0410 02:30:53.379704 12504 layer_factory.hpp:77] Creating layer conv3
I0410 02:30:53.379717 12504 net.cpp:100] Creating Layer conv3
I0410 02:30:53.379724 12504 net.cpp:434] conv3 <- pool2
I0410 02:30:53.379731 12504 net.cpp:408] conv3 -> conv3
I0410 02:30:53.385618 12504 net.cpp:150] Setting up conv3
I0410 02:30:53.385637 12504 net.cpp:157] Top shape: 1024 250 6 6 (9216000)
I0410 02:30:53.385640 12504 net.cpp:165] Memory required for data: 2138791936
I0410 02:30:53.385650 12504 layer_factory.hpp:77] Creating layer conv3_sTanH
I0410 02:30:53.385660 12504 net.cpp:100] Creating Layer conv3_sTanH
I0410 02:30:53.385666 12504 net.cpp:434] conv3_sTanH <- conv3
I0410 02:30:53.385673 12504 net.cpp:395] conv3_sTanH -> conv3 (in-place)
I0410 02:30:53.386456 12504 net.cpp:150] Setting up conv3_sTanH
I0410 02:30:53.386472 12504 net.cpp:157] Top shape: 1024 250 6 6 (9216000)
I0410 02:30:53.386495 12504 net.cpp:165] Memory required for data: 2175655936
I0410 02:30:53.386500 12504 layer_factory.hpp:77] Creating layer pool3
I0410 02:30:53.386507 12504 net.cpp:100] Creating Layer pool3
I0410 02:30:53.386512 12504 net.cpp:434] pool3 <- conv3
I0410 02:30:53.386519 12504 net.cpp:408] pool3 -> pool3
I0410 02:30:53.386579 12504 net.cpp:150] Setting up pool3
I0410 02:30:53.386589 12504 net.cpp:157] Top shape: 1024 250 3 3 (2304000)
I0410 02:30:53.386591 12504 net.cpp:165] Memory required for data: 2184871936
I0410 02:30:53.386595 12504 layer_factory.hpp:77] Creating layer fc4_300
I0410 02:30:53.386603 12504 net.cpp:100] Creating Layer fc4_300
I0410 02:30:53.386607 12504 net.cpp:434] fc4_300 <- pool3
I0410 02:30:53.386612 12504 net.cpp:408] fc4_300 -> fc4_300
I0410 02:30:53.392069 12504 net.cpp:150] Setting up fc4_300
I0410 02:30:53.392086 12504 net.cpp:157] Top shape: 1024 300 (307200)
I0410 02:30:53.392091 12504 net.cpp:165] Memory required for data: 2186100736
I0410 02:30:53.392097 12504 layer_factory.hpp:77] Creating layer fc4_sTanH
I0410 02:30:53.392105 12504 net.cpp:100] Creating Layer fc4_sTanH
I0410 02:30:53.392109 12504 net.cpp:434] fc4_sTanH <- fc4_300
I0410 02:30:53.392115 12504 net.cpp:395] fc4_sTanH -> fc4_300 (in-place)
I0410 02:30:53.392314 12504 net.cpp:150] Setting up fc4_sTanH
I0410 02:30:53.392326 12504 net.cpp:157] Top shape: 1024 300 (307200)
I0410 02:30:53.392329 12504 net.cpp:165] Memory required for data: 2187329536
I0410 02:30:53.392333 12504 layer_factory.hpp:77] Creating layer drop4
I0410 02:30:53.392343 12504 net.cpp:100] Creating Layer drop4
I0410 02:30:53.392348 12504 net.cpp:434] drop4 <- fc4_300
I0410 02:30:53.392352 12504 net.cpp:395] drop4 -> fc4_300 (in-place)
I0410 02:30:53.392383 12504 net.cpp:150] Setting up drop4
I0410 02:30:53.392391 12504 net.cpp:157] Top shape: 1024 300 (307200)
I0410 02:30:53.392395 12504 net.cpp:165] Memory required for data: 2188558336
I0410 02:30:53.392397 12504 layer_factory.hpp:77] Creating layer fc5_67
I0410 02:30:53.392403 12504 net.cpp:100] Creating Layer fc5_67
I0410 02:30:53.392407 12504 net.cpp:434] fc5_67 <- fc4_300
I0410 02:30:53.392416 12504 net.cpp:408] fc5_67 -> fc5_classes
I0410 02:30:53.392678 12504 net.cpp:150] Setting up fc5_67
I0410 02:30:53.392686 12504 net.cpp:157] Top shape: 1024 67 (68608)
I0410 02:30:53.392689 12504 net.cpp:165] Memory required for data: 2188832768
I0410 02:30:53.392699 12504 layer_factory.hpp:77] Creating layer fc5_classes_fc5_67_0_split
I0410 02:30:53.392706 12504 net.cpp:100] Creating Layer fc5_classes_fc5_67_0_split
I0410 02:30:53.392710 12504 net.cpp:434] fc5_classes_fc5_67_0_split <- fc5_classes
I0410 02:30:53.392716 12504 net.cpp:408] fc5_classes_fc5_67_0_split -> fc5_classes_fc5_67_0_split_0
I0410 02:30:53.392724 12504 net.cpp:408] fc5_classes_fc5_67_0_split -> fc5_classes_fc5_67_0_split_1
I0410 02:30:53.392731 12504 net.cpp:408] fc5_classes_fc5_67_0_split -> fc5_classes_fc5_67_0_split_2
I0410 02:30:53.392786 12504 net.cpp:150] Setting up fc5_classes_fc5_67_0_split
I0410 02:30:53.392793 12504 net.cpp:157] Top shape: 1024 67 (68608)
I0410 02:30:53.392796 12504 net.cpp:157] Top shape: 1024 67 (68608)
I0410 02:30:53.392799 12504 net.cpp:157] Top shape: 1024 67 (68608)
I0410 02:30:53.392802 12504 net.cpp:165] Memory required for data: 2189656064
I0410 02:30:53.392805 12504 layer_factory.hpp:77] Creating layer loss
I0410 02:30:53.392813 12504 net.cpp:100] Creating Layer loss
I0410 02:30:53.392818 12504 net.cpp:434] loss <- fc5_classes_fc5_67_0_split_0
I0410 02:30:53.392823 12504 net.cpp:434] loss <- label_data_1_split_0
I0410 02:30:53.392828 12504 net.cpp:408] loss -> loss
…
