…
I0409 07:59:12.814790  5125 net.cpp:322] The NetState phase (0) differed from the phase (1) specified by a rule in layer accuracy_5
I0409 07:59:12.814980  5125 net.cpp:58] Initializing net from parameters: 
state {
  phase: TRAIN
  level: 0
  stage: ""
}
layer {
  name: "data"
  type: "Data"
  top: "data"
  top: "label"
  include {
    phase: TRAIN
  }
  transform_param {
    mirror: false
    crop_size: 48
    mean_value: 132
    mean_value: 126
    mean_value: 140
  }
  data_param {
    source: "../local_data/lmdb/rtsd-r1/AHE/train/lmdb"
    batch_size: 1024
    backend: LMDB
  }
}
layer {
  name: "conv1"
  type: "Convolution"
  bottom: "data"
  top: "conv1"
  convolution_param {
    num_output: 100
    pad: 0
    kernel_size: 7
    group: 1
    stride: 1
    weight_filler {
      type: "xavier"
    }
  }
}
layer {
  name: "conv1_relu"
  type: "ReLU"
  bottom: "conv1"
  top: "conv1"
}
layer {
  name: "pool1"
  type: "Pooling"
  bottom: "conv1"
  top: "pool1"
  pooling_param {
    pool: MAX
    kernel_size: 2
    stride: 2
  }
}
layer {
  name: "conv2"
  type: "Convolution"
  bottom: "pool1"
  top: "conv2"
  convolution_param {
    num_output: 150
    pad: 0
    kernel_size: 4
    group: 1
    stride: 1
    weight_filler {
      type: "xavier"
    }
  }
}
layer {
  name: "conv2_relu"
  type: "ReLU"
  bottom: "conv2"
  top: "conv2"
}
layer {
  name: "pool2"
  type: "Pooling"
  bottom: "conv2"
  top: "pool2"
  pooling_param {
    pool: MAX
    kernel_size: 2
    stride: 2
  }
}
layer {
  name: "conv3"
  type: "Convolution"
  bottom: "pool2"
  top: "conv3"
  convolution_param {
    num_output: 250
    pad: 0
    kernel_size: 4
    group: 1
    stride: 1
    weight_filler {
      type: "xavier"
    }
  }
}
layer {
  name: "conv3_relu"
  type: "ReLU"
  bottom: "conv3"
  top: "conv3"
}
layer {
  name: "pool3"
  type: "Pooling"
  bottom: "conv3"
  top: "pool3"
  pooling_param {
    pool: MAX
    kernel_size: 2
    stride: 2
  }
}
layer {
  name: "fc4_300"
  type: "InnerProduct"
  bottom: "pool3"
  top: "fc4_300"
  inner_product_param {
    num_output: 300
    weight_filler {
      type: "xavier"
    }
  }
}
layer {
  name: "fc4_relu"
  type: "ReLU"
  bottom: "fc4_300"
  top: "fc4_300"
}
layer {
  name: "drop4"
  type: "Dropout"
  bottom: "fc4_300"
  top: "fc4_300"
  dropout_param {
    dropout_ratio: 0.4
  }
}
layer {
  name: "fc5_67"
  type: "InnerProduct"
  bottom: "fc4_300"
  top: "fc5_classes"
  inner_product_param {
    num_output: 67
    weight_filler {
      type: "xavier"
    }
  }
}
layer {
  name: "loss"
  type: "SoftmaxWithLoss"
  bottom: "fc5_classes"
  bottom: "label"
  top: "loss"
}
I0409 07:59:12.815115  5125 layer_factory.hpp:77] Creating layer data
I0409 07:59:12.817185  5125 net.cpp:100] Creating Layer data
I0409 07:59:12.817214  5125 net.cpp:408] data -> data
I0409 07:59:12.817260  5125 net.cpp:408] data -> label
I0409 07:59:12.818663  5193 db_lmdb.cpp:35] Opened lmdb ../local_data/lmdb/rtsd-r1/AHE/train/lmdb
I0409 07:59:12.848136  5125 data_layer.cpp:41] output data size: 1024,3,48,48
I0409 07:59:12.916944  5125 net.cpp:150] Setting up data
I0409 07:59:12.916985  5125 net.cpp:157] Top shape: 1024 3 48 48 (7077888)
I0409 07:59:12.916997  5125 net.cpp:157] Top shape: 1024 (1024)
I0409 07:59:12.917040  5125 net.cpp:165] Memory required for data: 28315648
I0409 07:59:12.917057  5125 layer_factory.hpp:77] Creating layer conv1
I0409 07:59:12.917088  5125 net.cpp:100] Creating Layer conv1
I0409 07:59:12.917096  5125 net.cpp:434] conv1 <- data
I0409 07:59:12.917114  5125 net.cpp:408] conv1 -> conv1
I0409 07:59:13.206925  5125 net.cpp:150] Setting up conv1
I0409 07:59:13.206956  5125 net.cpp:157] Top shape: 1024 100 42 42 (180633600)
I0409 07:59:13.206960  5125 net.cpp:165] Memory required for data: 750850048
I0409 07:59:13.206984  5125 layer_factory.hpp:77] Creating layer conv1_relu
I0409 07:59:13.206998  5125 net.cpp:100] Creating Layer conv1_relu
I0409 07:59:13.207005  5125 net.cpp:434] conv1_relu <- conv1
I0409 07:59:13.207010  5125 net.cpp:395] conv1_relu -> conv1 (in-place)
I0409 07:59:13.207204  5125 net.cpp:150] Setting up conv1_relu
I0409 07:59:13.207217  5125 net.cpp:157] Top shape: 1024 100 42 42 (180633600)
I0409 07:59:13.207221  5125 net.cpp:165] Memory required for data: 1473384448
I0409 07:59:13.207223  5125 layer_factory.hpp:77] Creating layer pool1
I0409 07:59:13.207231  5125 net.cpp:100] Creating Layer pool1
I0409 07:59:13.207237  5125 net.cpp:434] pool1 <- conv1
I0409 07:59:13.207242  5125 net.cpp:408] pool1 -> pool1
I0409 07:59:13.207294  5125 net.cpp:150] Setting up pool1
I0409 07:59:13.207304  5125 net.cpp:157] Top shape: 1024 100 21 21 (45158400)
I0409 07:59:13.207307  5125 net.cpp:165] Memory required for data: 1654018048
I0409 07:59:13.207311  5125 layer_factory.hpp:77] Creating layer conv2
I0409 07:59:13.207322  5125 net.cpp:100] Creating Layer conv2
I0409 07:59:13.207327  5125 net.cpp:434] conv2 <- pool1
I0409 07:59:13.207332  5125 net.cpp:408] conv2 -> conv2
I0409 07:59:13.211640  5125 net.cpp:150] Setting up conv2
I0409 07:59:13.211659  5125 net.cpp:157] Top shape: 1024 150 18 18 (49766400)
I0409 07:59:13.211664  5125 net.cpp:165] Memory required for data: 1853083648
I0409 07:59:13.211674  5125 layer_factory.hpp:77] Creating layer conv2_relu
I0409 07:59:13.211683  5125 net.cpp:100] Creating Layer conv2_relu
I0409 07:59:13.211686  5125 net.cpp:434] conv2_relu <- conv2
I0409 07:59:13.211691  5125 net.cpp:395] conv2_relu -> conv2 (in-place)
I0409 07:59:13.212446  5125 net.cpp:150] Setting up conv2_relu
I0409 07:59:13.212465  5125 net.cpp:157] Top shape: 1024 150 18 18 (49766400)
I0409 07:59:13.212468  5125 net.cpp:165] Memory required for data: 2052149248
I0409 07:59:13.212472  5125 layer_factory.hpp:77] Creating layer pool2
I0409 07:59:13.212479  5125 net.cpp:100] Creating Layer pool2
I0409 07:59:13.212482  5125 net.cpp:434] pool2 <- conv2
I0409 07:59:13.212489  5125 net.cpp:408] pool2 -> pool2
I0409 07:59:13.212535  5125 net.cpp:150] Setting up pool2
I0409 07:59:13.212543  5125 net.cpp:157] Top shape: 1024 150 9 9 (12441600)
I0409 07:59:13.212546  5125 net.cpp:165] Memory required for data: 2101915648
I0409 07:59:13.212549  5125 layer_factory.hpp:77] Creating layer conv3
I0409 07:59:13.212558  5125 net.cpp:100] Creating Layer conv3
I0409 07:59:13.212561  5125 net.cpp:434] conv3 <- pool2
I0409 07:59:13.212566  5125 net.cpp:408] conv3 -> conv3
I0409 07:59:13.218003  5125 net.cpp:150] Setting up conv3
I0409 07:59:13.218020  5125 net.cpp:157] Top shape: 1024 250 6 6 (9216000)
I0409 07:59:13.218024  5125 net.cpp:165] Memory required for data: 2138779648
I0409 07:59:13.218034  5125 layer_factory.hpp:77] Creating layer conv3_relu
I0409 07:59:13.218044  5125 net.cpp:100] Creating Layer conv3_relu
I0409 07:59:13.218047  5125 net.cpp:434] conv3_relu <- conv3
I0409 07:59:13.218052  5125 net.cpp:395] conv3_relu -> conv3 (in-place)
I0409 07:59:13.218806  5125 net.cpp:150] Setting up conv3_relu
I0409 07:59:13.218823  5125 net.cpp:157] Top shape: 1024 250 6 6 (9216000)
I0409 07:59:13.218827  5125 net.cpp:165] Memory required for data: 2175643648
I0409 07:59:13.218832  5125 layer_factory.hpp:77] Creating layer pool3
I0409 07:59:13.218838  5125 net.cpp:100] Creating Layer pool3
I0409 07:59:13.218842  5125 net.cpp:434] pool3 <- conv3
I0409 07:59:13.218847  5125 net.cpp:408] pool3 -> pool3
I0409 07:59:13.218915  5125 net.cpp:150] Setting up pool3
I0409 07:59:13.218925  5125 net.cpp:157] Top shape: 1024 250 3 3 (2304000)
I0409 07:59:13.218928  5125 net.cpp:165] Memory required for data: 2184859648
I0409 07:59:13.218932  5125 layer_factory.hpp:77] Creating layer fc4_300
I0409 07:59:13.218940  5125 net.cpp:100] Creating Layer fc4_300
I0409 07:59:13.218943  5125 net.cpp:434] fc4_300 <- pool3
I0409 07:59:13.218948  5125 net.cpp:408] fc4_300 -> fc4_300
I0409 07:59:13.224303  5125 net.cpp:150] Setting up fc4_300
I0409 07:59:13.224321  5125 net.cpp:157] Top shape: 1024 300 (307200)
I0409 07:59:13.224325  5125 net.cpp:165] Memory required for data: 2186088448
I0409 07:59:13.224333  5125 layer_factory.hpp:77] Creating layer fc4_relu
I0409 07:59:13.224339  5125 net.cpp:100] Creating Layer fc4_relu
I0409 07:59:13.224345  5125 net.cpp:434] fc4_relu <- fc4_300
I0409 07:59:13.224350  5125 net.cpp:395] fc4_relu -> fc4_300 (in-place)
I0409 07:59:13.224531  5125 net.cpp:150] Setting up fc4_relu
I0409 07:59:13.224542  5125 net.cpp:157] Top shape: 1024 300 (307200)
I0409 07:59:13.224546  5125 net.cpp:165] Memory required for data: 2187317248
I0409 07:59:13.224550  5125 layer_factory.hpp:77] Creating layer drop4
I0409 07:59:13.224556  5125 net.cpp:100] Creating Layer drop4
I0409 07:59:13.224562  5125 net.cpp:434] drop4 <- fc4_300
I0409 07:59:13.224566  5125 net.cpp:395] drop4 -> fc4_300 (in-place)
I0409 07:59:13.224598  5125 net.cpp:150] Setting up drop4
I0409 07:59:13.224606  5125 net.cpp:157] Top shape: 1024 300 (307200)
I0409 07:59:13.224608  5125 net.cpp:165] Memory required for data: 2188546048
I0409 07:59:13.224611  5125 layer_factory.hpp:77] Creating layer fc5_67
I0409 07:59:13.224617  5125 net.cpp:100] Creating Layer fc5_67
I0409 07:59:13.224620  5125 net.cpp:434] fc5_67 <- fc4_300
I0409 07:59:13.224625  5125 net.cpp:408] fc5_67 -> fc5_classes
I0409 07:59:13.225824  5125 net.cpp:150] Setting up fc5_67
I0409 07:59:13.225841  5125 net.cpp:157] Top shape: 1024 67 (68608)
I0409 07:59:13.225844  5125 net.cpp:165] Memory required for data: 2188820480
I0409 07:59:13.225854  5125 layer_factory.hpp:77] Creating layer loss
I0409 07:59:13.225863  5125 net.cpp:100] Creating Layer loss
I0409 07:59:13.225867  5125 net.cpp:434] loss <- fc5_classes
I0409 07:59:13.225872  5125 net.cpp:434] loss <- label
I0409 07:59:13.225878  5125 net.cpp:408] loss -> loss
I0409 07:59:13.225889  5125 layer_factory.hpp:77] Creating layer loss
…
I0409 07:59:13.226518  5125 solver.cpp:193] Creating test net (#0) specified by test_net file: ./Prototxt/experiment_6/rtsd-r1/AHE/trial_4/test.prototxt
I0409 07:59:13.226662  5125 net.cpp:58] Initializing net from parameters: 
state {
  phase: TEST
}
layer {
  name: "data"
  type: "Data"
  top: "data"
  top: "label"
  include {
    phase: TEST
  }
  transform_param {
    mirror: false
    crop_size: 48
    mean_value: 126
    mean_value: 124
    mean_value: 145
  }
  data_param {
    source: "../local_data/lmdb/rtsd-r1/AHE/test/lmdb"
    batch_size: 1024
    backend: LMDB
  }
}
layer {
  name: "conv1"
  type: "Convolution"
  bottom: "data"
  top: "conv1"
  convolution_param {
    num_output: 100
    pad: 0
    kernel_size: 7
    group: 1
    stride: 1
    weight_filler {
      type: "xavier"
    }
  }
}
layer {
  name: "conv1_relu"
  type: "ReLU"
  bottom: "conv1"
  top: "conv1"
}
layer {
  name: "pool1"
  type: "Pooling"
  bottom: "conv1"
  top: "pool1"
  pooling_param {
    pool: MAX
    kernel_size: 2
    stride: 2
  }
}
layer {
  name: "conv2"
  type: "Convolution"
  bottom: "pool1"
  top: "conv2"
  convolution_param {
    num_output: 150
    pad: 0
    kernel_size: 4
    group: 1
    stride: 1
    weight_filler {
      type: "xavier"
    }
  }
}
layer {
  name: "conv2_relu"
  type: "ReLU"
  bottom: "conv2"
  top: "conv2"
}
layer {
  name: "pool2"
  type: "Pooling"
  bottom: "conv2"
  top: "pool2"
  pooling_param {
    pool: MAX
    kernel_size: 2
    stride: 2
  }
}
layer {
  name: "conv3"
  type: "Convolution"
  bottom: "pool2"
  top: "conv3"
  convolution_param {
    num_output: 250
    pad: 0
    kernel_size: 4
    group: 1
    stride: 1
    weight_filler {
      type: "xavier"
    }
  }
}
layer {
  name: "conv3_relu"
  type: "ReLU"
  bottom: "conv3"
  top: "conv3"
}
layer {
  name: "pool3"
  type: "Pooling"
  bottom: "conv3"
  top: "pool3"
  pooling_param {
    pool: MAX
    kernel_size: 2
    stride: 2
  }
}
layer {
  name: "fc4_300"
  type: "InnerProduct"
  bottom: "pool3"
  top: "fc4_300"
  inner_product_param {
    num_output: 300
    weight_filler {
      type: "xavier"
    }
  }
}
layer {
  name: "fc4_relu"
  type: "ReLU"
  bottom: "fc4_300"
  top: "fc4_300"
}
layer {
  name: "drop4"
  type: "Dropout"
  bottom: "fc4_300"
  top: "fc4_300"
  dropout_param {
    dropout_ratio: 0.4
  }
}
layer {
  name: "fc5_67"
  type: "InnerProduct"
  bottom: "fc4_300"
  top: "fc5_classes"
  inner_product_param {
    num_output: 67
    weight_filler {
      type: "xavier"
    }
  }
}
layer {
  name: "loss"
  type: "SoftmaxWithLoss"
  bottom: "fc5_classes"
  bottom: "label"
  top: "loss"
}
layer {
  name: "accuracy_1"
  type: "Accuracy"
  bottom: "fc5_classes"
  bottom: "label"
  top: "accuracy_1"
  include {
    phase: TEST
  }
  accuracy_param {
    top_k: 1
  }
}
layer {
  name: "accuracy_5"
  type: "Accuracy"
  bottom: "fc5_classes"
  bottom: "label"
  top: "accuracy_5"
  include {
    phase: TEST
  }
  accuracy_param {
    top_k: 5
  }
}
I0409 07:59:13.226745  5125 layer_factory.hpp:77] Creating layer data
I0409 07:59:13.227332  5125 net.cpp:100] Creating Layer data
I0409 07:59:13.227344  5125 net.cpp:408] data -> data
I0409 07:59:13.227354  5125 net.cpp:408] data -> label
I0409 07:59:13.228554  5204 db_lmdb.cpp:35] Opened lmdb ../local_data/lmdb/rtsd-r1/AHE/test/lmdb
I0409 07:59:13.228801  5125 data_layer.cpp:41] output data size: 1024,3,48,48
I0409 07:59:13.269668  5125 net.cpp:150] Setting up data
I0409 07:59:13.269700  5125 net.cpp:157] Top shape: 1024 3 48 48 (7077888)
I0409 07:59:13.269706  5125 net.cpp:157] Top shape: 1024 (1024)
I0409 07:59:13.269708  5125 net.cpp:165] Memory required for data: 28315648
I0409 07:59:13.269714  5125 layer_factory.hpp:77] Creating layer label_data_1_split
I0409 07:59:13.269731  5125 net.cpp:100] Creating Layer label_data_1_split
I0409 07:59:13.269737  5125 net.cpp:434] label_data_1_split <- label
I0409 07:59:13.269744  5125 net.cpp:408] label_data_1_split -> label_data_1_split_0
I0409 07:59:13.269755  5125 net.cpp:408] label_data_1_split -> label_data_1_split_1
I0409 07:59:13.269762  5125 net.cpp:408] label_data_1_split -> label_data_1_split_2
I0409 07:59:13.269924  5125 net.cpp:150] Setting up label_data_1_split
I0409 07:59:13.269935  5125 net.cpp:157] Top shape: 1024 (1024)
I0409 07:59:13.269939  5125 net.cpp:157] Top shape: 1024 (1024)
I0409 07:59:13.269943  5125 net.cpp:157] Top shape: 1024 (1024)
I0409 07:59:13.269945  5125 net.cpp:165] Memory required for data: 28327936
I0409 07:59:13.269949  5125 layer_factory.hpp:77] Creating layer conv1
I0409 07:59:13.269963  5125 net.cpp:100] Creating Layer conv1
I0409 07:59:13.269968  5125 net.cpp:434] conv1 <- data
I0409 07:59:13.269973  5125 net.cpp:408] conv1 -> conv1
I0409 07:59:13.273787  5125 net.cpp:150] Setting up conv1
I0409 07:59:13.273807  5125 net.cpp:157] Top shape: 1024 100 42 42 (180633600)
I0409 07:59:13.273816  5125 net.cpp:165] Memory required for data: 750862336
I0409 07:59:13.273830  5125 layer_factory.hpp:77] Creating layer conv1_relu
I0409 07:59:13.273839  5125 net.cpp:100] Creating Layer conv1_relu
I0409 07:59:13.273844  5125 net.cpp:434] conv1_relu <- conv1
I0409 07:59:13.273849  5125 net.cpp:395] conv1_relu -> conv1 (in-place)
I0409 07:59:13.274027  5125 net.cpp:150] Setting up conv1_relu
I0409 07:59:13.274039  5125 net.cpp:157] Top shape: 1024 100 42 42 (180633600)
I0409 07:59:13.274046  5125 net.cpp:165] Memory required for data: 1473396736
I0409 07:59:13.274050  5125 layer_factory.hpp:77] Creating layer pool1
I0409 07:59:13.274058  5125 net.cpp:100] Creating Layer pool1
I0409 07:59:13.274063  5125 net.cpp:434] pool1 <- conv1
I0409 07:59:13.274068  5125 net.cpp:408] pool1 -> pool1
I0409 07:59:13.274118  5125 net.cpp:150] Setting up pool1
I0409 07:59:13.274127  5125 net.cpp:157] Top shape: 1024 100 21 21 (45158400)
I0409 07:59:13.274129  5125 net.cpp:165] Memory required for data: 1654030336
I0409 07:59:13.274133  5125 layer_factory.hpp:77] Creating layer conv2
I0409 07:59:13.274142  5125 net.cpp:100] Creating Layer conv2
I0409 07:59:13.274147  5125 net.cpp:434] conv2 <- pool1
I0409 07:59:13.274152  5125 net.cpp:408] conv2 -> conv2
I0409 07:59:13.278010  5125 net.cpp:150] Setting up conv2
I0409 07:59:13.278029  5125 net.cpp:157] Top shape: 1024 150 18 18 (49766400)
I0409 07:59:13.278034  5125 net.cpp:165] Memory required for data: 1853095936
I0409 07:59:13.278044  5125 layer_factory.hpp:77] Creating layer conv2_relu
I0409 07:59:13.278053  5125 net.cpp:100] Creating Layer conv2_relu
I0409 07:59:13.278057  5125 net.cpp:434] conv2_relu <- conv2
I0409 07:59:13.278062  5125 net.cpp:395] conv2_relu -> conv2 (in-place)
I0409 07:59:13.278836  5125 net.cpp:150] Setting up conv2_relu
I0409 07:59:13.278856  5125 net.cpp:157] Top shape: 1024 150 18 18 (49766400)
I0409 07:59:13.278859  5125 net.cpp:165] Memory required for data: 2052161536
I0409 07:59:13.278863  5125 layer_factory.hpp:77] Creating layer pool2
I0409 07:59:13.278869  5125 net.cpp:100] Creating Layer pool2
I0409 07:59:13.278874  5125 net.cpp:434] pool2 <- conv2
I0409 07:59:13.278879  5125 net.cpp:408] pool2 -> pool2
I0409 07:59:13.278930  5125 net.cpp:150] Setting up pool2
I0409 07:59:13.278939  5125 net.cpp:157] Top shape: 1024 150 9 9 (12441600)
I0409 07:59:13.278942  5125 net.cpp:165] Memory required for data: 2101927936
I0409 07:59:13.278945  5125 layer_factory.hpp:77] Creating layer conv3
I0409 07:59:13.278964  5125 net.cpp:100] Creating Layer conv3
I0409 07:59:13.278970  5125 net.cpp:434] conv3 <- pool2
I0409 07:59:13.278975  5125 net.cpp:408] conv3 -> conv3
I0409 07:59:13.284494  5125 net.cpp:150] Setting up conv3
I0409 07:59:13.284518  5125 net.cpp:157] Top shape: 1024 250 6 6 (9216000)
I0409 07:59:13.284521  5125 net.cpp:165] Memory required for data: 2138791936
I0409 07:59:13.284533  5125 layer_factory.hpp:77] Creating layer conv3_relu
I0409 07:59:13.284543  5125 net.cpp:100] Creating Layer conv3_relu
I0409 07:59:13.284546  5125 net.cpp:434] conv3_relu <- conv3
I0409 07:59:13.284551  5125 net.cpp:395] conv3_relu -> conv3 (in-place)
I0409 07:59:13.285320  5125 net.cpp:150] Setting up conv3_relu
I0409 07:59:13.285337  5125 net.cpp:157] Top shape: 1024 250 6 6 (9216000)
I0409 07:59:13.285341  5125 net.cpp:165] Memory required for data: 2175655936
I0409 07:59:13.285364  5125 layer_factory.hpp:77] Creating layer pool3
I0409 07:59:13.285372  5125 net.cpp:100] Creating Layer pool3
I0409 07:59:13.285377  5125 net.cpp:434] pool3 <- conv3
I0409 07:59:13.285382  5125 net.cpp:408] pool3 -> pool3
I0409 07:59:13.285444  5125 net.cpp:150] Setting up pool3
I0409 07:59:13.285452  5125 net.cpp:157] Top shape: 1024 250 3 3 (2304000)
I0409 07:59:13.285455  5125 net.cpp:165] Memory required for data: 2184871936
I0409 07:59:13.285459  5125 layer_factory.hpp:77] Creating layer fc4_300
I0409 07:59:13.285465  5125 net.cpp:100] Creating Layer fc4_300
I0409 07:59:13.285470  5125 net.cpp:434] fc4_300 <- pool3
I0409 07:59:13.285475  5125 net.cpp:408] fc4_300 -> fc4_300
I0409 07:59:13.290849  5125 net.cpp:150] Setting up fc4_300
I0409 07:59:13.290868  5125 net.cpp:157] Top shape: 1024 300 (307200)
I0409 07:59:13.290871  5125 net.cpp:165] Memory required for data: 2186100736
I0409 07:59:13.290879  5125 layer_factory.hpp:77] Creating layer fc4_relu
I0409 07:59:13.290887  5125 net.cpp:100] Creating Layer fc4_relu
I0409 07:59:13.290891  5125 net.cpp:434] fc4_relu <- fc4_300
I0409 07:59:13.290896  5125 net.cpp:395] fc4_relu -> fc4_300 (in-place)
I0409 07:59:13.291079  5125 net.cpp:150] Setting up fc4_relu
I0409 07:59:13.291090  5125 net.cpp:157] Top shape: 1024 300 (307200)
I0409 07:59:13.291093  5125 net.cpp:165] Memory required for data: 2187329536
I0409 07:59:13.291096  5125 layer_factory.hpp:77] Creating layer drop4
I0409 07:59:13.291103  5125 net.cpp:100] Creating Layer drop4
I0409 07:59:13.291106  5125 net.cpp:434] drop4 <- fc4_300
I0409 07:59:13.291111  5125 net.cpp:395] drop4 -> fc4_300 (in-place)
I0409 07:59:13.291141  5125 net.cpp:150] Setting up drop4
I0409 07:59:13.291147  5125 net.cpp:157] Top shape: 1024 300 (307200)
I0409 07:59:13.291151  5125 net.cpp:165] Memory required for data: 2188558336
I0409 07:59:13.291153  5125 layer_factory.hpp:77] Creating layer fc5_67
I0409 07:59:13.291159  5125 net.cpp:100] Creating Layer fc5_67
I0409 07:59:13.291162  5125 net.cpp:434] fc5_67 <- fc4_300
I0409 07:59:13.291167  5125 net.cpp:408] fc5_67 -> fc5_classes
I0409 07:59:13.291414  5125 net.cpp:150] Setting up fc5_67
I0409 07:59:13.291422  5125 net.cpp:157] Top shape: 1024 67 (68608)
I0409 07:59:13.291425  5125 net.cpp:165] Memory required for data: 2188832768
I0409 07:59:13.291435  5125 layer_factory.hpp:77] Creating layer fc5_classes_fc5_67_0_split
I0409 07:59:13.291443  5125 net.cpp:100] Creating Layer fc5_classes_fc5_67_0_split
I0409 07:59:13.291446  5125 net.cpp:434] fc5_classes_fc5_67_0_split <- fc5_classes
I0409 07:59:13.291451  5125 net.cpp:408] fc5_classes_fc5_67_0_split -> fc5_classes_fc5_67_0_split_0
I0409 07:59:13.291458  5125 net.cpp:408] fc5_classes_fc5_67_0_split -> fc5_classes_fc5_67_0_split_1
I0409 07:59:13.291465  5125 net.cpp:408] fc5_classes_fc5_67_0_split -> fc5_classes_fc5_67_0_split_2
I0409 07:59:13.291513  5125 net.cpp:150] Setting up fc5_classes_fc5_67_0_split
I0409 07:59:13.291520  5125 net.cpp:157] Top shape: 1024 67 (68608)
I0409 07:59:13.291524  5125 net.cpp:157] Top shape: 1024 67 (68608)
I0409 07:59:13.291527  5125 net.cpp:157] Top shape: 1024 67 (68608)
I0409 07:59:13.291529  5125 net.cpp:165] Memory required for data: 2189656064
I0409 07:59:13.291532  5125 layer_factory.hpp:77] Creating layer loss
I0409 07:59:13.291541  5125 net.cpp:100] Creating Layer loss
I0409 07:59:13.291546  5125 net.cpp:434] loss <- fc5_classes_fc5_67_0_split_0
I0409 07:59:13.291551  5125 net.cpp:434] loss <- label_data_1_split_0
I0409 07:59:13.291556  5125 net.cpp:408] loss -> loss
…
