…
I0414 05:35:48.748543  1965 solver.cpp:93] Creating training net from train_net file: ./Prototxt/experiment_10/rtsd-r1/AHE/trial_1/train.prototxt
I0414 05:35:48.748891  1965 net.cpp:58] Initializing net from parameters: 
state {
  phase: TRAIN
  level: 0
  stage: ""
}
layer {
  name: "data"
  type: "Data"
  top: "data"
  top: "label"
  include {
    phase: TRAIN
  }
  transform_param {
    scale: 0.0039215689
    mirror: false
    crop_size: 48
    mean_value: 132
    mean_value: 126
    mean_value: 140
  }
  data_param {
    source: "../local_data/lmdb/rtsd-r1/AHE/train/lmdb"
    batch_size: 1024
    backend: LMDB
  }
}
layer {
  name: "conv1"
  type: "Convolution"
  bottom: "data"
  top: "conv1"
  convolution_param {
    num_output: 100
    pad: 0
    kernel_size: 7
    group: 1
    stride: 1
    weight_filler {
      type: "xavier"
    }
  }
}
layer {
  name: "conv1_relu"
  type: "ReLU"
  bottom: "conv1"
  top: "conv1"
}
layer {
  name: "pool1"
  type: "Pooling"
  bottom: "conv1"
  top: "pool1"
  pooling_param {
    pool: MAX
    kernel_size: 2
    stride: 2
  }
}
layer {
  name: "conv2"
  type: "Convolution"
  bottom: "pool1"
  top: "conv2"
  convolution_param {
    num_output: 150
    pad: 0
    kernel_size: 4
    group: 1
    stride: 1
    weight_filler {
      type: "xavier"
    }
  }
}
layer {
  name: "conv2_relu"
  type: "ReLU"
  bottom: "conv2"
  top: "conv2"
}
layer {
  name: "pool2"
  type: "Pooling"
  bottom: "conv2"
  top: "pool2"
  pooling_param {
    pool: MAX
    kernel_size: 2
    stride: 2
  }
}
layer {
  name: "conv3"
  type: "Convolution"
  bottom: "pool2"
  top: "conv3"
  convolution_param {
    num_output: 250
    pad: 0
    kernel_size: 4
    group: 1
    stride: 1
    weight_filler {
      type: "xavier"
    }
  }
}
layer {
  name: "conv3_relu"
  type: "ReLU"
  bottom: "conv3"
  top: "conv3"
}
layer {
  name: "pool3"
  type: "Pooling"
  bottom: "conv3"
  top: "pool3"
  pooling_param {
    pool: MAX
    kernel_size: 2
    stride: 2
  }
}
layer {
  name: "fc4_300"
  type: "InnerProduct"
  bottom: "pool3"
  top: "fc4_300"
  inner_product_param {
    num_output: 300
    weight_filler {
      type: "xavier"
    }
  }
}
layer {
  name: "fc4_relu"
  type: "ReLU"
  bottom: "fc4_300"
  top: "fc4_300"
}
layer {
  name: "fc5_67"
  type: "InnerProduct"
  bottom: "fc4_300"
  top: "fc5_classes"
  inner_product_param {
    num_output: 67
    weight_filler {
      type: "xavier"
    }
  }
}
layer {
  name: "softmax"
  type: "Softmax"
  bottom: "fc5_classes"
  top: "softmax"
}
layer {
  name: "loss"
  type: "MultinomialLogisticLoss"
  bottom: "softmax"
  bottom: "label"
  top: "loss"
}
layer {
  name: "accuracy_1"
  type: "Accuracy"
  bottom: "fc5_classes"
  bottom: "label"
  top: "accuracy_1"
  accuracy_param {
    top_k: 1
  }
}
layer {
  name: "accuracy_5"
  type: "Accuracy"
  bottom: "fc5_classes"
  bottom: "label"
  top: "accuracy_5"
  accuracy_param {
    top_k: 5
  }
}
layer {
  name: "silence"
  type: "Silence"
  bottom: "accuracy_1"
  bottom: "accuracy_5"
}
I0414 05:35:48.749019  1965 layer_factory.hpp:77] Creating layer data
I0414 05:35:48.750095  1965 net.cpp:100] Creating Layer data
I0414 05:35:48.750119  1965 net.cpp:408] data -> data
I0414 05:35:48.750143  1965 net.cpp:408] data -> label
I0414 05:35:48.757181  2085 db_lmdb.cpp:35] Opened lmdb ../local_data/lmdb/rtsd-r1/AHE/train/lmdb
I0414 05:35:48.774296  1965 data_layer.cpp:41] output data size: 1024,3,48,48
I0414 05:35:48.849860  1965 net.cpp:150] Setting up data
I0414 05:35:48.849915  1965 net.cpp:157] Top shape: 1024 3 48 48 (7077888)
I0414 05:35:48.849920  1965 net.cpp:157] Top shape: 1024 (1024)
I0414 05:35:48.849923  1965 net.cpp:165] Memory required for data: 28315648
I0414 05:35:48.849934  1965 layer_factory.hpp:77] Creating layer label_data_1_split
I0414 05:35:48.849948  1965 net.cpp:100] Creating Layer label_data_1_split
I0414 05:35:48.849953  1965 net.cpp:434] label_data_1_split <- label
I0414 05:35:48.849967  1965 net.cpp:408] label_data_1_split -> label_data_1_split_0
I0414 05:35:48.849982  1965 net.cpp:408] label_data_1_split -> label_data_1_split_1
I0414 05:35:48.849989  1965 net.cpp:408] label_data_1_split -> label_data_1_split_2
I0414 05:35:48.850054  1965 net.cpp:150] Setting up label_data_1_split
I0414 05:35:48.850062  1965 net.cpp:157] Top shape: 1024 (1024)
I0414 05:35:48.850066  1965 net.cpp:157] Top shape: 1024 (1024)
I0414 05:35:48.850069  1965 net.cpp:157] Top shape: 1024 (1024)
I0414 05:35:48.850072  1965 net.cpp:165] Memory required for data: 28327936
I0414 05:35:48.850075  1965 layer_factory.hpp:77] Creating layer conv1
I0414 05:35:48.850097  1965 net.cpp:100] Creating Layer conv1
I0414 05:35:48.850103  1965 net.cpp:434] conv1 <- data
I0414 05:35:48.850109  1965 net.cpp:408] conv1 -> conv1
I0414 05:35:49.218614  1965 net.cpp:150] Setting up conv1
I0414 05:35:49.218642  1965 net.cpp:157] Top shape: 1024 100 42 42 (180633600)
I0414 05:35:49.218647  1965 net.cpp:165] Memory required for data: 750862336
I0414 05:35:49.218668  1965 layer_factory.hpp:77] Creating layer conv1_relu
I0414 05:35:49.218680  1965 net.cpp:100] Creating Layer conv1_relu
I0414 05:35:49.218684  1965 net.cpp:434] conv1_relu <- conv1
I0414 05:35:49.218690  1965 net.cpp:395] conv1_relu -> conv1 (in-place)
I0414 05:35:49.218888  1965 net.cpp:150] Setting up conv1_relu
I0414 05:35:49.218900  1965 net.cpp:157] Top shape: 1024 100 42 42 (180633600)
I0414 05:35:49.218905  1965 net.cpp:165] Memory required for data: 1473396736
I0414 05:35:49.218909  1965 layer_factory.hpp:77] Creating layer pool1
I0414 05:35:49.218919  1965 net.cpp:100] Creating Layer pool1
I0414 05:35:49.218924  1965 net.cpp:434] pool1 <- conv1
I0414 05:35:49.218930  1965 net.cpp:408] pool1 -> pool1
I0414 05:35:49.218983  1965 net.cpp:150] Setting up pool1
I0414 05:35:49.218991  1965 net.cpp:157] Top shape: 1024 100 21 21 (45158400)
I0414 05:35:49.218997  1965 net.cpp:165] Memory required for data: 1654030336
I0414 05:35:49.218999  1965 layer_factory.hpp:77] Creating layer conv2
I0414 05:35:49.219010  1965 net.cpp:100] Creating Layer conv2
I0414 05:35:49.219014  1965 net.cpp:434] conv2 <- pool1
I0414 05:35:49.219019  1965 net.cpp:408] conv2 -> conv2
I0414 05:35:49.227522  1965 net.cpp:150] Setting up conv2
I0414 05:35:49.227540  1965 net.cpp:157] Top shape: 1024 150 18 18 (49766400)
I0414 05:35:49.227543  1965 net.cpp:165] Memory required for data: 1853095936
I0414 05:35:49.227553  1965 layer_factory.hpp:77] Creating layer conv2_relu
I0414 05:35:49.227560  1965 net.cpp:100] Creating Layer conv2_relu
I0414 05:35:49.227563  1965 net.cpp:434] conv2_relu <- conv2
I0414 05:35:49.227568  1965 net.cpp:395] conv2_relu -> conv2 (in-place)
I0414 05:35:49.231315  1965 net.cpp:150] Setting up conv2_relu
I0414 05:35:49.231333  1965 net.cpp:157] Top shape: 1024 150 18 18 (49766400)
I0414 05:35:49.231335  1965 net.cpp:165] Memory required for data: 2052161536
I0414 05:35:49.231339  1965 layer_factory.hpp:77] Creating layer pool2
I0414 05:35:49.231346  1965 net.cpp:100] Creating Layer pool2
I0414 05:35:49.231350  1965 net.cpp:434] pool2 <- conv2
I0414 05:35:49.231356  1965 net.cpp:408] pool2 -> pool2
I0414 05:35:49.231405  1965 net.cpp:150] Setting up pool2
I0414 05:35:49.231412  1965 net.cpp:157] Top shape: 1024 150 9 9 (12441600)
I0414 05:35:49.231417  1965 net.cpp:165] Memory required for data: 2101927936
I0414 05:35:49.231420  1965 layer_factory.hpp:77] Creating layer conv3
I0414 05:35:49.231431  1965 net.cpp:100] Creating Layer conv3
I0414 05:35:49.231434  1965 net.cpp:434] conv3 <- pool2
I0414 05:35:49.231439  1965 net.cpp:408] conv3 -> conv3
I0414 05:35:49.237213  1965 net.cpp:150] Setting up conv3
I0414 05:35:49.237231  1965 net.cpp:157] Top shape: 1024 250 6 6 (9216000)
I0414 05:35:49.237233  1965 net.cpp:165] Memory required for data: 2138791936
I0414 05:35:49.237243  1965 layer_factory.hpp:77] Creating layer conv3_relu
I0414 05:35:49.237251  1965 net.cpp:100] Creating Layer conv3_relu
I0414 05:35:49.237253  1965 net.cpp:434] conv3_relu <- conv3
I0414 05:35:49.237258  1965 net.cpp:395] conv3_relu -> conv3 (in-place)
I0414 05:35:49.238976  1965 net.cpp:150] Setting up conv3_relu
I0414 05:35:49.238992  1965 net.cpp:157] Top shape: 1024 250 6 6 (9216000)
I0414 05:35:49.238996  1965 net.cpp:165] Memory required for data: 2175655936
I0414 05:35:49.238999  1965 layer_factory.hpp:77] Creating layer pool3
I0414 05:35:49.239006  1965 net.cpp:100] Creating Layer pool3
I0414 05:35:49.239009  1965 net.cpp:434] pool3 <- conv3
I0414 05:35:49.239015  1965 net.cpp:408] pool3 -> pool3
I0414 05:35:49.239063  1965 net.cpp:150] Setting up pool3
I0414 05:35:49.239070  1965 net.cpp:157] Top shape: 1024 250 3 3 (2304000)
I0414 05:35:49.239075  1965 net.cpp:165] Memory required for data: 2184871936
I0414 05:35:49.239078  1965 layer_factory.hpp:77] Creating layer fc4_300
I0414 05:35:49.239085  1965 net.cpp:100] Creating Layer fc4_300
I0414 05:35:49.239090  1965 net.cpp:434] fc4_300 <- pool3
I0414 05:35:49.239095  1965 net.cpp:408] fc4_300 -> fc4_300
I0414 05:35:49.244714  1965 net.cpp:150] Setting up fc4_300
I0414 05:35:49.244730  1965 net.cpp:157] Top shape: 1024 300 (307200)
I0414 05:35:49.244734  1965 net.cpp:165] Memory required for data: 2186100736
I0414 05:35:49.244740  1965 layer_factory.hpp:77] Creating layer fc4_relu
I0414 05:35:49.244746  1965 net.cpp:100] Creating Layer fc4_relu
I0414 05:35:49.244750  1965 net.cpp:434] fc4_relu <- fc4_300
I0414 05:35:49.244755  1965 net.cpp:395] fc4_relu -> fc4_300 (in-place)
I0414 05:35:49.244941  1965 net.cpp:150] Setting up fc4_relu
I0414 05:35:49.244952  1965 net.cpp:157] Top shape: 1024 300 (307200)
I0414 05:35:49.244956  1965 net.cpp:165] Memory required for data: 2187329536
I0414 05:35:49.244959  1965 layer_factory.hpp:77] Creating layer fc5_67
I0414 05:35:49.244966  1965 net.cpp:100] Creating Layer fc5_67
I0414 05:35:49.244971  1965 net.cpp:434] fc5_67 <- fc4_300
I0414 05:35:49.244976  1965 net.cpp:408] fc5_67 -> fc5_classes
I0414 05:35:49.249312  1965 net.cpp:150] Setting up fc5_67
I0414 05:35:49.249327  1965 net.cpp:157] Top shape: 1024 67 (68608)
I0414 05:35:49.249330  1965 net.cpp:165] Memory required for data: 2187603968
I0414 05:35:49.249341  1965 layer_factory.hpp:77] Creating layer fc5_classes_fc5_67_0_split
I0414 05:35:49.249348  1965 net.cpp:100] Creating Layer fc5_classes_fc5_67_0_split
I0414 05:35:49.249351  1965 net.cpp:434] fc5_classes_fc5_67_0_split <- fc5_classes
I0414 05:35:49.249357  1965 net.cpp:408] fc5_classes_fc5_67_0_split -> fc5_classes_fc5_67_0_split_0
I0414 05:35:49.249364  1965 net.cpp:408] fc5_classes_fc5_67_0_split -> fc5_classes_fc5_67_0_split_1
I0414 05:35:49.249372  1965 net.cpp:408] fc5_classes_fc5_67_0_split -> fc5_classes_fc5_67_0_split_2
I0414 05:35:49.249421  1965 net.cpp:150] Setting up fc5_classes_fc5_67_0_split
I0414 05:35:49.249428  1965 net.cpp:157] Top shape: 1024 67 (68608)
I0414 05:35:49.249433  1965 net.cpp:157] Top shape: 1024 67 (68608)
I0414 05:35:49.249435  1965 net.cpp:157] Top shape: 1024 67 (68608)
I0414 05:35:49.249438  1965 net.cpp:165] Memory required for data: 2188427264
I0414 05:35:49.249441  1965 layer_factory.hpp:77] Creating layer softmax
I0414 05:35:49.249446  1965 net.cpp:100] Creating Layer softmax
I0414 05:35:49.249450  1965 net.cpp:434] softmax <- fc5_classes_fc5_67_0_split_0
I0414 05:35:49.249455  1965 net.cpp:408] softmax -> softmax
I0414 05:35:49.249706  1965 net.cpp:150] Setting up softmax
I0414 05:35:49.249717  1965 net.cpp:157] Top shape: 1024 67 (68608)
I0414 05:35:49.249721  1965 net.cpp:165] Memory required for data: 2188701696
I0414 05:35:49.249724  1965 layer_factory.hpp:77] Creating layer loss
I0414 05:35:49.249733  1965 net.cpp:100] Creating Layer loss
I0414 05:35:49.249752  1965 net.cpp:434] loss <- softmax
I0414 05:35:49.249757  1965 net.cpp:434] loss <- label_data_1_split_0
I0414 05:35:49.249763  1965 net.cpp:408] loss -> loss
…
