…
I0412 06:26:28.217074 21529 solver.cpp:93] Creating training net from train_net file: ./Prototxt/experiment_10/rtsd-r1/AHE/trial_1/train.prototxt
I0412 06:26:28.217453 21529 net.cpp:58] Initializing net from parameters: 
state {
  phase: TRAIN
  level: 0
  stage: ""
}
layer {
  name: "data"
  type: "Data"
  top: "data"
  top: "label"
  include {
    phase: TRAIN
  }
  transform_param {
    scale: 0.0039215689
    mirror: false
    crop_size: 48
    mean_value: 132
    mean_value: 126
    mean_value: 140
  }
  data_param {
    source: "../local_data/lmdb/rtsd-r1/AHE/train/lmdb"
    batch_size: 1024
    backend: LMDB
  }
}
layer {
  name: "conv1"
  type: "Convolution"
  bottom: "data"
  top: "conv1"
  convolution_param {
    num_output: 100
    pad: 0
    kernel_size: 7
    group: 1
    stride: 1
    weight_filler {
      type: "xavier"
    }
  }
}
layer {
  name: "conv1_relu"
  type: "ReLU"
  bottom: "conv1"
  top: "conv1"
}
layer {
  name: "pool1"
  type: "Pooling"
  bottom: "conv1"
  top: "pool1"
  pooling_param {
    pool: MAX
    kernel_size: 2
    stride: 2
  }
}
layer {
  name: "conv2"
  type: "Convolution"
  bottom: "pool1"
  top: "conv2"
  convolution_param {
    num_output: 150
    pad: 0
    kernel_size: 4
    group: 1
    stride: 1
    weight_filler {
      type: "xavier"
    }
  }
}
layer {
  name: "conv2_relu"
  type: "ReLU"
  bottom: "conv2"
  top: "conv2"
}
layer {
  name: "pool2"
  type: "Pooling"
  bottom: "conv2"
  top: "pool2"
  pooling_param {
    pool: MAX
    kernel_size: 2
    stride: 2
  }
}
layer {
  name: "conv3"
  type: "Convolution"
  bottom: "pool2"
  top: "conv3"
  convolution_param {
    num_output: 250
    pad: 0
    kernel_size: 4
    group: 1
    stride: 1
    weight_filler {
      type: "xavier"
    }
  }
}
layer {
  name: "conv3_relu"
  type: "ReLU"
  bottom: "conv3"
  top: "conv3"
}
layer {
  name: "pool3"
  type: "Pooling"
  bottom: "conv3"
  top: "pool3"
  pooling_param {
    pool: MAX
    kernel_size: 2
    stride: 2
  }
}
layer {
  name: "fc4_300"
  type: "InnerProduct"
  bottom: "pool3"
  top: "fc4_300"
  inner_product_param {
    num_output: 300
    weight_filler {
      type: "xavier"
    }
  }
}
layer {
  name: "fc4_relu"
  type: "ReLU"
  bottom: "fc4_300"
  top: "fc4_300"
}
layer {
  name: "drop4"
  type: "Dropout"
  bottom: "fc4_300"
  top: "fc4_300"
  dropout_param {
    dropout_ratio: 0.4
  }
}
layer {
  name: "fc5_67"
  type: "InnerProduct"
  bottom: "fc4_300"
  top: "fc5_classes"
  inner_product_param {
    num_output: 67
    weight_filler {
      type: "xavier"
    }
  }
}
layer {
  name: "softmax"
  type: "Softmax"
  bottom: "fc5_classes"
  top: "softmax"
}
layer {
  name: "loss"
  type: "MultinomialLogisticLoss"
  bottom: "softmax"
  bottom: "label"
  top: "loss"
}
layer {
  name: "accuracy_1"
  type: "Accuracy"
  bottom: "fc5_classes"
  bottom: "label"
  top: "accuracy_1"
  accuracy_param {
    top_k: 1
  }
}
layer {
  name: "accuracy_5"
  type: "Accuracy"
  bottom: "fc5_classes"
  bottom: "label"
  top: "accuracy_5"
  accuracy_param {
    top_k: 5
  }
}
I0412 06:26:28.217602 21529 layer_factory.hpp:77] Creating layer data
I0412 06:26:28.219066 21529 net.cpp:100] Creating Layer data
I0412 06:26:28.219084 21529 net.cpp:408] data -> data
I0412 06:26:28.219123 21529 net.cpp:408] data -> label
I0412 06:26:28.229609 21661 db_lmdb.cpp:35] Opened lmdb ../local_data/lmdb/rtsd-r1/AHE/train/lmdb
I0412 06:26:28.249969 21529 data_layer.cpp:41] output data size: 1024,3,48,48
I0412 06:26:28.299710 21529 net.cpp:150] Setting up data
I0412 06:26:28.299737 21529 net.cpp:157] Top shape: 1024 3 48 48 (7077888)
I0412 06:26:28.299743 21529 net.cpp:157] Top shape: 1024 (1024)
I0412 06:26:28.299746 21529 net.cpp:165] Memory required for data: 28315648
I0412 06:26:28.299757 21529 layer_factory.hpp:77] Creating layer label_data_1_split
I0412 06:26:28.299772 21529 net.cpp:100] Creating Layer label_data_1_split
I0412 06:26:28.299777 21529 net.cpp:434] label_data_1_split <- label
I0412 06:26:28.299790 21529 net.cpp:408] label_data_1_split -> label_data_1_split_0
I0412 06:26:28.299803 21529 net.cpp:408] label_data_1_split -> label_data_1_split_1
I0412 06:26:28.299810 21529 net.cpp:408] label_data_1_split -> label_data_1_split_2
I0412 06:26:28.299912 21529 net.cpp:150] Setting up label_data_1_split
I0412 06:26:28.299922 21529 net.cpp:157] Top shape: 1024 (1024)
I0412 06:26:28.299927 21529 net.cpp:157] Top shape: 1024 (1024)
I0412 06:26:28.299931 21529 net.cpp:157] Top shape: 1024 (1024)
I0412 06:26:28.299933 21529 net.cpp:165] Memory required for data: 28327936
I0412 06:26:28.299937 21529 layer_factory.hpp:77] Creating layer conv1
I0412 06:26:28.299955 21529 net.cpp:100] Creating Layer conv1
I0412 06:26:28.299962 21529 net.cpp:434] conv1 <- data
I0412 06:26:28.299968 21529 net.cpp:408] conv1 -> conv1
I0412 06:26:28.603562 21529 net.cpp:150] Setting up conv1
I0412 06:26:28.603590 21529 net.cpp:157] Top shape: 1024 100 42 42 (180633600)
I0412 06:26:28.603593 21529 net.cpp:165] Memory required for data: 750862336
I0412 06:26:28.603615 21529 layer_factory.hpp:77] Creating layer conv1_relu
I0412 06:26:28.603628 21529 net.cpp:100] Creating Layer conv1_relu
I0412 06:26:28.603633 21529 net.cpp:434] conv1_relu <- conv1
I0412 06:26:28.603641 21529 net.cpp:395] conv1_relu -> conv1 (in-place)
I0412 06:26:28.603854 21529 net.cpp:150] Setting up conv1_relu
I0412 06:26:28.603868 21529 net.cpp:157] Top shape: 1024 100 42 42 (180633600)
I0412 06:26:28.603873 21529 net.cpp:165] Memory required for data: 1473396736
I0412 06:26:28.603888 21529 layer_factory.hpp:77] Creating layer pool1
I0412 06:26:28.603899 21529 net.cpp:100] Creating Layer pool1
I0412 06:26:28.603904 21529 net.cpp:434] pool1 <- conv1
I0412 06:26:28.603909 21529 net.cpp:408] pool1 -> pool1
I0412 06:26:28.603976 21529 net.cpp:150] Setting up pool1
I0412 06:26:28.603986 21529 net.cpp:157] Top shape: 1024 100 21 21 (45158400)
I0412 06:26:28.603989 21529 net.cpp:165] Memory required for data: 1654030336
I0412 06:26:28.603992 21529 layer_factory.hpp:77] Creating layer conv2
I0412 06:26:28.604005 21529 net.cpp:100] Creating Layer conv2
I0412 06:26:28.604012 21529 net.cpp:434] conv2 <- pool1
I0412 06:26:28.604017 21529 net.cpp:408] conv2 -> conv2
I0412 06:26:28.610491 21529 net.cpp:150] Setting up conv2
I0412 06:26:28.610508 21529 net.cpp:157] Top shape: 1024 150 18 18 (49766400)
I0412 06:26:28.610512 21529 net.cpp:165] Memory required for data: 1853095936
I0412 06:26:28.610522 21529 layer_factory.hpp:77] Creating layer conv2_relu
I0412 06:26:28.610530 21529 net.cpp:100] Creating Layer conv2_relu
I0412 06:26:28.610535 21529 net.cpp:434] conv2_relu <- conv2
I0412 06:26:28.610540 21529 net.cpp:395] conv2_relu -> conv2 (in-place)
I0412 06:26:28.611676 21529 net.cpp:150] Setting up conv2_relu
I0412 06:26:28.611691 21529 net.cpp:157] Top shape: 1024 150 18 18 (49766400)
I0412 06:26:28.611696 21529 net.cpp:165] Memory required for data: 2052161536
I0412 06:26:28.611698 21529 layer_factory.hpp:77] Creating layer pool2
I0412 06:26:28.611707 21529 net.cpp:100] Creating Layer pool2
I0412 06:26:28.611711 21529 net.cpp:434] pool2 <- conv2
I0412 06:26:28.611716 21529 net.cpp:408] pool2 -> pool2
I0412 06:26:28.611768 21529 net.cpp:150] Setting up pool2
I0412 06:26:28.611778 21529 net.cpp:157] Top shape: 1024 150 9 9 (12441600)
I0412 06:26:28.611781 21529 net.cpp:165] Memory required for data: 2101927936
I0412 06:26:28.611784 21529 layer_factory.hpp:77] Creating layer conv3
I0412 06:26:28.611795 21529 net.cpp:100] Creating Layer conv3
I0412 06:26:28.611801 21529 net.cpp:434] conv3 <- pool2
I0412 06:26:28.611829 21529 net.cpp:408] conv3 -> conv3
I0412 06:26:28.618252 21529 net.cpp:150] Setting up conv3
I0412 06:26:28.618270 21529 net.cpp:157] Top shape: 1024 250 6 6 (9216000)
I0412 06:26:28.618274 21529 net.cpp:165] Memory required for data: 2138791936
I0412 06:26:28.618283 21529 layer_factory.hpp:77] Creating layer conv3_relu
I0412 06:26:28.618291 21529 net.cpp:100] Creating Layer conv3_relu
I0412 06:26:28.618294 21529 net.cpp:434] conv3_relu <- conv3
I0412 06:26:28.618305 21529 net.cpp:395] conv3_relu -> conv3 (in-place)
I0412 06:26:28.619791 21529 net.cpp:150] Setting up conv3_relu
I0412 06:26:28.619807 21529 net.cpp:157] Top shape: 1024 250 6 6 (9216000)
I0412 06:26:28.619810 21529 net.cpp:165] Memory required for data: 2175655936
I0412 06:26:28.619813 21529 layer_factory.hpp:77] Creating layer pool3
I0412 06:26:28.619822 21529 net.cpp:100] Creating Layer pool3
I0412 06:26:28.619827 21529 net.cpp:434] pool3 <- conv3
I0412 06:26:28.619832 21529 net.cpp:408] pool3 -> pool3
I0412 06:26:28.619894 21529 net.cpp:150] Setting up pool3
I0412 06:26:28.619904 21529 net.cpp:157] Top shape: 1024 250 3 3 (2304000)
I0412 06:26:28.619907 21529 net.cpp:165] Memory required for data: 2184871936
I0412 06:26:28.619911 21529 layer_factory.hpp:77] Creating layer fc4_300
I0412 06:26:28.619918 21529 net.cpp:100] Creating Layer fc4_300
I0412 06:26:28.619923 21529 net.cpp:434] fc4_300 <- pool3
I0412 06:26:28.619930 21529 net.cpp:408] fc4_300 -> fc4_300
I0412 06:26:28.631295 21529 net.cpp:150] Setting up fc4_300
I0412 06:26:28.631314 21529 net.cpp:157] Top shape: 1024 300 (307200)
I0412 06:26:28.631317 21529 net.cpp:165] Memory required for data: 2186100736
I0412 06:26:28.631325 21529 layer_factory.hpp:77] Creating layer fc4_relu
I0412 06:26:28.631331 21529 net.cpp:100] Creating Layer fc4_relu
I0412 06:26:28.631335 21529 net.cpp:434] fc4_relu <- fc4_300
I0412 06:26:28.631340 21529 net.cpp:395] fc4_relu -> fc4_300 (in-place)
I0412 06:26:28.631539 21529 net.cpp:150] Setting up fc4_relu
I0412 06:26:28.631552 21529 net.cpp:157] Top shape: 1024 300 (307200)
I0412 06:26:28.631556 21529 net.cpp:165] Memory required for data: 2187329536
I0412 06:26:28.631559 21529 layer_factory.hpp:77] Creating layer drop4
I0412 06:26:28.631567 21529 net.cpp:100] Creating Layer drop4
I0412 06:26:28.631570 21529 net.cpp:434] drop4 <- fc4_300
I0412 06:26:28.631577 21529 net.cpp:395] drop4 -> fc4_300 (in-place)
I0412 06:26:28.631610 21529 net.cpp:150] Setting up drop4
I0412 06:26:28.631620 21529 net.cpp:157] Top shape: 1024 300 (307200)
I0412 06:26:28.631625 21529 net.cpp:165] Memory required for data: 2188558336
I0412 06:26:28.631628 21529 layer_factory.hpp:77] Creating layer fc5_67
I0412 06:26:28.631635 21529 net.cpp:100] Creating Layer fc5_67
I0412 06:26:28.631639 21529 net.cpp:434] fc5_67 <- fc4_300
I0412 06:26:28.631644 21529 net.cpp:408] fc5_67 -> fc5_classes
I0412 06:26:28.638761 21529 net.cpp:150] Setting up fc5_67
I0412 06:26:28.638779 21529 net.cpp:157] Top shape: 1024 67 (68608)
I0412 06:26:28.638782 21529 net.cpp:165] Memory required for data: 2188832768
I0412 06:26:28.638794 21529 layer_factory.hpp:77] Creating layer fc5_classes_fc5_67_0_split
I0412 06:26:28.638804 21529 net.cpp:100] Creating Layer fc5_classes_fc5_67_0_split
I0412 06:26:28.638808 21529 net.cpp:434] fc5_classes_fc5_67_0_split <- fc5_classes
I0412 06:26:28.638815 21529 net.cpp:408] fc5_classes_fc5_67_0_split -> fc5_classes_fc5_67_0_split_0
I0412 06:26:28.638823 21529 net.cpp:408] fc5_classes_fc5_67_0_split -> fc5_classes_fc5_67_0_split_1
I0412 06:26:28.638834 21529 net.cpp:408] fc5_classes_fc5_67_0_split -> fc5_classes_fc5_67_0_split_2
I0412 06:26:28.638892 21529 net.cpp:150] Setting up fc5_classes_fc5_67_0_split
I0412 06:26:28.638901 21529 net.cpp:157] Top shape: 1024 67 (68608)
I0412 06:26:28.638905 21529 net.cpp:157] Top shape: 1024 67 (68608)
I0412 06:26:28.638908 21529 net.cpp:157] Top shape: 1024 67 (68608)
I0412 06:26:28.638911 21529 net.cpp:165] Memory required for data: 2189656064
I0412 06:26:28.638914 21529 layer_factory.hpp:77] Creating layer softmax
I0412 06:26:28.638924 21529 net.cpp:100] Creating Layer softmax
I0412 06:26:28.638942 21529 net.cpp:434] softmax <- fc5_classes_fc5_67_0_split_0
I0412 06:26:28.638949 21529 net.cpp:408] softmax -> softmax
I0412 06:26:28.639222 21529 net.cpp:150] Setting up softmax
I0412 06:26:28.639235 21529 net.cpp:157] Top shape: 1024 67 (68608)
I0412 06:26:28.639237 21529 net.cpp:165] Memory required for data: 2189930496
I0412 06:26:28.639241 21529 layer_factory.hpp:77] Creating layer loss
I0412 06:26:28.639250 21529 net.cpp:100] Creating Layer loss
I0412 06:26:28.639253 21529 net.cpp:434] loss <- softmax
I0412 06:26:28.639258 21529 net.cpp:434] loss <- label_data_1_split_0
I0412 06:26:28.639263 21529 net.cpp:408] loss -> loss
…
