…
I0508 06:23:36.424283 26427 solver.cpp:93] Creating training net from train_net file: ./Prototxt/experiment_15/RTSD/AHE/trial_4/train.prototxt
I0508 06:23:36.424837 26427 net.cpp:58] Initializing net from parameters: 
state {
  phase: TRAIN
  level: 0
  stage: ""
}
layer {
  name: "data"
  type: "Data"
  top: "data"
  top: "label"
  include {
    phase: TRAIN
  }
  transform_param {
    scale: 0.0039215689
    mirror: false
    crop_size: 48
    mean_value: 133
    mean_value: 127
    mean_value: 126
  }
  data_param {
    source: "../local_data/lmdb/RTSD/AHE/train/lmdb"
    batch_size: 1024
    backend: LMDB
  }
}
layer {
  name: "conv1"
  type: "Convolution"
  bottom: "data"
  top: "conv1"
  convolution_param {
    num_output: 100
    pad: 0
    kernel_size: 7
    group: 1
    stride: 1
    weight_filler {
      type: "xavier"
    }
  }
}
layer {
  name: "conv1_prescale"
  type: "Scale"
  bottom: "conv1"
  top: "conv1"
  param {
    lr_mult: 0
    decay_mult: 0
  }
  scale_param {
    filler {
      value: 0.6666
    }
    bias_term: false
  }
}
layer {
  name: "conv1_sTanH"
  type: "TanH"
  bottom: "conv1"
  top: "conv1"
}
layer {
  name: "conv1_postscale"
  type: "Scale"
  bottom: "conv1"
  top: "conv1"
  param {
    lr_mult: 0
    decay_mult: 0
  }
  scale_param {
    filler {
      value: 1.7159
    }
    bias_term: false
  }
}
layer {
  name: "pool1"
  type: "Pooling"
  bottom: "conv1"
  top: "pool1"
  pooling_param {
    pool: MAX
    kernel_size: 2
    stride: 2
  }
}
layer {
  name: "conv2"
  type: "Convolution"
  bottom: "pool1"
  top: "conv2"
  convolution_param {
    num_output: 150
    pad: 0
    kernel_size: 4
    group: 2
    stride: 1
    weight_filler {
      type: "xavier"
    }
  }
}
layer {
  name: "conv2_prescale"
  type: "Scale"
  bottom: "conv2"
  top: "conv2"
  param {
    lr_mult: 0
    decay_mult: 0
  }
  scale_param {
    filler {
      value: 0.6666
    }
    bias_term: false
  }
}
layer {
  name: "conv2_sTanH"
  type: "TanH"
  bottom: "conv2"
  top: "conv2"
}
layer {
  name: "conv2_postscale"
  type: "Scale"
  bottom: "conv2"
  top: "conv2"
  param {
    lr_mult: 0
    decay_mult: 0
  }
  scale_param {
    filler {
      value: 1.7159
    }
    bias_term: false
  }
}
layer {
  name: "pool2"
  type: "Pooling"
  bottom: "conv2"
  top: "pool2"
  pooling_param {
    pool: MAX
    kernel_size: 2
    stride: 2
  }
}
layer {
  name: "conv3"
  type: "Convolution"
  bottom: "pool2"
  top: "conv3"
  convolution_param {
    num_output: 250
    pad: 0
    kernel_size: 4
    group: 2
    stride: 1
    weight_filler {
      type: "xavier"
    }
  }
}
layer {
  name: "conv3_prescale"
  type: "Scale"
  bottom: "conv3"
  top: "conv3"
  param {
    lr_mult: 0
    decay_mult: 0
  }
  scale_param {
    filler {
      value: 0.6666
    }
    bias_term: false
  }
}
layer {
  name: "conv3_sTanH"
  type: "TanH"
  bottom: "conv3"
  top: "conv3"
}
layer {
  name: "conv3_postscale"
  type: "Scale"
  bottom: "conv3"
  top: "conv3"
  param {
    lr_mult: 0
    decay_mult: 0
  }
  scale_param {
    filler {
      value: 1.7159
    }
    bias_term: false
  }
}
layer {
  name: "pool3"
  type: "Pooling"
  bottom: "conv3"
  top: "pool3"
  pooling_param {
    pool: MAX
    kernel_size: 2
    stride: 2
  }
}
layer {
  name: "fc4_300"
  type: "InnerProduct"
  bottom: "pool3"
  top: "fc4_300"
  inner_product_param {
    num_output: 300
    weight_filler {
      type: "xavier"
    }
  }
}
layer {
  name: "fc4_prescale"
  type: "Scale"
  bottom: "fc4_300"
  top: "fc4_300"
  param {
    lr_mult: 0
    decay_mult: 0
  }
  scale_param {
    filler {
      value: 0.6666
    }
    bias_term: false
  }
}
layer {
  name: "fc4_sTanH"
  type: "TanH"
  bottom: "fc4_300"
  top: "fc4_300"
}
layer {
  name: "fc4_postscale"
  type: "Scale"
  bottom: "fc4_300"
  top: "fc4_300"
  param {
    lr_mult: 0
    decay_mult: 0
  }
  scale_param {
    filler {
      value: 1.7159
    }
    bias_term: false
  }
}
layer {
  name: "fc5_116"
  type: "InnerProduct"
  bottom: "fc4_300"
  top: "fc5_classes"
  inner_product_param {
    num_output: 116
    weight_filler {
      type: "xavier"
    }
  }
}
layer {
  name: "softmax"
  type: "Softmax"
  bottom: "fc5_classes"
  top: "softmax"
}
layer {
  name: "loss"
  type: "MultinomialLogisticLoss"
  bottom: "softmax"
  bottom: "label"
  top: "loss"
}
layer {
  name: "accuracy_1"
  type: "Accuracy"
  bottom: "fc5_classes"
  bottom: "label"
  top: "accuracy_1"
  accuracy_param {
    top_k: 1
  }
}
layer {
  name: "accuracy_5"
  type: "Accuracy"
  bottom: "fc5_classes"
  bottom: "label"
  top: "accuracy_5"
  accuracy_param {
    top_k: 5
  }
}
layer {
  name: "silence"
  type: "Silence"
  bottom: "accuracy_1"
  bottom: "accuracy_5"
}
I0508 06:23:36.425024 26427 layer_factory.hpp:77] Creating layer data
I0508 06:23:36.426578 26427 net.cpp:100] Creating Layer data
I0508 06:23:36.426599 26427 net.cpp:408] data -> data
I0508 06:23:36.426625 26427 net.cpp:408] data -> label
I0508 06:23:36.433123 26544 db_lmdb.cpp:35] Opened lmdb ../local_data/lmdb/RTSD/AHE/train/lmdb
I0508 06:23:36.455071 26427 data_layer.cpp:41] output data size: 1024,3,48,48
I0508 06:23:36.522611 26427 net.cpp:150] Setting up data
I0508 06:23:36.522644 26427 net.cpp:157] Top shape: 1024 3 48 48 (7077888)
I0508 06:23:36.522650 26427 net.cpp:157] Top shape: 1024 (1024)
I0508 06:23:36.522653 26427 net.cpp:165] Memory required for data: 28315648
I0508 06:23:36.522666 26427 layer_factory.hpp:77] Creating layer label_data_1_split
I0508 06:23:36.522682 26427 net.cpp:100] Creating Layer label_data_1_split
I0508 06:23:36.522689 26427 net.cpp:434] label_data_1_split <- label
I0508 06:23:36.522704 26427 net.cpp:408] label_data_1_split -> label_data_1_split_0
I0508 06:23:36.522722 26427 net.cpp:408] label_data_1_split -> label_data_1_split_1
I0508 06:23:36.522732 26427 net.cpp:408] label_data_1_split -> label_data_1_split_2
I0508 06:23:36.522871 26427 net.cpp:150] Setting up label_data_1_split
I0508 06:23:36.522881 26427 net.cpp:157] Top shape: 1024 (1024)
I0508 06:23:36.522886 26427 net.cpp:157] Top shape: 1024 (1024)
I0508 06:23:36.522891 26427 net.cpp:157] Top shape: 1024 (1024)
I0508 06:23:36.522893 26427 net.cpp:165] Memory required for data: 28327936
I0508 06:23:36.522898 26427 layer_factory.hpp:77] Creating layer conv1
I0508 06:23:36.522920 26427 net.cpp:100] Creating Layer conv1
I0508 06:23:36.522927 26427 net.cpp:434] conv1 <- data
I0508 06:23:36.522933 26427 net.cpp:408] conv1 -> conv1
I0508 06:23:36.949096 26427 net.cpp:150] Setting up conv1
I0508 06:23:36.949127 26427 net.cpp:157] Top shape: 1024 100 42 42 (180633600)
I0508 06:23:36.949132 26427 net.cpp:165] Memory required for data: 750862336
I0508 06:23:36.949157 26427 layer_factory.hpp:77] Creating layer conv1_prescale
I0508 06:23:36.949173 26427 net.cpp:100] Creating Layer conv1_prescale
I0508 06:23:36.949177 26427 net.cpp:434] conv1_prescale <- conv1
I0508 06:23:36.949185 26427 net.cpp:395] conv1_prescale -> conv1 (in-place)
I0508 06:23:36.949319 26427 net.cpp:150] Setting up conv1_prescale
I0508 06:23:36.949331 26427 net.cpp:157] Top shape: 1024 100 42 42 (180633600)
I0508 06:23:36.949334 26427 net.cpp:165] Memory required for data: 1473396736
I0508 06:23:36.949342 26427 layer_factory.hpp:77] Creating layer conv1_sTanH
I0508 06:23:36.949353 26427 net.cpp:100] Creating Layer conv1_sTanH
I0508 06:23:36.949359 26427 net.cpp:434] conv1_sTanH <- conv1
I0508 06:23:36.949364 26427 net.cpp:395] conv1_sTanH -> conv1 (in-place)
I0508 06:23:36.949604 26427 net.cpp:150] Setting up conv1_sTanH
I0508 06:23:36.949620 26427 net.cpp:157] Top shape: 1024 100 42 42 (180633600)
I0508 06:23:36.949645 26427 net.cpp:165] Memory required for data: 2195931136
I0508 06:23:36.949651 26427 layer_factory.hpp:77] Creating layer conv1_postscale
I0508 06:23:36.949659 26427 net.cpp:100] Creating Layer conv1_postscale
I0508 06:23:36.949666 26427 net.cpp:434] conv1_postscale <- conv1
I0508 06:23:36.949671 26427 net.cpp:395] conv1_postscale -> conv1 (in-place)
I0508 06:23:36.949795 26427 net.cpp:150] Setting up conv1_postscale
I0508 06:23:36.949805 26427 net.cpp:157] Top shape: 1024 100 42 42 (180633600)
I0508 06:23:36.949810 26427 net.cpp:165] Memory required for data: 2918465536
I0508 06:23:36.949815 26427 layer_factory.hpp:77] Creating layer pool1
I0508 06:23:36.949823 26427 net.cpp:100] Creating Layer pool1
I0508 06:23:36.949828 26427 net.cpp:434] pool1 <- conv1
I0508 06:23:36.949836 26427 net.cpp:408] pool1 -> pool1
I0508 06:23:36.949893 26427 net.cpp:150] Setting up pool1
I0508 06:23:36.949903 26427 net.cpp:157] Top shape: 1024 100 21 21 (45158400)
I0508 06:23:36.949908 26427 net.cpp:165] Memory required for data: 3099099136
I0508 06:23:36.949913 26427 layer_factory.hpp:77] Creating layer conv2
I0508 06:23:36.949923 26427 net.cpp:100] Creating Layer conv2
I0508 06:23:36.949928 26427 net.cpp:434] conv2 <- pool1
I0508 06:23:36.949935 26427 net.cpp:408] conv2 -> conv2
I0508 06:23:36.962026 26427 net.cpp:150] Setting up conv2
I0508 06:23:36.962050 26427 net.cpp:157] Top shape: 1024 150 18 18 (49766400)
I0508 06:23:36.962054 26427 net.cpp:165] Memory required for data: 3298164736
I0508 06:23:36.962067 26427 layer_factory.hpp:77] Creating layer conv2_prescale
I0508 06:23:36.962080 26427 net.cpp:100] Creating Layer conv2_prescale
I0508 06:23:36.962083 26427 net.cpp:434] conv2_prescale <- conv2
I0508 06:23:36.962090 26427 net.cpp:395] conv2_prescale -> conv2 (in-place)
I0508 06:23:36.962213 26427 net.cpp:150] Setting up conv2_prescale
I0508 06:23:36.962224 26427 net.cpp:157] Top shape: 1024 150 18 18 (49766400)
I0508 06:23:36.962227 26427 net.cpp:165] Memory required for data: 3497230336
I0508 06:23:36.962232 26427 layer_factory.hpp:77] Creating layer conv2_sTanH
I0508 06:23:36.962239 26427 net.cpp:100] Creating Layer conv2_sTanH
I0508 06:23:36.962245 26427 net.cpp:434] conv2_sTanH <- conv2
I0508 06:23:36.962250 26427 net.cpp:395] conv2_sTanH -> conv2 (in-place)
I0508 06:23:36.962463 26427 net.cpp:150] Setting up conv2_sTanH
I0508 06:23:36.962476 26427 net.cpp:157] Top shape: 1024 150 18 18 (49766400)
I0508 06:23:36.962482 26427 net.cpp:165] Memory required for data: 3696295936
I0508 06:23:36.962486 26427 layer_factory.hpp:77] Creating layer conv2_postscale
I0508 06:23:36.962496 26427 net.cpp:100] Creating Layer conv2_postscale
I0508 06:23:36.962501 26427 net.cpp:434] conv2_postscale <- conv2
I0508 06:23:36.962507 26427 net.cpp:395] conv2_postscale -> conv2 (in-place)
I0508 06:23:36.962620 26427 net.cpp:150] Setting up conv2_postscale
I0508 06:23:36.962630 26427 net.cpp:157] Top shape: 1024 150 18 18 (49766400)
I0508 06:23:36.962633 26427 net.cpp:165] Memory required for data: 3895361536
I0508 06:23:36.962641 26427 layer_factory.hpp:77] Creating layer pool2
I0508 06:23:36.962647 26427 net.cpp:100] Creating Layer pool2
I0508 06:23:36.962653 26427 net.cpp:434] pool2 <- conv2
I0508 06:23:36.962659 26427 net.cpp:408] pool2 -> pool2
I0508 06:23:36.962709 26427 net.cpp:150] Setting up pool2
I0508 06:23:36.962718 26427 net.cpp:157] Top shape: 1024 150 9 9 (12441600)
I0508 06:23:36.962721 26427 net.cpp:165] Memory required for data: 3945127936
I0508 06:23:36.962725 26427 layer_factory.hpp:77] Creating layer conv3
I0508 06:23:36.962734 26427 net.cpp:100] Creating Layer conv3
I0508 06:23:36.962740 26427 net.cpp:434] conv3 <- pool2
I0508 06:23:36.962746 26427 net.cpp:408] conv3 -> conv3
I0508 06:23:36.972621 26427 net.cpp:150] Setting up conv3
I0508 06:23:36.972646 26427 net.cpp:157] Top shape: 1024 250 6 6 (9216000)
I0508 06:23:36.972651 26427 net.cpp:165] Memory required for data: 3981991936
I0508 06:23:36.972664 26427 layer_factory.hpp:77] Creating layer conv3_prescale
I0508 06:23:36.972676 26427 net.cpp:100] Creating Layer conv3_prescale
I0508 06:23:36.972698 26427 net.cpp:434] conv3_prescale <- conv3
I0508 06:23:36.972709 26427 net.cpp:395] conv3_prescale -> conv3 (in-place)
I0508 06:23:36.972838 26427 net.cpp:150] Setting up conv3_prescale
I0508 06:23:36.972849 26427 net.cpp:157] Top shape: 1024 250 6 6 (9216000)
I0508 06:23:36.972853 26427 net.cpp:165] Memory required for data: 4018855936
I0508 06:23:36.972858 26427 layer_factory.hpp:77] Creating layer conv3_sTanH
I0508 06:23:36.972865 26427 net.cpp:100] Creating Layer conv3_sTanH
I0508 06:23:36.972872 26427 net.cpp:434] conv3_sTanH <- conv3
I0508 06:23:36.972878 26427 net.cpp:395] conv3_sTanH -> conv3 (in-place)
I0508 06:23:36.973110 26427 net.cpp:150] Setting up conv3_sTanH
I0508 06:23:36.973125 26427 net.cpp:157] Top shape: 1024 250 6 6 (9216000)
I0508 06:23:36.973129 26427 net.cpp:165] Memory required for data: 4055719936
I0508 06:23:36.973134 26427 layer_factory.hpp:77] Creating layer conv3_postscale
I0508 06:23:36.973142 26427 net.cpp:100] Creating Layer conv3_postscale
I0508 06:23:36.973146 26427 net.cpp:434] conv3_postscale <- conv3
I0508 06:23:36.973152 26427 net.cpp:395] conv3_postscale -> conv3 (in-place)
I0508 06:23:36.973275 26427 net.cpp:150] Setting up conv3_postscale
I0508 06:23:36.973285 26427 net.cpp:157] Top shape: 1024 250 6 6 (9216000)
I0508 06:23:36.973289 26427 net.cpp:165] Memory required for data: 4092583936
I0508 06:23:36.973294 26427 layer_factory.hpp:77] Creating layer pool3
I0508 06:23:36.973306 26427 net.cpp:100] Creating Layer pool3
I0508 06:23:36.973312 26427 net.cpp:434] pool3 <- conv3
I0508 06:23:36.973318 26427 net.cpp:408] pool3 -> pool3
I0508 06:23:36.973369 26427 net.cpp:150] Setting up pool3
I0508 06:23:36.973378 26427 net.cpp:157] Top shape: 1024 250 3 3 (2304000)
I0508 06:23:36.973381 26427 net.cpp:165] Memory required for data: 4101799936
I0508 06:23:36.973386 26427 layer_factory.hpp:77] Creating layer fc4_300
I0508 06:23:36.973394 26427 net.cpp:100] Creating Layer fc4_300
I0508 06:23:36.973400 26427 net.cpp:434] fc4_300 <- pool3
I0508 06:23:36.973407 26427 net.cpp:408] fc4_300 -> fc4_300
I0508 06:23:36.980904 26427 net.cpp:150] Setting up fc4_300
I0508 06:23:36.980928 26427 net.cpp:157] Top shape: 1024 300 (307200)
I0508 06:23:36.980933 26427 net.cpp:165] Memory required for data: 4103028736
I0508 06:23:36.980942 26427 layer_factory.hpp:77] Creating layer fc4_prescale
I0508 06:23:36.980952 26427 net.cpp:100] Creating Layer fc4_prescale
I0508 06:23:36.980955 26427 net.cpp:434] fc4_prescale <- fc4_300
I0508 06:23:36.980965 26427 net.cpp:395] fc4_prescale -> fc4_300 (in-place)
I0508 06:23:36.981082 26427 net.cpp:150] Setting up fc4_prescale
I0508 06:23:36.981093 26427 net.cpp:157] Top shape: 1024 300 (307200)
I0508 06:23:36.981097 26427 net.cpp:165] Memory required for data: 4104257536
I0508 06:23:36.981102 26427 layer_factory.hpp:77] Creating layer fc4_sTanH
I0508 06:23:36.981111 26427 net.cpp:100] Creating Layer fc4_sTanH
I0508 06:23:36.981114 26427 net.cpp:434] fc4_sTanH <- fc4_300
I0508 06:23:36.981120 26427 net.cpp:395] fc4_sTanH -> fc4_300 (in-place)
I0508 06:23:36.994585 26427 net.cpp:150] Setting up fc4_sTanH
I0508 06:23:36.994607 26427 net.cpp:157] Top shape: 1024 300 (307200)
I0508 06:23:36.994612 26427 net.cpp:165] Memory required for data: 4105486336
I0508 06:23:36.994616 26427 layer_factory.hpp:77] Creating layer fc4_postscale
I0508 06:23:36.994626 26427 net.cpp:100] Creating Layer fc4_postscale
I0508 06:23:36.994632 26427 net.cpp:434] fc4_postscale <- fc4_300
I0508 06:23:36.994642 26427 net.cpp:395] fc4_postscale -> fc4_300 (in-place)
I0508 06:23:36.994781 26427 net.cpp:150] Setting up fc4_postscale
I0508 06:23:36.994792 26427 net.cpp:157] Top shape: 1024 300 (307200)
I0508 06:23:36.994796 26427 net.cpp:165] Memory required for data: 4106715136
I0508 06:23:36.994802 26427 layer_factory.hpp:77] Creating layer fc5_116
I0508 06:23:36.994810 26427 net.cpp:100] Creating Layer fc5_116
I0508 06:23:36.994817 26427 net.cpp:434] fc5_116 <- fc4_300
I0508 06:23:36.994827 26427 net.cpp:408] fc5_116 -> fc5_classes
I0508 06:23:36.997527 26427 net.cpp:150] Setting up fc5_116
I0508 06:23:36.997553 26427 net.cpp:157] Top shape: 1024 116 (118784)
I0508 06:23:36.997560 26427 net.cpp:165] Memory required for data: 4107190272
I0508 06:23:36.997583 26427 layer_factory.hpp:77] Creating layer fc5_classes_fc5_116_0_split
I0508 06:23:36.997598 26427 net.cpp:100] Creating Layer fc5_classes_fc5_116_0_split
I0508 06:23:36.997606 26427 net.cpp:434] fc5_classes_fc5_116_0_split <- fc5_classes
I0508 06:23:36.997622 26427 net.cpp:408] fc5_classes_fc5_116_0_split -> fc5_classes_fc5_116_0_split_0
I0508 06:23:36.997640 26427 net.cpp:408] fc5_classes_fc5_116_0_split -> fc5_classes_fc5_116_0_split_1
I0508 06:23:36.997654 26427 net.cpp:408] fc5_classes_fc5_116_0_split -> fc5_classes_fc5_116_0_split_2
I0508 06:23:36.997759 26427 net.cpp:150] Setting up fc5_classes_fc5_116_0_split
I0508 06:23:36.997781 26427 net.cpp:157] Top shape: 1024 116 (118784)
I0508 06:23:36.997790 26427 net.cpp:157] Top shape: 1024 116 (118784)
I0508 06:23:36.997797 26427 net.cpp:157] Top shape: 1024 116 (118784)
I0508 06:23:36.997803 26427 net.cpp:165] Memory required for data: 4108615680
I0508 06:23:36.997810 26427 layer_factory.hpp:77] Creating layer softmax
I0508 06:23:36.997822 26427 net.cpp:100] Creating Layer softmax
I0508 06:23:36.997828 26427 net.cpp:434] softmax <- fc5_classes_fc5_116_0_split_0
I0508 06:23:36.997843 26427 net.cpp:408] softmax -> softmax
I0508 06:23:36.998255 26427 net.cpp:150] Setting up softmax
I0508 06:23:36.998276 26427 net.cpp:157] Top shape: 1024 116 (118784)
I0508 06:23:36.998283 26427 net.cpp:165] Memory required for data: 4109090816
I0508 06:23:36.998289 26427 layer_factory.hpp:77] Creating layer loss
I0508 06:23:36.998306 26427 net.cpp:100] Creating Layer loss
I0508 06:23:36.998319 26427 net.cpp:434] loss <- softmax
I0508 06:23:36.998329 26427 net.cpp:434] loss <- label_data_1_split_0
I0508 06:23:36.998340 26427 net.cpp:408] loss -> loss
…
