…
I0414 06:20:40.893110  6815 solver.cpp:93] Creating training net from train_net file: ./Prototxt/experiment_11/rtsd-r1/histeq/trial_3/train.prototxt
I0414 06:20:40.893577  6815 net.cpp:58] Initializing net from parameters: 
state {
  phase: TRAIN
  level: 0
  stage: ""
}
layer {
  name: "data"
  type: "Data"
  top: "data"
  top: "label"
  include {
    phase: TRAIN
  }
  transform_param {
    scale: 0.0039215689
    mirror: false
    crop_size: 48
    mean_value: 130
    mean_value: 123
    mean_value: 137
  }
  data_param {
    source: "../local_data/lmdb/rtsd-r1/histeq/train/lmdb"
    batch_size: 1024
    backend: LMDB
  }
}
layer {
  name: "conv1"
  type: "Convolution"
  bottom: "data"
  top: "conv1"
  convolution_param {
    num_output: 100
    pad: 0
    kernel_size: 7
    group: 1
    stride: 1
    weight_filler {
      type: "xavier"
    }
  }
}
layer {
  name: "conv1_prescale"
  type: "Scale"
  bottom: "conv1"
  top: "conv1"
  param {
    lr_mult: 0
    decay_mult: 0
  }
  scale_param {
    filler {
      value: 0.6666
    }
    bias_term: false
  }
}
layer {
  name: "conv1_sTanH"
  type: "TanH"
  bottom: "conv1"
  top: "conv1"
}
layer {
  name: "conv1_postscale"
  type: "Scale"
  bottom: "conv1"
  top: "conv1"
  param {
    lr_mult: 0
    decay_mult: 0
  }
  scale_param {
    filler {
      value: 1.7159
    }
    bias_term: false
  }
}
layer {
  name: "pool1"
  type: "Pooling"
  bottom: "conv1"
  top: "pool1"
  pooling_param {
    pool: MAX
    kernel_size: 2
    stride: 2
  }
}
layer {
  name: "conv2"
  type: "Convolution"
  bottom: "pool1"
  top: "conv2"
  convolution_param {
    num_output: 150
    pad: 0
    kernel_size: 4
    group: 1
    stride: 1
    weight_filler {
      type: "xavier"
    }
  }
}
layer {
  name: "conv2_prescale"
  type: "Scale"
  bottom: "conv2"
  top: "conv2"
  param {
    lr_mult: 0
    decay_mult: 0
  }
  scale_param {
    filler {
      value: 0.6666
    }
    bias_term: false
  }
}
layer {
  name: "conv2_sTanH"
  type: "TanH"
  bottom: "conv2"
  top: "conv2"
}
layer {
  name: "conv2_postscale"
  type: "Scale"
  bottom: "conv2"
  top: "conv2"
  param {
    lr_mult: 0
    decay_mult: 0
  }
  scale_param {
    filler {
      value: 1.7159
    }
    bias_term: false
  }
}
layer {
  name: "pool2"
  type: "Pooling"
  bottom: "conv2"
  top: "pool2"
  pooling_param {
    pool: MAX
    kernel_size: 2
    stride: 2
  }
}
layer {
  name: "conv3"
  type: "Convolution"
  bottom: "pool2"
  top: "conv3"
  convolution_param {
    num_output: 250
    pad: 0
    kernel_size: 4
    group: 1
    stride: 1
    weight_filler {
      type: "xavier"
    }
  }
}
layer {
  name: "conv3_prescale"
  type: "Scale"
  bottom: "conv3"
  top: "conv3"
  param {
    lr_mult: 0
    decay_mult: 0
  }
  scale_param {
    filler {
      value: 0.6666
    }
    bias_term: false
  }
}
layer {
  name: "conv3_sTanH"
  type: "TanH"
  bottom: "conv3"
  top: "conv3"
}
layer {
  name: "conv3_postscale"
  type: "Scale"
  bottom: "conv3"
  top: "conv3"
  param {
    lr_mult: 0
    decay_mult: 0
  }
  scale_param {
    filler {
      value: 1.7159
    }
    bias_term: false
  }
}
layer {
  name: "pool3"
  type: "Pooling"
  bottom: "conv3"
  top: "pool3"
  pooling_param {
    pool: MAX
    kernel_size: 2
    stride: 2
  }
}
layer {
  name: "fc4_300"
  type: "InnerProduct"
  bottom: "pool3"
  top: "fc4_300"
  inner_product_param {
    num_output: 300
    weight_filler {
      type: "xavier"
    }
  }
}
layer {
  name: "fc4_prescale"
  type: "Scale"
  bottom: "fc4_300"
  top: "fc4_300"
  param {
    lr_mult: 0
    decay_mult: 0
  }
  scale_param {
    filler {
      value: 0.6666
    }
    bias_term: false
  }
}
layer {
  name: "fc4_sTanH"
  type: "TanH"
  bottom: "fc4_300"
  top: "fc4_300"
}
layer {
  name: "fc4_postscale"
  type: "Scale"
  bottom: "fc4_300"
  top: "fc4_300"
  param {
    lr_mult: 0
    decay_mult: 0
  }
  scale_param {
    filler {
      value: 1.7159
    }
    bias_term: false
  }
}
layer {
  name: "fc5_67"
  type: "InnerProduct"
  bottom: "fc4_300"
  top: "fc5_classes"
  inner_product_param {
    num_output: 67
    weight_filler {
      type: "xavier"
    }
  }
}
layer {
  name: "softmax"
  type: "Softmax"
  bottom: "fc5_classes"
  top: "softmax"
}
layer {
  name: "loss"
  type: "MultinomialLogisticLoss"
  bottom: "softmax"
  bottom: "label"
  top: "loss"
}
layer {
  name: "accuracy_1"
  type: "Accuracy"
  bottom: "fc5_classes"
  bottom: "label"
  top: "accuracy_1"
  accuracy_param {
    top_k: 1
  }
}
layer {
  name: "accuracy_5"
  type: "Accuracy"
  bottom: "fc5_classes"
  bottom: "label"
  top: "accuracy_5"
  accuracy_param {
    top_k: 5
  }
}
layer {
  name: "silence"
  type: "Silence"
  bottom: "accuracy_1"
  bottom: "accuracy_5"
}
I0414 06:20:40.893738  6815 layer_factory.hpp:77] Creating layer data
I0414 06:20:40.895033  6815 net.cpp:100] Creating Layer data
I0414 06:20:40.895051  6815 net.cpp:408] data -> data
I0414 06:20:40.895076  6815 net.cpp:408] data -> label
I0414 06:20:40.900295  6974 db_lmdb.cpp:35] Opened lmdb ../local_data/lmdb/rtsd-r1/histeq/train/lmdb
I0414 06:20:40.918452  6815 data_layer.cpp:41] output data size: 1024,3,48,48
I0414 06:20:41.015988  6815 net.cpp:150] Setting up data
I0414 06:20:41.016018  6815 net.cpp:157] Top shape: 1024 3 48 48 (7077888)
I0414 06:20:41.016024  6815 net.cpp:157] Top shape: 1024 (1024)
I0414 06:20:41.016027  6815 net.cpp:165] Memory required for data: 28315648
I0414 06:20:41.016038  6815 layer_factory.hpp:77] Creating layer label_data_1_split
I0414 06:20:41.016052  6815 net.cpp:100] Creating Layer label_data_1_split
I0414 06:20:41.016060  6815 net.cpp:434] label_data_1_split <- label
I0414 06:20:41.016075  6815 net.cpp:408] label_data_1_split -> label_data_1_split_0
I0414 06:20:41.016088  6815 net.cpp:408] label_data_1_split -> label_data_1_split_1
I0414 06:20:41.016096  6815 net.cpp:408] label_data_1_split -> label_data_1_split_2
I0414 06:20:41.016199  6815 net.cpp:150] Setting up label_data_1_split
I0414 06:20:41.016208  6815 net.cpp:157] Top shape: 1024 (1024)
I0414 06:20:41.016213  6815 net.cpp:157] Top shape: 1024 (1024)
I0414 06:20:41.016217  6815 net.cpp:157] Top shape: 1024 (1024)
I0414 06:20:41.016221  6815 net.cpp:165] Memory required for data: 28327936
I0414 06:20:41.016224  6815 layer_factory.hpp:77] Creating layer conv1
I0414 06:20:41.016245  6815 net.cpp:100] Creating Layer conv1
I0414 06:20:41.016250  6815 net.cpp:434] conv1 <- data
I0414 06:20:41.016257  6815 net.cpp:408] conv1 -> conv1
I0414 06:20:41.447604  6815 net.cpp:150] Setting up conv1
I0414 06:20:41.447638  6815 net.cpp:157] Top shape: 1024 100 42 42 (180633600)
I0414 06:20:41.447643  6815 net.cpp:165] Memory required for data: 750862336
I0414 06:20:41.447669  6815 layer_factory.hpp:77] Creating layer conv1_prescale
I0414 06:20:41.447685  6815 net.cpp:100] Creating Layer conv1_prescale
I0414 06:20:41.447691  6815 net.cpp:434] conv1_prescale <- conv1
I0414 06:20:41.447700  6815 net.cpp:395] conv1_prescale -> conv1 (in-place)
I0414 06:20:41.447845  6815 net.cpp:150] Setting up conv1_prescale
I0414 06:20:41.447856  6815 net.cpp:157] Top shape: 1024 100 42 42 (180633600)
I0414 06:20:41.447861  6815 net.cpp:165] Memory required for data: 1473396736
I0414 06:20:41.447870  6815 layer_factory.hpp:77] Creating layer conv1_sTanH
I0414 06:20:41.447893  6815 net.cpp:100] Creating Layer conv1_sTanH
I0414 06:20:41.447901  6815 net.cpp:434] conv1_sTanH <- conv1
I0414 06:20:41.447906  6815 net.cpp:395] conv1_sTanH -> conv1 (in-place)
I0414 06:20:41.448144  6815 net.cpp:150] Setting up conv1_sTanH
I0414 06:20:41.448184  6815 net.cpp:157] Top shape: 1024 100 42 42 (180633600)
I0414 06:20:41.448189  6815 net.cpp:165] Memory required for data: 2195931136
I0414 06:20:41.448192  6815 layer_factory.hpp:77] Creating layer conv1_postscale
I0414 06:20:41.448201  6815 net.cpp:100] Creating Layer conv1_postscale
I0414 06:20:41.448205  6815 net.cpp:434] conv1_postscale <- conv1
I0414 06:20:41.448211  6815 net.cpp:395] conv1_postscale -> conv1 (in-place)
I0414 06:20:41.448328  6815 net.cpp:150] Setting up conv1_postscale
I0414 06:20:41.448338  6815 net.cpp:157] Top shape: 1024 100 42 42 (180633600)
I0414 06:20:41.448343  6815 net.cpp:165] Memory required for data: 2918465536
I0414 06:20:41.448349  6815 layer_factory.hpp:77] Creating layer pool1
I0414 06:20:41.448359  6815 net.cpp:100] Creating Layer pool1
I0414 06:20:41.448364  6815 net.cpp:434] pool1 <- conv1
I0414 06:20:41.448370  6815 net.cpp:408] pool1 -> pool1
I0414 06:20:41.448427  6815 net.cpp:150] Setting up pool1
I0414 06:20:41.448436  6815 net.cpp:157] Top shape: 1024 100 21 21 (45158400)
I0414 06:20:41.448441  6815 net.cpp:165] Memory required for data: 3099099136
I0414 06:20:41.448446  6815 layer_factory.hpp:77] Creating layer conv2
I0414 06:20:41.448457  6815 net.cpp:100] Creating Layer conv2
I0414 06:20:41.448462  6815 net.cpp:434] conv2 <- pool1
I0414 06:20:41.448467  6815 net.cpp:408] conv2 -> conv2
I0414 06:20:41.468044  6815 net.cpp:150] Setting up conv2
I0414 06:20:41.468073  6815 net.cpp:157] Top shape: 1024 150 18 18 (49766400)
I0414 06:20:41.468078  6815 net.cpp:165] Memory required for data: 3298164736
I0414 06:20:41.468096  6815 layer_factory.hpp:77] Creating layer conv2_prescale
I0414 06:20:41.468114  6815 net.cpp:100] Creating Layer conv2_prescale
I0414 06:20:41.468122  6815 net.cpp:434] conv2_prescale <- conv2
I0414 06:20:41.468129  6815 net.cpp:395] conv2_prescale -> conv2 (in-place)
I0414 06:20:41.468263  6815 net.cpp:150] Setting up conv2_prescale
I0414 06:20:41.468274  6815 net.cpp:157] Top shape: 1024 150 18 18 (49766400)
I0414 06:20:41.468279  6815 net.cpp:165] Memory required for data: 3497230336
I0414 06:20:41.468286  6815 layer_factory.hpp:77] Creating layer conv2_sTanH
I0414 06:20:41.468294  6815 net.cpp:100] Creating Layer conv2_sTanH
I0414 06:20:41.468299  6815 net.cpp:434] conv2_sTanH <- conv2
I0414 06:20:41.468304  6815 net.cpp:395] conv2_sTanH -> conv2 (in-place)
I0414 06:20:41.470006  6815 net.cpp:150] Setting up conv2_sTanH
I0414 06:20:41.470027  6815 net.cpp:157] Top shape: 1024 150 18 18 (49766400)
I0414 06:20:41.470033  6815 net.cpp:165] Memory required for data: 3696295936
I0414 06:20:41.470038  6815 layer_factory.hpp:77] Creating layer conv2_postscale
I0414 06:20:41.470048  6815 net.cpp:100] Creating Layer conv2_postscale
I0414 06:20:41.470054  6815 net.cpp:434] conv2_postscale <- conv2
I0414 06:20:41.470060  6815 net.cpp:395] conv2_postscale -> conv2 (in-place)
I0414 06:20:41.470181  6815 net.cpp:150] Setting up conv2_postscale
I0414 06:20:41.470191  6815 net.cpp:157] Top shape: 1024 150 18 18 (49766400)
I0414 06:20:41.470196  6815 net.cpp:165] Memory required for data: 3895361536
I0414 06:20:41.470202  6815 layer_factory.hpp:77] Creating layer pool2
I0414 06:20:41.470212  6815 net.cpp:100] Creating Layer pool2
I0414 06:20:41.470217  6815 net.cpp:434] pool2 <- conv2
I0414 06:20:41.470223  6815 net.cpp:408] pool2 -> pool2
I0414 06:20:41.470275  6815 net.cpp:150] Setting up pool2
I0414 06:20:41.470285  6815 net.cpp:157] Top shape: 1024 150 9 9 (12441600)
I0414 06:20:41.470290  6815 net.cpp:165] Memory required for data: 3945127936
I0414 06:20:41.470294  6815 layer_factory.hpp:77] Creating layer conv3
I0414 06:20:41.470305  6815 net.cpp:100] Creating Layer conv3
I0414 06:20:41.470310  6815 net.cpp:434] conv3 <- pool2
I0414 06:20:41.470316  6815 net.cpp:408] conv3 -> conv3
I0414 06:20:41.485307  6815 net.cpp:150] Setting up conv3
I0414 06:20:41.485338  6815 net.cpp:157] Top shape: 1024 250 6 6 (9216000)
I0414 06:20:41.485343  6815 net.cpp:165] Memory required for data: 3981991936
I0414 06:20:41.485359  6815 layer_factory.hpp:77] Creating layer conv3_prescale
I0414 06:20:41.485402  6815 net.cpp:100] Creating Layer conv3_prescale
I0414 06:20:41.485410  6815 net.cpp:434] conv3_prescale <- conv3
I0414 06:20:41.485419  6815 net.cpp:395] conv3_prescale -> conv3 (in-place)
I0414 06:20:41.485540  6815 net.cpp:150] Setting up conv3_prescale
I0414 06:20:41.485551  6815 net.cpp:157] Top shape: 1024 250 6 6 (9216000)
I0414 06:20:41.485554  6815 net.cpp:165] Memory required for data: 4018855936
I0414 06:20:41.485560  6815 layer_factory.hpp:77] Creating layer conv3_sTanH
I0414 06:20:41.485569  6815 net.cpp:100] Creating Layer conv3_sTanH
I0414 06:20:41.485574  6815 net.cpp:434] conv3_sTanH <- conv3
I0414 06:20:41.485579  6815 net.cpp:395] conv3_sTanH -> conv3 (in-place)
I0414 06:20:41.487185  6815 net.cpp:150] Setting up conv3_sTanH
I0414 06:20:41.487205  6815 net.cpp:157] Top shape: 1024 250 6 6 (9216000)
I0414 06:20:41.487208  6815 net.cpp:165] Memory required for data: 4055719936
I0414 06:20:41.487212  6815 layer_factory.hpp:77] Creating layer conv3_postscale
I0414 06:20:41.487221  6815 net.cpp:100] Creating Layer conv3_postscale
I0414 06:20:41.487226  6815 net.cpp:434] conv3_postscale <- conv3
I0414 06:20:41.487232  6815 net.cpp:395] conv3_postscale -> conv3 (in-place)
I0414 06:20:41.487350  6815 net.cpp:150] Setting up conv3_postscale
I0414 06:20:41.487360  6815 net.cpp:157] Top shape: 1024 250 6 6 (9216000)
I0414 06:20:41.487366  6815 net.cpp:165] Memory required for data: 4092583936
I0414 06:20:41.487372  6815 layer_factory.hpp:77] Creating layer pool3
I0414 06:20:41.487385  6815 net.cpp:100] Creating Layer pool3
I0414 06:20:41.487390  6815 net.cpp:434] pool3 <- conv3
I0414 06:20:41.487397  6815 net.cpp:408] pool3 -> pool3
I0414 06:20:41.487443  6815 net.cpp:150] Setting up pool3
I0414 06:20:41.487452  6815 net.cpp:157] Top shape: 1024 250 3 3 (2304000)
I0414 06:20:41.487455  6815 net.cpp:165] Memory required for data: 4101799936
I0414 06:20:41.487459  6815 layer_factory.hpp:77] Creating layer fc4_300
I0414 06:20:41.487468  6815 net.cpp:100] Creating Layer fc4_300
I0414 06:20:41.487473  6815 net.cpp:434] fc4_300 <- pool3
I0414 06:20:41.487478  6815 net.cpp:408] fc4_300 -> fc4_300
I0414 06:20:41.496393  6815 net.cpp:150] Setting up fc4_300
I0414 06:20:41.496415  6815 net.cpp:157] Top shape: 1024 300 (307200)
I0414 06:20:41.496419  6815 net.cpp:165] Memory required for data: 4103028736
I0414 06:20:41.496428  6815 layer_factory.hpp:77] Creating layer fc4_prescale
I0414 06:20:41.496439  6815 net.cpp:100] Creating Layer fc4_prescale
I0414 06:20:41.496443  6815 net.cpp:434] fc4_prescale <- fc4_300
I0414 06:20:41.496450  6815 net.cpp:395] fc4_prescale -> fc4_300 (in-place)
I0414 06:20:41.496563  6815 net.cpp:150] Setting up fc4_prescale
I0414 06:20:41.496574  6815 net.cpp:157] Top shape: 1024 300 (307200)
I0414 06:20:41.496577  6815 net.cpp:165] Memory required for data: 4104257536
I0414 06:20:41.496583  6815 layer_factory.hpp:77] Creating layer fc4_sTanH
I0414 06:20:41.496590  6815 net.cpp:100] Creating Layer fc4_sTanH
I0414 06:20:41.496595  6815 net.cpp:434] fc4_sTanH <- fc4_300
I0414 06:20:41.496601  6815 net.cpp:395] fc4_sTanH -> fc4_300 (in-place)
I0414 06:20:41.496827  6815 net.cpp:150] Setting up fc4_sTanH
I0414 06:20:41.496841  6815 net.cpp:157] Top shape: 1024 300 (307200)
I0414 06:20:41.496846  6815 net.cpp:165] Memory required for data: 4105486336
I0414 06:20:41.496850  6815 layer_factory.hpp:77] Creating layer fc4_postscale
I0414 06:20:41.496858  6815 net.cpp:100] Creating Layer fc4_postscale
I0414 06:20:41.496863  6815 net.cpp:434] fc4_postscale <- fc4_300
I0414 06:20:41.496870  6815 net.cpp:395] fc4_postscale -> fc4_300 (in-place)
I0414 06:20:41.496986  6815 net.cpp:150] Setting up fc4_postscale
I0414 06:20:41.496995  6815 net.cpp:157] Top shape: 1024 300 (307200)
I0414 06:20:41.497000  6815 net.cpp:165] Memory required for data: 4106715136
I0414 06:20:41.497006  6815 layer_factory.hpp:77] Creating layer fc5_67
I0414 06:20:41.497014  6815 net.cpp:100] Creating Layer fc5_67
I0414 06:20:41.497018  6815 net.cpp:434] fc5_67 <- fc4_300
I0414 06:20:41.497025  6815 net.cpp:408] fc5_67 -> fc5_classes
I0414 06:20:41.506821  6815 net.cpp:150] Setting up fc5_67
I0414 06:20:41.506844  6815 net.cpp:157] Top shape: 1024 67 (68608)
I0414 06:20:41.506847  6815 net.cpp:165] Memory required for data: 4106989568
I0414 06:20:41.506862  6815 layer_factory.hpp:77] Creating layer fc5_classes_fc5_67_0_split
I0414 06:20:41.506873  6815 net.cpp:100] Creating Layer fc5_classes_fc5_67_0_split
I0414 06:20:41.506880  6815 net.cpp:434] fc5_classes_fc5_67_0_split <- fc5_classes
I0414 06:20:41.506886  6815 net.cpp:408] fc5_classes_fc5_67_0_split -> fc5_classes_fc5_67_0_split_0
I0414 06:20:41.506897  6815 net.cpp:408] fc5_classes_fc5_67_0_split -> fc5_classes_fc5_67_0_split_1
I0414 06:20:41.506906  6815 net.cpp:408] fc5_classes_fc5_67_0_split -> fc5_classes_fc5_67_0_split_2
I0414 06:20:41.506969  6815 net.cpp:150] Setting up fc5_classes_fc5_67_0_split
I0414 06:20:41.506978  6815 net.cpp:157] Top shape: 1024 67 (68608)
I0414 06:20:41.506983  6815 net.cpp:157] Top shape: 1024 67 (68608)
I0414 06:20:41.506988  6815 net.cpp:157] Top shape: 1024 67 (68608)
I0414 06:20:41.506990  6815 net.cpp:165] Memory required for data: 4107812864
I0414 06:20:41.506994  6815 layer_factory.hpp:77] Creating layer softmax
I0414 06:20:41.507001  6815 net.cpp:100] Creating Layer softmax
I0414 06:20:41.507006  6815 net.cpp:434] softmax <- fc5_classes_fc5_67_0_split_0
I0414 06:20:41.507012  6815 net.cpp:408] softmax -> softmax
I0414 06:20:41.507323  6815 net.cpp:150] Setting up softmax
I0414 06:20:41.507338  6815 net.cpp:157] Top shape: 1024 67 (68608)
I0414 06:20:41.507342  6815 net.cpp:165] Memory required for data: 4108087296
I0414 06:20:41.507346  6815 layer_factory.hpp:77] Creating layer loss
I0414 06:20:41.507354  6815 net.cpp:100] Creating Layer loss
I0414 06:20:41.507359  6815 net.cpp:434] loss <- softmax
I0414 06:20:41.507364  6815 net.cpp:434] loss <- label_data_1_split_0
I0414 06:20:41.507372  6815 net.cpp:408] loss -> loss
…
