…
I0417 19:30:30.972038 18229 solver.cpp:93] Creating training net from train_net file: ./Prototxt/experiment_11/rtsd-r1/histeq/trial_3/train.prototxt
I0417 19:30:30.972546 18229 net.cpp:58] Initializing net from parameters: 
state {
  phase: TRAIN
  level: 0
  stage: ""
}
layer {
  name: "data"
  type: "Data"
  top: "data"
  top: "label"
  include {
    phase: TRAIN
  }
  transform_param {
    scale: 0.0039215689
    mirror: false
    crop_size: 48
    mean_value: 130
    mean_value: 123
    mean_value: 137
  }
  data_param {
    source: "../local_data/lmdb/rtsd-r1/histeq/train/lmdb"
    batch_size: 1024
    backend: LMDB
  }
}
layer {
  name: "conv1"
  type: "Convolution"
  bottom: "data"
  top: "conv1"
  convolution_param {
    num_output: 100
    pad: 0
    kernel_size: 7
    group: 1
    stride: 1
    weight_filler {
      type: "xavier"
    }
  }
}
layer {
  name: "conv1_prescale"
  type: "Scale"
  bottom: "conv1"
  top: "conv1"
  param {
    lr_mult: 0
    decay_mult: 0
  }
  scale_param {
    filler {
      value: 0.6666
    }
    bias_term: false
  }
}
layer {
  name: "conv1_sTanH"
  type: "TanH"
  bottom: "conv1"
  top: "conv1"
}
layer {
  name: "conv1_postscale"
  type: "Scale"
  bottom: "conv1"
  top: "conv1"
  param {
    lr_mult: 0
    decay_mult: 0
  }
  scale_param {
    filler {
      value: 1.7159
    }
    bias_term: false
  }
}
layer {
  name: "pool1"
  type: "Pooling"
  bottom: "conv1"
  top: "pool1"
  pooling_param {
    pool: MAX
    kernel_size: 2
    stride: 2
  }
}
layer {
  name: "conv2"
  type: "Convolution"
  bottom: "pool1"
  top: "conv2"
  convolution_param {
    num_output: 150
    pad: 0
    kernel_size: 4
    group: 1
    stride: 1
    weight_filler {
      type: "xavier"
    }
  }
}
layer {
  name: "conv2_prescale"
  type: "Scale"
  bottom: "conv2"
  top: "conv2"
  param {
    lr_mult: 0
    decay_mult: 0
  }
  scale_param {
    filler {
      value: 0.6666
    }
    bias_term: false
  }
}
layer {
  name: "conv2_sTanH"
  type: "TanH"
  bottom: "conv2"
  top: "conv2"
}
layer {
  name: "conv2_postscale"
  type: "Scale"
  bottom: "conv2"
  top: "conv2"
  param {
    lr_mult: 0
    decay_mult: 0
  }
  scale_param {
    filler {
      value: 1.7159
    }
    bias_term: false
  }
}
layer {
  name: "pool2"
  type: "Pooling"
  bottom: "conv2"
  top: "pool2"
  pooling_param {
    pool: MAX
    kernel_size: 2
    stride: 2
  }
}
layer {
  name: "conv3"
  type: "Convolution"
  bottom: "pool2"
  top: "conv3"
  convolution_param {
    num_output: 250
    pad: 0
    kernel_size: 4
    group: 1
    stride: 1
    weight_filler {
      type: "xavier"
    }
  }
}
layer {
  name: "conv3_prescale"
  type: "Scale"
  bottom: "conv3"
  top: "conv3"
  param {
    lr_mult: 0
    decay_mult: 0
  }
  scale_param {
    filler {
      value: 0.6666
    }
    bias_term: false
  }
}
layer {
  name: "conv3_sTanH"
  type: "TanH"
  bottom: "conv3"
  top: "conv3"
}
layer {
  name: "conv3_postscale"
  type: "Scale"
  bottom: "conv3"
  top: "conv3"
  param {
    lr_mult: 0
    decay_mult: 0
  }
  scale_param {
    filler {
      value: 1.7159
    }
    bias_term: false
  }
}
layer {
  name: "pool3"
  type: "Pooling"
  bottom: "conv3"
  top: "pool3"
  pooling_param {
    pool: MAX
    kernel_size: 2
    stride: 2
  }
}
layer {
  name: "fc4_300"
  type: "InnerProduct"
  bottom: "pool3"
  top: "fc4_300"
  inner_product_param {
    num_output: 300
    weight_filler {
      type: "xavier"
    }
  }
}
layer {
  name: "fc4_prescale"
  type: "Scale"
  bottom: "fc4_300"
  top: "fc4_300"
  param {
    lr_mult: 0
    decay_mult: 0
  }
  scale_param {
    filler {
      value: 0.6666
    }
    bias_term: false
  }
}
layer {
  name: "fc4_sTanH"
  type: "TanH"
  bottom: "fc4_300"
  top: "fc4_300"
}
layer {
  name: "fc4_postscale"
  type: "Scale"
  bottom: "fc4_300"
  top: "fc4_300"
  param {
    lr_mult: 0
    decay_mult: 0
  }
  scale_param {
    filler {
      value: 1.7159
    }
    bias_term: false
  }
}
layer {
  name: "fc5_67"
  type: "InnerProduct"
  bottom: "fc4_300"
  top: "fc5_classes"
  inner_product_param {
    num_output: 67
    weight_filler {
      type: "xavier"
    }
  }
}
layer {
  name: "softmax"
  type: "Softmax"
  bottom: "fc5_classes"
  top: "softmax"
}
layer {
  name: "loss"
  type: "MultinomialLogisticLoss"
  bottom: "softmax"
  bottom: "label"
  top: "loss"
}
layer {
  name: "accuracy_1"
  type: "Accuracy"
  bottom: "fc5_classes"
  bottom: "label"
  top: "accuracy_1"
  accuracy_param {
    top_k: 1
  }
}
layer {
  name: "accuracy_5"
  type: "Accuracy"
  bottom: "fc5_classes"
  bottom: "label"
  top: "accuracy_5"
  accuracy_param {
    top_k: 5
  }
}
layer {
  name: "silence"
  type: "Silence"
  bottom: "accuracy_1"
  bottom: "accuracy_5"
}
I0417 19:30:30.972712 18229 layer_factory.hpp:77] Creating layer data
I0417 19:30:30.973821 18229 net.cpp:100] Creating Layer data
I0417 19:30:30.973840 18229 net.cpp:408] data -> data
I0417 19:30:30.973865 18229 net.cpp:408] data -> label
I0417 19:30:30.978402 18344 db_lmdb.cpp:35] Opened lmdb ../local_data/lmdb/rtsd-r1/histeq/train/lmdb
I0417 19:30:30.997938 18229 data_layer.cpp:41] output data size: 1024,3,48,48
I0417 19:30:31.051161 18229 net.cpp:150] Setting up data
I0417 19:30:31.051188 18229 net.cpp:157] Top shape: 1024 3 48 48 (7077888)
I0417 19:30:31.051194 18229 net.cpp:157] Top shape: 1024 (1024)
I0417 19:30:31.051196 18229 net.cpp:165] Memory required for data: 28315648
I0417 19:30:31.051208 18229 layer_factory.hpp:77] Creating layer label_data_1_split
I0417 19:30:31.051223 18229 net.cpp:100] Creating Layer label_data_1_split
I0417 19:30:31.051229 18229 net.cpp:434] label_data_1_split <- label
I0417 19:30:31.051244 18229 net.cpp:408] label_data_1_split -> label_data_1_split_0
I0417 19:30:31.051259 18229 net.cpp:408] label_data_1_split -> label_data_1_split_1
I0417 19:30:31.051268 18229 net.cpp:408] label_data_1_split -> label_data_1_split_2
I0417 19:30:31.051336 18229 net.cpp:150] Setting up label_data_1_split
I0417 19:30:31.051345 18229 net.cpp:157] Top shape: 1024 (1024)
I0417 19:30:31.051350 18229 net.cpp:157] Top shape: 1024 (1024)
I0417 19:30:31.051354 18229 net.cpp:157] Top shape: 1024 (1024)
I0417 19:30:31.051357 18229 net.cpp:165] Memory required for data: 28327936
I0417 19:30:31.051360 18229 layer_factory.hpp:77] Creating layer conv1
I0417 19:30:31.051378 18229 net.cpp:100] Creating Layer conv1
I0417 19:30:31.051383 18229 net.cpp:434] conv1 <- data
I0417 19:30:31.051389 18229 net.cpp:408] conv1 -> conv1
I0417 19:30:31.653889 18229 net.cpp:150] Setting up conv1
I0417 19:30:31.653923 18229 net.cpp:157] Top shape: 1024 100 42 42 (180633600)
I0417 19:30:31.653928 18229 net.cpp:165] Memory required for data: 750862336
I0417 19:30:31.653954 18229 layer_factory.hpp:77] Creating layer conv1_prescale
I0417 19:30:31.653970 18229 net.cpp:100] Creating Layer conv1_prescale
I0417 19:30:31.653977 18229 net.cpp:434] conv1_prescale <- conv1
I0417 19:30:31.653985 18229 net.cpp:395] conv1_prescale -> conv1 (in-place)
I0417 19:30:31.654119 18229 net.cpp:150] Setting up conv1_prescale
I0417 19:30:31.654129 18229 net.cpp:157] Top shape: 1024 100 42 42 (180633600)
I0417 19:30:31.654134 18229 net.cpp:165] Memory required for data: 1473396736
I0417 19:30:31.654142 18229 layer_factory.hpp:77] Creating layer conv1_sTanH
I0417 19:30:31.654152 18229 net.cpp:100] Creating Layer conv1_sTanH
I0417 19:30:31.654158 18229 net.cpp:434] conv1_sTanH <- conv1
I0417 19:30:31.654165 18229 net.cpp:395] conv1_sTanH -> conv1 (in-place)
I0417 19:30:31.654451 18229 net.cpp:150] Setting up conv1_sTanH
I0417 19:30:31.654505 18229 net.cpp:157] Top shape: 1024 100 42 42 (180633600)
I0417 19:30:31.654512 18229 net.cpp:165] Memory required for data: 2195931136
I0417 19:30:31.654520 18229 layer_factory.hpp:77] Creating layer conv1_postscale
I0417 19:30:31.654532 18229 net.cpp:100] Creating Layer conv1_postscale
I0417 19:30:31.654542 18229 net.cpp:434] conv1_postscale <- conv1
I0417 19:30:31.654554 18229 net.cpp:395] conv1_postscale -> conv1 (in-place)
I0417 19:30:31.654702 18229 net.cpp:150] Setting up conv1_postscale
I0417 19:30:31.654717 18229 net.cpp:157] Top shape: 1024 100 42 42 (180633600)
I0417 19:30:31.654721 18229 net.cpp:165] Memory required for data: 2918465536
I0417 19:30:31.654727 18229 layer_factory.hpp:77] Creating layer pool1
I0417 19:30:31.654737 18229 net.cpp:100] Creating Layer pool1
I0417 19:30:31.654743 18229 net.cpp:434] pool1 <- conv1
I0417 19:30:31.654749 18229 net.cpp:408] pool1 -> pool1
I0417 19:30:31.654810 18229 net.cpp:150] Setting up pool1
I0417 19:30:31.654820 18229 net.cpp:157] Top shape: 1024 100 21 21 (45158400)
I0417 19:30:31.654824 18229 net.cpp:165] Memory required for data: 3099099136
I0417 19:30:31.654829 18229 layer_factory.hpp:77] Creating layer conv2
I0417 19:30:31.654840 18229 net.cpp:100] Creating Layer conv2
I0417 19:30:31.654845 18229 net.cpp:434] conv2 <- pool1
I0417 19:30:31.654852 18229 net.cpp:408] conv2 -> conv2
I0417 19:30:31.662364 18229 net.cpp:150] Setting up conv2
I0417 19:30:31.662389 18229 net.cpp:157] Top shape: 1024 150 18 18 (49766400)
I0417 19:30:31.662395 18229 net.cpp:165] Memory required for data: 3298164736
I0417 19:30:31.662410 18229 layer_factory.hpp:77] Creating layer conv2_prescale
I0417 19:30:31.662423 18229 net.cpp:100] Creating Layer conv2_prescale
I0417 19:30:31.662431 18229 net.cpp:434] conv2_prescale <- conv2
I0417 19:30:31.662442 18229 net.cpp:395] conv2_prescale -> conv2 (in-place)
I0417 19:30:31.662600 18229 net.cpp:150] Setting up conv2_prescale
I0417 19:30:31.662616 18229 net.cpp:157] Top shape: 1024 150 18 18 (49766400)
I0417 19:30:31.662621 18229 net.cpp:165] Memory required for data: 3497230336
I0417 19:30:31.662628 18229 layer_factory.hpp:77] Creating layer conv2_sTanH
I0417 19:30:31.662636 18229 net.cpp:100] Creating Layer conv2_sTanH
I0417 19:30:31.662641 18229 net.cpp:434] conv2_sTanH <- conv2
I0417 19:30:31.662647 18229 net.cpp:395] conv2_sTanH -> conv2 (in-place)
I0417 19:30:31.663769 18229 net.cpp:150] Setting up conv2_sTanH
I0417 19:30:31.663787 18229 net.cpp:157] Top shape: 1024 150 18 18 (49766400)
I0417 19:30:31.663791 18229 net.cpp:165] Memory required for data: 3696295936
I0417 19:30:31.663796 18229 layer_factory.hpp:77] Creating layer conv2_postscale
I0417 19:30:31.663805 18229 net.cpp:100] Creating Layer conv2_postscale
I0417 19:30:31.663811 18229 net.cpp:434] conv2_postscale <- conv2
I0417 19:30:31.663820 18229 net.cpp:395] conv2_postscale -> conv2 (in-place)
I0417 19:30:31.663959 18229 net.cpp:150] Setting up conv2_postscale
I0417 19:30:31.663972 18229 net.cpp:157] Top shape: 1024 150 18 18 (49766400)
I0417 19:30:31.663975 18229 net.cpp:165] Memory required for data: 3895361536
I0417 19:30:31.663982 18229 layer_factory.hpp:77] Creating layer pool2
I0417 19:30:31.663990 18229 net.cpp:100] Creating Layer pool2
I0417 19:30:31.663995 18229 net.cpp:434] pool2 <- conv2
I0417 19:30:31.664000 18229 net.cpp:408] pool2 -> pool2
I0417 19:30:31.664053 18229 net.cpp:150] Setting up pool2
I0417 19:30:31.664062 18229 net.cpp:157] Top shape: 1024 150 9 9 (12441600)
I0417 19:30:31.664067 18229 net.cpp:165] Memory required for data: 3945127936
I0417 19:30:31.664069 18229 layer_factory.hpp:77] Creating layer conv3
I0417 19:30:31.664080 18229 net.cpp:100] Creating Layer conv3
I0417 19:30:31.664086 18229 net.cpp:434] conv3 <- pool2
I0417 19:30:31.664093 18229 net.cpp:408] conv3 -> conv3
I0417 19:30:31.671449 18229 net.cpp:150] Setting up conv3
I0417 19:30:31.671469 18229 net.cpp:157] Top shape: 1024 250 6 6 (9216000)
I0417 19:30:31.671473 18229 net.cpp:165] Memory required for data: 3981991936
I0417 19:30:31.671486 18229 layer_factory.hpp:77] Creating layer conv3_prescale
I0417 19:30:31.671514 18229 net.cpp:100] Creating Layer conv3_prescale
I0417 19:30:31.671521 18229 net.cpp:434] conv3_prescale <- conv3
I0417 19:30:31.671527 18229 net.cpp:395] conv3_prescale -> conv3 (in-place)
I0417 19:30:31.671640 18229 net.cpp:150] Setting up conv3_prescale
I0417 19:30:31.671650 18229 net.cpp:157] Top shape: 1024 250 6 6 (9216000)
I0417 19:30:31.671654 18229 net.cpp:165] Memory required for data: 4018855936
I0417 19:30:31.671660 18229 layer_factory.hpp:77] Creating layer conv3_sTanH
I0417 19:30:31.671666 18229 net.cpp:100] Creating Layer conv3_sTanH
I0417 19:30:31.671670 18229 net.cpp:434] conv3_sTanH <- conv3
I0417 19:30:31.671675 18229 net.cpp:395] conv3_sTanH -> conv3 (in-place)
I0417 19:30:31.672663 18229 net.cpp:150] Setting up conv3_sTanH
I0417 19:30:31.672682 18229 net.cpp:157] Top shape: 1024 250 6 6 (9216000)
I0417 19:30:31.672685 18229 net.cpp:165] Memory required for data: 4055719936
I0417 19:30:31.672690 18229 layer_factory.hpp:77] Creating layer conv3_postscale
I0417 19:30:31.672699 18229 net.cpp:100] Creating Layer conv3_postscale
I0417 19:30:31.672704 18229 net.cpp:434] conv3_postscale <- conv3
I0417 19:30:31.672711 18229 net.cpp:395] conv3_postscale -> conv3 (in-place)
I0417 19:30:31.672824 18229 net.cpp:150] Setting up conv3_postscale
I0417 19:30:31.672834 18229 net.cpp:157] Top shape: 1024 250 6 6 (9216000)
I0417 19:30:31.672837 18229 net.cpp:165] Memory required for data: 4092583936
I0417 19:30:31.672843 18229 layer_factory.hpp:77] Creating layer pool3
I0417 19:30:31.672853 18229 net.cpp:100] Creating Layer pool3
I0417 19:30:31.672859 18229 net.cpp:434] pool3 <- conv3
I0417 19:30:31.672865 18229 net.cpp:408] pool3 -> pool3
I0417 19:30:31.672910 18229 net.cpp:150] Setting up pool3
I0417 19:30:31.672919 18229 net.cpp:157] Top shape: 1024 250 3 3 (2304000)
I0417 19:30:31.672921 18229 net.cpp:165] Memory required for data: 4101799936
I0417 19:30:31.672925 18229 layer_factory.hpp:77] Creating layer fc4_300
I0417 19:30:31.672933 18229 net.cpp:100] Creating Layer fc4_300
I0417 19:30:31.672938 18229 net.cpp:434] fc4_300 <- pool3
I0417 19:30:31.672945 18229 net.cpp:408] fc4_300 -> fc4_300
I0417 19:30:31.679646 18229 net.cpp:150] Setting up fc4_300
I0417 19:30:31.679664 18229 net.cpp:157] Top shape: 1024 300 (307200)
I0417 19:30:31.679668 18229 net.cpp:165] Memory required for data: 4103028736
I0417 19:30:31.679677 18229 layer_factory.hpp:77] Creating layer fc4_prescale
I0417 19:30:31.679687 18229 net.cpp:100] Creating Layer fc4_prescale
I0417 19:30:31.679693 18229 net.cpp:434] fc4_prescale <- fc4_300
I0417 19:30:31.679700 18229 net.cpp:395] fc4_prescale -> fc4_300 (in-place)
I0417 19:30:31.679805 18229 net.cpp:150] Setting up fc4_prescale
I0417 19:30:31.679813 18229 net.cpp:157] Top shape: 1024 300 (307200)
I0417 19:30:31.679816 18229 net.cpp:165] Memory required for data: 4104257536
I0417 19:30:31.679822 18229 layer_factory.hpp:77] Creating layer fc4_sTanH
I0417 19:30:31.679828 18229 net.cpp:100] Creating Layer fc4_sTanH
I0417 19:30:31.679834 18229 net.cpp:434] fc4_sTanH <- fc4_300
I0417 19:30:31.679841 18229 net.cpp:395] fc4_sTanH -> fc4_300 (in-place)
I0417 19:30:31.680069 18229 net.cpp:150] Setting up fc4_sTanH
I0417 19:30:31.680084 18229 net.cpp:157] Top shape: 1024 300 (307200)
I0417 19:30:31.680088 18229 net.cpp:165] Memory required for data: 4105486336
I0417 19:30:31.680093 18229 layer_factory.hpp:77] Creating layer fc4_postscale
I0417 19:30:31.680100 18229 net.cpp:100] Creating Layer fc4_postscale
I0417 19:30:31.680106 18229 net.cpp:434] fc4_postscale <- fc4_300
I0417 19:30:31.680114 18229 net.cpp:395] fc4_postscale -> fc4_300 (in-place)
I0417 19:30:31.680225 18229 net.cpp:150] Setting up fc4_postscale
I0417 19:30:31.680233 18229 net.cpp:157] Top shape: 1024 300 (307200)
I0417 19:30:31.680236 18229 net.cpp:165] Memory required for data: 4106715136
I0417 19:30:31.680243 18229 layer_factory.hpp:77] Creating layer fc5_67
I0417 19:30:31.680249 18229 net.cpp:100] Creating Layer fc5_67
I0417 19:30:31.680255 18229 net.cpp:434] fc5_67 <- fc4_300
I0417 19:30:31.680263 18229 net.cpp:408] fc5_67 -> fc5_classes
I0417 19:30:31.682147 18229 net.cpp:150] Setting up fc5_67
I0417 19:30:31.682164 18229 net.cpp:157] Top shape: 1024 67 (68608)
I0417 19:30:31.682168 18229 net.cpp:165] Memory required for data: 4106989568
I0417 19:30:31.682181 18229 layer_factory.hpp:77] Creating layer fc5_classes_fc5_67_0_split
I0417 19:30:31.682191 18229 net.cpp:100] Creating Layer fc5_classes_fc5_67_0_split
I0417 19:30:31.682198 18229 net.cpp:434] fc5_classes_fc5_67_0_split <- fc5_classes
I0417 19:30:31.682204 18229 net.cpp:408] fc5_classes_fc5_67_0_split -> fc5_classes_fc5_67_0_split_0
I0417 19:30:31.682215 18229 net.cpp:408] fc5_classes_fc5_67_0_split -> fc5_classes_fc5_67_0_split_1
I0417 19:30:31.682224 18229 net.cpp:408] fc5_classes_fc5_67_0_split -> fc5_classes_fc5_67_0_split_2
I0417 19:30:31.682282 18229 net.cpp:150] Setting up fc5_classes_fc5_67_0_split
I0417 19:30:31.682291 18229 net.cpp:157] Top shape: 1024 67 (68608)
I0417 19:30:31.682294 18229 net.cpp:157] Top shape: 1024 67 (68608)
I0417 19:30:31.682299 18229 net.cpp:157] Top shape: 1024 67 (68608)
I0417 19:30:31.682302 18229 net.cpp:165] Memory required for data: 4107812864
I0417 19:30:31.682307 18229 layer_factory.hpp:77] Creating layer softmax
I0417 19:30:31.682313 18229 net.cpp:100] Creating Layer softmax
I0417 19:30:31.682318 18229 net.cpp:434] softmax <- fc5_classes_fc5_67_0_split_0
I0417 19:30:31.682325 18229 net.cpp:408] softmax -> softmax
I0417 19:30:31.682617 18229 net.cpp:150] Setting up softmax
I0417 19:30:31.682631 18229 net.cpp:157] Top shape: 1024 67 (68608)
I0417 19:30:31.682634 18229 net.cpp:165] Memory required for data: 4108087296
I0417 19:30:31.682638 18229 layer_factory.hpp:77] Creating layer loss
I0417 19:30:31.682646 18229 net.cpp:100] Creating Layer loss
I0417 19:30:31.682652 18229 net.cpp:434] loss <- softmax
I0417 19:30:31.682657 18229 net.cpp:434] loss <- label_data_1_split_0
I0417 19:30:31.682663 18229 net.cpp:408] loss -> loss
…
