…
I0412 03:42:29.946707  8874 net.cpp:322] The NetState phase (0) differed from the phase (1) specified by a rule in layer accuracy_5
I0412 03:42:29.946905  8874 net.cpp:58] Initializing net from parameters: 
state {
  phase: TRAIN
  level: 0
  stage: ""
}
layer {
  name: "data"
  type: "Data"
  top: "data"
  top: "label"
  include {
    phase: TRAIN
  }
  transform_param {
    scale: 0.0039215689
    mirror: false
    crop_size: 48
    mean_value: 115
    mean_value: 108
    mean_value: 122
  }
  data_param {
    source: "../local_data/lmdb/rtsd-r1/imajust/train/lmdb"
    batch_size: 1024
    backend: LMDB
  }
}
layer {
  name: "conv1"
  type: "Convolution"
  bottom: "data"
  top: "conv1"
  convolution_param {
    num_output: 100
    pad: 0
    kernel_size: 7
    group: 1
    stride: 1
    weight_filler {
      type: "xavier"
    }
  }
}
layer {
  name: "conv1_prescale"
  type: "Scale"
  bottom: "conv1"
  top: "conv1"
  param {
    lr_mult: 0
    decay_mult: 0
  }
  scale_param {
    filler {
      value: 0.6666
    }
    bias_term: false
  }
}
layer {
  name: "conv1_sTanH"
  type: "TanH"
  bottom: "conv1"
  top: "conv1"
}
layer {
  name: "conv1_postscale"
  type: "Scale"
  bottom: "conv1"
  top: "conv1"
  param {
    lr_mult: 0
    decay_mult: 0
  }
  scale_param {
    filler {
      value: 1.7159
    }
    bias_term: false
  }
}
layer {
  name: "pool1"
  type: "Pooling"
  bottom: "conv1"
  top: "pool1"
  pooling_param {
    pool: MAX
    kernel_size: 2
    stride: 2
  }
}
layer {
  name: "conv2"
  type: "Convolution"
  bottom: "pool1"
  top: "conv2"
  convolution_param {
    num_output: 150
    pad: 0
    kernel_size: 4
    group: 1
    stride: 1
    weight_filler {
      type: "xavier"
    }
  }
}
layer {
  name: "conv2_prescale"
  type: "Scale"
  bottom: "conv2"
  top: "conv2"
  param {
    lr_mult: 0
    decay_mult: 0
  }
  scale_param {
    filler {
      value: 0.6666
    }
    bias_term: false
  }
}
layer {
  name: "conv2_sTanH"
  type: "TanH"
  bottom: "conv2"
  top: "conv2"
}
layer {
  name: "conv2_postscale"
  type: "Scale"
  bottom: "conv2"
  top: "conv2"
  param {
    lr_mult: 0
    decay_mult: 0
  }
  scale_param {
    filler {
      value: 1.7159
    }
    bias_term: false
  }
}
layer {
  name: "pool2"
  type: "Pooling"
  bottom: "conv2"
  top: "pool2"
  pooling_param {
    pool: MAX
    kernel_size: 2
    stride: 2
  }
}
layer {
  name: "conv3"
  type: "Convolution"
  bottom: "pool2"
  top: "conv3"
  convolution_param {
    num_output: 250
    pad: 0
    kernel_size: 4
    group: 1
    stride: 1
    weight_filler {
      type: "xavier"
    }
  }
}
layer {
  name: "conv3_prescale"
  type: "Scale"
  bottom: "conv3"
  top: "conv3"
  param {
    lr_mult: 0
    decay_mult: 0
  }
  scale_param {
    filler {
      value: 0.6666
    }
    bias_term: false
  }
}
layer {
  name: "conv3_sTanH"
  type: "TanH"
  bottom: "conv3"
  top: "conv3"
}
layer {
  name: "conv3_postscale"
  type: "Scale"
  bottom: "conv3"
  top: "conv3"
  param {
    lr_mult: 0
    decay_mult: 0
  }
  scale_param {
    filler {
      value: 1.7159
    }
    bias_term: false
  }
}
layer {
  name: "pool3"
  type: "Pooling"
  bottom: "conv3"
  top: "pool3"
  pooling_param {
    pool: MAX
    kernel_size: 2
    stride: 2
  }
}
layer {
  name: "fc4_300"
  type: "InnerProduct"
  bottom: "pool3"
  top: "fc4_300"
  inner_product_param {
    num_output: 300
    weight_filler {
      type: "xavier"
    }
  }
}
layer {
  name: "fc4_prescale"
  type: "Scale"
  bottom: "fc4_300"
  top: "fc4_300"
  param {
    lr_mult: 0
    decay_mult: 0
  }
  scale_param {
    filler {
      value: 0.6666
    }
    bias_term: false
  }
}
layer {
  name: "fc4_sTanH"
  type: "TanH"
  bottom: "fc4_300"
  top: "fc4_300"
}
layer {
  name: "fc4_postscale"
  type: "Scale"
  bottom: "fc4_300"
  top: "fc4_300"
  param {
    lr_mult: 0
    decay_mult: 0
  }
  scale_param {
    filler {
      value: 1.7159
    }
    bias_term: false
  }
}
layer {
  name: "drop4"
  type: "Dropout"
  bottom: "fc4_300"
  top: "fc4_300"
  dropout_param {
    dropout_ratio: 0.1
  }
}
layer {
  name: "fc5_67"
  type: "InnerProduct"
  bottom: "fc4_300"
  top: "fc5_classes"
  inner_product_param {
    num_output: 67
    weight_filler {
      type: "xavier"
    }
  }
}
layer {
  name: "loss"
  type: "SoftmaxWithLoss"
  bottom: "fc5_classes"
  bottom: "label"
  top: "loss"
}
I0412 03:42:29.947037  8874 layer_factory.hpp:77] Creating layer data
I0412 03:42:29.948585  8874 net.cpp:100] Creating Layer data
I0412 03:42:29.948606  8874 net.cpp:408] data -> data
I0412 03:42:29.948632  8874 net.cpp:408] data -> label
I0412 03:42:29.963016  9014 db_lmdb.cpp:35] Opened lmdb ../local_data/lmdb/rtsd-r1/imajust/train/lmdb
I0412 03:42:29.986814  8874 data_layer.cpp:41] output data size: 1024,3,48,48
I0412 03:42:30.045580  8874 net.cpp:150] Setting up data
I0412 03:42:30.045626  8874 net.cpp:157] Top shape: 1024 3 48 48 (7077888)
I0412 03:42:30.045634  8874 net.cpp:157] Top shape: 1024 (1024)
I0412 03:42:30.045637  8874 net.cpp:165] Memory required for data: 28315648
I0412 03:42:30.045650  8874 layer_factory.hpp:77] Creating layer conv1
I0412 03:42:30.045682  8874 net.cpp:100] Creating Layer conv1
I0412 03:42:30.045689  8874 net.cpp:434] conv1 <- data
I0412 03:42:30.045708  8874 net.cpp:408] conv1 -> conv1
I0412 03:42:30.415493  8874 net.cpp:150] Setting up conv1
I0412 03:42:30.415527  8874 net.cpp:157] Top shape: 1024 100 42 42 (180633600)
I0412 03:42:30.415532  8874 net.cpp:165] Memory required for data: 750850048
I0412 03:42:30.415560  8874 layer_factory.hpp:77] Creating layer conv1_prescale
I0412 03:42:30.415577  8874 net.cpp:100] Creating Layer conv1_prescale
I0412 03:42:30.415582  8874 net.cpp:434] conv1_prescale <- conv1
I0412 03:42:30.415591  8874 net.cpp:395] conv1_prescale -> conv1 (in-place)
I0412 03:42:30.415735  8874 net.cpp:150] Setting up conv1_prescale
I0412 03:42:30.415746  8874 net.cpp:157] Top shape: 1024 100 42 42 (180633600)
I0412 03:42:30.415750  8874 net.cpp:165] Memory required for data: 1473384448
I0412 03:42:30.415758  8874 layer_factory.hpp:77] Creating layer conv1_sTanH
I0412 03:42:30.415769  8874 net.cpp:100] Creating Layer conv1_sTanH
I0412 03:42:30.415776  8874 net.cpp:434] conv1_sTanH <- conv1
I0412 03:42:30.415781  8874 net.cpp:395] conv1_sTanH -> conv1 (in-place)
I0412 03:42:30.416060  8874 net.cpp:150] Setting up conv1_sTanH
I0412 03:42:30.416079  8874 net.cpp:157] Top shape: 1024 100 42 42 (180633600)
I0412 03:42:30.416084  8874 net.cpp:165] Memory required for data: 2195918848
I0412 03:42:30.416088  8874 layer_factory.hpp:77] Creating layer conv1_postscale
I0412 03:42:30.416098  8874 net.cpp:100] Creating Layer conv1_postscale
I0412 03:42:30.416102  8874 net.cpp:434] conv1_postscale <- conv1
I0412 03:42:30.416110  8874 net.cpp:395] conv1_postscale -> conv1 (in-place)
I0412 03:42:30.416241  8874 net.cpp:150] Setting up conv1_postscale
I0412 03:42:30.416252  8874 net.cpp:157] Top shape: 1024 100 42 42 (180633600)
I0412 03:42:30.416255  8874 net.cpp:165] Memory required for data: 2918453248
I0412 03:42:30.416261  8874 layer_factory.hpp:77] Creating layer pool1
I0412 03:42:30.416270  8874 net.cpp:100] Creating Layer pool1
I0412 03:42:30.416275  8874 net.cpp:434] pool1 <- conv1
I0412 03:42:30.416283  8874 net.cpp:408] pool1 -> pool1
I0412 03:42:30.416373  8874 net.cpp:150] Setting up pool1
I0412 03:42:30.416386  8874 net.cpp:157] Top shape: 1024 100 21 21 (45158400)
I0412 03:42:30.416393  8874 net.cpp:165] Memory required for data: 3099086848
I0412 03:42:30.416398  8874 layer_factory.hpp:77] Creating layer conv2
I0412 03:42:30.416411  8874 net.cpp:100] Creating Layer conv2
I0412 03:42:30.416417  8874 net.cpp:434] conv2 <- pool1
I0412 03:42:30.416424  8874 net.cpp:408] conv2 -> conv2
I0412 03:42:30.440165  8874 net.cpp:150] Setting up conv2
I0412 03:42:30.440193  8874 net.cpp:157] Top shape: 1024 150 18 18 (49766400)
I0412 03:42:30.440197  8874 net.cpp:165] Memory required for data: 3298152448
I0412 03:42:30.440213  8874 layer_factory.hpp:77] Creating layer conv2_prescale
I0412 03:42:30.440227  8874 net.cpp:100] Creating Layer conv2_prescale
I0412 03:42:30.440233  8874 net.cpp:434] conv2_prescale <- conv2
I0412 03:42:30.440241  8874 net.cpp:395] conv2_prescale -> conv2 (in-place)
I0412 03:42:30.440392  8874 net.cpp:150] Setting up conv2_prescale
I0412 03:42:30.440404  8874 net.cpp:157] Top shape: 1024 150 18 18 (49766400)
I0412 03:42:30.440407  8874 net.cpp:165] Memory required for data: 3497218048
I0412 03:42:30.440413  8874 layer_factory.hpp:77] Creating layer conv2_sTanH
I0412 03:42:30.440424  8874 net.cpp:100] Creating Layer conv2_sTanH
I0412 03:42:30.440430  8874 net.cpp:434] conv2_sTanH <- conv2
I0412 03:42:30.440436  8874 net.cpp:395] conv2_sTanH -> conv2 (in-place)
I0412 03:42:30.442435  8874 net.cpp:150] Setting up conv2_sTanH
I0412 03:42:30.442457  8874 net.cpp:157] Top shape: 1024 150 18 18 (49766400)
I0412 03:42:30.442462  8874 net.cpp:165] Memory required for data: 3696283648
I0412 03:42:30.442467  8874 layer_factory.hpp:77] Creating layer conv2_postscale
I0412 03:42:30.442477  8874 net.cpp:100] Creating Layer conv2_postscale
I0412 03:42:30.442481  8874 net.cpp:434] conv2_postscale <- conv2
I0412 03:42:30.442490  8874 net.cpp:395] conv2_postscale -> conv2 (in-place)
I0412 03:42:30.442623  8874 net.cpp:150] Setting up conv2_postscale
I0412 03:42:30.442636  8874 net.cpp:157] Top shape: 1024 150 18 18 (49766400)
I0412 03:42:30.442641  8874 net.cpp:165] Memory required for data: 3895349248
I0412 03:42:30.442646  8874 layer_factory.hpp:77] Creating layer pool2
I0412 03:42:30.442656  8874 net.cpp:100] Creating Layer pool2
I0412 03:42:30.442661  8874 net.cpp:434] pool2 <- conv2
I0412 03:42:30.442667  8874 net.cpp:408] pool2 -> pool2
I0412 03:42:30.442720  8874 net.cpp:150] Setting up pool2
I0412 03:42:30.442729  8874 net.cpp:157] Top shape: 1024 150 9 9 (12441600)
I0412 03:42:30.442734  8874 net.cpp:165] Memory required for data: 3945115648
I0412 03:42:30.442737  8874 layer_factory.hpp:77] Creating layer conv3
I0412 03:42:30.442749  8874 net.cpp:100] Creating Layer conv3
I0412 03:42:30.442755  8874 net.cpp:434] conv3 <- pool2
I0412 03:42:30.442762  8874 net.cpp:408] conv3 -> conv3
I0412 03:42:30.451352  8874 net.cpp:150] Setting up conv3
I0412 03:42:30.451378  8874 net.cpp:157] Top shape: 1024 250 6 6 (9216000)
I0412 03:42:30.451383  8874 net.cpp:165] Memory required for data: 3981979648
I0412 03:42:30.451397  8874 layer_factory.hpp:77] Creating layer conv3_prescale
I0412 03:42:30.451409  8874 net.cpp:100] Creating Layer conv3_prescale
I0412 03:42:30.451413  8874 net.cpp:434] conv3_prescale <- conv3
I0412 03:42:30.451421  8874 net.cpp:395] conv3_prescale -> conv3 (in-place)
I0412 03:42:30.451548  8874 net.cpp:150] Setting up conv3_prescale
I0412 03:42:30.451560  8874 net.cpp:157] Top shape: 1024 250 6 6 (9216000)
I0412 03:42:30.451565  8874 net.cpp:165] Memory required for data: 4018843648
I0412 03:42:30.451570  8874 layer_factory.hpp:77] Creating layer conv3_sTanH
I0412 03:42:30.451577  8874 net.cpp:100] Creating Layer conv3_sTanH
I0412 03:42:30.451581  8874 net.cpp:434] conv3_sTanH <- conv3
I0412 03:42:30.451588  8874 net.cpp:395] conv3_sTanH -> conv3 (in-place)
I0412 03:42:30.453189  8874 net.cpp:150] Setting up conv3_sTanH
I0412 03:42:30.453209  8874 net.cpp:157] Top shape: 1024 250 6 6 (9216000)
I0412 03:42:30.453214  8874 net.cpp:165] Memory required for data: 4055707648
I0412 03:42:30.453239  8874 layer_factory.hpp:77] Creating layer conv3_postscale
I0412 03:42:30.453253  8874 net.cpp:100] Creating Layer conv3_postscale
I0412 03:42:30.453258  8874 net.cpp:434] conv3_postscale <- conv3
I0412 03:42:30.453265  8874 net.cpp:395] conv3_postscale -> conv3 (in-place)
I0412 03:42:30.453397  8874 net.cpp:150] Setting up conv3_postscale
I0412 03:42:30.453409  8874 net.cpp:157] Top shape: 1024 250 6 6 (9216000)
I0412 03:42:30.453413  8874 net.cpp:165] Memory required for data: 4092571648
I0412 03:42:30.453419  8874 layer_factory.hpp:77] Creating layer pool3
I0412 03:42:30.453426  8874 net.cpp:100] Creating Layer pool3
I0412 03:42:30.453433  8874 net.cpp:434] pool3 <- conv3
I0412 03:42:30.453440  8874 net.cpp:408] pool3 -> pool3
I0412 03:42:30.453490  8874 net.cpp:150] Setting up pool3
I0412 03:42:30.453500  8874 net.cpp:157] Top shape: 1024 250 3 3 (2304000)
I0412 03:42:30.453503  8874 net.cpp:165] Memory required for data: 4101787648
I0412 03:42:30.453507  8874 layer_factory.hpp:77] Creating layer fc4_300
I0412 03:42:30.453521  8874 net.cpp:100] Creating Layer fc4_300
I0412 03:42:30.453527  8874 net.cpp:434] fc4_300 <- pool3
I0412 03:42:30.453533  8874 net.cpp:408] fc4_300 -> fc4_300
I0412 03:42:30.460499  8874 net.cpp:150] Setting up fc4_300
I0412 03:42:30.460531  8874 net.cpp:157] Top shape: 1024 300 (307200)
I0412 03:42:30.460536  8874 net.cpp:165] Memory required for data: 4103016448
I0412 03:42:30.460548  8874 layer_factory.hpp:77] Creating layer fc4_prescale
I0412 03:42:30.460563  8874 net.cpp:100] Creating Layer fc4_prescale
I0412 03:42:30.460569  8874 net.cpp:434] fc4_prescale <- fc4_300
I0412 03:42:30.460577  8874 net.cpp:395] fc4_prescale -> fc4_300 (in-place)
I0412 03:42:30.460700  8874 net.cpp:150] Setting up fc4_prescale
I0412 03:42:30.460710  8874 net.cpp:157] Top shape: 1024 300 (307200)
I0412 03:42:30.460713  8874 net.cpp:165] Memory required for data: 4104245248
I0412 03:42:30.460719  8874 layer_factory.hpp:77] Creating layer fc4_sTanH
I0412 03:42:30.460726  8874 net.cpp:100] Creating Layer fc4_sTanH
I0412 03:42:30.460731  8874 net.cpp:434] fc4_sTanH <- fc4_300
I0412 03:42:30.460736  8874 net.cpp:395] fc4_sTanH -> fc4_300 (in-place)
I0412 03:42:30.461021  8874 net.cpp:150] Setting up fc4_sTanH
I0412 03:42:30.461035  8874 net.cpp:157] Top shape: 1024 300 (307200)
I0412 03:42:30.461038  8874 net.cpp:165] Memory required for data: 4105474048
I0412 03:42:30.461042  8874 layer_factory.hpp:77] Creating layer fc4_postscale
I0412 03:42:30.461052  8874 net.cpp:100] Creating Layer fc4_postscale
I0412 03:42:30.461056  8874 net.cpp:434] fc4_postscale <- fc4_300
I0412 03:42:30.461062  8874 net.cpp:395] fc4_postscale -> fc4_300 (in-place)
I0412 03:42:30.461194  8874 net.cpp:150] Setting up fc4_postscale
I0412 03:42:30.461205  8874 net.cpp:157] Top shape: 1024 300 (307200)
I0412 03:42:30.461207  8874 net.cpp:165] Memory required for data: 4106702848
I0412 03:42:30.461213  8874 layer_factory.hpp:77] Creating layer drop4
I0412 03:42:30.461220  8874 net.cpp:100] Creating Layer drop4
I0412 03:42:30.461225  8874 net.cpp:434] drop4 <- fc4_300
I0412 03:42:30.461231  8874 net.cpp:395] drop4 -> fc4_300 (in-place)
I0412 03:42:30.461266  8874 net.cpp:150] Setting up drop4
I0412 03:42:30.461274  8874 net.cpp:157] Top shape: 1024 300 (307200)
I0412 03:42:30.461277  8874 net.cpp:165] Memory required for data: 4107931648
I0412 03:42:30.461282  8874 layer_factory.hpp:77] Creating layer fc5_67
I0412 03:42:30.461292  8874 net.cpp:100] Creating Layer fc5_67
I0412 03:42:30.461298  8874 net.cpp:434] fc5_67 <- fc4_300
I0412 03:42:30.461304  8874 net.cpp:408] fc5_67 -> fc5_classes
I0412 03:42:30.463613  8874 net.cpp:150] Setting up fc5_67
I0412 03:42:30.463631  8874 net.cpp:157] Top shape: 1024 67 (68608)
I0412 03:42:30.463635  8874 net.cpp:165] Memory required for data: 4108206080
I0412 03:42:30.463651  8874 layer_factory.hpp:77] Creating layer loss
I0412 03:42:30.463660  8874 net.cpp:100] Creating Layer loss
I0412 03:42:30.463665  8874 net.cpp:434] loss <- fc5_classes
I0412 03:42:30.463690  8874 net.cpp:434] loss <- label
I0412 03:42:30.463701  8874 net.cpp:408] loss -> loss
I0412 03:42:30.463721  8874 layer_factory.hpp:77] Creating layer loss
…
I0412 03:42:30.464823  8874 solver.cpp:193] Creating test net (#0) specified by test_net file: ./Prototxt/experiment_9/rtsd-r1/imajust/trial_3/test.prototxt
I0412 03:42:30.465057  8874 net.cpp:58] Initializing net from parameters: 
state {
  phase: TEST
}
layer {
  name: "data"
  type: "Data"
  top: "data"
  top: "label"
  include {
    phase: TEST
  }
  transform_param {
    scale: 0.0039215689
    mirror: false
    crop_size: 48
    mean_value: 109
    mean_value: 106
    mean_value: 126
  }
  data_param {
    source: "../local_data/lmdb/rtsd-r1/imajust/test/lmdb"
    batch_size: 1024
    backend: LMDB
  }
}
layer {
  name: "conv1"
  type: "Convolution"
  bottom: "data"
  top: "conv1"
  convolution_param {
    num_output: 100
    pad: 0
    kernel_size: 7
    group: 1
    stride: 1
    weight_filler {
      type: "xavier"
    }
  }
}
layer {
  name: "conv1_prescale"
  type: "Scale"
  bottom: "conv1"
  top: "conv1"
  param {
    lr_mult: 0
    decay_mult: 0
  }
  scale_param {
    filler {
      value: 0.6666
    }
    bias_term: false
  }
}
layer {
  name: "conv1_sTanH"
  type: "TanH"
  bottom: "conv1"
  top: "conv1"
}
layer {
  name: "conv1_postscale"
  type: "Scale"
  bottom: "conv1"
  top: "conv1"
  param {
    lr_mult: 0
    decay_mult: 0
  }
  scale_param {
    filler {
      value: 1.7159
    }
    bias_term: false
  }
}
layer {
  name: "pool1"
  type: "Pooling"
  bottom: "conv1"
  top: "pool1"
  pooling_param {
    pool: MAX
    kernel_size: 2
    stride: 2
  }
}
layer {
  name: "conv2"
  type: "Convolution"
  bottom: "pool1"
  top: "conv2"
  convolution_param {
    num_output: 150
    pad: 0
    kernel_size: 4
    group: 1
    stride: 1
    weight_filler {
      type: "xavier"
    }
  }
}
layer {
  name: "conv2_prescale"
  type: "Scale"
  bottom: "conv2"
  top: "conv2"
  param {
    lr_mult: 0
    decay_mult: 0
  }
  scale_param {
    filler {
      value: 0.6666
    }
    bias_term: false
  }
}
layer {
  name: "conv2_sTanH"
  type: "TanH"
  bottom: "conv2"
  top: "conv2"
}
layer {
  name: "conv2_postscale"
  type: "Scale"
  bottom: "conv2"
  top: "conv2"
  param {
    lr_mult: 0
    decay_mult: 0
  }
  scale_param {
    filler {
      value: 1.7159
    }
    bias_term: false
  }
}
layer {
  name: "pool2"
  type: "Pooling"
  bottom: "conv2"
  top: "pool2"
  pooling_param {
    pool: MAX
    kernel_size: 2
    stride: 2
  }
}
layer {
  name: "conv3"
  type: "Convolution"
  bottom: "pool2"
  top: "conv3"
  convolution_param {
    num_output: 250
    pad: 0
    kernel_size: 4
    group: 1
    stride: 1
    weight_filler {
      type: "xavier"
    }
  }
}
layer {
  name: "conv3_prescale"
  type: "Scale"
  bottom: "conv3"
  top: "conv3"
  param {
    lr_mult: 0
    decay_mult: 0
  }
  scale_param {
    filler {
      value: 0.6666
    }
    bias_term: false
  }
}
layer {
  name: "conv3_sTanH"
  type: "TanH"
  bottom: "conv3"
  top: "conv3"
}
layer {
  name: "conv3_postscale"
  type: "Scale"
  bottom: "conv3"
  top: "conv3"
  param {
    lr_mult: 0
    decay_mult: 0
  }
  scale_param {
    filler {
      value: 1.7159
    }
    bias_term: false
  }
}
layer {
  name: "pool3"
  type: "Pooling"
  bottom: "conv3"
  top: "pool3"
  pooling_param {
    pool: MAX
    kernel_size: 2
    stride: 2
  }
}
layer {
  name: "fc4_300"
  type: "InnerProduct"
  bottom: "pool3"
  top: "fc4_300"
  inner_product_param {
    num_output: 300
    weight_filler {
      type: "xavier"
    }
  }
}
layer {
  name: "fc4_prescale"
  type: "Scale"
  bottom: "fc4_300"
  top: "fc4_300"
  param {
    lr_mult: 0
    decay_mult: 0
  }
  scale_param {
    filler {
      value: 0.6666
    }
    bias_term: false
  }
}
layer {
  name: "fc4_sTanH"
  type: "TanH"
  bottom: "fc4_300"
  top: "fc4_300"
}
layer {
  name: "fc4_postscale"
  type: "Scale"
  bottom: "fc4_300"
  top: "fc4_300"
  param {
    lr_mult: 0
    decay_mult: 0
  }
  scale_param {
    filler {
      value: 1.7159
    }
    bias_term: false
  }
}
layer {
  name: "drop4"
  type: "Dropout"
  bottom: "fc4_300"
  top: "fc4_300"
  dropout_param {
    dropout_ratio: 0.1
  }
}
layer {
  name: "fc5_67"
  type: "InnerProduct"
  bottom: "fc4_300"
  top: "fc5_classes"
  inner_product_param {
    num_output: 67
    weight_filler {
      type: "xavier"
    }
  }
}
layer {
  name: "loss"
  type: "SoftmaxWithLoss"
  bottom: "fc5_classes"
  bottom: "label"
  top: "loss"
}
layer {
  name: "accuracy_1"
  type: "Accuracy"
  bottom: "fc5_classes"
  bottom: "label"
  top: "accuracy_1"
  include {
    phase: TEST
  }
  accuracy_param {
    top_k: 1
  }
}
layer {
  name: "accuracy_5"
  type: "Accuracy"
  bottom: "fc5_classes"
  bottom: "label"
  top: "accuracy_5"
  include {
    phase: TEST
  }
  accuracy_param {
    top_k: 5
  }
}
I0412 03:42:30.465215  8874 layer_factory.hpp:77] Creating layer data
I0412 03:42:30.466032  8874 net.cpp:100] Creating Layer data
I0412 03:42:30.466048  8874 net.cpp:408] data -> data
I0412 03:42:30.466061  8874 net.cpp:408] data -> label
I0412 03:42:30.467229  9064 db_lmdb.cpp:35] Opened lmdb ../local_data/lmdb/rtsd-r1/imajust/test/lmdb
I0412 03:42:30.467437  8874 data_layer.cpp:41] output data size: 1024,3,48,48
I0412 03:42:30.526463  8874 net.cpp:150] Setting up data
I0412 03:42:30.526497  8874 net.cpp:157] Top shape: 1024 3 48 48 (7077888)
I0412 03:42:30.526504  8874 net.cpp:157] Top shape: 1024 (1024)
I0412 03:42:30.526507  8874 net.cpp:165] Memory required for data: 28315648
I0412 03:42:30.526515  8874 layer_factory.hpp:77] Creating layer label_data_1_split
I0412 03:42:30.526532  8874 net.cpp:100] Creating Layer label_data_1_split
I0412 03:42:30.526537  8874 net.cpp:434] label_data_1_split <- label
I0412 03:42:30.526551  8874 net.cpp:408] label_data_1_split -> label_data_1_split_0
I0412 03:42:30.526567  8874 net.cpp:408] label_data_1_split -> label_data_1_split_1
I0412 03:42:30.526602  8874 net.cpp:408] label_data_1_split -> label_data_1_split_2
I0412 03:42:30.526762  8874 net.cpp:150] Setting up label_data_1_split
I0412 03:42:30.526775  8874 net.cpp:157] Top shape: 1024 (1024)
I0412 03:42:30.526780  8874 net.cpp:157] Top shape: 1024 (1024)
I0412 03:42:30.526785  8874 net.cpp:157] Top shape: 1024 (1024)
I0412 03:42:30.526788  8874 net.cpp:165] Memory required for data: 28327936
I0412 03:42:30.526793  8874 layer_factory.hpp:77] Creating layer conv1
I0412 03:42:30.526809  8874 net.cpp:100] Creating Layer conv1
I0412 03:42:30.526815  8874 net.cpp:434] conv1 <- data
I0412 03:42:30.526824  8874 net.cpp:408] conv1 -> conv1
I0412 03:42:30.529551  8874 net.cpp:150] Setting up conv1
I0412 03:42:30.529573  8874 net.cpp:157] Top shape: 1024 100 42 42 (180633600)
I0412 03:42:30.529579  8874 net.cpp:165] Memory required for data: 750862336
I0412 03:42:30.529594  8874 layer_factory.hpp:77] Creating layer conv1_prescale
I0412 03:42:30.529610  8874 net.cpp:100] Creating Layer conv1_prescale
I0412 03:42:30.529618  8874 net.cpp:434] conv1_prescale <- conv1
I0412 03:42:30.529624  8874 net.cpp:395] conv1_prescale -> conv1 (in-place)
I0412 03:42:30.529762  8874 net.cpp:150] Setting up conv1_prescale
I0412 03:42:30.529773  8874 net.cpp:157] Top shape: 1024 100 42 42 (180633600)
I0412 03:42:30.529778  8874 net.cpp:165] Memory required for data: 1473396736
I0412 03:42:30.529788  8874 layer_factory.hpp:77] Creating layer conv1_sTanH
I0412 03:42:30.529803  8874 net.cpp:100] Creating Layer conv1_sTanH
I0412 03:42:30.529809  8874 net.cpp:434] conv1_sTanH <- conv1
I0412 03:42:30.529815  8874 net.cpp:395] conv1_sTanH -> conv1 (in-place)
I0412 03:42:30.530073  8874 net.cpp:150] Setting up conv1_sTanH
I0412 03:42:30.530088  8874 net.cpp:157] Top shape: 1024 100 42 42 (180633600)
I0412 03:42:30.530093  8874 net.cpp:165] Memory required for data: 2195931136
I0412 03:42:30.530098  8874 layer_factory.hpp:77] Creating layer conv1_postscale
I0412 03:42:30.530108  8874 net.cpp:100] Creating Layer conv1_postscale
I0412 03:42:30.530114  8874 net.cpp:434] conv1_postscale <- conv1
I0412 03:42:30.530122  8874 net.cpp:395] conv1_postscale -> conv1 (in-place)
I0412 03:42:30.530267  8874 net.cpp:150] Setting up conv1_postscale
I0412 03:42:30.530278  8874 net.cpp:157] Top shape: 1024 100 42 42 (180633600)
I0412 03:42:30.530283  8874 net.cpp:165] Memory required for data: 2918465536
I0412 03:42:30.530289  8874 layer_factory.hpp:77] Creating layer pool1
I0412 03:42:30.530303  8874 net.cpp:100] Creating Layer pool1
I0412 03:42:30.530308  8874 net.cpp:434] pool1 <- conv1
I0412 03:42:30.530316  8874 net.cpp:408] pool1 -> pool1
I0412 03:42:30.530374  8874 net.cpp:150] Setting up pool1
I0412 03:42:30.530382  8874 net.cpp:157] Top shape: 1024 100 21 21 (45158400)
I0412 03:42:30.530387  8874 net.cpp:165] Memory required for data: 3099099136
I0412 03:42:30.530391  8874 layer_factory.hpp:77] Creating layer conv2
I0412 03:42:30.530402  8874 net.cpp:100] Creating Layer conv2
I0412 03:42:30.530408  8874 net.cpp:434] conv2 <- pool1
I0412 03:42:30.530418  8874 net.cpp:408] conv2 -> conv2
I0412 03:42:30.542768  8874 net.cpp:150] Setting up conv2
I0412 03:42:30.542795  8874 net.cpp:157] Top shape: 1024 150 18 18 (49766400)
I0412 03:42:30.542800  8874 net.cpp:165] Memory required for data: 3298164736
I0412 03:42:30.542817  8874 layer_factory.hpp:77] Creating layer conv2_prescale
I0412 03:42:30.542837  8874 net.cpp:100] Creating Layer conv2_prescale
I0412 03:42:30.542845  8874 net.cpp:434] conv2_prescale <- conv2
I0412 03:42:30.542853  8874 net.cpp:395] conv2_prescale -> conv2 (in-place)
I0412 03:42:30.543000  8874 net.cpp:150] Setting up conv2_prescale
I0412 03:42:30.543012  8874 net.cpp:157] Top shape: 1024 150 18 18 (49766400)
I0412 03:42:30.543017  8874 net.cpp:165] Memory required for data: 3497230336
I0412 03:42:30.543023  8874 layer_factory.hpp:77] Creating layer conv2_sTanH
I0412 03:42:30.543035  8874 net.cpp:100] Creating Layer conv2_sTanH
I0412 03:42:30.543040  8874 net.cpp:434] conv2_sTanH <- conv2
I0412 03:42:30.543047  8874 net.cpp:395] conv2_sTanH -> conv2 (in-place)
I0412 03:42:30.549068  8874 net.cpp:150] Setting up conv2_sTanH
I0412 03:42:30.549101  8874 net.cpp:157] Top shape: 1024 150 18 18 (49766400)
I0412 03:42:30.549108  8874 net.cpp:165] Memory required for data: 3696295936
I0412 03:42:30.549113  8874 layer_factory.hpp:77] Creating layer conv2_postscale
I0412 03:42:30.549124  8874 net.cpp:100] Creating Layer conv2_postscale
I0412 03:42:30.549130  8874 net.cpp:434] conv2_postscale <- conv2
I0412 03:42:30.549139  8874 net.cpp:395] conv2_postscale -> conv2 (in-place)
I0412 03:42:30.549281  8874 net.cpp:150] Setting up conv2_postscale
I0412 03:42:30.549295  8874 net.cpp:157] Top shape: 1024 150 18 18 (49766400)
I0412 03:42:30.549301  8874 net.cpp:165] Memory required for data: 3895361536
I0412 03:42:30.549307  8874 layer_factory.hpp:77] Creating layer pool2
I0412 03:42:30.549317  8874 net.cpp:100] Creating Layer pool2
I0412 03:42:30.549324  8874 net.cpp:434] pool2 <- conv2
I0412 03:42:30.549331  8874 net.cpp:408] pool2 -> pool2
I0412 03:42:30.549396  8874 net.cpp:150] Setting up pool2
I0412 03:42:30.549409  8874 net.cpp:157] Top shape: 1024 150 9 9 (12441600)
I0412 03:42:30.549414  8874 net.cpp:165] Memory required for data: 3945127936
I0412 03:42:30.549418  8874 layer_factory.hpp:77] Creating layer conv3
I0412 03:42:30.549430  8874 net.cpp:100] Creating Layer conv3
I0412 03:42:30.549435  8874 net.cpp:434] conv3 <- pool2
I0412 03:42:30.549443  8874 net.cpp:408] conv3 -> conv3
I0412 03:42:30.556776  8874 net.cpp:150] Setting up conv3
I0412 03:42:30.556802  8874 net.cpp:157] Top shape: 1024 250 6 6 (9216000)
I0412 03:42:30.556807  8874 net.cpp:165] Memory required for data: 3981991936
I0412 03:42:30.556821  8874 layer_factory.hpp:77] Creating layer conv3_prescale
I0412 03:42:30.556838  8874 net.cpp:100] Creating Layer conv3_prescale
I0412 03:42:30.556844  8874 net.cpp:434] conv3_prescale <- conv3
I0412 03:42:30.556851  8874 net.cpp:395] conv3_prescale -> conv3 (in-place)
I0412 03:42:30.556985  8874 net.cpp:150] Setting up conv3_prescale
I0412 03:42:30.556998  8874 net.cpp:157] Top shape: 1024 250 6 6 (9216000)
I0412 03:42:30.557003  8874 net.cpp:165] Memory required for data: 4018855936
I0412 03:42:30.557008  8874 layer_factory.hpp:77] Creating layer conv3_sTanH
I0412 03:42:30.557015  8874 net.cpp:100] Creating Layer conv3_sTanH
I0412 03:42:30.557020  8874 net.cpp:434] conv3_sTanH <- conv3
I0412 03:42:30.557029  8874 net.cpp:395] conv3_sTanH -> conv3 (in-place)
I0412 03:42:30.558090  8874 net.cpp:150] Setting up conv3_sTanH
I0412 03:42:30.558111  8874 net.cpp:157] Top shape: 1024 250 6 6 (9216000)
I0412 03:42:30.558118  8874 net.cpp:165] Memory required for data: 4055719936
I0412 03:42:30.558122  8874 layer_factory.hpp:77] Creating layer conv3_postscale
I0412 03:42:30.558131  8874 net.cpp:100] Creating Layer conv3_postscale
I0412 03:42:30.558137  8874 net.cpp:434] conv3_postscale <- conv3
I0412 03:42:30.558145  8874 net.cpp:395] conv3_postscale -> conv3 (in-place)
I0412 03:42:30.558280  8874 net.cpp:150] Setting up conv3_postscale
I0412 03:42:30.558291  8874 net.cpp:157] Top shape: 1024 250 6 6 (9216000)
I0412 03:42:30.558296  8874 net.cpp:165] Memory required for data: 4092583936
I0412 03:42:30.558302  8874 layer_factory.hpp:77] Creating layer pool3
I0412 03:42:30.558315  8874 net.cpp:100] Creating Layer pool3
I0412 03:42:30.558321  8874 net.cpp:434] pool3 <- conv3
I0412 03:42:30.558329  8874 net.cpp:408] pool3 -> pool3
I0412 03:42:30.558383  8874 net.cpp:150] Setting up pool3
I0412 03:42:30.558394  8874 net.cpp:157] Top shape: 1024 250 3 3 (2304000)
I0412 03:42:30.558399  8874 net.cpp:165] Memory required for data: 4101799936
I0412 03:42:30.558403  8874 layer_factory.hpp:77] Creating layer fc4_300
I0412 03:42:30.558413  8874 net.cpp:100] Creating Layer fc4_300
I0412 03:42:30.558419  8874 net.cpp:434] fc4_300 <- pool3
I0412 03:42:30.558425  8874 net.cpp:408] fc4_300 -> fc4_300
I0412 03:42:30.565379  8874 net.cpp:150] Setting up fc4_300
I0412 03:42:30.565402  8874 net.cpp:157] Top shape: 1024 300 (307200)
I0412 03:42:30.565407  8874 net.cpp:165] Memory required for data: 4103028736
I0412 03:42:30.565439  8874 layer_factory.hpp:77] Creating layer fc4_prescale
I0412 03:42:30.565452  8874 net.cpp:100] Creating Layer fc4_prescale
I0412 03:42:30.565459  8874 net.cpp:434] fc4_prescale <- fc4_300
I0412 03:42:30.565469  8874 net.cpp:395] fc4_prescale -> fc4_300 (in-place)
I0412 03:42:30.565595  8874 net.cpp:150] Setting up fc4_prescale
I0412 03:42:30.565606  8874 net.cpp:157] Top shape: 1024 300 (307200)
I0412 03:42:30.565611  8874 net.cpp:165] Memory required for data: 4104257536
I0412 03:42:30.565618  8874 layer_factory.hpp:77] Creating layer fc4_sTanH
I0412 03:42:30.565623  8874 net.cpp:100] Creating Layer fc4_sTanH
I0412 03:42:30.565629  8874 net.cpp:434] fc4_sTanH <- fc4_300
I0412 03:42:30.565636  8874 net.cpp:395] fc4_sTanH -> fc4_300 (in-place)
I0412 03:42:30.565894  8874 net.cpp:150] Setting up fc4_sTanH
I0412 03:42:30.565908  8874 net.cpp:157] Top shape: 1024 300 (307200)
I0412 03:42:30.565914  8874 net.cpp:165] Memory required for data: 4105486336
I0412 03:42:30.565918  8874 layer_factory.hpp:77] Creating layer fc4_postscale
I0412 03:42:30.565927  8874 net.cpp:100] Creating Layer fc4_postscale
I0412 03:42:30.565932  8874 net.cpp:434] fc4_postscale <- fc4_300
I0412 03:42:30.565939  8874 net.cpp:395] fc4_postscale -> fc4_300 (in-place)
I0412 03:42:30.566076  8874 net.cpp:150] Setting up fc4_postscale
I0412 03:42:30.566087  8874 net.cpp:157] Top shape: 1024 300 (307200)
I0412 03:42:30.566092  8874 net.cpp:165] Memory required for data: 4106715136
I0412 03:42:30.566097  8874 layer_factory.hpp:77] Creating layer drop4
I0412 03:42:30.566109  8874 net.cpp:100] Creating Layer drop4
I0412 03:42:30.566115  8874 net.cpp:434] drop4 <- fc4_300
I0412 03:42:30.566123  8874 net.cpp:395] drop4 -> fc4_300 (in-place)
I0412 03:42:30.566156  8874 net.cpp:150] Setting up drop4
I0412 03:42:30.566166  8874 net.cpp:157] Top shape: 1024 300 (307200)
I0412 03:42:30.566171  8874 net.cpp:165] Memory required for data: 4107943936
I0412 03:42:30.566179  8874 layer_factory.hpp:77] Creating layer fc5_67
I0412 03:42:30.566190  8874 net.cpp:100] Creating Layer fc5_67
I0412 03:42:30.566195  8874 net.cpp:434] fc5_67 <- fc4_300
I0412 03:42:30.566201  8874 net.cpp:408] fc5_67 -> fc5_classes
I0412 03:42:30.566516  8874 net.cpp:150] Setting up fc5_67
I0412 03:42:30.566526  8874 net.cpp:157] Top shape: 1024 67 (68608)
I0412 03:42:30.566529  8874 net.cpp:165] Memory required for data: 4108218368
I0412 03:42:30.566545  8874 layer_factory.hpp:77] Creating layer fc5_classes_fc5_67_0_split
I0412 03:42:30.566556  8874 net.cpp:100] Creating Layer fc5_classes_fc5_67_0_split
I0412 03:42:30.566561  8874 net.cpp:434] fc5_classes_fc5_67_0_split <- fc5_classes
I0412 03:42:30.566568  8874 net.cpp:408] fc5_classes_fc5_67_0_split -> fc5_classes_fc5_67_0_split_0
I0412 03:42:30.566578  8874 net.cpp:408] fc5_classes_fc5_67_0_split -> fc5_classes_fc5_67_0_split_1
I0412 03:42:30.566588  8874 net.cpp:408] fc5_classes_fc5_67_0_split -> fc5_classes_fc5_67_0_split_2
I0412 03:42:30.566660  8874 net.cpp:150] Setting up fc5_classes_fc5_67_0_split
I0412 03:42:30.566669  8874 net.cpp:157] Top shape: 1024 67 (68608)
I0412 03:42:30.566673  8874 net.cpp:157] Top shape: 1024 67 (68608)
I0412 03:42:30.566681  8874 net.cpp:157] Top shape: 1024 67 (68608)
I0412 03:42:30.566684  8874 net.cpp:165] Memory required for data: 4109041664
I0412 03:42:30.566689  8874 layer_factory.hpp:77] Creating layer loss
I0412 03:42:30.566695  8874 net.cpp:100] Creating Layer loss
I0412 03:42:30.566700  8874 net.cpp:434] loss <- fc5_classes_fc5_67_0_split_0
I0412 03:42:30.566706  8874 net.cpp:434] loss <- label_data_1_split_0
I0412 03:42:30.566715  8874 net.cpp:408] loss -> loss
…
