…
I0415 12:01:52.158211 25789 solver.cpp:93] Creating training net from train_net file: ./Prototxt/experiment_12/rtsd-r3/orig/trial_3/train.prototxt
I0415 12:01:52.172143 25789 net.cpp:58] Initializing net from parameters: 
state {
  phase: TRAIN
  level: 0
  stage: ""
}
layer {
  name: "data"
  type: "Data"
  top: "data"
  top: "label"
  include {
    phase: TRAIN
  }
  transform_param {
    scale: 0.0039215689
    mirror: false
    crop_size: 48
    mean_value: 120
    mean_value: 113
    mean_value: 112
  }
  data_param {
    source: "../local_data/lmdb/rtsd-r3/orig/train/lmdb"
    batch_size: 1024
    backend: LMDB
  }
}
layer {
  name: "conv1"
  type: "Convolution"
  bottom: "data"
  top: "conv1"
  convolution_param {
    num_output: 100
    pad: 0
    kernel_size: 7
    group: 1
    stride: 1
    weight_filler {
      type: "xavier"
    }
  }
}
layer {
  name: "conv1_relu"
  type: "ReLU"
  bottom: "conv1"
  top: "conv1"
}
layer {
  name: "pool1"
  type: "Pooling"
  bottom: "conv1"
  top: "pool1"
  pooling_param {
    pool: MAX
    kernel_size: 2
    stride: 2
  }
}
layer {
  name: "conv2"
  type: "Convolution"
  bottom: "pool1"
  top: "conv2"
  convolution_param {
    num_output: 150
    pad: 0
    kernel_size: 4
    group: 1
    stride: 1
    weight_filler {
      type: "xavier"
    }
  }
}
layer {
  name: "conv2_relu"
  type: "ReLU"
  bottom: "conv2"
  top: "conv2"
}
layer {
  name: "pool2"
  type: "Pooling"
  bottom: "conv2"
  top: "pool2"
  pooling_param {
    pool: MAX
    kernel_size: 2
    stride: 2
  }
}
layer {
  name: "conv3"
  type: "Convolution"
  bottom: "pool2"
  top: "conv3"
  convolution_param {
    num_output: 250
    pad: 0
    kernel_size: 4
    group: 1
    stride: 1
    weight_filler {
      type: "xavier"
    }
  }
}
layer {
  name: "conv3_relu"
  type: "ReLU"
  bottom: "conv3"
  top: "conv3"
}
layer {
  name: "pool3"
  type: "Pooling"
  bottom: "conv3"
  top: "pool3"
  pooling_param {
    pool: MAX
    kernel_size: 2
    stride: 2
  }
}
layer {
  name: "fc4_300"
  type: "InnerProduct"
  bottom: "pool3"
  top: "fc4_300"
  inner_product_param {
    num_output: 300
    weight_filler {
      type: "xavier"
    }
  }
}
layer {
  name: "fc4_relu"
  type: "ReLU"
  bottom: "fc4_300"
  top: "fc4_300"
}
layer {
  name: "drop4"
  type: "Dropout"
  bottom: "fc4_300"
  top: "fc4_300"
  dropout_param {
    dropout_ratio: 0.5
  }
}
layer {
  name: "fc5_106"
  type: "InnerProduct"
  bottom: "fc4_300"
  top: "fc5_classes"
  inner_product_param {
    num_output: 106
    weight_filler {
      type: "xavier"
    }
  }
}
layer {
  name: "softmax"
  type: "Softmax"
  bottom: "fc5_classes"
  top: "softmax"
}
layer {
  name: "loss"
  type: "MultinomialLogisticLoss"
  bottom: "softmax"
  bottom: "label"
  top: "loss"
}
layer {
  name: "accuracy_1"
  type: "Accuracy"
  bottom: "fc5_classes"
  bottom: "label"
  top: "accuracy_1"
  accuracy_param {
    top_k: 1
  }
}
layer {
  name: "accuracy_5"
  type: "Accuracy"
  bottom: "fc5_classes"
  bottom: "label"
  top: "accuracy_5"
  accuracy_param {
    top_k: 5
  }
}
layer {
  name: "silence"
  type: "Silence"
  bottom: "accuracy_1"
  bottom: "accuracy_5"
}
I0415 12:01:52.172302 25789 layer_factory.hpp:77] Creating layer data
I0415 12:01:52.173539 25789 net.cpp:100] Creating Layer data
I0415 12:01:52.173564 25789 net.cpp:408] data -> data
I0415 12:01:52.173586 25789 net.cpp:408] data -> label
I0415 12:01:52.179707 25890 db_lmdb.cpp:35] Opened lmdb ../local_data/lmdb/rtsd-r3/orig/train/lmdb
I0415 12:01:52.211611 25789 data_layer.cpp:41] output data size: 1024,3,48,48
I0415 12:01:52.258963 25789 net.cpp:150] Setting up data
I0415 12:01:52.258991 25789 net.cpp:157] Top shape: 1024 3 48 48 (7077888)
I0415 12:01:52.258996 25789 net.cpp:157] Top shape: 1024 (1024)
I0415 12:01:52.258999 25789 net.cpp:165] Memory required for data: 28315648
I0415 12:01:52.259012 25789 layer_factory.hpp:77] Creating layer label_data_1_split
I0415 12:01:52.259027 25789 net.cpp:100] Creating Layer label_data_1_split
I0415 12:01:52.259032 25789 net.cpp:434] label_data_1_split <- label
I0415 12:01:52.259045 25789 net.cpp:408] label_data_1_split -> label_data_1_split_0
I0415 12:01:52.259058 25789 net.cpp:408] label_data_1_split -> label_data_1_split_1
I0415 12:01:52.259066 25789 net.cpp:408] label_data_1_split -> label_data_1_split_2
I0415 12:01:52.259127 25789 net.cpp:150] Setting up label_data_1_split
I0415 12:01:52.259136 25789 net.cpp:157] Top shape: 1024 (1024)
I0415 12:01:52.259140 25789 net.cpp:157] Top shape: 1024 (1024)
I0415 12:01:52.259143 25789 net.cpp:157] Top shape: 1024 (1024)
I0415 12:01:52.259145 25789 net.cpp:165] Memory required for data: 28327936
I0415 12:01:52.259150 25789 layer_factory.hpp:77] Creating layer conv1
I0415 12:01:52.259165 25789 net.cpp:100] Creating Layer conv1
I0415 12:01:52.259169 25789 net.cpp:434] conv1 <- data
I0415 12:01:52.259176 25789 net.cpp:408] conv1 -> conv1
I0415 12:01:52.614254 25789 net.cpp:150] Setting up conv1
I0415 12:01:52.614285 25789 net.cpp:157] Top shape: 1024 100 42 42 (180633600)
I0415 12:01:52.614290 25789 net.cpp:165] Memory required for data: 750862336
I0415 12:01:52.614315 25789 layer_factory.hpp:77] Creating layer conv1_relu
I0415 12:01:52.614329 25789 net.cpp:100] Creating Layer conv1_relu
I0415 12:01:52.614337 25789 net.cpp:434] conv1_relu <- conv1
I0415 12:01:52.614344 25789 net.cpp:395] conv1_relu -> conv1 (in-place)
I0415 12:01:52.614585 25789 net.cpp:150] Setting up conv1_relu
I0415 12:01:52.614599 25789 net.cpp:157] Top shape: 1024 100 42 42 (180633600)
I0415 12:01:52.614603 25789 net.cpp:165] Memory required for data: 1473396736
I0415 12:01:52.614608 25789 layer_factory.hpp:77] Creating layer pool1
I0415 12:01:52.614620 25789 net.cpp:100] Creating Layer pool1
I0415 12:01:52.614625 25789 net.cpp:434] pool1 <- conv1
I0415 12:01:52.614634 25789 net.cpp:408] pool1 -> pool1
I0415 12:01:52.614701 25789 net.cpp:150] Setting up pool1
I0415 12:01:52.614712 25789 net.cpp:157] Top shape: 1024 100 21 21 (45158400)
I0415 12:01:52.614717 25789 net.cpp:165] Memory required for data: 1654030336
I0415 12:01:52.614720 25789 layer_factory.hpp:77] Creating layer conv2
I0415 12:01:52.614733 25789 net.cpp:100] Creating Layer conv2
I0415 12:01:52.614739 25789 net.cpp:434] conv2 <- pool1
I0415 12:01:52.614745 25789 net.cpp:408] conv2 -> conv2
I0415 12:01:52.625708 25789 net.cpp:150] Setting up conv2
I0415 12:01:52.625730 25789 net.cpp:157] Top shape: 1024 150 18 18 (49766400)
I0415 12:01:52.625735 25789 net.cpp:165] Memory required for data: 1853095936
I0415 12:01:52.625748 25789 layer_factory.hpp:77] Creating layer conv2_relu
I0415 12:01:52.625766 25789 net.cpp:100] Creating Layer conv2_relu
I0415 12:01:52.625772 25789 net.cpp:434] conv2_relu <- conv2
I0415 12:01:52.625779 25789 net.cpp:395] conv2_relu -> conv2 (in-place)
I0415 12:01:52.628304 25789 net.cpp:150] Setting up conv2_relu
I0415 12:01:52.628324 25789 net.cpp:157] Top shape: 1024 150 18 18 (49766400)
I0415 12:01:52.628329 25789 net.cpp:165] Memory required for data: 2052161536
I0415 12:01:52.628332 25789 layer_factory.hpp:77] Creating layer pool2
I0415 12:01:52.628345 25789 net.cpp:100] Creating Layer pool2
I0415 12:01:52.628350 25789 net.cpp:434] pool2 <- conv2
I0415 12:01:52.628357 25789 net.cpp:408] pool2 -> pool2
I0415 12:01:52.628418 25789 net.cpp:150] Setting up pool2
I0415 12:01:52.628428 25789 net.cpp:157] Top shape: 1024 150 9 9 (12441600)
I0415 12:01:52.628432 25789 net.cpp:165] Memory required for data: 2101927936
I0415 12:01:52.628437 25789 layer_factory.hpp:77] Creating layer conv3
I0415 12:01:52.628450 25789 net.cpp:100] Creating Layer conv3
I0415 12:01:52.628479 25789 net.cpp:434] conv3 <- pool2
I0415 12:01:52.628487 25789 net.cpp:408] conv3 -> conv3
I0415 12:01:52.635498 25789 net.cpp:150] Setting up conv3
I0415 12:01:52.635519 25789 net.cpp:157] Top shape: 1024 250 6 6 (9216000)
I0415 12:01:52.635522 25789 net.cpp:165] Memory required for data: 2138791936
I0415 12:01:52.635535 25789 layer_factory.hpp:77] Creating layer conv3_relu
I0415 12:01:52.635541 25789 net.cpp:100] Creating Layer conv3_relu
I0415 12:01:52.635548 25789 net.cpp:434] conv3_relu <- conv3
I0415 12:01:52.635557 25789 net.cpp:395] conv3_relu -> conv3 (in-place)
I0415 12:01:52.637032 25789 net.cpp:150] Setting up conv3_relu
I0415 12:01:52.637051 25789 net.cpp:157] Top shape: 1024 250 6 6 (9216000)
I0415 12:01:52.637055 25789 net.cpp:165] Memory required for data: 2175655936
I0415 12:01:52.637059 25789 layer_factory.hpp:77] Creating layer pool3
I0415 12:01:52.637070 25789 net.cpp:100] Creating Layer pool3
I0415 12:01:52.637078 25789 net.cpp:434] pool3 <- conv3
I0415 12:01:52.637084 25789 net.cpp:408] pool3 -> pool3
I0415 12:01:52.637145 25789 net.cpp:150] Setting up pool3
I0415 12:01:52.637154 25789 net.cpp:157] Top shape: 1024 250 3 3 (2304000)
I0415 12:01:52.637157 25789 net.cpp:165] Memory required for data: 2184871936
I0415 12:01:52.637161 25789 layer_factory.hpp:77] Creating layer fc4_300
I0415 12:01:52.637169 25789 net.cpp:100] Creating Layer fc4_300
I0415 12:01:52.637176 25789 net.cpp:434] fc4_300 <- pool3
I0415 12:01:52.637182 25789 net.cpp:408] fc4_300 -> fc4_300
I0415 12:01:52.644279 25789 net.cpp:150] Setting up fc4_300
I0415 12:01:52.644300 25789 net.cpp:157] Top shape: 1024 300 (307200)
I0415 12:01:52.644304 25789 net.cpp:165] Memory required for data: 2186100736
I0415 12:01:52.644312 25789 layer_factory.hpp:77] Creating layer fc4_relu
I0415 12:01:52.644320 25789 net.cpp:100] Creating Layer fc4_relu
I0415 12:01:52.644325 25789 net.cpp:434] fc4_relu <- fc4_300
I0415 12:01:52.644332 25789 net.cpp:395] fc4_relu -> fc4_300 (in-place)
I0415 12:01:52.644563 25789 net.cpp:150] Setting up fc4_relu
I0415 12:01:52.644577 25789 net.cpp:157] Top shape: 1024 300 (307200)
I0415 12:01:52.644583 25789 net.cpp:165] Memory required for data: 2187329536
I0415 12:01:52.644587 25789 layer_factory.hpp:77] Creating layer drop4
I0415 12:01:52.644595 25789 net.cpp:100] Creating Layer drop4
I0415 12:01:52.644599 25789 net.cpp:434] drop4 <- fc4_300
I0415 12:01:52.644606 25789 net.cpp:395] drop4 -> fc4_300 (in-place)
I0415 12:01:52.644646 25789 net.cpp:150] Setting up drop4
I0415 12:01:52.644656 25789 net.cpp:157] Top shape: 1024 300 (307200)
I0415 12:01:52.644659 25789 net.cpp:165] Memory required for data: 2188558336
I0415 12:01:52.644664 25789 layer_factory.hpp:77] Creating layer fc5_106
I0415 12:01:52.644670 25789 net.cpp:100] Creating Layer fc5_106
I0415 12:01:52.644676 25789 net.cpp:434] fc5_106 <- fc4_300
I0415 12:01:52.644685 25789 net.cpp:408] fc5_106 -> fc5_classes
I0415 12:01:52.646598 25789 net.cpp:150] Setting up fc5_106
I0415 12:01:52.646618 25789 net.cpp:157] Top shape: 1024 106 (108544)
I0415 12:01:52.646622 25789 net.cpp:165] Memory required for data: 2188992512
I0415 12:01:52.646636 25789 layer_factory.hpp:77] Creating layer fc5_classes_fc5_106_0_split
I0415 12:01:52.646644 25789 net.cpp:100] Creating Layer fc5_classes_fc5_106_0_split
I0415 12:01:52.646648 25789 net.cpp:434] fc5_classes_fc5_106_0_split <- fc5_classes
I0415 12:01:52.646656 25789 net.cpp:408] fc5_classes_fc5_106_0_split -> fc5_classes_fc5_106_0_split_0
I0415 12:01:52.646667 25789 net.cpp:408] fc5_classes_fc5_106_0_split -> fc5_classes_fc5_106_0_split_1
I0415 12:01:52.646673 25789 net.cpp:408] fc5_classes_fc5_106_0_split -> fc5_classes_fc5_106_0_split_2
I0415 12:01:52.646764 25789 net.cpp:150] Setting up fc5_classes_fc5_106_0_split
I0415 12:01:52.646776 25789 net.cpp:157] Top shape: 1024 106 (108544)
I0415 12:01:52.646781 25789 net.cpp:157] Top shape: 1024 106 (108544)
I0415 12:01:52.646785 25789 net.cpp:157] Top shape: 1024 106 (108544)
I0415 12:01:52.646790 25789 net.cpp:165] Memory required for data: 2190295040
I0415 12:01:52.646807 25789 layer_factory.hpp:77] Creating layer softmax
I0415 12:01:52.646819 25789 net.cpp:100] Creating Layer softmax
I0415 12:01:52.646826 25789 net.cpp:434] softmax <- fc5_classes_fc5_106_0_split_0
I0415 12:01:52.646833 25789 net.cpp:408] softmax -> softmax
I0415 12:01:52.647159 25789 net.cpp:150] Setting up softmax
I0415 12:01:52.647176 25789 net.cpp:157] Top shape: 1024 106 (108544)
I0415 12:01:52.647179 25789 net.cpp:165] Memory required for data: 2190729216
I0415 12:01:52.647183 25789 layer_factory.hpp:77] Creating layer loss
I0415 12:01:52.647195 25789 net.cpp:100] Creating Layer loss
I0415 12:01:52.647199 25789 net.cpp:434] loss <- softmax
I0415 12:01:52.647205 25789 net.cpp:434] loss <- label_data_1_split_0
I0415 12:01:52.647212 25789 net.cpp:408] loss -> loss
…
