…
I0402 13:55:31.586318 14138 net.cpp:322] The NetState phase (0) differed from the phase (1) specified by a rule in layer accuracy_5
I0402 13:55:31.586414 14138 net.cpp:58] Initializing net from parameters: 
state {
  phase: TRAIN
  level: 0
  stage: ""
}
layer {
  name: "data"
  type: "Data"
  top: "data"
  top: "label"
  include {
    phase: TRAIN
  }
  transform_param {
    mirror: false
    crop_size: 48
    mean_value: 132
    mean_value: 132
    mean_value: 131
  }
  data_param {
    source: "../local_data/lmdb/rtsd-r1/CoNorm/train/lmdb"
    batch_size: 1024
    backend: LMDB
  }
}
layer {
  name: "conv1"
  type: "Convolution"
  bottom: "data"
  top: "conv1"
  convolution_param {
    num_output: 100
    pad: 0
    kernel_size: 7
    group: 1
    stride: 1
    weight_filler {
      type: "xavier"
    }
  }
}
layer {
  name: "conv1_relu"
  type: "ReLU"
  bottom: "conv1"
  top: "conv1"
}
layer {
  name: "pool1"
  type: "Pooling"
  bottom: "conv1"
  top: "pool1"
  pooling_param {
    pool: MAX
    kernel_size: 2
    stride: 2
  }
}
layer {
  name: "conv2"
  type: "Convolution"
  bottom: "pool1"
  top: "conv2"
  convolution_param {
    num_output: 150
    pad: 0
    kernel_size: 4
    group: 1
    stride: 1
    weight_filler {
      type: "xavier"
    }
  }
}
layer {
  name: "conv2_relu"
  type: "ReLU"
  bottom: "conv2"
  top: "conv2"
}
layer {
  name: "pool2"
  type: "Pooling"
  bottom: "conv2"
  top: "pool2"
  pooling_param {
    pool: MAX
    kernel_size: 2
    stride: 2
  }
}
layer {
  name: "conv3"
  type: "Convolution"
  bottom: "pool2"
  top: "conv3"
  convolution_param {
    num_output: 250
    pad: 0
    kernel_size: 4
    group: 1
    stride: 1
    weight_filler {
      type: "xavier"
    }
  }
}
layer {
  name: "conv3_relu"
  type: "ReLU"
  bottom: "conv3"
  top: "conv3"
}
layer {
  name: "pool3"
  type: "Pooling"
  bottom: "conv3"
  top: "pool3"
  pooling_param {
    pool: MAX
    kernel_size: 2
    stride: 2
  }
}
layer {
  name: "fc4_300"
  type: "InnerProduct"
  bottom: "pool3"
  top: "fc4_300"
  inner_product_param {
    num_output: 300
    weight_filler {
      type: "xavier"
    }
  }
}
layer {
  name: "fc4_relu"
  type: "ReLU"
  bottom: "fc4_300"
  top: "fc4_300"
}
layer {
  name: "drop4"
  type: "Dropout"
  bottom: "fc4_300"
  top: "fc4_300"
  dropout_param {
    dropout_ratio: 0.4
  }
}
layer {
  name: "fc5_67"
  type: "InnerProduct"
  bottom: "fc4_300"
  top: "fc5_classes"
  inner_product_param {
    num_output: 67
    weight_filler {
      type: "xavier"
    }
  }
}
layer {
  name: "loss"
  type: "SoftmaxWithLoss"
  bottom: "fc5_classes"
  bottom: "label"
  top: "loss"
}
I0402 13:55:31.586486 14138 layer_factory.hpp:77] Creating layer data
I0402 13:55:31.587771 14138 net.cpp:100] Creating Layer data
I0402 13:55:31.587787 14138 net.cpp:408] data -> data
I0402 13:55:31.587828 14138 net.cpp:408] data -> label
I0402 13:55:31.589315 14192 db_lmdb.cpp:35] Opened lmdb ../local_data/lmdb/rtsd-r1/CoNorm/train/lmdb
I0402 13:55:31.692181 14138 data_layer.cpp:41] output data size: 1024,3,48,48
I0402 13:55:31.749845 14138 net.cpp:150] Setting up data
I0402 13:55:31.749891 14138 net.cpp:157] Top shape: 1024 3 48 48 (7077888)
I0402 13:55:31.749897 14138 net.cpp:157] Top shape: 1024 (1024)
I0402 13:55:31.749922 14138 net.cpp:165] Memory required for data: 28315648
I0402 13:55:31.749933 14138 layer_factory.hpp:77] Creating layer conv1
I0402 13:55:31.749963 14138 net.cpp:100] Creating Layer conv1
I0402 13:55:31.749970 14138 net.cpp:434] conv1 <- data
I0402 13:55:31.749985 14138 net.cpp:408] conv1 -> conv1
I0402 13:55:32.172885 14138 net.cpp:150] Setting up conv1
I0402 13:55:32.172927 14138 net.cpp:157] Top shape: 1024 100 42 42 (180633600)
I0402 13:55:32.172931 14138 net.cpp:165] Memory required for data: 750850048
I0402 13:55:32.172955 14138 layer_factory.hpp:77] Creating layer conv1_relu
I0402 13:55:32.172967 14138 net.cpp:100] Creating Layer conv1_relu
I0402 13:55:32.172973 14138 net.cpp:434] conv1_relu <- conv1
I0402 13:55:32.172981 14138 net.cpp:395] conv1_relu -> conv1 (in-place)
I0402 13:55:32.173941 14138 net.cpp:150] Setting up conv1_relu
I0402 13:55:32.173954 14138 net.cpp:157] Top shape: 1024 100 42 42 (180633600)
I0402 13:55:32.173969 14138 net.cpp:165] Memory required for data: 1473384448
I0402 13:55:32.173974 14138 layer_factory.hpp:77] Creating layer pool1
I0402 13:55:32.173980 14138 net.cpp:100] Creating Layer pool1
I0402 13:55:32.173985 14138 net.cpp:434] pool1 <- conv1
I0402 13:55:32.173990 14138 net.cpp:408] pool1 -> pool1
I0402 13:55:32.174041 14138 net.cpp:150] Setting up pool1
I0402 13:55:32.174051 14138 net.cpp:157] Top shape: 1024 100 21 21 (45158400)
I0402 13:55:32.174054 14138 net.cpp:165] Memory required for data: 1654018048
I0402 13:55:32.174057 14138 layer_factory.hpp:77] Creating layer conv2
I0402 13:55:32.174069 14138 net.cpp:100] Creating Layer conv2
I0402 13:55:32.174074 14138 net.cpp:434] conv2 <- pool1
I0402 13:55:32.174080 14138 net.cpp:408] conv2 -> conv2
I0402 13:55:32.181175 14138 net.cpp:150] Setting up conv2
I0402 13:55:32.181205 14138 net.cpp:157] Top shape: 1024 150 18 18 (49766400)
I0402 13:55:32.181208 14138 net.cpp:165] Memory required for data: 1853083648
I0402 13:55:32.181218 14138 layer_factory.hpp:77] Creating layer conv2_relu
I0402 13:55:32.181227 14138 net.cpp:100] Creating Layer conv2_relu
I0402 13:55:32.181231 14138 net.cpp:434] conv2_relu <- conv2
I0402 13:55:32.181236 14138 net.cpp:395] conv2_relu -> conv2 (in-place)
I0402 13:55:32.182826 14138 net.cpp:150] Setting up conv2_relu
I0402 13:55:32.182842 14138 net.cpp:157] Top shape: 1024 150 18 18 (49766400)
I0402 13:55:32.182847 14138 net.cpp:165] Memory required for data: 2052149248
I0402 13:55:32.182849 14138 layer_factory.hpp:77] Creating layer pool2
I0402 13:55:32.182858 14138 net.cpp:100] Creating Layer pool2
I0402 13:55:32.182862 14138 net.cpp:434] pool2 <- conv2
I0402 13:55:32.182868 14138 net.cpp:408] pool2 -> pool2
I0402 13:55:32.182929 14138 net.cpp:150] Setting up pool2
I0402 13:55:32.182937 14138 net.cpp:157] Top shape: 1024 150 9 9 (12441600)
I0402 13:55:32.182940 14138 net.cpp:165] Memory required for data: 2101915648
I0402 13:55:32.182943 14138 layer_factory.hpp:77] Creating layer conv3
I0402 13:55:32.182953 14138 net.cpp:100] Creating Layer conv3
I0402 13:55:32.182958 14138 net.cpp:434] conv3 <- pool2
I0402 13:55:32.182963 14138 net.cpp:408] conv3 -> conv3
I0402 13:55:32.191730 14138 net.cpp:150] Setting up conv3
I0402 13:55:32.191750 14138 net.cpp:157] Top shape: 1024 250 6 6 (9216000)
I0402 13:55:32.191753 14138 net.cpp:165] Memory required for data: 2138779648
I0402 13:55:32.191763 14138 layer_factory.hpp:77] Creating layer conv3_relu
I0402 13:55:32.191771 14138 net.cpp:100] Creating Layer conv3_relu
I0402 13:55:32.191774 14138 net.cpp:434] conv3_relu <- conv3
I0402 13:55:32.191781 14138 net.cpp:395] conv3_relu -> conv3 (in-place)
I0402 13:55:32.193851 14138 net.cpp:150] Setting up conv3_relu
I0402 13:55:32.193868 14138 net.cpp:157] Top shape: 1024 250 6 6 (9216000)
I0402 13:55:32.193871 14138 net.cpp:165] Memory required for data: 2175643648
I0402 13:55:32.193876 14138 layer_factory.hpp:77] Creating layer pool3
I0402 13:55:32.193882 14138 net.cpp:100] Creating Layer pool3
I0402 13:55:32.193887 14138 net.cpp:434] pool3 <- conv3
I0402 13:55:32.193893 14138 net.cpp:408] pool3 -> pool3
I0402 13:55:32.193980 14138 net.cpp:150] Setting up pool3
I0402 13:55:32.193990 14138 net.cpp:157] Top shape: 1024 250 3 3 (2304000)
I0402 13:55:32.193994 14138 net.cpp:165] Memory required for data: 2184859648
I0402 13:55:32.193997 14138 layer_factory.hpp:77] Creating layer fc4_300
I0402 13:55:32.194005 14138 net.cpp:100] Creating Layer fc4_300
I0402 13:55:32.194010 14138 net.cpp:434] fc4_300 <- pool3
I0402 13:55:32.194020 14138 net.cpp:408] fc4_300 -> fc4_300
I0402 13:55:32.199343 14138 net.cpp:150] Setting up fc4_300
I0402 13:55:32.199360 14138 net.cpp:157] Top shape: 1024 300 (307200)
I0402 13:55:32.199363 14138 net.cpp:165] Memory required for data: 2186088448
I0402 13:55:32.199371 14138 layer_factory.hpp:77] Creating layer fc4_relu
I0402 13:55:32.199378 14138 net.cpp:100] Creating Layer fc4_relu
I0402 13:55:32.199381 14138 net.cpp:434] fc4_relu <- fc4_300
I0402 13:55:32.199388 14138 net.cpp:395] fc4_relu -> fc4_300 (in-place)
I0402 13:55:32.199579 14138 net.cpp:150] Setting up fc4_relu
I0402 13:55:32.199592 14138 net.cpp:157] Top shape: 1024 300 (307200)
I0402 13:55:32.199597 14138 net.cpp:165] Memory required for data: 2187317248
I0402 13:55:32.199601 14138 layer_factory.hpp:77] Creating layer drop4
I0402 13:55:32.199609 14138 net.cpp:100] Creating Layer drop4
I0402 13:55:32.199612 14138 net.cpp:434] drop4 <- fc4_300
I0402 13:55:32.199620 14138 net.cpp:395] drop4 -> fc4_300 (in-place)
I0402 13:55:32.199652 14138 net.cpp:150] Setting up drop4
I0402 13:55:32.199662 14138 net.cpp:157] Top shape: 1024 300 (307200)
I0402 13:55:32.199666 14138 net.cpp:165] Memory required for data: 2188546048
I0402 13:55:32.199669 14138 layer_factory.hpp:77] Creating layer fc5_67
I0402 13:55:32.199676 14138 net.cpp:100] Creating Layer fc5_67
I0402 13:55:32.199681 14138 net.cpp:434] fc5_67 <- fc4_300
I0402 13:55:32.199686 14138 net.cpp:408] fc5_67 -> fc5_classes
I0402 13:55:32.200925 14138 net.cpp:150] Setting up fc5_67
I0402 13:55:32.200942 14138 net.cpp:157] Top shape: 1024 67 (68608)
I0402 13:55:32.200944 14138 net.cpp:165] Memory required for data: 2188820480
I0402 13:55:32.200956 14138 layer_factory.hpp:77] Creating layer loss
I0402 13:55:32.200964 14138 net.cpp:100] Creating Layer loss
I0402 13:55:32.200968 14138 net.cpp:434] loss <- fc5_classes
I0402 13:55:32.200973 14138 net.cpp:434] loss <- label
I0402 13:55:32.200978 14138 net.cpp:408] loss -> loss
I0402 13:55:32.200994 14138 layer_factory.hpp:77] Creating layer loss
…
I0402 13:55:32.201655 14138 solver.cpp:193] Creating test net (#0) specified by test_net file: ./Prototxt/experiment_3/rtsd-r1/CoNorm/test.prototxt
I0402 13:55:32.201797 14138 net.cpp:58] Initializing net from parameters: 
state {
  phase: TEST
}
layer {
  name: "data"
  type: "Data"
  top: "data"
  top: "label"
  include {
    phase: TEST
  }
  transform_param {
    mirror: false
    crop_size: 48
    mean_value: 133
    mean_value: 133
    mean_value: 132
  }
  data_param {
    source: "../local_data/lmdb/rtsd-r1/CoNorm/test/lmdb"
    batch_size: 1024
    backend: LMDB
  }
}
layer {
  name: "conv1"
  type: "Convolution"
  bottom: "data"
  top: "conv1"
  convolution_param {
    num_output: 100
    pad: 0
    kernel_size: 7
    group: 1
    stride: 1
    weight_filler {
      type: "xavier"
    }
  }
}
layer {
  name: "conv1_relu"
  type: "ReLU"
  bottom: "conv1"
  top: "conv1"
}
layer {
  name: "pool1"
  type: "Pooling"
  bottom: "conv1"
  top: "pool1"
  pooling_param {
    pool: MAX
    kernel_size: 2
    stride: 2
  }
}
layer {
  name: "conv2"
  type: "Convolution"
  bottom: "pool1"
  top: "conv2"
  convolution_param {
    num_output: 150
    pad: 0
    kernel_size: 4
    group: 1
    stride: 1
    weight_filler {
      type: "xavier"
    }
  }
}
layer {
  name: "conv2_relu"
  type: "ReLU"
  bottom: "conv2"
  top: "conv2"
}
layer {
  name: "pool2"
  type: "Pooling"
  bottom: "conv2"
  top: "pool2"
  pooling_param {
    pool: MAX
    kernel_size: 2
    stride: 2
  }
}
layer {
  name: "conv3"
  type: "Convolution"
  bottom: "pool2"
  top: "conv3"
  convolution_param {
    num_output: 250
    pad: 0
    kernel_size: 4
    group: 1
    stride: 1
    weight_filler {
      type: "xavier"
    }
  }
}
layer {
  name: "conv3_relu"
  type: "ReLU"
  bottom: "conv3"
  top: "conv3"
}
layer {
  name: "pool3"
  type: "Pooling"
  bottom: "conv3"
  top: "pool3"
  pooling_param {
    pool: MAX
    kernel_size: 2
    stride: 2
  }
}
layer {
  name: "fc4_300"
  type: "InnerProduct"
  bottom: "pool3"
  top: "fc4_300"
  inner_product_param {
    num_output: 300
    weight_filler {
      type: "xavier"
    }
  }
}
layer {
  name: "fc4_relu"
  type: "ReLU"
  bottom: "fc4_300"
  top: "fc4_300"
}
layer {
  name: "drop4"
  type: "Dropout"
  bottom: "fc4_300"
  top: "fc4_300"
  dropout_param {
    dropout_ratio: 0.4
  }
}
layer {
  name: "fc5_67"
  type: "InnerProduct"
  bottom: "fc4_300"
  top: "fc5_classes"
  inner_product_param {
    num_output: 67
    weight_filler {
      type: "xavier"
    }
  }
}
layer {
  name: "loss"
  type: "SoftmaxWithLoss"
  bottom: "fc5_classes"
  bottom: "label"
  top: "loss"
}
layer {
  name: "accuracy_1"
  type: "Accuracy"
  bottom: "fc5_classes"
  bottom: "label"
  top: "accuracy_1"
  include {
    phase: TEST
  }
  accuracy_param {
    top_k: 1
  }
}
layer {
  name: "accuracy_5"
  type: "Accuracy"
  bottom: "fc5_classes"
  bottom: "label"
  top: "accuracy_5"
  include {
    phase: TEST
  }
  accuracy_param {
    top_k: 5
  }
}
I0402 13:55:32.201894 14138 layer_factory.hpp:77] Creating layer data
I0402 13:55:32.202757 14138 net.cpp:100] Creating Layer data
I0402 13:55:32.202802 14138 net.cpp:408] data -> data
I0402 13:55:32.202836 14138 net.cpp:408] data -> label
I0402 13:55:32.205862 14207 db_lmdb.cpp:35] Opened lmdb ../local_data/lmdb/rtsd-r1/CoNorm/test/lmdb
I0402 13:55:32.206022 14138 data_layer.cpp:41] output data size: 1024,3,48,48
I0402 13:55:32.251624 14138 net.cpp:150] Setting up data
I0402 13:55:32.251651 14138 net.cpp:157] Top shape: 1024 3 48 48 (7077888)
I0402 13:55:32.251657 14138 net.cpp:157] Top shape: 1024 (1024)
I0402 13:55:32.251659 14138 net.cpp:165] Memory required for data: 28315648
I0402 13:55:32.251665 14138 layer_factory.hpp:77] Creating layer label_data_1_split
I0402 13:55:32.251680 14138 net.cpp:100] Creating Layer label_data_1_split
I0402 13:55:32.251684 14138 net.cpp:434] label_data_1_split <- label
I0402 13:55:32.251693 14138 net.cpp:408] label_data_1_split -> label_data_1_split_0
I0402 13:55:32.251703 14138 net.cpp:408] label_data_1_split -> label_data_1_split_1
I0402 13:55:32.251713 14138 net.cpp:408] label_data_1_split -> label_data_1_split_2
I0402 13:55:32.251850 14138 net.cpp:150] Setting up label_data_1_split
I0402 13:55:32.251860 14138 net.cpp:157] Top shape: 1024 (1024)
I0402 13:55:32.251865 14138 net.cpp:157] Top shape: 1024 (1024)
I0402 13:55:32.251869 14138 net.cpp:157] Top shape: 1024 (1024)
I0402 13:55:32.251871 14138 net.cpp:165] Memory required for data: 28327936
I0402 13:55:32.251875 14138 layer_factory.hpp:77] Creating layer conv1
I0402 13:55:32.251888 14138 net.cpp:100] Creating Layer conv1
I0402 13:55:32.251894 14138 net.cpp:434] conv1 <- data
I0402 13:55:32.251905 14138 net.cpp:408] conv1 -> conv1
I0402 13:55:32.260725 14138 net.cpp:150] Setting up conv1
I0402 13:55:32.260758 14138 net.cpp:157] Top shape: 1024 100 42 42 (180633600)
I0402 13:55:32.260762 14138 net.cpp:165] Memory required for data: 750862336
I0402 13:55:32.260776 14138 layer_factory.hpp:77] Creating layer conv1_relu
I0402 13:55:32.260784 14138 net.cpp:100] Creating Layer conv1_relu
I0402 13:55:32.260790 14138 net.cpp:434] conv1_relu <- conv1
I0402 13:55:32.260795 14138 net.cpp:395] conv1_relu -> conv1 (in-place)
I0402 13:55:32.262655 14138 net.cpp:150] Setting up conv1_relu
I0402 13:55:32.262672 14138 net.cpp:157] Top shape: 1024 100 42 42 (180633600)
I0402 13:55:32.262677 14138 net.cpp:165] Memory required for data: 1473396736
I0402 13:55:32.262681 14138 layer_factory.hpp:77] Creating layer pool1
I0402 13:55:32.262692 14138 net.cpp:100] Creating Layer pool1
I0402 13:55:32.262698 14138 net.cpp:434] pool1 <- conv1
I0402 13:55:32.262704 14138 net.cpp:408] pool1 -> pool1
I0402 13:55:32.262758 14138 net.cpp:150] Setting up pool1
I0402 13:55:32.262768 14138 net.cpp:157] Top shape: 1024 100 21 21 (45158400)
I0402 13:55:32.262770 14138 net.cpp:165] Memory required for data: 1654030336
I0402 13:55:32.262774 14138 layer_factory.hpp:77] Creating layer conv2
I0402 13:55:32.262786 14138 net.cpp:100] Creating Layer conv2
I0402 13:55:32.262791 14138 net.cpp:434] conv2 <- pool1
I0402 13:55:32.262797 14138 net.cpp:408] conv2 -> conv2
I0402 13:55:32.273659 14138 net.cpp:150] Setting up conv2
I0402 13:55:32.273684 14138 net.cpp:157] Top shape: 1024 150 18 18 (49766400)
I0402 13:55:32.273689 14138 net.cpp:165] Memory required for data: 1853095936
I0402 13:55:32.273700 14138 layer_factory.hpp:77] Creating layer conv2_relu
I0402 13:55:32.273708 14138 net.cpp:100] Creating Layer conv2_relu
I0402 13:55:32.273712 14138 net.cpp:434] conv2_relu <- conv2
I0402 13:55:32.273717 14138 net.cpp:395] conv2_relu -> conv2 (in-place)
I0402 13:55:32.279547 14138 net.cpp:150] Setting up conv2_relu
I0402 13:55:32.279566 14138 net.cpp:157] Top shape: 1024 150 18 18 (49766400)
I0402 13:55:32.279569 14138 net.cpp:165] Memory required for data: 2052161536
I0402 13:55:32.279574 14138 layer_factory.hpp:77] Creating layer pool2
I0402 13:55:32.279582 14138 net.cpp:100] Creating Layer pool2
I0402 13:55:32.279584 14138 net.cpp:434] pool2 <- conv2
I0402 13:55:32.279593 14138 net.cpp:408] pool2 -> pool2
I0402 13:55:32.279650 14138 net.cpp:150] Setting up pool2
I0402 13:55:32.279660 14138 net.cpp:157] Top shape: 1024 150 9 9 (12441600)
I0402 13:55:32.279664 14138 net.cpp:165] Memory required for data: 2101927936
I0402 13:55:32.279667 14138 layer_factory.hpp:77] Creating layer conv3
I0402 13:55:32.279680 14138 net.cpp:100] Creating Layer conv3
I0402 13:55:32.279685 14138 net.cpp:434] conv3 <- pool2
I0402 13:55:32.279692 14138 net.cpp:408] conv3 -> conv3
I0402 13:55:32.301858 14138 net.cpp:150] Setting up conv3
I0402 13:55:32.301883 14138 net.cpp:157] Top shape: 1024 250 6 6 (9216000)
I0402 13:55:32.301887 14138 net.cpp:165] Memory required for data: 2138791936
I0402 13:55:32.301899 14138 layer_factory.hpp:77] Creating layer conv3_relu
I0402 13:55:32.301909 14138 net.cpp:100] Creating Layer conv3_relu
I0402 13:55:32.301913 14138 net.cpp:434] conv3_relu <- conv3
I0402 13:55:32.301919 14138 net.cpp:395] conv3_relu -> conv3 (in-place)
I0402 13:55:32.303601 14138 net.cpp:150] Setting up conv3_relu
I0402 13:55:32.303620 14138 net.cpp:157] Top shape: 1024 250 6 6 (9216000)
I0402 13:55:32.303624 14138 net.cpp:165] Memory required for data: 2175655936
I0402 13:55:32.303645 14138 layer_factory.hpp:77] Creating layer pool3
I0402 13:55:32.303653 14138 net.cpp:100] Creating Layer pool3
I0402 13:55:32.303658 14138 net.cpp:434] pool3 <- conv3
I0402 13:55:32.303663 14138 net.cpp:408] pool3 -> pool3
I0402 13:55:32.303724 14138 net.cpp:150] Setting up pool3
I0402 13:55:32.303733 14138 net.cpp:157] Top shape: 1024 250 3 3 (2304000)
I0402 13:55:32.303742 14138 net.cpp:165] Memory required for data: 2184871936
I0402 13:55:32.303755 14138 layer_factory.hpp:77] Creating layer fc4_300
I0402 13:55:32.303766 14138 net.cpp:100] Creating Layer fc4_300
I0402 13:55:32.303771 14138 net.cpp:434] fc4_300 <- pool3
I0402 13:55:32.303776 14138 net.cpp:408] fc4_300 -> fc4_300
I0402 13:55:32.309154 14138 net.cpp:150] Setting up fc4_300
I0402 13:55:32.309175 14138 net.cpp:157] Top shape: 1024 300 (307200)
I0402 13:55:32.309178 14138 net.cpp:165] Memory required for data: 2186100736
I0402 13:55:32.309187 14138 layer_factory.hpp:77] Creating layer fc4_relu
I0402 13:55:32.309193 14138 net.cpp:100] Creating Layer fc4_relu
I0402 13:55:32.309197 14138 net.cpp:434] fc4_relu <- fc4_300
I0402 13:55:32.309204 14138 net.cpp:395] fc4_relu -> fc4_300 (in-place)
I0402 13:55:32.309407 14138 net.cpp:150] Setting up fc4_relu
I0402 13:55:32.309422 14138 net.cpp:157] Top shape: 1024 300 (307200)
I0402 13:55:32.309428 14138 net.cpp:165] Memory required for data: 2187329536
I0402 13:55:32.309432 14138 layer_factory.hpp:77] Creating layer drop4
I0402 13:55:32.309440 14138 net.cpp:100] Creating Layer drop4
I0402 13:55:32.309447 14138 net.cpp:434] drop4 <- fc4_300
I0402 13:55:32.309451 14138 net.cpp:395] drop4 -> fc4_300 (in-place)
I0402 13:55:32.309484 14138 net.cpp:150] Setting up drop4
I0402 13:55:32.309494 14138 net.cpp:157] Top shape: 1024 300 (307200)
I0402 13:55:32.309496 14138 net.cpp:165] Memory required for data: 2188558336
I0402 13:55:32.309499 14138 layer_factory.hpp:77] Creating layer fc5_67
I0402 13:55:32.309505 14138 net.cpp:100] Creating Layer fc5_67
I0402 13:55:32.309509 14138 net.cpp:434] fc5_67 <- fc4_300
I0402 13:55:32.309517 14138 net.cpp:408] fc5_67 -> fc5_classes
I0402 13:55:32.309780 14138 net.cpp:150] Setting up fc5_67
I0402 13:55:32.309795 14138 net.cpp:157] Top shape: 1024 67 (68608)
I0402 13:55:32.309801 14138 net.cpp:165] Memory required for data: 2188832768
I0402 13:55:32.309814 14138 layer_factory.hpp:77] Creating layer fc5_classes_fc5_67_0_split
I0402 13:55:32.309823 14138 net.cpp:100] Creating Layer fc5_classes_fc5_67_0_split
I0402 13:55:32.309825 14138 net.cpp:434] fc5_classes_fc5_67_0_split <- fc5_classes
I0402 13:55:32.309834 14138 net.cpp:408] fc5_classes_fc5_67_0_split -> fc5_classes_fc5_67_0_split_0
I0402 13:55:32.309841 14138 net.cpp:408] fc5_classes_fc5_67_0_split -> fc5_classes_fc5_67_0_split_1
I0402 13:55:32.309851 14138 net.cpp:408] fc5_classes_fc5_67_0_split -> fc5_classes_fc5_67_0_split_2
I0402 13:55:32.309911 14138 net.cpp:150] Setting up fc5_classes_fc5_67_0_split
I0402 13:55:32.309918 14138 net.cpp:157] Top shape: 1024 67 (68608)
I0402 13:55:32.309922 14138 net.cpp:157] Top shape: 1024 67 (68608)
I0402 13:55:32.309926 14138 net.cpp:157] Top shape: 1024 67 (68608)
I0402 13:55:32.309928 14138 net.cpp:165] Memory required for data: 2189656064
I0402 13:55:32.309932 14138 layer_factory.hpp:77] Creating layer loss
I0402 13:55:32.309942 14138 net.cpp:100] Creating Layer loss
I0402 13:55:32.309947 14138 net.cpp:434] loss <- fc5_classes_fc5_67_0_split_0
I0402 13:55:32.309962 14138 net.cpp:434] loss <- label_data_1_split_0
I0402 13:55:32.309967 14138 net.cpp:408] loss -> loss
…
