…
I0402 14:08:17.697468  3333 net.cpp:322] The NetState phase (0) differed from the phase (1) specified by a rule in layer accuracy_5
I0402 14:08:17.697582  3333 net.cpp:58] Initializing net from parameters: 
state {
  phase: TRAIN
  level: 0
  stage: ""
}
layer {
  name: "data"
  type: "Data"
  top: "data"
  top: "label"
  include {
    phase: TRAIN
  }
  transform_param {
    mirror: false
    crop_size: 48
    mean_value: 132
    mean_value: 132
    mean_value: 131
  }
  data_param {
    source: "../local_data/lmdb/rtsd-r1/CoNorm/train/lmdb"
    batch_size: 1024
    backend: LMDB
  }
}
layer {
  name: "conv1"
  type: "Convolution"
  bottom: "data"
  top: "conv1"
  convolution_param {
    num_output: 100
    pad: 0
    kernel_size: 7
    group: 1
    stride: 1
    weight_filler {
      type: "xavier"
    }
  }
}
layer {
  name: "conv1_relu"
  type: "ReLU"
  bottom: "conv1"
  top: "conv1"
}
layer {
  name: "pool1"
  type: "Pooling"
  bottom: "conv1"
  top: "pool1"
  pooling_param {
    pool: MAX
    kernel_size: 2
    stride: 2
  }
}
layer {
  name: "conv2"
  type: "Convolution"
  bottom: "pool1"
  top: "conv2"
  convolution_param {
    num_output: 150
    pad: 0
    kernel_size: 4
    group: 1
    stride: 1
    weight_filler {
      type: "xavier"
    }
  }
}
layer {
  name: "conv2_relu"
  type: "ReLU"
  bottom: "conv2"
  top: "conv2"
}
layer {
  name: "pool2"
  type: "Pooling"
  bottom: "conv2"
  top: "pool2"
  pooling_param {
    pool: MAX
    kernel_size: 2
    stride: 2
  }
}
layer {
  name: "conv3"
  type: "Convolution"
  bottom: "pool2"
  top: "conv3"
  convolution_param {
    num_output: 250
    pad: 0
    kernel_size: 4
    group: 1
    stride: 1
    weight_filler {
      type: "xavier"
    }
  }
}
layer {
  name: "conv3_relu"
  type: "ReLU"
  bottom: "conv3"
  top: "conv3"
}
layer {
  name: "pool3"
  type: "Pooling"
  bottom: "conv3"
  top: "pool3"
  pooling_param {
    pool: MAX
    kernel_size: 2
    stride: 2
  }
}
layer {
  name: "fc4_300"
  type: "InnerProduct"
  bottom: "pool3"
  top: "fc4_300"
  inner_product_param {
    num_output: 300
    weight_filler {
      type: "xavier"
    }
  }
}
layer {
  name: "fc4_relu"
  type: "ReLU"
  bottom: "fc4_300"
  top: "fc4_300"
}
layer {
  name: "drop4"
  type: "Dropout"
  bottom: "fc4_300"
  top: "fc4_300"
  dropout_param {
    dropout_ratio: 0.4
  }
}
layer {
  name: "fc5_67"
  type: "InnerProduct"
  bottom: "fc4_300"
  top: "fc5_classes"
  inner_product_param {
    num_output: 67
    weight_filler {
      type: "xavier"
    }
  }
}
layer {
  name: "loss"
  type: "SoftmaxWithLoss"
  bottom: "fc5_classes"
  bottom: "label"
  top: "loss"
}
I0402 14:08:17.697664  3333 layer_factory.hpp:77] Creating layer data
I0402 14:08:17.698917  3333 net.cpp:100] Creating Layer data
I0402 14:08:17.698933  3333 net.cpp:408] data -> data
I0402 14:08:17.698961  3333 net.cpp:408] data -> label
I0402 14:08:17.702399  3428 db_lmdb.cpp:35] Opened lmdb ../local_data/lmdb/rtsd-r1/CoNorm/train/lmdb
I0402 14:08:17.727141  3333 data_layer.cpp:41] output data size: 1024,3,48,48
I0402 14:08:17.775176  3333 net.cpp:150] Setting up data
I0402 14:08:17.775213  3333 net.cpp:157] Top shape: 1024 3 48 48 (7077888)
I0402 14:08:17.775219  3333 net.cpp:157] Top shape: 1024 (1024)
I0402 14:08:17.775252  3333 net.cpp:165] Memory required for data: 28315648
I0402 14:08:17.775265  3333 layer_factory.hpp:77] Creating layer conv1
I0402 14:08:17.775298  3333 net.cpp:100] Creating Layer conv1
I0402 14:08:17.775308  3333 net.cpp:434] conv1 <- data
I0402 14:08:17.775324  3333 net.cpp:408] conv1 -> conv1
I0402 14:08:18.104753  3333 net.cpp:150] Setting up conv1
I0402 14:08:18.104789  3333 net.cpp:157] Top shape: 1024 100 42 42 (180633600)
I0402 14:08:18.104794  3333 net.cpp:165] Memory required for data: 750850048
I0402 14:08:18.104820  3333 layer_factory.hpp:77] Creating layer conv1_relu
I0402 14:08:18.104836  3333 net.cpp:100] Creating Layer conv1_relu
I0402 14:08:18.104843  3333 net.cpp:434] conv1_relu <- conv1
I0402 14:08:18.104851  3333 net.cpp:395] conv1_relu -> conv1 (in-place)
I0402 14:08:18.105087  3333 net.cpp:150] Setting up conv1_relu
I0402 14:08:18.105101  3333 net.cpp:157] Top shape: 1024 100 42 42 (180633600)
I0402 14:08:18.105105  3333 net.cpp:165] Memory required for data: 1473384448
I0402 14:08:18.105110  3333 layer_factory.hpp:77] Creating layer pool1
I0402 14:08:18.105119  3333 net.cpp:100] Creating Layer pool1
I0402 14:08:18.105123  3333 net.cpp:434] pool1 <- conv1
I0402 14:08:18.105130  3333 net.cpp:408] pool1 -> pool1
I0402 14:08:18.105202  3333 net.cpp:150] Setting up pool1
I0402 14:08:18.105221  3333 net.cpp:157] Top shape: 1024 100 21 21 (45158400)
I0402 14:08:18.105228  3333 net.cpp:165] Memory required for data: 1654018048
I0402 14:08:18.105233  3333 layer_factory.hpp:77] Creating layer conv2
I0402 14:08:18.105247  3333 net.cpp:100] Creating Layer conv2
I0402 14:08:18.105253  3333 net.cpp:434] conv2 <- pool1
I0402 14:08:18.105259  3333 net.cpp:408] conv2 -> conv2
I0402 14:08:18.110501  3333 net.cpp:150] Setting up conv2
I0402 14:08:18.110522  3333 net.cpp:157] Top shape: 1024 150 18 18 (49766400)
I0402 14:08:18.110528  3333 net.cpp:165] Memory required for data: 1853083648
I0402 14:08:18.110541  3333 layer_factory.hpp:77] Creating layer conv2_relu
I0402 14:08:18.110551  3333 net.cpp:100] Creating Layer conv2_relu
I0402 14:08:18.110555  3333 net.cpp:434] conv2_relu <- conv2
I0402 14:08:18.110561  3333 net.cpp:395] conv2_relu -> conv2 (in-place)
I0402 14:08:18.111449  3333 net.cpp:150] Setting up conv2_relu
I0402 14:08:18.111470  3333 net.cpp:157] Top shape: 1024 150 18 18 (49766400)
I0402 14:08:18.111476  3333 net.cpp:165] Memory required for data: 2052149248
I0402 14:08:18.111480  3333 layer_factory.hpp:77] Creating layer pool2
I0402 14:08:18.111490  3333 net.cpp:100] Creating Layer pool2
I0402 14:08:18.111495  3333 net.cpp:434] pool2 <- conv2
I0402 14:08:18.111501  3333 net.cpp:408] pool2 -> pool2
I0402 14:08:18.111557  3333 net.cpp:150] Setting up pool2
I0402 14:08:18.111567  3333 net.cpp:157] Top shape: 1024 150 9 9 (12441600)
I0402 14:08:18.111570  3333 net.cpp:165] Memory required for data: 2101915648
I0402 14:08:18.111574  3333 layer_factory.hpp:77] Creating layer conv3
I0402 14:08:18.111584  3333 net.cpp:100] Creating Layer conv3
I0402 14:08:18.111589  3333 net.cpp:434] conv3 <- pool2
I0402 14:08:18.111595  3333 net.cpp:408] conv3 -> conv3
I0402 14:08:18.118280  3333 net.cpp:150] Setting up conv3
I0402 14:08:18.118302  3333 net.cpp:157] Top shape: 1024 250 6 6 (9216000)
I0402 14:08:18.118309  3333 net.cpp:165] Memory required for data: 2138779648
I0402 14:08:18.118321  3333 layer_factory.hpp:77] Creating layer conv3_relu
I0402 14:08:18.118332  3333 net.cpp:100] Creating Layer conv3_relu
I0402 14:08:18.118338  3333 net.cpp:434] conv3_relu <- conv3
I0402 14:08:18.118345  3333 net.cpp:395] conv3_relu -> conv3 (in-place)
I0402 14:08:18.119244  3333 net.cpp:150] Setting up conv3_relu
I0402 14:08:18.119264  3333 net.cpp:157] Top shape: 1024 250 6 6 (9216000)
I0402 14:08:18.119269  3333 net.cpp:165] Memory required for data: 2175643648
I0402 14:08:18.119274  3333 layer_factory.hpp:77] Creating layer pool3
I0402 14:08:18.119282  3333 net.cpp:100] Creating Layer pool3
I0402 14:08:18.119288  3333 net.cpp:434] pool3 <- conv3
I0402 14:08:18.119295  3333 net.cpp:408] pool3 -> pool3
I0402 14:08:18.119376  3333 net.cpp:150] Setting up pool3
I0402 14:08:18.119387  3333 net.cpp:157] Top shape: 1024 250 3 3 (2304000)
I0402 14:08:18.119391  3333 net.cpp:165] Memory required for data: 2184859648
I0402 14:08:18.119395  3333 layer_factory.hpp:77] Creating layer fc4_300
I0402 14:08:18.119403  3333 net.cpp:100] Creating Layer fc4_300
I0402 14:08:18.119410  3333 net.cpp:434] fc4_300 <- pool3
I0402 14:08:18.119415  3333 net.cpp:408] fc4_300 -> fc4_300
I0402 14:08:18.125990  3333 net.cpp:150] Setting up fc4_300
I0402 14:08:18.126009  3333 net.cpp:157] Top shape: 1024 300 (307200)
I0402 14:08:18.126016  3333 net.cpp:165] Memory required for data: 2186088448
I0402 14:08:18.126025  3333 layer_factory.hpp:77] Creating layer fc4_relu
I0402 14:08:18.126034  3333 net.cpp:100] Creating Layer fc4_relu
I0402 14:08:18.126039  3333 net.cpp:434] fc4_relu <- fc4_300
I0402 14:08:18.126045  3333 net.cpp:395] fc4_relu -> fc4_300 (in-place)
I0402 14:08:18.126265  3333 net.cpp:150] Setting up fc4_relu
I0402 14:08:18.126278  3333 net.cpp:157] Top shape: 1024 300 (307200)
I0402 14:08:18.126282  3333 net.cpp:165] Memory required for data: 2187317248
I0402 14:08:18.126286  3333 layer_factory.hpp:77] Creating layer drop4
I0402 14:08:18.126294  3333 net.cpp:100] Creating Layer drop4
I0402 14:08:18.126298  3333 net.cpp:434] drop4 <- fc4_300
I0402 14:08:18.126304  3333 net.cpp:395] drop4 -> fc4_300 (in-place)
I0402 14:08:18.126340  3333 net.cpp:150] Setting up drop4
I0402 14:08:18.126349  3333 net.cpp:157] Top shape: 1024 300 (307200)
I0402 14:08:18.126353  3333 net.cpp:165] Memory required for data: 2188546048
I0402 14:08:18.126358  3333 layer_factory.hpp:77] Creating layer fc5_67
I0402 14:08:18.126364  3333 net.cpp:100] Creating Layer fc5_67
I0402 14:08:18.126370  3333 net.cpp:434] fc5_67 <- fc4_300
I0402 14:08:18.126376  3333 net.cpp:408] fc5_67 -> fc5_classes
I0402 14:08:18.127787  3333 net.cpp:150] Setting up fc5_67
I0402 14:08:18.127806  3333 net.cpp:157] Top shape: 1024 67 (68608)
I0402 14:08:18.127811  3333 net.cpp:165] Memory required for data: 2188820480
I0402 14:08:18.127825  3333 layer_factory.hpp:77] Creating layer loss
I0402 14:08:18.127835  3333 net.cpp:100] Creating Layer loss
I0402 14:08:18.127840  3333 net.cpp:434] loss <- fc5_classes
I0402 14:08:18.127846  3333 net.cpp:434] loss <- label
I0402 14:08:18.127852  3333 net.cpp:408] loss -> loss
I0402 14:08:18.127866  3333 layer_factory.hpp:77] Creating layer loss
…
I0402 14:08:18.128633  3333 solver.cpp:193] Creating test net (#0) specified by test_net file: ./Prototxt/experiment_3/rtsd-r1/CoNorm/test.prototxt
I0402 14:08:18.128803  3333 net.cpp:58] Initializing net from parameters: 
state {
  phase: TEST
}
layer {
  name: "data"
  type: "Data"
  top: "data"
  top: "label"
  include {
    phase: TEST
  }
  transform_param {
    mirror: false
    crop_size: 48
    mean_value: 133
    mean_value: 133
    mean_value: 132
  }
  data_param {
    source: "../local_data/lmdb/rtsd-r1/CoNorm/test/lmdb"
    batch_size: 1024
    backend: LMDB
  }
}
layer {
  name: "conv1"
  type: "Convolution"
  bottom: "data"
  top: "conv1"
  convolution_param {
    num_output: 100
    pad: 0
    kernel_size: 7
    group: 1
    stride: 1
    weight_filler {
      type: "xavier"
    }
  }
}
layer {
  name: "conv1_relu"
  type: "ReLU"
  bottom: "conv1"
  top: "conv1"
}
layer {
  name: "pool1"
  type: "Pooling"
  bottom: "conv1"
  top: "pool1"
  pooling_param {
    pool: MAX
    kernel_size: 2
    stride: 2
  }
}
layer {
  name: "conv2"
  type: "Convolution"
  bottom: "pool1"
  top: "conv2"
  convolution_param {
    num_output: 150
    pad: 0
    kernel_size: 4
    group: 1
    stride: 1
    weight_filler {
      type: "xavier"
    }
  }
}
layer {
  name: "conv2_relu"
  type: "ReLU"
  bottom: "conv2"
  top: "conv2"
}
layer {
  name: "pool2"
  type: "Pooling"
  bottom: "conv2"
  top: "pool2"
  pooling_param {
    pool: MAX
    kernel_size: 2
    stride: 2
  }
}
layer {
  name: "conv3"
  type: "Convolution"
  bottom: "pool2"
  top: "conv3"
  convolution_param {
    num_output: 250
    pad: 0
    kernel_size: 4
    group: 1
    stride: 1
    weight_filler {
      type: "xavier"
    }
  }
}
layer {
  name: "conv3_relu"
  type: "ReLU"
  bottom: "conv3"
  top: "conv3"
}
layer {
  name: "pool3"
  type: "Pooling"
  bottom: "conv3"
  top: "pool3"
  pooling_param {
    pool: MAX
    kernel_size: 2
    stride: 2
  }
}
layer {
  name: "fc4_300"
  type: "InnerProduct"
  bottom: "pool3"
  top: "fc4_300"
  inner_product_param {
    num_output: 300
    weight_filler {
      type: "xavier"
    }
  }
}
layer {
  name: "fc4_relu"
  type: "ReLU"
  bottom: "fc4_300"
  top: "fc4_300"
}
layer {
  name: "drop4"
  type: "Dropout"
  bottom: "fc4_300"
  top: "fc4_300"
  dropout_param {
    dropout_ratio: 0.4
  }
}
layer {
  name: "fc5_67"
  type: "InnerProduct"
  bottom: "fc4_300"
  top: "fc5_classes"
  inner_product_param {
    num_output: 67
    weight_filler {
      type: "xavier"
    }
  }
}
layer {
  name: "loss"
  type: "SoftmaxWithLoss"
  bottom: "fc5_classes"
  bottom: "label"
  top: "loss"
}
layer {
  name: "accuracy_1"
  type: "Accuracy"
  bottom: "fc5_classes"
  bottom: "label"
  top: "accuracy_1"
  include {
    phase: TEST
  }
  accuracy_param {
    top_k: 1
  }
}
layer {
  name: "accuracy_5"
  type: "Accuracy"
  bottom: "fc5_classes"
  bottom: "label"
  top: "accuracy_5"
  include {
    phase: TEST
  }
  accuracy_param {
    top_k: 5
  }
}
I0402 14:08:18.128903  3333 layer_factory.hpp:77] Creating layer data
I0402 14:08:18.129613  3333 net.cpp:100] Creating Layer data
I0402 14:08:18.129629  3333 net.cpp:408] data -> data
I0402 14:08:18.129642  3333 net.cpp:408] data -> label
I0402 14:08:18.131206  3439 db_lmdb.cpp:35] Opened lmdb ../local_data/lmdb/rtsd-r1/CoNorm/test/lmdb
I0402 14:08:18.131438  3333 data_layer.cpp:41] output data size: 1024,3,48,48
I0402 14:08:18.187257  3333 net.cpp:150] Setting up data
I0402 14:08:18.187291  3333 net.cpp:157] Top shape: 1024 3 48 48 (7077888)
I0402 14:08:18.187299  3333 net.cpp:157] Top shape: 1024 (1024)
I0402 14:08:18.187302  3333 net.cpp:165] Memory required for data: 28315648
I0402 14:08:18.187310  3333 layer_factory.hpp:77] Creating layer label_data_1_split
I0402 14:08:18.187348  3333 net.cpp:100] Creating Layer label_data_1_split
I0402 14:08:18.187358  3333 net.cpp:434] label_data_1_split <- label
I0402 14:08:18.187369  3333 net.cpp:408] label_data_1_split -> label_data_1_split_0
I0402 14:08:18.187386  3333 net.cpp:408] label_data_1_split -> label_data_1_split_1
I0402 14:08:18.187397  3333 net.cpp:408] label_data_1_split -> label_data_1_split_2
I0402 14:08:18.187526  3333 net.cpp:150] Setting up label_data_1_split
I0402 14:08:18.187539  3333 net.cpp:157] Top shape: 1024 (1024)
I0402 14:08:18.187543  3333 net.cpp:157] Top shape: 1024 (1024)
I0402 14:08:18.187547  3333 net.cpp:157] Top shape: 1024 (1024)
I0402 14:08:18.187551  3333 net.cpp:165] Memory required for data: 28327936
I0402 14:08:18.187556  3333 layer_factory.hpp:77] Creating layer conv1
I0402 14:08:18.187569  3333 net.cpp:100] Creating Layer conv1
I0402 14:08:18.187575  3333 net.cpp:434] conv1 <- data
I0402 14:08:18.187587  3333 net.cpp:408] conv1 -> conv1
I0402 14:08:18.189822  3333 net.cpp:150] Setting up conv1
I0402 14:08:18.189843  3333 net.cpp:157] Top shape: 1024 100 42 42 (180633600)
I0402 14:08:18.189849  3333 net.cpp:165] Memory required for data: 750862336
I0402 14:08:18.189864  3333 layer_factory.hpp:77] Creating layer conv1_relu
I0402 14:08:18.189885  3333 net.cpp:100] Creating Layer conv1_relu
I0402 14:08:18.189893  3333 net.cpp:434] conv1_relu <- conv1
I0402 14:08:18.189898  3333 net.cpp:395] conv1_relu -> conv1 (in-place)
I0402 14:08:18.192451  3333 net.cpp:150] Setting up conv1_relu
I0402 14:08:18.192469  3333 net.cpp:157] Top shape: 1024 100 42 42 (180633600)
I0402 14:08:18.192473  3333 net.cpp:165] Memory required for data: 1473396736
I0402 14:08:18.192477  3333 layer_factory.hpp:77] Creating layer pool1
I0402 14:08:18.192492  3333 net.cpp:100] Creating Layer pool1
I0402 14:08:18.192498  3333 net.cpp:434] pool1 <- conv1
I0402 14:08:18.192505  3333 net.cpp:408] pool1 -> pool1
I0402 14:08:18.192571  3333 net.cpp:150] Setting up pool1
I0402 14:08:18.192581  3333 net.cpp:157] Top shape: 1024 100 21 21 (45158400)
I0402 14:08:18.192586  3333 net.cpp:165] Memory required for data: 1654030336
I0402 14:08:18.192590  3333 layer_factory.hpp:77] Creating layer conv2
I0402 14:08:18.192605  3333 net.cpp:100] Creating Layer conv2
I0402 14:08:18.192610  3333 net.cpp:434] conv2 <- pool1
I0402 14:08:18.192617  3333 net.cpp:408] conv2 -> conv2
I0402 14:08:18.197340  3333 net.cpp:150] Setting up conv2
I0402 14:08:18.197363  3333 net.cpp:157] Top shape: 1024 150 18 18 (49766400)
I0402 14:08:18.197367  3333 net.cpp:165] Memory required for data: 1853095936
I0402 14:08:18.197381  3333 layer_factory.hpp:77] Creating layer conv2_relu
I0402 14:08:18.197388  3333 net.cpp:100] Creating Layer conv2_relu
I0402 14:08:18.197392  3333 net.cpp:434] conv2_relu <- conv2
I0402 14:08:18.197399  3333 net.cpp:395] conv2_relu -> conv2 (in-place)
I0402 14:08:18.198336  3333 net.cpp:150] Setting up conv2_relu
I0402 14:08:18.198356  3333 net.cpp:157] Top shape: 1024 150 18 18 (49766400)
I0402 14:08:18.198361  3333 net.cpp:165] Memory required for data: 2052161536
I0402 14:08:18.198366  3333 layer_factory.hpp:77] Creating layer pool2
I0402 14:08:18.198375  3333 net.cpp:100] Creating Layer pool2
I0402 14:08:18.198379  3333 net.cpp:434] pool2 <- conv2
I0402 14:08:18.198388  3333 net.cpp:408] pool2 -> pool2
I0402 14:08:18.198452  3333 net.cpp:150] Setting up pool2
I0402 14:08:18.198464  3333 net.cpp:157] Top shape: 1024 150 9 9 (12441600)
I0402 14:08:18.198479  3333 net.cpp:165] Memory required for data: 2101927936
I0402 14:08:18.198483  3333 layer_factory.hpp:77] Creating layer conv3
I0402 14:08:18.198499  3333 net.cpp:100] Creating Layer conv3
I0402 14:08:18.198505  3333 net.cpp:434] conv3 <- pool2
I0402 14:08:18.198513  3333 net.cpp:408] conv3 -> conv3
I0402 14:08:18.205333  3333 net.cpp:150] Setting up conv3
I0402 14:08:18.205354  3333 net.cpp:157] Top shape: 1024 250 6 6 (9216000)
I0402 14:08:18.205358  3333 net.cpp:165] Memory required for data: 2138791936
I0402 14:08:18.205370  3333 layer_factory.hpp:77] Creating layer conv3_relu
I0402 14:08:18.205380  3333 net.cpp:100] Creating Layer conv3_relu
I0402 14:08:18.205385  3333 net.cpp:434] conv3_relu <- conv3
I0402 14:08:18.205391  3333 net.cpp:395] conv3_relu -> conv3 (in-place)
I0402 14:08:18.210717  3333 net.cpp:150] Setting up conv3_relu
I0402 14:08:18.210741  3333 net.cpp:157] Top shape: 1024 250 6 6 (9216000)
I0402 14:08:18.210747  3333 net.cpp:165] Memory required for data: 2175655936
I0402 14:08:18.210769  3333 layer_factory.hpp:77] Creating layer pool3
I0402 14:08:18.210782  3333 net.cpp:100] Creating Layer pool3
I0402 14:08:18.210786  3333 net.cpp:434] pool3 <- conv3
I0402 14:08:18.210793  3333 net.cpp:408] pool3 -> pool3
I0402 14:08:18.210867  3333 net.cpp:150] Setting up pool3
I0402 14:08:18.210878  3333 net.cpp:157] Top shape: 1024 250 3 3 (2304000)
I0402 14:08:18.210882  3333 net.cpp:165] Memory required for data: 2184871936
I0402 14:08:18.210886  3333 layer_factory.hpp:77] Creating layer fc4_300
I0402 14:08:18.210899  3333 net.cpp:100] Creating Layer fc4_300
I0402 14:08:18.210906  3333 net.cpp:434] fc4_300 <- pool3
I0402 14:08:18.210912  3333 net.cpp:408] fc4_300 -> fc4_300
I0402 14:08:18.217527  3333 net.cpp:150] Setting up fc4_300
I0402 14:08:18.217548  3333 net.cpp:157] Top shape: 1024 300 (307200)
I0402 14:08:18.217552  3333 net.cpp:165] Memory required for data: 2186100736
I0402 14:08:18.217561  3333 layer_factory.hpp:77] Creating layer fc4_relu
I0402 14:08:18.217569  3333 net.cpp:100] Creating Layer fc4_relu
I0402 14:08:18.217573  3333 net.cpp:434] fc4_relu <- fc4_300
I0402 14:08:18.217581  3333 net.cpp:395] fc4_relu -> fc4_300 (in-place)
I0402 14:08:18.217826  3333 net.cpp:150] Setting up fc4_relu
I0402 14:08:18.217841  3333 net.cpp:157] Top shape: 1024 300 (307200)
I0402 14:08:18.217847  3333 net.cpp:165] Memory required for data: 2187329536
I0402 14:08:18.217851  3333 layer_factory.hpp:77] Creating layer drop4
I0402 14:08:18.217861  3333 net.cpp:100] Creating Layer drop4
I0402 14:08:18.217867  3333 net.cpp:434] drop4 <- fc4_300
I0402 14:08:18.217874  3333 net.cpp:395] drop4 -> fc4_300 (in-place)
I0402 14:08:18.217911  3333 net.cpp:150] Setting up drop4
I0402 14:08:18.217921  3333 net.cpp:157] Top shape: 1024 300 (307200)
I0402 14:08:18.217924  3333 net.cpp:165] Memory required for data: 2188558336
I0402 14:08:18.217928  3333 layer_factory.hpp:77] Creating layer fc5_67
I0402 14:08:18.217936  3333 net.cpp:100] Creating Layer fc5_67
I0402 14:08:18.217939  3333 net.cpp:434] fc5_67 <- fc4_300
I0402 14:08:18.217947  3333 net.cpp:408] fc5_67 -> fc5_classes
I0402 14:08:18.218261  3333 net.cpp:150] Setting up fc5_67
I0402 14:08:18.218273  3333 net.cpp:157] Top shape: 1024 67 (68608)
I0402 14:08:18.218276  3333 net.cpp:165] Memory required for data: 2188832768
I0402 14:08:18.218288  3333 layer_factory.hpp:77] Creating layer fc5_classes_fc5_67_0_split
I0402 14:08:18.218297  3333 net.cpp:100] Creating Layer fc5_classes_fc5_67_0_split
I0402 14:08:18.218300  3333 net.cpp:434] fc5_classes_fc5_67_0_split <- fc5_classes
I0402 14:08:18.218308  3333 net.cpp:408] fc5_classes_fc5_67_0_split -> fc5_classes_fc5_67_0_split_0
I0402 14:08:18.218317  3333 net.cpp:408] fc5_classes_fc5_67_0_split -> fc5_classes_fc5_67_0_split_1
I0402 14:08:18.218327  3333 net.cpp:408] fc5_classes_fc5_67_0_split -> fc5_classes_fc5_67_0_split_2
I0402 14:08:18.218392  3333 net.cpp:150] Setting up fc5_classes_fc5_67_0_split
I0402 14:08:18.218401  3333 net.cpp:157] Top shape: 1024 67 (68608)
I0402 14:08:18.218406  3333 net.cpp:157] Top shape: 1024 67 (68608)
I0402 14:08:18.218410  3333 net.cpp:157] Top shape: 1024 67 (68608)
I0402 14:08:18.218413  3333 net.cpp:165] Memory required for data: 2189656064
I0402 14:08:18.218417  3333 layer_factory.hpp:77] Creating layer loss
I0402 14:08:18.218428  3333 net.cpp:100] Creating Layer loss
I0402 14:08:18.218435  3333 net.cpp:434] loss <- fc5_classes_fc5_67_0_split_0
I0402 14:08:18.218441  3333 net.cpp:434] loss <- label_data_1_split_0
I0402 14:08:18.218446  3333 net.cpp:408] loss -> loss
…
