…
I0414 12:26:25.964134 13146 solver.cpp:93] Creating training net from train_net file: ./Prototxt/experiment_10/rtsd-r3/CoNorm/trial_5/train.prototxt
I0414 12:26:25.964751 13146 net.cpp:58] Initializing net from parameters: 
state {
  phase: TRAIN
  level: 0
  stage: ""
}
layer {
  name: "data"
  type: "Data"
  top: "data"
  top: "label"
  include {
    phase: TRAIN
  }
  transform_param {
    scale: 0.0039215689
    mirror: false
    crop_size: 48
    mean_value: 135
    mean_value: 134
    mean_value: 134
  }
  data_param {
    source: "../local_data/lmdb/rtsd-r3/CoNorm/train/lmdb"
    batch_size: 1024
    backend: LMDB
  }
}
layer {
  name: "conv1"
  type: "Convolution"
  bottom: "data"
  top: "conv1"
  convolution_param {
    num_output: 100
    pad: 0
    kernel_size: 7
    group: 1
    stride: 1
    weight_filler {
      type: "xavier"
    }
  }
}
layer {
  name: "conv1_relu"
  type: "ReLU"
  bottom: "conv1"
  top: "conv1"
}
layer {
  name: "pool1"
  type: "Pooling"
  bottom: "conv1"
  top: "pool1"
  pooling_param {
    pool: MAX
    kernel_size: 2
    stride: 2
  }
}
layer {
  name: "conv2"
  type: "Convolution"
  bottom: "pool1"
  top: "conv2"
  convolution_param {
    num_output: 150
    pad: 0
    kernel_size: 4
    group: 1
    stride: 1
    weight_filler {
      type: "xavier"
    }
  }
}
layer {
  name: "conv2_relu"
  type: "ReLU"
  bottom: "conv2"
  top: "conv2"
}
layer {
  name: "pool2"
  type: "Pooling"
  bottom: "conv2"
  top: "pool2"
  pooling_param {
    pool: MAX
    kernel_size: 2
    stride: 2
  }
}
layer {
  name: "conv3"
  type: "Convolution"
  bottom: "pool2"
  top: "conv3"
  convolution_param {
    num_output: 250
    pad: 0
    kernel_size: 4
    group: 1
    stride: 1
    weight_filler {
      type: "xavier"
    }
  }
}
layer {
  name: "conv3_relu"
  type: "ReLU"
  bottom: "conv3"
  top: "conv3"
}
layer {
  name: "pool3"
  type: "Pooling"
  bottom: "conv3"
  top: "pool3"
  pooling_param {
    pool: MAX
    kernel_size: 2
    stride: 2
  }
}
layer {
  name: "fc4_300"
  type: "InnerProduct"
  bottom: "pool3"
  top: "fc4_300"
  inner_product_param {
    num_output: 300
    weight_filler {
      type: "xavier"
    }
  }
}
layer {
  name: "fc4_relu"
  type: "ReLU"
  bottom: "fc4_300"
  top: "fc4_300"
}
layer {
  name: "fc5_106"
  type: "InnerProduct"
  bottom: "fc4_300"
  top: "fc5_classes"
  inner_product_param {
    num_output: 106
    weight_filler {
      type: "xavier"
    }
  }
}
layer {
  name: "softmax"
  type: "Softmax"
  bottom: "fc5_classes"
  top: "softmax"
}
layer {
  name: "loss"
  type: "MultinomialLogisticLoss"
  bottom: "softmax"
  bottom: "label"
  top: "loss"
}
layer {
  name: "accuracy_1"
  type: "Accuracy"
  bottom: "fc5_classes"
  bottom: "label"
  top: "accuracy_1"
  accuracy_param {
    top_k: 1
  }
}
layer {
  name: "accuracy_5"
  type: "Accuracy"
  bottom: "fc5_classes"
  bottom: "label"
  top: "accuracy_5"
  accuracy_param {
    top_k: 5
  }
}
layer {
  name: "silence"
  type: "Silence"
  bottom: "accuracy_1"
  bottom: "accuracy_5"
}
I0414 12:26:25.964962 13146 layer_factory.hpp:77] Creating layer data
I0414 12:26:25.966989 13146 net.cpp:100] Creating Layer data
I0414 12:26:25.967017 13146 net.cpp:408] data -> data
I0414 12:26:25.967054 13146 net.cpp:408] data -> label
I0414 12:26:25.973851 13253 db_lmdb.cpp:35] Opened lmdb ../local_data/lmdb/rtsd-r3/CoNorm/train/lmdb
I0414 12:26:25.999979 13146 data_layer.cpp:41] output data size: 1024,3,48,48
I0414 12:26:26.074970 13146 net.cpp:150] Setting up data
I0414 12:26:26.075026 13146 net.cpp:157] Top shape: 1024 3 48 48 (7077888)
I0414 12:26:26.075033 13146 net.cpp:157] Top shape: 1024 (1024)
I0414 12:26:26.075036 13146 net.cpp:165] Memory required for data: 28315648
I0414 12:26:26.075047 13146 layer_factory.hpp:77] Creating layer label_data_1_split
I0414 12:26:26.075062 13146 net.cpp:100] Creating Layer label_data_1_split
I0414 12:26:26.075069 13146 net.cpp:434] label_data_1_split <- label
I0414 12:26:26.075086 13146 net.cpp:408] label_data_1_split -> label_data_1_split_0
I0414 12:26:26.075099 13146 net.cpp:408] label_data_1_split -> label_data_1_split_1
I0414 12:26:26.075108 13146 net.cpp:408] label_data_1_split -> label_data_1_split_2
I0414 12:26:26.075171 13146 net.cpp:150] Setting up label_data_1_split
I0414 12:26:26.075179 13146 net.cpp:157] Top shape: 1024 (1024)
I0414 12:26:26.075182 13146 net.cpp:157] Top shape: 1024 (1024)
I0414 12:26:26.075186 13146 net.cpp:157] Top shape: 1024 (1024)
I0414 12:26:26.075189 13146 net.cpp:165] Memory required for data: 28327936
I0414 12:26:26.075192 13146 layer_factory.hpp:77] Creating layer conv1
I0414 12:26:26.075209 13146 net.cpp:100] Creating Layer conv1
I0414 12:26:26.075214 13146 net.cpp:434] conv1 <- data
I0414 12:26:26.075222 13146 net.cpp:408] conv1 -> conv1
I0414 12:26:26.518954 13146 net.cpp:150] Setting up conv1
I0414 12:26:26.518985 13146 net.cpp:157] Top shape: 1024 100 42 42 (180633600)
I0414 12:26:26.518990 13146 net.cpp:165] Memory required for data: 750862336
I0414 12:26:26.519014 13146 layer_factory.hpp:77] Creating layer conv1_relu
I0414 12:26:26.519026 13146 net.cpp:100] Creating Layer conv1_relu
I0414 12:26:26.519032 13146 net.cpp:434] conv1_relu <- conv1
I0414 12:26:26.519038 13146 net.cpp:395] conv1_relu -> conv1 (in-place)
I0414 12:26:26.519271 13146 net.cpp:150] Setting up conv1_relu
I0414 12:26:26.519286 13146 net.cpp:157] Top shape: 1024 100 42 42 (180633600)
I0414 12:26:26.519291 13146 net.cpp:165] Memory required for data: 1473396736
I0414 12:26:26.519296 13146 layer_factory.hpp:77] Creating layer pool1
I0414 12:26:26.519307 13146 net.cpp:100] Creating Layer pool1
I0414 12:26:26.519312 13146 net.cpp:434] pool1 <- conv1
I0414 12:26:26.519318 13146 net.cpp:408] pool1 -> pool1
I0414 12:26:26.519381 13146 net.cpp:150] Setting up pool1
I0414 12:26:26.519390 13146 net.cpp:157] Top shape: 1024 100 21 21 (45158400)
I0414 12:26:26.519394 13146 net.cpp:165] Memory required for data: 1654030336
I0414 12:26:26.519398 13146 layer_factory.hpp:77] Creating layer conv2
I0414 12:26:26.519409 13146 net.cpp:100] Creating Layer conv2
I0414 12:26:26.519415 13146 net.cpp:434] conv2 <- pool1
I0414 12:26:26.519420 13146 net.cpp:408] conv2 -> conv2
I0414 12:26:26.524739 13146 net.cpp:150] Setting up conv2
I0414 12:26:26.524758 13146 net.cpp:157] Top shape: 1024 150 18 18 (49766400)
I0414 12:26:26.524763 13146 net.cpp:165] Memory required for data: 1853095936
I0414 12:26:26.524775 13146 layer_factory.hpp:77] Creating layer conv2_relu
I0414 12:26:26.524782 13146 net.cpp:100] Creating Layer conv2_relu
I0414 12:26:26.524786 13146 net.cpp:434] conv2_relu <- conv2
I0414 12:26:26.524792 13146 net.cpp:395] conv2_relu -> conv2 (in-place)
I0414 12:26:26.534536 13146 net.cpp:150] Setting up conv2_relu
I0414 12:26:26.534554 13146 net.cpp:157] Top shape: 1024 150 18 18 (49766400)
I0414 12:26:26.534559 13146 net.cpp:165] Memory required for data: 2052161536
I0414 12:26:26.534562 13146 layer_factory.hpp:77] Creating layer pool2
I0414 12:26:26.534570 13146 net.cpp:100] Creating Layer pool2
I0414 12:26:26.534575 13146 net.cpp:434] pool2 <- conv2
I0414 12:26:26.534582 13146 net.cpp:408] pool2 -> pool2
I0414 12:26:26.534637 13146 net.cpp:150] Setting up pool2
I0414 12:26:26.534647 13146 net.cpp:157] Top shape: 1024 150 9 9 (12441600)
I0414 12:26:26.534651 13146 net.cpp:165] Memory required for data: 2101927936
I0414 12:26:26.534653 13146 layer_factory.hpp:77] Creating layer conv3
I0414 12:26:26.534664 13146 net.cpp:100] Creating Layer conv3
I0414 12:26:26.534669 13146 net.cpp:434] conv3 <- pool2
I0414 12:26:26.534675 13146 net.cpp:408] conv3 -> conv3
I0414 12:26:26.541230 13146 net.cpp:150] Setting up conv3
I0414 12:26:26.541251 13146 net.cpp:157] Top shape: 1024 250 6 6 (9216000)
I0414 12:26:26.541255 13146 net.cpp:165] Memory required for data: 2138791936
I0414 12:26:26.541266 13146 layer_factory.hpp:77] Creating layer conv3_relu
I0414 12:26:26.541275 13146 net.cpp:100] Creating Layer conv3_relu
I0414 12:26:26.541281 13146 net.cpp:434] conv3_relu <- conv3
I0414 12:26:26.541286 13146 net.cpp:395] conv3_relu -> conv3 (in-place)
I0414 12:26:26.546123 13146 net.cpp:150] Setting up conv3_relu
I0414 12:26:26.546144 13146 net.cpp:157] Top shape: 1024 250 6 6 (9216000)
I0414 12:26:26.546149 13146 net.cpp:165] Memory required for data: 2175655936
I0414 12:26:26.546152 13146 layer_factory.hpp:77] Creating layer pool3
I0414 12:26:26.546160 13146 net.cpp:100] Creating Layer pool3
I0414 12:26:26.546164 13146 net.cpp:434] pool3 <- conv3
I0414 12:26:26.546170 13146 net.cpp:408] pool3 -> pool3
I0414 12:26:26.546223 13146 net.cpp:150] Setting up pool3
I0414 12:26:26.546232 13146 net.cpp:157] Top shape: 1024 250 3 3 (2304000)
I0414 12:26:26.546236 13146 net.cpp:165] Memory required for data: 2184871936
I0414 12:26:26.546239 13146 layer_factory.hpp:77] Creating layer fc4_300
I0414 12:26:26.546247 13146 net.cpp:100] Creating Layer fc4_300
I0414 12:26:26.546252 13146 net.cpp:434] fc4_300 <- pool3
I0414 12:26:26.546257 13146 net.cpp:408] fc4_300 -> fc4_300
I0414 12:26:26.552132 13146 net.cpp:150] Setting up fc4_300
I0414 12:26:26.552150 13146 net.cpp:157] Top shape: 1024 300 (307200)
I0414 12:26:26.552155 13146 net.cpp:165] Memory required for data: 2186100736
I0414 12:26:26.552162 13146 layer_factory.hpp:77] Creating layer fc4_relu
I0414 12:26:26.552168 13146 net.cpp:100] Creating Layer fc4_relu
I0414 12:26:26.552175 13146 net.cpp:434] fc4_relu <- fc4_300
I0414 12:26:26.552181 13146 net.cpp:395] fc4_relu -> fc4_300 (in-place)
I0414 12:26:26.552379 13146 net.cpp:150] Setting up fc4_relu
I0414 12:26:26.552392 13146 net.cpp:157] Top shape: 1024 300 (307200)
I0414 12:26:26.552397 13146 net.cpp:165] Memory required for data: 2187329536
I0414 12:26:26.552400 13146 layer_factory.hpp:77] Creating layer fc5_106
I0414 12:26:26.552407 13146 net.cpp:100] Creating Layer fc5_106
I0414 12:26:26.552410 13146 net.cpp:434] fc5_106 <- fc4_300
I0414 12:26:26.552415 13146 net.cpp:408] fc5_106 -> fc5_classes
I0414 12:26:26.553840 13146 net.cpp:150] Setting up fc5_106
I0414 12:26:26.553856 13146 net.cpp:157] Top shape: 1024 106 (108544)
I0414 12:26:26.553860 13146 net.cpp:165] Memory required for data: 2187763712
I0414 12:26:26.553870 13146 layer_factory.hpp:77] Creating layer fc5_classes_fc5_106_0_split
I0414 12:26:26.553879 13146 net.cpp:100] Creating Layer fc5_classes_fc5_106_0_split
I0414 12:26:26.553882 13146 net.cpp:434] fc5_classes_fc5_106_0_split <- fc5_classes
I0414 12:26:26.553889 13146 net.cpp:408] fc5_classes_fc5_106_0_split -> fc5_classes_fc5_106_0_split_0
I0414 12:26:26.553896 13146 net.cpp:408] fc5_classes_fc5_106_0_split -> fc5_classes_fc5_106_0_split_1
I0414 12:26:26.553905 13146 net.cpp:408] fc5_classes_fc5_106_0_split -> fc5_classes_fc5_106_0_split_2
I0414 12:26:26.553958 13146 net.cpp:150] Setting up fc5_classes_fc5_106_0_split
I0414 12:26:26.553966 13146 net.cpp:157] Top shape: 1024 106 (108544)
I0414 12:26:26.553969 13146 net.cpp:157] Top shape: 1024 106 (108544)
I0414 12:26:26.553973 13146 net.cpp:157] Top shape: 1024 106 (108544)
I0414 12:26:26.553977 13146 net.cpp:165] Memory required for data: 2189066240
I0414 12:26:26.553979 13146 layer_factory.hpp:77] Creating layer softmax
I0414 12:26:26.553984 13146 net.cpp:100] Creating Layer softmax
I0414 12:26:26.553988 13146 net.cpp:434] softmax <- fc5_classes_fc5_106_0_split_0
I0414 12:26:26.553993 13146 net.cpp:408] softmax -> softmax
I0414 12:26:26.554252 13146 net.cpp:150] Setting up softmax
I0414 12:26:26.554265 13146 net.cpp:157] Top shape: 1024 106 (108544)
I0414 12:26:26.554270 13146 net.cpp:165] Memory required for data: 2189500416
I0414 12:26:26.554273 13146 layer_factory.hpp:77] Creating layer loss
I0414 12:26:26.554298 13146 net.cpp:100] Creating Layer loss
I0414 12:26:26.554304 13146 net.cpp:434] loss <- softmax
I0414 12:26:26.554309 13146 net.cpp:434] loss <- label_data_1_split_0
I0414 12:26:26.554314 13146 net.cpp:408] loss -> loss
…
