…
I0411 05:21:13.781148  6643 net.cpp:322] The NetState phase (0) differed from the phase (1) specified by a rule in layer accuracy_5
I0411 05:21:13.781316  6643 net.cpp:58] Initializing net from parameters: 
state {
  phase: TRAIN
  level: 0
  stage: ""
}
layer {
  name: "data"
  type: "Data"
  top: "data"
  top: "label"
  include {
    phase: TRAIN
  }
  transform_param {
    scale: 0.0039215689
    mirror: false
    crop_size: 48
    mean_value: 132
    mean_value: 126
    mean_value: 140
  }
  data_param {
    source: "../local_data/lmdb/rtsd-r1/AHE/train/lmdb"
    batch_size: 1024
    backend: LMDB
  }
}
layer {
  name: "conv1"
  type: "Convolution"
  bottom: "data"
  top: "conv1"
  convolution_param {
    num_output: 100
    pad: 0
    kernel_size: 7
    group: 1
    stride: 1
    weight_filler {
      type: "xavier"
    }
  }
}
layer {
  name: "conv1_prescale"
  type: "Scale"
  bottom: "conv1"
  top: "conv1"
  param {
    lr_mult: 0
    decay_mult: 0
  }
  scale_param {
    filler {
      value: 0.6666
    }
    bias_term: false
  }
}
layer {
  name: "conv1_sTanH"
  type: "TanH"
  bottom: "conv1"
  top: "conv1"
}
layer {
  name: "conv1_postscale"
  type: "Scale"
  bottom: "conv1"
  top: "conv1"
  param {
    lr_mult: 0
    decay_mult: 0
  }
  scale_param {
    filler {
      value: 1.7159
    }
    bias_term: false
  }
}
layer {
  name: "pool1"
  type: "Pooling"
  bottom: "conv1"
  top: "pool1"
  pooling_param {
    pool: MAX
    kernel_size: 2
    stride: 2
  }
}
layer {
  name: "conv2"
  type: "Convolution"
  bottom: "pool1"
  top: "conv2"
  convolution_param {
    num_output: 150
    pad: 0
    kernel_size: 4
    group: 1
    stride: 1
    weight_filler {
      type: "xavier"
    }
  }
}
layer {
  name: "conv2_prescale"
  type: "Scale"
  bottom: "conv2"
  top: "conv2"
  param {
    lr_mult: 0
    decay_mult: 0
  }
  scale_param {
    filler {
      value: 0.6666
    }
    bias_term: false
  }
}
layer {
  name: "conv2_sTanH"
  type: "TanH"
  bottom: "conv2"
  top: "conv2"
}
layer {
  name: "conv2_postscale"
  type: "Scale"
  bottom: "conv2"
  top: "conv2"
  param {
    lr_mult: 0
    decay_mult: 0
  }
  scale_param {
    filler {
      value: 1.7159
    }
    bias_term: false
  }
}
layer {
  name: "pool2"
  type: "Pooling"
  bottom: "conv2"
  top: "pool2"
  pooling_param {
    pool: MAX
    kernel_size: 2
    stride: 2
  }
}
layer {
  name: "conv3"
  type: "Convolution"
  bottom: "pool2"
  top: "conv3"
  convolution_param {
    num_output: 250
    pad: 0
    kernel_size: 4
    group: 1
    stride: 1
    weight_filler {
      type: "xavier"
    }
  }
}
layer {
  name: "conv3_prescale"
  type: "Scale"
  bottom: "conv3"
  top: "conv3"
  param {
    lr_mult: 0
    decay_mult: 0
  }
  scale_param {
    filler {
      value: 0.6666
    }
    bias_term: false
  }
}
layer {
  name: "conv3_sTanH"
  type: "TanH"
  bottom: "conv3"
  top: "conv3"
}
layer {
  name: "conv3_postscale"
  type: "Scale"
  bottom: "conv3"
  top: "conv3"
  param {
    lr_mult: 0
    decay_mult: 0
  }
  scale_param {
    filler {
      value: 1.7159
    }
    bias_term: false
  }
}
layer {
  name: "pool3"
  type: "Pooling"
  bottom: "conv3"
  top: "pool3"
  pooling_param {
    pool: MAX
    kernel_size: 2
    stride: 2
  }
}
layer {
  name: "fc4_300"
  type: "InnerProduct"
  bottom: "pool3"
  top: "fc4_300"
  inner_product_param {
    num_output: 300
    weight_filler {
      type: "xavier"
    }
  }
}
layer {
  name: "fc4_prescale"
  type: "Scale"
  bottom: "fc4_300"
  top: "fc4_300"
  param {
    lr_mult: 0
    decay_mult: 0
  }
  scale_param {
    filler {
      value: 0.6666
    }
    bias_term: false
  }
}
layer {
  name: "fc4_sTanH"
  type: "TanH"
  bottom: "fc4_300"
  top: "fc4_300"
}
layer {
  name: "fc4_postscale"
  type: "Scale"
  bottom: "fc4_300"
  top: "fc4_300"
  param {
    lr_mult: 0
    decay_mult: 0
  }
  scale_param {
    filler {
      value: 1.7159
    }
    bias_term: false
  }
}
layer {
  name: "fc5_67"
  type: "InnerProduct"
  bottom: "fc4_300"
  top: "fc5_classes"
  inner_product_param {
    num_output: 67
    weight_filler {
      type: "xavier"
    }
  }
}
layer {
  name: "loss"
  type: "SoftmaxWithLoss"
  bottom: "fc5_classes"
  bottom: "label"
  top: "loss"
}
I0411 05:21:13.781416  6643 layer_factory.hpp:77] Creating layer data
I0411 05:21:13.782464  6643 net.cpp:100] Creating Layer data
I0411 05:21:13.782481  6643 net.cpp:408] data -> data
I0411 05:21:13.782506  6643 net.cpp:408] data -> label
I0411 05:21:13.794678  6767 db_lmdb.cpp:35] Opened lmdb ../local_data/lmdb/rtsd-r1/AHE/train/lmdb
I0411 05:21:13.811378  6643 data_layer.cpp:41] output data size: 1024,3,48,48
I0411 05:21:13.855908  6643 net.cpp:150] Setting up data
I0411 05:21:13.855939  6643 net.cpp:157] Top shape: 1024 3 48 48 (7077888)
I0411 05:21:13.855944  6643 net.cpp:157] Top shape: 1024 (1024)
I0411 05:21:13.855947  6643 net.cpp:165] Memory required for data: 28315648
I0411 05:21:13.855957  6643 layer_factory.hpp:77] Creating layer conv1
I0411 05:21:13.855980  6643 net.cpp:100] Creating Layer conv1
I0411 05:21:13.855986  6643 net.cpp:434] conv1 <- data
I0411 05:21:13.855998  6643 net.cpp:408] conv1 -> conv1
I0411 05:21:14.137531  6643 net.cpp:150] Setting up conv1
I0411 05:21:14.137570  6643 net.cpp:157] Top shape: 1024 100 42 42 (180633600)
I0411 05:21:14.137575  6643 net.cpp:165] Memory required for data: 750850048
I0411 05:21:14.137598  6643 layer_factory.hpp:77] Creating layer conv1_prescale
I0411 05:21:14.137614  6643 net.cpp:100] Creating Layer conv1_prescale
I0411 05:21:14.137619  6643 net.cpp:434] conv1_prescale <- conv1
I0411 05:21:14.137626  6643 net.cpp:395] conv1_prescale -> conv1 (in-place)
I0411 05:21:14.137733  6643 net.cpp:150] Setting up conv1_prescale
I0411 05:21:14.137742  6643 net.cpp:157] Top shape: 1024 100 42 42 (180633600)
I0411 05:21:14.137745  6643 net.cpp:165] Memory required for data: 1473384448
I0411 05:21:14.137751  6643 layer_factory.hpp:77] Creating layer conv1_sTanH
I0411 05:21:14.137758  6643 net.cpp:100] Creating Layer conv1_sTanH
I0411 05:21:14.137763  6643 net.cpp:434] conv1_sTanH <- conv1
I0411 05:21:14.137768  6643 net.cpp:395] conv1_sTanH -> conv1 (in-place)
I0411 05:21:14.137956  6643 net.cpp:150] Setting up conv1_sTanH
I0411 05:21:14.137967  6643 net.cpp:157] Top shape: 1024 100 42 42 (180633600)
I0411 05:21:14.137971  6643 net.cpp:165] Memory required for data: 2195918848
I0411 05:21:14.137974  6643 layer_factory.hpp:77] Creating layer conv1_postscale
I0411 05:21:14.137982  6643 net.cpp:100] Creating Layer conv1_postscale
I0411 05:21:14.137987  6643 net.cpp:434] conv1_postscale <- conv1
I0411 05:21:14.137992  6643 net.cpp:395] conv1_postscale -> conv1 (in-place)
I0411 05:21:14.138085  6643 net.cpp:150] Setting up conv1_postscale
I0411 05:21:14.138092  6643 net.cpp:157] Top shape: 1024 100 42 42 (180633600)
I0411 05:21:14.138095  6643 net.cpp:165] Memory required for data: 2918453248
I0411 05:21:14.138101  6643 layer_factory.hpp:77] Creating layer pool1
I0411 05:21:14.138108  6643 net.cpp:100] Creating Layer pool1
I0411 05:21:14.138113  6643 net.cpp:434] pool1 <- conv1
I0411 05:21:14.138118  6643 net.cpp:408] pool1 -> pool1
I0411 05:21:14.138162  6643 net.cpp:150] Setting up pool1
I0411 05:21:14.138170  6643 net.cpp:157] Top shape: 1024 100 21 21 (45158400)
I0411 05:21:14.138191  6643 net.cpp:165] Memory required for data: 3099086848
I0411 05:21:14.138196  6643 layer_factory.hpp:77] Creating layer conv2
I0411 05:21:14.138206  6643 net.cpp:100] Creating Layer conv2
I0411 05:21:14.138209  6643 net.cpp:434] conv2 <- pool1
I0411 05:21:14.138214  6643 net.cpp:408] conv2 -> conv2
I0411 05:21:14.145299  6643 net.cpp:150] Setting up conv2
I0411 05:21:14.145318  6643 net.cpp:157] Top shape: 1024 150 18 18 (49766400)
I0411 05:21:14.145321  6643 net.cpp:165] Memory required for data: 3298152448
I0411 05:21:14.145331  6643 layer_factory.hpp:77] Creating layer conv2_prescale
I0411 05:21:14.145340  6643 net.cpp:100] Creating Layer conv2_prescale
I0411 05:21:14.145344  6643 net.cpp:434] conv2_prescale <- conv2
I0411 05:21:14.145349  6643 net.cpp:395] conv2_prescale -> conv2 (in-place)
I0411 05:21:14.145457  6643 net.cpp:150] Setting up conv2_prescale
I0411 05:21:14.145465  6643 net.cpp:157] Top shape: 1024 150 18 18 (49766400)
I0411 05:21:14.145468  6643 net.cpp:165] Memory required for data: 3497218048
I0411 05:21:14.145473  6643 layer_factory.hpp:77] Creating layer conv2_sTanH
I0411 05:21:14.145480  6643 net.cpp:100] Creating Layer conv2_sTanH
I0411 05:21:14.145483  6643 net.cpp:434] conv2_sTanH <- conv2
I0411 05:21:14.145488  6643 net.cpp:395] conv2_sTanH -> conv2 (in-place)
I0411 05:21:14.146349  6643 net.cpp:150] Setting up conv2_sTanH
I0411 05:21:14.146364  6643 net.cpp:157] Top shape: 1024 150 18 18 (49766400)
I0411 05:21:14.146368  6643 net.cpp:165] Memory required for data: 3696283648
I0411 05:21:14.146371  6643 layer_factory.hpp:77] Creating layer conv2_postscale
I0411 05:21:14.146379  6643 net.cpp:100] Creating Layer conv2_postscale
I0411 05:21:14.146383  6643 net.cpp:434] conv2_postscale <- conv2
I0411 05:21:14.146389  6643 net.cpp:395] conv2_postscale -> conv2 (in-place)
I0411 05:21:14.146481  6643 net.cpp:150] Setting up conv2_postscale
I0411 05:21:14.146488  6643 net.cpp:157] Top shape: 1024 150 18 18 (49766400)
I0411 05:21:14.146492  6643 net.cpp:165] Memory required for data: 3895349248
I0411 05:21:14.146497  6643 layer_factory.hpp:77] Creating layer pool2
I0411 05:21:14.146503  6643 net.cpp:100] Creating Layer pool2
I0411 05:21:14.146507  6643 net.cpp:434] pool2 <- conv2
I0411 05:21:14.146510  6643 net.cpp:408] pool2 -> pool2
I0411 05:21:14.146548  6643 net.cpp:150] Setting up pool2
I0411 05:21:14.146555  6643 net.cpp:157] Top shape: 1024 150 9 9 (12441600)
I0411 05:21:14.146559  6643 net.cpp:165] Memory required for data: 3945115648
I0411 05:21:14.146561  6643 layer_factory.hpp:77] Creating layer conv3
I0411 05:21:14.146569  6643 net.cpp:100] Creating Layer conv3
I0411 05:21:14.146574  6643 net.cpp:434] conv3 <- pool2
I0411 05:21:14.146579  6643 net.cpp:408] conv3 -> conv3
I0411 05:21:14.152384  6643 net.cpp:150] Setting up conv3
I0411 05:21:14.152400  6643 net.cpp:157] Top shape: 1024 250 6 6 (9216000)
I0411 05:21:14.152405  6643 net.cpp:165] Memory required for data: 3981979648
I0411 05:21:14.152415  6643 layer_factory.hpp:77] Creating layer conv3_prescale
I0411 05:21:14.152422  6643 net.cpp:100] Creating Layer conv3_prescale
I0411 05:21:14.152426  6643 net.cpp:434] conv3_prescale <- conv3
I0411 05:21:14.152431  6643 net.cpp:395] conv3_prescale -> conv3 (in-place)
I0411 05:21:14.152523  6643 net.cpp:150] Setting up conv3_prescale
I0411 05:21:14.152531  6643 net.cpp:157] Top shape: 1024 250 6 6 (9216000)
I0411 05:21:14.152534  6643 net.cpp:165] Memory required for data: 4018843648
I0411 05:21:14.152539  6643 layer_factory.hpp:77] Creating layer conv3_sTanH
I0411 05:21:14.152544  6643 net.cpp:100] Creating Layer conv3_sTanH
I0411 05:21:14.152547  6643 net.cpp:434] conv3_sTanH <- conv3
I0411 05:21:14.152551  6643 net.cpp:395] conv3_sTanH -> conv3 (in-place)
I0411 05:21:14.153319  6643 net.cpp:150] Setting up conv3_sTanH
I0411 05:21:14.153338  6643 net.cpp:157] Top shape: 1024 250 6 6 (9216000)
I0411 05:21:14.153343  6643 net.cpp:165] Memory required for data: 4055707648
I0411 05:21:14.153347  6643 layer_factory.hpp:77] Creating layer conv3_postscale
I0411 05:21:14.153354  6643 net.cpp:100] Creating Layer conv3_postscale
I0411 05:21:14.153370  6643 net.cpp:434] conv3_postscale <- conv3
I0411 05:21:14.153376  6643 net.cpp:395] conv3_postscale -> conv3 (in-place)
I0411 05:21:14.153475  6643 net.cpp:150] Setting up conv3_postscale
I0411 05:21:14.153483  6643 net.cpp:157] Top shape: 1024 250 6 6 (9216000)
I0411 05:21:14.153486  6643 net.cpp:165] Memory required for data: 4092571648
I0411 05:21:14.153491  6643 layer_factory.hpp:77] Creating layer pool3
I0411 05:21:14.153497  6643 net.cpp:100] Creating Layer pool3
I0411 05:21:14.153501  6643 net.cpp:434] pool3 <- conv3
I0411 05:21:14.153506  6643 net.cpp:408] pool3 -> pool3
I0411 05:21:14.153542  6643 net.cpp:150] Setting up pool3
I0411 05:21:14.153549  6643 net.cpp:157] Top shape: 1024 250 3 3 (2304000)
I0411 05:21:14.153553  6643 net.cpp:165] Memory required for data: 4101787648
I0411 05:21:14.153555  6643 layer_factory.hpp:77] Creating layer fc4_300
I0411 05:21:14.153564  6643 net.cpp:100] Creating Layer fc4_300
I0411 05:21:14.153568  6643 net.cpp:434] fc4_300 <- pool3
I0411 05:21:14.153573  6643 net.cpp:408] fc4_300 -> fc4_300
I0411 05:21:14.158830  6643 net.cpp:150] Setting up fc4_300
I0411 05:21:14.158845  6643 net.cpp:157] Top shape: 1024 300 (307200)
I0411 05:21:14.158861  6643 net.cpp:165] Memory required for data: 4103016448
I0411 05:21:14.158869  6643 layer_factory.hpp:77] Creating layer fc4_prescale
I0411 05:21:14.158875  6643 net.cpp:100] Creating Layer fc4_prescale
I0411 05:21:14.158879  6643 net.cpp:434] fc4_prescale <- fc4_300
I0411 05:21:14.158885  6643 net.cpp:395] fc4_prescale -> fc4_300 (in-place)
I0411 05:21:14.158970  6643 net.cpp:150] Setting up fc4_prescale
I0411 05:21:14.158978  6643 net.cpp:157] Top shape: 1024 300 (307200)
I0411 05:21:14.158982  6643 net.cpp:165] Memory required for data: 4104245248
I0411 05:21:14.158987  6643 layer_factory.hpp:77] Creating layer fc4_sTanH
I0411 05:21:14.158991  6643 net.cpp:100] Creating Layer fc4_sTanH
I0411 05:21:14.158994  6643 net.cpp:434] fc4_sTanH <- fc4_300
I0411 05:21:14.158998  6643 net.cpp:395] fc4_sTanH -> fc4_300 (in-place)
I0411 05:21:14.159185  6643 net.cpp:150] Setting up fc4_sTanH
I0411 05:21:14.159196  6643 net.cpp:157] Top shape: 1024 300 (307200)
I0411 05:21:14.159199  6643 net.cpp:165] Memory required for data: 4105474048
I0411 05:21:14.159204  6643 layer_factory.hpp:77] Creating layer fc4_postscale
I0411 05:21:14.159209  6643 net.cpp:100] Creating Layer fc4_postscale
I0411 05:21:14.159214  6643 net.cpp:434] fc4_postscale <- fc4_300
I0411 05:21:14.159217  6643 net.cpp:395] fc4_postscale -> fc4_300 (in-place)
I0411 05:21:14.159310  6643 net.cpp:150] Setting up fc4_postscale
I0411 05:21:14.159318  6643 net.cpp:157] Top shape: 1024 300 (307200)
I0411 05:21:14.159322  6643 net.cpp:165] Memory required for data: 4106702848
I0411 05:21:14.159325  6643 layer_factory.hpp:77] Creating layer fc5_67
I0411 05:21:14.159332  6643 net.cpp:100] Creating Layer fc5_67
I0411 05:21:14.159335  6643 net.cpp:434] fc5_67 <- fc4_300
I0411 05:21:14.159340  6643 net.cpp:408] fc5_67 -> fc5_classes
I0411 05:21:14.160521  6643 net.cpp:150] Setting up fc5_67
I0411 05:21:14.160537  6643 net.cpp:157] Top shape: 1024 67 (68608)
I0411 05:21:14.160539  6643 net.cpp:165] Memory required for data: 4106977280
I0411 05:21:14.160562  6643 layer_factory.hpp:77] Creating layer loss
I0411 05:21:14.160568  6643 net.cpp:100] Creating Layer loss
I0411 05:21:14.160573  6643 net.cpp:434] loss <- fc5_classes
I0411 05:21:14.160576  6643 net.cpp:434] loss <- label
I0411 05:21:14.160583  6643 net.cpp:408] loss -> loss
I0411 05:21:14.160594  6643 layer_factory.hpp:77] Creating layer loss
…
I0411 05:21:14.161329  6643 solver.cpp:193] Creating test net (#0) specified by test_net file: ./Prototxt/experiment_8/rtsd-r1/AHE/trial_4/test.prototxt
I0411 05:21:14.161506  6643 net.cpp:58] Initializing net from parameters: 
state {
  phase: TEST
}
layer {
  name: "data"
  type: "Data"
  top: "data"
  top: "label"
  include {
    phase: TEST
  }
  transform_param {
    scale: 0.0039215689
    mirror: false
    crop_size: 48
    mean_value: 126
    mean_value: 124
    mean_value: 145
  }
  data_param {
    source: "../local_data/lmdb/rtsd-r1/AHE/test/lmdb"
    batch_size: 1024
    backend: LMDB
  }
}
layer {
  name: "conv1"
  type: "Convolution"
  bottom: "data"
  top: "conv1"
  convolution_param {
    num_output: 100
    pad: 0
    kernel_size: 7
    group: 1
    stride: 1
    weight_filler {
      type: "xavier"
    }
  }
}
layer {
  name: "conv1_prescale"
  type: "Scale"
  bottom: "conv1"
  top: "conv1"
  param {
    lr_mult: 0
    decay_mult: 0
  }
  scale_param {
    filler {
      value: 0.6666
    }
    bias_term: false
  }
}
layer {
  name: "conv1_sTanH"
  type: "TanH"
  bottom: "conv1"
  top: "conv1"
}
layer {
  name: "conv1_postscale"
  type: "Scale"
  bottom: "conv1"
  top: "conv1"
  param {
    lr_mult: 0
    decay_mult: 0
  }
  scale_param {
    filler {
      value: 1.7159
    }
    bias_term: false
  }
}
layer {
  name: "pool1"
  type: "Pooling"
  bottom: "conv1"
  top: "pool1"
  pooling_param {
    pool: MAX
    kernel_size: 2
    stride: 2
  }
}
layer {
  name: "conv2"
  type: "Convolution"
  bottom: "pool1"
  top: "conv2"
  convolution_param {
    num_output: 150
    pad: 0
    kernel_size: 4
    group: 1
    stride: 1
    weight_filler {
      type: "xavier"
    }
  }
}
layer {
  name: "conv2_prescale"
  type: "Scale"
  bottom: "conv2"
  top: "conv2"
  param {
    lr_mult: 0
    decay_mult: 0
  }
  scale_param {
    filler {
      value: 0.6666
    }
    bias_term: false
  }
}
layer {
  name: "conv2_sTanH"
  type: "TanH"
  bottom: "conv2"
  top: "conv2"
}
layer {
  name: "conv2_postscale"
  type: "Scale"
  bottom: "conv2"
  top: "conv2"
  param {
    lr_mult: 0
    decay_mult: 0
  }
  scale_param {
    filler {
      value: 1.7159
    }
    bias_term: false
  }
}
layer {
  name: "pool2"
  type: "Pooling"
  bottom: "conv2"
  top: "pool2"
  pooling_param {
    pool: MAX
    kernel_size: 2
    stride: 2
  }
}
layer {
  name: "conv3"
  type: "Convolution"
  bottom: "pool2"
  top: "conv3"
  convolution_param {
    num_output: 250
    pad: 0
    kernel_size: 4
    group: 1
    stride: 1
    weight_filler {
      type: "xavier"
    }
  }
}
layer {
  name: "conv3_prescale"
  type: "Scale"
  bottom: "conv3"
  top: "conv3"
  param {
    lr_mult: 0
    decay_mult: 0
  }
  scale_param {
    filler {
      value: 0.6666
    }
    bias_term: false
  }
}
layer {
  name: "conv3_sTanH"
  type: "TanH"
  bottom: "conv3"
  top: "conv3"
}
layer {
  name: "conv3_postscale"
  type: "Scale"
  bottom: "conv3"
  top: "conv3"
  param {
    lr_mult: 0
    decay_mult: 0
  }
  scale_param {
    filler {
      value: 1.7159
    }
    bias_term: false
  }
}
layer {
  name: "pool3"
  type: "Pooling"
  bottom: "conv3"
  top: "pool3"
  pooling_param {
    pool: MAX
    kernel_size: 2
    stride: 2
  }
}
layer {
  name: "fc4_300"
  type: "InnerProduct"
  bottom: "pool3"
  top: "fc4_300"
  inner_product_param {
    num_output: 300
    weight_filler {
      type: "xavier"
    }
  }
}
layer {
  name: "fc4_prescale"
  type: "Scale"
  bottom: "fc4_300"
  top: "fc4_300"
  param {
    lr_mult: 0
    decay_mult: 0
  }
  scale_param {
    filler {
      value: 0.6666
    }
    bias_term: false
  }
}
layer {
  name: "fc4_sTanH"
  type: "TanH"
  bottom: "fc4_300"
  top: "fc4_300"
}
layer {
  name: "fc4_postscale"
  type: "Scale"
  bottom: "fc4_300"
  top: "fc4_300"
  param {
    lr_mult: 0
    decay_mult: 0
  }
  scale_param {
    filler {
      value: 1.7159
    }
    bias_term: false
  }
}
layer {
  name: "fc5_67"
  type: "InnerProduct"
  bottom: "fc4_300"
  top: "fc5_classes"
  inner_product_param {
    num_output: 67
    weight_filler {
      type: "xavier"
    }
  }
}
layer {
  name: "loss"
  type: "SoftmaxWithLoss"
  bottom: "fc5_classes"
  bottom: "label"
  top: "loss"
}
layer {
  name: "accuracy_1"
  type: "Accuracy"
  bottom: "fc5_classes"
  bottom: "label"
  top: "accuracy_1"
  include {
    phase: TEST
  }
  accuracy_param {
    top_k: 1
  }
}
layer {
  name: "accuracy_5"
  type: "Accuracy"
  bottom: "fc5_classes"
  bottom: "label"
  top: "accuracy_5"
  include {
    phase: TEST
  }
  accuracy_param {
    top_k: 5
  }
}
I0411 05:21:14.161628  6643 layer_factory.hpp:77] Creating layer data
I0411 05:21:14.162287  6643 net.cpp:100] Creating Layer data
I0411 05:21:14.162300  6643 net.cpp:408] data -> data
I0411 05:21:14.162310  6643 net.cpp:408] data -> label
I0411 05:21:14.163337  6806 db_lmdb.cpp:35] Opened lmdb ../local_data/lmdb/rtsd-r1/AHE/test/lmdb
I0411 05:21:14.163486  6643 data_layer.cpp:41] output data size: 1024,3,48,48
I0411 05:21:14.203750  6643 net.cpp:150] Setting up data
I0411 05:21:14.203779  6643 net.cpp:157] Top shape: 1024 3 48 48 (7077888)
I0411 05:21:14.203784  6643 net.cpp:157] Top shape: 1024 (1024)
I0411 05:21:14.203788  6643 net.cpp:165] Memory required for data: 28315648
I0411 05:21:14.203794  6643 layer_factory.hpp:77] Creating layer label_data_1_split
I0411 05:21:14.203809  6643 net.cpp:100] Creating Layer label_data_1_split
I0411 05:21:14.203812  6643 net.cpp:434] label_data_1_split <- label
I0411 05:21:14.203819  6643 net.cpp:408] label_data_1_split -> label_data_1_split_0
I0411 05:21:14.203830  6643 net.cpp:408] label_data_1_split -> label_data_1_split_1
I0411 05:21:14.203837  6643 net.cpp:408] label_data_1_split -> label_data_1_split_2
I0411 05:21:14.203972  6643 net.cpp:150] Setting up label_data_1_split
I0411 05:21:14.203982  6643 net.cpp:157] Top shape: 1024 (1024)
I0411 05:21:14.203986  6643 net.cpp:157] Top shape: 1024 (1024)
I0411 05:21:14.203990  6643 net.cpp:157] Top shape: 1024 (1024)
I0411 05:21:14.203992  6643 net.cpp:165] Memory required for data: 28327936
I0411 05:21:14.203996  6643 layer_factory.hpp:77] Creating layer conv1
I0411 05:21:14.204008  6643 net.cpp:100] Creating Layer conv1
I0411 05:21:14.204015  6643 net.cpp:434] conv1 <- data
I0411 05:21:14.204020  6643 net.cpp:408] conv1 -> conv1
I0411 05:21:14.205983  6643 net.cpp:150] Setting up conv1
I0411 05:21:14.205998  6643 net.cpp:157] Top shape: 1024 100 42 42 (180633600)
I0411 05:21:14.206020  6643 net.cpp:165] Memory required for data: 750862336
I0411 05:21:14.206032  6643 layer_factory.hpp:77] Creating layer conv1_prescale
I0411 05:21:14.206043  6643 net.cpp:100] Creating Layer conv1_prescale
I0411 05:21:14.206048  6643 net.cpp:434] conv1_prescale <- conv1
I0411 05:21:14.206053  6643 net.cpp:395] conv1_prescale -> conv1 (in-place)
I0411 05:21:14.206166  6643 net.cpp:150] Setting up conv1_prescale
I0411 05:21:14.206176  6643 net.cpp:157] Top shape: 1024 100 42 42 (180633600)
I0411 05:21:14.206178  6643 net.cpp:165] Memory required for data: 1473396736
I0411 05:21:14.206187  6643 layer_factory.hpp:77] Creating layer conv1_sTanH
I0411 05:21:14.206195  6643 net.cpp:100] Creating Layer conv1_sTanH
I0411 05:21:14.206199  6643 net.cpp:434] conv1_sTanH <- conv1
I0411 05:21:14.206205  6643 net.cpp:395] conv1_sTanH -> conv1 (in-place)
I0411 05:21:14.206405  6643 net.cpp:150] Setting up conv1_sTanH
I0411 05:21:14.206418  6643 net.cpp:157] Top shape: 1024 100 42 42 (180633600)
I0411 05:21:14.206420  6643 net.cpp:165] Memory required for data: 2195931136
I0411 05:21:14.206424  6643 layer_factory.hpp:77] Creating layer conv1_postscale
I0411 05:21:14.206431  6643 net.cpp:100] Creating Layer conv1_postscale
I0411 05:21:14.206436  6643 net.cpp:434] conv1_postscale <- conv1
I0411 05:21:14.206441  6643 net.cpp:395] conv1_postscale -> conv1 (in-place)
I0411 05:21:14.206549  6643 net.cpp:150] Setting up conv1_postscale
I0411 05:21:14.206557  6643 net.cpp:157] Top shape: 1024 100 42 42 (180633600)
I0411 05:21:14.206560  6643 net.cpp:165] Memory required for data: 2918465536
I0411 05:21:14.206565  6643 layer_factory.hpp:77] Creating layer pool1
I0411 05:21:14.206574  6643 net.cpp:100] Creating Layer pool1
I0411 05:21:14.206578  6643 net.cpp:434] pool1 <- conv1
I0411 05:21:14.206583  6643 net.cpp:408] pool1 -> pool1
I0411 05:21:14.206629  6643 net.cpp:150] Setting up pool1
I0411 05:21:14.206636  6643 net.cpp:157] Top shape: 1024 100 21 21 (45158400)
I0411 05:21:14.206640  6643 net.cpp:165] Memory required for data: 3099099136
I0411 05:21:14.206642  6643 layer_factory.hpp:77] Creating layer conv2
I0411 05:21:14.206652  6643 net.cpp:100] Creating Layer conv2
I0411 05:21:14.206657  6643 net.cpp:434] conv2 <- pool1
I0411 05:21:14.206662  6643 net.cpp:408] conv2 -> conv2
I0411 05:21:14.221238  6643 net.cpp:150] Setting up conv2
I0411 05:21:14.221266  6643 net.cpp:157] Top shape: 1024 150 18 18 (49766400)
I0411 05:21:14.221273  6643 net.cpp:165] Memory required for data: 3298164736
I0411 05:21:14.221287  6643 layer_factory.hpp:77] Creating layer conv2_prescale
I0411 05:21:14.221302  6643 net.cpp:100] Creating Layer conv2_prescale
I0411 05:21:14.221307  6643 net.cpp:434] conv2_prescale <- conv2
I0411 05:21:14.221315  6643 net.cpp:395] conv2_prescale -> conv2 (in-place)
I0411 05:21:14.221449  6643 net.cpp:150] Setting up conv2_prescale
I0411 05:21:14.221459  6643 net.cpp:157] Top shape: 1024 150 18 18 (49766400)
I0411 05:21:14.221462  6643 net.cpp:165] Memory required for data: 3497230336
I0411 05:21:14.221468  6643 layer_factory.hpp:77] Creating layer conv2_sTanH
I0411 05:21:14.221477  6643 net.cpp:100] Creating Layer conv2_sTanH
I0411 05:21:14.221479  6643 net.cpp:434] conv2_sTanH <- conv2
I0411 05:21:14.221488  6643 net.cpp:395] conv2_sTanH -> conv2 (in-place)
I0411 05:21:14.222584  6643 net.cpp:150] Setting up conv2_sTanH
I0411 05:21:14.222602  6643 net.cpp:157] Top shape: 1024 150 18 18 (49766400)
I0411 05:21:14.222605  6643 net.cpp:165] Memory required for data: 3696295936
I0411 05:21:14.222610  6643 layer_factory.hpp:77] Creating layer conv2_postscale
I0411 05:21:14.222620  6643 net.cpp:100] Creating Layer conv2_postscale
I0411 05:21:14.222625  6643 net.cpp:434] conv2_postscale <- conv2
I0411 05:21:14.222630  6643 net.cpp:395] conv2_postscale -> conv2 (in-place)
I0411 05:21:14.222753  6643 net.cpp:150] Setting up conv2_postscale
I0411 05:21:14.222762  6643 net.cpp:157] Top shape: 1024 150 18 18 (49766400)
I0411 05:21:14.222766  6643 net.cpp:165] Memory required for data: 3895361536
I0411 05:21:14.222772  6643 layer_factory.hpp:77] Creating layer pool2
I0411 05:21:14.222801  6643 net.cpp:100] Creating Layer pool2
I0411 05:21:14.222808  6643 net.cpp:434] pool2 <- conv2
I0411 05:21:14.222815  6643 net.cpp:408] pool2 -> pool2
I0411 05:21:14.222872  6643 net.cpp:150] Setting up pool2
I0411 05:21:14.222884  6643 net.cpp:157] Top shape: 1024 150 9 9 (12441600)
I0411 05:21:14.222888  6643 net.cpp:165] Memory required for data: 3945127936
I0411 05:21:14.222892  6643 layer_factory.hpp:77] Creating layer conv3
I0411 05:21:14.222903  6643 net.cpp:100] Creating Layer conv3
I0411 05:21:14.222908  6643 net.cpp:434] conv3 <- pool2
I0411 05:21:14.222916  6643 net.cpp:408] conv3 -> conv3
I0411 05:21:14.229357  6643 net.cpp:150] Setting up conv3
I0411 05:21:14.229375  6643 net.cpp:157] Top shape: 1024 250 6 6 (9216000)
I0411 05:21:14.229379  6643 net.cpp:165] Memory required for data: 3981991936
I0411 05:21:14.229390  6643 layer_factory.hpp:77] Creating layer conv3_prescale
I0411 05:21:14.229401  6643 net.cpp:100] Creating Layer conv3_prescale
I0411 05:21:14.229405  6643 net.cpp:434] conv3_prescale <- conv3
I0411 05:21:14.229413  6643 net.cpp:395] conv3_prescale -> conv3 (in-place)
I0411 05:21:14.229534  6643 net.cpp:150] Setting up conv3_prescale
I0411 05:21:14.229544  6643 net.cpp:157] Top shape: 1024 250 6 6 (9216000)
I0411 05:21:14.229548  6643 net.cpp:165] Memory required for data: 4018855936
I0411 05:21:14.229553  6643 layer_factory.hpp:77] Creating layer conv3_sTanH
I0411 05:21:14.229562  6643 net.cpp:100] Creating Layer conv3_sTanH
I0411 05:21:14.229565  6643 net.cpp:434] conv3_sTanH <- conv3
I0411 05:21:14.229573  6643 net.cpp:395] conv3_sTanH -> conv3 (in-place)
I0411 05:21:14.232347  6643 net.cpp:150] Setting up conv3_sTanH
I0411 05:21:14.232367  6643 net.cpp:157] Top shape: 1024 250 6 6 (9216000)
I0411 05:21:14.232372  6643 net.cpp:165] Memory required for data: 4055719936
I0411 05:21:14.232375  6643 layer_factory.hpp:77] Creating layer conv3_postscale
I0411 05:21:14.232383  6643 net.cpp:100] Creating Layer conv3_postscale
I0411 05:21:14.232388  6643 net.cpp:434] conv3_postscale <- conv3
I0411 05:21:14.232396  6643 net.cpp:395] conv3_postscale -> conv3 (in-place)
I0411 05:21:14.232514  6643 net.cpp:150] Setting up conv3_postscale
I0411 05:21:14.232527  6643 net.cpp:157] Top shape: 1024 250 6 6 (9216000)
I0411 05:21:14.232534  6643 net.cpp:165] Memory required for data: 4092583936
I0411 05:21:14.232540  6643 layer_factory.hpp:77] Creating layer pool3
I0411 05:21:14.232552  6643 net.cpp:100] Creating Layer pool3
I0411 05:21:14.232558  6643 net.cpp:434] pool3 <- conv3
I0411 05:21:14.232573  6643 net.cpp:408] pool3 -> pool3
I0411 05:21:14.232622  6643 net.cpp:150] Setting up pool3
I0411 05:21:14.232631  6643 net.cpp:157] Top shape: 1024 250 3 3 (2304000)
I0411 05:21:14.232635  6643 net.cpp:165] Memory required for data: 4101799936
I0411 05:21:14.232640  6643 layer_factory.hpp:77] Creating layer fc4_300
I0411 05:21:14.232650  6643 net.cpp:100] Creating Layer fc4_300
I0411 05:21:14.232652  6643 net.cpp:434] fc4_300 <- pool3
I0411 05:21:14.232659  6643 net.cpp:408] fc4_300 -> fc4_300
I0411 05:21:14.240929  6643 net.cpp:150] Setting up fc4_300
I0411 05:21:14.240947  6643 net.cpp:157] Top shape: 1024 300 (307200)
I0411 05:21:14.240950  6643 net.cpp:165] Memory required for data: 4103028736
I0411 05:21:14.240958  6643 layer_factory.hpp:77] Creating layer fc4_prescale
I0411 05:21:14.240967  6643 net.cpp:100] Creating Layer fc4_prescale
I0411 05:21:14.240973  6643 net.cpp:434] fc4_prescale <- fc4_300
I0411 05:21:14.240979  6643 net.cpp:395] fc4_prescale -> fc4_300 (in-place)
I0411 05:21:14.241086  6643 net.cpp:150] Setting up fc4_prescale
I0411 05:21:14.241096  6643 net.cpp:157] Top shape: 1024 300 (307200)
I0411 05:21:14.241098  6643 net.cpp:165] Memory required for data: 4104257536
I0411 05:21:14.241107  6643 layer_factory.hpp:77] Creating layer fc4_sTanH
I0411 05:21:14.241113  6643 net.cpp:100] Creating Layer fc4_sTanH
I0411 05:21:14.241117  6643 net.cpp:434] fc4_sTanH <- fc4_300
I0411 05:21:14.241123  6643 net.cpp:395] fc4_sTanH -> fc4_300 (in-place)
I0411 05:21:14.241367  6643 net.cpp:150] Setting up fc4_sTanH
I0411 05:21:14.241380  6643 net.cpp:157] Top shape: 1024 300 (307200)
I0411 05:21:14.241384  6643 net.cpp:165] Memory required for data: 4105486336
I0411 05:21:14.241389  6643 layer_factory.hpp:77] Creating layer fc4_postscale
I0411 05:21:14.241397  6643 net.cpp:100] Creating Layer fc4_postscale
I0411 05:21:14.241401  6643 net.cpp:434] fc4_postscale <- fc4_300
I0411 05:21:14.241407  6643 net.cpp:395] fc4_postscale -> fc4_300 (in-place)
I0411 05:21:14.241523  6643 net.cpp:150] Setting up fc4_postscale
I0411 05:21:14.241531  6643 net.cpp:157] Top shape: 1024 300 (307200)
I0411 05:21:14.241535  6643 net.cpp:165] Memory required for data: 4106715136
I0411 05:21:14.241540  6643 layer_factory.hpp:77] Creating layer fc5_67
I0411 05:21:14.241549  6643 net.cpp:100] Creating Layer fc5_67
I0411 05:21:14.241551  6643 net.cpp:434] fc5_67 <- fc4_300
I0411 05:21:14.241559  6643 net.cpp:408] fc5_67 -> fc5_classes
I0411 05:21:14.241843  6643 net.cpp:150] Setting up fc5_67
I0411 05:21:14.241852  6643 net.cpp:157] Top shape: 1024 67 (68608)
I0411 05:21:14.241855  6643 net.cpp:165] Memory required for data: 4106989568
I0411 05:21:14.241865  6643 layer_factory.hpp:77] Creating layer fc5_classes_fc5_67_0_split
I0411 05:21:14.241873  6643 net.cpp:100] Creating Layer fc5_classes_fc5_67_0_split
I0411 05:21:14.241878  6643 net.cpp:434] fc5_classes_fc5_67_0_split <- fc5_classes
I0411 05:21:14.241883  6643 net.cpp:408] fc5_classes_fc5_67_0_split -> fc5_classes_fc5_67_0_split_0
I0411 05:21:14.241894  6643 net.cpp:408] fc5_classes_fc5_67_0_split -> fc5_classes_fc5_67_0_split_1
I0411 05:21:14.241900  6643 net.cpp:408] fc5_classes_fc5_67_0_split -> fc5_classes_fc5_67_0_split_2
I0411 05:21:14.241958  6643 net.cpp:150] Setting up fc5_classes_fc5_67_0_split
I0411 05:21:14.241968  6643 net.cpp:157] Top shape: 1024 67 (68608)
I0411 05:21:14.241972  6643 net.cpp:157] Top shape: 1024 67 (68608)
I0411 05:21:14.241976  6643 net.cpp:157] Top shape: 1024 67 (68608)
I0411 05:21:14.241979  6643 net.cpp:165] Memory required for data: 4107812864
I0411 05:21:14.241982  6643 layer_factory.hpp:77] Creating layer loss
I0411 05:21:14.241988  6643 net.cpp:100] Creating Layer loss
I0411 05:21:14.241992  6643 net.cpp:434] loss <- fc5_classes_fc5_67_0_split_0
I0411 05:21:14.241997  6643 net.cpp:434] loss <- label_data_1_split_0
I0411 05:21:14.242002  6643 net.cpp:408] loss -> loss
…
