…
I0505 23:49:42.123867 25932 solver.cpp:93] Creating training net from train_net file: ./Prototxt/experiment_13/RTSD/orig/trial_2/train.prototxt
I0505 23:49:42.124356 25932 net.cpp:58] Initializing net from parameters: 
state {
  phase: TRAIN
  level: 0
  stage: ""
}
layer {
  name: "data"
  type: "Data"
  top: "data"
  top: "label"
  include {
    phase: TRAIN
  }
  transform_param {
    scale: 0.0039215689
    mirror: false
    crop_size: 48
    mean_value: 119
    mean_value: 113
    mean_value: 113
  }
  data_param {
    source: "../local_data/lmdb/RTSD/orig/train/lmdb"
    batch_size: 1024
    backend: LMDB
  }
}
layer {
  name: "conv1"
  type: "Convolution"
  bottom: "data"
  top: "conv1"
  convolution_param {
    num_output: 100
    pad: 0
    kernel_size: 7
    group: 1
    stride: 1
    weight_filler {
      type: "xavier"
    }
  }
}
layer {
  name: "conv1_prescale"
  type: "Scale"
  bottom: "conv1"
  top: "conv1"
  param {
    lr_mult: 0
    decay_mult: 0
  }
  scale_param {
    filler {
      value: 0.6666
    }
    bias_term: false
  }
}
layer {
  name: "conv1_sTanH"
  type: "TanH"
  bottom: "conv1"
  top: "conv1"
}
layer {
  name: "conv1_postscale"
  type: "Scale"
  bottom: "conv1"
  top: "conv1"
  param {
    lr_mult: 0
    decay_mult: 0
  }
  scale_param {
    filler {
      value: 1.7159
    }
    bias_term: false
  }
}
layer {
  name: "pool1"
  type: "Pooling"
  bottom: "conv1"
  top: "pool1"
  pooling_param {
    pool: MAX
    kernel_size: 2
    stride: 2
  }
}
layer {
  name: "conv2"
  type: "Convolution"
  bottom: "pool1"
  top: "conv2"
  convolution_param {
    num_output: 150
    pad: 0
    kernel_size: 4
    group: 1
    stride: 1
    weight_filler {
      type: "xavier"
    }
  }
}
layer {
  name: "conv2_prescale"
  type: "Scale"
  bottom: "conv2"
  top: "conv2"
  param {
    lr_mult: 0
    decay_mult: 0
  }
  scale_param {
    filler {
      value: 0.6666
    }
    bias_term: false
  }
}
layer {
  name: "conv2_sTanH"
  type: "TanH"
  bottom: "conv2"
  top: "conv2"
}
layer {
  name: "conv2_postscale"
  type: "Scale"
  bottom: "conv2"
  top: "conv2"
  param {
    lr_mult: 0
    decay_mult: 0
  }
  scale_param {
    filler {
      value: 1.7159
    }
    bias_term: false
  }
}
layer {
  name: "pool2"
  type: "Pooling"
  bottom: "conv2"
  top: "pool2"
  pooling_param {
    pool: MAX
    kernel_size: 2
    stride: 2
  }
}
layer {
  name: "conv3"
  type: "Convolution"
  bottom: "pool2"
  top: "conv3"
  convolution_param {
    num_output: 250
    pad: 0
    kernel_size: 4
    group: 1
    stride: 1
    weight_filler {
      type: "xavier"
    }
  }
}
layer {
  name: "conv3_prescale"
  type: "Scale"
  bottom: "conv3"
  top: "conv3"
  param {
    lr_mult: 0
    decay_mult: 0
  }
  scale_param {
    filler {
      value: 0.6666
    }
    bias_term: false
  }
}
layer {
  name: "conv3_sTanH"
  type: "TanH"
  bottom: "conv3"
  top: "conv3"
}
layer {
  name: "conv3_postscale"
  type: "Scale"
  bottom: "conv3"
  top: "conv3"
  param {
    lr_mult: 0
    decay_mult: 0
  }
  scale_param {
    filler {
      value: 1.7159
    }
    bias_term: false
  }
}
layer {
  name: "pool3"
  type: "Pooling"
  bottom: "conv3"
  top: "pool3"
  pooling_param {
    pool: MAX
    kernel_size: 2
    stride: 2
  }
}
layer {
  name: "fc4_300"
  type: "InnerProduct"
  bottom: "pool3"
  top: "fc4_300"
  inner_product_param {
    num_output: 300
    weight_filler {
      type: "xavier"
    }
  }
}
layer {
  name: "fc4_prescale"
  type: "Scale"
  bottom: "fc4_300"
  top: "fc4_300"
  param {
    lr_mult: 0
    decay_mult: 0
  }
  scale_param {
    filler {
      value: 0.6666
    }
    bias_term: false
  }
}
layer {
  name: "fc4_sTanH"
  type: "TanH"
  bottom: "fc4_300"
  top: "fc4_300"
}
layer {
  name: "fc4_postscale"
  type: "Scale"
  bottom: "fc4_300"
  top: "fc4_300"
  param {
    lr_mult: 0
    decay_mult: 0
  }
  scale_param {
    filler {
      value: 1.7159
    }
    bias_term: false
  }
}
layer {
  name: "fc5_116"
  type: "InnerProduct"
  bottom: "fc4_300"
  top: "fc5_classes"
  inner_product_param {
    num_output: 116
    weight_filler {
      type: "xavier"
    }
  }
}
layer {
  name: "softmax"
  type: "Softmax"
  bottom: "fc5_classes"
  top: "softmax"
}
layer {
  name: "loss"
  type: "MultinomialLogisticLoss"
  bottom: "softmax"
  bottom: "label"
  top: "loss"
}
layer {
  name: "accuracy_1"
  type: "Accuracy"
  bottom: "fc5_classes"
  bottom: "label"
  top: "accuracy_1"
  accuracy_param {
    top_k: 1
  }
}
layer {
  name: "accuracy_5"
  type: "Accuracy"
  bottom: "fc5_classes"
  bottom: "label"
  top: "accuracy_5"
  accuracy_param {
    top_k: 5
  }
}
layer {
  name: "silence"
  type: "Silence"
  bottom: "accuracy_1"
  bottom: "accuracy_5"
}
I0505 23:49:42.124521 25932 layer_factory.hpp:77] Creating layer data
I0505 23:49:42.125602 25932 net.cpp:100] Creating Layer data
I0505 23:49:42.125617 25932 net.cpp:408] data -> data
I0505 23:49:42.125643 25932 net.cpp:408] data -> label
I0505 23:49:42.131541 26045 db_lmdb.cpp:35] Opened lmdb ../local_data/lmdb/RTSD/orig/train/lmdb
I0505 23:49:42.160552 25932 data_layer.cpp:41] output data size: 1024,3,48,48
I0505 23:49:42.227396 25932 net.cpp:150] Setting up data
I0505 23:49:42.227424 25932 net.cpp:157] Top shape: 1024 3 48 48 (7077888)
I0505 23:49:42.227430 25932 net.cpp:157] Top shape: 1024 (1024)
I0505 23:49:42.227433 25932 net.cpp:165] Memory required for data: 28315648
I0505 23:49:42.227444 25932 layer_factory.hpp:77] Creating layer label_data_1_split
I0505 23:49:42.227460 25932 net.cpp:100] Creating Layer label_data_1_split
I0505 23:49:42.227468 25932 net.cpp:434] label_data_1_split <- label
I0505 23:49:42.227483 25932 net.cpp:408] label_data_1_split -> label_data_1_split_0
I0505 23:49:42.227495 25932 net.cpp:408] label_data_1_split -> label_data_1_split_1
I0505 23:49:42.227504 25932 net.cpp:408] label_data_1_split -> label_data_1_split_2
I0505 23:49:42.227591 25932 net.cpp:150] Setting up label_data_1_split
I0505 23:49:42.227599 25932 net.cpp:157] Top shape: 1024 (1024)
I0505 23:49:42.227605 25932 net.cpp:157] Top shape: 1024 (1024)
I0505 23:49:42.227609 25932 net.cpp:157] Top shape: 1024 (1024)
I0505 23:49:42.227612 25932 net.cpp:165] Memory required for data: 28327936
I0505 23:49:42.227615 25932 layer_factory.hpp:77] Creating layer conv1
I0505 23:49:42.227638 25932 net.cpp:100] Creating Layer conv1
I0505 23:49:42.227643 25932 net.cpp:434] conv1 <- data
I0505 23:49:42.227648 25932 net.cpp:408] conv1 -> conv1
I0505 23:49:42.668362 25932 net.cpp:150] Setting up conv1
I0505 23:49:42.668396 25932 net.cpp:157] Top shape: 1024 100 42 42 (180633600)
I0505 23:49:42.668402 25932 net.cpp:165] Memory required for data: 750862336
I0505 23:49:42.668431 25932 layer_factory.hpp:77] Creating layer conv1_prescale
I0505 23:49:42.668455 25932 net.cpp:100] Creating Layer conv1_prescale
I0505 23:49:42.668465 25932 net.cpp:434] conv1_prescale <- conv1
I0505 23:49:42.668479 25932 net.cpp:395] conv1_prescale -> conv1 (in-place)
I0505 23:49:42.668637 25932 net.cpp:150] Setting up conv1_prescale
I0505 23:49:42.668654 25932 net.cpp:157] Top shape: 1024 100 42 42 (180633600)
I0505 23:49:42.668663 25932 net.cpp:165] Memory required for data: 1473396736
I0505 23:49:42.668678 25932 layer_factory.hpp:77] Creating layer conv1_sTanH
I0505 23:49:42.668696 25932 net.cpp:100] Creating Layer conv1_sTanH
I0505 23:49:42.668706 25932 net.cpp:434] conv1_sTanH <- conv1
I0505 23:49:42.668716 25932 net.cpp:395] conv1_sTanH -> conv1 (in-place)
I0505 23:49:42.668978 25932 net.cpp:150] Setting up conv1_sTanH
I0505 23:49:42.668998 25932 net.cpp:157] Top shape: 1024 100 42 42 (180633600)
I0505 23:49:42.669029 25932 net.cpp:165] Memory required for data: 2195931136
I0505 23:49:42.669042 25932 layer_factory.hpp:77] Creating layer conv1_postscale
I0505 23:49:42.669059 25932 net.cpp:100] Creating Layer conv1_postscale
I0505 23:49:42.669072 25932 net.cpp:434] conv1_postscale <- conv1
I0505 23:49:42.669085 25932 net.cpp:395] conv1_postscale -> conv1 (in-place)
I0505 23:49:42.669224 25932 net.cpp:150] Setting up conv1_postscale
I0505 23:49:42.669239 25932 net.cpp:157] Top shape: 1024 100 42 42 (180633600)
I0505 23:49:42.669247 25932 net.cpp:165] Memory required for data: 2918465536
I0505 23:49:42.669258 25932 layer_factory.hpp:77] Creating layer pool1
I0505 23:49:42.669275 25932 net.cpp:100] Creating Layer pool1
I0505 23:49:42.669286 25932 net.cpp:434] pool1 <- conv1
I0505 23:49:42.669296 25932 net.cpp:408] pool1 -> pool1
I0505 23:49:42.669368 25932 net.cpp:150] Setting up pool1
I0505 23:49:42.669384 25932 net.cpp:157] Top shape: 1024 100 21 21 (45158400)
I0505 23:49:42.669391 25932 net.cpp:165] Memory required for data: 3099099136
I0505 23:49:42.669399 25932 layer_factory.hpp:77] Creating layer conv2
I0505 23:49:42.669420 25932 net.cpp:100] Creating Layer conv2
I0505 23:49:42.669428 25932 net.cpp:434] conv2 <- pool1
I0505 23:49:42.669440 25932 net.cpp:408] conv2 -> conv2
I0505 23:49:42.687242 25932 net.cpp:150] Setting up conv2
I0505 23:49:42.687265 25932 net.cpp:157] Top shape: 1024 150 18 18 (49766400)
I0505 23:49:42.687270 25932 net.cpp:165] Memory required for data: 3298164736
I0505 23:49:42.687283 25932 layer_factory.hpp:77] Creating layer conv2_prescale
I0505 23:49:42.687294 25932 net.cpp:100] Creating Layer conv2_prescale
I0505 23:49:42.687300 25932 net.cpp:434] conv2_prescale <- conv2
I0505 23:49:42.687306 25932 net.cpp:395] conv2_prescale -> conv2 (in-place)
I0505 23:49:42.687430 25932 net.cpp:150] Setting up conv2_prescale
I0505 23:49:42.687441 25932 net.cpp:157] Top shape: 1024 150 18 18 (49766400)
I0505 23:49:42.687444 25932 net.cpp:165] Memory required for data: 3497230336
I0505 23:49:42.687449 25932 layer_factory.hpp:77] Creating layer conv2_sTanH
I0505 23:49:42.687459 25932 net.cpp:100] Creating Layer conv2_sTanH
I0505 23:49:42.687463 25932 net.cpp:434] conv2_sTanH <- conv2
I0505 23:49:42.687469 25932 net.cpp:395] conv2_sTanH -> conv2 (in-place)
I0505 23:49:42.689041 25932 net.cpp:150] Setting up conv2_sTanH
I0505 23:49:42.689059 25932 net.cpp:157] Top shape: 1024 150 18 18 (49766400)
I0505 23:49:42.689064 25932 net.cpp:165] Memory required for data: 3696295936
I0505 23:49:42.689067 25932 layer_factory.hpp:77] Creating layer conv2_postscale
I0505 23:49:42.689074 25932 net.cpp:100] Creating Layer conv2_postscale
I0505 23:49:42.689079 25932 net.cpp:434] conv2_postscale <- conv2
I0505 23:49:42.689086 25932 net.cpp:395] conv2_postscale -> conv2 (in-place)
I0505 23:49:42.689194 25932 net.cpp:150] Setting up conv2_postscale
I0505 23:49:42.689204 25932 net.cpp:157] Top shape: 1024 150 18 18 (49766400)
I0505 23:49:42.689208 25932 net.cpp:165] Memory required for data: 3895361536
I0505 23:49:42.689213 25932 layer_factory.hpp:77] Creating layer pool2
I0505 23:49:42.689220 25932 net.cpp:100] Creating Layer pool2
I0505 23:49:42.689225 25932 net.cpp:434] pool2 <- conv2
I0505 23:49:42.689230 25932 net.cpp:408] pool2 -> pool2
I0505 23:49:42.689277 25932 net.cpp:150] Setting up pool2
I0505 23:49:42.689287 25932 net.cpp:157] Top shape: 1024 150 9 9 (12441600)
I0505 23:49:42.689291 25932 net.cpp:165] Memory required for data: 3945127936
I0505 23:49:42.689293 25932 layer_factory.hpp:77] Creating layer conv3
I0505 23:49:42.689306 25932 net.cpp:100] Creating Layer conv3
I0505 23:49:42.689311 25932 net.cpp:434] conv3 <- pool2
I0505 23:49:42.689316 25932 net.cpp:408] conv3 -> conv3
I0505 23:49:42.695791 25932 net.cpp:150] Setting up conv3
I0505 23:49:42.695808 25932 net.cpp:157] Top shape: 1024 250 6 6 (9216000)
I0505 23:49:42.695813 25932 net.cpp:165] Memory required for data: 3981991936
I0505 23:49:42.695825 25932 layer_factory.hpp:77] Creating layer conv3_prescale
I0505 23:49:42.695854 25932 net.cpp:100] Creating Layer conv3_prescale
I0505 23:49:42.695859 25932 net.cpp:434] conv3_prescale <- conv3
I0505 23:49:42.695865 25932 net.cpp:395] conv3_prescale -> conv3 (in-place)
I0505 23:49:42.695976 25932 net.cpp:150] Setting up conv3_prescale
I0505 23:49:42.695988 25932 net.cpp:157] Top shape: 1024 250 6 6 (9216000)
I0505 23:49:42.695992 25932 net.cpp:165] Memory required for data: 4018855936
I0505 23:49:42.695997 25932 layer_factory.hpp:77] Creating layer conv3_sTanH
I0505 23:49:42.696005 25932 net.cpp:100] Creating Layer conv3_sTanH
I0505 23:49:42.696010 25932 net.cpp:434] conv3_sTanH <- conv3
I0505 23:49:42.696015 25932 net.cpp:395] conv3_sTanH -> conv3 (in-place)
I0505 23:49:42.705885 25932 net.cpp:150] Setting up conv3_sTanH
I0505 23:49:42.705904 25932 net.cpp:157] Top shape: 1024 250 6 6 (9216000)
I0505 23:49:42.705909 25932 net.cpp:165] Memory required for data: 4055719936
I0505 23:49:42.705914 25932 layer_factory.hpp:77] Creating layer conv3_postscale
I0505 23:49:42.705922 25932 net.cpp:100] Creating Layer conv3_postscale
I0505 23:49:42.705929 25932 net.cpp:434] conv3_postscale <- conv3
I0505 23:49:42.705936 25932 net.cpp:395] conv3_postscale -> conv3 (in-place)
I0505 23:49:42.706042 25932 net.cpp:150] Setting up conv3_postscale
I0505 23:49:42.706051 25932 net.cpp:157] Top shape: 1024 250 6 6 (9216000)
I0505 23:49:42.706055 25932 net.cpp:165] Memory required for data: 4092583936
I0505 23:49:42.706060 25932 layer_factory.hpp:77] Creating layer pool3
I0505 23:49:42.706073 25932 net.cpp:100] Creating Layer pool3
I0505 23:49:42.706079 25932 net.cpp:434] pool3 <- conv3
I0505 23:49:42.706084 25932 net.cpp:408] pool3 -> pool3
I0505 23:49:42.706125 25932 net.cpp:150] Setting up pool3
I0505 23:49:42.706133 25932 net.cpp:157] Top shape: 1024 250 3 3 (2304000)
I0505 23:49:42.706136 25932 net.cpp:165] Memory required for data: 4101799936
I0505 23:49:42.706140 25932 layer_factory.hpp:77] Creating layer fc4_300
I0505 23:49:42.706153 25932 net.cpp:100] Creating Layer fc4_300
I0505 23:49:42.706159 25932 net.cpp:434] fc4_300 <- pool3
I0505 23:49:42.706164 25932 net.cpp:408] fc4_300 -> fc4_300
I0505 23:49:42.718415 25932 net.cpp:150] Setting up fc4_300
I0505 23:49:42.718433 25932 net.cpp:157] Top shape: 1024 300 (307200)
I0505 23:49:42.718437 25932 net.cpp:165] Memory required for data: 4103028736
I0505 23:49:42.718446 25932 layer_factory.hpp:77] Creating layer fc4_prescale
I0505 23:49:42.718456 25932 net.cpp:100] Creating Layer fc4_prescale
I0505 23:49:42.718459 25932 net.cpp:434] fc4_prescale <- fc4_300
I0505 23:49:42.718466 25932 net.cpp:395] fc4_prescale -> fc4_300 (in-place)
I0505 23:49:42.718564 25932 net.cpp:150] Setting up fc4_prescale
I0505 23:49:42.718575 25932 net.cpp:157] Top shape: 1024 300 (307200)
I0505 23:49:42.718578 25932 net.cpp:165] Memory required for data: 4104257536
I0505 23:49:42.718583 25932 layer_factory.hpp:77] Creating layer fc4_sTanH
I0505 23:49:42.718590 25932 net.cpp:100] Creating Layer fc4_sTanH
I0505 23:49:42.718592 25932 net.cpp:434] fc4_sTanH <- fc4_300
I0505 23:49:42.718597 25932 net.cpp:395] fc4_sTanH -> fc4_300 (in-place)
I0505 23:49:42.718793 25932 net.cpp:150] Setting up fc4_sTanH
I0505 23:49:42.718806 25932 net.cpp:157] Top shape: 1024 300 (307200)
I0505 23:49:42.718811 25932 net.cpp:165] Memory required for data: 4105486336
I0505 23:49:42.718816 25932 layer_factory.hpp:77] Creating layer fc4_postscale
I0505 23:49:42.718823 25932 net.cpp:100] Creating Layer fc4_postscale
I0505 23:49:42.718829 25932 net.cpp:434] fc4_postscale <- fc4_300
I0505 23:49:42.718834 25932 net.cpp:395] fc4_postscale -> fc4_300 (in-place)
I0505 23:49:42.718938 25932 net.cpp:150] Setting up fc4_postscale
I0505 23:49:42.718952 25932 net.cpp:157] Top shape: 1024 300 (307200)
I0505 23:49:42.718955 25932 net.cpp:165] Memory required for data: 4106715136
I0505 23:49:42.718961 25932 layer_factory.hpp:77] Creating layer fc5_116
I0505 23:49:42.718968 25932 net.cpp:100] Creating Layer fc5_116
I0505 23:49:42.718973 25932 net.cpp:434] fc5_116 <- fc4_300
I0505 23:49:42.718981 25932 net.cpp:408] fc5_116 -> fc5_classes
I0505 23:49:42.722785 25932 net.cpp:150] Setting up fc5_116
I0505 23:49:42.722805 25932 net.cpp:157] Top shape: 1024 116 (118784)
I0505 23:49:42.722810 25932 net.cpp:165] Memory required for data: 4107190272
I0505 23:49:42.722822 25932 layer_factory.hpp:77] Creating layer fc5_classes_fc5_116_0_split
I0505 23:49:42.722832 25932 net.cpp:100] Creating Layer fc5_classes_fc5_116_0_split
I0505 23:49:42.722837 25932 net.cpp:434] fc5_classes_fc5_116_0_split <- fc5_classes
I0505 23:49:42.722843 25932 net.cpp:408] fc5_classes_fc5_116_0_split -> fc5_classes_fc5_116_0_split_0
I0505 23:49:42.722856 25932 net.cpp:408] fc5_classes_fc5_116_0_split -> fc5_classes_fc5_116_0_split_1
I0505 23:49:42.722863 25932 net.cpp:408] fc5_classes_fc5_116_0_split -> fc5_classes_fc5_116_0_split_2
I0505 23:49:42.722920 25932 net.cpp:150] Setting up fc5_classes_fc5_116_0_split
I0505 23:49:42.722930 25932 net.cpp:157] Top shape: 1024 116 (118784)
I0505 23:49:42.722935 25932 net.cpp:157] Top shape: 1024 116 (118784)
I0505 23:49:42.722939 25932 net.cpp:157] Top shape: 1024 116 (118784)
I0505 23:49:42.722941 25932 net.cpp:165] Memory required for data: 4108615680
I0505 23:49:42.722947 25932 layer_factory.hpp:77] Creating layer softmax
I0505 23:49:42.722954 25932 net.cpp:100] Creating Layer softmax
I0505 23:49:42.722959 25932 net.cpp:434] softmax <- fc5_classes_fc5_116_0_split_0
I0505 23:49:42.722964 25932 net.cpp:408] softmax -> softmax
I0505 23:49:42.723229 25932 net.cpp:150] Setting up softmax
I0505 23:49:42.723245 25932 net.cpp:157] Top shape: 1024 116 (118784)
I0505 23:49:42.723249 25932 net.cpp:165] Memory required for data: 4109090816
I0505 23:49:42.723253 25932 layer_factory.hpp:77] Creating layer loss
I0505 23:49:42.723261 25932 net.cpp:100] Creating Layer loss
I0505 23:49:42.723265 25932 net.cpp:434] loss <- softmax
I0505 23:49:42.723270 25932 net.cpp:434] loss <- label_data_1_split_0
I0505 23:49:42.723275 25932 net.cpp:408] loss -> loss
…
