…
I0506 01:16:45.228741  4844 solver.cpp:93] Creating training net from train_net file: ./Prototxt/experiment_13/RTSD/orig/trial_2/train.prototxt
I0506 01:16:45.229310  4844 net.cpp:58] Initializing net from parameters: 
state {
  phase: TRAIN
  level: 0
  stage: ""
}
layer {
  name: "data"
  type: "Data"
  top: "data"
  top: "label"
  include {
    phase: TRAIN
  }
  transform_param {
    scale: 0.0039215689
    mirror: false
    crop_size: 48
    mean_value: 119
    mean_value: 113
    mean_value: 113
  }
  data_param {
    source: "../local_data/lmdb/RTSD/orig/train/lmdb"
    batch_size: 700
    backend: LMDB
  }
}
layer {
  name: "conv1"
  type: "Convolution"
  bottom: "data"
  top: "conv1"
  convolution_param {
    num_output: 100
    pad: 0
    kernel_size: 7
    group: 1
    stride: 1
    weight_filler {
      type: "xavier"
    }
  }
}
layer {
  name: "conv1_prescale"
  type: "Scale"
  bottom: "conv1"
  top: "conv1"
  param {
    lr_mult: 0
    decay_mult: 0
  }
  scale_param {
    filler {
      value: 0.6666
    }
    bias_term: false
  }
}
layer {
  name: "conv1_sTanH"
  type: "TanH"
  bottom: "conv1"
  top: "conv1"
}
layer {
  name: "conv1_postscale"
  type: "Scale"
  bottom: "conv1"
  top: "conv1"
  param {
    lr_mult: 0
    decay_mult: 0
  }
  scale_param {
    filler {
      value: 1.7159
    }
    bias_term: false
  }
}
layer {
  name: "pool1"
  type: "Pooling"
  bottom: "conv1"
  top: "pool1"
  pooling_param {
    pool: MAX
    kernel_size: 2
    stride: 2
  }
}
layer {
  name: "conv2"
  type: "Convolution"
  bottom: "pool1"
  top: "conv2"
  convolution_param {
    num_output: 150
    pad: 0
    kernel_size: 4
    group: 1
    stride: 1
    weight_filler {
      type: "xavier"
    }
  }
}
layer {
  name: "conv2_prescale"
  type: "Scale"
  bottom: "conv2"
  top: "conv2"
  param {
    lr_mult: 0
    decay_mult: 0
  }
  scale_param {
    filler {
      value: 0.6666
    }
    bias_term: false
  }
}
layer {
  name: "conv2_sTanH"
  type: "TanH"
  bottom: "conv2"
  top: "conv2"
}
layer {
  name: "conv2_postscale"
  type: "Scale"
  bottom: "conv2"
  top: "conv2"
  param {
    lr_mult: 0
    decay_mult: 0
  }
  scale_param {
    filler {
      value: 1.7159
    }
    bias_term: false
  }
}
layer {
  name: "pool2"
  type: "Pooling"
  bottom: "conv2"
  top: "pool2"
  pooling_param {
    pool: MAX
    kernel_size: 2
    stride: 2
  }
}
layer {
  name: "conv3"
  type: "Convolution"
  bottom: "pool2"
  top: "conv3"
  convolution_param {
    num_output: 250
    pad: 0
    kernel_size: 4
    group: 1
    stride: 1
    weight_filler {
      type: "xavier"
    }
  }
}
layer {
  name: "conv3_prescale"
  type: "Scale"
  bottom: "conv3"
  top: "conv3"
  param {
    lr_mult: 0
    decay_mult: 0
  }
  scale_param {
    filler {
      value: 0.6666
    }
    bias_term: false
  }
}
layer {
  name: "conv3_sTanH"
  type: "TanH"
  bottom: "conv3"
  top: "conv3"
}
layer {
  name: "conv3_postscale"
  type: "Scale"
  bottom: "conv3"
  top: "conv3"
  param {
    lr_mult: 0
    decay_mult: 0
  }
  scale_param {
    filler {
      value: 1.7159
    }
    bias_term: false
  }
}
layer {
  name: "pool3"
  type: "Pooling"
  bottom: "conv3"
  top: "pool3"
  pooling_param {
    pool: MAX
    kernel_size: 2
    stride: 2
  }
}
layer {
  name: "fc4_300"
  type: "InnerProduct"
  bottom: "pool3"
  top: "fc4_300"
  inner_product_param {
    num_output: 300
    weight_filler {
      type: "xavier"
    }
  }
}
layer {
  name: "fc4_prescale"
  type: "Scale"
  bottom: "fc4_300"
  top: "fc4_300"
  param {
    lr_mult: 0
    decay_mult: 0
  }
  scale_param {
    filler {
      value: 0.6666
    }
    bias_term: false
  }
}
layer {
  name: "fc4_sTanH"
  type: "TanH"
  bottom: "fc4_300"
  top: "fc4_300"
}
layer {
  name: "fc4_postscale"
  type: "Scale"
  bottom: "fc4_300"
  top: "fc4_300"
  param {
    lr_mult: 0
    decay_mult: 0
  }
  scale_param {
    filler {
      value: 1.7159
    }
    bias_term: false
  }
}
layer {
  name: "fc5_116"
  type: "InnerProduct"
  bottom: "fc4_300"
  top: "fc5_classes"
  inner_product_param {
    num_output: 116
    weight_filler {
      type: "xavier"
    }
  }
}
layer {
  name: "softmax"
  type: "Softmax"
  bottom: "fc5_classes"
  top: "softmax"
}
layer {
  name: "loss"
  type: "MultinomialLogisticLoss"
  bottom: "softmax"
  bottom: "label"
  top: "loss"
}
layer {
  name: "accuracy_1"
  type: "Accuracy"
  bottom: "fc5_classes"
  bottom: "label"
  top: "accuracy_1"
  accuracy_param {
    top_k: 1
  }
}
layer {
  name: "accuracy_5"
  type: "Accuracy"
  bottom: "fc5_classes"
  bottom: "label"
  top: "accuracy_5"
  accuracy_param {
    top_k: 5
  }
}
layer {
  name: "silence"
  type: "Silence"
  bottom: "accuracy_1"
  bottom: "accuracy_5"
}
I0506 01:16:45.229501  4844 layer_factory.hpp:77] Creating layer data
I0506 01:16:45.230558  4844 net.cpp:100] Creating Layer data
I0506 01:16:45.230577  4844 net.cpp:408] data -> data
I0506 01:16:45.230603  4844 net.cpp:408] data -> label
I0506 01:16:45.242239  4983 db_lmdb.cpp:35] Opened lmdb ../local_data/lmdb/RTSD/orig/train/lmdb
I0506 01:16:45.264632  4844 data_layer.cpp:41] output data size: 700,3,48,48
I0506 01:16:45.322979  4844 net.cpp:150] Setting up data
I0506 01:16:45.323014  4844 net.cpp:157] Top shape: 700 3 48 48 (4838400)
I0506 01:16:45.323020  4844 net.cpp:157] Top shape: 700 (700)
I0506 01:16:45.323024  4844 net.cpp:165] Memory required for data: 19356400
I0506 01:16:45.323036  4844 layer_factory.hpp:77] Creating layer label_data_1_split
I0506 01:16:45.323055  4844 net.cpp:100] Creating Layer label_data_1_split
I0506 01:16:45.323065  4844 net.cpp:434] label_data_1_split <- label
I0506 01:16:45.323079  4844 net.cpp:408] label_data_1_split -> label_data_1_split_0
I0506 01:16:45.323094  4844 net.cpp:408] label_data_1_split -> label_data_1_split_1
I0506 01:16:45.323103  4844 net.cpp:408] label_data_1_split -> label_data_1_split_2
I0506 01:16:45.323205  4844 net.cpp:150] Setting up label_data_1_split
I0506 01:16:45.323218  4844 net.cpp:157] Top shape: 700 (700)
I0506 01:16:45.323222  4844 net.cpp:157] Top shape: 700 (700)
I0506 01:16:45.323227  4844 net.cpp:157] Top shape: 700 (700)
I0506 01:16:45.323232  4844 net.cpp:165] Memory required for data: 19364800
I0506 01:16:45.323236  4844 layer_factory.hpp:77] Creating layer conv1
I0506 01:16:45.323256  4844 net.cpp:100] Creating Layer conv1
I0506 01:16:45.323263  4844 net.cpp:434] conv1 <- data
I0506 01:16:45.323271  4844 net.cpp:408] conv1 -> conv1
I0506 01:16:45.842406  4844 net.cpp:150] Setting up conv1
I0506 01:16:45.842439  4844 net.cpp:157] Top shape: 700 100 42 42 (123480000)
I0506 01:16:45.842444  4844 net.cpp:165] Memory required for data: 513284800
I0506 01:16:45.842470  4844 layer_factory.hpp:77] Creating layer conv1_prescale
I0506 01:16:45.842485  4844 net.cpp:100] Creating Layer conv1_prescale
I0506 01:16:45.842492  4844 net.cpp:434] conv1_prescale <- conv1
I0506 01:16:45.842500  4844 net.cpp:395] conv1_prescale -> conv1 (in-place)
I0506 01:16:45.842631  4844 net.cpp:150] Setting up conv1_prescale
I0506 01:16:45.842643  4844 net.cpp:157] Top shape: 700 100 42 42 (123480000)
I0506 01:16:45.842648  4844 net.cpp:165] Memory required for data: 1007204800
I0506 01:16:45.842655  4844 layer_factory.hpp:77] Creating layer conv1_sTanH
I0506 01:16:45.842664  4844 net.cpp:100] Creating Layer conv1_sTanH
I0506 01:16:45.842669  4844 net.cpp:434] conv1_sTanH <- conv1
I0506 01:16:45.842674  4844 net.cpp:395] conv1_sTanH -> conv1 (in-place)
I0506 01:16:45.842911  4844 net.cpp:150] Setting up conv1_sTanH
I0506 01:16:45.842926  4844 net.cpp:157] Top shape: 700 100 42 42 (123480000)
I0506 01:16:45.842952  4844 net.cpp:165] Memory required for data: 1501124800
I0506 01:16:45.842957  4844 layer_factory.hpp:77] Creating layer conv1_postscale
I0506 01:16:45.842965  4844 net.cpp:100] Creating Layer conv1_postscale
I0506 01:16:45.842972  4844 net.cpp:434] conv1_postscale <- conv1
I0506 01:16:45.842978  4844 net.cpp:395] conv1_postscale -> conv1 (in-place)
I0506 01:16:45.843096  4844 net.cpp:150] Setting up conv1_postscale
I0506 01:16:45.843106  4844 net.cpp:157] Top shape: 700 100 42 42 (123480000)
I0506 01:16:45.843109  4844 net.cpp:165] Memory required for data: 1995044800
I0506 01:16:45.843116  4844 layer_factory.hpp:77] Creating layer pool1
I0506 01:16:45.843123  4844 net.cpp:100] Creating Layer pool1
I0506 01:16:45.843128  4844 net.cpp:434] pool1 <- conv1
I0506 01:16:45.843134  4844 net.cpp:408] pool1 -> pool1
I0506 01:16:45.843191  4844 net.cpp:150] Setting up pool1
I0506 01:16:45.843201  4844 net.cpp:157] Top shape: 700 100 21 21 (30870000)
I0506 01:16:45.843205  4844 net.cpp:165] Memory required for data: 2118524800
I0506 01:16:45.843209  4844 layer_factory.hpp:77] Creating layer conv2
I0506 01:16:45.843219  4844 net.cpp:100] Creating Layer conv2
I0506 01:16:45.843225  4844 net.cpp:434] conv2 <- pool1
I0506 01:16:45.843231  4844 net.cpp:408] conv2 -> conv2
I0506 01:16:45.858033  4844 net.cpp:150] Setting up conv2
I0506 01:16:45.858055  4844 net.cpp:157] Top shape: 700 150 18 18 (34020000)
I0506 01:16:45.858060  4844 net.cpp:165] Memory required for data: 2254604800
I0506 01:16:45.858073  4844 layer_factory.hpp:77] Creating layer conv2_prescale
I0506 01:16:45.858086  4844 net.cpp:100] Creating Layer conv2_prescale
I0506 01:16:45.858093  4844 net.cpp:434] conv2_prescale <- conv2
I0506 01:16:45.858100  4844 net.cpp:395] conv2_prescale -> conv2 (in-place)
I0506 01:16:45.858232  4844 net.cpp:150] Setting up conv2_prescale
I0506 01:16:45.858244  4844 net.cpp:157] Top shape: 700 150 18 18 (34020000)
I0506 01:16:45.858247  4844 net.cpp:165] Memory required for data: 2390684800
I0506 01:16:45.858253  4844 layer_factory.hpp:77] Creating layer conv2_sTanH
I0506 01:16:45.858260  4844 net.cpp:100] Creating Layer conv2_sTanH
I0506 01:16:45.858263  4844 net.cpp:434] conv2_sTanH <- conv2
I0506 01:16:45.858269  4844 net.cpp:395] conv2_sTanH -> conv2 (in-place)
I0506 01:16:45.881526  4844 net.cpp:150] Setting up conv2_sTanH
I0506 01:16:45.881548  4844 net.cpp:157] Top shape: 700 150 18 18 (34020000)
I0506 01:16:45.881552  4844 net.cpp:165] Memory required for data: 2526764800
I0506 01:16:45.881557  4844 layer_factory.hpp:77] Creating layer conv2_postscale
I0506 01:16:45.881567  4844 net.cpp:100] Creating Layer conv2_postscale
I0506 01:16:45.881570  4844 net.cpp:434] conv2_postscale <- conv2
I0506 01:16:45.881577  4844 net.cpp:395] conv2_postscale -> conv2 (in-place)
I0506 01:16:45.881701  4844 net.cpp:150] Setting up conv2_postscale
I0506 01:16:45.881712  4844 net.cpp:157] Top shape: 700 150 18 18 (34020000)
I0506 01:16:45.881716  4844 net.cpp:165] Memory required for data: 2662844800
I0506 01:16:45.881723  4844 layer_factory.hpp:77] Creating layer pool2
I0506 01:16:45.881731  4844 net.cpp:100] Creating Layer pool2
I0506 01:16:45.881734  4844 net.cpp:434] pool2 <- conv2
I0506 01:16:45.881741  4844 net.cpp:408] pool2 -> pool2
I0506 01:16:45.881789  4844 net.cpp:150] Setting up pool2
I0506 01:16:45.881799  4844 net.cpp:157] Top shape: 700 150 9 9 (8505000)
I0506 01:16:45.881803  4844 net.cpp:165] Memory required for data: 2696864800
I0506 01:16:45.881806  4844 layer_factory.hpp:77] Creating layer conv3
I0506 01:16:45.881816  4844 net.cpp:100] Creating Layer conv3
I0506 01:16:45.881822  4844 net.cpp:434] conv3 <- pool2
I0506 01:16:45.881829  4844 net.cpp:408] conv3 -> conv3
I0506 01:16:45.897519  4844 net.cpp:150] Setting up conv3
I0506 01:16:45.897542  4844 net.cpp:157] Top shape: 700 250 6 6 (6300000)
I0506 01:16:45.897547  4844 net.cpp:165] Memory required for data: 2722064800
I0506 01:16:45.897560  4844 layer_factory.hpp:77] Creating layer conv3_prescale
I0506 01:16:45.897572  4844 net.cpp:100] Creating Layer conv3_prescale
I0506 01:16:45.897596  4844 net.cpp:434] conv3_prescale <- conv3
I0506 01:16:45.897604  4844 net.cpp:395] conv3_prescale -> conv3 (in-place)
I0506 01:16:45.897730  4844 net.cpp:150] Setting up conv3_prescale
I0506 01:16:45.897743  4844 net.cpp:157] Top shape: 700 250 6 6 (6300000)
I0506 01:16:45.897747  4844 net.cpp:165] Memory required for data: 2747264800
I0506 01:16:45.897753  4844 layer_factory.hpp:77] Creating layer conv3_sTanH
I0506 01:16:45.897759  4844 net.cpp:100] Creating Layer conv3_sTanH
I0506 01:16:45.897763  4844 net.cpp:434] conv3_sTanH <- conv3
I0506 01:16:45.897770  4844 net.cpp:395] conv3_sTanH -> conv3 (in-place)
I0506 01:16:45.910234  4844 net.cpp:150] Setting up conv3_sTanH
I0506 01:16:45.910254  4844 net.cpp:157] Top shape: 700 250 6 6 (6300000)
I0506 01:16:45.910259  4844 net.cpp:165] Memory required for data: 2772464800
I0506 01:16:45.910264  4844 layer_factory.hpp:77] Creating layer conv3_postscale
I0506 01:16:45.910274  4844 net.cpp:100] Creating Layer conv3_postscale
I0506 01:16:45.910279  4844 net.cpp:434] conv3_postscale <- conv3
I0506 01:16:45.910285  4844 net.cpp:395] conv3_postscale -> conv3 (in-place)
I0506 01:16:45.910419  4844 net.cpp:150] Setting up conv3_postscale
I0506 01:16:45.910430  4844 net.cpp:157] Top shape: 700 250 6 6 (6300000)
I0506 01:16:45.910434  4844 net.cpp:165] Memory required for data: 2797664800
I0506 01:16:45.910439  4844 layer_factory.hpp:77] Creating layer pool3
I0506 01:16:45.910454  4844 net.cpp:100] Creating Layer pool3
I0506 01:16:45.910459  4844 net.cpp:434] pool3 <- conv3
I0506 01:16:45.910465  4844 net.cpp:408] pool3 -> pool3
I0506 01:16:45.910523  4844 net.cpp:150] Setting up pool3
I0506 01:16:45.910534  4844 net.cpp:157] Top shape: 700 250 3 3 (1575000)
I0506 01:16:45.910538  4844 net.cpp:165] Memory required for data: 2803964800
I0506 01:16:45.910542  4844 layer_factory.hpp:77] Creating layer fc4_300
I0506 01:16:45.910550  4844 net.cpp:100] Creating Layer fc4_300
I0506 01:16:45.910554  4844 net.cpp:434] fc4_300 <- pool3
I0506 01:16:45.910560  4844 net.cpp:408] fc4_300 -> fc4_300
I0506 01:16:45.921274  4844 net.cpp:150] Setting up fc4_300
I0506 01:16:45.921296  4844 net.cpp:157] Top shape: 700 300 (210000)
I0506 01:16:45.921301  4844 net.cpp:165] Memory required for data: 2804804800
I0506 01:16:45.921309  4844 layer_factory.hpp:77] Creating layer fc4_prescale
I0506 01:16:45.921319  4844 net.cpp:100] Creating Layer fc4_prescale
I0506 01:16:45.921322  4844 net.cpp:434] fc4_prescale <- fc4_300
I0506 01:16:45.921329  4844 net.cpp:395] fc4_prescale -> fc4_300 (in-place)
I0506 01:16:45.921448  4844 net.cpp:150] Setting up fc4_prescale
I0506 01:16:45.921459  4844 net.cpp:157] Top shape: 700 300 (210000)
I0506 01:16:45.921463  4844 net.cpp:165] Memory required for data: 2805644800
I0506 01:16:45.921468  4844 layer_factory.hpp:77] Creating layer fc4_sTanH
I0506 01:16:45.921475  4844 net.cpp:100] Creating Layer fc4_sTanH
I0506 01:16:45.921478  4844 net.cpp:434] fc4_sTanH <- fc4_300
I0506 01:16:45.921483  4844 net.cpp:395] fc4_sTanH -> fc4_300 (in-place)
I0506 01:16:45.921726  4844 net.cpp:150] Setting up fc4_sTanH
I0506 01:16:45.921741  4844 net.cpp:157] Top shape: 700 300 (210000)
I0506 01:16:45.921744  4844 net.cpp:165] Memory required for data: 2806484800
I0506 01:16:45.921748  4844 layer_factory.hpp:77] Creating layer fc4_postscale
I0506 01:16:45.921756  4844 net.cpp:100] Creating Layer fc4_postscale
I0506 01:16:45.921762  4844 net.cpp:434] fc4_postscale <- fc4_300
I0506 01:16:45.921771  4844 net.cpp:395] fc4_postscale -> fc4_300 (in-place)
I0506 01:16:45.921897  4844 net.cpp:150] Setting up fc4_postscale
I0506 01:16:45.921907  4844 net.cpp:157] Top shape: 700 300 (210000)
I0506 01:16:45.921911  4844 net.cpp:165] Memory required for data: 2807324800
I0506 01:16:45.921916  4844 layer_factory.hpp:77] Creating layer fc5_116
I0506 01:16:45.921923  4844 net.cpp:100] Creating Layer fc5_116
I0506 01:16:45.921927  4844 net.cpp:434] fc5_116 <- fc4_300
I0506 01:16:45.921934  4844 net.cpp:408] fc5_116 -> fc5_classes
I0506 01:16:45.932243  4844 net.cpp:150] Setting up fc5_116
I0506 01:16:45.932284  4844 net.cpp:157] Top shape: 700 116 (81200)
I0506 01:16:45.932292  4844 net.cpp:165] Memory required for data: 2807649600
I0506 01:16:45.932317  4844 layer_factory.hpp:77] Creating layer fc5_classes_fc5_116_0_split
I0506 01:16:45.932335  4844 net.cpp:100] Creating Layer fc5_classes_fc5_116_0_split
I0506 01:16:45.932345  4844 net.cpp:434] fc5_classes_fc5_116_0_split <- fc5_classes
I0506 01:16:45.932358  4844 net.cpp:408] fc5_classes_fc5_116_0_split -> fc5_classes_fc5_116_0_split_0
I0506 01:16:45.932375  4844 net.cpp:408] fc5_classes_fc5_116_0_split -> fc5_classes_fc5_116_0_split_1
I0506 01:16:45.932394  4844 net.cpp:408] fc5_classes_fc5_116_0_split -> fc5_classes_fc5_116_0_split_2
I0506 01:16:45.932499  4844 net.cpp:150] Setting up fc5_classes_fc5_116_0_split
I0506 01:16:45.932515  4844 net.cpp:157] Top shape: 700 116 (81200)
I0506 01:16:45.932520  4844 net.cpp:157] Top shape: 700 116 (81200)
I0506 01:16:45.932524  4844 net.cpp:157] Top shape: 700 116 (81200)
I0506 01:16:45.932528  4844 net.cpp:165] Memory required for data: 2808624000
I0506 01:16:45.932531  4844 layer_factory.hpp:77] Creating layer softmax
I0506 01:16:45.932541  4844 net.cpp:100] Creating Layer softmax
I0506 01:16:45.932545  4844 net.cpp:434] softmax <- fc5_classes_fc5_116_0_split_0
I0506 01:16:45.932552  4844 net.cpp:408] softmax -> softmax
I0506 01:16:45.932878  4844 net.cpp:150] Setting up softmax
I0506 01:16:45.932893  4844 net.cpp:157] Top shape: 700 116 (81200)
I0506 01:16:45.932896  4844 net.cpp:165] Memory required for data: 2808948800
I0506 01:16:45.932900  4844 layer_factory.hpp:77] Creating layer loss
I0506 01:16:45.932907  4844 net.cpp:100] Creating Layer loss
I0506 01:16:45.932911  4844 net.cpp:434] loss <- softmax
I0506 01:16:45.932917  4844 net.cpp:434] loss <- label_data_1_split_0
I0506 01:16:45.932925  4844 net.cpp:408] loss -> loss
…
