…
I0528 05:36:54.623697 28937 solver.cpp:81] Creating training net from train_net file: ./Prototxt/experiment_21/RTSD/histeq/trial_4/train.prototxt
I0528 05:36:54.624047 28937 net.cpp:58] Initializing net from parameters: 
state {
  phase: TRAIN
  level: 0
  stage: ""
}
layer {
  name: "data"
  type: "Data"
  top: "data"
  top: "label"
  include {
    phase: TRAIN
  }
  transform_param {
    scale: 0.0039215689
    mirror: false
    crop_size: 48
    mean_value: 135
    mean_value: 128
    mean_value: 128
  }
  data_param {
    source: "../local_data/lmdb/RTSD/histeq/train/lmdb"
    batch_size: 1024
    backend: LMDB
  }
}
layer {
  name: "conv1"
  type: "Convolution"
  bottom: "data"
  top: "conv1"
  convolution_param {
    num_output: 100
    pad: 0
    kernel_size: 7
    group: 1
    stride: 1
    weight_filler {
      type: "xavier"
    }
  }
}
layer {
  name: "conv1_relu"
  type: "ReLU"
  bottom: "conv1"
  top: "conv1"
}
layer {
  name: "pool1"
  type: "Pooling"
  bottom: "conv1"
  top: "pool1"
  pooling_param {
    pool: MAX
    kernel_size: 2
    stride: 2
  }
}
layer {
  name: "conv2"
  type: "Convolution"
  bottom: "pool1"
  top: "conv2"
  convolution_param {
    num_output: 150
    pad: 0
    kernel_size: 4
    group: 1
    stride: 1
    weight_filler {
      type: "xavier"
    }
  }
}
layer {
  name: "conv2_relu"
  type: "ReLU"
  bottom: "conv2"
  top: "conv2"
}
layer {
  name: "pool2"
  type: "Pooling"
  bottom: "conv2"
  top: "pool2"
  pooling_param {
    pool: MAX
    kernel_size: 2
    stride: 2
  }
}
layer {
  name: "conv3"
  type: "Convolution"
  bottom: "pool2"
  top: "conv3"
  convolution_param {
    num_output: 250
    pad: 0
    kernel_size: 4
    group: 1
    stride: 1
    weight_filler {
      type: "xavier"
    }
  }
}
layer {
  name: "conv3_relu"
  type: "ReLU"
  bottom: "conv3"
  top: "conv3"
}
layer {
  name: "pool3"
  type: "Pooling"
  bottom: "conv3"
  top: "pool3"
  pooling_param {
    pool: MAX
    kernel_size: 2
    stride: 2
  }
}
layer {
  name: "fc4_300"
  type: "InnerProduct"
  bottom: "pool3"
  top: "fc4_300"
  inner_product_param {
    num_output: 300
    weight_filler {
      type: "xavier"
    }
  }
}
layer {
  name: "fc4_relu"
  type: "ReLU"
  bottom: "fc4_300"
  top: "fc4_300"
}
layer {
  name: "fc5_116"
  type: "InnerProduct"
  bottom: "fc4_300"
  top: "fc5_classes"
  inner_product_param {
    num_output: 116
    weight_filler {
      type: "xavier"
    }
  }
}
layer {
  name: "softmax"
  type: "Softmax"
  bottom: "fc5_classes"
  top: "softmax"
}
layer {
  name: "loss"
  type: "MultinomialLogisticLoss"
  bottom: "softmax"
  bottom: "label"
  top: "loss"
}
layer {
  name: "accuracy_1"
  type: "Accuracy"
  bottom: "fc5_classes"
  bottom: "label"
  top: "accuracy_1"
  accuracy_param {
    top_k: 1
  }
}
layer {
  name: "accuracy_5"
  type: "Accuracy"
  bottom: "fc5_classes"
  bottom: "label"
  top: "accuracy_5"
  accuracy_param {
    top_k: 5
  }
}
layer {
  name: "silence"
  type: "Silence"
  bottom: "accuracy_1"
  bottom: "accuracy_5"
}
I0528 05:36:54.624162 28937 layer_factory.hpp:77] Creating layer data
I0528 05:36:54.624943 28937 net.cpp:100] Creating Layer data
I0528 05:36:54.624958 28937 net.cpp:408] data -> data
I0528 05:36:54.624990 28937 net.cpp:408] data -> label
I0528 05:36:54.626163 28973 db_lmdb.cpp:35] Opened lmdb ../local_data/lmdb/RTSD/histeq/train/lmdb
I0528 05:36:54.650612 28937 data_layer.cpp:41] output data size: 1024,3,48,48
I0528 05:36:54.753471 28937 net.cpp:150] Setting up data
I0528 05:36:54.753589 28937 net.cpp:157] Top shape: 1024 3 48 48 (7077888)
I0528 05:36:54.753617 28937 net.cpp:157] Top shape: 1024 (1024)
I0528 05:36:54.753638 28937 net.cpp:165] Memory required for data: 28315648
I0528 05:36:54.753666 28937 layer_factory.hpp:77] Creating layer label_data_1_split
I0528 05:36:54.753697 28937 net.cpp:100] Creating Layer label_data_1_split
I0528 05:36:54.753721 28937 net.cpp:434] label_data_1_split <- label
I0528 05:36:54.753756 28937 net.cpp:408] label_data_1_split -> label_data_1_split_0
I0528 05:36:54.753785 28937 net.cpp:408] label_data_1_split -> label_data_1_split_1
I0528 05:36:54.753813 28937 net.cpp:408] label_data_1_split -> label_data_1_split_2
I0528 05:36:54.753904 28937 net.cpp:150] Setting up label_data_1_split
I0528 05:36:54.753934 28937 net.cpp:157] Top shape: 1024 (1024)
I0528 05:36:54.753957 28937 net.cpp:157] Top shape: 1024 (1024)
I0528 05:36:54.753978 28937 net.cpp:157] Top shape: 1024 (1024)
I0528 05:36:54.753998 28937 net.cpp:165] Memory required for data: 28327936
I0528 05:36:54.754019 28937 layer_factory.hpp:77] Creating layer conv1
I0528 05:36:54.754055 28937 net.cpp:100] Creating Layer conv1
I0528 05:36:54.754077 28937 net.cpp:434] conv1 <- data
I0528 05:36:54.754103 28937 net.cpp:408] conv1 -> conv1
I0528 05:36:55.316361 28937 net.cpp:150] Setting up conv1
I0528 05:36:55.316387 28937 net.cpp:157] Top shape: 1024 100 42 42 (180633600)
I0528 05:36:55.316393 28937 net.cpp:165] Memory required for data: 750862336
I0528 05:36:55.316408 28937 layer_factory.hpp:77] Creating layer conv1_relu
I0528 05:36:55.316418 28937 net.cpp:100] Creating Layer conv1_relu
I0528 05:36:55.316423 28937 net.cpp:434] conv1_relu <- conv1
I0528 05:36:55.316429 28937 net.cpp:395] conv1_relu -> conv1 (in-place)
I0528 05:36:55.316570 28937 net.cpp:150] Setting up conv1_relu
I0528 05:36:55.316581 28937 net.cpp:157] Top shape: 1024 100 42 42 (180633600)
I0528 05:36:55.316586 28937 net.cpp:165] Memory required for data: 1473396736
I0528 05:36:55.316591 28937 layer_factory.hpp:77] Creating layer pool1
I0528 05:36:55.316599 28937 net.cpp:100] Creating Layer pool1
I0528 05:36:55.316606 28937 net.cpp:434] pool1 <- conv1
I0528 05:36:55.316610 28937 net.cpp:408] pool1 -> pool1
I0528 05:36:55.316653 28937 net.cpp:150] Setting up pool1
I0528 05:36:55.316660 28937 net.cpp:157] Top shape: 1024 100 21 21 (45158400)
I0528 05:36:55.316664 28937 net.cpp:165] Memory required for data: 1654030336
I0528 05:36:55.316669 28937 layer_factory.hpp:77] Creating layer conv2
I0528 05:36:55.316679 28937 net.cpp:100] Creating Layer conv2
I0528 05:36:55.316706 28937 net.cpp:434] conv2 <- pool1
I0528 05:36:55.316714 28937 net.cpp:408] conv2 -> conv2
I0528 05:36:55.319515 28937 net.cpp:150] Setting up conv2
I0528 05:36:55.319530 28937 net.cpp:157] Top shape: 1024 150 18 18 (49766400)
I0528 05:36:55.319535 28937 net.cpp:165] Memory required for data: 1853095936
I0528 05:36:55.319543 28937 layer_factory.hpp:77] Creating layer conv2_relu
I0528 05:36:55.319552 28937 net.cpp:100] Creating Layer conv2_relu
I0528 05:36:55.319557 28937 net.cpp:434] conv2_relu <- conv2
I0528 05:36:55.319562 28937 net.cpp:395] conv2_relu -> conv2 (in-place)
I0528 05:36:55.319686 28937 net.cpp:150] Setting up conv2_relu
I0528 05:36:55.319699 28937 net.cpp:157] Top shape: 1024 150 18 18 (49766400)
I0528 05:36:55.319702 28937 net.cpp:165] Memory required for data: 2052161536
I0528 05:36:55.319708 28937 layer_factory.hpp:77] Creating layer pool2
I0528 05:36:55.319716 28937 net.cpp:100] Creating Layer pool2
I0528 05:36:55.319725 28937 net.cpp:434] pool2 <- conv2
I0528 05:36:55.319730 28937 net.cpp:408] pool2 -> pool2
I0528 05:36:55.319763 28937 net.cpp:150] Setting up pool2
I0528 05:36:55.319772 28937 net.cpp:157] Top shape: 1024 150 9 9 (12441600)
I0528 05:36:55.319775 28937 net.cpp:165] Memory required for data: 2101927936
I0528 05:36:55.319779 28937 layer_factory.hpp:77] Creating layer conv3
I0528 05:36:55.319787 28937 net.cpp:100] Creating Layer conv3
I0528 05:36:55.319793 28937 net.cpp:434] conv3 <- pool2
I0528 05:36:55.319799 28937 net.cpp:408] conv3 -> conv3
I0528 05:36:55.324290 28937 net.cpp:150] Setting up conv3
I0528 05:36:55.324306 28937 net.cpp:157] Top shape: 1024 250 6 6 (9216000)
I0528 05:36:55.324311 28937 net.cpp:165] Memory required for data: 2138791936
I0528 05:36:55.324319 28937 layer_factory.hpp:77] Creating layer conv3_relu
I0528 05:36:55.324326 28937 net.cpp:100] Creating Layer conv3_relu
I0528 05:36:55.324331 28937 net.cpp:434] conv3_relu <- conv3
I0528 05:36:55.324335 28937 net.cpp:395] conv3_relu -> conv3 (in-place)
I0528 05:36:55.324662 28937 net.cpp:150] Setting up conv3_relu
I0528 05:36:55.324676 28937 net.cpp:157] Top shape: 1024 250 6 6 (9216000)
I0528 05:36:55.324679 28937 net.cpp:165] Memory required for data: 2175655936
I0528 05:36:55.324684 28937 layer_factory.hpp:77] Creating layer pool3
I0528 05:36:55.324702 28937 net.cpp:100] Creating Layer pool3
I0528 05:36:55.324707 28937 net.cpp:434] pool3 <- conv3
I0528 05:36:55.324713 28937 net.cpp:408] pool3 -> pool3
I0528 05:36:55.324748 28937 net.cpp:150] Setting up pool3
I0528 05:36:55.324754 28937 net.cpp:157] Top shape: 1024 250 3 3 (2304000)
I0528 05:36:55.324759 28937 net.cpp:165] Memory required for data: 2184871936
I0528 05:36:55.324761 28937 layer_factory.hpp:77] Creating layer fc4_300
I0528 05:36:55.324767 28937 net.cpp:100] Creating Layer fc4_300
I0528 05:36:55.324771 28937 net.cpp:434] fc4_300 <- pool3
I0528 05:36:55.324776 28937 net.cpp:408] fc4_300 -> fc4_300
I0528 05:36:55.329082 28937 net.cpp:150] Setting up fc4_300
I0528 05:36:55.329095 28937 net.cpp:157] Top shape: 1024 300 (307200)
I0528 05:36:55.329100 28937 net.cpp:165] Memory required for data: 2186100736
I0528 05:36:55.329107 28937 layer_factory.hpp:77] Creating layer fc4_relu
I0528 05:36:55.329113 28937 net.cpp:100] Creating Layer fc4_relu
I0528 05:36:55.329118 28937 net.cpp:434] fc4_relu <- fc4_300
I0528 05:36:55.329123 28937 net.cpp:395] fc4_relu -> fc4_300 (in-place)
I0528 05:36:55.329247 28937 net.cpp:150] Setting up fc4_relu
I0528 05:36:55.329257 28937 net.cpp:157] Top shape: 1024 300 (307200)
I0528 05:36:55.329262 28937 net.cpp:165] Memory required for data: 2187329536
I0528 05:36:55.329267 28937 layer_factory.hpp:77] Creating layer fc5_116
I0528 05:36:55.329273 28937 net.cpp:100] Creating Layer fc5_116
I0528 05:36:55.329282 28937 net.cpp:434] fc5_116 <- fc4_300
I0528 05:36:55.329286 28937 net.cpp:408] fc5_116 -> fc5_classes
I0528 05:36:55.330195 28937 net.cpp:150] Setting up fc5_116
I0528 05:36:55.330209 28937 net.cpp:157] Top shape: 1024 116 (118784)
I0528 05:36:55.330212 28937 net.cpp:165] Memory required for data: 2187804672
I0528 05:36:55.330221 28937 layer_factory.hpp:77] Creating layer fc5_classes_fc5_116_0_split
I0528 05:36:55.330227 28937 net.cpp:100] Creating Layer fc5_classes_fc5_116_0_split
I0528 05:36:55.330232 28937 net.cpp:434] fc5_classes_fc5_116_0_split <- fc5_classes
I0528 05:36:55.330237 28937 net.cpp:408] fc5_classes_fc5_116_0_split -> fc5_classes_fc5_116_0_split_0
I0528 05:36:55.330243 28937 net.cpp:408] fc5_classes_fc5_116_0_split -> fc5_classes_fc5_116_0_split_1
I0528 05:36:55.330250 28937 net.cpp:408] fc5_classes_fc5_116_0_split -> fc5_classes_fc5_116_0_split_2
I0528 05:36:55.330284 28937 net.cpp:150] Setting up fc5_classes_fc5_116_0_split
I0528 05:36:55.330291 28937 net.cpp:157] Top shape: 1024 116 (118784)
I0528 05:36:55.330294 28937 net.cpp:157] Top shape: 1024 116 (118784)
I0528 05:36:55.330298 28937 net.cpp:157] Top shape: 1024 116 (118784)
I0528 05:36:55.330302 28937 net.cpp:165] Memory required for data: 2189230080
I0528 05:36:55.330307 28937 layer_factory.hpp:77] Creating layer softmax
I0528 05:36:55.330312 28937 net.cpp:100] Creating Layer softmax
I0528 05:36:55.330318 28937 net.cpp:434] softmax <- fc5_classes_fc5_116_0_split_0
I0528 05:36:55.330323 28937 net.cpp:408] softmax -> softmax
I0528 05:36:55.330497 28937 net.cpp:150] Setting up softmax
I0528 05:36:55.330513 28937 net.cpp:157] Top shape: 1024 116 (118784)
I0528 05:36:55.330518 28937 net.cpp:165] Memory required for data: 2189705216
I0528 05:36:55.330523 28937 layer_factory.hpp:77] Creating layer loss
I0528 05:36:55.330540 28937 net.cpp:100] Creating Layer loss
I0528 05:36:55.330546 28937 net.cpp:434] loss <- softmax
I0528 05:36:55.330551 28937 net.cpp:434] loss <- label_data_1_split_0
I0528 05:36:55.330556 28937 net.cpp:408] loss -> loss
…
