…
I0411 04:45:40.260673 32326 net.cpp:322] The NetState phase (0) differed from the phase (1) specified by a rule in layer accuracy_5
I0411 04:45:40.260830 32326 net.cpp:58] Initializing net from parameters: 
state {
  phase: TRAIN
  level: 0
  stage: ""
}
layer {
  name: "data"
  type: "Data"
  top: "data"
  top: "label"
  include {
    phase: TRAIN
  }
  transform_param {
    scale: 0.0039215689
    mirror: false
    crop_size: 48
    mean_value: 132
    mean_value: 126
    mean_value: 140
  }
  data_param {
    source: "../local_data/lmdb/rtsd-r1/AHE/train/lmdb"
    batch_size: 1024
    backend: LMDB
  }
}
layer {
  name: "conv1"
  type: "Convolution"
  bottom: "data"
  top: "conv1"
  convolution_param {
    num_output: 100
    pad: 0
    kernel_size: 7
    group: 1
    stride: 1
    weight_filler {
      type: "xavier"
    }
  }
}
layer {
  name: "conv1_prescale"
  type: "Scale"
  bottom: "conv1"
  top: "conv1"
  param {
    lr_mult: 0
    decay_mult: 0
  }
  scale_param {
    filler {
      value: 0.6666
    }
    bias_term: false
  }
}
layer {
  name: "conv1_sTanH"
  type: "TanH"
  bottom: "conv1"
  top: "conv1"
}
layer {
  name: "conv1_postscale"
  type: "Scale"
  bottom: "conv1"
  top: "conv1"
  param {
    lr_mult: 0
    decay_mult: 0
  }
  scale_param {
    filler {
      value: 1.7159
    }
    bias_term: false
  }
}
layer {
  name: "pool1"
  type: "Pooling"
  bottom: "conv1"
  top: "pool1"
  pooling_param {
    pool: MAX
    kernel_size: 2
    stride: 2
  }
}
layer {
  name: "conv2"
  type: "Convolution"
  bottom: "pool1"
  top: "conv2"
  convolution_param {
    num_output: 150
    pad: 0
    kernel_size: 4
    group: 1
    stride: 1
    weight_filler {
      type: "xavier"
    }
  }
}
layer {
  name: "conv2_prescale"
  type: "Scale"
  bottom: "conv2"
  top: "conv2"
  param {
    lr_mult: 0
    decay_mult: 0
  }
  scale_param {
    filler {
      value: 0.6666
    }
    bias_term: false
  }
}
layer {
  name: "conv2_sTanH"
  type: "TanH"
  bottom: "conv2"
  top: "conv2"
}
layer {
  name: "conv2_postscale"
  type: "Scale"
  bottom: "conv2"
  top: "conv2"
  param {
    lr_mult: 0
    decay_mult: 0
  }
  scale_param {
    filler {
      value: 1.7159
    }
    bias_term: false
  }
}
layer {
  name: "pool2"
  type: "Pooling"
  bottom: "conv2"
  top: "pool2"
  pooling_param {
    pool: MAX
    kernel_size: 2
    stride: 2
  }
}
layer {
  name: "conv3"
  type: "Convolution"
  bottom: "pool2"
  top: "conv3"
  convolution_param {
    num_output: 250
    pad: 0
    kernel_size: 4
    group: 1
    stride: 1
    weight_filler {
      type: "xavier"
    }
  }
}
layer {
  name: "conv3_prescale"
  type: "Scale"
  bottom: "conv3"
  top: "conv3"
  param {
    lr_mult: 0
    decay_mult: 0
  }
  scale_param {
    filler {
      value: 0.6666
    }
    bias_term: false
  }
}
layer {
  name: "conv3_sTanH"
  type: "TanH"
  bottom: "conv3"
  top: "conv3"
}
layer {
  name: "conv3_postscale"
  type: "Scale"
  bottom: "conv3"
  top: "conv3"
  param {
    lr_mult: 0
    decay_mult: 0
  }
  scale_param {
    filler {
      value: 1.7159
    }
    bias_term: false
  }
}
layer {
  name: "pool3"
  type: "Pooling"
  bottom: "conv3"
  top: "pool3"
  pooling_param {
    pool: MAX
    kernel_size: 2
    stride: 2
  }
}
layer {
  name: "fc4_300"
  type: "InnerProduct"
  bottom: "pool3"
  top: "fc4_300"
  inner_product_param {
    num_output: 300
    weight_filler {
      type: "xavier"
    }
  }
}
layer {
  name: "fc4_prescale"
  type: "Scale"
  bottom: "fc4_300"
  top: "fc4_300"
  param {
    lr_mult: 0
    decay_mult: 0
  }
  scale_param {
    filler {
      value: 0.6666
    }
    bias_term: false
  }
}
layer {
  name: "fc4_sTanH"
  type: "TanH"
  bottom: "fc4_300"
  top: "fc4_300"
}
layer {
  name: "fc4_postscale"
  type: "Scale"
  bottom: "fc4_300"
  top: "fc4_300"
  param {
    lr_mult: 0
    decay_mult: 0
  }
  scale_param {
    filler {
      value: 1.7159
    }
    bias_term: false
  }
}
layer {
  name: "fc5_67"
  type: "InnerProduct"
  bottom: "fc4_300"
  top: "fc5_classes"
  inner_product_param {
    num_output: 67
    weight_filler {
      type: "xavier"
    }
  }
}
layer {
  name: "loss"
  type: "SoftmaxWithLoss"
  bottom: "fc5_classes"
  bottom: "label"
  top: "loss"
}
I0411 04:45:40.260956 32326 layer_factory.hpp:77] Creating layer data
I0411 04:45:40.262120 32326 net.cpp:100] Creating Layer data
I0411 04:45:40.262138 32326 net.cpp:408] data -> data
I0411 04:45:40.262162 32326 net.cpp:408] data -> label
I0411 04:45:40.263365 32442 db_lmdb.cpp:35] Opened lmdb ../local_data/lmdb/rtsd-r1/AHE/train/lmdb
I0411 04:45:40.281903 32326 data_layer.cpp:41] output data size: 1024,3,48,48
I0411 04:45:40.325284 32326 net.cpp:150] Setting up data
I0411 04:45:40.325314 32326 net.cpp:157] Top shape: 1024 3 48 48 (7077888)
I0411 04:45:40.325318 32326 net.cpp:157] Top shape: 1024 (1024)
I0411 04:45:40.325321 32326 net.cpp:165] Memory required for data: 28315648
I0411 04:45:40.325332 32326 layer_factory.hpp:77] Creating layer conv1
I0411 04:45:40.325366 32326 net.cpp:100] Creating Layer conv1
I0411 04:45:40.325373 32326 net.cpp:434] conv1 <- data
I0411 04:45:40.325386 32326 net.cpp:408] conv1 -> conv1
I0411 04:45:40.611455 32326 net.cpp:150] Setting up conv1
I0411 04:45:40.611485 32326 net.cpp:157] Top shape: 1024 100 42 42 (180633600)
I0411 04:45:40.611488 32326 net.cpp:165] Memory required for data: 750850048
I0411 04:45:40.611510 32326 layer_factory.hpp:77] Creating layer conv1_prescale
I0411 04:45:40.611524 32326 net.cpp:100] Creating Layer conv1_prescale
I0411 04:45:40.611528 32326 net.cpp:434] conv1_prescale <- conv1
I0411 04:45:40.611536 32326 net.cpp:395] conv1_prescale -> conv1 (in-place)
I0411 04:45:40.611645 32326 net.cpp:150] Setting up conv1_prescale
I0411 04:45:40.611655 32326 net.cpp:157] Top shape: 1024 100 42 42 (180633600)
I0411 04:45:40.611659 32326 net.cpp:165] Memory required for data: 1473384448
I0411 04:45:40.611665 32326 layer_factory.hpp:77] Creating layer conv1_sTanH
I0411 04:45:40.611672 32326 net.cpp:100] Creating Layer conv1_sTanH
I0411 04:45:40.611675 32326 net.cpp:434] conv1_sTanH <- conv1
I0411 04:45:40.611680 32326 net.cpp:395] conv1_sTanH -> conv1 (in-place)
I0411 04:45:40.611871 32326 net.cpp:150] Setting up conv1_sTanH
I0411 04:45:40.611898 32326 net.cpp:157] Top shape: 1024 100 42 42 (180633600)
I0411 04:45:40.611902 32326 net.cpp:165] Memory required for data: 2195918848
I0411 04:45:40.611907 32326 layer_factory.hpp:77] Creating layer conv1_postscale
I0411 04:45:40.611914 32326 net.cpp:100] Creating Layer conv1_postscale
I0411 04:45:40.611917 32326 net.cpp:434] conv1_postscale <- conv1
I0411 04:45:40.611922 32326 net.cpp:395] conv1_postscale -> conv1 (in-place)
I0411 04:45:40.612022 32326 net.cpp:150] Setting up conv1_postscale
I0411 04:45:40.612031 32326 net.cpp:157] Top shape: 1024 100 42 42 (180633600)
I0411 04:45:40.612035 32326 net.cpp:165] Memory required for data: 2918453248
I0411 04:45:40.612040 32326 layer_factory.hpp:77] Creating layer pool1
I0411 04:45:40.612046 32326 net.cpp:100] Creating Layer pool1
I0411 04:45:40.612051 32326 net.cpp:434] pool1 <- conv1
I0411 04:45:40.612056 32326 net.cpp:408] pool1 -> pool1
I0411 04:45:40.612102 32326 net.cpp:150] Setting up pool1
I0411 04:45:40.612109 32326 net.cpp:157] Top shape: 1024 100 21 21 (45158400)
I0411 04:45:40.612133 32326 net.cpp:165] Memory required for data: 3099086848
I0411 04:45:40.612136 32326 layer_factory.hpp:77] Creating layer conv2
I0411 04:45:40.612146 32326 net.cpp:100] Creating Layer conv2
I0411 04:45:40.612152 32326 net.cpp:434] conv2 <- pool1
I0411 04:45:40.612157 32326 net.cpp:408] conv2 -> conv2
I0411 04:45:40.618525 32326 net.cpp:150] Setting up conv2
I0411 04:45:40.618541 32326 net.cpp:157] Top shape: 1024 150 18 18 (49766400)
I0411 04:45:40.618547 32326 net.cpp:165] Memory required for data: 3298152448
I0411 04:45:40.618557 32326 layer_factory.hpp:77] Creating layer conv2_prescale
I0411 04:45:40.618566 32326 net.cpp:100] Creating Layer conv2_prescale
I0411 04:45:40.618571 32326 net.cpp:434] conv2_prescale <- conv2
I0411 04:45:40.618577 32326 net.cpp:395] conv2_prescale -> conv2 (in-place)
I0411 04:45:40.618681 32326 net.cpp:150] Setting up conv2_prescale
I0411 04:45:40.618690 32326 net.cpp:157] Top shape: 1024 150 18 18 (49766400)
I0411 04:45:40.618693 32326 net.cpp:165] Memory required for data: 3497218048
I0411 04:45:40.618697 32326 layer_factory.hpp:77] Creating layer conv2_sTanH
I0411 04:45:40.618705 32326 net.cpp:100] Creating Layer conv2_sTanH
I0411 04:45:40.618708 32326 net.cpp:434] conv2_sTanH <- conv2
I0411 04:45:40.618713 32326 net.cpp:395] conv2_sTanH -> conv2 (in-place)
I0411 04:45:40.619957 32326 net.cpp:150] Setting up conv2_sTanH
I0411 04:45:40.619973 32326 net.cpp:157] Top shape: 1024 150 18 18 (49766400)
I0411 04:45:40.619978 32326 net.cpp:165] Memory required for data: 3696283648
I0411 04:45:40.619982 32326 layer_factory.hpp:77] Creating layer conv2_postscale
I0411 04:45:40.619989 32326 net.cpp:100] Creating Layer conv2_postscale
I0411 04:45:40.619993 32326 net.cpp:434] conv2_postscale <- conv2
I0411 04:45:40.619998 32326 net.cpp:395] conv2_postscale -> conv2 (in-place)
I0411 04:45:40.620093 32326 net.cpp:150] Setting up conv2_postscale
I0411 04:45:40.620101 32326 net.cpp:157] Top shape: 1024 150 18 18 (49766400)
I0411 04:45:40.620105 32326 net.cpp:165] Memory required for data: 3895349248
I0411 04:45:40.620110 32326 layer_factory.hpp:77] Creating layer pool2
I0411 04:45:40.620115 32326 net.cpp:100] Creating Layer pool2
I0411 04:45:40.620121 32326 net.cpp:434] pool2 <- conv2
I0411 04:45:40.620126 32326 net.cpp:408] pool2 -> pool2
I0411 04:45:40.620163 32326 net.cpp:150] Setting up pool2
I0411 04:45:40.620170 32326 net.cpp:157] Top shape: 1024 150 9 9 (12441600)
I0411 04:45:40.620173 32326 net.cpp:165] Memory required for data: 3945115648
I0411 04:45:40.620177 32326 layer_factory.hpp:77] Creating layer conv3
I0411 04:45:40.620183 32326 net.cpp:100] Creating Layer conv3
I0411 04:45:40.620188 32326 net.cpp:434] conv3 <- pool2
I0411 04:45:40.620193 32326 net.cpp:408] conv3 -> conv3
I0411 04:45:40.626297 32326 net.cpp:150] Setting up conv3
I0411 04:45:40.626315 32326 net.cpp:157] Top shape: 1024 250 6 6 (9216000)
I0411 04:45:40.626320 32326 net.cpp:165] Memory required for data: 3981979648
I0411 04:45:40.626330 32326 layer_factory.hpp:77] Creating layer conv3_prescale
I0411 04:45:40.626339 32326 net.cpp:100] Creating Layer conv3_prescale
I0411 04:45:40.626344 32326 net.cpp:434] conv3_prescale <- conv3
I0411 04:45:40.626353 32326 net.cpp:395] conv3_prescale -> conv3 (in-place)
I0411 04:45:40.626451 32326 net.cpp:150] Setting up conv3_prescale
I0411 04:45:40.626461 32326 net.cpp:157] Top shape: 1024 250 6 6 (9216000)
I0411 04:45:40.626466 32326 net.cpp:165] Memory required for data: 4018843648
I0411 04:45:40.626471 32326 layer_factory.hpp:77] Creating layer conv3_sTanH
I0411 04:45:40.626476 32326 net.cpp:100] Creating Layer conv3_sTanH
I0411 04:45:40.626478 32326 net.cpp:434] conv3_sTanH <- conv3
I0411 04:45:40.626482 32326 net.cpp:395] conv3_sTanH -> conv3 (in-place)
I0411 04:45:40.627764 32326 net.cpp:150] Setting up conv3_sTanH
I0411 04:45:40.627781 32326 net.cpp:157] Top shape: 1024 250 6 6 (9216000)
I0411 04:45:40.627786 32326 net.cpp:165] Memory required for data: 4055707648
I0411 04:45:40.627790 32326 layer_factory.hpp:77] Creating layer conv3_postscale
I0411 04:45:40.627799 32326 net.cpp:100] Creating Layer conv3_postscale
I0411 04:45:40.627815 32326 net.cpp:434] conv3_postscale <- conv3
I0411 04:45:40.627825 32326 net.cpp:395] conv3_postscale -> conv3 (in-place)
I0411 04:45:40.627946 32326 net.cpp:150] Setting up conv3_postscale
I0411 04:45:40.627957 32326 net.cpp:157] Top shape: 1024 250 6 6 (9216000)
I0411 04:45:40.627960 32326 net.cpp:165] Memory required for data: 4092571648
I0411 04:45:40.627965 32326 layer_factory.hpp:77] Creating layer pool3
I0411 04:45:40.627974 32326 net.cpp:100] Creating Layer pool3
I0411 04:45:40.627979 32326 net.cpp:434] pool3 <- conv3
I0411 04:45:40.627984 32326 net.cpp:408] pool3 -> pool3
I0411 04:45:40.628026 32326 net.cpp:150] Setting up pool3
I0411 04:45:40.628032 32326 net.cpp:157] Top shape: 1024 250 3 3 (2304000)
I0411 04:45:40.628036 32326 net.cpp:165] Memory required for data: 4101787648
I0411 04:45:40.628039 32326 layer_factory.hpp:77] Creating layer fc4_300
I0411 04:45:40.628048 32326 net.cpp:100] Creating Layer fc4_300
I0411 04:45:40.628053 32326 net.cpp:434] fc4_300 <- pool3
I0411 04:45:40.628058 32326 net.cpp:408] fc4_300 -> fc4_300
I0411 04:45:40.634018 32326 net.cpp:150] Setting up fc4_300
I0411 04:45:40.634037 32326 net.cpp:157] Top shape: 1024 300 (307200)
I0411 04:45:40.634042 32326 net.cpp:165] Memory required for data: 4103016448
I0411 04:45:40.634048 32326 layer_factory.hpp:77] Creating layer fc4_prescale
I0411 04:45:40.634057 32326 net.cpp:100] Creating Layer fc4_prescale
I0411 04:45:40.634063 32326 net.cpp:434] fc4_prescale <- fc4_300
I0411 04:45:40.634068 32326 net.cpp:395] fc4_prescale -> fc4_300 (in-place)
I0411 04:45:40.634157 32326 net.cpp:150] Setting up fc4_prescale
I0411 04:45:40.634166 32326 net.cpp:157] Top shape: 1024 300 (307200)
I0411 04:45:40.634168 32326 net.cpp:165] Memory required for data: 4104245248
I0411 04:45:40.634173 32326 layer_factory.hpp:77] Creating layer fc4_sTanH
I0411 04:45:40.634178 32326 net.cpp:100] Creating Layer fc4_sTanH
I0411 04:45:40.634183 32326 net.cpp:434] fc4_sTanH <- fc4_300
I0411 04:45:40.634188 32326 net.cpp:395] fc4_sTanH -> fc4_300 (in-place)
I0411 04:45:40.634385 32326 net.cpp:150] Setting up fc4_sTanH
I0411 04:45:40.634399 32326 net.cpp:157] Top shape: 1024 300 (307200)
I0411 04:45:40.634403 32326 net.cpp:165] Memory required for data: 4105474048
I0411 04:45:40.634407 32326 layer_factory.hpp:77] Creating layer fc4_postscale
I0411 04:45:40.634413 32326 net.cpp:100] Creating Layer fc4_postscale
I0411 04:45:40.634416 32326 net.cpp:434] fc4_postscale <- fc4_300
I0411 04:45:40.634423 32326 net.cpp:395] fc4_postscale -> fc4_300 (in-place)
I0411 04:45:40.634526 32326 net.cpp:150] Setting up fc4_postscale
I0411 04:45:40.634534 32326 net.cpp:157] Top shape: 1024 300 (307200)
I0411 04:45:40.634538 32326 net.cpp:165] Memory required for data: 4106702848
I0411 04:45:40.634543 32326 layer_factory.hpp:77] Creating layer fc5_67
I0411 04:45:40.634549 32326 net.cpp:100] Creating Layer fc5_67
I0411 04:45:40.634552 32326 net.cpp:434] fc5_67 <- fc4_300
I0411 04:45:40.634557 32326 net.cpp:408] fc5_67 -> fc5_classes
I0411 04:45:40.635859 32326 net.cpp:150] Setting up fc5_67
I0411 04:45:40.635874 32326 net.cpp:157] Top shape: 1024 67 (68608)
I0411 04:45:40.635892 32326 net.cpp:165] Memory required for data: 4106977280
I0411 04:45:40.635905 32326 layer_factory.hpp:77] Creating layer loss
I0411 04:45:40.635912 32326 net.cpp:100] Creating Layer loss
I0411 04:45:40.635916 32326 net.cpp:434] loss <- fc5_classes
I0411 04:45:40.635921 32326 net.cpp:434] loss <- label
I0411 04:45:40.635929 32326 net.cpp:408] loss -> loss
I0411 04:45:40.635943 32326 layer_factory.hpp:77] Creating layer loss
…
I0411 04:45:40.636699 32326 solver.cpp:193] Creating test net (#0) specified by test_net file: ./Prototxt/experiment_8/rtsd-r1/AHE/trial_2/test.prototxt
I0411 04:45:40.636878 32326 net.cpp:58] Initializing net from parameters: 
state {
  phase: TEST
}
layer {
  name: "data"
  type: "Data"
  top: "data"
  top: "label"
  include {
    phase: TEST
  }
  transform_param {
    scale: 0.0039215689
    mirror: false
    crop_size: 48
    mean_value: 126
    mean_value: 124
    mean_value: 145
  }
  data_param {
    source: "../local_data/lmdb/rtsd-r1/AHE/test/lmdb"
    batch_size: 1024
    backend: LMDB
  }
}
layer {
  name: "conv1"
  type: "Convolution"
  bottom: "data"
  top: "conv1"
  convolution_param {
    num_output: 100
    pad: 0
    kernel_size: 7
    group: 1
    stride: 1
    weight_filler {
      type: "xavier"
    }
  }
}
layer {
  name: "conv1_prescale"
  type: "Scale"
  bottom: "conv1"
  top: "conv1"
  param {
    lr_mult: 0
    decay_mult: 0
  }
  scale_param {
    filler {
      value: 0.6666
    }
    bias_term: false
  }
}
layer {
  name: "conv1_sTanH"
  type: "TanH"
  bottom: "conv1"
  top: "conv1"
}
layer {
  name: "conv1_postscale"
  type: "Scale"
  bottom: "conv1"
  top: "conv1"
  param {
    lr_mult: 0
    decay_mult: 0
  }
  scale_param {
    filler {
      value: 1.7159
    }
    bias_term: false
  }
}
layer {
  name: "pool1"
  type: "Pooling"
  bottom: "conv1"
  top: "pool1"
  pooling_param {
    pool: MAX
    kernel_size: 2
    stride: 2
  }
}
layer {
  name: "conv2"
  type: "Convolution"
  bottom: "pool1"
  top: "conv2"
  convolution_param {
    num_output: 150
    pad: 0
    kernel_size: 4
    group: 1
    stride: 1
    weight_filler {
      type: "xavier"
    }
  }
}
layer {
  name: "conv2_prescale"
  type: "Scale"
  bottom: "conv2"
  top: "conv2"
  param {
    lr_mult: 0
    decay_mult: 0
  }
  scale_param {
    filler {
      value: 0.6666
    }
    bias_term: false
  }
}
layer {
  name: "conv2_sTanH"
  type: "TanH"
  bottom: "conv2"
  top: "conv2"
}
layer {
  name: "conv2_postscale"
  type: "Scale"
  bottom: "conv2"
  top: "conv2"
  param {
    lr_mult: 0
    decay_mult: 0
  }
  scale_param {
    filler {
      value: 1.7159
    }
    bias_term: false
  }
}
layer {
  name: "pool2"
  type: "Pooling"
  bottom: "conv2"
  top: "pool2"
  pooling_param {
    pool: MAX
    kernel_size: 2
    stride: 2
  }
}
layer {
  name: "conv3"
  type: "Convolution"
  bottom: "pool2"
  top: "conv3"
  convolution_param {
    num_output: 250
    pad: 0
    kernel_size: 4
    group: 1
    stride: 1
    weight_filler {
      type: "xavier"
    }
  }
}
layer {
  name: "conv3_prescale"
  type: "Scale"
  bottom: "conv3"
  top: "conv3"
  param {
    lr_mult: 0
    decay_mult: 0
  }
  scale_param {
    filler {
      value: 0.6666
    }
    bias_term: false
  }
}
layer {
  name: "conv3_sTanH"
  type: "TanH"
  bottom: "conv3"
  top: "conv3"
}
layer {
  name: "conv3_postscale"
  type: "Scale"
  bottom: "conv3"
  top: "conv3"
  param {
    lr_mult: 0
    decay_mult: 0
  }
  scale_param {
    filler {
      value: 1.7159
    }
    bias_term: false
  }
}
layer {
  name: "pool3"
  type: "Pooling"
  bottom: "conv3"
  top: "pool3"
  pooling_param {
    pool: MAX
    kernel_size: 2
    stride: 2
  }
}
layer {
  name: "fc4_300"
  type: "InnerProduct"
  bottom: "pool3"
  top: "fc4_300"
  inner_product_param {
    num_output: 300
    weight_filler {
      type: "xavier"
    }
  }
}
layer {
  name: "fc4_prescale"
  type: "Scale"
  bottom: "fc4_300"
  top: "fc4_300"
  param {
    lr_mult: 0
    decay_mult: 0
  }
  scale_param {
    filler {
      value: 0.6666
    }
    bias_term: false
  }
}
layer {
  name: "fc4_sTanH"
  type: "TanH"
  bottom: "fc4_300"
  top: "fc4_300"
}
layer {
  name: "fc4_postscale"
  type: "Scale"
  bottom: "fc4_300"
  top: "fc4_300"
  param {
    lr_mult: 0
    decay_mult: 0
  }
  scale_param {
    filler {
      value: 1.7159
    }
    bias_term: false
  }
}
layer {
  name: "fc5_67"
  type: "InnerProduct"
  bottom: "fc4_300"
  top: "fc5_classes"
  inner_product_param {
    num_output: 67
    weight_filler {
      type: "xavier"
    }
  }
}
layer {
  name: "loss"
  type: "SoftmaxWithLoss"
  bottom: "fc5_classes"
  bottom: "label"
  top: "loss"
}
layer {
  name: "accuracy_1"
  type: "Accuracy"
  bottom: "fc5_classes"
  bottom: "label"
  top: "accuracy_1"
  include {
    phase: TEST
  }
  accuracy_param {
    top_k: 1
  }
}
layer {
  name: "accuracy_5"
  type: "Accuracy"
  bottom: "fc5_classes"
  bottom: "label"
  top: "accuracy_5"
  include {
    phase: TEST
  }
  accuracy_param {
    top_k: 5
  }
}
I0411 04:45:40.637001 32326 layer_factory.hpp:77] Creating layer data
I0411 04:45:40.637894 32326 net.cpp:100] Creating Layer data
I0411 04:45:40.637907 32326 net.cpp:408] data -> data
I0411 04:45:40.637917 32326 net.cpp:408] data -> label
I0411 04:45:40.640954 32486 db_lmdb.cpp:35] Opened lmdb ../local_data/lmdb/rtsd-r1/AHE/test/lmdb
I0411 04:45:40.641120 32326 data_layer.cpp:41] output data size: 1024,3,48,48
I0411 04:45:40.681325 32326 net.cpp:150] Setting up data
I0411 04:45:40.681354 32326 net.cpp:157] Top shape: 1024 3 48 48 (7077888)
I0411 04:45:40.681360 32326 net.cpp:157] Top shape: 1024 (1024)
I0411 04:45:40.681362 32326 net.cpp:165] Memory required for data: 28315648
I0411 04:45:40.681370 32326 layer_factory.hpp:77] Creating layer label_data_1_split
I0411 04:45:40.681383 32326 net.cpp:100] Creating Layer label_data_1_split
I0411 04:45:40.681387 32326 net.cpp:434] label_data_1_split <- label
I0411 04:45:40.681406 32326 net.cpp:408] label_data_1_split -> label_data_1_split_0
I0411 04:45:40.681419 32326 net.cpp:408] label_data_1_split -> label_data_1_split_1
I0411 04:45:40.681427 32326 net.cpp:408] label_data_1_split -> label_data_1_split_2
I0411 04:45:40.681546 32326 net.cpp:150] Setting up label_data_1_split
I0411 04:45:40.681555 32326 net.cpp:157] Top shape: 1024 (1024)
I0411 04:45:40.681560 32326 net.cpp:157] Top shape: 1024 (1024)
I0411 04:45:40.681563 32326 net.cpp:157] Top shape: 1024 (1024)
I0411 04:45:40.681566 32326 net.cpp:165] Memory required for data: 28327936
I0411 04:45:40.681569 32326 layer_factory.hpp:77] Creating layer conv1
I0411 04:45:40.681583 32326 net.cpp:100] Creating Layer conv1
I0411 04:45:40.681588 32326 net.cpp:434] conv1 <- data
I0411 04:45:40.681596 32326 net.cpp:408] conv1 -> conv1
I0411 04:45:40.683828 32326 net.cpp:150] Setting up conv1
I0411 04:45:40.683845 32326 net.cpp:157] Top shape: 1024 100 42 42 (180633600)
I0411 04:45:40.683868 32326 net.cpp:165] Memory required for data: 750862336
I0411 04:45:40.683894 32326 layer_factory.hpp:77] Creating layer conv1_prescale
I0411 04:45:40.683907 32326 net.cpp:100] Creating Layer conv1_prescale
I0411 04:45:40.683912 32326 net.cpp:434] conv1_prescale <- conv1
I0411 04:45:40.683917 32326 net.cpp:395] conv1_prescale -> conv1 (in-place)
I0411 04:45:40.684036 32326 net.cpp:150] Setting up conv1_prescale
I0411 04:45:40.684044 32326 net.cpp:157] Top shape: 1024 100 42 42 (180633600)
I0411 04:45:40.684047 32326 net.cpp:165] Memory required for data: 1473396736
I0411 04:45:40.684056 32326 layer_factory.hpp:77] Creating layer conv1_sTanH
I0411 04:45:40.684063 32326 net.cpp:100] Creating Layer conv1_sTanH
I0411 04:45:40.684068 32326 net.cpp:434] conv1_sTanH <- conv1
I0411 04:45:40.684073 32326 net.cpp:395] conv1_sTanH -> conv1 (in-place)
I0411 04:45:40.684293 32326 net.cpp:150] Setting up conv1_sTanH
I0411 04:45:40.684307 32326 net.cpp:157] Top shape: 1024 100 42 42 (180633600)
I0411 04:45:40.684310 32326 net.cpp:165] Memory required for data: 2195931136
I0411 04:45:40.684314 32326 layer_factory.hpp:77] Creating layer conv1_postscale
I0411 04:45:40.684321 32326 net.cpp:100] Creating Layer conv1_postscale
I0411 04:45:40.684324 32326 net.cpp:434] conv1_postscale <- conv1
I0411 04:45:40.684331 32326 net.cpp:395] conv1_postscale -> conv1 (in-place)
I0411 04:45:40.684448 32326 net.cpp:150] Setting up conv1_postscale
I0411 04:45:40.684456 32326 net.cpp:157] Top shape: 1024 100 42 42 (180633600)
I0411 04:45:40.684459 32326 net.cpp:165] Memory required for data: 2918465536
I0411 04:45:40.684464 32326 layer_factory.hpp:77] Creating layer pool1
I0411 04:45:40.684473 32326 net.cpp:100] Creating Layer pool1
I0411 04:45:40.684475 32326 net.cpp:434] pool1 <- conv1
I0411 04:45:40.684483 32326 net.cpp:408] pool1 -> pool1
I0411 04:45:40.684527 32326 net.cpp:150] Setting up pool1
I0411 04:45:40.684536 32326 net.cpp:157] Top shape: 1024 100 21 21 (45158400)
I0411 04:45:40.684540 32326 net.cpp:165] Memory required for data: 3099099136
I0411 04:45:40.684542 32326 layer_factory.hpp:77] Creating layer conv2
I0411 04:45:40.684551 32326 net.cpp:100] Creating Layer conv2
I0411 04:45:40.684556 32326 net.cpp:434] conv2 <- pool1
I0411 04:45:40.684562 32326 net.cpp:408] conv2 -> conv2
I0411 04:45:40.689625 32326 net.cpp:150] Setting up conv2
I0411 04:45:40.689643 32326 net.cpp:157] Top shape: 1024 150 18 18 (49766400)
I0411 04:45:40.689647 32326 net.cpp:165] Memory required for data: 3298164736
I0411 04:45:40.689658 32326 layer_factory.hpp:77] Creating layer conv2_prescale
I0411 04:45:40.689682 32326 net.cpp:100] Creating Layer conv2_prescale
I0411 04:45:40.689690 32326 net.cpp:434] conv2_prescale <- conv2
I0411 04:45:40.689697 32326 net.cpp:395] conv2_prescale -> conv2 (in-place)
I0411 04:45:40.689820 32326 net.cpp:150] Setting up conv2_prescale
I0411 04:45:40.689828 32326 net.cpp:157] Top shape: 1024 150 18 18 (49766400)
I0411 04:45:40.689831 32326 net.cpp:165] Memory required for data: 3497230336
I0411 04:45:40.689836 32326 layer_factory.hpp:77] Creating layer conv2_sTanH
I0411 04:45:40.689842 32326 net.cpp:100] Creating Layer conv2_sTanH
I0411 04:45:40.689846 32326 net.cpp:434] conv2_sTanH <- conv2
I0411 04:45:40.689851 32326 net.cpp:395] conv2_sTanH -> conv2 (in-place)
I0411 04:45:40.690775 32326 net.cpp:150] Setting up conv2_sTanH
I0411 04:45:40.690791 32326 net.cpp:157] Top shape: 1024 150 18 18 (49766400)
I0411 04:45:40.690794 32326 net.cpp:165] Memory required for data: 3696295936
I0411 04:45:40.690798 32326 layer_factory.hpp:77] Creating layer conv2_postscale
I0411 04:45:40.690807 32326 net.cpp:100] Creating Layer conv2_postscale
I0411 04:45:40.690811 32326 net.cpp:434] conv2_postscale <- conv2
I0411 04:45:40.690816 32326 net.cpp:395] conv2_postscale -> conv2 (in-place)
I0411 04:45:40.690924 32326 net.cpp:150] Setting up conv2_postscale
I0411 04:45:40.690933 32326 net.cpp:157] Top shape: 1024 150 18 18 (49766400)
I0411 04:45:40.690937 32326 net.cpp:165] Memory required for data: 3895361536
I0411 04:45:40.690943 32326 layer_factory.hpp:77] Creating layer pool2
I0411 04:45:40.690965 32326 net.cpp:100] Creating Layer pool2
I0411 04:45:40.690973 32326 net.cpp:434] pool2 <- conv2
I0411 04:45:40.690979 32326 net.cpp:408] pool2 -> pool2
I0411 04:45:40.691033 32326 net.cpp:150] Setting up pool2
I0411 04:45:40.691042 32326 net.cpp:157] Top shape: 1024 150 9 9 (12441600)
I0411 04:45:40.691045 32326 net.cpp:165] Memory required for data: 3945127936
I0411 04:45:40.691048 32326 layer_factory.hpp:77] Creating layer conv3
I0411 04:45:40.691062 32326 net.cpp:100] Creating Layer conv3
I0411 04:45:40.691067 32326 net.cpp:434] conv3 <- pool2
I0411 04:45:40.691083 32326 net.cpp:408] conv3 -> conv3
I0411 04:45:40.696979 32326 net.cpp:150] Setting up conv3
I0411 04:45:40.697000 32326 net.cpp:157] Top shape: 1024 250 6 6 (9216000)
I0411 04:45:40.697003 32326 net.cpp:165] Memory required for data: 3981991936
I0411 04:45:40.697021 32326 layer_factory.hpp:77] Creating layer conv3_prescale
I0411 04:45:40.697032 32326 net.cpp:100] Creating Layer conv3_prescale
I0411 04:45:40.697038 32326 net.cpp:434] conv3_prescale <- conv3
I0411 04:45:40.697044 32326 net.cpp:395] conv3_prescale -> conv3 (in-place)
I0411 04:45:40.697147 32326 net.cpp:150] Setting up conv3_prescale
I0411 04:45:40.697156 32326 net.cpp:157] Top shape: 1024 250 6 6 (9216000)
I0411 04:45:40.697160 32326 net.cpp:165] Memory required for data: 4018855936
I0411 04:45:40.697165 32326 layer_factory.hpp:77] Creating layer conv3_sTanH
I0411 04:45:40.697182 32326 net.cpp:100] Creating Layer conv3_sTanH
I0411 04:45:40.697186 32326 net.cpp:434] conv3_sTanH <- conv3
I0411 04:45:40.697192 32326 net.cpp:395] conv3_sTanH -> conv3 (in-place)
I0411 04:45:40.698101 32326 net.cpp:150] Setting up conv3_sTanH
I0411 04:45:40.698115 32326 net.cpp:157] Top shape: 1024 250 6 6 (9216000)
I0411 04:45:40.698119 32326 net.cpp:165] Memory required for data: 4055719936
I0411 04:45:40.698122 32326 layer_factory.hpp:77] Creating layer conv3_postscale
I0411 04:45:40.698133 32326 net.cpp:100] Creating Layer conv3_postscale
I0411 04:45:40.698139 32326 net.cpp:434] conv3_postscale <- conv3
I0411 04:45:40.698145 32326 net.cpp:395] conv3_postscale -> conv3 (in-place)
I0411 04:45:40.698252 32326 net.cpp:150] Setting up conv3_postscale
I0411 04:45:40.698261 32326 net.cpp:157] Top shape: 1024 250 6 6 (9216000)
I0411 04:45:40.698264 32326 net.cpp:165] Memory required for data: 4092583936
I0411 04:45:40.698269 32326 layer_factory.hpp:77] Creating layer pool3
I0411 04:45:40.698279 32326 net.cpp:100] Creating Layer pool3
I0411 04:45:40.698284 32326 net.cpp:434] pool3 <- conv3
I0411 04:45:40.698289 32326 net.cpp:408] pool3 -> pool3
I0411 04:45:40.698333 32326 net.cpp:150] Setting up pool3
I0411 04:45:40.698339 32326 net.cpp:157] Top shape: 1024 250 3 3 (2304000)
I0411 04:45:40.698343 32326 net.cpp:165] Memory required for data: 4101799936
I0411 04:45:40.698346 32326 layer_factory.hpp:77] Creating layer fc4_300
I0411 04:45:40.698355 32326 net.cpp:100] Creating Layer fc4_300
I0411 04:45:40.698359 32326 net.cpp:434] fc4_300 <- pool3
I0411 04:45:40.698364 32326 net.cpp:408] fc4_300 -> fc4_300
I0411 04:45:40.704952 32326 net.cpp:150] Setting up fc4_300
I0411 04:45:40.704969 32326 net.cpp:157] Top shape: 1024 300 (307200)
I0411 04:45:40.704973 32326 net.cpp:165] Memory required for data: 4103028736
I0411 04:45:40.704980 32326 layer_factory.hpp:77] Creating layer fc4_prescale
I0411 04:45:40.704989 32326 net.cpp:100] Creating Layer fc4_prescale
I0411 04:45:40.704993 32326 net.cpp:434] fc4_prescale <- fc4_300
I0411 04:45:40.705000 32326 net.cpp:395] fc4_prescale -> fc4_300 (in-place)
I0411 04:45:40.705097 32326 net.cpp:150] Setting up fc4_prescale
I0411 04:45:40.705106 32326 net.cpp:157] Top shape: 1024 300 (307200)
I0411 04:45:40.705109 32326 net.cpp:165] Memory required for data: 4104257536
I0411 04:45:40.705114 32326 layer_factory.hpp:77] Creating layer fc4_sTanH
I0411 04:45:40.705121 32326 net.cpp:100] Creating Layer fc4_sTanH
I0411 04:45:40.705132 32326 net.cpp:434] fc4_sTanH <- fc4_300
I0411 04:45:40.705137 32326 net.cpp:395] fc4_sTanH -> fc4_300 (in-place)
I0411 04:45:40.705361 32326 net.cpp:150] Setting up fc4_sTanH
I0411 04:45:40.705376 32326 net.cpp:157] Top shape: 1024 300 (307200)
I0411 04:45:40.705379 32326 net.cpp:165] Memory required for data: 4105486336
I0411 04:45:40.705384 32326 layer_factory.hpp:77] Creating layer fc4_postscale
I0411 04:45:40.705389 32326 net.cpp:100] Creating Layer fc4_postscale
I0411 04:45:40.705392 32326 net.cpp:434] fc4_postscale <- fc4_300
I0411 04:45:40.705402 32326 net.cpp:395] fc4_postscale -> fc4_300 (in-place)
I0411 04:45:40.705513 32326 net.cpp:150] Setting up fc4_postscale
I0411 04:45:40.705520 32326 net.cpp:157] Top shape: 1024 300 (307200)
I0411 04:45:40.705524 32326 net.cpp:165] Memory required for data: 4106715136
I0411 04:45:40.705529 32326 layer_factory.hpp:77] Creating layer fc5_67
I0411 04:45:40.705538 32326 net.cpp:100] Creating Layer fc5_67
I0411 04:45:40.705540 32326 net.cpp:434] fc5_67 <- fc4_300
I0411 04:45:40.705548 32326 net.cpp:408] fc5_67 -> fc5_classes
I0411 04:45:40.705799 32326 net.cpp:150] Setting up fc5_67
I0411 04:45:40.705808 32326 net.cpp:157] Top shape: 1024 67 (68608)
I0411 04:45:40.705811 32326 net.cpp:165] Memory required for data: 4106989568
I0411 04:45:40.705821 32326 layer_factory.hpp:77] Creating layer fc5_classes_fc5_67_0_split
I0411 04:45:40.705827 32326 net.cpp:100] Creating Layer fc5_classes_fc5_67_0_split
I0411 04:45:40.705832 32326 net.cpp:434] fc5_classes_fc5_67_0_split <- fc5_classes
I0411 04:45:40.705847 32326 net.cpp:408] fc5_classes_fc5_67_0_split -> fc5_classes_fc5_67_0_split_0
I0411 04:45:40.705854 32326 net.cpp:408] fc5_classes_fc5_67_0_split -> fc5_classes_fc5_67_0_split_1
I0411 04:45:40.705860 32326 net.cpp:408] fc5_classes_fc5_67_0_split -> fc5_classes_fc5_67_0_split_2
I0411 04:45:40.705914 32326 net.cpp:150] Setting up fc5_classes_fc5_67_0_split
I0411 04:45:40.705922 32326 net.cpp:157] Top shape: 1024 67 (68608)
I0411 04:45:40.705926 32326 net.cpp:157] Top shape: 1024 67 (68608)
I0411 04:45:40.705930 32326 net.cpp:157] Top shape: 1024 67 (68608)
I0411 04:45:40.705932 32326 net.cpp:165] Memory required for data: 4107812864
I0411 04:45:40.705935 32326 layer_factory.hpp:77] Creating layer loss
I0411 04:45:40.705942 32326 net.cpp:100] Creating Layer loss
I0411 04:45:40.705945 32326 net.cpp:434] loss <- fc5_classes_fc5_67_0_split_0
I0411 04:45:40.705950 32326 net.cpp:434] loss <- label_data_1_split_0
I0411 04:45:40.705956 32326 net.cpp:408] loss -> loss
…
