…
I0527 19:15:25.660257 24486 solver.cpp:81] Creating training net from train_net file: ./Prototxt/experiment_20/RTSD/orig/trial_4/train.prototxt
I0527 19:15:25.660655 24486 net.cpp:58] Initializing net from parameters: 
state {
  phase: TRAIN
  level: 0
  stage: ""
}
layer {
  name: "data"
  type: "Data"
  top: "data"
  top: "label"
  include {
    phase: TRAIN
  }
  transform_param {
    scale: 0.0039215689
    mirror: false
    crop_size: 48
    mean_value: 119
    mean_value: 113
    mean_value: 113
  }
  data_param {
    source: "../local_data/lmdb/RTSD/orig/train/lmdb"
    batch_size: 1024
    backend: LMDB
  }
}
layer {
  name: "conv1"
  type: "Convolution"
  bottom: "data"
  top: "conv1"
  convolution_param {
    num_output: 100
    pad: 0
    kernel_size: 7
    group: 1
    stride: 1
    weight_filler {
      type: "xavier"
    }
  }
}
layer {
  name: "conv1_relu"
  type: "ReLU"
  bottom: "conv1"
  top: "conv1"
}
layer {
  name: "pool1"
  type: "Pooling"
  bottom: "conv1"
  top: "pool1"
  pooling_param {
    pool: MAX
    kernel_size: 2
    stride: 2
  }
}
layer {
  name: "conv2"
  type: "Convolution"
  bottom: "pool1"
  top: "conv2"
  convolution_param {
    num_output: 150
    pad: 0
    kernel_size: 4
    group: 1
    stride: 1
    weight_filler {
      type: "xavier"
    }
  }
}
layer {
  name: "conv2_relu"
  type: "ReLU"
  bottom: "conv2"
  top: "conv2"
}
layer {
  name: "pool2"
  type: "Pooling"
  bottom: "conv2"
  top: "pool2"
  pooling_param {
    pool: MAX
    kernel_size: 2
    stride: 2
  }
}
layer {
  name: "conv3"
  type: "Convolution"
  bottom: "pool2"
  top: "conv3"
  convolution_param {
    num_output: 250
    pad: 0
    kernel_size: 4
    group: 1
    stride: 1
    weight_filler {
      type: "xavier"
    }
  }
}
layer {
  name: "conv3_relu"
  type: "ReLU"
  bottom: "conv3"
  top: "conv3"
}
layer {
  name: "pool3"
  type: "Pooling"
  bottom: "conv3"
  top: "pool3"
  pooling_param {
    pool: MAX
    kernel_size: 2
    stride: 2
  }
}
layer {
  name: "fc4_300"
  type: "InnerProduct"
  bottom: "pool3"
  top: "fc4_300"
  inner_product_param {
    num_output: 300
    weight_filler {
      type: "xavier"
    }
  }
}
layer {
  name: "fc4_relu"
  type: "ReLU"
  bottom: "fc4_300"
  top: "fc4_300"
}
layer {
  name: "fc5_116"
  type: "InnerProduct"
  bottom: "fc4_300"
  top: "fc5_classes"
  inner_product_param {
    num_output: 116
    weight_filler {
      type: "xavier"
    }
  }
}
layer {
  name: "softmax"
  type: "Softmax"
  bottom: "fc5_classes"
  top: "softmax"
}
layer {
  name: "loss"
  type: "MultinomialLogisticLoss"
  bottom: "softmax"
  bottom: "label"
  top: "loss"
}
layer {
  name: "accuracy_1"
  type: "Accuracy"
  bottom: "fc5_classes"
  bottom: "label"
  top: "accuracy_1"
  accuracy_param {
    top_k: 1
  }
}
layer {
  name: "accuracy_5"
  type: "Accuracy"
  bottom: "fc5_classes"
  bottom: "label"
  top: "accuracy_5"
  accuracy_param {
    top_k: 5
  }
}
layer {
  name: "silence"
  type: "Silence"
  bottom: "accuracy_1"
  bottom: "accuracy_5"
}
I0527 19:15:25.660775 24486 layer_factory.hpp:77] Creating layer data
I0527 19:15:25.661626 24486 net.cpp:100] Creating Layer data
I0527 19:15:25.661640 24486 net.cpp:408] data -> data
I0527 19:15:25.661707 24486 net.cpp:408] data -> label
I0527 19:15:25.666774 24521 db_lmdb.cpp:35] Opened lmdb ../local_data/lmdb/RTSD/orig/train/lmdb
I0527 19:15:25.684731 24486 data_layer.cpp:41] output data size: 1024,3,48,48
I0527 19:15:25.734385 24486 net.cpp:150] Setting up data
I0527 19:15:25.734436 24486 net.cpp:157] Top shape: 1024 3 48 48 (7077888)
I0527 19:15:25.734443 24486 net.cpp:157] Top shape: 1024 (1024)
I0527 19:15:25.734447 24486 net.cpp:165] Memory required for data: 28315648
I0527 19:15:25.734457 24486 layer_factory.hpp:77] Creating layer label_data_1_split
I0527 19:15:25.734468 24486 net.cpp:100] Creating Layer label_data_1_split
I0527 19:15:25.734475 24486 net.cpp:434] label_data_1_split <- label
I0527 19:15:25.734488 24486 net.cpp:408] label_data_1_split -> label_data_1_split_0
I0527 19:15:25.734498 24486 net.cpp:408] label_data_1_split -> label_data_1_split_1
I0527 19:15:25.734503 24486 net.cpp:408] label_data_1_split -> label_data_1_split_2
I0527 19:15:25.734550 24486 net.cpp:150] Setting up label_data_1_split
I0527 19:15:25.734560 24486 net.cpp:157] Top shape: 1024 (1024)
I0527 19:15:25.734565 24486 net.cpp:157] Top shape: 1024 (1024)
I0527 19:15:25.734570 24486 net.cpp:157] Top shape: 1024 (1024)
I0527 19:15:25.734573 24486 net.cpp:165] Memory required for data: 28327936
I0527 19:15:25.734577 24486 layer_factory.hpp:77] Creating layer conv1
I0527 19:15:25.734591 24486 net.cpp:100] Creating Layer conv1
I0527 19:15:25.734596 24486 net.cpp:434] conv1 <- data
I0527 19:15:25.734601 24486 net.cpp:408] conv1 -> conv1
I0527 19:15:26.043934 24486 net.cpp:150] Setting up conv1
I0527 19:15:26.043977 24486 net.cpp:157] Top shape: 1024 100 42 42 (180633600)
I0527 19:15:26.043985 24486 net.cpp:165] Memory required for data: 750862336
I0527 19:15:26.044013 24486 layer_factory.hpp:77] Creating layer conv1_relu
I0527 19:15:26.044035 24486 net.cpp:100] Creating Layer conv1_relu
I0527 19:15:26.044047 24486 net.cpp:434] conv1_relu <- conv1
I0527 19:15:26.044055 24486 net.cpp:395] conv1_relu -> conv1 (in-place)
I0527 19:15:26.044287 24486 net.cpp:150] Setting up conv1_relu
I0527 19:15:26.044301 24486 net.cpp:157] Top shape: 1024 100 42 42 (180633600)
I0527 19:15:26.044308 24486 net.cpp:165] Memory required for data: 1473396736
I0527 19:15:26.044313 24486 layer_factory.hpp:77] Creating layer pool1
I0527 19:15:26.044329 24486 net.cpp:100] Creating Layer pool1
I0527 19:15:26.044350 24486 net.cpp:434] pool1 <- conv1
I0527 19:15:26.044366 24486 net.cpp:408] pool1 -> pool1
I0527 19:15:26.044431 24486 net.cpp:150] Setting up pool1
I0527 19:15:26.044443 24486 net.cpp:157] Top shape: 1024 100 21 21 (45158400)
I0527 19:15:26.044448 24486 net.cpp:165] Memory required for data: 1654030336
I0527 19:15:26.044453 24486 layer_factory.hpp:77] Creating layer conv2
I0527 19:15:26.044474 24486 net.cpp:100] Creating Layer conv2
I0527 19:15:26.044482 24486 net.cpp:434] conv2 <- pool1
I0527 19:15:26.044489 24486 net.cpp:408] conv2 -> conv2
I0527 19:15:26.049630 24486 net.cpp:150] Setting up conv2
I0527 19:15:26.049657 24486 net.cpp:157] Top shape: 1024 150 18 18 (49766400)
I0527 19:15:26.049664 24486 net.cpp:165] Memory required for data: 1853095936
I0527 19:15:26.049675 24486 layer_factory.hpp:77] Creating layer conv2_relu
I0527 19:15:26.049686 24486 net.cpp:100] Creating Layer conv2_relu
I0527 19:15:26.049690 24486 net.cpp:434] conv2_relu <- conv2
I0527 19:15:26.049697 24486 net.cpp:395] conv2_relu -> conv2 (in-place)
I0527 19:15:26.049823 24486 net.cpp:150] Setting up conv2_relu
I0527 19:15:26.049834 24486 net.cpp:157] Top shape: 1024 150 18 18 (49766400)
I0527 19:15:26.049836 24486 net.cpp:165] Memory required for data: 2052161536
I0527 19:15:26.049841 24486 layer_factory.hpp:77] Creating layer pool2
I0527 19:15:26.049849 24486 net.cpp:100] Creating Layer pool2
I0527 19:15:26.049852 24486 net.cpp:434] pool2 <- conv2
I0527 19:15:26.049857 24486 net.cpp:408] pool2 -> pool2
I0527 19:15:26.049891 24486 net.cpp:150] Setting up pool2
I0527 19:15:26.049901 24486 net.cpp:157] Top shape: 1024 150 9 9 (12441600)
I0527 19:15:26.049904 24486 net.cpp:165] Memory required for data: 2101927936
I0527 19:15:26.049908 24486 layer_factory.hpp:77] Creating layer conv3
I0527 19:15:26.049919 24486 net.cpp:100] Creating Layer conv3
I0527 19:15:26.049922 24486 net.cpp:434] conv3 <- pool2
I0527 19:15:26.049928 24486 net.cpp:408] conv3 -> conv3
I0527 19:15:26.056553 24486 net.cpp:150] Setting up conv3
I0527 19:15:26.056592 24486 net.cpp:157] Top shape: 1024 250 6 6 (9216000)
I0527 19:15:26.056597 24486 net.cpp:165] Memory required for data: 2138791936
I0527 19:15:26.056618 24486 layer_factory.hpp:77] Creating layer conv3_relu
I0527 19:15:26.056634 24486 net.cpp:100] Creating Layer conv3_relu
I0527 19:15:26.056639 24486 net.cpp:434] conv3_relu <- conv3
I0527 19:15:26.056645 24486 net.cpp:395] conv3_relu -> conv3 (in-place)
I0527 19:15:26.057026 24486 net.cpp:150] Setting up conv3_relu
I0527 19:15:26.057049 24486 net.cpp:157] Top shape: 1024 250 6 6 (9216000)
I0527 19:15:26.057052 24486 net.cpp:165] Memory required for data: 2175655936
I0527 19:15:26.057056 24486 layer_factory.hpp:77] Creating layer pool3
I0527 19:15:26.057063 24486 net.cpp:100] Creating Layer pool3
I0527 19:15:26.057067 24486 net.cpp:434] pool3 <- conv3
I0527 19:15:26.057072 24486 net.cpp:408] pool3 -> pool3
I0527 19:15:26.057106 24486 net.cpp:150] Setting up pool3
I0527 19:15:26.057114 24486 net.cpp:157] Top shape: 1024 250 3 3 (2304000)
I0527 19:15:26.057117 24486 net.cpp:165] Memory required for data: 2184871936
I0527 19:15:26.057121 24486 layer_factory.hpp:77] Creating layer fc4_300
I0527 19:15:26.057128 24486 net.cpp:100] Creating Layer fc4_300
I0527 19:15:26.057132 24486 net.cpp:434] fc4_300 <- pool3
I0527 19:15:26.057137 24486 net.cpp:408] fc4_300 -> fc4_300
I0527 19:15:26.061538 24486 net.cpp:150] Setting up fc4_300
I0527 19:15:26.061560 24486 net.cpp:157] Top shape: 1024 300 (307200)
I0527 19:15:26.061565 24486 net.cpp:165] Memory required for data: 2186100736
I0527 19:15:26.061581 24486 layer_factory.hpp:77] Creating layer fc4_relu
I0527 19:15:26.061588 24486 net.cpp:100] Creating Layer fc4_relu
I0527 19:15:26.061591 24486 net.cpp:434] fc4_relu <- fc4_300
I0527 19:15:26.061597 24486 net.cpp:395] fc4_relu -> fc4_300 (in-place)
I0527 19:15:26.061738 24486 net.cpp:150] Setting up fc4_relu
I0527 19:15:26.061746 24486 net.cpp:157] Top shape: 1024 300 (307200)
I0527 19:15:26.061750 24486 net.cpp:165] Memory required for data: 2187329536
I0527 19:15:26.061754 24486 layer_factory.hpp:77] Creating layer fc5_116
I0527 19:15:26.061760 24486 net.cpp:100] Creating Layer fc5_116
I0527 19:15:26.061764 24486 net.cpp:434] fc5_116 <- fc4_300
I0527 19:15:26.061769 24486 net.cpp:408] fc5_116 -> fc5_classes
I0527 19:15:26.064188 24486 net.cpp:150] Setting up fc5_116
I0527 19:15:26.064221 24486 net.cpp:157] Top shape: 1024 116 (118784)
I0527 19:15:26.064225 24486 net.cpp:165] Memory required for data: 2187804672
I0527 19:15:26.064244 24486 layer_factory.hpp:77] Creating layer fc5_classes_fc5_116_0_split
I0527 19:15:26.064260 24486 net.cpp:100] Creating Layer fc5_classes_fc5_116_0_split
I0527 19:15:26.064265 24486 net.cpp:434] fc5_classes_fc5_116_0_split <- fc5_classes
I0527 19:15:26.064271 24486 net.cpp:408] fc5_classes_fc5_116_0_split -> fc5_classes_fc5_116_0_split_0
I0527 19:15:26.064286 24486 net.cpp:408] fc5_classes_fc5_116_0_split -> fc5_classes_fc5_116_0_split_1
I0527 19:15:26.064292 24486 net.cpp:408] fc5_classes_fc5_116_0_split -> fc5_classes_fc5_116_0_split_2
I0527 19:15:26.064327 24486 net.cpp:150] Setting up fc5_classes_fc5_116_0_split
I0527 19:15:26.064333 24486 net.cpp:157] Top shape: 1024 116 (118784)
I0527 19:15:26.064338 24486 net.cpp:157] Top shape: 1024 116 (118784)
I0527 19:15:26.064342 24486 net.cpp:157] Top shape: 1024 116 (118784)
I0527 19:15:26.064345 24486 net.cpp:165] Memory required for data: 2189230080
I0527 19:15:26.064349 24486 layer_factory.hpp:77] Creating layer softmax
I0527 19:15:26.064354 24486 net.cpp:100] Creating Layer softmax
I0527 19:15:26.064358 24486 net.cpp:434] softmax <- fc5_classes_fc5_116_0_split_0
I0527 19:15:26.064363 24486 net.cpp:408] softmax -> softmax
I0527 19:15:26.064561 24486 net.cpp:150] Setting up softmax
I0527 19:15:26.064573 24486 net.cpp:157] Top shape: 1024 116 (118784)
I0527 19:15:26.064575 24486 net.cpp:165] Memory required for data: 2189705216
I0527 19:15:26.064579 24486 layer_factory.hpp:77] Creating layer loss
I0527 19:15:26.064602 24486 net.cpp:100] Creating Layer loss
I0527 19:15:26.064621 24486 net.cpp:434] loss <- softmax
I0527 19:15:26.064626 24486 net.cpp:434] loss <- label_data_1_split_0
I0527 19:15:26.064631 24486 net.cpp:408] loss -> loss
…
