…
I0412 07:10:44.065886 21252 solver.cpp:93] Creating training net from train_net file: ./Prototxt/experiment_10/rtsd-r1/AHE/trial_4/train.prototxt
I0412 07:10:44.066313 21252 net.cpp:58] Initializing net from parameters: 
state {
  phase: TRAIN
  level: 0
  stage: ""
}
layer {
  name: "data"
  type: "Data"
  top: "data"
  top: "label"
  include {
    phase: TRAIN
  }
  transform_param {
    scale: 0.0039215689
    mirror: false
    crop_size: 48
    mean_value: 132
    mean_value: 126
    mean_value: 140
  }
  data_param {
    source: "../local_data/lmdb/rtsd-r1/AHE/train/lmdb"
    batch_size: 1024
    backend: LMDB
  }
}
layer {
  name: "conv1"
  type: "Convolution"
  bottom: "data"
  top: "conv1"
  convolution_param {
    num_output: 100
    pad: 0
    kernel_size: 7
    group: 1
    stride: 1
    weight_filler {
      type: "xavier"
    }
  }
}
layer {
  name: "conv1_relu"
  type: "ReLU"
  bottom: "conv1"
  top: "conv1"
}
layer {
  name: "pool1"
  type: "Pooling"
  bottom: "conv1"
  top: "pool1"
  pooling_param {
    pool: MAX
    kernel_size: 2
    stride: 2
  }
}
layer {
  name: "conv2"
  type: "Convolution"
  bottom: "pool1"
  top: "conv2"
  convolution_param {
    num_output: 150
    pad: 0
    kernel_size: 4
    group: 1
    stride: 1
    weight_filler {
      type: "xavier"
    }
  }
}
layer {
  name: "conv2_relu"
  type: "ReLU"
  bottom: "conv2"
  top: "conv2"
}
layer {
  name: "pool2"
  type: "Pooling"
  bottom: "conv2"
  top: "pool2"
  pooling_param {
    pool: MAX
    kernel_size: 2
    stride: 2
  }
}
layer {
  name: "conv3"
  type: "Convolution"
  bottom: "pool2"
  top: "conv3"
  convolution_param {
    num_output: 250
    pad: 0
    kernel_size: 4
    group: 1
    stride: 1
    weight_filler {
      type: "xavier"
    }
  }
}
layer {
  name: "conv3_relu"
  type: "ReLU"
  bottom: "conv3"
  top: "conv3"
}
layer {
  name: "pool3"
  type: "Pooling"
  bottom: "conv3"
  top: "pool3"
  pooling_param {
    pool: MAX
    kernel_size: 2
    stride: 2
  }
}
layer {
  name: "fc4_300"
  type: "InnerProduct"
  bottom: "pool3"
  top: "fc4_300"
  inner_product_param {
    num_output: 300
    weight_filler {
      type: "xavier"
    }
  }
}
layer {
  name: "fc4_relu"
  type: "ReLU"
  bottom: "fc4_300"
  top: "fc4_300"
}
layer {
  name: "drop4"
  type: "Dropout"
  bottom: "fc4_300"
  top: "fc4_300"
  dropout_param {
    dropout_ratio: 0.4
  }
}
layer {
  name: "fc5_67"
  type: "InnerProduct"
  bottom: "fc4_300"
  top: "fc5_classes"
  inner_product_param {
    num_output: 67
    weight_filler {
      type: "xavier"
    }
  }
}
layer {
  name: "softmax"
  type: "Softmax"
  bottom: "fc5_classes"
  top: "softmax"
}
layer {
  name: "loss"
  type: "MultinomialLogisticLoss"
  bottom: "softmax"
  bottom: "label"
  top: "loss"
}
layer {
  name: "accuracy_1"
  type: "Accuracy"
  bottom: "fc5_classes"
  bottom: "label"
  top: "accuracy_1"
  accuracy_param {
    top_k: 1
  }
}
layer {
  name: "accuracy_5"
  type: "Accuracy"
  bottom: "fc5_classes"
  bottom: "label"
  top: "accuracy_5"
  accuracy_param {
    top_k: 5
  }
}
I0412 07:10:44.066464 21252 layer_factory.hpp:77] Creating layer data
I0412 07:10:44.067863 21252 net.cpp:100] Creating Layer data
I0412 07:10:44.067891 21252 net.cpp:408] data -> data
I0412 07:10:44.067919 21252 net.cpp:408] data -> label
I0412 07:10:44.073899 21362 db_lmdb.cpp:35] Opened lmdb ../local_data/lmdb/rtsd-r1/AHE/train/lmdb
I0412 07:10:44.095149 21252 data_layer.cpp:41] output data size: 1024,3,48,48
I0412 07:10:44.159773 21252 net.cpp:150] Setting up data
I0412 07:10:44.159803 21252 net.cpp:157] Top shape: 1024 3 48 48 (7077888)
I0412 07:10:44.159809 21252 net.cpp:157] Top shape: 1024 (1024)
I0412 07:10:44.159812 21252 net.cpp:165] Memory required for data: 28315648
I0412 07:10:44.159824 21252 layer_factory.hpp:77] Creating layer label_data_1_split
I0412 07:10:44.159840 21252 net.cpp:100] Creating Layer label_data_1_split
I0412 07:10:44.159847 21252 net.cpp:434] label_data_1_split <- label
I0412 07:10:44.159860 21252 net.cpp:408] label_data_1_split -> label_data_1_split_0
I0412 07:10:44.159875 21252 net.cpp:408] label_data_1_split -> label_data_1_split_1
I0412 07:10:44.159905 21252 net.cpp:408] label_data_1_split -> label_data_1_split_2
I0412 07:10:44.160003 21252 net.cpp:150] Setting up label_data_1_split
I0412 07:10:44.160014 21252 net.cpp:157] Top shape: 1024 (1024)
I0412 07:10:44.160018 21252 net.cpp:157] Top shape: 1024 (1024)
I0412 07:10:44.160022 21252 net.cpp:157] Top shape: 1024 (1024)
I0412 07:10:44.160025 21252 net.cpp:165] Memory required for data: 28327936
I0412 07:10:44.160029 21252 layer_factory.hpp:77] Creating layer conv1
I0412 07:10:44.160046 21252 net.cpp:100] Creating Layer conv1
I0412 07:10:44.160053 21252 net.cpp:434] conv1 <- data
I0412 07:10:44.160059 21252 net.cpp:408] conv1 -> conv1
I0412 07:10:44.464640 21252 net.cpp:150] Setting up conv1
I0412 07:10:44.464668 21252 net.cpp:157] Top shape: 1024 100 42 42 (180633600)
I0412 07:10:44.464673 21252 net.cpp:165] Memory required for data: 750862336
I0412 07:10:44.464694 21252 layer_factory.hpp:77] Creating layer conv1_relu
I0412 07:10:44.464705 21252 net.cpp:100] Creating Layer conv1_relu
I0412 07:10:44.464710 21252 net.cpp:434] conv1_relu <- conv1
I0412 07:10:44.464715 21252 net.cpp:395] conv1_relu -> conv1 (in-place)
I0412 07:10:44.464905 21252 net.cpp:150] Setting up conv1_relu
I0412 07:10:44.464916 21252 net.cpp:157] Top shape: 1024 100 42 42 (180633600)
I0412 07:10:44.464920 21252 net.cpp:165] Memory required for data: 1473396736
I0412 07:10:44.464923 21252 layer_factory.hpp:77] Creating layer pool1
I0412 07:10:44.464932 21252 net.cpp:100] Creating Layer pool1
I0412 07:10:44.464936 21252 net.cpp:434] pool1 <- conv1
I0412 07:10:44.464941 21252 net.cpp:408] pool1 -> pool1
I0412 07:10:44.464995 21252 net.cpp:150] Setting up pool1
I0412 07:10:44.465003 21252 net.cpp:157] Top shape: 1024 100 21 21 (45158400)
I0412 07:10:44.465006 21252 net.cpp:165] Memory required for data: 1654030336
I0412 07:10:44.465009 21252 layer_factory.hpp:77] Creating layer conv2
I0412 07:10:44.465020 21252 net.cpp:100] Creating Layer conv2
I0412 07:10:44.465024 21252 net.cpp:434] conv2 <- pool1
I0412 07:10:44.465030 21252 net.cpp:408] conv2 -> conv2
I0412 07:10:44.471695 21252 net.cpp:150] Setting up conv2
I0412 07:10:44.471715 21252 net.cpp:157] Top shape: 1024 150 18 18 (49766400)
I0412 07:10:44.471719 21252 net.cpp:165] Memory required for data: 1853095936
I0412 07:10:44.471729 21252 layer_factory.hpp:77] Creating layer conv2_relu
I0412 07:10:44.471736 21252 net.cpp:100] Creating Layer conv2_relu
I0412 07:10:44.471740 21252 net.cpp:434] conv2_relu <- conv2
I0412 07:10:44.471746 21252 net.cpp:395] conv2_relu -> conv2 (in-place)
I0412 07:10:44.472748 21252 net.cpp:150] Setting up conv2_relu
I0412 07:10:44.472764 21252 net.cpp:157] Top shape: 1024 150 18 18 (49766400)
I0412 07:10:44.472767 21252 net.cpp:165] Memory required for data: 2052161536
I0412 07:10:44.472771 21252 layer_factory.hpp:77] Creating layer pool2
I0412 07:10:44.472777 21252 net.cpp:100] Creating Layer pool2
I0412 07:10:44.472781 21252 net.cpp:434] pool2 <- conv2
I0412 07:10:44.472789 21252 net.cpp:408] pool2 -> pool2
I0412 07:10:44.472843 21252 net.cpp:150] Setting up pool2
I0412 07:10:44.472853 21252 net.cpp:157] Top shape: 1024 150 9 9 (12441600)
I0412 07:10:44.472856 21252 net.cpp:165] Memory required for data: 2101927936
I0412 07:10:44.472858 21252 layer_factory.hpp:77] Creating layer conv3
I0412 07:10:44.472869 21252 net.cpp:100] Creating Layer conv3
I0412 07:10:44.472874 21252 net.cpp:434] conv3 <- pool2
I0412 07:10:44.472900 21252 net.cpp:408] conv3 -> conv3
I0412 07:10:44.478760 21252 net.cpp:150] Setting up conv3
I0412 07:10:44.478780 21252 net.cpp:157] Top shape: 1024 250 6 6 (9216000)
I0412 07:10:44.478785 21252 net.cpp:165] Memory required for data: 2138791936
I0412 07:10:44.478795 21252 layer_factory.hpp:77] Creating layer conv3_relu
I0412 07:10:44.478801 21252 net.cpp:100] Creating Layer conv3_relu
I0412 07:10:44.478804 21252 net.cpp:434] conv3_relu <- conv3
I0412 07:10:44.478809 21252 net.cpp:395] conv3_relu -> conv3 (in-place)
I0412 07:10:44.480284 21252 net.cpp:150] Setting up conv3_relu
I0412 07:10:44.480299 21252 net.cpp:157] Top shape: 1024 250 6 6 (9216000)
I0412 07:10:44.480304 21252 net.cpp:165] Memory required for data: 2175655936
I0412 07:10:44.480306 21252 layer_factory.hpp:77] Creating layer pool3
I0412 07:10:44.480314 21252 net.cpp:100] Creating Layer pool3
I0412 07:10:44.480316 21252 net.cpp:434] pool3 <- conv3
I0412 07:10:44.480324 21252 net.cpp:408] pool3 -> pool3
I0412 07:10:44.480372 21252 net.cpp:150] Setting up pool3
I0412 07:10:44.480382 21252 net.cpp:157] Top shape: 1024 250 3 3 (2304000)
I0412 07:10:44.480386 21252 net.cpp:165] Memory required for data: 2184871936
I0412 07:10:44.480388 21252 layer_factory.hpp:77] Creating layer fc4_300
I0412 07:10:44.480401 21252 net.cpp:100] Creating Layer fc4_300
I0412 07:10:44.480404 21252 net.cpp:434] fc4_300 <- pool3
I0412 07:10:44.480409 21252 net.cpp:408] fc4_300 -> fc4_300
I0412 07:10:44.485944 21252 net.cpp:150] Setting up fc4_300
I0412 07:10:44.485962 21252 net.cpp:157] Top shape: 1024 300 (307200)
I0412 07:10:44.485966 21252 net.cpp:165] Memory required for data: 2186100736
I0412 07:10:44.485972 21252 layer_factory.hpp:77] Creating layer fc4_relu
I0412 07:10:44.485980 21252 net.cpp:100] Creating Layer fc4_relu
I0412 07:10:44.485983 21252 net.cpp:434] fc4_relu <- fc4_300
I0412 07:10:44.485988 21252 net.cpp:395] fc4_relu -> fc4_300 (in-place)
I0412 07:10:44.486182 21252 net.cpp:150] Setting up fc4_relu
I0412 07:10:44.486194 21252 net.cpp:157] Top shape: 1024 300 (307200)
I0412 07:10:44.486197 21252 net.cpp:165] Memory required for data: 2187329536
I0412 07:10:44.486202 21252 layer_factory.hpp:77] Creating layer drop4
I0412 07:10:44.486208 21252 net.cpp:100] Creating Layer drop4
I0412 07:10:44.486212 21252 net.cpp:434] drop4 <- fc4_300
I0412 07:10:44.486217 21252 net.cpp:395] drop4 -> fc4_300 (in-place)
I0412 07:10:44.486248 21252 net.cpp:150] Setting up drop4
I0412 07:10:44.486256 21252 net.cpp:157] Top shape: 1024 300 (307200)
I0412 07:10:44.486259 21252 net.cpp:165] Memory required for data: 2188558336
I0412 07:10:44.486263 21252 layer_factory.hpp:77] Creating layer fc5_67
I0412 07:10:44.486269 21252 net.cpp:100] Creating Layer fc5_67
I0412 07:10:44.486273 21252 net.cpp:434] fc5_67 <- fc4_300
I0412 07:10:44.486277 21252 net.cpp:408] fc5_67 -> fc5_classes
I0412 07:10:44.488696 21252 net.cpp:150] Setting up fc5_67
I0412 07:10:44.488711 21252 net.cpp:157] Top shape: 1024 67 (68608)
I0412 07:10:44.488726 21252 net.cpp:165] Memory required for data: 2188832768
I0412 07:10:44.488737 21252 layer_factory.hpp:77] Creating layer fc5_classes_fc5_67_0_split
I0412 07:10:44.488745 21252 net.cpp:100] Creating Layer fc5_classes_fc5_67_0_split
I0412 07:10:44.488749 21252 net.cpp:434] fc5_classes_fc5_67_0_split <- fc5_classes
I0412 07:10:44.488754 21252 net.cpp:408] fc5_classes_fc5_67_0_split -> fc5_classes_fc5_67_0_split_0
I0412 07:10:44.488761 21252 net.cpp:408] fc5_classes_fc5_67_0_split -> fc5_classes_fc5_67_0_split_1
I0412 07:10:44.488770 21252 net.cpp:408] fc5_classes_fc5_67_0_split -> fc5_classes_fc5_67_0_split_2
I0412 07:10:44.488824 21252 net.cpp:150] Setting up fc5_classes_fc5_67_0_split
I0412 07:10:44.488831 21252 net.cpp:157] Top shape: 1024 67 (68608)
I0412 07:10:44.488836 21252 net.cpp:157] Top shape: 1024 67 (68608)
I0412 07:10:44.488839 21252 net.cpp:157] Top shape: 1024 67 (68608)
I0412 07:10:44.488842 21252 net.cpp:165] Memory required for data: 2189656064
I0412 07:10:44.488844 21252 layer_factory.hpp:77] Creating layer softmax
I0412 07:10:44.488853 21252 net.cpp:100] Creating Layer softmax
I0412 07:10:44.488869 21252 net.cpp:434] softmax <- fc5_classes_fc5_67_0_split_0
I0412 07:10:44.488878 21252 net.cpp:408] softmax -> softmax
I0412 07:10:44.489143 21252 net.cpp:150] Setting up softmax
I0412 07:10:44.489156 21252 net.cpp:157] Top shape: 1024 67 (68608)
I0412 07:10:44.489159 21252 net.cpp:165] Memory required for data: 2189930496
I0412 07:10:44.489162 21252 layer_factory.hpp:77] Creating layer loss
I0412 07:10:44.489168 21252 net.cpp:100] Creating Layer loss
I0412 07:10:44.489172 21252 net.cpp:434] loss <- softmax
I0412 07:10:44.489176 21252 net.cpp:434] loss <- label_data_1_split_0
I0412 07:10:44.489182 21252 net.cpp:408] loss -> loss
…
