…
I0414 06:21:21.614667 10683 solver.cpp:93] Creating training net from train_net file: ./Prototxt/experiment_10/rtsd-r1/AHE/trial_4/train.prototxt
I0414 06:21:21.615173 10683 net.cpp:58] Initializing net from parameters: 
state {
  phase: TRAIN
  level: 0
  stage: ""
}
layer {
  name: "data"
  type: "Data"
  top: "data"
  top: "label"
  include {
    phase: TRAIN
  }
  transform_param {
    scale: 0.0039215689
    mirror: false
    crop_size: 48
    mean_value: 132
    mean_value: 126
    mean_value: 140
  }
  data_param {
    source: "../local_data/lmdb/rtsd-r1/AHE/train/lmdb"
    batch_size: 1024
    backend: LMDB
  }
}
layer {
  name: "conv1"
  type: "Convolution"
  bottom: "data"
  top: "conv1"
  convolution_param {
    num_output: 100
    pad: 0
    kernel_size: 7
    group: 1
    stride: 1
    weight_filler {
      type: "xavier"
    }
  }
}
layer {
  name: "conv1_relu"
  type: "ReLU"
  bottom: "conv1"
  top: "conv1"
}
layer {
  name: "pool1"
  type: "Pooling"
  bottom: "conv1"
  top: "pool1"
  pooling_param {
    pool: MAX
    kernel_size: 2
    stride: 2
  }
}
layer {
  name: "conv2"
  type: "Convolution"
  bottom: "pool1"
  top: "conv2"
  convolution_param {
    num_output: 150
    pad: 0
    kernel_size: 4
    group: 1
    stride: 1
    weight_filler {
      type: "xavier"
    }
  }
}
layer {
  name: "conv2_relu"
  type: "ReLU"
  bottom: "conv2"
  top: "conv2"
}
layer {
  name: "pool2"
  type: "Pooling"
  bottom: "conv2"
  top: "pool2"
  pooling_param {
    pool: MAX
    kernel_size: 2
    stride: 2
  }
}
layer {
  name: "conv3"
  type: "Convolution"
  bottom: "pool2"
  top: "conv3"
  convolution_param {
    num_output: 250
    pad: 0
    kernel_size: 4
    group: 1
    stride: 1
    weight_filler {
      type: "xavier"
    }
  }
}
layer {
  name: "conv3_relu"
  type: "ReLU"
  bottom: "conv3"
  top: "conv3"
}
layer {
  name: "pool3"
  type: "Pooling"
  bottom: "conv3"
  top: "pool3"
  pooling_param {
    pool: MAX
    kernel_size: 2
    stride: 2
  }
}
layer {
  name: "fc4_300"
  type: "InnerProduct"
  bottom: "pool3"
  top: "fc4_300"
  inner_product_param {
    num_output: 300
    weight_filler {
      type: "xavier"
    }
  }
}
layer {
  name: "fc4_relu"
  type: "ReLU"
  bottom: "fc4_300"
  top: "fc4_300"
}
layer {
  name: "fc5_67"
  type: "InnerProduct"
  bottom: "fc4_300"
  top: "fc5_classes"
  inner_product_param {
    num_output: 67
    weight_filler {
      type: "xavier"
    }
  }
}
layer {
  name: "softmax"
  type: "Softmax"
  bottom: "fc5_classes"
  top: "softmax"
}
layer {
  name: "loss"
  type: "MultinomialLogisticLoss"
  bottom: "softmax"
  bottom: "label"
  top: "loss"
}
layer {
  name: "accuracy_1"
  type: "Accuracy"
  bottom: "fc5_classes"
  bottom: "label"
  top: "accuracy_1"
  accuracy_param {
    top_k: 1
  }
}
layer {
  name: "accuracy_5"
  type: "Accuracy"
  bottom: "fc5_classes"
  bottom: "label"
  top: "accuracy_5"
  accuracy_param {
    top_k: 5
  }
}
layer {
  name: "silence"
  type: "Silence"
  bottom: "accuracy_1"
  bottom: "accuracy_5"
}
I0414 06:21:21.615360 10683 layer_factory.hpp:77] Creating layer data
I0414 06:21:21.616866 10683 net.cpp:100] Creating Layer data
I0414 06:21:21.616888 10683 net.cpp:408] data -> data
I0414 06:21:21.616912 10683 net.cpp:408] data -> label
I0414 06:21:21.618510 10794 db_lmdb.cpp:35] Opened lmdb ../local_data/lmdb/rtsd-r1/AHE/train/lmdb
I0414 06:21:21.640883 10683 data_layer.cpp:41] output data size: 1024,3,48,48
I0414 06:21:21.709795 10683 net.cpp:150] Setting up data
I0414 06:21:21.709851 10683 net.cpp:157] Top shape: 1024 3 48 48 (7077888)
I0414 06:21:21.709858 10683 net.cpp:157] Top shape: 1024 (1024)
I0414 06:21:21.709861 10683 net.cpp:165] Memory required for data: 28315648
I0414 06:21:21.709873 10683 layer_factory.hpp:77] Creating layer label_data_1_split
I0414 06:21:21.709889 10683 net.cpp:100] Creating Layer label_data_1_split
I0414 06:21:21.709897 10683 net.cpp:434] label_data_1_split <- label
I0414 06:21:21.709910 10683 net.cpp:408] label_data_1_split -> label_data_1_split_0
I0414 06:21:21.709923 10683 net.cpp:408] label_data_1_split -> label_data_1_split_1
I0414 06:21:21.709930 10683 net.cpp:408] label_data_1_split -> label_data_1_split_2
I0414 06:21:21.710001 10683 net.cpp:150] Setting up label_data_1_split
I0414 06:21:21.710011 10683 net.cpp:157] Top shape: 1024 (1024)
I0414 06:21:21.710013 10683 net.cpp:157] Top shape: 1024 (1024)
I0414 06:21:21.710017 10683 net.cpp:157] Top shape: 1024 (1024)
I0414 06:21:21.710021 10683 net.cpp:165] Memory required for data: 28327936
I0414 06:21:21.710023 10683 layer_factory.hpp:77] Creating layer conv1
I0414 06:21:21.710041 10683 net.cpp:100] Creating Layer conv1
I0414 06:21:21.710045 10683 net.cpp:434] conv1 <- data
I0414 06:21:21.710052 10683 net.cpp:408] conv1 -> conv1
I0414 06:21:22.123689 10683 net.cpp:150] Setting up conv1
I0414 06:21:22.123719 10683 net.cpp:157] Top shape: 1024 100 42 42 (180633600)
I0414 06:21:22.123724 10683 net.cpp:165] Memory required for data: 750862336
I0414 06:21:22.123745 10683 layer_factory.hpp:77] Creating layer conv1_relu
I0414 06:21:22.123757 10683 net.cpp:100] Creating Layer conv1_relu
I0414 06:21:22.123761 10683 net.cpp:434] conv1_relu <- conv1
I0414 06:21:22.123769 10683 net.cpp:395] conv1_relu -> conv1 (in-place)
I0414 06:21:22.123996 10683 net.cpp:150] Setting up conv1_relu
I0414 06:21:22.124009 10683 net.cpp:157] Top shape: 1024 100 42 42 (180633600)
I0414 06:21:22.124014 10683 net.cpp:165] Memory required for data: 1473396736
I0414 06:21:22.124018 10683 layer_factory.hpp:77] Creating layer pool1
I0414 06:21:22.124028 10683 net.cpp:100] Creating Layer pool1
I0414 06:21:22.124033 10683 net.cpp:434] pool1 <- conv1
I0414 06:21:22.124039 10683 net.cpp:408] pool1 -> pool1
I0414 06:21:22.124100 10683 net.cpp:150] Setting up pool1
I0414 06:21:22.124109 10683 net.cpp:157] Top shape: 1024 100 21 21 (45158400)
I0414 06:21:22.124114 10683 net.cpp:165] Memory required for data: 1654030336
I0414 06:21:22.124117 10683 layer_factory.hpp:77] Creating layer conv2
I0414 06:21:22.124128 10683 net.cpp:100] Creating Layer conv2
I0414 06:21:22.124133 10683 net.cpp:434] conv2 <- pool1
I0414 06:21:22.124140 10683 net.cpp:408] conv2 -> conv2
I0414 06:21:22.131136 10683 net.cpp:150] Setting up conv2
I0414 06:21:22.131155 10683 net.cpp:157] Top shape: 1024 150 18 18 (49766400)
I0414 06:21:22.131166 10683 net.cpp:165] Memory required for data: 1853095936
I0414 06:21:22.131177 10683 layer_factory.hpp:77] Creating layer conv2_relu
I0414 06:21:22.131186 10683 net.cpp:100] Creating Layer conv2_relu
I0414 06:21:22.131191 10683 net.cpp:434] conv2_relu <- conv2
I0414 06:21:22.131196 10683 net.cpp:395] conv2_relu -> conv2 (in-place)
I0414 06:21:22.140084 10683 net.cpp:150] Setting up conv2_relu
I0414 06:21:22.140101 10683 net.cpp:157] Top shape: 1024 150 18 18 (49766400)
I0414 06:21:22.140105 10683 net.cpp:165] Memory required for data: 2052161536
I0414 06:21:22.140110 10683 layer_factory.hpp:77] Creating layer pool2
I0414 06:21:22.140116 10683 net.cpp:100] Creating Layer pool2
I0414 06:21:22.140120 10683 net.cpp:434] pool2 <- conv2
I0414 06:21:22.140125 10683 net.cpp:408] pool2 -> pool2
I0414 06:21:22.140174 10683 net.cpp:150] Setting up pool2
I0414 06:21:22.140182 10683 net.cpp:157] Top shape: 1024 150 9 9 (12441600)
I0414 06:21:22.140185 10683 net.cpp:165] Memory required for data: 2101927936
I0414 06:21:22.140188 10683 layer_factory.hpp:77] Creating layer conv3
I0414 06:21:22.140198 10683 net.cpp:100] Creating Layer conv3
I0414 06:21:22.140203 10683 net.cpp:434] conv3 <- pool2
I0414 06:21:22.140208 10683 net.cpp:408] conv3 -> conv3
I0414 06:21:22.150100 10683 net.cpp:150] Setting up conv3
I0414 06:21:22.150120 10683 net.cpp:157] Top shape: 1024 250 6 6 (9216000)
I0414 06:21:22.150123 10683 net.cpp:165] Memory required for data: 2138791936
I0414 06:21:22.150133 10683 layer_factory.hpp:77] Creating layer conv3_relu
I0414 06:21:22.150141 10683 net.cpp:100] Creating Layer conv3_relu
I0414 06:21:22.150143 10683 net.cpp:434] conv3_relu <- conv3
I0414 06:21:22.150148 10683 net.cpp:395] conv3_relu -> conv3 (in-place)
I0414 06:21:22.151144 10683 net.cpp:150] Setting up conv3_relu
I0414 06:21:22.151162 10683 net.cpp:157] Top shape: 1024 250 6 6 (9216000)
I0414 06:21:22.151168 10683 net.cpp:165] Memory required for data: 2175655936
I0414 06:21:22.151172 10683 layer_factory.hpp:77] Creating layer pool3
I0414 06:21:22.151180 10683 net.cpp:100] Creating Layer pool3
I0414 06:21:22.151185 10683 net.cpp:434] pool3 <- conv3
I0414 06:21:22.151191 10683 net.cpp:408] pool3 -> pool3
I0414 06:21:22.151247 10683 net.cpp:150] Setting up pool3
I0414 06:21:22.151254 10683 net.cpp:157] Top shape: 1024 250 3 3 (2304000)
I0414 06:21:22.151257 10683 net.cpp:165] Memory required for data: 2184871936
I0414 06:21:22.151260 10683 layer_factory.hpp:77] Creating layer fc4_300
I0414 06:21:22.151268 10683 net.cpp:100] Creating Layer fc4_300
I0414 06:21:22.151273 10683 net.cpp:434] fc4_300 <- pool3
I0414 06:21:22.151278 10683 net.cpp:408] fc4_300 -> fc4_300
I0414 06:21:22.163249 10683 net.cpp:150] Setting up fc4_300
I0414 06:21:22.163281 10683 net.cpp:157] Top shape: 1024 300 (307200)
I0414 06:21:22.163290 10683 net.cpp:165] Memory required for data: 2186100736
I0414 06:21:22.163306 10683 layer_factory.hpp:77] Creating layer fc4_relu
I0414 06:21:22.163321 10683 net.cpp:100] Creating Layer fc4_relu
I0414 06:21:22.163329 10683 net.cpp:434] fc4_relu <- fc4_300
I0414 06:21:22.163341 10683 net.cpp:395] fc4_relu -> fc4_300 (in-place)
I0414 06:21:22.163712 10683 net.cpp:150] Setting up fc4_relu
I0414 06:21:22.163733 10683 net.cpp:157] Top shape: 1024 300 (307200)
I0414 06:21:22.163740 10683 net.cpp:165] Memory required for data: 2187329536
I0414 06:21:22.163749 10683 layer_factory.hpp:77] Creating layer fc5_67
I0414 06:21:22.163763 10683 net.cpp:100] Creating Layer fc5_67
I0414 06:21:22.163771 10683 net.cpp:434] fc5_67 <- fc4_300
I0414 06:21:22.163784 10683 net.cpp:408] fc5_67 -> fc5_classes
I0414 06:21:22.165884 10683 net.cpp:150] Setting up fc5_67
I0414 06:21:22.165910 10683 net.cpp:157] Top shape: 1024 67 (68608)
I0414 06:21:22.165918 10683 net.cpp:165] Memory required for data: 2187603968
I0414 06:21:22.165937 10683 layer_factory.hpp:77] Creating layer fc5_classes_fc5_67_0_split
I0414 06:21:22.165951 10683 net.cpp:100] Creating Layer fc5_classes_fc5_67_0_split
I0414 06:21:22.165961 10683 net.cpp:434] fc5_classes_fc5_67_0_split <- fc5_classes
I0414 06:21:22.165972 10683 net.cpp:408] fc5_classes_fc5_67_0_split -> fc5_classes_fc5_67_0_split_0
I0414 06:21:22.165988 10683 net.cpp:408] fc5_classes_fc5_67_0_split -> fc5_classes_fc5_67_0_split_1
I0414 06:21:22.166002 10683 net.cpp:408] fc5_classes_fc5_67_0_split -> fc5_classes_fc5_67_0_split_2
I0414 06:21:22.166093 10683 net.cpp:150] Setting up fc5_classes_fc5_67_0_split
I0414 06:21:22.166105 10683 net.cpp:157] Top shape: 1024 67 (68608)
I0414 06:21:22.166115 10683 net.cpp:157] Top shape: 1024 67 (68608)
I0414 06:21:22.166121 10683 net.cpp:157] Top shape: 1024 67 (68608)
I0414 06:21:22.166128 10683 net.cpp:165] Memory required for data: 2188427264
I0414 06:21:22.166133 10683 layer_factory.hpp:77] Creating layer softmax
I0414 06:21:22.166144 10683 net.cpp:100] Creating Layer softmax
I0414 06:21:22.166152 10683 net.cpp:434] softmax <- fc5_classes_fc5_67_0_split_0
I0414 06:21:22.166162 10683 net.cpp:408] softmax -> softmax
I0414 06:21:22.166617 10683 net.cpp:150] Setting up softmax
I0414 06:21:22.166638 10683 net.cpp:157] Top shape: 1024 67 (68608)
I0414 06:21:22.166646 10683 net.cpp:165] Memory required for data: 2188701696
I0414 06:21:22.166651 10683 layer_factory.hpp:77] Creating layer loss
I0414 06:21:22.166668 10683 net.cpp:100] Creating Layer loss
I0414 06:21:22.166705 10683 net.cpp:434] loss <- softmax
I0414 06:21:22.166718 10683 net.cpp:434] loss <- label_data_1_split_0
I0414 06:21:22.166729 10683 net.cpp:408] loss -> loss
…
