…
I0415 20:09:16.065562 31074 solver.cpp:93] Creating training net from train_net file: ./Prototxt/experiment_12/rtsd-r3/histeq/trial_4/train.prototxt
I0415 20:09:16.084064 31074 net.cpp:58] Initializing net from parameters: 
state {
  phase: TRAIN
  level: 0
  stage: ""
}
layer {
  name: "data"
  type: "Data"
  top: "data"
  top: "label"
  include {
    phase: TRAIN
  }
  transform_param {
    scale: 0.0039215689
    mirror: false
    crop_size: 48
    mean_value: 135
    mean_value: 128
    mean_value: 128
  }
  data_param {
    source: "../local_data/lmdb/rtsd-r3/histeq/train/lmdb"
    batch_size: 1024
    backend: LMDB
  }
}
layer {
  name: "conv1"
  type: "Convolution"
  bottom: "data"
  top: "conv1"
  convolution_param {
    num_output: 100
    pad: 0
    kernel_size: 7
    group: 1
    stride: 1
    weight_filler {
      type: "xavier"
    }
  }
}
layer {
  name: "conv1_relu"
  type: "ReLU"
  bottom: "conv1"
  top: "conv1"
}
layer {
  name: "pool1"
  type: "Pooling"
  bottom: "conv1"
  top: "pool1"
  pooling_param {
    pool: MAX
    kernel_size: 2
    stride: 2
  }
}
layer {
  name: "conv2"
  type: "Convolution"
  bottom: "pool1"
  top: "conv2"
  convolution_param {
    num_output: 150
    pad: 0
    kernel_size: 4
    group: 1
    stride: 1
    weight_filler {
      type: "xavier"
    }
  }
}
layer {
  name: "conv2_relu"
  type: "ReLU"
  bottom: "conv2"
  top: "conv2"
}
layer {
  name: "pool2"
  type: "Pooling"
  bottom: "conv2"
  top: "pool2"
  pooling_param {
    pool: MAX
    kernel_size: 2
    stride: 2
  }
}
layer {
  name: "conv3"
  type: "Convolution"
  bottom: "pool2"
  top: "conv3"
  convolution_param {
    num_output: 250
    pad: 0
    kernel_size: 4
    group: 1
    stride: 1
    weight_filler {
      type: "xavier"
    }
  }
}
layer {
  name: "conv3_relu"
  type: "ReLU"
  bottom: "conv3"
  top: "conv3"
}
layer {
  name: "pool3"
  type: "Pooling"
  bottom: "conv3"
  top: "pool3"
  pooling_param {
    pool: MAX
    kernel_size: 2
    stride: 2
  }
}
layer {
  name: "fc4_300"
  type: "InnerProduct"
  bottom: "pool3"
  top: "fc4_300"
  inner_product_param {
    num_output: 300
    weight_filler {
      type: "xavier"
    }
  }
}
layer {
  name: "fc4_relu"
  type: "ReLU"
  bottom: "fc4_300"
  top: "fc4_300"
}
layer {
  name: "drop4"
  type: "Dropout"
  bottom: "fc4_300"
  top: "fc4_300"
  dropout_param {
    dropout_ratio: 0.5
  }
}
layer {
  name: "fc5_106"
  type: "InnerProduct"
  bottom: "fc4_300"
  top: "fc5_classes"
  inner_product_param {
    num_output: 106
    weight_filler {
      type: "xavier"
    }
  }
}
layer {
  name: "softmax"
  type: "Softmax"
  bottom: "fc5_classes"
  top: "softmax"
}
layer {
  name: "loss"
  type: "MultinomialLogisticLoss"
  bottom: "softmax"
  bottom: "label"
  top: "loss"
}
layer {
  name: "accuracy_1"
  type: "Accuracy"
  bottom: "fc5_classes"
  bottom: "label"
  top: "accuracy_1"
  accuracy_param {
    top_k: 1
  }
}
layer {
  name: "accuracy_5"
  type: "Accuracy"
  bottom: "fc5_classes"
  bottom: "label"
  top: "accuracy_5"
  accuracy_param {
    top_k: 5
  }
}
layer {
  name: "silence"
  type: "Silence"
  bottom: "accuracy_1"
  bottom: "accuracy_5"
}
I0415 20:09:16.084241 31074 layer_factory.hpp:77] Creating layer data
I0415 20:09:16.085456 31074 net.cpp:100] Creating Layer data
I0415 20:09:16.085474 31074 net.cpp:408] data -> data
I0415 20:09:16.085507 31074 net.cpp:408] data -> label
I0415 20:09:16.089747 31172 db_lmdb.cpp:35] Opened lmdb ../local_data/lmdb/rtsd-r3/histeq/train/lmdb
I0415 20:09:16.112514 31074 data_layer.cpp:41] output data size: 1024,3,48,48
I0415 20:09:16.167353 31074 net.cpp:150] Setting up data
I0415 20:09:16.167387 31074 net.cpp:157] Top shape: 1024 3 48 48 (7077888)
I0415 20:09:16.167393 31074 net.cpp:157] Top shape: 1024 (1024)
I0415 20:09:16.167397 31074 net.cpp:165] Memory required for data: 28315648
I0415 20:09:16.167409 31074 layer_factory.hpp:77] Creating layer label_data_1_split
I0415 20:09:16.167425 31074 net.cpp:100] Creating Layer label_data_1_split
I0415 20:09:16.167433 31074 net.cpp:434] label_data_1_split <- label
I0415 20:09:16.167448 31074 net.cpp:408] label_data_1_split -> label_data_1_split_0
I0415 20:09:16.167461 31074 net.cpp:408] label_data_1_split -> label_data_1_split_1
I0415 20:09:16.167471 31074 net.cpp:408] label_data_1_split -> label_data_1_split_2
I0415 20:09:16.167568 31074 net.cpp:150] Setting up label_data_1_split
I0415 20:09:16.167578 31074 net.cpp:157] Top shape: 1024 (1024)
I0415 20:09:16.167585 31074 net.cpp:157] Top shape: 1024 (1024)
I0415 20:09:16.167590 31074 net.cpp:157] Top shape: 1024 (1024)
I0415 20:09:16.167593 31074 net.cpp:165] Memory required for data: 28327936
I0415 20:09:16.167598 31074 layer_factory.hpp:77] Creating layer conv1
I0415 20:09:16.167616 31074 net.cpp:100] Creating Layer conv1
I0415 20:09:16.167621 31074 net.cpp:434] conv1 <- data
I0415 20:09:16.167629 31074 net.cpp:408] conv1 -> conv1
I0415 20:09:16.516410 31074 net.cpp:150] Setting up conv1
I0415 20:09:16.516438 31074 net.cpp:157] Top shape: 1024 100 42 42 (180633600)
I0415 20:09:16.516441 31074 net.cpp:165] Memory required for data: 750862336
I0415 20:09:16.516463 31074 layer_factory.hpp:77] Creating layer conv1_relu
I0415 20:09:16.516475 31074 net.cpp:100] Creating Layer conv1_relu
I0415 20:09:16.516481 31074 net.cpp:434] conv1_relu <- conv1
I0415 20:09:16.516487 31074 net.cpp:395] conv1_relu -> conv1 (in-place)
I0415 20:09:16.516679 31074 net.cpp:150] Setting up conv1_relu
I0415 20:09:16.516692 31074 net.cpp:157] Top shape: 1024 100 42 42 (180633600)
I0415 20:09:16.516696 31074 net.cpp:165] Memory required for data: 1473396736
I0415 20:09:16.516700 31074 layer_factory.hpp:77] Creating layer pool1
I0415 20:09:16.516711 31074 net.cpp:100] Creating Layer pool1
I0415 20:09:16.516716 31074 net.cpp:434] pool1 <- conv1
I0415 20:09:16.516721 31074 net.cpp:408] pool1 -> pool1
I0415 20:09:16.516773 31074 net.cpp:150] Setting up pool1
I0415 20:09:16.516782 31074 net.cpp:157] Top shape: 1024 100 21 21 (45158400)
I0415 20:09:16.516785 31074 net.cpp:165] Memory required for data: 1654030336
I0415 20:09:16.516788 31074 layer_factory.hpp:77] Creating layer conv2
I0415 20:09:16.516799 31074 net.cpp:100] Creating Layer conv2
I0415 20:09:16.516804 31074 net.cpp:434] conv2 <- pool1
I0415 20:09:16.516809 31074 net.cpp:408] conv2 -> conv2
I0415 20:09:16.524410 31074 net.cpp:150] Setting up conv2
I0415 20:09:16.524435 31074 net.cpp:157] Top shape: 1024 150 18 18 (49766400)
I0415 20:09:16.524438 31074 net.cpp:165] Memory required for data: 1853095936
I0415 20:09:16.524451 31074 layer_factory.hpp:77] Creating layer conv2_relu
I0415 20:09:16.524457 31074 net.cpp:100] Creating Layer conv2_relu
I0415 20:09:16.524461 31074 net.cpp:434] conv2_relu <- conv2
I0415 20:09:16.524467 31074 net.cpp:395] conv2_relu -> conv2 (in-place)
I0415 20:09:16.525300 31074 net.cpp:150] Setting up conv2_relu
I0415 20:09:16.525315 31074 net.cpp:157] Top shape: 1024 150 18 18 (49766400)
I0415 20:09:16.525318 31074 net.cpp:165] Memory required for data: 2052161536
I0415 20:09:16.525322 31074 layer_factory.hpp:77] Creating layer pool2
I0415 20:09:16.525329 31074 net.cpp:100] Creating Layer pool2
I0415 20:09:16.525333 31074 net.cpp:434] pool2 <- conv2
I0415 20:09:16.525338 31074 net.cpp:408] pool2 -> pool2
I0415 20:09:16.525387 31074 net.cpp:150] Setting up pool2
I0415 20:09:16.525395 31074 net.cpp:157] Top shape: 1024 150 9 9 (12441600)
I0415 20:09:16.525399 31074 net.cpp:165] Memory required for data: 2101927936
I0415 20:09:16.525401 31074 layer_factory.hpp:77] Creating layer conv3
I0415 20:09:16.525437 31074 net.cpp:100] Creating Layer conv3
I0415 20:09:16.525441 31074 net.cpp:434] conv3 <- pool2
I0415 20:09:16.525447 31074 net.cpp:408] conv3 -> conv3
I0415 20:09:16.531126 31074 net.cpp:150] Setting up conv3
I0415 20:09:16.531148 31074 net.cpp:157] Top shape: 1024 250 6 6 (9216000)
I0415 20:09:16.531152 31074 net.cpp:165] Memory required for data: 2138791936
I0415 20:09:16.531164 31074 layer_factory.hpp:77] Creating layer conv3_relu
I0415 20:09:16.531172 31074 net.cpp:100] Creating Layer conv3_relu
I0415 20:09:16.531177 31074 net.cpp:434] conv3_relu <- conv3
I0415 20:09:16.531183 31074 net.cpp:395] conv3_relu -> conv3 (in-place)
I0415 20:09:16.532191 31074 net.cpp:150] Setting up conv3_relu
I0415 20:09:16.532207 31074 net.cpp:157] Top shape: 1024 250 6 6 (9216000)
I0415 20:09:16.532210 31074 net.cpp:165] Memory required for data: 2175655936
I0415 20:09:16.532214 31074 layer_factory.hpp:77] Creating layer pool3
I0415 20:09:16.532220 31074 net.cpp:100] Creating Layer pool3
I0415 20:09:16.532224 31074 net.cpp:434] pool3 <- conv3
I0415 20:09:16.532232 31074 net.cpp:408] pool3 -> pool3
I0415 20:09:16.532280 31074 net.cpp:150] Setting up pool3
I0415 20:09:16.532289 31074 net.cpp:157] Top shape: 1024 250 3 3 (2304000)
I0415 20:09:16.532291 31074 net.cpp:165] Memory required for data: 2184871936
I0415 20:09:16.532294 31074 layer_factory.hpp:77] Creating layer fc4_300
I0415 20:09:16.532304 31074 net.cpp:100] Creating Layer fc4_300
I0415 20:09:16.532308 31074 net.cpp:434] fc4_300 <- pool3
I0415 20:09:16.532313 31074 net.cpp:408] fc4_300 -> fc4_300
I0415 20:09:16.538573 31074 net.cpp:150] Setting up fc4_300
I0415 20:09:16.538594 31074 net.cpp:157] Top shape: 1024 300 (307200)
I0415 20:09:16.538599 31074 net.cpp:165] Memory required for data: 2186100736
I0415 20:09:16.538606 31074 layer_factory.hpp:77] Creating layer fc4_relu
I0415 20:09:16.538615 31074 net.cpp:100] Creating Layer fc4_relu
I0415 20:09:16.538619 31074 net.cpp:434] fc4_relu <- fc4_300
I0415 20:09:16.538625 31074 net.cpp:395] fc4_relu -> fc4_300 (in-place)
I0415 20:09:16.538830 31074 net.cpp:150] Setting up fc4_relu
I0415 20:09:16.538841 31074 net.cpp:157] Top shape: 1024 300 (307200)
I0415 20:09:16.538861 31074 net.cpp:165] Memory required for data: 2187329536
I0415 20:09:16.538864 31074 layer_factory.hpp:77] Creating layer drop4
I0415 20:09:16.538872 31074 net.cpp:100] Creating Layer drop4
I0415 20:09:16.538880 31074 net.cpp:434] drop4 <- fc4_300
I0415 20:09:16.538885 31074 net.cpp:395] drop4 -> fc4_300 (in-place)
I0415 20:09:16.538919 31074 net.cpp:150] Setting up drop4
I0415 20:09:16.538926 31074 net.cpp:157] Top shape: 1024 300 (307200)
I0415 20:09:16.538929 31074 net.cpp:165] Memory required for data: 2188558336
I0415 20:09:16.538933 31074 layer_factory.hpp:77] Creating layer fc5_106
I0415 20:09:16.538941 31074 net.cpp:100] Creating Layer fc5_106
I0415 20:09:16.538946 31074 net.cpp:434] fc5_106 <- fc4_300
I0415 20:09:16.538951 31074 net.cpp:408] fc5_106 -> fc5_classes
I0415 20:09:16.541929 31074 net.cpp:150] Setting up fc5_106
I0415 20:09:16.541944 31074 net.cpp:157] Top shape: 1024 106 (108544)
I0415 20:09:16.541949 31074 net.cpp:165] Memory required for data: 2188992512
I0415 20:09:16.541959 31074 layer_factory.hpp:77] Creating layer fc5_classes_fc5_106_0_split
I0415 20:09:16.541968 31074 net.cpp:100] Creating Layer fc5_classes_fc5_106_0_split
I0415 20:09:16.541975 31074 net.cpp:434] fc5_classes_fc5_106_0_split <- fc5_classes
I0415 20:09:16.541980 31074 net.cpp:408] fc5_classes_fc5_106_0_split -> fc5_classes_fc5_106_0_split_0
I0415 20:09:16.541990 31074 net.cpp:408] fc5_classes_fc5_106_0_split -> fc5_classes_fc5_106_0_split_1
I0415 20:09:16.541996 31074 net.cpp:408] fc5_classes_fc5_106_0_split -> fc5_classes_fc5_106_0_split_2
I0415 20:09:16.542047 31074 net.cpp:150] Setting up fc5_classes_fc5_106_0_split
I0415 20:09:16.542058 31074 net.cpp:157] Top shape: 1024 106 (108544)
I0415 20:09:16.542062 31074 net.cpp:157] Top shape: 1024 106 (108544)
I0415 20:09:16.542067 31074 net.cpp:157] Top shape: 1024 106 (108544)
I0415 20:09:16.542068 31074 net.cpp:165] Memory required for data: 2190295040
I0415 20:09:16.542088 31074 layer_factory.hpp:77] Creating layer softmax
I0415 20:09:16.542099 31074 net.cpp:100] Creating Layer softmax
I0415 20:09:16.542104 31074 net.cpp:434] softmax <- fc5_classes_fc5_106_0_split_0
I0415 20:09:16.542111 31074 net.cpp:408] softmax -> softmax
I0415 20:09:16.542373 31074 net.cpp:150] Setting up softmax
I0415 20:09:16.542387 31074 net.cpp:157] Top shape: 1024 106 (108544)
I0415 20:09:16.542390 31074 net.cpp:165] Memory required for data: 2190729216
I0415 20:09:16.542394 31074 layer_factory.hpp:77] Creating layer loss
I0415 20:09:16.542400 31074 net.cpp:100] Creating Layer loss
I0415 20:09:16.542403 31074 net.cpp:434] loss <- softmax
I0415 20:09:16.542408 31074 net.cpp:434] loss <- label_data_1_split_0
I0415 20:09:16.542415 31074 net.cpp:408] loss -> loss
…
