…
I0409 23:28:07.644253 18730 net.cpp:322] The NetState phase (0) differed from the phase (1) specified by a rule in layer accuracy_5
I0409 23:28:07.644340 18730 net.cpp:58] Initializing net from parameters: 
state {
  phase: TRAIN
  level: 0
  stage: ""
}
layer {
  name: "data"
  type: "Data"
  top: "data"
  top: "label"
  include {
    phase: TRAIN
  }
  transform_param {
    mirror: false
    crop_size: 48
    mean_value: 122
    mean_value: 115
    mean_value: 129
  }
  data_param {
    source: "../local_data/lmdb/rtsd-r1/orig/train/lmdb"
    batch_size: 1024
    backend: LMDB
  }
}
layer {
  name: "conv1"
  type: "Convolution"
  bottom: "data"
  top: "conv1"
  convolution_param {
    num_output: 100
    pad: 0
    kernel_size: 7
    group: 1
    stride: 1
    weight_filler {
      type: "xavier"
    }
  }
}
layer {
  name: "conv1_sTanH"
  type: "TanH"
  bottom: "conv1"
  top: "conv1"
}
layer {
  name: "pool1"
  type: "Pooling"
  bottom: "conv1"
  top: "pool1"
  pooling_param {
    pool: MAX
    kernel_size: 2
    stride: 2
  }
}
layer {
  name: "conv2"
  type: "Convolution"
  bottom: "pool1"
  top: "conv2"
  convolution_param {
    num_output: 150
    pad: 0
    kernel_size: 4
    group: 1
    stride: 1
    weight_filler {
      type: "xavier"
    }
  }
}
layer {
  name: "conv2_sTanH"
  type: "TanH"
  bottom: "conv2"
  top: "conv2"
}
layer {
  name: "pool2"
  type: "Pooling"
  bottom: "conv2"
  top: "pool2"
  pooling_param {
    pool: MAX
    kernel_size: 2
    stride: 2
  }
}
layer {
  name: "conv3"
  type: "Convolution"
  bottom: "pool2"
  top: "conv3"
  convolution_param {
    num_output: 250
    pad: 0
    kernel_size: 4
    group: 1
    stride: 1
    weight_filler {
      type: "xavier"
    }
  }
}
layer {
  name: "conv3_sTanH"
  type: "TanH"
  bottom: "conv3"
  top: "conv3"
}
layer {
  name: "pool3"
  type: "Pooling"
  bottom: "conv3"
  top: "pool3"
  pooling_param {
    pool: MAX
    kernel_size: 2
    stride: 2
  }
}
layer {
  name: "fc4_300"
  type: "InnerProduct"
  bottom: "pool3"
  top: "fc4_300"
  inner_product_param {
    num_output: 300
    weight_filler {
      type: "xavier"
    }
  }
}
layer {
  name: "fc4_sTanH"
  type: "TanH"
  bottom: "fc4_300"
  top: "fc4_300"
}
layer {
  name: "drop4"
  type: "Dropout"
  bottom: "fc4_300"
  top: "fc4_300"
  dropout_param {
    dropout_ratio: 0.4
  }
}
layer {
  name: "fc5_67"
  type: "InnerProduct"
  bottom: "fc4_300"
  top: "fc5_classes"
  inner_product_param {
    num_output: 67
    weight_filler {
      type: "xavier"
    }
  }
}
layer {
  name: "loss"
  type: "SoftmaxWithLoss"
  bottom: "fc5_classes"
  bottom: "label"
  top: "loss"
}
I0409 23:28:07.644423 18730 layer_factory.hpp:77] Creating layer data
I0409 23:28:07.645468 18730 net.cpp:100] Creating Layer data
I0409 23:28:07.645496 18730 net.cpp:408] data -> data
I0409 23:28:07.645517 18730 net.cpp:408] data -> label
I0409 23:28:07.646831 18813 db_lmdb.cpp:35] Opened lmdb ../local_data/lmdb/rtsd-r1/orig/train/lmdb
I0409 23:28:07.663764 18730 data_layer.cpp:41] output data size: 1024,3,48,48
I0409 23:28:07.709589 18730 net.cpp:150] Setting up data
I0409 23:28:07.709619 18730 net.cpp:157] Top shape: 1024 3 48 48 (7077888)
I0409 23:28:07.709625 18730 net.cpp:157] Top shape: 1024 (1024)
I0409 23:28:07.709650 18730 net.cpp:165] Memory required for data: 28315648
I0409 23:28:07.709671 18730 layer_factory.hpp:77] Creating layer conv1
I0409 23:28:07.709693 18730 net.cpp:100] Creating Layer conv1
I0409 23:28:07.709702 18730 net.cpp:434] conv1 <- data
I0409 23:28:07.709715 18730 net.cpp:408] conv1 -> conv1
I0409 23:28:07.988359 18730 net.cpp:150] Setting up conv1
I0409 23:28:07.988387 18730 net.cpp:157] Top shape: 1024 100 42 42 (180633600)
I0409 23:28:07.988391 18730 net.cpp:165] Memory required for data: 750850048
I0409 23:28:07.988412 18730 layer_factory.hpp:77] Creating layer conv1_sTanH
I0409 23:28:07.988425 18730 net.cpp:100] Creating Layer conv1_sTanH
I0409 23:28:07.988440 18730 net.cpp:434] conv1_sTanH <- conv1
I0409 23:28:07.988446 18730 net.cpp:395] conv1_sTanH -> conv1 (in-place)
I0409 23:28:07.988651 18730 net.cpp:150] Setting up conv1_sTanH
I0409 23:28:07.988663 18730 net.cpp:157] Top shape: 1024 100 42 42 (180633600)
I0409 23:28:07.988667 18730 net.cpp:165] Memory required for data: 1473384448
I0409 23:28:07.988672 18730 layer_factory.hpp:77] Creating layer pool1
I0409 23:28:07.988678 18730 net.cpp:100] Creating Layer pool1
I0409 23:28:07.988682 18730 net.cpp:434] pool1 <- conv1
I0409 23:28:07.988690 18730 net.cpp:408] pool1 -> pool1
I0409 23:28:07.988746 18730 net.cpp:150] Setting up pool1
I0409 23:28:07.988756 18730 net.cpp:157] Top shape: 1024 100 21 21 (45158400)
I0409 23:28:07.988759 18730 net.cpp:165] Memory required for data: 1654018048
I0409 23:28:07.988764 18730 layer_factory.hpp:77] Creating layer conv2
I0409 23:28:07.988776 18730 net.cpp:100] Creating Layer conv2
I0409 23:28:07.988782 18730 net.cpp:434] conv2 <- pool1
I0409 23:28:07.988787 18730 net.cpp:408] conv2 -> conv2
I0409 23:28:07.993110 18730 net.cpp:150] Setting up conv2
I0409 23:28:07.993129 18730 net.cpp:157] Top shape: 1024 150 18 18 (49766400)
I0409 23:28:07.993144 18730 net.cpp:165] Memory required for data: 1853083648
I0409 23:28:07.993154 18730 layer_factory.hpp:77] Creating layer conv2_sTanH
I0409 23:28:07.993161 18730 net.cpp:100] Creating Layer conv2_sTanH
I0409 23:28:07.993165 18730 net.cpp:434] conv2_sTanH <- conv2
I0409 23:28:07.993171 18730 net.cpp:395] conv2_sTanH -> conv2 (in-place)
I0409 23:28:07.993923 18730 net.cpp:150] Setting up conv2_sTanH
I0409 23:28:07.993938 18730 net.cpp:157] Top shape: 1024 150 18 18 (49766400)
I0409 23:28:07.993954 18730 net.cpp:165] Memory required for data: 2052149248
I0409 23:28:07.993957 18730 layer_factory.hpp:77] Creating layer pool2
I0409 23:28:07.993965 18730 net.cpp:100] Creating Layer pool2
I0409 23:28:07.993969 18730 net.cpp:434] pool2 <- conv2
I0409 23:28:07.993975 18730 net.cpp:408] pool2 -> pool2
I0409 23:28:07.994024 18730 net.cpp:150] Setting up pool2
I0409 23:28:07.994033 18730 net.cpp:157] Top shape: 1024 150 9 9 (12441600)
I0409 23:28:07.994037 18730 net.cpp:165] Memory required for data: 2101915648
I0409 23:28:07.994040 18730 layer_factory.hpp:77] Creating layer conv3
I0409 23:28:07.994050 18730 net.cpp:100] Creating Layer conv3
I0409 23:28:07.994053 18730 net.cpp:434] conv3 <- pool2
I0409 23:28:07.994060 18730 net.cpp:408] conv3 -> conv3
I0409 23:28:07.999459 18730 net.cpp:150] Setting up conv3
I0409 23:28:07.999476 18730 net.cpp:157] Top shape: 1024 250 6 6 (9216000)
I0409 23:28:07.999480 18730 net.cpp:165] Memory required for data: 2138779648
I0409 23:28:07.999493 18730 layer_factory.hpp:77] Creating layer conv3_sTanH
I0409 23:28:07.999501 18730 net.cpp:100] Creating Layer conv3_sTanH
I0409 23:28:07.999505 18730 net.cpp:434] conv3_sTanH <- conv3
I0409 23:28:07.999511 18730 net.cpp:395] conv3_sTanH -> conv3 (in-place)
I0409 23:28:08.000321 18730 net.cpp:150] Setting up conv3_sTanH
I0409 23:28:08.000337 18730 net.cpp:157] Top shape: 1024 250 6 6 (9216000)
I0409 23:28:08.000354 18730 net.cpp:165] Memory required for data: 2175643648
I0409 23:28:08.000357 18730 layer_factory.hpp:77] Creating layer pool3
I0409 23:28:08.000363 18730 net.cpp:100] Creating Layer pool3
I0409 23:28:08.000368 18730 net.cpp:434] pool3 <- conv3
I0409 23:28:08.000396 18730 net.cpp:408] pool3 -> pool3
I0409 23:28:08.000447 18730 net.cpp:150] Setting up pool3
I0409 23:28:08.000457 18730 net.cpp:157] Top shape: 1024 250 3 3 (2304000)
I0409 23:28:08.000459 18730 net.cpp:165] Memory required for data: 2184859648
I0409 23:28:08.000463 18730 layer_factory.hpp:77] Creating layer fc4_300
I0409 23:28:08.000471 18730 net.cpp:100] Creating Layer fc4_300
I0409 23:28:08.000475 18730 net.cpp:434] fc4_300 <- pool3
I0409 23:28:08.000483 18730 net.cpp:408] fc4_300 -> fc4_300
I0409 23:28:08.005769 18730 net.cpp:150] Setting up fc4_300
I0409 23:28:08.005784 18730 net.cpp:157] Top shape: 1024 300 (307200)
I0409 23:28:08.005787 18730 net.cpp:165] Memory required for data: 2186088448
I0409 23:28:08.005794 18730 layer_factory.hpp:77] Creating layer fc4_sTanH
I0409 23:28:08.005800 18730 net.cpp:100] Creating Layer fc4_sTanH
I0409 23:28:08.005803 18730 net.cpp:434] fc4_sTanH <- fc4_300
I0409 23:28:08.005810 18730 net.cpp:395] fc4_sTanH -> fc4_300 (in-place)
I0409 23:28:08.006016 18730 net.cpp:150] Setting up fc4_sTanH
I0409 23:28:08.006027 18730 net.cpp:157] Top shape: 1024 300 (307200)
I0409 23:28:08.006031 18730 net.cpp:165] Memory required for data: 2187317248
I0409 23:28:08.006034 18730 layer_factory.hpp:77] Creating layer drop4
I0409 23:28:08.006042 18730 net.cpp:100] Creating Layer drop4
I0409 23:28:08.006044 18730 net.cpp:434] drop4 <- fc4_300
I0409 23:28:08.006052 18730 net.cpp:395] drop4 -> fc4_300 (in-place)
I0409 23:28:08.006083 18730 net.cpp:150] Setting up drop4
I0409 23:28:08.006089 18730 net.cpp:157] Top shape: 1024 300 (307200)
I0409 23:28:08.006093 18730 net.cpp:165] Memory required for data: 2188546048
I0409 23:28:08.006096 18730 layer_factory.hpp:77] Creating layer fc5_67
I0409 23:28:08.006104 18730 net.cpp:100] Creating Layer fc5_67
I0409 23:28:08.006112 18730 net.cpp:434] fc5_67 <- fc4_300
I0409 23:28:08.006119 18730 net.cpp:408] fc5_67 -> fc5_classes
I0409 23:28:08.007290 18730 net.cpp:150] Setting up fc5_67
I0409 23:28:08.007305 18730 net.cpp:157] Top shape: 1024 67 (68608)
I0409 23:28:08.007308 18730 net.cpp:165] Memory required for data: 2188820480
I0409 23:28:08.007319 18730 layer_factory.hpp:77] Creating layer loss
I0409 23:28:08.007326 18730 net.cpp:100] Creating Layer loss
I0409 23:28:08.007329 18730 net.cpp:434] loss <- fc5_classes
I0409 23:28:08.007335 18730 net.cpp:434] loss <- label
I0409 23:28:08.007341 18730 net.cpp:408] loss -> loss
I0409 23:28:08.007359 18730 layer_factory.hpp:77] Creating layer loss
…
I0409 23:28:08.008015 18730 solver.cpp:193] Creating test net (#0) specified by test_net file: ./Prototxt/experiment_7/rtsd-r1/orig/trial_5/test.prototxt
I0409 23:28:08.008155 18730 net.cpp:58] Initializing net from parameters: 
state {
  phase: TEST
}
layer {
  name: "data"
  type: "Data"
  top: "data"
  top: "label"
  include {
    phase: TEST
  }
  transform_param {
    mirror: false
    crop_size: 48
    mean_value: 113
    mean_value: 110
    mean_value: 132
  }
  data_param {
    source: "../local_data/lmdb/rtsd-r1/orig/test/lmdb"
    batch_size: 1024
    backend: LMDB
  }
}
layer {
  name: "conv1"
  type: "Convolution"
  bottom: "data"
  top: "conv1"
  convolution_param {
    num_output: 100
    pad: 0
    kernel_size: 7
    group: 1
    stride: 1
    weight_filler {
      type: "xavier"
    }
  }
}
layer {
  name: "conv1_sTanH"
  type: "TanH"
  bottom: "conv1"
  top: "conv1"
}
layer {
  name: "pool1"
  type: "Pooling"
  bottom: "conv1"
  top: "pool1"
  pooling_param {
    pool: MAX
    kernel_size: 2
    stride: 2
  }
}
layer {
  name: "conv2"
  type: "Convolution"
  bottom: "pool1"
  top: "conv2"
  convolution_param {
    num_output: 150
    pad: 0
    kernel_size: 4
    group: 1
    stride: 1
    weight_filler {
      type: "xavier"
    }
  }
}
layer {
  name: "conv2_sTanH"
  type: "TanH"
  bottom: "conv2"
  top: "conv2"
}
layer {
  name: "pool2"
  type: "Pooling"
  bottom: "conv2"
  top: "pool2"
  pooling_param {
    pool: MAX
    kernel_size: 2
    stride: 2
  }
}
layer {
  name: "conv3"
  type: "Convolution"
  bottom: "pool2"
  top: "conv3"
  convolution_param {
    num_output: 250
    pad: 0
    kernel_size: 4
    group: 1
    stride: 1
    weight_filler {
      type: "xavier"
    }
  }
}
layer {
  name: "conv3_sTanH"
  type: "TanH"
  bottom: "conv3"
  top: "conv3"
}
layer {
  name: "pool3"
  type: "Pooling"
  bottom: "conv3"
  top: "pool3"
  pooling_param {
    pool: MAX
    kernel_size: 2
    stride: 2
  }
}
layer {
  name: "fc4_300"
  type: "InnerProduct"
  bottom: "pool3"
  top: "fc4_300"
  inner_product_param {
    num_output: 300
    weight_filler {
      type: "xavier"
    }
  }
}
layer {
  name: "fc4_sTanH"
  type: "TanH"
  bottom: "fc4_300"
  top: "fc4_300"
}
layer {
  name: "drop4"
  type: "Dropout"
  bottom: "fc4_300"
  top: "fc4_300"
  dropout_param {
    dropout_ratio: 0.4
  }
}
layer {
  name: "fc5_67"
  type: "InnerProduct"
  bottom: "fc4_300"
  top: "fc5_classes"
  inner_product_param {
    num_output: 67
    weight_filler {
      type: "xavier"
    }
  }
}
layer {
  name: "loss"
  type: "SoftmaxWithLoss"
  bottom: "fc5_classes"
  bottom: "label"
  top: "loss"
}
layer {
  name: "accuracy_1"
  type: "Accuracy"
  bottom: "fc5_classes"
  bottom: "label"
  top: "accuracy_1"
  include {
    phase: TEST
  }
  accuracy_param {
    top_k: 1
  }
}
layer {
  name: "accuracy_5"
  type: "Accuracy"
  bottom: "fc5_classes"
  bottom: "label"
  top: "accuracy_5"
  include {
    phase: TEST
  }
  accuracy_param {
    top_k: 5
  }
}
I0409 23:28:08.008247 18730 layer_factory.hpp:77] Creating layer data
I0409 23:28:08.008913 18730 net.cpp:100] Creating Layer data
I0409 23:28:08.008936 18730 net.cpp:408] data -> data
I0409 23:28:08.008949 18730 net.cpp:408] data -> label
I0409 23:28:08.010494 18834 db_lmdb.cpp:35] Opened lmdb ../local_data/lmdb/rtsd-r1/orig/test/lmdb
I0409 23:28:08.010705 18730 data_layer.cpp:41] output data size: 1024,3,48,48
I0409 23:28:08.070799 18730 net.cpp:150] Setting up data
I0409 23:28:08.070830 18730 net.cpp:157] Top shape: 1024 3 48 48 (7077888)
I0409 23:28:08.070837 18730 net.cpp:157] Top shape: 1024 (1024)
I0409 23:28:08.070842 18730 net.cpp:165] Memory required for data: 28315648
I0409 23:28:08.070848 18730 layer_factory.hpp:77] Creating layer label_data_1_split
I0409 23:28:08.070866 18730 net.cpp:100] Creating Layer label_data_1_split
I0409 23:28:08.070873 18730 net.cpp:434] label_data_1_split <- label
I0409 23:28:08.070883 18730 net.cpp:408] label_data_1_split -> label_data_1_split_0
I0409 23:28:08.070895 18730 net.cpp:408] label_data_1_split -> label_data_1_split_1
I0409 23:28:08.070905 18730 net.cpp:408] label_data_1_split -> label_data_1_split_2
I0409 23:28:08.071059 18730 net.cpp:150] Setting up label_data_1_split
I0409 23:28:08.071071 18730 net.cpp:157] Top shape: 1024 (1024)
I0409 23:28:08.071076 18730 net.cpp:157] Top shape: 1024 (1024)
I0409 23:28:08.071081 18730 net.cpp:157] Top shape: 1024 (1024)
I0409 23:28:08.071084 18730 net.cpp:165] Memory required for data: 28327936
I0409 23:28:08.071089 18730 layer_factory.hpp:77] Creating layer conv1
I0409 23:28:08.071105 18730 net.cpp:100] Creating Layer conv1
I0409 23:28:08.071111 18730 net.cpp:434] conv1 <- data
I0409 23:28:08.071118 18730 net.cpp:408] conv1 -> conv1
I0409 23:28:08.075842 18730 net.cpp:150] Setting up conv1
I0409 23:28:08.075870 18730 net.cpp:157] Top shape: 1024 100 42 42 (180633600)
I0409 23:28:08.075892 18730 net.cpp:165] Memory required for data: 750862336
I0409 23:28:08.075913 18730 layer_factory.hpp:77] Creating layer conv1_sTanH
I0409 23:28:08.075928 18730 net.cpp:100] Creating Layer conv1_sTanH
I0409 23:28:08.075937 18730 net.cpp:434] conv1_sTanH <- conv1
I0409 23:28:08.075947 18730 net.cpp:395] conv1_sTanH -> conv1 (in-place)
I0409 23:28:08.076270 18730 net.cpp:150] Setting up conv1_sTanH
I0409 23:28:08.076287 18730 net.cpp:157] Top shape: 1024 100 42 42 (180633600)
I0409 23:28:08.076290 18730 net.cpp:165] Memory required for data: 1473396736
I0409 23:28:08.076295 18730 layer_factory.hpp:77] Creating layer pool1
I0409 23:28:08.076308 18730 net.cpp:100] Creating Layer pool1
I0409 23:28:08.076311 18730 net.cpp:434] pool1 <- conv1
I0409 23:28:08.076319 18730 net.cpp:408] pool1 -> pool1
I0409 23:28:08.076380 18730 net.cpp:150] Setting up pool1
I0409 23:28:08.076390 18730 net.cpp:157] Top shape: 1024 100 21 21 (45158400)
I0409 23:28:08.076395 18730 net.cpp:165] Memory required for data: 1654030336
I0409 23:28:08.076398 18730 layer_factory.hpp:77] Creating layer conv2
I0409 23:28:08.076411 18730 net.cpp:100] Creating Layer conv2
I0409 23:28:08.076416 18730 net.cpp:434] conv2 <- pool1
I0409 23:28:08.076423 18730 net.cpp:408] conv2 -> conv2
I0409 23:28:08.082121 18730 net.cpp:150] Setting up conv2
I0409 23:28:08.082144 18730 net.cpp:157] Top shape: 1024 150 18 18 (49766400)
I0409 23:28:08.082154 18730 net.cpp:165] Memory required for data: 1853095936
I0409 23:28:08.082166 18730 layer_factory.hpp:77] Creating layer conv2_sTanH
I0409 23:28:08.082175 18730 net.cpp:100] Creating Layer conv2_sTanH
I0409 23:28:08.082178 18730 net.cpp:434] conv2_sTanH <- conv2
I0409 23:28:08.082185 18730 net.cpp:395] conv2_sTanH -> conv2 (in-place)
I0409 23:28:08.083686 18730 net.cpp:150] Setting up conv2_sTanH
I0409 23:28:08.083706 18730 net.cpp:157] Top shape: 1024 150 18 18 (49766400)
I0409 23:28:08.083714 18730 net.cpp:165] Memory required for data: 2052161536
I0409 23:28:08.083719 18730 layer_factory.hpp:77] Creating layer pool2
I0409 23:28:08.083726 18730 net.cpp:100] Creating Layer pool2
I0409 23:28:08.083732 18730 net.cpp:434] pool2 <- conv2
I0409 23:28:08.083741 18730 net.cpp:408] pool2 -> pool2
I0409 23:28:08.083808 18730 net.cpp:150] Setting up pool2
I0409 23:28:08.083822 18730 net.cpp:157] Top shape: 1024 150 9 9 (12441600)
I0409 23:28:08.083825 18730 net.cpp:165] Memory required for data: 2101927936
I0409 23:28:08.083829 18730 layer_factory.hpp:77] Creating layer conv3
I0409 23:28:08.083844 18730 net.cpp:100] Creating Layer conv3
I0409 23:28:08.083851 18730 net.cpp:434] conv3 <- pool2
I0409 23:28:08.083858 18730 net.cpp:408] conv3 -> conv3
I0409 23:28:08.090843 18730 net.cpp:150] Setting up conv3
I0409 23:28:08.090873 18730 net.cpp:157] Top shape: 1024 250 6 6 (9216000)
I0409 23:28:08.090878 18730 net.cpp:165] Memory required for data: 2138791936
I0409 23:28:08.090894 18730 layer_factory.hpp:77] Creating layer conv3_sTanH
I0409 23:28:08.090903 18730 net.cpp:100] Creating Layer conv3_sTanH
I0409 23:28:08.090908 18730 net.cpp:434] conv3_sTanH <- conv3
I0409 23:28:08.090914 18730 net.cpp:395] conv3_sTanH -> conv3 (in-place)
I0409 23:28:08.093473 18730 net.cpp:150] Setting up conv3_sTanH
I0409 23:28:08.093493 18730 net.cpp:157] Top shape: 1024 250 6 6 (9216000)
I0409 23:28:08.093515 18730 net.cpp:165] Memory required for data: 2175655936
I0409 23:28:08.093521 18730 layer_factory.hpp:77] Creating layer pool3
I0409 23:28:08.093533 18730 net.cpp:100] Creating Layer pool3
I0409 23:28:08.093536 18730 net.cpp:434] pool3 <- conv3
I0409 23:28:08.093544 18730 net.cpp:408] pool3 -> pool3
I0409 23:28:08.093607 18730 net.cpp:150] Setting up pool3
I0409 23:28:08.093619 18730 net.cpp:157] Top shape: 1024 250 3 3 (2304000)
I0409 23:28:08.093622 18730 net.cpp:165] Memory required for data: 2184871936
I0409 23:28:08.093627 18730 layer_factory.hpp:77] Creating layer fc4_300
I0409 23:28:08.093636 18730 net.cpp:100] Creating Layer fc4_300
I0409 23:28:08.093647 18730 net.cpp:434] fc4_300 <- pool3
I0409 23:28:08.093652 18730 net.cpp:408] fc4_300 -> fc4_300
I0409 23:28:08.100463 18730 net.cpp:150] Setting up fc4_300
I0409 23:28:08.100483 18730 net.cpp:157] Top shape: 1024 300 (307200)
I0409 23:28:08.100488 18730 net.cpp:165] Memory required for data: 2186100736
I0409 23:28:08.100497 18730 layer_factory.hpp:77] Creating layer fc4_sTanH
I0409 23:28:08.100504 18730 net.cpp:100] Creating Layer fc4_sTanH
I0409 23:28:08.100510 18730 net.cpp:434] fc4_sTanH <- fc4_300
I0409 23:28:08.100519 18730 net.cpp:395] fc4_sTanH -> fc4_300 (in-place)
I0409 23:28:08.100761 18730 net.cpp:150] Setting up fc4_sTanH
I0409 23:28:08.100776 18730 net.cpp:157] Top shape: 1024 300 (307200)
I0409 23:28:08.100780 18730 net.cpp:165] Memory required for data: 2187329536
I0409 23:28:08.100785 18730 layer_factory.hpp:77] Creating layer drop4
I0409 23:28:08.100795 18730 net.cpp:100] Creating Layer drop4
I0409 23:28:08.100798 18730 net.cpp:434] drop4 <- fc4_300
I0409 23:28:08.100805 18730 net.cpp:395] drop4 -> fc4_300 (in-place)
I0409 23:28:08.100841 18730 net.cpp:150] Setting up drop4
I0409 23:28:08.100850 18730 net.cpp:157] Top shape: 1024 300 (307200)
I0409 23:28:08.100854 18730 net.cpp:165] Memory required for data: 2188558336
I0409 23:28:08.100857 18730 layer_factory.hpp:77] Creating layer fc5_67
I0409 23:28:08.100865 18730 net.cpp:100] Creating Layer fc5_67
I0409 23:28:08.100869 18730 net.cpp:434] fc5_67 <- fc4_300
I0409 23:28:08.100877 18730 net.cpp:408] fc5_67 -> fc5_classes
I0409 23:28:08.101186 18730 net.cpp:150] Setting up fc5_67
I0409 23:28:08.101202 18730 net.cpp:157] Top shape: 1024 67 (68608)
I0409 23:28:08.101207 18730 net.cpp:165] Memory required for data: 2188832768
I0409 23:28:08.101217 18730 layer_factory.hpp:77] Creating layer fc5_classes_fc5_67_0_split
I0409 23:28:08.101225 18730 net.cpp:100] Creating Layer fc5_classes_fc5_67_0_split
I0409 23:28:08.101231 18730 net.cpp:434] fc5_classes_fc5_67_0_split <- fc5_classes
I0409 23:28:08.101239 18730 net.cpp:408] fc5_classes_fc5_67_0_split -> fc5_classes_fc5_67_0_split_0
I0409 23:28:08.101248 18730 net.cpp:408] fc5_classes_fc5_67_0_split -> fc5_classes_fc5_67_0_split_1
I0409 23:28:08.101260 18730 net.cpp:408] fc5_classes_fc5_67_0_split -> fc5_classes_fc5_67_0_split_2
I0409 23:28:08.101351 18730 net.cpp:150] Setting up fc5_classes_fc5_67_0_split
I0409 23:28:08.101363 18730 net.cpp:157] Top shape: 1024 67 (68608)
I0409 23:28:08.101367 18730 net.cpp:157] Top shape: 1024 67 (68608)
I0409 23:28:08.101372 18730 net.cpp:157] Top shape: 1024 67 (68608)
I0409 23:28:08.101374 18730 net.cpp:165] Memory required for data: 2189656064
I0409 23:28:08.101380 18730 layer_factory.hpp:77] Creating layer loss
I0409 23:28:08.101394 18730 net.cpp:100] Creating Layer loss
I0409 23:28:08.101400 18730 net.cpp:434] loss <- fc5_classes_fc5_67_0_split_0
I0409 23:28:08.101407 18730 net.cpp:434] loss <- label_data_1_split_0
I0409 23:28:08.101413 18730 net.cpp:408] loss -> loss
…
