…
I0415 23:52:09.588536 20640 solver.cpp:93] Creating training net from train_net file: ./Prototxt/experiment_12/rtsd-r3/imajust/trial_4/train.prototxt
I0415 23:52:09.597236 20640 net.cpp:58] Initializing net from parameters: 
state {
  phase: TRAIN
  level: 0
  stage: ""
}
layer {
  name: "data"
  type: "Data"
  top: "data"
  top: "label"
  include {
    phase: TRAIN
  }
  transform_param {
    scale: 0.0039215689
    mirror: false
    crop_size: 48
    mean_value: 118
    mean_value: 112
    mean_value: 112
  }
  data_param {
    source: "../local_data/lmdb/rtsd-r3/imajust/train/lmdb"
    batch_size: 1024
    backend: LMDB
  }
}
layer {
  name: "conv1"
  type: "Convolution"
  bottom: "data"
  top: "conv1"
  convolution_param {
    num_output: 100
    pad: 0
    kernel_size: 7
    group: 1
    stride: 1
    weight_filler {
      type: "xavier"
    }
  }
}
layer {
  name: "conv1_relu"
  type: "ReLU"
  bottom: "conv1"
  top: "conv1"
}
layer {
  name: "pool1"
  type: "Pooling"
  bottom: "conv1"
  top: "pool1"
  pooling_param {
    pool: MAX
    kernel_size: 2
    stride: 2
  }
}
layer {
  name: "conv2"
  type: "Convolution"
  bottom: "pool1"
  top: "conv2"
  convolution_param {
    num_output: 150
    pad: 0
    kernel_size: 4
    group: 1
    stride: 1
    weight_filler {
      type: "xavier"
    }
  }
}
layer {
  name: "conv2_relu"
  type: "ReLU"
  bottom: "conv2"
  top: "conv2"
}
layer {
  name: "pool2"
  type: "Pooling"
  bottom: "conv2"
  top: "pool2"
  pooling_param {
    pool: MAX
    kernel_size: 2
    stride: 2
  }
}
layer {
  name: "conv3"
  type: "Convolution"
  bottom: "pool2"
  top: "conv3"
  convolution_param {
    num_output: 250
    pad: 0
    kernel_size: 4
    group: 1
    stride: 1
    weight_filler {
      type: "xavier"
    }
  }
}
layer {
  name: "conv3_relu"
  type: "ReLU"
  bottom: "conv3"
  top: "conv3"
}
layer {
  name: "pool3"
  type: "Pooling"
  bottom: "conv3"
  top: "pool3"
  pooling_param {
    pool: MAX
    kernel_size: 2
    stride: 2
  }
}
layer {
  name: "fc4_300"
  type: "InnerProduct"
  bottom: "pool3"
  top: "fc4_300"
  inner_product_param {
    num_output: 300
    weight_filler {
      type: "xavier"
    }
  }
}
layer {
  name: "fc4_relu"
  type: "ReLU"
  bottom: "fc4_300"
  top: "fc4_300"
}
layer {
  name: "drop4"
  type: "Dropout"
  bottom: "fc4_300"
  top: "fc4_300"
  dropout_param {
    dropout_ratio: 0.5
  }
}
layer {
  name: "fc5_106"
  type: "InnerProduct"
  bottom: "fc4_300"
  top: "fc5_classes"
  inner_product_param {
    num_output: 106
    weight_filler {
      type: "xavier"
    }
  }
}
layer {
  name: "softmax"
  type: "Softmax"
  bottom: "fc5_classes"
  top: "softmax"
}
layer {
  name: "loss"
  type: "MultinomialLogisticLoss"
  bottom: "softmax"
  bottom: "label"
  top: "loss"
}
layer {
  name: "accuracy_1"
  type: "Accuracy"
  bottom: "fc5_classes"
  bottom: "label"
  top: "accuracy_1"
  accuracy_param {
    top_k: 1
  }
}
layer {
  name: "accuracy_5"
  type: "Accuracy"
  bottom: "fc5_classes"
  bottom: "label"
  top: "accuracy_5"
  accuracy_param {
    top_k: 5
  }
}
layer {
  name: "silence"
  type: "Silence"
  bottom: "accuracy_1"
  bottom: "accuracy_5"
}
I0415 23:52:09.597442 20640 layer_factory.hpp:77] Creating layer data
I0415 23:52:09.599203 20640 net.cpp:100] Creating Layer data
I0415 23:52:09.599225 20640 net.cpp:408] data -> data
I0415 23:52:09.599261 20640 net.cpp:408] data -> label
I0415 23:52:09.602005 20763 db_lmdb.cpp:35] Opened lmdb ../local_data/lmdb/rtsd-r3/imajust/train/lmdb
I0415 23:52:09.628481 20640 data_layer.cpp:41] output data size: 1024,3,48,48
I0415 23:52:09.699309 20640 net.cpp:150] Setting up data
I0415 23:52:09.699343 20640 net.cpp:157] Top shape: 1024 3 48 48 (7077888)
I0415 23:52:09.699352 20640 net.cpp:157] Top shape: 1024 (1024)
I0415 23:52:09.699357 20640 net.cpp:165] Memory required for data: 28315648
I0415 23:52:09.699371 20640 layer_factory.hpp:77] Creating layer label_data_1_split
I0415 23:52:09.699391 20640 net.cpp:100] Creating Layer label_data_1_split
I0415 23:52:09.699404 20640 net.cpp:434] label_data_1_split <- label
I0415 23:52:09.699436 20640 net.cpp:408] label_data_1_split -> label_data_1_split_0
I0415 23:52:09.699453 20640 net.cpp:408] label_data_1_split -> label_data_1_split_1
I0415 23:52:09.699466 20640 net.cpp:408] label_data_1_split -> label_data_1_split_2
I0415 23:52:09.699545 20640 net.cpp:150] Setting up label_data_1_split
I0415 23:52:09.699556 20640 net.cpp:157] Top shape: 1024 (1024)
I0415 23:52:09.699565 20640 net.cpp:157] Top shape: 1024 (1024)
I0415 23:52:09.699571 20640 net.cpp:157] Top shape: 1024 (1024)
I0415 23:52:09.699578 20640 net.cpp:165] Memory required for data: 28327936
I0415 23:52:09.699584 20640 layer_factory.hpp:77] Creating layer conv1
I0415 23:52:09.699604 20640 net.cpp:100] Creating Layer conv1
I0415 23:52:09.699611 20640 net.cpp:434] conv1 <- data
I0415 23:52:09.699620 20640 net.cpp:408] conv1 -> conv1
I0415 23:52:10.019856 20640 net.cpp:150] Setting up conv1
I0415 23:52:10.019893 20640 net.cpp:157] Top shape: 1024 100 42 42 (180633600)
I0415 23:52:10.019898 20640 net.cpp:165] Memory required for data: 750862336
I0415 23:52:10.019920 20640 layer_factory.hpp:77] Creating layer conv1_relu
I0415 23:52:10.019932 20640 net.cpp:100] Creating Layer conv1_relu
I0415 23:52:10.019937 20640 net.cpp:434] conv1_relu <- conv1
I0415 23:52:10.019944 20640 net.cpp:395] conv1_relu -> conv1 (in-place)
I0415 23:52:10.020155 20640 net.cpp:150] Setting up conv1_relu
I0415 23:52:10.020169 20640 net.cpp:157] Top shape: 1024 100 42 42 (180633600)
I0415 23:52:10.020174 20640 net.cpp:165] Memory required for data: 1473396736
I0415 23:52:10.020179 20640 layer_factory.hpp:77] Creating layer pool1
I0415 23:52:10.020189 20640 net.cpp:100] Creating Layer pool1
I0415 23:52:10.020192 20640 net.cpp:434] pool1 <- conv1
I0415 23:52:10.020198 20640 net.cpp:408] pool1 -> pool1
I0415 23:52:10.020257 20640 net.cpp:150] Setting up pool1
I0415 23:52:10.020267 20640 net.cpp:157] Top shape: 1024 100 21 21 (45158400)
I0415 23:52:10.020270 20640 net.cpp:165] Memory required for data: 1654030336
I0415 23:52:10.020274 20640 layer_factory.hpp:77] Creating layer conv2
I0415 23:52:10.020285 20640 net.cpp:100] Creating Layer conv2
I0415 23:52:10.020290 20640 net.cpp:434] conv2 <- pool1
I0415 23:52:10.020298 20640 net.cpp:408] conv2 -> conv2
I0415 23:52:10.026321 20640 net.cpp:150] Setting up conv2
I0415 23:52:10.026340 20640 net.cpp:157] Top shape: 1024 150 18 18 (49766400)
I0415 23:52:10.026345 20640 net.cpp:165] Memory required for data: 1853095936
I0415 23:52:10.026355 20640 layer_factory.hpp:77] Creating layer conv2_relu
I0415 23:52:10.026365 20640 net.cpp:100] Creating Layer conv2_relu
I0415 23:52:10.026370 20640 net.cpp:434] conv2_relu <- conv2
I0415 23:52:10.026376 20640 net.cpp:395] conv2_relu -> conv2 (in-place)
I0415 23:52:10.027556 20640 net.cpp:150] Setting up conv2_relu
I0415 23:52:10.027573 20640 net.cpp:157] Top shape: 1024 150 18 18 (49766400)
I0415 23:52:10.027577 20640 net.cpp:165] Memory required for data: 2052161536
I0415 23:52:10.027580 20640 layer_factory.hpp:77] Creating layer pool2
I0415 23:52:10.027587 20640 net.cpp:100] Creating Layer pool2
I0415 23:52:10.027591 20640 net.cpp:434] pool2 <- conv2
I0415 23:52:10.027598 20640 net.cpp:408] pool2 -> pool2
I0415 23:52:10.027649 20640 net.cpp:150] Setting up pool2
I0415 23:52:10.027659 20640 net.cpp:157] Top shape: 1024 150 9 9 (12441600)
I0415 23:52:10.027663 20640 net.cpp:165] Memory required for data: 2101927936
I0415 23:52:10.027667 20640 layer_factory.hpp:77] Creating layer conv3
I0415 23:52:10.027703 20640 net.cpp:100] Creating Layer conv3
I0415 23:52:10.027709 20640 net.cpp:434] conv3 <- pool2
I0415 23:52:10.027714 20640 net.cpp:408] conv3 -> conv3
I0415 23:52:10.033872 20640 net.cpp:150] Setting up conv3
I0415 23:52:10.033890 20640 net.cpp:157] Top shape: 1024 250 6 6 (9216000)
I0415 23:52:10.033893 20640 net.cpp:165] Memory required for data: 2138791936
I0415 23:52:10.033902 20640 layer_factory.hpp:77] Creating layer conv3_relu
I0415 23:52:10.033913 20640 net.cpp:100] Creating Layer conv3_relu
I0415 23:52:10.033918 20640 net.cpp:434] conv3_relu <- conv3
I0415 23:52:10.033924 20640 net.cpp:395] conv3_relu -> conv3 (in-place)
I0415 23:52:10.041113 20640 net.cpp:150] Setting up conv3_relu
I0415 23:52:10.041131 20640 net.cpp:157] Top shape: 1024 250 6 6 (9216000)
I0415 23:52:10.041136 20640 net.cpp:165] Memory required for data: 2175655936
I0415 23:52:10.041139 20640 layer_factory.hpp:77] Creating layer pool3
I0415 23:52:10.041147 20640 net.cpp:100] Creating Layer pool3
I0415 23:52:10.041152 20640 net.cpp:434] pool3 <- conv3
I0415 23:52:10.041160 20640 net.cpp:408] pool3 -> pool3
I0415 23:52:10.041211 20640 net.cpp:150] Setting up pool3
I0415 23:52:10.041219 20640 net.cpp:157] Top shape: 1024 250 3 3 (2304000)
I0415 23:52:10.041224 20640 net.cpp:165] Memory required for data: 2184871936
I0415 23:52:10.041227 20640 layer_factory.hpp:77] Creating layer fc4_300
I0415 23:52:10.041235 20640 net.cpp:100] Creating Layer fc4_300
I0415 23:52:10.041240 20640 net.cpp:434] fc4_300 <- pool3
I0415 23:52:10.041245 20640 net.cpp:408] fc4_300 -> fc4_300
I0415 23:52:10.052517 20640 net.cpp:150] Setting up fc4_300
I0415 23:52:10.052542 20640 net.cpp:157] Top shape: 1024 300 (307200)
I0415 23:52:10.052546 20640 net.cpp:165] Memory required for data: 2186100736
I0415 23:52:10.052556 20640 layer_factory.hpp:77] Creating layer fc4_relu
I0415 23:52:10.052568 20640 net.cpp:100] Creating Layer fc4_relu
I0415 23:52:10.052574 20640 net.cpp:434] fc4_relu <- fc4_300
I0415 23:52:10.052580 20640 net.cpp:395] fc4_relu -> fc4_300 (in-place)
I0415 23:52:10.052801 20640 net.cpp:150] Setting up fc4_relu
I0415 23:52:10.052814 20640 net.cpp:157] Top shape: 1024 300 (307200)
I0415 23:52:10.052817 20640 net.cpp:165] Memory required for data: 2187329536
I0415 23:52:10.052820 20640 layer_factory.hpp:77] Creating layer drop4
I0415 23:52:10.052829 20640 net.cpp:100] Creating Layer drop4
I0415 23:52:10.052834 20640 net.cpp:434] drop4 <- fc4_300
I0415 23:52:10.052839 20640 net.cpp:395] drop4 -> fc4_300 (in-place)
I0415 23:52:10.052875 20640 net.cpp:150] Setting up drop4
I0415 23:52:10.052882 20640 net.cpp:157] Top shape: 1024 300 (307200)
I0415 23:52:10.052886 20640 net.cpp:165] Memory required for data: 2188558336
I0415 23:52:10.052888 20640 layer_factory.hpp:77] Creating layer fc5_106
I0415 23:52:10.052896 20640 net.cpp:100] Creating Layer fc5_106
I0415 23:52:10.052901 20640 net.cpp:434] fc5_106 <- fc4_300
I0415 23:52:10.052908 20640 net.cpp:408] fc5_106 -> fc5_classes
I0415 23:52:10.054775 20640 net.cpp:150] Setting up fc5_106
I0415 23:52:10.054792 20640 net.cpp:157] Top shape: 1024 106 (108544)
I0415 23:52:10.054797 20640 net.cpp:165] Memory required for data: 2188992512
I0415 23:52:10.054810 20640 layer_factory.hpp:77] Creating layer fc5_classes_fc5_106_0_split
I0415 23:52:10.054818 20640 net.cpp:100] Creating Layer fc5_classes_fc5_106_0_split
I0415 23:52:10.054824 20640 net.cpp:434] fc5_classes_fc5_106_0_split <- fc5_classes
I0415 23:52:10.054831 20640 net.cpp:408] fc5_classes_fc5_106_0_split -> fc5_classes_fc5_106_0_split_0
I0415 23:52:10.054841 20640 net.cpp:408] fc5_classes_fc5_106_0_split -> fc5_classes_fc5_106_0_split_1
I0415 23:52:10.054852 20640 net.cpp:408] fc5_classes_fc5_106_0_split -> fc5_classes_fc5_106_0_split_2
I0415 23:52:10.054905 20640 net.cpp:150] Setting up fc5_classes_fc5_106_0_split
I0415 23:52:10.054913 20640 net.cpp:157] Top shape: 1024 106 (108544)
I0415 23:52:10.054918 20640 net.cpp:157] Top shape: 1024 106 (108544)
I0415 23:52:10.054922 20640 net.cpp:157] Top shape: 1024 106 (108544)
I0415 23:52:10.054925 20640 net.cpp:165] Memory required for data: 2190295040
I0415 23:52:10.054946 20640 layer_factory.hpp:77] Creating layer softmax
I0415 23:52:10.054957 20640 net.cpp:100] Creating Layer softmax
I0415 23:52:10.054962 20640 net.cpp:434] softmax <- fc5_classes_fc5_106_0_split_0
I0415 23:52:10.054970 20640 net.cpp:408] softmax -> softmax
I0415 23:52:10.055235 20640 net.cpp:150] Setting up softmax
I0415 23:52:10.055248 20640 net.cpp:157] Top shape: 1024 106 (108544)
I0415 23:52:10.055253 20640 net.cpp:165] Memory required for data: 2190729216
I0415 23:52:10.055256 20640 layer_factory.hpp:77] Creating layer loss
I0415 23:52:10.055263 20640 net.cpp:100] Creating Layer loss
I0415 23:52:10.055269 20640 net.cpp:434] loss <- softmax
I0415 23:52:10.055272 20640 net.cpp:434] loss <- label_data_1_split_0
I0415 23:52:10.055279 20640 net.cpp:408] loss -> loss
…
