…
I0527 23:06:36.057744 14759 solver.cpp:81] Creating training net from train_net file: ./Prototxt/experiment_20/RTSD/CoNorm/trial_5/train.prototxt
I0527 23:06:36.058271 14759 net.cpp:58] Initializing net from parameters: 
state {
  phase: TRAIN
  level: 0
  stage: ""
}
layer {
  name: "data"
  type: "Data"
  top: "data"
  top: "label"
  include {
    phase: TRAIN
  }
  transform_param {
    scale: 0.0039215689
    mirror: false
    crop_size: 48
    mean_value: 135
    mean_value: 135
    mean_value: 134
  }
  data_param {
    source: "../local_data/lmdb/RTSD/CoNorm/train/lmdb"
    batch_size: 1024
    backend: LMDB
  }
}
layer {
  name: "conv1"
  type: "Convolution"
  bottom: "data"
  top: "conv1"
  convolution_param {
    num_output: 100
    pad: 0
    kernel_size: 7
    group: 1
    stride: 1
    weight_filler {
      type: "xavier"
    }
  }
}
layer {
  name: "conv1_relu"
  type: "ReLU"
  bottom: "conv1"
  top: "conv1"
}
layer {
  name: "pool1"
  type: "Pooling"
  bottom: "conv1"
  top: "pool1"
  pooling_param {
    pool: MAX
    kernel_size: 2
    stride: 2
  }
}
layer {
  name: "conv2"
  type: "Convolution"
  bottom: "pool1"
  top: "conv2"
  convolution_param {
    num_output: 150
    pad: 0
    kernel_size: 4
    group: 1
    stride: 1
    weight_filler {
      type: "xavier"
    }
  }
}
layer {
  name: "conv2_relu"
  type: "ReLU"
  bottom: "conv2"
  top: "conv2"
}
layer {
  name: "pool2"
  type: "Pooling"
  bottom: "conv2"
  top: "pool2"
  pooling_param {
    pool: MAX
    kernel_size: 2
    stride: 2
  }
}
layer {
  name: "conv3"
  type: "Convolution"
  bottom: "pool2"
  top: "conv3"
  convolution_param {
    num_output: 250
    pad: 0
    kernel_size: 4
    group: 1
    stride: 1
    weight_filler {
      type: "xavier"
    }
  }
}
layer {
  name: "conv3_relu"
  type: "ReLU"
  bottom: "conv3"
  top: "conv3"
}
layer {
  name: "pool3"
  type: "Pooling"
  bottom: "conv3"
  top: "pool3"
  pooling_param {
    pool: MAX
    kernel_size: 2
    stride: 2
  }
}
layer {
  name: "fc4_300"
  type: "InnerProduct"
  bottom: "pool3"
  top: "fc4_300"
  inner_product_param {
    num_output: 300
    weight_filler {
      type: "xavier"
    }
  }
}
layer {
  name: "fc4_relu"
  type: "ReLU"
  bottom: "fc4_300"
  top: "fc4_300"
}
layer {
  name: "fc5_116"
  type: "InnerProduct"
  bottom: "fc4_300"
  top: "fc5_classes"
  inner_product_param {
    num_output: 116
    weight_filler {
      type: "xavier"
    }
  }
}
layer {
  name: "softmax"
  type: "Softmax"
  bottom: "fc5_classes"
  top: "softmax"
}
layer {
  name: "loss"
  type: "MultinomialLogisticLoss"
  bottom: "softmax"
  bottom: "label"
  top: "loss"
}
layer {
  name: "accuracy_1"
  type: "Accuracy"
  bottom: "fc5_classes"
  bottom: "label"
  top: "accuracy_1"
  accuracy_param {
    top_k: 1
  }
}
layer {
  name: "accuracy_5"
  type: "Accuracy"
  bottom: "fc5_classes"
  bottom: "label"
  top: "accuracy_5"
  accuracy_param {
    top_k: 5
  }
}
layer {
  name: "silence"
  type: "Silence"
  bottom: "accuracy_1"
  bottom: "accuracy_5"
}
I0527 23:06:36.058410 14759 layer_factory.hpp:77] Creating layer data
I0527 23:06:36.059511 14759 net.cpp:100] Creating Layer data
I0527 23:06:36.059530 14759 net.cpp:408] data -> data
I0527 23:06:36.059557 14759 net.cpp:408] data -> label
I0527 23:06:36.065984 14812 db_lmdb.cpp:35] Opened lmdb ../local_data/lmdb/RTSD/CoNorm/train/lmdb
I0527 23:06:36.090870 14759 data_layer.cpp:41] output data size: 1024,3,48,48
I0527 23:06:36.177604 14759 net.cpp:150] Setting up data
I0527 23:06:36.177783 14759 net.cpp:157] Top shape: 1024 3 48 48 (7077888)
I0527 23:06:36.177814 14759 net.cpp:157] Top shape: 1024 (1024)
I0527 23:06:36.177837 14759 net.cpp:165] Memory required for data: 28315648
I0527 23:06:36.177866 14759 layer_factory.hpp:77] Creating layer label_data_1_split
I0527 23:06:36.177898 14759 net.cpp:100] Creating Layer label_data_1_split
I0527 23:06:36.177922 14759 net.cpp:434] label_data_1_split <- label
I0527 23:06:36.177953 14759 net.cpp:408] label_data_1_split -> label_data_1_split_0
I0527 23:06:36.177984 14759 net.cpp:408] label_data_1_split -> label_data_1_split_1
I0527 23:06:36.178009 14759 net.cpp:408] label_data_1_split -> label_data_1_split_2
I0527 23:06:36.178092 14759 net.cpp:150] Setting up label_data_1_split
I0527 23:06:36.178119 14759 net.cpp:157] Top shape: 1024 (1024)
I0527 23:06:36.178156 14759 net.cpp:157] Top shape: 1024 (1024)
I0527 23:06:36.178174 14759 net.cpp:157] Top shape: 1024 (1024)
I0527 23:06:36.178189 14759 net.cpp:165] Memory required for data: 28327936
I0527 23:06:36.178208 14759 layer_factory.hpp:77] Creating layer conv1
I0527 23:06:36.178242 14759 net.cpp:100] Creating Layer conv1
I0527 23:06:36.178262 14759 net.cpp:434] conv1 <- data
I0527 23:06:36.178282 14759 net.cpp:408] conv1 -> conv1
I0527 23:06:36.634785 14759 net.cpp:150] Setting up conv1
I0527 23:06:36.635733 14759 net.cpp:157] Top shape: 1024 100 42 42 (180633600)
I0527 23:06:36.635768 14759 net.cpp:165] Memory required for data: 750862336
I0527 23:06:36.635805 14759 layer_factory.hpp:77] Creating layer conv1_relu
I0527 23:06:36.635834 14759 net.cpp:100] Creating Layer conv1_relu
I0527 23:06:36.635855 14759 net.cpp:434] conv1_relu <- conv1
I0527 23:06:36.635879 14759 net.cpp:395] conv1_relu -> conv1 (in-place)
I0527 23:06:36.636134 14759 net.cpp:150] Setting up conv1_relu
I0527 23:06:36.636165 14759 net.cpp:157] Top shape: 1024 100 42 42 (180633600)
I0527 23:06:36.636188 14759 net.cpp:165] Memory required for data: 1473396736
I0527 23:06:36.636207 14759 layer_factory.hpp:77] Creating layer pool1
I0527 23:06:36.636234 14759 net.cpp:100] Creating Layer pool1
I0527 23:06:36.636255 14759 net.cpp:434] pool1 <- conv1
I0527 23:06:36.636276 14759 net.cpp:408] pool1 -> pool1
I0527 23:06:36.636353 14759 net.cpp:150] Setting up pool1
I0527 23:06:36.636379 14759 net.cpp:157] Top shape: 1024 100 21 21 (45158400)
I0527 23:06:36.636399 14759 net.cpp:165] Memory required for data: 1654030336
I0527 23:06:36.636417 14759 layer_factory.hpp:77] Creating layer conv2
I0527 23:06:36.636445 14759 net.cpp:100] Creating Layer conv2
I0527 23:06:36.636462 14759 net.cpp:434] conv2 <- pool1
I0527 23:06:36.636485 14759 net.cpp:408] conv2 -> conv2
I0527 23:06:36.645920 14759 net.cpp:150] Setting up conv2
I0527 23:06:36.646013 14759 net.cpp:157] Top shape: 1024 150 18 18 (49766400)
I0527 23:06:36.646052 14759 net.cpp:165] Memory required for data: 1853095936
I0527 23:06:36.646092 14759 layer_factory.hpp:77] Creating layer conv2_relu
I0527 23:06:36.646128 14759 net.cpp:100] Creating Layer conv2_relu
I0527 23:06:36.646157 14759 net.cpp:434] conv2_relu <- conv2
I0527 23:06:36.646185 14759 net.cpp:395] conv2_relu -> conv2 (in-place)
I0527 23:06:36.646384 14759 net.cpp:150] Setting up conv2_relu
I0527 23:06:36.646426 14759 net.cpp:157] Top shape: 1024 150 18 18 (49766400)
I0527 23:06:36.646455 14759 net.cpp:165] Memory required for data: 2052161536
I0527 23:06:36.646481 14759 layer_factory.hpp:77] Creating layer pool2
I0527 23:06:36.646510 14759 net.cpp:100] Creating Layer pool2
I0527 23:06:36.646535 14759 net.cpp:434] pool2 <- conv2
I0527 23:06:36.646564 14759 net.cpp:408] pool2 -> pool2
I0527 23:06:36.646630 14759 net.cpp:150] Setting up pool2
I0527 23:06:36.646662 14759 net.cpp:157] Top shape: 1024 150 9 9 (12441600)
I0527 23:06:36.646689 14759 net.cpp:165] Memory required for data: 2101927936
I0527 23:06:36.646718 14759 layer_factory.hpp:77] Creating layer conv3
I0527 23:06:36.646755 14759 net.cpp:100] Creating Layer conv3
I0527 23:06:36.646791 14759 net.cpp:434] conv3 <- pool2
I0527 23:06:36.646828 14759 net.cpp:408] conv3 -> conv3
I0527 23:06:36.658323 14759 net.cpp:150] Setting up conv3
I0527 23:06:36.664789 14759 net.cpp:157] Top shape: 1024 250 6 6 (9216000)
I0527 23:06:36.664829 14759 net.cpp:165] Memory required for data: 2138791936
I0527 23:06:36.664862 14759 layer_factory.hpp:77] Creating layer conv3_relu
I0527 23:06:36.664890 14759 net.cpp:100] Creating Layer conv3_relu
I0527 23:06:36.664909 14759 net.cpp:434] conv3_relu <- conv3
I0527 23:06:36.664932 14759 net.cpp:395] conv3_relu -> conv3 (in-place)
I0527 23:06:36.665599 14759 net.cpp:150] Setting up conv3_relu
I0527 23:06:36.665637 14759 net.cpp:157] Top shape: 1024 250 6 6 (9216000)
I0527 23:06:36.665657 14759 net.cpp:165] Memory required for data: 2175655936
I0527 23:06:36.665676 14759 layer_factory.hpp:77] Creating layer pool3
I0527 23:06:36.667230 14759 net.cpp:100] Creating Layer pool3
I0527 23:06:36.667269 14759 net.cpp:434] pool3 <- conv3
I0527 23:06:36.667299 14759 net.cpp:408] pool3 -> pool3
I0527 23:06:36.667383 14759 net.cpp:150] Setting up pool3
I0527 23:06:36.667412 14759 net.cpp:157] Top shape: 1024 250 3 3 (2304000)
I0527 23:06:36.667435 14759 net.cpp:165] Memory required for data: 2184871936
I0527 23:06:36.667456 14759 layer_factory.hpp:77] Creating layer fc4_300
I0527 23:06:36.667482 14759 net.cpp:100] Creating Layer fc4_300
I0527 23:06:36.667505 14759 net.cpp:434] fc4_300 <- pool3
I0527 23:06:36.667528 14759 net.cpp:408] fc4_300 -> fc4_300
I0527 23:06:36.675441 14759 net.cpp:150] Setting up fc4_300
I0527 23:06:36.675530 14759 net.cpp:157] Top shape: 1024 300 (307200)
I0527 23:06:36.675550 14759 net.cpp:165] Memory required for data: 2186100736
I0527 23:06:36.675577 14759 layer_factory.hpp:77] Creating layer fc4_relu
I0527 23:06:36.675601 14759 net.cpp:100] Creating Layer fc4_relu
I0527 23:06:36.675621 14759 net.cpp:434] fc4_relu <- fc4_300
I0527 23:06:36.675642 14759 net.cpp:395] fc4_relu -> fc4_300 (in-place)
I0527 23:06:36.675879 14759 net.cpp:150] Setting up fc4_relu
I0527 23:06:36.675906 14759 net.cpp:157] Top shape: 1024 300 (307200)
I0527 23:06:36.675925 14759 net.cpp:165] Memory required for data: 2187329536
I0527 23:06:36.675942 14759 layer_factory.hpp:77] Creating layer fc5_116
I0527 23:06:36.675964 14759 net.cpp:100] Creating Layer fc5_116
I0527 23:06:36.675982 14759 net.cpp:434] fc5_116 <- fc4_300
I0527 23:06:36.676002 14759 net.cpp:408] fc5_116 -> fc5_classes
I0527 23:06:36.677428 14759 net.cpp:150] Setting up fc5_116
I0527 23:06:36.677467 14759 net.cpp:157] Top shape: 1024 116 (118784)
I0527 23:06:36.677486 14759 net.cpp:165] Memory required for data: 2187804672
I0527 23:06:36.677512 14759 layer_factory.hpp:77] Creating layer fc5_classes_fc5_116_0_split
I0527 23:06:36.677533 14759 net.cpp:100] Creating Layer fc5_classes_fc5_116_0_split
I0527 23:06:36.677551 14759 net.cpp:434] fc5_classes_fc5_116_0_split <- fc5_classes
I0527 23:06:36.677570 14759 net.cpp:408] fc5_classes_fc5_116_0_split -> fc5_classes_fc5_116_0_split_0
I0527 23:06:36.677593 14759 net.cpp:408] fc5_classes_fc5_116_0_split -> fc5_classes_fc5_116_0_split_1
I0527 23:06:36.677614 14759 net.cpp:408] fc5_classes_fc5_116_0_split -> fc5_classes_fc5_116_0_split_2
I0527 23:06:36.677681 14759 net.cpp:150] Setting up fc5_classes_fc5_116_0_split
I0527 23:06:36.677707 14759 net.cpp:157] Top shape: 1024 116 (118784)
I0527 23:06:36.677726 14759 net.cpp:157] Top shape: 1024 116 (118784)
I0527 23:06:36.677744 14759 net.cpp:157] Top shape: 1024 116 (118784)
I0527 23:06:36.677760 14759 net.cpp:165] Memory required for data: 2189230080
I0527 23:06:36.677778 14759 layer_factory.hpp:77] Creating layer softmax
I0527 23:06:36.677798 14759 net.cpp:100] Creating Layer softmax
I0527 23:06:36.677815 14759 net.cpp:434] softmax <- fc5_classes_fc5_116_0_split_0
I0527 23:06:36.677834 14759 net.cpp:408] softmax -> softmax
I0527 23:06:36.678083 14759 net.cpp:150] Setting up softmax
I0527 23:06:36.678112 14759 net.cpp:157] Top shape: 1024 116 (118784)
I0527 23:06:36.678134 14759 net.cpp:165] Memory required for data: 2189705216
I0527 23:06:36.678153 14759 layer_factory.hpp:77] Creating layer loss
I0527 23:06:36.678191 14759 net.cpp:100] Creating Layer loss
I0527 23:06:36.678210 14759 net.cpp:434] loss <- softmax
I0527 23:06:36.678228 14759 net.cpp:434] loss <- label_data_1_split_0
I0527 23:06:36.678247 14759 net.cpp:408] loss -> loss
…
