…
I0412 08:24:30.491498 22195 solver.cpp:93] Creating training net from train_net file: ./Prototxt/experiment_10/rtsd-r1/histeq/trial_4/train.prototxt
I0412 08:24:30.491943 22195 net.cpp:58] Initializing net from parameters: 
state {
  phase: TRAIN
  level: 0
  stage: ""
}
layer {
  name: "data"
  type: "Data"
  top: "data"
  top: "label"
  include {
    phase: TRAIN
  }
  transform_param {
    scale: 0.0039215689
    mirror: false
    crop_size: 48
    mean_value: 130
    mean_value: 123
    mean_value: 137
  }
  data_param {
    source: "../local_data/lmdb/rtsd-r1/histeq/train/lmdb"
    batch_size: 1024
    backend: LMDB
  }
}
layer {
  name: "conv1"
  type: "Convolution"
  bottom: "data"
  top: "conv1"
  convolution_param {
    num_output: 100
    pad: 0
    kernel_size: 7
    group: 1
    stride: 1
    weight_filler {
      type: "xavier"
    }
  }
}
layer {
  name: "conv1_relu"
  type: "ReLU"
  bottom: "conv1"
  top: "conv1"
}
layer {
  name: "pool1"
  type: "Pooling"
  bottom: "conv1"
  top: "pool1"
  pooling_param {
    pool: MAX
    kernel_size: 2
    stride: 2
  }
}
layer {
  name: "conv2"
  type: "Convolution"
  bottom: "pool1"
  top: "conv2"
  convolution_param {
    num_output: 150
    pad: 0
    kernel_size: 4
    group: 1
    stride: 1
    weight_filler {
      type: "xavier"
    }
  }
}
layer {
  name: "conv2_relu"
  type: "ReLU"
  bottom: "conv2"
  top: "conv2"
}
layer {
  name: "pool2"
  type: "Pooling"
  bottom: "conv2"
  top: "pool2"
  pooling_param {
    pool: MAX
    kernel_size: 2
    stride: 2
  }
}
layer {
  name: "conv3"
  type: "Convolution"
  bottom: "pool2"
  top: "conv3"
  convolution_param {
    num_output: 250
    pad: 0
    kernel_size: 4
    group: 1
    stride: 1
    weight_filler {
      type: "xavier"
    }
  }
}
layer {
  name: "conv3_relu"
  type: "ReLU"
  bottom: "conv3"
  top: "conv3"
}
layer {
  name: "pool3"
  type: "Pooling"
  bottom: "conv3"
  top: "pool3"
  pooling_param {
    pool: MAX
    kernel_size: 2
    stride: 2
  }
}
layer {
  name: "fc4_300"
  type: "InnerProduct"
  bottom: "pool3"
  top: "fc4_300"
  inner_product_param {
    num_output: 300
    weight_filler {
      type: "xavier"
    }
  }
}
layer {
  name: "fc4_relu"
  type: "ReLU"
  bottom: "fc4_300"
  top: "fc4_300"
}
layer {
  name: "drop4"
  type: "Dropout"
  bottom: "fc4_300"
  top: "fc4_300"
  dropout_param {
    dropout_ratio: 0.4
  }
}
layer {
  name: "fc5_67"
  type: "InnerProduct"
  bottom: "fc4_300"
  top: "fc5_classes"
  inner_product_param {
    num_output: 67
    weight_filler {
      type: "xavier"
    }
  }
}
layer {
  name: "softmax"
  type: "Softmax"
  bottom: "fc5_classes"
  top: "softmax"
}
layer {
  name: "loss"
  type: "MultinomialLogisticLoss"
  bottom: "softmax"
  bottom: "label"
  top: "loss"
}
layer {
  name: "accuracy_1"
  type: "Accuracy"
  bottom: "fc5_classes"
  bottom: "label"
  top: "accuracy_1"
  accuracy_param {
    top_k: 1
  }
}
layer {
  name: "accuracy_5"
  type: "Accuracy"
  bottom: "fc5_classes"
  bottom: "label"
  top: "accuracy_5"
  accuracy_param {
    top_k: 5
  }
}
I0412 08:24:30.492097 22195 layer_factory.hpp:77] Creating layer data
I0412 08:24:30.493445 22195 net.cpp:100] Creating Layer data
I0412 08:24:30.493465 22195 net.cpp:408] data -> data
I0412 08:24:30.493492 22195 net.cpp:408] data -> label
I0412 08:24:30.497087 22322 db_lmdb.cpp:35] Opened lmdb ../local_data/lmdb/rtsd-r1/histeq/train/lmdb
I0412 08:24:30.518648 22195 data_layer.cpp:41] output data size: 1024,3,48,48
I0412 08:24:30.570180 22195 net.cpp:150] Setting up data
I0412 08:24:30.570219 22195 net.cpp:157] Top shape: 1024 3 48 48 (7077888)
I0412 08:24:30.570225 22195 net.cpp:157] Top shape: 1024 (1024)
I0412 08:24:30.570227 22195 net.cpp:165] Memory required for data: 28315648
I0412 08:24:30.570240 22195 layer_factory.hpp:77] Creating layer label_data_1_split
I0412 08:24:30.570255 22195 net.cpp:100] Creating Layer label_data_1_split
I0412 08:24:30.570262 22195 net.cpp:434] label_data_1_split <- label
I0412 08:24:30.570282 22195 net.cpp:408] label_data_1_split -> label_data_1_split_0
I0412 08:24:30.570297 22195 net.cpp:408] label_data_1_split -> label_data_1_split_1
I0412 08:24:30.570307 22195 net.cpp:408] label_data_1_split -> label_data_1_split_2
I0412 08:24:30.570399 22195 net.cpp:150] Setting up label_data_1_split
I0412 08:24:30.570410 22195 net.cpp:157] Top shape: 1024 (1024)
I0412 08:24:30.570415 22195 net.cpp:157] Top shape: 1024 (1024)
I0412 08:24:30.570418 22195 net.cpp:157] Top shape: 1024 (1024)
I0412 08:24:30.570421 22195 net.cpp:165] Memory required for data: 28327936
I0412 08:24:30.570425 22195 layer_factory.hpp:77] Creating layer conv1
I0412 08:24:30.570446 22195 net.cpp:100] Creating Layer conv1
I0412 08:24:30.570451 22195 net.cpp:434] conv1 <- data
I0412 08:24:30.570458 22195 net.cpp:408] conv1 -> conv1
I0412 08:24:30.931792 22195 net.cpp:150] Setting up conv1
I0412 08:24:30.931823 22195 net.cpp:157] Top shape: 1024 100 42 42 (180633600)
I0412 08:24:30.931826 22195 net.cpp:165] Memory required for data: 750862336
I0412 08:24:30.931850 22195 layer_factory.hpp:77] Creating layer conv1_relu
I0412 08:24:30.931864 22195 net.cpp:100] Creating Layer conv1_relu
I0412 08:24:30.931871 22195 net.cpp:434] conv1_relu <- conv1
I0412 08:24:30.931892 22195 net.cpp:395] conv1_relu -> conv1 (in-place)
I0412 08:24:30.932132 22195 net.cpp:150] Setting up conv1_relu
I0412 08:24:30.932147 22195 net.cpp:157] Top shape: 1024 100 42 42 (180633600)
I0412 08:24:30.932152 22195 net.cpp:165] Memory required for data: 1473396736
I0412 08:24:30.932157 22195 layer_factory.hpp:77] Creating layer pool1
I0412 08:24:30.932168 22195 net.cpp:100] Creating Layer pool1
I0412 08:24:30.932173 22195 net.cpp:434] pool1 <- conv1
I0412 08:24:30.932179 22195 net.cpp:408] pool1 -> pool1
I0412 08:24:30.932240 22195 net.cpp:150] Setting up pool1
I0412 08:24:30.932250 22195 net.cpp:157] Top shape: 1024 100 21 21 (45158400)
I0412 08:24:30.932255 22195 net.cpp:165] Memory required for data: 1654030336
I0412 08:24:30.932258 22195 layer_factory.hpp:77] Creating layer conv2
I0412 08:24:30.932276 22195 net.cpp:100] Creating Layer conv2
I0412 08:24:30.932281 22195 net.cpp:434] conv2 <- pool1
I0412 08:24:30.932287 22195 net.cpp:408] conv2 -> conv2
I0412 08:24:30.938599 22195 net.cpp:150] Setting up conv2
I0412 08:24:30.938621 22195 net.cpp:157] Top shape: 1024 150 18 18 (49766400)
I0412 08:24:30.938624 22195 net.cpp:165] Memory required for data: 1853095936
I0412 08:24:30.938637 22195 layer_factory.hpp:77] Creating layer conv2_relu
I0412 08:24:30.938647 22195 net.cpp:100] Creating Layer conv2_relu
I0412 08:24:30.938652 22195 net.cpp:434] conv2_relu <- conv2
I0412 08:24:30.938659 22195 net.cpp:395] conv2_relu -> conv2 (in-place)
I0412 08:24:30.939659 22195 net.cpp:150] Setting up conv2_relu
I0412 08:24:30.939678 22195 net.cpp:157] Top shape: 1024 150 18 18 (49766400)
I0412 08:24:30.939683 22195 net.cpp:165] Memory required for data: 2052161536
I0412 08:24:30.939688 22195 layer_factory.hpp:77] Creating layer pool2
I0412 08:24:30.939697 22195 net.cpp:100] Creating Layer pool2
I0412 08:24:30.939700 22195 net.cpp:434] pool2 <- conv2
I0412 08:24:30.939707 22195 net.cpp:408] pool2 -> pool2
I0412 08:24:30.939765 22195 net.cpp:150] Setting up pool2
I0412 08:24:30.939774 22195 net.cpp:157] Top shape: 1024 150 9 9 (12441600)
I0412 08:24:30.939779 22195 net.cpp:165] Memory required for data: 2101927936
I0412 08:24:30.939784 22195 layer_factory.hpp:77] Creating layer conv3
I0412 08:24:30.939795 22195 net.cpp:100] Creating Layer conv3
I0412 08:24:30.939800 22195 net.cpp:434] conv3 <- pool2
I0412 08:24:30.939831 22195 net.cpp:408] conv3 -> conv3
I0412 08:24:30.946979 22195 net.cpp:150] Setting up conv3
I0412 08:24:30.947005 22195 net.cpp:157] Top shape: 1024 250 6 6 (9216000)
I0412 08:24:30.947008 22195 net.cpp:165] Memory required for data: 2138791936
I0412 08:24:30.947023 22195 layer_factory.hpp:77] Creating layer conv3_relu
I0412 08:24:30.947032 22195 net.cpp:100] Creating Layer conv3_relu
I0412 08:24:30.947038 22195 net.cpp:434] conv3_relu <- conv3
I0412 08:24:30.947044 22195 net.cpp:395] conv3_relu -> conv3 (in-place)
I0412 08:24:30.955024 22195 net.cpp:150] Setting up conv3_relu
I0412 08:24:30.955060 22195 net.cpp:157] Top shape: 1024 250 6 6 (9216000)
I0412 08:24:30.955067 22195 net.cpp:165] Memory required for data: 2175655936
I0412 08:24:30.955075 22195 layer_factory.hpp:77] Creating layer pool3
I0412 08:24:30.955096 22195 net.cpp:100] Creating Layer pool3
I0412 08:24:30.955106 22195 net.cpp:434] pool3 <- conv3
I0412 08:24:30.955127 22195 net.cpp:408] pool3 -> pool3
I0412 08:24:30.955212 22195 net.cpp:150] Setting up pool3
I0412 08:24:30.955229 22195 net.cpp:157] Top shape: 1024 250 3 3 (2304000)
I0412 08:24:30.955238 22195 net.cpp:165] Memory required for data: 2184871936
I0412 08:24:30.955245 22195 layer_factory.hpp:77] Creating layer fc4_300
I0412 08:24:30.955258 22195 net.cpp:100] Creating Layer fc4_300
I0412 08:24:30.955267 22195 net.cpp:434] fc4_300 <- pool3
I0412 08:24:30.955279 22195 net.cpp:408] fc4_300 -> fc4_300
I0412 08:24:30.966226 22195 net.cpp:150] Setting up fc4_300
I0412 08:24:30.966248 22195 net.cpp:157] Top shape: 1024 300 (307200)
I0412 08:24:30.966251 22195 net.cpp:165] Memory required for data: 2186100736
I0412 08:24:30.966261 22195 layer_factory.hpp:77] Creating layer fc4_relu
I0412 08:24:30.966270 22195 net.cpp:100] Creating Layer fc4_relu
I0412 08:24:30.966274 22195 net.cpp:434] fc4_relu <- fc4_300
I0412 08:24:30.966280 22195 net.cpp:395] fc4_relu -> fc4_300 (in-place)
I0412 08:24:30.966522 22195 net.cpp:150] Setting up fc4_relu
I0412 08:24:30.966537 22195 net.cpp:157] Top shape: 1024 300 (307200)
I0412 08:24:30.966542 22195 net.cpp:165] Memory required for data: 2187329536
I0412 08:24:30.966547 22195 layer_factory.hpp:77] Creating layer drop4
I0412 08:24:30.966554 22195 net.cpp:100] Creating Layer drop4
I0412 08:24:30.966559 22195 net.cpp:434] drop4 <- fc4_300
I0412 08:24:30.966565 22195 net.cpp:395] drop4 -> fc4_300 (in-place)
I0412 08:24:30.966603 22195 net.cpp:150] Setting up drop4
I0412 08:24:30.966610 22195 net.cpp:157] Top shape: 1024 300 (307200)
I0412 08:24:30.966614 22195 net.cpp:165] Memory required for data: 2188558336
I0412 08:24:30.966619 22195 layer_factory.hpp:77] Creating layer fc5_67
I0412 08:24:30.966625 22195 net.cpp:100] Creating Layer fc5_67
I0412 08:24:30.966631 22195 net.cpp:434] fc5_67 <- fc4_300
I0412 08:24:30.966637 22195 net.cpp:408] fc5_67 -> fc5_classes
I0412 08:24:30.968225 22195 net.cpp:150] Setting up fc5_67
I0412 08:24:30.968247 22195 net.cpp:157] Top shape: 1024 67 (68608)
I0412 08:24:30.968251 22195 net.cpp:165] Memory required for data: 2188832768
I0412 08:24:30.968272 22195 layer_factory.hpp:77] Creating layer fc5_classes_fc5_67_0_split
I0412 08:24:30.968281 22195 net.cpp:100] Creating Layer fc5_classes_fc5_67_0_split
I0412 08:24:30.968286 22195 net.cpp:434] fc5_classes_fc5_67_0_split <- fc5_classes
I0412 08:24:30.968292 22195 net.cpp:408] fc5_classes_fc5_67_0_split -> fc5_classes_fc5_67_0_split_0
I0412 08:24:30.968302 22195 net.cpp:408] fc5_classes_fc5_67_0_split -> fc5_classes_fc5_67_0_split_1
I0412 08:24:30.968312 22195 net.cpp:408] fc5_classes_fc5_67_0_split -> fc5_classes_fc5_67_0_split_2
I0412 08:24:30.968374 22195 net.cpp:150] Setting up fc5_classes_fc5_67_0_split
I0412 08:24:30.968382 22195 net.cpp:157] Top shape: 1024 67 (68608)
I0412 08:24:30.968386 22195 net.cpp:157] Top shape: 1024 67 (68608)
I0412 08:24:30.968390 22195 net.cpp:157] Top shape: 1024 67 (68608)
I0412 08:24:30.968394 22195 net.cpp:165] Memory required for data: 2189656064
I0412 08:24:30.968397 22195 layer_factory.hpp:77] Creating layer softmax
I0412 08:24:30.968430 22195 net.cpp:100] Creating Layer softmax
I0412 08:24:30.968435 22195 net.cpp:434] softmax <- fc5_classes_fc5_67_0_split_0
I0412 08:24:30.968441 22195 net.cpp:408] softmax -> softmax
I0412 08:24:30.968746 22195 net.cpp:150] Setting up softmax
I0412 08:24:30.968760 22195 net.cpp:157] Top shape: 1024 67 (68608)
I0412 08:24:30.968765 22195 net.cpp:165] Memory required for data: 2189930496
I0412 08:24:30.968770 22195 layer_factory.hpp:77] Creating layer loss
I0412 08:24:30.968777 22195 net.cpp:100] Creating Layer loss
I0412 08:24:30.968783 22195 net.cpp:434] loss <- softmax
I0412 08:24:30.968788 22195 net.cpp:434] loss <- label_data_1_split_0
I0412 08:24:30.968794 22195 net.cpp:408] loss -> loss
…
