…
I0414 07:37:24.308431 26726 solver.cpp:93] Creating training net from train_net file: ./Prototxt/experiment_10/rtsd-r1/histeq/trial_4/train.prototxt
I0414 07:37:24.308768 26726 net.cpp:58] Initializing net from parameters: 
state {
  phase: TRAIN
  level: 0
  stage: ""
}
layer {
  name: "data"
  type: "Data"
  top: "data"
  top: "label"
  include {
    phase: TRAIN
  }
  transform_param {
    scale: 0.0039215689
    mirror: false
    crop_size: 48
    mean_value: 130
    mean_value: 123
    mean_value: 137
  }
  data_param {
    source: "../local_data/lmdb/rtsd-r1/histeq/train/lmdb"
    batch_size: 1024
    backend: LMDB
  }
}
layer {
  name: "conv1"
  type: "Convolution"
  bottom: "data"
  top: "conv1"
  convolution_param {
    num_output: 100
    pad: 0
    kernel_size: 7
    group: 1
    stride: 1
    weight_filler {
      type: "xavier"
    }
  }
}
layer {
  name: "conv1_relu"
  type: "ReLU"
  bottom: "conv1"
  top: "conv1"
}
layer {
  name: "pool1"
  type: "Pooling"
  bottom: "conv1"
  top: "pool1"
  pooling_param {
    pool: MAX
    kernel_size: 2
    stride: 2
  }
}
layer {
  name: "conv2"
  type: "Convolution"
  bottom: "pool1"
  top: "conv2"
  convolution_param {
    num_output: 150
    pad: 0
    kernel_size: 4
    group: 1
    stride: 1
    weight_filler {
      type: "xavier"
    }
  }
}
layer {
  name: "conv2_relu"
  type: "ReLU"
  bottom: "conv2"
  top: "conv2"
}
layer {
  name: "pool2"
  type: "Pooling"
  bottom: "conv2"
  top: "pool2"
  pooling_param {
    pool: MAX
    kernel_size: 2
    stride: 2
  }
}
layer {
  name: "conv3"
  type: "Convolution"
  bottom: "pool2"
  top: "conv3"
  convolution_param {
    num_output: 250
    pad: 0
    kernel_size: 4
    group: 1
    stride: 1
    weight_filler {
      type: "xavier"
    }
  }
}
layer {
  name: "conv3_relu"
  type: "ReLU"
  bottom: "conv3"
  top: "conv3"
}
layer {
  name: "pool3"
  type: "Pooling"
  bottom: "conv3"
  top: "pool3"
  pooling_param {
    pool: MAX
    kernel_size: 2
    stride: 2
  }
}
layer {
  name: "fc4_300"
  type: "InnerProduct"
  bottom: "pool3"
  top: "fc4_300"
  inner_product_param {
    num_output: 300
    weight_filler {
      type: "xavier"
    }
  }
}
layer {
  name: "fc4_relu"
  type: "ReLU"
  bottom: "fc4_300"
  top: "fc4_300"
}
layer {
  name: "fc5_67"
  type: "InnerProduct"
  bottom: "fc4_300"
  top: "fc5_classes"
  inner_product_param {
    num_output: 67
    weight_filler {
      type: "xavier"
    }
  }
}
layer {
  name: "softmax"
  type: "Softmax"
  bottom: "fc5_classes"
  top: "softmax"
}
layer {
  name: "loss"
  type: "MultinomialLogisticLoss"
  bottom: "softmax"
  bottom: "label"
  top: "loss"
}
layer {
  name: "accuracy_1"
  type: "Accuracy"
  bottom: "fc5_classes"
  bottom: "label"
  top: "accuracy_1"
  accuracy_param {
    top_k: 1
  }
}
layer {
  name: "accuracy_5"
  type: "Accuracy"
  bottom: "fc5_classes"
  bottom: "label"
  top: "accuracy_5"
  accuracy_param {
    top_k: 5
  }
}
layer {
  name: "silence"
  type: "Silence"
  bottom: "accuracy_1"
  bottom: "accuracy_5"
}
I0414 07:37:24.308886 26726 layer_factory.hpp:77] Creating layer data
I0414 07:37:24.309976 26726 net.cpp:100] Creating Layer data
I0414 07:37:24.309993 26726 net.cpp:408] data -> data
I0414 07:37:24.310016 26726 net.cpp:408] data -> label
I0414 07:37:24.314745 26847 db_lmdb.cpp:35] Opened lmdb ../local_data/lmdb/rtsd-r1/histeq/train/lmdb
I0414 07:37:24.333009 26726 data_layer.cpp:41] output data size: 1024,3,48,48
I0414 07:37:24.394490 26726 net.cpp:150] Setting up data
I0414 07:37:24.394544 26726 net.cpp:157] Top shape: 1024 3 48 48 (7077888)
I0414 07:37:24.394551 26726 net.cpp:157] Top shape: 1024 (1024)
I0414 07:37:24.394554 26726 net.cpp:165] Memory required for data: 28315648
I0414 07:37:24.394564 26726 layer_factory.hpp:77] Creating layer label_data_1_split
I0414 07:37:24.394578 26726 net.cpp:100] Creating Layer label_data_1_split
I0414 07:37:24.394585 26726 net.cpp:434] label_data_1_split <- label
I0414 07:37:24.394598 26726 net.cpp:408] label_data_1_split -> label_data_1_split_0
I0414 07:37:24.394609 26726 net.cpp:408] label_data_1_split -> label_data_1_split_1
I0414 07:37:24.394615 26726 net.cpp:408] label_data_1_split -> label_data_1_split_2
I0414 07:37:24.394682 26726 net.cpp:150] Setting up label_data_1_split
I0414 07:37:24.394692 26726 net.cpp:157] Top shape: 1024 (1024)
I0414 07:37:24.394695 26726 net.cpp:157] Top shape: 1024 (1024)
I0414 07:37:24.394700 26726 net.cpp:157] Top shape: 1024 (1024)
I0414 07:37:24.394701 26726 net.cpp:165] Memory required for data: 28327936
I0414 07:37:24.394706 26726 layer_factory.hpp:77] Creating layer conv1
I0414 07:37:24.394721 26726 net.cpp:100] Creating Layer conv1
I0414 07:37:24.394726 26726 net.cpp:434] conv1 <- data
I0414 07:37:24.394732 26726 net.cpp:408] conv1 -> conv1
I0414 07:37:24.767244 26726 net.cpp:150] Setting up conv1
I0414 07:37:24.767276 26726 net.cpp:157] Top shape: 1024 100 42 42 (180633600)
I0414 07:37:24.767280 26726 net.cpp:165] Memory required for data: 750862336
I0414 07:37:24.767302 26726 layer_factory.hpp:77] Creating layer conv1_relu
I0414 07:37:24.767313 26726 net.cpp:100] Creating Layer conv1_relu
I0414 07:37:24.767318 26726 net.cpp:434] conv1_relu <- conv1
I0414 07:37:24.767323 26726 net.cpp:395] conv1_relu -> conv1 (in-place)
I0414 07:37:24.767540 26726 net.cpp:150] Setting up conv1_relu
I0414 07:37:24.767552 26726 net.cpp:157] Top shape: 1024 100 42 42 (180633600)
I0414 07:37:24.767555 26726 net.cpp:165] Memory required for data: 1473396736
I0414 07:37:24.767560 26726 layer_factory.hpp:77] Creating layer pool1
I0414 07:37:24.767570 26726 net.cpp:100] Creating Layer pool1
I0414 07:37:24.767575 26726 net.cpp:434] pool1 <- conv1
I0414 07:37:24.767581 26726 net.cpp:408] pool1 -> pool1
I0414 07:37:24.767637 26726 net.cpp:150] Setting up pool1
I0414 07:37:24.767647 26726 net.cpp:157] Top shape: 1024 100 21 21 (45158400)
I0414 07:37:24.767649 26726 net.cpp:165] Memory required for data: 1654030336
I0414 07:37:24.767652 26726 layer_factory.hpp:77] Creating layer conv2
I0414 07:37:24.767664 26726 net.cpp:100] Creating Layer conv2
I0414 07:37:24.767669 26726 net.cpp:434] conv2 <- pool1
I0414 07:37:24.767674 26726 net.cpp:408] conv2 -> conv2
I0414 07:37:24.780306 26726 net.cpp:150] Setting up conv2
I0414 07:37:24.780325 26726 net.cpp:157] Top shape: 1024 150 18 18 (49766400)
I0414 07:37:24.780328 26726 net.cpp:165] Memory required for data: 1853095936
I0414 07:37:24.780339 26726 layer_factory.hpp:77] Creating layer conv2_relu
I0414 07:37:24.780349 26726 net.cpp:100] Creating Layer conv2_relu
I0414 07:37:24.780352 26726 net.cpp:434] conv2_relu <- conv2
I0414 07:37:24.780357 26726 net.cpp:395] conv2_relu -> conv2 (in-place)
I0414 07:37:24.781378 26726 net.cpp:150] Setting up conv2_relu
I0414 07:37:24.781395 26726 net.cpp:157] Top shape: 1024 150 18 18 (49766400)
I0414 07:37:24.781399 26726 net.cpp:165] Memory required for data: 2052161536
I0414 07:37:24.781404 26726 layer_factory.hpp:77] Creating layer pool2
I0414 07:37:24.781410 26726 net.cpp:100] Creating Layer pool2
I0414 07:37:24.781415 26726 net.cpp:434] pool2 <- conv2
I0414 07:37:24.781420 26726 net.cpp:408] pool2 -> pool2
I0414 07:37:24.781473 26726 net.cpp:150] Setting up pool2
I0414 07:37:24.781482 26726 net.cpp:157] Top shape: 1024 150 9 9 (12441600)
I0414 07:37:24.781486 26726 net.cpp:165] Memory required for data: 2101927936
I0414 07:37:24.781488 26726 layer_factory.hpp:77] Creating layer conv3
I0414 07:37:24.781502 26726 net.cpp:100] Creating Layer conv3
I0414 07:37:24.781507 26726 net.cpp:434] conv3 <- pool2
I0414 07:37:24.781518 26726 net.cpp:408] conv3 -> conv3
I0414 07:37:24.788790 26726 net.cpp:150] Setting up conv3
I0414 07:37:24.788807 26726 net.cpp:157] Top shape: 1024 250 6 6 (9216000)
I0414 07:37:24.788811 26726 net.cpp:165] Memory required for data: 2138791936
I0414 07:37:24.788825 26726 layer_factory.hpp:77] Creating layer conv3_relu
I0414 07:37:24.788833 26726 net.cpp:100] Creating Layer conv3_relu
I0414 07:37:24.788839 26726 net.cpp:434] conv3_relu <- conv3
I0414 07:37:24.788846 26726 net.cpp:395] conv3_relu -> conv3 (in-place)
I0414 07:37:24.792029 26726 net.cpp:150] Setting up conv3_relu
I0414 07:37:24.792047 26726 net.cpp:157] Top shape: 1024 250 6 6 (9216000)
I0414 07:37:24.792049 26726 net.cpp:165] Memory required for data: 2175655936
I0414 07:37:24.792053 26726 layer_factory.hpp:77] Creating layer pool3
I0414 07:37:24.792062 26726 net.cpp:100] Creating Layer pool3
I0414 07:37:24.792068 26726 net.cpp:434] pool3 <- conv3
I0414 07:37:24.792073 26726 net.cpp:408] pool3 -> pool3
I0414 07:37:24.792124 26726 net.cpp:150] Setting up pool3
I0414 07:37:24.792136 26726 net.cpp:157] Top shape: 1024 250 3 3 (2304000)
I0414 07:37:24.792140 26726 net.cpp:165] Memory required for data: 2184871936
I0414 07:37:24.792142 26726 layer_factory.hpp:77] Creating layer fc4_300
I0414 07:37:24.792151 26726 net.cpp:100] Creating Layer fc4_300
I0414 07:37:24.792155 26726 net.cpp:434] fc4_300 <- pool3
I0414 07:37:24.792160 26726 net.cpp:408] fc4_300 -> fc4_300
I0414 07:37:24.797703 26726 net.cpp:150] Setting up fc4_300
I0414 07:37:24.797719 26726 net.cpp:157] Top shape: 1024 300 (307200)
I0414 07:37:24.797722 26726 net.cpp:165] Memory required for data: 2186100736
I0414 07:37:24.797729 26726 layer_factory.hpp:77] Creating layer fc4_relu
I0414 07:37:24.797735 26726 net.cpp:100] Creating Layer fc4_relu
I0414 07:37:24.797739 26726 net.cpp:434] fc4_relu <- fc4_300
I0414 07:37:24.797745 26726 net.cpp:395] fc4_relu -> fc4_300 (in-place)
I0414 07:37:24.797945 26726 net.cpp:150] Setting up fc4_relu
I0414 07:37:24.797956 26726 net.cpp:157] Top shape: 1024 300 (307200)
I0414 07:37:24.797960 26726 net.cpp:165] Memory required for data: 2187329536
I0414 07:37:24.797962 26726 layer_factory.hpp:77] Creating layer fc5_67
I0414 07:37:24.797971 26726 net.cpp:100] Creating Layer fc5_67
I0414 07:37:24.797973 26726 net.cpp:434] fc5_67 <- fc4_300
I0414 07:37:24.797979 26726 net.cpp:408] fc5_67 -> fc5_classes
I0414 07:37:24.813730 26726 net.cpp:150] Setting up fc5_67
I0414 07:37:24.813751 26726 net.cpp:157] Top shape: 1024 67 (68608)
I0414 07:37:24.813755 26726 net.cpp:165] Memory required for data: 2187603968
I0414 07:37:24.813768 26726 layer_factory.hpp:77] Creating layer fc5_classes_fc5_67_0_split
I0414 07:37:24.813778 26726 net.cpp:100] Creating Layer fc5_classes_fc5_67_0_split
I0414 07:37:24.813784 26726 net.cpp:434] fc5_classes_fc5_67_0_split <- fc5_classes
I0414 07:37:24.813791 26726 net.cpp:408] fc5_classes_fc5_67_0_split -> fc5_classes_fc5_67_0_split_0
I0414 07:37:24.813798 26726 net.cpp:408] fc5_classes_fc5_67_0_split -> fc5_classes_fc5_67_0_split_1
I0414 07:37:24.813807 26726 net.cpp:408] fc5_classes_fc5_67_0_split -> fc5_classes_fc5_67_0_split_2
I0414 07:37:24.813863 26726 net.cpp:150] Setting up fc5_classes_fc5_67_0_split
I0414 07:37:24.813869 26726 net.cpp:157] Top shape: 1024 67 (68608)
I0414 07:37:24.813874 26726 net.cpp:157] Top shape: 1024 67 (68608)
I0414 07:37:24.813876 26726 net.cpp:157] Top shape: 1024 67 (68608)
I0414 07:37:24.813879 26726 net.cpp:165] Memory required for data: 2188427264
I0414 07:37:24.813881 26726 layer_factory.hpp:77] Creating layer softmax
I0414 07:37:24.813890 26726 net.cpp:100] Creating Layer softmax
I0414 07:37:24.813895 26726 net.cpp:434] softmax <- fc5_classes_fc5_67_0_split_0
I0414 07:37:24.813900 26726 net.cpp:408] softmax -> softmax
I0414 07:37:24.814178 26726 net.cpp:150] Setting up softmax
I0414 07:37:24.814193 26726 net.cpp:157] Top shape: 1024 67 (68608)
I0414 07:37:24.814196 26726 net.cpp:165] Memory required for data: 2188701696
I0414 07:37:24.814199 26726 layer_factory.hpp:77] Creating layer loss
I0414 07:37:24.814214 26726 net.cpp:100] Creating Layer loss
I0414 07:37:24.814237 26726 net.cpp:434] loss <- softmax
I0414 07:37:24.814242 26726 net.cpp:434] loss <- label_data_1_split_0
I0414 07:37:24.814249 26726 net.cpp:408] loss -> loss
…
