…
I0508 04:22:32.627260 13582 solver.cpp:93] Creating training net from train_net file: ./Prototxt/experiment_15/RTSD/CoNorm/trial_4/train.prototxt
I0508 04:22:32.627719 13582 net.cpp:58] Initializing net from parameters: 
state {
  phase: TRAIN
  level: 0
  stage: ""
}
layer {
  name: "data"
  type: "Data"
  top: "data"
  top: "label"
  include {
    phase: TRAIN
  }
  transform_param {
    scale: 0.0039215689
    mirror: false
    crop_size: 48
    mean_value: 135
    mean_value: 135
    mean_value: 134
  }
  data_param {
    source: "../local_data/lmdb/RTSD/CoNorm/train/lmdb"
    batch_size: 1024
    backend: LMDB
  }
}
layer {
  name: "conv1"
  type: "Convolution"
  bottom: "data"
  top: "conv1"
  convolution_param {
    num_output: 100
    pad: 0
    kernel_size: 7
    group: 1
    stride: 1
    weight_filler {
      type: "xavier"
    }
  }
}
layer {
  name: "conv1_prescale"
  type: "Scale"
  bottom: "conv1"
  top: "conv1"
  param {
    lr_mult: 0
    decay_mult: 0
  }
  scale_param {
    filler {
      value: 0.6666
    }
    bias_term: false
  }
}
layer {
  name: "conv1_sTanH"
  type: "TanH"
  bottom: "conv1"
  top: "conv1"
}
layer {
  name: "conv1_postscale"
  type: "Scale"
  bottom: "conv1"
  top: "conv1"
  param {
    lr_mult: 0
    decay_mult: 0
  }
  scale_param {
    filler {
      value: 1.7159
    }
    bias_term: false
  }
}
layer {
  name: "pool1"
  type: "Pooling"
  bottom: "conv1"
  top: "pool1"
  pooling_param {
    pool: MAX
    kernel_size: 2
    stride: 2
  }
}
layer {
  name: "conv2"
  type: "Convolution"
  bottom: "pool1"
  top: "conv2"
  convolution_param {
    num_output: 150
    pad: 0
    kernel_size: 4
    group: 2
    stride: 1
    weight_filler {
      type: "xavier"
    }
  }
}
layer {
  name: "conv2_prescale"
  type: "Scale"
  bottom: "conv2"
  top: "conv2"
  param {
    lr_mult: 0
    decay_mult: 0
  }
  scale_param {
    filler {
      value: 0.6666
    }
    bias_term: false
  }
}
layer {
  name: "conv2_sTanH"
  type: "TanH"
  bottom: "conv2"
  top: "conv2"
}
layer {
  name: "conv2_postscale"
  type: "Scale"
  bottom: "conv2"
  top: "conv2"
  param {
    lr_mult: 0
    decay_mult: 0
  }
  scale_param {
    filler {
      value: 1.7159
    }
    bias_term: false
  }
}
layer {
  name: "pool2"
  type: "Pooling"
  bottom: "conv2"
  top: "pool2"
  pooling_param {
    pool: MAX
    kernel_size: 2
    stride: 2
  }
}
layer {
  name: "conv3"
  type: "Convolution"
  bottom: "pool2"
  top: "conv3"
  convolution_param {
    num_output: 250
    pad: 0
    kernel_size: 4
    group: 2
    stride: 1
    weight_filler {
      type: "xavier"
    }
  }
}
layer {
  name: "conv3_prescale"
  type: "Scale"
  bottom: "conv3"
  top: "conv3"
  param {
    lr_mult: 0
    decay_mult: 0
  }
  scale_param {
    filler {
      value: 0.6666
    }
    bias_term: false
  }
}
layer {
  name: "conv3_sTanH"
  type: "TanH"
  bottom: "conv3"
  top: "conv3"
}
layer {
  name: "conv3_postscale"
  type: "Scale"
  bottom: "conv3"
  top: "conv3"
  param {
    lr_mult: 0
    decay_mult: 0
  }
  scale_param {
    filler {
      value: 1.7159
    }
    bias_term: false
  }
}
layer {
  name: "pool3"
  type: "Pooling"
  bottom: "conv3"
  top: "pool3"
  pooling_param {
    pool: MAX
    kernel_size: 2
    stride: 2
  }
}
layer {
  name: "fc4_300"
  type: "InnerProduct"
  bottom: "pool3"
  top: "fc4_300"
  inner_product_param {
    num_output: 300
    weight_filler {
      type: "xavier"
    }
  }
}
layer {
  name: "fc4_prescale"
  type: "Scale"
  bottom: "fc4_300"
  top: "fc4_300"
  param {
    lr_mult: 0
    decay_mult: 0
  }
  scale_param {
    filler {
      value: 0.6666
    }
    bias_term: false
  }
}
layer {
  name: "fc4_sTanH"
  type: "TanH"
  bottom: "fc4_300"
  top: "fc4_300"
}
layer {
  name: "fc4_postscale"
  type: "Scale"
  bottom: "fc4_300"
  top: "fc4_300"
  param {
    lr_mult: 0
    decay_mult: 0
  }
  scale_param {
    filler {
      value: 1.7159
    }
    bias_term: false
  }
}
layer {
  name: "fc5_116"
  type: "InnerProduct"
  bottom: "fc4_300"
  top: "fc5_classes"
  inner_product_param {
    num_output: 116
    weight_filler {
      type: "xavier"
    }
  }
}
layer {
  name: "softmax"
  type: "Softmax"
  bottom: "fc5_classes"
  top: "softmax"
}
layer {
  name: "loss"
  type: "MultinomialLogisticLoss"
  bottom: "softmax"
  bottom: "label"
  top: "loss"
}
layer {
  name: "accuracy_1"
  type: "Accuracy"
  bottom: "fc5_classes"
  bottom: "label"
  top: "accuracy_1"
  accuracy_param {
    top_k: 1
  }
}
layer {
  name: "accuracy_5"
  type: "Accuracy"
  bottom: "fc5_classes"
  bottom: "label"
  top: "accuracy_5"
  accuracy_param {
    top_k: 5
  }
}
layer {
  name: "silence"
  type: "Silence"
  bottom: "accuracy_1"
  bottom: "accuracy_5"
}
I0508 04:22:32.627876 13582 layer_factory.hpp:77] Creating layer data
I0508 04:22:32.628962 13582 net.cpp:100] Creating Layer data
I0508 04:22:32.628975 13582 net.cpp:408] data -> data
I0508 04:22:32.628998 13582 net.cpp:408] data -> label
I0508 04:22:32.632089 13693 db_lmdb.cpp:35] Opened lmdb ../local_data/lmdb/RTSD/CoNorm/train/lmdb
I0508 04:22:32.654369 13582 data_layer.cpp:41] output data size: 1024,3,48,48
I0508 04:22:32.709028 13582 net.cpp:150] Setting up data
I0508 04:22:32.709054 13582 net.cpp:157] Top shape: 1024 3 48 48 (7077888)
I0508 04:22:32.709060 13582 net.cpp:157] Top shape: 1024 (1024)
I0508 04:22:32.709062 13582 net.cpp:165] Memory required for data: 28315648
I0508 04:22:32.709074 13582 layer_factory.hpp:77] Creating layer label_data_1_split
I0508 04:22:32.709089 13582 net.cpp:100] Creating Layer label_data_1_split
I0508 04:22:32.709097 13582 net.cpp:434] label_data_1_split <- label
I0508 04:22:32.709111 13582 net.cpp:408] label_data_1_split -> label_data_1_split_0
I0508 04:22:32.709122 13582 net.cpp:408] label_data_1_split -> label_data_1_split_1
I0508 04:22:32.709131 13582 net.cpp:408] label_data_1_split -> label_data_1_split_2
I0508 04:22:32.709223 13582 net.cpp:150] Setting up label_data_1_split
I0508 04:22:32.709231 13582 net.cpp:157] Top shape: 1024 (1024)
I0508 04:22:32.709236 13582 net.cpp:157] Top shape: 1024 (1024)
I0508 04:22:32.709240 13582 net.cpp:157] Top shape: 1024 (1024)
I0508 04:22:32.709244 13582 net.cpp:165] Memory required for data: 28327936
I0508 04:22:32.709246 13582 layer_factory.hpp:77] Creating layer conv1
I0508 04:22:32.709264 13582 net.cpp:100] Creating Layer conv1
I0508 04:22:32.709267 13582 net.cpp:434] conv1 <- data
I0508 04:22:32.709273 13582 net.cpp:408] conv1 -> conv1
I0508 04:22:33.075240 13582 net.cpp:150] Setting up conv1
I0508 04:22:33.075268 13582 net.cpp:157] Top shape: 1024 100 42 42 (180633600)
I0508 04:22:33.075273 13582 net.cpp:165] Memory required for data: 750862336
I0508 04:22:33.075294 13582 layer_factory.hpp:77] Creating layer conv1_prescale
I0508 04:22:33.075305 13582 net.cpp:100] Creating Layer conv1_prescale
I0508 04:22:33.075312 13582 net.cpp:434] conv1_prescale <- conv1
I0508 04:22:33.075320 13582 net.cpp:395] conv1_prescale -> conv1 (in-place)
I0508 04:22:33.075435 13582 net.cpp:150] Setting up conv1_prescale
I0508 04:22:33.075445 13582 net.cpp:157] Top shape: 1024 100 42 42 (180633600)
I0508 04:22:33.075449 13582 net.cpp:165] Memory required for data: 1473396736
I0508 04:22:33.075456 13582 layer_factory.hpp:77] Creating layer conv1_sTanH
I0508 04:22:33.075467 13582 net.cpp:100] Creating Layer conv1_sTanH
I0508 04:22:33.075471 13582 net.cpp:434] conv1_sTanH <- conv1
I0508 04:22:33.075476 13582 net.cpp:395] conv1_sTanH -> conv1 (in-place)
I0508 04:22:33.075675 13582 net.cpp:150] Setting up conv1_sTanH
I0508 04:22:33.075688 13582 net.cpp:157] Top shape: 1024 100 42 42 (180633600)
I0508 04:22:33.075711 13582 net.cpp:165] Memory required for data: 2195931136
I0508 04:22:33.075716 13582 layer_factory.hpp:77] Creating layer conv1_postscale
I0508 04:22:33.075724 13582 net.cpp:100] Creating Layer conv1_postscale
I0508 04:22:33.075729 13582 net.cpp:434] conv1_postscale <- conv1
I0508 04:22:33.075736 13582 net.cpp:395] conv1_postscale -> conv1 (in-place)
I0508 04:22:33.075839 13582 net.cpp:150] Setting up conv1_postscale
I0508 04:22:33.075848 13582 net.cpp:157] Top shape: 1024 100 42 42 (180633600)
I0508 04:22:33.075850 13582 net.cpp:165] Memory required for data: 2918465536
I0508 04:22:33.075856 13582 layer_factory.hpp:77] Creating layer pool1
I0508 04:22:33.075863 13582 net.cpp:100] Creating Layer pool1
I0508 04:22:33.075868 13582 net.cpp:434] pool1 <- conv1
I0508 04:22:33.075875 13582 net.cpp:408] pool1 -> pool1
I0508 04:22:33.075937 13582 net.cpp:150] Setting up pool1
I0508 04:22:33.075945 13582 net.cpp:157] Top shape: 1024 100 21 21 (45158400)
I0508 04:22:33.075949 13582 net.cpp:165] Memory required for data: 3099099136
I0508 04:22:33.075953 13582 layer_factory.hpp:77] Creating layer conv2
I0508 04:22:33.075968 13582 net.cpp:100] Creating Layer conv2
I0508 04:22:33.075973 13582 net.cpp:434] conv2 <- pool1
I0508 04:22:33.075979 13582 net.cpp:408] conv2 -> conv2
I0508 04:22:33.081553 13582 net.cpp:150] Setting up conv2
I0508 04:22:33.081573 13582 net.cpp:157] Top shape: 1024 150 18 18 (49766400)
I0508 04:22:33.081575 13582 net.cpp:165] Memory required for data: 3298164736
I0508 04:22:33.081585 13582 layer_factory.hpp:77] Creating layer conv2_prescale
I0508 04:22:33.081595 13582 net.cpp:100] Creating Layer conv2_prescale
I0508 04:22:33.081599 13582 net.cpp:434] conv2_prescale <- conv2
I0508 04:22:33.081605 13582 net.cpp:395] conv2_prescale -> conv2 (in-place)
I0508 04:22:33.081714 13582 net.cpp:150] Setting up conv2_prescale
I0508 04:22:33.081723 13582 net.cpp:157] Top shape: 1024 150 18 18 (49766400)
I0508 04:22:33.081727 13582 net.cpp:165] Memory required for data: 3497230336
I0508 04:22:33.081732 13582 layer_factory.hpp:77] Creating layer conv2_sTanH
I0508 04:22:33.081737 13582 net.cpp:100] Creating Layer conv2_sTanH
I0508 04:22:33.081742 13582 net.cpp:434] conv2_sTanH <- conv2
I0508 04:22:33.081748 13582 net.cpp:395] conv2_sTanH -> conv2 (in-place)
I0508 04:22:33.081933 13582 net.cpp:150] Setting up conv2_sTanH
I0508 04:22:33.081944 13582 net.cpp:157] Top shape: 1024 150 18 18 (49766400)
I0508 04:22:33.081948 13582 net.cpp:165] Memory required for data: 3696295936
I0508 04:22:33.081951 13582 layer_factory.hpp:77] Creating layer conv2_postscale
I0508 04:22:33.081959 13582 net.cpp:100] Creating Layer conv2_postscale
I0508 04:22:33.081964 13582 net.cpp:434] conv2_postscale <- conv2
I0508 04:22:33.081972 13582 net.cpp:395] conv2_postscale -> conv2 (in-place)
I0508 04:22:33.082069 13582 net.cpp:150] Setting up conv2_postscale
I0508 04:22:33.082077 13582 net.cpp:157] Top shape: 1024 150 18 18 (49766400)
I0508 04:22:33.082082 13582 net.cpp:165] Memory required for data: 3895361536
I0508 04:22:33.082087 13582 layer_factory.hpp:77] Creating layer pool2
I0508 04:22:33.082094 13582 net.cpp:100] Creating Layer pool2
I0508 04:22:33.082098 13582 net.cpp:434] pool2 <- conv2
I0508 04:22:33.082103 13582 net.cpp:408] pool2 -> pool2
I0508 04:22:33.082145 13582 net.cpp:150] Setting up pool2
I0508 04:22:33.082154 13582 net.cpp:157] Top shape: 1024 150 9 9 (12441600)
I0508 04:22:33.082156 13582 net.cpp:165] Memory required for data: 3945127936
I0508 04:22:33.082159 13582 layer_factory.hpp:77] Creating layer conv3
I0508 04:22:33.082167 13582 net.cpp:100] Creating Layer conv3
I0508 04:22:33.082172 13582 net.cpp:434] conv3 <- pool2
I0508 04:22:33.082178 13582 net.cpp:408] conv3 -> conv3
I0508 04:22:33.087920 13582 net.cpp:150] Setting up conv3
I0508 04:22:33.087937 13582 net.cpp:157] Top shape: 1024 250 6 6 (9216000)
I0508 04:22:33.087940 13582 net.cpp:165] Memory required for data: 3981991936
I0508 04:22:33.087950 13582 layer_factory.hpp:77] Creating layer conv3_prescale
I0508 04:22:33.087975 13582 net.cpp:100] Creating Layer conv3_prescale
I0508 04:22:33.087980 13582 net.cpp:434] conv3_prescale <- conv3
I0508 04:22:33.087988 13582 net.cpp:395] conv3_prescale -> conv3 (in-place)
I0508 04:22:33.088083 13582 net.cpp:150] Setting up conv3_prescale
I0508 04:22:33.088093 13582 net.cpp:157] Top shape: 1024 250 6 6 (9216000)
I0508 04:22:33.088098 13582 net.cpp:165] Memory required for data: 4018855936
I0508 04:22:33.088102 13582 layer_factory.hpp:77] Creating layer conv3_sTanH
I0508 04:22:33.088109 13582 net.cpp:100] Creating Layer conv3_sTanH
I0508 04:22:33.088114 13582 net.cpp:434] conv3_sTanH <- conv3
I0508 04:22:33.088117 13582 net.cpp:395] conv3_sTanH -> conv3 (in-place)
I0508 04:22:33.088304 13582 net.cpp:150] Setting up conv3_sTanH
I0508 04:22:33.088315 13582 net.cpp:157] Top shape: 1024 250 6 6 (9216000)
I0508 04:22:33.088320 13582 net.cpp:165] Memory required for data: 4055719936
I0508 04:22:33.088322 13582 layer_factory.hpp:77] Creating layer conv3_postscale
I0508 04:22:33.088328 13582 net.cpp:100] Creating Layer conv3_postscale
I0508 04:22:33.088333 13582 net.cpp:434] conv3_postscale <- conv3
I0508 04:22:33.088340 13582 net.cpp:395] conv3_postscale -> conv3 (in-place)
I0508 04:22:33.088433 13582 net.cpp:150] Setting up conv3_postscale
I0508 04:22:33.088440 13582 net.cpp:157] Top shape: 1024 250 6 6 (9216000)
I0508 04:22:33.088444 13582 net.cpp:165] Memory required for data: 4092583936
I0508 04:22:33.088449 13582 layer_factory.hpp:77] Creating layer pool3
I0508 04:22:33.088460 13582 net.cpp:100] Creating Layer pool3
I0508 04:22:33.088464 13582 net.cpp:434] pool3 <- conv3
I0508 04:22:33.088469 13582 net.cpp:408] pool3 -> pool3
I0508 04:22:33.088507 13582 net.cpp:150] Setting up pool3
I0508 04:22:33.088515 13582 net.cpp:157] Top shape: 1024 250 3 3 (2304000)
I0508 04:22:33.088517 13582 net.cpp:165] Memory required for data: 4101799936
I0508 04:22:33.088521 13582 layer_factory.hpp:77] Creating layer fc4_300
I0508 04:22:33.088526 13582 net.cpp:100] Creating Layer fc4_300
I0508 04:22:33.088531 13582 net.cpp:434] fc4_300 <- pool3
I0508 04:22:33.088538 13582 net.cpp:408] fc4_300 -> fc4_300
I0508 04:22:33.094405 13582 net.cpp:150] Setting up fc4_300
I0508 04:22:33.094422 13582 net.cpp:157] Top shape: 1024 300 (307200)
I0508 04:22:33.094426 13582 net.cpp:165] Memory required for data: 4103028736
I0508 04:22:33.094432 13582 layer_factory.hpp:77] Creating layer fc4_prescale
I0508 04:22:33.094440 13582 net.cpp:100] Creating Layer fc4_prescale
I0508 04:22:33.094445 13582 net.cpp:434] fc4_prescale <- fc4_300
I0508 04:22:33.094450 13582 net.cpp:395] fc4_prescale -> fc4_300 (in-place)
I0508 04:22:33.094538 13582 net.cpp:150] Setting up fc4_prescale
I0508 04:22:33.094547 13582 net.cpp:157] Top shape: 1024 300 (307200)
I0508 04:22:33.094549 13582 net.cpp:165] Memory required for data: 4104257536
I0508 04:22:33.094554 13582 layer_factory.hpp:77] Creating layer fc4_sTanH
I0508 04:22:33.094560 13582 net.cpp:100] Creating Layer fc4_sTanH
I0508 04:22:33.094564 13582 net.cpp:434] fc4_sTanH <- fc4_300
I0508 04:22:33.094568 13582 net.cpp:395] fc4_sTanH -> fc4_300 (in-place)
I0508 04:22:33.097321 13582 net.cpp:150] Setting up fc4_sTanH
I0508 04:22:33.097338 13582 net.cpp:157] Top shape: 1024 300 (307200)
I0508 04:22:33.097342 13582 net.cpp:165] Memory required for data: 4105486336
I0508 04:22:33.097345 13582 layer_factory.hpp:77] Creating layer fc4_postscale
I0508 04:22:33.097354 13582 net.cpp:100] Creating Layer fc4_postscale
I0508 04:22:33.097358 13582 net.cpp:434] fc4_postscale <- fc4_300
I0508 04:22:33.097365 13582 net.cpp:395] fc4_postscale -> fc4_300 (in-place)
I0508 04:22:33.097471 13582 net.cpp:150] Setting up fc4_postscale
I0508 04:22:33.097481 13582 net.cpp:157] Top shape: 1024 300 (307200)
I0508 04:22:33.097483 13582 net.cpp:165] Memory required for data: 4106715136
I0508 04:22:33.097488 13582 layer_factory.hpp:77] Creating layer fc5_116
I0508 04:22:33.097497 13582 net.cpp:100] Creating Layer fc5_116
I0508 04:22:33.097501 13582 net.cpp:434] fc5_116 <- fc4_300
I0508 04:22:33.097506 13582 net.cpp:408] fc5_116 -> fc5_classes
I0508 04:22:33.099223 13582 net.cpp:150] Setting up fc5_116
I0508 04:22:33.099238 13582 net.cpp:157] Top shape: 1024 116 (118784)
I0508 04:22:33.099242 13582 net.cpp:165] Memory required for data: 4107190272
I0508 04:22:33.099254 13582 layer_factory.hpp:77] Creating layer fc5_classes_fc5_116_0_split
I0508 04:22:33.099261 13582 net.cpp:100] Creating Layer fc5_classes_fc5_116_0_split
I0508 04:22:33.099267 13582 net.cpp:434] fc5_classes_fc5_116_0_split <- fc5_classes
I0508 04:22:33.099272 13582 net.cpp:408] fc5_classes_fc5_116_0_split -> fc5_classes_fc5_116_0_split_0
I0508 04:22:33.099278 13582 net.cpp:408] fc5_classes_fc5_116_0_split -> fc5_classes_fc5_116_0_split_1
I0508 04:22:33.099284 13582 net.cpp:408] fc5_classes_fc5_116_0_split -> fc5_classes_fc5_116_0_split_2
I0508 04:22:33.099339 13582 net.cpp:150] Setting up fc5_classes_fc5_116_0_split
I0508 04:22:33.099347 13582 net.cpp:157] Top shape: 1024 116 (118784)
I0508 04:22:33.099351 13582 net.cpp:157] Top shape: 1024 116 (118784)
I0508 04:22:33.099354 13582 net.cpp:157] Top shape: 1024 116 (118784)
I0508 04:22:33.099357 13582 net.cpp:165] Memory required for data: 4108615680
I0508 04:22:33.099360 13582 layer_factory.hpp:77] Creating layer softmax
I0508 04:22:33.099365 13582 net.cpp:100] Creating Layer softmax
I0508 04:22:33.099369 13582 net.cpp:434] softmax <- fc5_classes_fc5_116_0_split_0
I0508 04:22:33.099373 13582 net.cpp:408] softmax -> softmax
I0508 04:22:33.099629 13582 net.cpp:150] Setting up softmax
I0508 04:22:33.099642 13582 net.cpp:157] Top shape: 1024 116 (118784)
I0508 04:22:33.099647 13582 net.cpp:165] Memory required for data: 4109090816
I0508 04:22:33.099649 13582 layer_factory.hpp:77] Creating layer loss
I0508 04:22:33.099655 13582 net.cpp:100] Creating Layer loss
I0508 04:22:33.099660 13582 net.cpp:434] loss <- softmax
I0508 04:22:33.099664 13582 net.cpp:434] loss <- label_data_1_split_0
I0508 04:22:33.099671 13582 net.cpp:408] loss -> loss
…
