…
I0412 07:25:29.040789 21352 solver.cpp:93] Creating training net from train_net file: ./Prototxt/experiment_10/rtsd-r1/AHE/trial_5/train.prototxt
I0412 07:25:29.041146 21352 net.cpp:58] Initializing net from parameters: 
state {
  phase: TRAIN
  level: 0
  stage: ""
}
layer {
  name: "data"
  type: "Data"
  top: "data"
  top: "label"
  include {
    phase: TRAIN
  }
  transform_param {
    scale: 0.0039215689
    mirror: false
    crop_size: 48
    mean_value: 132
    mean_value: 126
    mean_value: 140
  }
  data_param {
    source: "../local_data/lmdb/rtsd-r1/AHE/train/lmdb"
    batch_size: 1024
    backend: LMDB
  }
}
layer {
  name: "conv1"
  type: "Convolution"
  bottom: "data"
  top: "conv1"
  convolution_param {
    num_output: 100
    pad: 0
    kernel_size: 7
    group: 1
    stride: 1
    weight_filler {
      type: "xavier"
    }
  }
}
layer {
  name: "conv1_relu"
  type: "ReLU"
  bottom: "conv1"
  top: "conv1"
}
layer {
  name: "pool1"
  type: "Pooling"
  bottom: "conv1"
  top: "pool1"
  pooling_param {
    pool: MAX
    kernel_size: 2
    stride: 2
  }
}
layer {
  name: "conv2"
  type: "Convolution"
  bottom: "pool1"
  top: "conv2"
  convolution_param {
    num_output: 150
    pad: 0
    kernel_size: 4
    group: 1
    stride: 1
    weight_filler {
      type: "xavier"
    }
  }
}
layer {
  name: "conv2_relu"
  type: "ReLU"
  bottom: "conv2"
  top: "conv2"
}
layer {
  name: "pool2"
  type: "Pooling"
  bottom: "conv2"
  top: "pool2"
  pooling_param {
    pool: MAX
    kernel_size: 2
    stride: 2
  }
}
layer {
  name: "conv3"
  type: "Convolution"
  bottom: "pool2"
  top: "conv3"
  convolution_param {
    num_output: 250
    pad: 0
    kernel_size: 4
    group: 1
    stride: 1
    weight_filler {
      type: "xavier"
    }
  }
}
layer {
  name: "conv3_relu"
  type: "ReLU"
  bottom: "conv3"
  top: "conv3"
}
layer {
  name: "pool3"
  type: "Pooling"
  bottom: "conv3"
  top: "pool3"
  pooling_param {
    pool: MAX
    kernel_size: 2
    stride: 2
  }
}
layer {
  name: "fc4_300"
  type: "InnerProduct"
  bottom: "pool3"
  top: "fc4_300"
  inner_product_param {
    num_output: 300
    weight_filler {
      type: "xavier"
    }
  }
}
layer {
  name: "fc4_relu"
  type: "ReLU"
  bottom: "fc4_300"
  top: "fc4_300"
}
layer {
  name: "drop4"
  type: "Dropout"
  bottom: "fc4_300"
  top: "fc4_300"
  dropout_param {
    dropout_ratio: 0.4
  }
}
layer {
  name: "fc5_67"
  type: "InnerProduct"
  bottom: "fc4_300"
  top: "fc5_classes"
  inner_product_param {
    num_output: 67
    weight_filler {
      type: "xavier"
    }
  }
}
layer {
  name: "softmax"
  type: "Softmax"
  bottom: "fc5_classes"
  top: "softmax"
}
layer {
  name: "loss"
  type: "MultinomialLogisticLoss"
  bottom: "softmax"
  bottom: "label"
  top: "loss"
}
layer {
  name: "accuracy_1"
  type: "Accuracy"
  bottom: "fc5_classes"
  bottom: "label"
  top: "accuracy_1"
  accuracy_param {
    top_k: 1
  }
}
layer {
  name: "accuracy_5"
  type: "Accuracy"
  bottom: "fc5_classes"
  bottom: "label"
  top: "accuracy_5"
  accuracy_param {
    top_k: 5
  }
}
I0412 07:25:29.041262 21352 layer_factory.hpp:77] Creating layer data
I0412 07:25:29.042330 21352 net.cpp:100] Creating Layer data
I0412 07:25:29.042346 21352 net.cpp:408] data -> data
I0412 07:25:29.042368 21352 net.cpp:408] data -> label
I0412 07:25:29.046435 21467 db_lmdb.cpp:35] Opened lmdb ../local_data/lmdb/rtsd-r1/AHE/train/lmdb
I0412 07:25:29.063120 21352 data_layer.cpp:41] output data size: 1024,3,48,48
I0412 07:25:29.112632 21352 net.cpp:150] Setting up data
I0412 07:25:29.112660 21352 net.cpp:157] Top shape: 1024 3 48 48 (7077888)
I0412 07:25:29.112665 21352 net.cpp:157] Top shape: 1024 (1024)
I0412 07:25:29.112668 21352 net.cpp:165] Memory required for data: 28315648
I0412 07:25:29.112679 21352 layer_factory.hpp:77] Creating layer label_data_1_split
I0412 07:25:29.112691 21352 net.cpp:100] Creating Layer label_data_1_split
I0412 07:25:29.112699 21352 net.cpp:434] label_data_1_split <- label
I0412 07:25:29.112710 21352 net.cpp:408] label_data_1_split -> label_data_1_split_0
I0412 07:25:29.112733 21352 net.cpp:408] label_data_1_split -> label_data_1_split_1
I0412 07:25:29.112740 21352 net.cpp:408] label_data_1_split -> label_data_1_split_2
I0412 07:25:29.112807 21352 net.cpp:150] Setting up label_data_1_split
I0412 07:25:29.112815 21352 net.cpp:157] Top shape: 1024 (1024)
I0412 07:25:29.112819 21352 net.cpp:157] Top shape: 1024 (1024)
I0412 07:25:29.112823 21352 net.cpp:157] Top shape: 1024 (1024)
I0412 07:25:29.112825 21352 net.cpp:165] Memory required for data: 28327936
I0412 07:25:29.112828 21352 layer_factory.hpp:77] Creating layer conv1
I0412 07:25:29.112845 21352 net.cpp:100] Creating Layer conv1
I0412 07:25:29.112850 21352 net.cpp:434] conv1 <- data
I0412 07:25:29.112856 21352 net.cpp:408] conv1 -> conv1
I0412 07:25:29.410950 21352 net.cpp:150] Setting up conv1
I0412 07:25:29.410981 21352 net.cpp:157] Top shape: 1024 100 42 42 (180633600)
I0412 07:25:29.410986 21352 net.cpp:165] Memory required for data: 750862336
I0412 07:25:29.411011 21352 layer_factory.hpp:77] Creating layer conv1_relu
I0412 07:25:29.411031 21352 net.cpp:100] Creating Layer conv1_relu
I0412 07:25:29.411036 21352 net.cpp:434] conv1_relu <- conv1
I0412 07:25:29.411043 21352 net.cpp:395] conv1_relu -> conv1 (in-place)
I0412 07:25:29.411286 21352 net.cpp:150] Setting up conv1_relu
I0412 07:25:29.411300 21352 net.cpp:157] Top shape: 1024 100 42 42 (180633600)
I0412 07:25:29.411304 21352 net.cpp:165] Memory required for data: 1473396736
I0412 07:25:29.411309 21352 layer_factory.hpp:77] Creating layer pool1
I0412 07:25:29.411320 21352 net.cpp:100] Creating Layer pool1
I0412 07:25:29.411326 21352 net.cpp:434] pool1 <- conv1
I0412 07:25:29.411332 21352 net.cpp:408] pool1 -> pool1
I0412 07:25:29.411396 21352 net.cpp:150] Setting up pool1
I0412 07:25:29.411407 21352 net.cpp:157] Top shape: 1024 100 21 21 (45158400)
I0412 07:25:29.411412 21352 net.cpp:165] Memory required for data: 1654030336
I0412 07:25:29.411415 21352 layer_factory.hpp:77] Creating layer conv2
I0412 07:25:29.411427 21352 net.cpp:100] Creating Layer conv2
I0412 07:25:29.411433 21352 net.cpp:434] conv2 <- pool1
I0412 07:25:29.411439 21352 net.cpp:408] conv2 -> conv2
I0412 07:25:29.419380 21352 net.cpp:150] Setting up conv2
I0412 07:25:29.419402 21352 net.cpp:157] Top shape: 1024 150 18 18 (49766400)
I0412 07:25:29.419406 21352 net.cpp:165] Memory required for data: 1853095936
I0412 07:25:29.419420 21352 layer_factory.hpp:77] Creating layer conv2_relu
I0412 07:25:29.419427 21352 net.cpp:100] Creating Layer conv2_relu
I0412 07:25:29.419431 21352 net.cpp:434] conv2_relu <- conv2
I0412 07:25:29.419438 21352 net.cpp:395] conv2_relu -> conv2 (in-place)
I0412 07:25:29.420601 21352 net.cpp:150] Setting up conv2_relu
I0412 07:25:29.420620 21352 net.cpp:157] Top shape: 1024 150 18 18 (49766400)
I0412 07:25:29.420624 21352 net.cpp:165] Memory required for data: 2052161536
I0412 07:25:29.420629 21352 layer_factory.hpp:77] Creating layer pool2
I0412 07:25:29.420637 21352 net.cpp:100] Creating Layer pool2
I0412 07:25:29.420644 21352 net.cpp:434] pool2 <- conv2
I0412 07:25:29.420650 21352 net.cpp:408] pool2 -> pool2
I0412 07:25:29.420709 21352 net.cpp:150] Setting up pool2
I0412 07:25:29.420719 21352 net.cpp:157] Top shape: 1024 150 9 9 (12441600)
I0412 07:25:29.420722 21352 net.cpp:165] Memory required for data: 2101927936
I0412 07:25:29.420727 21352 layer_factory.hpp:77] Creating layer conv3
I0412 07:25:29.420737 21352 net.cpp:100] Creating Layer conv3
I0412 07:25:29.420742 21352 net.cpp:434] conv3 <- pool2
I0412 07:25:29.420775 21352 net.cpp:408] conv3 -> conv3
I0412 07:25:29.434878 21352 net.cpp:150] Setting up conv3
I0412 07:25:29.434901 21352 net.cpp:157] Top shape: 1024 250 6 6 (9216000)
I0412 07:25:29.434906 21352 net.cpp:165] Memory required for data: 2138791936
I0412 07:25:29.434918 21352 layer_factory.hpp:77] Creating layer conv3_relu
I0412 07:25:29.434926 21352 net.cpp:100] Creating Layer conv3_relu
I0412 07:25:29.434932 21352 net.cpp:434] conv3_relu <- conv3
I0412 07:25:29.434939 21352 net.cpp:395] conv3_relu -> conv3 (in-place)
I0412 07:25:29.437618 21352 net.cpp:150] Setting up conv3_relu
I0412 07:25:29.437639 21352 net.cpp:157] Top shape: 1024 250 6 6 (9216000)
I0412 07:25:29.437644 21352 net.cpp:165] Memory required for data: 2175655936
I0412 07:25:29.437649 21352 layer_factory.hpp:77] Creating layer pool3
I0412 07:25:29.437659 21352 net.cpp:100] Creating Layer pool3
I0412 07:25:29.437664 21352 net.cpp:434] pool3 <- conv3
I0412 07:25:29.437671 21352 net.cpp:408] pool3 -> pool3
I0412 07:25:29.437731 21352 net.cpp:150] Setting up pool3
I0412 07:25:29.437741 21352 net.cpp:157] Top shape: 1024 250 3 3 (2304000)
I0412 07:25:29.437746 21352 net.cpp:165] Memory required for data: 2184871936
I0412 07:25:29.437748 21352 layer_factory.hpp:77] Creating layer fc4_300
I0412 07:25:29.437757 21352 net.cpp:100] Creating Layer fc4_300
I0412 07:25:29.437762 21352 net.cpp:434] fc4_300 <- pool3
I0412 07:25:29.437768 21352 net.cpp:408] fc4_300 -> fc4_300
I0412 07:25:29.447127 21352 net.cpp:150] Setting up fc4_300
I0412 07:25:29.447149 21352 net.cpp:157] Top shape: 1024 300 (307200)
I0412 07:25:29.447154 21352 net.cpp:165] Memory required for data: 2186100736
I0412 07:25:29.447163 21352 layer_factory.hpp:77] Creating layer fc4_relu
I0412 07:25:29.447171 21352 net.cpp:100] Creating Layer fc4_relu
I0412 07:25:29.447175 21352 net.cpp:434] fc4_relu <- fc4_300
I0412 07:25:29.447182 21352 net.cpp:395] fc4_relu -> fc4_300 (in-place)
I0412 07:25:29.447413 21352 net.cpp:150] Setting up fc4_relu
I0412 07:25:29.447427 21352 net.cpp:157] Top shape: 1024 300 (307200)
I0412 07:25:29.447432 21352 net.cpp:165] Memory required for data: 2187329536
I0412 07:25:29.447435 21352 layer_factory.hpp:77] Creating layer drop4
I0412 07:25:29.447444 21352 net.cpp:100] Creating Layer drop4
I0412 07:25:29.447449 21352 net.cpp:434] drop4 <- fc4_300
I0412 07:25:29.447455 21352 net.cpp:395] drop4 -> fc4_300 (in-place)
I0412 07:25:29.447494 21352 net.cpp:150] Setting up drop4
I0412 07:25:29.447502 21352 net.cpp:157] Top shape: 1024 300 (307200)
I0412 07:25:29.447505 21352 net.cpp:165] Memory required for data: 2188558336
I0412 07:25:29.447510 21352 layer_factory.hpp:77] Creating layer fc5_67
I0412 07:25:29.447516 21352 net.cpp:100] Creating Layer fc5_67
I0412 07:25:29.447521 21352 net.cpp:434] fc5_67 <- fc4_300
I0412 07:25:29.447527 21352 net.cpp:408] fc5_67 -> fc5_classes
I0412 07:25:29.449492 21352 net.cpp:150] Setting up fc5_67
I0412 07:25:29.449512 21352 net.cpp:157] Top shape: 1024 67 (68608)
I0412 07:25:29.449514 21352 net.cpp:165] Memory required for data: 2188832768
I0412 07:25:29.449527 21352 layer_factory.hpp:77] Creating layer fc5_classes_fc5_67_0_split
I0412 07:25:29.449537 21352 net.cpp:100] Creating Layer fc5_classes_fc5_67_0_split
I0412 07:25:29.449542 21352 net.cpp:434] fc5_classes_fc5_67_0_split <- fc5_classes
I0412 07:25:29.449548 21352 net.cpp:408] fc5_classes_fc5_67_0_split -> fc5_classes_fc5_67_0_split_0
I0412 07:25:29.449558 21352 net.cpp:408] fc5_classes_fc5_67_0_split -> fc5_classes_fc5_67_0_split_1
I0412 07:25:29.449568 21352 net.cpp:408] fc5_classes_fc5_67_0_split -> fc5_classes_fc5_67_0_split_2
I0412 07:25:29.449630 21352 net.cpp:150] Setting up fc5_classes_fc5_67_0_split
I0412 07:25:29.449638 21352 net.cpp:157] Top shape: 1024 67 (68608)
I0412 07:25:29.449643 21352 net.cpp:157] Top shape: 1024 67 (68608)
I0412 07:25:29.449647 21352 net.cpp:157] Top shape: 1024 67 (68608)
I0412 07:25:29.449651 21352 net.cpp:165] Memory required for data: 2189656064
I0412 07:25:29.449653 21352 layer_factory.hpp:77] Creating layer softmax
I0412 07:25:29.449663 21352 net.cpp:100] Creating Layer softmax
I0412 07:25:29.449686 21352 net.cpp:434] softmax <- fc5_classes_fc5_67_0_split_0
I0412 07:25:29.449693 21352 net.cpp:408] softmax -> softmax
I0412 07:25:29.450002 21352 net.cpp:150] Setting up softmax
I0412 07:25:29.450016 21352 net.cpp:157] Top shape: 1024 67 (68608)
I0412 07:25:29.450018 21352 net.cpp:165] Memory required for data: 2189930496
I0412 07:25:29.450022 21352 layer_factory.hpp:77] Creating layer loss
I0412 07:25:29.450029 21352 net.cpp:100] Creating Layer loss
I0412 07:25:29.450033 21352 net.cpp:434] loss <- softmax
I0412 07:25:29.450039 21352 net.cpp:434] loss <- label_data_1_split_0
I0412 07:25:29.450045 21352 net.cpp:408] loss -> loss
…
