…
I0414 06:36:35.555117 24194 solver.cpp:93] Creating training net from train_net file: ./Prototxt/experiment_10/rtsd-r1/AHE/trial_5/train.prototxt
I0414 06:36:35.555464 24194 net.cpp:58] Initializing net from parameters: 
state {
  phase: TRAIN
  level: 0
  stage: ""
}
layer {
  name: "data"
  type: "Data"
  top: "data"
  top: "label"
  include {
    phase: TRAIN
  }
  transform_param {
    scale: 0.0039215689
    mirror: false
    crop_size: 48
    mean_value: 132
    mean_value: 126
    mean_value: 140
  }
  data_param {
    source: "../local_data/lmdb/rtsd-r1/AHE/train/lmdb"
    batch_size: 1024
    backend: LMDB
  }
}
layer {
  name: "conv1"
  type: "Convolution"
  bottom: "data"
  top: "conv1"
  convolution_param {
    num_output: 100
    pad: 0
    kernel_size: 7
    group: 1
    stride: 1
    weight_filler {
      type: "xavier"
    }
  }
}
layer {
  name: "conv1_relu"
  type: "ReLU"
  bottom: "conv1"
  top: "conv1"
}
layer {
  name: "pool1"
  type: "Pooling"
  bottom: "conv1"
  top: "pool1"
  pooling_param {
    pool: MAX
    kernel_size: 2
    stride: 2
  }
}
layer {
  name: "conv2"
  type: "Convolution"
  bottom: "pool1"
  top: "conv2"
  convolution_param {
    num_output: 150
    pad: 0
    kernel_size: 4
    group: 1
    stride: 1
    weight_filler {
      type: "xavier"
    }
  }
}
layer {
  name: "conv2_relu"
  type: "ReLU"
  bottom: "conv2"
  top: "conv2"
}
layer {
  name: "pool2"
  type: "Pooling"
  bottom: "conv2"
  top: "pool2"
  pooling_param {
    pool: MAX
    kernel_size: 2
    stride: 2
  }
}
layer {
  name: "conv3"
  type: "Convolution"
  bottom: "pool2"
  top: "conv3"
  convolution_param {
    num_output: 250
    pad: 0
    kernel_size: 4
    group: 1
    stride: 1
    weight_filler {
      type: "xavier"
    }
  }
}
layer {
  name: "conv3_relu"
  type: "ReLU"
  bottom: "conv3"
  top: "conv3"
}
layer {
  name: "pool3"
  type: "Pooling"
  bottom: "conv3"
  top: "pool3"
  pooling_param {
    pool: MAX
    kernel_size: 2
    stride: 2
  }
}
layer {
  name: "fc4_300"
  type: "InnerProduct"
  bottom: "pool3"
  top: "fc4_300"
  inner_product_param {
    num_output: 300
    weight_filler {
      type: "xavier"
    }
  }
}
layer {
  name: "fc4_relu"
  type: "ReLU"
  bottom: "fc4_300"
  top: "fc4_300"
}
layer {
  name: "fc5_67"
  type: "InnerProduct"
  bottom: "fc4_300"
  top: "fc5_classes"
  inner_product_param {
    num_output: 67
    weight_filler {
      type: "xavier"
    }
  }
}
layer {
  name: "softmax"
  type: "Softmax"
  bottom: "fc5_classes"
  top: "softmax"
}
layer {
  name: "loss"
  type: "MultinomialLogisticLoss"
  bottom: "softmax"
  bottom: "label"
  top: "loss"
}
layer {
  name: "accuracy_1"
  type: "Accuracy"
  bottom: "fc5_classes"
  bottom: "label"
  top: "accuracy_1"
  accuracy_param {
    top_k: 1
  }
}
layer {
  name: "accuracy_5"
  type: "Accuracy"
  bottom: "fc5_classes"
  bottom: "label"
  top: "accuracy_5"
  accuracy_param {
    top_k: 5
  }
}
layer {
  name: "silence"
  type: "Silence"
  bottom: "accuracy_1"
  bottom: "accuracy_5"
}
I0414 06:36:35.555584 24194 layer_factory.hpp:77] Creating layer data
I0414 06:36:35.556670 24194 net.cpp:100] Creating Layer data
I0414 06:36:35.556686 24194 net.cpp:408] data -> data
I0414 06:36:35.556709 24194 net.cpp:408] data -> label
I0414 06:36:35.557699 24282 db_lmdb.cpp:35] Opened lmdb ../local_data/lmdb/rtsd-r1/AHE/train/lmdb
I0414 06:36:35.575117 24194 data_layer.cpp:41] output data size: 1024,3,48,48
I0414 06:36:35.652920 24194 net.cpp:150] Setting up data
I0414 06:36:35.652973 24194 net.cpp:157] Top shape: 1024 3 48 48 (7077888)
I0414 06:36:35.652981 24194 net.cpp:157] Top shape: 1024 (1024)
I0414 06:36:35.652983 24194 net.cpp:165] Memory required for data: 28315648
I0414 06:36:35.652995 24194 layer_factory.hpp:77] Creating layer label_data_1_split
I0414 06:36:35.653009 24194 net.cpp:100] Creating Layer label_data_1_split
I0414 06:36:35.653015 24194 net.cpp:434] label_data_1_split <- label
I0414 06:36:35.653029 24194 net.cpp:408] label_data_1_split -> label_data_1_split_0
I0414 06:36:35.653043 24194 net.cpp:408] label_data_1_split -> label_data_1_split_1
I0414 06:36:35.653051 24194 net.cpp:408] label_data_1_split -> label_data_1_split_2
I0414 06:36:35.653115 24194 net.cpp:150] Setting up label_data_1_split
I0414 06:36:35.653123 24194 net.cpp:157] Top shape: 1024 (1024)
I0414 06:36:35.653127 24194 net.cpp:157] Top shape: 1024 (1024)
I0414 06:36:35.653131 24194 net.cpp:157] Top shape: 1024 (1024)
I0414 06:36:35.653133 24194 net.cpp:165] Memory required for data: 28327936
I0414 06:36:35.653136 24194 layer_factory.hpp:77] Creating layer conv1
I0414 06:36:35.653152 24194 net.cpp:100] Creating Layer conv1
I0414 06:36:35.653157 24194 net.cpp:434] conv1 <- data
I0414 06:36:35.653163 24194 net.cpp:408] conv1 -> conv1
I0414 06:36:36.061848 24194 net.cpp:150] Setting up conv1
I0414 06:36:36.061875 24194 net.cpp:157] Top shape: 1024 100 42 42 (180633600)
I0414 06:36:36.061879 24194 net.cpp:165] Memory required for data: 750862336
I0414 06:36:36.061902 24194 layer_factory.hpp:77] Creating layer conv1_relu
I0414 06:36:36.061913 24194 net.cpp:100] Creating Layer conv1_relu
I0414 06:36:36.061918 24194 net.cpp:434] conv1_relu <- conv1
I0414 06:36:36.061923 24194 net.cpp:395] conv1_relu -> conv1 (in-place)
I0414 06:36:36.062119 24194 net.cpp:150] Setting up conv1_relu
I0414 06:36:36.062131 24194 net.cpp:157] Top shape: 1024 100 42 42 (180633600)
I0414 06:36:36.062136 24194 net.cpp:165] Memory required for data: 1473396736
I0414 06:36:36.062140 24194 layer_factory.hpp:77] Creating layer pool1
I0414 06:36:36.062150 24194 net.cpp:100] Creating Layer pool1
I0414 06:36:36.062155 24194 net.cpp:434] pool1 <- conv1
I0414 06:36:36.062160 24194 net.cpp:408] pool1 -> pool1
I0414 06:36:36.062214 24194 net.cpp:150] Setting up pool1
I0414 06:36:36.062223 24194 net.cpp:157] Top shape: 1024 100 21 21 (45158400)
I0414 06:36:36.062228 24194 net.cpp:165] Memory required for data: 1654030336
I0414 06:36:36.062232 24194 layer_factory.hpp:77] Creating layer conv2
I0414 06:36:36.062242 24194 net.cpp:100] Creating Layer conv2
I0414 06:36:36.062247 24194 net.cpp:434] conv2 <- pool1
I0414 06:36:36.062252 24194 net.cpp:408] conv2 -> conv2
I0414 06:36:36.067351 24194 net.cpp:150] Setting up conv2
I0414 06:36:36.067368 24194 net.cpp:157] Top shape: 1024 150 18 18 (49766400)
I0414 06:36:36.067371 24194 net.cpp:165] Memory required for data: 1853095936
I0414 06:36:36.067381 24194 layer_factory.hpp:77] Creating layer conv2_relu
I0414 06:36:36.067387 24194 net.cpp:100] Creating Layer conv2_relu
I0414 06:36:36.067391 24194 net.cpp:434] conv2_relu <- conv2
I0414 06:36:36.067399 24194 net.cpp:395] conv2_relu -> conv2 (in-place)
I0414 06:36:36.068625 24194 net.cpp:150] Setting up conv2_relu
I0414 06:36:36.068641 24194 net.cpp:157] Top shape: 1024 150 18 18 (49766400)
I0414 06:36:36.068645 24194 net.cpp:165] Memory required for data: 2052161536
I0414 06:36:36.068648 24194 layer_factory.hpp:77] Creating layer pool2
I0414 06:36:36.068655 24194 net.cpp:100] Creating Layer pool2
I0414 06:36:36.068658 24194 net.cpp:434] pool2 <- conv2
I0414 06:36:36.068665 24194 net.cpp:408] pool2 -> pool2
I0414 06:36:36.068709 24194 net.cpp:150] Setting up pool2
I0414 06:36:36.068717 24194 net.cpp:157] Top shape: 1024 150 9 9 (12441600)
I0414 06:36:36.068720 24194 net.cpp:165] Memory required for data: 2101927936
I0414 06:36:36.068723 24194 layer_factory.hpp:77] Creating layer conv3
I0414 06:36:36.068733 24194 net.cpp:100] Creating Layer conv3
I0414 06:36:36.068737 24194 net.cpp:434] conv3 <- pool2
I0414 06:36:36.068742 24194 net.cpp:408] conv3 -> conv3
I0414 06:36:36.075639 24194 net.cpp:150] Setting up conv3
I0414 06:36:36.075655 24194 net.cpp:157] Top shape: 1024 250 6 6 (9216000)
I0414 06:36:36.075659 24194 net.cpp:165] Memory required for data: 2138791936
I0414 06:36:36.075670 24194 layer_factory.hpp:77] Creating layer conv3_relu
I0414 06:36:36.075676 24194 net.cpp:100] Creating Layer conv3_relu
I0414 06:36:36.075680 24194 net.cpp:434] conv3_relu <- conv3
I0414 06:36:36.075685 24194 net.cpp:395] conv3_relu -> conv3 (in-place)
I0414 06:36:36.077208 24194 net.cpp:150] Setting up conv3_relu
I0414 06:36:36.077224 24194 net.cpp:157] Top shape: 1024 250 6 6 (9216000)
I0414 06:36:36.077229 24194 net.cpp:165] Memory required for data: 2175655936
I0414 06:36:36.077232 24194 layer_factory.hpp:77] Creating layer pool3
I0414 06:36:36.077240 24194 net.cpp:100] Creating Layer pool3
I0414 06:36:36.077245 24194 net.cpp:434] pool3 <- conv3
I0414 06:36:36.077250 24194 net.cpp:408] pool3 -> pool3
I0414 06:36:36.077297 24194 net.cpp:150] Setting up pool3
I0414 06:36:36.077306 24194 net.cpp:157] Top shape: 1024 250 3 3 (2304000)
I0414 06:36:36.077308 24194 net.cpp:165] Memory required for data: 2184871936
I0414 06:36:36.077311 24194 layer_factory.hpp:77] Creating layer fc4_300
I0414 06:36:36.077318 24194 net.cpp:100] Creating Layer fc4_300
I0414 06:36:36.077322 24194 net.cpp:434] fc4_300 <- pool3
I0414 06:36:36.077327 24194 net.cpp:408] fc4_300 -> fc4_300
I0414 06:36:36.082664 24194 net.cpp:150] Setting up fc4_300
I0414 06:36:36.082681 24194 net.cpp:157] Top shape: 1024 300 (307200)
I0414 06:36:36.082684 24194 net.cpp:165] Memory required for data: 2186100736
I0414 06:36:36.082691 24194 layer_factory.hpp:77] Creating layer fc4_relu
I0414 06:36:36.082700 24194 net.cpp:100] Creating Layer fc4_relu
I0414 06:36:36.082705 24194 net.cpp:434] fc4_relu <- fc4_300
I0414 06:36:36.082711 24194 net.cpp:395] fc4_relu -> fc4_300 (in-place)
I0414 06:36:36.082900 24194 net.cpp:150] Setting up fc4_relu
I0414 06:36:36.082911 24194 net.cpp:157] Top shape: 1024 300 (307200)
I0414 06:36:36.082914 24194 net.cpp:165] Memory required for data: 2187329536
I0414 06:36:36.082917 24194 layer_factory.hpp:77] Creating layer fc5_67
I0414 06:36:36.082924 24194 net.cpp:100] Creating Layer fc5_67
I0414 06:36:36.082929 24194 net.cpp:434] fc5_67 <- fc4_300
I0414 06:36:36.082934 24194 net.cpp:408] fc5_67 -> fc5_classes
I0414 06:36:36.088469 24194 net.cpp:150] Setting up fc5_67
I0414 06:36:36.088486 24194 net.cpp:157] Top shape: 1024 67 (68608)
I0414 06:36:36.088491 24194 net.cpp:165] Memory required for data: 2187603968
I0414 06:36:36.088502 24194 layer_factory.hpp:77] Creating layer fc5_classes_fc5_67_0_split
I0414 06:36:36.088512 24194 net.cpp:100] Creating Layer fc5_classes_fc5_67_0_split
I0414 06:36:36.088521 24194 net.cpp:434] fc5_classes_fc5_67_0_split <- fc5_classes
I0414 06:36:36.088532 24194 net.cpp:408] fc5_classes_fc5_67_0_split -> fc5_classes_fc5_67_0_split_0
I0414 06:36:36.088544 24194 net.cpp:408] fc5_classes_fc5_67_0_split -> fc5_classes_fc5_67_0_split_1
I0414 06:36:36.088556 24194 net.cpp:408] fc5_classes_fc5_67_0_split -> fc5_classes_fc5_67_0_split_2
I0414 06:36:36.088613 24194 net.cpp:150] Setting up fc5_classes_fc5_67_0_split
I0414 06:36:36.088620 24194 net.cpp:157] Top shape: 1024 67 (68608)
I0414 06:36:36.088629 24194 net.cpp:157] Top shape: 1024 67 (68608)
I0414 06:36:36.088635 24194 net.cpp:157] Top shape: 1024 67 (68608)
I0414 06:36:36.088639 24194 net.cpp:165] Memory required for data: 2188427264
I0414 06:36:36.088646 24194 layer_factory.hpp:77] Creating layer softmax
I0414 06:36:36.088654 24194 net.cpp:100] Creating Layer softmax
I0414 06:36:36.088660 24194 net.cpp:434] softmax <- fc5_classes_fc5_67_0_split_0
I0414 06:36:36.088667 24194 net.cpp:408] softmax -> softmax
I0414 06:36:36.088924 24194 net.cpp:150] Setting up softmax
I0414 06:36:36.088937 24194 net.cpp:157] Top shape: 1024 67 (68608)
I0414 06:36:36.088940 24194 net.cpp:165] Memory required for data: 2188701696
I0414 06:36:36.088944 24194 layer_factory.hpp:77] Creating layer loss
I0414 06:36:36.088955 24194 net.cpp:100] Creating Layer loss
I0414 06:36:36.088976 24194 net.cpp:434] loss <- softmax
I0414 06:36:36.088982 24194 net.cpp:434] loss <- label_data_1_split_0
I0414 06:36:36.088989 24194 net.cpp:408] loss -> loss
…
