…
I0414 05:50:59.893575 16140 solver.cpp:93] Creating training net from train_net file: ./Prototxt/experiment_10/rtsd-r1/AHE/trial_2/train.prototxt
I0414 05:50:59.893904 16140 net.cpp:58] Initializing net from parameters: 
state {
  phase: TRAIN
  level: 0
  stage: ""
}
layer {
  name: "data"
  type: "Data"
  top: "data"
  top: "label"
  include {
    phase: TRAIN
  }
  transform_param {
    scale: 0.0039215689
    mirror: false
    crop_size: 48
    mean_value: 132
    mean_value: 126
    mean_value: 140
  }
  data_param {
    source: "../local_data/lmdb/rtsd-r1/AHE/train/lmdb"
    batch_size: 1024
    backend: LMDB
  }
}
layer {
  name: "conv1"
  type: "Convolution"
  bottom: "data"
  top: "conv1"
  convolution_param {
    num_output: 100
    pad: 0
    kernel_size: 7
    group: 1
    stride: 1
    weight_filler {
      type: "xavier"
    }
  }
}
layer {
  name: "conv1_relu"
  type: "ReLU"
  bottom: "conv1"
  top: "conv1"
}
layer {
  name: "pool1"
  type: "Pooling"
  bottom: "conv1"
  top: "pool1"
  pooling_param {
    pool: MAX
    kernel_size: 2
    stride: 2
  }
}
layer {
  name: "conv2"
  type: "Convolution"
  bottom: "pool1"
  top: "conv2"
  convolution_param {
    num_output: 150
    pad: 0
    kernel_size: 4
    group: 1
    stride: 1
    weight_filler {
      type: "xavier"
    }
  }
}
layer {
  name: "conv2_relu"
  type: "ReLU"
  bottom: "conv2"
  top: "conv2"
}
layer {
  name: "pool2"
  type: "Pooling"
  bottom: "conv2"
  top: "pool2"
  pooling_param {
    pool: MAX
    kernel_size: 2
    stride: 2
  }
}
layer {
  name: "conv3"
  type: "Convolution"
  bottom: "pool2"
  top: "conv3"
  convolution_param {
    num_output: 250
    pad: 0
    kernel_size: 4
    group: 1
    stride: 1
    weight_filler {
      type: "xavier"
    }
  }
}
layer {
  name: "conv3_relu"
  type: "ReLU"
  bottom: "conv3"
  top: "conv3"
}
layer {
  name: "pool3"
  type: "Pooling"
  bottom: "conv3"
  top: "pool3"
  pooling_param {
    pool: MAX
    kernel_size: 2
    stride: 2
  }
}
layer {
  name: "fc4_300"
  type: "InnerProduct"
  bottom: "pool3"
  top: "fc4_300"
  inner_product_param {
    num_output: 300
    weight_filler {
      type: "xavier"
    }
  }
}
layer {
  name: "fc4_relu"
  type: "ReLU"
  bottom: "fc4_300"
  top: "fc4_300"
}
layer {
  name: "fc5_67"
  type: "InnerProduct"
  bottom: "fc4_300"
  top: "fc5_classes"
  inner_product_param {
    num_output: 67
    weight_filler {
      type: "xavier"
    }
  }
}
layer {
  name: "softmax"
  type: "Softmax"
  bottom: "fc5_classes"
  top: "softmax"
}
layer {
  name: "loss"
  type: "MultinomialLogisticLoss"
  bottom: "softmax"
  bottom: "label"
  top: "loss"
}
layer {
  name: "accuracy_1"
  type: "Accuracy"
  bottom: "fc5_classes"
  bottom: "label"
  top: "accuracy_1"
  accuracy_param {
    top_k: 1
  }
}
layer {
  name: "accuracy_5"
  type: "Accuracy"
  bottom: "fc5_classes"
  bottom: "label"
  top: "accuracy_5"
  accuracy_param {
    top_k: 5
  }
}
layer {
  name: "silence"
  type: "Silence"
  bottom: "accuracy_1"
  bottom: "accuracy_5"
}
I0414 05:50:59.894019 16140 layer_factory.hpp:77] Creating layer data
I0414 05:50:59.895318 16140 net.cpp:100] Creating Layer data
I0414 05:50:59.895334 16140 net.cpp:408] data -> data
I0414 05:50:59.895364 16140 net.cpp:408] data -> label
I0414 05:50:59.901576 16246 db_lmdb.cpp:35] Opened lmdb ../local_data/lmdb/rtsd-r1/AHE/train/lmdb
I0414 05:50:59.918434 16140 data_layer.cpp:41] output data size: 1024,3,48,48
I0414 05:50:59.982144 16140 net.cpp:150] Setting up data
I0414 05:50:59.982198 16140 net.cpp:157] Top shape: 1024 3 48 48 (7077888)
I0414 05:50:59.982204 16140 net.cpp:157] Top shape: 1024 (1024)
I0414 05:50:59.982208 16140 net.cpp:165] Memory required for data: 28315648
I0414 05:50:59.982219 16140 layer_factory.hpp:77] Creating layer label_data_1_split
I0414 05:50:59.982234 16140 net.cpp:100] Creating Layer label_data_1_split
I0414 05:50:59.982239 16140 net.cpp:434] label_data_1_split <- label
I0414 05:50:59.982254 16140 net.cpp:408] label_data_1_split -> label_data_1_split_0
I0414 05:50:59.982270 16140 net.cpp:408] label_data_1_split -> label_data_1_split_1
I0414 05:50:59.982277 16140 net.cpp:408] label_data_1_split -> label_data_1_split_2
I0414 05:50:59.982344 16140 net.cpp:150] Setting up label_data_1_split
I0414 05:50:59.982352 16140 net.cpp:157] Top shape: 1024 (1024)
I0414 05:50:59.982355 16140 net.cpp:157] Top shape: 1024 (1024)
I0414 05:50:59.982359 16140 net.cpp:157] Top shape: 1024 (1024)
I0414 05:50:59.982362 16140 net.cpp:165] Memory required for data: 28327936
I0414 05:50:59.982365 16140 layer_factory.hpp:77] Creating layer conv1
I0414 05:50:59.982383 16140 net.cpp:100] Creating Layer conv1
I0414 05:50:59.982388 16140 net.cpp:434] conv1 <- data
I0414 05:50:59.982393 16140 net.cpp:408] conv1 -> conv1
I0414 05:51:00.424698 16140 net.cpp:150] Setting up conv1
I0414 05:51:00.424726 16140 net.cpp:157] Top shape: 1024 100 42 42 (180633600)
I0414 05:51:00.424731 16140 net.cpp:165] Memory required for data: 750862336
I0414 05:51:00.424751 16140 layer_factory.hpp:77] Creating layer conv1_relu
I0414 05:51:00.424762 16140 net.cpp:100] Creating Layer conv1_relu
I0414 05:51:00.424767 16140 net.cpp:434] conv1_relu <- conv1
I0414 05:51:00.424772 16140 net.cpp:395] conv1_relu -> conv1 (in-place)
I0414 05:51:00.424969 16140 net.cpp:150] Setting up conv1_relu
I0414 05:51:00.424983 16140 net.cpp:157] Top shape: 1024 100 42 42 (180633600)
I0414 05:51:00.424986 16140 net.cpp:165] Memory required for data: 1473396736
I0414 05:51:00.424990 16140 layer_factory.hpp:77] Creating layer pool1
I0414 05:51:00.424999 16140 net.cpp:100] Creating Layer pool1
I0414 05:51:00.425004 16140 net.cpp:434] pool1 <- conv1
I0414 05:51:00.425009 16140 net.cpp:408] pool1 -> pool1
I0414 05:51:00.425061 16140 net.cpp:150] Setting up pool1
I0414 05:51:00.425070 16140 net.cpp:157] Top shape: 1024 100 21 21 (45158400)
I0414 05:51:00.425072 16140 net.cpp:165] Memory required for data: 1654030336
I0414 05:51:00.425076 16140 layer_factory.hpp:77] Creating layer conv2
I0414 05:51:00.425086 16140 net.cpp:100] Creating Layer conv2
I0414 05:51:00.425091 16140 net.cpp:434] conv2 <- pool1
I0414 05:51:00.425096 16140 net.cpp:408] conv2 -> conv2
I0414 05:51:00.429951 16140 net.cpp:150] Setting up conv2
I0414 05:51:00.429970 16140 net.cpp:157] Top shape: 1024 150 18 18 (49766400)
I0414 05:51:00.429973 16140 net.cpp:165] Memory required for data: 1853095936
I0414 05:51:00.429983 16140 layer_factory.hpp:77] Creating layer conv2_relu
I0414 05:51:00.429991 16140 net.cpp:100] Creating Layer conv2_relu
I0414 05:51:00.429996 16140 net.cpp:434] conv2_relu <- conv2
I0414 05:51:00.430001 16140 net.cpp:395] conv2_relu -> conv2 (in-place)
I0414 05:51:00.435550 16140 net.cpp:150] Setting up conv2_relu
I0414 05:51:00.435569 16140 net.cpp:157] Top shape: 1024 150 18 18 (49766400)
I0414 05:51:00.435572 16140 net.cpp:165] Memory required for data: 2052161536
I0414 05:51:00.435576 16140 layer_factory.hpp:77] Creating layer pool2
I0414 05:51:00.435583 16140 net.cpp:100] Creating Layer pool2
I0414 05:51:00.435586 16140 net.cpp:434] pool2 <- conv2
I0414 05:51:00.435591 16140 net.cpp:408] pool2 -> pool2
I0414 05:51:00.435641 16140 net.cpp:150] Setting up pool2
I0414 05:51:00.435649 16140 net.cpp:157] Top shape: 1024 150 9 9 (12441600)
I0414 05:51:00.435652 16140 net.cpp:165] Memory required for data: 2101927936
I0414 05:51:00.435655 16140 layer_factory.hpp:77] Creating layer conv3
I0414 05:51:00.435665 16140 net.cpp:100] Creating Layer conv3
I0414 05:51:00.435669 16140 net.cpp:434] conv3 <- pool2
I0414 05:51:00.435674 16140 net.cpp:408] conv3 -> conv3
I0414 05:51:00.441162 16140 net.cpp:150] Setting up conv3
I0414 05:51:00.441179 16140 net.cpp:157] Top shape: 1024 250 6 6 (9216000)
I0414 05:51:00.441184 16140 net.cpp:165] Memory required for data: 2138791936
I0414 05:51:00.441195 16140 layer_factory.hpp:77] Creating layer conv3_relu
I0414 05:51:00.441202 16140 net.cpp:100] Creating Layer conv3_relu
I0414 05:51:00.441207 16140 net.cpp:434] conv3_relu <- conv3
I0414 05:51:00.441212 16140 net.cpp:395] conv3_relu -> conv3 (in-place)
I0414 05:51:00.441951 16140 net.cpp:150] Setting up conv3_relu
I0414 05:51:00.441965 16140 net.cpp:157] Top shape: 1024 250 6 6 (9216000)
I0414 05:51:00.441970 16140 net.cpp:165] Memory required for data: 2175655936
I0414 05:51:00.441973 16140 layer_factory.hpp:77] Creating layer pool3
I0414 05:51:00.441980 16140 net.cpp:100] Creating Layer pool3
I0414 05:51:00.441983 16140 net.cpp:434] pool3 <- conv3
I0414 05:51:00.441989 16140 net.cpp:408] pool3 -> pool3
I0414 05:51:00.442034 16140 net.cpp:150] Setting up pool3
I0414 05:51:00.442041 16140 net.cpp:157] Top shape: 1024 250 3 3 (2304000)
I0414 05:51:00.442044 16140 net.cpp:165] Memory required for data: 2184871936
I0414 05:51:00.442047 16140 layer_factory.hpp:77] Creating layer fc4_300
I0414 05:51:00.442054 16140 net.cpp:100] Creating Layer fc4_300
I0414 05:51:00.442057 16140 net.cpp:434] fc4_300 <- pool3
I0414 05:51:00.442062 16140 net.cpp:408] fc4_300 -> fc4_300
I0414 05:51:00.447405 16140 net.cpp:150] Setting up fc4_300
I0414 05:51:00.447420 16140 net.cpp:157] Top shape: 1024 300 (307200)
I0414 05:51:00.447425 16140 net.cpp:165] Memory required for data: 2186100736
I0414 05:51:00.447432 16140 layer_factory.hpp:77] Creating layer fc4_relu
I0414 05:51:00.447440 16140 net.cpp:100] Creating Layer fc4_relu
I0414 05:51:00.447443 16140 net.cpp:434] fc4_relu <- fc4_300
I0414 05:51:00.447448 16140 net.cpp:395] fc4_relu -> fc4_300 (in-place)
I0414 05:51:00.447633 16140 net.cpp:150] Setting up fc4_relu
I0414 05:51:00.447643 16140 net.cpp:157] Top shape: 1024 300 (307200)
I0414 05:51:00.447646 16140 net.cpp:165] Memory required for data: 2187329536
I0414 05:51:00.447650 16140 layer_factory.hpp:77] Creating layer fc5_67
I0414 05:51:00.447656 16140 net.cpp:100] Creating Layer fc5_67
I0414 05:51:00.447659 16140 net.cpp:434] fc5_67 <- fc4_300
I0414 05:51:00.447664 16140 net.cpp:408] fc5_67 -> fc5_classes
I0414 05:51:00.448860 16140 net.cpp:150] Setting up fc5_67
I0414 05:51:00.448876 16140 net.cpp:157] Top shape: 1024 67 (68608)
I0414 05:51:00.448879 16140 net.cpp:165] Memory required for data: 2187603968
I0414 05:51:00.448889 16140 layer_factory.hpp:77] Creating layer fc5_classes_fc5_67_0_split
I0414 05:51:00.448897 16140 net.cpp:100] Creating Layer fc5_classes_fc5_67_0_split
I0414 05:51:00.448902 16140 net.cpp:434] fc5_classes_fc5_67_0_split <- fc5_classes
I0414 05:51:00.448909 16140 net.cpp:408] fc5_classes_fc5_67_0_split -> fc5_classes_fc5_67_0_split_0
I0414 05:51:00.448917 16140 net.cpp:408] fc5_classes_fc5_67_0_split -> fc5_classes_fc5_67_0_split_1
I0414 05:51:00.448925 16140 net.cpp:408] fc5_classes_fc5_67_0_split -> fc5_classes_fc5_67_0_split_2
I0414 05:51:00.448976 16140 net.cpp:150] Setting up fc5_classes_fc5_67_0_split
I0414 05:51:00.448982 16140 net.cpp:157] Top shape: 1024 67 (68608)
I0414 05:51:00.448985 16140 net.cpp:157] Top shape: 1024 67 (68608)
I0414 05:51:00.448989 16140 net.cpp:157] Top shape: 1024 67 (68608)
I0414 05:51:00.448992 16140 net.cpp:165] Memory required for data: 2188427264
I0414 05:51:00.448994 16140 layer_factory.hpp:77] Creating layer softmax
I0414 05:51:00.449000 16140 net.cpp:100] Creating Layer softmax
I0414 05:51:00.449005 16140 net.cpp:434] softmax <- fc5_classes_fc5_67_0_split_0
I0414 05:51:00.449009 16140 net.cpp:408] softmax -> softmax
I0414 05:51:00.449256 16140 net.cpp:150] Setting up softmax
I0414 05:51:00.449267 16140 net.cpp:157] Top shape: 1024 67 (68608)
I0414 05:51:00.449271 16140 net.cpp:165] Memory required for data: 2188701696
I0414 05:51:00.449275 16140 layer_factory.hpp:77] Creating layer loss
I0414 05:51:00.449285 16140 net.cpp:100] Creating Layer loss
I0414 05:51:00.449301 16140 net.cpp:434] loss <- softmax
I0414 05:51:00.449307 16140 net.cpp:434] loss <- label_data_1_split_0
I0414 05:51:00.449314 16140 net.cpp:408] loss -> loss
…
