…
I0412 06:41:12.942243 21281 solver.cpp:93] Creating training net from train_net file: ./Prototxt/experiment_10/rtsd-r1/AHE/trial_2/train.prototxt
I0412 06:41:12.942597 21281 net.cpp:58] Initializing net from parameters: 
state {
  phase: TRAIN
  level: 0
  stage: ""
}
layer {
  name: "data"
  type: "Data"
  top: "data"
  top: "label"
  include {
    phase: TRAIN
  }
  transform_param {
    scale: 0.0039215689
    mirror: false
    crop_size: 48
    mean_value: 132
    mean_value: 126
    mean_value: 140
  }
  data_param {
    source: "../local_data/lmdb/rtsd-r1/AHE/train/lmdb"
    batch_size: 1024
    backend: LMDB
  }
}
layer {
  name: "conv1"
  type: "Convolution"
  bottom: "data"
  top: "conv1"
  convolution_param {
    num_output: 100
    pad: 0
    kernel_size: 7
    group: 1
    stride: 1
    weight_filler {
      type: "xavier"
    }
  }
}
layer {
  name: "conv1_relu"
  type: "ReLU"
  bottom: "conv1"
  top: "conv1"
}
layer {
  name: "pool1"
  type: "Pooling"
  bottom: "conv1"
  top: "pool1"
  pooling_param {
    pool: MAX
    kernel_size: 2
    stride: 2
  }
}
layer {
  name: "conv2"
  type: "Convolution"
  bottom: "pool1"
  top: "conv2"
  convolution_param {
    num_output: 150
    pad: 0
    kernel_size: 4
    group: 1
    stride: 1
    weight_filler {
      type: "xavier"
    }
  }
}
layer {
  name: "conv2_relu"
  type: "ReLU"
  bottom: "conv2"
  top: "conv2"
}
layer {
  name: "pool2"
  type: "Pooling"
  bottom: "conv2"
  top: "pool2"
  pooling_param {
    pool: MAX
    kernel_size: 2
    stride: 2
  }
}
layer {
  name: "conv3"
  type: "Convolution"
  bottom: "pool2"
  top: "conv3"
  convolution_param {
    num_output: 250
    pad: 0
    kernel_size: 4
    group: 1
    stride: 1
    weight_filler {
      type: "xavier"
    }
  }
}
layer {
  name: "conv3_relu"
  type: "ReLU"
  bottom: "conv3"
  top: "conv3"
}
layer {
  name: "pool3"
  type: "Pooling"
  bottom: "conv3"
  top: "pool3"
  pooling_param {
    pool: MAX
    kernel_size: 2
    stride: 2
  }
}
layer {
  name: "fc4_300"
  type: "InnerProduct"
  bottom: "pool3"
  top: "fc4_300"
  inner_product_param {
    num_output: 300
    weight_filler {
      type: "xavier"
    }
  }
}
layer {
  name: "fc4_relu"
  type: "ReLU"
  bottom: "fc4_300"
  top: "fc4_300"
}
layer {
  name: "drop4"
  type: "Dropout"
  bottom: "fc4_300"
  top: "fc4_300"
  dropout_param {
    dropout_ratio: 0.4
  }
}
layer {
  name: "fc5_67"
  type: "InnerProduct"
  bottom: "fc4_300"
  top: "fc5_classes"
  inner_product_param {
    num_output: 67
    weight_filler {
      type: "xavier"
    }
  }
}
layer {
  name: "softmax"
  type: "Softmax"
  bottom: "fc5_classes"
  top: "softmax"
}
layer {
  name: "loss"
  type: "MultinomialLogisticLoss"
  bottom: "softmax"
  bottom: "label"
  top: "loss"
}
layer {
  name: "accuracy_1"
  type: "Accuracy"
  bottom: "fc5_classes"
  bottom: "label"
  top: "accuracy_1"
  accuracy_param {
    top_k: 1
  }
}
layer {
  name: "accuracy_5"
  type: "Accuracy"
  bottom: "fc5_classes"
  bottom: "label"
  top: "accuracy_5"
  accuracy_param {
    top_k: 5
  }
}
I0412 06:41:12.942720 21281 layer_factory.hpp:77] Creating layer data
I0412 06:41:12.943855 21281 net.cpp:100] Creating Layer data
I0412 06:41:12.943871 21281 net.cpp:408] data -> data
I0412 06:41:12.943902 21281 net.cpp:408] data -> label
I0412 06:41:12.948999 21393 db_lmdb.cpp:35] Opened lmdb ../local_data/lmdb/rtsd-r1/AHE/train/lmdb
I0412 06:41:12.968761 21281 data_layer.cpp:41] output data size: 1024,3,48,48
I0412 06:41:13.024585 21281 net.cpp:150] Setting up data
I0412 06:41:13.024613 21281 net.cpp:157] Top shape: 1024 3 48 48 (7077888)
I0412 06:41:13.024618 21281 net.cpp:157] Top shape: 1024 (1024)
I0412 06:41:13.024621 21281 net.cpp:165] Memory required for data: 28315648
I0412 06:41:13.024631 21281 layer_factory.hpp:77] Creating layer label_data_1_split
I0412 06:41:13.024646 21281 net.cpp:100] Creating Layer label_data_1_split
I0412 06:41:13.024655 21281 net.cpp:434] label_data_1_split <- label
I0412 06:41:13.024680 21281 net.cpp:408] label_data_1_split -> label_data_1_split_0
I0412 06:41:13.024693 21281 net.cpp:408] label_data_1_split -> label_data_1_split_1
I0412 06:41:13.024701 21281 net.cpp:408] label_data_1_split -> label_data_1_split_2
I0412 06:41:13.024766 21281 net.cpp:150] Setting up label_data_1_split
I0412 06:41:13.024773 21281 net.cpp:157] Top shape: 1024 (1024)
I0412 06:41:13.024777 21281 net.cpp:157] Top shape: 1024 (1024)
I0412 06:41:13.024781 21281 net.cpp:157] Top shape: 1024 (1024)
I0412 06:41:13.024783 21281 net.cpp:165] Memory required for data: 28327936
I0412 06:41:13.024787 21281 layer_factory.hpp:77] Creating layer conv1
I0412 06:41:13.024803 21281 net.cpp:100] Creating Layer conv1
I0412 06:41:13.024808 21281 net.cpp:434] conv1 <- data
I0412 06:41:13.024814 21281 net.cpp:408] conv1 -> conv1
I0412 06:41:13.329510 21281 net.cpp:150] Setting up conv1
I0412 06:41:13.329548 21281 net.cpp:157] Top shape: 1024 100 42 42 (180633600)
I0412 06:41:13.329552 21281 net.cpp:165] Memory required for data: 750862336
I0412 06:41:13.329573 21281 layer_factory.hpp:77] Creating layer conv1_relu
I0412 06:41:13.329584 21281 net.cpp:100] Creating Layer conv1_relu
I0412 06:41:13.329591 21281 net.cpp:434] conv1_relu <- conv1
I0412 06:41:13.329597 21281 net.cpp:395] conv1_relu -> conv1 (in-place)
I0412 06:41:13.329800 21281 net.cpp:150] Setting up conv1_relu
I0412 06:41:13.329813 21281 net.cpp:157] Top shape: 1024 100 42 42 (180633600)
I0412 06:41:13.329815 21281 net.cpp:165] Memory required for data: 1473396736
I0412 06:41:13.329818 21281 layer_factory.hpp:77] Creating layer pool1
I0412 06:41:13.329828 21281 net.cpp:100] Creating Layer pool1
I0412 06:41:13.329833 21281 net.cpp:434] pool1 <- conv1
I0412 06:41:13.329838 21281 net.cpp:408] pool1 -> pool1
I0412 06:41:13.329891 21281 net.cpp:150] Setting up pool1
I0412 06:41:13.329910 21281 net.cpp:157] Top shape: 1024 100 21 21 (45158400)
I0412 06:41:13.329913 21281 net.cpp:165] Memory required for data: 1654030336
I0412 06:41:13.329916 21281 layer_factory.hpp:77] Creating layer conv2
I0412 06:41:13.329927 21281 net.cpp:100] Creating Layer conv2
I0412 06:41:13.329932 21281 net.cpp:434] conv2 <- pool1
I0412 06:41:13.329937 21281 net.cpp:408] conv2 -> conv2
I0412 06:41:13.336661 21281 net.cpp:150] Setting up conv2
I0412 06:41:13.336689 21281 net.cpp:157] Top shape: 1024 150 18 18 (49766400)
I0412 06:41:13.336694 21281 net.cpp:165] Memory required for data: 1853095936
I0412 06:41:13.336702 21281 layer_factory.hpp:77] Creating layer conv2_relu
I0412 06:41:13.336709 21281 net.cpp:100] Creating Layer conv2_relu
I0412 06:41:13.336712 21281 net.cpp:434] conv2_relu <- conv2
I0412 06:41:13.336719 21281 net.cpp:395] conv2_relu -> conv2 (in-place)
I0412 06:41:13.339398 21281 net.cpp:150] Setting up conv2_relu
I0412 06:41:13.339428 21281 net.cpp:157] Top shape: 1024 150 18 18 (49766400)
I0412 06:41:13.339433 21281 net.cpp:165] Memory required for data: 2052161536
I0412 06:41:13.339437 21281 layer_factory.hpp:77] Creating layer pool2
I0412 06:41:13.339444 21281 net.cpp:100] Creating Layer pool2
I0412 06:41:13.339447 21281 net.cpp:434] pool2 <- conv2
I0412 06:41:13.339453 21281 net.cpp:408] pool2 -> pool2
I0412 06:41:13.339506 21281 net.cpp:150] Setting up pool2
I0412 06:41:13.339515 21281 net.cpp:157] Top shape: 1024 150 9 9 (12441600)
I0412 06:41:13.339519 21281 net.cpp:165] Memory required for data: 2101927936
I0412 06:41:13.339522 21281 layer_factory.hpp:77] Creating layer conv3
I0412 06:41:13.339534 21281 net.cpp:100] Creating Layer conv3
I0412 06:41:13.339540 21281 net.cpp:434] conv3 <- pool2
I0412 06:41:13.339566 21281 net.cpp:408] conv3 -> conv3
I0412 06:41:13.345301 21281 net.cpp:150] Setting up conv3
I0412 06:41:13.345319 21281 net.cpp:157] Top shape: 1024 250 6 6 (9216000)
I0412 06:41:13.345321 21281 net.cpp:165] Memory required for data: 2138791936
I0412 06:41:13.345331 21281 layer_factory.hpp:77] Creating layer conv3_relu
I0412 06:41:13.345340 21281 net.cpp:100] Creating Layer conv3_relu
I0412 06:41:13.345343 21281 net.cpp:434] conv3_relu <- conv3
I0412 06:41:13.345348 21281 net.cpp:395] conv3_relu -> conv3 (in-place)
I0412 06:41:13.346876 21281 net.cpp:150] Setting up conv3_relu
I0412 06:41:13.346891 21281 net.cpp:157] Top shape: 1024 250 6 6 (9216000)
I0412 06:41:13.346894 21281 net.cpp:165] Memory required for data: 2175655936
I0412 06:41:13.346899 21281 layer_factory.hpp:77] Creating layer pool3
I0412 06:41:13.346906 21281 net.cpp:100] Creating Layer pool3
I0412 06:41:13.346909 21281 net.cpp:434] pool3 <- conv3
I0412 06:41:13.346915 21281 net.cpp:408] pool3 -> pool3
I0412 06:41:13.346976 21281 net.cpp:150] Setting up pool3
I0412 06:41:13.346984 21281 net.cpp:157] Top shape: 1024 250 3 3 (2304000)
I0412 06:41:13.346987 21281 net.cpp:165] Memory required for data: 2184871936
I0412 06:41:13.346990 21281 layer_factory.hpp:77] Creating layer fc4_300
I0412 06:41:13.346998 21281 net.cpp:100] Creating Layer fc4_300
I0412 06:41:13.347003 21281 net.cpp:434] fc4_300 <- pool3
I0412 06:41:13.347008 21281 net.cpp:408] fc4_300 -> fc4_300
I0412 06:41:13.353315 21281 net.cpp:150] Setting up fc4_300
I0412 06:41:13.353332 21281 net.cpp:157] Top shape: 1024 300 (307200)
I0412 06:41:13.353348 21281 net.cpp:165] Memory required for data: 2186100736
I0412 06:41:13.353355 21281 layer_factory.hpp:77] Creating layer fc4_relu
I0412 06:41:13.353361 21281 net.cpp:100] Creating Layer fc4_relu
I0412 06:41:13.353365 21281 net.cpp:434] fc4_relu <- fc4_300
I0412 06:41:13.353373 21281 net.cpp:395] fc4_relu -> fc4_300 (in-place)
I0412 06:41:13.353564 21281 net.cpp:150] Setting up fc4_relu
I0412 06:41:13.353575 21281 net.cpp:157] Top shape: 1024 300 (307200)
I0412 06:41:13.353579 21281 net.cpp:165] Memory required for data: 2187329536
I0412 06:41:13.353582 21281 layer_factory.hpp:77] Creating layer drop4
I0412 06:41:13.353591 21281 net.cpp:100] Creating Layer drop4
I0412 06:41:13.353595 21281 net.cpp:434] drop4 <- fc4_300
I0412 06:41:13.353600 21281 net.cpp:395] drop4 -> fc4_300 (in-place)
I0412 06:41:13.353633 21281 net.cpp:150] Setting up drop4
I0412 06:41:13.353641 21281 net.cpp:157] Top shape: 1024 300 (307200)
I0412 06:41:13.353643 21281 net.cpp:165] Memory required for data: 2188558336
I0412 06:41:13.353647 21281 layer_factory.hpp:77] Creating layer fc5_67
I0412 06:41:13.353653 21281 net.cpp:100] Creating Layer fc5_67
I0412 06:41:13.353657 21281 net.cpp:434] fc5_67 <- fc4_300
I0412 06:41:13.353662 21281 net.cpp:408] fc5_67 -> fc5_classes
I0412 06:41:13.355598 21281 net.cpp:150] Setting up fc5_67
I0412 06:41:13.355613 21281 net.cpp:157] Top shape: 1024 67 (68608)
I0412 06:41:13.355617 21281 net.cpp:165] Memory required for data: 2188832768
I0412 06:41:13.355628 21281 layer_factory.hpp:77] Creating layer fc5_classes_fc5_67_0_split
I0412 06:41:13.355635 21281 net.cpp:100] Creating Layer fc5_classes_fc5_67_0_split
I0412 06:41:13.355639 21281 net.cpp:434] fc5_classes_fc5_67_0_split <- fc5_classes
I0412 06:41:13.355646 21281 net.cpp:408] fc5_classes_fc5_67_0_split -> fc5_classes_fc5_67_0_split_0
I0412 06:41:13.355654 21281 net.cpp:408] fc5_classes_fc5_67_0_split -> fc5_classes_fc5_67_0_split_1
I0412 06:41:13.355660 21281 net.cpp:408] fc5_classes_fc5_67_0_split -> fc5_classes_fc5_67_0_split_2
I0412 06:41:13.355718 21281 net.cpp:150] Setting up fc5_classes_fc5_67_0_split
I0412 06:41:13.355726 21281 net.cpp:157] Top shape: 1024 67 (68608)
I0412 06:41:13.355729 21281 net.cpp:157] Top shape: 1024 67 (68608)
I0412 06:41:13.355732 21281 net.cpp:157] Top shape: 1024 67 (68608)
I0412 06:41:13.355736 21281 net.cpp:165] Memory required for data: 2189656064
I0412 06:41:13.355738 21281 layer_factory.hpp:77] Creating layer softmax
I0412 06:41:13.355746 21281 net.cpp:100] Creating Layer softmax
I0412 06:41:13.355764 21281 net.cpp:434] softmax <- fc5_classes_fc5_67_0_split_0
I0412 06:41:13.355772 21281 net.cpp:408] softmax -> softmax
I0412 06:41:13.356056 21281 net.cpp:150] Setting up softmax
I0412 06:41:13.356071 21281 net.cpp:157] Top shape: 1024 67 (68608)
I0412 06:41:13.356075 21281 net.cpp:165] Memory required for data: 2189930496
I0412 06:41:13.356077 21281 layer_factory.hpp:77] Creating layer loss
I0412 06:41:13.356084 21281 net.cpp:100] Creating Layer loss
I0412 06:41:13.356091 21281 net.cpp:434] loss <- softmax
I0412 06:41:13.356094 21281 net.cpp:434] loss <- label_data_1_split_0
I0412 06:41:13.356099 21281 net.cpp:408] loss -> loss
…
