…
I0402 14:52:32.316854 14223 net.cpp:322] The NetState phase (0) differed from the phase (1) specified by a rule in layer accuracy_5
I0402 14:52:32.316990 14223 net.cpp:58] Initializing net from parameters: 
state {
  phase: TRAIN
  level: 0
  stage: ""
}
layer {
  name: "data"
  type: "Data"
  top: "data"
  top: "label"
  include {
    phase: TRAIN
  }
  transform_param {
    mirror: false
    crop_size: 48
    mean_value: 130
    mean_value: 123
    mean_value: 137
  }
  data_param {
    source: "../local_data/lmdb/rtsd-r1/histeq/train/lmdb"
    batch_size: 1024
    backend: LMDB
  }
}
layer {
  name: "conv1"
  type: "Convolution"
  bottom: "data"
  top: "conv1"
  convolution_param {
    num_output: 100
    pad: 0
    kernel_size: 7
    group: 1
    stride: 1
    weight_filler {
      type: "xavier"
    }
  }
}
layer {
  name: "conv1_relu"
  type: "ReLU"
  bottom: "conv1"
  top: "conv1"
}
layer {
  name: "pool1"
  type: "Pooling"
  bottom: "conv1"
  top: "pool1"
  pooling_param {
    pool: MAX
    kernel_size: 2
    stride: 2
  }
}
layer {
  name: "conv2"
  type: "Convolution"
  bottom: "pool1"
  top: "conv2"
  convolution_param {
    num_output: 150
    pad: 0
    kernel_size: 4
    group: 1
    stride: 1
    weight_filler {
      type: "xavier"
    }
  }
}
layer {
  name: "conv2_relu"
  type: "ReLU"
  bottom: "conv2"
  top: "conv2"
}
layer {
  name: "pool2"
  type: "Pooling"
  bottom: "conv2"
  top: "pool2"
  pooling_param {
    pool: MAX
    kernel_size: 2
    stride: 2
  }
}
layer {
  name: "conv3"
  type: "Convolution"
  bottom: "pool2"
  top: "conv3"
  convolution_param {
    num_output: 250
    pad: 0
    kernel_size: 4
    group: 1
    stride: 1
    weight_filler {
      type: "xavier"
    }
  }
}
layer {
  name: "conv3_relu"
  type: "ReLU"
  bottom: "conv3"
  top: "conv3"
}
layer {
  name: "pool3"
  type: "Pooling"
  bottom: "conv3"
  top: "pool3"
  pooling_param {
    pool: MAX
    kernel_size: 2
    stride: 2
  }
}
layer {
  name: "fc4_300"
  type: "InnerProduct"
  bottom: "pool3"
  top: "fc4_300"
  inner_product_param {
    num_output: 300
    weight_filler {
      type: "xavier"
    }
  }
}
layer {
  name: "fc4_relu"
  type: "ReLU"
  bottom: "fc4_300"
  top: "fc4_300"
}
layer {
  name: "drop4"
  type: "Dropout"
  bottom: "fc4_300"
  top: "fc4_300"
  dropout_param {
    dropout_ratio: 0.4
  }
}
layer {
  name: "fc5_67"
  type: "InnerProduct"
  bottom: "fc4_300"
  top: "fc5_classes"
  inner_product_param {
    num_output: 67
    weight_filler {
      type: "xavier"
    }
  }
}
layer {
  name: "loss"
  type: "SoftmaxWithLoss"
  bottom: "fc5_classes"
  bottom: "label"
  top: "loss"
}
I0402 14:52:32.317103 14223 layer_factory.hpp:77] Creating layer data
I0402 14:52:32.318434 14223 net.cpp:100] Creating Layer data
I0402 14:52:32.318454 14223 net.cpp:408] data -> data
I0402 14:52:32.318485 14223 net.cpp:408] data -> label
I0402 14:52:32.319547 14271 db_lmdb.cpp:35] Opened lmdb ../local_data/lmdb/rtsd-r1/histeq/train/lmdb
I0402 14:52:32.339846 14223 data_layer.cpp:41] output data size: 1024,3,48,48
I0402 14:52:32.395746 14223 net.cpp:150] Setting up data
I0402 14:52:32.395784 14223 net.cpp:157] Top shape: 1024 3 48 48 (7077888)
I0402 14:52:32.395792 14223 net.cpp:157] Top shape: 1024 (1024)
I0402 14:52:32.395825 14223 net.cpp:165] Memory required for data: 28315648
I0402 14:52:32.395845 14223 layer_factory.hpp:77] Creating layer conv1
I0402 14:52:32.395881 14223 net.cpp:100] Creating Layer conv1
I0402 14:52:32.395892 14223 net.cpp:434] conv1 <- data
I0402 14:52:32.395913 14223 net.cpp:408] conv1 -> conv1
I0402 14:52:32.742286 14223 net.cpp:150] Setting up conv1
I0402 14:52:32.742322 14223 net.cpp:157] Top shape: 1024 100 42 42 (180633600)
I0402 14:52:32.742327 14223 net.cpp:165] Memory required for data: 750850048
I0402 14:52:32.742352 14223 layer_factory.hpp:77] Creating layer conv1_relu
I0402 14:52:32.742365 14223 net.cpp:100] Creating Layer conv1_relu
I0402 14:52:32.742370 14223 net.cpp:434] conv1_relu <- conv1
I0402 14:52:32.742377 14223 net.cpp:395] conv1_relu -> conv1 (in-place)
I0402 14:52:32.742625 14223 net.cpp:150] Setting up conv1_relu
I0402 14:52:32.742640 14223 net.cpp:157] Top shape: 1024 100 42 42 (180633600)
I0402 14:52:32.742645 14223 net.cpp:165] Memory required for data: 1473384448
I0402 14:52:32.742650 14223 layer_factory.hpp:77] Creating layer pool1
I0402 14:52:32.742658 14223 net.cpp:100] Creating Layer pool1
I0402 14:52:32.742663 14223 net.cpp:434] pool1 <- conv1
I0402 14:52:32.742671 14223 net.cpp:408] pool1 -> pool1
I0402 14:52:32.742733 14223 net.cpp:150] Setting up pool1
I0402 14:52:32.742743 14223 net.cpp:157] Top shape: 1024 100 21 21 (45158400)
I0402 14:52:32.742748 14223 net.cpp:165] Memory required for data: 1654018048
I0402 14:52:32.742753 14223 layer_factory.hpp:77] Creating layer conv2
I0402 14:52:32.742772 14223 net.cpp:100] Creating Layer conv2
I0402 14:52:32.742779 14223 net.cpp:434] conv2 <- pool1
I0402 14:52:32.742784 14223 net.cpp:408] conv2 -> conv2
I0402 14:52:32.749284 14223 net.cpp:150] Setting up conv2
I0402 14:52:32.749308 14223 net.cpp:157] Top shape: 1024 150 18 18 (49766400)
I0402 14:52:32.749312 14223 net.cpp:165] Memory required for data: 1853083648
I0402 14:52:32.749325 14223 layer_factory.hpp:77] Creating layer conv2_relu
I0402 14:52:32.749332 14223 net.cpp:100] Creating Layer conv2_relu
I0402 14:52:32.749336 14223 net.cpp:434] conv2_relu <- conv2
I0402 14:52:32.749347 14223 net.cpp:395] conv2_relu -> conv2 (in-place)
I0402 14:52:32.750286 14223 net.cpp:150] Setting up conv2_relu
I0402 14:52:32.750306 14223 net.cpp:157] Top shape: 1024 150 18 18 (49766400)
I0402 14:52:32.750311 14223 net.cpp:165] Memory required for data: 2052149248
I0402 14:52:32.750315 14223 layer_factory.hpp:77] Creating layer pool2
I0402 14:52:32.750324 14223 net.cpp:100] Creating Layer pool2
I0402 14:52:32.750327 14223 net.cpp:434] pool2 <- conv2
I0402 14:52:32.750336 14223 net.cpp:408] pool2 -> pool2
I0402 14:52:32.750401 14223 net.cpp:150] Setting up pool2
I0402 14:52:32.750412 14223 net.cpp:157] Top shape: 1024 150 9 9 (12441600)
I0402 14:52:32.750418 14223 net.cpp:165] Memory required for data: 2101915648
I0402 14:52:32.750422 14223 layer_factory.hpp:77] Creating layer conv3
I0402 14:52:32.750432 14223 net.cpp:100] Creating Layer conv3
I0402 14:52:32.750437 14223 net.cpp:434] conv3 <- pool2
I0402 14:52:32.750444 14223 net.cpp:408] conv3 -> conv3
I0402 14:52:32.757293 14223 net.cpp:150] Setting up conv3
I0402 14:52:32.757313 14223 net.cpp:157] Top shape: 1024 250 6 6 (9216000)
I0402 14:52:32.757318 14223 net.cpp:165] Memory required for data: 2138779648
I0402 14:52:32.757329 14223 layer_factory.hpp:77] Creating layer conv3_relu
I0402 14:52:32.757345 14223 net.cpp:100] Creating Layer conv3_relu
I0402 14:52:32.757350 14223 net.cpp:434] conv3_relu <- conv3
I0402 14:52:32.757361 14223 net.cpp:395] conv3_relu -> conv3 (in-place)
I0402 14:52:32.758280 14223 net.cpp:150] Setting up conv3_relu
I0402 14:52:32.758301 14223 net.cpp:157] Top shape: 1024 250 6 6 (9216000)
I0402 14:52:32.758306 14223 net.cpp:165] Memory required for data: 2175643648
I0402 14:52:32.758309 14223 layer_factory.hpp:77] Creating layer pool3
I0402 14:52:32.758316 14223 net.cpp:100] Creating Layer pool3
I0402 14:52:32.758322 14223 net.cpp:434] pool3 <- conv3
I0402 14:52:32.758327 14223 net.cpp:408] pool3 -> pool3
I0402 14:52:32.758431 14223 net.cpp:150] Setting up pool3
I0402 14:52:32.758445 14223 net.cpp:157] Top shape: 1024 250 3 3 (2304000)
I0402 14:52:32.758450 14223 net.cpp:165] Memory required for data: 2184859648
I0402 14:52:32.758453 14223 layer_factory.hpp:77] Creating layer fc4_300
I0402 14:52:32.758463 14223 net.cpp:100] Creating Layer fc4_300
I0402 14:52:32.758469 14223 net.cpp:434] fc4_300 <- pool3
I0402 14:52:32.758476 14223 net.cpp:408] fc4_300 -> fc4_300
I0402 14:52:32.769222 14223 net.cpp:150] Setting up fc4_300
I0402 14:52:32.769244 14223 net.cpp:157] Top shape: 1024 300 (307200)
I0402 14:52:32.769249 14223 net.cpp:165] Memory required for data: 2186088448
I0402 14:52:32.769258 14223 layer_factory.hpp:77] Creating layer fc4_relu
I0402 14:52:32.769270 14223 net.cpp:100] Creating Layer fc4_relu
I0402 14:52:32.769274 14223 net.cpp:434] fc4_relu <- fc4_300
I0402 14:52:32.769281 14223 net.cpp:395] fc4_relu -> fc4_300 (in-place)
I0402 14:52:32.769542 14223 net.cpp:150] Setting up fc4_relu
I0402 14:52:32.769557 14223 net.cpp:157] Top shape: 1024 300 (307200)
I0402 14:52:32.769562 14223 net.cpp:165] Memory required for data: 2187317248
I0402 14:52:32.769565 14223 layer_factory.hpp:77] Creating layer drop4
I0402 14:52:32.769575 14223 net.cpp:100] Creating Layer drop4
I0402 14:52:32.769579 14223 net.cpp:434] drop4 <- fc4_300
I0402 14:52:32.769585 14223 net.cpp:395] drop4 -> fc4_300 (in-place)
I0402 14:52:32.769634 14223 net.cpp:150] Setting up drop4
I0402 14:52:32.769642 14223 net.cpp:157] Top shape: 1024 300 (307200)
I0402 14:52:32.769646 14223 net.cpp:165] Memory required for data: 2188546048
I0402 14:52:32.769650 14223 layer_factory.hpp:77] Creating layer fc5_67
I0402 14:52:32.769657 14223 net.cpp:100] Creating Layer fc5_67
I0402 14:52:32.769662 14223 net.cpp:434] fc5_67 <- fc4_300
I0402 14:52:32.769677 14223 net.cpp:408] fc5_67 -> fc5_classes
I0402 14:52:32.771143 14223 net.cpp:150] Setting up fc5_67
I0402 14:52:32.771162 14223 net.cpp:157] Top shape: 1024 67 (68608)
I0402 14:52:32.771167 14223 net.cpp:165] Memory required for data: 2188820480
I0402 14:52:32.771178 14223 layer_factory.hpp:77] Creating layer loss
I0402 14:52:32.771188 14223 net.cpp:100] Creating Layer loss
I0402 14:52:32.771193 14223 net.cpp:434] loss <- fc5_classes
I0402 14:52:32.771198 14223 net.cpp:434] loss <- label
I0402 14:52:32.771209 14223 net.cpp:408] loss -> loss
I0402 14:52:32.771224 14223 layer_factory.hpp:77] Creating layer loss
…
I0402 14:52:32.772014 14223 solver.cpp:193] Creating test net (#0) specified by test_net file: ./Prototxt/experiment_3/rtsd-r1/histeq/test.prototxt
I0402 14:52:32.772181 14223 net.cpp:58] Initializing net from parameters: 
state {
  phase: TEST
}
layer {
  name: "data"
  type: "Data"
  top: "data"
  top: "label"
  include {
    phase: TEST
  }
  transform_param {
    mirror: false
    crop_size: 48
    mean_value: 124
    mean_value: 121
    mean_value: 142
  }
  data_param {
    source: "../local_data/lmdb/rtsd-r1/histeq/test/lmdb"
    batch_size: 1024
    backend: LMDB
  }
}
layer {
  name: "conv1"
  type: "Convolution"
  bottom: "data"
  top: "conv1"
  convolution_param {
    num_output: 100
    pad: 0
    kernel_size: 7
    group: 1
    stride: 1
    weight_filler {
      type: "xavier"
    }
  }
}
layer {
  name: "conv1_relu"
  type: "ReLU"
  bottom: "conv1"
  top: "conv1"
}
layer {
  name: "pool1"
  type: "Pooling"
  bottom: "conv1"
  top: "pool1"
  pooling_param {
    pool: MAX
    kernel_size: 2
    stride: 2
  }
}
layer {
  name: "conv2"
  type: "Convolution"
  bottom: "pool1"
  top: "conv2"
  convolution_param {
    num_output: 150
    pad: 0
    kernel_size: 4
    group: 1
    stride: 1
    weight_filler {
      type: "xavier"
    }
  }
}
layer {
  name: "conv2_relu"
  type: "ReLU"
  bottom: "conv2"
  top: "conv2"
}
layer {
  name: "pool2"
  type: "Pooling"
  bottom: "conv2"
  top: "pool2"
  pooling_param {
    pool: MAX
    kernel_size: 2
    stride: 2
  }
}
layer {
  name: "conv3"
  type: "Convolution"
  bottom: "pool2"
  top: "conv3"
  convolution_param {
    num_output: 250
    pad: 0
    kernel_size: 4
    group: 1
    stride: 1
    weight_filler {
      type: "xavier"
    }
  }
}
layer {
  name: "conv3_relu"
  type: "ReLU"
  bottom: "conv3"
  top: "conv3"
}
layer {
  name: "pool3"
  type: "Pooling"
  bottom: "conv3"
  top: "pool3"
  pooling_param {
    pool: MAX
    kernel_size: 2
    stride: 2
  }
}
layer {
  name: "fc4_300"
  type: "InnerProduct"
  bottom: "pool3"
  top: "fc4_300"
  inner_product_param {
    num_output: 300
    weight_filler {
      type: "xavier"
    }
  }
}
layer {
  name: "fc4_relu"
  type: "ReLU"
  bottom: "fc4_300"
  top: "fc4_300"
}
layer {
  name: "drop4"
  type: "Dropout"
  bottom: "fc4_300"
  top: "fc4_300"
  dropout_param {
    dropout_ratio: 0.4
  }
}
layer {
  name: "fc5_67"
  type: "InnerProduct"
  bottom: "fc4_300"
  top: "fc5_classes"
  inner_product_param {
    num_output: 67
    weight_filler {
      type: "xavier"
    }
  }
}
layer {
  name: "loss"
  type: "SoftmaxWithLoss"
  bottom: "fc5_classes"
  bottom: "label"
  top: "loss"
}
layer {
  name: "accuracy_1"
  type: "Accuracy"
  bottom: "fc5_classes"
  bottom: "label"
  top: "accuracy_1"
  include {
    phase: TEST
  }
  accuracy_param {
    top_k: 1
  }
}
layer {
  name: "accuracy_5"
  type: "Accuracy"
  bottom: "fc5_classes"
  bottom: "label"
  top: "accuracy_5"
  include {
    phase: TEST
  }
  accuracy_param {
    top_k: 5
  }
}
I0402 14:52:32.772303 14223 layer_factory.hpp:77] Creating layer data
I0402 14:52:32.773130 14223 net.cpp:100] Creating Layer data
I0402 14:52:32.773145 14223 net.cpp:408] data -> data
I0402 14:52:32.773162 14223 net.cpp:408] data -> label
I0402 14:52:32.774565 14282 db_lmdb.cpp:35] Opened lmdb ../local_data/lmdb/rtsd-r1/histeq/test/lmdb
I0402 14:52:32.774755 14223 data_layer.cpp:41] output data size: 1024,3,48,48
I0402 14:52:32.839588 14223 net.cpp:150] Setting up data
I0402 14:52:32.839622 14223 net.cpp:157] Top shape: 1024 3 48 48 (7077888)
I0402 14:52:32.839628 14223 net.cpp:157] Top shape: 1024 (1024)
I0402 14:52:32.839632 14223 net.cpp:165] Memory required for data: 28315648
I0402 14:52:32.839640 14223 layer_factory.hpp:77] Creating layer label_data_1_split
I0402 14:52:32.839658 14223 net.cpp:100] Creating Layer label_data_1_split
I0402 14:52:32.839663 14223 net.cpp:434] label_data_1_split <- label
I0402 14:52:32.839681 14223 net.cpp:408] label_data_1_split -> label_data_1_split_0
I0402 14:52:32.839695 14223 net.cpp:408] label_data_1_split -> label_data_1_split_1
I0402 14:52:32.839705 14223 net.cpp:408] label_data_1_split -> label_data_1_split_2
I0402 14:52:32.839824 14223 net.cpp:150] Setting up label_data_1_split
I0402 14:52:32.839836 14223 net.cpp:157] Top shape: 1024 (1024)
I0402 14:52:32.839840 14223 net.cpp:157] Top shape: 1024 (1024)
I0402 14:52:32.839845 14223 net.cpp:157] Top shape: 1024 (1024)
I0402 14:52:32.839848 14223 net.cpp:165] Memory required for data: 28327936
I0402 14:52:32.839851 14223 layer_factory.hpp:77] Creating layer conv1
I0402 14:52:32.839869 14223 net.cpp:100] Creating Layer conv1
I0402 14:52:32.839875 14223 net.cpp:434] conv1 <- data
I0402 14:52:32.839882 14223 net.cpp:408] conv1 -> conv1
I0402 14:52:32.844225 14223 net.cpp:150] Setting up conv1
I0402 14:52:32.844264 14223 net.cpp:157] Top shape: 1024 100 42 42 (180633600)
I0402 14:52:32.844274 14223 net.cpp:165] Memory required for data: 750862336
I0402 14:52:32.844288 14223 layer_factory.hpp:77] Creating layer conv1_relu
I0402 14:52:32.844297 14223 net.cpp:100] Creating Layer conv1_relu
I0402 14:52:32.844302 14223 net.cpp:434] conv1_relu <- conv1
I0402 14:52:32.844310 14223 net.cpp:395] conv1_relu -> conv1 (in-place)
I0402 14:52:32.844565 14223 net.cpp:150] Setting up conv1_relu
I0402 14:52:32.844586 14223 net.cpp:157] Top shape: 1024 100 42 42 (180633600)
I0402 14:52:32.844590 14223 net.cpp:165] Memory required for data: 1473396736
I0402 14:52:32.844594 14223 layer_factory.hpp:77] Creating layer pool1
I0402 14:52:32.844605 14223 net.cpp:100] Creating Layer pool1
I0402 14:52:32.844612 14223 net.cpp:434] pool1 <- conv1
I0402 14:52:32.844620 14223 net.cpp:408] pool1 -> pool1
I0402 14:52:32.844678 14223 net.cpp:150] Setting up pool1
I0402 14:52:32.844688 14223 net.cpp:157] Top shape: 1024 100 21 21 (45158400)
I0402 14:52:32.844692 14223 net.cpp:165] Memory required for data: 1654030336
I0402 14:52:32.844696 14223 layer_factory.hpp:77] Creating layer conv2
I0402 14:52:32.844709 14223 net.cpp:100] Creating Layer conv2
I0402 14:52:32.844713 14223 net.cpp:434] conv2 <- pool1
I0402 14:52:32.844722 14223 net.cpp:408] conv2 -> conv2
I0402 14:52:32.849483 14223 net.cpp:150] Setting up conv2
I0402 14:52:32.849503 14223 net.cpp:157] Top shape: 1024 150 18 18 (49766400)
I0402 14:52:32.849509 14223 net.cpp:165] Memory required for data: 1853095936
I0402 14:52:32.849519 14223 layer_factory.hpp:77] Creating layer conv2_relu
I0402 14:52:32.849534 14223 net.cpp:100] Creating Layer conv2_relu
I0402 14:52:32.849544 14223 net.cpp:434] conv2_relu <- conv2
I0402 14:52:32.849550 14223 net.cpp:395] conv2_relu -> conv2 (in-place)
I0402 14:52:32.850517 14223 net.cpp:150] Setting up conv2_relu
I0402 14:52:32.850538 14223 net.cpp:157] Top shape: 1024 150 18 18 (49766400)
I0402 14:52:32.850541 14223 net.cpp:165] Memory required for data: 2052161536
I0402 14:52:32.850545 14223 layer_factory.hpp:77] Creating layer pool2
I0402 14:52:32.850555 14223 net.cpp:100] Creating Layer pool2
I0402 14:52:32.850560 14223 net.cpp:434] pool2 <- conv2
I0402 14:52:32.850567 14223 net.cpp:408] pool2 -> pool2
I0402 14:52:32.850639 14223 net.cpp:150] Setting up pool2
I0402 14:52:32.850651 14223 net.cpp:157] Top shape: 1024 150 9 9 (12441600)
I0402 14:52:32.850656 14223 net.cpp:165] Memory required for data: 2101927936
I0402 14:52:32.850659 14223 layer_factory.hpp:77] Creating layer conv3
I0402 14:52:32.850673 14223 net.cpp:100] Creating Layer conv3
I0402 14:52:32.850679 14223 net.cpp:434] conv3 <- pool2
I0402 14:52:32.850687 14223 net.cpp:408] conv3 -> conv3
I0402 14:52:32.857647 14223 net.cpp:150] Setting up conv3
I0402 14:52:32.857674 14223 net.cpp:157] Top shape: 1024 250 6 6 (9216000)
I0402 14:52:32.857679 14223 net.cpp:165] Memory required for data: 2138791936
I0402 14:52:32.857692 14223 layer_factory.hpp:77] Creating layer conv3_relu
I0402 14:52:32.857700 14223 net.cpp:100] Creating Layer conv3_relu
I0402 14:52:32.857704 14223 net.cpp:434] conv3_relu <- conv3
I0402 14:52:32.857712 14223 net.cpp:395] conv3_relu -> conv3 (in-place)
I0402 14:52:32.858652 14223 net.cpp:150] Setting up conv3_relu
I0402 14:52:32.858671 14223 net.cpp:157] Top shape: 1024 250 6 6 (9216000)
I0402 14:52:32.858675 14223 net.cpp:165] Memory required for data: 2175655936
I0402 14:52:32.858698 14223 layer_factory.hpp:77] Creating layer pool3
I0402 14:52:32.858707 14223 net.cpp:100] Creating Layer pool3
I0402 14:52:32.858711 14223 net.cpp:434] pool3 <- conv3
I0402 14:52:32.858721 14223 net.cpp:408] pool3 -> pool3
I0402 14:52:32.858785 14223 net.cpp:150] Setting up pool3
I0402 14:52:32.858794 14223 net.cpp:157] Top shape: 1024 250 3 3 (2304000)
I0402 14:52:32.858798 14223 net.cpp:165] Memory required for data: 2184871936
I0402 14:52:32.858803 14223 layer_factory.hpp:77] Creating layer fc4_300
I0402 14:52:32.858814 14223 net.cpp:100] Creating Layer fc4_300
I0402 14:52:32.858819 14223 net.cpp:434] fc4_300 <- pool3
I0402 14:52:32.858827 14223 net.cpp:408] fc4_300 -> fc4_300
I0402 14:52:32.865486 14223 net.cpp:150] Setting up fc4_300
I0402 14:52:32.865510 14223 net.cpp:157] Top shape: 1024 300 (307200)
I0402 14:52:32.865515 14223 net.cpp:165] Memory required for data: 2186100736
I0402 14:52:32.865525 14223 layer_factory.hpp:77] Creating layer fc4_relu
I0402 14:52:32.865535 14223 net.cpp:100] Creating Layer fc4_relu
I0402 14:52:32.865540 14223 net.cpp:434] fc4_relu <- fc4_300
I0402 14:52:32.865545 14223 net.cpp:395] fc4_relu -> fc4_300 (in-place)
I0402 14:52:32.865795 14223 net.cpp:150] Setting up fc4_relu
I0402 14:52:32.865808 14223 net.cpp:157] Top shape: 1024 300 (307200)
I0402 14:52:32.865814 14223 net.cpp:165] Memory required for data: 2187329536
I0402 14:52:32.865818 14223 layer_factory.hpp:77] Creating layer drop4
I0402 14:52:32.865828 14223 net.cpp:100] Creating Layer drop4
I0402 14:52:32.865834 14223 net.cpp:434] drop4 <- fc4_300
I0402 14:52:32.865844 14223 net.cpp:395] drop4 -> fc4_300 (in-place)
I0402 14:52:32.865880 14223 net.cpp:150] Setting up drop4
I0402 14:52:32.865888 14223 net.cpp:157] Top shape: 1024 300 (307200)
I0402 14:52:32.865892 14223 net.cpp:165] Memory required for data: 2188558336
I0402 14:52:32.865895 14223 layer_factory.hpp:77] Creating layer fc5_67
I0402 14:52:32.865907 14223 net.cpp:100] Creating Layer fc5_67
I0402 14:52:32.865911 14223 net.cpp:434] fc5_67 <- fc4_300
I0402 14:52:32.865917 14223 net.cpp:408] fc5_67 -> fc5_classes
I0402 14:52:32.866230 14223 net.cpp:150] Setting up fc5_67
I0402 14:52:32.866240 14223 net.cpp:157] Top shape: 1024 67 (68608)
I0402 14:52:32.866243 14223 net.cpp:165] Memory required for data: 2188832768
I0402 14:52:32.866260 14223 layer_factory.hpp:77] Creating layer fc5_classes_fc5_67_0_split
I0402 14:52:32.866267 14223 net.cpp:100] Creating Layer fc5_classes_fc5_67_0_split
I0402 14:52:32.866271 14223 net.cpp:434] fc5_classes_fc5_67_0_split <- fc5_classes
I0402 14:52:32.866278 14223 net.cpp:408] fc5_classes_fc5_67_0_split -> fc5_classes_fc5_67_0_split_0
I0402 14:52:32.866286 14223 net.cpp:408] fc5_classes_fc5_67_0_split -> fc5_classes_fc5_67_0_split_1
I0402 14:52:32.866295 14223 net.cpp:408] fc5_classes_fc5_67_0_split -> fc5_classes_fc5_67_0_split_2
I0402 14:52:32.866361 14223 net.cpp:150] Setting up fc5_classes_fc5_67_0_split
I0402 14:52:32.866370 14223 net.cpp:157] Top shape: 1024 67 (68608)
I0402 14:52:32.866374 14223 net.cpp:157] Top shape: 1024 67 (68608)
I0402 14:52:32.866379 14223 net.cpp:157] Top shape: 1024 67 (68608)
I0402 14:52:32.866381 14223 net.cpp:165] Memory required for data: 2189656064
I0402 14:52:32.866385 14223 layer_factory.hpp:77] Creating layer loss
I0402 14:52:32.866395 14223 net.cpp:100] Creating Layer loss
I0402 14:52:32.866400 14223 net.cpp:434] loss <- fc5_classes_fc5_67_0_split_0
I0402 14:52:32.866406 14223 net.cpp:434] loss <- label_data_1_split_0
I0402 14:52:32.866415 14223 net.cpp:408] loss -> loss
…
