…
I0414 09:28:24.983919 29302 solver.cpp:93] Creating training net from train_net file: ./Prototxt/experiment_10/rtsd-r3/CoNorm/trial_1/train.prototxt
I0414 09:28:24.984256 29302 net.cpp:58] Initializing net from parameters: 
state {
  phase: TRAIN
  level: 0
  stage: ""
}
layer {
  name: "data"
  type: "Data"
  top: "data"
  top: "label"
  include {
    phase: TRAIN
  }
  transform_param {
    scale: 0.0039215689
    mirror: false
    crop_size: 48
    mean_value: 135
    mean_value: 134
    mean_value: 134
  }
  data_param {
    source: "../local_data/lmdb/rtsd-r3/CoNorm/train/lmdb"
    batch_size: 1024
    backend: LMDB
  }
}
layer {
  name: "conv1"
  type: "Convolution"
  bottom: "data"
  top: "conv1"
  convolution_param {
    num_output: 100
    pad: 0
    kernel_size: 7
    group: 1
    stride: 1
    weight_filler {
      type: "xavier"
    }
  }
}
layer {
  name: "conv1_relu"
  type: "ReLU"
  bottom: "conv1"
  top: "conv1"
}
layer {
  name: "pool1"
  type: "Pooling"
  bottom: "conv1"
  top: "pool1"
  pooling_param {
    pool: MAX
    kernel_size: 2
    stride: 2
  }
}
layer {
  name: "conv2"
  type: "Convolution"
  bottom: "pool1"
  top: "conv2"
  convolution_param {
    num_output: 150
    pad: 0
    kernel_size: 4
    group: 1
    stride: 1
    weight_filler {
      type: "xavier"
    }
  }
}
layer {
  name: "conv2_relu"
  type: "ReLU"
  bottom: "conv2"
  top: "conv2"
}
layer {
  name: "pool2"
  type: "Pooling"
  bottom: "conv2"
  top: "pool2"
  pooling_param {
    pool: MAX
    kernel_size: 2
    stride: 2
  }
}
layer {
  name: "conv3"
  type: "Convolution"
  bottom: "pool2"
  top: "conv3"
  convolution_param {
    num_output: 250
    pad: 0
    kernel_size: 4
    group: 1
    stride: 1
    weight_filler {
      type: "xavier"
    }
  }
}
layer {
  name: "conv3_relu"
  type: "ReLU"
  bottom: "conv3"
  top: "conv3"
}
layer {
  name: "pool3"
  type: "Pooling"
  bottom: "conv3"
  top: "pool3"
  pooling_param {
    pool: MAX
    kernel_size: 2
    stride: 2
  }
}
layer {
  name: "fc4_300"
  type: "InnerProduct"
  bottom: "pool3"
  top: "fc4_300"
  inner_product_param {
    num_output: 300
    weight_filler {
      type: "xavier"
    }
  }
}
layer {
  name: "fc4_relu"
  type: "ReLU"
  bottom: "fc4_300"
  top: "fc4_300"
}
layer {
  name: "fc5_106"
  type: "InnerProduct"
  bottom: "fc4_300"
  top: "fc5_classes"
  inner_product_param {
    num_output: 106
    weight_filler {
      type: "xavier"
    }
  }
}
layer {
  name: "softmax"
  type: "Softmax"
  bottom: "fc5_classes"
  top: "softmax"
}
layer {
  name: "loss"
  type: "MultinomialLogisticLoss"
  bottom: "softmax"
  bottom: "label"
  top: "loss"
}
layer {
  name: "accuracy_1"
  type: "Accuracy"
  bottom: "fc5_classes"
  bottom: "label"
  top: "accuracy_1"
  accuracy_param {
    top_k: 1
  }
}
layer {
  name: "accuracy_5"
  type: "Accuracy"
  bottom: "fc5_classes"
  bottom: "label"
  top: "accuracy_5"
  accuracy_param {
    top_k: 5
  }
}
layer {
  name: "silence"
  type: "Silence"
  bottom: "accuracy_1"
  bottom: "accuracy_5"
}
I0414 09:28:24.984386 29302 layer_factory.hpp:77] Creating layer data
I0414 09:28:24.985443 29302 net.cpp:100] Creating Layer data
I0414 09:28:24.985458 29302 net.cpp:408] data -> data
I0414 09:28:24.985484 29302 net.cpp:408] data -> label
I0414 09:28:24.991381 29397 db_lmdb.cpp:35] Opened lmdb ../local_data/lmdb/rtsd-r3/CoNorm/train/lmdb
I0414 09:28:25.010159 29302 data_layer.cpp:41] output data size: 1024,3,48,48
I0414 09:28:25.074393 29302 net.cpp:150] Setting up data
I0414 09:28:25.074450 29302 net.cpp:157] Top shape: 1024 3 48 48 (7077888)
I0414 09:28:25.074456 29302 net.cpp:157] Top shape: 1024 (1024)
I0414 09:28:25.074460 29302 net.cpp:165] Memory required for data: 28315648
I0414 09:28:25.074473 29302 layer_factory.hpp:77] Creating layer label_data_1_split
I0414 09:28:25.074488 29302 net.cpp:100] Creating Layer label_data_1_split
I0414 09:28:25.074496 29302 net.cpp:434] label_data_1_split <- label
I0414 09:28:25.074512 29302 net.cpp:408] label_data_1_split -> label_data_1_split_0
I0414 09:28:25.074523 29302 net.cpp:408] label_data_1_split -> label_data_1_split_1
I0414 09:28:25.074532 29302 net.cpp:408] label_data_1_split -> label_data_1_split_2
I0414 09:28:25.074594 29302 net.cpp:150] Setting up label_data_1_split
I0414 09:28:25.074602 29302 net.cpp:157] Top shape: 1024 (1024)
I0414 09:28:25.074609 29302 net.cpp:157] Top shape: 1024 (1024)
I0414 09:28:25.074612 29302 net.cpp:157] Top shape: 1024 (1024)
I0414 09:28:25.074615 29302 net.cpp:165] Memory required for data: 28327936
I0414 09:28:25.074618 29302 layer_factory.hpp:77] Creating layer conv1
I0414 09:28:25.074635 29302 net.cpp:100] Creating Layer conv1
I0414 09:28:25.074640 29302 net.cpp:434] conv1 <- data
I0414 09:28:25.074651 29302 net.cpp:408] conv1 -> conv1
I0414 09:28:25.438897 29302 net.cpp:150] Setting up conv1
I0414 09:28:25.438926 29302 net.cpp:157] Top shape: 1024 100 42 42 (180633600)
I0414 09:28:25.438930 29302 net.cpp:165] Memory required for data: 750862336
I0414 09:28:25.438954 29302 layer_factory.hpp:77] Creating layer conv1_relu
I0414 09:28:25.438967 29302 net.cpp:100] Creating Layer conv1_relu
I0414 09:28:25.438973 29302 net.cpp:434] conv1_relu <- conv1
I0414 09:28:25.438979 29302 net.cpp:395] conv1_relu -> conv1 (in-place)
I0414 09:28:25.439188 29302 net.cpp:150] Setting up conv1_relu
I0414 09:28:25.439200 29302 net.cpp:157] Top shape: 1024 100 42 42 (180633600)
I0414 09:28:25.439205 29302 net.cpp:165] Memory required for data: 1473396736
I0414 09:28:25.439209 29302 layer_factory.hpp:77] Creating layer pool1
I0414 09:28:25.439219 29302 net.cpp:100] Creating Layer pool1
I0414 09:28:25.439224 29302 net.cpp:434] pool1 <- conv1
I0414 09:28:25.439229 29302 net.cpp:408] pool1 -> pool1
I0414 09:28:25.439286 29302 net.cpp:150] Setting up pool1
I0414 09:28:25.439296 29302 net.cpp:157] Top shape: 1024 100 21 21 (45158400)
I0414 09:28:25.439301 29302 net.cpp:165] Memory required for data: 1654030336
I0414 09:28:25.439303 29302 layer_factory.hpp:77] Creating layer conv2
I0414 09:28:25.439316 29302 net.cpp:100] Creating Layer conv2
I0414 09:28:25.439321 29302 net.cpp:434] conv2 <- pool1
I0414 09:28:25.439326 29302 net.cpp:408] conv2 -> conv2
I0414 09:28:25.445070 29302 net.cpp:150] Setting up conv2
I0414 09:28:25.445089 29302 net.cpp:157] Top shape: 1024 150 18 18 (49766400)
I0414 09:28:25.445096 29302 net.cpp:165] Memory required for data: 1853095936
I0414 09:28:25.445106 29302 layer_factory.hpp:77] Creating layer conv2_relu
I0414 09:28:25.445116 29302 net.cpp:100] Creating Layer conv2_relu
I0414 09:28:25.445122 29302 net.cpp:434] conv2_relu <- conv2
I0414 09:28:25.445127 29302 net.cpp:395] conv2_relu -> conv2 (in-place)
I0414 09:28:25.446462 29302 net.cpp:150] Setting up conv2_relu
I0414 09:28:25.446477 29302 net.cpp:157] Top shape: 1024 150 18 18 (49766400)
I0414 09:28:25.446482 29302 net.cpp:165] Memory required for data: 2052161536
I0414 09:28:25.446486 29302 layer_factory.hpp:77] Creating layer pool2
I0414 09:28:25.446496 29302 net.cpp:100] Creating Layer pool2
I0414 09:28:25.446501 29302 net.cpp:434] pool2 <- conv2
I0414 09:28:25.446506 29302 net.cpp:408] pool2 -> pool2
I0414 09:28:25.446563 29302 net.cpp:150] Setting up pool2
I0414 09:28:25.446573 29302 net.cpp:157] Top shape: 1024 150 9 9 (12441600)
I0414 09:28:25.446578 29302 net.cpp:165] Memory required for data: 2101927936
I0414 09:28:25.446581 29302 layer_factory.hpp:77] Creating layer conv3
I0414 09:28:25.446593 29302 net.cpp:100] Creating Layer conv3
I0414 09:28:25.446599 29302 net.cpp:434] conv3 <- pool2
I0414 09:28:25.446604 29302 net.cpp:408] conv3 -> conv3
I0414 09:28:25.452898 29302 net.cpp:150] Setting up conv3
I0414 09:28:25.452919 29302 net.cpp:157] Top shape: 1024 250 6 6 (9216000)
I0414 09:28:25.452924 29302 net.cpp:165] Memory required for data: 2138791936
I0414 09:28:25.452934 29302 layer_factory.hpp:77] Creating layer conv3_relu
I0414 09:28:25.452944 29302 net.cpp:100] Creating Layer conv3_relu
I0414 09:28:25.452950 29302 net.cpp:434] conv3_relu <- conv3
I0414 09:28:25.452955 29302 net.cpp:395] conv3_relu -> conv3 (in-place)
I0414 09:28:25.467039 29302 net.cpp:150] Setting up conv3_relu
I0414 09:28:25.467061 29302 net.cpp:157] Top shape: 1024 250 6 6 (9216000)
I0414 09:28:25.467066 29302 net.cpp:165] Memory required for data: 2175655936
I0414 09:28:25.467070 29302 layer_factory.hpp:77] Creating layer pool3
I0414 09:28:25.467079 29302 net.cpp:100] Creating Layer pool3
I0414 09:28:25.467085 29302 net.cpp:434] pool3 <- conv3
I0414 09:28:25.467092 29302 net.cpp:408] pool3 -> pool3
I0414 09:28:25.467149 29302 net.cpp:150] Setting up pool3
I0414 09:28:25.467157 29302 net.cpp:157] Top shape: 1024 250 3 3 (2304000)
I0414 09:28:25.467162 29302 net.cpp:165] Memory required for data: 2184871936
I0414 09:28:25.467165 29302 layer_factory.hpp:77] Creating layer fc4_300
I0414 09:28:25.467172 29302 net.cpp:100] Creating Layer fc4_300
I0414 09:28:25.467177 29302 net.cpp:434] fc4_300 <- pool3
I0414 09:28:25.467182 29302 net.cpp:408] fc4_300 -> fc4_300
I0414 09:28:25.474481 29302 net.cpp:150] Setting up fc4_300
I0414 09:28:25.474501 29302 net.cpp:157] Top shape: 1024 300 (307200)
I0414 09:28:25.474505 29302 net.cpp:165] Memory required for data: 2186100736
I0414 09:28:25.474514 29302 layer_factory.hpp:77] Creating layer fc4_relu
I0414 09:28:25.474520 29302 net.cpp:100] Creating Layer fc4_relu
I0414 09:28:25.474524 29302 net.cpp:434] fc4_relu <- fc4_300
I0414 09:28:25.474529 29302 net.cpp:395] fc4_relu -> fc4_300 (in-place)
I0414 09:28:25.474720 29302 net.cpp:150] Setting up fc4_relu
I0414 09:28:25.474731 29302 net.cpp:157] Top shape: 1024 300 (307200)
I0414 09:28:25.474736 29302 net.cpp:165] Memory required for data: 2187329536
I0414 09:28:25.474740 29302 layer_factory.hpp:77] Creating layer fc5_106
I0414 09:28:25.474747 29302 net.cpp:100] Creating Layer fc5_106
I0414 09:28:25.474750 29302 net.cpp:434] fc5_106 <- fc4_300
I0414 09:28:25.474756 29302 net.cpp:408] fc5_106 -> fc5_classes
I0414 09:28:25.479133 29302 net.cpp:150] Setting up fc5_106
I0414 09:28:25.479151 29302 net.cpp:157] Top shape: 1024 106 (108544)
I0414 09:28:25.479157 29302 net.cpp:165] Memory required for data: 2187763712
I0414 09:28:25.479169 29302 layer_factory.hpp:77] Creating layer fc5_classes_fc5_106_0_split
I0414 09:28:25.479178 29302 net.cpp:100] Creating Layer fc5_classes_fc5_106_0_split
I0414 09:28:25.479183 29302 net.cpp:434] fc5_classes_fc5_106_0_split <- fc5_classes
I0414 09:28:25.479189 29302 net.cpp:408] fc5_classes_fc5_106_0_split -> fc5_classes_fc5_106_0_split_0
I0414 09:28:25.479197 29302 net.cpp:408] fc5_classes_fc5_106_0_split -> fc5_classes_fc5_106_0_split_1
I0414 09:28:25.479205 29302 net.cpp:408] fc5_classes_fc5_106_0_split -> fc5_classes_fc5_106_0_split_2
I0414 09:28:25.479259 29302 net.cpp:150] Setting up fc5_classes_fc5_106_0_split
I0414 09:28:25.479266 29302 net.cpp:157] Top shape: 1024 106 (108544)
I0414 09:28:25.479270 29302 net.cpp:157] Top shape: 1024 106 (108544)
I0414 09:28:25.479274 29302 net.cpp:157] Top shape: 1024 106 (108544)
I0414 09:28:25.479277 29302 net.cpp:165] Memory required for data: 2189066240
I0414 09:28:25.479281 29302 layer_factory.hpp:77] Creating layer softmax
I0414 09:28:25.479286 29302 net.cpp:100] Creating Layer softmax
I0414 09:28:25.479290 29302 net.cpp:434] softmax <- fc5_classes_fc5_106_0_split_0
I0414 09:28:25.479296 29302 net.cpp:408] softmax -> softmax
I0414 09:28:25.479548 29302 net.cpp:150] Setting up softmax
I0414 09:28:25.479562 29302 net.cpp:157] Top shape: 1024 106 (108544)
I0414 09:28:25.479567 29302 net.cpp:165] Memory required for data: 2189500416
I0414 09:28:25.479570 29302 layer_factory.hpp:77] Creating layer loss
I0414 09:28:25.479598 29302 net.cpp:100] Creating Layer loss
I0414 09:28:25.479604 29302 net.cpp:434] loss <- softmax
I0414 09:28:25.479609 29302 net.cpp:434] loss <- label_data_1_split_0
I0414 09:28:25.479614 29302 net.cpp:408] loss -> loss
…
