…
I0417 19:53:08.841552  7792 solver.cpp:93] Creating training net from train_net file: ./Prototxt/experiment_11/rtsd-r1/histeq/trial_5/train.prototxt
I0417 19:53:08.842034  7792 net.cpp:58] Initializing net from parameters: 
state {
  phase: TRAIN
  level: 0
  stage: ""
}
layer {
  name: "data"
  type: "Data"
  top: "data"
  top: "label"
  include {
    phase: TRAIN
  }
  transform_param {
    scale: 0.0039215689
    mirror: false
    crop_size: 48
    mean_value: 130
    mean_value: 123
    mean_value: 137
  }
  data_param {
    source: "../local_data/lmdb/rtsd-r1/histeq/train/lmdb"
    batch_size: 1024
    backend: LMDB
  }
}
layer {
  name: "conv1"
  type: "Convolution"
  bottom: "data"
  top: "conv1"
  convolution_param {
    num_output: 100
    pad: 0
    kernel_size: 7
    group: 1
    stride: 1
    weight_filler {
      type: "xavier"
    }
  }
}
layer {
  name: "conv1_prescale"
  type: "Scale"
  bottom: "conv1"
  top: "conv1"
  param {
    lr_mult: 0
    decay_mult: 0
  }
  scale_param {
    filler {
      value: 0.6666
    }
    bias_term: false
  }
}
layer {
  name: "conv1_sTanH"
  type: "TanH"
  bottom: "conv1"
  top: "conv1"
}
layer {
  name: "conv1_postscale"
  type: "Scale"
  bottom: "conv1"
  top: "conv1"
  param {
    lr_mult: 0
    decay_mult: 0
  }
  scale_param {
    filler {
      value: 1.7159
    }
    bias_term: false
  }
}
layer {
  name: "pool1"
  type: "Pooling"
  bottom: "conv1"
  top: "pool1"
  pooling_param {
    pool: MAX
    kernel_size: 2
    stride: 2
  }
}
layer {
  name: "conv2"
  type: "Convolution"
  bottom: "pool1"
  top: "conv2"
  convolution_param {
    num_output: 150
    pad: 0
    kernel_size: 4
    group: 1
    stride: 1
    weight_filler {
      type: "xavier"
    }
  }
}
layer {
  name: "conv2_prescale"
  type: "Scale"
  bottom: "conv2"
  top: "conv2"
  param {
    lr_mult: 0
    decay_mult: 0
  }
  scale_param {
    filler {
      value: 0.6666
    }
    bias_term: false
  }
}
layer {
  name: "conv2_sTanH"
  type: "TanH"
  bottom: "conv2"
  top: "conv2"
}
layer {
  name: "conv2_postscale"
  type: "Scale"
  bottom: "conv2"
  top: "conv2"
  param {
    lr_mult: 0
    decay_mult: 0
  }
  scale_param {
    filler {
      value: 1.7159
    }
    bias_term: false
  }
}
layer {
  name: "pool2"
  type: "Pooling"
  bottom: "conv2"
  top: "pool2"
  pooling_param {
    pool: MAX
    kernel_size: 2
    stride: 2
  }
}
layer {
  name: "conv3"
  type: "Convolution"
  bottom: "pool2"
  top: "conv3"
  convolution_param {
    num_output: 250
    pad: 0
    kernel_size: 4
    group: 1
    stride: 1
    weight_filler {
      type: "xavier"
    }
  }
}
layer {
  name: "conv3_prescale"
  type: "Scale"
  bottom: "conv3"
  top: "conv3"
  param {
    lr_mult: 0
    decay_mult: 0
  }
  scale_param {
    filler {
      value: 0.6666
    }
    bias_term: false
  }
}
layer {
  name: "conv3_sTanH"
  type: "TanH"
  bottom: "conv3"
  top: "conv3"
}
layer {
  name: "conv3_postscale"
  type: "Scale"
  bottom: "conv3"
  top: "conv3"
  param {
    lr_mult: 0
    decay_mult: 0
  }
  scale_param {
    filler {
      value: 1.7159
    }
    bias_term: false
  }
}
layer {
  name: "pool3"
  type: "Pooling"
  bottom: "conv3"
  top: "pool3"
  pooling_param {
    pool: MAX
    kernel_size: 2
    stride: 2
  }
}
layer {
  name: "fc4_300"
  type: "InnerProduct"
  bottom: "pool3"
  top: "fc4_300"
  inner_product_param {
    num_output: 300
    weight_filler {
      type: "xavier"
    }
  }
}
layer {
  name: "fc4_prescale"
  type: "Scale"
  bottom: "fc4_300"
  top: "fc4_300"
  param {
    lr_mult: 0
    decay_mult: 0
  }
  scale_param {
    filler {
      value: 0.6666
    }
    bias_term: false
  }
}
layer {
  name: "fc4_sTanH"
  type: "TanH"
  bottom: "fc4_300"
  top: "fc4_300"
}
layer {
  name: "fc4_postscale"
  type: "Scale"
  bottom: "fc4_300"
  top: "fc4_300"
  param {
    lr_mult: 0
    decay_mult: 0
  }
  scale_param {
    filler {
      value: 1.7159
    }
    bias_term: false
  }
}
layer {
  name: "fc5_67"
  type: "InnerProduct"
  bottom: "fc4_300"
  top: "fc5_classes"
  inner_product_param {
    num_output: 67
    weight_filler {
      type: "xavier"
    }
  }
}
layer {
  name: "softmax"
  type: "Softmax"
  bottom: "fc5_classes"
  top: "softmax"
}
layer {
  name: "loss"
  type: "MultinomialLogisticLoss"
  bottom: "softmax"
  bottom: "label"
  top: "loss"
}
layer {
  name: "accuracy_1"
  type: "Accuracy"
  bottom: "fc5_classes"
  bottom: "label"
  top: "accuracy_1"
  accuracy_param {
    top_k: 1
  }
}
layer {
  name: "accuracy_5"
  type: "Accuracy"
  bottom: "fc5_classes"
  bottom: "label"
  top: "accuracy_5"
  accuracy_param {
    top_k: 5
  }
}
layer {
  name: "silence"
  type: "Silence"
  bottom: "accuracy_1"
  bottom: "accuracy_5"
}
I0417 19:53:08.842198  7792 layer_factory.hpp:77] Creating layer data
I0417 19:53:08.843374  7792 net.cpp:100] Creating Layer data
I0417 19:53:08.843391  7792 net.cpp:408] data -> data
I0417 19:53:08.843415  7792 net.cpp:408] data -> label
I0417 19:53:08.848731  8023 db_lmdb.cpp:35] Opened lmdb ../local_data/lmdb/rtsd-r1/histeq/train/lmdb
I0417 19:53:08.871348  7792 data_layer.cpp:41] output data size: 1024,3,48,48
I0417 19:53:08.930136  7792 net.cpp:150] Setting up data
I0417 19:53:08.930166  7792 net.cpp:157] Top shape: 1024 3 48 48 (7077888)
I0417 19:53:08.930171  7792 net.cpp:157] Top shape: 1024 (1024)
I0417 19:53:08.930174  7792 net.cpp:165] Memory required for data: 28315648
I0417 19:53:08.930186  7792 layer_factory.hpp:77] Creating layer label_data_1_split
I0417 19:53:08.930199  7792 net.cpp:100] Creating Layer label_data_1_split
I0417 19:53:08.930207  7792 net.cpp:434] label_data_1_split <- label
I0417 19:53:08.930222  7792 net.cpp:408] label_data_1_split -> label_data_1_split_0
I0417 19:53:08.930234  7792 net.cpp:408] label_data_1_split -> label_data_1_split_1
I0417 19:53:08.930243  7792 net.cpp:408] label_data_1_split -> label_data_1_split_2
I0417 19:53:08.930313  7792 net.cpp:150] Setting up label_data_1_split
I0417 19:53:08.930321  7792 net.cpp:157] Top shape: 1024 (1024)
I0417 19:53:08.930325  7792 net.cpp:157] Top shape: 1024 (1024)
I0417 19:53:08.930330  7792 net.cpp:157] Top shape: 1024 (1024)
I0417 19:53:08.930331  7792 net.cpp:165] Memory required for data: 28327936
I0417 19:53:08.930335  7792 layer_factory.hpp:77] Creating layer conv1
I0417 19:53:08.930352  7792 net.cpp:100] Creating Layer conv1
I0417 19:53:08.930357  7792 net.cpp:434] conv1 <- data
I0417 19:53:08.930363  7792 net.cpp:408] conv1 -> conv1
I0417 19:53:09.324098  7792 net.cpp:150] Setting up conv1
I0417 19:53:09.324127  7792 net.cpp:157] Top shape: 1024 100 42 42 (180633600)
I0417 19:53:09.324131  7792 net.cpp:165] Memory required for data: 750862336
I0417 19:53:09.324154  7792 layer_factory.hpp:77] Creating layer conv1_prescale
I0417 19:53:09.324169  7792 net.cpp:100] Creating Layer conv1_prescale
I0417 19:53:09.324178  7792 net.cpp:434] conv1_prescale <- conv1
I0417 19:53:09.324189  7792 net.cpp:395] conv1_prescale -> conv1 (in-place)
I0417 19:53:09.324313  7792 net.cpp:150] Setting up conv1_prescale
I0417 19:53:09.324324  7792 net.cpp:157] Top shape: 1024 100 42 42 (180633600)
I0417 19:53:09.324327  7792 net.cpp:165] Memory required for data: 1473396736
I0417 19:53:09.324335  7792 layer_factory.hpp:77] Creating layer conv1_sTanH
I0417 19:53:09.324349  7792 net.cpp:100] Creating Layer conv1_sTanH
I0417 19:53:09.324357  7792 net.cpp:434] conv1_sTanH <- conv1
I0417 19:53:09.324364  7792 net.cpp:395] conv1_sTanH -> conv1 (in-place)
I0417 19:53:09.324595  7792 net.cpp:150] Setting up conv1_sTanH
I0417 19:53:09.324633  7792 net.cpp:157] Top shape: 1024 100 42 42 (180633600)
I0417 19:53:09.324638  7792 net.cpp:165] Memory required for data: 2195931136
I0417 19:53:09.324641  7792 layer_factory.hpp:77] Creating layer conv1_postscale
I0417 19:53:09.324648  7792 net.cpp:100] Creating Layer conv1_postscale
I0417 19:53:09.324652  7792 net.cpp:434] conv1_postscale <- conv1
I0417 19:53:09.324657  7792 net.cpp:395] conv1_postscale -> conv1 (in-place)
I0417 19:53:09.324755  7792 net.cpp:150] Setting up conv1_postscale
I0417 19:53:09.324764  7792 net.cpp:157] Top shape: 1024 100 42 42 (180633600)
I0417 19:53:09.324766  7792 net.cpp:165] Memory required for data: 2918465536
I0417 19:53:09.324771  7792 layer_factory.hpp:77] Creating layer pool1
I0417 19:53:09.324779  7792 net.cpp:100] Creating Layer pool1
I0417 19:53:09.324781  7792 net.cpp:434] pool1 <- conv1
I0417 19:53:09.324786  7792 net.cpp:408] pool1 -> pool1
I0417 19:53:09.324833  7792 net.cpp:150] Setting up pool1
I0417 19:53:09.324842  7792 net.cpp:157] Top shape: 1024 100 21 21 (45158400)
I0417 19:53:09.324846  7792 net.cpp:165] Memory required for data: 3099099136
I0417 19:53:09.324848  7792 layer_factory.hpp:77] Creating layer conv2
I0417 19:53:09.324858  7792 net.cpp:100] Creating Layer conv2
I0417 19:53:09.324862  7792 net.cpp:434] conv2 <- pool1
I0417 19:53:09.324867  7792 net.cpp:408] conv2 -> conv2
I0417 19:53:09.333791  7792 net.cpp:150] Setting up conv2
I0417 19:53:09.333812  7792 net.cpp:157] Top shape: 1024 150 18 18 (49766400)
I0417 19:53:09.333819  7792 net.cpp:165] Memory required for data: 3298164736
I0417 19:53:09.333834  7792 layer_factory.hpp:77] Creating layer conv2_prescale
I0417 19:53:09.333847  7792 net.cpp:100] Creating Layer conv2_prescale
I0417 19:53:09.333854  7792 net.cpp:434] conv2_prescale <- conv2
I0417 19:53:09.333863  7792 net.cpp:395] conv2_prescale -> conv2 (in-place)
I0417 19:53:09.333984  7792 net.cpp:150] Setting up conv2_prescale
I0417 19:53:09.333995  7792 net.cpp:157] Top shape: 1024 150 18 18 (49766400)
I0417 19:53:09.333998  7792 net.cpp:165] Memory required for data: 3497230336
I0417 19:53:09.334004  7792 layer_factory.hpp:77] Creating layer conv2_sTanH
I0417 19:53:09.334012  7792 net.cpp:100] Creating Layer conv2_sTanH
I0417 19:53:09.334017  7792 net.cpp:434] conv2_sTanH <- conv2
I0417 19:53:09.334024  7792 net.cpp:395] conv2_sTanH -> conv2 (in-place)
I0417 19:53:09.335057  7792 net.cpp:150] Setting up conv2_sTanH
I0417 19:53:09.335073  7792 net.cpp:157] Top shape: 1024 150 18 18 (49766400)
I0417 19:53:09.335077  7792 net.cpp:165] Memory required for data: 3696295936
I0417 19:53:09.335080  7792 layer_factory.hpp:77] Creating layer conv2_postscale
I0417 19:53:09.335090  7792 net.cpp:100] Creating Layer conv2_postscale
I0417 19:53:09.335098  7792 net.cpp:434] conv2_postscale <- conv2
I0417 19:53:09.335105  7792 net.cpp:395] conv2_postscale -> conv2 (in-place)
I0417 19:53:09.335214  7792 net.cpp:150] Setting up conv2_postscale
I0417 19:53:09.335224  7792 net.cpp:157] Top shape: 1024 150 18 18 (49766400)
I0417 19:53:09.335229  7792 net.cpp:165] Memory required for data: 3895361536
I0417 19:53:09.335234  7792 layer_factory.hpp:77] Creating layer pool2
I0417 19:53:09.335243  7792 net.cpp:100] Creating Layer pool2
I0417 19:53:09.335248  7792 net.cpp:434] pool2 <- conv2
I0417 19:53:09.335253  7792 net.cpp:408] pool2 -> pool2
I0417 19:53:09.335295  7792 net.cpp:150] Setting up pool2
I0417 19:53:09.335304  7792 net.cpp:157] Top shape: 1024 150 9 9 (12441600)
I0417 19:53:09.335306  7792 net.cpp:165] Memory required for data: 3945127936
I0417 19:53:09.335314  7792 layer_factory.hpp:77] Creating layer conv3
I0417 19:53:09.335325  7792 net.cpp:100] Creating Layer conv3
I0417 19:53:09.335331  7792 net.cpp:434] conv3 <- pool2
I0417 19:53:09.335337  7792 net.cpp:408] conv3 -> conv3
I0417 19:53:09.342046  7792 net.cpp:150] Setting up conv3
I0417 19:53:09.342063  7792 net.cpp:157] Top shape: 1024 250 6 6 (9216000)
I0417 19:53:09.342067  7792 net.cpp:165] Memory required for data: 3981991936
I0417 19:53:09.342079  7792 layer_factory.hpp:77] Creating layer conv3_prescale
I0417 19:53:09.342103  7792 net.cpp:100] Creating Layer conv3_prescale
I0417 19:53:09.342108  7792 net.cpp:434] conv3_prescale <- conv3
I0417 19:53:09.342114  7792 net.cpp:395] conv3_prescale -> conv3 (in-place)
I0417 19:53:09.342211  7792 net.cpp:150] Setting up conv3_prescale
I0417 19:53:09.342221  7792 net.cpp:157] Top shape: 1024 250 6 6 (9216000)
I0417 19:53:09.342224  7792 net.cpp:165] Memory required for data: 4018855936
I0417 19:53:09.342229  7792 layer_factory.hpp:77] Creating layer conv3_sTanH
I0417 19:53:09.342236  7792 net.cpp:100] Creating Layer conv3_sTanH
I0417 19:53:09.342238  7792 net.cpp:434] conv3_sTanH <- conv3
I0417 19:53:09.342242  7792 net.cpp:395] conv3_sTanH -> conv3 (in-place)
I0417 19:53:09.343824  7792 net.cpp:150] Setting up conv3_sTanH
I0417 19:53:09.343842  7792 net.cpp:157] Top shape: 1024 250 6 6 (9216000)
I0417 19:53:09.343848  7792 net.cpp:165] Memory required for data: 4055719936
I0417 19:53:09.343853  7792 layer_factory.hpp:77] Creating layer conv3_postscale
I0417 19:53:09.343860  7792 net.cpp:100] Creating Layer conv3_postscale
I0417 19:53:09.343863  7792 net.cpp:434] conv3_postscale <- conv3
I0417 19:53:09.343870  7792 net.cpp:395] conv3_postscale -> conv3 (in-place)
I0417 19:53:09.343986  7792 net.cpp:150] Setting up conv3_postscale
I0417 19:53:09.343997  7792 net.cpp:157] Top shape: 1024 250 6 6 (9216000)
I0417 19:53:09.344000  7792 net.cpp:165] Memory required for data: 4092583936
I0417 19:53:09.344005  7792 layer_factory.hpp:77] Creating layer pool3
I0417 19:53:09.344017  7792 net.cpp:100] Creating Layer pool3
I0417 19:53:09.344022  7792 net.cpp:434] pool3 <- conv3
I0417 19:53:09.344027  7792 net.cpp:408] pool3 -> pool3
I0417 19:53:09.344069  7792 net.cpp:150] Setting up pool3
I0417 19:53:09.344077  7792 net.cpp:157] Top shape: 1024 250 3 3 (2304000)
I0417 19:53:09.344080  7792 net.cpp:165] Memory required for data: 4101799936
I0417 19:53:09.344084  7792 layer_factory.hpp:77] Creating layer fc4_300
I0417 19:53:09.344090  7792 net.cpp:100] Creating Layer fc4_300
I0417 19:53:09.344094  7792 net.cpp:434] fc4_300 <- pool3
I0417 19:53:09.344099  7792 net.cpp:408] fc4_300 -> fc4_300
I0417 19:53:09.349855  7792 net.cpp:150] Setting up fc4_300
I0417 19:53:09.349871  7792 net.cpp:157] Top shape: 1024 300 (307200)
I0417 19:53:09.349874  7792 net.cpp:165] Memory required for data: 4103028736
I0417 19:53:09.349881  7792 layer_factory.hpp:77] Creating layer fc4_prescale
I0417 19:53:09.349890  7792 net.cpp:100] Creating Layer fc4_prescale
I0417 19:53:09.349894  7792 net.cpp:434] fc4_prescale <- fc4_300
I0417 19:53:09.349900  7792 net.cpp:395] fc4_prescale -> fc4_300 (in-place)
I0417 19:53:09.349987  7792 net.cpp:150] Setting up fc4_prescale
I0417 19:53:09.350004  7792 net.cpp:157] Top shape: 1024 300 (307200)
I0417 19:53:09.350008  7792 net.cpp:165] Memory required for data: 4104257536
I0417 19:53:09.350011  7792 layer_factory.hpp:77] Creating layer fc4_sTanH
I0417 19:53:09.350016  7792 net.cpp:100] Creating Layer fc4_sTanH
I0417 19:53:09.350019  7792 net.cpp:434] fc4_sTanH <- fc4_300
I0417 19:53:09.350024  7792 net.cpp:395] fc4_sTanH -> fc4_300 (in-place)
I0417 19:53:09.350217  7792 net.cpp:150] Setting up fc4_sTanH
I0417 19:53:09.350229  7792 net.cpp:157] Top shape: 1024 300 (307200)
I0417 19:53:09.350232  7792 net.cpp:165] Memory required for data: 4105486336
I0417 19:53:09.350235  7792 layer_factory.hpp:77] Creating layer fc4_postscale
I0417 19:53:09.350242  7792 net.cpp:100] Creating Layer fc4_postscale
I0417 19:53:09.350247  7792 net.cpp:434] fc4_postscale <- fc4_300
I0417 19:53:09.350252  7792 net.cpp:395] fc4_postscale -> fc4_300 (in-place)
I0417 19:53:09.350350  7792 net.cpp:150] Setting up fc4_postscale
I0417 19:53:09.350359  7792 net.cpp:157] Top shape: 1024 300 (307200)
I0417 19:53:09.350361  7792 net.cpp:165] Memory required for data: 4106715136
I0417 19:53:09.350366  7792 layer_factory.hpp:77] Creating layer fc5_67
I0417 19:53:09.350373  7792 net.cpp:100] Creating Layer fc5_67
I0417 19:53:09.350378  7792 net.cpp:434] fc5_67 <- fc4_300
I0417 19:53:09.350383  7792 net.cpp:408] fc5_67 -> fc5_classes
I0417 19:53:09.354562  7792 net.cpp:150] Setting up fc5_67
I0417 19:53:09.354579  7792 net.cpp:157] Top shape: 1024 67 (68608)
I0417 19:53:09.354583  7792 net.cpp:165] Memory required for data: 4106989568
I0417 19:53:09.354593  7792 layer_factory.hpp:77] Creating layer fc5_classes_fc5_67_0_split
I0417 19:53:09.354602  7792 net.cpp:100] Creating Layer fc5_classes_fc5_67_0_split
I0417 19:53:09.354607  7792 net.cpp:434] fc5_classes_fc5_67_0_split <- fc5_classes
I0417 19:53:09.354615  7792 net.cpp:408] fc5_classes_fc5_67_0_split -> fc5_classes_fc5_67_0_split_0
I0417 19:53:09.354624  7792 net.cpp:408] fc5_classes_fc5_67_0_split -> fc5_classes_fc5_67_0_split_1
I0417 19:53:09.354632  7792 net.cpp:408] fc5_classes_fc5_67_0_split -> fc5_classes_fc5_67_0_split_2
I0417 19:53:09.354687  7792 net.cpp:150] Setting up fc5_classes_fc5_67_0_split
I0417 19:53:09.354697  7792 net.cpp:157] Top shape: 1024 67 (68608)
I0417 19:53:09.354701  7792 net.cpp:157] Top shape: 1024 67 (68608)
I0417 19:53:09.354704  7792 net.cpp:157] Top shape: 1024 67 (68608)
I0417 19:53:09.354707  7792 net.cpp:165] Memory required for data: 4107812864
I0417 19:53:09.354710  7792 layer_factory.hpp:77] Creating layer softmax
I0417 19:53:09.354717  7792 net.cpp:100] Creating Layer softmax
I0417 19:53:09.354722  7792 net.cpp:434] softmax <- fc5_classes_fc5_67_0_split_0
I0417 19:53:09.354727  7792 net.cpp:408] softmax -> softmax
I0417 19:53:09.354986  7792 net.cpp:150] Setting up softmax
I0417 19:53:09.355000  7792 net.cpp:157] Top shape: 1024 67 (68608)
I0417 19:53:09.355002  7792 net.cpp:165] Memory required for data: 4108087296
I0417 19:53:09.355005  7792 layer_factory.hpp:77] Creating layer loss
I0417 19:53:09.355012  7792 net.cpp:100] Creating Layer loss
I0417 19:53:09.355015  7792 net.cpp:434] loss <- softmax
I0417 19:53:09.355020  7792 net.cpp:434] loss <- label_data_1_split_0
I0417 19:53:09.355026  7792 net.cpp:408] loss -> loss
…
