…
I0414 06:39:43.678764  8913 solver.cpp:93] Creating training net from train_net file: ./Prototxt/experiment_11/rtsd-r1/histeq/trial_5/train.prototxt
I0414 06:39:43.679489  8913 net.cpp:58] Initializing net from parameters: 
state {
  phase: TRAIN
  level: 0
  stage: ""
}
layer {
  name: "data"
  type: "Data"
  top: "data"
  top: "label"
  include {
    phase: TRAIN
  }
  transform_param {
    scale: 0.0039215689
    mirror: false
    crop_size: 48
    mean_value: 130
    mean_value: 123
    mean_value: 137
  }
  data_param {
    source: "../local_data/lmdb/rtsd-r1/histeq/train/lmdb"
    batch_size: 1024
    backend: LMDB
  }
}
layer {
  name: "conv1"
  type: "Convolution"
  bottom: "data"
  top: "conv1"
  convolution_param {
    num_output: 100
    pad: 0
    kernel_size: 7
    group: 1
    stride: 1
    weight_filler {
      type: "xavier"
    }
  }
}
layer {
  name: "conv1_prescale"
  type: "Scale"
  bottom: "conv1"
  top: "conv1"
  param {
    lr_mult: 0
    decay_mult: 0
  }
  scale_param {
    filler {
      value: 0.6666
    }
    bias_term: false
  }
}
layer {
  name: "conv1_sTanH"
  type: "TanH"
  bottom: "conv1"
  top: "conv1"
}
layer {
  name: "conv1_postscale"
  type: "Scale"
  bottom: "conv1"
  top: "conv1"
  param {
    lr_mult: 0
    decay_mult: 0
  }
  scale_param {
    filler {
      value: 1.7159
    }
    bias_term: false
  }
}
layer {
  name: "pool1"
  type: "Pooling"
  bottom: "conv1"
  top: "pool1"
  pooling_param {
    pool: MAX
    kernel_size: 2
    stride: 2
  }
}
layer {
  name: "conv2"
  type: "Convolution"
  bottom: "pool1"
  top: "conv2"
  convolution_param {
    num_output: 150
    pad: 0
    kernel_size: 4
    group: 1
    stride: 1
    weight_filler {
      type: "xavier"
    }
  }
}
layer {
  name: "conv2_prescale"
  type: "Scale"
  bottom: "conv2"
  top: "conv2"
  param {
    lr_mult: 0
    decay_mult: 0
  }
  scale_param {
    filler {
      value: 0.6666
    }
    bias_term: false
  }
}
layer {
  name: "conv2_sTanH"
  type: "TanH"
  bottom: "conv2"
  top: "conv2"
}
layer {
  name: "conv2_postscale"
  type: "Scale"
  bottom: "conv2"
  top: "conv2"
  param {
    lr_mult: 0
    decay_mult: 0
  }
  scale_param {
    filler {
      value: 1.7159
    }
    bias_term: false
  }
}
layer {
  name: "pool2"
  type: "Pooling"
  bottom: "conv2"
  top: "pool2"
  pooling_param {
    pool: MAX
    kernel_size: 2
    stride: 2
  }
}
layer {
  name: "conv3"
  type: "Convolution"
  bottom: "pool2"
  top: "conv3"
  convolution_param {
    num_output: 250
    pad: 0
    kernel_size: 4
    group: 1
    stride: 1
    weight_filler {
      type: "xavier"
    }
  }
}
layer {
  name: "conv3_prescale"
  type: "Scale"
  bottom: "conv3"
  top: "conv3"
  param {
    lr_mult: 0
    decay_mult: 0
  }
  scale_param {
    filler {
      value: 0.6666
    }
    bias_term: false
  }
}
layer {
  name: "conv3_sTanH"
  type: "TanH"
  bottom: "conv3"
  top: "conv3"
}
layer {
  name: "conv3_postscale"
  type: "Scale"
  bottom: "conv3"
  top: "conv3"
  param {
    lr_mult: 0
    decay_mult: 0
  }
  scale_param {
    filler {
      value: 1.7159
    }
    bias_term: false
  }
}
layer {
  name: "pool3"
  type: "Pooling"
  bottom: "conv3"
  top: "pool3"
  pooling_param {
    pool: MAX
    kernel_size: 2
    stride: 2
  }
}
layer {
  name: "fc4_300"
  type: "InnerProduct"
  bottom: "pool3"
  top: "fc4_300"
  inner_product_param {
    num_output: 300
    weight_filler {
      type: "xavier"
    }
  }
}
layer {
  name: "fc4_prescale"
  type: "Scale"
  bottom: "fc4_300"
  top: "fc4_300"
  param {
    lr_mult: 0
    decay_mult: 0
  }
  scale_param {
    filler {
      value: 0.6666
    }
    bias_term: false
  }
}
layer {
  name: "fc4_sTanH"
  type: "TanH"
  bottom: "fc4_300"
  top: "fc4_300"
}
layer {
  name: "fc4_postscale"
  type: "Scale"
  bottom: "fc4_300"
  top: "fc4_300"
  param {
    lr_mult: 0
    decay_mult: 0
  }
  scale_param {
    filler {
      value: 1.7159
    }
    bias_term: false
  }
}
layer {
  name: "fc5_67"
  type: "InnerProduct"
  bottom: "fc4_300"
  top: "fc5_classes"
  inner_product_param {
    num_output: 67
    weight_filler {
      type: "xavier"
    }
  }
}
layer {
  name: "softmax"
  type: "Softmax"
  bottom: "fc5_classes"
  top: "softmax"
}
layer {
  name: "loss"
  type: "MultinomialLogisticLoss"
  bottom: "softmax"
  bottom: "label"
  top: "loss"
}
layer {
  name: "accuracy_1"
  type: "Accuracy"
  bottom: "fc5_classes"
  bottom: "label"
  top: "accuracy_1"
  accuracy_param {
    top_k: 1
  }
}
layer {
  name: "accuracy_5"
  type: "Accuracy"
  bottom: "fc5_classes"
  bottom: "label"
  top: "accuracy_5"
  accuracy_param {
    top_k: 5
  }
}
layer {
  name: "silence"
  type: "Silence"
  bottom: "accuracy_1"
  bottom: "accuracy_5"
}
I0414 06:39:43.679711  8913 layer_factory.hpp:77] Creating layer data
I0414 06:39:43.681371  8913 net.cpp:100] Creating Layer data
I0414 06:39:43.681391  8913 net.cpp:408] data -> data
I0414 06:39:43.681423  8913 net.cpp:408] data -> label
I0414 06:39:43.700325  9033 db_lmdb.cpp:35] Opened lmdb ../local_data/lmdb/rtsd-r1/histeq/train/lmdb
I0414 06:39:43.735735  8913 data_layer.cpp:41] output data size: 1024,3,48,48
I0414 06:39:43.795755  8913 net.cpp:150] Setting up data
I0414 06:39:43.795783  8913 net.cpp:157] Top shape: 1024 3 48 48 (7077888)
I0414 06:39:43.795789  8913 net.cpp:157] Top shape: 1024 (1024)
I0414 06:39:43.795791  8913 net.cpp:165] Memory required for data: 28315648
I0414 06:39:43.795802  8913 layer_factory.hpp:77] Creating layer label_data_1_split
I0414 06:39:43.795817  8913 net.cpp:100] Creating Layer label_data_1_split
I0414 06:39:43.795825  8913 net.cpp:434] label_data_1_split <- label
I0414 06:39:43.795840  8913 net.cpp:408] label_data_1_split -> label_data_1_split_0
I0414 06:39:43.795852  8913 net.cpp:408] label_data_1_split -> label_data_1_split_1
I0414 06:39:43.795861  8913 net.cpp:408] label_data_1_split -> label_data_1_split_2
I0414 06:39:43.795931  8913 net.cpp:150] Setting up label_data_1_split
I0414 06:39:43.795940  8913 net.cpp:157] Top shape: 1024 (1024)
I0414 06:39:43.795944  8913 net.cpp:157] Top shape: 1024 (1024)
I0414 06:39:43.795948  8913 net.cpp:157] Top shape: 1024 (1024)
I0414 06:39:43.795950  8913 net.cpp:165] Memory required for data: 28327936
I0414 06:39:43.795954  8913 layer_factory.hpp:77] Creating layer conv1
I0414 06:39:43.795970  8913 net.cpp:100] Creating Layer conv1
I0414 06:39:43.795975  8913 net.cpp:434] conv1 <- data
I0414 06:39:43.795981  8913 net.cpp:408] conv1 -> conv1
I0414 06:39:44.157759  8913 net.cpp:150] Setting up conv1
I0414 06:39:44.157791  8913 net.cpp:157] Top shape: 1024 100 42 42 (180633600)
I0414 06:39:44.157796  8913 net.cpp:165] Memory required for data: 750862336
I0414 06:39:44.157819  8913 layer_factory.hpp:77] Creating layer conv1_prescale
I0414 06:39:44.157831  8913 net.cpp:100] Creating Layer conv1_prescale
I0414 06:39:44.157838  8913 net.cpp:434] conv1_prescale <- conv1
I0414 06:39:44.157850  8913 net.cpp:395] conv1_prescale -> conv1 (in-place)
I0414 06:39:44.157977  8913 net.cpp:150] Setting up conv1_prescale
I0414 06:39:44.157991  8913 net.cpp:157] Top shape: 1024 100 42 42 (180633600)
I0414 06:39:44.157994  8913 net.cpp:165] Memory required for data: 1473396736
I0414 06:39:44.158002  8913 layer_factory.hpp:77] Creating layer conv1_sTanH
I0414 06:39:44.158010  8913 net.cpp:100] Creating Layer conv1_sTanH
I0414 06:39:44.158013  8913 net.cpp:434] conv1_sTanH <- conv1
I0414 06:39:44.158018  8913 net.cpp:395] conv1_sTanH -> conv1 (in-place)
I0414 06:39:44.158216  8913 net.cpp:150] Setting up conv1_sTanH
I0414 06:39:44.158247  8913 net.cpp:157] Top shape: 1024 100 42 42 (180633600)
I0414 06:39:44.158252  8913 net.cpp:165] Memory required for data: 2195931136
I0414 06:39:44.158255  8913 layer_factory.hpp:77] Creating layer conv1_postscale
I0414 06:39:44.158262  8913 net.cpp:100] Creating Layer conv1_postscale
I0414 06:39:44.158267  8913 net.cpp:434] conv1_postscale <- conv1
I0414 06:39:44.158272  8913 net.cpp:395] conv1_postscale -> conv1 (in-place)
I0414 06:39:44.158370  8913 net.cpp:150] Setting up conv1_postscale
I0414 06:39:44.158383  8913 net.cpp:157] Top shape: 1024 100 42 42 (180633600)
I0414 06:39:44.158386  8913 net.cpp:165] Memory required for data: 2918465536
I0414 06:39:44.158391  8913 layer_factory.hpp:77] Creating layer pool1
I0414 06:39:44.158401  8913 net.cpp:100] Creating Layer pool1
I0414 06:39:44.158406  8913 net.cpp:434] pool1 <- conv1
I0414 06:39:44.158413  8913 net.cpp:408] pool1 -> pool1
I0414 06:39:44.158463  8913 net.cpp:150] Setting up pool1
I0414 06:39:44.158475  8913 net.cpp:157] Top shape: 1024 100 21 21 (45158400)
I0414 06:39:44.158479  8913 net.cpp:165] Memory required for data: 3099099136
I0414 06:39:44.158483  8913 layer_factory.hpp:77] Creating layer conv2
I0414 06:39:44.158498  8913 net.cpp:100] Creating Layer conv2
I0414 06:39:44.158504  8913 net.cpp:434] conv2 <- pool1
I0414 06:39:44.158510  8913 net.cpp:408] conv2 -> conv2
I0414 06:39:44.168895  8913 net.cpp:150] Setting up conv2
I0414 06:39:44.168912  8913 net.cpp:157] Top shape: 1024 150 18 18 (49766400)
I0414 06:39:44.168915  8913 net.cpp:165] Memory required for data: 3298164736
I0414 06:39:44.168926  8913 layer_factory.hpp:77] Creating layer conv2_prescale
I0414 06:39:44.168937  8913 net.cpp:100] Creating Layer conv2_prescale
I0414 06:39:44.168944  8913 net.cpp:434] conv2_prescale <- conv2
I0414 06:39:44.168953  8913 net.cpp:395] conv2_prescale -> conv2 (in-place)
I0414 06:39:44.169085  8913 net.cpp:150] Setting up conv2_prescale
I0414 06:39:44.169096  8913 net.cpp:157] Top shape: 1024 150 18 18 (49766400)
I0414 06:39:44.169101  8913 net.cpp:165] Memory required for data: 3497230336
I0414 06:39:44.169109  8913 layer_factory.hpp:77] Creating layer conv2_sTanH
I0414 06:39:44.169118  8913 net.cpp:100] Creating Layer conv2_sTanH
I0414 06:39:44.169122  8913 net.cpp:434] conv2_sTanH <- conv2
I0414 06:39:44.169127  8913 net.cpp:395] conv2_sTanH -> conv2 (in-place)
I0414 06:39:44.170306  8913 net.cpp:150] Setting up conv2_sTanH
I0414 06:39:44.170322  8913 net.cpp:157] Top shape: 1024 150 18 18 (49766400)
I0414 06:39:44.170325  8913 net.cpp:165] Memory required for data: 3696295936
I0414 06:39:44.170330  8913 layer_factory.hpp:77] Creating layer conv2_postscale
I0414 06:39:44.170336  8913 net.cpp:100] Creating Layer conv2_postscale
I0414 06:39:44.170341  8913 net.cpp:434] conv2_postscale <- conv2
I0414 06:39:44.170347  8913 net.cpp:395] conv2_postscale -> conv2 (in-place)
I0414 06:39:44.170469  8913 net.cpp:150] Setting up conv2_postscale
I0414 06:39:44.170480  8913 net.cpp:157] Top shape: 1024 150 18 18 (49766400)
I0414 06:39:44.170482  8913 net.cpp:165] Memory required for data: 3895361536
I0414 06:39:44.170487  8913 layer_factory.hpp:77] Creating layer pool2
I0414 06:39:44.170495  8913 net.cpp:100] Creating Layer pool2
I0414 06:39:44.170497  8913 net.cpp:434] pool2 <- conv2
I0414 06:39:44.170505  8913 net.cpp:408] pool2 -> pool2
I0414 06:39:44.170557  8913 net.cpp:150] Setting up pool2
I0414 06:39:44.170572  8913 net.cpp:157] Top shape: 1024 150 9 9 (12441600)
I0414 06:39:44.170578  8913 net.cpp:165] Memory required for data: 3945127936
I0414 06:39:44.170583  8913 layer_factory.hpp:77] Creating layer conv3
I0414 06:39:44.170596  8913 net.cpp:100] Creating Layer conv3
I0414 06:39:44.170603  8913 net.cpp:434] conv3 <- pool2
I0414 06:39:44.170608  8913 net.cpp:408] conv3 -> conv3
I0414 06:39:44.183266  8913 net.cpp:150] Setting up conv3
I0414 06:39:44.183287  8913 net.cpp:157] Top shape: 1024 250 6 6 (9216000)
I0414 06:39:44.183293  8913 net.cpp:165] Memory required for data: 3981991936
I0414 06:39:44.183306  8913 layer_factory.hpp:77] Creating layer conv3_prescale
I0414 06:39:44.183331  8913 net.cpp:100] Creating Layer conv3_prescale
I0414 06:39:44.183337  8913 net.cpp:434] conv3_prescale <- conv3
I0414 06:39:44.183343  8913 net.cpp:395] conv3_prescale -> conv3 (in-place)
I0414 06:39:44.183456  8913 net.cpp:150] Setting up conv3_prescale
I0414 06:39:44.183466  8913 net.cpp:157] Top shape: 1024 250 6 6 (9216000)
I0414 06:39:44.183470  8913 net.cpp:165] Memory required for data: 4018855936
I0414 06:39:44.183475  8913 layer_factory.hpp:77] Creating layer conv3_sTanH
I0414 06:39:44.183481  8913 net.cpp:100] Creating Layer conv3_sTanH
I0414 06:39:44.183485  8913 net.cpp:434] conv3_sTanH <- conv3
I0414 06:39:44.183490  8913 net.cpp:395] conv3_sTanH -> conv3 (in-place)
I0414 06:39:44.184712  8913 net.cpp:150] Setting up conv3_sTanH
I0414 06:39:44.184729  8913 net.cpp:157] Top shape: 1024 250 6 6 (9216000)
I0414 06:39:44.184732  8913 net.cpp:165] Memory required for data: 4055719936
I0414 06:39:44.184736  8913 layer_factory.hpp:77] Creating layer conv3_postscale
I0414 06:39:44.184746  8913 net.cpp:100] Creating Layer conv3_postscale
I0414 06:39:44.184753  8913 net.cpp:434] conv3_postscale <- conv3
I0414 06:39:44.184761  8913 net.cpp:395] conv3_postscale -> conv3 (in-place)
I0414 06:39:44.184875  8913 net.cpp:150] Setting up conv3_postscale
I0414 06:39:44.184886  8913 net.cpp:157] Top shape: 1024 250 6 6 (9216000)
I0414 06:39:44.184890  8913 net.cpp:165] Memory required for data: 4092583936
I0414 06:39:44.184895  8913 layer_factory.hpp:77] Creating layer pool3
I0414 06:39:44.184906  8913 net.cpp:100] Creating Layer pool3
I0414 06:39:44.184911  8913 net.cpp:434] pool3 <- conv3
I0414 06:39:44.184916  8913 net.cpp:408] pool3 -> pool3
I0414 06:39:44.184962  8913 net.cpp:150] Setting up pool3
I0414 06:39:44.184973  8913 net.cpp:157] Top shape: 1024 250 3 3 (2304000)
I0414 06:39:44.184975  8913 net.cpp:165] Memory required for data: 4101799936
I0414 06:39:44.184978  8913 layer_factory.hpp:77] Creating layer fc4_300
I0414 06:39:44.184985  8913 net.cpp:100] Creating Layer fc4_300
I0414 06:39:44.184989  8913 net.cpp:434] fc4_300 <- pool3
I0414 06:39:44.184994  8913 net.cpp:408] fc4_300 -> fc4_300
I0414 06:39:44.197417  8913 net.cpp:150] Setting up fc4_300
I0414 06:39:44.197438  8913 net.cpp:157] Top shape: 1024 300 (307200)
I0414 06:39:44.197441  8913 net.cpp:165] Memory required for data: 4103028736
I0414 06:39:44.197449  8913 layer_factory.hpp:77] Creating layer fc4_prescale
I0414 06:39:44.197459  8913 net.cpp:100] Creating Layer fc4_prescale
I0414 06:39:44.197463  8913 net.cpp:434] fc4_prescale <- fc4_300
I0414 06:39:44.197473  8913 net.cpp:395] fc4_prescale -> fc4_300 (in-place)
I0414 06:39:44.197571  8913 net.cpp:150] Setting up fc4_prescale
I0414 06:39:44.197580  8913 net.cpp:157] Top shape: 1024 300 (307200)
I0414 06:39:44.197583  8913 net.cpp:165] Memory required for data: 4104257536
I0414 06:39:44.197588  8913 layer_factory.hpp:77] Creating layer fc4_sTanH
I0414 06:39:44.197593  8913 net.cpp:100] Creating Layer fc4_sTanH
I0414 06:39:44.197597  8913 net.cpp:434] fc4_sTanH <- fc4_300
I0414 06:39:44.197602  8913 net.cpp:395] fc4_sTanH -> fc4_300 (in-place)
I0414 06:39:44.197806  8913 net.cpp:150] Setting up fc4_sTanH
I0414 06:39:44.197818  8913 net.cpp:157] Top shape: 1024 300 (307200)
I0414 06:39:44.197821  8913 net.cpp:165] Memory required for data: 4105486336
I0414 06:39:44.197824  8913 layer_factory.hpp:77] Creating layer fc4_postscale
I0414 06:39:44.197834  8913 net.cpp:100] Creating Layer fc4_postscale
I0414 06:39:44.197860  8913 net.cpp:434] fc4_postscale <- fc4_300
I0414 06:39:44.197865  8913 net.cpp:395] fc4_postscale -> fc4_300 (in-place)
I0414 06:39:44.197965  8913 net.cpp:150] Setting up fc4_postscale
I0414 06:39:44.197973  8913 net.cpp:157] Top shape: 1024 300 (307200)
I0414 06:39:44.197976  8913 net.cpp:165] Memory required for data: 4106715136
I0414 06:39:44.197981  8913 layer_factory.hpp:77] Creating layer fc5_67
I0414 06:39:44.197990  8913 net.cpp:100] Creating Layer fc5_67
I0414 06:39:44.197994  8913 net.cpp:434] fc5_67 <- fc4_300
I0414 06:39:44.198001  8913 net.cpp:408] fc5_67 -> fc5_classes
I0414 06:39:44.199693  8913 net.cpp:150] Setting up fc5_67
I0414 06:39:44.199708  8913 net.cpp:157] Top shape: 1024 67 (68608)
I0414 06:39:44.199712  8913 net.cpp:165] Memory required for data: 4106989568
I0414 06:39:44.199723  8913 layer_factory.hpp:77] Creating layer fc5_classes_fc5_67_0_split
I0414 06:39:44.199733  8913 net.cpp:100] Creating Layer fc5_classes_fc5_67_0_split
I0414 06:39:44.199738  8913 net.cpp:434] fc5_classes_fc5_67_0_split <- fc5_classes
I0414 06:39:44.199744  8913 net.cpp:408] fc5_classes_fc5_67_0_split -> fc5_classes_fc5_67_0_split_0
I0414 06:39:44.199754  8913 net.cpp:408] fc5_classes_fc5_67_0_split -> fc5_classes_fc5_67_0_split_1
I0414 06:39:44.199762  8913 net.cpp:408] fc5_classes_fc5_67_0_split -> fc5_classes_fc5_67_0_split_2
I0414 06:39:44.199818  8913 net.cpp:150] Setting up fc5_classes_fc5_67_0_split
I0414 06:39:44.199827  8913 net.cpp:157] Top shape: 1024 67 (68608)
I0414 06:39:44.199831  8913 net.cpp:157] Top shape: 1024 67 (68608)
I0414 06:39:44.199836  8913 net.cpp:157] Top shape: 1024 67 (68608)
I0414 06:39:44.199837  8913 net.cpp:165] Memory required for data: 4107812864
I0414 06:39:44.199841  8913 layer_factory.hpp:77] Creating layer softmax
I0414 06:39:44.199847  8913 net.cpp:100] Creating Layer softmax
I0414 06:39:44.199851  8913 net.cpp:434] softmax <- fc5_classes_fc5_67_0_split_0
I0414 06:39:44.199857  8913 net.cpp:408] softmax -> softmax
I0414 06:39:44.200134  8913 net.cpp:150] Setting up softmax
I0414 06:39:44.200150  8913 net.cpp:157] Top shape: 1024 67 (68608)
I0414 06:39:44.200155  8913 net.cpp:165] Memory required for data: 4108087296
I0414 06:39:44.200157  8913 layer_factory.hpp:77] Creating layer loss
I0414 06:39:44.200165  8913 net.cpp:100] Creating Layer loss
I0414 06:39:44.200170  8913 net.cpp:434] loss <- softmax
I0414 06:39:44.200175  8913 net.cpp:434] loss <- label_data_1_split_0
I0414 06:39:44.200179  8913 net.cpp:408] loss -> loss
…
