…
I0402 13:11:20.070097  1396 net.cpp:322] The NetState phase (0) differed from the phase (1) specified by a rule in layer accuracy_5
I0402 13:11:20.070191  1396 net.cpp:58] Initializing net from parameters: 
state {
  phase: TRAIN
  level: 0
  stage: ""
}
layer {
  name: "data"
  type: "Data"
  top: "data"
  top: "label"
  include {
    phase: TRAIN
  }
  transform_param {
    mirror: false
    crop_size: 48
    mean_value: 135
    mean_value: 134
    mean_value: 134
  }
  data_param {
    source: "../local_data/lmdb/rtsd-r3/CoNorm/train/lmdb"
    batch_size: 1024
    backend: LMDB
  }
}
layer {
  name: "conv1"
  type: "Convolution"
  bottom: "data"
  top: "conv1"
  convolution_param {
    num_output: 100
    pad: 0
    kernel_size: 7
    group: 1
    stride: 1
    weight_filler {
      type: "xavier"
    }
  }
}
layer {
  name: "conv1_relu"
  type: "ReLU"
  bottom: "conv1"
  top: "conv1"
}
layer {
  name: "pool1"
  type: "Pooling"
  bottom: "conv1"
  top: "pool1"
  pooling_param {
    pool: MAX
    kernel_size: 2
    stride: 2
  }
}
layer {
  name: "conv2"
  type: "Convolution"
  bottom: "pool1"
  top: "conv2"
  convolution_param {
    num_output: 150
    pad: 0
    kernel_size: 4
    group: 1
    stride: 1
    weight_filler {
      type: "xavier"
    }
  }
}
layer {
  name: "conv2_relu"
  type: "ReLU"
  bottom: "conv2"
  top: "conv2"
}
layer {
  name: "pool2"
  type: "Pooling"
  bottom: "conv2"
  top: "pool2"
  pooling_param {
    pool: MAX
    kernel_size: 2
    stride: 2
  }
}
layer {
  name: "conv3"
  type: "Convolution"
  bottom: "pool2"
  top: "conv3"
  convolution_param {
    num_output: 250
    pad: 0
    kernel_size: 4
    group: 1
    stride: 1
    weight_filler {
      type: "xavier"
    }
  }
}
layer {
  name: "conv3_relu"
  type: "ReLU"
  bottom: "conv3"
  top: "conv3"
}
layer {
  name: "pool3"
  type: "Pooling"
  bottom: "conv3"
  top: "pool3"
  pooling_param {
    pool: MAX
    kernel_size: 2
    stride: 2
  }
}
layer {
  name: "fc4_300"
  type: "InnerProduct"
  bottom: "pool3"
  top: "fc4_300"
  inner_product_param {
    num_output: 300
    weight_filler {
      type: "xavier"
    }
  }
}
layer {
  name: "fc4_relu"
  type: "ReLU"
  bottom: "fc4_300"
  top: "fc4_300"
}
layer {
  name: "drop4"
  type: "Dropout"
  bottom: "fc4_300"
  top: "fc4_300"
  dropout_param {
    dropout_ratio: 0.4
  }
}
layer {
  name: "fc5_106"
  type: "InnerProduct"
  bottom: "fc4_300"
  top: "fc5_classes"
  inner_product_param {
    num_output: 106
    weight_filler {
      type: "xavier"
    }
  }
}
layer {
  name: "loss"
  type: "SoftmaxWithLoss"
  bottom: "fc5_classes"
  bottom: "label"
  top: "loss"
}
I0402 13:11:20.070266  1396 layer_factory.hpp:77] Creating layer data
I0402 13:11:20.071349  1396 net.cpp:100] Creating Layer data
I0402 13:11:20.071375  1396 net.cpp:408] data -> data
I0402 13:11:20.071400  1396 net.cpp:408] data -> label
I0402 13:11:20.072860  1460 db_lmdb.cpp:35] Opened lmdb ../local_data/lmdb/rtsd-r3/CoNorm/train/lmdb
I0402 13:11:20.089689  1396 data_layer.cpp:41] output data size: 1024,3,48,48
I0402 13:11:20.148455  1396 net.cpp:150] Setting up data
I0402 13:11:20.148488  1396 net.cpp:157] Top shape: 1024 3 48 48 (7077888)
I0402 13:11:20.148494  1396 net.cpp:157] Top shape: 1024 (1024)
I0402 13:11:20.148497  1396 net.cpp:165] Memory required for data: 28315648
I0402 13:11:20.148531  1396 layer_factory.hpp:77] Creating layer conv1
I0402 13:11:20.148557  1396 net.cpp:100] Creating Layer conv1
I0402 13:11:20.148566  1396 net.cpp:434] conv1 <- data
I0402 13:11:20.148581  1396 net.cpp:408] conv1 -> conv1
I0402 13:11:20.409215  1396 net.cpp:150] Setting up conv1
I0402 13:11:20.409255  1396 net.cpp:157] Top shape: 1024 100 42 42 (180633600)
I0402 13:11:20.409260  1396 net.cpp:165] Memory required for data: 750850048
I0402 13:11:20.409281  1396 layer_factory.hpp:77] Creating layer conv1_relu
I0402 13:11:20.409307  1396 net.cpp:100] Creating Layer conv1_relu
I0402 13:11:20.409312  1396 net.cpp:434] conv1_relu <- conv1
I0402 13:11:20.409318  1396 net.cpp:395] conv1_relu -> conv1 (in-place)
I0402 13:11:20.409534  1396 net.cpp:150] Setting up conv1_relu
I0402 13:11:20.409548  1396 net.cpp:157] Top shape: 1024 100 42 42 (180633600)
I0402 13:11:20.409551  1396 net.cpp:165] Memory required for data: 1473384448
I0402 13:11:20.409554  1396 layer_factory.hpp:77] Creating layer pool1
I0402 13:11:20.409562  1396 net.cpp:100] Creating Layer pool1
I0402 13:11:20.409565  1396 net.cpp:434] pool1 <- conv1
I0402 13:11:20.409572  1396 net.cpp:408] pool1 -> pool1
I0402 13:11:20.409632  1396 net.cpp:150] Setting up pool1
I0402 13:11:20.409643  1396 net.cpp:157] Top shape: 1024 100 21 21 (45158400)
I0402 13:11:20.409646  1396 net.cpp:165] Memory required for data: 1654018048
I0402 13:11:20.409651  1396 layer_factory.hpp:77] Creating layer conv2
I0402 13:11:20.409662  1396 net.cpp:100] Creating Layer conv2
I0402 13:11:20.409668  1396 net.cpp:434] conv2 <- pool1
I0402 13:11:20.409673  1396 net.cpp:408] conv2 -> conv2
I0402 13:11:20.416256  1396 net.cpp:150] Setting up conv2
I0402 13:11:20.416275  1396 net.cpp:157] Top shape: 1024 150 18 18 (49766400)
I0402 13:11:20.416278  1396 net.cpp:165] Memory required for data: 1853083648
I0402 13:11:20.416287  1396 layer_factory.hpp:77] Creating layer conv2_relu
I0402 13:11:20.416296  1396 net.cpp:100] Creating Layer conv2_relu
I0402 13:11:20.416299  1396 net.cpp:434] conv2_relu <- conv2
I0402 13:11:20.416306  1396 net.cpp:395] conv2_relu -> conv2 (in-place)
I0402 13:11:20.417349  1396 net.cpp:150] Setting up conv2_relu
I0402 13:11:20.417366  1396 net.cpp:157] Top shape: 1024 150 18 18 (49766400)
I0402 13:11:20.417368  1396 net.cpp:165] Memory required for data: 2052149248
I0402 13:11:20.417372  1396 layer_factory.hpp:77] Creating layer pool2
I0402 13:11:20.417382  1396 net.cpp:100] Creating Layer pool2
I0402 13:11:20.417384  1396 net.cpp:434] pool2 <- conv2
I0402 13:11:20.417389  1396 net.cpp:408] pool2 -> pool2
I0402 13:11:20.417439  1396 net.cpp:150] Setting up pool2
I0402 13:11:20.417448  1396 net.cpp:157] Top shape: 1024 150 9 9 (12441600)
I0402 13:11:20.417451  1396 net.cpp:165] Memory required for data: 2101915648
I0402 13:11:20.417454  1396 layer_factory.hpp:77] Creating layer conv3
I0402 13:11:20.417464  1396 net.cpp:100] Creating Layer conv3
I0402 13:11:20.417467  1396 net.cpp:434] conv3 <- pool2
I0402 13:11:20.417472  1396 net.cpp:408] conv3 -> conv3
I0402 13:11:20.426586  1396 net.cpp:150] Setting up conv3
I0402 13:11:20.426605  1396 net.cpp:157] Top shape: 1024 250 6 6 (9216000)
I0402 13:11:20.426621  1396 net.cpp:165] Memory required for data: 2138779648
I0402 13:11:20.426631  1396 layer_factory.hpp:77] Creating layer conv3_relu
I0402 13:11:20.426640  1396 net.cpp:100] Creating Layer conv3_relu
I0402 13:11:20.426643  1396 net.cpp:434] conv3_relu <- conv3
I0402 13:11:20.426651  1396 net.cpp:395] conv3_relu -> conv3 (in-place)
I0402 13:11:20.434515  1396 net.cpp:150] Setting up conv3_relu
I0402 13:11:20.434533  1396 net.cpp:157] Top shape: 1024 250 6 6 (9216000)
I0402 13:11:20.434537  1396 net.cpp:165] Memory required for data: 2175643648
I0402 13:11:20.434540  1396 layer_factory.hpp:77] Creating layer pool3
I0402 13:11:20.434548  1396 net.cpp:100] Creating Layer pool3
I0402 13:11:20.434553  1396 net.cpp:434] pool3 <- conv3
I0402 13:11:20.434558  1396 net.cpp:408] pool3 -> pool3
I0402 13:11:20.434623  1396 net.cpp:150] Setting up pool3
I0402 13:11:20.434648  1396 net.cpp:157] Top shape: 1024 250 3 3 (2304000)
I0402 13:11:20.434653  1396 net.cpp:165] Memory required for data: 2184859648
I0402 13:11:20.434655  1396 layer_factory.hpp:77] Creating layer fc4_300
I0402 13:11:20.434664  1396 net.cpp:100] Creating Layer fc4_300
I0402 13:11:20.434667  1396 net.cpp:434] fc4_300 <- pool3
I0402 13:11:20.434674  1396 net.cpp:408] fc4_300 -> fc4_300
I0402 13:11:20.440150  1396 net.cpp:150] Setting up fc4_300
I0402 13:11:20.440167  1396 net.cpp:157] Top shape: 1024 300 (307200)
I0402 13:11:20.440171  1396 net.cpp:165] Memory required for data: 2186088448
I0402 13:11:20.440177  1396 layer_factory.hpp:77] Creating layer fc4_relu
I0402 13:11:20.440183  1396 net.cpp:100] Creating Layer fc4_relu
I0402 13:11:20.440186  1396 net.cpp:434] fc4_relu <- fc4_300
I0402 13:11:20.440193  1396 net.cpp:395] fc4_relu -> fc4_300 (in-place)
I0402 13:11:20.440435  1396 net.cpp:150] Setting up fc4_relu
I0402 13:11:20.440450  1396 net.cpp:157] Top shape: 1024 300 (307200)
I0402 13:11:20.440454  1396 net.cpp:165] Memory required for data: 2187317248
I0402 13:11:20.440457  1396 layer_factory.hpp:77] Creating layer drop4
I0402 13:11:20.440464  1396 net.cpp:100] Creating Layer drop4
I0402 13:11:20.440467  1396 net.cpp:434] drop4 <- fc4_300
I0402 13:11:20.440475  1396 net.cpp:395] drop4 -> fc4_300 (in-place)
I0402 13:11:20.440510  1396 net.cpp:150] Setting up drop4
I0402 13:11:20.440520  1396 net.cpp:157] Top shape: 1024 300 (307200)
I0402 13:11:20.440522  1396 net.cpp:165] Memory required for data: 2188546048
I0402 13:11:20.440526  1396 layer_factory.hpp:77] Creating layer fc5_106
I0402 13:11:20.440531  1396 net.cpp:100] Creating Layer fc5_106
I0402 13:11:20.440534  1396 net.cpp:434] fc5_106 <- fc4_300
I0402 13:11:20.440539  1396 net.cpp:408] fc5_106 -> fc5_classes
I0402 13:11:20.441833  1396 net.cpp:150] Setting up fc5_106
I0402 13:11:20.441849  1396 net.cpp:157] Top shape: 1024 106 (108544)
I0402 13:11:20.441864  1396 net.cpp:165] Memory required for data: 2188980224
I0402 13:11:20.441875  1396 layer_factory.hpp:77] Creating layer loss
I0402 13:11:20.441882  1396 net.cpp:100] Creating Layer loss
I0402 13:11:20.441885  1396 net.cpp:434] loss <- fc5_classes
I0402 13:11:20.441890  1396 net.cpp:434] loss <- label
I0402 13:11:20.441896  1396 net.cpp:408] loss -> loss
I0402 13:11:20.441910  1396 layer_factory.hpp:77] Creating layer loss
…
I0402 13:11:20.442595  1396 solver.cpp:193] Creating test net (#0) specified by test_net file: ./Prototxt/rtsd-r3/CoNorm/test.prototxt
I0402 13:11:20.442739  1396 net.cpp:58] Initializing net from parameters: 
state {
  phase: TEST
}
layer {
  name: "data"
  type: "Data"
  top: "data"
  top: "label"
  include {
    phase: TEST
  }
  transform_param {
    mirror: false
    crop_size: 48
    mean_value: 136
    mean_value: 136
    mean_value: 135
  }
  data_param {
    source: "../local_data/lmdb/rtsd-r3/CoNorm/test/lmdb"
    batch_size: 1024
    backend: LMDB
  }
}
layer {
  name: "conv1"
  type: "Convolution"
  bottom: "data"
  top: "conv1"
  convolution_param {
    num_output: 100
    pad: 0
    kernel_size: 7
    group: 1
    stride: 1
    weight_filler {
      type: "xavier"
    }
  }
}
layer {
  name: "conv1_relu"
  type: "ReLU"
  bottom: "conv1"
  top: "conv1"
}
layer {
  name: "pool1"
  type: "Pooling"
  bottom: "conv1"
  top: "pool1"
  pooling_param {
    pool: MAX
    kernel_size: 2
    stride: 2
  }
}
layer {
  name: "conv2"
  type: "Convolution"
  bottom: "pool1"
  top: "conv2"
  convolution_param {
    num_output: 150
    pad: 0
    kernel_size: 4
    group: 1
    stride: 1
    weight_filler {
      type: "xavier"
    }
  }
}
layer {
  name: "conv2_relu"
  type: "ReLU"
  bottom: "conv2"
  top: "conv2"
}
layer {
  name: "pool2"
  type: "Pooling"
  bottom: "conv2"
  top: "pool2"
  pooling_param {
    pool: MAX
    kernel_size: 2
    stride: 2
  }
}
layer {
  name: "conv3"
  type: "Convolution"
  bottom: "pool2"
  top: "conv3"
  convolution_param {
    num_output: 250
    pad: 0
    kernel_size: 4
    group: 1
    stride: 1
    weight_filler {
      type: "xavier"
    }
  }
}
layer {
  name: "conv3_relu"
  type: "ReLU"
  bottom: "conv3"
  top: "conv3"
}
layer {
  name: "pool3"
  type: "Pooling"
  bottom: "conv3"
  top: "pool3"
  pooling_param {
    pool: MAX
    kernel_size: 2
    stride: 2
  }
}
layer {
  name: "fc4_300"
  type: "InnerProduct"
  bottom: "pool3"
  top: "fc4_300"
  inner_product_param {
    num_output: 300
    weight_filler {
      type: "xavier"
    }
  }
}
layer {
  name: "fc4_relu"
  type: "ReLU"
  bottom: "fc4_300"
  top: "fc4_300"
}
layer {
  name: "drop4"
  type: "Dropout"
  bottom: "fc4_300"
  top: "fc4_300"
  dropout_param {
    dropout_ratio: 0.4
  }
}
layer {
  name: "fc5_106"
  type: "InnerProduct"
  bottom: "fc4_300"
  top: "fc5_classes"
  inner_product_param {
    num_output: 106
    weight_filler {
      type: "xavier"
    }
  }
}
layer {
  name: "loss"
  type: "SoftmaxWithLoss"
  bottom: "fc5_classes"
  bottom: "label"
  top: "loss"
}
layer {
  name: "accuracy_1"
  type: "Accuracy"
  bottom: "fc5_classes"
  bottom: "label"
  top: "accuracy_1"
  include {
    phase: TEST
  }
  accuracy_param {
    top_k: 1
  }
}
layer {
  name: "accuracy_5"
  type: "Accuracy"
  bottom: "fc5_classes"
  bottom: "label"
  top: "accuracy_5"
  include {
    phase: TEST
  }
  accuracy_param {
    top_k: 5
  }
}
I0402 13:11:20.442836  1396 layer_factory.hpp:77] Creating layer data
I0402 13:11:20.443495  1396 net.cpp:100] Creating Layer data
I0402 13:11:20.443506  1396 net.cpp:408] data -> data
I0402 13:11:20.443516  1396 net.cpp:408] data -> label
I0402 13:11:20.444736  1471 db_lmdb.cpp:35] Opened lmdb ../local_data/lmdb/rtsd-r3/CoNorm/test/lmdb
I0402 13:11:20.444914  1396 data_layer.cpp:41] output data size: 1024,3,48,48
I0402 13:11:20.487149  1396 net.cpp:150] Setting up data
I0402 13:11:20.487180  1396 net.cpp:157] Top shape: 1024 3 48 48 (7077888)
I0402 13:11:20.487185  1396 net.cpp:157] Top shape: 1024 (1024)
I0402 13:11:20.487188  1396 net.cpp:165] Memory required for data: 28315648
I0402 13:11:20.487195  1396 layer_factory.hpp:77] Creating layer label_data_1_split
I0402 13:11:20.487210  1396 net.cpp:100] Creating Layer label_data_1_split
I0402 13:11:20.487213  1396 net.cpp:434] label_data_1_split <- label
I0402 13:11:20.487221  1396 net.cpp:408] label_data_1_split -> label_data_1_split_0
I0402 13:11:20.487231  1396 net.cpp:408] label_data_1_split -> label_data_1_split_1
I0402 13:11:20.487238  1396 net.cpp:408] label_data_1_split -> label_data_1_split_2
I0402 13:11:20.487401  1396 net.cpp:150] Setting up label_data_1_split
I0402 13:11:20.487428  1396 net.cpp:157] Top shape: 1024 (1024)
I0402 13:11:20.487432  1396 net.cpp:157] Top shape: 1024 (1024)
I0402 13:11:20.487437  1396 net.cpp:157] Top shape: 1024 (1024)
I0402 13:11:20.487438  1396 net.cpp:165] Memory required for data: 28327936
I0402 13:11:20.487442  1396 layer_factory.hpp:77] Creating layer conv1
I0402 13:11:20.487457  1396 net.cpp:100] Creating Layer conv1
I0402 13:11:20.487462  1396 net.cpp:434] conv1 <- data
I0402 13:11:20.487468  1396 net.cpp:408] conv1 -> conv1
I0402 13:11:20.489476  1396 net.cpp:150] Setting up conv1
I0402 13:11:20.489493  1396 net.cpp:157] Top shape: 1024 100 42 42 (180633600)
I0402 13:11:20.489497  1396 net.cpp:165] Memory required for data: 750862336
I0402 13:11:20.489509  1396 layer_factory.hpp:77] Creating layer conv1_relu
I0402 13:11:20.489519  1396 net.cpp:100] Creating Layer conv1_relu
I0402 13:11:20.489522  1396 net.cpp:434] conv1_relu <- conv1
I0402 13:11:20.489527  1396 net.cpp:395] conv1_relu -> conv1 (in-place)
I0402 13:11:20.489735  1396 net.cpp:150] Setting up conv1_relu
I0402 13:11:20.489748  1396 net.cpp:157] Top shape: 1024 100 42 42 (180633600)
I0402 13:11:20.489750  1396 net.cpp:165] Memory required for data: 1473396736
I0402 13:11:20.489754  1396 layer_factory.hpp:77] Creating layer pool1
I0402 13:11:20.489764  1396 net.cpp:100] Creating Layer pool1
I0402 13:11:20.489769  1396 net.cpp:434] pool1 <- conv1
I0402 13:11:20.489775  1396 net.cpp:408] pool1 -> pool1
I0402 13:11:20.489827  1396 net.cpp:150] Setting up pool1
I0402 13:11:20.489835  1396 net.cpp:157] Top shape: 1024 100 21 21 (45158400)
I0402 13:11:20.489838  1396 net.cpp:165] Memory required for data: 1654030336
I0402 13:11:20.489841  1396 layer_factory.hpp:77] Creating layer conv2
I0402 13:11:20.489851  1396 net.cpp:100] Creating Layer conv2
I0402 13:11:20.489858  1396 net.cpp:434] conv2 <- pool1
I0402 13:11:20.489866  1396 net.cpp:408] conv2 -> conv2
I0402 13:11:20.494711  1396 net.cpp:150] Setting up conv2
I0402 13:11:20.494730  1396 net.cpp:157] Top shape: 1024 150 18 18 (49766400)
I0402 13:11:20.494734  1396 net.cpp:165] Memory required for data: 1853095936
I0402 13:11:20.494745  1396 layer_factory.hpp:77] Creating layer conv2_relu
I0402 13:11:20.494753  1396 net.cpp:100] Creating Layer conv2_relu
I0402 13:11:20.494758  1396 net.cpp:434] conv2_relu <- conv2
I0402 13:11:20.494763  1396 net.cpp:395] conv2_relu -> conv2 (in-place)
I0402 13:11:20.495565  1396 net.cpp:150] Setting up conv2_relu
I0402 13:11:20.495582  1396 net.cpp:157] Top shape: 1024 150 18 18 (49766400)
I0402 13:11:20.495585  1396 net.cpp:165] Memory required for data: 2052161536
I0402 13:11:20.495589  1396 layer_factory.hpp:77] Creating layer pool2
I0402 13:11:20.495596  1396 net.cpp:100] Creating Layer pool2
I0402 13:11:20.495599  1396 net.cpp:434] pool2 <- conv2
I0402 13:11:20.495607  1396 net.cpp:408] pool2 -> pool2
I0402 13:11:20.495663  1396 net.cpp:150] Setting up pool2
I0402 13:11:20.495673  1396 net.cpp:157] Top shape: 1024 150 9 9 (12441600)
I0402 13:11:20.495676  1396 net.cpp:165] Memory required for data: 2101927936
I0402 13:11:20.495679  1396 layer_factory.hpp:77] Creating layer conv3
I0402 13:11:20.495690  1396 net.cpp:100] Creating Layer conv3
I0402 13:11:20.495693  1396 net.cpp:434] conv3 <- pool2
I0402 13:11:20.495702  1396 net.cpp:408] conv3 -> conv3
I0402 13:11:20.501340  1396 net.cpp:150] Setting up conv3
I0402 13:11:20.501358  1396 net.cpp:157] Top shape: 1024 250 6 6 (9216000)
I0402 13:11:20.501363  1396 net.cpp:165] Memory required for data: 2138791936
I0402 13:11:20.501374  1396 layer_factory.hpp:77] Creating layer conv3_relu
I0402 13:11:20.501384  1396 net.cpp:100] Creating Layer conv3_relu
I0402 13:11:20.501387  1396 net.cpp:434] conv3_relu <- conv3
I0402 13:11:20.501392  1396 net.cpp:395] conv3_relu -> conv3 (in-place)
I0402 13:11:20.502169  1396 net.cpp:150] Setting up conv3_relu
I0402 13:11:20.502187  1396 net.cpp:157] Top shape: 1024 250 6 6 (9216000)
I0402 13:11:20.502190  1396 net.cpp:165] Memory required for data: 2175655936
I0402 13:11:20.502194  1396 layer_factory.hpp:77] Creating layer pool3
I0402 13:11:20.502218  1396 net.cpp:100] Creating Layer pool3
I0402 13:11:20.502221  1396 net.cpp:434] pool3 <- conv3
I0402 13:11:20.502228  1396 net.cpp:408] pool3 -> pool3
I0402 13:11:20.502300  1396 net.cpp:150] Setting up pool3
I0402 13:11:20.502310  1396 net.cpp:157] Top shape: 1024 250 3 3 (2304000)
I0402 13:11:20.502313  1396 net.cpp:165] Memory required for data: 2184871936
I0402 13:11:20.502316  1396 layer_factory.hpp:77] Creating layer fc4_300
I0402 13:11:20.502334  1396 net.cpp:100] Creating Layer fc4_300
I0402 13:11:20.502341  1396 net.cpp:434] fc4_300 <- pool3
I0402 13:11:20.502346  1396 net.cpp:408] fc4_300 -> fc4_300
I0402 13:11:20.507771  1396 net.cpp:150] Setting up fc4_300
I0402 13:11:20.507787  1396 net.cpp:157] Top shape: 1024 300 (307200)
I0402 13:11:20.507791  1396 net.cpp:165] Memory required for data: 2186100736
I0402 13:11:20.507798  1396 layer_factory.hpp:77] Creating layer fc4_relu
I0402 13:11:20.507804  1396 net.cpp:100] Creating Layer fc4_relu
I0402 13:11:20.507807  1396 net.cpp:434] fc4_relu <- fc4_300
I0402 13:11:20.507814  1396 net.cpp:395] fc4_relu -> fc4_300 (in-place)
I0402 13:11:20.508020  1396 net.cpp:150] Setting up fc4_relu
I0402 13:11:20.508033  1396 net.cpp:157] Top shape: 1024 300 (307200)
I0402 13:11:20.508035  1396 net.cpp:165] Memory required for data: 2187329536
I0402 13:11:20.508039  1396 layer_factory.hpp:77] Creating layer drop4
I0402 13:11:20.508049  1396 net.cpp:100] Creating Layer drop4
I0402 13:11:20.508051  1396 net.cpp:434] drop4 <- fc4_300
I0402 13:11:20.508056  1396 net.cpp:395] drop4 -> fc4_300 (in-place)
I0402 13:11:20.508090  1396 net.cpp:150] Setting up drop4
I0402 13:11:20.508097  1396 net.cpp:157] Top shape: 1024 300 (307200)
I0402 13:11:20.508100  1396 net.cpp:165] Memory required for data: 2188558336
I0402 13:11:20.508103  1396 layer_factory.hpp:77] Creating layer fc5_106
I0402 13:11:20.508110  1396 net.cpp:100] Creating Layer fc5_106
I0402 13:11:20.508112  1396 net.cpp:434] fc5_106 <- fc4_300
I0402 13:11:20.508121  1396 net.cpp:408] fc5_106 -> fc5_classes
I0402 13:11:20.508455  1396 net.cpp:150] Setting up fc5_106
I0402 13:11:20.508473  1396 net.cpp:157] Top shape: 1024 106 (108544)
I0402 13:11:20.508476  1396 net.cpp:165] Memory required for data: 2188992512
I0402 13:11:20.508487  1396 layer_factory.hpp:77] Creating layer fc5_classes_fc5_106_0_split
I0402 13:11:20.508494  1396 net.cpp:100] Creating Layer fc5_classes_fc5_106_0_split
I0402 13:11:20.508503  1396 net.cpp:434] fc5_classes_fc5_106_0_split <- fc5_classes
I0402 13:11:20.508510  1396 net.cpp:408] fc5_classes_fc5_106_0_split -> fc5_classes_fc5_106_0_split_0
I0402 13:11:20.508518  1396 net.cpp:408] fc5_classes_fc5_106_0_split -> fc5_classes_fc5_106_0_split_1
I0402 13:11:20.508523  1396 net.cpp:408] fc5_classes_fc5_106_0_split -> fc5_classes_fc5_106_0_split_2
I0402 13:11:20.508580  1396 net.cpp:150] Setting up fc5_classes_fc5_106_0_split
I0402 13:11:20.508589  1396 net.cpp:157] Top shape: 1024 106 (108544)
I0402 13:11:20.508592  1396 net.cpp:157] Top shape: 1024 106 (108544)
I0402 13:11:20.508595  1396 net.cpp:157] Top shape: 1024 106 (108544)
I0402 13:11:20.508599  1396 net.cpp:165] Memory required for data: 2190295040
I0402 13:11:20.508601  1396 layer_factory.hpp:77] Creating layer loss
I0402 13:11:20.508610  1396 net.cpp:100] Creating Layer loss
I0402 13:11:20.508612  1396 net.cpp:434] loss <- fc5_classes_fc5_106_0_split_0
I0402 13:11:20.508617  1396 net.cpp:434] loss <- label_data_1_split_0
I0402 13:11:20.508622  1396 net.cpp:408] loss -> loss
…
