…
I0415 19:24:37.781294 25814 solver.cpp:93] Creating training net from train_net file: ./Prototxt/experiment_12/rtsd-r3/histeq/trial_3/train.prototxt
I0415 19:24:37.793831 25814 net.cpp:58] Initializing net from parameters: 
state {
  phase: TRAIN
  level: 0
  stage: ""
}
layer {
  name: "data"
  type: "Data"
  top: "data"
  top: "label"
  include {
    phase: TRAIN
  }
  transform_param {
    scale: 0.0039215689
    mirror: false
    crop_size: 48
    mean_value: 135
    mean_value: 128
    mean_value: 128
  }
  data_param {
    source: "../local_data/lmdb/rtsd-r3/histeq/train/lmdb"
    batch_size: 1024
    backend: LMDB
  }
}
layer {
  name: "conv1"
  type: "Convolution"
  bottom: "data"
  top: "conv1"
  convolution_param {
    num_output: 100
    pad: 0
    kernel_size: 7
    group: 1
    stride: 1
    weight_filler {
      type: "xavier"
    }
  }
}
layer {
  name: "conv1_relu"
  type: "ReLU"
  bottom: "conv1"
  top: "conv1"
}
layer {
  name: "pool1"
  type: "Pooling"
  bottom: "conv1"
  top: "pool1"
  pooling_param {
    pool: MAX
    kernel_size: 2
    stride: 2
  }
}
layer {
  name: "conv2"
  type: "Convolution"
  bottom: "pool1"
  top: "conv2"
  convolution_param {
    num_output: 150
    pad: 0
    kernel_size: 4
    group: 1
    stride: 1
    weight_filler {
      type: "xavier"
    }
  }
}
layer {
  name: "conv2_relu"
  type: "ReLU"
  bottom: "conv2"
  top: "conv2"
}
layer {
  name: "pool2"
  type: "Pooling"
  bottom: "conv2"
  top: "pool2"
  pooling_param {
    pool: MAX
    kernel_size: 2
    stride: 2
  }
}
layer {
  name: "conv3"
  type: "Convolution"
  bottom: "pool2"
  top: "conv3"
  convolution_param {
    num_output: 250
    pad: 0
    kernel_size: 4
    group: 1
    stride: 1
    weight_filler {
      type: "xavier"
    }
  }
}
layer {
  name: "conv3_relu"
  type: "ReLU"
  bottom: "conv3"
  top: "conv3"
}
layer {
  name: "pool3"
  type: "Pooling"
  bottom: "conv3"
  top: "pool3"
  pooling_param {
    pool: MAX
    kernel_size: 2
    stride: 2
  }
}
layer {
  name: "fc4_300"
  type: "InnerProduct"
  bottom: "pool3"
  top: "fc4_300"
  inner_product_param {
    num_output: 300
    weight_filler {
      type: "xavier"
    }
  }
}
layer {
  name: "fc4_relu"
  type: "ReLU"
  bottom: "fc4_300"
  top: "fc4_300"
}
layer {
  name: "drop4"
  type: "Dropout"
  bottom: "fc4_300"
  top: "fc4_300"
  dropout_param {
    dropout_ratio: 0.5
  }
}
layer {
  name: "fc5_106"
  type: "InnerProduct"
  bottom: "fc4_300"
  top: "fc5_classes"
  inner_product_param {
    num_output: 106
    weight_filler {
      type: "xavier"
    }
  }
}
layer {
  name: "softmax"
  type: "Softmax"
  bottom: "fc5_classes"
  top: "softmax"
}
layer {
  name: "loss"
  type: "MultinomialLogisticLoss"
  bottom: "softmax"
  bottom: "label"
  top: "loss"
}
layer {
  name: "accuracy_1"
  type: "Accuracy"
  bottom: "fc5_classes"
  bottom: "label"
  top: "accuracy_1"
  accuracy_param {
    top_k: 1
  }
}
layer {
  name: "accuracy_5"
  type: "Accuracy"
  bottom: "fc5_classes"
  bottom: "label"
  top: "accuracy_5"
  accuracy_param {
    top_k: 5
  }
}
layer {
  name: "silence"
  type: "Silence"
  bottom: "accuracy_1"
  bottom: "accuracy_5"
}
I0415 19:24:37.793958 25814 layer_factory.hpp:77] Creating layer data
I0415 19:24:37.795011 25814 net.cpp:100] Creating Layer data
I0415 19:24:37.795024 25814 net.cpp:408] data -> data
I0415 19:24:37.795047 25814 net.cpp:408] data -> label
I0415 19:24:37.809573 25921 db_lmdb.cpp:35] Opened lmdb ../local_data/lmdb/rtsd-r3/histeq/train/lmdb
I0415 19:24:37.828018 25814 data_layer.cpp:41] output data size: 1024,3,48,48
I0415 19:24:37.872783 25814 net.cpp:150] Setting up data
I0415 19:24:37.872813 25814 net.cpp:157] Top shape: 1024 3 48 48 (7077888)
I0415 19:24:37.872818 25814 net.cpp:157] Top shape: 1024 (1024)
I0415 19:24:37.872822 25814 net.cpp:165] Memory required for data: 28315648
I0415 19:24:37.872833 25814 layer_factory.hpp:77] Creating layer label_data_1_split
I0415 19:24:37.872846 25814 net.cpp:100] Creating Layer label_data_1_split
I0415 19:24:37.872853 25814 net.cpp:434] label_data_1_split <- label
I0415 19:24:37.872866 25814 net.cpp:408] label_data_1_split -> label_data_1_split_0
I0415 19:24:37.872879 25814 net.cpp:408] label_data_1_split -> label_data_1_split_1
I0415 19:24:37.872885 25814 net.cpp:408] label_data_1_split -> label_data_1_split_2
I0415 19:24:37.872962 25814 net.cpp:150] Setting up label_data_1_split
I0415 19:24:37.872972 25814 net.cpp:157] Top shape: 1024 (1024)
I0415 19:24:37.872975 25814 net.cpp:157] Top shape: 1024 (1024)
I0415 19:24:37.872978 25814 net.cpp:157] Top shape: 1024 (1024)
I0415 19:24:37.872982 25814 net.cpp:165] Memory required for data: 28327936
I0415 19:24:37.872984 25814 layer_factory.hpp:77] Creating layer conv1
I0415 19:24:37.873000 25814 net.cpp:100] Creating Layer conv1
I0415 19:24:37.873005 25814 net.cpp:434] conv1 <- data
I0415 19:24:37.873011 25814 net.cpp:408] conv1 -> conv1
I0415 19:24:38.194764 25814 net.cpp:150] Setting up conv1
I0415 19:24:38.194790 25814 net.cpp:157] Top shape: 1024 100 42 42 (180633600)
I0415 19:24:38.194795 25814 net.cpp:165] Memory required for data: 750862336
I0415 19:24:38.194815 25814 layer_factory.hpp:77] Creating layer conv1_relu
I0415 19:24:38.194828 25814 net.cpp:100] Creating Layer conv1_relu
I0415 19:24:38.194835 25814 net.cpp:434] conv1_relu <- conv1
I0415 19:24:38.194844 25814 net.cpp:395] conv1_relu -> conv1 (in-place)
I0415 19:24:38.195053 25814 net.cpp:150] Setting up conv1_relu
I0415 19:24:38.195066 25814 net.cpp:157] Top shape: 1024 100 42 42 (180633600)
I0415 19:24:38.195071 25814 net.cpp:165] Memory required for data: 1473396736
I0415 19:24:38.195075 25814 layer_factory.hpp:77] Creating layer pool1
I0415 19:24:38.195091 25814 net.cpp:100] Creating Layer pool1
I0415 19:24:38.195096 25814 net.cpp:434] pool1 <- conv1
I0415 19:24:38.195101 25814 net.cpp:408] pool1 -> pool1
I0415 19:24:38.195161 25814 net.cpp:150] Setting up pool1
I0415 19:24:38.195170 25814 net.cpp:157] Top shape: 1024 100 21 21 (45158400)
I0415 19:24:38.195173 25814 net.cpp:165] Memory required for data: 1654030336
I0415 19:24:38.195178 25814 layer_factory.hpp:77] Creating layer conv2
I0415 19:24:38.195188 25814 net.cpp:100] Creating Layer conv2
I0415 19:24:38.195195 25814 net.cpp:434] conv2 <- pool1
I0415 19:24:38.195204 25814 net.cpp:408] conv2 -> conv2
I0415 19:24:38.201437 25814 net.cpp:150] Setting up conv2
I0415 19:24:38.201458 25814 net.cpp:157] Top shape: 1024 150 18 18 (49766400)
I0415 19:24:38.201463 25814 net.cpp:165] Memory required for data: 1853095936
I0415 19:24:38.201475 25814 layer_factory.hpp:77] Creating layer conv2_relu
I0415 19:24:38.201481 25814 net.cpp:100] Creating Layer conv2_relu
I0415 19:24:38.201488 25814 net.cpp:434] conv2_relu <- conv2
I0415 19:24:38.201493 25814 net.cpp:395] conv2_relu -> conv2 (in-place)
I0415 19:24:38.202422 25814 net.cpp:150] Setting up conv2_relu
I0415 19:24:38.202437 25814 net.cpp:157] Top shape: 1024 150 18 18 (49766400)
I0415 19:24:38.202441 25814 net.cpp:165] Memory required for data: 2052161536
I0415 19:24:38.202445 25814 layer_factory.hpp:77] Creating layer pool2
I0415 19:24:38.202451 25814 net.cpp:100] Creating Layer pool2
I0415 19:24:38.202455 25814 net.cpp:434] pool2 <- conv2
I0415 19:24:38.202464 25814 net.cpp:408] pool2 -> pool2
I0415 19:24:38.202514 25814 net.cpp:150] Setting up pool2
I0415 19:24:38.202523 25814 net.cpp:157] Top shape: 1024 150 9 9 (12441600)
I0415 19:24:38.202527 25814 net.cpp:165] Memory required for data: 2101927936
I0415 19:24:38.202529 25814 layer_factory.hpp:77] Creating layer conv3
I0415 19:24:38.202564 25814 net.cpp:100] Creating Layer conv3
I0415 19:24:38.202574 25814 net.cpp:434] conv3 <- pool2
I0415 19:24:38.202579 25814 net.cpp:408] conv3 -> conv3
I0415 19:24:38.209219 25814 net.cpp:150] Setting up conv3
I0415 19:24:38.209237 25814 net.cpp:157] Top shape: 1024 250 6 6 (9216000)
I0415 19:24:38.209241 25814 net.cpp:165] Memory required for data: 2138791936
I0415 19:24:38.209252 25814 layer_factory.hpp:77] Creating layer conv3_relu
I0415 19:24:38.209259 25814 net.cpp:100] Creating Layer conv3_relu
I0415 19:24:38.209262 25814 net.cpp:434] conv3_relu <- conv3
I0415 19:24:38.209269 25814 net.cpp:395] conv3_relu -> conv3 (in-place)
I0415 19:24:38.210330 25814 net.cpp:150] Setting up conv3_relu
I0415 19:24:38.210346 25814 net.cpp:157] Top shape: 1024 250 6 6 (9216000)
I0415 19:24:38.210350 25814 net.cpp:165] Memory required for data: 2175655936
I0415 19:24:38.210353 25814 layer_factory.hpp:77] Creating layer pool3
I0415 19:24:38.210361 25814 net.cpp:100] Creating Layer pool3
I0415 19:24:38.210363 25814 net.cpp:434] pool3 <- conv3
I0415 19:24:38.210371 25814 net.cpp:408] pool3 -> pool3
I0415 19:24:38.210417 25814 net.cpp:150] Setting up pool3
I0415 19:24:38.210425 25814 net.cpp:157] Top shape: 1024 250 3 3 (2304000)
I0415 19:24:38.210428 25814 net.cpp:165] Memory required for data: 2184871936
I0415 19:24:38.210431 25814 layer_factory.hpp:77] Creating layer fc4_300
I0415 19:24:38.210440 25814 net.cpp:100] Creating Layer fc4_300
I0415 19:24:38.210443 25814 net.cpp:434] fc4_300 <- pool3
I0415 19:24:38.210448 25814 net.cpp:408] fc4_300 -> fc4_300
I0415 19:24:38.216332 25814 net.cpp:150] Setting up fc4_300
I0415 19:24:38.216352 25814 net.cpp:157] Top shape: 1024 300 (307200)
I0415 19:24:38.216356 25814 net.cpp:165] Memory required for data: 2186100736
I0415 19:24:38.216364 25814 layer_factory.hpp:77] Creating layer fc4_relu
I0415 19:24:38.216377 25814 net.cpp:100] Creating Layer fc4_relu
I0415 19:24:38.216382 25814 net.cpp:434] fc4_relu <- fc4_300
I0415 19:24:38.216387 25814 net.cpp:395] fc4_relu -> fc4_300 (in-place)
I0415 19:24:38.216591 25814 net.cpp:150] Setting up fc4_relu
I0415 19:24:38.216603 25814 net.cpp:157] Top shape: 1024 300 (307200)
I0415 19:24:38.216605 25814 net.cpp:165] Memory required for data: 2187329536
I0415 19:24:38.216609 25814 layer_factory.hpp:77] Creating layer drop4
I0415 19:24:38.216617 25814 net.cpp:100] Creating Layer drop4
I0415 19:24:38.216621 25814 net.cpp:434] drop4 <- fc4_300
I0415 19:24:38.216625 25814 net.cpp:395] drop4 -> fc4_300 (in-place)
I0415 19:24:38.216658 25814 net.cpp:150] Setting up drop4
I0415 19:24:38.216670 25814 net.cpp:157] Top shape: 1024 300 (307200)
I0415 19:24:38.216673 25814 net.cpp:165] Memory required for data: 2188558336
I0415 19:24:38.216676 25814 layer_factory.hpp:77] Creating layer fc5_106
I0415 19:24:38.216686 25814 net.cpp:100] Creating Layer fc5_106
I0415 19:24:38.216689 25814 net.cpp:434] fc5_106 <- fc4_300
I0415 19:24:38.216694 25814 net.cpp:408] fc5_106 -> fc5_classes
I0415 19:24:38.222679 25814 net.cpp:150] Setting up fc5_106
I0415 19:24:38.222713 25814 net.cpp:157] Top shape: 1024 106 (108544)
I0415 19:24:38.222718 25814 net.cpp:165] Memory required for data: 2188992512
I0415 19:24:38.222733 25814 layer_factory.hpp:77] Creating layer fc5_classes_fc5_106_0_split
I0415 19:24:38.222745 25814 net.cpp:100] Creating Layer fc5_classes_fc5_106_0_split
I0415 19:24:38.222750 25814 net.cpp:434] fc5_classes_fc5_106_0_split <- fc5_classes
I0415 19:24:38.222757 25814 net.cpp:408] fc5_classes_fc5_106_0_split -> fc5_classes_fc5_106_0_split_0
I0415 19:24:38.222769 25814 net.cpp:408] fc5_classes_fc5_106_0_split -> fc5_classes_fc5_106_0_split_1
I0415 19:24:38.222774 25814 net.cpp:408] fc5_classes_fc5_106_0_split -> fc5_classes_fc5_106_0_split_2
I0415 19:24:38.222831 25814 net.cpp:150] Setting up fc5_classes_fc5_106_0_split
I0415 19:24:38.222839 25814 net.cpp:157] Top shape: 1024 106 (108544)
I0415 19:24:38.222842 25814 net.cpp:157] Top shape: 1024 106 (108544)
I0415 19:24:38.222846 25814 net.cpp:157] Top shape: 1024 106 (108544)
I0415 19:24:38.222848 25814 net.cpp:165] Memory required for data: 2190295040
I0415 19:24:38.222872 25814 layer_factory.hpp:77] Creating layer softmax
I0415 19:24:38.222883 25814 net.cpp:100] Creating Layer softmax
I0415 19:24:38.222888 25814 net.cpp:434] softmax <- fc5_classes_fc5_106_0_split_0
I0415 19:24:38.222894 25814 net.cpp:408] softmax -> softmax
I0415 19:24:38.223219 25814 net.cpp:150] Setting up softmax
I0415 19:24:38.223232 25814 net.cpp:157] Top shape: 1024 106 (108544)
I0415 19:24:38.223237 25814 net.cpp:165] Memory required for data: 2190729216
I0415 19:24:38.223239 25814 layer_factory.hpp:77] Creating layer loss
I0415 19:24:38.223245 25814 net.cpp:100] Creating Layer loss
I0415 19:24:38.223248 25814 net.cpp:434] loss <- softmax
I0415 19:24:38.223253 25814 net.cpp:434] loss <- label_data_1_split_0
I0415 19:24:38.223264 25814 net.cpp:408] loss -> loss
…
