…
I0417 18:56:40.496172 27787 solver.cpp:93] Creating training net from train_net file: ./Prototxt/experiment_11/rtsd-r1/AHE/trial_5/train.prototxt
I0417 18:56:40.496728 27787 net.cpp:58] Initializing net from parameters: 
state {
  phase: TRAIN
  level: 0
  stage: ""
}
layer {
  name: "data"
  type: "Data"
  top: "data"
  top: "label"
  include {
    phase: TRAIN
  }
  transform_param {
    scale: 0.0039215689
    mirror: false
    crop_size: 48
    mean_value: 132
    mean_value: 126
    mean_value: 140
  }
  data_param {
    source: "../local_data/lmdb/rtsd-r1/AHE/train/lmdb"
    batch_size: 1024
    backend: LMDB
  }
}
layer {
  name: "conv1"
  type: "Convolution"
  bottom: "data"
  top: "conv1"
  convolution_param {
    num_output: 100
    pad: 0
    kernel_size: 7
    group: 1
    stride: 1
    weight_filler {
      type: "xavier"
    }
  }
}
layer {
  name: "conv1_prescale"
  type: "Scale"
  bottom: "conv1"
  top: "conv1"
  param {
    lr_mult: 0
    decay_mult: 0
  }
  scale_param {
    filler {
      value: 0.6666
    }
    bias_term: false
  }
}
layer {
  name: "conv1_sTanH"
  type: "TanH"
  bottom: "conv1"
  top: "conv1"
}
layer {
  name: "conv1_postscale"
  type: "Scale"
  bottom: "conv1"
  top: "conv1"
  param {
    lr_mult: 0
    decay_mult: 0
  }
  scale_param {
    filler {
      value: 1.7159
    }
    bias_term: false
  }
}
layer {
  name: "pool1"
  type: "Pooling"
  bottom: "conv1"
  top: "pool1"
  pooling_param {
    pool: MAX
    kernel_size: 2
    stride: 2
  }
}
layer {
  name: "conv2"
  type: "Convolution"
  bottom: "pool1"
  top: "conv2"
  convolution_param {
    num_output: 150
    pad: 0
    kernel_size: 4
    group: 1
    stride: 1
    weight_filler {
      type: "xavier"
    }
  }
}
layer {
  name: "conv2_prescale"
  type: "Scale"
  bottom: "conv2"
  top: "conv2"
  param {
    lr_mult: 0
    decay_mult: 0
  }
  scale_param {
    filler {
      value: 0.6666
    }
    bias_term: false
  }
}
layer {
  name: "conv2_sTanH"
  type: "TanH"
  bottom: "conv2"
  top: "conv2"
}
layer {
  name: "conv2_postscale"
  type: "Scale"
  bottom: "conv2"
  top: "conv2"
  param {
    lr_mult: 0
    decay_mult: 0
  }
  scale_param {
    filler {
      value: 1.7159
    }
    bias_term: false
  }
}
layer {
  name: "pool2"
  type: "Pooling"
  bottom: "conv2"
  top: "pool2"
  pooling_param {
    pool: MAX
    kernel_size: 2
    stride: 2
  }
}
layer {
  name: "conv3"
  type: "Convolution"
  bottom: "pool2"
  top: "conv3"
  convolution_param {
    num_output: 250
    pad: 0
    kernel_size: 4
    group: 1
    stride: 1
    weight_filler {
      type: "xavier"
    }
  }
}
layer {
  name: "conv3_prescale"
  type: "Scale"
  bottom: "conv3"
  top: "conv3"
  param {
    lr_mult: 0
    decay_mult: 0
  }
  scale_param {
    filler {
      value: 0.6666
    }
    bias_term: false
  }
}
layer {
  name: "conv3_sTanH"
  type: "TanH"
  bottom: "conv3"
  top: "conv3"
}
layer {
  name: "conv3_postscale"
  type: "Scale"
  bottom: "conv3"
  top: "conv3"
  param {
    lr_mult: 0
    decay_mult: 0
  }
  scale_param {
    filler {
      value: 1.7159
    }
    bias_term: false
  }
}
layer {
  name: "pool3"
  type: "Pooling"
  bottom: "conv3"
  top: "pool3"
  pooling_param {
    pool: MAX
    kernel_size: 2
    stride: 2
  }
}
layer {
  name: "fc4_300"
  type: "InnerProduct"
  bottom: "pool3"
  top: "fc4_300"
  inner_product_param {
    num_output: 300
    weight_filler {
      type: "xavier"
    }
  }
}
layer {
  name: "fc4_prescale"
  type: "Scale"
  bottom: "fc4_300"
  top: "fc4_300"
  param {
    lr_mult: 0
    decay_mult: 0
  }
  scale_param {
    filler {
      value: 0.6666
    }
    bias_term: false
  }
}
layer {
  name: "fc4_sTanH"
  type: "TanH"
  bottom: "fc4_300"
  top: "fc4_300"
}
layer {
  name: "fc4_postscale"
  type: "Scale"
  bottom: "fc4_300"
  top: "fc4_300"
  param {
    lr_mult: 0
    decay_mult: 0
  }
  scale_param {
    filler {
      value: 1.7159
    }
    bias_term: false
  }
}
layer {
  name: "fc5_67"
  type: "InnerProduct"
  bottom: "fc4_300"
  top: "fc5_classes"
  inner_product_param {
    num_output: 67
    weight_filler {
      type: "xavier"
    }
  }
}
layer {
  name: "softmax"
  type: "Softmax"
  bottom: "fc5_classes"
  top: "softmax"
}
layer {
  name: "loss"
  type: "MultinomialLogisticLoss"
  bottom: "softmax"
  bottom: "label"
  top: "loss"
}
layer {
  name: "accuracy_1"
  type: "Accuracy"
  bottom: "fc5_classes"
  bottom: "label"
  top: "accuracy_1"
  accuracy_param {
    top_k: 1
  }
}
layer {
  name: "accuracy_5"
  type: "Accuracy"
  bottom: "fc5_classes"
  bottom: "label"
  top: "accuracy_5"
  accuracy_param {
    top_k: 5
  }
}
layer {
  name: "silence"
  type: "Silence"
  bottom: "accuracy_1"
  bottom: "accuracy_5"
}
I0417 18:56:40.496909 27787 layer_factory.hpp:77] Creating layer data
I0417 18:56:40.498291 27787 net.cpp:100] Creating Layer data
I0417 18:56:40.498309 27787 net.cpp:408] data -> data
I0417 18:56:40.498337 27787 net.cpp:408] data -> label
I0417 18:56:40.511767 27931 db_lmdb.cpp:35] Opened lmdb ../local_data/lmdb/rtsd-r1/AHE/train/lmdb
I0417 18:56:40.537245 27787 data_layer.cpp:41] output data size: 1024,3,48,48
I0417 18:56:40.608732 27787 net.cpp:150] Setting up data
I0417 18:56:40.608764 27787 net.cpp:157] Top shape: 1024 3 48 48 (7077888)
I0417 18:56:40.608770 27787 net.cpp:157] Top shape: 1024 (1024)
I0417 18:56:40.608774 27787 net.cpp:165] Memory required for data: 28315648
I0417 18:56:40.608786 27787 layer_factory.hpp:77] Creating layer label_data_1_split
I0417 18:56:40.608803 27787 net.cpp:100] Creating Layer label_data_1_split
I0417 18:56:40.608809 27787 net.cpp:434] label_data_1_split <- label
I0417 18:56:40.608826 27787 net.cpp:408] label_data_1_split -> label_data_1_split_0
I0417 18:56:40.608841 27787 net.cpp:408] label_data_1_split -> label_data_1_split_1
I0417 18:56:40.608850 27787 net.cpp:408] label_data_1_split -> label_data_1_split_2
I0417 18:56:40.608927 27787 net.cpp:150] Setting up label_data_1_split
I0417 18:56:40.608937 27787 net.cpp:157] Top shape: 1024 (1024)
I0417 18:56:40.608940 27787 net.cpp:157] Top shape: 1024 (1024)
I0417 18:56:40.608944 27787 net.cpp:157] Top shape: 1024 (1024)
I0417 18:56:40.608947 27787 net.cpp:165] Memory required for data: 28327936
I0417 18:56:40.608952 27787 layer_factory.hpp:77] Creating layer conv1
I0417 18:56:40.608971 27787 net.cpp:100] Creating Layer conv1
I0417 18:56:40.608978 27787 net.cpp:434] conv1 <- data
I0417 18:56:40.608986 27787 net.cpp:408] conv1 -> conv1
I0417 18:56:40.971349 27787 net.cpp:150] Setting up conv1
I0417 18:56:40.971402 27787 net.cpp:157] Top shape: 1024 100 42 42 (180633600)
I0417 18:56:40.971413 27787 net.cpp:165] Memory required for data: 750862336
I0417 18:56:40.971457 27787 layer_factory.hpp:77] Creating layer conv1_prescale
I0417 18:56:40.971484 27787 net.cpp:100] Creating Layer conv1_prescale
I0417 18:56:40.971495 27787 net.cpp:434] conv1_prescale <- conv1
I0417 18:56:40.971513 27787 net.cpp:395] conv1_prescale -> conv1 (in-place)
I0417 18:56:40.971716 27787 net.cpp:150] Setting up conv1_prescale
I0417 18:56:40.971732 27787 net.cpp:157] Top shape: 1024 100 42 42 (180633600)
I0417 18:56:40.971740 27787 net.cpp:165] Memory required for data: 1473396736
I0417 18:56:40.971752 27787 layer_factory.hpp:77] Creating layer conv1_sTanH
I0417 18:56:40.971771 27787 net.cpp:100] Creating Layer conv1_sTanH
I0417 18:56:40.971777 27787 net.cpp:434] conv1_sTanH <- conv1
I0417 18:56:40.971787 27787 net.cpp:395] conv1_sTanH -> conv1 (in-place)
I0417 18:56:40.972190 27787 net.cpp:150] Setting up conv1_sTanH
I0417 18:56:40.972213 27787 net.cpp:157] Top shape: 1024 100 42 42 (180633600)
I0417 18:56:40.972244 27787 net.cpp:165] Memory required for data: 2195931136
I0417 18:56:40.972251 27787 layer_factory.hpp:77] Creating layer conv1_postscale
I0417 18:56:40.972265 27787 net.cpp:100] Creating Layer conv1_postscale
I0417 18:56:40.972275 27787 net.cpp:434] conv1_postscale <- conv1
I0417 18:56:40.972287 27787 net.cpp:395] conv1_postscale -> conv1 (in-place)
I0417 18:56:40.972486 27787 net.cpp:150] Setting up conv1_postscale
I0417 18:56:40.972502 27787 net.cpp:157] Top shape: 1024 100 42 42 (180633600)
I0417 18:56:40.972509 27787 net.cpp:165] Memory required for data: 2918465536
I0417 18:56:40.972514 27787 layer_factory.hpp:77] Creating layer pool1
I0417 18:56:40.972527 27787 net.cpp:100] Creating Layer pool1
I0417 18:56:40.972532 27787 net.cpp:434] pool1 <- conv1
I0417 18:56:40.972539 27787 net.cpp:408] pool1 -> pool1
I0417 18:56:40.972625 27787 net.cpp:150] Setting up pool1
I0417 18:56:40.972640 27787 net.cpp:157] Top shape: 1024 100 21 21 (45158400)
I0417 18:56:40.972645 27787 net.cpp:165] Memory required for data: 3099099136
I0417 18:56:40.972653 27787 layer_factory.hpp:77] Creating layer conv2
I0417 18:56:40.972672 27787 net.cpp:100] Creating Layer conv2
I0417 18:56:40.972679 27787 net.cpp:434] conv2 <- pool1
I0417 18:56:40.972690 27787 net.cpp:408] conv2 -> conv2
I0417 18:56:40.984064 27787 net.cpp:150] Setting up conv2
I0417 18:56:40.984104 27787 net.cpp:157] Top shape: 1024 150 18 18 (49766400)
I0417 18:56:40.984115 27787 net.cpp:165] Memory required for data: 3298164736
I0417 18:56:40.984139 27787 layer_factory.hpp:77] Creating layer conv2_prescale
I0417 18:56:40.984165 27787 net.cpp:100] Creating Layer conv2_prescale
I0417 18:56:40.984176 27787 net.cpp:434] conv2_prescale <- conv2
I0417 18:56:40.984190 27787 net.cpp:395] conv2_prescale -> conv2 (in-place)
I0417 18:56:40.984439 27787 net.cpp:150] Setting up conv2_prescale
I0417 18:56:40.984458 27787 net.cpp:157] Top shape: 1024 150 18 18 (49766400)
I0417 18:56:40.984465 27787 net.cpp:165] Memory required for data: 3497230336
I0417 18:56:40.984477 27787 layer_factory.hpp:77] Creating layer conv2_sTanH
I0417 18:56:40.984491 27787 net.cpp:100] Creating Layer conv2_sTanH
I0417 18:56:40.984499 27787 net.cpp:434] conv2_sTanH <- conv2
I0417 18:56:40.984513 27787 net.cpp:395] conv2_sTanH -> conv2 (in-place)
I0417 18:56:40.985963 27787 net.cpp:150] Setting up conv2_sTanH
I0417 18:56:40.985993 27787 net.cpp:157] Top shape: 1024 150 18 18 (49766400)
I0417 18:56:40.986002 27787 net.cpp:165] Memory required for data: 3696295936
I0417 18:56:40.986011 27787 layer_factory.hpp:77] Creating layer conv2_postscale
I0417 18:56:40.986027 27787 net.cpp:100] Creating Layer conv2_postscale
I0417 18:56:40.986035 27787 net.cpp:434] conv2_postscale <- conv2
I0417 18:56:40.986049 27787 net.cpp:395] conv2_postscale -> conv2 (in-place)
I0417 18:56:40.986276 27787 net.cpp:150] Setting up conv2_postscale
I0417 18:56:40.986294 27787 net.cpp:157] Top shape: 1024 150 18 18 (49766400)
I0417 18:56:40.986302 27787 net.cpp:165] Memory required for data: 3895361536
I0417 18:56:40.986315 27787 layer_factory.hpp:77] Creating layer pool2
I0417 18:56:40.986332 27787 net.cpp:100] Creating Layer pool2
I0417 18:56:40.986341 27787 net.cpp:434] pool2 <- conv2
I0417 18:56:40.986353 27787 net.cpp:408] pool2 -> pool2
I0417 18:56:40.986449 27787 net.cpp:150] Setting up pool2
I0417 18:56:40.986464 27787 net.cpp:157] Top shape: 1024 150 9 9 (12441600)
I0417 18:56:40.986472 27787 net.cpp:165] Memory required for data: 3945127936
I0417 18:56:40.986480 27787 layer_factory.hpp:77] Creating layer conv3
I0417 18:56:40.986500 27787 net.cpp:100] Creating Layer conv3
I0417 18:56:40.986510 27787 net.cpp:434] conv3 <- pool2
I0417 18:56:40.986522 27787 net.cpp:408] conv3 -> conv3
I0417 18:56:40.997159 27787 net.cpp:150] Setting up conv3
I0417 18:56:40.997190 27787 net.cpp:157] Top shape: 1024 250 6 6 (9216000)
I0417 18:56:40.997198 27787 net.cpp:165] Memory required for data: 3981991936
I0417 18:56:40.997215 27787 layer_factory.hpp:77] Creating layer conv3_prescale
I0417 18:56:40.997253 27787 net.cpp:100] Creating Layer conv3_prescale
I0417 18:56:40.997264 27787 net.cpp:434] conv3_prescale <- conv3
I0417 18:56:40.997280 27787 net.cpp:395] conv3_prescale -> conv3 (in-place)
I0417 18:56:40.997496 27787 net.cpp:150] Setting up conv3_prescale
I0417 18:56:40.997514 27787 net.cpp:157] Top shape: 1024 250 6 6 (9216000)
I0417 18:56:40.997522 27787 net.cpp:165] Memory required for data: 4018855936
I0417 18:56:40.997534 27787 layer_factory.hpp:77] Creating layer conv3_sTanH
I0417 18:56:40.997547 27787 net.cpp:100] Creating Layer conv3_sTanH
I0417 18:56:40.997553 27787 net.cpp:434] conv3_sTanH <- conv3
I0417 18:56:40.997563 27787 net.cpp:395] conv3_sTanH -> conv3 (in-place)
I0417 18:56:40.999269 27787 net.cpp:150] Setting up conv3_sTanH
I0417 18:56:40.999290 27787 net.cpp:157] Top shape: 1024 250 6 6 (9216000)
I0417 18:56:40.999294 27787 net.cpp:165] Memory required for data: 4055719936
I0417 18:56:40.999300 27787 layer_factory.hpp:77] Creating layer conv3_postscale
I0417 18:56:40.999313 27787 net.cpp:100] Creating Layer conv3_postscale
I0417 18:56:40.999320 27787 net.cpp:434] conv3_postscale <- conv3
I0417 18:56:40.999332 27787 net.cpp:395] conv3_postscale -> conv3 (in-place)
I0417 18:56:40.999547 27787 net.cpp:150] Setting up conv3_postscale
I0417 18:56:40.999564 27787 net.cpp:157] Top shape: 1024 250 6 6 (9216000)
I0417 18:56:40.999572 27787 net.cpp:165] Memory required for data: 4092583936
I0417 18:56:40.999580 27787 layer_factory.hpp:77] Creating layer pool3
I0417 18:56:40.999595 27787 net.cpp:100] Creating Layer pool3
I0417 18:56:40.999603 27787 net.cpp:434] pool3 <- conv3
I0417 18:56:40.999609 27787 net.cpp:408] pool3 -> pool3
I0417 18:56:40.999683 27787 net.cpp:150] Setting up pool3
I0417 18:56:40.999697 27787 net.cpp:157] Top shape: 1024 250 3 3 (2304000)
I0417 18:56:40.999704 27787 net.cpp:165] Memory required for data: 4101799936
I0417 18:56:40.999711 27787 layer_factory.hpp:77] Creating layer fc4_300
I0417 18:56:40.999724 27787 net.cpp:100] Creating Layer fc4_300
I0417 18:56:40.999732 27787 net.cpp:434] fc4_300 <- pool3
I0417 18:56:40.999745 27787 net.cpp:408] fc4_300 -> fc4_300
I0417 18:56:41.010102 27787 net.cpp:150] Setting up fc4_300
I0417 18:56:41.010125 27787 net.cpp:157] Top shape: 1024 300 (307200)
I0417 18:56:41.010131 27787 net.cpp:165] Memory required for data: 4103028736
I0417 18:56:41.010140 27787 layer_factory.hpp:77] Creating layer fc4_prescale
I0417 18:56:41.010155 27787 net.cpp:100] Creating Layer fc4_prescale
I0417 18:56:41.010162 27787 net.cpp:434] fc4_prescale <- fc4_300
I0417 18:56:41.010171 27787 net.cpp:395] fc4_prescale -> fc4_300 (in-place)
I0417 18:56:41.010351 27787 net.cpp:150] Setting up fc4_prescale
I0417 18:56:41.010362 27787 net.cpp:157] Top shape: 1024 300 (307200)
I0417 18:56:41.010366 27787 net.cpp:165] Memory required for data: 4104257536
I0417 18:56:41.010372 27787 layer_factory.hpp:77] Creating layer fc4_sTanH
I0417 18:56:41.010381 27787 net.cpp:100] Creating Layer fc4_sTanH
I0417 18:56:41.010387 27787 net.cpp:434] fc4_sTanH <- fc4_300
I0417 18:56:41.010395 27787 net.cpp:395] fc4_sTanH -> fc4_300 (in-place)
I0417 18:56:41.010749 27787 net.cpp:150] Setting up fc4_sTanH
I0417 18:56:41.010769 27787 net.cpp:157] Top shape: 1024 300 (307200)
I0417 18:56:41.010776 27787 net.cpp:165] Memory required for data: 4105486336
I0417 18:56:41.010783 27787 layer_factory.hpp:77] Creating layer fc4_postscale
I0417 18:56:41.010800 27787 net.cpp:100] Creating Layer fc4_postscale
I0417 18:56:41.010810 27787 net.cpp:434] fc4_postscale <- fc4_300
I0417 18:56:41.010820 27787 net.cpp:395] fc4_postscale -> fc4_300 (in-place)
I0417 18:56:41.010993 27787 net.cpp:150] Setting up fc4_postscale
I0417 18:56:41.011004 27787 net.cpp:157] Top shape: 1024 300 (307200)
I0417 18:56:41.011008 27787 net.cpp:165] Memory required for data: 4106715136
I0417 18:56:41.011014 27787 layer_factory.hpp:77] Creating layer fc5_67
I0417 18:56:41.011032 27787 net.cpp:100] Creating Layer fc5_67
I0417 18:56:41.011042 27787 net.cpp:434] fc5_67 <- fc4_300
I0417 18:56:41.011052 27787 net.cpp:408] fc5_67 -> fc5_classes
I0417 18:56:41.013170 27787 net.cpp:150] Setting up fc5_67
I0417 18:56:41.013200 27787 net.cpp:157] Top shape: 1024 67 (68608)
I0417 18:56:41.013208 27787 net.cpp:165] Memory required for data: 4106989568
I0417 18:56:41.013233 27787 layer_factory.hpp:77] Creating layer fc5_classes_fc5_67_0_split
I0417 18:56:41.013252 27787 net.cpp:100] Creating Layer fc5_classes_fc5_67_0_split
I0417 18:56:41.013257 27787 net.cpp:434] fc5_classes_fc5_67_0_split <- fc5_classes
I0417 18:56:41.013263 27787 net.cpp:408] fc5_classes_fc5_67_0_split -> fc5_classes_fc5_67_0_split_0
I0417 18:56:41.013274 27787 net.cpp:408] fc5_classes_fc5_67_0_split -> fc5_classes_fc5_67_0_split_1
I0417 18:56:41.013283 27787 net.cpp:408] fc5_classes_fc5_67_0_split -> fc5_classes_fc5_67_0_split_2
I0417 18:56:41.013391 27787 net.cpp:150] Setting up fc5_classes_fc5_67_0_split
I0417 18:56:41.013404 27787 net.cpp:157] Top shape: 1024 67 (68608)
I0417 18:56:41.013413 27787 net.cpp:157] Top shape: 1024 67 (68608)
I0417 18:56:41.013420 27787 net.cpp:157] Top shape: 1024 67 (68608)
I0417 18:56:41.013427 27787 net.cpp:165] Memory required for data: 4107812864
I0417 18:56:41.013433 27787 layer_factory.hpp:77] Creating layer softmax
I0417 18:56:41.013447 27787 net.cpp:100] Creating Layer softmax
I0417 18:56:41.013454 27787 net.cpp:434] softmax <- fc5_classes_fc5_67_0_split_0
I0417 18:56:41.013466 27787 net.cpp:408] softmax -> softmax
I0417 18:56:41.013914 27787 net.cpp:150] Setting up softmax
I0417 18:56:41.013931 27787 net.cpp:157] Top shape: 1024 67 (68608)
I0417 18:56:41.013934 27787 net.cpp:165] Memory required for data: 4108087296
I0417 18:56:41.013938 27787 layer_factory.hpp:77] Creating layer loss
I0417 18:56:41.013947 27787 net.cpp:100] Creating Layer loss
I0417 18:56:41.013957 27787 net.cpp:434] loss <- softmax
I0417 18:56:41.013962 27787 net.cpp:434] loss <- label_data_1_split_0
I0417 18:56:41.013969 27787 net.cpp:408] loss -> loss
…
