…
I0414 05:52:02.509096 21207 solver.cpp:93] Creating training net from train_net file: ./Prototxt/experiment_11/rtsd-r1/AHE/trial_5/train.prototxt
I0414 05:52:02.509552 21207 net.cpp:58] Initializing net from parameters: 
state {
  phase: TRAIN
  level: 0
  stage: ""
}
layer {
  name: "data"
  type: "Data"
  top: "data"
  top: "label"
  include {
    phase: TRAIN
  }
  transform_param {
    scale: 0.0039215689
    mirror: false
    crop_size: 48
    mean_value: 132
    mean_value: 126
    mean_value: 140
  }
  data_param {
    source: "../local_data/lmdb/rtsd-r1/AHE/train/lmdb"
    batch_size: 1024
    backend: LMDB
  }
}
layer {
  name: "conv1"
  type: "Convolution"
  bottom: "data"
  top: "conv1"
  convolution_param {
    num_output: 100
    pad: 0
    kernel_size: 7
    group: 1
    stride: 1
    weight_filler {
      type: "xavier"
    }
  }
}
layer {
  name: "conv1_prescale"
  type: "Scale"
  bottom: "conv1"
  top: "conv1"
  param {
    lr_mult: 0
    decay_mult: 0
  }
  scale_param {
    filler {
      value: 0.6666
    }
    bias_term: false
  }
}
layer {
  name: "conv1_sTanH"
  type: "TanH"
  bottom: "conv1"
  top: "conv1"
}
layer {
  name: "conv1_postscale"
  type: "Scale"
  bottom: "conv1"
  top: "conv1"
  param {
    lr_mult: 0
    decay_mult: 0
  }
  scale_param {
    filler {
      value: 1.7159
    }
    bias_term: false
  }
}
layer {
  name: "pool1"
  type: "Pooling"
  bottom: "conv1"
  top: "pool1"
  pooling_param {
    pool: MAX
    kernel_size: 2
    stride: 2
  }
}
layer {
  name: "conv2"
  type: "Convolution"
  bottom: "pool1"
  top: "conv2"
  convolution_param {
    num_output: 150
    pad: 0
    kernel_size: 4
    group: 1
    stride: 1
    weight_filler {
      type: "xavier"
    }
  }
}
layer {
  name: "conv2_prescale"
  type: "Scale"
  bottom: "conv2"
  top: "conv2"
  param {
    lr_mult: 0
    decay_mult: 0
  }
  scale_param {
    filler {
      value: 0.6666
    }
    bias_term: false
  }
}
layer {
  name: "conv2_sTanH"
  type: "TanH"
  bottom: "conv2"
  top: "conv2"
}
layer {
  name: "conv2_postscale"
  type: "Scale"
  bottom: "conv2"
  top: "conv2"
  param {
    lr_mult: 0
    decay_mult: 0
  }
  scale_param {
    filler {
      value: 1.7159
    }
    bias_term: false
  }
}
layer {
  name: "pool2"
  type: "Pooling"
  bottom: "conv2"
  top: "pool2"
  pooling_param {
    pool: MAX
    kernel_size: 2
    stride: 2
  }
}
layer {
  name: "conv3"
  type: "Convolution"
  bottom: "pool2"
  top: "conv3"
  convolution_param {
    num_output: 250
    pad: 0
    kernel_size: 4
    group: 1
    stride: 1
    weight_filler {
      type: "xavier"
    }
  }
}
layer {
  name: "conv3_prescale"
  type: "Scale"
  bottom: "conv3"
  top: "conv3"
  param {
    lr_mult: 0
    decay_mult: 0
  }
  scale_param {
    filler {
      value: 0.6666
    }
    bias_term: false
  }
}
layer {
  name: "conv3_sTanH"
  type: "TanH"
  bottom: "conv3"
  top: "conv3"
}
layer {
  name: "conv3_postscale"
  type: "Scale"
  bottom: "conv3"
  top: "conv3"
  param {
    lr_mult: 0
    decay_mult: 0
  }
  scale_param {
    filler {
      value: 1.7159
    }
    bias_term: false
  }
}
layer {
  name: "pool3"
  type: "Pooling"
  bottom: "conv3"
  top: "pool3"
  pooling_param {
    pool: MAX
    kernel_size: 2
    stride: 2
  }
}
layer {
  name: "fc4_300"
  type: "InnerProduct"
  bottom: "pool3"
  top: "fc4_300"
  inner_product_param {
    num_output: 300
    weight_filler {
      type: "xavier"
    }
  }
}
layer {
  name: "fc4_prescale"
  type: "Scale"
  bottom: "fc4_300"
  top: "fc4_300"
  param {
    lr_mult: 0
    decay_mult: 0
  }
  scale_param {
    filler {
      value: 0.6666
    }
    bias_term: false
  }
}
layer {
  name: "fc4_sTanH"
  type: "TanH"
  bottom: "fc4_300"
  top: "fc4_300"
}
layer {
  name: "fc4_postscale"
  type: "Scale"
  bottom: "fc4_300"
  top: "fc4_300"
  param {
    lr_mult: 0
    decay_mult: 0
  }
  scale_param {
    filler {
      value: 1.7159
    }
    bias_term: false
  }
}
layer {
  name: "fc5_67"
  type: "InnerProduct"
  bottom: "fc4_300"
  top: "fc5_classes"
  inner_product_param {
    num_output: 67
    weight_filler {
      type: "xavier"
    }
  }
}
layer {
  name: "softmax"
  type: "Softmax"
  bottom: "fc5_classes"
  top: "softmax"
}
layer {
  name: "loss"
  type: "MultinomialLogisticLoss"
  bottom: "softmax"
  bottom: "label"
  top: "loss"
}
layer {
  name: "accuracy_1"
  type: "Accuracy"
  bottom: "fc5_classes"
  bottom: "label"
  top: "accuracy_1"
  accuracy_param {
    top_k: 1
  }
}
layer {
  name: "accuracy_5"
  type: "Accuracy"
  bottom: "fc5_classes"
  bottom: "label"
  top: "accuracy_5"
  accuracy_param {
    top_k: 5
  }
}
layer {
  name: "silence"
  type: "Silence"
  bottom: "accuracy_1"
  bottom: "accuracy_5"
}
I0414 05:52:02.509757 21207 layer_factory.hpp:77] Creating layer data
I0414 05:52:02.511104 21207 net.cpp:100] Creating Layer data
I0414 05:52:02.511124 21207 net.cpp:408] data -> data
I0414 05:52:02.511154 21207 net.cpp:408] data -> label
I0414 05:52:02.518647 21309 db_lmdb.cpp:35] Opened lmdb ../local_data/lmdb/rtsd-r1/AHE/train/lmdb
I0414 05:52:02.538426 21207 data_layer.cpp:41] output data size: 1024,3,48,48
I0414 05:52:02.622761 21207 net.cpp:150] Setting up data
I0414 05:52:02.622789 21207 net.cpp:157] Top shape: 1024 3 48 48 (7077888)
I0414 05:52:02.622795 21207 net.cpp:157] Top shape: 1024 (1024)
I0414 05:52:02.622798 21207 net.cpp:165] Memory required for data: 28315648
I0414 05:52:02.622809 21207 layer_factory.hpp:77] Creating layer label_data_1_split
I0414 05:52:02.622822 21207 net.cpp:100] Creating Layer label_data_1_split
I0414 05:52:02.622830 21207 net.cpp:434] label_data_1_split <- label
I0414 05:52:02.622843 21207 net.cpp:408] label_data_1_split -> label_data_1_split_0
I0414 05:52:02.622855 21207 net.cpp:408] label_data_1_split -> label_data_1_split_1
I0414 05:52:02.622864 21207 net.cpp:408] label_data_1_split -> label_data_1_split_2
I0414 05:52:02.622932 21207 net.cpp:150] Setting up label_data_1_split
I0414 05:52:02.622941 21207 net.cpp:157] Top shape: 1024 (1024)
I0414 05:52:02.622944 21207 net.cpp:157] Top shape: 1024 (1024)
I0414 05:52:02.622948 21207 net.cpp:157] Top shape: 1024 (1024)
I0414 05:52:02.622951 21207 net.cpp:165] Memory required for data: 28327936
I0414 05:52:02.622953 21207 layer_factory.hpp:77] Creating layer conv1
I0414 05:52:02.622969 21207 net.cpp:100] Creating Layer conv1
I0414 05:52:02.622974 21207 net.cpp:434] conv1 <- data
I0414 05:52:02.622979 21207 net.cpp:408] conv1 -> conv1
I0414 05:52:03.045212 21207 net.cpp:150] Setting up conv1
I0414 05:52:03.045236 21207 net.cpp:157] Top shape: 1024 100 42 42 (180633600)
I0414 05:52:03.045240 21207 net.cpp:165] Memory required for data: 750862336
I0414 05:52:03.045262 21207 layer_factory.hpp:77] Creating layer conv1_prescale
I0414 05:52:03.045277 21207 net.cpp:100] Creating Layer conv1_prescale
I0414 05:52:03.045282 21207 net.cpp:434] conv1_prescale <- conv1
I0414 05:52:03.045289 21207 net.cpp:395] conv1_prescale -> conv1 (in-place)
I0414 05:52:03.045398 21207 net.cpp:150] Setting up conv1_prescale
I0414 05:52:03.045408 21207 net.cpp:157] Top shape: 1024 100 42 42 (180633600)
I0414 05:52:03.045411 21207 net.cpp:165] Memory required for data: 1473396736
I0414 05:52:03.045418 21207 layer_factory.hpp:77] Creating layer conv1_sTanH
I0414 05:52:03.045425 21207 net.cpp:100] Creating Layer conv1_sTanH
I0414 05:52:03.045429 21207 net.cpp:434] conv1_sTanH <- conv1
I0414 05:52:03.045433 21207 net.cpp:395] conv1_sTanH -> conv1 (in-place)
I0414 05:52:03.045634 21207 net.cpp:150] Setting up conv1_sTanH
I0414 05:52:03.045646 21207 net.cpp:157] Top shape: 1024 100 42 42 (180633600)
I0414 05:52:03.045670 21207 net.cpp:165] Memory required for data: 2195931136
I0414 05:52:03.045675 21207 layer_factory.hpp:77] Creating layer conv1_postscale
I0414 05:52:03.045681 21207 net.cpp:100] Creating Layer conv1_postscale
I0414 05:52:03.045686 21207 net.cpp:434] conv1_postscale <- conv1
I0414 05:52:03.045691 21207 net.cpp:395] conv1_postscale -> conv1 (in-place)
I0414 05:52:03.045786 21207 net.cpp:150] Setting up conv1_postscale
I0414 05:52:03.045795 21207 net.cpp:157] Top shape: 1024 100 42 42 (180633600)
I0414 05:52:03.045799 21207 net.cpp:165] Memory required for data: 2918465536
I0414 05:52:03.045804 21207 layer_factory.hpp:77] Creating layer pool1
I0414 05:52:03.045810 21207 net.cpp:100] Creating Layer pool1
I0414 05:52:03.045814 21207 net.cpp:434] pool1 <- conv1
I0414 05:52:03.045819 21207 net.cpp:408] pool1 -> pool1
I0414 05:52:03.045866 21207 net.cpp:150] Setting up pool1
I0414 05:52:03.045873 21207 net.cpp:157] Top shape: 1024 100 21 21 (45158400)
I0414 05:52:03.045876 21207 net.cpp:165] Memory required for data: 3099099136
I0414 05:52:03.045879 21207 layer_factory.hpp:77] Creating layer conv2
I0414 05:52:03.045888 21207 net.cpp:100] Creating Layer conv2
I0414 05:52:03.045892 21207 net.cpp:434] conv2 <- pool1
I0414 05:52:03.045897 21207 net.cpp:408] conv2 -> conv2
I0414 05:52:03.054960 21207 net.cpp:150] Setting up conv2
I0414 05:52:03.054981 21207 net.cpp:157] Top shape: 1024 150 18 18 (49766400)
I0414 05:52:03.054986 21207 net.cpp:165] Memory required for data: 3298164736
I0414 05:52:03.054996 21207 layer_factory.hpp:77] Creating layer conv2_prescale
I0414 05:52:03.055009 21207 net.cpp:100] Creating Layer conv2_prescale
I0414 05:52:03.055014 21207 net.cpp:434] conv2_prescale <- conv2
I0414 05:52:03.055021 21207 net.cpp:395] conv2_prescale -> conv2 (in-place)
I0414 05:52:03.055131 21207 net.cpp:150] Setting up conv2_prescale
I0414 05:52:03.055141 21207 net.cpp:157] Top shape: 1024 150 18 18 (49766400)
I0414 05:52:03.055145 21207 net.cpp:165] Memory required for data: 3497230336
I0414 05:52:03.055148 21207 layer_factory.hpp:77] Creating layer conv2_sTanH
I0414 05:52:03.055155 21207 net.cpp:100] Creating Layer conv2_sTanH
I0414 05:52:03.055157 21207 net.cpp:434] conv2_sTanH <- conv2
I0414 05:52:03.055161 21207 net.cpp:395] conv2_sTanH -> conv2 (in-place)
I0414 05:52:03.061342 21207 net.cpp:150] Setting up conv2_sTanH
I0414 05:52:03.061360 21207 net.cpp:157] Top shape: 1024 150 18 18 (49766400)
I0414 05:52:03.061364 21207 net.cpp:165] Memory required for data: 3696295936
I0414 05:52:03.061368 21207 layer_factory.hpp:77] Creating layer conv2_postscale
I0414 05:52:03.061377 21207 net.cpp:100] Creating Layer conv2_postscale
I0414 05:52:03.061379 21207 net.cpp:434] conv2_postscale <- conv2
I0414 05:52:03.061385 21207 net.cpp:395] conv2_postscale -> conv2 (in-place)
I0414 05:52:03.061482 21207 net.cpp:150] Setting up conv2_postscale
I0414 05:52:03.061491 21207 net.cpp:157] Top shape: 1024 150 18 18 (49766400)
I0414 05:52:03.061496 21207 net.cpp:165] Memory required for data: 3895361536
I0414 05:52:03.061501 21207 layer_factory.hpp:77] Creating layer pool2
I0414 05:52:03.061506 21207 net.cpp:100] Creating Layer pool2
I0414 05:52:03.061509 21207 net.cpp:434] pool2 <- conv2
I0414 05:52:03.061514 21207 net.cpp:408] pool2 -> pool2
I0414 05:52:03.061555 21207 net.cpp:150] Setting up pool2
I0414 05:52:03.061563 21207 net.cpp:157] Top shape: 1024 150 9 9 (12441600)
I0414 05:52:03.061566 21207 net.cpp:165] Memory required for data: 3945127936
I0414 05:52:03.061569 21207 layer_factory.hpp:77] Creating layer conv3
I0414 05:52:03.061578 21207 net.cpp:100] Creating Layer conv3
I0414 05:52:03.061580 21207 net.cpp:434] conv3 <- pool2
I0414 05:52:03.061586 21207 net.cpp:408] conv3 -> conv3
I0414 05:52:03.070076 21207 net.cpp:150] Setting up conv3
I0414 05:52:03.070101 21207 net.cpp:157] Top shape: 1024 250 6 6 (9216000)
I0414 05:52:03.070107 21207 net.cpp:165] Memory required for data: 3981991936
I0414 05:52:03.070122 21207 layer_factory.hpp:77] Creating layer conv3_prescale
I0414 05:52:03.070158 21207 net.cpp:100] Creating Layer conv3_prescale
I0414 05:52:03.070163 21207 net.cpp:434] conv3_prescale <- conv3
I0414 05:52:03.070169 21207 net.cpp:395] conv3_prescale -> conv3 (in-place)
I0414 05:52:03.070267 21207 net.cpp:150] Setting up conv3_prescale
I0414 05:52:03.070277 21207 net.cpp:157] Top shape: 1024 250 6 6 (9216000)
I0414 05:52:03.070281 21207 net.cpp:165] Memory required for data: 4018855936
I0414 05:52:03.070286 21207 layer_factory.hpp:77] Creating layer conv3_sTanH
I0414 05:52:03.070291 21207 net.cpp:100] Creating Layer conv3_sTanH
I0414 05:52:03.070294 21207 net.cpp:434] conv3_sTanH <- conv3
I0414 05:52:03.070299 21207 net.cpp:395] conv3_sTanH -> conv3 (in-place)
I0414 05:52:03.071708 21207 net.cpp:150] Setting up conv3_sTanH
I0414 05:52:03.071725 21207 net.cpp:157] Top shape: 1024 250 6 6 (9216000)
I0414 05:52:03.071729 21207 net.cpp:165] Memory required for data: 4055719936
I0414 05:52:03.071733 21207 layer_factory.hpp:77] Creating layer conv3_postscale
I0414 05:52:03.071741 21207 net.cpp:100] Creating Layer conv3_postscale
I0414 05:52:03.071744 21207 net.cpp:434] conv3_postscale <- conv3
I0414 05:52:03.071750 21207 net.cpp:395] conv3_postscale -> conv3 (in-place)
I0414 05:52:03.071848 21207 net.cpp:150] Setting up conv3_postscale
I0414 05:52:03.071857 21207 net.cpp:157] Top shape: 1024 250 6 6 (9216000)
I0414 05:52:03.071861 21207 net.cpp:165] Memory required for data: 4092583936
I0414 05:52:03.071866 21207 layer_factory.hpp:77] Creating layer pool3
I0414 05:52:03.071874 21207 net.cpp:100] Creating Layer pool3
I0414 05:52:03.071894 21207 net.cpp:434] pool3 <- conv3
I0414 05:52:03.071903 21207 net.cpp:408] pool3 -> pool3
I0414 05:52:03.071946 21207 net.cpp:150] Setting up pool3
I0414 05:52:03.071954 21207 net.cpp:157] Top shape: 1024 250 3 3 (2304000)
I0414 05:52:03.071957 21207 net.cpp:165] Memory required for data: 4101799936
I0414 05:52:03.071960 21207 layer_factory.hpp:77] Creating layer fc4_300
I0414 05:52:03.071967 21207 net.cpp:100] Creating Layer fc4_300
I0414 05:52:03.071970 21207 net.cpp:434] fc4_300 <- pool3
I0414 05:52:03.071975 21207 net.cpp:408] fc4_300 -> fc4_300
I0414 05:52:03.092461 21207 net.cpp:150] Setting up fc4_300
I0414 05:52:03.092489 21207 net.cpp:157] Top shape: 1024 300 (307200)
I0414 05:52:03.092494 21207 net.cpp:165] Memory required for data: 4103028736
I0414 05:52:03.092507 21207 layer_factory.hpp:77] Creating layer fc4_prescale
I0414 05:52:03.092521 21207 net.cpp:100] Creating Layer fc4_prescale
I0414 05:52:03.092527 21207 net.cpp:434] fc4_prescale <- fc4_300
I0414 05:52:03.092538 21207 net.cpp:395] fc4_prescale -> fc4_300 (in-place)
I0414 05:52:03.092660 21207 net.cpp:150] Setting up fc4_prescale
I0414 05:52:03.092674 21207 net.cpp:157] Top shape: 1024 300 (307200)
I0414 05:52:03.092680 21207 net.cpp:165] Memory required for data: 4104257536
I0414 05:52:03.092689 21207 layer_factory.hpp:77] Creating layer fc4_sTanH
I0414 05:52:03.092700 21207 net.cpp:100] Creating Layer fc4_sTanH
I0414 05:52:03.092707 21207 net.cpp:434] fc4_sTanH <- fc4_300
I0414 05:52:03.092716 21207 net.cpp:395] fc4_sTanH -> fc4_300 (in-place)
I0414 05:52:03.092985 21207 net.cpp:150] Setting up fc4_sTanH
I0414 05:52:03.093003 21207 net.cpp:157] Top shape: 1024 300 (307200)
I0414 05:52:03.093010 21207 net.cpp:165] Memory required for data: 4105486336
I0414 05:52:03.093017 21207 layer_factory.hpp:77] Creating layer fc4_postscale
I0414 05:52:03.093027 21207 net.cpp:100] Creating Layer fc4_postscale
I0414 05:52:03.093034 21207 net.cpp:434] fc4_postscale <- fc4_300
I0414 05:52:03.093042 21207 net.cpp:395] fc4_postscale -> fc4_300 (in-place)
I0414 05:52:03.093150 21207 net.cpp:150] Setting up fc4_postscale
I0414 05:52:03.093161 21207 net.cpp:157] Top shape: 1024 300 (307200)
I0414 05:52:03.093164 21207 net.cpp:165] Memory required for data: 4106715136
I0414 05:52:03.093169 21207 layer_factory.hpp:77] Creating layer fc5_67
I0414 05:52:03.093178 21207 net.cpp:100] Creating Layer fc5_67
I0414 05:52:03.093181 21207 net.cpp:434] fc5_67 <- fc4_300
I0414 05:52:03.093188 21207 net.cpp:408] fc5_67 -> fc5_classes
I0414 05:52:03.104637 21207 net.cpp:150] Setting up fc5_67
I0414 05:52:03.104660 21207 net.cpp:157] Top shape: 1024 67 (68608)
I0414 05:52:03.104667 21207 net.cpp:165] Memory required for data: 4106989568
I0414 05:52:03.104686 21207 layer_factory.hpp:77] Creating layer fc5_classes_fc5_67_0_split
I0414 05:52:03.104696 21207 net.cpp:100] Creating Layer fc5_classes_fc5_67_0_split
I0414 05:52:03.104704 21207 net.cpp:434] fc5_classes_fc5_67_0_split <- fc5_classes
I0414 05:52:03.104717 21207 net.cpp:408] fc5_classes_fc5_67_0_split -> fc5_classes_fc5_67_0_split_0
I0414 05:52:03.104730 21207 net.cpp:408] fc5_classes_fc5_67_0_split -> fc5_classes_fc5_67_0_split_1
I0414 05:52:03.104740 21207 net.cpp:408] fc5_classes_fc5_67_0_split -> fc5_classes_fc5_67_0_split_2
I0414 05:52:03.104810 21207 net.cpp:150] Setting up fc5_classes_fc5_67_0_split
I0414 05:52:03.104826 21207 net.cpp:157] Top shape: 1024 67 (68608)
I0414 05:52:03.104833 21207 net.cpp:157] Top shape: 1024 67 (68608)
I0414 05:52:03.104841 21207 net.cpp:157] Top shape: 1024 67 (68608)
I0414 05:52:03.104846 21207 net.cpp:165] Memory required for data: 4107812864
I0414 05:52:03.104851 21207 layer_factory.hpp:77] Creating layer softmax
I0414 05:52:03.104861 21207 net.cpp:100] Creating Layer softmax
I0414 05:52:03.104866 21207 net.cpp:434] softmax <- fc5_classes_fc5_67_0_split_0
I0414 05:52:03.104873 21207 net.cpp:408] softmax -> softmax
I0414 05:52:03.105221 21207 net.cpp:150] Setting up softmax
I0414 05:52:03.105239 21207 net.cpp:157] Top shape: 1024 67 (68608)
I0414 05:52:03.105250 21207 net.cpp:165] Memory required for data: 4108087296
I0414 05:52:03.105257 21207 layer_factory.hpp:77] Creating layer loss
I0414 05:52:03.105267 21207 net.cpp:100] Creating Layer loss
I0414 05:52:03.105274 21207 net.cpp:434] loss <- softmax
I0414 05:52:03.105283 21207 net.cpp:434] loss <- label_data_1_split_0
I0414 05:52:03.105293 21207 net.cpp:408] loss -> loss
…
