…
I0528 22:54:58.884131 13552 solver.cpp:81] Creating training net from train_net file: ./Prototxt/experiment_22/RTSD/AHE/trial_4/train.prototxt
I0528 22:54:58.905064 13552 net.cpp:58] Initializing net from parameters: 
state {
  phase: TRAIN
  level: 0
  stage: ""
}
layer {
  name: "data"
  type: "Data"
  top: "data"
  top: "label"
  include {
    phase: TRAIN
  }
  transform_param {
    scale: 0.0039215689
    mirror: false
    crop_size: 48
    mean_value: 133
    mean_value: 127
    mean_value: 126
  }
  data_param {
    source: "../local_data/lmdb/RTSD/AHE/train/lmdb"
    batch_size: 1024
    backend: LMDB
  }
}
layer {
  name: "conv1"
  type: "Convolution"
  bottom: "data"
  top: "conv1"
  convolution_param {
    num_output: 100
    pad: 0
    kernel_size: 7
    group: 1
    stride: 1
    weight_filler {
      type: "xavier"
    }
  }
}
layer {
  name: "conv1_relu"
  type: "ReLU"
  bottom: "conv1"
  top: "conv1"
}
layer {
  name: "pool1"
  type: "Pooling"
  bottom: "conv1"
  top: "pool1"
  pooling_param {
    pool: MAX
    kernel_size: 2
    stride: 2
  }
}
layer {
  name: "conv2"
  type: "Convolution"
  bottom: "pool1"
  top: "conv2"
  convolution_param {
    num_output: 150
    pad: 0
    kernel_size: 4
    group: 1
    stride: 1
    weight_filler {
      type: "xavier"
    }
  }
}
layer {
  name: "conv2_relu"
  type: "ReLU"
  bottom: "conv2"
  top: "conv2"
}
layer {
  name: "pool2"
  type: "Pooling"
  bottom: "conv2"
  top: "pool2"
  pooling_param {
    pool: MAX
    kernel_size: 2
    stride: 2
  }
}
layer {
  name: "conv3"
  type: "Convolution"
  bottom: "pool2"
  top: "conv3"
  convolution_param {
    num_output: 250
    pad: 0
    kernel_size: 4
    group: 1
    stride: 1
    weight_filler {
      type: "xavier"
    }
  }
}
layer {
  name: "conv3_relu"
  type: "ReLU"
  bottom: "conv3"
  top: "conv3"
}
layer {
  name: "pool3"
  type: "Pooling"
  bottom: "conv3"
  top: "pool3"
  pooling_param {
    pool: MAX
    kernel_size: 2
    stride: 2
  }
}
layer {
  name: "fc4_300"
  type: "InnerProduct"
  bottom: "pool3"
  top: "fc4_300"
  inner_product_param {
    num_output: 300
    weight_filler {
      type: "xavier"
    }
  }
}
layer {
  name: "fc4_relu"
  type: "ReLU"
  bottom: "fc4_300"
  top: "fc4_300"
}
layer {
  name: "fc5_116"
  type: "InnerProduct"
  bottom: "fc4_300"
  top: "fc5_classes"
  inner_product_param {
    num_output: 116
    weight_filler {
      type: "xavier"
    }
  }
}
layer {
  name: "softmax"
  type: "Softmax"
  bottom: "fc5_classes"
  top: "softmax"
}
layer {
  name: "loss"
  type: "MultinomialLogisticLoss"
  bottom: "softmax"
  bottom: "label"
  top: "loss"
}
layer {
  name: "accuracy_1"
  type: "Accuracy"
  bottom: "fc5_classes"
  bottom: "label"
  top: "accuracy_1"
  accuracy_param {
    top_k: 1
  }
}
layer {
  name: "accuracy_5"
  type: "Accuracy"
  bottom: "fc5_classes"
  bottom: "label"
  top: "accuracy_5"
  accuracy_param {
    top_k: 5
  }
}
layer {
  name: "silence"
  type: "Silence"
  bottom: "accuracy_1"
  bottom: "accuracy_5"
}
I0528 22:54:58.905230 13552 layer_factory.hpp:77] Creating layer data
I0528 22:54:58.906371 13552 net.cpp:100] Creating Layer data
I0528 22:54:58.906390 13552 net.cpp:408] data -> data
I0528 22:54:58.906426 13552 net.cpp:408] data -> label
I0528 22:54:58.907194 13593 db_lmdb.cpp:35] Opened lmdb ../local_data/lmdb/RTSD/AHE/train/lmdb
I0528 22:54:58.925943 13552 data_layer.cpp:41] output data size: 1024,3,48,48
I0528 22:54:58.970243 13552 net.cpp:150] Setting up data
I0528 22:54:58.970311 13552 net.cpp:157] Top shape: 1024 3 48 48 (7077888)
I0528 22:54:58.970329 13552 net.cpp:157] Top shape: 1024 (1024)
I0528 22:54:58.970335 13552 net.cpp:165] Memory required for data: 28315648
I0528 22:54:58.970356 13552 layer_factory.hpp:77] Creating layer label_data_1_split
I0528 22:54:58.970398 13552 net.cpp:100] Creating Layer label_data_1_split
I0528 22:54:58.970423 13552 net.cpp:434] label_data_1_split <- label
I0528 22:54:58.970459 13552 net.cpp:408] label_data_1_split -> label_data_1_split_0
I0528 22:54:58.970497 13552 net.cpp:408] label_data_1_split -> label_data_1_split_1
I0528 22:54:58.970521 13552 net.cpp:408] label_data_1_split -> label_data_1_split_2
I0528 22:54:58.970605 13552 net.cpp:150] Setting up label_data_1_split
I0528 22:54:58.970639 13552 net.cpp:157] Top shape: 1024 (1024)
I0528 22:54:58.970657 13552 net.cpp:157] Top shape: 1024 (1024)
I0528 22:54:58.970682 13552 net.cpp:157] Top shape: 1024 (1024)
I0528 22:54:58.970698 13552 net.cpp:165] Memory required for data: 28327936
I0528 22:54:58.970724 13552 layer_factory.hpp:77] Creating layer conv1
I0528 22:54:58.970763 13552 net.cpp:100] Creating Layer conv1
I0528 22:54:58.970790 13552 net.cpp:434] conv1 <- data
I0528 22:54:58.970813 13552 net.cpp:408] conv1 -> conv1
I0528 22:54:59.269369 13552 net.cpp:150] Setting up conv1
I0528 22:54:59.269407 13552 net.cpp:157] Top shape: 1024 100 42 42 (180633600)
I0528 22:54:59.269412 13552 net.cpp:165] Memory required for data: 750862336
I0528 22:54:59.269429 13552 layer_factory.hpp:77] Creating layer conv1_relu
I0528 22:54:59.269441 13552 net.cpp:100] Creating Layer conv1_relu
I0528 22:54:59.269446 13552 net.cpp:434] conv1_relu <- conv1
I0528 22:54:59.269454 13552 net.cpp:395] conv1_relu -> conv1 (in-place)
I0528 22:54:59.269650 13552 net.cpp:150] Setting up conv1_relu
I0528 22:54:59.269665 13552 net.cpp:157] Top shape: 1024 100 42 42 (180633600)
I0528 22:54:59.269670 13552 net.cpp:165] Memory required for data: 1473396736
I0528 22:54:59.269677 13552 layer_factory.hpp:77] Creating layer pool1
I0528 22:54:59.269691 13552 net.cpp:100] Creating Layer pool1
I0528 22:54:59.269698 13552 net.cpp:434] pool1 <- conv1
I0528 22:54:59.269707 13552 net.cpp:408] pool1 -> pool1
I0528 22:54:59.269767 13552 net.cpp:150] Setting up pool1
I0528 22:54:59.269783 13552 net.cpp:157] Top shape: 1024 100 21 21 (45158400)
I0528 22:54:59.269789 13552 net.cpp:165] Memory required for data: 1654030336
I0528 22:54:59.269796 13552 layer_factory.hpp:77] Creating layer conv2
I0528 22:54:59.269812 13552 net.cpp:100] Creating Layer conv2
I0528 22:54:59.269822 13552 net.cpp:434] conv2 <- pool1
I0528 22:54:59.269845 13552 net.cpp:408] conv2 -> conv2
I0528 22:54:59.274272 13552 net.cpp:150] Setting up conv2
I0528 22:54:59.274303 13552 net.cpp:157] Top shape: 1024 150 18 18 (49766400)
I0528 22:54:59.274310 13552 net.cpp:165] Memory required for data: 1853095936
I0528 22:54:59.274329 13552 layer_factory.hpp:77] Creating layer conv2_relu
I0528 22:54:59.274344 13552 net.cpp:100] Creating Layer conv2_relu
I0528 22:54:59.274353 13552 net.cpp:434] conv2_relu <- conv2
I0528 22:54:59.274365 13552 net.cpp:395] conv2_relu -> conv2 (in-place)
I0528 22:54:59.274530 13552 net.cpp:150] Setting up conv2_relu
I0528 22:54:59.274544 13552 net.cpp:157] Top shape: 1024 150 18 18 (49766400)
I0528 22:54:59.274550 13552 net.cpp:165] Memory required for data: 2052161536
I0528 22:54:59.274556 13552 layer_factory.hpp:77] Creating layer pool2
I0528 22:54:59.274569 13552 net.cpp:100] Creating Layer pool2
I0528 22:54:59.274580 13552 net.cpp:434] pool2 <- conv2
I0528 22:54:59.274590 13552 net.cpp:408] pool2 -> pool2
I0528 22:54:59.274639 13552 net.cpp:150] Setting up pool2
I0528 22:54:59.274651 13552 net.cpp:157] Top shape: 1024 150 9 9 (12441600)
I0528 22:54:59.274655 13552 net.cpp:165] Memory required for data: 2101927936
I0528 22:54:59.274662 13552 layer_factory.hpp:77] Creating layer conv3
I0528 22:54:59.274682 13552 net.cpp:100] Creating Layer conv3
I0528 22:54:59.274703 13552 net.cpp:434] conv3 <- pool2
I0528 22:54:59.274711 13552 net.cpp:408] conv3 -> conv3
I0528 22:54:59.280256 13552 net.cpp:150] Setting up conv3
I0528 22:54:59.280287 13552 net.cpp:157] Top shape: 1024 250 6 6 (9216000)
I0528 22:54:59.280294 13552 net.cpp:165] Memory required for data: 2138791936
I0528 22:54:59.280313 13552 layer_factory.hpp:77] Creating layer conv3_relu
I0528 22:54:59.280326 13552 net.cpp:100] Creating Layer conv3_relu
I0528 22:54:59.280334 13552 net.cpp:434] conv3_relu <- conv3
I0528 22:54:59.280344 13552 net.cpp:395] conv3_relu -> conv3 (in-place)
I0528 22:54:59.281388 13552 net.cpp:150] Setting up conv3_relu
I0528 22:54:59.281406 13552 net.cpp:157] Top shape: 1024 250 6 6 (9216000)
I0528 22:54:59.281414 13552 net.cpp:165] Memory required for data: 2175655936
I0528 22:54:59.281421 13552 layer_factory.hpp:77] Creating layer pool3
I0528 22:54:59.281435 13552 net.cpp:100] Creating Layer pool3
I0528 22:54:59.281445 13552 net.cpp:434] pool3 <- conv3
I0528 22:54:59.281479 13552 net.cpp:408] pool3 -> pool3
I0528 22:54:59.281559 13552 net.cpp:150] Setting up pool3
I0528 22:54:59.281587 13552 net.cpp:157] Top shape: 1024 250 3 3 (2304000)
I0528 22:54:59.281605 13552 net.cpp:165] Memory required for data: 2184871936
I0528 22:54:59.281622 13552 layer_factory.hpp:77] Creating layer fc4_300
I0528 22:54:59.281647 13552 net.cpp:100] Creating Layer fc4_300
I0528 22:54:59.281666 13552 net.cpp:434] fc4_300 <- pool3
I0528 22:54:59.281687 13552 net.cpp:408] fc4_300 -> fc4_300
I0528 22:54:59.286981 13552 net.cpp:150] Setting up fc4_300
I0528 22:54:59.287017 13552 net.cpp:157] Top shape: 1024 300 (307200)
I0528 22:54:59.287024 13552 net.cpp:165] Memory required for data: 2186100736
I0528 22:54:59.287037 13552 layer_factory.hpp:77] Creating layer fc4_relu
I0528 22:54:59.287053 13552 net.cpp:100] Creating Layer fc4_relu
I0528 22:54:59.287062 13552 net.cpp:434] fc4_relu <- fc4_300
I0528 22:54:59.287073 13552 net.cpp:395] fc4_relu -> fc4_300 (in-place)
I0528 22:54:59.287340 13552 net.cpp:150] Setting up fc4_relu
I0528 22:54:59.287385 13552 net.cpp:157] Top shape: 1024 300 (307200)
I0528 22:54:59.287406 13552 net.cpp:165] Memory required for data: 2187329536
I0528 22:54:59.287425 13552 layer_factory.hpp:77] Creating layer fc5_116
I0528 22:54:59.287452 13552 net.cpp:100] Creating Layer fc5_116
I0528 22:54:59.287474 13552 net.cpp:434] fc5_116 <- fc4_300
I0528 22:54:59.287502 13552 net.cpp:408] fc5_116 -> fc5_classes
I0528 22:54:59.293766 13552 net.cpp:150] Setting up fc5_116
I0528 22:54:59.293797 13552 net.cpp:157] Top shape: 1024 116 (118784)
I0528 22:54:59.293802 13552 net.cpp:165] Memory required for data: 2187804672
I0528 22:54:59.293820 13552 layer_factory.hpp:77] Creating layer fc5_classes_fc5_116_0_split
I0528 22:54:59.293835 13552 net.cpp:100] Creating Layer fc5_classes_fc5_116_0_split
I0528 22:54:59.293846 13552 net.cpp:434] fc5_classes_fc5_116_0_split <- fc5_classes
I0528 22:54:59.293880 13552 net.cpp:408] fc5_classes_fc5_116_0_split -> fc5_classes_fc5_116_0_split_0
I0528 22:54:59.293910 13552 net.cpp:408] fc5_classes_fc5_116_0_split -> fc5_classes_fc5_116_0_split_1
I0528 22:54:59.293934 13552 net.cpp:408] fc5_classes_fc5_116_0_split -> fc5_classes_fc5_116_0_split_2
I0528 22:54:59.294016 13552 net.cpp:150] Setting up fc5_classes_fc5_116_0_split
I0528 22:54:59.294044 13552 net.cpp:157] Top shape: 1024 116 (118784)
I0528 22:54:59.294065 13552 net.cpp:157] Top shape: 1024 116 (118784)
I0528 22:54:59.294083 13552 net.cpp:157] Top shape: 1024 116 (118784)
I0528 22:54:59.294100 13552 net.cpp:165] Memory required for data: 2189230080
I0528 22:54:59.294117 13552 layer_factory.hpp:77] Creating layer softmax
I0528 22:54:59.294137 13552 net.cpp:100] Creating Layer softmax
I0528 22:54:59.294155 13552 net.cpp:434] softmax <- fc5_classes_fc5_116_0_split_0
I0528 22:54:59.294178 13552 net.cpp:408] softmax -> softmax
I0528 22:54:59.294535 13552 net.cpp:150] Setting up softmax
I0528 22:54:59.294570 13552 net.cpp:157] Top shape: 1024 116 (118784)
I0528 22:54:59.294589 13552 net.cpp:165] Memory required for data: 2189705216
I0528 22:54:59.294608 13552 layer_factory.hpp:77] Creating layer loss
I0528 22:54:59.294642 13552 net.cpp:100] Creating Layer loss
I0528 22:54:59.294674 13552 net.cpp:434] loss <- softmax
I0528 22:54:59.294695 13552 net.cpp:434] loss <- label_data_1_split_0
I0528 22:54:59.294720 13552 net.cpp:408] loss -> loss
…
