…
I0407 23:14:56.645000 30941 net.cpp:322] The NetState phase (0) differed from the phase (1) specified by a rule in layer accuracy_5
I0407 23:14:56.647632 30941 net.cpp:58] Initializing net from parameters: 
state {
  phase: TRAIN
  level: 0
  stage: ""
}
layer {
  name: "data_0"
  type: "Data"
  top: "data_0"
  top: "label_0"
  include {
    phase: TRAIN
  }
  transform_param {
    mirror: false
    crop_size: 48
    mean_value: 115
    mean_value: 107
    mean_value: 120
  }
  data_param {
    source: "../local_data/lmdb/rtsd-r1/orig/train/lmdb"
    batch_size: 64
    backend: LMDB
  }
}
layer {
  name: "conv0_0"
  type: "Convolution"
  bottom: "data_0"
  top: "conv0_0"
  convolution_param {
    num_output: 100
    pad: 0
    kernel_size: 7
    group: 1
    stride: 1
    weight_filler {
      type: "xavier"
    }
  }
}
layer {
  name: "conv0_0_prescale"
  type: "Scale"
  bottom: "conv0_0"
  top: "conv0_0"
  param {
    lr_mult: 0
    decay_mult: 0
  }
  scale_param {
    filler {
      value: 0.6666
    }
  }
}
layer {
  name: "conv0_0_sTanH"
  type: "TanH"
  bottom: "conv0_0"
  top: "conv0_0"
}
layer {
  name: "conv0_0_postscale"
  type: "Scale"
  bottom: "conv0_0"
  top: "conv0_0"
  param {
    lr_mult: 0
    decay_mult: 0
  }
  scale_param {
    filler {
      value: 1.7159
    }
  }
}
layer {
  name: "pool0_0"
  type: "Pooling"
  bottom: "conv0_0"
  top: "pool0_0"
  pooling_param {
    pool: MAX
    kernel_size: 2
    stride: 2
  }
}
layer {
  name: "conv0_1"
  type: "Convolution"
  bottom: "pool0_0"
  top: "conv0_1"
  convolution_param {
    num_output: 150
    pad: 0
    kernel_size: 4
    group: 1
    stride: 1
    weight_filler {
      type: "xavier"
    }
  }
}
layer {
  name: "conv0_1_prescale"
  type: "Scale"
  bottom: "conv0_1"
  top: "conv0_1"
  param {
    lr_mult: 0
    decay_mult: 0
  }
  scale_param {
    filler {
      value: 0.6666
    }
  }
}
layer {
  name: "conv0_1_sTanH"
  type: "TanH"
  bottom: "conv0_1"
  top: "conv0_1"
}
layer {
  name: "conv0_1_postscale"
  type: "Scale"
  bottom: "conv0_1"
  top: "conv0_1"
  param {
    lr_mult: 0
    decay_mult: 0
  }
  scale_param {
    filler {
      value: 1.7159
    }
  }
}
layer {
  name: "pool0_1"
  type: "Pooling"
  bottom: "conv0_1"
  top: "pool0_1"
  pooling_param {
    pool: MAX
    kernel_size: 2
    stride: 2
  }
}
layer {
  name: "conv0_2"
  type: "Convolution"
  bottom: "pool0_1"
  top: "conv0_2"
  convolution_param {
    num_output: 250
    pad: 0
    kernel_size: 4
    group: 1
    stride: 1
    weight_filler {
      type: "xavier"
    }
  }
}
layer {
  name: "conv0_2_prescale"
  type: "Scale"
  bottom: "conv0_2"
  top: "conv0_2"
  param {
    lr_mult: 0
    decay_mult: 0
  }
  scale_param {
    filler {
      value: 0.6666
    }
  }
}
layer {
  name: "conv0_2_sTanH"
  type: "TanH"
  bottom: "conv0_2"
  top: "conv0_2"
}
layer {
  name: "conv0_2_postscale"
  type: "Scale"
  bottom: "conv0_2"
  top: "conv0_2"
  param {
    lr_mult: 0
    decay_mult: 0
  }
  scale_param {
    filler {
      value: 1.7159
    }
  }
}
layer {
  name: "pool0_2"
  type: "Pooling"
  bottom: "conv0_2"
  top: "pool0_2"
  pooling_param {
    pool: MAX
    kernel_size: 2
    stride: 2
  }
}
layer {
  name: "fc0_4_300"
  type: "InnerProduct"
  bottom: "pool0_2"
  top: "fc0_4"
  inner_product_param {
    num_output: 300
    weight_filler {
      type: "xavier"
    }
  }
}
layer {
  name: "fc0_4_prescale"
  type: "Scale"
  bottom: "fc0_4"
  top: "fc0_4"
  param {
    lr_mult: 0
    decay_mult: 0
  }
  scale_param {
    filler {
      value: 0.6666
    }
  }
}
layer {
  name: "fc0_4_sTanH"
  type: "TanH"
  bottom: "fc0_4"
  top: "fc0_4"
}
layer {
  name: "fc0_4_postscale"
  type: "Scale"
  bottom: "fc0_4"
  top: "fc0_4"
  param {
    lr_mult: 0
    decay_mult: 0
  }
  scale_param {
    filler {
      value: 1.7159
    }
  }
}
layer {
  name: "drop0_4"
  type: "Dropout"
  bottom: "fc0_4"
  top: "fc0_4"
  dropout_param {
    dropout_ratio: 0.4
  }
}
layer {
  name: "fc0_5_67"
  type: "InnerProduct"
  bottom: "fc0_4"
  top: "fc0_5"
  inner_product_param {
    num_output: 67
    weight_filler {
      type: "xavier"
    }
  }
}
layer {
  name: "softmax_0"
  type: "Softmax"
  bottom: "fc0_5"
  top: "softmax_0"
}
layer {
  name: "conv1_0"
  type: "Convolution"
  bottom: "data_0"
  top: "conv1_0"
  convolution_param {
    num_output: 100
    pad: 0
    kernel_size: 7
    group: 1
    stride: 1
    weight_filler {
      type: "xavier"
    }
  }
}
layer {
  name: "conv1_0_prescale"
  type: "Scale"
  bottom: "conv1_0"
  top: "conv1_0"
  param {
    lr_mult: 0
    decay_mult: 0
  }
  scale_param {
    filler {
      value: 0.6666
    }
  }
}
layer {
  name: "conv1_0_sTanH"
  type: "TanH"
  bottom: "conv1_0"
  top: "conv1_0"
}
layer {
  name: "conv1_0_postscale"
  type: "Scale"
  bottom: "conv1_0"
  top: "conv1_0"
  param {
    lr_mult: 0
    decay_mult: 0
  }
  scale_param {
    filler {
      value: 1.7159
    }
  }
}
layer {
  name: "pool1_0"
  type: "Pooling"
  bottom: "conv1_0"
  top: "pool1_0"
  pooling_param {
    pool: MAX
    kernel_size: 2
    stride: 2
  }
}
layer {
  name: "conv1_1"
  type: "Convolution"
  bottom: "pool1_0"
  top: "conv1_1"
  convolution_param {
    num_output: 150
    pad: 0
    kernel_size: 4
    group: 1
    stride: 1
    weight_filler {
      type: "xavier"
    }
  }
}
layer {
  name: "conv1_1_prescale"
  type: "Scale"
  bottom: "conv1_1"
  top: "conv1_1"
  param {
    lr_mult: 0
    decay_mult: 0
  }
  scale_param {
    filler {
      value: 0.6666
    }
  }
}
layer {
  name: "conv1_1_sTanH"
  type: "TanH"
  bottom: "conv1_1"
  top: "conv1_1"
}
layer {
  name: "conv1_1_postscale"
  type: "Scale"
  bottom: "conv1_1"
  top: "conv1_1"
  param {
    lr_mult: 0
    decay_mult: 0
  }
  scale_param {
    filler {
      value: 1.7159
    }
  }
}
layer {
  name: "pool1_1"
  type: "Pooling"
  bottom: "conv1_1"
  top: "pool1_1"
  pooling_param {
    pool: MAX
    kernel_size: 2
    stride: 2
  }
}
layer {
  name: "conv1_2"
  type: "Convolution"
  bottom: "pool1_1"
  top: "conv1_2"
  convolution_param {
    num_output: 250
    pad: 0
    kernel_size: 4
    group: 1
    stride: 1
    weight_filler {
      type: "xavier"
    }
  }
}
layer {
  name: "conv1_2_prescale"
  type: "Scale"
  bottom: "conv1_2"
  top: "conv1_2"
  param {
    lr_mult: 0
    decay_mult: 0
  }
  scale_param {
    filler {
      value: 0.6666
    }
  }
}
layer {
  name: "conv1_2_sTanH"
  type: "TanH"
  bottom: "conv1_2"
  top: "conv1_2"
}
layer {
  name: "conv1_2_postscale"
  type: "Scale"
  bottom: "conv1_2"
  top: "conv1_2"
  param {
    lr_mult: 0
    decay_mult: 0
  }
  scale_param {
    filler {
      value: 1.7159
    }
  }
}
layer {
  name: "pool1_2"
  type: "Pooling"
  bottom: "conv1_2"
  top: "pool1_2"
  pooling_param {
    pool: MAX
    kernel_size: 2
    stride: 2
  }
}
layer {
  name: "fc1_4_300"
  type: "InnerProduct"
  bottom: "pool1_2"
  top: "fc1_4"
  inner_product_param {
    num_output: 300
    weight_filler {
      type: "xavier"
    }
  }
}
layer {
  name: "fc1_4_prescale"
  type: "Scale"
  bottom: "fc1_4"
  top: "fc1_4"
  param {
    lr_mult: 0
    decay_mult: 0
  }
  scale_param {
    filler {
      value: 0.6666
    }
  }
}
layer {
  name: "fc1_4_sTanH"
  type: "TanH"
  bottom: "fc1_4"
  top: "fc1_4"
}
layer {
  name: "fc1_4_postscale"
  type: "Scale"
  bottom: "fc1_4"
  top: "fc1_4"
  param {
    lr_mult: 0
    decay_mult: 0
  }
  scale_param {
    filler {
      value: 1.7159
    }
  }
}
layer {
  name: "drop1_4"
  type: "Dropout"
  bottom: "fc1_4"
  top: "fc1_4"
  dropout_param {
    dropout_ratio: 0.4
  }
}
layer {
  name: "fc1_5_67"
  type: "InnerProduct"
  bottom: "fc1_4"
  top: "fc1_5"
  inner_product_param {
    num_output: 67
    weight_filler {
      type: "xavier"
    }
  }
}
layer {
  name: "softmax_1"
  type: "Softmax"
  bottom: "fc1_5"
  top: "softmax_1"
}
layer {
  name: "conv2_0"
  type: "Convolution"
  bottom: "data_0"
  top: "conv2_0"
  convolution_param {
    num_output: 100
    pad: 0
    kernel_size: 7
    group: 1
    stride: 1
    weight_filler {
      type: "xavier"
    }
  }
}
layer {
  name: "conv2_0_prescale"
  type: "Scale"
  bottom: "conv2_0"
  top: "conv2_0"
  param {
    lr_mult: 0
    decay_mult: 0
  }
  scale_param {
    filler {
      value: 0.6666
    }
  }
}
layer {
  name: "conv2_0_sTanH"
  type: "TanH"
  bottom: "conv2_0"
  top: "conv2_0"
}
layer {
  name: "conv2_0_postscale"
  type: "Scale"
  bottom: "conv2_0"
  top: "conv2_0"
  param {
    lr_mult: 0
    decay_mult: 0
  }
  scale_param {
    filler {
      value: 1.7159
    }
  }
}
layer {
  name: "pool2_0"
  type: "Pooling"
  bottom: "conv2_0"
  top: "pool2_0"
  pooling_param {
    pool: MAX
    kernel_size: 2
    stride: 2
  }
}
layer {
  name: "conv2_1"
  type: "Convolution"
  bottom: "pool2_0"
  top: "conv2_1"
  convolution_param {
    num_output: 150
    pad: 0
    kernel_size: 4
    group: 1
    stride: 1
    weight_filler {
      type: "xavier"
    }
  }
}
layer {
  name: "conv2_1_prescale"
  type: "Scale"
  bottom: "conv2_1"
  top: "conv2_1"
  param {
    lr_mult: 0
    decay_mult: 0
  }
  scale_param {
    filler {
      value: 0.6666
    }
  }
}
layer {
  name: "conv2_1_sTanH"
  type: "TanH"
  bottom: "conv2_1"
  top: "conv2_1"
}
layer {
  name: "conv2_1_postscale"
  type: "Scale"
  bottom: "conv2_1"
  top: "conv2_1"
  param {
    lr_mult: 0
    decay_mult: 0
  }
  scale_param {
    filler {
      value: 1.7159
    }
  }
}
layer {
  name: "pool2_1"
  type: "Pooling"
  bottom: "conv2_1"
  top: "pool2_1"
  pooling_param {
    pool: MAX
    kernel_size: 2
    stride: 2
  }
}
layer {
  name: "conv2_2"
  type: "Convolution"
  bottom: "pool2_1"
  top: "conv2_2"
  convolution_param {
    num_output: 250
    pad: 0
    kernel_size: 4
    group: 1
    stride: 1
    weight_filler {
      type: "xavier"
    }
  }
}
layer {
  name: "conv2_2_prescale"
  type: "Scale"
  bottom: "conv2_2"
  top: "conv2_2"
  param {
    lr_mult: 0
    decay_mult: 0
  }
  scale_param {
    filler {
      value: 0.6666
    }
  }
}
layer {
  name: "conv2_2_sTanH"
  type: "TanH"
  bottom: "conv2_2"
  top: "conv2_2"
}
layer {
  name: "conv2_2_postscale"
  type: "Scale"
  bottom: "conv2_2"
  top: "conv2_2"
  param {
    lr_mult: 0
    decay_mult: 0
  }
  scale_param {
    filler {
      value: 1.7159
    }
  }
}
layer {
  name: "pool2_2"
  type: "Pooling"
  bottom: "conv2_2"
  top: "pool2_2"
  pooling_param {
    pool: MAX
    kernel_size: 2
    stride: 2
  }
}
layer {
  name: "fc2_4_300"
  type: "InnerProduct"
  bottom: "pool2_2"
  top: "fc2_4"
  inner_product_param {
    num_output: 300
    weight_filler {
      type: "xavier"
    }
  }
}
layer {
  name: "fc2_4_prescale"
  type: "Scale"
  bottom: "fc2_4"
  top: "fc2_4"
  param {
    lr_mult: 0
    decay_mult: 0
  }
  scale_param {
    filler {
      value: 0.6666
    }
  }
}
layer {
  name: "fc2_4_sTanH"
  type: "TanH"
  bottom: "fc2_4"
  top: "fc2_4"
}
layer {
  name: "fc2_4_postscale"
  type: "Scale"
  bottom: "fc2_4"
  top: "fc2_4"
  param {
    lr_mult: 0
    decay_mult: 0
  }
  scale_param {
    filler {
      value: 1.7159
    }
  }
}
layer {
  name: "drop2_4"
  type: "Dropout"
  bottom: "fc2_4"
  top: "fc2_4"
  dropout_param {
    dropout_ratio: 0.4
  }
}
layer {
  name: "fc2_5_67"
  type: "InnerProduct"
  bottom: "fc2_4"
  top: "fc2_5"
  inner_product_param {
    num_output: 67
    weight_filler {
      type: "xavier"
    }
  }
}
layer {
  name: "softmax_2"
  type: "Softmax"
  bottom: "fc2_5"
  top: "softmax_2"
}
layer {
  name: "conv3_0"
  type: "Convolution"
  bottom: "data_0"
  top: "conv3_0"
  convolution_param {
    num_output: 100
    pad: 0
    kernel_size: 7
    group: 1
    stride: 1
    weight_filler {
      type: "xavier"
    }
  }
}
layer {
  name: "conv3_0_prescale"
  type: "Scale"
  bottom: "conv3_0"
  top: "conv3_0"
  param {
    lr_mult: 0
    decay_mult: 0
  }
  scale_param {
    filler {
      value: 0.6666
    }
  }
}
layer {
  name: "conv3_0_sTanH"
  type: "TanH"
  bottom: "conv3_0"
  top: "conv3_0"
}
layer {
  name: "conv3_0_postscale"
  type: "Scale"
  bottom: "conv3_0"
  top: "conv3_0"
  param {
    lr_mult: 0
    decay_mult: 0
  }
  scale_param {
    filler {
      value: 1.7159
    }
  }
}
layer {
  name: "pool3_0"
  type: "Pooling"
  bottom: "conv3_0"
  top: "pool3_0"
  pooling_param {
    pool: MAX
    kernel_size: 2
    stride: 2
  }
}
layer {
  name: "conv3_1"
  type: "Convolution"
  bottom: "pool3_0"
  top: "conv3_1"
  convolution_param {
    num_output: 150
    pad: 0
    kernel_size: 4
    group: 1
    stride: 1
    weight_filler {
      type: "xavier"
    }
  }
}
layer {
  name: "conv3_1_prescale"
  type: "Scale"
  bottom: "conv3_1"
  top: "conv3_1"
  param {
    lr_mult: 0
    decay_mult: 0
  }
  scale_param {
    filler {
      value: 0.6666
    }
  }
}
layer {
  name: "conv3_1_sTanH"
  type: "TanH"
  bottom: "conv3_1"
  top: "conv3_1"
}
layer {
  name: "conv3_1_postscale"
  type: "Scale"
  bottom: "conv3_1"
  top: "conv3_1"
  param {
    lr_mult: 0
    decay_mult: 0
  }
  scale_param {
    filler {
      value: 1.7159
    }
  }
}
layer {
  name: "pool3_1"
  type: "Pooling"
  bottom: "conv3_1"
  top: "pool3_1"
  pooling_param {
    pool: MAX
    kernel_size: 2
    stride: 2
  }
}
layer {
  name: "conv3_2"
  type: "Convolution"
  bottom: "pool3_1"
  top: "conv3_2"
  convolution_param {
    num_output: 250
    pad: 0
    kernel_size: 4
    group: 1
    stride: 1
    weight_filler {
      type: "xavier"
    }
  }
}
layer {
  name: "conv3_2_prescale"
  type: "Scale"
  bottom: "conv3_2"
  top: "conv3_2"
  param {
    lr_mult: 0
    decay_mult: 0
  }
  scale_param {
    filler {
      value: 0.6666
    }
  }
}
layer {
  name: "conv3_2_sTanH"
  type: "TanH"
  bottom: "conv3_2"
  top: "conv3_2"
}
layer {
  name: "conv3_2_postscale"
  type: "Scale"
  bottom: "conv3_2"
  top: "conv3_2"
  param {
    lr_mult: 0
    decay_mult: 0
  }
  scale_param {
    filler {
      value: 1.7159
    }
  }
}
layer {
  name: "pool3_2"
  type: "Pooling"
  bottom: "conv3_2"
  top: "pool3_2"
  pooling_param {
    pool: MAX
    kernel_size: 2
    stride: 2
  }
}
layer {
  name: "fc3_4_300"
  type: "InnerProduct"
  bottom: "pool3_2"
  top: "fc3_4"
  inner_product_param {
    num_output: 300
    weight_filler {
      type: "xavier"
    }
  }
}
layer {
  name: "fc3_4_prescale"
  type: "Scale"
  bottom: "fc3_4"
  top: "fc3_4"
  param {
    lr_mult: 0
    decay_mult: 0
  }
  scale_param {
    filler {
      value: 0.6666
    }
  }
}
layer {
  name: "fc3_4_sTanH"
  type: "TanH"
  bottom: "fc3_4"
  top: "fc3_4"
}
layer {
  name: "fc3_4_postscale"
  type: "Scale"
  bottom: "fc3_4"
  top: "fc3_4"
  param {
    lr_mult: 0
    decay_mult: 0
  }
  scale_param {
    filler {
      value: 1.7159
    }
  }
}
layer {
  name: "drop3_4"
  type: "Dropout"
  bottom: "fc3_4"
  top: "fc3_4"
  dropout_param {
    dropout_ratio: 0.4
  }
}
layer {
  name: "fc3_5_67"
  type: "InnerProduct"
  bottom: "fc3_4"
  top: "fc3_5"
  inner_product_param {
    num_output: 67
    weight_filler {
      type: "xavier"
    }
  }
}
layer {
  name: "softmax_3"
  type: "Softmax"
  bottom: "fc3_5"
  top: "softmax_3"
}
layer {
  name: "conv4_0"
  type: "Convolution"
  bottom: "data_0"
  top: "conv4_0"
  convolution_param {
    num_output: 100
    pad: 0
    kernel_size: 7
    group: 1
    stride: 1
    weight_filler {
      type: "xavier"
    }
  }
}
layer {
  name: "conv4_0_prescale"
  type: "Scale"
  bottom: "conv4_0"
  top: "conv4_0"
  param {
    lr_mult: 0
    decay_mult: 0
  }
  scale_param {
    filler {
      value: 0.6666
    }
  }
}
layer {
  name: "conv4_0_sTanH"
  type: "TanH"
  bottom: "conv4_0"
  top: "conv4_0"
}
layer {
  name: "conv4_0_postscale"
  type: "Scale"
  bottom: "conv4_0"
  top: "conv4_0"
  param {
    lr_mult: 0
    decay_mult: 0
  }
  scale_param {
    filler {
      value: 1.7159
    }
  }
}
layer {
  name: "pool4_0"
  type: "Pooling"
  bottom: "conv4_0"
  top: "pool4_0"
  pooling_param {
    pool: MAX
    kernel_size: 2
    stride: 2
  }
}
layer {
  name: "conv4_1"
  type: "Convolution"
  bottom: "pool4_0"
  top: "conv4_1"
  convolution_param {
    num_output: 150
    pad: 0
    kernel_size: 4
    group: 1
    stride: 1
    weight_filler {
      type: "xavier"
    }
  }
}
layer {
  name: "conv4_1_prescale"
  type: "Scale"
  bottom: "conv4_1"
  top: "conv4_1"
  param {
    lr_mult: 0
    decay_mult: 0
  }
  scale_param {
    filler {
      value: 0.6666
    }
  }
}
layer {
  name: "conv4_1_sTanH"
  type: "TanH"
  bottom: "conv4_1"
  top: "conv4_1"
}
layer {
  name: "conv4_1_postscale"
  type: "Scale"
  bottom: "conv4_1"
  top: "conv4_1"
  param {
    lr_mult: 0
    decay_mult: 0
  }
  scale_param {
    filler {
      value: 1.7159
    }
  }
}
layer {
  name: "pool4_1"
  type: "Pooling"
  bottom: "conv4_1"
  top: "pool4_1"
  pooling_param {
    pool: MAX
    kernel_size: 2
    stride: 2
  }
}
layer {
  name: "conv4_2"
  type: "Convolution"
  bottom: "pool4_1"
  top: "conv4_2"
  convolution_param {
    num_output: 250
    pad: 0
    kernel_size: 4
    group: 1
    stride: 1
    weight_filler {
      type: "xavier"
    }
  }
}
layer {
  name: "conv4_2_prescale"
  type: "Scale"
  bottom: "conv4_2"
  top: "conv4_2"
  param {
    lr_mult: 0
    decay_mult: 0
  }
  scale_param {
    filler {
      value: 0.6666
    }
  }
}
layer {
  name: "conv4_2_sTanH"
  type: "TanH"
  bottom: "conv4_2"
  top: "conv4_2"
}
layer {
  name: "conv4_2_postscale"
  type: "Scale"
  bottom: "conv4_2"
  top: "conv4_2"
  param {
    lr_mult: 0
    decay_mult: 0
  }
  scale_param {
    filler {
      value: 1.7159
    }
  }
}
layer {
  name: "pool4_2"
  type: "Pooling"
  bottom: "conv4_2"
  top: "pool4_2"
  pooling_param {
    pool: MAX
    kernel_size: 2
    stride: 2
  }
}
layer {
  name: "fc4_4_300"
  type: "InnerProduct"
  bottom: "pool4_2"
  top: "fc4_4"
  inner_product_param {
    num_output: 300
    weight_filler {
      type: "xavier"
    }
  }
}
layer {
  name: "fc4_4_prescale"
  type: "Scale"
  bottom: "fc4_4"
  top: "fc4_4"
  param {
    lr_mult: 0
    decay_mult: 0
  }
  scale_param {
    filler {
      value: 0.6666
    }
  }
}
layer {
  name: "fc4_4_sTanH"
  type: "TanH"
  bottom: "fc4_4"
  top: "fc4_4"
}
layer {
  name: "fc4_4_postscale"
  type: "Scale"
  bottom: "fc4_4"
  top: "fc4_4"
  param {
    lr_mult: 0
    decay_mult: 0
  }
  scale_param {
    filler {
      value: 1.7159
    }
  }
}
layer {
  name: "drop4_4"
  type: "Dropout"
  bottom: "fc4_4"
  top: "fc4_4"
  dropout_param {
    dropout_ratio: 0.4
  }
}
layer {
  name: "fc4_5_67"
  type: "InnerProduct"
  bottom: "fc4_4"
  top: "fc4_5"
  inner_product_param {
    num_output: 67
    weight_filler {
      type: "xavier"
    }
  }
}
layer {
  name: "softmax_4"
  type: "Softmax"
  bottom: "fc4_5"
  top: "softmax_4"
}
layer {
  name: "data_1"
  type: "Data"
  top: "data_1"
  top: "label_1"
  include {
    phase: TRAIN
  }
  transform_param {
    mirror: false
    crop_size: 48
    mean_value: 122
    mean_value: 115
    mean_value: 128
  }
  data_param {
    source: "../local_data/lmdb/rtsd-r1/histeq/train/lmdb"
    batch_size: 64
    backend: LMDB
  }
}
layer {
  name: "conv5_0"
  type: "Convolution"
  bottom: "data_1"
  top: "conv5_0"
  convolution_param {
    num_output: 100
    pad: 0
    kernel_size: 7
    group: 1
    stride: 1
    weight_filler {
      type: "xavier"
    }
  }
}
layer {
  name: "conv5_0_prescale"
  type: "Scale"
  bottom: "conv5_0"
  top: "conv5_0"
  param {
    lr_mult: 0
    decay_mult: 0
  }
  scale_param {
    filler {
      value: 0.6666
    }
  }
}
layer {
  name: "conv5_0_sTanH"
  type: "TanH"
  bottom: "conv5_0"
  top: "conv5_0"
}
layer {
  name: "conv5_0_postscale"
  type: "Scale"
  bottom: "conv5_0"
  top: "conv5_0"
  param {
    lr_mult: 0
    decay_mult: 0
  }
  scale_param {
    filler {
      value: 1.7159
    }
  }
}
layer {
  name: "pool5_0"
  type: "Pooling"
  bottom: "conv5_0"
  top: "pool5_0"
  pooling_param {
    pool: MAX
    kernel_size: 2
    stride: 2
  }
}
layer {
  name: "conv5_1"
  type: "Convolution"
  bottom: "pool5_0"
  top: "conv5_1"
  convolution_param {
    num_output: 150
    pad: 0
    kernel_size: 4
    group: 1
    stride: 1
    weight_filler {
      type: "xavier"
    }
  }
}
layer {
  name: "conv5_1_prescale"
  type: "Scale"
  bottom: "conv5_1"
  top: "conv5_1"
  param {
    lr_mult: 0
    decay_mult: 0
  }
  scale_param {
    filler {
      value: 0.6666
    }
  }
}
layer {
  name: "conv5_1_sTanH"
  type: "TanH"
  bottom: "conv5_1"
  top: "conv5_1"
}
layer {
  name: "conv5_1_postscale"
  type: "Scale"
  bottom: "conv5_1"
  top: "conv5_1"
  param {
    lr_mult: 0
    decay_mult: 0
  }
  scale_param {
    filler {
      value: 1.7159
    }
  }
}
layer {
  name: "pool5_1"
  type: "Pooling"
  bottom: "conv5_1"
  top: "pool5_1"
  pooling_param {
    pool: MAX
    kernel_size: 2
    stride: 2
  }
}
layer {
  name: "conv5_2"
  type: "Convolution"
  bottom: "pool5_1"
  top: "conv5_2"
  convolution_param {
    num_output: 250
    pad: 0
    kernel_size: 4
    group: 1
    stride: 1
    weight_filler {
      type: "xavier"
    }
  }
}
layer {
  name: "conv5_2_prescale"
  type: "Scale"
  bottom: "conv5_2"
  top: "conv5_2"
  param {
    lr_mult: 0
    decay_mult: 0
  }
  scale_param {
    filler {
      value: 0.6666
    }
  }
}
layer {
  name: "conv5_2_sTanH"
  type: "TanH"
  bottom: "conv5_2"
  top: "conv5_2"
}
layer {
  name: "conv5_2_postscale"
  type: "Scale"
  bottom: "conv5_2"
  top: "conv5_2"
  param {
    lr_mult: 0
    decay_mult: 0
  }
  scale_param {
    filler {
      value: 1.7159
    }
  }
}
layer {
  name: "pool5_2"
  type: "Pooling"
  bottom: "conv5_2"
  top: "pool5_2"
  pooling_param {
    pool: MAX
    kernel_size: 2
    stride: 2
  }
}
layer {
  name: "fc5_4_300"
  type: "InnerProduct"
  bottom: "pool5_2"
  top: "fc5_4"
  inner_product_param {
    num_output: 300
    weight_filler {
      type: "xavier"
    }
  }
}
layer {
  name: "fc5_4_prescale"
  type: "Scale"
  bottom: "fc5_4"
  top: "fc5_4"
  param {
    lr_mult: 0
    decay_mult: 0
  }
  scale_param {
    filler {
      value: 0.6666
    }
  }
}
layer {
  name: "fc5_4_sTanH"
  type: "TanH"
  bottom: "fc5_4"
  top: "fc5_4"
}
layer {
  name: "fc5_4_postscale"
  type: "Scale"
  bottom: "fc5_4"
  top: "fc5_4"
  param {
    lr_mult: 0
    decay_mult: 0
  }
  scale_param {
    filler {
      value: 1.7159
    }
  }
}
layer {
  name: "drop5_4"
  type: "Dropout"
  bottom: "fc5_4"
  top: "fc5_4"
  dropout_param {
    dropout_ratio: 0.4
  }
}
layer {
  name: "fc5_5_67"
  type: "InnerProduct"
  bottom: "fc5_4"
  top: "fc5_5"
  inner_product_param {
    num_output: 67
    weight_filler {
      type: "xavier"
    }
  }
}
layer {
  name: "softmax_5"
  type: "Softmax"
  bottom: "fc5_5"
  top: "softmax_5"
}
layer {
  name: "conv6_0"
  type: "Convolution"
  bottom: "data_1"
  top: "conv6_0"
  convolution_param {
    num_output: 100
    pad: 0
    kernel_size: 7
    group: 1
    stride: 1
    weight_filler {
      type: "xavier"
    }
  }
}
layer {
  name: "conv6_0_prescale"
  type: "Scale"
  bottom: "conv6_0"
  top: "conv6_0"
  param {
    lr_mult: 0
    decay_mult: 0
  }
  scale_param {
    filler {
      value: 0.6666
    }
  }
}
layer {
  name: "conv6_0_sTanH"
  type: "TanH"
  bottom: "conv6_0"
  top: "conv6_0"
}
layer {
  name: "conv6_0_postscale"
  type: "Scale"
  bottom: "conv6_0"
  top: "conv6_0"
  param {
    lr_mult: 0
    decay_mult: 0
  }
  scale_param {
    filler {
      value: 1.7159
    }
  }
}
layer {
  name: "pool6_0"
  type: "Pooling"
  bottom: "conv6_0"
  top: "pool6_0"
  pooling_param {
    pool: MAX
    kernel_size: 2
    stride: 2
  }
}
layer {
  name: "conv6_1"
  type: "Convolution"
  bottom: "pool6_0"
  top: "conv6_1"
  convolution_param {
    num_output: 150
    pad: 0
    kernel_size: 4
    group: 1
    stride: 1
    weight_filler {
      type: "xavier"
    }
  }
}
layer {
  name: "conv6_1_prescale"
  type: "Scale"
  bottom: "conv6_1"
  top: "conv6_1"
  param {
    lr_mult: 0
    decay_mult: 0
  }
  scale_param {
    filler {
      value: 0.6666
    }
  }
}
layer {
  name: "conv6_1_sTanH"
  type: "TanH"
  bottom: "conv6_1"
  top: "conv6_1"
}
layer {
  name: "conv6_1_postscale"
  type: "Scale"
  bottom: "conv6_1"
  top: "conv6_1"
  param {
    lr_mult: 0
    decay_mult: 0
  }
  scale_param {
    filler {
      value: 1.7159
    }
  }
}
layer {
  name: "pool6_1"
  type: "Pooling"
  bottom: "conv6_1"
  top: "pool6_1"
  pooling_param {
    pool: MAX
    kernel_size: 2
    stride: 2
  }
}
layer {
  name: "conv6_2"
  type: "Convolution"
  bottom: "pool6_1"
  top: "conv6_2"
  convolution_param {
    num_output: 250
    pad: 0
    kernel_size: 4
    group: 1
    stride: 1
    weight_filler {
      type: "xavier"
    }
  }
}
layer {
  name: "conv6_2_prescale"
  type: "Scale"
  bottom: "conv6_2"
  top: "conv6_2"
  param {
    lr_mult: 0
    decay_mult: 0
  }
  scale_param {
    filler {
      value: 0.6666
    }
  }
}
layer {
  name: "conv6_2_sTanH"
  type: "TanH"
  bottom: "conv6_2"
  top: "conv6_2"
}
layer {
  name: "conv6_2_postscale"
  type: "Scale"
  bottom: "conv6_2"
  top: "conv6_2"
  param {
    lr_mult: 0
    decay_mult: 0
  }
  scale_param {
    filler {
      value: 1.7159
    }
  }
}
layer {
  name: "pool6_2"
  type: "Pooling"
  bottom: "conv6_2"
  top: "pool6_2"
  pooling_param {
    pool: MAX
    kernel_size: 2
    stride: 2
  }
}
layer {
  name: "fc6_4_300"
  type: "InnerProduct"
  bottom: "pool6_2"
  top: "fc6_4"
  inner_product_param {
    num_output: 300
    weight_filler {
      type: "xavier"
    }
  }
}
layer {
  name: "fc6_4_prescale"
  type: "Scale"
  bottom: "fc6_4"
  top: "fc6_4"
  param {
    lr_mult: 0
    decay_mult: 0
  }
  scale_param {
    filler {
      value: 0.6666
    }
  }
}
layer {
  name: "fc6_4_sTanH"
  type: "TanH"
  bottom: "fc6_4"
  top: "fc6_4"
}
layer {
  name: "fc6_4_postscale"
  type: "Scale"
  bottom: "fc6_4"
  top: "fc6_4"
  param {
    lr_mult: 0
    decay_mult: 0
  }
  scale_param {
    filler {
      value: 1.7159
    }
  }
}
layer {
  name: "drop6_4"
  type: "Dropout"
  bottom: "fc6_4"
  top: "fc6_4"
  dropout_param {
    dropout_ratio: 0.4
  }
}
layer {
  name: "fc6_5_67"
  type: "InnerProduct"
  bottom: "fc6_4"
  top: "fc6_5"
  inner_product_param {
    num_output: 67
    weight_filler {
      type: "xavier"
    }
  }
}
layer {
  name: "softmax_6"
  type: "Softmax"
  bottom: "fc6_5"
  top: "softmax_6"
}
layer {
  name: "conv7_0"
  type: "Convolution"
  bottom: "data_1"
  top: "conv7_0"
  convolution_param {
    num_output: 100
    pad: 0
    kernel_size: 7
    group: 1
    stride: 1
    weight_filler {
      type: "xavier"
    }
  }
}
layer {
  name: "conv7_0_prescale"
  type: "Scale"
  bottom: "conv7_0"
  top: "conv7_0"
  param {
    lr_mult: 0
    decay_mult: 0
  }
  scale_param {
    filler {
      value: 0.6666
    }
  }
}
layer {
  name: "conv7_0_sTanH"
  type: "TanH"
  bottom: "conv7_0"
  top: "conv7_0"
}
layer {
  name: "conv7_0_postscale"
  type: "Scale"
  bottom: "conv7_0"
  top: "conv7_0"
  param {
    lr_mult: 0
    decay_mult: 0
  }
  scale_param {
    filler {
      value: 1.7159
    }
  }
}
layer {
  name: "pool7_0"
  type: "Pooling"
  bottom: "conv7_0"
  top: "pool7_0"
  pooling_param {
    pool: MAX
    kernel_size: 2
    stride: 2
  }
}
layer {
  name: "conv7_1"
  type: "Convolution"
  bottom: "pool7_0"
  top: "conv7_1"
  convolution_param {
    num_output: 150
    pad: 0
    kernel_size: 4
    group: 1
    stride: 1
    weight_filler {
      type: "xavier"
    }
  }
}
layer {
  name: "conv7_1_prescale"
  type: "Scale"
  bottom: "conv7_1"
  top: "conv7_1"
  param {
    lr_mult: 0
    decay_mult: 0
  }
  scale_param {
    filler {
      value: 0.6666
    }
  }
}
layer {
  name: "conv7_1_sTanH"
  type: "TanH"
  bottom: "conv7_1"
  top: "conv7_1"
}
layer {
  name: "conv7_1_postscale"
  type: "Scale"
  bottom: "conv7_1"
  top: "conv7_1"
  param {
    lr_mult: 0
    decay_mult: 0
  }
  scale_param {
    filler {
      value: 1.7159
    }
  }
}
layer {
  name: "pool7_1"
  type: "Pooling"
  bottom: "conv7_1"
  top: "pool7_1"
  pooling_param {
    pool: MAX
    kernel_size: 2
    stride: 2
  }
}
layer {
  name: "conv7_2"
  type: "Convolution"
  bottom: "pool7_1"
  top: "conv7_2"
  convolution_param {
    num_output: 250
    pad: 0
    kernel_size: 4
    group: 1
    stride: 1
    weight_filler {
      type: "xavier"
    }
  }
}
layer {
  name: "conv7_2_prescale"
  type: "Scale"
  bottom: "conv7_2"
  top: "conv7_2"
  param {
    lr_mult: 0
    decay_mult: 0
  }
  scale_param {
    filler {
      value: 0.6666
    }
  }
}
layer {
  name: "conv7_2_sTanH"
  type: "TanH"
  bottom: "conv7_2"
  top: "conv7_2"
}
layer {
  name: "conv7_2_postscale"
  type: "Scale"
  bottom: "conv7_2"
  top: "conv7_2"
  param {
    lr_mult: 0
    decay_mult: 0
  }
  scale_param {
    filler {
      value: 1.7159
    }
  }
}
layer {
  name: "pool7_2"
  type: "Pooling"
  bottom: "conv7_2"
  top: "pool7_2"
  pooling_param {
    pool: MAX
    kernel_size: 2
    stride: 2
  }
}
layer {
  name: "fc7_4_300"
  type: "InnerProduct"
  bottom: "pool7_2"
  top: "fc7_4"
  inner_product_param {
    num_output: 300
    weight_filler {
      type: "xavier"
    }
  }
}
layer {
  name: "fc7_4_prescale"
  type: "Scale"
  bottom: "fc7_4"
  top: "fc7_4"
  param {
    lr_mult: 0
    decay_mult: 0
  }
  scale_param {
    filler {
      value: 0.6666
    }
  }
}
layer {
  name: "fc7_4_sTanH"
  type: "TanH"
  bottom: "fc7_4"
  top: "fc7_4"
}
layer {
  name: "fc7_4_postscale"
  type: "Scale"
  bottom: "fc7_4"
  top: "fc7_4"
  param {
    lr_mult: 0
    decay_mult: 0
  }
  scale_param {
    filler {
      value: 1.7159
    }
  }
}
layer {
  name: "drop7_4"
  type: "Dropout"
  bottom: "fc7_4"
  top: "fc7_4"
  dropout_param {
    dropout_ratio: 0.4
  }
}
layer {
  name: "fc7_5_67"
  type: "InnerProduct"
  bottom: "fc7_4"
  top: "fc7_5"
  inner_product_param {
    num_output: 67
    weight_filler {
      type: "xavier"
    }
  }
}
layer {
  name: "softmax_7"
  type: "Softmax"
  bottom: "fc7_5"
  top: "softmax_7"
}
layer {
  name: "conv8_0"
  type: "Convolution"
  bottom: "data_1"
  top: "conv8_0"
  convolution_param {
    n
I0407 23:14:56.649402 30941 layer_factory.hpp:77] Creating layer data_0
I0407 23:14:56.649904 30941 net.cpp:100] Creating Layer data_0
I0407 23:14:56.649916 30941 net.cpp:408] data_0 -> data_0
I0407 23:14:56.649937 30941 net.cpp:408] data_0 -> label_0
I0407 23:14:56.651207 30996 db_lmdb.cpp:35] Opened lmdb ../local_data/lmdb/rtsd-r1/orig/train/lmdb
I0407 23:14:56.667043 30941 data_layer.cpp:41] output data size: 64,3,48,48
I0407 23:14:56.672482 30941 net.cpp:150] Setting up data_0
I0407 23:14:56.672498 30941 net.cpp:157] Top shape: 64 3 48 48 (442368)
I0407 23:14:56.672503 30941 net.cpp:157] Top shape: 64 (64)
I0407 23:14:56.672507 30941 net.cpp:165] Memory required for data: 1769728
I0407 23:14:56.672514 30941 layer_factory.hpp:77] Creating layer data_0_data_0_0_split
I0407 23:14:56.672524 30941 net.cpp:100] Creating Layer data_0_data_0_0_split
I0407 23:14:56.672530 30941 net.cpp:434] data_0_data_0_0_split <- data_0
I0407 23:14:56.672554 30941 net.cpp:408] data_0_data_0_0_split -> data_0_data_0_0_split_0
I0407 23:14:56.672564 30941 net.cpp:408] data_0_data_0_0_split -> data_0_data_0_0_split_1
I0407 23:14:56.672572 30941 net.cpp:408] data_0_data_0_0_split -> data_0_data_0_0_split_2
I0407 23:14:56.672580 30941 net.cpp:408] data_0_data_0_0_split -> data_0_data_0_0_split_3
I0407 23:14:56.672587 30941 net.cpp:408] data_0_data_0_0_split -> data_0_data_0_0_split_4
I0407 23:14:56.672719 30941 net.cpp:150] Setting up data_0_data_0_0_split
I0407 23:14:56.672729 30941 net.cpp:157] Top shape: 64 3 48 48 (442368)
I0407 23:14:56.672734 30941 net.cpp:157] Top shape: 64 3 48 48 (442368)
I0407 23:14:56.672737 30941 net.cpp:157] Top shape: 64 3 48 48 (442368)
I0407 23:14:56.672741 30941 net.cpp:157] Top shape: 64 3 48 48 (442368)
I0407 23:14:56.672763 30941 net.cpp:157] Top shape: 64 3 48 48 (442368)
I0407 23:14:56.672766 30941 net.cpp:165] Memory required for data: 10617088
I0407 23:14:56.672770 30941 layer_factory.hpp:77] Creating layer conv0_0
I0407 23:14:56.672785 30941 net.cpp:100] Creating Layer conv0_0
I0407 23:14:56.672791 30941 net.cpp:434] conv0_0 <- data_0_data_0_0_split_0
I0407 23:14:56.672796 30941 net.cpp:408] conv0_0 -> conv0_0
I0407 23:14:56.674216 30997 blocking_queue.cpp:50] Waiting for data
I0407 23:14:56.972741 30941 net.cpp:150] Setting up conv0_0
I0407 23:14:56.972815 30941 net.cpp:157] Top shape: 64 100 42 42 (11289600)
I0407 23:14:56.972836 30941 net.cpp:165] Memory required for data: 55775488
I0407 23:14:56.972878 30941 layer_factory.hpp:77] Creating layer conv0_0_prescale
I0407 23:14:56.972908 30941 net.cpp:100] Creating Layer conv0_0_prescale
I0407 23:14:56.972926 30941 net.cpp:434] conv0_0_prescale <- conv0_0
I0407 23:14:56.972949 30941 net.cpp:395] conv0_0_prescale -> conv0_0 (in-place)
I0407 23:14:56.973106 30941 net.cpp:150] Setting up conv0_0_prescale
I0407 23:14:56.973134 30941 net.cpp:157] Top shape: 64 100 42 42 (11289600)
I0407 23:14:56.973150 30941 net.cpp:165] Memory required for data: 100933888
I0407 23:14:56.973172 30941 layer_factory.hpp:77] Creating layer conv0_0_sTanH
I0407 23:14:56.973196 30941 net.cpp:100] Creating Layer conv0_0_sTanH
I0407 23:14:56.973212 30941 net.cpp:434] conv0_0_sTanH <- conv0_0
I0407 23:14:56.973232 30941 net.cpp:395] conv0_0_sTanH -> conv0_0 (in-place)
I0407 23:14:56.973500 30941 net.cpp:150] Setting up conv0_0_sTanH
I0407 23:14:56.973532 30941 net.cpp:157] Top shape: 64 100 42 42 (11289600)
I0407 23:14:56.973549 30941 net.cpp:165] Memory required for data: 146092288
I0407 23:14:56.973565 30941 layer_factory.hpp:77] Creating layer conv0_0_postscale
I0407 23:14:56.973589 30941 net.cpp:100] Creating Layer conv0_0_postscale
I0407 23:14:56.973608 30941 net.cpp:434] conv0_0_postscale <- conv0_0
I0407 23:14:56.973628 30941 net.cpp:395] conv0_0_postscale -> conv0_0 (in-place)
I0407 23:14:56.973770 30941 net.cpp:150] Setting up conv0_0_postscale
I0407 23:14:56.973798 30941 net.cpp:157] Top shape: 64 100 42 42 (11289600)
I0407 23:14:56.973814 30941 net.cpp:165] Memory required for data: 191250688
I0407 23:14:56.973834 30941 layer_factory.hpp:77] Creating layer pool0_0
I0407 23:14:56.973855 30941 net.cpp:100] Creating Layer pool0_0
I0407 23:14:56.973870 30941 net.cpp:434] pool0_0 <- conv0_0
I0407 23:14:56.973891 30941 net.cpp:408] pool0_0 -> pool0_0
I0407 23:14:56.973973 30941 net.cpp:150] Setting up pool0_0
I0407 23:14:56.973999 30941 net.cpp:157] Top shape: 64 100 21 21 (2822400)
I0407 23:14:56.974015 30941 net.cpp:165] Memory required for data: 202540288
I0407 23:14:56.974032 30941 layer_factory.hpp:77] Creating layer conv0_1
I0407 23:14:56.974056 30941 net.cpp:100] Creating Layer conv0_1
I0407 23:14:56.974073 30941 net.cpp:434] conv0_1 <- pool0_0
I0407 23:14:56.974093 30941 net.cpp:408] conv0_1 -> conv0_1
I0407 23:14:56.982092 30941 net.cpp:150] Setting up conv0_1
I0407 23:14:56.982136 30941 net.cpp:157] Top shape: 64 150 18 18 (3110400)
I0407 23:14:56.982154 30941 net.cpp:165] Memory required for data: 214981888
I0407 23:14:56.982182 30941 layer_factory.hpp:77] Creating layer conv0_1_prescale
I0407 23:14:56.982208 30941 net.cpp:100] Creating Layer conv0_1_prescale
I0407 23:14:56.982226 30941 net.cpp:434] conv0_1_prescale <- conv0_1
I0407 23:14:56.982245 30941 net.cpp:395] conv0_1_prescale -> conv0_1 (in-place)
I0407 23:14:56.982398 30941 net.cpp:150] Setting up conv0_1_prescale
I0407 23:14:56.982425 30941 net.cpp:157] Top shape: 64 150 18 18 (3110400)
I0407 23:14:56.982442 30941 net.cpp:165] Memory required for data: 227423488
I0407 23:14:56.982461 30941 layer_factory.hpp:77] Creating layer conv0_1_sTanH
I0407 23:14:56.982481 30941 net.cpp:100] Creating Layer conv0_1_sTanH
I0407 23:14:56.982498 30941 net.cpp:434] conv0_1_sTanH <- conv0_1
I0407 23:14:56.982517 30941 net.cpp:395] conv0_1_sTanH -> conv0_1 (in-place)
I0407 23:14:56.983537 30941 net.cpp:150] Setting up conv0_1_sTanH
I0407 23:14:56.983590 30941 net.cpp:157] Top shape: 64 150 18 18 (3110400)
I0407 23:14:56.983609 30941 net.cpp:165] Memory required for data: 239865088
I0407 23:14:56.983626 30941 layer_factory.hpp:77] Creating layer conv0_1_postscale
I0407 23:14:56.983649 30941 net.cpp:100] Creating Layer conv0_1_postscale
I0407 23:14:56.983666 30941 net.cpp:434] conv0_1_postscale <- conv0_1
I0407 23:14:56.983686 30941 net.cpp:395] conv0_1_postscale -> conv0_1 (in-place)
I0407 23:14:56.983830 30941 net.cpp:150] Setting up conv0_1_postscale
I0407 23:14:56.983858 30941 net.cpp:157] Top shape: 64 150 18 18 (3110400)
I0407 23:14:56.983875 30941 net.cpp:165] Memory required for data: 252306688
I0407 23:14:56.983914 30941 layer_factory.hpp:77] Creating layer pool0_1
I0407 23:14:56.983937 30941 net.cpp:100] Creating Layer pool0_1
I0407 23:14:56.983952 30941 net.cpp:434] pool0_1 <- conv0_1
I0407 23:14:56.983971 30941 net.cpp:408] pool0_1 -> pool0_1
I0407 23:14:56.984043 30941 net.cpp:150] Setting up pool0_1
I0407 23:14:56.984069 30941 net.cpp:157] Top shape: 64 150 9 9 (777600)
I0407 23:14:56.984086 30941 net.cpp:165] Memory required for data: 255417088
I0407 23:14:56.984102 30941 layer_factory.hpp:77] Creating layer conv0_2
I0407 23:14:56.984124 30941 net.cpp:100] Creating Layer conv0_2
I0407 23:14:56.984141 30941 net.cpp:434] conv0_2 <- pool0_1
I0407 23:14:56.984160 30941 net.cpp:408] conv0_2 -> conv0_2
I0407 23:14:56.993630 30941 net.cpp:150] Setting up conv0_2
I0407 23:14:56.993672 30941 net.cpp:157] Top shape: 64 250 6 6 (576000)
I0407 23:14:56.993693 30941 net.cpp:165] Memory required for data: 257721088
I0407 23:14:56.993721 30941 layer_factory.hpp:77] Creating layer conv0_2_prescale
I0407 23:14:56.993746 30941 net.cpp:100] Creating Layer conv0_2_prescale
I0407 23:14:56.993764 30941 net.cpp:434] conv0_2_prescale <- conv0_2
I0407 23:14:56.993785 30941 net.cpp:395] conv0_2_prescale -> conv0_2 (in-place)
I0407 23:14:56.993927 30941 net.cpp:150] Setting up conv0_2_prescale
I0407 23:14:56.993957 30941 net.cpp:157] Top shape: 64 250 6 6 (576000)
I0407 23:14:56.993973 30941 net.cpp:165] Memory required for data: 260025088
I0407 23:14:56.993994 30941 layer_factory.hpp:77] Creating layer conv0_2_sTanH
I0407 23:14:56.994014 30941 net.cpp:100] Creating Layer conv0_2_sTanH
I0407 23:14:56.994031 30941 net.cpp:434] conv0_2_sTanH <- conv0_2
I0407 23:14:56.994051 30941 net.cpp:395] conv0_2_sTanH -> conv0_2 (in-place)
I0407 23:14:56.995066 30941 net.cpp:150] Setting up conv0_2_sTanH
I0407 23:14:56.995105 30941 net.cpp:157] Top shape: 64 250 6 6 (576000)
I0407 23:14:56.995124 30941 net.cpp:165] Memory required for data: 262329088
I0407 23:14:56.995142 30941 layer_factory.hpp:77] Creating layer conv0_2_postscale
I0407 23:14:56.995165 30941 net.cpp:100] Creating Layer conv0_2_postscale
I0407 23:14:56.995183 30941 net.cpp:434] conv0_2_postscale <- conv0_2
I0407 23:14:56.995204 30941 net.cpp:395] conv0_2_postscale -> conv0_2 (in-place)
I0407 23:14:56.995350 30941 net.cpp:150] Setting up conv0_2_postscale
I0407 23:14:56.995378 30941 net.cpp:157] Top shape: 64 250 6 6 (576000)
I0407 23:14:56.995395 30941 net.cpp:165] Memory required for data: 264633088
I0407 23:14:56.995415 30941 layer_factory.hpp:77] Creating layer pool0_2
I0407 23:14:56.995440 30941 net.cpp:100] Creating Layer pool0_2
I0407 23:14:56.995458 30941 net.cpp:434] pool0_2 <- conv0_2
I0407 23:14:56.995478 30941 net.cpp:408] pool0_2 -> pool0_2
I0407 23:14:56.995548 30941 net.cpp:150] Setting up pool0_2
I0407 23:14:56.995573 30941 net.cpp:157] Top shape: 64 250 3 3 (144000)
I0407 23:14:56.995590 30941 net.cpp:165] Memory required for data: 265209088
I0407 23:14:56.995607 30941 layer_factory.hpp:77] Creating layer fc0_4_300
I0407 23:14:56.995630 30941 net.cpp:100] Creating Layer fc0_4_300
I0407 23:14:56.995646 30941 net.cpp:434] fc0_4_300 <- pool0_2
I0407 23:14:56.995666 30941 net.cpp:408] fc0_4_300 -> fc0_4
I0407 23:14:57.005239 30941 net.cpp:150] Setting up fc0_4_300
I0407 23:14:57.005280 30941 net.cpp:157] Top shape: 64 300 (19200)
I0407 23:14:57.005306 30941 net.cpp:165] Memory required for data: 265285888
I0407 23:14:57.005339 30941 layer_factory.hpp:77] Creating layer fc0_4_prescale
I0407 23:14:57.005363 30941 net.cpp:100] Creating Layer fc0_4_prescale
I0407 23:14:57.005381 30941 net.cpp:434] fc0_4_prescale <- fc0_4
I0407 23:14:57.005406 30941 net.cpp:395] fc0_4_prescale -> fc0_4 (in-place)
I0407 23:14:57.005550 30941 net.cpp:150] Setting up fc0_4_prescale
I0407 23:14:57.005578 30941 net.cpp:157] Top shape: 64 300 (19200)
I0407 23:14:57.005594 30941 net.cpp:165] Memory required for data: 265362688
I0407 23:14:57.005614 30941 layer_factory.hpp:77] Creating layer fc0_4_sTanH
I0407 23:14:57.005635 30941 net.cpp:100] Creating Layer fc0_4_sTanH
I0407 23:14:57.005651 30941 net.cpp:434] fc0_4_sTanH <- fc0_4
I0407 23:14:57.005671 30941 net.cpp:395] fc0_4_sTanH -> fc0_4 (in-place)
I0407 23:14:57.005946 30941 net.cpp:150] Setting up fc0_4_sTanH
I0407 23:14:57.005980 30941 net.cpp:157] Top shape: 64 300 (19200)
I0407 23:14:57.005997 30941 net.cpp:165] Memory required for data: 265439488
I0407 23:14:57.006014 30941 layer_factory.hpp:77] Creating layer fc0_4_postscale
I0407 23:14:57.006036 30941 net.cpp:100] Creating Layer fc0_4_postscale
I0407 23:14:57.006053 30941 net.cpp:434] fc0_4_postscale <- fc0_4
I0407 23:14:57.006077 30941 net.cpp:395] fc0_4_postscale -> fc0_4 (in-place)
I0407 23:14:57.006225 30941 net.cpp:150] Setting up fc0_4_postscale
I0407 23:14:57.006253 30941 net.cpp:157] Top shape: 64 300 (19200)
I0407 23:14:57.006269 30941 net.cpp:165] Memory required for data: 265516288
I0407 23:14:57.006289 30941 layer_factory.hpp:77] Creating layer drop0_4
I0407 23:14:57.006310 30941 net.cpp:100] Creating Layer drop0_4
I0407 23:14:57.006327 30941 net.cpp:434] drop0_4 <- fc0_4
I0407 23:14:57.006350 30941 net.cpp:395] drop0_4 -> fc0_4 (in-place)
I0407 23:14:57.006405 30941 net.cpp:150] Setting up drop0_4
I0407 23:14:57.006430 30941 net.cpp:157] Top shape: 64 300 (19200)
I0407 23:14:57.006446 30941 net.cpp:165] Memory required for data: 265593088
I0407 23:14:57.006464 30941 layer_factory.hpp:77] Creating layer fc0_5_67
I0407 23:14:57.006485 30941 net.cpp:100] Creating Layer fc0_5_67
I0407 23:14:57.006502 30941 net.cpp:434] fc0_5_67 <- fc0_4
I0407 23:14:57.006525 30941 net.cpp:408] fc0_5_67 -> fc0_5
I0407 23:14:57.008460 30941 net.cpp:150] Setting up fc0_5_67
I0407 23:14:57.014199 30941 net.cpp:157] Top shape: 64 67 (4288)
I0407 23:14:57.014214 30941 net.cpp:165] Memory required for data: 265610240
I0407 23:14:57.014230 30941 layer_factory.hpp:77] Creating layer softmax_0
I0407 23:14:57.014245 30941 net.cpp:100] Creating Layer softmax_0
I0407 23:14:57.014250 30941 net.cpp:434] softmax_0 <- fc0_5
I0407 23:14:57.014258 30941 net.cpp:408] softmax_0 -> softmax_0
I0407 23:14:57.014609 30941 net.cpp:150] Setting up softmax_0
I0407 23:14:57.014626 30941 net.cpp:157] Top shape: 64 67 (4288)
I0407 23:14:57.014631 30941 net.cpp:165] Memory required for data: 265627392
I0407 23:14:57.014637 30941 layer_factory.hpp:77] Creating layer conv1_0
I0407 23:14:57.014652 30941 net.cpp:100] Creating Layer conv1_0
I0407 23:14:57.014657 30941 net.cpp:434] conv1_0 <- data_0_data_0_0_split_1
I0407 23:14:57.014667 30941 net.cpp:408] conv1_0 -> conv1_0
I0407 23:14:57.016909 30941 net.cpp:150] Setting up conv1_0
I0407 23:14:57.016932 30941 net.cpp:157] Top shape: 64 100 42 42 (11289600)
I0407 23:14:57.016938 30941 net.cpp:165] Memory required for data: 310785792
I0407 23:14:57.016949 30941 layer_factory.hpp:77] Creating layer conv1_0_prescale
I0407 23:14:57.016959 30941 net.cpp:100] Creating Layer conv1_0_prescale
I0407 23:14:57.016965 30941 net.cpp:434] conv1_0_prescale <- conv1_0
I0407 23:14:57.016975 30941 net.cpp:395] conv1_0_prescale -> conv1_0 (in-place)
I0407 23:14:57.017113 30941 net.cpp:150] Setting up conv1_0_prescale
I0407 23:14:57.017125 30941 net.cpp:157] Top shape: 64 100 42 42 (11289600)
I0407 23:14:57.017130 30941 net.cpp:165] Memory required for data: 355944192
I0407 23:14:57.017138 30941 layer_factory.hpp:77] Creating layer conv1_0_sTanH
I0407 23:14:57.017145 30941 net.cpp:100] Creating Layer conv1_0_sTanH
I0407 23:14:57.017165 30941 net.cpp:434] conv1_0_sTanH <- conv1_0
I0407 23:14:57.017175 30941 net.cpp:395] conv1_0_sTanH -> conv1_0 (in-place)
I0407 23:14:57.017441 30941 net.cpp:150] Setting up conv1_0_sTanH
I0407 23:14:57.017457 30941 net.cpp:157] Top shape: 64 100 42 42 (11289600)
I0407 23:14:57.017462 30941 net.cpp:165] Memory required for data: 401102592
I0407 23:14:57.017467 30941 layer_factory.hpp:77] Creating layer conv1_0_postscale
I0407 23:14:57.017478 30941 net.cpp:100] Creating Layer conv1_0_postscale
I0407 23:14:57.017483 30941 net.cpp:434] conv1_0_postscale <- conv1_0
I0407 23:14:57.017491 30941 net.cpp:395] conv1_0_postscale -> conv1_0 (in-place)
I0407 23:14:57.017628 30941 net.cpp:150] Setting up conv1_0_postscale
I0407 23:14:57.017642 30941 net.cpp:157] Top shape: 64 100 42 42 (11289600)
I0407 23:14:57.017649 30941 net.cpp:165] Memory required for data: 446260992
I0407 23:14:57.017657 30941 layer_factory.hpp:77] Creating layer pool1_0
I0407 23:14:57.017668 30941 net.cpp:100] Creating Layer pool1_0
I0407 23:14:57.017674 30941 net.cpp:434] pool1_0 <- conv1_0
I0407 23:14:57.017683 30941 net.cpp:408] pool1_0 -> pool1_0
I0407 23:14:57.017740 30941 net.cpp:150] Setting up pool1_0
I0407 23:14:57.017751 30941 net.cpp:157] Top shape: 64 100 21 21 (2822400)
I0407 23:14:57.017758 30941 net.cpp:165] Memory required for data: 457550592
I0407 23:14:57.017763 30941 layer_factory.hpp:77] Creating layer conv1_1
I0407 23:14:57.017776 30941 net.cpp:100] Creating Layer conv1_1
I0407 23:14:57.017783 30941 net.cpp:434] conv1_1 <- pool1_0
I0407 23:14:57.017792 30941 net.cpp:408] conv1_1 -> conv1_1
I0407 23:14:57.023106 30941 net.cpp:150] Setting up conv1_1
I0407 23:14:57.023123 30941 net.cpp:157] Top shape: 64 150 18 18 (3110400)
I0407 23:14:57.023126 30941 net.cpp:165] Memory required for data: 469992192
I0407 23:14:57.023133 30941 layer_factory.hpp:77] Creating layer conv1_1_prescale
I0407 23:14:57.023141 30941 net.cpp:100] Creating Layer conv1_1_prescale
I0407 23:14:57.023145 30941 net.cpp:434] conv1_1_prescale <- conv1_1
I0407 23:14:57.023152 30941 net.cpp:395] conv1_1_prescale -> conv1_1 (in-place)
I0407 23:14:57.023252 30941 net.cpp:150] Setting up conv1_1_prescale
I0407 23:14:57.023260 30941 net.cpp:157] Top shape: 64 150 18 18 (3110400)
I0407 23:14:57.023263 30941 net.cpp:165] Memory required for data: 482433792
I0407 23:14:57.023268 30941 layer_factory.hpp:77] Creating layer conv1_1_sTanH
I0407 23:14:57.023274 30941 net.cpp:100] Creating Layer conv1_1_sTanH
I0407 23:14:57.023278 30941 net.cpp:434] conv1_1_sTanH <- conv1_1
I0407 23:14:57.023283 30941 net.cpp:395] conv1_1_sTanH -> conv1_1 (in-place)
I0407 23:14:57.024227 30941 net.cpp:150] Setting up conv1_1_sTanH
I0407 23:14:57.024243 30941 net.cpp:157] Top shape: 64 150 18 18 (3110400)
I0407 23:14:57.024246 30941 net.cpp:165] Memory required for data: 494875392
I0407 23:14:57.024250 30941 layer_factory.hpp:77] Creating layer conv1_1_postscale
I0407 23:14:57.024263 30941 net.cpp:100] Creating Layer conv1_1_postscale
I0407 23:14:57.024267 30941 net.cpp:434] conv1_1_postscale <- conv1_1
I0407 23:14:57.024273 30941 net.cpp:395] conv1_1_postscale -> conv1_1 (in-place)
I0407 23:14:57.024380 30941 net.cpp:150] Setting up conv1_1_postscale
I0407 23:14:57.024389 30941 net.cpp:157] Top shape: 64 150 18 18 (3110400)
I0407 23:14:57.024392 30941 net.cpp:165] Memory required for data: 507316992
I0407 23:14:57.024397 30941 layer_factory.hpp:77] Creating layer pool1_1
I0407 23:14:57.024404 30941 net.cpp:100] Creating Layer pool1_1
I0407 23:14:57.024407 30941 net.cpp:434] pool1_1 <- conv1_1
I0407 23:14:57.024413 30941 net.cpp:408] pool1_1 -> pool1_1
I0407 23:14:57.024454 30941 net.cpp:150] Setting up pool1_1
I0407 23:14:57.024463 30941 net.cpp:157] Top shape: 64 150 9 9 (777600)
I0407 23:14:57.024466 30941 net.cpp:165] Memory required for data: 510427392
I0407 23:14:57.024469 30941 layer_factory.hpp:77] Creating layer conv1_2
I0407 23:14:57.024477 30941 net.cpp:100] Creating Layer conv1_2
I0407 23:14:57.024482 30941 net.cpp:434] conv1_2 <- pool1_1
I0407 23:14:57.024487 30941 net.cpp:408] conv1_2 -> conv1_2
I0407 23:14:57.031566 30941 net.cpp:150] Setting up conv1_2
I0407 23:14:57.031586 30941 net.cpp:157] Top shape: 64 250 6 6 (576000)
I0407 23:14:57.031590 30941 net.cpp:165] Memory required for data: 512731392
I0407 23:14:57.031597 30941 layer_factory.hpp:77] Creating layer conv1_2_prescale
I0407 23:14:57.031605 30941 net.cpp:100] Creating Layer conv1_2_prescale
I0407 23:14:57.031607 30941 net.cpp:434] conv1_2_prescale <- conv1_2
I0407 23:14:57.031615 30941 net.cpp:395] conv1_2_prescale -> conv1_2 (in-place)
I0407 23:14:57.031713 30941 net.cpp:150] Setting up conv1_2_prescale
I0407 23:14:57.031723 30941 net.cpp:157] Top shape: 64 250 6 6 (576000)
I0407 23:14:57.031726 30941 net.cpp:165] Memory required for data: 515035392
I0407 23:14:57.031730 30941 layer_factory.hpp:77] Creating layer conv1_2_sTanH
I0407 23:14:57.031735 30941 net.cpp:100] Creating Layer conv1_2_sTanH
I0407 23:14:57.031738 30941 net.cpp:434] conv1_2_sTanH <- conv1_2
I0407 23:14:57.031744 30941 net.cpp:395] conv1_2_sTanH -> conv1_2 (in-place)
I0407 23:14:57.036875 30941 net.cpp:150] Setting up conv1_2_sTanH
I0407 23:14:57.036893 30941 net.cpp:157] Top shape: 64 250 6 6 (576000)
I0407 23:14:57.036909 30941 net.cpp:165] Memory required for data: 517339392
I0407 23:14:57.036913 30941 layer_factory.hpp:77] Creating layer conv1_2_postscale
I0407 23:14:57.036923 30941 net.cpp:100] Creating Layer conv1_2_postscale
I0407 23:14:57.036926 30941 net.cpp:434] conv1_2_postscale <- conv1_2
I0407 23:14:57.036932 30941 net.cpp:395] conv1_2_postscale -> conv1_2 (in-place)
I0407 23:14:57.037036 30941 net.cpp:150] Setting up conv1_2_postscale
I0407 23:14:57.037046 30941 net.cpp:157] Top shape: 64 250 6 6 (576000)
I0407 23:14:57.037050 30941 net.cpp:165] Memory required for data: 519643392
I0407 23:14:57.037055 30941 layer_factory.hpp:77] Creating layer pool1_2
I0407 23:14:57.037061 30941 net.cpp:100] Creating Layer pool1_2
I0407 23:14:57.037065 30941 net.cpp:434] pool1_2 <- conv1_2
I0407 23:14:57.037070 30941 net.cpp:408] pool1_2 -> pool1_2
I0407 23:14:57.037111 30941 net.cpp:150] Setting up pool1_2
I0407 23:14:57.037118 30941 net.cpp:157] Top shape: 64 250 3 3 (144000)
I0407 23:14:57.037122 30941 net.cpp:165] Memory required for data: 520219392
I0407 23:14:57.037124 30941 layer_factory.hpp:77] Creating layer fc1_4_300
I0407 23:14:57.037129 30941 net.cpp:100] Creating Layer fc1_4_300
I0407 23:14:57.037133 30941 net.cpp:434] fc1_4_300 <- pool1_2
I0407 23:14:57.037139 30941 net.cpp:408] fc1_4_300 -> fc1_4
I0407 23:14:57.047706 30941 net.cpp:150] Setting up fc1_4_300
I0407 23:14:57.047724 30941 net.cpp:157] Top shape: 64 300 (19200)
I0407 23:14:57.047739 30941 net.cpp:165] Memory required for data: 520296192
I0407 23:14:57.047746 30941 layer_factory.hpp:77] Creating layer fc1_4_prescale
I0407 23:14:57.047755 30941 net.cpp:100] Creating Layer fc1_4_prescale
I0407 23:14:57.047758 30941 net.cpp:434] fc1_4_prescale <- fc1_4
I0407 23:14:57.047765 30941 net.cpp:395] fc1_4_prescale -> fc1_4 (in-place)
I0407 23:14:57.047860 30941 net.cpp:150] Setting up fc1_4_prescale
I0407 23:14:57.047869 30941 net.cpp:157] Top shape: 64 300 (19200)
I0407 23:14:57.047873 30941 net.cpp:165] Memory required for data: 520372992
I0407 23:14:57.047888 30941 layer_factory.hpp:77] Creating layer fc1_4_sTanH
I0407 23:14:57.047895 30941 net.cpp:100] Creating Layer fc1_4_sTanH
I0407 23:14:57.047899 30941 net.cpp:434] fc1_4_sTanH <- fc1_4
I0407 23:14:57.047904 30941 net.cpp:395] fc1_4_sTanH -> fc1_4 (in-place)
I0407 23:14:57.048097 30941 net.cpp:150] Setting up fc1_4_sTanH
I0407 23:14:57.048112 30941 net.cpp:157] Top shape: 64 300 (19200)
I0407 23:14:57.048115 30941 net.cpp:165] Memory required for data: 520449792
I0407 23:14:57.048120 30941 layer_factory.hpp:77] Creating layer fc1_4_postscale
I0407 23:14:57.048126 30941 net.cpp:100] Creating Layer fc1_4_postscale
I0407 23:14:57.048130 30941 net.cpp:434] fc1_4_postscale <- fc1_4
I0407 23:14:57.048136 30941 net.cpp:395] fc1_4_postscale -> fc1_4 (in-place)
I0407 23:14:57.048239 30941 net.cpp:150] Setting up fc1_4_postscale
I0407 23:14:57.048260 30941 net.cpp:157] Top shape: 64 300 (19200)
I0407 23:14:57.048264 30941 net.cpp:165] Memory required for data: 520526592
I0407 23:14:57.048269 30941 layer_factory.hpp:77] Creating layer drop1_4
I0407 23:14:57.048274 30941 net.cpp:100] Creating Layer drop1_4
I0407 23:14:57.048277 30941 net.cpp:434] drop1_4 <- fc1_4
I0407 23:14:57.048282 30941 net.cpp:395] drop1_4 -> fc1_4 (in-place)
I0407 23:14:57.048310 30941 net.cpp:150] Setting up drop1_4
I0407 23:14:57.048316 30941 net.cpp:157] Top shape: 64 300 (19200)
I0407 23:14:57.048319 30941 net.cpp:165] Memory required for data: 520603392
I0407 23:14:57.048322 30941 layer_factory.hpp:77] Creating layer fc1_5_67
I0407 23:14:57.048329 30941 net.cpp:100] Creating Layer fc1_5_67
I0407 23:14:57.048332 30941 net.cpp:434] fc1_5_67 <- fc1_4
I0407 23:14:57.048337 30941 net.cpp:408] fc1_5_67 -> fc1_5
I0407 23:14:57.048574 30941 net.cpp:150] Setting up fc1_5_67
I0407 23:14:57.048583 30941 net.cpp:157] Top shape: 64 67 (4288)
I0407 23:14:57.048585 30941 net.cpp:165] Memory required for data: 520620544
I0407 23:14:57.048590 30941 layer_factory.hpp:77] Creating layer softmax_1
I0407 23:14:57.048599 30941 net.cpp:100] Creating Layer softmax_1
I0407 23:14:57.048601 30941 net.cpp:434] softmax_1 <- fc1_5
I0407 23:14:57.048605 30941 net.cpp:408] softmax_1 -> softmax_1
I0407 23:14:57.048848 30941 net.cpp:150] Setting up softmax_1
I0407 23:14:57.048861 30941 net.cpp:157] Top shape: 64 67 (4288)
I0407 23:14:57.048863 30941 net.cpp:165] Memory required for data: 520637696
I0407 23:14:57.048866 30941 layer_factory.hpp:77] Creating layer conv2_0
I0407 23:14:57.048877 30941 net.cpp:100] Creating Layer conv2_0
I0407 23:14:57.048882 30941 net.cpp:434] conv2_0 <- data_0_data_0_0_split_2
I0407 23:14:57.048889 30941 net.cpp:408] conv2_0 -> conv2_0
I0407 23:14:57.050416 30941 net.cpp:150] Setting up conv2_0
I0407 23:14:57.050433 30941 net.cpp:157] Top shape: 64 100 42 42 (11289600)
I0407 23:14:57.050437 30941 net.cpp:165] Memory required for data: 565796096
I0407 23:14:57.050444 30941 layer_factory.hpp:77] Creating layer conv2_0_prescale
I0407 23:14:57.050453 30941 net.cpp:100] Creating Layer conv2_0_prescale
I0407 23:14:57.050459 30941 net.cpp:434] conv2_0_prescale <- conv2_0
I0407 23:14:57.050467 30941 net.cpp:395] conv2_0_prescale -> conv2_0 (in-place)
I0407 23:14:57.050570 30941 net.cpp:150] Setting up conv2_0_prescale
I0407 23:14:57.050578 30941 net.cpp:157] Top shape: 64 100 42 42 (11289600)
I0407 23:14:57.050581 30941 net.cpp:165] Memory required for data: 610954496
I0407 23:14:57.050585 30941 layer_factory.hpp:77] Creating layer conv2_0_sTanH
I0407 23:14:57.050592 30941 net.cpp:100] Creating Layer conv2_0_sTanH
I0407 23:14:57.050595 30941 net.cpp:434] conv2_0_sTanH <- conv2_0
I0407 23:14:57.050601 30941 net.cpp:395] conv2_0_sTanH -> conv2_0 (in-place)
I0407 23:14:57.050791 30941 net.cpp:150] Setting up conv2_0_sTanH
I0407 23:14:57.050802 30941 net.cpp:157] Top shape: 64 100 42 42 (11289600)
I0407 23:14:57.050806 30941 net.cpp:165] Memory required for data: 656112896
I0407 23:14:57.050809 30941 layer_factory.hpp:77] Creating layer conv2_0_postscale
I0407 23:14:57.050817 30941 net.cpp:100] Creating Layer conv2_0_postscale
I0407 23:14:57.050824 30941 net.cpp:434] conv2_0_postscale <- conv2_0
I0407 23:14:57.050829 30941 net.cpp:395] conv2_0_postscale -> conv2_0 (in-place)
I0407 23:14:57.050933 30941 net.cpp:150] Setting up conv2_0_postscale
I0407 23:14:57.050942 30941 net.cpp:157] Top shape: 64 100 42 42 (11289600)
I0407 23:14:57.050945 30941 net.cpp:165] Memory required for data: 701271296
I0407 23:14:57.050950 30941 layer_factory.hpp:77] Creating layer pool2_0
I0407 23:14:57.050956 30941 net.cpp:100] Creating Layer pool2_0
I0407 23:14:57.050961 30941 net.cpp:434] pool2_0 <- conv2_0
I0407 23:14:57.050964 30941 net.cpp:408] pool2_0 -> pool2_0
I0407 23:14:57.051007 30941 net.cpp:150] Setting up pool2_0
I0407 23:14:57.051015 30941 net.cpp:157] Top shape: 64 100 21 21 (2822400)
I0407 23:14:57.051018 30941 net.cpp:165] Memory required for data: 712560896
I0407 23:14:57.051021 30941 layer_factory.hpp:77] Creating layer conv2_1
I0407 23:14:57.051043 30941 net.cpp:100] Creating Layer conv2_1
I0407 23:14:57.051049 30941 net.cpp:434] conv2_1 <- pool2_0
I0407 23:14:57.051055 30941 net.cpp:408] conv2_1 -> conv2_1
I0407 23:14:57.054859 30941 net.cpp:150] Setting up conv2_1
I0407 23:14:57.054878 30941 net.cpp:157] Top shape: 64 150 18 18 (3110400)
I0407 23:14:57.054882 30941 net.cpp:165] Memory required for data: 725002496
I0407 23:14:57.054888 30941 layer_factory.hpp:77] Creating layer conv2_1_prescale
I0407 23:14:57.054898 30941 net.cpp:100] Creating Layer conv2_1_prescale
I0407 23:14:57.054903 30941 net.cpp:434] conv2_1_prescale <- conv2_1
I0407 23:14:57.054910 30941 net.cpp:395] conv2_1_prescale -> conv2_1 (in-place)
I0407 23:14:57.055016 30941 net.cpp:150] Setting up conv2_1_prescale
I0407 23:14:57.055024 30941 net.cpp:157] Top shape: 64 150 18 18 (3110400)
I0407 23:14:57.055027 30941 net.cpp:165] Memory required for data: 737444096
I0407 23:14:57.055032 30941 layer_factory.hpp:77] Creating layer conv2_1_sTanH
I0407 23:14:57.055037 30941 net.cpp:100] Creating Layer conv2_1_sTanH
I0407 23:14:57.055039 30941 net.cpp:434] conv2_1_sTanH <- conv2_1
I0407 23:14:57.055045 30941 net.cpp:395] conv2_1_sTanH -> conv2_1 (in-place)
I0407 23:14:57.055817 30941 net.cpp:150] Setting up conv2_1_sTanH
I0407 23:14:57.055833 30941 net.cpp:157] Top shape: 64 150 18 18 (3110400)
I0407 23:14:57.055836 30941 net.cpp:165] Memory required for data: 749885696
I0407 23:14:57.055840 30941 layer_factory.hpp:77] Creating layer conv2_1_postscale
I0407 23:14:57.055850 30941 net.cpp:100] Creating Layer conv2_1_postscale
I0407 23:14:57.055855 30941 net.cpp:434] conv2_1_postscale <- conv2_1
I0407 23:14:57.055860 30941 net.cpp:395] conv2_1_postscale -> conv2_1 (in-place)
I0407 23:14:57.055976 30941 net.cpp:150] Setting up conv2_1_postscale
I0407 23:14:57.055985 30941 net.cpp:157] Top shape: 64 150 18 18 (3110400)
I0407 23:14:57.055989 30941 net.cpp:165] Memory required for data: 762327296
I0407 23:14:57.055994 30941 layer_factory.hpp:77] Creating layer pool2_1
I0407 23:14:57.056002 30941 net.cpp:100] Creating Layer pool2_1
I0407 23:14:57.056005 30941 net.cpp:434] pool2_1 <- conv2_1
I0407 23:14:57.056011 30941 net.cpp:408] pool2_1 -> pool2_1
I0407 23:14:57.056053 30941 net.cpp:150] Setting up pool2_1
I0407 23:14:57.056061 30941 net.cpp:157] Top shape: 64 150 9 9 (777600)
I0407 23:14:57.056064 30941 net.cpp:165] Memory required for data: 765437696
I0407 23:14:57.056067 30941 layer_factory.hpp:77] Creating layer conv2_2
I0407 23:14:57.056077 30941 net.cpp:100] Creating Layer conv2_2
I0407 23:14:57.056079 30941 net.cpp:434] conv2_2 <- pool2_1
I0407 23:14:57.056084 30941 net.cpp:408] conv2_2 -> conv2_2
I0407 23:14:57.061569 30941 net.cpp:150] Setting up conv2_2
I0407 23:14:57.061586 30941 net.cpp:157] Top shape: 64 250 6 6 (576000)
I0407 23:14:57.061589 30941 net.cpp:165] Memory required for data: 767741696
I0407 23:14:57.061609 30941 layer_factory.hpp:77] Creating layer conv2_2_prescale
I0407 23:14:57.061619 30941 net.cpp:100] Creating Layer conv2_2_prescale
I0407 23:14:57.061624 30941 net.cpp:434] conv2_2_prescale <- conv2_2
I0407 23:14:57.061630 30941 net.cpp:395] conv2_2_prescale -> conv2_2 (in-place)
I0407 23:14:57.061733 30941 net.cpp:150] Setting up conv2_2_prescale
I0407 23:14:57.061743 30941 net.cpp:157] Top shape: 64 250 6 6 (576000)
I0407 23:14:57.061745 30941 net.cpp:165] Memory required for data: 770045696
I0407 23:14:57.061749 30941 layer_factory.hpp:77] Creating layer conv2_2_sTanH
I0407 23:14:57.061755 30941 net.cpp:100] Creating Layer conv2_2_sTanH
I0407 23:14:57.061758 30941 net.cpp:434] conv2_2_sTanH <- conv2_2
I0407 23:14:57.061764 30941 net.cpp:395] conv2_2_sTanH -> conv2_2 (in-place)
I0407 23:14:57.062535 30941 net.cpp:150] Setting up conv2_2_sTanH
I0407 23:14:57.062551 30941 net.cpp:157] Top shape: 64 250 6 6 (576000)
I0407 23:14:57.062554 30941 net.cpp:165] Memory required for data: 772349696
I0407 23:14:57.062557 30941 layer_factory.hpp:77] Creating layer conv2_2_postscale
I0407 23:14:57.062564 30941 net.cpp:100] Creating Layer conv2_2_postscale
I0407 23:14:57.062580 30941 net.cpp:434] conv2_2_postscale <- conv2_2
I0407 23:14:57.062588 30941 net.cpp:395] conv2_2_postscale -> conv2_2 (in-place)
I0407 23:14:57.062695 30941 net.cpp:150] Setting up conv2_2_postscale
I0407 23:14:57.062705 30941 net.cpp:157] Top shape: 64 250 6 6 (576000)
I0407 23:14:57.062707 30941 net.cpp:165] Memory required for data: 774653696
I0407 23:14:57.062712 30941 layer_factory.hpp:77] Creating layer pool2_2
I0407 23:14:57.062717 30941 net.cpp:100] Creating Layer pool2_2
I0407 23:14:57.062721 30941 net.cpp:434] pool2_2 <- conv2_2
I0407 23:14:57.062727 30941 net.cpp:408] pool2_2 -> pool2_2
I0407 23:14:57.062768 30941 net.cpp:150] Setting up pool2_2
I0407 23:14:57.062777 30941 net.cpp:157] Top shape: 64 250 3 3 (144000)
I0407 23:14:57.062779 30941 net.cpp:165] Memory required for data: 775229696
I0407 23:14:57.062783 30941 layer_factory.hpp:77] Creating layer fc2_4_300
I0407 23:14:57.062789 30941 net.cpp:100] Creating Layer fc2_4_300
I0407 23:14:57.062793 30941 net.cpp:434] fc2_4_300 <- pool2_2
I0407 23:14:57.062796 30941 net.cpp:408] fc2_4_300 -> fc2_4
I0407 23:14:57.068003 30941 net.cpp:150] Setting up fc2_4_300
I0407 23:14:57.068017 30941 net.cpp:157] Top shape: 64 300 (19200)
I0407 23:14:57.068020 30941 net.cpp:165] Memory required for data: 775306496
I0407 23:14:57.068027 30941 layer_factory.hpp:77] Creating layer fc2_4_prescale
I0407 23:14:57.068035 30941 net.cpp:100] Creating Layer fc2_4_prescale
I0407 23:14:57.068039 30941 net.cpp:434] fc2_4_prescale <- fc2_4
I0407 23:14:57.068044 30941 net.cpp:395] fc2_4_prescale -> fc2_4 (in-place)
I0407 23:14:57.068142 30941 net.cpp:150] Setting up fc2_4_prescale
I0407 23:14:57.068151 30941 net.cpp:157] Top shape: 64 300 (19200)
I0407 23:14:57.068153 30941 net.cpp:165] Memory required for data: 775383296
I0407 23:14:57.068158 30941 layer_factory.hpp:77] Creating layer fc2_4_sTanH
I0407 23:14:57.068164 30941 net.cpp:100] Creating Layer fc2_4_sTanH
I0407 23:14:57.068167 30941 net.cpp:434] fc2_4_sTanH <- fc2_4
I0407 23:14:57.068171 30941 net.cpp:395] fc2_4_sTanH -> fc2_4 (in-place)
I0407 23:14:57.068366 30941 net.cpp:150] Setting up fc2_4_sTanH
I0407 23:14:57.068377 30941 net.cpp:157] Top shape: 64 300 (19200)
I0407 23:14:57.068380 30941 net.cpp:165] Memory required for data: 775460096
I0407 23:14:57.068383 30941 layer_factory.hpp:77] Creating layer fc2_4_postscale
I0407 23:14:57.068401 30941 net.cpp:100] Creating Layer fc2_4_postscale
I0407 23:14:57.068406 30941 net.cpp:434] fc2_4_postscale <- fc2_4
I0407 23:14:57.068411 30941 net.cpp:395] fc2_4_postscale -> fc2_4 (in-place)
I0407 23:14:57.068519 30941 net.cpp:150] Setting up fc2_4_postscale
I0407 23:14:57.068527 30941 net.cpp:157] Top shape: 64 300 (19200)
I0407 23:14:57.068531 30941 net.cpp:165] Memory required for data: 775536896
I0407 23:14:57.068536 30941 layer_factory.hpp:77] Creating layer drop2_4
I0407 23:14:57.068542 30941 net.cpp:100] Creating Layer drop2_4
I0407 23:14:57.068545 30941 net.cpp:434] drop2_4 <- fc2_4
I0407 23:14:57.068549 30941 net.cpp:395] drop2_4 -> fc2_4 (in-place)
I0407 23:14:57.068575 30941 net.cpp:150] Setting up drop2_4
I0407 23:14:57.068583 30941 net.cpp:157] Top shape: 64 300 (19200)
I0407 23:14:57.068585 30941 net.cpp:165] Memory required for data: 775613696
I0407 23:14:57.068588 30941 layer_factory.hpp:77] Creating layer fc2_5_67
I0407 23:14:57.068593 30941 net.cpp:100] Creating Layer fc2_5_67
I0407 23:14:57.068596 30941 net.cpp:434] fc2_5_67 <- fc2_4
I0407 23:14:57.068603 30941 net.cpp:408] fc2_5_67 -> fc2_5
I0407 23:14:57.068845 30941 net.cpp:150] Setting up fc2_5_67
I0407 23:14:57.068853 30941 net.cpp:157] Top shape: 64 67 (4288)
I0407 23:14:57.068856 30941 net.cpp:165] Memory required for data: 775630848
I0407 23:14:57.068861 30941 layer_factory.hpp:77] Creating layer softmax_2
I0407 23:14:57.068866 30941 net.cpp:100] Creating Layer softmax_2
I0407 23:14:57.068869 30941 net.cpp:434] softmax_2 <- fc2_5
I0407 23:14:57.068874 30941 net.cpp:408] softmax_2 -> softmax_2
I0407 23:14:57.069120 30941 net.cpp:150] Setting up softmax_2
I0407 23:14:57.069145 30941 net.cpp:157] Top shape: 64 67 (4288)
I0407 23:14:57.069149 30941 net.cpp:165] Memory required for data: 775648000
I0407 23:14:57.069152 30941 layer_factory.hpp:77] Creating layer conv3_0
I0407 23:14:57.069160 30941 net.cpp:100] Creating Layer conv3_0
I0407 23:14:57.069164 30941 net.cpp:434] conv3_0 <- data_0_data_0_0_split_3
I0407 23:14:57.069171 30941 net.cpp:408] conv3_0 -> conv3_0
I0407 23:14:57.070705 30941 net.cpp:150] Setting up conv3_0
I0407 23:14:57.070721 30941 net.cpp:157] Top shape: 64 100 42 42 (11289600)
I0407 23:14:57.070724 30941 net.cpp:165] Memory required for data: 820806400
I0407 23:14:57.070731 30941 layer_factory.hpp:77] Creating layer conv3_0_prescale
I0407 23:14:57.070739 30941 net.cpp:100] Creating Layer conv3_0_prescale
I0407 23:14:57.070741 30941 net.cpp:434] conv3_0_prescale <- conv3_0
I0407 23:14:57.070750 30941 net.cpp:395] conv3_0_prescale -> conv3_0 (in-place)
I0407 23:14:57.070858 30941 net.cpp:150] Setting up conv3_0_prescale
I0407 23:14:57.070866 30941 net.cpp:157] Top shape: 64 100 42 42 (11289600)
I0407 23:14:57.070869 30941 net.cpp:165] Memory required for data: 865964800
I0407 23:14:57.070873 30941 layer_factory.hpp:77] Creating layer conv3_0_sTanH
I0407 23:14:57.070879 30941 net.cpp:100] Creating Layer conv3_0_sTanH
I0407 23:14:57.070883 30941 net.cpp:434] conv3_0_sTanH <- conv3_0
I0407 23:14:57.070888 30941 net.cpp:395] conv3_0_sTanH -> conv3_0 (in-place)
I0407 23:14:57.071074 30941 net.cpp:150] Setting up conv3_0_sTanH
I0407 23:14:57.071084 30941 net.cpp:157] Top shape: 64 100 42 42 (11289600)
I0407 23:14:57.071089 30941 net.cpp:165] Memory required for data: 911123200
I0407 23:14:57.071091 30941 layer_factory.hpp:77] Creating layer conv3_0_postscale
I0407 23:14:57.071101 30941 net.cpp:100] Creating Layer conv3_0_postscale
I0407 23:14:57.071105 30941 net.cpp:434] conv3_0_postscale <- conv3_0
I0407 23:14:57.071112 30941 net.cpp:395] conv3_0_postscale -> conv3_0 (in-place)
I0407 23:14:57.071220 30941 net.cpp:150] Setting up conv3_0_postscale
I0407 23:14:57.071228 30941 net.cpp:157] Top shape: 64 100 42 42 (11289600)
I0407 23:14:57.071231 30941 net.cpp:165] Memory required for data: 956281600
I0407 23:14:57.071235 30941 layer_factory.hpp:77] Creating layer pool3_0
I0407 23:14:57.071241 30941 net.cpp:100] Creating Layer pool3_0
I0407 23:14:57.071244 30941 net.cpp:434] pool3_0 <- conv3_0
I0407 23:14:57.071250 30941 net.cpp:408] pool3_0 -> pool3_0
I0407 23:14:57.071292 30941 net.cpp:150] Setting up pool3_0
I0407 23:14:57.071301 30941 net.cpp:157] Top shape: 64 100 21 21 (2822400)
I0407 23:14:57.071305 30941 net.cpp:165] Memory required for data: 967571200
I0407 23:14:57.071307 30941 layer_factory.hpp:77] Creating layer conv3_1
I0407 23:14:57.071315 30941 net.cpp:100] Creating Layer conv3_1
I0407 23:14:57.071318 30941 net.cpp:434] conv3_1 <- pool3_0
I0407 23:14:57.071324 30941 net.cpp:408] conv3_1 -> conv3_1
I0407 23:14:57.074165 30941 net.cpp:150] Setting up conv3_1
I0407 23:14:57.074182 30941 net.cpp:157] Top shape: 64 150 18 18 (3110400)
I0407 23:14:57.074185 30941 net.cpp:165] Memory required for data: 980012800
I0407 23:14:57.074203 30941 layer_factory.hpp:77] Creating layer conv3_1_prescale
I0407 23:14:57.074213 30941 net.cpp:100] Creating Layer conv3_1_prescale
I0407 23:14:57.074216 30941 net.cpp:434] conv3_1_prescale <- conv3_1
I0407 23:14:57.074223 30941 net.cpp:395] conv3_1_prescale -> conv3_1 (in-place)
I0407 23:14:57.074331 30941 net.cpp:150] Setting up conv3_1_prescale
I0407 23:14:57.074339 30941 net.cpp:157] Top shape: 64 150 18 18 (3110400)
I0407 23:14:57.074342 30941 net.cpp:165] Memory required for data: 992454400
I0407 23:14:57.074347 30941 layer_factory.hpp:77] Creating layer conv3_1_sTanH
I0407 23:14:57.074352 30941 net.cpp:100] Creating Layer conv3_1_sTanH
I0407 23:14:57.074355 30941 net.cpp:434] conv3_1_sTanH <- conv3_1
I0407 23:14:57.074362 30941 net.cpp:395] conv3_1_sTanH -> conv3_1 (in-place)
I0407 23:14:57.075155 30941 net.cpp:150] Setting up conv3_1_sTanH
I0407 23:14:57.075171 30941 net.cpp:157] Top shape: 64 150 18 18 (3110400)
I0407 23:14:57.075175 30941 net.cpp:165] Memory required for data: 1004896000
I0407 23:14:57.075189 30941 layer_factory.hpp:77] Creating layer conv3_1_postscale
I0407 23:14:57.075198 30941 net.cpp:100] Creating Layer conv3_1_postscale
I0407 23:14:57.075202 30941 net.cpp:434] conv3_1_postscale <- conv3_1
I0407 23:14:57.075208 30941 net.cpp:395] conv3_1_postscale -> conv3_1 (in-place)
I0407 23:14:57.075320 30941 net.cpp:150] Setting up conv3_1_postscale
I0407 23:14:57.075330 30941 net.cpp:157] Top shape: 64 150 18 18 (3110400)
I0407 23:14:57.075333 30941 net.cpp:165] Memory required for data: 1017337600
I0407 23:14:57.075340 30941 layer_factory.hpp:77] Creating layer pool3_1
I0407 23:14:57.075345 30941 net.cpp:100] Creating Layer pool3_1
I0407 23:14:57.075348 30941 net.cpp:434] pool3_1 <- conv3_1
I0407 23:14:57.075353 30941 net.cpp:408] pool3_1 -> pool3_1
I0407 23:14:57.075398 30941 net.cpp:150] Setting up pool3_1
I0407 23:14:57.075407 30941 net.cpp:157] Top shape: 64 150 9 9 (777600)
I0407 23:14:57.075409 30941 net.cpp:165] Memory required for data: 1020448000
I0407 23:14:57.075412 30941 layer_factory.hpp:77] Creating layer conv3_2
I0407 23:14:57.075422 30941 net.cpp:100] Creating Layer conv3_2
I0407 23:14:57.075424 30941 net.cpp:434] conv3_2 <- pool3_1
I0407 23:14:57.075431 30941 net.cpp:408] conv3_2 -> conv3_2
I0407 23:14:57.081450 30941 net.cpp:150] Setting up conv3_2
I0407 23:14:57.081467 30941 net.cpp:157] Top shape: 64 250 6 6 (576000)
I0407 23:14:57.081471 30941 net.cpp:165] Memory required for data: 1022752000
I0407 23:14:57.081478 30941 layer_factory.hpp:77] Creating layer conv3_2_prescale
I0407 23:14:57.081487 30941 net.cpp:100] Creating Layer conv3_2_prescale
I0407 23:14:57.081492 30941 net.cpp:434] conv3_2_prescale <- conv3_2
I0407 23:14:57.081497 30941 net.cpp:395] conv3_2_prescale -> conv3_2 (in-place)
I0407 23:14:57.081604 30941 net.cpp:150] Setting up conv3_2_prescale
I0407 23:14:57.081614 30941 net.cpp:157] Top shape: 64 250 6 6 (576000)
I0407 23:14:57.081617 30941 net.cpp:165] Memory required for data: 1025056000
I0407 23:14:57.081629 30941 layer_factory.hpp:77] Creating layer conv3_2_sTanH
I0407 23:14:57.081640 30941 net.cpp:100] Creating Layer conv3_2_sTanH
I0407 23:14:57.081642 30941 net.cpp:434] conv3_2_sTanH <- conv3_2
I0407 23:14:57.081647 30941 net.cpp:395] conv3_2_sTanH -> conv3_2 (in-place)
I0407 23:14:57.081840 30941 net.cpp:150] Setting up conv3_2_sTanH
I0407 23:14:57.081851 30941 net.cpp:157] Top shape: 64 250 6 6 (576000)
I0407 23:14:57.081856 30941 net.cpp:165] Memory required for data: 1027360000
I0407 23:14:57.081858 30941 layer_factory.hpp:77] Creating layer conv3_2_postscale
I0407 23:14:57.081866 30941 net.cpp:100] Creating Layer conv3_2_postscale
I0407 23:14:57.081869 30941 net.cpp:434] conv3_2_postscale <- conv3_2
I0407 23:14:57.081874 30941 net.cpp:395] conv3_2_postscale -> conv3_2 (in-place)
I0407 23:14:57.081982 30941 net.cpp:150] Setting up conv3_2_postscale
I0407 23:14:57.081990 30941 net.cpp:157] Top shape: 64 250 6 6 (576000)
I0407 23:14:57.081993 30941 net.cpp:165] Memory required for data: 1029664000
I0407 23:14:57.081998 30941 layer_factory.hpp:77] Creating layer pool3_2
I0407 23:14:57.082005 30941 net.cpp:100] Creating Layer pool3_2
I0407 23:14:57.082008 30941 net.cpp:434] pool3_2 <- conv3_2
I0407 23:14:57.082013 30941 net.cpp:408] pool3_2 -> pool3_2
I0407 23:14:57.082056 30941 net.cpp:150] Setting up pool3_2
I0407 23:14:57.082062 30941 net.cpp:157] Top shape: 64 250 3 3 (144000)
I0407 23:14:57.082065 30941 net.cpp:165] Memory required for data: 1030240000
I0407 23:14:57.082068 30941 layer_factory.hpp:77] Creating layer fc3_4_300
I0407 23:14:57.082075 30941 net.cpp:100] Creating Layer fc3_4_300
I0407 23:14:57.082078 30941 net.cpp:434] fc3_4_300 <- pool3_2
I0407 23:14:57.082083 30941 net.cpp:408] fc3_4_300 -> fc3_4
I0407 23:14:57.087385 30941 net.cpp:150] Setting up fc3_4_300
I0407 23:14:57.087401 30941 net.cpp:157] Top shape: 64 300 (19200)
I0407 23:14:57.087404 30941 net.cpp:165] Memory required for data: 1030316800
I0407 23:14:57.087411 30941 layer_factory.hpp:77] Creating layer fc3_4_prescale
I0407 23:14:57.087436 30941 net.cpp:100] Creating Layer fc3_4_prescale
I0407 23:14:57.087440 30941 net.cpp:434] fc3_4_prescale <- fc3_4
I0407 23:14:57.087446 30941 net.cpp:395] fc3_4_prescale -> fc3_4 (in-place)
I0407 23:14:57.087548 30941 net.cpp:150] Setting up fc3_4_prescale
I0407 23:14:57.087555 30941 net.cpp:157] Top shape: 64 300 (19200)
I0407 23:14:57.087558 30941 net.cpp:165] Memory required for data: 1030393600
I0407 23:14:57.087563 30941 layer_factory.hpp:77] Creating layer fc3_4_sTanH
I0407 23:14:57.087568 30941 net.cpp:100] Creating Layer fc3_4_sTanH
I0407 23:14:57.087570 30941 net.cpp:434] fc3_4_sTanH <- fc3_4
I0407 23:14:57.087574 30941 net.cpp:395] fc3_4_sTanH -> fc3_4 (in-place)
I0407 23:14:57.087774 30941 net.cpp:150] Setting up fc3_4_sTanH
I0407 23:14:57.087785 30941 net.cpp:157] Top shape: 64 300 (19200)
I0407 23:14:57.087787 30941 net.cpp:165] Memory required for data: 1030470400
I0407 23:14:57.087791 30941 layer_factory.hpp:77] Creating layer fc3_4_postscale
I0407 23:14:57.087798 30941 net.cpp:100] Creating Layer fc3_4_postscale
I0407 23:14:57.087802 30941 net.cpp:434] fc3_4_postscale <- fc3_4
I0407 23:14:57.087807 30941 net.cpp:395] fc3_4_postscale -> fc3_4 (in-place)
I0407 23:14:57.087925 30941 net.cpp:150] Setting up fc3_4_postscale
I0407 23:14:57.087936 30941 net.cpp:157] Top shape: 64 300 (19200)
I0407 23:14:57.087939 30941 net.cpp:165] Memory required for data: 1030547200
I0407 23:14:57.087944 30941 layer_factory.hpp:77] Creating layer drop3_4
I0407 23:14:57.087949 30941 net.cpp:100] Creating Layer drop3_4
I0407 23:14:57.087952 30941 net.cpp:434] drop3_4 <- fc3_4
I0407 23:14:57.087956 30941 net.cpp:395] drop3_4 -> fc3_4 (in-place)
I0407 23:14:57.087983 30941 net.cpp:150] Setting up drop3_4
I0407 23:14:57.087990 30941 net.cpp:157] Top shape: 64 300 (19200)
I0407 23:14:57.087992 30941 net.cpp:165] Memory required for data: 1030624000
I0407 23:14:57.087996 30941 layer_factory.hpp:77] Creating layer fc3_5_67
I0407 23:14:57.088002 30941 net.cpp:100] Creating Layer fc3_5_67
I0407 23:14:57.088006 30941 net.cpp:434] fc3_5_67 <- fc3_4
I0407 23:14:57.088011 30941 net.cpp:408] fc3_5_67 -> fc3_5
I0407 23:14:57.088253 30941 net.cpp:150] Setting up fc3_5_67
I0407 23:14:57.088263 30941 net.cpp:157] Top shape: 64 67 (4288)
I0407 23:14:57.088265 30941 net.cpp:165] Memory required for data: 1030641152
I0407 23:14:57.088270 30941 layer_factory.hpp:77] Creating layer softmax_3
I0407 23:14:57.088275 30941 net.cpp:100] Creating Layer softmax_3
I0407 23:14:57.088279 30941 net.cpp:434] softmax_3 <- fc3_5
I0407 23:14:57.088284 30941 net.cpp:408] softmax_3 -> softmax_3
I0407 23:14:57.089141 30941 net.cpp:150] Setting up softmax_3
I0407 23:14:57.089155 30941 net.cpp:157] Top shape: 64 67 (4288)
I0407 23:14:57.089159 30941 net.cpp:165] Memory required for data: 1030658304
I0407 23:14:57.089162 30941 layer_factory.hpp:77] Creating layer conv4_0
I0407 23:14:57.089172 30941 net.cpp:100] Creating Layer conv4_0
I0407 23:14:57.089176 30941 net.cpp:434] conv4_0 <- data_0_data_0_0_split_4
I0407 23:14:57.089184 30941 net.cpp:408] conv4_0 -> conv4_0
I0407 23:14:57.090739 30941 net.cpp:150] Setting up conv4_0
I0407 23:14:57.090755 30941 net.cpp:157] Top shape: 64 100 42 42 (11289600)
I0407 23:14:57.090771 30941 net.cpp:165] Memory required for data: 1075816704
I0407 23:14:57.090777 30941 layer_factory.hpp:77] Creating layer conv4_0_prescale
I0407 23:14:57.090785 30941 net.cpp:100] Creating Layer conv4_0_prescale
I0407 23:14:57.090788 30941 net.cpp:434] conv4_0_prescale <- conv4_0
I0407 23:14:57.090795 30941 net.cpp:395] conv4_0_prescale -> conv4_0 (in-place)
I0407 23:14:57.090908 30941 net.cpp:150] Setting up conv4_0_prescale
I0407 23:14:57.090916 30941 net.cpp:157] Top shape: 64 100 42 42 (11289600)
I0407 23:14:57.090919 30941 net.cpp:165] Memory required for data: 1120975104
I0407 23:14:57.090924 30941 layer_factory.hpp:77] Creating layer conv4_0_sTanH
I0407 23:14:57.090929 30941 net.cpp:100] Creating Layer conv4_0_sTanH
I0407 23:14:57.090932 30941 net.cpp:434] conv4_0_sTanH <- conv4_0
I0407 23:14:57.090937 30941 net.cpp:395] conv4_0_sTanH -> conv4_0 (in-place)
I0407 23:14:57.091145 30941 net.cpp:150] Setting up conv4_0_sTanH
I0407 23:14:57.091158 30941 net.cpp:157] Top shape: 64 100 42 42 (11289600)
I0407 23:14:57.091161 30941 net.cpp:165] Memory required for data: 1166133504
I0407 23:14:57.091166 30941 layer_factory.hpp:77] Creating layer conv4_0_postscale
I0407 23:14:57.091173 30941 net.cpp:100] Creating Layer conv4_0_postscale
I0407 23:14:57.091177 30941 net.cpp:434] conv4_0_postscale <- conv4_0
I0407 23:14:57.091182 30941 net.cpp:395] conv4_0_postscale -> conv4_0 (in-place)
I0407 23:14:57.091295 30941 net.cpp:150] Setting up conv4_0_postscale
I0407 23:14:57.091303 30941 net.cpp:157] Top shape: 64 100 42 42 (11289600)
I0407 23:14:57.091305 30941 net.cpp:165] Memory required for data: 1211291904
I0407 23:14:57.091310 30941 layer_factory.hpp:77] Creating layer pool4_0
I0407 23:14:57.091317 30941 net.cpp:100] Creating Layer pool4_0
I0407 23:14:57.091321 30941 net.cpp:434] pool4_0 <- conv4_0
I0407 23:14:57.091325 30941 net.cpp:408] pool4_0 -> pool4_0
I0407 23:14:57.091369 30941 net.cpp:150] Setting up pool4_0
I0407 23:14:57.091377 30941 net.cpp:157] Top shape: 64 100 21 21 (2822400)
I0407 23:14:57.091380 30941 net.cpp:165] Memory required for data: 1222581504
I0407 23:14:57.091383 30941 layer_factory.hpp:77] Creating layer conv4_1
I0407 23:14:57.091392 30941 net.cpp:100] Creating Layer conv4_1
I0407 23:14:57.091395 30941 net.cpp:434] conv4_1 <- pool4_0
I0407 23:14:57.091400 30941 net.cpp:408] conv4_1 -> conv4_1
I0407 23:14:57.095239 30941 net.cpp:150] Setting up conv4_1
I0407 23:14:57.095257 30941 net.cpp:157] Top shape: 64 150 18 18 (3110400)
I0407 23:14:57.095260 30941 net.cpp:165] Memory required for data: 1235023104
I0407 23:14:57.095266 30941 layer_factory.hpp:77] Creating layer conv4_1_prescale
I0407 23:14:57.095278 30941 net.cpp:100] Creating Layer conv4_1_prescale
I0407 23:14:57.095283 30941 net.cpp:434] conv4_1_prescale <- conv4_1
I0407 23:14:57.095290 30941 net.cpp:395] conv4_1_prescale -> conv4_1 (in-place)
I0407 23:14:57.095407 30941 net.cpp:150] Setting up conv4_1_prescale
I0407 23:14:57.095415 30941 net.cpp:157] Top shape: 64 150 18 18 (3110400)
I0407 23:14:57.095418 30941 net.cpp:165] Memory required for data: 1247464704
I0407 23:14:57.095422 30941 layer_factory.hpp:77] Creating layer conv4_1_sTanH
I0407 23:14:57.095429 30941 net.cpp:100] Creating Layer conv4_1_sTanH
I0407 23:14:57.095432 30941 net.cpp:434] conv4_1_sTanH <- conv4_1
I0407 23:14:57.095437 30941 net.cpp:395] conv4_1_sTanH -> conv4_1 (in-place)
I0407 23:14:57.096240 30941 net.cpp:150] Setting up conv4_1_sTanH
I0407 23:14:57.096268 30941 net.cpp:157] Top shape: 64 150 18 18 (3110400)
I0407 23:14:57.096272 30941 net.cpp:165] Memory required for data: 1259906304
I0407 23:14:57.096276 30941 layer_factory.hpp:77] Creating layer conv4_1_postscale
I0407 23:14:57.096282 30941 net.cpp:100] Creating Layer conv4_1_postscale
I0407 23:14:57.096287 30941 net.cpp:434] conv4_1_postscale <- conv4_1
I0407 23:14:57.096292 30941 net.cpp:395] conv4_1_postscale -> conv4_1 (in-place)
I0407 23:14:57.096410 30941 net.cpp:150] Setting up conv4_1_postscale
I0407 23:14:57.096418 30941 net.cpp:157] Top shape: 64 150 18 18 (3110400)
I0407 23:14:57.096421 30941 net.cpp:165] Memory required for data: 1272347904
I0407 23:14:57.096426 30941 layer_factory.hpp:77] Creating layer pool4_1
I0407 23:14:57.096431 30941 net.cpp:100] Creating Layer pool4_1
I0407 23:14:57.096434 30941 net.cpp:434] pool4_1 <- conv4_1
I0407 23:14:57.096441 30941 net.cpp:408] pool4_1 -> pool4_1
I0407 23:14:57.096485 30941 net.cpp:150] Setting up pool4_1
I0407 23:14:57.096493 30941 net.cpp:157] Top shape: 64 150 9 9 (777600)
I0407 23:14:57.096496 30941 net.cpp:165] Memory required for data: 1275458304
I0407 23:14:57.096499 30941 layer_factory.hpp:77] Creating layer conv4_2
I0407 23:14:57.096509 30941 net.cpp:100] Creating Layer conv4_2
I0407 23:14:57.096513 30941 net.cpp:434] conv4_2 <- pool4_1
I0407 23:14:57.096518 30941 net.cpp:408] conv4_2 -> conv4_2
I0407 23:14:57.102653 30941 net.cpp:150] Setting up conv4_2
I0407 23:14:57.102670 30941 net.cpp:157] Top shape: 64 250 6 6 (576000)
I0407 23:14:57.102686 30941 net.cpp:165] Memory required for data: 1277762304
I0407 23:14:57.102694 30941 layer_factory.hpp:77] Creating layer conv4_2_prescale
I0407 23:14:57.102707 30941 net.cpp:100] Creating Layer conv4_2_prescale
I0407 23:14:57.102711 30941 net.cpp:434] conv4_2_prescale <- conv4_2
I0407 23:14:57.102717 30941 net.cpp:395] conv4_2_prescale -> conv4_2 (in-place)
I0407 23:14:57.102829 30941 net.cpp:150] Setting up conv4_2_prescale
I0407 23:14:57.102838 30941 net.cpp:157] Top shape: 64 250 6 6 (576000)
I0407 23:14:57.102841 30941 net.cpp:165] Memory required for data: 1280066304
I0407 23:14:57.102846 30941 layer_factory.hpp:77] Creating layer conv4_2_sTanH
I0407 23:14:57.102852 30941 net.cpp:100] Creating Layer conv4_2_sTanH
I0407 23:14:57.102855 30941 net.cpp:434] conv4_2_sTanH <- conv4_2
I0407 23:14:57.102860 30941 net.cpp:395] conv4_2_sTanH -> conv4_2 (in-place)
I0407 23:14:57.103049 30941 net.cpp:150] Setting up conv4_2_sTanH
I0407 23:14:57.103061 30941 net.cpp:157] Top shape: 64 250 6 6 (576000)
I0407 23:14:57.103065 30941 net.cpp:165] Memory required for data: 1282370304
I0407 23:14:57.103068 30941 layer_factory.hpp:77] Creating layer conv4_2_postscale
I0407 23:14:57.103080 30941 net.cpp:100] Creating Layer conv4_2_postscale
I0407 23:14:57.103082 30941 net.cpp:434] conv4_2_postscale <- conv4_2
I0407 23:14:57.103088 30941 net.cpp:395] conv4_2_postscale -> conv4_2 (in-place)
I0407 23:14:57.103199 30941 net.cpp:150] Setting up conv4_2_postscale
I0407 23:14:57.103207 30941 net.cpp:157] Top shape: 64 250 6 6 (576000)
I0407 23:14:57.103210 30941 net.cpp:165] Memory required for data: 1284674304
I0407 23:14:57.103214 30941 layer_factory.hpp:77] Creating layer pool4_2
I0407 23:14:57.103222 30941 net.cpp:100] Creating Layer pool4_2
I0407 23:14:57.103225 30941 net.cpp:434] pool4_2 <- conv4_2
I0407 23:14:57.103231 30941 net.cpp:408] pool4_2 -> pool4_2
I0407 23:14:57.103276 30941 net.cpp:150] Setting up pool4_2
I0407 23:14:57.103283 30941 net.cpp:157] Top shape: 64 250 3 3 (144000)
I0407 23:14:57.103286 30941 net.cpp:165] Memory required for data: 1285250304
I0407 23:14:57.103288 30941 layer_factory.hpp:77] Creating layer fc4_4_300
I0407 23:14:57.103296 30941 net.cpp:100] Creating Layer fc4_4_300
I0407 23:14:57.103299 30941 net.cpp:434] fc4_4_300 <- pool4_2
I0407 23:14:57.103304 30941 net.cpp:408] fc4_4_300 -> fc4_4
I0407 23:14:57.108508 30941 net.cpp:150] Setting up fc4_4_300
I0407 23:14:57.108522 30941 net.cpp:157] Top shape: 64 300 (19200)
I0407 23:14:57.108525 30941 net.cpp:165] Memory required for data: 1285327104
I0407 23:14:57.108544 30941 layer_factory.hpp:77] Creating layer fc4_4_prescale
I0407 23:14:57.108552 30941 net.cpp:100] Creating Layer fc4_4_prescale
I0407 23:14:57.108557 30941 net.cpp:434] fc4_4_prescale <- fc4_4
I0407 23:14:57.108562 30941 net.cpp:395] fc4_4_prescale -> fc4_4 (in-place)
I0407 23:14:57.108667 30941 net.cpp:150] Setting up fc4_4_prescale
I0407 23:14:57.108675 30941 net.cpp:157] Top shape: 64 300 (19200)
I0407 23:14:57.108678 30941 net.cpp:165] Memory required for data: 1285403904
I0407 23:14:57.108682 30941 layer_factory.hpp:77] Creating layer fc4_4_sTanH
I0407 23:14:57.108688 30941 net.cpp:100] Creating Layer fc4_4_sTanH
I0407 23:14:57.108691 30941 net.cpp:434] fc4_4_sTanH <- fc4_4
I0407 23:14:57.108695 30941 net.cpp:395] fc4_4_sTanH -> fc4_4 (in-place)
I0407 23:14:57.108896 30941 net.cpp:150] Setting up fc4_4_sTanH
I0407 23:14:57.108909 30941 net.cpp:157] Top shape: 64 300 (19200)
I0407 23:14:57.108912 30941 net.cpp:165] Memory required for data: 1285480704
I0407 23:14:57.108916 30941 layer_factory.hpp:77] Creating layer fc4_4_postscale
I0407 23:14:57.108922 30941 net.cpp:100] Creating Layer fc4_4_postscale
I0407 23:14:57.108925 30941 net.cpp:434] fc4_4_postscale <- fc4_4
I0407 23:14:57.108934 30941 net.cpp:395] fc4_4_postscale -> fc4_4 (in-place)
I0407 23:14:57.109051 30941 net.cpp:150] Setting up fc4_4_postscale
I0407 23:14:57.109060 30941 net.cpp:157] Top shape: 64 300 (19200)
I0407 23:14:57.109062 30941 net.cpp:165] Memory required for data: 1285557504
I0407 23:14:57.109078 30941 layer_factory.hpp:77] Creating layer drop4_4
I0407 23:14:57.109084 30941 net.cpp:100] Creating Layer drop4_4
I0407 23:14:57.109087 30941 net.cpp:434] drop4_4 <- fc4_4
I0407 23:14:57.109093 30941 net.cpp:395] drop4_4 -> fc4_4 (in-place)
I0407 23:14:57.109122 30941 net.cpp:150] Setting up drop4_4
I0407 23:14:57.109129 30941 net.cpp:157] Top shape: 64 300 (19200)
I0407 23:14:57.109133 30941 net.cpp:165] Memory required for data: 1285634304
I0407 23:14:57.109135 30941 layer_factory.hpp:77] Creating layer fc4_5_67
I0407 23:14:57.109141 30941 net.cpp:100] Creating Layer fc4_5_67
I0407 23:14:57.109144 30941 net.cpp:434] fc4_5_67 <- fc4_4
I0407 23:14:57.109148 30941 net.cpp:408] fc4_5_67 -> fc4_5
I0407 23:14:57.109395 30941 net.cpp:150] Setting up fc4_5_67
I0407 23:14:57.109405 30941 net.cpp:157] Top shape: 64 67 (4288)
I0407 23:14:57.109407 30941 net.cpp:165] Memory required for data: 1285651456
I0407 23:14:57.109413 30941 layer_factory.hpp:77] Creating layer softmax_4
I0407 23:14:57.109419 30941 net.cpp:100] Creating Layer softmax_4
I0407 23:14:57.109422 30941 net.cpp:434] softmax_4 <- fc4_5
I0407 23:14:57.109427 30941 net.cpp:408] softmax_4 -> softmax_4
I0407 23:14:57.109683 30941 net.cpp:150] Setting up softmax_4
I0407 23:14:57.109694 30941 net.cpp:157] Top shape: 64 67 (4288)
I0407 23:14:57.109696 30941 net.cpp:165] Memory required for data: 1285668608
I0407 23:14:57.109699 30941 layer_factory.hpp:77] Creating layer data_1
I0407 23:14:57.109794 30941 net.cpp:100] Creating Layer data_1
I0407 23:14:57.109805 30941 net.cpp:408] data_1 -> data_1
I0407 23:14:57.109814 30941 net.cpp:408] data_1 -> label_1
I0407 23:14:57.111053 31035 db_lmdb.cpp:35] Opened lmdb ../local_data/lmdb/rtsd-r1/histeq/train/lmdb
I0407 23:14:57.111232 30941 data_layer.cpp:41] output data size: 64,3,48,48
I0407 23:14:57.116760 30941 net.cpp:150] Setting up data_1
I0407 23:14:57.116775 30941 net.cpp:157] Top shape: 64 3 48 48 (442368)
I0407 23:14:57.116791 30941 net.cpp:157] Top shape: 64 (64)
I0407 23:14:57.116793 30941 net.cpp:165] Memory required for data: 1287438336
I0407 23:14:57.116797 30941 layer_factory.hpp:77] Creating layer data_1_data_1_0_split
I0407 23:14:57.116806 30941 net.cpp:100] Creating Layer data_1_data_1_0_split
I0407 23:14:57.116808 30941 net.cpp:434] data_1_data_1_0_split <- data_1
I0407 23:14:57.116816 30941 net.cpp:408] data_1_data_1_0_split -> data_1_data_1_0_split_0
I0407 23:14:57.116827 30941 net.cpp:408] data_1_data_1_0_split -> data_1_data_1_0_split_1
I0407 23:14:57.116832 30941 net.cpp:408] data_1_data_1_0_split -> data_1_data_1_0_split_2
I0407 23:14:57.116838 30941 net.cpp:408] data_1_data_1_0_split -> data_1_data_1_0_split_3
I0407 23:14:57.116844 30941 net.cpp:408] data_1_data_1_0_split -> data_1_data_1_0_split_4
I0407 23:14:57.117034 30941 net.cpp:150] Setting up data_1_data_1_0_split
I0407 23:14:57.117044 30941 net.cpp:157] Top shape: 64 3 48 48 (442368)
I0407 23:14:57.117048 30941 net.cpp:157] Top shape: 64 3 48 48 (442368)
I0407 23:14:57.117053 30941 net.cpp:157] Top shape: 64 3 48 48 (442368)
I0407 23:14:57.117055 30941 net.cpp:157] Top shape: 64 3 48 48 (442368)
I0407 23:14:57.117059 30941 net.cpp:157] Top shape: 64 3 48 48 (442368)
I0407 23:14:57.117061 30941 net.cpp:165] Memory required for data: 1296285696
I0407 23:14:57.117064 30941 layer_factory.hpp:77] Creating layer conv5_0
I0407 23:14:57.117075 30941 net.cpp:100] Creating Layer conv5_0
I0407 23:14:57.117079 30941 net.cpp:434] conv5_0 <- data_1_data_1_0_split_0
I0407 23:14:57.117085 30941 net.cpp:408] conv5_0 -> conv5_0
I0407 23:14:57.118947 30941 net.cpp:150] Setting up conv5_0
I0407 23:14:57.118963 30941 net.cpp:157] Top shape: 64 100 42 42 (11289600)
I0407 23:14:57.118978 30941 net.cpp:165] Memory required for data: 1341444096
I0407 23:14:57.118984 30941 layer_factory.hpp:77] Creating layer conv5_0_prescale
I0407 23:14:57.118995 30941 net.cpp:100] Creating Layer conv5_0_prescale
I0407 23:14:57.118999 30941 net.cpp:434] conv5_0_prescale <- conv5_0
I0407 23:14:57.119004 30941 net.cpp:395] conv5_0_prescale -> conv5_0 (in-place)
I0407 23:14:57.119135 30941 net.cpp:150] Setting up conv5_0_prescale
I0407 23:14:57.119145 30941 net.cpp:157] Top shape: 64 100 42 42 (11289600)
I0407 23:14:57.119148 30941 net.cpp:165] Memory required for data: 1386602496
I0407 23:14:57.119153 30941 layer_factory.hpp:77] Creating layer conv5_0_sTanH
I0407 23:14:57.119159 30941 net.cpp:100] Creating Layer conv5_0_sTanH
I0407 23:14:57.119163 30941 net.cpp:434] conv5_0_sTanH <- conv5_0
I0407 23:14:57.119168 30941 net.cpp:395] conv5_0_sTanH -> conv5_0 (in-place)
I0407 23:14:57.119995 30941 net.cpp:150] Setting up conv5_0_sTanH
I0407 23:14:57.120023 30941 net.cpp:157] Top shape: 64 100 42 42 (11289600)
I0407 23:14:57.120026 30941 net.cpp:165] Memory required for data: 1431760896
I0407 23:14:57.120030 30941 layer_factory.hpp:77] Creating layer conv5_0_postscale
I0407 23:14:57.120038 30941 net.cpp:100] Creating Layer conv5_0_postscale
I0407 23:14:57.120043 30941 net.cpp:434] conv5_0_postscale <- conv5_0
I0407 23:14:57.120050 30941 net.cpp:395] conv5_0_postscale -> conv5_0 (in-place)
I0407 23:14:57.120172 30941 net.cpp:150] Setting up conv5_0_postscale
I0407 23:14:57.120182 30941 net.cpp:157] Top shape: 64 100 42 42 (11289600)
I0407 23:14:57.120184 30941 net.cpp:165] Memory required for data: 1476919296
I0407 23:14:57.120188 30941 layer_factory.hpp:77] Creating layer pool5_0
I0407 23:14:57.120196 30941 net.cpp:100] Creating Layer pool5_0
I0407 23:14:57.120199 30941 net.cpp:434] pool5_0 <- conv5_0
I0407 23:14:57.120205 30941 net.cpp:408] pool5_0 -> pool5_0
I0407 23:14:57.120252 30941 net.cpp:150] Setting up pool5_0
I0407 23:14:57.120260 30941 net.cpp:157] Top shape: 64 100 21 21 (2822400)
I0407 23:14:57.120263 30941 net.cpp:165] Memory required for data: 1488208896
I0407 23:14:57.120265 30941 layer_factory.hpp:77] Creating layer conv5_1
I0407 23:14:57.120275 30941 net.cpp:100] Creating Layer conv5_1
I0407 23:14:57.120277 30941 net.cpp:434] conv5_1 <- pool5_0
I0407 23:14:57.120283 30941 net.cpp:408] conv5_1 -> conv5_1
I0407 23:14:57.122604 30941 net.cpp:150] Setting up conv5_1
I0407 23:14:57.122619 30941 net.cpp:157] Top shape: 64 150 18 18 (3110400)
I0407 23:14:57.122623 30941 net.cpp:165] Memory required for data: 1500650496
I0407 23:14:57.122629 30941 layer_factory.hpp:77] Creating layer conv5_1_prescale
I0407 23:14:57.122639 30941 net.cpp:100] Creating Layer conv5_1_prescale
I0407 23:14:57.122643 30941 net.cpp:434] conv5_1_prescale <- conv5_1
I0407 23:14:57.122650 30941 net.cpp:395] conv5_1_prescale -> conv5_1 (in-place)
I0407 23:14:57.122761 30941 net.cpp:150] Setting up conv5_1_prescale
I0407 23:14:57.122771 30941 net.cpp:157] Top shape: 64 150 18 18 (3110400)
I0407 23:14:57.122773 30941 net.cpp:165] Memory required for data: 1513092096
I0407 23:14:57.122777 30941 layer_factory.hpp:77] Creating layer conv5_1_sTanH
I0407 23:14:57.122784 30941 net.cpp:100] Creating Layer conv5_1_sTanH
I0407 23:14:57.122787 30941 net.cpp:434] conv5_1_sTanH <- conv5_1
I0407 23:14:57.122792 30941 net.cpp:395] conv5_1_sTanH -> conv5_1 (in-place)
I0407 23:14:57.123594 30941 net.cpp:150] Setting up conv5_1_sTanH
I0407 23:14:57.123610 30941 net.cpp:157] Top shape: 64 150 18 18 (3110400)
I0407 23:14:57.123612 30941 net.cpp:165] Memory required for data: 1525533696
I0407 23:14:57.123615 30941 layer_factory.hpp:77] Creating layer conv5_1_postscale
I0407 23:14:57.123622 30941 net.cpp:100] Creating Layer conv5_1_postscale
I0407 23:14:57.123626 30941 net.cpp:434] conv5_1_postscale <- conv5_1
I0407 23:14:57.123633 30941 net.cpp:395] conv5_1_postscale -> conv5_1 (in-place)
I0407 23:14:57.123754 30941 net.cpp:150] Setting up conv5_1_postscale
I0407 23:14:57.123764 30941 net.cpp:157] Top shape: 64 150 18 18 (3110400)
I0407 23:14:57.123767 30941 net.cpp:165] Memory required for data: 1537975296
I0407 23:14:57.123772 30941 layer_factory.hpp:77] Creating layer pool5_1
I0407 23:14:57.123778 30941 net.cpp:100] Creating Layer pool5_1
I0407 23:14:57.123781 30941 net.cpp:434] pool5_1 <- conv5_1
I0407 23:14:57.123787 30941 net.cpp:408] pool5_1 -> pool5_1
I0407 23:14:57.123836 30941 net.cpp:150] Setting up pool5_1
I0407 23:14:57.123859 30941 net.cpp:157] Top shape: 64 150 9 9 (777600)
I0407 23:14:57.123865 30941 net.cpp:165] Memory required for data: 1541085696
I0407 23:14:57.123870 30941 layer_factory.hpp:77] Creating layer conv5_2
I0407 23:14:57.123894 30941 net.cpp:100] Creating Layer conv5_2
I0407 23:14:57.123903 30941 net.cpp:434] conv5_2 <- pool5_1
I0407 23:14:57.123911 30941 net.cpp:408] conv5_2 -> conv5_2
I0407 23:14:57.130100 30941 net.cpp:150] Setting up conv5_2
I0407 23:14:57.130116 30941 net.cpp:157] Top shape: 64 250 6 6 (576000)
I0407 23:14:57.130120 30941 net.cpp:165] Memory required for data: 1543389696
I0407 23:14:57.130126 30941 layer_factory.hpp:77] Creating layer conv5_2_prescale
I0407 23:14:57.130136 30941 net.cpp:100] Creating Layer conv5_2_prescale
I0407 23:14:57.130139 30941 net.cpp:434] conv5_2_prescale <- conv5_2
I0407 23:14:57.130144 30941 net.cpp:395] conv5_2_prescale -> conv5_2 (in-place)
I0407 23:14:57.130267 30941 net.cpp:150] Setting up conv5_2_prescale
I0407 23:14:57.130276 30941 net.cpp:157] Top shape: 64 250 6 6 (576000)
I0407 23:14:57.130280 30941 net.cpp:165] Memory required for data: 1545693696
I0407 23:14:57.130283 30941 layer_factory.hpp:77] Creating layer conv5_2_sTanH
I0407 23:14:57.130290 30941 net.cpp:100] Creating Layer conv5_2_sTanH
I0407 23:14:57.130295 30941 net.cpp:434] conv5_2_sTanH <- conv5_2
I0407 23:14:57.130300 30941 net.cpp:395] conv5_2_sTanH -> conv5_2 (in-place)
I0407 23:14:57.130493 30941 net.cpp:150] Setting up conv5_2_sTanH
I0407 23:14:57.130506 30941 net.cpp:157] Top shape: 64 250 6 6 (576000)
I0407 23:14:57.130509 30941 net.cpp:165] Memory required for data: 1547997696
I0407 23:14:57.130513 30941 layer_factory.hpp:77] Creating layer conv5_2_postscale
I0407 23:14:57.130520 30941 net.cpp:100] Creating Layer conv5_2_postscale
I0407 23:14:57.130525 30941 net.cpp:434] conv5_2_postscale <- conv5_2
I0407 23:14:57.130532 30941 net.cpp:395] conv5_2_postscale -> conv5_2 (in-place)
I0407 23:14:57.130646 30941 net.cpp:150] Setting up conv5_2_postscale
I0407 23:14:57.130655 30941 net.cpp:157] Top shape: 64 250 6 6 (576000)
I0407 23:14:57.130657 30941 net.cpp:165] Memory required for data: 1550301696
I0407 23:14:57.130661 30941 layer_factory.hpp:77] Creating layer pool5_2
I0407 23:14:57.130684 30941 net.cpp:100] Creating Layer pool5_2
I0407 23:14:57.130689 30941 net.cpp:434] pool5_2 <- conv5_2
I0407 23:14:57.130694 30941 net.cpp:408] pool5_2 -> pool5_2
I0407 23:14:57.130748 30941 net.cpp:150] Setting up pool5_2
I0407 23:14:57.130755 30941 net.cpp:157] Top shape: 64 250 3 3 (144000)
I0407 23:14:57.130759 30941 net.cpp:165] Memory required for data: 1550877696
I0407 23:14:57.130762 30941 layer_factory.hpp:77] Creating layer fc5_4_300
I0407 23:14:57.130769 30941 net.cpp:100] Creating Layer fc5_4_300
I0407 23:14:57.130772 30941 net.cpp:434] fc5_4_300 <- pool5_2
I0407 23:14:57.130777 30941 net.cpp:408] fc5_4_300 -> fc5_4
I0407 23:14:57.136008 30941 net.cpp:150] Setting up fc5_4_300
I0407 23:14:57.136023 30941 net.cpp:157] Top shape: 64 300 (19200)
I0407 23:14:57.136029 30941 net.cpp:165] Memory required for data: 1550954496
I0407 23:14:57.136034 30941 layer_factory.hpp:77] Creating layer fc5_4_prescale
I0407 23:14:57.136047 30941 net.cpp:100] Creating Layer fc5_4_prescale
I0407 23:14:57.136054 30941 net.cpp:434] fc5_4_prescale <- fc5_4
I0407 23:14:57.136059 30941 net.cpp:395] fc5_4_prescale -> fc5_4 (in-place)
I0407 23:14:57.136169 30941 net.cpp:150] Setting up fc5_4_prescale
I0407 23:14:57.136178 30941 net.cpp:157] Top shape: 64 300 (19200)
I0407 23:14:57.136180 30941 net.cpp:165] Memory required for data: 1551031296
I0407 23:14:57.136184 30941 layer_factory.hpp:77] Creating layer fc5_4_sTanH
I0407 23:14:57.136189 30941 net.cpp:100] Creating Layer fc5_4_sTanH
I0407 23:14:57.136194 30941 net.cpp:434] fc5_4_sTanH <- fc5_4
I0407 23:14:57.136200 30941 net.cpp:395] fc5_4_sTanH -> fc5_4 (in-place)
I0407 23:14:57.136402 30941 net.cpp:150] Setting up fc5_4_sTanH
I0407 23:14:57.136414 30941 net.cpp:157] Top shape: 64 300 (19200)
I0407 23:14:57.136417 30941 net.cpp:165] Memory required for data: 1551108096
I0407 23:14:57.136435 30941 layer_factory.hpp:77] Creating layer fc5_4_postscale
I0407 23:14:57.136443 30941 net.cpp:100] Creating Layer fc5_4_postscale
I0407 23:14:57.136448 30941 net.cpp:434] fc5_4_postscale <- fc5_4
I0407 23:14:57.136454 30941 net.cpp:395] fc5_4_postscale -> fc5_4 (in-place)
I0407 23:14:57.136571 30941 net.cpp:150] Setting up fc5_4_postscale
I0407 23:14:57.136579 30941 net.cpp:157] Top shape: 64 300 (19200)
I0407 23:14:57.136581 30941 net.cpp:165] Memory required for data: 1551184896
I0407 23:14:57.136586 30941 layer_factory.hpp:77] Creating layer drop5_4
I0407 23:14:57.136593 30941 net.cpp:100] Creating Layer drop5_4
I0407 23:14:57.136597 30941 net.cpp:434] drop5_4 <- fc5_4
I0407 23:14:57.136602 30941 net.cpp:395] drop5_4 -> fc5_4 (in-place)
I0407 23:14:57.136629 30941 net.cpp:150] Setting up drop5_4
I0407 23:14:57.136636 30941 net.cpp:157] Top shape: 64 300 (19200)
I0407 23:14:57.136638 30941 net.cpp:165] Memory required for data: 1551261696
I0407 23:14:57.136641 30941 layer_factory.hpp:77] Creating layer fc5_5_67
I0407 23:14:57.136647 30941 net.cpp:100] Creating Layer fc5_5_67
I0407 23:14:57.136651 30941 net.cpp:434] fc5_5_67 <- fc5_4
I0407 23:14:57.136656 30941 net.cpp:408] fc5_5_67 -> fc5_5
I0407 23:14:57.136909 30941 net.cpp:150] Setting up fc5_5_67
I0407 23:14:57.136917 30941 net.cpp:157] Top shape: 64 67 (4288)
I0407 23:14:57.136919 30941 net.cpp:165] Memory required for data: 1551278848
I0407 23:14:57.136925 30941 layer_factory.hpp:77] Creating layer softmax_5
I0407 23:14:57.136932 30941 net.cpp:100] Creating Layer softmax_5
I0407 23:14:57.136936 30941 net.cpp:434] softmax_5 <- fc5_5
I0407 23:14:57.136941 30941 net.cpp:408] softmax_5 -> softmax_5
I0407 23:14:57.137207 30941 net.cpp:150] Setting up softmax_5
I0407 23:14:57.137218 30941 net.cpp:157] Top shape: 64 67 (4288)
I0407 23:14:57.137223 30941 net.cpp:165] Memory required for data: 1551296000
I0407 23:14:57.137226 30941 layer_factory.hpp:77] Creating layer conv6_0
I0407 23:14:57.137238 30941 net.cpp:100] Creating Layer conv6_0
I0407 23:14:57.137243 30941 net.cpp:434] conv6_0 <- data_1_data_1_0_split_1
I0407 23:14:57.137248 30941 net.cpp:408] conv6_0 -> conv6_0
I0407 23:14:57.138849 30941 net.cpp:150] Setting up conv6_0
I0407 23:14:57.138866 30941 net.cpp:157] Top shape: 64 100 42 42 (11289600)
I0407 23:14:57.138871 30941 net.cpp:165] Memory required for data: 1596454400
I0407 23:14:57.138877 30941 layer_factory.hpp:77] Creating layer conv6_0_prescale
I0407 23:14:57.138890 30941 net.cpp:100] Creating Layer conv6_0_prescale
I0407 23:14:57.138895 30941 net.cpp:434] conv6_0_prescale <- conv6_0
I0407 23:14:57.138901 30941 net.cpp:395] conv6_0_prescale -> conv6_0 (in-place)
I0407 23:14:57.139019 30941 net.cpp:150] Setting up conv6_0_prescale
I0407 23:14:57.139027 30941 net.cpp:157] Top shape: 64 100 42 42 (11289600)
I0407 23:14:57.139030 30941 net.cpp:165] Memory required for data: 1641612800
I0407 23:14:57.139034 30941 layer_factory.hpp:77] Creating layer conv6_0_sTanH
I0407 23:14:57.139042 30941 net.cpp:100] Creating Layer conv6_0_sTanH
I0407 23:14:57.139047 30941 net.cpp:434] conv6_0_sTanH <- conv6_0
I0407 23:14:57.139051 30941 net.cpp:395] conv6_0_sTanH -> conv6_0 (in-place)
I0407 23:14:57.139866 30941 net.cpp:150] Setting up conv6_0_sTanH
I0407 23:14:57.139890 30941 net.cpp:157] Top shape: 64 100 42 42 (11289600)
I0407 23:14:57.139895 30941 net.cpp:165] Memory required for data: 1686771200
I0407 23:14:57.139899 30941 layer_factory.hpp:77] Creating layer conv6_0_postscale
I0407 23:14:57.139907 30941 net.cpp:100] Creating Layer conv6_0_postscale
I0407 23:14:57.139914 30941 net.cpp:434] conv6_0_postscale <- conv6_0
I0407 23:14:57.139919 30941 net.cpp:395] conv6_0_postscale -> conv6_0 (in-place)
I0407 23:14:57.140044 30941 net.cpp:150] Setting up conv6_0_postscale
I0407 23:14:57.140053 30941 net.cpp:157] Top shape: 64 100 42 42 (11289600)
I0407 23:14:57.140056 30941 net.cpp:165] Memory required for data: 1731929600
I0407 23:14:57.140061 30941 layer_factory.hpp:77] Creating layer pool6_0
I0407 23:14:57.140069 30941 net.cpp:100] Creating Layer pool6_0
I0407 23:14:57.140084 30941 net.cpp:434] pool6_0 <- conv6_0
I0407 23:14:57.140091 30941 net.cpp:408] pool6_0 -> pool6_0
I0407 23:14:57.140142 30941 net.cpp:150] Setting up pool6_0
I0407 23:14:57.140151 30941 net.cpp:157] Top shape: 64 100 21 21 (2822400)
I0407 23:14:57.140156 30941 net.cpp:165] Memory required for data: 1743219200
I0407 23:14:57.140158 30941 layer_factory.hpp:77] Creating layer conv6_1
I0407 23:14:57.140166 30941 net.cpp:100] Creating Layer conv6_1
I0407 23:14:57.140172 30941 net.cpp:434] conv6_1 <- pool6_0
I0407 23:14:57.140177 30941 net.cpp:408] conv6_1 -> conv6_1
I0407 23:14:57.143400 30941 net.cpp:150] Setting up conv6_1
I0407 23:14:57.143416 30941 net.cpp:157] Top shape: 64 150 18 18 (3110400)
I0407 23:14:57.143421 30941 net.cpp:165] Memory required for data: 1755660800
I0407 23:14:57.143440 30941 layer_factory.hpp:77] Creating layer conv6_1_prescale
I0407 23:14:57.143450 30941 net.cpp:100] Creating Layer conv6_1_prescale
I0407 23:14:57.143455 30941 net.cpp:434] conv6_1_prescale <- conv6_1
I0407 23:14:57.143461 30941 net.cpp:395] conv6_1_prescale -> conv6_1 (in-place)
I0407 23:14:57.143579 30941 net.cpp:150] Setting up conv6_1_prescale
I0407 23:14:57.143587 30941 net.cpp:157] Top shape: 64 150 18 18 (3110400)
I0407 23:14:57.143590 30941 net.cpp:165] Memory required for data: 1768102400
I0407 23:14:57.143595 30941 layer_factory.hpp:77] Creating layer conv6_1_sTanH
I0407 23:14:57.143604 30941 net.cpp:100] Creating Layer conv6_1_sTanH
I0407 23:14:57.143609 30941 net.cpp:434] conv6_1_sTanH <- conv6_1
I0407 23:14:57.143612 30941 net.cpp:395] conv6_1_sTanH -> conv6_1 (in-place)
I0407 23:14:57.144428 30941 net.cpp:150] Setting up conv6_1_sTanH
I0407 23:14:57.144456 30941 net.cpp:157] Top shape: 64 150 18 18 (3110400)
I0407 23:14:57.144461 30941 net.cpp:165] Memory required for data: 1780544000
I0407 23:14:57.144476 30941 layer_factory.hpp:77] Creating layer conv6_1_postscale
I0407 23:14:57.144484 30941 net.cpp:100] Creating Layer conv6_1_postscale
I0407 23:14:57.144490 30941 net.cpp:434] conv6_1_postscale <- conv6_1
I0407 23:14:57.144496 30941 net.cpp:395] conv6_1_postscale -> conv6_1 (in-place)
I0407 23:14:57.144620 30941 net.cpp:150] Setting up conv6_1_postscale
I0407 23:14:57.144629 30941 net.cpp:157] Top shape: 64 150 18 18 (3110400)
I0407 23:14:57.144632 30941 net.cpp:165] Memory required for data: 1792985600
I0407 23:14:57.144637 30941 layer_factory.hpp:77] Creating layer pool6_1
I0407 23:14:57.144644 30941 net.cpp:100] Creating Layer pool6_1
I0407 23:14:57.144647 30941 net.cpp:434] pool6_1 <- conv6_1
I0407 23:14:57.144655 30941 net.cpp:408] pool6_1 -> pool6_1
I0407 23:14:57.144706 30941 net.cpp:150] Setting up pool6_1
I0407 23:14:57.144713 30941 net.cpp:157] Top shape: 64 150 9 9 (777600)
I0407 23:14:57.144716 30941 net.cpp:165] Memory required for data: 1796096000
I0407 23:14:57.144719 30941 layer_factory.hpp:77] Creating layer conv6_2
I0407 23:14:57.144728 30941 net.cpp:100] Creating Layer conv6_2
I0407 23:14:57.144733 30941 net.cpp:434] conv6_2 <- pool6_1
I0407 23:14:57.144742 30941 net.cpp:408] conv6_2 -> conv6_2
I0407 23:14:57.151124 30941 net.cpp:150] Setting up conv6_2
I0407 23:14:57.151141 30941 net.cpp:157] Top shape: 64 250 6 6 (576000)
I0407 23:14:57.151149 30941 net.cpp:165] Memory required for data: 1798400000
I0407 23:14:57.151155 30941 layer_factory.hpp:77] Creating layer conv6_2_prescale
I0407 23:14:57.151162 30941 net.cpp:100] Creating Layer conv6_2_prescale
I0407 23:14:57.151165 30941 net.cpp:434] conv6_2_prescale <- conv6_2
I0407 23:14:57.151175 30941 net.cpp:395] conv6_2_prescale -> conv6_2 (in-place)
I0407 23:14:57.151290 30941 net.cpp:150] Setting up conv6_2_prescale
I0407 23:14:57.151299 30941 net.cpp:157] Top shape: 64 250 6 6 (576000)
I0407 23:14:57.151302 30941 net.cpp:165] Memory required for data: 1800704000
I0407 23:14:57.151306 30941 layer_factory.hpp:77] Creating layer conv6_2_sTanH
I0407 23:14:57.151314 30941 net.cpp:100] Creating Layer conv6_2_sTanH
I0407 23:14:57.151316 30941 net.cpp:434] conv6_2_sTanH <- conv6_2
I0407 23:14:57.151335 30941 net.cpp:395] conv6_2_sTanH -> conv6_2 (in-place)
I0407 23:14:57.151532 30941 net.cpp:150] Setting up conv6_2_sTanH
I0407 23:14:57.151543 30941 net.cpp:157] Top shape: 64 250 6 6 (576000)
I0407 23:14:57.151548 30941 net.cpp:165] Memory required for data: 1803008000
I0407 23:14:57.151551 30941 layer_factory.hpp:77] Creating layer conv6_2_postscale
I0407 23:14:57.151561 30941 net.cpp:100] Creating Layer conv6_2_postscale
I0407 23:14:57.151566 30941 net.cpp:434] conv6_2_postscale <- conv6_2
I0407 23:14:57.151571 30941 net.cpp:395] conv6_2_postscale -> conv6_2 (in-place)
I0407 23:14:57.151686 30941 net.cpp:150] Setting up conv6_2_postscale
I0407 23:14:57.151695 30941 net.cpp:157] Top shape: 64 250 6 6 (576000)
I0407 23:14:57.151698 30941 net.cpp:165] Memory required for data: 1805312000
I0407 23:14:57.151702 30941 layer_factory.hpp:77] Creating layer pool6_2
I0407 23:14:57.151710 30941 net.cpp:100] Creating Layer pool6_2
I0407 23:14:57.151715 30941 net.cpp:434] pool6_2 <- conv6_2
I0407 23:14:57.151720 30941 net.cpp:408] pool6_2 -> pool6_2
I0407 23:14:57.151769 30941 net.cpp:150] Setting up pool6_2
I0407 23:14:57.151777 30941 net.cpp:157] Top shape: 64 250 3 3 (144000)
I0407 23:14:57.151779 30941 net.cpp:165] Memory required for data: 1805888000
I0407 23:14:57.151782 30941 layer_factory.hpp:77] Creating layer fc6_4_300
I0407 23:14:57.151789 30941 net.cpp:100] Creating Layer fc6_4_300
I0407 23:14:57.151794 30941 net.cpp:434] fc6_4_300 <- pool6_2
I0407 23:14:57.151799 30941 net.cpp:408] fc6_4_300 -> fc6_4
I0407 23:14:57.157402 30941 net.cpp:150] Setting up fc6_4_300
I0407 23:14:57.157418 30941 net.cpp:157] Top shape: 64 300 (19200)
I0407 23:14:57.157420 30941 net.cpp:165] Memory required for data: 1805964800
I0407 23:14:57.157428 30941 layer_factory.hpp:77] Creating layer fc6_4_prescale
I0407 23:14:57.157438 30941 net.cpp:100] Creating Layer fc6_4_prescale
I0407 23:14:57.157443 30941 net.cpp:434] fc6_4_prescale <- fc6_4
I0407 23:14:57.157449 30941 net.cpp:395] fc6_4_prescale -> fc6_4 (in-place)
I0407 23:14:57.157560 30941 net.cpp:150] Setting up fc6_4_prescale
I0407 23:14:57.157568 30941 net.cpp:157] Top shape: 64 300 (19200)
I0407 23:14:57.157572 30941 net.cpp:165] Memory required for data: 1806041600
I0407 23:14:57.157577 30941 layer_factory.hpp:77] Creating layer fc6_4_sTanH
I0407 23:14:57.157582 30941 net.cpp:100] Creating Layer fc6_4_sTanH
I0407 23:14:57.157585 30941 net.cpp:434] fc6_4_sTanH <- fc6_4
I0407 23:14:57.157590 30941 net.cpp:395] fc6_4_sTanH -> fc6_4 (in-place)
I0407 23:14:57.157793 30941 net.cpp:150] Setting up fc6_4_sTanH
I0407 23:14:57.157806 30941 net.cpp:157] Top shape: 64 300 (19200)
I0407 23:14:57.157810 30941 net.cpp:165] Memory required for data: 1806118400
I0407 23:14:57.157814 30941 layer_factory.hpp:77] Creating layer fc6_4_postscale
I0407 23:14:57.157820 30941 net.cpp:100] Creating Layer fc6_4_postscale
I0407 23:14:57.157825 30941 net.cpp:434] fc6_4_postscale <- fc6_4
I0407 23:14:57.157831 30941 net.cpp:395] fc6_4_postscale -> fc6_4 (in-place)
I0407 23:14:57.157951 30941 net.cpp:150] Setting up fc6_4_postscale
I0407 23:14:57.157959 30941 net.cpp:157] Top shape: 64 300 (19200)
I0407 23:14:57.157963 30941 net.cpp:165] Memory required for data: 1806195200
I0407 23:14:57.157966 30941 layer_factory.hpp:77] Creating layer drop6_4
I0407 23:14:57.157974 30941 net.cpp:100] Creating Layer drop6_4
I0407 23:14:57.157979 30941 net.cpp:434] drop6_4 <- fc6_4
I0407 23:14:57.157984 30941 net.cpp:395] drop6_4 -> fc6_4 (in-place)
I0407 23:14:57.158011 30941 net.cpp:150] Setting up drop6_4
I0407 23:14:57.158018 30941 net.cpp:157] Top shape: 64 300 (19200)
I0407 23:14:57.158021 30941 net.cpp:165] Memory required for data: 1806272000
I0407 23:14:57.158025 30941 layer_factory.hpp:77] Creating layer fc6_5_67
I0407 23:14:57.158031 30941 net.cpp:100] Creating Layer fc6_5_67
I0407 23:14:57.158035 30941 net.cpp:434] fc6_5_67 <- fc6_4
I0407 23:14:57.158041 30941 net.cpp:408] fc6_5_67 -> fc6_5
I0407 23:14:57.158295 30941 net.cpp:150] Setting up fc6_5_67
I0407 23:14:57.158304 30941 net.cpp:157] Top shape: 64 67 (4288)
I0407 23:14:57.158320 30941 net.cpp:165] Memory required for data: 1806289152
I0407 23:14:57.158326 30941 layer_factory.hpp:77] Creating layer softmax_6
I0407 23:14:57.158334 30941 net.cpp:100] Creating Layer softmax_6
I0407 23:14:57.158339 30941 net.cpp:434] softmax_6 <- fc6_5
I0407 23:14:57.158344 30941 net.cpp:408] softmax_6 -> softmax_6
I0407 23:14:57.158612 30941 net.cpp:150] Setting up softmax_6
I0407 23:14:57.158624 30941 net.cpp:157] Top shape: 64 67 (4288)
I0407 23:14:57.158628 30941 net.cpp:165] Memory required for data: 1806306304
I0407 23:14:57.158632 30941 layer_factory.hpp:77] Creating layer conv7_0
I0407 23:14:57.158643 30941 net.cpp:100] Creating Layer conv7_0
I0407 23:14:57.158648 30941 net.cpp:434] conv7_0 <- data_1_data_1_0_split_2
I0407 23:14:57.158656 30941 net.cpp:408] conv7_0 -> conv7_0
I0407 23:14:57.161556 30941 net.cpp:150] Setting up conv7_0
I0407 23:14:57.161573 30941 net.cpp:157] Top shape: 64 100 42 42 (11289600)
I0407 23:14:57.161578 30941 net.cpp:165] Memory required for data: 1851464704
I0407 23:14:57.161584 30941 layer_factory.hpp:77] Creating layer conv7_0_prescale
I0407 23:14:57.161598 30941 net.cpp:100] Creating Layer conv7_0_prescale
I0407 23:14:57.161603 30941 net.cpp:434] conv7_0_prescale <- conv7_0
I0407 23:14:57.161609 30941 net.cpp:395] conv7_0_prescale -> conv7_0 (in-place)
I0407 23:14:57.161730 30941 net.cpp:150] Setting up conv7_0_prescale
I0407 23:14:57.161738 30941 net.cpp:157] Top shape: 64 100 42 42 (11289600)
I0407 23:14:57.161741 30941 net.cpp:165] Memory required for data: 1896623104
I0407 23:14:57.161761 30941 layer_factory.hpp:77] Creating layer conv7_0_sTanH
I0407 23:14:57.161769 30941 net.cpp:100] Creating Layer conv7_0_sTanH
I0407 23:14:57.161773 30941 net.cpp:434] conv7_0_sTanH <- conv7_0
I0407 23:14:57.161778 30941 net.cpp:395] conv7_0_sTanH -> conv7_0 (in-place)
I0407 23:14:57.162688 30941 net.cpp:150] Setting up conv7_0_sTanH
I0407 23:14:57.162704 30941 net.cpp:157] Top shape: 64 100 42 42 (11289600)
I0407 23:14:57.162709 30941 net.cpp:165] Memory required for data: 1941781504
I0407 23:14:57.162714 30941 layer_factory.hpp:77] Creating layer conv7_0_postscale
I0407 23:14:57.162721 30941 net.cpp:100] Creating Layer conv7_0_postscale
I0407 23:14:57.162726 30941 net.cpp:434] conv7_0_postscale <- conv7_0
I0407 23:14:57.162734 30941 net.cpp:395] conv7_0_postscale -> conv7_0 (in-place)
I0407 23:14:57.162858 30941 net.cpp:150] Setting up conv7_0_postscale
I0407 23:14:57.162866 30941 net.cpp:157] Top shape: 64 100 42 42 (11289600)
I0407 23:14:57.162869 30941 net.cpp:165] Memory required for data: 1986939904
I0407 23:14:57.162876 30941 layer_factory.hpp:77] Creating layer pool7_0
I0407 23:14:57.162883 30941 net.cpp:100] Creating Layer pool7_0
I0407 23:14:57.162889 30941 net.cpp:434] pool7_0 <- conv7_0
I0407 23:14:57.162895 30941 net.cpp:408] pool7_0 -> pool7_0
I0407 23:14:57.162945 30941 net.cpp:150] Setting up pool7_0
I0407 23:14:57.162952 30941 net.cpp:157] Top shape: 64 100 21 21 (2822400)
I0407 23:14:57.162955 30941 net.cpp:165] Memory required for data: 1998229504
I0407 23:14:57.162958 30941 layer_factory.hpp:77] Creating layer conv7_1
I0407 23:14:57.162966 30941 net.cpp:100] Creating Layer conv7_1
I0407 23:14:57.162971 30941 net.cpp:434] conv7_1 <- pool7_0
I0407 23:14:57.162976 30941 net.cpp:408] conv7_1 -> conv7_1
I0407 23:14:57.168893 30941 net.cpp:150] Setting up conv7_1
I0407 23:14:57.168910 30941 net.cpp:157] Top shape: 64 150 18 18 (3110400)
I0407 23:14:57.168915 30941 net.cpp:165] Memory required for data: 2010671104
I0407 23:14:57.168922 30941 layer_factory.hpp:77] Creating layer conv7_1_prescale
I0407 23:14:57.168932 30941 net.cpp:100] Creating Layer conv7_1_prescale
I0407 23:14:57.168937 30941 net.cpp:434] conv7_1_prescale <- conv7_1
I0407 23:14:57.168943 30941 net.cpp:395] conv7_1_prescale -> conv7_1 (in-place)
I0407 23:14:57.169062 30941 net.cpp:150] Setting up conv7_1_prescale
I0407 23:14:57.169070 30941 net.cpp:157] Top shape: 64 150 18 18 (3110400)
I0407 23:14:57.169075 30941 net.cpp:165] Memory required for data: 2023112704
I0407 23:14:57.169078 30941 layer_factory.hpp:77] Creating layer conv7_1_sTanH
I0407 23:14:57.169097 30941 net.cpp:100] Creating Layer conv7_1_sTanH
I0407 23:14:57.169102 30941 net.cpp:434] conv7_1_sTanH <- conv7_1
I0407 23:14:57.169108 30941 net.cpp:395] conv7_1_sTanH -> conv7_1 (in-place)
I0407 23:14:57.169307 30941 net.cpp:150] Setting up conv7_1_sTanH
I0407 23:14:57.169319 30941 net.cpp:157] Top shape: 64 150 18 18 (3110400)
I0407 23:14:57.169323 30941 net.cpp:165] Memory required for data: 2035554304
I0407 23:14:57.169327 30941 layer_factory.hpp:77] Creating layer conv7_1_postscale
I0407 23:14:57.169337 30941 net.cpp:100] Creating Layer conv7_1_postscale
I0407 23:14:57.169340 30941 net.cpp:434] conv7_1_postscale <- conv7_1
I0407 23:14:57.169348 30941 net.cpp:395] conv7_1_postscale -> conv7_1 (in-place)
I0407 23:14:57.169466 30941 net.cpp:150] Setting up conv7_1_postscale
I0407 23:14:57.169474 30941 net.cpp:157] Top shape: 64 150 18 18 (3110400)
I0407 23:14:57.169477 30941 net.cpp:165] Memory required for data: 2047995904
I0407 23:14:57.169481 30941 layer_factory.hpp:77] Creating layer pool7_1
I0407 23:14:57.169489 30941 net.cpp:100] Creating Layer pool7_1
I0407 23:14:57.169493 30941 net.cpp:434] pool7_1 <- conv7_1
I0407 23:14:57.169499 30941 net.cpp:408] pool7_1 -> pool7_1
I0407 23:14:57.169548 30941 net.cpp:150] Setting up pool7_1
I0407 23:14:57.169555 30941 net.cpp:157] Top shape: 64 150 9 9 (777600)
I0407 23:14:57.169559 30941 net.cpp:165] Memory required for data: 2051106304
I0407 23:14:57.169561 30941 layer_factory.hpp:77] Creating layer conv7_2
I0407 23:14:57.169569 30941 net.cpp:100] Creating Layer conv7_2
I0407 23:14:57.169574 30941 net.cpp:434] conv7_2 <- pool7_1
I0407 23:14:57.169581 30941 net.cpp:408] conv7_2 -> conv7_2
I0407 23:14:57.184751 30941 net.cpp:150] Setting up conv7_2
I0407 23:14:57.184769 30941 net.cpp:157] Top shape: 64 250 6 6 (576000)
I0407 23:14:57.184782 30941 net.cpp:165] Memory required for data: 2053410304
I0407 23:14:57.184795 30941 layer_factory.hpp:77] Creating layer conv7_2_prescale
I0407 23:14:57.184804 30941 net.cpp:100] Creating Layer conv7_2_prescale
I0407 23:14:57.184813 30941 net.cpp:434] conv7_2_prescale <- conv7_2
I0407 23:14:57.184818 30941 net.cpp:395] conv7_2_prescale -> conv7_2 (in-place)
I0407 23:14:57.184936 30941 net.cpp:150] Setting up conv7_2_prescale
I0407 23:14:57.184944 30941 net.cpp:157] Top shape: 64 250 6 6 (576000)
I0407 23:14:57.184948 30941 net.cpp:165] Memory required for data: 2055714304
I0407 23:14:57.184952 30941 layer_factory.hpp:77] Creating layer conv7_2_sTanH
I0407 23:14:57.184959 30941 net.cpp:100] Creating Layer conv7_2_sTanH
I0407 23:14:57.184962 30941 net.cpp:434] conv7_2_sTanH <- conv7_2
I0407 23:14:57.184968 30941 net.cpp:395] conv7_2_sTanH -> conv7_2 (in-place)
I0407 23:14:57.185168 30941 net.cpp:150] Setting up conv7_2_sTanH
I0407 23:14:57.185180 30941 net.cpp:157] Top shape: 64 250 6 6 (576000)
I0407 23:14:57.185184 30941 net.cpp:165] Memory required for data: 2058018304
I0407 23:14:57.185187 30941 layer_factory.hpp:77] Creating layer conv7_2_postscale
I0407 23:14:57.185195 30941 net.cpp:100] Creating Layer conv7_2_postscale
I0407 23:14:57.185200 30941 net.cpp:434] conv7_2_postscale <- conv7_2
I0407 23:14:57.185205 30941 net.cpp:395] conv7_2_postscale -> conv7_2 (in-place)
I0407 23:14:57.185320 30941 net.cpp:150] Setting up conv7_2_postscale
I0407 23:14:57.185329 30941 net.cpp:157] Top shape: 64 250 6 6 (576000)
I0407 23:14:57.185334 30941 net.cpp:165] Memory required for data: 2060322304
I0407 23:14:57.185338 30941 layer_factory.hpp:77] Creating layer pool7_2
I0407 23:14:57.185344 30941 net.cpp:100] Creating Layer pool7_2
I0407 23:14:57.185348 30941 net.cpp:434] pool7_2 <- conv7_2
I0407 23:14:57.185353 30941 net.cpp:408] pool7_2 -> pool7_2
I0407 23:14:57.185402 30941 net.cpp:150] Setting up pool7_2
I0407 23:14:57.185410 30941 net.cpp:157] Top shape: 64 250 3 3 (144000)
I0407 23:14:57.185412 30941 net.cpp:165] Memory required for data: 2060898304
I0407 23:14:57.185415 30941 layer_factory.hpp:77] Creating layer fc7_4_300
I0407 23:14:57.185421 30941 net.cpp:100] Creating Layer fc7_4_300
I0407 23:14:57.185439 30941 net.cpp:434] fc7_4_300 <- pool7_2
I0407 23:14:57.185447 30941 net.cpp:408] fc7_4_300 -> fc7_4
I0407 23:14:57.197414 30941 net.cpp:150] Setting up fc7_4_300
I0407 23:14:57.197432 30941 net.cpp:157] Top shape: 64 300 (19200)
I0407 23:14:57.197438 30941 net.cpp:165] Memory required for data: 2060975104
I0407 23:14:57.197444 30941 layer_factory.hpp:77] Creating layer fc7_4_prescale
I0407 23:14:57.197455 30941 net.cpp:100] Creating Layer fc7_4_prescale
I0407 23:14:57.197460 30941 net.cpp:434] fc7_4_prescale <- fc7_4
I0407 23:14:57.197466 30941 net.cpp:395] fc7_4_prescale -> fc7_4 (in-place)
I0407 23:14:57.197584 30941 net.cpp:150] Setting up fc7_4_prescale
I0407 23:14:57.197593 30941 net.cpp:157] Top shape: 64 300 (19200)
I0407 23:14:57.197597 30941 net.cpp:165] Memory required for data: 2061051904
I0407 23:14:57.197600 30941 layer_factory.hpp:77] Creating layer fc7_4_sTanH
I0407 23:14:57.197607 30941 net.cpp:100] Creating Layer fc7_4_sTanH
I0407 23:14:57.197613 30941 net.cpp:434] fc7_4_sTanH <- fc7_4
I0407 23:14:57.197618 30941 net.cpp:395] fc7_4_sTanH -> fc7_4 (in-place)
I0407 23:14:57.197824 30941 net.cpp:150] Setting up fc7_4_sTanH
I0407 23:14:57.197834 30941 net.cpp:157] Top shape: 64 300 (19200)
I0407 23:14:57.197839 30941 net.cpp:165] Memory required for data: 2061128704
I0407 23:14:57.197842 30941 layer_factory.hpp:77] Creating layer fc7_4_postscale
I0407 23:14:57.197851 30941 net.cpp:100] Creating Layer fc7_4_postscale
I0407 23:14:57.197856 30941 net.cpp:434] fc7_4_postscale <- fc7_4
I0407 23:14:57.197862 30941 net.cpp:395] fc7_4_postscale -> fc7_4 (in-place)
I0407 23:14:57.197983 30941 net.cpp:150] Setting up fc7_4_postscale
I0407 23:14:57.197991 30941 net.cpp:157] Top shape: 64 300 (19200)
I0407 23:14:57.197994 30941 net.cpp:165] Memory required for data: 2061205504
I0407 23:14:57.197999 30941 layer_factory.hpp:77] Creating layer drop7_4
I0407 23:14:57.198006 30941 net.cpp:100] Creating Layer drop7_4
I0407 23:14:57.198010 30941 net.cpp:434] drop7_4 <- fc7_4
I0407 23:14:57.198014 30941 net.cpp:395] drop7_4 -> fc7_4 (in-place)
I0407 23:14:57.198043 30941 net.cpp:150] Setting up drop7_4
I0407 23:14:57.198050 30941 net.cpp:157] Top shape: 64 300 (19200)
I0407 23:14:57.198052 30941 net.cpp:165] Memory required for data: 2061282304
I0407 23:14:57.198055 30941 layer_factory.hpp:77] Creating layer fc7_5_67
I0407 23:14:57.198061 30941 net.cpp:100] Creating Layer fc7_5_67
I0407 23:14:57.198065 30941 net.cpp:434] fc7_5_67 <- fc7_4
I0407 23:14:57.198071 30941 net.cpp:408] fc7_5_67 -> fc7_5
I0407 23:14:57.198328 30941 net.cpp:150] Setting up fc7_5_67
I0407 23:14:57.198336 30941 net.cpp:157] Top shape: 64 67 (4288)
I0407 23:14:57.198339 30941 net.cpp:165] Memory required for data: 2061299456
I0407 23:14:57.198345 30941 layer_factory.hpp:77] Creating layer softmax_7
I0407 23:14:57.198351 30941 net.cpp:100] Creating Layer softmax_7
I0407 23:14:57.198355 30941 net.cpp:434] softmax_7 <- fc7_5
I0407 23:14:57.198359 30941 net.cpp:408] softmax_7 -> softmax_7
I0407 23:14:57.199260 30941 net.cpp:150] Setting up softmax_7
I0407 23:14:57.199275 30941 net.cpp:157] Top shape: 64 67 (4288)
I0407 23:14:57.199280 30941 net.cpp:165] Memory required for data: 2061316608
I0407 23:14:57.199283 30941 layer_factory.hpp:77] Creating layer conv8_0
I0407 23:14:57.199295 30941 net.cpp:100] Creating Layer conv8_0
I0407 23:14:57.199300 30941 net.cpp:434] conv8_0 <- data_1_data_1_0_split_3
I0407 23:14:57.199307 30941 net.cpp:408] conv8_0 -> conv8_0
I0407 23:14:57.200927 30941 net.cpp:150] Setting up conv8_0
I0407 23:14:57.200944 30941 net.cpp:157] Top shape: 64 100 42 42 (11289600)
I0407 23:14:57.200949 30941 net.cpp:165] Memory required for data: 2106475008
I0407 23:14:57.200956 30941 layer_factory.hpp:77] Creating layer conv8_0_prescale
I0407 23:14:57.200966 30941 net.cpp:100] Creating Layer conv8_0_prescale
I0407 23:14:57.200971 30941 net.cpp:434] conv8_0_prescale <- conv8_0
I0407 23:14:57.200979 30941 net.cpp:395] conv8_0_prescale -> conv8_0 (in-place)
I0407 23:14:57.201100 30941 net.cpp:150] Setting up conv8_0_prescale
I0407 23:14:57.201122 30941 net.cpp:157] Top shape: 64 100 42 42 (11289600)
I0407 23:14:57.201126 30941 net.cpp:165] Memory required for data: 2151633408
I0407 23:14:57.201131 30941 layer_factory.hpp:77] Creating layer conv8_0_sTanH
I0407 23:14:57.201138 30941 net.cpp:100] Creating Layer conv8_0_sTanH
I0407 23:14:57.201143 30941 net.cpp:434] conv8_0_sTanH <- conv8_0
I0407 23:14:57.201148 30941 net.cpp:395] conv8_0_sTanH -> conv8_0 (in-place)
I0407 23:14:57.201972 30941 net.cpp:150] Setting up conv8_0_sTanH
I0407 23:14:57.201988 30941 net.cpp:157] Top shape: 64 100 42 42 (11289600)
I0407 23:14:57.201992 30941 net.cpp:165] Memory required for data: 2196791808
I0407 23:14:57.201997 30941 layer_factory.hpp:77] Creating layer conv8_0_postscale
I0407 23:14:57.202003 30941 net.cpp:100] Creating Layer conv8_0_postscale
I0407 23:14:57.202008 30941 net.cpp:434] conv8_0_postscale <- conv8_0
I0407 23:14:57.202015 30941 net.cpp:395] conv8_0_postscale -> conv8_0 (in-place)
I0407 23:14:57.202143 30941 net.cpp:150] Setting up conv8_0_postscale
I0407 23:14:57.202152 30941 net.cpp:157] Top shape: 64 100 42 42 (11289600)
I0407 23:14:57.202155 30941 net.cpp:165] Memory required for data: 2241950208
I0407 23:14:57.202160 30941 layer_factory.hpp:77] Creating layer pool8_0
I0407 23:14:57.202167 30941 net.cpp:100] Creating Layer pool8_0
I0407 23:14:57.202172 30941 net.cpp:434] pool8_0 <- conv8_0
I0407 23:14:57.202178 30941 net.cpp:408] pool8_0 -> pool8_0
I0407 23:14:57.202234 30941 net.cpp:150] Setting up pool8_0
I0407 23:14:57.202242 30941 net.cpp:157] Top shape: 64 100 21 21 (2822400)
I0407 23:14:57.202245 30941 net.cpp:165] Memory required for data: 2253239808
I0407 23:14:57.202247 30941 layer_factory.hpp:77] Creating layer conv8_1
I0407 23:14:57.202257 30941 net.cpp:100] Creating Layer conv8_1
I0407 23:14:57.202262 30941 net.cpp:434] conv8_1 <- pool8_0
I0407 23:14:57.202268 30941 net.cpp:408] conv8_1 -> conv8_1
I0407 23:14:57.206246 30941 net.cpp:150] Setting up conv8_1
I0407 23:14:57.206264 30941 net.cpp:157] Top shape: 64 150 18 18 (3110400)
I0407 23:14:57.206269 30941 net.cpp:165] Memory required for data: 2265681408
I0407 23:14:57.206275 30941 layer_factory.hpp:77] Creating layer conv8_1_prescale
I0407 23:14:57.206285 30941 net.cpp:100] Creating Layer conv8_1_prescale
I0407 23:14:57.206290 30941 net.cpp:434] conv8_1_prescale <- conv8_1
I0407 23:14:57.206297 30941 net.cpp:395] conv8_1_prescale -> conv8_1 (in-place)
I0407 23:14:57.206420 30941 net.cpp:150] Setting up conv8_1_prescale
I0407 23:14:57.206429 30941 net.cpp:157] Top shape: 64 150 18 18 (3110400)
I0407 23:14:57.206432 30941 net.cpp:165] Memory required for data: 2278123008
I0407 23:14:57.206439 30941 layer_factory.hpp:77] Creating layer conv8_1_sTanH
I0407 23:14:57.206445 30941 net.cpp:100] Creating Layer conv8_1_sTanH
I0407 23:14:57.206449 30941 net.cpp:434] conv8_1_sTanH <- conv8_1
I0407 23:14:57.206454 30941 net.cpp:395] conv8_1_sTanH -> conv8_1 (in-place)
I0407 23:14:57.206650 30941 net.cpp:150] Setting up conv8_1_sTanH
I0407 23:14:57.206661 30941 net.cpp:157] Top shape: 64 150 18 18 (3110400)
I0407 23:14:57.206665 30941 net.cpp:165] Memory required for data: 2290564608
I0407 23:14:57.206670 30941 layer_factory.hpp:77] Creating layer conv8_1_postscale
I0407 23:14:57.206676 30941 net.cpp:100] Creating Layer conv8_1_postscale
I0407 23:14:57.206681 30941 net.cpp:434] conv8_1_postscale <- conv8_1
I0407 23:14:57.206688 30941 net.cpp:395] conv8_1_postscale -> conv8_1 (in-place)
I0407 23:14:57.206815 30941 net.cpp:150] Setting up conv8_1_postscale
I0407 23:14:57.206823 30941 net.cpp:157] Top shape: 64 150 18 18 (3110400)
I0407 23:14:57.206826 30941 net.cpp:165] Memory required for data: 2303006208
I0407 23:14:57.206832 30941 layer_factory.hpp:77] Creating layer pool8_1
I0407 23:14:57.206838 30941 net.cpp:100] Creating Layer pool8_1
I0407 23:14:57.206842 30941 net.cpp:434] pool8_1 <- conv8_1
I0407 23:14:57.206849 30941 net.cpp:408] pool8_1 -> pool8_1
I0407 23:14:57.206899 30941 net.cpp:150] Setting up pool8_1
I0407 23:14:57.206908 30941 net.cpp:157] Top shape: 64 150 9 9 (777600)
I0407 23:14:57.206923 30941 net.cpp:165] Memory required for data: 2306116608
I0407 23:14:57.206928 30941 layer_factory.hpp:77] Creating layer conv8_2
I0407 23:14:57.206936 30941 net.cpp:100] Creating Layer conv8_2
I0407 23:14:57.206941 30941 net.cpp:434] conv8_2 <- pool8_1
I0407 23:14:57.206948 30941 net.cpp:408] conv8_2 -> conv8_2
I0407 23:14:57.213171 30941 net.cpp:150] Setting up conv8_2
I0407 23:14:57.213187 30941 net.cpp:157] Top shape: 64 250 6 6 (576000)
I0407 23:14:57.213192 30941 net.cpp:165] Memory required for data: 2308420608
I0407 23:14:57.213199 30941 layer_factory.hpp:77] Creating layer conv8_2_prescale
I0407 23:14:57.213208 30941 net.cpp:100] Creating Layer conv8_2_prescale
I0407 23:14:57.213214 30941 net.cpp:434] conv8_2_prescale <- conv8_2
I0407 23:14:57.213220 30941 net.cpp:395] conv8_2_prescale -> conv8_2 (in-place)
I0407 23:14:57.213340 30941 net.cpp:150] Setting up conv8_2_prescale
I0407 23:14:57.213348 30941 net.cpp:157] Top shape: 64 250 6 6 (576000)
I0407 23:14:57.213351 30941 net.cpp:165] Memory required for data: 2310724608
I0407 23:14:57.213356 30941 layer_factory.hpp:77] Creating layer conv8_2_sTanH
I0407 23:14:57.213362 30941 net.cpp:100] Creating Layer conv8_2_sTanH
I0407 23:14:57.213366 30941 net.cpp:434] conv8_2_sTanH <- conv8_2
I0407 23:14:57.213371 30941 net.cpp:395] conv8_2_sTanH -> conv8_2 (in-place)
I0407 23:14:57.213567 30941 net.cpp:150] Setting up conv8_2_sTanH
I0407 23:14:57.213577 30941 net.cpp:157] Top shape: 64 250 6 6 (576000)
I0407 23:14:57.213582 30941 net.cpp:165] Memory required for data: 2313028608
I0407 23:14:57.213585 30941 layer_factory.hpp:77] Creating layer conv8_2_postscale
I0407 23:14:57.213593 30941 net.cpp:100] Creating Layer conv8_2_postscale
I0407 23:14:57.213598 30941 net.cpp:434] conv8_2_postscale <- conv8_2
I0407 23:14:57.213603 30941 net.cpp:395] conv8_2_postscale -> conv8_2 (in-place)
I0407 23:14:57.213721 30941 net.cpp:150] Setting up conv8_2_postscale
I0407 23:14:57.213729 30941 net.cpp:157] Top shape: 64 250 6 6 (576000)
I0407 23:14:57.213733 30941 net.cpp:165] Memory required for data: 2315332608
I0407 23:14:57.213738 30941 layer_factory.hpp:77] Creating layer pool8_2
I0407 23:14:57.213743 30941 net.cpp:100] Creating Layer pool8_2
I0407 23:14:57.213747 30941 net.cpp:434] pool8_2 <- conv8_2
I0407 23:14:57.213752 30941 net.cpp:408] pool8_2 -> pool8_2
I0407 23:14:57.213802 30941 net.cpp:150] Setting up pool8_2
I0407 23:14:57.213809 30941 net.cpp:157] Top shape: 64 250 3 3 (144000)
I0407 23:14:57.213812 30941 net.cpp:165] Memory required for data: 2315908608
I0407 23:14:57.213815 30941 layer_factory.hpp:77] Creating layer fc8_4_300
I0407 23:14:57.213821 30941 net.cpp:100] Creating Layer fc8_4_300
I0407 23:14:57.213825 30941 net.cpp:434] fc8_4_300 <- pool8_2
I0407 23:14:57.213832 30941 net.cpp:408] fc8_4_300 -> fc8_4
I0407 23:14:57.219166 30941 net.cpp:150] Setting up fc8_4_300
I0407 23:14:57.219182 30941 net.cpp:157] Top shape: 64 300 (19200)
I0407 23:14:57.219187 30941 net.cpp:165] Memory required for data: 2315985408
I0407 23:14:57.219193 30941 layer_factory.hpp:77] Creating layer fc8_4_prescale
I0407 23:14:57.219203 30941 net.cpp:100] Creating Layer fc8_4_prescale
I0407 23:14:57.219208 30941 net.cpp:434] fc8_4_prescale <- fc8_4
I0407 23:14:57.219214 30941 net.cpp:395] fc8_4_prescale -> fc8_4 (in-place)
I0407 23:14:57.219329 30941 net.cpp:150] Setting up fc8_4_prescale
I0407 23:14:57.219337 30941 net.cpp:157] Top shape: 64 300 (19200)
I0407 23:14:57.219341 30941 net.cpp:165] Memory required for data: 2316062208
I0407 23:14:57.219344 30941 layer_factory.hpp:77] Creating layer fc8_4_sTanH
I0407 23:14:57.219350 30941 net.cpp:100] Creating Layer fc8_4_sTanH
I0407 23:14:57.219354 30941 net.cpp:434] fc8_4_sTanH <- fc8_4
I0407 23:14:57.219360 30941 net.cpp:395] fc8_4_sTanH -> fc8_4 (in-place)
I0407 23:14:57.219560 30941 net.cpp:150] Setting up fc8_4_sTanH
I0407 23:14:57.219571 30941 net.cpp:157] Top shape: 64 300 (19200)
I0407 23:14:57.219575 30941 net.cpp:165] Memory required for data: 2316139008
I0407 23:14:57.219579 30941 layer_factory.hpp:77] Creating layer fc8_4_postscale
I0407 23:14:57.219604 30941 net.cpp:100] Creating Layer fc8_4_postscale
I0407 23:14:57.219609 30941 net.cpp:434] fc8_4_postscale <- fc8_4
I0407 23:14:57.219615 30941 net.cpp:395] fc8_4_postscale -> fc8_4 (in-place)
I0407 23:14:57.219740 30941 net.cpp:150] Setting up fc8_4_postscale
I0407 23:14:57.219748 30941 net.cpp:157] Top shape: 64 300 (19200)
I0407 23:14:57.219751 30941 net.cpp:165] Memory required for data: 2316215808
I0407 23:14:57.219756 30941 layer_factory.hpp:77] Creating layer drop8_4
I0407 23:14:57.219764 30941 net.cpp:100] Creating Layer drop8_4
I0407 23:14:57.219769 30941 net.cpp:434] drop8_4 <- fc8_4
I0407 23:14:57.219774 30941 net.cpp:395] drop8_4 -> fc8_4 (in-place)
I0407 23:14:57.219802 30941 net.cpp:150] Setting up drop8_4
I0407 23:14:57.219810 30941 net.cpp:157] Top shape: 64 300 (19200)
I0407 23:14:57.219811 30941 net.cpp:165] Memory required for data: 2316292608
I0407 23:14:57.219815 30941 layer_factory.hpp:77] Creating layer fc8_5_67
I0407 23:14:57.219820 30941 net.cpp:100] Creating Layer fc8_5_67
I0407 23:14:57.219823 30941 net.cpp:434] fc8_5_67 <- fc8_4
I0407 23:14:57.219828 30941 net.cpp:408] fc8_5_67 -> fc8_5
I0407 23:14:57.220098 30941 net.cpp:150] Setting up fc8_5_67
I0407 23:14:57.220108 30941 net.cpp:157] Top shape: 64 67 (4288)
I0407 23:14:57.220110 30941 net.cpp:165] Memory required for data: 2316309760
I0407 23:14:57.220115 30941 layer_factory.hpp:77] Creating layer softmax_8
I0407 23:14:57.220122 30941 net.cpp:100] Creating Layer softmax_8
I0407 23:14:57.220127 30941 net.cpp:434] softmax_8 <- fc8_5
I0407 23:14:57.220132 30941 net.cpp:408] softmax_8 -> softmax_8
I0407 23:14:57.221050 30941 net.cpp:150] Setting up softmax_8
I0407 23:14:57.221066 30941 net.cpp:157] Top shape: 64 67 (4288)
I0407 23:14:57.221071 30941 net.cpp:165] Memory required for data: 2316326912
I0407 23:14:57.221074 30941 layer_factory.hpp:77] Creating layer conv9_0
I0407 23:14:57.221084 30941 net.cpp:100] Creating Layer conv9_0
I0407 23:14:57.221089 30941 net.cpp:434] conv9_0 <- data_1_data_1_0_split_4
I0407 23:14:57.221097 30941 net.cpp:408] conv9_0 -> conv9_0
I0407 23:14:57.222102 30941 net.cpp:150] Setting up conv9_0
I0407 23:14:57.222116 30941 net.cpp:157] Top shape: 64 100 42 42 (11289600)
I0407 23:14:57.222124 30941 net.cpp:165] Memory required for data: 2361485312
I0407 23:14:57.222131 30941 layer_factory.hpp:77] Creating layer conv9_0_prescale
I0407 23:14:57.222138 30941 net.cpp:100] Creating Layer conv9_0_prescale
I0407 23:14:57.222143 30941 net.cpp:434] conv9_0_prescale <- conv9_0
I0407 23:14:57.222149 30941 net.cpp:395] conv9_0_prescale -> conv9_0 (in-place)
I0407 23:14:57.222271 30941 net.cpp:150] Setting up conv9_0_prescale
I0407 23:14:57.222281 30941 net.cpp:157] Top shape: 64 100 42 42 (11289600)
I0407 23:14:57.222285 30941 net.cpp:165] Memory required for data: 2406643712
I0407 23:14:57.222290 30941 layer_factory.hpp:77] Creating layer conv9_0_sTanH
I0407 23:14:57.222295 30941 net.cpp:100] Creating Layer conv9_0_sTanH
I0407 23:14:57.222301 30941 net.cpp:434] conv9_0_sTanH <- conv9_0
I0407 23:14:57.222304 30941 net.cpp:395] conv9_0_sTanH -> conv9_0 (in-place)
I0407 23:14:57.223145 30941 net.cpp:150] Setting up conv9_0_sTanH
I0407 23:14:57.223161 30941 net.cpp:157] Top shape: 64 100 42 42 (11289600)
I0407 23:14:57.223166 30941 net.cpp:165] Memory required for data: 2451802112
I0407 23:14:57.223170 30941 layer_factory.hpp:77] Creating layer conv9_0_postscale
I0407 23:14:57.223179 30941 net.cpp:100] Creating Layer conv9_0_postscale
I0407 23:14:57.223186 30941 net.cpp:434] conv9_0_postscale <- conv9_0
I0407 23:14:57.223191 30941 net.cpp:395] conv9_0_postscale -> conv9_0 (in-place)
I0407 23:14:57.223320 30941 net.cpp:150] Setting up conv9_0_postscale
I0407 23:14:57.223330 30941 net.cpp:157] Top shape: 64 100 42 42 (11289600)
I0407 23:14:57.223332 30941 net.cpp:165] Memory required for data: 2496960512
I0407 23:14:57.223337 30941 layer_factory.hpp:77] Creating layer pool9_0
I0407 23:14:57.223347 30941 net.cpp:100] Creating Layer pool9_0
I0407 23:14:57.223352 30941 net.cpp:434] pool9_0 <- conv9_0
I0407 23:14:57.223371 30941 net.cpp:408] pool9_0 -> pool9_0
I0407 23:14:57.223426 30941 net.cpp:150] Setting up pool9_0
I0407 23:14:57.223434 30941 net.cpp:157] Top shape: 64 100 21 21 (2822400)
I0407 23:14:57.223438 30941 net.cpp:165] Memory required for data: 2508250112
I0407 23:14:57.223440 30941 layer_factory.hpp:77] Creating layer conv9_1
I0407 23:14:57.223448 30941 net.cpp:100] Creating Layer conv9_1
I0407 23:14:57.223453 30941 net.cpp:434] conv9_1 <- pool9_0
I0407 23:14:57.223459 30941 net.cpp:408] conv9_1 -> conv9_1
I0407 23:14:57.226469 30941 net.cpp:150] Setting up conv9_1
I0407 23:14:57.226485 30941 net.cpp:157] Top shape: 64 150 18 18 (3110400)
I0407 23:14:57.226490 30941 net.cpp:165] Memory required for data: 2520691712
I0407 23:14:57.226497 30941 layer_factory.hpp:77] Creating layer conv9_1_prescale
I0407 23:14:57.226508 30941 net.cpp:100] Creating Layer conv9_1_prescale
I0407 23:14:57.226513 30941 net.cpp:434] conv9_1_prescale <- conv9_1
I0407 23:14:57.226519 30941 net.cpp:395] conv9_1_prescale -> conv9_1 (in-place)
I0407 23:14:57.226644 30941 net.cpp:150] Setting up conv9_1_prescale
I0407 23:14:57.226653 30941 net.cpp:157] Top shape: 64 150 18 18 (3110400)
I0407 23:14:57.226656 30941 net.cpp:165] Memory required for data: 2533133312
I0407 23:14:57.226660 30941 layer_factory.hpp:77] Creating layer conv9_1_sTanH
I0407 23:14:57.226668 30941 net.cpp:100] Creating Layer conv9_1_sTanH
I0407 23:14:57.226673 30941 net.cpp:434] conv9_1_sTanH <- conv9_1
I0407 23:14:57.226677 30941 net.cpp:395] conv9_1_sTanH -> conv9_1 (in-place)
I0407 23:14:57.226872 30941 net.cpp:150] Setting up conv9_1_sTanH
I0407 23:14:57.226884 30941 net.cpp:157] Top shape: 64 150 18 18 (3110400)
I0407 23:14:57.226888 30941 net.cpp:165] Memory required for data: 2545574912
I0407 23:14:57.226891 30941 layer_factory.hpp:77] Creating layer conv9_1_postscale
I0407 23:14:57.226900 30941 net.cpp:100] Creating Layer conv9_1_postscale
I0407 23:14:57.226905 30941 net.cpp:434] conv9_1_postscale <- conv9_1
I0407 23:14:57.226912 30941 net.cpp:395] conv9_1_postscale -> conv9_1 (in-place)
I0407 23:14:57.227035 30941 net.cpp:150] Setting up conv9_1_postscale
I0407 23:14:57.227043 30941 net.cpp:157] Top shape: 64 150 18 18 (3110400)
I0407 23:14:57.227046 30941 net.cpp:165] Memory required for data: 2558016512
I0407 23:14:57.227051 30941 layer_factory.hpp:77] Creating layer pool9_1
I0407 23:14:57.227056 30941 net.cpp:100] Creating Layer pool9_1
I0407 23:14:57.227061 30941 net.cpp:434] pool9_1 <- conv9_1
I0407 23:14:57.227067 30941 net.cpp:408] pool9_1 -> pool9_1
I0407 23:14:57.227118 30941 net.cpp:150] Setting up pool9_1
I0407 23:14:57.227126 30941 net.cpp:157] Top shape: 64 150 9 9 (777600)
I0407 23:14:57.227130 30941 net.cpp:165] Memory required for data: 2561126912
I0407 23:14:57.227133 30941 layer_factory.hpp:77] Creating layer conv9_2
I0407 23:14:57.227141 30941 net.cpp:100] Creating Layer conv9_2
I0407 23:14:57.227145 30941 net.cpp:434] conv9_2 <- pool9_1
I0407 23:14:57.227152 30941 net.cpp:408] conv9_2 -> conv9_2
I0407 23:14:57.233399 30941 net.cpp:150] Setting up conv9_2
I0407 23:14:57.233417 30941 net.cpp:157] Top shape: 64 250 6 6 (576000)
I0407 23:14:57.233423 30941 net.cpp:165] Memory required for data: 2563430912
I0407 23:14:57.233430 30941 layer_factory.hpp:77] Creating layer conv9_2_prescale
I0407 23:14:57.233438 30941 net.cpp:100] Creating Layer conv9_2_prescale
I0407 23:14:57.233443 30941 net.cpp:434] conv9_2_prescale <- conv9_2
I0407 23:14:57.233450 30941 net.cpp:395] conv9_2_prescale -> conv9_2 (in-place)
I0407 23:14:57.233578 30941 net.cpp:150] Setting up conv9_2_prescale
I0407 23:14:57.233587 30941 net.cpp:157] Top shape: 64 250 6 6 (576000)
I0407 23:14:57.233589 30941 net.cpp:165] Memory required for data: 2565734912
I0407 23:14:57.233594 30941 layer_factory.hpp:77] Creating layer conv9_2_sTanH
I0407 23:14:57.233602 30941 net.cpp:100] Creating Layer conv9_2_sTanH
I0407 23:14:57.233604 30941 net.cpp:434] conv9_2_sTanH <- conv9_2
I0407 23:14:57.233610 30941 net.cpp:395] conv9_2_sTanH -> conv9_2 (in-place)
I0407 23:14:57.233820 30941 net.cpp:150] Setting up conv9_2_sTanH
I0407 23:14:57.233832 30941 net.cpp:157] Top shape: 64 250 6 6 (576000)
I0407 23:14:57.233836 30941 net.cpp:165] Memory required for data: 2568038912
I0407 23:14:57.233840 30941 layer_factory.hpp:77] Creating layer conv9_2_postscale
I0407 23:14:57.233850 30941 net.cpp:100] Creating Layer conv9_2_postscale
I0407 23:14:57.233853 30941 net.cpp:434] conv9_2_postscale <- conv9_2
I0407 23:14:57.233858 30941 net.cpp:395] conv9_2_postscale -> conv9_2 (in-place)
I0407 23:14:57.233979 30941 net.cpp:150] Setting up conv9_2_postscale
I0407 23:14:57.233988 30941 net.cpp:157] Top shape: 64 250 6 6 (576000)
I0407 23:14:57.233990 30941 net.cpp:165] Memory required for data: 2570342912
I0407 23:14:57.233995 30941 layer_factory.hpp:77] Creating layer pool9_2
I0407 23:14:57.234004 30941 net.cpp:100] Creating Layer pool9_2
I0407 23:14:57.234009 30941 net.cpp:434] pool9_2 <- conv9_2
I0407 23:14:57.234014 30941 net.cpp:408] pool9_2 -> pool9_2
I0407 23:14:57.234062 30941 net.cpp:150] Setting up pool9_2
I0407 23:14:57.234069 30941 net.cpp:157] Top shape: 64 250 3 3 (144000)
I0407 23:14:57.234072 30941 net.cpp:165] Memory required for data: 2570918912
I0407 23:14:57.234076 30941 layer_factory.hpp:77] Creating layer fc9_4_300
I0407 23:14:57.234081 30941 net.cpp:100] Creating Layer fc9_4_300
I0407 23:14:57.234084 30941 net.cpp:434] fc9_4_300 <- pool9_2
I0407 23:14:57.234091 30941 net.cpp:408] fc9_4_300 -> fc9_4
I0407 23:14:57.239451 30941 net.cpp:150] Setting up fc9_4_300
I0407 23:14:57.239467 30941 net.cpp:157] Top shape: 64 300 (19200)
I0407 23:14:57.239471 30941 net.cpp:165] Memory required for data: 2570995712
I0407 23:14:57.239478 30941 layer_factory.hpp:77] Creating layer fc9_4_prescale
I0407 23:14:57.239486 30941 net.cpp:100] Creating Layer fc9_4_prescale
I0407 23:14:57.239491 30941 net.cpp:434] fc9_4_prescale <- fc9_4
I0407 23:14:57.239498 30941 net.cpp:395] fc9_4_prescale -> fc9_4 (in-place)
I0407 23:14:57.239615 30941 net.cpp:150] Setting up fc9_4_prescale
I0407 23:14:57.239624 30941 net.cpp:157] Top shape: 64 300 (19200)
I0407 23:14:57.239626 30941 net.cpp:165] Memory required for data: 2571072512
I0407 23:14:57.239630 30941 layer_factory.hpp:77] Creating layer fc9_4_sTanH
I0407 23:14:57.239636 30941 net.cpp:100] Creating Layer fc9_4_sTanH
I0407 23:14:57.239640 30941 net.cpp:434] fc9_4_sTanH <- fc9_4
I0407 23:14:57.239646 30941 net.cpp:395] fc9_4_sTanH -> fc9_4 (in-place)
I0407 23:14:57.239848 30941 net.cpp:150] Setting up fc9_4_sTanH
I0407 23:14:57.239859 30941 net.cpp:157] Top shape: 64 300 (19200)
I0407 23:14:57.239862 30941 net.cpp:165] Memory required for data: 2571149312
I0407 23:14:57.239866 30941 layer_factory.hpp:77] Creating layer fc9_4_postscale
I0407 23:14:57.239876 30941 net.cpp:100] Creating Layer fc9_4_postscale
I0407 23:14:57.239887 30941 net.cpp:434] fc9_4_postscale <- fc9_4
I0407 23:14:57.239892 30941 net.cpp:395] fc9_4_postscale -> fc9_4 (in-place)
I0407 23:14:57.240017 30941 net.cpp:150] Setting up fc9_4_postscale
I0407 23:14:57.240031 30941 net.cpp:157] Top shape: 64 300 (19200)
I0407 23:14:57.240033 30941 net.cpp:165] Memory required for data: 2571226112
I0407 23:14:57.240038 30941 layer_factory.hpp:77] Creating layer drop9_4
I0407 23:14:57.240048 30941 net.cpp:100] Creating Layer drop9_4
I0407 23:14:57.240052 30941 net.cpp:434] drop9_4 <- fc9_4
I0407 23:14:57.240057 30941 net.cpp:395] drop9_4 -> fc9_4 (in-place)
I0407 23:14:57.240088 30941 net.cpp:150] Setting up drop9_4
I0407 23:14:57.240095 30941 net.cpp:157] Top shape: 64 300 (19200)
I0407 23:14:57.240097 30941 net.cpp:165] Memory required for data: 2571302912
I0407 23:14:57.240100 30941 layer_factory.hpp:77] Creating layer fc9_5_67
I0407 23:14:57.240106 30941 net.cpp:100] Creating Layer fc9_5_67
I0407 23:14:57.240109 30941 net.cpp:434] fc9_5_67 <- fc9_4
I0407 23:14:57.240115 30941 net.cpp:408] fc9_5_67 -> fc9_5
I0407 23:14:57.240378 30941 net.cpp:150] Setting up fc9_5_67
I0407 23:14:57.240387 30941 net.cpp:157] Top shape: 64 67 (4288)
I0407 23:14:57.240391 30941 net.cpp:165] Memory required for data: 2571320064
I0407 23:14:57.240409 30941 layer_factory.hpp:77] Creating layer softmax_9
I0407 23:14:57.240417 30941 net.cpp:100] Creating Layer softmax_9
I0407 23:14:57.240420 30941 net.cpp:434] softmax_9 <- fc9_5
I0407 23:14:57.240425 30941 net.cpp:408] softmax_9 -> softmax_9
I0407 23:14:57.241348 30941 net.cpp:150] Setting up softmax_9
I0407 23:14:57.241363 30941 net.cpp:157] Top shape: 64 67 (4288)
I0407 23:14:57.241366 30941 net.cpp:165] Memory required for data: 2571337216
I0407 23:14:57.241370 30941 layer_factory.hpp:77] Creating layer data_2
I0407 23:14:57.241466 30941 net.cpp:100] Creating Layer data_2
I0407 23:14:57.241488 30941 net.cpp:408] data_2 -> data_2
I0407 23:14:57.241500 30941 net.cpp:408] data_2 -> label_2
I0407 23:14:57.242691 31040 db_lmdb.cpp:35] Opened lmdb ../local_data/lmdb/rtsd-r1/AHE/train/lmdb
I0407 23:14:57.242879 30941 data_layer.cpp:41] output data size: 64,3,48,48
I0407 23:14:57.252657 30941 net.cpp:150] Setting up data_2
I0407 23:14:57.252686 30941 net.cpp:157] Top shape: 64 3 48 48 (442368)
I0407 23:14:57.252691 30941 net.cpp:157] Top shape: 64 (64)
I0407 23:14:57.252693 30941 net.cpp:165] Memory required for data: 2573106944
I0407 23:14:57.252697 30941 layer_factory.hpp:77] Creating layer data_2_data_2_0_split
I0407 23:14:57.252706 30941 net.cpp:100] Creating Layer data_2_data_2_0_split
I0407 23:14:57.252709 30941 net.cpp:434] data_2_data_2_0_split <- data_2
I0407 23:14:57.252718 30941 net.cpp:408] data_2_data_2_0_split -> data_2_data_2_0_split_0
I0407 23:14:57.252728 30941 net.cpp:408] data_2_data_2_0_split -> data_2_data_2_0_split_1
I0407 23:14:57.252737 30941 net.cpp:408] data_2_data_2_0_split -> data_2_data_2_0_split_2
I0407 23:14:57.252745 30941 net.cpp:408] data_2_data_2_0_split -> data_2_data_2_0_split_3
I0407 23:14:57.252753 30941 net.cpp:408] data_2_data_2_0_split -> data_2_data_2_0_split_4
I0407 23:14:57.252912 30941 net.cpp:150] Setting up data_2_data_2_0_split
I0407 23:14:57.252923 30941 net.cpp:157] Top shape: 64 3 48 48 (442368)
I0407 23:14:57.252933 30941 net.cpp:157] Top shape: 64 3 48 48 (442368)
I0407 23:14:57.252938 30941 net.cpp:157] Top shape: 64 3 48 48 (442368)
I0407 23:14:57.252943 30941 net.cpp:157] Top shape: 64 3 48 48 (442368)
I0407 23:14:57.252945 30941 net.cpp:157] Top shape: 64 3 48 48 (442368)
I0407 23:14:57.252948 30941 net.cpp:165] Memory required for data: 2581954304
I0407 23:14:57.252951 30941 layer_factory.hpp:77] Creating layer conv10_0
I0407 23:14:57.252961 30941 net.cpp:100] Creating Layer conv10_0
I0407 23:14:57.252966 30941 net.cpp:434] conv10_0 <- data_2_data_2_0_split_0
I0407 23:14:57.252974 30941 net.cpp:408] conv10_0 -> conv10_0
I0407 23:14:57.254086 30941 net.cpp:150] Setting up conv10_0
I0407 23:14:57.254106 30941 net.cpp:157] Top shape: 64 100 42 42 (11289600)
I0407 23:14:57.254112 30941 net.cpp:165] Memory required for data: 2627112704
I0407 23:14:57.254118 30941 layer_factory.hpp:77] Creating layer conv10_0_prescale
I0407 23:14:57.254127 30941 net.cpp:100] Creating Layer conv10_0_prescale
I0407 23:14:57.254132 30941 net.cpp:434] conv10_0_prescale <- conv10_0
I0407 23:14:57.254139 30941 net.cpp:395] conv10_0_prescale -> conv10_0 (in-place)
I0407 23:14:57.254390 30941 net.cpp:150] Setting up conv10_0_prescale
I0407 23:14:57.254400 30941 net.cpp:157] Top shape: 64 100 42 42 (11289600)
I0407 23:14:57.254405 30941 net.cpp:165] Memory required for data: 2672271104
I0407 23:14:57.254410 30941 layer_factory.hpp:77] Creating layer conv10_0_sTanH
I0407 23:14:57.254415 30941 net.cpp:100] Creating Layer conv10_0_sTanH
I0407 23:14:57.254420 30941 net.cpp:434] conv10_0_sTanH <- conv10_0
I0407 23:14:57.254423 30941 net.cpp:395] conv10_0_sTanH -> conv10_0 (in-place)
I0407 23:14:57.255273 30941 net.cpp:150] Setting up conv10_0_sTanH
I0407 23:14:57.255290 30941 net.cpp:157] Top shape: 64 100 42 42 (11289600)
I0407 23:14:57.255295 30941 net.cpp:165] Memory required for data: 2717429504
I0407 23:14:57.255298 30941 layer_factory.hpp:77] Creating layer conv10_0_postscale
I0407 23:14:57.255308 30941 net.cpp:100] Creating Layer conv10_0_postscale
I0407 23:14:57.255313 30941 net.cpp:434] conv10_0_postscale <- conv10_0
I0407 23:14:57.255334 30941 net.cpp:395] conv10_0_postscale -> conv10_0 (in-place)
I0407 23:14:57.255471 30941 net.cpp:150] Setting up conv10_0_postscale
I0407 23:14:57.255481 30941 net.cpp:157] Top shape: 64 100 42 42 (11289600)
I0407 23:14:57.255483 30941 net.cpp:165] Memory required for data: 2762587904
I0407 23:14:57.255488 30941 layer_factory.hpp:77] Creating layer pool10_0
I0407 23:14:57.255497 30941 net.cpp:100] Creating Layer pool10_0
I0407 23:14:57.255502 30941 net.cpp:434] pool10_0 <- conv10_0
I0407 23:14:57.255507 30941 net.cpp:408] pool10_0 -> pool10_0
I0407 23:14:57.255563 30941 net.cpp:150] Setting up pool10_0
I0407 23:14:57.255569 30941 net.cpp:157] Top shape: 64 100 21 21 (2822400)
I0407 23:14:57.255573 30941 net.cpp:165] Memory required for data: 2773877504
I0407 23:14:57.255575 30941 layer_factory.hpp:77] Creating layer conv10_1
I0407 23:14:57.255584 30941 net.cpp:100] Creating Layer conv10_1
I0407 23:14:57.255589 30941 net.cpp:434] conv10_1 <- pool10_0
I0407 23:14:57.255595 30941 net.cpp:408] conv10_1 -> conv10_1
I0407 23:14:57.259613 30941 net.cpp:150] Setting up conv10_1
I0407 23:14:57.259629 30941 net.cpp:157] Top shape: 64 150 18 18 (3110400)
I0407 23:14:57.259634 30941 net.cpp:165] Memory required for data: 2786319104
I0407 23:14:57.259641 30941 layer_factory.hpp:77] Creating layer conv10_1_prescale
I0407 23:14:57.259652 30941 net.cpp:100] Creating Layer conv10_1_prescale
I0407 23:14:57.259657 30941 net.cpp:434] conv10_1_prescale <- conv10_1
I0407 23:14:57.259663 30941 net.cpp:395] conv10_1_prescale -> conv10_1 (in-place)
I0407 23:14:57.259790 30941 net.cpp:150] Setting up conv10_1_prescale
I0407 23:14:57.259800 30941 net.cpp:157] Top shape: 64 150 18 18 (3110400)
I0407 23:14:57.259804 30941 net.cpp:165] Memory required for data: 2798760704
I0407 23:14:57.259809 30941 layer_factory.hpp:77] Creating layer conv10_1_sTanH
I0407 23:14:57.259814 30941 net.cpp:100] Creating Layer conv10_1_sTanH
I0407 23:14:57.259819 30941 net.cpp:434] conv10_1_sTanH <- conv10_1
I0407 23:14:57.259824 30941 net.cpp:395] conv10_1_sTanH -> conv10_1 (in-place)
I0407 23:14:57.260035 30941 net.cpp:150] Setting up conv10_1_sTanH
I0407 23:14:57.260048 30941 net.cpp:157] Top shape: 64 150 18 18 (3110400)
I0407 23:14:57.260053 30941 net.cpp:165] Memory required for data: 2811202304
I0407 23:14:57.260056 30941 layer_factory.hpp:77] Creating layer conv10_1_postscale
I0407 23:14:57.260063 30941 net.cpp:100] Creating Layer conv10_1_postscale
I0407 23:14:57.260068 30941 net.cpp:434] conv10_1_postscale <- conv10_1
I0407 23:14:57.260074 30941 net.cpp:395] conv10_1_postscale -> conv10_1 (in-place)
I0407 23:14:57.260203 30941 net.cpp:150] Setting up conv10_1_postscale
I0407 23:14:57.260212 30941 net.cpp:157] Top shape: 64 150 18 18 (3110400)
I0407 23:14:57.260215 30941 net.cpp:165] Memory required for data: 2823643904
I0407 23:14:57.260221 30941 layer_factory.hpp:77] Creating layer pool10_1
I0407 23:14:57.260226 30941 net.cpp:100] Creating Layer pool10_1
I0407 23:14:57.260231 30941 net.cpp:434] pool10_1 <- conv10_1
I0407 23:14:57.260236 30941 net.cpp:408] pool10_1 -> pool10_1
I0407 23:14:57.260288 30941 net.cpp:150] Setting up pool10_1
I0407 23:14:57.260296 30941 net.cpp:157] Top shape: 64 150 9 9 (777600)
I0407 23:14:57.260299 30941 net.cpp:165] Memory required for data: 2826754304
I0407 23:14:57.260303 30941 layer_factory.hpp:77] Creating layer conv10_2
…
I0407 23:14:57.530448 30941 layer_factory.hpp:77] Creating layer conv20_2_prescale
I0407 23:14:57.530464 30941 net.cpp:100] Creating Layer conv20_2_prescale
I0407 23:14:57.530472 30941 net.cpp:434] conv20_2_prescale <- conv20_2
I0407 23:14:57.530480 30941 net.cpp:395] conv20_2_prescale -> conv20_2 (in-place)
I0407 23:14:57.530642 30941 net.cpp:150] Setting up conv20_2_prescale
I0407 23:14:57.530655 30941 net.cpp:157] Top shape: 64 250 6 6 (576000)
I0407 23:14:57.530660 30941 net.cpp:165] Memory required for data: 5402699520
I0407 23:14:57.530668 30941 layer_factory.hpp:77] Creating layer conv20_2_sTanH
I0407 23:14:57.530689 30941 net.cpp:100] Creating Layer conv20_2_sTanH
I0407 23:14:57.530709 30941 net.cpp:434] conv20_2_sTanH <- conv20_2
I0407 23:14:57.530716 30941 net.cpp:395] conv20_2_sTanH -> conv20_2 (in-place)
I0407 23:14:57.530947 30941 net.cpp:150] Setting up conv20_2_sTanH
I0407 23:14:57.530962 30941 net.cpp:157] Top shape: 64 250 6 6 (576000)
I0407 23:14:57.530967 30941 net.cpp:165] Memory required for data: 5405003520
I0407 23:14:57.530973 30941 layer_factory.hpp:77] Creating layer conv20_2_postscale
I0407 23:14:57.530983 30941 net.cpp:100] Creating Layer conv20_2_postscale
I0407 23:14:57.530992 30941 net.cpp:434] conv20_2_postscale <- conv20_2
I0407 23:14:57.531003 30941 net.cpp:395] conv20_2_postscale -> conv20_2 (in-place)
I0407 23:14:57.531172 30941 net.cpp:150] Setting up conv20_2_postscale
I0407 23:14:57.531184 30941 net.cpp:157] Top shape: 64 250 6 6 (576000)
I0407 23:14:57.531189 30941 net.cpp:165] Memory required for data: 5407307520
I0407 23:14:57.531198 30941 layer_factory.hpp:77] Creating layer pool20_2
I0407 23:14:57.531206 30941 net.cpp:100] Creating Layer pool20_2
I0407 23:14:57.531213 30941 net.cpp:434] pool20_2 <- conv20_2
I0407 23:14:57.531224 30941 net.cpp:408] pool20_2 -> pool20_2
I0407 23:14:57.531306 30941 net.cpp:150] Setting up pool20_2
I0407 23:14:57.531318 30941 net.cpp:157] Top shape: 64 250 3 3 (144000)
I0407 23:14:57.531322 30941 net.cpp:165] Memory required for data: 5407883520
I0407 23:14:57.531328 30941 layer_factory.hpp:77] Creating layer fc20_4_300
I0407 23:14:57.531339 30941 net.cpp:100] Creating Layer fc20_4_300
I0407 23:14:57.531347 30941 net.cpp:434] fc20_4_300 <- pool20_2
I0407 23:14:57.531358 30941 net.cpp:408] fc20_4_300 -> fc20_4
I0407 23:14:57.536731 30941 net.cpp:150] Setting up fc20_4_300
I0407 23:14:57.536748 30941 net.cpp:157] Top shape: 64 300 (19200)
I0407 23:14:57.536753 30941 net.cpp:165] Memory required for data: 5407960320
I0407 23:14:57.536763 30941 layer_factory.hpp:77] Creating layer fc20_4_prescale
I0407 23:14:57.536790 30941 net.cpp:100] Creating Layer fc20_4_prescale
I0407 23:14:57.536798 30941 net.cpp:434] fc20_4_prescale <- fc20_4
I0407 23:14:57.536810 30941 net.cpp:395] fc20_4_prescale -> fc20_4 (in-place)
I0407 23:14:57.536972 30941 net.cpp:150] Setting up fc20_4_prescale
I0407 23:14:57.536983 30941 net.cpp:157] Top shape: 64 300 (19200)
I0407 23:14:57.536988 30941 net.cpp:165] Memory required for data: 5408037120
I0407 23:14:57.536995 30941 layer_factory.hpp:77] Creating layer fc20_4_sTanH
I0407 23:14:57.537011 30941 net.cpp:100] Creating Layer fc20_4_sTanH
I0407 23:14:57.537019 30941 net.cpp:434] fc20_4_sTanH <- fc20_4
I0407 23:14:57.537026 30941 net.cpp:395] fc20_4_sTanH -> fc20_4 (in-place)
I0407 23:14:57.537962 30941 net.cpp:150] Setting up fc20_4_sTanH
I0407 23:14:57.537978 30941 net.cpp:157] Top shape: 64 300 (19200)
I0407 23:14:57.537983 30941 net.cpp:165] Memory required for data: 5408113920
I0407 23:14:57.537989 30941 layer_factory.hpp:77] Creating layer fc20_4_postscale
I0407 23:14:57.538000 30941 net.cpp:100] Creating Layer fc20_4_postscale
I0407 23:14:57.538008 30941 net.cpp:434] fc20_4_postscale <- fc20_4
I0407 23:14:57.538022 30941 net.cpp:395] fc20_4_postscale -> fc20_4 (in-place)
I0407 23:14:57.538195 30941 net.cpp:150] Setting up fc20_4_postscale
I0407 23:14:57.538208 30941 net.cpp:157] Top shape: 64 300 (19200)
I0407 23:14:57.538213 30941 net.cpp:165] Memory required for data: 5408190720
I0407 23:14:57.538220 30941 layer_factory.hpp:77] Creating layer drop20_4
I0407 23:14:57.538230 30941 net.cpp:100] Creating Layer drop20_4
I0407 23:14:57.538238 30941 net.cpp:434] drop20_4 <- fc20_4
I0407 23:14:57.538251 30941 net.cpp:395] drop20_4 -> fc20_4 (in-place)
I0407 23:14:57.538301 30941 net.cpp:150] Setting up drop20_4
I0407 23:14:57.538312 30941 net.cpp:157] Top shape: 64 300 (19200)
I0407 23:14:57.538316 30941 net.cpp:165] Memory required for data: 5408267520
I0407 23:14:57.538322 30941 layer_factory.hpp:77] Creating layer fc20_5_67
I0407 23:14:57.538331 30941 net.cpp:100] Creating Layer fc20_5_67
I0407 23:14:57.538336 30941 net.cpp:434] fc20_5_67 <- fc20_4
I0407 23:14:57.538360 30941 net.cpp:408] fc20_5_67 -> fc20_5
I0407 23:14:57.538681 30941 net.cpp:150] Setting up fc20_5_67
I0407 23:14:57.538693 30941 net.cpp:157] Top shape: 64 67 (4288)
I0407 23:14:57.538698 30941 net.cpp:165] Memory required for data: 5408284672
I0407 23:14:57.538708 30941 layer_factory.hpp:77] Creating layer softmax_20
I0407 23:14:57.538720 30941 net.cpp:100] Creating Layer softmax_20
I0407 23:14:57.538728 30941 net.cpp:434] softmax_20 <- fc20_5
I0407 23:14:57.538736 30941 net.cpp:408] softmax_20 -> softmax_20
I0407 23:14:57.539059 30941 net.cpp:150] Setting up softmax_20
I0407 23:14:57.539073 30941 net.cpp:157] Top shape: 64 67 (4288)
I0407 23:14:57.539078 30941 net.cpp:165] Memory required for data: 5408301824
I0407 23:14:57.539084 30941 layer_factory.hpp:77] Creating layer conv21_0
I0407 23:14:57.539100 30941 net.cpp:100] Creating Layer conv21_0
I0407 23:14:57.539108 30941 net.cpp:434] conv21_0 <- data_4_data_4_0_split_1
I0407 23:14:57.539119 30941 net.cpp:408] conv21_0 -> conv21_0
I0407 23:14:57.541018 30941 net.cpp:150] Setting up conv21_0
I0407 23:14:57.541039 30941 net.cpp:157] Top shape: 64 100 42 42 (11289600)
I0407 23:14:57.541048 30941 net.cpp:165] Memory required for data: 5453460224
I0407 23:14:57.541069 30941 layer_factory.hpp:77] Creating layer conv21_0_prescale
I0407 23:14:57.541082 30941 net.cpp:100] Creating Layer conv21_0_prescale
I0407 23:14:57.541091 30941 net.cpp:434] conv21_0_prescale <- conv21_0
I0407 23:14:57.541105 30941 net.cpp:395] conv21_0_prescale -> conv21_0 (in-place)
I0407 23:14:57.541277 30941 net.cpp:150] Setting up conv21_0_prescale
I0407 23:14:57.541290 30941 net.cpp:157] Top shape: 64 100 42 42 (11289600)
I0407 23:14:57.541295 30941 net.cpp:165] Memory required for data: 5498618624
I0407 23:14:57.541302 30941 layer_factory.hpp:77] Creating layer conv21_0_sTanH
I0407 23:14:57.541311 30941 net.cpp:100] Creating Layer conv21_0_sTanH
I0407 23:14:57.541318 30941 net.cpp:434] conv21_0_sTanH <- conv21_0
I0407 23:14:57.541329 30941 net.cpp:395] conv21_0_sTanH -> conv21_0 (in-place)
I0407 23:14:57.541563 30941 net.cpp:150] Setting up conv21_0_sTanH
I0407 23:14:57.541577 30941 net.cpp:157] Top shape: 64 100 42 42 (11289600)
I0407 23:14:57.541584 30941 net.cpp:165] Memory required for data: 5543777024
I0407 23:14:57.541589 30941 layer_factory.hpp:77] Creating layer conv21_0_postscale
I0407 23:14:57.541601 30941 net.cpp:100] Creating Layer conv21_0_postscale
I0407 23:14:57.541610 30941 net.cpp:434] conv21_0_postscale <- conv21_0
I0407 23:14:57.541618 30941 net.cpp:395] conv21_0_postscale -> conv21_0 (in-place)
I0407 23:14:57.541793 30941 net.cpp:150] Setting up conv21_0_postscale
I0407 23:14:57.541807 30941 net.cpp:157] Top shape: 64 100 42 42 (11289600)
I0407 23:14:57.541812 30941 net.cpp:165] Memory required for data: 5588935424
I0407 23:14:57.541821 30941 layer_factory.hpp:77] Creating layer pool21_0
I0407 23:14:57.541831 30941 net.cpp:100] Creating Layer pool21_0
I0407 23:14:57.541838 30941 net.cpp:434] pool21_0 <- conv21_0
I0407 23:14:57.541847 30941 net.cpp:408] pool21_0 -> pool21_0
I0407 23:14:57.541924 30941 net.cpp:150] Setting up pool21_0
I0407 23:14:57.541936 30941 net.cpp:157] Top shape: 64 100 21 21 (2822400)
I0407 23:14:57.541941 30941 net.cpp:165] Memory required for data: 5600225024
I0407 23:14:57.541946 30941 layer_factory.hpp:77] Creating layer conv21_1
I0407 23:14:57.541960 30941 net.cpp:100] Creating Layer conv21_1
I0407 23:14:57.541967 30941 net.cpp:434] conv21_1 <- pool21_0
I0407 23:14:57.541980 30941 net.cpp:408] conv21_1 -> conv21_1
I0407 23:14:57.545290 30941 net.cpp:150] Setting up conv21_1
I0407 23:14:57.545308 30941 net.cpp:157] Top shape: 64 150 18 18 (3110400)
I0407 23:14:57.545315 30941 net.cpp:165] Memory required for data: 5612666624
I0407 23:14:57.545325 30941 layer_factory.hpp:77] Creating layer conv21_1_prescale
I0407 23:14:57.545341 30941 net.cpp:100] Creating Layer conv21_1_prescale
I0407 23:14:57.545349 30941 net.cpp:434] conv21_1_prescale <- conv21_1
I0407 23:14:57.545361 30941 net.cpp:395] conv21_1_prescale -> conv21_1 (in-place)
I0407 23:14:57.545543 30941 net.cpp:150] Setting up conv21_1_prescale
I0407 23:14:57.545557 30941 net.cpp:157] Top shape: 64 150 18 18 (3110400)
I0407 23:14:57.545562 30941 net.cpp:165] Memory required for data: 5625108224
I0407 23:14:57.545570 30941 layer_factory.hpp:77] Creating layer conv21_1_sTanH
I0407 23:14:57.545580 30941 net.cpp:100] Creating Layer conv21_1_sTanH
I0407 23:14:57.545588 30941 net.cpp:434] conv21_1_sTanH <- conv21_1
I0407 23:14:57.545596 30941 net.cpp:395] conv21_1_sTanH -> conv21_1 (in-place)
I0407 23:14:57.545825 30941 net.cpp:150] Setting up conv21_1_sTanH
I0407 23:14:57.545840 30941 net.cpp:157] Top shape: 64 150 18 18 (3110400)
I0407 23:14:57.545845 30941 net.cpp:165] Memory required for data: 5637549824
I0407 23:14:57.545850 30941 layer_factory.hpp:77] Creating layer conv21_1_postscale
I0407 23:14:57.545859 30941 net.cpp:100] Creating Layer conv21_1_postscale
I0407 23:14:57.545866 30941 net.cpp:434] conv21_1_postscale <- conv21_1
I0407 23:14:57.545881 30941 net.cpp:395] conv21_1_postscale -> conv21_1 (in-place)
I0407 23:14:57.546057 30941 net.cpp:150] Setting up conv21_1_postscale
I0407 23:14:57.546069 30941 net.cpp:157] Top shape: 64 150 18 18 (3110400)
I0407 23:14:57.546074 30941 net.cpp:165] Memory required for data: 5649991424
I0407 23:14:57.546082 30941 layer_factory.hpp:77] Creating layer pool21_1
I0407 23:14:57.546090 30941 net.cpp:100] Creating Layer pool21_1
I0407 23:14:57.546103 30941 net.cpp:434] pool21_1 <- conv21_1
I0407 23:14:57.546113 30941 net.cpp:408] pool21_1 -> pool21_1
I0407 23:14:57.546187 30941 net.cpp:150] Setting up pool21_1
I0407 23:14:57.546200 30941 net.cpp:157] Top shape: 64 150 9 9 (777600)
I0407 23:14:57.546205 30941 net.cpp:165] Memory required for data: 5653101824
I0407 23:14:57.546210 30941 layer_factory.hpp:77] Creating layer conv21_2
I0407 23:14:57.546223 30941 net.cpp:100] Creating Layer conv21_2
I0407 23:14:57.546231 30941 net.cpp:434] conv21_2 <- pool21_1
I0407 23:14:57.546241 30941 net.cpp:408] conv21_2 -> conv21_2
I0407 23:14:57.552937 30941 net.cpp:150] Setting up conv21_2
I0407 23:14:57.552955 30941 net.cpp:157] Top shape: 64 250 6 6 (576000)
I0407 23:14:57.552963 30941 net.cpp:165] Memory required for data: 5655405824
I0407 23:14:57.552973 30941 layer_factory.hpp:77] Creating layer conv21_2_prescale
I0407 23:14:57.552989 30941 net.cpp:100] Creating Layer conv21_2_prescale
I0407 23:14:57.552997 30941 net.cpp:434] conv21_2_prescale <- conv21_2
I0407 23:14:57.553006 30941 net.cpp:395] conv21_2_prescale -> conv21_2 (in-place)
I0407 23:14:57.553171 30941 net.cpp:150] Setting up conv21_2_prescale
I0407 23:14:57.553184 30941 net.cpp:157] Top shape: 64 250 6 6 (576000)
I0407 23:14:57.553189 30941 net.cpp:165] Memory required for data: 5657709824
I0407 23:14:57.553196 30941 layer_factory.hpp:77] Creating layer conv21_2_sTanH
I0407 23:14:57.553205 30941 net.cpp:100] Creating Layer conv21_2_sTanH
I0407 23:14:57.553215 30941 net.cpp:434] conv21_2_sTanH <- conv21_2
I0407 23:14:57.553222 30941 net.cpp:395] conv21_2_sTanH -> conv21_2 (in-place)
I0407 23:14:57.554169 30941 net.cpp:150] Setting up conv21_2_sTanH
I0407 23:14:57.554186 30941 net.cpp:157] Top shape: 64 250 6 6 (576000)
I0407 23:14:57.554193 30941 net.cpp:165] Memory required for data: 5660013824
I0407 23:14:57.554198 30941 layer_factory.hpp:77] Creating layer conv21_2_postscale
I0407 23:14:57.554213 30941 net.cpp:100] Creating Layer conv21_2_postscale
I0407 23:14:57.554221 30941 net.cpp:434] conv21_2_postscale <- conv21_2
I0407 23:14:57.554232 30941 net.cpp:395] conv21_2_postscale -> conv21_2 (in-place)
I0407 23:14:57.554404 30941 net.cpp:150] Setting up conv21_2_postscale
I0407 23:14:57.554416 30941 net.cpp:157] Top shape: 64 250 6 6 (576000)
I0407 23:14:57.554421 30941 net.cpp:165] Memory required for data: 5662317824
I0407 23:14:57.554430 30941 layer_factory.hpp:77] Creating layer pool21_2
I0407 23:14:57.554440 30941 net.cpp:100] Creating Layer pool21_2
I0407 23:14:57.554448 30941 net.cpp:434] pool21_2 <- conv21_2
I0407 23:14:57.554457 30941 net.cpp:408] pool21_2 -> pool21_2
I0407 23:14:57.554538 30941 net.cpp:150] Setting up pool21_2
I0407 23:14:57.554559 30941 net.cpp:157] Top shape: 64 250 3 3 (144000)
I0407 23:14:57.554565 30941 net.cpp:165] Memory required for data: 5662893824
I0407 23:14:57.554570 30941 layer_factory.hpp:77] Creating layer fc21_4_300
I0407 23:14:57.554582 30941 net.cpp:100] Creating Layer fc21_4_300
I0407 23:14:57.554590 30941 net.cpp:434] fc21_4_300 <- pool21_2
I0407 23:14:57.554600 30941 net.cpp:408] fc21_4_300 -> fc21_4
I0407 23:14:57.560082 30941 net.cpp:150] Setting up fc21_4_300
I0407 23:14:57.560098 30941 net.cpp:157] Top shape: 64 300 (19200)
I0407 23:14:57.560103 30941 net.cpp:165] Memory required for data: 5662970624
I0407 23:14:57.560114 30941 layer_factory.hpp:77] Creating layer fc21_4_prescale
I0407 23:14:57.560130 30941 net.cpp:100] Creating Layer fc21_4_prescale
I0407 23:14:57.560138 30941 net.cpp:434] fc21_4_prescale <- fc21_4
I0407 23:14:57.560148 30941 net.cpp:395] fc21_4_prescale -> fc21_4 (in-place)
I0407 23:14:57.560310 30941 net.cpp:150] Setting up fc21_4_prescale
I0407 23:14:57.560323 30941 net.cpp:157] Top shape: 64 300 (19200)
I0407 23:14:57.560328 30941 net.cpp:165] Memory required for data: 5663047424
I0407 23:14:57.560335 30941 layer_factory.hpp:77] Creating layer fc21_4_sTanH
I0407 23:14:57.560345 30941 net.cpp:100] Creating Layer fc21_4_sTanH
I0407 23:14:57.560353 30941 net.cpp:434] fc21_4_sTanH <- fc21_4
I0407 23:14:57.560361 30941 net.cpp:395] fc21_4_sTanH -> fc21_4 (in-place)
I0407 23:14:57.560601 30941 net.cpp:150] Setting up fc21_4_sTanH
I0407 23:14:57.560617 30941 net.cpp:157] Top shape: 64 300 (19200)
I0407 23:14:57.560623 30941 net.cpp:165] Memory required for data: 5663124224
I0407 23:14:57.560628 30941 layer_factory.hpp:77] Creating layer fc21_4_postscale
I0407 23:14:57.560639 30941 net.cpp:100] Creating Layer fc21_4_postscale
I0407 23:14:57.560647 30941 net.cpp:434] fc21_4_postscale <- fc21_4
I0407 23:14:57.560657 30941 net.cpp:395] fc21_4_postscale -> fc21_4 (in-place)
I0407 23:14:57.560834 30941 net.cpp:150] Setting up fc21_4_postscale
I0407 23:14:57.560847 30941 net.cpp:157] Top shape: 64 300 (19200)
I0407 23:14:57.560852 30941 net.cpp:165] Memory required for data: 5663201024
I0407 23:14:57.560858 30941 layer_factory.hpp:77] Creating layer drop21_4
I0407 23:14:57.560869 30941 net.cpp:100] Creating Layer drop21_4
I0407 23:14:57.560876 30941 net.cpp:434] drop21_4 <- fc21_4
I0407 23:14:57.560889 30941 net.cpp:395] drop21_4 -> fc21_4 (in-place)
I0407 23:14:57.560940 30941 net.cpp:150] Setting up drop21_4
I0407 23:14:57.560950 30941 net.cpp:157] Top shape: 64 300 (19200)
I0407 23:14:57.560955 30941 net.cpp:165] Memory required for data: 5663277824
I0407 23:14:57.560961 30941 layer_factory.hpp:77] Creating layer fc21_5_67
I0407 23:14:57.560971 30941 net.cpp:100] Creating Layer fc21_5_67
I0407 23:14:57.560978 30941 net.cpp:434] fc21_5_67 <- fc21_4
I0407 23:14:57.560986 30941 net.cpp:408] fc21_5_67 -> fc21_5
I0407 23:14:57.561305 30941 net.cpp:150] Setting up fc21_5_67
I0407 23:14:57.561316 30941 net.cpp:157] Top shape: 64 67 (4288)
I0407 23:14:57.561321 30941 net.cpp:165] Memory required for data: 5663294976
I0407 23:14:57.561331 30941 layer_factory.hpp:77] Creating layer softmax_21
I0407 23:14:57.561344 30941 net.cpp:100] Creating Layer softmax_21
I0407 23:14:57.561352 30941 net.cpp:434] softmax_21 <- fc21_5
I0407 23:14:57.561360 30941 net.cpp:408] softmax_21 -> softmax_21
I0407 23:14:57.561691 30941 net.cpp:150] Setting up softmax_21
I0407 23:14:57.561705 30941 net.cpp:157] Top shape: 64 67 (4288)
I0407 23:14:57.561710 30941 net.cpp:165] Memory required for data: 5663312128
I0407 23:14:57.561715 30941 layer_factory.hpp:77] Creating layer conv22_0
I0407 23:14:57.561730 30941 net.cpp:100] Creating Layer conv22_0
I0407 23:14:57.561738 30941 net.cpp:434] conv22_0 <- data_4_data_4_0_split_2
I0407 23:14:57.561751 30941 net.cpp:408] conv22_0 -> conv22_0
I0407 23:14:57.563683 30941 net.cpp:150] Setting up conv22_0
I0407 23:14:57.563701 30941 net.cpp:157] Top shape: 64 100 42 42 (11289600)
I0407 23:14:57.563707 30941 net.cpp:165] Memory required for data: 5708470528
I0407 23:14:57.563740 30941 layer_factory.hpp:77] Creating layer conv22_0_prescale
I0407 23:14:57.563756 30941 net.cpp:100] Creating Layer conv22_0_prescale
I0407 23:14:57.563765 30941 net.cpp:434] conv22_0_prescale <- conv22_0
I0407 23:14:57.563777 30941 net.cpp:395] conv22_0_prescale -> conv22_0 (in-place)
I0407 23:14:57.563961 30941 net.cpp:150] Setting up conv22_0_prescale
I0407 23:14:57.563976 30941 net.cpp:157] Top shape: 64 100 42 42 (11289600)
I0407 23:14:57.563980 30941 net.cpp:165] Memory required for data: 5753628928
I0407 23:14:57.563989 30941 layer_factory.hpp:77] Creating layer conv22_0_sTanH
I0407 23:14:57.564002 30941 net.cpp:100] Creating Layer conv22_0_sTanH
I0407 23:14:57.564009 30941 net.cpp:434] conv22_0_sTanH <- conv22_0
I0407 23:14:57.564019 30941 net.cpp:395] conv22_0_sTanH -> conv22_0 (in-place)
I0407 23:14:57.564254 30941 net.cpp:150] Setting up conv22_0_sTanH
I0407 23:14:57.564270 30941 net.cpp:157] Top shape: 64 100 42 42 (11289600)
I0407 23:14:57.564275 30941 net.cpp:165] Memory required for data: 5798787328
I0407 23:14:57.564280 30941 layer_factory.hpp:77] Creating layer conv22_0_postscale
I0407 23:14:57.564292 30941 net.cpp:100] Creating Layer conv22_0_postscale
I0407 23:14:57.564301 30941 net.cpp:434] conv22_0_postscale <- conv22_0
I0407 23:14:57.564309 30941 net.cpp:395] conv22_0_postscale -> conv22_0 (in-place)
I0407 23:14:57.564486 30941 net.cpp:150] Setting up conv22_0_postscale
I0407 23:14:57.564498 30941 net.cpp:157] Top shape: 64 100 42 42 (11289600)
I0407 23:14:57.564503 30941 net.cpp:165] Memory required for data: 5843945728
I0407 23:14:57.564512 30941 layer_factory.hpp:77] Creating layer pool22_0
I0407 23:14:57.564522 30941 net.cpp:100] Creating Layer pool22_0
I0407 23:14:57.564529 30941 net.cpp:434] pool22_0 <- conv22_0
I0407 23:14:57.564538 30941 net.cpp:408] pool22_0 -> pool22_0
I0407 23:14:57.564615 30941 net.cpp:150] Setting up pool22_0
I0407 23:14:57.564627 30941 net.cpp:157] Top shape: 64 100 21 21 (2822400)
I0407 23:14:57.564632 30941 net.cpp:165] Memory required for data: 5855235328
I0407 23:14:57.564637 30941 layer_factory.hpp:77] Creating layer conv22_1
I0407 23:14:57.564651 30941 net.cpp:100] Creating Layer conv22_1
I0407 23:14:57.564658 30941 net.cpp:434] conv22_1 <- pool22_0
I0407 23:14:57.564672 30941 net.cpp:408] conv22_1 -> conv22_1
I0407 23:14:57.568987 30941 net.cpp:150] Setting up conv22_1
I0407 23:14:57.569008 30941 net.cpp:157] Top shape: 64 150 18 18 (3110400)
I0407 23:14:57.569015 30941 net.cpp:165] Memory required for data: 5867676928
I0407 23:14:57.569026 30941 layer_factory.hpp:77] Creating layer conv22_1_prescale
I0407 23:14:57.569039 30941 net.cpp:100] Creating Layer conv22_1_prescale
I0407 23:14:57.569047 30941 net.cpp:434] conv22_1_prescale <- conv22_1
I0407 23:14:57.569059 30941 net.cpp:395] conv22_1_prescale -> conv22_1 (in-place)
I0407 23:14:57.569232 30941 net.cpp:150] Setting up conv22_1_prescale
I0407 23:14:57.569245 30941 net.cpp:157] Top shape: 64 150 18 18 (3110400)
I0407 23:14:57.569250 30941 net.cpp:165] Memory required for data: 5880118528
I0407 23:14:57.569258 30941 layer_factory.hpp:77] Creating layer conv22_1_sTanH
I0407 23:14:57.569267 30941 net.cpp:100] Creating Layer conv22_1_sTanH
I0407 23:14:57.569275 30941 net.cpp:434] conv22_1_sTanH <- conv22_1
I0407 23:14:57.569285 30941 net.cpp:395] conv22_1_sTanH -> conv22_1 (in-place)
I0407 23:14:57.569517 30941 net.cpp:150] Setting up conv22_1_sTanH
I0407 23:14:57.569531 30941 net.cpp:157] Top shape: 64 150 18 18 (3110400)
I0407 23:14:57.569536 30941 net.cpp:165] Memory required for data: 5892560128
I0407 23:14:57.569542 30941 layer_factory.hpp:77] Creating layer conv22_1_postscale
I0407 23:14:57.569555 30941 net.cpp:100] Creating Layer conv22_1_postscale
I0407 23:14:57.569562 30941 net.cpp:434] conv22_1_postscale <- conv22_1
I0407 23:14:57.569571 30941 net.cpp:395] conv22_1_postscale -> conv22_1 (in-place)
I0407 23:14:57.569749 30941 net.cpp:150] Setting up conv22_1_postscale
I0407 23:14:57.569761 30941 net.cpp:157] Top shape: 64 150 18 18 (3110400)
I0407 23:14:57.569767 30941 net.cpp:165] Memory required for data: 5905001728
I0407 23:14:57.569792 30941 layer_factory.hpp:77] Creating layer pool22_1
I0407 23:14:57.569806 30941 net.cpp:100] Creating Layer pool22_1
I0407 23:14:57.569813 30941 net.cpp:434] pool22_1 <- conv22_1
I0407 23:14:57.569823 30941 net.cpp:408] pool22_1 -> pool22_1
I0407 23:14:57.569902 30941 net.cpp:150] Setting up pool22_1
I0407 23:14:57.569914 30941 net.cpp:157] Top shape: 64 150 9 9 (777600)
I0407 23:14:57.569919 30941 net.cpp:165] Memory required for data: 5908112128
I0407 23:14:57.569926 30941 layer_factory.hpp:77] Creating layer conv22_2
I0407 23:14:57.569939 30941 net.cpp:100] Creating Layer conv22_2
I0407 23:14:57.569947 30941 net.cpp:434] conv22_2 <- pool22_1
I0407 23:14:57.569957 30941 net.cpp:408] conv22_2 -> conv22_2
I0407 23:14:57.576457 30941 net.cpp:150] Setting up conv22_2
I0407 23:14:57.576474 30941 net.cpp:157] Top shape: 64 250 6 6 (576000)
I0407 23:14:57.576480 30941 net.cpp:165] Memory required for data: 5910416128
I0407 23:14:57.576503 30941 layer_factory.hpp:77] Creating layer conv22_2_prescale
I0407 23:14:57.576517 30941 net.cpp:100] Creating Layer conv22_2_prescale
I0407 23:14:57.576526 30941 net.cpp:434] conv22_2_prescale <- conv22_2
I0407 23:14:57.576535 30941 net.cpp:395] conv22_2_prescale -> conv22_2 (in-place)
I0407 23:14:57.576706 30941 net.cpp:150] Setting up conv22_2_prescale
I0407 23:14:57.576719 30941 net.cpp:157] Top shape: 64 250 6 6 (576000)
I0407 23:14:57.576725 30941 net.cpp:165] Memory required for data: 5912720128
I0407 23:14:57.576731 30941 layer_factory.hpp:77] Creating layer conv22_2_sTanH
I0407 23:14:57.576742 30941 net.cpp:100] Creating Layer conv22_2_sTanH
I0407 23:14:57.576750 30941 net.cpp:434] conv22_2_sTanH <- conv22_2
I0407 23:14:57.576758 30941 net.cpp:395] conv22_2_sTanH -> conv22_2 (in-place)
I0407 23:14:57.577706 30941 net.cpp:150] Setting up conv22_2_sTanH
I0407 23:14:57.577728 30941 net.cpp:157] Top shape: 64 250 6 6 (576000)
I0407 23:14:57.577733 30941 net.cpp:165] Memory required for data: 5915024128
I0407 23:14:57.577739 30941 layer_factory.hpp:77] Creating layer conv22_2_postscale
I0407 23:14:57.577749 30941 net.cpp:100] Creating Layer conv22_2_postscale
I0407 23:14:57.577757 30941 net.cpp:434] conv22_2_postscale <- conv22_2
I0407 23:14:57.577769 30941 net.cpp:395] conv22_2_postscale -> conv22_2 (in-place)
I0407 23:14:57.577946 30941 net.cpp:150] Setting up conv22_2_postscale
I0407 23:14:57.577958 30941 net.cpp:157] Top shape: 64 250 6 6 (576000)
I0407 23:14:57.577963 30941 net.cpp:165] Memory required for data: 5917328128
I0407 23:14:57.577971 30941 layer_factory.hpp:77] Creating layer pool22_2
I0407 23:14:57.577980 30941 net.cpp:100] Creating Layer pool22_2
I0407 23:14:57.577987 30941 net.cpp:434] pool22_2 <- conv22_2
I0407 23:14:57.577998 30941 net.cpp:408] pool22_2 -> pool22_2
I0407 23:14:57.578076 30941 net.cpp:150] Setting up pool22_2
I0407 23:14:57.578088 30941 net.cpp:157] Top shape: 64 250 3 3 (144000)
I0407 23:14:57.578094 30941 net.cpp:165] Memory required for data: 5917904128
I0407 23:14:57.578099 30941 layer_factory.hpp:77] Creating layer fc22_4_300
I0407 23:14:57.578112 30941 net.cpp:100] Creating Layer fc22_4_300
I0407 23:14:57.578119 30941 net.cpp:434] fc22_4_300 <- pool22_2
I0407 23:14:57.578128 30941 net.cpp:408] fc22_4_300 -> fc22_4
I0407 23:14:57.583601 30941 net.cpp:150] Setting up fc22_4_300
I0407 23:14:57.583618 30941 net.cpp:157] Top shape: 64 300 (19200)
I0407 23:14:57.583624 30941 net.cpp:165] Memory required for data: 5917980928
I0407 23:14:57.583636 30941 layer_factory.hpp:77] Creating layer fc22_4_prescale
I0407 23:14:57.583650 30941 net.cpp:100] Creating Layer fc22_4_prescale
I0407 23:14:57.583658 30941 net.cpp:434] fc22_4_prescale <- fc22_4
I0407 23:14:57.583667 30941 net.cpp:395] fc22_4_prescale -> fc22_4 (in-place)
I0407 23:14:57.583837 30941 net.cpp:150] Setting up fc22_4_prescale
I0407 23:14:57.583849 30941 net.cpp:157] Top shape: 64 300 (19200)
I0407 23:14:57.583854 30941 net.cpp:165] Memory required for data: 5918057728
I0407 23:14:57.583863 30941 layer_factory.hpp:77] Creating layer fc22_4_sTanH
I0407 23:14:57.583891 30941 net.cpp:100] Creating Layer fc22_4_sTanH
I0407 23:14:57.583899 30941 net.cpp:434] fc22_4_sTanH <- fc22_4
I0407 23:14:57.583907 30941 net.cpp:395] fc22_4_sTanH -> fc22_4 (in-place)
I0407 23:14:57.584144 30941 net.cpp:150] Setting up fc22_4_sTanH
I0407 23:14:57.584157 30941 net.cpp:157] Top shape: 64 300 (19200)
I0407 23:14:57.584162 30941 net.cpp:165] Memory required for data: 5918134528
I0407 23:14:57.584168 30941 layer_factory.hpp:77] Creating layer fc22_4_postscale
I0407 23:14:57.584254 30941 net.cpp:100] Creating Layer fc22_4_postscale
I0407 23:14:57.584264 30941 net.cpp:434] fc22_4_postscale <- fc22_4
I0407 23:14:57.584272 30941 net.cpp:395] fc22_4_postscale -> fc22_4 (in-place)
I0407 23:14:57.584445 30941 net.cpp:150] Setting up fc22_4_postscale
I0407 23:14:57.584457 30941 net.cpp:157] Top shape: 64 300 (19200)
I0407 23:14:57.584462 30941 net.cpp:165] Memory required for data: 5918211328
I0407 23:14:57.584471 30941 layer_factory.hpp:77] Creating layer drop22_4
I0407 23:14:57.584482 30941 net.cpp:100] Creating Layer drop22_4
I0407 23:14:57.584489 30941 net.cpp:434] drop22_4 <- fc22_4
I0407 23:14:57.584497 30941 net.cpp:395] drop22_4 -> fc22_4 (in-place)
I0407 23:14:57.584547 30941 net.cpp:150] Setting up drop22_4
I0407 23:14:57.584556 30941 net.cpp:157] Top shape: 64 300 (19200)
I0407 23:14:57.584561 30941 net.cpp:165] Memory required for data: 5918288128
I0407 23:14:57.584566 30941 layer_factory.hpp:77] Creating layer fc22_5_67
I0407 23:14:57.584575 30941 net.cpp:100] Creating Layer fc22_5_67
I0407 23:14:57.584580 30941 net.cpp:434] fc22_5_67 <- fc22_4
I0407 23:14:57.584589 30941 net.cpp:408] fc22_5_67 -> fc22_5
I0407 23:14:57.584915 30941 net.cpp:150] Setting up fc22_5_67
I0407 23:14:57.584928 30941 net.cpp:157] Top shape: 64 67 (4288)
I0407 23:14:57.584933 30941 net.cpp:165] Memory required for data: 5918305280
I0407 23:14:57.584942 30941 layer_factory.hpp:77] Creating layer softmax_22
I0407 23:14:57.584952 30941 net.cpp:100] Creating Layer softmax_22
I0407 23:14:57.584960 30941 net.cpp:434] softmax_22 <- fc22_5
I0407 23:14:57.584969 30941 net.cpp:408] softmax_22 -> softmax_22
I0407 23:14:57.585302 30941 net.cpp:150] Setting up softmax_22
I0407 23:14:57.585316 30941 net.cpp:157] Top shape: 64 67 (4288)
I0407 23:14:57.585321 30941 net.cpp:165] Memory required for data: 5918322432
I0407 23:14:57.585327 30941 layer_factory.hpp:77] Creating layer conv23_0
I0407 23:14:57.585342 30941 net.cpp:100] Creating Layer conv23_0
I0407 23:14:57.585350 30941 net.cpp:434] conv23_0 <- data_4_data_4_0_split_3
I0407 23:14:57.585366 30941 net.cpp:408] conv23_0 -> conv23_0
I0407 23:14:57.587337 30941 net.cpp:150] Setting up conv23_0
I0407 23:14:57.587354 30941 net.cpp:157] Top shape: 64 100 42 42 (11289600)
I0407 23:14:57.587360 30941 net.cpp:165] Memory required for data: 5963480832
I0407 23:14:57.587381 30941 layer_factory.hpp:77] Creating layer conv23_0_prescale
I0407 23:14:57.587393 30941 net.cpp:100] Creating Layer conv23_0_prescale
I0407 23:14:57.587402 30941 net.cpp:434] conv23_0_prescale <- conv23_0
I0407 23:14:57.587414 30941 net.cpp:395] conv23_0_prescale -> conv23_0 (in-place)
I0407 23:14:57.587594 30941 net.cpp:150] Setting up conv23_0_prescale
I0407 23:14:57.587606 30941 net.cpp:157] Top shape: 64 100 42 42 (11289600)
I0407 23:14:57.587611 30941 net.cpp:165] Memory required for data: 6008639232
I0407 23:14:57.587620 30941 layer_factory.hpp:77] Creating layer conv23_0_sTanH
I0407 23:14:57.587627 30941 net.cpp:100] Creating Layer conv23_0_sTanH
I0407 23:14:57.587635 30941 net.cpp:434] conv23_0_sTanH <- conv23_0
I0407 23:14:57.587646 30941 net.cpp:395] conv23_0_sTanH -> conv23_0 (in-place)
I0407 23:14:57.587888 30941 net.cpp:150] Setting up conv23_0_sTanH
I0407 23:14:57.587903 30941 net.cpp:157] Top shape: 64 100 42 42 (11289600)
I0407 23:14:57.587909 30941 net.cpp:165] Memory required for data: 6053797632
I0407 23:14:57.587914 30941 layer_factory.hpp:77] Creating layer conv23_0_postscale
I0407 23:14:57.587930 30941 net.cpp:100] Creating Layer conv23_0_postscale
I0407 23:14:57.587947 30941 net.cpp:434] conv23_0_postscale <- conv23_0
I0407 23:14:57.587960 30941 net.cpp:395] conv23_0_postscale -> conv23_0 (in-place)
I0407 23:14:57.588140 30941 net.cpp:150] Setting up conv23_0_postscale
I0407 23:14:57.588152 30941 net.cpp:157] Top shape: 64 100 42 42 (11289600)
I0407 23:14:57.588157 30941 net.cpp:165] Memory required for data: 6098956032
I0407 23:14:57.588165 30941 layer_factory.hpp:77] Creating layer pool23_0
I0407 23:14:57.588176 30941 net.cpp:100] Creating Layer pool23_0
I0407 23:14:57.588184 30941 net.cpp:434] pool23_0 <- conv23_0
I0407 23:14:57.588192 30941 net.cpp:408] pool23_0 -> pool23_0
I0407 23:14:57.588270 30941 net.cpp:150] Setting up pool23_0
I0407 23:14:57.588282 30941 net.cpp:157] Top shape: 64 100 21 21 (2822400)
I0407 23:14:57.588286 30941 net.cpp:165] Memory required for data: 6110245632
I0407 23:14:57.588292 30941 layer_factory.hpp:77] Creating layer conv23_1
I0407 23:14:57.588305 30941 net.cpp:100] Creating Layer conv23_1
I0407 23:14:57.588313 30941 net.cpp:434] conv23_1 <- pool23_0
I0407 23:14:57.588325 30941 net.cpp:408] conv23_1 -> conv23_1
I0407 23:14:57.591683 30941 net.cpp:150] Setting up conv23_1
I0407 23:14:57.591704 30941 net.cpp:157] Top shape: 64 150 18 18 (3110400)
I0407 23:14:57.591711 30941 net.cpp:165] Memory required for data: 6122687232
I0407 23:14:57.591722 30941 layer_factory.hpp:77] Creating layer conv23_1_prescale
I0407 23:14:57.591735 30941 net.cpp:100] Creating Layer conv23_1_prescale
I0407 23:14:57.591744 30941 net.cpp:434] conv23_1_prescale <- conv23_1
I0407 23:14:57.591756 30941 net.cpp:395] conv23_1_prescale -> conv23_1 (in-place)
I0407 23:14:57.591953 30941 net.cpp:150] Setting up conv23_1_prescale
I0407 23:14:57.591966 30941 net.cpp:157] Top shape: 64 150 18 18 (3110400)
I0407 23:14:57.591971 30941 net.cpp:165] Memory required for data: 6135128832
I0407 23:14:57.591979 30941 layer_factory.hpp:77] Creating layer conv23_1_sTanH
I0407 23:14:57.591989 30941 net.cpp:100] Creating Layer conv23_1_sTanH
I0407 23:14:57.591997 30941 net.cpp:434] conv23_1_sTanH <- conv23_1
I0407 23:14:57.592005 30941 net.cpp:395] conv23_1_sTanH -> conv23_1 (in-place)
I0407 23:14:57.592242 30941 net.cpp:150] Setting up conv23_1_sTanH
I0407 23:14:57.592257 30941 net.cpp:157] Top shape: 64 150 18 18 (3110400)
I0407 23:14:57.592262 30941 net.cpp:165] Memory required for data: 6147570432
I0407 23:14:57.592268 30941 layer_factory.hpp:77] Creating layer conv23_1_postscale
I0407 23:14:57.592278 30941 net.cpp:100] Creating Layer conv23_1_postscale
I0407 23:14:57.592286 30941 net.cpp:434] conv23_1_postscale <- conv23_1
I0407 23:14:57.592298 30941 net.cpp:395] conv23_1_postscale -> conv23_1 (in-place)
I0407 23:14:57.592478 30941 net.cpp:150] Setting up conv23_1_postscale
I0407 23:14:57.592490 30941 net.cpp:157] Top shape: 64 150 18 18 (3110400)
I0407 23:14:57.592495 30941 net.cpp:165] Memory required for data: 6160012032
I0407 23:14:57.592504 30941 layer_factory.hpp:77] Creating layer pool23_1
I0407 23:14:57.592514 30941 net.cpp:100] Creating Layer pool23_1
I0407 23:14:57.592521 30941 net.cpp:434] pool23_1 <- conv23_1
I0407 23:14:57.592533 30941 net.cpp:408] pool23_1 -> pool23_1
I0407 23:14:57.592615 30941 net.cpp:150] Setting up pool23_1
I0407 23:14:57.592628 30941 net.cpp:157] Top shape: 64 150 9 9 (777600)
I0407 23:14:57.592633 30941 net.cpp:165] Memory required for data: 6163122432
I0407 23:14:57.592638 30941 layer_factory.hpp:77] Creating layer conv23_2
I0407 23:14:57.592650 30941 net.cpp:100] Creating Layer conv23_2
I0407 23:14:57.592658 30941 net.cpp:434] conv23_2 <- pool23_1
I0407 23:14:57.592669 30941 net.cpp:408] conv23_2 -> conv23_2
I0407 23:14:57.600489 30941 net.cpp:150] Setting up conv23_2
I0407 23:14:57.600507 30941 net.cpp:157] Top shape: 64 250 6 6 (576000)
I0407 23:14:57.600514 30941 net.cpp:165] Memory required for data: 6165426432
I0407 23:14:57.600524 30941 layer_factory.hpp:77] Creating layer conv23_2_prescale
I0407 23:14:57.600543 30941 net.cpp:100] Creating Layer conv23_2_prescale
I0407 23:14:57.600550 30941 net.cpp:434] conv23_2_prescale <- conv23_2
I0407 23:14:57.600574 30941 net.cpp:395] conv23_2_prescale -> conv23_2 (in-place)
I0407 23:14:57.600747 30941 net.cpp:150] Setting up conv23_2_prescale
I0407 23:14:57.600760 30941 net.cpp:157] Top shape: 64 250 6 6 (576000)
I0407 23:14:57.600765 30941 net.cpp:165] Memory required for data: 6167730432
I0407 23:14:57.600774 30941 layer_factory.hpp:77] Creating layer conv23_2_sTanH
I0407 23:14:57.600781 30941 net.cpp:100] Creating Layer conv23_2_sTanH
I0407 23:14:57.600790 30941 net.cpp:434] conv23_2_sTanH <- conv23_2
I0407 23:14:57.600800 30941 net.cpp:395] conv23_2_sTanH -> conv23_2 (in-place)
I0407 23:14:57.602345 30941 net.cpp:150] Setting up conv23_2_sTanH
I0407 23:14:57.602365 30941 net.cpp:157] Top shape: 64 250 6 6 (576000)
I0407 23:14:57.602370 30941 net.cpp:165] Memory required for data: 6170034432
I0407 23:14:57.602376 30941 layer_factory.hpp:77] Creating layer conv23_2_postscale
I0407 23:14:57.602386 30941 net.cpp:100] Creating Layer conv23_2_postscale
I0407 23:14:57.602396 30941 net.cpp:434] conv23_2_postscale <- conv23_2
I0407 23:14:57.602408 30941 net.cpp:395] conv23_2_postscale -> conv23_2 (in-place)
I0407 23:14:57.602586 30941 net.cpp:150] Setting up conv23_2_postscale
I0407 23:14:57.602599 30941 net.cpp:157] Top shape: 64 250 6 6 (576000)
I0407 23:14:57.602604 30941 net.cpp:165] Memory required for data: 6172338432
I0407 23:14:57.602612 30941 layer_factory.hpp:77] Creating layer pool23_2
I0407 23:14:57.602622 30941 net.cpp:100] Creating Layer pool23_2
I0407 23:14:57.602629 30941 net.cpp:434] pool23_2 <- conv23_2
I0407 23:14:57.602638 30941 net.cpp:408] pool23_2 -> pool23_2
I0407 23:14:57.602717 30941 net.cpp:150] Setting up pool23_2
I0407 23:14:57.602728 30941 net.cpp:157] Top shape: 64 250 3 3 (144000)
I0407 23:14:57.602733 30941 net.cpp:165] Memory required for data: 6172914432
I0407 23:14:57.602740 30941 layer_factory.hpp:77] Creating layer fc23_4_300
I0407 23:14:57.602751 30941 net.cpp:100] Creating Layer fc23_4_300
I0407 23:14:57.602758 30941 net.cpp:434] fc23_4_300 <- pool23_2
I0407 23:14:57.602767 30941 net.cpp:408] fc23_4_300 -> fc23_4
I0407 23:14:57.609733 30941 net.cpp:150] Setting up fc23_4_300
I0407 23:14:57.609750 30941 net.cpp:157] Top shape: 64 300 (19200)
I0407 23:14:57.609755 30941 net.cpp:165] Memory required for data: 6172991232
I0407 23:14:57.609766 30941 layer_factory.hpp:77] Creating layer fc23_4_prescale
I0407 23:14:57.609781 30941 net.cpp:100] Creating Layer fc23_4_prescale
I0407 23:14:57.609788 30941 net.cpp:434] fc23_4_prescale <- fc23_4
I0407 23:14:57.609797 30941 net.cpp:395] fc23_4_prescale -> fc23_4 (in-place)
I0407 23:14:57.609977 30941 net.cpp:150] Setting up fc23_4_prescale
I0407 23:14:57.609989 30941 net.cpp:157] Top shape: 64 300 (19200)
I0407 23:14:57.609994 30941 net.cpp:165] Memory required for data: 6173068032
I0407 23:14:57.610002 30941 layer_factory.hpp:77] Creating layer fc23_4_sTanH
I0407 23:14:57.610014 30941 net.cpp:100] Creating Layer fc23_4_sTanH
I0407 23:14:57.610023 30941 net.cpp:434] fc23_4_sTanH <- fc23_4
I0407 23:14:57.610029 30941 net.cpp:395] fc23_4_sTanH -> fc23_4 (in-place)
I0407 23:14:57.610271 30941 net.cpp:150] Setting up fc23_4_sTanH
I0407 23:14:57.610285 30941 net.cpp:157] Top shape: 64 300 (19200)
I0407 23:14:57.610291 30941 net.cpp:165] Memory required for data: 6173144832
I0407 23:14:57.610296 30941 layer_factory.hpp:77] Creating layer fc23_4_postscale
I0407 23:14:57.610308 30941 net.cpp:100] Creating Layer fc23_4_postscale
I0407 23:14:57.610316 30941 net.cpp:434] fc23_4_postscale <- fc23_4
I0407 23:14:57.610327 30941 net.cpp:395] fc23_4_postscale -> fc23_4 (in-place)
I0407 23:14:57.610509 30941 net.cpp:150] Setting up fc23_4_postscale
I0407 23:14:57.610520 30941 net.cpp:157] Top shape: 64 300 (19200)
I0407 23:14:57.610525 30941 net.cpp:165] Memory required for data: 6173221632
I0407 23:14:57.610533 30941 layer_factory.hpp:77] Creating layer drop23_4
I0407 23:14:57.610543 30941 net.cpp:100] Creating Layer drop23_4
I0407 23:14:57.610550 30941 net.cpp:434] drop23_4 <- fc23_4
I0407 23:14:57.610561 30941 net.cpp:395] drop23_4 -> fc23_4 (in-place)
I0407 23:14:57.610627 30941 net.cpp:150] Setting up drop23_4
I0407 23:14:57.610638 30941 net.cpp:157] Top shape: 64 300 (19200)
I0407 23:14:57.610643 30941 net.cpp:165] Memory required for data: 6173298432
I0407 23:14:57.610648 30941 layer_factory.hpp:77] Creating layer fc23_5_67
I0407 23:14:57.610661 30941 net.cpp:100] Creating Layer fc23_5_67
I0407 23:14:57.610667 30941 net.cpp:434] fc23_5_67 <- fc23_4
I0407 23:14:57.610677 30941 net.cpp:408] fc23_5_67 -> fc23_5
I0407 23:14:57.611001 30941 net.cpp:150] Setting up fc23_5_67
I0407 23:14:57.611013 30941 net.cpp:157] Top shape: 64 67 (4288)
I0407 23:14:57.611017 30941 net.cpp:165] Memory required for data: 6173315584
I0407 23:14:57.611027 30941 layer_factory.hpp:77] Creating layer softmax_23
I0407 23:14:57.611037 30941 net.cpp:100] Creating Layer softmax_23
I0407 23:14:57.611044 30941 net.cpp:434] softmax_23 <- fc23_5
I0407 23:14:57.611053 30941 net.cpp:408] softmax_23 -> softmax_23
I0407 23:14:57.611395 30941 net.cpp:150] Setting up softmax_23
I0407 23:14:57.611409 30941 net.cpp:157] Top shape: 64 67 (4288)
I0407 23:14:57.611414 30941 net.cpp:165] Memory required for data: 6173332736
I0407 23:14:57.611420 30941 layer_factory.hpp:77] Creating layer conv24_0
I0407 23:14:57.611435 30941 net.cpp:100] Creating Layer conv24_0
I0407 23:14:57.611443 30941 net.cpp:434] conv24_0 <- data_4_data_4_0_split_4
I0407 23:14:57.611454 30941 net.cpp:408] conv24_0 -> conv24_0
I0407 23:14:57.616264 30941 net.cpp:150] Setting up conv24_0
I0407 23:14:57.616283 30941 net.cpp:157] Top shape: 64 100 42 42 (11289600)
I0407 23:14:57.616289 30941 net.cpp:165] Memory required for data: 6218491136
I0407 23:14:57.616300 30941 layer_factory.hpp:77] Creating layer conv24_0_prescale
I0407 23:14:57.616313 30941 net.cpp:100] Creating Layer conv24_0_prescale
I0407 23:14:57.616322 30941 net.cpp:434] conv24_0_prescale <- conv24_0
I0407 23:14:57.616338 30941 net.cpp:395] conv24_0_prescale -> conv24_0 (in-place)
I0407 23:14:57.616519 30941 net.cpp:150] Setting up conv24_0_prescale
I0407 23:14:57.616533 30941 net.cpp:157] Top shape: 64 100 42 42 (11289600)
I0407 23:14:57.616538 30941 net.cpp:165] Memory required for data: 6263649536
I0407 23:14:57.616545 30941 layer_factory.hpp:77] Creating layer conv24_0_sTanH
I0407 23:14:57.616554 30941 net.cpp:100] Creating Layer conv24_0_sTanH
I0407 23:14:57.616560 30941 net.cpp:434] conv24_0_sTanH <- conv24_0
I0407 23:14:57.616570 30941 net.cpp:395] conv24_0_sTanH -> conv24_0 (in-place)
I0407 23:14:57.616812 30941 net.cpp:150] Setting up conv24_0_sTanH
I0407 23:14:57.616829 30941 net.cpp:157] Top shape: 64 100 42 42 (11289600)
I0407 23:14:57.616835 30941 net.cpp:165] Memory required for data: 6308807936
I0407 23:14:57.616840 30941 layer_factory.hpp:77] Creating layer conv24_0_postscale
I0407 23:14:57.616850 30941 net.cpp:100] Creating Layer conv24_0_postscale
I0407 23:14:57.616858 30941 net.cpp:434] conv24_0_postscale <- conv24_0
I0407 23:14:57.616869 30941 net.cpp:395] conv24_0_postscale -> conv24_0 (in-place)
I0407 23:14:57.617053 30941 net.cpp:150] Setting up conv24_0_postscale
I0407 23:14:57.617066 30941 net.cpp:157] Top shape: 64 100 42 42 (11289600)
I0407 23:14:57.617071 30941 net.cpp:165] Memory required for data: 6353966336
I0407 23:14:57.617079 30941 layer_factory.hpp:77] Creating layer pool24_0
I0407 23:14:57.617089 30941 net.cpp:100] Creating Layer pool24_0
I0407 23:14:57.617095 30941 net.cpp:434] pool24_0 <- conv24_0
I0407 23:14:57.617105 30941 net.cpp:408] pool24_0 -> pool24_0
I0407 23:14:57.617184 30941 net.cpp:150] Setting up pool24_0
I0407 23:14:57.617195 30941 net.cpp:157] Top shape: 64 100 21 21 (2822400)
I0407 23:14:57.617200 30941 net.cpp:165] Memory required for data: 6365255936
I0407 23:14:57.617205 30941 layer_factory.hpp:77] Creating layer conv24_1
I0407 23:14:57.617223 30941 net.cpp:100] Creating Layer conv24_1
I0407 23:14:57.617229 30941 net.cpp:434] conv24_1 <- pool24_0
I0407 23:14:57.617241 30941 net.cpp:408] conv24_1 -> conv24_1
I0407 23:14:57.622340 30941 net.cpp:150] Setting up conv24_1
I0407 23:14:57.622361 30941 net.cpp:157] Top shape: 64 150 18 18 (3110400)
I0407 23:14:57.622383 30941 net.cpp:165] Memory required for data: 6377697536
I0407 23:14:57.622396 30941 layer_factory.hpp:77] Creating layer conv24_1_prescale
I0407 23:14:57.622409 30941 net.cpp:100] Creating Layer conv24_1_prescale
I0407 23:14:57.622418 30941 net.cpp:434] conv24_1_prescale <- conv24_1
I0407 23:14:57.622431 30941 net.cpp:395] conv24_1_prescale -> conv24_1 (in-place)
I0407 23:14:57.622614 30941 net.cpp:150] Setting up conv24_1_prescale
I0407 23:14:57.622627 30941 net.cpp:157] Top shape: 64 150 18 18 (3110400)
I0407 23:14:57.622632 30941 net.cpp:165] Memory required for data: 6390139136
I0407 23:14:57.622640 30941 layer_factory.hpp:77] Creating layer conv24_1_sTanH
I0407 23:14:57.622648 30941 net.cpp:100] Creating Layer conv24_1_sTanH
I0407 23:14:57.622656 30941 net.cpp:434] conv24_1_sTanH <- conv24_1
I0407 23:14:57.622663 30941 net.cpp:395] conv24_1_sTanH -> conv24_1 (in-place)
I0407 23:14:57.622902 30941 net.cpp:150] Setting up conv24_1_sTanH
I0407 23:14:57.622917 30941 net.cpp:157] Top shape: 64 150 18 18 (3110400)
I0407 23:14:57.622922 30941 net.cpp:165] Memory required for data: 6402580736
I0407 23:14:57.622928 30941 layer_factory.hpp:77] Creating layer conv24_1_postscale
I0407 23:14:57.622941 30941 net.cpp:100] Creating Layer conv24_1_postscale
I0407 23:14:57.622949 30941 net.cpp:434] conv24_1_postscale <- conv24_1
I0407 23:14:57.622959 30941 net.cpp:395] conv24_1_postscale -> conv24_1 (in-place)
I0407 23:14:57.623141 30941 net.cpp:150] Setting up conv24_1_postscale
I0407 23:14:57.623153 30941 net.cpp:157] Top shape: 64 150 18 18 (3110400)
I0407 23:14:57.623158 30941 net.cpp:165] Memory required for data: 6415022336
I0407 23:14:57.623167 30941 layer_factory.hpp:77] Creating layer pool24_1
I0407 23:14:57.623178 30941 net.cpp:100] Creating Layer pool24_1
I0407 23:14:57.623184 30941 net.cpp:434] pool24_1 <- conv24_1
I0407 23:14:57.623193 30941 net.cpp:408] pool24_1 -> pool24_1
I0407 23:14:57.623275 30941 net.cpp:150] Setting up pool24_1
I0407 23:14:57.623286 30941 net.cpp:157] Top shape: 64 150 9 9 (777600)
I0407 23:14:57.623291 30941 net.cpp:165] Memory required for data: 6418132736
I0407 23:14:57.623296 30941 layer_factory.hpp:77] Creating layer conv24_2
I0407 23:14:57.623311 30941 net.cpp:100] Creating Layer conv24_2
I0407 23:14:57.623317 30941 net.cpp:434] conv24_2 <- pool24_1
I0407 23:14:57.623327 30941 net.cpp:408] conv24_2 -> conv24_2
I0407 23:14:57.635202 30941 net.cpp:150] Setting up conv24_2
I0407 23:14:57.635221 30941 net.cpp:157] Top shape: 64 250 6 6 (576000)
I0407 23:14:57.635226 30941 net.cpp:165] Memory required for data: 6420436736
I0407 23:14:57.635247 30941 layer_factory.hpp:77] Creating layer conv24_2_prescale
I0407 23:14:57.635263 30941 net.cpp:100] Creating Layer conv24_2_prescale
I0407 23:14:57.635272 30941 net.cpp:434] conv24_2_prescale <- conv24_2
I0407 23:14:57.635282 30941 net.cpp:395] conv24_2_prescale -> conv24_2 (in-place)
I0407 23:14:57.635458 30941 net.cpp:150] Setting up conv24_2_prescale
I0407 23:14:57.635471 30941 net.cpp:157] Top shape: 64 250 6 6 (576000)
I0407 23:14:57.635476 30941 net.cpp:165] Memory required for data: 6422740736
I0407 23:14:57.635484 30941 layer_factory.hpp:77] Creating layer conv24_2_sTanH
I0407 23:14:57.635501 30941 net.cpp:100] Creating Layer conv24_2_sTanH
I0407 23:14:57.635509 30941 net.cpp:434] conv24_2_sTanH <- conv24_2
I0407 23:14:57.635516 30941 net.cpp:395] conv24_2_sTanH -> conv24_2 (in-place)
I0407 23:14:57.642307 30941 net.cpp:150] Setting up conv24_2_sTanH
I0407 23:14:57.642323 30941 net.cpp:157] Top shape: 64 250 6 6 (576000)
I0407 23:14:57.642330 30941 net.cpp:165] Memory required for data: 6425044736
I0407 23:14:57.642335 30941 layer_factory.hpp:77] Creating layer conv24_2_postscale
I0407 23:14:57.642357 30941 net.cpp:100] Creating Layer conv24_2_postscale
I0407 23:14:57.642366 30941 net.cpp:434] conv24_2_postscale <- conv24_2
I0407 23:14:57.642379 30941 net.cpp:395] conv24_2_postscale -> conv24_2 (in-place)
I0407 23:14:57.642565 30941 net.cpp:150] Setting up conv24_2_postscale
I0407 23:14:57.642576 30941 net.cpp:157] Top shape: 64 250 6 6 (576000)
I0407 23:14:57.642597 30941 net.cpp:165] Memory required for data: 6427348736
I0407 23:14:57.642607 30941 layer_factory.hpp:77] Creating layer pool24_2
I0407 23:14:57.642619 30941 net.cpp:100] Creating Layer pool24_2
I0407 23:14:57.642627 30941 net.cpp:434] pool24_2 <- conv24_2
I0407 23:14:57.642639 30941 net.cpp:408] pool24_2 -> pool24_2
I0407 23:14:57.642746 30941 net.cpp:150] Setting up pool24_2
I0407 23:14:57.642760 30941 net.cpp:157] Top shape: 64 250 3 3 (144000)
I0407 23:14:57.642765 30941 net.cpp:165] Memory required for data: 6427924736
I0407 23:14:57.642771 30941 layer_factory.hpp:77] Creating layer fc24_4_300
I0407 23:14:57.642779 30941 net.cpp:100] Creating Layer fc24_4_300
I0407 23:14:57.642787 30941 net.cpp:434] fc24_4_300 <- pool24_2
I0407 23:14:57.642797 30941 net.cpp:408] fc24_4_300 -> fc24_4
I0407 23:14:57.648375 30941 net.cpp:150] Setting up fc24_4_300
I0407 23:14:57.648391 30941 net.cpp:157] Top shape: 64 300 (19200)
I0407 23:14:57.648396 30941 net.cpp:165] Memory required for data: 6428001536
I0407 23:14:57.648418 30941 layer_factory.hpp:77] Creating layer fc24_4_prescale
I0407 23:14:57.648433 30941 net.cpp:100] Creating Layer fc24_4_prescale
I0407 23:14:57.648440 30941 net.cpp:434] fc24_4_prescale <- fc24_4
I0407 23:14:57.648449 30941 net.cpp:395] fc24_4_prescale -> fc24_4 (in-place)
I0407 23:14:57.648629 30941 net.cpp:150] Setting up fc24_4_prescale
I0407 23:14:57.648643 30941 net.cpp:157] Top shape: 64 300 (19200)
I0407 23:14:57.648646 30941 net.cpp:165] Memory required for data: 6428078336
I0407 23:14:57.648654 30941 layer_factory.hpp:77] Creating layer fc24_4_sTanH
I0407 23:14:57.648665 30941 net.cpp:100] Creating Layer fc24_4_sTanH
I0407 23:14:57.648672 30941 net.cpp:434] fc24_4_sTanH <- fc24_4
I0407 23:14:57.648680 30941 net.cpp:395] fc24_4_sTanH -> fc24_4 (in-place)
I0407 23:14:57.648921 30941 net.cpp:150] Setting up fc24_4_sTanH
I0407 23:14:57.648937 30941 net.cpp:157] Top shape: 64 300 (19200)
I0407 23:14:57.648942 30941 net.cpp:165] Memory required for data: 6428155136
I0407 23:14:57.648947 30941 layer_factory.hpp:77] Creating layer fc24_4_postscale
I0407 23:14:57.648957 30941 net.cpp:100] Creating Layer fc24_4_postscale
I0407 23:14:57.648965 30941 net.cpp:434] fc24_4_postscale <- fc24_4
I0407 23:14:57.648977 30941 net.cpp:395] fc24_4_postscale -> fc24_4 (in-place)
I0407 23:14:57.649164 30941 net.cpp:150] Setting up fc24_4_postscale
I0407 23:14:57.649178 30941 net.cpp:157] Top shape: 64 300 (19200)
I0407 23:14:57.649181 30941 net.cpp:165] Memory required for data: 6428231936
I0407 23:14:57.649189 30941 layer_factory.hpp:77] Creating layer drop24_4
I0407 23:14:57.649200 30941 net.cpp:100] Creating Layer drop24_4
I0407 23:14:57.649207 30941 net.cpp:434] drop24_4 <- fc24_4
I0407 23:14:57.649215 30941 net.cpp:395] drop24_4 -> fc24_4 (in-place)
I0407 23:14:57.649268 30941 net.cpp:150] Setting up drop24_4
I0407 23:14:57.649277 30941 net.cpp:157] Top shape: 64 300 (19200)
I0407 23:14:57.649282 30941 net.cpp:165] Memory required for data: 6428308736
I0407 23:14:57.649287 30941 layer_factory.hpp:77] Creating layer fc24_5_67
I0407 23:14:57.649298 30941 net.cpp:100] Creating Layer fc24_5_67
I0407 23:14:57.649305 30941 net.cpp:434] fc24_5_67 <- fc24_4
I0407 23:14:57.649313 30941 net.cpp:408] fc24_5_67 -> fc24_5
I0407 23:14:57.649646 30941 net.cpp:150] Setting up fc24_5_67
I0407 23:14:57.649657 30941 net.cpp:157] Top shape: 64 67 (4288)
I0407 23:14:57.649662 30941 net.cpp:165] Memory required for data: 6428325888
I0407 23:14:57.649672 30941 layer_factory.hpp:77] Creating layer softmax_24
I0407 23:14:57.649684 30941 net.cpp:100] Creating Layer softmax_24
I0407 23:14:57.649691 30941 net.cpp:434] softmax_24 <- fc24_5
I0407 23:14:57.649699 30941 net.cpp:408] softmax_24 -> softmax_24
I0407 23:14:57.650043 30941 net.cpp:150] Setting up softmax_24
I0407 23:14:57.650058 30941 net.cpp:157] Top shape: 64 67 (4288)
I0407 23:14:57.650063 30941 net.cpp:165] Memory required for data: 6428343040
I0407 23:14:57.650068 30941 layer_factory.hpp:77] Creating layer averaging
I0407 23:14:57.650085 30941 net.cpp:100] Creating Layer averaging
I0407 23:14:57.650104 30941 net.cpp:434] averaging <- softmax_0
I0407 23:14:57.650112 30941 net.cpp:434] averaging <- softmax_1
I0407 23:14:57.650121 30941 net.cpp:434] averaging <- softmax_2
…
