…
I0408 20:53:28.213680 17265 net.cpp:322] The NetState phase (0) differed from the phase (1) specified by a rule in layer accuracy_5
I0408 20:53:28.214371 17265 net.cpp:58] Initializing net from parameters: 
state {
  phase: TRAIN
  level: 0
  stage: ""
}
layer {
  name: "data_0"
  type: "Data"
  top: "data_0"
  top: "label_0"
  include {
    phase: TRAIN
  }
  transform_param {
    mirror: false
    crop_size: 48
    mean_value: 115
    mean_value: 107
    mean_value: 120
  }
  data_param {
    source: "../local_data/lmdb/rtsd-r1/orig/train/lmdb"
    batch_size: 200
    backend: LMDB
  }
}
layer {
  name: "conv0_0"
  type: "Convolution"
  bottom: "data_0"
  top: "conv0_0"
  convolution_param {
    num_output: 100
    pad: 0
    kernel_size: 7
    group: 1
    stride: 1
    weight_filler {
      type: "xavier"
    }
  }
}
layer {
  name: "conv0_0_prescale"
  type: "Scale"
  bottom: "conv0_0"
  top: "conv0_0"
  param {
    lr_mult: 0
    decay_mult: 0
  }
  scale_param {
    filler {
      value: 0.6666
    }
  }
}
layer {
  name: "conv0_0_sTanH"
  type: "TanH"
  bottom: "conv0_0"
  top: "conv0_0"
}
layer {
  name: "conv0_0_postscale"
  type: "Scale"
  bottom: "conv0_0"
  top: "conv0_0"
  param {
    lr_mult: 0
    decay_mult: 0
  }
  scale_param {
    filler {
      value: 1.7159
    }
  }
}
layer {
  name: "pool0_0"
  type: "Pooling"
  bottom: "conv0_0"
  top: "pool0_0"
  pooling_param {
    pool: MAX
    kernel_size: 2
    stride: 2
  }
}
layer {
  name: "conv0_1"
  type: "Convolution"
  bottom: "pool0_0"
  top: "conv0_1"
  convolution_param {
    num_output: 150
    pad: 0
    kernel_size: 4
    group: 1
    stride: 1
    weight_filler {
      type: "xavier"
    }
  }
}
layer {
  name: "conv0_1_prescale"
  type: "Scale"
  bottom: "conv0_1"
  top: "conv0_1"
  param {
    lr_mult: 0
    decay_mult: 0
  }
  scale_param {
    filler {
      value: 0.6666
    }
  }
}
layer {
  name: "conv0_1_sTanH"
  type: "TanH"
  bottom: "conv0_1"
  top: "conv0_1"
}
layer {
  name: "conv0_1_postscale"
  type: "Scale"
  bottom: "conv0_1"
  top: "conv0_1"
  param {
    lr_mult: 0
    decay_mult: 0
  }
  scale_param {
    filler {
      value: 1.7159
    }
  }
}
layer {
  name: "pool0_1"
  type: "Pooling"
  bottom: "conv0_1"
  top: "pool0_1"
  pooling_param {
    pool: MAX
    kernel_size: 2
    stride: 2
  }
}
layer {
  name: "conv0_2"
  type: "Convolution"
  bottom: "pool0_1"
  top: "conv0_2"
  convolution_param {
    num_output: 250
    pad: 0
    kernel_size: 4
    group: 1
    stride: 1
    weight_filler {
      type: "xavier"
    }
  }
}
layer {
  name: "conv0_2_prescale"
  type: "Scale"
  bottom: "conv0_2"
  top: "conv0_2"
  param {
    lr_mult: 0
    decay_mult: 0
  }
  scale_param {
    filler {
      value: 0.6666
    }
  }
}
layer {
  name: "conv0_2_sTanH"
  type: "TanH"
  bottom: "conv0_2"
  top: "conv0_2"
}
layer {
  name: "conv0_2_postscale"
  type: "Scale"
  bottom: "conv0_2"
  top: "conv0_2"
  param {
    lr_mult: 0
    decay_mult: 0
  }
  scale_param {
    filler {
      value: 1.7159
    }
  }
}
layer {
  name: "pool0_2"
  type: "Pooling"
  bottom: "conv0_2"
  top: "pool0_2"
  pooling_param {
    pool: MAX
    kernel_size: 2
    stride: 2
  }
}
layer {
  name: "fc0_4_300"
  type: "InnerProduct"
  bottom: "pool0_2"
  top: "fc0_4"
  inner_product_param {
    num_output: 300
    weight_filler {
      type: "xavier"
    }
  }
}
layer {
  name: "fc0_4_prescale"
  type: "Scale"
  bottom: "fc0_4"
  top: "fc0_4"
  param {
    lr_mult: 0
    decay_mult: 0
  }
  scale_param {
    filler {
      value: 0.6666
    }
  }
}
layer {
  name: "fc0_4_sTanH"
  type: "TanH"
  bottom: "fc0_4"
  top: "fc0_4"
}
layer {
  name: "fc0_4_postscale"
  type: "Scale"
  bottom: "fc0_4"
  top: "fc0_4"
  param {
    lr_mult: 0
    decay_mult: 0
  }
  scale_param {
    filler {
      value: 1.7159
    }
  }
}
layer {
  name: "drop0_4"
  type: "Dropout"
  bottom: "fc0_4"
  top: "fc0_4"
  dropout_param {
    dropout_ratio: 0.4
  }
}
layer {
  name: "fc0_5_67"
  type: "InnerProduct"
  bottom: "fc0_4"
  top: "fc0_5"
  inner_product_param {
    num_output: 67
    weight_filler {
      type: "xavier"
    }
  }
}
layer {
  name: "softmax_0"
  type: "Softmax"
  bottom: "fc0_5"
  top: "softmax_0"
}
layer {
  name: "data_1"
  type: "Data"
  top: "data_1"
  top: "label_1"
  include {
    phase: TRAIN
  }
  transform_param {
    mirror: false
    crop_size: 48
    mean_value: 122
    mean_value: 115
    mean_value: 128
  }
  data_param {
    source: "../local_data/lmdb/rtsd-r1/histeq/train/lmdb"
    batch_size: 200
    backend: LMDB
  }
}
layer {
  name: "conv1_0"
  type: "Convolution"
  bottom: "data_1"
  top: "conv1_0"
  convolution_param {
    num_output: 100
    pad: 0
    kernel_size: 7
    group: 1
    stride: 1
    weight_filler {
      type: "xavier"
    }
  }
}
layer {
  name: "conv1_0_prescale"
  type: "Scale"
  bottom: "conv1_0"
  top: "conv1_0"
  param {
    lr_mult: 0
    decay_mult: 0
  }
  scale_param {
    filler {
      value: 0.6666
    }
  }
}
layer {
  name: "conv1_0_sTanH"
  type: "TanH"
  bottom: "conv1_0"
  top: "conv1_0"
}
layer {
  name: "conv1_0_postscale"
  type: "Scale"
  bottom: "conv1_0"
  top: "conv1_0"
  param {
    lr_mult: 0
    decay_mult: 0
  }
  scale_param {
    filler {
      value: 1.7159
    }
  }
}
layer {
  name: "pool1_0"
  type: "Pooling"
  bottom: "conv1_0"
  top: "pool1_0"
  pooling_param {
    pool: MAX
    kernel_size: 2
    stride: 2
  }
}
layer {
  name: "conv1_1"
  type: "Convolution"
  bottom: "pool1_0"
  top: "conv1_1"
  convolution_param {
    num_output: 150
    pad: 0
    kernel_size: 4
    group: 1
    stride: 1
    weight_filler {
      type: "xavier"
    }
  }
}
layer {
  name: "conv1_1_prescale"
  type: "Scale"
  bottom: "conv1_1"
  top: "conv1_1"
  param {
    lr_mult: 0
    decay_mult: 0
  }
  scale_param {
    filler {
      value: 0.6666
    }
  }
}
layer {
  name: "conv1_1_sTanH"
  type: "TanH"
  bottom: "conv1_1"
  top: "conv1_1"
}
layer {
  name: "conv1_1_postscale"
  type: "Scale"
  bottom: "conv1_1"
  top: "conv1_1"
  param {
    lr_mult: 0
    decay_mult: 0
  }
  scale_param {
    filler {
      value: 1.7159
    }
  }
}
layer {
  name: "pool1_1"
  type: "Pooling"
  bottom: "conv1_1"
  top: "pool1_1"
  pooling_param {
    pool: MAX
    kernel_size: 2
    stride: 2
  }
}
layer {
  name: "conv1_2"
  type: "Convolution"
  bottom: "pool1_1"
  top: "conv1_2"
  convolution_param {
    num_output: 250
    pad: 0
    kernel_size: 4
    group: 1
    stride: 1
    weight_filler {
      type: "xavier"
    }
  }
}
layer {
  name: "conv1_2_prescale"
  type: "Scale"
  bottom: "conv1_2"
  top: "conv1_2"
  param {
    lr_mult: 0
    decay_mult: 0
  }
  scale_param {
    filler {
      value: 0.6666
    }
  }
}
layer {
  name: "conv1_2_sTanH"
  type: "TanH"
  bottom: "conv1_2"
  top: "conv1_2"
}
layer {
  name: "conv1_2_postscale"
  type: "Scale"
  bottom: "conv1_2"
  top: "conv1_2"
  param {
    lr_mult: 0
    decay_mult: 0
  }
  scale_param {
    filler {
      value: 1.7159
    }
  }
}
layer {
  name: "pool1_2"
  type: "Pooling"
  bottom: "conv1_2"
  top: "pool1_2"
  pooling_param {
    pool: MAX
    kernel_size: 2
    stride: 2
  }
}
layer {
  name: "fc1_4_300"
  type: "InnerProduct"
  bottom: "pool1_2"
  top: "fc1_4"
  inner_product_param {
    num_output: 300
    weight_filler {
      type: "xavier"
    }
  }
}
layer {
  name: "fc1_4_prescale"
  type: "Scale"
  bottom: "fc1_4"
  top: "fc1_4"
  param {
    lr_mult: 0
    decay_mult: 0
  }
  scale_param {
    filler {
      value: 0.6666
    }
  }
}
layer {
  name: "fc1_4_sTanH"
  type: "TanH"
  bottom: "fc1_4"
  top: "fc1_4"
}
layer {
  name: "fc1_4_postscale"
  type: "Scale"
  bottom: "fc1_4"
  top: "fc1_4"
  param {
    lr_mult: 0
    decay_mult: 0
  }
  scale_param {
    filler {
      value: 1.7159
    }
  }
}
layer {
  name: "drop1_4"
  type: "Dropout"
  bottom: "fc1_4"
  top: "fc1_4"
  dropout_param {
    dropout_ratio: 0.4
  }
}
layer {
  name: "fc1_5_67"
  type: "InnerProduct"
  bottom: "fc1_4"
  top: "fc1_5"
  inner_product_param {
    num_output: 67
    weight_filler {
      type: "xavier"
    }
  }
}
layer {
  name: "softmax_1"
  type: "Softmax"
  bottom: "fc1_5"
  top: "softmax_1"
}
layer {
  name: "data_2"
  type: "Data"
  top: "data_2"
  top: "label_2"
  include {
    phase: TRAIN
  }
  transform_param {
    mirror: false
    crop_size: 48
    mean_value: 125
    mean_value: 118
    mean_value: 131
  }
  data_param {
    source: "../local_data/lmdb/rtsd-r1/AHE/train/lmdb"
    batch_size: 200
    backend: LMDB
  }
}
layer {
  name: "conv2_0"
  type: "Convolution"
  bottom: "data_2"
  top: "conv2_0"
  convolution_param {
    num_output: 100
    pad: 0
    kernel_size: 7
    group: 1
    stride: 1
    weight_filler {
      type: "xavier"
    }
  }
}
layer {
  name: "conv2_0_prescale"
  type: "Scale"
  bottom: "conv2_0"
  top: "conv2_0"
  param {
    lr_mult: 0
    decay_mult: 0
  }
  scale_param {
    filler {
      value: 0.6666
    }
  }
}
layer {
  name: "conv2_0_sTanH"
  type: "TanH"
  bottom: "conv2_0"
  top: "conv2_0"
}
layer {
  name: "conv2_0_postscale"
  type: "Scale"
  bottom: "conv2_0"
  top: "conv2_0"
  param {
    lr_mult: 0
    decay_mult: 0
  }
  scale_param {
    filler {
      value: 1.7159
    }
  }
}
layer {
  name: "pool2_0"
  type: "Pooling"
  bottom: "conv2_0"
  top: "pool2_0"
  pooling_param {
    pool: MAX
    kernel_size: 2
    stride: 2
  }
}
layer {
  name: "conv2_1"
  type: "Convolution"
  bottom: "pool2_0"
  top: "conv2_1"
  convolution_param {
    num_output: 150
    pad: 0
    kernel_size: 4
    group: 1
    stride: 1
    weight_filler {
      type: "xavier"
    }
  }
}
layer {
  name: "conv2_1_prescale"
  type: "Scale"
  bottom: "conv2_1"
  top: "conv2_1"
  param {
    lr_mult: 0
    decay_mult: 0
  }
  scale_param {
    filler {
      value: 0.6666
    }
  }
}
layer {
  name: "conv2_1_sTanH"
  type: "TanH"
  bottom: "conv2_1"
  top: "conv2_1"
}
layer {
  name: "conv2_1_postscale"
  type: "Scale"
  bottom: "conv2_1"
  top: "conv2_1"
  param {
    lr_mult: 0
    decay_mult: 0
  }
  scale_param {
    filler {
      value: 1.7159
    }
  }
}
layer {
  name: "pool2_1"
  type: "Pooling"
  bottom: "conv2_1"
  top: "pool2_1"
  pooling_param {
    pool: MAX
    kernel_size: 2
    stride: 2
  }
}
layer {
  name: "conv2_2"
  type: "Convolution"
  bottom: "pool2_1"
  top: "conv2_2"
  convolution_param {
    num_output: 250
    pad: 0
    kernel_size: 4
    group: 1
    stride: 1
    weight_filler {
      type: "xavier"
    }
  }
}
layer {
  name: "conv2_2_prescale"
  type: "Scale"
  bottom: "conv2_2"
  top: "conv2_2"
  param {
    lr_mult: 0
    decay_mult: 0
  }
  scale_param {
    filler {
      value: 0.6666
    }
  }
}
layer {
  name: "conv2_2_sTanH"
  type: "TanH"
  bottom: "conv2_2"
  top: "conv2_2"
}
layer {
  name: "conv2_2_postscale"
  type: "Scale"
  bottom: "conv2_2"
  top: "conv2_2"
  param {
    lr_mult: 0
    decay_mult: 0
  }
  scale_param {
    filler {
      value: 1.7159
    }
  }
}
layer {
  name: "pool2_2"
  type: "Pooling"
  bottom: "conv2_2"
  top: "pool2_2"
  pooling_param {
    pool: MAX
    kernel_size: 2
    stride: 2
  }
}
layer {
  name: "fc2_4_300"
  type: "InnerProduct"
  bottom: "pool2_2"
  top: "fc2_4"
  inner_product_param {
    num_output: 300
    weight_filler {
      type: "xavier"
    }
  }
}
layer {
  name: "fc2_4_prescale"
  type: "Scale"
  bottom: "fc2_4"
  top: "fc2_4"
  param {
    lr_mult: 0
    decay_mult: 0
  }
  scale_param {
    filler {
      value: 0.6666
    }
  }
}
layer {
  name: "fc2_4_sTanH"
  type: "TanH"
  bottom: "fc2_4"
  top: "fc2_4"
}
layer {
  name: "fc2_4_postscale"
  type: "Scale"
  bottom: "fc2_4"
  top: "fc2_4"
  param {
    lr_mult: 0
    decay_mult: 0
  }
  scale_param {
    filler {
      value: 1.7159
    }
  }
}
layer {
  name: "drop2_4"
  type: "Dropout"
  bottom: "fc2_4"
  top: "fc2_4"
  dropout_param {
    dropout_ratio: 0.4
  }
}
layer {
  name: "fc2_5_67"
  type: "InnerProduct"
  bottom: "fc2_4"
  top: "fc2_5"
  inner_product_param {
    num_output: 67
    weight_filler {
      type: "xavier"
    }
  }
}
layer {
  name: "softmax_2"
  type: "Softmax"
  bottom: "fc2_5"
  top: "softmax_2"
}
layer {
  name: "data_3"
  type: "Data"
  top: "data_3"
  top: "label_3"
  include {
    phase: TRAIN
  }
  transform_param {
    mirror: false
    crop_size: 48
    mean_value: 108
    mean_value: 101
    mean_value: 114
  }
  data_param {
    source: "../local_data/lmdb/rtsd-r1/imajust/train/lmdb"
    batch_size: 200
    backend: LMDB
  }
}
layer {
  name: "conv3_0"
  type: "Convolution"
  bottom: "data_3"
  top: "conv3_0"
  convolution_param {
    num_output: 100
    pad: 0
    kernel_size: 7
    group: 1
    stride: 1
    weight_filler {
      type: "xavier"
    }
  }
}
layer {
  name: "conv3_0_prescale"
  type: "Scale"
  bottom: "conv3_0"
  top: "conv3_0"
  param {
    lr_mult: 0
    decay_mult: 0
  }
  scale_param {
    filler {
      value: 0.6666
    }
  }
}
layer {
  name: "conv3_0_sTanH"
  type: "TanH"
  bottom: "conv3_0"
  top: "conv3_0"
}
layer {
  name: "conv3_0_postscale"
  type: "Scale"
  bottom: "conv3_0"
  top: "conv3_0"
  param {
    lr_mult: 0
    decay_mult: 0
  }
  scale_param {
    filler {
      value: 1.7159
    }
  }
}
layer {
  name: "pool3_0"
  type: "Pooling"
  bottom: "conv3_0"
  top: "pool3_0"
  pooling_param {
    pool: MAX
    kernel_size: 2
    stride: 2
  }
}
layer {
  name: "conv3_1"
  type: "Convolution"
  bottom: "pool3_0"
  top: "conv3_1"
  convolution_param {
    num_output: 150
    pad: 0
    kernel_size: 4
    group: 1
    stride: 1
    weight_filler {
      type: "xavier"
    }
  }
}
layer {
  name: "conv3_1_prescale"
  type: "Scale"
  bottom: "conv3_1"
  top: "conv3_1"
  param {
    lr_mult: 0
    decay_mult: 0
  }
  scale_param {
    filler {
      value: 0.6666
    }
  }
}
layer {
  name: "conv3_1_sTanH"
  type: "TanH"
  bottom: "conv3_1"
  top: "conv3_1"
}
layer {
  name: "conv3_1_postscale"
  type: "Scale"
  bottom: "conv3_1"
  top: "conv3_1"
  param {
    lr_mult: 0
    decay_mult: 0
  }
  scale_param {
    filler {
      value: 1.7159
    }
  }
}
layer {
  name: "pool3_1"
  type: "Pooling"
  bottom: "conv3_1"
  top: "pool3_1"
  pooling_param {
    pool: MAX
    kernel_size: 2
    stride: 2
  }
}
layer {
  name: "conv3_2"
  type: "Convolution"
  bottom: "pool3_1"
  top: "conv3_2"
  convolution_param {
    num_output: 250
    pad: 0
    kernel_size: 4
    group: 1
    stride: 1
    weight_filler {
      type: "xavier"
    }
  }
}
layer {
  name: "conv3_2_prescale"
  type: "Scale"
  bottom: "conv3_2"
  top: "conv3_2"
  param {
    lr_mult: 0
    decay_mult: 0
  }
  scale_param {
    filler {
      value: 0.6666
    }
  }
}
layer {
  name: "conv3_2_sTanH"
  type: "TanH"
  bottom: "conv3_2"
  top: "conv3_2"
}
layer {
  name: "conv3_2_postscale"
  type: "Scale"
  bottom: "conv3_2"
  top: "conv3_2"
  param {
    lr_mult: 0
    decay_mult: 0
  }
  scale_param {
    filler {
      value: 1.7159
    }
  }
}
layer {
  name: "pool3_2"
  type: "Pooling"
  bottom: "conv3_2"
  top: "pool3_2"
  pooling_param {
    pool: MAX
    kernel_size: 2
    stride: 2
  }
}
layer {
  name: "fc3_4_300"
  type: "InnerProduct"
  bottom: "pool3_2"
  top: "fc3_4"
  inner_product_param {
    num_output: 300
    weight_filler {
      type: "xavier"
    }
  }
}
layer {
  name: "fc3_4_prescale"
  type: "Scale"
  bottom: "fc3_4"
  top: "fc3_4"
  param {
    lr_mult: 0
    decay_mult: 0
  }
  scale_param {
    filler {
      value: 0.6666
    }
  }
}
layer {
  name: "fc3_4_sTanH"
  type: "TanH"
  bottom: "fc3_4"
  top: "fc3_4"
}
layer {
  name: "fc3_4_postscale"
  type: "Scale"
  bottom: "fc3_4"
  top: "fc3_4"
  param {
    lr_mult: 0
    decay_mult: 0
  }
  scale_param {
    filler {
      value: 1.7159
    }
  }
}
layer {
  name: "drop3_4"
  type: "Dropout"
  bottom: "fc3_4"
  top: "fc3_4"
  dropout_param {
    dropout_ratio: 0.4
  }
}
layer {
  name: "fc3_5_67"
  type: "InnerProduct"
  bottom: "fc3_4"
  top: "fc3_5"
  inner_product_param {
    num_output: 67
    weight_filler {
      type: "xavier"
    }
  }
}
layer {
  name: "softmax_3"
  type: "Softmax"
  bottom: "fc3_5"
  top: "softmax_3"
}
layer {
  name: "data_4"
  type: "Data"
  top: "data_4"
  top: "label_4"
  include {
    phase: TRAIN
  }
  transform_param {
    mirror: false
    crop_size: 48
    mean_value: 124
    mean_value: 123
    mean_value: 123
  }
  data_param {
    source: "../local_data/lmdb/rtsd-r1/CoNorm/train/lmdb"
    batch_size: 200
    backend: LMDB
  }
}
layer {
  name: "conv4_0"
  type: "Convolution"
  bottom: "data_4"
  top: "conv4_0"
  convolution_param {
    num_output: 100
    pad: 0
    kernel_size: 7
    group: 1
    stride: 1
    weight_filler {
      type: "xavier"
    }
  }
}
layer {
  name: "conv4_0_prescale"
  type: "Scale"
  bottom: "conv4_0"
  top: "conv4_0"
  param {
    lr_mult: 0
    decay_mult: 0
  }
  scale_param {
    filler {
      value: 0.6666
    }
  }
}
layer {
  name: "conv4_0_sTanH"
  type: "TanH"
  bottom: "conv4_0"
  top: "conv4_0"
}
layer {
  name: "conv4_0_postscale"
  type: "Scale"
  bottom: "conv4_0"
  top: "conv4_0"
  param {
    lr_mult: 0
    decay_mult: 0
  }
  scale_param {
    filler {
      value: 1.7159
    }
  }
}
layer {
  name: "pool4_0"
  type: "Pooling"
  bottom: "conv4_0"
  top: "pool4_0"
  pooling_param {
    pool: MAX
    kernel_size: 2
    stride: 2
  }
}
layer {
  name: "conv4_1"
  type: "Convolution"
  bottom: "pool4_0"
  top: "conv4_1"
  convolution_param {
    num_output: 150
    pad: 0
    kernel_size: 4
    group: 1
    stride: 1
    weight_filler {
      type: "xavier"
    }
  }
}
layer {
  name: "conv4_1_prescale"
  type: "Scale"
  bottom: "conv4_1"
  top: "conv4_1"
  param {
    lr_mult: 0
    decay_mult: 0
  }
  scale_param {
    filler {
      value: 0.6666
    }
  }
}
layer {
  name: "conv4_1_sTanH"
  type: "TanH"
  bottom: "conv4_1"
  top: "conv4_1"
}
layer {
  name: "conv4_1_postscale"
  type: "Scale"
  bottom: "conv4_1"
  top: "conv4_1"
  param {
    lr_mult: 0
    decay_mult: 0
  }
  scale_param {
    filler {
      value: 1.7159
    }
  }
}
layer {
  name: "pool4_1"
  type: "Pooling"
  bottom: "conv4_1"
  top: "pool4_1"
  pooling_param {
    pool: MAX
    kernel_size: 2
    stride: 2
  }
}
layer {
  name: "conv4_2"
  type: "Convolution"
  bottom: "pool4_1"
  top: "conv4_2"
  convolution_param {
    num_output: 250
    pad: 0
    kernel_size: 4
    group: 1
    stride: 1
    weight_filler {
      type: "xavier"
    }
  }
}
layer {
  name: "conv4_2_prescale"
  type: "Scale"
  bottom: "conv4_2"
  top: "conv4_2"
  param {
    lr_mult: 0
    decay_mult: 0
  }
  scale_param {
    filler {
      value: 0.6666
    }
  }
}
layer {
  name: "conv4_2_sTanH"
  type: "TanH"
  bottom: "conv4_2"
  top: "conv4_2"
}
layer {
  name: "conv4_2_postscale"
  type: "Scale"
  bottom: "conv4_2"
  top: "conv4_2"
  param {
    lr_mult: 0
    decay_mult: 0
  }
  scale_param {
    filler {
      value: 1.7159
    }
  }
}
layer {
  name: "pool4_2"
  type: "Pooling"
  bottom: "conv4_2"
  top: "pool4_2"
  pooling_param {
    pool: MAX
    kernel_size: 2
    stride: 2
  }
}
layer {
  name: "fc4_4_300"
  type: "InnerProduct"
  bottom: "pool4_2"
  top: "fc4_4"
  inner_product_param {
    num_output: 300
    weight_filler {
      type: "xavier"
    }
  }
}
layer {
  name: "fc4_4_prescale"
  type: "Scale"
  bottom: "fc4_4"
  top: "fc4_4"
  param {
    lr_mult: 0
    decay_mult: 0
  }
  scale_param {
    filler {
      value: 0.6666
    }
  }
}
layer {
  name: "fc4_4_sTanH"
  type: "TanH"
  bottom: "fc4_4"
  top: "fc4_4"
}
layer {
  name: "fc4_4_postscale"
  type: "Scale"
  bottom: "fc4_4"
  top: "fc4_4"
  param {
    lr_mult: 0
    decay_mult: 0
  }
  scale_param {
    filler {
      value: 1.7159
    }
  }
}
layer {
  name: "drop4_4"
  type: "Dropout"
  bottom: "fc4_4"
  top: "fc4_4"
  dropout_param {
    dropout_ratio: 0.4
  }
}
layer {
  name: "fc4_5_67"
  type: "InnerProduct"
  bottom: "fc4_4"
  top: "fc4_5"
  inner_product_param {
    num_output: 67
    weight_filler {
      type: "xavier"
    }
  }
}
layer {
  name: "softmax_4"
  type: "Softmax"
  bottom: "fc4_5"
  top: "softmax_4"
}
layer {
  name: "averaging"
  type: "Eltwise"
  bottom: "softmax_0"
  bottom: "softmax_1"
  bottom: "softmax_2"
  bottom: "softmax_3"
  bottom: "softmax_4"
  top: "eltwize"
  eltwise_param {
    operation: SUM
    coeff: 0.2
    coeff: 0.2
    coeff: 0.2
    coeff: 0.2
    coeff: 0.2
  }
}
layer {
  name: "loss"
  type: "MultinomialLogisticLoss"
  bottom: "eltwize"
  bottom: "label_0"
  top: "loss"
}
layer {
  name: "silence"
  type: "Silence"
  bottom: "label_1"
  bottom: "label_2"
  bottom: "label_3"
  bottom: "label_4"
}
I0408 20:53:28.214951 17265 layer_factory.hpp:77] Creating layer data_0
I0408 20:53:28.215786 17265 net.cpp:100] Creating Layer data_0
I0408 20:53:28.215802 17265 net.cpp:408] data_0 -> data_0
I0408 20:53:28.215829 17265 net.cpp:408] data_0 -> label_0
I0408 20:53:28.217670 17342 db_lmdb.cpp:35] Opened lmdb ../local_data/lmdb/rtsd-r1/orig/train/lmdb
I0408 20:53:28.238643 17265 data_layer.cpp:41] output data size: 200,3,48,48
I0408 20:53:28.264667 17265 net.cpp:150] Setting up data_0
I0408 20:53:28.264696 17265 net.cpp:157] Top shape: 200 3 48 48 (1382400)
I0408 20:53:28.264705 17265 net.cpp:157] Top shape: 200 (200)
I0408 20:53:28.264708 17265 net.cpp:165] Memory required for data: 5530400
I0408 20:53:28.264724 17265 layer_factory.hpp:77] Creating layer conv0_0
I0408 20:53:28.264753 17265 net.cpp:100] Creating Layer conv0_0
I0408 20:53:28.264762 17265 net.cpp:434] conv0_0 <- data_0
I0408 20:53:28.264783 17265 net.cpp:408] conv0_0 -> conv0_0
I0408 20:53:28.558807 17265 net.cpp:150] Setting up conv0_0
I0408 20:53:28.558838 17265 net.cpp:157] Top shape: 200 100 42 42 (35280000)
I0408 20:53:28.558842 17265 net.cpp:165] Memory required for data: 146650400
I0408 20:53:28.558866 17265 layer_factory.hpp:77] Creating layer conv0_0_prescale
I0408 20:53:28.558886 17265 net.cpp:100] Creating Layer conv0_0_prescale
I0408 20:53:28.558894 17265 net.cpp:434] conv0_0_prescale <- conv0_0
I0408 20:53:28.558903 17265 net.cpp:395] conv0_0_prescale -> conv0_0 (in-place)
I0408 20:53:28.559017 17265 net.cpp:150] Setting up conv0_0_prescale
I0408 20:53:28.559028 17265 net.cpp:157] Top shape: 200 100 42 42 (35280000)
I0408 20:53:28.559036 17265 net.cpp:165] Memory required for data: 287770400
I0408 20:53:28.559046 17265 layer_factory.hpp:77] Creating layer conv0_0_sTanH
I0408 20:53:28.559054 17265 net.cpp:100] Creating Layer conv0_0_sTanH
I0408 20:53:28.559062 17265 net.cpp:434] conv0_0_sTanH <- conv0_0
I0408 20:53:28.559067 17265 net.cpp:395] conv0_0_sTanH -> conv0_0 (in-place)
I0408 20:53:28.559267 17265 net.cpp:150] Setting up conv0_0_sTanH
I0408 20:53:28.559280 17265 net.cpp:157] Top shape: 200 100 42 42 (35280000)
I0408 20:53:28.559288 17265 net.cpp:165] Memory required for data: 428890400
I0408 20:53:28.559293 17265 layer_factory.hpp:77] Creating layer conv0_0_postscale
I0408 20:53:28.559306 17265 net.cpp:100] Creating Layer conv0_0_postscale
I0408 20:53:28.559312 17265 net.cpp:434] conv0_0_postscale <- conv0_0
I0408 20:53:28.559319 17265 net.cpp:395] conv0_0_postscale -> conv0_0 (in-place)
I0408 20:53:28.559422 17265 net.cpp:150] Setting up conv0_0_postscale
I0408 20:53:28.559432 17265 net.cpp:157] Top shape: 200 100 42 42 (35280000)
I0408 20:53:28.559438 17265 net.cpp:165] Memory required for data: 570010400
I0408 20:53:28.559445 17265 layer_factory.hpp:77] Creating layer pool0_0
I0408 20:53:28.559456 17265 net.cpp:100] Creating Layer pool0_0
I0408 20:53:28.559461 17265 net.cpp:434] pool0_0 <- conv0_0
I0408 20:53:28.559466 17265 net.cpp:408] pool0_0 -> pool0_0
I0408 20:53:28.559515 17265 net.cpp:150] Setting up pool0_0
I0408 20:53:28.559541 17265 net.cpp:157] Top shape: 200 100 21 21 (8820000)
I0408 20:53:28.559546 17265 net.cpp:165] Memory required for data: 605290400
I0408 20:53:28.559550 17265 layer_factory.hpp:77] Creating layer conv0_1
I0408 20:53:28.559559 17265 net.cpp:100] Creating Layer conv0_1
I0408 20:53:28.559564 17265 net.cpp:434] conv0_1 <- pool0_0
I0408 20:53:28.559569 17265 net.cpp:408] conv0_1 -> conv0_1
I0408 20:53:28.564833 17265 net.cpp:150] Setting up conv0_1
I0408 20:53:28.564851 17265 net.cpp:157] Top shape: 200 150 18 18 (9720000)
I0408 20:53:28.564867 17265 net.cpp:165] Memory required for data: 644170400
I0408 20:53:28.564879 17265 layer_factory.hpp:77] Creating layer conv0_1_prescale
I0408 20:53:28.564889 17265 net.cpp:100] Creating Layer conv0_1_prescale
I0408 20:53:28.564894 17265 net.cpp:434] conv0_1_prescale <- conv0_1
I0408 20:53:28.564899 17265 net.cpp:395] conv0_1_prescale -> conv0_1 (in-place)
I0408 20:53:28.565001 17265 net.cpp:150] Setting up conv0_1_prescale
I0408 20:53:28.565011 17265 net.cpp:157] Top shape: 200 150 18 18 (9720000)
I0408 20:53:28.565014 17265 net.cpp:165] Memory required for data: 683050400
I0408 20:53:28.565019 17265 layer_factory.hpp:77] Creating layer conv0_1_sTanH
I0408 20:53:28.565026 17265 net.cpp:100] Creating Layer conv0_1_sTanH
I0408 20:53:28.565032 17265 net.cpp:434] conv0_1_sTanH <- conv0_1
I0408 20:53:28.565035 17265 net.cpp:395] conv0_1_sTanH -> conv0_1 (in-place)
I0408 20:53:28.565791 17265 net.cpp:150] Setting up conv0_1_sTanH
I0408 20:53:28.565819 17265 net.cpp:157] Top shape: 200 150 18 18 (9720000)
I0408 20:53:28.565824 17265 net.cpp:165] Memory required for data: 721930400
I0408 20:53:28.565827 17265 layer_factory.hpp:77] Creating layer conv0_1_postscale
I0408 20:53:28.565835 17265 net.cpp:100] Creating Layer conv0_1_postscale
I0408 20:53:28.565838 17265 net.cpp:434] conv0_1_postscale <- conv0_1
I0408 20:53:28.565845 17265 net.cpp:395] conv0_1_postscale -> conv0_1 (in-place)
I0408 20:53:28.565948 17265 net.cpp:150] Setting up conv0_1_postscale
I0408 20:53:28.565958 17265 net.cpp:157] Top shape: 200 150 18 18 (9720000)
I0408 20:53:28.565961 17265 net.cpp:165] Memory required for data: 760810400
I0408 20:53:28.565968 17265 layer_factory.hpp:77] Creating layer pool0_1
I0408 20:53:28.565973 17265 net.cpp:100] Creating Layer pool0_1
I0408 20:53:28.565978 17265 net.cpp:434] pool0_1 <- conv0_1
I0408 20:53:28.565982 17265 net.cpp:408] pool0_1 -> pool0_1
I0408 20:53:28.566020 17265 net.cpp:150] Setting up pool0_1
I0408 20:53:28.566028 17265 net.cpp:157] Top shape: 200 150 9 9 (2430000)
I0408 20:53:28.566030 17265 net.cpp:165] Memory required for data: 770530400
I0408 20:53:28.566033 17265 layer_factory.hpp:77] Creating layer conv0_2
I0408 20:53:28.566041 17265 net.cpp:100] Creating Layer conv0_2
I0408 20:53:28.566045 17265 net.cpp:434] conv0_2 <- pool0_1
I0408 20:53:28.566049 17265 net.cpp:408] conv0_2 -> conv0_2
I0408 20:53:28.571460 17265 net.cpp:150] Setting up conv0_2
I0408 20:53:28.571478 17265 net.cpp:157] Top shape: 200 250 6 6 (1800000)
I0408 20:53:28.571494 17265 net.cpp:165] Memory required for data: 777730400
I0408 20:53:28.571504 17265 layer_factory.hpp:77] Creating layer conv0_2_prescale
I0408 20:53:28.571513 17265 net.cpp:100] Creating Layer conv0_2_prescale
I0408 20:53:28.571517 17265 net.cpp:434] conv0_2_prescale <- conv0_2
I0408 20:53:28.571522 17265 net.cpp:395] conv0_2_prescale -> conv0_2 (in-place)
I0408 20:53:28.571620 17265 net.cpp:150] Setting up conv0_2_prescale
I0408 20:53:28.571630 17265 net.cpp:157] Top shape: 200 250 6 6 (1800000)
I0408 20:53:28.571632 17265 net.cpp:165] Memory required for data: 784930400
I0408 20:53:28.571637 17265 layer_factory.hpp:77] Creating layer conv0_2_sTanH
I0408 20:53:28.571642 17265 net.cpp:100] Creating Layer conv0_2_sTanH
I0408 20:53:28.571645 17265 net.cpp:434] conv0_2_sTanH <- conv0_2
I0408 20:53:28.571652 17265 net.cpp:395] conv0_2_sTanH -> conv0_2 (in-place)
I0408 20:53:28.572424 17265 net.cpp:150] Setting up conv0_2_sTanH
I0408 20:53:28.572443 17265 net.cpp:157] Top shape: 200 250 6 6 (1800000)
I0408 20:53:28.572458 17265 net.cpp:165] Memory required for data: 792130400
I0408 20:53:28.572463 17265 layer_factory.hpp:77] Creating layer conv0_2_postscale
I0408 20:53:28.572469 17265 net.cpp:100] Creating Layer conv0_2_postscale
I0408 20:53:28.572473 17265 net.cpp:434] conv0_2_postscale <- conv0_2
I0408 20:53:28.572479 17265 net.cpp:395] conv0_2_postscale -> conv0_2 (in-place)
I0408 20:53:28.572589 17265 net.cpp:150] Setting up conv0_2_postscale
I0408 20:53:28.572603 17265 net.cpp:157] Top shape: 200 250 6 6 (1800000)
I0408 20:53:28.572612 17265 net.cpp:165] Memory required for data: 799330400
I0408 20:53:28.572618 17265 layer_factory.hpp:77] Creating layer pool0_2
I0408 20:53:28.572628 17265 net.cpp:100] Creating Layer pool0_2
I0408 20:53:28.572635 17265 net.cpp:434] pool0_2 <- conv0_2
I0408 20:53:28.572641 17265 net.cpp:408] pool0_2 -> pool0_2
I0408 20:53:28.572695 17265 net.cpp:150] Setting up pool0_2
I0408 20:53:28.572705 17265 net.cpp:157] Top shape: 200 250 3 3 (450000)
I0408 20:53:28.572710 17265 net.cpp:165] Memory required for data: 801130400
I0408 20:53:28.572715 17265 layer_factory.hpp:77] Creating layer fc0_4_300
I0408 20:53:28.572732 17265 net.cpp:100] Creating Layer fc0_4_300
I0408 20:53:28.572738 17265 net.cpp:434] fc0_4_300 <- pool0_2
I0408 20:53:28.572744 17265 net.cpp:408] fc0_4_300 -> fc0_4
I0408 20:53:28.578069 17265 net.cpp:150] Setting up fc0_4_300
I0408 20:53:28.578086 17265 net.cpp:157] Top shape: 200 300 (60000)
I0408 20:53:28.578094 17265 net.cpp:165] Memory required for data: 801370400
I0408 20:53:28.578115 17265 layer_factory.hpp:77] Creating layer fc0_4_prescale
I0408 20:53:28.578125 17265 net.cpp:100] Creating Layer fc0_4_prescale
I0408 20:53:28.578131 17265 net.cpp:434] fc0_4_prescale <- fc0_4
I0408 20:53:28.578141 17265 net.cpp:395] fc0_4_prescale -> fc0_4 (in-place)
I0408 20:53:28.578248 17265 net.cpp:150] Setting up fc0_4_prescale
I0408 20:53:28.578258 17265 net.cpp:157] Top shape: 200 300 (60000)
I0408 20:53:28.578263 17265 net.cpp:165] Memory required for data: 801610400
I0408 20:53:28.578271 17265 layer_factory.hpp:77] Creating layer fc0_4_sTanH
I0408 20:53:28.578280 17265 net.cpp:100] Creating Layer fc0_4_sTanH
I0408 20:53:28.578286 17265 net.cpp:434] fc0_4_sTanH <- fc0_4
I0408 20:53:28.578294 17265 net.cpp:395] fc0_4_sTanH -> fc0_4 (in-place)
I0408 20:53:28.578486 17265 net.cpp:150] Setting up fc0_4_sTanH
I0408 20:53:28.578500 17265 net.cpp:157] Top shape: 200 300 (60000)
I0408 20:53:28.578506 17265 net.cpp:165] Memory required for data: 801850400
I0408 20:53:28.578511 17265 layer_factory.hpp:77] Creating layer fc0_4_postscale
I0408 20:53:28.578522 17265 net.cpp:100] Creating Layer fc0_4_postscale
I0408 20:53:28.578528 17265 net.cpp:434] fc0_4_postscale <- fc0_4
I0408 20:53:28.578534 17265 net.cpp:395] fc0_4_postscale -> fc0_4 (in-place)
I0408 20:53:28.578644 17265 net.cpp:150] Setting up fc0_4_postscale
I0408 20:53:28.578652 17265 net.cpp:157] Top shape: 200 300 (60000)
I0408 20:53:28.578660 17265 net.cpp:165] Memory required for data: 802090400
I0408 20:53:28.578666 17265 layer_factory.hpp:77] Creating layer drop0_4
I0408 20:53:28.578678 17265 net.cpp:100] Creating Layer drop0_4
I0408 20:53:28.578685 17265 net.cpp:434] drop0_4 <- fc0_4
I0408 20:53:28.578691 17265 net.cpp:395] drop0_4 -> fc0_4 (in-place)
I0408 20:53:28.578727 17265 net.cpp:150] Setting up drop0_4
I0408 20:53:28.578737 17265 net.cpp:157] Top shape: 200 300 (60000)
I0408 20:53:28.578739 17265 net.cpp:165] Memory required for data: 802330400
I0408 20:53:28.578745 17265 layer_factory.hpp:77] Creating layer fc0_5_67
I0408 20:53:28.578755 17265 net.cpp:100] Creating Layer fc0_5_67
I0408 20:53:28.578763 17265 net.cpp:434] fc0_5_67 <- fc0_4
I0408 20:53:28.578770 17265 net.cpp:408] fc0_5_67 -> fc0_5
I0408 20:53:28.580025 17265 net.cpp:150] Setting up fc0_5_67
I0408 20:53:28.580041 17265 net.cpp:157] Top shape: 200 67 (13400)
I0408 20:53:28.580046 17265 net.cpp:165] Memory required for data: 802384000
I0408 20:53:28.580057 17265 layer_factory.hpp:77] Creating layer softmax_0
I0408 20:53:28.580066 17265 net.cpp:100] Creating Layer softmax_0
I0408 20:53:28.580083 17265 net.cpp:434] softmax_0 <- fc0_5
I0408 20:53:28.580090 17265 net.cpp:408] softmax_0 -> softmax_0
I0408 20:53:28.580353 17265 net.cpp:150] Setting up softmax_0
I0408 20:53:28.580365 17265 net.cpp:157] Top shape: 200 67 (13400)
I0408 20:53:28.580368 17265 net.cpp:165] Memory required for data: 802437600
I0408 20:53:28.580373 17265 layer_factory.hpp:77] Creating layer data_1
I0408 20:53:28.580555 17265 net.cpp:100] Creating Layer data_1
I0408 20:53:28.580569 17265 net.cpp:408] data_1 -> data_1
I0408 20:53:28.580579 17265 net.cpp:408] data_1 -> label_1
I0408 20:53:28.581775 17361 db_lmdb.cpp:35] Opened lmdb ../local_data/lmdb/rtsd-r1/histeq/train/lmdb
I0408 20:53:28.581923 17265 data_layer.cpp:41] output data size: 200,3,48,48
I0408 20:53:28.592160 17265 net.cpp:150] Setting up data_1
I0408 20:53:28.592180 17265 net.cpp:157] Top shape: 200 3 48 48 (1382400)
I0408 20:53:28.592185 17265 net.cpp:157] Top shape: 200 (200)
I0408 20:53:28.592187 17265 net.cpp:165] Memory required for data: 807968000
I0408 20:53:28.592191 17265 layer_factory.hpp:77] Creating layer conv1_0
I0408 20:53:28.592205 17265 net.cpp:100] Creating Layer conv1_0
I0408 20:53:28.592209 17265 net.cpp:434] conv1_0 <- data_1
I0408 20:53:28.592219 17265 net.cpp:408] conv1_0 -> conv1_0
I0408 20:53:28.594599 17265 net.cpp:150] Setting up conv1_0
I0408 20:53:28.594619 17265 net.cpp:157] Top shape: 200 100 42 42 (35280000)
I0408 20:53:28.594621 17265 net.cpp:165] Memory required for data: 949088000
I0408 20:53:28.594631 17265 layer_factory.hpp:77] Creating layer conv1_0_prescale
I0408 20:53:28.594642 17265 net.cpp:100] Creating Layer conv1_0_prescale
I0408 20:53:28.594650 17265 net.cpp:434] conv1_0_prescale <- conv1_0
I0408 20:53:28.594660 17265 net.cpp:395] conv1_0_prescale -> conv1_0 (in-place)
I0408 20:53:28.594776 17265 net.cpp:150] Setting up conv1_0_prescale
I0408 20:53:28.594787 17265 net.cpp:157] Top shape: 200 100 42 42 (35280000)
I0408 20:53:28.594789 17265 net.cpp:165] Memory required for data: 1090208000
I0408 20:53:28.594797 17265 layer_factory.hpp:77] Creating layer conv1_0_sTanH
I0408 20:53:28.594810 17265 net.cpp:100] Creating Layer conv1_0_sTanH
I0408 20:53:28.594823 17265 net.cpp:434] conv1_0_sTanH <- conv1_0
I0408 20:53:28.594831 17265 net.cpp:395] conv1_0_sTanH -> conv1_0 (in-place)
I0408 20:53:28.595026 17265 net.cpp:150] Setting up conv1_0_sTanH
I0408 20:53:28.595039 17265 net.cpp:157] Top shape: 200 100 42 42 (35280000)
I0408 20:53:28.595042 17265 net.cpp:165] Memory required for data: 1231328000
I0408 20:53:28.595048 17265 layer_factory.hpp:77] Creating layer conv1_0_postscale
I0408 20:53:28.595059 17265 net.cpp:100] Creating Layer conv1_0_postscale
I0408 20:53:28.595067 17265 net.cpp:434] conv1_0_postscale <- conv1_0
I0408 20:53:28.595072 17265 net.cpp:395] conv1_0_postscale -> conv1_0 (in-place)
I0408 20:53:28.595203 17265 net.cpp:150] Setting up conv1_0_postscale
I0408 20:53:28.595213 17265 net.cpp:157] Top shape: 200 100 42 42 (35280000)
I0408 20:53:28.595216 17265 net.cpp:165] Memory required for data: 1372448000
I0408 20:53:28.595223 17265 layer_factory.hpp:77] Creating layer pool1_0
I0408 20:53:28.595237 17265 net.cpp:100] Creating Layer pool1_0
I0408 20:53:28.595242 17265 net.cpp:434] pool1_0 <- conv1_0
I0408 20:53:28.595248 17265 net.cpp:408] pool1_0 -> pool1_0
I0408 20:53:28.595297 17265 net.cpp:150] Setting up pool1_0
I0408 20:53:28.595307 17265 net.cpp:157] Top shape: 200 100 21 21 (8820000)
I0408 20:53:28.595317 17265 net.cpp:165] Memory required for data: 1407728000
I0408 20:53:28.595321 17265 layer_factory.hpp:77] Creating layer conv1_1
I0408 20:53:28.595335 17265 net.cpp:100] Creating Layer conv1_1
I0408 20:53:28.595340 17265 net.cpp:434] conv1_1 <- pool1_0
I0408 20:53:28.595350 17265 net.cpp:408] conv1_1 -> conv1_1
I0408 20:53:28.598294 17265 net.cpp:150] Setting up conv1_1
I0408 20:53:28.598312 17265 net.cpp:157] Top shape: 200 150 18 18 (9720000)
I0408 20:53:28.598315 17265 net.cpp:165] Memory required for data: 1446608000
I0408 20:53:28.598325 17265 layer_factory.hpp:77] Creating layer conv1_1_prescale
I0408 20:53:28.598354 17265 net.cpp:100] Creating Layer conv1_1_prescale
I0408 20:53:28.598363 17265 net.cpp:434] conv1_1_prescale <- conv1_1
I0408 20:53:28.598371 17265 net.cpp:395] conv1_1_prescale -> conv1_1 (in-place)
I0408 20:53:28.598482 17265 net.cpp:150] Setting up conv1_1_prescale
I0408 20:53:28.598492 17265 net.cpp:157] Top shape: 200 150 18 18 (9720000)
I0408 20:53:28.598495 17265 net.cpp:165] Memory required for data: 1485488000
I0408 20:53:28.598502 17265 layer_factory.hpp:77] Creating layer conv1_1_sTanH
I0408 20:53:28.598512 17265 net.cpp:100] Creating Layer conv1_1_sTanH
I0408 20:53:28.598518 17265 net.cpp:434] conv1_1_sTanH <- conv1_1
I0408 20:53:28.598526 17265 net.cpp:395] conv1_1_sTanH -> conv1_1 (in-place)
I0408 20:53:28.599357 17265 net.cpp:150] Setting up conv1_1_sTanH
I0408 20:53:28.599373 17265 net.cpp:157] Top shape: 200 150 18 18 (9720000)
I0408 20:53:28.599378 17265 net.cpp:165] Memory required for data: 1524368000
I0408 20:53:28.599383 17265 layer_factory.hpp:77] Creating layer conv1_1_postscale
I0408 20:53:28.599403 17265 net.cpp:100] Creating Layer conv1_1_postscale
I0408 20:53:28.599411 17265 net.cpp:434] conv1_1_postscale <- conv1_1
I0408 20:53:28.599416 17265 net.cpp:395] conv1_1_postscale -> conv1_1 (in-place)
I0408 20:53:28.599530 17265 net.cpp:150] Setting up conv1_1_postscale
I0408 20:53:28.599540 17265 net.cpp:157] Top shape: 200 150 18 18 (9720000)
I0408 20:53:28.599547 17265 net.cpp:165] Memory required for data: 1563248000
I0408 20:53:28.599553 17265 layer_factory.hpp:77] Creating layer pool1_1
I0408 20:53:28.599560 17265 net.cpp:100] Creating Layer pool1_1
I0408 20:53:28.599565 17265 net.cpp:434] pool1_1 <- conv1_1
I0408 20:53:28.599570 17265 net.cpp:408] pool1_1 -> pool1_1
I0408 20:53:28.599617 17265 net.cpp:150] Setting up pool1_1
I0408 20:53:28.599625 17265 net.cpp:157] Top shape: 200 150 9 9 (2430000)
I0408 20:53:28.599629 17265 net.cpp:165] Memory required for data: 1572968000
I0408 20:53:28.599632 17265 layer_factory.hpp:77] Creating layer conv1_2
I0408 20:53:28.599642 17265 net.cpp:100] Creating Layer conv1_2
I0408 20:53:28.599645 17265 net.cpp:434] conv1_2 <- pool1_1
I0408 20:53:28.599653 17265 net.cpp:408] conv1_2 -> conv1_2
I0408 20:53:28.605293 17265 net.cpp:150] Setting up conv1_2
I0408 20:53:28.605310 17265 net.cpp:157] Top shape: 200 250 6 6 (1800000)
I0408 20:53:28.605315 17265 net.cpp:165] Memory required for data: 1580168000
I0408 20:53:28.605322 17265 layer_factory.hpp:77] Creating layer conv1_2_prescale
I0408 20:53:28.605329 17265 net.cpp:100] Creating Layer conv1_2_prescale
I0408 20:53:28.605334 17265 net.cpp:434] conv1_2_prescale <- conv1_2
I0408 20:53:28.605340 17265 net.cpp:395] conv1_2_prescale -> conv1_2 (in-place)
I0408 20:53:28.605443 17265 net.cpp:150] Setting up conv1_2_prescale
I0408 20:53:28.605453 17265 net.cpp:157] Top shape: 200 250 6 6 (1800000)
I0408 20:53:28.605455 17265 net.cpp:165] Memory required for data: 1587368000
I0408 20:53:28.605459 17265 layer_factory.hpp:77] Creating layer conv1_2_sTanH
I0408 20:53:28.605465 17265 net.cpp:100] Creating Layer conv1_2_sTanH
I0408 20:53:28.605469 17265 net.cpp:434] conv1_2_sTanH <- conv1_2
I0408 20:53:28.605474 17265 net.cpp:395] conv1_2_sTanH -> conv1_2 (in-place)
I0408 20:53:28.606345 17265 net.cpp:150] Setting up conv1_2_sTanH
I0408 20:53:28.606364 17265 net.cpp:157] Top shape: 200 250 6 6 (1800000)
I0408 20:53:28.606369 17265 net.cpp:165] Memory required for data: 1594568000
I0408 20:53:28.606371 17265 layer_factory.hpp:77] Creating layer conv1_2_postscale
I0408 20:53:28.606382 17265 net.cpp:100] Creating Layer conv1_2_postscale
I0408 20:53:28.606385 17265 net.cpp:434] conv1_2_postscale <- conv1_2
I0408 20:53:28.606391 17265 net.cpp:395] conv1_2_postscale -> conv1_2 (in-place)
I0408 20:53:28.606506 17265 net.cpp:150] Setting up conv1_2_postscale
I0408 20:53:28.606515 17265 net.cpp:157] Top shape: 200 250 6 6 (1800000)
I0408 20:53:28.606518 17265 net.cpp:165] Memory required for data: 1601768000
I0408 20:53:28.606523 17265 layer_factory.hpp:77] Creating layer pool1_2
I0408 20:53:28.606546 17265 net.cpp:100] Creating Layer pool1_2
I0408 20:53:28.606550 17265 net.cpp:434] pool1_2 <- conv1_2
I0408 20:53:28.606556 17265 net.cpp:408] pool1_2 -> pool1_2
I0408 20:53:28.606604 17265 net.cpp:150] Setting up pool1_2
I0408 20:53:28.606613 17265 net.cpp:157] Top shape: 200 250 3 3 (450000)
I0408 20:53:28.606616 17265 net.cpp:165] Memory required for data: 1603568000
I0408 20:53:28.606619 17265 layer_factory.hpp:77] Creating layer fc1_4_300
I0408 20:53:28.606626 17265 net.cpp:100] Creating Layer fc1_4_300
I0408 20:53:28.606628 17265 net.cpp:434] fc1_4_300 <- pool1_2
I0408 20:53:28.606637 17265 net.cpp:408] fc1_4_300 -> fc1_4
I0408 20:53:28.612735 17265 net.cpp:150] Setting up fc1_4_300
I0408 20:53:28.612751 17265 net.cpp:157] Top shape: 200 300 (60000)
I0408 20:53:28.612754 17265 net.cpp:165] Memory required for data: 1603808000
I0408 20:53:28.612761 17265 layer_factory.hpp:77] Creating layer fc1_4_prescale
I0408 20:53:28.612768 17265 net.cpp:100] Creating Layer fc1_4_prescale
I0408 20:53:28.612773 17265 net.cpp:434] fc1_4_prescale <- fc1_4
I0408 20:53:28.612782 17265 net.cpp:395] fc1_4_prescale -> fc1_4 (in-place)
I0408 20:53:28.612884 17265 net.cpp:150] Setting up fc1_4_prescale
I0408 20:53:28.612895 17265 net.cpp:157] Top shape: 200 300 (60000)
I0408 20:53:28.612898 17265 net.cpp:165] Memory required for data: 1604048000
I0408 20:53:28.612907 17265 layer_factory.hpp:77] Creating layer fc1_4_sTanH
I0408 20:53:28.612916 17265 net.cpp:100] Creating Layer fc1_4_sTanH
I0408 20:53:28.612921 17265 net.cpp:434] fc1_4_sTanH <- fc1_4
I0408 20:53:28.612926 17265 net.cpp:395] fc1_4_sTanH -> fc1_4 (in-place)
I0408 20:53:28.613126 17265 net.cpp:150] Setting up fc1_4_sTanH
I0408 20:53:28.613137 17265 net.cpp:157] Top shape: 200 300 (60000)
I0408 20:53:28.613140 17265 net.cpp:165] Memory required for data: 1604288000
I0408 20:53:28.613145 17265 layer_factory.hpp:77] Creating layer fc1_4_postscale
I0408 20:53:28.613153 17265 net.cpp:100] Creating Layer fc1_4_postscale
I0408 20:53:28.613158 17265 net.cpp:434] fc1_4_postscale <- fc1_4
I0408 20:53:28.613165 17265 net.cpp:395] fc1_4_postscale -> fc1_4 (in-place)
I0408 20:53:28.613276 17265 net.cpp:150] Setting up fc1_4_postscale
I0408 20:53:28.613284 17265 net.cpp:157] Top shape: 200 300 (60000)
I0408 20:53:28.613287 17265 net.cpp:165] Memory required for data: 1604528000
I0408 20:53:28.613293 17265 layer_factory.hpp:77] Creating layer drop1_4
I0408 20:53:28.613306 17265 net.cpp:100] Creating Layer drop1_4
I0408 20:53:28.613312 17265 net.cpp:434] drop1_4 <- fc1_4
I0408 20:53:28.613318 17265 net.cpp:395] drop1_4 -> fc1_4 (in-place)
I0408 20:53:28.613355 17265 net.cpp:150] Setting up drop1_4
I0408 20:53:28.613363 17265 net.cpp:157] Top shape: 200 300 (60000)
I0408 20:53:28.613366 17265 net.cpp:165] Memory required for data: 1604768000
I0408 20:53:28.613376 17265 layer_factory.hpp:77] Creating layer fc1_5_67
I0408 20:53:28.613387 17265 net.cpp:100] Creating Layer fc1_5_67
I0408 20:53:28.613394 17265 net.cpp:434] fc1_5_67 <- fc1_4
I0408 20:53:28.613399 17265 net.cpp:408] fc1_5_67 -> fc1_5
I0408 20:53:28.613662 17265 net.cpp:150] Setting up fc1_5_67
I0408 20:53:28.613672 17265 net.cpp:157] Top shape: 200 67 (13400)
I0408 20:53:28.613675 17265 net.cpp:165] Memory required for data: 1604821600
I0408 20:53:28.613685 17265 layer_factory.hpp:77] Creating layer softmax_1
I0408 20:53:28.613695 17265 net.cpp:100] Creating Layer softmax_1
I0408 20:53:28.613703 17265 net.cpp:434] softmax_1 <- fc1_5
I0408 20:53:28.613713 17265 net.cpp:408] softmax_1 -> softmax_1
I0408 20:53:28.613981 17265 net.cpp:150] Setting up softmax_1
I0408 20:53:28.613996 17265 net.cpp:157] Top shape: 200 67 (13400)
I0408 20:53:28.614003 17265 net.cpp:165] Memory required for data: 1604875200
I0408 20:53:28.614008 17265 layer_factory.hpp:77] Creating layer data_2
I0408 20:53:28.614192 17265 net.cpp:100] Creating Layer data_2
I0408 20:53:28.614207 17265 net.cpp:408] data_2 -> data_2
I0408 20:53:28.614219 17265 net.cpp:408] data_2 -> label_2
I0408 20:53:28.617086 17366 db_lmdb.cpp:35] Opened lmdb ../local_data/lmdb/rtsd-r1/AHE/train/lmdb
I0408 20:53:28.617259 17265 data_layer.cpp:41] output data size: 200,3,48,48
I0408 20:53:28.643180 17265 net.cpp:150] Setting up data_2
I0408 20:53:28.643203 17265 net.cpp:157] Top shape: 200 3 48 48 (1382400)
I0408 20:53:28.643208 17265 net.cpp:157] Top shape: 200 (200)
I0408 20:53:28.643210 17265 net.cpp:165] Memory required for data: 1610405600
I0408 20:53:28.643214 17265 layer_factory.hpp:77] Creating layer conv2_0
I0408 20:53:28.643229 17265 net.cpp:100] Creating Layer conv2_0
I0408 20:53:28.643234 17265 net.cpp:434] conv2_0 <- data_2
I0408 20:53:28.643244 17265 net.cpp:408] conv2_0 -> conv2_0
I0408 20:53:28.645490 17265 net.cpp:150] Setting up conv2_0
I0408 20:53:28.645509 17265 net.cpp:157] Top shape: 200 100 42 42 (35280000)
I0408 20:53:28.645524 17265 net.cpp:165] Memory required for data: 1751525600
I0408 20:53:28.645531 17265 layer_factory.hpp:77] Creating layer conv2_0_prescale
I0408 20:53:28.645541 17265 net.cpp:100] Creating Layer conv2_0_prescale
I0408 20:53:28.645546 17265 net.cpp:434] conv2_0_prescale <- conv2_0
I0408 20:53:28.645553 17265 net.cpp:395] conv2_0_prescale -> conv2_0 (in-place)
I0408 20:53:28.645668 17265 net.cpp:150] Setting up conv2_0_prescale
I0408 20:53:28.645678 17265 net.cpp:157] Top shape: 200 100 42 42 (35280000)
I0408 20:53:28.645680 17265 net.cpp:165] Memory required for data: 1892645600
I0408 20:53:28.645685 17265 layer_factory.hpp:77] Creating layer conv2_0_sTanH
I0408 20:53:28.645691 17265 net.cpp:100] Creating Layer conv2_0_sTanH
I0408 20:53:28.645695 17265 net.cpp:434] conv2_0_sTanH <- conv2_0
I0408 20:53:28.645700 17265 net.cpp:395] conv2_0_sTanH -> conv2_0 (in-place)
I0408 20:53:28.646430 17265 net.cpp:150] Setting up conv2_0_sTanH
I0408 20:53:28.646442 17265 net.cpp:157] Top shape: 200 100 42 42 (35280000)
I0408 20:53:28.646446 17265 net.cpp:165] Memory required for data: 2033765600
I0408 20:53:28.646450 17265 layer_factory.hpp:77] Creating layer conv2_0_postscale
I0408 20:53:28.646457 17265 net.cpp:100] Creating Layer conv2_0_postscale
I0408 20:53:28.646461 17265 net.cpp:434] conv2_0_postscale <- conv2_0
I0408 20:53:28.646467 17265 net.cpp:395] conv2_0_postscale -> conv2_0 (in-place)
I0408 20:53:28.646587 17265 net.cpp:150] Setting up conv2_0_postscale
I0408 20:53:28.646596 17265 net.cpp:157] Top shape: 200 100 42 42 (35280000)
I0408 20:53:28.646600 17265 net.cpp:165] Memory required for data: 2174885600
I0408 20:53:28.646603 17265 layer_factory.hpp:77] Creating layer pool2_0
I0408 20:53:28.646615 17265 net.cpp:100] Creating Layer pool2_0
I0408 20:53:28.646623 17265 net.cpp:434] pool2_0 <- conv2_0
I0408 20:53:28.646639 17265 net.cpp:408] pool2_0 -> pool2_0
I0408 20:53:28.646694 17265 net.cpp:150] Setting up pool2_0
I0408 20:53:28.646711 17265 net.cpp:157] Top shape: 200 100 21 21 (8820000)
I0408 20:53:28.646716 17265 net.cpp:165] Memory required for data: 2210165600
I0408 20:53:28.646719 17265 layer_factory.hpp:77] Creating layer conv2_1
I0408 20:53:28.646731 17265 net.cpp:100] Creating Layer conv2_1
I0408 20:53:28.646736 17265 net.cpp:434] conv2_1 <- pool2_0
I0408 20:53:28.646755 17265 net.cpp:408] conv2_1 -> conv2_1
I0408 20:53:28.650907 17265 net.cpp:150] Setting up conv2_1
I0408 20:53:28.650925 17265 net.cpp:157] Top shape: 200 150 18 18 (9720000)
I0408 20:53:28.650930 17265 net.cpp:165] Memory required for data: 2249045600
I0408 20:53:28.650944 17265 layer_factory.hpp:77] Creating layer conv2_1_prescale
I0408 20:53:28.650954 17265 net.cpp:100] Creating Layer conv2_1_prescale
I0408 20:53:28.650959 17265 net.cpp:434] conv2_1_prescale <- conv2_1
I0408 20:53:28.650967 17265 net.cpp:395] conv2_1_prescale -> conv2_1 (in-place)
I0408 20:53:28.651088 17265 net.cpp:150] Setting up conv2_1_prescale
I0408 20:53:28.651098 17265 net.cpp:157] Top shape: 200 150 18 18 (9720000)
I0408 20:53:28.651103 17265 net.cpp:165] Memory required for data: 2287925600
I0408 20:53:28.651108 17265 layer_factory.hpp:77] Creating layer conv2_1_sTanH
I0408 20:53:28.651114 17265 net.cpp:100] Creating Layer conv2_1_sTanH
I0408 20:53:28.651118 17265 net.cpp:434] conv2_1_sTanH <- conv2_1
I0408 20:53:28.651144 17265 net.cpp:395] conv2_1_sTanH -> conv2_1 (in-place)
I0408 20:53:28.651971 17265 net.cpp:150] Setting up conv2_1_sTanH
I0408 20:53:28.651991 17265 net.cpp:157] Top shape: 200 150 18 18 (9720000)
I0408 20:53:28.651996 17265 net.cpp:165] Memory required for data: 2326805600
I0408 20:53:28.651999 17265 layer_factory.hpp:77] Creating layer conv2_1_postscale
I0408 20:53:28.652010 17265 net.cpp:100] Creating Layer conv2_1_postscale
I0408 20:53:28.652015 17265 net.cpp:434] conv2_1_postscale <- conv2_1
I0408 20:53:28.652020 17265 net.cpp:395] conv2_1_postscale -> conv2_1 (in-place)
I0408 20:53:28.652138 17265 net.cpp:150] Setting up conv2_1_postscale
I0408 20:53:28.652150 17265 net.cpp:157] Top shape: 200 150 18 18 (9720000)
I0408 20:53:28.652154 17265 net.cpp:165] Memory required for data: 2365685600
I0408 20:53:28.652159 17265 layer_factory.hpp:77] Creating layer pool2_1
I0408 20:53:28.652165 17265 net.cpp:100] Creating Layer pool2_1
I0408 20:53:28.652170 17265 net.cpp:434] pool2_1 <- conv2_1
I0408 20:53:28.652175 17265 net.cpp:408] pool2_1 -> pool2_1
I0408 20:53:28.652225 17265 net.cpp:150] Setting up pool2_1
I0408 20:53:28.652233 17265 net.cpp:157] Top shape: 200 150 9 9 (2430000)
I0408 20:53:28.652236 17265 net.cpp:165] Memory required for data: 2375405600
I0408 20:53:28.652240 17265 layer_factory.hpp:77] Creating layer conv2_2
I0408 20:53:28.652250 17265 net.cpp:100] Creating Layer conv2_2
I0408 20:53:28.652254 17265 net.cpp:434] conv2_2 <- pool2_1
I0408 20:53:28.652261 17265 net.cpp:408] conv2_2 -> conv2_2
I0408 20:53:28.658537 17265 net.cpp:150] Setting up conv2_2
I0408 20:53:28.658570 17265 net.cpp:157] Top shape: 200 250 6 6 (1800000)
I0408 20:53:28.658574 17265 net.cpp:165] Memory required for data: 2382605600
I0408 20:53:28.658581 17265 layer_factory.hpp:77] Creating layer conv2_2_prescale
I0408 20:53:28.658588 17265 net.cpp:100] Creating Layer conv2_2_prescale
I0408 20:53:28.658594 17265 net.cpp:434] conv2_2_prescale <- conv2_2
I0408 20:53:28.658602 17265 net.cpp:395] conv2_2_prescale -> conv2_2 (in-place)
I0408 20:53:28.658713 17265 net.cpp:150] Setting up conv2_2_prescale
I0408 20:53:28.658723 17265 net.cpp:157] Top shape: 200 250 6 6 (1800000)
I0408 20:53:28.658726 17265 net.cpp:165] Memory required for data: 2389805600
I0408 20:53:28.658732 17265 layer_factory.hpp:77] Creating layer conv2_2_sTanH
I0408 20:53:28.658737 17265 net.cpp:100] Creating Layer conv2_2_sTanH
I0408 20:53:28.658742 17265 net.cpp:434] conv2_2_sTanH <- conv2_2
I0408 20:53:28.658749 17265 net.cpp:395] conv2_2_sTanH -> conv2_2 (in-place)
I0408 20:53:28.658944 17265 net.cpp:150] Setting up conv2_2_sTanH
I0408 20:53:28.658957 17265 net.cpp:157] Top shape: 200 250 6 6 (1800000)
I0408 20:53:28.658960 17265 net.cpp:165] Memory required for data: 2397005600
I0408 20:53:28.658970 17265 layer_factory.hpp:77] Creating layer conv2_2_postscale
I0408 20:53:28.658978 17265 net.cpp:100] Creating Layer conv2_2_postscale
I0408 20:53:28.658983 17265 net.cpp:434] conv2_2_postscale <- conv2_2
I0408 20:53:28.658988 17265 net.cpp:395] conv2_2_postscale -> conv2_2 (in-place)
I0408 20:53:28.659101 17265 net.cpp:150] Setting up conv2_2_postscale
I0408 20:53:28.659109 17265 net.cpp:157] Top shape: 200 250 6 6 (1800000)
I0408 20:53:28.659112 17265 net.cpp:165] Memory required for data: 2404205600
I0408 20:53:28.659117 17265 layer_factory.hpp:77] Creating layer pool2_2
I0408 20:53:28.659124 17265 net.cpp:100] Creating Layer pool2_2
I0408 20:53:28.659129 17265 net.cpp:434] pool2_2 <- conv2_2
I0408 20:53:28.659134 17265 net.cpp:408] pool2_2 -> pool2_2
I0408 20:53:28.659180 17265 net.cpp:150] Setting up pool2_2
I0408 20:53:28.659191 17265 net.cpp:157] Top shape: 200 250 3 3 (450000)
I0408 20:53:28.659194 17265 net.cpp:165] Memory required for data: 2406005600
I0408 20:53:28.659199 17265 layer_factory.hpp:77] Creating layer fc2_4_300
I0408 20:53:28.659206 17265 net.cpp:100] Creating Layer fc2_4_300
I0408 20:53:28.659211 17265 net.cpp:434] fc2_4_300 <- pool2_2
I0408 20:53:28.659221 17265 net.cpp:408] fc2_4_300 -> fc2_4
I0408 20:53:28.664716 17265 net.cpp:150] Setting up fc2_4_300
I0408 20:53:28.664732 17265 net.cpp:157] Top shape: 200 300 (60000)
I0408 20:53:28.664736 17265 net.cpp:165] Memory required for data: 2406245600
I0408 20:53:28.664742 17265 layer_factory.hpp:77] Creating layer fc2_4_prescale
I0408 20:53:28.664749 17265 net.cpp:100] Creating Layer fc2_4_prescale
I0408 20:53:28.664753 17265 net.cpp:434] fc2_4_prescale <- fc2_4
I0408 20:53:28.664760 17265 net.cpp:395] fc2_4_prescale -> fc2_4 (in-place)
I0408 20:53:28.664865 17265 net.cpp:150] Setting up fc2_4_prescale
I0408 20:53:28.664875 17265 net.cpp:157] Top shape: 200 300 (60000)
I0408 20:53:28.664877 17265 net.cpp:165] Memory required for data: 2406485600
I0408 20:53:28.664881 17265 layer_factory.hpp:77] Creating layer fc2_4_sTanH
I0408 20:53:28.664899 17265 net.cpp:100] Creating Layer fc2_4_sTanH
I0408 20:53:28.664904 17265 net.cpp:434] fc2_4_sTanH <- fc2_4
I0408 20:53:28.664909 17265 net.cpp:395] fc2_4_sTanH -> fc2_4 (in-place)
I0408 20:53:28.665122 17265 net.cpp:150] Setting up fc2_4_sTanH
I0408 20:53:28.665134 17265 net.cpp:157] Top shape: 200 300 (60000)
I0408 20:53:28.665146 17265 net.cpp:165] Memory required for data: 2406725600
I0408 20:53:28.665150 17265 layer_factory.hpp:77] Creating layer fc2_4_postscale
I0408 20:53:28.665158 17265 net.cpp:100] Creating Layer fc2_4_postscale
I0408 20:53:28.665164 17265 net.cpp:434] fc2_4_postscale <- fc2_4
I0408 20:53:28.665171 17265 net.cpp:395] fc2_4_postscale -> fc2_4 (in-place)
I0408 20:53:28.665295 17265 net.cpp:150] Setting up fc2_4_postscale
I0408 20:53:28.665303 17265 net.cpp:157] Top shape: 200 300 (60000)
I0408 20:53:28.665307 17265 net.cpp:165] Memory required for data: 2406965600
I0408 20:53:28.665313 17265 layer_factory.hpp:77] Creating layer drop2_4
I0408 20:53:28.665319 17265 net.cpp:100] Creating Layer drop2_4
I0408 20:53:28.665324 17265 net.cpp:434] drop2_4 <- fc2_4
I0408 20:53:28.665330 17265 net.cpp:395] drop2_4 -> fc2_4 (in-place)
I0408 20:53:28.665359 17265 net.cpp:150] Setting up drop2_4
I0408 20:53:28.665365 17265 net.cpp:157] Top shape: 200 300 (60000)
I0408 20:53:28.665369 17265 net.cpp:165] Memory required for data: 2407205600
I0408 20:53:28.665371 17265 layer_factory.hpp:77] Creating layer fc2_5_67
I0408 20:53:28.665379 17265 net.cpp:100] Creating Layer fc2_5_67
I0408 20:53:28.665383 17265 net.cpp:434] fc2_5_67 <- fc2_4
I0408 20:53:28.665388 17265 net.cpp:408] fc2_5_67 -> fc2_5
I0408 20:53:28.665660 17265 net.cpp:150] Setting up fc2_5_67
I0408 20:53:28.665669 17265 net.cpp:157] Top shape: 200 67 (13400)
I0408 20:53:28.665673 17265 net.cpp:165] Memory required for data: 2407259200
I0408 20:53:28.665678 17265 layer_factory.hpp:77] Creating layer softmax_2
I0408 20:53:28.665686 17265 net.cpp:100] Creating Layer softmax_2
I0408 20:53:28.665690 17265 net.cpp:434] softmax_2 <- fc2_5
I0408 20:53:28.665695 17265 net.cpp:408] softmax_2 -> softmax_2
I0408 20:53:28.665971 17265 net.cpp:150] Setting up softmax_2
I0408 20:53:28.665983 17265 net.cpp:157] Top shape: 200 67 (13400)
I0408 20:53:28.665988 17265 net.cpp:165] Memory required for data: 2407312800
I0408 20:53:28.665992 17265 layer_factory.hpp:77] Creating layer data_3
I0408 20:53:28.666371 17265 net.cpp:100] Creating Layer data_3
I0408 20:53:28.666383 17265 net.cpp:408] data_3 -> data_3
I0408 20:53:28.666393 17265 net.cpp:408] data_3 -> label_3
I0408 20:53:28.670332 17371 db_lmdb.cpp:35] Opened lmdb ../local_data/lmdb/rtsd-r1/imajust/train/lmdb
I0408 20:53:28.670492 17265 data_layer.cpp:41] output data size: 200,3,48,48
I0408 20:53:28.683634 17265 net.cpp:150] Setting up data_3
I0408 20:53:28.683655 17265 net.cpp:157] Top shape: 200 3 48 48 (1382400)
I0408 20:53:28.683660 17265 net.cpp:157] Top shape: 200 (200)
I0408 20:53:28.683662 17265 net.cpp:165] Memory required for data: 2412843200
I0408 20:53:28.683678 17265 layer_factory.hpp:77] Creating layer conv3_0
I0408 20:53:28.683694 17265 net.cpp:100] Creating Layer conv3_0
I0408 20:53:28.683701 17265 net.cpp:434] conv3_0 <- data_3
I0408 20:53:28.683708 17265 net.cpp:408] conv3_0 -> conv3_0
I0408 20:53:28.687208 17265 net.cpp:150] Setting up conv3_0
I0408 20:53:28.687243 17265 net.cpp:157] Top shape: 200 100 42 42 (35280000)
I0408 20:53:28.687250 17265 net.cpp:165] Memory required for data: 2553963200
I0408 20:53:28.687258 17265 layer_factory.hpp:77] Creating layer conv3_0_prescale
I0408 20:53:28.687268 17265 net.cpp:100] Creating Layer conv3_0_prescale
I0408 20:53:28.687273 17265 net.cpp:434] conv3_0_prescale <- conv3_0
I0408 20:53:28.687280 17265 net.cpp:395] conv3_0_prescale -> conv3_0 (in-place)
I0408 20:53:28.687407 17265 net.cpp:150] Setting up conv3_0_prescale
I0408 20:53:28.687417 17265 net.cpp:157] Top shape: 200 100 42 42 (35280000)
I0408 20:53:28.687422 17265 net.cpp:165] Memory required for data: 2695083200
I0408 20:53:28.687427 17265 layer_factory.hpp:77] Creating layer conv3_0_sTanH
I0408 20:53:28.687433 17265 net.cpp:100] Creating Layer conv3_0_sTanH
I0408 20:53:28.687438 17265 net.cpp:434] conv3_0_sTanH <- conv3_0
I0408 20:53:28.687443 17265 net.cpp:395] conv3_0_sTanH -> conv3_0 (in-place)
I0408 20:53:28.688915 17265 net.cpp:150] Setting up conv3_0_sTanH
I0408 20:53:28.688933 17265 net.cpp:157] Top shape: 200 100 42 42 (35280000)
I0408 20:53:28.688937 17265 net.cpp:165] Memory required for data: 2836203200
I0408 20:53:28.688942 17265 layer_factory.hpp:77] Creating layer conv3_0_postscale
I0408 20:53:28.688951 17265 net.cpp:100] Creating Layer conv3_0_postscale
I0408 20:53:28.688956 17265 net.cpp:434] conv3_0_postscale <- conv3_0
I0408 20:53:28.688963 17265 net.cpp:395] conv3_0_postscale -> conv3_0 (in-place)
I0408 20:53:28.689091 17265 net.cpp:150] Setting up conv3_0_postscale
I0408 20:53:28.689101 17265 net.cpp:157] Top shape: 200 100 42 42 (35280000)
I0408 20:53:28.689105 17265 net.cpp:165] Memory required for data: 2977323200
I0408 20:53:28.689110 17265 layer_factory.hpp:77] Creating layer pool3_0
I0408 20:53:28.689117 17265 net.cpp:100] Creating Layer pool3_0
I0408 20:53:28.689122 17265 net.cpp:434] pool3_0 <- conv3_0
I0408 20:53:28.689128 17265 net.cpp:408] pool3_0 -> pool3_0
I0408 20:53:28.689182 17265 net.cpp:150] Setting up pool3_0
I0408 20:53:28.689190 17265 net.cpp:157] Top shape: 200 100 21 21 (8820000)
I0408 20:53:28.689193 17265 net.cpp:165] Memory required for data: 3012603200
I0408 20:53:28.689196 17265 layer_factory.hpp:77] Creating layer conv3_1
I0408 20:53:28.689206 17265 net.cpp:100] Creating Layer conv3_1
I0408 20:53:28.689211 17265 net.cpp:434] conv3_1 <- pool3_0
I0408 20:53:28.689218 17265 net.cpp:408] conv3_1 -> conv3_1
I0408 20:53:28.691620 17265 net.cpp:150] Setting up conv3_1
I0408 20:53:28.691637 17265 net.cpp:157] Top shape: 200 150 18 18 (9720000)
I0408 20:53:28.691640 17265 net.cpp:165] Memory required for data: 3051483200
I0408 20:53:28.691649 17265 layer_factory.hpp:77] Creating layer conv3_1_prescale
I0408 20:53:28.691658 17265 net.cpp:100] Creating Layer conv3_1_prescale
I0408 20:53:28.691663 17265 net.cpp:434] conv3_1_prescale <- conv3_1
I0408 20:53:28.691669 17265 net.cpp:395] conv3_1_prescale -> conv3_1 (in-place)
I0408 20:53:28.691792 17265 net.cpp:150] Setting up conv3_1_prescale
I0408 20:53:28.691802 17265 net.cpp:157] Top shape: 200 150 18 18 (9720000)
I0408 20:53:28.691804 17265 net.cpp:165] Memory required for data: 3090363200
I0408 20:53:28.691809 17265 layer_factory.hpp:77] Creating layer conv3_1_sTanH
I0408 20:53:28.691814 17265 net.cpp:100] Creating Layer conv3_1_sTanH
I0408 20:53:28.691817 17265 net.cpp:434] conv3_1_sTanH <- conv3_1
I0408 20:53:28.691823 17265 net.cpp:395] conv3_1_sTanH -> conv3_1 (in-place)
I0408 20:53:28.704483 17265 net.cpp:150] Setting up conv3_1_sTanH
I0408 20:53:28.704500 17265 net.cpp:157] Top shape: 200 150 18 18 (9720000)
I0408 20:53:28.704504 17265 net.cpp:165] Memory required for data: 3129243200
I0408 20:53:28.704507 17265 layer_factory.hpp:77] Creating layer conv3_1_postscale
I0408 20:53:28.704519 17265 net.cpp:100] Creating Layer conv3_1_postscale
I0408 20:53:28.704524 17265 net.cpp:434] conv3_1_postscale <- conv3_1
I0408 20:53:28.704530 17265 net.cpp:395] conv3_1_postscale -> conv3_1 (in-place)
I0408 20:53:28.705062 17265 net.cpp:150] Setting up conv3_1_postscale
I0408 20:53:28.705094 17265 net.cpp:157] Top shape: 200 150 18 18 (9720000)
I0408 20:53:28.705101 17265 net.cpp:165] Memory required for data: 3168123200
I0408 20:53:28.705107 17265 layer_factory.hpp:77] Creating layer pool3_1
I0408 20:53:28.705116 17265 net.cpp:100] Creating Layer pool3_1
I0408 20:53:28.705122 17265 net.cpp:434] pool3_1 <- conv3_1
I0408 20:53:28.705128 17265 net.cpp:408] pool3_1 -> pool3_1
I0408 20:53:28.705183 17265 net.cpp:150] Setting up pool3_1
I0408 20:53:28.705193 17265 net.cpp:157] Top shape: 200 150 9 9 (2430000)
I0408 20:53:28.705195 17265 net.cpp:165] Memory required for data: 3177843200
I0408 20:53:28.705199 17265 layer_factory.hpp:77] Creating layer conv3_2
I0408 20:53:28.705210 17265 net.cpp:100] Creating Layer conv3_2
I0408 20:53:28.705215 17265 net.cpp:434] conv3_2 <- pool3_1
I0408 20:53:28.705222 17265 net.cpp:408] conv3_2 -> conv3_2
I0408 20:53:28.711694 17265 net.cpp:150] Setting up conv3_2
I0408 20:53:28.711714 17265 net.cpp:157] Top shape: 200 250 6 6 (1800000)
I0408 20:53:28.711720 17265 net.cpp:165] Memory required for data: 3185043200
I0408 20:53:28.711727 17265 layer_factory.hpp:77] Creating layer conv3_2_prescale
I0408 20:53:28.711736 17265 net.cpp:100] Creating Layer conv3_2_prescale
I0408 20:53:28.711741 17265 net.cpp:434] conv3_2_prescale <- conv3_2
I0408 20:53:28.711750 17265 net.cpp:395] conv3_2_prescale -> conv3_2 (in-place)
I0408 20:53:28.711865 17265 net.cpp:150] Setting up conv3_2_prescale
I0408 20:53:28.711875 17265 net.cpp:157] Top shape: 200 250 6 6 (1800000)
I0408 20:53:28.711891 17265 net.cpp:165] Memory required for data: 3192243200
I0408 20:53:28.711910 17265 layer_factory.hpp:77] Creating layer conv3_2_sTanH
I0408 20:53:28.711917 17265 net.cpp:100] Creating Layer conv3_2_sTanH
I0408 20:53:28.711922 17265 net.cpp:434] conv3_2_sTanH <- conv3_2
I0408 20:53:28.711927 17265 net.cpp:395] conv3_2_sTanH -> conv3_2 (in-place)
I0408 20:53:28.712622 17265 net.cpp:150] Setting up conv3_2_sTanH
I0408 20:53:28.712643 17265 net.cpp:157] Top shape: 200 250 6 6 (1800000)
I0408 20:53:28.712649 17265 net.cpp:165] Memory required for data: 3199443200
I0408 20:53:28.712653 17265 layer_factory.hpp:77] Creating layer conv3_2_postscale
I0408 20:53:28.712661 17265 net.cpp:100] Creating Layer conv3_2_postscale
I0408 20:53:28.712667 17265 net.cpp:434] conv3_2_postscale <- conv3_2
I0408 20:53:28.712676 17265 net.cpp:395] conv3_2_postscale -> conv3_2 (in-place)
I0408 20:53:28.712805 17265 net.cpp:150] Setting up conv3_2_postscale
I0408 20:53:28.712815 17265 net.cpp:157] Top shape: 200 250 6 6 (1800000)
I0408 20:53:28.712818 17265 net.cpp:165] Memory required for data: 3206643200
I0408 20:53:28.712823 17265 layer_factory.hpp:77] Creating layer pool3_2
I0408 20:53:28.712831 17265 net.cpp:100] Creating Layer pool3_2
I0408 20:53:28.712834 17265 net.cpp:434] pool3_2 <- conv3_2
I0408 20:53:28.712841 17265 net.cpp:408] pool3_2 -> pool3_2
I0408 20:53:28.712893 17265 net.cpp:150] Setting up pool3_2
I0408 20:53:28.712901 17265 net.cpp:157] Top shape: 200 250 3 3 (450000)
I0408 20:53:28.712903 17265 net.cpp:165] Memory required for data: 3208443200
I0408 20:53:28.712906 17265 layer_factory.hpp:77] Creating layer fc3_4_300
I0408 20:53:28.712915 17265 net.cpp:100] Creating Layer fc3_4_300
I0408 20:53:28.712920 17265 net.cpp:434] fc3_4_300 <- pool3_2
I0408 20:53:28.712925 17265 net.cpp:408] fc3_4_300 -> fc3_4
I0408 20:53:28.718389 17265 net.cpp:150] Setting up fc3_4_300
I0408 20:53:28.718407 17265 net.cpp:157] Top shape: 200 300 (60000)
I0408 20:53:28.718411 17265 net.cpp:165] Memory required for data: 3208683200
I0408 20:53:28.718418 17265 layer_factory.hpp:77] Creating layer fc3_4_prescale
I0408 20:53:28.718428 17265 net.cpp:100] Creating Layer fc3_4_prescale
I0408 20:53:28.718435 17265 net.cpp:434] fc3_4_prescale <- fc3_4
I0408 20:53:28.718439 17265 net.cpp:395] fc3_4_prescale -> fc3_4 (in-place)
I0408 20:53:28.718551 17265 net.cpp:150] Setting up fc3_4_prescale
I0408 20:53:28.718561 17265 net.cpp:157] Top shape: 200 300 (60000)
I0408 20:53:28.718564 17265 net.cpp:165] Memory required for data: 3208923200
I0408 20:53:28.718583 17265 layer_factory.hpp:77] Creating layer fc3_4_sTanH
I0408 20:53:28.718593 17265 net.cpp:100] Creating Layer fc3_4_sTanH
I0408 20:53:28.718597 17265 net.cpp:434] fc3_4_sTanH <- fc3_4
I0408 20:53:28.718601 17265 net.cpp:395] fc3_4_sTanH -> fc3_4 (in-place)
I0408 20:53:28.718838 17265 net.cpp:150] Setting up fc3_4_sTanH
I0408 20:53:28.718850 17265 net.cpp:157] Top shape: 200 300 (60000)
I0408 20:53:28.718853 17265 net.cpp:165] Memory required for data: 3209163200
I0408 20:53:28.718857 17265 layer_factory.hpp:77] Creating layer fc3_4_postscale
I0408 20:53:28.718866 17265 net.cpp:100] Creating Layer fc3_4_postscale
I0408 20:53:28.718871 17265 net.cpp:434] fc3_4_postscale <- fc3_4
I0408 20:53:28.718878 17265 net.cpp:395] fc3_4_postscale -> fc3_4 (in-place)
I0408 20:53:28.719002 17265 net.cpp:150] Setting up fc3_4_postscale
I0408 20:53:28.719010 17265 net.cpp:157] Top shape: 200 300 (60000)
I0408 20:53:28.719012 17265 net.cpp:165] Memory required for data: 3209403200
I0408 20:53:28.719017 17265 layer_factory.hpp:77] Creating layer drop3_4
I0408 20:53:28.719023 17265 net.cpp:100] Creating Layer drop3_4
I0408 20:53:28.719028 17265 net.cpp:434] drop3_4 <- fc3_4
I0408 20:53:28.719034 17265 net.cpp:395] drop3_4 -> fc3_4 (in-place)
I0408 20:53:28.719064 17265 net.cpp:150] Setting up drop3_4
I0408 20:53:28.719072 17265 net.cpp:157] Top shape: 200 300 (60000)
I0408 20:53:28.719074 17265 net.cpp:165] Memory required for data: 3209643200
I0408 20:53:28.719077 17265 layer_factory.hpp:77] Creating layer fc3_5_67
I0408 20:53:28.719085 17265 net.cpp:100] Creating Layer fc3_5_67
I0408 20:53:28.719089 17265 net.cpp:434] fc3_5_67 <- fc3_4
I0408 20:53:28.719094 17265 net.cpp:408] fc3_5_67 -> fc3_5
I0408 20:53:28.719358 17265 net.cpp:150] Setting up fc3_5_67
I0408 20:53:28.719367 17265 net.cpp:157] Top shape: 200 67 (13400)
I0408 20:53:28.719370 17265 net.cpp:165] Memory required for data: 3209696800
I0408 20:53:28.719375 17265 layer_factory.hpp:77] Creating layer softmax_3
I0408 20:53:28.719383 17265 net.cpp:100] Creating Layer softmax_3
I0408 20:53:28.719388 17265 net.cpp:434] softmax_3 <- fc3_5
I0408 20:53:28.719393 17265 net.cpp:408] softmax_3 -> softmax_3
I0408 20:53:28.719661 17265 net.cpp:150] Setting up softmax_3
I0408 20:53:28.719673 17265 net.cpp:157] Top shape: 200 67 (13400)
I0408 20:53:28.719677 17265 net.cpp:165] Memory required for data: 3209750400
I0408 20:53:28.719681 17265 layer_factory.hpp:77] Creating layer data_4
I0408 20:53:28.719866 17265 net.cpp:100] Creating Layer data_4
I0408 20:53:28.719888 17265 net.cpp:408] data_4 -> data_4
I0408 20:53:28.719902 17265 net.cpp:408] data_4 -> label_4
I0408 20:53:28.721061 17373 db_lmdb.cpp:35] Opened lmdb ../local_data/lmdb/rtsd-r1/CoNorm/train/lmdb
I0408 20:53:28.721246 17265 data_layer.cpp:41] output data size: 200,3,48,48
I0408 20:53:28.731827 17265 net.cpp:150] Setting up data_4
I0408 20:53:28.731847 17265 net.cpp:157] Top shape: 200 3 48 48 (1382400)
I0408 20:53:28.731851 17265 net.cpp:157] Top shape: 200 (200)
I0408 20:53:28.731854 17265 net.cpp:165] Memory required for data: 3215280800
I0408 20:53:28.731858 17265 layer_factory.hpp:77] Creating layer conv4_0
I0408 20:53:28.731889 17265 net.cpp:100] Creating Layer conv4_0
I0408 20:53:28.731897 17265 net.cpp:434] conv4_0 <- data_4
I0408 20:53:28.731906 17265 net.cpp:408] conv4_0 -> conv4_0
I0408 20:53:28.734376 17265 net.cpp:150] Setting up conv4_0
I0408 20:53:28.734396 17265 net.cpp:157] Top shape: 200 100 42 42 (35280000)
I0408 20:53:28.734401 17265 net.cpp:165] Memory required for data: 3356400800
I0408 20:53:28.734408 17265 layer_factory.hpp:77] Creating layer conv4_0_prescale
I0408 20:53:28.734421 17265 net.cpp:100] Creating Layer conv4_0_prescale
I0408 20:53:28.734426 17265 net.cpp:434] conv4_0_prescale <- conv4_0
I0408 20:53:28.734433 17265 net.cpp:395] conv4_0_prescale -> conv4_0 (in-place)
I0408 20:53:28.734562 17265 net.cpp:150] Setting up conv4_0_prescale
I0408 20:53:28.734571 17265 net.cpp:157] Top shape: 200 100 42 42 (35280000)
I0408 20:53:28.734575 17265 net.cpp:165] Memory required for data: 3497520800
I0408 20:53:28.734596 17265 layer_factory.hpp:77] Creating layer conv4_0_sTanH
I0408 20:53:28.734604 17265 net.cpp:100] Creating Layer conv4_0_sTanH
I0408 20:53:28.734608 17265 net.cpp:434] conv4_0_sTanH <- conv4_0
I0408 20:53:28.734616 17265 net.cpp:395] conv4_0_sTanH -> conv4_0 (in-place)
I0408 20:53:28.735461 17265 net.cpp:150] Setting up conv4_0_sTanH
I0408 20:53:28.735478 17265 net.cpp:157] Top shape: 200 100 42 42 (35280000)
I0408 20:53:28.735483 17265 net.cpp:165] Memory required for data: 3638640800
I0408 20:53:28.735487 17265 layer_factory.hpp:77] Creating layer conv4_0_postscale
I0408 20:53:28.735501 17265 net.cpp:100] Creating Layer conv4_0_postscale
I0408 20:53:28.735505 17265 net.cpp:434] conv4_0_postscale <- conv4_0
I0408 20:53:28.735512 17265 net.cpp:395] conv4_0_postscale -> conv4_0 (in-place)
I0408 20:53:28.735641 17265 net.cpp:150] Setting up conv4_0_postscale
I0408 20:53:28.735652 17265 net.cpp:157] Top shape: 200 100 42 42 (35280000)
I0408 20:53:28.735656 17265 net.cpp:165] Memory required for data: 3779760800
I0408 20:53:28.735661 17265 layer_factory.hpp:77] Creating layer pool4_0
I0408 20:53:28.735668 17265 net.cpp:100] Creating Layer pool4_0
I0408 20:53:28.735674 17265 net.cpp:434] pool4_0 <- conv4_0
I0408 20:53:28.735679 17265 net.cpp:408] pool4_0 -> pool4_0
I0408 20:53:28.735731 17265 net.cpp:150] Setting up pool4_0
I0408 20:53:28.735740 17265 net.cpp:157] Top shape: 200 100 21 21 (8820000)
I0408 20:53:28.735743 17265 net.cpp:165] Memory required for data: 3815040800
I0408 20:53:28.735746 17265 layer_factory.hpp:77] Creating layer conv4_1
I0408 20:53:28.735765 17265 net.cpp:100] Creating Layer conv4_1
I0408 20:53:28.735770 17265 net.cpp:434] conv4_1 <- pool4_0
I0408 20:53:28.735779 17265 net.cpp:408] conv4_1 -> conv4_1
I0408 20:53:28.739909 17265 net.cpp:150] Setting up conv4_1
I0408 20:53:28.739928 17265 net.cpp:157] Top shape: 200 150 18 18 (9720000)
I0408 20:53:28.739933 17265 net.cpp:165] Memory required for data: 3853920800
I0408 20:53:28.739939 17265 layer_factory.hpp:77] Creating layer conv4_1_prescale
I0408 20:53:28.739950 17265 net.cpp:100] Creating Layer conv4_1_prescale
I0408 20:53:28.739956 17265 net.cpp:434] conv4_1_prescale <- conv4_1
I0408 20:53:28.739961 17265 net.cpp:395] conv4_1_prescale -> conv4_1 (in-place)
I0408 20:53:28.740087 17265 net.cpp:150] Setting up conv4_1_prescale
I0408 20:53:28.740097 17265 net.cpp:157] Top shape: 200 150 18 18 (9720000)
I0408 20:53:28.740099 17265 net.cpp:165] Memory required for data: 3892800800
I0408 20:53:28.740103 17265 layer_factory.hpp:77] Creating layer conv4_1_sTanH
I0408 20:53:28.740111 17265 net.cpp:100] Creating Layer conv4_1_sTanH
I0408 20:53:28.740116 17265 net.cpp:434] conv4_1_sTanH <- conv4_1
I0408 20:53:28.740121 17265 net.cpp:395] conv4_1_sTanH -> conv4_1 (in-place)
I0408 20:53:28.740804 17265 net.cpp:150] Setting up conv4_1_sTanH
I0408 20:53:28.740821 17265 net.cpp:157] Top shape: 200 150 18 18 (9720000)
I0408 20:53:28.740826 17265 net.cpp:165] Memory required for data: 3931680800
I0408 20:53:28.740829 17265 layer_factory.hpp:77] Creating layer conv4_1_postscale
I0408 20:53:28.740836 17265 net.cpp:100] Creating Layer conv4_1_postscale
I0408 20:53:28.740840 17265 net.cpp:434] conv4_1_postscale <- conv4_1
I0408 20:53:28.740846 17265 net.cpp:395] conv4_1_postscale -> conv4_1 (in-place)
I0408 20:53:28.740973 17265 net.cpp:150] Setting up conv4_1_postscale
I0408 20:53:28.740983 17265 net.cpp:157] Top shape: 200 150 18 18 (9720000)
I0408 20:53:28.740993 17265 net.cpp:165] Memory required for data: 3970560800
I0408 20:53:28.740998 17265 layer_factory.hpp:77] Creating layer pool4_1
I0408 20:53:28.741005 17265 net.cpp:100] Creating Layer pool4_1
I0408 20:53:28.741009 17265 net.cpp:434] pool4_1 <- conv4_1
I0408 20:53:28.741024 17265 net.cpp:408] pool4_1 -> pool4_1
I0408 20:53:28.741076 17265 net.cpp:150] Setting up pool4_1
I0408 20:53:28.741084 17265 net.cpp:157] Top shape: 200 150 9 9 (2430000)
I0408 20:53:28.741087 17265 net.cpp:165] Memory required for data: 3980280800
I0408 20:53:28.741091 17265 layer_factory.hpp:77] Creating layer conv4_2
I0408 20:53:28.741116 17265 net.cpp:100] Creating Layer conv4_2
I0408 20:53:28.741123 17265 net.cpp:434] conv4_2 <- pool4_1
I0408 20:53:28.741132 17265 net.cpp:408] conv4_2 -> conv4_2
I0408 20:53:28.748003 17265 net.cpp:150] Setting up conv4_2
I0408 20:53:28.748021 17265 net.cpp:157] Top shape: 200 250 6 6 (1800000)
I0408 20:53:28.748025 17265 net.cpp:165] Memory required for data: 3987480800
I0408 20:53:28.748033 17265 layer_factory.hpp:77] Creating layer conv4_2_prescale
I0408 20:53:28.748040 17265 net.cpp:100] Creating Layer conv4_2_prescale
I0408 20:53:28.748045 17265 net.cpp:434] conv4_2_prescale <- conv4_2
I0408 20:53:28.748054 17265 net.cpp:395] conv4_2_prescale -> conv4_2 (in-place)
I0408 20:53:28.748172 17265 net.cpp:150] Setting up conv4_2_prescale
I0408 20:53:28.748181 17265 net.cpp:157] Top shape: 200 250 6 6 (1800000)
I0408 20:53:28.748184 17265 net.cpp:165] Memory required for data: 3994680800
I0408 20:53:28.748188 17265 layer_factory.hpp:77] Creating layer conv4_2_sTanH
I0408 20:53:28.748194 17265 net.cpp:100] Creating Layer conv4_2_sTanH
I0408 20:53:28.748199 17265 net.cpp:434] conv4_2_sTanH <- conv4_2
I0408 20:53:28.748205 17265 net.cpp:395] conv4_2_sTanH -> conv4_2 (in-place)
I0408 20:53:28.748404 17265 net.cpp:150] Setting up conv4_2_sTanH
I0408 20:53:28.748420 17265 net.cpp:157] Top shape: 200 250 6 6 (1800000)
I0408 20:53:28.748423 17265 net.cpp:165] Memory required for data: 4001880800
I0408 20:53:28.748427 17265 layer_factory.hpp:77] Creating layer conv4_2_postscale
I0408 20:53:28.748435 17265 net.cpp:100] Creating Layer conv4_2_postscale
I0408 20:53:28.748440 17265 net.cpp:434] conv4_2_postscale <- conv4_2
I0408 20:53:28.748447 17265 net.cpp:395] conv4_2_postscale -> conv4_2 (in-place)
I0408 20:53:28.748571 17265 net.cpp:150] Setting up conv4_2_postscale
I0408 20:53:28.748580 17265 net.cpp:157] Top shape: 200 250 6 6 (1800000)
I0408 20:53:28.748584 17265 net.cpp:165] Memory required for data: 4009080800
I0408 20:53:28.748589 17265 layer_factory.hpp:77] Creating layer pool4_2
I0408 20:53:28.748597 17265 net.cpp:100] Creating Layer pool4_2
I0408 20:53:28.748602 17265 net.cpp:434] pool4_2 <- conv4_2
I0408 20:53:28.748608 17265 net.cpp:408] pool4_2 -> pool4_2
I0408 20:53:28.748659 17265 net.cpp:150] Setting up pool4_2
I0408 20:53:28.748667 17265 net.cpp:157] Top shape: 200 250 3 3 (450000)
I0408 20:53:28.748670 17265 net.cpp:165] Memory required for data: 4010880800
I0408 20:53:28.748673 17265 layer_factory.hpp:77] Creating layer fc4_4_300
I0408 20:53:28.748682 17265 net.cpp:100] Creating Layer fc4_4_300
I0408 20:53:28.748685 17265 net.cpp:434] fc4_4_300 <- pool4_2
I0408 20:53:28.748694 17265 net.cpp:408] fc4_4_300 -> fc4_4
I0408 20:53:28.754267 17265 net.cpp:150] Setting up fc4_4_300
I0408 20:53:28.754283 17265 net.cpp:157] Top shape: 200 300 (60000)
I0408 20:53:28.754287 17265 net.cpp:165] Memory required for data: 4011120800
I0408 20:53:28.754293 17265 layer_factory.hpp:77] Creating layer fc4_4_prescale
I0408 20:53:28.754304 17265 net.cpp:100] Creating Layer fc4_4_prescale
I0408 20:53:28.754309 17265 net.cpp:434] fc4_4_prescale <- fc4_4
I0408 20:53:28.754314 17265 net.cpp:395] fc4_4_prescale -> fc4_4 (in-place)
I0408 20:53:28.754431 17265 net.cpp:150] Setting up fc4_4_prescale
I0408 20:53:28.754438 17265 net.cpp:157] Top shape: 200 300 (60000)
I0408 20:53:28.754441 17265 net.cpp:165] Memory required for data: 4011360800
I0408 20:53:28.754446 17265 layer_factory.hpp:77] Creating layer fc4_4_sTanH
I0408 20:53:28.754452 17265 net.cpp:100] Creating Layer fc4_4_sTanH
I0408 20:53:28.754456 17265 net.cpp:434] fc4_4_sTanH <- fc4_4
I0408 20:53:28.754462 17265 net.cpp:395] fc4_4_sTanH -> fc4_4 (in-place)
I0408 20:53:28.754673 17265 net.cpp:150] Setting up fc4_4_sTanH
I0408 20:53:28.754685 17265 net.cpp:157] Top shape: 200 300 (60000)
I0408 20:53:28.754690 17265 net.cpp:165] Memory required for data: 4011600800
I0408 20:53:28.754693 17265 layer_factory.hpp:77] Creating layer fc4_4_postscale
I0408 20:53:28.754700 17265 net.cpp:100] Creating Layer fc4_4_postscale
I0408 20:53:28.754717 17265 net.cpp:434] fc4_4_postscale <- fc4_4
I0408 20:53:28.754726 17265 net.cpp:395] fc4_4_postscale -> fc4_4 (in-place)
I0408 20:53:28.754853 17265 net.cpp:150] Setting up fc4_4_postscale
I0408 20:53:28.754861 17265 net.cpp:157] Top shape: 200 300 (60000)
I0408 20:53:28.754864 17265 net.cpp:165] Memory required for data: 4011840800
I0408 20:53:28.754869 17265 layer_factory.hpp:77] Creating layer drop4_4
I0408 20:53:28.754875 17265 net.cpp:100] Creating Layer drop4_4
I0408 20:53:28.754880 17265 net.cpp:434] drop4_4 <- fc4_4
I0408 20:53:28.754884 17265 net.cpp:395] drop4_4 -> fc4_4 (in-place)
I0408 20:53:28.754916 17265 net.cpp:150] Setting up drop4_4
I0408 20:53:28.754923 17265 net.cpp:157] Top shape: 200 300 (60000)
I0408 20:53:28.754926 17265 net.cpp:165] Memory required for data: 4012080800
I0408 20:53:28.754930 17265 layer_factory.hpp:77] Creating layer fc4_5_67
I0408 20:53:28.754936 17265 net.cpp:100] Creating Layer fc4_5_67
I0408 20:53:28.754941 17265 net.cpp:434] fc4_5_67 <- fc4_4
I0408 20:53:28.754945 17265 net.cpp:408] fc4_5_67 -> fc4_5
I0408 20:53:28.755213 17265 net.cpp:150] Setting up fc4_5_67
I0408 20:53:28.755223 17265 net.cpp:157] Top shape: 200 67 (13400)
I0408 20:53:28.755226 17265 net.cpp:165] Memory required for data: 4012134400
I0408 20:53:28.755234 17265 layer_factory.hpp:77] Creating layer softmax_4
I0408 20:53:28.755241 17265 net.cpp:100] Creating Layer softmax_4
I0408 20:53:28.755246 17265 net.cpp:434] softmax_4 <- fc4_5
I0408 20:53:28.755251 17265 net.cpp:408] softmax_4 -> softmax_4
I0408 20:53:28.755533 17265 net.cpp:150] Setting up softmax_4
I0408 20:53:28.755545 17265 net.cpp:157] Top shape: 200 67 (13400)
I0408 20:53:28.755548 17265 net.cpp:165] Memory required for data: 4012188000
I0408 20:53:28.755551 17265 layer_factory.hpp:77] Creating layer averaging
I0408 20:53:28.755560 17265 net.cpp:100] Creating Layer averaging
I0408 20:53:28.755565 17265 net.cpp:434] averaging <- softmax_0
I0408 20:53:28.755569 17265 net.cpp:434] averaging <- softmax_1
I0408 20:53:28.755574 17265 net.cpp:434] averaging <- softmax_2
I0408 20:53:28.755578 17265 net.cpp:434] averaging <- softmax_3
I0408 20:53:28.755581 17265 net.cpp:434] averaging <- softmax_4
I0408 20:53:28.755589 17265 net.cpp:408] averaging -> eltwize
I0408 20:53:28.755627 17265 net.cpp:150] Setting up averaging
I0408 20:53:28.755635 17265 net.cpp:157] Top shape: 200 67 (13400)
I0408 20:53:28.755637 17265 net.cpp:165] Memory required for data: 4012241600
I0408 20:53:28.755641 17265 layer_factory.hpp:77] Creating layer loss
I0408 20:53:28.755647 17265 net.cpp:100] Creating Layer loss
I0408 20:53:28.755652 17265 net.cpp:434] loss <- eltwize
I0408 20:53:28.755656 17265 net.cpp:434] loss <- label_0
I0408 20:53:28.755664 17265 net.cpp:408] loss -> loss
I0408 20:53:28.755697 17265 net.cpp:150] Setting up loss
…
I0408 20:53:28.757165 17265 solver.cpp:193] Creating test net (#0) specified by test_net file: ./Prototxt/experiment_6/rtsd-r1/commitee/test.prototxt
I0408 20:53:28.757819 17265 net.cpp:58] Initializing net from parameters: 
state {
  phase: TEST
}
layer {
  name: "data_0"
  type: "Data"
  top: "data_0"
  top: "label_0"
  include {
    phase: TEST
  }
  transform_param {
    mirror: false
    crop_size: 48
    mean_value: 106
    mean_value: 103
    mean_value: 123
  }
  data_param {
    source: "../local_data/lmdb/rtsd-r1/orig/test/lmdb"
    batch_size: 200
    backend: LMDB
  }
}
layer {
  name: "conv0_0"
  type: "Convolution"
  bottom: "data_0"
  top: "conv0_0"
  convolution_param {
    num_output: 100
    pad: 0
    kernel_size: 7
    group: 1
    stride: 1
    weight_filler {
      type: "xavier"
    }
  }
}
layer {
  name: "conv0_0_prescale"
  type: "Scale"
  bottom: "conv0_0"
  top: "conv0_0"
  param {
    lr_mult: 0
    decay_mult: 0
  }
  scale_param {
    filler {
      value: 0.6666
    }
  }
}
layer {
  name: "conv0_0_sTanH"
  type: "TanH"
  bottom: "conv0_0"
  top: "conv0_0"
}
layer {
  name: "conv0_0_postscale"
  type: "Scale"
  bottom: "conv0_0"
  top: "conv0_0"
  param {
    lr_mult: 0
    decay_mult: 0
  }
  scale_param {
    filler {
      value: 1.7159
    }
  }
}
layer {
  name: "pool0_0"
  type: "Pooling"
  bottom: "conv0_0"
  top: "pool0_0"
  pooling_param {
    pool: MAX
    kernel_size: 2
    stride: 2
  }
}
layer {
  name: "conv0_1"
  type: "Convolution"
  bottom: "pool0_0"
  top: "conv0_1"
  convolution_param {
    num_output: 150
    pad: 0
    kernel_size: 4
    group: 1
    stride: 1
    weight_filler {
      type: "xavier"
    }
  }
}
layer {
  name: "conv0_1_prescale"
  type: "Scale"
  bottom: "conv0_1"
  top: "conv0_1"
  param {
    lr_mult: 0
    decay_mult: 0
  }
  scale_param {
    filler {
      value: 0.6666
    }
  }
}
layer {
  name: "conv0_1_sTanH"
  type: "TanH"
  bottom: "conv0_1"
  top: "conv0_1"
}
layer {
  name: "conv0_1_postscale"
  type: "Scale"
  bottom: "conv0_1"
  top: "conv0_1"
  param {
    lr_mult: 0
    decay_mult: 0
  }
  scale_param {
    filler {
      value: 1.7159
    }
  }
}
layer {
  name: "pool0_1"
  type: "Pooling"
  bottom: "conv0_1"
  top: "pool0_1"
  pooling_param {
    pool: MAX
    kernel_size: 2
    stride: 2
  }
}
layer {
  name: "conv0_2"
  type: "Convolution"
  bottom: "pool0_1"
  top: "conv0_2"
  convolution_param {
    num_output: 250
    pad: 0
    kernel_size: 4
    group: 1
    stride: 1
    weight_filler {
      type: "xavier"
    }
  }
}
layer {
  name: "conv0_2_prescale"
  type: "Scale"
  bottom: "conv0_2"
  top: "conv0_2"
  param {
    lr_mult: 0
    decay_mult: 0
  }
  scale_param {
    filler {
      value: 0.6666
    }
  }
}
layer {
  name: "conv0_2_sTanH"
  type: "TanH"
  bottom: "conv0_2"
  top: "conv0_2"
}
layer {
  name: "conv0_2_postscale"
  type: "Scale"
  bottom: "conv0_2"
  top: "conv0_2"
  param {
    lr_mult: 0
    decay_mult: 0
  }
  scale_param {
    filler {
      value: 1.7159
    }
  }
}
layer {
  name: "pool0_2"
  type: "Pooling"
  bottom: "conv0_2"
  top: "pool0_2"
  pooling_param {
    pool: MAX
    kernel_size: 2
    stride: 2
  }
}
layer {
  name: "fc0_4_300"
  type: "InnerProduct"
  bottom: "pool0_2"
  top: "fc0_4"
  inner_product_param {
    num_output: 300
    weight_filler {
      type: "xavier"
    }
  }
}
layer {
  name: "fc0_4_prescale"
  type: "Scale"
  bottom: "fc0_4"
  top: "fc0_4"
  param {
    lr_mult: 0
    decay_mult: 0
  }
  scale_param {
    filler {
      value: 0.6666
    }
  }
}
layer {
  name: "fc0_4_sTanH"
  type: "TanH"
  bottom: "fc0_4"
  top: "fc0_4"
}
layer {
  name: "fc0_4_postscale"
  type: "Scale"
  bottom: "fc0_4"
  top: "fc0_4"
  param {
    lr_mult: 0
    decay_mult: 0
  }
  scale_param {
    filler {
      value: 1.7159
    }
  }
}
layer {
  name: "drop0_4"
  type: "Dropout"
  bottom: "fc0_4"
  top: "fc0_4"
  dropout_param {
    dropout_ratio: 0.4
  }
}
layer {
  name: "fc0_5_67"
  type: "InnerProduct"
  bottom: "fc0_4"
  top: "fc0_5"
  inner_product_param {
    num_output: 67
    weight_filler {
      type: "xavier"
    }
  }
}
layer {
  name: "softmax_0"
  type: "Softmax"
  bottom: "fc0_5"
  top: "softmax_0"
}
layer {
  name: "data_1"
  type: "Data"
  top: "data_1"
  top: "label_1"
  include {
    phase: TEST
  }
  transform_param {
    mirror: false
    crop_size: 48
    mean_value: 117
    mean_value: 114
    mean_value: 133
  }
  data_param {
    source: "../local_data/lmdb/rtsd-r1/histeq/test/lmdb"
    batch_size: 200
    backend: LMDB
  }
}
layer {
  name: "conv1_0"
  type: "Convolution"
  bottom: "data_1"
  top: "conv1_0"
  convolution_param {
    num_output: 100
    pad: 0
    kernel_size: 7
    group: 1
    stride: 1
    weight_filler {
      type: "xavier"
    }
  }
}
layer {
  name: "conv1_0_prescale"
  type: "Scale"
  bottom: "conv1_0"
  top: "conv1_0"
  param {
    lr_mult: 0
    decay_mult: 0
  }
  scale_param {
    filler {
      value: 0.6666
    }
  }
}
layer {
  name: "conv1_0_sTanH"
  type: "TanH"
  bottom: "conv1_0"
  top: "conv1_0"
}
layer {
  name: "conv1_0_postscale"
  type: "Scale"
  bottom: "conv1_0"
  top: "conv1_0"
  param {
    lr_mult: 0
    decay_mult: 0
  }
  scale_param {
    filler {
      value: 1.7159
    }
  }
}
layer {
  name: "pool1_0"
  type: "Pooling"
  bottom: "conv1_0"
  top: "pool1_0"
  pooling_param {
    pool: MAX
    kernel_size: 2
    stride: 2
  }
}
layer {
  name: "conv1_1"
  type: "Convolution"
  bottom: "pool1_0"
  top: "conv1_1"
  convolution_param {
    num_output: 150
    pad: 0
    kernel_size: 4
    group: 1
    stride: 1
    weight_filler {
      type: "xavier"
    }
  }
}
layer {
  name: "conv1_1_prescale"
  type: "Scale"
  bottom: "conv1_1"
  top: "conv1_1"
  param {
    lr_mult: 0
    decay_mult: 0
  }
  scale_param {
    filler {
      value: 0.6666
    }
  }
}
layer {
  name: "conv1_1_sTanH"
  type: "TanH"
  bottom: "conv1_1"
  top: "conv1_1"
}
layer {
  name: "conv1_1_postscale"
  type: "Scale"
  bottom: "conv1_1"
  top: "conv1_1"
  param {
    lr_mult: 0
    decay_mult: 0
  }
  scale_param {
    filler {
      value: 1.7159
    }
  }
}
layer {
  name: "pool1_1"
  type: "Pooling"
  bottom: "conv1_1"
  top: "pool1_1"
  pooling_param {
    pool: MAX
    kernel_size: 2
    stride: 2
  }
}
layer {
  name: "conv1_2"
  type: "Convolution"
  bottom: "pool1_1"
  top: "conv1_2"
  convolution_param {
    num_output: 250
    pad: 0
    kernel_size: 4
    group: 1
    stride: 1
    weight_filler {
      type: "xavier"
    }
  }
}
layer {
  name: "conv1_2_prescale"
  type: "Scale"
  bottom: "conv1_2"
  top: "conv1_2"
  param {
    lr_mult: 0
    decay_mult: 0
  }
  scale_param {
    filler {
      value: 0.6666
    }
  }
}
layer {
  name: "conv1_2_sTanH"
  type: "TanH"
  bottom: "conv1_2"
  top: "conv1_2"
}
layer {
  name: "conv1_2_postscale"
  type: "Scale"
  bottom: "conv1_2"
  top: "conv1_2"
  param {
    lr_mult: 0
    decay_mult: 0
  }
  scale_param {
    filler {
      value: 1.7159
    }
  }
}
layer {
  name: "pool1_2"
  type: "Pooling"
  bottom: "conv1_2"
  top: "pool1_2"
  pooling_param {
    pool: MAX
    kernel_size: 2
    stride: 2
  }
}
layer {
  name: "fc1_4_300"
  type: "InnerProduct"
  bottom: "pool1_2"
  top: "fc1_4"
  inner_product_param {
    num_output: 300
    weight_filler {
      type: "xavier"
    }
  }
}
layer {
  name: "fc1_4_prescale"
  type: "Scale"
  bottom: "fc1_4"
  top: "fc1_4"
  param {
    lr_mult: 0
    decay_mult: 0
  }
  scale_param {
    filler {
      value: 0.6666
    }
  }
}
layer {
  name: "fc1_4_sTanH"
  type: "TanH"
  bottom: "fc1_4"
  top: "fc1_4"
}
layer {
  name: "fc1_4_postscale"
  type: "Scale"
  bottom: "fc1_4"
  top: "fc1_4"
  param {
    lr_mult: 0
    decay_mult: 0
  }
  scale_param {
    filler {
      value: 1.7159
    }
  }
}
layer {
  name: "drop1_4"
  type: "Dropout"
  bottom: "fc1_4"
  top: "fc1_4"
  dropout_param {
    dropout_ratio: 0.4
  }
}
layer {
  name: "fc1_5_67"
  type: "InnerProduct"
  bottom: "fc1_4"
  top: "fc1_5"
  inner_product_param {
    num_output: 67
    weight_filler {
      type: "xavier"
    }
  }
}
layer {
  name: "softmax_1"
  type: "Softmax"
  bottom: "fc1_5"
  top: "softmax_1"
}
layer {
  name: "data_2"
  type: "Data"
  top: "data_2"
  top: "label_2"
  include {
    phase: TEST
  }
  transform_param {
    mirror: false
    crop_size: 48
    mean_value: 119
    mean_value: 116
    mean_value: 136
  }
  data_param {
    source: "../local_data/lmdb/rtsd-r1/AHE/test/lmdb"
    batch_size: 200
    backend: LMDB
  }
}
layer {
  name: "conv2_0"
  type: "Convolution"
  bottom: "data_2"
  top: "conv2_0"
  convolution_param {
    num_output: 100
    pad: 0
    kernel_size: 7
    group: 1
    stride: 1
    weight_filler {
      type: "xavier"
    }
  }
}
layer {
  name: "conv2_0_prescale"
  type: "Scale"
  bottom: "conv2_0"
  top: "conv2_0"
  param {
    lr_mult: 0
    decay_mult: 0
  }
  scale_param {
    filler {
      value: 0.6666
    }
  }
}
layer {
  name: "conv2_0_sTanH"
  type: "TanH"
  bottom: "conv2_0"
  top: "conv2_0"
}
layer {
  name: "conv2_0_postscale"
  type: "Scale"
  bottom: "conv2_0"
  top: "conv2_0"
  param {
    lr_mult: 0
    decay_mult: 0
  }
  scale_param {
    filler {
      value: 1.7159
    }
  }
}
layer {
  name: "pool2_0"
  type: "Pooling"
  bottom: "conv2_0"
  top: "pool2_0"
  pooling_param {
    pool: MAX
    kernel_size: 2
    stride: 2
  }
}
layer {
  name: "conv2_1"
  type: "Convolution"
  bottom: "pool2_0"
  top: "conv2_1"
  convolution_param {
    num_output: 150
    pad: 0
    kernel_size: 4
    group: 1
    stride: 1
    weight_filler {
      type: "xavier"
    }
  }
}
layer {
  name: "conv2_1_prescale"
  type: "Scale"
  bottom: "conv2_1"
  top: "conv2_1"
  param {
    lr_mult: 0
    decay_mult: 0
  }
  scale_param {
    filler {
      value: 0.6666
    }
  }
}
layer {
  name: "conv2_1_sTanH"
  type: "TanH"
  bottom: "conv2_1"
  top: "conv2_1"
}
layer {
  name: "conv2_1_postscale"
  type: "Scale"
  bottom: "conv2_1"
  top: "conv2_1"
  param {
    lr_mult: 0
    decay_mult: 0
  }
  scale_param {
    filler {
      value: 1.7159
    }
  }
}
layer {
  name: "pool2_1"
  type: "Pooling"
  bottom: "conv2_1"
  top: "pool2_1"
  pooling_param {
    pool: MAX
    kernel_size: 2
    stride: 2
  }
}
layer {
  name: "conv2_2"
  type: "Convolution"
  bottom: "pool2_1"
  top: "conv2_2"
  convolution_param {
    num_output: 250
    pad: 0
    kernel_size: 4
    group: 1
    stride: 1
    weight_filler {
      type: "xavier"
    }
  }
}
layer {
  name: "conv2_2_prescale"
  type: "Scale"
  bottom: "conv2_2"
  top: "conv2_2"
  param {
    lr_mult: 0
    decay_mult: 0
  }
  scale_param {
    filler {
      value: 0.6666
    }
  }
}
layer {
  name: "conv2_2_sTanH"
  type: "TanH"
  bottom: "conv2_2"
  top: "conv2_2"
}
layer {
  name: "conv2_2_postscale"
  type: "Scale"
  bottom: "conv2_2"
  top: "conv2_2"
  param {
    lr_mult: 0
    decay_mult: 0
  }
  scale_param {
    filler {
      value: 1.7159
    }
  }
}
layer {
  name: "pool2_2"
  type: "Pooling"
  bottom: "conv2_2"
  top: "pool2_2"
  pooling_param {
    pool: MAX
    kernel_size: 2
    stride: 2
  }
}
layer {
  name: "fc2_4_300"
  type: "InnerProduct"
  bottom: "pool2_2"
  top: "fc2_4"
  inner_product_param {
    num_output: 300
    weight_filler {
      type: "xavier"
    }
  }
}
layer {
  name: "fc2_4_prescale"
  type: "Scale"
  bottom: "fc2_4"
  top: "fc2_4"
  param {
    lr_mult: 0
    decay_mult: 0
  }
  scale_param {
    filler {
      value: 0.6666
    }
  }
}
layer {
  name: "fc2_4_sTanH"
  type: "TanH"
  bottom: "fc2_4"
  top: "fc2_4"
}
layer {
  name: "fc2_4_postscale"
  type: "Scale"
  bottom: "fc2_4"
  top: "fc2_4"
  param {
    lr_mult: 0
    decay_mult: 0
  }
  scale_param {
    filler {
      value: 1.7159
    }
  }
}
layer {
  name: "drop2_4"
  type: "Dropout"
  bottom: "fc2_4"
  top: "fc2_4"
  dropout_param {
    dropout_ratio: 0.4
  }
}
layer {
  name: "fc2_5_67"
  type: "InnerProduct"
  bottom: "fc2_4"
  top: "fc2_5"
  inner_product_param {
    num_output: 67
    weight_filler {
      type: "xavier"
    }
  }
}
layer {
  name: "softmax_2"
  type: "Softmax"
  bottom: "fc2_5"
  top: "softmax_2"
}
layer {
  name: "data_3"
  type: "Data"
  top: "data_3"
  top: "label_3"
  include {
    phase: TEST
  }
  transform_param {
    mirror: false
    crop_size: 48
    mean_value: 102
    mean_value: 99
    mean_value: 118
  }
  data_param {
    source: "../local_data/lmdb/rtsd-r1/imajust/test/lmdb"
    batch_size: 200
    backend: LMDB
  }
}
layer {
  name: "conv3_0"
  type: "Convolution"
  bottom: "data_3"
  top: "conv3_0"
  convolution_param {
    num_output: 100
    pad: 0
    kernel_size: 7
    group: 1
    stride: 1
    weight_filler {
      type: "xavier"
    }
  }
}
layer {
  name: "conv3_0_prescale"
  type: "Scale"
  bottom: "conv3_0"
  top: "conv3_0"
  param {
    lr_mult: 0
    decay_mult: 0
  }
  scale_param {
    filler {
      value: 0.6666
    }
  }
}
layer {
  name: "conv3_0_sTanH"
  type: "TanH"
  bottom: "conv3_0"
  top: "conv3_0"
}
layer {
  name: "conv3_0_postscale"
  type: "Scale"
  bottom: "conv3_0"
  top: "conv3_0"
  param {
    lr_mult: 0
    decay_mult: 0
  }
  scale_param {
    filler {
      value: 1.7159
    }
  }
}
layer {
  name: "pool3_0"
  type: "Pooling"
  bottom: "conv3_0"
  top: "pool3_0"
  pooling_param {
    pool: MAX
    kernel_size: 2
    stride: 2
  }
}
layer {
  name: "conv3_1"
  type: "Convolution"
  bottom: "pool3_0"
  top: "conv3_1"
  convolution_param {
    num_output: 150
    pad: 0
    kernel_size: 4
    group: 1
    stride: 1
    weight_filler {
      type: "xavier"
    }
  }
}
layer {
  name: "conv3_1_prescale"
  type: "Scale"
  bottom: "conv3_1"
  top: "conv3_1"
  param {
    lr_mult: 0
    decay_mult: 0
  }
  scale_param {
    filler {
      value: 0.6666
    }
  }
}
layer {
  name: "conv3_1_sTanH"
  type: "TanH"
  bottom: "conv3_1"
  top: "conv3_1"
}
layer {
  name: "conv3_1_postscale"
  type: "Scale"
  bottom: "conv3_1"
  top: "conv3_1"
  param {
    lr_mult: 0
    decay_mult: 0
  }
  scale_param {
    filler {
      value: 1.7159
    }
  }
}
layer {
  name: "pool3_1"
  type: "Pooling"
  bottom: "conv3_1"
  top: "pool3_1"
  pooling_param {
    pool: MAX
    kernel_size: 2
    stride: 2
  }
}
layer {
  name: "conv3_2"
  type: "Convolution"
  bottom: "pool3_1"
  top: "conv3_2"
  convolution_param {
    num_output: 250
    pad: 0
    kernel_size: 4
    group: 1
    stride: 1
    weight_filler {
      type: "xavier"
    }
  }
}
layer {
  name: "conv3_2_prescale"
  type: "Scale"
  bottom: "conv3_2"
  top: "conv3_2"
  param {
    lr_mult: 0
    decay_mult: 0
  }
  scale_param {
    filler {
      value: 0.6666
    }
  }
}
layer {
  name: "conv3_2_sTanH"
  type: "TanH"
  bottom: "conv3_2"
  top: "conv3_2"
}
layer {
  name: "conv3_2_postscale"
  type: "Scale"
  bottom: "conv3_2"
  top: "conv3_2"
  param {
    lr_mult: 0
    decay_mult: 0
  }
  scale_param {
    filler {
      value: 1.7159
    }
  }
}
layer {
  name: "pool3_2"
  type: "Pooling"
  bottom: "conv3_2"
  top: "pool3_2"
  pooling_param {
    pool: MAX
    kernel_size: 2
    stride: 2
  }
}
layer {
  name: "fc3_4_300"
  type: "InnerProduct"
  bottom: "pool3_2"
  top: "fc3_4"
  inner_product_param {
    num_output: 300
    weight_filler {
      type: "xavier"
    }
  }
}
layer {
  name: "fc3_4_prescale"
  type: "Scale"
  bottom: "fc3_4"
  top: "fc3_4"
  param {
    lr_mult: 0
    decay_mult: 0
  }
  scale_param {
    filler {
      value: 0.6666
    }
  }
}
layer {
  name: "fc3_4_sTanH"
  type: "TanH"
  bottom: "fc3_4"
  top: "fc3_4"
}
layer {
  name: "fc3_4_postscale"
  type: "Scale"
  bottom: "fc3_4"
  top: "fc3_4"
  param {
    lr_mult: 0
    decay_mult: 0
  }
  scale_param {
    filler {
      value: 1.7159
    }
  }
}
layer {
  name: "drop3_4"
  type: "Dropout"
  bottom: "fc3_4"
  top: "fc3_4"
  dropout_param {
    dropout_ratio: 0.4
  }
}
layer {
  name: "fc3_5_67"
  type: "InnerProduct"
  bottom: "fc3_4"
  top: "fc3_5"
  inner_product_param {
    num_output: 67
    weight_filler {
      type: "xavier"
    }
  }
}
layer {
  name: "softmax_3"
  type: "Softmax"
  bottom: "fc3_5"
  top: "softmax_3"
}
layer {
  name: "data_4"
  type: "Data"
  top: "data_4"
  top: "label_4"
  include {
    phase: TEST
  }
  transform_param {
    mirror: false
    crop_size: 48
    mean_value: 124
    mean_value: 124
    mean_value: 124
  }
  data_param {
    source: "../local_data/lmdb/rtsd-r1/CoNorm/test/lmdb"
    batch_size: 200
    backend: LMDB
  }
}
layer {
  name: "conv4_0"
  type: "Convolution"
  bottom: "data_4"
  top: "conv4_0"
  convolution_param {
    num_output: 100
    pad: 0
    kernel_size: 7
    group: 1
    stride: 1
    weight_filler {
      type: "xavier"
    }
  }
}
layer {
  name: "conv4_0_prescale"
  type: "Scale"
  bottom: "conv4_0"
  top: "conv4_0"
  param {
    lr_mult: 0
    decay_mult: 0
  }
  scale_param {
    filler {
      value: 0.6666
    }
  }
}
layer {
  name: "conv4_0_sTanH"
  type: "TanH"
  bottom: "conv4_0"
  top: "conv4_0"
}
layer {
  name: "conv4_0_postscale"
  type: "Scale"
  bottom: "conv4_0"
  top: "conv4_0"
  param {
    lr_mult: 0
    decay_mult: 0
  }
  scale_param {
    filler {
      value: 1.7159
    }
  }
}
layer {
  name: "pool4_0"
  type: "Pooling"
  bottom: "conv4_0"
  top: "pool4_0"
  pooling_param {
    pool: MAX
    kernel_size: 2
    stride: 2
  }
}
layer {
  name: "conv4_1"
  type: "Convolution"
  bottom: "pool4_0"
  top: "conv4_1"
  convolution_param {
    num_output: 150
    pad: 0
    kernel_size: 4
    group: 1
    stride: 1
    weight_filler {
      type: "xavier"
    }
  }
}
layer {
  name: "conv4_1_prescale"
  type: "Scale"
  bottom: "conv4_1"
  top: "conv4_1"
  param {
    lr_mult: 0
    decay_mult: 0
  }
  scale_param {
    filler {
      value: 0.6666
    }
  }
}
layer {
  name: "conv4_1_sTanH"
  type: "TanH"
  bottom: "conv4_1"
  top: "conv4_1"
}
layer {
  name: "conv4_1_postscale"
  type: "Scale"
  bottom: "conv4_1"
  top: "conv4_1"
  param {
    lr_mult: 0
    decay_mult: 0
  }
  scale_param {
    filler {
      value: 1.7159
    }
  }
}
layer {
  name: "pool4_1"
  type: "Pooling"
  bottom: "conv4_1"
  top: "pool4_1"
  pooling_param {
    pool: MAX
    kernel_size: 2
    stride: 2
  }
}
layer {
  name: "conv4_2"
  type: "Convolution"
  bottom: "pool4_1"
  top: "conv4_2"
  convolution_param {
    num_output: 250
    pad: 0
    kernel_size: 4
    group: 1
    stride: 1
    weight_filler {
      type: "xavier"
    }
  }
}
layer {
  name: "conv4_2_prescale"
  type: "Scale"
  bottom: "conv4_2"
  top: "conv4_2"
  param {
    lr_mult: 0
    decay_mult: 0
  }
  scale_param {
    filler {
      value: 0.6666
    }
  }
}
layer {
  name: "conv4_2_sTanH"
  type: "TanH"
  bottom: "conv4_2"
  top: "conv4_2"
}
layer {
  name: "conv4_2_postscale"
  type: "Scale"
  bottom: "conv4_2"
  top: "conv4_2"
  param {
    lr_mult: 0
    decay_mult: 0
  }
  scale_param {
    filler {
      value: 1.7159
    }
  }
}
layer {
  name: "pool4_2"
  type: "Pooling"
  bottom: "conv4_2"
  top: "pool4_2"
  pooling_param {
    pool: MAX
    kernel_size: 2
    stride: 2
  }
}
layer {
  name: "fc4_4_300"
  type: "InnerProduct"
  bottom: "pool4_2"
  top: "fc4_4"
  inner_product_param {
    num_output: 300
    weight_filler {
      type: "xavier"
    }
  }
}
layer {
  name: "fc4_4_prescale"
  type: "Scale"
  bottom: "fc4_4"
  top: "fc4_4"
  param {
    lr_mult: 0
    decay_mult: 0
  }
  scale_param {
    filler {
      value: 0.6666
    }
  }
}
layer {
  name: "fc4_4_sTanH"
  type: "TanH"
  bottom: "fc4_4"
  top: "fc4_4"
}
layer {
  name: "fc4_4_postscale"
  type: "Scale"
  bottom: "fc4_4"
  top: "fc4_4"
  param {
    lr_mult: 0
    decay_mult: 0
  }
  scale_param {
    filler {
      value: 1.7159
    }
  }
}
layer {
  name: "drop4_4"
  type: "Dropout"
  bottom: "fc4_4"
  top: "fc4_4"
  dropout_param {
    dropout_ratio: 0.4
  }
}
layer {
  name: "fc4_5_67"
  type: "InnerProduct"
  bottom: "fc4_4"
  top: "fc4_5"
  inner_product_param {
    num_output: 67
    weight_filler {
      type: "xavier"
    }
  }
}
layer {
  name: "softmax_4"
  type: "Softmax"
  bottom: "fc4_5"
  top: "softmax_4"
}
layer {
  name: "averaging"
  type: "Eltwise"
  bottom: "softmax_0"
  bottom: "softmax_1"
  bottom: "softmax_2"
  bottom: "softmax_3"
  bottom: "softmax_4"
  top: "eltwize"
  eltwise_param {
    operation: SUM
    coeff: 0.2
    coeff: 0.2
    coeff: 0.2
    coeff: 0.2
    coeff: 0.2
  }
}
layer {
  name: "loss"
  type: "MultinomialLogisticLoss"
  bottom: "eltwize"
  bottom: "label_0"
  top: "loss"
}
layer {
  name: "accuracy_1"
  type: "Accuracy"
  bottom: "eltwize"
  bottom: "label_0"
  top: "accuracy_1"
  include {
    phase: TEST
  }
  accuracy_param {
    top_k: 1
  }
}
layer {
  name: "accuracy_5"
  type: "Accuracy"
  bottom: "eltwize"
  bottom: "label_0"
  top: "accuracy_5"
  include {
    phase: TEST
  }
  accuracy_param {
    top_k: 5
  }
}
layer {
  name: "silence"
  type: "Silence"
  bottom: "label_1"
  bottom: "label_2"
  bottom: "label_3"
  bottom: "label_4"
}
I0408 20:53:28.758169 17265 layer_factory.hpp:77] Creating layer data_0
I0408 20:53:28.758347 17265 net.cpp:100] Creating Layer data_0
I0408 20:53:28.758358 17265 net.cpp:408] data_0 -> data_0
I0408 20:53:28.758368 17265 net.cpp:408] data_0 -> label_0
I0408 20:53:28.760273 17378 db_lmdb.cpp:35] Opened lmdb ../local_data/lmdb/rtsd-r1/orig/test/lmdb
I0408 20:53:28.760428 17265 data_layer.cpp:41] output data size: 200,3,48,48
I0408 20:53:28.785370 17265 net.cpp:150] Setting up data_0
I0408 20:53:28.785405 17265 net.cpp:157] Top shape: 200 3 48 48 (1382400)
I0408 20:53:28.785413 17265 net.cpp:157] Top shape: 200 (200)
I0408 20:53:28.785416 17265 net.cpp:165] Memory required for data: 5530400
I0408 20:53:28.785421 17265 layer_factory.hpp:77] Creating layer label_0_data_0_1_split
I0408 20:53:28.785435 17265 net.cpp:100] Creating Layer label_0_data_0_1_split
I0408 20:53:28.785441 17265 net.cpp:434] label_0_data_0_1_split <- label_0
I0408 20:53:28.785450 17265 net.cpp:408] label_0_data_0_1_split -> label_0_data_0_1_split_0
I0408 20:53:28.785461 17265 net.cpp:408] label_0_data_0_1_split -> label_0_data_0_1_split_1
I0408 20:53:28.785468 17265 net.cpp:408] label_0_data_0_1_split -> label_0_data_0_1_split_2
I0408 20:53:28.785614 17265 net.cpp:150] Setting up label_0_data_0_1_split
I0408 20:53:28.785624 17265 net.cpp:157] Top shape: 200 (200)
I0408 20:53:28.785629 17265 net.cpp:157] Top shape: 200 (200)
I0408 20:53:28.785631 17265 net.cpp:157] Top shape: 200 (200)
I0408 20:53:28.785634 17265 net.cpp:165] Memory required for data: 5532800
I0408 20:53:28.785637 17265 layer_factory.hpp:77] Creating layer conv0_0
I0408 20:53:28.785650 17265 net.cpp:100] Creating Layer conv0_0
I0408 20:53:28.785655 17265 net.cpp:434] conv0_0 <- data_0
I0408 20:53:28.785660 17265 net.cpp:408] conv0_0 -> conv0_0
I0408 20:53:28.787662 17265 net.cpp:150] Setting up conv0_0
I0408 20:53:28.787678 17265 net.cpp:157] Top shape: 200 100 42 42 (35280000)
I0408 20:53:28.787683 17265 net.cpp:165] Memory required for data: 146652800
I0408 20:53:28.787694 17265 layer_factory.hpp:77] Creating layer conv0_0_prescale
I0408 20:53:28.787713 17265 net.cpp:100] Creating Layer conv0_0_prescale
I0408 20:53:28.787717 17265 net.cpp:434] conv0_0_prescale <- conv0_0
I0408 20:53:28.787724 17265 net.cpp:395] conv0_0_prescale -> conv0_0 (in-place)
I0408 20:53:28.788295 17265 net.cpp:150] Setting up conv0_0_prescale
I0408 20:53:28.788311 17265 net.cpp:157] Top shape: 200 100 42 42 (35280000)
I0408 20:53:28.788316 17265 net.cpp:165] Memory required for data: 287772800
I0408 20:53:28.788341 17265 layer_factory.hpp:77] Creating layer conv0_0_sTanH
I0408 20:53:28.788352 17265 net.cpp:100] Creating Layer conv0_0_sTanH
I0408 20:53:28.788357 17265 net.cpp:434] conv0_0_sTanH <- conv0_0
I0408 20:53:28.788362 17265 net.cpp:395] conv0_0_sTanH -> conv0_0 (in-place)
I0408 20:53:28.789248 17265 net.cpp:150] Setting up conv0_0_sTanH
I0408 20:53:28.789268 17265 net.cpp:157] Top shape: 200 100 42 42 (35280000)
I0408 20:53:28.789273 17265 net.cpp:165] Memory required for data: 428892800
I0408 20:53:28.789278 17265 layer_factory.hpp:77] Creating layer conv0_0_postscale
I0408 20:53:28.789284 17265 net.cpp:100] Creating Layer conv0_0_postscale
I0408 20:53:28.789290 17265 net.cpp:434] conv0_0_postscale <- conv0_0
I0408 20:53:28.789299 17265 net.cpp:395] conv0_0_postscale -> conv0_0 (in-place)
I0408 20:53:28.789432 17265 net.cpp:150] Setting up conv0_0_postscale
I0408 20:53:28.789441 17265 net.cpp:157] Top shape: 200 100 42 42 (35280000)
I0408 20:53:28.789445 17265 net.cpp:165] Memory required for data: 570012800
I0408 20:53:28.789451 17265 layer_factory.hpp:77] Creating layer pool0_0
I0408 20:53:28.789458 17265 net.cpp:100] Creating Layer pool0_0
I0408 20:53:28.789463 17265 net.cpp:434] pool0_0 <- conv0_0
I0408 20:53:28.789472 17265 net.cpp:408] pool0_0 -> pool0_0
I0408 20:53:28.789526 17265 net.cpp:150] Setting up pool0_0
I0408 20:53:28.789536 17265 net.cpp:157] Top shape: 200 100 21 21 (8820000)
I0408 20:53:28.789541 17265 net.cpp:165] Memory required for data: 605292800
I0408 20:53:28.789543 17265 layer_factory.hpp:77] Creating layer conv0_1
I0408 20:53:28.789551 17265 net.cpp:100] Creating Layer conv0_1
I0408 20:53:28.789556 17265 net.cpp:434] conv0_1 <- pool0_0
I0408 20:53:28.789566 17265 net.cpp:408] conv0_1 -> conv0_1
I0408 20:53:28.792685 17265 net.cpp:150] Setting up conv0_1
I0408 20:53:28.792703 17265 net.cpp:157] Top shape: 200 150 18 18 (9720000)
I0408 20:53:28.792708 17265 net.cpp:165] Memory required for data: 644172800
I0408 20:53:28.792724 17265 layer_factory.hpp:77] Creating layer conv0_1_prescale
I0408 20:53:28.792737 17265 net.cpp:100] Creating Layer conv0_1_prescale
I0408 20:53:28.792742 17265 net.cpp:434] conv0_1_prescale <- conv0_1
I0408 20:53:28.792748 17265 net.cpp:395] conv0_1_prescale -> conv0_1 (in-place)
I0408 20:53:28.792881 17265 net.cpp:150] Setting up conv0_1_prescale
I0408 20:53:28.792891 17265 net.cpp:157] Top shape: 200 150 18 18 (9720000)
I0408 20:53:28.792894 17265 net.cpp:165] Memory required for data: 683052800
I0408 20:53:28.792899 17265 layer_factory.hpp:77] Creating layer conv0_1_sTanH
I0408 20:53:28.792906 17265 net.cpp:100] Creating Layer conv0_1_sTanH
I0408 20:53:28.792909 17265 net.cpp:434] conv0_1_sTanH <- conv0_1
I0408 20:53:28.792915 17265 net.cpp:395] conv0_1_sTanH -> conv0_1 (in-place)
I0408 20:53:28.793123 17265 net.cpp:150] Setting up conv0_1_sTanH
I0408 20:53:28.793136 17265 net.cpp:157] Top shape: 200 150 18 18 (9720000)
I0408 20:53:28.793140 17265 net.cpp:165] Memory required for data: 721932800
I0408 20:53:28.793144 17265 layer_factory.hpp:77] Creating layer conv0_1_postscale
I0408 20:53:28.793153 17265 net.cpp:100] Creating Layer conv0_1_postscale
I0408 20:53:28.793156 17265 net.cpp:434] conv0_1_postscale <- conv0_1
I0408 20:53:28.793164 17265 net.cpp:395] conv0_1_postscale -> conv0_1 (in-place)
I0408 20:53:28.793288 17265 net.cpp:150] Setting up conv0_1_postscale
I0408 20:53:28.793298 17265 net.cpp:157] Top shape: 200 150 18 18 (9720000)
I0408 20:53:28.793303 17265 net.cpp:165] Memory required for data: 760812800
I0408 20:53:28.793308 17265 layer_factory.hpp:77] Creating layer pool0_1
I0408 20:53:28.793316 17265 net.cpp:100] Creating Layer pool0_1
I0408 20:53:28.793321 17265 net.cpp:434] pool0_1 <- conv0_1
I0408 20:53:28.793326 17265 net.cpp:408] pool0_1 -> pool0_1
I0408 20:53:28.793380 17265 net.cpp:150] Setting up pool0_1
I0408 20:53:28.793390 17265 net.cpp:157] Top shape: 200 150 9 9 (2430000)
I0408 20:53:28.793395 17265 net.cpp:165] Memory required for data: 770532800
I0408 20:53:28.793398 17265 layer_factory.hpp:77] Creating layer conv0_2
I0408 20:53:28.793419 17265 net.cpp:100] Creating Layer conv0_2
I0408 20:53:28.793427 17265 net.cpp:434] conv0_2 <- pool0_1
I0408 20:53:28.793434 17265 net.cpp:408] conv0_2 -> conv0_2
I0408 20:53:28.799870 17265 net.cpp:150] Setting up conv0_2
I0408 20:53:28.799896 17265 net.cpp:157] Top shape: 200 250 6 6 (1800000)
I0408 20:53:28.799906 17265 net.cpp:165] Memory required for data: 777732800
I0408 20:53:28.799916 17265 layer_factory.hpp:77] Creating layer conv0_2_prescale
I0408 20:53:28.799927 17265 net.cpp:100] Creating Layer conv0_2_prescale
I0408 20:53:28.799932 17265 net.cpp:434] conv0_2_prescale <- conv0_2
I0408 20:53:28.799938 17265 net.cpp:395] conv0_2_prescale -> conv0_2 (in-place)
I0408 20:53:28.800062 17265 net.cpp:150] Setting up conv0_2_prescale
I0408 20:53:28.800072 17265 net.cpp:157] Top shape: 200 250 6 6 (1800000)
I0408 20:53:28.800078 17265 net.cpp:165] Memory required for data: 784932800
I0408 20:53:28.800086 17265 layer_factory.hpp:77] Creating layer conv0_2_sTanH
I0408 20:53:28.800096 17265 net.cpp:100] Creating Layer conv0_2_sTanH
I0408 20:53:28.800101 17265 net.cpp:434] conv0_2_sTanH <- conv0_2
I0408 20:53:28.800104 17265 net.cpp:395] conv0_2_sTanH -> conv0_2 (in-place)
I0408 20:53:28.800309 17265 net.cpp:150] Setting up conv0_2_sTanH
I0408 20:53:28.800321 17265 net.cpp:157] Top shape: 200 250 6 6 (1800000)
I0408 20:53:28.800325 17265 net.cpp:165] Memory required for data: 792132800
I0408 20:53:28.800329 17265 layer_factory.hpp:77] Creating layer conv0_2_postscale
I0408 20:53:28.800338 17265 net.cpp:100] Creating Layer conv0_2_postscale
I0408 20:53:28.800341 17265 net.cpp:434] conv0_2_postscale <- conv0_2
I0408 20:53:28.800346 17265 net.cpp:395] conv0_2_postscale -> conv0_2 (in-place)
I0408 20:53:28.800470 17265 net.cpp:150] Setting up conv0_2_postscale
I0408 20:53:28.800482 17265 net.cpp:157] Top shape: 200 250 6 6 (1800000)
I0408 20:53:28.800485 17265 net.cpp:165] Memory required for data: 799332800
I0408 20:53:28.800490 17265 layer_factory.hpp:77] Creating layer pool0_2
I0408 20:53:28.800503 17265 net.cpp:100] Creating Layer pool0_2
I0408 20:53:28.800508 17265 net.cpp:434] pool0_2 <- conv0_2
I0408 20:53:28.800513 17265 net.cpp:408] pool0_2 -> pool0_2
I0408 20:53:28.800567 17265 net.cpp:150] Setting up pool0_2
I0408 20:53:28.800577 17265 net.cpp:157] Top shape: 200 250 3 3 (450000)
I0408 20:53:28.800590 17265 net.cpp:165] Memory required for data: 801132800
I0408 20:53:28.800593 17265 layer_factory.hpp:77] Creating layer fc0_4_300
I0408 20:53:28.800601 17265 net.cpp:100] Creating Layer fc0_4_300
I0408 20:53:28.800606 17265 net.cpp:434] fc0_4_300 <- pool0_2
I0408 20:53:28.800616 17265 net.cpp:408] fc0_4_300 -> fc0_4
I0408 20:53:28.806116 17265 net.cpp:150] Setting up fc0_4_300
I0408 20:53:28.806131 17265 net.cpp:157] Top shape: 200 300 (60000)
I0408 20:53:28.806139 17265 net.cpp:165] Memory required for data: 801372800
I0408 20:53:28.806149 17265 layer_factory.hpp:77] Creating layer fc0_4_prescale
I0408 20:53:28.806160 17265 net.cpp:100] Creating Layer fc0_4_prescale
I0408 20:53:28.806165 17265 net.cpp:434] fc0_4_prescale <- fc0_4
I0408 20:53:28.806171 17265 net.cpp:395] fc0_4_prescale -> fc0_4 (in-place)
I0408 20:53:28.806293 17265 net.cpp:150] Setting up fc0_4_prescale
I0408 20:53:28.806301 17265 net.cpp:157] Top shape: 200 300 (60000)
I0408 20:53:28.806304 17265 net.cpp:165] Memory required for data: 801612800
I0408 20:53:28.806308 17265 layer_factory.hpp:77] Creating layer fc0_4_sTanH
I0408 20:53:28.806316 17265 net.cpp:100] Creating Layer fc0_4_sTanH
I0408 20:53:28.806323 17265 net.cpp:434] fc0_4_sTanH <- fc0_4
I0408 20:53:28.806327 17265 net.cpp:395] fc0_4_sTanH -> fc0_4 (in-place)
I0408 20:53:28.806538 17265 net.cpp:150] Setting up fc0_4_sTanH
I0408 20:53:28.806550 17265 net.cpp:157] Top shape: 200 300 (60000)
I0408 20:53:28.806555 17265 net.cpp:165] Memory required for data: 801852800
I0408 20:53:28.806558 17265 layer_factory.hpp:77] Creating layer fc0_4_postscale
I0408 20:53:28.806565 17265 net.cpp:100] Creating Layer fc0_4_postscale
I0408 20:53:28.806571 17265 net.cpp:434] fc0_4_postscale <- fc0_4
I0408 20:53:28.806591 17265 net.cpp:395] fc0_4_postscale -> fc0_4 (in-place)
I0408 20:53:28.806718 17265 net.cpp:150] Setting up fc0_4_postscale
I0408 20:53:28.806727 17265 net.cpp:157] Top shape: 200 300 (60000)
I0408 20:53:28.806732 17265 net.cpp:165] Memory required for data: 802092800
I0408 20:53:28.806737 17265 layer_factory.hpp:77] Creating layer drop0_4
I0408 20:53:28.806746 17265 net.cpp:100] Creating Layer drop0_4
I0408 20:53:28.806751 17265 net.cpp:434] drop0_4 <- fc0_4
I0408 20:53:28.806756 17265 net.cpp:395] drop0_4 -> fc0_4 (in-place)
I0408 20:53:28.806788 17265 net.cpp:150] Setting up drop0_4
I0408 20:53:28.806795 17265 net.cpp:157] Top shape: 200 300 (60000)
I0408 20:53:28.806797 17265 net.cpp:165] Memory required for data: 802332800
I0408 20:53:28.806802 17265 layer_factory.hpp:77] Creating layer fc0_5_67
I0408 20:53:28.806808 17265 net.cpp:100] Creating Layer fc0_5_67
I0408 20:53:28.806813 17265 net.cpp:434] fc0_5_67 <- fc0_4
I0408 20:53:28.806824 17265 net.cpp:408] fc0_5_67 -> fc0_5
I0408 20:53:28.807098 17265 net.cpp:150] Setting up fc0_5_67
I0408 20:53:28.807107 17265 net.cpp:157] Top shape: 200 67 (13400)
I0408 20:53:28.807111 17265 net.cpp:165] Memory required for data: 802386400
I0408 20:53:28.807121 17265 layer_factory.hpp:77] Creating layer softmax_0
I0408 20:53:28.807130 17265 net.cpp:100] Creating Layer softmax_0
I0408 20:53:28.807134 17265 net.cpp:434] softmax_0 <- fc0_5
I0408 20:53:28.807152 17265 net.cpp:408] softmax_0 -> softmax_0
I0408 20:53:28.808113 17265 net.cpp:150] Setting up softmax_0
I0408 20:53:28.808132 17265 net.cpp:157] Top shape: 200 67 (13400)
I0408 20:53:28.808136 17265 net.cpp:165] Memory required for data: 802440000
I0408 20:53:28.808140 17265 layer_factory.hpp:77] Creating layer data_1
I0408 20:53:28.808320 17265 net.cpp:100] Creating Layer data_1
I0408 20:53:28.808331 17265 net.cpp:408] data_1 -> data_1
I0408 20:53:28.808344 17265 net.cpp:408] data_1 -> label_1
I0408 20:53:28.809527 17382 db_lmdb.cpp:35] Opened lmdb ../local_data/lmdb/rtsd-r1/histeq/test/lmdb
I0408 20:53:28.809711 17265 data_layer.cpp:41] output data size: 200,3,48,48
I0408 20:53:28.824816 17265 net.cpp:150] Setting up data_1
I0408 20:53:28.824836 17265 net.cpp:157] Top shape: 200 3 48 48 (1382400)
I0408 20:53:28.824841 17265 net.cpp:157] Top shape: 200 (200)
I0408 20:53:28.824844 17265 net.cpp:165] Memory required for data: 807970400
I0408 20:53:28.824848 17265 layer_factory.hpp:77] Creating layer conv1_0
I0408 20:53:28.824863 17265 net.cpp:100] Creating Layer conv1_0
I0408 20:53:28.824867 17265 net.cpp:434] conv1_0 <- data_1
I0408 20:53:28.824877 17265 net.cpp:408] conv1_0 -> conv1_0
I0408 20:53:28.826144 17265 net.cpp:150] Setting up conv1_0
I0408 20:53:28.826160 17265 net.cpp:157] Top shape: 200 100 42 42 (35280000)
I0408 20:53:28.826164 17265 net.cpp:165] Memory required for data: 949090400
I0408 20:53:28.826171 17265 layer_factory.hpp:77] Creating layer conv1_0_prescale
I0408 20:53:28.826179 17265 net.cpp:100] Creating Layer conv1_0_prescale
I0408 20:53:28.826182 17265 net.cpp:434] conv1_0_prescale <- conv1_0
I0408 20:53:28.826189 17265 net.cpp:395] conv1_0_prescale -> conv1_0 (in-place)
I0408 20:53:28.826319 17265 net.cpp:150] Setting up conv1_0_prescale
I0408 20:53:28.826330 17265 net.cpp:157] Top shape: 200 100 42 42 (35280000)
I0408 20:53:28.826334 17265 net.cpp:165] Memory required for data: 1090210400
I0408 20:53:28.826339 17265 layer_factory.hpp:77] Creating layer conv1_0_sTanH
I0408 20:53:28.826344 17265 net.cpp:100] Creating Layer conv1_0_sTanH
I0408 20:53:28.826349 17265 net.cpp:434] conv1_0_sTanH <- conv1_0
I0408 20:53:28.826355 17265 net.cpp:395] conv1_0_sTanH -> conv1_0 (in-place)
I0408 20:53:28.827702 17265 net.cpp:150] Setting up conv1_0_sTanH
I0408 20:53:28.827719 17265 net.cpp:157] Top shape: 200 100 42 42 (35280000)
I0408 20:53:28.827725 17265 net.cpp:165] Memory required for data: 1231330400
I0408 20:53:28.827729 17265 layer_factory.hpp:77] Creating layer conv1_0_postscale
I0408 20:53:28.827736 17265 net.cpp:100] Creating Layer conv1_0_postscale
I0408 20:53:28.827757 17265 net.cpp:434] conv1_0_postscale <- conv1_0
I0408 20:53:28.827766 17265 net.cpp:395] conv1_0_postscale -> conv1_0 (in-place)
I0408 20:53:28.827917 17265 net.cpp:150] Setting up conv1_0_postscale
I0408 20:53:28.827929 17265 net.cpp:157] Top shape: 200 100 42 42 (35280000)
I0408 20:53:28.827932 17265 net.cpp:165] Memory required for data: 1372450400
I0408 20:53:28.827937 17265 layer_factory.hpp:77] Creating layer pool1_0
I0408 20:53:28.827946 17265 net.cpp:100] Creating Layer pool1_0
I0408 20:53:28.827951 17265 net.cpp:434] pool1_0 <- conv1_0
I0408 20:53:28.827956 17265 net.cpp:408] pool1_0 -> pool1_0
I0408 20:53:28.828013 17265 net.cpp:150] Setting up pool1_0
I0408 20:53:28.828022 17265 net.cpp:157] Top shape: 200 100 21 21 (8820000)
I0408 20:53:28.828025 17265 net.cpp:165] Memory required for data: 1407730400
I0408 20:53:28.828028 17265 layer_factory.hpp:77] Creating layer conv1_1
I0408 20:53:28.828037 17265 net.cpp:100] Creating Layer conv1_1
I0408 20:53:28.828042 17265 net.cpp:434] conv1_1 <- pool1_0
I0408 20:53:28.828048 17265 net.cpp:408] conv1_1 -> conv1_1
I0408 20:53:28.832464 17265 net.cpp:150] Setting up conv1_1
I0408 20:53:28.832482 17265 net.cpp:157] Top shape: 200 150 18 18 (9720000)
I0408 20:53:28.832486 17265 net.cpp:165] Memory required for data: 1446610400
I0408 20:53:28.832494 17265 layer_factory.hpp:77] Creating layer conv1_1_prescale
I0408 20:53:28.832504 17265 net.cpp:100] Creating Layer conv1_1_prescale
I0408 20:53:28.832509 17265 net.cpp:434] conv1_1_prescale <- conv1_1
I0408 20:53:28.832515 17265 net.cpp:395] conv1_1_prescale -> conv1_1 (in-place)
I0408 20:53:28.832653 17265 net.cpp:150] Setting up conv1_1_prescale
I0408 20:53:28.832664 17265 net.cpp:157] Top shape: 200 150 18 18 (9720000)
I0408 20:53:28.832667 17265 net.cpp:165] Memory required for data: 1485490400
I0408 20:53:28.832672 17265 layer_factory.hpp:77] Creating layer conv1_1_sTanH
I0408 20:53:28.832687 17265 net.cpp:100] Creating Layer conv1_1_sTanH
I0408 20:53:28.832695 17265 net.cpp:434] conv1_1_sTanH <- conv1_1
I0408 20:53:28.832700 17265 net.cpp:395] conv1_1_sTanH -> conv1_1 (in-place)
I0408 20:53:28.832907 17265 net.cpp:150] Setting up conv1_1_sTanH
I0408 20:53:28.832919 17265 net.cpp:157] Top shape: 200 150 18 18 (9720000)
I0408 20:53:28.832924 17265 net.cpp:165] Memory required for data: 1524370400
I0408 20:53:28.832927 17265 layer_factory.hpp:77] Creating layer conv1_1_postscale
I0408 20:53:28.832938 17265 net.cpp:100] Creating Layer conv1_1_postscale
I0408 20:53:28.832943 17265 net.cpp:434] conv1_1_postscale <- conv1_1
I0408 20:53:28.832948 17265 net.cpp:395] conv1_1_postscale -> conv1_1 (in-place)
I0408 20:53:28.833082 17265 net.cpp:150] Setting up conv1_1_postscale
I0408 20:53:28.833096 17265 net.cpp:157] Top shape: 200 150 18 18 (9720000)
I0408 20:53:28.833099 17265 net.cpp:165] Memory required for data: 1563250400
I0408 20:53:28.833104 17265 layer_factory.hpp:77] Creating layer pool1_1
I0408 20:53:28.833112 17265 net.cpp:100] Creating Layer pool1_1
I0408 20:53:28.833117 17265 net.cpp:434] pool1_1 <- conv1_1
I0408 20:53:28.833122 17265 net.cpp:408] pool1_1 -> pool1_1
I0408 20:53:28.833187 17265 net.cpp:150] Setting up pool1_1
I0408 20:53:28.833195 17265 net.cpp:157] Top shape: 200 150 9 9 (2430000)
I0408 20:53:28.833200 17265 net.cpp:165] Memory required for data: 1572970400
I0408 20:53:28.833211 17265 layer_factory.hpp:77] Creating layer conv1_2
I0408 20:53:28.833221 17265 net.cpp:100] Creating Layer conv1_2
I0408 20:53:28.833226 17265 net.cpp:434] conv1_2 <- pool1_1
I0408 20:53:28.833232 17265 net.cpp:408] conv1_2 -> conv1_2
I0408 20:53:28.848311 17265 net.cpp:150] Setting up conv1_2
I0408 20:53:28.848333 17265 net.cpp:157] Top shape: 200 250 6 6 (1800000)
I0408 20:53:28.848337 17265 net.cpp:165] Memory required for data: 1580170400
I0408 20:53:28.848346 17265 layer_factory.hpp:77] Creating layer conv1_2_prescale
I0408 20:53:28.848354 17265 net.cpp:100] Creating Layer conv1_2_prescale
I0408 20:53:28.848357 17265 net.cpp:434] conv1_2_prescale <- conv1_2
I0408 20:53:28.848366 17265 net.cpp:395] conv1_2_prescale -> conv1_2 (in-place)
I0408 20:53:28.848510 17265 net.cpp:150] Setting up conv1_2_prescale
I0408 20:53:28.848520 17265 net.cpp:157] Top shape: 200 250 6 6 (1800000)
I0408 20:53:28.848526 17265 net.cpp:165] Memory required for data: 1587370400
I0408 20:53:28.848531 17265 layer_factory.hpp:77] Creating layer conv1_2_sTanH
I0408 20:53:28.848536 17265 net.cpp:100] Creating Layer conv1_2_sTanH
I0408 20:53:28.848541 17265 net.cpp:434] conv1_2_sTanH <- conv1_2
I0408 20:53:28.848547 17265 net.cpp:395] conv1_2_sTanH -> conv1_2 (in-place)
I0408 20:53:28.848768 17265 net.cpp:150] Setting up conv1_2_sTanH
I0408 20:53:28.848781 17265 net.cpp:157] Top shape: 200 250 6 6 (1800000)
I0408 20:53:28.848785 17265 net.cpp:165] Memory required for data: 1594570400
I0408 20:53:28.848788 17265 layer_factory.hpp:77] Creating layer conv1_2_postscale
I0408 20:53:28.848798 17265 net.cpp:100] Creating Layer conv1_2_postscale
I0408 20:53:28.848803 17265 net.cpp:434] conv1_2_postscale <- conv1_2
I0408 20:53:28.848808 17265 net.cpp:395] conv1_2_postscale -> conv1_2 (in-place)
I0408 20:53:28.848937 17265 net.cpp:150] Setting up conv1_2_postscale
I0408 20:53:28.848947 17265 net.cpp:157] Top shape: 200 250 6 6 (1800000)
I0408 20:53:28.848949 17265 net.cpp:165] Memory required for data: 1601770400
I0408 20:53:28.848953 17265 layer_factory.hpp:77] Creating layer pool1_2
I0408 20:53:28.848961 17265 net.cpp:100] Creating Layer pool1_2
I0408 20:53:28.848965 17265 net.cpp:434] pool1_2 <- conv1_2
I0408 20:53:28.848970 17265 net.cpp:408] pool1_2 -> pool1_2
I0408 20:53:28.849025 17265 net.cpp:150] Setting up pool1_2
I0408 20:53:28.849032 17265 net.cpp:157] Top shape: 200 250 3 3 (450000)
I0408 20:53:28.849035 17265 net.cpp:165] Memory required for data: 1603570400
I0408 20:53:28.849038 17265 layer_factory.hpp:77] Creating layer fc1_4_300
I0408 20:53:28.849045 17265 net.cpp:100] Creating Layer fc1_4_300
I0408 20:53:28.849050 17265 net.cpp:434] fc1_4_300 <- pool1_2
I0408 20:53:28.849056 17265 net.cpp:408] fc1_4_300 -> fc1_4
I0408 20:53:28.854591 17265 net.cpp:150] Setting up fc1_4_300
I0408 20:53:28.854609 17265 net.cpp:157] Top shape: 200 300 (60000)
I0408 20:53:28.854611 17265 net.cpp:165] Memory required for data: 1603810400
I0408 20:53:28.854617 17265 layer_factory.hpp:77] Creating layer fc1_4_prescale
I0408 20:53:28.854625 17265 net.cpp:100] Creating Layer fc1_4_prescale
I0408 20:53:28.854629 17265 net.cpp:434] fc1_4_prescale <- fc1_4
I0408 20:53:28.854636 17265 net.cpp:395] fc1_4_prescale -> fc1_4 (in-place)
I0408 20:53:28.854761 17265 net.cpp:150] Setting up fc1_4_prescale
I0408 20:53:28.854771 17265 net.cpp:157] Top shape: 200 300 (60000)
I0408 20:53:28.854774 17265 net.cpp:165] Memory required for data: 1604050400
I0408 20:53:28.854785 17265 layer_factory.hpp:77] Creating layer fc1_4_sTanH
I0408 20:53:28.854794 17265 net.cpp:100] Creating Layer fc1_4_sTanH
I0408 20:53:28.854799 17265 net.cpp:434] fc1_4_sTanH <- fc1_4
I0408 20:53:28.854804 17265 net.cpp:395] fc1_4_sTanH -> fc1_4 (in-place)
I0408 20:53:28.855015 17265 net.cpp:150] Setting up fc1_4_sTanH
I0408 20:53:28.855029 17265 net.cpp:157] Top shape: 200 300 (60000)
I0408 20:53:28.855036 17265 net.cpp:165] Memory required for data: 1604290400
I0408 20:53:28.855038 17265 layer_factory.hpp:77] Creating layer fc1_4_postscale
I0408 20:53:28.855047 17265 net.cpp:100] Creating Layer fc1_4_postscale
I0408 20:53:28.855052 17265 net.cpp:434] fc1_4_postscale <- fc1_4
I0408 20:53:28.855057 17265 net.cpp:395] fc1_4_postscale -> fc1_4 (in-place)
I0408 20:53:28.855192 17265 net.cpp:150] Setting up fc1_4_postscale
I0408 20:53:28.855202 17265 net.cpp:157] Top shape: 200 300 (60000)
I0408 20:53:28.855206 17265 net.cpp:165] Memory required for data: 1604530400
I0408 20:53:28.855221 17265 layer_factory.hpp:77] Creating layer drop1_4
I0408 20:53:28.855229 17265 net.cpp:100] Creating Layer drop1_4
I0408 20:53:28.855233 17265 net.cpp:434] drop1_4 <- fc1_4
I0408 20:53:28.855238 17265 net.cpp:395] drop1_4 -> fc1_4 (in-place)
I0408 20:53:28.855273 17265 net.cpp:150] Setting up drop1_4
I0408 20:53:28.855280 17265 net.cpp:157] Top shape: 200 300 (60000)
I0408 20:53:28.855298 17265 net.cpp:165] Memory required for data: 1604770400
I0408 20:53:28.855301 17265 layer_factory.hpp:77] Creating layer fc1_5_67
I0408 20:53:28.855309 17265 net.cpp:100] Creating Layer fc1_5_67
I0408 20:53:28.855314 17265 net.cpp:434] fc1_5_67 <- fc1_4
I0408 20:53:28.855319 17265 net.cpp:408] fc1_5_67 -> fc1_5
I0408 20:53:28.855630 17265 net.cpp:150] Setting up fc1_5_67
I0408 20:53:28.855640 17265 net.cpp:157] Top shape: 200 67 (13400)
I0408 20:53:28.855643 17265 net.cpp:165] Memory required for data: 1604824000
I0408 20:53:28.855649 17265 layer_factory.hpp:77] Creating layer softmax_1
I0408 20:53:28.855657 17265 net.cpp:100] Creating Layer softmax_1
I0408 20:53:28.855661 17265 net.cpp:434] softmax_1 <- fc1_5
I0408 20:53:28.855671 17265 net.cpp:408] softmax_1 -> softmax_1
I0408 20:53:28.856653 17265 net.cpp:150] Setting up softmax_1
I0408 20:53:28.856669 17265 net.cpp:157] Top shape: 200 67 (13400)
I0408 20:53:28.856674 17265 net.cpp:165] Memory required for data: 1604877600
I0408 20:53:28.856678 17265 layer_factory.hpp:77] Creating layer data_2
I0408 20:53:28.856858 17265 net.cpp:100] Creating Layer data_2
I0408 20:53:28.856870 17265 net.cpp:408] data_2 -> data_2
I0408 20:53:28.856881 17265 net.cpp:408] data_2 -> label_2
I0408 20:53:28.857921 17385 db_lmdb.cpp:35] Opened lmdb ../local_data/lmdb/rtsd-r1/AHE/test/lmdb
I0408 20:53:28.858124 17265 data_layer.cpp:41] output data size: 200,3,48,48
I0408 20:53:28.868993 17265 net.cpp:150] Setting up data_2
I0408 20:53:28.869014 17265 net.cpp:157] Top shape: 200 3 48 48 (1382400)
I0408 20:53:28.869019 17265 net.cpp:157] Top shape: 200 (200)
I0408 20:53:28.869021 17265 net.cpp:165] Memory required for data: 1610408000
I0408 20:53:28.869026 17265 layer_factory.hpp:77] Creating layer conv2_0
I0408 20:53:28.869040 17265 net.cpp:100] Creating Layer conv2_0
I0408 20:53:28.869045 17265 net.cpp:434] conv2_0 <- data_2
I0408 20:53:28.869051 17265 net.cpp:408] conv2_0 -> conv2_0
I0408 20:53:28.872184 17265 net.cpp:150] Setting up conv2_0
I0408 20:53:28.872202 17265 net.cpp:157] Top shape: 200 100 42 42 (35280000)
I0408 20:53:28.872207 17265 net.cpp:165] Memory required for data: 1751528000
I0408 20:53:28.872215 17265 layer_factory.hpp:77] Creating layer conv2_0_prescale
I0408 20:53:28.872223 17265 net.cpp:100] Creating Layer conv2_0_prescale
I0408 20:53:28.872227 17265 net.cpp:434] conv2_0_prescale <- conv2_0
I0408 20:53:28.872234 17265 net.cpp:395] conv2_0_prescale -> conv2_0 (in-place)
I0408 20:53:28.872378 17265 net.cpp:150] Setting up conv2_0_prescale
I0408 20:53:28.872390 17265 net.cpp:157] Top shape: 200 100 42 42 (35280000)
I0408 20:53:28.872395 17265 net.cpp:165] Memory required for data: 1892648000
I0408 20:53:28.872403 17265 layer_factory.hpp:77] Creating layer conv2_0_sTanH
I0408 20:53:28.872411 17265 net.cpp:100] Creating Layer conv2_0_sTanH
I0408 20:53:28.872416 17265 net.cpp:434] conv2_0_sTanH <- conv2_0
I0408 20:53:28.872419 17265 net.cpp:395] conv2_0_sTanH -> conv2_0 (in-place)
I0408 20:53:28.872644 17265 net.cpp:150] Setting up conv2_0_sTanH
I0408 20:53:28.872658 17265 net.cpp:157] Top shape: 200 100 42 42 (35280000)
I0408 20:53:28.872663 17265 net.cpp:165] Memory required for data: 2033768000
I0408 20:53:28.872666 17265 layer_factory.hpp:77] Creating layer conv2_0_postscale
I0408 20:53:28.872673 17265 net.cpp:100] Creating Layer conv2_0_postscale
I0408 20:53:28.872678 17265 net.cpp:434] conv2_0_postscale <- conv2_0
I0408 20:53:28.872684 17265 net.cpp:395] conv2_0_postscale -> conv2_0 (in-place)
I0408 20:53:28.872823 17265 net.cpp:150] Setting up conv2_0_postscale
I0408 20:53:28.872833 17265 net.cpp:157] Top shape: 200 100 42 42 (35280000)
I0408 20:53:28.872838 17265 net.cpp:165] Memory required for data: 2174888000
I0408 20:53:28.872843 17265 layer_factory.hpp:77] Creating layer pool2_0
I0408 20:53:28.872849 17265 net.cpp:100] Creating Layer pool2_0
I0408 20:53:28.872853 17265 net.cpp:434] pool2_0 <- conv2_0
I0408 20:53:28.872860 17265 net.cpp:408] pool2_0 -> pool2_0
I0408 20:53:28.872915 17265 net.cpp:150] Setting up pool2_0
I0408 20:53:28.872938 17265 net.cpp:157] Top shape: 200 100 21 21 (8820000)
I0408 20:53:28.872943 17265 net.cpp:165] Memory required for data: 2210168000
I0408 20:53:28.872947 17265 layer_factory.hpp:77] Creating layer conv2_1
I0408 20:53:28.872961 17265 net.cpp:100] Creating Layer conv2_1
I0408 20:53:28.872967 17265 net.cpp:434] conv2_1 <- pool2_0
I0408 20:53:28.872972 17265 net.cpp:408] conv2_1 -> conv2_1
I0408 20:53:28.876168 17265 net.cpp:150] Setting up conv2_1
I0408 20:53:28.876189 17265 net.cpp:157] Top shape: 200 150 18 18 (9720000)
I0408 20:53:28.876194 17265 net.cpp:165] Memory required for data: 2249048000
I0408 20:53:28.876201 17265 layer_factory.hpp:77] Creating layer conv2_1_prescale
I0408 20:53:28.876211 17265 net.cpp:100] Creating Layer conv2_1_prescale
I0408 20:53:28.876217 17265 net.cpp:434] conv2_1_prescale <- conv2_1
I0408 20:53:28.876224 17265 net.cpp:395] conv2_1_prescale -> conv2_1 (in-place)
I0408 20:53:28.876361 17265 net.cpp:150] Setting up conv2_1_prescale
I0408 20:53:28.876371 17265 net.cpp:157] Top shape: 200 150 18 18 (9720000)
I0408 20:53:28.876375 17265 net.cpp:165] Memory required for data: 2287928000
I0408 20:53:28.876380 17265 layer_factory.hpp:77] Creating layer conv2_1_sTanH
I0408 20:53:28.876387 17265 net.cpp:100] Creating Layer conv2_1_sTanH
I0408 20:53:28.876392 17265 net.cpp:434] conv2_1_sTanH <- conv2_1
I0408 20:53:28.876396 17265 net.cpp:395] conv2_1_sTanH -> conv2_1 (in-place)
I0408 20:53:28.876610 17265 net.cpp:150] Setting up conv2_1_sTanH
I0408 20:53:28.876622 17265 net.cpp:157] Top shape: 200 150 18 18 (9720000)
I0408 20:53:28.876626 17265 net.cpp:165] Memory required for data: 2326808000
I0408 20:53:28.876631 17265 layer_factory.hpp:77] Creating layer conv2_1_postscale
I0408 20:53:28.876636 17265 net.cpp:100] Creating Layer conv2_1_postscale
I0408 20:53:28.876641 17265 net.cpp:434] conv2_1_postscale <- conv2_1
I0408 20:53:28.876647 17265 net.cpp:395] conv2_1_postscale -> conv2_1 (in-place)
I0408 20:53:28.876782 17265 net.cpp:150] Setting up conv2_1_postscale
I0408 20:53:28.876791 17265 net.cpp:157] Top shape: 200 150 18 18 (9720000)
I0408 20:53:28.876796 17265 net.cpp:165] Memory required for data: 2365688000
I0408 20:53:28.876801 17265 layer_factory.hpp:77] Creating layer pool2_1
I0408 20:53:28.876808 17265 net.cpp:100] Creating Layer pool2_1
I0408 20:53:28.876814 17265 net.cpp:434] pool2_1 <- conv2_1
I0408 20:53:28.876819 17265 net.cpp:408] pool2_1 -> pool2_1
I0408 20:53:28.876875 17265 net.cpp:150] Setting up pool2_1
I0408 20:53:28.876883 17265 net.cpp:157] Top shape: 200 150 9 9 (2430000)
I0408 20:53:28.876886 17265 net.cpp:165] Memory required for data: 2375408000
I0408 20:53:28.876890 17265 layer_factory.hpp:77] Creating layer conv2_2
I0408 20:53:28.876904 17265 net.cpp:100] Creating Layer conv2_2
I0408 20:53:28.876909 17265 net.cpp:434] conv2_2 <- pool2_1
I0408 20:53:28.876914 17265 net.cpp:408] conv2_2 -> conv2_2
I0408 20:53:28.883417 17265 net.cpp:150] Setting up conv2_2
I0408 20:53:28.883435 17265 net.cpp:157] Top shape: 200 250 6 6 (1800000)
I0408 20:53:28.883440 17265 net.cpp:165] Memory required for data: 2382608000
I0408 20:53:28.883448 17265 layer_factory.hpp:77] Creating layer conv2_2_prescale
I0408 20:53:28.883460 17265 net.cpp:100] Creating Layer conv2_2_prescale
I0408 20:53:28.883466 17265 net.cpp:434] conv2_2_prescale <- conv2_2
I0408 20:53:28.883472 17265 net.cpp:395] conv2_2_prescale -> conv2_2 (in-place)
I0408 20:53:28.883600 17265 net.cpp:150] Setting up conv2_2_prescale
I0408 20:53:28.883612 17265 net.cpp:157] Top shape: 200 250 6 6 (1800000)
I0408 20:53:28.883616 17265 net.cpp:165] Memory required for data: 2389808000
I0408 20:53:28.883622 17265 layer_factory.hpp:77] Creating layer conv2_2_sTanH
I0408 20:53:28.883627 17265 net.cpp:100] Creating Layer conv2_2_sTanH
I0408 20:53:28.883632 17265 net.cpp:434] conv2_2_sTanH <- conv2_2
I0408 20:53:28.883636 17265 net.cpp:395] conv2_2_sTanH -> conv2_2 (in-place)
I0408 20:53:28.883842 17265 net.cpp:150] Setting up conv2_2_sTanH
I0408 20:53:28.883854 17265 net.cpp:157] Top shape: 200 250 6 6 (1800000)
I0408 20:53:28.883872 17265 net.cpp:165] Memory required for data: 2397008000
I0408 20:53:28.883875 17265 layer_factory.hpp:77] Creating layer conv2_2_postscale
I0408 20:53:28.883889 17265 net.cpp:100] Creating Layer conv2_2_postscale
I0408 20:53:28.883894 17265 net.cpp:434] conv2_2_postscale <- conv2_2
I0408 20:53:28.883903 17265 net.cpp:395] conv2_2_postscale -> conv2_2 (in-place)
I0408 20:53:28.884035 17265 net.cpp:150] Setting up conv2_2_postscale
I0408 20:53:28.884044 17265 net.cpp:157] Top shape: 200 250 6 6 (1800000)
I0408 20:53:28.884048 17265 net.cpp:165] Memory required for data: 2404208000
I0408 20:53:28.884054 17265 layer_factory.hpp:77] Creating layer pool2_2
I0408 20:53:28.884060 17265 net.cpp:100] Creating Layer pool2_2
I0408 20:53:28.884065 17265 net.cpp:434] pool2_2 <- conv2_2
I0408 20:53:28.884075 17265 net.cpp:408] pool2_2 -> pool2_2
I0408 20:53:28.884137 17265 net.cpp:150] Setting up pool2_2
I0408 20:53:28.884148 17265 net.cpp:157] Top shape: 200 250 3 3 (450000)
I0408 20:53:28.884153 17265 net.cpp:165] Memory required for data: 2406008000
I0408 20:53:28.884156 17265 layer_factory.hpp:77] Creating layer fc2_4_300
I0408 20:53:28.884162 17265 net.cpp:100] Creating Layer fc2_4_300
I0408 20:53:28.884167 17265 net.cpp:434] fc2_4_300 <- pool2_2
I0408 20:53:28.884176 17265 net.cpp:408] fc2_4_300 -> fc2_4
I0408 20:53:28.889725 17265 net.cpp:150] Setting up fc2_4_300
I0408 20:53:28.889742 17265 net.cpp:157] Top shape: 200 300 (60000)
I0408 20:53:28.889746 17265 net.cpp:165] Memory required for data: 2406248000
I0408 20:53:28.889753 17265 layer_factory.hpp:77] Creating layer fc2_4_prescale
I0408 20:53:28.889773 17265 net.cpp:100] Creating Layer fc2_4_prescale
I0408 20:53:28.889778 17265 net.cpp:434] fc2_4_prescale <- fc2_4
I0408 20:53:28.889785 17265 net.cpp:395] fc2_4_prescale -> fc2_4 (in-place)
I0408 20:53:28.889914 17265 net.cpp:150] Setting up fc2_4_prescale
I0408 20:53:28.889924 17265 net.cpp:157] Top shape: 200 300 (60000)
I0408 20:53:28.889926 17265 net.cpp:165] Memory required for data: 2406488000
I0408 20:53:28.889931 17265 layer_factory.hpp:77] Creating layer fc2_4_sTanH
I0408 20:53:28.889937 17265 net.cpp:100] Creating Layer fc2_4_sTanH
I0408 20:53:28.889941 17265 net.cpp:434] fc2_4_sTanH <- fc2_4
I0408 20:53:28.889947 17265 net.cpp:395] fc2_4_sTanH -> fc2_4 (in-place)
I0408 20:53:28.890162 17265 net.cpp:150] Setting up fc2_4_sTanH
I0408 20:53:28.890177 17265 net.cpp:157] Top shape: 200 300 (60000)
I0408 20:53:28.890182 17265 net.cpp:165] Memory required for data: 2406728000
I0408 20:53:28.890185 17265 layer_factory.hpp:77] Creating layer fc2_4_postscale
I0408 20:53:28.890193 17265 net.cpp:100] Creating Layer fc2_4_postscale
I0408 20:53:28.890198 17265 net.cpp:434] fc2_4_postscale <- fc2_4
I0408 20:53:28.890203 17265 net.cpp:395] fc2_4_postscale -> fc2_4 (in-place)
I0408 20:53:28.890343 17265 net.cpp:150] Setting up fc2_4_postscale
I0408 20:53:28.890352 17265 net.cpp:157] Top shape: 200 300 (60000)
I0408 20:53:28.890355 17265 net.cpp:165] Memory required for data: 2406968000
I0408 20:53:28.890360 17265 layer_factory.hpp:77] Creating layer drop2_4
I0408 20:53:28.890378 17265 net.cpp:100] Creating Layer drop2_4
I0408 20:53:28.890383 17265 net.cpp:434] drop2_4 <- fc2_4
I0408 20:53:28.890388 17265 net.cpp:395] drop2_4 -> fc2_4 (in-place)
I0408 20:53:28.890425 17265 net.cpp:150] Setting up drop2_4
I0408 20:53:28.890435 17265 net.cpp:157] Top shape: 200 300 (60000)
I0408 20:53:28.890439 17265 net.cpp:165] Memory required for data: 2407208000
I0408 20:53:28.890441 17265 layer_factory.hpp:77] Creating layer fc2_5_67
I0408 20:53:28.890447 17265 net.cpp:100] Creating Layer fc2_5_67
I0408 20:53:28.890451 17265 net.cpp:434] fc2_5_67 <- fc2_4
I0408 20:53:28.890458 17265 net.cpp:408] fc2_5_67 -> fc2_5
I0408 20:53:28.890746 17265 net.cpp:150] Setting up fc2_5_67
I0408 20:53:28.890756 17265 net.cpp:157] Top shape: 200 67 (13400)
I0408 20:53:28.890759 17265 net.cpp:165] Memory required for data: 2407261600
I0408 20:53:28.890764 17265 layer_factory.hpp:77] Creating layer softmax_2
I0408 20:53:28.890774 17265 net.cpp:100] Creating Layer softmax_2
I0408 20:53:28.890790 17265 net.cpp:434] softmax_2 <- fc2_5
I0408 20:53:28.890799 17265 net.cpp:408] softmax_2 -> softmax_2
I0408 20:53:28.891815 17265 net.cpp:150] Setting up softmax_2
I0408 20:53:28.891831 17265 net.cpp:157] Top shape: 200 67 (13400)
I0408 20:53:28.891835 17265 net.cpp:165] Memory required for data: 2407315200
I0408 20:53:28.891839 17265 layer_factory.hpp:77] Creating layer data_3
I0408 20:53:28.892035 17265 net.cpp:100] Creating Layer data_3
I0408 20:53:28.892047 17265 net.cpp:408] data_3 -> data_3
I0408 20:53:28.892057 17265 net.cpp:408] data_3 -> label_3
I0408 20:53:28.893483 17390 db_lmdb.cpp:35] Opened lmdb ../local_data/lmdb/rtsd-r1/imajust/test/lmdb
I0408 20:53:28.893641 17265 data_layer.cpp:41] output data size: 200,3,48,48
I0408 20:53:28.907739 17265 net.cpp:150] Setting up data_3
I0408 20:53:28.907763 17265 net.cpp:157] Top shape: 200 3 48 48 (1382400)
I0408 20:53:28.907768 17265 net.cpp:157] Top shape: 200 (200)
I0408 20:53:28.907770 17265 net.cpp:165] Memory required for data: 2412845600
I0408 20:53:28.907775 17265 layer_factory.hpp:77] Creating layer conv3_0
I0408 20:53:28.907790 17265 net.cpp:100] Creating Layer conv3_0
I0408 20:53:28.907795 17265 net.cpp:434] conv3_0 <- data_3
I0408 20:53:28.907805 17265 net.cpp:408] conv3_0 -> conv3_0
I0408 20:53:28.910532 17265 net.cpp:150] Setting up conv3_0
I0408 20:53:28.910552 17265 net.cpp:157] Top shape: 200 100 42 42 (35280000)
I0408 20:53:28.910557 17265 net.cpp:165] Memory required for data: 2553965600
I0408 20:53:28.910565 17265 layer_factory.hpp:77] Creating layer conv3_0_prescale
I0408 20:53:28.910575 17265 net.cpp:100] Creating Layer conv3_0_prescale
I0408 20:53:28.910580 17265 net.cpp:434] conv3_0_prescale <- conv3_0
I0408 20:53:28.910588 17265 net.cpp:395] conv3_0_prescale -> conv3_0 (in-place)
I0408 20:53:28.910732 17265 net.cpp:150] Setting up conv3_0_prescale
I0408 20:53:28.910743 17265 net.cpp:157] Top shape: 200 100 42 42 (35280000)
I0408 20:53:28.910747 17265 net.cpp:165] Memory required for data: 2695085600
I0408 20:53:28.910750 17265 layer_factory.hpp:77] Creating layer conv3_0_sTanH
I0408 20:53:28.910756 17265 net.cpp:100] Creating Layer conv3_0_sTanH
I0408 20:53:28.910760 17265 net.cpp:434] conv3_0_sTanH <- conv3_0
I0408 20:53:28.910766 17265 net.cpp:395] conv3_0_sTanH -> conv3_0 (in-place)
I0408 20:53:28.910987 17265 net.cpp:150] Setting up conv3_0_sTanH
I0408 20:53:28.910998 17265 net.cpp:157] Top shape: 200 100 42 42 (35280000)
I0408 20:53:28.911003 17265 net.cpp:165] Memory required for data: 2836205600
I0408 20:53:28.911006 17265 layer_factory.hpp:77] Creating layer conv3_0_postscale
I0408 20:53:28.911015 17265 net.cpp:100] Creating Layer conv3_0_postscale
I0408 20:53:28.911020 17265 net.cpp:434] conv3_0_postscale <- conv3_0
I0408 20:53:28.911025 17265 net.cpp:395] conv3_0_postscale -> conv3_0 (in-place)
I0408 20:53:28.911658 17265 net.cpp:150] Setting up conv3_0_postscale
I0408 20:53:28.911667 17265 net.cpp:157] Top shape: 200 100 42 42 (35280000)
I0408 20:53:28.911672 17265 net.cpp:165] Memory required for data: 2977325600
I0408 20:53:28.911679 17265 layer_factory.hpp:77] Creating layer pool3_0
I0408 20:53:28.911687 17265 net.cpp:100] Creating Layer pool3_0
I0408 20:53:28.911692 17265 net.cpp:434] pool3_0 <- conv3_0
I0408 20:53:28.911698 17265 net.cpp:408] pool3_0 -> pool3_0
I0408 20:53:28.911758 17265 net.cpp:150] Setting up pool3_0
I0408 20:53:28.911767 17265 net.cpp:157] Top shape: 200 100 21 21 (8820000)
I0408 20:53:28.911769 17265 net.cpp:165] Memory required for data: 3012605600
I0408 20:53:28.911772 17265 layer_factory.hpp:77] Creating layer conv3_1
I0408 20:53:28.911782 17265 net.cpp:100] Creating Layer conv3_1
I0408 20:53:28.911787 17265 net.cpp:434] conv3_1 <- pool3_0
I0408 20:53:28.911798 17265 net.cpp:408] conv3_1 -> conv3_1
I0408 20:53:28.921619 17265 net.cpp:150] Setting up conv3_1
I0408 20:53:28.921639 17265 net.cpp:157] Top shape: 200 150 18 18 (9720000)
I0408 20:53:28.921643 17265 net.cpp:165] Memory required for data: 3051485600
I0408 20:53:28.921650 17265 layer_factory.hpp:77] Creating layer conv3_1_prescale
I0408 20:53:28.921679 17265 net.cpp:100] Creating Layer conv3_1_prescale
I0408 20:53:28.921686 17265 net.cpp:434] conv3_1_prescale <- conv3_1
I0408 20:53:28.921692 17265 net.cpp:395] conv3_1_prescale -> conv3_1 (in-place)
I0408 20:53:28.921841 17265 net.cpp:150] Setting up conv3_1_prescale
I0408 20:53:28.921851 17265 net.cpp:157] Top shape: 200 150 18 18 (9720000)
I0408 20:53:28.921854 17265 net.cpp:165] Memory required for data: 3090365600
I0408 20:53:28.921859 17265 layer_factory.hpp:77] Creating layer conv3_1_sTanH
I0408 20:53:28.921866 17265 net.cpp:100] Creating Layer conv3_1_sTanH
I0408 20:53:28.921871 17265 net.cpp:434] conv3_1_sTanH <- conv3_1
I0408 20:53:28.921875 17265 net.cpp:395] conv3_1_sTanH -> conv3_1 (in-place)
I0408 20:53:28.922088 17265 net.cpp:150] Setting up conv3_1_sTanH
I0408 20:53:28.922101 17265 net.cpp:157] Top shape: 200 150 18 18 (9720000)
I0408 20:53:28.922106 17265 net.cpp:165] Memory required for data: 3129245600
I0408 20:53:28.922109 17265 layer_factory.hpp:77] Creating layer conv3_1_postscale
I0408 20:53:28.922117 17265 net.cpp:100] Creating Layer conv3_1_postscale
I0408 20:53:28.922122 17265 net.cpp:434] conv3_1_postscale <- conv3_1
I0408 20:53:28.922129 17265 net.cpp:395] conv3_1_postscale -> conv3_1 (in-place)
I0408 20:53:28.922300 17265 net.cpp:150] Setting up conv3_1_postscale
I0408 20:53:28.922310 17265 net.cpp:157] Top shape: 200 150 18 18 (9720000)
I0408 20:53:28.922313 17265 net.cpp:165] Memory required for data: 3168125600
I0408 20:53:28.922318 17265 layer_factory.hpp:77] Creating layer pool3_1
I0408 20:53:28.922324 17265 net.cpp:100] Creating Layer pool3_1
I0408 20:53:28.922327 17265 net.cpp:434] pool3_1 <- conv3_1
I0408 20:53:28.922338 17265 net.cpp:408] pool3_1 -> pool3_1
I0408 20:53:28.922824 17265 net.cpp:150] Setting up pool3_1
I0408 20:53:28.922838 17265 net.cpp:157] Top shape: 200 150 9 9 (2430000)
I0408 20:53:28.922843 17265 net.cpp:165] Memory required for data: 3177845600
I0408 20:53:28.922847 17265 layer_factory.hpp:77] Creating layer conv3_2
I0408 20:53:28.922857 17265 net.cpp:100] Creating Layer conv3_2
I0408 20:53:28.922863 17265 net.cpp:434] conv3_2 <- pool3_1
I0408 20:53:28.922871 17265 net.cpp:408] conv3_2 -> conv3_2
I0408 20:53:28.933670 17265 net.cpp:150] Setting up conv3_2
I0408 20:53:28.933689 17265 net.cpp:157] Top shape: 200 250 6 6 (1800000)
I0408 20:53:28.933693 17265 net.cpp:165] Memory required for data: 3185045600
I0408 20:53:28.933701 17265 layer_factory.hpp:77] Creating layer conv3_2_prescale
I0408 20:53:28.933713 17265 net.cpp:100] Creating Layer conv3_2_prescale
I0408 20:53:28.933719 17265 net.cpp:434] conv3_2_prescale <- conv3_2
I0408 20:53:28.933724 17265 net.cpp:395] conv3_2_prescale -> conv3_2 (in-place)
I0408 20:53:28.934270 17265 net.cpp:150] Setting up conv3_2_prescale
I0408 20:53:28.934283 17265 net.cpp:157] Top shape: 200 250 6 6 (1800000)
I0408 20:53:28.934285 17265 net.cpp:165] Memory required for data: 3192245600
I0408 20:53:28.934306 17265 layer_factory.hpp:77] Creating layer conv3_2_sTanH
I0408 20:53:28.934314 17265 net.cpp:100] Creating Layer conv3_2_sTanH
I0408 20:53:28.934317 17265 net.cpp:434] conv3_2_sTanH <- conv3_2
I0408 20:53:28.934324 17265 net.cpp:395] conv3_2_sTanH -> conv3_2 (in-place)
I0408 20:53:28.934536 17265 net.cpp:150] Setting up conv3_2_sTanH
I0408 20:53:28.934550 17265 net.cpp:157] Top shape: 200 250 6 6 (1800000)
I0408 20:53:28.934552 17265 net.cpp:165] Memory required for data: 3199445600
I0408 20:53:28.934556 17265 layer_factory.hpp:77] Creating layer conv3_2_postscale
I0408 20:53:28.934562 17265 net.cpp:100] Creating Layer conv3_2_postscale
I0408 20:53:28.934566 17265 net.cpp:434] conv3_2_postscale <- conv3_2
I0408 20:53:28.934573 17265 net.cpp:395] conv3_2_postscale -> conv3_2 (in-place)
I0408 20:53:28.934712 17265 net.cpp:150] Setting up conv3_2_postscale
I0408 20:53:28.934722 17265 net.cpp:157] Top shape: 200 250 6 6 (1800000)
I0408 20:53:28.934725 17265 net.cpp:165] Memory required for data: 3206645600
I0408 20:53:28.934729 17265 layer_factory.hpp:77] Creating layer pool3_2
I0408 20:53:28.934751 17265 net.cpp:100] Creating Layer pool3_2
I0408 20:53:28.934754 17265 net.cpp:434] pool3_2 <- conv3_2
I0408 20:53:28.934762 17265 net.cpp:408] pool3_2 -> pool3_2
I0408 20:53:28.934823 17265 net.cpp:150] Setting up pool3_2
I0408 20:53:28.934831 17265 net.cpp:157] Top shape: 200 250 3 3 (450000)
I0408 20:53:28.934834 17265 net.cpp:165] Memory required for data: 3208445600
I0408 20:53:28.934837 17265 layer_factory.hpp:77] Creating layer fc3_4_300
I0408 20:53:28.934844 17265 net.cpp:100] Creating Layer fc3_4_300
I0408 20:53:28.934847 17265 net.cpp:434] fc3_4_300 <- pool3_2
I0408 20:53:28.934854 17265 net.cpp:408] fc3_4_300 -> fc3_4
I0408 20:53:28.940414 17265 net.cpp:150] Setting up fc3_4_300
I0408 20:53:28.940430 17265 net.cpp:157] Top shape: 200 300 (60000)
I0408 20:53:28.940441 17265 net.cpp:165] Memory required for data: 3208685600
I0408 20:53:28.940448 17265 layer_factory.hpp:77] Creating layer fc3_4_prescale
I0408 20:53:28.940459 17265 net.cpp:100] Creating Layer fc3_4_prescale
I0408 20:53:28.940474 17265 net.cpp:434] fc3_4_prescale <- fc3_4
I0408 20:53:28.940482 17265 net.cpp:395] fc3_4_prescale -> fc3_4 (in-place)
I0408 20:53:28.940619 17265 net.cpp:150] Setting up fc3_4_prescale
I0408 20:53:28.940629 17265 net.cpp:157] Top shape: 200 300 (60000)
I0408 20:53:28.940631 17265 net.cpp:165] Memory required for data: 3208925600
I0408 20:53:28.940635 17265 layer_factory.hpp:77] Creating layer fc3_4_sTanH
I0408 20:53:28.940641 17265 net.cpp:100] Creating Layer fc3_4_sTanH
I0408 20:53:28.940644 17265 net.cpp:434] fc3_4_sTanH <- fc3_4
I0408 20:53:28.940649 17265 net.cpp:395] fc3_4_sTanH -> fc3_4 (in-place)
I0408 20:53:28.940868 17265 net.cpp:150] Setting up fc3_4_sTanH
I0408 20:53:28.940883 17265 net.cpp:157] Top shape: 200 300 (60000)
I0408 20:53:28.940888 17265 net.cpp:165] Memory required for data: 3209165600
I0408 20:53:28.940901 17265 layer_factory.hpp:77] Creating layer fc3_4_postscale
I0408 20:53:28.940908 17265 net.cpp:100] Creating Layer fc3_4_postscale
I0408 20:53:28.940913 17265 net.cpp:434] fc3_4_postscale <- fc3_4
I0408 20:53:28.940918 17265 net.cpp:395] fc3_4_postscale -> fc3_4 (in-place)
I0408 20:53:28.941061 17265 net.cpp:150] Setting up fc3_4_postscale
I0408 20:53:28.941069 17265 net.cpp:157] Top shape: 200 300 (60000)
I0408 20:53:28.941072 17265 net.cpp:165] Memory required for data: 3209405600
I0408 20:53:28.941082 17265 layer_factory.hpp:77] Creating layer drop3_4
I0408 20:53:28.941089 17265 net.cpp:100] Creating Layer drop3_4
I0408 20:53:28.941094 17265 net.cpp:434] drop3_4 <- fc3_4
I0408 20:53:28.941099 17265 net.cpp:395] drop3_4 -> fc3_4 (in-place)
I0408 20:53:28.941135 17265 net.cpp:150] Setting up drop3_4
I0408 20:53:28.941143 17265 net.cpp:157] Top shape: 200 300 (60000)
I0408 20:53:28.941145 17265 net.cpp:165] Memory required for data: 3209645600
I0408 20:53:28.941148 17265 layer_factory.hpp:77] Creating layer fc3_5_67
I0408 20:53:28.941154 17265 net.cpp:100] Creating Layer fc3_5_67
I0408 20:53:28.941157 17265 net.cpp:434] fc3_5_67 <- fc3_4
I0408 20:53:28.941164 17265 net.cpp:408] fc3_5_67 -> fc3_5
I0408 20:53:28.941462 17265 net.cpp:150] Setting up fc3_5_67
I0408 20:53:28.941471 17265 net.cpp:157] Top shape: 200 67 (13400)
I0408 20:53:28.941474 17265 net.cpp:165] Memory required for data: 3209699200
I0408 20:53:28.941480 17265 layer_factory.hpp:77] Creating layer softmax_3
I0408 20:53:28.941493 17265 net.cpp:100] Creating Layer softmax_3
I0408 20:53:28.941495 17265 net.cpp:434] softmax_3 <- fc3_5
I0408 20:53:28.941503 17265 net.cpp:408] softmax_3 -> softmax_3
I0408 20:53:28.942492 17265 net.cpp:150] Setting up softmax_3
I0408 20:53:28.942508 17265 net.cpp:157] Top shape: 200 67 (13400)
I0408 20:53:28.942512 17265 net.cpp:165] Memory required for data: 3209752800
I0408 20:53:28.942515 17265 layer_factory.hpp:77] Creating layer data_4
I0408 20:53:28.942698 17265 net.cpp:100] Creating Layer data_4
I0408 20:53:28.942709 17265 net.cpp:408] data_4 -> data_4
I0408 20:53:28.942719 17265 net.cpp:408] data_4 -> label_4
I0408 20:53:28.943790 17397 db_lmdb.cpp:35] Opened lmdb ../local_data/lmdb/rtsd-r1/CoNorm/test/lmdb
I0408 20:53:28.944039 17265 data_layer.cpp:41] output data size: 200,3,48,48
I0408 20:53:28.955266 17265 net.cpp:150] Setting up data_4
I0408 20:53:28.955289 17265 net.cpp:157] Top shape: 200 3 48 48 (1382400)
I0408 20:53:28.955294 17265 net.cpp:157] Top shape: 200 (200)
I0408 20:53:28.955297 17265 net.cpp:165] Memory required for data: 3215283200
I0408 20:53:28.955302 17265 layer_factory.hpp:77] Creating layer conv4_0
I0408 20:53:28.955315 17265 net.cpp:100] Creating Layer conv4_0
I0408 20:53:28.955322 17265 net.cpp:434] conv4_0 <- data_4
I0408 20:53:28.955330 17265 net.cpp:408] conv4_0 -> conv4_0
I0408 20:53:28.957725 17265 net.cpp:150] Setting up conv4_0
I0408 20:53:28.957743 17265 net.cpp:157] Top shape: 200 100 42 42 (35280000)
I0408 20:53:28.957748 17265 net.cpp:165] Memory required for data: 3356403200
I0408 20:53:28.957757 17265 layer_factory.hpp:77] Creating layer conv4_0_prescale
I0408 20:53:28.957767 17265 net.cpp:100] Creating Layer conv4_0_prescale
I0408 20:53:28.957772 17265 net.cpp:434] conv4_0_prescale <- conv4_0
I0408 20:53:28.957779 17265 net.cpp:395] conv4_0_prescale -> conv4_0 (in-place)
I0408 20:53:28.957957 17265 net.cpp:150] Setting up conv4_0_prescale
I0408 20:53:28.957968 17265 net.cpp:157] Top shape: 200 100 42 42 (35280000)
I0408 20:53:28.957973 17265 net.cpp:165] Memory required for data: 3497523200
I0408 20:53:28.957978 17265 layer_factory.hpp:77] Creating layer conv4_0_sTanH
I0408 20:53:28.957983 17265 net.cpp:100] Creating Layer conv4_0_sTanH
I0408 20:53:28.957986 17265 net.cpp:434] conv4_0_sTanH <- conv4_0
I0408 20:53:28.957991 17265 net.cpp:395] conv4_0_sTanH -> conv4_0 (in-place)
I0408 20:53:28.958652 17265 net.cpp:150] Setting up conv4_0_sTanH
I0408 20:53:28.958667 17265 net.cpp:157] Top shape: 200 100 42 42 (35280000)
I0408 20:53:28.958673 17265 net.cpp:165] Memory required for data: 3638643200
I0408 20:53:28.958675 17265 layer_factory.hpp:77] Creating layer conv4_0_postscale
I0408 20:53:28.958683 17265 net.cpp:100] Creating Layer conv4_0_postscale
I0408 20:53:28.958688 17265 net.cpp:434] conv4_0_postscale <- conv4_0
I0408 20:53:28.958693 17265 net.cpp:395] conv4_0_postscale -> conv4_0 (in-place)
I0408 20:53:28.958847 17265 net.cpp:150] Setting up conv4_0_postscale
I0408 20:53:28.958856 17265 net.cpp:157] Top shape: 200 100 42 42 (35280000)
I0408 20:53:28.958858 17265 net.cpp:165] Memory required for data: 3779763200
I0408 20:53:28.958863 17265 layer_factory.hpp:77] Creating layer pool4_0
I0408 20:53:28.958873 17265 net.cpp:100] Creating Layer pool4_0
I0408 20:53:28.958881 17265 net.cpp:434] pool4_0 <- conv4_0
I0408 20:53:28.958886 17265 net.cpp:408] pool4_0 -> pool4_0
I0408 20:53:28.958947 17265 net.cpp:150] Setting up pool4_0
I0408 20:53:28.958956 17265 net.cpp:157] Top shape: 200 100 21 21 (8820000)
I0408 20:53:28.958959 17265 net.cpp:165] Memory required for data: 3815043200
I0408 20:53:28.958962 17265 layer_factory.hpp:77] Creating layer conv4_1
I0408 20:53:28.958971 17265 net.cpp:100] Creating Layer conv4_1
I0408 20:53:28.958976 17265 net.cpp:434] conv4_1 <- pool4_0
I0408 20:53:28.958986 17265 net.cpp:408] conv4_1 -> conv4_1
I0408 20:53:28.962783 17265 net.cpp:150] Setting up conv4_1
I0408 20:53:28.962800 17265 net.cpp:157] Top shape: 200 150 18 18 (9720000)
I0408 20:53:28.962803 17265 net.cpp:165] Memory required for data: 3853923200
I0408 20:53:28.962810 17265 layer_factory.hpp:77] Creating layer conv4_1_prescale
I0408 20:53:28.962821 17265 net.cpp:100] Creating Layer conv4_1_prescale
I0408 20:53:28.962827 17265 net.cpp:434] conv4_1_prescale <- conv4_1
I0408 20:53:28.962832 17265 net.cpp:395] conv4_1_prescale -> conv4_1 (in-place)
I0408 20:53:28.962980 17265 net.cpp:150] Setting up conv4_1_prescale
I0408 20:53:28.962994 17265 net.cpp:157] Top shape: 200 150 18 18 (9720000)
I0408 20:53:28.962998 17265 net.cpp:165] Memory required for data: 3892803200
I0408 20:53:28.963003 17265 layer_factory.hpp:77] Creating layer conv4_1_sTanH
I0408 20:53:28.963009 17265 net.cpp:100] Creating Layer conv4_1_sTanH
I0408 20:53:28.963012 17265 net.cpp:434] conv4_1_sTanH <- conv4_1
I0408 20:53:28.963035 17265 net.cpp:395] conv4_1_sTanH -> conv4_1 (in-place)
I0408 20:53:28.963253 17265 net.cpp:150] Setting up conv4_1_sTanH
I0408 20:53:28.963265 17265 net.cpp:157] Top shape: 200 150 18 18 (9720000)
I0408 20:53:28.963269 17265 net.cpp:165] Memory required for data: 3931683200
I0408 20:53:28.963274 17265 layer_factory.hpp:77] Creating layer conv4_1_postscale
I0408 20:53:28.963281 17265 net.cpp:100] Creating Layer conv4_1_postscale
I0408 20:53:28.963286 17265 net.cpp:434] conv4_1_postscale <- conv4_1
I0408 20:53:28.963292 17265 net.cpp:395] conv4_1_postscale -> conv4_1 (in-place)
I0408 20:53:28.963434 17265 net.cpp:150] Setting up conv4_1_postscale
I0408 20:53:28.963445 17265 net.cpp:157] Top shape: 200 150 18 18 (9720000)
I0408 20:53:28.963449 17265 net.cpp:165] Memory required for data: 3970563200
I0408 20:53:28.963454 17265 layer_factory.hpp:77] Creating layer pool4_1
I0408 20:53:28.963460 17265 net.cpp:100] Creating Layer pool4_1
I0408 20:53:28.963464 17265 net.cpp:434] pool4_1 <- conv4_1
I0408 20:53:28.963469 17265 net.cpp:408] pool4_1 -> pool4_1
I0408 20:53:28.963527 17265 net.cpp:150] Setting up pool4_1
I0408 20:53:28.963536 17265 net.cpp:157] Top shape: 200 150 9 9 (2430000)
I0408 20:53:28.963539 17265 net.cpp:165] Memory required for data: 3980283200
I0408 20:53:28.963542 17265 layer_factory.hpp:77] Creating layer conv4_2
I0408 20:53:28.963551 17265 net.cpp:100] Creating Layer conv4_2
I0408 20:53:28.963557 17265 net.cpp:434] conv4_2 <- pool4_1
I0408 20:53:28.963563 17265 net.cpp:408] conv4_2 -> conv4_2
I0408 20:53:28.974301 17265 net.cpp:150] Setting up conv4_2
I0408 20:53:28.974321 17265 net.cpp:157] Top shape: 200 250 6 6 (1800000)
I0408 20:53:28.974326 17265 net.cpp:165] Memory required for data: 3987483200
I0408 20:53:28.974334 17265 layer_factory.hpp:77] Creating layer conv4_2_prescale
I0408 20:53:28.974345 17265 net.cpp:100] Creating Layer conv4_2_prescale
I0408 20:53:28.974350 17265 net.cpp:434] conv4_2_prescale <- conv4_2
I0408 20:53:28.974357 17265 net.cpp:395] conv4_2_prescale -> conv4_2 (in-place)
I0408 20:53:28.974503 17265 net.cpp:150] Setting up conv4_2_prescale
I0408 20:53:28.974514 17265 net.cpp:157] Top shape: 200 250 6 6 (1800000)
I0408 20:53:28.974516 17265 net.cpp:165] Memory required for data: 3994683200
I0408 20:53:28.974520 17265 layer_factory.hpp:77] Creating layer conv4_2_sTanH
I0408 20:53:28.974529 17265 net.cpp:100] Creating Layer conv4_2_sTanH
I0408 20:53:28.974532 17265 net.cpp:434] conv4_2_sTanH <- conv4_2
I0408 20:53:28.974537 17265 net.cpp:395] conv4_2_sTanH -> conv4_2 (in-place)
I0408 20:53:28.974753 17265 net.cpp:150] Setting up conv4_2_sTanH
I0408 20:53:28.974767 17265 net.cpp:157] Top shape: 200 250 6 6 (1800000)
I0408 20:53:28.974771 17265 net.cpp:165] Memory required for data: 4001883200
I0408 20:53:28.974773 17265 layer_factory.hpp:77] Creating layer conv4_2_postscale
I0408 20:53:28.974781 17265 net.cpp:100] Creating Layer conv4_2_postscale
I0408 20:53:28.974783 17265 net.cpp:434] conv4_2_postscale <- conv4_2
I0408 20:53:28.974792 17265 net.cpp:395] conv4_2_postscale -> conv4_2 (in-place)
I0408 20:53:28.974931 17265 net.cpp:150] Setting up conv4_2_postscale
I0408 20:53:28.974939 17265 net.cpp:157] Top shape: 200 250 6 6 (1800000)
I0408 20:53:28.974948 17265 net.cpp:165] Memory required for data: 4009083200
I0408 20:53:28.974953 17265 layer_factory.hpp:77] Creating layer pool4_2
I0408 20:53:28.974959 17265 net.cpp:100] Creating Layer pool4_2
I0408 20:53:28.974962 17265 net.cpp:434] pool4_2 <- conv4_2
I0408 20:53:28.974968 17265 net.cpp:408] pool4_2 -> pool4_2
I0408 20:53:28.975026 17265 net.cpp:150] Setting up pool4_2
I0408 20:53:28.975034 17265 net.cpp:157] Top shape: 200 250 3 3 (450000)
I0408 20:53:28.975038 17265 net.cpp:165] Memory required for data: 4010883200
I0408 20:53:28.975040 17265 layer_factory.hpp:77] Creating layer fc4_4_300
I0408 20:53:28.975049 17265 net.cpp:100] Creating Layer fc4_4_300
I0408 20:53:28.975054 17265 net.cpp:434] fc4_4_300 <- pool4_2
I0408 20:53:28.975060 17265 net.cpp:408] fc4_4_300 -> fc4_4
I0408 20:53:28.981693 17265 net.cpp:150] Setting up fc4_4_300
I0408 20:53:28.981710 17265 net.cpp:157] Top shape: 200 300 (60000)
I0408 20:53:28.981714 17265 net.cpp:165] Memory required for data: 4011123200
I0408 20:53:28.981720 17265 layer_factory.hpp:77] Creating layer fc4_4_prescale
I0408 20:53:28.981729 17265 net.cpp:100] Creating Layer fc4_4_prescale
I0408 20:53:28.981735 17265 net.cpp:434] fc4_4_prescale <- fc4_4
I0408 20:53:28.981744 17265 net.cpp:395] fc4_4_prescale -> fc4_4 (in-place)
I0408 20:53:28.981880 17265 net.cpp:150] Setting up fc4_4_prescale
I0408 20:53:28.981891 17265 net.cpp:157] Top shape: 200 300 (60000)
I0408 20:53:28.981894 17265 net.cpp:165] Memory required for data: 4011363200
I0408 20:53:28.981899 17265 layer_factory.hpp:77] Creating layer fc4_4_sTanH
I0408 20:53:28.981905 17265 net.cpp:100] Creating Layer fc4_4_sTanH
I0408 20:53:28.981909 17265 net.cpp:434] fc4_4_sTanH <- fc4_4
I0408 20:53:28.981914 17265 net.cpp:395] fc4_4_sTanH -> fc4_4 (in-place)
I0408 20:53:28.983114 17265 net.cpp:150] Setting up fc4_4_sTanH
I0408 20:53:28.983129 17265 net.cpp:157] Top shape: 200 300 (60000)
I0408 20:53:28.983141 17265 net.cpp:165] Memory required for data: 4011603200
I0408 20:53:28.983145 17265 layer_factory.hpp:77] Creating layer fc4_4_postscale
I0408 20:53:28.983152 17265 net.cpp:100] Creating Layer fc4_4_postscale
I0408 20:53:28.983156 17265 net.cpp:434] fc4_4_postscale <- fc4_4
I0408 20:53:28.983165 17265 net.cpp:395] fc4_4_postscale -> fc4_4 (in-place)
I0408 20:53:28.983322 17265 net.cpp:150] Setting up fc4_4_postscale
I0408 20:53:28.983331 17265 net.cpp:157] Top shape: 200 300 (60000)
I0408 20:53:28.983335 17265 net.cpp:165] Memory required for data: 4011843200
I0408 20:53:28.983340 17265 layer_factory.hpp:77] Creating layer drop4_4
I0408 20:53:28.983346 17265 net.cpp:100] Creating Layer drop4_4
I0408 20:53:28.983350 17265 net.cpp:434] drop4_4 <- fc4_4
I0408 20:53:28.983355 17265 net.cpp:395] drop4_4 -> fc4_4 (in-place)
I0408 20:53:28.983394 17265 net.cpp:150] Setting up drop4_4
I0408 20:53:28.983402 17265 net.cpp:157] Top shape: 200 300 (60000)
I0408 20:53:28.983405 17265 net.cpp:165] Memory required for data: 4012083200
I0408 20:53:28.983408 17265 layer_factory.hpp:77] Creating layer fc4_5_67
I0408 20:53:28.983414 17265 net.cpp:100] Creating Layer fc4_5_67
I0408 20:53:28.983417 17265 net.cpp:434] fc4_5_67 <- fc4_4
I0408 20:53:28.983423 17265 net.cpp:408] fc4_5_67 -> fc4_5
I0408 20:53:28.983726 17265 net.cpp:150] Setting up fc4_5_67
I0408 20:53:28.983736 17265 net.cpp:157] Top shape: 200 67 (13400)
I0408 20:53:28.983739 17265 net.cpp:165] Memory required for data: 4012136800
I0408 20:53:28.983745 17265 layer_factory.hpp:77] Creating layer softmax_4
I0408 20:53:28.983754 17265 net.cpp:100] Creating Layer softmax_4
I0408 20:53:28.983759 17265 net.cpp:434] softmax_4 <- fc4_5
I0408 20:53:28.983764 17265 net.cpp:408] softmax_4 -> softmax_4
I0408 20:53:28.984089 17265 net.cpp:150] Setting up softmax_4
I0408 20:53:28.984103 17265 net.cpp:157] Top shape: 200 67 (13400)
I0408 20:53:28.984107 17265 net.cpp:165] Memory required for data: 4012190400
I0408 20:53:28.984109 17265 layer_factory.hpp:77] Creating layer averaging
I0408 20:53:28.984119 17265 net.cpp:100] Creating Layer averaging
I0408 20:53:28.984124 17265 net.cpp:434] averaging <- softmax_0
I0408 20:53:28.984129 17265 net.cpp:434] averaging <- softmax_1
I0408 20:53:28.984133 17265 net.cpp:434] averaging <- softmax_2
I0408 20:53:28.984136 17265 net.cpp:434] averaging <- softmax_3
I0408 20:53:28.984139 17265 net.cpp:434] averaging <- softmax_4
I0408 20:53:28.984145 17265 net.cpp:408] averaging -> eltwize
I0408 20:53:28.984189 17265 net.cpp:150] Setting up averaging
I0408 20:53:28.984196 17265 net.cpp:157] Top shape: 200 67 (13400)
I0408 20:53:28.984200 17265 net.cpp:165] Memory required for data: 4012244000
I0408 20:53:28.984202 17265 layer_factory.hpp:77] Creating layer eltwize_averaging_0_split
I0408 20:53:28.984210 17265 net.cpp:100] Creating Layer eltwize_averaging_0_split
I0408 20:53:28.984215 17265 net.cpp:434] eltwize_averaging_0_split <- eltwize
I0408 20:53:28.984235 17265 net.cpp:408] eltwize_averaging_0_split -> eltwize_averaging_0_split_0
I0408 20:53:28.984243 17265 net.cpp:408] eltwize_averaging_0_split -> eltwize_averaging_0_split_1
I0408 20:53:28.984251 17265 net.cpp:408] eltwize_averaging_0_split -> eltwize_averaging_0_split_2
I0408 20:53:28.984324 17265 net.cpp:150] Setting up eltwize_averaging_0_split
I0408 20:53:28.984333 17265 net.cpp:157] Top shape: 200 67 (13400)
I0408 20:53:28.984338 17265 net.cpp:157] Top shape: 200 67 (13400)
I0408 20:53:28.984340 17265 net.cpp:157] Top shape: 200 67 (13400)
I0408 20:53:28.984342 17265 net.cpp:165] Memory required for data: 4012404800
I0408 20:53:28.984345 17265 layer_factory.hpp:77] Creating layer loss
I0408 20:53:28.984354 17265 net.cpp:100] Creating Layer loss
I0408 20:53:28.984359 17265 net.cpp:434] loss <- eltwize_averaging_0_split_0
I0408 20:53:28.984364 17265 net.cpp:434] loss <- label_0_data_0_1_split_0
I0408 20:53:28.984369 17265 net.cpp:408] loss -> loss
…
