…
I0407 23:09:29.958375 21708 net.cpp:322] The NetState phase (0) differed from the phase (1) specified by a rule in layer accuracy_5
I0407 23:09:29.960705 21708 net.cpp:58] Initializing net from parameters: 
state {
  phase: TRAIN
  level: 0
  stage: ""
}
layer {
  name: "data_0"
  type: "Data"
  top: "data_0"
  top: "label_0"
  include {
    phase: TRAIN
  }
  transform_param {
    mirror: false
    crop_size: 48
    mean_value: 115
    mean_value: 107
    mean_value: 120
  }
  data_param {
    source: "../local_data/lmdb/rtsd-r1/orig/train/lmdb"
    batch_size: 64
    backend: LMDB
  }
}
layer {
  name: "conv0_0"
  type: "Convolution"
  bottom: "data_0"
  top: "conv0_0"
  convolution_param {
    num_output: 100
    pad: 0
    kernel_size: 7
    group: 1
    stride: 1
    weight_filler {
      type: "xavier"
    }
  }
}
layer {
  name: "conv0_0_prescale"
  type: "Scale"
  bottom: "conv0_0"
  top: "conv0_0"
  param {
    lr_mult: 0
    decay_mult: 0
  }
  scale_param {
    filler {
      value: 0.6666
    }
  }
}
layer {
  name: "conv0_0_sTanH"
  type: "TanH"
  bottom: "conv0_0"
  top: "conv0_0"
}
layer {
  name: "conv0_0_postscale"
  type: "Scale"
  bottom: "conv0_0"
  top: "conv0_0"
  param {
    lr_mult: 0
    decay_mult: 0
  }
  scale_param {
    filler {
      value: 1.7159
    }
  }
}
layer {
  name: "pool0_0"
  type: "Pooling"
  bottom: "conv0_0"
  top: "pool0_0"
  pooling_param {
    pool: MAX
    kernel_size: 2
    stride: 2
  }
}
layer {
  name: "conv0_1"
  type: "Convolution"
  bottom: "pool0_0"
  top: "conv0_1"
  convolution_param {
    num_output: 150
    pad: 0
    kernel_size: 4
    group: 1
    stride: 1
    weight_filler {
      type: "xavier"
    }
  }
}
layer {
  name: "conv0_1_prescale"
  type: "Scale"
  bottom: "conv0_1"
  top: "conv0_1"
  param {
    lr_mult: 0
    decay_mult: 0
  }
  scale_param {
    filler {
      value: 0.6666
    }
  }
}
layer {
  name: "conv0_1_sTanH"
  type: "TanH"
  bottom: "conv0_1"
  top: "conv0_1"
}
layer {
  name: "conv0_1_postscale"
  type: "Scale"
  bottom: "conv0_1"
  top: "conv0_1"
  param {
    lr_mult: 0
    decay_mult: 0
  }
  scale_param {
    filler {
      value: 1.7159
    }
  }
}
layer {
  name: "pool0_1"
  type: "Pooling"
  bottom: "conv0_1"
  top: "pool0_1"
  pooling_param {
    pool: MAX
    kernel_size: 2
    stride: 2
  }
}
layer {
  name: "conv0_2"
  type: "Convolution"
  bottom: "pool0_1"
  top: "conv0_2"
  convolution_param {
    num_output: 250
    pad: 0
    kernel_size: 4
    group: 1
    stride: 1
    weight_filler {
      type: "xavier"
    }
  }
}
layer {
  name: "conv0_2_prescale"
  type: "Scale"
  bottom: "conv0_2"
  top: "conv0_2"
  param {
    lr_mult: 0
    decay_mult: 0
  }
  scale_param {
    filler {
      value: 0.6666
    }
  }
}
layer {
  name: "conv0_2_sTanH"
  type: "TanH"
  bottom: "conv0_2"
  top: "conv0_2"
}
layer {
  name: "conv0_2_postscale"
  type: "Scale"
  bottom: "conv0_2"
  top: "conv0_2"
  param {
    lr_mult: 0
    decay_mult: 0
  }
  scale_param {
    filler {
      value: 1.7159
    }
  }
}
layer {
  name: "pool0_2"
  type: "Pooling"
  bottom: "conv0_2"
  top: "pool0_2"
  pooling_param {
    pool: MAX
    kernel_size: 2
    stride: 2
  }
}
layer {
  name: "fc0_4_300"
  type: "InnerProduct"
  bottom: "pool0_2"
  top: "fc0_4"
  inner_product_param {
    num_output: 300
    weight_filler {
      type: "xavier"
    }
  }
}
layer {
  name: "fc0_4_prescale"
  type: "Scale"
  bottom: "fc0_4"
  top: "fc0_4"
  param {
    lr_mult: 0
    decay_mult: 0
  }
  scale_param {
    filler {
      value: 0.6666
    }
  }
}
layer {
  name: "fc0_4_sTanH"
  type: "TanH"
  bottom: "fc0_4"
  top: "fc0_4"
}
layer {
  name: "fc0_4_postscale"
  type: "Scale"
  bottom: "fc0_4"
  top: "fc0_4"
  param {
    lr_mult: 0
    decay_mult: 0
  }
  scale_param {
    filler {
      value: 1.7159
    }
  }
}
layer {
  name: "drop0_4"
  type: "Dropout"
  bottom: "fc0_4"
  top: "fc0_4"
  dropout_param {
    dropout_ratio: 0.4
  }
}
layer {
  name: "fc0_5_67"
  type: "InnerProduct"
  bottom: "fc0_4"
  top: "fc0_5"
  inner_product_param {
    num_output: 67
    weight_filler {
      type: "xavier"
    }
  }
}
layer {
  name: "softmax_0"
  type: "Softmax"
  bottom: "fc0_5"
  top: "softmax_0"
}
layer {
  name: "conv1_0"
  type: "Convolution"
  bottom: "data_0"
  top: "conv1_0"
  convolution_param {
    num_output: 100
    pad: 0
    kernel_size: 7
    group: 1
    stride: 1
    weight_filler {
      type: "xavier"
    }
  }
}
layer {
  name: "conv1_0_prescale"
  type: "Scale"
  bottom: "conv1_0"
  top: "conv1_0"
  param {
    lr_mult: 0
    decay_mult: 0
  }
  scale_param {
    filler {
      value: 0.6666
    }
  }
}
layer {
  name: "conv1_0_sTanH"
  type: "TanH"
  bottom: "conv1_0"
  top: "conv1_0"
}
layer {
  name: "conv1_0_postscale"
  type: "Scale"
  bottom: "conv1_0"
  top: "conv1_0"
  param {
    lr_mult: 0
    decay_mult: 0
  }
  scale_param {
    filler {
      value: 1.7159
    }
  }
}
layer {
  name: "pool1_0"
  type: "Pooling"
  bottom: "conv1_0"
  top: "pool1_0"
  pooling_param {
    pool: MAX
    kernel_size: 2
    stride: 2
  }
}
layer {
  name: "conv1_1"
  type: "Convolution"
  bottom: "pool1_0"
  top: "conv1_1"
  convolution_param {
    num_output: 150
    pad: 0
    kernel_size: 4
    group: 1
    stride: 1
    weight_filler {
      type: "xavier"
    }
  }
}
layer {
  name: "conv1_1_prescale"
  type: "Scale"
  bottom: "conv1_1"
  top: "conv1_1"
  param {
    lr_mult: 0
    decay_mult: 0
  }
  scale_param {
    filler {
      value: 0.6666
    }
  }
}
layer {
  name: "conv1_1_sTanH"
  type: "TanH"
  bottom: "conv1_1"
  top: "conv1_1"
}
layer {
  name: "conv1_1_postscale"
  type: "Scale"
  bottom: "conv1_1"
  top: "conv1_1"
  param {
    lr_mult: 0
    decay_mult: 0
  }
  scale_param {
    filler {
      value: 1.7159
    }
  }
}
layer {
  name: "pool1_1"
  type: "Pooling"
  bottom: "conv1_1"
  top: "pool1_1"
  pooling_param {
    pool: MAX
    kernel_size: 2
    stride: 2
  }
}
layer {
  name: "conv1_2"
  type: "Convolution"
  bottom: "pool1_1"
  top: "conv1_2"
  convolution_param {
    num_output: 250
    pad: 0
    kernel_size: 4
    group: 1
    stride: 1
    weight_filler {
      type: "xavier"
    }
  }
}
layer {
  name: "conv1_2_prescale"
  type: "Scale"
  bottom: "conv1_2"
  top: "conv1_2"
  param {
    lr_mult: 0
    decay_mult: 0
  }
  scale_param {
    filler {
      value: 0.6666
    }
  }
}
layer {
  name: "conv1_2_sTanH"
  type: "TanH"
  bottom: "conv1_2"
  top: "conv1_2"
}
layer {
  name: "conv1_2_postscale"
  type: "Scale"
  bottom: "conv1_2"
  top: "conv1_2"
  param {
    lr_mult: 0
    decay_mult: 0
  }
  scale_param {
    filler {
      value: 1.7159
    }
  }
}
layer {
  name: "pool1_2"
  type: "Pooling"
  bottom: "conv1_2"
  top: "pool1_2"
  pooling_param {
    pool: MAX
    kernel_size: 2
    stride: 2
  }
}
layer {
  name: "fc1_4_300"
  type: "InnerProduct"
  bottom: "pool1_2"
  top: "fc1_4"
  inner_product_param {
    num_output: 300
    weight_filler {
      type: "xavier"
    }
  }
}
layer {
  name: "fc1_4_prescale"
  type: "Scale"
  bottom: "fc1_4"
  top: "fc1_4"
  param {
    lr_mult: 0
    decay_mult: 0
  }
  scale_param {
    filler {
      value: 0.6666
    }
  }
}
layer {
  name: "fc1_4_sTanH"
  type: "TanH"
  bottom: "fc1_4"
  top: "fc1_4"
}
layer {
  name: "fc1_4_postscale"
  type: "Scale"
  bottom: "fc1_4"
  top: "fc1_4"
  param {
    lr_mult: 0
    decay_mult: 0
  }
  scale_param {
    filler {
      value: 1.7159
    }
  }
}
layer {
  name: "drop1_4"
  type: "Dropout"
  bottom: "fc1_4"
  top: "fc1_4"
  dropout_param {
    dropout_ratio: 0.4
  }
}
layer {
  name: "fc1_5_67"
  type: "InnerProduct"
  bottom: "fc1_4"
  top: "fc1_5"
  inner_product_param {
    num_output: 67
    weight_filler {
      type: "xavier"
    }
  }
}
layer {
  name: "softmax_1"
  type: "Softmax"
  bottom: "fc1_5"
  top: "softmax_1"
}
layer {
  name: "conv2_0"
  type: "Convolution"
  bottom: "data_0"
  top: "conv2_0"
  convolution_param {
    num_output: 100
    pad: 0
    kernel_size: 7
    group: 1
    stride: 1
    weight_filler {
      type: "xavier"
    }
  }
}
layer {
  name: "conv2_0_prescale"
  type: "Scale"
  bottom: "conv2_0"
  top: "conv2_0"
  param {
    lr_mult: 0
    decay_mult: 0
  }
  scale_param {
    filler {
      value: 0.6666
    }
  }
}
layer {
  name: "conv2_0_sTanH"
  type: "TanH"
  bottom: "conv2_0"
  top: "conv2_0"
}
layer {
  name: "conv2_0_postscale"
  type: "Scale"
  bottom: "conv2_0"
  top: "conv2_0"
  param {
    lr_mult: 0
    decay_mult: 0
  }
  scale_param {
    filler {
      value: 1.7159
    }
  }
}
layer {
  name: "pool2_0"
  type: "Pooling"
  bottom: "conv2_0"
  top: "pool2_0"
  pooling_param {
    pool: MAX
    kernel_size: 2
    stride: 2
  }
}
layer {
  name: "conv2_1"
  type: "Convolution"
  bottom: "pool2_0"
  top: "conv2_1"
  convolution_param {
    num_output: 150
    pad: 0
    kernel_size: 4
    group: 1
    stride: 1
    weight_filler {
      type: "xavier"
    }
  }
}
layer {
  name: "conv2_1_prescale"
  type: "Scale"
  bottom: "conv2_1"
  top: "conv2_1"
  param {
    lr_mult: 0
    decay_mult: 0
  }
  scale_param {
    filler {
      value: 0.6666
    }
  }
}
layer {
  name: "conv2_1_sTanH"
  type: "TanH"
  bottom: "conv2_1"
  top: "conv2_1"
}
layer {
  name: "conv2_1_postscale"
  type: "Scale"
  bottom: "conv2_1"
  top: "conv2_1"
  param {
    lr_mult: 0
    decay_mult: 0
  }
  scale_param {
    filler {
      value: 1.7159
    }
  }
}
layer {
  name: "pool2_1"
  type: "Pooling"
  bottom: "conv2_1"
  top: "pool2_1"
  pooling_param {
    pool: MAX
    kernel_size: 2
    stride: 2
  }
}
layer {
  name: "conv2_2"
  type: "Convolution"
  bottom: "pool2_1"
  top: "conv2_2"
  convolution_param {
    num_output: 250
    pad: 0
    kernel_size: 4
    group: 1
    stride: 1
    weight_filler {
      type: "xavier"
    }
  }
}
layer {
  name: "conv2_2_prescale"
  type: "Scale"
  bottom: "conv2_2"
  top: "conv2_2"
  param {
    lr_mult: 0
    decay_mult: 0
  }
  scale_param {
    filler {
      value: 0.6666
    }
  }
}
layer {
  name: "conv2_2_sTanH"
  type: "TanH"
  bottom: "conv2_2"
  top: "conv2_2"
}
layer {
  name: "conv2_2_postscale"
  type: "Scale"
  bottom: "conv2_2"
  top: "conv2_2"
  param {
    lr_mult: 0
    decay_mult: 0
  }
  scale_param {
    filler {
      value: 1.7159
    }
  }
}
layer {
  name: "pool2_2"
  type: "Pooling"
  bottom: "conv2_2"
  top: "pool2_2"
  pooling_param {
    pool: MAX
    kernel_size: 2
    stride: 2
  }
}
layer {
  name: "fc2_4_300"
  type: "InnerProduct"
  bottom: "pool2_2"
  top: "fc2_4"
  inner_product_param {
    num_output: 300
    weight_filler {
      type: "xavier"
    }
  }
}
layer {
  name: "fc2_4_prescale"
  type: "Scale"
  bottom: "fc2_4"
  top: "fc2_4"
  param {
    lr_mult: 0
    decay_mult: 0
  }
  scale_param {
    filler {
      value: 0.6666
    }
  }
}
layer {
  name: "fc2_4_sTanH"
  type: "TanH"
  bottom: "fc2_4"
  top: "fc2_4"
}
layer {
  name: "fc2_4_postscale"
  type: "Scale"
  bottom: "fc2_4"
  top: "fc2_4"
  param {
    lr_mult: 0
    decay_mult: 0
  }
  scale_param {
    filler {
      value: 1.7159
    }
  }
}
layer {
  name: "drop2_4"
  type: "Dropout"
  bottom: "fc2_4"
  top: "fc2_4"
  dropout_param {
    dropout_ratio: 0.4
  }
}
layer {
  name: "fc2_5_67"
  type: "InnerProduct"
  bottom: "fc2_4"
  top: "fc2_5"
  inner_product_param {
    num_output: 67
    weight_filler {
      type: "xavier"
    }
  }
}
layer {
  name: "softmax_2"
  type: "Softmax"
  bottom: "fc2_5"
  top: "softmax_2"
}
layer {
  name: "conv3_0"
  type: "Convolution"
  bottom: "data_0"
  top: "conv3_0"
  convolution_param {
    num_output: 100
    pad: 0
    kernel_size: 7
    group: 1
    stride: 1
    weight_filler {
      type: "xavier"
    }
  }
}
layer {
  name: "conv3_0_prescale"
  type: "Scale"
  bottom: "conv3_0"
  top: "conv3_0"
  param {
    lr_mult: 0
    decay_mult: 0
  }
  scale_param {
    filler {
      value: 0.6666
    }
  }
}
layer {
  name: "conv3_0_sTanH"
  type: "TanH"
  bottom: "conv3_0"
  top: "conv3_0"
}
layer {
  name: "conv3_0_postscale"
  type: "Scale"
  bottom: "conv3_0"
  top: "conv3_0"
  param {
    lr_mult: 0
    decay_mult: 0
  }
  scale_param {
    filler {
      value: 1.7159
    }
  }
}
layer {
  name: "pool3_0"
  type: "Pooling"
  bottom: "conv3_0"
  top: "pool3_0"
  pooling_param {
    pool: MAX
    kernel_size: 2
    stride: 2
  }
}
layer {
  name: "conv3_1"
  type: "Convolution"
  bottom: "pool3_0"
  top: "conv3_1"
  convolution_param {
    num_output: 150
    pad: 0
    kernel_size: 4
    group: 1
    stride: 1
    weight_filler {
      type: "xavier"
    }
  }
}
layer {
  name: "conv3_1_prescale"
  type: "Scale"
  bottom: "conv3_1"
  top: "conv3_1"
  param {
    lr_mult: 0
    decay_mult: 0
  }
  scale_param {
    filler {
      value: 0.6666
    }
  }
}
layer {
  name: "conv3_1_sTanH"
  type: "TanH"
  bottom: "conv3_1"
  top: "conv3_1"
}
layer {
  name: "conv3_1_postscale"
  type: "Scale"
  bottom: "conv3_1"
  top: "conv3_1"
  param {
    lr_mult: 0
    decay_mult: 0
  }
  scale_param {
    filler {
      value: 1.7159
    }
  }
}
layer {
  name: "pool3_1"
  type: "Pooling"
  bottom: "conv3_1"
  top: "pool3_1"
  pooling_param {
    pool: MAX
    kernel_size: 2
    stride: 2
  }
}
layer {
  name: "conv3_2"
  type: "Convolution"
  bottom: "pool3_1"
  top: "conv3_2"
  convolution_param {
    num_output: 250
    pad: 0
    kernel_size: 4
    group: 1
    stride: 1
    weight_filler {
      type: "xavier"
    }
  }
}
layer {
  name: "conv3_2_prescale"
  type: "Scale"
  bottom: "conv3_2"
  top: "conv3_2"
  param {
    lr_mult: 0
    decay_mult: 0
  }
  scale_param {
    filler {
      value: 0.6666
    }
  }
}
layer {
  name: "conv3_2_sTanH"
  type: "TanH"
  bottom: "conv3_2"
  top: "conv3_2"
}
layer {
  name: "conv3_2_postscale"
  type: "Scale"
  bottom: "conv3_2"
  top: "conv3_2"
  param {
    lr_mult: 0
    decay_mult: 0
  }
  scale_param {
    filler {
      value: 1.7159
    }
  }
}
layer {
  name: "pool3_2"
  type: "Pooling"
  bottom: "conv3_2"
  top: "pool3_2"
  pooling_param {
    pool: MAX
    kernel_size: 2
    stride: 2
  }
}
layer {
  name: "fc3_4_300"
  type: "InnerProduct"
  bottom: "pool3_2"
  top: "fc3_4"
  inner_product_param {
    num_output: 300
    weight_filler {
      type: "xavier"
    }
  }
}
layer {
  name: "fc3_4_prescale"
  type: "Scale"
  bottom: "fc3_4"
  top: "fc3_4"
  param {
    lr_mult: 0
    decay_mult: 0
  }
  scale_param {
    filler {
      value: 0.6666
    }
  }
}
layer {
  name: "fc3_4_sTanH"
  type: "TanH"
  bottom: "fc3_4"
  top: "fc3_4"
}
layer {
  name: "fc3_4_postscale"
  type: "Scale"
  bottom: "fc3_4"
  top: "fc3_4"
  param {
    lr_mult: 0
    decay_mult: 0
  }
  scale_param {
    filler {
      value: 1.7159
    }
  }
}
layer {
  name: "drop3_4"
  type: "Dropout"
  bottom: "fc3_4"
  top: "fc3_4"
  dropout_param {
    dropout_ratio: 0.4
  }
}
layer {
  name: "fc3_5_67"
  type: "InnerProduct"
  bottom: "fc3_4"
  top: "fc3_5"
  inner_product_param {
    num_output: 67
    weight_filler {
      type: "xavier"
    }
  }
}
layer {
  name: "softmax_3"
  type: "Softmax"
  bottom: "fc3_5"
  top: "softmax_3"
}
layer {
  name: "conv4_0"
  type: "Convolution"
  bottom: "data_0"
  top: "conv4_0"
  convolution_param {
    num_output: 100
    pad: 0
    kernel_size: 7
    group: 1
    stride: 1
    weight_filler {
      type: "xavier"
    }
  }
}
layer {
  name: "conv4_0_prescale"
  type: "Scale"
  bottom: "conv4_0"
  top: "conv4_0"
  param {
    lr_mult: 0
    decay_mult: 0
  }
  scale_param {
    filler {
      value: 0.6666
    }
  }
}
layer {
  name: "conv4_0_sTanH"
  type: "TanH"
  bottom: "conv4_0"
  top: "conv4_0"
}
layer {
  name: "conv4_0_postscale"
  type: "Scale"
  bottom: "conv4_0"
  top: "conv4_0"
  param {
    lr_mult: 0
    decay_mult: 0
  }
  scale_param {
    filler {
      value: 1.7159
    }
  }
}
layer {
  name: "pool4_0"
  type: "Pooling"
  bottom: "conv4_0"
  top: "pool4_0"
  pooling_param {
    pool: MAX
    kernel_size: 2
    stride: 2
  }
}
layer {
  name: "conv4_1"
  type: "Convolution"
  bottom: "pool4_0"
  top: "conv4_1"
  convolution_param {
    num_output: 150
    pad: 0
    kernel_size: 4
    group: 1
    stride: 1
    weight_filler {
      type: "xavier"
    }
  }
}
layer {
  name: "conv4_1_prescale"
  type: "Scale"
  bottom: "conv4_1"
  top: "conv4_1"
  param {
    lr_mult: 0
    decay_mult: 0
  }
  scale_param {
    filler {
      value: 0.6666
    }
  }
}
layer {
  name: "conv4_1_sTanH"
  type: "TanH"
  bottom: "conv4_1"
  top: "conv4_1"
}
layer {
  name: "conv4_1_postscale"
  type: "Scale"
  bottom: "conv4_1"
  top: "conv4_1"
  param {
    lr_mult: 0
    decay_mult: 0
  }
  scale_param {
    filler {
      value: 1.7159
    }
  }
}
layer {
  name: "pool4_1"
  type: "Pooling"
  bottom: "conv4_1"
  top: "pool4_1"
  pooling_param {
    pool: MAX
    kernel_size: 2
    stride: 2
  }
}
layer {
  name: "conv4_2"
  type: "Convolution"
  bottom: "pool4_1"
  top: "conv4_2"
  convolution_param {
    num_output: 250
    pad: 0
    kernel_size: 4
    group: 1
    stride: 1
    weight_filler {
      type: "xavier"
    }
  }
}
layer {
  name: "conv4_2_prescale"
  type: "Scale"
  bottom: "conv4_2"
  top: "conv4_2"
  param {
    lr_mult: 0
    decay_mult: 0
  }
  scale_param {
    filler {
      value: 0.6666
    }
  }
}
layer {
  name: "conv4_2_sTanH"
  type: "TanH"
  bottom: "conv4_2"
  top: "conv4_2"
}
layer {
  name: "conv4_2_postscale"
  type: "Scale"
  bottom: "conv4_2"
  top: "conv4_2"
  param {
    lr_mult: 0
    decay_mult: 0
  }
  scale_param {
    filler {
      value: 1.7159
    }
  }
}
layer {
  name: "pool4_2"
  type: "Pooling"
  bottom: "conv4_2"
  top: "pool4_2"
  pooling_param {
    pool: MAX
    kernel_size: 2
    stride: 2
  }
}
layer {
  name: "fc4_4_300"
  type: "InnerProduct"
  bottom: "pool4_2"
  top: "fc4_4"
  inner_product_param {
    num_output: 300
    weight_filler {
      type: "xavier"
    }
  }
}
layer {
  name: "fc4_4_prescale"
  type: "Scale"
  bottom: "fc4_4"
  top: "fc4_4"
  param {
    lr_mult: 0
    decay_mult: 0
  }
  scale_param {
    filler {
      value: 0.6666
    }
  }
}
layer {
  name: "fc4_4_sTanH"
  type: "TanH"
  bottom: "fc4_4"
  top: "fc4_4"
}
layer {
  name: "fc4_4_postscale"
  type: "Scale"
  bottom: "fc4_4"
  top: "fc4_4"
  param {
    lr_mult: 0
    decay_mult: 0
  }
  scale_param {
    filler {
      value: 1.7159
    }
  }
}
layer {
  name: "drop4_4"
  type: "Dropout"
  bottom: "fc4_4"
  top: "fc4_4"
  dropout_param {
    dropout_ratio: 0.4
  }
}
layer {
  name: "fc4_5_67"
  type: "InnerProduct"
  bottom: "fc4_4"
  top: "fc4_5"
  inner_product_param {
    num_output: 67
    weight_filler {
      type: "xavier"
    }
  }
}
layer {
  name: "softmax_4"
  type: "Softmax"
  bottom: "fc4_5"
  top: "softmax_4"
}
layer {
  name: "data_1"
  type: "Data"
  top: "data_1"
  top: "label_1"
  include {
    phase: TRAIN
  }
  transform_param {
    mirror: false
    crop_size: 48
    mean_value: 122
    mean_value: 115
    mean_value: 128
  }
  data_param {
    source: "../local_data/lmdb/rtsd-r1/histeq/train/lmdb"
    batch_size: 64
    backend: LMDB
  }
}
layer {
  name: "conv5_0"
  type: "Convolution"
  bottom: "data_1"
  top: "conv5_0"
  convolution_param {
    num_output: 100
    pad: 0
    kernel_size: 7
    group: 1
    stride: 1
    weight_filler {
      type: "xavier"
    }
  }
}
layer {
  name: "conv5_0_prescale"
  type: "Scale"
  bottom: "conv5_0"
  top: "conv5_0"
  param {
    lr_mult: 0
    decay_mult: 0
  }
  scale_param {
    filler {
      value: 0.6666
    }
  }
}
layer {
  name: "conv5_0_sTanH"
  type: "TanH"
  bottom: "conv5_0"
  top: "conv5_0"
}
layer {
  name: "conv5_0_postscale"
  type: "Scale"
  bottom: "conv5_0"
  top: "conv5_0"
  param {
    lr_mult: 0
    decay_mult: 0
  }
  scale_param {
    filler {
      value: 1.7159
    }
  }
}
layer {
  name: "pool5_0"
  type: "Pooling"
  bottom: "conv5_0"
  top: "pool5_0"
  pooling_param {
    pool: MAX
    kernel_size: 2
    stride: 2
  }
}
layer {
  name: "conv5_1"
  type: "Convolution"
  bottom: "pool5_0"
  top: "conv5_1"
  convolution_param {
    num_output: 150
    pad: 0
    kernel_size: 4
    group: 1
    stride: 1
    weight_filler {
      type: "xavier"
    }
  }
}
layer {
  name: "conv5_1_prescale"
  type: "Scale"
  bottom: "conv5_1"
  top: "conv5_1"
  param {
    lr_mult: 0
    decay_mult: 0
  }
  scale_param {
    filler {
      value: 0.6666
    }
  }
}
layer {
  name: "conv5_1_sTanH"
  type: "TanH"
  bottom: "conv5_1"
  top: "conv5_1"
}
layer {
  name: "conv5_1_postscale"
  type: "Scale"
  bottom: "conv5_1"
  top: "conv5_1"
  param {
    lr_mult: 0
    decay_mult: 0
  }
  scale_param {
    filler {
      value: 1.7159
    }
  }
}
layer {
  name: "pool5_1"
  type: "Pooling"
  bottom: "conv5_1"
  top: "pool5_1"
  pooling_param {
    pool: MAX
    kernel_size: 2
    stride: 2
  }
}
layer {
  name: "conv5_2"
  type: "Convolution"
  bottom: "pool5_1"
  top: "conv5_2"
  convolution_param {
    num_output: 250
    pad: 0
    kernel_size: 4
    group: 1
    stride: 1
    weight_filler {
      type: "xavier"
    }
  }
}
layer {
  name: "conv5_2_prescale"
  type: "Scale"
  bottom: "conv5_2"
  top: "conv5_2"
  param {
    lr_mult: 0
    decay_mult: 0
  }
  scale_param {
    filler {
      value: 0.6666
    }
  }
}
layer {
  name: "conv5_2_sTanH"
  type: "TanH"
  bottom: "conv5_2"
  top: "conv5_2"
}
layer {
  name: "conv5_2_postscale"
  type: "Scale"
  bottom: "conv5_2"
  top: "conv5_2"
  param {
    lr_mult: 0
    decay_mult: 0
  }
  scale_param {
    filler {
      value: 1.7159
    }
  }
}
layer {
  name: "pool5_2"
  type: "Pooling"
  bottom: "conv5_2"
  top: "pool5_2"
  pooling_param {
    pool: MAX
    kernel_size: 2
    stride: 2
  }
}
layer {
  name: "fc5_4_300"
  type: "InnerProduct"
  bottom: "pool5_2"
  top: "fc5_4"
  inner_product_param {
    num_output: 300
    weight_filler {
      type: "xavier"
    }
  }
}
layer {
  name: "fc5_4_prescale"
  type: "Scale"
  bottom: "fc5_4"
  top: "fc5_4"
  param {
    lr_mult: 0
    decay_mult: 0
  }
  scale_param {
    filler {
      value: 0.6666
    }
  }
}
layer {
  name: "fc5_4_sTanH"
  type: "TanH"
  bottom: "fc5_4"
  top: "fc5_4"
}
layer {
  name: "fc5_4_postscale"
  type: "Scale"
  bottom: "fc5_4"
  top: "fc5_4"
  param {
    lr_mult: 0
    decay_mult: 0
  }
  scale_param {
    filler {
      value: 1.7159
    }
  }
}
layer {
  name: "drop5_4"
  type: "Dropout"
  bottom: "fc5_4"
  top: "fc5_4"
  dropout_param {
    dropout_ratio: 0.4
  }
}
layer {
  name: "fc5_5_67"
  type: "InnerProduct"
  bottom: "fc5_4"
  top: "fc5_5"
  inner_product_param {
    num_output: 67
    weight_filler {
      type: "xavier"
    }
  }
}
layer {
  name: "softmax_5"
  type: "Softmax"
  bottom: "fc5_5"
  top: "softmax_5"
}
layer {
  name: "conv6_0"
  type: "Convolution"
  bottom: "data_1"
  top: "conv6_0"
  convolution_param {
    num_output: 100
    pad: 0
    kernel_size: 7
    group: 1
    stride: 1
    weight_filler {
      type: "xavier"
    }
  }
}
layer {
  name: "conv6_0_prescale"
  type: "Scale"
  bottom: "conv6_0"
  top: "conv6_0"
  param {
    lr_mult: 0
    decay_mult: 0
  }
  scale_param {
    filler {
      value: 0.6666
    }
  }
}
layer {
  name: "conv6_0_sTanH"
  type: "TanH"
  bottom: "conv6_0"
  top: "conv6_0"
}
layer {
  name: "conv6_0_postscale"
  type: "Scale"
  bottom: "conv6_0"
  top: "conv6_0"
  param {
    lr_mult: 0
    decay_mult: 0
  }
  scale_param {
    filler {
      value: 1.7159
    }
  }
}
layer {
  name: "pool6_0"
  type: "Pooling"
  bottom: "conv6_0"
  top: "pool6_0"
  pooling_param {
    pool: MAX
    kernel_size: 2
    stride: 2
  }
}
layer {
  name: "conv6_1"
  type: "Convolution"
  bottom: "pool6_0"
  top: "conv6_1"
  convolution_param {
    num_output: 150
    pad: 0
    kernel_size: 4
    group: 1
    stride: 1
    weight_filler {
      type: "xavier"
    }
  }
}
layer {
  name: "conv6_1_prescale"
  type: "Scale"
  bottom: "conv6_1"
  top: "conv6_1"
  param {
    lr_mult: 0
    decay_mult: 0
  }
  scale_param {
    filler {
      value: 0.6666
    }
  }
}
layer {
  name: "conv6_1_sTanH"
  type: "TanH"
  bottom: "conv6_1"
  top: "conv6_1"
}
layer {
  name: "conv6_1_postscale"
  type: "Scale"
  bottom: "conv6_1"
  top: "conv6_1"
  param {
    lr_mult: 0
    decay_mult: 0
  }
  scale_param {
    filler {
      value: 1.7159
    }
  }
}
layer {
  name: "pool6_1"
  type: "Pooling"
  bottom: "conv6_1"
  top: "pool6_1"
  pooling_param {
    pool: MAX
    kernel_size: 2
    stride: 2
  }
}
layer {
  name: "conv6_2"
  type: "Convolution"
  bottom: "pool6_1"
  top: "conv6_2"
  convolution_param {
    num_output: 250
    pad: 0
    kernel_size: 4
    group: 1
    stride: 1
    weight_filler {
      type: "xavier"
    }
  }
}
layer {
  name: "conv6_2_prescale"
  type: "Scale"
  bottom: "conv6_2"
  top: "conv6_2"
  param {
    lr_mult: 0
    decay_mult: 0
  }
  scale_param {
    filler {
      value: 0.6666
    }
  }
}
layer {
  name: "conv6_2_sTanH"
  type: "TanH"
  bottom: "conv6_2"
  top: "conv6_2"
}
layer {
  name: "conv6_2_postscale"
  type: "Scale"
  bottom: "conv6_2"
  top: "conv6_2"
  param {
    lr_mult: 0
    decay_mult: 0
  }
  scale_param {
    filler {
      value: 1.7159
    }
  }
}
layer {
  name: "pool6_2"
  type: "Pooling"
  bottom: "conv6_2"
  top: "pool6_2"
  pooling_param {
    pool: MAX
    kernel_size: 2
    stride: 2
  }
}
layer {
  name: "fc6_4_300"
  type: "InnerProduct"
  bottom: "pool6_2"
  top: "fc6_4"
  inner_product_param {
    num_output: 300
    weight_filler {
      type: "xavier"
    }
  }
}
layer {
  name: "fc6_4_prescale"
  type: "Scale"
  bottom: "fc6_4"
  top: "fc6_4"
  param {
    lr_mult: 0
    decay_mult: 0
  }
  scale_param {
    filler {
      value: 0.6666
    }
  }
}
layer {
  name: "fc6_4_sTanH"
  type: "TanH"
  bottom: "fc6_4"
  top: "fc6_4"
}
layer {
  name: "fc6_4_postscale"
  type: "Scale"
  bottom: "fc6_4"
  top: "fc6_4"
  param {
    lr_mult: 0
    decay_mult: 0
  }
  scale_param {
    filler {
      value: 1.7159
    }
  }
}
layer {
  name: "drop6_4"
  type: "Dropout"
  bottom: "fc6_4"
  top: "fc6_4"
  dropout_param {
    dropout_ratio: 0.4
  }
}
layer {
  name: "fc6_5_67"
  type: "InnerProduct"
  bottom: "fc6_4"
  top: "fc6_5"
  inner_product_param {
    num_output: 67
    weight_filler {
      type: "xavier"
    }
  }
}
layer {
  name: "softmax_6"
  type: "Softmax"
  bottom: "fc6_5"
  top: "softmax_6"
}
layer {
  name: "conv7_0"
  type: "Convolution"
  bottom: "data_1"
  top: "conv7_0"
  convolution_param {
    num_output: 100
    pad: 0
    kernel_size: 7
    group: 1
    stride: 1
    weight_filler {
      type: "xavier"
    }
  }
}
layer {
  name: "conv7_0_prescale"
  type: "Scale"
  bottom: "conv7_0"
  top: "conv7_0"
  param {
    lr_mult: 0
    decay_mult: 0
  }
  scale_param {
    filler {
      value: 0.6666
    }
  }
}
layer {
  name: "conv7_0_sTanH"
  type: "TanH"
  bottom: "conv7_0"
  top: "conv7_0"
}
layer {
  name: "conv7_0_postscale"
  type: "Scale"
  bottom: "conv7_0"
  top: "conv7_0"
  param {
    lr_mult: 0
    decay_mult: 0
  }
  scale_param {
    filler {
      value: 1.7159
    }
  }
}
layer {
  name: "pool7_0"
  type: "Pooling"
  bottom: "conv7_0"
  top: "pool7_0"
  pooling_param {
    pool: MAX
    kernel_size: 2
    stride: 2
  }
}
layer {
  name: "conv7_1"
  type: "Convolution"
  bottom: "pool7_0"
  top: "conv7_1"
  convolution_param {
    num_output: 150
    pad: 0
    kernel_size: 4
    group: 1
    stride: 1
    weight_filler {
      type: "xavier"
    }
  }
}
layer {
  name: "conv7_1_prescale"
  type: "Scale"
  bottom: "conv7_1"
  top: "conv7_1"
  param {
    lr_mult: 0
    decay_mult: 0
  }
  scale_param {
    filler {
      value: 0.6666
    }
  }
}
layer {
  name: "conv7_1_sTanH"
  type: "TanH"
  bottom: "conv7_1"
  top: "conv7_1"
}
layer {
  name: "conv7_1_postscale"
  type: "Scale"
  bottom: "conv7_1"
  top: "conv7_1"
  param {
    lr_mult: 0
    decay_mult: 0
  }
  scale_param {
    filler {
      value: 1.7159
    }
  }
}
layer {
  name: "pool7_1"
  type: "Pooling"
  bottom: "conv7_1"
  top: "pool7_1"
  pooling_param {
    pool: MAX
    kernel_size: 2
    stride: 2
  }
}
layer {
  name: "conv7_2"
  type: "Convolution"
  bottom: "pool7_1"
  top: "conv7_2"
  convolution_param {
    num_output: 250
    pad: 0
    kernel_size: 4
    group: 1
    stride: 1
    weight_filler {
      type: "xavier"
    }
  }
}
layer {
  name: "conv7_2_prescale"
  type: "Scale"
  bottom: "conv7_2"
  top: "conv7_2"
  param {
    lr_mult: 0
    decay_mult: 0
  }
  scale_param {
    filler {
      value: 0.6666
    }
  }
}
layer {
  name: "conv7_2_sTanH"
  type: "TanH"
  bottom: "conv7_2"
  top: "conv7_2"
}
layer {
  name: "conv7_2_postscale"
  type: "Scale"
  bottom: "conv7_2"
  top: "conv7_2"
  param {
    lr_mult: 0
    decay_mult: 0
  }
  scale_param {
    filler {
      value: 1.7159
    }
  }
}
layer {
  name: "pool7_2"
  type: "Pooling"
  bottom: "conv7_2"
  top: "pool7_2"
  pooling_param {
    pool: MAX
    kernel_size: 2
    stride: 2
  }
}
layer {
  name: "fc7_4_300"
  type: "InnerProduct"
  bottom: "pool7_2"
  top: "fc7_4"
  inner_product_param {
    num_output: 300
    weight_filler {
      type: "xavier"
    }
  }
}
layer {
  name: "fc7_4_prescale"
  type: "Scale"
  bottom: "fc7_4"
  top: "fc7_4"
  param {
    lr_mult: 0
    decay_mult: 0
  }
  scale_param {
    filler {
      value: 0.6666
    }
  }
}
layer {
  name: "fc7_4_sTanH"
  type: "TanH"
  bottom: "fc7_4"
  top: "fc7_4"
}
layer {
  name: "fc7_4_postscale"
  type: "Scale"
  bottom: "fc7_4"
  top: "fc7_4"
  param {
    lr_mult: 0
    decay_mult: 0
  }
  scale_param {
    filler {
      value: 1.7159
    }
  }
}
layer {
  name: "drop7_4"
  type: "Dropout"
  bottom: "fc7_4"
  top: "fc7_4"
  dropout_param {
    dropout_ratio: 0.4
  }
}
layer {
  name: "fc7_5_67"
  type: "InnerProduct"
  bottom: "fc7_4"
  top: "fc7_5"
  inner_product_param {
    num_output: 67
    weight_filler {
      type: "xavier"
    }
  }
}
layer {
  name: "softmax_7"
  type: "Softmax"
  bottom: "fc7_5"
  top: "softmax_7"
}
layer {
  name: "conv8_0"
  type: "Convolution"
  bottom: "data_1"
  top: "conv8_0"
  convolution_param {
    n
I0407 23:09:29.962486 21708 layer_factory.hpp:77] Creating layer data_0
I0407 23:09:29.962965 21708 net.cpp:100] Creating Layer data_0
I0407 23:09:29.962977 21708 net.cpp:408] data_0 -> data_0
I0407 23:09:29.962999 21708 net.cpp:408] data_0 -> label_0
I0407 23:09:29.964679 21767 db_lmdb.cpp:35] Opened lmdb ../local_data/lmdb/rtsd-r1/orig/train/lmdb
I0407 23:09:29.980501 21708 data_layer.cpp:41] output data size: 64,3,48,48
I0407 23:09:29.986081 21708 net.cpp:150] Setting up data_0
I0407 23:09:29.986099 21708 net.cpp:157] Top shape: 64 3 48 48 (442368)
I0407 23:09:29.986105 21708 net.cpp:157] Top shape: 64 (64)
I0407 23:09:29.986109 21708 net.cpp:165] Memory required for data: 1769728
I0407 23:09:29.986115 21708 layer_factory.hpp:77] Creating layer data_0_data_0_0_split
I0407 23:09:29.986126 21708 net.cpp:100] Creating Layer data_0_data_0_0_split
I0407 23:09:29.986131 21708 net.cpp:434] data_0_data_0_0_split <- data_0
I0407 23:09:29.986142 21708 net.cpp:408] data_0_data_0_0_split -> data_0_data_0_0_split_0
I0407 23:09:29.986155 21708 net.cpp:408] data_0_data_0_0_split -> data_0_data_0_0_split_1
I0407 23:09:29.986162 21708 net.cpp:408] data_0_data_0_0_split -> data_0_data_0_0_split_2
I0407 23:09:29.986169 21708 net.cpp:408] data_0_data_0_0_split -> data_0_data_0_0_split_3
I0407 23:09:29.986177 21708 net.cpp:408] data_0_data_0_0_split -> data_0_data_0_0_split_4
I0407 23:09:29.986294 21708 net.cpp:150] Setting up data_0_data_0_0_split
I0407 23:09:29.986304 21708 net.cpp:157] Top shape: 64 3 48 48 (442368)
I0407 23:09:29.986307 21708 net.cpp:157] Top shape: 64 3 48 48 (442368)
I0407 23:09:29.986312 21708 net.cpp:157] Top shape: 64 3 48 48 (442368)
I0407 23:09:29.986316 21708 net.cpp:157] Top shape: 64 3 48 48 (442368)
I0407 23:09:29.986335 21708 net.cpp:157] Top shape: 64 3 48 48 (442368)
I0407 23:09:29.986337 21708 net.cpp:165] Memory required for data: 10617088
I0407 23:09:29.986341 21708 layer_factory.hpp:77] Creating layer conv0_0
I0407 23:09:29.986356 21708 net.cpp:100] Creating Layer conv0_0
I0407 23:09:29.986363 21708 net.cpp:434] conv0_0 <- data_0_data_0_0_split_0
I0407 23:09:29.986371 21708 net.cpp:408] conv0_0 -> conv0_0
I0407 23:09:29.988126 21768 blocking_queue.cpp:50] Waiting for data
I0407 23:09:30.314823 21708 net.cpp:150] Setting up conv0_0
I0407 23:09:30.314851 21708 net.cpp:157] Top shape: 64 100 42 42 (11289600)
I0407 23:09:30.314855 21708 net.cpp:165] Memory required for data: 55775488
I0407 23:09:30.314877 21708 layer_factory.hpp:77] Creating layer conv0_0_prescale
I0407 23:09:30.314890 21708 net.cpp:100] Creating Layer conv0_0_prescale
I0407 23:09:30.314895 21708 net.cpp:434] conv0_0_prescale <- conv0_0
I0407 23:09:30.314909 21708 net.cpp:395] conv0_0_prescale -> conv0_0 (in-place)
I0407 23:09:30.315009 21708 net.cpp:150] Setting up conv0_0_prescale
I0407 23:09:30.315019 21708 net.cpp:157] Top shape: 64 100 42 42 (11289600)
I0407 23:09:30.315022 21708 net.cpp:165] Memory required for data: 100933888
I0407 23:09:30.315029 21708 layer_factory.hpp:77] Creating layer conv0_0_sTanH
I0407 23:09:30.315037 21708 net.cpp:100] Creating Layer conv0_0_sTanH
I0407 23:09:30.315039 21708 net.cpp:434] conv0_0_sTanH <- conv0_0
I0407 23:09:30.315044 21708 net.cpp:395] conv0_0_sTanH -> conv0_0 (in-place)
I0407 23:09:30.315222 21708 net.cpp:150] Setting up conv0_0_sTanH
I0407 23:09:30.315232 21708 net.cpp:157] Top shape: 64 100 42 42 (11289600)
I0407 23:09:30.315234 21708 net.cpp:165] Memory required for data: 146092288
I0407 23:09:30.315237 21708 layer_factory.hpp:77] Creating layer conv0_0_postscale
I0407 23:09:30.315244 21708 net.cpp:100] Creating Layer conv0_0_postscale
I0407 23:09:30.315248 21708 net.cpp:434] conv0_0_postscale <- conv0_0
I0407 23:09:30.315253 21708 net.cpp:395] conv0_0_postscale -> conv0_0 (in-place)
I0407 23:09:30.315340 21708 net.cpp:150] Setting up conv0_0_postscale
I0407 23:09:30.315346 21708 net.cpp:157] Top shape: 64 100 42 42 (11289600)
I0407 23:09:30.315347 21708 net.cpp:165] Memory required for data: 191250688
I0407 23:09:30.315352 21708 layer_factory.hpp:77] Creating layer pool0_0
I0407 23:09:30.315358 21708 net.cpp:100] Creating Layer pool0_0
I0407 23:09:30.315361 21708 net.cpp:434] pool0_0 <- conv0_0
I0407 23:09:30.315366 21708 net.cpp:408] pool0_0 -> pool0_0
I0407 23:09:30.315412 21708 net.cpp:150] Setting up pool0_0
I0407 23:09:30.315418 21708 net.cpp:157] Top shape: 64 100 21 21 (2822400)
I0407 23:09:30.315421 21708 net.cpp:165] Memory required for data: 202540288
I0407 23:09:30.315424 21708 layer_factory.hpp:77] Creating layer conv0_1
I0407 23:09:30.315433 21708 net.cpp:100] Creating Layer conv0_1
I0407 23:09:30.315436 21708 net.cpp:434] conv0_1 <- pool0_0
I0407 23:09:30.315440 21708 net.cpp:408] conv0_1 -> conv0_1
I0407 23:09:30.320756 21708 net.cpp:150] Setting up conv0_1
I0407 23:09:30.320773 21708 net.cpp:157] Top shape: 64 150 18 18 (3110400)
I0407 23:09:30.320776 21708 net.cpp:165] Memory required for data: 214981888
I0407 23:09:30.320786 21708 layer_factory.hpp:77] Creating layer conv0_1_prescale
I0407 23:09:30.320796 21708 net.cpp:100] Creating Layer conv0_1_prescale
I0407 23:09:30.320801 21708 net.cpp:434] conv0_1_prescale <- conv0_1
I0407 23:09:30.320806 21708 net.cpp:395] conv0_1_prescale -> conv0_1 (in-place)
I0407 23:09:30.320904 21708 net.cpp:150] Setting up conv0_1_prescale
I0407 23:09:30.320914 21708 net.cpp:157] Top shape: 64 150 18 18 (3110400)
I0407 23:09:30.320917 21708 net.cpp:165] Memory required for data: 227423488
I0407 23:09:30.320922 21708 layer_factory.hpp:77] Creating layer conv0_1_sTanH
I0407 23:09:30.320927 21708 net.cpp:100] Creating Layer conv0_1_sTanH
I0407 23:09:30.320930 21708 net.cpp:434] conv0_1_sTanH <- conv0_1
I0407 23:09:30.320935 21708 net.cpp:395] conv0_1_sTanH -> conv0_1 (in-place)
I0407 23:09:30.321707 21708 net.cpp:150] Setting up conv0_1_sTanH
I0407 23:09:30.321738 21708 net.cpp:157] Top shape: 64 150 18 18 (3110400)
I0407 23:09:30.321741 21708 net.cpp:165] Memory required for data: 239865088
I0407 23:09:30.321745 21708 layer_factory.hpp:77] Creating layer conv0_1_postscale
I0407 23:09:30.321753 21708 net.cpp:100] Creating Layer conv0_1_postscale
I0407 23:09:30.321755 21708 net.cpp:434] conv0_1_postscale <- conv0_1
I0407 23:09:30.321761 21708 net.cpp:395] conv0_1_postscale -> conv0_1 (in-place)
I0407 23:09:30.321868 21708 net.cpp:150] Setting up conv0_1_postscale
I0407 23:09:30.321877 21708 net.cpp:157] Top shape: 64 150 18 18 (3110400)
I0407 23:09:30.321880 21708 net.cpp:165] Memory required for data: 252306688
I0407 23:09:30.321885 21708 layer_factory.hpp:77] Creating layer pool0_1
I0407 23:09:30.321892 21708 net.cpp:100] Creating Layer pool0_1
I0407 23:09:30.321895 21708 net.cpp:434] pool0_1 <- conv0_1
I0407 23:09:30.321900 21708 net.cpp:408] pool0_1 -> pool0_1
I0407 23:09:30.321938 21708 net.cpp:150] Setting up pool0_1
I0407 23:09:30.321945 21708 net.cpp:157] Top shape: 64 150 9 9 (777600)
I0407 23:09:30.321948 21708 net.cpp:165] Memory required for data: 255417088
I0407 23:09:30.321951 21708 layer_factory.hpp:77] Creating layer conv0_2
I0407 23:09:30.321959 21708 net.cpp:100] Creating Layer conv0_2
I0407 23:09:30.321962 21708 net.cpp:434] conv0_2 <- pool0_1
I0407 23:09:30.321967 21708 net.cpp:408] conv0_2 -> conv0_2
I0407 23:09:30.327376 21708 net.cpp:150] Setting up conv0_2
I0407 23:09:30.327392 21708 net.cpp:157] Top shape: 64 250 6 6 (576000)
I0407 23:09:30.327396 21708 net.cpp:165] Memory required for data: 257721088
I0407 23:09:30.327406 21708 layer_factory.hpp:77] Creating layer conv0_2_prescale
I0407 23:09:30.327414 21708 net.cpp:100] Creating Layer conv0_2_prescale
I0407 23:09:30.327417 21708 net.cpp:434] conv0_2_prescale <- conv0_2
I0407 23:09:30.327424 21708 net.cpp:395] conv0_2_prescale -> conv0_2 (in-place)
I0407 23:09:30.327531 21708 net.cpp:150] Setting up conv0_2_prescale
I0407 23:09:30.327543 21708 net.cpp:157] Top shape: 64 250 6 6 (576000)
I0407 23:09:30.327545 21708 net.cpp:165] Memory required for data: 260025088
I0407 23:09:30.327550 21708 layer_factory.hpp:77] Creating layer conv0_2_sTanH
I0407 23:09:30.327555 21708 net.cpp:100] Creating Layer conv0_2_sTanH
I0407 23:09:30.327558 21708 net.cpp:434] conv0_2_sTanH <- conv0_2
I0407 23:09:30.327564 21708 net.cpp:395] conv0_2_sTanH -> conv0_2 (in-place)
I0407 23:09:30.328361 21708 net.cpp:150] Setting up conv0_2_sTanH
I0407 23:09:30.328378 21708 net.cpp:157] Top shape: 64 250 6 6 (576000)
I0407 23:09:30.328382 21708 net.cpp:165] Memory required for data: 262329088
I0407 23:09:30.328385 21708 layer_factory.hpp:77] Creating layer conv0_2_postscale
I0407 23:09:30.328393 21708 net.cpp:100] Creating Layer conv0_2_postscale
I0407 23:09:30.328397 21708 net.cpp:434] conv0_2_postscale <- conv0_2
I0407 23:09:30.328402 21708 net.cpp:395] conv0_2_postscale -> conv0_2 (in-place)
I0407 23:09:30.328505 21708 net.cpp:150] Setting up conv0_2_postscale
I0407 23:09:30.328514 21708 net.cpp:157] Top shape: 64 250 6 6 (576000)
I0407 23:09:30.328517 21708 net.cpp:165] Memory required for data: 264633088
I0407 23:09:30.328522 21708 layer_factory.hpp:77] Creating layer pool0_2
I0407 23:09:30.328532 21708 net.cpp:100] Creating Layer pool0_2
I0407 23:09:30.328536 21708 net.cpp:434] pool0_2 <- conv0_2
I0407 23:09:30.328541 21708 net.cpp:408] pool0_2 -> pool0_2
I0407 23:09:30.328582 21708 net.cpp:150] Setting up pool0_2
I0407 23:09:30.328589 21708 net.cpp:157] Top shape: 64 250 3 3 (144000)
I0407 23:09:30.328593 21708 net.cpp:165] Memory required for data: 265209088
I0407 23:09:30.328595 21708 layer_factory.hpp:77] Creating layer fc0_4_300
I0407 23:09:30.328604 21708 net.cpp:100] Creating Layer fc0_4_300
I0407 23:09:30.328608 21708 net.cpp:434] fc0_4_300 <- pool0_2
I0407 23:09:30.328613 21708 net.cpp:408] fc0_4_300 -> fc0_4
I0407 23:09:30.333869 21708 net.cpp:150] Setting up fc0_4_300
I0407 23:09:30.333885 21708 net.cpp:157] Top shape: 64 300 (19200)
I0407 23:09:30.333889 21708 net.cpp:165] Memory required for data: 265285888
I0407 23:09:30.333909 21708 layer_factory.hpp:77] Creating layer fc0_4_prescale
I0407 23:09:30.333917 21708 net.cpp:100] Creating Layer fc0_4_prescale
I0407 23:09:30.333921 21708 net.cpp:434] fc0_4_prescale <- fc0_4
I0407 23:09:30.333927 21708 net.cpp:395] fc0_4_prescale -> fc0_4 (in-place)
I0407 23:09:30.334019 21708 net.cpp:150] Setting up fc0_4_prescale
I0407 23:09:30.334028 21708 net.cpp:157] Top shape: 64 300 (19200)
I0407 23:09:30.334030 21708 net.cpp:165] Memory required for data: 265362688
I0407 23:09:30.334035 21708 layer_factory.hpp:77] Creating layer fc0_4_sTanH
I0407 23:09:30.334041 21708 net.cpp:100] Creating Layer fc0_4_sTanH
I0407 23:09:30.334044 21708 net.cpp:434] fc0_4_sTanH <- fc0_4
I0407 23:09:30.334049 21708 net.cpp:395] fc0_4_sTanH -> fc0_4 (in-place)
I0407 23:09:30.334239 21708 net.cpp:150] Setting up fc0_4_sTanH
I0407 23:09:30.334250 21708 net.cpp:157] Top shape: 64 300 (19200)
I0407 23:09:30.334254 21708 net.cpp:165] Memory required for data: 265439488
I0407 23:09:30.334256 21708 layer_factory.hpp:77] Creating layer fc0_4_postscale
I0407 23:09:30.334262 21708 net.cpp:100] Creating Layer fc0_4_postscale
I0407 23:09:30.334265 21708 net.cpp:434] fc0_4_postscale <- fc0_4
I0407 23:09:30.334272 21708 net.cpp:395] fc0_4_postscale -> fc0_4 (in-place)
I0407 23:09:30.334367 21708 net.cpp:150] Setting up fc0_4_postscale
I0407 23:09:30.334374 21708 net.cpp:157] Top shape: 64 300 (19200)
I0407 23:09:30.334378 21708 net.cpp:165] Memory required for data: 265516288
I0407 23:09:30.334381 21708 layer_factory.hpp:77] Creating layer drop0_4
I0407 23:09:30.334388 21708 net.cpp:100] Creating Layer drop0_4
I0407 23:09:30.334390 21708 net.cpp:434] drop0_4 <- fc0_4
I0407 23:09:30.334396 21708 net.cpp:395] drop0_4 -> fc0_4 (in-place)
I0407 23:09:30.334434 21708 net.cpp:150] Setting up drop0_4
I0407 23:09:30.334442 21708 net.cpp:157] Top shape: 64 300 (19200)
I0407 23:09:30.334444 21708 net.cpp:165] Memory required for data: 265593088
I0407 23:09:30.334447 21708 layer_factory.hpp:77] Creating layer fc0_5_67
I0407 23:09:30.334455 21708 net.cpp:100] Creating Layer fc0_5_67
I0407 23:09:30.334458 21708 net.cpp:434] fc0_5_67 <- fc0_4
I0407 23:09:30.334465 21708 net.cpp:408] fc0_5_67 -> fc0_5
I0407 23:09:30.335741 21708 net.cpp:150] Setting up fc0_5_67
I0407 23:09:30.335757 21708 net.cpp:157] Top shape: 64 67 (4288)
I0407 23:09:30.335759 21708 net.cpp:165] Memory required for data: 265610240
I0407 23:09:30.335775 21708 layer_factory.hpp:77] Creating layer softmax_0
I0407 23:09:30.335790 21708 net.cpp:100] Creating Layer softmax_0
I0407 23:09:30.335794 21708 net.cpp:434] softmax_0 <- fc0_5
I0407 23:09:30.335799 21708 net.cpp:408] softmax_0 -> softmax_0
I0407 23:09:30.336068 21708 net.cpp:150] Setting up softmax_0
I0407 23:09:30.336081 21708 net.cpp:157] Top shape: 64 67 (4288)
I0407 23:09:30.336084 21708 net.cpp:165] Memory required for data: 265627392
I0407 23:09:30.336088 21708 layer_factory.hpp:77] Creating layer conv1_0
I0407 23:09:30.336098 21708 net.cpp:100] Creating Layer conv1_0
I0407 23:09:30.336102 21708 net.cpp:434] conv1_0 <- data_0_data_0_0_split_1
I0407 23:09:30.336109 21708 net.cpp:408] conv1_0 -> conv1_0
I0407 23:09:30.337739 21708 net.cpp:150] Setting up conv1_0
I0407 23:09:30.337757 21708 net.cpp:157] Top shape: 64 100 42 42 (11289600)
I0407 23:09:30.337760 21708 net.cpp:165] Memory required for data: 310785792
I0407 23:09:30.337767 21708 layer_factory.hpp:77] Creating layer conv1_0_prescale
I0407 23:09:30.337774 21708 net.cpp:100] Creating Layer conv1_0_prescale
I0407 23:09:30.337779 21708 net.cpp:434] conv1_0_prescale <- conv1_0
I0407 23:09:30.337785 21708 net.cpp:395] conv1_0_prescale -> conv1_0 (in-place)
I0407 23:09:30.337903 21708 net.cpp:150] Setting up conv1_0_prescale
I0407 23:09:30.337913 21708 net.cpp:157] Top shape: 64 100 42 42 (11289600)
I0407 23:09:30.337915 21708 net.cpp:165] Memory required for data: 355944192
I0407 23:09:30.337919 21708 layer_factory.hpp:77] Creating layer conv1_0_sTanH
I0407 23:09:30.337925 21708 net.cpp:100] Creating Layer conv1_0_sTanH
I0407 23:09:30.337944 21708 net.cpp:434] conv1_0_sTanH <- conv1_0
I0407 23:09:30.337949 21708 net.cpp:395] conv1_0_sTanH -> conv1_0 (in-place)
I0407 23:09:30.338145 21708 net.cpp:150] Setting up conv1_0_sTanH
I0407 23:09:30.338157 21708 net.cpp:157] Top shape: 64 100 42 42 (11289600)
I0407 23:09:30.338160 21708 net.cpp:165] Memory required for data: 401102592
I0407 23:09:30.338165 21708 layer_factory.hpp:77] Creating layer conv1_0_postscale
I0407 23:09:30.338172 21708 net.cpp:100] Creating Layer conv1_0_postscale
I0407 23:09:30.338176 21708 net.cpp:434] conv1_0_postscale <- conv1_0
I0407 23:09:30.338181 21708 net.cpp:395] conv1_0_postscale -> conv1_0 (in-place)
I0407 23:09:30.338285 21708 net.cpp:150] Setting up conv1_0_postscale
I0407 23:09:30.338294 21708 net.cpp:157] Top shape: 64 100 42 42 (11289600)
I0407 23:09:30.338297 21708 net.cpp:165] Memory required for data: 446260992
I0407 23:09:30.338302 21708 layer_factory.hpp:77] Creating layer pool1_0
I0407 23:09:30.338312 21708 net.cpp:100] Creating Layer pool1_0
I0407 23:09:30.338315 21708 net.cpp:434] pool1_0 <- conv1_0
I0407 23:09:30.338320 21708 net.cpp:408] pool1_0 -> pool1_0
I0407 23:09:30.338363 21708 net.cpp:150] Setting up pool1_0
I0407 23:09:30.338371 21708 net.cpp:157] Top shape: 64 100 21 21 (2822400)
I0407 23:09:30.338374 21708 net.cpp:165] Memory required for data: 457550592
I0407 23:09:30.338377 21708 layer_factory.hpp:77] Creating layer conv1_1
I0407 23:09:30.338387 21708 net.cpp:100] Creating Layer conv1_1
I0407 23:09:30.338390 21708 net.cpp:434] conv1_1 <- pool1_0
I0407 23:09:30.338397 21708 net.cpp:408] conv1_1 -> conv1_1
I0407 23:09:30.341763 21708 net.cpp:150] Setting up conv1_1
I0407 23:09:30.341778 21708 net.cpp:157] Top shape: 64 150 18 18 (3110400)
I0407 23:09:30.341789 21708 net.cpp:165] Memory required for data: 469992192
I0407 23:09:30.341795 21708 layer_factory.hpp:77] Creating layer conv1_1_prescale
I0407 23:09:30.341804 21708 net.cpp:100] Creating Layer conv1_1_prescale
I0407 23:09:30.341806 21708 net.cpp:434] conv1_1_prescale <- conv1_1
I0407 23:09:30.341811 21708 net.cpp:395] conv1_1_prescale -> conv1_1 (in-place)
I0407 23:09:30.341927 21708 net.cpp:150] Setting up conv1_1_prescale
I0407 23:09:30.341938 21708 net.cpp:157] Top shape: 64 150 18 18 (3110400)
I0407 23:09:30.341940 21708 net.cpp:165] Memory required for data: 482433792
I0407 23:09:30.341944 21708 layer_factory.hpp:77] Creating layer conv1_1_sTanH
I0407 23:09:30.341950 21708 net.cpp:100] Creating Layer conv1_1_sTanH
I0407 23:09:30.341953 21708 net.cpp:434] conv1_1_sTanH <- conv1_1
I0407 23:09:30.341958 21708 net.cpp:395] conv1_1_sTanH -> conv1_1 (in-place)
I0407 23:09:30.343798 21708 net.cpp:150] Setting up conv1_1_sTanH
I0407 23:09:30.343816 21708 net.cpp:157] Top shape: 64 150 18 18 (3110400)
I0407 23:09:30.343819 21708 net.cpp:165] Memory required for data: 494875392
I0407 23:09:30.343823 21708 layer_factory.hpp:77] Creating layer conv1_1_postscale
I0407 23:09:30.343839 21708 net.cpp:100] Creating Layer conv1_1_postscale
I0407 23:09:30.343844 21708 net.cpp:434] conv1_1_postscale <- conv1_1
I0407 23:09:30.343850 21708 net.cpp:395] conv1_1_postscale -> conv1_1 (in-place)
I0407 23:09:30.343984 21708 net.cpp:150] Setting up conv1_1_postscale
I0407 23:09:30.343996 21708 net.cpp:157] Top shape: 64 150 18 18 (3110400)
I0407 23:09:30.343998 21708 net.cpp:165] Memory required for data: 507316992
I0407 23:09:30.344003 21708 layer_factory.hpp:77] Creating layer pool1_1
I0407 23:09:30.344009 21708 net.cpp:100] Creating Layer pool1_1
I0407 23:09:30.344012 21708 net.cpp:434] pool1_1 <- conv1_1
I0407 23:09:30.344019 21708 net.cpp:408] pool1_1 -> pool1_1
I0407 23:09:30.344061 21708 net.cpp:150] Setting up pool1_1
I0407 23:09:30.344069 21708 net.cpp:157] Top shape: 64 150 9 9 (777600)
I0407 23:09:30.344072 21708 net.cpp:165] Memory required for data: 510427392
I0407 23:09:30.344075 21708 layer_factory.hpp:77] Creating layer conv1_2
I0407 23:09:30.344084 21708 net.cpp:100] Creating Layer conv1_2
I0407 23:09:30.344089 21708 net.cpp:434] conv1_2 <- pool1_1
I0407 23:09:30.344094 21708 net.cpp:408] conv1_2 -> conv1_2
I0407 23:09:30.349691 21708 net.cpp:150] Setting up conv1_2
I0407 23:09:30.349709 21708 net.cpp:157] Top shape: 64 250 6 6 (576000)
I0407 23:09:30.349714 21708 net.cpp:165] Memory required for data: 512731392
I0407 23:09:30.349720 21708 layer_factory.hpp:77] Creating layer conv1_2_prescale
I0407 23:09:30.349727 21708 net.cpp:100] Creating Layer conv1_2_prescale
I0407 23:09:30.349730 21708 net.cpp:434] conv1_2_prescale <- conv1_2
I0407 23:09:30.349737 21708 net.cpp:395] conv1_2_prescale -> conv1_2 (in-place)
I0407 23:09:30.349833 21708 net.cpp:150] Setting up conv1_2_prescale
I0407 23:09:30.349853 21708 net.cpp:157] Top shape: 64 250 6 6 (576000)
I0407 23:09:30.349856 21708 net.cpp:165] Memory required for data: 515035392
I0407 23:09:30.349860 21708 layer_factory.hpp:77] Creating layer conv1_2_sTanH
I0407 23:09:30.349866 21708 net.cpp:100] Creating Layer conv1_2_sTanH
I0407 23:09:30.349869 21708 net.cpp:434] conv1_2_sTanH <- conv1_2
I0407 23:09:30.349875 21708 net.cpp:395] conv1_2_sTanH -> conv1_2 (in-place)
I0407 23:09:30.350842 21708 net.cpp:150] Setting up conv1_2_sTanH
I0407 23:09:30.350857 21708 net.cpp:157] Top shape: 64 250 6 6 (576000)
I0407 23:09:30.350862 21708 net.cpp:165] Memory required for data: 517339392
I0407 23:09:30.350865 21708 layer_factory.hpp:77] Creating layer conv1_2_postscale
I0407 23:09:30.350875 21708 net.cpp:100] Creating Layer conv1_2_postscale
I0407 23:09:30.350880 21708 net.cpp:434] conv1_2_postscale <- conv1_2
I0407 23:09:30.350886 21708 net.cpp:395] conv1_2_postscale -> conv1_2 (in-place)
I0407 23:09:30.350991 21708 net.cpp:150] Setting up conv1_2_postscale
I0407 23:09:30.350999 21708 net.cpp:157] Top shape: 64 250 6 6 (576000)
I0407 23:09:30.351002 21708 net.cpp:165] Memory required for data: 519643392
I0407 23:09:30.351007 21708 layer_factory.hpp:77] Creating layer pool1_2
I0407 23:09:30.351016 21708 net.cpp:100] Creating Layer pool1_2
I0407 23:09:30.351018 21708 net.cpp:434] pool1_2 <- conv1_2
I0407 23:09:30.351023 21708 net.cpp:408] pool1_2 -> pool1_2
I0407 23:09:30.351063 21708 net.cpp:150] Setting up pool1_2
I0407 23:09:30.351073 21708 net.cpp:157] Top shape: 64 250 3 3 (144000)
I0407 23:09:30.351074 21708 net.cpp:165] Memory required for data: 520219392
I0407 23:09:30.351078 21708 layer_factory.hpp:77] Creating layer fc1_4_300
I0407 23:09:30.351083 21708 net.cpp:100] Creating Layer fc1_4_300
I0407 23:09:30.351086 21708 net.cpp:434] fc1_4_300 <- pool1_2
I0407 23:09:30.351092 21708 net.cpp:408] fc1_4_300 -> fc1_4
I0407 23:09:30.356616 21708 net.cpp:150] Setting up fc1_4_300
I0407 23:09:30.356631 21708 net.cpp:157] Top shape: 64 300 (19200)
I0407 23:09:30.356634 21708 net.cpp:165] Memory required for data: 520296192
I0407 23:09:30.356642 21708 layer_factory.hpp:77] Creating layer fc1_4_prescale
I0407 23:09:30.356654 21708 net.cpp:100] Creating Layer fc1_4_prescale
I0407 23:09:30.356657 21708 net.cpp:434] fc1_4_prescale <- fc1_4
I0407 23:09:30.356665 21708 net.cpp:395] fc1_4_prescale -> fc1_4 (in-place)
I0407 23:09:30.356753 21708 net.cpp:150] Setting up fc1_4_prescale
I0407 23:09:30.356762 21708 net.cpp:157] Top shape: 64 300 (19200)
I0407 23:09:30.356765 21708 net.cpp:165] Memory required for data: 520372992
I0407 23:09:30.356773 21708 layer_factory.hpp:77] Creating layer fc1_4_sTanH
I0407 23:09:30.356781 21708 net.cpp:100] Creating Layer fc1_4_sTanH
I0407 23:09:30.356784 21708 net.cpp:434] fc1_4_sTanH <- fc1_4
I0407 23:09:30.356789 21708 net.cpp:395] fc1_4_sTanH -> fc1_4 (in-place)
I0407 23:09:30.356976 21708 net.cpp:150] Setting up fc1_4_sTanH
I0407 23:09:30.356986 21708 net.cpp:157] Top shape: 64 300 (19200)
I0407 23:09:30.356989 21708 net.cpp:165] Memory required for data: 520449792
I0407 23:09:30.356992 21708 layer_factory.hpp:77] Creating layer fc1_4_postscale
I0407 23:09:30.357000 21708 net.cpp:100] Creating Layer fc1_4_postscale
I0407 23:09:30.357003 21708 net.cpp:434] fc1_4_postscale <- fc1_4
I0407 23:09:30.357012 21708 net.cpp:395] fc1_4_postscale -> fc1_4 (in-place)
I0407 23:09:30.357108 21708 net.cpp:150] Setting up fc1_4_postscale
I0407 23:09:30.357128 21708 net.cpp:157] Top shape: 64 300 (19200)
I0407 23:09:30.357131 21708 net.cpp:165] Memory required for data: 520526592
I0407 23:09:30.357136 21708 layer_factory.hpp:77] Creating layer drop1_4
I0407 23:09:30.357144 21708 net.cpp:100] Creating Layer drop1_4
I0407 23:09:30.357147 21708 net.cpp:434] drop1_4 <- fc1_4
I0407 23:09:30.357152 21708 net.cpp:395] drop1_4 -> fc1_4 (in-place)
I0407 23:09:30.357179 21708 net.cpp:150] Setting up drop1_4
I0407 23:09:30.357198 21708 net.cpp:157] Top shape: 64 300 (19200)
I0407 23:09:30.357201 21708 net.cpp:165] Memory required for data: 520603392
I0407 23:09:30.357204 21708 layer_factory.hpp:77] Creating layer fc1_5_67
I0407 23:09:30.357213 21708 net.cpp:100] Creating Layer fc1_5_67
I0407 23:09:30.357215 21708 net.cpp:434] fc1_5_67 <- fc1_4
I0407 23:09:30.357219 21708 net.cpp:408] fc1_5_67 -> fc1_5
I0407 23:09:30.357460 21708 net.cpp:150] Setting up fc1_5_67
I0407 23:09:30.357470 21708 net.cpp:157] Top shape: 64 67 (4288)
I0407 23:09:30.357473 21708 net.cpp:165] Memory required for data: 520620544
I0407 23:09:30.357480 21708 layer_factory.hpp:77] Creating layer softmax_1
I0407 23:09:30.357484 21708 net.cpp:100] Creating Layer softmax_1
I0407 23:09:30.357487 21708 net.cpp:434] softmax_1 <- fc1_5
I0407 23:09:30.357492 21708 net.cpp:408] softmax_1 -> softmax_1
I0407 23:09:30.357753 21708 net.cpp:150] Setting up softmax_1
I0407 23:09:30.357764 21708 net.cpp:157] Top shape: 64 67 (4288)
I0407 23:09:30.357767 21708 net.cpp:165] Memory required for data: 520637696
I0407 23:09:30.357770 21708 layer_factory.hpp:77] Creating layer conv2_0
I0407 23:09:30.357779 21708 net.cpp:100] Creating Layer conv2_0
I0407 23:09:30.357784 21708 net.cpp:434] conv2_0 <- data_0_data_0_0_split_2
I0407 23:09:30.357789 21708 net.cpp:408] conv2_0 -> conv2_0
I0407 23:09:30.359777 21708 net.cpp:150] Setting up conv2_0
I0407 23:09:30.359807 21708 net.cpp:157] Top shape: 64 100 42 42 (11289600)
I0407 23:09:30.359812 21708 net.cpp:165] Memory required for data: 565796096
I0407 23:09:30.359819 21708 layer_factory.hpp:77] Creating layer conv2_0_prescale
I0407 23:09:30.359827 21708 net.cpp:100] Creating Layer conv2_0_prescale
I0407 23:09:30.359830 21708 net.cpp:434] conv2_0_prescale <- conv2_0
I0407 23:09:30.359838 21708 net.cpp:395] conv2_0_prescale -> conv2_0 (in-place)
I0407 23:09:30.359958 21708 net.cpp:150] Setting up conv2_0_prescale
I0407 23:09:30.359969 21708 net.cpp:157] Top shape: 64 100 42 42 (11289600)
I0407 23:09:30.359972 21708 net.cpp:165] Memory required for data: 610954496
I0407 23:09:30.359977 21708 layer_factory.hpp:77] Creating layer conv2_0_sTanH
I0407 23:09:30.359982 21708 net.cpp:100] Creating Layer conv2_0_sTanH
I0407 23:09:30.359987 21708 net.cpp:434] conv2_0_sTanH <- conv2_0
I0407 23:09:30.359990 21708 net.cpp:395] conv2_0_sTanH -> conv2_0 (in-place)
I0407 23:09:30.360183 21708 net.cpp:150] Setting up conv2_0_sTanH
I0407 23:09:30.360194 21708 net.cpp:157] Top shape: 64 100 42 42 (11289600)
I0407 23:09:30.360198 21708 net.cpp:165] Memory required for data: 656112896
I0407 23:09:30.360201 21708 layer_factory.hpp:77] Creating layer conv2_0_postscale
I0407 23:09:30.360210 21708 net.cpp:100] Creating Layer conv2_0_postscale
I0407 23:09:30.360214 21708 net.cpp:434] conv2_0_postscale <- conv2_0
I0407 23:09:30.360219 21708 net.cpp:395] conv2_0_postscale -> conv2_0 (in-place)
I0407 23:09:30.360328 21708 net.cpp:150] Setting up conv2_0_postscale
I0407 23:09:30.360337 21708 net.cpp:157] Top shape: 64 100 42 42 (11289600)
I0407 23:09:30.360340 21708 net.cpp:165] Memory required for data: 701271296
I0407 23:09:30.360345 21708 layer_factory.hpp:77] Creating layer pool2_0
I0407 23:09:30.360352 21708 net.cpp:100] Creating Layer pool2_0
I0407 23:09:30.360357 21708 net.cpp:434] pool2_0 <- conv2_0
I0407 23:09:30.360360 21708 net.cpp:408] pool2_0 -> pool2_0
I0407 23:09:30.360404 21708 net.cpp:150] Setting up pool2_0
I0407 23:09:30.360412 21708 net.cpp:157] Top shape: 64 100 21 21 (2822400)
I0407 23:09:30.360415 21708 net.cpp:165] Memory required for data: 712560896
I0407 23:09:30.360417 21708 layer_factory.hpp:77] Creating layer conv2_1
I0407 23:09:30.360440 21708 net.cpp:100] Creating Layer conv2_1
I0407 23:09:30.360443 21708 net.cpp:434] conv2_1 <- pool2_0
I0407 23:09:30.360448 21708 net.cpp:408] conv2_1 -> conv2_1
I0407 23:09:30.377362 21708 net.cpp:150] Setting up conv2_1
I0407 23:09:30.377382 21708 net.cpp:157] Top shape: 64 150 18 18 (3110400)
I0407 23:09:30.377385 21708 net.cpp:165] Memory required for data: 725002496
I0407 23:09:30.377393 21708 layer_factory.hpp:77] Creating layer conv2_1_prescale
I0407 23:09:30.377405 21708 net.cpp:100] Creating Layer conv2_1_prescale
I0407 23:09:30.377409 21708 net.cpp:434] conv2_1_prescale <- conv2_1
I0407 23:09:30.377416 21708 net.cpp:395] conv2_1_prescale -> conv2_1 (in-place)
I0407 23:09:30.377522 21708 net.cpp:150] Setting up conv2_1_prescale
I0407 23:09:30.377532 21708 net.cpp:157] Top shape: 64 150 18 18 (3110400)
I0407 23:09:30.377534 21708 net.cpp:165] Memory required for data: 737444096
I0407 23:09:30.377539 21708 layer_factory.hpp:77] Creating layer conv2_1_sTanH
I0407 23:09:30.377547 21708 net.cpp:100] Creating Layer conv2_1_sTanH
I0407 23:09:30.377549 21708 net.cpp:434] conv2_1_sTanH <- conv2_1
I0407 23:09:30.377555 21708 net.cpp:395] conv2_1_sTanH -> conv2_1 (in-place)
I0407 23:09:30.378629 21708 net.cpp:150] Setting up conv2_1_sTanH
I0407 23:09:30.378646 21708 net.cpp:157] Top shape: 64 150 18 18 (3110400)
I0407 23:09:30.378650 21708 net.cpp:165] Memory required for data: 749885696
I0407 23:09:30.378654 21708 layer_factory.hpp:77] Creating layer conv2_1_postscale
I0407 23:09:30.378661 21708 net.cpp:100] Creating Layer conv2_1_postscale
I0407 23:09:30.378666 21708 net.cpp:434] conv2_1_postscale <- conv2_1
I0407 23:09:30.378674 21708 net.cpp:395] conv2_1_postscale -> conv2_1 (in-place)
I0407 23:09:30.378787 21708 net.cpp:150] Setting up conv2_1_postscale
I0407 23:09:30.378795 21708 net.cpp:157] Top shape: 64 150 18 18 (3110400)
I0407 23:09:30.378813 21708 net.cpp:165] Memory required for data: 762327296
I0407 23:09:30.378818 21708 layer_factory.hpp:77] Creating layer pool2_1
I0407 23:09:30.378824 21708 net.cpp:100] Creating Layer pool2_1
I0407 23:09:30.378829 21708 net.cpp:434] pool2_1 <- conv2_1
I0407 23:09:30.378834 21708 net.cpp:408] pool2_1 -> pool2_1
I0407 23:09:30.378876 21708 net.cpp:150] Setting up pool2_1
I0407 23:09:30.378885 21708 net.cpp:157] Top shape: 64 150 9 9 (777600)
I0407 23:09:30.378887 21708 net.cpp:165] Memory required for data: 765437696
I0407 23:09:30.378902 21708 layer_factory.hpp:77] Creating layer conv2_2
I0407 23:09:30.378912 21708 net.cpp:100] Creating Layer conv2_2
I0407 23:09:30.378916 21708 net.cpp:434] conv2_2 <- pool2_1
I0407 23:09:30.378921 21708 net.cpp:408] conv2_2 -> conv2_2
I0407 23:09:30.384495 21708 net.cpp:150] Setting up conv2_2
I0407 23:09:30.384512 21708 net.cpp:157] Top shape: 64 250 6 6 (576000)
I0407 23:09:30.384516 21708 net.cpp:165] Memory required for data: 767741696
I0407 23:09:30.384522 21708 layer_factory.hpp:77] Creating layer conv2_2_prescale
I0407 23:09:30.384532 21708 net.cpp:100] Creating Layer conv2_2_prescale
I0407 23:09:30.384536 21708 net.cpp:434] conv2_2_prescale <- conv2_2
I0407 23:09:30.384541 21708 net.cpp:395] conv2_2_prescale -> conv2_2 (in-place)
I0407 23:09:30.384635 21708 net.cpp:150] Setting up conv2_2_prescale
I0407 23:09:30.384645 21708 net.cpp:157] Top shape: 64 250 6 6 (576000)
I0407 23:09:30.384649 21708 net.cpp:165] Memory required for data: 770045696
I0407 23:09:30.384652 21708 layer_factory.hpp:77] Creating layer conv2_2_sTanH
I0407 23:09:30.384657 21708 net.cpp:100] Creating Layer conv2_2_sTanH
I0407 23:09:30.384662 21708 net.cpp:434] conv2_2_sTanH <- conv2_2
I0407 23:09:30.384666 21708 net.cpp:395] conv2_2_sTanH -> conv2_2 (in-place)
I0407 23:09:30.385424 21708 net.cpp:150] Setting up conv2_2_sTanH
I0407 23:09:30.385440 21708 net.cpp:157] Top shape: 64 250 6 6 (576000)
I0407 23:09:30.385443 21708 net.cpp:165] Memory required for data: 772349696
I0407 23:09:30.385447 21708 layer_factory.hpp:77] Creating layer conv2_2_postscale
I0407 23:09:30.385457 21708 net.cpp:100] Creating Layer conv2_2_postscale
I0407 23:09:30.385488 21708 net.cpp:434] conv2_2_postscale <- conv2_2
I0407 23:09:30.385495 21708 net.cpp:395] conv2_2_postscale -> conv2_2 (in-place)
I0407 23:09:30.385603 21708 net.cpp:150] Setting up conv2_2_postscale
I0407 23:09:30.385612 21708 net.cpp:157] Top shape: 64 250 6 6 (576000)
I0407 23:09:30.385615 21708 net.cpp:165] Memory required for data: 774653696
I0407 23:09:30.385622 21708 layer_factory.hpp:77] Creating layer pool2_2
I0407 23:09:30.385628 21708 net.cpp:100] Creating Layer pool2_2
I0407 23:09:30.385632 21708 net.cpp:434] pool2_2 <- conv2_2
I0407 23:09:30.385638 21708 net.cpp:408] pool2_2 -> pool2_2
I0407 23:09:30.385679 21708 net.cpp:150] Setting up pool2_2
I0407 23:09:30.385687 21708 net.cpp:157] Top shape: 64 250 3 3 (144000)
I0407 23:09:30.385690 21708 net.cpp:165] Memory required for data: 775229696
I0407 23:09:30.385694 21708 layer_factory.hpp:77] Creating layer fc2_4_300
I0407 23:09:30.385700 21708 net.cpp:100] Creating Layer fc2_4_300
I0407 23:09:30.385704 21708 net.cpp:434] fc2_4_300 <- pool2_2
I0407 23:09:30.385709 21708 net.cpp:408] fc2_4_300 -> fc2_4
I0407 23:09:30.390997 21708 net.cpp:150] Setting up fc2_4_300
I0407 23:09:30.391013 21708 net.cpp:157] Top shape: 64 300 (19200)
I0407 23:09:30.391016 21708 net.cpp:165] Memory required for data: 775306496
I0407 23:09:30.391023 21708 layer_factory.hpp:77] Creating layer fc2_4_prescale
I0407 23:09:30.391031 21708 net.cpp:100] Creating Layer fc2_4_prescale
I0407 23:09:30.391036 21708 net.cpp:434] fc2_4_prescale <- fc2_4
I0407 23:09:30.391041 21708 net.cpp:395] fc2_4_prescale -> fc2_4 (in-place)
I0407 23:09:30.391137 21708 net.cpp:150] Setting up fc2_4_prescale
I0407 23:09:30.391147 21708 net.cpp:157] Top shape: 64 300 (19200)
I0407 23:09:30.391150 21708 net.cpp:165] Memory required for data: 775383296
I0407 23:09:30.391155 21708 layer_factory.hpp:77] Creating layer fc2_4_sTanH
I0407 23:09:30.391160 21708 net.cpp:100] Creating Layer fc2_4_sTanH
I0407 23:09:30.391163 21708 net.cpp:434] fc2_4_sTanH <- fc2_4
I0407 23:09:30.391167 21708 net.cpp:395] fc2_4_sTanH -> fc2_4 (in-place)
I0407 23:09:30.391360 21708 net.cpp:150] Setting up fc2_4_sTanH
I0407 23:09:30.391372 21708 net.cpp:157] Top shape: 64 300 (19200)
I0407 23:09:30.391376 21708 net.cpp:165] Memory required for data: 775460096
I0407 23:09:30.391378 21708 layer_factory.hpp:77] Creating layer fc2_4_postscale
I0407 23:09:30.391394 21708 net.cpp:100] Creating Layer fc2_4_postscale
I0407 23:09:30.391399 21708 net.cpp:434] fc2_4_postscale <- fc2_4
I0407 23:09:30.391404 21708 net.cpp:395] fc2_4_postscale -> fc2_4 (in-place)
I0407 23:09:30.391508 21708 net.cpp:150] Setting up fc2_4_postscale
I0407 23:09:30.391516 21708 net.cpp:157] Top shape: 64 300 (19200)
I0407 23:09:30.391520 21708 net.cpp:165] Memory required for data: 775536896
I0407 23:09:30.391525 21708 layer_factory.hpp:77] Creating layer drop2_4
I0407 23:09:30.391531 21708 net.cpp:100] Creating Layer drop2_4
I0407 23:09:30.391535 21708 net.cpp:434] drop2_4 <- fc2_4
I0407 23:09:30.391538 21708 net.cpp:395] drop2_4 -> fc2_4 (in-place)
I0407 23:09:30.391577 21708 net.cpp:150] Setting up drop2_4
I0407 23:09:30.391583 21708 net.cpp:157] Top shape: 64 300 (19200)
I0407 23:09:30.391587 21708 net.cpp:165] Memory required for data: 775613696
I0407 23:09:30.391589 21708 layer_factory.hpp:77] Creating layer fc2_5_67
I0407 23:09:30.391594 21708 net.cpp:100] Creating Layer fc2_5_67
I0407 23:09:30.391598 21708 net.cpp:434] fc2_5_67 <- fc2_4
I0407 23:09:30.391604 21708 net.cpp:408] fc2_5_67 -> fc2_5
I0407 23:09:30.391852 21708 net.cpp:150] Setting up fc2_5_67
I0407 23:09:30.391861 21708 net.cpp:157] Top shape: 64 67 (4288)
I0407 23:09:30.391865 21708 net.cpp:165] Memory required for data: 775630848
I0407 23:09:30.391870 21708 layer_factory.hpp:77] Creating layer softmax_2
I0407 23:09:30.391883 21708 net.cpp:100] Creating Layer softmax_2
I0407 23:09:30.391888 21708 net.cpp:434] softmax_2 <- fc2_5
I0407 23:09:30.391893 21708 net.cpp:408] softmax_2 -> softmax_2
I0407 23:09:30.392154 21708 net.cpp:150] Setting up softmax_2
I0407 23:09:30.392179 21708 net.cpp:157] Top shape: 64 67 (4288)
I0407 23:09:30.392192 21708 net.cpp:165] Memory required for data: 775648000
I0407 23:09:30.392196 21708 layer_factory.hpp:77] Creating layer conv3_0
I0407 23:09:30.392206 21708 net.cpp:100] Creating Layer conv3_0
I0407 23:09:30.392210 21708 net.cpp:434] conv3_0 <- data_0_data_0_0_split_3
I0407 23:09:30.392217 21708 net.cpp:408] conv3_0 -> conv3_0
I0407 23:09:30.393790 21708 net.cpp:150] Setting up conv3_0
I0407 23:09:30.393806 21708 net.cpp:157] Top shape: 64 100 42 42 (11289600)
I0407 23:09:30.393810 21708 net.cpp:165] Memory required for data: 820806400
I0407 23:09:30.393817 21708 layer_factory.hpp:77] Creating layer conv3_0_prescale
I0407 23:09:30.393826 21708 net.cpp:100] Creating Layer conv3_0_prescale
I0407 23:09:30.393831 21708 net.cpp:434] conv3_0_prescale <- conv3_0
I0407 23:09:30.393837 21708 net.cpp:395] conv3_0_prescale -> conv3_0 (in-place)
I0407 23:09:30.393941 21708 net.cpp:150] Setting up conv3_0_prescale
I0407 23:09:30.393950 21708 net.cpp:157] Top shape: 64 100 42 42 (11289600)
I0407 23:09:30.393954 21708 net.cpp:165] Memory required for data: 865964800
I0407 23:09:30.393957 21708 layer_factory.hpp:77] Creating layer conv3_0_sTanH
I0407 23:09:30.393962 21708 net.cpp:100] Creating Layer conv3_0_sTanH
I0407 23:09:30.393966 21708 net.cpp:434] conv3_0_sTanH <- conv3_0
I0407 23:09:30.393971 21708 net.cpp:395] conv3_0_sTanH -> conv3_0 (in-place)
I0407 23:09:30.394173 21708 net.cpp:150] Setting up conv3_0_sTanH
I0407 23:09:30.394186 21708 net.cpp:157] Top shape: 64 100 42 42 (11289600)
I0407 23:09:30.394191 21708 net.cpp:165] Memory required for data: 911123200
I0407 23:09:30.394193 21708 layer_factory.hpp:77] Creating layer conv3_0_postscale
I0407 23:09:30.394201 21708 net.cpp:100] Creating Layer conv3_0_postscale
I0407 23:09:30.394203 21708 net.cpp:434] conv3_0_postscale <- conv3_0
I0407 23:09:30.394210 21708 net.cpp:395] conv3_0_postscale -> conv3_0 (in-place)
I0407 23:09:30.394335 21708 net.cpp:150] Setting up conv3_0_postscale
I0407 23:09:30.394343 21708 net.cpp:157] Top shape: 64 100 42 42 (11289600)
I0407 23:09:30.394346 21708 net.cpp:165] Memory required for data: 956281600
I0407 23:09:30.394351 21708 layer_factory.hpp:77] Creating layer pool3_0
I0407 23:09:30.394356 21708 net.cpp:100] Creating Layer pool3_0
I0407 23:09:30.394359 21708 net.cpp:434] pool3_0 <- conv3_0
I0407 23:09:30.394366 21708 net.cpp:408] pool3_0 -> pool3_0
I0407 23:09:30.394408 21708 net.cpp:150] Setting up pool3_0
I0407 23:09:30.394415 21708 net.cpp:157] Top shape: 64 100 21 21 (2822400)
I0407 23:09:30.394418 21708 net.cpp:165] Memory required for data: 967571200
I0407 23:09:30.394421 21708 layer_factory.hpp:77] Creating layer conv3_1
I0407 23:09:30.394430 21708 net.cpp:100] Creating Layer conv3_1
I0407 23:09:30.394433 21708 net.cpp:434] conv3_1 <- pool3_0
I0407 23:09:30.394440 21708 net.cpp:408] conv3_1 -> conv3_1
I0407 23:09:30.397352 21708 net.cpp:150] Setting up conv3_1
I0407 23:09:30.397370 21708 net.cpp:157] Top shape: 64 150 18 18 (3110400)
I0407 23:09:30.397374 21708 net.cpp:165] Memory required for data: 980012800
I0407 23:09:30.397382 21708 layer_factory.hpp:77] Creating layer conv3_1_prescale
I0407 23:09:30.397388 21708 net.cpp:100] Creating Layer conv3_1_prescale
I0407 23:09:30.397392 21708 net.cpp:434] conv3_1_prescale <- conv3_1
I0407 23:09:30.397398 21708 net.cpp:395] conv3_1_prescale -> conv3_1 (in-place)
I0407 23:09:30.397507 21708 net.cpp:150] Setting up conv3_1_prescale
I0407 23:09:30.397516 21708 net.cpp:157] Top shape: 64 150 18 18 (3110400)
I0407 23:09:30.397519 21708 net.cpp:165] Memory required for data: 992454400
I0407 23:09:30.397523 21708 layer_factory.hpp:77] Creating layer conv3_1_sTanH
I0407 23:09:30.397529 21708 net.cpp:100] Creating Layer conv3_1_sTanH
I0407 23:09:30.397533 21708 net.cpp:434] conv3_1_sTanH <- conv3_1
I0407 23:09:30.397538 21708 net.cpp:395] conv3_1_sTanH -> conv3_1 (in-place)
I0407 23:09:30.398299 21708 net.cpp:150] Setting up conv3_1_sTanH
I0407 23:09:30.398315 21708 net.cpp:157] Top shape: 64 150 18 18 (3110400)
I0407 23:09:30.398329 21708 net.cpp:165] Memory required for data: 1004896000
I0407 23:09:30.398355 21708 layer_factory.hpp:77] Creating layer conv3_1_postscale
I0407 23:09:30.398370 21708 net.cpp:100] Creating Layer conv3_1_postscale
I0407 23:09:30.398375 21708 net.cpp:434] conv3_1_postscale <- conv3_1
I0407 23:09:30.398380 21708 net.cpp:395] conv3_1_postscale -> conv3_1 (in-place)
I0407 23:09:30.398516 21708 net.cpp:150] Setting up conv3_1_postscale
I0407 23:09:30.398526 21708 net.cpp:157] Top shape: 64 150 18 18 (3110400)
I0407 23:09:30.398530 21708 net.cpp:165] Memory required for data: 1017337600
I0407 23:09:30.398535 21708 layer_factory.hpp:77] Creating layer pool3_1
I0407 23:09:30.398542 21708 net.cpp:100] Creating Layer pool3_1
I0407 23:09:30.398545 21708 net.cpp:434] pool3_1 <- conv3_1
I0407 23:09:30.398550 21708 net.cpp:408] pool3_1 -> pool3_1
I0407 23:09:30.398597 21708 net.cpp:150] Setting up pool3_1
I0407 23:09:30.398604 21708 net.cpp:157] Top shape: 64 150 9 9 (777600)
I0407 23:09:30.398607 21708 net.cpp:165] Memory required for data: 1020448000
I0407 23:09:30.398610 21708 layer_factory.hpp:77] Creating layer conv3_2
I0407 23:09:30.398622 21708 net.cpp:100] Creating Layer conv3_2
I0407 23:09:30.398627 21708 net.cpp:434] conv3_2 <- pool3_1
I0407 23:09:30.398632 21708 net.cpp:408] conv3_2 -> conv3_2
I0407 23:09:30.404758 21708 net.cpp:150] Setting up conv3_2
I0407 23:09:30.404775 21708 net.cpp:157] Top shape: 64 250 6 6 (576000)
I0407 23:09:30.404790 21708 net.cpp:165] Memory required for data: 1022752000
I0407 23:09:30.404798 21708 layer_factory.hpp:77] Creating layer conv3_2_prescale
I0407 23:09:30.404808 21708 net.cpp:100] Creating Layer conv3_2_prescale
I0407 23:09:30.404811 21708 net.cpp:434] conv3_2_prescale <- conv3_2
I0407 23:09:30.404817 21708 net.cpp:395] conv3_2_prescale -> conv3_2 (in-place)
I0407 23:09:30.404922 21708 net.cpp:150] Setting up conv3_2_prescale
I0407 23:09:30.404932 21708 net.cpp:157] Top shape: 64 250 6 6 (576000)
I0407 23:09:30.404934 21708 net.cpp:165] Memory required for data: 1025056000
I0407 23:09:30.404948 21708 layer_factory.hpp:77] Creating layer conv3_2_sTanH
I0407 23:09:30.404958 21708 net.cpp:100] Creating Layer conv3_2_sTanH
I0407 23:09:30.404960 21708 net.cpp:434] conv3_2_sTanH <- conv3_2
I0407 23:09:30.404965 21708 net.cpp:395] conv3_2_sTanH -> conv3_2 (in-place)
I0407 23:09:30.405158 21708 net.cpp:150] Setting up conv3_2_sTanH
I0407 23:09:30.405170 21708 net.cpp:157] Top shape: 64 250 6 6 (576000)
I0407 23:09:30.405174 21708 net.cpp:165] Memory required for data: 1027360000
I0407 23:09:30.405176 21708 layer_factory.hpp:77] Creating layer conv3_2_postscale
I0407 23:09:30.405185 21708 net.cpp:100] Creating Layer conv3_2_postscale
I0407 23:09:30.405189 21708 net.cpp:434] conv3_2_postscale <- conv3_2
I0407 23:09:30.405194 21708 net.cpp:395] conv3_2_postscale -> conv3_2 (in-place)
I0407 23:09:30.405298 21708 net.cpp:150] Setting up conv3_2_postscale
I0407 23:09:30.405308 21708 net.cpp:157] Top shape: 64 250 6 6 (576000)
I0407 23:09:30.405310 21708 net.cpp:165] Memory required for data: 1029664000
I0407 23:09:30.405315 21708 layer_factory.hpp:77] Creating layer pool3_2
I0407 23:09:30.405323 21708 net.cpp:100] Creating Layer pool3_2
I0407 23:09:30.405325 21708 net.cpp:434] pool3_2 <- conv3_2
I0407 23:09:30.405330 21708 net.cpp:408] pool3_2 -> pool3_2
I0407 23:09:30.405375 21708 net.cpp:150] Setting up pool3_2
I0407 23:09:30.405382 21708 net.cpp:157] Top shape: 64 250 3 3 (144000)
I0407 23:09:30.405385 21708 net.cpp:165] Memory required for data: 1030240000
I0407 23:09:30.405388 21708 layer_factory.hpp:77] Creating layer fc3_4_300
I0407 23:09:30.405395 21708 net.cpp:100] Creating Layer fc3_4_300
I0407 23:09:30.405397 21708 net.cpp:434] fc3_4_300 <- pool3_2
I0407 23:09:30.405403 21708 net.cpp:408] fc3_4_300 -> fc3_4
I0407 23:09:30.410722 21708 net.cpp:150] Setting up fc3_4_300
I0407 23:09:30.410737 21708 net.cpp:157] Top shape: 64 300 (19200)
I0407 23:09:30.410740 21708 net.cpp:165] Memory required for data: 1030316800
I0407 23:09:30.410748 21708 layer_factory.hpp:77] Creating layer fc3_4_prescale
I0407 23:09:30.410773 21708 net.cpp:100] Creating Layer fc3_4_prescale
I0407 23:09:30.410778 21708 net.cpp:434] fc3_4_prescale <- fc3_4
I0407 23:09:30.410787 21708 net.cpp:395] fc3_4_prescale -> fc3_4 (in-place)
I0407 23:09:30.410888 21708 net.cpp:150] Setting up fc3_4_prescale
I0407 23:09:30.410897 21708 net.cpp:157] Top shape: 64 300 (19200)
I0407 23:09:30.410899 21708 net.cpp:165] Memory required for data: 1030393600
I0407 23:09:30.410904 21708 layer_factory.hpp:77] Creating layer fc3_4_sTanH
I0407 23:09:30.410909 21708 net.cpp:100] Creating Layer fc3_4_sTanH
I0407 23:09:30.410913 21708 net.cpp:434] fc3_4_sTanH <- fc3_4
I0407 23:09:30.410919 21708 net.cpp:395] fc3_4_sTanH -> fc3_4 (in-place)
I0407 23:09:30.411121 21708 net.cpp:150] Setting up fc3_4_sTanH
I0407 23:09:30.411134 21708 net.cpp:157] Top shape: 64 300 (19200)
I0407 23:09:30.411136 21708 net.cpp:165] Memory required for data: 1030470400
I0407 23:09:30.411139 21708 layer_factory.hpp:77] Creating layer fc3_4_postscale
I0407 23:09:30.411149 21708 net.cpp:100] Creating Layer fc3_4_postscale
I0407 23:09:30.411151 21708 net.cpp:434] fc3_4_postscale <- fc3_4
I0407 23:09:30.411156 21708 net.cpp:395] fc3_4_postscale -> fc3_4 (in-place)
I0407 23:09:30.411263 21708 net.cpp:150] Setting up fc3_4_postscale
I0407 23:09:30.411273 21708 net.cpp:157] Top shape: 64 300 (19200)
I0407 23:09:30.411275 21708 net.cpp:165] Memory required for data: 1030547200
I0407 23:09:30.411279 21708 layer_factory.hpp:77] Creating layer drop3_4
I0407 23:09:30.411286 21708 net.cpp:100] Creating Layer drop3_4
I0407 23:09:30.411290 21708 net.cpp:434] drop3_4 <- fc3_4
I0407 23:09:30.411294 21708 net.cpp:395] drop3_4 -> fc3_4 (in-place)
I0407 23:09:30.411320 21708 net.cpp:150] Setting up drop3_4
I0407 23:09:30.411327 21708 net.cpp:157] Top shape: 64 300 (19200)
I0407 23:09:30.411330 21708 net.cpp:165] Memory required for data: 1030624000
I0407 23:09:30.411334 21708 layer_factory.hpp:77] Creating layer fc3_5_67
I0407 23:09:30.411339 21708 net.cpp:100] Creating Layer fc3_5_67
I0407 23:09:30.411341 21708 net.cpp:434] fc3_5_67 <- fc3_4
I0407 23:09:30.411347 21708 net.cpp:408] fc3_5_67 -> fc3_5
I0407 23:09:30.411599 21708 net.cpp:150] Setting up fc3_5_67
I0407 23:09:30.411608 21708 net.cpp:157] Top shape: 64 67 (4288)
I0407 23:09:30.411610 21708 net.cpp:165] Memory required for data: 1030641152
I0407 23:09:30.411617 21708 layer_factory.hpp:77] Creating layer softmax_3
I0407 23:09:30.411622 21708 net.cpp:100] Creating Layer softmax_3
I0407 23:09:30.411624 21708 net.cpp:434] softmax_3 <- fc3_5
I0407 23:09:30.411629 21708 net.cpp:408] softmax_3 -> softmax_3
I0407 23:09:30.412509 21708 net.cpp:150] Setting up softmax_3
I0407 23:09:30.412525 21708 net.cpp:157] Top shape: 64 67 (4288)
I0407 23:09:30.412528 21708 net.cpp:165] Memory required for data: 1030658304
I0407 23:09:30.412533 21708 layer_factory.hpp:77] Creating layer conv4_0
I0407 23:09:30.412555 21708 net.cpp:100] Creating Layer conv4_0
I0407 23:09:30.412559 21708 net.cpp:434] conv4_0 <- data_0_data_0_0_split_4
I0407 23:09:30.412566 21708 net.cpp:408] conv4_0 -> conv4_0
I0407 23:09:30.414165 21708 net.cpp:150] Setting up conv4_0
I0407 23:09:30.414180 21708 net.cpp:157] Top shape: 64 100 42 42 (11289600)
I0407 23:09:30.414185 21708 net.cpp:165] Memory required for data: 1075816704
I0407 23:09:30.414191 21708 layer_factory.hpp:77] Creating layer conv4_0_prescale
I0407 23:09:30.414206 21708 net.cpp:100] Creating Layer conv4_0_prescale
I0407 23:09:30.414211 21708 net.cpp:434] conv4_0_prescale <- conv4_0
I0407 23:09:30.414217 21708 net.cpp:395] conv4_0_prescale -> conv4_0 (in-place)
I0407 23:09:30.414324 21708 net.cpp:150] Setting up conv4_0_prescale
I0407 23:09:30.414335 21708 net.cpp:157] Top shape: 64 100 42 42 (11289600)
I0407 23:09:30.414337 21708 net.cpp:165] Memory required for data: 1120975104
I0407 23:09:30.414342 21708 layer_factory.hpp:77] Creating layer conv4_0_sTanH
I0407 23:09:30.414348 21708 net.cpp:100] Creating Layer conv4_0_sTanH
I0407 23:09:30.414351 21708 net.cpp:434] conv4_0_sTanH <- conv4_0
I0407 23:09:30.414355 21708 net.cpp:395] conv4_0_sTanH -> conv4_0 (in-place)
I0407 23:09:30.414556 21708 net.cpp:150] Setting up conv4_0_sTanH
I0407 23:09:30.414569 21708 net.cpp:157] Top shape: 64 100 42 42 (11289600)
I0407 23:09:30.414572 21708 net.cpp:165] Memory required for data: 1166133504
I0407 23:09:30.414575 21708 layer_factory.hpp:77] Creating layer conv4_0_postscale
I0407 23:09:30.414583 21708 net.cpp:100] Creating Layer conv4_0_postscale
I0407 23:09:30.414587 21708 net.cpp:434] conv4_0_postscale <- conv4_0
I0407 23:09:30.414592 21708 net.cpp:395] conv4_0_postscale -> conv4_0 (in-place)
I0407 23:09:30.414717 21708 net.cpp:150] Setting up conv4_0_postscale
I0407 23:09:30.414726 21708 net.cpp:157] Top shape: 64 100 42 42 (11289600)
I0407 23:09:30.414729 21708 net.cpp:165] Memory required for data: 1211291904
I0407 23:09:30.414733 21708 layer_factory.hpp:77] Creating layer pool4_0
I0407 23:09:30.414741 21708 net.cpp:100] Creating Layer pool4_0
I0407 23:09:30.414744 21708 net.cpp:434] pool4_0 <- conv4_0
I0407 23:09:30.414749 21708 net.cpp:408] pool4_0 -> pool4_0
I0407 23:09:30.414799 21708 net.cpp:150] Setting up pool4_0
I0407 23:09:30.414808 21708 net.cpp:157] Top shape: 64 100 21 21 (2822400)
I0407 23:09:30.414810 21708 net.cpp:165] Memory required for data: 1222581504
I0407 23:09:30.414813 21708 layer_factory.hpp:77] Creating layer conv4_1
I0407 23:09:30.414822 21708 net.cpp:100] Creating Layer conv4_1
I0407 23:09:30.414826 21708 net.cpp:434] conv4_1 <- pool4_0
I0407 23:09:30.414832 21708 net.cpp:408] conv4_1 -> conv4_1
I0407 23:09:30.419127 21708 net.cpp:150] Setting up conv4_1
I0407 23:09:30.419144 21708 net.cpp:157] Top shape: 64 150 18 18 (3110400)
I0407 23:09:30.419147 21708 net.cpp:165] Memory required for data: 1235023104
I0407 23:09:30.419154 21708 layer_factory.hpp:77] Creating layer conv4_1_prescale
I0407 23:09:30.419163 21708 net.cpp:100] Creating Layer conv4_1_prescale
I0407 23:09:30.419167 21708 net.cpp:434] conv4_1_prescale <- conv4_1
I0407 23:09:30.419173 21708 net.cpp:395] conv4_1_prescale -> conv4_1 (in-place)
I0407 23:09:30.419284 21708 net.cpp:150] Setting up conv4_1_prescale
I0407 23:09:30.419294 21708 net.cpp:157] Top shape: 64 150 18 18 (3110400)
I0407 23:09:30.419297 21708 net.cpp:165] Memory required for data: 1247464704
I0407 23:09:30.419302 21708 layer_factory.hpp:77] Creating layer conv4_1_sTanH
I0407 23:09:30.419307 21708 net.cpp:100] Creating Layer conv4_1_sTanH
I0407 23:09:30.419312 21708 net.cpp:434] conv4_1_sTanH <- conv4_1
I0407 23:09:30.419315 21708 net.cpp:395] conv4_1_sTanH -> conv4_1 (in-place)
I0407 23:09:30.420159 21708 net.cpp:150] Setting up conv4_1_sTanH
I0407 23:09:30.420177 21708 net.cpp:157] Top shape: 64 150 18 18 (3110400)
I0407 23:09:30.420181 21708 net.cpp:165] Memory required for data: 1259906304
I0407 23:09:30.420184 21708 layer_factory.hpp:77] Creating layer conv4_1_postscale
I0407 23:09:30.420192 21708 net.cpp:100] Creating Layer conv4_1_postscale
I0407 23:09:30.420195 21708 net.cpp:434] conv4_1_postscale <- conv4_1
I0407 23:09:30.420202 21708 net.cpp:395] conv4_1_postscale -> conv4_1 (in-place)
I0407 23:09:30.420325 21708 net.cpp:150] Setting up conv4_1_postscale
I0407 23:09:30.420336 21708 net.cpp:157] Top shape: 64 150 18 18 (3110400)
I0407 23:09:30.420339 21708 net.cpp:165] Memory required for data: 1272347904
I0407 23:09:30.420344 21708 layer_factory.hpp:77] Creating layer pool4_1
I0407 23:09:30.420351 21708 net.cpp:100] Creating Layer pool4_1
I0407 23:09:30.420353 21708 net.cpp:434] pool4_1 <- conv4_1
I0407 23:09:30.420361 21708 net.cpp:408] pool4_1 -> pool4_1
I0407 23:09:30.420406 21708 net.cpp:150] Setting up pool4_1
I0407 23:09:30.420416 21708 net.cpp:157] Top shape: 64 150 9 9 (777600)
I0407 23:09:30.420419 21708 net.cpp:165] Memory required for data: 1275458304
I0407 23:09:30.420423 21708 layer_factory.hpp:77] Creating layer conv4_2
I0407 23:09:30.420429 21708 net.cpp:100] Creating Layer conv4_2
I0407 23:09:30.420433 21708 net.cpp:434] conv4_2 <- pool4_1
I0407 23:09:30.420440 21708 net.cpp:408] conv4_2 -> conv4_2
I0407 23:09:30.426604 21708 net.cpp:150] Setting up conv4_2
I0407 23:09:30.426621 21708 net.cpp:157] Top shape: 64 250 6 6 (576000)
I0407 23:09:30.426650 21708 net.cpp:165] Memory required for data: 1277762304
I0407 23:09:30.426657 21708 layer_factory.hpp:77] Creating layer conv4_2_prescale
I0407 23:09:30.426666 21708 net.cpp:100] Creating Layer conv4_2_prescale
I0407 23:09:30.426671 21708 net.cpp:434] conv4_2_prescale <- conv4_2
I0407 23:09:30.426676 21708 net.cpp:395] conv4_2_prescale -> conv4_2 (in-place)
I0407 23:09:30.426787 21708 net.cpp:150] Setting up conv4_2_prescale
I0407 23:09:30.426797 21708 net.cpp:157] Top shape: 64 250 6 6 (576000)
I0407 23:09:30.426800 21708 net.cpp:165] Memory required for data: 1280066304
I0407 23:09:30.426805 21708 layer_factory.hpp:77] Creating layer conv4_2_sTanH
I0407 23:09:30.426812 21708 net.cpp:100] Creating Layer conv4_2_sTanH
I0407 23:09:30.426815 21708 net.cpp:434] conv4_2_sTanH <- conv4_2
I0407 23:09:30.426820 21708 net.cpp:395] conv4_2_sTanH -> conv4_2 (in-place)
I0407 23:09:30.427011 21708 net.cpp:150] Setting up conv4_2_sTanH
I0407 23:09:30.427024 21708 net.cpp:157] Top shape: 64 250 6 6 (576000)
I0407 23:09:30.427027 21708 net.cpp:165] Memory required for data: 1282370304
I0407 23:09:30.427031 21708 layer_factory.hpp:77] Creating layer conv4_2_postscale
I0407 23:09:30.427037 21708 net.cpp:100] Creating Layer conv4_2_postscale
I0407 23:09:30.427042 21708 net.cpp:434] conv4_2_postscale <- conv4_2
I0407 23:09:30.427048 21708 net.cpp:395] conv4_2_postscale -> conv4_2 (in-place)
I0407 23:09:30.427160 21708 net.cpp:150] Setting up conv4_2_postscale
I0407 23:09:30.427170 21708 net.cpp:157] Top shape: 64 250 6 6 (576000)
I0407 23:09:30.427172 21708 net.cpp:165] Memory required for data: 1284674304
I0407 23:09:30.427177 21708 layer_factory.hpp:77] Creating layer pool4_2
I0407 23:09:30.427183 21708 net.cpp:100] Creating Layer pool4_2
I0407 23:09:30.427186 21708 net.cpp:434] pool4_2 <- conv4_2
I0407 23:09:30.427191 21708 net.cpp:408] pool4_2 -> pool4_2
I0407 23:09:30.427240 21708 net.cpp:150] Setting up pool4_2
I0407 23:09:30.427249 21708 net.cpp:157] Top shape: 64 250 3 3 (144000)
I0407 23:09:30.427251 21708 net.cpp:165] Memory required for data: 1285250304
I0407 23:09:30.427255 21708 layer_factory.hpp:77] Creating layer fc4_4_300
I0407 23:09:30.427261 21708 net.cpp:100] Creating Layer fc4_4_300
I0407 23:09:30.427265 21708 net.cpp:434] fc4_4_300 <- pool4_2
I0407 23:09:30.427270 21708 net.cpp:408] fc4_4_300 -> fc4_4
I0407 23:09:30.432906 21708 net.cpp:150] Setting up fc4_4_300
I0407 23:09:30.432922 21708 net.cpp:157] Top shape: 64 300 (19200)
I0407 23:09:30.432925 21708 net.cpp:165] Memory required for data: 1285327104
I0407 23:09:30.432931 21708 layer_factory.hpp:77] Creating layer fc4_4_prescale
I0407 23:09:30.432940 21708 net.cpp:100] Creating Layer fc4_4_prescale
I0407 23:09:30.432945 21708 net.cpp:434] fc4_4_prescale <- fc4_4
I0407 23:09:30.432950 21708 net.cpp:395] fc4_4_prescale -> fc4_4 (in-place)
I0407 23:09:30.433055 21708 net.cpp:150] Setting up fc4_4_prescale
I0407 23:09:30.433064 21708 net.cpp:157] Top shape: 64 300 (19200)
I0407 23:09:30.433068 21708 net.cpp:165] Memory required for data: 1285403904
I0407 23:09:30.433071 21708 layer_factory.hpp:77] Creating layer fc4_4_sTanH
I0407 23:09:30.433079 21708 net.cpp:100] Creating Layer fc4_4_sTanH
I0407 23:09:30.433081 21708 net.cpp:434] fc4_4_sTanH <- fc4_4
I0407 23:09:30.433086 21708 net.cpp:395] fc4_4_sTanH -> fc4_4 (in-place)
I0407 23:09:30.433277 21708 net.cpp:150] Setting up fc4_4_sTanH
I0407 23:09:30.433290 21708 net.cpp:157] Top shape: 64 300 (19200)
I0407 23:09:30.433292 21708 net.cpp:165] Memory required for data: 1285480704
I0407 23:09:30.433295 21708 layer_factory.hpp:77] Creating layer fc4_4_postscale
I0407 23:09:30.433303 21708 net.cpp:100] Creating Layer fc4_4_postscale
I0407 23:09:30.433306 21708 net.cpp:434] fc4_4_postscale <- fc4_4
I0407 23:09:30.433313 21708 net.cpp:395] fc4_4_postscale -> fc4_4 (in-place)
I0407 23:09:30.433439 21708 net.cpp:150] Setting up fc4_4_postscale
I0407 23:09:30.433447 21708 net.cpp:157] Top shape: 64 300 (19200)
I0407 23:09:30.433450 21708 net.cpp:165] Memory required for data: 1285557504
I0407 23:09:30.433467 21708 layer_factory.hpp:77] Creating layer drop4_4
I0407 23:09:30.433475 21708 net.cpp:100] Creating Layer drop4_4
I0407 23:09:30.433478 21708 net.cpp:434] drop4_4 <- fc4_4
I0407 23:09:30.433488 21708 net.cpp:395] drop4_4 -> fc4_4 (in-place)
I0407 23:09:30.433517 21708 net.cpp:150] Setting up drop4_4
I0407 23:09:30.433526 21708 net.cpp:157] Top shape: 64 300 (19200)
I0407 23:09:30.433527 21708 net.cpp:165] Memory required for data: 1285634304
I0407 23:09:30.433531 21708 layer_factory.hpp:77] Creating layer fc4_5_67
I0407 23:09:30.433537 21708 net.cpp:100] Creating Layer fc4_5_67
I0407 23:09:30.433540 21708 net.cpp:434] fc4_5_67 <- fc4_4
I0407 23:09:30.433545 21708 net.cpp:408] fc4_5_67 -> fc4_5
I0407 23:09:30.433796 21708 net.cpp:150] Setting up fc4_5_67
I0407 23:09:30.433817 21708 net.cpp:157] Top shape: 64 67 (4288)
I0407 23:09:30.433820 21708 net.cpp:165] Memory required for data: 1285651456
I0407 23:09:30.433826 21708 layer_factory.hpp:77] Creating layer softmax_4
I0407 23:09:30.433831 21708 net.cpp:100] Creating Layer softmax_4
I0407 23:09:30.433835 21708 net.cpp:434] softmax_4 <- fc4_5
I0407 23:09:30.433840 21708 net.cpp:408] softmax_4 -> softmax_4
I0407 23:09:30.434089 21708 net.cpp:150] Setting up softmax_4
I0407 23:09:30.434100 21708 net.cpp:157] Top shape: 64 67 (4288)
I0407 23:09:30.434103 21708 net.cpp:165] Memory required for data: 1285668608
I0407 23:09:30.434106 21708 layer_factory.hpp:77] Creating layer data_1
I0407 23:09:30.434216 21708 net.cpp:100] Creating Layer data_1
I0407 23:09:30.434231 21708 net.cpp:408] data_1 -> data_1
I0407 23:09:30.434239 21708 net.cpp:408] data_1 -> label_1
I0407 23:09:30.435819 21778 db_lmdb.cpp:35] Opened lmdb ../local_data/lmdb/rtsd-r1/histeq/train/lmdb
I0407 23:09:30.436013 21708 data_layer.cpp:41] output data size: 64,3,48,48
I0407 23:09:30.441706 21708 net.cpp:150] Setting up data_1
I0407 23:09:30.441722 21708 net.cpp:157] Top shape: 64 3 48 48 (442368)
I0407 23:09:30.441733 21708 net.cpp:157] Top shape: 64 (64)
I0407 23:09:30.441735 21708 net.cpp:165] Memory required for data: 1287438336
I0407 23:09:30.441740 21708 layer_factory.hpp:77] Creating layer data_1_data_1_0_split
I0407 23:09:30.441746 21708 net.cpp:100] Creating Layer data_1_data_1_0_split
I0407 23:09:30.441751 21708 net.cpp:434] data_1_data_1_0_split <- data_1
I0407 23:09:30.441757 21708 net.cpp:408] data_1_data_1_0_split -> data_1_data_1_0_split_0
I0407 23:09:30.441764 21708 net.cpp:408] data_1_data_1_0_split -> data_1_data_1_0_split_1
I0407 23:09:30.441787 21708 net.cpp:408] data_1_data_1_0_split -> data_1_data_1_0_split_2
I0407 23:09:30.441793 21708 net.cpp:408] data_1_data_1_0_split -> data_1_data_1_0_split_3
I0407 23:09:30.441799 21708 net.cpp:408] data_1_data_1_0_split -> data_1_data_1_0_split_4
I0407 23:09:30.441983 21708 net.cpp:150] Setting up data_1_data_1_0_split
I0407 23:09:30.441994 21708 net.cpp:157] Top shape: 64 3 48 48 (442368)
I0407 23:09:30.442000 21708 net.cpp:157] Top shape: 64 3 48 48 (442368)
I0407 23:09:30.442004 21708 net.cpp:157] Top shape: 64 3 48 48 (442368)
I0407 23:09:30.442008 21708 net.cpp:157] Top shape: 64 3 48 48 (442368)
I0407 23:09:30.442011 21708 net.cpp:157] Top shape: 64 3 48 48 (442368)
I0407 23:09:30.442014 21708 net.cpp:165] Memory required for data: 1296285696
I0407 23:09:30.442018 21708 layer_factory.hpp:77] Creating layer conv5_0
I0407 23:09:30.442026 21708 net.cpp:100] Creating Layer conv5_0
I0407 23:09:30.442030 21708 net.cpp:434] conv5_0 <- data_1_data_1_0_split_0
I0407 23:09:30.442039 21708 net.cpp:408] conv5_0 -> conv5_0
I0407 23:09:30.444041 21708 net.cpp:150] Setting up conv5_0
I0407 23:09:30.444058 21708 net.cpp:157] Top shape: 64 100 42 42 (11289600)
I0407 23:09:30.444061 21708 net.cpp:165] Memory required for data: 1341444096
I0407 23:09:30.444068 21708 layer_factory.hpp:77] Creating layer conv5_0_prescale
I0407 23:09:30.444077 21708 net.cpp:100] Creating Layer conv5_0_prescale
I0407 23:09:30.444079 21708 net.cpp:434] conv5_0_prescale <- conv5_0
I0407 23:09:30.444088 21708 net.cpp:395] conv5_0_prescale -> conv5_0 (in-place)
I0407 23:09:30.444231 21708 net.cpp:150] Setting up conv5_0_prescale
I0407 23:09:30.444242 21708 net.cpp:157] Top shape: 64 100 42 42 (11289600)
I0407 23:09:30.444244 21708 net.cpp:165] Memory required for data: 1386602496
I0407 23:09:30.444249 21708 layer_factory.hpp:77] Creating layer conv5_0_sTanH
I0407 23:09:30.444255 21708 net.cpp:100] Creating Layer conv5_0_sTanH
I0407 23:09:30.444258 21708 net.cpp:434] conv5_0_sTanH <- conv5_0
I0407 23:09:30.444264 21708 net.cpp:395] conv5_0_sTanH -> conv5_0 (in-place)
I0407 23:09:30.445387 21708 net.cpp:150] Setting up conv5_0_sTanH
I0407 23:09:30.445403 21708 net.cpp:157] Top shape: 64 100 42 42 (11289600)
I0407 23:09:30.445407 21708 net.cpp:165] Memory required for data: 1431760896
I0407 23:09:30.445425 21708 layer_factory.hpp:77] Creating layer conv5_0_postscale
I0407 23:09:30.445432 21708 net.cpp:100] Creating Layer conv5_0_postscale
I0407 23:09:30.445436 21708 net.cpp:434] conv5_0_postscale <- conv5_0
I0407 23:09:30.445443 21708 net.cpp:395] conv5_0_postscale -> conv5_0 (in-place)
I0407 23:09:30.445574 21708 net.cpp:150] Setting up conv5_0_postscale
I0407 23:09:30.445585 21708 net.cpp:157] Top shape: 64 100 42 42 (11289600)
I0407 23:09:30.445590 21708 net.cpp:165] Memory required for data: 1476919296
I0407 23:09:30.445595 21708 layer_factory.hpp:77] Creating layer pool5_0
I0407 23:09:30.445600 21708 net.cpp:100] Creating Layer pool5_0
I0407 23:09:30.445603 21708 net.cpp:434] pool5_0 <- conv5_0
I0407 23:09:30.445608 21708 net.cpp:408] pool5_0 -> pool5_0
I0407 23:09:30.445658 21708 net.cpp:150] Setting up pool5_0
I0407 23:09:30.445667 21708 net.cpp:157] Top shape: 64 100 21 21 (2822400)
I0407 23:09:30.445669 21708 net.cpp:165] Memory required for data: 1488208896
I0407 23:09:30.445672 21708 layer_factory.hpp:77] Creating layer conv5_1
I0407 23:09:30.445682 21708 net.cpp:100] Creating Layer conv5_1
I0407 23:09:30.445685 21708 net.cpp:434] conv5_1 <- pool5_0
I0407 23:09:30.445693 21708 net.cpp:408] conv5_1 -> conv5_1
I0407 23:09:30.448063 21708 net.cpp:150] Setting up conv5_1
I0407 23:09:30.448081 21708 net.cpp:157] Top shape: 64 150 18 18 (3110400)
I0407 23:09:30.448084 21708 net.cpp:165] Memory required for data: 1500650496
I0407 23:09:30.448091 21708 layer_factory.hpp:77] Creating layer conv5_1_prescale
I0407 23:09:30.448099 21708 net.cpp:100] Creating Layer conv5_1_prescale
I0407 23:09:30.448103 21708 net.cpp:434] conv5_1_prescale <- conv5_1
I0407 23:09:30.448109 21708 net.cpp:395] conv5_1_prescale -> conv5_1 (in-place)
I0407 23:09:30.448261 21708 net.cpp:150] Setting up conv5_1_prescale
I0407 23:09:30.448276 21708 net.cpp:157] Top shape: 64 150 18 18 (3110400)
I0407 23:09:30.448278 21708 net.cpp:165] Memory required for data: 1513092096
I0407 23:09:30.448283 21708 layer_factory.hpp:77] Creating layer conv5_1_sTanH
I0407 23:09:30.448289 21708 net.cpp:100] Creating Layer conv5_1_sTanH
I0407 23:09:30.448292 21708 net.cpp:434] conv5_1_sTanH <- conv5_1
I0407 23:09:30.448297 21708 net.cpp:395] conv5_1_sTanH -> conv5_1 (in-place)
I0407 23:09:30.449110 21708 net.cpp:150] Setting up conv5_1_sTanH
I0407 23:09:30.449127 21708 net.cpp:157] Top shape: 64 150 18 18 (3110400)
I0407 23:09:30.449131 21708 net.cpp:165] Memory required for data: 1525533696
I0407 23:09:30.449134 21708 layer_factory.hpp:77] Creating layer conv5_1_postscale
I0407 23:09:30.449141 21708 net.cpp:100] Creating Layer conv5_1_postscale
I0407 23:09:30.449146 21708 net.cpp:434] conv5_1_postscale <- conv5_1
I0407 23:09:30.449152 21708 net.cpp:395] conv5_1_postscale -> conv5_1 (in-place)
I0407 23:09:30.449271 21708 net.cpp:150] Setting up conv5_1_postscale
I0407 23:09:30.449280 21708 net.cpp:157] Top shape: 64 150 18 18 (3110400)
I0407 23:09:30.449283 21708 net.cpp:165] Memory required for data: 1537975296
I0407 23:09:30.449288 21708 layer_factory.hpp:77] Creating layer pool5_1
I0407 23:09:30.449295 21708 net.cpp:100] Creating Layer pool5_1
I0407 23:09:30.449297 21708 net.cpp:434] pool5_1 <- conv5_1
I0407 23:09:30.449304 21708 net.cpp:408] pool5_1 -> pool5_1
I0407 23:09:30.449350 21708 net.cpp:150] Setting up pool5_1
I0407 23:09:30.449373 21708 net.cpp:157] Top shape: 64 150 9 9 (777600)
I0407 23:09:30.449376 21708 net.cpp:165] Memory required for data: 1541085696
I0407 23:09:30.449379 21708 layer_factory.hpp:77] Creating layer conv5_2
I0407 23:09:30.449388 21708 net.cpp:100] Creating Layer conv5_2
I0407 23:09:30.449391 21708 net.cpp:434] conv5_2 <- pool5_1
I0407 23:09:30.449398 21708 net.cpp:408] conv5_2 -> conv5_2
I0407 23:09:30.455773 21708 net.cpp:150] Setting up conv5_2
I0407 23:09:30.455791 21708 net.cpp:157] Top shape: 64 250 6 6 (576000)
I0407 23:09:30.455796 21708 net.cpp:165] Memory required for data: 1543389696
I0407 23:09:30.455802 21708 layer_factory.hpp:77] Creating layer conv5_2_prescale
I0407 23:09:30.455813 21708 net.cpp:100] Creating Layer conv5_2_prescale
I0407 23:09:30.455817 21708 net.cpp:434] conv5_2_prescale <- conv5_2
I0407 23:09:30.455822 21708 net.cpp:395] conv5_2_prescale -> conv5_2 (in-place)
I0407 23:09:30.455948 21708 net.cpp:150] Setting up conv5_2_prescale
I0407 23:09:30.455960 21708 net.cpp:157] Top shape: 64 250 6 6 (576000)
I0407 23:09:30.455963 21708 net.cpp:165] Memory required for data: 1545693696
I0407 23:09:30.455968 21708 layer_factory.hpp:77] Creating layer conv5_2_sTanH
I0407 23:09:30.455976 21708 net.cpp:100] Creating Layer conv5_2_sTanH
I0407 23:09:30.455979 21708 net.cpp:434] conv5_2_sTanH <- conv5_2
I0407 23:09:30.455983 21708 net.cpp:395] conv5_2_sTanH -> conv5_2 (in-place)
I0407 23:09:30.456179 21708 net.cpp:150] Setting up conv5_2_sTanH
I0407 23:09:30.456193 21708 net.cpp:157] Top shape: 64 250 6 6 (576000)
I0407 23:09:30.456197 21708 net.cpp:165] Memory required for data: 1547997696
I0407 23:09:30.456199 21708 layer_factory.hpp:77] Creating layer conv5_2_postscale
I0407 23:09:30.456207 21708 net.cpp:100] Creating Layer conv5_2_postscale
I0407 23:09:30.456210 21708 net.cpp:434] conv5_2_postscale <- conv5_2
I0407 23:09:30.456218 21708 net.cpp:395] conv5_2_postscale -> conv5_2 (in-place)
I0407 23:09:30.456332 21708 net.cpp:150] Setting up conv5_2_postscale
I0407 23:09:30.456341 21708 net.cpp:157] Top shape: 64 250 6 6 (576000)
I0407 23:09:30.456344 21708 net.cpp:165] Memory required for data: 1550301696
I0407 23:09:30.456349 21708 layer_factory.hpp:77] Creating layer pool5_2
I0407 23:09:30.456383 21708 net.cpp:100] Creating Layer pool5_2
I0407 23:09:30.456389 21708 net.cpp:434] pool5_2 <- conv5_2
I0407 23:09:30.456394 21708 net.cpp:408] pool5_2 -> pool5_2
I0407 23:09:30.456449 21708 net.cpp:150] Setting up pool5_2
I0407 23:09:30.456459 21708 net.cpp:157] Top shape: 64 250 3 3 (144000)
I0407 23:09:30.456461 21708 net.cpp:165] Memory required for data: 1550877696
I0407 23:09:30.456465 21708 layer_factory.hpp:77] Creating layer fc5_4_300
I0407 23:09:30.456470 21708 net.cpp:100] Creating Layer fc5_4_300
I0407 23:09:30.456475 21708 net.cpp:434] fc5_4_300 <- pool5_2
I0407 23:09:30.456480 21708 net.cpp:408] fc5_4_300 -> fc5_4
I0407 23:09:30.461944 21708 net.cpp:150] Setting up fc5_4_300
I0407 23:09:30.461961 21708 net.cpp:157] Top shape: 64 300 (19200)
I0407 23:09:30.461964 21708 net.cpp:165] Memory required for data: 1550954496
I0407 23:09:30.461971 21708 layer_factory.hpp:77] Creating layer fc5_4_prescale
I0407 23:09:30.461979 21708 net.cpp:100] Creating Layer fc5_4_prescale
I0407 23:09:30.461983 21708 net.cpp:434] fc5_4_prescale <- fc5_4
I0407 23:09:30.461989 21708 net.cpp:395] fc5_4_prescale -> fc5_4 (in-place)
I0407 23:09:30.462100 21708 net.cpp:150] Setting up fc5_4_prescale
I0407 23:09:30.462108 21708 net.cpp:157] Top shape: 64 300 (19200)
I0407 23:09:30.462111 21708 net.cpp:165] Memory required for data: 1551031296
I0407 23:09:30.462116 21708 layer_factory.hpp:77] Creating layer fc5_4_sTanH
I0407 23:09:30.462121 21708 net.cpp:100] Creating Layer fc5_4_sTanH
I0407 23:09:30.462124 21708 net.cpp:434] fc5_4_sTanH <- fc5_4
I0407 23:09:30.462129 21708 net.cpp:395] fc5_4_sTanH -> fc5_4 (in-place)
I0407 23:09:30.462337 21708 net.cpp:150] Setting up fc5_4_sTanH
I0407 23:09:30.462352 21708 net.cpp:157] Top shape: 64 300 (19200)
I0407 23:09:30.462357 21708 net.cpp:165] Memory required for data: 1551108096
I0407 23:09:30.462383 21708 layer_factory.hpp:77] Creating layer fc5_4_postscale
I0407 23:09:30.462397 21708 net.cpp:100] Creating Layer fc5_4_postscale
I0407 23:09:30.462404 21708 net.cpp:434] fc5_4_postscale <- fc5_4
I0407 23:09:30.462409 21708 net.cpp:395] fc5_4_postscale -> fc5_4 (in-place)
I0407 23:09:30.462533 21708 net.cpp:150] Setting up fc5_4_postscale
I0407 23:09:30.462544 21708 net.cpp:157] Top shape: 64 300 (19200)
I0407 23:09:30.462548 21708 net.cpp:165] Memory required for data: 1551184896
I0407 23:09:30.462553 21708 layer_factory.hpp:77] Creating layer drop5_4
I0407 23:09:30.462559 21708 net.cpp:100] Creating Layer drop5_4
I0407 23:09:30.462563 21708 net.cpp:434] drop5_4 <- fc5_4
I0407 23:09:30.462568 21708 net.cpp:395] drop5_4 -> fc5_4 (in-place)
I0407 23:09:30.462601 21708 net.cpp:150] Setting up drop5_4
I0407 23:09:30.462610 21708 net.cpp:157] Top shape: 64 300 (19200)
I0407 23:09:30.462612 21708 net.cpp:165] Memory required for data: 1551261696
I0407 23:09:30.462615 21708 layer_factory.hpp:77] Creating layer fc5_5_67
I0407 23:09:30.462621 21708 net.cpp:100] Creating Layer fc5_5_67
I0407 23:09:30.462625 21708 net.cpp:434] fc5_5_67 <- fc5_4
I0407 23:09:30.462630 21708 net.cpp:408] fc5_5_67 -> fc5_5
I0407 23:09:30.462914 21708 net.cpp:150] Setting up fc5_5_67
I0407 23:09:30.462926 21708 net.cpp:157] Top shape: 64 67 (4288)
I0407 23:09:30.462929 21708 net.cpp:165] Memory required for data: 1551278848
I0407 23:09:30.462936 21708 layer_factory.hpp:77] Creating layer softmax_5
I0407 23:09:30.462941 21708 net.cpp:100] Creating Layer softmax_5
I0407 23:09:30.462945 21708 net.cpp:434] softmax_5 <- fc5_5
I0407 23:09:30.462951 21708 net.cpp:408] softmax_5 -> softmax_5
I0407 23:09:30.463228 21708 net.cpp:150] Setting up softmax_5
I0407 23:09:30.463241 21708 net.cpp:157] Top shape: 64 67 (4288)
I0407 23:09:30.463244 21708 net.cpp:165] Memory required for data: 1551296000
I0407 23:09:30.463248 21708 layer_factory.hpp:77] Creating layer conv6_0
I0407 23:09:30.463258 21708 net.cpp:100] Creating Layer conv6_0
I0407 23:09:30.463261 21708 net.cpp:434] conv6_0 <- data_1_data_1_0_split_1
I0407 23:09:30.463268 21708 net.cpp:408] conv6_0 -> conv6_0
I0407 23:09:30.464944 21708 net.cpp:150] Setting up conv6_0
I0407 23:09:30.464962 21708 net.cpp:157] Top shape: 64 100 42 42 (11289600)
I0407 23:09:30.464977 21708 net.cpp:165] Memory required for data: 1596454400
I0407 23:09:30.464983 21708 layer_factory.hpp:77] Creating layer conv6_0_prescale
I0407 23:09:30.464993 21708 net.cpp:100] Creating Layer conv6_0_prescale
I0407 23:09:30.464996 21708 net.cpp:434] conv6_0_prescale <- conv6_0
I0407 23:09:30.465003 21708 net.cpp:395] conv6_0_prescale -> conv6_0 (in-place)
I0407 23:09:30.465122 21708 net.cpp:150] Setting up conv6_0_prescale
I0407 23:09:30.465132 21708 net.cpp:157] Top shape: 64 100 42 42 (11289600)
I0407 23:09:30.465137 21708 net.cpp:165] Memory required for data: 1641612800
I0407 23:09:30.465140 21708 layer_factory.hpp:77] Creating layer conv6_0_sTanH
I0407 23:09:30.465147 21708 net.cpp:100] Creating Layer conv6_0_sTanH
I0407 23:09:30.465149 21708 net.cpp:434] conv6_0_sTanH <- conv6_0
I0407 23:09:30.465155 21708 net.cpp:395] conv6_0_sTanH -> conv6_0 (in-place)
I0407 23:09:30.466006 21708 net.cpp:150] Setting up conv6_0_sTanH
I0407 23:09:30.466027 21708 net.cpp:157] Top shape: 64 100 42 42 (11289600)
I0407 23:09:30.466029 21708 net.cpp:165] Memory required for data: 1686771200
I0407 23:09:30.466033 21708 layer_factory.hpp:77] Creating layer conv6_0_postscale
I0407 23:09:30.466042 21708 net.cpp:100] Creating Layer conv6_0_postscale
I0407 23:09:30.466044 21708 net.cpp:434] conv6_0_postscale <- conv6_0
I0407 23:09:30.466051 21708 net.cpp:395] conv6_0_postscale -> conv6_0 (in-place)
I0407 23:09:30.466204 21708 net.cpp:150] Setting up conv6_0_postscale
I0407 23:09:30.466217 21708 net.cpp:157] Top shape: 64 100 42 42 (11289600)
I0407 23:09:30.466220 21708 net.cpp:165] Memory required for data: 1731929600
I0407 23:09:30.466226 21708 layer_factory.hpp:77] Creating layer pool6_0
I0407 23:09:30.466233 21708 net.cpp:100] Creating Layer pool6_0
I0407 23:09:30.466248 21708 net.cpp:434] pool6_0 <- conv6_0
I0407 23:09:30.466256 21708 net.cpp:408] pool6_0 -> pool6_0
I0407 23:09:30.466312 21708 net.cpp:150] Setting up pool6_0
I0407 23:09:30.466321 21708 net.cpp:157] Top shape: 64 100 21 21 (2822400)
I0407 23:09:30.466325 21708 net.cpp:165] Memory required for data: 1743219200
I0407 23:09:30.466327 21708 layer_factory.hpp:77] Creating layer conv6_1
I0407 23:09:30.466336 21708 net.cpp:100] Creating Layer conv6_1
I0407 23:09:30.466341 21708 net.cpp:434] conv6_1 <- pool6_0
I0407 23:09:30.466347 21708 net.cpp:408] conv6_1 -> conv6_1
I0407 23:09:30.469722 21708 net.cpp:150] Setting up conv6_1
I0407 23:09:30.469738 21708 net.cpp:157] Top shape: 64 150 18 18 (3110400)
I0407 23:09:30.469753 21708 net.cpp:165] Memory required for data: 1755660800
I0407 23:09:30.469761 21708 layer_factory.hpp:77] Creating layer conv6_1_prescale
I0407 23:09:30.469770 21708 net.cpp:100] Creating Layer conv6_1_prescale
I0407 23:09:30.469774 21708 net.cpp:434] conv6_1_prescale <- conv6_1
I0407 23:09:30.469780 21708 net.cpp:395] conv6_1_prescale -> conv6_1 (in-place)
I0407 23:09:30.469902 21708 net.cpp:150] Setting up conv6_1_prescale
I0407 23:09:30.469913 21708 net.cpp:157] Top shape: 64 150 18 18 (3110400)
I0407 23:09:30.469915 21708 net.cpp:165] Memory required for data: 1768102400
I0407 23:09:30.469921 21708 layer_factory.hpp:77] Creating layer conv6_1_sTanH
I0407 23:09:30.469929 21708 net.cpp:100] Creating Layer conv6_1_sTanH
I0407 23:09:30.469934 21708 net.cpp:434] conv6_1_sTanH <- conv6_1
I0407 23:09:30.469938 21708 net.cpp:395] conv6_1_sTanH -> conv6_1 (in-place)
I0407 23:09:30.470774 21708 net.cpp:150] Setting up conv6_1_sTanH
I0407 23:09:30.470791 21708 net.cpp:157] Top shape: 64 150 18 18 (3110400)
I0407 23:09:30.470795 21708 net.cpp:165] Memory required for data: 1780544000
I0407 23:09:30.470798 21708 layer_factory.hpp:77] Creating layer conv6_1_postscale
I0407 23:09:30.470808 21708 net.cpp:100] Creating Layer conv6_1_postscale
I0407 23:09:30.470811 21708 net.cpp:434] conv6_1_postscale <- conv6_1
I0407 23:09:30.470819 21708 net.cpp:395] conv6_1_postscale -> conv6_1 (in-place)
I0407 23:09:30.470944 21708 net.cpp:150] Setting up conv6_1_postscale
I0407 23:09:30.470954 21708 net.cpp:157] Top shape: 64 150 18 18 (3110400)
I0407 23:09:30.470957 21708 net.cpp:165] Memory required for data: 1792985600
I0407 23:09:30.470963 21708 layer_factory.hpp:77] Creating layer pool6_1
I0407 23:09:30.470970 21708 net.cpp:100] Creating Layer pool6_1
I0407 23:09:30.470976 21708 net.cpp:434] pool6_1 <- conv6_1
I0407 23:09:30.470983 21708 net.cpp:408] pool6_1 -> pool6_1
I0407 23:09:30.471050 21708 net.cpp:150] Setting up pool6_1
I0407 23:09:30.471060 21708 net.cpp:157] Top shape: 64 150 9 9 (777600)
I0407 23:09:30.471063 21708 net.cpp:165] Memory required for data: 1796096000
I0407 23:09:30.471066 21708 layer_factory.hpp:77] Creating layer conv6_2
I0407 23:09:30.471076 21708 net.cpp:100] Creating Layer conv6_2
I0407 23:09:30.471081 21708 net.cpp:434] conv6_2 <- pool6_1
I0407 23:09:30.471087 21708 net.cpp:408] conv6_2 -> conv6_2
I0407 23:09:30.477268 21708 net.cpp:150] Setting up conv6_2
I0407 23:09:30.477285 21708 net.cpp:157] Top shape: 64 250 6 6 (576000)
I0407 23:09:30.477300 21708 net.cpp:165] Memory required for data: 1798400000
I0407 23:09:30.477308 21708 layer_factory.hpp:77] Creating layer conv6_2_prescale
I0407 23:09:30.477318 21708 net.cpp:100] Creating Layer conv6_2_prescale
I0407 23:09:30.477321 21708 net.cpp:434] conv6_2_prescale <- conv6_2
I0407 23:09:30.477326 21708 net.cpp:395] conv6_2_prescale -> conv6_2 (in-place)
I0407 23:09:30.477445 21708 net.cpp:150] Setting up conv6_2_prescale
I0407 23:09:30.477457 21708 net.cpp:157] Top shape: 64 250 6 6 (576000)
I0407 23:09:30.477459 21708 net.cpp:165] Memory required for data: 1800704000
I0407 23:09:30.477464 21708 layer_factory.hpp:77] Creating layer conv6_2_sTanH
I0407 23:09:30.477469 21708 net.cpp:100] Creating Layer conv6_2_sTanH
I0407 23:09:30.477473 21708 net.cpp:434] conv6_2_sTanH <- conv6_2
I0407 23:09:30.477494 21708 net.cpp:395] conv6_2_sTanH -> conv6_2 (in-place)
I0407 23:09:30.477694 21708 net.cpp:150] Setting up conv6_2_sTanH
I0407 23:09:30.477706 21708 net.cpp:157] Top shape: 64 250 6 6 (576000)
I0407 23:09:30.477710 21708 net.cpp:165] Memory required for data: 1803008000
I0407 23:09:30.477713 21708 layer_factory.hpp:77] Creating layer conv6_2_postscale
I0407 23:09:30.477720 21708 net.cpp:100] Creating Layer conv6_2_postscale
I0407 23:09:30.477725 21708 net.cpp:434] conv6_2_postscale <- conv6_2
I0407 23:09:30.477733 21708 net.cpp:395] conv6_2_postscale -> conv6_2 (in-place)
I0407 23:09:30.477864 21708 net.cpp:150] Setting up conv6_2_postscale
I0407 23:09:30.477877 21708 net.cpp:157] Top shape: 64 250 6 6 (576000)
I0407 23:09:30.477881 21708 net.cpp:165] Memory required for data: 1805312000
I0407 23:09:30.477886 21708 layer_factory.hpp:77] Creating layer pool6_2
I0407 23:09:30.477893 21708 net.cpp:100] Creating Layer pool6_2
I0407 23:09:30.477896 21708 net.cpp:434] pool6_2 <- conv6_2
I0407 23:09:30.477901 21708 net.cpp:408] pool6_2 -> pool6_2
I0407 23:09:30.477952 21708 net.cpp:150] Setting up pool6_2
I0407 23:09:30.477960 21708 net.cpp:157] Top shape: 64 250 3 3 (144000)
I0407 23:09:30.477963 21708 net.cpp:165] Memory required for data: 1805888000
I0407 23:09:30.477967 21708 layer_factory.hpp:77] Creating layer fc6_4_300
I0407 23:09:30.477972 21708 net.cpp:100] Creating Layer fc6_4_300
I0407 23:09:30.477975 21708 net.cpp:434] fc6_4_300 <- pool6_2
I0407 23:09:30.477982 21708 net.cpp:408] fc6_4_300 -> fc6_4
I0407 23:09:30.483496 21708 net.cpp:150] Setting up fc6_4_300
I0407 23:09:30.483513 21708 net.cpp:157] Top shape: 64 300 (19200)
I0407 23:09:30.483516 21708 net.cpp:165] Memory required for data: 1805964800
I0407 23:09:30.483523 21708 layer_factory.hpp:77] Creating layer fc6_4_prescale
I0407 23:09:30.483532 21708 net.cpp:100] Creating Layer fc6_4_prescale
I0407 23:09:30.483536 21708 net.cpp:434] fc6_4_prescale <- fc6_4
I0407 23:09:30.483541 21708 net.cpp:395] fc6_4_prescale -> fc6_4 (in-place)
I0407 23:09:30.483651 21708 net.cpp:150] Setting up fc6_4_prescale
I0407 23:09:30.483661 21708 net.cpp:157] Top shape: 64 300 (19200)
I0407 23:09:30.483664 21708 net.cpp:165] Memory required for data: 1806041600
I0407 23:09:30.483669 21708 layer_factory.hpp:77] Creating layer fc6_4_sTanH
I0407 23:09:30.483674 21708 net.cpp:100] Creating Layer fc6_4_sTanH
I0407 23:09:30.483677 21708 net.cpp:434] fc6_4_sTanH <- fc6_4
I0407 23:09:30.483683 21708 net.cpp:395] fc6_4_sTanH -> fc6_4 (in-place)
I0407 23:09:30.483892 21708 net.cpp:150] Setting up fc6_4_sTanH
I0407 23:09:30.483906 21708 net.cpp:157] Top shape: 64 300 (19200)
I0407 23:09:30.483908 21708 net.cpp:165] Memory required for data: 1806118400
I0407 23:09:30.483911 21708 layer_factory.hpp:77] Creating layer fc6_4_postscale
I0407 23:09:30.483921 21708 net.cpp:100] Creating Layer fc6_4_postscale
I0407 23:09:30.483924 21708 net.cpp:434] fc6_4_postscale <- fc6_4
I0407 23:09:30.483932 21708 net.cpp:395] fc6_4_postscale -> fc6_4 (in-place)
I0407 23:09:30.484050 21708 net.cpp:150] Setting up fc6_4_postscale
I0407 23:09:30.484058 21708 net.cpp:157] Top shape: 64 300 (19200)
I0407 23:09:30.484061 21708 net.cpp:165] Memory required for data: 1806195200
I0407 23:09:30.484066 21708 layer_factory.hpp:77] Creating layer drop6_4
I0407 23:09:30.484076 21708 net.cpp:100] Creating Layer drop6_4
I0407 23:09:30.484082 21708 net.cpp:434] drop6_4 <- fc6_4
I0407 23:09:30.484086 21708 net.cpp:395] drop6_4 -> fc6_4 (in-place)
I0407 23:09:30.484117 21708 net.cpp:150] Setting up drop6_4
I0407 23:09:30.484124 21708 net.cpp:157] Top shape: 64 300 (19200)
I0407 23:09:30.484127 21708 net.cpp:165] Memory required for data: 1806272000
I0407 23:09:30.484129 21708 layer_factory.hpp:77] Creating layer fc6_5_67
I0407 23:09:30.484138 21708 net.cpp:100] Creating Layer fc6_5_67
I0407 23:09:30.484140 21708 net.cpp:434] fc6_5_67 <- fc6_4
I0407 23:09:30.484145 21708 net.cpp:408] fc6_5_67 -> fc6_5
I0407 23:09:30.484412 21708 net.cpp:150] Setting up fc6_5_67
I0407 23:09:30.484422 21708 net.cpp:157] Top shape: 64 67 (4288)
I0407 23:09:30.484437 21708 net.cpp:165] Memory required for data: 1806289152
I0407 23:09:30.484446 21708 layer_factory.hpp:77] Creating layer softmax_6
I0407 23:09:30.484450 21708 net.cpp:100] Creating Layer softmax_6
I0407 23:09:30.484454 21708 net.cpp:434] softmax_6 <- fc6_5
I0407 23:09:30.484458 21708 net.cpp:408] softmax_6 -> softmax_6
I0407 23:09:30.484735 21708 net.cpp:150] Setting up softmax_6
I0407 23:09:30.484747 21708 net.cpp:157] Top shape: 64 67 (4288)
I0407 23:09:30.484750 21708 net.cpp:165] Memory required for data: 1806306304
I0407 23:09:30.484755 21708 layer_factory.hpp:77] Creating layer conv7_0
I0407 23:09:30.484763 21708 net.cpp:100] Creating Layer conv7_0
I0407 23:09:30.484769 21708 net.cpp:434] conv7_0 <- data_1_data_1_0_split_2
I0407 23:09:30.484776 21708 net.cpp:408] conv7_0 -> conv7_0
I0407 23:09:30.486870 21708 net.cpp:150] Setting up conv7_0
I0407 23:09:30.486886 21708 net.cpp:157] Top shape: 64 100 42 42 (11289600)
I0407 23:09:30.486889 21708 net.cpp:165] Memory required for data: 1851464704
I0407 23:09:30.486896 21708 layer_factory.hpp:77] Creating layer conv7_0_prescale
I0407 23:09:30.486906 21708 net.cpp:100] Creating Layer conv7_0_prescale
I0407 23:09:30.486912 21708 net.cpp:434] conv7_0_prescale <- conv7_0
I0407 23:09:30.486918 21708 net.cpp:395] conv7_0_prescale -> conv7_0 (in-place)
I0407 23:09:30.487040 21708 net.cpp:150] Setting up conv7_0_prescale
I0407 23:09:30.487049 21708 net.cpp:157] Top shape: 64 100 42 42 (11289600)
I0407 23:09:30.487052 21708 net.cpp:165] Memory required for data: 1896623104
I0407 23:09:30.487076 21708 layer_factory.hpp:77] Creating layer conv7_0_sTanH
I0407 23:09:30.487084 21708 net.cpp:100] Creating Layer conv7_0_sTanH
I0407 23:09:30.487087 21708 net.cpp:434] conv7_0_sTanH <- conv7_0
I0407 23:09:30.487092 21708 net.cpp:395] conv7_0_sTanH -> conv7_0 (in-place)
I0407 23:09:30.488912 21708 net.cpp:150] Setting up conv7_0_sTanH
I0407 23:09:30.488929 21708 net.cpp:157] Top shape: 64 100 42 42 (11289600)
I0407 23:09:30.488932 21708 net.cpp:165] Memory required for data: 1941781504
I0407 23:09:30.488936 21708 layer_factory.hpp:77] Creating layer conv7_0_postscale
I0407 23:09:30.488945 21708 net.cpp:100] Creating Layer conv7_0_postscale
I0407 23:09:30.488948 21708 net.cpp:434] conv7_0_postscale <- conv7_0
I0407 23:09:30.488955 21708 net.cpp:395] conv7_0_postscale -> conv7_0 (in-place)
I0407 23:09:30.489084 21708 net.cpp:150] Setting up conv7_0_postscale
I0407 23:09:30.489094 21708 net.cpp:157] Top shape: 64 100 42 42 (11289600)
I0407 23:09:30.489097 21708 net.cpp:165] Memory required for data: 1986939904
I0407 23:09:30.489102 21708 layer_factory.hpp:77] Creating layer pool7_0
I0407 23:09:30.489109 21708 net.cpp:100] Creating Layer pool7_0
I0407 23:09:30.489112 21708 net.cpp:434] pool7_0 <- conv7_0
I0407 23:09:30.489118 21708 net.cpp:408] pool7_0 -> pool7_0
I0407 23:09:30.489168 21708 net.cpp:150] Setting up pool7_0
I0407 23:09:30.489177 21708 net.cpp:157] Top shape: 64 100 21 21 (2822400)
I0407 23:09:30.489181 21708 net.cpp:165] Memory required for data: 1998229504
I0407 23:09:30.489183 21708 layer_factory.hpp:77] Creating layer conv7_1
I0407 23:09:30.489193 21708 net.cpp:100] Creating Layer conv7_1
I0407 23:09:30.489200 21708 net.cpp:434] conv7_1 <- pool7_0
I0407 23:09:30.489205 21708 net.cpp:408] conv7_1 -> conv7_1
I0407 23:09:30.492400 21708 net.cpp:150] Setting up conv7_1
I0407 23:09:30.492418 21708 net.cpp:157] Top shape: 64 150 18 18 (3110400)
I0407 23:09:30.492421 21708 net.cpp:165] Memory required for data: 2010671104
I0407 23:09:30.492429 21708 layer_factory.hpp:77] Creating layer conv7_1_prescale
I0407 23:09:30.492437 21708 net.cpp:100] Creating Layer conv7_1_prescale
I0407 23:09:30.492444 21708 net.cpp:434] conv7_1_prescale <- conv7_1
I0407 23:09:30.492449 21708 net.cpp:395] conv7_1_prescale -> conv7_1 (in-place)
I0407 23:09:30.492569 21708 net.cpp:150] Setting up conv7_1_prescale
I0407 23:09:30.492579 21708 net.cpp:157] Top shape: 64 150 18 18 (3110400)
I0407 23:09:30.492583 21708 net.cpp:165] Memory required for data: 2023112704
I0407 23:09:30.492588 21708 layer_factory.hpp:77] Creating layer conv7_1_sTanH
I0407 23:09:30.492605 21708 net.cpp:100] Creating Layer conv7_1_sTanH
I0407 23:09:30.492610 21708 net.cpp:434] conv7_1_sTanH <- conv7_1
I0407 23:09:30.492616 21708 net.cpp:395] conv7_1_sTanH -> conv7_1 (in-place)
I0407 23:09:30.492816 21708 net.cpp:150] Setting up conv7_1_sTanH
I0407 23:09:30.492830 21708 net.cpp:157] Top shape: 64 150 18 18 (3110400)
I0407 23:09:30.492832 21708 net.cpp:165] Memory required for data: 2035554304
I0407 23:09:30.492836 21708 layer_factory.hpp:77] Creating layer conv7_1_postscale
I0407 23:09:30.492844 21708 net.cpp:100] Creating Layer conv7_1_postscale
I0407 23:09:30.492847 21708 net.cpp:434] conv7_1_postscale <- conv7_1
I0407 23:09:30.492852 21708 net.cpp:395] conv7_1_postscale -> conv7_1 (in-place)
I0407 23:09:30.492974 21708 net.cpp:150] Setting up conv7_1_postscale
I0407 23:09:30.492985 21708 net.cpp:157] Top shape: 64 150 18 18 (3110400)
I0407 23:09:30.492988 21708 net.cpp:165] Memory required for data: 2047995904
I0407 23:09:30.492993 21708 layer_factory.hpp:77] Creating layer pool7_1
I0407 23:09:30.493000 21708 net.cpp:100] Creating Layer pool7_1
I0407 23:09:30.493002 21708 net.cpp:434] pool7_1 <- conv7_1
I0407 23:09:30.493007 21708 net.cpp:408] pool7_1 -> pool7_1
I0407 23:09:30.493062 21708 net.cpp:150] Setting up pool7_1
I0407 23:09:30.493070 21708 net.cpp:157] Top shape: 64 150 9 9 (777600)
I0407 23:09:30.493073 21708 net.cpp:165] Memory required for data: 2051106304
I0407 23:09:30.493077 21708 layer_factory.hpp:77] Creating layer conv7_2
I0407 23:09:30.493085 21708 net.cpp:100] Creating Layer conv7_2
I0407 23:09:30.493089 21708 net.cpp:434] conv7_2 <- pool7_1
I0407 23:09:30.493095 21708 net.cpp:408] conv7_2 -> conv7_2
I0407 23:09:30.500082 21708 net.cpp:150] Setting up conv7_2
I0407 23:09:30.500099 21708 net.cpp:157] Top shape: 64 250 6 6 (576000)
I0407 23:09:30.500103 21708 net.cpp:165] Memory required for data: 2053410304
I0407 23:09:30.500110 21708 layer_factory.hpp:77] Creating layer conv7_2_prescale
I0407 23:09:30.500118 21708 net.cpp:100] Creating Layer conv7_2_prescale
I0407 23:09:30.500121 21708 net.cpp:434] conv7_2_prescale <- conv7_2
I0407 23:09:30.500128 21708 net.cpp:395] conv7_2_prescale -> conv7_2 (in-place)
I0407 23:09:30.500252 21708 net.cpp:150] Setting up conv7_2_prescale
I0407 23:09:30.500263 21708 net.cpp:157] Top shape: 64 250 6 6 (576000)
I0407 23:09:30.500267 21708 net.cpp:165] Memory required for data: 2055714304
I0407 23:09:30.500270 21708 layer_factory.hpp:77] Creating layer conv7_2_sTanH
I0407 23:09:30.500277 21708 net.cpp:100] Creating Layer conv7_2_sTanH
I0407 23:09:30.500279 21708 net.cpp:434] conv7_2_sTanH <- conv7_2
I0407 23:09:30.500285 21708 net.cpp:395] conv7_2_sTanH -> conv7_2 (in-place)
I0407 23:09:30.500485 21708 net.cpp:150] Setting up conv7_2_sTanH
I0407 23:09:30.500497 21708 net.cpp:157] Top shape: 64 250 6 6 (576000)
I0407 23:09:30.500500 21708 net.cpp:165] Memory required for data: 2058018304
I0407 23:09:30.500504 21708 layer_factory.hpp:77] Creating layer conv7_2_postscale
I0407 23:09:30.500512 21708 net.cpp:100] Creating Layer conv7_2_postscale
I0407 23:09:30.500519 21708 net.cpp:434] conv7_2_postscale <- conv7_2
I0407 23:09:30.500524 21708 net.cpp:395] conv7_2_postscale -> conv7_2 (in-place)
I0407 23:09:30.500645 21708 net.cpp:150] Setting up conv7_2_postscale
I0407 23:09:30.500654 21708 net.cpp:157] Top shape: 64 250 6 6 (576000)
I0407 23:09:30.500658 21708 net.cpp:165] Memory required for data: 2060322304
I0407 23:09:30.500663 21708 layer_factory.hpp:77] Creating layer pool7_2
I0407 23:09:30.500669 21708 net.cpp:100] Creating Layer pool7_2
I0407 23:09:30.500674 21708 net.cpp:434] pool7_2 <- conv7_2
I0407 23:09:30.500679 21708 net.cpp:408] pool7_2 -> pool7_2
I0407 23:09:30.500728 21708 net.cpp:150] Setting up pool7_2
I0407 23:09:30.500736 21708 net.cpp:157] Top shape: 64 250 3 3 (144000)
I0407 23:09:30.500740 21708 net.cpp:165] Memory required for data: 2060898304
I0407 23:09:30.500742 21708 layer_factory.hpp:77] Creating layer fc7_4_300
I0407 23:09:30.500748 21708 net.cpp:100] Creating Layer fc7_4_300
I0407 23:09:30.500764 21708 net.cpp:434] fc7_4_300 <- pool7_2
I0407 23:09:30.500771 21708 net.cpp:408] fc7_4_300 -> fc7_4
I0407 23:09:30.507217 21708 net.cpp:150] Setting up fc7_4_300
I0407 23:09:30.507232 21708 net.cpp:157] Top shape: 64 300 (19200)
I0407 23:09:30.507247 21708 net.cpp:165] Memory required for data: 2060975104
I0407 23:09:30.507256 21708 layer_factory.hpp:77] Creating layer fc7_4_prescale
I0407 23:09:30.507263 21708 net.cpp:100] Creating Layer fc7_4_prescale
I0407 23:09:30.507267 21708 net.cpp:434] fc7_4_prescale <- fc7_4
I0407 23:09:30.507273 21708 net.cpp:395] fc7_4_prescale -> fc7_4 (in-place)
I0407 23:09:30.507387 21708 net.cpp:150] Setting up fc7_4_prescale
I0407 23:09:30.507397 21708 net.cpp:157] Top shape: 64 300 (19200)
I0407 23:09:30.507400 21708 net.cpp:165] Memory required for data: 2061051904
I0407 23:09:30.507405 21708 layer_factory.hpp:77] Creating layer fc7_4_sTanH
I0407 23:09:30.507411 21708 net.cpp:100] Creating Layer fc7_4_sTanH
I0407 23:09:30.507414 21708 net.cpp:434] fc7_4_sTanH <- fc7_4
I0407 23:09:30.507418 21708 net.cpp:395] fc7_4_sTanH -> fc7_4 (in-place)
I0407 23:09:30.507622 21708 net.cpp:150] Setting up fc7_4_sTanH
I0407 23:09:30.507633 21708 net.cpp:157] Top shape: 64 300 (19200)
I0407 23:09:30.507637 21708 net.cpp:165] Memory required for data: 2061128704
I0407 23:09:30.507639 21708 layer_factory.hpp:77] Creating layer fc7_4_postscale
I0407 23:09:30.507647 21708 net.cpp:100] Creating Layer fc7_4_postscale
I0407 23:09:30.507652 21708 net.cpp:434] fc7_4_postscale <- fc7_4
I0407 23:09:30.507657 21708 net.cpp:395] fc7_4_postscale -> fc7_4 (in-place)
I0407 23:09:30.507782 21708 net.cpp:150] Setting up fc7_4_postscale
I0407 23:09:30.507792 21708 net.cpp:157] Top shape: 64 300 (19200)
I0407 23:09:30.507796 21708 net.cpp:165] Memory required for data: 2061205504
I0407 23:09:30.507800 21708 layer_factory.hpp:77] Creating layer drop7_4
I0407 23:09:30.507812 21708 net.cpp:100] Creating Layer drop7_4
I0407 23:09:30.507814 21708 net.cpp:434] drop7_4 <- fc7_4
I0407 23:09:30.507818 21708 net.cpp:395] drop7_4 -> fc7_4 (in-place)
I0407 23:09:30.507850 21708 net.cpp:150] Setting up drop7_4
I0407 23:09:30.507858 21708 net.cpp:157] Top shape: 64 300 (19200)
I0407 23:09:30.507860 21708 net.cpp:165] Memory required for data: 2061282304
I0407 23:09:30.507863 21708 layer_factory.hpp:77] Creating layer fc7_5_67
I0407 23:09:30.507871 21708 net.cpp:100] Creating Layer fc7_5_67
I0407 23:09:30.507875 21708 net.cpp:434] fc7_5_67 <- fc7_4
I0407 23:09:30.507885 21708 net.cpp:408] fc7_5_67 -> fc7_5
I0407 23:09:30.508148 21708 net.cpp:150] Setting up fc7_5_67
I0407 23:09:30.508158 21708 net.cpp:157] Top shape: 64 67 (4288)
I0407 23:09:30.508160 21708 net.cpp:165] Memory required for data: 2061299456
I0407 23:09:30.508167 21708 layer_factory.hpp:77] Creating layer softmax_7
I0407 23:09:30.508172 21708 net.cpp:100] Creating Layer softmax_7
I0407 23:09:30.508175 21708 net.cpp:434] softmax_7 <- fc7_5
I0407 23:09:30.508182 21708 net.cpp:408] softmax_7 -> softmax_7
I0407 23:09:30.515765 21708 net.cpp:150] Setting up softmax_7
I0407 23:09:30.515784 21708 net.cpp:157] Top shape: 64 67 (4288)
I0407 23:09:30.515786 21708 net.cpp:165] Memory required for data: 2061316608
I0407 23:09:30.515790 21708 layer_factory.hpp:77] Creating layer conv8_0
I0407 23:09:30.515801 21708 net.cpp:100] Creating Layer conv8_0
I0407 23:09:30.515805 21708 net.cpp:434] conv8_0 <- data_1_data_1_0_split_3
I0407 23:09:30.515813 21708 net.cpp:408] conv8_0 -> conv8_0
I0407 23:09:30.520891 21708 net.cpp:150] Setting up conv8_0
I0407 23:09:30.520921 21708 net.cpp:157] Top shape: 64 100 42 42 (11289600)
I0407 23:09:30.520926 21708 net.cpp:165] Memory required for data: 2106475008
I0407 23:09:30.520933 21708 layer_factory.hpp:77] Creating layer conv8_0_prescale
I0407 23:09:30.520942 21708 net.cpp:100] Creating Layer conv8_0_prescale
I0407 23:09:30.520947 21708 net.cpp:434] conv8_0_prescale <- conv8_0
I0407 23:09:30.520952 21708 net.cpp:395] conv8_0_prescale -> conv8_0 (in-place)
I0407 23:09:30.521078 21708 net.cpp:150] Setting up conv8_0_prescale
I0407 23:09:30.521103 21708 net.cpp:157] Top shape: 64 100 42 42 (11289600)
I0407 23:09:30.521107 21708 net.cpp:165] Memory required for data: 2151633408
I0407 23:09:30.521112 21708 layer_factory.hpp:77] Creating layer conv8_0_sTanH
I0407 23:09:30.521118 21708 net.cpp:100] Creating Layer conv8_0_sTanH
I0407 23:09:30.521122 21708 net.cpp:434] conv8_0_sTanH <- conv8_0
I0407 23:09:30.521126 21708 net.cpp:395] conv8_0_sTanH -> conv8_0 (in-place)
I0407 23:09:30.522255 21708 net.cpp:150] Setting up conv8_0_sTanH
I0407 23:09:30.522274 21708 net.cpp:157] Top shape: 64 100 42 42 (11289600)
I0407 23:09:30.522276 21708 net.cpp:165] Memory required for data: 2196791808
I0407 23:09:30.522280 21708 layer_factory.hpp:77] Creating layer conv8_0_postscale
I0407 23:09:30.522287 21708 net.cpp:100] Creating Layer conv8_0_postscale
I0407 23:09:30.522291 21708 net.cpp:434] conv8_0_postscale <- conv8_0
I0407 23:09:30.522300 21708 net.cpp:395] conv8_0_postscale -> conv8_0 (in-place)
I0407 23:09:30.522433 21708 net.cpp:150] Setting up conv8_0_postscale
I0407 23:09:30.522442 21708 net.cpp:157] Top shape: 64 100 42 42 (11289600)
I0407 23:09:30.522445 21708 net.cpp:165] Memory required for data: 2241950208
I0407 23:09:30.522450 21708 layer_factory.hpp:77] Creating layer pool8_0
I0407 23:09:30.522457 21708 net.cpp:100] Creating Layer pool8_0
I0407 23:09:30.522460 21708 net.cpp:434] pool8_0 <- conv8_0
I0407 23:09:30.522467 21708 net.cpp:408] pool8_0 -> pool8_0
I0407 23:09:30.522522 21708 net.cpp:150] Setting up pool8_0
I0407 23:09:30.522537 21708 net.cpp:157] Top shape: 64 100 21 21 (2822400)
I0407 23:09:30.522541 21708 net.cpp:165] Memory required for data: 2253239808
I0407 23:09:30.522543 21708 layer_factory.hpp:77] Creating layer conv8_1
I0407 23:09:30.522552 21708 net.cpp:100] Creating Layer conv8_1
I0407 23:09:30.522557 21708 net.cpp:434] conv8_1 <- pool8_0
I0407 23:09:30.522562 21708 net.cpp:408] conv8_1 -> conv8_1
I0407 23:09:30.526585 21708 net.cpp:150] Setting up conv8_1
I0407 23:09:30.526602 21708 net.cpp:157] Top shape: 64 150 18 18 (3110400)
I0407 23:09:30.526607 21708 net.cpp:165] Memory required for data: 2265681408
I0407 23:09:30.526612 21708 layer_factory.hpp:77] Creating layer conv8_1_prescale
I0407 23:09:30.526621 21708 net.cpp:100] Creating Layer conv8_1_prescale
I0407 23:09:30.526625 21708 net.cpp:434] conv8_1_prescale <- conv8_1
I0407 23:09:30.526631 21708 net.cpp:395] conv8_1_prescale -> conv8_1 (in-place)
I0407 23:09:30.526772 21708 net.cpp:150] Setting up conv8_1_prescale
I0407 23:09:30.526783 21708 net.cpp:157] Top shape: 64 150 18 18 (3110400)
I0407 23:09:30.526787 21708 net.cpp:165] Memory required for data: 2278123008
I0407 23:09:30.526793 21708 layer_factory.hpp:77] Creating layer conv8_1_sTanH
I0407 23:09:30.526798 21708 net.cpp:100] Creating Layer conv8_1_sTanH
I0407 23:09:30.526801 21708 net.cpp:434] conv8_1_sTanH <- conv8_1
I0407 23:09:30.526806 21708 net.cpp:395] conv8_1_sTanH -> conv8_1 (in-place)
I0407 23:09:30.527014 21708 net.cpp:150] Setting up conv8_1_sTanH
I0407 23:09:30.527027 21708 net.cpp:157] Top shape: 64 150 18 18 (3110400)
I0407 23:09:30.527030 21708 net.cpp:165] Memory required for data: 2290564608
I0407 23:09:30.527034 21708 layer_factory.hpp:77] Creating layer conv8_1_postscale
I0407 23:09:30.527040 21708 net.cpp:100] Creating Layer conv8_1_postscale
I0407 23:09:30.527045 21708 net.cpp:434] conv8_1_postscale <- conv8_1
I0407 23:09:30.527050 21708 net.cpp:395] conv8_1_postscale -> conv8_1 (in-place)
I0407 23:09:30.527179 21708 net.cpp:150] Setting up conv8_1_postscale
I0407 23:09:30.527189 21708 net.cpp:157] Top shape: 64 150 18 18 (3110400)
I0407 23:09:30.527192 21708 net.cpp:165] Memory required for data: 2303006208
I0407 23:09:30.527197 21708 layer_factory.hpp:77] Creating layer pool8_1
I0407 23:09:30.527202 21708 net.cpp:100] Creating Layer pool8_1
I0407 23:09:30.527206 21708 net.cpp:434] pool8_1 <- conv8_1
I0407 23:09:30.527212 21708 net.cpp:408] pool8_1 -> pool8_1
I0407 23:09:30.527264 21708 net.cpp:150] Setting up pool8_1
I0407 23:09:30.527272 21708 net.cpp:157] Top shape: 64 150 9 9 (777600)
I0407 23:09:30.527287 21708 net.cpp:165] Memory required for data: 2306116608
I0407 23:09:30.527292 21708 layer_factory.hpp:77] Creating layer conv8_2
I0407 23:09:30.527302 21708 net.cpp:100] Creating Layer conv8_2
I0407 23:09:30.527308 21708 net.cpp:434] conv8_2 <- pool8_1
I0407 23:09:30.527315 21708 net.cpp:408] conv8_2 -> conv8_2
I0407 23:09:30.533565 21708 net.cpp:150] Setting up conv8_2
I0407 23:09:30.533593 21708 net.cpp:157] Top shape: 64 250 6 6 (576000)
I0407 23:09:30.533597 21708 net.cpp:165] Memory required for data: 2308420608
I0407 23:09:30.533604 21708 layer_factory.hpp:77] Creating layer conv8_2_prescale
I0407 23:09:30.533612 21708 net.cpp:100] Creating Layer conv8_2_prescale
I0407 23:09:30.533615 21708 net.cpp:434] conv8_2_prescale <- conv8_2
I0407 23:09:30.533622 21708 net.cpp:395] conv8_2_prescale -> conv8_2 (in-place)
I0407 23:09:30.533746 21708 net.cpp:150] Setting up conv8_2_prescale
I0407 23:09:30.533754 21708 net.cpp:157] Top shape: 64 250 6 6 (576000)
I0407 23:09:30.533757 21708 net.cpp:165] Memory required for data: 2310724608
I0407 23:09:30.533762 21708 layer_factory.hpp:77] Creating layer conv8_2_sTanH
I0407 23:09:30.533767 21708 net.cpp:100] Creating Layer conv8_2_sTanH
I0407 23:09:30.533771 21708 net.cpp:434] conv8_2_sTanH <- conv8_2
I0407 23:09:30.533777 21708 net.cpp:395] conv8_2_sTanH -> conv8_2 (in-place)
I0407 23:09:30.533980 21708 net.cpp:150] Setting up conv8_2_sTanH
I0407 23:09:30.533993 21708 net.cpp:157] Top shape: 64 250 6 6 (576000)
I0407 23:09:30.533995 21708 net.cpp:165] Memory required for data: 2313028608
I0407 23:09:30.533999 21708 layer_factory.hpp:77] Creating layer conv8_2_postscale
I0407 23:09:30.534008 21708 net.cpp:100] Creating Layer conv8_2_postscale
I0407 23:09:30.534013 21708 net.cpp:434] conv8_2_postscale <- conv8_2
I0407 23:09:30.534019 21708 net.cpp:395] conv8_2_postscale -> conv8_2 (in-place)
I0407 23:09:30.534142 21708 net.cpp:150] Setting up conv8_2_postscale
I0407 23:09:30.534150 21708 net.cpp:157] Top shape: 64 250 6 6 (576000)
I0407 23:09:30.534154 21708 net.cpp:165] Memory required for data: 2315332608
I0407 23:09:30.534158 21708 layer_factory.hpp:77] Creating layer pool8_2
I0407 23:09:30.534167 21708 net.cpp:100] Creating Layer pool8_2
I0407 23:09:30.534169 21708 net.cpp:434] pool8_2 <- conv8_2
I0407 23:09:30.534175 21708 net.cpp:408] pool8_2 -> pool8_2
I0407 23:09:30.534225 21708 net.cpp:150] Setting up pool8_2
I0407 23:09:30.534234 21708 net.cpp:157] Top shape: 64 250 3 3 (144000)
I0407 23:09:30.534236 21708 net.cpp:165] Memory required for data: 2315908608
I0407 23:09:30.534240 21708 layer_factory.hpp:77] Creating layer fc8_4_300
I0407 23:09:30.534245 21708 net.cpp:100] Creating Layer fc8_4_300
I0407 23:09:30.534250 21708 net.cpp:434] fc8_4_300 <- pool8_2
I0407 23:09:30.534255 21708 net.cpp:408] fc8_4_300 -> fc8_4
I0407 23:09:30.539621 21708 net.cpp:150] Setting up fc8_4_300
I0407 23:09:30.539636 21708 net.cpp:157] Top shape: 64 300 (19200)
I0407 23:09:30.539639 21708 net.cpp:165] Memory required for data: 2315985408
I0407 23:09:30.539645 21708 layer_factory.hpp:77] Creating layer fc8_4_prescale
I0407 23:09:30.539654 21708 net.cpp:100] Creating Layer fc8_4_prescale
I0407 23:09:30.539657 21708 net.cpp:434] fc8_4_prescale <- fc8_4
I0407 23:09:30.539664 21708 net.cpp:395] fc8_4_prescale -> fc8_4 (in-place)
I0407 23:09:30.539789 21708 net.cpp:150] Setting up fc8_4_prescale
I0407 23:09:30.539798 21708 net.cpp:157] Top shape: 64 300 (19200)
I0407 23:09:30.539801 21708 net.cpp:165] Memory required for data: 2316062208
I0407 23:09:30.539806 21708 layer_factory.hpp:77] Creating layer fc8_4_sTanH
I0407 23:09:30.539811 21708 net.cpp:100] Creating Layer fc8_4_sTanH
I0407 23:09:30.539814 21708 net.cpp:434] fc8_4_sTanH <- fc8_4
I0407 23:09:30.539819 21708 net.cpp:395] fc8_4_sTanH -> fc8_4 (in-place)
I0407 23:09:30.540032 21708 net.cpp:150] Setting up fc8_4_sTanH
I0407 23:09:30.540045 21708 net.cpp:157] Top shape: 64 300 (19200)
I0407 23:09:30.540047 21708 net.cpp:165] Memory required for data: 2316139008
I0407 23:09:30.540051 21708 layer_factory.hpp:77] Creating layer fc8_4_postscale
I0407 23:09:30.540079 21708 net.cpp:100] Creating Layer fc8_4_postscale
I0407 23:09:30.540083 21708 net.cpp:434] fc8_4_postscale <- fc8_4
I0407 23:09:30.540089 21708 net.cpp:395] fc8_4_postscale -> fc8_4 (in-place)
I0407 23:09:30.540215 21708 net.cpp:150] Setting up fc8_4_postscale
I0407 23:09:30.540225 21708 net.cpp:157] Top shape: 64 300 (19200)
I0407 23:09:30.540228 21708 net.cpp:165] Memory required for data: 2316215808
I0407 23:09:30.540233 21708 layer_factory.hpp:77] Creating layer drop8_4
I0407 23:09:30.540240 21708 net.cpp:100] Creating Layer drop8_4
I0407 23:09:30.540242 21708 net.cpp:434] drop8_4 <- fc8_4
I0407 23:09:30.540246 21708 net.cpp:395] drop8_4 -> fc8_4 (in-place)
I0407 23:09:30.540277 21708 net.cpp:150] Setting up drop8_4
I0407 23:09:30.540284 21708 net.cpp:157] Top shape: 64 300 (19200)
I0407 23:09:30.540287 21708 net.cpp:165] Memory required for data: 2316292608
I0407 23:09:30.540289 21708 layer_factory.hpp:77] Creating layer fc8_5_67
I0407 23:09:30.540297 21708 net.cpp:100] Creating Layer fc8_5_67
I0407 23:09:30.540300 21708 net.cpp:434] fc8_5_67 <- fc8_4
I0407 23:09:30.540305 21708 net.cpp:408] fc8_5_67 -> fc8_5
I0407 23:09:30.540571 21708 net.cpp:150] Setting up fc8_5_67
I0407 23:09:30.540580 21708 net.cpp:157] Top shape: 64 67 (4288)
I0407 23:09:30.540583 21708 net.cpp:165] Memory required for data: 2316309760
I0407 23:09:30.540590 21708 layer_factory.hpp:77] Creating layer softmax_8
I0407 23:09:30.540596 21708 net.cpp:100] Creating Layer softmax_8
I0407 23:09:30.540598 21708 net.cpp:434] softmax_8 <- fc8_5
I0407 23:09:30.540606 21708 net.cpp:408] softmax_8 -> softmax_8
I0407 23:09:30.541540 21708 net.cpp:150] Setting up softmax_8
I0407 23:09:30.541556 21708 net.cpp:157] Top shape: 64 67 (4288)
I0407 23:09:30.541560 21708 net.cpp:165] Memory required for data: 2316326912
I0407 23:09:30.541563 21708 layer_factory.hpp:77] Creating layer conv9_0
I0407 23:09:30.541574 21708 net.cpp:100] Creating Layer conv9_0
I0407 23:09:30.541579 21708 net.cpp:434] conv9_0 <- data_1_data_1_0_split_4
I0407 23:09:30.541585 21708 net.cpp:408] conv9_0 -> conv9_0
I0407 23:09:30.542603 21708 net.cpp:150] Setting up conv9_0
I0407 23:09:30.542616 21708 net.cpp:157] Top shape: 64 100 42 42 (11289600)
I0407 23:09:30.542632 21708 net.cpp:165] Memory required for data: 2361485312
I0407 23:09:30.542639 21708 layer_factory.hpp:77] Creating layer conv9_0_prescale
I0407 23:09:30.542647 21708 net.cpp:100] Creating Layer conv9_0_prescale
I0407 23:09:30.542652 21708 net.cpp:434] conv9_0_prescale <- conv9_0
I0407 23:09:30.542659 21708 net.cpp:395] conv9_0_prescale -> conv9_0 (in-place)
I0407 23:09:30.542783 21708 net.cpp:150] Setting up conv9_0_prescale
I0407 23:09:30.542793 21708 net.cpp:157] Top shape: 64 100 42 42 (11289600)
I0407 23:09:30.542795 21708 net.cpp:165] Memory required for data: 2406643712
I0407 23:09:30.542800 21708 layer_factory.hpp:77] Creating layer conv9_0_sTanH
I0407 23:09:30.542807 21708 net.cpp:100] Creating Layer conv9_0_sTanH
I0407 23:09:30.542810 21708 net.cpp:434] conv9_0_sTanH <- conv9_0
I0407 23:09:30.542815 21708 net.cpp:395] conv9_0_sTanH -> conv9_0 (in-place)
I0407 23:09:30.543668 21708 net.cpp:150] Setting up conv9_0_sTanH
I0407 23:09:30.543682 21708 net.cpp:157] Top shape: 64 100 42 42 (11289600)
I0407 23:09:30.543686 21708 net.cpp:165] Memory required for data: 2451802112
I0407 23:09:30.543689 21708 layer_factory.hpp:77] Creating layer conv9_0_postscale
I0407 23:09:30.543696 21708 net.cpp:100] Creating Layer conv9_0_postscale
I0407 23:09:30.543699 21708 net.cpp:434] conv9_0_postscale <- conv9_0
I0407 23:09:30.543706 21708 net.cpp:395] conv9_0_postscale -> conv9_0 (in-place)
I0407 23:09:30.543858 21708 net.cpp:150] Setting up conv9_0_postscale
I0407 23:09:30.543869 21708 net.cpp:157] Top shape: 64 100 42 42 (11289600)
I0407 23:09:30.543871 21708 net.cpp:165] Memory required for data: 2496960512
I0407 23:09:30.543876 21708 layer_factory.hpp:77] Creating layer pool9_0
I0407 23:09:30.543892 21708 net.cpp:100] Creating Layer pool9_0
I0407 23:09:30.543897 21708 net.cpp:434] pool9_0 <- conv9_0
I0407 23:09:30.543920 21708 net.cpp:408] pool9_0 -> pool9_0
I0407 23:09:30.543978 21708 net.cpp:150] Setting up pool9_0
I0407 23:09:30.543988 21708 net.cpp:157] Top shape: 64 100 21 21 (2822400)
I0407 23:09:30.543992 21708 net.cpp:165] Memory required for data: 2508250112
I0407 23:09:30.543994 21708 layer_factory.hpp:77] Creating layer conv9_1
I0407 23:09:30.544005 21708 net.cpp:100] Creating Layer conv9_1
I0407 23:09:30.544010 21708 net.cpp:434] conv9_1 <- pool9_0
I0407 23:09:30.544016 21708 net.cpp:408] conv9_1 -> conv9_1
I0407 23:09:30.547044 21708 net.cpp:150] Setting up conv9_1
I0407 23:09:30.547060 21708 net.cpp:157] Top shape: 64 150 18 18 (3110400)
I0407 23:09:30.547075 21708 net.cpp:165] Memory required for data: 2520691712
I0407 23:09:30.547082 21708 layer_factory.hpp:77] Creating layer conv9_1_prescale
I0407 23:09:30.547091 21708 net.cpp:100] Creating Layer conv9_1_prescale
I0407 23:09:30.547096 21708 net.cpp:434] conv9_1_prescale <- conv9_1
I0407 23:09:30.547101 21708 net.cpp:395] conv9_1_prescale -> conv9_1 (in-place)
I0407 23:09:30.547229 21708 net.cpp:150] Setting up conv9_1_prescale
I0407 23:09:30.547238 21708 net.cpp:157] Top shape: 64 150 18 18 (3110400)
I0407 23:09:30.547241 21708 net.cpp:165] Memory required for data: 2533133312
I0407 23:09:30.547246 21708 layer_factory.hpp:77] Creating layer conv9_1_sTanH
I0407 23:09:30.547253 21708 net.cpp:100] Creating Layer conv9_1_sTanH
I0407 23:09:30.547257 21708 net.cpp:434] conv9_1_sTanH <- conv9_1
I0407 23:09:30.547261 21708 net.cpp:395] conv9_1_sTanH -> conv9_1 (in-place)
I0407 23:09:30.547461 21708 net.cpp:150] Setting up conv9_1_sTanH
I0407 23:09:30.547475 21708 net.cpp:157] Top shape: 64 150 18 18 (3110400)
I0407 23:09:30.547479 21708 net.cpp:165] Memory required for data: 2545574912
I0407 23:09:30.547482 21708 layer_factory.hpp:77] Creating layer conv9_1_postscale
I0407 23:09:30.547488 21708 net.cpp:100] Creating Layer conv9_1_postscale
I0407 23:09:30.547492 21708 net.cpp:434] conv9_1_postscale <- conv9_1
I0407 23:09:30.547498 21708 net.cpp:395] conv9_1_postscale -> conv9_1 (in-place)
I0407 23:09:30.547626 21708 net.cpp:150] Setting up conv9_1_postscale
I0407 23:09:30.547636 21708 net.cpp:157] Top shape: 64 150 18 18 (3110400)
I0407 23:09:30.547639 21708 net.cpp:165] Memory required for data: 2558016512
I0407 23:09:30.547644 21708 layer_factory.hpp:77] Creating layer pool9_1
I0407 23:09:30.547649 21708 net.cpp:100] Creating Layer pool9_1
I0407 23:09:30.547653 21708 net.cpp:434] pool9_1 <- conv9_1
I0407 23:09:30.547659 21708 net.cpp:408] pool9_1 -> pool9_1
I0407 23:09:30.547713 21708 net.cpp:150] Setting up pool9_1
I0407 23:09:30.547721 21708 net.cpp:157] Top shape: 64 150 9 9 (777600)
I0407 23:09:30.547724 21708 net.cpp:165] Memory required for data: 2561126912
I0407 23:09:30.547727 21708 layer_factory.hpp:77] Creating layer conv9_2
I0407 23:09:30.547736 21708 net.cpp:100] Creating Layer conv9_2
I0407 23:09:30.547739 21708 net.cpp:434] conv9_2 <- pool9_1
I0407 23:09:30.547746 21708 net.cpp:408] conv9_2 -> conv9_2
I0407 23:09:30.554021 21708 net.cpp:150] Setting up conv9_2
I0407 23:09:30.554052 21708 net.cpp:157] Top shape: 64 250 6 6 (576000)
I0407 23:09:30.554056 21708 net.cpp:165] Memory required for data: 2563430912
I0407 23:09:30.554064 21708 layer_factory.hpp:77] Creating layer conv9_2_prescale
I0407 23:09:30.554070 21708 net.cpp:100] Creating Layer conv9_2_prescale
I0407 23:09:30.554075 21708 net.cpp:434] conv9_2_prescale <- conv9_2
I0407 23:09:30.554085 21708 net.cpp:395] conv9_2_prescale -> conv9_2 (in-place)
I0407 23:09:30.554214 21708 net.cpp:150] Setting up conv9_2_prescale
I0407 23:09:30.554224 21708 net.cpp:157] Top shape: 64 250 6 6 (576000)
I0407 23:09:30.554226 21708 net.cpp:165] Memory required for data: 2565734912
I0407 23:09:30.554231 21708 layer_factory.hpp:77] Creating layer conv9_2_sTanH
I0407 23:09:30.554236 21708 net.cpp:100] Creating Layer conv9_2_sTanH
I0407 23:09:30.554240 21708 net.cpp:434] conv9_2_sTanH <- conv9_2
I0407 23:09:30.554246 21708 net.cpp:395] conv9_2_sTanH -> conv9_2 (in-place)
I0407 23:09:30.554463 21708 net.cpp:150] Setting up conv9_2_sTanH
I0407 23:09:30.554476 21708 net.cpp:157] Top shape: 64 250 6 6 (576000)
I0407 23:09:30.554478 21708 net.cpp:165] Memory required for data: 2568038912
I0407 23:09:30.554482 21708 layer_factory.hpp:77] Creating layer conv9_2_postscale
I0407 23:09:30.554491 21708 net.cpp:100] Creating Layer conv9_2_postscale
I0407 23:09:30.554494 21708 net.cpp:434] conv9_2_postscale <- conv9_2
I0407 23:09:30.554499 21708 net.cpp:395] conv9_2_postscale -> conv9_2 (in-place)
I0407 23:09:30.554623 21708 net.cpp:150] Setting up conv9_2_postscale
I0407 23:09:30.554633 21708 net.cpp:157] Top shape: 64 250 6 6 (576000)
I0407 23:09:30.554636 21708 net.cpp:165] Memory required for data: 2570342912
I0407 23:09:30.554641 21708 layer_factory.hpp:77] Creating layer pool9_2
I0407 23:09:30.554649 21708 net.cpp:100] Creating Layer pool9_2
I0407 23:09:30.554652 21708 net.cpp:434] pool9_2 <- conv9_2
I0407 23:09:30.554657 21708 net.cpp:408] pool9_2 -> pool9_2
I0407 23:09:30.554709 21708 net.cpp:150] Setting up pool9_2
I0407 23:09:30.554718 21708 net.cpp:157] Top shape: 64 250 3 3 (144000)
I0407 23:09:30.554720 21708 net.cpp:165] Memory required for data: 2570918912
I0407 23:09:30.554723 21708 layer_factory.hpp:77] Creating layer fc9_4_300
I0407 23:09:30.554729 21708 net.cpp:100] Creating Layer fc9_4_300
I0407 23:09:30.554733 21708 net.cpp:434] fc9_4_300 <- pool9_2
I0407 23:09:30.554739 21708 net.cpp:408] fc9_4_300 -> fc9_4
I0407 23:09:30.560106 21708 net.cpp:150] Setting up fc9_4_300
I0407 23:09:30.560122 21708 net.cpp:157] Top shape: 64 300 (19200)
I0407 23:09:30.560127 21708 net.cpp:165] Memory required for data: 2570995712
I0407 23:09:30.560132 21708 layer_factory.hpp:77] Creating layer fc9_4_prescale
I0407 23:09:30.560139 21708 net.cpp:100] Creating Layer fc9_4_prescale
I0407 23:09:30.560143 21708 net.cpp:434] fc9_4_prescale <- fc9_4
I0407 23:09:30.560150 21708 net.cpp:395] fc9_4_prescale -> fc9_4 (in-place)
I0407 23:09:30.560268 21708 net.cpp:150] Setting up fc9_4_prescale
I0407 23:09:30.560277 21708 net.cpp:157] Top shape: 64 300 (19200)
I0407 23:09:30.560281 21708 net.cpp:165] Memory required for data: 2571072512
I0407 23:09:30.560286 21708 layer_factory.hpp:77] Creating layer fc9_4_sTanH
I0407 23:09:30.560290 21708 net.cpp:100] Creating Layer fc9_4_sTanH
I0407 23:09:30.560294 21708 net.cpp:434] fc9_4_sTanH <- fc9_4
I0407 23:09:30.560298 21708 net.cpp:395] fc9_4_sTanH -> fc9_4 (in-place)
I0407 23:09:30.560501 21708 net.cpp:150] Setting up fc9_4_sTanH
I0407 23:09:30.560514 21708 net.cpp:157] Top shape: 64 300 (19200)
I0407 23:09:30.560518 21708 net.cpp:165] Memory required for data: 2571149312
I0407 23:09:30.560520 21708 layer_factory.hpp:77] Creating layer fc9_4_postscale
I0407 23:09:30.560528 21708 net.cpp:100] Creating Layer fc9_4_postscale
I0407 23:09:30.560531 21708 net.cpp:434] fc9_4_postscale <- fc9_4
I0407 23:09:30.560537 21708 net.cpp:395] fc9_4_postscale -> fc9_4 (in-place)
I0407 23:09:30.560667 21708 net.cpp:150] Setting up fc9_4_postscale
I0407 23:09:30.560677 21708 net.cpp:157] Top shape: 64 300 (19200)
I0407 23:09:30.560679 21708 net.cpp:165] Memory required for data: 2571226112
I0407 23:09:30.560684 21708 layer_factory.hpp:77] Creating layer drop9_4
I0407 23:09:30.560691 21708 net.cpp:100] Creating Layer drop9_4
I0407 23:09:30.560695 21708 net.cpp:434] drop9_4 <- fc9_4
I0407 23:09:30.560699 21708 net.cpp:395] drop9_4 -> fc9_4 (in-place)
I0407 23:09:30.560731 21708 net.cpp:150] Setting up drop9_4
I0407 23:09:30.560739 21708 net.cpp:157] Top shape: 64 300 (19200)
I0407 23:09:30.560742 21708 net.cpp:165] Memory required for data: 2571302912
I0407 23:09:30.560745 21708 layer_factory.hpp:77] Creating layer fc9_5_67
I0407 23:09:30.560751 21708 net.cpp:100] Creating Layer fc9_5_67
I0407 23:09:30.560755 21708 net.cpp:434] fc9_5_67 <- fc9_4
I0407 23:09:30.560760 21708 net.cpp:408] fc9_5_67 -> fc9_5
I0407 23:09:30.561027 21708 net.cpp:150] Setting up fc9_5_67
I0407 23:09:30.561035 21708 net.cpp:157] Top shape: 64 67 (4288)
I0407 23:09:30.561038 21708 net.cpp:165] Memory required for data: 2571320064
I0407 23:09:30.561056 21708 layer_factory.hpp:77] Creating layer softmax_9
I0407 23:09:30.561063 21708 net.cpp:100] Creating Layer softmax_9
I0407 23:09:30.561066 21708 net.cpp:434] softmax_9 <- fc9_5
I0407 23:09:30.561072 21708 net.cpp:408] softmax_9 -> softmax_9
I0407 23:09:30.562011 21708 net.cpp:150] Setting up softmax_9
I0407 23:09:30.562026 21708 net.cpp:157] Top shape: 64 67 (4288)
I0407 23:09:30.562041 21708 net.cpp:165] Memory required for data: 2571337216
I0407 23:09:30.562046 21708 layer_factory.hpp:77] Creating layer data_2
I0407 23:09:30.562144 21708 net.cpp:100] Creating Layer data_2
I0407 23:09:30.562158 21708 net.cpp:408] data_2 -> data_2
I0407 23:09:30.562170 21708 net.cpp:408] data_2 -> label_2
I0407 23:09:30.563654 21783 db_lmdb.cpp:35] Opened lmdb ../local_data/lmdb/rtsd-r1/AHE/train/lmdb
I0407 23:09:30.563860 21708 data_layer.cpp:41] output data size: 64,3,48,48
I0407 23:09:30.574029 21708 net.cpp:150] Setting up data_2
I0407 23:09:30.574057 21708 net.cpp:157] Top shape: 64 3 48 48 (442368)
I0407 23:09:30.574062 21708 net.cpp:157] Top shape: 64 (64)
I0407 23:09:30.574065 21708 net.cpp:165] Memory required for data: 2573106944
I0407 23:09:30.574069 21708 layer_factory.hpp:77] Creating layer data_2_data_2_0_split
I0407 23:09:30.574076 21708 net.cpp:100] Creating Layer data_2_data_2_0_split
I0407 23:09:30.574081 21708 net.cpp:434] data_2_data_2_0_split <- data_2
I0407 23:09:30.574090 21708 net.cpp:408] data_2_data_2_0_split -> data_2_data_2_0_split_0
I0407 23:09:30.574098 21708 net.cpp:408] data_2_data_2_0_split -> data_2_data_2_0_split_1
I0407 23:09:30.574105 21708 net.cpp:408] data_2_data_2_0_split -> data_2_data_2_0_split_2
I0407 23:09:30.574112 21708 net.cpp:408] data_2_data_2_0_split -> data_2_data_2_0_split_3
I0407 23:09:30.574126 21708 net.cpp:408] data_2_data_2_0_split -> data_2_data_2_0_split_4
I0407 23:09:30.574306 21708 net.cpp:150] Setting up data_2_data_2_0_split
I0407 23:09:30.574317 21708 net.cpp:157] Top shape: 64 3 48 48 (442368)
I0407 23:09:30.574321 21708 net.cpp:157] Top shape: 64 3 48 48 (442368)
I0407 23:09:30.574324 21708 net.cpp:157] Top shape: 64 3 48 48 (442368)
I0407 23:09:30.574328 21708 net.cpp:157] Top shape: 64 3 48 48 (442368)
I0407 23:09:30.574332 21708 net.cpp:157] Top shape: 64 3 48 48 (442368)
I0407 23:09:30.574334 21708 net.cpp:165] Memory required for data: 2581954304
I0407 23:09:30.574338 21708 layer_factory.hpp:77] Creating layer conv10_0
I0407 23:09:30.574348 21708 net.cpp:100] Creating Layer conv10_0
I0407 23:09:30.574354 21708 net.cpp:434] conv10_0 <- data_2_data_2_0_split_0
I0407 23:09:30.574362 21708 net.cpp:408] conv10_0 -> conv10_0
I0407 23:09:30.575543 21708 net.cpp:150] Setting up conv10_0
I0407 23:09:30.575559 21708 net.cpp:157] Top shape: 64 100 42 42 (11289600)
I0407 23:09:30.575562 21708 net.cpp:165] Memory required for data: 2627112704
I0407 23:09:30.575569 21708 layer_factory.hpp:77] Creating layer conv10_0_prescale
I0407 23:09:30.575578 21708 net.cpp:100] Creating Layer conv10_0_prescale
I0407 23:09:30.575582 21708 net.cpp:434] conv10_0_prescale <- conv10_0
I0407 23:09:30.575590 21708 net.cpp:395] conv10_0_prescale -> conv10_0 (in-place)
I0407 23:09:30.575721 21708 net.cpp:150] Setting up conv10_0_prescale
I0407 23:09:30.575731 21708 net.cpp:157] Top shape: 64 100 42 42 (11289600)
I0407 23:09:30.575733 21708 net.cpp:165] Memory required for data: 2672271104
I0407 23:09:30.575738 21708 layer_factory.hpp:77] Creating layer conv10_0_sTanH
I0407 23:09:30.575744 21708 net.cpp:100] Creating Layer conv10_0_sTanH
I0407 23:09:30.575748 21708 net.cpp:434] conv10_0_sTanH <- conv10_0
I0407 23:09:30.575753 21708 net.cpp:395] conv10_0_sTanH -> conv10_0 (in-place)
I0407 23:09:30.576918 21708 net.cpp:150] Setting up conv10_0_sTanH
I0407 23:09:30.576933 21708 net.cpp:157] Top shape: 64 100 42 42 (11289600)
I0407 23:09:30.576937 21708 net.cpp:165] Memory required for data: 2717429504
I0407 23:09:30.576941 21708 layer_factory.hpp:77] Creating layer conv10_0_postscale
I0407 23:09:30.576951 21708 net.cpp:100] Creating Layer conv10_0_postscale
I0407 23:09:30.576954 21708 net.cpp:434] conv10_0_postscale <- conv10_0
I0407 23:09:30.576972 21708 net.cpp:395] conv10_0_postscale -> conv10_0 (in-place)
I0407 23:09:30.577116 21708 net.cpp:150] Setting up conv10_0_postscale
I0407 23:09:30.577126 21708 net.cpp:157] Top shape: 64 100 42 42 (11289600)
I0407 23:09:30.577128 21708 net.cpp:165] Memory required for data: 2762587904
I0407 23:09:30.577133 21708 layer_factory.hpp:77] Creating layer pool10_0
I0407 23:09:30.577143 21708 net.cpp:100] Creating Layer pool10_0
I0407 23:09:30.577148 21708 net.cpp:434] pool10_0 <- conv10_0
I0407 23:09:30.577154 21708 net.cpp:408] pool10_0 -> pool10_0
I0407 23:09:30.577210 21708 net.cpp:150] Setting up pool10_0
I0407 23:09:30.577219 21708 net.cpp:157] Top shape: 64 100 21 21 (2822400)
I0407 23:09:30.577222 21708 net.cpp:165] Memory required for data: 2773877504
I0407 23:09:30.577225 21708 layer_factory.hpp:77] Creating layer conv10_1
I0407 23:09:30.577234 21708 net.cpp:100] Creating Layer conv10_1
I0407 23:09:30.577239 21708 net.cpp:434] conv10_1 <- pool10_0
I0407 23:09:30.577244 21708 net.cpp:408] conv10_1 -> conv10_1
I0407 23:09:30.581353 21708 net.cpp:150] Setting up conv10_1
I0407 23:09:30.581372 21708 net.cpp:157] Top shape: 64 150 18 18 (3110400)
I0407 23:09:30.581374 21708 net.cpp:165] Memory required for data: 2786319104
I0407 23:09:30.581382 21708 layer_factory.hpp:77] Creating layer conv10_1_prescale
I0407 23:09:30.581390 21708 net.cpp:100] Creating Layer conv10_1_prescale
I0407 23:09:30.581395 21708 net.cpp:434] conv10_1_prescale <- conv10_1
I0407 23:09:30.581401 21708 net.cpp:395] conv10_1_prescale -> conv10_1 (in-place)
I0407 23:09:30.581533 21708 net.cpp:150] Setting up conv10_1_prescale
I0407 23:09:30.581543 21708 net.cpp:157] Top shape: 64 150 18 18 (3110400)
I0407 23:09:30.581547 21708 net.cpp:165] Memory required for data: 2798760704
I0407 23:09:30.581552 21708 layer_factory.hpp:77] Creating layer conv10_1_sTanH
I0407 23:09:30.581558 21708 net.cpp:100] Creating Layer conv10_1_sTanH
I0407 23:09:30.581562 21708 net.cpp:434] conv10_1_sTanH <- conv10_1
I0407 23:09:30.581568 21708 net.cpp:395] conv10_1_sTanH -> conv10_1 (in-place)
I0407 23:09:30.581779 21708 net.cpp:150] Setting up conv10_1_sTanH
I0407 23:09:30.581792 21708 net.cpp:157] Top shape: 64 150 18 18 (3110400)
I0407 23:09:30.581795 21708 net.cpp:165] Memory required for data: 2811202304
I0407 23:09:30.581799 21708 layer_factory.hpp:77] Creating layer conv10_1_postscale
I0407 23:09:30.581807 21708 net.cpp:100] Creating Layer conv10_1_postscale
I0407 23:09:30.581810 21708 net.cpp:434] conv10_1_postscale <- conv10_1
I0407 23:09:30.581817 21708 net.cpp:395] conv10_1_postscale -> conv10_1 (in-place)
I0407 23:09:30.581948 21708 net.cpp:150] Setting up conv10_1_postscale
I0407 23:09:30.581959 21708 net.cpp:157] Top shape: 64 150 18 18 (3110400)
I0407 23:09:30.581961 21708 net.cpp:165] Memory required for data: 2823643904
I0407 23:09:30.581966 21708 layer_factory.hpp:77] Creating layer pool10_1
I0407 23:09:30.581974 21708 net.cpp:100] Creating Layer pool10_1
I0407 23:09:30.581977 21708 net.cpp:434] pool10_1 <- conv10_1
I0407 23:09:30.581984 21708 net.cpp:408] pool10_1 -> pool10_1
I0407 23:09:30.582037 21708 net.cpp:150] Setting up pool10_1
I0407 23:09:30.582046 21708 net.cpp:157] Top shape: 64 150 9 9 (777600)
I0407 23:09:30.582049 21708 net.cpp:165] Memory required for data: 2826754304
I0407 23:09:30.582052 21708 layer_factory.hpp:77] Creating layer conv10_2
…
I0407 23:09:30.926575 21708 layer_factory.hpp:77] Creating layer conv20_2_prescale
I0407 23:09:30.926589 21708 net.cpp:100] Creating Layer conv20_2_prescale
I0407 23:09:30.926595 21708 net.cpp:434] conv20_2_prescale <- conv20_2
I0407 23:09:30.926602 21708 net.cpp:395] conv20_2_prescale -> conv20_2 (in-place)
I0407 23:09:30.926797 21708 net.cpp:150] Setting up conv20_2_prescale
I0407 23:09:30.926810 21708 net.cpp:157] Top shape: 64 250 6 6 (576000)
I0407 23:09:30.926815 21708 net.cpp:165] Memory required for data: 5402699520
I0407 23:09:30.926820 21708 layer_factory.hpp:77] Creating layer conv20_2_sTanH
I0407 23:09:30.926844 21708 net.cpp:100] Creating Layer conv20_2_sTanH
I0407 23:09:30.926851 21708 net.cpp:434] conv20_2_sTanH <- conv20_2
I0407 23:09:30.926856 21708 net.cpp:395] conv20_2_sTanH -> conv20_2 (in-place)
I0407 23:09:30.927131 21708 net.cpp:150] Setting up conv20_2_sTanH
I0407 23:09:30.927145 21708 net.cpp:157] Top shape: 64 250 6 6 (576000)
I0407 23:09:30.927151 21708 net.cpp:165] Memory required for data: 5405003520
I0407 23:09:30.927155 21708 layer_factory.hpp:77] Creating layer conv20_2_postscale
I0407 23:09:30.927165 21708 net.cpp:100] Creating Layer conv20_2_postscale
I0407 23:09:30.927172 21708 net.cpp:434] conv20_2_postscale <- conv20_2
I0407 23:09:30.927181 21708 net.cpp:395] conv20_2_postscale -> conv20_2 (in-place)
I0407 23:09:30.927373 21708 net.cpp:150] Setting up conv20_2_postscale
I0407 23:09:30.927384 21708 net.cpp:157] Top shape: 64 250 6 6 (576000)
I0407 23:09:30.927388 21708 net.cpp:165] Memory required for data: 5407307520
I0407 23:09:30.927394 21708 layer_factory.hpp:77] Creating layer pool20_2
I0407 23:09:30.927403 21708 net.cpp:100] Creating Layer pool20_2
I0407 23:09:30.927410 21708 net.cpp:434] pool20_2 <- conv20_2
I0407 23:09:30.927423 21708 net.cpp:408] pool20_2 -> pool20_2
I0407 23:09:30.927500 21708 net.cpp:150] Setting up pool20_2
I0407 23:09:30.927512 21708 net.cpp:157] Top shape: 64 250 3 3 (144000)
I0407 23:09:30.927517 21708 net.cpp:165] Memory required for data: 5407883520
I0407 23:09:30.927521 21708 layer_factory.hpp:77] Creating layer fc20_4_300
I0407 23:09:30.927530 21708 net.cpp:100] Creating Layer fc20_4_300
I0407 23:09:30.927534 21708 net.cpp:434] fc20_4_300 <- pool20_2
I0407 23:09:30.927541 21708 net.cpp:408] fc20_4_300 -> fc20_4
I0407 23:09:30.935886 21708 net.cpp:150] Setting up fc20_4_300
I0407 23:09:30.935906 21708 net.cpp:157] Top shape: 64 300 (19200)
I0407 23:09:30.935911 21708 net.cpp:165] Memory required for data: 5407960320
I0407 23:09:30.935920 21708 layer_factory.hpp:77] Creating layer fc20_4_prescale
I0407 23:09:30.935928 21708 net.cpp:100] Creating Layer fc20_4_prescale
I0407 23:09:30.935933 21708 net.cpp:434] fc20_4_prescale <- fc20_4
I0407 23:09:30.935940 21708 net.cpp:395] fc20_4_prescale -> fc20_4 (in-place)
I0407 23:09:30.936120 21708 net.cpp:150] Setting up fc20_4_prescale
I0407 23:09:30.936131 21708 net.cpp:157] Top shape: 64 300 (19200)
I0407 23:09:30.936136 21708 net.cpp:165] Memory required for data: 5408037120
I0407 23:09:30.936141 21708 layer_factory.hpp:77] Creating layer fc20_4_sTanH
I0407 23:09:30.936147 21708 net.cpp:100] Creating Layer fc20_4_sTanH
I0407 23:09:30.936153 21708 net.cpp:434] fc20_4_sTanH <- fc20_4
I0407 23:09:30.936158 21708 net.cpp:395] fc20_4_sTanH -> fc20_4 (in-place)
I0407 23:09:30.937402 21708 net.cpp:150] Setting up fc20_4_sTanH
I0407 23:09:30.937419 21708 net.cpp:157] Top shape: 64 300 (19200)
I0407 23:09:30.937422 21708 net.cpp:165] Memory required for data: 5408113920
I0407 23:09:30.937427 21708 layer_factory.hpp:77] Creating layer fc20_4_postscale
I0407 23:09:30.937436 21708 net.cpp:100] Creating Layer fc20_4_postscale
I0407 23:09:30.937444 21708 net.cpp:434] fc20_4_postscale <- fc20_4
I0407 23:09:30.937451 21708 net.cpp:395] fc20_4_postscale -> fc20_4 (in-place)
I0407 23:09:30.937656 21708 net.cpp:150] Setting up fc20_4_postscale
I0407 23:09:30.937667 21708 net.cpp:157] Top shape: 64 300 (19200)
I0407 23:09:30.937671 21708 net.cpp:165] Memory required for data: 5408190720
I0407 23:09:30.937677 21708 layer_factory.hpp:77] Creating layer drop20_4
I0407 23:09:30.937685 21708 net.cpp:100] Creating Layer drop20_4
I0407 23:09:30.937688 21708 net.cpp:434] drop20_4 <- fc20_4
I0407 23:09:30.937696 21708 net.cpp:395] drop20_4 -> fc20_4 (in-place)
I0407 23:09:30.937742 21708 net.cpp:150] Setting up drop20_4
I0407 23:09:30.937752 21708 net.cpp:157] Top shape: 64 300 (19200)
I0407 23:09:30.937754 21708 net.cpp:165] Memory required for data: 5408267520
I0407 23:09:30.937758 21708 layer_factory.hpp:77] Creating layer fc20_5_67
I0407 23:09:30.937767 21708 net.cpp:100] Creating Layer fc20_5_67
I0407 23:09:30.937772 21708 net.cpp:434] fc20_5_67 <- fc20_4
I0407 23:09:30.937800 21708 net.cpp:408] fc20_5_67 -> fc20_5
I0407 23:09:30.938181 21708 net.cpp:150] Setting up fc20_5_67
I0407 23:09:30.938192 21708 net.cpp:157] Top shape: 64 67 (4288)
I0407 23:09:30.938195 21708 net.cpp:165] Memory required for data: 5408284672
I0407 23:09:30.938204 21708 layer_factory.hpp:77] Creating layer softmax_20
I0407 23:09:30.938211 21708 net.cpp:100] Creating Layer softmax_20
I0407 23:09:30.938215 21708 net.cpp:434] softmax_20 <- fc20_5
I0407 23:09:30.938222 21708 net.cpp:408] softmax_20 -> softmax_20
I0407 23:09:30.938606 21708 net.cpp:150] Setting up softmax_20
I0407 23:09:30.938621 21708 net.cpp:157] Top shape: 64 67 (4288)
I0407 23:09:30.938623 21708 net.cpp:165] Memory required for data: 5408301824
I0407 23:09:30.938627 21708 layer_factory.hpp:77] Creating layer conv21_0
I0407 23:09:30.938639 21708 net.cpp:100] Creating Layer conv21_0
I0407 23:09:30.938644 21708 net.cpp:434] conv21_0 <- data_4_data_4_0_split_1
I0407 23:09:30.938660 21708 net.cpp:408] conv21_0 -> conv21_0
I0407 23:09:30.946741 21708 net.cpp:150] Setting up conv21_0
I0407 23:09:30.946766 21708 net.cpp:157] Top shape: 64 100 42 42 (11289600)
I0407 23:09:30.946771 21708 net.cpp:165] Memory required for data: 5453460224
I0407 23:09:30.946780 21708 layer_factory.hpp:77] Creating layer conv21_0_prescale
I0407 23:09:30.946789 21708 net.cpp:100] Creating Layer conv21_0_prescale
I0407 23:09:30.946795 21708 net.cpp:434] conv21_0_prescale <- conv21_0
I0407 23:09:30.946804 21708 net.cpp:395] conv21_0_prescale -> conv21_0 (in-place)
I0407 23:09:30.947000 21708 net.cpp:150] Setting up conv21_0_prescale
I0407 23:09:30.947011 21708 net.cpp:157] Top shape: 64 100 42 42 (11289600)
I0407 23:09:30.947016 21708 net.cpp:165] Memory required for data: 5498618624
I0407 23:09:30.947021 21708 layer_factory.hpp:77] Creating layer conv21_0_sTanH
I0407 23:09:30.947027 21708 net.cpp:100] Creating Layer conv21_0_sTanH
I0407 23:09:30.947032 21708 net.cpp:434] conv21_0_sTanH <- conv21_0
I0407 23:09:30.947038 21708 net.cpp:395] conv21_0_sTanH -> conv21_0 (in-place)
I0407 23:09:30.947316 21708 net.cpp:150] Setting up conv21_0_sTanH
I0407 23:09:30.947330 21708 net.cpp:157] Top shape: 64 100 42 42 (11289600)
I0407 23:09:30.947335 21708 net.cpp:165] Memory required for data: 5543777024
I0407 23:09:30.947338 21708 layer_factory.hpp:77] Creating layer conv21_0_postscale
I0407 23:09:30.947350 21708 net.cpp:100] Creating Layer conv21_0_postscale
I0407 23:09:30.947355 21708 net.cpp:434] conv21_0_postscale <- conv21_0
I0407 23:09:30.947362 21708 net.cpp:395] conv21_0_postscale -> conv21_0 (in-place)
I0407 23:09:30.947558 21708 net.cpp:150] Setting up conv21_0_postscale
I0407 23:09:30.947571 21708 net.cpp:157] Top shape: 64 100 42 42 (11289600)
I0407 23:09:30.947574 21708 net.cpp:165] Memory required for data: 5588935424
I0407 23:09:30.947579 21708 layer_factory.hpp:77] Creating layer pool21_0
I0407 23:09:30.947589 21708 net.cpp:100] Creating Layer pool21_0
I0407 23:09:30.947597 21708 net.cpp:434] pool21_0 <- conv21_0
I0407 23:09:30.947602 21708 net.cpp:408] pool21_0 -> pool21_0
I0407 23:09:30.947682 21708 net.cpp:150] Setting up pool21_0
I0407 23:09:30.947692 21708 net.cpp:157] Top shape: 64 100 21 21 (2822400)
I0407 23:09:30.947695 21708 net.cpp:165] Memory required for data: 5600225024
I0407 23:09:30.947700 21708 layer_factory.hpp:77] Creating layer conv21_1
I0407 23:09:30.947710 21708 net.cpp:100] Creating Layer conv21_1
I0407 23:09:30.947716 21708 net.cpp:434] conv21_1 <- pool21_0
I0407 23:09:30.947723 21708 net.cpp:408] conv21_1 -> conv21_1
I0407 23:09:30.954514 21708 net.cpp:150] Setting up conv21_1
I0407 23:09:30.954536 21708 net.cpp:157] Top shape: 64 150 18 18 (3110400)
I0407 23:09:30.954541 21708 net.cpp:165] Memory required for data: 5612666624
I0407 23:09:30.954550 21708 layer_factory.hpp:77] Creating layer conv21_1_prescale
I0407 23:09:30.954560 21708 net.cpp:100] Creating Layer conv21_1_prescale
I0407 23:09:30.954566 21708 net.cpp:434] conv21_1_prescale <- conv21_1
I0407 23:09:30.954573 21708 net.cpp:395] conv21_1_prescale -> conv21_1 (in-place)
I0407 23:09:30.954785 21708 net.cpp:150] Setting up conv21_1_prescale
I0407 23:09:30.954799 21708 net.cpp:157] Top shape: 64 150 18 18 (3110400)
I0407 23:09:30.954803 21708 net.cpp:165] Memory required for data: 5625108224
I0407 23:09:30.954809 21708 layer_factory.hpp:77] Creating layer conv21_1_sTanH
I0407 23:09:30.954816 21708 net.cpp:100] Creating Layer conv21_1_sTanH
I0407 23:09:30.954820 21708 net.cpp:434] conv21_1_sTanH <- conv21_1
I0407 23:09:30.954828 21708 net.cpp:395] conv21_1_sTanH -> conv21_1 (in-place)
I0407 23:09:30.955096 21708 net.cpp:150] Setting up conv21_1_sTanH
I0407 23:09:30.955111 21708 net.cpp:157] Top shape: 64 150 18 18 (3110400)
I0407 23:09:30.955114 21708 net.cpp:165] Memory required for data: 5637549824
I0407 23:09:30.955118 21708 layer_factory.hpp:77] Creating layer conv21_1_postscale
I0407 23:09:30.955127 21708 net.cpp:100] Creating Layer conv21_1_postscale
I0407 23:09:30.955132 21708 net.cpp:434] conv21_1_postscale <- conv21_1
I0407 23:09:30.955139 21708 net.cpp:395] conv21_1_postscale -> conv21_1 (in-place)
I0407 23:09:30.955330 21708 net.cpp:150] Setting up conv21_1_postscale
I0407 23:09:30.955343 21708 net.cpp:157] Top shape: 64 150 18 18 (3110400)
I0407 23:09:30.955345 21708 net.cpp:165] Memory required for data: 5649991424
I0407 23:09:30.955351 21708 layer_factory.hpp:77] Creating layer pool21_1
I0407 23:09:30.955358 21708 net.cpp:100] Creating Layer pool21_1
I0407 23:09:30.955363 21708 net.cpp:434] pool21_1 <- conv21_1
I0407 23:09:30.955371 21708 net.cpp:408] pool21_1 -> pool21_1
I0407 23:09:30.955452 21708 net.cpp:150] Setting up pool21_1
I0407 23:09:30.955463 21708 net.cpp:157] Top shape: 64 150 9 9 (777600)
I0407 23:09:30.955466 21708 net.cpp:165] Memory required for data: 5653101824
I0407 23:09:30.955471 21708 layer_factory.hpp:77] Creating layer conv21_2
I0407 23:09:30.955483 21708 net.cpp:100] Creating Layer conv21_2
I0407 23:09:30.955489 21708 net.cpp:434] conv21_2 <- pool21_1
I0407 23:09:30.955497 21708 net.cpp:408] conv21_2 -> conv21_2
I0407 23:09:30.963616 21708 net.cpp:150] Setting up conv21_2
I0407 23:09:30.963636 21708 net.cpp:157] Top shape: 64 250 6 6 (576000)
I0407 23:09:30.963641 21708 net.cpp:165] Memory required for data: 5655405824
I0407 23:09:30.963649 21708 layer_factory.hpp:77] Creating layer conv21_2_prescale
I0407 23:09:30.963659 21708 net.cpp:100] Creating Layer conv21_2_prescale
I0407 23:09:30.963663 21708 net.cpp:434] conv21_2_prescale <- conv21_2
I0407 23:09:30.963672 21708 net.cpp:395] conv21_2_prescale -> conv21_2 (in-place)
I0407 23:09:30.963862 21708 net.cpp:150] Setting up conv21_2_prescale
I0407 23:09:30.963876 21708 net.cpp:157] Top shape: 64 250 6 6 (576000)
I0407 23:09:30.963886 21708 net.cpp:165] Memory required for data: 5657709824
I0407 23:09:30.963892 21708 layer_factory.hpp:77] Creating layer conv21_2_sTanH
I0407 23:09:30.963899 21708 net.cpp:100] Creating Layer conv21_2_sTanH
I0407 23:09:30.963903 21708 net.cpp:434] conv21_2_sTanH <- conv21_2
I0407 23:09:30.963912 21708 net.cpp:395] conv21_2_sTanH -> conv21_2 (in-place)
I0407 23:09:30.965046 21708 net.cpp:150] Setting up conv21_2_sTanH
I0407 23:09:30.965065 21708 net.cpp:157] Top shape: 64 250 6 6 (576000)
I0407 23:09:30.965070 21708 net.cpp:165] Memory required for data: 5660013824
I0407 23:09:30.965073 21708 layer_factory.hpp:77] Creating layer conv21_2_postscale
I0407 23:09:30.965085 21708 net.cpp:100] Creating Layer conv21_2_postscale
I0407 23:09:30.965090 21708 net.cpp:434] conv21_2_postscale <- conv21_2
I0407 23:09:30.965096 21708 net.cpp:395] conv21_2_postscale -> conv21_2 (in-place)
I0407 23:09:30.965289 21708 net.cpp:150] Setting up conv21_2_postscale
I0407 23:09:30.965302 21708 net.cpp:157] Top shape: 64 250 6 6 (576000)
I0407 23:09:30.965307 21708 net.cpp:165] Memory required for data: 5662317824
I0407 23:09:30.965314 21708 layer_factory.hpp:77] Creating layer pool21_2
I0407 23:09:30.965322 21708 net.cpp:100] Creating Layer pool21_2
I0407 23:09:30.965327 21708 net.cpp:434] pool21_2 <- conv21_2
I0407 23:09:30.965333 21708 net.cpp:408] pool21_2 -> pool21_2
I0407 23:09:30.965411 21708 net.cpp:150] Setting up pool21_2
I0407 23:09:30.965443 21708 net.cpp:157] Top shape: 64 250 3 3 (144000)
I0407 23:09:30.965447 21708 net.cpp:165] Memory required for data: 5662893824
I0407 23:09:30.965451 21708 layer_factory.hpp:77] Creating layer fc21_4_300
I0407 23:09:30.965459 21708 net.cpp:100] Creating Layer fc21_4_300
I0407 23:09:30.965463 21708 net.cpp:434] fc21_4_300 <- pool21_2
I0407 23:09:30.965473 21708 net.cpp:408] fc21_4_300 -> fc21_4
I0407 23:09:30.972276 21708 net.cpp:150] Setting up fc21_4_300
I0407 23:09:30.972295 21708 net.cpp:157] Top shape: 64 300 (19200)
I0407 23:09:30.972298 21708 net.cpp:165] Memory required for data: 5662970624
I0407 23:09:30.972306 21708 layer_factory.hpp:77] Creating layer fc21_4_prescale
I0407 23:09:30.972317 21708 net.cpp:100] Creating Layer fc21_4_prescale
I0407 23:09:30.972322 21708 net.cpp:434] fc21_4_prescale <- fc21_4
I0407 23:09:30.972329 21708 net.cpp:395] fc21_4_prescale -> fc21_4 (in-place)
I0407 23:09:30.972513 21708 net.cpp:150] Setting up fc21_4_prescale
I0407 23:09:30.972524 21708 net.cpp:157] Top shape: 64 300 (19200)
I0407 23:09:30.972528 21708 net.cpp:165] Memory required for data: 5663047424
I0407 23:09:30.972534 21708 layer_factory.hpp:77] Creating layer fc21_4_sTanH
I0407 23:09:30.972540 21708 net.cpp:100] Creating Layer fc21_4_sTanH
I0407 23:09:30.972544 21708 net.cpp:434] fc21_4_sTanH <- fc21_4
I0407 23:09:30.972551 21708 net.cpp:395] fc21_4_sTanH -> fc21_4 (in-place)
I0407 23:09:30.972834 21708 net.cpp:150] Setting up fc21_4_sTanH
I0407 23:09:30.972846 21708 net.cpp:157] Top shape: 64 300 (19200)
I0407 23:09:30.972851 21708 net.cpp:165] Memory required for data: 5663124224
I0407 23:09:30.972854 21708 layer_factory.hpp:77] Creating layer fc21_4_postscale
I0407 23:09:30.972865 21708 net.cpp:100] Creating Layer fc21_4_postscale
I0407 23:09:30.972870 21708 net.cpp:434] fc21_4_postscale <- fc21_4
I0407 23:09:30.972877 21708 net.cpp:395] fc21_4_postscale -> fc21_4 (in-place)
I0407 23:09:30.973071 21708 net.cpp:150] Setting up fc21_4_postscale
I0407 23:09:30.973081 21708 net.cpp:157] Top shape: 64 300 (19200)
I0407 23:09:30.973085 21708 net.cpp:165] Memory required for data: 5663201024
I0407 23:09:30.973091 21708 layer_factory.hpp:77] Creating layer drop21_4
I0407 23:09:30.973099 21708 net.cpp:100] Creating Layer drop21_4
I0407 23:09:30.973104 21708 net.cpp:434] drop21_4 <- fc21_4
I0407 23:09:30.973109 21708 net.cpp:395] drop21_4 -> fc21_4 (in-place)
I0407 23:09:30.973155 21708 net.cpp:150] Setting up drop21_4
I0407 23:09:30.973165 21708 net.cpp:157] Top shape: 64 300 (19200)
I0407 23:09:30.973167 21708 net.cpp:165] Memory required for data: 5663277824
I0407 23:09:30.973171 21708 layer_factory.hpp:77] Creating layer fc21_5_67
I0407 23:09:30.973181 21708 net.cpp:100] Creating Layer fc21_5_67
I0407 23:09:30.973184 21708 net.cpp:434] fc21_5_67 <- fc21_4
I0407 23:09:30.973191 21708 net.cpp:408] fc21_5_67 -> fc21_5
I0407 23:09:30.973561 21708 net.cpp:150] Setting up fc21_5_67
I0407 23:09:30.973570 21708 net.cpp:157] Top shape: 64 67 (4288)
I0407 23:09:30.973573 21708 net.cpp:165] Memory required for data: 5663294976
I0407 23:09:30.973582 21708 layer_factory.hpp:77] Creating layer softmax_21
I0407 23:09:30.973587 21708 net.cpp:100] Creating Layer softmax_21
I0407 23:09:30.973592 21708 net.cpp:434] softmax_21 <- fc21_5
I0407 23:09:30.973598 21708 net.cpp:408] softmax_21 -> softmax_21
I0407 23:09:30.973986 21708 net.cpp:150] Setting up softmax_21
I0407 23:09:30.974000 21708 net.cpp:157] Top shape: 64 67 (4288)
I0407 23:09:30.974004 21708 net.cpp:165] Memory required for data: 5663312128
I0407 23:09:30.974007 21708 layer_factory.hpp:77] Creating layer conv22_0
I0407 23:09:30.974019 21708 net.cpp:100] Creating Layer conv22_0
I0407 23:09:30.974023 21708 net.cpp:434] conv22_0 <- data_4_data_4_0_split_2
I0407 23:09:30.974031 21708 net.cpp:408] conv22_0 -> conv22_0
I0407 23:09:30.976694 21708 net.cpp:150] Setting up conv22_0
I0407 23:09:30.976719 21708 net.cpp:157] Top shape: 64 100 42 42 (11289600)
I0407 23:09:30.976724 21708 net.cpp:165] Memory required for data: 5708470528
I0407 23:09:30.976747 21708 layer_factory.hpp:77] Creating layer conv22_0_prescale
I0407 23:09:30.976758 21708 net.cpp:100] Creating Layer conv22_0_prescale
I0407 23:09:30.976763 21708 net.cpp:434] conv22_0_prescale <- conv22_0
I0407 23:09:30.976771 21708 net.cpp:395] conv22_0_prescale -> conv22_0 (in-place)
I0407 23:09:30.976966 21708 net.cpp:150] Setting up conv22_0_prescale
I0407 23:09:30.976979 21708 net.cpp:157] Top shape: 64 100 42 42 (11289600)
I0407 23:09:30.976984 21708 net.cpp:165] Memory required for data: 5753628928
I0407 23:09:30.976990 21708 layer_factory.hpp:77] Creating layer conv22_0_sTanH
I0407 23:09:30.976997 21708 net.cpp:100] Creating Layer conv22_0_sTanH
I0407 23:09:30.977002 21708 net.cpp:434] conv22_0_sTanH <- conv22_0
I0407 23:09:30.977007 21708 net.cpp:395] conv22_0_sTanH -> conv22_0 (in-place)
I0407 23:09:30.977280 21708 net.cpp:150] Setting up conv22_0_sTanH
I0407 23:09:30.977293 21708 net.cpp:157] Top shape: 64 100 42 42 (11289600)
I0407 23:09:30.977298 21708 net.cpp:165] Memory required for data: 5798787328
I0407 23:09:30.977301 21708 layer_factory.hpp:77] Creating layer conv22_0_postscale
I0407 23:09:30.977313 21708 net.cpp:100] Creating Layer conv22_0_postscale
I0407 23:09:30.977318 21708 net.cpp:434] conv22_0_postscale <- conv22_0
I0407 23:09:30.977324 21708 net.cpp:395] conv22_0_postscale -> conv22_0 (in-place)
I0407 23:09:30.977517 21708 net.cpp:150] Setting up conv22_0_postscale
I0407 23:09:30.977529 21708 net.cpp:157] Top shape: 64 100 42 42 (11289600)
I0407 23:09:30.977531 21708 net.cpp:165] Memory required for data: 5843945728
I0407 23:09:30.977537 21708 layer_factory.hpp:77] Creating layer pool22_0
I0407 23:09:30.977545 21708 net.cpp:100] Creating Layer pool22_0
I0407 23:09:30.977550 21708 net.cpp:434] pool22_0 <- conv22_0
I0407 23:09:30.977556 21708 net.cpp:408] pool22_0 -> pool22_0
I0407 23:09:30.977634 21708 net.cpp:150] Setting up pool22_0
I0407 23:09:30.977644 21708 net.cpp:157] Top shape: 64 100 21 21 (2822400)
I0407 23:09:30.977648 21708 net.cpp:165] Memory required for data: 5855235328
I0407 23:09:30.977651 21708 layer_factory.hpp:77] Creating layer conv22_1
I0407 23:09:30.977663 21708 net.cpp:100] Creating Layer conv22_1
I0407 23:09:30.977669 21708 net.cpp:434] conv22_1 <- pool22_0
I0407 23:09:30.977676 21708 net.cpp:408] conv22_1 -> conv22_1
I0407 23:09:30.983912 21708 net.cpp:150] Setting up conv22_1
I0407 23:09:30.983932 21708 net.cpp:157] Top shape: 64 150 18 18 (3110400)
I0407 23:09:30.983937 21708 net.cpp:165] Memory required for data: 5867676928
I0407 23:09:30.983944 21708 layer_factory.hpp:77] Creating layer conv22_1_prescale
I0407 23:09:30.983955 21708 net.cpp:100] Creating Layer conv22_1_prescale
I0407 23:09:30.983961 21708 net.cpp:434] conv22_1_prescale <- conv22_1
I0407 23:09:30.983969 21708 net.cpp:395] conv22_1_prescale -> conv22_1 (in-place)
I0407 23:09:30.984165 21708 net.cpp:150] Setting up conv22_1_prescale
I0407 23:09:30.984177 21708 net.cpp:157] Top shape: 64 150 18 18 (3110400)
I0407 23:09:30.984180 21708 net.cpp:165] Memory required for data: 5880118528
I0407 23:09:30.984186 21708 layer_factory.hpp:77] Creating layer conv22_1_sTanH
I0407 23:09:30.984195 21708 net.cpp:100] Creating Layer conv22_1_sTanH
I0407 23:09:30.984201 21708 net.cpp:434] conv22_1_sTanH <- conv22_1
I0407 23:09:30.984208 21708 net.cpp:395] conv22_1_sTanH -> conv22_1 (in-place)
I0407 23:09:30.984480 21708 net.cpp:150] Setting up conv22_1_sTanH
I0407 23:09:30.984493 21708 net.cpp:157] Top shape: 64 150 18 18 (3110400)
I0407 23:09:30.984498 21708 net.cpp:165] Memory required for data: 5892560128
I0407 23:09:30.984501 21708 layer_factory.hpp:77] Creating layer conv22_1_postscale
I0407 23:09:30.984510 21708 net.cpp:100] Creating Layer conv22_1_postscale
I0407 23:09:30.984514 21708 net.cpp:434] conv22_1_postscale <- conv22_1
I0407 23:09:30.984521 21708 net.cpp:395] conv22_1_postscale -> conv22_1 (in-place)
I0407 23:09:30.984714 21708 net.cpp:150] Setting up conv22_1_postscale
I0407 23:09:30.984725 21708 net.cpp:157] Top shape: 64 150 18 18 (3110400)
I0407 23:09:30.984730 21708 net.cpp:165] Memory required for data: 5905001728
I0407 23:09:30.984750 21708 layer_factory.hpp:77] Creating layer pool22_1
I0407 23:09:30.984760 21708 net.cpp:100] Creating Layer pool22_1
I0407 23:09:30.984766 21708 net.cpp:434] pool22_1 <- conv22_1
I0407 23:09:30.984773 21708 net.cpp:408] pool22_1 -> pool22_1
I0407 23:09:30.984855 21708 net.cpp:150] Setting up pool22_1
I0407 23:09:30.984865 21708 net.cpp:157] Top shape: 64 150 9 9 (777600)
I0407 23:09:30.984869 21708 net.cpp:165] Memory required for data: 5908112128
I0407 23:09:30.984874 21708 layer_factory.hpp:77] Creating layer conv22_2
I0407 23:09:30.984887 21708 net.cpp:100] Creating Layer conv22_2
I0407 23:09:30.984894 21708 net.cpp:434] conv22_2 <- pool22_1
I0407 23:09:30.984901 21708 net.cpp:408] conv22_2 -> conv22_2
I0407 23:09:30.993681 21708 net.cpp:150] Setting up conv22_2
I0407 23:09:30.993701 21708 net.cpp:157] Top shape: 64 250 6 6 (576000)
I0407 23:09:30.993706 21708 net.cpp:165] Memory required for data: 5910416128
I0407 23:09:30.993715 21708 layer_factory.hpp:77] Creating layer conv22_2_prescale
I0407 23:09:30.993726 21708 net.cpp:100] Creating Layer conv22_2_prescale
I0407 23:09:30.993731 21708 net.cpp:434] conv22_2_prescale <- conv22_2
I0407 23:09:30.993737 21708 net.cpp:395] conv22_2_prescale -> conv22_2 (in-place)
I0407 23:09:30.993930 21708 net.cpp:150] Setting up conv22_2_prescale
I0407 23:09:30.993942 21708 net.cpp:157] Top shape: 64 250 6 6 (576000)
I0407 23:09:30.993947 21708 net.cpp:165] Memory required for data: 5912720128
I0407 23:09:30.993952 21708 layer_factory.hpp:77] Creating layer conv22_2_sTanH
I0407 23:09:30.993960 21708 net.cpp:100] Creating Layer conv22_2_sTanH
I0407 23:09:30.993966 21708 net.cpp:434] conv22_2_sTanH <- conv22_2
I0407 23:09:30.993973 21708 net.cpp:395] conv22_2_sTanH -> conv22_2 (in-place)
I0407 23:09:30.995108 21708 net.cpp:150] Setting up conv22_2_sTanH
I0407 23:09:30.995126 21708 net.cpp:157] Top shape: 64 250 6 6 (576000)
I0407 23:09:30.995131 21708 net.cpp:165] Memory required for data: 5915024128
I0407 23:09:30.995134 21708 layer_factory.hpp:77] Creating layer conv22_2_postscale
I0407 23:09:30.995146 21708 net.cpp:100] Creating Layer conv22_2_postscale
I0407 23:09:30.995151 21708 net.cpp:434] conv22_2_postscale <- conv22_2
I0407 23:09:30.995159 21708 net.cpp:395] conv22_2_postscale -> conv22_2 (in-place)
I0407 23:09:30.995359 21708 net.cpp:150] Setting up conv22_2_postscale
I0407 23:09:30.995370 21708 net.cpp:157] Top shape: 64 250 6 6 (576000)
I0407 23:09:30.995374 21708 net.cpp:165] Memory required for data: 5917328128
I0407 23:09:30.995380 21708 layer_factory.hpp:77] Creating layer pool22_2
I0407 23:09:30.995389 21708 net.cpp:100] Creating Layer pool22_2
I0407 23:09:30.995396 21708 net.cpp:434] pool22_2 <- conv22_2
I0407 23:09:30.995404 21708 net.cpp:408] pool22_2 -> pool22_2
I0407 23:09:30.995481 21708 net.cpp:150] Setting up pool22_2
I0407 23:09:30.995492 21708 net.cpp:157] Top shape: 64 250 3 3 (144000)
I0407 23:09:30.995496 21708 net.cpp:165] Memory required for data: 5917904128
I0407 23:09:30.995499 21708 layer_factory.hpp:77] Creating layer fc22_4_300
I0407 23:09:30.995508 21708 net.cpp:100] Creating Layer fc22_4_300
I0407 23:09:30.995512 21708 net.cpp:434] fc22_4_300 <- pool22_2
I0407 23:09:30.995519 21708 net.cpp:408] fc22_4_300 -> fc22_4
I0407 23:09:31.002332 21708 net.cpp:150] Setting up fc22_4_300
I0407 23:09:31.002351 21708 net.cpp:157] Top shape: 64 300 (19200)
I0407 23:09:31.002354 21708 net.cpp:165] Memory required for data: 5917980928
I0407 23:09:31.002363 21708 layer_factory.hpp:77] Creating layer fc22_4_prescale
I0407 23:09:31.002373 21708 net.cpp:100] Creating Layer fc22_4_prescale
I0407 23:09:31.002378 21708 net.cpp:434] fc22_4_prescale <- fc22_4
I0407 23:09:31.002385 21708 net.cpp:395] fc22_4_prescale -> fc22_4 (in-place)
I0407 23:09:31.002571 21708 net.cpp:150] Setting up fc22_4_prescale
I0407 23:09:31.002581 21708 net.cpp:157] Top shape: 64 300 (19200)
I0407 23:09:31.002584 21708 net.cpp:165] Memory required for data: 5918057728
I0407 23:09:31.002590 21708 layer_factory.hpp:77] Creating layer fc22_4_sTanH
I0407 23:09:31.002617 21708 net.cpp:100] Creating Layer fc22_4_sTanH
I0407 23:09:31.002622 21708 net.cpp:434] fc22_4_sTanH <- fc22_4
I0407 23:09:31.002629 21708 net.cpp:395] fc22_4_sTanH -> fc22_4 (in-place)
I0407 23:09:31.002912 21708 net.cpp:150] Setting up fc22_4_sTanH
I0407 23:09:31.002926 21708 net.cpp:157] Top shape: 64 300 (19200)
I0407 23:09:31.002929 21708 net.cpp:165] Memory required for data: 5918134528
I0407 23:09:31.002933 21708 layer_factory.hpp:77] Creating layer fc22_4_postscale
I0407 23:09:31.003034 21708 net.cpp:100] Creating Layer fc22_4_postscale
I0407 23:09:31.003043 21708 net.cpp:434] fc22_4_postscale <- fc22_4
I0407 23:09:31.003051 21708 net.cpp:395] fc22_4_postscale -> fc22_4 (in-place)
I0407 23:09:31.003243 21708 net.cpp:150] Setting up fc22_4_postscale
I0407 23:09:31.003254 21708 net.cpp:157] Top shape: 64 300 (19200)
I0407 23:09:31.003258 21708 net.cpp:165] Memory required for data: 5918211328
I0407 23:09:31.003265 21708 layer_factory.hpp:77] Creating layer drop22_4
I0407 23:09:31.003273 21708 net.cpp:100] Creating Layer drop22_4
I0407 23:09:31.003278 21708 net.cpp:434] drop22_4 <- fc22_4
I0407 23:09:31.003284 21708 net.cpp:395] drop22_4 -> fc22_4 (in-place)
I0407 23:09:31.003329 21708 net.cpp:150] Setting up drop22_4
I0407 23:09:31.003337 21708 net.cpp:157] Top shape: 64 300 (19200)
I0407 23:09:31.003341 21708 net.cpp:165] Memory required for data: 5918288128
I0407 23:09:31.003345 21708 layer_factory.hpp:77] Creating layer fc22_5_67
I0407 23:09:31.003351 21708 net.cpp:100] Creating Layer fc22_5_67
I0407 23:09:31.003355 21708 net.cpp:434] fc22_5_67 <- fc22_4
I0407 23:09:31.003361 21708 net.cpp:408] fc22_5_67 -> fc22_5
I0407 23:09:31.003739 21708 net.cpp:150] Setting up fc22_5_67
I0407 23:09:31.003751 21708 net.cpp:157] Top shape: 64 67 (4288)
I0407 23:09:31.003753 21708 net.cpp:165] Memory required for data: 5918305280
I0407 23:09:31.003760 21708 layer_factory.hpp:77] Creating layer softmax_22
I0407 23:09:31.003772 21708 net.cpp:100] Creating Layer softmax_22
I0407 23:09:31.003777 21708 net.cpp:434] softmax_22 <- fc22_5
I0407 23:09:31.003782 21708 net.cpp:408] softmax_22 -> softmax_22
I0407 23:09:31.004195 21708 net.cpp:150] Setting up softmax_22
I0407 23:09:31.004210 21708 net.cpp:157] Top shape: 64 67 (4288)
I0407 23:09:31.004215 21708 net.cpp:165] Memory required for data: 5918322432
I0407 23:09:31.004218 21708 layer_factory.hpp:77] Creating layer conv23_0
I0407 23:09:31.004230 21708 net.cpp:100] Creating Layer conv23_0
I0407 23:09:31.004242 21708 net.cpp:434] conv23_0 <- data_4_data_4_0_split_3
I0407 23:09:31.004251 21708 net.cpp:408] conv23_0 -> conv23_0
I0407 23:09:31.006645 21708 net.cpp:150] Setting up conv23_0
I0407 23:09:31.006666 21708 net.cpp:157] Top shape: 64 100 42 42 (11289600)
I0407 23:09:31.006670 21708 net.cpp:165] Memory required for data: 5963480832
I0407 23:09:31.006680 21708 layer_factory.hpp:77] Creating layer conv23_0_prescale
I0407 23:09:31.006687 21708 net.cpp:100] Creating Layer conv23_0_prescale
I0407 23:09:31.006692 21708 net.cpp:434] conv23_0_prescale <- conv23_0
I0407 23:09:31.006701 21708 net.cpp:395] conv23_0_prescale -> conv23_0 (in-place)
I0407 23:09:31.006902 21708 net.cpp:150] Setting up conv23_0_prescale
I0407 23:09:31.006914 21708 net.cpp:157] Top shape: 64 100 42 42 (11289600)
I0407 23:09:31.006918 21708 net.cpp:165] Memory required for data: 6008639232
I0407 23:09:31.006924 21708 layer_factory.hpp:77] Creating layer conv23_0_sTanH
I0407 23:09:31.006930 21708 net.cpp:100] Creating Layer conv23_0_sTanH
I0407 23:09:31.006937 21708 net.cpp:434] conv23_0_sTanH <- conv23_0
I0407 23:09:31.006943 21708 net.cpp:395] conv23_0_sTanH -> conv23_0 (in-place)
I0407 23:09:31.007218 21708 net.cpp:150] Setting up conv23_0_sTanH
I0407 23:09:31.007232 21708 net.cpp:157] Top shape: 64 100 42 42 (11289600)
I0407 23:09:31.007236 21708 net.cpp:165] Memory required for data: 6053797632
I0407 23:09:31.007241 21708 layer_factory.hpp:77] Creating layer conv23_0_postscale
I0407 23:09:31.007251 21708 net.cpp:100] Creating Layer conv23_0_postscale
I0407 23:09:31.007272 21708 net.cpp:434] conv23_0_postscale <- conv23_0
I0407 23:09:31.007279 21708 net.cpp:395] conv23_0_postscale -> conv23_0 (in-place)
I0407 23:09:31.007483 21708 net.cpp:150] Setting up conv23_0_postscale
I0407 23:09:31.007496 21708 net.cpp:157] Top shape: 64 100 42 42 (11289600)
I0407 23:09:31.007500 21708 net.cpp:165] Memory required for data: 6098956032
I0407 23:09:31.007506 21708 layer_factory.hpp:77] Creating layer pool23_0
I0407 23:09:31.007513 21708 net.cpp:100] Creating Layer pool23_0
I0407 23:09:31.007517 21708 net.cpp:434] pool23_0 <- conv23_0
I0407 23:09:31.007524 21708 net.cpp:408] pool23_0 -> pool23_0
I0407 23:09:31.007603 21708 net.cpp:150] Setting up pool23_0
I0407 23:09:31.007613 21708 net.cpp:157] Top shape: 64 100 21 21 (2822400)
I0407 23:09:31.007617 21708 net.cpp:165] Memory required for data: 6110245632
I0407 23:09:31.007622 21708 layer_factory.hpp:77] Creating layer conv23_1
I0407 23:09:31.007632 21708 net.cpp:100] Creating Layer conv23_1
I0407 23:09:31.007638 21708 net.cpp:434] conv23_1 <- pool23_0
I0407 23:09:31.007647 21708 net.cpp:408] conv23_1 -> conv23_1
I0407 23:09:31.011740 21708 net.cpp:150] Setting up conv23_1
I0407 23:09:31.011760 21708 net.cpp:157] Top shape: 64 150 18 18 (3110400)
I0407 23:09:31.011765 21708 net.cpp:165] Memory required for data: 6122687232
I0407 23:09:31.011772 21708 layer_factory.hpp:77] Creating layer conv23_1_prescale
I0407 23:09:31.011785 21708 net.cpp:100] Creating Layer conv23_1_prescale
I0407 23:09:31.011790 21708 net.cpp:434] conv23_1_prescale <- conv23_1
I0407 23:09:31.011798 21708 net.cpp:395] conv23_1_prescale -> conv23_1 (in-place)
I0407 23:09:31.012012 21708 net.cpp:150] Setting up conv23_1_prescale
I0407 23:09:31.012024 21708 net.cpp:157] Top shape: 64 150 18 18 (3110400)
I0407 23:09:31.012028 21708 net.cpp:165] Memory required for data: 6135128832
I0407 23:09:31.012034 21708 layer_factory.hpp:77] Creating layer conv23_1_sTanH
I0407 23:09:31.012042 21708 net.cpp:100] Creating Layer conv23_1_sTanH
I0407 23:09:31.012048 21708 net.cpp:434] conv23_1_sTanH <- conv23_1
I0407 23:09:31.012053 21708 net.cpp:395] conv23_1_sTanH -> conv23_1 (in-place)
I0407 23:09:31.012325 21708 net.cpp:150] Setting up conv23_1_sTanH
I0407 23:09:31.012338 21708 net.cpp:157] Top shape: 64 150 18 18 (3110400)
I0407 23:09:31.012342 21708 net.cpp:165] Memory required for data: 6147570432
I0407 23:09:31.012346 21708 layer_factory.hpp:77] Creating layer conv23_1_postscale
I0407 23:09:31.012353 21708 net.cpp:100] Creating Layer conv23_1_postscale
I0407 23:09:31.012358 21708 net.cpp:434] conv23_1_postscale <- conv23_1
I0407 23:09:31.012367 21708 net.cpp:395] conv23_1_postscale -> conv23_1 (in-place)
I0407 23:09:31.012564 21708 net.cpp:150] Setting up conv23_1_postscale
I0407 23:09:31.012575 21708 net.cpp:157] Top shape: 64 150 18 18 (3110400)
I0407 23:09:31.012579 21708 net.cpp:165] Memory required for data: 6160012032
I0407 23:09:31.012585 21708 layer_factory.hpp:77] Creating layer pool23_1
I0407 23:09:31.012593 21708 net.cpp:100] Creating Layer pool23_1
I0407 23:09:31.012598 21708 net.cpp:434] pool23_1 <- conv23_1
I0407 23:09:31.012605 21708 net.cpp:408] pool23_1 -> pool23_1
I0407 23:09:31.012686 21708 net.cpp:150] Setting up pool23_1
I0407 23:09:31.012696 21708 net.cpp:157] Top shape: 64 150 9 9 (777600)
I0407 23:09:31.012699 21708 net.cpp:165] Memory required for data: 6163122432
I0407 23:09:31.012702 21708 layer_factory.hpp:77] Creating layer conv23_2
I0407 23:09:31.012713 21708 net.cpp:100] Creating Layer conv23_2
I0407 23:09:31.012719 21708 net.cpp:434] conv23_2 <- pool23_1
I0407 23:09:31.012727 21708 net.cpp:408] conv23_2 -> conv23_2
I0407 23:09:31.020877 21708 net.cpp:150] Setting up conv23_2
I0407 23:09:31.020897 21708 net.cpp:157] Top shape: 64 250 6 6 (576000)
I0407 23:09:31.020901 21708 net.cpp:165] Memory required for data: 6165426432
I0407 23:09:31.020910 21708 layer_factory.hpp:77] Creating layer conv23_2_prescale
I0407 23:09:31.020921 21708 net.cpp:100] Creating Layer conv23_2_prescale
I0407 23:09:31.020926 21708 net.cpp:434] conv23_2_prescale <- conv23_2
I0407 23:09:31.020951 21708 net.cpp:395] conv23_2_prescale -> conv23_2 (in-place)
I0407 23:09:31.021149 21708 net.cpp:150] Setting up conv23_2_prescale
I0407 23:09:31.021160 21708 net.cpp:157] Top shape: 64 250 6 6 (576000)
I0407 23:09:31.021164 21708 net.cpp:165] Memory required for data: 6167730432
I0407 23:09:31.021170 21708 layer_factory.hpp:77] Creating layer conv23_2_sTanH
I0407 23:09:31.021178 21708 net.cpp:100] Creating Layer conv23_2_sTanH
I0407 23:09:31.021186 21708 net.cpp:434] conv23_2_sTanH <- conv23_2
I0407 23:09:31.021191 21708 net.cpp:395] conv23_2_sTanH -> conv23_2 (in-place)
I0407 23:09:31.022367 21708 net.cpp:150] Setting up conv23_2_sTanH
I0407 23:09:31.022389 21708 net.cpp:157] Top shape: 64 250 6 6 (576000)
I0407 23:09:31.022393 21708 net.cpp:165] Memory required for data: 6170034432
I0407 23:09:31.022398 21708 layer_factory.hpp:77] Creating layer conv23_2_postscale
I0407 23:09:31.022408 21708 net.cpp:100] Creating Layer conv23_2_postscale
I0407 23:09:31.022413 21708 net.cpp:434] conv23_2_postscale <- conv23_2
I0407 23:09:31.022421 21708 net.cpp:395] conv23_2_postscale -> conv23_2 (in-place)
I0407 23:09:31.022624 21708 net.cpp:150] Setting up conv23_2_postscale
I0407 23:09:31.022634 21708 net.cpp:157] Top shape: 64 250 6 6 (576000)
I0407 23:09:31.022639 21708 net.cpp:165] Memory required for data: 6172338432
I0407 23:09:31.022644 21708 layer_factory.hpp:77] Creating layer pool23_2
I0407 23:09:31.022653 21708 net.cpp:100] Creating Layer pool23_2
I0407 23:09:31.022660 21708 net.cpp:434] pool23_2 <- conv23_2
I0407 23:09:31.022665 21708 net.cpp:408] pool23_2 -> pool23_2
I0407 23:09:31.022745 21708 net.cpp:150] Setting up pool23_2
I0407 23:09:31.022755 21708 net.cpp:157] Top shape: 64 250 3 3 (144000)
I0407 23:09:31.022759 21708 net.cpp:165] Memory required for data: 6172914432
I0407 23:09:31.022763 21708 layer_factory.hpp:77] Creating layer fc23_4_300
I0407 23:09:31.022773 21708 net.cpp:100] Creating Layer fc23_4_300
I0407 23:09:31.022776 21708 net.cpp:434] fc23_4_300 <- pool23_2
I0407 23:09:31.022783 21708 net.cpp:408] fc23_4_300 -> fc23_4
I0407 23:09:31.029616 21708 net.cpp:150] Setting up fc23_4_300
I0407 23:09:31.029633 21708 net.cpp:157] Top shape: 64 300 (19200)
I0407 23:09:31.029637 21708 net.cpp:165] Memory required for data: 6172991232
I0407 23:09:31.029645 21708 layer_factory.hpp:77] Creating layer fc23_4_prescale
I0407 23:09:31.029656 21708 net.cpp:100] Creating Layer fc23_4_prescale
I0407 23:09:31.029661 21708 net.cpp:434] fc23_4_prescale <- fc23_4
I0407 23:09:31.029667 21708 net.cpp:395] fc23_4_prescale -> fc23_4 (in-place)
I0407 23:09:31.029855 21708 net.cpp:150] Setting up fc23_4_prescale
I0407 23:09:31.029866 21708 net.cpp:157] Top shape: 64 300 (19200)
I0407 23:09:31.029870 21708 net.cpp:165] Memory required for data: 6173068032
I0407 23:09:31.029875 21708 layer_factory.hpp:77] Creating layer fc23_4_sTanH
I0407 23:09:31.029881 21708 net.cpp:100] Creating Layer fc23_4_sTanH
I0407 23:09:31.029886 21708 net.cpp:434] fc23_4_sTanH <- fc23_4
I0407 23:09:31.029891 21708 net.cpp:395] fc23_4_sTanH -> fc23_4 (in-place)
I0407 23:09:31.030182 21708 net.cpp:150] Setting up fc23_4_sTanH
I0407 23:09:31.030197 21708 net.cpp:157] Top shape: 64 300 (19200)
I0407 23:09:31.030201 21708 net.cpp:165] Memory required for data: 6173144832
I0407 23:09:31.030205 21708 layer_factory.hpp:77] Creating layer fc23_4_postscale
I0407 23:09:31.030213 21708 net.cpp:100] Creating Layer fc23_4_postscale
I0407 23:09:31.030217 21708 net.cpp:434] fc23_4_postscale <- fc23_4
I0407 23:09:31.030225 21708 net.cpp:395] fc23_4_postscale -> fc23_4 (in-place)
I0407 23:09:31.030433 21708 net.cpp:150] Setting up fc23_4_postscale
I0407 23:09:31.030444 21708 net.cpp:157] Top shape: 64 300 (19200)
I0407 23:09:31.030448 21708 net.cpp:165] Memory required for data: 6173221632
I0407 23:09:31.030453 21708 layer_factory.hpp:77] Creating layer drop23_4
I0407 23:09:31.030460 21708 net.cpp:100] Creating Layer drop23_4
I0407 23:09:31.030465 21708 net.cpp:434] drop23_4 <- fc23_4
I0407 23:09:31.030470 21708 net.cpp:395] drop23_4 -> fc23_4 (in-place)
I0407 23:09:31.030539 21708 net.cpp:150] Setting up drop23_4
I0407 23:09:31.030549 21708 net.cpp:157] Top shape: 64 300 (19200)
I0407 23:09:31.030551 21708 net.cpp:165] Memory required for data: 6173298432
I0407 23:09:31.030555 21708 layer_factory.hpp:77] Creating layer fc23_5_67
I0407 23:09:31.030565 21708 net.cpp:100] Creating Layer fc23_5_67
I0407 23:09:31.030570 21708 net.cpp:434] fc23_5_67 <- fc23_4
I0407 23:09:31.030575 21708 net.cpp:408] fc23_5_67 -> fc23_5
I0407 23:09:31.030956 21708 net.cpp:150] Setting up fc23_5_67
I0407 23:09:31.030967 21708 net.cpp:157] Top shape: 64 67 (4288)
I0407 23:09:31.030971 21708 net.cpp:165] Memory required for data: 6173315584
I0407 23:09:31.030978 21708 layer_factory.hpp:77] Creating layer softmax_23
I0407 23:09:31.030988 21708 net.cpp:100] Creating Layer softmax_23
I0407 23:09:31.030993 21708 net.cpp:434] softmax_23 <- fc23_5
I0407 23:09:31.030999 21708 net.cpp:408] softmax_23 -> softmax_23
I0407 23:09:31.031400 21708 net.cpp:150] Setting up softmax_23
I0407 23:09:31.031414 21708 net.cpp:157] Top shape: 64 67 (4288)
I0407 23:09:31.031417 21708 net.cpp:165] Memory required for data: 6173332736
I0407 23:09:31.031422 21708 layer_factory.hpp:77] Creating layer conv24_0
I0407 23:09:31.031433 21708 net.cpp:100] Creating Layer conv24_0
I0407 23:09:31.031438 21708 net.cpp:434] conv24_0 <- data_4_data_4_0_split_4
I0407 23:09:31.031450 21708 net.cpp:408] conv24_0 -> conv24_0
I0407 23:09:31.034723 21708 net.cpp:150] Setting up conv24_0
I0407 23:09:31.034744 21708 net.cpp:157] Top shape: 64 100 42 42 (11289600)
I0407 23:09:31.034747 21708 net.cpp:165] Memory required for data: 6218491136
I0407 23:09:31.034756 21708 layer_factory.hpp:77] Creating layer conv24_0_prescale
I0407 23:09:31.034765 21708 net.cpp:100] Creating Layer conv24_0_prescale
I0407 23:09:31.034770 21708 net.cpp:434] conv24_0_prescale <- conv24_0
I0407 23:09:31.034783 21708 net.cpp:395] conv24_0_prescale -> conv24_0 (in-place)
I0407 23:09:31.034989 21708 net.cpp:150] Setting up conv24_0_prescale
I0407 23:09:31.035001 21708 net.cpp:157] Top shape: 64 100 42 42 (11289600)
I0407 23:09:31.035004 21708 net.cpp:165] Memory required for data: 6263649536
I0407 23:09:31.035010 21708 layer_factory.hpp:77] Creating layer conv24_0_sTanH
I0407 23:09:31.035017 21708 net.cpp:100] Creating Layer conv24_0_sTanH
I0407 23:09:31.035022 21708 net.cpp:434] conv24_0_sTanH <- conv24_0
I0407 23:09:31.035028 21708 net.cpp:395] conv24_0_sTanH -> conv24_0 (in-place)
I0407 23:09:31.035308 21708 net.cpp:150] Setting up conv24_0_sTanH
I0407 23:09:31.035322 21708 net.cpp:157] Top shape: 64 100 42 42 (11289600)
I0407 23:09:31.035326 21708 net.cpp:165] Memory required for data: 6308807936
I0407 23:09:31.035331 21708 layer_factory.hpp:77] Creating layer conv24_0_postscale
I0407 23:09:31.035344 21708 net.cpp:100] Creating Layer conv24_0_postscale
I0407 23:09:31.035349 21708 net.cpp:434] conv24_0_postscale <- conv24_0
I0407 23:09:31.035357 21708 net.cpp:395] conv24_0_postscale -> conv24_0 (in-place)
I0407 23:09:31.035565 21708 net.cpp:150] Setting up conv24_0_postscale
I0407 23:09:31.035576 21708 net.cpp:157] Top shape: 64 100 42 42 (11289600)
I0407 23:09:31.035580 21708 net.cpp:165] Memory required for data: 6353966336
I0407 23:09:31.035586 21708 layer_factory.hpp:77] Creating layer pool24_0
I0407 23:09:31.035596 21708 net.cpp:100] Creating Layer pool24_0
I0407 23:09:31.035600 21708 net.cpp:434] pool24_0 <- conv24_0
I0407 23:09:31.035606 21708 net.cpp:408] pool24_0 -> pool24_0
I0407 23:09:31.035687 21708 net.cpp:150] Setting up pool24_0
I0407 23:09:31.035697 21708 net.cpp:157] Top shape: 64 100 21 21 (2822400)
I0407 23:09:31.035701 21708 net.cpp:165] Memory required for data: 6365255936
I0407 23:09:31.035704 21708 layer_factory.hpp:77] Creating layer conv24_1
I0407 23:09:31.035715 21708 net.cpp:100] Creating Layer conv24_1
I0407 23:09:31.035722 21708 net.cpp:434] conv24_1 <- pool24_0
I0407 23:09:31.035732 21708 net.cpp:408] conv24_1 -> conv24_1
I0407 23:09:31.041090 21708 net.cpp:150] Setting up conv24_1
I0407 23:09:31.041110 21708 net.cpp:157] Top shape: 64 150 18 18 (3110400)
I0407 23:09:31.041131 21708 net.cpp:165] Memory required for data: 6377697536
I0407 23:09:31.041141 21708 layer_factory.hpp:77] Creating layer conv24_1_prescale
I0407 23:09:31.041152 21708 net.cpp:100] Creating Layer conv24_1_prescale
I0407 23:09:31.041157 21708 net.cpp:434] conv24_1_prescale <- conv24_1
I0407 23:09:31.041164 21708 net.cpp:395] conv24_1_prescale -> conv24_1 (in-place)
I0407 23:09:31.041370 21708 net.cpp:150] Setting up conv24_1_prescale
I0407 23:09:31.041383 21708 net.cpp:157] Top shape: 64 150 18 18 (3110400)
I0407 23:09:31.041386 21708 net.cpp:165] Memory required for data: 6390139136
I0407 23:09:31.041393 21708 layer_factory.hpp:77] Creating layer conv24_1_sTanH
I0407 23:09:31.041400 21708 net.cpp:100] Creating Layer conv24_1_sTanH
I0407 23:09:31.041406 21708 net.cpp:434] conv24_1_sTanH <- conv24_1
I0407 23:09:31.041412 21708 net.cpp:395] conv24_1_sTanH -> conv24_1 (in-place)
I0407 23:09:31.041682 21708 net.cpp:150] Setting up conv24_1_sTanH
I0407 23:09:31.041697 21708 net.cpp:157] Top shape: 64 150 18 18 (3110400)
I0407 23:09:31.041700 21708 net.cpp:165] Memory required for data: 6402580736
I0407 23:09:31.041704 21708 layer_factory.hpp:77] Creating layer conv24_1_postscale
I0407 23:09:31.041713 21708 net.cpp:100] Creating Layer conv24_1_postscale
I0407 23:09:31.041718 21708 net.cpp:434] conv24_1_postscale <- conv24_1
I0407 23:09:31.041724 21708 net.cpp:395] conv24_1_postscale -> conv24_1 (in-place)
I0407 23:09:31.041927 21708 net.cpp:150] Setting up conv24_1_postscale
I0407 23:09:31.041939 21708 net.cpp:157] Top shape: 64 150 18 18 (3110400)
I0407 23:09:31.041942 21708 net.cpp:165] Memory required for data: 6415022336
I0407 23:09:31.041947 21708 layer_factory.hpp:77] Creating layer pool24_1
I0407 23:09:31.041956 21708 net.cpp:100] Creating Layer pool24_1
I0407 23:09:31.041962 21708 net.cpp:434] pool24_1 <- conv24_1
I0407 23:09:31.041970 21708 net.cpp:408] pool24_1 -> pool24_1
I0407 23:09:31.042052 21708 net.cpp:150] Setting up pool24_1
I0407 23:09:31.042062 21708 net.cpp:157] Top shape: 64 150 9 9 (777600)
I0407 23:09:31.042065 21708 net.cpp:165] Memory required for data: 6418132736
I0407 23:09:31.042069 21708 layer_factory.hpp:77] Creating layer conv24_2
I0407 23:09:31.042080 21708 net.cpp:100] Creating Layer conv24_2
I0407 23:09:31.042088 21708 net.cpp:434] conv24_2 <- pool24_1
I0407 23:09:31.042094 21708 net.cpp:408] conv24_2 -> conv24_2
I0407 23:09:31.050252 21708 net.cpp:150] Setting up conv24_2
I0407 23:09:31.050272 21708 net.cpp:157] Top shape: 64 250 6 6 (576000)
I0407 23:09:31.050277 21708 net.cpp:165] Memory required for data: 6420436736
I0407 23:09:31.050285 21708 layer_factory.hpp:77] Creating layer conv24_2_prescale
I0407 23:09:31.050297 21708 net.cpp:100] Creating Layer conv24_2_prescale
I0407 23:09:31.050302 21708 net.cpp:434] conv24_2_prescale <- conv24_2
I0407 23:09:31.050309 21708 net.cpp:395] conv24_2_prescale -> conv24_2 (in-place)
I0407 23:09:31.050508 21708 net.cpp:150] Setting up conv24_2_prescale
I0407 23:09:31.050523 21708 net.cpp:157] Top shape: 64 250 6 6 (576000)
I0407 23:09:31.050526 21708 net.cpp:165] Memory required for data: 6422740736
I0407 23:09:31.050532 21708 layer_factory.hpp:77] Creating layer conv24_2_sTanH
I0407 23:09:31.050539 21708 net.cpp:100] Creating Layer conv24_2_sTanH
I0407 23:09:31.050544 21708 net.cpp:434] conv24_2_sTanH <- conv24_2
I0407 23:09:31.050549 21708 net.cpp:395] conv24_2_sTanH -> conv24_2 (in-place)
I0407 23:09:31.051713 21708 net.cpp:150] Setting up conv24_2_sTanH
I0407 23:09:31.051733 21708 net.cpp:157] Top shape: 64 250 6 6 (576000)
I0407 23:09:31.051738 21708 net.cpp:165] Memory required for data: 6425044736
I0407 23:09:31.051743 21708 layer_factory.hpp:77] Creating layer conv24_2_postscale
I0407 23:09:31.051750 21708 net.cpp:100] Creating Layer conv24_2_postscale
I0407 23:09:31.051755 21708 net.cpp:434] conv24_2_postscale <- conv24_2
I0407 23:09:31.051765 21708 net.cpp:395] conv24_2_postscale -> conv24_2 (in-place)
I0407 23:09:31.051985 21708 net.cpp:150] Setting up conv24_2_postscale
I0407 23:09:31.051997 21708 net.cpp:157] Top shape: 64 250 6 6 (576000)
I0407 23:09:31.052022 21708 net.cpp:165] Memory required for data: 6427348736
I0407 23:09:31.052031 21708 layer_factory.hpp:77] Creating layer pool24_2
I0407 23:09:31.052037 21708 net.cpp:100] Creating Layer pool24_2
I0407 23:09:31.052042 21708 net.cpp:434] pool24_2 <- conv24_2
I0407 23:09:31.052050 21708 net.cpp:408] pool24_2 -> pool24_2
I0407 23:09:31.052167 21708 net.cpp:150] Setting up pool24_2
I0407 23:09:31.052181 21708 net.cpp:157] Top shape: 64 250 3 3 (144000)
I0407 23:09:31.052183 21708 net.cpp:165] Memory required for data: 6427924736
I0407 23:09:31.052187 21708 layer_factory.hpp:77] Creating layer fc24_4_300
I0407 23:09:31.052194 21708 net.cpp:100] Creating Layer fc24_4_300
I0407 23:09:31.052199 21708 net.cpp:434] fc24_4_300 <- pool24_2
I0407 23:09:31.052206 21708 net.cpp:408] fc24_4_300 -> fc24_4
I0407 23:09:31.059026 21708 net.cpp:150] Setting up fc24_4_300
I0407 23:09:31.059044 21708 net.cpp:157] Top shape: 64 300 (19200)
I0407 23:09:31.059048 21708 net.cpp:165] Memory required for data: 6428001536
I0407 23:09:31.059056 21708 layer_factory.hpp:77] Creating layer fc24_4_prescale
I0407 23:09:31.059064 21708 net.cpp:100] Creating Layer fc24_4_prescale
I0407 23:09:31.059069 21708 net.cpp:434] fc24_4_prescale <- fc24_4
I0407 23:09:31.059078 21708 net.cpp:395] fc24_4_prescale -> fc24_4 (in-place)
I0407 23:09:31.059276 21708 net.cpp:150] Setting up fc24_4_prescale
I0407 23:09:31.059288 21708 net.cpp:157] Top shape: 64 300 (19200)
I0407 23:09:31.059291 21708 net.cpp:165] Memory required for data: 6428078336
I0407 23:09:31.059298 21708 layer_factory.hpp:77] Creating layer fc24_4_sTanH
I0407 23:09:31.059303 21708 net.cpp:100] Creating Layer fc24_4_sTanH
I0407 23:09:31.059309 21708 net.cpp:434] fc24_4_sTanH <- fc24_4
I0407 23:09:31.059315 21708 net.cpp:395] fc24_4_sTanH -> fc24_4 (in-place)
I0407 23:09:31.059607 21708 net.cpp:150] Setting up fc24_4_sTanH
I0407 23:09:31.059622 21708 net.cpp:157] Top shape: 64 300 (19200)
I0407 23:09:31.059624 21708 net.cpp:165] Memory required for data: 6428155136
I0407 23:09:31.059629 21708 layer_factory.hpp:77] Creating layer fc24_4_postscale
I0407 23:09:31.059638 21708 net.cpp:100] Creating Layer fc24_4_postscale
I0407 23:09:31.059644 21708 net.cpp:434] fc24_4_postscale <- fc24_4
I0407 23:09:31.059653 21708 net.cpp:395] fc24_4_postscale -> fc24_4 (in-place)
I0407 23:09:31.059855 21708 net.cpp:150] Setting up fc24_4_postscale
I0407 23:09:31.059865 21708 net.cpp:157] Top shape: 64 300 (19200)
I0407 23:09:31.059869 21708 net.cpp:165] Memory required for data: 6428231936
I0407 23:09:31.059875 21708 layer_factory.hpp:77] Creating layer drop24_4
I0407 23:09:31.059891 21708 net.cpp:100] Creating Layer drop24_4
I0407 23:09:31.059895 21708 net.cpp:434] drop24_4 <- fc24_4
I0407 23:09:31.059901 21708 net.cpp:395] drop24_4 -> fc24_4 (in-place)
I0407 23:09:31.059952 21708 net.cpp:150] Setting up drop24_4
I0407 23:09:31.059967 21708 net.cpp:157] Top shape: 64 300 (19200)
I0407 23:09:31.059970 21708 net.cpp:165] Memory required for data: 6428308736
I0407 23:09:31.059973 21708 layer_factory.hpp:77] Creating layer fc24_5_67
I0407 23:09:31.059980 21708 net.cpp:100] Creating Layer fc24_5_67
I0407 23:09:31.059984 21708 net.cpp:434] fc24_5_67 <- fc24_4
I0407 23:09:31.059993 21708 net.cpp:408] fc24_5_67 -> fc24_5
I0407 23:09:31.060376 21708 net.cpp:150] Setting up fc24_5_67
I0407 23:09:31.060387 21708 net.cpp:157] Top shape: 64 67 (4288)
I0407 23:09:31.060390 21708 net.cpp:165] Memory required for data: 6428325888
I0407 23:09:31.060397 21708 layer_factory.hpp:77] Creating layer softmax_24
I0407 23:09:31.060405 21708 net.cpp:100] Creating Layer softmax_24
I0407 23:09:31.060408 21708 net.cpp:434] softmax_24 <- fc24_5
I0407 23:09:31.060415 21708 net.cpp:408] softmax_24 -> softmax_24
I0407 23:09:31.060820 21708 net.cpp:150] Setting up softmax_24
I0407 23:09:31.060834 21708 net.cpp:157] Top shape: 64 67 (4288)
I0407 23:09:31.060837 21708 net.cpp:165] Memory required for data: 6428343040
I0407 23:09:31.060842 21708 layer_factory.hpp:77] Creating layer averaging
I0407 23:09:31.060853 21708 net.cpp:100] Creating Layer averaging
I0407 23:09:31.060871 21708 net.cpp:434] averaging <- softmax_0
I0407 23:09:31.060878 21708 net.cpp:434] averaging <- softmax_1
I0407 23:09:31.060883 21708 net.cpp:434] averaging <- softmax_2
…
