…
I0407 23:51:03.939261 25790 net.cpp:322] The NetState phase (0) differed from the phase (1) specified by a rule in layer accuracy_5
I0407 23:51:03.941578 25790 net.cpp:58] Initializing net from parameters: 
state {
  phase: TRAIN
  level: 0
  stage: ""
}
layer {
  name: "data_0"
  type: "Data"
  top: "data_0"
  top: "label_0"
  include {
    phase: TRAIN
  }
  transform_param {
    mirror: false
    crop_size: 48
    mean_value: 115
    mean_value: 107
    mean_value: 120
  }
  data_param {
    source: "../local_data/lmdb/rtsd-r1/orig/train/lmdb"
    batch_size: 128
    backend: LMDB
  }
}
layer {
  name: "conv0_0"
  type: "Convolution"
  bottom: "data_0"
  top: "conv0_0"
  convolution_param {
    num_output: 100
    pad: 0
    kernel_size: 7
    group: 1
    stride: 1
    weight_filler {
      type: "xavier"
    }
  }
}
layer {
  name: "conv0_0_prescale"
  type: "Scale"
  bottom: "conv0_0"
  top: "conv0_0"
  param {
    lr_mult: 0
    decay_mult: 0
  }
  scale_param {
    filler {
      value: 0.6666
    }
  }
}
layer {
  name: "conv0_0_sTanH"
  type: "TanH"
  bottom: "conv0_0"
  top: "conv0_0"
}
layer {
  name: "conv0_0_postscale"
  type: "Scale"
  bottom: "conv0_0"
  top: "conv0_0"
  param {
    lr_mult: 0
    decay_mult: 0
  }
  scale_param {
    filler {
      value: 1.7159
    }
  }
}
layer {
  name: "pool0_0"
  type: "Pooling"
  bottom: "conv0_0"
  top: "pool0_0"
  pooling_param {
    pool: MAX
    kernel_size: 2
    stride: 2
  }
}
layer {
  name: "conv0_1"
  type: "Convolution"
  bottom: "pool0_0"
  top: "conv0_1"
  convolution_param {
    num_output: 150
    pad: 0
    kernel_size: 4
    group: 1
    stride: 1
    weight_filler {
      type: "xavier"
    }
  }
}
layer {
  name: "conv0_1_prescale"
  type: "Scale"
  bottom: "conv0_1"
  top: "conv0_1"
  param {
    lr_mult: 0
    decay_mult: 0
  }
  scale_param {
    filler {
      value: 0.6666
    }
  }
}
layer {
  name: "conv0_1_sTanH"
  type: "TanH"
  bottom: "conv0_1"
  top: "conv0_1"
}
layer {
  name: "conv0_1_postscale"
  type: "Scale"
  bottom: "conv0_1"
  top: "conv0_1"
  param {
    lr_mult: 0
    decay_mult: 0
  }
  scale_param {
    filler {
      value: 1.7159
    }
  }
}
layer {
  name: "pool0_1"
  type: "Pooling"
  bottom: "conv0_1"
  top: "pool0_1"
  pooling_param {
    pool: MAX
    kernel_size: 2
    stride: 2
  }
}
layer {
  name: "conv0_2"
  type: "Convolution"
  bottom: "pool0_1"
  top: "conv0_2"
  convolution_param {
    num_output: 250
    pad: 0
    kernel_size: 4
    group: 1
    stride: 1
    weight_filler {
      type: "xavier"
    }
  }
}
layer {
  name: "conv0_2_prescale"
  type: "Scale"
  bottom: "conv0_2"
  top: "conv0_2"
  param {
    lr_mult: 0
    decay_mult: 0
  }
  scale_param {
    filler {
      value: 0.6666
    }
  }
}
layer {
  name: "conv0_2_sTanH"
  type: "TanH"
  bottom: "conv0_2"
  top: "conv0_2"
}
layer {
  name: "conv0_2_postscale"
  type: "Scale"
  bottom: "conv0_2"
  top: "conv0_2"
  param {
    lr_mult: 0
    decay_mult: 0
  }
  scale_param {
    filler {
      value: 1.7159
    }
  }
}
layer {
  name: "pool0_2"
  type: "Pooling"
  bottom: "conv0_2"
  top: "pool0_2"
  pooling_param {
    pool: MAX
    kernel_size: 2
    stride: 2
  }
}
layer {
  name: "fc0_4_300"
  type: "InnerProduct"
  bottom: "pool0_2"
  top: "fc0_4"
  inner_product_param {
    num_output: 300
    weight_filler {
      type: "xavier"
    }
  }
}
layer {
  name: "fc0_4_prescale"
  type: "Scale"
  bottom: "fc0_4"
  top: "fc0_4"
  param {
    lr_mult: 0
    decay_mult: 0
  }
  scale_param {
    filler {
      value: 0.6666
    }
  }
}
layer {
  name: "fc0_4_sTanH"
  type: "TanH"
  bottom: "fc0_4"
  top: "fc0_4"
}
layer {
  name: "fc0_4_postscale"
  type: "Scale"
  bottom: "fc0_4"
  top: "fc0_4"
  param {
    lr_mult: 0
    decay_mult: 0
  }
  scale_param {
    filler {
      value: 1.7159
    }
  }
}
layer {
  name: "drop0_4"
  type: "Dropout"
  bottom: "fc0_4"
  top: "fc0_4"
  dropout_param {
    dropout_ratio: 0.4
  }
}
layer {
  name: "fc0_5_67"
  type: "InnerProduct"
  bottom: "fc0_4"
  top: "fc0_5"
  inner_product_param {
    num_output: 67
    weight_filler {
      type: "xavier"
    }
  }
}
layer {
  name: "softmax_0"
  type: "Softmax"
  bottom: "fc0_5"
  top: "softmax_0"
}
layer {
  name: "conv1_0"
  type: "Convolution"
  bottom: "data_0"
  top: "conv1_0"
  convolution_param {
    num_output: 100
    pad: 0
    kernel_size: 7
    group: 1
    stride: 1
    weight_filler {
      type: "xavier"
    }
  }
}
layer {
  name: "conv1_0_prescale"
  type: "Scale"
  bottom: "conv1_0"
  top: "conv1_0"
  param {
    lr_mult: 0
    decay_mult: 0
  }
  scale_param {
    filler {
      value: 0.6666
    }
  }
}
layer {
  name: "conv1_0_sTanH"
  type: "TanH"
  bottom: "conv1_0"
  top: "conv1_0"
}
layer {
  name: "conv1_0_postscale"
  type: "Scale"
  bottom: "conv1_0"
  top: "conv1_0"
  param {
    lr_mult: 0
    decay_mult: 0
  }
  scale_param {
    filler {
      value: 1.7159
    }
  }
}
layer {
  name: "pool1_0"
  type: "Pooling"
  bottom: "conv1_0"
  top: "pool1_0"
  pooling_param {
    pool: MAX
    kernel_size: 2
    stride: 2
  }
}
layer {
  name: "conv1_1"
  type: "Convolution"
  bottom: "pool1_0"
  top: "conv1_1"
  convolution_param {
    num_output: 150
    pad: 0
    kernel_size: 4
    group: 1
    stride: 1
    weight_filler {
      type: "xavier"
    }
  }
}
layer {
  name: "conv1_1_prescale"
  type: "Scale"
  bottom: "conv1_1"
  top: "conv1_1"
  param {
    lr_mult: 0
    decay_mult: 0
  }
  scale_param {
    filler {
      value: 0.6666
    }
  }
}
layer {
  name: "conv1_1_sTanH"
  type: "TanH"
  bottom: "conv1_1"
  top: "conv1_1"
}
layer {
  name: "conv1_1_postscale"
  type: "Scale"
  bottom: "conv1_1"
  top: "conv1_1"
  param {
    lr_mult: 0
    decay_mult: 0
  }
  scale_param {
    filler {
      value: 1.7159
    }
  }
}
layer {
  name: "pool1_1"
  type: "Pooling"
  bottom: "conv1_1"
  top: "pool1_1"
  pooling_param {
    pool: MAX
    kernel_size: 2
    stride: 2
  }
}
layer {
  name: "conv1_2"
  type: "Convolution"
  bottom: "pool1_1"
  top: "conv1_2"
  convolution_param {
    num_output: 250
    pad: 0
    kernel_size: 4
    group: 1
    stride: 1
    weight_filler {
      type: "xavier"
    }
  }
}
layer {
  name: "conv1_2_prescale"
  type: "Scale"
  bottom: "conv1_2"
  top: "conv1_2"
  param {
    lr_mult: 0
    decay_mult: 0
  }
  scale_param {
    filler {
      value: 0.6666
    }
  }
}
layer {
  name: "conv1_2_sTanH"
  type: "TanH"
  bottom: "conv1_2"
  top: "conv1_2"
}
layer {
  name: "conv1_2_postscale"
  type: "Scale"
  bottom: "conv1_2"
  top: "conv1_2"
  param {
    lr_mult: 0
    decay_mult: 0
  }
  scale_param {
    filler {
      value: 1.7159
    }
  }
}
layer {
  name: "pool1_2"
  type: "Pooling"
  bottom: "conv1_2"
  top: "pool1_2"
  pooling_param {
    pool: MAX
    kernel_size: 2
    stride: 2
  }
}
layer {
  name: "fc1_4_300"
  type: "InnerProduct"
  bottom: "pool1_2"
  top: "fc1_4"
  inner_product_param {
    num_output: 300
    weight_filler {
      type: "xavier"
    }
  }
}
layer {
  name: "fc1_4_prescale"
  type: "Scale"
  bottom: "fc1_4"
  top: "fc1_4"
  param {
    lr_mult: 0
    decay_mult: 0
  }
  scale_param {
    filler {
      value: 0.6666
    }
  }
}
layer {
  name: "fc1_4_sTanH"
  type: "TanH"
  bottom: "fc1_4"
  top: "fc1_4"
}
layer {
  name: "fc1_4_postscale"
  type: "Scale"
  bottom: "fc1_4"
  top: "fc1_4"
  param {
    lr_mult: 0
    decay_mult: 0
  }
  scale_param {
    filler {
      value: 1.7159
    }
  }
}
layer {
  name: "drop1_4"
  type: "Dropout"
  bottom: "fc1_4"
  top: "fc1_4"
  dropout_param {
    dropout_ratio: 0.4
  }
}
layer {
  name: "fc1_5_67"
  type: "InnerProduct"
  bottom: "fc1_4"
  top: "fc1_5"
  inner_product_param {
    num_output: 67
    weight_filler {
      type: "xavier"
    }
  }
}
layer {
  name: "softmax_1"
  type: "Softmax"
  bottom: "fc1_5"
  top: "softmax_1"
}
layer {
  name: "conv2_0"
  type: "Convolution"
  bottom: "data_0"
  top: "conv2_0"
  convolution_param {
    num_output: 100
    pad: 0
    kernel_size: 7
    group: 1
    stride: 1
    weight_filler {
      type: "xavier"
    }
  }
}
layer {
  name: "conv2_0_prescale"
  type: "Scale"
  bottom: "conv2_0"
  top: "conv2_0"
  param {
    lr_mult: 0
    decay_mult: 0
  }
  scale_param {
    filler {
      value: 0.6666
    }
  }
}
layer {
  name: "conv2_0_sTanH"
  type: "TanH"
  bottom: "conv2_0"
  top: "conv2_0"
}
layer {
  name: "conv2_0_postscale"
  type: "Scale"
  bottom: "conv2_0"
  top: "conv2_0"
  param {
    lr_mult: 0
    decay_mult: 0
  }
  scale_param {
    filler {
      value: 1.7159
    }
  }
}
layer {
  name: "pool2_0"
  type: "Pooling"
  bottom: "conv2_0"
  top: "pool2_0"
  pooling_param {
    pool: MAX
    kernel_size: 2
    stride: 2
  }
}
layer {
  name: "conv2_1"
  type: "Convolution"
  bottom: "pool2_0"
  top: "conv2_1"
  convolution_param {
    num_output: 150
    pad: 0
    kernel_size: 4
    group: 1
    stride: 1
    weight_filler {
      type: "xavier"
    }
  }
}
layer {
  name: "conv2_1_prescale"
  type: "Scale"
  bottom: "conv2_1"
  top: "conv2_1"
  param {
    lr_mult: 0
    decay_mult: 0
  }
  scale_param {
    filler {
      value: 0.6666
    }
  }
}
layer {
  name: "conv2_1_sTanH"
  type: "TanH"
  bottom: "conv2_1"
  top: "conv2_1"
}
layer {
  name: "conv2_1_postscale"
  type: "Scale"
  bottom: "conv2_1"
  top: "conv2_1"
  param {
    lr_mult: 0
    decay_mult: 0
  }
  scale_param {
    filler {
      value: 1.7159
    }
  }
}
layer {
  name: "pool2_1"
  type: "Pooling"
  bottom: "conv2_1"
  top: "pool2_1"
  pooling_param {
    pool: MAX
    kernel_size: 2
    stride: 2
  }
}
layer {
  name: "conv2_2"
  type: "Convolution"
  bottom: "pool2_1"
  top: "conv2_2"
  convolution_param {
    num_output: 250
    pad: 0
    kernel_size: 4
    group: 1
    stride: 1
    weight_filler {
      type: "xavier"
    }
  }
}
layer {
  name: "conv2_2_prescale"
  type: "Scale"
  bottom: "conv2_2"
  top: "conv2_2"
  param {
    lr_mult: 0
    decay_mult: 0
  }
  scale_param {
    filler {
      value: 0.6666
    }
  }
}
layer {
  name: "conv2_2_sTanH"
  type: "TanH"
  bottom: "conv2_2"
  top: "conv2_2"
}
layer {
  name: "conv2_2_postscale"
  type: "Scale"
  bottom: "conv2_2"
  top: "conv2_2"
  param {
    lr_mult: 0
    decay_mult: 0
  }
  scale_param {
    filler {
      value: 1.7159
    }
  }
}
layer {
  name: "pool2_2"
  type: "Pooling"
  bottom: "conv2_2"
  top: "pool2_2"
  pooling_param {
    pool: MAX
    kernel_size: 2
    stride: 2
  }
}
layer {
  name: "fc2_4_300"
  type: "InnerProduct"
  bottom: "pool2_2"
  top: "fc2_4"
  inner_product_param {
    num_output: 300
    weight_filler {
      type: "xavier"
    }
  }
}
layer {
  name: "fc2_4_prescale"
  type: "Scale"
  bottom: "fc2_4"
  top: "fc2_4"
  param {
    lr_mult: 0
    decay_mult: 0
  }
  scale_param {
    filler {
      value: 0.6666
    }
  }
}
layer {
  name: "fc2_4_sTanH"
  type: "TanH"
  bottom: "fc2_4"
  top: "fc2_4"
}
layer {
  name: "fc2_4_postscale"
  type: "Scale"
  bottom: "fc2_4"
  top: "fc2_4"
  param {
    lr_mult: 0
    decay_mult: 0
  }
  scale_param {
    filler {
      value: 1.7159
    }
  }
}
layer {
  name: "drop2_4"
  type: "Dropout"
  bottom: "fc2_4"
  top: "fc2_4"
  dropout_param {
    dropout_ratio: 0.4
  }
}
layer {
  name: "fc2_5_67"
  type: "InnerProduct"
  bottom: "fc2_4"
  top: "fc2_5"
  inner_product_param {
    num_output: 67
    weight_filler {
      type: "xavier"
    }
  }
}
layer {
  name: "softmax_2"
  type: "Softmax"
  bottom: "fc2_5"
  top: "softmax_2"
}
layer {
  name: "conv3_0"
  type: "Convolution"
  bottom: "data_0"
  top: "conv3_0"
  convolution_param {
    num_output: 100
    pad: 0
    kernel_size: 7
    group: 1
    stride: 1
    weight_filler {
      type: "xavier"
    }
  }
}
layer {
  name: "conv3_0_prescale"
  type: "Scale"
  bottom: "conv3_0"
  top: "conv3_0"
  param {
    lr_mult: 0
    decay_mult: 0
  }
  scale_param {
    filler {
      value: 0.6666
    }
  }
}
layer {
  name: "conv3_0_sTanH"
  type: "TanH"
  bottom: "conv3_0"
  top: "conv3_0"
}
layer {
  name: "conv3_0_postscale"
  type: "Scale"
  bottom: "conv3_0"
  top: "conv3_0"
  param {
    lr_mult: 0
    decay_mult: 0
  }
  scale_param {
    filler {
      value: 1.7159
    }
  }
}
layer {
  name: "pool3_0"
  type: "Pooling"
  bottom: "conv3_0"
  top: "pool3_0"
  pooling_param {
    pool: MAX
    kernel_size: 2
    stride: 2
  }
}
layer {
  name: "conv3_1"
  type: "Convolution"
  bottom: "pool3_0"
  top: "conv3_1"
  convolution_param {
    num_output: 150
    pad: 0
    kernel_size: 4
    group: 1
    stride: 1
    weight_filler {
      type: "xavier"
    }
  }
}
layer {
  name: "conv3_1_prescale"
  type: "Scale"
  bottom: "conv3_1"
  top: "conv3_1"
  param {
    lr_mult: 0
    decay_mult: 0
  }
  scale_param {
    filler {
      value: 0.6666
    }
  }
}
layer {
  name: "conv3_1_sTanH"
  type: "TanH"
  bottom: "conv3_1"
  top: "conv3_1"
}
layer {
  name: "conv3_1_postscale"
  type: "Scale"
  bottom: "conv3_1"
  top: "conv3_1"
  param {
    lr_mult: 0
    decay_mult: 0
  }
  scale_param {
    filler {
      value: 1.7159
    }
  }
}
layer {
  name: "pool3_1"
  type: "Pooling"
  bottom: "conv3_1"
  top: "pool3_1"
  pooling_param {
    pool: MAX
    kernel_size: 2
    stride: 2
  }
}
layer {
  name: "conv3_2"
  type: "Convolution"
  bottom: "pool3_1"
  top: "conv3_2"
  convolution_param {
    num_output: 250
    pad: 0
    kernel_size: 4
    group: 1
    stride: 1
    weight_filler {
      type: "xavier"
    }
  }
}
layer {
  name: "conv3_2_prescale"
  type: "Scale"
  bottom: "conv3_2"
  top: "conv3_2"
  param {
    lr_mult: 0
    decay_mult: 0
  }
  scale_param {
    filler {
      value: 0.6666
    }
  }
}
layer {
  name: "conv3_2_sTanH"
  type: "TanH"
  bottom: "conv3_2"
  top: "conv3_2"
}
layer {
  name: "conv3_2_postscale"
  type: "Scale"
  bottom: "conv3_2"
  top: "conv3_2"
  param {
    lr_mult: 0
    decay_mult: 0
  }
  scale_param {
    filler {
      value: 1.7159
    }
  }
}
layer {
  name: "pool3_2"
  type: "Pooling"
  bottom: "conv3_2"
  top: "pool3_2"
  pooling_param {
    pool: MAX
    kernel_size: 2
    stride: 2
  }
}
layer {
  name: "fc3_4_300"
  type: "InnerProduct"
  bottom: "pool3_2"
  top: "fc3_4"
  inner_product_param {
    num_output: 300
    weight_filler {
      type: "xavier"
    }
  }
}
layer {
  name: "fc3_4_prescale"
  type: "Scale"
  bottom: "fc3_4"
  top: "fc3_4"
  param {
    lr_mult: 0
    decay_mult: 0
  }
  scale_param {
    filler {
      value: 0.6666
    }
  }
}
layer {
  name: "fc3_4_sTanH"
  type: "TanH"
  bottom: "fc3_4"
  top: "fc3_4"
}
layer {
  name: "fc3_4_postscale"
  type: "Scale"
  bottom: "fc3_4"
  top: "fc3_4"
  param {
    lr_mult: 0
    decay_mult: 0
  }
  scale_param {
    filler {
      value: 1.7159
    }
  }
}
layer {
  name: "drop3_4"
  type: "Dropout"
  bottom: "fc3_4"
  top: "fc3_4"
  dropout_param {
    dropout_ratio: 0.4
  }
}
layer {
  name: "fc3_5_67"
  type: "InnerProduct"
  bottom: "fc3_4"
  top: "fc3_5"
  inner_product_param {
    num_output: 67
    weight_filler {
      type: "xavier"
    }
  }
}
layer {
  name: "softmax_3"
  type: "Softmax"
  bottom: "fc3_5"
  top: "softmax_3"
}
layer {
  name: "conv4_0"
  type: "Convolution"
  bottom: "data_0"
  top: "conv4_0"
  convolution_param {
    num_output: 100
    pad: 0
    kernel_size: 7
    group: 1
    stride: 1
    weight_filler {
      type: "xavier"
    }
  }
}
layer {
  name: "conv4_0_prescale"
  type: "Scale"
  bottom: "conv4_0"
  top: "conv4_0"
  param {
    lr_mult: 0
    decay_mult: 0
  }
  scale_param {
    filler {
      value: 0.6666
    }
  }
}
layer {
  name: "conv4_0_sTanH"
  type: "TanH"
  bottom: "conv4_0"
  top: "conv4_0"
}
layer {
  name: "conv4_0_postscale"
  type: "Scale"
  bottom: "conv4_0"
  top: "conv4_0"
  param {
    lr_mult: 0
    decay_mult: 0
  }
  scale_param {
    filler {
      value: 1.7159
    }
  }
}
layer {
  name: "pool4_0"
  type: "Pooling"
  bottom: "conv4_0"
  top: "pool4_0"
  pooling_param {
    pool: MAX
    kernel_size: 2
    stride: 2
  }
}
layer {
  name: "conv4_1"
  type: "Convolution"
  bottom: "pool4_0"
  top: "conv4_1"
  convolution_param {
    num_output: 150
    pad: 0
    kernel_size: 4
    group: 1
    stride: 1
    weight_filler {
      type: "xavier"
    }
  }
}
layer {
  name: "conv4_1_prescale"
  type: "Scale"
  bottom: "conv4_1"
  top: "conv4_1"
  param {
    lr_mult: 0
    decay_mult: 0
  }
  scale_param {
    filler {
      value: 0.6666
    }
  }
}
layer {
  name: "conv4_1_sTanH"
  type: "TanH"
  bottom: "conv4_1"
  top: "conv4_1"
}
layer {
  name: "conv4_1_postscale"
  type: "Scale"
  bottom: "conv4_1"
  top: "conv4_1"
  param {
    lr_mult: 0
    decay_mult: 0
  }
  scale_param {
    filler {
      value: 1.7159
    }
  }
}
layer {
  name: "pool4_1"
  type: "Pooling"
  bottom: "conv4_1"
  top: "pool4_1"
  pooling_param {
    pool: MAX
    kernel_size: 2
    stride: 2
  }
}
layer {
  name: "conv4_2"
  type: "Convolution"
  bottom: "pool4_1"
  top: "conv4_2"
  convolution_param {
    num_output: 250
    pad: 0
    kernel_size: 4
    group: 1
    stride: 1
    weight_filler {
      type: "xavier"
    }
  }
}
layer {
  name: "conv4_2_prescale"
  type: "Scale"
  bottom: "conv4_2"
  top: "conv4_2"
  param {
    lr_mult: 0
    decay_mult: 0
  }
  scale_param {
    filler {
      value: 0.6666
    }
  }
}
layer {
  name: "conv4_2_sTanH"
  type: "TanH"
  bottom: "conv4_2"
  top: "conv4_2"
}
layer {
  name: "conv4_2_postscale"
  type: "Scale"
  bottom: "conv4_2"
  top: "conv4_2"
  param {
    lr_mult: 0
    decay_mult: 0
  }
  scale_param {
    filler {
      value: 1.7159
    }
  }
}
layer {
  name: "pool4_2"
  type: "Pooling"
  bottom: "conv4_2"
  top: "pool4_2"
  pooling_param {
    pool: MAX
    kernel_size: 2
    stride: 2
  }
}
layer {
  name: "fc4_4_300"
  type: "InnerProduct"
  bottom: "pool4_2"
  top: "fc4_4"
  inner_product_param {
    num_output: 300
    weight_filler {
      type: "xavier"
    }
  }
}
layer {
  name: "fc4_4_prescale"
  type: "Scale"
  bottom: "fc4_4"
  top: "fc4_4"
  param {
    lr_mult: 0
    decay_mult: 0
  }
  scale_param {
    filler {
      value: 0.6666
    }
  }
}
layer {
  name: "fc4_4_sTanH"
  type: "TanH"
  bottom: "fc4_4"
  top: "fc4_4"
}
layer {
  name: "fc4_4_postscale"
  type: "Scale"
  bottom: "fc4_4"
  top: "fc4_4"
  param {
    lr_mult: 0
    decay_mult: 0
  }
  scale_param {
    filler {
      value: 1.7159
    }
  }
}
layer {
  name: "drop4_4"
  type: "Dropout"
  bottom: "fc4_4"
  top: "fc4_4"
  dropout_param {
    dropout_ratio: 0.4
  }
}
layer {
  name: "fc4_5_67"
  type: "InnerProduct"
  bottom: "fc4_4"
  top: "fc4_5"
  inner_product_param {
    num_output: 67
    weight_filler {
      type: "xavier"
    }
  }
}
layer {
  name: "softmax_4"
  type: "Softmax"
  bottom: "fc4_5"
  top: "softmax_4"
}
layer {
  name: "data_1"
  type: "Data"
  top: "data_1"
  top: "label_1"
  include {
    phase: TRAIN
  }
  transform_param {
    mirror: false
    crop_size: 48
    mean_value: 122
    mean_value: 115
    mean_value: 128
  }
  data_param {
    source: "../local_data/lmdb/rtsd-r1/histeq/train/lmdb"
    batch_size: 128
    backend: LMDB
  }
}
layer {
  name: "conv5_0"
  type: "Convolution"
  bottom: "data_1"
  top: "conv5_0"
  convolution_param {
    num_output: 100
    pad: 0
    kernel_size: 7
    group: 1
    stride: 1
    weight_filler {
      type: "xavier"
    }
  }
}
layer {
  name: "conv5_0_prescale"
  type: "Scale"
  bottom: "conv5_0"
  top: "conv5_0"
  param {
    lr_mult: 0
    decay_mult: 0
  }
  scale_param {
    filler {
      value: 0.6666
    }
  }
}
layer {
  name: "conv5_0_sTanH"
  type: "TanH"
  bottom: "conv5_0"
  top: "conv5_0"
}
layer {
  name: "conv5_0_postscale"
  type: "Scale"
  bottom: "conv5_0"
  top: "conv5_0"
  param {
    lr_mult: 0
    decay_mult: 0
  }
  scale_param {
    filler {
      value: 1.7159
    }
  }
}
layer {
  name: "pool5_0"
  type: "Pooling"
  bottom: "conv5_0"
  top: "pool5_0"
  pooling_param {
    pool: MAX
    kernel_size: 2
    stride: 2
  }
}
layer {
  name: "conv5_1"
  type: "Convolution"
  bottom: "pool5_0"
  top: "conv5_1"
  convolution_param {
    num_output: 150
    pad: 0
    kernel_size: 4
    group: 1
    stride: 1
    weight_filler {
      type: "xavier"
    }
  }
}
layer {
  name: "conv5_1_prescale"
  type: "Scale"
  bottom: "conv5_1"
  top: "conv5_1"
  param {
    lr_mult: 0
    decay_mult: 0
  }
  scale_param {
    filler {
      value: 0.6666
    }
  }
}
layer {
  name: "conv5_1_sTanH"
  type: "TanH"
  bottom: "conv5_1"
  top: "conv5_1"
}
layer {
  name: "conv5_1_postscale"
  type: "Scale"
  bottom: "conv5_1"
  top: "conv5_1"
  param {
    lr_mult: 0
    decay_mult: 0
  }
  scale_param {
    filler {
      value: 1.7159
    }
  }
}
layer {
  name: "pool5_1"
  type: "Pooling"
  bottom: "conv5_1"
  top: "pool5_1"
  pooling_param {
    pool: MAX
    kernel_size: 2
    stride: 2
  }
}
layer {
  name: "conv5_2"
  type: "Convolution"
  bottom: "pool5_1"
  top: "conv5_2"
  convolution_param {
    num_output: 250
    pad: 0
    kernel_size: 4
    group: 1
    stride: 1
    weight_filler {
      type: "xavier"
    }
  }
}
layer {
  name: "conv5_2_prescale"
  type: "Scale"
  bottom: "conv5_2"
  top: "conv5_2"
  param {
    lr_mult: 0
    decay_mult: 0
  }
  scale_param {
    filler {
      value: 0.6666
    }
  }
}
layer {
  name: "conv5_2_sTanH"
  type: "TanH"
  bottom: "conv5_2"
  top: "conv5_2"
}
layer {
  name: "conv5_2_postscale"
  type: "Scale"
  bottom: "conv5_2"
  top: "conv5_2"
  param {
    lr_mult: 0
    decay_mult: 0
  }
  scale_param {
    filler {
      value: 1.7159
    }
  }
}
layer {
  name: "pool5_2"
  type: "Pooling"
  bottom: "conv5_2"
  top: "pool5_2"
  pooling_param {
    pool: MAX
    kernel_size: 2
    stride: 2
  }
}
layer {
  name: "fc5_4_300"
  type: "InnerProduct"
  bottom: "pool5_2"
  top: "fc5_4"
  inner_product_param {
    num_output: 300
    weight_filler {
      type: "xavier"
    }
  }
}
layer {
  name: "fc5_4_prescale"
  type: "Scale"
  bottom: "fc5_4"
  top: "fc5_4"
  param {
    lr_mult: 0
    decay_mult: 0
  }
  scale_param {
    filler {
      value: 0.6666
    }
  }
}
layer {
  name: "fc5_4_sTanH"
  type: "TanH"
  bottom: "fc5_4"
  top: "fc5_4"
}
layer {
  name: "fc5_4_postscale"
  type: "Scale"
  bottom: "fc5_4"
  top: "fc5_4"
  param {
    lr_mult: 0
    decay_mult: 0
  }
  scale_param {
    filler {
      value: 1.7159
    }
  }
}
layer {
  name: "drop5_4"
  type: "Dropout"
  bottom: "fc5_4"
  top: "fc5_4"
  dropout_param {
    dropout_ratio: 0.4
  }
}
layer {
  name: "fc5_5_67"
  type: "InnerProduct"
  bottom: "fc5_4"
  top: "fc5_5"
  inner_product_param {
    num_output: 67
    weight_filler {
      type: "xavier"
    }
  }
}
layer {
  name: "softmax_5"
  type: "Softmax"
  bottom: "fc5_5"
  top: "softmax_5"
}
layer {
  name: "conv6_0"
  type: "Convolution"
  bottom: "data_1"
  top: "conv6_0"
  convolution_param {
    num_output: 100
    pad: 0
    kernel_size: 7
    group: 1
    stride: 1
    weight_filler {
      type: "xavier"
    }
  }
}
layer {
  name: "conv6_0_prescale"
  type: "Scale"
  bottom: "conv6_0"
  top: "conv6_0"
  param {
    lr_mult: 0
    decay_mult: 0
  }
  scale_param {
    filler {
      value: 0.6666
    }
  }
}
layer {
  name: "conv6_0_sTanH"
  type: "TanH"
  bottom: "conv6_0"
  top: "conv6_0"
}
layer {
  name: "conv6_0_postscale"
  type: "Scale"
  bottom: "conv6_0"
  top: "conv6_0"
  param {
    lr_mult: 0
    decay_mult: 0
  }
  scale_param {
    filler {
      value: 1.7159
    }
  }
}
layer {
  name: "pool6_0"
  type: "Pooling"
  bottom: "conv6_0"
  top: "pool6_0"
  pooling_param {
    pool: MAX
    kernel_size: 2
    stride: 2
  }
}
layer {
  name: "conv6_1"
  type: "Convolution"
  bottom: "pool6_0"
  top: "conv6_1"
  convolution_param {
    num_output: 150
    pad: 0
    kernel_size: 4
    group: 1
    stride: 1
    weight_filler {
      type: "xavier"
    }
  }
}
layer {
  name: "conv6_1_prescale"
  type: "Scale"
  bottom: "conv6_1"
  top: "conv6_1"
  param {
    lr_mult: 0
    decay_mult: 0
  }
  scale_param {
    filler {
      value: 0.6666
    }
  }
}
layer {
  name: "conv6_1_sTanH"
  type: "TanH"
  bottom: "conv6_1"
  top: "conv6_1"
}
layer {
  name: "conv6_1_postscale"
  type: "Scale"
  bottom: "conv6_1"
  top: "conv6_1"
  param {
    lr_mult: 0
    decay_mult: 0
  }
  scale_param {
    filler {
      value: 1.7159
    }
  }
}
layer {
  name: "pool6_1"
  type: "Pooling"
  bottom: "conv6_1"
  top: "pool6_1"
  pooling_param {
    pool: MAX
    kernel_size: 2
    stride: 2
  }
}
layer {
  name: "conv6_2"
  type: "Convolution"
  bottom: "pool6_1"
  top: "conv6_2"
  convolution_param {
    num_output: 250
    pad: 0
    kernel_size: 4
    group: 1
    stride: 1
    weight_filler {
      type: "xavier"
    }
  }
}
layer {
  name: "conv6_2_prescale"
  type: "Scale"
  bottom: "conv6_2"
  top: "conv6_2"
  param {
    lr_mult: 0
    decay_mult: 0
  }
  scale_param {
    filler {
      value: 0.6666
    }
  }
}
layer {
  name: "conv6_2_sTanH"
  type: "TanH"
  bottom: "conv6_2"
  top: "conv6_2"
}
layer {
  name: "conv6_2_postscale"
  type: "Scale"
  bottom: "conv6_2"
  top: "conv6_2"
  param {
    lr_mult: 0
    decay_mult: 0
  }
  scale_param {
    filler {
      value: 1.7159
    }
  }
}
layer {
  name: "pool6_2"
  type: "Pooling"
  bottom: "conv6_2"
  top: "pool6_2"
  pooling_param {
    pool: MAX
    kernel_size: 2
    stride: 2
  }
}
layer {
  name: "fc6_4_300"
  type: "InnerProduct"
  bottom: "pool6_2"
  top: "fc6_4"
  inner_product_param {
    num_output: 300
    weight_filler {
      type: "xavier"
    }
  }
}
layer {
  name: "fc6_4_prescale"
  type: "Scale"
  bottom: "fc6_4"
  top: "fc6_4"
  param {
    lr_mult: 0
    decay_mult: 0
  }
  scale_param {
    filler {
      value: 0.6666
    }
  }
}
layer {
  name: "fc6_4_sTanH"
  type: "TanH"
  bottom: "fc6_4"
  top: "fc6_4"
}
layer {
  name: "fc6_4_postscale"
  type: "Scale"
  bottom: "fc6_4"
  top: "fc6_4"
  param {
    lr_mult: 0
    decay_mult: 0
  }
  scale_param {
    filler {
      value: 1.7159
    }
  }
}
layer {
  name: "drop6_4"
  type: "Dropout"
  bottom: "fc6_4"
  top: "fc6_4"
  dropout_param {
    dropout_ratio: 0.4
  }
}
layer {
  name: "fc6_5_67"
  type: "InnerProduct"
  bottom: "fc6_4"
  top: "fc6_5"
  inner_product_param {
    num_output: 67
    weight_filler {
      type: "xavier"
    }
  }
}
layer {
  name: "softmax_6"
  type: "Softmax"
  bottom: "fc6_5"
  top: "softmax_6"
}
layer {
  name: "conv7_0"
  type: "Convolution"
  bottom: "data_1"
  top: "conv7_0"
  convolution_param {
    num_output: 100
    pad: 0
    kernel_size: 7
    group: 1
    stride: 1
    weight_filler {
      type: "xavier"
    }
  }
}
layer {
  name: "conv7_0_prescale"
  type: "Scale"
  bottom: "conv7_0"
  top: "conv7_0"
  param {
    lr_mult: 0
    decay_mult: 0
  }
  scale_param {
    filler {
      value: 0.6666
    }
  }
}
layer {
  name: "conv7_0_sTanH"
  type: "TanH"
  bottom: "conv7_0"
  top: "conv7_0"
}
layer {
  name: "conv7_0_postscale"
  type: "Scale"
  bottom: "conv7_0"
  top: "conv7_0"
  param {
    lr_mult: 0
    decay_mult: 0
  }
  scale_param {
    filler {
      value: 1.7159
    }
  }
}
layer {
  name: "pool7_0"
  type: "Pooling"
  bottom: "conv7_0"
  top: "pool7_0"
  pooling_param {
    pool: MAX
    kernel_size: 2
    stride: 2
  }
}
layer {
  name: "conv7_1"
  type: "Convolution"
  bottom: "pool7_0"
  top: "conv7_1"
  convolution_param {
    num_output: 150
    pad: 0
    kernel_size: 4
    group: 1
    stride: 1
    weight_filler {
      type: "xavier"
    }
  }
}
layer {
  name: "conv7_1_prescale"
  type: "Scale"
  bottom: "conv7_1"
  top: "conv7_1"
  param {
    lr_mult: 0
    decay_mult: 0
  }
  scale_param {
    filler {
      value: 0.6666
    }
  }
}
layer {
  name: "conv7_1_sTanH"
  type: "TanH"
  bottom: "conv7_1"
  top: "conv7_1"
}
layer {
  name: "conv7_1_postscale"
  type: "Scale"
  bottom: "conv7_1"
  top: "conv7_1"
  param {
    lr_mult: 0
    decay_mult: 0
  }
  scale_param {
    filler {
      value: 1.7159
    }
  }
}
layer {
  name: "pool7_1"
  type: "Pooling"
  bottom: "conv7_1"
  top: "pool7_1"
  pooling_param {
    pool: MAX
    kernel_size: 2
    stride: 2
  }
}
layer {
  name: "conv7_2"
  type: "Convolution"
  bottom: "pool7_1"
  top: "conv7_2"
  convolution_param {
    num_output: 250
    pad: 0
    kernel_size: 4
    group: 1
    stride: 1
    weight_filler {
      type: "xavier"
    }
  }
}
layer {
  name: "conv7_2_prescale"
  type: "Scale"
  bottom: "conv7_2"
  top: "conv7_2"
  param {
    lr_mult: 0
    decay_mult: 0
  }
  scale_param {
    filler {
      value: 0.6666
    }
  }
}
layer {
  name: "conv7_2_sTanH"
  type: "TanH"
  bottom: "conv7_2"
  top: "conv7_2"
}
layer {
  name: "conv7_2_postscale"
  type: "Scale"
  bottom: "conv7_2"
  top: "conv7_2"
  param {
    lr_mult: 0
    decay_mult: 0
  }
  scale_param {
    filler {
      value: 1.7159
    }
  }
}
layer {
  name: "pool7_2"
  type: "Pooling"
  bottom: "conv7_2"
  top: "pool7_2"
  pooling_param {
    pool: MAX
    kernel_size: 2
    stride: 2
  }
}
layer {
  name: "fc7_4_300"
  type: "InnerProduct"
  bottom: "pool7_2"
  top: "fc7_4"
  inner_product_param {
    num_output: 300
    weight_filler {
      type: "xavier"
    }
  }
}
layer {
  name: "fc7_4_prescale"
  type: "Scale"
  bottom: "fc7_4"
  top: "fc7_4"
  param {
    lr_mult: 0
    decay_mult: 0
  }
  scale_param {
    filler {
      value: 0.6666
    }
  }
}
layer {
  name: "fc7_4_sTanH"
  type: "TanH"
  bottom: "fc7_4"
  top: "fc7_4"
}
layer {
  name: "fc7_4_postscale"
  type: "Scale"
  bottom: "fc7_4"
  top: "fc7_4"
  param {
    lr_mult: 0
    decay_mult: 0
  }
  scale_param {
    filler {
      value: 1.7159
    }
  }
}
layer {
  name: "drop7_4"
  type: "Dropout"
  bottom: "fc7_4"
  top: "fc7_4"
  dropout_param {
    dropout_ratio: 0.4
  }
}
layer {
  name: "fc7_5_67"
  type: "InnerProduct"
  bottom: "fc7_4"
  top: "fc7_5"
  inner_product_param {
    num_output: 67
    weight_filler {
      type: "xavier"
    }
  }
}
layer {
  name: "softmax_7"
  type: "Softmax"
  bottom: "fc7_5"
  top: "softmax_7"
}
layer {
  name: "conv8_0"
  type: "Convolution"
  bottom: "data_1"
  top: "conv8_0"
  convolution_param {
   
I0407 23:51:03.943361 25790 layer_factory.hpp:77] Creating layer data_0
I0407 23:51:03.950933 25790 net.cpp:100] Creating Layer data_0
I0407 23:51:03.950949 25790 net.cpp:408] data_0 -> data_0
I0407 23:51:03.950969 25790 net.cpp:408] data_0 -> label_0
I0407 23:51:03.952685 25853 db_lmdb.cpp:35] Opened lmdb ../local_data/lmdb/rtsd-r1/orig/train/lmdb
I0407 23:51:03.969454 25790 data_layer.cpp:41] output data size: 128,3,48,48
I0407 23:51:03.978174 25790 net.cpp:150] Setting up data_0
I0407 23:51:03.978209 25790 net.cpp:157] Top shape: 128 3 48 48 (884736)
I0407 23:51:03.978214 25790 net.cpp:157] Top shape: 128 (128)
I0407 23:51:03.978216 25790 net.cpp:165] Memory required for data: 3539456
I0407 23:51:03.978224 25790 layer_factory.hpp:77] Creating layer data_0_data_0_0_split
I0407 23:51:03.978236 25790 net.cpp:100] Creating Layer data_0_data_0_0_split
I0407 23:51:03.978242 25790 net.cpp:434] data_0_data_0_0_split <- data_0
I0407 23:51:03.978255 25790 net.cpp:408] data_0_data_0_0_split -> data_0_data_0_0_split_0
I0407 23:51:03.978265 25790 net.cpp:408] data_0_data_0_0_split -> data_0_data_0_0_split_1
I0407 23:51:03.978273 25790 net.cpp:408] data_0_data_0_0_split -> data_0_data_0_0_split_2
I0407 23:51:03.978281 25790 net.cpp:408] data_0_data_0_0_split -> data_0_data_0_0_split_3
I0407 23:51:03.978286 25790 net.cpp:408] data_0_data_0_0_split -> data_0_data_0_0_split_4
I0407 23:51:03.978407 25790 net.cpp:150] Setting up data_0_data_0_0_split
I0407 23:51:03.978417 25790 net.cpp:157] Top shape: 128 3 48 48 (884736)
I0407 23:51:03.978421 25790 net.cpp:157] Top shape: 128 3 48 48 (884736)
I0407 23:51:03.978426 25790 net.cpp:157] Top shape: 128 3 48 48 (884736)
I0407 23:51:03.978446 25790 net.cpp:157] Top shape: 128 3 48 48 (884736)
I0407 23:51:03.978451 25790 net.cpp:157] Top shape: 128 3 48 48 (884736)
I0407 23:51:03.978454 25790 net.cpp:165] Memory required for data: 21234176
I0407 23:51:03.978457 25790 layer_factory.hpp:77] Creating layer conv0_0
I0407 23:51:03.978472 25790 net.cpp:100] Creating Layer conv0_0
I0407 23:51:03.978478 25790 net.cpp:434] conv0_0 <- data_0_data_0_0_split_0
I0407 23:51:03.978484 25790 net.cpp:408] conv0_0 -> conv0_0
I0407 23:51:03.983263 25857 blocking_queue.cpp:50] Waiting for data
I0407 23:51:04.367243 25790 net.cpp:150] Setting up conv0_0
I0407 23:51:04.367271 25790 net.cpp:157] Top shape: 128 100 42 42 (22579200)
I0407 23:51:04.367275 25790 net.cpp:165] Memory required for data: 111550976
I0407 23:51:04.367297 25790 layer_factory.hpp:77] Creating layer conv0_0_prescale
I0407 23:51:04.367311 25790 net.cpp:100] Creating Layer conv0_0_prescale
I0407 23:51:04.367316 25790 net.cpp:434] conv0_0_prescale <- conv0_0
I0407 23:51:04.367321 25790 net.cpp:395] conv0_0_prescale -> conv0_0 (in-place)
I0407 23:51:04.367444 25790 net.cpp:150] Setting up conv0_0_prescale
I0407 23:51:04.367453 25790 net.cpp:157] Top shape: 128 100 42 42 (22579200)
I0407 23:51:04.367456 25790 net.cpp:165] Memory required for data: 201867776
I0407 23:51:04.367462 25790 layer_factory.hpp:77] Creating layer conv0_0_sTanH
I0407 23:51:04.367470 25790 net.cpp:100] Creating Layer conv0_0_sTanH
I0407 23:51:04.367475 25790 net.cpp:434] conv0_0_sTanH <- conv0_0
I0407 23:51:04.367478 25790 net.cpp:395] conv0_0_sTanH -> conv0_0 (in-place)
I0407 23:51:04.367669 25790 net.cpp:150] Setting up conv0_0_sTanH
I0407 23:51:04.367681 25790 net.cpp:157] Top shape: 128 100 42 42 (22579200)
I0407 23:51:04.367683 25790 net.cpp:165] Memory required for data: 292184576
I0407 23:51:04.367687 25790 layer_factory.hpp:77] Creating layer conv0_0_postscale
I0407 23:51:04.367694 25790 net.cpp:100] Creating Layer conv0_0_postscale
I0407 23:51:04.367698 25790 net.cpp:434] conv0_0_postscale <- conv0_0
I0407 23:51:04.367704 25790 net.cpp:395] conv0_0_postscale -> conv0_0 (in-place)
I0407 23:51:04.367794 25790 net.cpp:150] Setting up conv0_0_postscale
I0407 23:51:04.367804 25790 net.cpp:157] Top shape: 128 100 42 42 (22579200)
I0407 23:51:04.367806 25790 net.cpp:165] Memory required for data: 382501376
I0407 23:51:04.367810 25790 layer_factory.hpp:77] Creating layer pool0_0
I0407 23:51:04.367817 25790 net.cpp:100] Creating Layer pool0_0
I0407 23:51:04.367820 25790 net.cpp:434] pool0_0 <- conv0_0
I0407 23:51:04.367825 25790 net.cpp:408] pool0_0 -> pool0_0
I0407 23:51:04.367875 25790 net.cpp:150] Setting up pool0_0
I0407 23:51:04.367897 25790 net.cpp:157] Top shape: 128 100 21 21 (5644800)
I0407 23:51:04.367902 25790 net.cpp:165] Memory required for data: 405080576
I0407 23:51:04.367904 25790 layer_factory.hpp:77] Creating layer conv0_1
I0407 23:51:04.367914 25790 net.cpp:100] Creating Layer conv0_1
I0407 23:51:04.367919 25790 net.cpp:434] conv0_1 <- pool0_0
I0407 23:51:04.367925 25790 net.cpp:408] conv0_1 -> conv0_1
I0407 23:51:04.373260 25790 net.cpp:150] Setting up conv0_1
I0407 23:51:04.373278 25790 net.cpp:157] Top shape: 128 150 18 18 (6220800)
I0407 23:51:04.373281 25790 net.cpp:165] Memory required for data: 429963776
I0407 23:51:04.373291 25790 layer_factory.hpp:77] Creating layer conv0_1_prescale
I0407 23:51:04.373301 25790 net.cpp:100] Creating Layer conv0_1_prescale
I0407 23:51:04.373306 25790 net.cpp:434] conv0_1_prescale <- conv0_1
I0407 23:51:04.373311 25790 net.cpp:395] conv0_1_prescale -> conv0_1 (in-place)
I0407 23:51:04.373425 25790 net.cpp:150] Setting up conv0_1_prescale
I0407 23:51:04.373435 25790 net.cpp:157] Top shape: 128 150 18 18 (6220800)
I0407 23:51:04.373438 25790 net.cpp:165] Memory required for data: 454846976
I0407 23:51:04.373442 25790 layer_factory.hpp:77] Creating layer conv0_1_sTanH
I0407 23:51:04.373448 25790 net.cpp:100] Creating Layer conv0_1_sTanH
I0407 23:51:04.373451 25790 net.cpp:434] conv0_1_sTanH <- conv0_1
I0407 23:51:04.373456 25790 net.cpp:395] conv0_1_sTanH -> conv0_1 (in-place)
I0407 23:51:04.374238 25790 net.cpp:150] Setting up conv0_1_sTanH
I0407 23:51:04.374254 25790 net.cpp:157] Top shape: 128 150 18 18 (6220800)
I0407 23:51:04.374258 25790 net.cpp:165] Memory required for data: 479730176
I0407 23:51:04.374260 25790 layer_factory.hpp:77] Creating layer conv0_1_postscale
I0407 23:51:04.374269 25790 net.cpp:100] Creating Layer conv0_1_postscale
I0407 23:51:04.374271 25790 net.cpp:434] conv0_1_postscale <- conv0_1
I0407 23:51:04.374277 25790 net.cpp:395] conv0_1_postscale -> conv0_1 (in-place)
I0407 23:51:04.374372 25790 net.cpp:150] Setting up conv0_1_postscale
I0407 23:51:04.374382 25790 net.cpp:157] Top shape: 128 150 18 18 (6220800)
I0407 23:51:04.374384 25790 net.cpp:165] Memory required for data: 504613376
I0407 23:51:04.374388 25790 layer_factory.hpp:77] Creating layer pool0_1
I0407 23:51:04.374394 25790 net.cpp:100] Creating Layer pool0_1
I0407 23:51:04.374398 25790 net.cpp:434] pool0_1 <- conv0_1
I0407 23:51:04.374403 25790 net.cpp:408] pool0_1 -> pool0_1
I0407 23:51:04.374439 25790 net.cpp:150] Setting up pool0_1
I0407 23:51:04.374459 25790 net.cpp:157] Top shape: 128 150 9 9 (1555200)
I0407 23:51:04.374464 25790 net.cpp:165] Memory required for data: 510834176
I0407 23:51:04.374466 25790 layer_factory.hpp:77] Creating layer conv0_2
I0407 23:51:04.374475 25790 net.cpp:100] Creating Layer conv0_2
I0407 23:51:04.374480 25790 net.cpp:434] conv0_2 <- pool0_1
I0407 23:51:04.374485 25790 net.cpp:408] conv0_2 -> conv0_2
I0407 23:51:04.379981 25790 net.cpp:150] Setting up conv0_2
I0407 23:51:04.379998 25790 net.cpp:157] Top shape: 128 250 6 6 (1152000)
I0407 23:51:04.380002 25790 net.cpp:165] Memory required for data: 515442176
I0407 23:51:04.380012 25790 layer_factory.hpp:77] Creating layer conv0_2_prescale
I0407 23:51:04.380023 25790 net.cpp:100] Creating Layer conv0_2_prescale
I0407 23:51:04.380028 25790 net.cpp:434] conv0_2_prescale <- conv0_2
I0407 23:51:04.380033 25790 net.cpp:395] conv0_2_prescale -> conv0_2 (in-place)
I0407 23:51:04.380125 25790 net.cpp:150] Setting up conv0_2_prescale
I0407 23:51:04.380132 25790 net.cpp:157] Top shape: 128 250 6 6 (1152000)
I0407 23:51:04.380136 25790 net.cpp:165] Memory required for data: 520050176
I0407 23:51:04.380141 25790 layer_factory.hpp:77] Creating layer conv0_2_sTanH
I0407 23:51:04.380146 25790 net.cpp:100] Creating Layer conv0_2_sTanH
I0407 23:51:04.380149 25790 net.cpp:434] conv0_2_sTanH <- conv0_2
I0407 23:51:04.380153 25790 net.cpp:395] conv0_2_sTanH -> conv0_2 (in-place)
I0407 23:51:04.380945 25790 net.cpp:150] Setting up conv0_2_sTanH
I0407 23:51:04.380962 25790 net.cpp:157] Top shape: 128 250 6 6 (1152000)
I0407 23:51:04.380965 25790 net.cpp:165] Memory required for data: 524658176
I0407 23:51:04.380970 25790 layer_factory.hpp:77] Creating layer conv0_2_postscale
I0407 23:51:04.380976 25790 net.cpp:100] Creating Layer conv0_2_postscale
I0407 23:51:04.380980 25790 net.cpp:434] conv0_2_postscale <- conv0_2
I0407 23:51:04.380985 25790 net.cpp:395] conv0_2_postscale -> conv0_2 (in-place)
I0407 23:51:04.381078 25790 net.cpp:150] Setting up conv0_2_postscale
I0407 23:51:04.381088 25790 net.cpp:157] Top shape: 128 250 6 6 (1152000)
I0407 23:51:04.381089 25790 net.cpp:165] Memory required for data: 529266176
I0407 23:51:04.381095 25790 layer_factory.hpp:77] Creating layer pool0_2
I0407 23:51:04.381104 25790 net.cpp:100] Creating Layer pool0_2
I0407 23:51:04.381108 25790 net.cpp:434] pool0_2 <- conv0_2
I0407 23:51:04.381114 25790 net.cpp:408] pool0_2 -> pool0_2
I0407 23:51:04.381147 25790 net.cpp:150] Setting up pool0_2
I0407 23:51:04.381155 25790 net.cpp:157] Top shape: 128 250 3 3 (288000)
I0407 23:51:04.381157 25790 net.cpp:165] Memory required for data: 530418176
I0407 23:51:04.381160 25790 layer_factory.hpp:77] Creating layer fc0_4_300
I0407 23:51:04.381166 25790 net.cpp:100] Creating Layer fc0_4_300
I0407 23:51:04.381170 25790 net.cpp:434] fc0_4_300 <- pool0_2
I0407 23:51:04.381175 25790 net.cpp:408] fc0_4_300 -> fc0_4
I0407 23:51:04.386543 25790 net.cpp:150] Setting up fc0_4_300
I0407 23:51:04.386559 25790 net.cpp:157] Top shape: 128 300 (38400)
I0407 23:51:04.386582 25790 net.cpp:165] Memory required for data: 530571776
I0407 23:51:04.386590 25790 layer_factory.hpp:77] Creating layer fc0_4_prescale
I0407 23:51:04.386597 25790 net.cpp:100] Creating Layer fc0_4_prescale
I0407 23:51:04.386600 25790 net.cpp:434] fc0_4_prescale <- fc0_4
I0407 23:51:04.386606 25790 net.cpp:395] fc0_4_prescale -> fc0_4 (in-place)
I0407 23:51:04.386705 25790 net.cpp:150] Setting up fc0_4_prescale
I0407 23:51:04.386714 25790 net.cpp:157] Top shape: 128 300 (38400)
I0407 23:51:04.386718 25790 net.cpp:165] Memory required for data: 530725376
I0407 23:51:04.386721 25790 layer_factory.hpp:77] Creating layer fc0_4_sTanH
I0407 23:51:04.386726 25790 net.cpp:100] Creating Layer fc0_4_sTanH
I0407 23:51:04.386729 25790 net.cpp:434] fc0_4_sTanH <- fc0_4
I0407 23:51:04.386734 25790 net.cpp:395] fc0_4_sTanH -> fc0_4 (in-place)
I0407 23:51:04.386916 25790 net.cpp:150] Setting up fc0_4_sTanH
I0407 23:51:04.386927 25790 net.cpp:157] Top shape: 128 300 (38400)
I0407 23:51:04.386930 25790 net.cpp:165] Memory required for data: 530878976
I0407 23:51:04.386934 25790 layer_factory.hpp:77] Creating layer fc0_4_postscale
I0407 23:51:04.386940 25790 net.cpp:100] Creating Layer fc0_4_postscale
I0407 23:51:04.386943 25790 net.cpp:434] fc0_4_postscale <- fc0_4
I0407 23:51:04.386947 25790 net.cpp:395] fc0_4_postscale -> fc0_4 (in-place)
I0407 23:51:04.387035 25790 net.cpp:150] Setting up fc0_4_postscale
I0407 23:51:04.387043 25790 net.cpp:157] Top shape: 128 300 (38400)
I0407 23:51:04.387045 25790 net.cpp:165] Memory required for data: 531032576
I0407 23:51:04.387049 25790 layer_factory.hpp:77] Creating layer drop0_4
I0407 23:51:04.387056 25790 net.cpp:100] Creating Layer drop0_4
I0407 23:51:04.387059 25790 net.cpp:434] drop0_4 <- fc0_4
I0407 23:51:04.387063 25790 net.cpp:395] drop0_4 -> fc0_4 (in-place)
I0407 23:51:04.387085 25790 net.cpp:150] Setting up drop0_4
I0407 23:51:04.387092 25790 net.cpp:157] Top shape: 128 300 (38400)
I0407 23:51:04.387094 25790 net.cpp:165] Memory required for data: 531186176
I0407 23:51:04.387097 25790 layer_factory.hpp:77] Creating layer fc0_5_67
I0407 23:51:04.387104 25790 net.cpp:100] Creating Layer fc0_5_67
I0407 23:51:04.387106 25790 net.cpp:434] fc0_5_67 <- fc0_4
I0407 23:51:04.387111 25790 net.cpp:408] fc0_5_67 -> fc0_5
I0407 23:51:04.388492 25790 net.cpp:150] Setting up fc0_5_67
I0407 23:51:04.388507 25790 net.cpp:157] Top shape: 128 67 (8576)
I0407 23:51:04.388511 25790 net.cpp:165] Memory required for data: 531220480
I0407 23:51:04.388521 25790 layer_factory.hpp:77] Creating layer softmax_0
I0407 23:51:04.388528 25790 net.cpp:100] Creating Layer softmax_0
I0407 23:51:04.388535 25790 net.cpp:434] softmax_0 <- fc0_5
I0407 23:51:04.388540 25790 net.cpp:408] softmax_0 -> softmax_0
I0407 23:51:04.388785 25790 net.cpp:150] Setting up softmax_0
I0407 23:51:04.388797 25790 net.cpp:157] Top shape: 128 67 (8576)
I0407 23:51:04.388799 25790 net.cpp:165] Memory required for data: 531254784
I0407 23:51:04.388803 25790 layer_factory.hpp:77] Creating layer conv1_0
I0407 23:51:04.388813 25790 net.cpp:100] Creating Layer conv1_0
I0407 23:51:04.388818 25790 net.cpp:434] conv1_0 <- data_0_data_0_0_split_1
I0407 23:51:04.388823 25790 net.cpp:408] conv1_0 -> conv1_0
I0407 23:51:04.390756 25790 net.cpp:150] Setting up conv1_0
I0407 23:51:04.390774 25790 net.cpp:157] Top shape: 128 100 42 42 (22579200)
I0407 23:51:04.390777 25790 net.cpp:165] Memory required for data: 621571584
I0407 23:51:04.390792 25790 layer_factory.hpp:77] Creating layer conv1_0_prescale
I0407 23:51:04.390800 25790 net.cpp:100] Creating Layer conv1_0_prescale
I0407 23:51:04.390805 25790 net.cpp:434] conv1_0_prescale <- conv1_0
I0407 23:51:04.390810 25790 net.cpp:395] conv1_0_prescale -> conv1_0 (in-place)
I0407 23:51:04.390908 25790 net.cpp:150] Setting up conv1_0_prescale
I0407 23:51:04.390915 25790 net.cpp:157] Top shape: 128 100 42 42 (22579200)
I0407 23:51:04.390918 25790 net.cpp:165] Memory required for data: 711888384
I0407 23:51:04.390923 25790 layer_factory.hpp:77] Creating layer conv1_0_sTanH
I0407 23:51:04.390928 25790 net.cpp:100] Creating Layer conv1_0_sTanH
I0407 23:51:04.390946 25790 net.cpp:434] conv1_0_sTanH <- conv1_0
I0407 23:51:04.390952 25790 net.cpp:395] conv1_0_sTanH -> conv1_0 (in-place)
I0407 23:51:04.391135 25790 net.cpp:150] Setting up conv1_0_sTanH
I0407 23:51:04.391146 25790 net.cpp:157] Top shape: 128 100 42 42 (22579200)
I0407 23:51:04.391149 25790 net.cpp:165] Memory required for data: 802205184
I0407 23:51:04.391152 25790 layer_factory.hpp:77] Creating layer conv1_0_postscale
I0407 23:51:04.391160 25790 net.cpp:100] Creating Layer conv1_0_postscale
I0407 23:51:04.391163 25790 net.cpp:434] conv1_0_postscale <- conv1_0
I0407 23:51:04.391168 25790 net.cpp:395] conv1_0_postscale -> conv1_0 (in-place)
I0407 23:51:04.391271 25790 net.cpp:150] Setting up conv1_0_postscale
I0407 23:51:04.391280 25790 net.cpp:157] Top shape: 128 100 42 42 (22579200)
I0407 23:51:04.391283 25790 net.cpp:165] Memory required for data: 892521984
I0407 23:51:04.391288 25790 layer_factory.hpp:77] Creating layer pool1_0
I0407 23:51:04.391294 25790 net.cpp:100] Creating Layer pool1_0
I0407 23:51:04.391296 25790 net.cpp:434] pool1_0 <- conv1_0
I0407 23:51:04.391302 25790 net.cpp:408] pool1_0 -> pool1_0
I0407 23:51:04.391343 25790 net.cpp:150] Setting up pool1_0
I0407 23:51:04.391351 25790 net.cpp:157] Top shape: 128 100 21 21 (5644800)
I0407 23:51:04.391355 25790 net.cpp:165] Memory required for data: 915101184
I0407 23:51:04.391356 25790 layer_factory.hpp:77] Creating layer conv1_1
I0407 23:51:04.391365 25790 net.cpp:100] Creating Layer conv1_1
I0407 23:51:04.391369 25790 net.cpp:434] conv1_1 <- pool1_0
I0407 23:51:04.391374 25790 net.cpp:408] conv1_1 -> conv1_1
I0407 23:51:04.394404 25790 net.cpp:150] Setting up conv1_1
I0407 23:51:04.394423 25790 net.cpp:157] Top shape: 128 150 18 18 (6220800)
I0407 23:51:04.394426 25790 net.cpp:165] Memory required for data: 939984384
I0407 23:51:04.394433 25790 layer_factory.hpp:77] Creating layer conv1_1_prescale
I0407 23:51:04.394441 25790 net.cpp:100] Creating Layer conv1_1_prescale
I0407 23:51:04.394444 25790 net.cpp:434] conv1_1_prescale <- conv1_1
I0407 23:51:04.394451 25790 net.cpp:395] conv1_1_prescale -> conv1_1 (in-place)
I0407 23:51:04.394565 25790 net.cpp:150] Setting up conv1_1_prescale
I0407 23:51:04.394575 25790 net.cpp:157] Top shape: 128 150 18 18 (6220800)
I0407 23:51:04.394577 25790 net.cpp:165] Memory required for data: 964867584
I0407 23:51:04.394582 25790 layer_factory.hpp:77] Creating layer conv1_1_sTanH
I0407 23:51:04.394588 25790 net.cpp:100] Creating Layer conv1_1_sTanH
I0407 23:51:04.394592 25790 net.cpp:434] conv1_1_sTanH <- conv1_1
I0407 23:51:04.394598 25790 net.cpp:395] conv1_1_sTanH -> conv1_1 (in-place)
I0407 23:51:04.395614 25790 net.cpp:150] Setting up conv1_1_sTanH
I0407 23:51:04.395629 25790 net.cpp:157] Top shape: 128 150 18 18 (6220800)
I0407 23:51:04.395633 25790 net.cpp:165] Memory required for data: 989750784
I0407 23:51:04.395637 25790 layer_factory.hpp:77] Creating layer conv1_1_postscale
I0407 23:51:04.395653 25790 net.cpp:100] Creating Layer conv1_1_postscale
I0407 23:51:04.395658 25790 net.cpp:434] conv1_1_postscale <- conv1_1
I0407 23:51:04.395664 25790 net.cpp:395] conv1_1_postscale -> conv1_1 (in-place)
I0407 23:51:04.395774 25790 net.cpp:150] Setting up conv1_1_postscale
I0407 23:51:04.395783 25790 net.cpp:157] Top shape: 128 150 18 18 (6220800)
I0407 23:51:04.395787 25790 net.cpp:165] Memory required for data: 1014633984
I0407 23:51:04.395792 25790 layer_factory.hpp:77] Creating layer pool1_1
I0407 23:51:04.395798 25790 net.cpp:100] Creating Layer pool1_1
I0407 23:51:04.395803 25790 net.cpp:434] pool1_1 <- conv1_1
I0407 23:51:04.395808 25790 net.cpp:408] pool1_1 -> pool1_1
I0407 23:51:04.395855 25790 net.cpp:150] Setting up pool1_1
I0407 23:51:04.395864 25790 net.cpp:157] Top shape: 128 150 9 9 (1555200)
I0407 23:51:04.395866 25790 net.cpp:165] Memory required for data: 1020854784
I0407 23:51:04.395869 25790 layer_factory.hpp:77] Creating layer conv1_2
I0407 23:51:04.395889 25790 net.cpp:100] Creating Layer conv1_2
I0407 23:51:04.395896 25790 net.cpp:434] conv1_2 <- pool1_1
I0407 23:51:04.395920 25790 net.cpp:408] conv1_2 -> conv1_2
I0407 23:51:04.402062 25790 net.cpp:150] Setting up conv1_2
I0407 23:51:04.402081 25790 net.cpp:157] Top shape: 128 250 6 6 (1152000)
I0407 23:51:04.402084 25790 net.cpp:165] Memory required for data: 1025462784
I0407 23:51:04.402091 25790 layer_factory.hpp:77] Creating layer conv1_2_prescale
I0407 23:51:04.402098 25790 net.cpp:100] Creating Layer conv1_2_prescale
I0407 23:51:04.402103 25790 net.cpp:434] conv1_2_prescale <- conv1_2
I0407 23:51:04.402110 25790 net.cpp:395] conv1_2_prescale -> conv1_2 (in-place)
I0407 23:51:04.402212 25790 net.cpp:150] Setting up conv1_2_prescale
I0407 23:51:04.402221 25790 net.cpp:157] Top shape: 128 250 6 6 (1152000)
I0407 23:51:04.402225 25790 net.cpp:165] Memory required for data: 1030070784
I0407 23:51:04.402228 25790 layer_factory.hpp:77] Creating layer conv1_2_sTanH
I0407 23:51:04.402233 25790 net.cpp:100] Creating Layer conv1_2_sTanH
I0407 23:51:04.402237 25790 net.cpp:434] conv1_2_sTanH <- conv1_2
I0407 23:51:04.402242 25790 net.cpp:395] conv1_2_sTanH -> conv1_2 (in-place)
I0407 23:51:04.403173 25790 net.cpp:150] Setting up conv1_2_sTanH
I0407 23:51:04.403190 25790 net.cpp:157] Top shape: 128 250 6 6 (1152000)
I0407 23:51:04.403194 25790 net.cpp:165] Memory required for data: 1034678784
I0407 23:51:04.403198 25790 layer_factory.hpp:77] Creating layer conv1_2_postscale
I0407 23:51:04.403205 25790 net.cpp:100] Creating Layer conv1_2_postscale
I0407 23:51:04.403210 25790 net.cpp:434] conv1_2_postscale <- conv1_2
I0407 23:51:04.403219 25790 net.cpp:395] conv1_2_postscale -> conv1_2 (in-place)
I0407 23:51:04.403319 25790 net.cpp:150] Setting up conv1_2_postscale
I0407 23:51:04.403328 25790 net.cpp:157] Top shape: 128 250 6 6 (1152000)
I0407 23:51:04.403331 25790 net.cpp:165] Memory required for data: 1039286784
I0407 23:51:04.403337 25790 layer_factory.hpp:77] Creating layer pool1_2
I0407 23:51:04.403343 25790 net.cpp:100] Creating Layer pool1_2
I0407 23:51:04.403347 25790 net.cpp:434] pool1_2 <- conv1_2
I0407 23:51:04.403352 25790 net.cpp:408] pool1_2 -> pool1_2
I0407 23:51:04.403388 25790 net.cpp:150] Setting up pool1_2
I0407 23:51:04.403395 25790 net.cpp:157] Top shape: 128 250 3 3 (288000)
I0407 23:51:04.403398 25790 net.cpp:165] Memory required for data: 1040438784
I0407 23:51:04.403401 25790 layer_factory.hpp:77] Creating layer fc1_4_300
I0407 23:51:04.403406 25790 net.cpp:100] Creating Layer fc1_4_300
I0407 23:51:04.403410 25790 net.cpp:434] fc1_4_300 <- pool1_2
I0407 23:51:04.403416 25790 net.cpp:408] fc1_4_300 -> fc1_4
I0407 23:51:04.410640 25790 net.cpp:150] Setting up fc1_4_300
I0407 23:51:04.410655 25790 net.cpp:157] Top shape: 128 300 (38400)
I0407 23:51:04.410658 25790 net.cpp:165] Memory required for data: 1040592384
I0407 23:51:04.410665 25790 layer_factory.hpp:77] Creating layer fc1_4_prescale
I0407 23:51:04.410672 25790 net.cpp:100] Creating Layer fc1_4_prescale
I0407 23:51:04.410693 25790 net.cpp:434] fc1_4_prescale <- fc1_4
I0407 23:51:04.410701 25790 net.cpp:395] fc1_4_prescale -> fc1_4 (in-place)
I0407 23:51:04.410791 25790 net.cpp:150] Setting up fc1_4_prescale
I0407 23:51:04.410799 25790 net.cpp:157] Top shape: 128 300 (38400)
I0407 23:51:04.410802 25790 net.cpp:165] Memory required for data: 1040745984
I0407 23:51:04.410811 25790 layer_factory.hpp:77] Creating layer fc1_4_sTanH
I0407 23:51:04.410817 25790 net.cpp:100] Creating Layer fc1_4_sTanH
I0407 23:51:04.410820 25790 net.cpp:434] fc1_4_sTanH <- fc1_4
I0407 23:51:04.410825 25790 net.cpp:395] fc1_4_sTanH -> fc1_4 (in-place)
I0407 23:51:04.411020 25790 net.cpp:150] Setting up fc1_4_sTanH
I0407 23:51:04.411031 25790 net.cpp:157] Top shape: 128 300 (38400)
I0407 23:51:04.411032 25790 net.cpp:165] Memory required for data: 1040899584
I0407 23:51:04.411036 25790 layer_factory.hpp:77] Creating layer fc1_4_postscale
I0407 23:51:04.411046 25790 net.cpp:100] Creating Layer fc1_4_postscale
I0407 23:51:04.411049 25790 net.cpp:434] fc1_4_postscale <- fc1_4
I0407 23:51:04.411054 25790 net.cpp:395] fc1_4_postscale -> fc1_4 (in-place)
I0407 23:51:04.411175 25790 net.cpp:150] Setting up fc1_4_postscale
I0407 23:51:04.411183 25790 net.cpp:157] Top shape: 128 300 (38400)
I0407 23:51:04.411186 25790 net.cpp:165] Memory required for data: 1041053184
I0407 23:51:04.411191 25790 layer_factory.hpp:77] Creating layer drop1_4
I0407 23:51:04.411197 25790 net.cpp:100] Creating Layer drop1_4
I0407 23:51:04.411201 25790 net.cpp:434] drop1_4 <- fc1_4
I0407 23:51:04.411206 25790 net.cpp:395] drop1_4 -> fc1_4 (in-place)
I0407 23:51:04.411226 25790 net.cpp:150] Setting up drop1_4
I0407 23:51:04.411232 25790 net.cpp:157] Top shape: 128 300 (38400)
I0407 23:51:04.411236 25790 net.cpp:165] Memory required for data: 1041206784
I0407 23:51:04.411237 25790 layer_factory.hpp:77] Creating layer fc1_5_67
I0407 23:51:04.411244 25790 net.cpp:100] Creating Layer fc1_5_67
I0407 23:51:04.411248 25790 net.cpp:434] fc1_5_67 <- fc1_4
I0407 23:51:04.411252 25790 net.cpp:408] fc1_5_67 -> fc1_5
I0407 23:51:04.411490 25790 net.cpp:150] Setting up fc1_5_67
I0407 23:51:04.411499 25790 net.cpp:157] Top shape: 128 67 (8576)
I0407 23:51:04.411501 25790 net.cpp:165] Memory required for data: 1041241088
I0407 23:51:04.411507 25790 layer_factory.hpp:77] Creating layer softmax_1
I0407 23:51:04.411512 25790 net.cpp:100] Creating Layer softmax_1
I0407 23:51:04.411516 25790 net.cpp:434] softmax_1 <- fc1_5
I0407 23:51:04.411520 25790 net.cpp:408] softmax_1 -> softmax_1
I0407 23:51:04.411772 25790 net.cpp:150] Setting up softmax_1
I0407 23:51:04.411782 25790 net.cpp:157] Top shape: 128 67 (8576)
I0407 23:51:04.411785 25790 net.cpp:165] Memory required for data: 1041275392
I0407 23:51:04.411788 25790 layer_factory.hpp:77] Creating layer conv2_0
I0407 23:51:04.411799 25790 net.cpp:100] Creating Layer conv2_0
I0407 23:51:04.411803 25790 net.cpp:434] conv2_0 <- data_0_data_0_0_split_2
I0407 23:51:04.411809 25790 net.cpp:408] conv2_0 -> conv2_0
I0407 23:51:04.419183 25790 net.cpp:150] Setting up conv2_0
I0407 23:51:04.419200 25790 net.cpp:157] Top shape: 128 100 42 42 (22579200)
I0407 23:51:04.419203 25790 net.cpp:165] Memory required for data: 1131592192
I0407 23:51:04.419210 25790 layer_factory.hpp:77] Creating layer conv2_0_prescale
I0407 23:51:04.419231 25790 net.cpp:100] Creating Layer conv2_0_prescale
I0407 23:51:04.419237 25790 net.cpp:434] conv2_0_prescale <- conv2_0
I0407 23:51:04.419242 25790 net.cpp:395] conv2_0_prescale -> conv2_0 (in-place)
I0407 23:51:04.419349 25790 net.cpp:150] Setting up conv2_0_prescale
I0407 23:51:04.419358 25790 net.cpp:157] Top shape: 128 100 42 42 (22579200)
I0407 23:51:04.419361 25790 net.cpp:165] Memory required for data: 1221908992
I0407 23:51:04.419365 25790 layer_factory.hpp:77] Creating layer conv2_0_sTanH
I0407 23:51:04.419373 25790 net.cpp:100] Creating Layer conv2_0_sTanH
I0407 23:51:04.419375 25790 net.cpp:434] conv2_0_sTanH <- conv2_0
I0407 23:51:04.419379 25790 net.cpp:395] conv2_0_sTanH -> conv2_0 (in-place)
I0407 23:51:04.419572 25790 net.cpp:150] Setting up conv2_0_sTanH
I0407 23:51:04.419584 25790 net.cpp:157] Top shape: 128 100 42 42 (22579200)
I0407 23:51:04.419587 25790 net.cpp:165] Memory required for data: 1312225792
I0407 23:51:04.419590 25790 layer_factory.hpp:77] Creating layer conv2_0_postscale
I0407 23:51:04.419596 25790 net.cpp:100] Creating Layer conv2_0_postscale
I0407 23:51:04.419600 25790 net.cpp:434] conv2_0_postscale <- conv2_0
I0407 23:51:04.419607 25790 net.cpp:395] conv2_0_postscale -> conv2_0 (in-place)
I0407 23:51:04.419718 25790 net.cpp:150] Setting up conv2_0_postscale
I0407 23:51:04.419725 25790 net.cpp:157] Top shape: 128 100 42 42 (22579200)
I0407 23:51:04.419728 25790 net.cpp:165] Memory required for data: 1402542592
I0407 23:51:04.419734 25790 layer_factory.hpp:77] Creating layer pool2_0
I0407 23:51:04.419739 25790 net.cpp:100] Creating Layer pool2_0
I0407 23:51:04.419742 25790 net.cpp:434] pool2_0 <- conv2_0
I0407 23:51:04.419749 25790 net.cpp:408] pool2_0 -> pool2_0
I0407 23:51:04.419790 25790 net.cpp:150] Setting up pool2_0
I0407 23:51:04.419797 25790 net.cpp:157] Top shape: 128 100 21 21 (5644800)
I0407 23:51:04.419800 25790 net.cpp:165] Memory required for data: 1425121792
I0407 23:51:04.419817 25790 layer_factory.hpp:77] Creating layer conv2_1
I0407 23:51:04.419829 25790 net.cpp:100] Creating Layer conv2_1
I0407 23:51:04.419834 25790 net.cpp:434] conv2_1 <- pool2_0
I0407 23:51:04.419841 25790 net.cpp:408] conv2_1 -> conv2_1
I0407 23:51:04.425302 25790 net.cpp:150] Setting up conv2_1
I0407 23:51:04.425320 25790 net.cpp:157] Top shape: 128 150 18 18 (6220800)
I0407 23:51:04.425324 25790 net.cpp:165] Memory required for data: 1450004992
I0407 23:51:04.425331 25790 layer_factory.hpp:77] Creating layer conv2_1_prescale
I0407 23:51:04.425345 25790 net.cpp:100] Creating Layer conv2_1_prescale
I0407 23:51:04.425351 25790 net.cpp:434] conv2_1_prescale <- conv2_1
I0407 23:51:04.425356 25790 net.cpp:395] conv2_1_prescale -> conv2_1 (in-place)
I0407 23:51:04.425467 25790 net.cpp:150] Setting up conv2_1_prescale
I0407 23:51:04.425477 25790 net.cpp:157] Top shape: 128 150 18 18 (6220800)
I0407 23:51:04.425482 25790 net.cpp:165] Memory required for data: 1474888192
I0407 23:51:04.425487 25790 layer_factory.hpp:77] Creating layer conv2_1_sTanH
I0407 23:51:04.425493 25790 net.cpp:100] Creating Layer conv2_1_sTanH
I0407 23:51:04.425498 25790 net.cpp:434] conv2_1_sTanH <- conv2_1
I0407 23:51:04.425503 25790 net.cpp:395] conv2_1_sTanH -> conv2_1 (in-place)
I0407 23:51:04.426300 25790 net.cpp:150] Setting up conv2_1_sTanH
I0407 23:51:04.426317 25790 net.cpp:157] Top shape: 128 150 18 18 (6220800)
I0407 23:51:04.426321 25790 net.cpp:165] Memory required for data: 1499771392
I0407 23:51:04.426326 25790 layer_factory.hpp:77] Creating layer conv2_1_postscale
I0407 23:51:04.426333 25790 net.cpp:100] Creating Layer conv2_1_postscale
I0407 23:51:04.426338 25790 net.cpp:434] conv2_1_postscale <- conv2_1
I0407 23:51:04.426345 25790 net.cpp:395] conv2_1_postscale -> conv2_1 (in-place)
I0407 23:51:04.426463 25790 net.cpp:150] Setting up conv2_1_postscale
I0407 23:51:04.426472 25790 net.cpp:157] Top shape: 128 150 18 18 (6220800)
I0407 23:51:04.426477 25790 net.cpp:165] Memory required for data: 1524654592
I0407 23:51:04.426481 25790 layer_factory.hpp:77] Creating layer pool2_1
I0407 23:51:04.426487 25790 net.cpp:100] Creating Layer pool2_1
I0407 23:51:04.426492 25790 net.cpp:434] pool2_1 <- conv2_1
I0407 23:51:04.426499 25790 net.cpp:408] pool2_1 -> pool2_1
I0407 23:51:04.426544 25790 net.cpp:150] Setting up pool2_1
I0407 23:51:04.426553 25790 net.cpp:157] Top shape: 128 150 9 9 (1555200)
I0407 23:51:04.426556 25790 net.cpp:165] Memory required for data: 1530875392
I0407 23:51:04.426559 25790 layer_factory.hpp:77] Creating layer conv2_2
I0407 23:51:04.426570 25790 net.cpp:100] Creating Layer conv2_2
I0407 23:51:04.426574 25790 net.cpp:434] conv2_2 <- pool2_1
I0407 23:51:04.426580 25790 net.cpp:408] conv2_2 -> conv2_2
I0407 23:51:04.432235 25790 net.cpp:150] Setting up conv2_2
I0407 23:51:04.432255 25790 net.cpp:157] Top shape: 128 250 6 6 (1152000)
I0407 23:51:04.432260 25790 net.cpp:165] Memory required for data: 1535483392
I0407 23:51:04.432266 25790 layer_factory.hpp:77] Creating layer conv2_2_prescale
I0407 23:51:04.432276 25790 net.cpp:100] Creating Layer conv2_2_prescale
I0407 23:51:04.432281 25790 net.cpp:434] conv2_2_prescale <- conv2_2
I0407 23:51:04.432294 25790 net.cpp:395] conv2_2_prescale -> conv2_2 (in-place)
I0407 23:51:04.432402 25790 net.cpp:150] Setting up conv2_2_prescale
I0407 23:51:04.432411 25790 net.cpp:157] Top shape: 128 250 6 6 (1152000)
I0407 23:51:04.432416 25790 net.cpp:165] Memory required for data: 1540091392
I0407 23:51:04.432421 25790 layer_factory.hpp:77] Creating layer conv2_2_sTanH
I0407 23:51:04.432427 25790 net.cpp:100] Creating Layer conv2_2_sTanH
I0407 23:51:04.432430 25790 net.cpp:434] conv2_2_sTanH <- conv2_2
I0407 23:51:04.432436 25790 net.cpp:395] conv2_2_sTanH -> conv2_2 (in-place)
I0407 23:51:04.433221 25790 net.cpp:150] Setting up conv2_2_sTanH
I0407 23:51:04.433238 25790 net.cpp:157] Top shape: 128 250 6 6 (1152000)
I0407 23:51:04.433240 25790 net.cpp:165] Memory required for data: 1544699392
I0407 23:51:04.433243 25790 layer_factory.hpp:77] Creating layer conv2_2_postscale
I0407 23:51:04.433270 25790 net.cpp:100] Creating Layer conv2_2_postscale
I0407 23:51:04.433276 25790 net.cpp:434] conv2_2_postscale <- conv2_2
I0407 23:51:04.433282 25790 net.cpp:395] conv2_2_postscale -> conv2_2 (in-place)
I0407 23:51:04.433392 25790 net.cpp:150] Setting up conv2_2_postscale
I0407 23:51:04.433400 25790 net.cpp:157] Top shape: 128 250 6 6 (1152000)
I0407 23:51:04.433403 25790 net.cpp:165] Memory required for data: 1549307392
I0407 23:51:04.433408 25790 layer_factory.hpp:77] Creating layer pool2_2
I0407 23:51:04.433414 25790 net.cpp:100] Creating Layer pool2_2
I0407 23:51:04.433418 25790 net.cpp:434] pool2_2 <- conv2_2
I0407 23:51:04.433425 25790 net.cpp:408] pool2_2 -> pool2_2
I0407 23:51:04.433464 25790 net.cpp:150] Setting up pool2_2
I0407 23:51:04.433471 25790 net.cpp:157] Top shape: 128 250 3 3 (288000)
I0407 23:51:04.433475 25790 net.cpp:165] Memory required for data: 1550459392
I0407 23:51:04.433476 25790 layer_factory.hpp:77] Creating layer fc2_4_300
I0407 23:51:04.433485 25790 net.cpp:100] Creating Layer fc2_4_300
I0407 23:51:04.433490 25790 net.cpp:434] fc2_4_300 <- pool2_2
I0407 23:51:04.433495 25790 net.cpp:408] fc2_4_300 -> fc2_4
I0407 23:51:04.438745 25790 net.cpp:150] Setting up fc2_4_300
I0407 23:51:04.438760 25790 net.cpp:157] Top shape: 128 300 (38400)
I0407 23:51:04.438776 25790 net.cpp:165] Memory required for data: 1550612992
I0407 23:51:04.438782 25790 layer_factory.hpp:77] Creating layer fc2_4_prescale
I0407 23:51:04.438791 25790 net.cpp:100] Creating Layer fc2_4_prescale
I0407 23:51:04.438796 25790 net.cpp:434] fc2_4_prescale <- fc2_4
I0407 23:51:04.438812 25790 net.cpp:395] fc2_4_prescale -> fc2_4 (in-place)
I0407 23:51:04.438910 25790 net.cpp:150] Setting up fc2_4_prescale
I0407 23:51:04.438918 25790 net.cpp:157] Top shape: 128 300 (38400)
I0407 23:51:04.438921 25790 net.cpp:165] Memory required for data: 1550766592
I0407 23:51:04.438925 25790 layer_factory.hpp:77] Creating layer fc2_4_sTanH
I0407 23:51:04.438930 25790 net.cpp:100] Creating Layer fc2_4_sTanH
I0407 23:51:04.438935 25790 net.cpp:434] fc2_4_sTanH <- fc2_4
I0407 23:51:04.438941 25790 net.cpp:395] fc2_4_sTanH -> fc2_4 (in-place)
I0407 23:51:04.439141 25790 net.cpp:150] Setting up fc2_4_sTanH
I0407 23:51:04.439152 25790 net.cpp:157] Top shape: 128 300 (38400)
I0407 23:51:04.439157 25790 net.cpp:165] Memory required for data: 1550920192
I0407 23:51:04.439160 25790 layer_factory.hpp:77] Creating layer fc2_4_postscale
I0407 23:51:04.439178 25790 net.cpp:100] Creating Layer fc2_4_postscale
I0407 23:51:04.439183 25790 net.cpp:434] fc2_4_postscale <- fc2_4
I0407 23:51:04.439188 25790 net.cpp:395] fc2_4_postscale -> fc2_4 (in-place)
I0407 23:51:04.439293 25790 net.cpp:150] Setting up fc2_4_postscale
I0407 23:51:04.439301 25790 net.cpp:157] Top shape: 128 300 (38400)
I0407 23:51:04.439304 25790 net.cpp:165] Memory required for data: 1551073792
I0407 23:51:04.439309 25790 layer_factory.hpp:77] Creating layer drop2_4
I0407 23:51:04.439316 25790 net.cpp:100] Creating Layer drop2_4
I0407 23:51:04.439321 25790 net.cpp:434] drop2_4 <- fc2_4
I0407 23:51:04.439327 25790 net.cpp:395] drop2_4 -> fc2_4 (in-place)
I0407 23:51:04.439348 25790 net.cpp:150] Setting up drop2_4
I0407 23:51:04.439355 25790 net.cpp:157] Top shape: 128 300 (38400)
I0407 23:51:04.439358 25790 net.cpp:165] Memory required for data: 1551227392
I0407 23:51:04.439360 25790 layer_factory.hpp:77] Creating layer fc2_5_67
I0407 23:51:04.439368 25790 net.cpp:100] Creating Layer fc2_5_67
I0407 23:51:04.439373 25790 net.cpp:434] fc2_5_67 <- fc2_4
I0407 23:51:04.439378 25790 net.cpp:408] fc2_5_67 -> fc2_5
I0407 23:51:04.439626 25790 net.cpp:150] Setting up fc2_5_67
I0407 23:51:04.439635 25790 net.cpp:157] Top shape: 128 67 (8576)
I0407 23:51:04.439640 25790 net.cpp:165] Memory required for data: 1551261696
I0407 23:51:04.439646 25790 layer_factory.hpp:77] Creating layer softmax_2
I0407 23:51:04.439652 25790 net.cpp:100] Creating Layer softmax_2
I0407 23:51:04.439656 25790 net.cpp:434] softmax_2 <- fc2_5
I0407 23:51:04.439661 25790 net.cpp:408] softmax_2 -> softmax_2
I0407 23:51:04.439941 25790 net.cpp:150] Setting up softmax_2
I0407 23:51:04.439954 25790 net.cpp:157] Top shape: 128 67 (8576)
I0407 23:51:04.439957 25790 net.cpp:165] Memory required for data: 1551296000
I0407 23:51:04.439960 25790 layer_factory.hpp:77] Creating layer conv3_0
I0407 23:51:04.439971 25790 net.cpp:100] Creating Layer conv3_0
I0407 23:51:04.439976 25790 net.cpp:434] conv3_0 <- data_0_data_0_0_split_3
I0407 23:51:04.439985 25790 net.cpp:408] conv3_0 -> conv3_0
I0407 23:51:04.441558 25790 net.cpp:150] Setting up conv3_0
I0407 23:51:04.441576 25790 net.cpp:157] Top shape: 128 100 42 42 (22579200)
I0407 23:51:04.441581 25790 net.cpp:165] Memory required for data: 1641612800
I0407 23:51:04.441588 25790 layer_factory.hpp:77] Creating layer conv3_0_prescale
I0407 23:51:04.441598 25790 net.cpp:100] Creating Layer conv3_0_prescale
I0407 23:51:04.441604 25790 net.cpp:434] conv3_0_prescale <- conv3_0
I0407 23:51:04.441609 25790 net.cpp:395] conv3_0_prescale -> conv3_0 (in-place)
I0407 23:51:04.441723 25790 net.cpp:150] Setting up conv3_0_prescale
I0407 23:51:04.441731 25790 net.cpp:157] Top shape: 128 100 42 42 (22579200)
I0407 23:51:04.441735 25790 net.cpp:165] Memory required for data: 1731929600
I0407 23:51:04.441740 25790 layer_factory.hpp:77] Creating layer conv3_0_sTanH
I0407 23:51:04.441745 25790 net.cpp:100] Creating Layer conv3_0_sTanH
I0407 23:51:04.441748 25790 net.cpp:434] conv3_0_sTanH <- conv3_0
I0407 23:51:04.441754 25790 net.cpp:395] conv3_0_sTanH -> conv3_0 (in-place)
I0407 23:51:04.441949 25790 net.cpp:150] Setting up conv3_0_sTanH
I0407 23:51:04.441962 25790 net.cpp:157] Top shape: 128 100 42 42 (22579200)
I0407 23:51:04.441965 25790 net.cpp:165] Memory required for data: 1822246400
I0407 23:51:04.441969 25790 layer_factory.hpp:77] Creating layer conv3_0_postscale
I0407 23:51:04.441975 25790 net.cpp:100] Creating Layer conv3_0_postscale
I0407 23:51:04.441980 25790 net.cpp:434] conv3_0_postscale <- conv3_0
I0407 23:51:04.441989 25790 net.cpp:395] conv3_0_postscale -> conv3_0 (in-place)
I0407 23:51:04.442104 25790 net.cpp:150] Setting up conv3_0_postscale
I0407 23:51:04.442112 25790 net.cpp:157] Top shape: 128 100 42 42 (22579200)
I0407 23:51:04.442116 25790 net.cpp:165] Memory required for data: 1912563200
I0407 23:51:04.442121 25790 layer_factory.hpp:77] Creating layer pool3_0
I0407 23:51:04.442127 25790 net.cpp:100] Creating Layer pool3_0
I0407 23:51:04.442131 25790 net.cpp:434] pool3_0 <- conv3_0
I0407 23:51:04.442138 25790 net.cpp:408] pool3_0 -> pool3_0
I0407 23:51:04.442184 25790 net.cpp:150] Setting up pool3_0
I0407 23:51:04.442193 25790 net.cpp:157] Top shape: 128 100 21 21 (5644800)
I0407 23:51:04.442195 25790 net.cpp:165] Memory required for data: 1935142400
I0407 23:51:04.442198 25790 layer_factory.hpp:77] Creating layer conv3_1
I0407 23:51:04.442210 25790 net.cpp:100] Creating Layer conv3_1
I0407 23:51:04.442215 25790 net.cpp:434] conv3_1 <- pool3_0
I0407 23:51:04.442222 25790 net.cpp:408] conv3_1 -> conv3_1
I0407 23:51:04.445155 25790 net.cpp:150] Setting up conv3_1
I0407 23:51:04.445174 25790 net.cpp:157] Top shape: 128 150 18 18 (6220800)
I0407 23:51:04.445179 25790 net.cpp:165] Memory required for data: 1960025600
I0407 23:51:04.445186 25790 layer_factory.hpp:77] Creating layer conv3_1_prescale
I0407 23:51:04.445196 25790 net.cpp:100] Creating Layer conv3_1_prescale
I0407 23:51:04.445201 25790 net.cpp:434] conv3_1_prescale <- conv3_1
I0407 23:51:04.445209 25790 net.cpp:395] conv3_1_prescale -> conv3_1 (in-place)
I0407 23:51:04.445320 25790 net.cpp:150] Setting up conv3_1_prescale
I0407 23:51:04.445329 25790 net.cpp:157] Top shape: 128 150 18 18 (6220800)
I0407 23:51:04.445333 25790 net.cpp:165] Memory required for data: 1984908800
I0407 23:51:04.445338 25790 layer_factory.hpp:77] Creating layer conv3_1_sTanH
I0407 23:51:04.445344 25790 net.cpp:100] Creating Layer conv3_1_sTanH
I0407 23:51:04.445348 25790 net.cpp:434] conv3_1_sTanH <- conv3_1
I0407 23:51:04.445353 25790 net.cpp:395] conv3_1_sTanH -> conv3_1 (in-place)
I0407 23:51:04.446143 25790 net.cpp:150] Setting up conv3_1_sTanH
I0407 23:51:04.446172 25790 net.cpp:157] Top shape: 128 150 18 18 (6220800)
I0407 23:51:04.446177 25790 net.cpp:165] Memory required for data: 2009792000
I0407 23:51:04.446182 25790 layer_factory.hpp:77] Creating layer conv3_1_postscale
I0407 23:51:04.446190 25790 net.cpp:100] Creating Layer conv3_1_postscale
I0407 23:51:04.446195 25790 net.cpp:434] conv3_1_postscale <- conv3_1
I0407 23:51:04.446202 25790 net.cpp:395] conv3_1_postscale -> conv3_1 (in-place)
I0407 23:51:04.446319 25790 net.cpp:150] Setting up conv3_1_postscale
I0407 23:51:04.446328 25790 net.cpp:157] Top shape: 128 150 18 18 (6220800)
I0407 23:51:04.446331 25790 net.cpp:165] Memory required for data: 2034675200
I0407 23:51:04.446336 25790 layer_factory.hpp:77] Creating layer pool3_1
I0407 23:51:04.446346 25790 net.cpp:100] Creating Layer pool3_1
I0407 23:51:04.446349 25790 net.cpp:434] pool3_1 <- conv3_1
I0407 23:51:04.446354 25790 net.cpp:408] pool3_1 -> pool3_1
I0407 23:51:04.446401 25790 net.cpp:150] Setting up pool3_1
I0407 23:51:04.446409 25790 net.cpp:157] Top shape: 128 150 9 9 (1555200)
I0407 23:51:04.446413 25790 net.cpp:165] Memory required for data: 2040896000
I0407 23:51:04.446415 25790 layer_factory.hpp:77] Creating layer conv3_2
I0407 23:51:04.446424 25790 net.cpp:100] Creating Layer conv3_2
I0407 23:51:04.446429 25790 net.cpp:434] conv3_2 <- pool3_1
I0407 23:51:04.446434 25790 net.cpp:408] conv3_2 -> conv3_2
I0407 23:51:04.452600 25790 net.cpp:150] Setting up conv3_2
I0407 23:51:04.452617 25790 net.cpp:157] Top shape: 128 250 6 6 (1152000)
I0407 23:51:04.452635 25790 net.cpp:165] Memory required for data: 2045504000
I0407 23:51:04.452642 25790 layer_factory.hpp:77] Creating layer conv3_2_prescale
I0407 23:51:04.452652 25790 net.cpp:100] Creating Layer conv3_2_prescale
I0407 23:51:04.452657 25790 net.cpp:434] conv3_2_prescale <- conv3_2
I0407 23:51:04.452663 25790 net.cpp:395] conv3_2_prescale -> conv3_2 (in-place)
I0407 23:51:04.452774 25790 net.cpp:150] Setting up conv3_2_prescale
I0407 23:51:04.452782 25790 net.cpp:157] Top shape: 128 250 6 6 (1152000)
I0407 23:51:04.452785 25790 net.cpp:165] Memory required for data: 2050112000
I0407 23:51:04.452802 25790 layer_factory.hpp:77] Creating layer conv3_2_sTanH
I0407 23:51:04.452811 25790 net.cpp:100] Creating Layer conv3_2_sTanH
I0407 23:51:04.452816 25790 net.cpp:434] conv3_2_sTanH <- conv3_2
I0407 23:51:04.452819 25790 net.cpp:395] conv3_2_sTanH -> conv3_2 (in-place)
I0407 23:51:04.453014 25790 net.cpp:150] Setting up conv3_2_sTanH
I0407 23:51:04.453025 25790 net.cpp:157] Top shape: 128 250 6 6 (1152000)
I0407 23:51:04.453029 25790 net.cpp:165] Memory required for data: 2054720000
I0407 23:51:04.453033 25790 layer_factory.hpp:77] Creating layer conv3_2_postscale
I0407 23:51:04.453040 25790 net.cpp:100] Creating Layer conv3_2_postscale
I0407 23:51:04.453045 25790 net.cpp:434] conv3_2_postscale <- conv3_2
I0407 23:51:04.453050 25790 net.cpp:395] conv3_2_postscale -> conv3_2 (in-place)
I0407 23:51:04.453151 25790 net.cpp:150] Setting up conv3_2_postscale
I0407 23:51:04.453161 25790 net.cpp:157] Top shape: 128 250 6 6 (1152000)
I0407 23:51:04.453163 25790 net.cpp:165] Memory required for data: 2059328000
I0407 23:51:04.453167 25790 layer_factory.hpp:77] Creating layer pool3_2
I0407 23:51:04.453176 25790 net.cpp:100] Creating Layer pool3_2
I0407 23:51:04.453181 25790 net.cpp:434] pool3_2 <- conv3_2
I0407 23:51:04.453186 25790 net.cpp:408] pool3_2 -> pool3_2
I0407 23:51:04.453223 25790 net.cpp:150] Setting up pool3_2
I0407 23:51:04.453232 25790 net.cpp:157] Top shape: 128 250 3 3 (288000)
I0407 23:51:04.453234 25790 net.cpp:165] Memory required for data: 2060480000
I0407 23:51:04.453236 25790 layer_factory.hpp:77] Creating layer fc3_4_300
I0407 23:51:04.453244 25790 net.cpp:100] Creating Layer fc3_4_300
I0407 23:51:04.453248 25790 net.cpp:434] fc3_4_300 <- pool3_2
I0407 23:51:04.453253 25790 net.cpp:408] fc3_4_300 -> fc3_4
I0407 23:51:04.458658 25790 net.cpp:150] Setting up fc3_4_300
I0407 23:51:04.458673 25790 net.cpp:157] Top shape: 128 300 (38400)
I0407 23:51:04.458701 25790 net.cpp:165] Memory required for data: 2060633600
I0407 23:51:04.458709 25790 layer_factory.hpp:77] Creating layer fc3_4_prescale
I0407 23:51:04.458720 25790 net.cpp:100] Creating Layer fc3_4_prescale
I0407 23:51:04.458725 25790 net.cpp:434] fc3_4_prescale <- fc3_4
I0407 23:51:04.458731 25790 net.cpp:395] fc3_4_prescale -> fc3_4 (in-place)
I0407 23:51:04.458835 25790 net.cpp:150] Setting up fc3_4_prescale
I0407 23:51:04.458844 25790 net.cpp:157] Top shape: 128 300 (38400)
I0407 23:51:04.458847 25790 net.cpp:165] Memory required for data: 2060787200
I0407 23:51:04.458851 25790 layer_factory.hpp:77] Creating layer fc3_4_sTanH
I0407 23:51:04.458856 25790 net.cpp:100] Creating Layer fc3_4_sTanH
I0407 23:51:04.458860 25790 net.cpp:434] fc3_4_sTanH <- fc3_4
I0407 23:51:04.458865 25790 net.cpp:395] fc3_4_sTanH -> fc3_4 (in-place)
I0407 23:51:04.459079 25790 net.cpp:150] Setting up fc3_4_sTanH
I0407 23:51:04.459089 25790 net.cpp:157] Top shape: 128 300 (38400)
I0407 23:51:04.459091 25790 net.cpp:165] Memory required for data: 2060940800
I0407 23:51:04.459095 25790 layer_factory.hpp:77] Creating layer fc3_4_postscale
I0407 23:51:04.459103 25790 net.cpp:100] Creating Layer fc3_4_postscale
I0407 23:51:04.459107 25790 net.cpp:434] fc3_4_postscale <- fc3_4
I0407 23:51:04.459112 25790 net.cpp:395] fc3_4_postscale -> fc3_4 (in-place)
I0407 23:51:04.459219 25790 net.cpp:150] Setting up fc3_4_postscale
I0407 23:51:04.459228 25790 net.cpp:157] Top shape: 128 300 (38400)
I0407 23:51:04.459230 25790 net.cpp:165] Memory required for data: 2061094400
I0407 23:51:04.459234 25790 layer_factory.hpp:77] Creating layer drop3_4
I0407 23:51:04.459241 25790 net.cpp:100] Creating Layer drop3_4
I0407 23:51:04.459246 25790 net.cpp:434] drop3_4 <- fc3_4
I0407 23:51:04.459250 25790 net.cpp:395] drop3_4 -> fc3_4 (in-place)
I0407 23:51:04.459271 25790 net.cpp:150] Setting up drop3_4
I0407 23:51:04.459277 25790 net.cpp:157] Top shape: 128 300 (38400)
I0407 23:51:04.459280 25790 net.cpp:165] Memory required for data: 2061248000
I0407 23:51:04.459282 25790 layer_factory.hpp:77] Creating layer fc3_5_67
I0407 23:51:04.459290 25790 net.cpp:100] Creating Layer fc3_5_67
I0407 23:51:04.459295 25790 net.cpp:434] fc3_5_67 <- fc3_4
I0407 23:51:04.459300 25790 net.cpp:408] fc3_5_67 -> fc3_5
I0407 23:51:04.459549 25790 net.cpp:150] Setting up fc3_5_67
I0407 23:51:04.459558 25790 net.cpp:157] Top shape: 128 67 (8576)
I0407 23:51:04.459561 25790 net.cpp:165] Memory required for data: 2061282304
I0407 23:51:04.459566 25790 layer_factory.hpp:77] Creating layer softmax_3
I0407 23:51:04.459573 25790 net.cpp:100] Creating Layer softmax_3
I0407 23:51:04.459578 25790 net.cpp:434] softmax_3 <- fc3_5
I0407 23:51:04.459581 25790 net.cpp:408] softmax_3 -> softmax_3
I0407 23:51:04.460470 25790 net.cpp:150] Setting up softmax_3
I0407 23:51:04.460485 25790 net.cpp:157] Top shape: 128 67 (8576)
I0407 23:51:04.460490 25790 net.cpp:165] Memory required for data: 2061316608
I0407 23:51:04.460507 25790 layer_factory.hpp:77] Creating layer conv4_0
I0407 23:51:04.460518 25790 net.cpp:100] Creating Layer conv4_0
I0407 23:51:04.460523 25790 net.cpp:434] conv4_0 <- data_0_data_0_0_split_4
I0407 23:51:04.460531 25790 net.cpp:408] conv4_0 -> conv4_0
I0407 23:51:04.462148 25790 net.cpp:150] Setting up conv4_0
I0407 23:51:04.462167 25790 net.cpp:157] Top shape: 128 100 42 42 (22579200)
I0407 23:51:04.462172 25790 net.cpp:165] Memory required for data: 2151633408
I0407 23:51:04.462178 25790 layer_factory.hpp:77] Creating layer conv4_0_prescale
I0407 23:51:04.462188 25790 net.cpp:100] Creating Layer conv4_0_prescale
I0407 23:51:04.462193 25790 net.cpp:434] conv4_0_prescale <- conv4_0
I0407 23:51:04.462199 25790 net.cpp:395] conv4_0_prescale -> conv4_0 (in-place)
I0407 23:51:04.462318 25790 net.cpp:150] Setting up conv4_0_prescale
I0407 23:51:04.462327 25790 net.cpp:157] Top shape: 128 100 42 42 (22579200)
I0407 23:51:04.462330 25790 net.cpp:165] Memory required for data: 2241950208
I0407 23:51:04.462335 25790 layer_factory.hpp:77] Creating layer conv4_0_sTanH
I0407 23:51:04.462354 25790 net.cpp:100] Creating Layer conv4_0_sTanH
I0407 23:51:04.462359 25790 net.cpp:434] conv4_0_sTanH <- conv4_0
I0407 23:51:04.462365 25790 net.cpp:395] conv4_0_sTanH -> conv4_0 (in-place)
I0407 23:51:04.462570 25790 net.cpp:150] Setting up conv4_0_sTanH
I0407 23:51:04.462581 25790 net.cpp:157] Top shape: 128 100 42 42 (22579200)
I0407 23:51:04.462585 25790 net.cpp:165] Memory required for data: 2332267008
I0407 23:51:04.462589 25790 layer_factory.hpp:77] Creating layer conv4_0_postscale
I0407 23:51:04.462597 25790 net.cpp:100] Creating Layer conv4_0_postscale
I0407 23:51:04.462601 25790 net.cpp:434] conv4_0_postscale <- conv4_0
I0407 23:51:04.462607 25790 net.cpp:395] conv4_0_postscale -> conv4_0 (in-place)
I0407 23:51:04.462723 25790 net.cpp:150] Setting up conv4_0_postscale
I0407 23:51:04.462733 25790 net.cpp:157] Top shape: 128 100 42 42 (22579200)
I0407 23:51:04.462736 25790 net.cpp:165] Memory required for data: 2422583808
I0407 23:51:04.462741 25790 layer_factory.hpp:77] Creating layer pool4_0
I0407 23:51:04.462748 25790 net.cpp:100] Creating Layer pool4_0
I0407 23:51:04.462751 25790 net.cpp:434] pool4_0 <- conv4_0
I0407 23:51:04.462756 25790 net.cpp:408] pool4_0 -> pool4_0
I0407 23:51:04.462803 25790 net.cpp:150] Setting up pool4_0
I0407 23:51:04.462811 25790 net.cpp:157] Top shape: 128 100 21 21 (5644800)
I0407 23:51:04.462813 25790 net.cpp:165] Memory required for data: 2445163008
I0407 23:51:04.462816 25790 layer_factory.hpp:77] Creating layer conv4_1
I0407 23:51:04.462826 25790 net.cpp:100] Creating Layer conv4_1
I0407 23:51:04.462831 25790 net.cpp:434] conv4_1 <- pool4_0
I0407 23:51:04.462837 25790 net.cpp:408] conv4_1 -> conv4_1
I0407 23:51:04.466755 25790 net.cpp:150] Setting up conv4_1
I0407 23:51:04.466774 25790 net.cpp:157] Top shape: 128 150 18 18 (6220800)
I0407 23:51:04.466779 25790 net.cpp:165] Memory required for data: 2470046208
I0407 23:51:04.466799 25790 layer_factory.hpp:77] Creating layer conv4_1_prescale
I0407 23:51:04.466807 25790 net.cpp:100] Creating Layer conv4_1_prescale
I0407 23:51:04.466812 25790 net.cpp:434] conv4_1_prescale <- conv4_1
I0407 23:51:04.466820 25790 net.cpp:395] conv4_1_prescale -> conv4_1 (in-place)
I0407 23:51:04.466941 25790 net.cpp:150] Setting up conv4_1_prescale
I0407 23:51:04.466950 25790 net.cpp:157] Top shape: 128 150 18 18 (6220800)
I0407 23:51:04.466953 25790 net.cpp:165] Memory required for data: 2494929408
I0407 23:51:04.466958 25790 layer_factory.hpp:77] Creating layer conv4_1_sTanH
I0407 23:51:04.466964 25790 net.cpp:100] Creating Layer conv4_1_sTanH
I0407 23:51:04.466969 25790 net.cpp:434] conv4_1_sTanH <- conv4_1
I0407 23:51:04.466972 25790 net.cpp:395] conv4_1_sTanH -> conv4_1 (in-place)
I0407 23:51:04.467782 25790 net.cpp:150] Setting up conv4_1_sTanH
I0407 23:51:04.467798 25790 net.cpp:157] Top shape: 128 150 18 18 (6220800)
I0407 23:51:04.467803 25790 net.cpp:165] Memory required for data: 2519812608
I0407 23:51:04.467806 25790 layer_factory.hpp:77] Creating layer conv4_1_postscale
I0407 23:51:04.467815 25790 net.cpp:100] Creating Layer conv4_1_postscale
I0407 23:51:04.467820 25790 net.cpp:434] conv4_1_postscale <- conv4_1
I0407 23:51:04.467826 25790 net.cpp:395] conv4_1_postscale -> conv4_1 (in-place)
I0407 23:51:04.467958 25790 net.cpp:150] Setting up conv4_1_postscale
I0407 23:51:04.467968 25790 net.cpp:157] Top shape: 128 150 18 18 (6220800)
I0407 23:51:04.467972 25790 net.cpp:165] Memory required for data: 2544695808
I0407 23:51:04.467977 25790 layer_factory.hpp:77] Creating layer pool4_1
I0407 23:51:04.467986 25790 net.cpp:100] Creating Layer pool4_1
I0407 23:51:04.467991 25790 net.cpp:434] pool4_1 <- conv4_1
I0407 23:51:04.467996 25790 net.cpp:408] pool4_1 -> pool4_1
I0407 23:51:04.468046 25790 net.cpp:150] Setting up pool4_1
I0407 23:51:04.468055 25790 net.cpp:157] Top shape: 128 150 9 9 (1555200)
I0407 23:51:04.468057 25790 net.cpp:165] Memory required for data: 2550916608
I0407 23:51:04.468060 25790 layer_factory.hpp:77] Creating layer conv4_2
I0407 23:51:04.468073 25790 net.cpp:100] Creating Layer conv4_2
I0407 23:51:04.468078 25790 net.cpp:434] conv4_2 <- pool4_1
I0407 23:51:04.468098 25790 net.cpp:408] conv4_2 -> conv4_2
I0407 23:51:04.474308 25790 net.cpp:150] Setting up conv4_2
I0407 23:51:04.474326 25790 net.cpp:157] Top shape: 128 250 6 6 (1152000)
I0407 23:51:04.474331 25790 net.cpp:165] Memory required for data: 2555524608
I0407 23:51:04.474350 25790 layer_factory.hpp:77] Creating layer conv4_2_prescale
I0407 23:51:04.474361 25790 net.cpp:100] Creating Layer conv4_2_prescale
I0407 23:51:04.474367 25790 net.cpp:434] conv4_2_prescale <- conv4_2
I0407 23:51:04.474372 25790 net.cpp:395] conv4_2_prescale -> conv4_2 (in-place)
I0407 23:51:04.474488 25790 net.cpp:150] Setting up conv4_2_prescale
I0407 23:51:04.474498 25790 net.cpp:157] Top shape: 128 250 6 6 (1152000)
I0407 23:51:04.474503 25790 net.cpp:165] Memory required for data: 2560132608
I0407 23:51:04.474508 25790 layer_factory.hpp:77] Creating layer conv4_2_sTanH
I0407 23:51:04.474512 25790 net.cpp:100] Creating Layer conv4_2_sTanH
I0407 23:51:04.474517 25790 net.cpp:434] conv4_2_sTanH <- conv4_2
I0407 23:51:04.474521 25790 net.cpp:395] conv4_2_sTanH -> conv4_2 (in-place)
I0407 23:51:04.474719 25790 net.cpp:150] Setting up conv4_2_sTanH
I0407 23:51:04.474730 25790 net.cpp:157] Top shape: 128 250 6 6 (1152000)
I0407 23:51:04.474733 25790 net.cpp:165] Memory required for data: 2564740608
I0407 23:51:04.474737 25790 layer_factory.hpp:77] Creating layer conv4_2_postscale
I0407 23:51:04.474745 25790 net.cpp:100] Creating Layer conv4_2_postscale
I0407 23:51:04.474748 25790 net.cpp:434] conv4_2_postscale <- conv4_2
I0407 23:51:04.474756 25790 net.cpp:395] conv4_2_postscale -> conv4_2 (in-place)
I0407 23:51:04.474862 25790 net.cpp:150] Setting up conv4_2_postscale
I0407 23:51:04.474870 25790 net.cpp:157] Top shape: 128 250 6 6 (1152000)
I0407 23:51:04.474874 25790 net.cpp:165] Memory required for data: 2569348608
I0407 23:51:04.474877 25790 layer_factory.hpp:77] Creating layer pool4_2
I0407 23:51:04.474885 25790 net.cpp:100] Creating Layer pool4_2
I0407 23:51:04.474889 25790 net.cpp:434] pool4_2 <- conv4_2
I0407 23:51:04.474895 25790 net.cpp:408] pool4_2 -> pool4_2
I0407 23:51:04.474934 25790 net.cpp:150] Setting up pool4_2
I0407 23:51:04.474942 25790 net.cpp:157] Top shape: 128 250 3 3 (288000)
I0407 23:51:04.474946 25790 net.cpp:165] Memory required for data: 2570500608
I0407 23:51:04.474948 25790 layer_factory.hpp:77] Creating layer fc4_4_300
I0407 23:51:04.474954 25790 net.cpp:100] Creating Layer fc4_4_300
I0407 23:51:04.474958 25790 net.cpp:434] fc4_4_300 <- pool4_2
I0407 23:51:04.474966 25790 net.cpp:408] fc4_4_300 -> fc4_4
I0407 23:51:04.480304 25790 net.cpp:150] Setting up fc4_4_300
I0407 23:51:04.480319 25790 net.cpp:157] Top shape: 128 300 (38400)
I0407 23:51:04.480324 25790 net.cpp:165] Memory required for data: 2570654208
I0407 23:51:04.480343 25790 layer_factory.hpp:77] Creating layer fc4_4_prescale
I0407 23:51:04.480352 25790 net.cpp:100] Creating Layer fc4_4_prescale
I0407 23:51:04.480357 25790 net.cpp:434] fc4_4_prescale <- fc4_4
I0407 23:51:04.480365 25790 net.cpp:395] fc4_4_prescale -> fc4_4 (in-place)
I0407 23:51:04.480469 25790 net.cpp:150] Setting up fc4_4_prescale
I0407 23:51:04.480478 25790 net.cpp:157] Top shape: 128 300 (38400)
I0407 23:51:04.480479 25790 net.cpp:165] Memory required for data: 2570807808
I0407 23:51:04.480484 25790 layer_factory.hpp:77] Creating layer fc4_4_sTanH
I0407 23:51:04.480489 25790 net.cpp:100] Creating Layer fc4_4_sTanH
I0407 23:51:04.480494 25790 net.cpp:434] fc4_4_sTanH <- fc4_4
I0407 23:51:04.480500 25790 net.cpp:395] fc4_4_sTanH -> fc4_4 (in-place)
I0407 23:51:04.480702 25790 net.cpp:150] Setting up fc4_4_sTanH
I0407 23:51:04.480715 25790 net.cpp:157] Top shape: 128 300 (38400)
I0407 23:51:04.480716 25790 net.cpp:165] Memory required for data: 2570961408
I0407 23:51:04.480720 25790 layer_factory.hpp:77] Creating layer fc4_4_postscale
I0407 23:51:04.480728 25790 net.cpp:100] Creating Layer fc4_4_postscale
I0407 23:51:04.480733 25790 net.cpp:434] fc4_4_postscale <- fc4_4
I0407 23:51:04.480737 25790 net.cpp:395] fc4_4_postscale -> fc4_4 (in-place)
I0407 23:51:04.480864 25790 net.cpp:150] Setting up fc4_4_postscale
I0407 23:51:04.480872 25790 net.cpp:157] Top shape: 128 300 (38400)
I0407 23:51:04.480875 25790 net.cpp:165] Memory required for data: 2571115008
I0407 23:51:04.480880 25790 layer_factory.hpp:77] Creating layer drop4_4
I0407 23:51:04.480888 25790 net.cpp:100] Creating Layer drop4_4
I0407 23:51:04.480892 25790 net.cpp:434] drop4_4 <- fc4_4
I0407 23:51:04.480901 25790 net.cpp:395] drop4_4 -> fc4_4 (in-place)
I0407 23:51:04.480926 25790 net.cpp:150] Setting up drop4_4
I0407 23:51:04.480932 25790 net.cpp:157] Top shape: 128 300 (38400)
I0407 23:51:04.480936 25790 net.cpp:165] Memory required for data: 2571268608
I0407 23:51:04.480938 25790 layer_factory.hpp:77] Creating layer fc4_5_67
I0407 23:51:04.480945 25790 net.cpp:100] Creating Layer fc4_5_67
I0407 23:51:04.480949 25790 net.cpp:434] fc4_5_67 <- fc4_4
I0407 23:51:04.480954 25790 net.cpp:408] fc4_5_67 -> fc4_5
I0407 23:51:04.481205 25790 net.cpp:150] Setting up fc4_5_67
I0407 23:51:04.481215 25790 net.cpp:157] Top shape: 128 67 (8576)
I0407 23:51:04.481217 25790 net.cpp:165] Memory required for data: 2571302912
I0407 23:51:04.481223 25790 layer_factory.hpp:77] Creating layer softmax_4
I0407 23:51:04.481230 25790 net.cpp:100] Creating Layer softmax_4
I0407 23:51:04.481233 25790 net.cpp:434] softmax_4 <- fc4_5
I0407 23:51:04.481240 25790 net.cpp:408] softmax_4 -> softmax_4
I0407 23:51:04.481503 25790 net.cpp:150] Setting up softmax_4
I0407 23:51:04.481514 25790 net.cpp:157] Top shape: 128 67 (8576)
I0407 23:51:04.481518 25790 net.cpp:165] Memory required for data: 2571337216
I0407 23:51:04.481520 25790 layer_factory.hpp:77] Creating layer data_1
I0407 23:51:04.481658 25790 net.cpp:100] Creating Layer data_1
I0407 23:51:04.481672 25790 net.cpp:408] data_1 -> data_1
I0407 23:51:04.481683 25790 net.cpp:408] data_1 -> label_1
I0407 23:51:04.483230 25881 db_lmdb.cpp:35] Opened lmdb ../local_data/lmdb/rtsd-r1/histeq/train/lmdb
I0407 23:51:04.483392 25790 data_layer.cpp:41] output data size: 128,3,48,48
I0407 23:51:04.490983 25790 net.cpp:150] Setting up data_1
I0407 23:51:04.491011 25790 net.cpp:157] Top shape: 128 3 48 48 (884736)
I0407 23:51:04.491016 25790 net.cpp:157] Top shape: 128 (128)
I0407 23:51:04.491019 25790 net.cpp:165] Memory required for data: 2574876672
I0407 23:51:04.491022 25790 layer_factory.hpp:77] Creating layer data_1_data_1_0_split
I0407 23:51:04.491041 25790 net.cpp:100] Creating Layer data_1_data_1_0_split
I0407 23:51:04.491046 25790 net.cpp:434] data_1_data_1_0_split <- data_1
I0407 23:51:04.491055 25790 net.cpp:408] data_1_data_1_0_split -> data_1_data_1_0_split_0
I0407 23:51:04.491065 25790 net.cpp:408] data_1_data_1_0_split -> data_1_data_1_0_split_1
I0407 23:51:04.491073 25790 net.cpp:408] data_1_data_1_0_split -> data_1_data_1_0_split_2
I0407 23:51:04.491082 25790 net.cpp:408] data_1_data_1_0_split -> data_1_data_1_0_split_3
I0407 23:51:04.491089 25790 net.cpp:408] data_1_data_1_0_split -> data_1_data_1_0_split_4
I0407 23:51:04.491212 25790 net.cpp:150] Setting up data_1_data_1_0_split
I0407 23:51:04.491226 25790 net.cpp:157] Top shape: 128 3 48 48 (884736)
I0407 23:51:04.491231 25790 net.cpp:157] Top shape: 128 3 48 48 (884736)
I0407 23:51:04.491235 25790 net.cpp:157] Top shape: 128 3 48 48 (884736)
I0407 23:51:04.491240 25790 net.cpp:157] Top shape: 128 3 48 48 (884736)
I0407 23:51:04.491242 25790 net.cpp:157] Top shape: 128 3 48 48 (884736)
I0407 23:51:04.491245 25790 net.cpp:165] Memory required for data: 2592571392
I0407 23:51:04.491248 25790 layer_factory.hpp:77] Creating layer conv5_0
I0407 23:51:04.491259 25790 net.cpp:100] Creating Layer conv5_0
I0407 23:51:04.491264 25790 net.cpp:434] conv5_0 <- data_1_data_1_0_split_0
I0407 23:51:04.491271 25790 net.cpp:408] conv5_0 -> conv5_0
I0407 23:51:04.493108 25790 net.cpp:150] Setting up conv5_0
I0407 23:51:04.493125 25790 net.cpp:157] Top shape: 128 100 42 42 (22579200)
I0407 23:51:04.493130 25790 net.cpp:165] Memory required for data: 2682888192
I0407 23:51:04.493139 25790 layer_factory.hpp:77] Creating layer conv5_0_prescale
I0407 23:51:04.493162 25790 net.cpp:100] Creating Layer conv5_0_prescale
I0407 23:51:04.493170 25790 net.cpp:434] conv5_0_prescale <- conv5_0
I0407 23:51:04.493175 25790 net.cpp:395] conv5_0_prescale -> conv5_0 (in-place)
I0407 23:51:04.493700 25790 net.cpp:150] Setting up conv5_0_prescale
I0407 23:51:04.493718 25790 net.cpp:157] Top shape: 128 100 42 42 (22579200)
I0407 23:51:04.493723 25790 net.cpp:165] Memory required for data: 2773204992
I0407 23:51:04.493731 25790 layer_factory.hpp:77] Creating layer conv5_0_sTanH
I0407 23:51:04.493742 25790 net.cpp:100] Creating Layer conv5_0_sTanH
I0407 23:51:04.493746 25790 net.cpp:434] conv5_0_sTanH <- conv5_0
I0407 23:51:04.493752 25790 net.cpp:395] conv5_0_sTanH -> conv5_0 (in-place)
I0407 23:51:04.494602 25790 net.cpp:150] Setting up conv5_0_sTanH
I0407 23:51:04.494619 25790 net.cpp:157] Top shape: 128 100 42 42 (22579200)
I0407 23:51:04.494622 25790 net.cpp:165] Memory required for data: 2863521792
I0407 23:51:04.494626 25790 layer_factory.hpp:77] Creating layer conv5_0_postscale
I0407 23:51:04.494633 25790 net.cpp:100] Creating Layer conv5_0_postscale
I0407 23:51:04.494637 25790 net.cpp:434] conv5_0_postscale <- conv5_0
I0407 23:51:04.494645 25790 net.cpp:395] conv5_0_postscale -> conv5_0 (in-place)
I0407 23:51:04.494772 25790 net.cpp:150] Setting up conv5_0_postscale
I0407 23:51:04.494781 25790 net.cpp:157] Top shape: 128 100 42 42 (22579200)
I0407 23:51:04.494784 25790 net.cpp:165] Memory required for data: 2953838592
I0407 23:51:04.494789 25790 layer_factory.hpp:77] Creating layer pool5_0
I0407 23:51:04.494797 25790 net.cpp:100] Creating Layer pool5_0
I0407 23:51:04.494802 25790 net.cpp:434] pool5_0 <- conv5_0
I0407 23:51:04.494809 25790 net.cpp:408] pool5_0 -> pool5_0
I0407 23:51:04.494858 25790 net.cpp:150] Setting up pool5_0
I0407 23:51:04.494866 25790 net.cpp:157] Top shape: 128 100 21 21 (5644800)
I0407 23:51:04.494869 25790 net.cpp:165] Memory required for data: 2976417792
I0407 23:51:04.494873 25790 layer_factory.hpp:77] Creating layer conv5_1
I0407 23:51:04.494884 25790 net.cpp:100] Creating Layer conv5_1
I0407 23:51:04.494889 25790 net.cpp:434] conv5_1 <- pool5_0
I0407 23:51:04.494894 25790 net.cpp:408] conv5_1 -> conv5_1
I0407 23:51:04.497270 25790 net.cpp:150] Setting up conv5_1
I0407 23:51:04.497287 25790 net.cpp:157] Top shape: 128 150 18 18 (6220800)
I0407 23:51:04.497292 25790 net.cpp:165] Memory required for data: 3001300992
I0407 23:51:04.497298 25790 layer_factory.hpp:77] Creating layer conv5_1_prescale
I0407 23:51:04.497305 25790 net.cpp:100] Creating Layer conv5_1_prescale
I0407 23:51:04.497308 25790 net.cpp:434] conv5_1_prescale <- conv5_1
I0407 23:51:04.497316 25790 net.cpp:395] conv5_1_prescale -> conv5_1 (in-place)
I0407 23:51:04.497436 25790 net.cpp:150] Setting up conv5_1_prescale
I0407 23:51:04.497444 25790 net.cpp:157] Top shape: 128 150 18 18 (6220800)
I0407 23:51:04.497447 25790 net.cpp:165] Memory required for data: 3026184192
I0407 23:51:04.497452 25790 layer_factory.hpp:77] Creating layer conv5_1_sTanH
I0407 23:51:04.497457 25790 net.cpp:100] Creating Layer conv5_1_sTanH
I0407 23:51:04.497462 25790 net.cpp:434] conv5_1_sTanH <- conv5_1
I0407 23:51:04.497470 25790 net.cpp:395] conv5_1_sTanH -> conv5_1 (in-place)
I0407 23:51:04.498301 25790 net.cpp:150] Setting up conv5_1_sTanH
I0407 23:51:04.498317 25790 net.cpp:157] Top shape: 128 150 18 18 (6220800)
I0407 23:51:04.498322 25790 net.cpp:165] Memory required for data: 3051067392
I0407 23:51:04.498325 25790 layer_factory.hpp:77] Creating layer conv5_1_postscale
I0407 23:51:04.498334 25790 net.cpp:100] Creating Layer conv5_1_postscale
I0407 23:51:04.498339 25790 net.cpp:434] conv5_1_postscale <- conv5_1
I0407 23:51:04.498345 25790 net.cpp:395] conv5_1_postscale -> conv5_1 (in-place)
I0407 23:51:04.498471 25790 net.cpp:150] Setting up conv5_1_postscale
I0407 23:51:04.498481 25790 net.cpp:157] Top shape: 128 150 18 18 (6220800)
I0407 23:51:04.498483 25790 net.cpp:165] Memory required for data: 3075950592
I0407 23:51:04.498488 25790 layer_factory.hpp:77] Creating layer pool5_1
I0407 23:51:04.498510 25790 net.cpp:100] Creating Layer pool5_1
I0407 23:51:04.498515 25790 net.cpp:434] pool5_1 <- conv5_1
I0407 23:51:04.498520 25790 net.cpp:408] pool5_1 -> pool5_1
I0407 23:51:04.498572 25790 net.cpp:150] Setting up pool5_1
I0407 23:51:04.498581 25790 net.cpp:157] Top shape: 128 150 9 9 (1555200)
I0407 23:51:04.498584 25790 net.cpp:165] Memory required for data: 3082171392
I0407 23:51:04.498586 25790 layer_factory.hpp:77] Creating layer conv5_2
I0407 23:51:04.498595 25790 net.cpp:100] Creating Layer conv5_2
I0407 23:51:04.498600 25790 net.cpp:434] conv5_2 <- pool5_1
I0407 23:51:04.498606 25790 net.cpp:408] conv5_2 -> conv5_2
I0407 23:51:04.504930 25790 net.cpp:150] Setting up conv5_2
I0407 23:51:04.504951 25790 net.cpp:157] Top shape: 128 250 6 6 (1152000)
I0407 23:51:04.504956 25790 net.cpp:165] Memory required for data: 3086779392
I0407 23:51:04.504963 25790 layer_factory.hpp:77] Creating layer conv5_2_prescale
I0407 23:51:04.504972 25790 net.cpp:100] Creating Layer conv5_2_prescale
I0407 23:51:04.504977 25790 net.cpp:434] conv5_2_prescale <- conv5_2
I0407 23:51:04.504984 25790 net.cpp:395] conv5_2_prescale -> conv5_2 (in-place)
I0407 23:51:04.505100 25790 net.cpp:150] Setting up conv5_2_prescale
I0407 23:51:04.505108 25790 net.cpp:157] Top shape: 128 250 6 6 (1152000)
I0407 23:51:04.505111 25790 net.cpp:165] Memory required for data: 3091387392
I0407 23:51:04.505115 25790 layer_factory.hpp:77] Creating layer conv5_2_sTanH
I0407 23:51:04.505122 25790 net.cpp:100] Creating Layer conv5_2_sTanH
I0407 23:51:04.505127 25790 net.cpp:434] conv5_2_sTanH <- conv5_2
I0407 23:51:04.505131 25790 net.cpp:395] conv5_2_sTanH -> conv5_2 (in-place)
I0407 23:51:04.505331 25790 net.cpp:150] Setting up conv5_2_sTanH
I0407 23:51:04.505342 25790 net.cpp:157] Top shape: 128 250 6 6 (1152000)
I0407 23:51:04.505347 25790 net.cpp:165] Memory required for data: 3095995392
I0407 23:51:04.505350 25790 layer_factory.hpp:77] Creating layer conv5_2_postscale
I0407 23:51:04.505357 25790 net.cpp:100] Creating Layer conv5_2_postscale
I0407 23:51:04.505362 25790 net.cpp:434] conv5_2_postscale <- conv5_2
I0407 23:51:04.505367 25790 net.cpp:395] conv5_2_postscale -> conv5_2 (in-place)
I0407 23:51:04.505486 25790 net.cpp:150] Setting up conv5_2_postscale
I0407 23:51:04.505493 25790 net.cpp:157] Top shape: 128 250 6 6 (1152000)
I0407 23:51:04.505496 25790 net.cpp:165] Memory required for data: 3100603392
I0407 23:51:04.505501 25790 layer_factory.hpp:77] Creating layer pool5_2
I0407 23:51:04.505529 25790 net.cpp:100] Creating Layer pool5_2
I0407 23:51:04.505534 25790 net.cpp:434] pool5_2 <- conv5_2
I0407 23:51:04.505540 25790 net.cpp:408] pool5_2 -> pool5_2
I0407 23:51:04.505590 25790 net.cpp:150] Setting up pool5_2
I0407 23:51:04.505599 25790 net.cpp:157] Top shape: 128 250 3 3 (288000)
I0407 23:51:04.505604 25790 net.cpp:165] Memory required for data: 3101755392
I0407 23:51:04.505606 25790 layer_factory.hpp:77] Creating layer fc5_4_300
I0407 23:51:04.505612 25790 net.cpp:100] Creating Layer fc5_4_300
I0407 23:51:04.505616 25790 net.cpp:434] fc5_4_300 <- pool5_2
I0407 23:51:04.505621 25790 net.cpp:408] fc5_4_300 -> fc5_4
I0407 23:51:04.510998 25790 net.cpp:150] Setting up fc5_4_300
I0407 23:51:04.511014 25790 net.cpp:157] Top shape: 128 300 (38400)
I0407 23:51:04.511018 25790 net.cpp:165] Memory required for data: 3101908992
I0407 23:51:04.511037 25790 layer_factory.hpp:77] Creating layer fc5_4_prescale
I0407 23:51:04.511047 25790 net.cpp:100] Creating Layer fc5_4_prescale
I0407 23:51:04.511054 25790 net.cpp:434] fc5_4_prescale <- fc5_4
I0407 23:51:04.511059 25790 net.cpp:395] fc5_4_prescale -> fc5_4 (in-place)
I0407 23:51:04.511165 25790 net.cpp:150] Setting up fc5_4_prescale
I0407 23:51:04.511173 25790 net.cpp:157] Top shape: 128 300 (38400)
I0407 23:51:04.511175 25790 net.cpp:165] Memory required for data: 3102062592
I0407 23:51:04.511180 25790 layer_factory.hpp:77] Creating layer fc5_4_sTanH
I0407 23:51:04.511186 25790 net.cpp:100] Creating Layer fc5_4_sTanH
I0407 23:51:04.511191 25790 net.cpp:434] fc5_4_sTanH <- fc5_4
I0407 23:51:04.511195 25790 net.cpp:395] fc5_4_sTanH -> fc5_4 (in-place)
I0407 23:51:04.511422 25790 net.cpp:150] Setting up fc5_4_sTanH
I0407 23:51:04.511435 25790 net.cpp:157] Top shape: 128 300 (38400)
I0407 23:51:04.511437 25790 net.cpp:165] Memory required for data: 3102216192
I0407 23:51:04.511440 25790 layer_factory.hpp:77] Creating layer fc5_4_postscale
I0407 23:51:04.511447 25790 net.cpp:100] Creating Layer fc5_4_postscale
I0407 23:51:04.511452 25790 net.cpp:434] fc5_4_postscale <- fc5_4
I0407 23:51:04.511458 25790 net.cpp:395] fc5_4_postscale -> fc5_4 (in-place)
I0407 23:51:04.511569 25790 net.cpp:150] Setting up fc5_4_postscale
I0407 23:51:04.511577 25790 net.cpp:157] Top shape: 128 300 (38400)
I0407 23:51:04.511579 25790 net.cpp:165] Memory required for data: 3102369792
I0407 23:51:04.511584 25790 layer_factory.hpp:77] Creating layer drop5_4
I0407 23:51:04.511591 25790 net.cpp:100] Creating Layer drop5_4
I0407 23:51:04.511596 25790 net.cpp:434] drop5_4 <- fc5_4
I0407 23:51:04.511601 25790 net.cpp:395] drop5_4 -> fc5_4 (in-place)
I0407 23:51:04.511626 25790 net.cpp:150] Setting up drop5_4
I0407 23:51:04.511631 25790 net.cpp:157] Top shape: 128 300 (38400)
I0407 23:51:04.511634 25790 net.cpp:165] Memory required for data: 3102523392
I0407 23:51:04.511637 25790 layer_factory.hpp:77] Creating layer fc5_5_67
I0407 23:51:04.511643 25790 net.cpp:100] Creating Layer fc5_5_67
I0407 23:51:04.511646 25790 net.cpp:434] fc5_5_67 <- fc5_4
I0407 23:51:04.511656 25790 net.cpp:408] fc5_5_67 -> fc5_5
I0407 23:51:04.511925 25790 net.cpp:150] Setting up fc5_5_67
I0407 23:51:04.511934 25790 net.cpp:157] Top shape: 128 67 (8576)
I0407 23:51:04.511937 25790 net.cpp:165] Memory required for data: 3102557696
I0407 23:51:04.511945 25790 layer_factory.hpp:77] Creating layer softmax_5
I0407 23:51:04.511950 25790 net.cpp:100] Creating Layer softmax_5
I0407 23:51:04.511955 25790 net.cpp:434] softmax_5 <- fc5_5
I0407 23:51:04.511960 25790 net.cpp:408] softmax_5 -> softmax_5
I0407 23:51:04.512233 25790 net.cpp:150] Setting up softmax_5
I0407 23:51:04.512244 25790 net.cpp:157] Top shape: 128 67 (8576)
I0407 23:51:04.512249 25790 net.cpp:165] Memory required for data: 3102592000
I0407 23:51:04.512253 25790 layer_factory.hpp:77] Creating layer conv6_0
I0407 23:51:04.512264 25790 net.cpp:100] Creating Layer conv6_0
I0407 23:51:04.512269 25790 net.cpp:434] conv6_0 <- data_1_data_1_0_split_1
I0407 23:51:04.512275 25790 net.cpp:408] conv6_0 -> conv6_0
I0407 23:51:04.513916 25790 net.cpp:150] Setting up conv6_0
I0407 23:51:04.513934 25790 net.cpp:157] Top shape: 128 100 42 42 (22579200)
I0407 23:51:04.513939 25790 net.cpp:165] Memory required for data: 3192908800
I0407 23:51:04.513947 25790 layer_factory.hpp:77] Creating layer conv6_0_prescale
I0407 23:51:04.513955 25790 net.cpp:100] Creating Layer conv6_0_prescale
I0407 23:51:04.513962 25790 net.cpp:434] conv6_0_prescale <- conv6_0
I0407 23:51:04.513968 25790 net.cpp:395] conv6_0_prescale -> conv6_0 (in-place)
I0407 23:51:04.514091 25790 net.cpp:150] Setting up conv6_0_prescale
I0407 23:51:04.514099 25790 net.cpp:157] Top shape: 128 100 42 42 (22579200)
I0407 23:51:04.514102 25790 net.cpp:165] Memory required for data: 3283225600
I0407 23:51:04.514106 25790 layer_factory.hpp:77] Creating layer conv6_0_sTanH
I0407 23:51:04.514114 25790 net.cpp:100] Creating Layer conv6_0_sTanH
I0407 23:51:04.514118 25790 net.cpp:434] conv6_0_sTanH <- conv6_0
I0407 23:51:04.514124 25790 net.cpp:395] conv6_0_sTanH -> conv6_0 (in-place)
I0407 23:51:04.514963 25790 net.cpp:150] Setting up conv6_0_sTanH
I0407 23:51:04.514979 25790 net.cpp:157] Top shape: 128 100 42 42 (22579200)
I0407 23:51:04.514995 25790 net.cpp:165] Memory required for data: 3373542400
I0407 23:51:04.514998 25790 layer_factory.hpp:77] Creating layer conv6_0_postscale
I0407 23:51:04.515027 25790 net.cpp:100] Creating Layer conv6_0_postscale
I0407 23:51:04.515033 25790 net.cpp:434] conv6_0_postscale <- conv6_0
I0407 23:51:04.515038 25790 net.cpp:395] conv6_0_postscale -> conv6_0 (in-place)
I0407 23:51:04.515166 25790 net.cpp:150] Setting up conv6_0_postscale
I0407 23:51:04.515174 25790 net.cpp:157] Top shape: 128 100 42 42 (22579200)
I0407 23:51:04.515192 25790 net.cpp:165] Memory required for data: 3463859200
I0407 23:51:04.515197 25790 layer_factory.hpp:77] Creating layer pool6_0
I0407 23:51:04.515206 25790 net.cpp:100] Creating Layer pool6_0
I0407 23:51:04.515211 25790 net.cpp:434] pool6_0 <- conv6_0
I0407 23:51:04.515218 25790 net.cpp:408] pool6_0 -> pool6_0
I0407 23:51:04.515271 25790 net.cpp:150] Setting up pool6_0
I0407 23:51:04.515280 25790 net.cpp:157] Top shape: 128 100 21 21 (5644800)
I0407 23:51:04.515283 25790 net.cpp:165] Memory required for data: 3486438400
I0407 23:51:04.515286 25790 layer_factory.hpp:77] Creating layer conv6_1
I0407 23:51:04.515295 25790 net.cpp:100] Creating Layer conv6_1
I0407 23:51:04.515300 25790 net.cpp:434] conv6_1 <- pool6_0
I0407 23:51:04.515307 25790 net.cpp:408] conv6_1 -> conv6_1
I0407 23:51:04.518723 25790 net.cpp:150] Setting up conv6_1
I0407 23:51:04.518740 25790 net.cpp:157] Top shape: 128 150 18 18 (6220800)
I0407 23:51:04.518745 25790 net.cpp:165] Memory required for data: 3511321600
I0407 23:51:04.518752 25790 layer_factory.hpp:77] Creating layer conv6_1_prescale
I0407 23:51:04.518761 25790 net.cpp:100] Creating Layer conv6_1_prescale
I0407 23:51:04.518766 25790 net.cpp:434] conv6_1_prescale <- conv6_1
I0407 23:51:04.518774 25790 net.cpp:395] conv6_1_prescale -> conv6_1 (in-place)
I0407 23:51:04.518898 25790 net.cpp:150] Setting up conv6_1_prescale
I0407 23:51:04.518908 25790 net.cpp:157] Top shape: 128 150 18 18 (6220800)
I0407 23:51:04.518913 25790 net.cpp:165] Memory required for data: 3536204800
I0407 23:51:04.518918 25790 layer_factory.hpp:77] Creating layer conv6_1_sTanH
I0407 23:51:04.518923 25790 net.cpp:100] Creating Layer conv6_1_sTanH
I0407 23:51:04.518928 25790 net.cpp:434] conv6_1_sTanH <- conv6_1
I0407 23:51:04.518934 25790 net.cpp:395] conv6_1_sTanH -> conv6_1 (in-place)
I0407 23:51:04.519757 25790 net.cpp:150] Setting up conv6_1_sTanH
I0407 23:51:04.519773 25790 net.cpp:157] Top shape: 128 150 18 18 (6220800)
I0407 23:51:04.519778 25790 net.cpp:165] Memory required for data: 3561088000
I0407 23:51:04.519780 25790 layer_factory.hpp:77] Creating layer conv6_1_postscale
I0407 23:51:04.519791 25790 net.cpp:100] Creating Layer conv6_1_postscale
I0407 23:51:04.519796 25790 net.cpp:434] conv6_1_postscale <- conv6_1
I0407 23:51:04.519801 25790 net.cpp:395] conv6_1_postscale -> conv6_1 (in-place)
I0407 23:51:04.519937 25790 net.cpp:150] Setting up conv6_1_postscale
I0407 23:51:04.519948 25790 net.cpp:157] Top shape: 128 150 18 18 (6220800)
I0407 23:51:04.519950 25790 net.cpp:165] Memory required for data: 3585971200
I0407 23:51:04.519955 25790 layer_factory.hpp:77] Creating layer pool6_1
I0407 23:51:04.519964 25790 net.cpp:100] Creating Layer pool6_1
I0407 23:51:04.519969 25790 net.cpp:434] pool6_1 <- conv6_1
I0407 23:51:04.519974 25790 net.cpp:408] pool6_1 -> pool6_1
I0407 23:51:04.520026 25790 net.cpp:150] Setting up pool6_1
I0407 23:51:04.520035 25790 net.cpp:157] Top shape: 128 150 9 9 (1555200)
I0407 23:51:04.520038 25790 net.cpp:165] Memory required for data: 3592192000
I0407 23:51:04.520041 25790 layer_factory.hpp:77] Creating layer conv6_2
I0407 23:51:04.520051 25790 net.cpp:100] Creating Layer conv6_2
I0407 23:51:04.520056 25790 net.cpp:434] conv6_2 <- pool6_1
I0407 23:51:04.520062 25790 net.cpp:408] conv6_2 -> conv6_2
I0407 23:51:04.526368 25790 net.cpp:150] Setting up conv6_2
I0407 23:51:04.526389 25790 net.cpp:157] Top shape: 128 250 6 6 (1152000)
I0407 23:51:04.526393 25790 net.cpp:165] Memory required for data: 3596800000
I0407 23:51:04.526401 25790 layer_factory.hpp:77] Creating layer conv6_2_prescale
I0407 23:51:04.526407 25790 net.cpp:100] Creating Layer conv6_2_prescale
I0407 23:51:04.526412 25790 net.cpp:434] conv6_2_prescale <- conv6_2
I0407 23:51:04.526418 25790 net.cpp:395] conv6_2_prescale -> conv6_2 (in-place)
I0407 23:51:04.526535 25790 net.cpp:150] Setting up conv6_2_prescale
I0407 23:51:04.526543 25790 net.cpp:157] Top shape: 128 250 6 6 (1152000)
I0407 23:51:04.526546 25790 net.cpp:165] Memory required for data: 3601408000
I0407 23:51:04.526563 25790 layer_factory.hpp:77] Creating layer conv6_2_sTanH
I0407 23:51:04.526569 25790 net.cpp:100] Creating Layer conv6_2_sTanH
I0407 23:51:04.526572 25790 net.cpp:434] conv6_2_sTanH <- conv6_2
I0407 23:51:04.526577 25790 net.cpp:395] conv6_2_sTanH -> conv6_2 (in-place)
I0407 23:51:04.526782 25790 net.cpp:150] Setting up conv6_2_sTanH
I0407 23:51:04.526793 25790 net.cpp:157] Top shape: 128 250 6 6 (1152000)
I0407 23:51:04.526796 25790 net.cpp:165] Memory required for data: 3606016000
I0407 23:51:04.526799 25790 layer_factory.hpp:77] Creating layer conv6_2_postscale
I0407 23:51:04.526806 25790 net.cpp:100] Creating Layer conv6_2_postscale
I0407 23:51:04.526809 25790 net.cpp:434] conv6_2_postscale <- conv6_2
I0407 23:51:04.526819 25790 net.cpp:395] conv6_2_postscale -> conv6_2 (in-place)
I0407 23:51:04.526938 25790 net.cpp:150] Setting up conv6_2_postscale
I0407 23:51:04.526947 25790 net.cpp:157] Top shape: 128 250 6 6 (1152000)
I0407 23:51:04.526949 25790 net.cpp:165] Memory required for data: 3610624000
I0407 23:51:04.526954 25790 layer_factory.hpp:77] Creating layer pool6_2
I0407 23:51:04.526959 25790 net.cpp:100] Creating Layer pool6_2
I0407 23:51:04.526963 25790 net.cpp:434] pool6_2 <- conv6_2
I0407 23:51:04.526969 25790 net.cpp:408] pool6_2 -> pool6_2
I0407 23:51:04.527011 25790 net.cpp:150] Setting up pool6_2
I0407 23:51:04.527019 25790 net.cpp:157] Top shape: 128 250 3 3 (288000)
I0407 23:51:04.527021 25790 net.cpp:165] Memory required for data: 3611776000
I0407 23:51:04.527024 25790 layer_factory.hpp:77] Creating layer fc6_4_300
I0407 23:51:04.527031 25790 net.cpp:100] Creating Layer fc6_4_300
I0407 23:51:04.527036 25790 net.cpp:434] fc6_4_300 <- pool6_2
I0407 23:51:04.527041 25790 net.cpp:408] fc6_4_300 -> fc6_4
I0407 23:51:04.532560 25790 net.cpp:150] Setting up fc6_4_300
I0407 23:51:04.532575 25790 net.cpp:157] Top shape: 128 300 (38400)
I0407 23:51:04.532579 25790 net.cpp:165] Memory required for data: 3611929600
I0407 23:51:04.532587 25790 layer_factory.hpp:77] Creating layer fc6_4_prescale
I0407 23:51:04.532594 25790 net.cpp:100] Creating Layer fc6_4_prescale
I0407 23:51:04.532598 25790 net.cpp:434] fc6_4_prescale <- fc6_4
I0407 23:51:04.532604 25790 net.cpp:395] fc6_4_prescale -> fc6_4 (in-place)
I0407 23:51:04.532711 25790 net.cpp:150] Setting up fc6_4_prescale
I0407 23:51:04.532719 25790 net.cpp:157] Top shape: 128 300 (38400)
I0407 23:51:04.532721 25790 net.cpp:165] Memory required for data: 3612083200
I0407 23:51:04.532727 25790 layer_factory.hpp:77] Creating layer fc6_4_sTanH
I0407 23:51:04.532732 25790 net.cpp:100] Creating Layer fc6_4_sTanH
I0407 23:51:04.532734 25790 net.cpp:434] fc6_4_sTanH <- fc6_4
I0407 23:51:04.532743 25790 net.cpp:395] fc6_4_sTanH -> fc6_4 (in-place)
I0407 23:51:04.532951 25790 net.cpp:150] Setting up fc6_4_sTanH
I0407 23:51:04.532963 25790 net.cpp:157] Top shape: 128 300 (38400)
I0407 23:51:04.532965 25790 net.cpp:165] Memory required for data: 3612236800
I0407 23:51:04.532968 25790 layer_factory.hpp:77] Creating layer fc6_4_postscale
I0407 23:51:04.532976 25790 net.cpp:100] Creating Layer fc6_4_postscale
I0407 23:51:04.532980 25790 net.cpp:434] fc6_4_postscale <- fc6_4
I0407 23:51:04.532985 25790 net.cpp:395] fc6_4_postscale -> fc6_4 (in-place)
I0407 23:51:04.533100 25790 net.cpp:150] Setting up fc6_4_postscale
I0407 23:51:04.533108 25790 net.cpp:157] Top shape: 128 300 (38400)
I0407 23:51:04.533112 25790 net.cpp:165] Memory required for data: 3612390400
I0407 23:51:04.533116 25790 layer_factory.hpp:77] Creating layer drop6_4
I0407 23:51:04.533121 25790 net.cpp:100] Creating Layer drop6_4
I0407 23:51:04.533124 25790 net.cpp:434] drop6_4 <- fc6_4
I0407 23:51:04.533130 25790 net.cpp:395] drop6_4 -> fc6_4 (in-place)
I0407 23:51:04.533152 25790 net.cpp:150] Setting up drop6_4
I0407 23:51:04.533160 25790 net.cpp:157] Top shape: 128 300 (38400)
I0407 23:51:04.533164 25790 net.cpp:165] Memory required for data: 3612544000
I0407 23:51:04.533166 25790 layer_factory.hpp:77] Creating layer fc6_5_67
I0407 23:51:04.533172 25790 net.cpp:100] Creating Layer fc6_5_67
I0407 23:51:04.533188 25790 net.cpp:434] fc6_5_67 <- fc6_4
I0407 23:51:04.533195 25790 net.cpp:408] fc6_5_67 -> fc6_5
I0407 23:51:04.533457 25790 net.cpp:150] Setting up fc6_5_67
I0407 23:51:04.533466 25790 net.cpp:157] Top shape: 128 67 (8576)
I0407 23:51:04.533468 25790 net.cpp:165] Memory required for data: 3612578304
I0407 23:51:04.533474 25790 layer_factory.hpp:77] Creating layer softmax_6
I0407 23:51:04.533481 25790 net.cpp:100] Creating Layer softmax_6
I0407 23:51:04.533484 25790 net.cpp:434] softmax_6 <- fc6_5
I0407 23:51:04.533489 25790 net.cpp:408] softmax_6 -> softmax_6
I0407 23:51:04.533758 25790 net.cpp:150] Setting up softmax_6
I0407 23:51:04.533769 25790 net.cpp:157] Top shape: 128 67 (8576)
I0407 23:51:04.533772 25790 net.cpp:165] Memory required for data: 3612612608
I0407 23:51:04.533776 25790 layer_factory.hpp:77] Creating layer conv7_0
I0407 23:51:04.533785 25790 net.cpp:100] Creating Layer conv7_0
I0407 23:51:04.533789 25790 net.cpp:434] conv7_0 <- data_1_data_1_0_split_2
I0407 23:51:04.533797 25790 net.cpp:408] conv7_0 -> conv7_0
I0407 23:51:04.535609 25790 net.cpp:150] Setting up conv7_0
I0407 23:51:04.535626 25790 net.cpp:157] Top shape: 128 100 42 42 (22579200)
I0407 23:51:04.535629 25790 net.cpp:165] Memory required for data: 3702929408
I0407 23:51:04.535636 25790 layer_factory.hpp:77] Creating layer conv7_0_prescale
I0407 23:51:04.535646 25790 net.cpp:100] Creating Layer conv7_0_prescale
I0407 23:51:04.535651 25790 net.cpp:434] conv7_0_prescale <- conv7_0
I0407 23:51:04.535656 25790 net.cpp:395] conv7_0_prescale -> conv7_0 (in-place)
I0407 23:51:04.535784 25790 net.cpp:150] Setting up conv7_0_prescale
I0407 23:51:04.535794 25790 net.cpp:157] Top shape: 128 100 42 42 (22579200)
I0407 23:51:04.535796 25790 net.cpp:165] Memory required for data: 3793246208
I0407 23:51:04.535820 25790 layer_factory.hpp:77] Creating layer conv7_0_sTanH
I0407 23:51:04.535830 25790 net.cpp:100] Creating Layer conv7_0_sTanH
I0407 23:51:04.535832 25790 net.cpp:434] conv7_0_sTanH <- conv7_0
I0407 23:51:04.535837 25790 net.cpp:395] conv7_0_sTanH -> conv7_0 (in-place)
I0407 23:51:04.537503 25790 net.cpp:150] Setting up conv7_0_sTanH
I0407 23:51:04.537521 25790 net.cpp:157] Top shape: 128 100 42 42 (22579200)
I0407 23:51:04.537524 25790 net.cpp:165] Memory required for data: 3883563008
I0407 23:51:04.537528 25790 layer_factory.hpp:77] Creating layer conv7_0_postscale
I0407 23:51:04.537535 25790 net.cpp:100] Creating Layer conv7_0_postscale
I0407 23:51:04.537541 25790 net.cpp:434] conv7_0_postscale <- conv7_0
I0407 23:51:04.537549 25790 net.cpp:395] conv7_0_postscale -> conv7_0 (in-place)
I0407 23:51:04.537678 25790 net.cpp:150] Setting up conv7_0_postscale
I0407 23:51:04.537686 25790 net.cpp:157] Top shape: 128 100 42 42 (22579200)
I0407 23:51:04.537689 25790 net.cpp:165] Memory required for data: 3973879808
I0407 23:51:04.537694 25790 layer_factory.hpp:77] Creating layer pool7_0
I0407 23:51:04.537700 25790 net.cpp:100] Creating Layer pool7_0
I0407 23:51:04.537704 25790 net.cpp:434] pool7_0 <- conv7_0
I0407 23:51:04.537710 25790 net.cpp:408] pool7_0 -> pool7_0
I0407 23:51:04.537758 25790 net.cpp:150] Setting up pool7_0
I0407 23:51:04.537768 25790 net.cpp:157] Top shape: 128 100 21 21 (5644800)
I0407 23:51:04.537770 25790 net.cpp:165] Memory required for data: 3996459008
I0407 23:51:04.537773 25790 layer_factory.hpp:77] Creating layer conv7_1
I0407 23:51:04.537783 25790 net.cpp:100] Creating Layer conv7_1
I0407 23:51:04.537788 25790 net.cpp:434] conv7_1 <- pool7_0
I0407 23:51:04.537793 25790 net.cpp:408] conv7_1 -> conv7_1
I0407 23:51:04.541541 25790 net.cpp:150] Setting up conv7_1
I0407 23:51:04.541558 25790 net.cpp:157] Top shape: 128 150 18 18 (6220800)
I0407 23:51:04.541563 25790 net.cpp:165] Memory required for data: 4021342208
I0407 23:51:04.541569 25790 layer_factory.hpp:77] Creating layer conv7_1_prescale
I0407 23:51:04.541576 25790 net.cpp:100] Creating Layer conv7_1_prescale
I0407 23:51:04.541580 25790 net.cpp:434] conv7_1_prescale <- conv7_1
I0407 23:51:04.541587 25790 net.cpp:395] conv7_1_prescale -> conv7_1 (in-place)
I0407 23:51:04.541725 25790 net.cpp:150] Setting up conv7_1_prescale
I0407 23:51:04.541735 25790 net.cpp:157] Top shape: 128 150 18 18 (6220800)
I0407 23:51:04.541738 25790 net.cpp:165] Memory required for data: 4046225408
I0407 23:51:04.541743 25790 layer_factory.hpp:77] Creating layer conv7_1_sTanH
I0407 23:51:04.541749 25790 net.cpp:100] Creating Layer conv7_1_sTanH
I0407 23:51:04.541751 25790 net.cpp:434] conv7_1_sTanH <- conv7_1
I0407 23:51:04.541759 25790 net.cpp:395] conv7_1_sTanH -> conv7_1 (in-place)
I0407 23:51:04.541962 25790 net.cpp:150] Setting up conv7_1_sTanH
I0407 23:51:04.541975 25790 net.cpp:157] Top shape: 128 150 18 18 (6220800)
I0407 23:51:04.541977 25790 net.cpp:165] Memory required for data: 4071108608
I0407 23:51:04.541981 25790 layer_factory.hpp:77] Creating layer conv7_1_postscale
I0407 23:51:04.541990 25790 net.cpp:100] Creating Layer conv7_1_postscale
I0407 23:51:04.541996 25790 net.cpp:434] conv7_1_postscale <- conv7_1
I0407 23:51:04.542003 25790 net.cpp:395] conv7_1_postscale -> conv7_1 (in-place)
I0407 23:51:04.542124 25790 net.cpp:150] Setting up conv7_1_postscale
I0407 23:51:04.542131 25790 net.cpp:157] Top shape: 128 150 18 18 (6220800)
I0407 23:51:04.542135 25790 net.cpp:165] Memory required for data: 4095991808
I0407 23:51:04.542138 25790 layer_factory.hpp:77] Creating layer pool7_1
I0407 23:51:04.542146 25790 net.cpp:100] Creating Layer pool7_1
I0407 23:51:04.542150 25790 net.cpp:434] pool7_1 <- conv7_1
I0407 23:51:04.542155 25790 net.cpp:408] pool7_1 -> pool7_1
I0407 23:51:04.542206 25790 net.cpp:150] Setting up pool7_1
I0407 23:51:04.542213 25790 net.cpp:157] Top shape: 128 150 9 9 (1555200)
I0407 23:51:04.542217 25790 net.cpp:165] Memory required for data: 4102212608
I0407 23:51:04.542218 25790 layer_factory.hpp:77] Creating layer conv7_2
I0407 23:51:04.542227 25790 net.cpp:100] Creating Layer conv7_2
I0407 23:51:04.542233 25790 net.cpp:434] conv7_2 <- pool7_1
I0407 23:51:04.542239 25790 net.cpp:408] conv7_2 -> conv7_2
I0407 23:51:04.556546 25790 net.cpp:150] Setting up conv7_2
I0407 23:51:04.556569 25790 net.cpp:157] Top shape: 128 250 6 6 (1152000)
I0407 23:51:04.556573 25790 net.cpp:165] Memory required for data: 4106820608
I0407 23:51:04.556581 25790 layer_factory.hpp:77] Creating layer conv7_2_prescale
I0407 23:51:04.556588 25790 net.cpp:100] Creating Layer conv7_2_prescale
I0407 23:51:04.556593 25790 net.cpp:434] conv7_2_prescale <- conv7_2
I0407 23:51:04.556601 25790 net.cpp:395] conv7_2_prescale -> conv7_2 (in-place)
I0407 23:51:04.556717 25790 net.cpp:150] Setting up conv7_2_prescale
I0407 23:51:04.556727 25790 net.cpp:157] Top shape: 128 250 6 6 (1152000)
I0407 23:51:04.556730 25790 net.cpp:165] Memory required for data: 4111428608
I0407 23:51:04.556735 25790 layer_factory.hpp:77] Creating layer conv7_2_sTanH
I0407 23:51:04.556740 25790 net.cpp:100] Creating Layer conv7_2_sTanH
I0407 23:51:04.556743 25790 net.cpp:434] conv7_2_sTanH <- conv7_2
I0407 23:51:04.556749 25790 net.cpp:395] conv7_2_sTanH -> conv7_2 (in-place)
I0407 23:51:04.556946 25790 net.cpp:150] Setting up conv7_2_sTanH
I0407 23:51:04.556957 25790 net.cpp:157] Top shape: 128 250 6 6 (1152000)
I0407 23:51:04.556960 25790 net.cpp:165] Memory required for data: 4116036608
I0407 23:51:04.556965 25790 layer_factory.hpp:77] Creating layer conv7_2_postscale
I0407 23:51:04.556973 25790 net.cpp:100] Creating Layer conv7_2_postscale
I0407 23:51:04.556977 25790 net.cpp:434] conv7_2_postscale <- conv7_2
I0407 23:51:04.556982 25790 net.cpp:395] conv7_2_postscale -> conv7_2 (in-place)
I0407 23:51:04.557091 25790 net.cpp:150] Setting up conv7_2_postscale
I0407 23:51:04.557101 25790 net.cpp:157] Top shape: 128 250 6 6 (1152000)
I0407 23:51:04.557103 25790 net.cpp:165] Memory required for data: 4120644608
I0407 23:51:04.557107 25790 layer_factory.hpp:77] Creating layer pool7_2
I0407 23:51:04.557116 25790 net.cpp:100] Creating Layer pool7_2
I0407 23:51:04.557118 25790 net.cpp:434] pool7_2 <- conv7_2
I0407 23:51:04.557123 25790 net.cpp:408] pool7_2 -> pool7_2
I0407 23:51:04.557163 25790 net.cpp:150] Setting up pool7_2
I0407 23:51:04.557185 25790 net.cpp:157] Top shape: 128 250 3 3 (288000)
I0407 23:51:04.557188 25790 net.cpp:165] Memory required for data: 4121796608
I0407 23:51:04.557191 25790 layer_factory.hpp:77] Creating layer fc7_4_300
I0407 23:51:04.557199 25790 net.cpp:100] Creating Layer fc7_4_300
I0407 23:51:04.557201 25790 net.cpp:434] fc7_4_300 <- pool7_2
I0407 23:51:04.557206 25790 net.cpp:408] fc7_4_300 -> fc7_4
I0407 23:51:04.566973 25790 net.cpp:150] Setting up fc7_4_300
I0407 23:51:04.566992 25790 net.cpp:157] Top shape: 128 300 (38400)
I0407 23:51:04.566994 25790 net.cpp:165] Memory required for data: 4121950208
I0407 23:51:04.567003 25790 layer_factory.hpp:77] Creating layer fc7_4_prescale
I0407 23:51:04.567013 25790 net.cpp:100] Creating Layer fc7_4_prescale
I0407 23:51:04.567016 25790 net.cpp:434] fc7_4_prescale <- fc7_4
I0407 23:51:04.567023 25790 net.cpp:395] fc7_4_prescale -> fc7_4 (in-place)
I0407 23:51:04.567145 25790 net.cpp:150] Setting up fc7_4_prescale
I0407 23:51:04.567155 25790 net.cpp:157] Top shape: 128 300 (38400)
I0407 23:51:04.567158 25790 net.cpp:165] Memory required for data: 4122103808
I0407 23:51:04.567162 25790 layer_factory.hpp:77] Creating layer fc7_4_sTanH
I0407 23:51:04.567168 25790 net.cpp:100] Creating Layer fc7_4_sTanH
I0407 23:51:04.567172 25790 net.cpp:434] fc7_4_sTanH <- fc7_4
I0407 23:51:04.567176 25790 net.cpp:395] fc7_4_sTanH -> fc7_4 (in-place)
I0407 23:51:04.567386 25790 net.cpp:150] Setting up fc7_4_sTanH
I0407 23:51:04.567401 25790 net.cpp:157] Top shape: 128 300 (38400)
I0407 23:51:04.567406 25790 net.cpp:165] Memory required for data: 4122257408
I0407 23:51:04.567410 25790 layer_factory.hpp:77] Creating layer fc7_4_postscale
I0407 23:51:04.567416 25790 net.cpp:100] Creating Layer fc7_4_postscale
I0407 23:51:04.567420 25790 net.cpp:434] fc7_4_postscale <- fc7_4
I0407 23:51:04.567425 25790 net.cpp:395] fc7_4_postscale -> fc7_4 (in-place)
I0407 23:51:04.567543 25790 net.cpp:150] Setting up fc7_4_postscale
I0407 23:51:04.567553 25790 net.cpp:157] Top shape: 128 300 (38400)
I0407 23:51:04.567554 25790 net.cpp:165] Memory required for data: 4122411008
I0407 23:51:04.567559 25790 layer_factory.hpp:77] Creating layer drop7_4
I0407 23:51:04.567566 25790 net.cpp:100] Creating Layer drop7_4
I0407 23:51:04.567569 25790 net.cpp:434] drop7_4 <- fc7_4
I0407 23:51:04.567574 25790 net.cpp:395] drop7_4 -> fc7_4 (in-place)
I0407 23:51:04.567596 25790 net.cpp:150] Setting up drop7_4
I0407 23:51:04.567603 25790 net.cpp:157] Top shape: 128 300 (38400)
I0407 23:51:04.567605 25790 net.cpp:165] Memory required for data: 4122564608
I0407 23:51:04.567608 25790 layer_factory.hpp:77] Creating layer fc7_5_67
I0407 23:51:04.567616 25790 net.cpp:100] Creating Layer fc7_5_67
I0407 23:51:04.567620 25790 net.cpp:434] fc7_5_67 <- fc7_4
I0407 23:51:04.567625 25790 net.cpp:408] fc7_5_67 -> fc7_5
I0407 23:51:04.567894 25790 net.cpp:150] Setting up fc7_5_67
I0407 23:51:04.567905 25790 net.cpp:157] Top shape: 128 67 (8576)
I0407 23:51:04.567908 25790 net.cpp:165] Memory required for data: 4122598912
I0407 23:51:04.567914 25790 layer_factory.hpp:77] Creating layer softmax_7
I0407 23:51:04.567919 25790 net.cpp:100] Creating Layer softmax_7
I0407 23:51:04.567924 25790 net.cpp:434] softmax_7 <- fc7_5
I0407 23:51:04.567929 25790 net.cpp:408] softmax_7 -> softmax_7
I0407 23:51:04.568845 25790 net.cpp:150] Setting up softmax_7
I0407 23:51:04.568861 25790 net.cpp:157] Top shape: 128 67 (8576)
I0407 23:51:04.568866 25790 net.cpp:165] Memory required for data: 4122633216
I0407 23:51:04.568868 25790 layer_factory.hpp:77] Creating layer conv8_0
I0407 23:51:04.568881 25790 net.cpp:100] Creating Layer conv8_0
I0407 23:51:04.568886 25790 net.cpp:434] conv8_0 <- data_1_data_1_0_split_3
I0407 23:51:04.568894 25790 net.cpp:408] conv8_0 -> conv8_0
I0407 23:51:04.570528 25790 net.cpp:150] Setting up conv8_0
I0407 23:51:04.570549 25790 net.cpp:157] Top shape: 128 100 42 42 (22579200)
I0407 23:51:04.570554 25790 net.cpp:165] Memory required for data: 4212950016
I0407 23:51:04.570560 25790 layer_factory.hpp:77] Creating layer conv8_0_prescale
I0407 23:51:04.570582 25790 net.cpp:100] Creating Layer conv8_0_prescale
I0407 23:51:04.570588 25790 net.cpp:434] conv8_0_prescale <- conv8_0
I0407 23:51:04.570596 25790 net.cpp:395] conv8_0_prescale -> conv8_0 (in-place)
I0407 23:51:04.570724 25790 net.cpp:150] Setting up conv8_0_prescale
I0407 23:51:04.570732 25790 net.cpp:157] Top shape: 128 100 42 42 (22579200)
I0407 23:51:04.570735 25790 net.cpp:165] Memory required for data: 4303266816
I0407 23:51:04.570740 25790 layer_factory.hpp:77] Creating layer conv8_0_sTanH
I0407 23:51:04.570747 25790 net.cpp:100] Creating Layer conv8_0_sTanH
I0407 23:51:04.570751 25790 net.cpp:434] conv8_0_sTanH <- conv8_0
I0407 23:51:04.570757 25790 net.cpp:395] conv8_0_sTanH -> conv8_0 (in-place)
I0407 23:51:04.571607 25790 net.cpp:150] Setting up conv8_0_sTanH
I0407 23:51:04.571624 25790 net.cpp:157] Top shape: 128 100 42 42 (22579200)
I0407 23:51:04.571627 25790 net.cpp:165] Memory required for data: 4393583616
I0407 23:51:04.571645 25790 layer_factory.hpp:77] Creating layer conv8_0_postscale
I0407 23:51:04.571653 25790 net.cpp:100] Creating Layer conv8_0_postscale
I0407 23:51:04.571660 25790 net.cpp:434] conv8_0_postscale <- conv8_0
I0407 23:51:04.571666 25790 net.cpp:395] conv8_0_postscale -> conv8_0 (in-place)
I0407 23:51:04.571799 25790 net.cpp:150] Setting up conv8_0_postscale
I0407 23:51:04.571807 25790 net.cpp:157] Top shape: 128 100 42 42 (22579200)
I0407 23:51:04.571810 25790 net.cpp:165] Memory required for data: 4483900416
I0407 23:51:04.571815 25790 layer_factory.hpp:77] Creating layer pool8_0
I0407 23:51:04.571822 25790 net.cpp:100] Creating Layer pool8_0
I0407 23:51:04.571827 25790 net.cpp:434] pool8_0 <- conv8_0
I0407 23:51:04.571833 25790 net.cpp:408] pool8_0 -> pool8_0
I0407 23:51:04.571890 25790 net.cpp:150] Setting up pool8_0
I0407 23:51:04.571899 25790 net.cpp:157] Top shape: 128 100 21 21 (5644800)
I0407 23:51:04.571902 25790 net.cpp:165] Memory required for data: 4506479616
I0407 23:51:04.571905 25790 layer_factory.hpp:77] Creating layer conv8_1
I0407 23:51:04.571915 25790 net.cpp:100] Creating Layer conv8_1
I0407 23:51:04.571920 25790 net.cpp:434] conv8_1 <- pool8_0
I0407 23:51:04.571925 25790 net.cpp:408] conv8_1 -> conv8_1
I0407 23:51:04.575985 25790 net.cpp:150] Setting up conv8_1
I0407 23:51:04.576004 25790 net.cpp:157] Top shape: 128 150 18 18 (6220800)
I0407 23:51:04.576009 25790 net.cpp:165] Memory required for data: 4531362816
I0407 23:51:04.576017 25790 layer_factory.hpp:77] Creating layer conv8_1_prescale
I0407 23:51:04.576026 25790 net.cpp:100] Creating Layer conv8_1_prescale
I0407 23:51:04.576032 25790 net.cpp:434] conv8_1_prescale <- conv8_1
I0407 23:51:04.576040 25790 net.cpp:395] conv8_1_prescale -> conv8_1 (in-place)
I0407 23:51:04.576164 25790 net.cpp:150] Setting up conv8_1_prescale
I0407 23:51:04.576174 25790 net.cpp:157] Top shape: 128 150 18 18 (6220800)
I0407 23:51:04.576176 25790 net.cpp:165] Memory required for data: 4556246016
I0407 23:51:04.576181 25790 layer_factory.hpp:77] Creating layer conv8_1_sTanH
I0407 23:51:04.576186 25790 net.cpp:100] Creating Layer conv8_1_sTanH
I0407 23:51:04.576191 25790 net.cpp:434] conv8_1_sTanH <- conv8_1
I0407 23:51:04.576197 25790 net.cpp:395] conv8_1_sTanH -> conv8_1 (in-place)
I0407 23:51:04.576396 25790 net.cpp:150] Setting up conv8_1_sTanH
I0407 23:51:04.576408 25790 net.cpp:157] Top shape: 128 150 18 18 (6220800)
I0407 23:51:04.576411 25790 net.cpp:165] Memory required for data: 4581129216
I0407 23:51:04.576414 25790 layer_factory.hpp:77] Creating layer conv8_1_postscale
I0407 23:51:04.576427 25790 net.cpp:100] Creating Layer conv8_1_postscale
I0407 23:51:04.576432 25790 net.cpp:434] conv8_1_postscale <- conv8_1
I0407 23:51:04.576437 25790 net.cpp:395] conv8_1_postscale -> conv8_1 (in-place)
I0407 23:51:04.576561 25790 net.cpp:150] Setting up conv8_1_postscale
I0407 23:51:04.576570 25790 net.cpp:157] Top shape: 128 150 18 18 (6220800)
I0407 23:51:04.576572 25790 net.cpp:165] Memory required for data: 4606012416
I0407 23:51:04.576577 25790 layer_factory.hpp:77] Creating layer pool8_1
I0407 23:51:04.576601 25790 net.cpp:100] Creating Layer pool8_1
I0407 23:51:04.576606 25790 net.cpp:434] pool8_1 <- conv8_1
I0407 23:51:04.576611 25790 net.cpp:408] pool8_1 -> pool8_1
I0407 23:51:04.576666 25790 net.cpp:150] Setting up pool8_1
I0407 23:51:04.576674 25790 net.cpp:157] Top shape: 128 150 9 9 (1555200)
I0407 23:51:04.576678 25790 net.cpp:165] Memory required for data: 4612233216
I0407 23:51:04.576680 25790 layer_factory.hpp:77] Creating layer conv8_2
I0407 23:51:04.576689 25790 net.cpp:100] Creating Layer conv8_2
I0407 23:51:04.576694 25790 net.cpp:434] conv8_2 <- pool8_1
I0407 23:51:04.576700 25790 net.cpp:408] conv8_2 -> conv8_2
I0407 23:51:04.582948 25790 net.cpp:150] Setting up conv8_2
I0407 23:51:04.582967 25790 net.cpp:157] Top shape: 128 250 6 6 (1152000)
I0407 23:51:04.582972 25790 net.cpp:165] Memory required for data: 4616841216
I0407 23:51:04.582979 25790 layer_factory.hpp:77] Creating layer conv8_2_prescale
I0407 23:51:04.582989 25790 net.cpp:100] Creating Layer conv8_2_prescale
I0407 23:51:04.582995 25790 net.cpp:434] conv8_2_prescale <- conv8_2
I0407 23:51:04.583001 25790 net.cpp:395] conv8_2_prescale -> conv8_2 (in-place)
I0407 23:51:04.583120 25790 net.cpp:150] Setting up conv8_2_prescale
I0407 23:51:04.583129 25790 net.cpp:157] Top shape: 128 250 6 6 (1152000)
I0407 23:51:04.583132 25790 net.cpp:165] Memory required for data: 4621449216
I0407 23:51:04.583137 25790 layer_factory.hpp:77] Creating layer conv8_2_sTanH
I0407 23:51:04.583143 25790 net.cpp:100] Creating Layer conv8_2_sTanH
I0407 23:51:04.583148 25790 net.cpp:434] conv8_2_sTanH <- conv8_2
I0407 23:51:04.583153 25790 net.cpp:395] conv8_2_sTanH -> conv8_2 (in-place)
I0407 23:51:04.583351 25790 net.cpp:150] Setting up conv8_2_sTanH
I0407 23:51:04.583364 25790 net.cpp:157] Top shape: 128 250 6 6 (1152000)
I0407 23:51:04.583369 25790 net.cpp:165] Memory required for data: 4626057216
I0407 23:51:04.583371 25790 layer_factory.hpp:77] Creating layer conv8_2_postscale
I0407 23:51:04.583379 25790 net.cpp:100] Creating Layer conv8_2_postscale
I0407 23:51:04.583384 25790 net.cpp:434] conv8_2_postscale <- conv8_2
I0407 23:51:04.583390 25790 net.cpp:395] conv8_2_postscale -> conv8_2 (in-place)
I0407 23:51:04.583500 25790 net.cpp:150] Setting up conv8_2_postscale
I0407 23:51:04.583510 25790 net.cpp:157] Top shape: 128 250 6 6 (1152000)
I0407 23:51:04.583514 25790 net.cpp:165] Memory required for data: 4630665216
I0407 23:51:04.583519 25790 layer_factory.hpp:77] Creating layer pool8_2
I0407 23:51:04.583524 25790 net.cpp:100] Creating Layer pool8_2
I0407 23:51:04.583529 25790 net.cpp:434] pool8_2 <- conv8_2
I0407 23:51:04.583534 25790 net.cpp:408] pool8_2 -> pool8_2
I0407 23:51:04.583577 25790 net.cpp:150] Setting up pool8_2
I0407 23:51:04.583585 25790 net.cpp:157] Top shape: 128 250 3 3 (288000)
I0407 23:51:04.583588 25790 net.cpp:165] Memory required for data: 4631817216
I0407 23:51:04.583591 25790 layer_factory.hpp:77] Creating layer fc8_4_300
I0407 23:51:04.583597 25790 net.cpp:100] Creating Layer fc8_4_300
I0407 23:51:04.583600 25790 net.cpp:434] fc8_4_300 <- pool8_2
I0407 23:51:04.583606 25790 net.cpp:408] fc8_4_300 -> fc8_4
I0407 23:51:04.589023 25790 net.cpp:150] Setting up fc8_4_300
I0407 23:51:04.589040 25790 net.cpp:157] Top shape: 128 300 (38400)
I0407 23:51:04.589046 25790 net.cpp:165] Memory required for data: 4631970816
I0407 23:51:04.589054 25790 layer_factory.hpp:77] Creating layer fc8_4_prescale
I0407 23:51:04.589063 25790 net.cpp:100] Creating Layer fc8_4_prescale
I0407 23:51:04.589068 25790 net.cpp:434] fc8_4_prescale <- fc8_4
I0407 23:51:04.589076 25790 net.cpp:395] fc8_4_prescale -> fc8_4 (in-place)
I0407 23:51:04.589198 25790 net.cpp:150] Setting up fc8_4_prescale
I0407 23:51:04.589207 25790 net.cpp:157] Top shape: 128 300 (38400)
I0407 23:51:04.589210 25790 net.cpp:165] Memory required for data: 4632124416
I0407 23:51:04.589215 25790 layer_factory.hpp:77] Creating layer fc8_4_sTanH
I0407 23:51:04.589220 25790 net.cpp:100] Creating Layer fc8_4_sTanH
I0407 23:51:04.589222 25790 net.cpp:434] fc8_4_sTanH <- fc8_4
I0407 23:51:04.589227 25790 net.cpp:395] fc8_4_sTanH -> fc8_4 (in-place)
I0407 23:51:04.589450 25790 net.cpp:150] Setting up fc8_4_sTanH
I0407 23:51:04.589462 25790 net.cpp:157] Top shape: 128 300 (38400)
I0407 23:51:04.589465 25790 net.cpp:165] Memory required for data: 4632278016
I0407 23:51:04.589468 25790 layer_factory.hpp:77] Creating layer fc8_4_postscale
I0407 23:51:04.589475 25790 net.cpp:100] Creating Layer fc8_4_postscale
I0407 23:51:04.589480 25790 net.cpp:434] fc8_4_postscale <- fc8_4
I0407 23:51:04.589491 25790 net.cpp:395] fc8_4_postscale -> fc8_4 (in-place)
I0407 23:51:04.589610 25790 net.cpp:150] Setting up fc8_4_postscale
I0407 23:51:04.589618 25790 net.cpp:157] Top shape: 128 300 (38400)
I0407 23:51:04.589622 25790 net.cpp:165] Memory required for data: 4632431616
I0407 23:51:04.589627 25790 layer_factory.hpp:77] Creating layer drop8_4
I0407 23:51:04.589632 25790 net.cpp:100] Creating Layer drop8_4
I0407 23:51:04.589637 25790 net.cpp:434] drop8_4 <- fc8_4
I0407 23:51:04.589642 25790 net.cpp:395] drop8_4 -> fc8_4 (in-place)
I0407 23:51:04.589665 25790 net.cpp:150] Setting up drop8_4
I0407 23:51:04.589673 25790 net.cpp:157] Top shape: 128 300 (38400)
I0407 23:51:04.589674 25790 net.cpp:165] Memory required for data: 4632585216
I0407 23:51:04.589678 25790 layer_factory.hpp:77] Creating layer fc8_5_67
I0407 23:51:04.589682 25790 net.cpp:100] Creating Layer fc8_5_67
I0407 23:51:04.589687 25790 net.cpp:434] fc8_5_67 <- fc8_4
I0407 23:51:04.589694 25790 net.cpp:408] fc8_5_67 -> fc8_5
I0407 23:51:04.589954 25790 net.cpp:150] Setting up fc8_5_67
I0407 23:51:04.589963 25790 net.cpp:157] Top shape: 128 67 (8576)
I0407 23:51:04.589967 25790 net.cpp:165] Memory required for data: 4632619520
I0407 23:51:04.589972 25790 layer_factory.hpp:77] Creating layer softmax_8
I0407 23:51:04.589977 25790 net.cpp:100] Creating Layer softmax_8
I0407 23:51:04.589982 25790 net.cpp:434] softmax_8 <- fc8_5
I0407 23:51:04.589988 25790 net.cpp:408] softmax_8 -> softmax_8
I0407 23:51:04.590917 25790 net.cpp:150] Setting up softmax_8
I0407 23:51:04.590934 25790 net.cpp:157] Top shape: 128 67 (8576)
I0407 23:51:04.590939 25790 net.cpp:165] Memory required for data: 4632653824
I0407 23:51:04.590942 25790 layer_factory.hpp:77] Creating layer conv9_0
I0407 23:51:04.590955 25790 net.cpp:100] Creating Layer conv9_0
I0407 23:51:04.590960 25790 net.cpp:434] conv9_0 <- data_1_data_1_0_split_4
I0407 23:51:04.590967 25790 net.cpp:408] conv9_0 -> conv9_0
I0407 23:51:04.591996 25790 net.cpp:150] Setting up conv9_0
I0407 23:51:04.592012 25790 net.cpp:157] Top shape: 128 100 42 42 (22579200)
I0407 23:51:04.592015 25790 net.cpp:165] Memory required for data: 4722970624
I0407 23:51:04.592023 25790 layer_factory.hpp:77] Creating layer conv9_0_prescale
I0407 23:51:04.592031 25790 net.cpp:100] Creating Layer conv9_0_prescale
I0407 23:51:04.592036 25790 net.cpp:434] conv9_0_prescale <- conv9_0
I0407 23:51:04.592044 25790 net.cpp:395] conv9_0_prescale -> conv9_0 (in-place)
I0407 23:51:04.592177 25790 net.cpp:150] Setting up conv9_0_prescale
I0407 23:51:04.592186 25790 net.cpp:157] Top shape: 128 100 42 42 (22579200)
I0407 23:51:04.592188 25790 net.cpp:165] Memory required for data: 4813287424
I0407 23:51:04.592193 25790 layer_factory.hpp:77] Creating layer conv9_0_sTanH
I0407 23:51:04.592200 25790 net.cpp:100] Creating Layer conv9_0_sTanH
I0407 23:51:04.592203 25790 net.cpp:434] conv9_0_sTanH <- conv9_0
I0407 23:51:04.592209 25790 net.cpp:395] conv9_0_sTanH -> conv9_0 (in-place)
I0407 23:51:04.593070 25790 net.cpp:150] Setting up conv9_0_sTanH
I0407 23:51:04.593088 25790 net.cpp:157] Top shape: 128 100 42 42 (22579200)
I0407 23:51:04.593092 25790 net.cpp:165] Memory required for data: 4903604224
I0407 23:51:04.593096 25790 layer_factory.hpp:77] Creating layer conv9_0_postscale
I0407 23:51:04.593104 25790 net.cpp:100] Creating Layer conv9_0_postscale
I0407 23:51:04.593109 25790 net.cpp:434] conv9_0_postscale <- conv9_0
I0407 23:51:04.593116 25790 net.cpp:395] conv9_0_postscale -> conv9_0 (in-place)
I0407 23:51:04.593251 25790 net.cpp:150] Setting up conv9_0_postscale
I0407 23:51:04.593273 25790 net.cpp:157] Top shape: 128 100 42 42 (22579200)
I0407 23:51:04.593276 25790 net.cpp:165] Memory required for data: 4993921024
I0407 23:51:04.593282 25790 layer_factory.hpp:77] Creating layer pool9_0
I0407 23:51:04.593289 25790 net.cpp:100] Creating Layer pool9_0
I0407 23:51:04.593294 25790 net.cpp:434] pool9_0 <- conv9_0
I0407 23:51:04.593302 25790 net.cpp:408] pool9_0 -> pool9_0
I0407 23:51:04.593356 25790 net.cpp:150] Setting up pool9_0
I0407 23:51:04.593364 25790 net.cpp:157] Top shape: 128 100 21 21 (5644800)
I0407 23:51:04.593366 25790 net.cpp:165] Memory required for data: 5016500224
I0407 23:51:04.593369 25790 layer_factory.hpp:77] Creating layer conv9_1
I0407 23:51:04.593379 25790 net.cpp:100] Creating Layer conv9_1
I0407 23:51:04.593384 25790 net.cpp:434] conv9_1 <- pool9_0
I0407 23:51:04.593390 25790 net.cpp:408] conv9_1 -> conv9_1
I0407 23:51:04.596424 25790 net.cpp:150] Setting up conv9_1
I0407 23:51:04.596443 25790 net.cpp:157] Top shape: 128 150 18 18 (6220800)
I0407 23:51:04.596448 25790 net.cpp:165] Memory required for data: 5041383424
I0407 23:51:04.596456 25790 layer_factory.hpp:77] Creating layer conv9_1_prescale
I0407 23:51:04.596464 25790 net.cpp:100] Creating Layer conv9_1_prescale
I0407 23:51:04.596470 25790 net.cpp:434] conv9_1_prescale <- conv9_1
I0407 23:51:04.596477 25790 net.cpp:395] conv9_1_prescale -> conv9_1 (in-place)
I0407 23:51:04.596606 25790 net.cpp:150] Setting up conv9_1_prescale
I0407 23:51:04.596616 25790 net.cpp:157] Top shape: 128 150 18 18 (6220800)
I0407 23:51:04.596619 25790 net.cpp:165] Memory required for data: 5066266624
I0407 23:51:04.596623 25790 layer_factory.hpp:77] Creating layer conv9_1_sTanH
I0407 23:51:04.596629 25790 net.cpp:100] Creating Layer conv9_1_sTanH
I0407 23:51:04.596633 25790 net.cpp:434] conv9_1_sTanH <- conv9_1
I0407 23:51:04.596639 25790 net.cpp:395] conv9_1_sTanH -> conv9_1 (in-place)
I0407 23:51:04.596840 25790 net.cpp:150] Setting up conv9_1_sTanH
I0407 23:51:04.596853 25790 net.cpp:157] Top shape: 128 150 18 18 (6220800)
I0407 23:51:04.596858 25790 net.cpp:165] Memory required for data: 5091149824
I0407 23:51:04.596861 25790 layer_factory.hpp:77] Creating layer conv9_1_postscale
I0407 23:51:04.596869 25790 net.cpp:100] Creating Layer conv9_1_postscale
I0407 23:51:04.596874 25790 net.cpp:434] conv9_1_postscale <- conv9_1
I0407 23:51:04.596879 25790 net.cpp:395] conv9_1_postscale -> conv9_1 (in-place)
I0407 23:51:04.597010 25790 net.cpp:150] Setting up conv9_1_postscale
I0407 23:51:04.597019 25790 net.cpp:157] Top shape: 128 150 18 18 (6220800)
I0407 23:51:04.597023 25790 net.cpp:165] Memory required for data: 5116033024
I0407 23:51:04.597026 25790 layer_factory.hpp:77] Creating layer pool9_1
I0407 23:51:04.597034 25790 net.cpp:100] Creating Layer pool9_1
I0407 23:51:04.597039 25790 net.cpp:434] pool9_1 <- conv9_1
I0407 23:51:04.597044 25790 net.cpp:408] pool9_1 -> pool9_1
I0407 23:51:04.597096 25790 net.cpp:150] Setting up pool9_1
I0407 23:51:04.597105 25790 net.cpp:157] Top shape: 128 150 9 9 (1555200)
I0407 23:51:04.597107 25790 net.cpp:165] Memory required for data: 5122253824
I0407 23:51:04.597110 25790 layer_factory.hpp:77] Creating layer conv9_2
I0407 23:51:04.597120 25790 net.cpp:100] Creating Layer conv9_2
I0407 23:51:04.597124 25790 net.cpp:434] conv9_2 <- pool9_1
I0407 23:51:04.597131 25790 net.cpp:408] conv9_2 -> conv9_2
I0407 23:51:04.603368 25790 net.cpp:150] Setting up conv9_2
I0407 23:51:04.603384 25790 net.cpp:157] Top shape: 128 250 6 6 (1152000)
I0407 23:51:04.603389 25790 net.cpp:165] Memory required for data: 5126861824
I0407 23:51:04.603408 25790 layer_factory.hpp:77] Creating layer conv9_2_prescale
I0407 23:51:04.603430 25790 net.cpp:100] Creating Layer conv9_2_prescale
I0407 23:51:04.603448 25790 net.cpp:434] conv9_2_prescale <- conv9_2
I0407 23:51:04.603454 25790 net.cpp:395] conv9_2_prescale -> conv9_2 (in-place)
I0407 23:51:04.603574 25790 net.cpp:150] Setting up conv9_2_prescale
I0407 23:51:04.603585 25790 net.cpp:157] Top shape: 128 250 6 6 (1152000)
I0407 23:51:04.603590 25790 net.cpp:165] Memory required for data: 5131469824
I0407 23:51:04.603607 25790 layer_factory.hpp:77] Creating layer conv9_2_sTanH
I0407 23:51:04.603615 25790 net.cpp:100] Creating Layer conv9_2_sTanH
I0407 23:51:04.603619 25790 net.cpp:434] conv9_2_sTanH <- conv9_2
I0407 23:51:04.603623 25790 net.cpp:395] conv9_2_sTanH -> conv9_2 (in-place)
I0407 23:51:04.603828 25790 net.cpp:150] Setting up conv9_2_sTanH
I0407 23:51:04.603842 25790 net.cpp:157] Top shape: 128 250 6 6 (1152000)
I0407 23:51:04.603847 25790 net.cpp:165] Memory required for data: 5136077824
I0407 23:51:04.603849 25790 layer_factory.hpp:77] Creating layer conv9_2_postscale
I0407 23:51:04.603857 25790 net.cpp:100] Creating Layer conv9_2_postscale
I0407 23:51:04.603862 25790 net.cpp:434] conv9_2_postscale <- conv9_2
I0407 23:51:04.603868 25790 net.cpp:395] conv9_2_postscale -> conv9_2 (in-place)
I0407 23:51:04.603996 25790 net.cpp:150] Setting up conv9_2_postscale
I0407 23:51:04.604007 25790 net.cpp:157] Top shape: 128 250 6 6 (1152000)
I0407 23:51:04.604010 25790 net.cpp:165] Memory required for data: 5140685824
I0407 23:51:04.604015 25790 layer_factory.hpp:77] Creating layer pool9_2
I0407 23:51:04.604022 25790 net.cpp:100] Creating Layer pool9_2
I0407 23:51:04.604027 25790 net.cpp:434] pool9_2 <- conv9_2
I0407 23:51:04.604032 25790 net.cpp:408] pool9_2 -> pool9_2
I0407 23:51:04.604077 25790 net.cpp:150] Setting up pool9_2
I0407 23:51:04.604085 25790 net.cpp:157] Top shape: 128 250 3 3 (288000)
I0407 23:51:04.604089 25790 net.cpp:165] Memory required for data: 5141837824
I0407 23:51:04.604091 25790 layer_factory.hpp:77] Creating layer fc9_4_300
I0407 23:51:04.604096 25790 net.cpp:100] Creating Layer fc9_4_300
I0407 23:51:04.604100 25790 net.cpp:434] fc9_4_300 <- pool9_2
I0407 23:51:04.604106 25790 net.cpp:408] fc9_4_300 -> fc9_4
I0407 23:51:04.609484 25790 net.cpp:150] Setting up fc9_4_300
I0407 23:51:04.609499 25790 net.cpp:157] Top shape: 128 300 (38400)
I0407 23:51:04.609503 25790 net.cpp:165] Memory required for data: 5141991424
I0407 23:51:04.609520 25790 layer_factory.hpp:77] Creating layer fc9_4_prescale
I0407 23:51:04.609529 25790 net.cpp:100] Creating Layer fc9_4_prescale
I0407 23:51:04.609545 25790 net.cpp:434] fc9_4_prescale <- fc9_4
I0407 23:51:04.609566 25790 net.cpp:395] fc9_4_prescale -> fc9_4 (in-place)
I0407 23:51:04.609680 25790 net.cpp:150] Setting up fc9_4_prescale
I0407 23:51:04.609689 25790 net.cpp:157] Top shape: 128 300 (38400)
I0407 23:51:04.609691 25790 net.cpp:165] Memory required for data: 5142145024
I0407 23:51:04.609695 25790 layer_factory.hpp:77] Creating layer fc9_4_sTanH
I0407 23:51:04.609700 25790 net.cpp:100] Creating Layer fc9_4_sTanH
I0407 23:51:04.609704 25790 net.cpp:434] fc9_4_sTanH <- fc9_4
I0407 23:51:04.609709 25790 net.cpp:395] fc9_4_sTanH -> fc9_4 (in-place)
I0407 23:51:04.609941 25790 net.cpp:150] Setting up fc9_4_sTanH
I0407 23:51:04.609951 25790 net.cpp:157] Top shape: 128 300 (38400)
I0407 23:51:04.609954 25790 net.cpp:165] Memory required for data: 5142298624
I0407 23:51:04.609957 25790 layer_factory.hpp:77] Creating layer fc9_4_postscale
I0407 23:51:04.609964 25790 net.cpp:100] Creating Layer fc9_4_postscale
I0407 23:51:04.609967 25790 net.cpp:434] fc9_4_postscale <- fc9_4
I0407 23:51:04.609974 25790 net.cpp:395] fc9_4_postscale -> fc9_4 (in-place)
I0407 23:51:04.610096 25790 net.cpp:150] Setting up fc9_4_postscale
I0407 23:51:04.610105 25790 net.cpp:157] Top shape: 128 300 (38400)
I0407 23:51:04.610107 25790 net.cpp:165] Memory required for data: 5142452224
I0407 23:51:04.610112 25790 layer_factory.hpp:77] Creating layer drop9_4
I0407 23:51:04.610118 25790 net.cpp:100] Creating Layer drop9_4
I0407 23:51:04.610121 25790 net.cpp:434] drop9_4 <- fc9_4
I0407 23:51:04.610131 25790 net.cpp:395] drop9_4 -> fc9_4 (in-place)
I0407 23:51:04.610157 25790 net.cpp:150] Setting up drop9_4
I0407 23:51:04.610163 25790 net.cpp:157] Top shape: 128 300 (38400)
I0407 23:51:04.610165 25790 net.cpp:165] Memory required for data: 5142605824
I0407 23:51:04.610168 25790 layer_factory.hpp:77] Creating layer fc9_5_67
I0407 23:51:04.610177 25790 net.cpp:100] Creating Layer fc9_5_67
I0407 23:51:04.610195 25790 net.cpp:434] fc9_5_67 <- fc9_4
I0407 23:51:04.610201 25790 net.cpp:408] fc9_5_67 -> fc9_5
I0407 23:51:04.610493 25790 net.cpp:150] Setting up fc9_5_67
I0407 23:51:04.610502 25790 net.cpp:157] Top shape: 128 67 (8576)
I0407 23:51:04.610505 25790 net.cpp:165] Memory required for data: 5142640128
I0407 23:51:04.610512 25790 layer_factory.hpp:77] Creating layer softmax_9
I0407 23:51:04.610517 25790 net.cpp:100] Creating Layer softmax_9
I0407 23:51:04.610522 25790 net.cpp:434] softmax_9 <- fc9_5
I0407 23:51:04.610527 25790 net.cpp:408] softmax_9 -> softmax_9
I0407 23:51:04.611465 25790 net.cpp:150] Setting up softmax_9
I0407 23:51:04.611481 25790 net.cpp:157] Top shape: 128 67 (8576)
I0407 23:51:04.611485 25790 net.cpp:165] Memory required for data: 5142674432
I0407 23:51:04.611490 25790 layer_factory.hpp:77] Creating layer data_2
I0407 23:51:04.611625 25790 net.cpp:100] Creating Layer data_2
I0407 23:51:04.611639 25790 net.cpp:408] data_2 -> data_2
I0407 23:51:04.611649 25790 net.cpp:408] data_2 -> label_2
I0407 23:51:04.613023 25891 db_lmdb.cpp:35] Opened lmdb ../local_data/lmdb/rtsd-r1/AHE/train/lmdb
I0407 23:51:04.613230 25790 data_layer.cpp:41] output data size: 128,3,48,48
I0407 23:51:04.621134 25790 net.cpp:150] Setting up data_2
I0407 23:51:04.621150 25790 net.cpp:157] Top shape: 128 3 48 48 (884736)
I0407 23:51:04.621168 25790 net.cpp:157] Top shape: 128 (128)
I0407 23:51:04.621173 25790 net.cpp:165] Memory required for data: 5146213888
I0407 23:51:04.621176 25790 layer_factory.hpp:77] Creating layer data_2_data_2_0_split
I0407 23:51:04.621186 25790 net.cpp:100] Creating Layer data_2_data_2_0_split
I0407 23:51:04.621191 25790 net.cpp:434] data_2_data_2_0_split <- data_2
I0407 23:51:04.621201 25790 net.cpp:408] data_2_data_2_0_split -> data_2_data_2_0_split_0
I0407 23:51:04.621210 25790 net.cpp:408] data_2_data_2_0_split -> data_2_data_2_0_split_1
I0407 23:51:04.621219 25790 net.cpp:408] data_2_data_2_0_split -> data_2_data_2_0_split_2
I0407 23:51:04.621227 25790 net.cpp:408] data_2_data_2_0_split -> data_2_data_2_0_split_3
I0407 23:51:04.621232 25790 net.cpp:408] data_2_data_2_0_split -> data_2_data_2_0_split_4
I0407 23:51:04.621445 25790 net.cpp:150] Setting up data_2_data_2_0_split
I0407 23:51:04.621457 25790 net.cpp:157] Top shape: 128 3 48 48 (884736)
I0407 23:51:04.621462 25790 net.cpp:157] Top shape: 128 3 48 48 (884736)
I0407 23:51:04.621466 25790 net.cpp:157] Top shape: 128 3 48 48 (884736)
I0407 23:51:04.621470 25790 net.cpp:157] Top shape: 128 3 48 48 (884736)
I0407 23:51:04.621474 25790 net.cpp:157] Top shape: 128 3 48 48 (884736)
I0407 23:51:04.621476 25790 net.cpp:165] Memory required for data: 5163908608
I0407 23:51:04.621480 25790 layer_factory.hpp:77] Creating layer conv10_0
I0407 23:51:04.621490 25790 net.cpp:100] Creating Layer conv10_0
I0407 23:51:04.621496 25790 net.cpp:434] conv10_0 <- data_2_data_2_0_split_0
I0407 23:51:04.621502 25790 net.cpp:408] conv10_0 -> conv10_0
I0407 23:51:04.622591 25790 net.cpp:150] Setting up conv10_0
I0407 23:51:04.622604 25790 net.cpp:157] Top shape: 128 100 42 42 (22579200)
I0407 23:51:04.622609 25790 net.cpp:165] Memory required for data: 5254225408
I0407 23:51:04.622617 25790 layer_factory.hpp:77] Creating layer conv10_0_prescale
I0407 23:51:04.622627 25790 net.cpp:100] Creating Layer conv10_0_prescale
I0407 23:51:04.622633 25790 net.cpp:434] conv10_0_prescale <- conv10_0
I0407 23:51:04.622653 25790 net.cpp:395] conv10_0_prescale -> conv10_0 (in-place)
I0407 23:51:04.623087 25790 net.cpp:150] Setting up conv10_0_prescale
I0407 23:51:04.623098 25790 net.cpp:157] Top shape: 128 100 42 42 (22579200)
I0407 23:51:04.623101 25790 net.cpp:165] Memory required for data: 5344542208
I0407 23:51:04.623106 25790 layer_factory.hpp:77] Creating layer conv10_0_sTanH
I0407 23:51:04.623114 25790 net.cpp:100] Creating Layer conv10_0_sTanH
I0407 23:51:04.623119 25790 net.cpp:434] conv10_0_sTanH <- conv10_0
I0407 23:51:04.623126 25790 net.cpp:395] conv10_0_sTanH -> conv10_0 (in-place)
I0407 23:51:04.624032 25790 net.cpp:150] Setting up conv10_0_sTanH
I0407 23:51:04.624063 25790 net.cpp:157] Top shape: 128 100 42 42 (22579200)
I0407 23:51:04.624068 25790 net.cpp:165] Memory required for data: 5434859008
I0407 23:51:04.624073 25790 layer_factory.hpp:77] Creating layer conv10_0_postscale
I0407 23:51:04.624080 25790 net.cpp:100] Creating Layer conv10_0_postscale
I0407 23:51:04.624086 25790 net.cpp:434] conv10_0_postscale <- conv10_0
I0407 23:51:04.624094 25790 net.cpp:395] conv10_0_postscale -> conv10_0 (in-place)
I0407 23:51:04.624238 25790 net.cpp:150] Setting up conv10_0_postscale
I0407 23:51:04.624248 25790 net.cpp:157] Top shape: 128 100 42 42 (22579200)
I0407 23:51:04.624251 25790 net.cpp:165] Memory required for data: 5525175808
I0407 23:51:04.624256 25790 layer_factory.hpp:77] Creating layer pool10_0
I0407 23:51:04.624263 25790 net.cpp:100] Creating Layer pool10_0
I0407 23:51:04.624267 25790 net.cpp:434] pool10_0 <- conv10_0
I0407 23:51:04.624274 25790 net.cpp:408] pool10_0 -> pool10_0
I0407 23:51:04.624331 25790 net.cpp:150] Setting up pool10_0
I0407 23:51:04.624341 25790 net.cpp:157] Top shape: 128 100 21 21 (5644800)
I0407 23:51:04.624343 25790 net.cpp:165] Memory required for data: 5547755008
I0407 23:51:04.624346 25790 layer_factory.hpp:77] Creating layer conv10_1
I0407 23:51:04.624356 25790 net.cpp:100] Creating Layer conv10_1
I0407 23:51:04.624361 25790 net.cpp:434] conv10_1 <- pool10_0
I0407 23:51:04.624367 25790 net.cpp:408] conv10_1 -> conv10_1
I0407 23:51:04.628442 25790 net.cpp:150] Setting up conv10_1
I0407 23:51:04.628459 25790 net.cpp:157] Top shape: 128 150 18 18 (6220800)
I0407 23:51:04.628464 25790 net.cpp:165] Memory required for data: 5572638208
I0407 23:51:04.628471 25790 layer_factory.hpp:77] Creating layer conv10_1_prescale
I0407 23:51:04.628480 25790 net.cpp:100] Creating Layer conv10_1_prescale
I0407 23:51:04.628485 25790 net.cpp:434] conv10_1_prescale <- conv10_1
I0407 23:51:04.628504 25790 net.cpp:395] conv10_1_prescale -> conv10_1 (in-place)
I0407 23:51:04.628640 25790 net.cpp:150] Setting up conv10_1_prescale
I0407 23:51:04.628650 25790 net.cpp:157] Top shape: 128 150 18 18 (6220800)
I0407 23:51:04.628654 25790 net.cpp:165] Memory required for data: 5597521408
I0407 23:51:04.628657 25790 layer_factory.hpp:77] Creating layer conv10_1_sTanH
I0407 23:51:04.628664 25790 net.cpp:100] Creating Layer conv10_1_sTanH
I0407 23:51:04.628669 25790 net.cpp:434] conv10_1_sTanH <- conv10_1
I0407 23:51:04.628674 25790 net.cpp:395] conv10_1_sTanH -> conv10_1 (in-place)
I0407 23:51:04.628890 25790 net.cpp:150] Setting up conv10_1_sTanH
I0407 23:51:04.628901 25790 net.cpp:157] Top shape: 128 150 18 18 (6220800)
I0407 23:51:04.628906 25790 net.cpp:165] Memory required for data: 5622404608
I0407 23:51:04.628909 25790 layer_factory.hpp:77] Creating layer conv10_1_postscale
I0407 23:51:04.628917 25790 net.cpp:100] Creating Layer conv10_1_postscale
I0407 23:51:04.628922 25790 net.cpp:434] conv10_1_postscale <- conv10_1
I0407 23:51:04.628927 25790 net.cpp:395] conv10_1_postscale -> conv10_1 (in-place)
I0407 23:51:04.629065 25790 net.cpp:150] Setting up conv10_1_postscale
I0407 23:51:04.629075 25790 net.cpp:157] Top shape: 128 150 18 18 (6220800)
I0407 23:51:04.629076 25790 net.cpp:165] Memory required for data: 5647287808
I0407 23:51:04.629081 25790 layer_factory.hpp:77] Creating layer pool10_1
I0407 23:51:04.629088 25790 net.cpp:100] Creating Layer pool10_1
I0407 23:51:04.629093 25790 net.cpp:434] pool10_1 <- conv10_1
…
I0407 23:51:05.675272 25790 net.cpp:395] conv20_2_prescale -> conv20_2 (in-place)
I0407 23:51:05.675421 25790 net.cpp:150] Setting up conv20_2_prescale
I0407 23:51:05.675432 25790 net.cpp:157] Top shape: 128 250 6 6 (1152000)
I0407 23:51:05.675436 25790 net.cpp:165] Memory required for data: 10805400576
I0407 23:51:05.675439 25790 layer_factory.hpp:77] Creating layer conv20_2_sTanH
I0407 23:51:05.675446 25790 net.cpp:100] Creating Layer conv20_2_sTanH
I0407 23:51:05.675448 25790 net.cpp:434] conv20_2_sTanH <- conv20_2
I0407 23:51:05.675453 25790 net.cpp:395] conv20_2_sTanH -> conv20_2 (in-place)
I0407 23:51:05.675730 25790 net.cpp:150] Setting up conv20_2_sTanH
I0407 23:51:05.675743 25790 net.cpp:157] Top shape: 128 250 6 6 (1152000)
I0407 23:51:05.675746 25790 net.cpp:165] Memory required for data: 10810008576
I0407 23:51:05.675750 25790 layer_factory.hpp:77] Creating layer conv20_2_postscale
I0407 23:51:05.675756 25790 net.cpp:100] Creating Layer conv20_2_postscale
I0407 23:51:05.675760 25790 net.cpp:434] conv20_2_postscale <- conv20_2
I0407 23:51:05.675766 25790 net.cpp:395] conv20_2_postscale -> conv20_2 (in-place)
I0407 23:51:05.675902 25790 net.cpp:150] Setting up conv20_2_postscale
I0407 23:51:05.675914 25790 net.cpp:157] Top shape: 128 250 6 6 (1152000)
I0407 23:51:05.675916 25790 net.cpp:165] Memory required for data: 10814616576
I0407 23:51:05.675921 25790 layer_factory.hpp:77] Creating layer pool20_2
I0407 23:51:05.675927 25790 net.cpp:100] Creating Layer pool20_2
I0407 23:51:05.675931 25790 net.cpp:434] pool20_2 <- conv20_2
I0407 23:51:05.675936 25790 net.cpp:408] pool20_2 -> pool20_2
I0407 23:51:05.675987 25790 net.cpp:150] Setting up pool20_2
I0407 23:51:05.675994 25790 net.cpp:157] Top shape: 128 250 3 3 (288000)
I0407 23:51:05.675997 25790 net.cpp:165] Memory required for data: 10815768576
I0407 23:51:05.676000 25790 layer_factory.hpp:77] Creating layer fc20_4_300
I0407 23:51:05.676007 25790 net.cpp:100] Creating Layer fc20_4_300
I0407 23:51:05.676009 25790 net.cpp:434] fc20_4_300 <- pool20_2
I0407 23:51:05.676017 25790 net.cpp:408] fc20_4_300 -> fc20_4
I0407 23:51:05.681763 25790 net.cpp:150] Setting up fc20_4_300
I0407 23:51:05.681779 25790 net.cpp:157] Top shape: 128 300 (38400)
I0407 23:51:05.681783 25790 net.cpp:165] Memory required for data: 10815922176
I0407 23:51:05.681790 25790 layer_factory.hpp:77] Creating layer fc20_4_prescale
I0407 23:51:05.681797 25790 net.cpp:100] Creating Layer fc20_4_prescale
I0407 23:51:05.681802 25790 net.cpp:434] fc20_4_prescale <- fc20_4
I0407 23:51:05.681809 25790 net.cpp:395] fc20_4_prescale -> fc20_4 (in-place)
I0407 23:51:05.681964 25790 net.cpp:150] Setting up fc20_4_prescale
I0407 23:51:05.681974 25790 net.cpp:157] Top shape: 128 300 (38400)
I0407 23:51:05.681991 25790 net.cpp:165] Memory required for data: 10816075776
I0407 23:51:05.681998 25790 layer_factory.hpp:77] Creating layer fc20_4_sTanH
I0407 23:51:05.682003 25790 net.cpp:100] Creating Layer fc20_4_sTanH
I0407 23:51:05.682008 25790 net.cpp:434] fc20_4_sTanH <- fc20_4
I0407 23:51:05.682011 25790 net.cpp:395] fc20_4_sTanH -> fc20_4 (in-place)
I0407 23:51:05.683208 25790 net.cpp:150] Setting up fc20_4_sTanH
I0407 23:51:05.683223 25790 net.cpp:157] Top shape: 128 300 (38400)
I0407 23:51:05.683226 25790 net.cpp:165] Memory required for data: 10816229376
I0407 23:51:05.683230 25790 layer_factory.hpp:77] Creating layer fc20_4_postscale
I0407 23:51:05.683238 25790 net.cpp:100] Creating Layer fc20_4_postscale
I0407 23:51:05.683243 25790 net.cpp:434] fc20_4_postscale <- fc20_4
I0407 23:51:05.683248 25790 net.cpp:395] fc20_4_postscale -> fc20_4 (in-place)
I0407 23:51:05.683426 25790 net.cpp:150] Setting up fc20_4_postscale
I0407 23:51:05.683436 25790 net.cpp:157] Top shape: 128 300 (38400)
I0407 23:51:05.683439 25790 net.cpp:165] Memory required for data: 10816382976
I0407 23:51:05.683444 25790 layer_factory.hpp:77] Creating layer drop20_4
I0407 23:51:05.683450 25790 net.cpp:100] Creating Layer drop20_4
I0407 23:51:05.683454 25790 net.cpp:434] drop20_4 <- fc20_4
I0407 23:51:05.683460 25790 net.cpp:395] drop20_4 -> fc20_4 (in-place)
I0407 23:51:05.683487 25790 net.cpp:150] Setting up drop20_4
I0407 23:51:05.683495 25790 net.cpp:157] Top shape: 128 300 (38400)
I0407 23:51:05.683497 25790 net.cpp:165] Memory required for data: 10816536576
I0407 23:51:05.683501 25790 layer_factory.hpp:77] Creating layer fc20_5_67
I0407 23:51:05.683508 25790 net.cpp:100] Creating Layer fc20_5_67
I0407 23:51:05.683511 25790 net.cpp:434] fc20_5_67 <- fc20_4
I0407 23:51:05.683516 25790 net.cpp:408] fc20_5_67 -> fc20_5
I0407 23:51:05.683825 25790 net.cpp:150] Setting up fc20_5_67
I0407 23:51:05.683835 25790 net.cpp:157] Top shape: 128 67 (8576)
I0407 23:51:05.683837 25790 net.cpp:165] Memory required for data: 10816570880
I0407 23:51:05.683843 25790 layer_factory.hpp:77] Creating layer softmax_20
I0407 23:51:05.683850 25790 net.cpp:100] Creating Layer softmax_20
I0407 23:51:05.683852 25790 net.cpp:434] softmax_20 <- fc20_5
I0407 23:51:05.683858 25790 net.cpp:408] softmax_20 -> softmax_20
I0407 23:51:05.684214 25790 net.cpp:150] Setting up softmax_20
I0407 23:51:05.684228 25790 net.cpp:157] Top shape: 128 67 (8576)
I0407 23:51:05.684231 25790 net.cpp:165] Memory required for data: 10816605184
I0407 23:51:05.684234 25790 layer_factory.hpp:77] Creating layer conv21_0
I0407 23:51:05.684247 25790 net.cpp:100] Creating Layer conv21_0
I0407 23:51:05.684253 25790 net.cpp:434] conv21_0 <- data_4_data_4_0_split_1
I0407 23:51:05.684262 25790 net.cpp:408] conv21_0 -> conv21_0
I0407 23:51:05.686465 25790 net.cpp:150] Setting up conv21_0
I0407 23:51:05.686482 25790 net.cpp:157] Top shape: 128 100 42 42 (22579200)
I0407 23:51:05.686497 25790 net.cpp:165] Memory required for data: 10906921984
I0407 23:51:05.686504 25790 layer_factory.hpp:77] Creating layer conv21_0_prescale
I0407 23:51:05.686512 25790 net.cpp:100] Creating Layer conv21_0_prescale
I0407 23:51:05.686517 25790 net.cpp:434] conv21_0_prescale <- conv21_0
I0407 23:51:05.686523 25790 net.cpp:395] conv21_0_prescale -> conv21_0 (in-place)
I0407 23:51:05.686693 25790 net.cpp:150] Setting up conv21_0_prescale
I0407 23:51:05.686703 25790 net.cpp:157] Top shape: 128 100 42 42 (22579200)
I0407 23:51:05.686707 25790 net.cpp:165] Memory required for data: 10997238784
I0407 23:51:05.686712 25790 layer_factory.hpp:77] Creating layer conv21_0_sTanH
I0407 23:51:05.686717 25790 net.cpp:100] Creating Layer conv21_0_sTanH
I0407 23:51:05.686720 25790 net.cpp:434] conv21_0_sTanH <- conv21_0
I0407 23:51:05.686727 25790 net.cpp:395] conv21_0_sTanH -> conv21_0 (in-place)
I0407 23:51:05.686997 25790 net.cpp:150] Setting up conv21_0_sTanH
I0407 23:51:05.687011 25790 net.cpp:157] Top shape: 128 100 42 42 (22579200)
I0407 23:51:05.687014 25790 net.cpp:165] Memory required for data: 11087555584
I0407 23:51:05.687018 25790 layer_factory.hpp:77] Creating layer conv21_0_postscale
I0407 23:51:05.687037 25790 net.cpp:100] Creating Layer conv21_0_postscale
I0407 23:51:05.687042 25790 net.cpp:434] conv21_0_postscale <- conv21_0
I0407 23:51:05.687050 25790 net.cpp:395] conv21_0_postscale -> conv21_0 (in-place)
I0407 23:51:05.687223 25790 net.cpp:150] Setting up conv21_0_postscale
I0407 23:51:05.687233 25790 net.cpp:157] Top shape: 128 100 42 42 (22579200)
I0407 23:51:05.687237 25790 net.cpp:165] Memory required for data: 11177872384
I0407 23:51:05.687240 25790 layer_factory.hpp:77] Creating layer pool21_0
I0407 23:51:05.687247 25790 net.cpp:100] Creating Layer pool21_0
I0407 23:51:05.687250 25790 net.cpp:434] pool21_0 <- conv21_0
I0407 23:51:05.687255 25790 net.cpp:408] pool21_0 -> pool21_0
I0407 23:51:05.687317 25790 net.cpp:150] Setting up pool21_0
I0407 23:51:05.687325 25790 net.cpp:157] Top shape: 128 100 21 21 (5644800)
I0407 23:51:05.687328 25790 net.cpp:165] Memory required for data: 11200451584
I0407 23:51:05.687331 25790 layer_factory.hpp:77] Creating layer conv21_1
I0407 23:51:05.687341 25790 net.cpp:100] Creating Layer conv21_1
I0407 23:51:05.687345 25790 net.cpp:434] conv21_1 <- pool21_0
I0407 23:51:05.687351 25790 net.cpp:408] conv21_1 -> conv21_1
I0407 23:51:05.692394 25790 net.cpp:150] Setting up conv21_1
I0407 23:51:05.692411 25790 net.cpp:157] Top shape: 128 150 18 18 (6220800)
I0407 23:51:05.692415 25790 net.cpp:165] Memory required for data: 11225334784
I0407 23:51:05.692422 25790 layer_factory.hpp:77] Creating layer conv21_1_prescale
I0407 23:51:05.692430 25790 net.cpp:100] Creating Layer conv21_1_prescale
I0407 23:51:05.692435 25790 net.cpp:434] conv21_1_prescale <- conv21_1
I0407 23:51:05.692442 25790 net.cpp:395] conv21_1_prescale -> conv21_1 (in-place)
I0407 23:51:05.692615 25790 net.cpp:150] Setting up conv21_1_prescale
I0407 23:51:05.692625 25790 net.cpp:157] Top shape: 128 150 18 18 (6220800)
I0407 23:51:05.692628 25790 net.cpp:165] Memory required for data: 11250217984
I0407 23:51:05.692633 25790 layer_factory.hpp:77] Creating layer conv21_1_sTanH
I0407 23:51:05.692638 25790 net.cpp:100] Creating Layer conv21_1_sTanH
I0407 23:51:05.692642 25790 net.cpp:434] conv21_1_sTanH <- conv21_1
I0407 23:51:05.692648 25790 net.cpp:395] conv21_1_sTanH -> conv21_1 (in-place)
I0407 23:51:05.692914 25790 net.cpp:150] Setting up conv21_1_sTanH
I0407 23:51:05.692926 25790 net.cpp:157] Top shape: 128 150 18 18 (6220800)
I0407 23:51:05.692930 25790 net.cpp:165] Memory required for data: 11275101184
I0407 23:51:05.692934 25790 layer_factory.hpp:77] Creating layer conv21_1_postscale
I0407 23:51:05.692941 25790 net.cpp:100] Creating Layer conv21_1_postscale
I0407 23:51:05.692945 25790 net.cpp:434] conv21_1_postscale <- conv21_1
I0407 23:51:05.692952 25790 net.cpp:395] conv21_1_postscale -> conv21_1 (in-place)
I0407 23:51:05.693120 25790 net.cpp:150] Setting up conv21_1_postscale
I0407 23:51:05.693130 25790 net.cpp:157] Top shape: 128 150 18 18 (6220800)
I0407 23:51:05.693133 25790 net.cpp:165] Memory required for data: 11299984384
I0407 23:51:05.693137 25790 layer_factory.hpp:77] Creating layer pool21_1
I0407 23:51:05.693145 25790 net.cpp:100] Creating Layer pool21_1
I0407 23:51:05.693150 25790 net.cpp:434] pool21_1 <- conv21_1
I0407 23:51:05.693156 25790 net.cpp:408] pool21_1 -> pool21_1
I0407 23:51:05.693217 25790 net.cpp:150] Setting up pool21_1
I0407 23:51:05.693224 25790 net.cpp:157] Top shape: 128 150 9 9 (1555200)
I0407 23:51:05.693226 25790 net.cpp:165] Memory required for data: 11306205184
I0407 23:51:05.693229 25790 layer_factory.hpp:77] Creating layer conv21_2
I0407 23:51:05.693238 25790 net.cpp:100] Creating Layer conv21_2
I0407 23:51:05.693243 25790 net.cpp:434] conv21_2 <- pool21_1
I0407 23:51:05.693248 25790 net.cpp:408] conv21_2 -> conv21_2
I0407 23:51:05.702497 25790 net.cpp:150] Setting up conv21_2
I0407 23:51:05.702517 25790 net.cpp:157] Top shape: 128 250 6 6 (1152000)
I0407 23:51:05.702522 25790 net.cpp:165] Memory required for data: 11310813184
I0407 23:51:05.702528 25790 layer_factory.hpp:77] Creating layer conv21_2_prescale
I0407 23:51:05.702548 25790 net.cpp:100] Creating Layer conv21_2_prescale
I0407 23:51:05.702554 25790 net.cpp:434] conv21_2_prescale <- conv21_2
I0407 23:51:05.702563 25790 net.cpp:395] conv21_2_prescale -> conv21_2 (in-place)
I0407 23:51:05.702705 25790 net.cpp:150] Setting up conv21_2_prescale
I0407 23:51:05.702715 25790 net.cpp:157] Top shape: 128 250 6 6 (1152000)
I0407 23:51:05.702718 25790 net.cpp:165] Memory required for data: 11315421184
I0407 23:51:05.702723 25790 layer_factory.hpp:77] Creating layer conv21_2_sTanH
I0407 23:51:05.702728 25790 net.cpp:100] Creating Layer conv21_2_sTanH
I0407 23:51:05.702733 25790 net.cpp:434] conv21_2_sTanH <- conv21_2
I0407 23:51:05.702739 25790 net.cpp:395] conv21_2_sTanH -> conv21_2 (in-place)
I0407 23:51:05.705382 25790 net.cpp:150] Setting up conv21_2_sTanH
I0407 23:51:05.705399 25790 net.cpp:157] Top shape: 128 250 6 6 (1152000)
I0407 23:51:05.705404 25790 net.cpp:165] Memory required for data: 11320029184
I0407 23:51:05.705406 25790 layer_factory.hpp:77] Creating layer conv21_2_postscale
I0407 23:51:05.705416 25790 net.cpp:100] Creating Layer conv21_2_postscale
I0407 23:51:05.705421 25790 net.cpp:434] conv21_2_postscale <- conv21_2
I0407 23:51:05.705427 25790 net.cpp:395] conv21_2_postscale -> conv21_2 (in-place)
I0407 23:51:05.705564 25790 net.cpp:150] Setting up conv21_2_postscale
I0407 23:51:05.705574 25790 net.cpp:157] Top shape: 128 250 6 6 (1152000)
I0407 23:51:05.705576 25790 net.cpp:165] Memory required for data: 11324637184
I0407 23:51:05.705581 25790 layer_factory.hpp:77] Creating layer pool21_2
I0407 23:51:05.705587 25790 net.cpp:100] Creating Layer pool21_2
I0407 23:51:05.705590 25790 net.cpp:434] pool21_2 <- conv21_2
I0407 23:51:05.705597 25790 net.cpp:408] pool21_2 -> pool21_2
I0407 23:51:05.705647 25790 net.cpp:150] Setting up pool21_2
I0407 23:51:05.705657 25790 net.cpp:157] Top shape: 128 250 3 3 (288000)
I0407 23:51:05.705658 25790 net.cpp:165] Memory required for data: 11325789184
I0407 23:51:05.705662 25790 layer_factory.hpp:77] Creating layer fc21_4_300
I0407 23:51:05.705669 25790 net.cpp:100] Creating Layer fc21_4_300
I0407 23:51:05.705672 25790 net.cpp:434] fc21_4_300 <- pool21_2
I0407 23:51:05.705678 25790 net.cpp:408] fc21_4_300 -> fc21_4
I0407 23:51:05.712008 25790 net.cpp:150] Setting up fc21_4_300
I0407 23:51:05.712025 25790 net.cpp:157] Top shape: 128 300 (38400)
I0407 23:51:05.712028 25790 net.cpp:165] Memory required for data: 11325942784
I0407 23:51:05.712035 25790 layer_factory.hpp:77] Creating layer fc21_4_prescale
I0407 23:51:05.712044 25790 net.cpp:100] Creating Layer fc21_4_prescale
I0407 23:51:05.712049 25790 net.cpp:434] fc21_4_prescale <- fc21_4
I0407 23:51:05.712054 25790 net.cpp:395] fc21_4_prescale -> fc21_4 (in-place)
I0407 23:51:05.712211 25790 net.cpp:150] Setting up fc21_4_prescale
I0407 23:51:05.712221 25790 net.cpp:157] Top shape: 128 300 (38400)
I0407 23:51:05.712224 25790 net.cpp:165] Memory required for data: 11326096384
I0407 23:51:05.712229 25790 layer_factory.hpp:77] Creating layer fc21_4_sTanH
I0407 23:51:05.712234 25790 net.cpp:100] Creating Layer fc21_4_sTanH
I0407 23:51:05.712237 25790 net.cpp:434] fc21_4_sTanH <- fc21_4
I0407 23:51:05.712244 25790 net.cpp:395] fc21_4_sTanH -> fc21_4 (in-place)
I0407 23:51:05.712525 25790 net.cpp:150] Setting up fc21_4_sTanH
I0407 23:51:05.712537 25790 net.cpp:157] Top shape: 128 300 (38400)
I0407 23:51:05.712539 25790 net.cpp:165] Memory required for data: 11326249984
I0407 23:51:05.712543 25790 layer_factory.hpp:77] Creating layer fc21_4_postscale
I0407 23:51:05.712550 25790 net.cpp:100] Creating Layer fc21_4_postscale
I0407 23:51:05.712554 25790 net.cpp:434] fc21_4_postscale <- fc21_4
I0407 23:51:05.712563 25790 net.cpp:395] fc21_4_postscale -> fc21_4 (in-place)
I0407 23:51:05.712726 25790 net.cpp:150] Setting up fc21_4_postscale
I0407 23:51:05.712735 25790 net.cpp:157] Top shape: 128 300 (38400)
I0407 23:51:05.712738 25790 net.cpp:165] Memory required for data: 11326403584
I0407 23:51:05.712743 25790 layer_factory.hpp:77] Creating layer drop21_4
I0407 23:51:05.712750 25790 net.cpp:100] Creating Layer drop21_4
I0407 23:51:05.712765 25790 net.cpp:434] drop21_4 <- fc21_4
I0407 23:51:05.712771 25790 net.cpp:395] drop21_4 -> fc21_4 (in-place)
I0407 23:51:05.712803 25790 net.cpp:150] Setting up drop21_4
I0407 23:51:05.712811 25790 net.cpp:157] Top shape: 128 300 (38400)
I0407 23:51:05.712813 25790 net.cpp:165] Memory required for data: 11326557184
I0407 23:51:05.712816 25790 layer_factory.hpp:77] Creating layer fc21_5_67
I0407 23:51:05.712822 25790 net.cpp:100] Creating Layer fc21_5_67
I0407 23:51:05.712826 25790 net.cpp:434] fc21_5_67 <- fc21_4
I0407 23:51:05.712832 25790 net.cpp:408] fc21_5_67 -> fc21_5
I0407 23:51:05.713137 25790 net.cpp:150] Setting up fc21_5_67
I0407 23:51:05.713147 25790 net.cpp:157] Top shape: 128 67 (8576)
I0407 23:51:05.713150 25790 net.cpp:165] Memory required for data: 11326591488
I0407 23:51:05.713156 25790 layer_factory.hpp:77] Creating layer softmax_21
I0407 23:51:05.713163 25790 net.cpp:100] Creating Layer softmax_21
I0407 23:51:05.713167 25790 net.cpp:434] softmax_21 <- fc21_5
I0407 23:51:05.713172 25790 net.cpp:408] softmax_21 -> softmax_21
I0407 23:51:05.713531 25790 net.cpp:150] Setting up softmax_21
I0407 23:51:05.713543 25790 net.cpp:157] Top shape: 128 67 (8576)
I0407 23:51:05.713546 25790 net.cpp:165] Memory required for data: 11326625792
I0407 23:51:05.713549 25790 layer_factory.hpp:77] Creating layer conv22_0
I0407 23:51:05.713559 25790 net.cpp:100] Creating Layer conv22_0
I0407 23:51:05.713564 25790 net.cpp:434] conv22_0 <- data_4_data_4_0_split_2
I0407 23:51:05.713572 25790 net.cpp:408] conv22_0 -> conv22_0
I0407 23:51:05.720227 25790 net.cpp:150] Setting up conv22_0
I0407 23:51:05.720247 25790 net.cpp:157] Top shape: 128 100 42 42 (22579200)
I0407 23:51:05.720250 25790 net.cpp:165] Memory required for data: 11416942592
I0407 23:51:05.720258 25790 layer_factory.hpp:77] Creating layer conv22_0_prescale
I0407 23:51:05.720274 25790 net.cpp:100] Creating Layer conv22_0_prescale
I0407 23:51:05.720280 25790 net.cpp:434] conv22_0_prescale <- conv22_0
I0407 23:51:05.720288 25790 net.cpp:395] conv22_0_prescale -> conv22_0 (in-place)
I0407 23:51:05.720463 25790 net.cpp:150] Setting up conv22_0_prescale
I0407 23:51:05.720474 25790 net.cpp:157] Top shape: 128 100 42 42 (22579200)
I0407 23:51:05.720476 25790 net.cpp:165] Memory required for data: 11507259392
I0407 23:51:05.720481 25790 layer_factory.hpp:77] Creating layer conv22_0_sTanH
I0407 23:51:05.720489 25790 net.cpp:100] Creating Layer conv22_0_sTanH
I0407 23:51:05.720492 25790 net.cpp:434] conv22_0_sTanH <- conv22_0
I0407 23:51:05.720496 25790 net.cpp:395] conv22_0_sTanH -> conv22_0 (in-place)
I0407 23:51:05.720773 25790 net.cpp:150] Setting up conv22_0_sTanH
I0407 23:51:05.720785 25790 net.cpp:157] Top shape: 128 100 42 42 (22579200)
I0407 23:51:05.720788 25790 net.cpp:165] Memory required for data: 11597576192
I0407 23:51:05.720793 25790 layer_factory.hpp:77] Creating layer conv22_0_postscale
I0407 23:51:05.720800 25790 net.cpp:100] Creating Layer conv22_0_postscale
I0407 23:51:05.720804 25790 net.cpp:434] conv22_0_postscale <- conv22_0
I0407 23:51:05.720809 25790 net.cpp:395] conv22_0_postscale -> conv22_0 (in-place)
I0407 23:51:05.720990 25790 net.cpp:150] Setting up conv22_0_postscale
I0407 23:51:05.721000 25790 net.cpp:157] Top shape: 128 100 42 42 (22579200)
I0407 23:51:05.721002 25790 net.cpp:165] Memory required for data: 11687892992
I0407 23:51:05.721007 25790 layer_factory.hpp:77] Creating layer pool22_0
I0407 23:51:05.721015 25790 net.cpp:100] Creating Layer pool22_0
I0407 23:51:05.721019 25790 net.cpp:434] pool22_0 <- conv22_0
I0407 23:51:05.721024 25790 net.cpp:408] pool22_0 -> pool22_0
I0407 23:51:05.721089 25790 net.cpp:150] Setting up pool22_0
I0407 23:51:05.721098 25790 net.cpp:157] Top shape: 128 100 21 21 (5644800)
I0407 23:51:05.721101 25790 net.cpp:165] Memory required for data: 11710472192
I0407 23:51:05.721103 25790 layer_factory.hpp:77] Creating layer conv22_1
I0407 23:51:05.721113 25790 net.cpp:100] Creating Layer conv22_1
I0407 23:51:05.721117 25790 net.cpp:434] conv22_1 <- pool22_0
I0407 23:51:05.721137 25790 net.cpp:408] conv22_1 -> conv22_1
I0407 23:51:05.728111 25790 net.cpp:150] Setting up conv22_1
I0407 23:51:05.728129 25790 net.cpp:157] Top shape: 128 150 18 18 (6220800)
I0407 23:51:05.728133 25790 net.cpp:165] Memory required for data: 11735355392
I0407 23:51:05.728140 25790 layer_factory.hpp:77] Creating layer conv22_1_prescale
I0407 23:51:05.728150 25790 net.cpp:100] Creating Layer conv22_1_prescale
I0407 23:51:05.728154 25790 net.cpp:434] conv22_1_prescale <- conv22_1
I0407 23:51:05.728160 25790 net.cpp:395] conv22_1_prescale -> conv22_1 (in-place)
I0407 23:51:05.728333 25790 net.cpp:150] Setting up conv22_1_prescale
I0407 23:51:05.728344 25790 net.cpp:157] Top shape: 128 150 18 18 (6220800)
I0407 23:51:05.728348 25790 net.cpp:165] Memory required for data: 11760238592
I0407 23:51:05.728353 25790 layer_factory.hpp:77] Creating layer conv22_1_sTanH
I0407 23:51:05.728360 25790 net.cpp:100] Creating Layer conv22_1_sTanH
I0407 23:51:05.728364 25790 net.cpp:434] conv22_1_sTanH <- conv22_1
I0407 23:51:05.728369 25790 net.cpp:395] conv22_1_sTanH -> conv22_1 (in-place)
I0407 23:51:05.728634 25790 net.cpp:150] Setting up conv22_1_sTanH
I0407 23:51:05.728646 25790 net.cpp:157] Top shape: 128 150 18 18 (6220800)
I0407 23:51:05.728649 25790 net.cpp:165] Memory required for data: 11785121792
I0407 23:51:05.728652 25790 layer_factory.hpp:77] Creating layer conv22_1_postscale
I0407 23:51:05.728663 25790 net.cpp:100] Creating Layer conv22_1_postscale
I0407 23:51:05.728667 25790 net.cpp:434] conv22_1_postscale <- conv22_1
I0407 23:51:05.728674 25790 net.cpp:395] conv22_1_postscale -> conv22_1 (in-place)
I0407 23:51:05.728843 25790 net.cpp:150] Setting up conv22_1_postscale
I0407 23:51:05.728853 25790 net.cpp:157] Top shape: 128 150 18 18 (6220800)
I0407 23:51:05.728857 25790 net.cpp:165] Memory required for data: 11810004992
I0407 23:51:05.728862 25790 layer_factory.hpp:77] Creating layer pool22_1
I0407 23:51:05.728869 25790 net.cpp:100] Creating Layer pool22_1
I0407 23:51:05.728873 25790 net.cpp:434] pool22_1 <- conv22_1
I0407 23:51:05.728880 25790 net.cpp:408] pool22_1 -> pool22_1
I0407 23:51:05.728941 25790 net.cpp:150] Setting up pool22_1
I0407 23:51:05.728950 25790 net.cpp:157] Top shape: 128 150 9 9 (1555200)
I0407 23:51:05.728952 25790 net.cpp:165] Memory required for data: 11816225792
I0407 23:51:05.728955 25790 layer_factory.hpp:77] Creating layer conv22_2
I0407 23:51:05.728965 25790 net.cpp:100] Creating Layer conv22_2
I0407 23:51:05.728970 25790 net.cpp:434] conv22_2 <- pool22_1
I0407 23:51:05.728977 25790 net.cpp:408] conv22_2 -> conv22_2
I0407 23:51:05.736078 25790 net.cpp:150] Setting up conv22_2
I0407 23:51:05.736096 25790 net.cpp:157] Top shape: 128 250 6 6 (1152000)
I0407 23:51:05.736100 25790 net.cpp:165] Memory required for data: 11820833792
I0407 23:51:05.736107 25790 layer_factory.hpp:77] Creating layer conv22_2_prescale
I0407 23:51:05.736117 25790 net.cpp:100] Creating Layer conv22_2_prescale
I0407 23:51:05.736121 25790 net.cpp:434] conv22_2_prescale <- conv22_2
I0407 23:51:05.736127 25790 net.cpp:395] conv22_2_prescale -> conv22_2 (in-place)
I0407 23:51:05.736269 25790 net.cpp:150] Setting up conv22_2_prescale
I0407 23:51:05.736279 25790 net.cpp:157] Top shape: 128 250 6 6 (1152000)
I0407 23:51:05.736282 25790 net.cpp:165] Memory required for data: 11825441792
I0407 23:51:05.736286 25790 layer_factory.hpp:77] Creating layer conv22_2_sTanH
I0407 23:51:05.736292 25790 net.cpp:100] Creating Layer conv22_2_sTanH
I0407 23:51:05.736299 25790 net.cpp:434] conv22_2_sTanH <- conv22_2
I0407 23:51:05.736304 25790 net.cpp:395] conv22_2_sTanH -> conv22_2 (in-place)
I0407 23:51:05.737514 25790 net.cpp:150] Setting up conv22_2_sTanH
I0407 23:51:05.737529 25790 net.cpp:157] Top shape: 128 250 6 6 (1152000)
I0407 23:51:05.737545 25790 net.cpp:165] Memory required for data: 11830049792
I0407 23:51:05.737548 25790 layer_factory.hpp:77] Creating layer conv22_2_postscale
I0407 23:51:05.737556 25790 net.cpp:100] Creating Layer conv22_2_postscale
I0407 23:51:05.737561 25790 net.cpp:434] conv22_2_postscale <- conv22_2
I0407 23:51:05.737583 25790 net.cpp:395] conv22_2_postscale -> conv22_2 (in-place)
I0407 23:51:05.737721 25790 net.cpp:150] Setting up conv22_2_postscale
I0407 23:51:05.737731 25790 net.cpp:157] Top shape: 128 250 6 6 (1152000)
I0407 23:51:05.737735 25790 net.cpp:165] Memory required for data: 11834657792
I0407 23:51:05.737740 25790 layer_factory.hpp:77] Creating layer pool22_2
I0407 23:51:05.737747 25790 net.cpp:100] Creating Layer pool22_2
I0407 23:51:05.737751 25790 net.cpp:434] pool22_2 <- conv22_2
I0407 23:51:05.737756 25790 net.cpp:408] pool22_2 -> pool22_2
I0407 23:51:05.737807 25790 net.cpp:150] Setting up pool22_2
I0407 23:51:05.737814 25790 net.cpp:157] Top shape: 128 250 3 3 (288000)
I0407 23:51:05.737818 25790 net.cpp:165] Memory required for data: 11835809792
I0407 23:51:05.737820 25790 layer_factory.hpp:77] Creating layer fc22_4_300
I0407 23:51:05.737828 25790 net.cpp:100] Creating Layer fc22_4_300
I0407 23:51:05.737833 25790 net.cpp:434] fc22_4_300 <- pool22_2
I0407 23:51:05.737839 25790 net.cpp:408] fc22_4_300 -> fc22_4
I0407 23:51:05.743511 25790 net.cpp:150] Setting up fc22_4_300
I0407 23:51:05.743527 25790 net.cpp:157] Top shape: 128 300 (38400)
I0407 23:51:05.743543 25790 net.cpp:165] Memory required for data: 11835963392
I0407 23:51:05.743551 25790 layer_factory.hpp:77] Creating layer fc22_4_prescale
I0407 23:51:05.743558 25790 net.cpp:100] Creating Layer fc22_4_prescale
I0407 23:51:05.743563 25790 net.cpp:434] fc22_4_prescale <- fc22_4
I0407 23:51:05.743569 25790 net.cpp:395] fc22_4_prescale -> fc22_4 (in-place)
I0407 23:51:05.743729 25790 net.cpp:150] Setting up fc22_4_prescale
I0407 23:51:05.743739 25790 net.cpp:157] Top shape: 128 300 (38400)
I0407 23:51:05.743741 25790 net.cpp:165] Memory required for data: 11836116992
I0407 23:51:05.743746 25790 layer_factory.hpp:77] Creating layer fc22_4_sTanH
I0407 23:51:05.743824 25790 net.cpp:100] Creating Layer fc22_4_sTanH
I0407 23:51:05.743830 25790 net.cpp:434] fc22_4_sTanH <- fc22_4
I0407 23:51:05.743835 25790 net.cpp:395] fc22_4_sTanH -> fc22_4 (in-place)
I0407 23:51:05.744128 25790 net.cpp:150] Setting up fc22_4_sTanH
I0407 23:51:05.744141 25790 net.cpp:157] Top shape: 128 300 (38400)
I0407 23:51:05.744144 25790 net.cpp:165] Memory required for data: 11836270592
I0407 23:51:05.744148 25790 layer_factory.hpp:77] Creating layer fc22_4_postscale
I0407 23:51:05.744155 25790 net.cpp:100] Creating Layer fc22_4_postscale
I0407 23:51:05.744159 25790 net.cpp:434] fc22_4_postscale <- fc22_4
I0407 23:51:05.744165 25790 net.cpp:395] fc22_4_postscale -> fc22_4 (in-place)
I0407 23:51:05.744340 25790 net.cpp:150] Setting up fc22_4_postscale
I0407 23:51:05.744349 25790 net.cpp:157] Top shape: 128 300 (38400)
I0407 23:51:05.744352 25790 net.cpp:165] Memory required for data: 11836424192
I0407 23:51:05.744357 25790 layer_factory.hpp:77] Creating layer drop22_4
I0407 23:51:05.744364 25790 net.cpp:100] Creating Layer drop22_4
I0407 23:51:05.744367 25790 net.cpp:434] drop22_4 <- fc22_4
I0407 23:51:05.744371 25790 net.cpp:395] drop22_4 -> fc22_4 (in-place)
I0407 23:51:05.744400 25790 net.cpp:150] Setting up drop22_4
I0407 23:51:05.744407 25790 net.cpp:157] Top shape: 128 300 (38400)
I0407 23:51:05.744410 25790 net.cpp:165] Memory required for data: 11836577792
I0407 23:51:05.744412 25790 layer_factory.hpp:77] Creating layer fc22_5_67
I0407 23:51:05.744421 25790 net.cpp:100] Creating Layer fc22_5_67
I0407 23:51:05.744423 25790 net.cpp:434] fc22_5_67 <- fc22_4
I0407 23:51:05.744428 25790 net.cpp:408] fc22_5_67 -> fc22_5
I0407 23:51:05.744735 25790 net.cpp:150] Setting up fc22_5_67
I0407 23:51:05.744745 25790 net.cpp:157] Top shape: 128 67 (8576)
I0407 23:51:05.744747 25790 net.cpp:165] Memory required for data: 11836612096
I0407 23:51:05.744753 25790 layer_factory.hpp:77] Creating layer softmax_22
I0407 23:51:05.744760 25790 net.cpp:100] Creating Layer softmax_22
I0407 23:51:05.744763 25790 net.cpp:434] softmax_22 <- fc22_5
I0407 23:51:05.744768 25790 net.cpp:408] softmax_22 -> softmax_22
I0407 23:51:05.745126 25790 net.cpp:150] Setting up softmax_22
I0407 23:51:05.745151 25790 net.cpp:157] Top shape: 128 67 (8576)
I0407 23:51:05.745156 25790 net.cpp:165] Memory required for data: 11836646400
I0407 23:51:05.745158 25790 layer_factory.hpp:77] Creating layer conv23_0
I0407 23:51:05.745168 25790 net.cpp:100] Creating Layer conv23_0
I0407 23:51:05.745173 25790 net.cpp:434] conv23_0 <- data_4_data_4_0_split_3
I0407 23:51:05.745182 25790 net.cpp:408] conv23_0 -> conv23_0
I0407 23:51:05.748389 25790 net.cpp:150] Setting up conv23_0
I0407 23:51:05.748419 25790 net.cpp:157] Top shape: 128 100 42 42 (22579200)
I0407 23:51:05.748422 25790 net.cpp:165] Memory required for data: 11926963200
I0407 23:51:05.748430 25790 layer_factory.hpp:77] Creating layer conv23_0_prescale
I0407 23:51:05.748436 25790 net.cpp:100] Creating Layer conv23_0_prescale
I0407 23:51:05.748440 25790 net.cpp:434] conv23_0_prescale <- conv23_0
I0407 23:51:05.748447 25790 net.cpp:395] conv23_0_prescale -> conv23_0 (in-place)
I0407 23:51:05.748642 25790 net.cpp:150] Setting up conv23_0_prescale
I0407 23:51:05.748653 25790 net.cpp:157] Top shape: 128 100 42 42 (22579200)
I0407 23:51:05.748656 25790 net.cpp:165] Memory required for data: 12017280000
I0407 23:51:05.748661 25790 layer_factory.hpp:77] Creating layer conv23_0_sTanH
I0407 23:51:05.748667 25790 net.cpp:100] Creating Layer conv23_0_sTanH
I0407 23:51:05.748670 25790 net.cpp:434] conv23_0_sTanH <- conv23_0
I0407 23:51:05.748677 25790 net.cpp:395] conv23_0_sTanH -> conv23_0 (in-place)
I0407 23:51:05.748963 25790 net.cpp:150] Setting up conv23_0_sTanH
I0407 23:51:05.748975 25790 net.cpp:157] Top shape: 128 100 42 42 (22579200)
I0407 23:51:05.748978 25790 net.cpp:165] Memory required for data: 12107596800
I0407 23:51:05.748981 25790 layer_factory.hpp:77] Creating layer conv23_0_postscale
I0407 23:51:05.748989 25790 net.cpp:100] Creating Layer conv23_0_postscale
I0407 23:51:05.748993 25790 net.cpp:434] conv23_0_postscale <- conv23_0
I0407 23:51:05.748999 25790 net.cpp:395] conv23_0_postscale -> conv23_0 (in-place)
I0407 23:51:05.749173 25790 net.cpp:150] Setting up conv23_0_postscale
I0407 23:51:05.749183 25790 net.cpp:157] Top shape: 128 100 42 42 (22579200)
I0407 23:51:05.749186 25790 net.cpp:165] Memory required for data: 12197913600
I0407 23:51:05.749191 25790 layer_factory.hpp:77] Creating layer pool23_0
I0407 23:51:05.749198 25790 net.cpp:100] Creating Layer pool23_0
I0407 23:51:05.749202 25790 net.cpp:434] pool23_0 <- conv23_0
I0407 23:51:05.749208 25790 net.cpp:408] pool23_0 -> pool23_0
I0407 23:51:05.749271 25790 net.cpp:150] Setting up pool23_0
I0407 23:51:05.749280 25790 net.cpp:157] Top shape: 128 100 21 21 (5644800)
I0407 23:51:05.749284 25790 net.cpp:165] Memory required for data: 12220492800
I0407 23:51:05.749286 25790 layer_factory.hpp:77] Creating layer conv23_1
I0407 23:51:05.749295 25790 net.cpp:100] Creating Layer conv23_1
I0407 23:51:05.749300 25790 net.cpp:434] conv23_1 <- pool23_0
I0407 23:51:05.749306 25790 net.cpp:408] conv23_1 -> conv23_1
I0407 23:51:05.754170 25790 net.cpp:150] Setting up conv23_1
I0407 23:51:05.754201 25790 net.cpp:157] Top shape: 128 150 18 18 (6220800)
I0407 23:51:05.754205 25790 net.cpp:165] Memory required for data: 12245376000
I0407 23:51:05.754212 25790 layer_factory.hpp:77] Creating layer conv23_1_prescale
I0407 23:51:05.754220 25790 net.cpp:100] Creating Layer conv23_1_prescale
I0407 23:51:05.754225 25790 net.cpp:434] conv23_1_prescale <- conv23_1
I0407 23:51:05.754231 25790 net.cpp:395] conv23_1_prescale -> conv23_1 (in-place)
I0407 23:51:05.754405 25790 net.cpp:150] Setting up conv23_1_prescale
I0407 23:51:05.754415 25790 net.cpp:157] Top shape: 128 150 18 18 (6220800)
I0407 23:51:05.754418 25790 net.cpp:165] Memory required for data: 12270259200
I0407 23:51:05.754423 25790 layer_factory.hpp:77] Creating layer conv23_1_sTanH
I0407 23:51:05.754428 25790 net.cpp:100] Creating Layer conv23_1_sTanH
I0407 23:51:05.754432 25790 net.cpp:434] conv23_1_sTanH <- conv23_1
I0407 23:51:05.754438 25790 net.cpp:395] conv23_1_sTanH -> conv23_1 (in-place)
I0407 23:51:05.754704 25790 net.cpp:150] Setting up conv23_1_sTanH
I0407 23:51:05.754729 25790 net.cpp:157] Top shape: 128 150 18 18 (6220800)
I0407 23:51:05.754734 25790 net.cpp:165] Memory required for data: 12295142400
I0407 23:51:05.754736 25790 layer_factory.hpp:77] Creating layer conv23_1_postscale
I0407 23:51:05.754745 25790 net.cpp:100] Creating Layer conv23_1_postscale
I0407 23:51:05.754748 25790 net.cpp:434] conv23_1_postscale <- conv23_1
I0407 23:51:05.754755 25790 net.cpp:395] conv23_1_postscale -> conv23_1 (in-place)
I0407 23:51:05.754930 25790 net.cpp:150] Setting up conv23_1_postscale
I0407 23:51:05.754940 25790 net.cpp:157] Top shape: 128 150 18 18 (6220800)
I0407 23:51:05.754941 25790 net.cpp:165] Memory required for data: 12320025600
I0407 23:51:05.754946 25790 layer_factory.hpp:77] Creating layer pool23_1
I0407 23:51:05.754954 25790 net.cpp:100] Creating Layer pool23_1
I0407 23:51:05.754958 25790 net.cpp:434] pool23_1 <- conv23_1
I0407 23:51:05.754963 25790 net.cpp:408] pool23_1 -> pool23_1
I0407 23:51:05.755029 25790 net.cpp:150] Setting up pool23_1
I0407 23:51:05.755038 25790 net.cpp:157] Top shape: 128 150 9 9 (1555200)
I0407 23:51:05.755040 25790 net.cpp:165] Memory required for data: 12326246400
I0407 23:51:05.755043 25790 layer_factory.hpp:77] Creating layer conv23_2
I0407 23:51:05.755053 25790 net.cpp:100] Creating Layer conv23_2
I0407 23:51:05.755058 25790 net.cpp:434] conv23_2 <- pool23_1
I0407 23:51:05.755064 25790 net.cpp:408] conv23_2 -> conv23_2
I0407 23:51:05.762101 25790 net.cpp:150] Setting up conv23_2
I0407 23:51:05.762120 25790 net.cpp:157] Top shape: 128 250 6 6 (1152000)
I0407 23:51:05.762135 25790 net.cpp:165] Memory required for data: 12330854400
I0407 23:51:05.762141 25790 layer_factory.hpp:77] Creating layer conv23_2_prescale
I0407 23:51:05.762151 25790 net.cpp:100] Creating Layer conv23_2_prescale
I0407 23:51:05.762156 25790 net.cpp:434] conv23_2_prescale <- conv23_2
I0407 23:51:05.762161 25790 net.cpp:395] conv23_2_prescale -> conv23_2 (in-place)
I0407 23:51:05.762305 25790 net.cpp:150] Setting up conv23_2_prescale
I0407 23:51:05.762315 25790 net.cpp:157] Top shape: 128 250 6 6 (1152000)
I0407 23:51:05.762318 25790 net.cpp:165] Memory required for data: 12335462400
I0407 23:51:05.762322 25790 layer_factory.hpp:77] Creating layer conv23_2_sTanH
I0407 23:51:05.762328 25790 net.cpp:100] Creating Layer conv23_2_sTanH
I0407 23:51:05.762331 25790 net.cpp:434] conv23_2_sTanH <- conv23_2
I0407 23:51:05.762336 25790 net.cpp:395] conv23_2_sTanH -> conv23_2 (in-place)
I0407 23:51:05.763571 25790 net.cpp:150] Setting up conv23_2_sTanH
I0407 23:51:05.763600 25790 net.cpp:157] Top shape: 128 250 6 6 (1152000)
I0407 23:51:05.763603 25790 net.cpp:165] Memory required for data: 12340070400
I0407 23:51:05.763607 25790 layer_factory.hpp:77] Creating layer conv23_2_postscale
I0407 23:51:05.763614 25790 net.cpp:100] Creating Layer conv23_2_postscale
I0407 23:51:05.763618 25790 net.cpp:434] conv23_2_postscale <- conv23_2
I0407 23:51:05.763638 25790 net.cpp:395] conv23_2_postscale -> conv23_2 (in-place)
I0407 23:51:05.763777 25790 net.cpp:150] Setting up conv23_2_postscale
I0407 23:51:05.763785 25790 net.cpp:157] Top shape: 128 250 6 6 (1152000)
I0407 23:51:05.763788 25790 net.cpp:165] Memory required for data: 12344678400
I0407 23:51:05.763793 25790 layer_factory.hpp:77] Creating layer pool23_2
I0407 23:51:05.763802 25790 net.cpp:100] Creating Layer pool23_2
I0407 23:51:05.763804 25790 net.cpp:434] pool23_2 <- conv23_2
I0407 23:51:05.763811 25790 net.cpp:408] pool23_2 -> pool23_2
I0407 23:51:05.763861 25790 net.cpp:150] Setting up pool23_2
I0407 23:51:05.763870 25790 net.cpp:157] Top shape: 128 250 3 3 (288000)
I0407 23:51:05.763872 25790 net.cpp:165] Memory required for data: 12345830400
I0407 23:51:05.763875 25790 layer_factory.hpp:77] Creating layer fc23_4_300
I0407 23:51:05.763887 25790 net.cpp:100] Creating Layer fc23_4_300
I0407 23:51:05.763891 25790 net.cpp:434] fc23_4_300 <- pool23_2
I0407 23:51:05.763898 25790 net.cpp:408] fc23_4_300 -> fc23_4
I0407 23:51:05.769636 25790 net.cpp:150] Setting up fc23_4_300
I0407 23:51:05.769652 25790 net.cpp:157] Top shape: 128 300 (38400)
I0407 23:51:05.769667 25790 net.cpp:165] Memory required for data: 12345984000
I0407 23:51:05.769675 25790 layer_factory.hpp:77] Creating layer fc23_4_prescale
I0407 23:51:05.769682 25790 net.cpp:100] Creating Layer fc23_4_prescale
I0407 23:51:05.769688 25790 net.cpp:434] fc23_4_prescale <- fc23_4
I0407 23:51:05.769695 25790 net.cpp:395] fc23_4_prescale -> fc23_4 (in-place)
I0407 23:51:05.769860 25790 net.cpp:150] Setting up fc23_4_prescale
I0407 23:51:05.769870 25790 net.cpp:157] Top shape: 128 300 (38400)
I0407 23:51:05.769872 25790 net.cpp:165] Memory required for data: 12346137600
I0407 23:51:05.769877 25790 layer_factory.hpp:77] Creating layer fc23_4_sTanH
I0407 23:51:05.769882 25790 net.cpp:100] Creating Layer fc23_4_sTanH
I0407 23:51:05.769886 25790 net.cpp:434] fc23_4_sTanH <- fc23_4
I0407 23:51:05.769891 25790 net.cpp:395] fc23_4_sTanH -> fc23_4 (in-place)
I0407 23:51:05.770170 25790 net.cpp:150] Setting up fc23_4_sTanH
I0407 23:51:05.770181 25790 net.cpp:157] Top shape: 128 300 (38400)
I0407 23:51:05.770184 25790 net.cpp:165] Memory required for data: 12346291200
I0407 23:51:05.770187 25790 layer_factory.hpp:77] Creating layer fc23_4_postscale
I0407 23:51:05.770197 25790 net.cpp:100] Creating Layer fc23_4_postscale
I0407 23:51:05.770201 25790 net.cpp:434] fc23_4_postscale <- fc23_4
I0407 23:51:05.770206 25790 net.cpp:395] fc23_4_postscale -> fc23_4 (in-place)
I0407 23:51:05.770387 25790 net.cpp:150] Setting up fc23_4_postscale
I0407 23:51:05.770396 25790 net.cpp:157] Top shape: 128 300 (38400)
I0407 23:51:05.770400 25790 net.cpp:165] Memory required for data: 12346444800
I0407 23:51:05.770404 25790 layer_factory.hpp:77] Creating layer drop23_4
I0407 23:51:05.770411 25790 net.cpp:100] Creating Layer drop23_4
I0407 23:51:05.770414 25790 net.cpp:434] drop23_4 <- fc23_4
I0407 23:51:05.770431 25790 net.cpp:395] drop23_4 -> fc23_4 (in-place)
I0407 23:51:05.770462 25790 net.cpp:150] Setting up drop23_4
I0407 23:51:05.770467 25790 net.cpp:157] Top shape: 128 300 (38400)
I0407 23:51:05.770470 25790 net.cpp:165] Memory required for data: 12346598400
I0407 23:51:05.770473 25790 layer_factory.hpp:77] Creating layer fc23_5_67
I0407 23:51:05.770480 25790 net.cpp:100] Creating Layer fc23_5_67
I0407 23:51:05.770484 25790 net.cpp:434] fc23_5_67 <- fc23_4
I0407 23:51:05.770489 25790 net.cpp:408] fc23_5_67 -> fc23_5
I0407 23:51:05.770805 25790 net.cpp:150] Setting up fc23_5_67
I0407 23:51:05.770815 25790 net.cpp:157] Top shape: 128 67 (8576)
I0407 23:51:05.770817 25790 net.cpp:165] Memory required for data: 12346632704
I0407 23:51:05.770823 25790 layer_factory.hpp:77] Creating layer softmax_23
I0407 23:51:05.770843 25790 net.cpp:100] Creating Layer softmax_23
I0407 23:51:05.770845 25790 net.cpp:434] softmax_23 <- fc23_5
I0407 23:51:05.770851 25790 net.cpp:408] softmax_23 -> softmax_23
I0407 23:51:05.771211 25790 net.cpp:150] Setting up softmax_23
I0407 23:51:05.771224 25790 net.cpp:157] Top shape: 128 67 (8576)
I0407 23:51:05.771227 25790 net.cpp:165] Memory required for data: 12346667008
I0407 23:51:05.771230 25790 layer_factory.hpp:77] Creating layer conv24_0
I0407 23:51:05.771241 25790 net.cpp:100] Creating Layer conv24_0
I0407 23:51:05.771246 25790 net.cpp:434] conv24_0 <- data_4_data_4_0_split_4
I0407 23:51:05.771253 25790 net.cpp:408] conv24_0 -> conv24_0
I0407 23:51:05.773496 25790 net.cpp:150] Setting up conv24_0
I0407 23:51:05.773524 25790 net.cpp:157] Top shape: 128 100 42 42 (22579200)
I0407 23:51:05.773528 25790 net.cpp:165] Memory required for data: 12436983808
I0407 23:51:05.773535 25790 layer_factory.hpp:77] Creating layer conv24_0_prescale
I0407 23:51:05.773543 25790 net.cpp:100] Creating Layer conv24_0_prescale
I0407 23:51:05.773547 25790 net.cpp:434] conv24_0_prescale <- conv24_0
I0407 23:51:05.773563 25790 net.cpp:395] conv24_0_prescale -> conv24_0 (in-place)
I0407 23:51:05.773747 25790 net.cpp:150] Setting up conv24_0_prescale
I0407 23:51:05.773758 25790 net.cpp:157] Top shape: 128 100 42 42 (22579200)
I0407 23:51:05.773761 25790 net.cpp:165] Memory required for data: 12527300608
I0407 23:51:05.773766 25790 layer_factory.hpp:77] Creating layer conv24_0_sTanH
I0407 23:51:05.773784 25790 net.cpp:100] Creating Layer conv24_0_sTanH
I0407 23:51:05.773789 25790 net.cpp:434] conv24_0_sTanH <- conv24_0
I0407 23:51:05.773794 25790 net.cpp:395] conv24_0_sTanH -> conv24_0 (in-place)
I0407 23:51:05.774075 25790 net.cpp:150] Setting up conv24_0_sTanH
I0407 23:51:05.774087 25790 net.cpp:157] Top shape: 128 100 42 42 (22579200)
I0407 23:51:05.774091 25790 net.cpp:165] Memory required for data: 12617617408
I0407 23:51:05.774093 25790 layer_factory.hpp:77] Creating layer conv24_0_postscale
I0407 23:51:05.774101 25790 net.cpp:100] Creating Layer conv24_0_postscale
I0407 23:51:05.774104 25790 net.cpp:434] conv24_0_postscale <- conv24_0
I0407 23:51:05.774111 25790 net.cpp:395] conv24_0_postscale -> conv24_0 (in-place)
I0407 23:51:05.774291 25790 net.cpp:150] Setting up conv24_0_postscale
I0407 23:51:05.774302 25790 net.cpp:157] Top shape: 128 100 42 42 (22579200)
I0407 23:51:05.774304 25790 net.cpp:165] Memory required for data: 12707934208
I0407 23:51:05.774309 25790 layer_factory.hpp:77] Creating layer pool24_0
I0407 23:51:05.774315 25790 net.cpp:100] Creating Layer pool24_0
I0407 23:51:05.774319 25790 net.cpp:434] pool24_0 <- conv24_0
I0407 23:51:05.774325 25790 net.cpp:408] pool24_0 -> pool24_0
I0407 23:51:05.774389 25790 net.cpp:150] Setting up pool24_0
I0407 23:51:05.774397 25790 net.cpp:157] Top shape: 128 100 21 21 (5644800)
I0407 23:51:05.774400 25790 net.cpp:165] Memory required for data: 12730513408
I0407 23:51:05.774404 25790 layer_factory.hpp:77] Creating layer conv24_1
I0407 23:51:05.774415 25790 net.cpp:100] Creating Layer conv24_1
I0407 23:51:05.774420 25790 net.cpp:434] conv24_1 <- pool24_0
I0407 23:51:05.774425 25790 net.cpp:408] conv24_1 -> conv24_1
I0407 23:51:05.778023 25790 net.cpp:150] Setting up conv24_1
I0407 23:51:05.778041 25790 net.cpp:157] Top shape: 128 150 18 18 (6220800)
I0407 23:51:05.778056 25790 net.cpp:165] Memory required for data: 12755396608
I0407 23:51:05.778064 25790 layer_factory.hpp:77] Creating layer conv24_1_prescale
I0407 23:51:05.778071 25790 net.cpp:100] Creating Layer conv24_1_prescale
I0407 23:51:05.778075 25790 net.cpp:434] conv24_1_prescale <- conv24_1
I0407 23:51:05.778092 25790 net.cpp:395] conv24_1_prescale -> conv24_1 (in-place)
I0407 23:51:05.778268 25790 net.cpp:150] Setting up conv24_1_prescale
I0407 23:51:05.778278 25790 net.cpp:157] Top shape: 128 150 18 18 (6220800)
I0407 23:51:05.778281 25790 net.cpp:165] Memory required for data: 12780279808
I0407 23:51:05.778286 25790 layer_factory.hpp:77] Creating layer conv24_1_sTanH
I0407 23:51:05.778291 25790 net.cpp:100] Creating Layer conv24_1_sTanH
I0407 23:51:05.778295 25790 net.cpp:434] conv24_1_sTanH <- conv24_1
I0407 23:51:05.778300 25790 net.cpp:395] conv24_1_sTanH -> conv24_1 (in-place)
I0407 23:51:05.778570 25790 net.cpp:150] Setting up conv24_1_sTanH
I0407 23:51:05.778583 25790 net.cpp:157] Top shape: 128 150 18 18 (6220800)
I0407 23:51:05.778585 25790 net.cpp:165] Memory required for data: 12805163008
I0407 23:51:05.778589 25790 layer_factory.hpp:77] Creating layer conv24_1_postscale
I0407 23:51:05.778595 25790 net.cpp:100] Creating Layer conv24_1_postscale
I0407 23:51:05.778599 25790 net.cpp:434] conv24_1_postscale <- conv24_1
I0407 23:51:05.778606 25790 net.cpp:395] conv24_1_postscale -> conv24_1 (in-place)
I0407 23:51:05.778779 25790 net.cpp:150] Setting up conv24_1_postscale
I0407 23:51:05.778789 25790 net.cpp:157] Top shape: 128 150 18 18 (6220800)
I0407 23:51:05.778791 25790 net.cpp:165] Memory required for data: 12830046208
I0407 23:51:05.778795 25790 layer_factory.hpp:77] Creating layer pool24_1
I0407 23:51:05.778802 25790 net.cpp:100] Creating Layer pool24_1
I0407 23:51:05.778805 25790 net.cpp:434] pool24_1 <- conv24_1
I0407 23:51:05.778812 25790 net.cpp:408] pool24_1 -> pool24_1
I0407 23:51:05.778873 25790 net.cpp:150] Setting up pool24_1
I0407 23:51:05.778882 25790 net.cpp:157] Top shape: 128 150 9 9 (1555200)
I0407 23:51:05.778885 25790 net.cpp:165] Memory required for data: 12836267008
I0407 23:51:05.778888 25790 layer_factory.hpp:77] Creating layer conv24_2
I0407 23:51:05.778913 25790 net.cpp:100] Creating Layer conv24_2
I0407 23:51:05.778918 25790 net.cpp:434] conv24_2 <- pool24_1
I0407 23:51:05.778924 25790 net.cpp:408] conv24_2 -> conv24_2
I0407 23:51:05.786116 25790 net.cpp:150] Setting up conv24_2
I0407 23:51:05.786134 25790 net.cpp:157] Top shape: 128 250 6 6 (1152000)
I0407 23:51:05.786139 25790 net.cpp:165] Memory required for data: 12840875008
I0407 23:51:05.786145 25790 layer_factory.hpp:77] Creating layer conv24_2_prescale
I0407 23:51:05.786154 25790 net.cpp:100] Creating Layer conv24_2_prescale
I0407 23:51:05.786160 25790 net.cpp:434] conv24_2_prescale <- conv24_2
I0407 23:51:05.786166 25790 net.cpp:395] conv24_2_prescale -> conv24_2 (in-place)
I0407 23:51:05.786311 25790 net.cpp:150] Setting up conv24_2_prescale
I0407 23:51:05.786320 25790 net.cpp:157] Top shape: 128 250 6 6 (1152000)
I0407 23:51:05.786324 25790 net.cpp:165] Memory required for data: 12845483008
I0407 23:51:05.786329 25790 layer_factory.hpp:77] Creating layer conv24_2_sTanH
I0407 23:51:05.786334 25790 net.cpp:100] Creating Layer conv24_2_sTanH
I0407 23:51:05.786336 25790 net.cpp:434] conv24_2_sTanH <- conv24_2
I0407 23:51:05.786342 25790 net.cpp:395] conv24_2_sTanH -> conv24_2 (in-place)
I0407 23:51:05.787555 25790 net.cpp:150] Setting up conv24_2_sTanH
I0407 23:51:05.787571 25790 net.cpp:157] Top shape: 128 250 6 6 (1152000)
I0407 23:51:05.787590 25790 net.cpp:165] Memory required for data: 12850091008
I0407 23:51:05.787595 25790 layer_factory.hpp:77] Creating layer conv24_2_postscale
I0407 23:51:05.787602 25790 net.cpp:100] Creating Layer conv24_2_postscale
I0407 23:51:05.787606 25790 net.cpp:434] conv24_2_postscale <- conv24_2
I0407 23:51:05.787614 25790 net.cpp:395] conv24_2_postscale -> conv24_2 (in-place)
I0407 23:51:05.787757 25790 net.cpp:150] Setting up conv24_2_postscale
I0407 23:51:05.787766 25790 net.cpp:157] Top shape: 128 250 6 6 (1152000)
I0407 23:51:05.787770 25790 net.cpp:165] Memory required for data: 12854699008
I0407 23:51:05.787775 25790 layer_factory.hpp:77] Creating layer pool24_2
I0407 23:51:05.787781 25790 net.cpp:100] Creating Layer pool24_2
I0407 23:51:05.787786 25790 net.cpp:434] pool24_2 <- conv24_2
I0407 23:51:05.787791 25790 net.cpp:408] pool24_2 -> pool24_2
I0407 23:51:05.787842 25790 net.cpp:150] Setting up pool24_2
I0407 23:51:05.787852 25790 net.cpp:157] Top shape: 128 250 3 3 (288000)
I0407 23:51:05.787853 25790 net.cpp:165] Memory required for data: 12855851008
I0407 23:51:05.787856 25790 layer_factory.hpp:77] Creating layer fc24_4_300
I0407 23:51:05.787863 25790 net.cpp:100] Creating Layer fc24_4_300
I0407 23:51:05.787866 25790 net.cpp:434] fc24_4_300 <- pool24_2
I0407 23:51:05.787873 25790 net.cpp:408] fc24_4_300 -> fc24_4
I0407 23:51:05.793597 25790 net.cpp:150] Setting up fc24_4_300
I0407 23:51:05.793613 25790 net.cpp:157] Top shape: 128 300 (38400)
I0407 23:51:05.793628 25790 net.cpp:165] Memory required for data: 12856004608
I0407 23:51:05.793635 25790 layer_factory.hpp:77] Creating layer fc24_4_prescale
I0407 23:51:05.793643 25790 net.cpp:100] Creating Layer fc24_4_prescale
I0407 23:51:05.793648 25790 net.cpp:434] fc24_4_prescale <- fc24_4
I0407 23:51:05.793654 25790 net.cpp:395] fc24_4_prescale -> fc24_4 (in-place)
I0407 23:51:05.793823 25790 net.cpp:150] Setting up fc24_4_prescale
I0407 23:51:05.793833 25790 net.cpp:157] Top shape: 128 300 (38400)
I0407 23:51:05.793835 25790 net.cpp:165] Memory required for data: 12856158208
I0407 23:51:05.793840 25790 layer_factory.hpp:77] Creating layer fc24_4_sTanH
I0407 23:51:05.793845 25790 net.cpp:100] Creating Layer fc24_4_sTanH
I0407 23:51:05.793849 25790 net.cpp:434] fc24_4_sTanH <- fc24_4
I0407 23:51:05.793853 25790 net.cpp:395] fc24_4_sTanH -> fc24_4 (in-place)
I0407 23:51:05.794132 25790 net.cpp:150] Setting up fc24_4_sTanH
I0407 23:51:05.794144 25790 net.cpp:157] Top shape: 128 300 (38400)
I0407 23:51:05.794147 25790 net.cpp:165] Memory required for data: 12856311808
I0407 23:51:05.794150 25790 layer_factory.hpp:77] Creating layer fc24_4_postscale
I0407 23:51:05.794172 25790 net.cpp:100] Creating Layer fc24_4_postscale
I0407 23:51:05.794176 25790 net.cpp:434] fc24_4_postscale <- fc24_4
I0407 23:51:05.794183 25790 net.cpp:395] fc24_4_postscale -> fc24_4 (in-place)
I0407 23:51:05.794358 25790 net.cpp:150] Setting up fc24_4_postscale
I0407 23:51:05.794368 25790 net.cpp:157] Top shape: 128 300 (38400)
I0407 23:51:05.794370 25790 net.cpp:165] Memory required for data: 12856465408
I0407 23:51:05.794375 25790 layer_factory.hpp:77] Creating layer drop24_4
I0407 23:51:05.794381 25790 net.cpp:100] Creating Layer drop24_4
I0407 23:51:05.794385 25790 net.cpp:434] drop24_4 <- fc24_4
I0407 23:51:05.794389 25790 net.cpp:395] drop24_4 -> fc24_4 (in-place)
I0407 23:51:05.794420 25790 net.cpp:150] Setting up drop24_4
I0407 23:51:05.794426 25790 net.cpp:157] Top shape: 128 300 (38400)
I0407 23:51:05.794430 25790 net.cpp:165] Memory required for data: 12856619008
I0407 23:51:05.794432 25790 layer_factory.hpp:77] Creating layer fc24_5_67
I0407 23:51:05.794437 25790 net.cpp:100] Creating Layer fc24_5_67
I0407 23:51:05.794441 25790 net.cpp:434] fc24_5_67 <- fc24_4
I0407 23:51:05.794448 25790 net.cpp:408] fc24_5_67 -> fc24_5
I0407 23:51:05.794752 25790 net.cpp:150] Setting up fc24_5_67
I0407 23:51:05.794761 25790 net.cpp:157] Top shape: 128 67 (8576)
I0407 23:51:05.794764 25790 net.cpp:165] Memory required for data: 12856653312
I0407 23:51:05.794770 25790 layer_factory.hpp:77] Creating layer softmax_24
I0407 23:51:05.794777 25790 net.cpp:100] Creating Layer softmax_24
I0407 23:51:05.794781 25790 net.cpp:434] softmax_24 <- fc24_5
I0407 23:51:05.794787 25790 net.cpp:408] softmax_24 -> softmax_24
I0407 23:51:05.795145 25790 net.cpp:150] Setting up softmax_24
I0407 23:51:05.795157 25790 net.cpp:157] Top shape: 128 67 (8576)
I0407 23:51:05.795161 25790 net.cpp:165] Memory required for data: 12856687616
I0407 23:51:05.795163 25790 layer_factory.hpp:77] Creating layer averaging
I0407 23:51:05.795173 25790 net.cpp:100] Creating Layer averaging
I0407 23:51:05.795178 25790 net.cpp:434] averaging <- softmax_0
I0407 23:51:05.795182 25790 net.cpp:434] averaging <- softmax_1
I0407 23:51:05.795187 25790 net.cpp:434] averaging <- softmax_2
…
