…
I0407 23:51:40.981315 26944 net.cpp:322] The NetState phase (0) differed from the phase (1) specified by a rule in layer accuracy_5
I0407 23:51:40.983526 26944 net.cpp:58] Initializing net from parameters: 
state {
  phase: TRAIN
  level: 0
  stage: ""
}
layer {
  name: "data_0"
  type: "Data"
  top: "data_0"
  top: "label_0"
  include {
    phase: TRAIN
  }
  transform_param {
    mirror: false
    crop_size: 48
    mean_value: 115
    mean_value: 107
    mean_value: 120
  }
  data_param {
    source: "../local_data/lmdb/rtsd-r1/orig/train/lmdb"
    batch_size: 128
    backend: LMDB
  }
}
layer {
  name: "conv0_0"
  type: "Convolution"
  bottom: "data_0"
  top: "conv0_0"
  convolution_param {
    num_output: 100
    pad: 0
    kernel_size: 7
    group: 1
    stride: 1
    weight_filler {
      type: "xavier"
    }
  }
}
layer {
  name: "conv0_0_prescale"
  type: "Scale"
  bottom: "conv0_0"
  top: "conv0_0"
  param {
    lr_mult: 0
    decay_mult: 0
  }
  scale_param {
    filler {
      value: 0.6666
    }
  }
}
layer {
  name: "conv0_0_sTanH"
  type: "TanH"
  bottom: "conv0_0"
  top: "conv0_0"
}
layer {
  name: "conv0_0_postscale"
  type: "Scale"
  bottom: "conv0_0"
  top: "conv0_0"
  param {
    lr_mult: 0
    decay_mult: 0
  }
  scale_param {
    filler {
      value: 1.7159
    }
  }
}
layer {
  name: "pool0_0"
  type: "Pooling"
  bottom: "conv0_0"
  top: "pool0_0"
  pooling_param {
    pool: MAX
    kernel_size: 2
    stride: 2
  }
}
layer {
  name: "conv0_1"
  type: "Convolution"
  bottom: "pool0_0"
  top: "conv0_1"
  convolution_param {
    num_output: 150
    pad: 0
    kernel_size: 4
    group: 1
    stride: 1
    weight_filler {
      type: "xavier"
    }
  }
}
layer {
  name: "conv0_1_prescale"
  type: "Scale"
  bottom: "conv0_1"
  top: "conv0_1"
  param {
    lr_mult: 0
    decay_mult: 0
  }
  scale_param {
    filler {
      value: 0.6666
    }
  }
}
layer {
  name: "conv0_1_sTanH"
  type: "TanH"
  bottom: "conv0_1"
  top: "conv0_1"
}
layer {
  name: "conv0_1_postscale"
  type: "Scale"
  bottom: "conv0_1"
  top: "conv0_1"
  param {
    lr_mult: 0
    decay_mult: 0
  }
  scale_param {
    filler {
      value: 1.7159
    }
  }
}
layer {
  name: "pool0_1"
  type: "Pooling"
  bottom: "conv0_1"
  top: "pool0_1"
  pooling_param {
    pool: MAX
    kernel_size: 2
    stride: 2
  }
}
layer {
  name: "conv0_2"
  type: "Convolution"
  bottom: "pool0_1"
  top: "conv0_2"
  convolution_param {
    num_output: 250
    pad: 0
    kernel_size: 4
    group: 1
    stride: 1
    weight_filler {
      type: "xavier"
    }
  }
}
layer {
  name: "conv0_2_prescale"
  type: "Scale"
  bottom: "conv0_2"
  top: "conv0_2"
  param {
    lr_mult: 0
    decay_mult: 0
  }
  scale_param {
    filler {
      value: 0.6666
    }
  }
}
layer {
  name: "conv0_2_sTanH"
  type: "TanH"
  bottom: "conv0_2"
  top: "conv0_2"
}
layer {
  name: "conv0_2_postscale"
  type: "Scale"
  bottom: "conv0_2"
  top: "conv0_2"
  param {
    lr_mult: 0
    decay_mult: 0
  }
  scale_param {
    filler {
      value: 1.7159
    }
  }
}
layer {
  name: "pool0_2"
  type: "Pooling"
  bottom: "conv0_2"
  top: "pool0_2"
  pooling_param {
    pool: MAX
    kernel_size: 2
    stride: 2
  }
}
layer {
  name: "fc0_4_300"
  type: "InnerProduct"
  bottom: "pool0_2"
  top: "fc0_4"
  inner_product_param {
    num_output: 300
    weight_filler {
      type: "xavier"
    }
  }
}
layer {
  name: "fc0_4_prescale"
  type: "Scale"
  bottom: "fc0_4"
  top: "fc0_4"
  param {
    lr_mult: 0
    decay_mult: 0
  }
  scale_param {
    filler {
      value: 0.6666
    }
  }
}
layer {
  name: "fc0_4_sTanH"
  type: "TanH"
  bottom: "fc0_4"
  top: "fc0_4"
}
layer {
  name: "fc0_4_postscale"
  type: "Scale"
  bottom: "fc0_4"
  top: "fc0_4"
  param {
    lr_mult: 0
    decay_mult: 0
  }
  scale_param {
    filler {
      value: 1.7159
    }
  }
}
layer {
  name: "drop0_4"
  type: "Dropout"
  bottom: "fc0_4"
  top: "fc0_4"
  dropout_param {
    dropout_ratio: 0.4
  }
}
layer {
  name: "fc0_5_67"
  type: "InnerProduct"
  bottom: "fc0_4"
  top: "fc0_5"
  inner_product_param {
    num_output: 67
    weight_filler {
      type: "xavier"
    }
  }
}
layer {
  name: "softmax_0"
  type: "Softmax"
  bottom: "fc0_5"
  top: "softmax_0"
}
layer {
  name: "conv1_0"
  type: "Convolution"
  bottom: "data_0"
  top: "conv1_0"
  convolution_param {
    num_output: 100
    pad: 0
    kernel_size: 7
    group: 1
    stride: 1
    weight_filler {
      type: "xavier"
    }
  }
}
layer {
  name: "conv1_0_prescale"
  type: "Scale"
  bottom: "conv1_0"
  top: "conv1_0"
  param {
    lr_mult: 0
    decay_mult: 0
  }
  scale_param {
    filler {
      value: 0.6666
    }
  }
}
layer {
  name: "conv1_0_sTanH"
  type: "TanH"
  bottom: "conv1_0"
  top: "conv1_0"
}
layer {
  name: "conv1_0_postscale"
  type: "Scale"
  bottom: "conv1_0"
  top: "conv1_0"
  param {
    lr_mult: 0
    decay_mult: 0
  }
  scale_param {
    filler {
      value: 1.7159
    }
  }
}
layer {
  name: "pool1_0"
  type: "Pooling"
  bottom: "conv1_0"
  top: "pool1_0"
  pooling_param {
    pool: MAX
    kernel_size: 2
    stride: 2
  }
}
layer {
  name: "conv1_1"
  type: "Convolution"
  bottom: "pool1_0"
  top: "conv1_1"
  convolution_param {
    num_output: 150
    pad: 0
    kernel_size: 4
    group: 1
    stride: 1
    weight_filler {
      type: "xavier"
    }
  }
}
layer {
  name: "conv1_1_prescale"
  type: "Scale"
  bottom: "conv1_1"
  top: "conv1_1"
  param {
    lr_mult: 0
    decay_mult: 0
  }
  scale_param {
    filler {
      value: 0.6666
    }
  }
}
layer {
  name: "conv1_1_sTanH"
  type: "TanH"
  bottom: "conv1_1"
  top: "conv1_1"
}
layer {
  name: "conv1_1_postscale"
  type: "Scale"
  bottom: "conv1_1"
  top: "conv1_1"
  param {
    lr_mult: 0
    decay_mult: 0
  }
  scale_param {
    filler {
      value: 1.7159
    }
  }
}
layer {
  name: "pool1_1"
  type: "Pooling"
  bottom: "conv1_1"
  top: "pool1_1"
  pooling_param {
    pool: MAX
    kernel_size: 2
    stride: 2
  }
}
layer {
  name: "conv1_2"
  type: "Convolution"
  bottom: "pool1_1"
  top: "conv1_2"
  convolution_param {
    num_output: 250
    pad: 0
    kernel_size: 4
    group: 1
    stride: 1
    weight_filler {
      type: "xavier"
    }
  }
}
layer {
  name: "conv1_2_prescale"
  type: "Scale"
  bottom: "conv1_2"
  top: "conv1_2"
  param {
    lr_mult: 0
    decay_mult: 0
  }
  scale_param {
    filler {
      value: 0.6666
    }
  }
}
layer {
  name: "conv1_2_sTanH"
  type: "TanH"
  bottom: "conv1_2"
  top: "conv1_2"
}
layer {
  name: "conv1_2_postscale"
  type: "Scale"
  bottom: "conv1_2"
  top: "conv1_2"
  param {
    lr_mult: 0
    decay_mult: 0
  }
  scale_param {
    filler {
      value: 1.7159
    }
  }
}
layer {
  name: "pool1_2"
  type: "Pooling"
  bottom: "conv1_2"
  top: "pool1_2"
  pooling_param {
    pool: MAX
    kernel_size: 2
    stride: 2
  }
}
layer {
  name: "fc1_4_300"
  type: "InnerProduct"
  bottom: "pool1_2"
  top: "fc1_4"
  inner_product_param {
    num_output: 300
    weight_filler {
      type: "xavier"
    }
  }
}
layer {
  name: "fc1_4_prescale"
  type: "Scale"
  bottom: "fc1_4"
  top: "fc1_4"
  param {
    lr_mult: 0
    decay_mult: 0
  }
  scale_param {
    filler {
      value: 0.6666
    }
  }
}
layer {
  name: "fc1_4_sTanH"
  type: "TanH"
  bottom: "fc1_4"
  top: "fc1_4"
}
layer {
  name: "fc1_4_postscale"
  type: "Scale"
  bottom: "fc1_4"
  top: "fc1_4"
  param {
    lr_mult: 0
    decay_mult: 0
  }
  scale_param {
    filler {
      value: 1.7159
    }
  }
}
layer {
  name: "drop1_4"
  type: "Dropout"
  bottom: "fc1_4"
  top: "fc1_4"
  dropout_param {
    dropout_ratio: 0.4
  }
}
layer {
  name: "fc1_5_67"
  type: "InnerProduct"
  bottom: "fc1_4"
  top: "fc1_5"
  inner_product_param {
    num_output: 67
    weight_filler {
      type: "xavier"
    }
  }
}
layer {
  name: "softmax_1"
  type: "Softmax"
  bottom: "fc1_5"
  top: "softmax_1"
}
layer {
  name: "conv2_0"
  type: "Convolution"
  bottom: "data_0"
  top: "conv2_0"
  convolution_param {
    num_output: 100
    pad: 0
    kernel_size: 7
    group: 1
    stride: 1
    weight_filler {
      type: "xavier"
    }
  }
}
layer {
  name: "conv2_0_prescale"
  type: "Scale"
  bottom: "conv2_0"
  top: "conv2_0"
  param {
    lr_mult: 0
    decay_mult: 0
  }
  scale_param {
    filler {
      value: 0.6666
    }
  }
}
layer {
  name: "conv2_0_sTanH"
  type: "TanH"
  bottom: "conv2_0"
  top: "conv2_0"
}
layer {
  name: "conv2_0_postscale"
  type: "Scale"
  bottom: "conv2_0"
  top: "conv2_0"
  param {
    lr_mult: 0
    decay_mult: 0
  }
  scale_param {
    filler {
      value: 1.7159
    }
  }
}
layer {
  name: "pool2_0"
  type: "Pooling"
  bottom: "conv2_0"
  top: "pool2_0"
  pooling_param {
    pool: MAX
    kernel_size: 2
    stride: 2
  }
}
layer {
  name: "conv2_1"
  type: "Convolution"
  bottom: "pool2_0"
  top: "conv2_1"
  convolution_param {
    num_output: 150
    pad: 0
    kernel_size: 4
    group: 1
    stride: 1
    weight_filler {
      type: "xavier"
    }
  }
}
layer {
  name: "conv2_1_prescale"
  type: "Scale"
  bottom: "conv2_1"
  top: "conv2_1"
  param {
    lr_mult: 0
    decay_mult: 0
  }
  scale_param {
    filler {
      value: 0.6666
    }
  }
}
layer {
  name: "conv2_1_sTanH"
  type: "TanH"
  bottom: "conv2_1"
  top: "conv2_1"
}
layer {
  name: "conv2_1_postscale"
  type: "Scale"
  bottom: "conv2_1"
  top: "conv2_1"
  param {
    lr_mult: 0
    decay_mult: 0
  }
  scale_param {
    filler {
      value: 1.7159
    }
  }
}
layer {
  name: "pool2_1"
  type: "Pooling"
  bottom: "conv2_1"
  top: "pool2_1"
  pooling_param {
    pool: MAX
    kernel_size: 2
    stride: 2
  }
}
layer {
  name: "conv2_2"
  type: "Convolution"
  bottom: "pool2_1"
  top: "conv2_2"
  convolution_param {
    num_output: 250
    pad: 0
    kernel_size: 4
    group: 1
    stride: 1
    weight_filler {
      type: "xavier"
    }
  }
}
layer {
  name: "conv2_2_prescale"
  type: "Scale"
  bottom: "conv2_2"
  top: "conv2_2"
  param {
    lr_mult: 0
    decay_mult: 0
  }
  scale_param {
    filler {
      value: 0.6666
    }
  }
}
layer {
  name: "conv2_2_sTanH"
  type: "TanH"
  bottom: "conv2_2"
  top: "conv2_2"
}
layer {
  name: "conv2_2_postscale"
  type: "Scale"
  bottom: "conv2_2"
  top: "conv2_2"
  param {
    lr_mult: 0
    decay_mult: 0
  }
  scale_param {
    filler {
      value: 1.7159
    }
  }
}
layer {
  name: "pool2_2"
  type: "Pooling"
  bottom: "conv2_2"
  top: "pool2_2"
  pooling_param {
    pool: MAX
    kernel_size: 2
    stride: 2
  }
}
layer {
  name: "fc2_4_300"
  type: "InnerProduct"
  bottom: "pool2_2"
  top: "fc2_4"
  inner_product_param {
    num_output: 300
    weight_filler {
      type: "xavier"
    }
  }
}
layer {
  name: "fc2_4_prescale"
  type: "Scale"
  bottom: "fc2_4"
  top: "fc2_4"
  param {
    lr_mult: 0
    decay_mult: 0
  }
  scale_param {
    filler {
      value: 0.6666
    }
  }
}
layer {
  name: "fc2_4_sTanH"
  type: "TanH"
  bottom: "fc2_4"
  top: "fc2_4"
}
layer {
  name: "fc2_4_postscale"
  type: "Scale"
  bottom: "fc2_4"
  top: "fc2_4"
  param {
    lr_mult: 0
    decay_mult: 0
  }
  scale_param {
    filler {
      value: 1.7159
    }
  }
}
layer {
  name: "drop2_4"
  type: "Dropout"
  bottom: "fc2_4"
  top: "fc2_4"
  dropout_param {
    dropout_ratio: 0.4
  }
}
layer {
  name: "fc2_5_67"
  type: "InnerProduct"
  bottom: "fc2_4"
  top: "fc2_5"
  inner_product_param {
    num_output: 67
    weight_filler {
      type: "xavier"
    }
  }
}
layer {
  name: "softmax_2"
  type: "Softmax"
  bottom: "fc2_5"
  top: "softmax_2"
}
layer {
  name: "conv3_0"
  type: "Convolution"
  bottom: "data_0"
  top: "conv3_0"
  convolution_param {
    num_output: 100
    pad: 0
    kernel_size: 7
    group: 1
    stride: 1
    weight_filler {
      type: "xavier"
    }
  }
}
layer {
  name: "conv3_0_prescale"
  type: "Scale"
  bottom: "conv3_0"
  top: "conv3_0"
  param {
    lr_mult: 0
    decay_mult: 0
  }
  scale_param {
    filler {
      value: 0.6666
    }
  }
}
layer {
  name: "conv3_0_sTanH"
  type: "TanH"
  bottom: "conv3_0"
  top: "conv3_0"
}
layer {
  name: "conv3_0_postscale"
  type: "Scale"
  bottom: "conv3_0"
  top: "conv3_0"
  param {
    lr_mult: 0
    decay_mult: 0
  }
  scale_param {
    filler {
      value: 1.7159
    }
  }
}
layer {
  name: "pool3_0"
  type: "Pooling"
  bottom: "conv3_0"
  top: "pool3_0"
  pooling_param {
    pool: MAX
    kernel_size: 2
    stride: 2
  }
}
layer {
  name: "conv3_1"
  type: "Convolution"
  bottom: "pool3_0"
  top: "conv3_1"
  convolution_param {
    num_output: 150
    pad: 0
    kernel_size: 4
    group: 1
    stride: 1
    weight_filler {
      type: "xavier"
    }
  }
}
layer {
  name: "conv3_1_prescale"
  type: "Scale"
  bottom: "conv3_1"
  top: "conv3_1"
  param {
    lr_mult: 0
    decay_mult: 0
  }
  scale_param {
    filler {
      value: 0.6666
    }
  }
}
layer {
  name: "conv3_1_sTanH"
  type: "TanH"
  bottom: "conv3_1"
  top: "conv3_1"
}
layer {
  name: "conv3_1_postscale"
  type: "Scale"
  bottom: "conv3_1"
  top: "conv3_1"
  param {
    lr_mult: 0
    decay_mult: 0
  }
  scale_param {
    filler {
      value: 1.7159
    }
  }
}
layer {
  name: "pool3_1"
  type: "Pooling"
  bottom: "conv3_1"
  top: "pool3_1"
  pooling_param {
    pool: MAX
    kernel_size: 2
    stride: 2
  }
}
layer {
  name: "conv3_2"
  type: "Convolution"
  bottom: "pool3_1"
  top: "conv3_2"
  convolution_param {
    num_output: 250
    pad: 0
    kernel_size: 4
    group: 1
    stride: 1
    weight_filler {
      type: "xavier"
    }
  }
}
layer {
  name: "conv3_2_prescale"
  type: "Scale"
  bottom: "conv3_2"
  top: "conv3_2"
  param {
    lr_mult: 0
    decay_mult: 0
  }
  scale_param {
    filler {
      value: 0.6666
    }
  }
}
layer {
  name: "conv3_2_sTanH"
  type: "TanH"
  bottom: "conv3_2"
  top: "conv3_2"
}
layer {
  name: "conv3_2_postscale"
  type: "Scale"
  bottom: "conv3_2"
  top: "conv3_2"
  param {
    lr_mult: 0
    decay_mult: 0
  }
  scale_param {
    filler {
      value: 1.7159
    }
  }
}
layer {
  name: "pool3_2"
  type: "Pooling"
  bottom: "conv3_2"
  top: "pool3_2"
  pooling_param {
    pool: MAX
    kernel_size: 2
    stride: 2
  }
}
layer {
  name: "fc3_4_300"
  type: "InnerProduct"
  bottom: "pool3_2"
  top: "fc3_4"
  inner_product_param {
    num_output: 300
    weight_filler {
      type: "xavier"
    }
  }
}
layer {
  name: "fc3_4_prescale"
  type: "Scale"
  bottom: "fc3_4"
  top: "fc3_4"
  param {
    lr_mult: 0
    decay_mult: 0
  }
  scale_param {
    filler {
      value: 0.6666
    }
  }
}
layer {
  name: "fc3_4_sTanH"
  type: "TanH"
  bottom: "fc3_4"
  top: "fc3_4"
}
layer {
  name: "fc3_4_postscale"
  type: "Scale"
  bottom: "fc3_4"
  top: "fc3_4"
  param {
    lr_mult: 0
    decay_mult: 0
  }
  scale_param {
    filler {
      value: 1.7159
    }
  }
}
layer {
  name: "drop3_4"
  type: "Dropout"
  bottom: "fc3_4"
  top: "fc3_4"
  dropout_param {
    dropout_ratio: 0.4
  }
}
layer {
  name: "fc3_5_67"
  type: "InnerProduct"
  bottom: "fc3_4"
  top: "fc3_5"
  inner_product_param {
    num_output: 67
    weight_filler {
      type: "xavier"
    }
  }
}
layer {
  name: "softmax_3"
  type: "Softmax"
  bottom: "fc3_5"
  top: "softmax_3"
}
layer {
  name: "conv4_0"
  type: "Convolution"
  bottom: "data_0"
  top: "conv4_0"
  convolution_param {
    num_output: 100
    pad: 0
    kernel_size: 7
    group: 1
    stride: 1
    weight_filler {
      type: "xavier"
    }
  }
}
layer {
  name: "conv4_0_prescale"
  type: "Scale"
  bottom: "conv4_0"
  top: "conv4_0"
  param {
    lr_mult: 0
    decay_mult: 0
  }
  scale_param {
    filler {
      value: 0.6666
    }
  }
}
layer {
  name: "conv4_0_sTanH"
  type: "TanH"
  bottom: "conv4_0"
  top: "conv4_0"
}
layer {
  name: "conv4_0_postscale"
  type: "Scale"
  bottom: "conv4_0"
  top: "conv4_0"
  param {
    lr_mult: 0
    decay_mult: 0
  }
  scale_param {
    filler {
      value: 1.7159
    }
  }
}
layer {
  name: "pool4_0"
  type: "Pooling"
  bottom: "conv4_0"
  top: "pool4_0"
  pooling_param {
    pool: MAX
    kernel_size: 2
    stride: 2
  }
}
layer {
  name: "conv4_1"
  type: "Convolution"
  bottom: "pool4_0"
  top: "conv4_1"
  convolution_param {
    num_output: 150
    pad: 0
    kernel_size: 4
    group: 1
    stride: 1
    weight_filler {
      type: "xavier"
    }
  }
}
layer {
  name: "conv4_1_prescale"
  type: "Scale"
  bottom: "conv4_1"
  top: "conv4_1"
  param {
    lr_mult: 0
    decay_mult: 0
  }
  scale_param {
    filler {
      value: 0.6666
    }
  }
}
layer {
  name: "conv4_1_sTanH"
  type: "TanH"
  bottom: "conv4_1"
  top: "conv4_1"
}
layer {
  name: "conv4_1_postscale"
  type: "Scale"
  bottom: "conv4_1"
  top: "conv4_1"
  param {
    lr_mult: 0
    decay_mult: 0
  }
  scale_param {
    filler {
      value: 1.7159
    }
  }
}
layer {
  name: "pool4_1"
  type: "Pooling"
  bottom: "conv4_1"
  top: "pool4_1"
  pooling_param {
    pool: MAX
    kernel_size: 2
    stride: 2
  }
}
layer {
  name: "conv4_2"
  type: "Convolution"
  bottom: "pool4_1"
  top: "conv4_2"
  convolution_param {
    num_output: 250
    pad: 0
    kernel_size: 4
    group: 1
    stride: 1
    weight_filler {
      type: "xavier"
    }
  }
}
layer {
  name: "conv4_2_prescale"
  type: "Scale"
  bottom: "conv4_2"
  top: "conv4_2"
  param {
    lr_mult: 0
    decay_mult: 0
  }
  scale_param {
    filler {
      value: 0.6666
    }
  }
}
layer {
  name: "conv4_2_sTanH"
  type: "TanH"
  bottom: "conv4_2"
  top: "conv4_2"
}
layer {
  name: "conv4_2_postscale"
  type: "Scale"
  bottom: "conv4_2"
  top: "conv4_2"
  param {
    lr_mult: 0
    decay_mult: 0
  }
  scale_param {
    filler {
      value: 1.7159
    }
  }
}
layer {
  name: "pool4_2"
  type: "Pooling"
  bottom: "conv4_2"
  top: "pool4_2"
  pooling_param {
    pool: MAX
    kernel_size: 2
    stride: 2
  }
}
layer {
  name: "fc4_4_300"
  type: "InnerProduct"
  bottom: "pool4_2"
  top: "fc4_4"
  inner_product_param {
    num_output: 300
    weight_filler {
      type: "xavier"
    }
  }
}
layer {
  name: "fc4_4_prescale"
  type: "Scale"
  bottom: "fc4_4"
  top: "fc4_4"
  param {
    lr_mult: 0
    decay_mult: 0
  }
  scale_param {
    filler {
      value: 0.6666
    }
  }
}
layer {
  name: "fc4_4_sTanH"
  type: "TanH"
  bottom: "fc4_4"
  top: "fc4_4"
}
layer {
  name: "fc4_4_postscale"
  type: "Scale"
  bottom: "fc4_4"
  top: "fc4_4"
  param {
    lr_mult: 0
    decay_mult: 0
  }
  scale_param {
    filler {
      value: 1.7159
    }
  }
}
layer {
  name: "drop4_4"
  type: "Dropout"
  bottom: "fc4_4"
  top: "fc4_4"
  dropout_param {
    dropout_ratio: 0.4
  }
}
layer {
  name: "fc4_5_67"
  type: "InnerProduct"
  bottom: "fc4_4"
  top: "fc4_5"
  inner_product_param {
    num_output: 67
    weight_filler {
      type: "xavier"
    }
  }
}
layer {
  name: "softmax_4"
  type: "Softmax"
  bottom: "fc4_5"
  top: "softmax_4"
}
layer {
  name: "data_1"
  type: "Data"
  top: "data_1"
  top: "label_1"
  include {
    phase: TRAIN
  }
  transform_param {
    mirror: false
    crop_size: 48
    mean_value: 122
    mean_value: 115
    mean_value: 128
  }
  data_param {
    source: "../local_data/lmdb/rtsd-r1/histeq/train/lmdb"
    batch_size: 128
    backend: LMDB
  }
}
layer {
  name: "conv5_0"
  type: "Convolution"
  bottom: "data_1"
  top: "conv5_0"
  convolution_param {
    num_output: 100
    pad: 0
    kernel_size: 7
    group: 1
    stride: 1
    weight_filler {
      type: "xavier"
    }
  }
}
layer {
  name: "conv5_0_prescale"
  type: "Scale"
  bottom: "conv5_0"
  top: "conv5_0"
  param {
    lr_mult: 0
    decay_mult: 0
  }
  scale_param {
    filler {
      value: 0.6666
    }
  }
}
layer {
  name: "conv5_0_sTanH"
  type: "TanH"
  bottom: "conv5_0"
  top: "conv5_0"
}
layer {
  name: "conv5_0_postscale"
  type: "Scale"
  bottom: "conv5_0"
  top: "conv5_0"
  param {
    lr_mult: 0
    decay_mult: 0
  }
  scale_param {
    filler {
      value: 1.7159
    }
  }
}
layer {
  name: "pool5_0"
  type: "Pooling"
  bottom: "conv5_0"
  top: "pool5_0"
  pooling_param {
    pool: MAX
    kernel_size: 2
    stride: 2
  }
}
layer {
  name: "conv5_1"
  type: "Convolution"
  bottom: "pool5_0"
  top: "conv5_1"
  convolution_param {
    num_output: 150
    pad: 0
    kernel_size: 4
    group: 1
    stride: 1
    weight_filler {
      type: "xavier"
    }
  }
}
layer {
  name: "conv5_1_prescale"
  type: "Scale"
  bottom: "conv5_1"
  top: "conv5_1"
  param {
    lr_mult: 0
    decay_mult: 0
  }
  scale_param {
    filler {
      value: 0.6666
    }
  }
}
layer {
  name: "conv5_1_sTanH"
  type: "TanH"
  bottom: "conv5_1"
  top: "conv5_1"
}
layer {
  name: "conv5_1_postscale"
  type: "Scale"
  bottom: "conv5_1"
  top: "conv5_1"
  param {
    lr_mult: 0
    decay_mult: 0
  }
  scale_param {
    filler {
      value: 1.7159
    }
  }
}
layer {
  name: "pool5_1"
  type: "Pooling"
  bottom: "conv5_1"
  top: "pool5_1"
  pooling_param {
    pool: MAX
    kernel_size: 2
    stride: 2
  }
}
layer {
  name: "conv5_2"
  type: "Convolution"
  bottom: "pool5_1"
  top: "conv5_2"
  convolution_param {
    num_output: 250
    pad: 0
    kernel_size: 4
    group: 1
    stride: 1
    weight_filler {
      type: "xavier"
    }
  }
}
layer {
  name: "conv5_2_prescale"
  type: "Scale"
  bottom: "conv5_2"
  top: "conv5_2"
  param {
    lr_mult: 0
    decay_mult: 0
  }
  scale_param {
    filler {
      value: 0.6666
    }
  }
}
layer {
  name: "conv5_2_sTanH"
  type: "TanH"
  bottom: "conv5_2"
  top: "conv5_2"
}
layer {
  name: "conv5_2_postscale"
  type: "Scale"
  bottom: "conv5_2"
  top: "conv5_2"
  param {
    lr_mult: 0
    decay_mult: 0
  }
  scale_param {
    filler {
      value: 1.7159
    }
  }
}
layer {
  name: "pool5_2"
  type: "Pooling"
  bottom: "conv5_2"
  top: "pool5_2"
  pooling_param {
    pool: MAX
    kernel_size: 2
    stride: 2
  }
}
layer {
  name: "fc5_4_300"
  type: "InnerProduct"
  bottom: "pool5_2"
  top: "fc5_4"
  inner_product_param {
    num_output: 300
    weight_filler {
      type: "xavier"
    }
  }
}
layer {
  name: "fc5_4_prescale"
  type: "Scale"
  bottom: "fc5_4"
  top: "fc5_4"
  param {
    lr_mult: 0
    decay_mult: 0
  }
  scale_param {
    filler {
      value: 0.6666
    }
  }
}
layer {
  name: "fc5_4_sTanH"
  type: "TanH"
  bottom: "fc5_4"
  top: "fc5_4"
}
layer {
  name: "fc5_4_postscale"
  type: "Scale"
  bottom: "fc5_4"
  top: "fc5_4"
  param {
    lr_mult: 0
    decay_mult: 0
  }
  scale_param {
    filler {
      value: 1.7159
    }
  }
}
layer {
  name: "drop5_4"
  type: "Dropout"
  bottom: "fc5_4"
  top: "fc5_4"
  dropout_param {
    dropout_ratio: 0.4
  }
}
layer {
  name: "fc5_5_67"
  type: "InnerProduct"
  bottom: "fc5_4"
  top: "fc5_5"
  inner_product_param {
    num_output: 67
    weight_filler {
      type: "xavier"
    }
  }
}
layer {
  name: "softmax_5"
  type: "Softmax"
  bottom: "fc5_5"
  top: "softmax_5"
}
layer {
  name: "conv6_0"
  type: "Convolution"
  bottom: "data_1"
  top: "conv6_0"
  convolution_param {
    num_output: 100
    pad: 0
    kernel_size: 7
    group: 1
    stride: 1
    weight_filler {
      type: "xavier"
    }
  }
}
layer {
  name: "conv6_0_prescale"
  type: "Scale"
  bottom: "conv6_0"
  top: "conv6_0"
  param {
    lr_mult: 0
    decay_mult: 0
  }
  scale_param {
    filler {
      value: 0.6666
    }
  }
}
layer {
  name: "conv6_0_sTanH"
  type: "TanH"
  bottom: "conv6_0"
  top: "conv6_0"
}
layer {
  name: "conv6_0_postscale"
  type: "Scale"
  bottom: "conv6_0"
  top: "conv6_0"
  param {
    lr_mult: 0
    decay_mult: 0
  }
  scale_param {
    filler {
      value: 1.7159
    }
  }
}
layer {
  name: "pool6_0"
  type: "Pooling"
  bottom: "conv6_0"
  top: "pool6_0"
  pooling_param {
    pool: MAX
    kernel_size: 2
    stride: 2
  }
}
layer {
  name: "conv6_1"
  type: "Convolution"
  bottom: "pool6_0"
  top: "conv6_1"
  convolution_param {
    num_output: 150
    pad: 0
    kernel_size: 4
    group: 1
    stride: 1
    weight_filler {
      type: "xavier"
    }
  }
}
layer {
  name: "conv6_1_prescale"
  type: "Scale"
  bottom: "conv6_1"
  top: "conv6_1"
  param {
    lr_mult: 0
    decay_mult: 0
  }
  scale_param {
    filler {
      value: 0.6666
    }
  }
}
layer {
  name: "conv6_1_sTanH"
  type: "TanH"
  bottom: "conv6_1"
  top: "conv6_1"
}
layer {
  name: "conv6_1_postscale"
  type: "Scale"
  bottom: "conv6_1"
  top: "conv6_1"
  param {
    lr_mult: 0
    decay_mult: 0
  }
  scale_param {
    filler {
      value: 1.7159
    }
  }
}
layer {
  name: "pool6_1"
  type: "Pooling"
  bottom: "conv6_1"
  top: "pool6_1"
  pooling_param {
    pool: MAX
    kernel_size: 2
    stride: 2
  }
}
layer {
  name: "conv6_2"
  type: "Convolution"
  bottom: "pool6_1"
  top: "conv6_2"
  convolution_param {
    num_output: 250
    pad: 0
    kernel_size: 4
    group: 1
    stride: 1
    weight_filler {
      type: "xavier"
    }
  }
}
layer {
  name: "conv6_2_prescale"
  type: "Scale"
  bottom: "conv6_2"
  top: "conv6_2"
  param {
    lr_mult: 0
    decay_mult: 0
  }
  scale_param {
    filler {
      value: 0.6666
    }
  }
}
layer {
  name: "conv6_2_sTanH"
  type: "TanH"
  bottom: "conv6_2"
  top: "conv6_2"
}
layer {
  name: "conv6_2_postscale"
  type: "Scale"
  bottom: "conv6_2"
  top: "conv6_2"
  param {
    lr_mult: 0
    decay_mult: 0
  }
  scale_param {
    filler {
      value: 1.7159
    }
  }
}
layer {
  name: "pool6_2"
  type: "Pooling"
  bottom: "conv6_2"
  top: "pool6_2"
  pooling_param {
    pool: MAX
    kernel_size: 2
    stride: 2
  }
}
layer {
  name: "fc6_4_300"
  type: "InnerProduct"
  bottom: "pool6_2"
  top: "fc6_4"
  inner_product_param {
    num_output: 300
    weight_filler {
      type: "xavier"
    }
  }
}
layer {
  name: "fc6_4_prescale"
  type: "Scale"
  bottom: "fc6_4"
  top: "fc6_4"
  param {
    lr_mult: 0
    decay_mult: 0
  }
  scale_param {
    filler {
      value: 0.6666
    }
  }
}
layer {
  name: "fc6_4_sTanH"
  type: "TanH"
  bottom: "fc6_4"
  top: "fc6_4"
}
layer {
  name: "fc6_4_postscale"
  type: "Scale"
  bottom: "fc6_4"
  top: "fc6_4"
  param {
    lr_mult: 0
    decay_mult: 0
  }
  scale_param {
    filler {
      value: 1.7159
    }
  }
}
layer {
  name: "drop6_4"
  type: "Dropout"
  bottom: "fc6_4"
  top: "fc6_4"
  dropout_param {
    dropout_ratio: 0.4
  }
}
layer {
  name: "fc6_5_67"
  type: "InnerProduct"
  bottom: "fc6_4"
  top: "fc6_5"
  inner_product_param {
    num_output: 67
    weight_filler {
      type: "xavier"
    }
  }
}
layer {
  name: "softmax_6"
  type: "Softmax"
  bottom: "fc6_5"
  top: "softmax_6"
}
layer {
  name: "conv7_0"
  type: "Convolution"
  bottom: "data_1"
  top: "conv7_0"
  convolution_param {
    num_output: 100
    pad: 0
    kernel_size: 7
    group: 1
    stride: 1
    weight_filler {
      type: "xavier"
    }
  }
}
layer {
  name: "conv7_0_prescale"
  type: "Scale"
  bottom: "conv7_0"
  top: "conv7_0"
  param {
    lr_mult: 0
    decay_mult: 0
  }
  scale_param {
    filler {
      value: 0.6666
    }
  }
}
layer {
  name: "conv7_0_sTanH"
  type: "TanH"
  bottom: "conv7_0"
  top: "conv7_0"
}
layer {
  name: "conv7_0_postscale"
  type: "Scale"
  bottom: "conv7_0"
  top: "conv7_0"
  param {
    lr_mult: 0
    decay_mult: 0
  }
  scale_param {
    filler {
      value: 1.7159
    }
  }
}
layer {
  name: "pool7_0"
  type: "Pooling"
  bottom: "conv7_0"
  top: "pool7_0"
  pooling_param {
    pool: MAX
    kernel_size: 2
    stride: 2
  }
}
layer {
  name: "conv7_1"
  type: "Convolution"
  bottom: "pool7_0"
  top: "conv7_1"
  convolution_param {
    num_output: 150
    pad: 0
    kernel_size: 4
    group: 1
    stride: 1
    weight_filler {
      type: "xavier"
    }
  }
}
layer {
  name: "conv7_1_prescale"
  type: "Scale"
  bottom: "conv7_1"
  top: "conv7_1"
  param {
    lr_mult: 0
    decay_mult: 0
  }
  scale_param {
    filler {
      value: 0.6666
    }
  }
}
layer {
  name: "conv7_1_sTanH"
  type: "TanH"
  bottom: "conv7_1"
  top: "conv7_1"
}
layer {
  name: "conv7_1_postscale"
  type: "Scale"
  bottom: "conv7_1"
  top: "conv7_1"
  param {
    lr_mult: 0
    decay_mult: 0
  }
  scale_param {
    filler {
      value: 1.7159
    }
  }
}
layer {
  name: "pool7_1"
  type: "Pooling"
  bottom: "conv7_1"
  top: "pool7_1"
  pooling_param {
    pool: MAX
    kernel_size: 2
    stride: 2
  }
}
layer {
  name: "conv7_2"
  type: "Convolution"
  bottom: "pool7_1"
  top: "conv7_2"
  convolution_param {
    num_output: 250
    pad: 0
    kernel_size: 4
    group: 1
    stride: 1
    weight_filler {
      type: "xavier"
    }
  }
}
layer {
  name: "conv7_2_prescale"
  type: "Scale"
  bottom: "conv7_2"
  top: "conv7_2"
  param {
    lr_mult: 0
    decay_mult: 0
  }
  scale_param {
    filler {
      value: 0.6666
    }
  }
}
layer {
  name: "conv7_2_sTanH"
  type: "TanH"
  bottom: "conv7_2"
  top: "conv7_2"
}
layer {
  name: "conv7_2_postscale"
  type: "Scale"
  bottom: "conv7_2"
  top: "conv7_2"
  param {
    lr_mult: 0
    decay_mult: 0
  }
  scale_param {
    filler {
      value: 1.7159
    }
  }
}
layer {
  name: "pool7_2"
  type: "Pooling"
  bottom: "conv7_2"
  top: "pool7_2"
  pooling_param {
    pool: MAX
    kernel_size: 2
    stride: 2
  }
}
layer {
  name: "fc7_4_300"
  type: "InnerProduct"
  bottom: "pool7_2"
  top: "fc7_4"
  inner_product_param {
    num_output: 300
    weight_filler {
      type: "xavier"
    }
  }
}
layer {
  name: "fc7_4_prescale"
  type: "Scale"
  bottom: "fc7_4"
  top: "fc7_4"
  param {
    lr_mult: 0
    decay_mult: 0
  }
  scale_param {
    filler {
      value: 0.6666
    }
  }
}
layer {
  name: "fc7_4_sTanH"
  type: "TanH"
  bottom: "fc7_4"
  top: "fc7_4"
}
layer {
  name: "fc7_4_postscale"
  type: "Scale"
  bottom: "fc7_4"
  top: "fc7_4"
  param {
    lr_mult: 0
    decay_mult: 0
  }
  scale_param {
    filler {
      value: 1.7159
    }
  }
}
layer {
  name: "drop7_4"
  type: "Dropout"
  bottom: "fc7_4"
  top: "fc7_4"
  dropout_param {
    dropout_ratio: 0.4
  }
}
layer {
  name: "fc7_5_67"
  type: "InnerProduct"
  bottom: "fc7_4"
  top: "fc7_5"
  inner_product_param {
    num_output: 67
    weight_filler {
      type: "xavier"
    }
  }
}
layer {
  name: "softmax_7"
  type: "Softmax"
  bottom: "fc7_5"
  top: "softmax_7"
}
layer {
  name: "conv8_0"
  type: "Convolution"
  bottom: "data_1"
  top: "conv8_0"
  convolution_param {
   
I0407 23:51:40.985277 26944 layer_factory.hpp:77] Creating layer data_0
I0407 23:51:40.985793 26944 net.cpp:100] Creating Layer data_0
I0407 23:51:40.985805 26944 net.cpp:408] data_0 -> data_0
I0407 23:51:40.985826 26944 net.cpp:408] data_0 -> label_0
I0407 23:51:40.987260 27003 db_lmdb.cpp:35] Opened lmdb ../local_data/lmdb/rtsd-r1/orig/train/lmdb
I0407 23:51:41.002660 26944 data_layer.cpp:41] output data size: 128,3,48,48
I0407 23:51:41.009896 26944 net.cpp:150] Setting up data_0
I0407 23:51:41.009913 26944 net.cpp:157] Top shape: 128 3 48 48 (884736)
I0407 23:51:41.009918 26944 net.cpp:157] Top shape: 128 (128)
I0407 23:51:41.009922 26944 net.cpp:165] Memory required for data: 3539456
I0407 23:51:41.009928 26944 layer_factory.hpp:77] Creating layer data_0_data_0_0_split
I0407 23:51:41.009938 26944 net.cpp:100] Creating Layer data_0_data_0_0_split
I0407 23:51:41.009943 26944 net.cpp:434] data_0_data_0_0_split <- data_0
I0407 23:51:41.009954 26944 net.cpp:408] data_0_data_0_0_split -> data_0_data_0_0_split_0
I0407 23:51:41.009963 26944 net.cpp:408] data_0_data_0_0_split -> data_0_data_0_0_split_1
I0407 23:51:41.009969 26944 net.cpp:408] data_0_data_0_0_split -> data_0_data_0_0_split_2
I0407 23:51:41.009976 26944 net.cpp:408] data_0_data_0_0_split -> data_0_data_0_0_split_3
I0407 23:51:41.009982 26944 net.cpp:408] data_0_data_0_0_split -> data_0_data_0_0_split_4
I0407 23:51:41.010105 26944 net.cpp:150] Setting up data_0_data_0_0_split
I0407 23:51:41.010115 26944 net.cpp:157] Top shape: 128 3 48 48 (884736)
I0407 23:51:41.010119 26944 net.cpp:157] Top shape: 128 3 48 48 (884736)
I0407 23:51:41.010123 26944 net.cpp:157] Top shape: 128 3 48 48 (884736)
I0407 23:51:41.010141 26944 net.cpp:157] Top shape: 128 3 48 48 (884736)
I0407 23:51:41.010146 26944 net.cpp:157] Top shape: 128 3 48 48 (884736)
I0407 23:51:41.010149 26944 net.cpp:165] Memory required for data: 21234176
I0407 23:51:41.010152 26944 layer_factory.hpp:77] Creating layer conv0_0
I0407 23:51:41.010169 26944 net.cpp:100] Creating Layer conv0_0
I0407 23:51:41.010174 26944 net.cpp:434] conv0_0 <- data_0_data_0_0_split_0
I0407 23:51:41.010179 26944 net.cpp:408] conv0_0 -> conv0_0
I0407 23:51:41.011828 27004 blocking_queue.cpp:50] Waiting for data
I0407 23:51:41.916366 26944 net.cpp:150] Setting up conv0_0
I0407 23:51:41.916399 26944 net.cpp:157] Top shape: 128 100 42 42 (22579200)
I0407 23:51:41.916404 26944 net.cpp:165] Memory required for data: 111550976
I0407 23:51:41.916427 26944 layer_factory.hpp:77] Creating layer conv0_0_prescale
I0407 23:51:41.916442 26944 net.cpp:100] Creating Layer conv0_0_prescale
I0407 23:51:41.916447 26944 net.cpp:434] conv0_0_prescale <- conv0_0
I0407 23:51:41.916455 26944 net.cpp:395] conv0_0_prescale -> conv0_0 (in-place)
I0407 23:51:41.916563 26944 net.cpp:150] Setting up conv0_0_prescale
I0407 23:51:41.916571 26944 net.cpp:157] Top shape: 128 100 42 42 (22579200)
I0407 23:51:41.916574 26944 net.cpp:165] Memory required for data: 201867776
I0407 23:51:41.916581 26944 layer_factory.hpp:77] Creating layer conv0_0_sTanH
I0407 23:51:41.916589 26944 net.cpp:100] Creating Layer conv0_0_sTanH
I0407 23:51:41.916594 26944 net.cpp:434] conv0_0_sTanH <- conv0_0
I0407 23:51:41.916599 26944 net.cpp:395] conv0_0_sTanH -> conv0_0 (in-place)
I0407 23:51:41.916788 26944 net.cpp:150] Setting up conv0_0_sTanH
I0407 23:51:41.916800 26944 net.cpp:157] Top shape: 128 100 42 42 (22579200)
I0407 23:51:41.916802 26944 net.cpp:165] Memory required for data: 292184576
I0407 23:51:41.916806 26944 layer_factory.hpp:77] Creating layer conv0_0_postscale
I0407 23:51:41.916813 26944 net.cpp:100] Creating Layer conv0_0_postscale
I0407 23:51:41.916818 26944 net.cpp:434] conv0_0_postscale <- conv0_0
I0407 23:51:41.916823 26944 net.cpp:395] conv0_0_postscale -> conv0_0 (in-place)
I0407 23:51:41.916911 26944 net.cpp:150] Setting up conv0_0_postscale
I0407 23:51:41.916919 26944 net.cpp:157] Top shape: 128 100 42 42 (22579200)
I0407 23:51:41.916923 26944 net.cpp:165] Memory required for data: 382501376
I0407 23:51:41.916927 26944 layer_factory.hpp:77] Creating layer pool0_0
I0407 23:51:41.916934 26944 net.cpp:100] Creating Layer pool0_0
I0407 23:51:41.916939 26944 net.cpp:434] pool0_0 <- conv0_0
I0407 23:51:41.916944 26944 net.cpp:408] pool0_0 -> pool0_0
I0407 23:51:41.916992 26944 net.cpp:150] Setting up pool0_0
I0407 23:51:41.917001 26944 net.cpp:157] Top shape: 128 100 21 21 (5644800)
I0407 23:51:41.917004 26944 net.cpp:165] Memory required for data: 405080576
I0407 23:51:41.917007 26944 layer_factory.hpp:77] Creating layer conv0_1
I0407 23:51:41.917016 26944 net.cpp:100] Creating Layer conv0_1
I0407 23:51:41.917021 26944 net.cpp:434] conv0_1 <- pool0_0
I0407 23:51:41.917026 26944 net.cpp:408] conv0_1 -> conv0_1
I0407 23:51:41.922358 26944 net.cpp:150] Setting up conv0_1
I0407 23:51:41.922374 26944 net.cpp:157] Top shape: 128 150 18 18 (6220800)
I0407 23:51:41.922377 26944 net.cpp:165] Memory required for data: 429963776
I0407 23:51:41.922387 26944 layer_factory.hpp:77] Creating layer conv0_1_prescale
I0407 23:51:41.922397 26944 net.cpp:100] Creating Layer conv0_1_prescale
I0407 23:51:41.922401 26944 net.cpp:434] conv0_1_prescale <- conv0_1
I0407 23:51:41.922406 26944 net.cpp:395] conv0_1_prescale -> conv0_1 (in-place)
I0407 23:51:41.922528 26944 net.cpp:150] Setting up conv0_1_prescale
I0407 23:51:41.922536 26944 net.cpp:157] Top shape: 128 150 18 18 (6220800)
I0407 23:51:41.922539 26944 net.cpp:165] Memory required for data: 454846976
I0407 23:51:41.922544 26944 layer_factory.hpp:77] Creating layer conv0_1_sTanH
I0407 23:51:41.922549 26944 net.cpp:100] Creating Layer conv0_1_sTanH
I0407 23:51:41.922554 26944 net.cpp:434] conv0_1_sTanH <- conv0_1
I0407 23:51:41.922580 26944 net.cpp:395] conv0_1_sTanH -> conv0_1 (in-place)
I0407 23:51:41.923452 26944 net.cpp:150] Setting up conv0_1_sTanH
I0407 23:51:41.923468 26944 net.cpp:157] Top shape: 128 150 18 18 (6220800)
I0407 23:51:41.923475 26944 net.cpp:165] Memory required for data: 479730176
I0407 23:51:41.923477 26944 layer_factory.hpp:77] Creating layer conv0_1_postscale
I0407 23:51:41.923485 26944 net.cpp:100] Creating Layer conv0_1_postscale
I0407 23:51:41.923491 26944 net.cpp:434] conv0_1_postscale <- conv0_1
I0407 23:51:41.923496 26944 net.cpp:395] conv0_1_postscale -> conv0_1 (in-place)
I0407 23:51:41.923594 26944 net.cpp:150] Setting up conv0_1_postscale
I0407 23:51:41.923604 26944 net.cpp:157] Top shape: 128 150 18 18 (6220800)
I0407 23:51:41.923606 26944 net.cpp:165] Memory required for data: 504613376
I0407 23:51:41.923611 26944 layer_factory.hpp:77] Creating layer pool0_1
I0407 23:51:41.923617 26944 net.cpp:100] Creating Layer pool0_1
I0407 23:51:41.923622 26944 net.cpp:434] pool0_1 <- conv0_1
I0407 23:51:41.923627 26944 net.cpp:408] pool0_1 -> pool0_1
I0407 23:51:41.923665 26944 net.cpp:150] Setting up pool0_1
I0407 23:51:41.923672 26944 net.cpp:157] Top shape: 128 150 9 9 (1555200)
I0407 23:51:41.923674 26944 net.cpp:165] Memory required for data: 510834176
I0407 23:51:41.923678 26944 layer_factory.hpp:77] Creating layer conv0_2
I0407 23:51:41.923686 26944 net.cpp:100] Creating Layer conv0_2
I0407 23:51:41.923691 26944 net.cpp:434] conv0_2 <- pool0_1
I0407 23:51:41.923697 26944 net.cpp:408] conv0_2 -> conv0_2
I0407 23:51:41.929209 26944 net.cpp:150] Setting up conv0_2
I0407 23:51:41.929226 26944 net.cpp:157] Top shape: 128 250 6 6 (1152000)
I0407 23:51:41.929230 26944 net.cpp:165] Memory required for data: 515442176
I0407 23:51:41.929241 26944 layer_factory.hpp:77] Creating layer conv0_2_prescale
I0407 23:51:41.929251 26944 net.cpp:100] Creating Layer conv0_2_prescale
I0407 23:51:41.929255 26944 net.cpp:434] conv0_2_prescale <- conv0_2
I0407 23:51:41.929260 26944 net.cpp:395] conv0_2_prescale -> conv0_2 (in-place)
I0407 23:51:41.929352 26944 net.cpp:150] Setting up conv0_2_prescale
I0407 23:51:41.929360 26944 net.cpp:157] Top shape: 128 250 6 6 (1152000)
I0407 23:51:41.929363 26944 net.cpp:165] Memory required for data: 520050176
I0407 23:51:41.929368 26944 layer_factory.hpp:77] Creating layer conv0_2_sTanH
I0407 23:51:41.929373 26944 net.cpp:100] Creating Layer conv0_2_sTanH
I0407 23:51:41.929376 26944 net.cpp:434] conv0_2_sTanH <- conv0_2
I0407 23:51:41.929381 26944 net.cpp:395] conv0_2_sTanH -> conv0_2 (in-place)
I0407 23:51:41.930739 26944 net.cpp:150] Setting up conv0_2_sTanH
I0407 23:51:41.930754 26944 net.cpp:157] Top shape: 128 250 6 6 (1152000)
I0407 23:51:41.930759 26944 net.cpp:165] Memory required for data: 524658176
I0407 23:51:41.930763 26944 layer_factory.hpp:77] Creating layer conv0_2_postscale
I0407 23:51:41.930770 26944 net.cpp:100] Creating Layer conv0_2_postscale
I0407 23:51:41.930775 26944 net.cpp:434] conv0_2_postscale <- conv0_2
I0407 23:51:41.930781 26944 net.cpp:395] conv0_2_postscale -> conv0_2 (in-place)
I0407 23:51:41.930873 26944 net.cpp:150] Setting up conv0_2_postscale
I0407 23:51:41.930881 26944 net.cpp:157] Top shape: 128 250 6 6 (1152000)
I0407 23:51:41.930884 26944 net.cpp:165] Memory required for data: 529266176
I0407 23:51:41.930891 26944 layer_factory.hpp:77] Creating layer pool0_2
I0407 23:51:41.930898 26944 net.cpp:100] Creating Layer pool0_2
I0407 23:51:41.930903 26944 net.cpp:434] pool0_2 <- conv0_2
I0407 23:51:41.930908 26944 net.cpp:408] pool0_2 -> pool0_2
I0407 23:51:41.930943 26944 net.cpp:150] Setting up pool0_2
I0407 23:51:41.930949 26944 net.cpp:157] Top shape: 128 250 3 3 (288000)
I0407 23:51:41.930953 26944 net.cpp:165] Memory required for data: 530418176
I0407 23:51:41.930955 26944 layer_factory.hpp:77] Creating layer fc0_4_300
I0407 23:51:41.930963 26944 net.cpp:100] Creating Layer fc0_4_300
I0407 23:51:41.930965 26944 net.cpp:434] fc0_4_300 <- pool0_2
I0407 23:51:41.930970 26944 net.cpp:408] fc0_4_300 -> fc0_4
I0407 23:51:41.936708 26944 net.cpp:150] Setting up fc0_4_300
I0407 23:51:41.936736 26944 net.cpp:157] Top shape: 128 300 (38400)
I0407 23:51:41.936753 26944 net.cpp:165] Memory required for data: 530571776
I0407 23:51:41.936759 26944 layer_factory.hpp:77] Creating layer fc0_4_prescale
I0407 23:51:41.936767 26944 net.cpp:100] Creating Layer fc0_4_prescale
I0407 23:51:41.936770 26944 net.cpp:434] fc0_4_prescale <- fc0_4
I0407 23:51:41.936776 26944 net.cpp:395] fc0_4_prescale -> fc0_4 (in-place)
I0407 23:51:41.936862 26944 net.cpp:150] Setting up fc0_4_prescale
I0407 23:51:41.936870 26944 net.cpp:157] Top shape: 128 300 (38400)
I0407 23:51:41.936873 26944 net.cpp:165] Memory required for data: 530725376
I0407 23:51:41.936878 26944 layer_factory.hpp:77] Creating layer fc0_4_sTanH
I0407 23:51:41.936884 26944 net.cpp:100] Creating Layer fc0_4_sTanH
I0407 23:51:41.936887 26944 net.cpp:434] fc0_4_sTanH <- fc0_4
I0407 23:51:41.936892 26944 net.cpp:395] fc0_4_sTanH -> fc0_4 (in-place)
I0407 23:51:41.937072 26944 net.cpp:150] Setting up fc0_4_sTanH
I0407 23:51:41.937081 26944 net.cpp:157] Top shape: 128 300 (38400)
I0407 23:51:41.937084 26944 net.cpp:165] Memory required for data: 530878976
I0407 23:51:41.937088 26944 layer_factory.hpp:77] Creating layer fc0_4_postscale
I0407 23:51:41.937094 26944 net.cpp:100] Creating Layer fc0_4_postscale
I0407 23:51:41.937098 26944 net.cpp:434] fc0_4_postscale <- fc0_4
I0407 23:51:41.937103 26944 net.cpp:395] fc0_4_postscale -> fc0_4 (in-place)
I0407 23:51:41.937192 26944 net.cpp:150] Setting up fc0_4_postscale
I0407 23:51:41.937199 26944 net.cpp:157] Top shape: 128 300 (38400)
I0407 23:51:41.937202 26944 net.cpp:165] Memory required for data: 531032576
I0407 23:51:41.937207 26944 layer_factory.hpp:77] Creating layer drop0_4
I0407 23:51:41.937213 26944 net.cpp:100] Creating Layer drop0_4
I0407 23:51:41.937216 26944 net.cpp:434] drop0_4 <- fc0_4
I0407 23:51:41.937221 26944 net.cpp:395] drop0_4 -> fc0_4 (in-place)
I0407 23:51:41.937242 26944 net.cpp:150] Setting up drop0_4
I0407 23:51:41.937248 26944 net.cpp:157] Top shape: 128 300 (38400)
I0407 23:51:41.937252 26944 net.cpp:165] Memory required for data: 531186176
I0407 23:51:41.937254 26944 layer_factory.hpp:77] Creating layer fc0_5_67
I0407 23:51:41.937260 26944 net.cpp:100] Creating Layer fc0_5_67
I0407 23:51:41.937264 26944 net.cpp:434] fc0_5_67 <- fc0_4
I0407 23:51:41.937269 26944 net.cpp:408] fc0_5_67 -> fc0_5
I0407 23:51:41.938653 26944 net.cpp:150] Setting up fc0_5_67
I0407 23:51:41.938668 26944 net.cpp:157] Top shape: 128 67 (8576)
I0407 23:51:41.938683 26944 net.cpp:165] Memory required for data: 531220480
I0407 23:51:41.938694 26944 layer_factory.hpp:77] Creating layer softmax_0
I0407 23:51:41.938700 26944 net.cpp:100] Creating Layer softmax_0
I0407 23:51:41.938704 26944 net.cpp:434] softmax_0 <- fc0_5
I0407 23:51:41.938709 26944 net.cpp:408] softmax_0 -> softmax_0
I0407 23:51:41.938947 26944 net.cpp:150] Setting up softmax_0
I0407 23:51:41.938959 26944 net.cpp:157] Top shape: 128 67 (8576)
I0407 23:51:41.938962 26944 net.cpp:165] Memory required for data: 531254784
I0407 23:51:41.938966 26944 layer_factory.hpp:77] Creating layer conv1_0
I0407 23:51:41.938976 26944 net.cpp:100] Creating Layer conv1_0
I0407 23:51:41.938980 26944 net.cpp:434] conv1_0 <- data_0_data_0_0_split_1
I0407 23:51:41.938987 26944 net.cpp:408] conv1_0 -> conv1_0
I0407 23:51:41.941421 26944 net.cpp:150] Setting up conv1_0
I0407 23:51:41.941437 26944 net.cpp:157] Top shape: 128 100 42 42 (22579200)
I0407 23:51:41.941442 26944 net.cpp:165] Memory required for data: 621571584
I0407 23:51:41.941448 26944 layer_factory.hpp:77] Creating layer conv1_0_prescale
I0407 23:51:41.941455 26944 net.cpp:100] Creating Layer conv1_0_prescale
I0407 23:51:41.941459 26944 net.cpp:434] conv1_0_prescale <- conv1_0
I0407 23:51:41.941465 26944 net.cpp:395] conv1_0_prescale -> conv1_0 (in-place)
I0407 23:51:41.941573 26944 net.cpp:150] Setting up conv1_0_prescale
I0407 23:51:41.941582 26944 net.cpp:157] Top shape: 128 100 42 42 (22579200)
I0407 23:51:41.941586 26944 net.cpp:165] Memory required for data: 711888384
I0407 23:51:41.941591 26944 layer_factory.hpp:77] Creating layer conv1_0_sTanH
I0407 23:51:41.941609 26944 net.cpp:100] Creating Layer conv1_0_sTanH
I0407 23:51:41.941614 26944 net.cpp:434] conv1_0_sTanH <- conv1_0
I0407 23:51:41.941619 26944 net.cpp:395] conv1_0_sTanH -> conv1_0 (in-place)
I0407 23:51:41.941798 26944 net.cpp:150] Setting up conv1_0_sTanH
I0407 23:51:41.941809 26944 net.cpp:157] Top shape: 128 100 42 42 (22579200)
I0407 23:51:41.941812 26944 net.cpp:165] Memory required for data: 802205184
I0407 23:51:41.941815 26944 layer_factory.hpp:77] Creating layer conv1_0_postscale
I0407 23:51:41.941823 26944 net.cpp:100] Creating Layer conv1_0_postscale
I0407 23:51:41.941828 26944 net.cpp:434] conv1_0_postscale <- conv1_0
I0407 23:51:41.941833 26944 net.cpp:395] conv1_0_postscale -> conv1_0 (in-place)
I0407 23:51:41.941931 26944 net.cpp:150] Setting up conv1_0_postscale
I0407 23:51:41.941938 26944 net.cpp:157] Top shape: 128 100 42 42 (22579200)
I0407 23:51:41.941941 26944 net.cpp:165] Memory required for data: 892521984
I0407 23:51:41.941946 26944 layer_factory.hpp:77] Creating layer pool1_0
I0407 23:51:41.941952 26944 net.cpp:100] Creating Layer pool1_0
I0407 23:51:41.941956 26944 net.cpp:434] pool1_0 <- conv1_0
I0407 23:51:41.941962 26944 net.cpp:408] pool1_0 -> pool1_0
I0407 23:51:41.942001 26944 net.cpp:150] Setting up pool1_0
I0407 23:51:41.942008 26944 net.cpp:157] Top shape: 128 100 21 21 (5644800)
I0407 23:51:41.942013 26944 net.cpp:165] Memory required for data: 915101184
I0407 23:51:41.942015 26944 layer_factory.hpp:77] Creating layer conv1_1
I0407 23:51:41.942023 26944 net.cpp:100] Creating Layer conv1_1
I0407 23:51:41.942028 26944 net.cpp:434] conv1_1 <- pool1_0
I0407 23:51:41.942032 26944 net.cpp:408] conv1_1 -> conv1_1
I0407 23:51:41.946233 26944 net.cpp:150] Setting up conv1_1
I0407 23:51:41.946249 26944 net.cpp:157] Top shape: 128 150 18 18 (6220800)
I0407 23:51:41.946252 26944 net.cpp:165] Memory required for data: 939984384
I0407 23:51:41.946259 26944 layer_factory.hpp:77] Creating layer conv1_1_prescale
I0407 23:51:41.946267 26944 net.cpp:100] Creating Layer conv1_1_prescale
I0407 23:51:41.946270 26944 net.cpp:434] conv1_1_prescale <- conv1_1
I0407 23:51:41.946276 26944 net.cpp:395] conv1_1_prescale -> conv1_1 (in-place)
I0407 23:51:41.946382 26944 net.cpp:150] Setting up conv1_1_prescale
I0407 23:51:41.946390 26944 net.cpp:157] Top shape: 128 150 18 18 (6220800)
I0407 23:51:41.946393 26944 net.cpp:165] Memory required for data: 964867584
I0407 23:51:41.946398 26944 layer_factory.hpp:77] Creating layer conv1_1_sTanH
I0407 23:51:41.946403 26944 net.cpp:100] Creating Layer conv1_1_sTanH
I0407 23:51:41.946406 26944 net.cpp:434] conv1_1_sTanH <- conv1_1
I0407 23:51:41.946411 26944 net.cpp:395] conv1_1_sTanH -> conv1_1 (in-place)
I0407 23:51:41.947324 26944 net.cpp:150] Setting up conv1_1_sTanH
I0407 23:51:41.947338 26944 net.cpp:157] Top shape: 128 150 18 18 (6220800)
I0407 23:51:41.947342 26944 net.cpp:165] Memory required for data: 989750784
I0407 23:51:41.947345 26944 layer_factory.hpp:77] Creating layer conv1_1_postscale
I0407 23:51:41.947357 26944 net.cpp:100] Creating Layer conv1_1_postscale
I0407 23:51:41.947361 26944 net.cpp:434] conv1_1_postscale <- conv1_1
I0407 23:51:41.947366 26944 net.cpp:395] conv1_1_postscale -> conv1_1 (in-place)
I0407 23:51:41.947468 26944 net.cpp:150] Setting up conv1_1_postscale
I0407 23:51:41.947477 26944 net.cpp:157] Top shape: 128 150 18 18 (6220800)
I0407 23:51:41.947480 26944 net.cpp:165] Memory required for data: 1014633984
I0407 23:51:41.947485 26944 layer_factory.hpp:77] Creating layer pool1_1
I0407 23:51:41.947491 26944 net.cpp:100] Creating Layer pool1_1
I0407 23:51:41.947494 26944 net.cpp:434] pool1_1 <- conv1_1
I0407 23:51:41.947500 26944 net.cpp:408] pool1_1 -> pool1_1
I0407 23:51:41.947540 26944 net.cpp:150] Setting up pool1_1
I0407 23:51:41.947546 26944 net.cpp:157] Top shape: 128 150 9 9 (1555200)
I0407 23:51:41.947549 26944 net.cpp:165] Memory required for data: 1020854784
I0407 23:51:41.947552 26944 layer_factory.hpp:77] Creating layer conv1_2
I0407 23:51:41.947561 26944 net.cpp:100] Creating Layer conv1_2
I0407 23:51:41.947578 26944 net.cpp:434] conv1_2 <- pool1_1
I0407 23:51:41.947585 26944 net.cpp:408] conv1_2 -> conv1_2
I0407 23:51:41.960959 26944 net.cpp:150] Setting up conv1_2
I0407 23:51:41.960978 26944 net.cpp:157] Top shape: 128 250 6 6 (1152000)
I0407 23:51:41.960981 26944 net.cpp:165] Memory required for data: 1025462784
I0407 23:51:41.960988 26944 layer_factory.hpp:77] Creating layer conv1_2_prescale
I0407 23:51:41.960996 26944 net.cpp:100] Creating Layer conv1_2_prescale
I0407 23:51:41.961000 26944 net.cpp:434] conv1_2_prescale <- conv1_2
I0407 23:51:41.961005 26944 net.cpp:395] conv1_2_prescale -> conv1_2 (in-place)
I0407 23:51:41.961109 26944 net.cpp:150] Setting up conv1_2_prescale
I0407 23:51:41.961118 26944 net.cpp:157] Top shape: 128 250 6 6 (1152000)
I0407 23:51:41.961122 26944 net.cpp:165] Memory required for data: 1030070784
I0407 23:51:41.961127 26944 layer_factory.hpp:77] Creating layer conv1_2_sTanH
I0407 23:51:41.961133 26944 net.cpp:100] Creating Layer conv1_2_sTanH
I0407 23:51:41.961135 26944 net.cpp:434] conv1_2_sTanH <- conv1_2
I0407 23:51:41.961140 26944 net.cpp:395] conv1_2_sTanH -> conv1_2 (in-place)
I0407 23:51:41.964648 26944 net.cpp:150] Setting up conv1_2_sTanH
I0407 23:51:41.964665 26944 net.cpp:157] Top shape: 128 250 6 6 (1152000)
I0407 23:51:41.964669 26944 net.cpp:165] Memory required for data: 1034678784
I0407 23:51:41.964673 26944 layer_factory.hpp:77] Creating layer conv1_2_postscale
I0407 23:51:41.964680 26944 net.cpp:100] Creating Layer conv1_2_postscale
I0407 23:51:41.964684 26944 net.cpp:434] conv1_2_postscale <- conv1_2
I0407 23:51:41.964690 26944 net.cpp:395] conv1_2_postscale -> conv1_2 (in-place)
I0407 23:51:41.964798 26944 net.cpp:150] Setting up conv1_2_postscale
I0407 23:51:41.964807 26944 net.cpp:157] Top shape: 128 250 6 6 (1152000)
I0407 23:51:41.964810 26944 net.cpp:165] Memory required for data: 1039286784
I0407 23:51:41.964817 26944 layer_factory.hpp:77] Creating layer pool1_2
I0407 23:51:41.964823 26944 net.cpp:100] Creating Layer pool1_2
I0407 23:51:41.964828 26944 net.cpp:434] pool1_2 <- conv1_2
I0407 23:51:41.964833 26944 net.cpp:408] pool1_2 -> pool1_2
I0407 23:51:41.964865 26944 net.cpp:150] Setting up pool1_2
I0407 23:51:41.964874 26944 net.cpp:157] Top shape: 128 250 3 3 (288000)
I0407 23:51:41.964876 26944 net.cpp:165] Memory required for data: 1040438784
I0407 23:51:41.964879 26944 layer_factory.hpp:77] Creating layer fc1_4_300
I0407 23:51:41.964885 26944 net.cpp:100] Creating Layer fc1_4_300
I0407 23:51:41.964889 26944 net.cpp:434] fc1_4_300 <- pool1_2
I0407 23:51:41.964893 26944 net.cpp:408] fc1_4_300 -> fc1_4
I0407 23:51:41.970582 26944 net.cpp:150] Setting up fc1_4_300
I0407 23:51:41.970597 26944 net.cpp:157] Top shape: 128 300 (38400)
I0407 23:51:41.970600 26944 net.cpp:165] Memory required for data: 1040592384
I0407 23:51:41.970607 26944 layer_factory.hpp:77] Creating layer fc1_4_prescale
I0407 23:51:41.970614 26944 net.cpp:100] Creating Layer fc1_4_prescale
I0407 23:51:41.970618 26944 net.cpp:434] fc1_4_prescale <- fc1_4
I0407 23:51:41.970623 26944 net.cpp:395] fc1_4_prescale -> fc1_4 (in-place)
I0407 23:51:41.970708 26944 net.cpp:150] Setting up fc1_4_prescale
I0407 23:51:41.970716 26944 net.cpp:157] Top shape: 128 300 (38400)
I0407 23:51:41.970719 26944 net.cpp:165] Memory required for data: 1040745984
I0407 23:51:41.970728 26944 layer_factory.hpp:77] Creating layer fc1_4_sTanH
I0407 23:51:41.970733 26944 net.cpp:100] Creating Layer fc1_4_sTanH
I0407 23:51:41.970736 26944 net.cpp:434] fc1_4_sTanH <- fc1_4
I0407 23:51:41.970741 26944 net.cpp:395] fc1_4_sTanH -> fc1_4 (in-place)
I0407 23:51:41.970921 26944 net.cpp:150] Setting up fc1_4_sTanH
I0407 23:51:41.970932 26944 net.cpp:157] Top shape: 128 300 (38400)
I0407 23:51:41.970934 26944 net.cpp:165] Memory required for data: 1040899584
I0407 23:51:41.970937 26944 layer_factory.hpp:77] Creating layer fc1_4_postscale
I0407 23:51:41.970944 26944 net.cpp:100] Creating Layer fc1_4_postscale
I0407 23:51:41.970947 26944 net.cpp:434] fc1_4_postscale <- fc1_4
I0407 23:51:41.970965 26944 net.cpp:395] fc1_4_postscale -> fc1_4 (in-place)
I0407 23:51:41.971058 26944 net.cpp:150] Setting up fc1_4_postscale
I0407 23:51:41.971066 26944 net.cpp:157] Top shape: 128 300 (38400)
I0407 23:51:41.971068 26944 net.cpp:165] Memory required for data: 1041053184
I0407 23:51:41.971073 26944 layer_factory.hpp:77] Creating layer drop1_4
I0407 23:51:41.971079 26944 net.cpp:100] Creating Layer drop1_4
I0407 23:51:41.971082 26944 net.cpp:434] drop1_4 <- fc1_4
I0407 23:51:41.971087 26944 net.cpp:395] drop1_4 -> fc1_4 (in-place)
I0407 23:51:41.971104 26944 net.cpp:150] Setting up drop1_4
I0407 23:51:41.971112 26944 net.cpp:157] Top shape: 128 300 (38400)
I0407 23:51:41.971113 26944 net.cpp:165] Memory required for data: 1041206784
I0407 23:51:41.971117 26944 layer_factory.hpp:77] Creating layer fc1_5_67
I0407 23:51:41.971122 26944 net.cpp:100] Creating Layer fc1_5_67
I0407 23:51:41.971124 26944 net.cpp:434] fc1_5_67 <- fc1_4
I0407 23:51:41.971129 26944 net.cpp:408] fc1_5_67 -> fc1_5
I0407 23:51:41.971376 26944 net.cpp:150] Setting up fc1_5_67
I0407 23:51:41.971385 26944 net.cpp:157] Top shape: 128 67 (8576)
I0407 23:51:41.971388 26944 net.cpp:165] Memory required for data: 1041241088
I0407 23:51:41.971395 26944 layer_factory.hpp:77] Creating layer softmax_1
I0407 23:51:41.971400 26944 net.cpp:100] Creating Layer softmax_1
I0407 23:51:41.971403 26944 net.cpp:434] softmax_1 <- fc1_5
I0407 23:51:41.971408 26944 net.cpp:408] softmax_1 -> softmax_1
I0407 23:51:41.971640 26944 net.cpp:150] Setting up softmax_1
I0407 23:51:41.971652 26944 net.cpp:157] Top shape: 128 67 (8576)
I0407 23:51:41.971654 26944 net.cpp:165] Memory required for data: 1041275392
I0407 23:51:41.971658 26944 layer_factory.hpp:77] Creating layer conv2_0
I0407 23:51:41.971668 26944 net.cpp:100] Creating Layer conv2_0
I0407 23:51:41.971671 26944 net.cpp:434] conv2_0 <- data_0_data_0_0_split_2
I0407 23:51:41.971678 26944 net.cpp:408] conv2_0 -> conv2_0
I0407 23:51:41.973191 26944 net.cpp:150] Setting up conv2_0
I0407 23:51:41.973208 26944 net.cpp:157] Top shape: 128 100 42 42 (22579200)
I0407 23:51:41.973212 26944 net.cpp:165] Memory required for data: 1131592192
I0407 23:51:41.973219 26944 layer_factory.hpp:77] Creating layer conv2_0_prescale
I0407 23:51:41.973227 26944 net.cpp:100] Creating Layer conv2_0_prescale
I0407 23:51:41.973230 26944 net.cpp:434] conv2_0_prescale <- conv2_0
I0407 23:51:41.973237 26944 net.cpp:395] conv2_0_prescale -> conv2_0 (in-place)
I0407 23:51:41.973336 26944 net.cpp:150] Setting up conv2_0_prescale
I0407 23:51:41.973345 26944 net.cpp:157] Top shape: 128 100 42 42 (22579200)
I0407 23:51:41.973348 26944 net.cpp:165] Memory required for data: 1221908992
I0407 23:51:41.973353 26944 layer_factory.hpp:77] Creating layer conv2_0_sTanH
I0407 23:51:41.973358 26944 net.cpp:100] Creating Layer conv2_0_sTanH
I0407 23:51:41.973362 26944 net.cpp:434] conv2_0_sTanH <- conv2_0
I0407 23:51:41.973366 26944 net.cpp:395] conv2_0_sTanH -> conv2_0 (in-place)
I0407 23:51:41.973546 26944 net.cpp:150] Setting up conv2_0_sTanH
I0407 23:51:41.973556 26944 net.cpp:157] Top shape: 128 100 42 42 (22579200)
I0407 23:51:41.973559 26944 net.cpp:165] Memory required for data: 1312225792
I0407 23:51:41.973563 26944 layer_factory.hpp:77] Creating layer conv2_0_postscale
I0407 23:51:41.973570 26944 net.cpp:100] Creating Layer conv2_0_postscale
I0407 23:51:41.973573 26944 net.cpp:434] conv2_0_postscale <- conv2_0
I0407 23:51:41.973578 26944 net.cpp:395] conv2_0_postscale -> conv2_0 (in-place)
I0407 23:51:41.973678 26944 net.cpp:150] Setting up conv2_0_postscale
I0407 23:51:41.973687 26944 net.cpp:157] Top shape: 128 100 42 42 (22579200)
I0407 23:51:41.973690 26944 net.cpp:165] Memory required for data: 1402542592
I0407 23:51:41.973695 26944 layer_factory.hpp:77] Creating layer pool2_0
I0407 23:51:41.973701 26944 net.cpp:100] Creating Layer pool2_0
I0407 23:51:41.973704 26944 net.cpp:434] pool2_0 <- conv2_0
I0407 23:51:41.973709 26944 net.cpp:408] pool2_0 -> pool2_0
I0407 23:51:41.973747 26944 net.cpp:150] Setting up pool2_0
I0407 23:51:41.973755 26944 net.cpp:157] Top shape: 128 100 21 21 (5644800)
I0407 23:51:41.973772 26944 net.cpp:165] Memory required for data: 1425121792
I0407 23:51:41.973775 26944 layer_factory.hpp:77] Creating layer conv2_1
I0407 23:51:41.973784 26944 net.cpp:100] Creating Layer conv2_1
I0407 23:51:41.973788 26944 net.cpp:434] conv2_1 <- pool2_0
I0407 23:51:41.973793 26944 net.cpp:408] conv2_1 -> conv2_1
I0407 23:51:41.977581 26944 net.cpp:150] Setting up conv2_1
I0407 23:51:41.977598 26944 net.cpp:157] Top shape: 128 150 18 18 (6220800)
I0407 23:51:41.977602 26944 net.cpp:165] Memory required for data: 1450004992
I0407 23:51:41.977608 26944 layer_factory.hpp:77] Creating layer conv2_1_prescale
I0407 23:51:41.977617 26944 net.cpp:100] Creating Layer conv2_1_prescale
I0407 23:51:41.977619 26944 net.cpp:434] conv2_1_prescale <- conv2_1
I0407 23:51:41.977625 26944 net.cpp:395] conv2_1_prescale -> conv2_1 (in-place)
I0407 23:51:41.977733 26944 net.cpp:150] Setting up conv2_1_prescale
I0407 23:51:41.977743 26944 net.cpp:157] Top shape: 128 150 18 18 (6220800)
I0407 23:51:41.977746 26944 net.cpp:165] Memory required for data: 1474888192
I0407 23:51:41.977751 26944 layer_factory.hpp:77] Creating layer conv2_1_sTanH
I0407 23:51:41.977756 26944 net.cpp:100] Creating Layer conv2_1_sTanH
I0407 23:51:41.977761 26944 net.cpp:434] conv2_1_sTanH <- conv2_1
I0407 23:51:41.977764 26944 net.cpp:395] conv2_1_sTanH -> conv2_1 (in-place)
I0407 23:51:41.978551 26944 net.cpp:150] Setting up conv2_1_sTanH
I0407 23:51:41.978566 26944 net.cpp:157] Top shape: 128 150 18 18 (6220800)
I0407 23:51:41.978581 26944 net.cpp:165] Memory required for data: 1499771392
I0407 23:51:41.978586 26944 layer_factory.hpp:77] Creating layer conv2_1_postscale
I0407 23:51:41.978605 26944 net.cpp:100] Creating Layer conv2_1_postscale
I0407 23:51:41.978608 26944 net.cpp:434] conv2_1_postscale <- conv2_1
I0407 23:51:41.978615 26944 net.cpp:395] conv2_1_postscale -> conv2_1 (in-place)
I0407 23:51:41.978726 26944 net.cpp:150] Setting up conv2_1_postscale
I0407 23:51:41.978736 26944 net.cpp:157] Top shape: 128 150 18 18 (6220800)
I0407 23:51:41.978739 26944 net.cpp:165] Memory required for data: 1524654592
I0407 23:51:41.978744 26944 layer_factory.hpp:77] Creating layer pool2_1
I0407 23:51:41.978750 26944 net.cpp:100] Creating Layer pool2_1
I0407 23:51:41.978754 26944 net.cpp:434] pool2_1 <- conv2_1
I0407 23:51:41.978759 26944 net.cpp:408] pool2_1 -> pool2_1
I0407 23:51:41.978798 26944 net.cpp:150] Setting up pool2_1
I0407 23:51:41.978806 26944 net.cpp:157] Top shape: 128 150 9 9 (1555200)
I0407 23:51:41.978809 26944 net.cpp:165] Memory required for data: 1530875392
I0407 23:51:41.978812 26944 layer_factory.hpp:77] Creating layer conv2_2
I0407 23:51:41.978819 26944 net.cpp:100] Creating Layer conv2_2
I0407 23:51:41.978823 26944 net.cpp:434] conv2_2 <- pool2_1
I0407 23:51:41.978828 26944 net.cpp:408] conv2_2 -> conv2_2
I0407 23:51:41.984215 26944 net.cpp:150] Setting up conv2_2
I0407 23:51:41.984232 26944 net.cpp:157] Top shape: 128 250 6 6 (1152000)
I0407 23:51:41.984236 26944 net.cpp:165] Memory required for data: 1535483392
I0407 23:51:41.984242 26944 layer_factory.hpp:77] Creating layer conv2_2_prescale
I0407 23:51:41.984251 26944 net.cpp:100] Creating Layer conv2_2_prescale
I0407 23:51:41.984253 26944 net.cpp:434] conv2_2_prescale <- conv2_2
I0407 23:51:41.984259 26944 net.cpp:395] conv2_2_prescale -> conv2_2 (in-place)
I0407 23:51:41.984354 26944 net.cpp:150] Setting up conv2_2_prescale
I0407 23:51:41.984361 26944 net.cpp:157] Top shape: 128 250 6 6 (1152000)
I0407 23:51:41.984364 26944 net.cpp:165] Memory required for data: 1540091392
I0407 23:51:41.984369 26944 layer_factory.hpp:77] Creating layer conv2_2_sTanH
I0407 23:51:41.984375 26944 net.cpp:100] Creating Layer conv2_2_sTanH
I0407 23:51:41.984377 26944 net.cpp:434] conv2_2_sTanH <- conv2_2
I0407 23:51:41.984381 26944 net.cpp:395] conv2_2_sTanH -> conv2_2 (in-place)
I0407 23:51:41.985119 26944 net.cpp:150] Setting up conv2_2_sTanH
I0407 23:51:41.985133 26944 net.cpp:157] Top shape: 128 250 6 6 (1152000)
I0407 23:51:41.985137 26944 net.cpp:165] Memory required for data: 1544699392
I0407 23:51:41.985153 26944 layer_factory.hpp:77] Creating layer conv2_2_postscale
I0407 23:51:41.985162 26944 net.cpp:100] Creating Layer conv2_2_postscale
I0407 23:51:41.985165 26944 net.cpp:434] conv2_2_postscale <- conv2_2
I0407 23:51:41.985170 26944 net.cpp:395] conv2_2_postscale -> conv2_2 (in-place)
I0407 23:51:41.985278 26944 net.cpp:150] Setting up conv2_2_postscale
I0407 23:51:41.985287 26944 net.cpp:157] Top shape: 128 250 6 6 (1152000)
I0407 23:51:41.985291 26944 net.cpp:165] Memory required for data: 1549307392
I0407 23:51:41.985296 26944 layer_factory.hpp:77] Creating layer pool2_2
I0407 23:51:41.985301 26944 net.cpp:100] Creating Layer pool2_2
I0407 23:51:41.985304 26944 net.cpp:434] pool2_2 <- conv2_2
I0407 23:51:41.985309 26944 net.cpp:408] pool2_2 -> pool2_2
I0407 23:51:41.985345 26944 net.cpp:150] Setting up pool2_2
I0407 23:51:41.985352 26944 net.cpp:157] Top shape: 128 250 3 3 (288000)
I0407 23:51:41.985355 26944 net.cpp:165] Memory required for data: 1550459392
I0407 23:51:41.985358 26944 layer_factory.hpp:77] Creating layer fc2_4_300
I0407 23:51:41.985364 26944 net.cpp:100] Creating Layer fc2_4_300
I0407 23:51:41.985368 26944 net.cpp:434] fc2_4_300 <- pool2_2
I0407 23:51:41.985373 26944 net.cpp:408] fc2_4_300 -> fc2_4
I0407 23:51:41.990556 26944 net.cpp:150] Setting up fc2_4_300
I0407 23:51:41.990571 26944 net.cpp:157] Top shape: 128 300 (38400)
I0407 23:51:41.990574 26944 net.cpp:165] Memory required for data: 1550612992
I0407 23:51:41.990581 26944 layer_factory.hpp:77] Creating layer fc2_4_prescale
I0407 23:51:41.990587 26944 net.cpp:100] Creating Layer fc2_4_prescale
I0407 23:51:41.990592 26944 net.cpp:434] fc2_4_prescale <- fc2_4
I0407 23:51:41.990597 26944 net.cpp:395] fc2_4_prescale -> fc2_4 (in-place)
I0407 23:51:41.990685 26944 net.cpp:150] Setting up fc2_4_prescale
I0407 23:51:41.990692 26944 net.cpp:157] Top shape: 128 300 (38400)
I0407 23:51:41.990695 26944 net.cpp:165] Memory required for data: 1550766592
I0407 23:51:41.990700 26944 layer_factory.hpp:77] Creating layer fc2_4_sTanH
I0407 23:51:41.990705 26944 net.cpp:100] Creating Layer fc2_4_sTanH
I0407 23:51:41.990707 26944 net.cpp:434] fc2_4_sTanH <- fc2_4
I0407 23:51:41.990711 26944 net.cpp:395] fc2_4_sTanH -> fc2_4 (in-place)
I0407 23:51:41.990891 26944 net.cpp:150] Setting up fc2_4_sTanH
I0407 23:51:41.990902 26944 net.cpp:157] Top shape: 128 300 (38400)
I0407 23:51:41.990906 26944 net.cpp:165] Memory required for data: 1550920192
I0407 23:51:41.990908 26944 layer_factory.hpp:77] Creating layer fc2_4_postscale
I0407 23:51:41.990921 26944 net.cpp:100] Creating Layer fc2_4_postscale
I0407 23:51:41.990926 26944 net.cpp:434] fc2_4_postscale <- fc2_4
I0407 23:51:41.990931 26944 net.cpp:395] fc2_4_postscale -> fc2_4 (in-place)
I0407 23:51:41.991024 26944 net.cpp:150] Setting up fc2_4_postscale
I0407 23:51:41.991031 26944 net.cpp:157] Top shape: 128 300 (38400)
I0407 23:51:41.991034 26944 net.cpp:165] Memory required for data: 1551073792
I0407 23:51:41.991039 26944 layer_factory.hpp:77] Creating layer drop2_4
I0407 23:51:41.991045 26944 net.cpp:100] Creating Layer drop2_4
I0407 23:51:41.991049 26944 net.cpp:434] drop2_4 <- fc2_4
I0407 23:51:41.991052 26944 net.cpp:395] drop2_4 -> fc2_4 (in-place)
I0407 23:51:41.991071 26944 net.cpp:150] Setting up drop2_4
I0407 23:51:41.991077 26944 net.cpp:157] Top shape: 128 300 (38400)
I0407 23:51:41.991080 26944 net.cpp:165] Memory required for data: 1551227392
I0407 23:51:41.991083 26944 layer_factory.hpp:77] Creating layer fc2_5_67
I0407 23:51:41.991088 26944 net.cpp:100] Creating Layer fc2_5_67
I0407 23:51:41.991091 26944 net.cpp:434] fc2_5_67 <- fc2_4
I0407 23:51:41.991096 26944 net.cpp:408] fc2_5_67 -> fc2_5
I0407 23:51:41.991353 26944 net.cpp:150] Setting up fc2_5_67
I0407 23:51:41.991364 26944 net.cpp:157] Top shape: 128 67 (8576)
I0407 23:51:41.991366 26944 net.cpp:165] Memory required for data: 1551261696
I0407 23:51:41.991372 26944 layer_factory.hpp:77] Creating layer softmax_2
I0407 23:51:41.991377 26944 net.cpp:100] Creating Layer softmax_2
I0407 23:51:41.991394 26944 net.cpp:434] softmax_2 <- fc2_5
I0407 23:51:41.991400 26944 net.cpp:408] softmax_2 -> softmax_2
I0407 23:51:41.991637 26944 net.cpp:150] Setting up softmax_2
I0407 23:51:41.991649 26944 net.cpp:157] Top shape: 128 67 (8576)
I0407 23:51:41.991652 26944 net.cpp:165] Memory required for data: 1551296000
I0407 23:51:41.991655 26944 layer_factory.hpp:77] Creating layer conv3_0
I0407 23:51:41.991664 26944 net.cpp:100] Creating Layer conv3_0
I0407 23:51:41.991668 26944 net.cpp:434] conv3_0 <- data_0_data_0_0_split_3
I0407 23:51:41.991674 26944 net.cpp:408] conv3_0 -> conv3_0
I0407 23:51:41.993142 26944 net.cpp:150] Setting up conv3_0
I0407 23:51:41.993160 26944 net.cpp:157] Top shape: 128 100 42 42 (22579200)
I0407 23:51:41.993163 26944 net.cpp:165] Memory required for data: 1641612800
I0407 23:51:41.993170 26944 layer_factory.hpp:77] Creating layer conv3_0_prescale
I0407 23:51:41.993178 26944 net.cpp:100] Creating Layer conv3_0_prescale
I0407 23:51:41.993181 26944 net.cpp:434] conv3_0_prescale <- conv3_0
I0407 23:51:41.993187 26944 net.cpp:395] conv3_0_prescale -> conv3_0 (in-place)
I0407 23:51:41.993288 26944 net.cpp:150] Setting up conv3_0_prescale
I0407 23:51:41.993296 26944 net.cpp:157] Top shape: 128 100 42 42 (22579200)
I0407 23:51:41.993299 26944 net.cpp:165] Memory required for data: 1731929600
I0407 23:51:41.993304 26944 layer_factory.hpp:77] Creating layer conv3_0_sTanH
I0407 23:51:41.993309 26944 net.cpp:100] Creating Layer conv3_0_sTanH
I0407 23:51:41.993311 26944 net.cpp:434] conv3_0_sTanH <- conv3_0
I0407 23:51:41.993316 26944 net.cpp:395] conv3_0_sTanH -> conv3_0 (in-place)
I0407 23:51:41.993516 26944 net.cpp:150] Setting up conv3_0_sTanH
I0407 23:51:41.993527 26944 net.cpp:157] Top shape: 128 100 42 42 (22579200)
I0407 23:51:41.993530 26944 net.cpp:165] Memory required for data: 1822246400
I0407 23:51:41.993533 26944 layer_factory.hpp:77] Creating layer conv3_0_postscale
I0407 23:51:41.993541 26944 net.cpp:100] Creating Layer conv3_0_postscale
I0407 23:51:41.993544 26944 net.cpp:434] conv3_0_postscale <- conv3_0
I0407 23:51:41.993553 26944 net.cpp:395] conv3_0_postscale -> conv3_0 (in-place)
I0407 23:51:41.993666 26944 net.cpp:150] Setting up conv3_0_postscale
I0407 23:51:41.993676 26944 net.cpp:157] Top shape: 128 100 42 42 (22579200)
I0407 23:51:41.993680 26944 net.cpp:165] Memory required for data: 1912563200
I0407 23:51:41.993683 26944 layer_factory.hpp:77] Creating layer pool3_0
I0407 23:51:41.993690 26944 net.cpp:100] Creating Layer pool3_0
I0407 23:51:41.993693 26944 net.cpp:434] pool3_0 <- conv3_0
I0407 23:51:41.993700 26944 net.cpp:408] pool3_0 -> pool3_0
I0407 23:51:41.993743 26944 net.cpp:150] Setting up pool3_0
I0407 23:51:41.993752 26944 net.cpp:157] Top shape: 128 100 21 21 (5644800)
I0407 23:51:41.993757 26944 net.cpp:165] Memory required for data: 1935142400
I0407 23:51:41.993759 26944 layer_factory.hpp:77] Creating layer conv3_1
I0407 23:51:41.993768 26944 net.cpp:100] Creating Layer conv3_1
I0407 23:51:41.993772 26944 net.cpp:434] conv3_1 <- pool3_0
I0407 23:51:41.993777 26944 net.cpp:408] conv3_1 -> conv3_1
I0407 23:51:41.996603 26944 net.cpp:150] Setting up conv3_1
I0407 23:51:41.996618 26944 net.cpp:157] Top shape: 128 150 18 18 (6220800)
I0407 23:51:41.996623 26944 net.cpp:165] Memory required for data: 1960025600
I0407 23:51:41.996628 26944 layer_factory.hpp:77] Creating layer conv3_1_prescale
I0407 23:51:41.996637 26944 net.cpp:100] Creating Layer conv3_1_prescale
I0407 23:51:41.996641 26944 net.cpp:434] conv3_1_prescale <- conv3_1
I0407 23:51:41.996647 26944 net.cpp:395] conv3_1_prescale -> conv3_1 (in-place)
I0407 23:51:41.996750 26944 net.cpp:150] Setting up conv3_1_prescale
I0407 23:51:41.996759 26944 net.cpp:157] Top shape: 128 150 18 18 (6220800)
I0407 23:51:41.996762 26944 net.cpp:165] Memory required for data: 1984908800
I0407 23:51:41.996767 26944 layer_factory.hpp:77] Creating layer conv3_1_sTanH
I0407 23:51:41.996772 26944 net.cpp:100] Creating Layer conv3_1_sTanH
I0407 23:51:41.996775 26944 net.cpp:434] conv3_1_sTanH <- conv3_1
I0407 23:51:41.996780 26944 net.cpp:395] conv3_1_sTanH -> conv3_1 (in-place)
I0407 23:51:41.997545 26944 net.cpp:150] Setting up conv3_1_sTanH
I0407 23:51:41.997560 26944 net.cpp:157] Top shape: 128 150 18 18 (6220800)
I0407 23:51:41.997575 26944 net.cpp:165] Memory required for data: 2009792000
I0407 23:51:41.997580 26944 layer_factory.hpp:77] Creating layer conv3_1_postscale
I0407 23:51:41.997588 26944 net.cpp:100] Creating Layer conv3_1_postscale
I0407 23:51:41.997591 26944 net.cpp:434] conv3_1_postscale <- conv3_1
I0407 23:51:41.997597 26944 net.cpp:395] conv3_1_postscale -> conv3_1 (in-place)
I0407 23:51:41.997709 26944 net.cpp:150] Setting up conv3_1_postscale
I0407 23:51:41.997720 26944 net.cpp:157] Top shape: 128 150 18 18 (6220800)
I0407 23:51:41.997722 26944 net.cpp:165] Memory required for data: 2034675200
I0407 23:51:41.997727 26944 layer_factory.hpp:77] Creating layer pool3_1
I0407 23:51:41.997735 26944 net.cpp:100] Creating Layer pool3_1
I0407 23:51:41.997737 26944 net.cpp:434] pool3_1 <- conv3_1
I0407 23:51:41.997742 26944 net.cpp:408] pool3_1 -> pool3_1
I0407 23:51:41.997788 26944 net.cpp:150] Setting up pool3_1
I0407 23:51:41.997795 26944 net.cpp:157] Top shape: 128 150 9 9 (1555200)
I0407 23:51:41.997799 26944 net.cpp:165] Memory required for data: 2040896000
I0407 23:51:41.997802 26944 layer_factory.hpp:77] Creating layer conv3_2
I0407 23:51:41.997812 26944 net.cpp:100] Creating Layer conv3_2
I0407 23:51:41.997815 26944 net.cpp:434] conv3_2 <- pool3_1
I0407 23:51:41.997824 26944 net.cpp:408] conv3_2 -> conv3_2
I0407 23:51:42.003875 26944 net.cpp:150] Setting up conv3_2
I0407 23:51:42.003911 26944 net.cpp:157] Top shape: 128 250 6 6 (1152000)
I0407 23:51:42.003914 26944 net.cpp:165] Memory required for data: 2045504000
I0407 23:51:42.003921 26944 layer_factory.hpp:77] Creating layer conv3_2_prescale
I0407 23:51:42.003928 26944 net.cpp:100] Creating Layer conv3_2_prescale
I0407 23:51:42.003932 26944 net.cpp:434] conv3_2_prescale <- conv3_2
I0407 23:51:42.003939 26944 net.cpp:395] conv3_2_prescale -> conv3_2 (in-place)
I0407 23:51:42.004046 26944 net.cpp:150] Setting up conv3_2_prescale
I0407 23:51:42.004056 26944 net.cpp:157] Top shape: 128 250 6 6 (1152000)
I0407 23:51:42.004060 26944 net.cpp:165] Memory required for data: 2050112000
I0407 23:51:42.004073 26944 layer_factory.hpp:77] Creating layer conv3_2_sTanH
I0407 23:51:42.004082 26944 net.cpp:100] Creating Layer conv3_2_sTanH
I0407 23:51:42.004086 26944 net.cpp:434] conv3_2_sTanH <- conv3_2
I0407 23:51:42.004091 26944 net.cpp:395] conv3_2_sTanH -> conv3_2 (in-place)
I0407 23:51:42.004281 26944 net.cpp:150] Setting up conv3_2_sTanH
I0407 23:51:42.004292 26944 net.cpp:157] Top shape: 128 250 6 6 (1152000)
I0407 23:51:42.004295 26944 net.cpp:165] Memory required for data: 2054720000
I0407 23:51:42.004298 26944 layer_factory.hpp:77] Creating layer conv3_2_postscale
I0407 23:51:42.004307 26944 net.cpp:100] Creating Layer conv3_2_postscale
I0407 23:51:42.004310 26944 net.cpp:434] conv3_2_postscale <- conv3_2
I0407 23:51:42.004317 26944 net.cpp:395] conv3_2_postscale -> conv3_2 (in-place)
I0407 23:51:42.004415 26944 net.cpp:150] Setting up conv3_2_postscale
I0407 23:51:42.004423 26944 net.cpp:157] Top shape: 128 250 6 6 (1152000)
I0407 23:51:42.004426 26944 net.cpp:165] Memory required for data: 2059328000
I0407 23:51:42.004431 26944 layer_factory.hpp:77] Creating layer pool3_2
I0407 23:51:42.004438 26944 net.cpp:100] Creating Layer pool3_2
I0407 23:51:42.004442 26944 net.cpp:434] pool3_2 <- conv3_2
I0407 23:51:42.004447 26944 net.cpp:408] pool3_2 -> pool3_2
I0407 23:51:42.004484 26944 net.cpp:150] Setting up pool3_2
I0407 23:51:42.004492 26944 net.cpp:157] Top shape: 128 250 3 3 (288000)
I0407 23:51:42.004495 26944 net.cpp:165] Memory required for data: 2060480000
I0407 23:51:42.004498 26944 layer_factory.hpp:77] Creating layer fc3_4_300
I0407 23:51:42.004506 26944 net.cpp:100] Creating Layer fc3_4_300
I0407 23:51:42.004509 26944 net.cpp:434] fc3_4_300 <- pool3_2
I0407 23:51:42.004515 26944 net.cpp:408] fc3_4_300 -> fc3_4
I0407 23:51:42.009760 26944 net.cpp:150] Setting up fc3_4_300
I0407 23:51:42.009788 26944 net.cpp:157] Top shape: 128 300 (38400)
I0407 23:51:42.009804 26944 net.cpp:165] Memory required for data: 2060633600
I0407 23:51:42.009811 26944 layer_factory.hpp:77] Creating layer fc3_4_prescale
I0407 23:51:42.009820 26944 net.cpp:100] Creating Layer fc3_4_prescale
I0407 23:51:42.009824 26944 net.cpp:434] fc3_4_prescale <- fc3_4
I0407 23:51:42.009830 26944 net.cpp:395] fc3_4_prescale -> fc3_4 (in-place)
I0407 23:51:42.009929 26944 net.cpp:150] Setting up fc3_4_prescale
I0407 23:51:42.009938 26944 net.cpp:157] Top shape: 128 300 (38400)
I0407 23:51:42.009940 26944 net.cpp:165] Memory required for data: 2060787200
I0407 23:51:42.009945 26944 layer_factory.hpp:77] Creating layer fc3_4_sTanH
I0407 23:51:42.009955 26944 net.cpp:100] Creating Layer fc3_4_sTanH
I0407 23:51:42.009959 26944 net.cpp:434] fc3_4_sTanH <- fc3_4
I0407 23:51:42.009963 26944 net.cpp:395] fc3_4_sTanH -> fc3_4 (in-place)
I0407 23:51:42.010157 26944 net.cpp:150] Setting up fc3_4_sTanH
I0407 23:51:42.010169 26944 net.cpp:157] Top shape: 128 300 (38400)
I0407 23:51:42.010171 26944 net.cpp:165] Memory required for data: 2060940800
I0407 23:51:42.010174 26944 layer_factory.hpp:77] Creating layer fc3_4_postscale
I0407 23:51:42.010184 26944 net.cpp:100] Creating Layer fc3_4_postscale
I0407 23:51:42.010186 26944 net.cpp:434] fc3_4_postscale <- fc3_4
I0407 23:51:42.010193 26944 net.cpp:395] fc3_4_postscale -> fc3_4 (in-place)
I0407 23:51:42.010299 26944 net.cpp:150] Setting up fc3_4_postscale
I0407 23:51:42.010308 26944 net.cpp:157] Top shape: 128 300 (38400)
I0407 23:51:42.010310 26944 net.cpp:165] Memory required for data: 2061094400
I0407 23:51:42.010315 26944 layer_factory.hpp:77] Creating layer drop3_4
I0407 23:51:42.010323 26944 net.cpp:100] Creating Layer drop3_4
I0407 23:51:42.010325 26944 net.cpp:434] drop3_4 <- fc3_4
I0407 23:51:42.010330 26944 net.cpp:395] drop3_4 -> fc3_4 (in-place)
I0407 23:51:42.010352 26944 net.cpp:150] Setting up drop3_4
I0407 23:51:42.010360 26944 net.cpp:157] Top shape: 128 300 (38400)
I0407 23:51:42.010361 26944 net.cpp:165] Memory required for data: 2061248000
I0407 23:51:42.010365 26944 layer_factory.hpp:77] Creating layer fc3_5_67
I0407 23:51:42.010371 26944 net.cpp:100] Creating Layer fc3_5_67
I0407 23:51:42.010375 26944 net.cpp:434] fc3_5_67 <- fc3_4
I0407 23:51:42.010380 26944 net.cpp:408] fc3_5_67 -> fc3_5
I0407 23:51:42.010627 26944 net.cpp:150] Setting up fc3_5_67
I0407 23:51:42.010635 26944 net.cpp:157] Top shape: 128 67 (8576)
I0407 23:51:42.010638 26944 net.cpp:165] Memory required for data: 2061282304
I0407 23:51:42.010644 26944 layer_factory.hpp:77] Creating layer softmax_3
I0407 23:51:42.010649 26944 net.cpp:100] Creating Layer softmax_3
I0407 23:51:42.010653 26944 net.cpp:434] softmax_3 <- fc3_5
I0407 23:51:42.010658 26944 net.cpp:408] softmax_3 -> softmax_3
I0407 23:51:42.011509 26944 net.cpp:150] Setting up softmax_3
I0407 23:51:42.011526 26944 net.cpp:157] Top shape: 128 67 (8576)
I0407 23:51:42.011529 26944 net.cpp:165] Memory required for data: 2061316608
I0407 23:51:42.011533 26944 layer_factory.hpp:77] Creating layer conv4_0
I0407 23:51:42.011543 26944 net.cpp:100] Creating Layer conv4_0
I0407 23:51:42.011546 26944 net.cpp:434] conv4_0 <- data_0_data_0_0_split_4
I0407 23:51:42.011554 26944 net.cpp:408] conv4_0 -> conv4_0
I0407 23:51:42.013147 26944 net.cpp:150] Setting up conv4_0
I0407 23:51:42.013164 26944 net.cpp:157] Top shape: 128 100 42 42 (22579200)
I0407 23:51:42.013180 26944 net.cpp:165] Memory required for data: 2151633408
I0407 23:51:42.013187 26944 layer_factory.hpp:77] Creating layer conv4_0_prescale
I0407 23:51:42.013198 26944 net.cpp:100] Creating Layer conv4_0_prescale
I0407 23:51:42.013202 26944 net.cpp:434] conv4_0_prescale <- conv4_0
I0407 23:51:42.013207 26944 net.cpp:395] conv4_0_prescale -> conv4_0 (in-place)
I0407 23:51:42.013320 26944 net.cpp:150] Setting up conv4_0_prescale
I0407 23:51:42.013330 26944 net.cpp:157] Top shape: 128 100 42 42 (22579200)
I0407 23:51:42.013334 26944 net.cpp:165] Memory required for data: 2241950208
I0407 23:51:42.013339 26944 layer_factory.hpp:77] Creating layer conv4_0_sTanH
I0407 23:51:42.013357 26944 net.cpp:100] Creating Layer conv4_0_sTanH
I0407 23:51:42.013361 26944 net.cpp:434] conv4_0_sTanH <- conv4_0
I0407 23:51:42.013368 26944 net.cpp:395] conv4_0_sTanH -> conv4_0 (in-place)
I0407 23:51:42.013566 26944 net.cpp:150] Setting up conv4_0_sTanH
I0407 23:51:42.013577 26944 net.cpp:157] Top shape: 128 100 42 42 (22579200)
I0407 23:51:42.013581 26944 net.cpp:165] Memory required for data: 2332267008
I0407 23:51:42.013583 26944 layer_factory.hpp:77] Creating layer conv4_0_postscale
I0407 23:51:42.013592 26944 net.cpp:100] Creating Layer conv4_0_postscale
I0407 23:51:42.013597 26944 net.cpp:434] conv4_0_postscale <- conv4_0
I0407 23:51:42.013603 26944 net.cpp:395] conv4_0_postscale -> conv4_0 (in-place)
I0407 23:51:42.013715 26944 net.cpp:150] Setting up conv4_0_postscale
I0407 23:51:42.013725 26944 net.cpp:157] Top shape: 128 100 42 42 (22579200)
I0407 23:51:42.013728 26944 net.cpp:165] Memory required for data: 2422583808
I0407 23:51:42.013733 26944 layer_factory.hpp:77] Creating layer pool4_0
I0407 23:51:42.013739 26944 net.cpp:100] Creating Layer pool4_0
I0407 23:51:42.013742 26944 net.cpp:434] pool4_0 <- conv4_0
I0407 23:51:42.013751 26944 net.cpp:408] pool4_0 -> pool4_0
I0407 23:51:42.013797 26944 net.cpp:150] Setting up pool4_0
I0407 23:51:42.013808 26944 net.cpp:157] Top shape: 128 100 21 21 (5644800)
I0407 23:51:42.013810 26944 net.cpp:165] Memory required for data: 2445163008
I0407 23:51:42.013813 26944 layer_factory.hpp:77] Creating layer conv4_1
I0407 23:51:42.013821 26944 net.cpp:100] Creating Layer conv4_1
I0407 23:51:42.013824 26944 net.cpp:434] conv4_1 <- pool4_0
I0407 23:51:42.013830 26944 net.cpp:408] conv4_1 -> conv4_1
I0407 23:51:42.017659 26944 net.cpp:150] Setting up conv4_1
I0407 23:51:42.017678 26944 net.cpp:157] Top shape: 128 150 18 18 (6220800)
I0407 23:51:42.017681 26944 net.cpp:165] Memory required for data: 2470046208
I0407 23:51:42.017688 26944 layer_factory.hpp:77] Creating layer conv4_1_prescale
I0407 23:51:42.017696 26944 net.cpp:100] Creating Layer conv4_1_prescale
I0407 23:51:42.017699 26944 net.cpp:434] conv4_1_prescale <- conv4_1
I0407 23:51:42.017706 26944 net.cpp:395] conv4_1_prescale -> conv4_1 (in-place)
I0407 23:51:42.017818 26944 net.cpp:150] Setting up conv4_1_prescale
I0407 23:51:42.017828 26944 net.cpp:157] Top shape: 128 150 18 18 (6220800)
I0407 23:51:42.017832 26944 net.cpp:165] Memory required for data: 2494929408
I0407 23:51:42.017837 26944 layer_factory.hpp:77] Creating layer conv4_1_sTanH
I0407 23:51:42.017843 26944 net.cpp:100] Creating Layer conv4_1_sTanH
I0407 23:51:42.017846 26944 net.cpp:434] conv4_1_sTanH <- conv4_1
I0407 23:51:42.017853 26944 net.cpp:395] conv4_1_sTanH -> conv4_1 (in-place)
I0407 23:51:42.018647 26944 net.cpp:150] Setting up conv4_1_sTanH
I0407 23:51:42.018662 26944 net.cpp:157] Top shape: 128 150 18 18 (6220800)
I0407 23:51:42.018666 26944 net.cpp:165] Memory required for data: 2519812608
I0407 23:51:42.018669 26944 layer_factory.hpp:77] Creating layer conv4_1_postscale
I0407 23:51:42.018678 26944 net.cpp:100] Creating Layer conv4_1_postscale
I0407 23:51:42.018682 26944 net.cpp:434] conv4_1_postscale <- conv4_1
I0407 23:51:42.018687 26944 net.cpp:395] conv4_1_postscale -> conv4_1 (in-place)
I0407 23:51:42.018805 26944 net.cpp:150] Setting up conv4_1_postscale
I0407 23:51:42.018815 26944 net.cpp:157] Top shape: 128 150 18 18 (6220800)
I0407 23:51:42.018817 26944 net.cpp:165] Memory required for data: 2544695808
I0407 23:51:42.018822 26944 layer_factory.hpp:77] Creating layer pool4_1
I0407 23:51:42.018829 26944 net.cpp:100] Creating Layer pool4_1
I0407 23:51:42.018834 26944 net.cpp:434] pool4_1 <- conv4_1
I0407 23:51:42.018839 26944 net.cpp:408] pool4_1 -> pool4_1
I0407 23:51:42.018887 26944 net.cpp:150] Setting up pool4_1
I0407 23:51:42.018894 26944 net.cpp:157] Top shape: 128 150 9 9 (1555200)
I0407 23:51:42.018898 26944 net.cpp:165] Memory required for data: 2550916608
I0407 23:51:42.018900 26944 layer_factory.hpp:77] Creating layer conv4_2
I0407 23:51:42.018909 26944 net.cpp:100] Creating Layer conv4_2
I0407 23:51:42.018926 26944 net.cpp:434] conv4_2 <- pool4_1
I0407 23:51:42.018934 26944 net.cpp:408] conv4_2 -> conv4_2
I0407 23:51:42.024999 26944 net.cpp:150] Setting up conv4_2
I0407 23:51:42.025030 26944 net.cpp:157] Top shape: 128 250 6 6 (1152000)
I0407 23:51:42.025035 26944 net.cpp:165] Memory required for data: 2555524608
I0407 23:51:42.025043 26944 layer_factory.hpp:77] Creating layer conv4_2_prescale
I0407 23:51:42.025050 26944 net.cpp:100] Creating Layer conv4_2_prescale
I0407 23:51:42.025054 26944 net.cpp:434] conv4_2_prescale <- conv4_2
I0407 23:51:42.025061 26944 net.cpp:395] conv4_2_prescale -> conv4_2 (in-place)
I0407 23:51:42.025171 26944 net.cpp:150] Setting up conv4_2_prescale
I0407 23:51:42.025180 26944 net.cpp:157] Top shape: 128 250 6 6 (1152000)
I0407 23:51:42.025183 26944 net.cpp:165] Memory required for data: 2560132608
I0407 23:51:42.025188 26944 layer_factory.hpp:77] Creating layer conv4_2_sTanH
I0407 23:51:42.025194 26944 net.cpp:100] Creating Layer conv4_2_sTanH
I0407 23:51:42.025198 26944 net.cpp:434] conv4_2_sTanH <- conv4_2
I0407 23:51:42.025204 26944 net.cpp:395] conv4_2_sTanH -> conv4_2 (in-place)
I0407 23:51:42.025391 26944 net.cpp:150] Setting up conv4_2_sTanH
I0407 23:51:42.025403 26944 net.cpp:157] Top shape: 128 250 6 6 (1152000)
I0407 23:51:42.025405 26944 net.cpp:165] Memory required for data: 2564740608
I0407 23:51:42.025409 26944 layer_factory.hpp:77] Creating layer conv4_2_postscale
I0407 23:51:42.025416 26944 net.cpp:100] Creating Layer conv4_2_postscale
I0407 23:51:42.025421 26944 net.cpp:434] conv4_2_postscale <- conv4_2
I0407 23:51:42.025427 26944 net.cpp:395] conv4_2_postscale -> conv4_2 (in-place)
I0407 23:51:42.025532 26944 net.cpp:150] Setting up conv4_2_postscale
I0407 23:51:42.025547 26944 net.cpp:157] Top shape: 128 250 6 6 (1152000)
I0407 23:51:42.025549 26944 net.cpp:165] Memory required for data: 2569348608
I0407 23:51:42.025554 26944 layer_factory.hpp:77] Creating layer pool4_2
I0407 23:51:42.025560 26944 net.cpp:100] Creating Layer pool4_2
I0407 23:51:42.025563 26944 net.cpp:434] pool4_2 <- conv4_2
I0407 23:51:42.025570 26944 net.cpp:408] pool4_2 -> pool4_2
I0407 23:51:42.025612 26944 net.cpp:150] Setting up pool4_2
I0407 23:51:42.025620 26944 net.cpp:157] Top shape: 128 250 3 3 (288000)
I0407 23:51:42.025624 26944 net.cpp:165] Memory required for data: 2570500608
I0407 23:51:42.025626 26944 layer_factory.hpp:77] Creating layer fc4_4_300
I0407 23:51:42.025634 26944 net.cpp:100] Creating Layer fc4_4_300
I0407 23:51:42.025636 26944 net.cpp:434] fc4_4_300 <- pool4_2
I0407 23:51:42.025641 26944 net.cpp:408] fc4_4_300 -> fc4_4
I0407 23:51:42.030903 26944 net.cpp:150] Setting up fc4_4_300
I0407 23:51:42.030918 26944 net.cpp:157] Top shape: 128 300 (38400)
I0407 23:51:42.030922 26944 net.cpp:165] Memory required for data: 2570654208
I0407 23:51:42.030930 26944 layer_factory.hpp:77] Creating layer fc4_4_prescale
I0407 23:51:42.030938 26944 net.cpp:100] Creating Layer fc4_4_prescale
I0407 23:51:42.030941 26944 net.cpp:434] fc4_4_prescale <- fc4_4
I0407 23:51:42.030947 26944 net.cpp:395] fc4_4_prescale -> fc4_4 (in-place)
I0407 23:51:42.031047 26944 net.cpp:150] Setting up fc4_4_prescale
I0407 23:51:42.031055 26944 net.cpp:157] Top shape: 128 300 (38400)
I0407 23:51:42.031059 26944 net.cpp:165] Memory required for data: 2570807808
I0407 23:51:42.031062 26944 layer_factory.hpp:77] Creating layer fc4_4_sTanH
I0407 23:51:42.031069 26944 net.cpp:100] Creating Layer fc4_4_sTanH
I0407 23:51:42.031071 26944 net.cpp:434] fc4_4_sTanH <- fc4_4
I0407 23:51:42.031076 26944 net.cpp:395] fc4_4_sTanH -> fc4_4 (in-place)
I0407 23:51:42.031275 26944 net.cpp:150] Setting up fc4_4_sTanH
I0407 23:51:42.031286 26944 net.cpp:157] Top shape: 128 300 (38400)
I0407 23:51:42.031288 26944 net.cpp:165] Memory required for data: 2570961408
I0407 23:51:42.031291 26944 layer_factory.hpp:77] Creating layer fc4_4_postscale
I0407 23:51:42.031299 26944 net.cpp:100] Creating Layer fc4_4_postscale
I0407 23:51:42.031302 26944 net.cpp:434] fc4_4_postscale <- fc4_4
I0407 23:51:42.031321 26944 net.cpp:395] fc4_4_postscale -> fc4_4 (in-place)
I0407 23:51:42.031432 26944 net.cpp:150] Setting up fc4_4_postscale
I0407 23:51:42.031440 26944 net.cpp:157] Top shape: 128 300 (38400)
I0407 23:51:42.031443 26944 net.cpp:165] Memory required for data: 2571115008
I0407 23:51:42.031448 26944 layer_factory.hpp:77] Creating layer drop4_4
I0407 23:51:42.031455 26944 net.cpp:100] Creating Layer drop4_4
I0407 23:51:42.031458 26944 net.cpp:434] drop4_4 <- fc4_4
I0407 23:51:42.031463 26944 net.cpp:395] drop4_4 -> fc4_4 (in-place)
I0407 23:51:42.031484 26944 net.cpp:150] Setting up drop4_4
I0407 23:51:42.031491 26944 net.cpp:157] Top shape: 128 300 (38400)
I0407 23:51:42.031493 26944 net.cpp:165] Memory required for data: 2571268608
I0407 23:51:42.031497 26944 layer_factory.hpp:77] Creating layer fc4_5_67
I0407 23:51:42.031504 26944 net.cpp:100] Creating Layer fc4_5_67
I0407 23:51:42.031508 26944 net.cpp:434] fc4_5_67 <- fc4_4
I0407 23:51:42.031512 26944 net.cpp:408] fc4_5_67 -> fc4_5
I0407 23:51:42.031762 26944 net.cpp:150] Setting up fc4_5_67
I0407 23:51:42.031771 26944 net.cpp:157] Top shape: 128 67 (8576)
I0407 23:51:42.031774 26944 net.cpp:165] Memory required for data: 2571302912
I0407 23:51:42.031780 26944 layer_factory.hpp:77] Creating layer softmax_4
I0407 23:51:42.031786 26944 net.cpp:100] Creating Layer softmax_4
I0407 23:51:42.031790 26944 net.cpp:434] softmax_4 <- fc4_5
I0407 23:51:42.031795 26944 net.cpp:408] softmax_4 -> softmax_4
I0407 23:51:42.032061 26944 net.cpp:150] Setting up softmax_4
I0407 23:51:42.032073 26944 net.cpp:157] Top shape: 128 67 (8576)
I0407 23:51:42.032075 26944 net.cpp:165] Memory required for data: 2571337216
I0407 23:51:42.032079 26944 layer_factory.hpp:77] Creating layer data_1
I0407 23:51:42.032212 26944 net.cpp:100] Creating Layer data_1
I0407 23:51:42.032222 26944 net.cpp:408] data_1 -> data_1
I0407 23:51:42.032232 26944 net.cpp:408] data_1 -> label_1
I0407 23:51:42.033674 27026 db_lmdb.cpp:35] Opened lmdb ../local_data/lmdb/rtsd-r1/histeq/train/lmdb
I0407 23:51:42.033867 26944 data_layer.cpp:41] output data size: 128,3,48,48
I0407 23:51:42.041219 26944 net.cpp:150] Setting up data_1
I0407 23:51:42.041235 26944 net.cpp:157] Top shape: 128 3 48 48 (884736)
I0407 23:51:42.041240 26944 net.cpp:157] Top shape: 128 (128)
I0407 23:51:42.041242 26944 net.cpp:165] Memory required for data: 2574876672
I0407 23:51:42.041247 26944 layer_factory.hpp:77] Creating layer data_1_data_1_0_split
I0407 23:51:42.041255 26944 net.cpp:100] Creating Layer data_1_data_1_0_split
I0407 23:51:42.041259 26944 net.cpp:434] data_1_data_1_0_split <- data_1
I0407 23:51:42.041265 26944 net.cpp:408] data_1_data_1_0_split -> data_1_data_1_0_split_0
I0407 23:51:42.041275 26944 net.cpp:408] data_1_data_1_0_split -> data_1_data_1_0_split_1
I0407 23:51:42.041282 26944 net.cpp:408] data_1_data_1_0_split -> data_1_data_1_0_split_2
I0407 23:51:42.041288 26944 net.cpp:408] data_1_data_1_0_split -> data_1_data_1_0_split_3
I0407 23:51:42.041306 26944 net.cpp:408] data_1_data_1_0_split -> data_1_data_1_0_split_4
I0407 23:51:42.041512 26944 net.cpp:150] Setting up data_1_data_1_0_split
I0407 23:51:42.041523 26944 net.cpp:157] Top shape: 128 3 48 48 (884736)
I0407 23:51:42.041527 26944 net.cpp:157] Top shape: 128 3 48 48 (884736)
I0407 23:51:42.041532 26944 net.cpp:157] Top shape: 128 3 48 48 (884736)
I0407 23:51:42.041535 26944 net.cpp:157] Top shape: 128 3 48 48 (884736)
I0407 23:51:42.041538 26944 net.cpp:157] Top shape: 128 3 48 48 (884736)
I0407 23:51:42.041541 26944 net.cpp:165] Memory required for data: 2592571392
I0407 23:51:42.041545 26944 layer_factory.hpp:77] Creating layer conv5_0
I0407 23:51:42.041556 26944 net.cpp:100] Creating Layer conv5_0
I0407 23:51:42.041560 26944 net.cpp:434] conv5_0 <- data_1_data_1_0_split_0
I0407 23:51:42.041566 26944 net.cpp:408] conv5_0 -> conv5_0
I0407 23:51:42.043460 26944 net.cpp:150] Setting up conv5_0
I0407 23:51:42.043479 26944 net.cpp:157] Top shape: 128 100 42 42 (22579200)
I0407 23:51:42.043483 26944 net.cpp:165] Memory required for data: 2682888192
I0407 23:51:42.043501 26944 layer_factory.hpp:77] Creating layer conv5_0_prescale
I0407 23:51:42.043510 26944 net.cpp:100] Creating Layer conv5_0_prescale
I0407 23:51:42.043514 26944 net.cpp:434] conv5_0_prescale <- conv5_0
I0407 23:51:42.043534 26944 net.cpp:395] conv5_0_prescale -> conv5_0 (in-place)
I0407 23:51:42.043654 26944 net.cpp:150] Setting up conv5_0_prescale
I0407 23:51:42.043665 26944 net.cpp:157] Top shape: 128 100 42 42 (22579200)
I0407 23:51:42.043668 26944 net.cpp:165] Memory required for data: 2773204992
I0407 23:51:42.043673 26944 layer_factory.hpp:77] Creating layer conv5_0_sTanH
I0407 23:51:42.043679 26944 net.cpp:100] Creating Layer conv5_0_sTanH
I0407 23:51:42.043682 26944 net.cpp:434] conv5_0_sTanH <- conv5_0
I0407 23:51:42.043687 26944 net.cpp:395] conv5_0_sTanH -> conv5_0 (in-place)
I0407 23:51:42.044617 26944 net.cpp:150] Setting up conv5_0_sTanH
I0407 23:51:42.044632 26944 net.cpp:157] Top shape: 128 100 42 42 (22579200)
I0407 23:51:42.044636 26944 net.cpp:165] Memory required for data: 2863521792
I0407 23:51:42.044641 26944 layer_factory.hpp:77] Creating layer conv5_0_postscale
I0407 23:51:42.044649 26944 net.cpp:100] Creating Layer conv5_0_postscale
I0407 23:51:42.044653 26944 net.cpp:434] conv5_0_postscale <- conv5_0
I0407 23:51:42.044658 26944 net.cpp:395] conv5_0_postscale -> conv5_0 (in-place)
I0407 23:51:42.045061 26944 net.cpp:150] Setting up conv5_0_postscale
I0407 23:51:42.045070 26944 net.cpp:157] Top shape: 128 100 42 42 (22579200)
I0407 23:51:42.045073 26944 net.cpp:165] Memory required for data: 2953838592
I0407 23:51:42.045079 26944 layer_factory.hpp:77] Creating layer pool5_0
I0407 23:51:42.045099 26944 net.cpp:100] Creating Layer pool5_0
I0407 23:51:42.045104 26944 net.cpp:434] pool5_0 <- conv5_0
I0407 23:51:42.045110 26944 net.cpp:408] pool5_0 -> pool5_0
I0407 23:51:42.045159 26944 net.cpp:150] Setting up pool5_0
I0407 23:51:42.045167 26944 net.cpp:157] Top shape: 128 100 21 21 (5644800)
I0407 23:51:42.045171 26944 net.cpp:165] Memory required for data: 2976417792
I0407 23:51:42.045173 26944 layer_factory.hpp:77] Creating layer conv5_1
I0407 23:51:42.045182 26944 net.cpp:100] Creating Layer conv5_1
I0407 23:51:42.045186 26944 net.cpp:434] conv5_1 <- pool5_0
I0407 23:51:42.045192 26944 net.cpp:408] conv5_1 -> conv5_1
I0407 23:51:42.047489 26944 net.cpp:150] Setting up conv5_1
I0407 23:51:42.047503 26944 net.cpp:157] Top shape: 128 150 18 18 (6220800)
I0407 23:51:42.047508 26944 net.cpp:165] Memory required for data: 3001300992
I0407 23:51:42.047513 26944 layer_factory.hpp:77] Creating layer conv5_1_prescale
I0407 23:51:42.047521 26944 net.cpp:100] Creating Layer conv5_1_prescale
I0407 23:51:42.047528 26944 net.cpp:434] conv5_1_prescale <- conv5_1
I0407 23:51:42.047544 26944 net.cpp:395] conv5_1_prescale -> conv5_1 (in-place)
I0407 23:51:42.047660 26944 net.cpp:150] Setting up conv5_1_prescale
I0407 23:51:42.047669 26944 net.cpp:157] Top shape: 128 150 18 18 (6220800)
I0407 23:51:42.047672 26944 net.cpp:165] Memory required for data: 3026184192
I0407 23:51:42.047677 26944 layer_factory.hpp:77] Creating layer conv5_1_sTanH
I0407 23:51:42.047683 26944 net.cpp:100] Creating Layer conv5_1_sTanH
I0407 23:51:42.047686 26944 net.cpp:434] conv5_1_sTanH <- conv5_1
I0407 23:51:42.047693 26944 net.cpp:395] conv5_1_sTanH -> conv5_1 (in-place)
I0407 23:51:42.048523 26944 net.cpp:150] Setting up conv5_1_sTanH
I0407 23:51:42.048539 26944 net.cpp:157] Top shape: 128 150 18 18 (6220800)
I0407 23:51:42.048543 26944 net.cpp:165] Memory required for data: 3051067392
I0407 23:51:42.048547 26944 layer_factory.hpp:77] Creating layer conv5_1_postscale
I0407 23:51:42.048557 26944 net.cpp:100] Creating Layer conv5_1_postscale
I0407 23:51:42.048560 26944 net.cpp:434] conv5_1_postscale <- conv5_1
I0407 23:51:42.048568 26944 net.cpp:395] conv5_1_postscale -> conv5_1 (in-place)
I0407 23:51:42.048692 26944 net.cpp:150] Setting up conv5_1_postscale
I0407 23:51:42.048702 26944 net.cpp:157] Top shape: 128 150 18 18 (6220800)
I0407 23:51:42.048705 26944 net.cpp:165] Memory required for data: 3075950592
I0407 23:51:42.048710 26944 layer_factory.hpp:77] Creating layer pool5_1
I0407 23:51:42.048730 26944 net.cpp:100] Creating Layer pool5_1
I0407 23:51:42.048737 26944 net.cpp:434] pool5_1 <- conv5_1
I0407 23:51:42.048743 26944 net.cpp:408] pool5_1 -> pool5_1
I0407 23:51:42.048794 26944 net.cpp:150] Setting up pool5_1
I0407 23:51:42.048802 26944 net.cpp:157] Top shape: 128 150 9 9 (1555200)
I0407 23:51:42.048805 26944 net.cpp:165] Memory required for data: 3082171392
I0407 23:51:42.048809 26944 layer_factory.hpp:77] Creating layer conv5_2
I0407 23:51:42.048817 26944 net.cpp:100] Creating Layer conv5_2
I0407 23:51:42.048821 26944 net.cpp:434] conv5_2 <- pool5_1
I0407 23:51:42.048827 26944 net.cpp:408] conv5_2 -> conv5_2
I0407 23:51:42.055007 26944 net.cpp:150] Setting up conv5_2
I0407 23:51:42.055027 26944 net.cpp:157] Top shape: 128 250 6 6 (1152000)
I0407 23:51:42.055030 26944 net.cpp:165] Memory required for data: 3086779392
I0407 23:51:42.055038 26944 layer_factory.hpp:77] Creating layer conv5_2_prescale
I0407 23:51:42.055045 26944 net.cpp:100] Creating Layer conv5_2_prescale
I0407 23:51:42.055050 26944 net.cpp:434] conv5_2_prescale <- conv5_2
I0407 23:51:42.055058 26944 net.cpp:395] conv5_2_prescale -> conv5_2 (in-place)
I0407 23:51:42.055168 26944 net.cpp:150] Setting up conv5_2_prescale
I0407 23:51:42.055178 26944 net.cpp:157] Top shape: 128 250 6 6 (1152000)
I0407 23:51:42.055181 26944 net.cpp:165] Memory required for data: 3091387392
I0407 23:51:42.055186 26944 layer_factory.hpp:77] Creating layer conv5_2_sTanH
I0407 23:51:42.055191 26944 net.cpp:100] Creating Layer conv5_2_sTanH
I0407 23:51:42.055196 26944 net.cpp:434] conv5_2_sTanH <- conv5_2
I0407 23:51:42.055200 26944 net.cpp:395] conv5_2_sTanH -> conv5_2 (in-place)
I0407 23:51:42.055397 26944 net.cpp:150] Setting up conv5_2_sTanH
I0407 23:51:42.055408 26944 net.cpp:157] Top shape: 128 250 6 6 (1152000)
I0407 23:51:42.055413 26944 net.cpp:165] Memory required for data: 3095995392
I0407 23:51:42.055416 26944 layer_factory.hpp:77] Creating layer conv5_2_postscale
I0407 23:51:42.055424 26944 net.cpp:100] Creating Layer conv5_2_postscale
I0407 23:51:42.055428 26944 net.cpp:434] conv5_2_postscale <- conv5_2
I0407 23:51:42.055433 26944 net.cpp:395] conv5_2_postscale -> conv5_2 (in-place)
I0407 23:51:42.055541 26944 net.cpp:150] Setting up conv5_2_postscale
I0407 23:51:42.055549 26944 net.cpp:157] Top shape: 128 250 6 6 (1152000)
I0407 23:51:42.055552 26944 net.cpp:165] Memory required for data: 3100603392
I0407 23:51:42.055557 26944 layer_factory.hpp:77] Creating layer pool5_2
I0407 23:51:42.055580 26944 net.cpp:100] Creating Layer pool5_2
I0407 23:51:42.055585 26944 net.cpp:434] pool5_2 <- conv5_2
I0407 23:51:42.055591 26944 net.cpp:408] pool5_2 -> pool5_2
I0407 23:51:42.055639 26944 net.cpp:150] Setting up pool5_2
I0407 23:51:42.055649 26944 net.cpp:157] Top shape: 128 250 3 3 (288000)
I0407 23:51:42.055652 26944 net.cpp:165] Memory required for data: 3101755392
I0407 23:51:42.055656 26944 layer_factory.hpp:77] Creating layer fc5_4_300
I0407 23:51:42.055662 26944 net.cpp:100] Creating Layer fc5_4_300
I0407 23:51:42.055665 26944 net.cpp:434] fc5_4_300 <- pool5_2
I0407 23:51:42.055671 26944 net.cpp:408] fc5_4_300 -> fc5_4
I0407 23:51:42.060926 26944 net.cpp:150] Setting up fc5_4_300
I0407 23:51:42.060941 26944 net.cpp:157] Top shape: 128 300 (38400)
I0407 23:51:42.060956 26944 net.cpp:165] Memory required for data: 3101908992
I0407 23:51:42.060963 26944 layer_factory.hpp:77] Creating layer fc5_4_prescale
I0407 23:51:42.060971 26944 net.cpp:100] Creating Layer fc5_4_prescale
I0407 23:51:42.060974 26944 net.cpp:434] fc5_4_prescale <- fc5_4
I0407 23:51:42.060981 26944 net.cpp:395] fc5_4_prescale -> fc5_4 (in-place)
I0407 23:51:42.061086 26944 net.cpp:150] Setting up fc5_4_prescale
I0407 23:51:42.061095 26944 net.cpp:157] Top shape: 128 300 (38400)
I0407 23:51:42.061098 26944 net.cpp:165] Memory required for data: 3102062592
I0407 23:51:42.061102 26944 layer_factory.hpp:77] Creating layer fc5_4_sTanH
I0407 23:51:42.061108 26944 net.cpp:100] Creating Layer fc5_4_sTanH
I0407 23:51:42.061111 26944 net.cpp:434] fc5_4_sTanH <- fc5_4
I0407 23:51:42.061130 26944 net.cpp:395] fc5_4_sTanH -> fc5_4 (in-place)
I0407 23:51:42.061339 26944 net.cpp:150] Setting up fc5_4_sTanH
I0407 23:51:42.061352 26944 net.cpp:157] Top shape: 128 300 (38400)
I0407 23:51:42.061354 26944 net.cpp:165] Memory required for data: 3102216192
I0407 23:51:42.061357 26944 layer_factory.hpp:77] Creating layer fc5_4_postscale
I0407 23:51:42.061365 26944 net.cpp:100] Creating Layer fc5_4_postscale
I0407 23:51:42.061368 26944 net.cpp:434] fc5_4_postscale <- fc5_4
I0407 23:51:42.061374 26944 net.cpp:395] fc5_4_postscale -> fc5_4 (in-place)
I0407 23:51:42.061486 26944 net.cpp:150] Setting up fc5_4_postscale
I0407 23:51:42.061494 26944 net.cpp:157] Top shape: 128 300 (38400)
I0407 23:51:42.061497 26944 net.cpp:165] Memory required for data: 3102369792
I0407 23:51:42.061502 26944 layer_factory.hpp:77] Creating layer drop5_4
I0407 23:51:42.061508 26944 net.cpp:100] Creating Layer drop5_4
I0407 23:51:42.061512 26944 net.cpp:434] drop5_4 <- fc5_4
I0407 23:51:42.061518 26944 net.cpp:395] drop5_4 -> fc5_4 (in-place)
I0407 23:51:42.061539 26944 net.cpp:150] Setting up drop5_4
I0407 23:51:42.061547 26944 net.cpp:157] Top shape: 128 300 (38400)
I0407 23:51:42.061548 26944 net.cpp:165] Memory required for data: 3102523392
I0407 23:51:42.061552 26944 layer_factory.hpp:77] Creating layer fc5_5_67
I0407 23:51:42.061559 26944 net.cpp:100] Creating Layer fc5_5_67
I0407 23:51:42.061563 26944 net.cpp:434] fc5_5_67 <- fc5_4
I0407 23:51:42.061568 26944 net.cpp:408] fc5_5_67 -> fc5_5
I0407 23:51:42.061820 26944 net.cpp:150] Setting up fc5_5_67
I0407 23:51:42.061830 26944 net.cpp:157] Top shape: 128 67 (8576)
I0407 23:51:42.061833 26944 net.cpp:165] Memory required for data: 3102557696
I0407 23:51:42.061839 26944 layer_factory.hpp:77] Creating layer softmax_5
I0407 23:51:42.061846 26944 net.cpp:100] Creating Layer softmax_5
I0407 23:51:42.061851 26944 net.cpp:434] softmax_5 <- fc5_5
I0407 23:51:42.061854 26944 net.cpp:408] softmax_5 -> softmax_5
I0407 23:51:42.062121 26944 net.cpp:150] Setting up softmax_5
I0407 23:51:42.062132 26944 net.cpp:157] Top shape: 128 67 (8576)
I0407 23:51:42.062135 26944 net.cpp:165] Memory required for data: 3102592000
I0407 23:51:42.062139 26944 layer_factory.hpp:77] Creating layer conv6_0
I0407 23:51:42.062150 26944 net.cpp:100] Creating Layer conv6_0
I0407 23:51:42.062153 26944 net.cpp:434] conv6_0 <- data_1_data_1_0_split_1
I0407 23:51:42.062160 26944 net.cpp:408] conv6_0 -> conv6_0
I0407 23:51:42.063782 26944 net.cpp:150] Setting up conv6_0
I0407 23:51:42.063798 26944 net.cpp:157] Top shape: 128 100 42 42 (22579200)
I0407 23:51:42.063802 26944 net.cpp:165] Memory required for data: 3192908800
I0407 23:51:42.063809 26944 layer_factory.hpp:77] Creating layer conv6_0_prescale
I0407 23:51:42.063817 26944 net.cpp:100] Creating Layer conv6_0_prescale
I0407 23:51:42.063820 26944 net.cpp:434] conv6_0_prescale <- conv6_0
I0407 23:51:42.063827 26944 net.cpp:395] conv6_0_prescale -> conv6_0 (in-place)
I0407 23:51:42.063957 26944 net.cpp:150] Setting up conv6_0_prescale
I0407 23:51:42.063968 26944 net.cpp:157] Top shape: 128 100 42 42 (22579200)
I0407 23:51:42.063971 26944 net.cpp:165] Memory required for data: 3283225600
I0407 23:51:42.063977 26944 layer_factory.hpp:77] Creating layer conv6_0_sTanH
I0407 23:51:42.063982 26944 net.cpp:100] Creating Layer conv6_0_sTanH
I0407 23:51:42.063985 26944 net.cpp:434] conv6_0_sTanH <- conv6_0
I0407 23:51:42.063992 26944 net.cpp:395] conv6_0_sTanH -> conv6_0 (in-place)
I0407 23:51:42.064815 26944 net.cpp:150] Setting up conv6_0_sTanH
I0407 23:51:42.064833 26944 net.cpp:157] Top shape: 128 100 42 42 (22579200)
I0407 23:51:42.064837 26944 net.cpp:165] Memory required for data: 3373542400
I0407 23:51:42.064841 26944 layer_factory.hpp:77] Creating layer conv6_0_postscale
I0407 23:51:42.064848 26944 net.cpp:100] Creating Layer conv6_0_postscale
I0407 23:51:42.064851 26944 net.cpp:434] conv6_0_postscale <- conv6_0
I0407 23:51:42.064858 26944 net.cpp:395] conv6_0_postscale -> conv6_0 (in-place)
I0407 23:51:42.064985 26944 net.cpp:150] Setting up conv6_0_postscale
I0407 23:51:42.065006 26944 net.cpp:157] Top shape: 128 100 42 42 (22579200)
I0407 23:51:42.065011 26944 net.cpp:165] Memory required for data: 3463859200
I0407 23:51:42.065016 26944 layer_factory.hpp:77] Creating layer pool6_0
I0407 23:51:42.065022 26944 net.cpp:100] Creating Layer pool6_0
I0407 23:51:42.065026 26944 net.cpp:434] pool6_0 <- conv6_0
I0407 23:51:42.065033 26944 net.cpp:408] pool6_0 -> pool6_0
I0407 23:51:42.065084 26944 net.cpp:150] Setting up pool6_0
I0407 23:51:42.065093 26944 net.cpp:157] Top shape: 128 100 21 21 (5644800)
I0407 23:51:42.065095 26944 net.cpp:165] Memory required for data: 3486438400
I0407 23:51:42.065099 26944 layer_factory.hpp:77] Creating layer conv6_1
I0407 23:51:42.065109 26944 net.cpp:100] Creating Layer conv6_1
I0407 23:51:42.065112 26944 net.cpp:434] conv6_1 <- pool6_0
I0407 23:51:42.065119 26944 net.cpp:408] conv6_1 -> conv6_1
I0407 23:51:42.068383 26944 net.cpp:150] Setting up conv6_1
I0407 23:51:42.068400 26944 net.cpp:157] Top shape: 128 150 18 18 (6220800)
I0407 23:51:42.068404 26944 net.cpp:165] Memory required for data: 3511321600
I0407 23:51:42.068410 26944 layer_factory.hpp:77] Creating layer conv6_1_prescale
I0407 23:51:42.068419 26944 net.cpp:100] Creating Layer conv6_1_prescale
I0407 23:51:42.068424 26944 net.cpp:434] conv6_1_prescale <- conv6_1
I0407 23:51:42.068429 26944 net.cpp:395] conv6_1_prescale -> conv6_1 (in-place)
I0407 23:51:42.068549 26944 net.cpp:150] Setting up conv6_1_prescale
I0407 23:51:42.068559 26944 net.cpp:157] Top shape: 128 150 18 18 (6220800)
I0407 23:51:42.068562 26944 net.cpp:165] Memory required for data: 3536204800
I0407 23:51:42.068567 26944 layer_factory.hpp:77] Creating layer conv6_1_sTanH
I0407 23:51:42.068574 26944 net.cpp:100] Creating Layer conv6_1_sTanH
I0407 23:51:42.068578 26944 net.cpp:434] conv6_1_sTanH <- conv6_1
I0407 23:51:42.068583 26944 net.cpp:395] conv6_1_sTanH -> conv6_1 (in-place)
I0407 23:51:42.069396 26944 net.cpp:150] Setting up conv6_1_sTanH
I0407 23:51:42.069411 26944 net.cpp:157] Top shape: 128 150 18 18 (6220800)
I0407 23:51:42.069416 26944 net.cpp:165] Memory required for data: 3561088000
I0407 23:51:42.069419 26944 layer_factory.hpp:77] Creating layer conv6_1_postscale
I0407 23:51:42.069428 26944 net.cpp:100] Creating Layer conv6_1_postscale
I0407 23:51:42.069432 26944 net.cpp:434] conv6_1_postscale <- conv6_1
I0407 23:51:42.069438 26944 net.cpp:395] conv6_1_postscale -> conv6_1 (in-place)
I0407 23:51:42.069561 26944 net.cpp:150] Setting up conv6_1_postscale
I0407 23:51:42.069571 26944 net.cpp:157] Top shape: 128 150 18 18 (6220800)
I0407 23:51:42.069574 26944 net.cpp:165] Memory required for data: 3585971200
I0407 23:51:42.069579 26944 layer_factory.hpp:77] Creating layer pool6_1
I0407 23:51:42.069588 26944 net.cpp:100] Creating Layer pool6_1
I0407 23:51:42.069592 26944 net.cpp:434] pool6_1 <- conv6_1
I0407 23:51:42.069598 26944 net.cpp:408] pool6_1 -> pool6_1
I0407 23:51:42.069654 26944 net.cpp:150] Setting up pool6_1
I0407 23:51:42.069663 26944 net.cpp:157] Top shape: 128 150 9 9 (1555200)
I0407 23:51:42.069665 26944 net.cpp:165] Memory required for data: 3592192000
I0407 23:51:42.069669 26944 layer_factory.hpp:77] Creating layer conv6_2
I0407 23:51:42.069677 26944 net.cpp:100] Creating Layer conv6_2
I0407 23:51:42.069681 26944 net.cpp:434] conv6_2 <- pool6_1
I0407 23:51:42.069689 26944 net.cpp:408] conv6_2 -> conv6_2
I0407 23:51:42.078037 26944 net.cpp:150] Setting up conv6_2
I0407 23:51:42.078054 26944 net.cpp:157] Top shape: 128 250 6 6 (1152000)
I0407 23:51:42.078058 26944 net.cpp:165] Memory required for data: 3596800000
I0407 23:51:42.078065 26944 layer_factory.hpp:77] Creating layer conv6_2_prescale
I0407 23:51:42.078073 26944 net.cpp:100] Creating Layer conv6_2_prescale
I0407 23:51:42.078078 26944 net.cpp:434] conv6_2_prescale <- conv6_2
I0407 23:51:42.078084 26944 net.cpp:395] conv6_2_prescale -> conv6_2 (in-place)
I0407 23:51:42.078200 26944 net.cpp:150] Setting up conv6_2_prescale
I0407 23:51:42.078210 26944 net.cpp:157] Top shape: 128 250 6 6 (1152000)
I0407 23:51:42.078224 26944 net.cpp:165] Memory required for data: 3601408000
I0407 23:51:42.078230 26944 layer_factory.hpp:77] Creating layer conv6_2_sTanH
I0407 23:51:42.078236 26944 net.cpp:100] Creating Layer conv6_2_sTanH
I0407 23:51:42.078240 26944 net.cpp:434] conv6_2_sTanH <- conv6_2
I0407 23:51:42.078246 26944 net.cpp:395] conv6_2_sTanH -> conv6_2 (in-place)
I0407 23:51:42.078449 26944 net.cpp:150] Setting up conv6_2_sTanH
I0407 23:51:42.078460 26944 net.cpp:157] Top shape: 128 250 6 6 (1152000)
I0407 23:51:42.078464 26944 net.cpp:165] Memory required for data: 3606016000
I0407 23:51:42.078466 26944 layer_factory.hpp:77] Creating layer conv6_2_postscale
I0407 23:51:42.078474 26944 net.cpp:100] Creating Layer conv6_2_postscale
I0407 23:51:42.078477 26944 net.cpp:434] conv6_2_postscale <- conv6_2
I0407 23:51:42.078483 26944 net.cpp:395] conv6_2_postscale -> conv6_2 (in-place)
I0407 23:51:42.078593 26944 net.cpp:150] Setting up conv6_2_postscale
I0407 23:51:42.078603 26944 net.cpp:157] Top shape: 128 250 6 6 (1152000)
I0407 23:51:42.078605 26944 net.cpp:165] Memory required for data: 3610624000
I0407 23:51:42.078610 26944 layer_factory.hpp:77] Creating layer pool6_2
I0407 23:51:42.078618 26944 net.cpp:100] Creating Layer pool6_2
I0407 23:51:42.078621 26944 net.cpp:434] pool6_2 <- conv6_2
I0407 23:51:42.078627 26944 net.cpp:408] pool6_2 -> pool6_2
I0407 23:51:42.078668 26944 net.cpp:150] Setting up pool6_2
I0407 23:51:42.078678 26944 net.cpp:157] Top shape: 128 250 3 3 (288000)
I0407 23:51:42.078681 26944 net.cpp:165] Memory required for data: 3611776000
I0407 23:51:42.078685 26944 layer_factory.hpp:77] Creating layer fc6_4_300
I0407 23:51:42.078691 26944 net.cpp:100] Creating Layer fc6_4_300
I0407 23:51:42.078693 26944 net.cpp:434] fc6_4_300 <- pool6_2
I0407 23:51:42.078698 26944 net.cpp:408] fc6_4_300 -> fc6_4
I0407 23:51:42.084254 26944 net.cpp:150] Setting up fc6_4_300
I0407 23:51:42.084271 26944 net.cpp:157] Top shape: 128 300 (38400)
I0407 23:51:42.084275 26944 net.cpp:165] Memory required for data: 3611929600
I0407 23:51:42.084282 26944 layer_factory.hpp:77] Creating layer fc6_4_prescale
I0407 23:51:42.084290 26944 net.cpp:100] Creating Layer fc6_4_prescale
I0407 23:51:42.084293 26944 net.cpp:434] fc6_4_prescale <- fc6_4
I0407 23:51:42.084300 26944 net.cpp:395] fc6_4_prescale -> fc6_4 (in-place)
I0407 23:51:42.084408 26944 net.cpp:150] Setting up fc6_4_prescale
I0407 23:51:42.084416 26944 net.cpp:157] Top shape: 128 300 (38400)
I0407 23:51:42.084419 26944 net.cpp:165] Memory required for data: 3612083200
I0407 23:51:42.084429 26944 layer_factory.hpp:77] Creating layer fc6_4_sTanH
I0407 23:51:42.084434 26944 net.cpp:100] Creating Layer fc6_4_sTanH
I0407 23:51:42.084436 26944 net.cpp:434] fc6_4_sTanH <- fc6_4
I0407 23:51:42.084440 26944 net.cpp:395] fc6_4_sTanH -> fc6_4 (in-place)
I0407 23:51:42.084645 26944 net.cpp:150] Setting up fc6_4_sTanH
I0407 23:51:42.084658 26944 net.cpp:157] Top shape: 128 300 (38400)
I0407 23:51:42.084662 26944 net.cpp:165] Memory required for data: 3612236800
I0407 23:51:42.084666 26944 layer_factory.hpp:77] Creating layer fc6_4_postscale
I0407 23:51:42.084671 26944 net.cpp:100] Creating Layer fc6_4_postscale
I0407 23:51:42.084676 26944 net.cpp:434] fc6_4_postscale <- fc6_4
I0407 23:51:42.084681 26944 net.cpp:395] fc6_4_postscale -> fc6_4 (in-place)
I0407 23:51:42.084794 26944 net.cpp:150] Setting up fc6_4_postscale
I0407 23:51:42.084805 26944 net.cpp:157] Top shape: 128 300 (38400)
I0407 23:51:42.084807 26944 net.cpp:165] Memory required for data: 3612390400
I0407 23:51:42.084811 26944 layer_factory.hpp:77] Creating layer drop6_4
I0407 23:51:42.084818 26944 net.cpp:100] Creating Layer drop6_4
I0407 23:51:42.084821 26944 net.cpp:434] drop6_4 <- fc6_4
I0407 23:51:42.084826 26944 net.cpp:395] drop6_4 -> fc6_4 (in-place)
I0407 23:51:42.084848 26944 net.cpp:150] Setting up drop6_4
I0407 23:51:42.084856 26944 net.cpp:157] Top shape: 128 300 (38400)
I0407 23:51:42.084858 26944 net.cpp:165] Memory required for data: 3612544000
I0407 23:51:42.084861 26944 layer_factory.hpp:77] Creating layer fc6_5_67
I0407 23:51:42.084882 26944 net.cpp:100] Creating Layer fc6_5_67
I0407 23:51:42.084887 26944 net.cpp:434] fc6_5_67 <- fc6_4
I0407 23:51:42.084892 26944 net.cpp:408] fc6_5_67 -> fc6_5
I0407 23:51:42.085153 26944 net.cpp:150] Setting up fc6_5_67
I0407 23:51:42.085162 26944 net.cpp:157] Top shape: 128 67 (8576)
I0407 23:51:42.085165 26944 net.cpp:165] Memory required for data: 3612578304
I0407 23:51:42.085171 26944 layer_factory.hpp:77] Creating layer softmax_6
I0407 23:51:42.085177 26944 net.cpp:100] Creating Layer softmax_6
I0407 23:51:42.085180 26944 net.cpp:434] softmax_6 <- fc6_5
I0407 23:51:42.085186 26944 net.cpp:408] softmax_6 -> softmax_6
I0407 23:51:42.085460 26944 net.cpp:150] Setting up softmax_6
I0407 23:51:42.085471 26944 net.cpp:157] Top shape: 128 67 (8576)
I0407 23:51:42.085474 26944 net.cpp:165] Memory required for data: 3612612608
I0407 23:51:42.085479 26944 layer_factory.hpp:77] Creating layer conv7_0
I0407 23:51:42.085489 26944 net.cpp:100] Creating Layer conv7_0
I0407 23:51:42.085491 26944 net.cpp:434] conv7_0 <- data_1_data_1_0_split_2
I0407 23:51:42.085500 26944 net.cpp:408] conv7_0 -> conv7_0
I0407 23:51:42.087327 26944 net.cpp:150] Setting up conv7_0
I0407 23:51:42.087343 26944 net.cpp:157] Top shape: 128 100 42 42 (22579200)
I0407 23:51:42.087348 26944 net.cpp:165] Memory required for data: 3702929408
I0407 23:51:42.087355 26944 layer_factory.hpp:77] Creating layer conv7_0_prescale
I0407 23:51:42.087363 26944 net.cpp:100] Creating Layer conv7_0_prescale
I0407 23:51:42.087366 26944 net.cpp:434] conv7_0_prescale <- conv7_0
I0407 23:51:42.087373 26944 net.cpp:395] conv7_0_prescale -> conv7_0 (in-place)
I0407 23:51:42.087493 26944 net.cpp:150] Setting up conv7_0_prescale
I0407 23:51:42.087504 26944 net.cpp:157] Top shape: 128 100 42 42 (22579200)
I0407 23:51:42.087507 26944 net.cpp:165] Memory required for data: 3793246208
I0407 23:51:42.087527 26944 layer_factory.hpp:77] Creating layer conv7_0_sTanH
I0407 23:51:42.087534 26944 net.cpp:100] Creating Layer conv7_0_sTanH
I0407 23:51:42.087538 26944 net.cpp:434] conv7_0_sTanH <- conv7_0
I0407 23:51:42.087544 26944 net.cpp:395] conv7_0_sTanH -> conv7_0 (in-place)
I0407 23:51:42.089265 26944 net.cpp:150] Setting up conv7_0_sTanH
I0407 23:51:42.089282 26944 net.cpp:157] Top shape: 128 100 42 42 (22579200)
I0407 23:51:42.089284 26944 net.cpp:165] Memory required for data: 3883563008
I0407 23:51:42.089288 26944 layer_factory.hpp:77] Creating layer conv7_0_postscale
I0407 23:51:42.089298 26944 net.cpp:100] Creating Layer conv7_0_postscale
I0407 23:51:42.089301 26944 net.cpp:434] conv7_0_postscale <- conv7_0
I0407 23:51:42.089306 26944 net.cpp:395] conv7_0_postscale -> conv7_0 (in-place)
I0407 23:51:42.089435 26944 net.cpp:150] Setting up conv7_0_postscale
I0407 23:51:42.089445 26944 net.cpp:157] Top shape: 128 100 42 42 (22579200)
I0407 23:51:42.089448 26944 net.cpp:165] Memory required for data: 3973879808
I0407 23:51:42.089453 26944 layer_factory.hpp:77] Creating layer pool7_0
I0407 23:51:42.089462 26944 net.cpp:100] Creating Layer pool7_0
I0407 23:51:42.089471 26944 net.cpp:434] pool7_0 <- conv7_0
I0407 23:51:42.089476 26944 net.cpp:408] pool7_0 -> pool7_0
I0407 23:51:42.089526 26944 net.cpp:150] Setting up pool7_0
I0407 23:51:42.089535 26944 net.cpp:157] Top shape: 128 100 21 21 (5644800)
I0407 23:51:42.089539 26944 net.cpp:165] Memory required for data: 3996459008
I0407 23:51:42.089541 26944 layer_factory.hpp:77] Creating layer conv7_1
I0407 23:51:42.089550 26944 net.cpp:100] Creating Layer conv7_1
I0407 23:51:42.089555 26944 net.cpp:434] conv7_1 <- pool7_0
I0407 23:51:42.089560 26944 net.cpp:408] conv7_1 -> conv7_1
I0407 23:51:42.092747 26944 net.cpp:150] Setting up conv7_1
I0407 23:51:42.092763 26944 net.cpp:157] Top shape: 128 150 18 18 (6220800)
I0407 23:51:42.092767 26944 net.cpp:165] Memory required for data: 4021342208
I0407 23:51:42.092774 26944 layer_factory.hpp:77] Creating layer conv7_1_prescale
I0407 23:51:42.092783 26944 net.cpp:100] Creating Layer conv7_1_prescale
I0407 23:51:42.092787 26944 net.cpp:434] conv7_1_prescale <- conv7_1
I0407 23:51:42.092806 26944 net.cpp:395] conv7_1_prescale -> conv7_1 (in-place)
I0407 23:51:42.092928 26944 net.cpp:150] Setting up conv7_1_prescale
I0407 23:51:42.092939 26944 net.cpp:157] Top shape: 128 150 18 18 (6220800)
I0407 23:51:42.092942 26944 net.cpp:165] Memory required for data: 4046225408
I0407 23:51:42.092947 26944 layer_factory.hpp:77] Creating layer conv7_1_sTanH
I0407 23:51:42.092953 26944 net.cpp:100] Creating Layer conv7_1_sTanH
I0407 23:51:42.092957 26944 net.cpp:434] conv7_1_sTanH <- conv7_1
I0407 23:51:42.092962 26944 net.cpp:395] conv7_1_sTanH -> conv7_1 (in-place)
I0407 23:51:42.093170 26944 net.cpp:150] Setting up conv7_1_sTanH
I0407 23:51:42.093183 26944 net.cpp:157] Top shape: 128 150 18 18 (6220800)
I0407 23:51:42.093188 26944 net.cpp:165] Memory required for data: 4071108608
I0407 23:51:42.093190 26944 layer_factory.hpp:77] Creating layer conv7_1_postscale
I0407 23:51:42.093197 26944 net.cpp:100] Creating Layer conv7_1_postscale
I0407 23:51:42.093200 26944 net.cpp:434] conv7_1_postscale <- conv7_1
I0407 23:51:42.093206 26944 net.cpp:395] conv7_1_postscale -> conv7_1 (in-place)
I0407 23:51:42.093329 26944 net.cpp:150] Setting up conv7_1_postscale
I0407 23:51:42.093338 26944 net.cpp:157] Top shape: 128 150 18 18 (6220800)
I0407 23:51:42.093341 26944 net.cpp:165] Memory required for data: 4095991808
I0407 23:51:42.093348 26944 layer_factory.hpp:77] Creating layer pool7_1
I0407 23:51:42.093353 26944 net.cpp:100] Creating Layer pool7_1
I0407 23:51:42.093356 26944 net.cpp:434] pool7_1 <- conv7_1
I0407 23:51:42.093364 26944 net.cpp:408] pool7_1 -> pool7_1
I0407 23:51:42.093411 26944 net.cpp:150] Setting up pool7_1
I0407 23:51:42.093420 26944 net.cpp:157] Top shape: 128 150 9 9 (1555200)
I0407 23:51:42.093423 26944 net.cpp:165] Memory required for data: 4102212608
I0407 23:51:42.093426 26944 layer_factory.hpp:77] Creating layer conv7_2
I0407 23:51:42.093436 26944 net.cpp:100] Creating Layer conv7_2
I0407 23:51:42.093439 26944 net.cpp:434] conv7_2 <- pool7_1
I0407 23:51:42.093446 26944 net.cpp:408] conv7_2 -> conv7_2
I0407 23:51:42.106076 26944 net.cpp:150] Setting up conv7_2
I0407 23:51:42.106106 26944 net.cpp:157] Top shape: 128 250 6 6 (1152000)
I0407 23:51:42.106111 26944 net.cpp:165] Memory required for data: 4106820608
I0407 23:51:42.106117 26944 layer_factory.hpp:77] Creating layer conv7_2_prescale
I0407 23:51:42.106127 26944 net.cpp:100] Creating Layer conv7_2_prescale
I0407 23:51:42.106132 26944 net.cpp:434] conv7_2_prescale <- conv7_2
I0407 23:51:42.106137 26944 net.cpp:395] conv7_2_prescale -> conv7_2 (in-place)
I0407 23:51:42.106254 26944 net.cpp:150] Setting up conv7_2_prescale
I0407 23:51:42.106264 26944 net.cpp:157] Top shape: 128 250 6 6 (1152000)
I0407 23:51:42.106267 26944 net.cpp:165] Memory required for data: 4111428608
I0407 23:51:42.106272 26944 layer_factory.hpp:77] Creating layer conv7_2_sTanH
I0407 23:51:42.106278 26944 net.cpp:100] Creating Layer conv7_2_sTanH
I0407 23:51:42.106281 26944 net.cpp:434] conv7_2_sTanH <- conv7_2
I0407 23:51:42.106287 26944 net.cpp:395] conv7_2_sTanH -> conv7_2 (in-place)
I0407 23:51:42.106489 26944 net.cpp:150] Setting up conv7_2_sTanH
I0407 23:51:42.106501 26944 net.cpp:157] Top shape: 128 250 6 6 (1152000)
I0407 23:51:42.106504 26944 net.cpp:165] Memory required for data: 4116036608
I0407 23:51:42.106508 26944 layer_factory.hpp:77] Creating layer conv7_2_postscale
I0407 23:51:42.106515 26944 net.cpp:100] Creating Layer conv7_2_postscale
I0407 23:51:42.106519 26944 net.cpp:434] conv7_2_postscale <- conv7_2
I0407 23:51:42.106526 26944 net.cpp:395] conv7_2_postscale -> conv7_2 (in-place)
I0407 23:51:42.106636 26944 net.cpp:150] Setting up conv7_2_postscale
I0407 23:51:42.106645 26944 net.cpp:157] Top shape: 128 250 6 6 (1152000)
I0407 23:51:42.106647 26944 net.cpp:165] Memory required for data: 4120644608
I0407 23:51:42.106652 26944 layer_factory.hpp:77] Creating layer pool7_2
I0407 23:51:42.106660 26944 net.cpp:100] Creating Layer pool7_2
I0407 23:51:42.106663 26944 net.cpp:434] pool7_2 <- conv7_2
I0407 23:51:42.106668 26944 net.cpp:408] pool7_2 -> pool7_2
I0407 23:51:42.106726 26944 net.cpp:150] Setting up pool7_2
I0407 23:51:42.106736 26944 net.cpp:157] Top shape: 128 250 3 3 (288000)
I0407 23:51:42.106739 26944 net.cpp:165] Memory required for data: 4121796608
I0407 23:51:42.106742 26944 layer_factory.hpp:77] Creating layer fc7_4_300
I0407 23:51:42.106750 26944 net.cpp:100] Creating Layer fc7_4_300
I0407 23:51:42.106753 26944 net.cpp:434] fc7_4_300 <- pool7_2
I0407 23:51:42.106760 26944 net.cpp:408] fc7_4_300 -> fc7_4
I0407 23:51:42.118994 26944 net.cpp:150] Setting up fc7_4_300
I0407 23:51:42.119011 26944 net.cpp:157] Top shape: 128 300 (38400)
I0407 23:51:42.119015 26944 net.cpp:165] Memory required for data: 4121950208
I0407 23:51:42.119022 26944 layer_factory.hpp:77] Creating layer fc7_4_prescale
I0407 23:51:42.119031 26944 net.cpp:100] Creating Layer fc7_4_prescale
I0407 23:51:42.119036 26944 net.cpp:434] fc7_4_prescale <- fc7_4
I0407 23:51:42.119042 26944 net.cpp:395] fc7_4_prescale -> fc7_4 (in-place)
I0407 23:51:42.119163 26944 net.cpp:150] Setting up fc7_4_prescale
I0407 23:51:42.119171 26944 net.cpp:157] Top shape: 128 300 (38400)
I0407 23:51:42.119174 26944 net.cpp:165] Memory required for data: 4122103808
I0407 23:51:42.119179 26944 layer_factory.hpp:77] Creating layer fc7_4_sTanH
I0407 23:51:42.119189 26944 net.cpp:100] Creating Layer fc7_4_sTanH
I0407 23:51:42.119194 26944 net.cpp:434] fc7_4_sTanH <- fc7_4
I0407 23:51:42.119199 26944 net.cpp:395] fc7_4_sTanH -> fc7_4 (in-place)
I0407 23:51:42.119410 26944 net.cpp:150] Setting up fc7_4_sTanH
I0407 23:51:42.119421 26944 net.cpp:157] Top shape: 128 300 (38400)
I0407 23:51:42.119423 26944 net.cpp:165] Memory required for data: 4122257408
I0407 23:51:42.119433 26944 layer_factory.hpp:77] Creating layer fc7_4_postscale
I0407 23:51:42.119441 26944 net.cpp:100] Creating Layer fc7_4_postscale
I0407 23:51:42.119444 26944 net.cpp:434] fc7_4_postscale <- fc7_4
I0407 23:51:42.119451 26944 net.cpp:395] fc7_4_postscale -> fc7_4 (in-place)
I0407 23:51:42.119565 26944 net.cpp:150] Setting up fc7_4_postscale
I0407 23:51:42.119575 26944 net.cpp:157] Top shape: 128 300 (38400)
I0407 23:51:42.119576 26944 net.cpp:165] Memory required for data: 4122411008
I0407 23:51:42.119581 26944 layer_factory.hpp:77] Creating layer drop7_4
I0407 23:51:42.119590 26944 net.cpp:100] Creating Layer drop7_4
I0407 23:51:42.119592 26944 net.cpp:434] drop7_4 <- fc7_4
I0407 23:51:42.119597 26944 net.cpp:395] drop7_4 -> fc7_4 (in-place)
I0407 23:51:42.119621 26944 net.cpp:150] Setting up drop7_4
I0407 23:51:42.119628 26944 net.cpp:157] Top shape: 128 300 (38400)
I0407 23:51:42.119632 26944 net.cpp:165] Memory required for data: 4122564608
I0407 23:51:42.119634 26944 layer_factory.hpp:77] Creating layer fc7_5_67
I0407 23:51:42.119640 26944 net.cpp:100] Creating Layer fc7_5_67
I0407 23:51:42.119643 26944 net.cpp:434] fc7_5_67 <- fc7_4
I0407 23:51:42.119650 26944 net.cpp:408] fc7_5_67 -> fc7_5
I0407 23:51:42.119918 26944 net.cpp:150] Setting up fc7_5_67
I0407 23:51:42.119928 26944 net.cpp:157] Top shape: 128 67 (8576)
I0407 23:51:42.119931 26944 net.cpp:165] Memory required for data: 4122598912
I0407 23:51:42.119937 26944 layer_factory.hpp:77] Creating layer softmax_7
I0407 23:51:42.119943 26944 net.cpp:100] Creating Layer softmax_7
I0407 23:51:42.119947 26944 net.cpp:434] softmax_7 <- fc7_5
I0407 23:51:42.119952 26944 net.cpp:408] softmax_7 -> softmax_7
I0407 23:51:42.120857 26944 net.cpp:150] Setting up softmax_7
I0407 23:51:42.120872 26944 net.cpp:157] Top shape: 128 67 (8576)
I0407 23:51:42.120875 26944 net.cpp:165] Memory required for data: 4122633216
I0407 23:51:42.120879 26944 layer_factory.hpp:77] Creating layer conv8_0
I0407 23:51:42.120889 26944 net.cpp:100] Creating Layer conv8_0
I0407 23:51:42.120893 26944 net.cpp:434] conv8_0 <- data_1_data_1_0_split_3
I0407 23:51:42.120900 26944 net.cpp:408] conv8_0 -> conv8_0
I0407 23:51:42.122516 26944 net.cpp:150] Setting up conv8_0
I0407 23:51:42.122532 26944 net.cpp:157] Top shape: 128 100 42 42 (22579200)
I0407 23:51:42.122548 26944 net.cpp:165] Memory required for data: 4212950016
I0407 23:51:42.122567 26944 layer_factory.hpp:77] Creating layer conv8_0_prescale
I0407 23:51:42.122575 26944 net.cpp:100] Creating Layer conv8_0_prescale
I0407 23:51:42.122580 26944 net.cpp:434] conv8_0_prescale <- conv8_0
I0407 23:51:42.122591 26944 net.cpp:395] conv8_0_prescale -> conv8_0 (in-place)
I0407 23:51:42.122720 26944 net.cpp:150] Setting up conv8_0_prescale
I0407 23:51:42.122730 26944 net.cpp:157] Top shape: 128 100 42 42 (22579200)
I0407 23:51:42.122733 26944 net.cpp:165] Memory required for data: 4303266816
I0407 23:51:42.122738 26944 layer_factory.hpp:77] Creating layer conv8_0_sTanH
I0407 23:51:42.122743 26944 net.cpp:100] Creating Layer conv8_0_sTanH
I0407 23:51:42.122747 26944 net.cpp:434] conv8_0_sTanH <- conv8_0
I0407 23:51:42.122753 26944 net.cpp:395] conv8_0_sTanH -> conv8_0 (in-place)
I0407 23:51:42.123582 26944 net.cpp:150] Setting up conv8_0_sTanH
I0407 23:51:42.123598 26944 net.cpp:157] Top shape: 128 100 42 42 (22579200)
I0407 23:51:42.123601 26944 net.cpp:165] Memory required for data: 4393583616
I0407 23:51:42.123605 26944 layer_factory.hpp:77] Creating layer conv8_0_postscale
I0407 23:51:42.123613 26944 net.cpp:100] Creating Layer conv8_0_postscale
I0407 23:51:42.123617 26944 net.cpp:434] conv8_0_postscale <- conv8_0
I0407 23:51:42.123623 26944 net.cpp:395] conv8_0_postscale -> conv8_0 (in-place)
I0407 23:51:42.123754 26944 net.cpp:150] Setting up conv8_0_postscale
I0407 23:51:42.123766 26944 net.cpp:157] Top shape: 128 100 42 42 (22579200)
I0407 23:51:42.123769 26944 net.cpp:165] Memory required for data: 4483900416
I0407 23:51:42.123775 26944 layer_factory.hpp:77] Creating layer pool8_0
I0407 23:51:42.123780 26944 net.cpp:100] Creating Layer pool8_0
I0407 23:51:42.123785 26944 net.cpp:434] pool8_0 <- conv8_0
I0407 23:51:42.123790 26944 net.cpp:408] pool8_0 -> pool8_0
I0407 23:51:42.123841 26944 net.cpp:150] Setting up pool8_0
I0407 23:51:42.123849 26944 net.cpp:157] Top shape: 128 100 21 21 (5644800)
I0407 23:51:42.123852 26944 net.cpp:165] Memory required for data: 4506479616
I0407 23:51:42.123855 26944 layer_factory.hpp:77] Creating layer conv8_1
I0407 23:51:42.123865 26944 net.cpp:100] Creating Layer conv8_1
I0407 23:51:42.123872 26944 net.cpp:434] conv8_1 <- pool8_0
I0407 23:51:42.123884 26944 net.cpp:408] conv8_1 -> conv8_1
I0407 23:51:42.127913 26944 net.cpp:150] Setting up conv8_1
I0407 23:51:42.127929 26944 net.cpp:157] Top shape: 128 150 18 18 (6220800)
I0407 23:51:42.127933 26944 net.cpp:165] Memory required for data: 4531362816
I0407 23:51:42.127941 26944 layer_factory.hpp:77] Creating layer conv8_1_prescale
I0407 23:51:42.127948 26944 net.cpp:100] Creating Layer conv8_1_prescale
I0407 23:51:42.127952 26944 net.cpp:434] conv8_1_prescale <- conv8_1
I0407 23:51:42.127960 26944 net.cpp:395] conv8_1_prescale -> conv8_1 (in-place)
I0407 23:51:42.128083 26944 net.cpp:150] Setting up conv8_1_prescale
I0407 23:51:42.128093 26944 net.cpp:157] Top shape: 128 150 18 18 (6220800)
I0407 23:51:42.128096 26944 net.cpp:165] Memory required for data: 4556246016
I0407 23:51:42.128100 26944 layer_factory.hpp:77] Creating layer conv8_1_sTanH
I0407 23:51:42.128106 26944 net.cpp:100] Creating Layer conv8_1_sTanH
I0407 23:51:42.128109 26944 net.cpp:434] conv8_1_sTanH <- conv8_1
I0407 23:51:42.128115 26944 net.cpp:395] conv8_1_sTanH -> conv8_1 (in-place)
I0407 23:51:42.128316 26944 net.cpp:150] Setting up conv8_1_sTanH
I0407 23:51:42.128327 26944 net.cpp:157] Top shape: 128 150 18 18 (6220800)
I0407 23:51:42.128330 26944 net.cpp:165] Memory required for data: 4581129216
I0407 23:51:42.128334 26944 layer_factory.hpp:77] Creating layer conv8_1_postscale
I0407 23:51:42.128342 26944 net.cpp:100] Creating Layer conv8_1_postscale
I0407 23:51:42.128345 26944 net.cpp:434] conv8_1_postscale <- conv8_1
I0407 23:51:42.128350 26944 net.cpp:395] conv8_1_postscale -> conv8_1 (in-place)
I0407 23:51:42.128480 26944 net.cpp:150] Setting up conv8_1_postscale
I0407 23:51:42.128490 26944 net.cpp:157] Top shape: 128 150 18 18 (6220800)
I0407 23:51:42.128494 26944 net.cpp:165] Memory required for data: 4606012416
I0407 23:51:42.128514 26944 layer_factory.hpp:77] Creating layer pool8_1
I0407 23:51:42.128522 26944 net.cpp:100] Creating Layer pool8_1
I0407 23:51:42.128526 26944 net.cpp:434] pool8_1 <- conv8_1
I0407 23:51:42.128531 26944 net.cpp:408] pool8_1 -> pool8_1
I0407 23:51:42.128583 26944 net.cpp:150] Setting up pool8_1
I0407 23:51:42.128592 26944 net.cpp:157] Top shape: 128 150 9 9 (1555200)
I0407 23:51:42.128595 26944 net.cpp:165] Memory required for data: 4612233216
I0407 23:51:42.128598 26944 layer_factory.hpp:77] Creating layer conv8_2
I0407 23:51:42.128607 26944 net.cpp:100] Creating Layer conv8_2
I0407 23:51:42.128612 26944 net.cpp:434] conv8_2 <- pool8_1
I0407 23:51:42.128618 26944 net.cpp:408] conv8_2 -> conv8_2
I0407 23:51:42.134876 26944 net.cpp:150] Setting up conv8_2
I0407 23:51:42.134893 26944 net.cpp:157] Top shape: 128 250 6 6 (1152000)
I0407 23:51:42.134896 26944 net.cpp:165] Memory required for data: 4616841216
I0407 23:51:42.134903 26944 layer_factory.hpp:77] Creating layer conv8_2_prescale
I0407 23:51:42.134912 26944 net.cpp:100] Creating Layer conv8_2_prescale
I0407 23:51:42.134917 26944 net.cpp:434] conv8_2_prescale <- conv8_2
I0407 23:51:42.134923 26944 net.cpp:395] conv8_2_prescale -> conv8_2 (in-place)
I0407 23:51:42.135040 26944 net.cpp:150] Setting up conv8_2_prescale
I0407 23:51:42.135049 26944 net.cpp:157] Top shape: 128 250 6 6 (1152000)
I0407 23:51:42.135052 26944 net.cpp:165] Memory required for data: 4621449216
I0407 23:51:42.135057 26944 layer_factory.hpp:77] Creating layer conv8_2_sTanH
I0407 23:51:42.135064 26944 net.cpp:100] Creating Layer conv8_2_sTanH
I0407 23:51:42.135068 26944 net.cpp:434] conv8_2_sTanH <- conv8_2
I0407 23:51:42.135072 26944 net.cpp:395] conv8_2_sTanH -> conv8_2 (in-place)
I0407 23:51:42.135270 26944 net.cpp:150] Setting up conv8_2_sTanH
I0407 23:51:42.135282 26944 net.cpp:157] Top shape: 128 250 6 6 (1152000)
I0407 23:51:42.135285 26944 net.cpp:165] Memory required for data: 4626057216
I0407 23:51:42.135288 26944 layer_factory.hpp:77] Creating layer conv8_2_postscale
I0407 23:51:42.135296 26944 net.cpp:100] Creating Layer conv8_2_postscale
I0407 23:51:42.135300 26944 net.cpp:434] conv8_2_postscale <- conv8_2
I0407 23:51:42.135308 26944 net.cpp:395] conv8_2_postscale -> conv8_2 (in-place)
I0407 23:51:42.135417 26944 net.cpp:150] Setting up conv8_2_postscale
I0407 23:51:42.135426 26944 net.cpp:157] Top shape: 128 250 6 6 (1152000)
I0407 23:51:42.135429 26944 net.cpp:165] Memory required for data: 4630665216
I0407 23:51:42.135433 26944 layer_factory.hpp:77] Creating layer pool8_2
I0407 23:51:42.135442 26944 net.cpp:100] Creating Layer pool8_2
I0407 23:51:42.135444 26944 net.cpp:434] pool8_2 <- conv8_2
I0407 23:51:42.135452 26944 net.cpp:408] pool8_2 -> pool8_2
I0407 23:51:42.135494 26944 net.cpp:150] Setting up pool8_2
I0407 23:51:42.135502 26944 net.cpp:157] Top shape: 128 250 3 3 (288000)
I0407 23:51:42.135505 26944 net.cpp:165] Memory required for data: 4631817216
I0407 23:51:42.135509 26944 layer_factory.hpp:77] Creating layer fc8_4_300
I0407 23:51:42.135515 26944 net.cpp:100] Creating Layer fc8_4_300
I0407 23:51:42.135519 26944 net.cpp:434] fc8_4_300 <- pool8_2
I0407 23:51:42.135524 26944 net.cpp:408] fc8_4_300 -> fc8_4
I0407 23:51:42.140820 26944 net.cpp:150] Setting up fc8_4_300
I0407 23:51:42.140835 26944 net.cpp:157] Top shape: 128 300 (38400)
I0407 23:51:42.140849 26944 net.cpp:165] Memory required for data: 4631970816
I0407 23:51:42.140856 26944 layer_factory.hpp:77] Creating layer fc8_4_prescale
I0407 23:51:42.140866 26944 net.cpp:100] Creating Layer fc8_4_prescale
I0407 23:51:42.140869 26944 net.cpp:434] fc8_4_prescale <- fc8_4
I0407 23:51:42.140875 26944 net.cpp:395] fc8_4_prescale -> fc8_4 (in-place)
I0407 23:51:42.140985 26944 net.cpp:150] Setting up fc8_4_prescale
I0407 23:51:42.140992 26944 net.cpp:157] Top shape: 128 300 (38400)
I0407 23:51:42.140995 26944 net.cpp:165] Memory required for data: 4632124416
I0407 23:51:42.141000 26944 layer_factory.hpp:77] Creating layer fc8_4_sTanH
I0407 23:51:42.141005 26944 net.cpp:100] Creating Layer fc8_4_sTanH
I0407 23:51:42.141010 26944 net.cpp:434] fc8_4_sTanH <- fc8_4
I0407 23:51:42.141026 26944 net.cpp:395] fc8_4_sTanH -> fc8_4 (in-place)
I0407 23:51:42.141237 26944 net.cpp:150] Setting up fc8_4_sTanH
I0407 23:51:42.141247 26944 net.cpp:157] Top shape: 128 300 (38400)
I0407 23:51:42.141250 26944 net.cpp:165] Memory required for data: 4632278016
I0407 23:51:42.141254 26944 layer_factory.hpp:77] Creating layer fc8_4_postscale
I0407 23:51:42.141263 26944 net.cpp:100] Creating Layer fc8_4_postscale
I0407 23:51:42.141266 26944 net.cpp:434] fc8_4_postscale <- fc8_4
I0407 23:51:42.141271 26944 net.cpp:395] fc8_4_postscale -> fc8_4 (in-place)
I0407 23:51:42.141391 26944 net.cpp:150] Setting up fc8_4_postscale
I0407 23:51:42.141399 26944 net.cpp:157] Top shape: 128 300 (38400)
I0407 23:51:42.141402 26944 net.cpp:165] Memory required for data: 4632431616
I0407 23:51:42.141407 26944 layer_factory.hpp:77] Creating layer drop8_4
I0407 23:51:42.141413 26944 net.cpp:100] Creating Layer drop8_4
I0407 23:51:42.141417 26944 net.cpp:434] drop8_4 <- fc8_4
I0407 23:51:42.141422 26944 net.cpp:395] drop8_4 -> fc8_4 (in-place)
I0407 23:51:42.141445 26944 net.cpp:150] Setting up drop8_4
I0407 23:51:42.141453 26944 net.cpp:157] Top shape: 128 300 (38400)
I0407 23:51:42.141455 26944 net.cpp:165] Memory required for data: 4632585216
I0407 23:51:42.141458 26944 layer_factory.hpp:77] Creating layer fc8_5_67
I0407 23:51:42.141466 26944 net.cpp:100] Creating Layer fc8_5_67
I0407 23:51:42.141469 26944 net.cpp:434] fc8_5_67 <- fc8_4
I0407 23:51:42.141474 26944 net.cpp:408] fc8_5_67 -> fc8_5
I0407 23:51:42.141733 26944 net.cpp:150] Setting up fc8_5_67
I0407 23:51:42.141743 26944 net.cpp:157] Top shape: 128 67 (8576)
I0407 23:51:42.141746 26944 net.cpp:165] Memory required for data: 4632619520
I0407 23:51:42.141752 26944 layer_factory.hpp:77] Creating layer softmax_8
I0407 23:51:42.141757 26944 net.cpp:100] Creating Layer softmax_8
I0407 23:51:42.141760 26944 net.cpp:434] softmax_8 <- fc8_5
I0407 23:51:42.141767 26944 net.cpp:408] softmax_8 -> softmax_8
I0407 23:51:42.142681 26944 net.cpp:150] Setting up softmax_8
I0407 23:51:42.142698 26944 net.cpp:157] Top shape: 128 67 (8576)
I0407 23:51:42.142700 26944 net.cpp:165] Memory required for data: 4632653824
I0407 23:51:42.142704 26944 layer_factory.hpp:77] Creating layer conv9_0
I0407 23:51:42.142714 26944 net.cpp:100] Creating Layer conv9_0
I0407 23:51:42.142719 26944 net.cpp:434] conv9_0 <- data_1_data_1_0_split_4
I0407 23:51:42.142725 26944 net.cpp:408] conv9_0 -> conv9_0
I0407 23:51:42.143751 26944 net.cpp:150] Setting up conv9_0
I0407 23:51:42.143766 26944 net.cpp:157] Top shape: 128 100 42 42 (22579200)
I0407 23:51:42.143769 26944 net.cpp:165] Memory required for data: 4722970624
I0407 23:51:42.143776 26944 layer_factory.hpp:77] Creating layer conv9_0_prescale
I0407 23:51:42.143784 26944 net.cpp:100] Creating Layer conv9_0_prescale
I0407 23:51:42.143788 26944 net.cpp:434] conv9_0_prescale <- conv9_0
I0407 23:51:42.143793 26944 net.cpp:395] conv9_0_prescale -> conv9_0 (in-place)
I0407 23:51:42.143929 26944 net.cpp:150] Setting up conv9_0_prescale
I0407 23:51:42.143940 26944 net.cpp:157] Top shape: 128 100 42 42 (22579200)
I0407 23:51:42.143944 26944 net.cpp:165] Memory required for data: 4813287424
I0407 23:51:42.143949 26944 layer_factory.hpp:77] Creating layer conv9_0_sTanH
I0407 23:51:42.143954 26944 net.cpp:100] Creating Layer conv9_0_sTanH
I0407 23:51:42.143959 26944 net.cpp:434] conv9_0_sTanH <- conv9_0
I0407 23:51:42.143963 26944 net.cpp:395] conv9_0_sTanH -> conv9_0 (in-place)
I0407 23:51:42.144811 26944 net.cpp:150] Setting up conv9_0_sTanH
I0407 23:51:42.144827 26944 net.cpp:157] Top shape: 128 100 42 42 (22579200)
I0407 23:51:42.144831 26944 net.cpp:165] Memory required for data: 4903604224
I0407 23:51:42.144835 26944 layer_factory.hpp:77] Creating layer conv9_0_postscale
I0407 23:51:42.144841 26944 net.cpp:100] Creating Layer conv9_0_postscale
I0407 23:51:42.144845 26944 net.cpp:434] conv9_0_postscale <- conv9_0
I0407 23:51:42.144852 26944 net.cpp:395] conv9_0_postscale -> conv9_0 (in-place)
I0407 23:51:42.144985 26944 net.cpp:150] Setting up conv9_0_postscale
I0407 23:51:42.145007 26944 net.cpp:157] Top shape: 128 100 42 42 (22579200)
I0407 23:51:42.145011 26944 net.cpp:165] Memory required for data: 4993921024
I0407 23:51:42.145017 26944 layer_factory.hpp:77] Creating layer pool9_0
I0407 23:51:42.145023 26944 net.cpp:100] Creating Layer pool9_0
I0407 23:51:42.145027 26944 net.cpp:434] pool9_0 <- conv9_0
I0407 23:51:42.145035 26944 net.cpp:408] pool9_0 -> pool9_0
I0407 23:51:42.145087 26944 net.cpp:150] Setting up pool9_0
I0407 23:51:42.145097 26944 net.cpp:157] Top shape: 128 100 21 21 (5644800)
I0407 23:51:42.145100 26944 net.cpp:165] Memory required for data: 5016500224
I0407 23:51:42.145104 26944 layer_factory.hpp:77] Creating layer conv9_1
I0407 23:51:42.145114 26944 net.cpp:100] Creating Layer conv9_1
I0407 23:51:42.145119 26944 net.cpp:434] conv9_1 <- pool9_0
I0407 23:51:42.145125 26944 net.cpp:408] conv9_1 -> conv9_1
I0407 23:51:42.148150 26944 net.cpp:150] Setting up conv9_1
I0407 23:51:42.148167 26944 net.cpp:157] Top shape: 128 150 18 18 (6220800)
I0407 23:51:42.148171 26944 net.cpp:165] Memory required for data: 5041383424
I0407 23:51:42.148178 26944 layer_factory.hpp:77] Creating layer conv9_1_prescale
I0407 23:51:42.148186 26944 net.cpp:100] Creating Layer conv9_1_prescale
I0407 23:51:42.148190 26944 net.cpp:434] conv9_1_prescale <- conv9_1
I0407 23:51:42.148197 26944 net.cpp:395] conv9_1_prescale -> conv9_1 (in-place)
I0407 23:51:42.148324 26944 net.cpp:150] Setting up conv9_1_prescale
I0407 23:51:42.148334 26944 net.cpp:157] Top shape: 128 150 18 18 (6220800)
I0407 23:51:42.148336 26944 net.cpp:165] Memory required for data: 5066266624
I0407 23:51:42.148341 26944 layer_factory.hpp:77] Creating layer conv9_1_sTanH
I0407 23:51:42.148347 26944 net.cpp:100] Creating Layer conv9_1_sTanH
I0407 23:51:42.148350 26944 net.cpp:434] conv9_1_sTanH <- conv9_1
I0407 23:51:42.148356 26944 net.cpp:395] conv9_1_sTanH -> conv9_1 (in-place)
I0407 23:51:42.148560 26944 net.cpp:150] Setting up conv9_1_sTanH
I0407 23:51:42.148571 26944 net.cpp:157] Top shape: 128 150 18 18 (6220800)
I0407 23:51:42.148573 26944 net.cpp:165] Memory required for data: 5091149824
I0407 23:51:42.148576 26944 layer_factory.hpp:77] Creating layer conv9_1_postscale
I0407 23:51:42.148584 26944 net.cpp:100] Creating Layer conv9_1_postscale
I0407 23:51:42.148588 26944 net.cpp:434] conv9_1_postscale <- conv9_1
I0407 23:51:42.148594 26944 net.cpp:395] conv9_1_postscale -> conv9_1 (in-place)
I0407 23:51:42.148720 26944 net.cpp:150] Setting up conv9_1_postscale
I0407 23:51:42.148728 26944 net.cpp:157] Top shape: 128 150 18 18 (6220800)
I0407 23:51:42.148731 26944 net.cpp:165] Memory required for data: 5116033024
I0407 23:51:42.148736 26944 layer_factory.hpp:77] Creating layer pool9_1
I0407 23:51:42.148744 26944 net.cpp:100] Creating Layer pool9_1
I0407 23:51:42.148749 26944 net.cpp:434] pool9_1 <- conv9_1
I0407 23:51:42.148756 26944 net.cpp:408] pool9_1 -> pool9_1
I0407 23:51:42.148805 26944 net.cpp:150] Setting up pool9_1
I0407 23:51:42.148814 26944 net.cpp:157] Top shape: 128 150 9 9 (1555200)
I0407 23:51:42.148818 26944 net.cpp:165] Memory required for data: 5122253824
I0407 23:51:42.148821 26944 layer_factory.hpp:77] Creating layer conv9_2
I0407 23:51:42.148829 26944 net.cpp:100] Creating Layer conv9_2
I0407 23:51:42.148835 26944 net.cpp:434] conv9_2 <- pool9_1
I0407 23:51:42.148841 26944 net.cpp:408] conv9_2 -> conv9_2
I0407 23:51:42.155113 26944 net.cpp:150] Setting up conv9_2
I0407 23:51:42.155130 26944 net.cpp:157] Top shape: 128 250 6 6 (1152000)
I0407 23:51:42.155134 26944 net.cpp:165] Memory required for data: 5126861824
I0407 23:51:42.155141 26944 layer_factory.hpp:77] Creating layer conv9_2_prescale
I0407 23:51:42.155150 26944 net.cpp:100] Creating Layer conv9_2_prescale
I0407 23:51:42.155155 26944 net.cpp:434] conv9_2_prescale <- conv9_2
I0407 23:51:42.155161 26944 net.cpp:395] conv9_2_prescale -> conv9_2 (in-place)
I0407 23:51:42.155283 26944 net.cpp:150] Setting up conv9_2_prescale
I0407 23:51:42.155293 26944 net.cpp:157] Top shape: 128 250 6 6 (1152000)
I0407 23:51:42.155308 26944 net.cpp:165] Memory required for data: 5131469824
I0407 23:51:42.155313 26944 layer_factory.hpp:77] Creating layer conv9_2_sTanH
I0407 23:51:42.155320 26944 net.cpp:100] Creating Layer conv9_2_sTanH
I0407 23:51:42.155324 26944 net.cpp:434] conv9_2_sTanH <- conv9_2
I0407 23:51:42.155333 26944 net.cpp:395] conv9_2_sTanH -> conv9_2 (in-place)
I0407 23:51:42.155539 26944 net.cpp:150] Setting up conv9_2_sTanH
I0407 23:51:42.155550 26944 net.cpp:157] Top shape: 128 250 6 6 (1152000)
I0407 23:51:42.155553 26944 net.cpp:165] Memory required for data: 5136077824
I0407 23:51:42.155556 26944 layer_factory.hpp:77] Creating layer conv9_2_postscale
I0407 23:51:42.155565 26944 net.cpp:100] Creating Layer conv9_2_postscale
I0407 23:51:42.155570 26944 net.cpp:434] conv9_2_postscale <- conv9_2
I0407 23:51:42.155575 26944 net.cpp:395] conv9_2_postscale -> conv9_2 (in-place)
I0407 23:51:42.155691 26944 net.cpp:150] Setting up conv9_2_postscale
I0407 23:51:42.155700 26944 net.cpp:157] Top shape: 128 250 6 6 (1152000)
I0407 23:51:42.155704 26944 net.cpp:165] Memory required for data: 5140685824
I0407 23:51:42.155709 26944 layer_factory.hpp:77] Creating layer pool9_2
I0407 23:51:42.155715 26944 net.cpp:100] Creating Layer pool9_2
I0407 23:51:42.155719 26944 net.cpp:434] pool9_2 <- conv9_2
I0407 23:51:42.155725 26944 net.cpp:408] pool9_2 -> pool9_2
I0407 23:51:42.155767 26944 net.cpp:150] Setting up pool9_2
I0407 23:51:42.155776 26944 net.cpp:157] Top shape: 128 250 3 3 (288000)
I0407 23:51:42.155778 26944 net.cpp:165] Memory required for data: 5141837824
I0407 23:51:42.155782 26944 layer_factory.hpp:77] Creating layer fc9_4_300
I0407 23:51:42.155788 26944 net.cpp:100] Creating Layer fc9_4_300
I0407 23:51:42.155792 26944 net.cpp:434] fc9_4_300 <- pool9_2
I0407 23:51:42.155797 26944 net.cpp:408] fc9_4_300 -> fc9_4
I0407 23:51:42.161171 26944 net.cpp:150] Setting up fc9_4_300
I0407 23:51:42.161187 26944 net.cpp:157] Top shape: 128 300 (38400)
I0407 23:51:42.161190 26944 net.cpp:165] Memory required for data: 5141991424
I0407 23:51:42.161197 26944 layer_factory.hpp:77] Creating layer fc9_4_prescale
I0407 23:51:42.161206 26944 net.cpp:100] Creating Layer fc9_4_prescale
I0407 23:51:42.161211 26944 net.cpp:434] fc9_4_prescale <- fc9_4
I0407 23:51:42.161216 26944 net.cpp:395] fc9_4_prescale -> fc9_4 (in-place)
I0407 23:51:42.161327 26944 net.cpp:150] Setting up fc9_4_prescale
I0407 23:51:42.161336 26944 net.cpp:157] Top shape: 128 300 (38400)
I0407 23:51:42.161339 26944 net.cpp:165] Memory required for data: 5142145024
I0407 23:51:42.161344 26944 layer_factory.hpp:77] Creating layer fc9_4_sTanH
I0407 23:51:42.161350 26944 net.cpp:100] Creating Layer fc9_4_sTanH
I0407 23:51:42.161352 26944 net.cpp:434] fc9_4_sTanH <- fc9_4
I0407 23:51:42.161357 26944 net.cpp:395] fc9_4_sTanH -> fc9_4 (in-place)
I0407 23:51:42.161568 26944 net.cpp:150] Setting up fc9_4_sTanH
I0407 23:51:42.161579 26944 net.cpp:157] Top shape: 128 300 (38400)
I0407 23:51:42.161582 26944 net.cpp:165] Memory required for data: 5142298624
I0407 23:51:42.161586 26944 layer_factory.hpp:77] Creating layer fc9_4_postscale
I0407 23:51:42.161593 26944 net.cpp:100] Creating Layer fc9_4_postscale
I0407 23:51:42.161597 26944 net.cpp:434] fc9_4_postscale <- fc9_4
I0407 23:51:42.161602 26944 net.cpp:395] fc9_4_postscale -> fc9_4 (in-place)
I0407 23:51:42.161725 26944 net.cpp:150] Setting up fc9_4_postscale
I0407 23:51:42.161733 26944 net.cpp:157] Top shape: 128 300 (38400)
I0407 23:51:42.161736 26944 net.cpp:165] Memory required for data: 5142452224
I0407 23:51:42.161741 26944 layer_factory.hpp:77] Creating layer drop9_4
I0407 23:51:42.161746 26944 net.cpp:100] Creating Layer drop9_4
I0407 23:51:42.161751 26944 net.cpp:434] drop9_4 <- fc9_4
I0407 23:51:42.161756 26944 net.cpp:395] drop9_4 -> fc9_4 (in-place)
I0407 23:51:42.161779 26944 net.cpp:150] Setting up drop9_4
I0407 23:51:42.161787 26944 net.cpp:157] Top shape: 128 300 (38400)
I0407 23:51:42.161789 26944 net.cpp:165] Memory required for data: 5142605824
I0407 23:51:42.161792 26944 layer_factory.hpp:77] Creating layer fc9_5_67
I0407 23:51:42.161813 26944 net.cpp:100] Creating Layer fc9_5_67
I0407 23:51:42.161818 26944 net.cpp:434] fc9_5_67 <- fc9_4
I0407 23:51:42.161823 26944 net.cpp:408] fc9_5_67 -> fc9_5
I0407 23:51:42.162091 26944 net.cpp:150] Setting up fc9_5_67
I0407 23:51:42.162101 26944 net.cpp:157] Top shape: 128 67 (8576)
I0407 23:51:42.162103 26944 net.cpp:165] Memory required for data: 5142640128
I0407 23:51:42.162109 26944 layer_factory.hpp:77] Creating layer softmax_9
I0407 23:51:42.162116 26944 net.cpp:100] Creating Layer softmax_9
I0407 23:51:42.162118 26944 net.cpp:434] softmax_9 <- fc9_5
I0407 23:51:42.162123 26944 net.cpp:408] softmax_9 -> softmax_9
I0407 23:51:42.163051 26944 net.cpp:150] Setting up softmax_9
I0407 23:51:42.163066 26944 net.cpp:157] Top shape: 128 67 (8576)
I0407 23:51:42.163069 26944 net.cpp:165] Memory required for data: 5142674432
I0407 23:51:42.163074 26944 layer_factory.hpp:77] Creating layer data_2
I0407 23:51:42.163208 26944 net.cpp:100] Creating Layer data_2
I0407 23:51:42.163221 26944 net.cpp:408] data_2 -> data_2
I0407 23:51:42.163231 26944 net.cpp:408] data_2 -> label_2
I0407 23:51:42.164798 27031 db_lmdb.cpp:35] Opened lmdb ../local_data/lmdb/rtsd-r1/AHE/train/lmdb
I0407 23:51:42.165047 26944 data_layer.cpp:41] output data size: 128,3,48,48
I0407 23:51:42.172557 26944 net.cpp:150] Setting up data_2
I0407 23:51:42.172575 26944 net.cpp:157] Top shape: 128 3 48 48 (884736)
I0407 23:51:42.172580 26944 net.cpp:157] Top shape: 128 (128)
I0407 23:51:42.172582 26944 net.cpp:165] Memory required for data: 5146213888
I0407 23:51:42.172586 26944 layer_factory.hpp:77] Creating layer data_2_data_2_0_split
I0407 23:51:42.172595 26944 net.cpp:100] Creating Layer data_2_data_2_0_split
I0407 23:51:42.172600 26944 net.cpp:434] data_2_data_2_0_split <- data_2
I0407 23:51:42.172610 26944 net.cpp:408] data_2_data_2_0_split -> data_2_data_2_0_split_0
I0407 23:51:42.172617 26944 net.cpp:408] data_2_data_2_0_split -> data_2_data_2_0_split_1
I0407 23:51:42.172624 26944 net.cpp:408] data_2_data_2_0_split -> data_2_data_2_0_split_2
I0407 23:51:42.172631 26944 net.cpp:408] data_2_data_2_0_split -> data_2_data_2_0_split_3
I0407 23:51:42.172637 26944 net.cpp:408] data_2_data_2_0_split -> data_2_data_2_0_split_4
I0407 23:51:42.172780 26944 net.cpp:150] Setting up data_2_data_2_0_split
I0407 23:51:42.172791 26944 net.cpp:157] Top shape: 128 3 48 48 (884736)
I0407 23:51:42.172794 26944 net.cpp:157] Top shape: 128 3 48 48 (884736)
I0407 23:51:42.172798 26944 net.cpp:157] Top shape: 128 3 48 48 (884736)
I0407 23:51:42.172802 26944 net.cpp:157] Top shape: 128 3 48 48 (884736)
I0407 23:51:42.172806 26944 net.cpp:157] Top shape: 128 3 48 48 (884736)
I0407 23:51:42.172809 26944 net.cpp:165] Memory required for data: 5163908608
I0407 23:51:42.172813 26944 layer_factory.hpp:77] Creating layer conv10_0
I0407 23:51:42.172823 26944 net.cpp:100] Creating Layer conv10_0
I0407 23:51:42.172827 26944 net.cpp:434] conv10_0 <- data_2_data_2_0_split_0
I0407 23:51:42.172834 26944 net.cpp:408] conv10_0 -> conv10_0
I0407 23:51:42.173956 26944 net.cpp:150] Setting up conv10_0
I0407 23:51:42.173971 26944 net.cpp:157] Top shape: 128 100 42 42 (22579200)
I0407 23:51:42.173974 26944 net.cpp:165] Memory required for data: 5254225408
I0407 23:51:42.173982 26944 layer_factory.hpp:77] Creating layer conv10_0_prescale
I0407 23:51:42.173991 26944 net.cpp:100] Creating Layer conv10_0_prescale
I0407 23:51:42.173996 26944 net.cpp:434] conv10_0_prescale <- conv10_0
I0407 23:51:42.174001 26944 net.cpp:395] conv10_0_prescale -> conv10_0 (in-place)
I0407 23:51:42.174132 26944 net.cpp:150] Setting up conv10_0_prescale
I0407 23:51:42.174144 26944 net.cpp:157] Top shape: 128 100 42 42 (22579200)
I0407 23:51:42.174147 26944 net.cpp:165] Memory required for data: 5344542208
I0407 23:51:42.174151 26944 layer_factory.hpp:77] Creating layer conv10_0_sTanH
I0407 23:51:42.174157 26944 net.cpp:100] Creating Layer conv10_0_sTanH
I0407 23:51:42.174160 26944 net.cpp:434] conv10_0_sTanH <- conv10_0
I0407 23:51:42.174165 26944 net.cpp:395] conv10_0_sTanH -> conv10_0 (in-place)
I0407 23:51:42.175158 26944 net.cpp:150] Setting up conv10_0_sTanH
I0407 23:51:42.175173 26944 net.cpp:157] Top shape: 128 100 42 42 (22579200)
I0407 23:51:42.175176 26944 net.cpp:165] Memory required for data: 5434859008
I0407 23:51:42.175180 26944 layer_factory.hpp:77] Creating layer conv10_0_postscale
I0407 23:51:42.175189 26944 net.cpp:100] Creating Layer conv10_0_postscale
I0407 23:51:42.175194 26944 net.cpp:434] conv10_0_postscale <- conv10_0
I0407 23:51:42.175199 26944 net.cpp:395] conv10_0_postscale -> conv10_0 (in-place)
I0407 23:51:42.175616 26944 net.cpp:150] Setting up conv10_0_postscale
I0407 23:51:42.175626 26944 net.cpp:157] Top shape: 128 100 42 42 (22579200)
I0407 23:51:42.175629 26944 net.cpp:165] Memory required for data: 5525175808
I0407 23:51:42.175634 26944 layer_factory.hpp:77] Creating layer pool10_0
I0407 23:51:42.175642 26944 net.cpp:100] Creating Layer pool10_0
I0407 23:51:42.175645 26944 net.cpp:434] pool10_0 <- conv10_0
I0407 23:51:42.175652 26944 net.cpp:408] pool10_0 -> pool10_0
I0407 23:51:42.175706 26944 net.cpp:150] Setting up pool10_0
I0407 23:51:42.175715 26944 net.cpp:157] Top shape: 128 100 21 21 (5644800)
I0407 23:51:42.175719 26944 net.cpp:165] Memory required for data: 5547755008
I0407 23:51:42.175721 26944 layer_factory.hpp:77] Creating layer conv10_1
I0407 23:51:42.175730 26944 net.cpp:100] Creating Layer conv10_1
I0407 23:51:42.175734 26944 net.cpp:434] conv10_1 <- pool10_0
I0407 23:51:42.175740 26944 net.cpp:408] conv10_1 -> conv10_1
I0407 23:51:42.179814 26944 net.cpp:150] Setting up conv10_1
I0407 23:51:42.179831 26944 net.cpp:157] Top shape: 128 150 18 18 (6220800)
I0407 23:51:42.179836 26944 net.cpp:165] Memory required for data: 5572638208
I0407 23:51:42.179842 26944 layer_factory.hpp:77] Creating layer conv10_1_prescale
I0407 23:51:42.179852 26944 net.cpp:100] Creating Layer conv10_1_prescale
I0407 23:51:42.179855 26944 net.cpp:434] conv10_1_prescale <- conv10_1
I0407 23:51:42.179862 26944 net.cpp:395] conv10_1_prescale -> conv10_1 (in-place)
I0407 23:51:42.179999 26944 net.cpp:150] Setting up conv10_1_prescale
I0407 23:51:42.180011 26944 net.cpp:157] Top shape: 128 150 18 18 (6220800)
I0407 23:51:42.180013 26944 net.cpp:165] Memory required for data: 5597521408
I0407 23:51:42.180018 26944 layer_factory.hpp:77] Creating layer conv10_1_sTanH
I0407 23:51:42.180025 26944 net.cpp:100] Creating Layer conv10_1_sTanH
I0407 23:51:42.180029 26944 net.cpp:434] conv10_1_sTanH <- conv10_1
I0407 23:51:42.180034 26944 net.cpp:395] conv10_1_sTanH -> conv10_1 (in-place)
I0407 23:51:42.180240 26944 net.cpp:150] Setting up conv10_1_sTanH
I0407 23:51:42.180253 26944 net.cpp:157] Top shape: 128 150 18 18 (6220800)
I0407 23:51:42.180258 26944 net.cpp:165] Memory required for data: 5622404608
I0407 23:51:42.180260 26944 layer_factory.hpp:77] Creating layer conv10_1_postscale
I0407 23:51:42.180268 26944 net.cpp:100] Creating Layer conv10_1_postscale
I0407 23:51:42.180270 26944 net.cpp:434] conv10_1_postscale <- conv10_1
I0407 23:51:42.180277 26944 net.cpp:395] conv10_1_postscale -> conv10_1 (in-place)
I0407 23:51:42.180408 26944 net.cpp:150] Setting up conv10_1_postscale
I0407 23:51:42.180418 26944 net.cpp:157] Top shape: 128 150 18 18 (6220800)
I0407 23:51:42.180420 26944 net.cpp:165] Memory required for data: 5647287808
I0407 23:51:42.180425 26944 layer_factory.hpp:77] Creating layer pool10_1
I0407 23:51:42.180431 26944 net.cpp:100] Creating Layer pool10_1
I0407 23:51:42.180435 26944 net.cpp:434] pool10_1 <- conv10_1
…
I0407 23:51:43.517801 26944 net.cpp:395] conv20_2_prescale -> conv20_2 (in-place)
I0407 23:51:43.517976 26944 net.cpp:150] Setting up conv20_2_prescale
I0407 23:51:43.517987 26944 net.cpp:157] Top shape: 128 250 6 6 (1152000)
I0407 23:51:43.517990 26944 net.cpp:165] Memory required for data: 10805400576
I0407 23:51:43.517997 26944 layer_factory.hpp:77] Creating layer conv20_2_sTanH
I0407 23:51:43.518003 26944 net.cpp:100] Creating Layer conv20_2_sTanH
I0407 23:51:43.518007 26944 net.cpp:434] conv20_2_sTanH <- conv20_2
I0407 23:51:43.518014 26944 net.cpp:395] conv20_2_sTanH -> conv20_2 (in-place)
I0407 23:51:43.518326 26944 net.cpp:150] Setting up conv20_2_sTanH
I0407 23:51:43.518339 26944 net.cpp:157] Top shape: 128 250 6 6 (1152000)
I0407 23:51:43.518343 26944 net.cpp:165] Memory required for data: 10810008576
I0407 23:51:43.518347 26944 layer_factory.hpp:77] Creating layer conv20_2_postscale
I0407 23:51:43.518357 26944 net.cpp:100] Creating Layer conv20_2_postscale
I0407 23:51:43.518362 26944 net.cpp:434] conv20_2_postscale <- conv20_2
I0407 23:51:43.518370 26944 net.cpp:395] conv20_2_postscale -> conv20_2 (in-place)
I0407 23:51:43.518525 26944 net.cpp:150] Setting up conv20_2_postscale
I0407 23:51:43.518535 26944 net.cpp:157] Top shape: 128 250 6 6 (1152000)
I0407 23:51:43.518539 26944 net.cpp:165] Memory required for data: 10814616576
I0407 23:51:43.518545 26944 layer_factory.hpp:77] Creating layer pool20_2
I0407 23:51:43.518553 26944 net.cpp:100] Creating Layer pool20_2
I0407 23:51:43.518558 26944 net.cpp:434] pool20_2 <- conv20_2
I0407 23:51:43.518565 26944 net.cpp:408] pool20_2 -> pool20_2
I0407 23:51:43.518621 26944 net.cpp:150] Setting up pool20_2
I0407 23:51:43.518631 26944 net.cpp:157] Top shape: 128 250 3 3 (288000)
I0407 23:51:43.518635 26944 net.cpp:165] Memory required for data: 10815768576
I0407 23:51:43.518640 26944 layer_factory.hpp:77] Creating layer fc20_4_300
I0407 23:51:43.518648 26944 net.cpp:100] Creating Layer fc20_4_300
I0407 23:51:43.518652 26944 net.cpp:434] fc20_4_300 <- pool20_2
I0407 23:51:43.518661 26944 net.cpp:408] fc20_4_300 -> fc20_4
I0407 23:51:43.525645 26944 net.cpp:150] Setting up fc20_4_300
I0407 23:51:43.525663 26944 net.cpp:157] Top shape: 128 300 (38400)
I0407 23:51:43.525667 26944 net.cpp:165] Memory required for data: 10815922176
I0407 23:51:43.525676 26944 layer_factory.hpp:77] Creating layer fc20_4_prescale
I0407 23:51:43.525686 26944 net.cpp:100] Creating Layer fc20_4_prescale
I0407 23:51:43.525691 26944 net.cpp:434] fc20_4_prescale <- fc20_4
I0407 23:51:43.525701 26944 net.cpp:395] fc20_4_prescale -> fc20_4 (in-place)
I0407 23:51:43.525877 26944 net.cpp:150] Setting up fc20_4_prescale
I0407 23:51:43.525889 26944 net.cpp:157] Top shape: 128 300 (38400)
I0407 23:51:43.525907 26944 net.cpp:165] Memory required for data: 10816075776
I0407 23:51:43.525913 26944 layer_factory.hpp:77] Creating layer fc20_4_sTanH
I0407 23:51:43.525923 26944 net.cpp:100] Creating Layer fc20_4_sTanH
I0407 23:51:43.525928 26944 net.cpp:434] fc20_4_sTanH <- fc20_4
I0407 23:51:43.525933 26944 net.cpp:395] fc20_4_sTanH -> fc20_4 (in-place)
I0407 23:51:43.527329 26944 net.cpp:150] Setting up fc20_4_sTanH
I0407 23:51:43.527349 26944 net.cpp:157] Top shape: 128 300 (38400)
I0407 23:51:43.527354 26944 net.cpp:165] Memory required for data: 10816229376
I0407 23:51:43.527359 26944 layer_factory.hpp:77] Creating layer fc20_4_postscale
I0407 23:51:43.527366 26944 net.cpp:100] Creating Layer fc20_4_postscale
I0407 23:51:43.527371 26944 net.cpp:434] fc20_4_postscale <- fc20_4
I0407 23:51:43.527380 26944 net.cpp:395] fc20_4_postscale -> fc20_4 (in-place)
I0407 23:51:43.527577 26944 net.cpp:150] Setting up fc20_4_postscale
I0407 23:51:43.527590 26944 net.cpp:157] Top shape: 128 300 (38400)
I0407 23:51:43.527595 26944 net.cpp:165] Memory required for data: 10816382976
I0407 23:51:43.527601 26944 layer_factory.hpp:77] Creating layer drop20_4
I0407 23:51:43.527607 26944 net.cpp:100] Creating Layer drop20_4
I0407 23:51:43.527612 26944 net.cpp:434] drop20_4 <- fc20_4
I0407 23:51:43.527617 26944 net.cpp:395] drop20_4 -> fc20_4 (in-place)
I0407 23:51:43.527652 26944 net.cpp:150] Setting up drop20_4
I0407 23:51:43.527660 26944 net.cpp:157] Top shape: 128 300 (38400)
I0407 23:51:43.527663 26944 net.cpp:165] Memory required for data: 10816536576
I0407 23:51:43.527667 26944 layer_factory.hpp:77] Creating layer fc20_5_67
I0407 23:51:43.527674 26944 net.cpp:100] Creating Layer fc20_5_67
I0407 23:51:43.527678 26944 net.cpp:434] fc20_5_67 <- fc20_4
I0407 23:51:43.527685 26944 net.cpp:408] fc20_5_67 -> fc20_5
I0407 23:51:43.528061 26944 net.cpp:150] Setting up fc20_5_67
I0407 23:51:43.528074 26944 net.cpp:157] Top shape: 128 67 (8576)
I0407 23:51:43.528077 26944 net.cpp:165] Memory required for data: 10816570880
I0407 23:51:43.528085 26944 layer_factory.hpp:77] Creating layer softmax_20
I0407 23:51:43.528092 26944 net.cpp:100] Creating Layer softmax_20
I0407 23:51:43.528096 26944 net.cpp:434] softmax_20 <- fc20_5
I0407 23:51:43.528105 26944 net.cpp:408] softmax_20 -> softmax_20
I0407 23:51:43.528513 26944 net.cpp:150] Setting up softmax_20
I0407 23:51:43.528528 26944 net.cpp:157] Top shape: 128 67 (8576)
I0407 23:51:43.528532 26944 net.cpp:165] Memory required for data: 10816605184
I0407 23:51:43.528537 26944 layer_factory.hpp:77] Creating layer conv21_0
I0407 23:51:43.528548 26944 net.cpp:100] Creating Layer conv21_0
I0407 23:51:43.528553 26944 net.cpp:434] conv21_0 <- data_4_data_4_0_split_1
I0407 23:51:43.528563 26944 net.cpp:408] conv21_0 -> conv21_0
I0407 23:51:43.531214 26944 net.cpp:150] Setting up conv21_0
I0407 23:51:43.531237 26944 net.cpp:157] Top shape: 128 100 42 42 (22579200)
I0407 23:51:43.531241 26944 net.cpp:165] Memory required for data: 10906921984
I0407 23:51:43.531251 26944 layer_factory.hpp:77] Creating layer conv21_0_prescale
I0407 23:51:43.531260 26944 net.cpp:100] Creating Layer conv21_0_prescale
I0407 23:51:43.531265 26944 net.cpp:434] conv21_0_prescale <- conv21_0
I0407 23:51:43.531273 26944 net.cpp:395] conv21_0_prescale -> conv21_0 (in-place)
I0407 23:51:43.531478 26944 net.cpp:150] Setting up conv21_0_prescale
I0407 23:51:43.531491 26944 net.cpp:157] Top shape: 128 100 42 42 (22579200)
I0407 23:51:43.531494 26944 net.cpp:165] Memory required for data: 10997238784
I0407 23:51:43.531500 26944 layer_factory.hpp:77] Creating layer conv21_0_sTanH
I0407 23:51:43.531507 26944 net.cpp:100] Creating Layer conv21_0_sTanH
I0407 23:51:43.531512 26944 net.cpp:434] conv21_0_sTanH <- conv21_0
I0407 23:51:43.531517 26944 net.cpp:395] conv21_0_sTanH -> conv21_0 (in-place)
I0407 23:51:43.531838 26944 net.cpp:150] Setting up conv21_0_sTanH
I0407 23:51:43.531853 26944 net.cpp:157] Top shape: 128 100 42 42 (22579200)
I0407 23:51:43.531857 26944 net.cpp:165] Memory required for data: 11087555584
I0407 23:51:43.531883 26944 layer_factory.hpp:77] Creating layer conv21_0_postscale
I0407 23:51:43.531898 26944 net.cpp:100] Creating Layer conv21_0_postscale
I0407 23:51:43.531904 26944 net.cpp:434] conv21_0_postscale <- conv21_0
I0407 23:51:43.531911 26944 net.cpp:395] conv21_0_postscale -> conv21_0 (in-place)
I0407 23:51:43.532117 26944 net.cpp:150] Setting up conv21_0_postscale
I0407 23:51:43.532130 26944 net.cpp:157] Top shape: 128 100 42 42 (22579200)
I0407 23:51:43.532133 26944 net.cpp:165] Memory required for data: 11177872384
I0407 23:51:43.532140 26944 layer_factory.hpp:77] Creating layer pool21_0
I0407 23:51:43.532148 26944 net.cpp:100] Creating Layer pool21_0
I0407 23:51:43.532153 26944 net.cpp:434] pool21_0 <- conv21_0
I0407 23:51:43.532160 26944 net.cpp:408] pool21_0 -> pool21_0
I0407 23:51:43.532232 26944 net.cpp:150] Setting up pool21_0
I0407 23:51:43.532241 26944 net.cpp:157] Top shape: 128 100 21 21 (5644800)
I0407 23:51:43.532245 26944 net.cpp:165] Memory required for data: 11200451584
I0407 23:51:43.532248 26944 layer_factory.hpp:77] Creating layer conv21_1
I0407 23:51:43.532259 26944 net.cpp:100] Creating Layer conv21_1
I0407 23:51:43.532264 26944 net.cpp:434] conv21_1 <- pool21_0
I0407 23:51:43.532271 26944 net.cpp:408] conv21_1 -> conv21_1
I0407 23:51:43.538118 26944 net.cpp:150] Setting up conv21_1
I0407 23:51:43.538141 26944 net.cpp:157] Top shape: 128 150 18 18 (6220800)
I0407 23:51:43.538146 26944 net.cpp:165] Memory required for data: 11225334784
I0407 23:51:43.538154 26944 layer_factory.hpp:77] Creating layer conv21_1_prescale
I0407 23:51:43.538164 26944 net.cpp:100] Creating Layer conv21_1_prescale
I0407 23:51:43.538169 26944 net.cpp:434] conv21_1_prescale <- conv21_1
I0407 23:51:43.538177 26944 net.cpp:395] conv21_1_prescale -> conv21_1 (in-place)
I0407 23:51:43.538377 26944 net.cpp:150] Setting up conv21_1_prescale
I0407 23:51:43.538388 26944 net.cpp:157] Top shape: 128 150 18 18 (6220800)
I0407 23:51:43.538393 26944 net.cpp:165] Memory required for data: 11250217984
I0407 23:51:43.538398 26944 layer_factory.hpp:77] Creating layer conv21_1_sTanH
I0407 23:51:43.538408 26944 net.cpp:100] Creating Layer conv21_1_sTanH
I0407 23:51:43.538413 26944 net.cpp:434] conv21_1_sTanH <- conv21_1
I0407 23:51:43.538419 26944 net.cpp:395] conv21_1_sTanH -> conv21_1 (in-place)
I0407 23:51:43.538730 26944 net.cpp:150] Setting up conv21_1_sTanH
I0407 23:51:43.538744 26944 net.cpp:157] Top shape: 128 150 18 18 (6220800)
I0407 23:51:43.538748 26944 net.cpp:165] Memory required for data: 11275101184
I0407 23:51:43.538753 26944 layer_factory.hpp:77] Creating layer conv21_1_postscale
I0407 23:51:43.538761 26944 net.cpp:100] Creating Layer conv21_1_postscale
I0407 23:51:43.538766 26944 net.cpp:434] conv21_1_postscale <- conv21_1
I0407 23:51:43.538776 26944 net.cpp:395] conv21_1_postscale -> conv21_1 (in-place)
I0407 23:51:43.538971 26944 net.cpp:150] Setting up conv21_1_postscale
I0407 23:51:43.538983 26944 net.cpp:157] Top shape: 128 150 18 18 (6220800)
I0407 23:51:43.538986 26944 net.cpp:165] Memory required for data: 11299984384
I0407 23:51:43.538992 26944 layer_factory.hpp:77] Creating layer pool21_1
I0407 23:51:43.539002 26944 net.cpp:100] Creating Layer pool21_1
I0407 23:51:43.539007 26944 net.cpp:434] pool21_1 <- conv21_1
I0407 23:51:43.539013 26944 net.cpp:408] pool21_1 -> pool21_1
I0407 23:51:43.539088 26944 net.cpp:150] Setting up pool21_1
I0407 23:51:43.539098 26944 net.cpp:157] Top shape: 128 150 9 9 (1555200)
I0407 23:51:43.539101 26944 net.cpp:165] Memory required for data: 11306205184
I0407 23:51:43.539105 26944 layer_factory.hpp:77] Creating layer conv21_2
I0407 23:51:43.539118 26944 net.cpp:100] Creating Layer conv21_2
I0407 23:51:43.539121 26944 net.cpp:434] conv21_2 <- pool21_1
I0407 23:51:43.539129 26944 net.cpp:408] conv21_2 -> conv21_2
I0407 23:51:43.549001 26944 net.cpp:150] Setting up conv21_2
I0407 23:51:43.549022 26944 net.cpp:157] Top shape: 128 250 6 6 (1152000)
I0407 23:51:43.549027 26944 net.cpp:165] Memory required for data: 11310813184
I0407 23:51:43.549036 26944 layer_factory.hpp:77] Creating layer conv21_2_prescale
I0407 23:51:43.549062 26944 net.cpp:100] Creating Layer conv21_2_prescale
I0407 23:51:43.549068 26944 net.cpp:434] conv21_2_prescale <- conv21_2
I0407 23:51:43.549075 26944 net.cpp:395] conv21_2_prescale -> conv21_2 (in-place)
I0407 23:51:43.549244 26944 net.cpp:150] Setting up conv21_2_prescale
I0407 23:51:43.549257 26944 net.cpp:157] Top shape: 128 250 6 6 (1152000)
I0407 23:51:43.549262 26944 net.cpp:165] Memory required for data: 11315421184
I0407 23:51:43.549266 26944 layer_factory.hpp:77] Creating layer conv21_2_sTanH
I0407 23:51:43.549273 26944 net.cpp:100] Creating Layer conv21_2_sTanH
I0407 23:51:43.549278 26944 net.cpp:434] conv21_2_sTanH <- conv21_2
I0407 23:51:43.549283 26944 net.cpp:395] conv21_2_sTanH -> conv21_2 (in-place)
I0407 23:51:43.551803 26944 net.cpp:150] Setting up conv21_2_sTanH
I0407 23:51:43.551836 26944 net.cpp:157] Top shape: 128 250 6 6 (1152000)
I0407 23:51:43.551843 26944 net.cpp:165] Memory required for data: 11320029184
I0407 23:51:43.551851 26944 layer_factory.hpp:77] Creating layer conv21_2_postscale
I0407 23:51:43.551864 26944 net.cpp:100] Creating Layer conv21_2_postscale
I0407 23:51:43.551877 26944 net.cpp:434] conv21_2_postscale <- conv21_2
I0407 23:51:43.551913 26944 net.cpp:395] conv21_2_postscale -> conv21_2 (in-place)
I0407 23:51:43.552101 26944 net.cpp:150] Setting up conv21_2_postscale
I0407 23:51:43.552112 26944 net.cpp:157] Top shape: 128 250 6 6 (1152000)
I0407 23:51:43.552116 26944 net.cpp:165] Memory required for data: 11324637184
I0407 23:51:43.552122 26944 layer_factory.hpp:77] Creating layer pool21_2
I0407 23:51:43.552131 26944 net.cpp:100] Creating Layer pool21_2
I0407 23:51:43.552136 26944 net.cpp:434] pool21_2 <- conv21_2
I0407 23:51:43.552145 26944 net.cpp:408] pool21_2 -> pool21_2
I0407 23:51:43.552202 26944 net.cpp:150] Setting up pool21_2
I0407 23:51:43.552212 26944 net.cpp:157] Top shape: 128 250 3 3 (288000)
I0407 23:51:43.552215 26944 net.cpp:165] Memory required for data: 11325789184
I0407 23:51:43.552219 26944 layer_factory.hpp:77] Creating layer fc21_4_300
I0407 23:51:43.552228 26944 net.cpp:100] Creating Layer fc21_4_300
I0407 23:51:43.552233 26944 net.cpp:434] fc21_4_300 <- pool21_2
I0407 23:51:43.552239 26944 net.cpp:408] fc21_4_300 -> fc21_4
I0407 23:51:43.559584 26944 net.cpp:150] Setting up fc21_4_300
I0407 23:51:43.559603 26944 net.cpp:157] Top shape: 128 300 (38400)
I0407 23:51:43.559607 26944 net.cpp:165] Memory required for data: 11325942784
I0407 23:51:43.559615 26944 layer_factory.hpp:77] Creating layer fc21_4_prescale
I0407 23:51:43.559626 26944 net.cpp:100] Creating Layer fc21_4_prescale
I0407 23:51:43.559631 26944 net.cpp:434] fc21_4_prescale <- fc21_4
I0407 23:51:43.559638 26944 net.cpp:395] fc21_4_prescale -> fc21_4 (in-place)
I0407 23:51:43.559819 26944 net.cpp:150] Setting up fc21_4_prescale
I0407 23:51:43.559830 26944 net.cpp:157] Top shape: 128 300 (38400)
I0407 23:51:43.559834 26944 net.cpp:165] Memory required for data: 11326096384
I0407 23:51:43.559839 26944 layer_factory.hpp:77] Creating layer fc21_4_sTanH
I0407 23:51:43.559846 26944 net.cpp:100] Creating Layer fc21_4_sTanH
I0407 23:51:43.559850 26944 net.cpp:434] fc21_4_sTanH <- fc21_4
I0407 23:51:43.559856 26944 net.cpp:395] fc21_4_sTanH -> fc21_4 (in-place)
I0407 23:51:43.560191 26944 net.cpp:150] Setting up fc21_4_sTanH
I0407 23:51:43.560206 26944 net.cpp:157] Top shape: 128 300 (38400)
I0407 23:51:43.560209 26944 net.cpp:165] Memory required for data: 11326249984
I0407 23:51:43.560214 26944 layer_factory.hpp:77] Creating layer fc21_4_postscale
I0407 23:51:43.560223 26944 net.cpp:100] Creating Layer fc21_4_postscale
I0407 23:51:43.560228 26944 net.cpp:434] fc21_4_postscale <- fc21_4
I0407 23:51:43.560235 26944 net.cpp:395] fc21_4_postscale -> fc21_4 (in-place)
I0407 23:51:43.560434 26944 net.cpp:150] Setting up fc21_4_postscale
I0407 23:51:43.560446 26944 net.cpp:157] Top shape: 128 300 (38400)
I0407 23:51:43.560451 26944 net.cpp:165] Memory required for data: 11326403584
I0407 23:51:43.560456 26944 layer_factory.hpp:77] Creating layer drop21_4
I0407 23:51:43.560477 26944 net.cpp:100] Creating Layer drop21_4
I0407 23:51:43.560482 26944 net.cpp:434] drop21_4 <- fc21_4
I0407 23:51:43.560490 26944 net.cpp:395] drop21_4 -> fc21_4 (in-place)
I0407 23:51:43.560524 26944 net.cpp:150] Setting up drop21_4
I0407 23:51:43.560534 26944 net.cpp:157] Top shape: 128 300 (38400)
I0407 23:51:43.560536 26944 net.cpp:165] Memory required for data: 11326557184
I0407 23:51:43.560540 26944 layer_factory.hpp:77] Creating layer fc21_5_67
I0407 23:51:43.560549 26944 net.cpp:100] Creating Layer fc21_5_67
I0407 23:51:43.560554 26944 net.cpp:434] fc21_5_67 <- fc21_4
I0407 23:51:43.560559 26944 net.cpp:408] fc21_5_67 -> fc21_5
I0407 23:51:43.560920 26944 net.cpp:150] Setting up fc21_5_67
I0407 23:51:43.560931 26944 net.cpp:157] Top shape: 128 67 (8576)
I0407 23:51:43.560935 26944 net.cpp:165] Memory required for data: 11326591488
I0407 23:51:43.560942 26944 layer_factory.hpp:77] Creating layer softmax_21
I0407 23:51:43.560948 26944 net.cpp:100] Creating Layer softmax_21
I0407 23:51:43.560953 26944 net.cpp:434] softmax_21 <- fc21_5
I0407 23:51:43.560959 26944 net.cpp:408] softmax_21 -> softmax_21
I0407 23:51:43.561386 26944 net.cpp:150] Setting up softmax_21
I0407 23:51:43.561401 26944 net.cpp:157] Top shape: 128 67 (8576)
I0407 23:51:43.561405 26944 net.cpp:165] Memory required for data: 11326625792
I0407 23:51:43.561409 26944 layer_factory.hpp:77] Creating layer conv22_0
I0407 23:51:43.561422 26944 net.cpp:100] Creating Layer conv22_0
I0407 23:51:43.561429 26944 net.cpp:434] conv22_0 <- data_4_data_4_0_split_2
I0407 23:51:43.561436 26944 net.cpp:408] conv22_0 -> conv22_0
I0407 23:51:43.565332 26944 net.cpp:150] Setting up conv22_0
I0407 23:51:43.565353 26944 net.cpp:157] Top shape: 128 100 42 42 (22579200)
I0407 23:51:43.565357 26944 net.cpp:165] Memory required for data: 11416942592
I0407 23:51:43.565366 26944 layer_factory.hpp:77] Creating layer conv22_0_prescale
I0407 23:51:43.565378 26944 net.cpp:100] Creating Layer conv22_0_prescale
I0407 23:51:43.565384 26944 net.cpp:434] conv22_0_prescale <- conv22_0
I0407 23:51:43.565390 26944 net.cpp:395] conv22_0_prescale -> conv22_0 (in-place)
I0407 23:51:43.565595 26944 net.cpp:150] Setting up conv22_0_prescale
I0407 23:51:43.565608 26944 net.cpp:157] Top shape: 128 100 42 42 (22579200)
I0407 23:51:43.565611 26944 net.cpp:165] Memory required for data: 11507259392
I0407 23:51:43.565616 26944 layer_factory.hpp:77] Creating layer conv22_0_sTanH
I0407 23:51:43.565623 26944 net.cpp:100] Creating Layer conv22_0_sTanH
I0407 23:51:43.565627 26944 net.cpp:434] conv22_0_sTanH <- conv22_0
I0407 23:51:43.565635 26944 net.cpp:395] conv22_0_sTanH -> conv22_0 (in-place)
I0407 23:51:43.565960 26944 net.cpp:150] Setting up conv22_0_sTanH
I0407 23:51:43.565975 26944 net.cpp:157] Top shape: 128 100 42 42 (22579200)
I0407 23:51:43.565979 26944 net.cpp:165] Memory required for data: 11597576192
I0407 23:51:43.565984 26944 layer_factory.hpp:77] Creating layer conv22_0_postscale
I0407 23:51:43.565992 26944 net.cpp:100] Creating Layer conv22_0_postscale
I0407 23:51:43.565996 26944 net.cpp:434] conv22_0_postscale <- conv22_0
I0407 23:51:43.566007 26944 net.cpp:395] conv22_0_postscale -> conv22_0 (in-place)
I0407 23:51:43.566220 26944 net.cpp:150] Setting up conv22_0_postscale
I0407 23:51:43.566232 26944 net.cpp:157] Top shape: 128 100 42 42 (22579200)
I0407 23:51:43.566236 26944 net.cpp:165] Memory required for data: 11687892992
I0407 23:51:43.566242 26944 layer_factory.hpp:77] Creating layer pool22_0
I0407 23:51:43.566249 26944 net.cpp:100] Creating Layer pool22_0
I0407 23:51:43.566253 26944 net.cpp:434] pool22_0 <- conv22_0
I0407 23:51:43.566262 26944 net.cpp:408] pool22_0 -> pool22_0
I0407 23:51:43.566334 26944 net.cpp:150] Setting up pool22_0
I0407 23:51:43.566344 26944 net.cpp:157] Top shape: 128 100 21 21 (5644800)
I0407 23:51:43.566346 26944 net.cpp:165] Memory required for data: 11710472192
I0407 23:51:43.566350 26944 layer_factory.hpp:77] Creating layer conv22_1
I0407 23:51:43.566361 26944 net.cpp:100] Creating Layer conv22_1
I0407 23:51:43.566381 26944 net.cpp:434] conv22_1 <- pool22_0
I0407 23:51:43.566395 26944 net.cpp:408] conv22_1 -> conv22_1
I0407 23:51:43.576709 26944 net.cpp:150] Setting up conv22_1
I0407 23:51:43.576733 26944 net.cpp:157] Top shape: 128 150 18 18 (6220800)
I0407 23:51:43.576740 26944 net.cpp:165] Memory required for data: 11735355392
I0407 23:51:43.576747 26944 layer_factory.hpp:77] Creating layer conv22_1_prescale
I0407 23:51:43.576757 26944 net.cpp:100] Creating Layer conv22_1_prescale
I0407 23:51:43.576762 26944 net.cpp:434] conv22_1_prescale <- conv22_1
I0407 23:51:43.576771 26944 net.cpp:395] conv22_1_prescale -> conv22_1 (in-place)
I0407 23:51:43.576977 26944 net.cpp:150] Setting up conv22_1_prescale
I0407 23:51:43.576990 26944 net.cpp:157] Top shape: 128 150 18 18 (6220800)
I0407 23:51:43.576994 26944 net.cpp:165] Memory required for data: 11760238592
I0407 23:51:43.577000 26944 layer_factory.hpp:77] Creating layer conv22_1_sTanH
I0407 23:51:43.577006 26944 net.cpp:100] Creating Layer conv22_1_sTanH
I0407 23:51:43.577011 26944 net.cpp:434] conv22_1_sTanH <- conv22_1
I0407 23:51:43.577018 26944 net.cpp:395] conv22_1_sTanH -> conv22_1 (in-place)
I0407 23:51:43.577330 26944 net.cpp:150] Setting up conv22_1_sTanH
I0407 23:51:43.577344 26944 net.cpp:157] Top shape: 128 150 18 18 (6220800)
I0407 23:51:43.577348 26944 net.cpp:165] Memory required for data: 11785121792
I0407 23:51:43.577353 26944 layer_factory.hpp:77] Creating layer conv22_1_postscale
I0407 23:51:43.577363 26944 net.cpp:100] Creating Layer conv22_1_postscale
I0407 23:51:43.577366 26944 net.cpp:434] conv22_1_postscale <- conv22_1
I0407 23:51:43.577373 26944 net.cpp:395] conv22_1_postscale -> conv22_1 (in-place)
I0407 23:51:43.577571 26944 net.cpp:150] Setting up conv22_1_postscale
I0407 23:51:43.577584 26944 net.cpp:157] Top shape: 128 150 18 18 (6220800)
I0407 23:51:43.577586 26944 net.cpp:165] Memory required for data: 11810004992
I0407 23:51:43.577592 26944 layer_factory.hpp:77] Creating layer pool22_1
I0407 23:51:43.577602 26944 net.cpp:100] Creating Layer pool22_1
I0407 23:51:43.577607 26944 net.cpp:434] pool22_1 <- conv22_1
I0407 23:51:43.577615 26944 net.cpp:408] pool22_1 -> pool22_1
I0407 23:51:43.577688 26944 net.cpp:150] Setting up pool22_1
I0407 23:51:43.577698 26944 net.cpp:157] Top shape: 128 150 9 9 (1555200)
I0407 23:51:43.577702 26944 net.cpp:165] Memory required for data: 11816225792
I0407 23:51:43.577706 26944 layer_factory.hpp:77] Creating layer conv22_2
I0407 23:51:43.577718 26944 net.cpp:100] Creating Layer conv22_2
I0407 23:51:43.577723 26944 net.cpp:434] conv22_2 <- pool22_1
I0407 23:51:43.577730 26944 net.cpp:408] conv22_2 -> conv22_2
I0407 23:51:43.590123 26944 net.cpp:150] Setting up conv22_2
I0407 23:51:43.590148 26944 net.cpp:157] Top shape: 128 250 6 6 (1152000)
I0407 23:51:43.590154 26944 net.cpp:165] Memory required for data: 11820833792
I0407 23:51:43.590162 26944 layer_factory.hpp:77] Creating layer conv22_2_prescale
I0407 23:51:43.590173 26944 net.cpp:100] Creating Layer conv22_2_prescale
I0407 23:51:43.590178 26944 net.cpp:434] conv22_2_prescale <- conv22_2
I0407 23:51:43.590186 26944 net.cpp:395] conv22_2_prescale -> conv22_2 (in-place)
I0407 23:51:43.590354 26944 net.cpp:150] Setting up conv22_2_prescale
I0407 23:51:43.590366 26944 net.cpp:157] Top shape: 128 250 6 6 (1152000)
I0407 23:51:43.590370 26944 net.cpp:165] Memory required for data: 11825441792
I0407 23:51:43.590376 26944 layer_factory.hpp:77] Creating layer conv22_2_sTanH
I0407 23:51:43.590384 26944 net.cpp:100] Creating Layer conv22_2_sTanH
I0407 23:51:43.590389 26944 net.cpp:434] conv22_2_sTanH <- conv22_2
I0407 23:51:43.590399 26944 net.cpp:395] conv22_2_sTanH -> conv22_2 (in-place)
I0407 23:51:43.591830 26944 net.cpp:150] Setting up conv22_2_sTanH
I0407 23:51:43.591850 26944 net.cpp:157] Top shape: 128 250 6 6 (1152000)
I0407 23:51:43.591853 26944 net.cpp:165] Memory required for data: 11830049792
I0407 23:51:43.591858 26944 layer_factory.hpp:77] Creating layer conv22_2_postscale
I0407 23:51:43.591869 26944 net.cpp:100] Creating Layer conv22_2_postscale
I0407 23:51:43.591897 26944 net.cpp:434] conv22_2_postscale <- conv22_2
I0407 23:51:43.591905 26944 net.cpp:395] conv22_2_postscale -> conv22_2 (in-place)
I0407 23:51:43.592073 26944 net.cpp:150] Setting up conv22_2_postscale
I0407 23:51:43.592084 26944 net.cpp:157] Top shape: 128 250 6 6 (1152000)
I0407 23:51:43.592088 26944 net.cpp:165] Memory required for data: 11834657792
I0407 23:51:43.592094 26944 layer_factory.hpp:77] Creating layer pool22_2
I0407 23:51:43.592103 26944 net.cpp:100] Creating Layer pool22_2
I0407 23:51:43.592106 26944 net.cpp:434] pool22_2 <- conv22_2
I0407 23:51:43.592115 26944 net.cpp:408] pool22_2 -> pool22_2
I0407 23:51:43.592175 26944 net.cpp:150] Setting up pool22_2
I0407 23:51:43.592185 26944 net.cpp:157] Top shape: 128 250 3 3 (288000)
I0407 23:51:43.592188 26944 net.cpp:165] Memory required for data: 11835809792
I0407 23:51:43.592192 26944 layer_factory.hpp:77] Creating layer fc22_4_300
I0407 23:51:43.592200 26944 net.cpp:100] Creating Layer fc22_4_300
I0407 23:51:43.592206 26944 net.cpp:434] fc22_4_300 <- pool22_2
I0407 23:51:43.592212 26944 net.cpp:408] fc22_4_300 -> fc22_4
I0407 23:51:43.599498 26944 net.cpp:150] Setting up fc22_4_300
I0407 23:51:43.599519 26944 net.cpp:157] Top shape: 128 300 (38400)
I0407 23:51:43.599522 26944 net.cpp:165] Memory required for data: 11835963392
I0407 23:51:43.599531 26944 layer_factory.hpp:77] Creating layer fc22_4_prescale
I0407 23:51:43.599542 26944 net.cpp:100] Creating Layer fc22_4_prescale
I0407 23:51:43.599547 26944 net.cpp:434] fc22_4_prescale <- fc22_4
I0407 23:51:43.599555 26944 net.cpp:395] fc22_4_prescale -> fc22_4 (in-place)
I0407 23:51:43.599737 26944 net.cpp:150] Setting up fc22_4_prescale
I0407 23:51:43.599748 26944 net.cpp:157] Top shape: 128 300 (38400)
I0407 23:51:43.599752 26944 net.cpp:165] Memory required for data: 11836116992
I0407 23:51:43.599758 26944 layer_factory.hpp:77] Creating layer fc22_4_sTanH
I0407 23:51:43.599853 26944 net.cpp:100] Creating Layer fc22_4_sTanH
I0407 23:51:43.599860 26944 net.cpp:434] fc22_4_sTanH <- fc22_4
I0407 23:51:43.599866 26944 net.cpp:395] fc22_4_sTanH -> fc22_4 (in-place)
I0407 23:51:43.600211 26944 net.cpp:150] Setting up fc22_4_sTanH
I0407 23:51:43.600226 26944 net.cpp:157] Top shape: 128 300 (38400)
I0407 23:51:43.600230 26944 net.cpp:165] Memory required for data: 11836270592
I0407 23:51:43.600236 26944 layer_factory.hpp:77] Creating layer fc22_4_postscale
I0407 23:51:43.600246 26944 net.cpp:100] Creating Layer fc22_4_postscale
I0407 23:51:43.600250 26944 net.cpp:434] fc22_4_postscale <- fc22_4
I0407 23:51:43.600258 26944 net.cpp:395] fc22_4_postscale -> fc22_4 (in-place)
I0407 23:51:43.600455 26944 net.cpp:150] Setting up fc22_4_postscale
I0407 23:51:43.600466 26944 net.cpp:157] Top shape: 128 300 (38400)
I0407 23:51:43.600471 26944 net.cpp:165] Memory required for data: 11836424192
I0407 23:51:43.600476 26944 layer_factory.hpp:77] Creating layer drop22_4
I0407 23:51:43.600483 26944 net.cpp:100] Creating Layer drop22_4
I0407 23:51:43.600487 26944 net.cpp:434] drop22_4 <- fc22_4
I0407 23:51:43.600494 26944 net.cpp:395] drop22_4 -> fc22_4 (in-place)
I0407 23:51:43.600527 26944 net.cpp:150] Setting up drop22_4
I0407 23:51:43.600534 26944 net.cpp:157] Top shape: 128 300 (38400)
I0407 23:51:43.600538 26944 net.cpp:165] Memory required for data: 11836577792
I0407 23:51:43.600541 26944 layer_factory.hpp:77] Creating layer fc22_5_67
I0407 23:51:43.600548 26944 net.cpp:100] Creating Layer fc22_5_67
I0407 23:51:43.600553 26944 net.cpp:434] fc22_5_67 <- fc22_4
I0407 23:51:43.600558 26944 net.cpp:408] fc22_5_67 -> fc22_5
I0407 23:51:43.600916 26944 net.cpp:150] Setting up fc22_5_67
I0407 23:51:43.600929 26944 net.cpp:157] Top shape: 128 67 (8576)
I0407 23:51:43.600931 26944 net.cpp:165] Memory required for data: 11836612096
I0407 23:51:43.600939 26944 layer_factory.hpp:77] Creating layer softmax_22
I0407 23:51:43.600945 26944 net.cpp:100] Creating Layer softmax_22
I0407 23:51:43.600950 26944 net.cpp:434] softmax_22 <- fc22_5
I0407 23:51:43.600956 26944 net.cpp:408] softmax_22 -> softmax_22
I0407 23:51:43.601398 26944 net.cpp:150] Setting up softmax_22
I0407 23:51:43.601413 26944 net.cpp:157] Top shape: 128 67 (8576)
I0407 23:51:43.601418 26944 net.cpp:165] Memory required for data: 11836646400
I0407 23:51:43.601421 26944 layer_factory.hpp:77] Creating layer conv23_0
I0407 23:51:43.601433 26944 net.cpp:100] Creating Layer conv23_0
I0407 23:51:43.601438 26944 net.cpp:434] conv23_0 <- data_4_data_4_0_split_3
I0407 23:51:43.601447 26944 net.cpp:408] conv23_0 -> conv23_0
I0407 23:51:43.605268 26944 net.cpp:150] Setting up conv23_0
I0407 23:51:43.605288 26944 net.cpp:157] Top shape: 128 100 42 42 (22579200)
I0407 23:51:43.605293 26944 net.cpp:165] Memory required for data: 11926963200
I0407 23:51:43.605301 26944 layer_factory.hpp:77] Creating layer conv23_0_prescale
I0407 23:51:43.605311 26944 net.cpp:100] Creating Layer conv23_0_prescale
I0407 23:51:43.605317 26944 net.cpp:434] conv23_0_prescale <- conv23_0
I0407 23:51:43.605325 26944 net.cpp:395] conv23_0_prescale -> conv23_0 (in-place)
I0407 23:51:43.605540 26944 net.cpp:150] Setting up conv23_0_prescale
I0407 23:51:43.605552 26944 net.cpp:157] Top shape: 128 100 42 42 (22579200)
I0407 23:51:43.605556 26944 net.cpp:165] Memory required for data: 12017280000
I0407 23:51:43.605562 26944 layer_factory.hpp:77] Creating layer conv23_0_sTanH
I0407 23:51:43.605571 26944 net.cpp:100] Creating Layer conv23_0_sTanH
I0407 23:51:43.605576 26944 net.cpp:434] conv23_0_sTanH <- conv23_0
I0407 23:51:43.605582 26944 net.cpp:395] conv23_0_sTanH -> conv23_0 (in-place)
I0407 23:51:43.605916 26944 net.cpp:150] Setting up conv23_0_sTanH
I0407 23:51:43.605931 26944 net.cpp:157] Top shape: 128 100 42 42 (22579200)
I0407 23:51:43.605936 26944 net.cpp:165] Memory required for data: 12107596800
I0407 23:51:43.605939 26944 layer_factory.hpp:77] Creating layer conv23_0_postscale
I0407 23:51:43.605949 26944 net.cpp:100] Creating Layer conv23_0_postscale
I0407 23:51:43.605954 26944 net.cpp:434] conv23_0_postscale <- conv23_0
I0407 23:51:43.605960 26944 net.cpp:395] conv23_0_postscale -> conv23_0 (in-place)
I0407 23:51:43.606166 26944 net.cpp:150] Setting up conv23_0_postscale
I0407 23:51:43.606178 26944 net.cpp:157] Top shape: 128 100 42 42 (22579200)
I0407 23:51:43.606181 26944 net.cpp:165] Memory required for data: 12197913600
I0407 23:51:43.606187 26944 layer_factory.hpp:77] Creating layer pool23_0
I0407 23:51:43.606196 26944 net.cpp:100] Creating Layer pool23_0
I0407 23:51:43.606201 26944 net.cpp:434] pool23_0 <- conv23_0
I0407 23:51:43.606207 26944 net.cpp:408] pool23_0 -> pool23_0
I0407 23:51:43.606282 26944 net.cpp:150] Setting up pool23_0
I0407 23:51:43.606292 26944 net.cpp:157] Top shape: 128 100 21 21 (5644800)
I0407 23:51:43.606297 26944 net.cpp:165] Memory required for data: 12220492800
I0407 23:51:43.606299 26944 layer_factory.hpp:77] Creating layer conv23_1
I0407 23:51:43.606310 26944 net.cpp:100] Creating Layer conv23_1
I0407 23:51:43.606317 26944 net.cpp:434] conv23_1 <- pool23_0
I0407 23:51:43.606324 26944 net.cpp:408] conv23_1 -> conv23_1
I0407 23:51:43.612217 26944 net.cpp:150] Setting up conv23_1
I0407 23:51:43.612239 26944 net.cpp:157] Top shape: 128 150 18 18 (6220800)
I0407 23:51:43.612244 26944 net.cpp:165] Memory required for data: 12245376000
I0407 23:51:43.612253 26944 layer_factory.hpp:77] Creating layer conv23_1_prescale
I0407 23:51:43.612262 26944 net.cpp:100] Creating Layer conv23_1_prescale
I0407 23:51:43.612267 26944 net.cpp:434] conv23_1_prescale <- conv23_1
I0407 23:51:43.612275 26944 net.cpp:395] conv23_1_prescale -> conv23_1 (in-place)
I0407 23:51:43.612478 26944 net.cpp:150] Setting up conv23_1_prescale
I0407 23:51:43.612493 26944 net.cpp:157] Top shape: 128 150 18 18 (6220800)
I0407 23:51:43.612496 26944 net.cpp:165] Memory required for data: 12270259200
I0407 23:51:43.612502 26944 layer_factory.hpp:77] Creating layer conv23_1_sTanH
I0407 23:51:43.612509 26944 net.cpp:100] Creating Layer conv23_1_sTanH
I0407 23:51:43.612514 26944 net.cpp:434] conv23_1_sTanH <- conv23_1
I0407 23:51:43.612519 26944 net.cpp:395] conv23_1_sTanH -> conv23_1 (in-place)
I0407 23:51:43.612854 26944 net.cpp:150] Setting up conv23_1_sTanH
I0407 23:51:43.612869 26944 net.cpp:157] Top shape: 128 150 18 18 (6220800)
I0407 23:51:43.612872 26944 net.cpp:165] Memory required for data: 12295142400
I0407 23:51:43.612876 26944 layer_factory.hpp:77] Creating layer conv23_1_postscale
I0407 23:51:43.612884 26944 net.cpp:100] Creating Layer conv23_1_postscale
I0407 23:51:43.612890 26944 net.cpp:434] conv23_1_postscale <- conv23_1
I0407 23:51:43.612897 26944 net.cpp:395] conv23_1_postscale -> conv23_1 (in-place)
I0407 23:51:43.613102 26944 net.cpp:150] Setting up conv23_1_postscale
I0407 23:51:43.613116 26944 net.cpp:157] Top shape: 128 150 18 18 (6220800)
I0407 23:51:43.613118 26944 net.cpp:165] Memory required for data: 12320025600
I0407 23:51:43.613124 26944 layer_factory.hpp:77] Creating layer pool23_1
I0407 23:51:43.613132 26944 net.cpp:100] Creating Layer pool23_1
I0407 23:51:43.613137 26944 net.cpp:434] pool23_1 <- conv23_1
I0407 23:51:43.613144 26944 net.cpp:408] pool23_1 -> pool23_1
I0407 23:51:43.613219 26944 net.cpp:150] Setting up pool23_1
I0407 23:51:43.613229 26944 net.cpp:157] Top shape: 128 150 9 9 (1555200)
I0407 23:51:43.613232 26944 net.cpp:165] Memory required for data: 12326246400
I0407 23:51:43.613236 26944 layer_factory.hpp:77] Creating layer conv23_2
I0407 23:51:43.613251 26944 net.cpp:100] Creating Layer conv23_2
I0407 23:51:43.613256 26944 net.cpp:434] conv23_2 <- pool23_1
I0407 23:51:43.613263 26944 net.cpp:408] conv23_2 -> conv23_2
I0407 23:51:43.621914 26944 net.cpp:150] Setting up conv23_2
I0407 23:51:43.621935 26944 net.cpp:157] Top shape: 128 250 6 6 (1152000)
I0407 23:51:43.621939 26944 net.cpp:165] Memory required for data: 12330854400
I0407 23:51:43.621948 26944 layer_factory.hpp:77] Creating layer conv23_2_prescale
I0407 23:51:43.621958 26944 net.cpp:100] Creating Layer conv23_2_prescale
I0407 23:51:43.621963 26944 net.cpp:434] conv23_2_prescale <- conv23_2
I0407 23:51:43.621971 26944 net.cpp:395] conv23_2_prescale -> conv23_2 (in-place)
I0407 23:51:43.622145 26944 net.cpp:150] Setting up conv23_2_prescale
I0407 23:51:43.622158 26944 net.cpp:157] Top shape: 128 250 6 6 (1152000)
I0407 23:51:43.622161 26944 net.cpp:165] Memory required for data: 12335462400
I0407 23:51:43.622166 26944 layer_factory.hpp:77] Creating layer conv23_2_sTanH
I0407 23:51:43.622174 26944 net.cpp:100] Creating Layer conv23_2_sTanH
I0407 23:51:43.622179 26944 net.cpp:434] conv23_2_sTanH <- conv23_2
I0407 23:51:43.622185 26944 net.cpp:395] conv23_2_sTanH -> conv23_2 (in-place)
I0407 23:51:43.623615 26944 net.cpp:150] Setting up conv23_2_sTanH
I0407 23:51:43.623633 26944 net.cpp:157] Top shape: 128 250 6 6 (1152000)
I0407 23:51:43.623637 26944 net.cpp:165] Memory required for data: 12340070400
I0407 23:51:43.623641 26944 layer_factory.hpp:77] Creating layer conv23_2_postscale
I0407 23:51:43.623652 26944 net.cpp:100] Creating Layer conv23_2_postscale
I0407 23:51:43.623657 26944 net.cpp:434] conv23_2_postscale <- conv23_2
I0407 23:51:43.623666 26944 net.cpp:395] conv23_2_postscale -> conv23_2 (in-place)
I0407 23:51:43.623831 26944 net.cpp:150] Setting up conv23_2_postscale
I0407 23:51:43.623842 26944 net.cpp:157] Top shape: 128 250 6 6 (1152000)
I0407 23:51:43.623845 26944 net.cpp:165] Memory required for data: 12344678400
I0407 23:51:43.623852 26944 layer_factory.hpp:77] Creating layer pool23_2
I0407 23:51:43.623862 26944 net.cpp:100] Creating Layer pool23_2
I0407 23:51:43.623865 26944 net.cpp:434] pool23_2 <- conv23_2
I0407 23:51:43.623872 26944 net.cpp:408] pool23_2 -> pool23_2
I0407 23:51:43.623940 26944 net.cpp:150] Setting up pool23_2
I0407 23:51:43.623953 26944 net.cpp:157] Top shape: 128 250 3 3 (288000)
I0407 23:51:43.623957 26944 net.cpp:165] Memory required for data: 12345830400
I0407 23:51:43.623961 26944 layer_factory.hpp:77] Creating layer fc23_4_300
I0407 23:51:43.623968 26944 net.cpp:100] Creating Layer fc23_4_300
I0407 23:51:43.623972 26944 net.cpp:434] fc23_4_300 <- pool23_2
I0407 23:51:43.623980 26944 net.cpp:408] fc23_4_300 -> fc23_4
I0407 23:51:43.630955 26944 net.cpp:150] Setting up fc23_4_300
I0407 23:51:43.630990 26944 net.cpp:157] Top shape: 128 300 (38400)
I0407 23:51:43.630995 26944 net.cpp:165] Memory required for data: 12345984000
I0407 23:51:43.631003 26944 layer_factory.hpp:77] Creating layer fc23_4_prescale
I0407 23:51:43.631012 26944 net.cpp:100] Creating Layer fc23_4_prescale
I0407 23:51:43.631019 26944 net.cpp:434] fc23_4_prescale <- fc23_4
I0407 23:51:43.631027 26944 net.cpp:395] fc23_4_prescale -> fc23_4 (in-place)
I0407 23:51:43.631217 26944 net.cpp:150] Setting up fc23_4_prescale
I0407 23:51:43.631229 26944 net.cpp:157] Top shape: 128 300 (38400)
I0407 23:51:43.631233 26944 net.cpp:165] Memory required for data: 12346137600
I0407 23:51:43.631238 26944 layer_factory.hpp:77] Creating layer fc23_4_sTanH
I0407 23:51:43.631245 26944 net.cpp:100] Creating Layer fc23_4_sTanH
I0407 23:51:43.631249 26944 net.cpp:434] fc23_4_sTanH <- fc23_4
I0407 23:51:43.631255 26944 net.cpp:395] fc23_4_sTanH -> fc23_4 (in-place)
I0407 23:51:43.631583 26944 net.cpp:150] Setting up fc23_4_sTanH
I0407 23:51:43.631599 26944 net.cpp:157] Top shape: 128 300 (38400)
I0407 23:51:43.631603 26944 net.cpp:165] Memory required for data: 12346291200
I0407 23:51:43.631608 26944 layer_factory.hpp:77] Creating layer fc23_4_postscale
I0407 23:51:43.631615 26944 net.cpp:100] Creating Layer fc23_4_postscale
I0407 23:51:43.631619 26944 net.cpp:434] fc23_4_postscale <- fc23_4
I0407 23:51:43.631628 26944 net.cpp:395] fc23_4_postscale -> fc23_4 (in-place)
I0407 23:51:43.631829 26944 net.cpp:150] Setting up fc23_4_postscale
I0407 23:51:43.631841 26944 net.cpp:157] Top shape: 128 300 (38400)
I0407 23:51:43.631844 26944 net.cpp:165] Memory required for data: 12346444800
I0407 23:51:43.631850 26944 layer_factory.hpp:77] Creating layer drop23_4
I0407 23:51:43.631858 26944 net.cpp:100] Creating Layer drop23_4
I0407 23:51:43.631862 26944 net.cpp:434] drop23_4 <- fc23_4
I0407 23:51:43.631867 26944 net.cpp:395] drop23_4 -> fc23_4 (in-place)
I0407 23:51:43.631912 26944 net.cpp:150] Setting up drop23_4
I0407 23:51:43.631922 26944 net.cpp:157] Top shape: 128 300 (38400)
I0407 23:51:43.631925 26944 net.cpp:165] Memory required for data: 12346598400
I0407 23:51:43.631929 26944 layer_factory.hpp:77] Creating layer fc23_5_67
I0407 23:51:43.631937 26944 net.cpp:100] Creating Layer fc23_5_67
I0407 23:51:43.631940 26944 net.cpp:434] fc23_5_67 <- fc23_4
I0407 23:51:43.631947 26944 net.cpp:408] fc23_5_67 -> fc23_5
I0407 23:51:43.632311 26944 net.cpp:150] Setting up fc23_5_67
I0407 23:51:43.632323 26944 net.cpp:157] Top shape: 128 67 (8576)
I0407 23:51:43.632325 26944 net.cpp:165] Memory required for data: 12346632704
I0407 23:51:43.632333 26944 layer_factory.hpp:77] Creating layer softmax_23
I0407 23:51:43.632339 26944 net.cpp:100] Creating Layer softmax_23
I0407 23:51:43.632344 26944 net.cpp:434] softmax_23 <- fc23_5
I0407 23:51:43.632351 26944 net.cpp:408] softmax_23 -> softmax_23
I0407 23:51:43.632778 26944 net.cpp:150] Setting up softmax_23
I0407 23:51:43.632792 26944 net.cpp:157] Top shape: 128 67 (8576)
I0407 23:51:43.632796 26944 net.cpp:165] Memory required for data: 12346667008
I0407 23:51:43.632800 26944 layer_factory.hpp:77] Creating layer conv24_0
I0407 23:51:43.632812 26944 net.cpp:100] Creating Layer conv24_0
I0407 23:51:43.632817 26944 net.cpp:434] conv24_0 <- data_4_data_4_0_split_4
I0407 23:51:43.632827 26944 net.cpp:408] conv24_0 -> conv24_0
I0407 23:51:43.635543 26944 net.cpp:150] Setting up conv24_0
I0407 23:51:43.635563 26944 net.cpp:157] Top shape: 128 100 42 42 (22579200)
I0407 23:51:43.635567 26944 net.cpp:165] Memory required for data: 12436983808
I0407 23:51:43.635576 26944 layer_factory.hpp:77] Creating layer conv24_0_prescale
I0407 23:51:43.635586 26944 net.cpp:100] Creating Layer conv24_0_prescale
I0407 23:51:43.635591 26944 net.cpp:434] conv24_0_prescale <- conv24_0
I0407 23:51:43.635601 26944 net.cpp:395] conv24_0_prescale -> conv24_0 (in-place)
I0407 23:51:43.635812 26944 net.cpp:150] Setting up conv24_0_prescale
I0407 23:51:43.635823 26944 net.cpp:157] Top shape: 128 100 42 42 (22579200)
I0407 23:51:43.635828 26944 net.cpp:165] Memory required for data: 12527300608
I0407 23:51:43.635848 26944 layer_factory.hpp:77] Creating layer conv24_0_sTanH
I0407 23:51:43.635854 26944 net.cpp:100] Creating Layer conv24_0_sTanH
I0407 23:51:43.635859 26944 net.cpp:434] conv24_0_sTanH <- conv24_0
I0407 23:51:43.635867 26944 net.cpp:395] conv24_0_sTanH -> conv24_0 (in-place)
I0407 23:51:43.636195 26944 net.cpp:150] Setting up conv24_0_sTanH
I0407 23:51:43.636210 26944 net.cpp:157] Top shape: 128 100 42 42 (22579200)
I0407 23:51:43.636214 26944 net.cpp:165] Memory required for data: 12617617408
I0407 23:51:43.636219 26944 layer_factory.hpp:77] Creating layer conv24_0_postscale
I0407 23:51:43.636227 26944 net.cpp:100] Creating Layer conv24_0_postscale
I0407 23:51:43.636234 26944 net.cpp:434] conv24_0_postscale <- conv24_0
I0407 23:51:43.636241 26944 net.cpp:395] conv24_0_postscale -> conv24_0 (in-place)
I0407 23:51:43.636454 26944 net.cpp:150] Setting up conv24_0_postscale
I0407 23:51:43.636466 26944 net.cpp:157] Top shape: 128 100 42 42 (22579200)
I0407 23:51:43.636469 26944 net.cpp:165] Memory required for data: 12707934208
I0407 23:51:43.636476 26944 layer_factory.hpp:77] Creating layer pool24_0
I0407 23:51:43.636485 26944 net.cpp:100] Creating Layer pool24_0
I0407 23:51:43.636490 26944 net.cpp:434] pool24_0 <- conv24_0
I0407 23:51:43.636497 26944 net.cpp:408] pool24_0 -> pool24_0
I0407 23:51:43.636570 26944 net.cpp:150] Setting up pool24_0
I0407 23:51:43.636584 26944 net.cpp:157] Top shape: 128 100 21 21 (5644800)
I0407 23:51:43.636589 26944 net.cpp:165] Memory required for data: 12730513408
I0407 23:51:43.636591 26944 layer_factory.hpp:77] Creating layer conv24_1
I0407 23:51:43.636602 26944 net.cpp:100] Creating Layer conv24_1
I0407 23:51:43.636607 26944 net.cpp:434] conv24_1 <- pool24_0
I0407 23:51:43.636615 26944 net.cpp:408] conv24_1 -> conv24_1
I0407 23:51:43.641057 26944 net.cpp:150] Setting up conv24_1
I0407 23:51:43.641079 26944 net.cpp:157] Top shape: 128 150 18 18 (6220800)
I0407 23:51:43.641084 26944 net.cpp:165] Memory required for data: 12755396608
I0407 23:51:43.641093 26944 layer_factory.hpp:77] Creating layer conv24_1_prescale
I0407 23:51:43.641103 26944 net.cpp:100] Creating Layer conv24_1_prescale
I0407 23:51:43.641108 26944 net.cpp:434] conv24_1_prescale <- conv24_1
I0407 23:51:43.641116 26944 net.cpp:395] conv24_1_prescale -> conv24_1 (in-place)
I0407 23:51:43.641317 26944 net.cpp:150] Setting up conv24_1_prescale
I0407 23:51:43.641330 26944 net.cpp:157] Top shape: 128 150 18 18 (6220800)
I0407 23:51:43.641335 26944 net.cpp:165] Memory required for data: 12780279808
I0407 23:51:43.641340 26944 layer_factory.hpp:77] Creating layer conv24_1_sTanH
I0407 23:51:43.641348 26944 net.cpp:100] Creating Layer conv24_1_sTanH
I0407 23:51:43.641352 26944 net.cpp:434] conv24_1_sTanH <- conv24_1
I0407 23:51:43.641358 26944 net.cpp:395] conv24_1_sTanH -> conv24_1 (in-place)
I0407 23:51:43.641671 26944 net.cpp:150] Setting up conv24_1_sTanH
I0407 23:51:43.641685 26944 net.cpp:157] Top shape: 128 150 18 18 (6220800)
I0407 23:51:43.641690 26944 net.cpp:165] Memory required for data: 12805163008
I0407 23:51:43.641693 26944 layer_factory.hpp:77] Creating layer conv24_1_postscale
I0407 23:51:43.641705 26944 net.cpp:100] Creating Layer conv24_1_postscale
I0407 23:51:43.641711 26944 net.cpp:434] conv24_1_postscale <- conv24_1
I0407 23:51:43.641719 26944 net.cpp:395] conv24_1_postscale -> conv24_1 (in-place)
I0407 23:51:43.641921 26944 net.cpp:150] Setting up conv24_1_postscale
I0407 23:51:43.641933 26944 net.cpp:157] Top shape: 128 150 18 18 (6220800)
I0407 23:51:43.641937 26944 net.cpp:165] Memory required for data: 12830046208
I0407 23:51:43.641942 26944 layer_factory.hpp:77] Creating layer pool24_1
I0407 23:51:43.641949 26944 net.cpp:100] Creating Layer pool24_1
I0407 23:51:43.641954 26944 net.cpp:434] pool24_1 <- conv24_1
I0407 23:51:43.641963 26944 net.cpp:408] pool24_1 -> pool24_1
I0407 23:51:43.642033 26944 net.cpp:150] Setting up pool24_1
I0407 23:51:43.642045 26944 net.cpp:157] Top shape: 128 150 9 9 (1555200)
I0407 23:51:43.642050 26944 net.cpp:165] Memory required for data: 12836267008
I0407 23:51:43.642066 26944 layer_factory.hpp:77] Creating layer conv24_2
I0407 23:51:43.642076 26944 net.cpp:100] Creating Layer conv24_2
I0407 23:51:43.642081 26944 net.cpp:434] conv24_2 <- pool24_1
I0407 23:51:43.642091 26944 net.cpp:408] conv24_2 -> conv24_2
I0407 23:51:43.650770 26944 net.cpp:150] Setting up conv24_2
I0407 23:51:43.650794 26944 net.cpp:157] Top shape: 128 250 6 6 (1152000)
I0407 23:51:43.650799 26944 net.cpp:165] Memory required for data: 12840875008
I0407 23:51:43.650806 26944 layer_factory.hpp:77] Creating layer conv24_2_prescale
I0407 23:51:43.650815 26944 net.cpp:100] Creating Layer conv24_2_prescale
I0407 23:51:43.650821 26944 net.cpp:434] conv24_2_prescale <- conv24_2
I0407 23:51:43.650830 26944 net.cpp:395] conv24_2_prescale -> conv24_2 (in-place)
I0407 23:51:43.651005 26944 net.cpp:150] Setting up conv24_2_prescale
I0407 23:51:43.651016 26944 net.cpp:157] Top shape: 128 250 6 6 (1152000)
I0407 23:51:43.651021 26944 net.cpp:165] Memory required for data: 12845483008
I0407 23:51:43.651026 26944 layer_factory.hpp:77] Creating layer conv24_2_sTanH
I0407 23:51:43.651032 26944 net.cpp:100] Creating Layer conv24_2_sTanH
I0407 23:51:43.651036 26944 net.cpp:434] conv24_2_sTanH <- conv24_2
I0407 23:51:43.651043 26944 net.cpp:395] conv24_2_sTanH -> conv24_2 (in-place)
I0407 23:51:43.652501 26944 net.cpp:150] Setting up conv24_2_sTanH
I0407 23:51:43.652521 26944 net.cpp:157] Top shape: 128 250 6 6 (1152000)
I0407 23:51:43.652526 26944 net.cpp:165] Memory required for data: 12850091008
I0407 23:51:43.652530 26944 layer_factory.hpp:77] Creating layer conv24_2_postscale
I0407 23:51:43.652541 26944 net.cpp:100] Creating Layer conv24_2_postscale
I0407 23:51:43.652547 26944 net.cpp:434] conv24_2_postscale <- conv24_2
I0407 23:51:43.652554 26944 net.cpp:395] conv24_2_postscale -> conv24_2 (in-place)
I0407 23:51:43.652722 26944 net.cpp:150] Setting up conv24_2_postscale
I0407 23:51:43.652734 26944 net.cpp:157] Top shape: 128 250 6 6 (1152000)
I0407 23:51:43.652737 26944 net.cpp:165] Memory required for data: 12854699008
I0407 23:51:43.652743 26944 layer_factory.hpp:77] Creating layer pool24_2
I0407 23:51:43.652750 26944 net.cpp:100] Creating Layer pool24_2
I0407 23:51:43.652755 26944 net.cpp:434] pool24_2 <- conv24_2
I0407 23:51:43.652762 26944 net.cpp:408] pool24_2 -> pool24_2
I0407 23:51:43.652823 26944 net.cpp:150] Setting up pool24_2
I0407 23:51:43.652834 26944 net.cpp:157] Top shape: 128 250 3 3 (288000)
I0407 23:51:43.652837 26944 net.cpp:165] Memory required for data: 12855851008
I0407 23:51:43.652842 26944 layer_factory.hpp:77] Creating layer fc24_4_300
I0407 23:51:43.652851 26944 net.cpp:100] Creating Layer fc24_4_300
I0407 23:51:43.652855 26944 net.cpp:434] fc24_4_300 <- pool24_2
I0407 23:51:43.652863 26944 net.cpp:408] fc24_4_300 -> fc24_4
I0407 23:51:43.659862 26944 net.cpp:150] Setting up fc24_4_300
I0407 23:51:43.659884 26944 net.cpp:157] Top shape: 128 300 (38400)
I0407 23:51:43.659889 26944 net.cpp:165] Memory required for data: 12856004608
I0407 23:51:43.659898 26944 layer_factory.hpp:77] Creating layer fc24_4_prescale
I0407 23:51:43.659909 26944 net.cpp:100] Creating Layer fc24_4_prescale
I0407 23:51:43.659914 26944 net.cpp:434] fc24_4_prescale <- fc24_4
I0407 23:51:43.659920 26944 net.cpp:395] fc24_4_prescale -> fc24_4 (in-place)
I0407 23:51:43.660109 26944 net.cpp:150] Setting up fc24_4_prescale
I0407 23:51:43.660120 26944 net.cpp:157] Top shape: 128 300 (38400)
I0407 23:51:43.660122 26944 net.cpp:165] Memory required for data: 12856158208
I0407 23:51:43.660128 26944 layer_factory.hpp:77] Creating layer fc24_4_sTanH
I0407 23:51:43.660135 26944 net.cpp:100] Creating Layer fc24_4_sTanH
I0407 23:51:43.660140 26944 net.cpp:434] fc24_4_sTanH <- fc24_4
I0407 23:51:43.660147 26944 net.cpp:395] fc24_4_sTanH -> fc24_4 (in-place)
I0407 23:51:43.660475 26944 net.cpp:150] Setting up fc24_4_sTanH
I0407 23:51:43.660487 26944 net.cpp:157] Top shape: 128 300 (38400)
I0407 23:51:43.660491 26944 net.cpp:165] Memory required for data: 12856311808
I0407 23:51:43.660495 26944 layer_factory.hpp:77] Creating layer fc24_4_postscale
I0407 23:51:43.660521 26944 net.cpp:100] Creating Layer fc24_4_postscale
I0407 23:51:43.660526 26944 net.cpp:434] fc24_4_postscale <- fc24_4
I0407 23:51:43.660534 26944 net.cpp:395] fc24_4_postscale -> fc24_4 (in-place)
I0407 23:51:43.660733 26944 net.cpp:150] Setting up fc24_4_postscale
I0407 23:51:43.660745 26944 net.cpp:157] Top shape: 128 300 (38400)
I0407 23:51:43.660748 26944 net.cpp:165] Memory required for data: 12856465408
I0407 23:51:43.660754 26944 layer_factory.hpp:77] Creating layer drop24_4
I0407 23:51:43.660766 26944 net.cpp:100] Creating Layer drop24_4
I0407 23:51:43.660771 26944 net.cpp:434] drop24_4 <- fc24_4
I0407 23:51:43.660778 26944 net.cpp:395] drop24_4 -> fc24_4 (in-place)
I0407 23:51:43.660810 26944 net.cpp:150] Setting up drop24_4
I0407 23:51:43.660820 26944 net.cpp:157] Top shape: 128 300 (38400)
I0407 23:51:43.660825 26944 net.cpp:165] Memory required for data: 12856619008
I0407 23:51:43.660827 26944 layer_factory.hpp:77] Creating layer fc24_5_67
I0407 23:51:43.660835 26944 net.cpp:100] Creating Layer fc24_5_67
I0407 23:51:43.660838 26944 net.cpp:434] fc24_5_67 <- fc24_4
I0407 23:51:43.660845 26944 net.cpp:408] fc24_5_67 -> fc24_5
I0407 23:51:43.661211 26944 net.cpp:150] Setting up fc24_5_67
I0407 23:51:43.661222 26944 net.cpp:157] Top shape: 128 67 (8576)
I0407 23:51:43.661226 26944 net.cpp:165] Memory required for data: 12856653312
I0407 23:51:43.661233 26944 layer_factory.hpp:77] Creating layer softmax_24
I0407 23:51:43.661242 26944 net.cpp:100] Creating Layer softmax_24
I0407 23:51:43.661247 26944 net.cpp:434] softmax_24 <- fc24_5
I0407 23:51:43.661252 26944 net.cpp:408] softmax_24 -> softmax_24
I0407 23:51:43.661681 26944 net.cpp:150] Setting up softmax_24
I0407 23:51:43.661696 26944 net.cpp:157] Top shape: 128 67 (8576)
I0407 23:51:43.661700 26944 net.cpp:165] Memory required for data: 12856687616
I0407 23:51:43.661703 26944 layer_factory.hpp:77] Creating layer averaging
I0407 23:51:43.661716 26944 net.cpp:100] Creating Layer averaging
I0407 23:51:43.661721 26944 net.cpp:434] averaging <- softmax_0
I0407 23:51:43.661727 26944 net.cpp:434] averaging <- softmax_1
I0407 23:51:43.661733 26944 net.cpp:434] averaging <- softmax_2
…
