…
I0407 23:13:57.032816 29122 net.cpp:322] The NetState phase (0) differed from the phase (1) specified by a rule in layer accuracy_5
I0407 23:13:57.035120 29122 net.cpp:58] Initializing net from parameters: 
state {
  phase: TRAIN
  level: 0
  stage: ""
}
layer {
  name: "data_0"
  type: "Data"
  top: "data_0"
  top: "label_0"
  include {
    phase: TRAIN
  }
  transform_param {
    mirror: false
    crop_size: 48
    mean_value: 115
    mean_value: 107
    mean_value: 120
  }
  data_param {
    source: "../local_data/lmdb/rtsd-r1/orig/train/lmdb"
    batch_size: 64
    backend: LMDB
  }
}
layer {
  name: "conv0_0"
  type: "Convolution"
  bottom: "data_0"
  top: "conv0_0"
  convolution_param {
    num_output: 100
    pad: 0
    kernel_size: 7
    group: 1
    stride: 1
    weight_filler {
      type: "xavier"
    }
  }
}
layer {
  name: "conv0_0_prescale"
  type: "Scale"
  bottom: "conv0_0"
  top: "conv0_0"
  param {
    lr_mult: 0
    decay_mult: 0
  }
  scale_param {
    filler {
      value: 0.6666
    }
  }
}
layer {
  name: "conv0_0_sTanH"
  type: "TanH"
  bottom: "conv0_0"
  top: "conv0_0"
}
layer {
  name: "conv0_0_postscale"
  type: "Scale"
  bottom: "conv0_0"
  top: "conv0_0"
  param {
    lr_mult: 0
    decay_mult: 0
  }
  scale_param {
    filler {
      value: 1.7159
    }
  }
}
layer {
  name: "pool0_0"
  type: "Pooling"
  bottom: "conv0_0"
  top: "pool0_0"
  pooling_param {
    pool: MAX
    kernel_size: 2
    stride: 2
  }
}
layer {
  name: "conv0_1"
  type: "Convolution"
  bottom: "pool0_0"
  top: "conv0_1"
  convolution_param {
    num_output: 150
    pad: 0
    kernel_size: 4
    group: 1
    stride: 1
    weight_filler {
      type: "xavier"
    }
  }
}
layer {
  name: "conv0_1_prescale"
  type: "Scale"
  bottom: "conv0_1"
  top: "conv0_1"
  param {
    lr_mult: 0
    decay_mult: 0
  }
  scale_param {
    filler {
      value: 0.6666
    }
  }
}
layer {
  name: "conv0_1_sTanH"
  type: "TanH"
  bottom: "conv0_1"
  top: "conv0_1"
}
layer {
  name: "conv0_1_postscale"
  type: "Scale"
  bottom: "conv0_1"
  top: "conv0_1"
  param {
    lr_mult: 0
    decay_mult: 0
  }
  scale_param {
    filler {
      value: 1.7159
    }
  }
}
layer {
  name: "pool0_1"
  type: "Pooling"
  bottom: "conv0_1"
  top: "pool0_1"
  pooling_param {
    pool: MAX
    kernel_size: 2
    stride: 2
  }
}
layer {
  name: "conv0_2"
  type: "Convolution"
  bottom: "pool0_1"
  top: "conv0_2"
  convolution_param {
    num_output: 250
    pad: 0
    kernel_size: 4
    group: 1
    stride: 1
    weight_filler {
      type: "xavier"
    }
  }
}
layer {
  name: "conv0_2_prescale"
  type: "Scale"
  bottom: "conv0_2"
  top: "conv0_2"
  param {
    lr_mult: 0
    decay_mult: 0
  }
  scale_param {
    filler {
      value: 0.6666
    }
  }
}
layer {
  name: "conv0_2_sTanH"
  type: "TanH"
  bottom: "conv0_2"
  top: "conv0_2"
}
layer {
  name: "conv0_2_postscale"
  type: "Scale"
  bottom: "conv0_2"
  top: "conv0_2"
  param {
    lr_mult: 0
    decay_mult: 0
  }
  scale_param {
    filler {
      value: 1.7159
    }
  }
}
layer {
  name: "pool0_2"
  type: "Pooling"
  bottom: "conv0_2"
  top: "pool0_2"
  pooling_param {
    pool: MAX
    kernel_size: 2
    stride: 2
  }
}
layer {
  name: "fc0_4_300"
  type: "InnerProduct"
  bottom: "pool0_2"
  top: "fc0_4"
  inner_product_param {
    num_output: 300
    weight_filler {
      type: "xavier"
    }
  }
}
layer {
  name: "fc0_4_prescale"
  type: "Scale"
  bottom: "fc0_4"
  top: "fc0_4"
  param {
    lr_mult: 0
    decay_mult: 0
  }
  scale_param {
    filler {
      value: 0.6666
    }
  }
}
layer {
  name: "fc0_4_sTanH"
  type: "TanH"
  bottom: "fc0_4"
  top: "fc0_4"
}
layer {
  name: "fc0_4_postscale"
  type: "Scale"
  bottom: "fc0_4"
  top: "fc0_4"
  param {
    lr_mult: 0
    decay_mult: 0
  }
  scale_param {
    filler {
      value: 1.7159
    }
  }
}
layer {
  name: "drop0_4"
  type: "Dropout"
  bottom: "fc0_4"
  top: "fc0_4"
  dropout_param {
    dropout_ratio: 0.4
  }
}
layer {
  name: "fc0_5_67"
  type: "InnerProduct"
  bottom: "fc0_4"
  top: "fc0_5"
  inner_product_param {
    num_output: 67
    weight_filler {
      type: "xavier"
    }
  }
}
layer {
  name: "softmax_0"
  type: "Softmax"
  bottom: "fc0_5"
  top: "softmax_0"
}
layer {
  name: "conv1_0"
  type: "Convolution"
  bottom: "data_0"
  top: "conv1_0"
  convolution_param {
    num_output: 100
    pad: 0
    kernel_size: 7
    group: 1
    stride: 1
    weight_filler {
      type: "xavier"
    }
  }
}
layer {
  name: "conv1_0_prescale"
  type: "Scale"
  bottom: "conv1_0"
  top: "conv1_0"
  param {
    lr_mult: 0
    decay_mult: 0
  }
  scale_param {
    filler {
      value: 0.6666
    }
  }
}
layer {
  name: "conv1_0_sTanH"
  type: "TanH"
  bottom: "conv1_0"
  top: "conv1_0"
}
layer {
  name: "conv1_0_postscale"
  type: "Scale"
  bottom: "conv1_0"
  top: "conv1_0"
  param {
    lr_mult: 0
    decay_mult: 0
  }
  scale_param {
    filler {
      value: 1.7159
    }
  }
}
layer {
  name: "pool1_0"
  type: "Pooling"
  bottom: "conv1_0"
  top: "pool1_0"
  pooling_param {
    pool: MAX
    kernel_size: 2
    stride: 2
  }
}
layer {
  name: "conv1_1"
  type: "Convolution"
  bottom: "pool1_0"
  top: "conv1_1"
  convolution_param {
    num_output: 150
    pad: 0
    kernel_size: 4
    group: 1
    stride: 1
    weight_filler {
      type: "xavier"
    }
  }
}
layer {
  name: "conv1_1_prescale"
  type: "Scale"
  bottom: "conv1_1"
  top: "conv1_1"
  param {
    lr_mult: 0
    decay_mult: 0
  }
  scale_param {
    filler {
      value: 0.6666
    }
  }
}
layer {
  name: "conv1_1_sTanH"
  type: "TanH"
  bottom: "conv1_1"
  top: "conv1_1"
}
layer {
  name: "conv1_1_postscale"
  type: "Scale"
  bottom: "conv1_1"
  top: "conv1_1"
  param {
    lr_mult: 0
    decay_mult: 0
  }
  scale_param {
    filler {
      value: 1.7159
    }
  }
}
layer {
  name: "pool1_1"
  type: "Pooling"
  bottom: "conv1_1"
  top: "pool1_1"
  pooling_param {
    pool: MAX
    kernel_size: 2
    stride: 2
  }
}
layer {
  name: "conv1_2"
  type: "Convolution"
  bottom: "pool1_1"
  top: "conv1_2"
  convolution_param {
    num_output: 250
    pad: 0
    kernel_size: 4
    group: 1
    stride: 1
    weight_filler {
      type: "xavier"
    }
  }
}
layer {
  name: "conv1_2_prescale"
  type: "Scale"
  bottom: "conv1_2"
  top: "conv1_2"
  param {
    lr_mult: 0
    decay_mult: 0
  }
  scale_param {
    filler {
      value: 0.6666
    }
  }
}
layer {
  name: "conv1_2_sTanH"
  type: "TanH"
  bottom: "conv1_2"
  top: "conv1_2"
}
layer {
  name: "conv1_2_postscale"
  type: "Scale"
  bottom: "conv1_2"
  top: "conv1_2"
  param {
    lr_mult: 0
    decay_mult: 0
  }
  scale_param {
    filler {
      value: 1.7159
    }
  }
}
layer {
  name: "pool1_2"
  type: "Pooling"
  bottom: "conv1_2"
  top: "pool1_2"
  pooling_param {
    pool: MAX
    kernel_size: 2
    stride: 2
  }
}
layer {
  name: "fc1_4_300"
  type: "InnerProduct"
  bottom: "pool1_2"
  top: "fc1_4"
  inner_product_param {
    num_output: 300
    weight_filler {
      type: "xavier"
    }
  }
}
layer {
  name: "fc1_4_prescale"
  type: "Scale"
  bottom: "fc1_4"
  top: "fc1_4"
  param {
    lr_mult: 0
    decay_mult: 0
  }
  scale_param {
    filler {
      value: 0.6666
    }
  }
}
layer {
  name: "fc1_4_sTanH"
  type: "TanH"
  bottom: "fc1_4"
  top: "fc1_4"
}
layer {
  name: "fc1_4_postscale"
  type: "Scale"
  bottom: "fc1_4"
  top: "fc1_4"
  param {
    lr_mult: 0
    decay_mult: 0
  }
  scale_param {
    filler {
      value: 1.7159
    }
  }
}
layer {
  name: "drop1_4"
  type: "Dropout"
  bottom: "fc1_4"
  top: "fc1_4"
  dropout_param {
    dropout_ratio: 0.4
  }
}
layer {
  name: "fc1_5_67"
  type: "InnerProduct"
  bottom: "fc1_4"
  top: "fc1_5"
  inner_product_param {
    num_output: 67
    weight_filler {
      type: "xavier"
    }
  }
}
layer {
  name: "softmax_1"
  type: "Softmax"
  bottom: "fc1_5"
  top: "softmax_1"
}
layer {
  name: "conv2_0"
  type: "Convolution"
  bottom: "data_0"
  top: "conv2_0"
  convolution_param {
    num_output: 100
    pad: 0
    kernel_size: 7
    group: 1
    stride: 1
    weight_filler {
      type: "xavier"
    }
  }
}
layer {
  name: "conv2_0_prescale"
  type: "Scale"
  bottom: "conv2_0"
  top: "conv2_0"
  param {
    lr_mult: 0
    decay_mult: 0
  }
  scale_param {
    filler {
      value: 0.6666
    }
  }
}
layer {
  name: "conv2_0_sTanH"
  type: "TanH"
  bottom: "conv2_0"
  top: "conv2_0"
}
layer {
  name: "conv2_0_postscale"
  type: "Scale"
  bottom: "conv2_0"
  top: "conv2_0"
  param {
    lr_mult: 0
    decay_mult: 0
  }
  scale_param {
    filler {
      value: 1.7159
    }
  }
}
layer {
  name: "pool2_0"
  type: "Pooling"
  bottom: "conv2_0"
  top: "pool2_0"
  pooling_param {
    pool: MAX
    kernel_size: 2
    stride: 2
  }
}
layer {
  name: "conv2_1"
  type: "Convolution"
  bottom: "pool2_0"
  top: "conv2_1"
  convolution_param {
    num_output: 150
    pad: 0
    kernel_size: 4
    group: 1
    stride: 1
    weight_filler {
      type: "xavier"
    }
  }
}
layer {
  name: "conv2_1_prescale"
  type: "Scale"
  bottom: "conv2_1"
  top: "conv2_1"
  param {
    lr_mult: 0
    decay_mult: 0
  }
  scale_param {
    filler {
      value: 0.6666
    }
  }
}
layer {
  name: "conv2_1_sTanH"
  type: "TanH"
  bottom: "conv2_1"
  top: "conv2_1"
}
layer {
  name: "conv2_1_postscale"
  type: "Scale"
  bottom: "conv2_1"
  top: "conv2_1"
  param {
    lr_mult: 0
    decay_mult: 0
  }
  scale_param {
    filler {
      value: 1.7159
    }
  }
}
layer {
  name: "pool2_1"
  type: "Pooling"
  bottom: "conv2_1"
  top: "pool2_1"
  pooling_param {
    pool: MAX
    kernel_size: 2
    stride: 2
  }
}
layer {
  name: "conv2_2"
  type: "Convolution"
  bottom: "pool2_1"
  top: "conv2_2"
  convolution_param {
    num_output: 250
    pad: 0
    kernel_size: 4
    group: 1
    stride: 1
    weight_filler {
      type: "xavier"
    }
  }
}
layer {
  name: "conv2_2_prescale"
  type: "Scale"
  bottom: "conv2_2"
  top: "conv2_2"
  param {
    lr_mult: 0
    decay_mult: 0
  }
  scale_param {
    filler {
      value: 0.6666
    }
  }
}
layer {
  name: "conv2_2_sTanH"
  type: "TanH"
  bottom: "conv2_2"
  top: "conv2_2"
}
layer {
  name: "conv2_2_postscale"
  type: "Scale"
  bottom: "conv2_2"
  top: "conv2_2"
  param {
    lr_mult: 0
    decay_mult: 0
  }
  scale_param {
    filler {
      value: 1.7159
    }
  }
}
layer {
  name: "pool2_2"
  type: "Pooling"
  bottom: "conv2_2"
  top: "pool2_2"
  pooling_param {
    pool: MAX
    kernel_size: 2
    stride: 2
  }
}
layer {
  name: "fc2_4_300"
  type: "InnerProduct"
  bottom: "pool2_2"
  top: "fc2_4"
  inner_product_param {
    num_output: 300
    weight_filler {
      type: "xavier"
    }
  }
}
layer {
  name: "fc2_4_prescale"
  type: "Scale"
  bottom: "fc2_4"
  top: "fc2_4"
  param {
    lr_mult: 0
    decay_mult: 0
  }
  scale_param {
    filler {
      value: 0.6666
    }
  }
}
layer {
  name: "fc2_4_sTanH"
  type: "TanH"
  bottom: "fc2_4"
  top: "fc2_4"
}
layer {
  name: "fc2_4_postscale"
  type: "Scale"
  bottom: "fc2_4"
  top: "fc2_4"
  param {
    lr_mult: 0
    decay_mult: 0
  }
  scale_param {
    filler {
      value: 1.7159
    }
  }
}
layer {
  name: "drop2_4"
  type: "Dropout"
  bottom: "fc2_4"
  top: "fc2_4"
  dropout_param {
    dropout_ratio: 0.4
  }
}
layer {
  name: "fc2_5_67"
  type: "InnerProduct"
  bottom: "fc2_4"
  top: "fc2_5"
  inner_product_param {
    num_output: 67
    weight_filler {
      type: "xavier"
    }
  }
}
layer {
  name: "softmax_2"
  type: "Softmax"
  bottom: "fc2_5"
  top: "softmax_2"
}
layer {
  name: "conv3_0"
  type: "Convolution"
  bottom: "data_0"
  top: "conv3_0"
  convolution_param {
    num_output: 100
    pad: 0
    kernel_size: 7
    group: 1
    stride: 1
    weight_filler {
      type: "xavier"
    }
  }
}
layer {
  name: "conv3_0_prescale"
  type: "Scale"
  bottom: "conv3_0"
  top: "conv3_0"
  param {
    lr_mult: 0
    decay_mult: 0
  }
  scale_param {
    filler {
      value: 0.6666
    }
  }
}
layer {
  name: "conv3_0_sTanH"
  type: "TanH"
  bottom: "conv3_0"
  top: "conv3_0"
}
layer {
  name: "conv3_0_postscale"
  type: "Scale"
  bottom: "conv3_0"
  top: "conv3_0"
  param {
    lr_mult: 0
    decay_mult: 0
  }
  scale_param {
    filler {
      value: 1.7159
    }
  }
}
layer {
  name: "pool3_0"
  type: "Pooling"
  bottom: "conv3_0"
  top: "pool3_0"
  pooling_param {
    pool: MAX
    kernel_size: 2
    stride: 2
  }
}
layer {
  name: "conv3_1"
  type: "Convolution"
  bottom: "pool3_0"
  top: "conv3_1"
  convolution_param {
    num_output: 150
    pad: 0
    kernel_size: 4
    group: 1
    stride: 1
    weight_filler {
      type: "xavier"
    }
  }
}
layer {
  name: "conv3_1_prescale"
  type: "Scale"
  bottom: "conv3_1"
  top: "conv3_1"
  param {
    lr_mult: 0
    decay_mult: 0
  }
  scale_param {
    filler {
      value: 0.6666
    }
  }
}
layer {
  name: "conv3_1_sTanH"
  type: "TanH"
  bottom: "conv3_1"
  top: "conv3_1"
}
layer {
  name: "conv3_1_postscale"
  type: "Scale"
  bottom: "conv3_1"
  top: "conv3_1"
  param {
    lr_mult: 0
    decay_mult: 0
  }
  scale_param {
    filler {
      value: 1.7159
    }
  }
}
layer {
  name: "pool3_1"
  type: "Pooling"
  bottom: "conv3_1"
  top: "pool3_1"
  pooling_param {
    pool: MAX
    kernel_size: 2
    stride: 2
  }
}
layer {
  name: "conv3_2"
  type: "Convolution"
  bottom: "pool3_1"
  top: "conv3_2"
  convolution_param {
    num_output: 250
    pad: 0
    kernel_size: 4
    group: 1
    stride: 1
    weight_filler {
      type: "xavier"
    }
  }
}
layer {
  name: "conv3_2_prescale"
  type: "Scale"
  bottom: "conv3_2"
  top: "conv3_2"
  param {
    lr_mult: 0
    decay_mult: 0
  }
  scale_param {
    filler {
      value: 0.6666
    }
  }
}
layer {
  name: "conv3_2_sTanH"
  type: "TanH"
  bottom: "conv3_2"
  top: "conv3_2"
}
layer {
  name: "conv3_2_postscale"
  type: "Scale"
  bottom: "conv3_2"
  top: "conv3_2"
  param {
    lr_mult: 0
    decay_mult: 0
  }
  scale_param {
    filler {
      value: 1.7159
    }
  }
}
layer {
  name: "pool3_2"
  type: "Pooling"
  bottom: "conv3_2"
  top: "pool3_2"
  pooling_param {
    pool: MAX
    kernel_size: 2
    stride: 2
  }
}
layer {
  name: "fc3_4_300"
  type: "InnerProduct"
  bottom: "pool3_2"
  top: "fc3_4"
  inner_product_param {
    num_output: 300
    weight_filler {
      type: "xavier"
    }
  }
}
layer {
  name: "fc3_4_prescale"
  type: "Scale"
  bottom: "fc3_4"
  top: "fc3_4"
  param {
    lr_mult: 0
    decay_mult: 0
  }
  scale_param {
    filler {
      value: 0.6666
    }
  }
}
layer {
  name: "fc3_4_sTanH"
  type: "TanH"
  bottom: "fc3_4"
  top: "fc3_4"
}
layer {
  name: "fc3_4_postscale"
  type: "Scale"
  bottom: "fc3_4"
  top: "fc3_4"
  param {
    lr_mult: 0
    decay_mult: 0
  }
  scale_param {
    filler {
      value: 1.7159
    }
  }
}
layer {
  name: "drop3_4"
  type: "Dropout"
  bottom: "fc3_4"
  top: "fc3_4"
  dropout_param {
    dropout_ratio: 0.4
  }
}
layer {
  name: "fc3_5_67"
  type: "InnerProduct"
  bottom: "fc3_4"
  top: "fc3_5"
  inner_product_param {
    num_output: 67
    weight_filler {
      type: "xavier"
    }
  }
}
layer {
  name: "softmax_3"
  type: "Softmax"
  bottom: "fc3_5"
  top: "softmax_3"
}
layer {
  name: "conv4_0"
  type: "Convolution"
  bottom: "data_0"
  top: "conv4_0"
  convolution_param {
    num_output: 100
    pad: 0
    kernel_size: 7
    group: 1
    stride: 1
    weight_filler {
      type: "xavier"
    }
  }
}
layer {
  name: "conv4_0_prescale"
  type: "Scale"
  bottom: "conv4_0"
  top: "conv4_0"
  param {
    lr_mult: 0
    decay_mult: 0
  }
  scale_param {
    filler {
      value: 0.6666
    }
  }
}
layer {
  name: "conv4_0_sTanH"
  type: "TanH"
  bottom: "conv4_0"
  top: "conv4_0"
}
layer {
  name: "conv4_0_postscale"
  type: "Scale"
  bottom: "conv4_0"
  top: "conv4_0"
  param {
    lr_mult: 0
    decay_mult: 0
  }
  scale_param {
    filler {
      value: 1.7159
    }
  }
}
layer {
  name: "pool4_0"
  type: "Pooling"
  bottom: "conv4_0"
  top: "pool4_0"
  pooling_param {
    pool: MAX
    kernel_size: 2
    stride: 2
  }
}
layer {
  name: "conv4_1"
  type: "Convolution"
  bottom: "pool4_0"
  top: "conv4_1"
  convolution_param {
    num_output: 150
    pad: 0
    kernel_size: 4
    group: 1
    stride: 1
    weight_filler {
      type: "xavier"
    }
  }
}
layer {
  name: "conv4_1_prescale"
  type: "Scale"
  bottom: "conv4_1"
  top: "conv4_1"
  param {
    lr_mult: 0
    decay_mult: 0
  }
  scale_param {
    filler {
      value: 0.6666
    }
  }
}
layer {
  name: "conv4_1_sTanH"
  type: "TanH"
  bottom: "conv4_1"
  top: "conv4_1"
}
layer {
  name: "conv4_1_postscale"
  type: "Scale"
  bottom: "conv4_1"
  top: "conv4_1"
  param {
    lr_mult: 0
    decay_mult: 0
  }
  scale_param {
    filler {
      value: 1.7159
    }
  }
}
layer {
  name: "pool4_1"
  type: "Pooling"
  bottom: "conv4_1"
  top: "pool4_1"
  pooling_param {
    pool: MAX
    kernel_size: 2
    stride: 2
  }
}
layer {
  name: "conv4_2"
  type: "Convolution"
  bottom: "pool4_1"
  top: "conv4_2"
  convolution_param {
    num_output: 250
    pad: 0
    kernel_size: 4
    group: 1
    stride: 1
    weight_filler {
      type: "xavier"
    }
  }
}
layer {
  name: "conv4_2_prescale"
  type: "Scale"
  bottom: "conv4_2"
  top: "conv4_2"
  param {
    lr_mult: 0
    decay_mult: 0
  }
  scale_param {
    filler {
      value: 0.6666
    }
  }
}
layer {
  name: "conv4_2_sTanH"
  type: "TanH"
  bottom: "conv4_2"
  top: "conv4_2"
}
layer {
  name: "conv4_2_postscale"
  type: "Scale"
  bottom: "conv4_2"
  top: "conv4_2"
  param {
    lr_mult: 0
    decay_mult: 0
  }
  scale_param {
    filler {
      value: 1.7159
    }
  }
}
layer {
  name: "pool4_2"
  type: "Pooling"
  bottom: "conv4_2"
  top: "pool4_2"
  pooling_param {
    pool: MAX
    kernel_size: 2
    stride: 2
  }
}
layer {
  name: "fc4_4_300"
  type: "InnerProduct"
  bottom: "pool4_2"
  top: "fc4_4"
  inner_product_param {
    num_output: 300
    weight_filler {
      type: "xavier"
    }
  }
}
layer {
  name: "fc4_4_prescale"
  type: "Scale"
  bottom: "fc4_4"
  top: "fc4_4"
  param {
    lr_mult: 0
    decay_mult: 0
  }
  scale_param {
    filler {
      value: 0.6666
    }
  }
}
layer {
  name: "fc4_4_sTanH"
  type: "TanH"
  bottom: "fc4_4"
  top: "fc4_4"
}
layer {
  name: "fc4_4_postscale"
  type: "Scale"
  bottom: "fc4_4"
  top: "fc4_4"
  param {
    lr_mult: 0
    decay_mult: 0
  }
  scale_param {
    filler {
      value: 1.7159
    }
  }
}
layer {
  name: "drop4_4"
  type: "Dropout"
  bottom: "fc4_4"
  top: "fc4_4"
  dropout_param {
    dropout_ratio: 0.4
  }
}
layer {
  name: "fc4_5_67"
  type: "InnerProduct"
  bottom: "fc4_4"
  top: "fc4_5"
  inner_product_param {
    num_output: 67
    weight_filler {
      type: "xavier"
    }
  }
}
layer {
  name: "softmax_4"
  type: "Softmax"
  bottom: "fc4_5"
  top: "softmax_4"
}
layer {
  name: "data_1"
  type: "Data"
  top: "data_1"
  top: "label_1"
  include {
    phase: TRAIN
  }
  transform_param {
    mirror: false
    crop_size: 48
    mean_value: 122
    mean_value: 115
    mean_value: 128
  }
  data_param {
    source: "../local_data/lmdb/rtsd-r1/histeq/train/lmdb"
    batch_size: 64
    backend: LMDB
  }
}
layer {
  name: "conv5_0"
  type: "Convolution"
  bottom: "data_1"
  top: "conv5_0"
  convolution_param {
    num_output: 100
    pad: 0
    kernel_size: 7
    group: 1
    stride: 1
    weight_filler {
      type: "xavier"
    }
  }
}
layer {
  name: "conv5_0_prescale"
  type: "Scale"
  bottom: "conv5_0"
  top: "conv5_0"
  param {
    lr_mult: 0
    decay_mult: 0
  }
  scale_param {
    filler {
      value: 0.6666
    }
  }
}
layer {
  name: "conv5_0_sTanH"
  type: "TanH"
  bottom: "conv5_0"
  top: "conv5_0"
}
layer {
  name: "conv5_0_postscale"
  type: "Scale"
  bottom: "conv5_0"
  top: "conv5_0"
  param {
    lr_mult: 0
    decay_mult: 0
  }
  scale_param {
    filler {
      value: 1.7159
    }
  }
}
layer {
  name: "pool5_0"
  type: "Pooling"
  bottom: "conv5_0"
  top: "pool5_0"
  pooling_param {
    pool: MAX
    kernel_size: 2
    stride: 2
  }
}
layer {
  name: "conv5_1"
  type: "Convolution"
  bottom: "pool5_0"
  top: "conv5_1"
  convolution_param {
    num_output: 150
    pad: 0
    kernel_size: 4
    group: 1
    stride: 1
    weight_filler {
      type: "xavier"
    }
  }
}
layer {
  name: "conv5_1_prescale"
  type: "Scale"
  bottom: "conv5_1"
  top: "conv5_1"
  param {
    lr_mult: 0
    decay_mult: 0
  }
  scale_param {
    filler {
      value: 0.6666
    }
  }
}
layer {
  name: "conv5_1_sTanH"
  type: "TanH"
  bottom: "conv5_1"
  top: "conv5_1"
}
layer {
  name: "conv5_1_postscale"
  type: "Scale"
  bottom: "conv5_1"
  top: "conv5_1"
  param {
    lr_mult: 0
    decay_mult: 0
  }
  scale_param {
    filler {
      value: 1.7159
    }
  }
}
layer {
  name: "pool5_1"
  type: "Pooling"
  bottom: "conv5_1"
  top: "pool5_1"
  pooling_param {
    pool: MAX
    kernel_size: 2
    stride: 2
  }
}
layer {
  name: "conv5_2"
  type: "Convolution"
  bottom: "pool5_1"
  top: "conv5_2"
  convolution_param {
    num_output: 250
    pad: 0
    kernel_size: 4
    group: 1
    stride: 1
    weight_filler {
      type: "xavier"
    }
  }
}
layer {
  name: "conv5_2_prescale"
  type: "Scale"
  bottom: "conv5_2"
  top: "conv5_2"
  param {
    lr_mult: 0
    decay_mult: 0
  }
  scale_param {
    filler {
      value: 0.6666
    }
  }
}
layer {
  name: "conv5_2_sTanH"
  type: "TanH"
  bottom: "conv5_2"
  top: "conv5_2"
}
layer {
  name: "conv5_2_postscale"
  type: "Scale"
  bottom: "conv5_2"
  top: "conv5_2"
  param {
    lr_mult: 0
    decay_mult: 0
  }
  scale_param {
    filler {
      value: 1.7159
    }
  }
}
layer {
  name: "pool5_2"
  type: "Pooling"
  bottom: "conv5_2"
  top: "pool5_2"
  pooling_param {
    pool: MAX
    kernel_size: 2
    stride: 2
  }
}
layer {
  name: "fc5_4_300"
  type: "InnerProduct"
  bottom: "pool5_2"
  top: "fc5_4"
  inner_product_param {
    num_output: 300
    weight_filler {
      type: "xavier"
    }
  }
}
layer {
  name: "fc5_4_prescale"
  type: "Scale"
  bottom: "fc5_4"
  top: "fc5_4"
  param {
    lr_mult: 0
    decay_mult: 0
  }
  scale_param {
    filler {
      value: 0.6666
    }
  }
}
layer {
  name: "fc5_4_sTanH"
  type: "TanH"
  bottom: "fc5_4"
  top: "fc5_4"
}
layer {
  name: "fc5_4_postscale"
  type: "Scale"
  bottom: "fc5_4"
  top: "fc5_4"
  param {
    lr_mult: 0
    decay_mult: 0
  }
  scale_param {
    filler {
      value: 1.7159
    }
  }
}
layer {
  name: "drop5_4"
  type: "Dropout"
  bottom: "fc5_4"
  top: "fc5_4"
  dropout_param {
    dropout_ratio: 0.4
  }
}
layer {
  name: "fc5_5_67"
  type: "InnerProduct"
  bottom: "fc5_4"
  top: "fc5_5"
  inner_product_param {
    num_output: 67
    weight_filler {
      type: "xavier"
    }
  }
}
layer {
  name: "softmax_5"
  type: "Softmax"
  bottom: "fc5_5"
  top: "softmax_5"
}
layer {
  name: "conv6_0"
  type: "Convolution"
  bottom: "data_1"
  top: "conv6_0"
  convolution_param {
    num_output: 100
    pad: 0
    kernel_size: 7
    group: 1
    stride: 1
    weight_filler {
      type: "xavier"
    }
  }
}
layer {
  name: "conv6_0_prescale"
  type: "Scale"
  bottom: "conv6_0"
  top: "conv6_0"
  param {
    lr_mult: 0
    decay_mult: 0
  }
  scale_param {
    filler {
      value: 0.6666
    }
  }
}
layer {
  name: "conv6_0_sTanH"
  type: "TanH"
  bottom: "conv6_0"
  top: "conv6_0"
}
layer {
  name: "conv6_0_postscale"
  type: "Scale"
  bottom: "conv6_0"
  top: "conv6_0"
  param {
    lr_mult: 0
    decay_mult: 0
  }
  scale_param {
    filler {
      value: 1.7159
    }
  }
}
layer {
  name: "pool6_0"
  type: "Pooling"
  bottom: "conv6_0"
  top: "pool6_0"
  pooling_param {
    pool: MAX
    kernel_size: 2
    stride: 2
  }
}
layer {
  name: "conv6_1"
  type: "Convolution"
  bottom: "pool6_0"
  top: "conv6_1"
  convolution_param {
    num_output: 150
    pad: 0
    kernel_size: 4
    group: 1
    stride: 1
    weight_filler {
      type: "xavier"
    }
  }
}
layer {
  name: "conv6_1_prescale"
  type: "Scale"
  bottom: "conv6_1"
  top: "conv6_1"
  param {
    lr_mult: 0
    decay_mult: 0
  }
  scale_param {
    filler {
      value: 0.6666
    }
  }
}
layer {
  name: "conv6_1_sTanH"
  type: "TanH"
  bottom: "conv6_1"
  top: "conv6_1"
}
layer {
  name: "conv6_1_postscale"
  type: "Scale"
  bottom: "conv6_1"
  top: "conv6_1"
  param {
    lr_mult: 0
    decay_mult: 0
  }
  scale_param {
    filler {
      value: 1.7159
    }
  }
}
layer {
  name: "pool6_1"
  type: "Pooling"
  bottom: "conv6_1"
  top: "pool6_1"
  pooling_param {
    pool: MAX
    kernel_size: 2
    stride: 2
  }
}
layer {
  name: "conv6_2"
  type: "Convolution"
  bottom: "pool6_1"
  top: "conv6_2"
  convolution_param {
    num_output: 250
    pad: 0
    kernel_size: 4
    group: 1
    stride: 1
    weight_filler {
      type: "xavier"
    }
  }
}
layer {
  name: "conv6_2_prescale"
  type: "Scale"
  bottom: "conv6_2"
  top: "conv6_2"
  param {
    lr_mult: 0
    decay_mult: 0
  }
  scale_param {
    filler {
      value: 0.6666
    }
  }
}
layer {
  name: "conv6_2_sTanH"
  type: "TanH"
  bottom: "conv6_2"
  top: "conv6_2"
}
layer {
  name: "conv6_2_postscale"
  type: "Scale"
  bottom: "conv6_2"
  top: "conv6_2"
  param {
    lr_mult: 0
    decay_mult: 0
  }
  scale_param {
    filler {
      value: 1.7159
    }
  }
}
layer {
  name: "pool6_2"
  type: "Pooling"
  bottom: "conv6_2"
  top: "pool6_2"
  pooling_param {
    pool: MAX
    kernel_size: 2
    stride: 2
  }
}
layer {
  name: "fc6_4_300"
  type: "InnerProduct"
  bottom: "pool6_2"
  top: "fc6_4"
  inner_product_param {
    num_output: 300
    weight_filler {
      type: "xavier"
    }
  }
}
layer {
  name: "fc6_4_prescale"
  type: "Scale"
  bottom: "fc6_4"
  top: "fc6_4"
  param {
    lr_mult: 0
    decay_mult: 0
  }
  scale_param {
    filler {
      value: 0.6666
    }
  }
}
layer {
  name: "fc6_4_sTanH"
  type: "TanH"
  bottom: "fc6_4"
  top: "fc6_4"
}
layer {
  name: "fc6_4_postscale"
  type: "Scale"
  bottom: "fc6_4"
  top: "fc6_4"
  param {
    lr_mult: 0
    decay_mult: 0
  }
  scale_param {
    filler {
      value: 1.7159
    }
  }
}
layer {
  name: "drop6_4"
  type: "Dropout"
  bottom: "fc6_4"
  top: "fc6_4"
  dropout_param {
    dropout_ratio: 0.4
  }
}
layer {
  name: "fc6_5_67"
  type: "InnerProduct"
  bottom: "fc6_4"
  top: "fc6_5"
  inner_product_param {
    num_output: 67
    weight_filler {
      type: "xavier"
    }
  }
}
layer {
  name: "softmax_6"
  type: "Softmax"
  bottom: "fc6_5"
  top: "softmax_6"
}
layer {
  name: "conv7_0"
  type: "Convolution"
  bottom: "data_1"
  top: "conv7_0"
  convolution_param {
    num_output: 100
    pad: 0
    kernel_size: 7
    group: 1
    stride: 1
    weight_filler {
      type: "xavier"
    }
  }
}
layer {
  name: "conv7_0_prescale"
  type: "Scale"
  bottom: "conv7_0"
  top: "conv7_0"
  param {
    lr_mult: 0
    decay_mult: 0
  }
  scale_param {
    filler {
      value: 0.6666
    }
  }
}
layer {
  name: "conv7_0_sTanH"
  type: "TanH"
  bottom: "conv7_0"
  top: "conv7_0"
}
layer {
  name: "conv7_0_postscale"
  type: "Scale"
  bottom: "conv7_0"
  top: "conv7_0"
  param {
    lr_mult: 0
    decay_mult: 0
  }
  scale_param {
    filler {
      value: 1.7159
    }
  }
}
layer {
  name: "pool7_0"
  type: "Pooling"
  bottom: "conv7_0"
  top: "pool7_0"
  pooling_param {
    pool: MAX
    kernel_size: 2
    stride: 2
  }
}
layer {
  name: "conv7_1"
  type: "Convolution"
  bottom: "pool7_0"
  top: "conv7_1"
  convolution_param {
    num_output: 150
    pad: 0
    kernel_size: 4
    group: 1
    stride: 1
    weight_filler {
      type: "xavier"
    }
  }
}
layer {
  name: "conv7_1_prescale"
  type: "Scale"
  bottom: "conv7_1"
  top: "conv7_1"
  param {
    lr_mult: 0
    decay_mult: 0
  }
  scale_param {
    filler {
      value: 0.6666
    }
  }
}
layer {
  name: "conv7_1_sTanH"
  type: "TanH"
  bottom: "conv7_1"
  top: "conv7_1"
}
layer {
  name: "conv7_1_postscale"
  type: "Scale"
  bottom: "conv7_1"
  top: "conv7_1"
  param {
    lr_mult: 0
    decay_mult: 0
  }
  scale_param {
    filler {
      value: 1.7159
    }
  }
}
layer {
  name: "pool7_1"
  type: "Pooling"
  bottom: "conv7_1"
  top: "pool7_1"
  pooling_param {
    pool: MAX
    kernel_size: 2
    stride: 2
  }
}
layer {
  name: "conv7_2"
  type: "Convolution"
  bottom: "pool7_1"
  top: "conv7_2"
  convolution_param {
    num_output: 250
    pad: 0
    kernel_size: 4
    group: 1
    stride: 1
    weight_filler {
      type: "xavier"
    }
  }
}
layer {
  name: "conv7_2_prescale"
  type: "Scale"
  bottom: "conv7_2"
  top: "conv7_2"
  param {
    lr_mult: 0
    decay_mult: 0
  }
  scale_param {
    filler {
      value: 0.6666
    }
  }
}
layer {
  name: "conv7_2_sTanH"
  type: "TanH"
  bottom: "conv7_2"
  top: "conv7_2"
}
layer {
  name: "conv7_2_postscale"
  type: "Scale"
  bottom: "conv7_2"
  top: "conv7_2"
  param {
    lr_mult: 0
    decay_mult: 0
  }
  scale_param {
    filler {
      value: 1.7159
    }
  }
}
layer {
  name: "pool7_2"
  type: "Pooling"
  bottom: "conv7_2"
  top: "pool7_2"
  pooling_param {
    pool: MAX
    kernel_size: 2
    stride: 2
  }
}
layer {
  name: "fc7_4_300"
  type: "InnerProduct"
  bottom: "pool7_2"
  top: "fc7_4"
  inner_product_param {
    num_output: 300
    weight_filler {
      type: "xavier"
    }
  }
}
layer {
  name: "fc7_4_prescale"
  type: "Scale"
  bottom: "fc7_4"
  top: "fc7_4"
  param {
    lr_mult: 0
    decay_mult: 0
  }
  scale_param {
    filler {
      value: 0.6666
    }
  }
}
layer {
  name: "fc7_4_sTanH"
  type: "TanH"
  bottom: "fc7_4"
  top: "fc7_4"
}
layer {
  name: "fc7_4_postscale"
  type: "Scale"
  bottom: "fc7_4"
  top: "fc7_4"
  param {
    lr_mult: 0
    decay_mult: 0
  }
  scale_param {
    filler {
      value: 1.7159
    }
  }
}
layer {
  name: "drop7_4"
  type: "Dropout"
  bottom: "fc7_4"
  top: "fc7_4"
  dropout_param {
    dropout_ratio: 0.4
  }
}
layer {
  name: "fc7_5_67"
  type: "InnerProduct"
  bottom: "fc7_4"
  top: "fc7_5"
  inner_product_param {
    num_output: 67
    weight_filler {
      type: "xavier"
    }
  }
}
layer {
  name: "softmax_7"
  type: "Softmax"
  bottom: "fc7_5"
  top: "softmax_7"
}
layer {
  name: "conv8_0"
  type: "Convolution"
  bottom: "data_1"
  top: "conv8_0"
  convolution_param {
    n
I0407 23:13:57.036917 29122 layer_factory.hpp:77] Creating layer data_0
I0407 23:13:57.037390 29122 net.cpp:100] Creating Layer data_0
I0407 23:13:57.037402 29122 net.cpp:408] data_0 -> data_0
I0407 23:13:57.037425 29122 net.cpp:408] data_0 -> label_0
I0407 23:13:57.038772 29180 db_lmdb.cpp:35] Opened lmdb ../local_data/lmdb/rtsd-r1/orig/train/lmdb
I0407 23:13:57.054316 29122 data_layer.cpp:41] output data size: 64,3,48,48
I0407 23:13:57.059765 29122 net.cpp:150] Setting up data_0
I0407 23:13:57.059783 29122 net.cpp:157] Top shape: 64 3 48 48 (442368)
I0407 23:13:57.059788 29122 net.cpp:157] Top shape: 64 (64)
I0407 23:13:57.059792 29122 net.cpp:165] Memory required for data: 1769728
I0407 23:13:57.059799 29122 layer_factory.hpp:77] Creating layer data_0_data_0_0_split
I0407 23:13:57.059809 29122 net.cpp:100] Creating Layer data_0_data_0_0_split
I0407 23:13:57.059814 29122 net.cpp:434] data_0_data_0_0_split <- data_0
I0407 23:13:57.059826 29122 net.cpp:408] data_0_data_0_0_split -> data_0_data_0_0_split_0
I0407 23:13:57.059836 29122 net.cpp:408] data_0_data_0_0_split -> data_0_data_0_0_split_1
I0407 23:13:57.059844 29122 net.cpp:408] data_0_data_0_0_split -> data_0_data_0_0_split_2
I0407 23:13:57.059850 29122 net.cpp:408] data_0_data_0_0_split -> data_0_data_0_0_split_3
I0407 23:13:57.059856 29122 net.cpp:408] data_0_data_0_0_split -> data_0_data_0_0_split_4
I0407 23:13:57.060019 29122 net.cpp:150] Setting up data_0_data_0_0_split
I0407 23:13:57.060029 29122 net.cpp:157] Top shape: 64 3 48 48 (442368)
I0407 23:13:57.060034 29122 net.cpp:157] Top shape: 64 3 48 48 (442368)
I0407 23:13:57.060039 29122 net.cpp:157] Top shape: 64 3 48 48 (442368)
I0407 23:13:57.060042 29122 net.cpp:157] Top shape: 64 3 48 48 (442368)
I0407 23:13:57.060061 29122 net.cpp:157] Top shape: 64 3 48 48 (442368)
I0407 23:13:57.060065 29122 net.cpp:165] Memory required for data: 10617088
I0407 23:13:57.060068 29122 layer_factory.hpp:77] Creating layer conv0_0
I0407 23:13:57.060084 29122 net.cpp:100] Creating Layer conv0_0
I0407 23:13:57.060087 29122 net.cpp:434] conv0_0 <- data_0_data_0_0_split_0
I0407 23:13:57.060094 29122 net.cpp:408] conv0_0 -> conv0_0
I0407 23:13:57.061662 29181 blocking_queue.cpp:50] Waiting for data
I0407 23:13:57.407929 29122 net.cpp:150] Setting up conv0_0
I0407 23:13:57.407958 29122 net.cpp:157] Top shape: 64 100 42 42 (11289600)
I0407 23:13:57.407963 29122 net.cpp:165] Memory required for data: 55775488
I0407 23:13:57.407985 29122 layer_factory.hpp:77] Creating layer conv0_0_prescale
I0407 23:13:57.407997 29122 net.cpp:100] Creating Layer conv0_0_prescale
I0407 23:13:57.408002 29122 net.cpp:434] conv0_0_prescale <- conv0_0
I0407 23:13:57.408010 29122 net.cpp:395] conv0_0_prescale -> conv0_0 (in-place)
I0407 23:13:57.408118 29122 net.cpp:150] Setting up conv0_0_prescale
I0407 23:13:57.408126 29122 net.cpp:157] Top shape: 64 100 42 42 (11289600)
I0407 23:13:57.408129 29122 net.cpp:165] Memory required for data: 100933888
I0407 23:13:57.408136 29122 layer_factory.hpp:77] Creating layer conv0_0_sTanH
I0407 23:13:57.408144 29122 net.cpp:100] Creating Layer conv0_0_sTanH
I0407 23:13:57.408150 29122 net.cpp:434] conv0_0_sTanH <- conv0_0
I0407 23:13:57.408155 29122 net.cpp:395] conv0_0_sTanH -> conv0_0 (in-place)
I0407 23:13:57.408339 29122 net.cpp:150] Setting up conv0_0_sTanH
I0407 23:13:57.408351 29122 net.cpp:157] Top shape: 64 100 42 42 (11289600)
I0407 23:13:57.408354 29122 net.cpp:165] Memory required for data: 146092288
I0407 23:13:57.408357 29122 layer_factory.hpp:77] Creating layer conv0_0_postscale
I0407 23:13:57.408370 29122 net.cpp:100] Creating Layer conv0_0_postscale
I0407 23:13:57.408373 29122 net.cpp:434] conv0_0_postscale <- conv0_0
I0407 23:13:57.408378 29122 net.cpp:395] conv0_0_postscale -> conv0_0 (in-place)
I0407 23:13:57.408470 29122 net.cpp:150] Setting up conv0_0_postscale
I0407 23:13:57.408479 29122 net.cpp:157] Top shape: 64 100 42 42 (11289600)
I0407 23:13:57.408483 29122 net.cpp:165] Memory required for data: 191250688
I0407 23:13:57.408486 29122 layer_factory.hpp:77] Creating layer pool0_0
I0407 23:13:57.408493 29122 net.cpp:100] Creating Layer pool0_0
I0407 23:13:57.408496 29122 net.cpp:434] pool0_0 <- conv0_0
I0407 23:13:57.408501 29122 net.cpp:408] pool0_0 -> pool0_0
I0407 23:13:57.408572 29122 net.cpp:150] Setting up pool0_0
I0407 23:13:57.408584 29122 net.cpp:157] Top shape: 64 100 21 21 (2822400)
I0407 23:13:57.408588 29122 net.cpp:165] Memory required for data: 202540288
I0407 23:13:57.408591 29122 layer_factory.hpp:77] Creating layer conv0_1
I0407 23:13:57.408601 29122 net.cpp:100] Creating Layer conv0_1
I0407 23:13:57.408607 29122 net.cpp:434] conv0_1 <- pool0_0
I0407 23:13:57.408612 29122 net.cpp:408] conv0_1 -> conv0_1
I0407 23:13:57.413889 29122 net.cpp:150] Setting up conv0_1
I0407 23:13:57.413907 29122 net.cpp:157] Top shape: 64 150 18 18 (3110400)
I0407 23:13:57.413910 29122 net.cpp:165] Memory required for data: 214981888
I0407 23:13:57.413920 29122 layer_factory.hpp:77] Creating layer conv0_1_prescale
I0407 23:13:57.413933 29122 net.cpp:100] Creating Layer conv0_1_prescale
I0407 23:13:57.413938 29122 net.cpp:434] conv0_1_prescale <- conv0_1
I0407 23:13:57.413944 29122 net.cpp:395] conv0_1_prescale -> conv0_1 (in-place)
I0407 23:13:57.414047 29122 net.cpp:150] Setting up conv0_1_prescale
I0407 23:13:57.414055 29122 net.cpp:157] Top shape: 64 150 18 18 (3110400)
I0407 23:13:57.414058 29122 net.cpp:165] Memory required for data: 227423488
I0407 23:13:57.414063 29122 layer_factory.hpp:77] Creating layer conv0_1_sTanH
I0407 23:13:57.414068 29122 net.cpp:100] Creating Layer conv0_1_sTanH
I0407 23:13:57.414072 29122 net.cpp:434] conv0_1_sTanH <- conv0_1
I0407 23:13:57.414077 29122 net.cpp:395] conv0_1_sTanH -> conv0_1 (in-place)
I0407 23:13:57.414842 29122 net.cpp:150] Setting up conv0_1_sTanH
I0407 23:13:57.414875 29122 net.cpp:157] Top shape: 64 150 18 18 (3110400)
I0407 23:13:57.414880 29122 net.cpp:165] Memory required for data: 239865088
I0407 23:13:57.414885 29122 layer_factory.hpp:77] Creating layer conv0_1_postscale
I0407 23:13:57.414892 29122 net.cpp:100] Creating Layer conv0_1_postscale
I0407 23:13:57.414897 29122 net.cpp:434] conv0_1_postscale <- conv0_1
I0407 23:13:57.414903 29122 net.cpp:395] conv0_1_postscale -> conv0_1 (in-place)
I0407 23:13:57.415026 29122 net.cpp:150] Setting up conv0_1_postscale
I0407 23:13:57.415038 29122 net.cpp:157] Top shape: 64 150 18 18 (3110400)
I0407 23:13:57.415043 29122 net.cpp:165] Memory required for data: 252306688
I0407 23:13:57.415050 29122 layer_factory.hpp:77] Creating layer pool0_1
I0407 23:13:57.415056 29122 net.cpp:100] Creating Layer pool0_1
I0407 23:13:57.415061 29122 net.cpp:434] pool0_1 <- conv0_1
I0407 23:13:57.415066 29122 net.cpp:408] pool0_1 -> pool0_1
I0407 23:13:57.415105 29122 net.cpp:150] Setting up pool0_1
I0407 23:13:57.415113 29122 net.cpp:157] Top shape: 64 150 9 9 (777600)
I0407 23:13:57.415117 29122 net.cpp:165] Memory required for data: 255417088
I0407 23:13:57.415119 29122 layer_factory.hpp:77] Creating layer conv0_2
I0407 23:13:57.415127 29122 net.cpp:100] Creating Layer conv0_2
I0407 23:13:57.415132 29122 net.cpp:434] conv0_2 <- pool0_1
I0407 23:13:57.415138 29122 net.cpp:408] conv0_2 -> conv0_2
I0407 23:13:57.420578 29122 net.cpp:150] Setting up conv0_2
I0407 23:13:57.420594 29122 net.cpp:157] Top shape: 64 250 6 6 (576000)
I0407 23:13:57.420598 29122 net.cpp:165] Memory required for data: 257721088
I0407 23:13:57.420608 29122 layer_factory.hpp:77] Creating layer conv0_2_prescale
I0407 23:13:57.420615 29122 net.cpp:100] Creating Layer conv0_2_prescale
I0407 23:13:57.420619 29122 net.cpp:434] conv0_2_prescale <- conv0_2
I0407 23:13:57.420624 29122 net.cpp:395] conv0_2_prescale -> conv0_2 (in-place)
I0407 23:13:57.420725 29122 net.cpp:150] Setting up conv0_2_prescale
I0407 23:13:57.420734 29122 net.cpp:157] Top shape: 64 250 6 6 (576000)
I0407 23:13:57.420737 29122 net.cpp:165] Memory required for data: 260025088
I0407 23:13:57.420742 29122 layer_factory.hpp:77] Creating layer conv0_2_sTanH
I0407 23:13:57.420747 29122 net.cpp:100] Creating Layer conv0_2_sTanH
I0407 23:13:57.420750 29122 net.cpp:434] conv0_2_sTanH <- conv0_2
I0407 23:13:57.420754 29122 net.cpp:395] conv0_2_sTanH -> conv0_2 (in-place)
I0407 23:13:57.421545 29122 net.cpp:150] Setting up conv0_2_sTanH
I0407 23:13:57.421560 29122 net.cpp:157] Top shape: 64 250 6 6 (576000)
I0407 23:13:57.421562 29122 net.cpp:165] Memory required for data: 262329088
I0407 23:13:57.421566 29122 layer_factory.hpp:77] Creating layer conv0_2_postscale
I0407 23:13:57.421573 29122 net.cpp:100] Creating Layer conv0_2_postscale
I0407 23:13:57.421576 29122 net.cpp:434] conv0_2_postscale <- conv0_2
I0407 23:13:57.421582 29122 net.cpp:395] conv0_2_postscale -> conv0_2 (in-place)
I0407 23:13:57.421692 29122 net.cpp:150] Setting up conv0_2_postscale
I0407 23:13:57.421700 29122 net.cpp:157] Top shape: 64 250 6 6 (576000)
I0407 23:13:57.421703 29122 net.cpp:165] Memory required for data: 264633088
I0407 23:13:57.421708 29122 layer_factory.hpp:77] Creating layer pool0_2
I0407 23:13:57.421717 29122 net.cpp:100] Creating Layer pool0_2
I0407 23:13:57.421722 29122 net.cpp:434] pool0_2 <- conv0_2
I0407 23:13:57.421727 29122 net.cpp:408] pool0_2 -> pool0_2
I0407 23:13:57.421764 29122 net.cpp:150] Setting up pool0_2
I0407 23:13:57.421772 29122 net.cpp:157] Top shape: 64 250 3 3 (144000)
I0407 23:13:57.421774 29122 net.cpp:165] Memory required for data: 265209088
I0407 23:13:57.421777 29122 layer_factory.hpp:77] Creating layer fc0_4_300
I0407 23:13:57.421784 29122 net.cpp:100] Creating Layer fc0_4_300
I0407 23:13:57.421787 29122 net.cpp:434] fc0_4_300 <- pool0_2
I0407 23:13:57.421792 29122 net.cpp:408] fc0_4_300 -> fc0_4
I0407 23:13:57.427050 29122 net.cpp:150] Setting up fc0_4_300
I0407 23:13:57.427067 29122 net.cpp:157] Top shape: 64 300 (19200)
I0407 23:13:57.427081 29122 net.cpp:165] Memory required for data: 265285888
I0407 23:13:57.427101 29122 layer_factory.hpp:77] Creating layer fc0_4_prescale
I0407 23:13:57.427109 29122 net.cpp:100] Creating Layer fc0_4_prescale
I0407 23:13:57.427112 29122 net.cpp:434] fc0_4_prescale <- fc0_4
I0407 23:13:57.427119 29122 net.cpp:395] fc0_4_prescale -> fc0_4 (in-place)
I0407 23:13:57.427209 29122 net.cpp:150] Setting up fc0_4_prescale
I0407 23:13:57.427217 29122 net.cpp:157] Top shape: 64 300 (19200)
I0407 23:13:57.427220 29122 net.cpp:165] Memory required for data: 265362688
I0407 23:13:57.427225 29122 layer_factory.hpp:77] Creating layer fc0_4_sTanH
I0407 23:13:57.427230 29122 net.cpp:100] Creating Layer fc0_4_sTanH
I0407 23:13:57.427233 29122 net.cpp:434] fc0_4_sTanH <- fc0_4
I0407 23:13:57.427238 29122 net.cpp:395] fc0_4_sTanH -> fc0_4 (in-place)
I0407 23:13:57.427417 29122 net.cpp:150] Setting up fc0_4_sTanH
I0407 23:13:57.427428 29122 net.cpp:157] Top shape: 64 300 (19200)
I0407 23:13:57.427430 29122 net.cpp:165] Memory required for data: 265439488
I0407 23:13:57.427433 29122 layer_factory.hpp:77] Creating layer fc0_4_postscale
I0407 23:13:57.427440 29122 net.cpp:100] Creating Layer fc0_4_postscale
I0407 23:13:57.427443 29122 net.cpp:434] fc0_4_postscale <- fc0_4
I0407 23:13:57.427448 29122 net.cpp:395] fc0_4_postscale -> fc0_4 (in-place)
I0407 23:13:57.427536 29122 net.cpp:150] Setting up fc0_4_postscale
I0407 23:13:57.427544 29122 net.cpp:157] Top shape: 64 300 (19200)
I0407 23:13:57.427547 29122 net.cpp:165] Memory required for data: 265516288
I0407 23:13:57.427551 29122 layer_factory.hpp:77] Creating layer drop0_4
I0407 23:13:57.427557 29122 net.cpp:100] Creating Layer drop0_4
I0407 23:13:57.427561 29122 net.cpp:434] drop0_4 <- fc0_4
I0407 23:13:57.427566 29122 net.cpp:395] drop0_4 -> fc0_4 (in-place)
I0407 23:13:57.427589 29122 net.cpp:150] Setting up drop0_4
I0407 23:13:57.427597 29122 net.cpp:157] Top shape: 64 300 (19200)
I0407 23:13:57.427599 29122 net.cpp:165] Memory required for data: 265593088
I0407 23:13:57.427603 29122 layer_factory.hpp:77] Creating layer fc0_5_67
I0407 23:13:57.427614 29122 net.cpp:100] Creating Layer fc0_5_67
I0407 23:13:57.427619 29122 net.cpp:434] fc0_5_67 <- fc0_4
I0407 23:13:57.427626 29122 net.cpp:408] fc0_5_67 -> fc0_5
I0407 23:13:57.428828 29122 net.cpp:150] Setting up fc0_5_67
I0407 23:13:57.428843 29122 net.cpp:157] Top shape: 64 67 (4288)
I0407 23:13:57.428858 29122 net.cpp:165] Memory required for data: 265610240
I0407 23:13:57.428869 29122 layer_factory.hpp:77] Creating layer softmax_0
I0407 23:13:57.428875 29122 net.cpp:100] Creating Layer softmax_0
I0407 23:13:57.428879 29122 net.cpp:434] softmax_0 <- fc0_5
I0407 23:13:57.428884 29122 net.cpp:408] softmax_0 -> softmax_0
I0407 23:13:57.429129 29122 net.cpp:150] Setting up softmax_0
I0407 23:13:57.429141 29122 net.cpp:157] Top shape: 64 67 (4288)
I0407 23:13:57.429143 29122 net.cpp:165] Memory required for data: 265627392
I0407 23:13:57.429147 29122 layer_factory.hpp:77] Creating layer conv1_0
I0407 23:13:57.429157 29122 net.cpp:100] Creating Layer conv1_0
I0407 23:13:57.429162 29122 net.cpp:434] conv1_0 <- data_0_data_0_0_split_1
I0407 23:13:57.429167 29122 net.cpp:408] conv1_0 -> conv1_0
I0407 23:13:57.430629 29122 net.cpp:150] Setting up conv1_0
I0407 23:13:57.430658 29122 net.cpp:157] Top shape: 64 100 42 42 (11289600)
I0407 23:13:57.430662 29122 net.cpp:165] Memory required for data: 310785792
I0407 23:13:57.430670 29122 layer_factory.hpp:77] Creating layer conv1_0_prescale
I0407 23:13:57.430677 29122 net.cpp:100] Creating Layer conv1_0_prescale
I0407 23:13:57.430682 29122 net.cpp:434] conv1_0_prescale <- conv1_0
I0407 23:13:57.430687 29122 net.cpp:395] conv1_0_prescale -> conv1_0 (in-place)
I0407 23:13:57.430806 29122 net.cpp:150] Setting up conv1_0_prescale
I0407 23:13:57.430819 29122 net.cpp:157] Top shape: 64 100 42 42 (11289600)
I0407 23:13:57.430821 29122 net.cpp:165] Memory required for data: 355944192
I0407 23:13:57.430827 29122 layer_factory.hpp:77] Creating layer conv1_0_sTanH
I0407 23:13:57.430832 29122 net.cpp:100] Creating Layer conv1_0_sTanH
I0407 23:13:57.430850 29122 net.cpp:434] conv1_0_sTanH <- conv1_0
I0407 23:13:57.430856 29122 net.cpp:395] conv1_0_sTanH -> conv1_0 (in-place)
I0407 23:13:57.431035 29122 net.cpp:150] Setting up conv1_0_sTanH
I0407 23:13:57.431044 29122 net.cpp:157] Top shape: 64 100 42 42 (11289600)
I0407 23:13:57.431047 29122 net.cpp:165] Memory required for data: 401102592
I0407 23:13:57.431051 29122 layer_factory.hpp:77] Creating layer conv1_0_postscale
I0407 23:13:57.431058 29122 net.cpp:100] Creating Layer conv1_0_postscale
I0407 23:13:57.431064 29122 net.cpp:434] conv1_0_postscale <- conv1_0
I0407 23:13:57.431069 29122 net.cpp:395] conv1_0_postscale -> conv1_0 (in-place)
I0407 23:13:57.431165 29122 net.cpp:150] Setting up conv1_0_postscale
I0407 23:13:57.431174 29122 net.cpp:157] Top shape: 64 100 42 42 (11289600)
I0407 23:13:57.431176 29122 net.cpp:165] Memory required for data: 446260992
I0407 23:13:57.431181 29122 layer_factory.hpp:77] Creating layer pool1_0
I0407 23:13:57.431187 29122 net.cpp:100] Creating Layer pool1_0
I0407 23:13:57.431190 29122 net.cpp:434] pool1_0 <- conv1_0
I0407 23:13:57.431195 29122 net.cpp:408] pool1_0 -> pool1_0
I0407 23:13:57.431233 29122 net.cpp:150] Setting up pool1_0
I0407 23:13:57.431241 29122 net.cpp:157] Top shape: 64 100 21 21 (2822400)
I0407 23:13:57.431244 29122 net.cpp:165] Memory required for data: 457550592
I0407 23:13:57.431247 29122 layer_factory.hpp:77] Creating layer conv1_1
I0407 23:13:57.431255 29122 net.cpp:100] Creating Layer conv1_1
I0407 23:13:57.431259 29122 net.cpp:434] conv1_1 <- pool1_0
I0407 23:13:57.431265 29122 net.cpp:408] conv1_1 -> conv1_1
I0407 23:13:57.434108 29122 net.cpp:150] Setting up conv1_1
I0407 23:13:57.434123 29122 net.cpp:157] Top shape: 64 150 18 18 (3110400)
I0407 23:13:57.434139 29122 net.cpp:165] Memory required for data: 469992192
I0407 23:13:57.434146 29122 layer_factory.hpp:77] Creating layer conv1_1_prescale
I0407 23:13:57.434154 29122 net.cpp:100] Creating Layer conv1_1_prescale
I0407 23:13:57.434159 29122 net.cpp:434] conv1_1_prescale <- conv1_1
I0407 23:13:57.434164 29122 net.cpp:395] conv1_1_prescale -> conv1_1 (in-place)
I0407 23:13:57.434258 29122 net.cpp:150] Setting up conv1_1_prescale
I0407 23:13:57.434267 29122 net.cpp:157] Top shape: 64 150 18 18 (3110400)
I0407 23:13:57.434270 29122 net.cpp:165] Memory required for data: 482433792
I0407 23:13:57.434275 29122 layer_factory.hpp:77] Creating layer conv1_1_sTanH
I0407 23:13:57.434280 29122 net.cpp:100] Creating Layer conv1_1_sTanH
I0407 23:13:57.434283 29122 net.cpp:434] conv1_1_sTanH <- conv1_1
I0407 23:13:57.434288 29122 net.cpp:395] conv1_1_sTanH -> conv1_1 (in-place)
I0407 23:13:57.435089 29122 net.cpp:150] Setting up conv1_1_sTanH
I0407 23:13:57.435104 29122 net.cpp:157] Top shape: 64 150 18 18 (3110400)
I0407 23:13:57.435120 29122 net.cpp:165] Memory required for data: 494875392
I0407 23:13:57.435124 29122 layer_factory.hpp:77] Creating layer conv1_1_postscale
I0407 23:13:57.435135 29122 net.cpp:100] Creating Layer conv1_1_postscale
I0407 23:13:57.435140 29122 net.cpp:434] conv1_1_postscale <- conv1_1
I0407 23:13:57.435147 29122 net.cpp:395] conv1_1_postscale -> conv1_1 (in-place)
I0407 23:13:57.435250 29122 net.cpp:150] Setting up conv1_1_postscale
I0407 23:13:57.435258 29122 net.cpp:157] Top shape: 64 150 18 18 (3110400)
I0407 23:13:57.435261 29122 net.cpp:165] Memory required for data: 507316992
I0407 23:13:57.435266 29122 layer_factory.hpp:77] Creating layer pool1_1
I0407 23:13:57.435272 29122 net.cpp:100] Creating Layer pool1_1
I0407 23:13:57.435276 29122 net.cpp:434] pool1_1 <- conv1_1
I0407 23:13:57.435281 29122 net.cpp:408] pool1_1 -> pool1_1
I0407 23:13:57.435322 29122 net.cpp:150] Setting up pool1_1
I0407 23:13:57.435328 29122 net.cpp:157] Top shape: 64 150 9 9 (777600)
I0407 23:13:57.435331 29122 net.cpp:165] Memory required for data: 510427392
I0407 23:13:57.435335 29122 layer_factory.hpp:77] Creating layer conv1_2
I0407 23:13:57.435343 29122 net.cpp:100] Creating Layer conv1_2
I0407 23:13:57.435348 29122 net.cpp:434] conv1_2 <- pool1_1
I0407 23:13:57.435353 29122 net.cpp:408] conv1_2 -> conv1_2
I0407 23:13:57.440796 29122 net.cpp:150] Setting up conv1_2
I0407 23:13:57.440814 29122 net.cpp:157] Top shape: 64 250 6 6 (576000)
I0407 23:13:57.440816 29122 net.cpp:165] Memory required for data: 512731392
I0407 23:13:57.440824 29122 layer_factory.hpp:77] Creating layer conv1_2_prescale
I0407 23:13:57.440830 29122 net.cpp:100] Creating Layer conv1_2_prescale
I0407 23:13:57.440834 29122 net.cpp:434] conv1_2_prescale <- conv1_2
I0407 23:13:57.440840 29122 net.cpp:395] conv1_2_prescale -> conv1_2 (in-place)
I0407 23:13:57.440943 29122 net.cpp:150] Setting up conv1_2_prescale
I0407 23:13:57.440951 29122 net.cpp:157] Top shape: 64 250 6 6 (576000)
I0407 23:13:57.440954 29122 net.cpp:165] Memory required for data: 515035392
I0407 23:13:57.440958 29122 layer_factory.hpp:77] Creating layer conv1_2_sTanH
I0407 23:13:57.440964 29122 net.cpp:100] Creating Layer conv1_2_sTanH
I0407 23:13:57.440968 29122 net.cpp:434] conv1_2_sTanH <- conv1_2
I0407 23:13:57.440971 29122 net.cpp:395] conv1_2_sTanH -> conv1_2 (in-place)
I0407 23:13:57.441776 29122 net.cpp:150] Setting up conv1_2_sTanH
I0407 23:13:57.441790 29122 net.cpp:157] Top shape: 64 250 6 6 (576000)
I0407 23:13:57.441807 29122 net.cpp:165] Memory required for data: 517339392
I0407 23:13:57.441809 29122 layer_factory.hpp:77] Creating layer conv1_2_postscale
I0407 23:13:57.441828 29122 net.cpp:100] Creating Layer conv1_2_postscale
I0407 23:13:57.441843 29122 net.cpp:434] conv1_2_postscale <- conv1_2
I0407 23:13:57.441851 29122 net.cpp:395] conv1_2_postscale -> conv1_2 (in-place)
I0407 23:13:57.441951 29122 net.cpp:150] Setting up conv1_2_postscale
I0407 23:13:57.441958 29122 net.cpp:157] Top shape: 64 250 6 6 (576000)
I0407 23:13:57.441962 29122 net.cpp:165] Memory required for data: 519643392
I0407 23:13:57.441967 29122 layer_factory.hpp:77] Creating layer pool1_2
I0407 23:13:57.441972 29122 net.cpp:100] Creating Layer pool1_2
I0407 23:13:57.441977 29122 net.cpp:434] pool1_2 <- conv1_2
I0407 23:13:57.441982 29122 net.cpp:408] pool1_2 -> pool1_2
I0407 23:13:57.442019 29122 net.cpp:150] Setting up pool1_2
I0407 23:13:57.442026 29122 net.cpp:157] Top shape: 64 250 3 3 (144000)
I0407 23:13:57.442029 29122 net.cpp:165] Memory required for data: 520219392
I0407 23:13:57.442032 29122 layer_factory.hpp:77] Creating layer fc1_4_300
I0407 23:13:57.442039 29122 net.cpp:100] Creating Layer fc1_4_300
I0407 23:13:57.442041 29122 net.cpp:434] fc1_4_300 <- pool1_2
I0407 23:13:57.442046 29122 net.cpp:408] fc1_4_300 -> fc1_4
I0407 23:13:57.447326 29122 net.cpp:150] Setting up fc1_4_300
I0407 23:13:57.447342 29122 net.cpp:157] Top shape: 64 300 (19200)
I0407 23:13:57.447345 29122 net.cpp:165] Memory required for data: 520296192
I0407 23:13:57.447352 29122 layer_factory.hpp:77] Creating layer fc1_4_prescale
I0407 23:13:57.447358 29122 net.cpp:100] Creating Layer fc1_4_prescale
I0407 23:13:57.447362 29122 net.cpp:434] fc1_4_prescale <- fc1_4
I0407 23:13:57.447367 29122 net.cpp:395] fc1_4_prescale -> fc1_4 (in-place)
I0407 23:13:57.447470 29122 net.cpp:150] Setting up fc1_4_prescale
I0407 23:13:57.447479 29122 net.cpp:157] Top shape: 64 300 (19200)
I0407 23:13:57.447481 29122 net.cpp:165] Memory required for data: 520372992
I0407 23:13:57.447489 29122 layer_factory.hpp:77] Creating layer fc1_4_sTanH
I0407 23:13:57.447496 29122 net.cpp:100] Creating Layer fc1_4_sTanH
I0407 23:13:57.447500 29122 net.cpp:434] fc1_4_sTanH <- fc1_4
I0407 23:13:57.447504 29122 net.cpp:395] fc1_4_sTanH -> fc1_4 (in-place)
I0407 23:13:57.447697 29122 net.cpp:150] Setting up fc1_4_sTanH
I0407 23:13:57.447708 29122 net.cpp:157] Top shape: 64 300 (19200)
I0407 23:13:57.447711 29122 net.cpp:165] Memory required for data: 520449792
I0407 23:13:57.447715 29122 layer_factory.hpp:77] Creating layer fc1_4_postscale
I0407 23:13:57.447722 29122 net.cpp:100] Creating Layer fc1_4_postscale
I0407 23:13:57.447727 29122 net.cpp:434] fc1_4_postscale <- fc1_4
I0407 23:13:57.447732 29122 net.cpp:395] fc1_4_postscale -> fc1_4 (in-place)
I0407 23:13:57.447831 29122 net.cpp:150] Setting up fc1_4_postscale
I0407 23:13:57.447852 29122 net.cpp:157] Top shape: 64 300 (19200)
I0407 23:13:57.447855 29122 net.cpp:165] Memory required for data: 520526592
I0407 23:13:57.447860 29122 layer_factory.hpp:77] Creating layer drop1_4
I0407 23:13:57.447868 29122 net.cpp:100] Creating Layer drop1_4
I0407 23:13:57.447873 29122 net.cpp:434] drop1_4 <- fc1_4
I0407 23:13:57.447883 29122 net.cpp:395] drop1_4 -> fc1_4 (in-place)
I0407 23:13:57.447911 29122 net.cpp:150] Setting up drop1_4
I0407 23:13:57.447918 29122 net.cpp:157] Top shape: 64 300 (19200)
I0407 23:13:57.447921 29122 net.cpp:165] Memory required for data: 520603392
I0407 23:13:57.447923 29122 layer_factory.hpp:77] Creating layer fc1_5_67
I0407 23:13:57.447929 29122 net.cpp:100] Creating Layer fc1_5_67
I0407 23:13:57.447932 29122 net.cpp:434] fc1_5_67 <- fc1_4
I0407 23:13:57.447938 29122 net.cpp:408] fc1_5_67 -> fc1_5
I0407 23:13:57.448201 29122 net.cpp:150] Setting up fc1_5_67
I0407 23:13:57.448215 29122 net.cpp:157] Top shape: 64 67 (4288)
I0407 23:13:57.448217 29122 net.cpp:165] Memory required for data: 520620544
I0407 23:13:57.448225 29122 layer_factory.hpp:77] Creating layer softmax_1
I0407 23:13:57.448230 29122 net.cpp:100] Creating Layer softmax_1
I0407 23:13:57.448233 29122 net.cpp:434] softmax_1 <- fc1_5
I0407 23:13:57.448240 29122 net.cpp:408] softmax_1 -> softmax_1
I0407 23:13:57.448495 29122 net.cpp:150] Setting up softmax_1
I0407 23:13:57.448508 29122 net.cpp:157] Top shape: 64 67 (4288)
I0407 23:13:57.448510 29122 net.cpp:165] Memory required for data: 520637696
I0407 23:13:57.448513 29122 layer_factory.hpp:77] Creating layer conv2_0
I0407 23:13:57.448523 29122 net.cpp:100] Creating Layer conv2_0
I0407 23:13:57.448526 29122 net.cpp:434] conv2_0 <- data_0_data_0_0_split_2
I0407 23:13:57.448532 29122 net.cpp:408] conv2_0 -> conv2_0
I0407 23:13:57.450129 29122 net.cpp:150] Setting up conv2_0
I0407 23:13:57.450145 29122 net.cpp:157] Top shape: 64 100 42 42 (11289600)
I0407 23:13:57.450148 29122 net.cpp:165] Memory required for data: 565796096
I0407 23:13:57.450155 29122 layer_factory.hpp:77] Creating layer conv2_0_prescale
I0407 23:13:57.450163 29122 net.cpp:100] Creating Layer conv2_0_prescale
I0407 23:13:57.450170 29122 net.cpp:434] conv2_0_prescale <- conv2_0
I0407 23:13:57.450176 29122 net.cpp:395] conv2_0_prescale -> conv2_0 (in-place)
I0407 23:13:57.450281 29122 net.cpp:150] Setting up conv2_0_prescale
I0407 23:13:57.450289 29122 net.cpp:157] Top shape: 64 100 42 42 (11289600)
I0407 23:13:57.450292 29122 net.cpp:165] Memory required for data: 610954496
I0407 23:13:57.450297 29122 layer_factory.hpp:77] Creating layer conv2_0_sTanH
I0407 23:13:57.450304 29122 net.cpp:100] Creating Layer conv2_0_sTanH
I0407 23:13:57.450309 29122 net.cpp:434] conv2_0_sTanH <- conv2_0
I0407 23:13:57.450314 29122 net.cpp:395] conv2_0_sTanH -> conv2_0 (in-place)
I0407 23:13:57.450518 29122 net.cpp:150] Setting up conv2_0_sTanH
I0407 23:13:57.450531 29122 net.cpp:157] Top shape: 64 100 42 42 (11289600)
I0407 23:13:57.450536 29122 net.cpp:165] Memory required for data: 656112896
I0407 23:13:57.450539 29122 layer_factory.hpp:77] Creating layer conv2_0_postscale
I0407 23:13:57.450547 29122 net.cpp:100] Creating Layer conv2_0_postscale
I0407 23:13:57.450552 29122 net.cpp:434] conv2_0_postscale <- conv2_0
I0407 23:13:57.450559 29122 net.cpp:395] conv2_0_postscale -> conv2_0 (in-place)
I0407 23:13:57.450671 29122 net.cpp:150] Setting up conv2_0_postscale
I0407 23:13:57.450680 29122 net.cpp:157] Top shape: 64 100 42 42 (11289600)
I0407 23:13:57.450682 29122 net.cpp:165] Memory required for data: 701271296
I0407 23:13:57.450687 29122 layer_factory.hpp:77] Creating layer pool2_0
I0407 23:13:57.450693 29122 net.cpp:100] Creating Layer pool2_0
I0407 23:13:57.450696 29122 net.cpp:434] pool2_0 <- conv2_0
I0407 23:13:57.450702 29122 net.cpp:408] pool2_0 -> pool2_0
I0407 23:13:57.450747 29122 net.cpp:150] Setting up pool2_0
I0407 23:13:57.450755 29122 net.cpp:157] Top shape: 64 100 21 21 (2822400)
I0407 23:13:57.450759 29122 net.cpp:165] Memory required for data: 712560896
I0407 23:13:57.450762 29122 layer_factory.hpp:77] Creating layer conv2_1
I0407 23:13:57.450795 29122 net.cpp:100] Creating Layer conv2_1
I0407 23:13:57.450801 29122 net.cpp:434] conv2_1 <- pool2_0
I0407 23:13:57.450806 29122 net.cpp:408] conv2_1 -> conv2_1
I0407 23:13:57.454689 29122 net.cpp:150] Setting up conv2_1
I0407 23:13:57.454706 29122 net.cpp:157] Top shape: 64 150 18 18 (3110400)
I0407 23:13:57.454723 29122 net.cpp:165] Memory required for data: 725002496
I0407 23:13:57.454732 29122 layer_factory.hpp:77] Creating layer conv2_1_prescale
I0407 23:13:57.454742 29122 net.cpp:100] Creating Layer conv2_1_prescale
I0407 23:13:57.454747 29122 net.cpp:434] conv2_1_prescale <- conv2_1
I0407 23:13:57.454753 29122 net.cpp:395] conv2_1_prescale -> conv2_1 (in-place)
I0407 23:13:57.454854 29122 net.cpp:150] Setting up conv2_1_prescale
I0407 23:13:57.454865 29122 net.cpp:157] Top shape: 64 150 18 18 (3110400)
I0407 23:13:57.454869 29122 net.cpp:165] Memory required for data: 737444096
I0407 23:13:57.454874 29122 layer_factory.hpp:77] Creating layer conv2_1_sTanH
I0407 23:13:57.454879 29122 net.cpp:100] Creating Layer conv2_1_sTanH
I0407 23:13:57.454883 29122 net.cpp:434] conv2_1_sTanH <- conv2_1
I0407 23:13:57.454887 29122 net.cpp:395] conv2_1_sTanH -> conv2_1 (in-place)
I0407 23:13:57.455698 29122 net.cpp:150] Setting up conv2_1_sTanH
I0407 23:13:57.455731 29122 net.cpp:157] Top shape: 64 150 18 18 (3110400)
I0407 23:13:57.455739 29122 net.cpp:165] Memory required for data: 749885696
I0407 23:13:57.455744 29122 layer_factory.hpp:77] Creating layer conv2_1_postscale
I0407 23:13:57.455759 29122 net.cpp:100] Creating Layer conv2_1_postscale
I0407 23:13:57.455765 29122 net.cpp:434] conv2_1_postscale <- conv2_1
I0407 23:13:57.455773 29122 net.cpp:395] conv2_1_postscale -> conv2_1 (in-place)
I0407 23:13:57.455898 29122 net.cpp:150] Setting up conv2_1_postscale
I0407 23:13:57.455909 29122 net.cpp:157] Top shape: 64 150 18 18 (3110400)
I0407 23:13:57.455911 29122 net.cpp:165] Memory required for data: 762327296
I0407 23:13:57.455916 29122 layer_factory.hpp:77] Creating layer pool2_1
I0407 23:13:57.455922 29122 net.cpp:100] Creating Layer pool2_1
I0407 23:13:57.455926 29122 net.cpp:434] pool2_1 <- conv2_1
I0407 23:13:57.455932 29122 net.cpp:408] pool2_1 -> pool2_1
I0407 23:13:57.455979 29122 net.cpp:150] Setting up pool2_1
I0407 23:13:57.455993 29122 net.cpp:157] Top shape: 64 150 9 9 (777600)
I0407 23:13:57.456001 29122 net.cpp:165] Memory required for data: 765437696
I0407 23:13:57.456007 29122 layer_factory.hpp:77] Creating layer conv2_2
I0407 23:13:57.456019 29122 net.cpp:100] Creating Layer conv2_2
I0407 23:13:57.456025 29122 net.cpp:434] conv2_2 <- pool2_1
I0407 23:13:57.456033 29122 net.cpp:408] conv2_2 -> conv2_2
I0407 23:13:57.462131 29122 net.cpp:150] Setting up conv2_2
I0407 23:13:57.462149 29122 net.cpp:157] Top shape: 64 250 6 6 (576000)
I0407 23:13:57.462153 29122 net.cpp:165] Memory required for data: 767741696
I0407 23:13:57.462159 29122 layer_factory.hpp:77] Creating layer conv2_2_prescale
I0407 23:13:57.462167 29122 net.cpp:100] Creating Layer conv2_2_prescale
I0407 23:13:57.462170 29122 net.cpp:434] conv2_2_prescale <- conv2_2
I0407 23:13:57.462177 29122 net.cpp:395] conv2_2_prescale -> conv2_2 (in-place)
I0407 23:13:57.462287 29122 net.cpp:150] Setting up conv2_2_prescale
I0407 23:13:57.462296 29122 net.cpp:157] Top shape: 64 250 6 6 (576000)
I0407 23:13:57.462299 29122 net.cpp:165] Memory required for data: 770045696
I0407 23:13:57.462304 29122 layer_factory.hpp:77] Creating layer conv2_2_sTanH
I0407 23:13:57.462309 29122 net.cpp:100] Creating Layer conv2_2_sTanH
I0407 23:13:57.462313 29122 net.cpp:434] conv2_2_sTanH <- conv2_2
I0407 23:13:57.462319 29122 net.cpp:395] conv2_2_sTanH -> conv2_2 (in-place)
I0407 23:13:57.463152 29122 net.cpp:150] Setting up conv2_2_sTanH
I0407 23:13:57.463184 29122 net.cpp:157] Top shape: 64 250 6 6 (576000)
I0407 23:13:57.463191 29122 net.cpp:165] Memory required for data: 772349696
I0407 23:13:57.463196 29122 layer_factory.hpp:77] Creating layer conv2_2_postscale
I0407 23:13:57.463210 29122 net.cpp:100] Creating Layer conv2_2_postscale
I0407 23:13:57.463229 29122 net.cpp:434] conv2_2_postscale <- conv2_2
I0407 23:13:57.463237 29122 net.cpp:395] conv2_2_postscale -> conv2_2 (in-place)
I0407 23:13:57.463346 29122 net.cpp:150] Setting up conv2_2_postscale
I0407 23:13:57.463356 29122 net.cpp:157] Top shape: 64 250 6 6 (576000)
I0407 23:13:57.463358 29122 net.cpp:165] Memory required for data: 774653696
I0407 23:13:57.463363 29122 layer_factory.hpp:77] Creating layer pool2_2
I0407 23:13:57.463371 29122 net.cpp:100] Creating Layer pool2_2
I0407 23:13:57.463376 29122 net.cpp:434] pool2_2 <- conv2_2
I0407 23:13:57.463380 29122 net.cpp:408] pool2_2 -> pool2_2
I0407 23:13:57.463431 29122 net.cpp:150] Setting up pool2_2
I0407 23:13:57.463445 29122 net.cpp:157] Top shape: 64 250 3 3 (144000)
I0407 23:13:57.463451 29122 net.cpp:165] Memory required for data: 775229696
I0407 23:13:57.463455 29122 layer_factory.hpp:77] Creating layer fc2_4_300
I0407 23:13:57.463461 29122 net.cpp:100] Creating Layer fc2_4_300
I0407 23:13:57.463464 29122 net.cpp:434] fc2_4_300 <- pool2_2
I0407 23:13:57.463471 29122 net.cpp:408] fc2_4_300 -> fc2_4
I0407 23:13:57.468811 29122 net.cpp:150] Setting up fc2_4_300
I0407 23:13:57.468825 29122 net.cpp:157] Top shape: 64 300 (19200)
I0407 23:13:57.468829 29122 net.cpp:165] Memory required for data: 775306496
I0407 23:13:57.468835 29122 layer_factory.hpp:77] Creating layer fc2_4_prescale
I0407 23:13:57.468855 29122 net.cpp:100] Creating Layer fc2_4_prescale
I0407 23:13:57.468860 29122 net.cpp:434] fc2_4_prescale <- fc2_4
I0407 23:13:57.468868 29122 net.cpp:395] fc2_4_prescale -> fc2_4 (in-place)
I0407 23:13:57.468969 29122 net.cpp:150] Setting up fc2_4_prescale
I0407 23:13:57.468977 29122 net.cpp:157] Top shape: 64 300 (19200)
I0407 23:13:57.468981 29122 net.cpp:165] Memory required for data: 775383296
I0407 23:13:57.468984 29122 layer_factory.hpp:77] Creating layer fc2_4_sTanH
I0407 23:13:57.468991 29122 net.cpp:100] Creating Layer fc2_4_sTanH
I0407 23:13:57.468993 29122 net.cpp:434] fc2_4_sTanH <- fc2_4
I0407 23:13:57.468999 29122 net.cpp:395] fc2_4_sTanH -> fc2_4 (in-place)
I0407 23:13:57.469193 29122 net.cpp:150] Setting up fc2_4_sTanH
I0407 23:13:57.469203 29122 net.cpp:157] Top shape: 64 300 (19200)
I0407 23:13:57.469207 29122 net.cpp:165] Memory required for data: 775460096
I0407 23:13:57.469209 29122 layer_factory.hpp:77] Creating layer fc2_4_postscale
I0407 23:13:57.469226 29122 net.cpp:100] Creating Layer fc2_4_postscale
I0407 23:13:57.469233 29122 net.cpp:434] fc2_4_postscale <- fc2_4
I0407 23:13:57.469238 29122 net.cpp:395] fc2_4_postscale -> fc2_4 (in-place)
I0407 23:13:57.469346 29122 net.cpp:150] Setting up fc2_4_postscale
I0407 23:13:57.469357 29122 net.cpp:157] Top shape: 64 300 (19200)
I0407 23:13:57.469364 29122 net.cpp:165] Memory required for data: 775536896
I0407 23:13:57.469373 29122 layer_factory.hpp:77] Creating layer drop2_4
I0407 23:13:57.469385 29122 net.cpp:100] Creating Layer drop2_4
I0407 23:13:57.469391 29122 net.cpp:434] drop2_4 <- fc2_4
I0407 23:13:57.469398 29122 net.cpp:395] drop2_4 -> fc2_4 (in-place)
I0407 23:13:57.469429 29122 net.cpp:150] Setting up drop2_4
I0407 23:13:57.469437 29122 net.cpp:157] Top shape: 64 300 (19200)
I0407 23:13:57.469440 29122 net.cpp:165] Memory required for data: 775613696
I0407 23:13:57.469444 29122 layer_factory.hpp:77] Creating layer fc2_5_67
I0407 23:13:57.469449 29122 net.cpp:100] Creating Layer fc2_5_67
I0407 23:13:57.469452 29122 net.cpp:434] fc2_5_67 <- fc2_4
I0407 23:13:57.469457 29122 net.cpp:408] fc2_5_67 -> fc2_5
I0407 23:13:57.469703 29122 net.cpp:150] Setting up fc2_5_67
I0407 23:13:57.469712 29122 net.cpp:157] Top shape: 64 67 (4288)
I0407 23:13:57.469715 29122 net.cpp:165] Memory required for data: 775630848
I0407 23:13:57.469722 29122 layer_factory.hpp:77] Creating layer softmax_2
I0407 23:13:57.469727 29122 net.cpp:100] Creating Layer softmax_2
I0407 23:13:57.469732 29122 net.cpp:434] softmax_2 <- fc2_5
I0407 23:13:57.469736 29122 net.cpp:408] softmax_2 -> softmax_2
I0407 23:13:57.469992 29122 net.cpp:150] Setting up softmax_2
I0407 23:13:57.470016 29122 net.cpp:157] Top shape: 64 67 (4288)
I0407 23:13:57.470019 29122 net.cpp:165] Memory required for data: 775648000
I0407 23:13:57.470022 29122 layer_factory.hpp:77] Creating layer conv3_0
I0407 23:13:57.470033 29122 net.cpp:100] Creating Layer conv3_0
I0407 23:13:57.470038 29122 net.cpp:434] conv3_0 <- data_0_data_0_0_split_3
I0407 23:13:57.470046 29122 net.cpp:408] conv3_0 -> conv3_0
I0407 23:13:57.471621 29122 net.cpp:150] Setting up conv3_0
I0407 23:13:57.471639 29122 net.cpp:157] Top shape: 64 100 42 42 (11289600)
I0407 23:13:57.471644 29122 net.cpp:165] Memory required for data: 820806400
I0407 23:13:57.471652 29122 layer_factory.hpp:77] Creating layer conv3_0_prescale
I0407 23:13:57.471659 29122 net.cpp:100] Creating Layer conv3_0_prescale
I0407 23:13:57.471664 29122 net.cpp:434] conv3_0_prescale <- conv3_0
I0407 23:13:57.471671 29122 net.cpp:395] conv3_0_prescale -> conv3_0 (in-place)
I0407 23:13:57.471781 29122 net.cpp:150] Setting up conv3_0_prescale
I0407 23:13:57.471788 29122 net.cpp:157] Top shape: 64 100 42 42 (11289600)
I0407 23:13:57.471791 29122 net.cpp:165] Memory required for data: 865964800
I0407 23:13:57.471796 29122 layer_factory.hpp:77] Creating layer conv3_0_sTanH
I0407 23:13:57.471801 29122 net.cpp:100] Creating Layer conv3_0_sTanH
I0407 23:13:57.471804 29122 net.cpp:434] conv3_0_sTanH <- conv3_0
I0407 23:13:57.471809 29122 net.cpp:395] conv3_0_sTanH -> conv3_0 (in-place)
I0407 23:13:57.472024 29122 net.cpp:150] Setting up conv3_0_sTanH
I0407 23:13:57.472038 29122 net.cpp:157] Top shape: 64 100 42 42 (11289600)
I0407 23:13:57.472041 29122 net.cpp:165] Memory required for data: 911123200
I0407 23:13:57.472044 29122 layer_factory.hpp:77] Creating layer conv3_0_postscale
I0407 23:13:57.472054 29122 net.cpp:100] Creating Layer conv3_0_postscale
I0407 23:13:57.472059 29122 net.cpp:434] conv3_0_postscale <- conv3_0
I0407 23:13:57.472064 29122 net.cpp:395] conv3_0_postscale -> conv3_0 (in-place)
I0407 23:13:57.472173 29122 net.cpp:150] Setting up conv3_0_postscale
I0407 23:13:57.472182 29122 net.cpp:157] Top shape: 64 100 42 42 (11289600)
I0407 23:13:57.472184 29122 net.cpp:165] Memory required for data: 956281600
I0407 23:13:57.472188 29122 layer_factory.hpp:77] Creating layer pool3_0
I0407 23:13:57.472196 29122 net.cpp:100] Creating Layer pool3_0
I0407 23:13:57.472201 29122 net.cpp:434] pool3_0 <- conv3_0
I0407 23:13:57.472206 29122 net.cpp:408] pool3_0 -> pool3_0
I0407 23:13:57.472252 29122 net.cpp:150] Setting up pool3_0
I0407 23:13:57.472260 29122 net.cpp:157] Top shape: 64 100 21 21 (2822400)
I0407 23:13:57.472262 29122 net.cpp:165] Memory required for data: 967571200
I0407 23:13:57.472265 29122 layer_factory.hpp:77] Creating layer conv3_1
I0407 23:13:57.472275 29122 net.cpp:100] Creating Layer conv3_1
I0407 23:13:57.472280 29122 net.cpp:434] conv3_1 <- pool3_0
I0407 23:13:57.472285 29122 net.cpp:408] conv3_1 -> conv3_1
I0407 23:13:57.475221 29122 net.cpp:150] Setting up conv3_1
I0407 23:13:57.475237 29122 net.cpp:157] Top shape: 64 150 18 18 (3110400)
I0407 23:13:57.475241 29122 net.cpp:165] Memory required for data: 980012800
I0407 23:13:57.475247 29122 layer_factory.hpp:77] Creating layer conv3_1_prescale
I0407 23:13:57.475256 29122 net.cpp:100] Creating Layer conv3_1_prescale
I0407 23:13:57.475260 29122 net.cpp:434] conv3_1_prescale <- conv3_1
I0407 23:13:57.475266 29122 net.cpp:395] conv3_1_prescale -> conv3_1 (in-place)
I0407 23:13:57.475373 29122 net.cpp:150] Setting up conv3_1_prescale
I0407 23:13:57.475383 29122 net.cpp:157] Top shape: 64 150 18 18 (3110400)
I0407 23:13:57.475385 29122 net.cpp:165] Memory required for data: 992454400
I0407 23:13:57.475390 29122 layer_factory.hpp:77] Creating layer conv3_1_sTanH
I0407 23:13:57.475397 29122 net.cpp:100] Creating Layer conv3_1_sTanH
I0407 23:13:57.475402 29122 net.cpp:434] conv3_1_sTanH <- conv3_1
I0407 23:13:57.475406 29122 net.cpp:395] conv3_1_sTanH -> conv3_1 (in-place)
I0407 23:13:57.476241 29122 net.cpp:150] Setting up conv3_1_sTanH
I0407 23:13:57.476270 29122 net.cpp:157] Top shape: 64 150 18 18 (3110400)
I0407 23:13:57.476274 29122 net.cpp:165] Memory required for data: 1004896000
I0407 23:13:57.476291 29122 layer_factory.hpp:77] Creating layer conv3_1_postscale
I0407 23:13:57.476303 29122 net.cpp:100] Creating Layer conv3_1_postscale
I0407 23:13:57.476313 29122 net.cpp:434] conv3_1_postscale <- conv3_1
I0407 23:13:57.476327 29122 net.cpp:395] conv3_1_postscale -> conv3_1 (in-place)
I0407 23:13:57.476446 29122 net.cpp:150] Setting up conv3_1_postscale
I0407 23:13:57.476455 29122 net.cpp:157] Top shape: 64 150 18 18 (3110400)
I0407 23:13:57.476459 29122 net.cpp:165] Memory required for data: 1017337600
I0407 23:13:57.476464 29122 layer_factory.hpp:77] Creating layer pool3_1
I0407 23:13:57.476469 29122 net.cpp:100] Creating Layer pool3_1
I0407 23:13:57.476474 29122 net.cpp:434] pool3_1 <- conv3_1
I0407 23:13:57.476480 29122 net.cpp:408] pool3_1 -> pool3_1
I0407 23:13:57.476523 29122 net.cpp:150] Setting up pool3_1
I0407 23:13:57.476532 29122 net.cpp:157] Top shape: 64 150 9 9 (777600)
I0407 23:13:57.476536 29122 net.cpp:165] Memory required for data: 1020448000
I0407 23:13:57.476538 29122 layer_factory.hpp:77] Creating layer conv3_2
I0407 23:13:57.476547 29122 net.cpp:100] Creating Layer conv3_2
I0407 23:13:57.476552 29122 net.cpp:434] conv3_2 <- pool3_1
I0407 23:13:57.476557 29122 net.cpp:408] conv3_2 -> conv3_2
I0407 23:13:57.482553 29122 net.cpp:150] Setting up conv3_2
I0407 23:13:57.482581 29122 net.cpp:157] Top shape: 64 250 6 6 (576000)
I0407 23:13:57.482585 29122 net.cpp:165] Memory required for data: 1022752000
I0407 23:13:57.482592 29122 layer_factory.hpp:77] Creating layer conv3_2_prescale
I0407 23:13:57.482600 29122 net.cpp:100] Creating Layer conv3_2_prescale
I0407 23:13:57.482607 29122 net.cpp:434] conv3_2_prescale <- conv3_2
I0407 23:13:57.482612 29122 net.cpp:395] conv3_2_prescale -> conv3_2 (in-place)
I0407 23:13:57.482717 29122 net.cpp:150] Setting up conv3_2_prescale
I0407 23:13:57.482725 29122 net.cpp:157] Top shape: 64 250 6 6 (576000)
I0407 23:13:57.482728 29122 net.cpp:165] Memory required for data: 1025056000
I0407 23:13:57.482743 29122 layer_factory.hpp:77] Creating layer conv3_2_sTanH
I0407 23:13:57.482750 29122 net.cpp:100] Creating Layer conv3_2_sTanH
I0407 23:13:57.482753 29122 net.cpp:434] conv3_2_sTanH <- conv3_2
I0407 23:13:57.482759 29122 net.cpp:395] conv3_2_sTanH -> conv3_2 (in-place)
I0407 23:13:57.482950 29122 net.cpp:150] Setting up conv3_2_sTanH
I0407 23:13:57.482961 29122 net.cpp:157] Top shape: 64 250 6 6 (576000)
I0407 23:13:57.482964 29122 net.cpp:165] Memory required for data: 1027360000
I0407 23:13:57.482967 29122 layer_factory.hpp:77] Creating layer conv3_2_postscale
I0407 23:13:57.482973 29122 net.cpp:100] Creating Layer conv3_2_postscale
I0407 23:13:57.482977 29122 net.cpp:434] conv3_2_postscale <- conv3_2
I0407 23:13:57.482983 29122 net.cpp:395] conv3_2_postscale -> conv3_2 (in-place)
I0407 23:13:57.483090 29122 net.cpp:150] Setting up conv3_2_postscale
I0407 23:13:57.483103 29122 net.cpp:157] Top shape: 64 250 6 6 (576000)
I0407 23:13:57.483109 29122 net.cpp:165] Memory required for data: 1029664000
I0407 23:13:57.483119 29122 layer_factory.hpp:77] Creating layer pool3_2
I0407 23:13:57.483129 29122 net.cpp:100] Creating Layer pool3_2
I0407 23:13:57.483137 29122 net.cpp:434] pool3_2 <- conv3_2
I0407 23:13:57.483146 29122 net.cpp:408] pool3_2 -> pool3_2
I0407 23:13:57.483194 29122 net.cpp:150] Setting up pool3_2
I0407 23:13:57.483202 29122 net.cpp:157] Top shape: 64 250 3 3 (144000)
I0407 23:13:57.483206 29122 net.cpp:165] Memory required for data: 1030240000
I0407 23:13:57.483208 29122 layer_factory.hpp:77] Creating layer fc3_4_300
I0407 23:13:57.483217 29122 net.cpp:100] Creating Layer fc3_4_300
I0407 23:13:57.483219 29122 net.cpp:434] fc3_4_300 <- pool3_2
I0407 23:13:57.483225 29122 net.cpp:408] fc3_4_300 -> fc3_4
I0407 23:13:57.488584 29122 net.cpp:150] Setting up fc3_4_300
I0407 23:13:57.488600 29122 net.cpp:157] Top shape: 64 300 (19200)
I0407 23:13:57.488603 29122 net.cpp:165] Memory required for data: 1030316800
I0407 23:13:57.488610 29122 layer_factory.hpp:77] Creating layer fc3_4_prescale
I0407 23:13:57.488636 29122 net.cpp:100] Creating Layer fc3_4_prescale
I0407 23:13:57.488643 29122 net.cpp:434] fc3_4_prescale <- fc3_4
I0407 23:13:57.488651 29122 net.cpp:395] fc3_4_prescale -> fc3_4 (in-place)
I0407 23:13:57.488754 29122 net.cpp:150] Setting up fc3_4_prescale
I0407 23:13:57.488761 29122 net.cpp:157] Top shape: 64 300 (19200)
I0407 23:13:57.488764 29122 net.cpp:165] Memory required for data: 1030393600
I0407 23:13:57.488768 29122 layer_factory.hpp:77] Creating layer fc3_4_sTanH
I0407 23:13:57.488775 29122 net.cpp:100] Creating Layer fc3_4_sTanH
I0407 23:13:57.488783 29122 net.cpp:434] fc3_4_sTanH <- fc3_4
I0407 23:13:57.488788 29122 net.cpp:395] fc3_4_sTanH -> fc3_4 (in-place)
I0407 23:13:57.489004 29122 net.cpp:150] Setting up fc3_4_sTanH
I0407 23:13:57.489017 29122 net.cpp:157] Top shape: 64 300 (19200)
I0407 23:13:57.489020 29122 net.cpp:165] Memory required for data: 1030470400
I0407 23:13:57.489023 29122 layer_factory.hpp:77] Creating layer fc3_4_postscale
I0407 23:13:57.489030 29122 net.cpp:100] Creating Layer fc3_4_postscale
I0407 23:13:57.489033 29122 net.cpp:434] fc3_4_postscale <- fc3_4
I0407 23:13:57.489040 29122 net.cpp:395] fc3_4_postscale -> fc3_4 (in-place)
I0407 23:13:57.489151 29122 net.cpp:150] Setting up fc3_4_postscale
I0407 23:13:57.489158 29122 net.cpp:157] Top shape: 64 300 (19200)
I0407 23:13:57.489161 29122 net.cpp:165] Memory required for data: 1030547200
I0407 23:13:57.489166 29122 layer_factory.hpp:77] Creating layer drop3_4
I0407 23:13:57.489171 29122 net.cpp:100] Creating Layer drop3_4
I0407 23:13:57.489174 29122 net.cpp:434] drop3_4 <- fc3_4
I0407 23:13:57.489181 29122 net.cpp:395] drop3_4 -> fc3_4 (in-place)
I0407 23:13:57.489203 29122 net.cpp:150] Setting up drop3_4
I0407 23:13:57.489210 29122 net.cpp:157] Top shape: 64 300 (19200)
I0407 23:13:57.489212 29122 net.cpp:165] Memory required for data: 1030624000
I0407 23:13:57.489217 29122 layer_factory.hpp:77] Creating layer fc3_5_67
I0407 23:13:57.489223 29122 net.cpp:100] Creating Layer fc3_5_67
I0407 23:13:57.489228 29122 net.cpp:434] fc3_5_67 <- fc3_4
I0407 23:13:57.489234 29122 net.cpp:408] fc3_5_67 -> fc3_5
I0407 23:13:57.489476 29122 net.cpp:150] Setting up fc3_5_67
I0407 23:13:57.489485 29122 net.cpp:157] Top shape: 64 67 (4288)
I0407 23:13:57.489487 29122 net.cpp:165] Memory required for data: 1030641152
I0407 23:13:57.489492 29122 layer_factory.hpp:77] Creating layer softmax_3
I0407 23:13:57.489498 29122 net.cpp:100] Creating Layer softmax_3
I0407 23:13:57.489501 29122 net.cpp:434] softmax_3 <- fc3_5
I0407 23:13:57.489506 29122 net.cpp:408] softmax_3 -> softmax_3
I0407 23:13:57.490381 29122 net.cpp:150] Setting up softmax_3
I0407 23:13:57.490396 29122 net.cpp:157] Top shape: 64 67 (4288)
I0407 23:13:57.490399 29122 net.cpp:165] Memory required for data: 1030658304
I0407 23:13:57.490402 29122 layer_factory.hpp:77] Creating layer conv4_0
I0407 23:13:57.490414 29122 net.cpp:100] Creating Layer conv4_0
I0407 23:13:57.490418 29122 net.cpp:434] conv4_0 <- data_0_data_0_0_split_4
I0407 23:13:57.490425 29122 net.cpp:408] conv4_0 -> conv4_0
I0407 23:13:57.492064 29122 net.cpp:150] Setting up conv4_0
I0407 23:13:57.492080 29122 net.cpp:157] Top shape: 64 100 42 42 (11289600)
I0407 23:13:57.492084 29122 net.cpp:165] Memory required for data: 1075816704
I0407 23:13:57.492091 29122 layer_factory.hpp:77] Creating layer conv4_0_prescale
I0407 23:13:57.492100 29122 net.cpp:100] Creating Layer conv4_0_prescale
I0407 23:13:57.492106 29122 net.cpp:434] conv4_0_prescale <- conv4_0
I0407 23:13:57.492112 29122 net.cpp:395] conv4_0_prescale -> conv4_0 (in-place)
I0407 23:13:57.492223 29122 net.cpp:150] Setting up conv4_0_prescale
I0407 23:13:57.492233 29122 net.cpp:157] Top shape: 64 100 42 42 (11289600)
I0407 23:13:57.492235 29122 net.cpp:165] Memory required for data: 1120975104
I0407 23:13:57.492239 29122 layer_factory.hpp:77] Creating layer conv4_0_sTanH
I0407 23:13:57.492246 29122 net.cpp:100] Creating Layer conv4_0_sTanH
I0407 23:13:57.492250 29122 net.cpp:434] conv4_0_sTanH <- conv4_0
I0407 23:13:57.492254 29122 net.cpp:395] conv4_0_sTanH -> conv4_0 (in-place)
I0407 23:13:57.492463 29122 net.cpp:150] Setting up conv4_0_sTanH
I0407 23:13:57.492475 29122 net.cpp:157] Top shape: 64 100 42 42 (11289600)
I0407 23:13:57.492478 29122 net.cpp:165] Memory required for data: 1166133504
I0407 23:13:57.492481 29122 layer_factory.hpp:77] Creating layer conv4_0_postscale
I0407 23:13:57.492488 29122 net.cpp:100] Creating Layer conv4_0_postscale
I0407 23:13:57.492491 29122 net.cpp:434] conv4_0_postscale <- conv4_0
I0407 23:13:57.492498 29122 net.cpp:395] conv4_0_postscale -> conv4_0 (in-place)
I0407 23:13:57.492614 29122 net.cpp:150] Setting up conv4_0_postscale
I0407 23:13:57.492621 29122 net.cpp:157] Top shape: 64 100 42 42 (11289600)
I0407 23:13:57.492624 29122 net.cpp:165] Memory required for data: 1211291904
I0407 23:13:57.492630 29122 layer_factory.hpp:77] Creating layer pool4_0
I0407 23:13:57.492635 29122 net.cpp:100] Creating Layer pool4_0
I0407 23:13:57.492638 29122 net.cpp:434] pool4_0 <- conv4_0
I0407 23:13:57.492645 29122 net.cpp:408] pool4_0 -> pool4_0
I0407 23:13:57.492691 29122 net.cpp:150] Setting up pool4_0
I0407 23:13:57.492697 29122 net.cpp:157] Top shape: 64 100 21 21 (2822400)
I0407 23:13:57.492700 29122 net.cpp:165] Memory required for data: 1222581504
I0407 23:13:57.492703 29122 layer_factory.hpp:77] Creating layer conv4_1
I0407 23:13:57.492714 29122 net.cpp:100] Creating Layer conv4_1
I0407 23:13:57.492719 29122 net.cpp:434] conv4_1 <- pool4_0
I0407 23:13:57.492724 29122 net.cpp:408] conv4_1 -> conv4_1
I0407 23:13:57.496659 29122 net.cpp:150] Setting up conv4_1
I0407 23:13:57.496675 29122 net.cpp:157] Top shape: 64 150 18 18 (3110400)
I0407 23:13:57.496680 29122 net.cpp:165] Memory required for data: 1235023104
I0407 23:13:57.496686 29122 layer_factory.hpp:77] Creating layer conv4_1_prescale
I0407 23:13:57.496693 29122 net.cpp:100] Creating Layer conv4_1_prescale
I0407 23:13:57.496697 29122 net.cpp:434] conv4_1_prescale <- conv4_1
I0407 23:13:57.496704 29122 net.cpp:395] conv4_1_prescale -> conv4_1 (in-place)
I0407 23:13:57.496820 29122 net.cpp:150] Setting up conv4_1_prescale
I0407 23:13:57.496829 29122 net.cpp:157] Top shape: 64 150 18 18 (3110400)
I0407 23:13:57.496831 29122 net.cpp:165] Memory required for data: 1247464704
I0407 23:13:57.496836 29122 layer_factory.hpp:77] Creating layer conv4_1_sTanH
I0407 23:13:57.496841 29122 net.cpp:100] Creating Layer conv4_1_sTanH
I0407 23:13:57.496845 29122 net.cpp:434] conv4_1_sTanH <- conv4_1
I0407 23:13:57.496850 29122 net.cpp:395] conv4_1_sTanH -> conv4_1 (in-place)
I0407 23:13:57.497654 29122 net.cpp:150] Setting up conv4_1_sTanH
I0407 23:13:57.497674 29122 net.cpp:157] Top shape: 64 150 18 18 (3110400)
I0407 23:13:57.497680 29122 net.cpp:165] Memory required for data: 1259906304
I0407 23:13:57.497686 29122 layer_factory.hpp:77] Creating layer conv4_1_postscale
I0407 23:13:57.497696 29122 net.cpp:100] Creating Layer conv4_1_postscale
I0407 23:13:57.497700 29122 net.cpp:434] conv4_1_postscale <- conv4_1
I0407 23:13:57.497705 29122 net.cpp:395] conv4_1_postscale -> conv4_1 (in-place)
I0407 23:13:57.497828 29122 net.cpp:150] Setting up conv4_1_postscale
I0407 23:13:57.497839 29122 net.cpp:157] Top shape: 64 150 18 18 (3110400)
I0407 23:13:57.497843 29122 net.cpp:165] Memory required for data: 1272347904
I0407 23:13:57.497848 29122 layer_factory.hpp:77] Creating layer pool4_1
I0407 23:13:57.497854 29122 net.cpp:100] Creating Layer pool4_1
I0407 23:13:57.497859 29122 net.cpp:434] pool4_1 <- conv4_1
I0407 23:13:57.497865 29122 net.cpp:408] pool4_1 -> pool4_1
I0407 23:13:57.497910 29122 net.cpp:150] Setting up pool4_1
I0407 23:13:57.497918 29122 net.cpp:157] Top shape: 64 150 9 9 (777600)
I0407 23:13:57.497921 29122 net.cpp:165] Memory required for data: 1275458304
I0407 23:13:57.497925 29122 layer_factory.hpp:77] Creating layer conv4_2
I0407 23:13:57.497933 29122 net.cpp:100] Creating Layer conv4_2
I0407 23:13:57.497938 29122 net.cpp:434] conv4_2 <- pool4_1
I0407 23:13:57.497946 29122 net.cpp:408] conv4_2 -> conv4_2
I0407 23:13:57.504139 29122 net.cpp:150] Setting up conv4_2
I0407 23:13:57.504158 29122 net.cpp:157] Top shape: 64 250 6 6 (576000)
I0407 23:13:57.504174 29122 net.cpp:165] Memory required for data: 1277762304
I0407 23:13:57.504181 29122 layer_factory.hpp:77] Creating layer conv4_2_prescale
I0407 23:13:57.504189 29122 net.cpp:100] Creating Layer conv4_2_prescale
I0407 23:13:57.504192 29122 net.cpp:434] conv4_2_prescale <- conv4_2
I0407 23:13:57.504200 29122 net.cpp:395] conv4_2_prescale -> conv4_2 (in-place)
I0407 23:13:57.504314 29122 net.cpp:150] Setting up conv4_2_prescale
I0407 23:13:57.504324 29122 net.cpp:157] Top shape: 64 250 6 6 (576000)
I0407 23:13:57.504328 29122 net.cpp:165] Memory required for data: 1280066304
I0407 23:13:57.504331 29122 layer_factory.hpp:77] Creating layer conv4_2_sTanH
I0407 23:13:57.504338 29122 net.cpp:100] Creating Layer conv4_2_sTanH
I0407 23:13:57.504340 29122 net.cpp:434] conv4_2_sTanH <- conv4_2
I0407 23:13:57.504346 29122 net.cpp:395] conv4_2_sTanH -> conv4_2 (in-place)
I0407 23:13:57.504535 29122 net.cpp:150] Setting up conv4_2_sTanH
I0407 23:13:57.504546 29122 net.cpp:157] Top shape: 64 250 6 6 (576000)
I0407 23:13:57.504549 29122 net.cpp:165] Memory required for data: 1282370304
I0407 23:13:57.504552 29122 layer_factory.hpp:77] Creating layer conv4_2_postscale
I0407 23:13:57.504561 29122 net.cpp:100] Creating Layer conv4_2_postscale
I0407 23:13:57.504565 29122 net.cpp:434] conv4_2_postscale <- conv4_2
I0407 23:13:57.504570 29122 net.cpp:395] conv4_2_postscale -> conv4_2 (in-place)
I0407 23:13:57.504679 29122 net.cpp:150] Setting up conv4_2_postscale
I0407 23:13:57.504688 29122 net.cpp:157] Top shape: 64 250 6 6 (576000)
I0407 23:13:57.504690 29122 net.cpp:165] Memory required for data: 1284674304
I0407 23:13:57.504695 29122 layer_factory.hpp:77] Creating layer pool4_2
I0407 23:13:57.504705 29122 net.cpp:100] Creating Layer pool4_2
I0407 23:13:57.504714 29122 net.cpp:434] pool4_2 <- conv4_2
I0407 23:13:57.504722 29122 net.cpp:408] pool4_2 -> pool4_2
I0407 23:13:57.504778 29122 net.cpp:150] Setting up pool4_2
I0407 23:13:57.504787 29122 net.cpp:157] Top shape: 64 250 3 3 (144000)
I0407 23:13:57.504791 29122 net.cpp:165] Memory required for data: 1285250304
I0407 23:13:57.504793 29122 layer_factory.hpp:77] Creating layer fc4_4_300
I0407 23:13:57.504799 29122 net.cpp:100] Creating Layer fc4_4_300
I0407 23:13:57.504803 29122 net.cpp:434] fc4_4_300 <- pool4_2
I0407 23:13:57.504809 29122 net.cpp:408] fc4_4_300 -> fc4_4
I0407 23:13:57.510160 29122 net.cpp:150] Setting up fc4_4_300
I0407 23:13:57.510175 29122 net.cpp:157] Top shape: 64 300 (19200)
I0407 23:13:57.510179 29122 net.cpp:165] Memory required for data: 1285327104
I0407 23:13:57.510185 29122 layer_factory.hpp:77] Creating layer fc4_4_prescale
I0407 23:13:57.510192 29122 net.cpp:100] Creating Layer fc4_4_prescale
I0407 23:13:57.510195 29122 net.cpp:434] fc4_4_prescale <- fc4_4
I0407 23:13:57.510203 29122 net.cpp:395] fc4_4_prescale -> fc4_4 (in-place)
I0407 23:13:57.510310 29122 net.cpp:150] Setting up fc4_4_prescale
I0407 23:13:57.510318 29122 net.cpp:157] Top shape: 64 300 (19200)
I0407 23:13:57.510321 29122 net.cpp:165] Memory required for data: 1285403904
I0407 23:13:57.510326 29122 layer_factory.hpp:77] Creating layer fc4_4_sTanH
I0407 23:13:57.510331 29122 net.cpp:100] Creating Layer fc4_4_sTanH
I0407 23:13:57.510334 29122 net.cpp:434] fc4_4_sTanH <- fc4_4
I0407 23:13:57.510339 29122 net.cpp:395] fc4_4_sTanH -> fc4_4 (in-place)
I0407 23:13:57.510545 29122 net.cpp:150] Setting up fc4_4_sTanH
I0407 23:13:57.510555 29122 net.cpp:157] Top shape: 64 300 (19200)
I0407 23:13:57.510557 29122 net.cpp:165] Memory required for data: 1285480704
I0407 23:13:57.510560 29122 layer_factory.hpp:77] Creating layer fc4_4_postscale
I0407 23:13:57.510568 29122 net.cpp:100] Creating Layer fc4_4_postscale
I0407 23:13:57.510571 29122 net.cpp:434] fc4_4_postscale <- fc4_4
I0407 23:13:57.510576 29122 net.cpp:395] fc4_4_postscale -> fc4_4 (in-place)
I0407 23:13:57.510689 29122 net.cpp:150] Setting up fc4_4_postscale
I0407 23:13:57.510696 29122 net.cpp:157] Top shape: 64 300 (19200)
I0407 23:13:57.510699 29122 net.cpp:165] Memory required for data: 1285557504
I0407 23:13:57.510720 29122 layer_factory.hpp:77] Creating layer drop4_4
I0407 23:13:57.510732 29122 net.cpp:100] Creating Layer drop4_4
I0407 23:13:57.510741 29122 net.cpp:434] drop4_4 <- fc4_4
I0407 23:13:57.510747 29122 net.cpp:395] drop4_4 -> fc4_4 (in-place)
I0407 23:13:57.510781 29122 net.cpp:150] Setting up drop4_4
I0407 23:13:57.510787 29122 net.cpp:157] Top shape: 64 300 (19200)
I0407 23:13:57.510790 29122 net.cpp:165] Memory required for data: 1285634304
I0407 23:13:57.510793 29122 layer_factory.hpp:77] Creating layer fc4_5_67
I0407 23:13:57.510799 29122 net.cpp:100] Creating Layer fc4_5_67
I0407 23:13:57.510803 29122 net.cpp:434] fc4_5_67 <- fc4_4
I0407 23:13:57.510809 29122 net.cpp:408] fc4_5_67 -> fc4_5
I0407 23:13:57.511057 29122 net.cpp:150] Setting up fc4_5_67
I0407 23:13:57.511066 29122 net.cpp:157] Top shape: 64 67 (4288)
I0407 23:13:57.511070 29122 net.cpp:165] Memory required for data: 1285651456
I0407 23:13:57.511075 29122 layer_factory.hpp:77] Creating layer softmax_4
I0407 23:13:57.511081 29122 net.cpp:100] Creating Layer softmax_4
I0407 23:13:57.511085 29122 net.cpp:434] softmax_4 <- fc4_5
I0407 23:13:57.511091 29122 net.cpp:408] softmax_4 -> softmax_4
I0407 23:13:57.511353 29122 net.cpp:150] Setting up softmax_4
I0407 23:13:57.511364 29122 net.cpp:157] Top shape: 64 67 (4288)
I0407 23:13:57.511366 29122 net.cpp:165] Memory required for data: 1285668608
I0407 23:13:57.511370 29122 layer_factory.hpp:77] Creating layer data_1
I0407 23:13:57.511463 29122 net.cpp:100] Creating Layer data_1
I0407 23:13:57.511484 29122 net.cpp:408] data_1 -> data_1
I0407 23:13:57.511495 29122 net.cpp:408] data_1 -> label_1
I0407 23:13:57.512912 29193 db_lmdb.cpp:35] Opened lmdb ../local_data/lmdb/rtsd-r1/histeq/train/lmdb
I0407 23:13:57.513188 29122 data_layer.cpp:41] output data size: 64,3,48,48
I0407 23:13:57.523304 29122 net.cpp:150] Setting up data_1
I0407 23:13:57.523331 29122 net.cpp:157] Top shape: 64 3 48 48 (442368)
I0407 23:13:57.523339 29122 net.cpp:157] Top shape: 64 (64)
I0407 23:13:57.523344 29122 net.cpp:165] Memory required for data: 1287438336
I0407 23:13:57.523350 29122 layer_factory.hpp:77] Creating layer data_1_data_1_0_split
I0407 23:13:57.523365 29122 net.cpp:100] Creating Layer data_1_data_1_0_split
I0407 23:13:57.523370 29122 net.cpp:434] data_1_data_1_0_split <- data_1
I0407 23:13:57.523393 29122 net.cpp:408] data_1_data_1_0_split -> data_1_data_1_0_split_0
I0407 23:13:57.523411 29122 net.cpp:408] data_1_data_1_0_split -> data_1_data_1_0_split_1
I0407 23:13:57.523425 29122 net.cpp:408] data_1_data_1_0_split -> data_1_data_1_0_split_2
I0407 23:13:57.523440 29122 net.cpp:408] data_1_data_1_0_split -> data_1_data_1_0_split_3
I0407 23:13:57.523453 29122 net.cpp:408] data_1_data_1_0_split -> data_1_data_1_0_split_4
I0407 23:13:57.523640 29122 net.cpp:150] Setting up data_1_data_1_0_split
I0407 23:13:57.523654 29122 net.cpp:157] Top shape: 64 3 48 48 (442368)
I0407 23:13:57.523661 29122 net.cpp:157] Top shape: 64 3 48 48 (442368)
I0407 23:13:57.523671 29122 net.cpp:157] Top shape: 64 3 48 48 (442368)
I0407 23:13:57.523679 29122 net.cpp:157] Top shape: 64 3 48 48 (442368)
I0407 23:13:57.523684 29122 net.cpp:157] Top shape: 64 3 48 48 (442368)
I0407 23:13:57.523690 29122 net.cpp:165] Memory required for data: 1296285696
I0407 23:13:57.523695 29122 layer_factory.hpp:77] Creating layer conv5_0
I0407 23:13:57.523712 29122 net.cpp:100] Creating Layer conv5_0
I0407 23:13:57.523721 29122 net.cpp:434] conv5_0 <- data_1_data_1_0_split_0
I0407 23:13:57.523735 29122 net.cpp:408] conv5_0 -> conv5_0
I0407 23:13:57.526943 29122 net.cpp:150] Setting up conv5_0
I0407 23:13:57.526969 29122 net.cpp:157] Top shape: 64 100 42 42 (11289600)
I0407 23:13:57.526978 29122 net.cpp:165] Memory required for data: 1341444096
I0407 23:13:57.526989 29122 layer_factory.hpp:77] Creating layer conv5_0_prescale
I0407 23:13:57.527005 29122 net.cpp:100] Creating Layer conv5_0_prescale
I0407 23:13:57.527014 29122 net.cpp:434] conv5_0_prescale <- conv5_0
I0407 23:13:57.527027 29122 net.cpp:395] conv5_0_prescale -> conv5_0 (in-place)
I0407 23:13:57.527251 29122 net.cpp:150] Setting up conv5_0_prescale
I0407 23:13:57.527264 29122 net.cpp:157] Top shape: 64 100 42 42 (11289600)
I0407 23:13:57.527269 29122 net.cpp:165] Memory required for data: 1386602496
I0407 23:13:57.527277 29122 layer_factory.hpp:77] Creating layer conv5_0_sTanH
I0407 23:13:57.527288 29122 net.cpp:100] Creating Layer conv5_0_sTanH
I0407 23:13:57.527297 29122 net.cpp:434] conv5_0_sTanH <- conv5_0
I0407 23:13:57.527304 29122 net.cpp:395] conv5_0_sTanH -> conv5_0 (in-place)
I0407 23:13:57.529178 29122 net.cpp:150] Setting up conv5_0_sTanH
I0407 23:13:57.529202 29122 net.cpp:157] Top shape: 64 100 42 42 (11289600)
I0407 23:13:57.529211 29122 net.cpp:165] Memory required for data: 1431760896
I0407 23:13:57.529217 29122 layer_factory.hpp:77] Creating layer conv5_0_postscale
I0407 23:13:57.529234 29122 net.cpp:100] Creating Layer conv5_0_postscale
I0407 23:13:57.529243 29122 net.cpp:434] conv5_0_postscale <- conv5_0
I0407 23:13:57.529253 29122 net.cpp:395] conv5_0_postscale -> conv5_0 (in-place)
I0407 23:13:57.529458 29122 net.cpp:150] Setting up conv5_0_postscale
I0407 23:13:57.529472 29122 net.cpp:157] Top shape: 64 100 42 42 (11289600)
I0407 23:13:57.529477 29122 net.cpp:165] Memory required for data: 1476919296
I0407 23:13:57.529485 29122 layer_factory.hpp:77] Creating layer pool5_0
I0407 23:13:57.529500 29122 net.cpp:100] Creating Layer pool5_0
I0407 23:13:57.529507 29122 net.cpp:434] pool5_0 <- conv5_0
I0407 23:13:57.529516 29122 net.cpp:408] pool5_0 -> pool5_0
I0407 23:13:57.529594 29122 net.cpp:150] Setting up pool5_0
I0407 23:13:57.529606 29122 net.cpp:157] Top shape: 64 100 21 21 (2822400)
I0407 23:13:57.529611 29122 net.cpp:165] Memory required for data: 1488208896
I0407 23:13:57.529616 29122 layer_factory.hpp:77] Creating layer conv5_1
I0407 23:13:57.529633 29122 net.cpp:100] Creating Layer conv5_1
I0407 23:13:57.529639 29122 net.cpp:434] conv5_1 <- pool5_0
I0407 23:13:57.529649 29122 net.cpp:408] conv5_1 -> conv5_1
I0407 23:13:57.533524 29122 net.cpp:150] Setting up conv5_1
I0407 23:13:57.533547 29122 net.cpp:157] Top shape: 64 150 18 18 (3110400)
I0407 23:13:57.533552 29122 net.cpp:165] Memory required for data: 1500650496
I0407 23:13:57.533563 29122 layer_factory.hpp:77] Creating layer conv5_1_prescale
I0407 23:13:57.533573 29122 net.cpp:100] Creating Layer conv5_1_prescale
I0407 23:13:57.533579 29122 net.cpp:434] conv5_1_prescale <- conv5_1
I0407 23:13:57.533591 29122 net.cpp:395] conv5_1_prescale -> conv5_1 (in-place)
I0407 23:13:57.533781 29122 net.cpp:150] Setting up conv5_1_prescale
I0407 23:13:57.533793 29122 net.cpp:157] Top shape: 64 150 18 18 (3110400)
I0407 23:13:57.533798 29122 net.cpp:165] Memory required for data: 1513092096
I0407 23:13:57.533805 29122 layer_factory.hpp:77] Creating layer conv5_1_sTanH
I0407 23:13:57.533814 29122 net.cpp:100] Creating Layer conv5_1_sTanH
I0407 23:13:57.533819 29122 net.cpp:434] conv5_1_sTanH <- conv5_1
I0407 23:13:57.533829 29122 net.cpp:395] conv5_1_sTanH -> conv5_1 (in-place)
I0407 23:13:57.535596 29122 net.cpp:150] Setting up conv5_1_sTanH
I0407 23:13:57.535620 29122 net.cpp:157] Top shape: 64 150 18 18 (3110400)
I0407 23:13:57.535625 29122 net.cpp:165] Memory required for data: 1525533696
I0407 23:13:57.535630 29122 layer_factory.hpp:77] Creating layer conv5_1_postscale
I0407 23:13:57.535643 29122 net.cpp:100] Creating Layer conv5_1_postscale
I0407 23:13:57.535650 29122 net.cpp:434] conv5_1_postscale <- conv5_1
I0407 23:13:57.535660 29122 net.cpp:395] conv5_1_postscale -> conv5_1 (in-place)
I0407 23:13:57.535856 29122 net.cpp:150] Setting up conv5_1_postscale
I0407 23:13:57.535872 29122 net.cpp:157] Top shape: 64 150 18 18 (3110400)
I0407 23:13:57.535915 29122 net.cpp:165] Memory required for data: 1537975296
I0407 23:13:57.535928 29122 layer_factory.hpp:77] Creating layer pool5_1
I0407 23:13:57.535938 29122 net.cpp:100] Creating Layer pool5_1
I0407 23:13:57.535943 29122 net.cpp:434] pool5_1 <- conv5_1
I0407 23:13:57.535950 29122 net.cpp:408] pool5_1 -> pool5_1
I0407 23:13:57.536028 29122 net.cpp:150] Setting up pool5_1
I0407 23:13:57.536058 29122 net.cpp:157] Top shape: 64 150 9 9 (777600)
I0407 23:13:57.536063 29122 net.cpp:165] Memory required for data: 1541085696
I0407 23:13:57.536068 29122 layer_factory.hpp:77] Creating layer conv5_2
I0407 23:13:57.536083 29122 net.cpp:100] Creating Layer conv5_2
I0407 23:13:57.536090 29122 net.cpp:434] conv5_2 <- pool5_1
I0407 23:13:57.536101 29122 net.cpp:408] conv5_2 -> conv5_2
I0407 23:13:57.552608 29122 net.cpp:150] Setting up conv5_2
I0407 23:13:57.552634 29122 net.cpp:157] Top shape: 64 250 6 6 (576000)
I0407 23:13:57.552640 29122 net.cpp:165] Memory required for data: 1543389696
I0407 23:13:57.552651 29122 layer_factory.hpp:77] Creating layer conv5_2_prescale
I0407 23:13:57.552664 29122 net.cpp:100] Creating Layer conv5_2_prescale
I0407 23:13:57.552670 29122 net.cpp:434] conv5_2_prescale <- conv5_2
I0407 23:13:57.552680 29122 net.cpp:395] conv5_2_prescale -> conv5_2 (in-place)
I0407 23:13:57.552861 29122 net.cpp:150] Setting up conv5_2_prescale
I0407 23:13:57.552875 29122 net.cpp:157] Top shape: 64 250 6 6 (576000)
I0407 23:13:57.552880 29122 net.cpp:165] Memory required for data: 1545693696
I0407 23:13:57.552886 29122 layer_factory.hpp:77] Creating layer conv5_2_sTanH
I0407 23:13:57.552896 29122 net.cpp:100] Creating Layer conv5_2_sTanH
I0407 23:13:57.552901 29122 net.cpp:434] conv5_2_sTanH <- conv5_2
I0407 23:13:57.552909 29122 net.cpp:395] conv5_2_sTanH -> conv5_2 (in-place)
I0407 23:13:57.553211 29122 net.cpp:150] Setting up conv5_2_sTanH
I0407 23:13:57.553227 29122 net.cpp:157] Top shape: 64 250 6 6 (576000)
I0407 23:13:57.553232 29122 net.cpp:165] Memory required for data: 1547997696
I0407 23:13:57.553237 29122 layer_factory.hpp:77] Creating layer conv5_2_postscale
I0407 23:13:57.553249 29122 net.cpp:100] Creating Layer conv5_2_postscale
I0407 23:13:57.553254 29122 net.cpp:434] conv5_2_postscale <- conv5_2
I0407 23:13:57.553262 29122 net.cpp:395] conv5_2_postscale -> conv5_2 (in-place)
I0407 23:13:57.553438 29122 net.cpp:150] Setting up conv5_2_postscale
I0407 23:13:57.553450 29122 net.cpp:157] Top shape: 64 250 6 6 (576000)
I0407 23:13:57.553454 29122 net.cpp:165] Memory required for data: 1550301696
I0407 23:13:57.553462 29122 layer_factory.hpp:77] Creating layer pool5_2
I0407 23:13:57.553496 29122 net.cpp:100] Creating Layer pool5_2
I0407 23:13:57.553504 29122 net.cpp:434] pool5_2 <- conv5_2
I0407 23:13:57.553514 29122 net.cpp:408] pool5_2 -> pool5_2
I0407 23:13:57.553593 29122 net.cpp:150] Setting up pool5_2
I0407 23:13:57.553606 29122 net.cpp:157] Top shape: 64 250 3 3 (144000)
I0407 23:13:57.553611 29122 net.cpp:165] Memory required for data: 1550877696
I0407 23:13:57.553617 29122 layer_factory.hpp:77] Creating layer fc5_4_300
I0407 23:13:57.553625 29122 net.cpp:100] Creating Layer fc5_4_300
I0407 23:13:57.553630 29122 net.cpp:434] fc5_4_300 <- pool5_2
I0407 23:13:57.553638 29122 net.cpp:408] fc5_4_300 -> fc5_4
I0407 23:13:57.561709 29122 net.cpp:150] Setting up fc5_4_300
I0407 23:13:57.561733 29122 net.cpp:157] Top shape: 64 300 (19200)
I0407 23:13:57.561738 29122 net.cpp:165] Memory required for data: 1550954496
I0407 23:13:57.561748 29122 layer_factory.hpp:77] Creating layer fc5_4_prescale
I0407 23:13:57.561758 29122 net.cpp:100] Creating Layer fc5_4_prescale
I0407 23:13:57.561764 29122 net.cpp:434] fc5_4_prescale <- fc5_4
I0407 23:13:57.561774 29122 net.cpp:395] fc5_4_prescale -> fc5_4 (in-place)
I0407 23:13:57.561934 29122 net.cpp:150] Setting up fc5_4_prescale
I0407 23:13:57.561946 29122 net.cpp:157] Top shape: 64 300 (19200)
I0407 23:13:57.561950 29122 net.cpp:165] Memory required for data: 1551031296
I0407 23:13:57.561957 29122 layer_factory.hpp:77] Creating layer fc5_4_sTanH
I0407 23:13:57.561966 29122 net.cpp:100] Creating Layer fc5_4_sTanH
I0407 23:13:57.561974 29122 net.cpp:434] fc5_4_sTanH <- fc5_4
I0407 23:13:57.561980 29122 net.cpp:395] fc5_4_sTanH -> fc5_4 (in-place)
I0407 23:13:57.562270 29122 net.cpp:150] Setting up fc5_4_sTanH
I0407 23:13:57.562284 29122 net.cpp:157] Top shape: 64 300 (19200)
I0407 23:13:57.562288 29122 net.cpp:165] Memory required for data: 1551108096
I0407 23:13:57.562311 29122 layer_factory.hpp:77] Creating layer fc5_4_postscale
I0407 23:13:57.562321 29122 net.cpp:100] Creating Layer fc5_4_postscale
I0407 23:13:57.562326 29122 net.cpp:434] fc5_4_postscale <- fc5_4
I0407 23:13:57.562340 29122 net.cpp:395] fc5_4_postscale -> fc5_4 (in-place)
I0407 23:13:57.562511 29122 net.cpp:150] Setting up fc5_4_postscale
I0407 23:13:57.562522 29122 net.cpp:157] Top shape: 64 300 (19200)
I0407 23:13:57.562526 29122 net.cpp:165] Memory required for data: 1551184896
I0407 23:13:57.562533 29122 layer_factory.hpp:77] Creating layer drop5_4
I0407 23:13:57.562542 29122 net.cpp:100] Creating Layer drop5_4
I0407 23:13:57.562548 29122 net.cpp:434] drop5_4 <- fc5_4
I0407 23:13:57.562556 29122 net.cpp:395] drop5_4 -> fc5_4 (in-place)
I0407 23:13:57.562597 29122 net.cpp:150] Setting up drop5_4
I0407 23:13:57.562608 29122 net.cpp:157] Top shape: 64 300 (19200)
I0407 23:13:57.562611 29122 net.cpp:165] Memory required for data: 1551261696
I0407 23:13:57.562615 29122 layer_factory.hpp:77] Creating layer fc5_5_67
I0407 23:13:57.562623 29122 net.cpp:100] Creating Layer fc5_5_67
I0407 23:13:57.562628 29122 net.cpp:434] fc5_5_67 <- fc5_4
I0407 23:13:57.562636 29122 net.cpp:408] fc5_5_67 -> fc5_5
I0407 23:13:57.563009 29122 net.cpp:150] Setting up fc5_5_67
I0407 23:13:57.563021 29122 net.cpp:157] Top shape: 64 67 (4288)
I0407 23:13:57.563025 29122 net.cpp:165] Memory required for data: 1551278848
I0407 23:13:57.563033 29122 layer_factory.hpp:77] Creating layer softmax_5
I0407 23:13:57.563043 29122 net.cpp:100] Creating Layer softmax_5
I0407 23:13:57.563051 29122 net.cpp:434] softmax_5 <- fc5_5
I0407 23:13:57.563058 29122 net.cpp:408] softmax_5 -> softmax_5
I0407 23:13:57.563441 29122 net.cpp:150] Setting up softmax_5
I0407 23:13:57.563457 29122 net.cpp:157] Top shape: 64 67 (4288)
I0407 23:13:57.563462 29122 net.cpp:165] Memory required for data: 1551296000
I0407 23:13:57.563465 29122 layer_factory.hpp:77] Creating layer conv6_0
I0407 23:13:57.563482 29122 net.cpp:100] Creating Layer conv6_0
I0407 23:13:57.563486 29122 net.cpp:434] conv6_0 <- data_1_data_1_0_split_1
I0407 23:13:57.563496 29122 net.cpp:408] conv6_0 -> conv6_0
I0407 23:13:57.565800 29122 net.cpp:150] Setting up conv6_0
I0407 23:13:57.565826 29122 net.cpp:157] Top shape: 64 100 42 42 (11289600)
I0407 23:13:57.565831 29122 net.cpp:165] Memory required for data: 1596454400
I0407 23:13:57.565841 29122 layer_factory.hpp:77] Creating layer conv6_0_prescale
I0407 23:13:57.565852 29122 net.cpp:100] Creating Layer conv6_0_prescale
I0407 23:13:57.565857 29122 net.cpp:434] conv6_0_prescale <- conv6_0
I0407 23:13:57.565867 29122 net.cpp:395] conv6_0_prescale -> conv6_0 (in-place)
I0407 23:13:57.566051 29122 net.cpp:150] Setting up conv6_0_prescale
I0407 23:13:57.566063 29122 net.cpp:157] Top shape: 64 100 42 42 (11289600)
I0407 23:13:57.566067 29122 net.cpp:165] Memory required for data: 1641612800
I0407 23:13:57.566074 29122 layer_factory.hpp:77] Creating layer conv6_0_sTanH
I0407 23:13:57.566082 29122 net.cpp:100] Creating Layer conv6_0_sTanH
I0407 23:13:57.566087 29122 net.cpp:434] conv6_0_sTanH <- conv6_0
I0407 23:13:57.566095 29122 net.cpp:395] conv6_0_sTanH -> conv6_0 (in-place)
I0407 23:13:57.567240 29122 net.cpp:150] Setting up conv6_0_sTanH
I0407 23:13:57.567261 29122 net.cpp:157] Top shape: 64 100 42 42 (11289600)
I0407 23:13:57.567266 29122 net.cpp:165] Memory required for data: 1686771200
I0407 23:13:57.567271 29122 layer_factory.hpp:77] Creating layer conv6_0_postscale
I0407 23:13:57.567286 29122 net.cpp:100] Creating Layer conv6_0_postscale
I0407 23:13:57.567291 29122 net.cpp:434] conv6_0_postscale <- conv6_0
I0407 23:13:57.567298 29122 net.cpp:395] conv6_0_postscale -> conv6_0 (in-place)
I0407 23:13:57.567481 29122 net.cpp:150] Setting up conv6_0_postscale
I0407 23:13:57.567492 29122 net.cpp:157] Top shape: 64 100 42 42 (11289600)
I0407 23:13:57.567497 29122 net.cpp:165] Memory required for data: 1731929600
I0407 23:13:57.567503 29122 layer_factory.hpp:77] Creating layer pool6_0
I0407 23:13:57.567517 29122 net.cpp:100] Creating Layer pool6_0
I0407 23:13:57.567540 29122 net.cpp:434] pool6_0 <- conv6_0
I0407 23:13:57.567549 29122 net.cpp:408] pool6_0 -> pool6_0
I0407 23:13:57.567625 29122 net.cpp:150] Setting up pool6_0
I0407 23:13:57.567636 29122 net.cpp:157] Top shape: 64 100 21 21 (2822400)
I0407 23:13:57.567641 29122 net.cpp:165] Memory required for data: 1743219200
I0407 23:13:57.567646 29122 layer_factory.hpp:77] Creating layer conv6_1
I0407 23:13:57.567657 29122 net.cpp:100] Creating Layer conv6_1
I0407 23:13:57.567664 29122 net.cpp:434] conv6_1 <- pool6_0
I0407 23:13:57.567674 29122 net.cpp:408] conv6_1 -> conv6_1
I0407 23:13:57.572438 29122 net.cpp:150] Setting up conv6_1
I0407 23:13:57.572459 29122 net.cpp:157] Top shape: 64 150 18 18 (3110400)
I0407 23:13:57.572464 29122 net.cpp:165] Memory required for data: 1755660800
I0407 23:13:57.572474 29122 layer_factory.hpp:77] Creating layer conv6_1_prescale
I0407 23:13:57.572486 29122 net.cpp:100] Creating Layer conv6_1_prescale
I0407 23:13:57.572491 29122 net.cpp:434] conv6_1_prescale <- conv6_1
I0407 23:13:57.572501 29122 net.cpp:395] conv6_1_prescale -> conv6_1 (in-place)
I0407 23:13:57.572667 29122 net.cpp:150] Setting up conv6_1_prescale
I0407 23:13:57.572679 29122 net.cpp:157] Top shape: 64 150 18 18 (3110400)
I0407 23:13:57.572684 29122 net.cpp:165] Memory required for data: 1768102400
I0407 23:13:57.572690 29122 layer_factory.hpp:77] Creating layer conv6_1_sTanH
I0407 23:13:57.572697 29122 net.cpp:100] Creating Layer conv6_1_sTanH
I0407 23:13:57.572701 29122 net.cpp:434] conv6_1_sTanH <- conv6_1
I0407 23:13:57.572710 29122 net.cpp:395] conv6_1_sTanH -> conv6_1 (in-place)
I0407 23:13:57.573786 29122 net.cpp:150] Setting up conv6_1_sTanH
I0407 23:13:57.573807 29122 net.cpp:157] Top shape: 64 150 18 18 (3110400)
I0407 23:13:57.573812 29122 net.cpp:165] Memory required for data: 1780544000
I0407 23:13:57.573817 29122 layer_factory.hpp:77] Creating layer conv6_1_postscale
I0407 23:13:57.573828 29122 net.cpp:100] Creating Layer conv6_1_postscale
I0407 23:13:57.573834 29122 net.cpp:434] conv6_1_postscale <- conv6_1
I0407 23:13:57.573843 29122 net.cpp:395] conv6_1_postscale -> conv6_1 (in-place)
I0407 23:13:57.574012 29122 net.cpp:150] Setting up conv6_1_postscale
I0407 23:13:57.574024 29122 net.cpp:157] Top shape: 64 150 18 18 (3110400)
I0407 23:13:57.574028 29122 net.cpp:165] Memory required for data: 1792985600
I0407 23:13:57.574035 29122 layer_factory.hpp:77] Creating layer pool6_1
I0407 23:13:57.574045 29122 net.cpp:100] Creating Layer pool6_1
I0407 23:13:57.574049 29122 net.cpp:434] pool6_1 <- conv6_1
I0407 23:13:57.574056 29122 net.cpp:408] pool6_1 -> pool6_1
I0407 23:13:57.574126 29122 net.cpp:150] Setting up pool6_1
I0407 23:13:57.574137 29122 net.cpp:157] Top shape: 64 150 9 9 (777600)
I0407 23:13:57.574141 29122 net.cpp:165] Memory required for data: 1796096000
I0407 23:13:57.574146 29122 layer_factory.hpp:77] Creating layer conv6_2
I0407 23:13:57.574159 29122 net.cpp:100] Creating Layer conv6_2
I0407 23:13:57.574167 29122 net.cpp:434] conv6_2 <- pool6_1
I0407 23:13:57.574177 29122 net.cpp:408] conv6_2 -> conv6_2
I0407 23:13:57.582648 29122 net.cpp:150] Setting up conv6_2
I0407 23:13:57.582675 29122 net.cpp:157] Top shape: 64 250 6 6 (576000)
I0407 23:13:57.582680 29122 net.cpp:165] Memory required for data: 1798400000
I0407 23:13:57.582690 29122 layer_factory.hpp:77] Creating layer conv6_2_prescale
I0407 23:13:57.582700 29122 net.cpp:100] Creating Layer conv6_2_prescale
I0407 23:13:57.582705 29122 net.cpp:434] conv6_2_prescale <- conv6_2
I0407 23:13:57.582715 29122 net.cpp:395] conv6_2_prescale -> conv6_2 (in-place)
I0407 23:13:57.582882 29122 net.cpp:150] Setting up conv6_2_prescale
I0407 23:13:57.582895 29122 net.cpp:157] Top shape: 64 250 6 6 (576000)
I0407 23:13:57.582898 29122 net.cpp:165] Memory required for data: 1800704000
I0407 23:13:57.582904 29122 layer_factory.hpp:77] Creating layer conv6_2_sTanH
I0407 23:13:57.582912 29122 net.cpp:100] Creating Layer conv6_2_sTanH
I0407 23:13:57.582917 29122 net.cpp:434] conv6_2_sTanH <- conv6_2
I0407 23:13:57.582942 29122 net.cpp:395] conv6_2_sTanH -> conv6_2 (in-place)
I0407 23:13:57.583211 29122 net.cpp:150] Setting up conv6_2_sTanH
I0407 23:13:57.583225 29122 net.cpp:157] Top shape: 64 250 6 6 (576000)
I0407 23:13:57.583230 29122 net.cpp:165] Memory required for data: 1803008000
I0407 23:13:57.583235 29122 layer_factory.hpp:77] Creating layer conv6_2_postscale
I0407 23:13:57.583243 29122 net.cpp:100] Creating Layer conv6_2_postscale
I0407 23:13:57.583248 29122 net.cpp:434] conv6_2_postscale <- conv6_2
I0407 23:13:57.583258 29122 net.cpp:395] conv6_2_postscale -> conv6_2 (in-place)
I0407 23:13:57.583418 29122 net.cpp:150] Setting up conv6_2_postscale
I0407 23:13:57.583431 29122 net.cpp:157] Top shape: 64 250 6 6 (576000)
I0407 23:13:57.583434 29122 net.cpp:165] Memory required for data: 1805312000
I0407 23:13:57.583441 29122 layer_factory.hpp:77] Creating layer pool6_2
I0407 23:13:57.583449 29122 net.cpp:100] Creating Layer pool6_2
I0407 23:13:57.583453 29122 net.cpp:434] pool6_2 <- conv6_2
I0407 23:13:57.583462 29122 net.cpp:408] pool6_2 -> pool6_2
I0407 23:13:57.583528 29122 net.cpp:150] Setting up pool6_2
I0407 23:13:57.583539 29122 net.cpp:157] Top shape: 64 250 3 3 (144000)
I0407 23:13:57.583544 29122 net.cpp:165] Memory required for data: 1805888000
I0407 23:13:57.583547 29122 layer_factory.hpp:77] Creating layer fc6_4_300
I0407 23:13:57.583554 29122 net.cpp:100] Creating Layer fc6_4_300
I0407 23:13:57.583559 29122 net.cpp:434] fc6_4_300 <- pool6_2
I0407 23:13:57.583567 29122 net.cpp:408] fc6_4_300 -> fc6_4
I0407 23:13:57.590565 29122 net.cpp:150] Setting up fc6_4_300
I0407 23:13:57.590584 29122 net.cpp:157] Top shape: 64 300 (19200)
I0407 23:13:57.590590 29122 net.cpp:165] Memory required for data: 1805964800
I0407 23:13:57.590597 29122 layer_factory.hpp:77] Creating layer fc6_4_prescale
I0407 23:13:57.590608 29122 net.cpp:100] Creating Layer fc6_4_prescale
I0407 23:13:57.590613 29122 net.cpp:434] fc6_4_prescale <- fc6_4
I0407 23:13:57.590622 29122 net.cpp:395] fc6_4_prescale -> fc6_4 (in-place)
I0407 23:13:57.590765 29122 net.cpp:150] Setting up fc6_4_prescale
I0407 23:13:57.590776 29122 net.cpp:157] Top shape: 64 300 (19200)
I0407 23:13:57.590780 29122 net.cpp:165] Memory required for data: 1806041600
I0407 23:13:57.590786 29122 layer_factory.hpp:77] Creating layer fc6_4_sTanH
I0407 23:13:57.590793 29122 net.cpp:100] Creating Layer fc6_4_sTanH
I0407 23:13:57.590797 29122 net.cpp:434] fc6_4_sTanH <- fc6_4
I0407 23:13:57.590803 29122 net.cpp:395] fc6_4_sTanH -> fc6_4 (in-place)
I0407 23:13:57.591064 29122 net.cpp:150] Setting up fc6_4_sTanH
I0407 23:13:57.591078 29122 net.cpp:157] Top shape: 64 300 (19200)
I0407 23:13:57.591081 29122 net.cpp:165] Memory required for data: 1806118400
I0407 23:13:57.591086 29122 layer_factory.hpp:77] Creating layer fc6_4_postscale
I0407 23:13:57.591095 29122 net.cpp:100] Creating Layer fc6_4_postscale
I0407 23:13:57.591100 29122 net.cpp:434] fc6_4_postscale <- fc6_4
I0407 23:13:57.591107 29122 net.cpp:395] fc6_4_postscale -> fc6_4 (in-place)
I0407 23:13:57.591262 29122 net.cpp:150] Setting up fc6_4_postscale
I0407 23:13:57.591274 29122 net.cpp:157] Top shape: 64 300 (19200)
I0407 23:13:57.591276 29122 net.cpp:165] Memory required for data: 1806195200
I0407 23:13:57.591282 29122 layer_factory.hpp:77] Creating layer drop6_4
I0407 23:13:57.591291 29122 net.cpp:100] Creating Layer drop6_4
I0407 23:13:57.591297 29122 net.cpp:434] drop6_4 <- fc6_4
I0407 23:13:57.591303 29122 net.cpp:395] drop6_4 -> fc6_4 (in-place)
I0407 23:13:57.591341 29122 net.cpp:150] Setting up drop6_4
I0407 23:13:57.591349 29122 net.cpp:157] Top shape: 64 300 (19200)
I0407 23:13:57.591353 29122 net.cpp:165] Memory required for data: 1806272000
I0407 23:13:57.591357 29122 layer_factory.hpp:77] Creating layer fc6_5_67
I0407 23:13:57.591364 29122 net.cpp:100] Creating Layer fc6_5_67
I0407 23:13:57.591368 29122 net.cpp:434] fc6_5_67 <- fc6_4
I0407 23:13:57.591377 29122 net.cpp:408] fc6_5_67 -> fc6_5
I0407 23:13:57.591709 29122 net.cpp:150] Setting up fc6_5_67
I0407 23:13:57.591720 29122 net.cpp:157] Top shape: 64 67 (4288)
I0407 23:13:57.591738 29122 net.cpp:165] Memory required for data: 1806289152
I0407 23:13:57.591747 29122 layer_factory.hpp:77] Creating layer softmax_6
I0407 23:13:57.591755 29122 net.cpp:100] Creating Layer softmax_6
I0407 23:13:57.591759 29122 net.cpp:434] softmax_6 <- fc6_5
I0407 23:13:57.591768 29122 net.cpp:408] softmax_6 -> softmax_6
I0407 23:13:57.592134 29122 net.cpp:150] Setting up softmax_6
I0407 23:13:57.592151 29122 net.cpp:157] Top shape: 64 67 (4288)
I0407 23:13:57.592155 29122 net.cpp:165] Memory required for data: 1806306304
I0407 23:13:57.592159 29122 layer_factory.hpp:77] Creating layer conv7_0
I0407 23:13:57.592171 29122 net.cpp:100] Creating Layer conv7_0
I0407 23:13:57.592176 29122 net.cpp:434] conv7_0 <- data_1_data_1_0_split_2
I0407 23:13:57.592185 29122 net.cpp:408] conv7_0 -> conv7_0
I0407 23:13:57.594280 29122 net.cpp:150] Setting up conv7_0
I0407 23:13:57.594300 29122 net.cpp:157] Top shape: 64 100 42 42 (11289600)
I0407 23:13:57.594305 29122 net.cpp:165] Memory required for data: 1851464704
I0407 23:13:57.594313 29122 layer_factory.hpp:77] Creating layer conv7_0_prescale
I0407 23:13:57.594322 29122 net.cpp:100] Creating Layer conv7_0_prescale
I0407 23:13:57.594327 29122 net.cpp:434] conv7_0_prescale <- conv7_0
I0407 23:13:57.594338 29122 net.cpp:395] conv7_0_prescale -> conv7_0 (in-place)
I0407 23:13:57.594496 29122 net.cpp:150] Setting up conv7_0_prescale
I0407 23:13:57.594507 29122 net.cpp:157] Top shape: 64 100 42 42 (11289600)
I0407 23:13:57.594511 29122 net.cpp:165] Memory required for data: 1896623104
I0407 23:13:57.594537 29122 layer_factory.hpp:77] Creating layer conv7_0_sTanH
I0407 23:13:57.594547 29122 net.cpp:100] Creating Layer conv7_0_sTanH
I0407 23:13:57.594552 29122 net.cpp:434] conv7_0_sTanH <- conv7_0
I0407 23:13:57.594560 29122 net.cpp:395] conv7_0_sTanH -> conv7_0 (in-place)
I0407 23:13:57.595613 29122 net.cpp:150] Setting up conv7_0_sTanH
I0407 23:13:57.595633 29122 net.cpp:157] Top shape: 64 100 42 42 (11289600)
I0407 23:13:57.595638 29122 net.cpp:165] Memory required for data: 1941781504
I0407 23:13:57.595641 29122 layer_factory.hpp:77] Creating layer conv7_0_postscale
I0407 23:13:57.595652 29122 net.cpp:100] Creating Layer conv7_0_postscale
I0407 23:13:57.595657 29122 net.cpp:434] conv7_0_postscale <- conv7_0
I0407 23:13:57.595666 29122 net.cpp:395] conv7_0_postscale -> conv7_0 (in-place)
I0407 23:13:57.595831 29122 net.cpp:150] Setting up conv7_0_postscale
I0407 23:13:57.595844 29122 net.cpp:157] Top shape: 64 100 42 42 (11289600)
I0407 23:13:57.595847 29122 net.cpp:165] Memory required for data: 1986939904
I0407 23:13:57.595854 29122 layer_factory.hpp:77] Creating layer pool7_0
I0407 23:13:57.595865 29122 net.cpp:100] Creating Layer pool7_0
I0407 23:13:57.595870 29122 net.cpp:434] pool7_0 <- conv7_0
I0407 23:13:57.595886 29122 net.cpp:408] pool7_0 -> pool7_0
I0407 23:13:57.595964 29122 net.cpp:150] Setting up pool7_0
I0407 23:13:57.595975 29122 net.cpp:157] Top shape: 64 100 21 21 (2822400)
I0407 23:13:57.595979 29122 net.cpp:165] Memory required for data: 1998229504
I0407 23:13:57.595984 29122 layer_factory.hpp:77] Creating layer conv7_1
I0407 23:13:57.595995 29122 net.cpp:100] Creating Layer conv7_1
I0407 23:13:57.596001 29122 net.cpp:434] conv7_1 <- pool7_0
I0407 23:13:57.596010 29122 net.cpp:408] conv7_1 -> conv7_1
I0407 23:13:57.599697 29122 net.cpp:150] Setting up conv7_1
I0407 23:13:57.599720 29122 net.cpp:157] Top shape: 64 150 18 18 (3110400)
I0407 23:13:57.599727 29122 net.cpp:165] Memory required for data: 2010671104
I0407 23:13:57.599735 29122 layer_factory.hpp:77] Creating layer conv7_1_prescale
I0407 23:13:57.599745 29122 net.cpp:100] Creating Layer conv7_1_prescale
I0407 23:13:57.599750 29122 net.cpp:434] conv7_1_prescale <- conv7_1
I0407 23:13:57.599758 29122 net.cpp:395] conv7_1_prescale -> conv7_1 (in-place)
I0407 23:13:57.599917 29122 net.cpp:150] Setting up conv7_1_prescale
I0407 23:13:57.599930 29122 net.cpp:157] Top shape: 64 150 18 18 (3110400)
I0407 23:13:57.599933 29122 net.cpp:165] Memory required for data: 2023112704
I0407 23:13:57.599939 29122 layer_factory.hpp:77] Creating layer conv7_1_sTanH
I0407 23:13:57.599963 29122 net.cpp:100] Creating Layer conv7_1_sTanH
I0407 23:13:57.599969 29122 net.cpp:434] conv7_1_sTanH <- conv7_1
I0407 23:13:57.599975 29122 net.cpp:395] conv7_1_sTanH -> conv7_1 (in-place)
I0407 23:13:57.600221 29122 net.cpp:150] Setting up conv7_1_sTanH
I0407 23:13:57.600234 29122 net.cpp:157] Top shape: 64 150 18 18 (3110400)
I0407 23:13:57.600239 29122 net.cpp:165] Memory required for data: 2035554304
I0407 23:13:57.600242 29122 layer_factory.hpp:77] Creating layer conv7_1_postscale
I0407 23:13:57.600253 29122 net.cpp:100] Creating Layer conv7_1_postscale
I0407 23:13:57.600260 29122 net.cpp:434] conv7_1_postscale <- conv7_1
I0407 23:13:57.600265 29122 net.cpp:395] conv7_1_postscale -> conv7_1 (in-place)
I0407 23:13:57.600416 29122 net.cpp:150] Setting up conv7_1_postscale
I0407 23:13:57.600426 29122 net.cpp:157] Top shape: 64 150 18 18 (3110400)
I0407 23:13:57.600430 29122 net.cpp:165] Memory required for data: 2047995904
I0407 23:13:57.600436 29122 layer_factory.hpp:77] Creating layer pool7_1
I0407 23:13:57.600446 29122 net.cpp:100] Creating Layer pool7_1
I0407 23:13:57.600451 29122 net.cpp:434] pool7_1 <- conv7_1
I0407 23:13:57.600458 29122 net.cpp:408] pool7_1 -> pool7_1
I0407 23:13:57.600519 29122 net.cpp:150] Setting up pool7_1
I0407 23:13:57.600529 29122 net.cpp:157] Top shape: 64 150 9 9 (777600)
I0407 23:13:57.600533 29122 net.cpp:165] Memory required for data: 2051106304
I0407 23:13:57.600536 29122 layer_factory.hpp:77] Creating layer conv7_2
I0407 23:13:57.600548 29122 net.cpp:100] Creating Layer conv7_2
I0407 23:13:57.600554 29122 net.cpp:434] conv7_2 <- pool7_1
I0407 23:13:57.600561 29122 net.cpp:408] conv7_2 -> conv7_2
I0407 23:13:57.608255 29122 net.cpp:150] Setting up conv7_2
I0407 23:13:57.608276 29122 net.cpp:157] Top shape: 64 250 6 6 (576000)
I0407 23:13:57.608281 29122 net.cpp:165] Memory required for data: 2053410304
I0407 23:13:57.608289 29122 layer_factory.hpp:77] Creating layer conv7_2_prescale
I0407 23:13:57.608300 29122 net.cpp:100] Creating Layer conv7_2_prescale
I0407 23:13:57.608309 29122 net.cpp:434] conv7_2_prescale <- conv7_2
I0407 23:13:57.608317 29122 net.cpp:395] conv7_2_prescale -> conv7_2 (in-place)
I0407 23:13:57.608467 29122 net.cpp:150] Setting up conv7_2_prescale
I0407 23:13:57.608479 29122 net.cpp:157] Top shape: 64 250 6 6 (576000)
I0407 23:13:57.608484 29122 net.cpp:165] Memory required for data: 2055714304
I0407 23:13:57.608489 29122 layer_factory.hpp:77] Creating layer conv7_2_sTanH
I0407 23:13:57.608497 29122 net.cpp:100] Creating Layer conv7_2_sTanH
I0407 23:13:57.608502 29122 net.cpp:434] conv7_2_sTanH <- conv7_2
I0407 23:13:57.608508 29122 net.cpp:395] conv7_2_sTanH -> conv7_2 (in-place)
I0407 23:13:57.608754 29122 net.cpp:150] Setting up conv7_2_sTanH
I0407 23:13:57.608768 29122 net.cpp:157] Top shape: 64 250 6 6 (576000)
I0407 23:13:57.608772 29122 net.cpp:165] Memory required for data: 2058018304
I0407 23:13:57.608777 29122 layer_factory.hpp:77] Creating layer conv7_2_postscale
I0407 23:13:57.608783 29122 net.cpp:100] Creating Layer conv7_2_postscale
I0407 23:13:57.608791 29122 net.cpp:434] conv7_2_postscale <- conv7_2
I0407 23:13:57.608800 29122 net.cpp:395] conv7_2_postscale -> conv7_2 (in-place)
I0407 23:13:57.608952 29122 net.cpp:150] Setting up conv7_2_postscale
I0407 23:13:57.608961 29122 net.cpp:157] Top shape: 64 250 6 6 (576000)
I0407 23:13:57.608965 29122 net.cpp:165] Memory required for data: 2060322304
I0407 23:13:57.608971 29122 layer_factory.hpp:77] Creating layer pool7_2
I0407 23:13:57.608978 29122 net.cpp:100] Creating Layer pool7_2
I0407 23:13:57.608983 29122 net.cpp:434] pool7_2 <- conv7_2
I0407 23:13:57.608990 29122 net.cpp:408] pool7_2 -> pool7_2
I0407 23:13:57.609051 29122 net.cpp:150] Setting up pool7_2
I0407 23:13:57.609061 29122 net.cpp:157] Top shape: 64 250 3 3 (144000)
I0407 23:13:57.609066 29122 net.cpp:165] Memory required for data: 2060898304
I0407 23:13:57.609069 29122 layer_factory.hpp:77] Creating layer fc7_4_300
I0407 23:13:57.609076 29122 net.cpp:100] Creating Layer fc7_4_300
I0407 23:13:57.609097 29122 net.cpp:434] fc7_4_300 <- pool7_2
I0407 23:13:57.609107 29122 net.cpp:408] fc7_4_300 -> fc7_4
I0407 23:13:57.615726 29122 net.cpp:150] Setting up fc7_4_300
I0407 23:13:57.615746 29122 net.cpp:157] Top shape: 64 300 (19200)
I0407 23:13:57.615751 29122 net.cpp:165] Memory required for data: 2060975104
I0407 23:13:57.615758 29122 layer_factory.hpp:77] Creating layer fc7_4_prescale
I0407 23:13:57.615767 29122 net.cpp:100] Creating Layer fc7_4_prescale
I0407 23:13:57.615772 29122 net.cpp:434] fc7_4_prescale <- fc7_4
I0407 23:13:57.615780 29122 net.cpp:395] fc7_4_prescale -> fc7_4 (in-place)
I0407 23:13:57.615931 29122 net.cpp:150] Setting up fc7_4_prescale
I0407 23:13:57.615942 29122 net.cpp:157] Top shape: 64 300 (19200)
I0407 23:13:57.615945 29122 net.cpp:165] Memory required for data: 2061051904
I0407 23:13:57.615950 29122 layer_factory.hpp:77] Creating layer fc7_4_sTanH
I0407 23:13:57.615957 29122 net.cpp:100] Creating Layer fc7_4_sTanH
I0407 23:13:57.615962 29122 net.cpp:434] fc7_4_sTanH <- fc7_4
I0407 23:13:57.615967 29122 net.cpp:395] fc7_4_sTanH -> fc7_4 (in-place)
I0407 23:13:57.616221 29122 net.cpp:150] Setting up fc7_4_sTanH
I0407 23:13:57.616235 29122 net.cpp:157] Top shape: 64 300 (19200)
I0407 23:13:57.616237 29122 net.cpp:165] Memory required for data: 2061128704
I0407 23:13:57.616241 29122 layer_factory.hpp:77] Creating layer fc7_4_postscale
I0407 23:13:57.616250 29122 net.cpp:100] Creating Layer fc7_4_postscale
I0407 23:13:57.616253 29122 net.cpp:434] fc7_4_postscale <- fc7_4
I0407 23:13:57.616261 29122 net.cpp:395] fc7_4_postscale -> fc7_4 (in-place)
I0407 23:13:57.616417 29122 net.cpp:150] Setting up fc7_4_postscale
I0407 23:13:57.616427 29122 net.cpp:157] Top shape: 64 300 (19200)
I0407 23:13:57.616431 29122 net.cpp:165] Memory required for data: 2061205504
I0407 23:13:57.616436 29122 layer_factory.hpp:77] Creating layer drop7_4
I0407 23:13:57.616443 29122 net.cpp:100] Creating Layer drop7_4
I0407 23:13:57.616448 29122 net.cpp:434] drop7_4 <- fc7_4
I0407 23:13:57.616456 29122 net.cpp:395] drop7_4 -> fc7_4 (in-place)
I0407 23:13:57.616492 29122 net.cpp:150] Setting up drop7_4
I0407 23:13:57.616500 29122 net.cpp:157] Top shape: 64 300 (19200)
I0407 23:13:57.616504 29122 net.cpp:165] Memory required for data: 2061282304
I0407 23:13:57.616508 29122 layer_factory.hpp:77] Creating layer fc7_5_67
I0407 23:13:57.616514 29122 net.cpp:100] Creating Layer fc7_5_67
I0407 23:13:57.616518 29122 net.cpp:434] fc7_5_67 <- fc7_4
I0407 23:13:57.616528 29122 net.cpp:408] fc7_5_67 -> fc7_5
I0407 23:13:57.616852 29122 net.cpp:150] Setting up fc7_5_67
I0407 23:13:57.616863 29122 net.cpp:157] Top shape: 64 67 (4288)
I0407 23:13:57.616866 29122 net.cpp:165] Memory required for data: 2061299456
I0407 23:13:57.616873 29122 layer_factory.hpp:77] Creating layer softmax_7
I0407 23:13:57.616881 29122 net.cpp:100] Creating Layer softmax_7
I0407 23:13:57.616886 29122 net.cpp:434] softmax_7 <- fc7_5
I0407 23:13:57.616892 29122 net.cpp:408] softmax_7 -> softmax_7
I0407 23:13:57.617986 29122 net.cpp:150] Setting up softmax_7
I0407 23:13:57.618005 29122 net.cpp:157] Top shape: 64 67 (4288)
I0407 23:13:57.618008 29122 net.cpp:165] Memory required for data: 2061316608
I0407 23:13:57.618012 29122 layer_factory.hpp:77] Creating layer conv8_0
I0407 23:13:57.618026 29122 net.cpp:100] Creating Layer conv8_0
I0407 23:13:57.618031 29122 net.cpp:434] conv8_0 <- data_1_data_1_0_split_3
I0407 23:13:57.618039 29122 net.cpp:408] conv8_0 -> conv8_0
I0407 23:13:57.620046 29122 net.cpp:150] Setting up conv8_0
I0407 23:13:57.620066 29122 net.cpp:157] Top shape: 64 100 42 42 (11289600)
I0407 23:13:57.620071 29122 net.cpp:165] Memory required for data: 2106475008
I0407 23:13:57.620080 29122 layer_factory.hpp:77] Creating layer conv8_0_prescale
I0407 23:13:57.620088 29122 net.cpp:100] Creating Layer conv8_0_prescale
I0407 23:13:57.620093 29122 net.cpp:434] conv8_0_prescale <- conv8_0
I0407 23:13:57.620103 29122 net.cpp:395] conv8_0_prescale -> conv8_0 (in-place)
I0407 23:13:57.620265 29122 net.cpp:150] Setting up conv8_0_prescale
I0407 23:13:57.620291 29122 net.cpp:157] Top shape: 64 100 42 42 (11289600)
I0407 23:13:57.620296 29122 net.cpp:165] Memory required for data: 2151633408
I0407 23:13:57.620302 29122 layer_factory.hpp:77] Creating layer conv8_0_sTanH
I0407 23:13:57.620311 29122 net.cpp:100] Creating Layer conv8_0_sTanH
I0407 23:13:57.620314 29122 net.cpp:434] conv8_0_sTanH <- conv8_0
I0407 23:13:57.620322 29122 net.cpp:395] conv8_0_sTanH -> conv8_0 (in-place)
I0407 23:13:57.621341 29122 net.cpp:150] Setting up conv8_0_sTanH
I0407 23:13:57.621362 29122 net.cpp:157] Top shape: 64 100 42 42 (11289600)
I0407 23:13:57.621366 29122 net.cpp:165] Memory required for data: 2196791808
I0407 23:13:57.621371 29122 layer_factory.hpp:77] Creating layer conv8_0_postscale
I0407 23:13:57.621379 29122 net.cpp:100] Creating Layer conv8_0_postscale
I0407 23:13:57.621384 29122 net.cpp:434] conv8_0_postscale <- conv8_0
I0407 23:13:57.621394 29122 net.cpp:395] conv8_0_postscale -> conv8_0 (in-place)
I0407 23:13:57.621558 29122 net.cpp:150] Setting up conv8_0_postscale
I0407 23:13:57.621569 29122 net.cpp:157] Top shape: 64 100 42 42 (11289600)
I0407 23:13:57.621573 29122 net.cpp:165] Memory required for data: 2241950208
I0407 23:13:57.621579 29122 layer_factory.hpp:77] Creating layer pool8_0
I0407 23:13:57.621587 29122 net.cpp:100] Creating Layer pool8_0
I0407 23:13:57.621593 29122 net.cpp:434] pool8_0 <- conv8_0
I0407 23:13:57.621599 29122 net.cpp:408] pool8_0 -> pool8_0
I0407 23:13:57.621661 29122 net.cpp:150] Setting up pool8_0
I0407 23:13:57.621671 29122 net.cpp:157] Top shape: 64 100 21 21 (2822400)
I0407 23:13:57.621675 29122 net.cpp:165] Memory required for data: 2253239808
I0407 23:13:57.621680 29122 layer_factory.hpp:77] Creating layer conv8_1
I0407 23:13:57.621690 29122 net.cpp:100] Creating Layer conv8_1
I0407 23:13:57.621695 29122 net.cpp:434] conv8_1 <- pool8_0
I0407 23:13:57.621704 29122 net.cpp:408] conv8_1 -> conv8_1
I0407 23:13:57.626631 29122 net.cpp:150] Setting up conv8_1
I0407 23:13:57.626652 29122 net.cpp:157] Top shape: 64 150 18 18 (3110400)
I0407 23:13:57.626657 29122 net.cpp:165] Memory required for data: 2265681408
I0407 23:13:57.626667 29122 layer_factory.hpp:77] Creating layer conv8_1_prescale
I0407 23:13:57.626675 29122 net.cpp:100] Creating Layer conv8_1_prescale
I0407 23:13:57.626682 29122 net.cpp:434] conv8_1_prescale <- conv8_1
I0407 23:13:57.626690 29122 net.cpp:395] conv8_1_prescale -> conv8_1 (in-place)
I0407 23:13:57.626847 29122 net.cpp:150] Setting up conv8_1_prescale
I0407 23:13:57.626857 29122 net.cpp:157] Top shape: 64 150 18 18 (3110400)
I0407 23:13:57.626862 29122 net.cpp:165] Memory required for data: 2278123008
I0407 23:13:57.626868 29122 layer_factory.hpp:77] Creating layer conv8_1_sTanH
I0407 23:13:57.626874 29122 net.cpp:100] Creating Layer conv8_1_sTanH
I0407 23:13:57.626878 29122 net.cpp:434] conv8_1_sTanH <- conv8_1
I0407 23:13:57.626885 29122 net.cpp:395] conv8_1_sTanH -> conv8_1 (in-place)
I0407 23:13:57.627127 29122 net.cpp:150] Setting up conv8_1_sTanH
I0407 23:13:57.627141 29122 net.cpp:157] Top shape: 64 150 18 18 (3110400)
I0407 23:13:57.627144 29122 net.cpp:165] Memory required for data: 2290564608
I0407 23:13:57.627149 29122 layer_factory.hpp:77] Creating layer conv8_1_postscale
I0407 23:13:57.627161 29122 net.cpp:100] Creating Layer conv8_1_postscale
I0407 23:13:57.627167 29122 net.cpp:434] conv8_1_postscale <- conv8_1
I0407 23:13:57.627176 29122 net.cpp:395] conv8_1_postscale -> conv8_1 (in-place)
I0407 23:13:57.627326 29122 net.cpp:150] Setting up conv8_1_postscale
I0407 23:13:57.627336 29122 net.cpp:157] Top shape: 64 150 18 18 (3110400)
I0407 23:13:57.627341 29122 net.cpp:165] Memory required for data: 2303006208
I0407 23:13:57.627346 29122 layer_factory.hpp:77] Creating layer pool8_1
I0407 23:13:57.627359 29122 net.cpp:100] Creating Layer pool8_1
I0407 23:13:57.627365 29122 net.cpp:434] pool8_1 <- conv8_1
I0407 23:13:57.627374 29122 net.cpp:408] pool8_1 -> pool8_1
I0407 23:13:57.627437 29122 net.cpp:150] Setting up pool8_1
I0407 23:13:57.627447 29122 net.cpp:157] Top shape: 64 150 9 9 (777600)
I0407 23:13:57.627465 29122 net.cpp:165] Memory required for data: 2306116608
I0407 23:13:57.627470 29122 layer_factory.hpp:77] Creating layer conv8_2
I0407 23:13:57.627483 29122 net.cpp:100] Creating Layer conv8_2
I0407 23:13:57.627490 29122 net.cpp:434] conv8_2 <- pool8_1
I0407 23:13:57.627498 29122 net.cpp:408] conv8_2 -> conv8_2
I0407 23:13:57.635239 29122 net.cpp:150] Setting up conv8_2
I0407 23:13:57.635260 29122 net.cpp:157] Top shape: 64 250 6 6 (576000)
I0407 23:13:57.635264 29122 net.cpp:165] Memory required for data: 2308420608
I0407 23:13:57.635273 29122 layer_factory.hpp:77] Creating layer conv8_2_prescale
I0407 23:13:57.635284 29122 net.cpp:100] Creating Layer conv8_2_prescale
I0407 23:13:57.635289 29122 net.cpp:434] conv8_2_prescale <- conv8_2
I0407 23:13:57.635298 29122 net.cpp:395] conv8_2_prescale -> conv8_2 (in-place)
I0407 23:13:57.635447 29122 net.cpp:150] Setting up conv8_2_prescale
I0407 23:13:57.635458 29122 net.cpp:157] Top shape: 64 250 6 6 (576000)
I0407 23:13:57.635462 29122 net.cpp:165] Memory required for data: 2310724608
I0407 23:13:57.635468 29122 layer_factory.hpp:77] Creating layer conv8_2_sTanH
I0407 23:13:57.635476 29122 net.cpp:100] Creating Layer conv8_2_sTanH
I0407 23:13:57.635483 29122 net.cpp:434] conv8_2_sTanH <- conv8_2
I0407 23:13:57.635488 29122 net.cpp:395] conv8_2_sTanH -> conv8_2 (in-place)
I0407 23:13:57.635730 29122 net.cpp:150] Setting up conv8_2_sTanH
I0407 23:13:57.635743 29122 net.cpp:157] Top shape: 64 250 6 6 (576000)
I0407 23:13:57.635747 29122 net.cpp:165] Memory required for data: 2313028608
I0407 23:13:57.635751 29122 layer_factory.hpp:77] Creating layer conv8_2_postscale
I0407 23:13:57.635758 29122 net.cpp:100] Creating Layer conv8_2_postscale
I0407 23:13:57.635766 29122 net.cpp:434] conv8_2_postscale <- conv8_2
I0407 23:13:57.635774 29122 net.cpp:395] conv8_2_postscale -> conv8_2 (in-place)
I0407 23:13:57.635934 29122 net.cpp:150] Setting up conv8_2_postscale
I0407 23:13:57.635946 29122 net.cpp:157] Top shape: 64 250 6 6 (576000)
I0407 23:13:57.635949 29122 net.cpp:165] Memory required for data: 2315332608
I0407 23:13:57.635956 29122 layer_factory.hpp:77] Creating layer pool8_2
I0407 23:13:57.635963 29122 net.cpp:100] Creating Layer pool8_2
I0407 23:13:57.635967 29122 net.cpp:434] pool8_2 <- conv8_2
I0407 23:13:57.635977 29122 net.cpp:408] pool8_2 -> pool8_2
I0407 23:13:57.636040 29122 net.cpp:150] Setting up pool8_2
I0407 23:13:57.636050 29122 net.cpp:157] Top shape: 64 250 3 3 (144000)
I0407 23:13:57.636054 29122 net.cpp:165] Memory required for data: 2315908608
I0407 23:13:57.636057 29122 layer_factory.hpp:77] Creating layer fc8_4_300
I0407 23:13:57.636065 29122 net.cpp:100] Creating Layer fc8_4_300
I0407 23:13:57.636070 29122 net.cpp:434] fc8_4_300 <- pool8_2
I0407 23:13:57.636077 29122 net.cpp:408] fc8_4_300 -> fc8_4
I0407 23:13:57.642714 29122 net.cpp:150] Setting up fc8_4_300
I0407 23:13:57.642735 29122 net.cpp:157] Top shape: 64 300 (19200)
I0407 23:13:57.642738 29122 net.cpp:165] Memory required for data: 2315985408
I0407 23:13:57.642747 29122 layer_factory.hpp:77] Creating layer fc8_4_prescale
I0407 23:13:57.642755 29122 net.cpp:100] Creating Layer fc8_4_prescale
I0407 23:13:57.642760 29122 net.cpp:434] fc8_4_prescale <- fc8_4
I0407 23:13:57.642769 29122 net.cpp:395] fc8_4_prescale -> fc8_4 (in-place)
I0407 23:13:57.642915 29122 net.cpp:150] Setting up fc8_4_prescale
I0407 23:13:57.642925 29122 net.cpp:157] Top shape: 64 300 (19200)
I0407 23:13:57.642928 29122 net.cpp:165] Memory required for data: 2316062208
I0407 23:13:57.642935 29122 layer_factory.hpp:77] Creating layer fc8_4_sTanH
I0407 23:13:57.642941 29122 net.cpp:100] Creating Layer fc8_4_sTanH
I0407 23:13:57.642946 29122 net.cpp:434] fc8_4_sTanH <- fc8_4
I0407 23:13:57.642951 29122 net.cpp:395] fc8_4_sTanH -> fc8_4 (in-place)
I0407 23:13:57.643204 29122 net.cpp:150] Setting up fc8_4_sTanH
I0407 23:13:57.643218 29122 net.cpp:157] Top shape: 64 300 (19200)
I0407 23:13:57.643221 29122 net.cpp:165] Memory required for data: 2316139008
I0407 23:13:57.643225 29122 layer_factory.hpp:77] Creating layer fc8_4_postscale
I0407 23:13:57.643249 29122 net.cpp:100] Creating Layer fc8_4_postscale
I0407 23:13:57.643254 29122 net.cpp:434] fc8_4_postscale <- fc8_4
I0407 23:13:57.643262 29122 net.cpp:395] fc8_4_postscale -> fc8_4 (in-place)
I0407 23:13:57.643420 29122 net.cpp:150] Setting up fc8_4_postscale
I0407 23:13:57.643429 29122 net.cpp:157] Top shape: 64 300 (19200)
I0407 23:13:57.643434 29122 net.cpp:165] Memory required for data: 2316215808
I0407 23:13:57.643440 29122 layer_factory.hpp:77] Creating layer drop8_4
I0407 23:13:57.643446 29122 net.cpp:100] Creating Layer drop8_4
I0407 23:13:57.643450 29122 net.cpp:434] drop8_4 <- fc8_4
I0407 23:13:57.643458 29122 net.cpp:395] drop8_4 -> fc8_4 (in-place)
I0407 23:13:57.643494 29122 net.cpp:150] Setting up drop8_4
I0407 23:13:57.643503 29122 net.cpp:157] Top shape: 64 300 (19200)
I0407 23:13:57.643507 29122 net.cpp:165] Memory required for data: 2316292608
I0407 23:13:57.643510 29122 layer_factory.hpp:77] Creating layer fc8_5_67
I0407 23:13:57.643517 29122 net.cpp:100] Creating Layer fc8_5_67
I0407 23:13:57.643522 29122 net.cpp:434] fc8_5_67 <- fc8_4
I0407 23:13:57.643529 29122 net.cpp:408] fc8_5_67 -> fc8_5
I0407 23:13:57.643857 29122 net.cpp:150] Setting up fc8_5_67
I0407 23:13:57.643867 29122 net.cpp:157] Top shape: 64 67 (4288)
I0407 23:13:57.643870 29122 net.cpp:165] Memory required for data: 2316309760
I0407 23:13:57.643887 29122 layer_factory.hpp:77] Creating layer softmax_8
I0407 23:13:57.643895 29122 net.cpp:100] Creating Layer softmax_8
I0407 23:13:57.643900 29122 net.cpp:434] softmax_8 <- fc8_5
I0407 23:13:57.643906 29122 net.cpp:408] softmax_8 -> softmax_8
I0407 23:13:57.645030 29122 net.cpp:150] Setting up softmax_8
I0407 23:13:57.645051 29122 net.cpp:157] Top shape: 64 67 (4288)
I0407 23:13:57.645054 29122 net.cpp:165] Memory required for data: 2316326912
I0407 23:13:57.645058 29122 layer_factory.hpp:77] Creating layer conv9_0
I0407 23:13:57.645069 29122 net.cpp:100] Creating Layer conv9_0
I0407 23:13:57.645074 29122 net.cpp:434] conv9_0 <- data_1_data_1_0_split_4
I0407 23:13:57.645084 29122 net.cpp:408] conv9_0 -> conv9_0
I0407 23:13:57.646339 29122 net.cpp:150] Setting up conv9_0
I0407 23:13:57.646358 29122 net.cpp:157] Top shape: 64 100 42 42 (11289600)
I0407 23:13:57.646361 29122 net.cpp:165] Memory required for data: 2361485312
I0407 23:13:57.646370 29122 layer_factory.hpp:77] Creating layer conv9_0_prescale
I0407 23:13:57.646381 29122 net.cpp:100] Creating Layer conv9_0_prescale
I0407 23:13:57.646386 29122 net.cpp:434] conv9_0_prescale <- conv9_0
I0407 23:13:57.646394 29122 net.cpp:395] conv9_0_prescale -> conv9_0 (in-place)
I0407 23:13:57.646546 29122 net.cpp:150] Setting up conv9_0_prescale
I0407 23:13:57.646558 29122 net.cpp:157] Top shape: 64 100 42 42 (11289600)
I0407 23:13:57.646561 29122 net.cpp:165] Memory required for data: 2406643712
I0407 23:13:57.646567 29122 layer_factory.hpp:77] Creating layer conv9_0_sTanH
I0407 23:13:57.646574 29122 net.cpp:100] Creating Layer conv9_0_sTanH
I0407 23:13:57.646582 29122 net.cpp:434] conv9_0_sTanH <- conv9_0
I0407 23:13:57.646589 29122 net.cpp:395] conv9_0_sTanH -> conv9_0 (in-place)
I0407 23:13:57.647611 29122 net.cpp:150] Setting up conv9_0_sTanH
I0407 23:13:57.647632 29122 net.cpp:157] Top shape: 64 100 42 42 (11289600)
I0407 23:13:57.647636 29122 net.cpp:165] Memory required for data: 2451802112
I0407 23:13:57.647641 29122 layer_factory.hpp:77] Creating layer conv9_0_postscale
I0407 23:13:57.647650 29122 net.cpp:100] Creating Layer conv9_0_postscale
I0407 23:13:57.647655 29122 net.cpp:434] conv9_0_postscale <- conv9_0
I0407 23:13:57.647663 29122 net.cpp:395] conv9_0_postscale -> conv9_0 (in-place)
I0407 23:13:57.647833 29122 net.cpp:150] Setting up conv9_0_postscale
I0407 23:13:57.647845 29122 net.cpp:157] Top shape: 64 100 42 42 (11289600)
I0407 23:13:57.647848 29122 net.cpp:165] Memory required for data: 2496960512
I0407 23:13:57.647855 29122 layer_factory.hpp:77] Creating layer pool9_0
I0407 23:13:57.647862 29122 net.cpp:100] Creating Layer pool9_0
I0407 23:13:57.647867 29122 net.cpp:434] pool9_0 <- conv9_0
I0407 23:13:57.647902 29122 net.cpp:408] pool9_0 -> pool9_0
I0407 23:13:57.647970 29122 net.cpp:150] Setting up pool9_0
I0407 23:13:57.647980 29122 net.cpp:157] Top shape: 64 100 21 21 (2822400)
I0407 23:13:57.647984 29122 net.cpp:165] Memory required for data: 2508250112
I0407 23:13:57.647989 29122 layer_factory.hpp:77] Creating layer conv9_1
I0407 23:13:57.648000 29122 net.cpp:100] Creating Layer conv9_1
I0407 23:13:57.648005 29122 net.cpp:434] conv9_1 <- pool9_0
I0407 23:13:57.648013 29122 net.cpp:408] conv9_1 -> conv9_1
I0407 23:13:57.651752 29122 net.cpp:150] Setting up conv9_1
I0407 23:13:57.651772 29122 net.cpp:157] Top shape: 64 150 18 18 (3110400)
I0407 23:13:57.651777 29122 net.cpp:165] Memory required for data: 2520691712
I0407 23:13:57.651785 29122 layer_factory.hpp:77] Creating layer conv9_1_prescale
I0407 23:13:57.651795 29122 net.cpp:100] Creating Layer conv9_1_prescale
I0407 23:13:57.651800 29122 net.cpp:434] conv9_1_prescale <- conv9_1
I0407 23:13:57.651808 29122 net.cpp:395] conv9_1_prescale -> conv9_1 (in-place)
I0407 23:13:57.651983 29122 net.cpp:150] Setting up conv9_1_prescale
I0407 23:13:57.651994 29122 net.cpp:157] Top shape: 64 150 18 18 (3110400)
I0407 23:13:57.651998 29122 net.cpp:165] Memory required for data: 2533133312
I0407 23:13:57.652004 29122 layer_factory.hpp:77] Creating layer conv9_1_sTanH
I0407 23:13:57.652011 29122 net.cpp:100] Creating Layer conv9_1_sTanH
I0407 23:13:57.652016 29122 net.cpp:434] conv9_1_sTanH <- conv9_1
I0407 23:13:57.652024 29122 net.cpp:395] conv9_1_sTanH -> conv9_1 (in-place)
I0407 23:13:57.652267 29122 net.cpp:150] Setting up conv9_1_sTanH
I0407 23:13:57.652281 29122 net.cpp:157] Top shape: 64 150 18 18 (3110400)
I0407 23:13:57.652284 29122 net.cpp:165] Memory required for data: 2545574912
I0407 23:13:57.652288 29122 layer_factory.hpp:77] Creating layer conv9_1_postscale
I0407 23:13:57.652297 29122 net.cpp:100] Creating Layer conv9_1_postscale
I0407 23:13:57.652304 29122 net.cpp:434] conv9_1_postscale <- conv9_1
I0407 23:13:57.652310 29122 net.cpp:395] conv9_1_postscale -> conv9_1 (in-place)
I0407 23:13:57.652467 29122 net.cpp:150] Setting up conv9_1_postscale
I0407 23:13:57.652477 29122 net.cpp:157] Top shape: 64 150 18 18 (3110400)
I0407 23:13:57.652482 29122 net.cpp:165] Memory required for data: 2558016512
I0407 23:13:57.652487 29122 layer_factory.hpp:77] Creating layer pool9_1
I0407 23:13:57.652496 29122 net.cpp:100] Creating Layer pool9_1
I0407 23:13:57.652503 29122 net.cpp:434] pool9_1 <- conv9_1
I0407 23:13:57.652508 29122 net.cpp:408] pool9_1 -> pool9_1
I0407 23:13:57.652572 29122 net.cpp:150] Setting up pool9_1
I0407 23:13:57.652582 29122 net.cpp:157] Top shape: 64 150 9 9 (777600)
I0407 23:13:57.652586 29122 net.cpp:165] Memory required for data: 2561126912
I0407 23:13:57.652590 29122 layer_factory.hpp:77] Creating layer conv9_2
I0407 23:13:57.652601 29122 net.cpp:100] Creating Layer conv9_2
I0407 23:13:57.652606 29122 net.cpp:434] conv9_2 <- pool9_1
I0407 23:13:57.652613 29122 net.cpp:408] conv9_2 -> conv9_2
I0407 23:13:57.660573 29122 net.cpp:150] Setting up conv9_2
I0407 23:13:57.660593 29122 net.cpp:157] Top shape: 64 250 6 6 (576000)
I0407 23:13:57.660598 29122 net.cpp:165] Memory required for data: 2563430912
I0407 23:13:57.660606 29122 layer_factory.hpp:77] Creating layer conv9_2_prescale
I0407 23:13:57.660617 29122 net.cpp:100] Creating Layer conv9_2_prescale
I0407 23:13:57.660622 29122 net.cpp:434] conv9_2_prescale <- conv9_2
I0407 23:13:57.660629 29122 net.cpp:395] conv9_2_prescale -> conv9_2 (in-place)
I0407 23:13:57.660787 29122 net.cpp:150] Setting up conv9_2_prescale
I0407 23:13:57.660799 29122 net.cpp:157] Top shape: 64 250 6 6 (576000)
I0407 23:13:57.660802 29122 net.cpp:165] Memory required for data: 2565734912
I0407 23:13:57.660809 29122 layer_factory.hpp:77] Creating layer conv9_2_sTanH
I0407 23:13:57.660816 29122 net.cpp:100] Creating Layer conv9_2_sTanH
I0407 23:13:57.660821 29122 net.cpp:434] conv9_2_sTanH <- conv9_2
I0407 23:13:57.660826 29122 net.cpp:395] conv9_2_sTanH -> conv9_2 (in-place)
I0407 23:13:57.661092 29122 net.cpp:150] Setting up conv9_2_sTanH
I0407 23:13:57.661108 29122 net.cpp:157] Top shape: 64 250 6 6 (576000)
I0407 23:13:57.661111 29122 net.cpp:165] Memory required for data: 2568038912
I0407 23:13:57.661115 29122 layer_factory.hpp:77] Creating layer conv9_2_postscale
I0407 23:13:57.661125 29122 net.cpp:100] Creating Layer conv9_2_postscale
I0407 23:13:57.661129 29122 net.cpp:434] conv9_2_postscale <- conv9_2
I0407 23:13:57.661137 29122 net.cpp:395] conv9_2_postscale -> conv9_2 (in-place)
I0407 23:13:57.661293 29122 net.cpp:150] Setting up conv9_2_postscale
I0407 23:13:57.661303 29122 net.cpp:157] Top shape: 64 250 6 6 (576000)
I0407 23:13:57.661306 29122 net.cpp:165] Memory required for data: 2570342912
I0407 23:13:57.661311 29122 layer_factory.hpp:77] Creating layer pool9_2
I0407 23:13:57.661319 29122 net.cpp:100] Creating Layer pool9_2
I0407 23:13:57.661324 29122 net.cpp:434] pool9_2 <- conv9_2
I0407 23:13:57.661331 29122 net.cpp:408] pool9_2 -> pool9_2
I0407 23:13:57.661392 29122 net.cpp:150] Setting up pool9_2
I0407 23:13:57.661404 29122 net.cpp:157] Top shape: 64 250 3 3 (144000)
I0407 23:13:57.661407 29122 net.cpp:165] Memory required for data: 2570918912
I0407 23:13:57.661412 29122 layer_factory.hpp:77] Creating layer fc9_4_300
I0407 23:13:57.661418 29122 net.cpp:100] Creating Layer fc9_4_300
I0407 23:13:57.661422 29122 net.cpp:434] fc9_4_300 <- pool9_2
I0407 23:13:57.661429 29122 net.cpp:408] fc9_4_300 -> fc9_4
I0407 23:13:57.669534 29122 net.cpp:150] Setting up fc9_4_300
I0407 23:13:57.669556 29122 net.cpp:157] Top shape: 64 300 (19200)
I0407 23:13:57.669560 29122 net.cpp:165] Memory required for data: 2570995712
I0407 23:13:57.669569 29122 layer_factory.hpp:77] Creating layer fc9_4_prescale
I0407 23:13:57.669577 29122 net.cpp:100] Creating Layer fc9_4_prescale
I0407 23:13:57.669582 29122 net.cpp:434] fc9_4_prescale <- fc9_4
I0407 23:13:57.669589 29122 net.cpp:395] fc9_4_prescale -> fc9_4 (in-place)
I0407 23:13:57.669734 29122 net.cpp:150] Setting up fc9_4_prescale
I0407 23:13:57.669744 29122 net.cpp:157] Top shape: 64 300 (19200)
I0407 23:13:57.669749 29122 net.cpp:165] Memory required for data: 2571072512
I0407 23:13:57.669754 29122 layer_factory.hpp:77] Creating layer fc9_4_sTanH
I0407 23:13:57.669760 29122 net.cpp:100] Creating Layer fc9_4_sTanH
I0407 23:13:57.669765 29122 net.cpp:434] fc9_4_sTanH <- fc9_4
I0407 23:13:57.669770 29122 net.cpp:395] fc9_4_sTanH -> fc9_4 (in-place)
I0407 23:13:57.670024 29122 net.cpp:150] Setting up fc9_4_sTanH
I0407 23:13:57.670037 29122 net.cpp:157] Top shape: 64 300 (19200)
I0407 23:13:57.670042 29122 net.cpp:165] Memory required for data: 2571149312
I0407 23:13:57.670045 29122 layer_factory.hpp:77] Creating layer fc9_4_postscale
I0407 23:13:57.670053 29122 net.cpp:100] Creating Layer fc9_4_postscale
I0407 23:13:57.670058 29122 net.cpp:434] fc9_4_postscale <- fc9_4
I0407 23:13:57.670065 29122 net.cpp:395] fc9_4_postscale -> fc9_4 (in-place)
I0407 23:13:57.670228 29122 net.cpp:150] Setting up fc9_4_postscale
I0407 23:13:57.670238 29122 net.cpp:157] Top shape: 64 300 (19200)
I0407 23:13:57.670241 29122 net.cpp:165] Memory required for data: 2571226112
I0407 23:13:57.670246 29122 layer_factory.hpp:77] Creating layer drop9_4
I0407 23:13:57.670254 29122 net.cpp:100] Creating Layer drop9_4
I0407 23:13:57.670258 29122 net.cpp:434] drop9_4 <- fc9_4
I0407 23:13:57.670265 29122 net.cpp:395] drop9_4 -> fc9_4 (in-place)
I0407 23:13:57.670302 29122 net.cpp:150] Setting up drop9_4
I0407 23:13:57.670312 29122 net.cpp:157] Top shape: 64 300 (19200)
I0407 23:13:57.670316 29122 net.cpp:165] Memory required for data: 2571302912
I0407 23:13:57.670320 29122 layer_factory.hpp:77] Creating layer fc9_5_67
I0407 23:13:57.670327 29122 net.cpp:100] Creating Layer fc9_5_67
I0407 23:13:57.670331 29122 net.cpp:434] fc9_5_67 <- fc9_4
I0407 23:13:57.670337 29122 net.cpp:408] fc9_5_67 -> fc9_5
I0407 23:13:57.670666 29122 net.cpp:150] Setting up fc9_5_67
I0407 23:13:57.670677 29122 net.cpp:157] Top shape: 64 67 (4288)
I0407 23:13:57.670680 29122 net.cpp:165] Memory required for data: 2571320064
I0407 23:13:57.670702 29122 layer_factory.hpp:77] Creating layer softmax_9
I0407 23:13:57.670712 29122 net.cpp:100] Creating Layer softmax_9
I0407 23:13:57.670717 29122 net.cpp:434] softmax_9 <- fc9_5
I0407 23:13:57.670723 29122 net.cpp:408] softmax_9 -> softmax_9
I0407 23:13:57.672030 29122 net.cpp:150] Setting up softmax_9
I0407 23:13:57.672049 29122 net.cpp:157] Top shape: 64 67 (4288)
I0407 23:13:57.672053 29122 net.cpp:165] Memory required for data: 2571337216
I0407 23:13:57.672058 29122 layer_factory.hpp:77] Creating layer data_2
I0407 23:13:57.676697 29122 net.cpp:100] Creating Layer data_2
I0407 23:13:57.676713 29122 net.cpp:408] data_2 -> data_2
I0407 23:13:57.676728 29122 net.cpp:408] data_2 -> label_2
I0407 23:13:57.681246 29199 db_lmdb.cpp:35] Opened lmdb ../local_data/lmdb/rtsd-r1/AHE/train/lmdb
I0407 23:13:57.681466 29122 data_layer.cpp:41] output data size: 64,3,48,48
I0407 23:13:57.703264 29122 net.cpp:150] Setting up data_2
I0407 23:13:57.703286 29122 net.cpp:157] Top shape: 64 3 48 48 (442368)
I0407 23:13:57.703292 29122 net.cpp:157] Top shape: 64 (64)
I0407 23:13:57.703296 29122 net.cpp:165] Memory required for data: 2573106944
I0407 23:13:57.703300 29122 layer_factory.hpp:77] Creating layer data_2_data_2_0_split
I0407 23:13:57.703310 29122 net.cpp:100] Creating Layer data_2_data_2_0_split
I0407 23:13:57.703315 29122 net.cpp:434] data_2_data_2_0_split <- data_2
I0407 23:13:57.703325 29122 net.cpp:408] data_2_data_2_0_split -> data_2_data_2_0_split_0
I0407 23:13:57.703337 29122 net.cpp:408] data_2_data_2_0_split -> data_2_data_2_0_split_1
I0407 23:13:57.703351 29122 net.cpp:408] data_2_data_2_0_split -> data_2_data_2_0_split_2
I0407 23:13:57.703359 29122 net.cpp:408] data_2_data_2_0_split -> data_2_data_2_0_split_3
I0407 23:13:57.703368 29122 net.cpp:408] data_2_data_2_0_split -> data_2_data_2_0_split_4
I0407 23:13:57.703605 29122 net.cpp:150] Setting up data_2_data_2_0_split
I0407 23:13:57.703619 29122 net.cpp:157] Top shape: 64 3 48 48 (442368)
I0407 23:13:57.703627 29122 net.cpp:157] Top shape: 64 3 48 48 (442368)
I0407 23:13:57.703632 29122 net.cpp:157] Top shape: 64 3 48 48 (442368)
I0407 23:13:57.703636 29122 net.cpp:157] Top shape: 64 3 48 48 (442368)
I0407 23:13:57.703641 29122 net.cpp:157] Top shape: 64 3 48 48 (442368)
I0407 23:13:57.703645 29122 net.cpp:165] Memory required for data: 2581954304
I0407 23:13:57.703649 29122 layer_factory.hpp:77] Creating layer conv10_0
I0407 23:13:57.703662 29122 net.cpp:100] Creating Layer conv10_0
I0407 23:13:57.703670 29122 net.cpp:434] conv10_0 <- data_2_data_2_0_split_0
I0407 23:13:57.703678 29122 net.cpp:408] conv10_0 -> conv10_0
I0407 23:13:57.705034 29122 net.cpp:150] Setting up conv10_0
I0407 23:13:57.705052 29122 net.cpp:157] Top shape: 64 100 42 42 (11289600)
I0407 23:13:57.705057 29122 net.cpp:165] Memory required for data: 2627112704
I0407 23:13:57.705066 29122 layer_factory.hpp:77] Creating layer conv10_0_prescale
I0407 23:13:57.705076 29122 net.cpp:100] Creating Layer conv10_0_prescale
I0407 23:13:57.705082 29122 net.cpp:434] conv10_0_prescale <- conv10_0
I0407 23:13:57.705090 29122 net.cpp:395] conv10_0_prescale -> conv10_0 (in-place)
I0407 23:13:57.705348 29122 net.cpp:150] Setting up conv10_0_prescale
I0407 23:13:57.705361 29122 net.cpp:157] Top shape: 64 100 42 42 (11289600)
I0407 23:13:57.705364 29122 net.cpp:165] Memory required for data: 2672271104
I0407 23:13:57.705371 29122 layer_factory.hpp:77] Creating layer conv10_0_sTanH
I0407 23:13:57.705379 29122 net.cpp:100] Creating Layer conv10_0_sTanH
I0407 23:13:57.705386 29122 net.cpp:434] conv10_0_sTanH <- conv10_0
I0407 23:13:57.705392 29122 net.cpp:395] conv10_0_sTanH -> conv10_0 (in-place)
I0407 23:13:57.706559 29122 net.cpp:150] Setting up conv10_0_sTanH
I0407 23:13:57.706579 29122 net.cpp:157] Top shape: 64 100 42 42 (11289600)
I0407 23:13:57.706583 29122 net.cpp:165] Memory required for data: 2717429504
I0407 23:13:57.706588 29122 layer_factory.hpp:77] Creating layer conv10_0_postscale
I0407 23:13:57.706598 29122 net.cpp:100] Creating Layer conv10_0_postscale
I0407 23:13:57.706603 29122 net.cpp:434] conv10_0_postscale <- conv10_0
I0407 23:13:57.706629 29122 net.cpp:395] conv10_0_postscale -> conv10_0 (in-place)
I0407 23:13:57.706807 29122 net.cpp:150] Setting up conv10_0_postscale
I0407 23:13:57.706818 29122 net.cpp:157] Top shape: 64 100 42 42 (11289600)
I0407 23:13:57.706822 29122 net.cpp:165] Memory required for data: 2762587904
I0407 23:13:57.706830 29122 layer_factory.hpp:77] Creating layer pool10_0
I0407 23:13:57.706836 29122 net.cpp:100] Creating Layer pool10_0
I0407 23:13:57.706841 29122 net.cpp:434] pool10_0 <- conv10_0
I0407 23:13:57.706849 29122 net.cpp:408] pool10_0 -> pool10_0
I0407 23:13:57.706918 29122 net.cpp:150] Setting up pool10_0
I0407 23:13:57.706929 29122 net.cpp:157] Top shape: 64 100 21 21 (2822400)
I0407 23:13:57.706933 29122 net.cpp:165] Memory required for data: 2773877504
I0407 23:13:57.706938 29122 layer_factory.hpp:77] Creating layer conv10_1
I0407 23:13:57.706946 29122 net.cpp:100] Creating Layer conv10_1
I0407 23:13:57.706951 29122 net.cpp:434] conv10_1 <- pool10_0
I0407 23:13:57.706959 29122 net.cpp:408] conv10_1 -> conv10_1
I0407 23:13:57.711941 29122 net.cpp:150] Setting up conv10_1
I0407 23:13:57.711963 29122 net.cpp:157] Top shape: 64 150 18 18 (3110400)
I0407 23:13:57.711968 29122 net.cpp:165] Memory required for data: 2786319104
I0407 23:13:57.711977 29122 layer_factory.hpp:77] Creating layer conv10_1_prescale
I0407 23:13:57.711987 29122 net.cpp:100] Creating Layer conv10_1_prescale
I0407 23:13:57.711992 29122 net.cpp:434] conv10_1_prescale <- conv10_1
I0407 23:13:57.712002 29122 net.cpp:395] conv10_1_prescale -> conv10_1 (in-place)
I0407 23:13:57.712162 29122 net.cpp:150] Setting up conv10_1_prescale
I0407 23:13:57.712172 29122 net.cpp:157] Top shape: 64 150 18 18 (3110400)
I0407 23:13:57.712175 29122 net.cpp:165] Memory required for data: 2798760704
I0407 23:13:57.712182 29122 layer_factory.hpp:77] Creating layer conv10_1_sTanH
I0407 23:13:57.712188 29122 net.cpp:100] Creating Layer conv10_1_sTanH
I0407 23:13:57.712193 29122 net.cpp:434] conv10_1_sTanH <- conv10_1
I0407 23:13:57.712200 29122 net.cpp:395] conv10_1_sTanH -> conv10_1 (in-place)
I0407 23:13:57.712447 29122 net.cpp:150] Setting up conv10_1_sTanH
I0407 23:13:57.712462 29122 net.cpp:157] Top shape: 64 150 18 18 (3110400)
I0407 23:13:57.712466 29122 net.cpp:165] Memory required for data: 2811202304
I0407 23:13:57.712469 29122 layer_factory.hpp:77] Creating layer conv10_1_postscale
I0407 23:13:57.712479 29122 net.cpp:100] Creating Layer conv10_1_postscale
I0407 23:13:57.712487 29122 net.cpp:434] conv10_1_postscale <- conv10_1
I0407 23:13:57.712494 29122 net.cpp:395] conv10_1_postscale -> conv10_1 (in-place)
I0407 23:13:57.712652 29122 net.cpp:150] Setting up conv10_1_postscale
I0407 23:13:57.712664 29122 net.cpp:157] Top shape: 64 150 18 18 (3110400)
I0407 23:13:57.712668 29122 net.cpp:165] Memory required for data: 2823643904
I0407 23:13:57.712674 29122 layer_factory.hpp:77] Creating layer pool10_1
I0407 23:13:57.712682 29122 net.cpp:100] Creating Layer pool10_1
I0407 23:13:57.712688 29122 net.cpp:434] pool10_1 <- conv10_1
I0407 23:13:57.712694 29122 net.cpp:408] pool10_1 -> pool10_1
I0407 23:13:57.712761 29122 net.cpp:150] Setting up pool10_1
I0407 23:13:57.712771 29122 net.cpp:157] Top shape: 64 150 9 9 (777600)
I0407 23:13:57.712775 29122 net.cpp:165] Memory required for data: 2826754304
I0407 23:13:57.712779 29122 layer_factory.hpp:77] Creating layer conv10_2
…
I0407 23:13:58.040055 29122 layer_factory.hpp:77] Creating layer conv20_2_prescale
I0407 23:13:58.040068 29122 net.cpp:100] Creating Layer conv20_2_prescale
I0407 23:13:58.040076 29122 net.cpp:434] conv20_2_prescale <- conv20_2
I0407 23:13:58.040083 29122 net.cpp:395] conv20_2_prescale -> conv20_2 (in-place)
I0407 23:13:58.040277 29122 net.cpp:150] Setting up conv20_2_prescale
I0407 23:13:58.040287 29122 net.cpp:157] Top shape: 64 250 6 6 (576000)
I0407 23:13:58.040293 29122 net.cpp:165] Memory required for data: 5402699520
I0407 23:13:58.040298 29122 layer_factory.hpp:77] Creating layer conv20_2_sTanH
I0407 23:13:58.040323 29122 net.cpp:100] Creating Layer conv20_2_sTanH
I0407 23:13:58.040331 29122 net.cpp:434] conv20_2_sTanH <- conv20_2
I0407 23:13:58.040338 29122 net.cpp:395] conv20_2_sTanH -> conv20_2 (in-place)
I0407 23:13:58.040609 29122 net.cpp:150] Setting up conv20_2_sTanH
I0407 23:13:58.040623 29122 net.cpp:157] Top shape: 64 250 6 6 (576000)
I0407 23:13:58.040628 29122 net.cpp:165] Memory required for data: 5405003520
I0407 23:13:58.040633 29122 layer_factory.hpp:77] Creating layer conv20_2_postscale
I0407 23:13:58.040642 29122 net.cpp:100] Creating Layer conv20_2_postscale
I0407 23:13:58.040649 29122 net.cpp:434] conv20_2_postscale <- conv20_2
I0407 23:13:58.040655 29122 net.cpp:395] conv20_2_postscale -> conv20_2 (in-place)
I0407 23:13:58.040853 29122 net.cpp:150] Setting up conv20_2_postscale
I0407 23:13:58.040865 29122 net.cpp:157] Top shape: 64 250 6 6 (576000)
I0407 23:13:58.040871 29122 net.cpp:165] Memory required for data: 5407307520
I0407 23:13:58.040877 29122 layer_factory.hpp:77] Creating layer pool20_2
I0407 23:13:58.040884 29122 net.cpp:100] Creating Layer pool20_2
I0407 23:13:58.040890 29122 net.cpp:434] pool20_2 <- conv20_2
I0407 23:13:58.040897 29122 net.cpp:408] pool20_2 -> pool20_2
I0407 23:13:58.040979 29122 net.cpp:150] Setting up pool20_2
I0407 23:13:58.040989 29122 net.cpp:157] Top shape: 64 250 3 3 (144000)
I0407 23:13:58.040994 29122 net.cpp:165] Memory required for data: 5407883520
I0407 23:13:58.040998 29122 layer_factory.hpp:77] Creating layer fc20_4_300
I0407 23:13:58.041007 29122 net.cpp:100] Creating Layer fc20_4_300
I0407 23:13:58.041013 29122 net.cpp:434] fc20_4_300 <- pool20_2
I0407 23:13:58.041020 29122 net.cpp:408] fc20_4_300 -> fc20_4
I0407 23:13:58.047783 29122 net.cpp:150] Setting up fc20_4_300
I0407 23:13:58.047802 29122 net.cpp:157] Top shape: 64 300 (19200)
I0407 23:13:58.047806 29122 net.cpp:165] Memory required for data: 5407960320
I0407 23:13:58.047816 29122 layer_factory.hpp:77] Creating layer fc20_4_prescale
I0407 23:13:58.047827 29122 net.cpp:100] Creating Layer fc20_4_prescale
I0407 23:13:58.047834 29122 net.cpp:434] fc20_4_prescale <- fc20_4
I0407 23:13:58.047842 29122 net.cpp:395] fc20_4_prescale -> fc20_4 (in-place)
I0407 23:13:58.048041 29122 net.cpp:150] Setting up fc20_4_prescale
I0407 23:13:58.048053 29122 net.cpp:157] Top shape: 64 300 (19200)
I0407 23:13:58.048058 29122 net.cpp:165] Memory required for data: 5408037120
I0407 23:13:58.048063 29122 layer_factory.hpp:77] Creating layer fc20_4_sTanH
I0407 23:13:58.048069 29122 net.cpp:100] Creating Layer fc20_4_sTanH
I0407 23:13:58.048076 29122 net.cpp:434] fc20_4_sTanH <- fc20_4
I0407 23:13:58.048084 29122 net.cpp:395] fc20_4_sTanH -> fc20_4 (in-place)
I0407 23:13:58.049226 29122 net.cpp:150] Setting up fc20_4_sTanH
I0407 23:13:58.049248 29122 net.cpp:157] Top shape: 64 300 (19200)
I0407 23:13:58.049253 29122 net.cpp:165] Memory required for data: 5408113920
I0407 23:13:58.049258 29122 layer_factory.hpp:77] Creating layer fc20_4_postscale
I0407 23:13:58.049268 29122 net.cpp:100] Creating Layer fc20_4_postscale
I0407 23:13:58.049273 29122 net.cpp:434] fc20_4_postscale <- fc20_4
I0407 23:13:58.049283 29122 net.cpp:395] fc20_4_postscale -> fc20_4 (in-place)
I0407 23:13:58.049490 29122 net.cpp:150] Setting up fc20_4_postscale
I0407 23:13:58.049501 29122 net.cpp:157] Top shape: 64 300 (19200)
I0407 23:13:58.049505 29122 net.cpp:165] Memory required for data: 5408190720
I0407 23:13:58.049511 29122 layer_factory.hpp:77] Creating layer drop20_4
I0407 23:13:58.049520 29122 net.cpp:100] Creating Layer drop20_4
I0407 23:13:58.049527 29122 net.cpp:434] drop20_4 <- fc20_4
I0407 23:13:58.049535 29122 net.cpp:395] drop20_4 -> fc20_4 (in-place)
I0407 23:13:58.049582 29122 net.cpp:150] Setting up drop20_4
I0407 23:13:58.049594 29122 net.cpp:157] Top shape: 64 300 (19200)
I0407 23:13:58.049597 29122 net.cpp:165] Memory required for data: 5408267520
I0407 23:13:58.049602 29122 layer_factory.hpp:77] Creating layer fc20_5_67
I0407 23:13:58.049610 29122 net.cpp:100] Creating Layer fc20_5_67
I0407 23:13:58.049614 29122 net.cpp:434] fc20_5_67 <- fc20_4
I0407 23:13:58.049636 29122 net.cpp:408] fc20_5_67 -> fc20_5
I0407 23:13:58.050029 29122 net.cpp:150] Setting up fc20_5_67
I0407 23:13:58.050040 29122 net.cpp:157] Top shape: 64 67 (4288)
I0407 23:13:58.050042 29122 net.cpp:165] Memory required for data: 5408284672
I0407 23:13:58.050050 29122 layer_factory.hpp:77] Creating layer softmax_20
I0407 23:13:58.050058 29122 net.cpp:100] Creating Layer softmax_20
I0407 23:13:58.050063 29122 net.cpp:434] softmax_20 <- fc20_5
I0407 23:13:58.050070 29122 net.cpp:408] softmax_20 -> softmax_20
I0407 23:13:58.050458 29122 net.cpp:150] Setting up softmax_20
I0407 23:13:58.050472 29122 net.cpp:157] Top shape: 64 67 (4288)
I0407 23:13:58.050475 29122 net.cpp:165] Memory required for data: 5408301824
I0407 23:13:58.050480 29122 layer_factory.hpp:77] Creating layer conv21_0
I0407 23:13:58.050492 29122 net.cpp:100] Creating Layer conv21_0
I0407 23:13:58.050499 29122 net.cpp:434] conv21_0 <- data_4_data_4_0_split_1
I0407 23:13:58.050510 29122 net.cpp:408] conv21_0 -> conv21_0
I0407 23:13:58.052872 29122 net.cpp:150] Setting up conv21_0
I0407 23:13:58.052893 29122 net.cpp:157] Top shape: 64 100 42 42 (11289600)
I0407 23:13:58.052898 29122 net.cpp:165] Memory required for data: 5453460224
I0407 23:13:58.052906 29122 layer_factory.hpp:77] Creating layer conv21_0_prescale
I0407 23:13:58.052917 29122 net.cpp:100] Creating Layer conv21_0_prescale
I0407 23:13:58.052923 29122 net.cpp:434] conv21_0_prescale <- conv21_0
I0407 23:13:58.052930 29122 net.cpp:395] conv21_0_prescale -> conv21_0 (in-place)
I0407 23:13:58.053138 29122 net.cpp:150] Setting up conv21_0_prescale
I0407 23:13:58.053149 29122 net.cpp:157] Top shape: 64 100 42 42 (11289600)
I0407 23:13:58.053155 29122 net.cpp:165] Memory required for data: 5498618624
I0407 23:13:58.053161 29122 layer_factory.hpp:77] Creating layer conv21_0_sTanH
I0407 23:13:58.053170 29122 net.cpp:100] Creating Layer conv21_0_sTanH
I0407 23:13:58.053176 29122 net.cpp:434] conv21_0_sTanH <- conv21_0
I0407 23:13:58.053182 29122 net.cpp:395] conv21_0_sTanH -> conv21_0 (in-place)
I0407 23:13:58.053458 29122 net.cpp:150] Setting up conv21_0_sTanH
I0407 23:13:58.053472 29122 net.cpp:157] Top shape: 64 100 42 42 (11289600)
I0407 23:13:58.053477 29122 net.cpp:165] Memory required for data: 5543777024
I0407 23:13:58.053480 29122 layer_factory.hpp:77] Creating layer conv21_0_postscale
I0407 23:13:58.053488 29122 net.cpp:100] Creating Layer conv21_0_postscale
I0407 23:13:58.053493 29122 net.cpp:434] conv21_0_postscale <- conv21_0
I0407 23:13:58.053501 29122 net.cpp:395] conv21_0_postscale -> conv21_0 (in-place)
I0407 23:13:58.053704 29122 net.cpp:150] Setting up conv21_0_postscale
I0407 23:13:58.053714 29122 net.cpp:157] Top shape: 64 100 42 42 (11289600)
I0407 23:13:58.053717 29122 net.cpp:165] Memory required for data: 5588935424
I0407 23:13:58.053724 29122 layer_factory.hpp:77] Creating layer pool21_0
I0407 23:13:58.053731 29122 net.cpp:100] Creating Layer pool21_0
I0407 23:13:58.053737 29122 net.cpp:434] pool21_0 <- conv21_0
I0407 23:13:58.053746 29122 net.cpp:408] pool21_0 -> pool21_0
I0407 23:13:58.053828 29122 net.cpp:150] Setting up pool21_0
I0407 23:13:58.053838 29122 net.cpp:157] Top shape: 64 100 21 21 (2822400)
I0407 23:13:58.053841 29122 net.cpp:165] Memory required for data: 5600225024
I0407 23:13:58.053845 29122 layer_factory.hpp:77] Creating layer conv21_1
I0407 23:13:58.053856 29122 net.cpp:100] Creating Layer conv21_1
I0407 23:13:58.053863 29122 net.cpp:434] conv21_1 <- pool21_0
I0407 23:13:58.053870 29122 net.cpp:408] conv21_1 -> conv21_1
I0407 23:13:58.057904 29122 net.cpp:150] Setting up conv21_1
I0407 23:13:58.057924 29122 net.cpp:157] Top shape: 64 150 18 18 (3110400)
I0407 23:13:58.057929 29122 net.cpp:165] Memory required for data: 5612666624
I0407 23:13:58.057937 29122 layer_factory.hpp:77] Creating layer conv21_1_prescale
I0407 23:13:58.057950 29122 net.cpp:100] Creating Layer conv21_1_prescale
I0407 23:13:58.057955 29122 net.cpp:434] conv21_1_prescale <- conv21_1
I0407 23:13:58.057962 29122 net.cpp:395] conv21_1_prescale -> conv21_1 (in-place)
I0407 23:13:58.058177 29122 net.cpp:150] Setting up conv21_1_prescale
I0407 23:13:58.058190 29122 net.cpp:157] Top shape: 64 150 18 18 (3110400)
I0407 23:13:58.058195 29122 net.cpp:165] Memory required for data: 5625108224
I0407 23:13:58.058202 29122 layer_factory.hpp:77] Creating layer conv21_1_sTanH
I0407 23:13:58.058208 29122 net.cpp:100] Creating Layer conv21_1_sTanH
I0407 23:13:58.058214 29122 net.cpp:434] conv21_1_sTanH <- conv21_1
I0407 23:13:58.058223 29122 net.cpp:395] conv21_1_sTanH -> conv21_1 (in-place)
I0407 23:13:58.058502 29122 net.cpp:150] Setting up conv21_1_sTanH
I0407 23:13:58.058516 29122 net.cpp:157] Top shape: 64 150 18 18 (3110400)
I0407 23:13:58.058519 29122 net.cpp:165] Memory required for data: 5637549824
I0407 23:13:58.058523 29122 layer_factory.hpp:77] Creating layer conv21_1_postscale
I0407 23:13:58.058533 29122 net.cpp:100] Creating Layer conv21_1_postscale
I0407 23:13:58.058538 29122 net.cpp:434] conv21_1_postscale <- conv21_1
I0407 23:13:58.058547 29122 net.cpp:395] conv21_1_postscale -> conv21_1 (in-place)
I0407 23:13:58.058743 29122 net.cpp:150] Setting up conv21_1_postscale
I0407 23:13:58.058753 29122 net.cpp:157] Top shape: 64 150 18 18 (3110400)
I0407 23:13:58.058761 29122 net.cpp:165] Memory required for data: 5649991424
I0407 23:13:58.058768 29122 layer_factory.hpp:77] Creating layer pool21_1
I0407 23:13:58.058778 29122 net.cpp:100] Creating Layer pool21_1
I0407 23:13:58.058784 29122 net.cpp:434] pool21_1 <- conv21_1
I0407 23:13:58.058792 29122 net.cpp:408] pool21_1 -> pool21_1
I0407 23:13:58.058872 29122 net.cpp:150] Setting up pool21_1
I0407 23:13:58.058882 29122 net.cpp:157] Top shape: 64 150 9 9 (777600)
I0407 23:13:58.058887 29122 net.cpp:165] Memory required for data: 5653101824
I0407 23:13:58.058892 29122 layer_factory.hpp:77] Creating layer conv21_2
I0407 23:13:58.058902 29122 net.cpp:100] Creating Layer conv21_2
I0407 23:13:58.058909 29122 net.cpp:434] conv21_2 <- pool21_1
I0407 23:13:58.058919 29122 net.cpp:408] conv21_2 -> conv21_2
I0407 23:13:58.067047 29122 net.cpp:150] Setting up conv21_2
I0407 23:13:58.067072 29122 net.cpp:157] Top shape: 64 250 6 6 (576000)
I0407 23:13:58.067077 29122 net.cpp:165] Memory required for data: 5655405824
I0407 23:13:58.067086 29122 layer_factory.hpp:77] Creating layer conv21_2_prescale
I0407 23:13:58.067095 29122 net.cpp:100] Creating Layer conv21_2_prescale
I0407 23:13:58.067101 29122 net.cpp:434] conv21_2_prescale <- conv21_2
I0407 23:13:58.067111 29122 net.cpp:395] conv21_2_prescale -> conv21_2 (in-place)
I0407 23:13:58.067311 29122 net.cpp:150] Setting up conv21_2_prescale
I0407 23:13:58.067322 29122 net.cpp:157] Top shape: 64 250 6 6 (576000)
I0407 23:13:58.067325 29122 net.cpp:165] Memory required for data: 5657709824
I0407 23:13:58.067332 29122 layer_factory.hpp:77] Creating layer conv21_2_sTanH
I0407 23:13:58.067339 29122 net.cpp:100] Creating Layer conv21_2_sTanH
I0407 23:13:58.067344 29122 net.cpp:434] conv21_2_sTanH <- conv21_2
I0407 23:13:58.067353 29122 net.cpp:395] conv21_2_sTanH -> conv21_2 (in-place)
I0407 23:13:58.068503 29122 net.cpp:150] Setting up conv21_2_sTanH
I0407 23:13:58.068522 29122 net.cpp:157] Top shape: 64 250 6 6 (576000)
I0407 23:13:58.068526 29122 net.cpp:165] Memory required for data: 5660013824
I0407 23:13:58.068531 29122 layer_factory.hpp:77] Creating layer conv21_2_postscale
I0407 23:13:58.068539 29122 net.cpp:100] Creating Layer conv21_2_postscale
I0407 23:13:58.068545 29122 net.cpp:434] conv21_2_postscale <- conv21_2
I0407 23:13:58.068557 29122 net.cpp:395] conv21_2_postscale -> conv21_2 (in-place)
I0407 23:13:58.068763 29122 net.cpp:150] Setting up conv21_2_postscale
I0407 23:13:58.068774 29122 net.cpp:157] Top shape: 64 250 6 6 (576000)
I0407 23:13:58.068778 29122 net.cpp:165] Memory required for data: 5662317824
I0407 23:13:58.068784 29122 layer_factory.hpp:77] Creating layer pool21_2
I0407 23:13:58.068794 29122 net.cpp:100] Creating Layer pool21_2
I0407 23:13:58.068799 29122 net.cpp:434] pool21_2 <- conv21_2
I0407 23:13:58.068809 29122 net.cpp:408] pool21_2 -> pool21_2
I0407 23:13:58.068893 29122 net.cpp:150] Setting up pool21_2
I0407 23:13:58.068919 29122 net.cpp:157] Top shape: 64 250 3 3 (144000)
I0407 23:13:58.068925 29122 net.cpp:165] Memory required for data: 5662893824
I0407 23:13:58.068929 29122 layer_factory.hpp:77] Creating layer fc21_4_300
I0407 23:13:58.068936 29122 net.cpp:100] Creating Layer fc21_4_300
I0407 23:13:58.068941 29122 net.cpp:434] fc21_4_300 <- pool21_2
I0407 23:13:58.068953 29122 net.cpp:408] fc21_4_300 -> fc21_4
I0407 23:13:58.075742 29122 net.cpp:150] Setting up fc21_4_300
I0407 23:13:58.075760 29122 net.cpp:157] Top shape: 64 300 (19200)
I0407 23:13:58.075765 29122 net.cpp:165] Memory required for data: 5662970624
I0407 23:13:58.075774 29122 layer_factory.hpp:77] Creating layer fc21_4_prescale
I0407 23:13:58.075788 29122 net.cpp:100] Creating Layer fc21_4_prescale
I0407 23:13:58.075794 29122 net.cpp:434] fc21_4_prescale <- fc21_4
I0407 23:13:58.075803 29122 net.cpp:395] fc21_4_prescale -> fc21_4 (in-place)
I0407 23:13:58.076011 29122 net.cpp:150] Setting up fc21_4_prescale
I0407 23:13:58.076023 29122 net.cpp:157] Top shape: 64 300 (19200)
I0407 23:13:58.076026 29122 net.cpp:165] Memory required for data: 5663047424
I0407 23:13:58.076032 29122 layer_factory.hpp:77] Creating layer fc21_4_sTanH
I0407 23:13:58.076040 29122 net.cpp:100] Creating Layer fc21_4_sTanH
I0407 23:13:58.076046 29122 net.cpp:434] fc21_4_sTanH <- fc21_4
I0407 23:13:58.076052 29122 net.cpp:395] fc21_4_sTanH -> fc21_4 (in-place)
I0407 23:13:58.076337 29122 net.cpp:150] Setting up fc21_4_sTanH
I0407 23:13:58.076350 29122 net.cpp:157] Top shape: 64 300 (19200)
I0407 23:13:58.076355 29122 net.cpp:165] Memory required for data: 5663124224
I0407 23:13:58.076360 29122 layer_factory.hpp:77] Creating layer fc21_4_postscale
I0407 23:13:58.076370 29122 net.cpp:100] Creating Layer fc21_4_postscale
I0407 23:13:58.076376 29122 net.cpp:434] fc21_4_postscale <- fc21_4
I0407 23:13:58.076382 29122 net.cpp:395] fc21_4_postscale -> fc21_4 (in-place)
I0407 23:13:58.076593 29122 net.cpp:150] Setting up fc21_4_postscale
I0407 23:13:58.076603 29122 net.cpp:157] Top shape: 64 300 (19200)
I0407 23:13:58.076606 29122 net.cpp:165] Memory required for data: 5663201024
I0407 23:13:58.076612 29122 layer_factory.hpp:77] Creating layer drop21_4
I0407 23:13:58.076622 29122 net.cpp:100] Creating Layer drop21_4
I0407 23:13:58.076628 29122 net.cpp:434] drop21_4 <- fc21_4
I0407 23:13:58.076634 29122 net.cpp:395] drop21_4 -> fc21_4 (in-place)
I0407 23:13:58.076683 29122 net.cpp:150] Setting up drop21_4
I0407 23:13:58.076691 29122 net.cpp:157] Top shape: 64 300 (19200)
I0407 23:13:58.076694 29122 net.cpp:165] Memory required for data: 5663277824
I0407 23:13:58.076699 29122 layer_factory.hpp:77] Creating layer fc21_5_67
I0407 23:13:58.076705 29122 net.cpp:100] Creating Layer fc21_5_67
I0407 23:13:58.076711 29122 net.cpp:434] fc21_5_67 <- fc21_4
I0407 23:13:58.076719 29122 net.cpp:408] fc21_5_67 -> fc21_5
I0407 23:13:58.077106 29122 net.cpp:150] Setting up fc21_5_67
I0407 23:13:58.077117 29122 net.cpp:157] Top shape: 64 67 (4288)
I0407 23:13:58.077121 29122 net.cpp:165] Memory required for data: 5663294976
I0407 23:13:58.077129 29122 layer_factory.hpp:77] Creating layer softmax_21
I0407 23:13:58.077137 29122 net.cpp:100] Creating Layer softmax_21
I0407 23:13:58.077143 29122 net.cpp:434] softmax_21 <- fc21_5
I0407 23:13:58.077152 29122 net.cpp:408] softmax_21 -> softmax_21
I0407 23:13:58.077546 29122 net.cpp:150] Setting up softmax_21
I0407 23:13:58.077561 29122 net.cpp:157] Top shape: 64 67 (4288)
I0407 23:13:58.077566 29122 net.cpp:165] Memory required for data: 5663312128
I0407 23:13:58.077570 29122 layer_factory.hpp:77] Creating layer conv22_0
I0407 23:13:58.077584 29122 net.cpp:100] Creating Layer conv22_0
I0407 23:13:58.077591 29122 net.cpp:434] conv22_0 <- data_4_data_4_0_split_2
I0407 23:13:58.077600 29122 net.cpp:408] conv22_0 -> conv22_0
I0407 23:13:58.079998 29122 net.cpp:150] Setting up conv22_0
I0407 23:13:58.080018 29122 net.cpp:157] Top shape: 64 100 42 42 (11289600)
I0407 23:13:58.080025 29122 net.cpp:165] Memory required for data: 5708470528
I0407 23:13:58.080050 29122 layer_factory.hpp:77] Creating layer conv22_0_prescale
I0407 23:13:58.080063 29122 net.cpp:100] Creating Layer conv22_0_prescale
I0407 23:13:58.080070 29122 net.cpp:434] conv22_0_prescale <- conv22_0
I0407 23:13:58.080077 29122 net.cpp:395] conv22_0_prescale -> conv22_0 (in-place)
I0407 23:13:58.080294 29122 net.cpp:150] Setting up conv22_0_prescale
I0407 23:13:58.080305 29122 net.cpp:157] Top shape: 64 100 42 42 (11289600)
I0407 23:13:58.080312 29122 net.cpp:165] Memory required for data: 5753628928
I0407 23:13:58.080317 29122 layer_factory.hpp:77] Creating layer conv22_0_sTanH
I0407 23:13:58.080325 29122 net.cpp:100] Creating Layer conv22_0_sTanH
I0407 23:13:58.080332 29122 net.cpp:434] conv22_0_sTanH <- conv22_0
I0407 23:13:58.080338 29122 net.cpp:395] conv22_0_sTanH -> conv22_0 (in-place)
I0407 23:13:58.080612 29122 net.cpp:150] Setting up conv22_0_sTanH
I0407 23:13:58.080626 29122 net.cpp:157] Top shape: 64 100 42 42 (11289600)
I0407 23:13:58.080631 29122 net.cpp:165] Memory required for data: 5798787328
I0407 23:13:58.080636 29122 layer_factory.hpp:77] Creating layer conv22_0_postscale
I0407 23:13:58.080644 29122 net.cpp:100] Creating Layer conv22_0_postscale
I0407 23:13:58.080651 29122 net.cpp:434] conv22_0_postscale <- conv22_0
I0407 23:13:58.080659 29122 net.cpp:395] conv22_0_postscale -> conv22_0 (in-place)
I0407 23:13:58.080869 29122 net.cpp:150] Setting up conv22_0_postscale
I0407 23:13:58.080880 29122 net.cpp:157] Top shape: 64 100 42 42 (11289600)
I0407 23:13:58.080884 29122 net.cpp:165] Memory required for data: 5843945728
I0407 23:13:58.080890 29122 layer_factory.hpp:77] Creating layer pool22_0
I0407 23:13:58.080899 29122 net.cpp:100] Creating Layer pool22_0
I0407 23:13:58.080905 29122 net.cpp:434] pool22_0 <- conv22_0
I0407 23:13:58.080914 29122 net.cpp:408] pool22_0 -> pool22_0
I0407 23:13:58.080997 29122 net.cpp:150] Setting up pool22_0
I0407 23:13:58.081009 29122 net.cpp:157] Top shape: 64 100 21 21 (2822400)
I0407 23:13:58.081014 29122 net.cpp:165] Memory required for data: 5855235328
I0407 23:13:58.081018 29122 layer_factory.hpp:77] Creating layer conv22_1
I0407 23:13:58.081029 29122 net.cpp:100] Creating Layer conv22_1
I0407 23:13:58.081035 29122 net.cpp:434] conv22_1 <- pool22_0
I0407 23:13:58.081043 29122 net.cpp:408] conv22_1 -> conv22_1
I0407 23:13:58.086369 29122 net.cpp:150] Setting up conv22_1
I0407 23:13:58.086390 29122 net.cpp:157] Top shape: 64 150 18 18 (3110400)
I0407 23:13:58.086396 29122 net.cpp:165] Memory required for data: 5867676928
I0407 23:13:58.086405 29122 layer_factory.hpp:77] Creating layer conv22_1_prescale
I0407 23:13:58.086417 29122 net.cpp:100] Creating Layer conv22_1_prescale
I0407 23:13:58.086426 29122 net.cpp:434] conv22_1_prescale <- conv22_1
I0407 23:13:58.086432 29122 net.cpp:395] conv22_1_prescale -> conv22_1 (in-place)
I0407 23:13:58.086637 29122 net.cpp:150] Setting up conv22_1_prescale
I0407 23:13:58.086650 29122 net.cpp:157] Top shape: 64 150 18 18 (3110400)
I0407 23:13:58.086657 29122 net.cpp:165] Memory required for data: 5880118528
I0407 23:13:58.086663 29122 layer_factory.hpp:77] Creating layer conv22_1_sTanH
I0407 23:13:58.086668 29122 net.cpp:100] Creating Layer conv22_1_sTanH
I0407 23:13:58.086675 29122 net.cpp:434] conv22_1_sTanH <- conv22_1
I0407 23:13:58.086680 29122 net.cpp:395] conv22_1_sTanH -> conv22_1 (in-place)
I0407 23:13:58.086951 29122 net.cpp:150] Setting up conv22_1_sTanH
I0407 23:13:58.086966 29122 net.cpp:157] Top shape: 64 150 18 18 (3110400)
I0407 23:13:58.086971 29122 net.cpp:165] Memory required for data: 5892560128
I0407 23:13:58.086977 29122 layer_factory.hpp:77] Creating layer conv22_1_postscale
I0407 23:13:58.086983 29122 net.cpp:100] Creating Layer conv22_1_postscale
I0407 23:13:58.086989 29122 net.cpp:434] conv22_1_postscale <- conv22_1
I0407 23:13:58.086997 29122 net.cpp:395] conv22_1_postscale -> conv22_1 (in-place)
I0407 23:13:58.087209 29122 net.cpp:150] Setting up conv22_1_postscale
I0407 23:13:58.087220 29122 net.cpp:157] Top shape: 64 150 18 18 (3110400)
I0407 23:13:58.087226 29122 net.cpp:165] Memory required for data: 5905001728
I0407 23:13:58.087250 29122 layer_factory.hpp:77] Creating layer pool22_1
I0407 23:13:58.087260 29122 net.cpp:100] Creating Layer pool22_1
I0407 23:13:58.087266 29122 net.cpp:434] pool22_1 <- conv22_1
I0407 23:13:58.087276 29122 net.cpp:408] pool22_1 -> pool22_1
I0407 23:13:58.087364 29122 net.cpp:150] Setting up pool22_1
I0407 23:13:58.087374 29122 net.cpp:157] Top shape: 64 150 9 9 (777600)
I0407 23:13:58.087380 29122 net.cpp:165] Memory required for data: 5908112128
I0407 23:13:58.087384 29122 layer_factory.hpp:77] Creating layer conv22_2
I0407 23:13:58.087395 29122 net.cpp:100] Creating Layer conv22_2
I0407 23:13:58.087404 29122 net.cpp:434] conv22_2 <- pool22_1
I0407 23:13:58.087411 29122 net.cpp:408] conv22_2 -> conv22_2
I0407 23:13:58.095552 29122 net.cpp:150] Setting up conv22_2
I0407 23:13:58.095573 29122 net.cpp:157] Top shape: 64 250 6 6 (576000)
I0407 23:13:58.095579 29122 net.cpp:165] Memory required for data: 5910416128
I0407 23:13:58.095588 29122 layer_factory.hpp:77] Creating layer conv22_2_prescale
I0407 23:13:58.095598 29122 net.cpp:100] Creating Layer conv22_2_prescale
I0407 23:13:58.095605 29122 net.cpp:434] conv22_2_prescale <- conv22_2
I0407 23:13:58.095614 29122 net.cpp:395] conv22_2_prescale -> conv22_2 (in-place)
I0407 23:13:58.095818 29122 net.cpp:150] Setting up conv22_2_prescale
I0407 23:13:58.095829 29122 net.cpp:157] Top shape: 64 250 6 6 (576000)
I0407 23:13:58.095834 29122 net.cpp:165] Memory required for data: 5912720128
I0407 23:13:58.095840 29122 layer_factory.hpp:77] Creating layer conv22_2_sTanH
I0407 23:13:58.095847 29122 net.cpp:100] Creating Layer conv22_2_sTanH
I0407 23:13:58.095854 29122 net.cpp:434] conv22_2_sTanH <- conv22_2
I0407 23:13:58.095861 29122 net.cpp:395] conv22_2_sTanH -> conv22_2 (in-place)
I0407 23:13:58.097019 29122 net.cpp:150] Setting up conv22_2_sTanH
I0407 23:13:58.097039 29122 net.cpp:157] Top shape: 64 250 6 6 (576000)
I0407 23:13:58.097045 29122 net.cpp:165] Memory required for data: 5915024128
I0407 23:13:58.097054 29122 layer_factory.hpp:77] Creating layer conv22_2_postscale
I0407 23:13:58.097066 29122 net.cpp:100] Creating Layer conv22_2_postscale
I0407 23:13:58.097074 29122 net.cpp:434] conv22_2_postscale <- conv22_2
I0407 23:13:58.097080 29122 net.cpp:395] conv22_2_postscale -> conv22_2 (in-place)
I0407 23:13:58.097290 29122 net.cpp:150] Setting up conv22_2_postscale
I0407 23:13:58.097301 29122 net.cpp:157] Top shape: 64 250 6 6 (576000)
I0407 23:13:58.097307 29122 net.cpp:165] Memory required for data: 5917328128
I0407 23:13:58.097313 29122 layer_factory.hpp:77] Creating layer pool22_2
I0407 23:13:58.097326 29122 net.cpp:100] Creating Layer pool22_2
I0407 23:13:58.097332 29122 net.cpp:434] pool22_2 <- conv22_2
I0407 23:13:58.097338 29122 net.cpp:408] pool22_2 -> pool22_2
I0407 23:13:58.097424 29122 net.cpp:150] Setting up pool22_2
I0407 23:13:58.097435 29122 net.cpp:157] Top shape: 64 250 3 3 (144000)
I0407 23:13:58.097441 29122 net.cpp:165] Memory required for data: 5917904128
I0407 23:13:58.097445 29122 layer_factory.hpp:77] Creating layer fc22_4_300
I0407 23:13:58.097453 29122 net.cpp:100] Creating Layer fc22_4_300
I0407 23:13:58.097460 29122 net.cpp:434] fc22_4_300 <- pool22_2
I0407 23:13:58.097470 29122 net.cpp:408] fc22_4_300 -> fc22_4
I0407 23:13:58.104282 29122 net.cpp:150] Setting up fc22_4_300
I0407 23:13:58.104302 29122 net.cpp:157] Top shape: 64 300 (19200)
I0407 23:13:58.104307 29122 net.cpp:165] Memory required for data: 5917980928
I0407 23:13:58.104316 29122 layer_factory.hpp:77] Creating layer fc22_4_prescale
I0407 23:13:58.104326 29122 net.cpp:100] Creating Layer fc22_4_prescale
I0407 23:13:58.104333 29122 net.cpp:434] fc22_4_prescale <- fc22_4
I0407 23:13:58.104342 29122 net.cpp:395] fc22_4_prescale -> fc22_4 (in-place)
I0407 23:13:58.104543 29122 net.cpp:150] Setting up fc22_4_prescale
I0407 23:13:58.104554 29122 net.cpp:157] Top shape: 64 300 (19200)
I0407 23:13:58.104558 29122 net.cpp:165] Memory required for data: 5918057728
I0407 23:13:58.104563 29122 layer_factory.hpp:77] Creating layer fc22_4_sTanH
I0407 23:13:58.104588 29122 net.cpp:100] Creating Layer fc22_4_sTanH
I0407 23:13:58.104594 29122 net.cpp:434] fc22_4_sTanH <- fc22_4
I0407 23:13:58.104602 29122 net.cpp:395] fc22_4_sTanH -> fc22_4 (in-place)
I0407 23:13:58.104892 29122 net.cpp:150] Setting up fc22_4_sTanH
I0407 23:13:58.104905 29122 net.cpp:157] Top shape: 64 300 (19200)
I0407 23:13:58.104910 29122 net.cpp:165] Memory required for data: 5918134528
I0407 23:13:58.104915 29122 layer_factory.hpp:77] Creating layer fc22_4_postscale
I0407 23:13:58.105008 29122 net.cpp:100] Creating Layer fc22_4_postscale
I0407 23:13:58.105016 29122 net.cpp:434] fc22_4_postscale <- fc22_4
I0407 23:13:58.105023 29122 net.cpp:395] fc22_4_postscale -> fc22_4 (in-place)
I0407 23:13:58.105233 29122 net.cpp:150] Setting up fc22_4_postscale
I0407 23:13:58.105244 29122 net.cpp:157] Top shape: 64 300 (19200)
I0407 23:13:58.105247 29122 net.cpp:165] Memory required for data: 5918211328
I0407 23:13:58.105254 29122 layer_factory.hpp:77] Creating layer drop22_4
I0407 23:13:58.105263 29122 net.cpp:100] Creating Layer drop22_4
I0407 23:13:58.105269 29122 net.cpp:434] drop22_4 <- fc22_4
I0407 23:13:58.105275 29122 net.cpp:395] drop22_4 -> fc22_4 (in-place)
I0407 23:13:58.105322 29122 net.cpp:150] Setting up drop22_4
I0407 23:13:58.105331 29122 net.cpp:157] Top shape: 64 300 (19200)
I0407 23:13:58.105334 29122 net.cpp:165] Memory required for data: 5918288128
I0407 23:13:58.105339 29122 layer_factory.hpp:77] Creating layer fc22_5_67
I0407 23:13:58.105345 29122 net.cpp:100] Creating Layer fc22_5_67
I0407 23:13:58.105350 29122 net.cpp:434] fc22_5_67 <- fc22_4
I0407 23:13:58.105355 29122 net.cpp:408] fc22_5_67 -> fc22_5
I0407 23:13:58.105748 29122 net.cpp:150] Setting up fc22_5_67
I0407 23:13:58.105759 29122 net.cpp:157] Top shape: 64 67 (4288)
I0407 23:13:58.105762 29122 net.cpp:165] Memory required for data: 5918305280
I0407 23:13:58.105769 29122 layer_factory.hpp:77] Creating layer softmax_22
I0407 23:13:58.105779 29122 net.cpp:100] Creating Layer softmax_22
I0407 23:13:58.105787 29122 net.cpp:434] softmax_22 <- fc22_5
I0407 23:13:58.105792 29122 net.cpp:408] softmax_22 -> softmax_22
I0407 23:13:58.106206 29122 net.cpp:150] Setting up softmax_22
I0407 23:13:58.106220 29122 net.cpp:157] Top shape: 64 67 (4288)
I0407 23:13:58.106225 29122 net.cpp:165] Memory required for data: 5918322432
I0407 23:13:58.106230 29122 layer_factory.hpp:77] Creating layer conv23_0
I0407 23:13:58.106241 29122 net.cpp:100] Creating Layer conv23_0
I0407 23:13:58.106248 29122 net.cpp:434] conv23_0 <- data_4_data_4_0_split_3
I0407 23:13:58.106257 29122 net.cpp:408] conv23_0 -> conv23_0
I0407 23:13:58.108687 29122 net.cpp:150] Setting up conv23_0
I0407 23:13:58.108708 29122 net.cpp:157] Top shape: 64 100 42 42 (11289600)
I0407 23:13:58.108714 29122 net.cpp:165] Memory required for data: 5963480832
I0407 23:13:58.108723 29122 layer_factory.hpp:77] Creating layer conv23_0_prescale
I0407 23:13:58.108736 29122 net.cpp:100] Creating Layer conv23_0_prescale
I0407 23:13:58.108742 29122 net.cpp:434] conv23_0_prescale <- conv23_0
I0407 23:13:58.108750 29122 net.cpp:395] conv23_0_prescale -> conv23_0 (in-place)
I0407 23:13:58.108963 29122 net.cpp:150] Setting up conv23_0_prescale
I0407 23:13:58.108976 29122 net.cpp:157] Top shape: 64 100 42 42 (11289600)
I0407 23:13:58.108981 29122 net.cpp:165] Memory required for data: 6008639232
I0407 23:13:58.108988 29122 layer_factory.hpp:77] Creating layer conv23_0_sTanH
I0407 23:13:58.108995 29122 net.cpp:100] Creating Layer conv23_0_sTanH
I0407 23:13:58.109001 29122 net.cpp:434] conv23_0_sTanH <- conv23_0
I0407 23:13:58.109007 29122 net.cpp:395] conv23_0_sTanH -> conv23_0 (in-place)
I0407 23:13:58.109288 29122 net.cpp:150] Setting up conv23_0_sTanH
I0407 23:13:58.109302 29122 net.cpp:157] Top shape: 64 100 42 42 (11289600)
I0407 23:13:58.109308 29122 net.cpp:165] Memory required for data: 6053797632
I0407 23:13:58.109313 29122 layer_factory.hpp:77] Creating layer conv23_0_postscale
I0407 23:13:58.109320 29122 net.cpp:100] Creating Layer conv23_0_postscale
I0407 23:13:58.109340 29122 net.cpp:434] conv23_0_postscale <- conv23_0
I0407 23:13:58.109350 29122 net.cpp:395] conv23_0_postscale -> conv23_0 (in-place)
I0407 23:13:58.109568 29122 net.cpp:150] Setting up conv23_0_postscale
I0407 23:13:58.109580 29122 net.cpp:157] Top shape: 64 100 42 42 (11289600)
I0407 23:13:58.109586 29122 net.cpp:165] Memory required for data: 6098956032
I0407 23:13:58.109591 29122 layer_factory.hpp:77] Creating layer pool23_0
I0407 23:13:58.109599 29122 net.cpp:100] Creating Layer pool23_0
I0407 23:13:58.109606 29122 net.cpp:434] pool23_0 <- conv23_0
I0407 23:13:58.109613 29122 net.cpp:408] pool23_0 -> pool23_0
I0407 23:13:58.109702 29122 net.cpp:150] Setting up pool23_0
I0407 23:13:58.109714 29122 net.cpp:157] Top shape: 64 100 21 21 (2822400)
I0407 23:13:58.109719 29122 net.cpp:165] Memory required for data: 6110245632
I0407 23:13:58.109722 29122 layer_factory.hpp:77] Creating layer conv23_1
I0407 23:13:58.109733 29122 net.cpp:100] Creating Layer conv23_1
I0407 23:13:58.109740 29122 net.cpp:434] conv23_1 <- pool23_0
I0407 23:13:58.109748 29122 net.cpp:408] conv23_1 -> conv23_1
I0407 23:13:58.114792 29122 net.cpp:150] Setting up conv23_1
I0407 23:13:58.114812 29122 net.cpp:157] Top shape: 64 150 18 18 (3110400)
I0407 23:13:58.114820 29122 net.cpp:165] Memory required for data: 6122687232
I0407 23:13:58.114827 29122 layer_factory.hpp:77] Creating layer conv23_1_prescale
I0407 23:13:58.114840 29122 net.cpp:100] Creating Layer conv23_1_prescale
I0407 23:13:58.114847 29122 net.cpp:434] conv23_1_prescale <- conv23_1
I0407 23:13:58.114855 29122 net.cpp:395] conv23_1_prescale -> conv23_1 (in-place)
I0407 23:13:58.115062 29122 net.cpp:150] Setting up conv23_1_prescale
I0407 23:13:58.115073 29122 net.cpp:157] Top shape: 64 150 18 18 (3110400)
I0407 23:13:58.115077 29122 net.cpp:165] Memory required for data: 6135128832
I0407 23:13:58.115082 29122 layer_factory.hpp:77] Creating layer conv23_1_sTanH
I0407 23:13:58.115092 29122 net.cpp:100] Creating Layer conv23_1_sTanH
I0407 23:13:58.115099 29122 net.cpp:434] conv23_1_sTanH <- conv23_1
I0407 23:13:58.115104 29122 net.cpp:395] conv23_1_sTanH -> conv23_1 (in-place)
I0407 23:13:58.115382 29122 net.cpp:150] Setting up conv23_1_sTanH
I0407 23:13:58.115397 29122 net.cpp:157] Top shape: 64 150 18 18 (3110400)
I0407 23:13:58.115403 29122 net.cpp:165] Memory required for data: 6147570432
I0407 23:13:58.115407 29122 layer_factory.hpp:77] Creating layer conv23_1_postscale
I0407 23:13:58.115416 29122 net.cpp:100] Creating Layer conv23_1_postscale
I0407 23:13:58.115422 29122 net.cpp:434] conv23_1_postscale <- conv23_1
I0407 23:13:58.115430 29122 net.cpp:395] conv23_1_postscale -> conv23_1 (in-place)
I0407 23:13:58.115640 29122 net.cpp:150] Setting up conv23_1_postscale
I0407 23:13:58.115651 29122 net.cpp:157] Top shape: 64 150 18 18 (3110400)
I0407 23:13:58.115655 29122 net.cpp:165] Memory required for data: 6160012032
I0407 23:13:58.115661 29122 layer_factory.hpp:77] Creating layer pool23_1
I0407 23:13:58.115670 29122 net.cpp:100] Creating Layer pool23_1
I0407 23:13:58.115676 29122 net.cpp:434] pool23_1 <- conv23_1
I0407 23:13:58.115685 29122 net.cpp:408] pool23_1 -> pool23_1
I0407 23:13:58.115770 29122 net.cpp:150] Setting up pool23_1
I0407 23:13:58.115782 29122 net.cpp:157] Top shape: 64 150 9 9 (777600)
I0407 23:13:58.115787 29122 net.cpp:165] Memory required for data: 6163122432
I0407 23:13:58.115790 29122 layer_factory.hpp:77] Creating layer conv23_2
I0407 23:13:58.115802 29122 net.cpp:100] Creating Layer conv23_2
I0407 23:13:58.115808 29122 net.cpp:434] conv23_2 <- pool23_1
I0407 23:13:58.115818 29122 net.cpp:408] conv23_2 -> conv23_2
I0407 23:13:58.124300 29122 net.cpp:150] Setting up conv23_2
I0407 23:13:58.124325 29122 net.cpp:157] Top shape: 64 250 6 6 (576000)
I0407 23:13:58.124330 29122 net.cpp:165] Memory required for data: 6165426432
I0407 23:13:58.124338 29122 layer_factory.hpp:77] Creating layer conv23_2_prescale
I0407 23:13:58.124349 29122 net.cpp:100] Creating Layer conv23_2_prescale
I0407 23:13:58.124356 29122 net.cpp:434] conv23_2_prescale <- conv23_2
I0407 23:13:58.124382 29122 net.cpp:395] conv23_2_prescale -> conv23_2 (in-place)
I0407 23:13:58.124593 29122 net.cpp:150] Setting up conv23_2_prescale
I0407 23:13:58.124605 29122 net.cpp:157] Top shape: 64 250 6 6 (576000)
I0407 23:13:58.124609 29122 net.cpp:165] Memory required for data: 6167730432
I0407 23:13:58.124614 29122 layer_factory.hpp:77] Creating layer conv23_2_sTanH
I0407 23:13:58.124622 29122 net.cpp:100] Creating Layer conv23_2_sTanH
I0407 23:13:58.124630 29122 net.cpp:434] conv23_2_sTanH <- conv23_2
I0407 23:13:58.124639 29122 net.cpp:395] conv23_2_sTanH -> conv23_2 (in-place)
I0407 23:13:58.127032 29122 net.cpp:150] Setting up conv23_2_sTanH
I0407 23:13:58.127051 29122 net.cpp:157] Top shape: 64 250 6 6 (576000)
I0407 23:13:58.127058 29122 net.cpp:165] Memory required for data: 6170034432
I0407 23:13:58.127061 29122 layer_factory.hpp:77] Creating layer conv23_2_postscale
I0407 23:13:58.127074 29122 net.cpp:100] Creating Layer conv23_2_postscale
I0407 23:13:58.127081 29122 net.cpp:434] conv23_2_postscale <- conv23_2
I0407 23:13:58.127089 29122 net.cpp:395] conv23_2_postscale -> conv23_2 (in-place)
I0407 23:13:58.127303 29122 net.cpp:150] Setting up conv23_2_postscale
I0407 23:13:58.127315 29122 net.cpp:157] Top shape: 64 250 6 6 (576000)
I0407 23:13:58.127321 29122 net.cpp:165] Memory required for data: 6172338432
I0407 23:13:58.127326 29122 layer_factory.hpp:77] Creating layer pool23_2
I0407 23:13:58.127336 29122 net.cpp:100] Creating Layer pool23_2
I0407 23:13:58.127342 29122 net.cpp:434] pool23_2 <- conv23_2
I0407 23:13:58.127349 29122 net.cpp:408] pool23_2 -> pool23_2
I0407 23:13:58.127436 29122 net.cpp:150] Setting up pool23_2
I0407 23:13:58.127447 29122 net.cpp:157] Top shape: 64 250 3 3 (144000)
I0407 23:13:58.127451 29122 net.cpp:165] Memory required for data: 6172914432
I0407 23:13:58.127455 29122 layer_factory.hpp:77] Creating layer fc23_4_300
I0407 23:13:58.127462 29122 net.cpp:100] Creating Layer fc23_4_300
I0407 23:13:58.127468 29122 net.cpp:434] fc23_4_300 <- pool23_2
I0407 23:13:58.127477 29122 net.cpp:408] fc23_4_300 -> fc23_4
I0407 23:13:58.135208 29122 net.cpp:150] Setting up fc23_4_300
I0407 23:13:58.135234 29122 net.cpp:157] Top shape: 64 300 (19200)
I0407 23:13:58.135241 29122 net.cpp:165] Memory required for data: 6172991232
I0407 23:13:58.135255 29122 layer_factory.hpp:77] Creating layer fc23_4_prescale
I0407 23:13:58.135267 29122 net.cpp:100] Creating Layer fc23_4_prescale
I0407 23:13:58.135275 29122 net.cpp:434] fc23_4_prescale <- fc23_4
I0407 23:13:58.135289 29122 net.cpp:395] fc23_4_prescale -> fc23_4 (in-place)
I0407 23:13:58.135579 29122 net.cpp:150] Setting up fc23_4_prescale
I0407 23:13:58.135593 29122 net.cpp:157] Top shape: 64 300 (19200)
I0407 23:13:58.135599 29122 net.cpp:165] Memory required for data: 6173068032
I0407 23:13:58.135608 29122 layer_factory.hpp:77] Creating layer fc23_4_sTanH
I0407 23:13:58.135617 29122 net.cpp:100] Creating Layer fc23_4_sTanH
I0407 23:13:58.135620 29122 net.cpp:434] fc23_4_sTanH <- fc23_4
I0407 23:13:58.135628 29122 net.cpp:395] fc23_4_sTanH -> fc23_4 (in-place)
I0407 23:13:58.135949 29122 net.cpp:150] Setting up fc23_4_sTanH
I0407 23:13:58.135965 29122 net.cpp:157] Top shape: 64 300 (19200)
I0407 23:13:58.135969 29122 net.cpp:165] Memory required for data: 6173144832
I0407 23:13:58.135973 29122 layer_factory.hpp:77] Creating layer fc23_4_postscale
I0407 23:13:58.135984 29122 net.cpp:100] Creating Layer fc23_4_postscale
I0407 23:13:58.135990 29122 net.cpp:434] fc23_4_postscale <- fc23_4
I0407 23:13:58.135998 29122 net.cpp:395] fc23_4_postscale -> fc23_4 (in-place)
I0407 23:13:58.136217 29122 net.cpp:150] Setting up fc23_4_postscale
I0407 23:13:58.136229 29122 net.cpp:157] Top shape: 64 300 (19200)
I0407 23:13:58.136231 29122 net.cpp:165] Memory required for data: 6173221632
I0407 23:13:58.136237 29122 layer_factory.hpp:77] Creating layer drop23_4
I0407 23:13:58.136246 29122 net.cpp:100] Creating Layer drop23_4
I0407 23:13:58.136252 29122 net.cpp:434] drop23_4 <- fc23_4
I0407 23:13:58.136258 29122 net.cpp:395] drop23_4 -> fc23_4 (in-place)
I0407 23:13:58.136330 29122 net.cpp:150] Setting up drop23_4
I0407 23:13:58.136340 29122 net.cpp:157] Top shape: 64 300 (19200)
I0407 23:13:58.136343 29122 net.cpp:165] Memory required for data: 6173298432
I0407 23:13:58.136348 29122 layer_factory.hpp:77] Creating layer fc23_5_67
I0407 23:13:58.136355 29122 net.cpp:100] Creating Layer fc23_5_67
I0407 23:13:58.136360 29122 net.cpp:434] fc23_5_67 <- fc23_4
I0407 23:13:58.136368 29122 net.cpp:408] fc23_5_67 -> fc23_5
I0407 23:13:58.136765 29122 net.cpp:150] Setting up fc23_5_67
I0407 23:13:58.136776 29122 net.cpp:157] Top shape: 64 67 (4288)
I0407 23:13:58.136780 29122 net.cpp:165] Memory required for data: 6173315584
I0407 23:13:58.136787 29122 layer_factory.hpp:77] Creating layer softmax_23
I0407 23:13:58.136796 29122 net.cpp:100] Creating Layer softmax_23
I0407 23:13:58.136802 29122 net.cpp:434] softmax_23 <- fc23_5
I0407 23:13:58.136808 29122 net.cpp:408] softmax_23 -> softmax_23
I0407 23:13:58.137218 29122 net.cpp:150] Setting up softmax_23
I0407 23:13:58.137233 29122 net.cpp:157] Top shape: 64 67 (4288)
I0407 23:13:58.137238 29122 net.cpp:165] Memory required for data: 6173332736
I0407 23:13:58.137243 29122 layer_factory.hpp:77] Creating layer conv24_0
I0407 23:13:58.137255 29122 net.cpp:100] Creating Layer conv24_0
I0407 23:13:58.137262 29122 net.cpp:434] conv24_0 <- data_4_data_4_0_split_4
I0407 23:13:58.137271 29122 net.cpp:408] conv24_0 -> conv24_0
I0407 23:13:58.151151 29122 net.cpp:150] Setting up conv24_0
I0407 23:13:58.151175 29122 net.cpp:157] Top shape: 64 100 42 42 (11289600)
I0407 23:13:58.151180 29122 net.cpp:165] Memory required for data: 6218491136
I0407 23:13:58.151188 29122 layer_factory.hpp:77] Creating layer conv24_0_prescale
I0407 23:13:58.151206 29122 net.cpp:100] Creating Layer conv24_0_prescale
I0407 23:13:58.151211 29122 net.cpp:434] conv24_0_prescale <- conv24_0
I0407 23:13:58.151221 29122 net.cpp:395] conv24_0_prescale -> conv24_0 (in-place)
I0407 23:13:58.151434 29122 net.cpp:150] Setting up conv24_0_prescale
I0407 23:13:58.151448 29122 net.cpp:157] Top shape: 64 100 42 42 (11289600)
I0407 23:13:58.151453 29122 net.cpp:165] Memory required for data: 6263649536
I0407 23:13:58.151459 29122 layer_factory.hpp:77] Creating layer conv24_0_sTanH
I0407 23:13:58.151468 29122 net.cpp:100] Creating Layer conv24_0_sTanH
I0407 23:13:58.151475 29122 net.cpp:434] conv24_0_sTanH <- conv24_0
I0407 23:13:58.151481 29122 net.cpp:395] conv24_0_sTanH -> conv24_0 (in-place)
I0407 23:13:58.151765 29122 net.cpp:150] Setting up conv24_0_sTanH
I0407 23:13:58.151779 29122 net.cpp:157] Top shape: 64 100 42 42 (11289600)
I0407 23:13:58.151783 29122 net.cpp:165] Memory required for data: 6308807936
I0407 23:13:58.151787 29122 layer_factory.hpp:77] Creating layer conv24_0_postscale
I0407 23:13:58.151798 29122 net.cpp:100] Creating Layer conv24_0_postscale
I0407 23:13:58.151803 29122 net.cpp:434] conv24_0_postscale <- conv24_0
I0407 23:13:58.151809 29122 net.cpp:395] conv24_0_postscale -> conv24_0 (in-place)
I0407 23:13:58.152045 29122 net.cpp:150] Setting up conv24_0_postscale
I0407 23:13:58.152060 29122 net.cpp:157] Top shape: 64 100 42 42 (11289600)
I0407 23:13:58.152062 29122 net.cpp:165] Memory required for data: 6353966336
I0407 23:13:58.152070 29122 layer_factory.hpp:77] Creating layer pool24_0
I0407 23:13:58.152078 29122 net.cpp:100] Creating Layer pool24_0
I0407 23:13:58.152084 29122 net.cpp:434] pool24_0 <- conv24_0
I0407 23:13:58.152091 29122 net.cpp:408] pool24_0 -> pool24_0
I0407 23:13:58.152179 29122 net.cpp:150] Setting up pool24_0
I0407 23:13:58.152189 29122 net.cpp:157] Top shape: 64 100 21 21 (2822400)
I0407 23:13:58.152196 29122 net.cpp:165] Memory required for data: 6365255936
I0407 23:13:58.152200 29122 layer_factory.hpp:77] Creating layer conv24_1
I0407 23:13:58.152211 29122 net.cpp:100] Creating Layer conv24_1
I0407 23:13:58.152217 29122 net.cpp:434] conv24_1 <- pool24_0
I0407 23:13:58.152225 29122 net.cpp:408] conv24_1 -> conv24_1
I0407 23:13:58.157615 29122 net.cpp:150] Setting up conv24_1
I0407 23:13:58.157637 29122 net.cpp:157] Top shape: 64 150 18 18 (3110400)
I0407 23:13:58.157656 29122 net.cpp:165] Memory required for data: 6377697536
I0407 23:13:58.157666 29122 layer_factory.hpp:77] Creating layer conv24_1_prescale
I0407 23:13:58.157678 29122 net.cpp:100] Creating Layer conv24_1_prescale
I0407 23:13:58.157685 29122 net.cpp:434] conv24_1_prescale <- conv24_1
I0407 23:13:58.157693 29122 net.cpp:395] conv24_1_prescale -> conv24_1 (in-place)
I0407 23:13:58.157904 29122 net.cpp:150] Setting up conv24_1_prescale
I0407 23:13:58.157917 29122 net.cpp:157] Top shape: 64 150 18 18 (3110400)
I0407 23:13:58.157922 29122 net.cpp:165] Memory required for data: 6390139136
I0407 23:13:58.157928 29122 layer_factory.hpp:77] Creating layer conv24_1_sTanH
I0407 23:13:58.157935 29122 net.cpp:100] Creating Layer conv24_1_sTanH
I0407 23:13:58.157941 29122 net.cpp:434] conv24_1_sTanH <- conv24_1
I0407 23:13:58.157948 29122 net.cpp:395] conv24_1_sTanH -> conv24_1 (in-place)
I0407 23:13:58.158222 29122 net.cpp:150] Setting up conv24_1_sTanH
I0407 23:13:58.158238 29122 net.cpp:157] Top shape: 64 150 18 18 (3110400)
I0407 23:13:58.158243 29122 net.cpp:165] Memory required for data: 6402580736
I0407 23:13:58.158248 29122 layer_factory.hpp:77] Creating layer conv24_1_postscale
I0407 23:13:58.158255 29122 net.cpp:100] Creating Layer conv24_1_postscale
I0407 23:13:58.158262 29122 net.cpp:434] conv24_1_postscale <- conv24_1
I0407 23:13:58.158270 29122 net.cpp:395] conv24_1_postscale -> conv24_1 (in-place)
I0407 23:13:58.158483 29122 net.cpp:150] Setting up conv24_1_postscale
I0407 23:13:58.158494 29122 net.cpp:157] Top shape: 64 150 18 18 (3110400)
I0407 23:13:58.158498 29122 net.cpp:165] Memory required for data: 6415022336
I0407 23:13:58.158504 29122 layer_factory.hpp:77] Creating layer pool24_1
I0407 23:13:58.158514 29122 net.cpp:100] Creating Layer pool24_1
I0407 23:13:58.158519 29122 net.cpp:434] pool24_1 <- conv24_1
I0407 23:13:58.158527 29122 net.cpp:408] pool24_1 -> pool24_1
I0407 23:13:58.158613 29122 net.cpp:150] Setting up pool24_1
I0407 23:13:58.158624 29122 net.cpp:157] Top shape: 64 150 9 9 (777600)
I0407 23:13:58.158628 29122 net.cpp:165] Memory required for data: 6418132736
I0407 23:13:58.158632 29122 layer_factory.hpp:77] Creating layer conv24_2
I0407 23:13:58.158643 29122 net.cpp:100] Creating Layer conv24_2
I0407 23:13:58.158651 29122 net.cpp:434] conv24_2 <- pool24_1
I0407 23:13:58.158658 29122 net.cpp:408] conv24_2 -> conv24_2
I0407 23:13:58.166831 29122 net.cpp:150] Setting up conv24_2
I0407 23:13:58.166852 29122 net.cpp:157] Top shape: 64 250 6 6 (576000)
I0407 23:13:58.166857 29122 net.cpp:165] Memory required for data: 6420436736
I0407 23:13:58.166865 29122 layer_factory.hpp:77] Creating layer conv24_2_prescale
I0407 23:13:58.166877 29122 net.cpp:100] Creating Layer conv24_2_prescale
I0407 23:13:58.166883 29122 net.cpp:434] conv24_2_prescale <- conv24_2
I0407 23:13:58.166890 29122 net.cpp:395] conv24_2_prescale -> conv24_2 (in-place)
I0407 23:13:58.167096 29122 net.cpp:150] Setting up conv24_2_prescale
I0407 23:13:58.167109 29122 net.cpp:157] Top shape: 64 250 6 6 (576000)
I0407 23:13:58.167112 29122 net.cpp:165] Memory required for data: 6422740736
I0407 23:13:58.167117 29122 layer_factory.hpp:77] Creating layer conv24_2_sTanH
I0407 23:13:58.167126 29122 net.cpp:100] Creating Layer conv24_2_sTanH
I0407 23:13:58.167132 29122 net.cpp:434] conv24_2_sTanH <- conv24_2
I0407 23:13:58.167140 29122 net.cpp:395] conv24_2_sTanH -> conv24_2 (in-place)
I0407 23:13:58.168329 29122 net.cpp:150] Setting up conv24_2_sTanH
I0407 23:13:58.168349 29122 net.cpp:157] Top shape: 64 250 6 6 (576000)
I0407 23:13:58.168355 29122 net.cpp:165] Memory required for data: 6425044736
I0407 23:13:58.168360 29122 layer_factory.hpp:77] Creating layer conv24_2_postscale
I0407 23:13:58.168370 29122 net.cpp:100] Creating Layer conv24_2_postscale
I0407 23:13:58.168375 29122 net.cpp:434] conv24_2_postscale <- conv24_2
I0407 23:13:58.168385 29122 net.cpp:395] conv24_2_postscale -> conv24_2 (in-place)
I0407 23:13:58.168592 29122 net.cpp:150] Setting up conv24_2_postscale
I0407 23:13:58.168606 29122 net.cpp:157] Top shape: 64 250 6 6 (576000)
I0407 23:13:58.168625 29122 net.cpp:165] Memory required for data: 6427348736
I0407 23:13:58.168633 29122 layer_factory.hpp:77] Creating layer pool24_2
I0407 23:13:58.168643 29122 net.cpp:100] Creating Layer pool24_2
I0407 23:13:58.168649 29122 net.cpp:434] pool24_2 <- conv24_2
I0407 23:13:58.168656 29122 net.cpp:408] pool24_2 -> pool24_2
I0407 23:13:58.168787 29122 net.cpp:150] Setting up pool24_2
I0407 23:13:58.168799 29122 net.cpp:157] Top shape: 64 250 3 3 (144000)
I0407 23:13:58.168804 29122 net.cpp:165] Memory required for data: 6427924736
I0407 23:13:58.168808 29122 layer_factory.hpp:77] Creating layer fc24_4_300
I0407 23:13:58.168817 29122 net.cpp:100] Creating Layer fc24_4_300
I0407 23:13:58.168824 29122 net.cpp:434] fc24_4_300 <- pool24_2
I0407 23:13:58.168831 29122 net.cpp:408] fc24_4_300 -> fc24_4
I0407 23:13:58.175665 29122 net.cpp:150] Setting up fc24_4_300
I0407 23:13:58.175685 29122 net.cpp:157] Top shape: 64 300 (19200)
I0407 23:13:58.175691 29122 net.cpp:165] Memory required for data: 6428001536
I0407 23:13:58.175699 29122 layer_factory.hpp:77] Creating layer fc24_4_prescale
I0407 23:13:58.175712 29122 net.cpp:100] Creating Layer fc24_4_prescale
I0407 23:13:58.175719 29122 net.cpp:434] fc24_4_prescale <- fc24_4
I0407 23:13:58.175729 29122 net.cpp:395] fc24_4_prescale -> fc24_4 (in-place)
I0407 23:13:58.175946 29122 net.cpp:150] Setting up fc24_4_prescale
I0407 23:13:58.175957 29122 net.cpp:157] Top shape: 64 300 (19200)
I0407 23:13:58.175961 29122 net.cpp:165] Memory required for data: 6428078336
I0407 23:13:58.175966 29122 layer_factory.hpp:77] Creating layer fc24_4_sTanH
I0407 23:13:58.175976 29122 net.cpp:100] Creating Layer fc24_4_sTanH
I0407 23:13:58.175981 29122 net.cpp:434] fc24_4_sTanH <- fc24_4
I0407 23:13:58.175989 29122 net.cpp:395] fc24_4_sTanH -> fc24_4 (in-place)
I0407 23:13:58.176270 29122 net.cpp:150] Setting up fc24_4_sTanH
I0407 23:13:58.176282 29122 net.cpp:157] Top shape: 64 300 (19200)
I0407 23:13:58.176286 29122 net.cpp:165] Memory required for data: 6428155136
I0407 23:13:58.176290 29122 layer_factory.hpp:77] Creating layer fc24_4_postscale
I0407 23:13:58.176301 29122 net.cpp:100] Creating Layer fc24_4_postscale
I0407 23:13:58.176306 29122 net.cpp:434] fc24_4_postscale <- fc24_4
I0407 23:13:58.176312 29122 net.cpp:395] fc24_4_postscale -> fc24_4 (in-place)
I0407 23:13:58.176523 29122 net.cpp:150] Setting up fc24_4_postscale
I0407 23:13:58.176534 29122 net.cpp:157] Top shape: 64 300 (19200)
I0407 23:13:58.176537 29122 net.cpp:165] Memory required for data: 6428231936
I0407 23:13:58.176543 29122 layer_factory.hpp:77] Creating layer drop24_4
I0407 23:13:58.176554 29122 net.cpp:100] Creating Layer drop24_4
I0407 23:13:58.176560 29122 net.cpp:434] drop24_4 <- fc24_4
I0407 23:13:58.176565 29122 net.cpp:395] drop24_4 -> fc24_4 (in-place)
I0407 23:13:58.176615 29122 net.cpp:150] Setting up drop24_4
I0407 23:13:58.176625 29122 net.cpp:157] Top shape: 64 300 (19200)
I0407 23:13:58.176627 29122 net.cpp:165] Memory required for data: 6428308736
I0407 23:13:58.176631 29122 layer_factory.hpp:77] Creating layer fc24_5_67
I0407 23:13:58.176638 29122 net.cpp:100] Creating Layer fc24_5_67
I0407 23:13:58.176645 29122 net.cpp:434] fc24_5_67 <- fc24_4
I0407 23:13:58.176652 29122 net.cpp:408] fc24_5_67 -> fc24_5
I0407 23:13:58.177045 29122 net.cpp:150] Setting up fc24_5_67
I0407 23:13:58.177057 29122 net.cpp:157] Top shape: 64 67 (4288)
I0407 23:13:58.177060 29122 net.cpp:165] Memory required for data: 6428325888
I0407 23:13:58.177067 29122 layer_factory.hpp:77] Creating layer softmax_24
I0407 23:13:58.177076 29122 net.cpp:100] Creating Layer softmax_24
I0407 23:13:58.177083 29122 net.cpp:434] softmax_24 <- fc24_5
I0407 23:13:58.177093 29122 net.cpp:408] softmax_24 -> softmax_24
I0407 23:13:58.177495 29122 net.cpp:150] Setting up softmax_24
I0407 23:13:58.177511 29122 net.cpp:157] Top shape: 64 67 (4288)
I0407 23:13:58.177516 29122 net.cpp:165] Memory required for data: 6428343040
I0407 23:13:58.177520 29122 layer_factory.hpp:77] Creating layer averaging
I0407 23:13:58.177533 29122 net.cpp:100] Creating Layer averaging
I0407 23:13:58.177556 29122 net.cpp:434] averaging <- softmax_0
I0407 23:13:58.177564 29122 net.cpp:434] averaging <- softmax_1
I0407 23:13:58.177572 29122 net.cpp:434] averaging <- softmax_2
…
