…
I0407 23:53:01.768277 29293 net.cpp:322] The NetState phase (0) differed from the phase (1) specified by a rule in layer accuracy_5
I0407 23:53:01.770527 29293 net.cpp:58] Initializing net from parameters: 
state {
  phase: TRAIN
  level: 0
  stage: ""
}
layer {
  name: "data_0"
  type: "Data"
  top: "data_0"
  top: "label_0"
  include {
    phase: TRAIN
  }
  transform_param {
    mirror: false
    crop_size: 48
    mean_value: 115
    mean_value: 107
    mean_value: 120
  }
  data_param {
    source: "../local_data/lmdb/rtsd-r1/orig/train/lmdb"
    batch_size: 64
    backend: LMDB
  }
}
layer {
  name: "conv0_0"
  type: "Convolution"
  bottom: "data_0"
  top: "conv0_0"
  convolution_param {
    num_output: 100
    pad: 0
    kernel_size: 7
    group: 1
    stride: 1
    weight_filler {
      type: "xavier"
    }
  }
}
layer {
  name: "conv0_0_prescale"
  type: "Scale"
  bottom: "conv0_0"
  top: "conv0_0"
  param {
    lr_mult: 0
    decay_mult: 0
  }
  scale_param {
    filler {
      value: 0.6666
    }
  }
}
layer {
  name: "conv0_0_sTanH"
  type: "TanH"
  bottom: "conv0_0"
  top: "conv0_0"
}
layer {
  name: "conv0_0_postscale"
  type: "Scale"
  bottom: "conv0_0"
  top: "conv0_0"
  param {
    lr_mult: 0
    decay_mult: 0
  }
  scale_param {
    filler {
      value: 1.7159
    }
  }
}
layer {
  name: "pool0_0"
  type: "Pooling"
  bottom: "conv0_0"
  top: "pool0_0"
  pooling_param {
    pool: MAX
    kernel_size: 2
    stride: 2
  }
}
layer {
  name: "conv0_1"
  type: "Convolution"
  bottom: "pool0_0"
  top: "conv0_1"
  convolution_param {
    num_output: 150
    pad: 0
    kernel_size: 4
    group: 1
    stride: 1
    weight_filler {
      type: "xavier"
    }
  }
}
layer {
  name: "conv0_1_prescale"
  type: "Scale"
  bottom: "conv0_1"
  top: "conv0_1"
  param {
    lr_mult: 0
    decay_mult: 0
  }
  scale_param {
    filler {
      value: 0.6666
    }
  }
}
layer {
  name: "conv0_1_sTanH"
  type: "TanH"
  bottom: "conv0_1"
  top: "conv0_1"
}
layer {
  name: "conv0_1_postscale"
  type: "Scale"
  bottom: "conv0_1"
  top: "conv0_1"
  param {
    lr_mult: 0
    decay_mult: 0
  }
  scale_param {
    filler {
      value: 1.7159
    }
  }
}
layer {
  name: "pool0_1"
  type: "Pooling"
  bottom: "conv0_1"
  top: "pool0_1"
  pooling_param {
    pool: MAX
    kernel_size: 2
    stride: 2
  }
}
layer {
  name: "conv0_2"
  type: "Convolution"
  bottom: "pool0_1"
  top: "conv0_2"
  convolution_param {
    num_output: 250
    pad: 0
    kernel_size: 4
    group: 1
    stride: 1
    weight_filler {
      type: "xavier"
    }
  }
}
layer {
  name: "conv0_2_prescale"
  type: "Scale"
  bottom: "conv0_2"
  top: "conv0_2"
  param {
    lr_mult: 0
    decay_mult: 0
  }
  scale_param {
    filler {
      value: 0.6666
    }
  }
}
layer {
  name: "conv0_2_sTanH"
  type: "TanH"
  bottom: "conv0_2"
  top: "conv0_2"
}
layer {
  name: "conv0_2_postscale"
  type: "Scale"
  bottom: "conv0_2"
  top: "conv0_2"
  param {
    lr_mult: 0
    decay_mult: 0
  }
  scale_param {
    filler {
      value: 1.7159
    }
  }
}
layer {
  name: "pool0_2"
  type: "Pooling"
  bottom: "conv0_2"
  top: "pool0_2"
  pooling_param {
    pool: MAX
    kernel_size: 2
    stride: 2
  }
}
layer {
  name: "fc0_4_300"
  type: "InnerProduct"
  bottom: "pool0_2"
  top: "fc0_4"
  inner_product_param {
    num_output: 300
    weight_filler {
      type: "xavier"
    }
  }
}
layer {
  name: "fc0_4_prescale"
  type: "Scale"
  bottom: "fc0_4"
  top: "fc0_4"
  param {
    lr_mult: 0
    decay_mult: 0
  }
  scale_param {
    filler {
      value: 0.6666
    }
  }
}
layer {
  name: "fc0_4_sTanH"
  type: "TanH"
  bottom: "fc0_4"
  top: "fc0_4"
}
layer {
  name: "fc0_4_postscale"
  type: "Scale"
  bottom: "fc0_4"
  top: "fc0_4"
  param {
    lr_mult: 0
    decay_mult: 0
  }
  scale_param {
    filler {
      value: 1.7159
    }
  }
}
layer {
  name: "drop0_4"
  type: "Dropout"
  bottom: "fc0_4"
  top: "fc0_4"
  dropout_param {
    dropout_ratio: 0.4
  }
}
layer {
  name: "fc0_5_67"
  type: "InnerProduct"
  bottom: "fc0_4"
  top: "fc0_5"
  inner_product_param {
    num_output: 67
    weight_filler {
      type: "xavier"
    }
  }
}
layer {
  name: "softmax_0"
  type: "Softmax"
  bottom: "fc0_5"
  top: "softmax_0"
}
layer {
  name: "conv1_0"
  type: "Convolution"
  bottom: "data_0"
  top: "conv1_0"
  convolution_param {
    num_output: 100
    pad: 0
    kernel_size: 7
    group: 1
    stride: 1
    weight_filler {
      type: "xavier"
    }
  }
}
layer {
  name: "conv1_0_prescale"
  type: "Scale"
  bottom: "conv1_0"
  top: "conv1_0"
  param {
    lr_mult: 0
    decay_mult: 0
  }
  scale_param {
    filler {
      value: 0.6666
    }
  }
}
layer {
  name: "conv1_0_sTanH"
  type: "TanH"
  bottom: "conv1_0"
  top: "conv1_0"
}
layer {
  name: "conv1_0_postscale"
  type: "Scale"
  bottom: "conv1_0"
  top: "conv1_0"
  param {
    lr_mult: 0
    decay_mult: 0
  }
  scale_param {
    filler {
      value: 1.7159
    }
  }
}
layer {
  name: "pool1_0"
  type: "Pooling"
  bottom: "conv1_0"
  top: "pool1_0"
  pooling_param {
    pool: MAX
    kernel_size: 2
    stride: 2
  }
}
layer {
  name: "conv1_1"
  type: "Convolution"
  bottom: "pool1_0"
  top: "conv1_1"
  convolution_param {
    num_output: 150
    pad: 0
    kernel_size: 4
    group: 1
    stride: 1
    weight_filler {
      type: "xavier"
    }
  }
}
layer {
  name: "conv1_1_prescale"
  type: "Scale"
  bottom: "conv1_1"
  top: "conv1_1"
  param {
    lr_mult: 0
    decay_mult: 0
  }
  scale_param {
    filler {
      value: 0.6666
    }
  }
}
layer {
  name: "conv1_1_sTanH"
  type: "TanH"
  bottom: "conv1_1"
  top: "conv1_1"
}
layer {
  name: "conv1_1_postscale"
  type: "Scale"
  bottom: "conv1_1"
  top: "conv1_1"
  param {
    lr_mult: 0
    decay_mult: 0
  }
  scale_param {
    filler {
      value: 1.7159
    }
  }
}
layer {
  name: "pool1_1"
  type: "Pooling"
  bottom: "conv1_1"
  top: "pool1_1"
  pooling_param {
    pool: MAX
    kernel_size: 2
    stride: 2
  }
}
layer {
  name: "conv1_2"
  type: "Convolution"
  bottom: "pool1_1"
  top: "conv1_2"
  convolution_param {
    num_output: 250
    pad: 0
    kernel_size: 4
    group: 1
    stride: 1
    weight_filler {
      type: "xavier"
    }
  }
}
layer {
  name: "conv1_2_prescale"
  type: "Scale"
  bottom: "conv1_2"
  top: "conv1_2"
  param {
    lr_mult: 0
    decay_mult: 0
  }
  scale_param {
    filler {
      value: 0.6666
    }
  }
}
layer {
  name: "conv1_2_sTanH"
  type: "TanH"
  bottom: "conv1_2"
  top: "conv1_2"
}
layer {
  name: "conv1_2_postscale"
  type: "Scale"
  bottom: "conv1_2"
  top: "conv1_2"
  param {
    lr_mult: 0
    decay_mult: 0
  }
  scale_param {
    filler {
      value: 1.7159
    }
  }
}
layer {
  name: "pool1_2"
  type: "Pooling"
  bottom: "conv1_2"
  top: "pool1_2"
  pooling_param {
    pool: MAX
    kernel_size: 2
    stride: 2
  }
}
layer {
  name: "fc1_4_300"
  type: "InnerProduct"
  bottom: "pool1_2"
  top: "fc1_4"
  inner_product_param {
    num_output: 300
    weight_filler {
      type: "xavier"
    }
  }
}
layer {
  name: "fc1_4_prescale"
  type: "Scale"
  bottom: "fc1_4"
  top: "fc1_4"
  param {
    lr_mult: 0
    decay_mult: 0
  }
  scale_param {
    filler {
      value: 0.6666
    }
  }
}
layer {
  name: "fc1_4_sTanH"
  type: "TanH"
  bottom: "fc1_4"
  top: "fc1_4"
}
layer {
  name: "fc1_4_postscale"
  type: "Scale"
  bottom: "fc1_4"
  top: "fc1_4"
  param {
    lr_mult: 0
    decay_mult: 0
  }
  scale_param {
    filler {
      value: 1.7159
    }
  }
}
layer {
  name: "drop1_4"
  type: "Dropout"
  bottom: "fc1_4"
  top: "fc1_4"
  dropout_param {
    dropout_ratio: 0.4
  }
}
layer {
  name: "fc1_5_67"
  type: "InnerProduct"
  bottom: "fc1_4"
  top: "fc1_5"
  inner_product_param {
    num_output: 67
    weight_filler {
      type: "xavier"
    }
  }
}
layer {
  name: "softmax_1"
  type: "Softmax"
  bottom: "fc1_5"
  top: "softmax_1"
}
layer {
  name: "conv2_0"
  type: "Convolution"
  bottom: "data_0"
  top: "conv2_0"
  convolution_param {
    num_output: 100
    pad: 0
    kernel_size: 7
    group: 1
    stride: 1
    weight_filler {
      type: "xavier"
    }
  }
}
layer {
  name: "conv2_0_prescale"
  type: "Scale"
  bottom: "conv2_0"
  top: "conv2_0"
  param {
    lr_mult: 0
    decay_mult: 0
  }
  scale_param {
    filler {
      value: 0.6666
    }
  }
}
layer {
  name: "conv2_0_sTanH"
  type: "TanH"
  bottom: "conv2_0"
  top: "conv2_0"
}
layer {
  name: "conv2_0_postscale"
  type: "Scale"
  bottom: "conv2_0"
  top: "conv2_0"
  param {
    lr_mult: 0
    decay_mult: 0
  }
  scale_param {
    filler {
      value: 1.7159
    }
  }
}
layer {
  name: "pool2_0"
  type: "Pooling"
  bottom: "conv2_0"
  top: "pool2_0"
  pooling_param {
    pool: MAX
    kernel_size: 2
    stride: 2
  }
}
layer {
  name: "conv2_1"
  type: "Convolution"
  bottom: "pool2_0"
  top: "conv2_1"
  convolution_param {
    num_output: 150
    pad: 0
    kernel_size: 4
    group: 1
    stride: 1
    weight_filler {
      type: "xavier"
    }
  }
}
layer {
  name: "conv2_1_prescale"
  type: "Scale"
  bottom: "conv2_1"
  top: "conv2_1"
  param {
    lr_mult: 0
    decay_mult: 0
  }
  scale_param {
    filler {
      value: 0.6666
    }
  }
}
layer {
  name: "conv2_1_sTanH"
  type: "TanH"
  bottom: "conv2_1"
  top: "conv2_1"
}
layer {
  name: "conv2_1_postscale"
  type: "Scale"
  bottom: "conv2_1"
  top: "conv2_1"
  param {
    lr_mult: 0
    decay_mult: 0
  }
  scale_param {
    filler {
      value: 1.7159
    }
  }
}
layer {
  name: "pool2_1"
  type: "Pooling"
  bottom: "conv2_1"
  top: "pool2_1"
  pooling_param {
    pool: MAX
    kernel_size: 2
    stride: 2
  }
}
layer {
  name: "conv2_2"
  type: "Convolution"
  bottom: "pool2_1"
  top: "conv2_2"
  convolution_param {
    num_output: 250
    pad: 0
    kernel_size: 4
    group: 1
    stride: 1
    weight_filler {
      type: "xavier"
    }
  }
}
layer {
  name: "conv2_2_prescale"
  type: "Scale"
  bottom: "conv2_2"
  top: "conv2_2"
  param {
    lr_mult: 0
    decay_mult: 0
  }
  scale_param {
    filler {
      value: 0.6666
    }
  }
}
layer {
  name: "conv2_2_sTanH"
  type: "TanH"
  bottom: "conv2_2"
  top: "conv2_2"
}
layer {
  name: "conv2_2_postscale"
  type: "Scale"
  bottom: "conv2_2"
  top: "conv2_2"
  param {
    lr_mult: 0
    decay_mult: 0
  }
  scale_param {
    filler {
      value: 1.7159
    }
  }
}
layer {
  name: "pool2_2"
  type: "Pooling"
  bottom: "conv2_2"
  top: "pool2_2"
  pooling_param {
    pool: MAX
    kernel_size: 2
    stride: 2
  }
}
layer {
  name: "fc2_4_300"
  type: "InnerProduct"
  bottom: "pool2_2"
  top: "fc2_4"
  inner_product_param {
    num_output: 300
    weight_filler {
      type: "xavier"
    }
  }
}
layer {
  name: "fc2_4_prescale"
  type: "Scale"
  bottom: "fc2_4"
  top: "fc2_4"
  param {
    lr_mult: 0
    decay_mult: 0
  }
  scale_param {
    filler {
      value: 0.6666
    }
  }
}
layer {
  name: "fc2_4_sTanH"
  type: "TanH"
  bottom: "fc2_4"
  top: "fc2_4"
}
layer {
  name: "fc2_4_postscale"
  type: "Scale"
  bottom: "fc2_4"
  top: "fc2_4"
  param {
    lr_mult: 0
    decay_mult: 0
  }
  scale_param {
    filler {
      value: 1.7159
    }
  }
}
layer {
  name: "drop2_4"
  type: "Dropout"
  bottom: "fc2_4"
  top: "fc2_4"
  dropout_param {
    dropout_ratio: 0.4
  }
}
layer {
  name: "fc2_5_67"
  type: "InnerProduct"
  bottom: "fc2_4"
  top: "fc2_5"
  inner_product_param {
    num_output: 67
    weight_filler {
      type: "xavier"
    }
  }
}
layer {
  name: "softmax_2"
  type: "Softmax"
  bottom: "fc2_5"
  top: "softmax_2"
}
layer {
  name: "conv3_0"
  type: "Convolution"
  bottom: "data_0"
  top: "conv3_0"
  convolution_param {
    num_output: 100
    pad: 0
    kernel_size: 7
    group: 1
    stride: 1
    weight_filler {
      type: "xavier"
    }
  }
}
layer {
  name: "conv3_0_prescale"
  type: "Scale"
  bottom: "conv3_0"
  top: "conv3_0"
  param {
    lr_mult: 0
    decay_mult: 0
  }
  scale_param {
    filler {
      value: 0.6666
    }
  }
}
layer {
  name: "conv3_0_sTanH"
  type: "TanH"
  bottom: "conv3_0"
  top: "conv3_0"
}
layer {
  name: "conv3_0_postscale"
  type: "Scale"
  bottom: "conv3_0"
  top: "conv3_0"
  param {
    lr_mult: 0
    decay_mult: 0
  }
  scale_param {
    filler {
      value: 1.7159
    }
  }
}
layer {
  name: "pool3_0"
  type: "Pooling"
  bottom: "conv3_0"
  top: "pool3_0"
  pooling_param {
    pool: MAX
    kernel_size: 2
    stride: 2
  }
}
layer {
  name: "conv3_1"
  type: "Convolution"
  bottom: "pool3_0"
  top: "conv3_1"
  convolution_param {
    num_output: 150
    pad: 0
    kernel_size: 4
    group: 1
    stride: 1
    weight_filler {
      type: "xavier"
    }
  }
}
layer {
  name: "conv3_1_prescale"
  type: "Scale"
  bottom: "conv3_1"
  top: "conv3_1"
  param {
    lr_mult: 0
    decay_mult: 0
  }
  scale_param {
    filler {
      value: 0.6666
    }
  }
}
layer {
  name: "conv3_1_sTanH"
  type: "TanH"
  bottom: "conv3_1"
  top: "conv3_1"
}
layer {
  name: "conv3_1_postscale"
  type: "Scale"
  bottom: "conv3_1"
  top: "conv3_1"
  param {
    lr_mult: 0
    decay_mult: 0
  }
  scale_param {
    filler {
      value: 1.7159
    }
  }
}
layer {
  name: "pool3_1"
  type: "Pooling"
  bottom: "conv3_1"
  top: "pool3_1"
  pooling_param {
    pool: MAX
    kernel_size: 2
    stride: 2
  }
}
layer {
  name: "conv3_2"
  type: "Convolution"
  bottom: "pool3_1"
  top: "conv3_2"
  convolution_param {
    num_output: 250
    pad: 0
    kernel_size: 4
    group: 1
    stride: 1
    weight_filler {
      type: "xavier"
    }
  }
}
layer {
  name: "conv3_2_prescale"
  type: "Scale"
  bottom: "conv3_2"
  top: "conv3_2"
  param {
    lr_mult: 0
    decay_mult: 0
  }
  scale_param {
    filler {
      value: 0.6666
    }
  }
}
layer {
  name: "conv3_2_sTanH"
  type: "TanH"
  bottom: "conv3_2"
  top: "conv3_2"
}
layer {
  name: "conv3_2_postscale"
  type: "Scale"
  bottom: "conv3_2"
  top: "conv3_2"
  param {
    lr_mult: 0
    decay_mult: 0
  }
  scale_param {
    filler {
      value: 1.7159
    }
  }
}
layer {
  name: "pool3_2"
  type: "Pooling"
  bottom: "conv3_2"
  top: "pool3_2"
  pooling_param {
    pool: MAX
    kernel_size: 2
    stride: 2
  }
}
layer {
  name: "fc3_4_300"
  type: "InnerProduct"
  bottom: "pool3_2"
  top: "fc3_4"
  inner_product_param {
    num_output: 300
    weight_filler {
      type: "xavier"
    }
  }
}
layer {
  name: "fc3_4_prescale"
  type: "Scale"
  bottom: "fc3_4"
  top: "fc3_4"
  param {
    lr_mult: 0
    decay_mult: 0
  }
  scale_param {
    filler {
      value: 0.6666
    }
  }
}
layer {
  name: "fc3_4_sTanH"
  type: "TanH"
  bottom: "fc3_4"
  top: "fc3_4"
}
layer {
  name: "fc3_4_postscale"
  type: "Scale"
  bottom: "fc3_4"
  top: "fc3_4"
  param {
    lr_mult: 0
    decay_mult: 0
  }
  scale_param {
    filler {
      value: 1.7159
    }
  }
}
layer {
  name: "drop3_4"
  type: "Dropout"
  bottom: "fc3_4"
  top: "fc3_4"
  dropout_param {
    dropout_ratio: 0.4
  }
}
layer {
  name: "fc3_5_67"
  type: "InnerProduct"
  bottom: "fc3_4"
  top: "fc3_5"
  inner_product_param {
    num_output: 67
    weight_filler {
      type: "xavier"
    }
  }
}
layer {
  name: "softmax_3"
  type: "Softmax"
  bottom: "fc3_5"
  top: "softmax_3"
}
layer {
  name: "conv4_0"
  type: "Convolution"
  bottom: "data_0"
  top: "conv4_0"
  convolution_param {
    num_output: 100
    pad: 0
    kernel_size: 7
    group: 1
    stride: 1
    weight_filler {
      type: "xavier"
    }
  }
}
layer {
  name: "conv4_0_prescale"
  type: "Scale"
  bottom: "conv4_0"
  top: "conv4_0"
  param {
    lr_mult: 0
    decay_mult: 0
  }
  scale_param {
    filler {
      value: 0.6666
    }
  }
}
layer {
  name: "conv4_0_sTanH"
  type: "TanH"
  bottom: "conv4_0"
  top: "conv4_0"
}
layer {
  name: "conv4_0_postscale"
  type: "Scale"
  bottom: "conv4_0"
  top: "conv4_0"
  param {
    lr_mult: 0
    decay_mult: 0
  }
  scale_param {
    filler {
      value: 1.7159
    }
  }
}
layer {
  name: "pool4_0"
  type: "Pooling"
  bottom: "conv4_0"
  top: "pool4_0"
  pooling_param {
    pool: MAX
    kernel_size: 2
    stride: 2
  }
}
layer {
  name: "conv4_1"
  type: "Convolution"
  bottom: "pool4_0"
  top: "conv4_1"
  convolution_param {
    num_output: 150
    pad: 0
    kernel_size: 4
    group: 1
    stride: 1
    weight_filler {
      type: "xavier"
    }
  }
}
layer {
  name: "conv4_1_prescale"
  type: "Scale"
  bottom: "conv4_1"
  top: "conv4_1"
  param {
    lr_mult: 0
    decay_mult: 0
  }
  scale_param {
    filler {
      value: 0.6666
    }
  }
}
layer {
  name: "conv4_1_sTanH"
  type: "TanH"
  bottom: "conv4_1"
  top: "conv4_1"
}
layer {
  name: "conv4_1_postscale"
  type: "Scale"
  bottom: "conv4_1"
  top: "conv4_1"
  param {
    lr_mult: 0
    decay_mult: 0
  }
  scale_param {
    filler {
      value: 1.7159
    }
  }
}
layer {
  name: "pool4_1"
  type: "Pooling"
  bottom: "conv4_1"
  top: "pool4_1"
  pooling_param {
    pool: MAX
    kernel_size: 2
    stride: 2
  }
}
layer {
  name: "conv4_2"
  type: "Convolution"
  bottom: "pool4_1"
  top: "conv4_2"
  convolution_param {
    num_output: 250
    pad: 0
    kernel_size: 4
    group: 1
    stride: 1
    weight_filler {
      type: "xavier"
    }
  }
}
layer {
  name: "conv4_2_prescale"
  type: "Scale"
  bottom: "conv4_2"
  top: "conv4_2"
  param {
    lr_mult: 0
    decay_mult: 0
  }
  scale_param {
    filler {
      value: 0.6666
    }
  }
}
layer {
  name: "conv4_2_sTanH"
  type: "TanH"
  bottom: "conv4_2"
  top: "conv4_2"
}
layer {
  name: "conv4_2_postscale"
  type: "Scale"
  bottom: "conv4_2"
  top: "conv4_2"
  param {
    lr_mult: 0
    decay_mult: 0
  }
  scale_param {
    filler {
      value: 1.7159
    }
  }
}
layer {
  name: "pool4_2"
  type: "Pooling"
  bottom: "conv4_2"
  top: "pool4_2"
  pooling_param {
    pool: MAX
    kernel_size: 2
    stride: 2
  }
}
layer {
  name: "fc4_4_300"
  type: "InnerProduct"
  bottom: "pool4_2"
  top: "fc4_4"
  inner_product_param {
    num_output: 300
    weight_filler {
      type: "xavier"
    }
  }
}
layer {
  name: "fc4_4_prescale"
  type: "Scale"
  bottom: "fc4_4"
  top: "fc4_4"
  param {
    lr_mult: 0
    decay_mult: 0
  }
  scale_param {
    filler {
      value: 0.6666
    }
  }
}
layer {
  name: "fc4_4_sTanH"
  type: "TanH"
  bottom: "fc4_4"
  top: "fc4_4"
}
layer {
  name: "fc4_4_postscale"
  type: "Scale"
  bottom: "fc4_4"
  top: "fc4_4"
  param {
    lr_mult: 0
    decay_mult: 0
  }
  scale_param {
    filler {
      value: 1.7159
    }
  }
}
layer {
  name: "drop4_4"
  type: "Dropout"
  bottom: "fc4_4"
  top: "fc4_4"
  dropout_param {
    dropout_ratio: 0.4
  }
}
layer {
  name: "fc4_5_67"
  type: "InnerProduct"
  bottom: "fc4_4"
  top: "fc4_5"
  inner_product_param {
    num_output: 67
    weight_filler {
      type: "xavier"
    }
  }
}
layer {
  name: "softmax_4"
  type: "Softmax"
  bottom: "fc4_5"
  top: "softmax_4"
}
layer {
  name: "data_1"
  type: "Data"
  top: "data_1"
  top: "label_1"
  include {
    phase: TRAIN
  }
  transform_param {
    mirror: false
    crop_size: 48
    mean_value: 122
    mean_value: 115
    mean_value: 128
  }
  data_param {
    source: "../local_data/lmdb/rtsd-r1/histeq/train/lmdb"
    batch_size: 64
    backend: LMDB
  }
}
layer {
  name: "conv5_0"
  type: "Convolution"
  bottom: "data_1"
  top: "conv5_0"
  convolution_param {
    num_output: 100
    pad: 0
    kernel_size: 7
    group: 1
    stride: 1
    weight_filler {
      type: "xavier"
    }
  }
}
layer {
  name: "conv5_0_prescale"
  type: "Scale"
  bottom: "conv5_0"
  top: "conv5_0"
  param {
    lr_mult: 0
    decay_mult: 0
  }
  scale_param {
    filler {
      value: 0.6666
    }
  }
}
layer {
  name: "conv5_0_sTanH"
  type: "TanH"
  bottom: "conv5_0"
  top: "conv5_0"
}
layer {
  name: "conv5_0_postscale"
  type: "Scale"
  bottom: "conv5_0"
  top: "conv5_0"
  param {
    lr_mult: 0
    decay_mult: 0
  }
  scale_param {
    filler {
      value: 1.7159
    }
  }
}
layer {
  name: "pool5_0"
  type: "Pooling"
  bottom: "conv5_0"
  top: "pool5_0"
  pooling_param {
    pool: MAX
    kernel_size: 2
    stride: 2
  }
}
layer {
  name: "conv5_1"
  type: "Convolution"
  bottom: "pool5_0"
  top: "conv5_1"
  convolution_param {
    num_output: 150
    pad: 0
    kernel_size: 4
    group: 1
    stride: 1
    weight_filler {
      type: "xavier"
    }
  }
}
layer {
  name: "conv5_1_prescale"
  type: "Scale"
  bottom: "conv5_1"
  top: "conv5_1"
  param {
    lr_mult: 0
    decay_mult: 0
  }
  scale_param {
    filler {
      value: 0.6666
    }
  }
}
layer {
  name: "conv5_1_sTanH"
  type: "TanH"
  bottom: "conv5_1"
  top: "conv5_1"
}
layer {
  name: "conv5_1_postscale"
  type: "Scale"
  bottom: "conv5_1"
  top: "conv5_1"
  param {
    lr_mult: 0
    decay_mult: 0
  }
  scale_param {
    filler {
      value: 1.7159
    }
  }
}
layer {
  name: "pool5_1"
  type: "Pooling"
  bottom: "conv5_1"
  top: "pool5_1"
  pooling_param {
    pool: MAX
    kernel_size: 2
    stride: 2
  }
}
layer {
  name: "conv5_2"
  type: "Convolution"
  bottom: "pool5_1"
  top: "conv5_2"
  convolution_param {
    num_output: 250
    pad: 0
    kernel_size: 4
    group: 1
    stride: 1
    weight_filler {
      type: "xavier"
    }
  }
}
layer {
  name: "conv5_2_prescale"
  type: "Scale"
  bottom: "conv5_2"
  top: "conv5_2"
  param {
    lr_mult: 0
    decay_mult: 0
  }
  scale_param {
    filler {
      value: 0.6666
    }
  }
}
layer {
  name: "conv5_2_sTanH"
  type: "TanH"
  bottom: "conv5_2"
  top: "conv5_2"
}
layer {
  name: "conv5_2_postscale"
  type: "Scale"
  bottom: "conv5_2"
  top: "conv5_2"
  param {
    lr_mult: 0
    decay_mult: 0
  }
  scale_param {
    filler {
      value: 1.7159
    }
  }
}
layer {
  name: "pool5_2"
  type: "Pooling"
  bottom: "conv5_2"
  top: "pool5_2"
  pooling_param {
    pool: MAX
    kernel_size: 2
    stride: 2
  }
}
layer {
  name: "fc5_4_300"
  type: "InnerProduct"
  bottom: "pool5_2"
  top: "fc5_4"
  inner_product_param {
    num_output: 300
    weight_filler {
      type: "xavier"
    }
  }
}
layer {
  name: "fc5_4_prescale"
  type: "Scale"
  bottom: "fc5_4"
  top: "fc5_4"
  param {
    lr_mult: 0
    decay_mult: 0
  }
  scale_param {
    filler {
      value: 0.6666
    }
  }
}
layer {
  name: "fc5_4_sTanH"
  type: "TanH"
  bottom: "fc5_4"
  top: "fc5_4"
}
layer {
  name: "fc5_4_postscale"
  type: "Scale"
  bottom: "fc5_4"
  top: "fc5_4"
  param {
    lr_mult: 0
    decay_mult: 0
  }
  scale_param {
    filler {
      value: 1.7159
    }
  }
}
layer {
  name: "drop5_4"
  type: "Dropout"
  bottom: "fc5_4"
  top: "fc5_4"
  dropout_param {
    dropout_ratio: 0.4
  }
}
layer {
  name: "fc5_5_67"
  type: "InnerProduct"
  bottom: "fc5_4"
  top: "fc5_5"
  inner_product_param {
    num_output: 67
    weight_filler {
      type: "xavier"
    }
  }
}
layer {
  name: "softmax_5"
  type: "Softmax"
  bottom: "fc5_5"
  top: "softmax_5"
}
layer {
  name: "conv6_0"
  type: "Convolution"
  bottom: "data_1"
  top: "conv6_0"
  convolution_param {
    num_output: 100
    pad: 0
    kernel_size: 7
    group: 1
    stride: 1
    weight_filler {
      type: "xavier"
    }
  }
}
layer {
  name: "conv6_0_prescale"
  type: "Scale"
  bottom: "conv6_0"
  top: "conv6_0"
  param {
    lr_mult: 0
    decay_mult: 0
  }
  scale_param {
    filler {
      value: 0.6666
    }
  }
}
layer {
  name: "conv6_0_sTanH"
  type: "TanH"
  bottom: "conv6_0"
  top: "conv6_0"
}
layer {
  name: "conv6_0_postscale"
  type: "Scale"
  bottom: "conv6_0"
  top: "conv6_0"
  param {
    lr_mult: 0
    decay_mult: 0
  }
  scale_param {
    filler {
      value: 1.7159
    }
  }
}
layer {
  name: "pool6_0"
  type: "Pooling"
  bottom: "conv6_0"
  top: "pool6_0"
  pooling_param {
    pool: MAX
    kernel_size: 2
    stride: 2
  }
}
layer {
  name: "conv6_1"
  type: "Convolution"
  bottom: "pool6_0"
  top: "conv6_1"
  convolution_param {
    num_output: 150
    pad: 0
    kernel_size: 4
    group: 1
    stride: 1
    weight_filler {
      type: "xavier"
    }
  }
}
layer {
  name: "conv6_1_prescale"
  type: "Scale"
  bottom: "conv6_1"
  top: "conv6_1"
  param {
    lr_mult: 0
    decay_mult: 0
  }
  scale_param {
    filler {
      value: 0.6666
    }
  }
}
layer {
  name: "conv6_1_sTanH"
  type: "TanH"
  bottom: "conv6_1"
  top: "conv6_1"
}
layer {
  name: "conv6_1_postscale"
  type: "Scale"
  bottom: "conv6_1"
  top: "conv6_1"
  param {
    lr_mult: 0
    decay_mult: 0
  }
  scale_param {
    filler {
      value: 1.7159
    }
  }
}
layer {
  name: "pool6_1"
  type: "Pooling"
  bottom: "conv6_1"
  top: "pool6_1"
  pooling_param {
    pool: MAX
    kernel_size: 2
    stride: 2
  }
}
layer {
  name: "conv6_2"
  type: "Convolution"
  bottom: "pool6_1"
  top: "conv6_2"
  convolution_param {
    num_output: 250
    pad: 0
    kernel_size: 4
    group: 1
    stride: 1
    weight_filler {
      type: "xavier"
    }
  }
}
layer {
  name: "conv6_2_prescale"
  type: "Scale"
  bottom: "conv6_2"
  top: "conv6_2"
  param {
    lr_mult: 0
    decay_mult: 0
  }
  scale_param {
    filler {
      value: 0.6666
    }
  }
}
layer {
  name: "conv6_2_sTanH"
  type: "TanH"
  bottom: "conv6_2"
  top: "conv6_2"
}
layer {
  name: "conv6_2_postscale"
  type: "Scale"
  bottom: "conv6_2"
  top: "conv6_2"
  param {
    lr_mult: 0
    decay_mult: 0
  }
  scale_param {
    filler {
      value: 1.7159
    }
  }
}
layer {
  name: "pool6_2"
  type: "Pooling"
  bottom: "conv6_2"
  top: "pool6_2"
  pooling_param {
    pool: MAX
    kernel_size: 2
    stride: 2
  }
}
layer {
  name: "fc6_4_300"
  type: "InnerProduct"
  bottom: "pool6_2"
  top: "fc6_4"
  inner_product_param {
    num_output: 300
    weight_filler {
      type: "xavier"
    }
  }
}
layer {
  name: "fc6_4_prescale"
  type: "Scale"
  bottom: "fc6_4"
  top: "fc6_4"
  param {
    lr_mult: 0
    decay_mult: 0
  }
  scale_param {
    filler {
      value: 0.6666
    }
  }
}
layer {
  name: "fc6_4_sTanH"
  type: "TanH"
  bottom: "fc6_4"
  top: "fc6_4"
}
layer {
  name: "fc6_4_postscale"
  type: "Scale"
  bottom: "fc6_4"
  top: "fc6_4"
  param {
    lr_mult: 0
    decay_mult: 0
  }
  scale_param {
    filler {
      value: 1.7159
    }
  }
}
layer {
  name: "drop6_4"
  type: "Dropout"
  bottom: "fc6_4"
  top: "fc6_4"
  dropout_param {
    dropout_ratio: 0.4
  }
}
layer {
  name: "fc6_5_67"
  type: "InnerProduct"
  bottom: "fc6_4"
  top: "fc6_5"
  inner_product_param {
    num_output: 67
    weight_filler {
      type: "xavier"
    }
  }
}
layer {
  name: "softmax_6"
  type: "Softmax"
  bottom: "fc6_5"
  top: "softmax_6"
}
layer {
  name: "conv7_0"
  type: "Convolution"
  bottom: "data_1"
  top: "conv7_0"
  convolution_param {
    num_output: 100
    pad: 0
    kernel_size: 7
    group: 1
    stride: 1
    weight_filler {
      type: "xavier"
    }
  }
}
layer {
  name: "conv7_0_prescale"
  type: "Scale"
  bottom: "conv7_0"
  top: "conv7_0"
  param {
    lr_mult: 0
    decay_mult: 0
  }
  scale_param {
    filler {
      value: 0.6666
    }
  }
}
layer {
  name: "conv7_0_sTanH"
  type: "TanH"
  bottom: "conv7_0"
  top: "conv7_0"
}
layer {
  name: "conv7_0_postscale"
  type: "Scale"
  bottom: "conv7_0"
  top: "conv7_0"
  param {
    lr_mult: 0
    decay_mult: 0
  }
  scale_param {
    filler {
      value: 1.7159
    }
  }
}
layer {
  name: "pool7_0"
  type: "Pooling"
  bottom: "conv7_0"
  top: "pool7_0"
  pooling_param {
    pool: MAX
    kernel_size: 2
    stride: 2
  }
}
layer {
  name: "conv7_1"
  type: "Convolution"
  bottom: "pool7_0"
  top: "conv7_1"
  convolution_param {
    num_output: 150
    pad: 0
    kernel_size: 4
    group: 1
    stride: 1
    weight_filler {
      type: "xavier"
    }
  }
}
layer {
  name: "conv7_1_prescale"
  type: "Scale"
  bottom: "conv7_1"
  top: "conv7_1"
  param {
    lr_mult: 0
    decay_mult: 0
  }
  scale_param {
    filler {
      value: 0.6666
    }
  }
}
layer {
  name: "conv7_1_sTanH"
  type: "TanH"
  bottom: "conv7_1"
  top: "conv7_1"
}
layer {
  name: "conv7_1_postscale"
  type: "Scale"
  bottom: "conv7_1"
  top: "conv7_1"
  param {
    lr_mult: 0
    decay_mult: 0
  }
  scale_param {
    filler {
      value: 1.7159
    }
  }
}
layer {
  name: "pool7_1"
  type: "Pooling"
  bottom: "conv7_1"
  top: "pool7_1"
  pooling_param {
    pool: MAX
    kernel_size: 2
    stride: 2
  }
}
layer {
  name: "conv7_2"
  type: "Convolution"
  bottom: "pool7_1"
  top: "conv7_2"
  convolution_param {
    num_output: 250
    pad: 0
    kernel_size: 4
    group: 1
    stride: 1
    weight_filler {
      type: "xavier"
    }
  }
}
layer {
  name: "conv7_2_prescale"
  type: "Scale"
  bottom: "conv7_2"
  top: "conv7_2"
  param {
    lr_mult: 0
    decay_mult: 0
  }
  scale_param {
    filler {
      value: 0.6666
    }
  }
}
layer {
  name: "conv7_2_sTanH"
  type: "TanH"
  bottom: "conv7_2"
  top: "conv7_2"
}
layer {
  name: "conv7_2_postscale"
  type: "Scale"
  bottom: "conv7_2"
  top: "conv7_2"
  param {
    lr_mult: 0
    decay_mult: 0
  }
  scale_param {
    filler {
      value: 1.7159
    }
  }
}
layer {
  name: "pool7_2"
  type: "Pooling"
  bottom: "conv7_2"
  top: "pool7_2"
  pooling_param {
    pool: MAX
    kernel_size: 2
    stride: 2
  }
}
layer {
  name: "fc7_4_300"
  type: "InnerProduct"
  bottom: "pool7_2"
  top: "fc7_4"
  inner_product_param {
    num_output: 300
    weight_filler {
      type: "xavier"
    }
  }
}
layer {
  name: "fc7_4_prescale"
  type: "Scale"
  bottom: "fc7_4"
  top: "fc7_4"
  param {
    lr_mult: 0
    decay_mult: 0
  }
  scale_param {
    filler {
      value: 0.6666
    }
  }
}
layer {
  name: "fc7_4_sTanH"
  type: "TanH"
  bottom: "fc7_4"
  top: "fc7_4"
}
layer {
  name: "fc7_4_postscale"
  type: "Scale"
  bottom: "fc7_4"
  top: "fc7_4"
  param {
    lr_mult: 0
    decay_mult: 0
  }
  scale_param {
    filler {
      value: 1.7159
    }
  }
}
layer {
  name: "drop7_4"
  type: "Dropout"
  bottom: "fc7_4"
  top: "fc7_4"
  dropout_param {
    dropout_ratio: 0.4
  }
}
layer {
  name: "fc7_5_67"
  type: "InnerProduct"
  bottom: "fc7_4"
  top: "fc7_5"
  inner_product_param {
    num_output: 67
    weight_filler {
      type: "xavier"
    }
  }
}
layer {
  name: "softmax_7"
  type: "Softmax"
  bottom: "fc7_5"
  top: "softmax_7"
}
layer {
  name: "conv8_0"
  type: "Convolution"
  bottom: "data_1"
  top: "conv8_0"
  convolution_param {
    n
I0407 23:53:01.772277 29293 layer_factory.hpp:77] Creating layer data_0
I0407 23:53:01.772753 29293 net.cpp:100] Creating Layer data_0
I0407 23:53:01.772765 29293 net.cpp:408] data_0 -> data_0
I0407 23:53:01.772788 29293 net.cpp:408] data_0 -> label_0
I0407 23:53:01.774222 29366 db_lmdb.cpp:35] Opened lmdb ../local_data/lmdb/rtsd-r1/orig/train/lmdb
I0407 23:53:01.789634 29293 data_layer.cpp:41] output data size: 64,3,48,48
I0407 23:53:01.795047 29293 net.cpp:150] Setting up data_0
I0407 23:53:01.795065 29293 net.cpp:157] Top shape: 64 3 48 48 (442368)
I0407 23:53:01.795071 29293 net.cpp:157] Top shape: 64 (64)
I0407 23:53:01.795073 29293 net.cpp:165] Memory required for data: 1769728
I0407 23:53:01.795081 29293 layer_factory.hpp:77] Creating layer data_0_data_0_0_split
I0407 23:53:01.795091 29293 net.cpp:100] Creating Layer data_0_data_0_0_split
I0407 23:53:01.795097 29293 net.cpp:434] data_0_data_0_0_split <- data_0
I0407 23:53:01.795111 29293 net.cpp:408] data_0_data_0_0_split -> data_0_data_0_0_split_0
I0407 23:53:01.795121 29293 net.cpp:408] data_0_data_0_0_split -> data_0_data_0_0_split_1
I0407 23:53:01.795128 29293 net.cpp:408] data_0_data_0_0_split -> data_0_data_0_0_split_2
I0407 23:53:01.795135 29293 net.cpp:408] data_0_data_0_0_split -> data_0_data_0_0_split_3
I0407 23:53:01.795142 29293 net.cpp:408] data_0_data_0_0_split -> data_0_data_0_0_split_4
I0407 23:53:01.795297 29293 net.cpp:150] Setting up data_0_data_0_0_split
I0407 23:53:01.795308 29293 net.cpp:157] Top shape: 64 3 48 48 (442368)
I0407 23:53:01.795312 29293 net.cpp:157] Top shape: 64 3 48 48 (442368)
I0407 23:53:01.795316 29293 net.cpp:157] Top shape: 64 3 48 48 (442368)
I0407 23:53:01.795333 29293 net.cpp:157] Top shape: 64 3 48 48 (442368)
I0407 23:53:01.795338 29293 net.cpp:157] Top shape: 64 3 48 48 (442368)
I0407 23:53:01.795341 29293 net.cpp:165] Memory required for data: 10617088
I0407 23:53:01.795344 29293 layer_factory.hpp:77] Creating layer conv0_0
I0407 23:53:01.795361 29293 net.cpp:100] Creating Layer conv0_0
I0407 23:53:01.795367 29293 net.cpp:434] conv0_0 <- data_0_data_0_0_split_0
I0407 23:53:01.795374 29293 net.cpp:408] conv0_0 -> conv0_0
I0407 23:53:01.796996 29367 blocking_queue.cpp:50] Waiting for data
I0407 23:53:02.135406 29293 net.cpp:150] Setting up conv0_0
I0407 23:53:02.135437 29293 net.cpp:157] Top shape: 64 100 42 42 (11289600)
I0407 23:53:02.135440 29293 net.cpp:165] Memory required for data: 55775488
I0407 23:53:02.135462 29293 layer_factory.hpp:77] Creating layer conv0_0_prescale
I0407 23:53:02.135474 29293 net.cpp:100] Creating Layer conv0_0_prescale
I0407 23:53:02.135478 29293 net.cpp:434] conv0_0_prescale <- conv0_0
I0407 23:53:02.135485 29293 net.cpp:395] conv0_0_prescale -> conv0_0 (in-place)
I0407 23:53:02.135596 29293 net.cpp:150] Setting up conv0_0_prescale
I0407 23:53:02.135607 29293 net.cpp:157] Top shape: 64 100 42 42 (11289600)
I0407 23:53:02.135609 29293 net.cpp:165] Memory required for data: 100933888
I0407 23:53:02.135615 29293 layer_factory.hpp:77] Creating layer conv0_0_sTanH
I0407 23:53:02.135627 29293 net.cpp:100] Creating Layer conv0_0_sTanH
I0407 23:53:02.135630 29293 net.cpp:434] conv0_0_sTanH <- conv0_0
I0407 23:53:02.135634 29293 net.cpp:395] conv0_0_sTanH -> conv0_0 (in-place)
I0407 23:53:02.135813 29293 net.cpp:150] Setting up conv0_0_sTanH
I0407 23:53:02.135823 29293 net.cpp:157] Top shape: 64 100 42 42 (11289600)
I0407 23:53:02.135828 29293 net.cpp:165] Memory required for data: 146092288
I0407 23:53:02.135830 29293 layer_factory.hpp:77] Creating layer conv0_0_postscale
I0407 23:53:02.135838 29293 net.cpp:100] Creating Layer conv0_0_postscale
I0407 23:53:02.135840 29293 net.cpp:434] conv0_0_postscale <- conv0_0
I0407 23:53:02.135845 29293 net.cpp:395] conv0_0_postscale -> conv0_0 (in-place)
I0407 23:53:02.135957 29293 net.cpp:150] Setting up conv0_0_postscale
I0407 23:53:02.135967 29293 net.cpp:157] Top shape: 64 100 42 42 (11289600)
I0407 23:53:02.135969 29293 net.cpp:165] Memory required for data: 191250688
I0407 23:53:02.135974 29293 layer_factory.hpp:77] Creating layer pool0_0
I0407 23:53:02.135980 29293 net.cpp:100] Creating Layer pool0_0
I0407 23:53:02.135983 29293 net.cpp:434] pool0_0 <- conv0_0
I0407 23:53:02.135988 29293 net.cpp:408] pool0_0 -> pool0_0
I0407 23:53:02.136037 29293 net.cpp:150] Setting up pool0_0
I0407 23:53:02.136046 29293 net.cpp:157] Top shape: 64 100 21 21 (2822400)
I0407 23:53:02.136049 29293 net.cpp:165] Memory required for data: 202540288
I0407 23:53:02.136052 29293 layer_factory.hpp:77] Creating layer conv0_1
I0407 23:53:02.136062 29293 net.cpp:100] Creating Layer conv0_1
I0407 23:53:02.136066 29293 net.cpp:434] conv0_1 <- pool0_0
I0407 23:53:02.136071 29293 net.cpp:408] conv0_1 -> conv0_1
I0407 23:53:02.141075 29293 net.cpp:150] Setting up conv0_1
I0407 23:53:02.141091 29293 net.cpp:157] Top shape: 64 150 18 18 (3110400)
I0407 23:53:02.141095 29293 net.cpp:165] Memory required for data: 214981888
I0407 23:53:02.141104 29293 layer_factory.hpp:77] Creating layer conv0_1_prescale
I0407 23:53:02.141115 29293 net.cpp:100] Creating Layer conv0_1_prescale
I0407 23:53:02.141119 29293 net.cpp:434] conv0_1_prescale <- conv0_1
I0407 23:53:02.141125 29293 net.cpp:395] conv0_1_prescale -> conv0_1 (in-place)
I0407 23:53:02.141244 29293 net.cpp:150] Setting up conv0_1_prescale
I0407 23:53:02.141254 29293 net.cpp:157] Top shape: 64 150 18 18 (3110400)
I0407 23:53:02.141258 29293 net.cpp:165] Memory required for data: 227423488
I0407 23:53:02.141261 29293 layer_factory.hpp:77] Creating layer conv0_1_sTanH
I0407 23:53:02.141268 29293 net.cpp:100] Creating Layer conv0_1_sTanH
I0407 23:53:02.141271 29293 net.cpp:434] conv0_1_sTanH <- conv0_1
I0407 23:53:02.141275 29293 net.cpp:395] conv0_1_sTanH -> conv0_1 (in-place)
I0407 23:53:02.142060 29293 net.cpp:150] Setting up conv0_1_sTanH
I0407 23:53:02.142076 29293 net.cpp:157] Top shape: 64 150 18 18 (3110400)
I0407 23:53:02.142078 29293 net.cpp:165] Memory required for data: 239865088
I0407 23:53:02.142081 29293 layer_factory.hpp:77] Creating layer conv0_1_postscale
I0407 23:53:02.142087 29293 net.cpp:100] Creating Layer conv0_1_postscale
I0407 23:53:02.142091 29293 net.cpp:434] conv0_1_postscale <- conv0_1
I0407 23:53:02.142097 29293 net.cpp:395] conv0_1_postscale -> conv0_1 (in-place)
I0407 23:53:02.142226 29293 net.cpp:150] Setting up conv0_1_postscale
I0407 23:53:02.142235 29293 net.cpp:157] Top shape: 64 150 18 18 (3110400)
I0407 23:53:02.142238 29293 net.cpp:165] Memory required for data: 252306688
I0407 23:53:02.142243 29293 layer_factory.hpp:77] Creating layer pool0_1
I0407 23:53:02.142249 29293 net.cpp:100] Creating Layer pool0_1
I0407 23:53:02.142252 29293 net.cpp:434] pool0_1 <- conv0_1
I0407 23:53:02.142258 29293 net.cpp:408] pool0_1 -> pool0_1
I0407 23:53:02.142300 29293 net.cpp:150] Setting up pool0_1
I0407 23:53:02.142307 29293 net.cpp:157] Top shape: 64 150 9 9 (777600)
I0407 23:53:02.142310 29293 net.cpp:165] Memory required for data: 255417088
I0407 23:53:02.142313 29293 layer_factory.hpp:77] Creating layer conv0_2
I0407 23:53:02.142323 29293 net.cpp:100] Creating Layer conv0_2
I0407 23:53:02.142328 29293 net.cpp:434] conv0_2 <- pool0_1
I0407 23:53:02.142333 29293 net.cpp:408] conv0_2 -> conv0_2
I0407 23:53:02.147511 29293 net.cpp:150] Setting up conv0_2
I0407 23:53:02.147527 29293 net.cpp:157] Top shape: 64 250 6 6 (576000)
I0407 23:53:02.147531 29293 net.cpp:165] Memory required for data: 257721088
I0407 23:53:02.147541 29293 layer_factory.hpp:77] Creating layer conv0_2_prescale
I0407 23:53:02.147549 29293 net.cpp:100] Creating Layer conv0_2_prescale
I0407 23:53:02.147552 29293 net.cpp:434] conv0_2_prescale <- conv0_2
I0407 23:53:02.147558 29293 net.cpp:395] conv0_2_prescale -> conv0_2 (in-place)
I0407 23:53:02.147661 29293 net.cpp:150] Setting up conv0_2_prescale
I0407 23:53:02.147670 29293 net.cpp:157] Top shape: 64 250 6 6 (576000)
I0407 23:53:02.147673 29293 net.cpp:165] Memory required for data: 260025088
I0407 23:53:02.147677 29293 layer_factory.hpp:77] Creating layer conv0_2_sTanH
I0407 23:53:02.147682 29293 net.cpp:100] Creating Layer conv0_2_sTanH
I0407 23:53:02.147686 29293 net.cpp:434] conv0_2_sTanH <- conv0_2
I0407 23:53:02.147691 29293 net.cpp:395] conv0_2_sTanH -> conv0_2 (in-place)
I0407 23:53:02.148506 29293 net.cpp:150] Setting up conv0_2_sTanH
I0407 23:53:02.148521 29293 net.cpp:157] Top shape: 64 250 6 6 (576000)
I0407 23:53:02.148524 29293 net.cpp:165] Memory required for data: 262329088
I0407 23:53:02.148528 29293 layer_factory.hpp:77] Creating layer conv0_2_postscale
I0407 23:53:02.148555 29293 net.cpp:100] Creating Layer conv0_2_postscale
I0407 23:53:02.148569 29293 net.cpp:434] conv0_2_postscale <- conv0_2
I0407 23:53:02.148576 29293 net.cpp:395] conv0_2_postscale -> conv0_2 (in-place)
I0407 23:53:02.148674 29293 net.cpp:150] Setting up conv0_2_postscale
I0407 23:53:02.148684 29293 net.cpp:157] Top shape: 64 250 6 6 (576000)
I0407 23:53:02.148686 29293 net.cpp:165] Memory required for data: 264633088
I0407 23:53:02.148691 29293 layer_factory.hpp:77] Creating layer pool0_2
I0407 23:53:02.148701 29293 net.cpp:100] Creating Layer pool0_2
I0407 23:53:02.148706 29293 net.cpp:434] pool0_2 <- conv0_2
I0407 23:53:02.148712 29293 net.cpp:408] pool0_2 -> pool0_2
I0407 23:53:02.148751 29293 net.cpp:150] Setting up pool0_2
I0407 23:53:02.148758 29293 net.cpp:157] Top shape: 64 250 3 3 (144000)
I0407 23:53:02.148761 29293 net.cpp:165] Memory required for data: 265209088
I0407 23:53:02.148763 29293 layer_factory.hpp:77] Creating layer fc0_4_300
I0407 23:53:02.148772 29293 net.cpp:100] Creating Layer fc0_4_300
I0407 23:53:02.148775 29293 net.cpp:434] fc0_4_300 <- pool0_2
I0407 23:53:02.148779 29293 net.cpp:408] fc0_4_300 -> fc0_4
I0407 23:53:02.154076 29293 net.cpp:150] Setting up fc0_4_300
I0407 23:53:02.154091 29293 net.cpp:157] Top shape: 64 300 (19200)
I0407 23:53:02.154119 29293 net.cpp:165] Memory required for data: 265285888
I0407 23:53:02.154127 29293 layer_factory.hpp:77] Creating layer fc0_4_prescale
I0407 23:53:02.154135 29293 net.cpp:100] Creating Layer fc0_4_prescale
I0407 23:53:02.154139 29293 net.cpp:434] fc0_4_prescale <- fc0_4
I0407 23:53:02.154145 29293 net.cpp:395] fc0_4_prescale -> fc0_4 (in-place)
I0407 23:53:02.154242 29293 net.cpp:150] Setting up fc0_4_prescale
I0407 23:53:02.154251 29293 net.cpp:157] Top shape: 64 300 (19200)
I0407 23:53:02.154254 29293 net.cpp:165] Memory required for data: 265362688
I0407 23:53:02.154258 29293 layer_factory.hpp:77] Creating layer fc0_4_sTanH
I0407 23:53:02.154264 29293 net.cpp:100] Creating Layer fc0_4_sTanH
I0407 23:53:02.154268 29293 net.cpp:434] fc0_4_sTanH <- fc0_4
I0407 23:53:02.154273 29293 net.cpp:395] fc0_4_sTanH -> fc0_4 (in-place)
I0407 23:53:02.154462 29293 net.cpp:150] Setting up fc0_4_sTanH
I0407 23:53:02.154472 29293 net.cpp:157] Top shape: 64 300 (19200)
I0407 23:53:02.154475 29293 net.cpp:165] Memory required for data: 265439488
I0407 23:53:02.154479 29293 layer_factory.hpp:77] Creating layer fc0_4_postscale
I0407 23:53:02.154487 29293 net.cpp:100] Creating Layer fc0_4_postscale
I0407 23:53:02.154492 29293 net.cpp:434] fc0_4_postscale <- fc0_4
I0407 23:53:02.154500 29293 net.cpp:395] fc0_4_postscale -> fc0_4 (in-place)
I0407 23:53:02.154593 29293 net.cpp:150] Setting up fc0_4_postscale
I0407 23:53:02.154602 29293 net.cpp:157] Top shape: 64 300 (19200)
I0407 23:53:02.154604 29293 net.cpp:165] Memory required for data: 265516288
I0407 23:53:02.154608 29293 layer_factory.hpp:77] Creating layer drop0_4
I0407 23:53:02.154616 29293 net.cpp:100] Creating Layer drop0_4
I0407 23:53:02.154621 29293 net.cpp:434] drop0_4 <- fc0_4
I0407 23:53:02.154626 29293 net.cpp:395] drop0_4 -> fc0_4 (in-place)
I0407 23:53:02.154654 29293 net.cpp:150] Setting up drop0_4
I0407 23:53:02.154660 29293 net.cpp:157] Top shape: 64 300 (19200)
I0407 23:53:02.154662 29293 net.cpp:165] Memory required for data: 265593088
I0407 23:53:02.154665 29293 layer_factory.hpp:77] Creating layer fc0_5_67
I0407 23:53:02.154672 29293 net.cpp:100] Creating Layer fc0_5_67
I0407 23:53:02.154676 29293 net.cpp:434] fc0_5_67 <- fc0_4
I0407 23:53:02.154680 29293 net.cpp:408] fc0_5_67 -> fc0_5
I0407 23:53:02.157318 29293 net.cpp:150] Setting up fc0_5_67
I0407 23:53:02.157335 29293 net.cpp:157] Top shape: 64 67 (4288)
I0407 23:53:02.157351 29293 net.cpp:165] Memory required for data: 265610240
I0407 23:53:02.157363 29293 layer_factory.hpp:77] Creating layer softmax_0
I0407 23:53:02.157371 29293 net.cpp:100] Creating Layer softmax_0
I0407 23:53:02.157374 29293 net.cpp:434] softmax_0 <- fc0_5
I0407 23:53:02.157382 29293 net.cpp:408] softmax_0 -> softmax_0
I0407 23:53:02.157635 29293 net.cpp:150] Setting up softmax_0
I0407 23:53:02.157649 29293 net.cpp:157] Top shape: 64 67 (4288)
I0407 23:53:02.157651 29293 net.cpp:165] Memory required for data: 265627392
I0407 23:53:02.157655 29293 layer_factory.hpp:77] Creating layer conv1_0
I0407 23:53:02.157665 29293 net.cpp:100] Creating Layer conv1_0
I0407 23:53:02.157670 29293 net.cpp:434] conv1_0 <- data_0_data_0_0_split_1
I0407 23:53:02.157675 29293 net.cpp:408] conv1_0 -> conv1_0
I0407 23:53:02.159375 29293 net.cpp:150] Setting up conv1_0
I0407 23:53:02.159391 29293 net.cpp:157] Top shape: 64 100 42 42 (11289600)
I0407 23:53:02.159407 29293 net.cpp:165] Memory required for data: 310785792
I0407 23:53:02.159415 29293 layer_factory.hpp:77] Creating layer conv1_0_prescale
I0407 23:53:02.159423 29293 net.cpp:100] Creating Layer conv1_0_prescale
I0407 23:53:02.159427 29293 net.cpp:434] conv1_0_prescale <- conv1_0
I0407 23:53:02.159433 29293 net.cpp:395] conv1_0_prescale -> conv1_0 (in-place)
I0407 23:53:02.159536 29293 net.cpp:150] Setting up conv1_0_prescale
I0407 23:53:02.159546 29293 net.cpp:157] Top shape: 64 100 42 42 (11289600)
I0407 23:53:02.159549 29293 net.cpp:165] Memory required for data: 355944192
I0407 23:53:02.159554 29293 layer_factory.hpp:77] Creating layer conv1_0_sTanH
I0407 23:53:02.159574 29293 net.cpp:100] Creating Layer conv1_0_sTanH
I0407 23:53:02.159579 29293 net.cpp:434] conv1_0_sTanH <- conv1_0
I0407 23:53:02.159584 29293 net.cpp:395] conv1_0_sTanH -> conv1_0 (in-place)
I0407 23:53:02.159781 29293 net.cpp:150] Setting up conv1_0_sTanH
I0407 23:53:02.159792 29293 net.cpp:157] Top shape: 64 100 42 42 (11289600)
I0407 23:53:02.159795 29293 net.cpp:165] Memory required for data: 401102592
I0407 23:53:02.159798 29293 layer_factory.hpp:77] Creating layer conv1_0_postscale
I0407 23:53:02.159806 29293 net.cpp:100] Creating Layer conv1_0_postscale
I0407 23:53:02.159808 29293 net.cpp:434] conv1_0_postscale <- conv1_0
I0407 23:53:02.159814 29293 net.cpp:395] conv1_0_postscale -> conv1_0 (in-place)
I0407 23:53:02.159931 29293 net.cpp:150] Setting up conv1_0_postscale
I0407 23:53:02.159941 29293 net.cpp:157] Top shape: 64 100 42 42 (11289600)
I0407 23:53:02.159943 29293 net.cpp:165] Memory required for data: 446260992
I0407 23:53:02.159948 29293 layer_factory.hpp:77] Creating layer pool1_0
I0407 23:53:02.159955 29293 net.cpp:100] Creating Layer pool1_0
I0407 23:53:02.159957 29293 net.cpp:434] pool1_0 <- conv1_0
I0407 23:53:02.159965 29293 net.cpp:408] pool1_0 -> pool1_0
I0407 23:53:02.160006 29293 net.cpp:150] Setting up pool1_0
I0407 23:53:02.160012 29293 net.cpp:157] Top shape: 64 100 21 21 (2822400)
I0407 23:53:02.160015 29293 net.cpp:165] Memory required for data: 457550592
I0407 23:53:02.160018 29293 layer_factory.hpp:77] Creating layer conv1_1
I0407 23:53:02.160029 29293 net.cpp:100] Creating Layer conv1_1
I0407 23:53:02.160034 29293 net.cpp:434] conv1_1 <- pool1_0
I0407 23:53:02.160039 29293 net.cpp:408] conv1_1 -> conv1_1
I0407 23:53:02.163339 29293 net.cpp:150] Setting up conv1_1
I0407 23:53:02.163355 29293 net.cpp:157] Top shape: 64 150 18 18 (3110400)
I0407 23:53:02.163359 29293 net.cpp:165] Memory required for data: 469992192
I0407 23:53:02.163367 29293 layer_factory.hpp:77] Creating layer conv1_1_prescale
I0407 23:53:02.163374 29293 net.cpp:100] Creating Layer conv1_1_prescale
I0407 23:53:02.163378 29293 net.cpp:434] conv1_1_prescale <- conv1_1
I0407 23:53:02.163384 29293 net.cpp:395] conv1_1_prescale -> conv1_1 (in-place)
I0407 23:53:02.163482 29293 net.cpp:150] Setting up conv1_1_prescale
I0407 23:53:02.163491 29293 net.cpp:157] Top shape: 64 150 18 18 (3110400)
I0407 23:53:02.163494 29293 net.cpp:165] Memory required for data: 482433792
I0407 23:53:02.163498 29293 layer_factory.hpp:77] Creating layer conv1_1_sTanH
I0407 23:53:02.163504 29293 net.cpp:100] Creating Layer conv1_1_sTanH
I0407 23:53:02.163508 29293 net.cpp:434] conv1_1_sTanH <- conv1_1
I0407 23:53:02.163513 29293 net.cpp:395] conv1_1_sTanH -> conv1_1 (in-place)
I0407 23:53:02.164718 29293 net.cpp:150] Setting up conv1_1_sTanH
I0407 23:53:02.164734 29293 net.cpp:157] Top shape: 64 150 18 18 (3110400)
I0407 23:53:02.164737 29293 net.cpp:165] Memory required for data: 494875392
I0407 23:53:02.164741 29293 layer_factory.hpp:77] Creating layer conv1_1_postscale
I0407 23:53:02.164755 29293 net.cpp:100] Creating Layer conv1_1_postscale
I0407 23:53:02.164759 29293 net.cpp:434] conv1_1_postscale <- conv1_1
I0407 23:53:02.164764 29293 net.cpp:395] conv1_1_postscale -> conv1_1 (in-place)
I0407 23:53:02.164872 29293 net.cpp:150] Setting up conv1_1_postscale
I0407 23:53:02.164881 29293 net.cpp:157] Top shape: 64 150 18 18 (3110400)
I0407 23:53:02.164885 29293 net.cpp:165] Memory required for data: 507316992
I0407 23:53:02.164890 29293 layer_factory.hpp:77] Creating layer pool1_1
I0407 23:53:02.164897 29293 net.cpp:100] Creating Layer pool1_1
I0407 23:53:02.164902 29293 net.cpp:434] pool1_1 <- conv1_1
I0407 23:53:02.164907 29293 net.cpp:408] pool1_1 -> pool1_1
I0407 23:53:02.164949 29293 net.cpp:150] Setting up pool1_1
I0407 23:53:02.164958 29293 net.cpp:157] Top shape: 64 150 9 9 (777600)
I0407 23:53:02.164959 29293 net.cpp:165] Memory required for data: 510427392
I0407 23:53:02.164963 29293 layer_factory.hpp:77] Creating layer conv1_2
I0407 23:53:02.164973 29293 net.cpp:100] Creating Layer conv1_2
I0407 23:53:02.164988 29293 net.cpp:434] conv1_2 <- pool1_1
I0407 23:53:02.164997 29293 net.cpp:408] conv1_2 -> conv1_2
I0407 23:53:02.171466 29293 net.cpp:150] Setting up conv1_2
I0407 23:53:02.171483 29293 net.cpp:157] Top shape: 64 250 6 6 (576000)
I0407 23:53:02.171486 29293 net.cpp:165] Memory required for data: 512731392
I0407 23:53:02.171492 29293 layer_factory.hpp:77] Creating layer conv1_2_prescale
I0407 23:53:02.171502 29293 net.cpp:100] Creating Layer conv1_2_prescale
I0407 23:53:02.171506 29293 net.cpp:434] conv1_2_prescale <- conv1_2
I0407 23:53:02.171511 29293 net.cpp:395] conv1_2_prescale -> conv1_2 (in-place)
I0407 23:53:02.171607 29293 net.cpp:150] Setting up conv1_2_prescale
I0407 23:53:02.171615 29293 net.cpp:157] Top shape: 64 250 6 6 (576000)
I0407 23:53:02.171618 29293 net.cpp:165] Memory required for data: 515035392
I0407 23:53:02.171623 29293 layer_factory.hpp:77] Creating layer conv1_2_sTanH
I0407 23:53:02.171629 29293 net.cpp:100] Creating Layer conv1_2_sTanH
I0407 23:53:02.171633 29293 net.cpp:434] conv1_2_sTanH <- conv1_2
I0407 23:53:02.171638 29293 net.cpp:395] conv1_2_sTanH -> conv1_2 (in-place)
I0407 23:53:02.172492 29293 net.cpp:150] Setting up conv1_2_sTanH
I0407 23:53:02.172520 29293 net.cpp:157] Top shape: 64 250 6 6 (576000)
I0407 23:53:02.172523 29293 net.cpp:165] Memory required for data: 517339392
I0407 23:53:02.172528 29293 layer_factory.hpp:77] Creating layer conv1_2_postscale
I0407 23:53:02.172534 29293 net.cpp:100] Creating Layer conv1_2_postscale
I0407 23:53:02.172538 29293 net.cpp:434] conv1_2_postscale <- conv1_2
I0407 23:53:02.172545 29293 net.cpp:395] conv1_2_postscale -> conv1_2 (in-place)
I0407 23:53:02.172649 29293 net.cpp:150] Setting up conv1_2_postscale
I0407 23:53:02.172659 29293 net.cpp:157] Top shape: 64 250 6 6 (576000)
I0407 23:53:02.172662 29293 net.cpp:165] Memory required for data: 519643392
I0407 23:53:02.172667 29293 layer_factory.hpp:77] Creating layer pool1_2
I0407 23:53:02.172672 29293 net.cpp:100] Creating Layer pool1_2
I0407 23:53:02.172675 29293 net.cpp:434] pool1_2 <- conv1_2
I0407 23:53:02.172682 29293 net.cpp:408] pool1_2 -> pool1_2
I0407 23:53:02.172720 29293 net.cpp:150] Setting up pool1_2
I0407 23:53:02.172729 29293 net.cpp:157] Top shape: 64 250 3 3 (144000)
I0407 23:53:02.172731 29293 net.cpp:165] Memory required for data: 520219392
I0407 23:53:02.172734 29293 layer_factory.hpp:77] Creating layer fc1_4_300
I0407 23:53:02.172741 29293 net.cpp:100] Creating Layer fc1_4_300
I0407 23:53:02.172744 29293 net.cpp:434] fc1_4_300 <- pool1_2
I0407 23:53:02.172749 29293 net.cpp:408] fc1_4_300 -> fc1_4
I0407 23:53:02.185024 29293 net.cpp:150] Setting up fc1_4_300
I0407 23:53:02.185041 29293 net.cpp:157] Top shape: 64 300 (19200)
I0407 23:53:02.185045 29293 net.cpp:165] Memory required for data: 520296192
I0407 23:53:02.185051 29293 layer_factory.hpp:77] Creating layer fc1_4_prescale
I0407 23:53:02.185060 29293 net.cpp:100] Creating Layer fc1_4_prescale
I0407 23:53:02.185065 29293 net.cpp:434] fc1_4_prescale <- fc1_4
I0407 23:53:02.185071 29293 net.cpp:395] fc1_4_prescale -> fc1_4 (in-place)
I0407 23:53:02.185179 29293 net.cpp:150] Setting up fc1_4_prescale
I0407 23:53:02.185189 29293 net.cpp:157] Top shape: 64 300 (19200)
I0407 23:53:02.185191 29293 net.cpp:165] Memory required for data: 520372992
I0407 23:53:02.185201 29293 layer_factory.hpp:77] Creating layer fc1_4_sTanH
I0407 23:53:02.185209 29293 net.cpp:100] Creating Layer fc1_4_sTanH
I0407 23:53:02.185212 29293 net.cpp:434] fc1_4_sTanH <- fc1_4
I0407 23:53:02.185217 29293 net.cpp:395] fc1_4_sTanH -> fc1_4 (in-place)
I0407 23:53:02.185413 29293 net.cpp:150] Setting up fc1_4_sTanH
I0407 23:53:02.185425 29293 net.cpp:157] Top shape: 64 300 (19200)
I0407 23:53:02.185427 29293 net.cpp:165] Memory required for data: 520449792
I0407 23:53:02.185431 29293 layer_factory.hpp:77] Creating layer fc1_4_postscale
I0407 23:53:02.185437 29293 net.cpp:100] Creating Layer fc1_4_postscale
I0407 23:53:02.185441 29293 net.cpp:434] fc1_4_postscale <- fc1_4
I0407 23:53:02.185448 29293 net.cpp:395] fc1_4_postscale -> fc1_4 (in-place)
I0407 23:53:02.185564 29293 net.cpp:150] Setting up fc1_4_postscale
I0407 23:53:02.185573 29293 net.cpp:157] Top shape: 64 300 (19200)
I0407 23:53:02.185575 29293 net.cpp:165] Memory required for data: 520526592
I0407 23:53:02.185580 29293 layer_factory.hpp:77] Creating layer drop1_4
I0407 23:53:02.185586 29293 net.cpp:100] Creating Layer drop1_4
I0407 23:53:02.185590 29293 net.cpp:434] drop1_4 <- fc1_4
I0407 23:53:02.185595 29293 net.cpp:395] drop1_4 -> fc1_4 (in-place)
I0407 23:53:02.185621 29293 net.cpp:150] Setting up drop1_4
I0407 23:53:02.185627 29293 net.cpp:157] Top shape: 64 300 (19200)
I0407 23:53:02.185631 29293 net.cpp:165] Memory required for data: 520603392
I0407 23:53:02.185632 29293 layer_factory.hpp:77] Creating layer fc1_5_67
I0407 23:53:02.185638 29293 net.cpp:100] Creating Layer fc1_5_67
I0407 23:53:02.185642 29293 net.cpp:434] fc1_5_67 <- fc1_4
I0407 23:53:02.185647 29293 net.cpp:408] fc1_5_67 -> fc1_5
I0407 23:53:02.185886 29293 net.cpp:150] Setting up fc1_5_67
I0407 23:53:02.185895 29293 net.cpp:157] Top shape: 64 67 (4288)
I0407 23:53:02.185897 29293 net.cpp:165] Memory required for data: 520620544
I0407 23:53:02.185904 29293 layer_factory.hpp:77] Creating layer softmax_1
I0407 23:53:02.185914 29293 net.cpp:100] Creating Layer softmax_1
I0407 23:53:02.185920 29293 net.cpp:434] softmax_1 <- fc1_5
I0407 23:53:02.185925 29293 net.cpp:408] softmax_1 -> softmax_1
I0407 23:53:02.186170 29293 net.cpp:150] Setting up softmax_1
I0407 23:53:02.186182 29293 net.cpp:157] Top shape: 64 67 (4288)
I0407 23:53:02.186184 29293 net.cpp:165] Memory required for data: 520637696
I0407 23:53:02.186187 29293 layer_factory.hpp:77] Creating layer conv2_0
I0407 23:53:02.186198 29293 net.cpp:100] Creating Layer conv2_0
I0407 23:53:02.186203 29293 net.cpp:434] conv2_0 <- data_0_data_0_0_split_2
I0407 23:53:02.186209 29293 net.cpp:408] conv2_0 -> conv2_0
I0407 23:53:02.188733 29293 net.cpp:150] Setting up conv2_0
I0407 23:53:02.188750 29293 net.cpp:157] Top shape: 64 100 42 42 (11289600)
I0407 23:53:02.188753 29293 net.cpp:165] Memory required for data: 565796096
I0407 23:53:02.188760 29293 layer_factory.hpp:77] Creating layer conv2_0_prescale
I0407 23:53:02.188768 29293 net.cpp:100] Creating Layer conv2_0_prescale
I0407 23:53:02.188772 29293 net.cpp:434] conv2_0_prescale <- conv2_0
I0407 23:53:02.188778 29293 net.cpp:395] conv2_0_prescale -> conv2_0 (in-place)
I0407 23:53:02.188881 29293 net.cpp:150] Setting up conv2_0_prescale
I0407 23:53:02.188890 29293 net.cpp:157] Top shape: 64 100 42 42 (11289600)
I0407 23:53:02.188894 29293 net.cpp:165] Memory required for data: 610954496
I0407 23:53:02.188899 29293 layer_factory.hpp:77] Creating layer conv2_0_sTanH
I0407 23:53:02.188905 29293 net.cpp:100] Creating Layer conv2_0_sTanH
I0407 23:53:02.188908 29293 net.cpp:434] conv2_0_sTanH <- conv2_0
I0407 23:53:02.188913 29293 net.cpp:395] conv2_0_sTanH -> conv2_0 (in-place)
I0407 23:53:02.189101 29293 net.cpp:150] Setting up conv2_0_sTanH
I0407 23:53:02.189115 29293 net.cpp:157] Top shape: 64 100 42 42 (11289600)
I0407 23:53:02.189117 29293 net.cpp:165] Memory required for data: 656112896
I0407 23:53:02.189121 29293 layer_factory.hpp:77] Creating layer conv2_0_postscale
I0407 23:53:02.189126 29293 net.cpp:100] Creating Layer conv2_0_postscale
I0407 23:53:02.189129 29293 net.cpp:434] conv2_0_postscale <- conv2_0
I0407 23:53:02.189136 29293 net.cpp:395] conv2_0_postscale -> conv2_0 (in-place)
I0407 23:53:02.189247 29293 net.cpp:150] Setting up conv2_0_postscale
I0407 23:53:02.189256 29293 net.cpp:157] Top shape: 64 100 42 42 (11289600)
I0407 23:53:02.189258 29293 net.cpp:165] Memory required for data: 701271296
I0407 23:53:02.189263 29293 layer_factory.hpp:77] Creating layer pool2_0
I0407 23:53:02.189270 29293 net.cpp:100] Creating Layer pool2_0
I0407 23:53:02.189272 29293 net.cpp:434] pool2_0 <- conv2_0
I0407 23:53:02.189278 29293 net.cpp:408] pool2_0 -> pool2_0
I0407 23:53:02.189319 29293 net.cpp:150] Setting up pool2_0
I0407 23:53:02.189327 29293 net.cpp:157] Top shape: 64 100 21 21 (2822400)
I0407 23:53:02.189330 29293 net.cpp:165] Memory required for data: 712560896
I0407 23:53:02.189344 29293 layer_factory.hpp:77] Creating layer conv2_1
I0407 23:53:02.189355 29293 net.cpp:100] Creating Layer conv2_1
I0407 23:53:02.189360 29293 net.cpp:434] conv2_1 <- pool2_0
I0407 23:53:02.189366 29293 net.cpp:408] conv2_1 -> conv2_1
I0407 23:53:02.193181 29293 net.cpp:150] Setting up conv2_1
I0407 23:53:02.193198 29293 net.cpp:157] Top shape: 64 150 18 18 (3110400)
I0407 23:53:02.193202 29293 net.cpp:165] Memory required for data: 725002496
I0407 23:53:02.193208 29293 layer_factory.hpp:77] Creating layer conv2_1_prescale
I0407 23:53:02.193217 29293 net.cpp:100] Creating Layer conv2_1_prescale
I0407 23:53:02.193222 29293 net.cpp:434] conv2_1_prescale <- conv2_1
I0407 23:53:02.193228 29293 net.cpp:395] conv2_1_prescale -> conv2_1 (in-place)
I0407 23:53:02.193341 29293 net.cpp:150] Setting up conv2_1_prescale
I0407 23:53:02.193351 29293 net.cpp:157] Top shape: 64 150 18 18 (3110400)
I0407 23:53:02.193354 29293 net.cpp:165] Memory required for data: 737444096
I0407 23:53:02.193358 29293 layer_factory.hpp:77] Creating layer conv2_1_sTanH
I0407 23:53:02.193366 29293 net.cpp:100] Creating Layer conv2_1_sTanH
I0407 23:53:02.193368 29293 net.cpp:434] conv2_1_sTanH <- conv2_1
I0407 23:53:02.193372 29293 net.cpp:395] conv2_1_sTanH -> conv2_1 (in-place)
I0407 23:53:02.194165 29293 net.cpp:150] Setting up conv2_1_sTanH
I0407 23:53:02.194192 29293 net.cpp:157] Top shape: 64 150 18 18 (3110400)
I0407 23:53:02.194196 29293 net.cpp:165] Memory required for data: 749885696
I0407 23:53:02.194212 29293 layer_factory.hpp:77] Creating layer conv2_1_postscale
I0407 23:53:02.194229 29293 net.cpp:100] Creating Layer conv2_1_postscale
I0407 23:53:02.194233 29293 net.cpp:434] conv2_1_postscale <- conv2_1
I0407 23:53:02.194239 29293 net.cpp:395] conv2_1_postscale -> conv2_1 (in-place)
I0407 23:53:02.194360 29293 net.cpp:150] Setting up conv2_1_postscale
I0407 23:53:02.194370 29293 net.cpp:157] Top shape: 64 150 18 18 (3110400)
I0407 23:53:02.194373 29293 net.cpp:165] Memory required for data: 762327296
I0407 23:53:02.194378 29293 layer_factory.hpp:77] Creating layer pool2_1
I0407 23:53:02.194384 29293 net.cpp:100] Creating Layer pool2_1
I0407 23:53:02.194387 29293 net.cpp:434] pool2_1 <- conv2_1
I0407 23:53:02.194392 29293 net.cpp:408] pool2_1 -> pool2_1
I0407 23:53:02.194434 29293 net.cpp:150] Setting up pool2_1
I0407 23:53:02.194442 29293 net.cpp:157] Top shape: 64 150 9 9 (777600)
I0407 23:53:02.194444 29293 net.cpp:165] Memory required for data: 765437696
I0407 23:53:02.194447 29293 layer_factory.hpp:77] Creating layer conv2_2
I0407 23:53:02.194456 29293 net.cpp:100] Creating Layer conv2_2
I0407 23:53:02.194461 29293 net.cpp:434] conv2_2 <- pool2_1
I0407 23:53:02.194468 29293 net.cpp:408] conv2_2 -> conv2_2
I0407 23:53:02.199934 29293 net.cpp:150] Setting up conv2_2
I0407 23:53:02.199951 29293 net.cpp:157] Top shape: 64 250 6 6 (576000)
I0407 23:53:02.199955 29293 net.cpp:165] Memory required for data: 767741696
I0407 23:53:02.199962 29293 layer_factory.hpp:77] Creating layer conv2_2_prescale
I0407 23:53:02.199970 29293 net.cpp:100] Creating Layer conv2_2_prescale
I0407 23:53:02.199972 29293 net.cpp:434] conv2_2_prescale <- conv2_2
I0407 23:53:02.199980 29293 net.cpp:395] conv2_2_prescale -> conv2_2 (in-place)
I0407 23:53:02.200078 29293 net.cpp:150] Setting up conv2_2_prescale
I0407 23:53:02.200088 29293 net.cpp:157] Top shape: 64 250 6 6 (576000)
I0407 23:53:02.200090 29293 net.cpp:165] Memory required for data: 770045696
I0407 23:53:02.200095 29293 layer_factory.hpp:77] Creating layer conv2_2_sTanH
I0407 23:53:02.200100 29293 net.cpp:100] Creating Layer conv2_2_sTanH
I0407 23:53:02.200103 29293 net.cpp:434] conv2_2_sTanH <- conv2_2
I0407 23:53:02.200110 29293 net.cpp:395] conv2_2_sTanH -> conv2_2 (in-place)
I0407 23:53:02.200922 29293 net.cpp:150] Setting up conv2_2_sTanH
I0407 23:53:02.200937 29293 net.cpp:157] Top shape: 64 250 6 6 (576000)
I0407 23:53:02.200940 29293 net.cpp:165] Memory required for data: 772349696
I0407 23:53:02.200943 29293 layer_factory.hpp:77] Creating layer conv2_2_postscale
I0407 23:53:02.200965 29293 net.cpp:100] Creating Layer conv2_2_postscale
I0407 23:53:02.200969 29293 net.cpp:434] conv2_2_postscale <- conv2_2
I0407 23:53:02.200975 29293 net.cpp:395] conv2_2_postscale -> conv2_2 (in-place)
I0407 23:53:02.201084 29293 net.cpp:150] Setting up conv2_2_postscale
I0407 23:53:02.201093 29293 net.cpp:157] Top shape: 64 250 6 6 (576000)
I0407 23:53:02.201097 29293 net.cpp:165] Memory required for data: 774653696
I0407 23:53:02.201102 29293 layer_factory.hpp:77] Creating layer pool2_2
I0407 23:53:02.201108 29293 net.cpp:100] Creating Layer pool2_2
I0407 23:53:02.201114 29293 net.cpp:434] pool2_2 <- conv2_2
I0407 23:53:02.201119 29293 net.cpp:408] pool2_2 -> pool2_2
I0407 23:53:02.201162 29293 net.cpp:150] Setting up pool2_2
I0407 23:53:02.201170 29293 net.cpp:157] Top shape: 64 250 3 3 (144000)
I0407 23:53:02.201174 29293 net.cpp:165] Memory required for data: 775229696
I0407 23:53:02.201176 29293 layer_factory.hpp:77] Creating layer fc2_4_300
I0407 23:53:02.201181 29293 net.cpp:100] Creating Layer fc2_4_300
I0407 23:53:02.201184 29293 net.cpp:434] fc2_4_300 <- pool2_2
I0407 23:53:02.201190 29293 net.cpp:408] fc2_4_300 -> fc2_4
I0407 23:53:02.206369 29293 net.cpp:150] Setting up fc2_4_300
I0407 23:53:02.206384 29293 net.cpp:157] Top shape: 64 300 (19200)
I0407 23:53:02.206387 29293 net.cpp:165] Memory required for data: 775306496
I0407 23:53:02.206393 29293 layer_factory.hpp:77] Creating layer fc2_4_prescale
I0407 23:53:02.206400 29293 net.cpp:100] Creating Layer fc2_4_prescale
I0407 23:53:02.206403 29293 net.cpp:434] fc2_4_prescale <- fc2_4
I0407 23:53:02.206410 29293 net.cpp:395] fc2_4_prescale -> fc2_4 (in-place)
I0407 23:53:02.206521 29293 net.cpp:150] Setting up fc2_4_prescale
I0407 23:53:02.206529 29293 net.cpp:157] Top shape: 64 300 (19200)
I0407 23:53:02.206532 29293 net.cpp:165] Memory required for data: 775383296
I0407 23:53:02.206537 29293 layer_factory.hpp:77] Creating layer fc2_4_sTanH
I0407 23:53:02.206542 29293 net.cpp:100] Creating Layer fc2_4_sTanH
I0407 23:53:02.206545 29293 net.cpp:434] fc2_4_sTanH <- fc2_4
I0407 23:53:02.206549 29293 net.cpp:395] fc2_4_sTanH -> fc2_4 (in-place)
I0407 23:53:02.206745 29293 net.cpp:150] Setting up fc2_4_sTanH
I0407 23:53:02.206756 29293 net.cpp:157] Top shape: 64 300 (19200)
I0407 23:53:02.206759 29293 net.cpp:165] Memory required for data: 775460096
I0407 23:53:02.206763 29293 layer_factory.hpp:77] Creating layer fc2_4_postscale
I0407 23:53:02.206780 29293 net.cpp:100] Creating Layer fc2_4_postscale
I0407 23:53:02.206786 29293 net.cpp:434] fc2_4_postscale <- fc2_4
I0407 23:53:02.206791 29293 net.cpp:395] fc2_4_postscale -> fc2_4 (in-place)
I0407 23:53:02.206898 29293 net.cpp:150] Setting up fc2_4_postscale
I0407 23:53:02.206907 29293 net.cpp:157] Top shape: 64 300 (19200)
I0407 23:53:02.206909 29293 net.cpp:165] Memory required for data: 775536896
I0407 23:53:02.206914 29293 layer_factory.hpp:77] Creating layer drop2_4
I0407 23:53:02.206920 29293 net.cpp:100] Creating Layer drop2_4
I0407 23:53:02.206923 29293 net.cpp:434] drop2_4 <- fc2_4
I0407 23:53:02.206928 29293 net.cpp:395] drop2_4 -> fc2_4 (in-place)
I0407 23:53:02.206951 29293 net.cpp:150] Setting up drop2_4
I0407 23:53:02.206959 29293 net.cpp:157] Top shape: 64 300 (19200)
I0407 23:53:02.206961 29293 net.cpp:165] Memory required for data: 775613696
I0407 23:53:02.206964 29293 layer_factory.hpp:77] Creating layer fc2_5_67
I0407 23:53:02.206971 29293 net.cpp:100] Creating Layer fc2_5_67
I0407 23:53:02.206974 29293 net.cpp:434] fc2_5_67 <- fc2_4
I0407 23:53:02.206979 29293 net.cpp:408] fc2_5_67 -> fc2_5
I0407 23:53:02.207221 29293 net.cpp:150] Setting up fc2_5_67
I0407 23:53:02.207229 29293 net.cpp:157] Top shape: 64 67 (4288)
I0407 23:53:02.207232 29293 net.cpp:165] Memory required for data: 775630848
I0407 23:53:02.207238 29293 layer_factory.hpp:77] Creating layer softmax_2
I0407 23:53:02.207247 29293 net.cpp:100] Creating Layer softmax_2
I0407 23:53:02.207249 29293 net.cpp:434] softmax_2 <- fc2_5
I0407 23:53:02.207255 29293 net.cpp:408] softmax_2 -> softmax_2
I0407 23:53:02.207521 29293 net.cpp:150] Setting up softmax_2
I0407 23:53:02.207533 29293 net.cpp:157] Top shape: 64 67 (4288)
I0407 23:53:02.207536 29293 net.cpp:165] Memory required for data: 775648000
I0407 23:53:02.207540 29293 layer_factory.hpp:77] Creating layer conv3_0
I0407 23:53:02.207548 29293 net.cpp:100] Creating Layer conv3_0
I0407 23:53:02.207552 29293 net.cpp:434] conv3_0 <- data_0_data_0_0_split_3
I0407 23:53:02.207559 29293 net.cpp:408] conv3_0 -> conv3_0
I0407 23:53:02.209116 29293 net.cpp:150] Setting up conv3_0
I0407 23:53:02.209133 29293 net.cpp:157] Top shape: 64 100 42 42 (11289600)
I0407 23:53:02.209148 29293 net.cpp:165] Memory required for data: 820806400
I0407 23:53:02.209156 29293 layer_factory.hpp:77] Creating layer conv3_0_prescale
I0407 23:53:02.209167 29293 net.cpp:100] Creating Layer conv3_0_prescale
I0407 23:53:02.209172 29293 net.cpp:434] conv3_0_prescale <- conv3_0
I0407 23:53:02.209177 29293 net.cpp:395] conv3_0_prescale -> conv3_0 (in-place)
I0407 23:53:02.209283 29293 net.cpp:150] Setting up conv3_0_prescale
I0407 23:53:02.209292 29293 net.cpp:157] Top shape: 64 100 42 42 (11289600)
I0407 23:53:02.209295 29293 net.cpp:165] Memory required for data: 865964800
I0407 23:53:02.209300 29293 layer_factory.hpp:77] Creating layer conv3_0_sTanH
I0407 23:53:02.209306 29293 net.cpp:100] Creating Layer conv3_0_sTanH
I0407 23:53:02.209309 29293 net.cpp:434] conv3_0_sTanH <- conv3_0
I0407 23:53:02.209314 29293 net.cpp:395] conv3_0_sTanH -> conv3_0 (in-place)
I0407 23:53:02.209507 29293 net.cpp:150] Setting up conv3_0_sTanH
I0407 23:53:02.209518 29293 net.cpp:157] Top shape: 64 100 42 42 (11289600)
I0407 23:53:02.209522 29293 net.cpp:165] Memory required for data: 911123200
I0407 23:53:02.209524 29293 layer_factory.hpp:77] Creating layer conv3_0_postscale
I0407 23:53:02.209532 29293 net.cpp:100] Creating Layer conv3_0_postscale
I0407 23:53:02.209537 29293 net.cpp:434] conv3_0_postscale <- conv3_0
I0407 23:53:02.209542 29293 net.cpp:395] conv3_0_postscale -> conv3_0 (in-place)
I0407 23:53:02.209650 29293 net.cpp:150] Setting up conv3_0_postscale
I0407 23:53:02.209658 29293 net.cpp:157] Top shape: 64 100 42 42 (11289600)
I0407 23:53:02.209661 29293 net.cpp:165] Memory required for data: 956281600
I0407 23:53:02.209666 29293 layer_factory.hpp:77] Creating layer pool3_0
I0407 23:53:02.209673 29293 net.cpp:100] Creating Layer pool3_0
I0407 23:53:02.209678 29293 net.cpp:434] pool3_0 <- conv3_0
I0407 23:53:02.209683 29293 net.cpp:408] pool3_0 -> pool3_0
I0407 23:53:02.209728 29293 net.cpp:150] Setting up pool3_0
I0407 23:53:02.209735 29293 net.cpp:157] Top shape: 64 100 21 21 (2822400)
I0407 23:53:02.209738 29293 net.cpp:165] Memory required for data: 967571200
I0407 23:53:02.209740 29293 layer_factory.hpp:77] Creating layer conv3_1
I0407 23:53:02.209749 29293 net.cpp:100] Creating Layer conv3_1
I0407 23:53:02.209755 29293 net.cpp:434] conv3_1 <- pool3_0
I0407 23:53:02.209761 29293 net.cpp:408] conv3_1 -> conv3_1
I0407 23:53:02.212669 29293 net.cpp:150] Setting up conv3_1
I0407 23:53:02.212685 29293 net.cpp:157] Top shape: 64 150 18 18 (3110400)
I0407 23:53:02.212689 29293 net.cpp:165] Memory required for data: 980012800
I0407 23:53:02.212695 29293 layer_factory.hpp:77] Creating layer conv3_1_prescale
I0407 23:53:02.212704 29293 net.cpp:100] Creating Layer conv3_1_prescale
I0407 23:53:02.212708 29293 net.cpp:434] conv3_1_prescale <- conv3_1
I0407 23:53:02.212714 29293 net.cpp:395] conv3_1_prescale -> conv3_1 (in-place)
I0407 23:53:02.212826 29293 net.cpp:150] Setting up conv3_1_prescale
I0407 23:53:02.212836 29293 net.cpp:157] Top shape: 64 150 18 18 (3110400)
I0407 23:53:02.212838 29293 net.cpp:165] Memory required for data: 992454400
I0407 23:53:02.212843 29293 layer_factory.hpp:77] Creating layer conv3_1_sTanH
I0407 23:53:02.212852 29293 net.cpp:100] Creating Layer conv3_1_sTanH
I0407 23:53:02.212854 29293 net.cpp:434] conv3_1_sTanH <- conv3_1
I0407 23:53:02.212858 29293 net.cpp:395] conv3_1_sTanH -> conv3_1 (in-place)
I0407 23:53:02.213636 29293 net.cpp:150] Setting up conv3_1_sTanH
I0407 23:53:02.213651 29293 net.cpp:157] Top shape: 64 150 18 18 (3110400)
I0407 23:53:02.213666 29293 net.cpp:165] Memory required for data: 1004896000
I0407 23:53:02.213670 29293 layer_factory.hpp:77] Creating layer conv3_1_postscale
I0407 23:53:02.213677 29293 net.cpp:100] Creating Layer conv3_1_postscale
I0407 23:53:02.213680 29293 net.cpp:434] conv3_1_postscale <- conv3_1
I0407 23:53:02.213687 29293 net.cpp:395] conv3_1_postscale -> conv3_1 (in-place)
I0407 23:53:02.213814 29293 net.cpp:150] Setting up conv3_1_postscale
I0407 23:53:02.213824 29293 net.cpp:157] Top shape: 64 150 18 18 (3110400)
I0407 23:53:02.213826 29293 net.cpp:165] Memory required for data: 1017337600
I0407 23:53:02.213830 29293 layer_factory.hpp:77] Creating layer pool3_1
I0407 23:53:02.213836 29293 net.cpp:100] Creating Layer pool3_1
I0407 23:53:02.213840 29293 net.cpp:434] pool3_1 <- conv3_1
I0407 23:53:02.213846 29293 net.cpp:408] pool3_1 -> pool3_1
I0407 23:53:02.213889 29293 net.cpp:150] Setting up pool3_1
I0407 23:53:02.213897 29293 net.cpp:157] Top shape: 64 150 9 9 (777600)
I0407 23:53:02.213901 29293 net.cpp:165] Memory required for data: 1020448000
I0407 23:53:02.213904 29293 layer_factory.hpp:77] Creating layer conv3_2
I0407 23:53:02.213914 29293 net.cpp:100] Creating Layer conv3_2
I0407 23:53:02.213919 29293 net.cpp:434] conv3_2 <- pool3_1
I0407 23:53:02.213924 29293 net.cpp:408] conv3_2 -> conv3_2
I0407 23:53:02.219979 29293 net.cpp:150] Setting up conv3_2
I0407 23:53:02.219995 29293 net.cpp:157] Top shape: 64 250 6 6 (576000)
I0407 23:53:02.219997 29293 net.cpp:165] Memory required for data: 1022752000
I0407 23:53:02.220005 29293 layer_factory.hpp:77] Creating layer conv3_2_prescale
I0407 23:53:02.220011 29293 net.cpp:100] Creating Layer conv3_2_prescale
I0407 23:53:02.220016 29293 net.cpp:434] conv3_2_prescale <- conv3_2
I0407 23:53:02.220022 29293 net.cpp:395] conv3_2_prescale -> conv3_2 (in-place)
I0407 23:53:02.220126 29293 net.cpp:150] Setting up conv3_2_prescale
I0407 23:53:02.220135 29293 net.cpp:157] Top shape: 64 250 6 6 (576000)
I0407 23:53:02.220139 29293 net.cpp:165] Memory required for data: 1025056000
I0407 23:53:02.220150 29293 layer_factory.hpp:77] Creating layer conv3_2_sTanH
I0407 23:53:02.220158 29293 net.cpp:100] Creating Layer conv3_2_sTanH
I0407 23:53:02.220161 29293 net.cpp:434] conv3_2_sTanH <- conv3_2
I0407 23:53:02.220167 29293 net.cpp:395] conv3_2_sTanH -> conv3_2 (in-place)
I0407 23:53:02.220356 29293 net.cpp:150] Setting up conv3_2_sTanH
I0407 23:53:02.220368 29293 net.cpp:157] Top shape: 64 250 6 6 (576000)
I0407 23:53:02.220372 29293 net.cpp:165] Memory required for data: 1027360000
I0407 23:53:02.220376 29293 layer_factory.hpp:77] Creating layer conv3_2_postscale
I0407 23:53:02.220381 29293 net.cpp:100] Creating Layer conv3_2_postscale
I0407 23:53:02.220384 29293 net.cpp:434] conv3_2_postscale <- conv3_2
I0407 23:53:02.220391 29293 net.cpp:395] conv3_2_postscale -> conv3_2 (in-place)
I0407 23:53:02.220494 29293 net.cpp:150] Setting up conv3_2_postscale
I0407 23:53:02.220502 29293 net.cpp:157] Top shape: 64 250 6 6 (576000)
I0407 23:53:02.220504 29293 net.cpp:165] Memory required for data: 1029664000
I0407 23:53:02.220510 29293 layer_factory.hpp:77] Creating layer pool3_2
I0407 23:53:02.220515 29293 net.cpp:100] Creating Layer pool3_2
I0407 23:53:02.220517 29293 net.cpp:434] pool3_2 <- conv3_2
I0407 23:53:02.220525 29293 net.cpp:408] pool3_2 -> pool3_2
I0407 23:53:02.220566 29293 net.cpp:150] Setting up pool3_2
I0407 23:53:02.220576 29293 net.cpp:157] Top shape: 64 250 3 3 (144000)
I0407 23:53:02.220578 29293 net.cpp:165] Memory required for data: 1030240000
I0407 23:53:02.220582 29293 layer_factory.hpp:77] Creating layer fc3_4_300
I0407 23:53:02.220587 29293 net.cpp:100] Creating Layer fc3_4_300
I0407 23:53:02.220589 29293 net.cpp:434] fc3_4_300 <- pool3_2
I0407 23:53:02.220594 29293 net.cpp:408] fc3_4_300 -> fc3_4
I0407 23:53:02.225785 29293 net.cpp:150] Setting up fc3_4_300
I0407 23:53:02.225802 29293 net.cpp:157] Top shape: 64 300 (19200)
I0407 23:53:02.225805 29293 net.cpp:165] Memory required for data: 1030316800
I0407 23:53:02.225822 29293 layer_factory.hpp:77] Creating layer fc3_4_prescale
I0407 23:53:02.225831 29293 net.cpp:100] Creating Layer fc3_4_prescale
I0407 23:53:02.225833 29293 net.cpp:434] fc3_4_prescale <- fc3_4
I0407 23:53:02.225838 29293 net.cpp:395] fc3_4_prescale -> fc3_4 (in-place)
I0407 23:53:02.225952 29293 net.cpp:150] Setting up fc3_4_prescale
I0407 23:53:02.225961 29293 net.cpp:157] Top shape: 64 300 (19200)
I0407 23:53:02.225965 29293 net.cpp:165] Memory required for data: 1030393600
I0407 23:53:02.225970 29293 layer_factory.hpp:77] Creating layer fc3_4_sTanH
I0407 23:53:02.225975 29293 net.cpp:100] Creating Layer fc3_4_sTanH
I0407 23:53:02.225977 29293 net.cpp:434] fc3_4_sTanH <- fc3_4
I0407 23:53:02.225982 29293 net.cpp:395] fc3_4_sTanH -> fc3_4 (in-place)
I0407 23:53:02.226184 29293 net.cpp:150] Setting up fc3_4_sTanH
I0407 23:53:02.226196 29293 net.cpp:157] Top shape: 64 300 (19200)
I0407 23:53:02.226198 29293 net.cpp:165] Memory required for data: 1030470400
I0407 23:53:02.226202 29293 layer_factory.hpp:77] Creating layer fc3_4_postscale
I0407 23:53:02.226207 29293 net.cpp:100] Creating Layer fc3_4_postscale
I0407 23:53:02.226210 29293 net.cpp:434] fc3_4_postscale <- fc3_4
I0407 23:53:02.226218 29293 net.cpp:395] fc3_4_postscale -> fc3_4 (in-place)
I0407 23:53:02.226323 29293 net.cpp:150] Setting up fc3_4_postscale
I0407 23:53:02.226332 29293 net.cpp:157] Top shape: 64 300 (19200)
I0407 23:53:02.226336 29293 net.cpp:165] Memory required for data: 1030547200
I0407 23:53:02.226339 29293 layer_factory.hpp:77] Creating layer drop3_4
I0407 23:53:02.226346 29293 net.cpp:100] Creating Layer drop3_4
I0407 23:53:02.226348 29293 net.cpp:434] drop3_4 <- fc3_4
I0407 23:53:02.226353 29293 net.cpp:395] drop3_4 -> fc3_4 (in-place)
I0407 23:53:02.226377 29293 net.cpp:150] Setting up drop3_4
I0407 23:53:02.226387 29293 net.cpp:157] Top shape: 64 300 (19200)
I0407 23:53:02.226389 29293 net.cpp:165] Memory required for data: 1030624000
I0407 23:53:02.226392 29293 layer_factory.hpp:77] Creating layer fc3_5_67
I0407 23:53:02.226398 29293 net.cpp:100] Creating Layer fc3_5_67
I0407 23:53:02.226400 29293 net.cpp:434] fc3_5_67 <- fc3_4
I0407 23:53:02.226405 29293 net.cpp:408] fc3_5_67 -> fc3_5
I0407 23:53:02.226646 29293 net.cpp:150] Setting up fc3_5_67
I0407 23:53:02.226655 29293 net.cpp:157] Top shape: 64 67 (4288)
I0407 23:53:02.226658 29293 net.cpp:165] Memory required for data: 1030641152
I0407 23:53:02.226663 29293 layer_factory.hpp:77] Creating layer softmax_3
I0407 23:53:02.226670 29293 net.cpp:100] Creating Layer softmax_3
I0407 23:53:02.226675 29293 net.cpp:434] softmax_3 <- fc3_5
I0407 23:53:02.226680 29293 net.cpp:408] softmax_3 -> softmax_3
I0407 23:53:02.227541 29293 net.cpp:150] Setting up softmax_3
I0407 23:53:02.227569 29293 net.cpp:157] Top shape: 64 67 (4288)
I0407 23:53:02.227572 29293 net.cpp:165] Memory required for data: 1030658304
I0407 23:53:02.227576 29293 layer_factory.hpp:77] Creating layer conv4_0
I0407 23:53:02.227586 29293 net.cpp:100] Creating Layer conv4_0
I0407 23:53:02.227589 29293 net.cpp:434] conv4_0 <- data_0_data_0_0_split_4
I0407 23:53:02.227596 29293 net.cpp:408] conv4_0 -> conv4_0
I0407 23:53:02.229202 29293 net.cpp:150] Setting up conv4_0
I0407 23:53:02.229218 29293 net.cpp:157] Top shape: 64 100 42 42 (11289600)
I0407 23:53:02.229221 29293 net.cpp:165] Memory required for data: 1075816704
I0407 23:53:02.229228 29293 layer_factory.hpp:77] Creating layer conv4_0_prescale
I0407 23:53:02.229236 29293 net.cpp:100] Creating Layer conv4_0_prescale
I0407 23:53:02.229240 29293 net.cpp:434] conv4_0_prescale <- conv4_0
I0407 23:53:02.229245 29293 net.cpp:395] conv4_0_prescale -> conv4_0 (in-place)
I0407 23:53:02.229357 29293 net.cpp:150] Setting up conv4_0_prescale
I0407 23:53:02.229367 29293 net.cpp:157] Top shape: 64 100 42 42 (11289600)
I0407 23:53:02.229369 29293 net.cpp:165] Memory required for data: 1120975104
I0407 23:53:02.229374 29293 layer_factory.hpp:77] Creating layer conv4_0_sTanH
I0407 23:53:02.229379 29293 net.cpp:100] Creating Layer conv4_0_sTanH
I0407 23:53:02.229382 29293 net.cpp:434] conv4_0_sTanH <- conv4_0
I0407 23:53:02.229400 29293 net.cpp:395] conv4_0_sTanH -> conv4_0 (in-place)
I0407 23:53:02.229598 29293 net.cpp:150] Setting up conv4_0_sTanH
I0407 23:53:02.229609 29293 net.cpp:157] Top shape: 64 100 42 42 (11289600)
I0407 23:53:02.229612 29293 net.cpp:165] Memory required for data: 1166133504
I0407 23:53:02.229615 29293 layer_factory.hpp:77] Creating layer conv4_0_postscale
I0407 23:53:02.229624 29293 net.cpp:100] Creating Layer conv4_0_postscale
I0407 23:53:02.229627 29293 net.cpp:434] conv4_0_postscale <- conv4_0
I0407 23:53:02.229634 29293 net.cpp:395] conv4_0_postscale -> conv4_0 (in-place)
I0407 23:53:02.229745 29293 net.cpp:150] Setting up conv4_0_postscale
I0407 23:53:02.229754 29293 net.cpp:157] Top shape: 64 100 42 42 (11289600)
I0407 23:53:02.229756 29293 net.cpp:165] Memory required for data: 1211291904
I0407 23:53:02.229761 29293 layer_factory.hpp:77] Creating layer pool4_0
I0407 23:53:02.229766 29293 net.cpp:100] Creating Layer pool4_0
I0407 23:53:02.229770 29293 net.cpp:434] pool4_0 <- conv4_0
I0407 23:53:02.229776 29293 net.cpp:408] pool4_0 -> pool4_0
I0407 23:53:02.229820 29293 net.cpp:150] Setting up pool4_0
I0407 23:53:02.229828 29293 net.cpp:157] Top shape: 64 100 21 21 (2822400)
I0407 23:53:02.229831 29293 net.cpp:165] Memory required for data: 1222581504
I0407 23:53:02.229835 29293 layer_factory.hpp:77] Creating layer conv4_1
I0407 23:53:02.229841 29293 net.cpp:100] Creating Layer conv4_1
I0407 23:53:02.229846 29293 net.cpp:434] conv4_1 <- pool4_0
I0407 23:53:02.229856 29293 net.cpp:408] conv4_1 -> conv4_1
I0407 23:53:02.233641 29293 net.cpp:150] Setting up conv4_1
I0407 23:53:02.233670 29293 net.cpp:157] Top shape: 64 150 18 18 (3110400)
I0407 23:53:02.233675 29293 net.cpp:165] Memory required for data: 1235023104
I0407 23:53:02.233681 29293 layer_factory.hpp:77] Creating layer conv4_1_prescale
I0407 23:53:02.233690 29293 net.cpp:100] Creating Layer conv4_1_prescale
I0407 23:53:02.233692 29293 net.cpp:434] conv4_1_prescale <- conv4_1
I0407 23:53:02.233700 29293 net.cpp:395] conv4_1_prescale -> conv4_1 (in-place)
I0407 23:53:02.233814 29293 net.cpp:150] Setting up conv4_1_prescale
I0407 23:53:02.233824 29293 net.cpp:157] Top shape: 64 150 18 18 (3110400)
I0407 23:53:02.233826 29293 net.cpp:165] Memory required for data: 1247464704
I0407 23:53:02.233830 29293 layer_factory.hpp:77] Creating layer conv4_1_sTanH
I0407 23:53:02.233836 29293 net.cpp:100] Creating Layer conv4_1_sTanH
I0407 23:53:02.233839 29293 net.cpp:434] conv4_1_sTanH <- conv4_1
I0407 23:53:02.233845 29293 net.cpp:395] conv4_1_sTanH -> conv4_1 (in-place)
I0407 23:53:02.234638 29293 net.cpp:150] Setting up conv4_1_sTanH
I0407 23:53:02.234653 29293 net.cpp:157] Top shape: 64 150 18 18 (3110400)
I0407 23:53:02.234657 29293 net.cpp:165] Memory required for data: 1259906304
I0407 23:53:02.234660 29293 layer_factory.hpp:77] Creating layer conv4_1_postscale
I0407 23:53:02.234668 29293 net.cpp:100] Creating Layer conv4_1_postscale
I0407 23:53:02.234673 29293 net.cpp:434] conv4_1_postscale <- conv4_1
I0407 23:53:02.234678 29293 net.cpp:395] conv4_1_postscale -> conv4_1 (in-place)
I0407 23:53:02.234794 29293 net.cpp:150] Setting up conv4_1_postscale
I0407 23:53:02.234804 29293 net.cpp:157] Top shape: 64 150 18 18 (3110400)
I0407 23:53:02.234807 29293 net.cpp:165] Memory required for data: 1272347904
I0407 23:53:02.234812 29293 layer_factory.hpp:77] Creating layer pool4_1
I0407 23:53:02.234819 29293 net.cpp:100] Creating Layer pool4_1
I0407 23:53:02.234825 29293 net.cpp:434] pool4_1 <- conv4_1
I0407 23:53:02.234830 29293 net.cpp:408] pool4_1 -> pool4_1
I0407 23:53:02.234877 29293 net.cpp:150] Setting up pool4_1
I0407 23:53:02.234885 29293 net.cpp:157] Top shape: 64 150 9 9 (777600)
I0407 23:53:02.234889 29293 net.cpp:165] Memory required for data: 1275458304
I0407 23:53:02.234891 29293 layer_factory.hpp:77] Creating layer conv4_2
I0407 23:53:02.234900 29293 net.cpp:100] Creating Layer conv4_2
I0407 23:53:02.234905 29293 net.cpp:434] conv4_2 <- pool4_1
I0407 23:53:02.234910 29293 net.cpp:408] conv4_2 -> conv4_2
I0407 23:53:02.240917 29293 net.cpp:150] Setting up conv4_2
I0407 23:53:02.240947 29293 net.cpp:157] Top shape: 64 250 6 6 (576000)
I0407 23:53:02.240952 29293 net.cpp:165] Memory required for data: 1277762304
I0407 23:53:02.240958 29293 layer_factory.hpp:77] Creating layer conv4_2_prescale
I0407 23:53:02.240965 29293 net.cpp:100] Creating Layer conv4_2_prescale
I0407 23:53:02.240969 29293 net.cpp:434] conv4_2_prescale <- conv4_2
I0407 23:53:02.240975 29293 net.cpp:395] conv4_2_prescale -> conv4_2 (in-place)
I0407 23:53:02.241086 29293 net.cpp:150] Setting up conv4_2_prescale
I0407 23:53:02.241096 29293 net.cpp:157] Top shape: 64 250 6 6 (576000)
I0407 23:53:02.241099 29293 net.cpp:165] Memory required for data: 1280066304
I0407 23:53:02.241103 29293 layer_factory.hpp:77] Creating layer conv4_2_sTanH
I0407 23:53:02.241109 29293 net.cpp:100] Creating Layer conv4_2_sTanH
I0407 23:53:02.241112 29293 net.cpp:434] conv4_2_sTanH <- conv4_2
I0407 23:53:02.241117 29293 net.cpp:395] conv4_2_sTanH -> conv4_2 (in-place)
I0407 23:53:02.241305 29293 net.cpp:150] Setting up conv4_2_sTanH
I0407 23:53:02.241317 29293 net.cpp:157] Top shape: 64 250 6 6 (576000)
I0407 23:53:02.241319 29293 net.cpp:165] Memory required for data: 1282370304
I0407 23:53:02.241323 29293 layer_factory.hpp:77] Creating layer conv4_2_postscale
I0407 23:53:02.241331 29293 net.cpp:100] Creating Layer conv4_2_postscale
I0407 23:53:02.241336 29293 net.cpp:434] conv4_2_postscale <- conv4_2
I0407 23:53:02.241341 29293 net.cpp:395] conv4_2_postscale -> conv4_2 (in-place)
I0407 23:53:02.241451 29293 net.cpp:150] Setting up conv4_2_postscale
I0407 23:53:02.241459 29293 net.cpp:157] Top shape: 64 250 6 6 (576000)
I0407 23:53:02.241462 29293 net.cpp:165] Memory required for data: 1284674304
I0407 23:53:02.241468 29293 layer_factory.hpp:77] Creating layer pool4_2
I0407 23:53:02.241475 29293 net.cpp:100] Creating Layer pool4_2
I0407 23:53:02.241479 29293 net.cpp:434] pool4_2 <- conv4_2
I0407 23:53:02.241485 29293 net.cpp:408] pool4_2 -> pool4_2
I0407 23:53:02.241529 29293 net.cpp:150] Setting up pool4_2
I0407 23:53:02.241538 29293 net.cpp:157] Top shape: 64 250 3 3 (144000)
I0407 23:53:02.241540 29293 net.cpp:165] Memory required for data: 1285250304
I0407 23:53:02.241544 29293 layer_factory.hpp:77] Creating layer fc4_4_300
I0407 23:53:02.241549 29293 net.cpp:100] Creating Layer fc4_4_300
I0407 23:53:02.241552 29293 net.cpp:434] fc4_4_300 <- pool4_2
I0407 23:53:02.241559 29293 net.cpp:408] fc4_4_300 -> fc4_4
I0407 23:53:02.246820 29293 net.cpp:150] Setting up fc4_4_300
I0407 23:53:02.246835 29293 net.cpp:157] Top shape: 64 300 (19200)
I0407 23:53:02.246839 29293 net.cpp:165] Memory required for data: 1285327104
I0407 23:53:02.246845 29293 layer_factory.hpp:77] Creating layer fc4_4_prescale
I0407 23:53:02.246851 29293 net.cpp:100] Creating Layer fc4_4_prescale
I0407 23:53:02.246855 29293 net.cpp:434] fc4_4_prescale <- fc4_4
I0407 23:53:02.246861 29293 net.cpp:395] fc4_4_prescale -> fc4_4 (in-place)
I0407 23:53:02.246981 29293 net.cpp:150] Setting up fc4_4_prescale
I0407 23:53:02.246990 29293 net.cpp:157] Top shape: 64 300 (19200)
I0407 23:53:02.246994 29293 net.cpp:165] Memory required for data: 1285403904
I0407 23:53:02.246997 29293 layer_factory.hpp:77] Creating layer fc4_4_sTanH
I0407 23:53:02.247004 29293 net.cpp:100] Creating Layer fc4_4_sTanH
I0407 23:53:02.247006 29293 net.cpp:434] fc4_4_sTanH <- fc4_4
I0407 23:53:02.247012 29293 net.cpp:395] fc4_4_sTanH -> fc4_4 (in-place)
I0407 23:53:02.247207 29293 net.cpp:150] Setting up fc4_4_sTanH
I0407 23:53:02.247225 29293 net.cpp:157] Top shape: 64 300 (19200)
I0407 23:53:02.247228 29293 net.cpp:165] Memory required for data: 1285480704
I0407 23:53:02.247231 29293 layer_factory.hpp:77] Creating layer fc4_4_postscale
I0407 23:53:02.247238 29293 net.cpp:100] Creating Layer fc4_4_postscale
I0407 23:53:02.247242 29293 net.cpp:434] fc4_4_postscale <- fc4_4
I0407 23:53:02.247247 29293 net.cpp:395] fc4_4_postscale -> fc4_4 (in-place)
I0407 23:53:02.247361 29293 net.cpp:150] Setting up fc4_4_postscale
I0407 23:53:02.247370 29293 net.cpp:157] Top shape: 64 300 (19200)
I0407 23:53:02.247383 29293 net.cpp:165] Memory required for data: 1285557504
I0407 23:53:02.247388 29293 layer_factory.hpp:77] Creating layer drop4_4
I0407 23:53:02.247396 29293 net.cpp:100] Creating Layer drop4_4
I0407 23:53:02.247400 29293 net.cpp:434] drop4_4 <- fc4_4
I0407 23:53:02.247403 29293 net.cpp:395] drop4_4 -> fc4_4 (in-place)
I0407 23:53:02.247433 29293 net.cpp:150] Setting up drop4_4
I0407 23:53:02.247440 29293 net.cpp:157] Top shape: 64 300 (19200)
I0407 23:53:02.247443 29293 net.cpp:165] Memory required for data: 1285634304
I0407 23:53:02.247447 29293 layer_factory.hpp:77] Creating layer fc4_5_67
I0407 23:53:02.247452 29293 net.cpp:100] Creating Layer fc4_5_67
I0407 23:53:02.247454 29293 net.cpp:434] fc4_5_67 <- fc4_4
I0407 23:53:02.247460 29293 net.cpp:408] fc4_5_67 -> fc4_5
I0407 23:53:02.247711 29293 net.cpp:150] Setting up fc4_5_67
I0407 23:53:02.247720 29293 net.cpp:157] Top shape: 64 67 (4288)
I0407 23:53:02.247722 29293 net.cpp:165] Memory required for data: 1285651456
I0407 23:53:02.247728 29293 layer_factory.hpp:77] Creating layer softmax_4
I0407 23:53:02.247733 29293 net.cpp:100] Creating Layer softmax_4
I0407 23:53:02.247736 29293 net.cpp:434] softmax_4 <- fc4_5
I0407 23:53:02.247741 29293 net.cpp:408] softmax_4 -> softmax_4
I0407 23:53:02.248003 29293 net.cpp:150] Setting up softmax_4
I0407 23:53:02.248013 29293 net.cpp:157] Top shape: 64 67 (4288)
I0407 23:53:02.248016 29293 net.cpp:165] Memory required for data: 1285668608
I0407 23:53:02.248020 29293 layer_factory.hpp:77] Creating layer data_1
I0407 23:53:02.248116 29293 net.cpp:100] Creating Layer data_1
I0407 23:53:02.248134 29293 net.cpp:408] data_1 -> data_1
I0407 23:53:02.248147 29293 net.cpp:408] data_1 -> label_1
I0407 23:53:02.249351 29379 db_lmdb.cpp:35] Opened lmdb ../local_data/lmdb/rtsd-r1/histeq/train/lmdb
I0407 23:53:02.249522 29293 data_layer.cpp:41] output data size: 64,3,48,48
I0407 23:53:02.255036 29293 net.cpp:150] Setting up data_1
I0407 23:53:02.255053 29293 net.cpp:157] Top shape: 64 3 48 48 (442368)
I0407 23:53:02.255072 29293 net.cpp:157] Top shape: 64 (64)
I0407 23:53:02.255075 29293 net.cpp:165] Memory required for data: 1287438336
I0407 23:53:02.255079 29293 layer_factory.hpp:77] Creating layer data_1_data_1_0_split
I0407 23:53:02.255086 29293 net.cpp:100] Creating Layer data_1_data_1_0_split
I0407 23:53:02.255090 29293 net.cpp:434] data_1_data_1_0_split <- data_1
I0407 23:53:02.255100 29293 net.cpp:408] data_1_data_1_0_split -> data_1_data_1_0_split_0
I0407 23:53:02.255108 29293 net.cpp:408] data_1_data_1_0_split -> data_1_data_1_0_split_1
I0407 23:53:02.255120 29293 net.cpp:408] data_1_data_1_0_split -> data_1_data_1_0_split_2
I0407 23:53:02.255127 29293 net.cpp:408] data_1_data_1_0_split -> data_1_data_1_0_split_3
I0407 23:53:02.255134 29293 net.cpp:408] data_1_data_1_0_split -> data_1_data_1_0_split_4
I0407 23:53:02.255244 29293 net.cpp:150] Setting up data_1_data_1_0_split
I0407 23:53:02.255254 29293 net.cpp:157] Top shape: 64 3 48 48 (442368)
I0407 23:53:02.255257 29293 net.cpp:157] Top shape: 64 3 48 48 (442368)
I0407 23:53:02.255260 29293 net.cpp:157] Top shape: 64 3 48 48 (442368)
I0407 23:53:02.255264 29293 net.cpp:157] Top shape: 64 3 48 48 (442368)
I0407 23:53:02.255267 29293 net.cpp:157] Top shape: 64 3 48 48 (442368)
I0407 23:53:02.255270 29293 net.cpp:165] Memory required for data: 1296285696
I0407 23:53:02.255273 29293 layer_factory.hpp:77] Creating layer conv5_0
I0407 23:53:02.255283 29293 net.cpp:100] Creating Layer conv5_0
I0407 23:53:02.255290 29293 net.cpp:434] conv5_0 <- data_1_data_1_0_split_0
I0407 23:53:02.255295 29293 net.cpp:408] conv5_0 -> conv5_0
I0407 23:53:02.257339 29293 net.cpp:150] Setting up conv5_0
I0407 23:53:02.257354 29293 net.cpp:157] Top shape: 64 100 42 42 (11289600)
I0407 23:53:02.257359 29293 net.cpp:165] Memory required for data: 1341444096
I0407 23:53:02.257366 29293 layer_factory.hpp:77] Creating layer conv5_0_prescale
I0407 23:53:02.257375 29293 net.cpp:100] Creating Layer conv5_0_prescale
I0407 23:53:02.257378 29293 net.cpp:434] conv5_0_prescale <- conv5_0
I0407 23:53:02.257400 29293 net.cpp:395] conv5_0_prescale -> conv5_0 (in-place)
I0407 23:53:02.257524 29293 net.cpp:150] Setting up conv5_0_prescale
I0407 23:53:02.257534 29293 net.cpp:157] Top shape: 64 100 42 42 (11289600)
I0407 23:53:02.257537 29293 net.cpp:165] Memory required for data: 1386602496
I0407 23:53:02.257541 29293 layer_factory.hpp:77] Creating layer conv5_0_sTanH
I0407 23:53:02.257547 29293 net.cpp:100] Creating Layer conv5_0_sTanH
I0407 23:53:02.257550 29293 net.cpp:434] conv5_0_sTanH <- conv5_0
I0407 23:53:02.257555 29293 net.cpp:395] conv5_0_sTanH -> conv5_0 (in-place)
I0407 23:53:02.258365 29293 net.cpp:150] Setting up conv5_0_sTanH
I0407 23:53:02.258381 29293 net.cpp:157] Top shape: 64 100 42 42 (11289600)
I0407 23:53:02.258384 29293 net.cpp:165] Memory required for data: 1431760896
I0407 23:53:02.258388 29293 layer_factory.hpp:77] Creating layer conv5_0_postscale
I0407 23:53:02.258396 29293 net.cpp:100] Creating Layer conv5_0_postscale
I0407 23:53:02.258400 29293 net.cpp:434] conv5_0_postscale <- conv5_0
I0407 23:53:02.258405 29293 net.cpp:395] conv5_0_postscale -> conv5_0 (in-place)
I0407 23:53:02.258529 29293 net.cpp:150] Setting up conv5_0_postscale
I0407 23:53:02.258539 29293 net.cpp:157] Top shape: 64 100 42 42 (11289600)
I0407 23:53:02.258543 29293 net.cpp:165] Memory required for data: 1476919296
I0407 23:53:02.258548 29293 layer_factory.hpp:77] Creating layer pool5_0
I0407 23:53:02.258555 29293 net.cpp:100] Creating Layer pool5_0
I0407 23:53:02.258559 29293 net.cpp:434] pool5_0 <- conv5_0
I0407 23:53:02.258565 29293 net.cpp:408] pool5_0 -> pool5_0
I0407 23:53:02.258612 29293 net.cpp:150] Setting up pool5_0
I0407 23:53:02.258620 29293 net.cpp:157] Top shape: 64 100 21 21 (2822400)
I0407 23:53:02.258623 29293 net.cpp:165] Memory required for data: 1488208896
I0407 23:53:02.258626 29293 layer_factory.hpp:77] Creating layer conv5_1
I0407 23:53:02.258635 29293 net.cpp:100] Creating Layer conv5_1
I0407 23:53:02.258641 29293 net.cpp:434] conv5_1 <- pool5_0
I0407 23:53:02.258646 29293 net.cpp:408] conv5_1 -> conv5_1
I0407 23:53:02.260974 29293 net.cpp:150] Setting up conv5_1
I0407 23:53:02.260988 29293 net.cpp:157] Top shape: 64 150 18 18 (3110400)
I0407 23:53:02.260993 29293 net.cpp:165] Memory required for data: 1500650496
I0407 23:53:02.260998 29293 layer_factory.hpp:77] Creating layer conv5_1_prescale
I0407 23:53:02.261006 29293 net.cpp:100] Creating Layer conv5_1_prescale
I0407 23:53:02.261010 29293 net.cpp:434] conv5_1_prescale <- conv5_1
I0407 23:53:02.261015 29293 net.cpp:395] conv5_1_prescale -> conv5_1 (in-place)
I0407 23:53:02.261127 29293 net.cpp:150] Setting up conv5_1_prescale
I0407 23:53:02.261137 29293 net.cpp:157] Top shape: 64 150 18 18 (3110400)
I0407 23:53:02.261139 29293 net.cpp:165] Memory required for data: 1513092096
I0407 23:53:02.261143 29293 layer_factory.hpp:77] Creating layer conv5_1_sTanH
I0407 23:53:02.261148 29293 net.cpp:100] Creating Layer conv5_1_sTanH
I0407 23:53:02.261152 29293 net.cpp:434] conv5_1_sTanH <- conv5_1
I0407 23:53:02.261157 29293 net.cpp:395] conv5_1_sTanH -> conv5_1 (in-place)
I0407 23:53:02.261958 29293 net.cpp:150] Setting up conv5_1_sTanH
I0407 23:53:02.261973 29293 net.cpp:157] Top shape: 64 150 18 18 (3110400)
I0407 23:53:02.261976 29293 net.cpp:165] Memory required for data: 1525533696
I0407 23:53:02.261981 29293 layer_factory.hpp:77] Creating layer conv5_1_postscale
I0407 23:53:02.261988 29293 net.cpp:100] Creating Layer conv5_1_postscale
I0407 23:53:02.261992 29293 net.cpp:434] conv5_1_postscale <- conv5_1
I0407 23:53:02.261997 29293 net.cpp:395] conv5_1_postscale -> conv5_1 (in-place)
I0407 23:53:02.262117 29293 net.cpp:150] Setting up conv5_1_postscale
I0407 23:53:02.262126 29293 net.cpp:157] Top shape: 64 150 18 18 (3110400)
I0407 23:53:02.262130 29293 net.cpp:165] Memory required for data: 1537975296
I0407 23:53:02.262135 29293 layer_factory.hpp:77] Creating layer pool5_1
I0407 23:53:02.262143 29293 net.cpp:100] Creating Layer pool5_1
I0407 23:53:02.262148 29293 net.cpp:434] pool5_1 <- conv5_1
I0407 23:53:02.262154 29293 net.cpp:408] pool5_1 -> pool5_1
I0407 23:53:02.262215 29293 net.cpp:150] Setting up pool5_1
I0407 23:53:02.262224 29293 net.cpp:157] Top shape: 64 150 9 9 (777600)
I0407 23:53:02.262228 29293 net.cpp:165] Memory required for data: 1541085696
I0407 23:53:02.262231 29293 layer_factory.hpp:77] Creating layer conv5_2
I0407 23:53:02.262239 29293 net.cpp:100] Creating Layer conv5_2
I0407 23:53:02.262244 29293 net.cpp:434] conv5_2 <- pool5_1
I0407 23:53:02.262251 29293 net.cpp:408] conv5_2 -> conv5_2
I0407 23:53:02.268395 29293 net.cpp:150] Setting up conv5_2
I0407 23:53:02.268425 29293 net.cpp:157] Top shape: 64 250 6 6 (576000)
I0407 23:53:02.268429 29293 net.cpp:165] Memory required for data: 1543389696
I0407 23:53:02.268436 29293 layer_factory.hpp:77] Creating layer conv5_2_prescale
I0407 23:53:02.268443 29293 net.cpp:100] Creating Layer conv5_2_prescale
I0407 23:53:02.268446 29293 net.cpp:434] conv5_2_prescale <- conv5_2
I0407 23:53:02.268465 29293 net.cpp:395] conv5_2_prescale -> conv5_2 (in-place)
I0407 23:53:02.268579 29293 net.cpp:150] Setting up conv5_2_prescale
I0407 23:53:02.268589 29293 net.cpp:157] Top shape: 64 250 6 6 (576000)
I0407 23:53:02.268591 29293 net.cpp:165] Memory required for data: 1545693696
I0407 23:53:02.268596 29293 layer_factory.hpp:77] Creating layer conv5_2_sTanH
I0407 23:53:02.268601 29293 net.cpp:100] Creating Layer conv5_2_sTanH
I0407 23:53:02.268604 29293 net.cpp:434] conv5_2_sTanH <- conv5_2
I0407 23:53:02.268610 29293 net.cpp:395] conv5_2_sTanH -> conv5_2 (in-place)
I0407 23:53:02.268800 29293 net.cpp:150] Setting up conv5_2_sTanH
I0407 23:53:02.268810 29293 net.cpp:157] Top shape: 64 250 6 6 (576000)
I0407 23:53:02.268813 29293 net.cpp:165] Memory required for data: 1547997696
I0407 23:53:02.268816 29293 layer_factory.hpp:77] Creating layer conv5_2_postscale
I0407 23:53:02.268824 29293 net.cpp:100] Creating Layer conv5_2_postscale
I0407 23:53:02.268831 29293 net.cpp:434] conv5_2_postscale <- conv5_2
I0407 23:53:02.268836 29293 net.cpp:395] conv5_2_postscale -> conv5_2 (in-place)
I0407 23:53:02.268946 29293 net.cpp:150] Setting up conv5_2_postscale
I0407 23:53:02.268955 29293 net.cpp:157] Top shape: 64 250 6 6 (576000)
I0407 23:53:02.268959 29293 net.cpp:165] Memory required for data: 1550301696
I0407 23:53:02.268963 29293 layer_factory.hpp:77] Creating layer pool5_2
I0407 23:53:02.268988 29293 net.cpp:100] Creating Layer pool5_2
I0407 23:53:02.268993 29293 net.cpp:434] pool5_2 <- conv5_2
I0407 23:53:02.268998 29293 net.cpp:408] pool5_2 -> pool5_2
I0407 23:53:02.269050 29293 net.cpp:150] Setting up pool5_2
I0407 23:53:02.269059 29293 net.cpp:157] Top shape: 64 250 3 3 (144000)
I0407 23:53:02.269062 29293 net.cpp:165] Memory required for data: 1550877696
I0407 23:53:02.269065 29293 layer_factory.hpp:77] Creating layer fc5_4_300
I0407 23:53:02.269071 29293 net.cpp:100] Creating Layer fc5_4_300
I0407 23:53:02.269074 29293 net.cpp:434] fc5_4_300 <- pool5_2
I0407 23:53:02.269079 29293 net.cpp:408] fc5_4_300 -> fc5_4
I0407 23:53:02.274374 29293 net.cpp:150] Setting up fc5_4_300
I0407 23:53:02.274389 29293 net.cpp:157] Top shape: 64 300 (19200)
I0407 23:53:02.274391 29293 net.cpp:165] Memory required for data: 1550954496
I0407 23:53:02.274397 29293 layer_factory.hpp:77] Creating layer fc5_4_prescale
I0407 23:53:02.274406 29293 net.cpp:100] Creating Layer fc5_4_prescale
I0407 23:53:02.274410 29293 net.cpp:434] fc5_4_prescale <- fc5_4
I0407 23:53:02.274417 29293 net.cpp:395] fc5_4_prescale -> fc5_4 (in-place)
I0407 23:53:02.274523 29293 net.cpp:150] Setting up fc5_4_prescale
I0407 23:53:02.274533 29293 net.cpp:157] Top shape: 64 300 (19200)
I0407 23:53:02.274535 29293 net.cpp:165] Memory required for data: 1551031296
I0407 23:53:02.274540 29293 layer_factory.hpp:77] Creating layer fc5_4_sTanH
I0407 23:53:02.274546 29293 net.cpp:100] Creating Layer fc5_4_sTanH
I0407 23:53:02.274550 29293 net.cpp:434] fc5_4_sTanH <- fc5_4
I0407 23:53:02.274554 29293 net.cpp:395] fc5_4_sTanH -> fc5_4 (in-place)
I0407 23:53:02.274756 29293 net.cpp:150] Setting up fc5_4_sTanH
I0407 23:53:02.274767 29293 net.cpp:157] Top shape: 64 300 (19200)
I0407 23:53:02.274783 29293 net.cpp:165] Memory required for data: 1551108096
I0407 23:53:02.274787 29293 layer_factory.hpp:77] Creating layer fc5_4_postscale
I0407 23:53:02.274794 29293 net.cpp:100] Creating Layer fc5_4_postscale
I0407 23:53:02.274798 29293 net.cpp:434] fc5_4_postscale <- fc5_4
I0407 23:53:02.274804 29293 net.cpp:395] fc5_4_postscale -> fc5_4 (in-place)
I0407 23:53:02.274921 29293 net.cpp:150] Setting up fc5_4_postscale
I0407 23:53:02.274931 29293 net.cpp:157] Top shape: 64 300 (19200)
I0407 23:53:02.274933 29293 net.cpp:165] Memory required for data: 1551184896
I0407 23:53:02.274938 29293 layer_factory.hpp:77] Creating layer drop5_4
I0407 23:53:02.274945 29293 net.cpp:100] Creating Layer drop5_4
I0407 23:53:02.274947 29293 net.cpp:434] drop5_4 <- fc5_4
I0407 23:53:02.274952 29293 net.cpp:395] drop5_4 -> fc5_4 (in-place)
I0407 23:53:02.274981 29293 net.cpp:150] Setting up drop5_4
I0407 23:53:02.274987 29293 net.cpp:157] Top shape: 64 300 (19200)
I0407 23:53:02.274991 29293 net.cpp:165] Memory required for data: 1551261696
I0407 23:53:02.274992 29293 layer_factory.hpp:77] Creating layer fc5_5_67
I0407 23:53:02.275001 29293 net.cpp:100] Creating Layer fc5_5_67
I0407 23:53:02.275003 29293 net.cpp:434] fc5_5_67 <- fc5_4
I0407 23:53:02.275008 29293 net.cpp:408] fc5_5_67 -> fc5_5
I0407 23:53:02.275256 29293 net.cpp:150] Setting up fc5_5_67
I0407 23:53:02.275264 29293 net.cpp:157] Top shape: 64 67 (4288)
I0407 23:53:02.275267 29293 net.cpp:165] Memory required for data: 1551278848
I0407 23:53:02.275274 29293 layer_factory.hpp:77] Creating layer softmax_5
I0407 23:53:02.275279 29293 net.cpp:100] Creating Layer softmax_5
I0407 23:53:02.275281 29293 net.cpp:434] softmax_5 <- fc5_5
I0407 23:53:02.275286 29293 net.cpp:408] softmax_5 -> softmax_5
I0407 23:53:02.275554 29293 net.cpp:150] Setting up softmax_5
I0407 23:53:02.275565 29293 net.cpp:157] Top shape: 64 67 (4288)
I0407 23:53:02.275568 29293 net.cpp:165] Memory required for data: 1551296000
I0407 23:53:02.275571 29293 layer_factory.hpp:77] Creating layer conv6_0
I0407 23:53:02.275580 29293 net.cpp:100] Creating Layer conv6_0
I0407 23:53:02.275584 29293 net.cpp:434] conv6_0 <- data_1_data_1_0_split_1
I0407 23:53:02.275591 29293 net.cpp:408] conv6_0 -> conv6_0
I0407 23:53:02.277204 29293 net.cpp:150] Setting up conv6_0
I0407 23:53:02.277222 29293 net.cpp:157] Top shape: 64 100 42 42 (11289600)
I0407 23:53:02.277226 29293 net.cpp:165] Memory required for data: 1596454400
I0407 23:53:02.277233 29293 layer_factory.hpp:77] Creating layer conv6_0_prescale
I0407 23:53:02.277240 29293 net.cpp:100] Creating Layer conv6_0_prescale
I0407 23:53:02.277245 29293 net.cpp:434] conv6_0_prescale <- conv6_0
I0407 23:53:02.277251 29293 net.cpp:395] conv6_0_prescale -> conv6_0 (in-place)
I0407 23:53:02.277369 29293 net.cpp:150] Setting up conv6_0_prescale
I0407 23:53:02.277379 29293 net.cpp:157] Top shape: 64 100 42 42 (11289600)
I0407 23:53:02.277381 29293 net.cpp:165] Memory required for data: 1641612800
I0407 23:53:02.277385 29293 layer_factory.hpp:77] Creating layer conv6_0_sTanH
I0407 23:53:02.277391 29293 net.cpp:100] Creating Layer conv6_0_sTanH
I0407 23:53:02.277395 29293 net.cpp:434] conv6_0_sTanH <- conv6_0
I0407 23:53:02.277398 29293 net.cpp:395] conv6_0_sTanH -> conv6_0 (in-place)
I0407 23:53:02.278214 29293 net.cpp:150] Setting up conv6_0_sTanH
I0407 23:53:02.278229 29293 net.cpp:157] Top shape: 64 100 42 42 (11289600)
I0407 23:53:02.278233 29293 net.cpp:165] Memory required for data: 1686771200
I0407 23:53:02.278235 29293 layer_factory.hpp:77] Creating layer conv6_0_postscale
I0407 23:53:02.278244 29293 net.cpp:100] Creating Layer conv6_0_postscale
I0407 23:53:02.278247 29293 net.cpp:434] conv6_0_postscale <- conv6_0
I0407 23:53:02.278254 29293 net.cpp:395] conv6_0_postscale -> conv6_0 (in-place)
I0407 23:53:02.278376 29293 net.cpp:150] Setting up conv6_0_postscale
I0407 23:53:02.278386 29293 net.cpp:157] Top shape: 64 100 42 42 (11289600)
I0407 23:53:02.278389 29293 net.cpp:165] Memory required for data: 1731929600
I0407 23:53:02.278394 29293 layer_factory.hpp:77] Creating layer pool6_0
I0407 23:53:02.278414 29293 net.cpp:100] Creating Layer pool6_0
I0407 23:53:02.278421 29293 net.cpp:434] pool6_0 <- conv6_0
I0407 23:53:02.278426 29293 net.cpp:408] pool6_0 -> pool6_0
I0407 23:53:02.278478 29293 net.cpp:150] Setting up pool6_0
I0407 23:53:02.278487 29293 net.cpp:157] Top shape: 64 100 21 21 (2822400)
I0407 23:53:02.278491 29293 net.cpp:165] Memory required for data: 1743219200
I0407 23:53:02.278493 29293 layer_factory.hpp:77] Creating layer conv6_1
I0407 23:53:02.278502 29293 net.cpp:100] Creating Layer conv6_1
I0407 23:53:02.278508 29293 net.cpp:434] conv6_1 <- pool6_0
I0407 23:53:02.278520 29293 net.cpp:408] conv6_1 -> conv6_1
I0407 23:53:02.281766 29293 net.cpp:150] Setting up conv6_1
I0407 23:53:02.281795 29293 net.cpp:157] Top shape: 64 150 18 18 (3110400)
I0407 23:53:02.281798 29293 net.cpp:165] Memory required for data: 1755660800
I0407 23:53:02.281805 29293 layer_factory.hpp:77] Creating layer conv6_1_prescale
I0407 23:53:02.281812 29293 net.cpp:100] Creating Layer conv6_1_prescale
I0407 23:53:02.281816 29293 net.cpp:434] conv6_1_prescale <- conv6_1
I0407 23:53:02.281823 29293 net.cpp:395] conv6_1_prescale -> conv6_1 (in-place)
I0407 23:53:02.281942 29293 net.cpp:150] Setting up conv6_1_prescale
I0407 23:53:02.281951 29293 net.cpp:157] Top shape: 64 150 18 18 (3110400)
I0407 23:53:02.281955 29293 net.cpp:165] Memory required for data: 1768102400
I0407 23:53:02.281960 29293 layer_factory.hpp:77] Creating layer conv6_1_sTanH
I0407 23:53:02.281965 29293 net.cpp:100] Creating Layer conv6_1_sTanH
I0407 23:53:02.281968 29293 net.cpp:434] conv6_1_sTanH <- conv6_1
I0407 23:53:02.281975 29293 net.cpp:395] conv6_1_sTanH -> conv6_1 (in-place)
I0407 23:53:02.282780 29293 net.cpp:150] Setting up conv6_1_sTanH
I0407 23:53:02.282795 29293 net.cpp:157] Top shape: 64 150 18 18 (3110400)
I0407 23:53:02.282799 29293 net.cpp:165] Memory required for data: 1780544000
I0407 23:53:02.282802 29293 layer_factory.hpp:77] Creating layer conv6_1_postscale
I0407 23:53:02.282810 29293 net.cpp:100] Creating Layer conv6_1_postscale
I0407 23:53:02.282814 29293 net.cpp:434] conv6_1_postscale <- conv6_1
I0407 23:53:02.282820 29293 net.cpp:395] conv6_1_postscale -> conv6_1 (in-place)
I0407 23:53:02.282943 29293 net.cpp:150] Setting up conv6_1_postscale
I0407 23:53:02.282953 29293 net.cpp:157] Top shape: 64 150 18 18 (3110400)
I0407 23:53:02.282956 29293 net.cpp:165] Memory required for data: 1792985600
I0407 23:53:02.282960 29293 layer_factory.hpp:77] Creating layer pool6_1
I0407 23:53:02.282969 29293 net.cpp:100] Creating Layer pool6_1
I0407 23:53:02.282974 29293 net.cpp:434] pool6_1 <- conv6_1
I0407 23:53:02.282979 29293 net.cpp:408] pool6_1 -> pool6_1
I0407 23:53:02.283030 29293 net.cpp:150] Setting up pool6_1
I0407 23:53:02.283038 29293 net.cpp:157] Top shape: 64 150 9 9 (777600)
I0407 23:53:02.283041 29293 net.cpp:165] Memory required for data: 1796096000
I0407 23:53:02.283044 29293 layer_factory.hpp:77] Creating layer conv6_2
I0407 23:53:02.283053 29293 net.cpp:100] Creating Layer conv6_2
I0407 23:53:02.283058 29293 net.cpp:434] conv6_2 <- pool6_1
I0407 23:53:02.283064 29293 net.cpp:408] conv6_2 -> conv6_2
I0407 23:53:02.289247 29293 net.cpp:150] Setting up conv6_2
I0407 23:53:02.289264 29293 net.cpp:157] Top shape: 64 250 6 6 (576000)
I0407 23:53:02.289268 29293 net.cpp:165] Memory required for data: 1798400000
I0407 23:53:02.289274 29293 layer_factory.hpp:77] Creating layer conv6_2_prescale
I0407 23:53:02.289283 29293 net.cpp:100] Creating Layer conv6_2_prescale
I0407 23:53:02.289288 29293 net.cpp:434] conv6_2_prescale <- conv6_2
I0407 23:53:02.289294 29293 net.cpp:395] conv6_2_prescale -> conv6_2 (in-place)
I0407 23:53:02.289412 29293 net.cpp:150] Setting up conv6_2_prescale
I0407 23:53:02.289422 29293 net.cpp:157] Top shape: 64 250 6 6 (576000)
I0407 23:53:02.289425 29293 net.cpp:165] Memory required for data: 1800704000
I0407 23:53:02.289430 29293 layer_factory.hpp:77] Creating layer conv6_2_sTanH
I0407 23:53:02.289438 29293 net.cpp:100] Creating Layer conv6_2_sTanH
I0407 23:53:02.289453 29293 net.cpp:434] conv6_2_sTanH <- conv6_2
I0407 23:53:02.289458 29293 net.cpp:395] conv6_2_sTanH -> conv6_2 (in-place)
I0407 23:53:02.289654 29293 net.cpp:150] Setting up conv6_2_sTanH
I0407 23:53:02.289666 29293 net.cpp:157] Top shape: 64 250 6 6 (576000)
I0407 23:53:02.289669 29293 net.cpp:165] Memory required for data: 1803008000
I0407 23:53:02.289672 29293 layer_factory.hpp:77] Creating layer conv6_2_postscale
I0407 23:53:02.289679 29293 net.cpp:100] Creating Layer conv6_2_postscale
I0407 23:53:02.289685 29293 net.cpp:434] conv6_2_postscale <- conv6_2
I0407 23:53:02.289690 29293 net.cpp:395] conv6_2_postscale -> conv6_2 (in-place)
I0407 23:53:02.289803 29293 net.cpp:150] Setting up conv6_2_postscale
I0407 23:53:02.289813 29293 net.cpp:157] Top shape: 64 250 6 6 (576000)
I0407 23:53:02.289815 29293 net.cpp:165] Memory required for data: 1805312000
I0407 23:53:02.289819 29293 layer_factory.hpp:77] Creating layer pool6_2
I0407 23:53:02.289825 29293 net.cpp:100] Creating Layer pool6_2
I0407 23:53:02.289831 29293 net.cpp:434] pool6_2 <- conv6_2
I0407 23:53:02.289836 29293 net.cpp:408] pool6_2 -> pool6_2
I0407 23:53:02.289885 29293 net.cpp:150] Setting up pool6_2
I0407 23:53:02.289894 29293 net.cpp:157] Top shape: 64 250 3 3 (144000)
I0407 23:53:02.289896 29293 net.cpp:165] Memory required for data: 1805888000
I0407 23:53:02.289899 29293 layer_factory.hpp:77] Creating layer fc6_4_300
I0407 23:53:02.289906 29293 net.cpp:100] Creating Layer fc6_4_300
I0407 23:53:02.289909 29293 net.cpp:434] fc6_4_300 <- pool6_2
I0407 23:53:02.289916 29293 net.cpp:408] fc6_4_300 -> fc6_4
I0407 23:53:02.295227 29293 net.cpp:150] Setting up fc6_4_300
I0407 23:53:02.295243 29293 net.cpp:157] Top shape: 64 300 (19200)
I0407 23:53:02.295259 29293 net.cpp:165] Memory required for data: 1805964800
I0407 23:53:02.295265 29293 layer_factory.hpp:77] Creating layer fc6_4_prescale
I0407 23:53:02.295272 29293 net.cpp:100] Creating Layer fc6_4_prescale
I0407 23:53:02.295276 29293 net.cpp:434] fc6_4_prescale <- fc6_4
I0407 23:53:02.295284 29293 net.cpp:395] fc6_4_prescale -> fc6_4 (in-place)
I0407 23:53:02.295392 29293 net.cpp:150] Setting up fc6_4_prescale
I0407 23:53:02.295400 29293 net.cpp:157] Top shape: 64 300 (19200)
I0407 23:53:02.295403 29293 net.cpp:165] Memory required for data: 1806041600
I0407 23:53:02.295408 29293 layer_factory.hpp:77] Creating layer fc6_4_sTanH
I0407 23:53:02.295413 29293 net.cpp:100] Creating Layer fc6_4_sTanH
I0407 23:53:02.295416 29293 net.cpp:434] fc6_4_sTanH <- fc6_4
I0407 23:53:02.295420 29293 net.cpp:395] fc6_4_sTanH -> fc6_4 (in-place)
I0407 23:53:02.295619 29293 net.cpp:150] Setting up fc6_4_sTanH
I0407 23:53:02.295631 29293 net.cpp:157] Top shape: 64 300 (19200)
I0407 23:53:02.295634 29293 net.cpp:165] Memory required for data: 1806118400
I0407 23:53:02.295637 29293 layer_factory.hpp:77] Creating layer fc6_4_postscale
I0407 23:53:02.295644 29293 net.cpp:100] Creating Layer fc6_4_postscale
I0407 23:53:02.295646 29293 net.cpp:434] fc6_4_postscale <- fc6_4
I0407 23:53:02.295653 29293 net.cpp:395] fc6_4_postscale -> fc6_4 (in-place)
I0407 23:53:02.295773 29293 net.cpp:150] Setting up fc6_4_postscale
I0407 23:53:02.295781 29293 net.cpp:157] Top shape: 64 300 (19200)
I0407 23:53:02.295784 29293 net.cpp:165] Memory required for data: 1806195200
I0407 23:53:02.295789 29293 layer_factory.hpp:77] Creating layer drop6_4
I0407 23:53:02.295794 29293 net.cpp:100] Creating Layer drop6_4
I0407 23:53:02.295797 29293 net.cpp:434] drop6_4 <- fc6_4
I0407 23:53:02.295804 29293 net.cpp:395] drop6_4 -> fc6_4 (in-place)
I0407 23:53:02.295835 29293 net.cpp:150] Setting up drop6_4
I0407 23:53:02.295846 29293 net.cpp:157] Top shape: 64 300 (19200)
I0407 23:53:02.295848 29293 net.cpp:165] Memory required for data: 1806272000
I0407 23:53:02.295851 29293 layer_factory.hpp:77] Creating layer fc6_5_67
I0407 23:53:02.295856 29293 net.cpp:100] Creating Layer fc6_5_67
I0407 23:53:02.295859 29293 net.cpp:434] fc6_5_67 <- fc6_4
I0407 23:53:02.295866 29293 net.cpp:408] fc6_5_67 -> fc6_5
I0407 23:53:02.296126 29293 net.cpp:150] Setting up fc6_5_67
I0407 23:53:02.296147 29293 net.cpp:157] Top shape: 64 67 (4288)
I0407 23:53:02.296151 29293 net.cpp:165] Memory required for data: 1806289152
I0407 23:53:02.296157 29293 layer_factory.hpp:77] Creating layer softmax_6
I0407 23:53:02.296164 29293 net.cpp:100] Creating Layer softmax_6
I0407 23:53:02.296167 29293 net.cpp:434] softmax_6 <- fc6_5
I0407 23:53:02.296172 29293 net.cpp:408] softmax_6 -> softmax_6
I0407 23:53:02.296447 29293 net.cpp:150] Setting up softmax_6
I0407 23:53:02.296458 29293 net.cpp:157] Top shape: 64 67 (4288)
I0407 23:53:02.296460 29293 net.cpp:165] Memory required for data: 1806306304
I0407 23:53:02.296463 29293 layer_factory.hpp:77] Creating layer conv7_0
I0407 23:53:02.296473 29293 net.cpp:100] Creating Layer conv7_0
I0407 23:53:02.296478 29293 net.cpp:434] conv7_0 <- data_1_data_1_0_split_2
I0407 23:53:02.296483 29293 net.cpp:408] conv7_0 -> conv7_0
I0407 23:53:02.298331 29293 net.cpp:150] Setting up conv7_0
I0407 23:53:02.298348 29293 net.cpp:157] Top shape: 64 100 42 42 (11289600)
I0407 23:53:02.298352 29293 net.cpp:165] Memory required for data: 1851464704
I0407 23:53:02.298359 29293 layer_factory.hpp:77] Creating layer conv7_0_prescale
I0407 23:53:02.298367 29293 net.cpp:100] Creating Layer conv7_0_prescale
I0407 23:53:02.298369 29293 net.cpp:434] conv7_0_prescale <- conv7_0
I0407 23:53:02.298377 29293 net.cpp:395] conv7_0_prescale -> conv7_0 (in-place)
I0407 23:53:02.298496 29293 net.cpp:150] Setting up conv7_0_prescale
I0407 23:53:02.298504 29293 net.cpp:157] Top shape: 64 100 42 42 (11289600)
I0407 23:53:02.298507 29293 net.cpp:165] Memory required for data: 1896623104
I0407 23:53:02.298527 29293 layer_factory.hpp:77] Creating layer conv7_0_sTanH
I0407 23:53:02.298535 29293 net.cpp:100] Creating Layer conv7_0_sTanH
I0407 23:53:02.298538 29293 net.cpp:434] conv7_0_sTanH <- conv7_0
I0407 23:53:02.298543 29293 net.cpp:395] conv7_0_sTanH -> conv7_0 (in-place)
I0407 23:53:02.300364 29293 net.cpp:150] Setting up conv7_0_sTanH
I0407 23:53:02.300380 29293 net.cpp:157] Top shape: 64 100 42 42 (11289600)
I0407 23:53:02.300395 29293 net.cpp:165] Memory required for data: 1941781504
I0407 23:53:02.300400 29293 layer_factory.hpp:77] Creating layer conv7_0_postscale
I0407 23:53:02.300407 29293 net.cpp:100] Creating Layer conv7_0_postscale
I0407 23:53:02.300411 29293 net.cpp:434] conv7_0_postscale <- conv7_0
I0407 23:53:02.300417 29293 net.cpp:395] conv7_0_postscale -> conv7_0 (in-place)
I0407 23:53:02.300544 29293 net.cpp:150] Setting up conv7_0_postscale
I0407 23:53:02.300555 29293 net.cpp:157] Top shape: 64 100 42 42 (11289600)
I0407 23:53:02.300559 29293 net.cpp:165] Memory required for data: 1986939904
I0407 23:53:02.300564 29293 layer_factory.hpp:77] Creating layer pool7_0
I0407 23:53:02.300570 29293 net.cpp:100] Creating Layer pool7_0
I0407 23:53:02.300573 29293 net.cpp:434] pool7_0 <- conv7_0
I0407 23:53:02.300578 29293 net.cpp:408] pool7_0 -> pool7_0
I0407 23:53:02.300627 29293 net.cpp:150] Setting up pool7_0
I0407 23:53:02.300635 29293 net.cpp:157] Top shape: 64 100 21 21 (2822400)
I0407 23:53:02.300638 29293 net.cpp:165] Memory required for data: 1998229504
I0407 23:53:02.300642 29293 layer_factory.hpp:77] Creating layer conv7_1
I0407 23:53:02.300650 29293 net.cpp:100] Creating Layer conv7_1
I0407 23:53:02.300655 29293 net.cpp:434] conv7_1 <- pool7_0
I0407 23:53:02.300662 29293 net.cpp:408] conv7_1 -> conv7_1
I0407 23:53:02.303896 29293 net.cpp:150] Setting up conv7_1
I0407 23:53:02.303911 29293 net.cpp:157] Top shape: 64 150 18 18 (3110400)
I0407 23:53:02.303915 29293 net.cpp:165] Memory required for data: 2010671104
I0407 23:53:02.303921 29293 layer_factory.hpp:77] Creating layer conv7_1_prescale
I0407 23:53:02.303930 29293 net.cpp:100] Creating Layer conv7_1_prescale
I0407 23:53:02.303935 29293 net.cpp:434] conv7_1_prescale <- conv7_1
I0407 23:53:02.303941 29293 net.cpp:395] conv7_1_prescale -> conv7_1 (in-place)
I0407 23:53:02.304060 29293 net.cpp:150] Setting up conv7_1_prescale
I0407 23:53:02.304070 29293 net.cpp:157] Top shape: 64 150 18 18 (3110400)
I0407 23:53:02.304074 29293 net.cpp:165] Memory required for data: 2023112704
I0407 23:53:02.304090 29293 layer_factory.hpp:77] Creating layer conv7_1_sTanH
I0407 23:53:02.304097 29293 net.cpp:100] Creating Layer conv7_1_sTanH
I0407 23:53:02.304101 29293 net.cpp:434] conv7_1_sTanH <- conv7_1
I0407 23:53:02.304114 29293 net.cpp:395] conv7_1_sTanH -> conv7_1 (in-place)
I0407 23:53:02.304311 29293 net.cpp:150] Setting up conv7_1_sTanH
I0407 23:53:02.304323 29293 net.cpp:157] Top shape: 64 150 18 18 (3110400)
I0407 23:53:02.304327 29293 net.cpp:165] Memory required for data: 2035554304
I0407 23:53:02.304329 29293 layer_factory.hpp:77] Creating layer conv7_1_postscale
I0407 23:53:02.304337 29293 net.cpp:100] Creating Layer conv7_1_postscale
I0407 23:53:02.304340 29293 net.cpp:434] conv7_1_postscale <- conv7_1
I0407 23:53:02.304345 29293 net.cpp:395] conv7_1_postscale -> conv7_1 (in-place)
I0407 23:53:02.304463 29293 net.cpp:150] Setting up conv7_1_postscale
I0407 23:53:02.304473 29293 net.cpp:157] Top shape: 64 150 18 18 (3110400)
I0407 23:53:02.304476 29293 net.cpp:165] Memory required for data: 2047995904
I0407 23:53:02.304481 29293 layer_factory.hpp:77] Creating layer pool7_1
I0407 23:53:02.304487 29293 net.cpp:100] Creating Layer pool7_1
I0407 23:53:02.304491 29293 net.cpp:434] pool7_1 <- conv7_1
I0407 23:53:02.304496 29293 net.cpp:408] pool7_1 -> pool7_1
I0407 23:53:02.304544 29293 net.cpp:150] Setting up pool7_1
I0407 23:53:02.304553 29293 net.cpp:157] Top shape: 64 150 9 9 (777600)
I0407 23:53:02.304555 29293 net.cpp:165] Memory required for data: 2051106304
I0407 23:53:02.304558 29293 layer_factory.hpp:77] Creating layer conv7_2
I0407 23:53:02.304566 29293 net.cpp:100] Creating Layer conv7_2
I0407 23:53:02.304570 29293 net.cpp:434] conv7_2 <- pool7_1
I0407 23:53:02.304575 29293 net.cpp:408] conv7_2 -> conv7_2
I0407 23:53:02.311681 29293 net.cpp:150] Setting up conv7_2
I0407 23:53:02.311697 29293 net.cpp:157] Top shape: 64 250 6 6 (576000)
I0407 23:53:02.311700 29293 net.cpp:165] Memory required for data: 2053410304
I0407 23:53:02.311707 29293 layer_factory.hpp:77] Creating layer conv7_2_prescale
I0407 23:53:02.311717 29293 net.cpp:100] Creating Layer conv7_2_prescale
I0407 23:53:02.311722 29293 net.cpp:434] conv7_2_prescale <- conv7_2
I0407 23:53:02.311727 29293 net.cpp:395] conv7_2_prescale -> conv7_2 (in-place)
I0407 23:53:02.311844 29293 net.cpp:150] Setting up conv7_2_prescale
I0407 23:53:02.311856 29293 net.cpp:157] Top shape: 64 250 6 6 (576000)
I0407 23:53:02.311859 29293 net.cpp:165] Memory required for data: 2055714304
I0407 23:53:02.311864 29293 layer_factory.hpp:77] Creating layer conv7_2_sTanH
I0407 23:53:02.311869 29293 net.cpp:100] Creating Layer conv7_2_sTanH
I0407 23:53:02.311873 29293 net.cpp:434] conv7_2_sTanH <- conv7_2
I0407 23:53:02.311889 29293 net.cpp:395] conv7_2_sTanH -> conv7_2 (in-place)
I0407 23:53:02.312091 29293 net.cpp:150] Setting up conv7_2_sTanH
I0407 23:53:02.312103 29293 net.cpp:157] Top shape: 64 250 6 6 (576000)
I0407 23:53:02.312106 29293 net.cpp:165] Memory required for data: 2058018304
I0407 23:53:02.312109 29293 layer_factory.hpp:77] Creating layer conv7_2_postscale
I0407 23:53:02.312115 29293 net.cpp:100] Creating Layer conv7_2_postscale
I0407 23:53:02.312119 29293 net.cpp:434] conv7_2_postscale <- conv7_2
I0407 23:53:02.312125 29293 net.cpp:395] conv7_2_postscale -> conv7_2 (in-place)
I0407 23:53:02.312244 29293 net.cpp:150] Setting up conv7_2_postscale
I0407 23:53:02.312253 29293 net.cpp:157] Top shape: 64 250 6 6 (576000)
I0407 23:53:02.312257 29293 net.cpp:165] Memory required for data: 2060322304
I0407 23:53:02.312261 29293 layer_factory.hpp:77] Creating layer pool7_2
I0407 23:53:02.312268 29293 net.cpp:100] Creating Layer pool7_2
I0407 23:53:02.312270 29293 net.cpp:434] pool7_2 <- conv7_2
I0407 23:53:02.312276 29293 net.cpp:408] pool7_2 -> pool7_2
I0407 23:53:02.312324 29293 net.cpp:150] Setting up pool7_2
I0407 23:53:02.312331 29293 net.cpp:157] Top shape: 64 250 3 3 (144000)
I0407 23:53:02.312335 29293 net.cpp:165] Memory required for data: 2060898304
I0407 23:53:02.312338 29293 layer_factory.hpp:77] Creating layer fc7_4_300
I0407 23:53:02.312356 29293 net.cpp:100] Creating Layer fc7_4_300
I0407 23:53:02.312364 29293 net.cpp:434] fc7_4_300 <- pool7_2
I0407 23:53:02.312371 29293 net.cpp:408] fc7_4_300 -> fc7_4
I0407 23:53:02.318183 29293 net.cpp:150] Setting up fc7_4_300
I0407 23:53:02.318199 29293 net.cpp:157] Top shape: 64 300 (19200)
I0407 23:53:02.318202 29293 net.cpp:165] Memory required for data: 2060975104
I0407 23:53:02.318209 29293 layer_factory.hpp:77] Creating layer fc7_4_prescale
I0407 23:53:02.318217 29293 net.cpp:100] Creating Layer fc7_4_prescale
I0407 23:53:02.318222 29293 net.cpp:434] fc7_4_prescale <- fc7_4
I0407 23:53:02.318228 29293 net.cpp:395] fc7_4_prescale -> fc7_4 (in-place)
I0407 23:53:02.318339 29293 net.cpp:150] Setting up fc7_4_prescale
I0407 23:53:02.318347 29293 net.cpp:157] Top shape: 64 300 (19200)
I0407 23:53:02.318351 29293 net.cpp:165] Memory required for data: 2061051904
I0407 23:53:02.318356 29293 layer_factory.hpp:77] Creating layer fc7_4_sTanH
I0407 23:53:02.318361 29293 net.cpp:100] Creating Layer fc7_4_sTanH
I0407 23:53:02.318364 29293 net.cpp:434] fc7_4_sTanH <- fc7_4
I0407 23:53:02.318374 29293 net.cpp:395] fc7_4_sTanH -> fc7_4 (in-place)
I0407 23:53:02.318572 29293 net.cpp:150] Setting up fc7_4_sTanH
I0407 23:53:02.318583 29293 net.cpp:157] Top shape: 64 300 (19200)
I0407 23:53:02.318584 29293 net.cpp:165] Memory required for data: 2061128704
I0407 23:53:02.318588 29293 layer_factory.hpp:77] Creating layer fc7_4_postscale
I0407 23:53:02.318594 29293 net.cpp:100] Creating Layer fc7_4_postscale
I0407 23:53:02.318598 29293 net.cpp:434] fc7_4_postscale <- fc7_4
I0407 23:53:02.318604 29293 net.cpp:395] fc7_4_postscale -> fc7_4 (in-place)
I0407 23:53:02.318725 29293 net.cpp:150] Setting up fc7_4_postscale
I0407 23:53:02.318734 29293 net.cpp:157] Top shape: 64 300 (19200)
I0407 23:53:02.318737 29293 net.cpp:165] Memory required for data: 2061205504
I0407 23:53:02.318742 29293 layer_factory.hpp:77] Creating layer drop7_4
I0407 23:53:02.318747 29293 net.cpp:100] Creating Layer drop7_4
I0407 23:53:02.318753 29293 net.cpp:434] drop7_4 <- fc7_4
I0407 23:53:02.318758 29293 net.cpp:395] drop7_4 -> fc7_4 (in-place)
I0407 23:53:02.318786 29293 net.cpp:150] Setting up drop7_4
I0407 23:53:02.318794 29293 net.cpp:157] Top shape: 64 300 (19200)
I0407 23:53:02.318796 29293 net.cpp:165] Memory required for data: 2061282304
I0407 23:53:02.318799 29293 layer_factory.hpp:77] Creating layer fc7_5_67
I0407 23:53:02.318806 29293 net.cpp:100] Creating Layer fc7_5_67
I0407 23:53:02.318809 29293 net.cpp:434] fc7_5_67 <- fc7_4
I0407 23:53:02.318814 29293 net.cpp:408] fc7_5_67 -> fc7_5
I0407 23:53:02.319068 29293 net.cpp:150] Setting up fc7_5_67
I0407 23:53:02.319077 29293 net.cpp:157] Top shape: 64 67 (4288)
I0407 23:53:02.319079 29293 net.cpp:165] Memory required for data: 2061299456
I0407 23:53:02.319085 29293 layer_factory.hpp:77] Creating layer softmax_7
I0407 23:53:02.319090 29293 net.cpp:100] Creating Layer softmax_7
I0407 23:53:02.319093 29293 net.cpp:434] softmax_7 <- fc7_5
I0407 23:53:02.319098 29293 net.cpp:408] softmax_7 -> softmax_7
I0407 23:53:02.326429 29293 net.cpp:150] Setting up softmax_7
I0407 23:53:02.326447 29293 net.cpp:157] Top shape: 64 67 (4288)
I0407 23:53:02.326452 29293 net.cpp:165] Memory required for data: 2061316608
I0407 23:53:02.326455 29293 layer_factory.hpp:77] Creating layer conv8_0
I0407 23:53:02.326467 29293 net.cpp:100] Creating Layer conv8_0
I0407 23:53:02.326473 29293 net.cpp:434] conv8_0 <- data_1_data_1_0_split_3
I0407 23:53:02.326480 29293 net.cpp:408] conv8_0 -> conv8_0
I0407 23:53:02.334657 29293 net.cpp:150] Setting up conv8_0
I0407 23:53:02.334679 29293 net.cpp:157] Top shape: 64 100 42 42 (11289600)
I0407 23:53:02.334684 29293 net.cpp:165] Memory required for data: 2106475008
I0407 23:53:02.334692 29293 layer_factory.hpp:77] Creating layer conv8_0_prescale
I0407 23:53:02.334702 29293 net.cpp:100] Creating Layer conv8_0_prescale
I0407 23:53:02.334707 29293 net.cpp:434] conv8_0_prescale <- conv8_0
I0407 23:53:02.334714 29293 net.cpp:395] conv8_0_prescale -> conv8_0 (in-place)
I0407 23:53:02.334852 29293 net.cpp:150] Setting up conv8_0_prescale
I0407 23:53:02.334862 29293 net.cpp:157] Top shape: 64 100 42 42 (11289600)
I0407 23:53:02.334866 29293 net.cpp:165] Memory required for data: 2151633408
I0407 23:53:02.334870 29293 layer_factory.hpp:77] Creating layer conv8_0_sTanH
I0407 23:53:02.334877 29293 net.cpp:100] Creating Layer conv8_0_sTanH
I0407 23:53:02.334879 29293 net.cpp:434] conv8_0_sTanH <- conv8_0
I0407 23:53:02.334885 29293 net.cpp:395] conv8_0_sTanH -> conv8_0 (in-place)
I0407 23:53:02.336050 29293 net.cpp:150] Setting up conv8_0_sTanH
I0407 23:53:02.336066 29293 net.cpp:157] Top shape: 64 100 42 42 (11289600)
I0407 23:53:02.336068 29293 net.cpp:165] Memory required for data: 2196791808
I0407 23:53:02.336072 29293 layer_factory.hpp:77] Creating layer conv8_0_postscale
I0407 23:53:02.336082 29293 net.cpp:100] Creating Layer conv8_0_postscale
I0407 23:53:02.336087 29293 net.cpp:434] conv8_0_postscale <- conv8_0
I0407 23:53:02.336094 29293 net.cpp:395] conv8_0_postscale -> conv8_0 (in-place)
I0407 23:53:02.336227 29293 net.cpp:150] Setting up conv8_0_postscale
I0407 23:53:02.336237 29293 net.cpp:157] Top shape: 64 100 42 42 (11289600)
I0407 23:53:02.336241 29293 net.cpp:165] Memory required for data: 2241950208
I0407 23:53:02.336246 29293 layer_factory.hpp:77] Creating layer pool8_0
I0407 23:53:02.336252 29293 net.cpp:100] Creating Layer pool8_0
I0407 23:53:02.336257 29293 net.cpp:434] pool8_0 <- conv8_0
I0407 23:53:02.336262 29293 net.cpp:408] pool8_0 -> pool8_0
I0407 23:53:02.336313 29293 net.cpp:150] Setting up pool8_0
I0407 23:53:02.336321 29293 net.cpp:157] Top shape: 64 100 21 21 (2822400)
I0407 23:53:02.336324 29293 net.cpp:165] Memory required for data: 2253239808
I0407 23:53:02.336328 29293 layer_factory.hpp:77] Creating layer conv8_1
I0407 23:53:02.336336 29293 net.cpp:100] Creating Layer conv8_1
I0407 23:53:02.336341 29293 net.cpp:434] conv8_1 <- pool8_0
I0407 23:53:02.336349 29293 net.cpp:408] conv8_1 -> conv8_1
I0407 23:53:02.340303 29293 net.cpp:150] Setting up conv8_1
I0407 23:53:02.340320 29293 net.cpp:157] Top shape: 64 150 18 18 (3110400)
I0407 23:53:02.340337 29293 net.cpp:165] Memory required for data: 2265681408
I0407 23:53:02.340345 29293 layer_factory.hpp:77] Creating layer conv8_1_prescale
I0407 23:53:02.340353 29293 net.cpp:100] Creating Layer conv8_1_prescale
I0407 23:53:02.340370 29293 net.cpp:434] conv8_1_prescale <- conv8_1
I0407 23:53:02.340379 29293 net.cpp:395] conv8_1_prescale -> conv8_1 (in-place)
I0407 23:53:02.340502 29293 net.cpp:150] Setting up conv8_1_prescale
I0407 23:53:02.340512 29293 net.cpp:157] Top shape: 64 150 18 18 (3110400)
I0407 23:53:02.340514 29293 net.cpp:165] Memory required for data: 2278123008
I0407 23:53:02.340519 29293 layer_factory.hpp:77] Creating layer conv8_1_sTanH
I0407 23:53:02.340525 29293 net.cpp:100] Creating Layer conv8_1_sTanH
I0407 23:53:02.340528 29293 net.cpp:434] conv8_1_sTanH <- conv8_1
I0407 23:53:02.340534 29293 net.cpp:395] conv8_1_sTanH -> conv8_1 (in-place)
I0407 23:53:02.340730 29293 net.cpp:150] Setting up conv8_1_sTanH
I0407 23:53:02.340740 29293 net.cpp:157] Top shape: 64 150 18 18 (3110400)
I0407 23:53:02.340744 29293 net.cpp:165] Memory required for data: 2290564608
I0407 23:53:02.340747 29293 layer_factory.hpp:77] Creating layer conv8_1_postscale
I0407 23:53:02.340754 29293 net.cpp:100] Creating Layer conv8_1_postscale
I0407 23:53:02.340760 29293 net.cpp:434] conv8_1_postscale <- conv8_1
I0407 23:53:02.340765 29293 net.cpp:395] conv8_1_postscale -> conv8_1 (in-place)
I0407 23:53:02.340889 29293 net.cpp:150] Setting up conv8_1_postscale
I0407 23:53:02.340899 29293 net.cpp:157] Top shape: 64 150 18 18 (3110400)
I0407 23:53:02.340905 29293 net.cpp:165] Memory required for data: 2303006208
I0407 23:53:02.340910 29293 layer_factory.hpp:77] Creating layer pool8_1
I0407 23:53:02.340916 29293 net.cpp:100] Creating Layer pool8_1
I0407 23:53:02.340919 29293 net.cpp:434] pool8_1 <- conv8_1
I0407 23:53:02.340924 29293 net.cpp:408] pool8_1 -> pool8_1
I0407 23:53:02.340975 29293 net.cpp:150] Setting up pool8_1
I0407 23:53:02.340997 29293 net.cpp:157] Top shape: 64 150 9 9 (777600)
I0407 23:53:02.341001 29293 net.cpp:165] Memory required for data: 2306116608
I0407 23:53:02.341003 29293 layer_factory.hpp:77] Creating layer conv8_2
I0407 23:53:02.341012 29293 net.cpp:100] Creating Layer conv8_2
I0407 23:53:02.341018 29293 net.cpp:434] conv8_2 <- pool8_1
I0407 23:53:02.341025 29293 net.cpp:408] conv8_2 -> conv8_2
I0407 23:53:02.347111 29293 net.cpp:150] Setting up conv8_2
I0407 23:53:02.347127 29293 net.cpp:157] Top shape: 64 250 6 6 (576000)
I0407 23:53:02.347142 29293 net.cpp:165] Memory required for data: 2308420608
I0407 23:53:02.347149 29293 layer_factory.hpp:77] Creating layer conv8_2_prescale
I0407 23:53:02.347157 29293 net.cpp:100] Creating Layer conv8_2_prescale
I0407 23:53:02.347162 29293 net.cpp:434] conv8_2_prescale <- conv8_2
I0407 23:53:02.347178 29293 net.cpp:395] conv8_2_prescale -> conv8_2 (in-place)
I0407 23:53:02.347297 29293 net.cpp:150] Setting up conv8_2_prescale
I0407 23:53:02.347308 29293 net.cpp:157] Top shape: 64 250 6 6 (576000)
I0407 23:53:02.347311 29293 net.cpp:165] Memory required for data: 2310724608
I0407 23:53:02.347316 29293 layer_factory.hpp:77] Creating layer conv8_2_sTanH
I0407 23:53:02.347321 29293 net.cpp:100] Creating Layer conv8_2_sTanH
I0407 23:53:02.347324 29293 net.cpp:434] conv8_2_sTanH <- conv8_2
I0407 23:53:02.347328 29293 net.cpp:395] conv8_2_sTanH -> conv8_2 (in-place)
I0407 23:53:02.347525 29293 net.cpp:150] Setting up conv8_2_sTanH
I0407 23:53:02.347535 29293 net.cpp:157] Top shape: 64 250 6 6 (576000)
I0407 23:53:02.347538 29293 net.cpp:165] Memory required for data: 2313028608
I0407 23:53:02.347543 29293 layer_factory.hpp:77] Creating layer conv8_2_postscale
I0407 23:53:02.347548 29293 net.cpp:100] Creating Layer conv8_2_postscale
I0407 23:53:02.347554 29293 net.cpp:434] conv8_2_postscale <- conv8_2
I0407 23:53:02.347561 29293 net.cpp:395] conv8_2_postscale -> conv8_2 (in-place)
I0407 23:53:02.347681 29293 net.cpp:150] Setting up conv8_2_postscale
I0407 23:53:02.347689 29293 net.cpp:157] Top shape: 64 250 6 6 (576000)
I0407 23:53:02.347692 29293 net.cpp:165] Memory required for data: 2315332608
I0407 23:53:02.347697 29293 layer_factory.hpp:77] Creating layer pool8_2
I0407 23:53:02.347703 29293 net.cpp:100] Creating Layer pool8_2
I0407 23:53:02.347707 29293 net.cpp:434] pool8_2 <- conv8_2
I0407 23:53:02.347712 29293 net.cpp:408] pool8_2 -> pool8_2
I0407 23:53:02.347764 29293 net.cpp:150] Setting up pool8_2
I0407 23:53:02.347771 29293 net.cpp:157] Top shape: 64 250 3 3 (144000)
I0407 23:53:02.347774 29293 net.cpp:165] Memory required for data: 2315908608
I0407 23:53:02.347776 29293 layer_factory.hpp:77] Creating layer fc8_4_300
I0407 23:53:02.347785 29293 net.cpp:100] Creating Layer fc8_4_300
I0407 23:53:02.347790 29293 net.cpp:434] fc8_4_300 <- pool8_2
I0407 23:53:02.347796 29293 net.cpp:408] fc8_4_300 -> fc8_4
I0407 23:53:02.353408 29293 net.cpp:150] Setting up fc8_4_300
I0407 23:53:02.353423 29293 net.cpp:157] Top shape: 64 300 (19200)
I0407 23:53:02.353427 29293 net.cpp:165] Memory required for data: 2315985408
I0407 23:53:02.353433 29293 layer_factory.hpp:77] Creating layer fc8_4_prescale
I0407 23:53:02.353441 29293 net.cpp:100] Creating Layer fc8_4_prescale
I0407 23:53:02.353446 29293 net.cpp:434] fc8_4_prescale <- fc8_4
I0407 23:53:02.353452 29293 net.cpp:395] fc8_4_prescale -> fc8_4 (in-place)
I0407 23:53:02.353576 29293 net.cpp:150] Setting up fc8_4_prescale
I0407 23:53:02.353585 29293 net.cpp:157] Top shape: 64 300 (19200)
I0407 23:53:02.353588 29293 net.cpp:165] Memory required for data: 2316062208
I0407 23:53:02.353592 29293 layer_factory.hpp:77] Creating layer fc8_4_sTanH
I0407 23:53:02.353600 29293 net.cpp:100] Creating Layer fc8_4_sTanH
I0407 23:53:02.353603 29293 net.cpp:434] fc8_4_sTanH <- fc8_4
I0407 23:53:02.353607 29293 net.cpp:395] fc8_4_sTanH -> fc8_4 (in-place)
I0407 23:53:02.353813 29293 net.cpp:150] Setting up fc8_4_sTanH
I0407 23:53:02.353824 29293 net.cpp:157] Top shape: 64 300 (19200)
I0407 23:53:02.353827 29293 net.cpp:165] Memory required for data: 2316139008
I0407 23:53:02.353842 29293 layer_factory.hpp:77] Creating layer fc8_4_postscale
I0407 23:53:02.353849 29293 net.cpp:100] Creating Layer fc8_4_postscale
I0407 23:53:02.353853 29293 net.cpp:434] fc8_4_postscale <- fc8_4
I0407 23:53:02.353860 29293 net.cpp:395] fc8_4_postscale -> fc8_4 (in-place)
I0407 23:53:02.353984 29293 net.cpp:150] Setting up fc8_4_postscale
I0407 23:53:02.353993 29293 net.cpp:157] Top shape: 64 300 (19200)
I0407 23:53:02.353996 29293 net.cpp:165] Memory required for data: 2316215808
I0407 23:53:02.354001 29293 layer_factory.hpp:77] Creating layer drop8_4
I0407 23:53:02.354007 29293 net.cpp:100] Creating Layer drop8_4
I0407 23:53:02.354010 29293 net.cpp:434] drop8_4 <- fc8_4
I0407 23:53:02.354015 29293 net.cpp:395] drop8_4 -> fc8_4 (in-place)
I0407 23:53:02.354043 29293 net.cpp:150] Setting up drop8_4
I0407 23:53:02.354050 29293 net.cpp:157] Top shape: 64 300 (19200)
I0407 23:53:02.354053 29293 net.cpp:165] Memory required for data: 2316292608
I0407 23:53:02.354055 29293 layer_factory.hpp:77] Creating layer fc8_5_67
I0407 23:53:02.354063 29293 net.cpp:100] Creating Layer fc8_5_67
I0407 23:53:02.354066 29293 net.cpp:434] fc8_5_67 <- fc8_4
I0407 23:53:02.354073 29293 net.cpp:408] fc8_5_67 -> fc8_5
I0407 23:53:02.354332 29293 net.cpp:150] Setting up fc8_5_67
I0407 23:53:02.354341 29293 net.cpp:157] Top shape: 64 67 (4288)
I0407 23:53:02.354344 29293 net.cpp:165] Memory required for data: 2316309760
I0407 23:53:02.354351 29293 layer_factory.hpp:77] Creating layer softmax_8
I0407 23:53:02.354356 29293 net.cpp:100] Creating Layer softmax_8
I0407 23:53:02.354359 29293 net.cpp:434] softmax_8 <- fc8_5
I0407 23:53:02.354364 29293 net.cpp:408] softmax_8 -> softmax_8
I0407 23:53:02.355315 29293 net.cpp:150] Setting up softmax_8
I0407 23:53:02.355329 29293 net.cpp:157] Top shape: 64 67 (4288)
I0407 23:53:02.355345 29293 net.cpp:165] Memory required for data: 2316326912
I0407 23:53:02.355348 29293 layer_factory.hpp:77] Creating layer conv9_0
I0407 23:53:02.355358 29293 net.cpp:100] Creating Layer conv9_0
I0407 23:53:02.355365 29293 net.cpp:434] conv9_0 <- data_1_data_1_0_split_4
I0407 23:53:02.355371 29293 net.cpp:408] conv9_0 -> conv9_0
I0407 23:53:02.356397 29293 net.cpp:150] Setting up conv9_0
I0407 23:53:02.356412 29293 net.cpp:157] Top shape: 64 100 42 42 (11289600)
I0407 23:53:02.356415 29293 net.cpp:165] Memory required for data: 2361485312
I0407 23:53:02.356422 29293 layer_factory.hpp:77] Creating layer conv9_0_prescale
I0407 23:53:02.356428 29293 net.cpp:100] Creating Layer conv9_0_prescale
I0407 23:53:02.356432 29293 net.cpp:434] conv9_0_prescale <- conv9_0
I0407 23:53:02.356441 29293 net.cpp:395] conv9_0_prescale -> conv9_0 (in-place)
I0407 23:53:02.356564 29293 net.cpp:150] Setting up conv9_0_prescale
I0407 23:53:02.356573 29293 net.cpp:157] Top shape: 64 100 42 42 (11289600)
I0407 23:53:02.356575 29293 net.cpp:165] Memory required for data: 2406643712
I0407 23:53:02.356580 29293 layer_factory.hpp:77] Creating layer conv9_0_sTanH
I0407 23:53:02.356586 29293 net.cpp:100] Creating Layer conv9_0_sTanH
I0407 23:53:02.356590 29293 net.cpp:434] conv9_0_sTanH <- conv9_0
I0407 23:53:02.356595 29293 net.cpp:395] conv9_0_sTanH -> conv9_0 (in-place)
I0407 23:53:02.357441 29293 net.cpp:150] Setting up conv9_0_sTanH
I0407 23:53:02.357457 29293 net.cpp:157] Top shape: 64 100 42 42 (11289600)
I0407 23:53:02.357461 29293 net.cpp:165] Memory required for data: 2451802112
I0407 23:53:02.357465 29293 layer_factory.hpp:77] Creating layer conv9_0_postscale
I0407 23:53:02.357471 29293 net.cpp:100] Creating Layer conv9_0_postscale
I0407 23:53:02.357475 29293 net.cpp:434] conv9_0_postscale <- conv9_0
I0407 23:53:02.357481 29293 net.cpp:395] conv9_0_postscale -> conv9_0 (in-place)
I0407 23:53:02.357621 29293 net.cpp:150] Setting up conv9_0_postscale
I0407 23:53:02.357631 29293 net.cpp:157] Top shape: 64 100 42 42 (11289600)
I0407 23:53:02.357635 29293 net.cpp:165] Memory required for data: 2496960512
I0407 23:53:02.357640 29293 layer_factory.hpp:77] Creating layer pool9_0
I0407 23:53:02.357645 29293 net.cpp:100] Creating Layer pool9_0
I0407 23:53:02.357661 29293 net.cpp:434] pool9_0 <- conv9_0
I0407 23:53:02.357666 29293 net.cpp:408] pool9_0 -> pool9_0
I0407 23:53:02.357720 29293 net.cpp:150] Setting up pool9_0
I0407 23:53:02.357729 29293 net.cpp:157] Top shape: 64 100 21 21 (2822400)
I0407 23:53:02.357733 29293 net.cpp:165] Memory required for data: 2508250112
I0407 23:53:02.357735 29293 layer_factory.hpp:77] Creating layer conv9_1
I0407 23:53:02.357744 29293 net.cpp:100] Creating Layer conv9_1
I0407 23:53:02.357748 29293 net.cpp:434] conv9_1 <- pool9_0
I0407 23:53:02.357754 29293 net.cpp:408] conv9_1 -> conv9_1
I0407 23:53:02.360824 29293 net.cpp:150] Setting up conv9_1
I0407 23:53:02.360842 29293 net.cpp:157] Top shape: 64 150 18 18 (3110400)
I0407 23:53:02.360846 29293 net.cpp:165] Memory required for data: 2520691712
I0407 23:53:02.360852 29293 layer_factory.hpp:77] Creating layer conv9_1_prescale
I0407 23:53:02.360859 29293 net.cpp:100] Creating Layer conv9_1_prescale
I0407 23:53:02.360863 29293 net.cpp:434] conv9_1_prescale <- conv9_1
I0407 23:53:02.360872 29293 net.cpp:395] conv9_1_prescale -> conv9_1 (in-place)
I0407 23:53:02.360997 29293 net.cpp:150] Setting up conv9_1_prescale
I0407 23:53:02.361006 29293 net.cpp:157] Top shape: 64 150 18 18 (3110400)
I0407 23:53:02.361009 29293 net.cpp:165] Memory required for data: 2533133312
I0407 23:53:02.361014 29293 layer_factory.hpp:77] Creating layer conv9_1_sTanH
I0407 23:53:02.361019 29293 net.cpp:100] Creating Layer conv9_1_sTanH
I0407 23:53:02.361022 29293 net.cpp:434] conv9_1_sTanH <- conv9_1
I0407 23:53:02.361027 29293 net.cpp:395] conv9_1_sTanH -> conv9_1 (in-place)
I0407 23:53:02.361219 29293 net.cpp:150] Setting up conv9_1_sTanH
I0407 23:53:02.361230 29293 net.cpp:157] Top shape: 64 150 18 18 (3110400)
I0407 23:53:02.361233 29293 net.cpp:165] Memory required for data: 2545574912
I0407 23:53:02.361237 29293 layer_factory.hpp:77] Creating layer conv9_1_postscale
I0407 23:53:02.361243 29293 net.cpp:100] Creating Layer conv9_1_postscale
I0407 23:53:02.361248 29293 net.cpp:434] conv9_1_postscale <- conv9_1
I0407 23:53:02.361251 29293 net.cpp:395] conv9_1_postscale -> conv9_1 (in-place)
I0407 23:53:02.361377 29293 net.cpp:150] Setting up conv9_1_postscale
I0407 23:53:02.361387 29293 net.cpp:157] Top shape: 64 150 18 18 (3110400)
I0407 23:53:02.361388 29293 net.cpp:165] Memory required for data: 2558016512
I0407 23:53:02.361394 29293 layer_factory.hpp:77] Creating layer pool9_1
I0407 23:53:02.361402 29293 net.cpp:100] Creating Layer pool9_1
I0407 23:53:02.361407 29293 net.cpp:434] pool9_1 <- conv9_1
I0407 23:53:02.361412 29293 net.cpp:408] pool9_1 -> pool9_1
I0407 23:53:02.361464 29293 net.cpp:150] Setting up pool9_1
I0407 23:53:02.361471 29293 net.cpp:157] Top shape: 64 150 9 9 (777600)
I0407 23:53:02.361474 29293 net.cpp:165] Memory required for data: 2561126912
I0407 23:53:02.361477 29293 layer_factory.hpp:77] Creating layer conv9_2
I0407 23:53:02.361485 29293 net.cpp:100] Creating Layer conv9_2
I0407 23:53:02.361490 29293 net.cpp:434] conv9_2 <- pool9_1
I0407 23:53:02.361496 29293 net.cpp:408] conv9_2 -> conv9_2
I0407 23:53:02.367704 29293 net.cpp:150] Setting up conv9_2
I0407 23:53:02.367720 29293 net.cpp:157] Top shape: 64 250 6 6 (576000)
I0407 23:53:02.367724 29293 net.cpp:165] Memory required for data: 2563430912
I0407 23:53:02.367730 29293 layer_factory.hpp:77] Creating layer conv9_2_prescale
I0407 23:53:02.367739 29293 net.cpp:100] Creating Layer conv9_2_prescale
I0407 23:53:02.367743 29293 net.cpp:434] conv9_2_prescale <- conv9_2
I0407 23:53:02.367748 29293 net.cpp:395] conv9_2_prescale -> conv9_2 (in-place)
I0407 23:53:02.367888 29293 net.cpp:150] Setting up conv9_2_prescale
I0407 23:53:02.367899 29293 net.cpp:157] Top shape: 64 250 6 6 (576000)
I0407 23:53:02.367902 29293 net.cpp:165] Memory required for data: 2565734912
I0407 23:53:02.367908 29293 layer_factory.hpp:77] Creating layer conv9_2_sTanH
I0407 23:53:02.367913 29293 net.cpp:100] Creating Layer conv9_2_sTanH
I0407 23:53:02.367918 29293 net.cpp:434] conv9_2_sTanH <- conv9_2
I0407 23:53:02.367923 29293 net.cpp:395] conv9_2_sTanH -> conv9_2 (in-place)
I0407 23:53:02.368136 29293 net.cpp:150] Setting up conv9_2_sTanH
I0407 23:53:02.368151 29293 net.cpp:157] Top shape: 64 250 6 6 (576000)
I0407 23:53:02.368155 29293 net.cpp:165] Memory required for data: 2568038912
I0407 23:53:02.368157 29293 layer_factory.hpp:77] Creating layer conv9_2_postscale
I0407 23:53:02.368165 29293 net.cpp:100] Creating Layer conv9_2_postscale
I0407 23:53:02.368167 29293 net.cpp:434] conv9_2_postscale <- conv9_2
I0407 23:53:02.368175 29293 net.cpp:395] conv9_2_postscale -> conv9_2 (in-place)
I0407 23:53:02.368296 29293 net.cpp:150] Setting up conv9_2_postscale
I0407 23:53:02.368305 29293 net.cpp:157] Top shape: 64 250 6 6 (576000)
I0407 23:53:02.368309 29293 net.cpp:165] Memory required for data: 2570342912
I0407 23:53:02.368314 29293 layer_factory.hpp:77] Creating layer pool9_2
I0407 23:53:02.368319 29293 net.cpp:100] Creating Layer pool9_2
I0407 23:53:02.368322 29293 net.cpp:434] pool9_2 <- conv9_2
I0407 23:53:02.368329 29293 net.cpp:408] pool9_2 -> pool9_2
I0407 23:53:02.368377 29293 net.cpp:150] Setting up pool9_2
I0407 23:53:02.368386 29293 net.cpp:157] Top shape: 64 250 3 3 (144000)
I0407 23:53:02.368388 29293 net.cpp:165] Memory required for data: 2570918912
I0407 23:53:02.368391 29293 layer_factory.hpp:77] Creating layer fc9_4_300
I0407 23:53:02.368398 29293 net.cpp:100] Creating Layer fc9_4_300
I0407 23:53:02.368402 29293 net.cpp:434] fc9_4_300 <- pool9_2
I0407 23:53:02.368407 29293 net.cpp:408] fc9_4_300 -> fc9_4
I0407 23:53:02.373662 29293 net.cpp:150] Setting up fc9_4_300
I0407 23:53:02.373677 29293 net.cpp:157] Top shape: 64 300 (19200)
I0407 23:53:02.373682 29293 net.cpp:165] Memory required for data: 2570995712
I0407 23:53:02.373687 29293 layer_factory.hpp:77] Creating layer fc9_4_prescale
I0407 23:53:02.373695 29293 net.cpp:100] Creating Layer fc9_4_prescale
I0407 23:53:02.373699 29293 net.cpp:434] fc9_4_prescale <- fc9_4
I0407 23:53:02.373704 29293 net.cpp:395] fc9_4_prescale -> fc9_4 (in-place)
I0407 23:53:02.373831 29293 net.cpp:150] Setting up fc9_4_prescale
I0407 23:53:02.373841 29293 net.cpp:157] Top shape: 64 300 (19200)
I0407 23:53:02.373843 29293 net.cpp:165] Memory required for data: 2571072512
I0407 23:53:02.373847 29293 layer_factory.hpp:77] Creating layer fc9_4_sTanH
I0407 23:53:02.373853 29293 net.cpp:100] Creating Layer fc9_4_sTanH
I0407 23:53:02.373857 29293 net.cpp:434] fc9_4_sTanH <- fc9_4
I0407 23:53:02.373862 29293 net.cpp:395] fc9_4_sTanH -> fc9_4 (in-place)
I0407 23:53:02.374063 29293 net.cpp:150] Setting up fc9_4_sTanH
I0407 23:53:02.374073 29293 net.cpp:157] Top shape: 64 300 (19200)
I0407 23:53:02.374076 29293 net.cpp:165] Memory required for data: 2571149312
I0407 23:53:02.374083 29293 layer_factory.hpp:77] Creating layer fc9_4_postscale
I0407 23:53:02.374089 29293 net.cpp:100] Creating Layer fc9_4_postscale
I0407 23:53:02.374094 29293 net.cpp:434] fc9_4_postscale <- fc9_4
I0407 23:53:02.374100 29293 net.cpp:395] fc9_4_postscale -> fc9_4 (in-place)
I0407 23:53:02.374228 29293 net.cpp:150] Setting up fc9_4_postscale
I0407 23:53:02.374236 29293 net.cpp:157] Top shape: 64 300 (19200)
I0407 23:53:02.374239 29293 net.cpp:165] Memory required for data: 2571226112
I0407 23:53:02.374244 29293 layer_factory.hpp:77] Creating layer drop9_4
I0407 23:53:02.374250 29293 net.cpp:100] Creating Layer drop9_4
I0407 23:53:02.374253 29293 net.cpp:434] drop9_4 <- fc9_4
I0407 23:53:02.374259 29293 net.cpp:395] drop9_4 -> fc9_4 (in-place)
I0407 23:53:02.374289 29293 net.cpp:150] Setting up drop9_4
I0407 23:53:02.374296 29293 net.cpp:157] Top shape: 64 300 (19200)
I0407 23:53:02.374300 29293 net.cpp:165] Memory required for data: 2571302912
I0407 23:53:02.374301 29293 layer_factory.hpp:77] Creating layer fc9_5_67
I0407 23:53:02.374310 29293 net.cpp:100] Creating Layer fc9_5_67
I0407 23:53:02.374313 29293 net.cpp:434] fc9_5_67 <- fc9_4
I0407 23:53:02.374318 29293 net.cpp:408] fc9_5_67 -> fc9_5
I0407 23:53:02.374579 29293 net.cpp:150] Setting up fc9_5_67
I0407 23:53:02.374588 29293 net.cpp:157] Top shape: 64 67 (4288)
I0407 23:53:02.374601 29293 net.cpp:165] Memory required for data: 2571320064
I0407 23:53:02.374608 29293 layer_factory.hpp:77] Creating layer softmax_9
I0407 23:53:02.374614 29293 net.cpp:100] Creating Layer softmax_9
I0407 23:53:02.374617 29293 net.cpp:434] softmax_9 <- fc9_5
I0407 23:53:02.374621 29293 net.cpp:408] softmax_9 -> softmax_9
I0407 23:53:02.375548 29293 net.cpp:150] Setting up softmax_9
I0407 23:53:02.375563 29293 net.cpp:157] Top shape: 64 67 (4288)
I0407 23:53:02.375566 29293 net.cpp:165] Memory required for data: 2571337216
I0407 23:53:02.375571 29293 layer_factory.hpp:77] Creating layer data_2
I0407 23:53:02.375666 29293 net.cpp:100] Creating Layer data_2
I0407 23:53:02.375679 29293 net.cpp:408] data_2 -> data_2
I0407 23:53:02.375687 29293 net.cpp:408] data_2 -> label_2
I0407 23:53:02.376911 29386 db_lmdb.cpp:35] Opened lmdb ../local_data/lmdb/rtsd-r1/AHE/train/lmdb
I0407 23:53:02.377099 29293 data_layer.cpp:41] output data size: 64,3,48,48
I0407 23:53:02.382736 29293 net.cpp:150] Setting up data_2
I0407 23:53:02.382752 29293 net.cpp:157] Top shape: 64 3 48 48 (442368)
I0407 23:53:02.382756 29293 net.cpp:157] Top shape: 64 (64)
I0407 23:53:02.382761 29293 net.cpp:165] Memory required for data: 2573106944
I0407 23:53:02.382764 29293 layer_factory.hpp:77] Creating layer data_2_data_2_0_split
I0407 23:53:02.382771 29293 net.cpp:100] Creating Layer data_2_data_2_0_split
I0407 23:53:02.382776 29293 net.cpp:434] data_2_data_2_0_split <- data_2
I0407 23:53:02.382793 29293 net.cpp:408] data_2_data_2_0_split -> data_2_data_2_0_split_0
I0407 23:53:02.382814 29293 net.cpp:408] data_2_data_2_0_split -> data_2_data_2_0_split_1
I0407 23:53:02.382822 29293 net.cpp:408] data_2_data_2_0_split -> data_2_data_2_0_split_2
I0407 23:53:02.382827 29293 net.cpp:408] data_2_data_2_0_split -> data_2_data_2_0_split_3
I0407 23:53:02.382833 29293 net.cpp:408] data_2_data_2_0_split -> data_2_data_2_0_split_4
I0407 23:53:02.383107 29293 net.cpp:150] Setting up data_2_data_2_0_split
I0407 23:53:02.383129 29293 net.cpp:157] Top shape: 64 3 48 48 (442368)
I0407 23:53:02.383134 29293 net.cpp:157] Top shape: 64 3 48 48 (442368)
I0407 23:53:02.383137 29293 net.cpp:157] Top shape: 64 3 48 48 (442368)
I0407 23:53:02.383141 29293 net.cpp:157] Top shape: 64 3 48 48 (442368)
I0407 23:53:02.383157 29293 net.cpp:157] Top shape: 64 3 48 48 (442368)
I0407 23:53:02.383158 29293 net.cpp:165] Memory required for data: 2581954304
I0407 23:53:02.383162 29293 layer_factory.hpp:77] Creating layer conv10_0
I0407 23:53:02.383172 29293 net.cpp:100] Creating Layer conv10_0
I0407 23:53:02.383177 29293 net.cpp:434] conv10_0 <- data_2_data_2_0_split_0
I0407 23:53:02.383183 29293 net.cpp:408] conv10_0 -> conv10_0
I0407 23:53:02.384295 29293 net.cpp:150] Setting up conv10_0
I0407 23:53:02.384310 29293 net.cpp:157] Top shape: 64 100 42 42 (11289600)
I0407 23:53:02.384313 29293 net.cpp:165] Memory required for data: 2627112704
I0407 23:53:02.384320 29293 layer_factory.hpp:77] Creating layer conv10_0_prescale
I0407 23:53:02.384327 29293 net.cpp:100] Creating Layer conv10_0_prescale
I0407 23:53:02.384330 29293 net.cpp:434] conv10_0_prescale <- conv10_0
I0407 23:53:02.384337 29293 net.cpp:395] conv10_0_prescale -> conv10_0 (in-place)
I0407 23:53:02.384479 29293 net.cpp:150] Setting up conv10_0_prescale
I0407 23:53:02.384488 29293 net.cpp:157] Top shape: 64 100 42 42 (11289600)
I0407 23:53:02.384491 29293 net.cpp:165] Memory required for data: 2672271104
I0407 23:53:02.384496 29293 layer_factory.hpp:77] Creating layer conv10_0_sTanH
I0407 23:53:02.384501 29293 net.cpp:100] Creating Layer conv10_0_sTanH
I0407 23:53:02.384505 29293 net.cpp:434] conv10_0_sTanH <- conv10_0
I0407 23:53:02.384510 29293 net.cpp:395] conv10_0_sTanH -> conv10_0 (in-place)
I0407 23:53:02.385466 29293 net.cpp:150] Setting up conv10_0_sTanH
I0407 23:53:02.385483 29293 net.cpp:157] Top shape: 64 100 42 42 (11289600)
I0407 23:53:02.385485 29293 net.cpp:165] Memory required for data: 2717429504
I0407 23:53:02.385489 29293 layer_factory.hpp:77] Creating layer conv10_0_postscale
I0407 23:53:02.385496 29293 net.cpp:100] Creating Layer conv10_0_postscale
I0407 23:53:02.385512 29293 net.cpp:434] conv10_0_postscale <- conv10_0
I0407 23:53:02.385520 29293 net.cpp:395] conv10_0_postscale -> conv10_0 (in-place)
I0407 23:53:02.385776 29293 net.cpp:150] Setting up conv10_0_postscale
I0407 23:53:02.385785 29293 net.cpp:157] Top shape: 64 100 42 42 (11289600)
I0407 23:53:02.385789 29293 net.cpp:165] Memory required for data: 2762587904
I0407 23:53:02.385793 29293 layer_factory.hpp:77] Creating layer pool10_0
I0407 23:53:02.385812 29293 net.cpp:100] Creating Layer pool10_0
I0407 23:53:02.385828 29293 net.cpp:434] pool10_0 <- conv10_0
I0407 23:53:02.385836 29293 net.cpp:408] pool10_0 -> pool10_0
I0407 23:53:02.385891 29293 net.cpp:150] Setting up pool10_0
I0407 23:53:02.385900 29293 net.cpp:157] Top shape: 64 100 21 21 (2822400)
I0407 23:53:02.385902 29293 net.cpp:165] Memory required for data: 2773877504
I0407 23:53:02.385905 29293 layer_factory.hpp:77] Creating layer conv10_1
I0407 23:53:02.385915 29293 net.cpp:100] Creating Layer conv10_1
I0407 23:53:02.385918 29293 net.cpp:434] conv10_1 <- pool10_0
I0407 23:53:02.385924 29293 net.cpp:408] conv10_1 -> conv10_1
I0407 23:53:02.389961 29293 net.cpp:150] Setting up conv10_1
I0407 23:53:02.389989 29293 net.cpp:157] Top shape: 64 150 18 18 (3110400)
I0407 23:53:02.389994 29293 net.cpp:165] Memory required for data: 2786319104
I0407 23:53:02.390014 29293 layer_factory.hpp:77] Creating layer conv10_1_prescale
I0407 23:53:02.390023 29293 net.cpp:100] Creating Layer conv10_1_prescale
I0407 23:53:02.390027 29293 net.cpp:434] conv10_1_prescale <- conv10_1
I0407 23:53:02.390034 29293 net.cpp:395] conv10_1_prescale -> conv10_1 (in-place)
I0407 23:53:02.390166 29293 net.cpp:150] Setting up conv10_1_prescale
I0407 23:53:02.390174 29293 net.cpp:157] Top shape: 64 150 18 18 (3110400)
I0407 23:53:02.390177 29293 net.cpp:165] Memory required for data: 2798760704
I0407 23:53:02.390182 29293 layer_factory.hpp:77] Creating layer conv10_1_sTanH
I0407 23:53:02.390187 29293 net.cpp:100] Creating Layer conv10_1_sTanH
I0407 23:53:02.390192 29293 net.cpp:434] conv10_1_sTanH <- conv10_1
I0407 23:53:02.390197 29293 net.cpp:395] conv10_1_sTanH -> conv10_1 (in-place)
I0407 23:53:02.390399 29293 net.cpp:150] Setting up conv10_1_sTanH
I0407 23:53:02.390410 29293 net.cpp:157] Top shape: 64 150 18 18 (3110400)
I0407 23:53:02.390413 29293 net.cpp:165] Memory required for data: 2811202304
I0407 23:53:02.390417 29293 layer_factory.hpp:77] Creating layer conv10_1_postscale
I0407 23:53:02.390425 29293 net.cpp:100] Creating Layer conv10_1_postscale
I0407 23:53:02.390430 29293 net.cpp:434] conv10_1_postscale <- conv10_1
I0407 23:53:02.390436 29293 net.cpp:395] conv10_1_postscale -> conv10_1 (in-place)
I0407 23:53:02.390566 29293 net.cpp:150] Setting up conv10_1_postscale
I0407 23:53:02.390575 29293 net.cpp:157] Top shape: 64 150 18 18 (3110400)
I0407 23:53:02.390578 29293 net.cpp:165] Memory required for data: 2823643904
I0407 23:53:02.390583 29293 layer_factory.hpp:77] Creating layer pool10_1
I0407 23:53:02.390590 29293 net.cpp:100] Creating Layer pool10_1
I0407 23:53:02.390594 29293 net.cpp:434] pool10_1 <- conv10_1
I0407 23:53:02.390599 29293 net.cpp:408] pool10_1 -> pool10_1
I0407 23:53:02.390652 29293 net.cpp:150] Setting up pool10_1
I0407 23:53:02.390661 29293 net.cpp:157] Top shape: 64 150 9 9 (777600)
I0407 23:53:02.390663 29293 net.cpp:165] Memory required for data: 2826754304
I0407 23:53:02.390666 29293 layer_factory.hpp:77] Creating layer conv10_2
…
I0407 23:53:03.408936 29293 layer_factory.hpp:77] Creating layer conv20_2_prescale
I0407 23:53:03.408946 29293 net.cpp:100] Creating Layer conv20_2_prescale
I0407 23:53:03.408949 29293 net.cpp:434] conv20_2_prescale <- conv20_2
I0407 23:53:03.408956 29293 net.cpp:395] conv20_2_prescale -> conv20_2 (in-place)
I0407 23:53:03.409090 29293 net.cpp:150] Setting up conv20_2_prescale
I0407 23:53:03.409101 29293 net.cpp:157] Top shape: 64 250 6 6 (576000)
I0407 23:53:03.409114 29293 net.cpp:165] Memory required for data: 5402700288
I0407 23:53:03.409121 29293 layer_factory.hpp:77] Creating layer conv20_2_sTanH
I0407 23:53:03.409127 29293 net.cpp:100] Creating Layer conv20_2_sTanH
I0407 23:53:03.409132 29293 net.cpp:434] conv20_2_sTanH <- conv20_2
I0407 23:53:03.409137 29293 net.cpp:395] conv20_2_sTanH -> conv20_2 (in-place)
I0407 23:53:03.409392 29293 net.cpp:150] Setting up conv20_2_sTanH
I0407 23:53:03.409405 29293 net.cpp:157] Top shape: 64 250 6 6 (576000)
I0407 23:53:03.409409 29293 net.cpp:165] Memory required for data: 5405004288
I0407 23:53:03.409411 29293 layer_factory.hpp:77] Creating layer conv20_2_postscale
I0407 23:53:03.409417 29293 net.cpp:100] Creating Layer conv20_2_postscale
I0407 23:53:03.409421 29293 net.cpp:434] conv20_2_postscale <- conv20_2
I0407 23:53:03.409428 29293 net.cpp:395] conv20_2_postscale -> conv20_2 (in-place)
I0407 23:53:03.409564 29293 net.cpp:150] Setting up conv20_2_postscale
I0407 23:53:03.409574 29293 net.cpp:157] Top shape: 64 250 6 6 (576000)
I0407 23:53:03.409576 29293 net.cpp:165] Memory required for data: 5407308288
I0407 23:53:03.409581 29293 layer_factory.hpp:77] Creating layer pool20_2
I0407 23:53:03.409587 29293 net.cpp:100] Creating Layer pool20_2
I0407 23:53:03.409590 29293 net.cpp:434] pool20_2 <- conv20_2
I0407 23:53:03.409597 29293 net.cpp:408] pool20_2 -> pool20_2
I0407 23:53:03.409651 29293 net.cpp:150] Setting up pool20_2
I0407 23:53:03.409659 29293 net.cpp:157] Top shape: 64 250 3 3 (144000)
I0407 23:53:03.409662 29293 net.cpp:165] Memory required for data: 5407884288
I0407 23:53:03.409664 29293 layer_factory.hpp:77] Creating layer fc20_4_300
I0407 23:53:03.409672 29293 net.cpp:100] Creating Layer fc20_4_300
I0407 23:53:03.409675 29293 net.cpp:434] fc20_4_300 <- pool20_2
I0407 23:53:03.409682 29293 net.cpp:408] fc20_4_300 -> fc20_4
I0407 23:53:03.415314 29293 net.cpp:150] Setting up fc20_4_300
I0407 23:53:03.415330 29293 net.cpp:157] Top shape: 64 300 (19200)
I0407 23:53:03.415333 29293 net.cpp:165] Memory required for data: 5407961088
I0407 23:53:03.415340 29293 layer_factory.hpp:77] Creating layer fc20_4_prescale
I0407 23:53:03.415349 29293 net.cpp:100] Creating Layer fc20_4_prescale
I0407 23:53:03.415354 29293 net.cpp:434] fc20_4_prescale <- fc20_4
I0407 23:53:03.415359 29293 net.cpp:395] fc20_4_prescale -> fc20_4 (in-place)
I0407 23:53:03.415511 29293 net.cpp:150] Setting up fc20_4_prescale
I0407 23:53:03.415521 29293 net.cpp:157] Top shape: 64 300 (19200)
I0407 23:53:03.415524 29293 net.cpp:165] Memory required for data: 5408037888
I0407 23:53:03.415529 29293 layer_factory.hpp:77] Creating layer fc20_4_sTanH
I0407 23:53:03.415535 29293 net.cpp:100] Creating Layer fc20_4_sTanH
I0407 23:53:03.415539 29293 net.cpp:434] fc20_4_sTanH <- fc20_4
I0407 23:53:03.415544 29293 net.cpp:395] fc20_4_sTanH -> fc20_4 (in-place)
I0407 23:53:03.416692 29293 net.cpp:150] Setting up fc20_4_sTanH
I0407 23:53:03.416707 29293 net.cpp:157] Top shape: 64 300 (19200)
I0407 23:53:03.416723 29293 net.cpp:165] Memory required for data: 5408114688
I0407 23:53:03.416726 29293 layer_factory.hpp:77] Creating layer fc20_4_postscale
I0407 23:53:03.416733 29293 net.cpp:100] Creating Layer fc20_4_postscale
I0407 23:53:03.416738 29293 net.cpp:434] fc20_4_postscale <- fc20_4
I0407 23:53:03.416745 29293 net.cpp:395] fc20_4_postscale -> fc20_4 (in-place)
I0407 23:53:03.416913 29293 net.cpp:150] Setting up fc20_4_postscale
I0407 23:53:03.416927 29293 net.cpp:157] Top shape: 64 300 (19200)
I0407 23:53:03.416930 29293 net.cpp:165] Memory required for data: 5408191488
I0407 23:53:03.416935 29293 layer_factory.hpp:77] Creating layer drop20_4
I0407 23:53:03.416941 29293 net.cpp:100] Creating Layer drop20_4
I0407 23:53:03.416944 29293 net.cpp:434] drop20_4 <- fc20_4
I0407 23:53:03.416950 29293 net.cpp:395] drop20_4 -> fc20_4 (in-place)
I0407 23:53:03.416981 29293 net.cpp:150] Setting up drop20_4
I0407 23:53:03.416990 29293 net.cpp:157] Top shape: 64 300 (19200)
I0407 23:53:03.416993 29293 net.cpp:165] Memory required for data: 5408268288
I0407 23:53:03.417007 29293 layer_factory.hpp:77] Creating layer fc20_5_67
I0407 23:53:03.417014 29293 net.cpp:100] Creating Layer fc20_5_67
I0407 23:53:03.417017 29293 net.cpp:434] fc20_5_67 <- fc20_4
I0407 23:53:03.417022 29293 net.cpp:408] fc20_5_67 -> fc20_5
I0407 23:53:03.417313 29293 net.cpp:150] Setting up fc20_5_67
I0407 23:53:03.417323 29293 net.cpp:157] Top shape: 64 67 (4288)
I0407 23:53:03.417325 29293 net.cpp:165] Memory required for data: 5408285440
I0407 23:53:03.417331 29293 layer_factory.hpp:77] Creating layer softmax_20
I0407 23:53:03.417338 29293 net.cpp:100] Creating Layer softmax_20
I0407 23:53:03.417341 29293 net.cpp:434] softmax_20 <- fc20_5
I0407 23:53:03.417346 29293 net.cpp:408] softmax_20 -> softmax_20
I0407 23:53:03.417688 29293 net.cpp:150] Setting up softmax_20
I0407 23:53:03.417701 29293 net.cpp:157] Top shape: 64 67 (4288)
I0407 23:53:03.417703 29293 net.cpp:165] Memory required for data: 5408302592
I0407 23:53:03.417706 29293 layer_factory.hpp:77] Creating layer conv21_0
I0407 23:53:03.417716 29293 net.cpp:100] Creating Layer conv21_0
I0407 23:53:03.417721 29293 net.cpp:434] conv21_0 <- data_4_data_4_0_split_1
I0407 23:53:03.417731 29293 net.cpp:408] conv21_0 -> conv21_0
I0407 23:53:03.419885 29293 net.cpp:150] Setting up conv21_0
I0407 23:53:03.419903 29293 net.cpp:157] Top shape: 64 100 42 42 (11289600)
I0407 23:53:03.419906 29293 net.cpp:165] Memory required for data: 5453460992
I0407 23:53:03.419914 29293 layer_factory.hpp:77] Creating layer conv21_0_prescale
I0407 23:53:03.419921 29293 net.cpp:100] Creating Layer conv21_0_prescale
I0407 23:53:03.419925 29293 net.cpp:434] conv21_0_prescale <- conv21_0
I0407 23:53:03.419932 29293 net.cpp:395] conv21_0_prescale -> conv21_0 (in-place)
I0407 23:53:03.420095 29293 net.cpp:150] Setting up conv21_0_prescale
I0407 23:53:03.420105 29293 net.cpp:157] Top shape: 64 100 42 42 (11289600)
I0407 23:53:03.420109 29293 net.cpp:165] Memory required for data: 5498619392
I0407 23:53:03.420114 29293 layer_factory.hpp:77] Creating layer conv21_0_sTanH
I0407 23:53:03.420120 29293 net.cpp:100] Creating Layer conv21_0_sTanH
I0407 23:53:03.420123 29293 net.cpp:434] conv21_0_sTanH <- conv21_0
I0407 23:53:03.420128 29293 net.cpp:395] conv21_0_sTanH -> conv21_0 (in-place)
I0407 23:53:03.420388 29293 net.cpp:150] Setting up conv21_0_sTanH
I0407 23:53:03.420399 29293 net.cpp:157] Top shape: 64 100 42 42 (11289600)
I0407 23:53:03.420403 29293 net.cpp:165] Memory required for data: 5543777792
I0407 23:53:03.420405 29293 layer_factory.hpp:77] Creating layer conv21_0_postscale
I0407 23:53:03.420414 29293 net.cpp:100] Creating Layer conv21_0_postscale
I0407 23:53:03.420418 29293 net.cpp:434] conv21_0_postscale <- conv21_0
I0407 23:53:03.420423 29293 net.cpp:395] conv21_0_postscale -> conv21_0 (in-place)
I0407 23:53:03.420585 29293 net.cpp:150] Setting up conv21_0_postscale
I0407 23:53:03.420594 29293 net.cpp:157] Top shape: 64 100 42 42 (11289600)
I0407 23:53:03.420598 29293 net.cpp:165] Memory required for data: 5588936192
I0407 23:53:03.420603 29293 layer_factory.hpp:77] Creating layer pool21_0
I0407 23:53:03.420609 29293 net.cpp:100] Creating Layer pool21_0
I0407 23:53:03.420614 29293 net.cpp:434] pool21_0 <- conv21_0
I0407 23:53:03.420619 29293 net.cpp:408] pool21_0 -> pool21_0
I0407 23:53:03.420676 29293 net.cpp:150] Setting up pool21_0
I0407 23:53:03.420684 29293 net.cpp:157] Top shape: 64 100 21 21 (2822400)
I0407 23:53:03.420687 29293 net.cpp:165] Memory required for data: 5600225792
I0407 23:53:03.420691 29293 layer_factory.hpp:77] Creating layer conv21_1
I0407 23:53:03.420699 29293 net.cpp:100] Creating Layer conv21_1
I0407 23:53:03.420703 29293 net.cpp:434] conv21_1 <- pool21_0
I0407 23:53:03.420708 29293 net.cpp:408] conv21_1 -> conv21_1
I0407 23:53:03.425370 29293 net.cpp:150] Setting up conv21_1
I0407 23:53:03.425400 29293 net.cpp:157] Top shape: 64 150 18 18 (3110400)
I0407 23:53:03.425405 29293 net.cpp:165] Memory required for data: 5612667392
I0407 23:53:03.425411 29293 layer_factory.hpp:77] Creating layer conv21_1_prescale
I0407 23:53:03.425431 29293 net.cpp:100] Creating Layer conv21_1_prescale
I0407 23:53:03.425436 29293 net.cpp:434] conv21_1_prescale <- conv21_1
I0407 23:53:03.425442 29293 net.cpp:395] conv21_1_prescale -> conv21_1 (in-place)
I0407 23:53:03.425608 29293 net.cpp:150] Setting up conv21_1_prescale
I0407 23:53:03.425619 29293 net.cpp:157] Top shape: 64 150 18 18 (3110400)
I0407 23:53:03.425622 29293 net.cpp:165] Memory required for data: 5625108992
I0407 23:53:03.425627 29293 layer_factory.hpp:77] Creating layer conv21_1_sTanH
I0407 23:53:03.425632 29293 net.cpp:100] Creating Layer conv21_1_sTanH
I0407 23:53:03.425635 29293 net.cpp:434] conv21_1_sTanH <- conv21_1
I0407 23:53:03.425640 29293 net.cpp:395] conv21_1_sTanH -> conv21_1 (in-place)
I0407 23:53:03.425896 29293 net.cpp:150] Setting up conv21_1_sTanH
I0407 23:53:03.425909 29293 net.cpp:157] Top shape: 64 150 18 18 (3110400)
I0407 23:53:03.425911 29293 net.cpp:165] Memory required for data: 5637550592
I0407 23:53:03.425915 29293 layer_factory.hpp:77] Creating layer conv21_1_postscale
I0407 23:53:03.425920 29293 net.cpp:100] Creating Layer conv21_1_postscale
I0407 23:53:03.425925 29293 net.cpp:434] conv21_1_postscale <- conv21_1
I0407 23:53:03.425930 29293 net.cpp:395] conv21_1_postscale -> conv21_1 (in-place)
I0407 23:53:03.426095 29293 net.cpp:150] Setting up conv21_1_postscale
I0407 23:53:03.426103 29293 net.cpp:157] Top shape: 64 150 18 18 (3110400)
I0407 23:53:03.426106 29293 net.cpp:165] Memory required for data: 5649992192
I0407 23:53:03.426111 29293 layer_factory.hpp:77] Creating layer pool21_1
I0407 23:53:03.426116 29293 net.cpp:100] Creating Layer pool21_1
I0407 23:53:03.426120 29293 net.cpp:434] pool21_1 <- conv21_1
I0407 23:53:03.426127 29293 net.cpp:408] pool21_1 -> pool21_1
I0407 23:53:03.426184 29293 net.cpp:150] Setting up pool21_1
I0407 23:53:03.426192 29293 net.cpp:157] Top shape: 64 150 9 9 (777600)
I0407 23:53:03.426195 29293 net.cpp:165] Memory required for data: 5653102592
I0407 23:53:03.426199 29293 layer_factory.hpp:77] Creating layer conv21_2
I0407 23:53:03.426209 29293 net.cpp:100] Creating Layer conv21_2
I0407 23:53:03.426214 29293 net.cpp:434] conv21_2 <- pool21_1
I0407 23:53:03.426220 29293 net.cpp:408] conv21_2 -> conv21_2
I0407 23:53:03.433188 29293 net.cpp:150] Setting up conv21_2
I0407 23:53:03.433207 29293 net.cpp:157] Top shape: 64 250 6 6 (576000)
I0407 23:53:03.433210 29293 net.cpp:165] Memory required for data: 5655406592
I0407 23:53:03.433217 29293 layer_factory.hpp:77] Creating layer conv21_2_prescale
I0407 23:53:03.433226 29293 net.cpp:100] Creating Layer conv21_2_prescale
I0407 23:53:03.433233 29293 net.cpp:434] conv21_2_prescale <- conv21_2
I0407 23:53:03.433239 29293 net.cpp:395] conv21_2_prescale -> conv21_2 (in-place)
I0407 23:53:03.433374 29293 net.cpp:150] Setting up conv21_2_prescale
I0407 23:53:03.433383 29293 net.cpp:157] Top shape: 64 250 6 6 (576000)
I0407 23:53:03.433387 29293 net.cpp:165] Memory required for data: 5657710592
I0407 23:53:03.433392 29293 layer_factory.hpp:77] Creating layer conv21_2_sTanH
I0407 23:53:03.433398 29293 net.cpp:100] Creating Layer conv21_2_sTanH
I0407 23:53:03.433401 29293 net.cpp:434] conv21_2_sTanH <- conv21_2
I0407 23:53:03.433405 29293 net.cpp:395] conv21_2_sTanH -> conv21_2 (in-place)
I0407 23:53:03.434572 29293 net.cpp:150] Setting up conv21_2_sTanH
I0407 23:53:03.434600 29293 net.cpp:157] Top shape: 64 250 6 6 (576000)
I0407 23:53:03.434604 29293 net.cpp:165] Memory required for data: 5660014592
I0407 23:53:03.434607 29293 layer_factory.hpp:77] Creating layer conv21_2_postscale
I0407 23:53:03.434614 29293 net.cpp:100] Creating Layer conv21_2_postscale
I0407 23:53:03.434618 29293 net.cpp:434] conv21_2_postscale <- conv21_2
I0407 23:53:03.434626 29293 net.cpp:395] conv21_2_postscale -> conv21_2 (in-place)
I0407 23:53:03.434767 29293 net.cpp:150] Setting up conv21_2_postscale
I0407 23:53:03.434777 29293 net.cpp:157] Top shape: 64 250 6 6 (576000)
I0407 23:53:03.434779 29293 net.cpp:165] Memory required for data: 5662318592
I0407 23:53:03.434784 29293 layer_factory.hpp:77] Creating layer pool21_2
I0407 23:53:03.434805 29293 net.cpp:100] Creating Layer pool21_2
I0407 23:53:03.434810 29293 net.cpp:434] pool21_2 <- conv21_2
I0407 23:53:03.434818 29293 net.cpp:408] pool21_2 -> pool21_2
I0407 23:53:03.434875 29293 net.cpp:150] Setting up pool21_2
I0407 23:53:03.434883 29293 net.cpp:157] Top shape: 64 250 3 3 (144000)
I0407 23:53:03.434885 29293 net.cpp:165] Memory required for data: 5662894592
I0407 23:53:03.434888 29293 layer_factory.hpp:77] Creating layer fc21_4_300
I0407 23:53:03.434896 29293 net.cpp:100] Creating Layer fc21_4_300
I0407 23:53:03.434900 29293 net.cpp:434] fc21_4_300 <- pool21_2
I0407 23:53:03.434906 29293 net.cpp:408] fc21_4_300 -> fc21_4
I0407 23:53:03.440564 29293 net.cpp:150] Setting up fc21_4_300
I0407 23:53:03.440579 29293 net.cpp:157] Top shape: 64 300 (19200)
I0407 23:53:03.440582 29293 net.cpp:165] Memory required for data: 5662971392
I0407 23:53:03.440589 29293 layer_factory.hpp:77] Creating layer fc21_4_prescale
I0407 23:53:03.440598 29293 net.cpp:100] Creating Layer fc21_4_prescale
I0407 23:53:03.440603 29293 net.cpp:434] fc21_4_prescale <- fc21_4
I0407 23:53:03.440609 29293 net.cpp:395] fc21_4_prescale -> fc21_4 (in-place)
I0407 23:53:03.440765 29293 net.cpp:150] Setting up fc21_4_prescale
I0407 23:53:03.440776 29293 net.cpp:157] Top shape: 64 300 (19200)
I0407 23:53:03.440778 29293 net.cpp:165] Memory required for data: 5663048192
I0407 23:53:03.440783 29293 layer_factory.hpp:77] Creating layer fc21_4_sTanH
I0407 23:53:03.440790 29293 net.cpp:100] Creating Layer fc21_4_sTanH
I0407 23:53:03.440794 29293 net.cpp:434] fc21_4_sTanH <- fc21_4
I0407 23:53:03.440798 29293 net.cpp:395] fc21_4_sTanH -> fc21_4 (in-place)
I0407 23:53:03.441066 29293 net.cpp:150] Setting up fc21_4_sTanH
I0407 23:53:03.441077 29293 net.cpp:157] Top shape: 64 300 (19200)
I0407 23:53:03.441081 29293 net.cpp:165] Memory required for data: 5663124992
I0407 23:53:03.441083 29293 layer_factory.hpp:77] Creating layer fc21_4_postscale
I0407 23:53:03.441089 29293 net.cpp:100] Creating Layer fc21_4_postscale
I0407 23:53:03.441093 29293 net.cpp:434] fc21_4_postscale <- fc21_4
I0407 23:53:03.441100 29293 net.cpp:395] fc21_4_postscale -> fc21_4 (in-place)
I0407 23:53:03.441263 29293 net.cpp:150] Setting up fc21_4_postscale
I0407 23:53:03.441273 29293 net.cpp:157] Top shape: 64 300 (19200)
I0407 23:53:03.441275 29293 net.cpp:165] Memory required for data: 5663201792
I0407 23:53:03.441280 29293 layer_factory.hpp:77] Creating layer drop21_4
I0407 23:53:03.441287 29293 net.cpp:100] Creating Layer drop21_4
I0407 23:53:03.441289 29293 net.cpp:434] drop21_4 <- fc21_4
I0407 23:53:03.441295 29293 net.cpp:395] drop21_4 -> fc21_4 (in-place)
I0407 23:53:03.441328 29293 net.cpp:150] Setting up drop21_4
I0407 23:53:03.441334 29293 net.cpp:157] Top shape: 64 300 (19200)
I0407 23:53:03.441336 29293 net.cpp:165] Memory required for data: 5663278592
I0407 23:53:03.441339 29293 layer_factory.hpp:77] Creating layer fc21_5_67
I0407 23:53:03.441347 29293 net.cpp:100] Creating Layer fc21_5_67
I0407 23:53:03.441350 29293 net.cpp:434] fc21_5_67 <- fc21_4
I0407 23:53:03.441356 29293 net.cpp:408] fc21_5_67 -> fc21_5
I0407 23:53:03.441642 29293 net.cpp:150] Setting up fc21_5_67
I0407 23:53:03.441649 29293 net.cpp:157] Top shape: 64 67 (4288)
I0407 23:53:03.441653 29293 net.cpp:165] Memory required for data: 5663295744
I0407 23:53:03.441658 29293 layer_factory.hpp:77] Creating layer softmax_21
I0407 23:53:03.441663 29293 net.cpp:100] Creating Layer softmax_21
I0407 23:53:03.441666 29293 net.cpp:434] softmax_21 <- fc21_5
I0407 23:53:03.441671 29293 net.cpp:408] softmax_21 -> softmax_21
I0407 23:53:03.442021 29293 net.cpp:150] Setting up softmax_21
I0407 23:53:03.442034 29293 net.cpp:157] Top shape: 64 67 (4288)
I0407 23:53:03.442036 29293 net.cpp:165] Memory required for data: 5663312896
I0407 23:53:03.442039 29293 layer_factory.hpp:77] Creating layer conv22_0
I0407 23:53:03.442049 29293 net.cpp:100] Creating Layer conv22_0
I0407 23:53:03.442052 29293 net.cpp:434] conv22_0 <- data_4_data_4_0_split_2
I0407 23:53:03.442060 29293 net.cpp:408] conv22_0 -> conv22_0
I0407 23:53:03.444264 29293 net.cpp:150] Setting up conv22_0
I0407 23:53:03.444283 29293 net.cpp:157] Top shape: 64 100 42 42 (11289600)
I0407 23:53:03.444286 29293 net.cpp:165] Memory required for data: 5708471296
I0407 23:53:03.444293 29293 layer_factory.hpp:77] Creating layer conv22_0_prescale
I0407 23:53:03.444301 29293 net.cpp:100] Creating Layer conv22_0_prescale
I0407 23:53:03.444305 29293 net.cpp:434] conv22_0_prescale <- conv22_0
I0407 23:53:03.444324 29293 net.cpp:395] conv22_0_prescale -> conv22_0 (in-place)
I0407 23:53:03.444488 29293 net.cpp:150] Setting up conv22_0_prescale
I0407 23:53:03.444499 29293 net.cpp:157] Top shape: 64 100 42 42 (11289600)
I0407 23:53:03.444501 29293 net.cpp:165] Memory required for data: 5753629696
I0407 23:53:03.444506 29293 layer_factory.hpp:77] Creating layer conv22_0_sTanH
I0407 23:53:03.444511 29293 net.cpp:100] Creating Layer conv22_0_sTanH
I0407 23:53:03.444514 29293 net.cpp:434] conv22_0_sTanH <- conv22_0
I0407 23:53:03.444519 29293 net.cpp:395] conv22_0_sTanH -> conv22_0 (in-place)
I0407 23:53:03.444777 29293 net.cpp:150] Setting up conv22_0_sTanH
I0407 23:53:03.444788 29293 net.cpp:157] Top shape: 64 100 42 42 (11289600)
I0407 23:53:03.444792 29293 net.cpp:165] Memory required for data: 5798788096
I0407 23:53:03.444794 29293 layer_factory.hpp:77] Creating layer conv22_0_postscale
I0407 23:53:03.444802 29293 net.cpp:100] Creating Layer conv22_0_postscale
I0407 23:53:03.444806 29293 net.cpp:434] conv22_0_postscale <- conv22_0
I0407 23:53:03.444811 29293 net.cpp:395] conv22_0_postscale -> conv22_0 (in-place)
I0407 23:53:03.444977 29293 net.cpp:150] Setting up conv22_0_postscale
I0407 23:53:03.444986 29293 net.cpp:157] Top shape: 64 100 42 42 (11289600)
I0407 23:53:03.444989 29293 net.cpp:165] Memory required for data: 5843946496
I0407 23:53:03.444994 29293 layer_factory.hpp:77] Creating layer pool22_0
I0407 23:53:03.445001 29293 net.cpp:100] Creating Layer pool22_0
I0407 23:53:03.445004 29293 net.cpp:434] pool22_0 <- conv22_0
I0407 23:53:03.445010 29293 net.cpp:408] pool22_0 -> pool22_0
I0407 23:53:03.445070 29293 net.cpp:150] Setting up pool22_0
I0407 23:53:03.445078 29293 net.cpp:157] Top shape: 64 100 21 21 (2822400)
I0407 23:53:03.445081 29293 net.cpp:165] Memory required for data: 5855236096
I0407 23:53:03.445085 29293 layer_factory.hpp:77] Creating layer conv22_1
I0407 23:53:03.445093 29293 net.cpp:100] Creating Layer conv22_1
I0407 23:53:03.445096 29293 net.cpp:434] conv22_1 <- pool22_0
I0407 23:53:03.445102 29293 net.cpp:408] conv22_1 -> conv22_1
I0407 23:53:03.448642 29293 net.cpp:150] Setting up conv22_1
I0407 23:53:03.448669 29293 net.cpp:157] Top shape: 64 150 18 18 (3110400)
I0407 23:53:03.448673 29293 net.cpp:165] Memory required for data: 5867677696
I0407 23:53:03.448679 29293 layer_factory.hpp:77] Creating layer conv22_1_prescale
I0407 23:53:03.448688 29293 net.cpp:100] Creating Layer conv22_1_prescale
I0407 23:53:03.448693 29293 net.cpp:434] conv22_1_prescale <- conv22_1
I0407 23:53:03.448698 29293 net.cpp:395] conv22_1_prescale -> conv22_1 (in-place)
I0407 23:53:03.448865 29293 net.cpp:150] Setting up conv22_1_prescale
I0407 23:53:03.448876 29293 net.cpp:157] Top shape: 64 150 18 18 (3110400)
I0407 23:53:03.448879 29293 net.cpp:165] Memory required for data: 5880119296
I0407 23:53:03.448885 29293 layer_factory.hpp:77] Creating layer conv22_1_sTanH
I0407 23:53:03.448891 29293 net.cpp:100] Creating Layer conv22_1_sTanH
I0407 23:53:03.448895 29293 net.cpp:434] conv22_1_sTanH <- conv22_1
I0407 23:53:03.448899 29293 net.cpp:395] conv22_1_sTanH -> conv22_1 (in-place)
I0407 23:53:03.449157 29293 net.cpp:150] Setting up conv22_1_sTanH
I0407 23:53:03.449169 29293 net.cpp:157] Top shape: 64 150 18 18 (3110400)
I0407 23:53:03.449172 29293 net.cpp:165] Memory required for data: 5892560896
I0407 23:53:03.449175 29293 layer_factory.hpp:77] Creating layer conv22_1_postscale
I0407 23:53:03.449182 29293 net.cpp:100] Creating Layer conv22_1_postscale
I0407 23:53:03.449185 29293 net.cpp:434] conv22_1_postscale <- conv22_1
I0407 23:53:03.449192 29293 net.cpp:395] conv22_1_postscale -> conv22_1 (in-place)
I0407 23:53:03.449369 29293 net.cpp:150] Setting up conv22_1_postscale
I0407 23:53:03.449380 29293 net.cpp:157] Top shape: 64 150 18 18 (3110400)
I0407 23:53:03.449383 29293 net.cpp:165] Memory required for data: 5905002496
I0407 23:53:03.449388 29293 layer_factory.hpp:77] Creating layer pool22_1
I0407 23:53:03.449393 29293 net.cpp:100] Creating Layer pool22_1
I0407 23:53:03.449398 29293 net.cpp:434] pool22_1 <- conv22_1
I0407 23:53:03.449404 29293 net.cpp:408] pool22_1 -> pool22_1
I0407 23:53:03.449462 29293 net.cpp:150] Setting up pool22_1
I0407 23:53:03.449471 29293 net.cpp:157] Top shape: 64 150 9 9 (777600)
I0407 23:53:03.449473 29293 net.cpp:165] Memory required for data: 5908112896
I0407 23:53:03.449476 29293 layer_factory.hpp:77] Creating layer conv22_2
I0407 23:53:03.449486 29293 net.cpp:100] Creating Layer conv22_2
I0407 23:53:03.449493 29293 net.cpp:434] conv22_2 <- pool22_1
I0407 23:53:03.449498 29293 net.cpp:408] conv22_2 -> conv22_2
I0407 23:53:03.456563 29293 net.cpp:150] Setting up conv22_2
I0407 23:53:03.456580 29293 net.cpp:157] Top shape: 64 250 6 6 (576000)
I0407 23:53:03.456584 29293 net.cpp:165] Memory required for data: 5910416896
I0407 23:53:03.456590 29293 layer_factory.hpp:77] Creating layer conv22_2_prescale
I0407 23:53:03.456599 29293 net.cpp:100] Creating Layer conv22_2_prescale
I0407 23:53:03.456604 29293 net.cpp:434] conv22_2_prescale <- conv22_2
I0407 23:53:03.456609 29293 net.cpp:395] conv22_2_prescale -> conv22_2 (in-place)
I0407 23:53:03.456758 29293 net.cpp:150] Setting up conv22_2_prescale
I0407 23:53:03.456768 29293 net.cpp:157] Top shape: 64 250 6 6 (576000)
I0407 23:53:03.456770 29293 net.cpp:165] Memory required for data: 5912720896
I0407 23:53:03.456775 29293 layer_factory.hpp:77] Creating layer conv22_2_sTanH
I0407 23:53:03.456784 29293 net.cpp:100] Creating Layer conv22_2_sTanH
I0407 23:53:03.456787 29293 net.cpp:434] conv22_2_sTanH <- conv22_2
I0407 23:53:03.456791 29293 net.cpp:395] conv22_2_sTanH -> conv22_2 (in-place)
I0407 23:53:03.457950 29293 net.cpp:150] Setting up conv22_2_sTanH
I0407 23:53:03.457967 29293 net.cpp:157] Top shape: 64 250 6 6 (576000)
I0407 23:53:03.457972 29293 net.cpp:165] Memory required for data: 5915024896
I0407 23:53:03.457974 29293 layer_factory.hpp:77] Creating layer conv22_2_postscale
I0407 23:53:03.457980 29293 net.cpp:100] Creating Layer conv22_2_postscale
I0407 23:53:03.457984 29293 net.cpp:434] conv22_2_postscale <- conv22_2
I0407 23:53:03.457993 29293 net.cpp:395] conv22_2_postscale -> conv22_2 (in-place)
I0407 23:53:03.458144 29293 net.cpp:150] Setting up conv22_2_postscale
I0407 23:53:03.458154 29293 net.cpp:157] Top shape: 64 250 6 6 (576000)
I0407 23:53:03.458156 29293 net.cpp:165] Memory required for data: 5917328896
I0407 23:53:03.458161 29293 layer_factory.hpp:77] Creating layer pool22_2
I0407 23:53:03.458168 29293 net.cpp:100] Creating Layer pool22_2
I0407 23:53:03.458170 29293 net.cpp:434] pool22_2 <- conv22_2
I0407 23:53:03.458178 29293 net.cpp:408] pool22_2 -> pool22_2
I0407 23:53:03.458232 29293 net.cpp:150] Setting up pool22_2
I0407 23:53:03.458241 29293 net.cpp:157] Top shape: 64 250 3 3 (144000)
I0407 23:53:03.458245 29293 net.cpp:165] Memory required for data: 5917904896
I0407 23:53:03.458247 29293 layer_factory.hpp:77] Creating layer fc22_4_300
I0407 23:53:03.458254 29293 net.cpp:100] Creating Layer fc22_4_300
I0407 23:53:03.458258 29293 net.cpp:434] fc22_4_300 <- pool22_2
I0407 23:53:03.458263 29293 net.cpp:408] fc22_4_300 -> fc22_4
I0407 23:53:03.463912 29293 net.cpp:150] Setting up fc22_4_300
I0407 23:53:03.463927 29293 net.cpp:157] Top shape: 64 300 (19200)
I0407 23:53:03.463930 29293 net.cpp:165] Memory required for data: 5917981696
I0407 23:53:03.463937 29293 layer_factory.hpp:77] Creating layer fc22_4_prescale
I0407 23:53:03.463945 29293 net.cpp:100] Creating Layer fc22_4_prescale
I0407 23:53:03.463949 29293 net.cpp:434] fc22_4_prescale <- fc22_4
I0407 23:53:03.463956 29293 net.cpp:395] fc22_4_prescale -> fc22_4 (in-place)
I0407 23:53:03.464118 29293 net.cpp:150] Setting up fc22_4_prescale
I0407 23:53:03.464140 29293 net.cpp:157] Top shape: 64 300 (19200)
I0407 23:53:03.464143 29293 net.cpp:165] Memory required for data: 5918058496
I0407 23:53:03.464148 29293 layer_factory.hpp:77] Creating layer fc22_4_sTanH
I0407 23:53:03.464220 29293 net.cpp:100] Creating Layer fc22_4_sTanH
I0407 23:53:03.464226 29293 net.cpp:434] fc22_4_sTanH <- fc22_4
I0407 23:53:03.464231 29293 net.cpp:395] fc22_4_sTanH -> fc22_4 (in-place)
I0407 23:53:03.464506 29293 net.cpp:150] Setting up fc22_4_sTanH
I0407 23:53:03.464519 29293 net.cpp:157] Top shape: 64 300 (19200)
I0407 23:53:03.464520 29293 net.cpp:165] Memory required for data: 5918135296
I0407 23:53:03.464524 29293 layer_factory.hpp:77] Creating layer fc22_4_postscale
I0407 23:53:03.464531 29293 net.cpp:100] Creating Layer fc22_4_postscale
I0407 23:53:03.464534 29293 net.cpp:434] fc22_4_postscale <- fc22_4
I0407 23:53:03.464540 29293 net.cpp:395] fc22_4_postscale -> fc22_4 (in-place)
I0407 23:53:03.464710 29293 net.cpp:150] Setting up fc22_4_postscale
I0407 23:53:03.464720 29293 net.cpp:157] Top shape: 64 300 (19200)
I0407 23:53:03.464722 29293 net.cpp:165] Memory required for data: 5918212096
I0407 23:53:03.464726 29293 layer_factory.hpp:77] Creating layer drop22_4
I0407 23:53:03.464732 29293 net.cpp:100] Creating Layer drop22_4
I0407 23:53:03.464735 29293 net.cpp:434] drop22_4 <- fc22_4
I0407 23:53:03.464740 29293 net.cpp:395] drop22_4 -> fc22_4 (in-place)
I0407 23:53:03.464773 29293 net.cpp:150] Setting up drop22_4
I0407 23:53:03.464781 29293 net.cpp:157] Top shape: 64 300 (19200)
I0407 23:53:03.464783 29293 net.cpp:165] Memory required for data: 5918288896
I0407 23:53:03.464787 29293 layer_factory.hpp:77] Creating layer fc22_5_67
I0407 23:53:03.464792 29293 net.cpp:100] Creating Layer fc22_5_67
I0407 23:53:03.464795 29293 net.cpp:434] fc22_5_67 <- fc22_4
I0407 23:53:03.464799 29293 net.cpp:408] fc22_5_67 -> fc22_5
I0407 23:53:03.465090 29293 net.cpp:150] Setting up fc22_5_67
I0407 23:53:03.465100 29293 net.cpp:157] Top shape: 64 67 (4288)
I0407 23:53:03.465101 29293 net.cpp:165] Memory required for data: 5918306048
I0407 23:53:03.465107 29293 layer_factory.hpp:77] Creating layer softmax_22
I0407 23:53:03.465112 29293 net.cpp:100] Creating Layer softmax_22
I0407 23:53:03.465116 29293 net.cpp:434] softmax_22 <- fc22_5
I0407 23:53:03.465121 29293 net.cpp:408] softmax_22 -> softmax_22
I0407 23:53:03.465484 29293 net.cpp:150] Setting up softmax_22
I0407 23:53:03.465497 29293 net.cpp:157] Top shape: 64 67 (4288)
I0407 23:53:03.465510 29293 net.cpp:165] Memory required for data: 5918323200
I0407 23:53:03.465513 29293 layer_factory.hpp:77] Creating layer conv23_0
I0407 23:53:03.465523 29293 net.cpp:100] Creating Layer conv23_0
I0407 23:53:03.465528 29293 net.cpp:434] conv23_0 <- data_4_data_4_0_split_3
I0407 23:53:03.465535 29293 net.cpp:408] conv23_0 -> conv23_0
I0407 23:53:03.468639 29293 net.cpp:150] Setting up conv23_0
I0407 23:53:03.468668 29293 net.cpp:157] Top shape: 64 100 42 42 (11289600)
I0407 23:53:03.468672 29293 net.cpp:165] Memory required for data: 5963481600
I0407 23:53:03.468679 29293 layer_factory.hpp:77] Creating layer conv23_0_prescale
I0407 23:53:03.468686 29293 net.cpp:100] Creating Layer conv23_0_prescale
I0407 23:53:03.468690 29293 net.cpp:434] conv23_0_prescale <- conv23_0
I0407 23:53:03.468698 29293 net.cpp:395] conv23_0_prescale -> conv23_0 (in-place)
I0407 23:53:03.468873 29293 net.cpp:150] Setting up conv23_0_prescale
I0407 23:53:03.468884 29293 net.cpp:157] Top shape: 64 100 42 42 (11289600)
I0407 23:53:03.468888 29293 net.cpp:165] Memory required for data: 6008640000
I0407 23:53:03.468891 29293 layer_factory.hpp:77] Creating layer conv23_0_sTanH
I0407 23:53:03.468897 29293 net.cpp:100] Creating Layer conv23_0_sTanH
I0407 23:53:03.468900 29293 net.cpp:434] conv23_0_sTanH <- conv23_0
I0407 23:53:03.468906 29293 net.cpp:395] conv23_0_sTanH -> conv23_0 (in-place)
I0407 23:53:03.469174 29293 net.cpp:150] Setting up conv23_0_sTanH
I0407 23:53:03.469187 29293 net.cpp:157] Top shape: 64 100 42 42 (11289600)
I0407 23:53:03.469189 29293 net.cpp:165] Memory required for data: 6053798400
I0407 23:53:03.469203 29293 layer_factory.hpp:77] Creating layer conv23_0_postscale
I0407 23:53:03.469213 29293 net.cpp:100] Creating Layer conv23_0_postscale
I0407 23:53:03.469216 29293 net.cpp:434] conv23_0_postscale <- conv23_0
I0407 23:53:03.469220 29293 net.cpp:395] conv23_0_postscale -> conv23_0 (in-place)
I0407 23:53:03.469390 29293 net.cpp:150] Setting up conv23_0_postscale
I0407 23:53:03.469401 29293 net.cpp:157] Top shape: 64 100 42 42 (11289600)
I0407 23:53:03.469404 29293 net.cpp:165] Memory required for data: 6098956800
I0407 23:53:03.469409 29293 layer_factory.hpp:77] Creating layer pool23_0
I0407 23:53:03.469415 29293 net.cpp:100] Creating Layer pool23_0
I0407 23:53:03.469419 29293 net.cpp:434] pool23_0 <- conv23_0
I0407 23:53:03.469424 29293 net.cpp:408] pool23_0 -> pool23_0
I0407 23:53:03.469485 29293 net.cpp:150] Setting up pool23_0
I0407 23:53:03.469493 29293 net.cpp:157] Top shape: 64 100 21 21 (2822400)
I0407 23:53:03.469496 29293 net.cpp:165] Memory required for data: 6110246400
I0407 23:53:03.469499 29293 layer_factory.hpp:77] Creating layer conv23_1
I0407 23:53:03.469508 29293 net.cpp:100] Creating Layer conv23_1
I0407 23:53:03.469512 29293 net.cpp:434] conv23_1 <- pool23_0
I0407 23:53:03.469519 29293 net.cpp:408] conv23_1 -> conv23_1
I0407 23:53:03.474248 29293 net.cpp:150] Setting up conv23_1
I0407 23:53:03.474265 29293 net.cpp:157] Top shape: 64 150 18 18 (3110400)
I0407 23:53:03.474280 29293 net.cpp:165] Memory required for data: 6122688000
I0407 23:53:03.474287 29293 layer_factory.hpp:77] Creating layer conv23_1_prescale
I0407 23:53:03.474294 29293 net.cpp:100] Creating Layer conv23_1_prescale
I0407 23:53:03.474298 29293 net.cpp:434] conv23_1_prescale <- conv23_1
I0407 23:53:03.474305 29293 net.cpp:395] conv23_1_prescale -> conv23_1 (in-place)
I0407 23:53:03.474470 29293 net.cpp:150] Setting up conv23_1_prescale
I0407 23:53:03.474481 29293 net.cpp:157] Top shape: 64 150 18 18 (3110400)
I0407 23:53:03.474483 29293 net.cpp:165] Memory required for data: 6135129600
I0407 23:53:03.474488 29293 layer_factory.hpp:77] Creating layer conv23_1_sTanH
I0407 23:53:03.474494 29293 net.cpp:100] Creating Layer conv23_1_sTanH
I0407 23:53:03.474498 29293 net.cpp:434] conv23_1_sTanH <- conv23_1
I0407 23:53:03.474504 29293 net.cpp:395] conv23_1_sTanH -> conv23_1 (in-place)
I0407 23:53:03.474763 29293 net.cpp:150] Setting up conv23_1_sTanH
I0407 23:53:03.474774 29293 net.cpp:157] Top shape: 64 150 18 18 (3110400)
I0407 23:53:03.474777 29293 net.cpp:165] Memory required for data: 6147571200
I0407 23:53:03.474781 29293 layer_factory.hpp:77] Creating layer conv23_1_postscale
I0407 23:53:03.474788 29293 net.cpp:100] Creating Layer conv23_1_postscale
I0407 23:53:03.474792 29293 net.cpp:434] conv23_1_postscale <- conv23_1
I0407 23:53:03.474802 29293 net.cpp:395] conv23_1_postscale -> conv23_1 (in-place)
I0407 23:53:03.474967 29293 net.cpp:150] Setting up conv23_1_postscale
I0407 23:53:03.474977 29293 net.cpp:157] Top shape: 64 150 18 18 (3110400)
I0407 23:53:03.474980 29293 net.cpp:165] Memory required for data: 6160012800
I0407 23:53:03.474984 29293 layer_factory.hpp:77] Creating layer pool23_1
I0407 23:53:03.474994 29293 net.cpp:100] Creating Layer pool23_1
I0407 23:53:03.474999 29293 net.cpp:434] pool23_1 <- conv23_1
I0407 23:53:03.475005 29293 net.cpp:408] pool23_1 -> pool23_1
I0407 23:53:03.475065 29293 net.cpp:150] Setting up pool23_1
I0407 23:53:03.475073 29293 net.cpp:157] Top shape: 64 150 9 9 (777600)
I0407 23:53:03.475076 29293 net.cpp:165] Memory required for data: 6163123200
I0407 23:53:03.475080 29293 layer_factory.hpp:77] Creating layer conv23_2
I0407 23:53:03.475087 29293 net.cpp:100] Creating Layer conv23_2
I0407 23:53:03.475091 29293 net.cpp:434] conv23_2 <- pool23_1
I0407 23:53:03.475096 29293 net.cpp:408] conv23_2 -> conv23_2
I0407 23:53:03.482029 29293 net.cpp:150] Setting up conv23_2
I0407 23:53:03.482046 29293 net.cpp:157] Top shape: 64 250 6 6 (576000)
I0407 23:53:03.482050 29293 net.cpp:165] Memory required for data: 6165427200
I0407 23:53:03.482056 29293 layer_factory.hpp:77] Creating layer conv23_2_prescale
I0407 23:53:03.482076 29293 net.cpp:100] Creating Layer conv23_2_prescale
I0407 23:53:03.482081 29293 net.cpp:434] conv23_2_prescale <- conv23_2
I0407 23:53:03.482087 29293 net.cpp:395] conv23_2_prescale -> conv23_2 (in-place)
I0407 23:53:03.482229 29293 net.cpp:150] Setting up conv23_2_prescale
I0407 23:53:03.482239 29293 net.cpp:157] Top shape: 64 250 6 6 (576000)
I0407 23:53:03.482242 29293 net.cpp:165] Memory required for data: 6167731200
I0407 23:53:03.482247 29293 layer_factory.hpp:77] Creating layer conv23_2_sTanH
I0407 23:53:03.482254 29293 net.cpp:100] Creating Layer conv23_2_sTanH
I0407 23:53:03.482257 29293 net.cpp:434] conv23_2_sTanH <- conv23_2
I0407 23:53:03.482261 29293 net.cpp:395] conv23_2_sTanH -> conv23_2 (in-place)
I0407 23:53:03.483420 29293 net.cpp:150] Setting up conv23_2_sTanH
I0407 23:53:03.483438 29293 net.cpp:157] Top shape: 64 250 6 6 (576000)
I0407 23:53:03.483440 29293 net.cpp:165] Memory required for data: 6170035200
I0407 23:53:03.483444 29293 layer_factory.hpp:77] Creating layer conv23_2_postscale
I0407 23:53:03.483450 29293 net.cpp:100] Creating Layer conv23_2_postscale
I0407 23:53:03.483454 29293 net.cpp:434] conv23_2_postscale <- conv23_2
I0407 23:53:03.483461 29293 net.cpp:395] conv23_2_postscale -> conv23_2 (in-place)
I0407 23:53:03.483608 29293 net.cpp:150] Setting up conv23_2_postscale
I0407 23:53:03.483616 29293 net.cpp:157] Top shape: 64 250 6 6 (576000)
I0407 23:53:03.483619 29293 net.cpp:165] Memory required for data: 6172339200
I0407 23:53:03.483624 29293 layer_factory.hpp:77] Creating layer pool23_2
I0407 23:53:03.483630 29293 net.cpp:100] Creating Layer pool23_2
I0407 23:53:03.483633 29293 net.cpp:434] pool23_2 <- conv23_2
I0407 23:53:03.483640 29293 net.cpp:408] pool23_2 -> pool23_2
I0407 23:53:03.483697 29293 net.cpp:150] Setting up pool23_2
I0407 23:53:03.483705 29293 net.cpp:157] Top shape: 64 250 3 3 (144000)
I0407 23:53:03.483708 29293 net.cpp:165] Memory required for data: 6172915200
I0407 23:53:03.483711 29293 layer_factory.hpp:77] Creating layer fc23_4_300
I0407 23:53:03.483718 29293 net.cpp:100] Creating Layer fc23_4_300
I0407 23:53:03.483722 29293 net.cpp:434] fc23_4_300 <- pool23_2
I0407 23:53:03.483727 29293 net.cpp:408] fc23_4_300 -> fc23_4
I0407 23:53:03.489293 29293 net.cpp:150] Setting up fc23_4_300
I0407 23:53:03.489308 29293 net.cpp:157] Top shape: 64 300 (19200)
I0407 23:53:03.489323 29293 net.cpp:165] Memory required for data: 6172992000
I0407 23:53:03.489331 29293 layer_factory.hpp:77] Creating layer fc23_4_prescale
I0407 23:53:03.489338 29293 net.cpp:100] Creating Layer fc23_4_prescale
I0407 23:53:03.489343 29293 net.cpp:434] fc23_4_prescale <- fc23_4
I0407 23:53:03.489349 29293 net.cpp:395] fc23_4_prescale -> fc23_4 (in-place)
I0407 23:53:03.489511 29293 net.cpp:150] Setting up fc23_4_prescale
I0407 23:53:03.489521 29293 net.cpp:157] Top shape: 64 300 (19200)
I0407 23:53:03.489524 29293 net.cpp:165] Memory required for data: 6173068800
I0407 23:53:03.489534 29293 layer_factory.hpp:77] Creating layer fc23_4_sTanH
I0407 23:53:03.489542 29293 net.cpp:100] Creating Layer fc23_4_sTanH
I0407 23:53:03.489544 29293 net.cpp:434] fc23_4_sTanH <- fc23_4
I0407 23:53:03.489549 29293 net.cpp:395] fc23_4_sTanH -> fc23_4 (in-place)
I0407 23:53:03.489816 29293 net.cpp:150] Setting up fc23_4_sTanH
I0407 23:53:03.489830 29293 net.cpp:157] Top shape: 64 300 (19200)
I0407 23:53:03.489831 29293 net.cpp:165] Memory required for data: 6173145600
I0407 23:53:03.489835 29293 layer_factory.hpp:77] Creating layer fc23_4_postscale
I0407 23:53:03.489842 29293 net.cpp:100] Creating Layer fc23_4_postscale
I0407 23:53:03.489846 29293 net.cpp:434] fc23_4_postscale <- fc23_4
I0407 23:53:03.489853 29293 net.cpp:395] fc23_4_postscale -> fc23_4 (in-place)
I0407 23:53:03.490025 29293 net.cpp:150] Setting up fc23_4_postscale
I0407 23:53:03.490031 29293 net.cpp:157] Top shape: 64 300 (19200)
I0407 23:53:03.490034 29293 net.cpp:165] Memory required for data: 6173222400
I0407 23:53:03.490038 29293 layer_factory.hpp:77] Creating layer drop23_4
I0407 23:53:03.490063 29293 net.cpp:100] Creating Layer drop23_4
I0407 23:53:03.490067 29293 net.cpp:434] drop23_4 <- fc23_4
I0407 23:53:03.490073 29293 net.cpp:395] drop23_4 -> fc23_4 (in-place)
I0407 23:53:03.490108 29293 net.cpp:150] Setting up drop23_4
I0407 23:53:03.490114 29293 net.cpp:157] Top shape: 64 300 (19200)
I0407 23:53:03.490116 29293 net.cpp:165] Memory required for data: 6173299200
I0407 23:53:03.490119 29293 layer_factory.hpp:77] Creating layer fc23_5_67
I0407 23:53:03.490126 29293 net.cpp:100] Creating Layer fc23_5_67
I0407 23:53:03.490129 29293 net.cpp:434] fc23_5_67 <- fc23_4
I0407 23:53:03.490135 29293 net.cpp:408] fc23_5_67 -> fc23_5
I0407 23:53:03.490427 29293 net.cpp:150] Setting up fc23_5_67
I0407 23:53:03.490432 29293 net.cpp:157] Top shape: 64 67 (4288)
I0407 23:53:03.490435 29293 net.cpp:165] Memory required for data: 6173316352
I0407 23:53:03.490442 29293 layer_factory.hpp:77] Creating layer softmax_23
I0407 23:53:03.490447 29293 net.cpp:100] Creating Layer softmax_23
I0407 23:53:03.490449 29293 net.cpp:434] softmax_23 <- fc23_5
I0407 23:53:03.490455 29293 net.cpp:408] softmax_23 -> softmax_23
I0407 23:53:03.490810 29293 net.cpp:150] Setting up softmax_23
I0407 23:53:03.490823 29293 net.cpp:157] Top shape: 64 67 (4288)
I0407 23:53:03.490825 29293 net.cpp:165] Memory required for data: 6173333504
I0407 23:53:03.490828 29293 layer_factory.hpp:77] Creating layer conv24_0
I0407 23:53:03.490838 29293 net.cpp:100] Creating Layer conv24_0
I0407 23:53:03.490841 29293 net.cpp:434] conv24_0 <- data_4_data_4_0_split_4
I0407 23:53:03.490849 29293 net.cpp:408] conv24_0 -> conv24_0
I0407 23:53:03.493093 29293 net.cpp:150] Setting up conv24_0
I0407 23:53:03.493109 29293 net.cpp:157] Top shape: 64 100 42 42 (11289600)
I0407 23:53:03.493113 29293 net.cpp:165] Memory required for data: 6218491904
I0407 23:53:03.493119 29293 layer_factory.hpp:77] Creating layer conv24_0_prescale
I0407 23:53:03.493126 29293 net.cpp:100] Creating Layer conv24_0_prescale
I0407 23:53:03.493129 29293 net.cpp:434] conv24_0_prescale <- conv24_0
I0407 23:53:03.493140 29293 net.cpp:395] conv24_0_prescale -> conv24_0 (in-place)
I0407 23:53:03.493325 29293 net.cpp:150] Setting up conv24_0_prescale
I0407 23:53:03.493336 29293 net.cpp:157] Top shape: 64 100 42 42 (11289600)
I0407 23:53:03.493340 29293 net.cpp:165] Memory required for data: 6263650304
I0407 23:53:03.493343 29293 layer_factory.hpp:77] Creating layer conv24_0_sTanH
I0407 23:53:03.493350 29293 net.cpp:100] Creating Layer conv24_0_sTanH
I0407 23:53:03.493353 29293 net.cpp:434] conv24_0_sTanH <- conv24_0
I0407 23:53:03.493360 29293 net.cpp:395] conv24_0_sTanH -> conv24_0 (in-place)
I0407 23:53:03.493624 29293 net.cpp:150] Setting up conv24_0_sTanH
I0407 23:53:03.493635 29293 net.cpp:157] Top shape: 64 100 42 42 (11289600)
I0407 23:53:03.493638 29293 net.cpp:165] Memory required for data: 6308808704
I0407 23:53:03.493641 29293 layer_factory.hpp:77] Creating layer conv24_0_postscale
I0407 23:53:03.493649 29293 net.cpp:100] Creating Layer conv24_0_postscale
I0407 23:53:03.493654 29293 net.cpp:434] conv24_0_postscale <- conv24_0
I0407 23:53:03.493659 29293 net.cpp:395] conv24_0_postscale -> conv24_0 (in-place)
I0407 23:53:03.493829 29293 net.cpp:150] Setting up conv24_0_postscale
I0407 23:53:03.493839 29293 net.cpp:157] Top shape: 64 100 42 42 (11289600)
I0407 23:53:03.493841 29293 net.cpp:165] Memory required for data: 6353967104
I0407 23:53:03.493846 29293 layer_factory.hpp:77] Creating layer pool24_0
I0407 23:53:03.493854 29293 net.cpp:100] Creating Layer pool24_0
I0407 23:53:03.493857 29293 net.cpp:434] pool24_0 <- conv24_0
I0407 23:53:03.493863 29293 net.cpp:408] pool24_0 -> pool24_0
I0407 23:53:03.493924 29293 net.cpp:150] Setting up pool24_0
I0407 23:53:03.493932 29293 net.cpp:157] Top shape: 64 100 21 21 (2822400)
I0407 23:53:03.493935 29293 net.cpp:165] Memory required for data: 6365256704
I0407 23:53:03.493938 29293 layer_factory.hpp:77] Creating layer conv24_1
I0407 23:53:03.493948 29293 net.cpp:100] Creating Layer conv24_1
I0407 23:53:03.493952 29293 net.cpp:434] conv24_1 <- pool24_0
I0407 23:53:03.493971 29293 net.cpp:408] conv24_1 -> conv24_1
I0407 23:53:03.498219 29293 net.cpp:150] Setting up conv24_1
I0407 23:53:03.498237 29293 net.cpp:157] Top shape: 64 150 18 18 (3110400)
I0407 23:53:03.498240 29293 net.cpp:165] Memory required for data: 6377698304
I0407 23:53:03.498247 29293 layer_factory.hpp:77] Creating layer conv24_1_prescale
I0407 23:53:03.498255 29293 net.cpp:100] Creating Layer conv24_1_prescale
I0407 23:53:03.498260 29293 net.cpp:434] conv24_1_prescale <- conv24_1
I0407 23:53:03.498266 29293 net.cpp:395] conv24_1_prescale -> conv24_1 (in-place)
I0407 23:53:03.498445 29293 net.cpp:150] Setting up conv24_1_prescale
I0407 23:53:03.498455 29293 net.cpp:157] Top shape: 64 150 18 18 (3110400)
I0407 23:53:03.498457 29293 net.cpp:165] Memory required for data: 6390139904
I0407 23:53:03.498461 29293 layer_factory.hpp:77] Creating layer conv24_1_sTanH
I0407 23:53:03.498468 29293 net.cpp:100] Creating Layer conv24_1_sTanH
I0407 23:53:03.498472 29293 net.cpp:434] conv24_1_sTanH <- conv24_1
I0407 23:53:03.498476 29293 net.cpp:395] conv24_1_sTanH -> conv24_1 (in-place)
I0407 23:53:03.498736 29293 net.cpp:150] Setting up conv24_1_sTanH
I0407 23:53:03.498749 29293 net.cpp:157] Top shape: 64 150 18 18 (3110400)
I0407 23:53:03.498751 29293 net.cpp:165] Memory required for data: 6402581504
I0407 23:53:03.498755 29293 layer_factory.hpp:77] Creating layer conv24_1_postscale
I0407 23:53:03.498764 29293 net.cpp:100] Creating Layer conv24_1_postscale
I0407 23:53:03.498767 29293 net.cpp:434] conv24_1_postscale <- conv24_1
I0407 23:53:03.498775 29293 net.cpp:395] conv24_1_postscale -> conv24_1 (in-place)
I0407 23:53:03.498940 29293 net.cpp:150] Setting up conv24_1_postscale
I0407 23:53:03.498950 29293 net.cpp:157] Top shape: 64 150 18 18 (3110400)
I0407 23:53:03.498953 29293 net.cpp:165] Memory required for data: 6415023104
I0407 23:53:03.498957 29293 layer_factory.hpp:77] Creating layer pool24_1
I0407 23:53:03.498965 29293 net.cpp:100] Creating Layer pool24_1
I0407 23:53:03.498968 29293 net.cpp:434] pool24_1 <- conv24_1
I0407 23:53:03.498975 29293 net.cpp:408] pool24_1 -> pool24_1
I0407 23:53:03.499034 29293 net.cpp:150] Setting up pool24_1
I0407 23:53:03.499042 29293 net.cpp:157] Top shape: 64 150 9 9 (777600)
I0407 23:53:03.499045 29293 net.cpp:165] Memory required for data: 6418133504
I0407 23:53:03.499048 29293 layer_factory.hpp:77] Creating layer conv24_2
I0407 23:53:03.499058 29293 net.cpp:100] Creating Layer conv24_2
I0407 23:53:03.499060 29293 net.cpp:434] conv24_2 <- pool24_1
I0407 23:53:03.499068 29293 net.cpp:408] conv24_2 -> conv24_2
I0407 23:53:03.506188 29293 net.cpp:150] Setting up conv24_2
I0407 23:53:03.506206 29293 net.cpp:157] Top shape: 64 250 6 6 (576000)
I0407 23:53:03.506209 29293 net.cpp:165] Memory required for data: 6420437504
I0407 23:53:03.506217 29293 layer_factory.hpp:77] Creating layer conv24_2_prescale
I0407 23:53:03.506223 29293 net.cpp:100] Creating Layer conv24_2_prescale
I0407 23:53:03.506227 29293 net.cpp:434] conv24_2_prescale <- conv24_2
I0407 23:53:03.506234 29293 net.cpp:395] conv24_2_prescale -> conv24_2 (in-place)
I0407 23:53:03.506392 29293 net.cpp:150] Setting up conv24_2_prescale
I0407 23:53:03.506402 29293 net.cpp:157] Top shape: 64 250 6 6 (576000)
I0407 23:53:03.506404 29293 net.cpp:165] Memory required for data: 6422741504
I0407 23:53:03.506408 29293 layer_factory.hpp:77] Creating layer conv24_2_sTanH
I0407 23:53:03.506414 29293 net.cpp:100] Creating Layer conv24_2_sTanH
I0407 23:53:03.506418 29293 net.cpp:434] conv24_2_sTanH <- conv24_2
I0407 23:53:03.506424 29293 net.cpp:395] conv24_2_sTanH -> conv24_2 (in-place)
I0407 23:53:03.509356 29293 net.cpp:150] Setting up conv24_2_sTanH
I0407 23:53:03.509371 29293 net.cpp:157] Top shape: 64 250 6 6 (576000)
I0407 23:53:03.509387 29293 net.cpp:165] Memory required for data: 6425045504
I0407 23:53:03.509390 29293 layer_factory.hpp:77] Creating layer conv24_2_postscale
I0407 23:53:03.509410 29293 net.cpp:100] Creating Layer conv24_2_postscale
I0407 23:53:03.509415 29293 net.cpp:434] conv24_2_postscale <- conv24_2
I0407 23:53:03.509443 29293 net.cpp:395] conv24_2_postscale -> conv24_2 (in-place)
I0407 23:53:03.509596 29293 net.cpp:150] Setting up conv24_2_postscale
I0407 23:53:03.509606 29293 net.cpp:157] Top shape: 64 250 6 6 (576000)
I0407 23:53:03.509609 29293 net.cpp:165] Memory required for data: 6427349504
I0407 23:53:03.509614 29293 layer_factory.hpp:77] Creating layer pool24_2
I0407 23:53:03.509621 29293 net.cpp:100] Creating Layer pool24_2
I0407 23:53:03.509625 29293 net.cpp:434] pool24_2 <- conv24_2
I0407 23:53:03.509630 29293 net.cpp:408] pool24_2 -> pool24_2
I0407 23:53:03.509690 29293 net.cpp:150] Setting up pool24_2
I0407 23:53:03.509698 29293 net.cpp:157] Top shape: 64 250 3 3 (144000)
I0407 23:53:03.509701 29293 net.cpp:165] Memory required for data: 6427925504
I0407 23:53:03.509704 29293 layer_factory.hpp:77] Creating layer fc24_4_300
I0407 23:53:03.509709 29293 net.cpp:100] Creating Layer fc24_4_300
I0407 23:53:03.509713 29293 net.cpp:434] fc24_4_300 <- pool24_2
I0407 23:53:03.509721 29293 net.cpp:408] fc24_4_300 -> fc24_4
I0407 23:53:03.515636 29293 net.cpp:150] Setting up fc24_4_300
I0407 23:53:03.515651 29293 net.cpp:157] Top shape: 64 300 (19200)
I0407 23:53:03.515655 29293 net.cpp:165] Memory required for data: 6428002304
I0407 23:53:03.515661 29293 layer_factory.hpp:77] Creating layer fc24_4_prescale
I0407 23:53:03.515669 29293 net.cpp:100] Creating Layer fc24_4_prescale
I0407 23:53:03.515673 29293 net.cpp:434] fc24_4_prescale <- fc24_4
I0407 23:53:03.515679 29293 net.cpp:395] fc24_4_prescale -> fc24_4 (in-place)
I0407 23:53:03.515858 29293 net.cpp:150] Setting up fc24_4_prescale
I0407 23:53:03.515868 29293 net.cpp:157] Top shape: 64 300 (19200)
I0407 23:53:03.515872 29293 net.cpp:165] Memory required for data: 6428079104
I0407 23:53:03.515877 29293 layer_factory.hpp:77] Creating layer fc24_4_sTanH
I0407 23:53:03.515887 29293 net.cpp:100] Creating Layer fc24_4_sTanH
I0407 23:53:03.515890 29293 net.cpp:434] fc24_4_sTanH <- fc24_4
I0407 23:53:03.515895 29293 net.cpp:395] fc24_4_sTanH -> fc24_4 (in-place)
I0407 23:53:03.516167 29293 net.cpp:150] Setting up fc24_4_sTanH
I0407 23:53:03.516178 29293 net.cpp:157] Top shape: 64 300 (19200)
I0407 23:53:03.516181 29293 net.cpp:165] Memory required for data: 6428155904
I0407 23:53:03.516185 29293 layer_factory.hpp:77] Creating layer fc24_4_postscale
I0407 23:53:03.516193 29293 net.cpp:100] Creating Layer fc24_4_postscale
I0407 23:53:03.516196 29293 net.cpp:434] fc24_4_postscale <- fc24_4
I0407 23:53:03.516201 29293 net.cpp:395] fc24_4_postscale -> fc24_4 (in-place)
I0407 23:53:03.516376 29293 net.cpp:150] Setting up fc24_4_postscale
I0407 23:53:03.516386 29293 net.cpp:157] Top shape: 64 300 (19200)
I0407 23:53:03.516387 29293 net.cpp:165] Memory required for data: 6428232704
I0407 23:53:03.516392 29293 layer_factory.hpp:77] Creating layer drop24_4
I0407 23:53:03.516399 29293 net.cpp:100] Creating Layer drop24_4
I0407 23:53:03.516403 29293 net.cpp:434] drop24_4 <- fc24_4
I0407 23:53:03.516407 29293 net.cpp:395] drop24_4 -> fc24_4 (in-place)
I0407 23:53:03.516441 29293 net.cpp:150] Setting up drop24_4
I0407 23:53:03.516449 29293 net.cpp:157] Top shape: 64 300 (19200)
I0407 23:53:03.516451 29293 net.cpp:165] Memory required for data: 6428309504
I0407 23:53:03.516454 29293 layer_factory.hpp:77] Creating layer fc24_5_67
I0407 23:53:03.516459 29293 net.cpp:100] Creating Layer fc24_5_67
I0407 23:53:03.516463 29293 net.cpp:434] fc24_5_67 <- fc24_4
I0407 23:53:03.516469 29293 net.cpp:408] fc24_5_67 -> fc24_5
I0407 23:53:03.516763 29293 net.cpp:150] Setting up fc24_5_67
I0407 23:53:03.516772 29293 net.cpp:157] Top shape: 64 67 (4288)
I0407 23:53:03.516774 29293 net.cpp:165] Memory required for data: 6428326656
I0407 23:53:03.516780 29293 layer_factory.hpp:77] Creating layer softmax_24
I0407 23:53:03.516785 29293 net.cpp:100] Creating Layer softmax_24
I0407 23:53:03.516788 29293 net.cpp:434] softmax_24 <- fc24_5
I0407 23:53:03.516795 29293 net.cpp:408] softmax_24 -> softmax_24
I0407 23:53:03.517156 29293 net.cpp:150] Setting up softmax_24
I0407 23:53:03.517168 29293 net.cpp:157] Top shape: 64 67 (4288)
I0407 23:53:03.517182 29293 net.cpp:165] Memory required for data: 6428343808
I0407 23:53:03.517185 29293 layer_factory.hpp:77] Creating layer averaging
I0407 23:53:03.517195 29293 net.cpp:100] Creating Layer averaging
I0407 23:53:03.517201 29293 net.cpp:434] averaging <- softmax_0
I0407 23:53:03.517206 29293 net.cpp:434] averaging <- softmax_1
I0407 23:53:03.517210 29293 net.cpp:434] averaging <- softmax_2
…
