…
I0408 21:11:59.712605  9048 net.cpp:322] The NetState phase (0) differed from the phase (1) specified by a rule in layer accuracy_5
I0408 21:11:59.713160  9048 net.cpp:58] Initializing net from parameters: 
state {
  phase: TRAIN
  level: 0
  stage: ""
}
layer {
  name: "data_0"
  type: "Data"
  top: "data_0"
  top: "label_0"
  include {
    phase: TRAIN
  }
  transform_param {
    mirror: false
    crop_size: 48
    mean_value: 115
    mean_value: 107
    mean_value: 120
  }
  data_param {
    source: "../local_data/lmdb/rtsd-r1/orig/train/lmdb"
    batch_size: 150
    backend: LMDB
  }
}
layer {
  name: "conv0_0"
  type: "Convolution"
  bottom: "data_0"
  top: "conv0_0"
  convolution_param {
    num_output: 100
    pad: 0
    kernel_size: 7
    group: 1
    stride: 1
    weight_filler {
      type: "xavier"
    }
  }
}
layer {
  name: "conv0_0_prescale"
  type: "Scale"
  bottom: "conv0_0"
  top: "conv0_0"
  param {
    lr_mult: 0
    decay_mult: 0
  }
  scale_param {
    filler {
      value: 0.6666
    }
  }
}
layer {
  name: "conv0_0_sTanH"
  type: "TanH"
  bottom: "conv0_0"
  top: "conv0_0"
}
layer {
  name: "conv0_0_postscale"
  type: "Scale"
  bottom: "conv0_0"
  top: "conv0_0"
  param {
    lr_mult: 0
    decay_mult: 0
  }
  scale_param {
    filler {
      value: 1.7159
    }
  }
}
layer {
  name: "pool0_0"
  type: "Pooling"
  bottom: "conv0_0"
  top: "pool0_0"
  pooling_param {
    pool: MAX
    kernel_size: 2
    stride: 2
  }
}
layer {
  name: "conv0_1"
  type: "Convolution"
  bottom: "pool0_0"
  top: "conv0_1"
  convolution_param {
    num_output: 150
    pad: 0
    kernel_size: 4
    group: 1
    stride: 1
    weight_filler {
      type: "xavier"
    }
  }
}
layer {
  name: "conv0_1_prescale"
  type: "Scale"
  bottom: "conv0_1"
  top: "conv0_1"
  param {
    lr_mult: 0
    decay_mult: 0
  }
  scale_param {
    filler {
      value: 0.6666
    }
  }
}
layer {
  name: "conv0_1_sTanH"
  type: "TanH"
  bottom: "conv0_1"
  top: "conv0_1"
}
layer {
  name: "conv0_1_postscale"
  type: "Scale"
  bottom: "conv0_1"
  top: "conv0_1"
  param {
    lr_mult: 0
    decay_mult: 0
  }
  scale_param {
    filler {
      value: 1.7159
    }
  }
}
layer {
  name: "pool0_1"
  type: "Pooling"
  bottom: "conv0_1"
  top: "pool0_1"
  pooling_param {
    pool: MAX
    kernel_size: 2
    stride: 2
  }
}
layer {
  name: "conv0_2"
  type: "Convolution"
  bottom: "pool0_1"
  top: "conv0_2"
  convolution_param {
    num_output: 250
    pad: 0
    kernel_size: 4
    group: 1
    stride: 1
    weight_filler {
      type: "xavier"
    }
  }
}
layer {
  name: "conv0_2_prescale"
  type: "Scale"
  bottom: "conv0_2"
  top: "conv0_2"
  param {
    lr_mult: 0
    decay_mult: 0
  }
  scale_param {
    filler {
      value: 0.6666
    }
  }
}
layer {
  name: "conv0_2_sTanH"
  type: "TanH"
  bottom: "conv0_2"
  top: "conv0_2"
}
layer {
  name: "conv0_2_postscale"
  type: "Scale"
  bottom: "conv0_2"
  top: "conv0_2"
  param {
    lr_mult: 0
    decay_mult: 0
  }
  scale_param {
    filler {
      value: 1.7159
    }
  }
}
layer {
  name: "pool0_2"
  type: "Pooling"
  bottom: "conv0_2"
  top: "pool0_2"
  pooling_param {
    pool: MAX
    kernel_size: 2
    stride: 2
  }
}
layer {
  name: "fc0_4_300"
  type: "InnerProduct"
  bottom: "pool0_2"
  top: "fc0_4"
  inner_product_param {
    num_output: 300
    weight_filler {
      type: "xavier"
    }
  }
}
layer {
  name: "fc0_4_prescale"
  type: "Scale"
  bottom: "fc0_4"
  top: "fc0_4"
  param {
    lr_mult: 0
    decay_mult: 0
  }
  scale_param {
    filler {
      value: 0.6666
    }
  }
}
layer {
  name: "fc0_4_sTanH"
  type: "TanH"
  bottom: "fc0_4"
  top: "fc0_4"
}
layer {
  name: "fc0_4_postscale"
  type: "Scale"
  bottom: "fc0_4"
  top: "fc0_4"
  param {
    lr_mult: 0
    decay_mult: 0
  }
  scale_param {
    filler {
      value: 1.7159
    }
  }
}
layer {
  name: "drop0_4"
  type: "Dropout"
  bottom: "fc0_4"
  top: "fc0_4"
  dropout_param {
    dropout_ratio: 0.4
  }
}
layer {
  name: "fc0_5_67"
  type: "InnerProduct"
  bottom: "fc0_4"
  top: "fc0_5"
  inner_product_param {
    num_output: 67
    weight_filler {
      type: "xavier"
    }
  }
}
layer {
  name: "softmax_0"
  type: "Softmax"
  bottom: "fc0_5"
  top: "softmax_0"
}
layer {
  name: "data_1"
  type: "Data"
  top: "data_1"
  top: "label_1"
  include {
    phase: TRAIN
  }
  transform_param {
    mirror: false
    crop_size: 48
    mean_value: 122
    mean_value: 115
    mean_value: 128
  }
  data_param {
    source: "../local_data/lmdb/rtsd-r1/histeq/train/lmdb"
    batch_size: 150
    backend: LMDB
  }
}
layer {
  name: "conv1_0"
  type: "Convolution"
  bottom: "data_1"
  top: "conv1_0"
  convolution_param {
    num_output: 100
    pad: 0
    kernel_size: 7
    group: 1
    stride: 1
    weight_filler {
      type: "xavier"
    }
  }
}
layer {
  name: "conv1_0_prescale"
  type: "Scale"
  bottom: "conv1_0"
  top: "conv1_0"
  param {
    lr_mult: 0
    decay_mult: 0
  }
  scale_param {
    filler {
      value: 0.6666
    }
  }
}
layer {
  name: "conv1_0_sTanH"
  type: "TanH"
  bottom: "conv1_0"
  top: "conv1_0"
}
layer {
  name: "conv1_0_postscale"
  type: "Scale"
  bottom: "conv1_0"
  top: "conv1_0"
  param {
    lr_mult: 0
    decay_mult: 0
  }
  scale_param {
    filler {
      value: 1.7159
    }
  }
}
layer {
  name: "pool1_0"
  type: "Pooling"
  bottom: "conv1_0"
  top: "pool1_0"
  pooling_param {
    pool: MAX
    kernel_size: 2
    stride: 2
  }
}
layer {
  name: "conv1_1"
  type: "Convolution"
  bottom: "pool1_0"
  top: "conv1_1"
  convolution_param {
    num_output: 150
    pad: 0
    kernel_size: 4
    group: 1
    stride: 1
    weight_filler {
      type: "xavier"
    }
  }
}
layer {
  name: "conv1_1_prescale"
  type: "Scale"
  bottom: "conv1_1"
  top: "conv1_1"
  param {
    lr_mult: 0
    decay_mult: 0
  }
  scale_param {
    filler {
      value: 0.6666
    }
  }
}
layer {
  name: "conv1_1_sTanH"
  type: "TanH"
  bottom: "conv1_1"
  top: "conv1_1"
}
layer {
  name: "conv1_1_postscale"
  type: "Scale"
  bottom: "conv1_1"
  top: "conv1_1"
  param {
    lr_mult: 0
    decay_mult: 0
  }
  scale_param {
    filler {
      value: 1.7159
    }
  }
}
layer {
  name: "pool1_1"
  type: "Pooling"
  bottom: "conv1_1"
  top: "pool1_1"
  pooling_param {
    pool: MAX
    kernel_size: 2
    stride: 2
  }
}
layer {
  name: "conv1_2"
  type: "Convolution"
  bottom: "pool1_1"
  top: "conv1_2"
  convolution_param {
    num_output: 250
    pad: 0
    kernel_size: 4
    group: 1
    stride: 1
    weight_filler {
      type: "xavier"
    }
  }
}
layer {
  name: "conv1_2_prescale"
  type: "Scale"
  bottom: "conv1_2"
  top: "conv1_2"
  param {
    lr_mult: 0
    decay_mult: 0
  }
  scale_param {
    filler {
      value: 0.6666
    }
  }
}
layer {
  name: "conv1_2_sTanH"
  type: "TanH"
  bottom: "conv1_2"
  top: "conv1_2"
}
layer {
  name: "conv1_2_postscale"
  type: "Scale"
  bottom: "conv1_2"
  top: "conv1_2"
  param {
    lr_mult: 0
    decay_mult: 0
  }
  scale_param {
    filler {
      value: 1.7159
    }
  }
}
layer {
  name: "pool1_2"
  type: "Pooling"
  bottom: "conv1_2"
  top: "pool1_2"
  pooling_param {
    pool: MAX
    kernel_size: 2
    stride: 2
  }
}
layer {
  name: "fc1_4_300"
  type: "InnerProduct"
  bottom: "pool1_2"
  top: "fc1_4"
  inner_product_param {
    num_output: 300
    weight_filler {
      type: "xavier"
    }
  }
}
layer {
  name: "fc1_4_prescale"
  type: "Scale"
  bottom: "fc1_4"
  top: "fc1_4"
  param {
    lr_mult: 0
    decay_mult: 0
  }
  scale_param {
    filler {
      value: 0.6666
    }
  }
}
layer {
  name: "fc1_4_sTanH"
  type: "TanH"
  bottom: "fc1_4"
  top: "fc1_4"
}
layer {
  name: "fc1_4_postscale"
  type: "Scale"
  bottom: "fc1_4"
  top: "fc1_4"
  param {
    lr_mult: 0
    decay_mult: 0
  }
  scale_param {
    filler {
      value: 1.7159
    }
  }
}
layer {
  name: "drop1_4"
  type: "Dropout"
  bottom: "fc1_4"
  top: "fc1_4"
  dropout_param {
    dropout_ratio: 0.4
  }
}
layer {
  name: "fc1_5_67"
  type: "InnerProduct"
  bottom: "fc1_4"
  top: "fc1_5"
  inner_product_param {
    num_output: 67
    weight_filler {
      type: "xavier"
    }
  }
}
layer {
  name: "softmax_1"
  type: "Softmax"
  bottom: "fc1_5"
  top: "softmax_1"
}
layer {
  name: "data_2"
  type: "Data"
  top: "data_2"
  top: "label_2"
  include {
    phase: TRAIN
  }
  transform_param {
    mirror: false
    crop_size: 48
    mean_value: 125
    mean_value: 118
    mean_value: 131
  }
  data_param {
    source: "../local_data/lmdb/rtsd-r1/AHE/train/lmdb"
    batch_size: 150
    backend: LMDB
  }
}
layer {
  name: "conv2_0"
  type: "Convolution"
  bottom: "data_2"
  top: "conv2_0"
  convolution_param {
    num_output: 100
    pad: 0
    kernel_size: 7
    group: 1
    stride: 1
    weight_filler {
      type: "xavier"
    }
  }
}
layer {
  name: "conv2_0_prescale"
  type: "Scale"
  bottom: "conv2_0"
  top: "conv2_0"
  param {
    lr_mult: 0
    decay_mult: 0
  }
  scale_param {
    filler {
      value: 0.6666
    }
  }
}
layer {
  name: "conv2_0_sTanH"
  type: "TanH"
  bottom: "conv2_0"
  top: "conv2_0"
}
layer {
  name: "conv2_0_postscale"
  type: "Scale"
  bottom: "conv2_0"
  top: "conv2_0"
  param {
    lr_mult: 0
    decay_mult: 0
  }
  scale_param {
    filler {
      value: 1.7159
    }
  }
}
layer {
  name: "pool2_0"
  type: "Pooling"
  bottom: "conv2_0"
  top: "pool2_0"
  pooling_param {
    pool: MAX
    kernel_size: 2
    stride: 2
  }
}
layer {
  name: "conv2_1"
  type: "Convolution"
  bottom: "pool2_0"
  top: "conv2_1"
  convolution_param {
    num_output: 150
    pad: 0
    kernel_size: 4
    group: 1
    stride: 1
    weight_filler {
      type: "xavier"
    }
  }
}
layer {
  name: "conv2_1_prescale"
  type: "Scale"
  bottom: "conv2_1"
  top: "conv2_1"
  param {
    lr_mult: 0
    decay_mult: 0
  }
  scale_param {
    filler {
      value: 0.6666
    }
  }
}
layer {
  name: "conv2_1_sTanH"
  type: "TanH"
  bottom: "conv2_1"
  top: "conv2_1"
}
layer {
  name: "conv2_1_postscale"
  type: "Scale"
  bottom: "conv2_1"
  top: "conv2_1"
  param {
    lr_mult: 0
    decay_mult: 0
  }
  scale_param {
    filler {
      value: 1.7159
    }
  }
}
layer {
  name: "pool2_1"
  type: "Pooling"
  bottom: "conv2_1"
  top: "pool2_1"
  pooling_param {
    pool: MAX
    kernel_size: 2
    stride: 2
  }
}
layer {
  name: "conv2_2"
  type: "Convolution"
  bottom: "pool2_1"
  top: "conv2_2"
  convolution_param {
    num_output: 250
    pad: 0
    kernel_size: 4
    group: 1
    stride: 1
    weight_filler {
      type: "xavier"
    }
  }
}
layer {
  name: "conv2_2_prescale"
  type: "Scale"
  bottom: "conv2_2"
  top: "conv2_2"
  param {
    lr_mult: 0
    decay_mult: 0
  }
  scale_param {
    filler {
      value: 0.6666
    }
  }
}
layer {
  name: "conv2_2_sTanH"
  type: "TanH"
  bottom: "conv2_2"
  top: "conv2_2"
}
layer {
  name: "conv2_2_postscale"
  type: "Scale"
  bottom: "conv2_2"
  top: "conv2_2"
  param {
    lr_mult: 0
    decay_mult: 0
  }
  scale_param {
    filler {
      value: 1.7159
    }
  }
}
layer {
  name: "pool2_2"
  type: "Pooling"
  bottom: "conv2_2"
  top: "pool2_2"
  pooling_param {
    pool: MAX
    kernel_size: 2
    stride: 2
  }
}
layer {
  name: "fc2_4_300"
  type: "InnerProduct"
  bottom: "pool2_2"
  top: "fc2_4"
  inner_product_param {
    num_output: 300
    weight_filler {
      type: "xavier"
    }
  }
}
layer {
  name: "fc2_4_prescale"
  type: "Scale"
  bottom: "fc2_4"
  top: "fc2_4"
  param {
    lr_mult: 0
    decay_mult: 0
  }
  scale_param {
    filler {
      value: 0.6666
    }
  }
}
layer {
  name: "fc2_4_sTanH"
  type: "TanH"
  bottom: "fc2_4"
  top: "fc2_4"
}
layer {
  name: "fc2_4_postscale"
  type: "Scale"
  bottom: "fc2_4"
  top: "fc2_4"
  param {
    lr_mult: 0
    decay_mult: 0
  }
  scale_param {
    filler {
      value: 1.7159
    }
  }
}
layer {
  name: "drop2_4"
  type: "Dropout"
  bottom: "fc2_4"
  top: "fc2_4"
  dropout_param {
    dropout_ratio: 0.4
  }
}
layer {
  name: "fc2_5_67"
  type: "InnerProduct"
  bottom: "fc2_4"
  top: "fc2_5"
  inner_product_param {
    num_output: 67
    weight_filler {
      type: "xavier"
    }
  }
}
layer {
  name: "softmax_2"
  type: "Softmax"
  bottom: "fc2_5"
  top: "softmax_2"
}
layer {
  name: "data_3"
  type: "Data"
  top: "data_3"
  top: "label_3"
  include {
    phase: TRAIN
  }
  transform_param {
    mirror: false
    crop_size: 48
    mean_value: 108
    mean_value: 101
    mean_value: 114
  }
  data_param {
    source: "../local_data/lmdb/rtsd-r1/imajust/train/lmdb"
    batch_size: 150
    backend: LMDB
  }
}
layer {
  name: "conv3_0"
  type: "Convolution"
  bottom: "data_3"
  top: "conv3_0"
  convolution_param {
    num_output: 100
    pad: 0
    kernel_size: 7
    group: 1
    stride: 1
    weight_filler {
      type: "xavier"
    }
  }
}
layer {
  name: "conv3_0_prescale"
  type: "Scale"
  bottom: "conv3_0"
  top: "conv3_0"
  param {
    lr_mult: 0
    decay_mult: 0
  }
  scale_param {
    filler {
      value: 0.6666
    }
  }
}
layer {
  name: "conv3_0_sTanH"
  type: "TanH"
  bottom: "conv3_0"
  top: "conv3_0"
}
layer {
  name: "conv3_0_postscale"
  type: "Scale"
  bottom: "conv3_0"
  top: "conv3_0"
  param {
    lr_mult: 0
    decay_mult: 0
  }
  scale_param {
    filler {
      value: 1.7159
    }
  }
}
layer {
  name: "pool3_0"
  type: "Pooling"
  bottom: "conv3_0"
  top: "pool3_0"
  pooling_param {
    pool: MAX
    kernel_size: 2
    stride: 2
  }
}
layer {
  name: "conv3_1"
  type: "Convolution"
  bottom: "pool3_0"
  top: "conv3_1"
  convolution_param {
    num_output: 150
    pad: 0
    kernel_size: 4
    group: 1
    stride: 1
    weight_filler {
      type: "xavier"
    }
  }
}
layer {
  name: "conv3_1_prescale"
  type: "Scale"
  bottom: "conv3_1"
  top: "conv3_1"
  param {
    lr_mult: 0
    decay_mult: 0
  }
  scale_param {
    filler {
      value: 0.6666
    }
  }
}
layer {
  name: "conv3_1_sTanH"
  type: "TanH"
  bottom: "conv3_1"
  top: "conv3_1"
}
layer {
  name: "conv3_1_postscale"
  type: "Scale"
  bottom: "conv3_1"
  top: "conv3_1"
  param {
    lr_mult: 0
    decay_mult: 0
  }
  scale_param {
    filler {
      value: 1.7159
    }
  }
}
layer {
  name: "pool3_1"
  type: "Pooling"
  bottom: "conv3_1"
  top: "pool3_1"
  pooling_param {
    pool: MAX
    kernel_size: 2
    stride: 2
  }
}
layer {
  name: "conv3_2"
  type: "Convolution"
  bottom: "pool3_1"
  top: "conv3_2"
  convolution_param {
    num_output: 250
    pad: 0
    kernel_size: 4
    group: 1
    stride: 1
    weight_filler {
      type: "xavier"
    }
  }
}
layer {
  name: "conv3_2_prescale"
  type: "Scale"
  bottom: "conv3_2"
  top: "conv3_2"
  param {
    lr_mult: 0
    decay_mult: 0
  }
  scale_param {
    filler {
      value: 0.6666
    }
  }
}
layer {
  name: "conv3_2_sTanH"
  type: "TanH"
  bottom: "conv3_2"
  top: "conv3_2"
}
layer {
  name: "conv3_2_postscale"
  type: "Scale"
  bottom: "conv3_2"
  top: "conv3_2"
  param {
    lr_mult: 0
    decay_mult: 0
  }
  scale_param {
    filler {
      value: 1.7159
    }
  }
}
layer {
  name: "pool3_2"
  type: "Pooling"
  bottom: "conv3_2"
  top: "pool3_2"
  pooling_param {
    pool: MAX
    kernel_size: 2
    stride: 2
  }
}
layer {
  name: "fc3_4_300"
  type: "InnerProduct"
  bottom: "pool3_2"
  top: "fc3_4"
  inner_product_param {
    num_output: 300
    weight_filler {
      type: "xavier"
    }
  }
}
layer {
  name: "fc3_4_prescale"
  type: "Scale"
  bottom: "fc3_4"
  top: "fc3_4"
  param {
    lr_mult: 0
    decay_mult: 0
  }
  scale_param {
    filler {
      value: 0.6666
    }
  }
}
layer {
  name: "fc3_4_sTanH"
  type: "TanH"
  bottom: "fc3_4"
  top: "fc3_4"
}
layer {
  name: "fc3_4_postscale"
  type: "Scale"
  bottom: "fc3_4"
  top: "fc3_4"
  param {
    lr_mult: 0
    decay_mult: 0
  }
  scale_param {
    filler {
      value: 1.7159
    }
  }
}
layer {
  name: "drop3_4"
  type: "Dropout"
  bottom: "fc3_4"
  top: "fc3_4"
  dropout_param {
    dropout_ratio: 0.4
  }
}
layer {
  name: "fc3_5_67"
  type: "InnerProduct"
  bottom: "fc3_4"
  top: "fc3_5"
  inner_product_param {
    num_output: 67
    weight_filler {
      type: "xavier"
    }
  }
}
layer {
  name: "softmax_3"
  type: "Softmax"
  bottom: "fc3_5"
  top: "softmax_3"
}
layer {
  name: "data_4"
  type: "Data"
  top: "data_4"
  top: "label_4"
  include {
    phase: TRAIN
  }
  transform_param {
    mirror: false
    crop_size: 48
    mean_value: 124
    mean_value: 123
    mean_value: 123
  }
  data_param {
    source: "../local_data/lmdb/rtsd-r1/CoNorm/train/lmdb"
    batch_size: 150
    backend: LMDB
  }
}
layer {
  name: "conv4_0"
  type: "Convolution"
  bottom: "data_4"
  top: "conv4_0"
  convolution_param {
    num_output: 100
    pad: 0
    kernel_size: 7
    group: 1
    stride: 1
    weight_filler {
      type: "xavier"
    }
  }
}
layer {
  name: "conv4_0_prescale"
  type: "Scale"
  bottom: "conv4_0"
  top: "conv4_0"
  param {
    lr_mult: 0
    decay_mult: 0
  }
  scale_param {
    filler {
      value: 0.6666
    }
  }
}
layer {
  name: "conv4_0_sTanH"
  type: "TanH"
  bottom: "conv4_0"
  top: "conv4_0"
}
layer {
  name: "conv4_0_postscale"
  type: "Scale"
  bottom: "conv4_0"
  top: "conv4_0"
  param {
    lr_mult: 0
    decay_mult: 0
  }
  scale_param {
    filler {
      value: 1.7159
    }
  }
}
layer {
  name: "pool4_0"
  type: "Pooling"
  bottom: "conv4_0"
  top: "pool4_0"
  pooling_param {
    pool: MAX
    kernel_size: 2
    stride: 2
  }
}
layer {
  name: "conv4_1"
  type: "Convolution"
  bottom: "pool4_0"
  top: "conv4_1"
  convolution_param {
    num_output: 150
    pad: 0
    kernel_size: 4
    group: 1
    stride: 1
    weight_filler {
      type: "xavier"
    }
  }
}
layer {
  name: "conv4_1_prescale"
  type: "Scale"
  bottom: "conv4_1"
  top: "conv4_1"
  param {
    lr_mult: 0
    decay_mult: 0
  }
  scale_param {
    filler {
      value: 0.6666
    }
  }
}
layer {
  name: "conv4_1_sTanH"
  type: "TanH"
  bottom: "conv4_1"
  top: "conv4_1"
}
layer {
  name: "conv4_1_postscale"
  type: "Scale"
  bottom: "conv4_1"
  top: "conv4_1"
  param {
    lr_mult: 0
    decay_mult: 0
  }
  scale_param {
    filler {
      value: 1.7159
    }
  }
}
layer {
  name: "pool4_1"
  type: "Pooling"
  bottom: "conv4_1"
  top: "pool4_1"
  pooling_param {
    pool: MAX
    kernel_size: 2
    stride: 2
  }
}
layer {
  name: "conv4_2"
  type: "Convolution"
  bottom: "pool4_1"
  top: "conv4_2"
  convolution_param {
    num_output: 250
    pad: 0
    kernel_size: 4
    group: 1
    stride: 1
    weight_filler {
      type: "xavier"
    }
  }
}
layer {
  name: "conv4_2_prescale"
  type: "Scale"
  bottom: "conv4_2"
  top: "conv4_2"
  param {
    lr_mult: 0
    decay_mult: 0
  }
  scale_param {
    filler {
      value: 0.6666
    }
  }
}
layer {
  name: "conv4_2_sTanH"
  type: "TanH"
  bottom: "conv4_2"
  top: "conv4_2"
}
layer {
  name: "conv4_2_postscale"
  type: "Scale"
  bottom: "conv4_2"
  top: "conv4_2"
  param {
    lr_mult: 0
    decay_mult: 0
  }
  scale_param {
    filler {
      value: 1.7159
    }
  }
}
layer {
  name: "pool4_2"
  type: "Pooling"
  bottom: "conv4_2"
  top: "pool4_2"
  pooling_param {
    pool: MAX
    kernel_size: 2
    stride: 2
  }
}
layer {
  name: "fc4_4_300"
  type: "InnerProduct"
  bottom: "pool4_2"
  top: "fc4_4"
  inner_product_param {
    num_output: 300
    weight_filler {
      type: "xavier"
    }
  }
}
layer {
  name: "fc4_4_prescale"
  type: "Scale"
  bottom: "fc4_4"
  top: "fc4_4"
  param {
    lr_mult: 0
    decay_mult: 0
  }
  scale_param {
    filler {
      value: 0.6666
    }
  }
}
layer {
  name: "fc4_4_sTanH"
  type: "TanH"
  bottom: "fc4_4"
  top: "fc4_4"
}
layer {
  name: "fc4_4_postscale"
  type: "Scale"
  bottom: "fc4_4"
  top: "fc4_4"
  param {
    lr_mult: 0
    decay_mult: 0
  }
  scale_param {
    filler {
      value: 1.7159
    }
  }
}
layer {
  name: "drop4_4"
  type: "Dropout"
  bottom: "fc4_4"
  top: "fc4_4"
  dropout_param {
    dropout_ratio: 0.4
  }
}
layer {
  name: "fc4_5_67"
  type: "InnerProduct"
  bottom: "fc4_4"
  top: "fc4_5"
  inner_product_param {
    num_output: 67
    weight_filler {
      type: "xavier"
    }
  }
}
layer {
  name: "softmax_4"
  type: "Softmax"
  bottom: "fc4_5"
  top: "softmax_4"
}
layer {
  name: "averaging"
  type: "Eltwise"
  bottom: "softmax_0"
  bottom: "softmax_1"
  bottom: "softmax_2"
  bottom: "softmax_3"
  bottom: "softmax_4"
  top: "eltwize"
  eltwise_param {
    operation: SUM
    coeff: 0.2
    coeff: 0.2
    coeff: 0.2
    coeff: 0.2
    coeff: 0.2
  }
}
layer {
  name: "loss"
  type: "MultinomialLogisticLoss"
  bottom: "eltwize"
  bottom: "label_0"
  top: "loss"
}
layer {
  name: "silence"
  type: "Silence"
  bottom: "label_1"
  bottom: "label_2"
  bottom: "label_3"
  bottom: "label_4"
}
I0408 21:11:59.713506  9048 layer_factory.hpp:77] Creating layer data_0
I0408 21:11:59.714256  9048 net.cpp:100] Creating Layer data_0
I0408 21:11:59.714270  9048 net.cpp:408] data_0 -> data_0
I0408 21:11:59.714293  9048 net.cpp:408] data_0 -> label_0
I0408 21:11:59.715469  9120 db_lmdb.cpp:35] Opened lmdb ../local_data/lmdb/rtsd-r1/orig/train/lmdb
I0408 21:11:59.731227  9048 data_layer.cpp:41] output data size: 150,3,48,48
I0408 21:11:59.739454  9048 net.cpp:150] Setting up data_0
I0408 21:11:59.739486  9048 net.cpp:157] Top shape: 150 3 48 48 (1036800)
I0408 21:11:59.739492  9048 net.cpp:157] Top shape: 150 (150)
I0408 21:11:59.739495  9048 net.cpp:165] Memory required for data: 4147800
I0408 21:11:59.739503  9048 layer_factory.hpp:77] Creating layer conv0_0
I0408 21:11:59.739524  9048 net.cpp:100] Creating Layer conv0_0
I0408 21:11:59.739534  9048 net.cpp:434] conv0_0 <- data_0
I0408 21:11:59.739547  9048 net.cpp:408] conv0_0 -> conv0_0
I0408 21:12:00.009639  9048 net.cpp:150] Setting up conv0_0
I0408 21:12:00.009670  9048 net.cpp:157] Top shape: 150 100 42 42 (26460000)
I0408 21:12:00.009675  9048 net.cpp:165] Memory required for data: 109987800
I0408 21:12:00.009696  9048 layer_factory.hpp:77] Creating layer conv0_0_prescale
I0408 21:12:00.009711  9048 net.cpp:100] Creating Layer conv0_0_prescale
I0408 21:12:00.009719  9048 net.cpp:434] conv0_0_prescale <- conv0_0
I0408 21:12:00.009727  9048 net.cpp:395] conv0_0_prescale -> conv0_0 (in-place)
I0408 21:12:00.009842  9048 net.cpp:150] Setting up conv0_0_prescale
I0408 21:12:00.009851  9048 net.cpp:157] Top shape: 150 100 42 42 (26460000)
I0408 21:12:00.009855  9048 net.cpp:165] Memory required for data: 215827800
I0408 21:12:00.009861  9048 layer_factory.hpp:77] Creating layer conv0_0_sTanH
I0408 21:12:00.009867  9048 net.cpp:100] Creating Layer conv0_0_sTanH
I0408 21:12:00.009871  9048 net.cpp:434] conv0_0_sTanH <- conv0_0
I0408 21:12:00.009876  9048 net.cpp:395] conv0_0_sTanH -> conv0_0 (in-place)
I0408 21:12:00.010064  9048 net.cpp:150] Setting up conv0_0_sTanH
I0408 21:12:00.010076  9048 net.cpp:157] Top shape: 150 100 42 42 (26460000)
I0408 21:12:00.010079  9048 net.cpp:165] Memory required for data: 321667800
I0408 21:12:00.010083  9048 layer_factory.hpp:77] Creating layer conv0_0_postscale
I0408 21:12:00.010092  9048 net.cpp:100] Creating Layer conv0_0_postscale
I0408 21:12:00.010095  9048 net.cpp:434] conv0_0_postscale <- conv0_0
I0408 21:12:00.010100  9048 net.cpp:395] conv0_0_postscale -> conv0_0 (in-place)
I0408 21:12:00.010191  9048 net.cpp:150] Setting up conv0_0_postscale
I0408 21:12:00.010200  9048 net.cpp:157] Top shape: 150 100 42 42 (26460000)
I0408 21:12:00.010202  9048 net.cpp:165] Memory required for data: 427507800
I0408 21:12:00.010207  9048 layer_factory.hpp:77] Creating layer pool0_0
I0408 21:12:00.010215  9048 net.cpp:100] Creating Layer pool0_0
I0408 21:12:00.010217  9048 net.cpp:434] pool0_0 <- conv0_0
I0408 21:12:00.010222  9048 net.cpp:408] pool0_0 -> pool0_0
I0408 21:12:00.010267  9048 net.cpp:150] Setting up pool0_0
I0408 21:12:00.010290  9048 net.cpp:157] Top shape: 150 100 21 21 (6615000)
I0408 21:12:00.010293  9048 net.cpp:165] Memory required for data: 453967800
I0408 21:12:00.010298  9048 layer_factory.hpp:77] Creating layer conv0_1
I0408 21:12:00.010308  9048 net.cpp:100] Creating Layer conv0_1
I0408 21:12:00.010310  9048 net.cpp:434] conv0_1 <- pool0_0
I0408 21:12:00.010315  9048 net.cpp:408] conv0_1 -> conv0_1
I0408 21:12:00.015578  9048 net.cpp:150] Setting up conv0_1
I0408 21:12:00.015594  9048 net.cpp:157] Top shape: 150 150 18 18 (7290000)
I0408 21:12:00.015599  9048 net.cpp:165] Memory required for data: 483127800
I0408 21:12:00.015609  9048 layer_factory.hpp:77] Creating layer conv0_1_prescale
I0408 21:12:00.015628  9048 net.cpp:100] Creating Layer conv0_1_prescale
I0408 21:12:00.015635  9048 net.cpp:434] conv0_1_prescale <- conv0_1
I0408 21:12:00.015641  9048 net.cpp:395] conv0_1_prescale -> conv0_1 (in-place)
I0408 21:12:00.015743  9048 net.cpp:150] Setting up conv0_1_prescale
I0408 21:12:00.015751  9048 net.cpp:157] Top shape: 150 150 18 18 (7290000)
I0408 21:12:00.015754  9048 net.cpp:165] Memory required for data: 512287800
I0408 21:12:00.015759  9048 layer_factory.hpp:77] Creating layer conv0_1_sTanH
I0408 21:12:00.015766  9048 net.cpp:100] Creating Layer conv0_1_sTanH
I0408 21:12:00.015770  9048 net.cpp:434] conv0_1_sTanH <- conv0_1
I0408 21:12:00.015774  9048 net.cpp:395] conv0_1_sTanH -> conv0_1 (in-place)
I0408 21:12:00.016530  9048 net.cpp:150] Setting up conv0_1_sTanH
I0408 21:12:00.016544  9048 net.cpp:157] Top shape: 150 150 18 18 (7290000)
I0408 21:12:00.016547  9048 net.cpp:165] Memory required for data: 541447800
I0408 21:12:00.016551  9048 layer_factory.hpp:77] Creating layer conv0_1_postscale
I0408 21:12:00.016558  9048 net.cpp:100] Creating Layer conv0_1_postscale
I0408 21:12:00.016562  9048 net.cpp:434] conv0_1_postscale <- conv0_1
I0408 21:12:00.016567  9048 net.cpp:395] conv0_1_postscale -> conv0_1 (in-place)
I0408 21:12:00.016683  9048 net.cpp:150] Setting up conv0_1_postscale
I0408 21:12:00.016692  9048 net.cpp:157] Top shape: 150 150 18 18 (7290000)
I0408 21:12:00.016695  9048 net.cpp:165] Memory required for data: 570607800
I0408 21:12:00.016700  9048 layer_factory.hpp:77] Creating layer pool0_1
I0408 21:12:00.016705  9048 net.cpp:100] Creating Layer pool0_1
I0408 21:12:00.016722  9048 net.cpp:434] pool0_1 <- conv0_1
I0408 21:12:00.016728  9048 net.cpp:408] pool0_1 -> pool0_1
I0408 21:12:00.016764  9048 net.cpp:150] Setting up pool0_1
I0408 21:12:00.016772  9048 net.cpp:157] Top shape: 150 150 9 9 (1822500)
I0408 21:12:00.016774  9048 net.cpp:165] Memory required for data: 577897800
I0408 21:12:00.016777  9048 layer_factory.hpp:77] Creating layer conv0_2
I0408 21:12:00.016785  9048 net.cpp:100] Creating Layer conv0_2
I0408 21:12:00.016788  9048 net.cpp:434] conv0_2 <- pool0_1
I0408 21:12:00.016793  9048 net.cpp:408] conv0_2 -> conv0_2
I0408 21:12:00.022125  9048 net.cpp:150] Setting up conv0_2
I0408 21:12:00.022140  9048 net.cpp:157] Top shape: 150 250 6 6 (1350000)
I0408 21:12:00.022145  9048 net.cpp:165] Memory required for data: 583297800
I0408 21:12:00.022155  9048 layer_factory.hpp:77] Creating layer conv0_2_prescale
I0408 21:12:00.022162  9048 net.cpp:100] Creating Layer conv0_2_prescale
I0408 21:12:00.022166  9048 net.cpp:434] conv0_2_prescale <- conv0_2
I0408 21:12:00.022171  9048 net.cpp:395] conv0_2_prescale -> conv0_2 (in-place)
I0408 21:12:00.022267  9048 net.cpp:150] Setting up conv0_2_prescale
I0408 21:12:00.022275  9048 net.cpp:157] Top shape: 150 250 6 6 (1350000)
I0408 21:12:00.022279  9048 net.cpp:165] Memory required for data: 588697800
I0408 21:12:00.022284  9048 layer_factory.hpp:77] Creating layer conv0_2_sTanH
I0408 21:12:00.022289  9048 net.cpp:100] Creating Layer conv0_2_sTanH
I0408 21:12:00.022292  9048 net.cpp:434] conv0_2_sTanH <- conv0_2
I0408 21:12:00.022296  9048 net.cpp:395] conv0_2_sTanH -> conv0_2 (in-place)
I0408 21:12:00.023056  9048 net.cpp:150] Setting up conv0_2_sTanH
I0408 21:12:00.023082  9048 net.cpp:157] Top shape: 150 250 6 6 (1350000)
I0408 21:12:00.023120  9048 net.cpp:165] Memory required for data: 594097800
I0408 21:12:00.023125  9048 layer_factory.hpp:77] Creating layer conv0_2_postscale
I0408 21:12:00.023144  9048 net.cpp:100] Creating Layer conv0_2_postscale
I0408 21:12:00.023149  9048 net.cpp:434] conv0_2_postscale <- conv0_2
I0408 21:12:00.023154  9048 net.cpp:395] conv0_2_postscale -> conv0_2 (in-place)
I0408 21:12:00.023247  9048 net.cpp:150] Setting up conv0_2_postscale
I0408 21:12:00.023255  9048 net.cpp:157] Top shape: 150 250 6 6 (1350000)
I0408 21:12:00.023258  9048 net.cpp:165] Memory required for data: 599497800
I0408 21:12:00.023263  9048 layer_factory.hpp:77] Creating layer pool0_2
I0408 21:12:00.023269  9048 net.cpp:100] Creating Layer pool0_2
I0408 21:12:00.023273  9048 net.cpp:434] pool0_2 <- conv0_2
I0408 21:12:00.023278  9048 net.cpp:408] pool0_2 -> pool0_2
I0408 21:12:00.023313  9048 net.cpp:150] Setting up pool0_2
I0408 21:12:00.023319  9048 net.cpp:157] Top shape: 150 250 3 3 (337500)
I0408 21:12:00.023322  9048 net.cpp:165] Memory required for data: 600847800
I0408 21:12:00.023326  9048 layer_factory.hpp:77] Creating layer fc0_4_300
I0408 21:12:00.023335  9048 net.cpp:100] Creating Layer fc0_4_300
I0408 21:12:00.023339  9048 net.cpp:434] fc0_4_300 <- pool0_2
I0408 21:12:00.023344  9048 net.cpp:408] fc0_4_300 -> fc0_4
I0408 21:12:00.028647  9048 net.cpp:150] Setting up fc0_4_300
I0408 21:12:00.028663  9048 net.cpp:157] Top shape: 150 300 (45000)
I0408 21:12:00.028666  9048 net.cpp:165] Memory required for data: 601027800
I0408 21:12:00.028673  9048 layer_factory.hpp:77] Creating layer fc0_4_prescale
I0408 21:12:00.028679  9048 net.cpp:100] Creating Layer fc0_4_prescale
I0408 21:12:00.028683  9048 net.cpp:434] fc0_4_prescale <- fc0_4
I0408 21:12:00.028688  9048 net.cpp:395] fc0_4_prescale -> fc0_4 (in-place)
I0408 21:12:00.028786  9048 net.cpp:150] Setting up fc0_4_prescale
I0408 21:12:00.028795  9048 net.cpp:157] Top shape: 150 300 (45000)
I0408 21:12:00.028797  9048 net.cpp:165] Memory required for data: 601207800
I0408 21:12:00.028802  9048 layer_factory.hpp:77] Creating layer fc0_4_sTanH
I0408 21:12:00.028807  9048 net.cpp:100] Creating Layer fc0_4_sTanH
I0408 21:12:00.028810  9048 net.cpp:434] fc0_4_sTanH <- fc0_4
I0408 21:12:00.028815  9048 net.cpp:395] fc0_4_sTanH -> fc0_4 (in-place)
I0408 21:12:00.028988  9048 net.cpp:150] Setting up fc0_4_sTanH
I0408 21:12:00.028998  9048 net.cpp:157] Top shape: 150 300 (45000)
I0408 21:12:00.029001  9048 net.cpp:165] Memory required for data: 601387800
I0408 21:12:00.029006  9048 layer_factory.hpp:77] Creating layer fc0_4_postscale
I0408 21:12:00.029011  9048 net.cpp:100] Creating Layer fc0_4_postscale
I0408 21:12:00.029016  9048 net.cpp:434] fc0_4_postscale <- fc0_4
I0408 21:12:00.029021  9048 net.cpp:395] fc0_4_postscale -> fc0_4 (in-place)
I0408 21:12:00.029108  9048 net.cpp:150] Setting up fc0_4_postscale
I0408 21:12:00.029114  9048 net.cpp:157] Top shape: 150 300 (45000)
I0408 21:12:00.029117  9048 net.cpp:165] Memory required for data: 601567800
I0408 21:12:00.029122  9048 layer_factory.hpp:77] Creating layer drop0_4
I0408 21:12:00.029129  9048 net.cpp:100] Creating Layer drop0_4
I0408 21:12:00.029131  9048 net.cpp:434] drop0_4 <- fc0_4
I0408 21:12:00.029136  9048 net.cpp:395] drop0_4 -> fc0_4 (in-place)
I0408 21:12:00.029161  9048 net.cpp:150] Setting up drop0_4
I0408 21:12:00.029167  9048 net.cpp:157] Top shape: 150 300 (45000)
I0408 21:12:00.029170  9048 net.cpp:165] Memory required for data: 601747800
I0408 21:12:00.029173  9048 layer_factory.hpp:77] Creating layer fc0_5_67
I0408 21:12:00.029180  9048 net.cpp:100] Creating Layer fc0_5_67
I0408 21:12:00.029182  9048 net.cpp:434] fc0_5_67 <- fc0_4
I0408 21:12:00.029186  9048 net.cpp:408] fc0_5_67 -> fc0_5
I0408 21:12:00.030414  9048 net.cpp:150] Setting up fc0_5_67
I0408 21:12:00.030428  9048 net.cpp:157] Top shape: 150 67 (10050)
I0408 21:12:00.030432  9048 net.cpp:165] Memory required for data: 601788000
I0408 21:12:00.030442  9048 layer_factory.hpp:77] Creating layer softmax_0
I0408 21:12:00.030449  9048 net.cpp:100] Creating Layer softmax_0
I0408 21:12:00.030465  9048 net.cpp:434] softmax_0 <- fc0_5
I0408 21:12:00.030472  9048 net.cpp:408] softmax_0 -> softmax_0
I0408 21:12:00.030705  9048 net.cpp:150] Setting up softmax_0
I0408 21:12:00.030717  9048 net.cpp:157] Top shape: 150 67 (10050)
I0408 21:12:00.030720  9048 net.cpp:165] Memory required for data: 601828200
I0408 21:12:00.030725  9048 layer_factory.hpp:77] Creating layer data_1
I0408 21:12:00.030861  9048 net.cpp:100] Creating Layer data_1
I0408 21:12:00.030884  9048 net.cpp:408] data_1 -> data_1
I0408 21:12:00.030892  9048 net.cpp:408] data_1 -> label_1
I0408 21:12:00.032359  9134 db_lmdb.cpp:35] Opened lmdb ../local_data/lmdb/rtsd-r1/histeq/train/lmdb
I0408 21:12:00.032636  9048 data_layer.cpp:41] output data size: 150,3,48,48
I0408 21:12:00.041200  9048 net.cpp:150] Setting up data_1
I0408 21:12:00.041216  9048 net.cpp:157] Top shape: 150 3 48 48 (1036800)
I0408 21:12:00.041237  9048 net.cpp:157] Top shape: 150 (150)
I0408 21:12:00.041240  9048 net.cpp:165] Memory required for data: 605976000
I0408 21:12:00.041244  9048 layer_factory.hpp:77] Creating layer conv1_0
I0408 21:12:00.041255  9048 net.cpp:100] Creating Layer conv1_0
I0408 21:12:00.041260  9048 net.cpp:434] conv1_0 <- data_1
I0408 21:12:00.041266  9048 net.cpp:408] conv1_0 -> conv1_0
I0408 21:12:00.042961  9048 net.cpp:150] Setting up conv1_0
I0408 21:12:00.042978  9048 net.cpp:157] Top shape: 150 100 42 42 (26460000)
I0408 21:12:00.042992  9048 net.cpp:165] Memory required for data: 711816000
I0408 21:12:00.043000  9048 layer_factory.hpp:77] Creating layer conv1_0_prescale
I0408 21:12:00.043009  9048 net.cpp:100] Creating Layer conv1_0_prescale
I0408 21:12:00.043012  9048 net.cpp:434] conv1_0_prescale <- conv1_0
I0408 21:12:00.043018  9048 net.cpp:395] conv1_0_prescale -> conv1_0 (in-place)
I0408 21:12:00.043128  9048 net.cpp:150] Setting up conv1_0_prescale
I0408 21:12:00.043136  9048 net.cpp:157] Top shape: 150 100 42 42 (26460000)
I0408 21:12:00.043139  9048 net.cpp:165] Memory required for data: 817656000
I0408 21:12:00.043144  9048 layer_factory.hpp:77] Creating layer conv1_0_sTanH
I0408 21:12:00.043150  9048 net.cpp:100] Creating Layer conv1_0_sTanH
I0408 21:12:00.043154  9048 net.cpp:434] conv1_0_sTanH <- conv1_0
I0408 21:12:00.043159  9048 net.cpp:395] conv1_0_sTanH -> conv1_0 (in-place)
I0408 21:12:00.043665  9048 net.cpp:150] Setting up conv1_0_sTanH
I0408 21:12:00.043676  9048 net.cpp:157] Top shape: 150 100 42 42 (26460000)
I0408 21:12:00.043679  9048 net.cpp:165] Memory required for data: 923496000
I0408 21:12:00.043684  9048 layer_factory.hpp:77] Creating layer conv1_0_postscale
I0408 21:12:00.043690  9048 net.cpp:100] Creating Layer conv1_0_postscale
I0408 21:12:00.043694  9048 net.cpp:434] conv1_0_postscale <- conv1_0
I0408 21:12:00.043699  9048 net.cpp:395] conv1_0_postscale -> conv1_0 (in-place)
I0408 21:12:00.043795  9048 net.cpp:150] Setting up conv1_0_postscale
I0408 21:12:00.043807  9048 net.cpp:157] Top shape: 150 100 42 42 (26460000)
I0408 21:12:00.043809  9048 net.cpp:165] Memory required for data: 1029336000
I0408 21:12:00.043814  9048 layer_factory.hpp:77] Creating layer pool1_0
I0408 21:12:00.043820  9048 net.cpp:100] Creating Layer pool1_0
I0408 21:12:00.043823  9048 net.cpp:434] pool1_0 <- conv1_0
I0408 21:12:00.043828  9048 net.cpp:408] pool1_0 -> pool1_0
I0408 21:12:00.043866  9048 net.cpp:150] Setting up pool1_0
I0408 21:12:00.043874  9048 net.cpp:157] Top shape: 150 100 21 21 (6615000)
I0408 21:12:00.043887  9048 net.cpp:165] Memory required for data: 1055796000
I0408 21:12:00.043892  9048 layer_factory.hpp:77] Creating layer conv1_1
I0408 21:12:00.043900  9048 net.cpp:100] Creating Layer conv1_1
I0408 21:12:00.043905  9048 net.cpp:434] conv1_1 <- pool1_0
I0408 21:12:00.043910  9048 net.cpp:408] conv1_1 -> conv1_1
I0408 21:12:00.046747  9048 net.cpp:150] Setting up conv1_1
I0408 21:12:00.046764  9048 net.cpp:157] Top shape: 150 150 18 18 (7290000)
I0408 21:12:00.046768  9048 net.cpp:165] Memory required for data: 1084956000
I0408 21:12:00.046775  9048 layer_factory.hpp:77] Creating layer conv1_1_prescale
I0408 21:12:00.046797  9048 net.cpp:100] Creating Layer conv1_1_prescale
I0408 21:12:00.046802  9048 net.cpp:434] conv1_1_prescale <- conv1_1
I0408 21:12:00.046807  9048 net.cpp:395] conv1_1_prescale -> conv1_1 (in-place)
I0408 21:12:00.046903  9048 net.cpp:150] Setting up conv1_1_prescale
I0408 21:12:00.046912  9048 net.cpp:157] Top shape: 150 150 18 18 (7290000)
I0408 21:12:00.046916  9048 net.cpp:165] Memory required for data: 1114116000
I0408 21:12:00.046921  9048 layer_factory.hpp:77] Creating layer conv1_1_sTanH
I0408 21:12:00.046927  9048 net.cpp:100] Creating Layer conv1_1_sTanH
I0408 21:12:00.046931  9048 net.cpp:434] conv1_1_sTanH <- conv1_1
I0408 21:12:00.046936  9048 net.cpp:395] conv1_1_sTanH -> conv1_1 (in-place)
I0408 21:12:00.047694  9048 net.cpp:150] Setting up conv1_1_sTanH
I0408 21:12:00.047710  9048 net.cpp:157] Top shape: 150 150 18 18 (7290000)
I0408 21:12:00.047719  9048 net.cpp:165] Memory required for data: 1143276000
I0408 21:12:00.047722  9048 layer_factory.hpp:77] Creating layer conv1_1_postscale
I0408 21:12:00.047734  9048 net.cpp:100] Creating Layer conv1_1_postscale
I0408 21:12:00.047739  9048 net.cpp:434] conv1_1_postscale <- conv1_1
I0408 21:12:00.047744  9048 net.cpp:395] conv1_1_postscale -> conv1_1 (in-place)
I0408 21:12:00.047852  9048 net.cpp:150] Setting up conv1_1_postscale
I0408 21:12:00.047861  9048 net.cpp:157] Top shape: 150 150 18 18 (7290000)
I0408 21:12:00.047864  9048 net.cpp:165] Memory required for data: 1172436000
I0408 21:12:00.047869  9048 layer_factory.hpp:77] Creating layer pool1_1
I0408 21:12:00.047876  9048 net.cpp:100] Creating Layer pool1_1
I0408 21:12:00.047888  9048 net.cpp:434] pool1_1 <- conv1_1
I0408 21:12:00.047894  9048 net.cpp:408] pool1_1 -> pool1_1
I0408 21:12:00.047936  9048 net.cpp:150] Setting up pool1_1
I0408 21:12:00.047946  9048 net.cpp:157] Top shape: 150 150 9 9 (1822500)
I0408 21:12:00.047950  9048 net.cpp:165] Memory required for data: 1179726000
I0408 21:12:00.047952  9048 layer_factory.hpp:77] Creating layer conv1_2
I0408 21:12:00.047960  9048 net.cpp:100] Creating Layer conv1_2
I0408 21:12:00.047963  9048 net.cpp:434] conv1_2 <- pool1_1
I0408 21:12:00.047968  9048 net.cpp:408] conv1_2 -> conv1_2
I0408 21:12:00.053338  9048 net.cpp:150] Setting up conv1_2
I0408 21:12:00.053366  9048 net.cpp:157] Top shape: 150 250 6 6 (1350000)
I0408 21:12:00.053370  9048 net.cpp:165] Memory required for data: 1185126000
I0408 21:12:00.053377  9048 layer_factory.hpp:77] Creating layer conv1_2_prescale
I0408 21:12:00.053385  9048 net.cpp:100] Creating Layer conv1_2_prescale
I0408 21:12:00.053388  9048 net.cpp:434] conv1_2_prescale <- conv1_2
I0408 21:12:00.053393  9048 net.cpp:395] conv1_2_prescale -> conv1_2 (in-place)
I0408 21:12:00.053484  9048 net.cpp:150] Setting up conv1_2_prescale
I0408 21:12:00.053493  9048 net.cpp:157] Top shape: 150 250 6 6 (1350000)
I0408 21:12:00.053495  9048 net.cpp:165] Memory required for data: 1190526000
I0408 21:12:00.053500  9048 layer_factory.hpp:77] Creating layer conv1_2_sTanH
I0408 21:12:00.053505  9048 net.cpp:100] Creating Layer conv1_2_sTanH
I0408 21:12:00.053509  9048 net.cpp:434] conv1_2_sTanH <- conv1_2
I0408 21:12:00.053522  9048 net.cpp:395] conv1_2_sTanH -> conv1_2 (in-place)
I0408 21:12:00.054425  9048 net.cpp:150] Setting up conv1_2_sTanH
I0408 21:12:00.054446  9048 net.cpp:157] Top shape: 150 250 6 6 (1350000)
I0408 21:12:00.054452  9048 net.cpp:165] Memory required for data: 1195926000
I0408 21:12:00.054458  9048 layer_factory.hpp:77] Creating layer conv1_2_postscale
I0408 21:12:00.054471  9048 net.cpp:100] Creating Layer conv1_2_postscale
I0408 21:12:00.054487  9048 net.cpp:434] conv1_2_postscale <- conv1_2
I0408 21:12:00.054497  9048 net.cpp:395] conv1_2_postscale -> conv1_2 (in-place)
I0408 21:12:00.054639  9048 net.cpp:150] Setting up conv1_2_postscale
I0408 21:12:00.054652  9048 net.cpp:157] Top shape: 150 250 6 6 (1350000)
I0408 21:12:00.054657  9048 net.cpp:165] Memory required for data: 1201326000
I0408 21:12:00.054666  9048 layer_factory.hpp:77] Creating layer pool1_2
I0408 21:12:00.054692  9048 net.cpp:100] Creating Layer pool1_2
I0408 21:12:00.054697  9048 net.cpp:434] pool1_2 <- conv1_2
I0408 21:12:00.054705  9048 net.cpp:408] pool1_2 -> pool1_2
I0408 21:12:00.054762  9048 net.cpp:150] Setting up pool1_2
I0408 21:12:00.054775  9048 net.cpp:157] Top shape: 150 250 3 3 (337500)
I0408 21:12:00.054780  9048 net.cpp:165] Memory required for data: 1202676000
I0408 21:12:00.054785  9048 layer_factory.hpp:77] Creating layer fc1_4_300
I0408 21:12:00.054795  9048 net.cpp:100] Creating Layer fc1_4_300
I0408 21:12:00.054802  9048 net.cpp:434] fc1_4_300 <- pool1_2
I0408 21:12:00.054810  9048 net.cpp:408] fc1_4_300 -> fc1_4
I0408 21:12:00.060402  9048 net.cpp:150] Setting up fc1_4_300
I0408 21:12:00.060420  9048 net.cpp:157] Top shape: 150 300 (45000)
I0408 21:12:00.060423  9048 net.cpp:165] Memory required for data: 1202856000
I0408 21:12:00.060432  9048 layer_factory.hpp:77] Creating layer fc1_4_prescale
I0408 21:12:00.060439  9048 net.cpp:100] Creating Layer fc1_4_prescale
I0408 21:12:00.060443  9048 net.cpp:434] fc1_4_prescale <- fc1_4
I0408 21:12:00.060449  9048 net.cpp:395] fc1_4_prescale -> fc1_4 (in-place)
I0408 21:12:00.060542  9048 net.cpp:150] Setting up fc1_4_prescale
I0408 21:12:00.060555  9048 net.cpp:157] Top shape: 150 300 (45000)
I0408 21:12:00.060559  9048 net.cpp:165] Memory required for data: 1203036000
I0408 21:12:00.060569  9048 layer_factory.hpp:77] Creating layer fc1_4_sTanH
I0408 21:12:00.060575  9048 net.cpp:100] Creating Layer fc1_4_sTanH
I0408 21:12:00.060580  9048 net.cpp:434] fc1_4_sTanH <- fc1_4
I0408 21:12:00.060583  9048 net.cpp:395] fc1_4_sTanH -> fc1_4 (in-place)
I0408 21:12:00.060767  9048 net.cpp:150] Setting up fc1_4_sTanH
I0408 21:12:00.060778  9048 net.cpp:157] Top shape: 150 300 (45000)
I0408 21:12:00.060781  9048 net.cpp:165] Memory required for data: 1203216000
I0408 21:12:00.060786  9048 layer_factory.hpp:77] Creating layer fc1_4_postscale
I0408 21:12:00.060791  9048 net.cpp:100] Creating Layer fc1_4_postscale
I0408 21:12:00.060796  9048 net.cpp:434] fc1_4_postscale <- fc1_4
I0408 21:12:00.060801  9048 net.cpp:395] fc1_4_postscale -> fc1_4 (in-place)
I0408 21:12:00.060899  9048 net.cpp:150] Setting up fc1_4_postscale
I0408 21:12:00.060914  9048 net.cpp:157] Top shape: 150 300 (45000)
I0408 21:12:00.060917  9048 net.cpp:165] Memory required for data: 1203396000
I0408 21:12:00.060922  9048 layer_factory.hpp:77] Creating layer drop1_4
I0408 21:12:00.060930  9048 net.cpp:100] Creating Layer drop1_4
I0408 21:12:00.060932  9048 net.cpp:434] drop1_4 <- fc1_4
I0408 21:12:00.060937  9048 net.cpp:395] drop1_4 -> fc1_4 (in-place)
I0408 21:12:00.060962  9048 net.cpp:150] Setting up drop1_4
I0408 21:12:00.060969  9048 net.cpp:157] Top shape: 150 300 (45000)
I0408 21:12:00.060972  9048 net.cpp:165] Memory required for data: 1203576000
I0408 21:12:00.060976  9048 layer_factory.hpp:77] Creating layer fc1_5_67
I0408 21:12:00.060981  9048 net.cpp:100] Creating Layer fc1_5_67
I0408 21:12:00.060984  9048 net.cpp:434] fc1_5_67 <- fc1_4
I0408 21:12:00.060989  9048 net.cpp:408] fc1_5_67 -> fc1_5
I0408 21:12:00.061230  9048 net.cpp:150] Setting up fc1_5_67
I0408 21:12:00.061239  9048 net.cpp:157] Top shape: 150 67 (10050)
I0408 21:12:00.061242  9048 net.cpp:165] Memory required for data: 1203616200
I0408 21:12:00.061254  9048 layer_factory.hpp:77] Creating layer softmax_1
I0408 21:12:00.061261  9048 net.cpp:100] Creating Layer softmax_1
I0408 21:12:00.061265  9048 net.cpp:434] softmax_1 <- fc1_5
I0408 21:12:00.061269  9048 net.cpp:408] softmax_1 -> softmax_1
I0408 21:12:00.061497  9048 net.cpp:150] Setting up softmax_1
I0408 21:12:00.061508  9048 net.cpp:157] Top shape: 150 67 (10050)
I0408 21:12:00.061511  9048 net.cpp:165] Memory required for data: 1203656400
I0408 21:12:00.061516  9048 layer_factory.hpp:77] Creating layer data_2
I0408 21:12:00.061648  9048 net.cpp:100] Creating Layer data_2
I0408 21:12:00.061660  9048 net.cpp:408] data_2 -> data_2
I0408 21:12:00.061668  9048 net.cpp:408] data_2 -> label_2
I0408 21:12:00.063225  9139 db_lmdb.cpp:35] Opened lmdb ../local_data/lmdb/rtsd-r1/AHE/train/lmdb
I0408 21:12:00.063385  9048 data_layer.cpp:41] output data size: 150,3,48,48
I0408 21:12:00.073941  9048 net.cpp:150] Setting up data_2
I0408 21:12:00.073958  9048 net.cpp:157] Top shape: 150 3 48 48 (1036800)
I0408 21:12:00.073963  9048 net.cpp:157] Top shape: 150 (150)
I0408 21:12:00.073966  9048 net.cpp:165] Memory required for data: 1207804200
I0408 21:12:00.073971  9048 layer_factory.hpp:77] Creating layer conv2_0
I0408 21:12:00.073981  9048 net.cpp:100] Creating Layer conv2_0
I0408 21:12:00.073984  9048 net.cpp:434] conv2_0 <- data_2
I0408 21:12:00.073992  9048 net.cpp:408] conv2_0 -> conv2_0
I0408 21:12:00.077123  9048 net.cpp:150] Setting up conv2_0
I0408 21:12:00.077141  9048 net.cpp:157] Top shape: 150 100 42 42 (26460000)
I0408 21:12:00.077144  9048 net.cpp:165] Memory required for data: 1313644200
I0408 21:12:00.077152  9048 layer_factory.hpp:77] Creating layer conv2_0_prescale
I0408 21:12:00.077160  9048 net.cpp:100] Creating Layer conv2_0_prescale
I0408 21:12:00.077163  9048 net.cpp:434] conv2_0_prescale <- conv2_0
I0408 21:12:00.077169  9048 net.cpp:395] conv2_0_prescale -> conv2_0 (in-place)
I0408 21:12:00.077268  9048 net.cpp:150] Setting up conv2_0_prescale
I0408 21:12:00.077277  9048 net.cpp:157] Top shape: 150 100 42 42 (26460000)
I0408 21:12:00.077280  9048 net.cpp:165] Memory required for data: 1419484200
I0408 21:12:00.077286  9048 layer_factory.hpp:77] Creating layer conv2_0_sTanH
I0408 21:12:00.077291  9048 net.cpp:100] Creating Layer conv2_0_sTanH
I0408 21:12:00.077293  9048 net.cpp:434] conv2_0_sTanH <- conv2_0
I0408 21:12:00.077298  9048 net.cpp:395] conv2_0_sTanH -> conv2_0 (in-place)
I0408 21:12:00.077476  9048 net.cpp:150] Setting up conv2_0_sTanH
I0408 21:12:00.077487  9048 net.cpp:157] Top shape: 150 100 42 42 (26460000)
I0408 21:12:00.077491  9048 net.cpp:165] Memory required for data: 1525324200
I0408 21:12:00.077494  9048 layer_factory.hpp:77] Creating layer conv2_0_postscale
I0408 21:12:00.077502  9048 net.cpp:100] Creating Layer conv2_0_postscale
I0408 21:12:00.077505  9048 net.cpp:434] conv2_0_postscale <- conv2_0
I0408 21:12:00.077510  9048 net.cpp:395] conv2_0_postscale -> conv2_0 (in-place)
I0408 21:12:00.077610  9048 net.cpp:150] Setting up conv2_0_postscale
I0408 21:12:00.077617  9048 net.cpp:157] Top shape: 150 100 42 42 (26460000)
I0408 21:12:00.077620  9048 net.cpp:165] Memory required for data: 1631164200
I0408 21:12:00.077625  9048 layer_factory.hpp:77] Creating layer pool2_0
I0408 21:12:00.077632  9048 net.cpp:100] Creating Layer pool2_0
I0408 21:12:00.077636  9048 net.cpp:434] pool2_0 <- conv2_0
I0408 21:12:00.077641  9048 net.cpp:408] pool2_0 -> pool2_0
I0408 21:12:00.077680  9048 net.cpp:150] Setting up pool2_0
I0408 21:12:00.077687  9048 net.cpp:157] Top shape: 150 100 21 21 (6615000)
I0408 21:12:00.077690  9048 net.cpp:165] Memory required for data: 1657624200
I0408 21:12:00.077693  9048 layer_factory.hpp:77] Creating layer conv2_1
I0408 21:12:00.077702  9048 net.cpp:100] Creating Layer conv2_1
I0408 21:12:00.077705  9048 net.cpp:434] conv2_1 <- pool2_0
I0408 21:12:00.077710  9048 net.cpp:408] conv2_1 -> conv2_1
I0408 21:12:00.083039  9048 net.cpp:150] Setting up conv2_1
I0408 21:12:00.083055  9048 net.cpp:157] Top shape: 150 150 18 18 (7290000)
I0408 21:12:00.083060  9048 net.cpp:165] Memory required for data: 1686784200
I0408 21:12:00.083066  9048 layer_factory.hpp:77] Creating layer conv2_1_prescale
I0408 21:12:00.083075  9048 net.cpp:100] Creating Layer conv2_1_prescale
I0408 21:12:00.083078  9048 net.cpp:434] conv2_1_prescale <- conv2_1
I0408 21:12:00.083086  9048 net.cpp:395] conv2_1_prescale -> conv2_1 (in-place)
I0408 21:12:00.083189  9048 net.cpp:150] Setting up conv2_1_prescale
I0408 21:12:00.083199  9048 net.cpp:157] Top shape: 150 150 18 18 (7290000)
I0408 21:12:00.083202  9048 net.cpp:165] Memory required for data: 1715944200
I0408 21:12:00.083207  9048 layer_factory.hpp:77] Creating layer conv2_1_sTanH
I0408 21:12:00.083212  9048 net.cpp:100] Creating Layer conv2_1_sTanH
I0408 21:12:00.083215  9048 net.cpp:434] conv2_1_sTanH <- conv2_1
I0408 21:12:00.083235  9048 net.cpp:395] conv2_1_sTanH -> conv2_1 (in-place)
I0408 21:12:00.084121  9048 net.cpp:150] Setting up conv2_1_sTanH
I0408 21:12:00.084138  9048 net.cpp:157] Top shape: 150 150 18 18 (7290000)
I0408 21:12:00.084142  9048 net.cpp:165] Memory required for data: 1745104200
I0408 21:12:00.084146  9048 layer_factory.hpp:77] Creating layer conv2_1_postscale
I0408 21:12:00.084153  9048 net.cpp:100] Creating Layer conv2_1_postscale
I0408 21:12:00.084157  9048 net.cpp:434] conv2_1_postscale <- conv2_1
I0408 21:12:00.084162  9048 net.cpp:395] conv2_1_postscale -> conv2_1 (in-place)
I0408 21:12:00.084267  9048 net.cpp:150] Setting up conv2_1_postscale
I0408 21:12:00.084276  9048 net.cpp:157] Top shape: 150 150 18 18 (7290000)
I0408 21:12:00.084280  9048 net.cpp:165] Memory required for data: 1774264200
I0408 21:12:00.084285  9048 layer_factory.hpp:77] Creating layer pool2_1
I0408 21:12:00.084290  9048 net.cpp:100] Creating Layer pool2_1
I0408 21:12:00.084295  9048 net.cpp:434] pool2_1 <- conv2_1
I0408 21:12:00.084298  9048 net.cpp:408] pool2_1 -> pool2_1
I0408 21:12:00.084338  9048 net.cpp:150] Setting up pool2_1
I0408 21:12:00.084347  9048 net.cpp:157] Top shape: 150 150 9 9 (1822500)
I0408 21:12:00.084349  9048 net.cpp:165] Memory required for data: 1781554200
I0408 21:12:00.084363  9048 layer_factory.hpp:77] Creating layer conv2_2
I0408 21:12:00.084372  9048 net.cpp:100] Creating Layer conv2_2
I0408 21:12:00.084375  9048 net.cpp:434] conv2_2 <- pool2_1
I0408 21:12:00.084380  9048 net.cpp:408] conv2_2 -> conv2_2
I0408 21:12:00.097498  9048 net.cpp:150] Setting up conv2_2
I0408 21:12:00.097514  9048 net.cpp:157] Top shape: 150 250 6 6 (1350000)
I0408 21:12:00.097518  9048 net.cpp:165] Memory required for data: 1786954200
I0408 21:12:00.097525  9048 layer_factory.hpp:77] Creating layer conv2_2_prescale
I0408 21:12:00.097533  9048 net.cpp:100] Creating Layer conv2_2_prescale
I0408 21:12:00.097537  9048 net.cpp:434] conv2_2_prescale <- conv2_2
I0408 21:12:00.097543  9048 net.cpp:395] conv2_2_prescale -> conv2_2 (in-place)
I0408 21:12:00.097640  9048 net.cpp:150] Setting up conv2_2_prescale
I0408 21:12:00.097648  9048 net.cpp:157] Top shape: 150 250 6 6 (1350000)
I0408 21:12:00.097651  9048 net.cpp:165] Memory required for data: 1792354200
I0408 21:12:00.097656  9048 layer_factory.hpp:77] Creating layer conv2_2_sTanH
I0408 21:12:00.097661  9048 net.cpp:100] Creating Layer conv2_2_sTanH
I0408 21:12:00.097666  9048 net.cpp:434] conv2_2_sTanH <- conv2_2
I0408 21:12:00.097669  9048 net.cpp:395] conv2_2_sTanH -> conv2_2 (in-place)
I0408 21:12:00.098203  9048 net.cpp:150] Setting up conv2_2_sTanH
I0408 21:12:00.098214  9048 net.cpp:157] Top shape: 150 250 6 6 (1350000)
I0408 21:12:00.098218  9048 net.cpp:165] Memory required for data: 1797754200
I0408 21:12:00.098222  9048 layer_factory.hpp:77] Creating layer conv2_2_postscale
I0408 21:12:00.098229  9048 net.cpp:100] Creating Layer conv2_2_postscale
I0408 21:12:00.098232  9048 net.cpp:434] conv2_2_postscale <- conv2_2
I0408 21:12:00.098237  9048 net.cpp:395] conv2_2_postscale -> conv2_2 (in-place)
I0408 21:12:00.098336  9048 net.cpp:150] Setting up conv2_2_postscale
I0408 21:12:00.098345  9048 net.cpp:157] Top shape: 150 250 6 6 (1350000)
I0408 21:12:00.098347  9048 net.cpp:165] Memory required for data: 1803154200
I0408 21:12:00.098352  9048 layer_factory.hpp:77] Creating layer pool2_2
I0408 21:12:00.098358  9048 net.cpp:100] Creating Layer pool2_2
I0408 21:12:00.098361  9048 net.cpp:434] pool2_2 <- conv2_2
I0408 21:12:00.098366  9048 net.cpp:408] pool2_2 -> pool2_2
I0408 21:12:00.098405  9048 net.cpp:150] Setting up pool2_2
I0408 21:12:00.098412  9048 net.cpp:157] Top shape: 150 250 3 3 (337500)
I0408 21:12:00.098415  9048 net.cpp:165] Memory required for data: 1804504200
I0408 21:12:00.098418  9048 layer_factory.hpp:77] Creating layer fc2_4_300
I0408 21:12:00.098424  9048 net.cpp:100] Creating Layer fc2_4_300
I0408 21:12:00.098428  9048 net.cpp:434] fc2_4_300 <- pool2_2
I0408 21:12:00.098433  9048 net.cpp:408] fc2_4_300 -> fc2_4
I0408 21:12:00.108690  9048 net.cpp:150] Setting up fc2_4_300
I0408 21:12:00.108705  9048 net.cpp:157] Top shape: 150 300 (45000)
I0408 21:12:00.108708  9048 net.cpp:165] Memory required for data: 1804684200
I0408 21:12:00.108716  9048 layer_factory.hpp:77] Creating layer fc2_4_prescale
I0408 21:12:00.108722  9048 net.cpp:100] Creating Layer fc2_4_prescale
I0408 21:12:00.108726  9048 net.cpp:434] fc2_4_prescale <- fc2_4
I0408 21:12:00.108732  9048 net.cpp:395] fc2_4_prescale -> fc2_4 (in-place)
I0408 21:12:00.108829  9048 net.cpp:150] Setting up fc2_4_prescale
I0408 21:12:00.108836  9048 net.cpp:157] Top shape: 150 300 (45000)
I0408 21:12:00.108839  9048 net.cpp:165] Memory required for data: 1804864200
I0408 21:12:00.108844  9048 layer_factory.hpp:77] Creating layer fc2_4_sTanH
I0408 21:12:00.108857  9048 net.cpp:100] Creating Layer fc2_4_sTanH
I0408 21:12:00.108862  9048 net.cpp:434] fc2_4_sTanH <- fc2_4
I0408 21:12:00.108867  9048 net.cpp:395] fc2_4_sTanH -> fc2_4 (in-place)
I0408 21:12:00.109050  9048 net.cpp:150] Setting up fc2_4_sTanH
I0408 21:12:00.109061  9048 net.cpp:157] Top shape: 150 300 (45000)
I0408 21:12:00.109064  9048 net.cpp:165] Memory required for data: 1805044200
I0408 21:12:00.109068  9048 layer_factory.hpp:77] Creating layer fc2_4_postscale
I0408 21:12:00.109074  9048 net.cpp:100] Creating Layer fc2_4_postscale
I0408 21:12:00.109077  9048 net.cpp:434] fc2_4_postscale <- fc2_4
I0408 21:12:00.109082  9048 net.cpp:395] fc2_4_postscale -> fc2_4 (in-place)
I0408 21:12:00.109181  9048 net.cpp:150] Setting up fc2_4_postscale
I0408 21:12:00.109189  9048 net.cpp:157] Top shape: 150 300 (45000)
I0408 21:12:00.109192  9048 net.cpp:165] Memory required for data: 1805224200
I0408 21:12:00.109197  9048 layer_factory.hpp:77] Creating layer drop2_4
I0408 21:12:00.109203  9048 net.cpp:100] Creating Layer drop2_4
I0408 21:12:00.109206  9048 net.cpp:434] drop2_4 <- fc2_4
I0408 21:12:00.109210  9048 net.cpp:395] drop2_4 -> fc2_4 (in-place)
I0408 21:12:00.109235  9048 net.cpp:150] Setting up drop2_4
I0408 21:12:00.109241  9048 net.cpp:157] Top shape: 150 300 (45000)
I0408 21:12:00.109243  9048 net.cpp:165] Memory required for data: 1805404200
I0408 21:12:00.109246  9048 layer_factory.hpp:77] Creating layer fc2_5_67
I0408 21:12:00.109252  9048 net.cpp:100] Creating Layer fc2_5_67
I0408 21:12:00.109256  9048 net.cpp:434] fc2_5_67 <- fc2_4
I0408 21:12:00.109261  9048 net.cpp:408] fc2_5_67 -> fc2_5
I0408 21:12:00.109508  9048 net.cpp:150] Setting up fc2_5_67
I0408 21:12:00.109516  9048 net.cpp:157] Top shape: 150 67 (10050)
I0408 21:12:00.109519  9048 net.cpp:165] Memory required for data: 1805444400
I0408 21:12:00.109525  9048 layer_factory.hpp:77] Creating layer softmax_2
I0408 21:12:00.109531  9048 net.cpp:100] Creating Layer softmax_2
I0408 21:12:00.109534  9048 net.cpp:434] softmax_2 <- fc2_5
I0408 21:12:00.109539  9048 net.cpp:408] softmax_2 -> softmax_2
I0408 21:12:00.109781  9048 net.cpp:150] Setting up softmax_2
I0408 21:12:00.109791  9048 net.cpp:157] Top shape: 150 67 (10050)
I0408 21:12:00.109794  9048 net.cpp:165] Memory required for data: 1805484600
I0408 21:12:00.109798  9048 layer_factory.hpp:77] Creating layer data_3
I0408 21:12:00.109930  9048 net.cpp:100] Creating Layer data_3
I0408 21:12:00.109941  9048 net.cpp:408] data_3 -> data_3
I0408 21:12:00.109948  9048 net.cpp:408] data_3 -> label_3
I0408 21:12:00.114430  9144 db_lmdb.cpp:35] Opened lmdb ../local_data/lmdb/rtsd-r1/imajust/train/lmdb
I0408 21:12:00.114560  9048 data_layer.cpp:41] output data size: 150,3,48,48
I0408 21:12:00.127743  9048 net.cpp:150] Setting up data_3
I0408 21:12:00.127760  9048 net.cpp:157] Top shape: 150 3 48 48 (1036800)
I0408 21:12:00.127765  9048 net.cpp:157] Top shape: 150 (150)
I0408 21:12:00.127768  9048 net.cpp:165] Memory required for data: 1809632400
I0408 21:12:00.127773  9048 layer_factory.hpp:77] Creating layer conv3_0
I0408 21:12:00.127784  9048 net.cpp:100] Creating Layer conv3_0
I0408 21:12:00.127787  9048 net.cpp:434] conv3_0 <- data_3
I0408 21:12:00.127794  9048 net.cpp:408] conv3_0 -> conv3_0
I0408 21:12:00.130141  9048 net.cpp:150] Setting up conv3_0
I0408 21:12:00.130169  9048 net.cpp:157] Top shape: 150 100 42 42 (26460000)
I0408 21:12:00.130174  9048 net.cpp:165] Memory required for data: 1915472400
I0408 21:12:00.130182  9048 layer_factory.hpp:77] Creating layer conv3_0_prescale
I0408 21:12:00.130190  9048 net.cpp:100] Creating Layer conv3_0_prescale
I0408 21:12:00.130194  9048 net.cpp:434] conv3_0_prescale <- conv3_0
I0408 21:12:00.130200  9048 net.cpp:395] conv3_0_prescale -> conv3_0 (in-place)
I0408 21:12:00.130306  9048 net.cpp:150] Setting up conv3_0_prescale
I0408 21:12:00.130316  9048 net.cpp:157] Top shape: 150 100 42 42 (26460000)
I0408 21:12:00.130318  9048 net.cpp:165] Memory required for data: 2021312400
I0408 21:12:00.130323  9048 layer_factory.hpp:77] Creating layer conv3_0_sTanH
I0408 21:12:00.130328  9048 net.cpp:100] Creating Layer conv3_0_sTanH
I0408 21:12:00.130332  9048 net.cpp:434] conv3_0_sTanH <- conv3_0
I0408 21:12:00.130336  9048 net.cpp:395] conv3_0_sTanH -> conv3_0 (in-place)
I0408 21:12:00.132789  9048 net.cpp:150] Setting up conv3_0_sTanH
I0408 21:12:00.132803  9048 net.cpp:157] Top shape: 150 100 42 42 (26460000)
I0408 21:12:00.132807  9048 net.cpp:165] Memory required for data: 2127152400
I0408 21:12:00.132812  9048 layer_factory.hpp:77] Creating layer conv3_0_postscale
I0408 21:12:00.132818  9048 net.cpp:100] Creating Layer conv3_0_postscale
I0408 21:12:00.132822  9048 net.cpp:434] conv3_0_postscale <- conv3_0
I0408 21:12:00.132828  9048 net.cpp:395] conv3_0_postscale -> conv3_0 (in-place)
I0408 21:12:00.133258  9048 net.cpp:150] Setting up conv3_0_postscale
I0408 21:12:00.133268  9048 net.cpp:157] Top shape: 150 100 42 42 (26460000)
I0408 21:12:00.133271  9048 net.cpp:165] Memory required for data: 2232992400
I0408 21:12:00.133277  9048 layer_factory.hpp:77] Creating layer pool3_0
I0408 21:12:00.133285  9048 net.cpp:100] Creating Layer pool3_0
I0408 21:12:00.133287  9048 net.cpp:434] pool3_0 <- conv3_0
I0408 21:12:00.133292  9048 net.cpp:408] pool3_0 -> pool3_0
I0408 21:12:00.133337  9048 net.cpp:150] Setting up pool3_0
I0408 21:12:00.133345  9048 net.cpp:157] Top shape: 150 100 21 21 (6615000)
I0408 21:12:00.133348  9048 net.cpp:165] Memory required for data: 2259452400
I0408 21:12:00.133352  9048 layer_factory.hpp:77] Creating layer conv3_1
I0408 21:12:00.133359  9048 net.cpp:100] Creating Layer conv3_1
I0408 21:12:00.133363  9048 net.cpp:434] conv3_1 <- pool3_0
I0408 21:12:00.133379  9048 net.cpp:408] conv3_1 -> conv3_1
I0408 21:12:00.135694  9048 net.cpp:150] Setting up conv3_1
I0408 21:12:00.135709  9048 net.cpp:157] Top shape: 150 150 18 18 (7290000)
I0408 21:12:00.135712  9048 net.cpp:165] Memory required for data: 2288612400
I0408 21:12:00.135718  9048 layer_factory.hpp:77] Creating layer conv3_1_prescale
I0408 21:12:00.135727  9048 net.cpp:100] Creating Layer conv3_1_prescale
I0408 21:12:00.135731  9048 net.cpp:434] conv3_1_prescale <- conv3_1
I0408 21:12:00.135737  9048 net.cpp:395] conv3_1_prescale -> conv3_1 (in-place)
I0408 21:12:00.135848  9048 net.cpp:150] Setting up conv3_1_prescale
I0408 21:12:00.135857  9048 net.cpp:157] Top shape: 150 150 18 18 (7290000)
I0408 21:12:00.135860  9048 net.cpp:165] Memory required for data: 2317772400
I0408 21:12:00.135865  9048 layer_factory.hpp:77] Creating layer conv3_1_sTanH
I0408 21:12:00.135871  9048 net.cpp:100] Creating Layer conv3_1_sTanH
I0408 21:12:00.135875  9048 net.cpp:434] conv3_1_sTanH <- conv3_1
I0408 21:12:00.135892  9048 net.cpp:395] conv3_1_sTanH -> conv3_1 (in-place)
I0408 21:12:00.152413  9048 net.cpp:150] Setting up conv3_1_sTanH
I0408 21:12:00.152433  9048 net.cpp:157] Top shape: 150 150 18 18 (7290000)
I0408 21:12:00.152437  9048 net.cpp:165] Memory required for data: 2346932400
I0408 21:12:00.152441  9048 layer_factory.hpp:77] Creating layer conv3_1_postscale
I0408 21:12:00.152448  9048 net.cpp:100] Creating Layer conv3_1_postscale
I0408 21:12:00.152452  9048 net.cpp:434] conv3_1_postscale <- conv3_1
I0408 21:12:00.152459  9048 net.cpp:395] conv3_1_postscale -> conv3_1 (in-place)
I0408 21:12:00.152895  9048 net.cpp:150] Setting up conv3_1_postscale
I0408 21:12:00.152918  9048 net.cpp:157] Top shape: 150 150 18 18 (7290000)
I0408 21:12:00.152921  9048 net.cpp:165] Memory required for data: 2376092400
I0408 21:12:00.152927  9048 layer_factory.hpp:77] Creating layer pool3_1
I0408 21:12:00.152935  9048 net.cpp:100] Creating Layer pool3_1
I0408 21:12:00.152937  9048 net.cpp:434] pool3_1 <- conv3_1
I0408 21:12:00.152945  9048 net.cpp:408] pool3_1 -> pool3_1
I0408 21:12:00.152992  9048 net.cpp:150] Setting up pool3_1
I0408 21:12:00.153002  9048 net.cpp:157] Top shape: 150 150 9 9 (1822500)
I0408 21:12:00.153005  9048 net.cpp:165] Memory required for data: 2383382400
I0408 21:12:00.153008  9048 layer_factory.hpp:77] Creating layer conv3_2
I0408 21:12:00.153017  9048 net.cpp:100] Creating Layer conv3_2
I0408 21:12:00.153023  9048 net.cpp:434] conv3_2 <- pool3_1
I0408 21:12:00.153028  9048 net.cpp:408] conv3_2 -> conv3_2
I0408 21:12:00.160020  9048 net.cpp:150] Setting up conv3_2
I0408 21:12:00.160037  9048 net.cpp:157] Top shape: 150 250 6 6 (1350000)
I0408 21:12:00.160042  9048 net.cpp:165] Memory required for data: 2388782400
I0408 21:12:00.160048  9048 layer_factory.hpp:77] Creating layer conv3_2_prescale
I0408 21:12:00.160058  9048 net.cpp:100] Creating Layer conv3_2_prescale
I0408 21:12:00.160063  9048 net.cpp:434] conv3_2_prescale <- conv3_2
I0408 21:12:00.160068  9048 net.cpp:395] conv3_2_prescale -> conv3_2 (in-place)
I0408 21:12:00.160176  9048 net.cpp:150] Setting up conv3_2_prescale
I0408 21:12:00.160184  9048 net.cpp:157] Top shape: 150 250 6 6 (1350000)
I0408 21:12:00.160187  9048 net.cpp:165] Memory required for data: 2394182400
I0408 21:12:00.160202  9048 layer_factory.hpp:77] Creating layer conv3_2_sTanH
I0408 21:12:00.160212  9048 net.cpp:100] Creating Layer conv3_2_sTanH
I0408 21:12:00.160215  9048 net.cpp:434] conv3_2_sTanH <- conv3_2
I0408 21:12:00.160220  9048 net.cpp:395] conv3_2_sTanH -> conv3_2 (in-place)
I0408 21:12:00.160409  9048 net.cpp:150] Setting up conv3_2_sTanH
I0408 21:12:00.160423  9048 net.cpp:157] Top shape: 150 250 6 6 (1350000)
I0408 21:12:00.160428  9048 net.cpp:165] Memory required for data: 2399582400
I0408 21:12:00.160430  9048 layer_factory.hpp:77] Creating layer conv3_2_postscale
I0408 21:12:00.160439  9048 net.cpp:100] Creating Layer conv3_2_postscale
I0408 21:12:00.160444  9048 net.cpp:434] conv3_2_postscale <- conv3_2
I0408 21:12:00.160449  9048 net.cpp:395] conv3_2_postscale -> conv3_2 (in-place)
I0408 21:12:00.160558  9048 net.cpp:150] Setting up conv3_2_postscale
I0408 21:12:00.160567  9048 net.cpp:157] Top shape: 150 250 6 6 (1350000)
I0408 21:12:00.160570  9048 net.cpp:165] Memory required for data: 2404982400
I0408 21:12:00.160575  9048 layer_factory.hpp:77] Creating layer pool3_2
I0408 21:12:00.160583  9048 net.cpp:100] Creating Layer pool3_2
I0408 21:12:00.160588  9048 net.cpp:434] pool3_2 <- conv3_2
I0408 21:12:00.160593  9048 net.cpp:408] pool3_2 -> pool3_2
I0408 21:12:00.160640  9048 net.cpp:150] Setting up pool3_2
I0408 21:12:00.160647  9048 net.cpp:157] Top shape: 150 250 3 3 (337500)
I0408 21:12:00.160650  9048 net.cpp:165] Memory required for data: 2406332400
I0408 21:12:00.160653  9048 layer_factory.hpp:77] Creating layer fc3_4_300
I0408 21:12:00.160660  9048 net.cpp:100] Creating Layer fc3_4_300
I0408 21:12:00.160662  9048 net.cpp:434] fc3_4_300 <- pool3_2
I0408 21:12:00.160676  9048 net.cpp:408] fc3_4_300 -> fc3_4
I0408 21:12:00.166085  9048 net.cpp:150] Setting up fc3_4_300
I0408 21:12:00.166100  9048 net.cpp:157] Top shape: 150 300 (45000)
I0408 21:12:00.166103  9048 net.cpp:165] Memory required for data: 2406512400
I0408 21:12:00.166110  9048 layer_factory.hpp:77] Creating layer fc3_4_prescale
I0408 21:12:00.166117  9048 net.cpp:100] Creating Layer fc3_4_prescale
I0408 21:12:00.166121  9048 net.cpp:434] fc3_4_prescale <- fc3_4
I0408 21:12:00.166128  9048 net.cpp:395] fc3_4_prescale -> fc3_4 (in-place)
I0408 21:12:00.166234  9048 net.cpp:150] Setting up fc3_4_prescale
I0408 21:12:00.166242  9048 net.cpp:157] Top shape: 150 300 (45000)
I0408 21:12:00.166245  9048 net.cpp:165] Memory required for data: 2406692400
I0408 21:12:00.166262  9048 layer_factory.hpp:77] Creating layer fc3_4_sTanH
I0408 21:12:00.166267  9048 net.cpp:100] Creating Layer fc3_4_sTanH
I0408 21:12:00.166271  9048 net.cpp:434] fc3_4_sTanH <- fc3_4
I0408 21:12:00.166275  9048 net.cpp:395] fc3_4_sTanH -> fc3_4 (in-place)
I0408 21:12:00.166471  9048 net.cpp:150] Setting up fc3_4_sTanH
I0408 21:12:00.166482  9048 net.cpp:157] Top shape: 150 300 (45000)
I0408 21:12:00.166486  9048 net.cpp:165] Memory required for data: 2406872400
I0408 21:12:00.166488  9048 layer_factory.hpp:77] Creating layer fc3_4_postscale
I0408 21:12:00.166496  9048 net.cpp:100] Creating Layer fc3_4_postscale
I0408 21:12:00.166501  9048 net.cpp:434] fc3_4_postscale <- fc3_4
I0408 21:12:00.166507  9048 net.cpp:395] fc3_4_postscale -> fc3_4 (in-place)
I0408 21:12:00.166617  9048 net.cpp:150] Setting up fc3_4_postscale
I0408 21:12:00.166625  9048 net.cpp:157] Top shape: 150 300 (45000)
I0408 21:12:00.166627  9048 net.cpp:165] Memory required for data: 2407052400
I0408 21:12:00.166632  9048 layer_factory.hpp:77] Creating layer drop3_4
I0408 21:12:00.166640  9048 net.cpp:100] Creating Layer drop3_4
I0408 21:12:00.166643  9048 net.cpp:434] drop3_4 <- fc3_4
I0408 21:12:00.166648  9048 net.cpp:395] drop3_4 -> fc3_4 (in-place)
I0408 21:12:00.166676  9048 net.cpp:150] Setting up drop3_4
I0408 21:12:00.166682  9048 net.cpp:157] Top shape: 150 300 (45000)
I0408 21:12:00.166685  9048 net.cpp:165] Memory required for data: 2407232400
I0408 21:12:00.166688  9048 layer_factory.hpp:77] Creating layer fc3_5_67
I0408 21:12:00.166694  9048 net.cpp:100] Creating Layer fc3_5_67
I0408 21:12:00.166697  9048 net.cpp:434] fc3_5_67 <- fc3_4
I0408 21:12:00.166703  9048 net.cpp:408] fc3_5_67 -> fc3_5
I0408 21:12:00.166962  9048 net.cpp:150] Setting up fc3_5_67
I0408 21:12:00.166970  9048 net.cpp:157] Top shape: 150 67 (10050)
I0408 21:12:00.166973  9048 net.cpp:165] Memory required for data: 2407272600
I0408 21:12:00.166980  9048 layer_factory.hpp:77] Creating layer softmax_3
I0408 21:12:00.166985  9048 net.cpp:100] Creating Layer softmax_3
I0408 21:12:00.166988  9048 net.cpp:434] softmax_3 <- fc3_5
I0408 21:12:00.166995  9048 net.cpp:408] softmax_3 -> softmax_3
I0408 21:12:00.167250  9048 net.cpp:150] Setting up softmax_3
I0408 21:12:00.167260  9048 net.cpp:157] Top shape: 150 67 (10050)
I0408 21:12:00.167263  9048 net.cpp:165] Memory required for data: 2407312800
I0408 21:12:00.167268  9048 layer_factory.hpp:77] Creating layer data_4
I0408 21:12:00.167407  9048 net.cpp:100] Creating Layer data_4
I0408 21:12:00.167418  9048 net.cpp:408] data_4 -> data_4
I0408 21:12:00.167429  9048 net.cpp:408] data_4 -> label_4
I0408 21:12:00.168609  9146 db_lmdb.cpp:35] Opened lmdb ../local_data/lmdb/rtsd-r1/CoNorm/train/lmdb
I0408 21:12:00.168751  9048 data_layer.cpp:41] output data size: 150,3,48,48
I0408 21:12:00.177379  9048 net.cpp:150] Setting up data_4
I0408 21:12:00.177395  9048 net.cpp:157] Top shape: 150 3 48 48 (1036800)
I0408 21:12:00.177400  9048 net.cpp:157] Top shape: 150 (150)
I0408 21:12:00.177402  9048 net.cpp:165] Memory required for data: 2411460600
I0408 21:12:00.177407  9048 layer_factory.hpp:77] Creating layer conv4_0
I0408 21:12:00.177418  9048 net.cpp:100] Creating Layer conv4_0
I0408 21:12:00.177423  9048 net.cpp:434] conv4_0 <- data_4
I0408 21:12:00.177429  9048 net.cpp:408] conv4_0 -> conv4_0
I0408 21:12:00.179729  9048 net.cpp:150] Setting up conv4_0
I0408 21:12:00.179744  9048 net.cpp:157] Top shape: 150 100 42 42 (26460000)
I0408 21:12:00.179749  9048 net.cpp:165] Memory required for data: 2517300600
I0408 21:12:00.179755  9048 layer_factory.hpp:77] Creating layer conv4_0_prescale
I0408 21:12:00.179764  9048 net.cpp:100] Creating Layer conv4_0_prescale
I0408 21:12:00.179774  9048 net.cpp:434] conv4_0_prescale <- conv4_0
I0408 21:12:00.179781  9048 net.cpp:395] conv4_0_prescale -> conv4_0 (in-place)
I0408 21:12:00.179925  9048 net.cpp:150] Setting up conv4_0_prescale
I0408 21:12:00.179936  9048 net.cpp:157] Top shape: 150 100 42 42 (26460000)
I0408 21:12:00.179939  9048 net.cpp:165] Memory required for data: 2623140600
I0408 21:12:00.179957  9048 layer_factory.hpp:77] Creating layer conv4_0_sTanH
I0408 21:12:00.179968  9048 net.cpp:100] Creating Layer conv4_0_sTanH
I0408 21:12:00.179976  9048 net.cpp:434] conv4_0_sTanH <- conv4_0
I0408 21:12:00.179981  9048 net.cpp:395] conv4_0_sTanH -> conv4_0 (in-place)
I0408 21:12:00.180826  9048 net.cpp:150] Setting up conv4_0_sTanH
I0408 21:12:00.180841  9048 net.cpp:157] Top shape: 150 100 42 42 (26460000)
I0408 21:12:00.180845  9048 net.cpp:165] Memory required for data: 2728980600
I0408 21:12:00.180850  9048 layer_factory.hpp:77] Creating layer conv4_0_postscale
I0408 21:12:00.180856  9048 net.cpp:100] Creating Layer conv4_0_postscale
I0408 21:12:00.180860  9048 net.cpp:434] conv4_0_postscale <- conv4_0
I0408 21:12:00.180867  9048 net.cpp:395] conv4_0_postscale -> conv4_0 (in-place)
I0408 21:12:00.180990  9048 net.cpp:150] Setting up conv4_0_postscale
I0408 21:12:00.180999  9048 net.cpp:157] Top shape: 150 100 42 42 (26460000)
I0408 21:12:00.181002  9048 net.cpp:165] Memory required for data: 2834820600
I0408 21:12:00.181008  9048 layer_factory.hpp:77] Creating layer pool4_0
I0408 21:12:00.181015  9048 net.cpp:100] Creating Layer pool4_0
I0408 21:12:00.181018  9048 net.cpp:434] pool4_0 <- conv4_0
I0408 21:12:00.181030  9048 net.cpp:408] pool4_0 -> pool4_0
I0408 21:12:00.181079  9048 net.cpp:150] Setting up pool4_0
I0408 21:12:00.181087  9048 net.cpp:157] Top shape: 150 100 21 21 (6615000)
I0408 21:12:00.181090  9048 net.cpp:165] Memory required for data: 2861280600
I0408 21:12:00.181094  9048 layer_factory.hpp:77] Creating layer conv4_1
I0408 21:12:00.181105  9048 net.cpp:100] Creating Layer conv4_1
I0408 21:12:00.181110  9048 net.cpp:434] conv4_1 <- pool4_0
I0408 21:12:00.181116  9048 net.cpp:408] conv4_1 -> conv4_1
I0408 21:12:00.185070  9048 net.cpp:150] Setting up conv4_1
I0408 21:12:00.185084  9048 net.cpp:157] Top shape: 150 150 18 18 (7290000)
I0408 21:12:00.185101  9048 net.cpp:165] Memory required for data: 2890440600
I0408 21:12:00.185107  9048 layer_factory.hpp:77] Creating layer conv4_1_prescale
I0408 21:12:00.185114  9048 net.cpp:100] Creating Layer conv4_1_prescale
I0408 21:12:00.185118  9048 net.cpp:434] conv4_1_prescale <- conv4_1
I0408 21:12:00.185125  9048 net.cpp:395] conv4_1_prescale -> conv4_1 (in-place)
I0408 21:12:00.185246  9048 net.cpp:150] Setting up conv4_1_prescale
I0408 21:12:00.185256  9048 net.cpp:157] Top shape: 150 150 18 18 (7290000)
I0408 21:12:00.185258  9048 net.cpp:165] Memory required for data: 2919600600
I0408 21:12:00.185263  9048 layer_factory.hpp:77] Creating layer conv4_1_sTanH
I0408 21:12:00.185269  9048 net.cpp:100] Creating Layer conv4_1_sTanH
I0408 21:12:00.185272  9048 net.cpp:434] conv4_1_sTanH <- conv4_1
I0408 21:12:00.185278  9048 net.cpp:395] conv4_1_sTanH -> conv4_1 (in-place)
I0408 21:12:00.185829  9048 net.cpp:150] Setting up conv4_1_sTanH
I0408 21:12:00.185840  9048 net.cpp:157] Top shape: 150 150 18 18 (7290000)
I0408 21:12:00.185844  9048 net.cpp:165] Memory required for data: 2948760600
I0408 21:12:00.185847  9048 layer_factory.hpp:77] Creating layer conv4_1_postscale
I0408 21:12:00.185855  9048 net.cpp:100] Creating Layer conv4_1_postscale
I0408 21:12:00.185859  9048 net.cpp:434] conv4_1_postscale <- conv4_1
I0408 21:12:00.185866  9048 net.cpp:395] conv4_1_postscale -> conv4_1 (in-place)
I0408 21:12:00.185984  9048 net.cpp:150] Setting up conv4_1_postscale
I0408 21:12:00.185993  9048 net.cpp:157] Top shape: 150 150 18 18 (7290000)
I0408 21:12:00.185997  9048 net.cpp:165] Memory required for data: 2977920600
I0408 21:12:00.186013  9048 layer_factory.hpp:77] Creating layer pool4_1
I0408 21:12:00.186022  9048 net.cpp:100] Creating Layer pool4_1
I0408 21:12:00.186028  9048 net.cpp:434] pool4_1 <- conv4_1
I0408 21:12:00.186033  9048 net.cpp:408] pool4_1 -> pool4_1
I0408 21:12:00.186085  9048 net.cpp:150] Setting up pool4_1
I0408 21:12:00.186094  9048 net.cpp:157] Top shape: 150 150 9 9 (1822500)
I0408 21:12:00.186096  9048 net.cpp:165] Memory required for data: 2985210600
I0408 21:12:00.186100  9048 layer_factory.hpp:77] Creating layer conv4_2
I0408 21:12:00.186121  9048 net.cpp:100] Creating Layer conv4_2
I0408 21:12:00.186128  9048 net.cpp:434] conv4_2 <- pool4_1
I0408 21:12:00.186136  9048 net.cpp:408] conv4_2 -> conv4_2
I0408 21:12:00.192848  9048 net.cpp:150] Setting up conv4_2
I0408 21:12:00.192867  9048 net.cpp:157] Top shape: 150 250 6 6 (1350000)
I0408 21:12:00.192873  9048 net.cpp:165] Memory required for data: 2990610600
I0408 21:12:00.192879  9048 layer_factory.hpp:77] Creating layer conv4_2_prescale
I0408 21:12:00.192886  9048 net.cpp:100] Creating Layer conv4_2_prescale
I0408 21:12:00.192890  9048 net.cpp:434] conv4_2_prescale <- conv4_2
I0408 21:12:00.192898  9048 net.cpp:395] conv4_2_prescale -> conv4_2 (in-place)
I0408 21:12:00.193009  9048 net.cpp:150] Setting up conv4_2_prescale
I0408 21:12:00.193022  9048 net.cpp:157] Top shape: 150 250 6 6 (1350000)
I0408 21:12:00.193024  9048 net.cpp:165] Memory required for data: 2996010600
I0408 21:12:00.193028  9048 layer_factory.hpp:77] Creating layer conv4_2_sTanH
I0408 21:12:00.193034  9048 net.cpp:100] Creating Layer conv4_2_sTanH
I0408 21:12:00.193037  9048 net.cpp:434] conv4_2_sTanH <- conv4_2
I0408 21:12:00.193043  9048 net.cpp:395] conv4_2_sTanH -> conv4_2 (in-place)
I0408 21:12:00.193231  9048 net.cpp:150] Setting up conv4_2_sTanH
I0408 21:12:00.193243  9048 net.cpp:157] Top shape: 150 250 6 6 (1350000)
I0408 21:12:00.193248  9048 net.cpp:165] Memory required for data: 3001410600
I0408 21:12:00.193250  9048 layer_factory.hpp:77] Creating layer conv4_2_postscale
I0408 21:12:00.193259  9048 net.cpp:100] Creating Layer conv4_2_postscale
I0408 21:12:00.193261  9048 net.cpp:434] conv4_2_postscale <- conv4_2
I0408 21:12:00.193266  9048 net.cpp:395] conv4_2_postscale -> conv4_2 (in-place)
I0408 21:12:00.193377  9048 net.cpp:150] Setting up conv4_2_postscale
I0408 21:12:00.193385  9048 net.cpp:157] Top shape: 150 250 6 6 (1350000)
I0408 21:12:00.193388  9048 net.cpp:165] Memory required for data: 3006810600
I0408 21:12:00.193393  9048 layer_factory.hpp:77] Creating layer pool4_2
I0408 21:12:00.193400  9048 net.cpp:100] Creating Layer pool4_2
I0408 21:12:00.193404  9048 net.cpp:434] pool4_2 <- conv4_2
I0408 21:12:00.193408  9048 net.cpp:408] pool4_2 -> pool4_2
I0408 21:12:00.193454  9048 net.cpp:150] Setting up pool4_2
I0408 21:12:00.193465  9048 net.cpp:157] Top shape: 150 250 3 3 (337500)
I0408 21:12:00.193470  9048 net.cpp:165] Memory required for data: 3008160600
I0408 21:12:00.193473  9048 layer_factory.hpp:77] Creating layer fc4_4_300
I0408 21:12:00.193480  9048 net.cpp:100] Creating Layer fc4_4_300
I0408 21:12:00.193483  9048 net.cpp:434] fc4_4_300 <- pool4_2
I0408 21:12:00.193490  9048 net.cpp:408] fc4_4_300 -> fc4_4
I0408 21:12:00.198931  9048 net.cpp:150] Setting up fc4_4_300
I0408 21:12:00.198946  9048 net.cpp:157] Top shape: 150 300 (45000)
I0408 21:12:00.198951  9048 net.cpp:165] Memory required for data: 3008340600
I0408 21:12:00.198957  9048 layer_factory.hpp:77] Creating layer fc4_4_prescale
I0408 21:12:00.198964  9048 net.cpp:100] Creating Layer fc4_4_prescale
I0408 21:12:00.198968  9048 net.cpp:434] fc4_4_prescale <- fc4_4
I0408 21:12:00.198976  9048 net.cpp:395] fc4_4_prescale -> fc4_4 (in-place)
I0408 21:12:00.199084  9048 net.cpp:150] Setting up fc4_4_prescale
I0408 21:12:00.199092  9048 net.cpp:157] Top shape: 150 300 (45000)
I0408 21:12:00.199095  9048 net.cpp:165] Memory required for data: 3008520600
I0408 21:12:00.199100  9048 layer_factory.hpp:77] Creating layer fc4_4_sTanH
I0408 21:12:00.199105  9048 net.cpp:100] Creating Layer fc4_4_sTanH
I0408 21:12:00.199108  9048 net.cpp:434] fc4_4_sTanH <- fc4_4
I0408 21:12:00.199115  9048 net.cpp:395] fc4_4_sTanH -> fc4_4 (in-place)
I0408 21:12:00.199311  9048 net.cpp:150] Setting up fc4_4_sTanH
I0408 21:12:00.199321  9048 net.cpp:157] Top shape: 150 300 (45000)
I0408 21:12:00.199324  9048 net.cpp:165] Memory required for data: 3008700600
I0408 21:12:00.199327  9048 layer_factory.hpp:77] Creating layer fc4_4_postscale
I0408 21:12:00.199337  9048 net.cpp:100] Creating Layer fc4_4_postscale
I0408 21:12:00.199352  9048 net.cpp:434] fc4_4_postscale <- fc4_4
I0408 21:12:00.199358  9048 net.cpp:395] fc4_4_postscale -> fc4_4 (in-place)
I0408 21:12:00.199476  9048 net.cpp:150] Setting up fc4_4_postscale
I0408 21:12:00.199484  9048 net.cpp:157] Top shape: 150 300 (45000)
I0408 21:12:00.199487  9048 net.cpp:165] Memory required for data: 3008880600
I0408 21:12:00.199492  9048 layer_factory.hpp:77] Creating layer drop4_4
I0408 21:12:00.199501  9048 net.cpp:100] Creating Layer drop4_4
I0408 21:12:00.199503  9048 net.cpp:434] drop4_4 <- fc4_4
I0408 21:12:00.199508  9048 net.cpp:395] drop4_4 -> fc4_4 (in-place)
I0408 21:12:00.199537  9048 net.cpp:150] Setting up drop4_4
I0408 21:12:00.199543  9048 net.cpp:157] Top shape: 150 300 (45000)
I0408 21:12:00.199545  9048 net.cpp:165] Memory required for data: 3009060600
I0408 21:12:00.199548  9048 layer_factory.hpp:77] Creating layer fc4_5_67
I0408 21:12:00.199554  9048 net.cpp:100] Creating Layer fc4_5_67
I0408 21:12:00.199558  9048 net.cpp:434] fc4_5_67 <- fc4_4
I0408 21:12:00.199564  9048 net.cpp:408] fc4_5_67 -> fc4_5
I0408 21:12:00.199826  9048 net.cpp:150] Setting up fc4_5_67
I0408 21:12:00.199834  9048 net.cpp:157] Top shape: 150 67 (10050)
I0408 21:12:00.199837  9048 net.cpp:165] Memory required for data: 3009100800
I0408 21:12:00.199843  9048 layer_factory.hpp:77] Creating layer softmax_4
I0408 21:12:00.199848  9048 net.cpp:100] Creating Layer softmax_4
I0408 21:12:00.199852  9048 net.cpp:434] softmax_4 <- fc4_5
I0408 21:12:00.199856  9048 net.cpp:408] softmax_4 -> softmax_4
I0408 21:12:00.200134  9048 net.cpp:150] Setting up softmax_4
I0408 21:12:00.200146  9048 net.cpp:157] Top shape: 150 67 (10050)
I0408 21:12:00.200150  9048 net.cpp:165] Memory required for data: 3009141000
I0408 21:12:00.200153  9048 layer_factory.hpp:77] Creating layer averaging
I0408 21:12:00.200162  9048 net.cpp:100] Creating Layer averaging
I0408 21:12:00.200165  9048 net.cpp:434] averaging <- softmax_0
I0408 21:12:00.200170  9048 net.cpp:434] averaging <- softmax_1
I0408 21:12:00.200175  9048 net.cpp:434] averaging <- softmax_2
I0408 21:12:00.200177  9048 net.cpp:434] averaging <- softmax_3
I0408 21:12:00.200181  9048 net.cpp:434] averaging <- softmax_4
I0408 21:12:00.200187  9048 net.cpp:408] averaging -> eltwize
I0408 21:12:00.200222  9048 net.cpp:150] Setting up averaging
I0408 21:12:00.200228  9048 net.cpp:157] Top shape: 150 67 (10050)
I0408 21:12:00.200232  9048 net.cpp:165] Memory required for data: 3009181200
I0408 21:12:00.200234  9048 layer_factory.hpp:77] Creating layer loss
I0408 21:12:00.200242  9048 net.cpp:100] Creating Layer loss
I0408 21:12:00.200245  9048 net.cpp:434] loss <- eltwize
I0408 21:12:00.200249  9048 net.cpp:434] loss <- label_0
I0408 21:12:00.200254  9048 net.cpp:408] loss -> loss
I0408 21:12:00.200285  9048 net.cpp:150] Setting up loss
…
I0408 21:12:00.201849  9048 solver.cpp:193] Creating test net (#0) specified by test_net file: ./Prototxt/experiment_6/rtsd-r1/commitee/test.prototxt
I0408 21:12:00.202584  9048 net.cpp:58] Initializing net from parameters: 
state {
  phase: TEST
}
layer {
  name: "data_0"
  type: "Data"
  top: "data_0"
  top: "label_0"
  include {
    phase: TEST
  }
  transform_param {
    mirror: false
    crop_size: 48
    mean_value: 106
    mean_value: 103
    mean_value: 123
  }
  data_param {
    source: "../local_data/lmdb/rtsd-r1/orig/test/lmdb"
    batch_size: 150
    backend: LMDB
  }
}
layer {
  name: "conv0_0"
  type: "Convolution"
  bottom: "data_0"
  top: "conv0_0"
  convolution_param {
    num_output: 100
    pad: 0
    kernel_size: 7
    group: 1
    stride: 1
    weight_filler {
      type: "xavier"
    }
  }
}
layer {
  name: "conv0_0_prescale"
  type: "Scale"
  bottom: "conv0_0"
  top: "conv0_0"
  param {
    lr_mult: 0
    decay_mult: 0
  }
  scale_param {
    filler {
      value: 0.6666
    }
  }
}
layer {
  name: "conv0_0_sTanH"
  type: "TanH"
  bottom: "conv0_0"
  top: "conv0_0"
}
layer {
  name: "conv0_0_postscale"
  type: "Scale"
  bottom: "conv0_0"
  top: "conv0_0"
  param {
    lr_mult: 0
    decay_mult: 0
  }
  scale_param {
    filler {
      value: 1.7159
    }
  }
}
layer {
  name: "pool0_0"
  type: "Pooling"
  bottom: "conv0_0"
  top: "pool0_0"
  pooling_param {
    pool: MAX
    kernel_size: 2
    stride: 2
  }
}
layer {
  name: "conv0_1"
  type: "Convolution"
  bottom: "pool0_0"
  top: "conv0_1"
  convolution_param {
    num_output: 150
    pad: 0
    kernel_size: 4
    group: 1
    stride: 1
    weight_filler {
      type: "xavier"
    }
  }
}
layer {
  name: "conv0_1_prescale"
  type: "Scale"
  bottom: "conv0_1"
  top: "conv0_1"
  param {
    lr_mult: 0
    decay_mult: 0
  }
  scale_param {
    filler {
      value: 0.6666
    }
  }
}
layer {
  name: "conv0_1_sTanH"
  type: "TanH"
  bottom: "conv0_1"
  top: "conv0_1"
}
layer {
  name: "conv0_1_postscale"
  type: "Scale"
  bottom: "conv0_1"
  top: "conv0_1"
  param {
    lr_mult: 0
    decay_mult: 0
  }
  scale_param {
    filler {
      value: 1.7159
    }
  }
}
layer {
  name: "pool0_1"
  type: "Pooling"
  bottom: "conv0_1"
  top: "pool0_1"
  pooling_param {
    pool: MAX
    kernel_size: 2
    stride: 2
  }
}
layer {
  name: "conv0_2"
  type: "Convolution"
  bottom: "pool0_1"
  top: "conv0_2"
  convolution_param {
    num_output: 250
    pad: 0
    kernel_size: 4
    group: 1
    stride: 1
    weight_filler {
      type: "xavier"
    }
  }
}
layer {
  name: "conv0_2_prescale"
  type: "Scale"
  bottom: "conv0_2"
  top: "conv0_2"
  param {
    lr_mult: 0
    decay_mult: 0
  }
  scale_param {
    filler {
      value: 0.6666
    }
  }
}
layer {
  name: "conv0_2_sTanH"
  type: "TanH"
  bottom: "conv0_2"
  top: "conv0_2"
}
layer {
  name: "conv0_2_postscale"
  type: "Scale"
  bottom: "conv0_2"
  top: "conv0_2"
  param {
    lr_mult: 0
    decay_mult: 0
  }
  scale_param {
    filler {
      value: 1.7159
    }
  }
}
layer {
  name: "pool0_2"
  type: "Pooling"
  bottom: "conv0_2"
  top: "pool0_2"
  pooling_param {
    pool: MAX
    kernel_size: 2
    stride: 2
  }
}
layer {
  name: "fc0_4_300"
  type: "InnerProduct"
  bottom: "pool0_2"
  top: "fc0_4"
  inner_product_param {
    num_output: 300
    weight_filler {
      type: "xavier"
    }
  }
}
layer {
  name: "fc0_4_prescale"
  type: "Scale"
  bottom: "fc0_4"
  top: "fc0_4"
  param {
    lr_mult: 0
    decay_mult: 0
  }
  scale_param {
    filler {
      value: 0.6666
    }
  }
}
layer {
  name: "fc0_4_sTanH"
  type: "TanH"
  bottom: "fc0_4"
  top: "fc0_4"
}
layer {
  name: "fc0_4_postscale"
  type: "Scale"
  bottom: "fc0_4"
  top: "fc0_4"
  param {
    lr_mult: 0
    decay_mult: 0
  }
  scale_param {
    filler {
      value: 1.7159
    }
  }
}
layer {
  name: "drop0_4"
  type: "Dropout"
  bottom: "fc0_4"
  top: "fc0_4"
  dropout_param {
    dropout_ratio: 0.4
  }
}
layer {
  name: "fc0_5_67"
  type: "InnerProduct"
  bottom: "fc0_4"
  top: "fc0_5"
  inner_product_param {
    num_output: 67
    weight_filler {
      type: "xavier"
    }
  }
}
layer {
  name: "softmax_0"
  type: "Softmax"
  bottom: "fc0_5"
  top: "softmax_0"
}
layer {
  name: "data_1"
  type: "Data"
  top: "data_1"
  top: "label_1"
  include {
    phase: TEST
  }
  transform_param {
    mirror: false
    crop_size: 48
    mean_value: 117
    mean_value: 114
    mean_value: 133
  }
  data_param {
    source: "../local_data/lmdb/rtsd-r1/histeq/test/lmdb"
    batch_size: 150
    backend: LMDB
  }
}
layer {
  name: "conv1_0"
  type: "Convolution"
  bottom: "data_1"
  top: "conv1_0"
  convolution_param {
    num_output: 100
    pad: 0
    kernel_size: 7
    group: 1
    stride: 1
    weight_filler {
      type: "xavier"
    }
  }
}
layer {
  name: "conv1_0_prescale"
  type: "Scale"
  bottom: "conv1_0"
  top: "conv1_0"
  param {
    lr_mult: 0
    decay_mult: 0
  }
  scale_param {
    filler {
      value: 0.6666
    }
  }
}
layer {
  name: "conv1_0_sTanH"
  type: "TanH"
  bottom: "conv1_0"
  top: "conv1_0"
}
layer {
  name: "conv1_0_postscale"
  type: "Scale"
  bottom: "conv1_0"
  top: "conv1_0"
  param {
    lr_mult: 0
    decay_mult: 0
  }
  scale_param {
    filler {
      value: 1.7159
    }
  }
}
layer {
  name: "pool1_0"
  type: "Pooling"
  bottom: "conv1_0"
  top: "pool1_0"
  pooling_param {
    pool: MAX
    kernel_size: 2
    stride: 2
  }
}
layer {
  name: "conv1_1"
  type: "Convolution"
  bottom: "pool1_0"
  top: "conv1_1"
  convolution_param {
    num_output: 150
    pad: 0
    kernel_size: 4
    group: 1
    stride: 1
    weight_filler {
      type: "xavier"
    }
  }
}
layer {
  name: "conv1_1_prescale"
  type: "Scale"
  bottom: "conv1_1"
  top: "conv1_1"
  param {
    lr_mult: 0
    decay_mult: 0
  }
  scale_param {
    filler {
      value: 0.6666
    }
  }
}
layer {
  name: "conv1_1_sTanH"
  type: "TanH"
  bottom: "conv1_1"
  top: "conv1_1"
}
layer {
  name: "conv1_1_postscale"
  type: "Scale"
  bottom: "conv1_1"
  top: "conv1_1"
  param {
    lr_mult: 0
    decay_mult: 0
  }
  scale_param {
    filler {
      value: 1.7159
    }
  }
}
layer {
  name: "pool1_1"
  type: "Pooling"
  bottom: "conv1_1"
  top: "pool1_1"
  pooling_param {
    pool: MAX
    kernel_size: 2
    stride: 2
  }
}
layer {
  name: "conv1_2"
  type: "Convolution"
  bottom: "pool1_1"
  top: "conv1_2"
  convolution_param {
    num_output: 250
    pad: 0
    kernel_size: 4
    group: 1
    stride: 1
    weight_filler {
      type: "xavier"
    }
  }
}
layer {
  name: "conv1_2_prescale"
  type: "Scale"
  bottom: "conv1_2"
  top: "conv1_2"
  param {
    lr_mult: 0
    decay_mult: 0
  }
  scale_param {
    filler {
      value: 0.6666
    }
  }
}
layer {
  name: "conv1_2_sTanH"
  type: "TanH"
  bottom: "conv1_2"
  top: "conv1_2"
}
layer {
  name: "conv1_2_postscale"
  type: "Scale"
  bottom: "conv1_2"
  top: "conv1_2"
  param {
    lr_mult: 0
    decay_mult: 0
  }
  scale_param {
    filler {
      value: 1.7159
    }
  }
}
layer {
  name: "pool1_2"
  type: "Pooling"
  bottom: "conv1_2"
  top: "pool1_2"
  pooling_param {
    pool: MAX
    kernel_size: 2
    stride: 2
  }
}
layer {
  name: "fc1_4_300"
  type: "InnerProduct"
  bottom: "pool1_2"
  top: "fc1_4"
  inner_product_param {
    num_output: 300
    weight_filler {
      type: "xavier"
    }
  }
}
layer {
  name: "fc1_4_prescale"
  type: "Scale"
  bottom: "fc1_4"
  top: "fc1_4"
  param {
    lr_mult: 0
    decay_mult: 0
  }
  scale_param {
    filler {
      value: 0.6666
    }
  }
}
layer {
  name: "fc1_4_sTanH"
  type: "TanH"
  bottom: "fc1_4"
  top: "fc1_4"
}
layer {
  name: "fc1_4_postscale"
  type: "Scale"
  bottom: "fc1_4"
  top: "fc1_4"
  param {
    lr_mult: 0
    decay_mult: 0
  }
  scale_param {
    filler {
      value: 1.7159
    }
  }
}
layer {
  name: "drop1_4"
  type: "Dropout"
  bottom: "fc1_4"
  top: "fc1_4"
  dropout_param {
    dropout_ratio: 0.4
  }
}
layer {
  name: "fc1_5_67"
  type: "InnerProduct"
  bottom: "fc1_4"
  top: "fc1_5"
  inner_product_param {
    num_output: 67
    weight_filler {
      type: "xavier"
    }
  }
}
layer {
  name: "softmax_1"
  type: "Softmax"
  bottom: "fc1_5"
  top: "softmax_1"
}
layer {
  name: "data_2"
  type: "Data"
  top: "data_2"
  top: "label_2"
  include {
    phase: TEST
  }
  transform_param {
    mirror: false
    crop_size: 48
    mean_value: 119
    mean_value: 116
    mean_value: 136
  }
  data_param {
    source: "../local_data/lmdb/rtsd-r1/AHE/test/lmdb"
    batch_size: 150
    backend: LMDB
  }
}
layer {
  name: "conv2_0"
  type: "Convolution"
  bottom: "data_2"
  top: "conv2_0"
  convolution_param {
    num_output: 100
    pad: 0
    kernel_size: 7
    group: 1
    stride: 1
    weight_filler {
      type: "xavier"
    }
  }
}
layer {
  name: "conv2_0_prescale"
  type: "Scale"
  bottom: "conv2_0"
  top: "conv2_0"
  param {
    lr_mult: 0
    decay_mult: 0
  }
  scale_param {
    filler {
      value: 0.6666
    }
  }
}
layer {
  name: "conv2_0_sTanH"
  type: "TanH"
  bottom: "conv2_0"
  top: "conv2_0"
}
layer {
  name: "conv2_0_postscale"
  type: "Scale"
  bottom: "conv2_0"
  top: "conv2_0"
  param {
    lr_mult: 0
    decay_mult: 0
  }
  scale_param {
    filler {
      value: 1.7159
    }
  }
}
layer {
  name: "pool2_0"
  type: "Pooling"
  bottom: "conv2_0"
  top: "pool2_0"
  pooling_param {
    pool: MAX
    kernel_size: 2
    stride: 2
  }
}
layer {
  name: "conv2_1"
  type: "Convolution"
  bottom: "pool2_0"
  top: "conv2_1"
  convolution_param {
    num_output: 150
    pad: 0
    kernel_size: 4
    group: 1
    stride: 1
    weight_filler {
      type: "xavier"
    }
  }
}
layer {
  name: "conv2_1_prescale"
  type: "Scale"
  bottom: "conv2_1"
  top: "conv2_1"
  param {
    lr_mult: 0
    decay_mult: 0
  }
  scale_param {
    filler {
      value: 0.6666
    }
  }
}
layer {
  name: "conv2_1_sTanH"
  type: "TanH"
  bottom: "conv2_1"
  top: "conv2_1"
}
layer {
  name: "conv2_1_postscale"
  type: "Scale"
  bottom: "conv2_1"
  top: "conv2_1"
  param {
    lr_mult: 0
    decay_mult: 0
  }
  scale_param {
    filler {
      value: 1.7159
    }
  }
}
layer {
  name: "pool2_1"
  type: "Pooling"
  bottom: "conv2_1"
  top: "pool2_1"
  pooling_param {
    pool: MAX
    kernel_size: 2
    stride: 2
  }
}
layer {
  name: "conv2_2"
  type: "Convolution"
  bottom: "pool2_1"
  top: "conv2_2"
  convolution_param {
    num_output: 250
    pad: 0
    kernel_size: 4
    group: 1
    stride: 1
    weight_filler {
      type: "xavier"
    }
  }
}
layer {
  name: "conv2_2_prescale"
  type: "Scale"
  bottom: "conv2_2"
  top: "conv2_2"
  param {
    lr_mult: 0
    decay_mult: 0
  }
  scale_param {
    filler {
      value: 0.6666
    }
  }
}
layer {
  name: "conv2_2_sTanH"
  type: "TanH"
  bottom: "conv2_2"
  top: "conv2_2"
}
layer {
  name: "conv2_2_postscale"
  type: "Scale"
  bottom: "conv2_2"
  top: "conv2_2"
  param {
    lr_mult: 0
    decay_mult: 0
  }
  scale_param {
    filler {
      value: 1.7159
    }
  }
}
layer {
  name: "pool2_2"
  type: "Pooling"
  bottom: "conv2_2"
  top: "pool2_2"
  pooling_param {
    pool: MAX
    kernel_size: 2
    stride: 2
  }
}
layer {
  name: "fc2_4_300"
  type: "InnerProduct"
  bottom: "pool2_2"
  top: "fc2_4"
  inner_product_param {
    num_output: 300
    weight_filler {
      type: "xavier"
    }
  }
}
layer {
  name: "fc2_4_prescale"
  type: "Scale"
  bottom: "fc2_4"
  top: "fc2_4"
  param {
    lr_mult: 0
    decay_mult: 0
  }
  scale_param {
    filler {
      value: 0.6666
    }
  }
}
layer {
  name: "fc2_4_sTanH"
  type: "TanH"
  bottom: "fc2_4"
  top: "fc2_4"
}
layer {
  name: "fc2_4_postscale"
  type: "Scale"
  bottom: "fc2_4"
  top: "fc2_4"
  param {
    lr_mult: 0
    decay_mult: 0
  }
  scale_param {
    filler {
      value: 1.7159
    }
  }
}
layer {
  name: "drop2_4"
  type: "Dropout"
  bottom: "fc2_4"
  top: "fc2_4"
  dropout_param {
    dropout_ratio: 0.4
  }
}
layer {
  name: "fc2_5_67"
  type: "InnerProduct"
  bottom: "fc2_4"
  top: "fc2_5"
  inner_product_param {
    num_output: 67
    weight_filler {
      type: "xavier"
    }
  }
}
layer {
  name: "softmax_2"
  type: "Softmax"
  bottom: "fc2_5"
  top: "softmax_2"
}
layer {
  name: "data_3"
  type: "Data"
  top: "data_3"
  top: "label_3"
  include {
    phase: TEST
  }
  transform_param {
    mirror: false
    crop_size: 48
    mean_value: 102
    mean_value: 99
    mean_value: 118
  }
  data_param {
    source: "../local_data/lmdb/rtsd-r1/imajust/test/lmdb"
    batch_size: 150
    backend: LMDB
  }
}
layer {
  name: "conv3_0"
  type: "Convolution"
  bottom: "data_3"
  top: "conv3_0"
  convolution_param {
    num_output: 100
    pad: 0
    kernel_size: 7
    group: 1
    stride: 1
    weight_filler {
      type: "xavier"
    }
  }
}
layer {
  name: "conv3_0_prescale"
  type: "Scale"
  bottom: "conv3_0"
  top: "conv3_0"
  param {
    lr_mult: 0
    decay_mult: 0
  }
  scale_param {
    filler {
      value: 0.6666
    }
  }
}
layer {
  name: "conv3_0_sTanH"
  type: "TanH"
  bottom: "conv3_0"
  top: "conv3_0"
}
layer {
  name: "conv3_0_postscale"
  type: "Scale"
  bottom: "conv3_0"
  top: "conv3_0"
  param {
    lr_mult: 0
    decay_mult: 0
  }
  scale_param {
    filler {
      value: 1.7159
    }
  }
}
layer {
  name: "pool3_0"
  type: "Pooling"
  bottom: "conv3_0"
  top: "pool3_0"
  pooling_param {
    pool: MAX
    kernel_size: 2
    stride: 2
  }
}
layer {
  name: "conv3_1"
  type: "Convolution"
  bottom: "pool3_0"
  top: "conv3_1"
  convolution_param {
    num_output: 150
    pad: 0
    kernel_size: 4
    group: 1
    stride: 1
    weight_filler {
      type: "xavier"
    }
  }
}
layer {
  name: "conv3_1_prescale"
  type: "Scale"
  bottom: "conv3_1"
  top: "conv3_1"
  param {
    lr_mult: 0
    decay_mult: 0
  }
  scale_param {
    filler {
      value: 0.6666
    }
  }
}
layer {
  name: "conv3_1_sTanH"
  type: "TanH"
  bottom: "conv3_1"
  top: "conv3_1"
}
layer {
  name: "conv3_1_postscale"
  type: "Scale"
  bottom: "conv3_1"
  top: "conv3_1"
  param {
    lr_mult: 0
    decay_mult: 0
  }
  scale_param {
    filler {
      value: 1.7159
    }
  }
}
layer {
  name: "pool3_1"
  type: "Pooling"
  bottom: "conv3_1"
  top: "pool3_1"
  pooling_param {
    pool: MAX
    kernel_size: 2
    stride: 2
  }
}
layer {
  name: "conv3_2"
  type: "Convolution"
  bottom: "pool3_1"
  top: "conv3_2"
  convolution_param {
    num_output: 250
    pad: 0
    kernel_size: 4
    group: 1
    stride: 1
    weight_filler {
      type: "xavier"
    }
  }
}
layer {
  name: "conv3_2_prescale"
  type: "Scale"
  bottom: "conv3_2"
  top: "conv3_2"
  param {
    lr_mult: 0
    decay_mult: 0
  }
  scale_param {
    filler {
      value: 0.6666
    }
  }
}
layer {
  name: "conv3_2_sTanH"
  type: "TanH"
  bottom: "conv3_2"
  top: "conv3_2"
}
layer {
  name: "conv3_2_postscale"
  type: "Scale"
  bottom: "conv3_2"
  top: "conv3_2"
  param {
    lr_mult: 0
    decay_mult: 0
  }
  scale_param {
    filler {
      value: 1.7159
    }
  }
}
layer {
  name: "pool3_2"
  type: "Pooling"
  bottom: "conv3_2"
  top: "pool3_2"
  pooling_param {
    pool: MAX
    kernel_size: 2
    stride: 2
  }
}
layer {
  name: "fc3_4_300"
  type: "InnerProduct"
  bottom: "pool3_2"
  top: "fc3_4"
  inner_product_param {
    num_output: 300
    weight_filler {
      type: "xavier"
    }
  }
}
layer {
  name: "fc3_4_prescale"
  type: "Scale"
  bottom: "fc3_4"
  top: "fc3_4"
  param {
    lr_mult: 0
    decay_mult: 0
  }
  scale_param {
    filler {
      value: 0.6666
    }
  }
}
layer {
  name: "fc3_4_sTanH"
  type: "TanH"
  bottom: "fc3_4"
  top: "fc3_4"
}
layer {
  name: "fc3_4_postscale"
  type: "Scale"
  bottom: "fc3_4"
  top: "fc3_4"
  param {
    lr_mult: 0
    decay_mult: 0
  }
  scale_param {
    filler {
      value: 1.7159
    }
  }
}
layer {
  name: "drop3_4"
  type: "Dropout"
  bottom: "fc3_4"
  top: "fc3_4"
  dropout_param {
    dropout_ratio: 0.4
  }
}
layer {
  name: "fc3_5_67"
  type: "InnerProduct"
  bottom: "fc3_4"
  top: "fc3_5"
  inner_product_param {
    num_output: 67
    weight_filler {
      type: "xavier"
    }
  }
}
layer {
  name: "softmax_3"
  type: "Softmax"
  bottom: "fc3_5"
  top: "softmax_3"
}
layer {
  name: "data_4"
  type: "Data"
  top: "data_4"
  top: "label_4"
  include {
    phase: TEST
  }
  transform_param {
    mirror: false
    crop_size: 48
    mean_value: 124
    mean_value: 124
    mean_value: 124
  }
  data_param {
    source: "../local_data/lmdb/rtsd-r1/CoNorm/test/lmdb"
    batch_size: 150
    backend: LMDB
  }
}
layer {
  name: "conv4_0"
  type: "Convolution"
  bottom: "data_4"
  top: "conv4_0"
  convolution_param {
    num_output: 100
    pad: 0
    kernel_size: 7
    group: 1
    stride: 1
    weight_filler {
      type: "xavier"
    }
  }
}
layer {
  name: "conv4_0_prescale"
  type: "Scale"
  bottom: "conv4_0"
  top: "conv4_0"
  param {
    lr_mult: 0
    decay_mult: 0
  }
  scale_param {
    filler {
      value: 0.6666
    }
  }
}
layer {
  name: "conv4_0_sTanH"
  type: "TanH"
  bottom: "conv4_0"
  top: "conv4_0"
}
layer {
  name: "conv4_0_postscale"
  type: "Scale"
  bottom: "conv4_0"
  top: "conv4_0"
  param {
    lr_mult: 0
    decay_mult: 0
  }
  scale_param {
    filler {
      value: 1.7159
    }
  }
}
layer {
  name: "pool4_0"
  type: "Pooling"
  bottom: "conv4_0"
  top: "pool4_0"
  pooling_param {
    pool: MAX
    kernel_size: 2
    stride: 2
  }
}
layer {
  name: "conv4_1"
  type: "Convolution"
  bottom: "pool4_0"
  top: "conv4_1"
  convolution_param {
    num_output: 150
    pad: 0
    kernel_size: 4
    group: 1
    stride: 1
    weight_filler {
      type: "xavier"
    }
  }
}
layer {
  name: "conv4_1_prescale"
  type: "Scale"
  bottom: "conv4_1"
  top: "conv4_1"
  param {
    lr_mult: 0
    decay_mult: 0
  }
  scale_param {
    filler {
      value: 0.6666
    }
  }
}
layer {
  name: "conv4_1_sTanH"
  type: "TanH"
  bottom: "conv4_1"
  top: "conv4_1"
}
layer {
  name: "conv4_1_postscale"
  type: "Scale"
  bottom: "conv4_1"
  top: "conv4_1"
  param {
    lr_mult: 0
    decay_mult: 0
  }
  scale_param {
    filler {
      value: 1.7159
    }
  }
}
layer {
  name: "pool4_1"
  type: "Pooling"
  bottom: "conv4_1"
  top: "pool4_1"
  pooling_param {
    pool: MAX
    kernel_size: 2
    stride: 2
  }
}
layer {
  name: "conv4_2"
  type: "Convolution"
  bottom: "pool4_1"
  top: "conv4_2"
  convolution_param {
    num_output: 250
    pad: 0
    kernel_size: 4
    group: 1
    stride: 1
    weight_filler {
      type: "xavier"
    }
  }
}
layer {
  name: "conv4_2_prescale"
  type: "Scale"
  bottom: "conv4_2"
  top: "conv4_2"
  param {
    lr_mult: 0
    decay_mult: 0
  }
  scale_param {
    filler {
      value: 0.6666
    }
  }
}
layer {
  name: "conv4_2_sTanH"
  type: "TanH"
  bottom: "conv4_2"
  top: "conv4_2"
}
layer {
  name: "conv4_2_postscale"
  type: "Scale"
  bottom: "conv4_2"
  top: "conv4_2"
  param {
    lr_mult: 0
    decay_mult: 0
  }
  scale_param {
    filler {
      value: 1.7159
    }
  }
}
layer {
  name: "pool4_2"
  type: "Pooling"
  bottom: "conv4_2"
  top: "pool4_2"
  pooling_param {
    pool: MAX
    kernel_size: 2
    stride: 2
  }
}
layer {
  name: "fc4_4_300"
  type: "InnerProduct"
  bottom: "pool4_2"
  top: "fc4_4"
  inner_product_param {
    num_output: 300
    weight_filler {
      type: "xavier"
    }
  }
}
layer {
  name: "fc4_4_prescale"
  type: "Scale"
  bottom: "fc4_4"
  top: "fc4_4"
  param {
    lr_mult: 0
    decay_mult: 0
  }
  scale_param {
    filler {
      value: 0.6666
    }
  }
}
layer {
  name: "fc4_4_sTanH"
  type: "TanH"
  bottom: "fc4_4"
  top: "fc4_4"
}
layer {
  name: "fc4_4_postscale"
  type: "Scale"
  bottom: "fc4_4"
  top: "fc4_4"
  param {
    lr_mult: 0
    decay_mult: 0
  }
  scale_param {
    filler {
      value: 1.7159
    }
  }
}
layer {
  name: "drop4_4"
  type: "Dropout"
  bottom: "fc4_4"
  top: "fc4_4"
  dropout_param {
    dropout_ratio: 0.4
  }
}
layer {
  name: "fc4_5_67"
  type: "InnerProduct"
  bottom: "fc4_4"
  top: "fc4_5"
  inner_product_param {
    num_output: 67
    weight_filler {
      type: "xavier"
    }
  }
}
layer {
  name: "softmax_4"
  type: "Softmax"
  bottom: "fc4_5"
  top: "softmax_4"
}
layer {
  name: "averaging"
  type: "Eltwise"
  bottom: "softmax_0"
  bottom: "softmax_1"
  bottom: "softmax_2"
  bottom: "softmax_3"
  bottom: "softmax_4"
  top: "eltwize"
  eltwise_param {
    operation: SUM
    coeff: 0.2
    coeff: 0.2
    coeff: 0.2
    coeff: 0.2
    coeff: 0.2
  }
}
layer {
  name: "loss"
  type: "MultinomialLogisticLoss"
  bottom: "eltwize"
  bottom: "label_0"
  top: "loss"
}
layer {
  name: "accuracy_1"
  type: "Accuracy"
  bottom: "eltwize"
  bottom: "label_0"
  top: "accuracy_1"
  include {
    phase: TEST
  }
  accuracy_param {
    top_k: 1
  }
}
layer {
  name: "accuracy_5"
  type: "Accuracy"
  bottom: "eltwize"
  bottom: "label_0"
  top: "accuracy_5"
  include {
    phase: TEST
  }
  accuracy_param {
    top_k: 5
  }
}
layer {
  name: "silence"
  type: "Silence"
  bottom: "label_1"
  bottom: "label_2"
  bottom: "label_3"
  bottom: "label_4"
}
I0408 21:12:00.202930  9048 layer_factory.hpp:77] Creating layer data_0
I0408 21:12:00.203076  9048 net.cpp:100] Creating Layer data_0
I0408 21:12:00.203094  9048 net.cpp:408] data_0 -> data_0
I0408 21:12:00.203104  9048 net.cpp:408] data_0 -> label_0
I0408 21:12:00.204260  9148 db_lmdb.cpp:35] Opened lmdb ../local_data/lmdb/rtsd-r1/orig/test/lmdb
I0408 21:12:00.204407  9048 data_layer.cpp:41] output data size: 150,3,48,48
I0408 21:12:00.213348  9048 net.cpp:150] Setting up data_0
I0408 21:12:00.213366  9048 net.cpp:157] Top shape: 150 3 48 48 (1036800)
I0408 21:12:00.213372  9048 net.cpp:157] Top shape: 150 (150)
I0408 21:12:00.213374  9048 net.cpp:165] Memory required for data: 4147800
I0408 21:12:00.213379  9048 layer_factory.hpp:77] Creating layer label_0_data_0_1_split
I0408 21:12:00.213389  9048 net.cpp:100] Creating Layer label_0_data_0_1_split
I0408 21:12:00.213392  9048 net.cpp:434] label_0_data_0_1_split <- label_0
I0408 21:12:00.213399  9048 net.cpp:408] label_0_data_0_1_split -> label_0_data_0_1_split_0
I0408 21:12:00.213408  9048 net.cpp:408] label_0_data_0_1_split -> label_0_data_0_1_split_1
I0408 21:12:00.213414  9048 net.cpp:408] label_0_data_0_1_split -> label_0_data_0_1_split_2
I0408 21:12:00.213536  9048 net.cpp:150] Setting up label_0_data_0_1_split
I0408 21:12:00.213543  9048 net.cpp:157] Top shape: 150 (150)
I0408 21:12:00.213546  9048 net.cpp:157] Top shape: 150 (150)
I0408 21:12:00.213551  9048 net.cpp:157] Top shape: 150 (150)
I0408 21:12:00.213553  9048 net.cpp:165] Memory required for data: 4149600
I0408 21:12:00.213557  9048 layer_factory.hpp:77] Creating layer conv0_0
I0408 21:12:00.213568  9048 net.cpp:100] Creating Layer conv0_0
I0408 21:12:00.213572  9048 net.cpp:434] conv0_0 <- data_0
I0408 21:12:00.213579  9048 net.cpp:408] conv0_0 -> conv0_0
I0408 21:12:00.216078  9048 net.cpp:150] Setting up conv0_0
I0408 21:12:00.216095  9048 net.cpp:157] Top shape: 150 100 42 42 (26460000)
I0408 21:12:00.216099  9048 net.cpp:165] Memory required for data: 109989600
I0408 21:12:00.216109  9048 layer_factory.hpp:77] Creating layer conv0_0_prescale
I0408 21:12:00.216119  9048 net.cpp:100] Creating Layer conv0_0_prescale
I0408 21:12:00.216125  9048 net.cpp:434] conv0_0_prescale <- conv0_0
I0408 21:12:00.216131  9048 net.cpp:395] conv0_0_prescale -> conv0_0 (in-place)
I0408 21:12:00.216254  9048 net.cpp:150] Setting up conv0_0_prescale
I0408 21:12:00.216262  9048 net.cpp:157] Top shape: 150 100 42 42 (26460000)
I0408 21:12:00.216265  9048 net.cpp:165] Memory required for data: 215829600
I0408 21:12:00.216289  9048 layer_factory.hpp:77] Creating layer conv0_0_sTanH
I0408 21:12:00.216296  9048 net.cpp:100] Creating Layer conv0_0_sTanH
I0408 21:12:00.216300  9048 net.cpp:434] conv0_0_sTanH <- conv0_0
I0408 21:12:00.216305  9048 net.cpp:395] conv0_0_sTanH -> conv0_0 (in-place)
I0408 21:12:00.217471  9048 net.cpp:150] Setting up conv0_0_sTanH
I0408 21:12:00.217484  9048 net.cpp:157] Top shape: 150 100 42 42 (26460000)
I0408 21:12:00.217488  9048 net.cpp:165] Memory required for data: 321669600
I0408 21:12:00.217491  9048 layer_factory.hpp:77] Creating layer conv0_0_postscale
I0408 21:12:00.217499  9048 net.cpp:100] Creating Layer conv0_0_postscale
I0408 21:12:00.217506  9048 net.cpp:434] conv0_0_postscale <- conv0_0
I0408 21:12:00.217514  9048 net.cpp:395] conv0_0_postscale -> conv0_0 (in-place)
I0408 21:12:00.217643  9048 net.cpp:150] Setting up conv0_0_postscale
I0408 21:12:00.217653  9048 net.cpp:157] Top shape: 150 100 42 42 (26460000)
I0408 21:12:00.217656  9048 net.cpp:165] Memory required for data: 427509600
I0408 21:12:00.217661  9048 layer_factory.hpp:77] Creating layer pool0_0
I0408 21:12:00.217667  9048 net.cpp:100] Creating Layer pool0_0
I0408 21:12:00.217670  9048 net.cpp:434] pool0_0 <- conv0_0
I0408 21:12:00.217677  9048 net.cpp:408] pool0_0 -> pool0_0
I0408 21:12:00.217726  9048 net.cpp:150] Setting up pool0_0
I0408 21:12:00.217732  9048 net.cpp:157] Top shape: 150 100 21 21 (6615000)
I0408 21:12:00.217736  9048 net.cpp:165] Memory required for data: 453969600
I0408 21:12:00.217738  9048 layer_factory.hpp:77] Creating layer conv0_1
I0408 21:12:00.217749  9048 net.cpp:100] Creating Layer conv0_1
I0408 21:12:00.217752  9048 net.cpp:434] conv0_1 <- pool0_0
I0408 21:12:00.217758  9048 net.cpp:408] conv0_1 -> conv0_1
I0408 21:12:00.221104  9048 net.cpp:150] Setting up conv0_1
I0408 21:12:00.221122  9048 net.cpp:157] Top shape: 150 150 18 18 (7290000)
I0408 21:12:00.221127  9048 net.cpp:165] Memory required for data: 483129600
I0408 21:12:00.221137  9048 layer_factory.hpp:77] Creating layer conv0_1_prescale
I0408 21:12:00.221151  9048 net.cpp:100] Creating Layer conv0_1_prescale
I0408 21:12:00.221155  9048 net.cpp:434] conv0_1_prescale <- conv0_1
I0408 21:12:00.221161  9048 net.cpp:395] conv0_1_prescale -> conv0_1 (in-place)
I0408 21:12:00.221287  9048 net.cpp:150] Setting up conv0_1_prescale
I0408 21:12:00.221297  9048 net.cpp:157] Top shape: 150 150 18 18 (7290000)
I0408 21:12:00.221300  9048 net.cpp:165] Memory required for data: 512289600
I0408 21:12:00.221305  9048 layer_factory.hpp:77] Creating layer conv0_1_sTanH
I0408 21:12:00.221312  9048 net.cpp:100] Creating Layer conv0_1_sTanH
I0408 21:12:00.221315  9048 net.cpp:434] conv0_1_sTanH <- conv0_1
I0408 21:12:00.221320  9048 net.cpp:395] conv0_1_sTanH -> conv0_1 (in-place)
I0408 21:12:00.221554  9048 net.cpp:150] Setting up conv0_1_sTanH
I0408 21:12:00.221563  9048 net.cpp:157] Top shape: 150 150 18 18 (7290000)
I0408 21:12:00.221566  9048 net.cpp:165] Memory required for data: 541449600
I0408 21:12:00.221570  9048 layer_factory.hpp:77] Creating layer conv0_1_postscale
I0408 21:12:00.221577  9048 net.cpp:100] Creating Layer conv0_1_postscale
I0408 21:12:00.221580  9048 net.cpp:434] conv0_1_postscale <- conv0_1
I0408 21:12:00.221585  9048 net.cpp:395] conv0_1_postscale -> conv0_1 (in-place)
I0408 21:12:00.221709  9048 net.cpp:150] Setting up conv0_1_postscale
I0408 21:12:00.221716  9048 net.cpp:157] Top shape: 150 150 18 18 (7290000)
I0408 21:12:00.221719  9048 net.cpp:165] Memory required for data: 570609600
I0408 21:12:00.221724  9048 layer_factory.hpp:77] Creating layer pool0_1
I0408 21:12:00.221730  9048 net.cpp:100] Creating Layer pool0_1
I0408 21:12:00.221734  9048 net.cpp:434] pool0_1 <- conv0_1
I0408 21:12:00.221738  9048 net.cpp:408] pool0_1 -> pool0_1
I0408 21:12:00.221791  9048 net.cpp:150] Setting up pool0_1
I0408 21:12:00.221796  9048 net.cpp:157] Top shape: 150 150 9 9 (1822500)
I0408 21:12:00.221799  9048 net.cpp:165] Memory required for data: 577899600
I0408 21:12:00.221802  9048 layer_factory.hpp:77] Creating layer conv0_2
I0408 21:12:00.221823  9048 net.cpp:100] Creating Layer conv0_2
I0408 21:12:00.221829  9048 net.cpp:434] conv0_2 <- pool0_1
I0408 21:12:00.221835  9048 net.cpp:408] conv0_2 -> conv0_2
I0408 21:12:00.230238  9048 net.cpp:150] Setting up conv0_2
I0408 21:12:00.230253  9048 net.cpp:157] Top shape: 150 250 6 6 (1350000)
I0408 21:12:00.230257  9048 net.cpp:165] Memory required for data: 583299600
I0408 21:12:00.230268  9048 layer_factory.hpp:77] Creating layer conv0_2_prescale
I0408 21:12:00.230278  9048 net.cpp:100] Creating Layer conv0_2_prescale
I0408 21:12:00.230283  9048 net.cpp:434] conv0_2_prescale <- conv0_2
I0408 21:12:00.230288  9048 net.cpp:395] conv0_2_prescale -> conv0_2 (in-place)
I0408 21:12:00.230432  9048 net.cpp:150] Setting up conv0_2_prescale
I0408 21:12:00.230442  9048 net.cpp:157] Top shape: 150 250 6 6 (1350000)
I0408 21:12:00.230444  9048 net.cpp:165] Memory required for data: 588699600
I0408 21:12:00.230450  9048 layer_factory.hpp:77] Creating layer conv0_2_sTanH
I0408 21:12:00.230455  9048 net.cpp:100] Creating Layer conv0_2_sTanH
I0408 21:12:00.230458  9048 net.cpp:434] conv0_2_sTanH <- conv0_2
I0408 21:12:00.230465  9048 net.cpp:395] conv0_2_sTanH -> conv0_2 (in-place)
I0408 21:12:00.230664  9048 net.cpp:150] Setting up conv0_2_sTanH
I0408 21:12:00.230674  9048 net.cpp:157] Top shape: 150 250 6 6 (1350000)
I0408 21:12:00.230676  9048 net.cpp:165] Memory required for data: 594099600
I0408 21:12:00.230679  9048 layer_factory.hpp:77] Creating layer conv0_2_postscale
I0408 21:12:00.230689  9048 net.cpp:100] Creating Layer conv0_2_postscale
I0408 21:12:00.230692  9048 net.cpp:434] conv0_2_postscale <- conv0_2
I0408 21:12:00.230697  9048 net.cpp:395] conv0_2_postscale -> conv0_2 (in-place)
I0408 21:12:00.230835  9048 net.cpp:150] Setting up conv0_2_postscale
I0408 21:12:00.230842  9048 net.cpp:157] Top shape: 150 250 6 6 (1350000)
I0408 21:12:00.230845  9048 net.cpp:165] Memory required for data: 599499600
I0408 21:12:00.230850  9048 layer_factory.hpp:77] Creating layer pool0_2
I0408 21:12:00.230861  9048 net.cpp:100] Creating Layer pool0_2
I0408 21:12:00.230865  9048 net.cpp:434] pool0_2 <- conv0_2
I0408 21:12:00.230870  9048 net.cpp:408] pool0_2 -> pool0_2
I0408 21:12:00.231228  9048 net.cpp:150] Setting up pool0_2
I0408 21:12:00.231236  9048 net.cpp:157] Top shape: 150 250 3 3 (337500)
I0408 21:12:00.231240  9048 net.cpp:165] Memory required for data: 600849600
I0408 21:12:00.231245  9048 layer_factory.hpp:77] Creating layer fc0_4_300
I0408 21:12:00.231251  9048 net.cpp:100] Creating Layer fc0_4_300
I0408 21:12:00.231254  9048 net.cpp:434] fc0_4_300 <- pool0_2
I0408 21:12:00.231261  9048 net.cpp:408] fc0_4_300 -> fc0_4
I0408 21:12:00.236845  9048 net.cpp:150] Setting up fc0_4_300
I0408 21:12:00.236860  9048 net.cpp:157] Top shape: 150 300 (45000)
I0408 21:12:00.236862  9048 net.cpp:165] Memory required for data: 601029600
I0408 21:12:00.236870  9048 layer_factory.hpp:77] Creating layer fc0_4_prescale
I0408 21:12:00.236876  9048 net.cpp:100] Creating Layer fc0_4_prescale
I0408 21:12:00.236879  9048 net.cpp:434] fc0_4_prescale <- fc0_4
I0408 21:12:00.236886  9048 net.cpp:395] fc0_4_prescale -> fc0_4 (in-place)
I0408 21:12:00.236996  9048 net.cpp:150] Setting up fc0_4_prescale
I0408 21:12:00.237002  9048 net.cpp:157] Top shape: 150 300 (45000)
I0408 21:12:00.237005  9048 net.cpp:165] Memory required for data: 601209600
I0408 21:12:00.237010  9048 layer_factory.hpp:77] Creating layer fc0_4_sTanH
I0408 21:12:00.237015  9048 net.cpp:100] Creating Layer fc0_4_sTanH
I0408 21:12:00.237017  9048 net.cpp:434] fc0_4_sTanH <- fc0_4
I0408 21:12:00.237022  9048 net.cpp:395] fc0_4_sTanH -> fc0_4 (in-place)
I0408 21:12:00.237229  9048 net.cpp:150] Setting up fc0_4_sTanH
I0408 21:12:00.237237  9048 net.cpp:157] Top shape: 150 300 (45000)
I0408 21:12:00.237241  9048 net.cpp:165] Memory required for data: 601389600
I0408 21:12:00.237244  9048 layer_factory.hpp:77] Creating layer fc0_4_postscale
I0408 21:12:00.237251  9048 net.cpp:100] Creating Layer fc0_4_postscale
I0408 21:12:00.237253  9048 net.cpp:434] fc0_4_postscale <- fc0_4
I0408 21:12:00.237272  9048 net.cpp:395] fc0_4_postscale -> fc0_4 (in-place)
I0408 21:12:00.237406  9048 net.cpp:150] Setting up fc0_4_postscale
I0408 21:12:00.237412  9048 net.cpp:157] Top shape: 150 300 (45000)
I0408 21:12:00.237416  9048 net.cpp:165] Memory required for data: 601569600
I0408 21:12:00.237419  9048 layer_factory.hpp:77] Creating layer drop0_4
I0408 21:12:00.237426  9048 net.cpp:100] Creating Layer drop0_4
I0408 21:12:00.237428  9048 net.cpp:434] drop0_4 <- fc0_4
I0408 21:12:00.237433  9048 net.cpp:395] drop0_4 -> fc0_4 (in-place)
I0408 21:12:00.237462  9048 net.cpp:150] Setting up drop0_4
I0408 21:12:00.237468  9048 net.cpp:157] Top shape: 150 300 (45000)
I0408 21:12:00.237470  9048 net.cpp:165] Memory required for data: 601749600
I0408 21:12:00.237473  9048 layer_factory.hpp:77] Creating layer fc0_5_67
I0408 21:12:00.237478  9048 net.cpp:100] Creating Layer fc0_5_67
I0408 21:12:00.237481  9048 net.cpp:434] fc0_5_67 <- fc0_4
I0408 21:12:00.237488  9048 net.cpp:408] fc0_5_67 -> fc0_5
I0408 21:12:00.237742  9048 net.cpp:150] Setting up fc0_5_67
I0408 21:12:00.237748  9048 net.cpp:157] Top shape: 150 67 (10050)
I0408 21:12:00.237751  9048 net.cpp:165] Memory required for data: 601789800
I0408 21:12:00.237761  9048 layer_factory.hpp:77] Creating layer softmax_0
I0408 21:12:00.237767  9048 net.cpp:100] Creating Layer softmax_0
I0408 21:12:00.237771  9048 net.cpp:434] softmax_0 <- fc0_5
I0408 21:12:00.237774  9048 net.cpp:408] softmax_0 -> softmax_0
I0408 21:12:00.244803  9048 net.cpp:150] Setting up softmax_0
I0408 21:12:00.244815  9048 net.cpp:157] Top shape: 150 67 (10050)
I0408 21:12:00.244818  9048 net.cpp:165] Memory required for data: 601830000
I0408 21:12:00.244822  9048 layer_factory.hpp:77] Creating layer data_1
I0408 21:12:00.244964  9048 net.cpp:100] Creating Layer data_1
I0408 21:12:00.244983  9048 net.cpp:408] data_1 -> data_1
I0408 21:12:00.244994  9048 net.cpp:408] data_1 -> label_1
I0408 21:12:00.254863  9153 db_lmdb.cpp:35] Opened lmdb ../local_data/lmdb/rtsd-r1/histeq/test/lmdb
I0408 21:12:00.255010  9048 data_layer.cpp:41] output data size: 150,3,48,48
I0408 21:12:00.265771  9048 net.cpp:150] Setting up data_1
I0408 21:12:00.265789  9048 net.cpp:157] Top shape: 150 3 48 48 (1036800)
I0408 21:12:00.265794  9048 net.cpp:157] Top shape: 150 (150)
I0408 21:12:00.265796  9048 net.cpp:165] Memory required for data: 605977800
I0408 21:12:00.265801  9048 layer_factory.hpp:77] Creating layer conv1_0
I0408 21:12:00.265815  9048 net.cpp:100] Creating Layer conv1_0
I0408 21:12:00.265818  9048 net.cpp:434] conv1_0 <- data_1
I0408 21:12:00.265839  9048 net.cpp:408] conv1_0 -> conv1_0
I0408 21:12:00.267124  9048 net.cpp:150] Setting up conv1_0
I0408 21:12:00.267139  9048 net.cpp:157] Top shape: 150 100 42 42 (26460000)
I0408 21:12:00.267143  9048 net.cpp:165] Memory required for data: 711817800
I0408 21:12:00.267149  9048 layer_factory.hpp:77] Creating layer conv1_0_prescale
I0408 21:12:00.267158  9048 net.cpp:100] Creating Layer conv1_0_prescale
I0408 21:12:00.267163  9048 net.cpp:434] conv1_0_prescale <- conv1_0
I0408 21:12:00.267168  9048 net.cpp:395] conv1_0_prescale -> conv1_0 (in-place)
I0408 21:12:00.267302  9048 net.cpp:150] Setting up conv1_0_prescale
I0408 21:12:00.267310  9048 net.cpp:157] Top shape: 150 100 42 42 (26460000)
I0408 21:12:00.267313  9048 net.cpp:165] Memory required for data: 817657800
I0408 21:12:00.267318  9048 layer_factory.hpp:77] Creating layer conv1_0_sTanH
I0408 21:12:00.267325  9048 net.cpp:100] Creating Layer conv1_0_sTanH
I0408 21:12:00.267329  9048 net.cpp:434] conv1_0_sTanH <- conv1_0
I0408 21:12:00.267333  9048 net.cpp:395] conv1_0_sTanH -> conv1_0 (in-place)
I0408 21:12:00.269016  9048 net.cpp:150] Setting up conv1_0_sTanH
I0408 21:12:00.269033  9048 net.cpp:157] Top shape: 150 100 42 42 (26460000)
I0408 21:12:00.269037  9048 net.cpp:165] Memory required for data: 923497800
I0408 21:12:00.269042  9048 layer_factory.hpp:77] Creating layer conv1_0_postscale
I0408 21:12:00.269048  9048 net.cpp:100] Creating Layer conv1_0_postscale
I0408 21:12:00.269065  9048 net.cpp:434] conv1_0_postscale <- conv1_0
I0408 21:12:00.269073  9048 net.cpp:395] conv1_0_postscale -> conv1_0 (in-place)
I0408 21:12:00.269207  9048 net.cpp:150] Setting up conv1_0_postscale
I0408 21:12:00.269217  9048 net.cpp:157] Top shape: 150 100 42 42 (26460000)
I0408 21:12:00.269219  9048 net.cpp:165] Memory required for data: 1029337800
I0408 21:12:00.269224  9048 layer_factory.hpp:77] Creating layer pool1_0
I0408 21:12:00.269233  9048 net.cpp:100] Creating Layer pool1_0
I0408 21:12:00.269237  9048 net.cpp:434] pool1_0 <- conv1_0
I0408 21:12:00.269244  9048 net.cpp:408] pool1_0 -> pool1_0
I0408 21:12:00.269295  9048 net.cpp:150] Setting up pool1_0
I0408 21:12:00.269304  9048 net.cpp:157] Top shape: 150 100 21 21 (6615000)
I0408 21:12:00.269309  9048 net.cpp:165] Memory required for data: 1055797800
I0408 21:12:00.269312  9048 layer_factory.hpp:77] Creating layer conv1_1
I0408 21:12:00.269321  9048 net.cpp:100] Creating Layer conv1_1
I0408 21:12:00.269326  9048 net.cpp:434] conv1_1 <- pool1_0
I0408 21:12:00.269332  9048 net.cpp:408] conv1_1 -> conv1_1
I0408 21:12:00.274307  9048 net.cpp:150] Setting up conv1_1
I0408 21:12:00.274336  9048 net.cpp:157] Top shape: 150 150 18 18 (7290000)
I0408 21:12:00.274343  9048 net.cpp:165] Memory required for data: 1084957800
I0408 21:12:00.274353  9048 layer_factory.hpp:77] Creating layer conv1_1_prescale
I0408 21:12:00.274368  9048 net.cpp:100] Creating Layer conv1_1_prescale
I0408 21:12:00.274376  9048 net.cpp:434] conv1_1_prescale <- conv1_1
I0408 21:12:00.274384  9048 net.cpp:395] conv1_1_prescale -> conv1_1 (in-place)
I0408 21:12:00.274549  9048 net.cpp:150] Setting up conv1_1_prescale
I0408 21:12:00.274561  9048 net.cpp:157] Top shape: 150 150 18 18 (7290000)
I0408 21:12:00.274565  9048 net.cpp:165] Memory required for data: 1114117800
I0408 21:12:00.274570  9048 layer_factory.hpp:77] Creating layer conv1_1_sTanH
I0408 21:12:00.274590  9048 net.cpp:100] Creating Layer conv1_1_sTanH
I0408 21:12:00.274595  9048 net.cpp:434] conv1_1_sTanH <- conv1_1
I0408 21:12:00.274600  9048 net.cpp:395] conv1_1_sTanH -> conv1_1 (in-place)
I0408 21:12:00.274844  9048 net.cpp:150] Setting up conv1_1_sTanH
I0408 21:12:00.274862  9048 net.cpp:157] Top shape: 150 150 18 18 (7290000)
I0408 21:12:00.274868  9048 net.cpp:165] Memory required for data: 1143277800
I0408 21:12:00.274870  9048 layer_factory.hpp:77] Creating layer conv1_1_postscale
I0408 21:12:00.274878  9048 net.cpp:100] Creating Layer conv1_1_postscale
I0408 21:12:00.274890  9048 net.cpp:434] conv1_1_postscale <- conv1_1
I0408 21:12:00.274899  9048 net.cpp:395] conv1_1_postscale -> conv1_1 (in-place)
I0408 21:12:00.275061  9048 net.cpp:150] Setting up conv1_1_postscale
I0408 21:12:00.275071  9048 net.cpp:157] Top shape: 150 150 18 18 (7290000)
I0408 21:12:00.275074  9048 net.cpp:165] Memory required for data: 1172437800
I0408 21:12:00.275082  9048 layer_factory.hpp:77] Creating layer pool1_1
I0408 21:12:00.275092  9048 net.cpp:100] Creating Layer pool1_1
I0408 21:12:00.275097  9048 net.cpp:434] pool1_1 <- conv1_1
I0408 21:12:00.275104  9048 net.cpp:408] pool1_1 -> pool1_1
I0408 21:12:00.275172  9048 net.cpp:150] Setting up pool1_1
I0408 21:12:00.275184  9048 net.cpp:157] Top shape: 150 150 9 9 (1822500)
I0408 21:12:00.275189  9048 net.cpp:165] Memory required for data: 1179727800
I0408 21:12:00.275192  9048 layer_factory.hpp:77] Creating layer conv1_2
I0408 21:12:00.275204  9048 net.cpp:100] Creating Layer conv1_2
I0408 21:12:00.275213  9048 net.cpp:434] conv1_2 <- pool1_1
I0408 21:12:00.275220  9048 net.cpp:408] conv1_2 -> conv1_2
I0408 21:12:00.283664  9048 net.cpp:150] Setting up conv1_2
I0408 21:12:00.283680  9048 net.cpp:157] Top shape: 150 250 6 6 (1350000)
I0408 21:12:00.283685  9048 net.cpp:165] Memory required for data: 1185127800
I0408 21:12:00.283692  9048 layer_factory.hpp:77] Creating layer conv1_2_prescale
I0408 21:12:00.283701  9048 net.cpp:100] Creating Layer conv1_2_prescale
I0408 21:12:00.283707  9048 net.cpp:434] conv1_2_prescale <- conv1_2
I0408 21:12:00.283717  9048 net.cpp:395] conv1_2_prescale -> conv1_2 (in-place)
I0408 21:12:00.284164  9048 net.cpp:150] Setting up conv1_2_prescale
I0408 21:12:00.284180  9048 net.cpp:157] Top shape: 150 250 6 6 (1350000)
I0408 21:12:00.284186  9048 net.cpp:165] Memory required for data: 1190527800
I0408 21:12:00.284193  9048 layer_factory.hpp:77] Creating layer conv1_2_sTanH
I0408 21:12:00.284199  9048 net.cpp:100] Creating Layer conv1_2_sTanH
I0408 21:12:00.284209  9048 net.cpp:434] conv1_2_sTanH <- conv1_2
I0408 21:12:00.284220  9048 net.cpp:395] conv1_2_sTanH -> conv1_2 (in-place)
I0408 21:12:00.284467  9048 net.cpp:150] Setting up conv1_2_sTanH
I0408 21:12:00.284482  9048 net.cpp:157] Top shape: 150 250 6 6 (1350000)
I0408 21:12:00.284489  9048 net.cpp:165] Memory required for data: 1195927800
I0408 21:12:00.284497  9048 layer_factory.hpp:77] Creating layer conv1_2_postscale
I0408 21:12:00.284509  9048 net.cpp:100] Creating Layer conv1_2_postscale
I0408 21:12:00.284518  9048 net.cpp:434] conv1_2_postscale <- conv1_2
I0408 21:12:00.284528  9048 net.cpp:395] conv1_2_postscale -> conv1_2 (in-place)
I0408 21:12:00.284692  9048 net.cpp:150] Setting up conv1_2_postscale
I0408 21:12:00.284708  9048 net.cpp:157] Top shape: 150 250 6 6 (1350000)
I0408 21:12:00.284711  9048 net.cpp:165] Memory required for data: 1201327800
I0408 21:12:00.284718  9048 layer_factory.hpp:77] Creating layer pool1_2
I0408 21:12:00.284726  9048 net.cpp:100] Creating Layer pool1_2
I0408 21:12:00.284734  9048 net.cpp:434] pool1_2 <- conv1_2
I0408 21:12:00.284746  9048 net.cpp:408] pool1_2 -> pool1_2
I0408 21:12:00.284812  9048 net.cpp:150] Setting up pool1_2
I0408 21:12:00.284822  9048 net.cpp:157] Top shape: 150 250 3 3 (337500)
I0408 21:12:00.284827  9048 net.cpp:165] Memory required for data: 1202677800
I0408 21:12:00.284832  9048 layer_factory.hpp:77] Creating layer fc1_4_300
I0408 21:12:00.284845  9048 net.cpp:100] Creating Layer fc1_4_300
I0408 21:12:00.284853  9048 net.cpp:434] fc1_4_300 <- pool1_2
I0408 21:12:00.284859  9048 net.cpp:408] fc1_4_300 -> fc1_4
I0408 21:12:00.296629  9048 net.cpp:150] Setting up fc1_4_300
I0408 21:12:00.296643  9048 net.cpp:157] Top shape: 150 300 (45000)
I0408 21:12:00.296659  9048 net.cpp:165] Memory required for data: 1202857800
I0408 21:12:00.296666  9048 layer_factory.hpp:77] Creating layer fc1_4_prescale
I0408 21:12:00.296675  9048 net.cpp:100] Creating Layer fc1_4_prescale
I0408 21:12:00.296679  9048 net.cpp:434] fc1_4_prescale <- fc1_4
I0408 21:12:00.296684  9048 net.cpp:395] fc1_4_prescale -> fc1_4 (in-place)
I0408 21:12:00.296802  9048 net.cpp:150] Setting up fc1_4_prescale
I0408 21:12:00.296810  9048 net.cpp:157] Top shape: 150 300 (45000)
I0408 21:12:00.296813  9048 net.cpp:165] Memory required for data: 1203037800
I0408 21:12:00.296823  9048 layer_factory.hpp:77] Creating layer fc1_4_sTanH
I0408 21:12:00.296838  9048 net.cpp:100] Creating Layer fc1_4_sTanH
I0408 21:12:00.296840  9048 net.cpp:434] fc1_4_sTanH <- fc1_4
I0408 21:12:00.296845  9048 net.cpp:395] fc1_4_sTanH -> fc1_4 (in-place)
I0408 21:12:00.297052  9048 net.cpp:150] Setting up fc1_4_sTanH
I0408 21:12:00.297063  9048 net.cpp:157] Top shape: 150 300 (45000)
I0408 21:12:00.297066  9048 net.cpp:165] Memory required for data: 1203217800
I0408 21:12:00.297070  9048 layer_factory.hpp:77] Creating layer fc1_4_postscale
I0408 21:12:00.297080  9048 net.cpp:100] Creating Layer fc1_4_postscale
I0408 21:12:00.297086  9048 net.cpp:434] fc1_4_postscale <- fc1_4
I0408 21:12:00.297093  9048 net.cpp:395] fc1_4_postscale -> fc1_4 (in-place)
I0408 21:12:00.297219  9048 net.cpp:150] Setting up fc1_4_postscale
I0408 21:12:00.297226  9048 net.cpp:157] Top shape: 150 300 (45000)
I0408 21:12:00.297230  9048 net.cpp:165] Memory required for data: 1203397800
I0408 21:12:00.297235  9048 layer_factory.hpp:77] Creating layer drop1_4
I0408 21:12:00.297240  9048 net.cpp:100] Creating Layer drop1_4
I0408 21:12:00.297245  9048 net.cpp:434] drop1_4 <- fc1_4
I0408 21:12:00.297250  9048 net.cpp:395] drop1_4 -> fc1_4 (in-place)
I0408 21:12:00.297279  9048 net.cpp:150] Setting up drop1_4
I0408 21:12:00.297287  9048 net.cpp:157] Top shape: 150 300 (45000)
I0408 21:12:00.297302  9048 net.cpp:165] Memory required for data: 1203577800
I0408 21:12:00.297305  9048 layer_factory.hpp:77] Creating layer fc1_5_67
I0408 21:12:00.297313  9048 net.cpp:100] Creating Layer fc1_5_67
I0408 21:12:00.297317  9048 net.cpp:434] fc1_5_67 <- fc1_4
I0408 21:12:00.297322  9048 net.cpp:408] fc1_5_67 -> fc1_5
I0408 21:12:00.297600  9048 net.cpp:150] Setting up fc1_5_67
I0408 21:12:00.297608  9048 net.cpp:157] Top shape: 150 67 (10050)
I0408 21:12:00.297611  9048 net.cpp:165] Memory required for data: 1203618000
I0408 21:12:00.297617  9048 layer_factory.hpp:77] Creating layer softmax_1
I0408 21:12:00.297622  9048 net.cpp:100] Creating Layer softmax_1
I0408 21:12:00.297626  9048 net.cpp:434] softmax_1 <- fc1_5
I0408 21:12:00.297631  9048 net.cpp:408] softmax_1 -> softmax_1
I0408 21:12:00.300233  9048 net.cpp:150] Setting up softmax_1
I0408 21:12:00.300249  9048 net.cpp:157] Top shape: 150 67 (10050)
I0408 21:12:00.300252  9048 net.cpp:165] Memory required for data: 1203658200
I0408 21:12:00.300256  9048 layer_factory.hpp:77] Creating layer data_2
I0408 21:12:00.300611  9048 net.cpp:100] Creating Layer data_2
I0408 21:12:00.300643  9048 net.cpp:408] data_2 -> data_2
I0408 21:12:00.300655  9048 net.cpp:408] data_2 -> label_2
I0408 21:12:00.302498  9158 db_lmdb.cpp:35] Opened lmdb ../local_data/lmdb/rtsd-r1/AHE/test/lmdb
I0408 21:12:00.302649  9048 data_layer.cpp:41] output data size: 150,3,48,48
I0408 21:12:00.311627  9048 net.cpp:150] Setting up data_2
I0408 21:12:00.311657  9048 net.cpp:157] Top shape: 150 3 48 48 (1036800)
I0408 21:12:00.311662  9048 net.cpp:157] Top shape: 150 (150)
I0408 21:12:00.311666  9048 net.cpp:165] Memory required for data: 1207806000
I0408 21:12:00.311668  9048 layer_factory.hpp:77] Creating layer conv2_0
I0408 21:12:00.311679  9048 net.cpp:100] Creating Layer conv2_0
I0408 21:12:00.311683  9048 net.cpp:434] conv2_0 <- data_2
I0408 21:12:00.311692  9048 net.cpp:408] conv2_0 -> conv2_0
I0408 21:12:00.314617  9048 net.cpp:150] Setting up conv2_0
I0408 21:12:00.314633  9048 net.cpp:157] Top shape: 150 100 42 42 (26460000)
I0408 21:12:00.314637  9048 net.cpp:165] Memory required for data: 1313646000
I0408 21:12:00.314644  9048 layer_factory.hpp:77] Creating layer conv2_0_prescale
I0408 21:12:00.314653  9048 net.cpp:100] Creating Layer conv2_0_prescale
I0408 21:12:00.314657  9048 net.cpp:434] conv2_0_prescale <- conv2_0
I0408 21:12:00.314662  9048 net.cpp:395] conv2_0_prescale -> conv2_0 (in-place)
I0408 21:12:00.314820  9048 net.cpp:150] Setting up conv2_0_prescale
I0408 21:12:00.314831  9048 net.cpp:157] Top shape: 150 100 42 42 (26460000)
I0408 21:12:00.314836  9048 net.cpp:165] Memory required for data: 1419486000
I0408 21:12:00.314841  9048 layer_factory.hpp:77] Creating layer conv2_0_sTanH
I0408 21:12:00.314848  9048 net.cpp:100] Creating Layer conv2_0_sTanH
I0408 21:12:00.314852  9048 net.cpp:434] conv2_0_sTanH <- conv2_0
I0408 21:12:00.314857  9048 net.cpp:395] conv2_0_sTanH -> conv2_0 (in-place)
I0408 21:12:00.315088  9048 net.cpp:150] Setting up conv2_0_sTanH
I0408 21:12:00.315099  9048 net.cpp:157] Top shape: 150 100 42 42 (26460000)
I0408 21:12:00.315104  9048 net.cpp:165] Memory required for data: 1525326000
I0408 21:12:00.315107  9048 layer_factory.hpp:77] Creating layer conv2_0_postscale
I0408 21:12:00.315115  9048 net.cpp:100] Creating Layer conv2_0_postscale
I0408 21:12:00.315124  9048 net.cpp:434] conv2_0_postscale <- conv2_0
I0408 21:12:00.315131  9048 net.cpp:395] conv2_0_postscale -> conv2_0 (in-place)
I0408 21:12:00.315268  9048 net.cpp:150] Setting up conv2_0_postscale
I0408 21:12:00.315277  9048 net.cpp:157] Top shape: 150 100 42 42 (26460000)
I0408 21:12:00.315282  9048 net.cpp:165] Memory required for data: 1631166000
I0408 21:12:00.315287  9048 layer_factory.hpp:77] Creating layer pool2_0
I0408 21:12:00.315295  9048 net.cpp:100] Creating Layer pool2_0
I0408 21:12:00.315300  9048 net.cpp:434] pool2_0 <- conv2_0
I0408 21:12:00.315306  9048 net.cpp:408] pool2_0 -> pool2_0
I0408 21:12:00.315359  9048 net.cpp:150] Setting up pool2_0
I0408 21:12:00.315381  9048 net.cpp:157] Top shape: 150 100 21 21 (6615000)
I0408 21:12:00.315385  9048 net.cpp:165] Memory required for data: 1657626000
I0408 21:12:00.315389  9048 layer_factory.hpp:77] Creating layer conv2_1
I0408 21:12:00.315403  9048 net.cpp:100] Creating Layer conv2_1
I0408 21:12:00.315409  9048 net.cpp:434] conv2_1 <- pool2_0
I0408 21:12:00.315415  9048 net.cpp:408] conv2_1 -> conv2_1
I0408 21:12:00.318562  9048 net.cpp:150] Setting up conv2_1
I0408 21:12:00.318579  9048 net.cpp:157] Top shape: 150 150 18 18 (7290000)
I0408 21:12:00.318584  9048 net.cpp:165] Memory required for data: 1686786000
I0408 21:12:00.318593  9048 layer_factory.hpp:77] Creating layer conv2_1_prescale
I0408 21:12:00.318603  9048 net.cpp:100] Creating Layer conv2_1_prescale
I0408 21:12:00.318608  9048 net.cpp:434] conv2_1_prescale <- conv2_1
I0408 21:12:00.318614  9048 net.cpp:395] conv2_1_prescale -> conv2_1 (in-place)
I0408 21:12:00.318744  9048 net.cpp:150] Setting up conv2_1_prescale
I0408 21:12:00.318753  9048 net.cpp:157] Top shape: 150 150 18 18 (7290000)
I0408 21:12:00.318758  9048 net.cpp:165] Memory required for data: 1715946000
I0408 21:12:00.318763  9048 layer_factory.hpp:77] Creating layer conv2_1_sTanH
I0408 21:12:00.318768  9048 net.cpp:100] Creating Layer conv2_1_sTanH
I0408 21:12:00.318773  9048 net.cpp:434] conv2_1_sTanH <- conv2_1
I0408 21:12:00.318778  9048 net.cpp:395] conv2_1_sTanH -> conv2_1 (in-place)
I0408 21:12:00.318979  9048 net.cpp:150] Setting up conv2_1_sTanH
I0408 21:12:00.318990  9048 net.cpp:157] Top shape: 150 150 18 18 (7290000)
I0408 21:12:00.318994  9048 net.cpp:165] Memory required for data: 1745106000
I0408 21:12:00.318998  9048 layer_factory.hpp:77] Creating layer conv2_1_postscale
I0408 21:12:00.319005  9048 net.cpp:100] Creating Layer conv2_1_postscale
I0408 21:12:00.319010  9048 net.cpp:434] conv2_1_postscale <- conv2_1
I0408 21:12:00.319017  9048 net.cpp:395] conv2_1_postscale -> conv2_1 (in-place)
I0408 21:12:00.319145  9048 net.cpp:150] Setting up conv2_1_postscale
I0408 21:12:00.319154  9048 net.cpp:157] Top shape: 150 150 18 18 (7290000)
I0408 21:12:00.319156  9048 net.cpp:165] Memory required for data: 1774266000
I0408 21:12:00.319161  9048 layer_factory.hpp:77] Creating layer pool2_1
I0408 21:12:00.319170  9048 net.cpp:100] Creating Layer pool2_1
I0408 21:12:00.319175  9048 net.cpp:434] pool2_1 <- conv2_1
I0408 21:12:00.319182  9048 net.cpp:408] pool2_1 -> pool2_1
I0408 21:12:00.319233  9048 net.cpp:150] Setting up pool2_1
I0408 21:12:00.319241  9048 net.cpp:157] Top shape: 150 150 9 9 (1822500)
I0408 21:12:00.319243  9048 net.cpp:165] Memory required for data: 1781556000
I0408 21:12:00.319252  9048 layer_factory.hpp:77] Creating layer conv2_2
I0408 21:12:00.319274  9048 net.cpp:100] Creating Layer conv2_2
I0408 21:12:00.319279  9048 net.cpp:434] conv2_2 <- pool2_1
I0408 21:12:00.319286  9048 net.cpp:408] conv2_2 -> conv2_2
I0408 21:12:00.325740  9048 net.cpp:150] Setting up conv2_2
I0408 21:12:00.325757  9048 net.cpp:157] Top shape: 150 250 6 6 (1350000)
I0408 21:12:00.325762  9048 net.cpp:165] Memory required for data: 1786956000
I0408 21:12:00.325783  9048 layer_factory.hpp:77] Creating layer conv2_2_prescale
I0408 21:12:00.325794  9048 net.cpp:100] Creating Layer conv2_2_prescale
I0408 21:12:00.325799  9048 net.cpp:434] conv2_2_prescale <- conv2_2
I0408 21:12:00.325805  9048 net.cpp:395] conv2_2_prescale -> conv2_2 (in-place)
I0408 21:12:00.325934  9048 net.cpp:150] Setting up conv2_2_prescale
I0408 21:12:00.325943  9048 net.cpp:157] Top shape: 150 250 6 6 (1350000)
I0408 21:12:00.325947  9048 net.cpp:165] Memory required for data: 1792356000
I0408 21:12:00.325950  9048 layer_factory.hpp:77] Creating layer conv2_2_sTanH
I0408 21:12:00.325958  9048 net.cpp:100] Creating Layer conv2_2_sTanH
I0408 21:12:00.325963  9048 net.cpp:434] conv2_2_sTanH <- conv2_2
I0408 21:12:00.325969  9048 net.cpp:395] conv2_2_sTanH -> conv2_2 (in-place)
I0408 21:12:00.326174  9048 net.cpp:150] Setting up conv2_2_sTanH
I0408 21:12:00.326184  9048 net.cpp:157] Top shape: 150 250 6 6 (1350000)
I0408 21:12:00.326200  9048 net.cpp:165] Memory required for data: 1797756000
I0408 21:12:00.326210  9048 layer_factory.hpp:77] Creating layer conv2_2_postscale
I0408 21:12:00.326218  9048 net.cpp:100] Creating Layer conv2_2_postscale
I0408 21:12:00.326223  9048 net.cpp:434] conv2_2_postscale <- conv2_2
I0408 21:12:00.326228  9048 net.cpp:395] conv2_2_postscale -> conv2_2 (in-place)
I0408 21:12:00.326359  9048 net.cpp:150] Setting up conv2_2_postscale
I0408 21:12:00.326369  9048 net.cpp:157] Top shape: 150 250 6 6 (1350000)
I0408 21:12:00.326372  9048 net.cpp:165] Memory required for data: 1803156000
I0408 21:12:00.326377  9048 layer_factory.hpp:77] Creating layer pool2_2
I0408 21:12:00.326385  9048 net.cpp:100] Creating Layer pool2_2
I0408 21:12:00.326390  9048 net.cpp:434] pool2_2 <- conv2_2
I0408 21:12:00.326395  9048 net.cpp:408] pool2_2 -> pool2_2
I0408 21:12:00.326452  9048 net.cpp:150] Setting up pool2_2
I0408 21:12:00.326464  9048 net.cpp:157] Top shape: 150 250 3 3 (337500)
I0408 21:12:00.326467  9048 net.cpp:165] Memory required for data: 1804506000
I0408 21:12:00.326472  9048 layer_factory.hpp:77] Creating layer fc2_4_300
I0408 21:12:00.326478  9048 net.cpp:100] Creating Layer fc2_4_300
I0408 21:12:00.326481  9048 net.cpp:434] fc2_4_300 <- pool2_2
I0408 21:12:00.326488  9048 net.cpp:408] fc2_4_300 -> fc2_4
I0408 21:12:00.331933  9048 net.cpp:150] Setting up fc2_4_300
I0408 21:12:00.331948  9048 net.cpp:157] Top shape: 150 300 (45000)
I0408 21:12:00.331953  9048 net.cpp:165] Memory required for data: 1804686000
I0408 21:12:00.331959  9048 layer_factory.hpp:77] Creating layer fc2_4_prescale
I0408 21:12:00.331979  9048 net.cpp:100] Creating Layer fc2_4_prescale
I0408 21:12:00.331985  9048 net.cpp:434] fc2_4_prescale <- fc2_4
I0408 21:12:00.331991  9048 net.cpp:395] fc2_4_prescale -> fc2_4 (in-place)
I0408 21:12:00.332123  9048 net.cpp:150] Setting up fc2_4_prescale
I0408 21:12:00.332131  9048 net.cpp:157] Top shape: 150 300 (45000)
I0408 21:12:00.332134  9048 net.cpp:165] Memory required for data: 1804866000
I0408 21:12:00.332140  9048 layer_factory.hpp:77] Creating layer fc2_4_sTanH
I0408 21:12:00.332149  9048 net.cpp:100] Creating Layer fc2_4_sTanH
I0408 21:12:00.332154  9048 net.cpp:434] fc2_4_sTanH <- fc2_4
I0408 21:12:00.332157  9048 net.cpp:395] fc2_4_sTanH -> fc2_4 (in-place)
I0408 21:12:00.332365  9048 net.cpp:150] Setting up fc2_4_sTanH
I0408 21:12:00.332376  9048 net.cpp:157] Top shape: 150 300 (45000)
I0408 21:12:00.332379  9048 net.cpp:165] Memory required for data: 1805046000
I0408 21:12:00.332382  9048 layer_factory.hpp:77] Creating layer fc2_4_postscale
I0408 21:12:00.332391  9048 net.cpp:100] Creating Layer fc2_4_postscale
I0408 21:12:00.332396  9048 net.cpp:434] fc2_4_postscale <- fc2_4
I0408 21:12:00.332403  9048 net.cpp:395] fc2_4_postscale -> fc2_4 (in-place)
I0408 21:12:00.332535  9048 net.cpp:150] Setting up fc2_4_postscale
I0408 21:12:00.332545  9048 net.cpp:157] Top shape: 150 300 (45000)
I0408 21:12:00.332547  9048 net.cpp:165] Memory required for data: 1805226000
I0408 21:12:00.332551  9048 layer_factory.hpp:77] Creating layer drop2_4
I0408 21:12:00.332561  9048 net.cpp:100] Creating Layer drop2_4
I0408 21:12:00.332566  9048 net.cpp:434] drop2_4 <- fc2_4
I0408 21:12:00.332571  9048 net.cpp:395] drop2_4 -> fc2_4 (in-place)
I0408 21:12:00.332602  9048 net.cpp:150] Setting up drop2_4
I0408 21:12:00.332609  9048 net.cpp:157] Top shape: 150 300 (45000)
I0408 21:12:00.332612  9048 net.cpp:165] Memory required for data: 1805406000
I0408 21:12:00.332615  9048 layer_factory.hpp:77] Creating layer fc2_5_67
I0408 21:12:00.332623  9048 net.cpp:100] Creating Layer fc2_5_67
I0408 21:12:00.332628  9048 net.cpp:434] fc2_5_67 <- fc2_4
I0408 21:12:00.332633  9048 net.cpp:408] fc2_5_67 -> fc2_5
I0408 21:12:00.332908  9048 net.cpp:150] Setting up fc2_5_67
I0408 21:12:00.332917  9048 net.cpp:157] Top shape: 150 67 (10050)
I0408 21:12:00.332919  9048 net.cpp:165] Memory required for data: 1805446200
I0408 21:12:00.332926  9048 layer_factory.hpp:77] Creating layer softmax_2
I0408 21:12:00.332933  9048 net.cpp:100] Creating Layer softmax_2
I0408 21:12:00.332949  9048 net.cpp:434] softmax_2 <- fc2_5
I0408 21:12:00.332955  9048 net.cpp:408] softmax_2 -> softmax_2
I0408 21:12:00.333958  9048 net.cpp:150] Setting up softmax_2
I0408 21:12:00.333972  9048 net.cpp:157] Top shape: 150 67 (10050)
I0408 21:12:00.333976  9048 net.cpp:165] Memory required for data: 1805486400
I0408 21:12:00.333981  9048 layer_factory.hpp:77] Creating layer data_3
I0408 21:12:00.334125  9048 net.cpp:100] Creating Layer data_3
I0408 21:12:00.334136  9048 net.cpp:408] data_3 -> data_3
I0408 21:12:00.334147  9048 net.cpp:408] data_3 -> label_3
I0408 21:12:00.335336  9160 db_lmdb.cpp:35] Opened lmdb ../local_data/lmdb/rtsd-r1/imajust/test/lmdb
I0408 21:12:00.335487  9048 data_layer.cpp:41] output data size: 150,3,48,48
I0408 21:12:00.344395  9048 net.cpp:150] Setting up data_3
I0408 21:12:00.344425  9048 net.cpp:157] Top shape: 150 3 48 48 (1036800)
I0408 21:12:00.344430  9048 net.cpp:157] Top shape: 150 (150)
I0408 21:12:00.344434  9048 net.cpp:165] Memory required for data: 1809634200
I0408 21:12:00.344439  9048 layer_factory.hpp:77] Creating layer conv3_0
I0408 21:12:00.344449  9048 net.cpp:100] Creating Layer conv3_0
I0408 21:12:00.344455  9048 net.cpp:434] conv3_0 <- data_3
I0408 21:12:00.344465  9048 net.cpp:408] conv3_0 -> conv3_0
I0408 21:12:00.346763  9048 net.cpp:150] Setting up conv3_0
I0408 21:12:00.346792  9048 net.cpp:157] Top shape: 150 100 42 42 (26460000)
I0408 21:12:00.346796  9048 net.cpp:165] Memory required for data: 1915474200
I0408 21:12:00.346803  9048 layer_factory.hpp:77] Creating layer conv3_0_prescale
I0408 21:12:00.346812  9048 net.cpp:100] Creating Layer conv3_0_prescale
I0408 21:12:00.346815  9048 net.cpp:434] conv3_0_prescale <- conv3_0
I0408 21:12:00.346825  9048 net.cpp:395] conv3_0_prescale -> conv3_0 (in-place)
I0408 21:12:00.346963  9048 net.cpp:150] Setting up conv3_0_prescale
I0408 21:12:00.346972  9048 net.cpp:157] Top shape: 150 100 42 42 (26460000)
I0408 21:12:00.346976  9048 net.cpp:165] Memory required for data: 2021314200
I0408 21:12:00.346982  9048 layer_factory.hpp:77] Creating layer conv3_0_sTanH
I0408 21:12:00.346989  9048 net.cpp:100] Creating Layer conv3_0_sTanH
I0408 21:12:00.346994  9048 net.cpp:434] conv3_0_sTanH <- conv3_0
I0408 21:12:00.346999  9048 net.cpp:395] conv3_0_sTanH -> conv3_0 (in-place)
I0408 21:12:00.347213  9048 net.cpp:150] Setting up conv3_0_sTanH
I0408 21:12:00.347223  9048 net.cpp:157] Top shape: 150 100 42 42 (26460000)
I0408 21:12:00.347228  9048 net.cpp:165] Memory required for data: 2127154200
I0408 21:12:00.347231  9048 layer_factory.hpp:77] Creating layer conv3_0_postscale
I0408 21:12:00.347239  9048 net.cpp:100] Creating Layer conv3_0_postscale
I0408 21:12:00.347244  9048 net.cpp:434] conv3_0_postscale <- conv3_0
I0408 21:12:00.347249  9048 net.cpp:395] conv3_0_postscale -> conv3_0 (in-place)
I0408 21:12:00.347388  9048 net.cpp:150] Setting up conv3_0_postscale
I0408 21:12:00.347396  9048 net.cpp:157] Top shape: 150 100 42 42 (26460000)
I0408 21:12:00.347399  9048 net.cpp:165] Memory required for data: 2232994200
I0408 21:12:00.347404  9048 layer_factory.hpp:77] Creating layer pool3_0
I0408 21:12:00.347411  9048 net.cpp:100] Creating Layer pool3_0
I0408 21:12:00.347416  9048 net.cpp:434] pool3_0 <- conv3_0
I0408 21:12:00.347421  9048 net.cpp:408] pool3_0 -> pool3_0
I0408 21:12:00.347476  9048 net.cpp:150] Setting up pool3_0
I0408 21:12:00.347483  9048 net.cpp:157] Top shape: 150 100 21 21 (6615000)
I0408 21:12:00.347486  9048 net.cpp:165] Memory required for data: 2259454200
I0408 21:12:00.347489  9048 layer_factory.hpp:77] Creating layer conv3_1
I0408 21:12:00.347499  9048 net.cpp:100] Creating Layer conv3_1
I0408 21:12:00.347506  9048 net.cpp:434] conv3_1 <- pool3_0
I0408 21:12:00.347510  9048 net.cpp:408] conv3_1 -> conv3_1
I0408 21:12:00.351755  9048 net.cpp:150] Setting up conv3_1
I0408 21:12:00.351773  9048 net.cpp:157] Top shape: 150 150 18 18 (7290000)
I0408 21:12:00.351778  9048 net.cpp:165] Memory required for data: 2288614200
I0408 21:12:00.351784  9048 layer_factory.hpp:77] Creating layer conv3_1_prescale
I0408 21:12:00.351809  9048 net.cpp:100] Creating Layer conv3_1_prescale
I0408 21:12:00.351814  9048 net.cpp:434] conv3_1_prescale <- conv3_1
I0408 21:12:00.351820  9048 net.cpp:395] conv3_1_prescale -> conv3_1 (in-place)
I0408 21:12:00.352000  9048 net.cpp:150] Setting up conv3_1_prescale
I0408 21:12:00.352011  9048 net.cpp:157] Top shape: 150 150 18 18 (7290000)
I0408 21:12:00.352015  9048 net.cpp:165] Memory required for data: 2317774200
I0408 21:12:00.352020  9048 layer_factory.hpp:77] Creating layer conv3_1_sTanH
I0408 21:12:00.352027  9048 net.cpp:100] Creating Layer conv3_1_sTanH
I0408 21:12:00.352032  9048 net.cpp:434] conv3_1_sTanH <- conv3_1
I0408 21:12:00.352037  9048 net.cpp:395] conv3_1_sTanH -> conv3_1 (in-place)
I0408 21:12:00.352557  9048 net.cpp:150] Setting up conv3_1_sTanH
I0408 21:12:00.352569  9048 net.cpp:157] Top shape: 150 150 18 18 (7290000)
I0408 21:12:00.352574  9048 net.cpp:165] Memory required for data: 2346934200
I0408 21:12:00.352578  9048 layer_factory.hpp:77] Creating layer conv3_1_postscale
I0408 21:12:00.352587  9048 net.cpp:100] Creating Layer conv3_1_postscale
I0408 21:12:00.352593  9048 net.cpp:434] conv3_1_postscale <- conv3_1
I0408 21:12:00.352599  9048 net.cpp:395] conv3_1_postscale -> conv3_1 (in-place)
I0408 21:12:00.352738  9048 net.cpp:150] Setting up conv3_1_postscale
I0408 21:12:00.352747  9048 net.cpp:157] Top shape: 150 150 18 18 (7290000)
I0408 21:12:00.352751  9048 net.cpp:165] Memory required for data: 2376094200
I0408 21:12:00.352756  9048 layer_factory.hpp:77] Creating layer pool3_1
I0408 21:12:00.352762  9048 net.cpp:100] Creating Layer pool3_1
I0408 21:12:00.352767  9048 net.cpp:434] pool3_1 <- conv3_1
I0408 21:12:00.352774  9048 net.cpp:408] pool3_1 -> pool3_1
I0408 21:12:00.352829  9048 net.cpp:150] Setting up pool3_1
I0408 21:12:00.352838  9048 net.cpp:157] Top shape: 150 150 9 9 (1822500)
I0408 21:12:00.352840  9048 net.cpp:165] Memory required for data: 2383384200
I0408 21:12:00.352843  9048 layer_factory.hpp:77] Creating layer conv3_2
I0408 21:12:00.352852  9048 net.cpp:100] Creating Layer conv3_2
I0408 21:12:00.352864  9048 net.cpp:434] conv3_2 <- pool3_1
I0408 21:12:00.352871  9048 net.cpp:408] conv3_2 -> conv3_2
I0408 21:12:00.359355  9048 net.cpp:150] Setting up conv3_2
I0408 21:12:00.359372  9048 net.cpp:157] Top shape: 150 250 6 6 (1350000)
I0408 21:12:00.359377  9048 net.cpp:165] Memory required for data: 2388784200
I0408 21:12:00.359385  9048 layer_factory.hpp:77] Creating layer conv3_2_prescale
I0408 21:12:00.359396  9048 net.cpp:100] Creating Layer conv3_2_prescale
I0408 21:12:00.359410  9048 net.cpp:434] conv3_2_prescale <- conv3_2
I0408 21:12:00.359416  9048 net.cpp:395] conv3_2_prescale -> conv3_2 (in-place)
I0408 21:12:00.359547  9048 net.cpp:150] Setting up conv3_2_prescale
I0408 21:12:00.359556  9048 net.cpp:157] Top shape: 150 250 6 6 (1350000)
I0408 21:12:00.359560  9048 net.cpp:165] Memory required for data: 2394184200
I0408 21:12:00.359575  9048 layer_factory.hpp:77] Creating layer conv3_2_sTanH
I0408 21:12:00.359582  9048 net.cpp:100] Creating Layer conv3_2_sTanH
I0408 21:12:00.359591  9048 net.cpp:434] conv3_2_sTanH <- conv3_2
I0408 21:12:00.359598  9048 net.cpp:395] conv3_2_sTanH -> conv3_2 (in-place)
I0408 21:12:00.359800  9048 net.cpp:150] Setting up conv3_2_sTanH
I0408 21:12:00.359812  9048 net.cpp:157] Top shape: 150 250 6 6 (1350000)
I0408 21:12:00.359815  9048 net.cpp:165] Memory required for data: 2399584200
I0408 21:12:00.359820  9048 layer_factory.hpp:77] Creating layer conv3_2_postscale
I0408 21:12:00.359834  9048 net.cpp:100] Creating Layer conv3_2_postscale
I0408 21:12:00.359839  9048 net.cpp:434] conv3_2_postscale <- conv3_2
I0408 21:12:00.359848  9048 net.cpp:395] conv3_2_postscale -> conv3_2 (in-place)
I0408 21:12:00.359997  9048 net.cpp:150] Setting up conv3_2_postscale
I0408 21:12:00.360008  9048 net.cpp:157] Top shape: 150 250 6 6 (1350000)
I0408 21:12:00.360010  9048 net.cpp:165] Memory required for data: 2404984200
I0408 21:12:00.360015  9048 layer_factory.hpp:77] Creating layer pool3_2
I0408 21:12:00.360035  9048 net.cpp:100] Creating Layer pool3_2
I0408 21:12:00.360041  9048 net.cpp:434] pool3_2 <- conv3_2
I0408 21:12:00.360049  9048 net.cpp:408] pool3_2 -> pool3_2
I0408 21:12:00.360105  9048 net.cpp:150] Setting up pool3_2
I0408 21:12:00.360113  9048 net.cpp:157] Top shape: 150 250 3 3 (337500)
I0408 21:12:00.360116  9048 net.cpp:165] Memory required for data: 2406334200
I0408 21:12:00.360119  9048 layer_factory.hpp:77] Creating layer fc3_4_300
I0408 21:12:00.360127  9048 net.cpp:100] Creating Layer fc3_4_300
I0408 21:12:00.360132  9048 net.cpp:434] fc3_4_300 <- pool3_2
I0408 21:12:00.360138  9048 net.cpp:408] fc3_4_300 -> fc3_4
I0408 21:12:00.365666  9048 net.cpp:150] Setting up fc3_4_300
I0408 21:12:00.365681  9048 net.cpp:157] Top shape: 150 300 (45000)
I0408 21:12:00.365685  9048 net.cpp:165] Memory required for data: 2406514200
I0408 21:12:00.365692  9048 layer_factory.hpp:77] Creating layer fc3_4_prescale
I0408 21:12:00.365702  9048 net.cpp:100] Creating Layer fc3_4_prescale
I0408 21:12:00.365708  9048 net.cpp:434] fc3_4_prescale <- fc3_4
I0408 21:12:00.365715  9048 net.cpp:395] fc3_4_prescale -> fc3_4 (in-place)
I0408 21:12:00.365844  9048 net.cpp:150] Setting up fc3_4_prescale
I0408 21:12:00.365852  9048 net.cpp:157] Top shape: 150 300 (45000)
I0408 21:12:00.365855  9048 net.cpp:165] Memory required for data: 2406694200
I0408 21:12:00.365860  9048 layer_factory.hpp:77] Creating layer fc3_4_sTanH
I0408 21:12:00.365865  9048 net.cpp:100] Creating Layer fc3_4_sTanH
I0408 21:12:00.365870  9048 net.cpp:434] fc3_4_sTanH <- fc3_4
I0408 21:12:00.365875  9048 net.cpp:395] fc3_4_sTanH -> fc3_4 (in-place)
I0408 21:12:00.366082  9048 net.cpp:150] Setting up fc3_4_sTanH
I0408 21:12:00.366093  9048 net.cpp:157] Top shape: 150 300 (45000)
I0408 21:12:00.366096  9048 net.cpp:165] Memory required for data: 2406874200
I0408 21:12:00.366101  9048 layer_factory.hpp:77] Creating layer fc3_4_postscale
I0408 21:12:00.366109  9048 net.cpp:100] Creating Layer fc3_4_postscale
I0408 21:12:00.366114  9048 net.cpp:434] fc3_4_postscale <- fc3_4
I0408 21:12:00.366119  9048 net.cpp:395] fc3_4_postscale -> fc3_4 (in-place)
I0408 21:12:00.366252  9048 net.cpp:150] Setting up fc3_4_postscale
I0408 21:12:00.366261  9048 net.cpp:157] Top shape: 150 300 (45000)
I0408 21:12:00.366263  9048 net.cpp:165] Memory required for data: 2407054200
I0408 21:12:00.366267  9048 layer_factory.hpp:77] Creating layer drop3_4
I0408 21:12:00.366276  9048 net.cpp:100] Creating Layer drop3_4
I0408 21:12:00.366281  9048 net.cpp:434] drop3_4 <- fc3_4
I0408 21:12:00.366284  9048 net.cpp:395] drop3_4 -> fc3_4 (in-place)
I0408 21:12:00.366317  9048 net.cpp:150] Setting up drop3_4
I0408 21:12:00.366323  9048 net.cpp:157] Top shape: 150 300 (45000)
I0408 21:12:00.366327  9048 net.cpp:165] Memory required for data: 2407234200
I0408 21:12:00.366329  9048 layer_factory.hpp:77] Creating layer fc3_5_67
I0408 21:12:00.366335  9048 net.cpp:100] Creating Layer fc3_5_67
I0408 21:12:00.366338  9048 net.cpp:434] fc3_5_67 <- fc3_4
I0408 21:12:00.366344  9048 net.cpp:408] fc3_5_67 -> fc3_5
I0408 21:12:00.366623  9048 net.cpp:150] Setting up fc3_5_67
I0408 21:12:00.366632  9048 net.cpp:157] Top shape: 150 67 (10050)
I0408 21:12:00.366634  9048 net.cpp:165] Memory required for data: 2407274400
I0408 21:12:00.366641  9048 layer_factory.hpp:77] Creating layer softmax_3
I0408 21:12:00.366648  9048 net.cpp:100] Creating Layer softmax_3
I0408 21:12:00.366652  9048 net.cpp:434] softmax_3 <- fc3_5
I0408 21:12:00.366657  9048 net.cpp:408] softmax_3 -> softmax_3
I0408 21:12:00.367782  9048 net.cpp:150] Setting up softmax_3
I0408 21:12:00.367797  9048 net.cpp:157] Top shape: 150 67 (10050)
I0408 21:12:00.367800  9048 net.cpp:165] Memory required for data: 2407314600
I0408 21:12:00.367805  9048 layer_factory.hpp:77] Creating layer data_4
I0408 21:12:00.367959  9048 net.cpp:100] Creating Layer data_4
I0408 21:12:00.367969  9048 net.cpp:408] data_4 -> data_4
I0408 21:12:00.367980  9048 net.cpp:408] data_4 -> label_4
I0408 21:12:00.371492  9165 db_lmdb.cpp:35] Opened lmdb ../local_data/lmdb/rtsd-r1/CoNorm/test/lmdb
I0408 21:12:00.371655  9048 data_layer.cpp:41] output data size: 150,3,48,48
I0408 21:12:00.390272  9048 net.cpp:150] Setting up data_4
I0408 21:12:00.390290  9048 net.cpp:157] Top shape: 150 3 48 48 (1036800)
I0408 21:12:00.390306  9048 net.cpp:157] Top shape: 150 (150)
I0408 21:12:00.390310  9048 net.cpp:165] Memory required for data: 2411462400
I0408 21:12:00.390313  9048 layer_factory.hpp:77] Creating layer conv4_0
I0408 21:12:00.390326  9048 net.cpp:100] Creating Layer conv4_0
I0408 21:12:00.390336  9048 net.cpp:434] conv4_0 <- data_4
I0408 21:12:00.390343  9048 net.cpp:408] conv4_0 -> conv4_0
I0408 21:12:00.397742  9048 net.cpp:150] Setting up conv4_0
I0408 21:12:00.397758  9048 net.cpp:157] Top shape: 150 100 42 42 (26460000)
I0408 21:12:00.397761  9048 net.cpp:165] Memory required for data: 2517302400
I0408 21:12:00.397769  9048 layer_factory.hpp:77] Creating layer conv4_0_prescale
I0408 21:12:00.397776  9048 net.cpp:100] Creating Layer conv4_0_prescale
I0408 21:12:00.397780  9048 net.cpp:434] conv4_0_prescale <- conv4_0
I0408 21:12:00.397789  9048 net.cpp:395] conv4_0_prescale -> conv4_0 (in-place)
I0408 21:12:00.397927  9048 net.cpp:150] Setting up conv4_0_prescale
I0408 21:12:00.397936  9048 net.cpp:157] Top shape: 150 100 42 42 (26460000)
I0408 21:12:00.397939  9048 net.cpp:165] Memory required for data: 2623142400
I0408 21:12:00.397944  9048 layer_factory.hpp:77] Creating layer conv4_0_sTanH
I0408 21:12:00.397950  9048 net.cpp:100] Creating Layer conv4_0_sTanH
I0408 21:12:00.397954  9048 net.cpp:434] conv4_0_sTanH <- conv4_0
I0408 21:12:00.397960  9048 net.cpp:395] conv4_0_sTanH -> conv4_0 (in-place)
I0408 21:12:00.398175  9048 net.cpp:150] Setting up conv4_0_sTanH
I0408 21:12:00.398186  9048 net.cpp:157] Top shape: 150 100 42 42 (26460000)
I0408 21:12:00.398191  9048 net.cpp:165] Memory required for data: 2728982400
I0408 21:12:00.398195  9048 layer_factory.hpp:77] Creating layer conv4_0_postscale
I0408 21:12:00.398203  9048 net.cpp:100] Creating Layer conv4_0_postscale
I0408 21:12:00.398208  9048 net.cpp:434] conv4_0_postscale <- conv4_0
I0408 21:12:00.398214  9048 net.cpp:395] conv4_0_postscale -> conv4_0 (in-place)
I0408 21:12:00.398353  9048 net.cpp:150] Setting up conv4_0_postscale
I0408 21:12:00.398362  9048 net.cpp:157] Top shape: 150 100 42 42 (26460000)
I0408 21:12:00.398365  9048 net.cpp:165] Memory required for data: 2834822400
I0408 21:12:00.398370  9048 layer_factory.hpp:77] Creating layer pool4_0
I0408 21:12:00.398381  9048 net.cpp:100] Creating Layer pool4_0
I0408 21:12:00.398386  9048 net.cpp:434] pool4_0 <- conv4_0
I0408 21:12:00.398392  9048 net.cpp:408] pool4_0 -> pool4_0
I0408 21:12:00.398449  9048 net.cpp:150] Setting up pool4_0
I0408 21:12:00.398458  9048 net.cpp:157] Top shape: 150 100 21 21 (6615000)
I0408 21:12:00.398460  9048 net.cpp:165] Memory required for data: 2861282400
I0408 21:12:00.398463  9048 layer_factory.hpp:77] Creating layer conv4_1
I0408 21:12:00.398473  9048 net.cpp:100] Creating Layer conv4_1
I0408 21:12:00.398478  9048 net.cpp:434] conv4_1 <- pool4_0
I0408 21:12:00.398484  9048 net.cpp:408] conv4_1 -> conv4_1
I0408 21:12:00.401664  9048 net.cpp:150] Setting up conv4_1
I0408 21:12:00.401684  9048 net.cpp:157] Top shape: 150 150 18 18 (7290000)
I0408 21:12:00.401690  9048 net.cpp:165] Memory required for data: 2890442400
I0408 21:12:00.401696  9048 layer_factory.hpp:77] Creating layer conv4_1_prescale
I0408 21:12:00.401707  9048 net.cpp:100] Creating Layer conv4_1_prescale
I0408 21:12:00.401715  9048 net.cpp:434] conv4_1_prescale <- conv4_1
I0408 21:12:00.401721  9048 net.cpp:395] conv4_1_prescale -> conv4_1 (in-place)
I0408 21:12:00.401862  9048 net.cpp:150] Setting up conv4_1_prescale
I0408 21:12:00.401872  9048 net.cpp:157] Top shape: 150 150 18 18 (7290000)
I0408 21:12:00.401875  9048 net.cpp:165] Memory required for data: 2919602400
I0408 21:12:00.401880  9048 layer_factory.hpp:77] Creating layer conv4_1_sTanH
I0408 21:12:00.401887  9048 net.cpp:100] Creating Layer conv4_1_sTanH
I0408 21:12:00.401892  9048 net.cpp:434] conv4_1_sTanH <- conv4_1
I0408 21:12:00.401911  9048 net.cpp:395] conv4_1_sTanH -> conv4_1 (in-place)
I0408 21:12:00.402124  9048 net.cpp:150] Setting up conv4_1_sTanH
I0408 21:12:00.402137  9048 net.cpp:157] Top shape: 150 150 18 18 (7290000)
I0408 21:12:00.402142  9048 net.cpp:165] Memory required for data: 2948762400
I0408 21:12:00.402145  9048 layer_factory.hpp:77] Creating layer conv4_1_postscale
I0408 21:12:00.402153  9048 net.cpp:100] Creating Layer conv4_1_postscale
I0408 21:12:00.402155  9048 net.cpp:434] conv4_1_postscale <- conv4_1
I0408 21:12:00.402163  9048 net.cpp:395] conv4_1_postscale -> conv4_1 (in-place)
I0408 21:12:00.402302  9048 net.cpp:150] Setting up conv4_1_postscale
I0408 21:12:00.402310  9048 net.cpp:157] Top shape: 150 150 18 18 (7290000)
I0408 21:12:00.402313  9048 net.cpp:165] Memory required for data: 2977922400
I0408 21:12:00.402318  9048 layer_factory.hpp:77] Creating layer pool4_1
I0408 21:12:00.402328  9048 net.cpp:100] Creating Layer pool4_1
I0408 21:12:00.402335  9048 net.cpp:434] pool4_1 <- conv4_1
I0408 21:12:00.402343  9048 net.cpp:408] pool4_1 -> pool4_1
I0408 21:12:00.402398  9048 net.cpp:150] Setting up pool4_1
I0408 21:12:00.402406  9048 net.cpp:157] Top shape: 150 150 9 9 (1822500)
I0408 21:12:00.402410  9048 net.cpp:165] Memory required for data: 2985212400
I0408 21:12:00.402412  9048 layer_factory.hpp:77] Creating layer conv4_2
I0408 21:12:00.402421  9048 net.cpp:100] Creating Layer conv4_2
I0408 21:12:00.402426  9048 net.cpp:434] conv4_2 <- pool4_1
I0408 21:12:00.402433  9048 net.cpp:408] conv4_2 -> conv4_2
I0408 21:12:00.409080  9048 net.cpp:150] Setting up conv4_2
I0408 21:12:00.409098  9048 net.cpp:157] Top shape: 150 250 6 6 (1350000)
I0408 21:12:00.409102  9048 net.cpp:165] Memory required for data: 2990612400
I0408 21:12:00.409109  9048 layer_factory.hpp:77] Creating layer conv4_2_prescale
I0408 21:12:00.409118  9048 net.cpp:100] Creating Layer conv4_2_prescale
I0408 21:12:00.409124  9048 net.cpp:434] conv4_2_prescale <- conv4_2
I0408 21:12:00.409132  9048 net.cpp:395] conv4_2_prescale -> conv4_2 (in-place)
I0408 21:12:00.409273  9048 net.cpp:150] Setting up conv4_2_prescale
I0408 21:12:00.409282  9048 net.cpp:157] Top shape: 150 250 6 6 (1350000)
I0408 21:12:00.409286  9048 net.cpp:165] Memory required for data: 2996012400
I0408 21:12:00.409291  9048 layer_factory.hpp:77] Creating layer conv4_2_sTanH
I0408 21:12:00.409297  9048 net.cpp:100] Creating Layer conv4_2_sTanH
I0408 21:12:00.409302  9048 net.cpp:434] conv4_2_sTanH <- conv4_2
I0408 21:12:00.409308  9048 net.cpp:395] conv4_2_sTanH -> conv4_2 (in-place)
I0408 21:12:00.409879  9048 net.cpp:150] Setting up conv4_2_sTanH
I0408 21:12:00.409891  9048 net.cpp:157] Top shape: 150 250 6 6 (1350000)
I0408 21:12:00.409896  9048 net.cpp:165] Memory required for data: 3001412400
I0408 21:12:00.409899  9048 layer_factory.hpp:77] Creating layer conv4_2_postscale
I0408 21:12:00.409909  9048 net.cpp:100] Creating Layer conv4_2_postscale
I0408 21:12:00.409914  9048 net.cpp:434] conv4_2_postscale <- conv4_2
I0408 21:12:00.409919  9048 net.cpp:395] conv4_2_postscale -> conv4_2 (in-place)
I0408 21:12:00.410058  9048 net.cpp:150] Setting up conv4_2_postscale
I0408 21:12:00.410066  9048 net.cpp:157] Top shape: 150 250 6 6 (1350000)
I0408 21:12:00.410069  9048 net.cpp:165] Memory required for data: 3006812400
I0408 21:12:00.410074  9048 layer_factory.hpp:77] Creating layer pool4_2
I0408 21:12:00.410082  9048 net.cpp:100] Creating Layer pool4_2
I0408 21:12:00.410089  9048 net.cpp:434] pool4_2 <- conv4_2
I0408 21:12:00.410094  9048 net.cpp:408] pool4_2 -> pool4_2
I0408 21:12:00.410150  9048 net.cpp:150] Setting up pool4_2
I0408 21:12:00.410156  9048 net.cpp:157] Top shape: 150 250 3 3 (337500)
I0408 21:12:00.410159  9048 net.cpp:165] Memory required for data: 3008162400
I0408 21:12:00.410163  9048 layer_factory.hpp:77] Creating layer fc4_4_300
I0408 21:12:00.410169  9048 net.cpp:100] Creating Layer fc4_4_300
I0408 21:12:00.410174  9048 net.cpp:434] fc4_4_300 <- pool4_2
I0408 21:12:00.410181  9048 net.cpp:408] fc4_4_300 -> fc4_4
I0408 21:12:00.416978  9048 net.cpp:150] Setting up fc4_4_300
I0408 21:12:00.416993  9048 net.cpp:157] Top shape: 150 300 (45000)
I0408 21:12:00.416998  9048 net.cpp:165] Memory required for data: 3008342400
I0408 21:12:00.417006  9048 layer_factory.hpp:77] Creating layer fc4_4_prescale
I0408 21:12:00.417013  9048 net.cpp:100] Creating Layer fc4_4_prescale
I0408 21:12:00.417018  9048 net.cpp:434] fc4_4_prescale <- fc4_4
I0408 21:12:00.417026  9048 net.cpp:395] fc4_4_prescale -> fc4_4 (in-place)
I0408 21:12:00.417156  9048 net.cpp:150] Setting up fc4_4_prescale
I0408 21:12:00.417165  9048 net.cpp:157] Top shape: 150 300 (45000)
I0408 21:12:00.417167  9048 net.cpp:165] Memory required for data: 3008522400
I0408 21:12:00.417172  9048 layer_factory.hpp:77] Creating layer fc4_4_sTanH
I0408 21:12:00.417177  9048 net.cpp:100] Creating Layer fc4_4_sTanH
I0408 21:12:00.417181  9048 net.cpp:434] fc4_4_sTanH <- fc4_4
I0408 21:12:00.417186  9048 net.cpp:395] fc4_4_sTanH -> fc4_4 (in-place)
I0408 21:12:00.418614  9048 net.cpp:150] Setting up fc4_4_sTanH
I0408 21:12:00.418629  9048 net.cpp:157] Top shape: 150 300 (45000)
I0408 21:12:00.418633  9048 net.cpp:165] Memory required for data: 3008702400
I0408 21:12:00.418637  9048 layer_factory.hpp:77] Creating layer fc4_4_postscale
I0408 21:12:00.418648  9048 net.cpp:100] Creating Layer fc4_4_postscale
I0408 21:12:00.418653  9048 net.cpp:434] fc4_4_postscale <- fc4_4
I0408 21:12:00.418658  9048 net.cpp:395] fc4_4_postscale -> fc4_4 (in-place)
I0408 21:12:00.418807  9048 net.cpp:150] Setting up fc4_4_postscale
I0408 21:12:00.418817  9048 net.cpp:157] Top shape: 150 300 (45000)
I0408 21:12:00.418819  9048 net.cpp:165] Memory required for data: 3008882400
I0408 21:12:00.418826  9048 layer_factory.hpp:77] Creating layer drop4_4
I0408 21:12:00.418834  9048 net.cpp:100] Creating Layer drop4_4
I0408 21:12:00.418839  9048 net.cpp:434] drop4_4 <- fc4_4
I0408 21:12:00.418843  9048 net.cpp:395] drop4_4 -> fc4_4 (in-place)
I0408 21:12:00.418879  9048 net.cpp:150] Setting up drop4_4
I0408 21:12:00.418885  9048 net.cpp:157] Top shape: 150 300 (45000)
I0408 21:12:00.418889  9048 net.cpp:165] Memory required for data: 3009062400
I0408 21:12:00.418891  9048 layer_factory.hpp:77] Creating layer fc4_5_67
I0408 21:12:00.418897  9048 net.cpp:100] Creating Layer fc4_5_67
I0408 21:12:00.418902  9048 net.cpp:434] fc4_5_67 <- fc4_4
I0408 21:12:00.418908  9048 net.cpp:408] fc4_5_67 -> fc4_5
I0408 21:12:00.419198  9048 net.cpp:150] Setting up fc4_5_67
I0408 21:12:00.419206  9048 net.cpp:157] Top shape: 150 67 (10050)
I0408 21:12:00.419209  9048 net.cpp:165] Memory required for data: 3009102600
I0408 21:12:00.419215  9048 layer_factory.hpp:77] Creating layer softmax_4
I0408 21:12:00.419222  9048 net.cpp:100] Creating Layer softmax_4
I0408 21:12:00.419227  9048 net.cpp:434] softmax_4 <- fc4_5
I0408 21:12:00.419231  9048 net.cpp:408] softmax_4 -> softmax_4
I0408 21:12:00.419523  9048 net.cpp:150] Setting up softmax_4
I0408 21:12:00.419534  9048 net.cpp:157] Top shape: 150 67 (10050)
I0408 21:12:00.419538  9048 net.cpp:165] Memory required for data: 3009142800
I0408 21:12:00.419543  9048 layer_factory.hpp:77] Creating layer averaging
I0408 21:12:00.419551  9048 net.cpp:100] Creating Layer averaging
I0408 21:12:00.419556  9048 net.cpp:434] averaging <- softmax_0
I0408 21:12:00.419561  9048 net.cpp:434] averaging <- softmax_1
I0408 21:12:00.419564  9048 net.cpp:434] averaging <- softmax_2
I0408 21:12:00.419569  9048 net.cpp:434] averaging <- softmax_3
I0408 21:12:00.419574  9048 net.cpp:434] averaging <- softmax_4
I0408 21:12:00.419580  9048 net.cpp:408] averaging -> eltwize
I0408 21:12:00.419617  9048 net.cpp:150] Setting up averaging
I0408 21:12:00.419625  9048 net.cpp:157] Top shape: 150 67 (10050)
I0408 21:12:00.419627  9048 net.cpp:165] Memory required for data: 3009183000
I0408 21:12:00.419631  9048 layer_factory.hpp:77] Creating layer eltwize_averaging_0_split
I0408 21:12:00.419639  9048 net.cpp:100] Creating Layer eltwize_averaging_0_split
I0408 21:12:00.419643  9048 net.cpp:434] eltwize_averaging_0_split <- eltwize
I0408 21:12:00.419663  9048 net.cpp:408] eltwize_averaging_0_split -> eltwize_averaging_0_split_0
I0408 21:12:00.419672  9048 net.cpp:408] eltwize_averaging_0_split -> eltwize_averaging_0_split_1
I0408 21:12:00.419680  9048 net.cpp:408] eltwize_averaging_0_split -> eltwize_averaging_0_split_2
I0408 21:12:00.419751  9048 net.cpp:150] Setting up eltwize_averaging_0_split
I0408 21:12:00.419759  9048 net.cpp:157] Top shape: 150 67 (10050)
I0408 21:12:00.419762  9048 net.cpp:157] Top shape: 150 67 (10050)
I0408 21:12:00.419765  9048 net.cpp:157] Top shape: 150 67 (10050)
I0408 21:12:00.419769  9048 net.cpp:165] Memory required for data: 3009303600
I0408 21:12:00.419771  9048 layer_factory.hpp:77] Creating layer loss
I0408 21:12:00.419780  9048 net.cpp:100] Creating Layer loss
I0408 21:12:00.419785  9048 net.cpp:434] loss <- eltwize_averaging_0_split_0
I0408 21:12:00.419788  9048 net.cpp:434] loss <- label_0_data_0_1_split_0
I0408 21:12:00.419795  9048 net.cpp:408] loss -> loss
…
