…
I0407 23:00:19.323720  5542 net.cpp:322] The NetState phase (0) differed from the phase (1) specified by a rule in layer accuracy_5
I0407 23:00:19.326050  5542 net.cpp:58] Initializing net from parameters: 
state {
  phase: TRAIN
  level: 0
  stage: ""
}
layer {
  name: "data_0"
  type: "Data"
  top: "data_0"
  top: "label_0"
  include {
    phase: TRAIN
  }
  transform_param {
    mirror: false
    crop_size: 48
    mean_value: 115
    mean_value: 107
    mean_value: 120
  }
  data_param {
    source: "../local_data/lmdb/rtsd-r1/orig/train/lmdb"
    batch_size: 64
    backend: LMDB
  }
}
layer {
  name: "conv0_0"
  type: "Convolution"
  bottom: "data_0"
  top: "conv0_0"
  convolution_param {
    num_output: 100
    pad: 0
    kernel_size: 7
    group: 1
    stride: 1
    weight_filler {
      type: "xavier"
    }
  }
}
layer {
  name: "conv0_0_prescale"
  type: "Scale"
  bottom: "conv0_0"
  top: "conv0_0"
  param {
    lr_mult: 0
    decay_mult: 0
  }
  scale_param {
    filler {
      value: 0.6666
    }
  }
}
layer {
  name: "conv0_0_sTanH"
  type: "TanH"
  bottom: "conv0_0"
  top: "conv0_0"
}
layer {
  name: "conv0_0_postscale"
  type: "Scale"
  bottom: "conv0_0"
  top: "conv0_0"
  param {
    lr_mult: 0
    decay_mult: 0
  }
  scale_param {
    filler {
      value: 1.7159
    }
  }
}
layer {
  name: "pool0_0"
  type: "Pooling"
  bottom: "conv0_0"
  top: "pool0_0"
  pooling_param {
    pool: MAX
    kernel_size: 2
    stride: 2
  }
}
layer {
  name: "conv0_1"
  type: "Convolution"
  bottom: "pool0_0"
  top: "conv0_1"
  convolution_param {
    num_output: 150
    pad: 0
    kernel_size: 4
    group: 1
    stride: 1
    weight_filler {
      type: "xavier"
    }
  }
}
layer {
  name: "conv0_1_prescale"
  type: "Scale"
  bottom: "conv0_1"
  top: "conv0_1"
  param {
    lr_mult: 0
    decay_mult: 0
  }
  scale_param {
    filler {
      value: 0.6666
    }
  }
}
layer {
  name: "conv0_1_sTanH"
  type: "TanH"
  bottom: "conv0_1"
  top: "conv0_1"
}
layer {
  name: "conv0_1_postscale"
  type: "Scale"
  bottom: "conv0_1"
  top: "conv0_1"
  param {
    lr_mult: 0
    decay_mult: 0
  }
  scale_param {
    filler {
      value: 1.7159
    }
  }
}
layer {
  name: "pool0_1"
  type: "Pooling"
  bottom: "conv0_1"
  top: "pool0_1"
  pooling_param {
    pool: MAX
    kernel_size: 2
    stride: 2
  }
}
layer {
  name: "conv0_2"
  type: "Convolution"
  bottom: "pool0_1"
  top: "conv0_2"
  convolution_param {
    num_output: 250
    pad: 0
    kernel_size: 4
    group: 1
    stride: 1
    weight_filler {
      type: "xavier"
    }
  }
}
layer {
  name: "conv0_2_prescale"
  type: "Scale"
  bottom: "conv0_2"
  top: "conv0_2"
  param {
    lr_mult: 0
    decay_mult: 0
  }
  scale_param {
    filler {
      value: 0.6666
    }
  }
}
layer {
  name: "conv0_2_sTanH"
  type: "TanH"
  bottom: "conv0_2"
  top: "conv0_2"
}
layer {
  name: "conv0_2_postscale"
  type: "Scale"
  bottom: "conv0_2"
  top: "conv0_2"
  param {
    lr_mult: 0
    decay_mult: 0
  }
  scale_param {
    filler {
      value: 1.7159
    }
  }
}
layer {
  name: "pool0_2"
  type: "Pooling"
  bottom: "conv0_2"
  top: "pool0_2"
  pooling_param {
    pool: MAX
    kernel_size: 2
    stride: 2
  }
}
layer {
  name: "fc0_4_300"
  type: "InnerProduct"
  bottom: "pool0_2"
  top: "fc0_4"
  inner_product_param {
    num_output: 300
    weight_filler {
      type: "xavier"
    }
  }
}
layer {
  name: "fc0_4_prescale"
  type: "Scale"
  bottom: "fc0_4"
  top: "fc0_4"
  param {
    lr_mult: 0
    decay_mult: 0
  }
  scale_param {
    filler {
      value: 0.6666
    }
  }
}
layer {
  name: "fc0_4_sTanH"
  type: "TanH"
  bottom: "fc0_4"
  top: "fc0_4"
}
layer {
  name: "fc0_4_postscale"
  type: "Scale"
  bottom: "fc0_4"
  top: "fc0_4"
  param {
    lr_mult: 0
    decay_mult: 0
  }
  scale_param {
    filler {
      value: 1.7159
    }
  }
}
layer {
  name: "drop0_4"
  type: "Dropout"
  bottom: "fc0_4"
  top: "fc0_4"
  dropout_param {
    dropout_ratio: 0.4
  }
}
layer {
  name: "fc0_5_67"
  type: "InnerProduct"
  bottom: "fc0_4"
  top: "fc0_5"
  inner_product_param {
    num_output: 67
    weight_filler {
      type: "xavier"
    }
  }
}
layer {
  name: "softmax_0"
  type: "Softmax"
  bottom: "fc0_5"
  top: "softmax_0"
}
layer {
  name: "conv1_0"
  type: "Convolution"
  bottom: "data_0"
  top: "conv1_0"
  convolution_param {
    num_output: 100
    pad: 0
    kernel_size: 7
    group: 1
    stride: 1
    weight_filler {
      type: "xavier"
    }
  }
}
layer {
  name: "conv1_0_prescale"
  type: "Scale"
  bottom: "conv1_0"
  top: "conv1_0"
  param {
    lr_mult: 0
    decay_mult: 0
  }
  scale_param {
    filler {
      value: 0.6666
    }
  }
}
layer {
  name: "conv1_0_sTanH"
  type: "TanH"
  bottom: "conv1_0"
  top: "conv1_0"
}
layer {
  name: "conv1_0_postscale"
  type: "Scale"
  bottom: "conv1_0"
  top: "conv1_0"
  param {
    lr_mult: 0
    decay_mult: 0
  }
  scale_param {
    filler {
      value: 1.7159
    }
  }
}
layer {
  name: "pool1_0"
  type: "Pooling"
  bottom: "conv1_0"
  top: "pool1_0"
  pooling_param {
    pool: MAX
    kernel_size: 2
    stride: 2
  }
}
layer {
  name: "conv1_1"
  type: "Convolution"
  bottom: "pool1_0"
  top: "conv1_1"
  convolution_param {
    num_output: 150
    pad: 0
    kernel_size: 4
    group: 1
    stride: 1
    weight_filler {
      type: "xavier"
    }
  }
}
layer {
  name: "conv1_1_prescale"
  type: "Scale"
  bottom: "conv1_1"
  top: "conv1_1"
  param {
    lr_mult: 0
    decay_mult: 0
  }
  scale_param {
    filler {
      value: 0.6666
    }
  }
}
layer {
  name: "conv1_1_sTanH"
  type: "TanH"
  bottom: "conv1_1"
  top: "conv1_1"
}
layer {
  name: "conv1_1_postscale"
  type: "Scale"
  bottom: "conv1_1"
  top: "conv1_1"
  param {
    lr_mult: 0
    decay_mult: 0
  }
  scale_param {
    filler {
      value: 1.7159
    }
  }
}
layer {
  name: "pool1_1"
  type: "Pooling"
  bottom: "conv1_1"
  top: "pool1_1"
  pooling_param {
    pool: MAX
    kernel_size: 2
    stride: 2
  }
}
layer {
  name: "conv1_2"
  type: "Convolution"
  bottom: "pool1_1"
  top: "conv1_2"
  convolution_param {
    num_output: 250
    pad: 0
    kernel_size: 4
    group: 1
    stride: 1
    weight_filler {
      type: "xavier"
    }
  }
}
layer {
  name: "conv1_2_prescale"
  type: "Scale"
  bottom: "conv1_2"
  top: "conv1_2"
  param {
    lr_mult: 0
    decay_mult: 0
  }
  scale_param {
    filler {
      value: 0.6666
    }
  }
}
layer {
  name: "conv1_2_sTanH"
  type: "TanH"
  bottom: "conv1_2"
  top: "conv1_2"
}
layer {
  name: "conv1_2_postscale"
  type: "Scale"
  bottom: "conv1_2"
  top: "conv1_2"
  param {
    lr_mult: 0
    decay_mult: 0
  }
  scale_param {
    filler {
      value: 1.7159
    }
  }
}
layer {
  name: "pool1_2"
  type: "Pooling"
  bottom: "conv1_2"
  top: "pool1_2"
  pooling_param {
    pool: MAX
    kernel_size: 2
    stride: 2
  }
}
layer {
  name: "fc1_4_300"
  type: "InnerProduct"
  bottom: "pool1_2"
  top: "fc1_4"
  inner_product_param {
    num_output: 300
    weight_filler {
      type: "xavier"
    }
  }
}
layer {
  name: "fc1_4_prescale"
  type: "Scale"
  bottom: "fc1_4"
  top: "fc1_4"
  param {
    lr_mult: 0
    decay_mult: 0
  }
  scale_param {
    filler {
      value: 0.6666
    }
  }
}
layer {
  name: "fc1_4_sTanH"
  type: "TanH"
  bottom: "fc1_4"
  top: "fc1_4"
}
layer {
  name: "fc1_4_postscale"
  type: "Scale"
  bottom: "fc1_4"
  top: "fc1_4"
  param {
    lr_mult: 0
    decay_mult: 0
  }
  scale_param {
    filler {
      value: 1.7159
    }
  }
}
layer {
  name: "drop1_4"
  type: "Dropout"
  bottom: "fc1_4"
  top: "fc1_4"
  dropout_param {
    dropout_ratio: 0.4
  }
}
layer {
  name: "fc1_5_67"
  type: "InnerProduct"
  bottom: "fc1_4"
  top: "fc1_5"
  inner_product_param {
    num_output: 67
    weight_filler {
      type: "xavier"
    }
  }
}
layer {
  name: "softmax_1"
  type: "Softmax"
  bottom: "fc1_5"
  top: "softmax_1"
}
layer {
  name: "conv2_0"
  type: "Convolution"
  bottom: "data_0"
  top: "conv2_0"
  convolution_param {
    num_output: 100
    pad: 0
    kernel_size: 7
    group: 1
    stride: 1
    weight_filler {
      type: "xavier"
    }
  }
}
layer {
  name: "conv2_0_prescale"
  type: "Scale"
  bottom: "conv2_0"
  top: "conv2_0"
  param {
    lr_mult: 0
    decay_mult: 0
  }
  scale_param {
    filler {
      value: 0.6666
    }
  }
}
layer {
  name: "conv2_0_sTanH"
  type: "TanH"
  bottom: "conv2_0"
  top: "conv2_0"
}
layer {
  name: "conv2_0_postscale"
  type: "Scale"
  bottom: "conv2_0"
  top: "conv2_0"
  param {
    lr_mult: 0
    decay_mult: 0
  }
  scale_param {
    filler {
      value: 1.7159
    }
  }
}
layer {
  name: "pool2_0"
  type: "Pooling"
  bottom: "conv2_0"
  top: "pool2_0"
  pooling_param {
    pool: MAX
    kernel_size: 2
    stride: 2
  }
}
layer {
  name: "conv2_1"
  type: "Convolution"
  bottom: "pool2_0"
  top: "conv2_1"
  convolution_param {
    num_output: 150
    pad: 0
    kernel_size: 4
    group: 1
    stride: 1
    weight_filler {
      type: "xavier"
    }
  }
}
layer {
  name: "conv2_1_prescale"
  type: "Scale"
  bottom: "conv2_1"
  top: "conv2_1"
  param {
    lr_mult: 0
    decay_mult: 0
  }
  scale_param {
    filler {
      value: 0.6666
    }
  }
}
layer {
  name: "conv2_1_sTanH"
  type: "TanH"
  bottom: "conv2_1"
  top: "conv2_1"
}
layer {
  name: "conv2_1_postscale"
  type: "Scale"
  bottom: "conv2_1"
  top: "conv2_1"
  param {
    lr_mult: 0
    decay_mult: 0
  }
  scale_param {
    filler {
      value: 1.7159
    }
  }
}
layer {
  name: "pool2_1"
  type: "Pooling"
  bottom: "conv2_1"
  top: "pool2_1"
  pooling_param {
    pool: MAX
    kernel_size: 2
    stride: 2
  }
}
layer {
  name: "conv2_2"
  type: "Convolution"
  bottom: "pool2_1"
  top: "conv2_2"
  convolution_param {
    num_output: 250
    pad: 0
    kernel_size: 4
    group: 1
    stride: 1
    weight_filler {
      type: "xavier"
    }
  }
}
layer {
  name: "conv2_2_prescale"
  type: "Scale"
  bottom: "conv2_2"
  top: "conv2_2"
  param {
    lr_mult: 0
    decay_mult: 0
  }
  scale_param {
    filler {
      value: 0.6666
    }
  }
}
layer {
  name: "conv2_2_sTanH"
  type: "TanH"
  bottom: "conv2_2"
  top: "conv2_2"
}
layer {
  name: "conv2_2_postscale"
  type: "Scale"
  bottom: "conv2_2"
  top: "conv2_2"
  param {
    lr_mult: 0
    decay_mult: 0
  }
  scale_param {
    filler {
      value: 1.7159
    }
  }
}
layer {
  name: "pool2_2"
  type: "Pooling"
  bottom: "conv2_2"
  top: "pool2_2"
  pooling_param {
    pool: MAX
    kernel_size: 2
    stride: 2
  }
}
layer {
  name: "fc2_4_300"
  type: "InnerProduct"
  bottom: "pool2_2"
  top: "fc2_4"
  inner_product_param {
    num_output: 300
    weight_filler {
      type: "xavier"
    }
  }
}
layer {
  name: "fc2_4_prescale"
  type: "Scale"
  bottom: "fc2_4"
  top: "fc2_4"
  param {
    lr_mult: 0
    decay_mult: 0
  }
  scale_param {
    filler {
      value: 0.6666
    }
  }
}
layer {
  name: "fc2_4_sTanH"
  type: "TanH"
  bottom: "fc2_4"
  top: "fc2_4"
}
layer {
  name: "fc2_4_postscale"
  type: "Scale"
  bottom: "fc2_4"
  top: "fc2_4"
  param {
    lr_mult: 0
    decay_mult: 0
  }
  scale_param {
    filler {
      value: 1.7159
    }
  }
}
layer {
  name: "drop2_4"
  type: "Dropout"
  bottom: "fc2_4"
  top: "fc2_4"
  dropout_param {
    dropout_ratio: 0.4
  }
}
layer {
  name: "fc2_5_67"
  type: "InnerProduct"
  bottom: "fc2_4"
  top: "fc2_5"
  inner_product_param {
    num_output: 67
    weight_filler {
      type: "xavier"
    }
  }
}
layer {
  name: "softmax_2"
  type: "Softmax"
  bottom: "fc2_5"
  top: "softmax_2"
}
layer {
  name: "conv3_0"
  type: "Convolution"
  bottom: "data_0"
  top: "conv3_0"
  convolution_param {
    num_output: 100
    pad: 0
    kernel_size: 7
    group: 1
    stride: 1
    weight_filler {
      type: "xavier"
    }
  }
}
layer {
  name: "conv3_0_prescale"
  type: "Scale"
  bottom: "conv3_0"
  top: "conv3_0"
  param {
    lr_mult: 0
    decay_mult: 0
  }
  scale_param {
    filler {
      value: 0.6666
    }
  }
}
layer {
  name: "conv3_0_sTanH"
  type: "TanH"
  bottom: "conv3_0"
  top: "conv3_0"
}
layer {
  name: "conv3_0_postscale"
  type: "Scale"
  bottom: "conv3_0"
  top: "conv3_0"
  param {
    lr_mult: 0
    decay_mult: 0
  }
  scale_param {
    filler {
      value: 1.7159
    }
  }
}
layer {
  name: "pool3_0"
  type: "Pooling"
  bottom: "conv3_0"
  top: "pool3_0"
  pooling_param {
    pool: MAX
    kernel_size: 2
    stride: 2
  }
}
layer {
  name: "conv3_1"
  type: "Convolution"
  bottom: "pool3_0"
  top: "conv3_1"
  convolution_param {
    num_output: 150
    pad: 0
    kernel_size: 4
    group: 1
    stride: 1
    weight_filler {
      type: "xavier"
    }
  }
}
layer {
  name: "conv3_1_prescale"
  type: "Scale"
  bottom: "conv3_1"
  top: "conv3_1"
  param {
    lr_mult: 0
    decay_mult: 0
  }
  scale_param {
    filler {
      value: 0.6666
    }
  }
}
layer {
  name: "conv3_1_sTanH"
  type: "TanH"
  bottom: "conv3_1"
  top: "conv3_1"
}
layer {
  name: "conv3_1_postscale"
  type: "Scale"
  bottom: "conv3_1"
  top: "conv3_1"
  param {
    lr_mult: 0
    decay_mult: 0
  }
  scale_param {
    filler {
      value: 1.7159
    }
  }
}
layer {
  name: "pool3_1"
  type: "Pooling"
  bottom: "conv3_1"
  top: "pool3_1"
  pooling_param {
    pool: MAX
    kernel_size: 2
    stride: 2
  }
}
layer {
  name: "conv3_2"
  type: "Convolution"
  bottom: "pool3_1"
  top: "conv3_2"
  convolution_param {
    num_output: 250
    pad: 0
    kernel_size: 4
    group: 1
    stride: 1
    weight_filler {
      type: "xavier"
    }
  }
}
layer {
  name: "conv3_2_prescale"
  type: "Scale"
  bottom: "conv3_2"
  top: "conv3_2"
  param {
    lr_mult: 0
    decay_mult: 0
  }
  scale_param {
    filler {
      value: 0.6666
    }
  }
}
layer {
  name: "conv3_2_sTanH"
  type: "TanH"
  bottom: "conv3_2"
  top: "conv3_2"
}
layer {
  name: "conv3_2_postscale"
  type: "Scale"
  bottom: "conv3_2"
  top: "conv3_2"
  param {
    lr_mult: 0
    decay_mult: 0
  }
  scale_param {
    filler {
      value: 1.7159
    }
  }
}
layer {
  name: "pool3_2"
  type: "Pooling"
  bottom: "conv3_2"
  top: "pool3_2"
  pooling_param {
    pool: MAX
    kernel_size: 2
    stride: 2
  }
}
layer {
  name: "fc3_4_300"
  type: "InnerProduct"
  bottom: "pool3_2"
  top: "fc3_4"
  inner_product_param {
    num_output: 300
    weight_filler {
      type: "xavier"
    }
  }
}
layer {
  name: "fc3_4_prescale"
  type: "Scale"
  bottom: "fc3_4"
  top: "fc3_4"
  param {
    lr_mult: 0
    decay_mult: 0
  }
  scale_param {
    filler {
      value: 0.6666
    }
  }
}
layer {
  name: "fc3_4_sTanH"
  type: "TanH"
  bottom: "fc3_4"
  top: "fc3_4"
}
layer {
  name: "fc3_4_postscale"
  type: "Scale"
  bottom: "fc3_4"
  top: "fc3_4"
  param {
    lr_mult: 0
    decay_mult: 0
  }
  scale_param {
    filler {
      value: 1.7159
    }
  }
}
layer {
  name: "drop3_4"
  type: "Dropout"
  bottom: "fc3_4"
  top: "fc3_4"
  dropout_param {
    dropout_ratio: 0.4
  }
}
layer {
  name: "fc3_5_67"
  type: "InnerProduct"
  bottom: "fc3_4"
  top: "fc3_5"
  inner_product_param {
    num_output: 67
    weight_filler {
      type: "xavier"
    }
  }
}
layer {
  name: "softmax_3"
  type: "Softmax"
  bottom: "fc3_5"
  top: "softmax_3"
}
layer {
  name: "conv4_0"
  type: "Convolution"
  bottom: "data_0"
  top: "conv4_0"
  convolution_param {
    num_output: 100
    pad: 0
    kernel_size: 7
    group: 1
    stride: 1
    weight_filler {
      type: "xavier"
    }
  }
}
layer {
  name: "conv4_0_prescale"
  type: "Scale"
  bottom: "conv4_0"
  top: "conv4_0"
  param {
    lr_mult: 0
    decay_mult: 0
  }
  scale_param {
    filler {
      value: 0.6666
    }
  }
}
layer {
  name: "conv4_0_sTanH"
  type: "TanH"
  bottom: "conv4_0"
  top: "conv4_0"
}
layer {
  name: "conv4_0_postscale"
  type: "Scale"
  bottom: "conv4_0"
  top: "conv4_0"
  param {
    lr_mult: 0
    decay_mult: 0
  }
  scale_param {
    filler {
      value: 1.7159
    }
  }
}
layer {
  name: "pool4_0"
  type: "Pooling"
  bottom: "conv4_0"
  top: "pool4_0"
  pooling_param {
    pool: MAX
    kernel_size: 2
    stride: 2
  }
}
layer {
  name: "conv4_1"
  type: "Convolution"
  bottom: "pool4_0"
  top: "conv4_1"
  convolution_param {
    num_output: 150
    pad: 0
    kernel_size: 4
    group: 1
    stride: 1
    weight_filler {
      type: "xavier"
    }
  }
}
layer {
  name: "conv4_1_prescale"
  type: "Scale"
  bottom: "conv4_1"
  top: "conv4_1"
  param {
    lr_mult: 0
    decay_mult: 0
  }
  scale_param {
    filler {
      value: 0.6666
    }
  }
}
layer {
  name: "conv4_1_sTanH"
  type: "TanH"
  bottom: "conv4_1"
  top: "conv4_1"
}
layer {
  name: "conv4_1_postscale"
  type: "Scale"
  bottom: "conv4_1"
  top: "conv4_1"
  param {
    lr_mult: 0
    decay_mult: 0
  }
  scale_param {
    filler {
      value: 1.7159
    }
  }
}
layer {
  name: "pool4_1"
  type: "Pooling"
  bottom: "conv4_1"
  top: "pool4_1"
  pooling_param {
    pool: MAX
    kernel_size: 2
    stride: 2
  }
}
layer {
  name: "conv4_2"
  type: "Convolution"
  bottom: "pool4_1"
  top: "conv4_2"
  convolution_param {
    num_output: 250
    pad: 0
    kernel_size: 4
    group: 1
    stride: 1
    weight_filler {
      type: "xavier"
    }
  }
}
layer {
  name: "conv4_2_prescale"
  type: "Scale"
  bottom: "conv4_2"
  top: "conv4_2"
  param {
    lr_mult: 0
    decay_mult: 0
  }
  scale_param {
    filler {
      value: 0.6666
    }
  }
}
layer {
  name: "conv4_2_sTanH"
  type: "TanH"
  bottom: "conv4_2"
  top: "conv4_2"
}
layer {
  name: "conv4_2_postscale"
  type: "Scale"
  bottom: "conv4_2"
  top: "conv4_2"
  param {
    lr_mult: 0
    decay_mult: 0
  }
  scale_param {
    filler {
      value: 1.7159
    }
  }
}
layer {
  name: "pool4_2"
  type: "Pooling"
  bottom: "conv4_2"
  top: "pool4_2"
  pooling_param {
    pool: MAX
    kernel_size: 2
    stride: 2
  }
}
layer {
  name: "fc4_4_300"
  type: "InnerProduct"
  bottom: "pool4_2"
  top: "fc4_4"
  inner_product_param {
    num_output: 300
    weight_filler {
      type: "xavier"
    }
  }
}
layer {
  name: "fc4_4_prescale"
  type: "Scale"
  bottom: "fc4_4"
  top: "fc4_4"
  param {
    lr_mult: 0
    decay_mult: 0
  }
  scale_param {
    filler {
      value: 0.6666
    }
  }
}
layer {
  name: "fc4_4_sTanH"
  type: "TanH"
  bottom: "fc4_4"
  top: "fc4_4"
}
layer {
  name: "fc4_4_postscale"
  type: "Scale"
  bottom: "fc4_4"
  top: "fc4_4"
  param {
    lr_mult: 0
    decay_mult: 0
  }
  scale_param {
    filler {
      value: 1.7159
    }
  }
}
layer {
  name: "drop4_4"
  type: "Dropout"
  bottom: "fc4_4"
  top: "fc4_4"
  dropout_param {
    dropout_ratio: 0.4
  }
}
layer {
  name: "fc4_5_67"
  type: "InnerProduct"
  bottom: "fc4_4"
  top: "fc4_5"
  inner_product_param {
    num_output: 67
    weight_filler {
      type: "xavier"
    }
  }
}
layer {
  name: "softmax_4"
  type: "Softmax"
  bottom: "fc4_5"
  top: "softmax_4"
}
layer {
  name: "data_1"
  type: "Data"
  top: "data_1"
  top: "label_1"
  include {
    phase: TRAIN
  }
  transform_param {
    mirror: false
    crop_size: 48
    mean_value: 122
    mean_value: 115
    mean_value: 128
  }
  data_param {
    source: "../local_data/lmdb/rtsd-r1/histeq/train/lmdb"
    batch_size: 64
    backend: LMDB
  }
}
layer {
  name: "conv5_0"
  type: "Convolution"
  bottom: "data_1"
  top: "conv5_0"
  convolution_param {
    num_output: 100
    pad: 0
    kernel_size: 7
    group: 1
    stride: 1
    weight_filler {
      type: "xavier"
    }
  }
}
layer {
  name: "conv5_0_prescale"
  type: "Scale"
  bottom: "conv5_0"
  top: "conv5_0"
  param {
    lr_mult: 0
    decay_mult: 0
  }
  scale_param {
    filler {
      value: 0.6666
    }
  }
}
layer {
  name: "conv5_0_sTanH"
  type: "TanH"
  bottom: "conv5_0"
  top: "conv5_0"
}
layer {
  name: "conv5_0_postscale"
  type: "Scale"
  bottom: "conv5_0"
  top: "conv5_0"
  param {
    lr_mult: 0
    decay_mult: 0
  }
  scale_param {
    filler {
      value: 1.7159
    }
  }
}
layer {
  name: "pool5_0"
  type: "Pooling"
  bottom: "conv5_0"
  top: "pool5_0"
  pooling_param {
    pool: MAX
    kernel_size: 2
    stride: 2
  }
}
layer {
  name: "conv5_1"
  type: "Convolution"
  bottom: "pool5_0"
  top: "conv5_1"
  convolution_param {
    num_output: 150
    pad: 0
    kernel_size: 4
    group: 1
    stride: 1
    weight_filler {
      type: "xavier"
    }
  }
}
layer {
  name: "conv5_1_prescale"
  type: "Scale"
  bottom: "conv5_1"
  top: "conv5_1"
  param {
    lr_mult: 0
    decay_mult: 0
  }
  scale_param {
    filler {
      value: 0.6666
    }
  }
}
layer {
  name: "conv5_1_sTanH"
  type: "TanH"
  bottom: "conv5_1"
  top: "conv5_1"
}
layer {
  name: "conv5_1_postscale"
  type: "Scale"
  bottom: "conv5_1"
  top: "conv5_1"
  param {
    lr_mult: 0
    decay_mult: 0
  }
  scale_param {
    filler {
      value: 1.7159
    }
  }
}
layer {
  name: "pool5_1"
  type: "Pooling"
  bottom: "conv5_1"
  top: "pool5_1"
  pooling_param {
    pool: MAX
    kernel_size: 2
    stride: 2
  }
}
layer {
  name: "conv5_2"
  type: "Convolution"
  bottom: "pool5_1"
  top: "conv5_2"
  convolution_param {
    num_output: 250
    pad: 0
    kernel_size: 4
    group: 1
    stride: 1
    weight_filler {
      type: "xavier"
    }
  }
}
layer {
  name: "conv5_2_prescale"
  type: "Scale"
  bottom: "conv5_2"
  top: "conv5_2"
  param {
    lr_mult: 0
    decay_mult: 0
  }
  scale_param {
    filler {
      value: 0.6666
    }
  }
}
layer {
  name: "conv5_2_sTanH"
  type: "TanH"
  bottom: "conv5_2"
  top: "conv5_2"
}
layer {
  name: "conv5_2_postscale"
  type: "Scale"
  bottom: "conv5_2"
  top: "conv5_2"
  param {
    lr_mult: 0
    decay_mult: 0
  }
  scale_param {
    filler {
      value: 1.7159
    }
  }
}
layer {
  name: "pool5_2"
  type: "Pooling"
  bottom: "conv5_2"
  top: "pool5_2"
  pooling_param {
    pool: MAX
    kernel_size: 2
    stride: 2
  }
}
layer {
  name: "fc5_4_300"
  type: "InnerProduct"
  bottom: "pool5_2"
  top: "fc5_4"
  inner_product_param {
    num_output: 300
    weight_filler {
      type: "xavier"
    }
  }
}
layer {
  name: "fc5_4_prescale"
  type: "Scale"
  bottom: "fc5_4"
  top: "fc5_4"
  param {
    lr_mult: 0
    decay_mult: 0
  }
  scale_param {
    filler {
      value: 0.6666
    }
  }
}
layer {
  name: "fc5_4_sTanH"
  type: "TanH"
  bottom: "fc5_4"
  top: "fc5_4"
}
layer {
  name: "fc5_4_postscale"
  type: "Scale"
  bottom: "fc5_4"
  top: "fc5_4"
  param {
    lr_mult: 0
    decay_mult: 0
  }
  scale_param {
    filler {
      value: 1.7159
    }
  }
}
layer {
  name: "drop5_4"
  type: "Dropout"
  bottom: "fc5_4"
  top: "fc5_4"
  dropout_param {
    dropout_ratio: 0.4
  }
}
layer {
  name: "fc5_5_67"
  type: "InnerProduct"
  bottom: "fc5_4"
  top: "fc5_5"
  inner_product_param {
    num_output: 67
    weight_filler {
      type: "xavier"
    }
  }
}
layer {
  name: "softmax_5"
  type: "Softmax"
  bottom: "fc5_5"
  top: "softmax_5"
}
layer {
  name: "conv6_0"
  type: "Convolution"
  bottom: "data_1"
  top: "conv6_0"
  convolution_param {
    num_output: 100
    pad: 0
    kernel_size: 7
    group: 1
    stride: 1
    weight_filler {
      type: "xavier"
    }
  }
}
layer {
  name: "conv6_0_prescale"
  type: "Scale"
  bottom: "conv6_0"
  top: "conv6_0"
  param {
    lr_mult: 0
    decay_mult: 0
  }
  scale_param {
    filler {
      value: 0.6666
    }
  }
}
layer {
  name: "conv6_0_sTanH"
  type: "TanH"
  bottom: "conv6_0"
  top: "conv6_0"
}
layer {
  name: "conv6_0_postscale"
  type: "Scale"
  bottom: "conv6_0"
  top: "conv6_0"
  param {
    lr_mult: 0
    decay_mult: 0
  }
  scale_param {
    filler {
      value: 1.7159
    }
  }
}
layer {
  name: "pool6_0"
  type: "Pooling"
  bottom: "conv6_0"
  top: "pool6_0"
  pooling_param {
    pool: MAX
    kernel_size: 2
    stride: 2
  }
}
layer {
  name: "conv6_1"
  type: "Convolution"
  bottom: "pool6_0"
  top: "conv6_1"
  convolution_param {
    num_output: 150
    pad: 0
    kernel_size: 4
    group: 1
    stride: 1
    weight_filler {
      type: "xavier"
    }
  }
}
layer {
  name: "conv6_1_prescale"
  type: "Scale"
  bottom: "conv6_1"
  top: "conv6_1"
  param {
    lr_mult: 0
    decay_mult: 0
  }
  scale_param {
    filler {
      value: 0.6666
    }
  }
}
layer {
  name: "conv6_1_sTanH"
  type: "TanH"
  bottom: "conv6_1"
  top: "conv6_1"
}
layer {
  name: "conv6_1_postscale"
  type: "Scale"
  bottom: "conv6_1"
  top: "conv6_1"
  param {
    lr_mult: 0
    decay_mult: 0
  }
  scale_param {
    filler {
      value: 1.7159
    }
  }
}
layer {
  name: "pool6_1"
  type: "Pooling"
  bottom: "conv6_1"
  top: "pool6_1"
  pooling_param {
    pool: MAX
    kernel_size: 2
    stride: 2
  }
}
layer {
  name: "conv6_2"
  type: "Convolution"
  bottom: "pool6_1"
  top: "conv6_2"
  convolution_param {
    num_output: 250
    pad: 0
    kernel_size: 4
    group: 1
    stride: 1
    weight_filler {
      type: "xavier"
    }
  }
}
layer {
  name: "conv6_2_prescale"
  type: "Scale"
  bottom: "conv6_2"
  top: "conv6_2"
  param {
    lr_mult: 0
    decay_mult: 0
  }
  scale_param {
    filler {
      value: 0.6666
    }
  }
}
layer {
  name: "conv6_2_sTanH"
  type: "TanH"
  bottom: "conv6_2"
  top: "conv6_2"
}
layer {
  name: "conv6_2_postscale"
  type: "Scale"
  bottom: "conv6_2"
  top: "conv6_2"
  param {
    lr_mult: 0
    decay_mult: 0
  }
  scale_param {
    filler {
      value: 1.7159
    }
  }
}
layer {
  name: "pool6_2"
  type: "Pooling"
  bottom: "conv6_2"
  top: "pool6_2"
  pooling_param {
    pool: MAX
    kernel_size: 2
    stride: 2
  }
}
layer {
  name: "fc6_4_300"
  type: "InnerProduct"
  bottom: "pool6_2"
  top: "fc6_4"
  inner_product_param {
    num_output: 300
    weight_filler {
      type: "xavier"
    }
  }
}
layer {
  name: "fc6_4_prescale"
  type: "Scale"
  bottom: "fc6_4"
  top: "fc6_4"
  param {
    lr_mult: 0
    decay_mult: 0
  }
  scale_param {
    filler {
      value: 0.6666
    }
  }
}
layer {
  name: "fc6_4_sTanH"
  type: "TanH"
  bottom: "fc6_4"
  top: "fc6_4"
}
layer {
  name: "fc6_4_postscale"
  type: "Scale"
  bottom: "fc6_4"
  top: "fc6_4"
  param {
    lr_mult: 0
    decay_mult: 0
  }
  scale_param {
    filler {
      value: 1.7159
    }
  }
}
layer {
  name: "drop6_4"
  type: "Dropout"
  bottom: "fc6_4"
  top: "fc6_4"
  dropout_param {
    dropout_ratio: 0.4
  }
}
layer {
  name: "fc6_5_67"
  type: "InnerProduct"
  bottom: "fc6_4"
  top: "fc6_5"
  inner_product_param {
    num_output: 67
    weight_filler {
      type: "xavier"
    }
  }
}
layer {
  name: "softmax_6"
  type: "Softmax"
  bottom: "fc6_5"
  top: "softmax_6"
}
layer {
  name: "conv7_0"
  type: "Convolution"
  bottom: "data_1"
  top: "conv7_0"
  convolution_param {
    num_output: 100
    pad: 0
    kernel_size: 7
    group: 1
    stride: 1
    weight_filler {
      type: "xavier"
    }
  }
}
layer {
  name: "conv7_0_prescale"
  type: "Scale"
  bottom: "conv7_0"
  top: "conv7_0"
  param {
    lr_mult: 0
    decay_mult: 0
  }
  scale_param {
    filler {
      value: 0.6666
    }
  }
}
layer {
  name: "conv7_0_sTanH"
  type: "TanH"
  bottom: "conv7_0"
  top: "conv7_0"
}
layer {
  name: "conv7_0_postscale"
  type: "Scale"
  bottom: "conv7_0"
  top: "conv7_0"
  param {
    lr_mult: 0
    decay_mult: 0
  }
  scale_param {
    filler {
      value: 1.7159
    }
  }
}
layer {
  name: "pool7_0"
  type: "Pooling"
  bottom: "conv7_0"
  top: "pool7_0"
  pooling_param {
    pool: MAX
    kernel_size: 2
    stride: 2
  }
}
layer {
  name: "conv7_1"
  type: "Convolution"
  bottom: "pool7_0"
  top: "conv7_1"
  convolution_param {
    num_output: 150
    pad: 0
    kernel_size: 4
    group: 1
    stride: 1
    weight_filler {
      type: "xavier"
    }
  }
}
layer {
  name: "conv7_1_prescale"
  type: "Scale"
  bottom: "conv7_1"
  top: "conv7_1"
  param {
    lr_mult: 0
    decay_mult: 0
  }
  scale_param {
    filler {
      value: 0.6666
    }
  }
}
layer {
  name: "conv7_1_sTanH"
  type: "TanH"
  bottom: "conv7_1"
  top: "conv7_1"
}
layer {
  name: "conv7_1_postscale"
  type: "Scale"
  bottom: "conv7_1"
  top: "conv7_1"
  param {
    lr_mult: 0
    decay_mult: 0
  }
  scale_param {
    filler {
      value: 1.7159
    }
  }
}
layer {
  name: "pool7_1"
  type: "Pooling"
  bottom: "conv7_1"
  top: "pool7_1"
  pooling_param {
    pool: MAX
    kernel_size: 2
    stride: 2
  }
}
layer {
  name: "conv7_2"
  type: "Convolution"
  bottom: "pool7_1"
  top: "conv7_2"
  convolution_param {
    num_output: 250
    pad: 0
    kernel_size: 4
    group: 1
    stride: 1
    weight_filler {
      type: "xavier"
    }
  }
}
layer {
  name: "conv7_2_prescale"
  type: "Scale"
  bottom: "conv7_2"
  top: "conv7_2"
  param {
    lr_mult: 0
    decay_mult: 0
  }
  scale_param {
    filler {
      value: 0.6666
    }
  }
}
layer {
  name: "conv7_2_sTanH"
  type: "TanH"
  bottom: "conv7_2"
  top: "conv7_2"
}
layer {
  name: "conv7_2_postscale"
  type: "Scale"
  bottom: "conv7_2"
  top: "conv7_2"
  param {
    lr_mult: 0
    decay_mult: 0
  }
  scale_param {
    filler {
      value: 1.7159
    }
  }
}
layer {
  name: "pool7_2"
  type: "Pooling"
  bottom: "conv7_2"
  top: "pool7_2"
  pooling_param {
    pool: MAX
    kernel_size: 2
    stride: 2
  }
}
layer {
  name: "fc7_4_300"
  type: "InnerProduct"
  bottom: "pool7_2"
  top: "fc7_4"
  inner_product_param {
    num_output: 300
    weight_filler {
      type: "xavier"
    }
  }
}
layer {
  name: "fc7_4_prescale"
  type: "Scale"
  bottom: "fc7_4"
  top: "fc7_4"
  param {
    lr_mult: 0
    decay_mult: 0
  }
  scale_param {
    filler {
      value: 0.6666
    }
  }
}
layer {
  name: "fc7_4_sTanH"
  type: "TanH"
  bottom: "fc7_4"
  top: "fc7_4"
}
layer {
  name: "fc7_4_postscale"
  type: "Scale"
  bottom: "fc7_4"
  top: "fc7_4"
  param {
    lr_mult: 0
    decay_mult: 0
  }
  scale_param {
    filler {
      value: 1.7159
    }
  }
}
layer {
  name: "drop7_4"
  type: "Dropout"
  bottom: "fc7_4"
  top: "fc7_4"
  dropout_param {
    dropout_ratio: 0.4
  }
}
layer {
  name: "fc7_5_67"
  type: "InnerProduct"
  bottom: "fc7_4"
  top: "fc7_5"
  inner_product_param {
    num_output: 67
    weight_filler {
      type: "xavier"
    }
  }
}
layer {
  name: "softmax_7"
  type: "Softmax"
  bottom: "fc7_5"
  top: "softmax_7"
}
layer {
  name: "conv8_0"
  type: "Convolution"
  bottom: "data_1"
  top: "conv8_0"
  convolution_param {
    n
I0407 23:00:19.327844  5542 layer_factory.hpp:77] Creating layer data_0
I0407 23:00:19.328342  5542 net.cpp:100] Creating Layer data_0
I0407 23:00:19.328356  5542 net.cpp:408] data_0 -> data_0
I0407 23:00:19.328379  5542 net.cpp:408] data_0 -> label_0
I0407 23:00:19.330026  5609 db_lmdb.cpp:35] Opened lmdb ../local_data/lmdb/rtsd-r1/orig/train/lmdb
I0407 23:00:19.345978  5542 data_layer.cpp:41] output data size: 64,3,48,48
I0407 23:00:19.351539  5542 net.cpp:150] Setting up data_0
I0407 23:00:19.351559  5542 net.cpp:157] Top shape: 64 3 48 48 (442368)
I0407 23:00:19.351564  5542 net.cpp:157] Top shape: 64 (64)
I0407 23:00:19.351567  5542 net.cpp:165] Memory required for data: 1769728
I0407 23:00:19.351575  5542 layer_factory.hpp:77] Creating layer data_0_data_0_0_split
I0407 23:00:19.351586  5542 net.cpp:100] Creating Layer data_0_data_0_0_split
I0407 23:00:19.351593  5542 net.cpp:434] data_0_data_0_0_split <- data_0
I0407 23:00:19.351606  5542 net.cpp:408] data_0_data_0_0_split -> data_0_data_0_0_split_0
I0407 23:00:19.351624  5542 net.cpp:408] data_0_data_0_0_split -> data_0_data_0_0_split_1
I0407 23:00:19.351632  5542 net.cpp:408] data_0_data_0_0_split -> data_0_data_0_0_split_2
I0407 23:00:19.351641  5542 net.cpp:408] data_0_data_0_0_split -> data_0_data_0_0_split_3
I0407 23:00:19.351649  5542 net.cpp:408] data_0_data_0_0_split -> data_0_data_0_0_split_4
I0407 23:00:19.351763  5542 net.cpp:150] Setting up data_0_data_0_0_split
I0407 23:00:19.351773  5542 net.cpp:157] Top shape: 64 3 48 48 (442368)
I0407 23:00:19.351779  5542 net.cpp:157] Top shape: 64 3 48 48 (442368)
I0407 23:00:19.351783  5542 net.cpp:157] Top shape: 64 3 48 48 (442368)
I0407 23:00:19.351788  5542 net.cpp:157] Top shape: 64 3 48 48 (442368)
I0407 23:00:19.351806  5542 net.cpp:157] Top shape: 64 3 48 48 (442368)
I0407 23:00:19.351810  5542 net.cpp:165] Memory required for data: 10617088
I0407 23:00:19.351814  5542 layer_factory.hpp:77] Creating layer conv0_0
I0407 23:00:19.351830  5542 net.cpp:100] Creating Layer conv0_0
I0407 23:00:19.351835  5542 net.cpp:434] conv0_0 <- data_0_data_0_0_split_0
I0407 23:00:19.351842  5542 net.cpp:408] conv0_0 -> conv0_0
I0407 23:00:19.353353  5611 blocking_queue.cpp:50] Waiting for data
I0407 23:00:19.695080  5542 net.cpp:150] Setting up conv0_0
I0407 23:00:19.695111  5542 net.cpp:157] Top shape: 64 100 42 42 (11289600)
I0407 23:00:19.695116  5542 net.cpp:165] Memory required for data: 55775488
I0407 23:00:19.695137  5542 layer_factory.hpp:77] Creating layer conv0_0_prescale
I0407 23:00:19.695152  5542 net.cpp:100] Creating Layer conv0_0_prescale
I0407 23:00:19.695158  5542 net.cpp:434] conv0_0_prescale <- conv0_0
I0407 23:00:19.695165  5542 net.cpp:395] conv0_0_prescale -> conv0_0 (in-place)
I0407 23:00:19.695273  5542 net.cpp:150] Setting up conv0_0_prescale
I0407 23:00:19.695282  5542 net.cpp:157] Top shape: 64 100 42 42 (11289600)
I0407 23:00:19.695286  5542 net.cpp:165] Memory required for data: 100933888
I0407 23:00:19.695291  5542 layer_factory.hpp:77] Creating layer conv0_0_sTanH
I0407 23:00:19.695300  5542 net.cpp:100] Creating Layer conv0_0_sTanH
I0407 23:00:19.695305  5542 net.cpp:434] conv0_0_sTanH <- conv0_0
I0407 23:00:19.695309  5542 net.cpp:395] conv0_0_sTanH -> conv0_0 (in-place)
I0407 23:00:19.695495  5542 net.cpp:150] Setting up conv0_0_sTanH
I0407 23:00:19.695507  5542 net.cpp:157] Top shape: 64 100 42 42 (11289600)
I0407 23:00:19.695509  5542 net.cpp:165] Memory required for data: 146092288
I0407 23:00:19.695513  5542 layer_factory.hpp:77] Creating layer conv0_0_postscale
I0407 23:00:19.695520  5542 net.cpp:100] Creating Layer conv0_0_postscale
I0407 23:00:19.695525  5542 net.cpp:434] conv0_0_postscale <- conv0_0
I0407 23:00:19.695530  5542 net.cpp:395] conv0_0_postscale -> conv0_0 (in-place)
I0407 23:00:19.695624  5542 net.cpp:150] Setting up conv0_0_postscale
I0407 23:00:19.695632  5542 net.cpp:157] Top shape: 64 100 42 42 (11289600)
I0407 23:00:19.695636  5542 net.cpp:165] Memory required for data: 191250688
I0407 23:00:19.695641  5542 layer_factory.hpp:77] Creating layer pool0_0
I0407 23:00:19.695647  5542 net.cpp:100] Creating Layer pool0_0
I0407 23:00:19.695652  5542 net.cpp:434] pool0_0 <- conv0_0
I0407 23:00:19.695657  5542 net.cpp:408] pool0_0 -> pool0_0
I0407 23:00:19.695706  5542 net.cpp:150] Setting up pool0_0
I0407 23:00:19.695714  5542 net.cpp:157] Top shape: 64 100 21 21 (2822400)
I0407 23:00:19.695718  5542 net.cpp:165] Memory required for data: 202540288
I0407 23:00:19.695720  5542 layer_factory.hpp:77] Creating layer conv0_1
I0407 23:00:19.695730  5542 net.cpp:100] Creating Layer conv0_1
I0407 23:00:19.695734  5542 net.cpp:434] conv0_1 <- pool0_0
I0407 23:00:19.695740  5542 net.cpp:408] conv0_1 -> conv0_1
I0407 23:00:19.701073  5542 net.cpp:150] Setting up conv0_1
I0407 23:00:19.701102  5542 net.cpp:157] Top shape: 64 150 18 18 (3110400)
I0407 23:00:19.701107  5542 net.cpp:165] Memory required for data: 214981888
I0407 23:00:19.701117  5542 layer_factory.hpp:77] Creating layer conv0_1_prescale
I0407 23:00:19.701128  5542 net.cpp:100] Creating Layer conv0_1_prescale
I0407 23:00:19.701131  5542 net.cpp:434] conv0_1_prescale <- conv0_1
I0407 23:00:19.701136  5542 net.cpp:395] conv0_1_prescale -> conv0_1 (in-place)
I0407 23:00:19.701242  5542 net.cpp:150] Setting up conv0_1_prescale
I0407 23:00:19.701251  5542 net.cpp:157] Top shape: 64 150 18 18 (3110400)
I0407 23:00:19.701254  5542 net.cpp:165] Memory required for data: 227423488
I0407 23:00:19.701259  5542 layer_factory.hpp:77] Creating layer conv0_1_sTanH
I0407 23:00:19.701264  5542 net.cpp:100] Creating Layer conv0_1_sTanH
I0407 23:00:19.701267  5542 net.cpp:434] conv0_1_sTanH <- conv0_1
I0407 23:00:19.701272  5542 net.cpp:395] conv0_1_sTanH -> conv0_1 (in-place)
I0407 23:00:19.702026  5542 net.cpp:150] Setting up conv0_1_sTanH
I0407 23:00:19.702061  5542 net.cpp:157] Top shape: 64 150 18 18 (3110400)
I0407 23:00:19.702066  5542 net.cpp:165] Memory required for data: 239865088
I0407 23:00:19.702070  5542 layer_factory.hpp:77] Creating layer conv0_1_postscale
I0407 23:00:19.702078  5542 net.cpp:100] Creating Layer conv0_1_postscale
I0407 23:00:19.702085  5542 net.cpp:434] conv0_1_postscale <- conv0_1
I0407 23:00:19.702090  5542 net.cpp:395] conv0_1_postscale -> conv0_1 (in-place)
I0407 23:00:19.702188  5542 net.cpp:150] Setting up conv0_1_postscale
I0407 23:00:19.702196  5542 net.cpp:157] Top shape: 64 150 18 18 (3110400)
I0407 23:00:19.702199  5542 net.cpp:165] Memory required for data: 252306688
I0407 23:00:19.702204  5542 layer_factory.hpp:77] Creating layer pool0_1
I0407 23:00:19.702210  5542 net.cpp:100] Creating Layer pool0_1
I0407 23:00:19.702215  5542 net.cpp:434] pool0_1 <- conv0_1
I0407 23:00:19.702219  5542 net.cpp:408] pool0_1 -> pool0_1
I0407 23:00:19.702261  5542 net.cpp:150] Setting up pool0_1
I0407 23:00:19.702268  5542 net.cpp:157] Top shape: 64 150 9 9 (777600)
I0407 23:00:19.702271  5542 net.cpp:165] Memory required for data: 255417088
I0407 23:00:19.702275  5542 layer_factory.hpp:77] Creating layer conv0_2
I0407 23:00:19.702285  5542 net.cpp:100] Creating Layer conv0_2
I0407 23:00:19.702288  5542 net.cpp:434] conv0_2 <- pool0_1
I0407 23:00:19.702296  5542 net.cpp:408] conv0_2 -> conv0_2
I0407 23:00:19.707859  5542 net.cpp:150] Setting up conv0_2
I0407 23:00:19.707875  5542 net.cpp:157] Top shape: 64 250 6 6 (576000)
I0407 23:00:19.707886  5542 net.cpp:165] Memory required for data: 257721088
I0407 23:00:19.707896  5542 layer_factory.hpp:77] Creating layer conv0_2_prescale
I0407 23:00:19.707907  5542 net.cpp:100] Creating Layer conv0_2_prescale
I0407 23:00:19.707913  5542 net.cpp:434] conv0_2_prescale <- conv0_2
I0407 23:00:19.707918  5542 net.cpp:395] conv0_2_prescale -> conv0_2 (in-place)
I0407 23:00:19.708021  5542 net.cpp:150] Setting up conv0_2_prescale
I0407 23:00:19.708031  5542 net.cpp:157] Top shape: 64 250 6 6 (576000)
I0407 23:00:19.708037  5542 net.cpp:165] Memory required for data: 260025088
I0407 23:00:19.708041  5542 layer_factory.hpp:77] Creating layer conv0_2_sTanH
I0407 23:00:19.708047  5542 net.cpp:100] Creating Layer conv0_2_sTanH
I0407 23:00:19.708050  5542 net.cpp:434] conv0_2_sTanH <- conv0_2
I0407 23:00:19.708055  5542 net.cpp:395] conv0_2_sTanH -> conv0_2 (in-place)
I0407 23:00:19.708824  5542 net.cpp:150] Setting up conv0_2_sTanH
I0407 23:00:19.708843  5542 net.cpp:157] Top shape: 64 250 6 6 (576000)
I0407 23:00:19.708848  5542 net.cpp:165] Memory required for data: 262329088
I0407 23:00:19.708853  5542 layer_factory.hpp:77] Creating layer conv0_2_postscale
I0407 23:00:19.708860  5542 net.cpp:100] Creating Layer conv0_2_postscale
I0407 23:00:19.708864  5542 net.cpp:434] conv0_2_postscale <- conv0_2
I0407 23:00:19.708873  5542 net.cpp:395] conv0_2_postscale -> conv0_2 (in-place)
I0407 23:00:19.708977  5542 net.cpp:150] Setting up conv0_2_postscale
I0407 23:00:19.708986  5542 net.cpp:157] Top shape: 64 250 6 6 (576000)
I0407 23:00:19.708989  5542 net.cpp:165] Memory required for data: 264633088
I0407 23:00:19.708994  5542 layer_factory.hpp:77] Creating layer pool0_2
I0407 23:00:19.709004  5542 net.cpp:100] Creating Layer pool0_2
I0407 23:00:19.709009  5542 net.cpp:434] pool0_2 <- conv0_2
I0407 23:00:19.709014  5542 net.cpp:408] pool0_2 -> pool0_2
I0407 23:00:19.709055  5542 net.cpp:150] Setting up pool0_2
I0407 23:00:19.709062  5542 net.cpp:157] Top shape: 64 250 3 3 (144000)
I0407 23:00:19.709065  5542 net.cpp:165] Memory required for data: 265209088
I0407 23:00:19.709069  5542 layer_factory.hpp:77] Creating layer fc0_4_300
I0407 23:00:19.709075  5542 net.cpp:100] Creating Layer fc0_4_300
I0407 23:00:19.709079  5542 net.cpp:434] fc0_4_300 <- pool0_2
I0407 23:00:19.709084  5542 net.cpp:408] fc0_4_300 -> fc0_4
I0407 23:00:19.714506  5542 net.cpp:150] Setting up fc0_4_300
I0407 23:00:19.714524  5542 net.cpp:157] Top shape: 64 300 (19200)
I0407 23:00:19.714529  5542 net.cpp:165] Memory required for data: 265285888
I0407 23:00:19.714550  5542 layer_factory.hpp:77] Creating layer fc0_4_prescale
I0407 23:00:19.714560  5542 net.cpp:100] Creating Layer fc0_4_prescale
I0407 23:00:19.714565  5542 net.cpp:434] fc0_4_prescale <- fc0_4
I0407 23:00:19.714571  5542 net.cpp:395] fc0_4_prescale -> fc0_4 (in-place)
I0407 23:00:19.714668  5542 net.cpp:150] Setting up fc0_4_prescale
I0407 23:00:19.714675  5542 net.cpp:157] Top shape: 64 300 (19200)
I0407 23:00:19.714679  5542 net.cpp:165] Memory required for data: 265362688
I0407 23:00:19.714682  5542 layer_factory.hpp:77] Creating layer fc0_4_sTanH
I0407 23:00:19.714687  5542 net.cpp:100] Creating Layer fc0_4_sTanH
I0407 23:00:19.714690  5542 net.cpp:434] fc0_4_sTanH <- fc0_4
I0407 23:00:19.714696  5542 net.cpp:395] fc0_4_sTanH -> fc0_4 (in-place)
I0407 23:00:19.714887  5542 net.cpp:150] Setting up fc0_4_sTanH
I0407 23:00:19.714898  5542 net.cpp:157] Top shape: 64 300 (19200)
I0407 23:00:19.714903  5542 net.cpp:165] Memory required for data: 265439488
I0407 23:00:19.714907  5542 layer_factory.hpp:77] Creating layer fc0_4_postscale
I0407 23:00:19.714915  5542 net.cpp:100] Creating Layer fc0_4_postscale
I0407 23:00:19.714920  5542 net.cpp:434] fc0_4_postscale <- fc0_4
I0407 23:00:19.714926  5542 net.cpp:395] fc0_4_postscale -> fc0_4 (in-place)
I0407 23:00:19.715024  5542 net.cpp:150] Setting up fc0_4_postscale
I0407 23:00:19.715032  5542 net.cpp:157] Top shape: 64 300 (19200)
I0407 23:00:19.715035  5542 net.cpp:165] Memory required for data: 265516288
I0407 23:00:19.715039  5542 layer_factory.hpp:77] Creating layer drop0_4
I0407 23:00:19.715049  5542 net.cpp:100] Creating Layer drop0_4
I0407 23:00:19.715054  5542 net.cpp:434] drop0_4 <- fc0_4
I0407 23:00:19.715059  5542 net.cpp:395] drop0_4 -> fc0_4 (in-place)
I0407 23:00:19.715086  5542 net.cpp:150] Setting up drop0_4
I0407 23:00:19.715093  5542 net.cpp:157] Top shape: 64 300 (19200)
I0407 23:00:19.715095  5542 net.cpp:165] Memory required for data: 265593088
I0407 23:00:19.715100  5542 layer_factory.hpp:77] Creating layer fc0_5_67
I0407 23:00:19.715106  5542 net.cpp:100] Creating Layer fc0_5_67
I0407 23:00:19.715111  5542 net.cpp:434] fc0_5_67 <- fc0_4
I0407 23:00:19.715116  5542 net.cpp:408] fc0_5_67 -> fc0_5
I0407 23:00:19.716379  5542 net.cpp:150] Setting up fc0_5_67
I0407 23:00:19.716397  5542 net.cpp:157] Top shape: 64 67 (4288)
I0407 23:00:19.716399  5542 net.cpp:165] Memory required for data: 265610240
I0407 23:00:19.716411  5542 layer_factory.hpp:77] Creating layer softmax_0
I0407 23:00:19.716420  5542 net.cpp:100] Creating Layer softmax_0
I0407 23:00:19.716425  5542 net.cpp:434] softmax_0 <- fc0_5
I0407 23:00:19.716430  5542 net.cpp:408] softmax_0 -> softmax_0
I0407 23:00:19.716688  5542 net.cpp:150] Setting up softmax_0
I0407 23:00:19.716701  5542 net.cpp:157] Top shape: 64 67 (4288)
I0407 23:00:19.716703  5542 net.cpp:165] Memory required for data: 265627392
I0407 23:00:19.716706  5542 layer_factory.hpp:77] Creating layer conv1_0
I0407 23:00:19.716717  5542 net.cpp:100] Creating Layer conv1_0
I0407 23:00:19.716722  5542 net.cpp:434] conv1_0 <- data_0_data_0_0_split_1
I0407 23:00:19.716729  5542 net.cpp:408] conv1_0 -> conv1_0
I0407 23:00:19.718260  5542 net.cpp:150] Setting up conv1_0
I0407 23:00:19.718278  5542 net.cpp:157] Top shape: 64 100 42 42 (11289600)
I0407 23:00:19.718282  5542 net.cpp:165] Memory required for data: 310785792
I0407 23:00:19.718289  5542 layer_factory.hpp:77] Creating layer conv1_0_prescale
I0407 23:00:19.718298  5542 net.cpp:100] Creating Layer conv1_0_prescale
I0407 23:00:19.718302  5542 net.cpp:434] conv1_0_prescale <- conv1_0
I0407 23:00:19.718308  5542 net.cpp:395] conv1_0_prescale -> conv1_0 (in-place)
I0407 23:00:19.718413  5542 net.cpp:150] Setting up conv1_0_prescale
I0407 23:00:19.718422  5542 net.cpp:157] Top shape: 64 100 42 42 (11289600)
I0407 23:00:19.718425  5542 net.cpp:165] Memory required for data: 355944192
I0407 23:00:19.718430  5542 layer_factory.hpp:77] Creating layer conv1_0_sTanH
I0407 23:00:19.718436  5542 net.cpp:100] Creating Layer conv1_0_sTanH
I0407 23:00:19.718451  5542 net.cpp:434] conv1_0_sTanH <- conv1_0
I0407 23:00:19.718458  5542 net.cpp:395] conv1_0_sTanH -> conv1_0 (in-place)
I0407 23:00:19.718653  5542 net.cpp:150] Setting up conv1_0_sTanH
I0407 23:00:19.718668  5542 net.cpp:157] Top shape: 64 100 42 42 (11289600)
I0407 23:00:19.718673  5542 net.cpp:165] Memory required for data: 401102592
I0407 23:00:19.718677  5542 layer_factory.hpp:77] Creating layer conv1_0_postscale
I0407 23:00:19.718683  5542 net.cpp:100] Creating Layer conv1_0_postscale
I0407 23:00:19.718689  5542 net.cpp:434] conv1_0_postscale <- conv1_0
I0407 23:00:19.718696  5542 net.cpp:395] conv1_0_postscale -> conv1_0 (in-place)
I0407 23:00:19.718802  5542 net.cpp:150] Setting up conv1_0_postscale
I0407 23:00:19.718811  5542 net.cpp:157] Top shape: 64 100 42 42 (11289600)
I0407 23:00:19.718813  5542 net.cpp:165] Memory required for data: 446260992
I0407 23:00:19.718818  5542 layer_factory.hpp:77] Creating layer pool1_0
I0407 23:00:19.718824  5542 net.cpp:100] Creating Layer pool1_0
I0407 23:00:19.718827  5542 net.cpp:434] pool1_0 <- conv1_0
I0407 23:00:19.718833  5542 net.cpp:408] pool1_0 -> pool1_0
I0407 23:00:19.718874  5542 net.cpp:150] Setting up pool1_0
I0407 23:00:19.718883  5542 net.cpp:157] Top shape: 64 100 21 21 (2822400)
I0407 23:00:19.718884  5542 net.cpp:165] Memory required for data: 457550592
I0407 23:00:19.718888  5542 layer_factory.hpp:77] Creating layer conv1_1
I0407 23:00:19.718897  5542 net.cpp:100] Creating Layer conv1_1
I0407 23:00:19.718902  5542 net.cpp:434] conv1_1 <- pool1_0
I0407 23:00:19.718909  5542 net.cpp:408] conv1_1 -> conv1_1
I0407 23:00:19.721849  5542 net.cpp:150] Setting up conv1_1
I0407 23:00:19.721868  5542 net.cpp:157] Top shape: 64 150 18 18 (3110400)
I0407 23:00:19.721873  5542 net.cpp:165] Memory required for data: 469992192
I0407 23:00:19.721879  5542 layer_factory.hpp:77] Creating layer conv1_1_prescale
I0407 23:00:19.721887  5542 net.cpp:100] Creating Layer conv1_1_prescale
I0407 23:00:19.721890  5542 net.cpp:434] conv1_1_prescale <- conv1_1
I0407 23:00:19.721897  5542 net.cpp:395] conv1_1_prescale -> conv1_1 (in-place)
I0407 23:00:19.722000  5542 net.cpp:150] Setting up conv1_1_prescale
I0407 23:00:19.722010  5542 net.cpp:157] Top shape: 64 150 18 18 (3110400)
I0407 23:00:19.722013  5542 net.cpp:165] Memory required for data: 482433792
I0407 23:00:19.722018  5542 layer_factory.hpp:77] Creating layer conv1_1_sTanH
I0407 23:00:19.722023  5542 net.cpp:100] Creating Layer conv1_1_sTanH
I0407 23:00:19.722026  5542 net.cpp:434] conv1_1_sTanH <- conv1_1
I0407 23:00:19.722033  5542 net.cpp:395] conv1_1_sTanH -> conv1_1 (in-place)
I0407 23:00:19.722947  5542 net.cpp:150] Setting up conv1_1_sTanH
I0407 23:00:19.722964  5542 net.cpp:157] Top shape: 64 150 18 18 (3110400)
I0407 23:00:19.722966  5542 net.cpp:165] Memory required for data: 494875392
I0407 23:00:19.722970  5542 layer_factory.hpp:77] Creating layer conv1_1_postscale
I0407 23:00:19.722986  5542 net.cpp:100] Creating Layer conv1_1_postscale
I0407 23:00:19.722990  5542 net.cpp:434] conv1_1_postscale <- conv1_1
I0407 23:00:19.722995  5542 net.cpp:395] conv1_1_postscale -> conv1_1 (in-place)
I0407 23:00:19.723109  5542 net.cpp:150] Setting up conv1_1_postscale
I0407 23:00:19.723119  5542 net.cpp:157] Top shape: 64 150 18 18 (3110400)
I0407 23:00:19.723121  5542 net.cpp:165] Memory required for data: 507316992
I0407 23:00:19.723126  5542 layer_factory.hpp:77] Creating layer pool1_1
I0407 23:00:19.723134  5542 net.cpp:100] Creating Layer pool1_1
I0407 23:00:19.723137  5542 net.cpp:434] pool1_1 <- conv1_1
I0407 23:00:19.723142  5542 net.cpp:408] pool1_1 -> pool1_1
I0407 23:00:19.723184  5542 net.cpp:150] Setting up pool1_1
I0407 23:00:19.723192  5542 net.cpp:157] Top shape: 64 150 9 9 (777600)
I0407 23:00:19.723196  5542 net.cpp:165] Memory required for data: 510427392
I0407 23:00:19.723198  5542 layer_factory.hpp:77] Creating layer conv1_2
I0407 23:00:19.723207  5542 net.cpp:100] Creating Layer conv1_2
I0407 23:00:19.723213  5542 net.cpp:434] conv1_2 <- pool1_1
I0407 23:00:19.723218  5542 net.cpp:408] conv1_2 -> conv1_2
I0407 23:00:19.729285  5542 net.cpp:150] Setting up conv1_2
I0407 23:00:19.729302  5542 net.cpp:157] Top shape: 64 250 6 6 (576000)
I0407 23:00:19.729306  5542 net.cpp:165] Memory required for data: 512731392
I0407 23:00:19.729313  5542 layer_factory.hpp:77] Creating layer conv1_2_prescale
I0407 23:00:19.729321  5542 net.cpp:100] Creating Layer conv1_2_prescale
I0407 23:00:19.729324  5542 net.cpp:434] conv1_2_prescale <- conv1_2
I0407 23:00:19.729331  5542 net.cpp:395] conv1_2_prescale -> conv1_2 (in-place)
I0407 23:00:19.729432  5542 net.cpp:150] Setting up conv1_2_prescale
I0407 23:00:19.729441  5542 net.cpp:157] Top shape: 64 250 6 6 (576000)
I0407 23:00:19.729444  5542 net.cpp:165] Memory required for data: 515035392
I0407 23:00:19.729449  5542 layer_factory.hpp:77] Creating layer conv1_2_sTanH
I0407 23:00:19.729455  5542 net.cpp:100] Creating Layer conv1_2_sTanH
I0407 23:00:19.729459  5542 net.cpp:434] conv1_2_sTanH <- conv1_2
I0407 23:00:19.729465  5542 net.cpp:395] conv1_2_sTanH -> conv1_2 (in-place)
I0407 23:00:19.730412  5542 net.cpp:150] Setting up conv1_2_sTanH
I0407 23:00:19.730427  5542 net.cpp:157] Top shape: 64 250 6 6 (576000)
I0407 23:00:19.730432  5542 net.cpp:165] Memory required for data: 517339392
I0407 23:00:19.730434  5542 layer_factory.hpp:77] Creating layer conv1_2_postscale
I0407 23:00:19.730443  5542 net.cpp:100] Creating Layer conv1_2_postscale
I0407 23:00:19.730448  5542 net.cpp:434] conv1_2_postscale <- conv1_2
I0407 23:00:19.730453  5542 net.cpp:395] conv1_2_postscale -> conv1_2 (in-place)
I0407 23:00:19.730562  5542 net.cpp:150] Setting up conv1_2_postscale
I0407 23:00:19.730573  5542 net.cpp:157] Top shape: 64 250 6 6 (576000)
I0407 23:00:19.730576  5542 net.cpp:165] Memory required for data: 519643392
I0407 23:00:19.730581  5542 layer_factory.hpp:77] Creating layer pool1_2
I0407 23:00:19.730587  5542 net.cpp:100] Creating Layer pool1_2
I0407 23:00:19.730589  5542 net.cpp:434] pool1_2 <- conv1_2
I0407 23:00:19.730594  5542 net.cpp:408] pool1_2 -> pool1_2
I0407 23:00:19.730636  5542 net.cpp:150] Setting up pool1_2
I0407 23:00:19.730643  5542 net.cpp:157] Top shape: 64 250 3 3 (144000)
I0407 23:00:19.730646  5542 net.cpp:165] Memory required for data: 520219392
I0407 23:00:19.730650  5542 layer_factory.hpp:77] Creating layer fc1_4_300
I0407 23:00:19.730657  5542 net.cpp:100] Creating Layer fc1_4_300
I0407 23:00:19.730662  5542 net.cpp:434] fc1_4_300 <- pool1_2
I0407 23:00:19.730667  5542 net.cpp:408] fc1_4_300 -> fc1_4
I0407 23:00:19.736522  5542 net.cpp:150] Setting up fc1_4_300
I0407 23:00:19.736538  5542 net.cpp:157] Top shape: 64 300 (19200)
I0407 23:00:19.736542  5542 net.cpp:165] Memory required for data: 520296192
I0407 23:00:19.736549  5542 layer_factory.hpp:77] Creating layer fc1_4_prescale
I0407 23:00:19.736562  5542 net.cpp:100] Creating Layer fc1_4_prescale
I0407 23:00:19.736565  5542 net.cpp:434] fc1_4_prescale <- fc1_4
I0407 23:00:19.736570  5542 net.cpp:395] fc1_4_prescale -> fc1_4 (in-place)
I0407 23:00:19.736665  5542 net.cpp:150] Setting up fc1_4_prescale
I0407 23:00:19.736672  5542 net.cpp:157] Top shape: 64 300 (19200)
I0407 23:00:19.736675  5542 net.cpp:165] Memory required for data: 520372992
I0407 23:00:19.736685  5542 layer_factory.hpp:77] Creating layer fc1_4_sTanH
I0407 23:00:19.736692  5542 net.cpp:100] Creating Layer fc1_4_sTanH
I0407 23:00:19.736696  5542 net.cpp:434] fc1_4_sTanH <- fc1_4
I0407 23:00:19.736701  5542 net.cpp:395] fc1_4_sTanH -> fc1_4 (in-place)
I0407 23:00:19.736893  5542 net.cpp:150] Setting up fc1_4_sTanH
I0407 23:00:19.736904  5542 net.cpp:157] Top shape: 64 300 (19200)
I0407 23:00:19.736907  5542 net.cpp:165] Memory required for data: 520449792
I0407 23:00:19.736910  5542 layer_factory.hpp:77] Creating layer fc1_4_postscale
I0407 23:00:19.736917  5542 net.cpp:100] Creating Layer fc1_4_postscale
I0407 23:00:19.736922  5542 net.cpp:434] fc1_4_postscale <- fc1_4
I0407 23:00:19.736928  5542 net.cpp:395] fc1_4_postscale -> fc1_4 (in-place)
I0407 23:00:19.737036  5542 net.cpp:150] Setting up fc1_4_postscale
I0407 23:00:19.737057  5542 net.cpp:157] Top shape: 64 300 (19200)
I0407 23:00:19.737061  5542 net.cpp:165] Memory required for data: 520526592
I0407 23:00:19.737066  5542 layer_factory.hpp:77] Creating layer drop1_4
I0407 23:00:19.737072  5542 net.cpp:100] Creating Layer drop1_4
I0407 23:00:19.737076  5542 net.cpp:434] drop1_4 <- fc1_4
I0407 23:00:19.737082  5542 net.cpp:395] drop1_4 -> fc1_4 (in-place)
I0407 23:00:19.737108  5542 net.cpp:150] Setting up drop1_4
I0407 23:00:19.737116  5542 net.cpp:157] Top shape: 64 300 (19200)
I0407 23:00:19.737119  5542 net.cpp:165] Memory required for data: 520603392
I0407 23:00:19.737123  5542 layer_factory.hpp:77] Creating layer fc1_5_67
I0407 23:00:19.737128  5542 net.cpp:100] Creating Layer fc1_5_67
I0407 23:00:19.737133  5542 net.cpp:434] fc1_5_67 <- fc1_4
I0407 23:00:19.737138  5542 net.cpp:408] fc1_5_67 -> fc1_5
I0407 23:00:19.737375  5542 net.cpp:150] Setting up fc1_5_67
I0407 23:00:19.737385  5542 net.cpp:157] Top shape: 64 67 (4288)
I0407 23:00:19.737386  5542 net.cpp:165] Memory required for data: 520620544
I0407 23:00:19.737393  5542 layer_factory.hpp:77] Creating layer softmax_1
I0407 23:00:19.737401  5542 net.cpp:100] Creating Layer softmax_1
I0407 23:00:19.737403  5542 net.cpp:434] softmax_1 <- fc1_5
I0407 23:00:19.737408  5542 net.cpp:408] softmax_1 -> softmax_1
I0407 23:00:19.737656  5542 net.cpp:150] Setting up softmax_1
I0407 23:00:19.737668  5542 net.cpp:157] Top shape: 64 67 (4288)
I0407 23:00:19.737670  5542 net.cpp:165] Memory required for data: 520637696
I0407 23:00:19.737673  5542 layer_factory.hpp:77] Creating layer conv2_0
I0407 23:00:19.737684  5542 net.cpp:100] Creating Layer conv2_0
I0407 23:00:19.737687  5542 net.cpp:434] conv2_0 <- data_0_data_0_0_split_2
I0407 23:00:19.737694  5542 net.cpp:408] conv2_0 -> conv2_0
I0407 23:00:19.739447  5542 net.cpp:150] Setting up conv2_0
I0407 23:00:19.739465  5542 net.cpp:157] Top shape: 64 100 42 42 (11289600)
I0407 23:00:19.739470  5542 net.cpp:165] Memory required for data: 565796096
I0407 23:00:19.739476  5542 layer_factory.hpp:77] Creating layer conv2_0_prescale
I0407 23:00:19.739485  5542 net.cpp:100] Creating Layer conv2_0_prescale
I0407 23:00:19.739488  5542 net.cpp:434] conv2_0_prescale <- conv2_0
I0407 23:00:19.739495  5542 net.cpp:395] conv2_0_prescale -> conv2_0 (in-place)
I0407 23:00:19.739603  5542 net.cpp:150] Setting up conv2_0_prescale
I0407 23:00:19.739612  5542 net.cpp:157] Top shape: 64 100 42 42 (11289600)
I0407 23:00:19.739615  5542 net.cpp:165] Memory required for data: 610954496
I0407 23:00:19.739620  5542 layer_factory.hpp:77] Creating layer conv2_0_sTanH
I0407 23:00:19.739626  5542 net.cpp:100] Creating Layer conv2_0_sTanH
I0407 23:00:19.739629  5542 net.cpp:434] conv2_0_sTanH <- conv2_0
I0407 23:00:19.739635  5542 net.cpp:395] conv2_0_sTanH -> conv2_0 (in-place)
I0407 23:00:19.739831  5542 net.cpp:150] Setting up conv2_0_sTanH
I0407 23:00:19.739843  5542 net.cpp:157] Top shape: 64 100 42 42 (11289600)
I0407 23:00:19.739846  5542 net.cpp:165] Memory required for data: 656112896
I0407 23:00:19.739850  5542 layer_factory.hpp:77] Creating layer conv2_0_postscale
I0407 23:00:19.739858  5542 net.cpp:100] Creating Layer conv2_0_postscale
I0407 23:00:19.739861  5542 net.cpp:434] conv2_0_postscale <- conv2_0
I0407 23:00:19.739868  5542 net.cpp:395] conv2_0_postscale -> conv2_0 (in-place)
I0407 23:00:19.740002  5542 net.cpp:150] Setting up conv2_0_postscale
I0407 23:00:19.740015  5542 net.cpp:157] Top shape: 64 100 42 42 (11289600)
I0407 23:00:19.740017  5542 net.cpp:165] Memory required for data: 701271296
I0407 23:00:19.740022  5542 layer_factory.hpp:77] Creating layer pool2_0
I0407 23:00:19.740028  5542 net.cpp:100] Creating Layer pool2_0
I0407 23:00:19.740032  5542 net.cpp:434] pool2_0 <- conv2_0
I0407 23:00:19.740037  5542 net.cpp:408] pool2_0 -> pool2_0
I0407 23:00:19.740082  5542 net.cpp:150] Setting up pool2_0
I0407 23:00:19.740088  5542 net.cpp:157] Top shape: 64 100 21 21 (2822400)
I0407 23:00:19.740092  5542 net.cpp:165] Memory required for data: 712560896
I0407 23:00:19.740094  5542 layer_factory.hpp:77] Creating layer conv2_1
I0407 23:00:19.740116  5542 net.cpp:100] Creating Layer conv2_1
I0407 23:00:19.740123  5542 net.cpp:434] conv2_1 <- pool2_0
I0407 23:00:19.740129  5542 net.cpp:408] conv2_1 -> conv2_1
I0407 23:00:19.751832  5542 net.cpp:150] Setting up conv2_1
I0407 23:00:19.751852  5542 net.cpp:157] Top shape: 64 150 18 18 (3110400)
I0407 23:00:19.751855  5542 net.cpp:165] Memory required for data: 725002496
I0407 23:00:19.751863  5542 layer_factory.hpp:77] Creating layer conv2_1_prescale
I0407 23:00:19.751870  5542 net.cpp:100] Creating Layer conv2_1_prescale
I0407 23:00:19.751874  5542 net.cpp:434] conv2_1_prescale <- conv2_1
I0407 23:00:19.751895  5542 net.cpp:395] conv2_1_prescale -> conv2_1 (in-place)
I0407 23:00:19.752007  5542 net.cpp:150] Setting up conv2_1_prescale
I0407 23:00:19.752017  5542 net.cpp:157] Top shape: 64 150 18 18 (3110400)
I0407 23:00:19.752020  5542 net.cpp:165] Memory required for data: 737444096
I0407 23:00:19.752024  5542 layer_factory.hpp:77] Creating layer conv2_1_sTanH
I0407 23:00:19.752030  5542 net.cpp:100] Creating Layer conv2_1_sTanH
I0407 23:00:19.752033  5542 net.cpp:434] conv2_1_sTanH <- conv2_1
I0407 23:00:19.752040  5542 net.cpp:395] conv2_1_sTanH -> conv2_1 (in-place)
I0407 23:00:19.758497  5542 net.cpp:150] Setting up conv2_1_sTanH
I0407 23:00:19.758517  5542 net.cpp:157] Top shape: 64 150 18 18 (3110400)
I0407 23:00:19.758522  5542 net.cpp:165] Memory required for data: 749885696
I0407 23:00:19.758525  5542 layer_factory.hpp:77] Creating layer conv2_1_postscale
I0407 23:00:19.758534  5542 net.cpp:100] Creating Layer conv2_1_postscale
I0407 23:00:19.758539  5542 net.cpp:434] conv2_1_postscale <- conv2_1
I0407 23:00:19.758544  5542 net.cpp:395] conv2_1_postscale -> conv2_1 (in-place)
I0407 23:00:19.758663  5542 net.cpp:150] Setting up conv2_1_postscale
I0407 23:00:19.758674  5542 net.cpp:157] Top shape: 64 150 18 18 (3110400)
I0407 23:00:19.758677  5542 net.cpp:165] Memory required for data: 762327296
I0407 23:00:19.758682  5542 layer_factory.hpp:77] Creating layer pool2_1
I0407 23:00:19.758692  5542 net.cpp:100] Creating Layer pool2_1
I0407 23:00:19.758697  5542 net.cpp:434] pool2_1 <- conv2_1
I0407 23:00:19.758702  5542 net.cpp:408] pool2_1 -> pool2_1
I0407 23:00:19.758749  5542 net.cpp:150] Setting up pool2_1
I0407 23:00:19.758756  5542 net.cpp:157] Top shape: 64 150 9 9 (777600)
I0407 23:00:19.758759  5542 net.cpp:165] Memory required for data: 765437696
I0407 23:00:19.758762  5542 layer_factory.hpp:77] Creating layer conv2_2
I0407 23:00:19.758771  5542 net.cpp:100] Creating Layer conv2_2
I0407 23:00:19.758776  5542 net.cpp:434] conv2_2 <- pool2_1
I0407 23:00:19.758783  5542 net.cpp:408] conv2_2 -> conv2_2
I0407 23:00:19.764590  5542 net.cpp:150] Setting up conv2_2
I0407 23:00:19.764608  5542 net.cpp:157] Top shape: 64 250 6 6 (576000)
I0407 23:00:19.764612  5542 net.cpp:165] Memory required for data: 767741696
I0407 23:00:19.764619  5542 layer_factory.hpp:77] Creating layer conv2_2_prescale
I0407 23:00:19.764628  5542 net.cpp:100] Creating Layer conv2_2_prescale
I0407 23:00:19.764632  5542 net.cpp:434] conv2_2_prescale <- conv2_2
I0407 23:00:19.764639  5542 net.cpp:395] conv2_2_prescale -> conv2_2 (in-place)
I0407 23:00:19.764744  5542 net.cpp:150] Setting up conv2_2_prescale
I0407 23:00:19.764755  5542 net.cpp:157] Top shape: 64 250 6 6 (576000)
I0407 23:00:19.764757  5542 net.cpp:165] Memory required for data: 770045696
I0407 23:00:19.764762  5542 layer_factory.hpp:77] Creating layer conv2_2_sTanH
I0407 23:00:19.764770  5542 net.cpp:100] Creating Layer conv2_2_sTanH
I0407 23:00:19.764772  5542 net.cpp:434] conv2_2_sTanH <- conv2_2
I0407 23:00:19.764777  5542 net.cpp:395] conv2_2_sTanH -> conv2_2 (in-place)
I0407 23:00:19.765563  5542 net.cpp:150] Setting up conv2_2_sTanH
I0407 23:00:19.765579  5542 net.cpp:157] Top shape: 64 250 6 6 (576000)
I0407 23:00:19.765583  5542 net.cpp:165] Memory required for data: 772349696
I0407 23:00:19.765588  5542 layer_factory.hpp:77] Creating layer conv2_2_postscale
I0407 23:00:19.765594  5542 net.cpp:100] Creating Layer conv2_2_postscale
I0407 23:00:19.765612  5542 net.cpp:434] conv2_2_postscale <- conv2_2
I0407 23:00:19.765621  5542 net.cpp:395] conv2_2_postscale -> conv2_2 (in-place)
I0407 23:00:19.765733  5542 net.cpp:150] Setting up conv2_2_postscale
I0407 23:00:19.765743  5542 net.cpp:157] Top shape: 64 250 6 6 (576000)
I0407 23:00:19.765746  5542 net.cpp:165] Memory required for data: 774653696
I0407 23:00:19.765751  5542 layer_factory.hpp:77] Creating layer pool2_2
I0407 23:00:19.765758  5542 net.cpp:100] Creating Layer pool2_2
I0407 23:00:19.765763  5542 net.cpp:434] pool2_2 <- conv2_2
I0407 23:00:19.765769  5542 net.cpp:408] pool2_2 -> pool2_2
I0407 23:00:19.765811  5542 net.cpp:150] Setting up pool2_2
I0407 23:00:19.765820  5542 net.cpp:157] Top shape: 64 250 3 3 (144000)
I0407 23:00:19.765822  5542 net.cpp:165] Memory required for data: 775229696
I0407 23:00:19.765825  5542 layer_factory.hpp:77] Creating layer fc2_4_300
I0407 23:00:19.765832  5542 net.cpp:100] Creating Layer fc2_4_300
I0407 23:00:19.765841  5542 net.cpp:434] fc2_4_300 <- pool2_2
I0407 23:00:19.765846  5542 net.cpp:408] fc2_4_300 -> fc2_4
I0407 23:00:19.771257  5542 net.cpp:150] Setting up fc2_4_300
I0407 23:00:19.771275  5542 net.cpp:157] Top shape: 64 300 (19200)
I0407 23:00:19.771278  5542 net.cpp:165] Memory required for data: 775306496
I0407 23:00:19.771286  5542 layer_factory.hpp:77] Creating layer fc2_4_prescale
I0407 23:00:19.771294  5542 net.cpp:100] Creating Layer fc2_4_prescale
I0407 23:00:19.771298  5542 net.cpp:434] fc2_4_prescale <- fc2_4
I0407 23:00:19.771306  5542 net.cpp:395] fc2_4_prescale -> fc2_4 (in-place)
I0407 23:00:19.771405  5542 net.cpp:150] Setting up fc2_4_prescale
I0407 23:00:19.771414  5542 net.cpp:157] Top shape: 64 300 (19200)
I0407 23:00:19.771416  5542 net.cpp:165] Memory required for data: 775383296
I0407 23:00:19.771420  5542 layer_factory.hpp:77] Creating layer fc2_4_sTanH
I0407 23:00:19.771427  5542 net.cpp:100] Creating Layer fc2_4_sTanH
I0407 23:00:19.771432  5542 net.cpp:434] fc2_4_sTanH <- fc2_4
I0407 23:00:19.771436  5542 net.cpp:395] fc2_4_sTanH -> fc2_4 (in-place)
I0407 23:00:19.771633  5542 net.cpp:150] Setting up fc2_4_sTanH
I0407 23:00:19.771644  5542 net.cpp:157] Top shape: 64 300 (19200)
I0407 23:00:19.771647  5542 net.cpp:165] Memory required for data: 775460096
I0407 23:00:19.771651  5542 layer_factory.hpp:77] Creating layer fc2_4_postscale
I0407 23:00:19.771669  5542 net.cpp:100] Creating Layer fc2_4_postscale
I0407 23:00:19.771675  5542 net.cpp:434] fc2_4_postscale <- fc2_4
I0407 23:00:19.771680  5542 net.cpp:395] fc2_4_postscale -> fc2_4 (in-place)
I0407 23:00:19.771791  5542 net.cpp:150] Setting up fc2_4_postscale
I0407 23:00:19.771800  5542 net.cpp:157] Top shape: 64 300 (19200)
I0407 23:00:19.771802  5542 net.cpp:165] Memory required for data: 775536896
I0407 23:00:19.771808  5542 layer_factory.hpp:77] Creating layer drop2_4
I0407 23:00:19.771816  5542 net.cpp:100] Creating Layer drop2_4
I0407 23:00:19.771819  5542 net.cpp:434] drop2_4 <- fc2_4
I0407 23:00:19.771824  5542 net.cpp:395] drop2_4 -> fc2_4 (in-place)
I0407 23:00:19.771850  5542 net.cpp:150] Setting up drop2_4
I0407 23:00:19.771857  5542 net.cpp:157] Top shape: 64 300 (19200)
I0407 23:00:19.771859  5542 net.cpp:165] Memory required for data: 775613696
I0407 23:00:19.771863  5542 layer_factory.hpp:77] Creating layer fc2_5_67
I0407 23:00:19.771870  5542 net.cpp:100] Creating Layer fc2_5_67
I0407 23:00:19.771875  5542 net.cpp:434] fc2_5_67 <- fc2_4
I0407 23:00:19.771886  5542 net.cpp:408] fc2_5_67 -> fc2_5
I0407 23:00:19.772132  5542 net.cpp:150] Setting up fc2_5_67
I0407 23:00:19.772141  5542 net.cpp:157] Top shape: 64 67 (4288)
I0407 23:00:19.772145  5542 net.cpp:165] Memory required for data: 775630848
I0407 23:00:19.772150  5542 layer_factory.hpp:77] Creating layer softmax_2
I0407 23:00:19.772156  5542 net.cpp:100] Creating Layer softmax_2
I0407 23:00:19.772161  5542 net.cpp:434] softmax_2 <- fc2_5
I0407 23:00:19.772167  5542 net.cpp:408] softmax_2 -> softmax_2
I0407 23:00:19.772425  5542 net.cpp:150] Setting up softmax_2
I0407 23:00:19.772449  5542 net.cpp:157] Top shape: 64 67 (4288)
I0407 23:00:19.772452  5542 net.cpp:165] Memory required for data: 775648000
I0407 23:00:19.772456  5542 layer_factory.hpp:77] Creating layer conv3_0
I0407 23:00:19.772467  5542 net.cpp:100] Creating Layer conv3_0
I0407 23:00:19.772471  5542 net.cpp:434] conv3_0 <- data_0_data_0_0_split_3
I0407 23:00:19.772477  5542 net.cpp:408] conv3_0 -> conv3_0
I0407 23:00:19.774040  5542 net.cpp:150] Setting up conv3_0
I0407 23:00:19.774057  5542 net.cpp:157] Top shape: 64 100 42 42 (11289600)
I0407 23:00:19.774061  5542 net.cpp:165] Memory required for data: 820806400
I0407 23:00:19.774067  5542 layer_factory.hpp:77] Creating layer conv3_0_prescale
I0407 23:00:19.774077  5542 net.cpp:100] Creating Layer conv3_0_prescale
I0407 23:00:19.774081  5542 net.cpp:434] conv3_0_prescale <- conv3_0
I0407 23:00:19.774086  5542 net.cpp:395] conv3_0_prescale -> conv3_0 (in-place)
I0407 23:00:19.774200  5542 net.cpp:150] Setting up conv3_0_prescale
I0407 23:00:19.774209  5542 net.cpp:157] Top shape: 64 100 42 42 (11289600)
I0407 23:00:19.774212  5542 net.cpp:165] Memory required for data: 865964800
I0407 23:00:19.774217  5542 layer_factory.hpp:77] Creating layer conv3_0_sTanH
I0407 23:00:19.774224  5542 net.cpp:100] Creating Layer conv3_0_sTanH
I0407 23:00:19.774229  5542 net.cpp:434] conv3_0_sTanH <- conv3_0
I0407 23:00:19.774232  5542 net.cpp:395] conv3_0_sTanH -> conv3_0 (in-place)
I0407 23:00:19.774427  5542 net.cpp:150] Setting up conv3_0_sTanH
I0407 23:00:19.774441  5542 net.cpp:157] Top shape: 64 100 42 42 (11289600)
I0407 23:00:19.774443  5542 net.cpp:165] Memory required for data: 911123200
I0407 23:00:19.774447  5542 layer_factory.hpp:77] Creating layer conv3_0_postscale
I0407 23:00:19.774453  5542 net.cpp:100] Creating Layer conv3_0_postscale
I0407 23:00:19.774461  5542 net.cpp:434] conv3_0_postscale <- conv3_0
I0407 23:00:19.774467  5542 net.cpp:395] conv3_0_postscale -> conv3_0 (in-place)
I0407 23:00:19.774580  5542 net.cpp:150] Setting up conv3_0_postscale
I0407 23:00:19.774588  5542 net.cpp:157] Top shape: 64 100 42 42 (11289600)
I0407 23:00:19.774590  5542 net.cpp:165] Memory required for data: 956281600
I0407 23:00:19.774595  5542 layer_factory.hpp:77] Creating layer pool3_0
I0407 23:00:19.774601  5542 net.cpp:100] Creating Layer pool3_0
I0407 23:00:19.774611  5542 net.cpp:434] pool3_0 <- conv3_0
I0407 23:00:19.774616  5542 net.cpp:408] pool3_0 -> pool3_0
I0407 23:00:19.774662  5542 net.cpp:150] Setting up pool3_0
I0407 23:00:19.774669  5542 net.cpp:157] Top shape: 64 100 21 21 (2822400)
I0407 23:00:19.774672  5542 net.cpp:165] Memory required for data: 967571200
I0407 23:00:19.774675  5542 layer_factory.hpp:77] Creating layer conv3_1
I0407 23:00:19.774684  5542 net.cpp:100] Creating Layer conv3_1
I0407 23:00:19.774689  5542 net.cpp:434] conv3_1 <- pool3_0
I0407 23:00:19.774694  5542 net.cpp:408] conv3_1 -> conv3_1
I0407 23:00:19.777609  5542 net.cpp:150] Setting up conv3_1
I0407 23:00:19.777626  5542 net.cpp:157] Top shape: 64 150 18 18 (3110400)
I0407 23:00:19.777631  5542 net.cpp:165] Memory required for data: 980012800
I0407 23:00:19.777637  5542 layer_factory.hpp:77] Creating layer conv3_1_prescale
I0407 23:00:19.777647  5542 net.cpp:100] Creating Layer conv3_1_prescale
I0407 23:00:19.777652  5542 net.cpp:434] conv3_1_prescale <- conv3_1
I0407 23:00:19.777657  5542 net.cpp:395] conv3_1_prescale -> conv3_1 (in-place)
I0407 23:00:19.777766  5542 net.cpp:150] Setting up conv3_1_prescale
I0407 23:00:19.777776  5542 net.cpp:157] Top shape: 64 150 18 18 (3110400)
I0407 23:00:19.777778  5542 net.cpp:165] Memory required for data: 992454400
I0407 23:00:19.777783  5542 layer_factory.hpp:77] Creating layer conv3_1_sTanH
I0407 23:00:19.777788  5542 net.cpp:100] Creating Layer conv3_1_sTanH
I0407 23:00:19.777791  5542 net.cpp:434] conv3_1_sTanH <- conv3_1
I0407 23:00:19.777797  5542 net.cpp:395] conv3_1_sTanH -> conv3_1 (in-place)
I0407 23:00:19.778583  5542 net.cpp:150] Setting up conv3_1_sTanH
I0407 23:00:19.778599  5542 net.cpp:157] Top shape: 64 150 18 18 (3110400)
I0407 23:00:19.778604  5542 net.cpp:165] Memory required for data: 1004896000
I0407 23:00:19.778620  5542 layer_factory.hpp:77] Creating layer conv3_1_postscale
I0407 23:00:19.778627  5542 net.cpp:100] Creating Layer conv3_1_postscale
I0407 23:00:19.778631  5542 net.cpp:434] conv3_1_postscale <- conv3_1
I0407 23:00:19.778638  5542 net.cpp:395] conv3_1_postscale -> conv3_1 (in-place)
I0407 23:00:19.778756  5542 net.cpp:150] Setting up conv3_1_postscale
I0407 23:00:19.778766  5542 net.cpp:157] Top shape: 64 150 18 18 (3110400)
I0407 23:00:19.778769  5542 net.cpp:165] Memory required for data: 1017337600
I0407 23:00:19.778774  5542 layer_factory.hpp:77] Creating layer pool3_1
I0407 23:00:19.778780  5542 net.cpp:100] Creating Layer pool3_1
I0407 23:00:19.778784  5542 net.cpp:434] pool3_1 <- conv3_1
I0407 23:00:19.778789  5542 net.cpp:408] pool3_1 -> pool3_1
I0407 23:00:19.778834  5542 net.cpp:150] Setting up pool3_1
I0407 23:00:19.778842  5542 net.cpp:157] Top shape: 64 150 9 9 (777600)
I0407 23:00:19.778846  5542 net.cpp:165] Memory required for data: 1020448000
I0407 23:00:19.778848  5542 layer_factory.hpp:77] Creating layer conv3_2
I0407 23:00:19.778857  5542 net.cpp:100] Creating Layer conv3_2
I0407 23:00:19.778862  5542 net.cpp:434] conv3_2 <- pool3_1
I0407 23:00:19.778868  5542 net.cpp:408] conv3_2 -> conv3_2
I0407 23:00:19.785118  5542 net.cpp:150] Setting up conv3_2
I0407 23:00:19.785137  5542 net.cpp:157] Top shape: 64 250 6 6 (576000)
I0407 23:00:19.785141  5542 net.cpp:165] Memory required for data: 1022752000
I0407 23:00:19.785148  5542 layer_factory.hpp:77] Creating layer conv3_2_prescale
I0407 23:00:19.785156  5542 net.cpp:100] Creating Layer conv3_2_prescale
I0407 23:00:19.785161  5542 net.cpp:434] conv3_2_prescale <- conv3_2
I0407 23:00:19.785167  5542 net.cpp:395] conv3_2_prescale -> conv3_2 (in-place)
I0407 23:00:19.785281  5542 net.cpp:150] Setting up conv3_2_prescale
I0407 23:00:19.785291  5542 net.cpp:157] Top shape: 64 250 6 6 (576000)
I0407 23:00:19.785295  5542 net.cpp:165] Memory required for data: 1025056000
I0407 23:00:19.785310  5542 layer_factory.hpp:77] Creating layer conv3_2_sTanH
I0407 23:00:19.785317  5542 net.cpp:100] Creating Layer conv3_2_sTanH
I0407 23:00:19.785321  5542 net.cpp:434] conv3_2_sTanH <- conv3_2
I0407 23:00:19.785326  5542 net.cpp:395] conv3_2_sTanH -> conv3_2 (in-place)
I0407 23:00:19.785521  5542 net.cpp:150] Setting up conv3_2_sTanH
I0407 23:00:19.785533  5542 net.cpp:157] Top shape: 64 250 6 6 (576000)
I0407 23:00:19.785537  5542 net.cpp:165] Memory required for data: 1027360000
I0407 23:00:19.785540  5542 layer_factory.hpp:77] Creating layer conv3_2_postscale
I0407 23:00:19.785548  5542 net.cpp:100] Creating Layer conv3_2_postscale
I0407 23:00:19.785553  5542 net.cpp:434] conv3_2_postscale <- conv3_2
I0407 23:00:19.785559  5542 net.cpp:395] conv3_2_postscale -> conv3_2 (in-place)
I0407 23:00:19.785666  5542 net.cpp:150] Setting up conv3_2_postscale
I0407 23:00:19.785676  5542 net.cpp:157] Top shape: 64 250 6 6 (576000)
I0407 23:00:19.785677  5542 net.cpp:165] Memory required for data: 1029664000
I0407 23:00:19.785682  5542 layer_factory.hpp:77] Creating layer pool3_2
I0407 23:00:19.785689  5542 net.cpp:100] Creating Layer pool3_2
I0407 23:00:19.785694  5542 net.cpp:434] pool3_2 <- conv3_2
I0407 23:00:19.785701  5542 net.cpp:408] pool3_2 -> pool3_2
I0407 23:00:19.785742  5542 net.cpp:150] Setting up pool3_2
I0407 23:00:19.785749  5542 net.cpp:157] Top shape: 64 250 3 3 (144000)
I0407 23:00:19.785753  5542 net.cpp:165] Memory required for data: 1030240000
I0407 23:00:19.785755  5542 layer_factory.hpp:77] Creating layer fc3_4_300
I0407 23:00:19.785763  5542 net.cpp:100] Creating Layer fc3_4_300
I0407 23:00:19.785766  5542 net.cpp:434] fc3_4_300 <- pool3_2
I0407 23:00:19.785773  5542 net.cpp:408] fc3_4_300 -> fc3_4
I0407 23:00:19.791098  5542 net.cpp:150] Setting up fc3_4_300
I0407 23:00:19.791113  5542 net.cpp:157] Top shape: 64 300 (19200)
I0407 23:00:19.791117  5542 net.cpp:165] Memory required for data: 1030316800
I0407 23:00:19.791123  5542 layer_factory.hpp:77] Creating layer fc3_4_prescale
I0407 23:00:19.791148  5542 net.cpp:100] Creating Layer fc3_4_prescale
I0407 23:00:19.791165  5542 net.cpp:434] fc3_4_prescale <- fc3_4
I0407 23:00:19.791172  5542 net.cpp:395] fc3_4_prescale -> fc3_4 (in-place)
I0407 23:00:19.791275  5542 net.cpp:150] Setting up fc3_4_prescale
I0407 23:00:19.791285  5542 net.cpp:157] Top shape: 64 300 (19200)
I0407 23:00:19.791287  5542 net.cpp:165] Memory required for data: 1030393600
I0407 23:00:19.791291  5542 layer_factory.hpp:77] Creating layer fc3_4_sTanH
I0407 23:00:19.791297  5542 net.cpp:100] Creating Layer fc3_4_sTanH
I0407 23:00:19.791301  5542 net.cpp:434] fc3_4_sTanH <- fc3_4
I0407 23:00:19.791304  5542 net.cpp:395] fc3_4_sTanH -> fc3_4 (in-place)
I0407 23:00:19.791507  5542 net.cpp:150] Setting up fc3_4_sTanH
I0407 23:00:19.791519  5542 net.cpp:157] Top shape: 64 300 (19200)
I0407 23:00:19.791524  5542 net.cpp:165] Memory required for data: 1030470400
I0407 23:00:19.791528  5542 layer_factory.hpp:77] Creating layer fc3_4_postscale
I0407 23:00:19.791534  5542 net.cpp:100] Creating Layer fc3_4_postscale
I0407 23:00:19.791539  5542 net.cpp:434] fc3_4_postscale <- fc3_4
I0407 23:00:19.791548  5542 net.cpp:395] fc3_4_postscale -> fc3_4 (in-place)
I0407 23:00:19.791661  5542 net.cpp:150] Setting up fc3_4_postscale
I0407 23:00:19.791669  5542 net.cpp:157] Top shape: 64 300 (19200)
I0407 23:00:19.791672  5542 net.cpp:165] Memory required for data: 1030547200
I0407 23:00:19.791677  5542 layer_factory.hpp:77] Creating layer drop3_4
I0407 23:00:19.791682  5542 net.cpp:100] Creating Layer drop3_4
I0407 23:00:19.791687  5542 net.cpp:434] drop3_4 <- fc3_4
I0407 23:00:19.791692  5542 net.cpp:395] drop3_4 -> fc3_4 (in-place)
I0407 23:00:19.791716  5542 net.cpp:150] Setting up drop3_4
I0407 23:00:19.791723  5542 net.cpp:157] Top shape: 64 300 (19200)
I0407 23:00:19.791726  5542 net.cpp:165] Memory required for data: 1030624000
I0407 23:00:19.791729  5542 layer_factory.hpp:77] Creating layer fc3_5_67
I0407 23:00:19.791738  5542 net.cpp:100] Creating Layer fc3_5_67
I0407 23:00:19.791741  5542 net.cpp:434] fc3_5_67 <- fc3_4
I0407 23:00:19.791746  5542 net.cpp:408] fc3_5_67 -> fc3_5
I0407 23:00:19.792001  5542 net.cpp:150] Setting up fc3_5_67
I0407 23:00:19.792011  5542 net.cpp:157] Top shape: 64 67 (4288)
I0407 23:00:19.792012  5542 net.cpp:165] Memory required for data: 1030641152
I0407 23:00:19.792018  5542 layer_factory.hpp:77] Creating layer softmax_3
I0407 23:00:19.792026  5542 net.cpp:100] Creating Layer softmax_3
I0407 23:00:19.792028  5542 net.cpp:434] softmax_3 <- fc3_5
I0407 23:00:19.792033  5542 net.cpp:408] softmax_3 -> softmax_3
I0407 23:00:19.792897  5542 net.cpp:150] Setting up softmax_3
I0407 23:00:19.792912  5542 net.cpp:157] Top shape: 64 67 (4288)
I0407 23:00:19.792928  5542 net.cpp:165] Memory required for data: 1030658304
I0407 23:00:19.792932  5542 layer_factory.hpp:77] Creating layer conv4_0
I0407 23:00:19.792943  5542 net.cpp:100] Creating Layer conv4_0
I0407 23:00:19.792946  5542 net.cpp:434] conv4_0 <- data_0_data_0_0_split_4
I0407 23:00:19.792959  5542 net.cpp:408] conv4_0 -> conv4_0
I0407 23:00:19.794585  5542 net.cpp:150] Setting up conv4_0
I0407 23:00:19.794602  5542 net.cpp:157] Top shape: 64 100 42 42 (11289600)
I0407 23:00:19.794606  5542 net.cpp:165] Memory required for data: 1075816704
I0407 23:00:19.794612  5542 layer_factory.hpp:77] Creating layer conv4_0_prescale
I0407 23:00:19.794620  5542 net.cpp:100] Creating Layer conv4_0_prescale
I0407 23:00:19.794625  5542 net.cpp:434] conv4_0_prescale <- conv4_0
I0407 23:00:19.794631  5542 net.cpp:395] conv4_0_prescale -> conv4_0 (in-place)
I0407 23:00:19.794746  5542 net.cpp:150] Setting up conv4_0_prescale
I0407 23:00:19.794755  5542 net.cpp:157] Top shape: 64 100 42 42 (11289600)
I0407 23:00:19.794759  5542 net.cpp:165] Memory required for data: 1120975104
I0407 23:00:19.794764  5542 layer_factory.hpp:77] Creating layer conv4_0_sTanH
I0407 23:00:19.794769  5542 net.cpp:100] Creating Layer conv4_0_sTanH
I0407 23:00:19.794771  5542 net.cpp:434] conv4_0_sTanH <- conv4_0
I0407 23:00:19.794777  5542 net.cpp:395] conv4_0_sTanH -> conv4_0 (in-place)
I0407 23:00:19.794991  5542 net.cpp:150] Setting up conv4_0_sTanH
I0407 23:00:19.795003  5542 net.cpp:157] Top shape: 64 100 42 42 (11289600)
I0407 23:00:19.795006  5542 net.cpp:165] Memory required for data: 1166133504
I0407 23:00:19.795011  5542 layer_factory.hpp:77] Creating layer conv4_0_postscale
I0407 23:00:19.795018  5542 net.cpp:100] Creating Layer conv4_0_postscale
I0407 23:00:19.795022  5542 net.cpp:434] conv4_0_postscale <- conv4_0
I0407 23:00:19.795028  5542 net.cpp:395] conv4_0_postscale -> conv4_0 (in-place)
I0407 23:00:19.795143  5542 net.cpp:150] Setting up conv4_0_postscale
I0407 23:00:19.795151  5542 net.cpp:157] Top shape: 64 100 42 42 (11289600)
I0407 23:00:19.795155  5542 net.cpp:165] Memory required for data: 1211291904
I0407 23:00:19.795158  5542 layer_factory.hpp:77] Creating layer pool4_0
I0407 23:00:19.795166  5542 net.cpp:100] Creating Layer pool4_0
I0407 23:00:19.795169  5542 net.cpp:434] pool4_0 <- conv4_0
I0407 23:00:19.795176  5542 net.cpp:408] pool4_0 -> pool4_0
I0407 23:00:19.795220  5542 net.cpp:150] Setting up pool4_0
I0407 23:00:19.795228  5542 net.cpp:157] Top shape: 64 100 21 21 (2822400)
I0407 23:00:19.795231  5542 net.cpp:165] Memory required for data: 1222581504
I0407 23:00:19.795234  5542 layer_factory.hpp:77] Creating layer conv4_1
I0407 23:00:19.795243  5542 net.cpp:100] Creating Layer conv4_1
I0407 23:00:19.795248  5542 net.cpp:434] conv4_1 <- pool4_0
I0407 23:00:19.795258  5542 net.cpp:408] conv4_1 -> conv4_1
I0407 23:00:19.799136  5542 net.cpp:150] Setting up conv4_1
I0407 23:00:19.799155  5542 net.cpp:157] Top shape: 64 150 18 18 (3110400)
I0407 23:00:19.799160  5542 net.cpp:165] Memory required for data: 1235023104
I0407 23:00:19.799166  5542 layer_factory.hpp:77] Creating layer conv4_1_prescale
I0407 23:00:19.799175  5542 net.cpp:100] Creating Layer conv4_1_prescale
I0407 23:00:19.799178  5542 net.cpp:434] conv4_1_prescale <- conv4_1
I0407 23:00:19.799185  5542 net.cpp:395] conv4_1_prescale -> conv4_1 (in-place)
I0407 23:00:19.799305  5542 net.cpp:150] Setting up conv4_1_prescale
I0407 23:00:19.799315  5542 net.cpp:157] Top shape: 64 150 18 18 (3110400)
I0407 23:00:19.799319  5542 net.cpp:165] Memory required for data: 1247464704
I0407 23:00:19.799322  5542 layer_factory.hpp:77] Creating layer conv4_1_sTanH
I0407 23:00:19.799329  5542 net.cpp:100] Creating Layer conv4_1_sTanH
I0407 23:00:19.799331  5542 net.cpp:434] conv4_1_sTanH <- conv4_1
I0407 23:00:19.799337  5542 net.cpp:395] conv4_1_sTanH -> conv4_1 (in-place)
I0407 23:00:19.800166  5542 net.cpp:150] Setting up conv4_1_sTanH
I0407 23:00:19.800182  5542 net.cpp:157] Top shape: 64 150 18 18 (3110400)
I0407 23:00:19.800186  5542 net.cpp:165] Memory required for data: 1259906304
I0407 23:00:19.800189  5542 layer_factory.hpp:77] Creating layer conv4_1_postscale
I0407 23:00:19.800197  5542 net.cpp:100] Creating Layer conv4_1_postscale
I0407 23:00:19.800200  5542 net.cpp:434] conv4_1_postscale <- conv4_1
I0407 23:00:19.800207  5542 net.cpp:395] conv4_1_postscale -> conv4_1 (in-place)
I0407 23:00:19.800331  5542 net.cpp:150] Setting up conv4_1_postscale
I0407 23:00:19.800340  5542 net.cpp:157] Top shape: 64 150 18 18 (3110400)
I0407 23:00:19.800343  5542 net.cpp:165] Memory required for data: 1272347904
I0407 23:00:19.800349  5542 layer_factory.hpp:77] Creating layer pool4_1
I0407 23:00:19.800355  5542 net.cpp:100] Creating Layer pool4_1
I0407 23:00:19.800360  5542 net.cpp:434] pool4_1 <- conv4_1
I0407 23:00:19.800369  5542 net.cpp:408] pool4_1 -> pool4_1
I0407 23:00:19.800415  5542 net.cpp:150] Setting up pool4_1
I0407 23:00:19.800423  5542 net.cpp:157] Top shape: 64 150 9 9 (777600)
I0407 23:00:19.800426  5542 net.cpp:165] Memory required for data: 1275458304
I0407 23:00:19.800431  5542 layer_factory.hpp:77] Creating layer conv4_2
I0407 23:00:19.800443  5542 net.cpp:100] Creating Layer conv4_2
I0407 23:00:19.800447  5542 net.cpp:434] conv4_2 <- pool4_1
I0407 23:00:19.800453  5542 net.cpp:408] conv4_2 -> conv4_2
I0407 23:00:19.806563  5542 net.cpp:150] Setting up conv4_2
I0407 23:00:19.806581  5542 net.cpp:157] Top shape: 64 250 6 6 (576000)
I0407 23:00:19.806612  5542 net.cpp:165] Memory required for data: 1277762304
I0407 23:00:19.806620  5542 layer_factory.hpp:77] Creating layer conv4_2_prescale
I0407 23:00:19.806632  5542 net.cpp:100] Creating Layer conv4_2_prescale
I0407 23:00:19.806640  5542 net.cpp:434] conv4_2_prescale <- conv4_2
I0407 23:00:19.806648  5542 net.cpp:395] conv4_2_prescale -> conv4_2 (in-place)
I0407 23:00:19.806766  5542 net.cpp:150] Setting up conv4_2_prescale
I0407 23:00:19.806774  5542 net.cpp:157] Top shape: 64 250 6 6 (576000)
I0407 23:00:19.806777  5542 net.cpp:165] Memory required for data: 1280066304
I0407 23:00:19.806782  5542 layer_factory.hpp:77] Creating layer conv4_2_sTanH
I0407 23:00:19.806789  5542 net.cpp:100] Creating Layer conv4_2_sTanH
I0407 23:00:19.806792  5542 net.cpp:434] conv4_2_sTanH <- conv4_2
I0407 23:00:19.806797  5542 net.cpp:395] conv4_2_sTanH -> conv4_2 (in-place)
I0407 23:00:19.806991  5542 net.cpp:150] Setting up conv4_2_sTanH
I0407 23:00:19.807003  5542 net.cpp:157] Top shape: 64 250 6 6 (576000)
I0407 23:00:19.807006  5542 net.cpp:165] Memory required for data: 1282370304
I0407 23:00:19.807009  5542 layer_factory.hpp:77] Creating layer conv4_2_postscale
I0407 23:00:19.807016  5542 net.cpp:100] Creating Layer conv4_2_postscale
I0407 23:00:19.807019  5542 net.cpp:434] conv4_2_postscale <- conv4_2
I0407 23:00:19.807026  5542 net.cpp:395] conv4_2_postscale -> conv4_2 (in-place)
I0407 23:00:19.807142  5542 net.cpp:150] Setting up conv4_2_postscale
I0407 23:00:19.807150  5542 net.cpp:157] Top shape: 64 250 6 6 (576000)
I0407 23:00:19.807153  5542 net.cpp:165] Memory required for data: 1284674304
I0407 23:00:19.807158  5542 layer_factory.hpp:77] Creating layer pool4_2
I0407 23:00:19.807164  5542 net.cpp:100] Creating Layer pool4_2
I0407 23:00:19.807168  5542 net.cpp:434] pool4_2 <- conv4_2
I0407 23:00:19.807173  5542 net.cpp:408] pool4_2 -> pool4_2
I0407 23:00:19.807219  5542 net.cpp:150] Setting up pool4_2
I0407 23:00:19.807227  5542 net.cpp:157] Top shape: 64 250 3 3 (144000)
I0407 23:00:19.807230  5542 net.cpp:165] Memory required for data: 1285250304
I0407 23:00:19.807234  5542 layer_factory.hpp:77] Creating layer fc4_4_300
I0407 23:00:19.807240  5542 net.cpp:100] Creating Layer fc4_4_300
I0407 23:00:19.807242  5542 net.cpp:434] fc4_4_300 <- pool4_2
I0407 23:00:19.807248  5542 net.cpp:408] fc4_4_300 -> fc4_4
I0407 23:00:19.812608  5542 net.cpp:150] Setting up fc4_4_300
I0407 23:00:19.812625  5542 net.cpp:157] Top shape: 64 300 (19200)
I0407 23:00:19.812641  5542 net.cpp:165] Memory required for data: 1285327104
I0407 23:00:19.812649  5542 layer_factory.hpp:77] Creating layer fc4_4_prescale
I0407 23:00:19.812656  5542 net.cpp:100] Creating Layer fc4_4_prescale
I0407 23:00:19.812660  5542 net.cpp:434] fc4_4_prescale <- fc4_4
I0407 23:00:19.812666  5542 net.cpp:395] fc4_4_prescale -> fc4_4 (in-place)
I0407 23:00:19.812773  5542 net.cpp:150] Setting up fc4_4_prescale
I0407 23:00:19.812783  5542 net.cpp:157] Top shape: 64 300 (19200)
I0407 23:00:19.812785  5542 net.cpp:165] Memory required for data: 1285403904
I0407 23:00:19.812789  5542 layer_factory.hpp:77] Creating layer fc4_4_sTanH
I0407 23:00:19.812795  5542 net.cpp:100] Creating Layer fc4_4_sTanH
I0407 23:00:19.812798  5542 net.cpp:434] fc4_4_sTanH <- fc4_4
I0407 23:00:19.812803  5542 net.cpp:395] fc4_4_sTanH -> fc4_4 (in-place)
I0407 23:00:19.813006  5542 net.cpp:150] Setting up fc4_4_sTanH
I0407 23:00:19.813017  5542 net.cpp:157] Top shape: 64 300 (19200)
I0407 23:00:19.813024  5542 net.cpp:165] Memory required for data: 1285480704
I0407 23:00:19.813027  5542 layer_factory.hpp:77] Creating layer fc4_4_postscale
I0407 23:00:19.813035  5542 net.cpp:100] Creating Layer fc4_4_postscale
I0407 23:00:19.813037  5542 net.cpp:434] fc4_4_postscale <- fc4_4
I0407 23:00:19.813047  5542 net.cpp:395] fc4_4_postscale -> fc4_4 (in-place)
I0407 23:00:19.813166  5542 net.cpp:150] Setting up fc4_4_postscale
I0407 23:00:19.813175  5542 net.cpp:157] Top shape: 64 300 (19200)
I0407 23:00:19.813179  5542 net.cpp:165] Memory required for data: 1285557504
I0407 23:00:19.813196  5542 layer_factory.hpp:77] Creating layer drop4_4
I0407 23:00:19.813202  5542 net.cpp:100] Creating Layer drop4_4
I0407 23:00:19.813207  5542 net.cpp:434] drop4_4 <- fc4_4
I0407 23:00:19.813213  5542 net.cpp:395] drop4_4 -> fc4_4 (in-place)
I0407 23:00:19.813244  5542 net.cpp:150] Setting up drop4_4
I0407 23:00:19.813251  5542 net.cpp:157] Top shape: 64 300 (19200)
I0407 23:00:19.813253  5542 net.cpp:165] Memory required for data: 1285634304
I0407 23:00:19.813256  5542 layer_factory.hpp:77] Creating layer fc4_5_67
I0407 23:00:19.813262  5542 net.cpp:100] Creating Layer fc4_5_67
I0407 23:00:19.813266  5542 net.cpp:434] fc4_5_67 <- fc4_4
I0407 23:00:19.813271  5542 net.cpp:408] fc4_5_67 -> fc4_5
I0407 23:00:19.813525  5542 net.cpp:150] Setting up fc4_5_67
I0407 23:00:19.813534  5542 net.cpp:157] Top shape: 64 67 (4288)
I0407 23:00:19.813536  5542 net.cpp:165] Memory required for data: 1285651456
I0407 23:00:19.813542  5542 layer_factory.hpp:77] Creating layer softmax_4
I0407 23:00:19.813549  5542 net.cpp:100] Creating Layer softmax_4
I0407 23:00:19.813552  5542 net.cpp:434] softmax_4 <- fc4_5
I0407 23:00:19.813557  5542 net.cpp:408] softmax_4 -> softmax_4
I0407 23:00:19.813817  5542 net.cpp:150] Setting up softmax_4
I0407 23:00:19.813829  5542 net.cpp:157] Top shape: 64 67 (4288)
I0407 23:00:19.813832  5542 net.cpp:165] Memory required for data: 1285668608
I0407 23:00:19.813835  5542 layer_factory.hpp:77] Creating layer data_1
I0407 23:00:19.813936  5542 net.cpp:100] Creating Layer data_1
I0407 23:00:19.813947  5542 net.cpp:408] data_1 -> data_1
I0407 23:00:19.813956  5542 net.cpp:408] data_1 -> label_1
I0407 23:00:19.815196  5633 db_lmdb.cpp:35] Opened lmdb ../local_data/lmdb/rtsd-r1/histeq/train/lmdb
I0407 23:00:19.815392  5542 data_layer.cpp:41] output data size: 64,3,48,48
I0407 23:00:19.821120  5542 net.cpp:150] Setting up data_1
I0407 23:00:19.821136  5542 net.cpp:157] Top shape: 64 3 48 48 (442368)
I0407 23:00:19.821141  5542 net.cpp:157] Top shape: 64 (64)
I0407 23:00:19.821143  5542 net.cpp:165] Memory required for data: 1287438336
I0407 23:00:19.821147  5542 layer_factory.hpp:77] Creating layer data_1_data_1_0_split
I0407 23:00:19.821166  5542 net.cpp:100] Creating Layer data_1_data_1_0_split
I0407 23:00:19.821169  5542 net.cpp:434] data_1_data_1_0_split <- data_1
I0407 23:00:19.821180  5542 net.cpp:408] data_1_data_1_0_split -> data_1_data_1_0_split_0
I0407 23:00:19.821190  5542 net.cpp:408] data_1_data_1_0_split -> data_1_data_1_0_split_1
I0407 23:00:19.821197  5542 net.cpp:408] data_1_data_1_0_split -> data_1_data_1_0_split_2
I0407 23:00:19.821203  5542 net.cpp:408] data_1_data_1_0_split -> data_1_data_1_0_split_3
I0407 23:00:19.821209  5542 net.cpp:408] data_1_data_1_0_split -> data_1_data_1_0_split_4
I0407 23:00:19.821409  5542 net.cpp:150] Setting up data_1_data_1_0_split
I0407 23:00:19.821421  5542 net.cpp:157] Top shape: 64 3 48 48 (442368)
I0407 23:00:19.821425  5542 net.cpp:157] Top shape: 64 3 48 48 (442368)
I0407 23:00:19.821429  5542 net.cpp:157] Top shape: 64 3 48 48 (442368)
I0407 23:00:19.821432  5542 net.cpp:157] Top shape: 64 3 48 48 (442368)
I0407 23:00:19.821436  5542 net.cpp:157] Top shape: 64 3 48 48 (442368)
I0407 23:00:19.821439  5542 net.cpp:165] Memory required for data: 1296285696
I0407 23:00:19.821442  5542 layer_factory.hpp:77] Creating layer conv5_0
I0407 23:00:19.821452  5542 net.cpp:100] Creating Layer conv5_0
I0407 23:00:19.821460  5542 net.cpp:434] conv5_0 <- data_1_data_1_0_split_0
I0407 23:00:19.821466  5542 net.cpp:408] conv5_0 -> conv5_0
I0407 23:00:19.823386  5542 net.cpp:150] Setting up conv5_0
I0407 23:00:19.823403  5542 net.cpp:157] Top shape: 64 100 42 42 (11289600)
I0407 23:00:19.823407  5542 net.cpp:165] Memory required for data: 1341444096
I0407 23:00:19.823415  5542 layer_factory.hpp:77] Creating layer conv5_0_prescale
I0407 23:00:19.823423  5542 net.cpp:100] Creating Layer conv5_0_prescale
I0407 23:00:19.823429  5542 net.cpp:434] conv5_0_prescale <- conv5_0
I0407 23:00:19.823436  5542 net.cpp:395] conv5_0_prescale -> conv5_0 (in-place)
I0407 23:00:19.823575  5542 net.cpp:150] Setting up conv5_0_prescale
I0407 23:00:19.823585  5542 net.cpp:157] Top shape: 64 100 42 42 (11289600)
I0407 23:00:19.823588  5542 net.cpp:165] Memory required for data: 1386602496
I0407 23:00:19.823593  5542 layer_factory.hpp:77] Creating layer conv5_0_sTanH
I0407 23:00:19.823601  5542 net.cpp:100] Creating Layer conv5_0_sTanH
I0407 23:00:19.823606  5542 net.cpp:434] conv5_0_sTanH <- conv5_0
I0407 23:00:19.823611  5542 net.cpp:395] conv5_0_sTanH -> conv5_0 (in-place)
I0407 23:00:19.824452  5542 net.cpp:150] Setting up conv5_0_sTanH
I0407 23:00:19.824471  5542 net.cpp:157] Top shape: 64 100 42 42 (11289600)
I0407 23:00:19.824476  5542 net.cpp:165] Memory required for data: 1431760896
I0407 23:00:19.824481  5542 layer_factory.hpp:77] Creating layer conv5_0_postscale
I0407 23:00:19.824488  5542 net.cpp:100] Creating Layer conv5_0_postscale
I0407 23:00:19.824492  5542 net.cpp:434] conv5_0_postscale <- conv5_0
I0407 23:00:19.824499  5542 net.cpp:395] conv5_0_postscale -> conv5_0 (in-place)
I0407 23:00:19.824630  5542 net.cpp:150] Setting up conv5_0_postscale
I0407 23:00:19.824640  5542 net.cpp:157] Top shape: 64 100 42 42 (11289600)
I0407 23:00:19.824642  5542 net.cpp:165] Memory required for data: 1476919296
I0407 23:00:19.824647  5542 layer_factory.hpp:77] Creating layer pool5_0
I0407 23:00:19.824654  5542 net.cpp:100] Creating Layer pool5_0
I0407 23:00:19.824658  5542 net.cpp:434] pool5_0 <- conv5_0
I0407 23:00:19.824664  5542 net.cpp:408] pool5_0 -> pool5_0
I0407 23:00:19.824714  5542 net.cpp:150] Setting up pool5_0
I0407 23:00:19.824724  5542 net.cpp:157] Top shape: 64 100 21 21 (2822400)
I0407 23:00:19.824728  5542 net.cpp:165] Memory required for data: 1488208896
I0407 23:00:19.824730  5542 layer_factory.hpp:77] Creating layer conv5_1
I0407 23:00:19.824739  5542 net.cpp:100] Creating Layer conv5_1
I0407 23:00:19.824743  5542 net.cpp:434] conv5_1 <- pool5_0
I0407 23:00:19.824749  5542 net.cpp:408] conv5_1 -> conv5_1
I0407 23:00:19.827095  5542 net.cpp:150] Setting up conv5_1
I0407 23:00:19.827111  5542 net.cpp:157] Top shape: 64 150 18 18 (3110400)
I0407 23:00:19.827116  5542 net.cpp:165] Memory required for data: 1500650496
I0407 23:00:19.827123  5542 layer_factory.hpp:77] Creating layer conv5_1_prescale
I0407 23:00:19.827131  5542 net.cpp:100] Creating Layer conv5_1_prescale
I0407 23:00:19.827136  5542 net.cpp:434] conv5_1_prescale <- conv5_1
I0407 23:00:19.827142  5542 net.cpp:395] conv5_1_prescale -> conv5_1 (in-place)
I0407 23:00:19.827261  5542 net.cpp:150] Setting up conv5_1_prescale
I0407 23:00:19.827270  5542 net.cpp:157] Top shape: 64 150 18 18 (3110400)
I0407 23:00:19.827273  5542 net.cpp:165] Memory required for data: 1513092096
I0407 23:00:19.827278  5542 layer_factory.hpp:77] Creating layer conv5_1_sTanH
I0407 23:00:19.827283  5542 net.cpp:100] Creating Layer conv5_1_sTanH
I0407 23:00:19.827287  5542 net.cpp:434] conv5_1_sTanH <- conv5_1
I0407 23:00:19.827293  5542 net.cpp:395] conv5_1_sTanH -> conv5_1 (in-place)
I0407 23:00:19.828119  5542 net.cpp:150] Setting up conv5_1_sTanH
I0407 23:00:19.828135  5542 net.cpp:157] Top shape: 64 150 18 18 (3110400)
I0407 23:00:19.828138  5542 net.cpp:165] Memory required for data: 1525533696
I0407 23:00:19.828142  5542 layer_factory.hpp:77] Creating layer conv5_1_postscale
I0407 23:00:19.828151  5542 net.cpp:100] Creating Layer conv5_1_postscale
I0407 23:00:19.828157  5542 net.cpp:434] conv5_1_postscale <- conv5_1
I0407 23:00:19.828163  5542 net.cpp:395] conv5_1_postscale -> conv5_1 (in-place)
I0407 23:00:19.828289  5542 net.cpp:150] Setting up conv5_1_postscale
I0407 23:00:19.828299  5542 net.cpp:157] Top shape: 64 150 18 18 (3110400)
I0407 23:00:19.828301  5542 net.cpp:165] Memory required for data: 1537975296
I0407 23:00:19.828306  5542 layer_factory.hpp:77] Creating layer pool5_1
I0407 23:00:19.828317  5542 net.cpp:100] Creating Layer pool5_1
I0407 23:00:19.828322  5542 net.cpp:434] pool5_1 <- conv5_1
I0407 23:00:19.828328  5542 net.cpp:408] pool5_1 -> pool5_1
I0407 23:00:19.828378  5542 net.cpp:150] Setting up pool5_1
I0407 23:00:19.828398  5542 net.cpp:157] Top shape: 64 150 9 9 (777600)
I0407 23:00:19.828402  5542 net.cpp:165] Memory required for data: 1541085696
I0407 23:00:19.828405  5542 layer_factory.hpp:77] Creating layer conv5_2
I0407 23:00:19.828414  5542 net.cpp:100] Creating Layer conv5_2
I0407 23:00:19.828419  5542 net.cpp:434] conv5_2 <- pool5_1
I0407 23:00:19.828425  5542 net.cpp:408] conv5_2 -> conv5_2
I0407 23:00:19.834583  5542 net.cpp:150] Setting up conv5_2
I0407 23:00:19.834601  5542 net.cpp:157] Top shape: 64 250 6 6 (576000)
I0407 23:00:19.834605  5542 net.cpp:165] Memory required for data: 1543389696
I0407 23:00:19.834612  5542 layer_factory.hpp:77] Creating layer conv5_2_prescale
I0407 23:00:19.834625  5542 net.cpp:100] Creating Layer conv5_2_prescale
I0407 23:00:19.834630  5542 net.cpp:434] conv5_2_prescale <- conv5_2
I0407 23:00:19.834636  5542 net.cpp:395] conv5_2_prescale -> conv5_2 (in-place)
I0407 23:00:19.834753  5542 net.cpp:150] Setting up conv5_2_prescale
I0407 23:00:19.834761  5542 net.cpp:157] Top shape: 64 250 6 6 (576000)
I0407 23:00:19.834764  5542 net.cpp:165] Memory required for data: 1545693696
I0407 23:00:19.834769  5542 layer_factory.hpp:77] Creating layer conv5_2_sTanH
I0407 23:00:19.834775  5542 net.cpp:100] Creating Layer conv5_2_sTanH
I0407 23:00:19.834780  5542 net.cpp:434] conv5_2_sTanH <- conv5_2
I0407 23:00:19.834785  5542 net.cpp:395] conv5_2_sTanH -> conv5_2 (in-place)
I0407 23:00:19.834981  5542 net.cpp:150] Setting up conv5_2_sTanH
I0407 23:00:19.834993  5542 net.cpp:157] Top shape: 64 250 6 6 (576000)
I0407 23:00:19.834998  5542 net.cpp:165] Memory required for data: 1547997696
I0407 23:00:19.835001  5542 layer_factory.hpp:77] Creating layer conv5_2_postscale
I0407 23:00:19.835011  5542 net.cpp:100] Creating Layer conv5_2_postscale
I0407 23:00:19.835016  5542 net.cpp:434] conv5_2_postscale <- conv5_2
I0407 23:00:19.835021  5542 net.cpp:395] conv5_2_postscale -> conv5_2 (in-place)
I0407 23:00:19.835139  5542 net.cpp:150] Setting up conv5_2_postscale
I0407 23:00:19.835147  5542 net.cpp:157] Top shape: 64 250 6 6 (576000)
I0407 23:00:19.835150  5542 net.cpp:165] Memory required for data: 1550301696
I0407 23:00:19.835155  5542 layer_factory.hpp:77] Creating layer pool5_2
I0407 23:00:19.835177  5542 net.cpp:100] Creating Layer pool5_2
I0407 23:00:19.835182  5542 net.cpp:434] pool5_2 <- conv5_2
I0407 23:00:19.835188  5542 net.cpp:408] pool5_2 -> pool5_2
I0407 23:00:19.835240  5542 net.cpp:150] Setting up pool5_2
I0407 23:00:19.835249  5542 net.cpp:157] Top shape: 64 250 3 3 (144000)
I0407 23:00:19.835253  5542 net.cpp:165] Memory required for data: 1550877696
I0407 23:00:19.835255  5542 layer_factory.hpp:77] Creating layer fc5_4_300
I0407 23:00:19.835263  5542 net.cpp:100] Creating Layer fc5_4_300
I0407 23:00:19.835265  5542 net.cpp:434] fc5_4_300 <- pool5_2
I0407 23:00:19.835270  5542 net.cpp:408] fc5_4_300 -> fc5_4
I0407 23:00:19.840622  5542 net.cpp:150] Setting up fc5_4_300
I0407 23:00:19.840638  5542 net.cpp:157] Top shape: 64 300 (19200)
I0407 23:00:19.840642  5542 net.cpp:165] Memory required for data: 1550954496
I0407 23:00:19.840648  5542 layer_factory.hpp:77] Creating layer fc5_4_prescale
I0407 23:00:19.840662  5542 net.cpp:100] Creating Layer fc5_4_prescale
I0407 23:00:19.840665  5542 net.cpp:434] fc5_4_prescale <- fc5_4
I0407 23:00:19.840672  5542 net.cpp:395] fc5_4_prescale -> fc5_4 (in-place)
I0407 23:00:19.840783  5542 net.cpp:150] Setting up fc5_4_prescale
I0407 23:00:19.840792  5542 net.cpp:157] Top shape: 64 300 (19200)
I0407 23:00:19.840795  5542 net.cpp:165] Memory required for data: 1551031296
I0407 23:00:19.840800  5542 layer_factory.hpp:77] Creating layer fc5_4_sTanH
I0407 23:00:19.840806  5542 net.cpp:100] Creating Layer fc5_4_sTanH
I0407 23:00:19.840809  5542 net.cpp:434] fc5_4_sTanH <- fc5_4
I0407 23:00:19.840813  5542 net.cpp:395] fc5_4_sTanH -> fc5_4 (in-place)
I0407 23:00:19.841019  5542 net.cpp:150] Setting up fc5_4_sTanH
I0407 23:00:19.841030  5542 net.cpp:157] Top shape: 64 300 (19200)
I0407 23:00:19.841033  5542 net.cpp:165] Memory required for data: 1551108096
I0407 23:00:19.841051  5542 layer_factory.hpp:77] Creating layer fc5_4_postscale
I0407 23:00:19.841060  5542 net.cpp:100] Creating Layer fc5_4_postscale
I0407 23:00:19.841065  5542 net.cpp:434] fc5_4_postscale <- fc5_4
I0407 23:00:19.841073  5542 net.cpp:395] fc5_4_postscale -> fc5_4 (in-place)
I0407 23:00:19.841192  5542 net.cpp:150] Setting up fc5_4_postscale
I0407 23:00:19.841202  5542 net.cpp:157] Top shape: 64 300 (19200)
I0407 23:00:19.841203  5542 net.cpp:165] Memory required for data: 1551184896
I0407 23:00:19.841208  5542 layer_factory.hpp:77] Creating layer drop5_4
I0407 23:00:19.841214  5542 net.cpp:100] Creating Layer drop5_4
I0407 23:00:19.841217  5542 net.cpp:434] drop5_4 <- fc5_4
I0407 23:00:19.841223  5542 net.cpp:395] drop5_4 -> fc5_4 (in-place)
I0407 23:00:19.841250  5542 net.cpp:150] Setting up drop5_4
I0407 23:00:19.841258  5542 net.cpp:157] Top shape: 64 300 (19200)
I0407 23:00:19.841260  5542 net.cpp:165] Memory required for data: 1551261696
I0407 23:00:19.841264  5542 layer_factory.hpp:77] Creating layer fc5_5_67
I0407 23:00:19.841272  5542 net.cpp:100] Creating Layer fc5_5_67
I0407 23:00:19.841276  5542 net.cpp:434] fc5_5_67 <- fc5_4
I0407 23:00:19.841281  5542 net.cpp:408] fc5_5_67 -> fc5_5
I0407 23:00:19.841549  5542 net.cpp:150] Setting up fc5_5_67
I0407 23:00:19.841557  5542 net.cpp:157] Top shape: 64 67 (4288)
I0407 23:00:19.841559  5542 net.cpp:165] Memory required for data: 1551278848
I0407 23:00:19.841565  5542 layer_factory.hpp:77] Creating layer softmax_5
I0407 23:00:19.841572  5542 net.cpp:100] Creating Layer softmax_5
I0407 23:00:19.841574  5542 net.cpp:434] softmax_5 <- fc5_5
I0407 23:00:19.841578  5542 net.cpp:408] softmax_5 -> softmax_5
I0407 23:00:19.841863  5542 net.cpp:150] Setting up softmax_5
I0407 23:00:19.841876  5542 net.cpp:157] Top shape: 64 67 (4288)
I0407 23:00:19.841878  5542 net.cpp:165] Memory required for data: 1551296000
I0407 23:00:19.841881  5542 layer_factory.hpp:77] Creating layer conv6_0
I0407 23:00:19.841892  5542 net.cpp:100] Creating Layer conv6_0
I0407 23:00:19.841895  5542 net.cpp:434] conv6_0 <- data_1_data_1_0_split_1
I0407 23:00:19.841903  5542 net.cpp:408] conv6_0 -> conv6_0
I0407 23:00:19.843569  5542 net.cpp:150] Setting up conv6_0
I0407 23:00:19.843585  5542 net.cpp:157] Top shape: 64 100 42 42 (11289600)
I0407 23:00:19.843588  5542 net.cpp:165] Memory required for data: 1596454400
I0407 23:00:19.843595  5542 layer_factory.hpp:77] Creating layer conv6_0_prescale
I0407 23:00:19.843605  5542 net.cpp:100] Creating Layer conv6_0_prescale
I0407 23:00:19.843618  5542 net.cpp:434] conv6_0_prescale <- conv6_0
I0407 23:00:19.843626  5542 net.cpp:395] conv6_0_prescale -> conv6_0 (in-place)
I0407 23:00:19.843747  5542 net.cpp:150] Setting up conv6_0_prescale
I0407 23:00:19.843758  5542 net.cpp:157] Top shape: 64 100 42 42 (11289600)
I0407 23:00:19.843761  5542 net.cpp:165] Memory required for data: 1641612800
I0407 23:00:19.843766  5542 layer_factory.hpp:77] Creating layer conv6_0_sTanH
I0407 23:00:19.843771  5542 net.cpp:100] Creating Layer conv6_0_sTanH
I0407 23:00:19.843776  5542 net.cpp:434] conv6_0_sTanH <- conv6_0
I0407 23:00:19.843781  5542 net.cpp:395] conv6_0_sTanH -> conv6_0 (in-place)
I0407 23:00:19.844622  5542 net.cpp:150] Setting up conv6_0_sTanH
I0407 23:00:19.844640  5542 net.cpp:157] Top shape: 64 100 42 42 (11289600)
I0407 23:00:19.844642  5542 net.cpp:165] Memory required for data: 1686771200
I0407 23:00:19.844646  5542 layer_factory.hpp:77] Creating layer conv6_0_postscale
I0407 23:00:19.844655  5542 net.cpp:100] Creating Layer conv6_0_postscale
I0407 23:00:19.844660  5542 net.cpp:434] conv6_0_postscale <- conv6_0
I0407 23:00:19.844665  5542 net.cpp:395] conv6_0_postscale -> conv6_0 (in-place)
I0407 23:00:19.844799  5542 net.cpp:150] Setting up conv6_0_postscale
I0407 23:00:19.844808  5542 net.cpp:157] Top shape: 64 100 42 42 (11289600)
I0407 23:00:19.844811  5542 net.cpp:165] Memory required for data: 1731929600
I0407 23:00:19.844816  5542 layer_factory.hpp:77] Creating layer pool6_0
I0407 23:00:19.844823  5542 net.cpp:100] Creating Layer pool6_0
I0407 23:00:19.844841  5542 net.cpp:434] pool6_0 <- conv6_0
I0407 23:00:19.844846  5542 net.cpp:408] pool6_0 -> pool6_0
I0407 23:00:19.844898  5542 net.cpp:150] Setting up pool6_0
I0407 23:00:19.844907  5542 net.cpp:157] Top shape: 64 100 21 21 (2822400)
I0407 23:00:19.844909  5542 net.cpp:165] Memory required for data: 1743219200
I0407 23:00:19.844913  5542 layer_factory.hpp:77] Creating layer conv6_1
I0407 23:00:19.844921  5542 net.cpp:100] Creating Layer conv6_1
I0407 23:00:19.844926  5542 net.cpp:434] conv6_1 <- pool6_0
I0407 23:00:19.844933  5542 net.cpp:408] conv6_1 -> conv6_1
I0407 23:00:19.848307  5542 net.cpp:150] Setting up conv6_1
I0407 23:00:19.848325  5542 net.cpp:157] Top shape: 64 150 18 18 (3110400)
I0407 23:00:19.848340  5542 net.cpp:165] Memory required for data: 1755660800
I0407 23:00:19.848347  5542 layer_factory.hpp:77] Creating layer conv6_1_prescale
I0407 23:00:19.848356  5542 net.cpp:100] Creating Layer conv6_1_prescale
I0407 23:00:19.848362  5542 net.cpp:434] conv6_1_prescale <- conv6_1
I0407 23:00:19.848369  5542 net.cpp:395] conv6_1_prescale -> conv6_1 (in-place)
I0407 23:00:19.848490  5542 net.cpp:150] Setting up conv6_1_prescale
I0407 23:00:19.848500  5542 net.cpp:157] Top shape: 64 150 18 18 (3110400)
I0407 23:00:19.848502  5542 net.cpp:165] Memory required for data: 1768102400
I0407 23:00:19.848507  5542 layer_factory.hpp:77] Creating layer conv6_1_sTanH
I0407 23:00:19.848517  5542 net.cpp:100] Creating Layer conv6_1_sTanH
I0407 23:00:19.848522  5542 net.cpp:434] conv6_1_sTanH <- conv6_1
I0407 23:00:19.848527  5542 net.cpp:395] conv6_1_sTanH -> conv6_1 (in-place)
I0407 23:00:19.849378  5542 net.cpp:150] Setting up conv6_1_sTanH
I0407 23:00:19.849395  5542 net.cpp:157] Top shape: 64 150 18 18 (3110400)
I0407 23:00:19.849411  5542 net.cpp:165] Memory required for data: 1780544000
I0407 23:00:19.849414  5542 layer_factory.hpp:77] Creating layer conv6_1_postscale
I0407 23:00:19.849421  5542 net.cpp:100] Creating Layer conv6_1_postscale
I0407 23:00:19.849426  5542 net.cpp:434] conv6_1_postscale <- conv6_1
I0407 23:00:19.849432  5542 net.cpp:395] conv6_1_postscale -> conv6_1 (in-place)
I0407 23:00:19.849565  5542 net.cpp:150] Setting up conv6_1_postscale
I0407 23:00:19.849573  5542 net.cpp:157] Top shape: 64 150 18 18 (3110400)
I0407 23:00:19.849576  5542 net.cpp:165] Memory required for data: 1792985600
I0407 23:00:19.849581  5542 layer_factory.hpp:77] Creating layer pool6_1
I0407 23:00:19.849587  5542 net.cpp:100] Creating Layer pool6_1
I0407 23:00:19.849591  5542 net.cpp:434] pool6_1 <- conv6_1
I0407 23:00:19.849598  5542 net.cpp:408] pool6_1 -> pool6_1
I0407 23:00:19.849649  5542 net.cpp:150] Setting up pool6_1
I0407 23:00:19.849658  5542 net.cpp:157] Top shape: 64 150 9 9 (777600)
I0407 23:00:19.849660  5542 net.cpp:165] Memory required for data: 1796096000
I0407 23:00:19.849663  5542 layer_factory.hpp:77] Creating layer conv6_2
I0407 23:00:19.849673  5542 net.cpp:100] Creating Layer conv6_2
I0407 23:00:19.849678  5542 net.cpp:434] conv6_2 <- pool6_1
I0407 23:00:19.849684  5542 net.cpp:408] conv6_2 -> conv6_2
I0407 23:00:19.855862  5542 net.cpp:150] Setting up conv6_2
I0407 23:00:19.855898  5542 net.cpp:157] Top shape: 64 250 6 6 (576000)
I0407 23:00:19.855902  5542 net.cpp:165] Memory required for data: 1798400000
I0407 23:00:19.855911  5542 layer_factory.hpp:77] Creating layer conv6_2_prescale
I0407 23:00:19.855924  5542 net.cpp:100] Creating Layer conv6_2_prescale
I0407 23:00:19.855931  5542 net.cpp:434] conv6_2_prescale <- conv6_2
I0407 23:00:19.855937  5542 net.cpp:395] conv6_2_prescale -> conv6_2 (in-place)
I0407 23:00:19.856055  5542 net.cpp:150] Setting up conv6_2_prescale
I0407 23:00:19.856063  5542 net.cpp:157] Top shape: 64 250 6 6 (576000)
I0407 23:00:19.856066  5542 net.cpp:165] Memory required for data: 1800704000
I0407 23:00:19.856071  5542 layer_factory.hpp:77] Creating layer conv6_2_sTanH
I0407 23:00:19.856078  5542 net.cpp:100] Creating Layer conv6_2_sTanH
I0407 23:00:19.856081  5542 net.cpp:434] conv6_2_sTanH <- conv6_2
I0407 23:00:19.856101  5542 net.cpp:395] conv6_2_sTanH -> conv6_2 (in-place)
I0407 23:00:19.856304  5542 net.cpp:150] Setting up conv6_2_sTanH
I0407 23:00:19.856317  5542 net.cpp:157] Top shape: 64 250 6 6 (576000)
I0407 23:00:19.856320  5542 net.cpp:165] Memory required for data: 1803008000
I0407 23:00:19.856323  5542 layer_factory.hpp:77] Creating layer conv6_2_postscale
I0407 23:00:19.856333  5542 net.cpp:100] Creating Layer conv6_2_postscale
I0407 23:00:19.856338  5542 net.cpp:434] conv6_2_postscale <- conv6_2
I0407 23:00:19.856344  5542 net.cpp:395] conv6_2_postscale -> conv6_2 (in-place)
I0407 23:00:19.856467  5542 net.cpp:150] Setting up conv6_2_postscale
I0407 23:00:19.856474  5542 net.cpp:157] Top shape: 64 250 6 6 (576000)
I0407 23:00:19.856477  5542 net.cpp:165] Memory required for data: 1805312000
I0407 23:00:19.856482  5542 layer_factory.hpp:77] Creating layer pool6_2
I0407 23:00:19.856488  5542 net.cpp:100] Creating Layer pool6_2
I0407 23:00:19.856492  5542 net.cpp:434] pool6_2 <- conv6_2
I0407 23:00:19.856498  5542 net.cpp:408] pool6_2 -> pool6_2
I0407 23:00:19.856545  5542 net.cpp:150] Setting up pool6_2
I0407 23:00:19.856554  5542 net.cpp:157] Top shape: 64 250 3 3 (144000)
I0407 23:00:19.856556  5542 net.cpp:165] Memory required for data: 1805888000
I0407 23:00:19.856560  5542 layer_factory.hpp:77] Creating layer fc6_4_300
I0407 23:00:19.856566  5542 net.cpp:100] Creating Layer fc6_4_300
I0407 23:00:19.856570  5542 net.cpp:434] fc6_4_300 <- pool6_2
I0407 23:00:19.856575  5542 net.cpp:408] fc6_4_300 -> fc6_4
I0407 23:00:19.862026  5542 net.cpp:150] Setting up fc6_4_300
I0407 23:00:19.862045  5542 net.cpp:157] Top shape: 64 300 (19200)
I0407 23:00:19.862047  5542 net.cpp:165] Memory required for data: 1805964800
I0407 23:00:19.862054  5542 layer_factory.hpp:77] Creating layer fc6_4_prescale
I0407 23:00:19.862061  5542 net.cpp:100] Creating Layer fc6_4_prescale
I0407 23:00:19.862066  5542 net.cpp:434] fc6_4_prescale <- fc6_4
I0407 23:00:19.862071  5542 net.cpp:395] fc6_4_prescale -> fc6_4 (in-place)
I0407 23:00:19.862187  5542 net.cpp:150] Setting up fc6_4_prescale
I0407 23:00:19.862195  5542 net.cpp:157] Top shape: 64 300 (19200)
I0407 23:00:19.862198  5542 net.cpp:165] Memory required for data: 1806041600
I0407 23:00:19.862203  5542 layer_factory.hpp:77] Creating layer fc6_4_sTanH
I0407 23:00:19.862208  5542 net.cpp:100] Creating Layer fc6_4_sTanH
I0407 23:00:19.862211  5542 net.cpp:434] fc6_4_sTanH <- fc6_4
I0407 23:00:19.862216  5542 net.cpp:395] fc6_4_sTanH -> fc6_4 (in-place)
I0407 23:00:19.862424  5542 net.cpp:150] Setting up fc6_4_sTanH
I0407 23:00:19.862435  5542 net.cpp:157] Top shape: 64 300 (19200)
I0407 23:00:19.862438  5542 net.cpp:165] Memory required for data: 1806118400
I0407 23:00:19.862442  5542 layer_factory.hpp:77] Creating layer fc6_4_postscale
I0407 23:00:19.862448  5542 net.cpp:100] Creating Layer fc6_4_postscale
I0407 23:00:19.862452  5542 net.cpp:434] fc6_4_postscale <- fc6_4
I0407 23:00:19.862458  5542 net.cpp:395] fc6_4_postscale -> fc6_4 (in-place)
I0407 23:00:19.862586  5542 net.cpp:150] Setting up fc6_4_postscale
I0407 23:00:19.862594  5542 net.cpp:157] Top shape: 64 300 (19200)
I0407 23:00:19.862596  5542 net.cpp:165] Memory required for data: 1806195200
I0407 23:00:19.862602  5542 layer_factory.hpp:77] Creating layer drop6_4
I0407 23:00:19.862607  5542 net.cpp:100] Creating Layer drop6_4
I0407 23:00:19.862610  5542 net.cpp:434] drop6_4 <- fc6_4
I0407 23:00:19.862617  5542 net.cpp:395] drop6_4 -> fc6_4 (in-place)
I0407 23:00:19.862644  5542 net.cpp:150] Setting up drop6_4
I0407 23:00:19.862653  5542 net.cpp:157] Top shape: 64 300 (19200)
I0407 23:00:19.862655  5542 net.cpp:165] Memory required for data: 1806272000
I0407 23:00:19.862658  5542 layer_factory.hpp:77] Creating layer fc6_5_67
I0407 23:00:19.862665  5542 net.cpp:100] Creating Layer fc6_5_67
I0407 23:00:19.862668  5542 net.cpp:434] fc6_5_67 <- fc6_4
I0407 23:00:19.862673  5542 net.cpp:408] fc6_5_67 -> fc6_5
I0407 23:00:19.862931  5542 net.cpp:150] Setting up fc6_5_67
I0407 23:00:19.862939  5542 net.cpp:157] Top shape: 64 67 (4288)
I0407 23:00:19.862954  5542 net.cpp:165] Memory required for data: 1806289152
I0407 23:00:19.862960  5542 layer_factory.hpp:77] Creating layer softmax_6
I0407 23:00:19.862968  5542 net.cpp:100] Creating Layer softmax_6
I0407 23:00:19.862972  5542 net.cpp:434] softmax_6 <- fc6_5
I0407 23:00:19.862977  5542 net.cpp:408] softmax_6 -> softmax_6
I0407 23:00:19.863263  5542 net.cpp:150] Setting up softmax_6
I0407 23:00:19.863276  5542 net.cpp:157] Top shape: 64 67 (4288)
I0407 23:00:19.863278  5542 net.cpp:165] Memory required for data: 1806306304
I0407 23:00:19.863294  5542 layer_factory.hpp:77] Creating layer conv7_0
I0407 23:00:19.863304  5542 net.cpp:100] Creating Layer conv7_0
I0407 23:00:19.863308  5542 net.cpp:434] conv7_0 <- data_1_data_1_0_split_2
I0407 23:00:19.863317  5542 net.cpp:408] conv7_0 -> conv7_0
I0407 23:00:19.865051  5542 net.cpp:150] Setting up conv7_0
I0407 23:00:19.865068  5542 net.cpp:157] Top shape: 64 100 42 42 (11289600)
I0407 23:00:19.865085  5542 net.cpp:165] Memory required for data: 1851464704
I0407 23:00:19.865092  5542 layer_factory.hpp:77] Creating layer conv7_0_prescale
I0407 23:00:19.865104  5542 net.cpp:100] Creating Layer conv7_0_prescale
I0407 23:00:19.865111  5542 net.cpp:434] conv7_0_prescale <- conv7_0
I0407 23:00:19.865118  5542 net.cpp:395] conv7_0_prescale -> conv7_0 (in-place)
I0407 23:00:19.865244  5542 net.cpp:150] Setting up conv7_0_prescale
I0407 23:00:19.865253  5542 net.cpp:157] Top shape: 64 100 42 42 (11289600)
I0407 23:00:19.865257  5542 net.cpp:165] Memory required for data: 1896623104
I0407 23:00:19.865283  5542 layer_factory.hpp:77] Creating layer conv7_0_sTanH
I0407 23:00:19.865290  5542 net.cpp:100] Creating Layer conv7_0_sTanH
I0407 23:00:19.865293  5542 net.cpp:434] conv7_0_sTanH <- conv7_0
I0407 23:00:19.865298  5542 net.cpp:395] conv7_0_sTanH -> conv7_0 (in-place)
I0407 23:00:19.867086  5542 net.cpp:150] Setting up conv7_0_sTanH
I0407 23:00:19.867110  5542 net.cpp:157] Top shape: 64 100 42 42 (11289600)
I0407 23:00:19.867115  5542 net.cpp:165] Memory required for data: 1941781504
I0407 23:00:19.867121  5542 layer_factory.hpp:77] Creating layer conv7_0_postscale
I0407 23:00:19.867135  5542 net.cpp:100] Creating Layer conv7_0_postscale
I0407 23:00:19.867141  5542 net.cpp:434] conv7_0_postscale <- conv7_0
I0407 23:00:19.867151  5542 net.cpp:395] conv7_0_postscale -> conv7_0 (in-place)
I0407 23:00:19.867354  5542 net.cpp:150] Setting up conv7_0_postscale
I0407 23:00:19.867372  5542 net.cpp:157] Top shape: 64 100 42 42 (11289600)
I0407 23:00:19.867377  5542 net.cpp:165] Memory required for data: 1986939904
I0407 23:00:19.867386  5542 layer_factory.hpp:77] Creating layer pool7_0
I0407 23:00:19.867399  5542 net.cpp:100] Creating Layer pool7_0
I0407 23:00:19.867406  5542 net.cpp:434] pool7_0 <- conv7_0
I0407 23:00:19.867416  5542 net.cpp:408] pool7_0 -> pool7_0
I0407 23:00:19.867486  5542 net.cpp:150] Setting up pool7_0
I0407 23:00:19.867499  5542 net.cpp:157] Top shape: 64 100 21 21 (2822400)
I0407 23:00:19.867504  5542 net.cpp:165] Memory required for data: 1998229504
I0407 23:00:19.867511  5542 layer_factory.hpp:77] Creating layer conv7_1
I0407 23:00:19.867524  5542 net.cpp:100] Creating Layer conv7_1
I0407 23:00:19.867532  5542 net.cpp:434] conv7_1 <- pool7_0
I0407 23:00:19.867545  5542 net.cpp:408] conv7_1 -> conv7_1
I0407 23:00:19.872165  5542 net.cpp:150] Setting up conv7_1
I0407 23:00:19.872184  5542 net.cpp:157] Top shape: 64 150 18 18 (3110400)
I0407 23:00:19.872191  5542 net.cpp:165] Memory required for data: 2010671104
I0407 23:00:19.872202  5542 layer_factory.hpp:77] Creating layer conv7_1_prescale
I0407 23:00:19.872220  5542 net.cpp:100] Creating Layer conv7_1_prescale
I0407 23:00:19.872227  5542 net.cpp:434] conv7_1_prescale <- conv7_1
I0407 23:00:19.872239  5542 net.cpp:395] conv7_1_prescale -> conv7_1 (in-place)
I0407 23:00:19.872375  5542 net.cpp:150] Setting up conv7_1_prescale
I0407 23:00:19.872388  5542 net.cpp:157] Top shape: 64 150 18 18 (3110400)
I0407 23:00:19.872393  5542 net.cpp:165] Memory required for data: 2023112704
I0407 23:00:19.872401  5542 layer_factory.hpp:77] Creating layer conv7_1_sTanH
I0407 23:00:19.872429  5542 net.cpp:100] Creating Layer conv7_1_sTanH
I0407 23:00:19.872437  5542 net.cpp:434] conv7_1_sTanH <- conv7_1
I0407 23:00:19.872447  5542 net.cpp:395] conv7_1_sTanH -> conv7_1 (in-place)
I0407 23:00:19.872663  5542 net.cpp:150] Setting up conv7_1_sTanH
I0407 23:00:19.872678  5542 net.cpp:157] Top shape: 64 150 18 18 (3110400)
I0407 23:00:19.872683  5542 net.cpp:165] Memory required for data: 2035554304
I0407 23:00:19.872689  5542 layer_factory.hpp:77] Creating layer conv7_1_postscale
I0407 23:00:19.872705  5542 net.cpp:100] Creating Layer conv7_1_postscale
I0407 23:00:19.872712  5542 net.cpp:434] conv7_1_postscale <- conv7_1
I0407 23:00:19.872730  5542 net.cpp:395] conv7_1_postscale -> conv7_1 (in-place)
I0407 23:00:19.872866  5542 net.cpp:150] Setting up conv7_1_postscale
I0407 23:00:19.872879  5542 net.cpp:157] Top shape: 64 150 18 18 (3110400)
I0407 23:00:19.872884  5542 net.cpp:165] Memory required for data: 2047995904
I0407 23:00:19.872892  5542 layer_factory.hpp:77] Creating layer pool7_1
I0407 23:00:19.872903  5542 net.cpp:100] Creating Layer pool7_1
I0407 23:00:19.872911  5542 net.cpp:434] pool7_1 <- conv7_1
I0407 23:00:19.872923  5542 net.cpp:408] pool7_1 -> pool7_1
I0407 23:00:19.872985  5542 net.cpp:150] Setting up pool7_1
I0407 23:00:19.872999  5542 net.cpp:157] Top shape: 64 150 9 9 (777600)
I0407 23:00:19.873004  5542 net.cpp:165] Memory required for data: 2051106304
I0407 23:00:19.873010  5542 layer_factory.hpp:77] Creating layer conv7_2
I0407 23:00:19.873023  5542 net.cpp:100] Creating Layer conv7_2
I0407 23:00:19.873029  5542 net.cpp:434] conv7_2 <- pool7_1
I0407 23:00:19.873041  5542 net.cpp:408] conv7_2 -> conv7_2
I0407 23:00:19.880455  5542 net.cpp:150] Setting up conv7_2
I0407 23:00:19.880475  5542 net.cpp:157] Top shape: 64 250 6 6 (576000)
I0407 23:00:19.880481  5542 net.cpp:165] Memory required for data: 2053410304
I0407 23:00:19.880492  5542 layer_factory.hpp:77] Creating layer conv7_2_prescale
I0407 23:00:19.880511  5542 net.cpp:100] Creating Layer conv7_2_prescale
I0407 23:00:19.880517  5542 net.cpp:434] conv7_2_prescale <- conv7_2
I0407 23:00:19.880533  5542 net.cpp:395] conv7_2_prescale -> conv7_2 (in-place)
I0407 23:00:19.880666  5542 net.cpp:150] Setting up conv7_2_prescale
I0407 23:00:19.880679  5542 net.cpp:157] Top shape: 64 250 6 6 (576000)
I0407 23:00:19.880684  5542 net.cpp:165] Memory required for data: 2055714304
I0407 23:00:19.880692  5542 layer_factory.hpp:77] Creating layer conv7_2_sTanH
I0407 23:00:19.880703  5542 net.cpp:100] Creating Layer conv7_2_sTanH
I0407 23:00:19.880712  5542 net.cpp:434] conv7_2_sTanH <- conv7_2
I0407 23:00:19.880719  5542 net.cpp:395] conv7_2_sTanH -> conv7_2 (in-place)
I0407 23:00:19.880931  5542 net.cpp:150] Setting up conv7_2_sTanH
I0407 23:00:19.880949  5542 net.cpp:157] Top shape: 64 250 6 6 (576000)
I0407 23:00:19.880954  5542 net.cpp:165] Memory required for data: 2058018304
I0407 23:00:19.880960  5542 layer_factory.hpp:77] Creating layer conv7_2_postscale
I0407 23:00:19.880970  5542 net.cpp:100] Creating Layer conv7_2_postscale
I0407 23:00:19.880977  5542 net.cpp:434] conv7_2_postscale <- conv7_2
I0407 23:00:19.880990  5542 net.cpp:395] conv7_2_postscale -> conv7_2 (in-place)
I0407 23:00:19.881129  5542 net.cpp:150] Setting up conv7_2_postscale
I0407 23:00:19.881140  5542 net.cpp:157] Top shape: 64 250 6 6 (576000)
I0407 23:00:19.881145  5542 net.cpp:165] Memory required for data: 2060322304
I0407 23:00:19.881153  5542 layer_factory.hpp:77] Creating layer pool7_2
I0407 23:00:19.881163  5542 net.cpp:100] Creating Layer pool7_2
I0407 23:00:19.881171  5542 net.cpp:434] pool7_2 <- conv7_2
I0407 23:00:19.881183  5542 net.cpp:408] pool7_2 -> pool7_2
I0407 23:00:19.881243  5542 net.cpp:150] Setting up pool7_2
I0407 23:00:19.881254  5542 net.cpp:157] Top shape: 64 250 3 3 (144000)
I0407 23:00:19.881259  5542 net.cpp:165] Memory required for data: 2060898304
I0407 23:00:19.881265  5542 layer_factory.hpp:77] Creating layer fc7_4_300
I0407 23:00:19.881278  5542 net.cpp:100] Creating Layer fc7_4_300
I0407 23:00:19.881297  5542 net.cpp:434] fc7_4_300 <- pool7_2
I0407 23:00:19.881309  5542 net.cpp:408] fc7_4_300 -> fc7_4
I0407 23:00:19.886828  5542 net.cpp:150] Setting up fc7_4_300
I0407 23:00:19.886845  5542 net.cpp:157] Top shape: 64 300 (19200)
I0407 23:00:19.886852  5542 net.cpp:165] Memory required for data: 2060975104
I0407 23:00:19.886874  5542 layer_factory.hpp:77] Creating layer fc7_4_prescale
I0407 23:00:19.886890  5542 net.cpp:100] Creating Layer fc7_4_prescale
I0407 23:00:19.886898  5542 net.cpp:434] fc7_4_prescale <- fc7_4
I0407 23:00:19.886909  5542 net.cpp:395] fc7_4_prescale -> fc7_4 (in-place)
I0407 23:00:19.887039  5542 net.cpp:150] Setting up fc7_4_prescale
I0407 23:00:19.887051  5542 net.cpp:157] Top shape: 64 300 (19200)
I0407 23:00:19.887056  5542 net.cpp:165] Memory required for data: 2061051904
I0407 23:00:19.887064  5542 layer_factory.hpp:77] Creating layer fc7_4_sTanH
I0407 23:00:19.887078  5542 net.cpp:100] Creating Layer fc7_4_sTanH
I0407 23:00:19.887085  5542 net.cpp:434] fc7_4_sTanH <- fc7_4
I0407 23:00:19.887094  5542 net.cpp:395] fc7_4_sTanH -> fc7_4 (in-place)
I0407 23:00:19.887310  5542 net.cpp:150] Setting up fc7_4_sTanH
I0407 23:00:19.887322  5542 net.cpp:157] Top shape: 64 300 (19200)
I0407 23:00:19.887327  5542 net.cpp:165] Memory required for data: 2061128704
I0407 23:00:19.887333  5542 layer_factory.hpp:77] Creating layer fc7_4_postscale
I0407 23:00:19.887346  5542 net.cpp:100] Creating Layer fc7_4_postscale
I0407 23:00:19.887353  5542 net.cpp:434] fc7_4_postscale <- fc7_4
I0407 23:00:19.887367  5542 net.cpp:395] fc7_4_postscale -> fc7_4 (in-place)
I0407 23:00:19.887503  5542 net.cpp:150] Setting up fc7_4_postscale
I0407 23:00:19.887514  5542 net.cpp:157] Top shape: 64 300 (19200)
I0407 23:00:19.887519  5542 net.cpp:165] Memory required for data: 2061205504
I0407 23:00:19.887527  5542 layer_factory.hpp:77] Creating layer drop7_4
I0407 23:00:19.887538  5542 net.cpp:100] Creating Layer drop7_4
I0407 23:00:19.887545  5542 net.cpp:434] drop7_4 <- fc7_4
I0407 23:00:19.887557  5542 net.cpp:395] drop7_4 -> fc7_4 (in-place)
I0407 23:00:19.887598  5542 net.cpp:150] Setting up drop7_4
I0407 23:00:19.887608  5542 net.cpp:157] Top shape: 64 300 (19200)
I0407 23:00:19.887612  5542 net.cpp:165] Memory required for data: 2061282304
I0407 23:00:19.887617  5542 layer_factory.hpp:77] Creating layer fc7_5_67
I0407 23:00:19.887630  5542 net.cpp:100] Creating Layer fc7_5_67
I0407 23:00:19.887637  5542 net.cpp:434] fc7_5_67 <- fc7_4
I0407 23:00:19.887646  5542 net.cpp:408] fc7_5_67 -> fc7_5
I0407 23:00:19.887941  5542 net.cpp:150] Setting up fc7_5_67
I0407 23:00:19.887954  5542 net.cpp:157] Top shape: 64 67 (4288)
I0407 23:00:19.887959  5542 net.cpp:165] Memory required for data: 2061299456
I0407 23:00:19.887969  5542 layer_factory.hpp:77] Creating layer softmax_7
I0407 23:00:19.887980  5542 net.cpp:100] Creating Layer softmax_7
I0407 23:00:19.887989  5542 net.cpp:434] softmax_7 <- fc7_5
I0407 23:00:19.887996  5542 net.cpp:408] softmax_7 -> softmax_7
I0407 23:00:19.896848  5542 net.cpp:150] Setting up softmax_7
I0407 23:00:19.896865  5542 net.cpp:157] Top shape: 64 67 (4288)
I0407 23:00:19.896872  5542 net.cpp:165] Memory required for data: 2061316608
I0407 23:00:19.896889  5542 layer_factory.hpp:77] Creating layer conv8_0
I0407 23:00:19.896911  5542 net.cpp:100] Creating Layer conv8_0
I0407 23:00:19.896919  5542 net.cpp:434] conv8_0 <- data_1_data_1_0_split_3
I0407 23:00:19.896930  5542 net.cpp:408] conv8_0 -> conv8_0
I0407 23:00:19.904811  5542 net.cpp:150] Setting up conv8_0
I0407 23:00:19.904834  5542 net.cpp:157] Top shape: 64 100 42 42 (11289600)
I0407 23:00:19.904840  5542 net.cpp:165] Memory required for data: 2106475008
I0407 23:00:19.904851  5542 layer_factory.hpp:77] Creating layer conv8_0_prescale
I0407 23:00:19.904866  5542 net.cpp:100] Creating Layer conv8_0_prescale
I0407 23:00:19.904875  5542 net.cpp:434] conv8_0_prescale <- conv8_0
I0407 23:00:19.904887  5542 net.cpp:395] conv8_0_prescale -> conv8_0 (in-place)
I0407 23:00:19.905028  5542 net.cpp:150] Setting up conv8_0_prescale
I0407 23:00:19.905052  5542 net.cpp:157] Top shape: 64 100 42 42 (11289600)
I0407 23:00:19.905058  5542 net.cpp:165] Memory required for data: 2151633408
I0407 23:00:19.905067  5542 layer_factory.hpp:77] Creating layer conv8_0_sTanH
I0407 23:00:19.905076  5542 net.cpp:100] Creating Layer conv8_0_sTanH
I0407 23:00:19.905083  5542 net.cpp:434] conv8_0_sTanH <- conv8_0
I0407 23:00:19.905095  5542 net.cpp:395] conv8_0_sTanH -> conv8_0 (in-place)
I0407 23:00:19.906091  5542 net.cpp:150] Setting up conv8_0_sTanH
I0407 23:00:19.906108  5542 net.cpp:157] Top shape: 64 100 42 42 (11289600)
I0407 23:00:19.906114  5542 net.cpp:165] Memory required for data: 2196791808
I0407 23:00:19.906121  5542 layer_factory.hpp:77] Creating layer conv8_0_postscale
I0407 23:00:19.906136  5542 net.cpp:100] Creating Layer conv8_0_postscale
I0407 23:00:19.906143  5542 net.cpp:434] conv8_0_postscale <- conv8_0
I0407 23:00:19.906152  5542 net.cpp:395] conv8_0_postscale -> conv8_0 (in-place)
I0407 23:00:19.906296  5542 net.cpp:150] Setting up conv8_0_postscale
I0407 23:00:19.906308  5542 net.cpp:157] Top shape: 64 100 42 42 (11289600)
I0407 23:00:19.906313  5542 net.cpp:165] Memory required for data: 2241950208
I0407 23:00:19.906322  5542 layer_factory.hpp:77] Creating layer pool8_0
I0407 23:00:19.906337  5542 net.cpp:100] Creating Layer pool8_0
I0407 23:00:19.906343  5542 net.cpp:434] pool8_0 <- conv8_0
I0407 23:00:19.906352  5542 net.cpp:408] pool8_0 -> pool8_0
I0407 23:00:19.906414  5542 net.cpp:150] Setting up pool8_0
I0407 23:00:19.906426  5542 net.cpp:157] Top shape: 64 100 21 21 (2822400)
I0407 23:00:19.906431  5542 net.cpp:165] Memory required for data: 2253239808
I0407 23:00:19.906436  5542 layer_factory.hpp:77] Creating layer conv8_1
I0407 23:00:19.906451  5542 net.cpp:100] Creating Layer conv8_1
I0407 23:00:19.906457  5542 net.cpp:434] conv8_1 <- pool8_0
I0407 23:00:19.906467  5542 net.cpp:408] conv8_1 -> conv8_1
I0407 23:00:19.910537  5542 net.cpp:150] Setting up conv8_1
I0407 23:00:19.910558  5542 net.cpp:157] Top shape: 64 150 18 18 (3110400)
I0407 23:00:19.910565  5542 net.cpp:165] Memory required for data: 2265681408
I0407 23:00:19.910576  5542 layer_factory.hpp:77] Creating layer conv8_1_prescale
I0407 23:00:19.910589  5542 net.cpp:100] Creating Layer conv8_1_prescale
I0407 23:00:19.910610  5542 net.cpp:434] conv8_1_prescale <- conv8_1
I0407 23:00:19.910622  5542 net.cpp:395] conv8_1_prescale -> conv8_1 (in-place)
I0407 23:00:19.910761  5542 net.cpp:150] Setting up conv8_1_prescale
I0407 23:00:19.910774  5542 net.cpp:157] Top shape: 64 150 18 18 (3110400)
I0407 23:00:19.910780  5542 net.cpp:165] Memory required for data: 2278123008
I0407 23:00:19.910789  5542 layer_factory.hpp:77] Creating layer conv8_1_sTanH
I0407 23:00:19.910796  5542 net.cpp:100] Creating Layer conv8_1_sTanH
I0407 23:00:19.910804  5542 net.cpp:434] conv8_1_sTanH <- conv8_1
I0407 23:00:19.910815  5542 net.cpp:395] conv8_1_sTanH -> conv8_1 (in-place)
I0407 23:00:19.911051  5542 net.cpp:150] Setting up conv8_1_sTanH
I0407 23:00:19.911067  5542 net.cpp:157] Top shape: 64 150 18 18 (3110400)
I0407 23:00:19.911072  5542 net.cpp:165] Memory required for data: 2290564608
I0407 23:00:19.911077  5542 layer_factory.hpp:77] Creating layer conv8_1_postscale
I0407 23:00:19.911090  5542 net.cpp:100] Creating Layer conv8_1_postscale
I0407 23:00:19.911098  5542 net.cpp:434] conv8_1_postscale <- conv8_1
I0407 23:00:19.911106  5542 net.cpp:395] conv8_1_postscale -> conv8_1 (in-place)
I0407 23:00:19.911250  5542 net.cpp:150] Setting up conv8_1_postscale
I0407 23:00:19.911263  5542 net.cpp:157] Top shape: 64 150 18 18 (3110400)
I0407 23:00:19.911268  5542 net.cpp:165] Memory required for data: 2303006208
I0407 23:00:19.911278  5542 layer_factory.hpp:77] Creating layer pool8_1
I0407 23:00:19.911301  5542 net.cpp:100] Creating Layer pool8_1
I0407 23:00:19.911320  5542 net.cpp:434] pool8_1 <- conv8_1
I0407 23:00:19.911329  5542 net.cpp:408] pool8_1 -> pool8_1
I0407 23:00:19.911393  5542 net.cpp:150] Setting up pool8_1
I0407 23:00:19.911406  5542 net.cpp:157] Top shape: 64 150 9 9 (777600)
I0407 23:00:19.911424  5542 net.cpp:165] Memory required for data: 2306116608
I0407 23:00:19.911432  5542 layer_factory.hpp:77] Creating layer conv8_2
I0407 23:00:19.911448  5542 net.cpp:100] Creating Layer conv8_2
I0407 23:00:19.911456  5542 net.cpp:434] conv8_2 <- pool8_1
I0407 23:00:19.911466  5542 net.cpp:408] conv8_2 -> conv8_2
I0407 23:00:19.917822  5542 net.cpp:150] Setting up conv8_2
I0407 23:00:19.917841  5542 net.cpp:157] Top shape: 64 250 6 6 (576000)
I0407 23:00:19.917848  5542 net.cpp:165] Memory required for data: 2308420608
I0407 23:00:19.917871  5542 layer_factory.hpp:77] Creating layer conv8_2_prescale
I0407 23:00:19.917888  5542 net.cpp:100] Creating Layer conv8_2_prescale
I0407 23:00:19.917896  5542 net.cpp:434] conv8_2_prescale <- conv8_2
I0407 23:00:19.917906  5542 net.cpp:395] conv8_2_prescale -> conv8_2 (in-place)
I0407 23:00:19.918040  5542 net.cpp:150] Setting up conv8_2_prescale
I0407 23:00:19.918052  5542 net.cpp:157] Top shape: 64 250 6 6 (576000)
I0407 23:00:19.918057  5542 net.cpp:165] Memory required for data: 2310724608
I0407 23:00:19.918066  5542 layer_factory.hpp:77] Creating layer conv8_2_sTanH
I0407 23:00:19.918076  5542 net.cpp:100] Creating Layer conv8_2_sTanH
I0407 23:00:19.918083  5542 net.cpp:434] conv8_2_sTanH <- conv8_2
I0407 23:00:19.918092  5542 net.cpp:395] conv8_2_sTanH -> conv8_2 (in-place)
I0407 23:00:19.918303  5542 net.cpp:150] Setting up conv8_2_sTanH
I0407 23:00:19.918320  5542 net.cpp:157] Top shape: 64 250 6 6 (576000)
I0407 23:00:19.918326  5542 net.cpp:165] Memory required for data: 2313028608
I0407 23:00:19.918332  5542 layer_factory.hpp:77] Creating layer conv8_2_postscale
I0407 23:00:19.918342  5542 net.cpp:100] Creating Layer conv8_2_postscale
I0407 23:00:19.918350  5542 net.cpp:434] conv8_2_postscale <- conv8_2
I0407 23:00:19.918364  5542 net.cpp:395] conv8_2_postscale -> conv8_2 (in-place)
I0407 23:00:19.918505  5542 net.cpp:150] Setting up conv8_2_postscale
I0407 23:00:19.918517  5542 net.cpp:157] Top shape: 64 250 6 6 (576000)
I0407 23:00:19.918522  5542 net.cpp:165] Memory required for data: 2315332608
I0407 23:00:19.918530  5542 layer_factory.hpp:77] Creating layer pool8_2
I0407 23:00:19.918541  5542 net.cpp:100] Creating Layer pool8_2
I0407 23:00:19.918550  5542 net.cpp:434] pool8_2 <- conv8_2
I0407 23:00:19.918560  5542 net.cpp:408] pool8_2 -> pool8_2
I0407 23:00:19.918623  5542 net.cpp:150] Setting up pool8_2
I0407 23:00:19.918635  5542 net.cpp:157] Top shape: 64 250 3 3 (144000)
I0407 23:00:19.918639  5542 net.cpp:165] Memory required for data: 2315908608
I0407 23:00:19.918645  5542 layer_factory.hpp:77] Creating layer fc8_4_300
I0407 23:00:19.918658  5542 net.cpp:100] Creating Layer fc8_4_300
I0407 23:00:19.918665  5542 net.cpp:434] fc8_4_300 <- pool8_2
I0407 23:00:19.918674  5542 net.cpp:408] fc8_4_300 -> fc8_4
I0407 23:00:19.924034  5542 net.cpp:150] Setting up fc8_4_300
I0407 23:00:19.924053  5542 net.cpp:157] Top shape: 64 300 (19200)
I0407 23:00:19.924059  5542 net.cpp:165] Memory required for data: 2315985408
I0407 23:00:19.924070  5542 layer_factory.hpp:77] Creating layer fc8_4_prescale
I0407 23:00:19.924087  5542 net.cpp:100] Creating Layer fc8_4_prescale
I0407 23:00:19.924094  5542 net.cpp:434] fc8_4_prescale <- fc8_4
I0407 23:00:19.924104  5542 net.cpp:395] fc8_4_prescale -> fc8_4 (in-place)
I0407 23:00:19.924233  5542 net.cpp:150] Setting up fc8_4_prescale
I0407 23:00:19.924245  5542 net.cpp:157] Top shape: 64 300 (19200)
I0407 23:00:19.924250  5542 net.cpp:165] Memory required for data: 2316062208
I0407 23:00:19.924257  5542 layer_factory.hpp:77] Creating layer fc8_4_sTanH
I0407 23:00:19.924270  5542 net.cpp:100] Creating Layer fc8_4_sTanH
I0407 23:00:19.924278  5542 net.cpp:434] fc8_4_sTanH <- fc8_4
I0407 23:00:19.924286  5542 net.cpp:395] fc8_4_sTanH -> fc8_4 (in-place)
I0407 23:00:19.924499  5542 net.cpp:150] Setting up fc8_4_sTanH
I0407 23:00:19.924512  5542 net.cpp:157] Top shape: 64 300 (19200)
I0407 23:00:19.924517  5542 net.cpp:165] Memory required for data: 2316139008
I0407 23:00:19.924523  5542 layer_factory.hpp:77] Creating layer fc8_4_postscale
I0407 23:00:19.924556  5542 net.cpp:100] Creating Layer fc8_4_postscale
I0407 23:00:19.924564  5542 net.cpp:434] fc8_4_postscale <- fc8_4
I0407 23:00:19.924576  5542 net.cpp:395] fc8_4_postscale -> fc8_4 (in-place)
I0407 23:00:19.924721  5542 net.cpp:150] Setting up fc8_4_postscale
I0407 23:00:19.924733  5542 net.cpp:157] Top shape: 64 300 (19200)
I0407 23:00:19.924737  5542 net.cpp:165] Memory required for data: 2316215808
I0407 23:00:19.924746  5542 layer_factory.hpp:77] Creating layer drop8_4
I0407 23:00:19.924757  5542 net.cpp:100] Creating Layer drop8_4
I0407 23:00:19.924765  5542 net.cpp:434] drop8_4 <- fc8_4
I0407 23:00:19.924777  5542 net.cpp:395] drop8_4 -> fc8_4 (in-place)
I0407 23:00:19.924818  5542 net.cpp:150] Setting up drop8_4
I0407 23:00:19.924829  5542 net.cpp:157] Top shape: 64 300 (19200)
I0407 23:00:19.924834  5542 net.cpp:165] Memory required for data: 2316292608
I0407 23:00:19.924839  5542 layer_factory.hpp:77] Creating layer fc8_5_67
I0407 23:00:19.924851  5542 net.cpp:100] Creating Layer fc8_5_67
I0407 23:00:19.924859  5542 net.cpp:434] fc8_5_67 <- fc8_4
I0407 23:00:19.924867  5542 net.cpp:408] fc8_5_67 -> fc8_5
I0407 23:00:19.925148  5542 net.cpp:150] Setting up fc8_5_67
I0407 23:00:19.925159  5542 net.cpp:157] Top shape: 64 67 (4288)
I0407 23:00:19.925163  5542 net.cpp:165] Memory required for data: 2316309760
I0407 23:00:19.925173  5542 layer_factory.hpp:77] Creating layer softmax_8
I0407 23:00:19.925184  5542 net.cpp:100] Creating Layer softmax_8
I0407 23:00:19.925191  5542 net.cpp:434] softmax_8 <- fc8_5
I0407 23:00:19.925200  5542 net.cpp:408] softmax_8 -> softmax_8
I0407 23:00:19.926148  5542 net.cpp:150] Setting up softmax_8
I0407 23:00:19.926165  5542 net.cpp:157] Top shape: 64 67 (4288)
I0407 23:00:19.926172  5542 net.cpp:165] Memory required for data: 2316326912
I0407 23:00:19.926177  5542 layer_factory.hpp:77] Creating layer conv9_0
I0407 23:00:19.926194  5542 net.cpp:100] Creating Layer conv9_0
I0407 23:00:19.926203  5542 net.cpp:434] conv9_0 <- data_1_data_1_0_split_4
I0407 23:00:19.926216  5542 net.cpp:408] conv9_0 -> conv9_0
I0407 23:00:19.927268  5542 net.cpp:150] Setting up conv9_0
I0407 23:00:19.927286  5542 net.cpp:157] Top shape: 64 100 42 42 (11289600)
I0407 23:00:19.927292  5542 net.cpp:165] Memory required for data: 2361485312
I0407 23:00:19.927304  5542 layer_factory.hpp:77] Creating layer conv9_0_prescale
I0407 23:00:19.927317  5542 net.cpp:100] Creating Layer conv9_0_prescale
I0407 23:00:19.927325  5542 net.cpp:434] conv9_0_prescale <- conv9_0
I0407 23:00:19.927340  5542 net.cpp:395] conv9_0_prescale -> conv9_0 (in-place)
I0407 23:00:19.927481  5542 net.cpp:150] Setting up conv9_0_prescale
I0407 23:00:19.927495  5542 net.cpp:157] Top shape: 64 100 42 42 (11289600)
I0407 23:00:19.927500  5542 net.cpp:165] Memory required for data: 2406643712
I0407 23:00:19.927507  5542 layer_factory.hpp:77] Creating layer conv9_0_sTanH
I0407 23:00:19.927517  5542 net.cpp:100] Creating Layer conv9_0_sTanH
I0407 23:00:19.927525  5542 net.cpp:434] conv9_0_sTanH <- conv9_0
I0407 23:00:19.927536  5542 net.cpp:395] conv9_0_sTanH -> conv9_0 (in-place)
I0407 23:00:19.928426  5542 net.cpp:150] Setting up conv9_0_sTanH
I0407 23:00:19.928443  5542 net.cpp:157] Top shape: 64 100 42 42 (11289600)
I0407 23:00:19.928449  5542 net.cpp:165] Memory required for data: 2451802112
I0407 23:00:19.928455  5542 layer_factory.hpp:77] Creating layer conv9_0_postscale
I0407 23:00:19.928480  5542 net.cpp:100] Creating Layer conv9_0_postscale
I0407 23:00:19.928489  5542 net.cpp:434] conv9_0_postscale <- conv9_0
I0407 23:00:19.928498  5542 net.cpp:395] conv9_0_postscale -> conv9_0 (in-place)
I0407 23:00:19.928648  5542 net.cpp:150] Setting up conv9_0_postscale
I0407 23:00:19.928663  5542 net.cpp:157] Top shape: 64 100 42 42 (11289600)
I0407 23:00:19.928669  5542 net.cpp:165] Memory required for data: 2496960512
I0407 23:00:19.928678  5542 layer_factory.hpp:77] Creating layer pool9_0
I0407 23:00:19.928689  5542 net.cpp:100] Creating Layer pool9_0
I0407 23:00:19.928697  5542 net.cpp:434] pool9_0 <- conv9_0
I0407 23:00:19.928719  5542 net.cpp:408] pool9_0 -> pool9_0
I0407 23:00:19.928788  5542 net.cpp:150] Setting up pool9_0
I0407 23:00:19.928800  5542 net.cpp:157] Top shape: 64 100 21 21 (2822400)
I0407 23:00:19.928805  5542 net.cpp:165] Memory required for data: 2508250112
I0407 23:00:19.928810  5542 layer_factory.hpp:77] Creating layer conv9_1
I0407 23:00:19.928825  5542 net.cpp:100] Creating Layer conv9_1
I0407 23:00:19.928833  5542 net.cpp:434] conv9_1 <- pool9_0
I0407 23:00:19.928844  5542 net.cpp:408] conv9_1 -> conv9_1
I0407 23:00:19.931849  5542 net.cpp:150] Setting up conv9_1
I0407 23:00:19.931867  5542 net.cpp:157] Top shape: 64 150 18 18 (3110400)
I0407 23:00:19.931874  5542 net.cpp:165] Memory required for data: 2520691712
I0407 23:00:19.931905  5542 layer_factory.hpp:77] Creating layer conv9_1_prescale
I0407 23:00:19.931921  5542 net.cpp:100] Creating Layer conv9_1_prescale
I0407 23:00:19.931931  5542 net.cpp:434] conv9_1_prescale <- conv9_1
I0407 23:00:19.931944  5542 net.cpp:395] conv9_1_prescale -> conv9_1 (in-place)
I0407 23:00:19.932087  5542 net.cpp:150] Setting up conv9_1_prescale
I0407 23:00:19.932101  5542 net.cpp:157] Top shape: 64 150 18 18 (3110400)
I0407 23:00:19.932106  5542 net.cpp:165] Memory required for data: 2533133312
I0407 23:00:19.932118  5542 layer_factory.hpp:77] Creating layer conv9_1_sTanH
I0407 23:00:19.932129  5542 net.cpp:100] Creating Layer conv9_1_sTanH
I0407 23:00:19.932137  5542 net.cpp:434] conv9_1_sTanH <- conv9_1
I0407 23:00:19.932145  5542 net.cpp:395] conv9_1_sTanH -> conv9_1 (in-place)
I0407 23:00:19.932358  5542 net.cpp:150] Setting up conv9_1_sTanH
I0407 23:00:19.932373  5542 net.cpp:157] Top shape: 64 150 18 18 (3110400)
I0407 23:00:19.932379  5542 net.cpp:165] Memory required for data: 2545574912
I0407 23:00:19.932384  5542 layer_factory.hpp:77] Creating layer conv9_1_postscale
I0407 23:00:19.932394  5542 net.cpp:100] Creating Layer conv9_1_postscale
I0407 23:00:19.932404  5542 net.cpp:434] conv9_1_postscale <- conv9_1
I0407 23:00:19.932415  5542 net.cpp:395] conv9_1_postscale -> conv9_1 (in-place)
I0407 23:00:19.932559  5542 net.cpp:150] Setting up conv9_1_postscale
I0407 23:00:19.932570  5542 net.cpp:157] Top shape: 64 150 18 18 (3110400)
I0407 23:00:19.932575  5542 net.cpp:165] Memory required for data: 2558016512
I0407 23:00:19.932584  5542 layer_factory.hpp:77] Creating layer pool9_1
I0407 23:00:19.932595  5542 net.cpp:100] Creating Layer pool9_1
I0407 23:00:19.932608  5542 net.cpp:434] pool9_1 <- conv9_1
I0407 23:00:19.932617  5542 net.cpp:408] pool9_1 -> pool9_1
I0407 23:00:19.932683  5542 net.cpp:150] Setting up pool9_1
I0407 23:00:19.932695  5542 net.cpp:157] Top shape: 64 150 9 9 (777600)
I0407 23:00:19.932700  5542 net.cpp:165] Memory required for data: 2561126912
I0407 23:00:19.932705  5542 layer_factory.hpp:77] Creating layer conv9_2
I0407 23:00:19.932719  5542 net.cpp:100] Creating Layer conv9_2
I0407 23:00:19.932726  5542 net.cpp:434] conv9_2 <- pool9_1
I0407 23:00:19.932735  5542 net.cpp:408] conv9_2 -> conv9_2
I0407 23:00:19.939167  5542 net.cpp:150] Setting up conv9_2
I0407 23:00:19.939187  5542 net.cpp:157] Top shape: 64 250 6 6 (576000)
I0407 23:00:19.939193  5542 net.cpp:165] Memory required for data: 2563430912
I0407 23:00:19.939204  5542 layer_factory.hpp:77] Creating layer conv9_2_prescale
I0407 23:00:19.939221  5542 net.cpp:100] Creating Layer conv9_2_prescale
I0407 23:00:19.939229  5542 net.cpp:434] conv9_2_prescale <- conv9_2
I0407 23:00:19.939239  5542 net.cpp:395] conv9_2_prescale -> conv9_2 (in-place)
I0407 23:00:19.939381  5542 net.cpp:150] Setting up conv9_2_prescale
I0407 23:00:19.939394  5542 net.cpp:157] Top shape: 64 250 6 6 (576000)
I0407 23:00:19.939399  5542 net.cpp:165] Memory required for data: 2565734912
I0407 23:00:19.939409  5542 layer_factory.hpp:77] Creating layer conv9_2_sTanH
I0407 23:00:19.939417  5542 net.cpp:100] Creating Layer conv9_2_sTanH
I0407 23:00:19.939427  5542 net.cpp:434] conv9_2_sTanH <- conv9_2
I0407 23:00:19.939435  5542 net.cpp:395] conv9_2_sTanH -> conv9_2 (in-place)
I0407 23:00:19.939667  5542 net.cpp:150] Setting up conv9_2_sTanH
I0407 23:00:19.939682  5542 net.cpp:157] Top shape: 64 250 6 6 (576000)
I0407 23:00:19.939687  5542 net.cpp:165] Memory required for data: 2568038912
I0407 23:00:19.939693  5542 layer_factory.hpp:77] Creating layer conv9_2_postscale
I0407 23:00:19.939709  5542 net.cpp:100] Creating Layer conv9_2_postscale
I0407 23:00:19.939718  5542 net.cpp:434] conv9_2_postscale <- conv9_2
I0407 23:00:19.939726  5542 net.cpp:395] conv9_2_postscale -> conv9_2 (in-place)
I0407 23:00:19.939867  5542 net.cpp:150] Setting up conv9_2_postscale
I0407 23:00:19.939888  5542 net.cpp:157] Top shape: 64 250 6 6 (576000)
I0407 23:00:19.939893  5542 net.cpp:165] Memory required for data: 2570342912
I0407 23:00:19.939903  5542 layer_factory.hpp:77] Creating layer pool9_2
I0407 23:00:19.939916  5542 net.cpp:100] Creating Layer pool9_2
I0407 23:00:19.939924  5542 net.cpp:434] pool9_2 <- conv9_2
I0407 23:00:19.939932  5542 net.cpp:408] pool9_2 -> pool9_2
I0407 23:00:19.940001  5542 net.cpp:150] Setting up pool9_2
I0407 23:00:19.940012  5542 net.cpp:157] Top shape: 64 250 3 3 (144000)
I0407 23:00:19.940017  5542 net.cpp:165] Memory required for data: 2570918912
I0407 23:00:19.940022  5542 layer_factory.hpp:77] Creating layer fc9_4_300
I0407 23:00:19.940034  5542 net.cpp:100] Creating Layer fc9_4_300
I0407 23:00:19.940042  5542 net.cpp:434] fc9_4_300 <- pool9_2
I0407 23:00:19.940050  5542 net.cpp:408] fc9_4_300 -> fc9_4
I0407 23:00:19.945557  5542 net.cpp:150] Setting up fc9_4_300
I0407 23:00:19.945576  5542 net.cpp:157] Top shape: 64 300 (19200)
I0407 23:00:19.945581  5542 net.cpp:165] Memory required for data: 2570995712
I0407 23:00:19.945593  5542 layer_factory.hpp:77] Creating layer fc9_4_prescale
I0407 23:00:19.945608  5542 net.cpp:100] Creating Layer fc9_4_prescale
I0407 23:00:19.945617  5542 net.cpp:434] fc9_4_prescale <- fc9_4
I0407 23:00:19.945626  5542 net.cpp:395] fc9_4_prescale -> fc9_4 (in-place)
I0407 23:00:19.945761  5542 net.cpp:150] Setting up fc9_4_prescale
I0407 23:00:19.945773  5542 net.cpp:157] Top shape: 64 300 (19200)
I0407 23:00:19.945778  5542 net.cpp:165] Memory required for data: 2571072512
I0407 23:00:19.945786  5542 layer_factory.hpp:77] Creating layer fc9_4_sTanH
I0407 23:00:19.945796  5542 net.cpp:100] Creating Layer fc9_4_sTanH
I0407 23:00:19.945804  5542 net.cpp:434] fc9_4_sTanH <- fc9_4
I0407 23:00:19.945816  5542 net.cpp:395] fc9_4_sTanH -> fc9_4 (in-place)
I0407 23:00:19.946033  5542 net.cpp:150] Setting up fc9_4_sTanH
I0407 23:00:19.946046  5542 net.cpp:157] Top shape: 64 300 (19200)
I0407 23:00:19.946051  5542 net.cpp:165] Memory required for data: 2571149312
I0407 23:00:19.946058  5542 layer_factory.hpp:77] Creating layer fc9_4_postscale
I0407 23:00:19.946071  5542 net.cpp:100] Creating Layer fc9_4_postscale
I0407 23:00:19.946079  5542 net.cpp:434] fc9_4_postscale <- fc9_4
I0407 23:00:19.946089  5542 net.cpp:395] fc9_4_postscale -> fc9_4 (in-place)
I0407 23:00:19.946233  5542 net.cpp:150] Setting up fc9_4_postscale
I0407 23:00:19.946245  5542 net.cpp:157] Top shape: 64 300 (19200)
I0407 23:00:19.946249  5542 net.cpp:165] Memory required for data: 2571226112
I0407 23:00:19.946257  5542 layer_factory.hpp:77] Creating layer drop9_4
I0407 23:00:19.946275  5542 net.cpp:100] Creating Layer drop9_4
I0407 23:00:19.946282  5542 net.cpp:434] drop9_4 <- fc9_4
I0407 23:00:19.946295  5542 net.cpp:395] drop9_4 -> fc9_4 (in-place)
I0407 23:00:19.946337  5542 net.cpp:150] Setting up drop9_4
I0407 23:00:19.946348  5542 net.cpp:157] Top shape: 64 300 (19200)
I0407 23:00:19.946352  5542 net.cpp:165] Memory required for data: 2571302912
I0407 23:00:19.946357  5542 layer_factory.hpp:77] Creating layer fc9_5_67
I0407 23:00:19.946370  5542 net.cpp:100] Creating Layer fc9_5_67
I0407 23:00:19.946377  5542 net.cpp:434] fc9_5_67 <- fc9_4
I0407 23:00:19.946386  5542 net.cpp:408] fc9_5_67 -> fc9_5
I0407 23:00:19.946669  5542 net.cpp:150] Setting up fc9_5_67
I0407 23:00:19.946682  5542 net.cpp:157] Top shape: 64 67 (4288)
I0407 23:00:19.946687  5542 net.cpp:165] Memory required for data: 2571320064
I0407 23:00:19.946712  5542 layer_factory.hpp:77] Creating layer softmax_9
I0407 23:00:19.946723  5542 net.cpp:100] Creating Layer softmax_9
I0407 23:00:19.946732  5542 net.cpp:434] softmax_9 <- fc9_5
I0407 23:00:19.946739  5542 net.cpp:408] softmax_9 -> softmax_9
I0407 23:00:19.948108  5542 net.cpp:150] Setting up softmax_9
I0407 23:00:19.948125  5542 net.cpp:157] Top shape: 64 67 (4288)
I0407 23:00:19.948132  5542 net.cpp:165] Memory required for data: 2571337216
I0407 23:00:19.948137  5542 layer_factory.hpp:77] Creating layer data_2
I0407 23:00:19.948245  5542 net.cpp:100] Creating Layer data_2
I0407 23:00:19.948258  5542 net.cpp:408] data_2 -> data_2
I0407 23:00:19.948274  5542 net.cpp:408] data_2 -> label_2
I0407 23:00:19.952661  5638 db_lmdb.cpp:35] Opened lmdb ../local_data/lmdb/rtsd-r1/AHE/train/lmdb
I0407 23:00:19.952836  5542 data_layer.cpp:41] output data size: 64,3,48,48
I0407 23:00:19.972558  5542 net.cpp:150] Setting up data_2
I0407 23:00:19.972579  5542 net.cpp:157] Top shape: 64 3 48 48 (442368)
I0407 23:00:19.972586  5542 net.cpp:157] Top shape: 64 (64)
I0407 23:00:19.972601  5542 net.cpp:165] Memory required for data: 2573106944
I0407 23:00:19.972607  5542 layer_factory.hpp:77] Creating layer data_2_data_2_0_split
I0407 23:00:19.972620  5542 net.cpp:100] Creating Layer data_2_data_2_0_split
I0407 23:00:19.972628  5542 net.cpp:434] data_2_data_2_0_split <- data_2
I0407 23:00:19.972642  5542 net.cpp:408] data_2_data_2_0_split -> data_2_data_2_0_split_0
I0407 23:00:19.972659  5542 net.cpp:408] data_2_data_2_0_split -> data_2_data_2_0_split_1
I0407 23:00:19.972676  5542 net.cpp:408] data_2_data_2_0_split -> data_2_data_2_0_split_2
I0407 23:00:19.972688  5542 net.cpp:408] data_2_data_2_0_split -> data_2_data_2_0_split_3
I0407 23:00:19.972700  5542 net.cpp:408] data_2_data_2_0_split -> data_2_data_2_0_split_4
I0407 23:00:19.972834  5542 net.cpp:150] Setting up data_2_data_2_0_split
I0407 23:00:19.972847  5542 net.cpp:157] Top shape: 64 3 48 48 (442368)
I0407 23:00:19.972854  5542 net.cpp:157] Top shape: 64 3 48 48 (442368)
I0407 23:00:19.972861  5542 net.cpp:157] Top shape: 64 3 48 48 (442368)
I0407 23:00:19.972867  5542 net.cpp:157] Top shape: 64 3 48 48 (442368)
I0407 23:00:19.972873  5542 net.cpp:157] Top shape: 64 3 48 48 (442368)
I0407 23:00:19.972878  5542 net.cpp:165] Memory required for data: 2581954304
I0407 23:00:19.972884  5542 layer_factory.hpp:77] Creating layer conv10_0
I0407 23:00:19.972899  5542 net.cpp:100] Creating Layer conv10_0
I0407 23:00:19.972908  5542 net.cpp:434] conv10_0 <- data_2_data_2_0_split_0
I0407 23:00:19.972920  5542 net.cpp:408] conv10_0 -> conv10_0
I0407 23:00:19.974040  5542 net.cpp:150] Setting up conv10_0
I0407 23:00:19.974057  5542 net.cpp:157] Top shape: 64 100 42 42 (11289600)
I0407 23:00:19.974063  5542 net.cpp:165] Memory required for data: 2627112704
I0407 23:00:19.974074  5542 layer_factory.hpp:77] Creating layer conv10_0_prescale
I0407 23:00:19.974087  5542 net.cpp:100] Creating Layer conv10_0_prescale
I0407 23:00:19.974095  5542 net.cpp:434] conv10_0_prescale <- conv10_0
I0407 23:00:19.974108  5542 net.cpp:395] conv10_0_prescale -> conv10_0 (in-place)
I0407 23:00:19.974259  5542 net.cpp:150] Setting up conv10_0_prescale
I0407 23:00:19.974272  5542 net.cpp:157] Top shape: 64 100 42 42 (11289600)
I0407 23:00:19.974277  5542 net.cpp:165] Memory required for data: 2672271104
I0407 23:00:19.974285  5542 layer_factory.hpp:77] Creating layer conv10_0_sTanH
I0407 23:00:19.974294  5542 net.cpp:100] Creating Layer conv10_0_sTanH
I0407 23:00:19.974301  5542 net.cpp:434] conv10_0_sTanH <- conv10_0
I0407 23:00:19.974313  5542 net.cpp:395] conv10_0_sTanH -> conv10_0 (in-place)
I0407 23:00:19.977152  5542 net.cpp:150] Setting up conv10_0_sTanH
I0407 23:00:19.977170  5542 net.cpp:157] Top shape: 64 100 42 42 (11289600)
I0407 23:00:19.977176  5542 net.cpp:165] Memory required for data: 2717429504
I0407 23:00:19.977195  5542 layer_factory.hpp:77] Creating layer conv10_0_postscale
I0407 23:00:19.977208  5542 net.cpp:100] Creating Layer conv10_0_postscale
I0407 23:00:19.977216  5542 net.cpp:434] conv10_0_postscale <- conv10_0
I0407 23:00:19.977241  5542 net.cpp:395] conv10_0_postscale -> conv10_0 (in-place)
I0407 23:00:19.977398  5542 net.cpp:150] Setting up conv10_0_postscale
I0407 23:00:19.977413  5542 net.cpp:157] Top shape: 64 100 42 42 (11289600)
I0407 23:00:19.977419  5542 net.cpp:165] Memory required for data: 2762587904
I0407 23:00:19.977428  5542 layer_factory.hpp:77] Creating layer pool10_0
I0407 23:00:19.977439  5542 net.cpp:100] Creating Layer pool10_0
I0407 23:00:19.977447  5542 net.cpp:434] pool10_0 <- conv10_0
I0407 23:00:19.977457  5542 net.cpp:408] pool10_0 -> pool10_0
I0407 23:00:19.977524  5542 net.cpp:150] Setting up pool10_0
I0407 23:00:19.977536  5542 net.cpp:157] Top shape: 64 100 21 21 (2822400)
I0407 23:00:19.977541  5542 net.cpp:165] Memory required for data: 2773877504
I0407 23:00:19.977546  5542 layer_factory.hpp:77] Creating layer conv10_1
I0407 23:00:19.977561  5542 net.cpp:100] Creating Layer conv10_1
I0407 23:00:19.977569  5542 net.cpp:434] conv10_1 <- pool10_0
I0407 23:00:19.977581  5542 net.cpp:408] conv10_1 -> conv10_1
I0407 23:00:19.981719  5542 net.cpp:150] Setting up conv10_1
I0407 23:00:19.981739  5542 net.cpp:157] Top shape: 64 150 18 18 (3110400)
I0407 23:00:19.981745  5542 net.cpp:165] Memory required for data: 2786319104
I0407 23:00:19.981767  5542 layer_factory.hpp:77] Creating layer conv10_1_prescale
I0407 23:00:19.981791  5542 net.cpp:100] Creating Layer conv10_1_prescale
I0407 23:00:19.981801  5542 net.cpp:434] conv10_1_prescale <- conv10_1
I0407 23:00:19.981814  5542 net.cpp:395] conv10_1_prescale -> conv10_1 (in-place)
I0407 23:00:19.981966  5542 net.cpp:150] Setting up conv10_1_prescale
I0407 23:00:19.981979  5542 net.cpp:157] Top shape: 64 150 18 18 (3110400)
I0407 23:00:19.981984  5542 net.cpp:165] Memory required for data: 2798760704
I0407 23:00:19.981992  5542 layer_factory.hpp:77] Creating layer conv10_1_sTanH
I0407 23:00:19.982002  5542 net.cpp:100] Creating Layer conv10_1_sTanH
I0407 23:00:19.982010  5542 net.cpp:434] conv10_1_sTanH <- conv10_1
I0407 23:00:19.982018  5542 net.cpp:395] conv10_1_sTanH -> conv10_1 (in-place)
I0407 23:00:19.982239  5542 net.cpp:150] Setting up conv10_1_sTanH
I0407 23:00:19.982254  5542 net.cpp:157] Top shape: 64 150 18 18 (3110400)
I0407 23:00:19.982259  5542 net.cpp:165] Memory required for data: 2811202304
I0407 23:00:19.982265  5542 layer_factory.hpp:77] Creating layer conv10_1_postscale
I0407 23:00:19.982276  5542 net.cpp:100] Creating Layer conv10_1_postscale
I0407 23:00:19.982285  5542 net.cpp:434] conv10_1_postscale <- conv10_1
I0407 23:00:19.982296  5542 net.cpp:395] conv10_1_postscale -> conv10_1 (in-place)
I0407 23:00:19.982445  5542 net.cpp:150] Setting up conv10_1_postscale
I0407 23:00:19.982457  5542 net.cpp:157] Top shape: 64 150 18 18 (3110400)
I0407 23:00:19.982462  5542 net.cpp:165] Memory required for data: 2823643904
I0407 23:00:19.982471  5542 layer_factory.hpp:77] Creating layer pool10_1
I0407 23:00:19.982481  5542 net.cpp:100] Creating Layer pool10_1
I0407 23:00:19.982487  5542 net.cpp:434] pool10_1 <- conv10_1
I0407 23:00:19.982499  5542 net.cpp:408] pool10_1 -> pool10_1
I0407 23:00:19.982566  5542 net.cpp:150] Setting up pool10_1
I0407 23:00:19.982578  5542 net.cpp:157] Top shape: 64 150 9 9 (777600)
I0407 23:00:19.982583  5542 net.cpp:165] Memory required for data: 2826754304
I0407 23:00:19.982589  5542 layer_factory.hpp:77] Creating layer conv10_2
…
I0407 23:00:20.273175  5542 layer_factory.hpp:77] Creating layer conv20_2_prescale
I0407 23:00:20.273187  5542 net.cpp:100] Creating Layer conv20_2_prescale
I0407 23:00:20.273196  5542 net.cpp:434] conv20_2_prescale <- conv20_2
I0407 23:00:20.273210  5542 net.cpp:395] conv20_2_prescale -> conv20_2 (in-place)
I0407 23:00:20.273387  5542 net.cpp:150] Setting up conv20_2_prescale
I0407 23:00:20.273401  5542 net.cpp:157] Top shape: 64 250 6 6 (576000)
I0407 23:00:20.273406  5542 net.cpp:165] Memory required for data: 5402699520
I0407 23:00:20.273414  5542 layer_factory.hpp:77] Creating layer conv20_2_sTanH
I0407 23:00:20.273437  5542 net.cpp:100] Creating Layer conv20_2_sTanH
I0407 23:00:20.273447  5542 net.cpp:434] conv20_2_sTanH <- conv20_2
I0407 23:00:20.273460  5542 net.cpp:395] conv20_2_sTanH -> conv20_2 (in-place)
I0407 23:00:20.273694  5542 net.cpp:150] Setting up conv20_2_sTanH
I0407 23:00:20.273708  5542 net.cpp:157] Top shape: 64 250 6 6 (576000)
I0407 23:00:20.273715  5542 net.cpp:165] Memory required for data: 5405003520
I0407 23:00:20.273720  5542 layer_factory.hpp:77] Creating layer conv20_2_postscale
I0407 23:00:20.273735  5542 net.cpp:100] Creating Layer conv20_2_postscale
I0407 23:00:20.273741  5542 net.cpp:434] conv20_2_postscale <- conv20_2
I0407 23:00:20.273751  5542 net.cpp:395] conv20_2_postscale -> conv20_2 (in-place)
I0407 23:00:20.273926  5542 net.cpp:150] Setting up conv20_2_postscale
I0407 23:00:20.273938  5542 net.cpp:157] Top shape: 64 250 6 6 (576000)
I0407 23:00:20.273943  5542 net.cpp:165] Memory required for data: 5407307520
I0407 23:00:20.273952  5542 layer_factory.hpp:77] Creating layer pool20_2
I0407 23:00:20.273964  5542 net.cpp:100] Creating Layer pool20_2
I0407 23:00:20.273972  5542 net.cpp:434] pool20_2 <- conv20_2
I0407 23:00:20.273982  5542 net.cpp:408] pool20_2 -> pool20_2
I0407 23:00:20.274067  5542 net.cpp:150] Setting up pool20_2
I0407 23:00:20.274080  5542 net.cpp:157] Top shape: 64 250 3 3 (144000)
I0407 23:00:20.274085  5542 net.cpp:165] Memory required for data: 5407883520
I0407 23:00:20.274091  5542 layer_factory.hpp:77] Creating layer fc20_4_300
I0407 23:00:20.274099  5542 net.cpp:100] Creating Layer fc20_4_300
I0407 23:00:20.274106  5542 net.cpp:434] fc20_4_300 <- pool20_2
I0407 23:00:20.274121  5542 net.cpp:408] fc20_4_300 -> fc20_4
I0407 23:00:20.279733  5542 net.cpp:150] Setting up fc20_4_300
I0407 23:00:20.279752  5542 net.cpp:157] Top shape: 64 300 (19200)
I0407 23:00:20.279757  5542 net.cpp:165] Memory required for data: 5407960320
I0407 23:00:20.279768  5542 layer_factory.hpp:77] Creating layer fc20_4_prescale
I0407 23:00:20.279780  5542 net.cpp:100] Creating Layer fc20_4_prescale
I0407 23:00:20.279789  5542 net.cpp:434] fc20_4_prescale <- fc20_4
I0407 23:00:20.279803  5542 net.cpp:395] fc20_4_prescale -> fc20_4 (in-place)
I0407 23:00:20.279986  5542 net.cpp:150] Setting up fc20_4_prescale
I0407 23:00:20.280000  5542 net.cpp:157] Top shape: 64 300 (19200)
I0407 23:00:20.280005  5542 net.cpp:165] Memory required for data: 5408037120
I0407 23:00:20.280014  5542 layer_factory.hpp:77] Creating layer fc20_4_sTanH
I0407 23:00:20.280025  5542 net.cpp:100] Creating Layer fc20_4_sTanH
I0407 23:00:20.280031  5542 net.cpp:434] fc20_4_sTanH <- fc20_4
I0407 23:00:20.280040  5542 net.cpp:395] fc20_4_sTanH -> fc20_4 (in-place)
I0407 23:00:20.280995  5542 net.cpp:150] Setting up fc20_4_sTanH
I0407 23:00:20.281013  5542 net.cpp:157] Top shape: 64 300 (19200)
I0407 23:00:20.281018  5542 net.cpp:165] Memory required for data: 5408113920
I0407 23:00:20.281024  5542 layer_factory.hpp:77] Creating layer fc20_4_postscale
I0407 23:00:20.281038  5542 net.cpp:100] Creating Layer fc20_4_postscale
I0407 23:00:20.281047  5542 net.cpp:434] fc20_4_postscale <- fc20_4
I0407 23:00:20.281057  5542 net.cpp:395] fc20_4_postscale -> fc20_4 (in-place)
I0407 23:00:20.281246  5542 net.cpp:150] Setting up fc20_4_postscale
I0407 23:00:20.281260  5542 net.cpp:157] Top shape: 64 300 (19200)
I0407 23:00:20.281263  5542 net.cpp:165] Memory required for data: 5408190720
I0407 23:00:20.281272  5542 layer_factory.hpp:77] Creating layer drop20_4
I0407 23:00:20.281287  5542 net.cpp:100] Creating Layer drop20_4
I0407 23:00:20.281294  5542 net.cpp:434] drop20_4 <- fc20_4
I0407 23:00:20.281303  5542 net.cpp:395] drop20_4 -> fc20_4 (in-place)
I0407 23:00:20.281358  5542 net.cpp:150] Setting up drop20_4
I0407 23:00:20.281368  5542 net.cpp:157] Top shape: 64 300 (19200)
I0407 23:00:20.281373  5542 net.cpp:165] Memory required for data: 5408267520
I0407 23:00:20.281378  5542 layer_factory.hpp:77] Creating layer fc20_5_67
I0407 23:00:20.281388  5542 net.cpp:100] Creating Layer fc20_5_67
I0407 23:00:20.281395  5542 net.cpp:434] fc20_5_67 <- fc20_4
I0407 23:00:20.281421  5542 net.cpp:408] fc20_5_67 -> fc20_5
I0407 23:00:20.281752  5542 net.cpp:150] Setting up fc20_5_67
I0407 23:00:20.281765  5542 net.cpp:157] Top shape: 64 67 (4288)
I0407 23:00:20.281770  5542 net.cpp:165] Memory required for data: 5408284672
I0407 23:00:20.281780  5542 layer_factory.hpp:77] Creating layer softmax_20
I0407 23:00:20.281791  5542 net.cpp:100] Creating Layer softmax_20
I0407 23:00:20.281798  5542 net.cpp:434] softmax_20 <- fc20_5
I0407 23:00:20.281808  5542 net.cpp:408] softmax_20 -> softmax_20
I0407 23:00:20.282148  5542 net.cpp:150] Setting up softmax_20
I0407 23:00:20.282163  5542 net.cpp:157] Top shape: 64 67 (4288)
I0407 23:00:20.282168  5542 net.cpp:165] Memory required for data: 5408301824
I0407 23:00:20.282174  5542 layer_factory.hpp:77] Creating layer conv21_0
I0407 23:00:20.282191  5542 net.cpp:100] Creating Layer conv21_0
I0407 23:00:20.282198  5542 net.cpp:434] conv21_0 <- data_4_data_4_0_split_1
I0407 23:00:20.282209  5542 net.cpp:408] conv21_0 -> conv21_0
I0407 23:00:20.284181  5542 net.cpp:150] Setting up conv21_0
I0407 23:00:20.284201  5542 net.cpp:157] Top shape: 64 100 42 42 (11289600)
I0407 23:00:20.284207  5542 net.cpp:165] Memory required for data: 5453460224
I0407 23:00:20.284219  5542 layer_factory.hpp:77] Creating layer conv21_0_prescale
I0407 23:00:20.284235  5542 net.cpp:100] Creating Layer conv21_0_prescale
I0407 23:00:20.284243  5542 net.cpp:434] conv21_0_prescale <- conv21_0
I0407 23:00:20.284253  5542 net.cpp:395] conv21_0_prescale -> conv21_0 (in-place)
I0407 23:00:20.284432  5542 net.cpp:150] Setting up conv21_0_prescale
I0407 23:00:20.284446  5542 net.cpp:157] Top shape: 64 100 42 42 (11289600)
I0407 23:00:20.284451  5542 net.cpp:165] Memory required for data: 5498618624
I0407 23:00:20.284459  5542 layer_factory.hpp:77] Creating layer conv21_0_sTanH
I0407 23:00:20.284467  5542 net.cpp:100] Creating Layer conv21_0_sTanH
I0407 23:00:20.284476  5542 net.cpp:434] conv21_0_sTanH <- conv21_0
I0407 23:00:20.284487  5542 net.cpp:395] conv21_0_sTanH -> conv21_0 (in-place)
I0407 23:00:20.284729  5542 net.cpp:150] Setting up conv21_0_sTanH
I0407 23:00:20.284746  5542 net.cpp:157] Top shape: 64 100 42 42 (11289600)
I0407 23:00:20.284752  5542 net.cpp:165] Memory required for data: 5543777024
I0407 23:00:20.284757  5542 layer_factory.hpp:77] Creating layer conv21_0_postscale
I0407 23:00:20.284768  5542 net.cpp:100] Creating Layer conv21_0_postscale
I0407 23:00:20.284776  5542 net.cpp:434] conv21_0_postscale <- conv21_0
I0407 23:00:20.284787  5542 net.cpp:395] conv21_0_postscale -> conv21_0 (in-place)
I0407 23:00:20.284972  5542 net.cpp:150] Setting up conv21_0_postscale
I0407 23:00:20.284986  5542 net.cpp:157] Top shape: 64 100 42 42 (11289600)
I0407 23:00:20.284991  5542 net.cpp:165] Memory required for data: 5588935424
I0407 23:00:20.284998  5542 layer_factory.hpp:77] Creating layer pool21_0
I0407 23:00:20.285009  5542 net.cpp:100] Creating Layer pool21_0
I0407 23:00:20.285017  5542 net.cpp:434] pool21_0 <- conv21_0
I0407 23:00:20.285028  5542 net.cpp:408] pool21_0 -> pool21_0
I0407 23:00:20.285109  5542 net.cpp:150] Setting up pool21_0
I0407 23:00:20.285121  5542 net.cpp:157] Top shape: 64 100 21 21 (2822400)
I0407 23:00:20.285126  5542 net.cpp:165] Memory required for data: 5600225024
I0407 23:00:20.285132  5542 layer_factory.hpp:77] Creating layer conv21_1
I0407 23:00:20.285146  5542 net.cpp:100] Creating Layer conv21_1
I0407 23:00:20.285154  5542 net.cpp:434] conv21_1 <- pool21_0
I0407 23:00:20.285171  5542 net.cpp:408] conv21_1 -> conv21_1
I0407 23:00:20.288513  5542 net.cpp:150] Setting up conv21_1
I0407 23:00:20.288535  5542 net.cpp:157] Top shape: 64 150 18 18 (3110400)
I0407 23:00:20.288542  5542 net.cpp:165] Memory required for data: 5612666624
I0407 23:00:20.288553  5542 layer_factory.hpp:77] Creating layer conv21_1_prescale
I0407 23:00:20.288568  5542 net.cpp:100] Creating Layer conv21_1_prescale
I0407 23:00:20.288578  5542 net.cpp:434] conv21_1_prescale <- conv21_1
I0407 23:00:20.288590  5542 net.cpp:395] conv21_1_prescale -> conv21_1 (in-place)
I0407 23:00:20.288786  5542 net.cpp:150] Setting up conv21_1_prescale
I0407 23:00:20.288800  5542 net.cpp:157] Top shape: 64 150 18 18 (3110400)
I0407 23:00:20.288805  5542 net.cpp:165] Memory required for data: 5625108224
I0407 23:00:20.288815  5542 layer_factory.hpp:77] Creating layer conv21_1_sTanH
I0407 23:00:20.288822  5542 net.cpp:100] Creating Layer conv21_1_sTanH
I0407 23:00:20.288830  5542 net.cpp:434] conv21_1_sTanH <- conv21_1
I0407 23:00:20.288842  5542 net.cpp:395] conv21_1_sTanH -> conv21_1 (in-place)
I0407 23:00:20.289074  5542 net.cpp:150] Setting up conv21_1_sTanH
I0407 23:00:20.289089  5542 net.cpp:157] Top shape: 64 150 18 18 (3110400)
I0407 23:00:20.289094  5542 net.cpp:165] Memory required for data: 5637549824
I0407 23:00:20.289100  5542 layer_factory.hpp:77] Creating layer conv21_1_postscale
I0407 23:00:20.289113  5542 net.cpp:100] Creating Layer conv21_1_postscale
I0407 23:00:20.289120  5542 net.cpp:434] conv21_1_postscale <- conv21_1
I0407 23:00:20.289129  5542 net.cpp:395] conv21_1_postscale -> conv21_1 (in-place)
I0407 23:00:20.289309  5542 net.cpp:150] Setting up conv21_1_postscale
I0407 23:00:20.289322  5542 net.cpp:157] Top shape: 64 150 18 18 (3110400)
I0407 23:00:20.289327  5542 net.cpp:165] Memory required for data: 5649991424
I0407 23:00:20.289335  5542 layer_factory.hpp:77] Creating layer pool21_1
I0407 23:00:20.289348  5542 net.cpp:100] Creating Layer pool21_1
I0407 23:00:20.289357  5542 net.cpp:434] pool21_1 <- conv21_1
I0407 23:00:20.289366  5542 net.cpp:408] pool21_1 -> pool21_1
I0407 23:00:20.289448  5542 net.cpp:150] Setting up pool21_1
I0407 23:00:20.289459  5542 net.cpp:157] Top shape: 64 150 9 9 (777600)
I0407 23:00:20.289464  5542 net.cpp:165] Memory required for data: 5653101824
I0407 23:00:20.289469  5542 layer_factory.hpp:77] Creating layer conv21_2
I0407 23:00:20.289484  5542 net.cpp:100] Creating Layer conv21_2
I0407 23:00:20.289492  5542 net.cpp:434] conv21_2 <- pool21_1
I0407 23:00:20.289505  5542 net.cpp:408] conv21_2 -> conv21_2
I0407 23:00:20.296257  5542 net.cpp:150] Setting up conv21_2
I0407 23:00:20.296275  5542 net.cpp:157] Top shape: 64 250 6 6 (576000)
I0407 23:00:20.296283  5542 net.cpp:165] Memory required for data: 5655405824
I0407 23:00:20.296293  5542 layer_factory.hpp:77] Creating layer conv21_2_prescale
I0407 23:00:20.296310  5542 net.cpp:100] Creating Layer conv21_2_prescale
I0407 23:00:20.296319  5542 net.cpp:434] conv21_2_prescale <- conv21_2
I0407 23:00:20.296329  5542 net.cpp:395] conv21_2_prescale -> conv21_2 (in-place)
I0407 23:00:20.296505  5542 net.cpp:150] Setting up conv21_2_prescale
I0407 23:00:20.296520  5542 net.cpp:157] Top shape: 64 250 6 6 (576000)
I0407 23:00:20.296526  5542 net.cpp:165] Memory required for data: 5657709824
I0407 23:00:20.296535  5542 layer_factory.hpp:77] Creating layer conv21_2_sTanH
I0407 23:00:20.296545  5542 net.cpp:100] Creating Layer conv21_2_sTanH
I0407 23:00:20.296553  5542 net.cpp:434] conv21_2_sTanH <- conv21_2
I0407 23:00:20.296562  5542 net.cpp:395] conv21_2_sTanH -> conv21_2 (in-place)
I0407 23:00:20.297534  5542 net.cpp:150] Setting up conv21_2_sTanH
I0407 23:00:20.297555  5542 net.cpp:157] Top shape: 64 250 6 6 (576000)
I0407 23:00:20.297562  5542 net.cpp:165] Memory required for data: 5660013824
I0407 23:00:20.297569  5542 layer_factory.hpp:77] Creating layer conv21_2_postscale
I0407 23:00:20.297580  5542 net.cpp:100] Creating Layer conv21_2_postscale
I0407 23:00:20.297587  5542 net.cpp:434] conv21_2_postscale <- conv21_2
I0407 23:00:20.297600  5542 net.cpp:395] conv21_2_postscale -> conv21_2 (in-place)
I0407 23:00:20.297780  5542 net.cpp:150] Setting up conv21_2_postscale
I0407 23:00:20.297792  5542 net.cpp:157] Top shape: 64 250 6 6 (576000)
I0407 23:00:20.297797  5542 net.cpp:165] Memory required for data: 5662317824
I0407 23:00:20.297806  5542 layer_factory.hpp:77] Creating layer pool21_2
I0407 23:00:20.297817  5542 net.cpp:100] Creating Layer pool21_2
I0407 23:00:20.297825  5542 net.cpp:434] pool21_2 <- conv21_2
I0407 23:00:20.297837  5542 net.cpp:408] pool21_2 -> pool21_2
I0407 23:00:20.297921  5542 net.cpp:150] Setting up pool21_2
I0407 23:00:20.297947  5542 net.cpp:157] Top shape: 64 250 3 3 (144000)
I0407 23:00:20.297955  5542 net.cpp:165] Memory required for data: 5662893824
I0407 23:00:20.297960  5542 layer_factory.hpp:77] Creating layer fc21_4_300
I0407 23:00:20.297969  5542 net.cpp:100] Creating Layer fc21_4_300
I0407 23:00:20.297977  5542 net.cpp:434] fc21_4_300 <- pool21_2
I0407 23:00:20.297987  5542 net.cpp:408] fc21_4_300 -> fc21_4
I0407 23:00:20.303601  5542 net.cpp:150] Setting up fc21_4_300
I0407 23:00:20.303619  5542 net.cpp:157] Top shape: 64 300 (19200)
I0407 23:00:20.303625  5542 net.cpp:165] Memory required for data: 5662970624
I0407 23:00:20.303637  5542 layer_factory.hpp:77] Creating layer fc21_4_prescale
I0407 23:00:20.303654  5542 net.cpp:100] Creating Layer fc21_4_prescale
I0407 23:00:20.303663  5542 net.cpp:434] fc21_4_prescale <- fc21_4
I0407 23:00:20.303673  5542 net.cpp:395] fc21_4_prescale -> fc21_4 (in-place)
I0407 23:00:20.303838  5542 net.cpp:150] Setting up fc21_4_prescale
I0407 23:00:20.303850  5542 net.cpp:157] Top shape: 64 300 (19200)
I0407 23:00:20.303855  5542 net.cpp:165] Memory required for data: 5663047424
I0407 23:00:20.303863  5542 layer_factory.hpp:77] Creating layer fc21_4_sTanH
I0407 23:00:20.303874  5542 net.cpp:100] Creating Layer fc21_4_sTanH
I0407 23:00:20.303899  5542 net.cpp:434] fc21_4_sTanH <- fc21_4
I0407 23:00:20.303908  5542 net.cpp:395] fc21_4_sTanH -> fc21_4 (in-place)
I0407 23:00:20.304162  5542 net.cpp:150] Setting up fc21_4_sTanH
I0407 23:00:20.304175  5542 net.cpp:157] Top shape: 64 300 (19200)
I0407 23:00:20.304180  5542 net.cpp:165] Memory required for data: 5663124224
I0407 23:00:20.304186  5542 layer_factory.hpp:77] Creating layer fc21_4_postscale
I0407 23:00:20.304198  5542 net.cpp:100] Creating Layer fc21_4_postscale
I0407 23:00:20.304205  5542 net.cpp:434] fc21_4_postscale <- fc21_4
I0407 23:00:20.304225  5542 net.cpp:395] fc21_4_postscale -> fc21_4 (in-place)
I0407 23:00:20.304414  5542 net.cpp:150] Setting up fc21_4_postscale
I0407 23:00:20.304427  5542 net.cpp:157] Top shape: 64 300 (19200)
I0407 23:00:20.304432  5542 net.cpp:165] Memory required for data: 5663201024
I0407 23:00:20.304440  5542 layer_factory.hpp:77] Creating layer drop21_4
I0407 23:00:20.304451  5542 net.cpp:100] Creating Layer drop21_4
I0407 23:00:20.304460  5542 net.cpp:434] drop21_4 <- fc21_4
I0407 23:00:20.304471  5542 net.cpp:395] drop21_4 -> fc21_4 (in-place)
I0407 23:00:20.304523  5542 net.cpp:150] Setting up drop21_4
I0407 23:00:20.304538  5542 net.cpp:157] Top shape: 64 300 (19200)
I0407 23:00:20.304543  5542 net.cpp:165] Memory required for data: 5663277824
I0407 23:00:20.304548  5542 layer_factory.hpp:77] Creating layer fc21_5_67
I0407 23:00:20.304556  5542 net.cpp:100] Creating Layer fc21_5_67
I0407 23:00:20.304564  5542 net.cpp:434] fc21_5_67 <- fc21_4
I0407 23:00:20.304574  5542 net.cpp:408] fc21_5_67 -> fc21_5
I0407 23:00:20.304904  5542 net.cpp:150] Setting up fc21_5_67
I0407 23:00:20.304918  5542 net.cpp:157] Top shape: 64 67 (4288)
I0407 23:00:20.304921  5542 net.cpp:165] Memory required for data: 5663294976
I0407 23:00:20.304930  5542 layer_factory.hpp:77] Creating layer softmax_21
I0407 23:00:20.304944  5542 net.cpp:100] Creating Layer softmax_21
I0407 23:00:20.304952  5542 net.cpp:434] softmax_21 <- fc21_5
I0407 23:00:20.304960  5542 net.cpp:408] softmax_21 -> softmax_21
I0407 23:00:20.305305  5542 net.cpp:150] Setting up softmax_21
I0407 23:00:20.305320  5542 net.cpp:157] Top shape: 64 67 (4288)
I0407 23:00:20.305325  5542 net.cpp:165] Memory required for data: 5663312128
I0407 23:00:20.305330  5542 layer_factory.hpp:77] Creating layer conv22_0
I0407 23:00:20.305344  5542 net.cpp:100] Creating Layer conv22_0
I0407 23:00:20.305353  5542 net.cpp:434] conv22_0 <- data_4_data_4_0_split_2
I0407 23:00:20.305366  5542 net.cpp:408] conv22_0 -> conv22_0
I0407 23:00:20.307440  5542 net.cpp:150] Setting up conv22_0
I0407 23:00:20.307461  5542 net.cpp:157] Top shape: 64 100 42 42 (11289600)
I0407 23:00:20.307467  5542 net.cpp:165] Memory required for data: 5708470528
I0407 23:00:20.307497  5542 layer_factory.hpp:77] Creating layer conv22_0_prescale
I0407 23:00:20.307510  5542 net.cpp:100] Creating Layer conv22_0_prescale
I0407 23:00:20.307520  5542 net.cpp:434] conv22_0_prescale <- conv22_0
I0407 23:00:20.307535  5542 net.cpp:395] conv22_0_prescale -> conv22_0 (in-place)
I0407 23:00:20.307720  5542 net.cpp:150] Setting up conv22_0_prescale
I0407 23:00:20.307734  5542 net.cpp:157] Top shape: 64 100 42 42 (11289600)
I0407 23:00:20.307739  5542 net.cpp:165] Memory required for data: 5753628928
I0407 23:00:20.307746  5542 layer_factory.hpp:77] Creating layer conv22_0_sTanH
I0407 23:00:20.307755  5542 net.cpp:100] Creating Layer conv22_0_sTanH
I0407 23:00:20.307763  5542 net.cpp:434] conv22_0_sTanH <- conv22_0
I0407 23:00:20.307775  5542 net.cpp:395] conv22_0_sTanH -> conv22_0 (in-place)
I0407 23:00:20.308028  5542 net.cpp:150] Setting up conv22_0_sTanH
I0407 23:00:20.308044  5542 net.cpp:157] Top shape: 64 100 42 42 (11289600)
I0407 23:00:20.308049  5542 net.cpp:165] Memory required for data: 5798787328
I0407 23:00:20.308055  5542 layer_factory.hpp:77] Creating layer conv22_0_postscale
I0407 23:00:20.308068  5542 net.cpp:100] Creating Layer conv22_0_postscale
I0407 23:00:20.308078  5542 net.cpp:434] conv22_0_postscale <- conv22_0
I0407 23:00:20.308092  5542 net.cpp:395] conv22_0_postscale -> conv22_0 (in-place)
I0407 23:00:20.308279  5542 net.cpp:150] Setting up conv22_0_postscale
I0407 23:00:20.308295  5542 net.cpp:157] Top shape: 64 100 42 42 (11289600)
I0407 23:00:20.308300  5542 net.cpp:165] Memory required for data: 5843945728
I0407 23:00:20.308308  5542 layer_factory.hpp:77] Creating layer pool22_0
I0407 23:00:20.308320  5542 net.cpp:100] Creating Layer pool22_0
I0407 23:00:20.308328  5542 net.cpp:434] pool22_0 <- conv22_0
I0407 23:00:20.308337  5542 net.cpp:408] pool22_0 -> pool22_0
I0407 23:00:20.308419  5542 net.cpp:150] Setting up pool22_0
I0407 23:00:20.308431  5542 net.cpp:157] Top shape: 64 100 21 21 (2822400)
I0407 23:00:20.308436  5542 net.cpp:165] Memory required for data: 5855235328
I0407 23:00:20.308442  5542 layer_factory.hpp:77] Creating layer conv22_1
I0407 23:00:20.308456  5542 net.cpp:100] Creating Layer conv22_1
I0407 23:00:20.308464  5542 net.cpp:434] conv22_1 <- pool22_0
I0407 23:00:20.308475  5542 net.cpp:408] conv22_1 -> conv22_1
I0407 23:00:20.315222  5542 net.cpp:150] Setting up conv22_1
I0407 23:00:20.315243  5542 net.cpp:157] Top shape: 64 150 18 18 (3110400)
I0407 23:00:20.315248  5542 net.cpp:165] Memory required for data: 5867676928
I0407 23:00:20.315260  5542 layer_factory.hpp:77] Creating layer conv22_1_prescale
I0407 23:00:20.315282  5542 net.cpp:100] Creating Layer conv22_1_prescale
I0407 23:00:20.315290  5542 net.cpp:434] conv22_1_prescale <- conv22_1
I0407 23:00:20.315304  5542 net.cpp:395] conv22_1_prescale -> conv22_1 (in-place)
I0407 23:00:20.315491  5542 net.cpp:150] Setting up conv22_1_prescale
I0407 23:00:20.315505  5542 net.cpp:157] Top shape: 64 150 18 18 (3110400)
I0407 23:00:20.315510  5542 net.cpp:165] Memory required for data: 5880118528
I0407 23:00:20.315520  5542 layer_factory.hpp:77] Creating layer conv22_1_sTanH
I0407 23:00:20.315528  5542 net.cpp:100] Creating Layer conv22_1_sTanH
I0407 23:00:20.315536  5542 net.cpp:434] conv22_1_sTanH <- conv22_1
I0407 23:00:20.315547  5542 net.cpp:395] conv22_1_sTanH -> conv22_1 (in-place)
I0407 23:00:20.315783  5542 net.cpp:150] Setting up conv22_1_sTanH
I0407 23:00:20.315798  5542 net.cpp:157] Top shape: 64 150 18 18 (3110400)
I0407 23:00:20.315804  5542 net.cpp:165] Memory required for data: 5892560128
I0407 23:00:20.315809  5542 layer_factory.hpp:77] Creating layer conv22_1_postscale
I0407 23:00:20.315822  5542 net.cpp:100] Creating Layer conv22_1_postscale
I0407 23:00:20.315829  5542 net.cpp:434] conv22_1_postscale <- conv22_1
I0407 23:00:20.315838  5542 net.cpp:395] conv22_1_postscale -> conv22_1 (in-place)
I0407 23:00:20.316041  5542 net.cpp:150] Setting up conv22_1_postscale
I0407 23:00:20.316056  5542 net.cpp:157] Top shape: 64 150 18 18 (3110400)
I0407 23:00:20.316061  5542 net.cpp:165] Memory required for data: 5905001728
I0407 23:00:20.316087  5542 layer_factory.hpp:77] Creating layer pool22_1
I0407 23:00:20.316103  5542 net.cpp:100] Creating Layer pool22_1
I0407 23:00:20.316112  5542 net.cpp:434] pool22_1 <- conv22_1
I0407 23:00:20.316123  5542 net.cpp:408] pool22_1 -> pool22_1
I0407 23:00:20.316206  5542 net.cpp:150] Setting up pool22_1
I0407 23:00:20.316223  5542 net.cpp:157] Top shape: 64 150 9 9 (777600)
I0407 23:00:20.316228  5542 net.cpp:165] Memory required for data: 5908112128
I0407 23:00:20.316234  5542 layer_factory.hpp:77] Creating layer conv22_2
I0407 23:00:20.316248  5542 net.cpp:100] Creating Layer conv22_2
I0407 23:00:20.316256  5542 net.cpp:434] conv22_2 <- pool22_1
I0407 23:00:20.316272  5542 net.cpp:408] conv22_2 -> conv22_2
I0407 23:00:20.323220  5542 net.cpp:150] Setting up conv22_2
I0407 23:00:20.323240  5542 net.cpp:157] Top shape: 64 250 6 6 (576000)
I0407 23:00:20.323246  5542 net.cpp:165] Memory required for data: 5910416128
I0407 23:00:20.323258  5542 layer_factory.hpp:77] Creating layer conv22_2_prescale
I0407 23:00:20.323278  5542 net.cpp:100] Creating Layer conv22_2_prescale
I0407 23:00:20.323287  5542 net.cpp:434] conv22_2_prescale <- conv22_2
I0407 23:00:20.323299  5542 net.cpp:395] conv22_2_prescale -> conv22_2 (in-place)
I0407 23:00:20.323482  5542 net.cpp:150] Setting up conv22_2_prescale
I0407 23:00:20.323494  5542 net.cpp:157] Top shape: 64 250 6 6 (576000)
I0407 23:00:20.323500  5542 net.cpp:165] Memory required for data: 5912720128
I0407 23:00:20.323508  5542 layer_factory.hpp:77] Creating layer conv22_2_sTanH
I0407 23:00:20.323519  5542 net.cpp:100] Creating Layer conv22_2_sTanH
I0407 23:00:20.323528  5542 net.cpp:434] conv22_2_sTanH <- conv22_2
I0407 23:00:20.323535  5542 net.cpp:395] conv22_2_sTanH -> conv22_2 (in-place)
I0407 23:00:20.331022  5542 net.cpp:150] Setting up conv22_2_sTanH
I0407 23:00:20.331043  5542 net.cpp:157] Top shape: 64 250 6 6 (576000)
I0407 23:00:20.331050  5542 net.cpp:165] Memory required for data: 5915024128
I0407 23:00:20.331056  5542 layer_factory.hpp:77] Creating layer conv22_2_postscale
I0407 23:00:20.331068  5542 net.cpp:100] Creating Layer conv22_2_postscale
I0407 23:00:20.331077  5542 net.cpp:434] conv22_2_postscale <- conv22_2
I0407 23:00:20.331092  5542 net.cpp:395] conv22_2_postscale -> conv22_2 (in-place)
I0407 23:00:20.331284  5542 net.cpp:150] Setting up conv22_2_postscale
I0407 23:00:20.331300  5542 net.cpp:157] Top shape: 64 250 6 6 (576000)
I0407 23:00:20.331305  5542 net.cpp:165] Memory required for data: 5917328128
I0407 23:00:20.331313  5542 layer_factory.hpp:77] Creating layer pool22_2
I0407 23:00:20.331324  5542 net.cpp:100] Creating Layer pool22_2
I0407 23:00:20.331332  5542 net.cpp:434] pool22_2 <- conv22_2
I0407 23:00:20.331344  5542 net.cpp:408] pool22_2 -> pool22_2
I0407 23:00:20.331429  5542 net.cpp:150] Setting up pool22_2
I0407 23:00:20.331441  5542 net.cpp:157] Top shape: 64 250 3 3 (144000)
I0407 23:00:20.331446  5542 net.cpp:165] Memory required for data: 5917904128
I0407 23:00:20.331452  5542 layer_factory.hpp:77] Creating layer fc22_4_300
I0407 23:00:20.331465  5542 net.cpp:100] Creating Layer fc22_4_300
I0407 23:00:20.331472  5542 net.cpp:434] fc22_4_300 <- pool22_2
I0407 23:00:20.331485  5542 net.cpp:408] fc22_4_300 -> fc22_4
I0407 23:00:20.342272  5542 net.cpp:150] Setting up fc22_4_300
I0407 23:00:20.342290  5542 net.cpp:157] Top shape: 64 300 (19200)
I0407 23:00:20.342295  5542 net.cpp:165] Memory required for data: 5917980928
I0407 23:00:20.342308  5542 layer_factory.hpp:77] Creating layer fc22_4_prescale
I0407 23:00:20.342324  5542 net.cpp:100] Creating Layer fc22_4_prescale
I0407 23:00:20.342331  5542 net.cpp:434] fc22_4_prescale <- fc22_4
I0407 23:00:20.342344  5542 net.cpp:395] fc22_4_prescale -> fc22_4 (in-place)
I0407 23:00:20.342519  5542 net.cpp:150] Setting up fc22_4_prescale
I0407 23:00:20.342531  5542 net.cpp:157] Top shape: 64 300 (19200)
I0407 23:00:20.342536  5542 net.cpp:165] Memory required for data: 5918057728
I0407 23:00:20.342543  5542 layer_factory.hpp:77] Creating layer fc22_4_sTanH
I0407 23:00:20.342569  5542 net.cpp:100] Creating Layer fc22_4_sTanH
I0407 23:00:20.342579  5542 net.cpp:434] fc22_4_sTanH <- fc22_4
I0407 23:00:20.342587  5542 net.cpp:395] fc22_4_sTanH -> fc22_4 (in-place)
I0407 23:00:20.342834  5542 net.cpp:150] Setting up fc22_4_sTanH
I0407 23:00:20.342849  5542 net.cpp:157] Top shape: 64 300 (19200)
I0407 23:00:20.342854  5542 net.cpp:165] Memory required for data: 5918134528
I0407 23:00:20.342859  5542 layer_factory.hpp:77] Creating layer fc22_4_postscale
I0407 23:00:20.342957  5542 net.cpp:100] Creating Layer fc22_4_postscale
I0407 23:00:20.342967  5542 net.cpp:434] fc22_4_postscale <- fc22_4
I0407 23:00:20.342977  5542 net.cpp:395] fc22_4_postscale -> fc22_4 (in-place)
I0407 23:00:20.343154  5542 net.cpp:150] Setting up fc22_4_postscale
I0407 23:00:20.343168  5542 net.cpp:157] Top shape: 64 300 (19200)
I0407 23:00:20.343171  5542 net.cpp:165] Memory required for data: 5918211328
I0407 23:00:20.343181  5542 layer_factory.hpp:77] Creating layer drop22_4
I0407 23:00:20.343192  5542 net.cpp:100] Creating Layer drop22_4
I0407 23:00:20.343200  5542 net.cpp:434] drop22_4 <- fc22_4
I0407 23:00:20.343209  5542 net.cpp:395] drop22_4 -> fc22_4 (in-place)
I0407 23:00:20.343261  5542 net.cpp:150] Setting up drop22_4
I0407 23:00:20.343271  5542 net.cpp:157] Top shape: 64 300 (19200)
I0407 23:00:20.343276  5542 net.cpp:165] Memory required for data: 5918288128
I0407 23:00:20.343281  5542 layer_factory.hpp:77] Creating layer fc22_5_67
I0407 23:00:20.343289  5542 net.cpp:100] Creating Layer fc22_5_67
I0407 23:00:20.343297  5542 net.cpp:434] fc22_5_67 <- fc22_4
I0407 23:00:20.343307  5542 net.cpp:408] fc22_5_67 -> fc22_5
I0407 23:00:20.343639  5542 net.cpp:150] Setting up fc22_5_67
I0407 23:00:20.343652  5542 net.cpp:157] Top shape: 64 67 (4288)
I0407 23:00:20.343657  5542 net.cpp:165] Memory required for data: 5918305280
I0407 23:00:20.343667  5542 layer_factory.hpp:77] Creating layer softmax_22
I0407 23:00:20.343677  5542 net.cpp:100] Creating Layer softmax_22
I0407 23:00:20.343684  5542 net.cpp:434] softmax_22 <- fc22_5
I0407 23:00:20.343696  5542 net.cpp:408] softmax_22 -> softmax_22
I0407 23:00:20.344053  5542 net.cpp:150] Setting up softmax_22
I0407 23:00:20.344070  5542 net.cpp:157] Top shape: 64 67 (4288)
I0407 23:00:20.344076  5542 net.cpp:165] Memory required for data: 5918322432
I0407 23:00:20.344081  5542 layer_factory.hpp:77] Creating layer conv23_0
I0407 23:00:20.344094  5542 net.cpp:100] Creating Layer conv23_0
I0407 23:00:20.344104  5542 net.cpp:434] conv23_0 <- data_4_data_4_0_split_3
I0407 23:00:20.344117  5542 net.cpp:408] conv23_0 -> conv23_0
I0407 23:00:20.346139  5542 net.cpp:150] Setting up conv23_0
I0407 23:00:20.346159  5542 net.cpp:157] Top shape: 64 100 42 42 (11289600)
I0407 23:00:20.346165  5542 net.cpp:165] Memory required for data: 5963480832
I0407 23:00:20.346176  5542 layer_factory.hpp:77] Creating layer conv23_0_prescale
I0407 23:00:20.346189  5542 net.cpp:100] Creating Layer conv23_0_prescale
I0407 23:00:20.346199  5542 net.cpp:434] conv23_0_prescale <- conv23_0
I0407 23:00:20.346215  5542 net.cpp:395] conv23_0_prescale -> conv23_0 (in-place)
I0407 23:00:20.346403  5542 net.cpp:150] Setting up conv23_0_prescale
I0407 23:00:20.346416  5542 net.cpp:157] Top shape: 64 100 42 42 (11289600)
I0407 23:00:20.346422  5542 net.cpp:165] Memory required for data: 6008639232
I0407 23:00:20.346431  5542 layer_factory.hpp:77] Creating layer conv23_0_sTanH
I0407 23:00:20.346439  5542 net.cpp:100] Creating Layer conv23_0_sTanH
I0407 23:00:20.346446  5542 net.cpp:434] conv23_0_sTanH <- conv23_0
I0407 23:00:20.346457  5542 net.cpp:395] conv23_0_sTanH -> conv23_0 (in-place)
I0407 23:00:20.346704  5542 net.cpp:150] Setting up conv23_0_sTanH
I0407 23:00:20.346719  5542 net.cpp:157] Top shape: 64 100 42 42 (11289600)
I0407 23:00:20.346724  5542 net.cpp:165] Memory required for data: 6053797632
I0407 23:00:20.346729  5542 layer_factory.hpp:77] Creating layer conv23_0_postscale
I0407 23:00:20.346745  5542 net.cpp:100] Creating Layer conv23_0_postscale
I0407 23:00:20.346763  5542 net.cpp:434] conv23_0_postscale <- conv23_0
I0407 23:00:20.346776  5542 net.cpp:395] conv23_0_postscale -> conv23_0 (in-place)
I0407 23:00:20.346971  5542 net.cpp:150] Setting up conv23_0_postscale
I0407 23:00:20.346983  5542 net.cpp:157] Top shape: 64 100 42 42 (11289600)
I0407 23:00:20.346988  5542 net.cpp:165] Memory required for data: 6098956032
I0407 23:00:20.346997  5542 layer_factory.hpp:77] Creating layer pool23_0
I0407 23:00:20.347007  5542 net.cpp:100] Creating Layer pool23_0
I0407 23:00:20.347013  5542 net.cpp:434] pool23_0 <- conv23_0
I0407 23:00:20.347025  5542 net.cpp:408] pool23_0 -> pool23_0
I0407 23:00:20.347108  5542 net.cpp:150] Setting up pool23_0
I0407 23:00:20.347122  5542 net.cpp:157] Top shape: 64 100 21 21 (2822400)
I0407 23:00:20.347128  5542 net.cpp:165] Memory required for data: 6110245632
I0407 23:00:20.347133  5542 layer_factory.hpp:77] Creating layer conv23_1
I0407 23:00:20.347146  5542 net.cpp:100] Creating Layer conv23_1
I0407 23:00:20.347153  5542 net.cpp:434] conv23_1 <- pool23_0
I0407 23:00:20.347167  5542 net.cpp:408] conv23_1 -> conv23_1
I0407 23:00:20.350528  5542 net.cpp:150] Setting up conv23_1
I0407 23:00:20.350546  5542 net.cpp:157] Top shape: 64 150 18 18 (3110400)
I0407 23:00:20.350553  5542 net.cpp:165] Memory required for data: 6122687232
I0407 23:00:20.350564  5542 layer_factory.hpp:77] Creating layer conv23_1_prescale
I0407 23:00:20.350577  5542 net.cpp:100] Creating Layer conv23_1_prescale
I0407 23:00:20.350587  5542 net.cpp:434] conv23_1_prescale <- conv23_1
I0407 23:00:20.350600  5542 net.cpp:395] conv23_1_prescale -> conv23_1 (in-place)
I0407 23:00:20.350790  5542 net.cpp:150] Setting up conv23_1_prescale
I0407 23:00:20.350803  5542 net.cpp:157] Top shape: 64 150 18 18 (3110400)
I0407 23:00:20.350808  5542 net.cpp:165] Memory required for data: 6135128832
I0407 23:00:20.350816  5542 layer_factory.hpp:77] Creating layer conv23_1_sTanH
I0407 23:00:20.350826  5542 net.cpp:100] Creating Layer conv23_1_sTanH
I0407 23:00:20.350834  5542 net.cpp:434] conv23_1_sTanH <- conv23_1
I0407 23:00:20.350847  5542 net.cpp:395] conv23_1_sTanH -> conv23_1 (in-place)
I0407 23:00:20.351086  5542 net.cpp:150] Setting up conv23_1_sTanH
I0407 23:00:20.351102  5542 net.cpp:157] Top shape: 64 150 18 18 (3110400)
I0407 23:00:20.351107  5542 net.cpp:165] Memory required for data: 6147570432
I0407 23:00:20.351114  5542 layer_factory.hpp:77] Creating layer conv23_1_postscale
I0407 23:00:20.351126  5542 net.cpp:100] Creating Layer conv23_1_postscale
I0407 23:00:20.351135  5542 net.cpp:434] conv23_1_postscale <- conv23_1
I0407 23:00:20.351143  5542 net.cpp:395] conv23_1_postscale -> conv23_1 (in-place)
I0407 23:00:20.351336  5542 net.cpp:150] Setting up conv23_1_postscale
I0407 23:00:20.351349  5542 net.cpp:157] Top shape: 64 150 18 18 (3110400)
I0407 23:00:20.351354  5542 net.cpp:165] Memory required for data: 6160012032
I0407 23:00:20.351362  5542 layer_factory.hpp:77] Creating layer pool23_1
I0407 23:00:20.351375  5542 net.cpp:100] Creating Layer pool23_1
I0407 23:00:20.351383  5542 net.cpp:434] pool23_1 <- conv23_1
I0407 23:00:20.351392  5542 net.cpp:408] pool23_1 -> pool23_1
I0407 23:00:20.351478  5542 net.cpp:150] Setting up pool23_1
I0407 23:00:20.351490  5542 net.cpp:157] Top shape: 64 150 9 9 (777600)
I0407 23:00:20.351495  5542 net.cpp:165] Memory required for data: 6163122432
I0407 23:00:20.351500  5542 layer_factory.hpp:77] Creating layer conv23_2
I0407 23:00:20.351516  5542 net.cpp:100] Creating Layer conv23_2
I0407 23:00:20.351523  5542 net.cpp:434] conv23_2 <- pool23_1
I0407 23:00:20.351536  5542 net.cpp:408] conv23_2 -> conv23_2
I0407 23:00:20.358324  5542 net.cpp:150] Setting up conv23_2
I0407 23:00:20.358345  5542 net.cpp:157] Top shape: 64 250 6 6 (576000)
I0407 23:00:20.358350  5542 net.cpp:165] Memory required for data: 6165426432
I0407 23:00:20.358362  5542 layer_factory.hpp:77] Creating layer conv23_2_prescale
I0407 23:00:20.358379  5542 net.cpp:100] Creating Layer conv23_2_prescale
I0407 23:00:20.358388  5542 net.cpp:434] conv23_2_prescale <- conv23_2
I0407 23:00:20.358414  5542 net.cpp:395] conv23_2_prescale -> conv23_2 (in-place)
I0407 23:00:20.358605  5542 net.cpp:150] Setting up conv23_2_prescale
I0407 23:00:20.358619  5542 net.cpp:157] Top shape: 64 250 6 6 (576000)
I0407 23:00:20.358624  5542 net.cpp:165] Memory required for data: 6167730432
I0407 23:00:20.358633  5542 layer_factory.hpp:77] Creating layer conv23_2_sTanH
I0407 23:00:20.358644  5542 net.cpp:100] Creating Layer conv23_2_sTanH
I0407 23:00:20.358651  5542 net.cpp:434] conv23_2_sTanH <- conv23_2
I0407 23:00:20.358660  5542 net.cpp:395] conv23_2_sTanH -> conv23_2 (in-place)
I0407 23:00:20.359645  5542 net.cpp:150] Setting up conv23_2_sTanH
I0407 23:00:20.359666  5542 net.cpp:157] Top shape: 64 250 6 6 (576000)
I0407 23:00:20.359673  5542 net.cpp:165] Memory required for data: 6170034432
I0407 23:00:20.359679  5542 layer_factory.hpp:77] Creating layer conv23_2_postscale
I0407 23:00:20.359694  5542 net.cpp:100] Creating Layer conv23_2_postscale
I0407 23:00:20.359700  5542 net.cpp:434] conv23_2_postscale <- conv23_2
I0407 23:00:20.359714  5542 net.cpp:395] conv23_2_postscale -> conv23_2 (in-place)
I0407 23:00:20.359921  5542 net.cpp:150] Setting up conv23_2_postscale
I0407 23:00:20.359935  5542 net.cpp:157] Top shape: 64 250 6 6 (576000)
I0407 23:00:20.359941  5542 net.cpp:165] Memory required for data: 6172338432
I0407 23:00:20.359949  5542 layer_factory.hpp:77] Creating layer pool23_2
I0407 23:00:20.359961  5542 net.cpp:100] Creating Layer pool23_2
I0407 23:00:20.359969  5542 net.cpp:434] pool23_2 <- conv23_2
I0407 23:00:20.359982  5542 net.cpp:408] pool23_2 -> pool23_2
I0407 23:00:20.360065  5542 net.cpp:150] Setting up pool23_2
I0407 23:00:20.360079  5542 net.cpp:157] Top shape: 64 250 3 3 (144000)
I0407 23:00:20.360083  5542 net.cpp:165] Memory required for data: 6172914432
I0407 23:00:20.360090  5542 layer_factory.hpp:77] Creating layer fc23_4_300
I0407 23:00:20.360101  5542 net.cpp:100] Creating Layer fc23_4_300
I0407 23:00:20.360110  5542 net.cpp:434] fc23_4_300 <- pool23_2
I0407 23:00:20.360121  5542 net.cpp:408] fc23_4_300 -> fc23_4
I0407 23:00:20.365778  5542 net.cpp:150] Setting up fc23_4_300
I0407 23:00:20.365798  5542 net.cpp:157] Top shape: 64 300 (19200)
I0407 23:00:20.365804  5542 net.cpp:165] Memory required for data: 6172991232
I0407 23:00:20.365815  5542 layer_factory.hpp:77] Creating layer fc23_4_prescale
I0407 23:00:20.365828  5542 net.cpp:100] Creating Layer fc23_4_prescale
I0407 23:00:20.365835  5542 net.cpp:434] fc23_4_prescale <- fc23_4
I0407 23:00:20.365846  5542 net.cpp:395] fc23_4_prescale -> fc23_4 (in-place)
I0407 23:00:20.366030  5542 net.cpp:150] Setting up fc23_4_prescale
I0407 23:00:20.366044  5542 net.cpp:157] Top shape: 64 300 (19200)
I0407 23:00:20.366049  5542 net.cpp:165] Memory required for data: 6173068032
I0407 23:00:20.366056  5542 layer_factory.hpp:77] Creating layer fc23_4_sTanH
I0407 23:00:20.366067  5542 net.cpp:100] Creating Layer fc23_4_sTanH
I0407 23:00:20.366086  5542 net.cpp:434] fc23_4_sTanH <- fc23_4
I0407 23:00:20.366096  5542 net.cpp:395] fc23_4_sTanH -> fc23_4 (in-place)
I0407 23:00:20.366353  5542 net.cpp:150] Setting up fc23_4_sTanH
I0407 23:00:20.366369  5542 net.cpp:157] Top shape: 64 300 (19200)
I0407 23:00:20.366374  5542 net.cpp:165] Memory required for data: 6173144832
I0407 23:00:20.366379  5542 layer_factory.hpp:77] Creating layer fc23_4_postscale
I0407 23:00:20.366390  5542 net.cpp:100] Creating Layer fc23_4_postscale
I0407 23:00:20.366406  5542 net.cpp:434] fc23_4_postscale <- fc23_4
I0407 23:00:20.366421  5542 net.cpp:395] fc23_4_postscale -> fc23_4 (in-place)
I0407 23:00:20.366619  5542 net.cpp:150] Setting up fc23_4_postscale
I0407 23:00:20.366631  5542 net.cpp:157] Top shape: 64 300 (19200)
I0407 23:00:20.366636  5542 net.cpp:165] Memory required for data: 6173221632
I0407 23:00:20.366646  5542 layer_factory.hpp:77] Creating layer drop23_4
I0407 23:00:20.366657  5542 net.cpp:100] Creating Layer drop23_4
I0407 23:00:20.366664  5542 net.cpp:434] drop23_4 <- fc23_4
I0407 23:00:20.366679  5542 net.cpp:395] drop23_4 -> fc23_4 (in-place)
I0407 23:00:20.366750  5542 net.cpp:150] Setting up drop23_4
I0407 23:00:20.366761  5542 net.cpp:157] Top shape: 64 300 (19200)
I0407 23:00:20.366766  5542 net.cpp:165] Memory required for data: 6173298432
I0407 23:00:20.366771  5542 layer_factory.hpp:77] Creating layer fc23_5_67
I0407 23:00:20.366786  5542 net.cpp:100] Creating Layer fc23_5_67
I0407 23:00:20.366792  5542 net.cpp:434] fc23_5_67 <- fc23_4
I0407 23:00:20.366803  5542 net.cpp:408] fc23_5_67 -> fc23_5
I0407 23:00:20.367149  5542 net.cpp:150] Setting up fc23_5_67
I0407 23:00:20.367162  5542 net.cpp:157] Top shape: 64 67 (4288)
I0407 23:00:20.367167  5542 net.cpp:165] Memory required for data: 6173315584
I0407 23:00:20.367177  5542 layer_factory.hpp:77] Creating layer softmax_23
I0407 23:00:20.367188  5542 net.cpp:100] Creating Layer softmax_23
I0407 23:00:20.367197  5542 net.cpp:434] softmax_23 <- fc23_5
I0407 23:00:20.367205  5542 net.cpp:408] softmax_23 -> softmax_23
I0407 23:00:20.367560  5542 net.cpp:150] Setting up softmax_23
I0407 23:00:20.367576  5542 net.cpp:157] Top shape: 64 67 (4288)
I0407 23:00:20.367580  5542 net.cpp:165] Memory required for data: 6173332736
I0407 23:00:20.367586  5542 layer_factory.hpp:77] Creating layer conv24_0
I0407 23:00:20.367601  5542 net.cpp:100] Creating Layer conv24_0
I0407 23:00:20.367609  5542 net.cpp:434] conv24_0 <- data_4_data_4_0_split_4
I0407 23:00:20.367624  5542 net.cpp:408] conv24_0 -> conv24_0
I0407 23:00:20.370448  5542 net.cpp:150] Setting up conv24_0
I0407 23:00:20.370470  5542 net.cpp:157] Top shape: 64 100 42 42 (11289600)
I0407 23:00:20.370476  5542 net.cpp:165] Memory required for data: 6218491136
I0407 23:00:20.370487  5542 layer_factory.hpp:77] Creating layer conv24_0_prescale
I0407 23:00:20.370506  5542 net.cpp:100] Creating Layer conv24_0_prescale
I0407 23:00:20.370514  5542 net.cpp:434] conv24_0_prescale <- conv24_0
I0407 23:00:20.370523  5542 net.cpp:395] conv24_0_prescale -> conv24_0 (in-place)
I0407 23:00:20.370718  5542 net.cpp:150] Setting up conv24_0_prescale
I0407 23:00:20.370731  5542 net.cpp:157] Top shape: 64 100 42 42 (11289600)
I0407 23:00:20.370738  5542 net.cpp:165] Memory required for data: 6263649536
I0407 23:00:20.370745  5542 layer_factory.hpp:77] Creating layer conv24_0_sTanH
I0407 23:00:20.370757  5542 net.cpp:100] Creating Layer conv24_0_sTanH
I0407 23:00:20.370765  5542 net.cpp:434] conv24_0_sTanH <- conv24_0
I0407 23:00:20.370774  5542 net.cpp:395] conv24_0_sTanH -> conv24_0 (in-place)
I0407 23:00:20.371034  5542 net.cpp:150] Setting up conv24_0_sTanH
I0407 23:00:20.371049  5542 net.cpp:157] Top shape: 64 100 42 42 (11289600)
I0407 23:00:20.371055  5542 net.cpp:165] Memory required for data: 6308807936
I0407 23:00:20.371062  5542 layer_factory.hpp:77] Creating layer conv24_0_postscale
I0407 23:00:20.371071  5542 net.cpp:100] Creating Layer conv24_0_postscale
I0407 23:00:20.371079  5542 net.cpp:434] conv24_0_postscale <- conv24_0
I0407 23:00:20.371095  5542 net.cpp:395] conv24_0_postscale -> conv24_0 (in-place)
I0407 23:00:20.371294  5542 net.cpp:150] Setting up conv24_0_postscale
I0407 23:00:20.371306  5542 net.cpp:157] Top shape: 64 100 42 42 (11289600)
I0407 23:00:20.371311  5542 net.cpp:165] Memory required for data: 6353966336
I0407 23:00:20.371320  5542 layer_factory.hpp:77] Creating layer pool24_0
I0407 23:00:20.371330  5542 net.cpp:100] Creating Layer pool24_0
I0407 23:00:20.371338  5542 net.cpp:434] pool24_0 <- conv24_0
I0407 23:00:20.371351  5542 net.cpp:408] pool24_0 -> pool24_0
I0407 23:00:20.371436  5542 net.cpp:150] Setting up pool24_0
I0407 23:00:20.371448  5542 net.cpp:157] Top shape: 64 100 21 21 (2822400)
I0407 23:00:20.371454  5542 net.cpp:165] Memory required for data: 6365255936
I0407 23:00:20.371459  5542 layer_factory.hpp:77] Creating layer conv24_1
I0407 23:00:20.371476  5542 net.cpp:100] Creating Layer conv24_1
I0407 23:00:20.371484  5542 net.cpp:434] conv24_1 <- pool24_0
I0407 23:00:20.371495  5542 net.cpp:408] conv24_1 -> conv24_1
I0407 23:00:20.376086  5542 net.cpp:150] Setting up conv24_1
I0407 23:00:20.376106  5542 net.cpp:157] Top shape: 64 150 18 18 (3110400)
I0407 23:00:20.376133  5542 net.cpp:165] Memory required for data: 6377697536
I0407 23:00:20.376147  5542 layer_factory.hpp:77] Creating layer conv24_1_prescale
I0407 23:00:20.376165  5542 net.cpp:100] Creating Layer conv24_1_prescale
I0407 23:00:20.376174  5542 net.cpp:434] conv24_1_prescale <- conv24_1
I0407 23:00:20.376188  5542 net.cpp:395] conv24_1_prescale -> conv24_1 (in-place)
I0407 23:00:20.376384  5542 net.cpp:150] Setting up conv24_1_prescale
I0407 23:00:20.376397  5542 net.cpp:157] Top shape: 64 150 18 18 (3110400)
I0407 23:00:20.376402  5542 net.cpp:165] Memory required for data: 6390139136
I0407 23:00:20.376410  5542 layer_factory.hpp:77] Creating layer conv24_1_sTanH
I0407 23:00:20.376420  5542 net.cpp:100] Creating Layer conv24_1_sTanH
I0407 23:00:20.376428  5542 net.cpp:434] conv24_1_sTanH <- conv24_1
I0407 23:00:20.376440  5542 net.cpp:395] conv24_1_sTanH -> conv24_1 (in-place)
I0407 23:00:20.376680  5542 net.cpp:150] Setting up conv24_1_sTanH
I0407 23:00:20.376695  5542 net.cpp:157] Top shape: 64 150 18 18 (3110400)
I0407 23:00:20.376701  5542 net.cpp:165] Memory required for data: 6402580736
I0407 23:00:20.376708  5542 layer_factory.hpp:77] Creating layer conv24_1_postscale
I0407 23:00:20.376719  5542 net.cpp:100] Creating Layer conv24_1_postscale
I0407 23:00:20.376729  5542 net.cpp:434] conv24_1_postscale <- conv24_1
I0407 23:00:20.376737  5542 net.cpp:395] conv24_1_postscale -> conv24_1 (in-place)
I0407 23:00:20.376930  5542 net.cpp:150] Setting up conv24_1_postscale
I0407 23:00:20.376943  5542 net.cpp:157] Top shape: 64 150 18 18 (3110400)
I0407 23:00:20.376947  5542 net.cpp:165] Memory required for data: 6415022336
I0407 23:00:20.376956  5542 layer_factory.hpp:77] Creating layer pool24_1
I0407 23:00:20.376969  5542 net.cpp:100] Creating Layer pool24_1
I0407 23:00:20.376977  5542 net.cpp:434] pool24_1 <- conv24_1
I0407 23:00:20.376986  5542 net.cpp:408] pool24_1 -> pool24_1
I0407 23:00:20.377071  5542 net.cpp:150] Setting up pool24_1
I0407 23:00:20.377084  5542 net.cpp:157] Top shape: 64 150 9 9 (777600)
I0407 23:00:20.377089  5542 net.cpp:165] Memory required for data: 6418132736
I0407 23:00:20.377094  5542 layer_factory.hpp:77] Creating layer conv24_2
I0407 23:00:20.377109  5542 net.cpp:100] Creating Layer conv24_2
I0407 23:00:20.377117  5542 net.cpp:434] conv24_2 <- pool24_1
I0407 23:00:20.377130  5542 net.cpp:408] conv24_2 -> conv24_2
I0407 23:00:20.384011  5542 net.cpp:150] Setting up conv24_2
I0407 23:00:20.384037  5542 net.cpp:157] Top shape: 64 250 6 6 (576000)
I0407 23:00:20.384043  5542 net.cpp:165] Memory required for data: 6420436736
I0407 23:00:20.384054  5542 layer_factory.hpp:77] Creating layer conv24_2_prescale
I0407 23:00:20.384068  5542 net.cpp:100] Creating Layer conv24_2_prescale
I0407 23:00:20.384076  5542 net.cpp:434] conv24_2_prescale <- conv24_2
I0407 23:00:20.384089  5542 net.cpp:395] conv24_2_prescale -> conv24_2 (in-place)
I0407 23:00:20.384284  5542 net.cpp:150] Setting up conv24_2_prescale
I0407 23:00:20.384297  5542 net.cpp:157] Top shape: 64 250 6 6 (576000)
I0407 23:00:20.384302  5542 net.cpp:165] Memory required for data: 6422740736
I0407 23:00:20.384310  5542 layer_factory.hpp:77] Creating layer conv24_2_sTanH
I0407 23:00:20.384320  5542 net.cpp:100] Creating Layer conv24_2_sTanH
I0407 23:00:20.384326  5542 net.cpp:434] conv24_2_sTanH <- conv24_2
I0407 23:00:20.384338  5542 net.cpp:395] conv24_2_sTanH -> conv24_2 (in-place)
I0407 23:00:20.385329  5542 net.cpp:150] Setting up conv24_2_sTanH
I0407 23:00:20.385347  5542 net.cpp:157] Top shape: 64 250 6 6 (576000)
I0407 23:00:20.385354  5542 net.cpp:165] Memory required for data: 6425044736
I0407 23:00:20.385360  5542 layer_factory.hpp:77] Creating layer conv24_2_postscale
I0407 23:00:20.385373  5542 net.cpp:100] Creating Layer conv24_2_postscale
I0407 23:00:20.385382  5542 net.cpp:434] conv24_2_postscale <- conv24_2
I0407 23:00:20.385392  5542 net.cpp:395] conv24_2_postscale -> conv24_2 (in-place)
I0407 23:00:20.385588  5542 net.cpp:150] Setting up conv24_2_postscale
I0407 23:00:20.385602  5542 net.cpp:157] Top shape: 64 250 6 6 (576000)
I0407 23:00:20.385622  5542 net.cpp:165] Memory required for data: 6427348736
I0407 23:00:20.385633  5542 layer_factory.hpp:77] Creating layer pool24_2
I0407 23:00:20.385648  5542 net.cpp:100] Creating Layer pool24_2
I0407 23:00:20.385656  5542 net.cpp:434] pool24_2 <- conv24_2
I0407 23:00:20.385666  5542 net.cpp:408] pool24_2 -> pool24_2
I0407 23:00:20.385777  5542 net.cpp:150] Setting up pool24_2
I0407 23:00:20.385792  5542 net.cpp:157] Top shape: 64 250 3 3 (144000)
I0407 23:00:20.385797  5542 net.cpp:165] Memory required for data: 6427924736
I0407 23:00:20.385802  5542 layer_factory.hpp:77] Creating layer fc24_4_300
I0407 23:00:20.385812  5542 net.cpp:100] Creating Layer fc24_4_300
I0407 23:00:20.385818  5542 net.cpp:434] fc24_4_300 <- pool24_2
I0407 23:00:20.385829  5542 net.cpp:408] fc24_4_300 -> fc24_4
I0407 23:00:20.391381  5542 net.cpp:150] Setting up fc24_4_300
I0407 23:00:20.391398  5542 net.cpp:157] Top shape: 64 300 (19200)
I0407 23:00:20.391403  5542 net.cpp:165] Memory required for data: 6428001536
I0407 23:00:20.391424  5542 layer_factory.hpp:77] Creating layer fc24_4_prescale
I0407 23:00:20.391441  5542 net.cpp:100] Creating Layer fc24_4_prescale
I0407 23:00:20.391449  5542 net.cpp:434] fc24_4_prescale <- fc24_4
I0407 23:00:20.391458  5542 net.cpp:395] fc24_4_prescale -> fc24_4 (in-place)
I0407 23:00:20.391646  5542 net.cpp:150] Setting up fc24_4_prescale
I0407 23:00:20.391661  5542 net.cpp:157] Top shape: 64 300 (19200)
I0407 23:00:20.391666  5542 net.cpp:165] Memory required for data: 6428078336
I0407 23:00:20.391675  5542 layer_factory.hpp:77] Creating layer fc24_4_sTanH
I0407 23:00:20.391685  5542 net.cpp:100] Creating Layer fc24_4_sTanH
I0407 23:00:20.391691  5542 net.cpp:434] fc24_4_sTanH <- fc24_4
I0407 23:00:20.391700  5542 net.cpp:395] fc24_4_sTanH -> fc24_4 (in-place)
I0407 23:00:20.391966  5542 net.cpp:150] Setting up fc24_4_sTanH
I0407 23:00:20.391981  5542 net.cpp:157] Top shape: 64 300 (19200)
I0407 23:00:20.391988  5542 net.cpp:165] Memory required for data: 6428155136
I0407 23:00:20.391993  5542 layer_factory.hpp:77] Creating layer fc24_4_postscale
I0407 23:00:20.392004  5542 net.cpp:100] Creating Layer fc24_4_postscale
I0407 23:00:20.392011  5542 net.cpp:434] fc24_4_postscale <- fc24_4
I0407 23:00:20.392024  5542 net.cpp:395] fc24_4_postscale -> fc24_4 (in-place)
I0407 23:00:20.392221  5542 net.cpp:150] Setting up fc24_4_postscale
I0407 23:00:20.392233  5542 net.cpp:157] Top shape: 64 300 (19200)
I0407 23:00:20.392238  5542 net.cpp:165] Memory required for data: 6428231936
I0407 23:00:20.392246  5542 layer_factory.hpp:77] Creating layer drop24_4
I0407 23:00:20.392258  5542 net.cpp:100] Creating Layer drop24_4
I0407 23:00:20.392266  5542 net.cpp:434] drop24_4 <- fc24_4
I0407 23:00:20.392277  5542 net.cpp:395] drop24_4 -> fc24_4 (in-place)
I0407 23:00:20.392333  5542 net.cpp:150] Setting up drop24_4
I0407 23:00:20.392348  5542 net.cpp:157] Top shape: 64 300 (19200)
I0407 23:00:20.392354  5542 net.cpp:165] Memory required for data: 6428308736
I0407 23:00:20.392359  5542 layer_factory.hpp:77] Creating layer fc24_5_67
I0407 23:00:20.392369  5542 net.cpp:100] Creating Layer fc24_5_67
I0407 23:00:20.392375  5542 net.cpp:434] fc24_5_67 <- fc24_4
I0407 23:00:20.392385  5542 net.cpp:408] fc24_5_67 -> fc24_5
I0407 23:00:20.392731  5542 net.cpp:150] Setting up fc24_5_67
I0407 23:00:20.392745  5542 net.cpp:157] Top shape: 64 67 (4288)
I0407 23:00:20.392748  5542 net.cpp:165] Memory required for data: 6428325888
I0407 23:00:20.392760  5542 layer_factory.hpp:77] Creating layer softmax_24
I0407 23:00:20.392772  5542 net.cpp:100] Creating Layer softmax_24
I0407 23:00:20.392781  5542 net.cpp:434] softmax_24 <- fc24_5
I0407 23:00:20.392789  5542 net.cpp:408] softmax_24 -> softmax_24
I0407 23:00:20.393146  5542 net.cpp:150] Setting up softmax_24
I0407 23:00:20.393160  5542 net.cpp:157] Top shape: 64 67 (4288)
I0407 23:00:20.393167  5542 net.cpp:165] Memory required for data: 6428343040
I0407 23:00:20.393172  5542 layer_factory.hpp:77] Creating layer averaging
I0407 23:00:20.393187  5542 net.cpp:100] Creating Layer averaging
I0407 23:00:20.393208  5542 net.cpp:434] averaging <- softmax_0
I0407 23:00:20.393216  5542 net.cpp:434] averaging <- softmax_1
I0407 23:00:20.393225  5542 net.cpp:434] averaging <- softmax_2
…
