…
I0508 05:59:41.659226 28053 solver.cpp:93] Creating training net from train_net file: ./Prototxt/experiment_15/RTSD/AHE/trial_3/train.prototxt
I0508 05:59:41.659680 28053 net.cpp:58] Initializing net from parameters: 
state {
  phase: TRAIN
  level: 0
  stage: ""
}
layer {
  name: "data"
  type: "Data"
  top: "data"
  top: "label"
  include {
    phase: TRAIN
  }
  transform_param {
    scale: 0.0039215689
    mirror: false
    crop_size: 48
    mean_value: 133
    mean_value: 127
    mean_value: 126
  }
  data_param {
    source: "../local_data/lmdb/RTSD/AHE/train/lmdb"
    batch_size: 1024
    backend: LMDB
  }
}
layer {
  name: "conv1"
  type: "Convolution"
  bottom: "data"
  top: "conv1"
  convolution_param {
    num_output: 100
    pad: 0
    kernel_size: 7
    group: 1
    stride: 1
    weight_filler {
      type: "xavier"
    }
  }
}
layer {
  name: "conv1_prescale"
  type: "Scale"
  bottom: "conv1"
  top: "conv1"
  param {
    lr_mult: 0
    decay_mult: 0
  }
  scale_param {
    filler {
      value: 0.6666
    }
    bias_term: false
  }
}
layer {
  name: "conv1_sTanH"
  type: "TanH"
  bottom: "conv1"
  top: "conv1"
}
layer {
  name: "conv1_postscale"
  type: "Scale"
  bottom: "conv1"
  top: "conv1"
  param {
    lr_mult: 0
    decay_mult: 0
  }
  scale_param {
    filler {
      value: 1.7159
    }
    bias_term: false
  }
}
layer {
  name: "pool1"
  type: "Pooling"
  bottom: "conv1"
  top: "pool1"
  pooling_param {
    pool: MAX
    kernel_size: 2
    stride: 2
  }
}
layer {
  name: "conv2"
  type: "Convolution"
  bottom: "pool1"
  top: "conv2"
  convolution_param {
    num_output: 150
    pad: 0
    kernel_size: 4
    group: 2
    stride: 1
    weight_filler {
      type: "xavier"
    }
  }
}
layer {
  name: "conv2_prescale"
  type: "Scale"
  bottom: "conv2"
  top: "conv2"
  param {
    lr_mult: 0
    decay_mult: 0
  }
  scale_param {
    filler {
      value: 0.6666
    }
    bias_term: false
  }
}
layer {
  name: "conv2_sTanH"
  type: "TanH"
  bottom: "conv2"
  top: "conv2"
}
layer {
  name: "conv2_postscale"
  type: "Scale"
  bottom: "conv2"
  top: "conv2"
  param {
    lr_mult: 0
    decay_mult: 0
  }
  scale_param {
    filler {
      value: 1.7159
    }
    bias_term: false
  }
}
layer {
  name: "pool2"
  type: "Pooling"
  bottom: "conv2"
  top: "pool2"
  pooling_param {
    pool: MAX
    kernel_size: 2
    stride: 2
  }
}
layer {
  name: "conv3"
  type: "Convolution"
  bottom: "pool2"
  top: "conv3"
  convolution_param {
    num_output: 250
    pad: 0
    kernel_size: 4
    group: 2
    stride: 1
    weight_filler {
      type: "xavier"
    }
  }
}
layer {
  name: "conv3_prescale"
  type: "Scale"
  bottom: "conv3"
  top: "conv3"
  param {
    lr_mult: 0
    decay_mult: 0
  }
  scale_param {
    filler {
      value: 0.6666
    }
    bias_term: false
  }
}
layer {
  name: "conv3_sTanH"
  type: "TanH"
  bottom: "conv3"
  top: "conv3"
}
layer {
  name: "conv3_postscale"
  type: "Scale"
  bottom: "conv3"
  top: "conv3"
  param {
    lr_mult: 0
    decay_mult: 0
  }
  scale_param {
    filler {
      value: 1.7159
    }
    bias_term: false
  }
}
layer {
  name: "pool3"
  type: "Pooling"
  bottom: "conv3"
  top: "pool3"
  pooling_param {
    pool: MAX
    kernel_size: 2
    stride: 2
  }
}
layer {
  name: "fc4_300"
  type: "InnerProduct"
  bottom: "pool3"
  top: "fc4_300"
  inner_product_param {
    num_output: 300
    weight_filler {
      type: "xavier"
    }
  }
}
layer {
  name: "fc4_prescale"
  type: "Scale"
  bottom: "fc4_300"
  top: "fc4_300"
  param {
    lr_mult: 0
    decay_mult: 0
  }
  scale_param {
    filler {
      value: 0.6666
    }
    bias_term: false
  }
}
layer {
  name: "fc4_sTanH"
  type: "TanH"
  bottom: "fc4_300"
  top: "fc4_300"
}
layer {
  name: "fc4_postscale"
  type: "Scale"
  bottom: "fc4_300"
  top: "fc4_300"
  param {
    lr_mult: 0
    decay_mult: 0
  }
  scale_param {
    filler {
      value: 1.7159
    }
    bias_term: false
  }
}
layer {
  name: "fc5_116"
  type: "InnerProduct"
  bottom: "fc4_300"
  top: "fc5_classes"
  inner_product_param {
    num_output: 116
    weight_filler {
      type: "xavier"
    }
  }
}
layer {
  name: "softmax"
  type: "Softmax"
  bottom: "fc5_classes"
  top: "softmax"
}
layer {
  name: "loss"
  type: "MultinomialLogisticLoss"
  bottom: "softmax"
  bottom: "label"
  top: "loss"
}
layer {
  name: "accuracy_1"
  type: "Accuracy"
  bottom: "fc5_classes"
  bottom: "label"
  top: "accuracy_1"
  accuracy_param {
    top_k: 1
  }
}
layer {
  name: "accuracy_5"
  type: "Accuracy"
  bottom: "fc5_classes"
  bottom: "label"
  top: "accuracy_5"
  accuracy_param {
    top_k: 5
  }
}
layer {
  name: "silence"
  type: "Silence"
  bottom: "accuracy_1"
  bottom: "accuracy_5"
}
I0508 05:59:41.659847 28053 layer_factory.hpp:77] Creating layer data
I0508 05:59:41.660939 28053 net.cpp:100] Creating Layer data
I0508 05:59:41.660956 28053 net.cpp:408] data -> data
I0508 05:59:41.660977 28053 net.cpp:408] data -> label
I0508 05:59:41.666071 28176 db_lmdb.cpp:35] Opened lmdb ../local_data/lmdb/RTSD/AHE/train/lmdb
I0508 05:59:41.683998 28053 data_layer.cpp:41] output data size: 1024,3,48,48
I0508 05:59:41.734460 28053 net.cpp:150] Setting up data
I0508 05:59:41.734489 28053 net.cpp:157] Top shape: 1024 3 48 48 (7077888)
I0508 05:59:41.734494 28053 net.cpp:157] Top shape: 1024 (1024)
I0508 05:59:41.734498 28053 net.cpp:165] Memory required for data: 28315648
I0508 05:59:41.734508 28053 layer_factory.hpp:77] Creating layer label_data_1_split
I0508 05:59:41.734524 28053 net.cpp:100] Creating Layer label_data_1_split
I0508 05:59:41.734531 28053 net.cpp:434] label_data_1_split <- label
I0508 05:59:41.734544 28053 net.cpp:408] label_data_1_split -> label_data_1_split_0
I0508 05:59:41.734560 28053 net.cpp:408] label_data_1_split -> label_data_1_split_1
I0508 05:59:41.734567 28053 net.cpp:408] label_data_1_split -> label_data_1_split_2
I0508 05:59:41.734653 28053 net.cpp:150] Setting up label_data_1_split
I0508 05:59:41.734664 28053 net.cpp:157] Top shape: 1024 (1024)
I0508 05:59:41.734668 28053 net.cpp:157] Top shape: 1024 (1024)
I0508 05:59:41.734671 28053 net.cpp:157] Top shape: 1024 (1024)
I0508 05:59:41.734674 28053 net.cpp:165] Memory required for data: 28327936
I0508 05:59:41.734678 28053 layer_factory.hpp:77] Creating layer conv1
I0508 05:59:41.734695 28053 net.cpp:100] Creating Layer conv1
I0508 05:59:41.734700 28053 net.cpp:434] conv1 <- data
I0508 05:59:41.734709 28053 net.cpp:408] conv1 -> conv1
I0508 05:59:42.121345 28053 net.cpp:150] Setting up conv1
I0508 05:59:42.121410 28053 net.cpp:157] Top shape: 1024 100 42 42 (180633600)
I0508 05:59:42.121438 28053 net.cpp:165] Memory required for data: 750862336
I0508 05:59:42.121479 28053 layer_factory.hpp:77] Creating layer conv1_prescale
I0508 05:59:42.121510 28053 net.cpp:100] Creating Layer conv1_prescale
I0508 05:59:42.121529 28053 net.cpp:434] conv1_prescale <- conv1
I0508 05:59:42.121563 28053 net.cpp:395] conv1_prescale -> conv1 (in-place)
I0508 05:59:42.121742 28053 net.cpp:150] Setting up conv1_prescale
I0508 05:59:42.121780 28053 net.cpp:157] Top shape: 1024 100 42 42 (180633600)
I0508 05:59:42.121804 28053 net.cpp:165] Memory required for data: 1473396736
I0508 05:59:42.121834 28053 layer_factory.hpp:77] Creating layer conv1_sTanH
I0508 05:59:42.121862 28053 net.cpp:100] Creating Layer conv1_sTanH
I0508 05:59:42.121881 28053 net.cpp:434] conv1_sTanH <- conv1
I0508 05:59:42.121899 28053 net.cpp:395] conv1_sTanH -> conv1 (in-place)
I0508 05:59:42.122201 28053 net.cpp:150] Setting up conv1_sTanH
I0508 05:59:42.122251 28053 net.cpp:157] Top shape: 1024 100 42 42 (180633600)
I0508 05:59:42.122303 28053 net.cpp:165] Memory required for data: 2195931136
I0508 05:59:42.122316 28053 layer_factory.hpp:77] Creating layer conv1_postscale
I0508 05:59:42.122334 28053 net.cpp:100] Creating Layer conv1_postscale
I0508 05:59:42.122346 28053 net.cpp:434] conv1_postscale <- conv1
I0508 05:59:42.122364 28053 net.cpp:395] conv1_postscale -> conv1 (in-place)
I0508 05:59:42.122478 28053 net.cpp:150] Setting up conv1_postscale
I0508 05:59:42.122491 28053 net.cpp:157] Top shape: 1024 100 42 42 (180633600)
I0508 05:59:42.122503 28053 net.cpp:165] Memory required for data: 2918465536
I0508 05:59:42.122519 28053 layer_factory.hpp:77] Creating layer pool1
I0508 05:59:42.122534 28053 net.cpp:100] Creating Layer pool1
I0508 05:59:42.122540 28053 net.cpp:434] pool1 <- conv1
I0508 05:59:42.122556 28053 net.cpp:408] pool1 -> pool1
I0508 05:59:42.122615 28053 net.cpp:150] Setting up pool1
I0508 05:59:42.122627 28053 net.cpp:157] Top shape: 1024 100 21 21 (45158400)
I0508 05:59:42.122638 28053 net.cpp:165] Memory required for data: 3099099136
I0508 05:59:42.122648 28053 layer_factory.hpp:77] Creating layer conv2
I0508 05:59:42.122669 28053 net.cpp:100] Creating Layer conv2
I0508 05:59:42.122675 28053 net.cpp:434] conv2 <- pool1
I0508 05:59:42.122692 28053 net.cpp:408] conv2 -> conv2
I0508 05:59:42.130192 28053 net.cpp:150] Setting up conv2
I0508 05:59:42.130213 28053 net.cpp:157] Top shape: 1024 150 18 18 (49766400)
I0508 05:59:42.130219 28053 net.cpp:165] Memory required for data: 3298164736
I0508 05:59:42.130235 28053 layer_factory.hpp:77] Creating layer conv2_prescale
I0508 05:59:42.130250 28053 net.cpp:100] Creating Layer conv2_prescale
I0508 05:59:42.130257 28053 net.cpp:434] conv2_prescale <- conv2
I0508 05:59:42.130267 28053 net.cpp:395] conv2_prescale -> conv2 (in-place)
I0508 05:59:42.130379 28053 net.cpp:150] Setting up conv2_prescale
I0508 05:59:42.130393 28053 net.cpp:157] Top shape: 1024 150 18 18 (49766400)
I0508 05:59:42.130398 28053 net.cpp:165] Memory required for data: 3497230336
I0508 05:59:42.130406 28053 layer_factory.hpp:77] Creating layer conv2_sTanH
I0508 05:59:42.130415 28053 net.cpp:100] Creating Layer conv2_sTanH
I0508 05:59:42.130420 28053 net.cpp:434] conv2_sTanH <- conv2
I0508 05:59:42.130429 28053 net.cpp:395] conv2_sTanH -> conv2 (in-place)
I0508 05:59:42.130619 28053 net.cpp:150] Setting up conv2_sTanH
I0508 05:59:42.130633 28053 net.cpp:157] Top shape: 1024 150 18 18 (49766400)
I0508 05:59:42.130638 28053 net.cpp:165] Memory required for data: 3696295936
I0508 05:59:42.130643 28053 layer_factory.hpp:77] Creating layer conv2_postscale
I0508 05:59:42.130655 28053 net.cpp:100] Creating Layer conv2_postscale
I0508 05:59:42.130661 28053 net.cpp:434] conv2_postscale <- conv2
I0508 05:59:42.130669 28053 net.cpp:395] conv2_postscale -> conv2 (in-place)
I0508 05:59:42.130774 28053 net.cpp:150] Setting up conv2_postscale
I0508 05:59:42.130786 28053 net.cpp:157] Top shape: 1024 150 18 18 (49766400)
I0508 05:59:42.130792 28053 net.cpp:165] Memory required for data: 3895361536
I0508 05:59:42.130800 28053 layer_factory.hpp:77] Creating layer pool2
I0508 05:59:42.130810 28053 net.cpp:100] Creating Layer pool2
I0508 05:59:42.130815 28053 net.cpp:434] pool2 <- conv2
I0508 05:59:42.130825 28053 net.cpp:408] pool2 -> pool2
I0508 05:59:42.130877 28053 net.cpp:150] Setting up pool2
I0508 05:59:42.130889 28053 net.cpp:157] Top shape: 1024 150 9 9 (12441600)
I0508 05:59:42.130894 28053 net.cpp:165] Memory required for data: 3945127936
I0508 05:59:42.130900 28053 layer_factory.hpp:77] Creating layer conv3
I0508 05:59:42.130913 28053 net.cpp:100] Creating Layer conv3
I0508 05:59:42.130918 28053 net.cpp:434] conv3 <- pool2
I0508 05:59:42.130928 28053 net.cpp:408] conv3 -> conv3
I0508 05:59:42.137066 28053 net.cpp:150] Setting up conv3
I0508 05:59:42.137086 28053 net.cpp:157] Top shape: 1024 250 6 6 (9216000)
I0508 05:59:42.137094 28053 net.cpp:165] Memory required for data: 3981991936
I0508 05:59:42.137109 28053 layer_factory.hpp:77] Creating layer conv3_prescale
I0508 05:59:42.137122 28053 net.cpp:100] Creating Layer conv3_prescale
I0508 05:59:42.137147 28053 net.cpp:434] conv3_prescale <- conv3
I0508 05:59:42.137161 28053 net.cpp:395] conv3_prescale -> conv3 (in-place)
I0508 05:59:42.137265 28053 net.cpp:150] Setting up conv3_prescale
I0508 05:59:42.137279 28053 net.cpp:157] Top shape: 1024 250 6 6 (9216000)
I0508 05:59:42.137284 28053 net.cpp:165] Memory required for data: 4018855936
I0508 05:59:42.137292 28053 layer_factory.hpp:77] Creating layer conv3_sTanH
I0508 05:59:42.137301 28053 net.cpp:100] Creating Layer conv3_sTanH
I0508 05:59:42.137307 28053 net.cpp:434] conv3_sTanH <- conv3
I0508 05:59:42.137315 28053 net.cpp:395] conv3_sTanH -> conv3 (in-place)
I0508 05:59:42.137508 28053 net.cpp:150] Setting up conv3_sTanH
I0508 05:59:42.137523 28053 net.cpp:157] Top shape: 1024 250 6 6 (9216000)
I0508 05:59:42.137528 28053 net.cpp:165] Memory required for data: 4055719936
I0508 05:59:42.137534 28053 layer_factory.hpp:77] Creating layer conv3_postscale
I0508 05:59:42.137545 28053 net.cpp:100] Creating Layer conv3_postscale
I0508 05:59:42.137552 28053 net.cpp:434] conv3_postscale <- conv3
I0508 05:59:42.137560 28053 net.cpp:395] conv3_postscale -> conv3 (in-place)
I0508 05:59:42.137668 28053 net.cpp:150] Setting up conv3_postscale
I0508 05:59:42.137681 28053 net.cpp:157] Top shape: 1024 250 6 6 (9216000)
I0508 05:59:42.137686 28053 net.cpp:165] Memory required for data: 4092583936
I0508 05:59:42.137694 28053 layer_factory.hpp:77] Creating layer pool3
I0508 05:59:42.137707 28053 net.cpp:100] Creating Layer pool3
I0508 05:59:42.137713 28053 net.cpp:434] pool3 <- conv3
I0508 05:59:42.137722 28053 net.cpp:408] pool3 -> pool3
I0508 05:59:42.137773 28053 net.cpp:150] Setting up pool3
I0508 05:59:42.137784 28053 net.cpp:157] Top shape: 1024 250 3 3 (2304000)
I0508 05:59:42.137789 28053 net.cpp:165] Memory required for data: 4101799936
I0508 05:59:42.137794 28053 layer_factory.hpp:77] Creating layer fc4_300
I0508 05:59:42.137804 28053 net.cpp:100] Creating Layer fc4_300
I0508 05:59:42.137809 28053 net.cpp:434] fc4_300 <- pool3
I0508 05:59:42.137818 28053 net.cpp:408] fc4_300 -> fc4_300
I0508 05:59:42.144505 28053 net.cpp:150] Setting up fc4_300
I0508 05:59:42.144552 28053 net.cpp:157] Top shape: 1024 300 (307200)
I0508 05:59:42.144577 28053 net.cpp:165] Memory required for data: 4103028736
I0508 05:59:42.144601 28053 layer_factory.hpp:77] Creating layer fc4_prescale
I0508 05:59:42.144629 28053 net.cpp:100] Creating Layer fc4_prescale
I0508 05:59:42.144650 28053 net.cpp:434] fc4_prescale <- fc4_300
I0508 05:59:42.144664 28053 net.cpp:395] fc4_prescale -> fc4_300 (in-place)
I0508 05:59:42.144774 28053 net.cpp:150] Setting up fc4_prescale
I0508 05:59:42.144786 28053 net.cpp:157] Top shape: 1024 300 (307200)
I0508 05:59:42.144793 28053 net.cpp:165] Memory required for data: 4104257536
I0508 05:59:42.144800 28053 layer_factory.hpp:77] Creating layer fc4_sTanH
I0508 05:59:42.144809 28053 net.cpp:100] Creating Layer fc4_sTanH
I0508 05:59:42.144815 28053 net.cpp:434] fc4_sTanH <- fc4_300
I0508 05:59:42.144824 28053 net.cpp:395] fc4_sTanH -> fc4_300 (in-place)
I0508 05:59:42.147491 28053 net.cpp:150] Setting up fc4_sTanH
I0508 05:59:42.147594 28053 net.cpp:157] Top shape: 1024 300 (307200)
I0508 05:59:42.147686 28053 net.cpp:165] Memory required for data: 4105486336
I0508 05:59:42.147783 28053 layer_factory.hpp:77] Creating layer fc4_postscale
I0508 05:59:42.147873 28053 net.cpp:100] Creating Layer fc4_postscale
I0508 05:59:42.147923 28053 net.cpp:434] fc4_postscale <- fc4_300
I0508 05:59:42.147959 28053 net.cpp:395] fc4_postscale -> fc4_300 (in-place)
I0508 05:59:42.148131 28053 net.cpp:150] Setting up fc4_postscale
I0508 05:59:42.148236 28053 net.cpp:157] Top shape: 1024 300 (307200)
I0508 05:59:42.148332 28053 net.cpp:165] Memory required for data: 4106715136
I0508 05:59:42.148437 28053 layer_factory.hpp:77] Creating layer fc5_116
I0508 05:59:42.148533 28053 net.cpp:100] Creating Layer fc5_116
I0508 05:59:42.148608 28053 net.cpp:434] fc5_116 <- fc4_300
I0508 05:59:42.148679 28053 net.cpp:408] fc5_116 -> fc5_classes
I0508 05:59:42.150753 28053 net.cpp:150] Setting up fc5_116
I0508 05:59:42.150796 28053 net.cpp:157] Top shape: 1024 116 (118784)
I0508 05:59:42.150823 28053 net.cpp:165] Memory required for data: 4107190272
I0508 05:59:42.150857 28053 layer_factory.hpp:77] Creating layer fc5_classes_fc5_116_0_split
I0508 05:59:42.150888 28053 net.cpp:100] Creating Layer fc5_classes_fc5_116_0_split
I0508 05:59:42.150914 28053 net.cpp:434] fc5_classes_fc5_116_0_split <- fc5_classes
I0508 05:59:42.150941 28053 net.cpp:408] fc5_classes_fc5_116_0_split -> fc5_classes_fc5_116_0_split_0
I0508 05:59:42.150971 28053 net.cpp:408] fc5_classes_fc5_116_0_split -> fc5_classes_fc5_116_0_split_1
I0508 05:59:42.151005 28053 net.cpp:408] fc5_classes_fc5_116_0_split -> fc5_classes_fc5_116_0_split_2
I0508 05:59:42.151106 28053 net.cpp:150] Setting up fc5_classes_fc5_116_0_split
I0508 05:59:42.151141 28053 net.cpp:157] Top shape: 1024 116 (118784)
I0508 05:59:42.151165 28053 net.cpp:157] Top shape: 1024 116 (118784)
I0508 05:59:42.151188 28053 net.cpp:157] Top shape: 1024 116 (118784)
I0508 05:59:42.151211 28053 net.cpp:165] Memory required for data: 4108615680
I0508 05:59:42.151232 28053 layer_factory.hpp:77] Creating layer softmax
I0508 05:59:42.151257 28053 net.cpp:100] Creating Layer softmax
I0508 05:59:42.151278 28053 net.cpp:434] softmax <- fc5_classes_fc5_116_0_split_0
I0508 05:59:42.151305 28053 net.cpp:408] softmax -> softmax
I0508 05:59:42.151661 28053 net.cpp:150] Setting up softmax
I0508 05:59:42.151680 28053 net.cpp:157] Top shape: 1024 116 (118784)
I0508 05:59:42.151686 28053 net.cpp:165] Memory required for data: 4109090816
I0508 05:59:42.151692 28053 layer_factory.hpp:77] Creating layer loss
I0508 05:59:42.151703 28053 net.cpp:100] Creating Layer loss
I0508 05:59:42.151710 28053 net.cpp:434] loss <- softmax
I0508 05:59:42.151717 28053 net.cpp:434] loss <- label_data_1_split_0
I0508 05:59:42.151726 28053 net.cpp:408] loss -> loss
…
