…
I0528 00:54:06.000887 19027 solver.cpp:81] Creating training net from train_net file: ./Prototxt/experiment_20/RTSD/AHE/trial_5/train.prototxt
I0528 00:54:06.001420 19027 net.cpp:58] Initializing net from parameters: 
state {
  phase: TRAIN
  level: 0
  stage: ""
}
layer {
  name: "data"
  type: "Data"
  top: "data"
  top: "label"
  include {
    phase: TRAIN
  }
  transform_param {
    scale: 0.0039215689
    mirror: false
    crop_size: 48
    mean_value: 133
    mean_value: 127
    mean_value: 126
  }
  data_param {
    source: "../local_data/lmdb/RTSD/AHE/train/lmdb"
    batch_size: 1024
    backend: LMDB
  }
}
layer {
  name: "conv1"
  type: "Convolution"
  bottom: "data"
  top: "conv1"
  convolution_param {
    num_output: 100
    pad: 0
    kernel_size: 7
    group: 1
    stride: 1
    weight_filler {
      type: "xavier"
    }
  }
}
layer {
  name: "conv1_relu"
  type: "ReLU"
  bottom: "conv1"
  top: "conv1"
}
layer {
  name: "pool1"
  type: "Pooling"
  bottom: "conv1"
  top: "pool1"
  pooling_param {
    pool: MAX
    kernel_size: 2
    stride: 2
  }
}
layer {
  name: "conv2"
  type: "Convolution"
  bottom: "pool1"
  top: "conv2"
  convolution_param {
    num_output: 150
    pad: 0
    kernel_size: 4
    group: 1
    stride: 1
    weight_filler {
      type: "xavier"
    }
  }
}
layer {
  name: "conv2_relu"
  type: "ReLU"
  bottom: "conv2"
  top: "conv2"
}
layer {
  name: "pool2"
  type: "Pooling"
  bottom: "conv2"
  top: "pool2"
  pooling_param {
    pool: MAX
    kernel_size: 2
    stride: 2
  }
}
layer {
  name: "conv3"
  type: "Convolution"
  bottom: "pool2"
  top: "conv3"
  convolution_param {
    num_output: 250
    pad: 0
    kernel_size: 4
    group: 1
    stride: 1
    weight_filler {
      type: "xavier"
    }
  }
}
layer {
  name: "conv3_relu"
  type: "ReLU"
  bottom: "conv3"
  top: "conv3"
}
layer {
  name: "pool3"
  type: "Pooling"
  bottom: "conv3"
  top: "pool3"
  pooling_param {
    pool: MAX
    kernel_size: 2
    stride: 2
  }
}
layer {
  name: "fc4_300"
  type: "InnerProduct"
  bottom: "pool3"
  top: "fc4_300"
  inner_product_param {
    num_output: 300
    weight_filler {
      type: "xavier"
    }
  }
}
layer {
  name: "fc4_relu"
  type: "ReLU"
  bottom: "fc4_300"
  top: "fc4_300"
}
layer {
  name: "fc5_116"
  type: "InnerProduct"
  bottom: "fc4_300"
  top: "fc5_classes"
  inner_product_param {
    num_output: 116
    weight_filler {
      type: "xavier"
    }
  }
}
layer {
  name: "softmax"
  type: "Softmax"
  bottom: "fc5_classes"
  top: "softmax"
}
layer {
  name: "loss"
  type: "MultinomialLogisticLoss"
  bottom: "softmax"
  bottom: "label"
  top: "loss"
}
layer {
  name: "accuracy_1"
  type: "Accuracy"
  bottom: "fc5_classes"
  bottom: "label"
  top: "accuracy_1"
  accuracy_param {
    top_k: 1
  }
}
layer {
  name: "accuracy_5"
  type: "Accuracy"
  bottom: "fc5_classes"
  bottom: "label"
  top: "accuracy_5"
  accuracy_param {
    top_k: 5
  }
}
layer {
  name: "silence"
  type: "Silence"
  bottom: "accuracy_1"
  bottom: "accuracy_5"
}
I0528 00:54:06.001555 19027 layer_factory.hpp:77] Creating layer data
I0528 00:54:06.002601 19027 net.cpp:100] Creating Layer data
I0528 00:54:06.002631 19027 net.cpp:408] data -> data
I0528 00:54:06.002657 19027 net.cpp:408] data -> label
I0528 00:54:06.003803 19058 db_lmdb.cpp:35] Opened lmdb ../local_data/lmdb/RTSD/AHE/train/lmdb
I0528 00:54:06.020447 19027 data_layer.cpp:41] output data size: 1024,3,48,48
I0528 00:54:06.076066 19027 net.cpp:150] Setting up data
I0528 00:54:06.076131 19027 net.cpp:157] Top shape: 1024 3 48 48 (7077888)
I0528 00:54:06.076138 19027 net.cpp:157] Top shape: 1024 (1024)
I0528 00:54:06.076143 19027 net.cpp:165] Memory required for data: 28315648
I0528 00:54:06.076153 19027 layer_factory.hpp:77] Creating layer label_data_1_split
I0528 00:54:06.076169 19027 net.cpp:100] Creating Layer label_data_1_split
I0528 00:54:06.076179 19027 net.cpp:434] label_data_1_split <- label
I0528 00:54:06.076195 19027 net.cpp:408] label_data_1_split -> label_data_1_split_0
I0528 00:54:06.076210 19027 net.cpp:408] label_data_1_split -> label_data_1_split_1
I0528 00:54:06.076221 19027 net.cpp:408] label_data_1_split -> label_data_1_split_2
I0528 00:54:06.076285 19027 net.cpp:150] Setting up label_data_1_split
I0528 00:54:06.076298 19027 net.cpp:157] Top shape: 1024 (1024)
I0528 00:54:06.076305 19027 net.cpp:157] Top shape: 1024 (1024)
I0528 00:54:06.076314 19027 net.cpp:157] Top shape: 1024 (1024)
I0528 00:54:06.076320 19027 net.cpp:165] Memory required for data: 28327936
I0528 00:54:06.076330 19027 layer_factory.hpp:77] Creating layer conv1
I0528 00:54:06.076349 19027 net.cpp:100] Creating Layer conv1
I0528 00:54:06.076360 19027 net.cpp:434] conv1 <- data
I0528 00:54:06.076370 19027 net.cpp:408] conv1 -> conv1
I0528 00:54:06.378316 19027 net.cpp:150] Setting up conv1
I0528 00:54:06.378350 19027 net.cpp:157] Top shape: 1024 100 42 42 (180633600)
I0528 00:54:06.378356 19027 net.cpp:165] Memory required for data: 750862336
I0528 00:54:06.378372 19027 layer_factory.hpp:77] Creating layer conv1_relu
I0528 00:54:06.378382 19027 net.cpp:100] Creating Layer conv1_relu
I0528 00:54:06.378402 19027 net.cpp:434] conv1_relu <- conv1
I0528 00:54:06.378412 19027 net.cpp:395] conv1_relu -> conv1 (in-place)
I0528 00:54:06.378603 19027 net.cpp:150] Setting up conv1_relu
I0528 00:54:06.378619 19027 net.cpp:157] Top shape: 1024 100 42 42 (180633600)
I0528 00:54:06.378625 19027 net.cpp:165] Memory required for data: 1473396736
I0528 00:54:06.378631 19027 layer_factory.hpp:77] Creating layer pool1
I0528 00:54:06.378646 19027 net.cpp:100] Creating Layer pool1
I0528 00:54:06.378656 19027 net.cpp:434] pool1 <- conv1
I0528 00:54:06.378664 19027 net.cpp:408] pool1 -> pool1
I0528 00:54:06.378718 19027 net.cpp:150] Setting up pool1
I0528 00:54:06.378731 19027 net.cpp:157] Top shape: 1024 100 21 21 (45158400)
I0528 00:54:06.378736 19027 net.cpp:165] Memory required for data: 1654030336
I0528 00:54:06.378741 19027 layer_factory.hpp:77] Creating layer conv2
I0528 00:54:06.378753 19027 net.cpp:100] Creating Layer conv2
I0528 00:54:06.378763 19027 net.cpp:434] conv2 <- pool1
I0528 00:54:06.378772 19027 net.cpp:408] conv2 -> conv2
I0528 00:54:06.381904 19027 net.cpp:150] Setting up conv2
I0528 00:54:06.381934 19027 net.cpp:157] Top shape: 1024 150 18 18 (49766400)
I0528 00:54:06.381939 19027 net.cpp:165] Memory required for data: 1853095936
I0528 00:54:06.381953 19027 layer_factory.hpp:77] Creating layer conv2_relu
I0528 00:54:06.381963 19027 net.cpp:100] Creating Layer conv2_relu
I0528 00:54:06.381969 19027 net.cpp:434] conv2_relu <- conv2
I0528 00:54:06.381978 19027 net.cpp:395] conv2_relu -> conv2 (in-place)
I0528 00:54:06.382155 19027 net.cpp:150] Setting up conv2_relu
I0528 00:54:06.382171 19027 net.cpp:157] Top shape: 1024 150 18 18 (49766400)
I0528 00:54:06.382177 19027 net.cpp:165] Memory required for data: 2052161536
I0528 00:54:06.382189 19027 layer_factory.hpp:77] Creating layer pool2
I0528 00:54:06.382200 19027 net.cpp:100] Creating Layer pool2
I0528 00:54:06.382208 19027 net.cpp:434] pool2 <- conv2
I0528 00:54:06.382216 19027 net.cpp:408] pool2 -> pool2
I0528 00:54:06.382264 19027 net.cpp:150] Setting up pool2
I0528 00:54:06.382287 19027 net.cpp:157] Top shape: 1024 150 9 9 (12441600)
I0528 00:54:06.382293 19027 net.cpp:165] Memory required for data: 2101927936
I0528 00:54:06.382298 19027 layer_factory.hpp:77] Creating layer conv3
I0528 00:54:06.382318 19027 net.cpp:100] Creating Layer conv3
I0528 00:54:06.382328 19027 net.cpp:434] conv3 <- pool2
I0528 00:54:06.382336 19027 net.cpp:408] conv3 -> conv3
I0528 00:54:06.388646 19027 net.cpp:150] Setting up conv3
I0528 00:54:06.388672 19027 net.cpp:157] Top shape: 1024 250 6 6 (9216000)
I0528 00:54:06.388679 19027 net.cpp:165] Memory required for data: 2138791936
I0528 00:54:06.388720 19027 layer_factory.hpp:77] Creating layer conv3_relu
I0528 00:54:06.388736 19027 net.cpp:100] Creating Layer conv3_relu
I0528 00:54:06.388746 19027 net.cpp:434] conv3_relu <- conv3
I0528 00:54:06.388758 19027 net.cpp:395] conv3_relu -> conv3 (in-place)
I0528 00:54:06.389251 19027 net.cpp:150] Setting up conv3_relu
I0528 00:54:06.389269 19027 net.cpp:157] Top shape: 1024 250 6 6 (9216000)
I0528 00:54:06.389277 19027 net.cpp:165] Memory required for data: 2175655936
I0528 00:54:06.389283 19027 layer_factory.hpp:77] Creating layer pool3
I0528 00:54:06.389297 19027 net.cpp:100] Creating Layer pool3
I0528 00:54:06.389303 19027 net.cpp:434] pool3 <- conv3
I0528 00:54:06.389312 19027 net.cpp:408] pool3 -> pool3
I0528 00:54:06.389363 19027 net.cpp:150] Setting up pool3
I0528 00:54:06.389376 19027 net.cpp:157] Top shape: 1024 250 3 3 (2304000)
I0528 00:54:06.389382 19027 net.cpp:165] Memory required for data: 2184871936
I0528 00:54:06.389389 19027 layer_factory.hpp:77] Creating layer fc4_300
I0528 00:54:06.389400 19027 net.cpp:100] Creating Layer fc4_300
I0528 00:54:06.389406 19027 net.cpp:434] fc4_300 <- pool3
I0528 00:54:06.389415 19027 net.cpp:408] fc4_300 -> fc4_300
I0528 00:54:06.395004 19027 net.cpp:150] Setting up fc4_300
I0528 00:54:06.395030 19027 net.cpp:157] Top shape: 1024 300 (307200)
I0528 00:54:06.395035 19027 net.cpp:165] Memory required for data: 2186100736
I0528 00:54:06.395043 19027 layer_factory.hpp:77] Creating layer fc4_relu
I0528 00:54:06.395052 19027 net.cpp:100] Creating Layer fc4_relu
I0528 00:54:06.395058 19027 net.cpp:434] fc4_relu <- fc4_300
I0528 00:54:06.395068 19027 net.cpp:395] fc4_relu -> fc4_300 (in-place)
I0528 00:54:06.395292 19027 net.cpp:150] Setting up fc4_relu
I0528 00:54:06.395309 19027 net.cpp:157] Top shape: 1024 300 (307200)
I0528 00:54:06.395316 19027 net.cpp:165] Memory required for data: 2187329536
I0528 00:54:06.395323 19027 layer_factory.hpp:77] Creating layer fc5_116
I0528 00:54:06.395334 19027 net.cpp:100] Creating Layer fc5_116
I0528 00:54:06.395341 19027 net.cpp:434] fc5_116 <- fc4_300
I0528 00:54:06.395351 19027 net.cpp:408] fc5_116 -> fc5_classes
I0528 00:54:06.396534 19027 net.cpp:150] Setting up fc5_116
I0528 00:54:06.396548 19027 net.cpp:157] Top shape: 1024 116 (118784)
I0528 00:54:06.396553 19027 net.cpp:165] Memory required for data: 2187804672
I0528 00:54:06.396562 19027 layer_factory.hpp:77] Creating layer fc5_classes_fc5_116_0_split
I0528 00:54:06.396571 19027 net.cpp:100] Creating Layer fc5_classes_fc5_116_0_split
I0528 00:54:06.396579 19027 net.cpp:434] fc5_classes_fc5_116_0_split <- fc5_classes
I0528 00:54:06.396590 19027 net.cpp:408] fc5_classes_fc5_116_0_split -> fc5_classes_fc5_116_0_split_0
I0528 00:54:06.396602 19027 net.cpp:408] fc5_classes_fc5_116_0_split -> fc5_classes_fc5_116_0_split_1
I0528 00:54:06.396617 19027 net.cpp:408] fc5_classes_fc5_116_0_split -> fc5_classes_fc5_116_0_split_2
I0528 00:54:06.396674 19027 net.cpp:150] Setting up fc5_classes_fc5_116_0_split
I0528 00:54:06.396721 19027 net.cpp:157] Top shape: 1024 116 (118784)
I0528 00:54:06.396734 19027 net.cpp:157] Top shape: 1024 116 (118784)
I0528 00:54:06.396759 19027 net.cpp:157] Top shape: 1024 116 (118784)
I0528 00:54:06.396765 19027 net.cpp:165] Memory required for data: 2189230080
I0528 00:54:06.396772 19027 layer_factory.hpp:77] Creating layer softmax
I0528 00:54:06.396781 19027 net.cpp:100] Creating Layer softmax
I0528 00:54:06.396790 19027 net.cpp:434] softmax <- fc5_classes_fc5_116_0_split_0
I0528 00:54:06.396798 19027 net.cpp:408] softmax -> softmax
I0528 00:54:06.397054 19027 net.cpp:150] Setting up softmax
I0528 00:54:06.397073 19027 net.cpp:157] Top shape: 1024 116 (118784)
I0528 00:54:06.397080 19027 net.cpp:165] Memory required for data: 2189705216
I0528 00:54:06.397089 19027 layer_factory.hpp:77] Creating layer loss
I0528 00:54:06.397100 19027 net.cpp:100] Creating Layer loss
I0528 00:54:06.397125 19027 net.cpp:434] loss <- softmax
I0528 00:54:06.397133 19027 net.cpp:434] loss <- label_data_1_split_0
I0528 00:54:06.397142 19027 net.cpp:408] loss -> loss
…
