…
I0415 03:52:19.550480 30404 solver.cpp:93] Creating training net from train_net file: ./Prototxt/experiment_12/rtsd-r1/AHE/trial_4/train.prototxt
I0415 03:52:19.559953 30404 net.cpp:58] Initializing net from parameters: 
state {
  phase: TRAIN
  level: 0
  stage: ""
}
layer {
  name: "data"
  type: "Data"
  top: "data"
  top: "label"
  include {
    phase: TRAIN
  }
  transform_param {
    scale: 0.0039215689
    mirror: false
    crop_size: 48
    mean_value: 132
    mean_value: 126
    mean_value: 140
  }
  data_param {
    source: "../local_data/lmdb/rtsd-r1/AHE/train/lmdb"
    batch_size: 1024
    backend: LMDB
  }
}
layer {
  name: "conv1"
  type: "Convolution"
  bottom: "data"
  top: "conv1"
  convolution_param {
    num_output: 100
    pad: 0
    kernel_size: 7
    group: 1
    stride: 1
    weight_filler {
      type: "xavier"
    }
  }
}
layer {
  name: "conv1_relu"
  type: "ReLU"
  bottom: "conv1"
  top: "conv1"
}
layer {
  name: "pool1"
  type: "Pooling"
  bottom: "conv1"
  top: "pool1"
  pooling_param {
    pool: MAX
    kernel_size: 2
    stride: 2
  }
}
layer {
  name: "conv2"
  type: "Convolution"
  bottom: "pool1"
  top: "conv2"
  convolution_param {
    num_output: 150
    pad: 0
    kernel_size: 4
    group: 1
    stride: 1
    weight_filler {
      type: "xavier"
    }
  }
}
layer {
  name: "conv2_relu"
  type: "ReLU"
  bottom: "conv2"
  top: "conv2"
}
layer {
  name: "pool2"
  type: "Pooling"
  bottom: "conv2"
  top: "pool2"
  pooling_param {
    pool: MAX
    kernel_size: 2
    stride: 2
  }
}
layer {
  name: "conv3"
  type: "Convolution"
  bottom: "pool2"
  top: "conv3"
  convolution_param {
    num_output: 250
    pad: 0
    kernel_size: 4
    group: 1
    stride: 1
    weight_filler {
      type: "xavier"
    }
  }
}
layer {
  name: "conv3_relu"
  type: "ReLU"
  bottom: "conv3"
  top: "conv3"
}
layer {
  name: "pool3"
  type: "Pooling"
  bottom: "conv3"
  top: "pool3"
  pooling_param {
    pool: MAX
    kernel_size: 2
    stride: 2
  }
}
layer {
  name: "fc4_300"
  type: "InnerProduct"
  bottom: "pool3"
  top: "fc4_300"
  inner_product_param {
    num_output: 300
    weight_filler {
      type: "xavier"
    }
  }
}
layer {
  name: "fc4_relu"
  type: "ReLU"
  bottom: "fc4_300"
  top: "fc4_300"
}
layer {
  name: "drop4"
  type: "Dropout"
  bottom: "fc4_300"
  top: "fc4_300"
  dropout_param {
    dropout_ratio: 0.5
  }
}
layer {
  name: "fc5_67"
  type: "InnerProduct"
  bottom: "fc4_300"
  top: "fc5_classes"
  inner_product_param {
    num_output: 67
    weight_filler {
      type: "xavier"
    }
  }
}
layer {
  name: "softmax"
  type: "Softmax"
  bottom: "fc5_classes"
  top: "softmax"
}
layer {
  name: "loss"
  type: "MultinomialLogisticLoss"
  bottom: "softmax"
  bottom: "label"
  top: "loss"
}
layer {
  name: "accuracy_1"
  type: "Accuracy"
  bottom: "fc5_classes"
  bottom: "label"
  top: "accuracy_1"
  accuracy_param {
    top_k: 1
  }
}
layer {
  name: "accuracy_5"
  type: "Accuracy"
  bottom: "fc5_classes"
  bottom: "label"
  top: "accuracy_5"
  accuracy_param {
    top_k: 5
  }
}
layer {
  name: "silence"
  type: "Silence"
  bottom: "accuracy_1"
  bottom: "accuracy_5"
}
I0415 03:52:19.560080 30404 layer_factory.hpp:77] Creating layer data
I0415 03:52:19.561142 30404 net.cpp:100] Creating Layer data
I0415 03:52:19.561158 30404 net.cpp:408] data -> data
I0415 03:52:19.561180 30404 net.cpp:408] data -> label
I0415 03:52:19.575723 30632 db_lmdb.cpp:35] Opened lmdb ../local_data/lmdb/rtsd-r1/AHE/train/lmdb
I0415 03:52:19.592774 30404 data_layer.cpp:41] output data size: 1024,3,48,48
I0415 03:52:19.656435 30404 net.cpp:150] Setting up data
I0415 03:52:19.656463 30404 net.cpp:157] Top shape: 1024 3 48 48 (7077888)
I0415 03:52:19.656469 30404 net.cpp:157] Top shape: 1024 (1024)
I0415 03:52:19.656472 30404 net.cpp:165] Memory required for data: 28315648
I0415 03:52:19.656486 30404 layer_factory.hpp:77] Creating layer label_data_1_split
I0415 03:52:19.656500 30404 net.cpp:100] Creating Layer label_data_1_split
I0415 03:52:19.656507 30404 net.cpp:434] label_data_1_split <- label
I0415 03:52:19.656520 30404 net.cpp:408] label_data_1_split -> label_data_1_split_0
I0415 03:52:19.656533 30404 net.cpp:408] label_data_1_split -> label_data_1_split_1
I0415 03:52:19.656543 30404 net.cpp:408] label_data_1_split -> label_data_1_split_2
I0415 03:52:19.656632 30404 net.cpp:150] Setting up label_data_1_split
I0415 03:52:19.656641 30404 net.cpp:157] Top shape: 1024 (1024)
I0415 03:52:19.656647 30404 net.cpp:157] Top shape: 1024 (1024)
I0415 03:52:19.656651 30404 net.cpp:157] Top shape: 1024 (1024)
I0415 03:52:19.656654 30404 net.cpp:165] Memory required for data: 28327936
I0415 03:52:19.656657 30404 layer_factory.hpp:77] Creating layer conv1
I0415 03:52:19.656675 30404 net.cpp:100] Creating Layer conv1
I0415 03:52:19.656680 30404 net.cpp:434] conv1 <- data
I0415 03:52:19.656687 30404 net.cpp:408] conv1 -> conv1
I0415 03:52:21.149879 30404 net.cpp:150] Setting up conv1
I0415 03:52:21.149909 30404 net.cpp:157] Top shape: 1024 100 42 42 (180633600)
I0415 03:52:21.149914 30404 net.cpp:165] Memory required for data: 750862336
I0415 03:52:21.149940 30404 layer_factory.hpp:77] Creating layer conv1_relu
I0415 03:52:21.149951 30404 net.cpp:100] Creating Layer conv1_relu
I0415 03:52:21.149960 30404 net.cpp:434] conv1_relu <- conv1
I0415 03:52:21.149967 30404 net.cpp:395] conv1_relu -> conv1 (in-place)
I0415 03:52:21.150187 30404 net.cpp:150] Setting up conv1_relu
I0415 03:52:21.150199 30404 net.cpp:157] Top shape: 1024 100 42 42 (180633600)
I0415 03:52:21.150204 30404 net.cpp:165] Memory required for data: 1473396736
I0415 03:52:21.150208 30404 layer_factory.hpp:77] Creating layer pool1
I0415 03:52:21.150218 30404 net.cpp:100] Creating Layer pool1
I0415 03:52:21.150224 30404 net.cpp:434] pool1 <- conv1
I0415 03:52:21.150234 30404 net.cpp:408] pool1 -> pool1
I0415 03:52:21.150296 30404 net.cpp:150] Setting up pool1
I0415 03:52:21.150306 30404 net.cpp:157] Top shape: 1024 100 21 21 (45158400)
I0415 03:52:21.150311 30404 net.cpp:165] Memory required for data: 1654030336
I0415 03:52:21.150315 30404 layer_factory.hpp:77] Creating layer conv2
I0415 03:52:21.150328 30404 net.cpp:100] Creating Layer conv2
I0415 03:52:21.150333 30404 net.cpp:434] conv2 <- pool1
I0415 03:52:21.150339 30404 net.cpp:408] conv2 -> conv2
I0415 03:52:21.165421 30404 net.cpp:150] Setting up conv2
I0415 03:52:21.165452 30404 net.cpp:157] Top shape: 1024 150 18 18 (49766400)
I0415 03:52:21.165455 30404 net.cpp:165] Memory required for data: 1853095936
I0415 03:52:21.165473 30404 layer_factory.hpp:77] Creating layer conv2_relu
I0415 03:52:21.165484 30404 net.cpp:100] Creating Layer conv2_relu
I0415 03:52:21.165489 30404 net.cpp:434] conv2_relu <- conv2
I0415 03:52:21.165499 30404 net.cpp:395] conv2_relu -> conv2 (in-place)
I0415 03:52:21.166553 30404 net.cpp:150] Setting up conv2_relu
I0415 03:52:21.166570 30404 net.cpp:157] Top shape: 1024 150 18 18 (49766400)
I0415 03:52:21.166574 30404 net.cpp:165] Memory required for data: 2052161536
I0415 03:52:21.166579 30404 layer_factory.hpp:77] Creating layer pool2
I0415 03:52:21.166589 30404 net.cpp:100] Creating Layer pool2
I0415 03:52:21.166594 30404 net.cpp:434] pool2 <- conv2
I0415 03:52:21.166604 30404 net.cpp:408] pool2 -> pool2
I0415 03:52:21.166672 30404 net.cpp:150] Setting up pool2
I0415 03:52:21.166682 30404 net.cpp:157] Top shape: 1024 150 9 9 (12441600)
I0415 03:52:21.166687 30404 net.cpp:165] Memory required for data: 2101927936
I0415 03:52:21.166690 30404 layer_factory.hpp:77] Creating layer conv3
I0415 03:52:21.166707 30404 net.cpp:100] Creating Layer conv3
I0415 03:52:21.166733 30404 net.cpp:434] conv3 <- pool2
I0415 03:52:21.166743 30404 net.cpp:408] conv3 -> conv3
I0415 03:52:21.173053 30404 net.cpp:150] Setting up conv3
I0415 03:52:21.173086 30404 net.cpp:157] Top shape: 1024 250 6 6 (9216000)
I0415 03:52:21.173091 30404 net.cpp:165] Memory required for data: 2138791936
I0415 03:52:21.173106 30404 layer_factory.hpp:77] Creating layer conv3_relu
I0415 03:52:21.173120 30404 net.cpp:100] Creating Layer conv3_relu
I0415 03:52:21.173125 30404 net.cpp:434] conv3_relu <- conv3
I0415 03:52:21.173135 30404 net.cpp:395] conv3_relu -> conv3 (in-place)
I0415 03:52:21.175869 30404 net.cpp:150] Setting up conv3_relu
I0415 03:52:21.175912 30404 net.cpp:157] Top shape: 1024 250 6 6 (9216000)
I0415 03:52:21.175917 30404 net.cpp:165] Memory required for data: 2175655936
I0415 03:52:21.175923 30404 layer_factory.hpp:77] Creating layer pool3
I0415 03:52:21.175935 30404 net.cpp:100] Creating Layer pool3
I0415 03:52:21.175940 30404 net.cpp:434] pool3 <- conv3
I0415 03:52:21.175951 30404 net.cpp:408] pool3 -> pool3
I0415 03:52:21.176014 30404 net.cpp:150] Setting up pool3
I0415 03:52:21.176023 30404 net.cpp:157] Top shape: 1024 250 3 3 (2304000)
I0415 03:52:21.176028 30404 net.cpp:165] Memory required for data: 2184871936
I0415 03:52:21.176031 30404 layer_factory.hpp:77] Creating layer fc4_300
I0415 03:52:21.176040 30404 net.cpp:100] Creating Layer fc4_300
I0415 03:52:21.176045 30404 net.cpp:434] fc4_300 <- pool3
I0415 03:52:21.176054 30404 net.cpp:408] fc4_300 -> fc4_300
I0415 03:52:21.181861 30404 net.cpp:150] Setting up fc4_300
I0415 03:52:21.181890 30404 net.cpp:157] Top shape: 1024 300 (307200)
I0415 03:52:21.181893 30404 net.cpp:165] Memory required for data: 2186100736
I0415 03:52:21.181905 30404 layer_factory.hpp:77] Creating layer fc4_relu
I0415 03:52:21.181916 30404 net.cpp:100] Creating Layer fc4_relu
I0415 03:52:21.181922 30404 net.cpp:434] fc4_relu <- fc4_300
I0415 03:52:21.181929 30404 net.cpp:395] fc4_relu -> fc4_300 (in-place)
I0415 03:52:21.182183 30404 net.cpp:150] Setting up fc4_relu
I0415 03:52:21.182195 30404 net.cpp:157] Top shape: 1024 300 (307200)
I0415 03:52:21.182200 30404 net.cpp:165] Memory required for data: 2187329536
I0415 03:52:21.182204 30404 layer_factory.hpp:77] Creating layer drop4
I0415 03:52:21.182214 30404 net.cpp:100] Creating Layer drop4
I0415 03:52:21.182219 30404 net.cpp:434] drop4 <- fc4_300
I0415 03:52:21.182225 30404 net.cpp:395] drop4 -> fc4_300 (in-place)
I0415 03:52:21.182261 30404 net.cpp:150] Setting up drop4
I0415 03:52:21.182270 30404 net.cpp:157] Top shape: 1024 300 (307200)
I0415 03:52:21.182274 30404 net.cpp:165] Memory required for data: 2188558336
I0415 03:52:21.182277 30404 layer_factory.hpp:77] Creating layer fc5_67
I0415 03:52:21.182288 30404 net.cpp:100] Creating Layer fc5_67
I0415 03:52:21.182293 30404 net.cpp:434] fc5_67 <- fc4_300
I0415 03:52:21.182298 30404 net.cpp:408] fc5_67 -> fc5_classes
I0415 03:52:21.188287 30404 net.cpp:150] Setting up fc5_67
I0415 03:52:21.188314 30404 net.cpp:157] Top shape: 1024 67 (68608)
I0415 03:52:21.188318 30404 net.cpp:165] Memory required for data: 2188832768
I0415 03:52:21.188334 30404 layer_factory.hpp:77] Creating layer fc5_classes_fc5_67_0_split
I0415 03:52:21.188349 30404 net.cpp:100] Creating Layer fc5_classes_fc5_67_0_split
I0415 03:52:21.188355 30404 net.cpp:434] fc5_classes_fc5_67_0_split <- fc5_classes
I0415 03:52:21.188364 30404 net.cpp:408] fc5_classes_fc5_67_0_split -> fc5_classes_fc5_67_0_split_0
I0415 03:52:21.188376 30404 net.cpp:408] fc5_classes_fc5_67_0_split -> fc5_classes_fc5_67_0_split_1
I0415 03:52:21.188385 30404 net.cpp:408] fc5_classes_fc5_67_0_split -> fc5_classes_fc5_67_0_split_2
I0415 03:52:21.188441 30404 net.cpp:150] Setting up fc5_classes_fc5_67_0_split
I0415 03:52:21.188448 30404 net.cpp:157] Top shape: 1024 67 (68608)
I0415 03:52:21.188452 30404 net.cpp:157] Top shape: 1024 67 (68608)
I0415 03:52:21.188455 30404 net.cpp:157] Top shape: 1024 67 (68608)
I0415 03:52:21.188458 30404 net.cpp:165] Memory required for data: 2189656064
I0415 03:52:21.188482 30404 layer_factory.hpp:77] Creating layer softmax
I0415 03:52:21.188496 30404 net.cpp:100] Creating Layer softmax
I0415 03:52:21.188501 30404 net.cpp:434] softmax <- fc5_classes_fc5_67_0_split_0
I0415 03:52:21.188508 30404 net.cpp:408] softmax -> softmax
I0415 03:52:21.188822 30404 net.cpp:150] Setting up softmax
I0415 03:52:21.188837 30404 net.cpp:157] Top shape: 1024 67 (68608)
I0415 03:52:21.188841 30404 net.cpp:165] Memory required for data: 2189930496
I0415 03:52:21.188844 30404 layer_factory.hpp:77] Creating layer loss
I0415 03:52:21.188853 30404 net.cpp:100] Creating Layer loss
I0415 03:52:21.188858 30404 net.cpp:434] loss <- softmax
I0415 03:52:21.188863 30404 net.cpp:434] loss <- label_data_1_split_0
I0415 03:52:21.188870 30404 net.cpp:408] loss -> loss
…
