…
I0508 04:00:57.034778 31487 solver.cpp:93] Creating training net from train_net file: ./Prototxt/experiment_16/RTSD/AHE/trial_4/train.prototxt
I0508 04:00:57.035125 31487 net.cpp:58] Initializing net from parameters: 
state {
  phase: TRAIN
  level: 0
  stage: ""
}
layer {
  name: "data"
  type: "Data"
  top: "data"
  top: "label"
  include {
    phase: TRAIN
  }
  transform_param {
    scale: 0.0039215689
    mirror: false
    crop_size: 48
    mean_value: 133
    mean_value: 127
    mean_value: 126
  }
  data_param {
    source: "../local_data/lmdb/RTSD/AHE/train/lmdb"
    batch_size: 1024
    backend: LMDB
  }
}
layer {
  name: "conv1"
  type: "Convolution"
  bottom: "data"
  top: "conv1"
  convolution_param {
    num_output: 100
    pad: 0
    kernel_size: 7
    group: 1
    stride: 1
    weight_filler {
      type: "xavier"
    }
  }
}
layer {
  name: "conv1_relu"
  type: "ReLU"
  bottom: "conv1"
  top: "conv1"
}
layer {
  name: "pool1"
  type: "Pooling"
  bottom: "conv1"
  top: "pool1"
  pooling_param {
    pool: MAX
    kernel_size: 2
    stride: 2
  }
}
layer {
  name: "conv2"
  type: "Convolution"
  bottom: "pool1"
  top: "conv2"
  convolution_param {
    num_output: 150
    pad: 0
    kernel_size: 4
    group: 2
    stride: 1
    weight_filler {
      type: "xavier"
    }
  }
}
layer {
  name: "conv2_relu"
  type: "ReLU"
  bottom: "conv2"
  top: "conv2"
}
layer {
  name: "pool2"
  type: "Pooling"
  bottom: "conv2"
  top: "pool2"
  pooling_param {
    pool: MAX
    kernel_size: 2
    stride: 2
  }
}
layer {
  name: "conv3"
  type: "Convolution"
  bottom: "pool2"
  top: "conv3"
  convolution_param {
    num_output: 250
    pad: 0
    kernel_size: 4
    group: 2
    stride: 1
    weight_filler {
      type: "xavier"
    }
  }
}
layer {
  name: "conv3_relu"
  type: "ReLU"
  bottom: "conv3"
  top: "conv3"
}
layer {
  name: "pool3"
  type: "Pooling"
  bottom: "conv3"
  top: "pool3"
  pooling_param {
    pool: MAX
    kernel_size: 2
    stride: 2
  }
}
layer {
  name: "fc4_300"
  type: "InnerProduct"
  bottom: "pool3"
  top: "fc4_300"
  inner_product_param {
    num_output: 300
    weight_filler {
      type: "xavier"
    }
  }
}
layer {
  name: "fc4_relu"
  type: "ReLU"
  bottom: "fc4_300"
  top: "fc4_300"
}
layer {
  name: "fc5_116"
  type: "InnerProduct"
  bottom: "fc4_300"
  top: "fc5_classes"
  inner_product_param {
    num_output: 116
    weight_filler {
      type: "xavier"
    }
  }
}
layer {
  name: "softmax"
  type: "Softmax"
  bottom: "fc5_classes"
  top: "softmax"
}
layer {
  name: "loss"
  type: "MultinomialLogisticLoss"
  bottom: "softmax"
  bottom: "label"
  top: "loss"
}
layer {
  name: "accuracy_1"
  type: "Accuracy"
  bottom: "fc5_classes"
  bottom: "label"
  top: "accuracy_1"
  accuracy_param {
    top_k: 1
  }
}
layer {
  name: "accuracy_5"
  type: "Accuracy"
  bottom: "fc5_classes"
  bottom: "label"
  top: "accuracy_5"
  accuracy_param {
    top_k: 5
  }
}
layer {
  name: "silence"
  type: "Silence"
  bottom: "accuracy_1"
  bottom: "accuracy_5"
}
I0508 04:00:57.035250 31487 layer_factory.hpp:77] Creating layer data
I0508 04:00:57.036353 31487 net.cpp:100] Creating Layer data
I0508 04:00:57.036371 31487 net.cpp:408] data -> data
I0508 04:00:57.036394 31487 net.cpp:408] data -> label
I0508 04:00:57.039638 31606 db_lmdb.cpp:35] Opened lmdb ../local_data/lmdb/RTSD/AHE/train/lmdb
I0508 04:00:57.061162 31487 data_layer.cpp:41] output data size: 1024,3,48,48
I0508 04:00:57.122144 31487 net.cpp:150] Setting up data
I0508 04:00:57.122201 31487 net.cpp:157] Top shape: 1024 3 48 48 (7077888)
I0508 04:00:57.122208 31487 net.cpp:157] Top shape: 1024 (1024)
I0508 04:00:57.122212 31487 net.cpp:165] Memory required for data: 28315648
I0508 04:00:57.122223 31487 layer_factory.hpp:77] Creating layer label_data_1_split
I0508 04:00:57.122237 31487 net.cpp:100] Creating Layer label_data_1_split
I0508 04:00:57.122246 31487 net.cpp:434] label_data_1_split <- label
I0508 04:00:57.122262 31487 net.cpp:408] label_data_1_split -> label_data_1_split_0
I0508 04:00:57.122274 31487 net.cpp:408] label_data_1_split -> label_data_1_split_1
I0508 04:00:57.122287 31487 net.cpp:408] label_data_1_split -> label_data_1_split_2
I0508 04:00:57.122356 31487 net.cpp:150] Setting up label_data_1_split
I0508 04:00:57.122365 31487 net.cpp:157] Top shape: 1024 (1024)
I0508 04:00:57.122370 31487 net.cpp:157] Top shape: 1024 (1024)
I0508 04:00:57.122372 31487 net.cpp:157] Top shape: 1024 (1024)
I0508 04:00:57.122375 31487 net.cpp:165] Memory required for data: 28327936
I0508 04:00:57.122378 31487 layer_factory.hpp:77] Creating layer conv1
I0508 04:00:57.122395 31487 net.cpp:100] Creating Layer conv1
I0508 04:00:57.122401 31487 net.cpp:434] conv1 <- data
I0508 04:00:57.122408 31487 net.cpp:408] conv1 -> conv1
I0508 04:00:57.516577 31487 net.cpp:150] Setting up conv1
I0508 04:00:57.516608 31487 net.cpp:157] Top shape: 1024 100 42 42 (180633600)
I0508 04:00:57.516613 31487 net.cpp:165] Memory required for data: 750862336
I0508 04:00:57.516638 31487 layer_factory.hpp:77] Creating layer conv1_relu
I0508 04:00:57.516650 31487 net.cpp:100] Creating Layer conv1_relu
I0508 04:00:57.516655 31487 net.cpp:434] conv1_relu <- conv1
I0508 04:00:57.516662 31487 net.cpp:395] conv1_relu -> conv1 (in-place)
I0508 04:00:57.516898 31487 net.cpp:150] Setting up conv1_relu
I0508 04:00:57.516912 31487 net.cpp:157] Top shape: 1024 100 42 42 (180633600)
I0508 04:00:57.516916 31487 net.cpp:165] Memory required for data: 1473396736
I0508 04:00:57.516921 31487 layer_factory.hpp:77] Creating layer pool1
I0508 04:00:57.516932 31487 net.cpp:100] Creating Layer pool1
I0508 04:00:57.516935 31487 net.cpp:434] pool1 <- conv1
I0508 04:00:57.516942 31487 net.cpp:408] pool1 -> pool1
I0508 04:00:57.517005 31487 net.cpp:150] Setting up pool1
I0508 04:00:57.517016 31487 net.cpp:157] Top shape: 1024 100 21 21 (45158400)
I0508 04:00:57.517019 31487 net.cpp:165] Memory required for data: 1654030336
I0508 04:00:57.517024 31487 layer_factory.hpp:77] Creating layer conv2
I0508 04:00:57.517035 31487 net.cpp:100] Creating Layer conv2
I0508 04:00:57.517041 31487 net.cpp:434] conv2 <- pool1
I0508 04:00:57.517047 31487 net.cpp:408] conv2 -> conv2
I0508 04:00:57.523104 31487 net.cpp:150] Setting up conv2
I0508 04:00:57.523124 31487 net.cpp:157] Top shape: 1024 150 18 18 (49766400)
I0508 04:00:57.523128 31487 net.cpp:165] Memory required for data: 1853095936
I0508 04:00:57.523140 31487 layer_factory.hpp:77] Creating layer conv2_relu
I0508 04:00:57.523149 31487 net.cpp:100] Creating Layer conv2_relu
I0508 04:00:57.523152 31487 net.cpp:434] conv2_relu <- conv2
I0508 04:00:57.523159 31487 net.cpp:395] conv2_relu -> conv2 (in-place)
I0508 04:00:57.523371 31487 net.cpp:150] Setting up conv2_relu
I0508 04:00:57.523385 31487 net.cpp:157] Top shape: 1024 150 18 18 (49766400)
I0508 04:00:57.523387 31487 net.cpp:165] Memory required for data: 2052161536
I0508 04:00:57.523391 31487 layer_factory.hpp:77] Creating layer pool2
I0508 04:00:57.523399 31487 net.cpp:100] Creating Layer pool2
I0508 04:00:57.523402 31487 net.cpp:434] pool2 <- conv2
I0508 04:00:57.523408 31487 net.cpp:408] pool2 -> pool2
I0508 04:00:57.523461 31487 net.cpp:150] Setting up pool2
I0508 04:00:57.523470 31487 net.cpp:157] Top shape: 1024 150 9 9 (12441600)
I0508 04:00:57.523474 31487 net.cpp:165] Memory required for data: 2101927936
I0508 04:00:57.523478 31487 layer_factory.hpp:77] Creating layer conv3
I0508 04:00:57.523489 31487 net.cpp:100] Creating Layer conv3
I0508 04:00:57.523495 31487 net.cpp:434] conv3 <- pool2
I0508 04:00:57.523501 31487 net.cpp:408] conv3 -> conv3
I0508 04:00:57.529453 31487 net.cpp:150] Setting up conv3
I0508 04:00:57.529472 31487 net.cpp:157] Top shape: 1024 250 6 6 (9216000)
I0508 04:00:57.529476 31487 net.cpp:165] Memory required for data: 2138791936
I0508 04:00:57.529489 31487 layer_factory.hpp:77] Creating layer conv3_relu
I0508 04:00:57.529496 31487 net.cpp:100] Creating Layer conv3_relu
I0508 04:00:57.529500 31487 net.cpp:434] conv3_relu <- conv3
I0508 04:00:57.529506 31487 net.cpp:395] conv3_relu -> conv3 (in-place)
I0508 04:00:57.529723 31487 net.cpp:150] Setting up conv3_relu
I0508 04:00:57.529741 31487 net.cpp:157] Top shape: 1024 250 6 6 (9216000)
I0508 04:00:57.529744 31487 net.cpp:165] Memory required for data: 2175655936
I0508 04:00:57.529748 31487 layer_factory.hpp:77] Creating layer pool3
I0508 04:00:57.529755 31487 net.cpp:100] Creating Layer pool3
I0508 04:00:57.529759 31487 net.cpp:434] pool3 <- conv3
I0508 04:00:57.529765 31487 net.cpp:408] pool3 -> pool3
I0508 04:00:57.529816 31487 net.cpp:150] Setting up pool3
I0508 04:00:57.529825 31487 net.cpp:157] Top shape: 1024 250 3 3 (2304000)
I0508 04:00:57.529829 31487 net.cpp:165] Memory required for data: 2184871936
I0508 04:00:57.529832 31487 layer_factory.hpp:77] Creating layer fc4_300
I0508 04:00:57.529840 31487 net.cpp:100] Creating Layer fc4_300
I0508 04:00:57.529844 31487 net.cpp:434] fc4_300 <- pool3
I0508 04:00:57.529850 31487 net.cpp:408] fc4_300 -> fc4_300
I0508 04:00:57.539268 31487 net.cpp:150] Setting up fc4_300
I0508 04:00:57.539288 31487 net.cpp:157] Top shape: 1024 300 (307200)
I0508 04:00:57.539291 31487 net.cpp:165] Memory required for data: 2186100736
I0508 04:00:57.539299 31487 layer_factory.hpp:77] Creating layer fc4_relu
I0508 04:00:57.539307 31487 net.cpp:100] Creating Layer fc4_relu
I0508 04:00:57.539311 31487 net.cpp:434] fc4_relu <- fc4_300
I0508 04:00:57.539317 31487 net.cpp:395] fc4_relu -> fc4_300 (in-place)
I0508 04:00:57.541036 31487 net.cpp:150] Setting up fc4_relu
I0508 04:00:57.541055 31487 net.cpp:157] Top shape: 1024 300 (307200)
I0508 04:00:57.541059 31487 net.cpp:165] Memory required for data: 2187329536
I0508 04:00:57.541064 31487 layer_factory.hpp:77] Creating layer fc5_116
I0508 04:00:57.541071 31487 net.cpp:100] Creating Layer fc5_116
I0508 04:00:57.541076 31487 net.cpp:434] fc5_116 <- fc4_300
I0508 04:00:57.541082 31487 net.cpp:408] fc5_116 -> fc5_classes
I0508 04:00:57.543002 31487 net.cpp:150] Setting up fc5_116
I0508 04:00:57.543020 31487 net.cpp:157] Top shape: 1024 116 (118784)
I0508 04:00:57.543025 31487 net.cpp:165] Memory required for data: 2187804672
I0508 04:00:57.543036 31487 layer_factory.hpp:77] Creating layer fc5_classes_fc5_116_0_split
I0508 04:00:57.543045 31487 net.cpp:100] Creating Layer fc5_classes_fc5_116_0_split
I0508 04:00:57.543050 31487 net.cpp:434] fc5_classes_fc5_116_0_split <- fc5_classes
I0508 04:00:57.543056 31487 net.cpp:408] fc5_classes_fc5_116_0_split -> fc5_classes_fc5_116_0_split_0
I0508 04:00:57.543066 31487 net.cpp:408] fc5_classes_fc5_116_0_split -> fc5_classes_fc5_116_0_split_1
I0508 04:00:57.543073 31487 net.cpp:408] fc5_classes_fc5_116_0_split -> fc5_classes_fc5_116_0_split_2
I0508 04:00:57.543138 31487 net.cpp:150] Setting up fc5_classes_fc5_116_0_split
I0508 04:00:57.543146 31487 net.cpp:157] Top shape: 1024 116 (118784)
I0508 04:00:57.543150 31487 net.cpp:157] Top shape: 1024 116 (118784)
I0508 04:00:57.543154 31487 net.cpp:157] Top shape: 1024 116 (118784)
I0508 04:00:57.543159 31487 net.cpp:165] Memory required for data: 2189230080
I0508 04:00:57.543162 31487 layer_factory.hpp:77] Creating layer softmax
I0508 04:00:57.543169 31487 net.cpp:100] Creating Layer softmax
I0508 04:00:57.543172 31487 net.cpp:434] softmax <- fc5_classes_fc5_116_0_split_0
I0508 04:00:57.543179 31487 net.cpp:408] softmax -> softmax
I0508 04:00:57.543493 31487 net.cpp:150] Setting up softmax
I0508 04:00:57.543506 31487 net.cpp:157] Top shape: 1024 116 (118784)
I0508 04:00:57.543510 31487 net.cpp:165] Memory required for data: 2189705216
I0508 04:00:57.543514 31487 layer_factory.hpp:77] Creating layer loss
I0508 04:00:57.543525 31487 net.cpp:100] Creating Layer loss
I0508 04:00:57.543545 31487 net.cpp:434] loss <- softmax
I0508 04:00:57.543552 31487 net.cpp:434] loss <- label_data_1_split_0
I0508 04:00:57.543558 31487 net.cpp:408] loss -> loss
…
