…
I0410 03:26:42.558085 27035 net.cpp:322] The NetState phase (0) differed from the phase (1) specified by a rule in layer accuracy_5
I0410 03:26:42.558202 27035 net.cpp:58] Initializing net from parameters: 
state {
  phase: TRAIN
  level: 0
  stage: ""
}
layer {
  name: "data"
  type: "Data"
  top: "data"
  top: "label"
  include {
    phase: TRAIN
  }
  transform_param {
    mirror: false
    crop_size: 48
    mean_value: 115
    mean_value: 108
    mean_value: 122
  }
  data_param {
    source: "../local_data/lmdb/rtsd-r1/imajust/train/lmdb"
    batch_size: 1024
    backend: LMDB
  }
}
layer {
  name: "conv1"
  type: "Convolution"
  bottom: "data"
  top: "conv1"
  convolution_param {
    num_output: 100
    pad: 0
    kernel_size: 7
    group: 1
    stride: 1
    weight_filler {
      type: "xavier"
    }
  }
}
layer {
  name: "conv1_sTanH"
  type: "TanH"
  bottom: "conv1"
  top: "conv1"
}
layer {
  name: "pool1"
  type: "Pooling"
  bottom: "conv1"
  top: "pool1"
  pooling_param {
    pool: MAX
    kernel_size: 2
    stride: 2
  }
}
layer {
  name: "conv2"
  type: "Convolution"
  bottom: "pool1"
  top: "conv2"
  convolution_param {
    num_output: 150
    pad: 0
    kernel_size: 4
    group: 1
    stride: 1
    weight_filler {
      type: "xavier"
    }
  }
}
layer {
  name: "conv2_sTanH"
  type: "TanH"
  bottom: "conv2"
  top: "conv2"
}
layer {
  name: "pool2"
  type: "Pooling"
  bottom: "conv2"
  top: "pool2"
  pooling_param {
    pool: MAX
    kernel_size: 2
    stride: 2
  }
}
layer {
  name: "conv3"
  type: "Convolution"
  bottom: "pool2"
  top: "conv3"
  convolution_param {
    num_output: 250
    pad: 0
    kernel_size: 4
    group: 1
    stride: 1
    weight_filler {
      type: "xavier"
    }
  }
}
layer {
  name: "conv3_sTanH"
  type: "TanH"
  bottom: "conv3"
  top: "conv3"
}
layer {
  name: "pool3"
  type: "Pooling"
  bottom: "conv3"
  top: "pool3"
  pooling_param {
    pool: MAX
    kernel_size: 2
    stride: 2
  }
}
layer {
  name: "fc4_300"
  type: "InnerProduct"
  bottom: "pool3"
  top: "fc4_300"
  inner_product_param {
    num_output: 300
    weight_filler {
      type: "xavier"
    }
  }
}
layer {
  name: "fc4_sTanH"
  type: "TanH"
  bottom: "fc4_300"
  top: "fc4_300"
}
layer {
  name: "drop4"
  type: "Dropout"
  bottom: "fc4_300"
  top: "fc4_300"
  dropout_param {
    dropout_ratio: 0.4
  }
}
layer {
  name: "fc5_67"
  type: "InnerProduct"
  bottom: "fc4_300"
  top: "fc5_classes"
  inner_product_param {
    num_output: 67
    weight_filler {
      type: "xavier"
    }
  }
}
layer {
  name: "loss"
  type: "SoftmaxWithLoss"
  bottom: "fc5_classes"
  bottom: "label"
  top: "loss"
}
I0410 03:26:42.558293 27035 layer_factory.hpp:77] Creating layer data
I0410 03:26:42.559561 27035 net.cpp:100] Creating Layer data
I0410 03:26:42.559579 27035 net.cpp:408] data -> data
I0410 03:26:42.559607 27035 net.cpp:408] data -> label
I0410 03:26:42.561276 27105 db_lmdb.cpp:35] Opened lmdb ../local_data/lmdb/rtsd-r1/imajust/train/lmdb
I0410 03:26:42.582623 27035 data_layer.cpp:41] output data size: 1024,3,48,48
I0410 03:26:42.645813 27035 net.cpp:150] Setting up data
I0410 03:26:42.645850 27035 net.cpp:157] Top shape: 1024 3 48 48 (7077888)
I0410 03:26:42.645884 27035 net.cpp:157] Top shape: 1024 (1024)
I0410 03:26:42.645889 27035 net.cpp:165] Memory required for data: 28315648
I0410 03:26:42.645900 27035 layer_factory.hpp:77] Creating layer conv1
I0410 03:26:42.645925 27035 net.cpp:100] Creating Layer conv1
I0410 03:26:42.645934 27035 net.cpp:434] conv1 <- data
I0410 03:26:42.645948 27035 net.cpp:408] conv1 -> conv1
I0410 03:26:42.962515 27035 net.cpp:150] Setting up conv1
I0410 03:26:42.962553 27035 net.cpp:157] Top shape: 1024 100 42 42 (180633600)
I0410 03:26:42.962558 27035 net.cpp:165] Memory required for data: 750850048
I0410 03:26:42.962581 27035 layer_factory.hpp:77] Creating layer conv1_sTanH
I0410 03:26:42.962604 27035 net.cpp:100] Creating Layer conv1_sTanH
I0410 03:26:42.962611 27035 net.cpp:434] conv1_sTanH <- conv1
I0410 03:26:42.962620 27035 net.cpp:395] conv1_sTanH -> conv1 (in-place)
I0410 03:26:42.962878 27035 net.cpp:150] Setting up conv1_sTanH
I0410 03:26:42.962893 27035 net.cpp:157] Top shape: 1024 100 42 42 (180633600)
I0410 03:26:42.962896 27035 net.cpp:165] Memory required for data: 1473384448
I0410 03:26:42.962900 27035 layer_factory.hpp:77] Creating layer pool1
I0410 03:26:42.962910 27035 net.cpp:100] Creating Layer pool1
I0410 03:26:42.962914 27035 net.cpp:434] pool1 <- conv1
I0410 03:26:42.962921 27035 net.cpp:408] pool1 -> pool1
I0410 03:26:42.962988 27035 net.cpp:150] Setting up pool1
I0410 03:26:42.963001 27035 net.cpp:157] Top shape: 1024 100 21 21 (45158400)
I0410 03:26:42.963006 27035 net.cpp:165] Memory required for data: 1654018048
I0410 03:26:42.963009 27035 layer_factory.hpp:77] Creating layer conv2
I0410 03:26:42.963023 27035 net.cpp:100] Creating Layer conv2
I0410 03:26:42.963029 27035 net.cpp:434] conv2 <- pool1
I0410 03:26:42.963037 27035 net.cpp:408] conv2 -> conv2
I0410 03:26:42.969063 27035 net.cpp:150] Setting up conv2
I0410 03:26:42.969082 27035 net.cpp:157] Top shape: 1024 150 18 18 (49766400)
I0410 03:26:42.969086 27035 net.cpp:165] Memory required for data: 1853083648
I0410 03:26:42.969097 27035 layer_factory.hpp:77] Creating layer conv2_sTanH
I0410 03:26:42.969105 27035 net.cpp:100] Creating Layer conv2_sTanH
I0410 03:26:42.969110 27035 net.cpp:434] conv2_sTanH <- conv2
I0410 03:26:42.969117 27035 net.cpp:395] conv2_sTanH -> conv2 (in-place)
I0410 03:26:42.971379 27035 net.cpp:150] Setting up conv2_sTanH
I0410 03:26:42.971395 27035 net.cpp:157] Top shape: 1024 150 18 18 (49766400)
I0410 03:26:42.971400 27035 net.cpp:165] Memory required for data: 2052149248
I0410 03:26:42.971403 27035 layer_factory.hpp:77] Creating layer pool2
I0410 03:26:42.971411 27035 net.cpp:100] Creating Layer pool2
I0410 03:26:42.971415 27035 net.cpp:434] pool2 <- conv2
I0410 03:26:42.971424 27035 net.cpp:408] pool2 -> pool2
I0410 03:26:42.971485 27035 net.cpp:150] Setting up pool2
I0410 03:26:42.971495 27035 net.cpp:157] Top shape: 1024 150 9 9 (12441600)
I0410 03:26:42.971498 27035 net.cpp:165] Memory required for data: 2101915648
I0410 03:26:42.971503 27035 layer_factory.hpp:77] Creating layer conv3
I0410 03:26:42.971513 27035 net.cpp:100] Creating Layer conv3
I0410 03:26:42.971518 27035 net.cpp:434] conv3 <- pool2
I0410 03:26:42.971524 27035 net.cpp:408] conv3 -> conv3
I0410 03:26:42.978418 27035 net.cpp:150] Setting up conv3
I0410 03:26:42.978438 27035 net.cpp:157] Top shape: 1024 250 6 6 (9216000)
I0410 03:26:42.978443 27035 net.cpp:165] Memory required for data: 2138779648
I0410 03:26:42.978457 27035 layer_factory.hpp:77] Creating layer conv3_sTanH
I0410 03:26:42.978468 27035 net.cpp:100] Creating Layer conv3_sTanH
I0410 03:26:42.978474 27035 net.cpp:434] conv3_sTanH <- conv3
I0410 03:26:42.978480 27035 net.cpp:395] conv3_sTanH -> conv3 (in-place)
I0410 03:26:42.979421 27035 net.cpp:150] Setting up conv3_sTanH
I0410 03:26:42.979439 27035 net.cpp:157] Top shape: 1024 250 6 6 (9216000)
I0410 03:26:42.979444 27035 net.cpp:165] Memory required for data: 2175643648
I0410 03:26:42.979455 27035 layer_factory.hpp:77] Creating layer pool3
I0410 03:26:42.979463 27035 net.cpp:100] Creating Layer pool3
I0410 03:26:42.979468 27035 net.cpp:434] pool3 <- conv3
I0410 03:26:42.979497 27035 net.cpp:408] pool3 -> pool3
I0410 03:26:42.979558 27035 net.cpp:150] Setting up pool3
I0410 03:26:42.979573 27035 net.cpp:157] Top shape: 1024 250 3 3 (2304000)
I0410 03:26:42.979578 27035 net.cpp:165] Memory required for data: 2184859648
I0410 03:26:42.979583 27035 layer_factory.hpp:77] Creating layer fc4_300
I0410 03:26:42.979590 27035 net.cpp:100] Creating Layer fc4_300
I0410 03:26:42.979594 27035 net.cpp:434] fc4_300 <- pool3
I0410 03:26:42.979599 27035 net.cpp:408] fc4_300 -> fc4_300
I0410 03:26:42.986173 27035 net.cpp:150] Setting up fc4_300
I0410 03:26:42.986193 27035 net.cpp:157] Top shape: 1024 300 (307200)
I0410 03:26:42.986199 27035 net.cpp:165] Memory required for data: 2186088448
I0410 03:26:42.986213 27035 layer_factory.hpp:77] Creating layer fc4_sTanH
I0410 03:26:42.986222 27035 net.cpp:100] Creating Layer fc4_sTanH
I0410 03:26:42.986227 27035 net.cpp:434] fc4_sTanH <- fc4_300
I0410 03:26:42.986233 27035 net.cpp:395] fc4_sTanH -> fc4_300 (in-place)
I0410 03:26:42.986474 27035 net.cpp:150] Setting up fc4_sTanH
I0410 03:26:42.986486 27035 net.cpp:157] Top shape: 1024 300 (307200)
I0410 03:26:42.986493 27035 net.cpp:165] Memory required for data: 2187317248
I0410 03:26:42.986497 27035 layer_factory.hpp:77] Creating layer drop4
I0410 03:26:42.986505 27035 net.cpp:100] Creating Layer drop4
I0410 03:26:42.986510 27035 net.cpp:434] drop4 <- fc4_300
I0410 03:26:42.986518 27035 net.cpp:395] drop4 -> fc4_300 (in-place)
I0410 03:26:42.986554 27035 net.cpp:150] Setting up drop4
I0410 03:26:42.986565 27035 net.cpp:157] Top shape: 1024 300 (307200)
I0410 03:26:42.986570 27035 net.cpp:165] Memory required for data: 2188546048
I0410 03:26:42.986574 27035 layer_factory.hpp:77] Creating layer fc5_67
I0410 03:26:42.986582 27035 net.cpp:100] Creating Layer fc5_67
I0410 03:26:42.986584 27035 net.cpp:434] fc5_67 <- fc4_300
I0410 03:26:42.986590 27035 net.cpp:408] fc5_67 -> fc5_classes
I0410 03:26:42.987996 27035 net.cpp:150] Setting up fc5_67
I0410 03:26:42.988013 27035 net.cpp:157] Top shape: 1024 67 (68608)
I0410 03:26:42.988018 27035 net.cpp:165] Memory required for data: 2188820480
I0410 03:26:42.988032 27035 layer_factory.hpp:77] Creating layer loss
I0410 03:26:42.988042 27035 net.cpp:100] Creating Layer loss
I0410 03:26:42.988047 27035 net.cpp:434] loss <- fc5_classes
I0410 03:26:42.988054 27035 net.cpp:434] loss <- label
I0410 03:26:42.988060 27035 net.cpp:408] loss -> loss
I0410 03:26:42.988075 27035 layer_factory.hpp:77] Creating layer loss
…
I0410 03:26:42.988857 27035 solver.cpp:193] Creating test net (#0) specified by test_net file: ./Prototxt/experiment_7/rtsd-r1/imajust/trial_5/test.prototxt
I0410 03:26:42.989009 27035 net.cpp:58] Initializing net from parameters: 
state {
  phase: TEST
}
layer {
  name: "data"
  type: "Data"
  top: "data"
  top: "label"
  include {
    phase: TEST
  }
  transform_param {
    mirror: false
    crop_size: 48
    mean_value: 109
    mean_value: 106
    mean_value: 126
  }
  data_param {
    source: "../local_data/lmdb/rtsd-r1/imajust/test/lmdb"
    batch_size: 1024
    backend: LMDB
  }
}
layer {
  name: "conv1"
  type: "Convolution"
  bottom: "data"
  top: "conv1"
  convolution_param {
    num_output: 100
    pad: 0
    kernel_size: 7
    group: 1
    stride: 1
    weight_filler {
      type: "xavier"
    }
  }
}
layer {
  name: "conv1_sTanH"
  type: "TanH"
  bottom: "conv1"
  top: "conv1"
}
layer {
  name: "pool1"
  type: "Pooling"
  bottom: "conv1"
  top: "pool1"
  pooling_param {
    pool: MAX
    kernel_size: 2
    stride: 2
  }
}
layer {
  name: "conv2"
  type: "Convolution"
  bottom: "pool1"
  top: "conv2"
  convolution_param {
    num_output: 150
    pad: 0
    kernel_size: 4
    group: 1
    stride: 1
    weight_filler {
      type: "xavier"
    }
  }
}
layer {
  name: "conv2_sTanH"
  type: "TanH"
  bottom: "conv2"
  top: "conv2"
}
layer {
  name: "pool2"
  type: "Pooling"
  bottom: "conv2"
  top: "pool2"
  pooling_param {
    pool: MAX
    kernel_size: 2
    stride: 2
  }
}
layer {
  name: "conv3"
  type: "Convolution"
  bottom: "pool2"
  top: "conv3"
  convolution_param {
    num_output: 250
    pad: 0
    kernel_size: 4
    group: 1
    stride: 1
    weight_filler {
      type: "xavier"
    }
  }
}
layer {
  name: "conv3_sTanH"
  type: "TanH"
  bottom: "conv3"
  top: "conv3"
}
layer {
  name: "pool3"
  type: "Pooling"
  bottom: "conv3"
  top: "pool3"
  pooling_param {
    pool: MAX
    kernel_size: 2
    stride: 2
  }
}
layer {
  name: "fc4_300"
  type: "InnerProduct"
  bottom: "pool3"
  top: "fc4_300"
  inner_product_param {
    num_output: 300
    weight_filler {
      type: "xavier"
    }
  }
}
layer {
  name: "fc4_sTanH"
  type: "TanH"
  bottom: "fc4_300"
  top: "fc4_300"
}
layer {
  name: "drop4"
  type: "Dropout"
  bottom: "fc4_300"
  top: "fc4_300"
  dropout_param {
    dropout_ratio: 0.4
  }
}
layer {
  name: "fc5_67"
  type: "InnerProduct"
  bottom: "fc4_300"
  top: "fc5_classes"
  inner_product_param {
    num_output: 67
    weight_filler {
      type: "xavier"
    }
  }
}
layer {
  name: "loss"
  type: "SoftmaxWithLoss"
  bottom: "fc5_classes"
  bottom: "label"
  top: "loss"
}
layer {
  name: "accuracy_1"
  type: "Accuracy"
  bottom: "fc5_classes"
  bottom: "label"
  top: "accuracy_1"
  include {
    phase: TEST
  }
  accuracy_param {
    top_k: 1
  }
}
layer {
  name: "accuracy_5"
  type: "Accuracy"
  bottom: "fc5_classes"
  bottom: "label"
  top: "accuracy_5"
  include {
    phase: TEST
  }
  accuracy_param {
    top_k: 5
  }
}
I0410 03:26:42.989121 27035 layer_factory.hpp:77] Creating layer data
I0410 03:26:42.989938 27035 net.cpp:100] Creating Layer data
I0410 03:26:42.989953 27035 net.cpp:408] data -> data
I0410 03:26:42.989966 27035 net.cpp:408] data -> label
I0410 03:26:42.991637 27128 db_lmdb.cpp:35] Opened lmdb ../local_data/lmdb/rtsd-r1/imajust/test/lmdb
I0410 03:26:42.991811 27035 data_layer.cpp:41] output data size: 1024,3,48,48
I0410 03:26:43.037040 27035 net.cpp:150] Setting up data
I0410 03:26:43.037070 27035 net.cpp:157] Top shape: 1024 3 48 48 (7077888)
I0410 03:26:43.037076 27035 net.cpp:157] Top shape: 1024 (1024)
I0410 03:26:43.037080 27035 net.cpp:165] Memory required for data: 28315648
I0410 03:26:43.037086 27035 layer_factory.hpp:77] Creating layer label_data_1_split
I0410 03:26:43.037104 27035 net.cpp:100] Creating Layer label_data_1_split
I0410 03:26:43.037111 27035 net.cpp:434] label_data_1_split <- label
I0410 03:26:43.037120 27035 net.cpp:408] label_data_1_split -> label_data_1_split_0
I0410 03:26:43.037134 27035 net.cpp:408] label_data_1_split -> label_data_1_split_1
I0410 03:26:43.037166 27035 net.cpp:408] label_data_1_split -> label_data_1_split_2
I0410 03:26:43.037307 27035 net.cpp:150] Setting up label_data_1_split
I0410 03:26:43.037318 27035 net.cpp:157] Top shape: 1024 (1024)
I0410 03:26:43.037324 27035 net.cpp:157] Top shape: 1024 (1024)
I0410 03:26:43.037328 27035 net.cpp:157] Top shape: 1024 (1024)
I0410 03:26:43.037331 27035 net.cpp:165] Memory required for data: 28327936
I0410 03:26:43.037335 27035 layer_factory.hpp:77] Creating layer conv1
I0410 03:26:43.037348 27035 net.cpp:100] Creating Layer conv1
I0410 03:26:43.037354 27035 net.cpp:434] conv1 <- data
I0410 03:26:43.037364 27035 net.cpp:408] conv1 -> conv1
I0410 03:26:43.041719 27035 net.cpp:150] Setting up conv1
I0410 03:26:43.041740 27035 net.cpp:157] Top shape: 1024 100 42 42 (180633600)
I0410 03:26:43.041748 27035 net.cpp:165] Memory required for data: 750862336
I0410 03:26:43.041764 27035 layer_factory.hpp:77] Creating layer conv1_sTanH
I0410 03:26:43.041774 27035 net.cpp:100] Creating Layer conv1_sTanH
I0410 03:26:43.041780 27035 net.cpp:434] conv1_sTanH <- conv1
I0410 03:26:43.041786 27035 net.cpp:395] conv1_sTanH -> conv1 (in-place)
I0410 03:26:43.042038 27035 net.cpp:150] Setting up conv1_sTanH
I0410 03:26:43.042053 27035 net.cpp:157] Top shape: 1024 100 42 42 (180633600)
I0410 03:26:43.042058 27035 net.cpp:165] Memory required for data: 1473396736
I0410 03:26:43.042062 27035 layer_factory.hpp:77] Creating layer pool1
I0410 03:26:43.042073 27035 net.cpp:100] Creating Layer pool1
I0410 03:26:43.042078 27035 net.cpp:434] pool1 <- conv1
I0410 03:26:43.042084 27035 net.cpp:408] pool1 -> pool1
I0410 03:26:43.042150 27035 net.cpp:150] Setting up pool1
I0410 03:26:43.042158 27035 net.cpp:157] Top shape: 1024 100 21 21 (45158400)
I0410 03:26:43.042163 27035 net.cpp:165] Memory required for data: 1654030336
I0410 03:26:43.042166 27035 layer_factory.hpp:77] Creating layer conv2
I0410 03:26:43.042178 27035 net.cpp:100] Creating Layer conv2
I0410 03:26:43.042184 27035 net.cpp:434] conv2 <- pool1
I0410 03:26:43.042193 27035 net.cpp:408] conv2 -> conv2
I0410 03:26:43.048197 27035 net.cpp:150] Setting up conv2
I0410 03:26:43.048221 27035 net.cpp:157] Top shape: 1024 150 18 18 (49766400)
I0410 03:26:43.048226 27035 net.cpp:165] Memory required for data: 1853095936
I0410 03:26:43.048238 27035 layer_factory.hpp:77] Creating layer conv2_sTanH
I0410 03:26:43.048249 27035 net.cpp:100] Creating Layer conv2_sTanH
I0410 03:26:43.048254 27035 net.cpp:434] conv2_sTanH <- conv2
I0410 03:26:43.048264 27035 net.cpp:395] conv2_sTanH -> conv2 (in-place)
I0410 03:26:43.049422 27035 net.cpp:150] Setting up conv2_sTanH
I0410 03:26:43.049441 27035 net.cpp:157] Top shape: 1024 150 18 18 (49766400)
I0410 03:26:43.049448 27035 net.cpp:165] Memory required for data: 2052161536
I0410 03:26:43.049451 27035 layer_factory.hpp:77] Creating layer pool2
I0410 03:26:43.049461 27035 net.cpp:100] Creating Layer pool2
I0410 03:26:43.049468 27035 net.cpp:434] pool2 <- conv2
I0410 03:26:43.049474 27035 net.cpp:408] pool2 -> pool2
I0410 03:26:43.049537 27035 net.cpp:150] Setting up pool2
I0410 03:26:43.049547 27035 net.cpp:157] Top shape: 1024 150 9 9 (12441600)
I0410 03:26:43.049552 27035 net.cpp:165] Memory required for data: 2101927936
I0410 03:26:43.049556 27035 layer_factory.hpp:77] Creating layer conv3
I0410 03:26:43.049576 27035 net.cpp:100] Creating Layer conv3
I0410 03:26:43.049582 27035 net.cpp:434] conv3 <- pool2
I0410 03:26:43.049594 27035 net.cpp:408] conv3 -> conv3
I0410 03:26:43.058074 27035 net.cpp:150] Setting up conv3
I0410 03:26:43.058099 27035 net.cpp:157] Top shape: 1024 250 6 6 (9216000)
I0410 03:26:43.058104 27035 net.cpp:165] Memory required for data: 2138791936
I0410 03:26:43.058127 27035 layer_factory.hpp:77] Creating layer conv3_sTanH
I0410 03:26:43.058138 27035 net.cpp:100] Creating Layer conv3_sTanH
I0410 03:26:43.058149 27035 net.cpp:434] conv3_sTanH <- conv3
I0410 03:26:43.058161 27035 net.cpp:395] conv3_sTanH -> conv3 (in-place)
I0410 03:26:43.059303 27035 net.cpp:150] Setting up conv3_sTanH
I0410 03:26:43.059321 27035 net.cpp:157] Top shape: 1024 250 6 6 (9216000)
I0410 03:26:43.059345 27035 net.cpp:165] Memory required for data: 2175655936
I0410 03:26:43.059350 27035 layer_factory.hpp:77] Creating layer pool3
I0410 03:26:43.059360 27035 net.cpp:100] Creating Layer pool3
I0410 03:26:43.059370 27035 net.cpp:434] pool3 <- conv3
I0410 03:26:43.059376 27035 net.cpp:408] pool3 -> pool3
I0410 03:26:43.059442 27035 net.cpp:150] Setting up pool3
I0410 03:26:43.059451 27035 net.cpp:157] Top shape: 1024 250 3 3 (2304000)
I0410 03:26:43.059456 27035 net.cpp:165] Memory required for data: 2184871936
I0410 03:26:43.059459 27035 layer_factory.hpp:77] Creating layer fc4_300
I0410 03:26:43.059470 27035 net.cpp:100] Creating Layer fc4_300
I0410 03:26:43.059475 27035 net.cpp:434] fc4_300 <- pool3
I0410 03:26:43.059484 27035 net.cpp:408] fc4_300 -> fc4_300
I0410 03:26:43.066260 27035 net.cpp:150] Setting up fc4_300
I0410 03:26:43.066279 27035 net.cpp:157] Top shape: 1024 300 (307200)
I0410 03:26:43.066283 27035 net.cpp:165] Memory required for data: 2186100736
I0410 03:26:43.066292 27035 layer_factory.hpp:77] Creating layer fc4_sTanH
I0410 03:26:43.066300 27035 net.cpp:100] Creating Layer fc4_sTanH
I0410 03:26:43.066308 27035 net.cpp:434] fc4_sTanH <- fc4_300
I0410 03:26:43.066315 27035 net.cpp:395] fc4_sTanH -> fc4_300 (in-place)
I0410 03:26:43.066563 27035 net.cpp:150] Setting up fc4_sTanH
I0410 03:26:43.066576 27035 net.cpp:157] Top shape: 1024 300 (307200)
I0410 03:26:43.066581 27035 net.cpp:165] Memory required for data: 2187329536
I0410 03:26:43.066586 27035 layer_factory.hpp:77] Creating layer drop4
I0410 03:26:43.066593 27035 net.cpp:100] Creating Layer drop4
I0410 03:26:43.066599 27035 net.cpp:434] drop4 <- fc4_300
I0410 03:26:43.066606 27035 net.cpp:395] drop4 -> fc4_300 (in-place)
I0410 03:26:43.066648 27035 net.cpp:150] Setting up drop4
I0410 03:26:43.066656 27035 net.cpp:157] Top shape: 1024 300 (307200)
I0410 03:26:43.066659 27035 net.cpp:165] Memory required for data: 2188558336
I0410 03:26:43.066663 27035 layer_factory.hpp:77] Creating layer fc5_67
I0410 03:26:43.066670 27035 net.cpp:100] Creating Layer fc5_67
I0410 03:26:43.066679 27035 net.cpp:434] fc5_67 <- fc4_300
I0410 03:26:43.066687 27035 net.cpp:408] fc5_67 -> fc5_classes
I0410 03:26:43.066999 27035 net.cpp:150] Setting up fc5_67
I0410 03:26:43.067009 27035 net.cpp:157] Top shape: 1024 67 (68608)
I0410 03:26:43.067013 27035 net.cpp:165] Memory required for data: 2188832768
I0410 03:26:43.067025 27035 layer_factory.hpp:77] Creating layer fc5_classes_fc5_67_0_split
I0410 03:26:43.067034 27035 net.cpp:100] Creating Layer fc5_classes_fc5_67_0_split
I0410 03:26:43.067040 27035 net.cpp:434] fc5_classes_fc5_67_0_split <- fc5_classes
I0410 03:26:43.067049 27035 net.cpp:408] fc5_classes_fc5_67_0_split -> fc5_classes_fc5_67_0_split_0
I0410 03:26:43.067060 27035 net.cpp:408] fc5_classes_fc5_67_0_split -> fc5_classes_fc5_67_0_split_1
I0410 03:26:43.067070 27035 net.cpp:408] fc5_classes_fc5_67_0_split -> fc5_classes_fc5_67_0_split_2
I0410 03:26:43.067137 27035 net.cpp:150] Setting up fc5_classes_fc5_67_0_split
I0410 03:26:43.067144 27035 net.cpp:157] Top shape: 1024 67 (68608)
I0410 03:26:43.067148 27035 net.cpp:157] Top shape: 1024 67 (68608)
I0410 03:26:43.067155 27035 net.cpp:157] Top shape: 1024 67 (68608)
I0410 03:26:43.067159 27035 net.cpp:165] Memory required for data: 2189656064
I0410 03:26:43.067162 27035 layer_factory.hpp:77] Creating layer loss
I0410 03:26:43.067173 27035 net.cpp:100] Creating Layer loss
I0410 03:26:43.067178 27035 net.cpp:434] loss <- fc5_classes_fc5_67_0_split_0
I0410 03:26:43.067183 27035 net.cpp:434] loss <- label_data_1_split_0
I0410 03:26:43.067189 27035 net.cpp:408] loss -> loss
…
