…
I0409 20:50:36.284739 32442 net.cpp:322] The NetState phase (0) differed from the phase (1) specified by a rule in layer accuracy_5
I0409 20:50:36.284837 32442 net.cpp:58] Initializing net from parameters: 
state {
  phase: TRAIN
  level: 0
  stage: ""
}
layer {
  name: "data"
  type: "Data"
  top: "data"
  top: "label"
  include {
    phase: TRAIN
  }
  transform_param {
    mirror: false
    crop_size: 48
    mean_value: 132
    mean_value: 132
    mean_value: 131
  }
  data_param {
    source: "../local_data/lmdb/rtsd-r1/CoNorm/train/lmdb"
    batch_size: 1024
    backend: LMDB
  }
}
layer {
  name: "conv1"
  type: "Convolution"
  bottom: "data"
  top: "conv1"
  convolution_param {
    num_output: 100
    pad: 0
    kernel_size: 7
    group: 1
    stride: 1
    weight_filler {
      type: "xavier"
    }
  }
}
layer {
  name: "conv1_sTanH"
  type: "TanH"
  bottom: "conv1"
  top: "conv1"
}
layer {
  name: "pool1"
  type: "Pooling"
  bottom: "conv1"
  top: "pool1"
  pooling_param {
    pool: MAX
    kernel_size: 2
    stride: 2
  }
}
layer {
  name: "conv2"
  type: "Convolution"
  bottom: "pool1"
  top: "conv2"
  convolution_param {
    num_output: 150
    pad: 0
    kernel_size: 4
    group: 1
    stride: 1
    weight_filler {
      type: "xavier"
    }
  }
}
layer {
  name: "conv2_sTanH"
  type: "TanH"
  bottom: "conv2"
  top: "conv2"
}
layer {
  name: "pool2"
  type: "Pooling"
  bottom: "conv2"
  top: "pool2"
  pooling_param {
    pool: MAX
    kernel_size: 2
    stride: 2
  }
}
layer {
  name: "conv3"
  type: "Convolution"
  bottom: "pool2"
  top: "conv3"
  convolution_param {
    num_output: 250
    pad: 0
    kernel_size: 4
    group: 1
    stride: 1
    weight_filler {
      type: "xavier"
    }
  }
}
layer {
  name: "conv3_sTanH"
  type: "TanH"
  bottom: "conv3"
  top: "conv3"
}
layer {
  name: "pool3"
  type: "Pooling"
  bottom: "conv3"
  top: "pool3"
  pooling_param {
    pool: MAX
    kernel_size: 2
    stride: 2
  }
}
layer {
  name: "fc4_300"
  type: "InnerProduct"
  bottom: "pool3"
  top: "fc4_300"
  inner_product_param {
    num_output: 300
    weight_filler {
      type: "xavier"
    }
  }
}
layer {
  name: "fc4_sTanH"
  type: "TanH"
  bottom: "fc4_300"
  top: "fc4_300"
}
layer {
  name: "drop4"
  type: "Dropout"
  bottom: "fc4_300"
  top: "fc4_300"
  dropout_param {
    dropout_ratio: 0.4
  }
}
layer {
  name: "fc5_67"
  type: "InnerProduct"
  bottom: "fc4_300"
  top: "fc5_classes"
  inner_product_param {
    num_output: 67
    weight_filler {
      type: "xavier"
    }
  }
}
layer {
  name: "loss"
  type: "SoftmaxWithLoss"
  bottom: "fc5_classes"
  bottom: "label"
  top: "loss"
}
I0409 20:50:36.284914 32442 layer_factory.hpp:77] Creating layer data
I0409 20:50:36.286029 32442 net.cpp:100] Creating Layer data
I0409 20:50:36.286044 32442 net.cpp:408] data -> data
I0409 20:50:36.286073 32442 net.cpp:408] data -> label
I0409 20:50:36.288316 32513 db_lmdb.cpp:35] Opened lmdb ../local_data/lmdb/rtsd-r1/CoNorm/train/lmdb
I0409 20:50:36.314252 32442 data_layer.cpp:41] output data size: 1024,3,48,48
I0409 20:50:36.363324 32442 net.cpp:150] Setting up data
I0409 20:50:36.363356 32442 net.cpp:157] Top shape: 1024 3 48 48 (7077888)
I0409 20:50:36.363389 32442 net.cpp:157] Top shape: 1024 (1024)
I0409 20:50:36.363392 32442 net.cpp:165] Memory required for data: 28315648
I0409 20:50:36.363404 32442 layer_factory.hpp:77] Creating layer conv1
I0409 20:50:36.363428 32442 net.cpp:100] Creating Layer conv1
I0409 20:50:36.363436 32442 net.cpp:434] conv1 <- data
I0409 20:50:36.363450 32442 net.cpp:408] conv1 -> conv1
I0409 20:50:36.648874 32442 net.cpp:150] Setting up conv1
I0409 20:50:36.648905 32442 net.cpp:157] Top shape: 1024 100 42 42 (180633600)
I0409 20:50:36.648910 32442 net.cpp:165] Memory required for data: 750850048
I0409 20:50:36.648931 32442 layer_factory.hpp:77] Creating layer conv1_sTanH
I0409 20:50:36.648949 32442 net.cpp:100] Creating Layer conv1_sTanH
I0409 20:50:36.648953 32442 net.cpp:434] conv1_sTanH <- conv1
I0409 20:50:36.648958 32442 net.cpp:395] conv1_sTanH -> conv1 (in-place)
I0409 20:50:36.649170 32442 net.cpp:150] Setting up conv1_sTanH
I0409 20:50:36.649183 32442 net.cpp:157] Top shape: 1024 100 42 42 (180633600)
I0409 20:50:36.649185 32442 net.cpp:165] Memory required for data: 1473384448
I0409 20:50:36.649189 32442 layer_factory.hpp:77] Creating layer pool1
I0409 20:50:36.649196 32442 net.cpp:100] Creating Layer pool1
I0409 20:50:36.649200 32442 net.cpp:434] pool1 <- conv1
I0409 20:50:36.649206 32442 net.cpp:408] pool1 -> pool1
I0409 20:50:36.649260 32442 net.cpp:150] Setting up pool1
I0409 20:50:36.649269 32442 net.cpp:157] Top shape: 1024 100 21 21 (45158400)
I0409 20:50:36.649276 32442 net.cpp:165] Memory required for data: 1654018048
I0409 20:50:36.649281 32442 layer_factory.hpp:77] Creating layer conv2
I0409 20:50:36.649292 32442 net.cpp:100] Creating Layer conv2
I0409 20:50:36.649296 32442 net.cpp:434] conv2 <- pool1
I0409 20:50:36.649302 32442 net.cpp:408] conv2 -> conv2
I0409 20:50:36.653712 32442 net.cpp:150] Setting up conv2
I0409 20:50:36.653731 32442 net.cpp:157] Top shape: 1024 150 18 18 (49766400)
I0409 20:50:36.653734 32442 net.cpp:165] Memory required for data: 1853083648
I0409 20:50:36.653743 32442 layer_factory.hpp:77] Creating layer conv2_sTanH
I0409 20:50:36.653750 32442 net.cpp:100] Creating Layer conv2_sTanH
I0409 20:50:36.653753 32442 net.cpp:434] conv2_sTanH <- conv2
I0409 20:50:36.653759 32442 net.cpp:395] conv2_sTanH -> conv2 (in-place)
I0409 20:50:36.654548 32442 net.cpp:150] Setting up conv2_sTanH
I0409 20:50:36.654564 32442 net.cpp:157] Top shape: 1024 150 18 18 (49766400)
I0409 20:50:36.654580 32442 net.cpp:165] Memory required for data: 2052149248
I0409 20:50:36.654583 32442 layer_factory.hpp:77] Creating layer pool2
I0409 20:50:36.654590 32442 net.cpp:100] Creating Layer pool2
I0409 20:50:36.654605 32442 net.cpp:434] pool2 <- conv2
I0409 20:50:36.654610 32442 net.cpp:408] pool2 -> pool2
I0409 20:50:36.654695 32442 net.cpp:150] Setting up pool2
I0409 20:50:36.654702 32442 net.cpp:157] Top shape: 1024 150 9 9 (12441600)
I0409 20:50:36.654706 32442 net.cpp:165] Memory required for data: 2101915648
I0409 20:50:36.654708 32442 layer_factory.hpp:77] Creating layer conv3
I0409 20:50:36.654717 32442 net.cpp:100] Creating Layer conv3
I0409 20:50:36.654722 32442 net.cpp:434] conv3 <- pool2
I0409 20:50:36.654727 32442 net.cpp:408] conv3 -> conv3
I0409 20:50:36.660332 32442 net.cpp:150] Setting up conv3
I0409 20:50:36.660351 32442 net.cpp:157] Top shape: 1024 250 6 6 (9216000)
I0409 20:50:36.660365 32442 net.cpp:165] Memory required for data: 2138779648
I0409 20:50:36.660375 32442 layer_factory.hpp:77] Creating layer conv3_sTanH
I0409 20:50:36.660385 32442 net.cpp:100] Creating Layer conv3_sTanH
I0409 20:50:36.660388 32442 net.cpp:434] conv3_sTanH <- conv3
I0409 20:50:36.660393 32442 net.cpp:395] conv3_sTanH -> conv3 (in-place)
I0409 20:50:36.661412 32442 net.cpp:150] Setting up conv3_sTanH
I0409 20:50:36.661435 32442 net.cpp:157] Top shape: 1024 250 6 6 (9216000)
I0409 20:50:36.661442 32442 net.cpp:165] Memory required for data: 2175643648
I0409 20:50:36.661448 32442 layer_factory.hpp:77] Creating layer pool3
I0409 20:50:36.661458 32442 net.cpp:100] Creating Layer pool3
I0409 20:50:36.661463 32442 net.cpp:434] pool3 <- conv3
I0409 20:50:36.661499 32442 net.cpp:408] pool3 -> pool3
I0409 20:50:36.661578 32442 net.cpp:150] Setting up pool3
I0409 20:50:36.661597 32442 net.cpp:157] Top shape: 1024 250 3 3 (2304000)
I0409 20:50:36.661604 32442 net.cpp:165] Memory required for data: 2184859648
I0409 20:50:36.661610 32442 layer_factory.hpp:77] Creating layer fc4_300
I0409 20:50:36.661623 32442 net.cpp:100] Creating Layer fc4_300
I0409 20:50:36.661638 32442 net.cpp:434] fc4_300 <- pool3
I0409 20:50:36.661650 32442 net.cpp:408] fc4_300 -> fc4_300
I0409 20:50:36.668704 32442 net.cpp:150] Setting up fc4_300
I0409 20:50:36.668733 32442 net.cpp:157] Top shape: 1024 300 (307200)
I0409 20:50:36.668736 32442 net.cpp:165] Memory required for data: 2186088448
I0409 20:50:36.668743 32442 layer_factory.hpp:77] Creating layer fc4_sTanH
I0409 20:50:36.668752 32442 net.cpp:100] Creating Layer fc4_sTanH
I0409 20:50:36.668756 32442 net.cpp:434] fc4_sTanH <- fc4_300
I0409 20:50:36.668761 32442 net.cpp:395] fc4_sTanH -> fc4_300 (in-place)
I0409 20:50:36.668954 32442 net.cpp:150] Setting up fc4_sTanH
I0409 20:50:36.668967 32442 net.cpp:157] Top shape: 1024 300 (307200)
I0409 20:50:36.668969 32442 net.cpp:165] Memory required for data: 2187317248
I0409 20:50:36.668972 32442 layer_factory.hpp:77] Creating layer drop4
I0409 20:50:36.668982 32442 net.cpp:100] Creating Layer drop4
I0409 20:50:36.668987 32442 net.cpp:434] drop4 <- fc4_300
I0409 20:50:36.668992 32442 net.cpp:395] drop4 -> fc4_300 (in-place)
I0409 20:50:36.669028 32442 net.cpp:150] Setting up drop4
I0409 20:50:36.669035 32442 net.cpp:157] Top shape: 1024 300 (307200)
I0409 20:50:36.669039 32442 net.cpp:165] Memory required for data: 2188546048
I0409 20:50:36.669041 32442 layer_factory.hpp:77] Creating layer fc5_67
I0409 20:50:36.669050 32442 net.cpp:100] Creating Layer fc5_67
I0409 20:50:36.669055 32442 net.cpp:434] fc5_67 <- fc4_300
I0409 20:50:36.669060 32442 net.cpp:408] fc5_67 -> fc5_classes
I0409 20:50:36.670492 32442 net.cpp:150] Setting up fc5_67
I0409 20:50:36.670508 32442 net.cpp:157] Top shape: 1024 67 (68608)
I0409 20:50:36.670511 32442 net.cpp:165] Memory required for data: 2188820480
I0409 20:50:36.670521 32442 layer_factory.hpp:77] Creating layer loss
I0409 20:50:36.670531 32442 net.cpp:100] Creating Layer loss
I0409 20:50:36.670536 32442 net.cpp:434] loss <- fc5_classes
I0409 20:50:36.670542 32442 net.cpp:434] loss <- label
I0409 20:50:36.670548 32442 net.cpp:408] loss -> loss
I0409 20:50:36.670560 32442 layer_factory.hpp:77] Creating layer loss
…
I0409 20:50:36.671224 32442 solver.cpp:193] Creating test net (#0) specified by test_net file: ./Prototxt/experiment_7/rtsd-r1/CoNorm/trial_3/test.prototxt
I0409 20:50:36.671353 32442 net.cpp:58] Initializing net from parameters: 
state {
  phase: TEST
}
layer {
  name: "data"
  type: "Data"
  top: "data"
  top: "label"
  include {
    phase: TEST
  }
  transform_param {
    mirror: false
    crop_size: 48
    mean_value: 133
    mean_value: 133
    mean_value: 132
  }
  data_param {
    source: "../local_data/lmdb/rtsd-r1/CoNorm/test/lmdb"
    batch_size: 1024
    backend: LMDB
  }
}
layer {
  name: "conv1"
  type: "Convolution"
  bottom: "data"
  top: "conv1"
  convolution_param {
    num_output: 100
    pad: 0
    kernel_size: 7
    group: 1
    stride: 1
    weight_filler {
      type: "xavier"
    }
  }
}
layer {
  name: "conv1_sTanH"
  type: "TanH"
  bottom: "conv1"
  top: "conv1"
}
layer {
  name: "pool1"
  type: "Pooling"
  bottom: "conv1"
  top: "pool1"
  pooling_param {
    pool: MAX
    kernel_size: 2
    stride: 2
  }
}
layer {
  name: "conv2"
  type: "Convolution"
  bottom: "pool1"
  top: "conv2"
  convolution_param {
    num_output: 150
    pad: 0
    kernel_size: 4
    group: 1
    stride: 1
    weight_filler {
      type: "xavier"
    }
  }
}
layer {
  name: "conv2_sTanH"
  type: "TanH"
  bottom: "conv2"
  top: "conv2"
}
layer {
  name: "pool2"
  type: "Pooling"
  bottom: "conv2"
  top: "pool2"
  pooling_param {
    pool: MAX
    kernel_size: 2
    stride: 2
  }
}
layer {
  name: "conv3"
  type: "Convolution"
  bottom: "pool2"
  top: "conv3"
  convolution_param {
    num_output: 250
    pad: 0
    kernel_size: 4
    group: 1
    stride: 1
    weight_filler {
      type: "xavier"
    }
  }
}
layer {
  name: "conv3_sTanH"
  type: "TanH"
  bottom: "conv3"
  top: "conv3"
}
layer {
  name: "pool3"
  type: "Pooling"
  bottom: "conv3"
  top: "pool3"
  pooling_param {
    pool: MAX
    kernel_size: 2
    stride: 2
  }
}
layer {
  name: "fc4_300"
  type: "InnerProduct"
  bottom: "pool3"
  top: "fc4_300"
  inner_product_param {
    num_output: 300
    weight_filler {
      type: "xavier"
    }
  }
}
layer {
  name: "fc4_sTanH"
  type: "TanH"
  bottom: "fc4_300"
  top: "fc4_300"
}
layer {
  name: "drop4"
  type: "Dropout"
  bottom: "fc4_300"
  top: "fc4_300"
  dropout_param {
    dropout_ratio: 0.4
  }
}
layer {
  name: "fc5_67"
  type: "InnerProduct"
  bottom: "fc4_300"
  top: "fc5_classes"
  inner_product_param {
    num_output: 67
    weight_filler {
      type: "xavier"
    }
  }
}
layer {
  name: "loss"
  type: "SoftmaxWithLoss"
  bottom: "fc5_classes"
  bottom: "label"
  top: "loss"
}
layer {
  name: "accuracy_1"
  type: "Accuracy"
  bottom: "fc5_classes"
  bottom: "label"
  top: "accuracy_1"
  include {
    phase: TEST
  }
  accuracy_param {
    top_k: 1
  }
}
layer {
  name: "accuracy_5"
  type: "Accuracy"
  bottom: "fc5_classes"
  bottom: "label"
  top: "accuracy_5"
  include {
    phase: TEST
  }
  accuracy_param {
    top_k: 5
  }
}
I0409 20:50:36.671448 32442 layer_factory.hpp:77] Creating layer data
I0409 20:50:36.672368 32442 net.cpp:100] Creating Layer data
I0409 20:50:36.672410 32442 net.cpp:408] data -> data
I0409 20:50:36.672423 32442 net.cpp:408] data -> label
I0409 20:50:36.675256 32539 db_lmdb.cpp:35] Opened lmdb ../local_data/lmdb/rtsd-r1/CoNorm/test/lmdb
I0409 20:50:36.675418 32442 data_layer.cpp:41] output data size: 1024,3,48,48
I0409 20:50:36.736196 32442 net.cpp:150] Setting up data
I0409 20:50:36.736246 32442 net.cpp:157] Top shape: 1024 3 48 48 (7077888)
I0409 20:50:36.736251 32442 net.cpp:157] Top shape: 1024 (1024)
I0409 20:50:36.736254 32442 net.cpp:165] Memory required for data: 28315648
I0409 20:50:36.736261 32442 layer_factory.hpp:77] Creating layer label_data_1_split
I0409 20:50:36.736275 32442 net.cpp:100] Creating Layer label_data_1_split
I0409 20:50:36.736279 32442 net.cpp:434] label_data_1_split <- label
I0409 20:50:36.736287 32442 net.cpp:408] label_data_1_split -> label_data_1_split_0
I0409 20:50:36.736300 32442 net.cpp:408] label_data_1_split -> label_data_1_split_1
I0409 20:50:36.736307 32442 net.cpp:408] label_data_1_split -> label_data_1_split_2
I0409 20:50:36.736415 32442 net.cpp:150] Setting up label_data_1_split
I0409 20:50:36.736424 32442 net.cpp:157] Top shape: 1024 (1024)
I0409 20:50:36.736428 32442 net.cpp:157] Top shape: 1024 (1024)
I0409 20:50:36.736435 32442 net.cpp:157] Top shape: 1024 (1024)
I0409 20:50:36.736438 32442 net.cpp:165] Memory required for data: 28327936
I0409 20:50:36.736440 32442 layer_factory.hpp:77] Creating layer conv1
I0409 20:50:36.736459 32442 net.cpp:100] Creating Layer conv1
I0409 20:50:36.736464 32442 net.cpp:434] conv1 <- data
I0409 20:50:36.736469 32442 net.cpp:408] conv1 -> conv1
I0409 20:50:36.738471 32442 net.cpp:150] Setting up conv1
I0409 20:50:36.738495 32442 net.cpp:157] Top shape: 1024 100 42 42 (180633600)
I0409 20:50:36.738498 32442 net.cpp:165] Memory required for data: 750862336
I0409 20:50:36.738521 32442 layer_factory.hpp:77] Creating layer conv1_sTanH
I0409 20:50:36.738531 32442 net.cpp:100] Creating Layer conv1_sTanH
I0409 20:50:36.738539 32442 net.cpp:434] conv1_sTanH <- conv1
I0409 20:50:36.738549 32442 net.cpp:395] conv1_sTanH -> conv1 (in-place)
I0409 20:50:36.740917 32442 net.cpp:150] Setting up conv1_sTanH
I0409 20:50:36.740960 32442 net.cpp:157] Top shape: 1024 100 42 42 (180633600)
I0409 20:50:36.740964 32442 net.cpp:165] Memory required for data: 1473396736
I0409 20:50:36.740968 32442 layer_factory.hpp:77] Creating layer pool1
I0409 20:50:36.740985 32442 net.cpp:100] Creating Layer pool1
I0409 20:50:36.740989 32442 net.cpp:434] pool1 <- conv1
I0409 20:50:36.740998 32442 net.cpp:408] pool1 -> pool1
I0409 20:50:36.741058 32442 net.cpp:150] Setting up pool1
I0409 20:50:36.741067 32442 net.cpp:157] Top shape: 1024 100 21 21 (45158400)
I0409 20:50:36.741073 32442 net.cpp:165] Memory required for data: 1654030336
I0409 20:50:36.741076 32442 layer_factory.hpp:77] Creating layer conv2
I0409 20:50:36.741086 32442 net.cpp:100] Creating Layer conv2
I0409 20:50:36.741091 32442 net.cpp:434] conv2 <- pool1
I0409 20:50:36.741098 32442 net.cpp:408] conv2 -> conv2
I0409 20:50:36.746726 32442 net.cpp:150] Setting up conv2
I0409 20:50:36.746745 32442 net.cpp:157] Top shape: 1024 150 18 18 (49766400)
I0409 20:50:36.746752 32442 net.cpp:165] Memory required for data: 1853095936
I0409 20:50:36.746762 32442 layer_factory.hpp:77] Creating layer conv2_sTanH
I0409 20:50:36.746773 32442 net.cpp:100] Creating Layer conv2_sTanH
I0409 20:50:36.746778 32442 net.cpp:434] conv2_sTanH <- conv2
I0409 20:50:36.746783 32442 net.cpp:395] conv2_sTanH -> conv2 (in-place)
I0409 20:50:36.747684 32442 net.cpp:150] Setting up conv2_sTanH
I0409 20:50:36.747700 32442 net.cpp:157] Top shape: 1024 150 18 18 (49766400)
I0409 20:50:36.747707 32442 net.cpp:165] Memory required for data: 2052161536
I0409 20:50:36.747710 32442 layer_factory.hpp:77] Creating layer pool2
I0409 20:50:36.747721 32442 net.cpp:100] Creating Layer pool2
I0409 20:50:36.747725 32442 net.cpp:434] pool2 <- conv2
I0409 20:50:36.747731 32442 net.cpp:408] pool2 -> pool2
I0409 20:50:36.747787 32442 net.cpp:150] Setting up pool2
I0409 20:50:36.747797 32442 net.cpp:157] Top shape: 1024 150 9 9 (12441600)
I0409 20:50:36.747800 32442 net.cpp:165] Memory required for data: 2101927936
I0409 20:50:36.747804 32442 layer_factory.hpp:77] Creating layer conv3
I0409 20:50:36.747817 32442 net.cpp:100] Creating Layer conv3
I0409 20:50:36.747822 32442 net.cpp:434] conv3 <- pool2
I0409 20:50:36.747828 32442 net.cpp:408] conv3 -> conv3
I0409 20:50:36.753659 32442 net.cpp:150] Setting up conv3
I0409 20:50:36.753679 32442 net.cpp:157] Top shape: 1024 250 6 6 (9216000)
I0409 20:50:36.753684 32442 net.cpp:165] Memory required for data: 2138791936
I0409 20:50:36.753693 32442 layer_factory.hpp:77] Creating layer conv3_sTanH
I0409 20:50:36.753701 32442 net.cpp:100] Creating Layer conv3_sTanH
I0409 20:50:36.753707 32442 net.cpp:434] conv3_sTanH <- conv3
I0409 20:50:36.753718 32442 net.cpp:395] conv3_sTanH -> conv3 (in-place)
I0409 20:50:36.754511 32442 net.cpp:150] Setting up conv3_sTanH
I0409 20:50:36.754528 32442 net.cpp:157] Top shape: 1024 250 6 6 (9216000)
I0409 20:50:36.754547 32442 net.cpp:165] Memory required for data: 2175655936
I0409 20:50:36.754551 32442 layer_factory.hpp:77] Creating layer pool3
I0409 20:50:36.754559 32442 net.cpp:100] Creating Layer pool3
I0409 20:50:36.754565 32442 net.cpp:434] pool3 <- conv3
I0409 20:50:36.754572 32442 net.cpp:408] pool3 -> pool3
I0409 20:50:36.754627 32442 net.cpp:150] Setting up pool3
I0409 20:50:36.754637 32442 net.cpp:157] Top shape: 1024 250 3 3 (2304000)
I0409 20:50:36.754639 32442 net.cpp:165] Memory required for data: 2184871936
I0409 20:50:36.754642 32442 layer_factory.hpp:77] Creating layer fc4_300
I0409 20:50:36.754657 32442 net.cpp:100] Creating Layer fc4_300
I0409 20:50:36.754662 32442 net.cpp:434] fc4_300 <- pool3
I0409 20:50:36.754668 32442 net.cpp:408] fc4_300 -> fc4_300
I0409 20:50:36.760133 32442 net.cpp:150] Setting up fc4_300
I0409 20:50:36.760150 32442 net.cpp:157] Top shape: 1024 300 (307200)
I0409 20:50:36.760154 32442 net.cpp:165] Memory required for data: 2186100736
I0409 20:50:36.760160 32442 layer_factory.hpp:77] Creating layer fc4_sTanH
I0409 20:50:36.760170 32442 net.cpp:100] Creating Layer fc4_sTanH
I0409 20:50:36.760179 32442 net.cpp:434] fc4_sTanH <- fc4_300
I0409 20:50:36.760185 32442 net.cpp:395] fc4_sTanH -> fc4_300 (in-place)
I0409 20:50:36.760391 32442 net.cpp:150] Setting up fc4_sTanH
I0409 20:50:36.760403 32442 net.cpp:157] Top shape: 1024 300 (307200)
I0409 20:50:36.760406 32442 net.cpp:165] Memory required for data: 2187329536
I0409 20:50:36.760409 32442 layer_factory.hpp:77] Creating layer drop4
I0409 20:50:36.760416 32442 net.cpp:100] Creating Layer drop4
I0409 20:50:36.760421 32442 net.cpp:434] drop4 <- fc4_300
I0409 20:50:36.760427 32442 net.cpp:395] drop4 -> fc4_300 (in-place)
I0409 20:50:36.760470 32442 net.cpp:150] Setting up drop4
I0409 20:50:36.760478 32442 net.cpp:157] Top shape: 1024 300 (307200)
I0409 20:50:36.760480 32442 net.cpp:165] Memory required for data: 2188558336
I0409 20:50:36.760483 32442 layer_factory.hpp:77] Creating layer fc5_67
I0409 20:50:36.760493 32442 net.cpp:100] Creating Layer fc5_67
I0409 20:50:36.760499 32442 net.cpp:434] fc5_67 <- fc4_300
I0409 20:50:36.760504 32442 net.cpp:408] fc5_67 -> fc5_classes
I0409 20:50:36.760759 32442 net.cpp:150] Setting up fc5_67
I0409 20:50:36.760768 32442 net.cpp:157] Top shape: 1024 67 (68608)
I0409 20:50:36.760771 32442 net.cpp:165] Memory required for data: 2188832768
I0409 20:50:36.760782 32442 layer_factory.hpp:77] Creating layer fc5_classes_fc5_67_0_split
I0409 20:50:36.760789 32442 net.cpp:100] Creating Layer fc5_classes_fc5_67_0_split
I0409 20:50:36.760793 32442 net.cpp:434] fc5_classes_fc5_67_0_split <- fc5_classes
I0409 20:50:36.760798 32442 net.cpp:408] fc5_classes_fc5_67_0_split -> fc5_classes_fc5_67_0_split_0
I0409 20:50:36.760808 32442 net.cpp:408] fc5_classes_fc5_67_0_split -> fc5_classes_fc5_67_0_split_1
I0409 20:50:36.760817 32442 net.cpp:408] fc5_classes_fc5_67_0_split -> fc5_classes_fc5_67_0_split_2
I0409 20:50:36.760870 32442 net.cpp:150] Setting up fc5_classes_fc5_67_0_split
I0409 20:50:36.760877 32442 net.cpp:157] Top shape: 1024 67 (68608)
I0409 20:50:36.760881 32442 net.cpp:157] Top shape: 1024 67 (68608)
I0409 20:50:36.760885 32442 net.cpp:157] Top shape: 1024 67 (68608)
I0409 20:50:36.760886 32442 net.cpp:165] Memory required for data: 2189656064
I0409 20:50:36.760890 32442 layer_factory.hpp:77] Creating layer loss
I0409 20:50:36.760900 32442 net.cpp:100] Creating Layer loss
I0409 20:50:36.760905 32442 net.cpp:434] loss <- fc5_classes_fc5_67_0_split_0
I0409 20:50:36.760910 32442 net.cpp:434] loss <- label_data_1_split_0
I0409 20:50:36.760915 32442 net.cpp:408] loss -> loss
…
