…
I0409 21:43:54.419786 15889 net.cpp:322] The NetState phase (0) differed from the phase (1) specified by a rule in layer accuracy_5
I0409 21:43:54.419906 15889 net.cpp:58] Initializing net from parameters: 
state {
  phase: TRAIN
  level: 0
  stage: ""
}
layer {
  name: "data"
  type: "Data"
  top: "data"
  top: "label"
  include {
    phase: TRAIN
  }
  transform_param {
    mirror: false
    crop_size: 48
    mean_value: 132
    mean_value: 132
    mean_value: 131
  }
  data_param {
    source: "../local_data/lmdb/rtsd-r1/CoNorm/train/lmdb"
    batch_size: 1024
    backend: LMDB
  }
}
layer {
  name: "conv1"
  type: "Convolution"
  bottom: "data"
  top: "conv1"
  convolution_param {
    num_output: 100
    pad: 0
    kernel_size: 7
    group: 1
    stride: 1
    weight_filler {
      type: "xavier"
    }
  }
}
layer {
  name: "conv1_sTanH"
  type: "TanH"
  bottom: "conv1"
  top: "conv1"
}
layer {
  name: "pool1"
  type: "Pooling"
  bottom: "conv1"
  top: "pool1"
  pooling_param {
    pool: MAX
    kernel_size: 2
    stride: 2
  }
}
layer {
  name: "conv2"
  type: "Convolution"
  bottom: "pool1"
  top: "conv2"
  convolution_param {
    num_output: 150
    pad: 0
    kernel_size: 4
    group: 1
    stride: 1
    weight_filler {
      type: "xavier"
    }
  }
}
layer {
  name: "conv2_sTanH"
  type: "TanH"
  bottom: "conv2"
  top: "conv2"
}
layer {
  name: "pool2"
  type: "Pooling"
  bottom: "conv2"
  top: "pool2"
  pooling_param {
    pool: MAX
    kernel_size: 2
    stride: 2
  }
}
layer {
  name: "conv3"
  type: "Convolution"
  bottom: "pool2"
  top: "conv3"
  convolution_param {
    num_output: 250
    pad: 0
    kernel_size: 4
    group: 1
    stride: 1
    weight_filler {
      type: "xavier"
    }
  }
}
layer {
  name: "conv3_sTanH"
  type: "TanH"
  bottom: "conv3"
  top: "conv3"
}
layer {
  name: "pool3"
  type: "Pooling"
  bottom: "conv3"
  top: "pool3"
  pooling_param {
    pool: MAX
    kernel_size: 2
    stride: 2
  }
}
layer {
  name: "fc4_300"
  type: "InnerProduct"
  bottom: "pool3"
  top: "fc4_300"
  inner_product_param {
    num_output: 300
    weight_filler {
      type: "xavier"
    }
  }
}
layer {
  name: "fc4_sTanH"
  type: "TanH"
  bottom: "fc4_300"
  top: "fc4_300"
}
layer {
  name: "drop4"
  type: "Dropout"
  bottom: "fc4_300"
  top: "fc4_300"
  dropout_param {
    dropout_ratio: 0.4
  }
}
layer {
  name: "fc5_67"
  type: "InnerProduct"
  bottom: "fc4_300"
  top: "fc5_classes"
  inner_product_param {
    num_output: 67
    weight_filler {
      type: "xavier"
    }
  }
}
layer {
  name: "loss"
  type: "SoftmaxWithLoss"
  bottom: "fc5_classes"
  bottom: "label"
  top: "loss"
}
I0409 21:43:54.419996 15889 layer_factory.hpp:77] Creating layer data
I0409 21:43:54.421316 15889 net.cpp:100] Creating Layer data
I0409 21:43:54.421334 15889 net.cpp:408] data -> data
I0409 21:43:54.421358 15889 net.cpp:408] data -> label
I0409 21:43:54.422543 15972 db_lmdb.cpp:35] Opened lmdb ../local_data/lmdb/rtsd-r1/CoNorm/train/lmdb
I0409 21:43:54.443030 15889 data_layer.cpp:41] output data size: 1024,3,48,48
I0409 21:43:54.496546 15889 net.cpp:150] Setting up data
I0409 21:43:54.496592 15889 net.cpp:157] Top shape: 1024 3 48 48 (7077888)
I0409 21:43:54.496642 15889 net.cpp:157] Top shape: 1024 (1024)
I0409 21:43:54.496650 15889 net.cpp:165] Memory required for data: 28315648
I0409 21:43:54.496667 15889 layer_factory.hpp:77] Creating layer conv1
I0409 21:43:54.496701 15889 net.cpp:100] Creating Layer conv1
I0409 21:43:54.496711 15889 net.cpp:434] conv1 <- data
I0409 21:43:54.496726 15889 net.cpp:408] conv1 -> conv1
I0409 21:43:54.831665 15889 net.cpp:150] Setting up conv1
I0409 21:43:54.831698 15889 net.cpp:157] Top shape: 1024 100 42 42 (180633600)
I0409 21:43:54.831703 15889 net.cpp:165] Memory required for data: 750850048
I0409 21:43:54.831728 15889 layer_factory.hpp:77] Creating layer conv1_sTanH
I0409 21:43:54.831743 15889 net.cpp:100] Creating Layer conv1_sTanH
I0409 21:43:54.831755 15889 net.cpp:434] conv1_sTanH <- conv1
I0409 21:43:54.831761 15889 net.cpp:395] conv1_sTanH -> conv1 (in-place)
I0409 21:43:54.832016 15889 net.cpp:150] Setting up conv1_sTanH
I0409 21:43:54.832032 15889 net.cpp:157] Top shape: 1024 100 42 42 (180633600)
I0409 21:43:54.832036 15889 net.cpp:165] Memory required for data: 1473384448
I0409 21:43:54.832041 15889 layer_factory.hpp:77] Creating layer pool1
I0409 21:43:54.832049 15889 net.cpp:100] Creating Layer pool1
I0409 21:43:54.832053 15889 net.cpp:434] pool1 <- conv1
I0409 21:43:54.832062 15889 net.cpp:408] pool1 -> pool1
I0409 21:43:54.832126 15889 net.cpp:150] Setting up pool1
I0409 21:43:54.832136 15889 net.cpp:157] Top shape: 1024 100 21 21 (45158400)
I0409 21:43:54.832140 15889 net.cpp:165] Memory required for data: 1654018048
I0409 21:43:54.832144 15889 layer_factory.hpp:77] Creating layer conv2
I0409 21:43:54.832159 15889 net.cpp:100] Creating Layer conv2
I0409 21:43:54.832164 15889 net.cpp:434] conv2 <- pool1
I0409 21:43:54.832170 15889 net.cpp:408] conv2 -> conv2
I0409 21:43:54.837409 15889 net.cpp:150] Setting up conv2
I0409 21:43:54.837430 15889 net.cpp:157] Top shape: 1024 150 18 18 (49766400)
I0409 21:43:54.837435 15889 net.cpp:165] Memory required for data: 1853083648
I0409 21:43:54.837446 15889 layer_factory.hpp:77] Creating layer conv2_sTanH
I0409 21:43:54.837455 15889 net.cpp:100] Creating Layer conv2_sTanH
I0409 21:43:54.837458 15889 net.cpp:434] conv2_sTanH <- conv2
I0409 21:43:54.837465 15889 net.cpp:395] conv2_sTanH -> conv2 (in-place)
I0409 21:43:54.838366 15889 net.cpp:150] Setting up conv2_sTanH
I0409 21:43:54.838392 15889 net.cpp:157] Top shape: 1024 150 18 18 (49766400)
I0409 21:43:54.838395 15889 net.cpp:165] Memory required for data: 2052149248
I0409 21:43:54.838400 15889 layer_factory.hpp:77] Creating layer pool2
I0409 21:43:54.838408 15889 net.cpp:100] Creating Layer pool2
I0409 21:43:54.838413 15889 net.cpp:434] pool2 <- conv2
I0409 21:43:54.838419 15889 net.cpp:408] pool2 -> pool2
I0409 21:43:54.838476 15889 net.cpp:150] Setting up pool2
I0409 21:43:54.838486 15889 net.cpp:157] Top shape: 1024 150 9 9 (12441600)
I0409 21:43:54.838490 15889 net.cpp:165] Memory required for data: 2101915648
I0409 21:43:54.838493 15889 layer_factory.hpp:77] Creating layer conv3
I0409 21:43:54.838503 15889 net.cpp:100] Creating Layer conv3
I0409 21:43:54.838507 15889 net.cpp:434] conv3 <- pool2
I0409 21:43:54.838512 15889 net.cpp:408] conv3 -> conv3
I0409 21:43:54.845290 15889 net.cpp:150] Setting up conv3
I0409 21:43:54.845311 15889 net.cpp:157] Top shape: 1024 250 6 6 (9216000)
I0409 21:43:54.845315 15889 net.cpp:165] Memory required for data: 2138779648
I0409 21:43:54.845327 15889 layer_factory.hpp:77] Creating layer conv3_sTanH
I0409 21:43:54.845336 15889 net.cpp:100] Creating Layer conv3_sTanH
I0409 21:43:54.845340 15889 net.cpp:434] conv3_sTanH <- conv3
I0409 21:43:54.845346 15889 net.cpp:395] conv3_sTanH -> conv3 (in-place)
I0409 21:43:54.846472 15889 net.cpp:150] Setting up conv3_sTanH
I0409 21:43:54.846493 15889 net.cpp:157] Top shape: 1024 250 6 6 (9216000)
I0409 21:43:54.846496 15889 net.cpp:165] Memory required for data: 2175643648
I0409 21:43:54.846500 15889 layer_factory.hpp:77] Creating layer pool3
I0409 21:43:54.846508 15889 net.cpp:100] Creating Layer pool3
I0409 21:43:54.846513 15889 net.cpp:434] pool3 <- conv3
I0409 21:43:54.846544 15889 net.cpp:408] pool3 -> pool3
I0409 21:43:54.846603 15889 net.cpp:150] Setting up pool3
I0409 21:43:54.846614 15889 net.cpp:157] Top shape: 1024 250 3 3 (2304000)
I0409 21:43:54.846618 15889 net.cpp:165] Memory required for data: 2184859648
I0409 21:43:54.846622 15889 layer_factory.hpp:77] Creating layer fc4_300
I0409 21:43:54.846632 15889 net.cpp:100] Creating Layer fc4_300
I0409 21:43:54.846635 15889 net.cpp:434] fc4_300 <- pool3
I0409 21:43:54.846642 15889 net.cpp:408] fc4_300 -> fc4_300
I0409 21:43:54.853440 15889 net.cpp:150] Setting up fc4_300
I0409 21:43:54.853459 15889 net.cpp:157] Top shape: 1024 300 (307200)
I0409 21:43:54.853463 15889 net.cpp:165] Memory required for data: 2186088448
I0409 21:43:54.853472 15889 layer_factory.hpp:77] Creating layer fc4_sTanH
I0409 21:43:54.853480 15889 net.cpp:100] Creating Layer fc4_sTanH
I0409 21:43:54.853484 15889 net.cpp:434] fc4_sTanH <- fc4_300
I0409 21:43:54.853490 15889 net.cpp:395] fc4_sTanH -> fc4_300 (in-place)
I0409 21:43:54.853718 15889 net.cpp:150] Setting up fc4_sTanH
I0409 21:43:54.853731 15889 net.cpp:157] Top shape: 1024 300 (307200)
I0409 21:43:54.853735 15889 net.cpp:165] Memory required for data: 2187317248
I0409 21:43:54.853740 15889 layer_factory.hpp:77] Creating layer drop4
I0409 21:43:54.853749 15889 net.cpp:100] Creating Layer drop4
I0409 21:43:54.853752 15889 net.cpp:434] drop4 <- fc4_300
I0409 21:43:54.853757 15889 net.cpp:395] drop4 -> fc4_300 (in-place)
I0409 21:43:54.853796 15889 net.cpp:150] Setting up drop4
I0409 21:43:54.853804 15889 net.cpp:157] Top shape: 1024 300 (307200)
I0409 21:43:54.853808 15889 net.cpp:165] Memory required for data: 2188546048
I0409 21:43:54.853812 15889 layer_factory.hpp:77] Creating layer fc5_67
I0409 21:43:54.853819 15889 net.cpp:100] Creating Layer fc5_67
I0409 21:43:54.853822 15889 net.cpp:434] fc5_67 <- fc4_300
I0409 21:43:54.853828 15889 net.cpp:408] fc5_67 -> fc5_classes
I0409 21:43:54.856842 15889 net.cpp:150] Setting up fc5_67
I0409 21:43:54.856861 15889 net.cpp:157] Top shape: 1024 67 (68608)
I0409 21:43:54.856865 15889 net.cpp:165] Memory required for data: 2188820480
I0409 21:43:54.856878 15889 layer_factory.hpp:77] Creating layer loss
I0409 21:43:54.856886 15889 net.cpp:100] Creating Layer loss
I0409 21:43:54.856890 15889 net.cpp:434] loss <- fc5_classes
I0409 21:43:54.856895 15889 net.cpp:434] loss <- label
I0409 21:43:54.856902 15889 net.cpp:408] loss -> loss
I0409 21:43:54.856917 15889 layer_factory.hpp:77] Creating layer loss
…
I0409 21:43:54.857703 15889 solver.cpp:193] Creating test net (#0) specified by test_net file: ./Prototxt/experiment_7/rtsd-r1/CoNorm/trial_3/test.prototxt
I0409 21:43:54.857861 15889 net.cpp:58] Initializing net from parameters: 
state {
  phase: TEST
}
layer {
  name: "data"
  type: "Data"
  top: "data"
  top: "label"
  include {
    phase: TEST
  }
  transform_param {
    mirror: false
    crop_size: 48
    mean_value: 133
    mean_value: 133
    mean_value: 132
  }
  data_param {
    source: "../local_data/lmdb/rtsd-r1/CoNorm/test/lmdb"
    batch_size: 1024
    backend: LMDB
  }
}
layer {
  name: "conv1"
  type: "Convolution"
  bottom: "data"
  top: "conv1"
  convolution_param {
    num_output: 100
    pad: 0
    kernel_size: 7
    group: 1
    stride: 1
    weight_filler {
      type: "xavier"
    }
  }
}
layer {
  name: "conv1_sTanH"
  type: "TanH"
  bottom: "conv1"
  top: "conv1"
}
layer {
  name: "pool1"
  type: "Pooling"
  bottom: "conv1"
  top: "pool1"
  pooling_param {
    pool: MAX
    kernel_size: 2
    stride: 2
  }
}
layer {
  name: "conv2"
  type: "Convolution"
  bottom: "pool1"
  top: "conv2"
  convolution_param {
    num_output: 150
    pad: 0
    kernel_size: 4
    group: 1
    stride: 1
    weight_filler {
      type: "xavier"
    }
  }
}
layer {
  name: "conv2_sTanH"
  type: "TanH"
  bottom: "conv2"
  top: "conv2"
}
layer {
  name: "pool2"
  type: "Pooling"
  bottom: "conv2"
  top: "pool2"
  pooling_param {
    pool: MAX
    kernel_size: 2
    stride: 2
  }
}
layer {
  name: "conv3"
  type: "Convolution"
  bottom: "pool2"
  top: "conv3"
  convolution_param {
    num_output: 250
    pad: 0
    kernel_size: 4
    group: 1
    stride: 1
    weight_filler {
      type: "xavier"
    }
  }
}
layer {
  name: "conv3_sTanH"
  type: "TanH"
  bottom: "conv3"
  top: "conv3"
}
layer {
  name: "pool3"
  type: "Pooling"
  bottom: "conv3"
  top: "pool3"
  pooling_param {
    pool: MAX
    kernel_size: 2
    stride: 2
  }
}
layer {
  name: "fc4_300"
  type: "InnerProduct"
  bottom: "pool3"
  top: "fc4_300"
  inner_product_param {
    num_output: 300
    weight_filler {
      type: "xavier"
    }
  }
}
layer {
  name: "fc4_sTanH"
  type: "TanH"
  bottom: "fc4_300"
  top: "fc4_300"
}
layer {
  name: "drop4"
  type: "Dropout"
  bottom: "fc4_300"
  top: "fc4_300"
  dropout_param {
    dropout_ratio: 0.4
  }
}
layer {
  name: "fc5_67"
  type: "InnerProduct"
  bottom: "fc4_300"
  top: "fc5_classes"
  inner_product_param {
    num_output: 67
    weight_filler {
      type: "xavier"
    }
  }
}
layer {
  name: "loss"
  type: "SoftmaxWithLoss"
  bottom: "fc5_classes"
  bottom: "label"
  top: "loss"
}
layer {
  name: "accuracy_1"
  type: "Accuracy"
  bottom: "fc5_classes"
  bottom: "label"
  top: "accuracy_1"
  include {
    phase: TEST
  }
  accuracy_param {
    top_k: 1
  }
}
layer {
  name: "accuracy_5"
  type: "Accuracy"
  bottom: "fc5_classes"
  bottom: "label"
  top: "accuracy_5"
  include {
    phase: TEST
  }
  accuracy_param {
    top_k: 5
  }
}
I0409 21:43:54.857961 15889 layer_factory.hpp:77] Creating layer data
I0409 21:43:54.858736 15889 net.cpp:100] Creating Layer data
I0409 21:43:54.858752 15889 net.cpp:408] data -> data
I0409 21:43:54.858762 15889 net.cpp:408] data -> label
I0409 21:43:54.862622 15996 db_lmdb.cpp:35] Opened lmdb ../local_data/lmdb/rtsd-r1/CoNorm/test/lmdb
I0409 21:43:54.862934 15889 data_layer.cpp:41] output data size: 1024,3,48,48
I0409 21:43:54.909986 15889 net.cpp:150] Setting up data
I0409 21:43:54.910017 15889 net.cpp:157] Top shape: 1024 3 48 48 (7077888)
I0409 21:43:54.910024 15889 net.cpp:157] Top shape: 1024 (1024)
I0409 21:43:54.910027 15889 net.cpp:165] Memory required for data: 28315648
I0409 21:43:54.910035 15889 layer_factory.hpp:77] Creating layer label_data_1_split
I0409 21:43:54.910051 15889 net.cpp:100] Creating Layer label_data_1_split
I0409 21:43:54.910058 15889 net.cpp:434] label_data_1_split <- label
I0409 21:43:54.910068 15889 net.cpp:408] label_data_1_split -> label_data_1_split_0
I0409 21:43:54.910081 15889 net.cpp:408] label_data_1_split -> label_data_1_split_1
I0409 21:43:54.910094 15889 net.cpp:408] label_data_1_split -> label_data_1_split_2
I0409 21:43:54.910223 15889 net.cpp:150] Setting up label_data_1_split
I0409 21:43:54.910234 15889 net.cpp:157] Top shape: 1024 (1024)
I0409 21:43:54.910239 15889 net.cpp:157] Top shape: 1024 (1024)
I0409 21:43:54.910243 15889 net.cpp:157] Top shape: 1024 (1024)
I0409 21:43:54.910248 15889 net.cpp:165] Memory required for data: 28327936
I0409 21:43:54.910250 15889 layer_factory.hpp:77] Creating layer conv1
I0409 21:43:54.910267 15889 net.cpp:100] Creating Layer conv1
I0409 21:43:54.910274 15889 net.cpp:434] conv1 <- data
I0409 21:43:54.910282 15889 net.cpp:408] conv1 -> conv1
I0409 21:43:54.912606 15889 net.cpp:150] Setting up conv1
I0409 21:43:54.912642 15889 net.cpp:157] Top shape: 1024 100 42 42 (180633600)
I0409 21:43:54.912647 15889 net.cpp:165] Memory required for data: 750862336
I0409 21:43:54.912662 15889 layer_factory.hpp:77] Creating layer conv1_sTanH
I0409 21:43:54.912669 15889 net.cpp:100] Creating Layer conv1_sTanH
I0409 21:43:54.912673 15889 net.cpp:434] conv1_sTanH <- conv1
I0409 21:43:54.912681 15889 net.cpp:395] conv1_sTanH -> conv1 (in-place)
I0409 21:43:54.915107 15889 net.cpp:150] Setting up conv1_sTanH
I0409 21:43:54.915124 15889 net.cpp:157] Top shape: 1024 100 42 42 (180633600)
I0409 21:43:54.915128 15889 net.cpp:165] Memory required for data: 1473396736
I0409 21:43:54.915138 15889 layer_factory.hpp:77] Creating layer pool1
I0409 21:43:54.915148 15889 net.cpp:100] Creating Layer pool1
I0409 21:43:54.915154 15889 net.cpp:434] pool1 <- conv1
I0409 21:43:54.915165 15889 net.cpp:408] pool1 -> pool1
I0409 21:43:54.915235 15889 net.cpp:150] Setting up pool1
I0409 21:43:54.915247 15889 net.cpp:157] Top shape: 1024 100 21 21 (45158400)
I0409 21:43:54.915251 15889 net.cpp:165] Memory required for data: 1654030336
I0409 21:43:54.915256 15889 layer_factory.hpp:77] Creating layer conv2
I0409 21:43:54.915268 15889 net.cpp:100] Creating Layer conv2
I0409 21:43:54.915274 15889 net.cpp:434] conv2 <- pool1
I0409 21:43:54.915282 15889 net.cpp:408] conv2 -> conv2
I0409 21:43:54.920140 15889 net.cpp:150] Setting up conv2
I0409 21:43:54.920161 15889 net.cpp:157] Top shape: 1024 150 18 18 (49766400)
I0409 21:43:54.920169 15889 net.cpp:165] Memory required for data: 1853095936
I0409 21:43:54.920181 15889 layer_factory.hpp:77] Creating layer conv2_sTanH
I0409 21:43:54.920189 15889 net.cpp:100] Creating Layer conv2_sTanH
I0409 21:43:54.920194 15889 net.cpp:434] conv2_sTanH <- conv2
I0409 21:43:54.920200 15889 net.cpp:395] conv2_sTanH -> conv2 (in-place)
I0409 21:43:54.921180 15889 net.cpp:150] Setting up conv2_sTanH
I0409 21:43:54.921200 15889 net.cpp:157] Top shape: 1024 150 18 18 (49766400)
I0409 21:43:54.921205 15889 net.cpp:165] Memory required for data: 2052161536
I0409 21:43:54.921210 15889 layer_factory.hpp:77] Creating layer pool2
I0409 21:43:54.921219 15889 net.cpp:100] Creating Layer pool2
I0409 21:43:54.921223 15889 net.cpp:434] pool2 <- conv2
I0409 21:43:54.921231 15889 net.cpp:408] pool2 -> pool2
I0409 21:43:54.921299 15889 net.cpp:150] Setting up pool2
I0409 21:43:54.921310 15889 net.cpp:157] Top shape: 1024 150 9 9 (12441600)
I0409 21:43:54.921314 15889 net.cpp:165] Memory required for data: 2101927936
I0409 21:43:54.921319 15889 layer_factory.hpp:77] Creating layer conv3
I0409 21:43:54.921331 15889 net.cpp:100] Creating Layer conv3
I0409 21:43:54.921344 15889 net.cpp:434] conv3 <- pool2
I0409 21:43:54.921352 15889 net.cpp:408] conv3 -> conv3
I0409 21:43:54.928360 15889 net.cpp:150] Setting up conv3
I0409 21:43:54.928387 15889 net.cpp:157] Top shape: 1024 250 6 6 (9216000)
I0409 21:43:54.928392 15889 net.cpp:165] Memory required for data: 2138791936
I0409 21:43:54.928406 15889 layer_factory.hpp:77] Creating layer conv3_sTanH
I0409 21:43:54.928418 15889 net.cpp:100] Creating Layer conv3_sTanH
I0409 21:43:54.928422 15889 net.cpp:434] conv3_sTanH <- conv3
I0409 21:43:54.928432 15889 net.cpp:395] conv3_sTanH -> conv3 (in-place)
I0409 21:43:54.929859 15889 net.cpp:150] Setting up conv3_sTanH
I0409 21:43:54.929878 15889 net.cpp:157] Top shape: 1024 250 6 6 (9216000)
I0409 21:43:54.929903 15889 net.cpp:165] Memory required for data: 2175655936
I0409 21:43:54.929910 15889 layer_factory.hpp:77] Creating layer pool3
I0409 21:43:54.929921 15889 net.cpp:100] Creating Layer pool3
I0409 21:43:54.929926 15889 net.cpp:434] pool3 <- conv3
I0409 21:43:54.929934 15889 net.cpp:408] pool3 -> pool3
I0409 21:43:54.930003 15889 net.cpp:150] Setting up pool3
I0409 21:43:54.930014 15889 net.cpp:157] Top shape: 1024 250 3 3 (2304000)
I0409 21:43:54.930018 15889 net.cpp:165] Memory required for data: 2184871936
I0409 21:43:54.930022 15889 layer_factory.hpp:77] Creating layer fc4_300
I0409 21:43:54.930030 15889 net.cpp:100] Creating Layer fc4_300
I0409 21:43:54.930034 15889 net.cpp:434] fc4_300 <- pool3
I0409 21:43:54.930042 15889 net.cpp:408] fc4_300 -> fc4_300
I0409 21:43:54.936792 15889 net.cpp:150] Setting up fc4_300
I0409 21:43:54.936815 15889 net.cpp:157] Top shape: 1024 300 (307200)
I0409 21:43:54.936820 15889 net.cpp:165] Memory required for data: 2186100736
I0409 21:43:54.936827 15889 layer_factory.hpp:77] Creating layer fc4_sTanH
I0409 21:43:54.936836 15889 net.cpp:100] Creating Layer fc4_sTanH
I0409 21:43:54.936841 15889 net.cpp:434] fc4_sTanH <- fc4_300
I0409 21:43:54.936849 15889 net.cpp:395] fc4_sTanH -> fc4_300 (in-place)
I0409 21:43:54.937096 15889 net.cpp:150] Setting up fc4_sTanH
I0409 21:43:54.937111 15889 net.cpp:157] Top shape: 1024 300 (307200)
I0409 21:43:54.937115 15889 net.cpp:165] Memory required for data: 2187329536
I0409 21:43:54.937119 15889 layer_factory.hpp:77] Creating layer drop4
I0409 21:43:54.937127 15889 net.cpp:100] Creating Layer drop4
I0409 21:43:54.937132 15889 net.cpp:434] drop4 <- fc4_300
I0409 21:43:54.937140 15889 net.cpp:395] drop4 -> fc4_300 (in-place)
I0409 21:43:54.937177 15889 net.cpp:150] Setting up drop4
I0409 21:43:54.937186 15889 net.cpp:157] Top shape: 1024 300 (307200)
I0409 21:43:54.937191 15889 net.cpp:165] Memory required for data: 2188558336
I0409 21:43:54.937193 15889 layer_factory.hpp:77] Creating layer fc5_67
I0409 21:43:54.937203 15889 net.cpp:100] Creating Layer fc5_67
I0409 21:43:54.937207 15889 net.cpp:434] fc5_67 <- fc4_300
I0409 21:43:54.937216 15889 net.cpp:408] fc5_67 -> fc5_classes
I0409 21:43:54.937525 15889 net.cpp:150] Setting up fc5_67
I0409 21:43:54.937536 15889 net.cpp:157] Top shape: 1024 67 (68608)
I0409 21:43:54.937539 15889 net.cpp:165] Memory required for data: 2188832768
I0409 21:43:54.937552 15889 layer_factory.hpp:77] Creating layer fc5_classes_fc5_67_0_split
I0409 21:43:54.937564 15889 net.cpp:100] Creating Layer fc5_classes_fc5_67_0_split
I0409 21:43:54.937568 15889 net.cpp:434] fc5_classes_fc5_67_0_split <- fc5_classes
I0409 21:43:54.937578 15889 net.cpp:408] fc5_classes_fc5_67_0_split -> fc5_classes_fc5_67_0_split_0
I0409 21:43:54.937587 15889 net.cpp:408] fc5_classes_fc5_67_0_split -> fc5_classes_fc5_67_0_split_1
I0409 21:43:54.937594 15889 net.cpp:408] fc5_classes_fc5_67_0_split -> fc5_classes_fc5_67_0_split_2
I0409 21:43:54.937659 15889 net.cpp:150] Setting up fc5_classes_fc5_67_0_split
I0409 21:43:54.937667 15889 net.cpp:157] Top shape: 1024 67 (68608)
I0409 21:43:54.937671 15889 net.cpp:157] Top shape: 1024 67 (68608)
I0409 21:43:54.937675 15889 net.cpp:157] Top shape: 1024 67 (68608)
I0409 21:43:54.937680 15889 net.cpp:165] Memory required for data: 2189656064
I0409 21:43:54.937683 15889 layer_factory.hpp:77] Creating layer loss
I0409 21:43:54.937695 15889 net.cpp:100] Creating Layer loss
I0409 21:43:54.937711 15889 net.cpp:434] loss <- fc5_classes_fc5_67_0_split_0
I0409 21:43:54.937716 15889 net.cpp:434] loss <- label_data_1_split_0
I0409 21:43:54.937722 15889 net.cpp:408] loss -> loss
…
