…
I0529 00:23:39.729012 18517 solver.cpp:81] Creating training net from train_net file: ./Prototxt/experiment_22/RTSD/histeq/trial_5/train.prototxt
I0529 00:23:39.739166 18517 net.cpp:58] Initializing net from parameters: 
state {
  phase: TRAIN
  level: 0
  stage: ""
}
layer {
  name: "data"
  type: "Data"
  top: "data"
  top: "label"
  include {
    phase: TRAIN
  }
  transform_param {
    scale: 0.0039215689
    mirror: false
    crop_size: 48
    mean_value: 134
    mean_value: 128
    mean_value: 128
  }
  data_param {
    source: "../local_data/lmdb/RTSD/histeq/train/lmdb"
    batch_size: 1024
    backend: LMDB
  }
}
layer {
  name: "conv1"
  type: "Convolution"
  bottom: "data"
  top: "conv1"
  convolution_param {
    num_output: 100
    pad: 0
    kernel_size: 7
    group: 1
    stride: 1
    weight_filler {
      type: "xavier"
    }
  }
}
layer {
  name: "conv1_relu"
  type: "ReLU"
  bottom: "conv1"
  top: "conv1"
}
layer {
  name: "pool1"
  type: "Pooling"
  bottom: "conv1"
  top: "pool1"
  pooling_param {
    pool: MAX
    kernel_size: 2
    stride: 2
  }
}
layer {
  name: "conv2"
  type: "Convolution"
  bottom: "pool1"
  top: "conv2"
  convolution_param {
    num_output: 150
    pad: 0
    kernel_size: 4
    group: 1
    stride: 1
    weight_filler {
      type: "xavier"
    }
  }
}
layer {
  name: "conv2_relu"
  type: "ReLU"
  bottom: "conv2"
  top: "conv2"
}
layer {
  name: "pool2"
  type: "Pooling"
  bottom: "conv2"
  top: "pool2"
  pooling_param {
    pool: MAX
    kernel_size: 2
    stride: 2
  }
}
layer {
  name: "conv3"
  type: "Convolution"
  bottom: "pool2"
  top: "conv3"
  convolution_param {
    num_output: 250
    pad: 0
    kernel_size: 4
    group: 1
    stride: 1
    weight_filler {
      type: "xavier"
    }
  }
}
layer {
  name: "conv3_relu"
  type: "ReLU"
  bottom: "conv3"
  top: "conv3"
}
layer {
  name: "pool3"
  type: "Pooling"
  bottom: "conv3"
  top: "pool3"
  pooling_param {
    pool: MAX
    kernel_size: 2
    stride: 2
  }
}
layer {
  name: "fc4_300"
  type: "InnerProduct"
  bottom: "pool3"
  top: "fc4_300"
  inner_product_param {
    num_output: 300
    weight_filler {
      type: "xavier"
    }
  }
}
layer {
  name: "fc4_relu"
  type: "ReLU"
  bottom: "fc4_300"
  top: "fc4_300"
}
layer {
  name: "fc5_116"
  type: "InnerProduct"
  bottom: "fc4_300"
  top: "fc5_classes"
  inner_product_param {
    num_output: 116
    weight_filler {
      type: "xavier"
    }
  }
}
layer {
  name: "softmax"
  type: "Softmax"
  bottom: "fc5_classes"
  top: "softmax"
}
layer {
  name: "loss"
  type: "MultinomialLogisticLoss"
  bottom: "softmax"
  bottom: "label"
  top: "loss"
}
layer {
  name: "accuracy_1"
  type: "Accuracy"
  bottom: "fc5_classes"
  bottom: "label"
  top: "accuracy_1"
  accuracy_param {
    top_k: 1
  }
}
layer {
  name: "accuracy_5"
  type: "Accuracy"
  bottom: "fc5_classes"
  bottom: "label"
  top: "accuracy_5"
  accuracy_param {
    top_k: 5
  }
}
layer {
  name: "silence"
  type: "Silence"
  bottom: "accuracy_1"
  bottom: "accuracy_5"
}
I0529 00:23:39.739408 18517 layer_factory.hpp:77] Creating layer data
I0529 00:23:39.741417 18517 net.cpp:100] Creating Layer data
I0529 00:23:39.741449 18517 net.cpp:408] data -> data
I0529 00:23:39.741492 18517 net.cpp:408] data -> label
I0529 00:23:39.746325 18585 db_lmdb.cpp:35] Opened lmdb ../local_data/lmdb/RTSD/histeq/train/lmdb
I0529 00:23:39.780925 18517 data_layer.cpp:41] output data size: 1024,3,48,48
I0529 00:23:39.846426 18517 net.cpp:150] Setting up data
I0529 00:23:39.846518 18517 net.cpp:157] Top shape: 1024 3 48 48 (7077888)
I0529 00:23:39.846539 18517 net.cpp:157] Top shape: 1024 (1024)
I0529 00:23:39.846546 18517 net.cpp:165] Memory required for data: 28315648
I0529 00:23:39.846570 18517 layer_factory.hpp:77] Creating layer label_data_1_split
I0529 00:23:39.846599 18517 net.cpp:100] Creating Layer label_data_1_split
I0529 00:23:39.846611 18517 net.cpp:434] label_data_1_split <- label
I0529 00:23:39.846635 18517 net.cpp:408] label_data_1_split -> label_data_1_split_0
I0529 00:23:39.846700 18517 net.cpp:408] label_data_1_split -> label_data_1_split_1
I0529 00:23:39.846724 18517 net.cpp:408] label_data_1_split -> label_data_1_split_2
I0529 00:23:39.846823 18517 net.cpp:150] Setting up label_data_1_split
I0529 00:23:39.846842 18517 net.cpp:157] Top shape: 1024 (1024)
I0529 00:23:39.846851 18517 net.cpp:157] Top shape: 1024 (1024)
I0529 00:23:39.846861 18517 net.cpp:157] Top shape: 1024 (1024)
I0529 00:23:39.846869 18517 net.cpp:165] Memory required for data: 28327936
I0529 00:23:39.846877 18517 layer_factory.hpp:77] Creating layer conv1
I0529 00:23:39.846928 18517 net.cpp:100] Creating Layer conv1
I0529 00:23:39.846940 18517 net.cpp:434] conv1 <- data
I0529 00:23:39.846952 18517 net.cpp:408] conv1 -> conv1
I0529 00:23:41.865312 18517 net.cpp:150] Setting up conv1
I0529 00:23:41.865357 18517 net.cpp:157] Top shape: 1024 100 42 42 (180633600)
I0529 00:23:41.865362 18517 net.cpp:165] Memory required for data: 750862336
I0529 00:23:41.865384 18517 layer_factory.hpp:77] Creating layer conv1_relu
I0529 00:23:41.865402 18517 net.cpp:100] Creating Layer conv1_relu
I0529 00:23:41.865406 18517 net.cpp:434] conv1_relu <- conv1
I0529 00:23:41.865413 18517 net.cpp:395] conv1_relu -> conv1 (in-place)
I0529 00:23:41.865561 18517 net.cpp:150] Setting up conv1_relu
I0529 00:23:41.865571 18517 net.cpp:157] Top shape: 1024 100 42 42 (180633600)
I0529 00:23:41.865576 18517 net.cpp:165] Memory required for data: 1473396736
I0529 00:23:41.865579 18517 layer_factory.hpp:77] Creating layer pool1
I0529 00:23:41.865595 18517 net.cpp:100] Creating Layer pool1
I0529 00:23:41.865599 18517 net.cpp:434] pool1 <- conv1
I0529 00:23:41.865604 18517 net.cpp:408] pool1 -> pool1
I0529 00:23:41.865649 18517 net.cpp:150] Setting up pool1
I0529 00:23:41.865658 18517 net.cpp:157] Top shape: 1024 100 21 21 (45158400)
I0529 00:23:41.865661 18517 net.cpp:165] Memory required for data: 1654030336
I0529 00:23:41.865665 18517 layer_factory.hpp:77] Creating layer conv2
I0529 00:23:41.865684 18517 net.cpp:100] Creating Layer conv2
I0529 00:23:41.865686 18517 net.cpp:434] conv2 <- pool1
I0529 00:23:41.865691 18517 net.cpp:408] conv2 -> conv2
I0529 00:23:41.868613 18517 net.cpp:150] Setting up conv2
I0529 00:23:41.868641 18517 net.cpp:157] Top shape: 1024 150 18 18 (49766400)
I0529 00:23:41.868646 18517 net.cpp:165] Memory required for data: 1853095936
I0529 00:23:41.868655 18517 layer_factory.hpp:77] Creating layer conv2_relu
I0529 00:23:41.868661 18517 net.cpp:100] Creating Layer conv2_relu
I0529 00:23:41.868665 18517 net.cpp:434] conv2_relu <- conv2
I0529 00:23:41.868669 18517 net.cpp:395] conv2_relu -> conv2 (in-place)
I0529 00:23:41.868819 18517 net.cpp:150] Setting up conv2_relu
I0529 00:23:41.868830 18517 net.cpp:157] Top shape: 1024 150 18 18 (49766400)
I0529 00:23:41.868835 18517 net.cpp:165] Memory required for data: 2052161536
I0529 00:23:41.868839 18517 layer_factory.hpp:77] Creating layer pool2
I0529 00:23:41.868845 18517 net.cpp:100] Creating Layer pool2
I0529 00:23:41.868849 18517 net.cpp:434] pool2 <- conv2
I0529 00:23:41.868854 18517 net.cpp:408] pool2 -> pool2
I0529 00:23:41.868894 18517 net.cpp:150] Setting up pool2
I0529 00:23:41.868902 18517 net.cpp:157] Top shape: 1024 150 9 9 (12441600)
I0529 00:23:41.868906 18517 net.cpp:165] Memory required for data: 2101927936
I0529 00:23:41.868909 18517 layer_factory.hpp:77] Creating layer conv3
I0529 00:23:41.868927 18517 net.cpp:100] Creating Layer conv3
I0529 00:23:41.868930 18517 net.cpp:434] conv3 <- pool2
I0529 00:23:41.868935 18517 net.cpp:408] conv3 -> conv3
I0529 00:23:41.874243 18517 net.cpp:150] Setting up conv3
I0529 00:23:41.874274 18517 net.cpp:157] Top shape: 1024 250 6 6 (9216000)
I0529 00:23:41.874279 18517 net.cpp:165] Memory required for data: 2138791936
I0529 00:23:41.874286 18517 layer_factory.hpp:77] Creating layer conv3_relu
I0529 00:23:41.874292 18517 net.cpp:100] Creating Layer conv3_relu
I0529 00:23:41.874296 18517 net.cpp:434] conv3_relu <- conv3
I0529 00:23:41.874301 18517 net.cpp:395] conv3_relu -> conv3 (in-place)
I0529 00:23:41.874671 18517 net.cpp:150] Setting up conv3_relu
I0529 00:23:41.874699 18517 net.cpp:157] Top shape: 1024 250 6 6 (9216000)
I0529 00:23:41.874704 18517 net.cpp:165] Memory required for data: 2175655936
I0529 00:23:41.874708 18517 layer_factory.hpp:77] Creating layer pool3
I0529 00:23:41.874714 18517 net.cpp:100] Creating Layer pool3
I0529 00:23:41.874717 18517 net.cpp:434] pool3 <- conv3
I0529 00:23:41.874723 18517 net.cpp:408] pool3 -> pool3
I0529 00:23:41.874763 18517 net.cpp:150] Setting up pool3
I0529 00:23:41.874768 18517 net.cpp:157] Top shape: 1024 250 3 3 (2304000)
I0529 00:23:41.874771 18517 net.cpp:165] Memory required for data: 2184871936
I0529 00:23:41.874774 18517 layer_factory.hpp:77] Creating layer fc4_300
I0529 00:23:41.874781 18517 net.cpp:100] Creating Layer fc4_300
I0529 00:23:41.874784 18517 net.cpp:434] fc4_300 <- pool3
I0529 00:23:41.874789 18517 net.cpp:408] fc4_300 -> fc4_300
I0529 00:23:41.879179 18517 net.cpp:150] Setting up fc4_300
I0529 00:23:41.879194 18517 net.cpp:157] Top shape: 1024 300 (307200)
I0529 00:23:41.879197 18517 net.cpp:165] Memory required for data: 2186100736
I0529 00:23:41.879204 18517 layer_factory.hpp:77] Creating layer fc4_relu
I0529 00:23:41.879210 18517 net.cpp:100] Creating Layer fc4_relu
I0529 00:23:41.879215 18517 net.cpp:434] fc4_relu <- fc4_300
I0529 00:23:41.879220 18517 net.cpp:395] fc4_relu -> fc4_300 (in-place)
I0529 00:23:41.879345 18517 net.cpp:150] Setting up fc4_relu
I0529 00:23:41.879355 18517 net.cpp:157] Top shape: 1024 300 (307200)
I0529 00:23:41.879360 18517 net.cpp:165] Memory required for data: 2187329536
I0529 00:23:41.879364 18517 layer_factory.hpp:77] Creating layer fc5_116
I0529 00:23:41.879370 18517 net.cpp:100] Creating Layer fc5_116
I0529 00:23:41.879375 18517 net.cpp:434] fc5_116 <- fc4_300
I0529 00:23:41.879380 18517 net.cpp:408] fc5_116 -> fc5_classes
I0529 00:23:41.880336 18517 net.cpp:150] Setting up fc5_116
I0529 00:23:41.880349 18517 net.cpp:157] Top shape: 1024 116 (118784)
I0529 00:23:41.880353 18517 net.cpp:165] Memory required for data: 2187804672
I0529 00:23:41.880362 18517 layer_factory.hpp:77] Creating layer fc5_classes_fc5_116_0_split
I0529 00:23:41.880370 18517 net.cpp:100] Creating Layer fc5_classes_fc5_116_0_split
I0529 00:23:41.880374 18517 net.cpp:434] fc5_classes_fc5_116_0_split <- fc5_classes
I0529 00:23:41.880388 18517 net.cpp:408] fc5_classes_fc5_116_0_split -> fc5_classes_fc5_116_0_split_0
I0529 00:23:41.880394 18517 net.cpp:408] fc5_classes_fc5_116_0_split -> fc5_classes_fc5_116_0_split_1
I0529 00:23:41.880400 18517 net.cpp:408] fc5_classes_fc5_116_0_split -> fc5_classes_fc5_116_0_split_2
I0529 00:23:41.880436 18517 net.cpp:150] Setting up fc5_classes_fc5_116_0_split
I0529 00:23:41.880441 18517 net.cpp:157] Top shape: 1024 116 (118784)
I0529 00:23:41.880446 18517 net.cpp:157] Top shape: 1024 116 (118784)
I0529 00:23:41.880451 18517 net.cpp:157] Top shape: 1024 116 (118784)
I0529 00:23:41.880455 18517 net.cpp:165] Memory required for data: 2189230080
I0529 00:23:41.880460 18517 layer_factory.hpp:77] Creating layer softmax
I0529 00:23:41.880465 18517 net.cpp:100] Creating Layer softmax
I0529 00:23:41.880470 18517 net.cpp:434] softmax <- fc5_classes_fc5_116_0_split_0
I0529 00:23:41.880475 18517 net.cpp:408] softmax -> softmax
I0529 00:23:41.880642 18517 net.cpp:150] Setting up softmax
I0529 00:23:41.880655 18517 net.cpp:157] Top shape: 1024 116 (118784)
I0529 00:23:41.880658 18517 net.cpp:165] Memory required for data: 2189705216
I0529 00:23:41.880663 18517 layer_factory.hpp:77] Creating layer loss
I0529 00:23:41.880682 18517 net.cpp:100] Creating Layer loss
I0529 00:23:41.880702 18517 net.cpp:434] loss <- softmax
I0529 00:23:41.880708 18517 net.cpp:434] loss <- label_data_1_split_0
I0529 00:23:41.880713 18517 net.cpp:408] loss -> loss
…
