…
I0409 09:27:21.640182 25332 net.cpp:322] The NetState phase (0) differed from the phase (1) specified by a rule in layer accuracy_5
I0409 09:27:21.640343 25332 net.cpp:58] Initializing net from parameters: 
state {
  phase: TRAIN
  level: 0
  stage: ""
}
layer {
  name: "data"
  type: "Data"
  top: "data"
  top: "label"
  include {
    phase: TRAIN
  }
  transform_param {
    mirror: false
    crop_size: 48
    mean_value: 130
    mean_value: 123
    mean_value: 137
  }
  data_param {
    source: "../local_data/lmdb/rtsd-r1/histeq/train/lmdb"
    batch_size: 1024
    backend: LMDB
  }
}
layer {
  name: "conv1"
  type: "Convolution"
  bottom: "data"
  top: "conv1"
  convolution_param {
    num_output: 100
    pad: 0
    kernel_size: 7
    group: 1
    stride: 1
    weight_filler {
      type: "xavier"
    }
  }
}
layer {
  name: "conv1_relu"
  type: "ReLU"
  bottom: "conv1"
  top: "conv1"
}
layer {
  name: "pool1"
  type: "Pooling"
  bottom: "conv1"
  top: "pool1"
  pooling_param {
    pool: MAX
    kernel_size: 2
    stride: 2
  }
}
layer {
  name: "conv2"
  type: "Convolution"
  bottom: "pool1"
  top: "conv2"
  convolution_param {
    num_output: 150
    pad: 0
    kernel_size: 4
    group: 1
    stride: 1
    weight_filler {
      type: "xavier"
    }
  }
}
layer {
  name: "conv2_relu"
  type: "ReLU"
  bottom: "conv2"
  top: "conv2"
}
layer {
  name: "pool2"
  type: "Pooling"
  bottom: "conv2"
  top: "pool2"
  pooling_param {
    pool: MAX
    kernel_size: 2
    stride: 2
  }
}
layer {
  name: "conv3"
  type: "Convolution"
  bottom: "pool2"
  top: "conv3"
  convolution_param {
    num_output: 250
    pad: 0
    kernel_size: 4
    group: 1
    stride: 1
    weight_filler {
      type: "xavier"
    }
  }
}
layer {
  name: "conv3_relu"
  type: "ReLU"
  bottom: "conv3"
  top: "conv3"
}
layer {
  name: "pool3"
  type: "Pooling"
  bottom: "conv3"
  top: "pool3"
  pooling_param {
    pool: MAX
    kernel_size: 2
    stride: 2
  }
}
layer {
  name: "fc4_300"
  type: "InnerProduct"
  bottom: "pool3"
  top: "fc4_300"
  inner_product_param {
    num_output: 300
    weight_filler {
      type: "xavier"
    }
  }
}
layer {
  name: "fc4_relu"
  type: "ReLU"
  bottom: "fc4_300"
  top: "fc4_300"
}
layer {
  name: "drop4"
  type: "Dropout"
  bottom: "fc4_300"
  top: "fc4_300"
  dropout_param {
    dropout_ratio: 0.4
  }
}
layer {
  name: "fc5_67"
  type: "InnerProduct"
  bottom: "fc4_300"
  top: "fc5_classes"
  inner_product_param {
    num_output: 67
    weight_filler {
      type: "xavier"
    }
  }
}
layer {
  name: "loss"
  type: "SoftmaxWithLoss"
  bottom: "fc5_classes"
  bottom: "label"
  top: "loss"
}
I0409 09:27:21.640486 25332 layer_factory.hpp:77] Creating layer data
I0409 09:27:21.642488 25332 net.cpp:100] Creating Layer data
I0409 09:27:21.642515 25332 net.cpp:408] data -> data
I0409 09:27:21.642554 25332 net.cpp:408] data -> label
I0409 09:27:21.643718 25383 db_lmdb.cpp:35] Opened lmdb ../local_data/lmdb/rtsd-r1/histeq/train/lmdb
I0409 09:27:21.675297 25332 data_layer.cpp:41] output data size: 1024,3,48,48
I0409 09:27:21.731508 25332 net.cpp:150] Setting up data
I0409 09:27:21.731544 25332 net.cpp:157] Top shape: 1024 3 48 48 (7077888)
I0409 09:27:21.731586 25332 net.cpp:157] Top shape: 1024 (1024)
I0409 09:27:21.731591 25332 net.cpp:165] Memory required for data: 28315648
I0409 09:27:21.731604 25332 layer_factory.hpp:77] Creating layer conv1
I0409 09:27:21.731631 25332 net.cpp:100] Creating Layer conv1
I0409 09:27:21.731642 25332 net.cpp:434] conv1 <- data
I0409 09:27:21.731658 25332 net.cpp:408] conv1 -> conv1
I0409 09:27:22.057754 25332 net.cpp:150] Setting up conv1
I0409 09:27:22.057788 25332 net.cpp:157] Top shape: 1024 100 42 42 (180633600)
I0409 09:27:22.057795 25332 net.cpp:165] Memory required for data: 750850048
I0409 09:27:22.057819 25332 layer_factory.hpp:77] Creating layer conv1_relu
I0409 09:27:22.057834 25332 net.cpp:100] Creating Layer conv1_relu
I0409 09:27:22.057840 25332 net.cpp:434] conv1_relu <- conv1
I0409 09:27:22.057848 25332 net.cpp:395] conv1_relu -> conv1 (in-place)
I0409 09:27:22.058094 25332 net.cpp:150] Setting up conv1_relu
I0409 09:27:22.058110 25332 net.cpp:157] Top shape: 1024 100 42 42 (180633600)
I0409 09:27:22.058115 25332 net.cpp:165] Memory required for data: 1473384448
I0409 09:27:22.058120 25332 layer_factory.hpp:77] Creating layer pool1
I0409 09:27:22.058127 25332 net.cpp:100] Creating Layer pool1
I0409 09:27:22.058131 25332 net.cpp:434] pool1 <- conv1
I0409 09:27:22.058138 25332 net.cpp:408] pool1 -> pool1
I0409 09:27:22.058203 25332 net.cpp:150] Setting up pool1
I0409 09:27:22.058213 25332 net.cpp:157] Top shape: 1024 100 21 21 (45158400)
I0409 09:27:22.058218 25332 net.cpp:165] Memory required for data: 1654018048
I0409 09:27:22.058223 25332 layer_factory.hpp:77] Creating layer conv2
I0409 09:27:22.058236 25332 net.cpp:100] Creating Layer conv2
I0409 09:27:22.058241 25332 net.cpp:434] conv2 <- pool1
I0409 09:27:22.058248 25332 net.cpp:408] conv2 -> conv2
I0409 09:27:22.063472 25332 net.cpp:150] Setting up conv2
I0409 09:27:22.063493 25332 net.cpp:157] Top shape: 1024 150 18 18 (49766400)
I0409 09:27:22.063498 25332 net.cpp:165] Memory required for data: 1853083648
I0409 09:27:22.063510 25332 layer_factory.hpp:77] Creating layer conv2_relu
I0409 09:27:22.063519 25332 net.cpp:100] Creating Layer conv2_relu
I0409 09:27:22.063522 25332 net.cpp:434] conv2_relu <- conv2
I0409 09:27:22.063529 25332 net.cpp:395] conv2_relu -> conv2 (in-place)
I0409 09:27:22.064440 25332 net.cpp:150] Setting up conv2_relu
I0409 09:27:22.064460 25332 net.cpp:157] Top shape: 1024 150 18 18 (49766400)
I0409 09:27:22.064465 25332 net.cpp:165] Memory required for data: 2052149248
I0409 09:27:22.064469 25332 layer_factory.hpp:77] Creating layer pool2
I0409 09:27:22.064477 25332 net.cpp:100] Creating Layer pool2
I0409 09:27:22.064483 25332 net.cpp:434] pool2 <- conv2
I0409 09:27:22.064489 25332 net.cpp:408] pool2 -> pool2
I0409 09:27:22.064548 25332 net.cpp:150] Setting up pool2
I0409 09:27:22.064559 25332 net.cpp:157] Top shape: 1024 150 9 9 (12441600)
I0409 09:27:22.064563 25332 net.cpp:165] Memory required for data: 2101915648
I0409 09:27:22.064566 25332 layer_factory.hpp:77] Creating layer conv3
I0409 09:27:22.064576 25332 net.cpp:100] Creating Layer conv3
I0409 09:27:22.064582 25332 net.cpp:434] conv3 <- pool2
I0409 09:27:22.064589 25332 net.cpp:408] conv3 -> conv3
I0409 09:27:22.071277 25332 net.cpp:150] Setting up conv3
I0409 09:27:22.071298 25332 net.cpp:157] Top shape: 1024 250 6 6 (9216000)
I0409 09:27:22.071303 25332 net.cpp:165] Memory required for data: 2138779648
I0409 09:27:22.071316 25332 layer_factory.hpp:77] Creating layer conv3_relu
I0409 09:27:22.071326 25332 net.cpp:100] Creating Layer conv3_relu
I0409 09:27:22.071331 25332 net.cpp:434] conv3_relu <- conv3
I0409 09:27:22.071336 25332 net.cpp:395] conv3_relu -> conv3 (in-place)
I0409 09:27:22.072263 25332 net.cpp:150] Setting up conv3_relu
I0409 09:27:22.072284 25332 net.cpp:157] Top shape: 1024 250 6 6 (9216000)
I0409 09:27:22.072288 25332 net.cpp:165] Memory required for data: 2175643648
I0409 09:27:22.072293 25332 layer_factory.hpp:77] Creating layer pool3
I0409 09:27:22.072301 25332 net.cpp:100] Creating Layer pool3
I0409 09:27:22.072305 25332 net.cpp:434] pool3 <- conv3
I0409 09:27:22.072335 25332 net.cpp:408] pool3 -> pool3
I0409 09:27:22.072396 25332 net.cpp:150] Setting up pool3
I0409 09:27:22.072407 25332 net.cpp:157] Top shape: 1024 250 3 3 (2304000)
I0409 09:27:22.072412 25332 net.cpp:165] Memory required for data: 2184859648
I0409 09:27:22.072415 25332 layer_factory.hpp:77] Creating layer fc4_300
I0409 09:27:22.072424 25332 net.cpp:100] Creating Layer fc4_300
I0409 09:27:22.072432 25332 net.cpp:434] fc4_300 <- pool3
I0409 09:27:22.072438 25332 net.cpp:408] fc4_300 -> fc4_300
I0409 09:27:22.078994 25332 net.cpp:150] Setting up fc4_300
I0409 09:27:22.079013 25332 net.cpp:157] Top shape: 1024 300 (307200)
I0409 09:27:22.079018 25332 net.cpp:165] Memory required for data: 2186088448
I0409 09:27:22.079027 25332 layer_factory.hpp:77] Creating layer fc4_relu
I0409 09:27:22.079035 25332 net.cpp:100] Creating Layer fc4_relu
I0409 09:27:22.079041 25332 net.cpp:434] fc4_relu <- fc4_300
I0409 09:27:22.079047 25332 net.cpp:395] fc4_relu -> fc4_300 (in-place)
I0409 09:27:22.079277 25332 net.cpp:150] Setting up fc4_relu
I0409 09:27:22.079290 25332 net.cpp:157] Top shape: 1024 300 (307200)
I0409 09:27:22.079294 25332 net.cpp:165] Memory required for data: 2187317248
I0409 09:27:22.079298 25332 layer_factory.hpp:77] Creating layer drop4
I0409 09:27:22.079306 25332 net.cpp:100] Creating Layer drop4
I0409 09:27:22.079310 25332 net.cpp:434] drop4 <- fc4_300
I0409 09:27:22.079316 25332 net.cpp:395] drop4 -> fc4_300 (in-place)
I0409 09:27:22.079354 25332 net.cpp:150] Setting up drop4
I0409 09:27:22.079362 25332 net.cpp:157] Top shape: 1024 300 (307200)
I0409 09:27:22.079365 25332 net.cpp:165] Memory required for data: 2188546048
I0409 09:27:22.079370 25332 layer_factory.hpp:77] Creating layer fc5_67
I0409 09:27:22.079376 25332 net.cpp:100] Creating Layer fc5_67
I0409 09:27:22.079380 25332 net.cpp:434] fc5_67 <- fc4_300
I0409 09:27:22.079386 25332 net.cpp:408] fc5_67 -> fc5_classes
I0409 09:27:22.080806 25332 net.cpp:150] Setting up fc5_67
I0409 09:27:22.080826 25332 net.cpp:157] Top shape: 1024 67 (68608)
I0409 09:27:22.080829 25332 net.cpp:165] Memory required for data: 2188820480
I0409 09:27:22.080842 25332 layer_factory.hpp:77] Creating layer loss
I0409 09:27:22.080849 25332 net.cpp:100] Creating Layer loss
I0409 09:27:22.080854 25332 net.cpp:434] loss <- fc5_classes
I0409 09:27:22.080859 25332 net.cpp:434] loss <- label
I0409 09:27:22.080866 25332 net.cpp:408] loss -> loss
I0409 09:27:22.080883 25332 layer_factory.hpp:77] Creating layer loss
…
I0409 09:27:22.081650 25332 solver.cpp:193] Creating test net (#0) specified by test_net file: ./Prototxt/experiment_6/rtsd-r1/histeq/trial_5/test.prototxt
I0409 09:27:22.081821 25332 net.cpp:58] Initializing net from parameters: 
state {
  phase: TEST
}
layer {
  name: "data"
  type: "Data"
  top: "data"
  top: "label"
  include {
    phase: TEST
  }
  transform_param {
    mirror: false
    crop_size: 48
    mean_value: 124
    mean_value: 121
    mean_value: 142
  }
  data_param {
    source: "../local_data/lmdb/rtsd-r1/histeq/test/lmdb"
    batch_size: 1024
    backend: LMDB
  }
}
layer {
  name: "conv1"
  type: "Convolution"
  bottom: "data"
  top: "conv1"
  convolution_param {
    num_output: 100
    pad: 0
    kernel_size: 7
    group: 1
    stride: 1
    weight_filler {
      type: "xavier"
    }
  }
}
layer {
  name: "conv1_relu"
  type: "ReLU"
  bottom: "conv1"
  top: "conv1"
}
layer {
  name: "pool1"
  type: "Pooling"
  bottom: "conv1"
  top: "pool1"
  pooling_param {
    pool: MAX
    kernel_size: 2
    stride: 2
  }
}
layer {
  name: "conv2"
  type: "Convolution"
  bottom: "pool1"
  top: "conv2"
  convolution_param {
    num_output: 150
    pad: 0
    kernel_size: 4
    group: 1
    stride: 1
    weight_filler {
      type: "xavier"
    }
  }
}
layer {
  name: "conv2_relu"
  type: "ReLU"
  bottom: "conv2"
  top: "conv2"
}
layer {
  name: "pool2"
  type: "Pooling"
  bottom: "conv2"
  top: "pool2"
  pooling_param {
    pool: MAX
    kernel_size: 2
    stride: 2
  }
}
layer {
  name: "conv3"
  type: "Convolution"
  bottom: "pool2"
  top: "conv3"
  convolution_param {
    num_output: 250
    pad: 0
    kernel_size: 4
    group: 1
    stride: 1
    weight_filler {
      type: "xavier"
    }
  }
}
layer {
  name: "conv3_relu"
  type: "ReLU"
  bottom: "conv3"
  top: "conv3"
}
layer {
  name: "pool3"
  type: "Pooling"
  bottom: "conv3"
  top: "pool3"
  pooling_param {
    pool: MAX
    kernel_size: 2
    stride: 2
  }
}
layer {
  name: "fc4_300"
  type: "InnerProduct"
  bottom: "pool3"
  top: "fc4_300"
  inner_product_param {
    num_output: 300
    weight_filler {
      type: "xavier"
    }
  }
}
layer {
  name: "fc4_relu"
  type: "ReLU"
  bottom: "fc4_300"
  top: "fc4_300"
}
layer {
  name: "drop4"
  type: "Dropout"
  bottom: "fc4_300"
  top: "fc4_300"
  dropout_param {
    dropout_ratio: 0.4
  }
}
layer {
  name: "fc5_67"
  type: "InnerProduct"
  bottom: "fc4_300"
  top: "fc5_classes"
  inner_product_param {
    num_output: 67
    weight_filler {
      type: "xavier"
    }
  }
}
layer {
  name: "loss"
  type: "SoftmaxWithLoss"
  bottom: "fc5_classes"
  bottom: "label"
  top: "loss"
}
layer {
  name: "accuracy_1"
  type: "Accuracy"
  bottom: "fc5_classes"
  bottom: "label"
  top: "accuracy_1"
  include {
    phase: TEST
  }
  accuracy_param {
    top_k: 1
  }
}
layer {
  name: "accuracy_5"
  type: "Accuracy"
  bottom: "fc5_classes"
  bottom: "label"
  top: "accuracy_5"
  include {
    phase: TEST
  }
  accuracy_param {
    top_k: 5
  }
}
I0409 09:27:22.081924 25332 layer_factory.hpp:77] Creating layer data
I0409 09:27:22.082671 25332 net.cpp:100] Creating Layer data
I0409 09:27:22.082685 25332 net.cpp:408] data -> data
I0409 09:27:22.082697 25332 net.cpp:408] data -> label
I0409 09:27:22.084355 25404 db_lmdb.cpp:35] Opened lmdb ../local_data/lmdb/rtsd-r1/histeq/test/lmdb
I0409 09:27:22.084558 25332 data_layer.cpp:41] output data size: 1024,3,48,48
I0409 09:27:22.131685 25332 net.cpp:150] Setting up data
I0409 09:27:22.131719 25332 net.cpp:157] Top shape: 1024 3 48 48 (7077888)
I0409 09:27:22.131726 25332 net.cpp:157] Top shape: 1024 (1024)
I0409 09:27:22.131731 25332 net.cpp:165] Memory required for data: 28315648
I0409 09:27:22.131738 25332 layer_factory.hpp:77] Creating layer label_data_1_split
I0409 09:27:22.131754 25332 net.cpp:100] Creating Layer label_data_1_split
I0409 09:27:22.131760 25332 net.cpp:434] label_data_1_split <- label
I0409 09:27:22.131769 25332 net.cpp:408] label_data_1_split -> label_data_1_split_0
I0409 09:27:22.131783 25332 net.cpp:408] label_data_1_split -> label_data_1_split_1
I0409 09:27:22.131793 25332 net.cpp:408] label_data_1_split -> label_data_1_split_2
I0409 09:27:22.131943 25332 net.cpp:150] Setting up label_data_1_split
I0409 09:27:22.131958 25332 net.cpp:157] Top shape: 1024 (1024)
I0409 09:27:22.131963 25332 net.cpp:157] Top shape: 1024 (1024)
I0409 09:27:22.131968 25332 net.cpp:157] Top shape: 1024 (1024)
I0409 09:27:22.131971 25332 net.cpp:165] Memory required for data: 28327936
I0409 09:27:22.131975 25332 layer_factory.hpp:77] Creating layer conv1
I0409 09:27:22.131990 25332 net.cpp:100] Creating Layer conv1
I0409 09:27:22.131995 25332 net.cpp:434] conv1 <- data
I0409 09:27:22.132002 25332 net.cpp:408] conv1 -> conv1
I0409 09:27:22.136391 25332 net.cpp:150] Setting up conv1
I0409 09:27:22.136412 25332 net.cpp:157] Top shape: 1024 100 42 42 (180633600)
I0409 09:27:22.136417 25332 net.cpp:165] Memory required for data: 750862336
I0409 09:27:22.136433 25332 layer_factory.hpp:77] Creating layer conv1_relu
I0409 09:27:22.136445 25332 net.cpp:100] Creating Layer conv1_relu
I0409 09:27:22.136452 25332 net.cpp:434] conv1_relu <- conv1
I0409 09:27:22.136459 25332 net.cpp:395] conv1_relu -> conv1 (in-place)
I0409 09:27:22.136698 25332 net.cpp:150] Setting up conv1_relu
I0409 09:27:22.136711 25332 net.cpp:157] Top shape: 1024 100 42 42 (180633600)
I0409 09:27:22.136715 25332 net.cpp:165] Memory required for data: 1473396736
I0409 09:27:22.136719 25332 layer_factory.hpp:77] Creating layer pool1
I0409 09:27:22.136731 25332 net.cpp:100] Creating Layer pool1
I0409 09:27:22.136739 25332 net.cpp:434] pool1 <- conv1
I0409 09:27:22.136744 25332 net.cpp:408] pool1 -> pool1
I0409 09:27:22.136804 25332 net.cpp:150] Setting up pool1
I0409 09:27:22.136814 25332 net.cpp:157] Top shape: 1024 100 21 21 (45158400)
I0409 09:27:22.136831 25332 net.cpp:165] Memory required for data: 1654030336
I0409 09:27:22.136837 25332 layer_factory.hpp:77] Creating layer conv2
I0409 09:27:22.136847 25332 net.cpp:100] Creating Layer conv2
I0409 09:27:22.136852 25332 net.cpp:434] conv2 <- pool1
I0409 09:27:22.136859 25332 net.cpp:408] conv2 -> conv2
I0409 09:27:22.141717 25332 net.cpp:150] Setting up conv2
I0409 09:27:22.141738 25332 net.cpp:157] Top shape: 1024 150 18 18 (49766400)
I0409 09:27:22.141743 25332 net.cpp:165] Memory required for data: 1853095936
I0409 09:27:22.141757 25332 layer_factory.hpp:77] Creating layer conv2_relu
I0409 09:27:22.141767 25332 net.cpp:100] Creating Layer conv2_relu
I0409 09:27:22.141772 25332 net.cpp:434] conv2_relu <- conv2
I0409 09:27:22.141778 25332 net.cpp:395] conv2_relu -> conv2 (in-place)
I0409 09:27:22.142767 25332 net.cpp:150] Setting up conv2_relu
I0409 09:27:22.142787 25332 net.cpp:157] Top shape: 1024 150 18 18 (49766400)
I0409 09:27:22.142791 25332 net.cpp:165] Memory required for data: 2052161536
I0409 09:27:22.142796 25332 layer_factory.hpp:77] Creating layer pool2
I0409 09:27:22.142804 25332 net.cpp:100] Creating Layer pool2
I0409 09:27:22.142809 25332 net.cpp:434] pool2 <- conv2
I0409 09:27:22.142818 25332 net.cpp:408] pool2 -> pool2
I0409 09:27:22.142894 25332 net.cpp:150] Setting up pool2
I0409 09:27:22.142909 25332 net.cpp:157] Top shape: 1024 150 9 9 (12441600)
I0409 09:27:22.142915 25332 net.cpp:165] Memory required for data: 2101927936
I0409 09:27:22.142918 25332 layer_factory.hpp:77] Creating layer conv3
I0409 09:27:22.142932 25332 net.cpp:100] Creating Layer conv3
I0409 09:27:22.142938 25332 net.cpp:434] conv3 <- pool2
I0409 09:27:22.142946 25332 net.cpp:408] conv3 -> conv3
I0409 09:27:22.149943 25332 net.cpp:150] Setting up conv3
I0409 09:27:22.149965 25332 net.cpp:157] Top shape: 1024 250 6 6 (9216000)
I0409 09:27:22.149969 25332 net.cpp:165] Memory required for data: 2138791936
I0409 09:27:22.149982 25332 layer_factory.hpp:77] Creating layer conv3_relu
I0409 09:27:22.149996 25332 net.cpp:100] Creating Layer conv3_relu
I0409 09:27:22.150002 25332 net.cpp:434] conv3_relu <- conv3
I0409 09:27:22.150008 25332 net.cpp:395] conv3_relu -> conv3 (in-place)
I0409 09:27:22.150981 25332 net.cpp:150] Setting up conv3_relu
I0409 09:27:22.151000 25332 net.cpp:157] Top shape: 1024 250 6 6 (9216000)
I0409 09:27:22.151010 25332 net.cpp:165] Memory required for data: 2175655936
I0409 09:27:22.151033 25332 layer_factory.hpp:77] Creating layer pool3
I0409 09:27:22.151046 25332 net.cpp:100] Creating Layer pool3
I0409 09:27:22.151064 25332 net.cpp:434] pool3 <- conv3
I0409 09:27:22.151072 25332 net.cpp:408] pool3 -> pool3
I0409 09:27:22.151141 25332 net.cpp:150] Setting up pool3
I0409 09:27:22.151154 25332 net.cpp:157] Top shape: 1024 250 3 3 (2304000)
I0409 09:27:22.151159 25332 net.cpp:165] Memory required for data: 2184871936
I0409 09:27:22.151162 25332 layer_factory.hpp:77] Creating layer fc4_300
I0409 09:27:22.151172 25332 net.cpp:100] Creating Layer fc4_300
I0409 09:27:22.151180 25332 net.cpp:434] fc4_300 <- pool3
I0409 09:27:22.151188 25332 net.cpp:408] fc4_300 -> fc4_300
I0409 09:27:22.157907 25332 net.cpp:150] Setting up fc4_300
I0409 09:27:22.157928 25332 net.cpp:157] Top shape: 1024 300 (307200)
I0409 09:27:22.157934 25332 net.cpp:165] Memory required for data: 2186100736
I0409 09:27:22.157943 25332 layer_factory.hpp:77] Creating layer fc4_relu
I0409 09:27:22.157953 25332 net.cpp:100] Creating Layer fc4_relu
I0409 09:27:22.157958 25332 net.cpp:434] fc4_relu <- fc4_300
I0409 09:27:22.157964 25332 net.cpp:395] fc4_relu -> fc4_300 (in-place)
I0409 09:27:22.158218 25332 net.cpp:150] Setting up fc4_relu
I0409 09:27:22.158233 25332 net.cpp:157] Top shape: 1024 300 (307200)
I0409 09:27:22.158237 25332 net.cpp:165] Memory required for data: 2187329536
I0409 09:27:22.158241 25332 layer_factory.hpp:77] Creating layer drop4
I0409 09:27:22.158252 25332 net.cpp:100] Creating Layer drop4
I0409 09:27:22.158257 25332 net.cpp:434] drop4 <- fc4_300
I0409 09:27:22.158262 25332 net.cpp:395] drop4 -> fc4_300 (in-place)
I0409 09:27:22.158303 25332 net.cpp:150] Setting up drop4
I0409 09:27:22.158313 25332 net.cpp:157] Top shape: 1024 300 (307200)
I0409 09:27:22.158318 25332 net.cpp:165] Memory required for data: 2188558336
I0409 09:27:22.158321 25332 layer_factory.hpp:77] Creating layer fc5_67
I0409 09:27:22.158331 25332 net.cpp:100] Creating Layer fc5_67
I0409 09:27:22.158339 25332 net.cpp:434] fc5_67 <- fc4_300
I0409 09:27:22.158344 25332 net.cpp:408] fc5_67 -> fc5_classes
I0409 09:27:22.158660 25332 net.cpp:150] Setting up fc5_67
I0409 09:27:22.158671 25332 net.cpp:157] Top shape: 1024 67 (68608)
I0409 09:27:22.158675 25332 net.cpp:165] Memory required for data: 2188832768
I0409 09:27:22.158689 25332 layer_factory.hpp:77] Creating layer fc5_classes_fc5_67_0_split
I0409 09:27:22.158697 25332 net.cpp:100] Creating Layer fc5_classes_fc5_67_0_split
I0409 09:27:22.158701 25332 net.cpp:434] fc5_classes_fc5_67_0_split <- fc5_classes
I0409 09:27:22.158709 25332 net.cpp:408] fc5_classes_fc5_67_0_split -> fc5_classes_fc5_67_0_split_0
I0409 09:27:22.158716 25332 net.cpp:408] fc5_classes_fc5_67_0_split -> fc5_classes_fc5_67_0_split_1
I0409 09:27:22.158726 25332 net.cpp:408] fc5_classes_fc5_67_0_split -> fc5_classes_fc5_67_0_split_2
I0409 09:27:22.158792 25332 net.cpp:150] Setting up fc5_classes_fc5_67_0_split
I0409 09:27:22.158802 25332 net.cpp:157] Top shape: 1024 67 (68608)
I0409 09:27:22.158807 25332 net.cpp:157] Top shape: 1024 67 (68608)
I0409 09:27:22.158812 25332 net.cpp:157] Top shape: 1024 67 (68608)
I0409 09:27:22.158814 25332 net.cpp:165] Memory required for data: 2189656064
I0409 09:27:22.158818 25332 layer_factory.hpp:77] Creating layer loss
I0409 09:27:22.158828 25332 net.cpp:100] Creating Layer loss
I0409 09:27:22.158834 25332 net.cpp:434] loss <- fc5_classes_fc5_67_0_split_0
I0409 09:27:22.158840 25332 net.cpp:434] loss <- label_data_1_split_0
I0409 09:27:22.158849 25332 net.cpp:408] loss -> loss
…
