…
I0402 16:03:01.730036  5124 net.cpp:322] The NetState phase (0) differed from the phase (1) specified by a rule in layer accuracy_5
I0402 16:03:01.730129  5124 net.cpp:58] Initializing net from parameters: 
state {
  phase: TRAIN
  level: 0
  stage: ""
}
layer {
  name: "data"
  type: "Data"
  top: "data"
  top: "label"
  include {
    phase: TRAIN
  }
  transform_param {
    mirror: false
    crop_size: 48
    mean_value: 120
    mean_value: 113
    mean_value: 112
  }
  data_param {
    source: "../local_data/lmdb/rtsd-r3/orig/train/lmdb"
    batch_size: 1024
    backend: LMDB
  }
}
layer {
  name: "conv1"
  type: "Convolution"
  bottom: "data"
  top: "conv1"
  convolution_param {
    num_output: 100
    pad: 0
    kernel_size: 7
    group: 1
    stride: 1
    weight_filler {
      type: "xavier"
    }
  }
}
layer {
  name: "conv1_relu"
  type: "ReLU"
  bottom: "conv1"
  top: "conv1"
}
layer {
  name: "pool1"
  type: "Pooling"
  bottom: "conv1"
  top: "pool1"
  pooling_param {
    pool: MAX
    kernel_size: 2
    stride: 2
  }
}
layer {
  name: "conv2"
  type: "Convolution"
  bottom: "pool1"
  top: "conv2"
  convolution_param {
    num_output: 150
    pad: 0
    kernel_size: 4
    group: 1
    stride: 1
    weight_filler {
      type: "xavier"
    }
  }
}
layer {
  name: "conv2_relu"
  type: "ReLU"
  bottom: "conv2"
  top: "conv2"
}
layer {
  name: "pool2"
  type: "Pooling"
  bottom: "conv2"
  top: "pool2"
  pooling_param {
    pool: MAX
    kernel_size: 2
    stride: 2
  }
}
layer {
  name: "conv3"
  type: "Convolution"
  bottom: "pool2"
  top: "conv3"
  convolution_param {
    num_output: 250
    pad: 0
    kernel_size: 4
    group: 1
    stride: 1
    weight_filler {
      type: "xavier"
    }
  }
}
layer {
  name: "conv3_relu"
  type: "ReLU"
  bottom: "conv3"
  top: "conv3"
}
layer {
  name: "pool3"
  type: "Pooling"
  bottom: "conv3"
  top: "pool3"
  pooling_param {
    pool: MAX
    kernel_size: 2
    stride: 2
  }
}
layer {
  name: "fc4_300"
  type: "InnerProduct"
  bottom: "pool3"
  top: "fc4_300"
  inner_product_param {
    num_output: 300
    weight_filler {
      type: "xavier"
    }
  }
}
layer {
  name: "fc4_relu"
  type: "ReLU"
  bottom: "fc4_300"
  top: "fc4_300"
}
layer {
  name: "drop4"
  type: "Dropout"
  bottom: "fc4_300"
  top: "fc4_300"
  dropout_param {
    dropout_ratio: 0.4
  }
}
layer {
  name: "fc5_106"
  type: "InnerProduct"
  bottom: "fc4_300"
  top: "fc5_classes"
  inner_product_param {
    num_output: 106
    weight_filler {
      type: "xavier"
    }
  }
}
layer {
  name: "loss"
  type: "SoftmaxWithLoss"
  bottom: "fc5_classes"
  bottom: "label"
  top: "loss"
}
I0402 16:03:01.730203  5124 layer_factory.hpp:77] Creating layer data
I0402 16:03:01.731585  5124 net.cpp:100] Creating Layer data
I0402 16:03:01.731600  5124 net.cpp:408] data -> data
I0402 16:03:01.731623  5124 net.cpp:408] data -> label
I0402 16:03:01.732925  5201 db_lmdb.cpp:35] Opened lmdb ../local_data/lmdb/rtsd-r3/orig/train/lmdb
I0402 16:03:01.749670  5124 data_layer.cpp:41] output data size: 1024,3,48,48
I0402 16:03:01.792393  5124 net.cpp:150] Setting up data
I0402 16:03:01.792428  5124 net.cpp:157] Top shape: 1024 3 48 48 (7077888)
I0402 16:03:01.792434  5124 net.cpp:157] Top shape: 1024 (1024)
I0402 16:03:01.792470  5124 net.cpp:165] Memory required for data: 28315648
I0402 16:03:01.792482  5124 layer_factory.hpp:77] Creating layer conv1
I0402 16:03:01.792505  5124 net.cpp:100] Creating Layer conv1
I0402 16:03:01.792513  5124 net.cpp:434] conv1 <- data
I0402 16:03:01.792529  5124 net.cpp:408] conv1 -> conv1
I0402 16:03:02.056232  5124 net.cpp:150] Setting up conv1
I0402 16:03:02.056288  5124 net.cpp:157] Top shape: 1024 100 42 42 (180633600)
I0402 16:03:02.056303  5124 net.cpp:165] Memory required for data: 750850048
I0402 16:03:02.056327  5124 layer_factory.hpp:77] Creating layer conv1_relu
I0402 16:03:02.056351  5124 net.cpp:100] Creating Layer conv1_relu
I0402 16:03:02.056356  5124 net.cpp:434] conv1_relu <- conv1
I0402 16:03:02.056362  5124 net.cpp:395] conv1_relu -> conv1 (in-place)
I0402 16:03:02.056560  5124 net.cpp:150] Setting up conv1_relu
I0402 16:03:02.056573  5124 net.cpp:157] Top shape: 1024 100 42 42 (180633600)
I0402 16:03:02.056576  5124 net.cpp:165] Memory required for data: 1473384448
I0402 16:03:02.056591  5124 layer_factory.hpp:77] Creating layer pool1
I0402 16:03:02.056598  5124 net.cpp:100] Creating Layer pool1
I0402 16:03:02.056602  5124 net.cpp:434] pool1 <- conv1
I0402 16:03:02.056607  5124 net.cpp:408] pool1 -> pool1
I0402 16:03:02.056658  5124 net.cpp:150] Setting up pool1
I0402 16:03:02.056666  5124 net.cpp:157] Top shape: 1024 100 21 21 (45158400)
I0402 16:03:02.056669  5124 net.cpp:165] Memory required for data: 1654018048
I0402 16:03:02.056673  5124 layer_factory.hpp:77] Creating layer conv2
I0402 16:03:02.056684  5124 net.cpp:100] Creating Layer conv2
I0402 16:03:02.056687  5124 net.cpp:434] conv2 <- pool1
I0402 16:03:02.056692  5124 net.cpp:408] conv2 -> conv2
I0402 16:03:02.061020  5124 net.cpp:150] Setting up conv2
I0402 16:03:02.061038  5124 net.cpp:157] Top shape: 1024 150 18 18 (49766400)
I0402 16:03:02.061041  5124 net.cpp:165] Memory required for data: 1853083648
I0402 16:03:02.061063  5124 layer_factory.hpp:77] Creating layer conv2_relu
I0402 16:03:02.061070  5124 net.cpp:100] Creating Layer conv2_relu
I0402 16:03:02.061074  5124 net.cpp:434] conv2_relu <- conv2
I0402 16:03:02.061079  5124 net.cpp:395] conv2_relu -> conv2 (in-place)
I0402 16:03:02.061786  5124 net.cpp:150] Setting up conv2_relu
I0402 16:03:02.061802  5124 net.cpp:157] Top shape: 1024 150 18 18 (49766400)
I0402 16:03:02.061805  5124 net.cpp:165] Memory required for data: 2052149248
I0402 16:03:02.061810  5124 layer_factory.hpp:77] Creating layer pool2
I0402 16:03:02.061827  5124 net.cpp:100] Creating Layer pool2
I0402 16:03:02.061830  5124 net.cpp:434] pool2 <- conv2
I0402 16:03:02.061836  5124 net.cpp:408] pool2 -> pool2
I0402 16:03:02.061880  5124 net.cpp:150] Setting up pool2
I0402 16:03:02.061888  5124 net.cpp:157] Top shape: 1024 150 9 9 (12441600)
I0402 16:03:02.061892  5124 net.cpp:165] Memory required for data: 2101915648
I0402 16:03:02.061894  5124 layer_factory.hpp:77] Creating layer conv3
I0402 16:03:02.061902  5124 net.cpp:100] Creating Layer conv3
I0402 16:03:02.061905  5124 net.cpp:434] conv3 <- pool2
I0402 16:03:02.061910  5124 net.cpp:408] conv3 -> conv3
I0402 16:03:02.066987  5124 net.cpp:150] Setting up conv3
I0402 16:03:02.067003  5124 net.cpp:157] Top shape: 1024 250 6 6 (9216000)
I0402 16:03:02.067008  5124 net.cpp:165] Memory required for data: 2138779648
I0402 16:03:02.067029  5124 layer_factory.hpp:77] Creating layer conv3_relu
I0402 16:03:02.067039  5124 net.cpp:100] Creating Layer conv3_relu
I0402 16:03:02.067056  5124 net.cpp:434] conv3_relu <- conv3
I0402 16:03:02.067060  5124 net.cpp:395] conv3_relu -> conv3 (in-place)
I0402 16:03:02.067836  5124 net.cpp:150] Setting up conv3_relu
I0402 16:03:02.067857  5124 net.cpp:157] Top shape: 1024 250 6 6 (9216000)
I0402 16:03:02.067863  5124 net.cpp:165] Memory required for data: 2175643648
I0402 16:03:02.067881  5124 layer_factory.hpp:77] Creating layer pool3
I0402 16:03:02.067890  5124 net.cpp:100] Creating Layer pool3
I0402 16:03:02.067894  5124 net.cpp:434] pool3 <- conv3
I0402 16:03:02.067900  5124 net.cpp:408] pool3 -> pool3
I0402 16:03:02.067970  5124 net.cpp:150] Setting up pool3
I0402 16:03:02.067980  5124 net.cpp:157] Top shape: 1024 250 3 3 (2304000)
I0402 16:03:02.067982  5124 net.cpp:165] Memory required for data: 2184859648
I0402 16:03:02.067986  5124 layer_factory.hpp:77] Creating layer fc4_300
I0402 16:03:02.067993  5124 net.cpp:100] Creating Layer fc4_300
I0402 16:03:02.067996  5124 net.cpp:434] fc4_300 <- pool3
I0402 16:03:02.068001  5124 net.cpp:408] fc4_300 -> fc4_300
I0402 16:03:02.073235  5124 net.cpp:150] Setting up fc4_300
I0402 16:03:02.073252  5124 net.cpp:157] Top shape: 1024 300 (307200)
I0402 16:03:02.073256  5124 net.cpp:165] Memory required for data: 2186088448
I0402 16:03:02.073274  5124 layer_factory.hpp:77] Creating layer fc4_relu
I0402 16:03:02.073293  5124 net.cpp:100] Creating Layer fc4_relu
I0402 16:03:02.073298  5124 net.cpp:434] fc4_relu <- fc4_300
I0402 16:03:02.073304  5124 net.cpp:395] fc4_relu -> fc4_300 (in-place)
I0402 16:03:02.073495  5124 net.cpp:150] Setting up fc4_relu
I0402 16:03:02.073508  5124 net.cpp:157] Top shape: 1024 300 (307200)
I0402 16:03:02.073510  5124 net.cpp:165] Memory required for data: 2187317248
I0402 16:03:02.073515  5124 layer_factory.hpp:77] Creating layer drop4
I0402 16:03:02.073523  5124 net.cpp:100] Creating Layer drop4
I0402 16:03:02.073526  5124 net.cpp:434] drop4 <- fc4_300
I0402 16:03:02.073531  5124 net.cpp:395] drop4 -> fc4_300 (in-place)
I0402 16:03:02.073565  5124 net.cpp:150] Setting up drop4
I0402 16:03:02.073573  5124 net.cpp:157] Top shape: 1024 300 (307200)
I0402 16:03:02.073576  5124 net.cpp:165] Memory required for data: 2188546048
I0402 16:03:02.073580  5124 layer_factory.hpp:77] Creating layer fc5_106
I0402 16:03:02.073585  5124 net.cpp:100] Creating Layer fc5_106
I0402 16:03:02.073588  5124 net.cpp:434] fc5_106 <- fc4_300
I0402 16:03:02.073595  5124 net.cpp:408] fc5_106 -> fc5_classes
I0402 16:03:02.074839  5124 net.cpp:150] Setting up fc5_106
I0402 16:03:02.074854  5124 net.cpp:157] Top shape: 1024 106 (108544)
I0402 16:03:02.074857  5124 net.cpp:165] Memory required for data: 2188980224
I0402 16:03:02.074882  5124 layer_factory.hpp:77] Creating layer loss
I0402 16:03:02.074890  5124 net.cpp:100] Creating Layer loss
I0402 16:03:02.074893  5124 net.cpp:434] loss <- fc5_classes
I0402 16:03:02.074898  5124 net.cpp:434] loss <- label
I0402 16:03:02.074904  5124 net.cpp:408] loss -> loss
I0402 16:03:02.074915  5124 layer_factory.hpp:77] Creating layer loss
…
I0402 16:03:02.075579  5124 solver.cpp:193] Creating test net (#0) specified by test_net file: ./Prototxt/experiment_3/rtsd-r3/orig/test.prototxt
I0402 16:03:02.075714  5124 net.cpp:58] Initializing net from parameters: 
state {
  phase: TEST
}
layer {
  name: "data"
  type: "Data"
  top: "data"
  top: "label"
  include {
    phase: TEST
  }
  transform_param {
    mirror: false
    crop_size: 48
    mean_value: 116
    mean_value: 111
    mean_value: 112
  }
  data_param {
    source: "../local_data/lmdb/rtsd-r3/orig/test/lmdb"
    batch_size: 1024
    backend: LMDB
  }
}
layer {
  name: "conv1"
  type: "Convolution"
  bottom: "data"
  top: "conv1"
  convolution_param {
    num_output: 100
    pad: 0
    kernel_size: 7
    group: 1
    stride: 1
    weight_filler {
      type: "xavier"
    }
  }
}
layer {
  name: "conv1_relu"
  type: "ReLU"
  bottom: "conv1"
  top: "conv1"
}
layer {
  name: "pool1"
  type: "Pooling"
  bottom: "conv1"
  top: "pool1"
  pooling_param {
    pool: MAX
    kernel_size: 2
    stride: 2
  }
}
layer {
  name: "conv2"
  type: "Convolution"
  bottom: "pool1"
  top: "conv2"
  convolution_param {
    num_output: 150
    pad: 0
    kernel_size: 4
    group: 1
    stride: 1
    weight_filler {
      type: "xavier"
    }
  }
}
layer {
  name: "conv2_relu"
  type: "ReLU"
  bottom: "conv2"
  top: "conv2"
}
layer {
  name: "pool2"
  type: "Pooling"
  bottom: "conv2"
  top: "pool2"
  pooling_param {
    pool: MAX
    kernel_size: 2
    stride: 2
  }
}
layer {
  name: "conv3"
  type: "Convolution"
  bottom: "pool2"
  top: "conv3"
  convolution_param {
    num_output: 250
    pad: 0
    kernel_size: 4
    group: 1
    stride: 1
    weight_filler {
      type: "xavier"
    }
  }
}
layer {
  name: "conv3_relu"
  type: "ReLU"
  bottom: "conv3"
  top: "conv3"
}
layer {
  name: "pool3"
  type: "Pooling"
  bottom: "conv3"
  top: "pool3"
  pooling_param {
    pool: MAX
    kernel_size: 2
    stride: 2
  }
}
layer {
  name: "fc4_300"
  type: "InnerProduct"
  bottom: "pool3"
  top: "fc4_300"
  inner_product_param {
    num_output: 300
    weight_filler {
      type: "xavier"
    }
  }
}
layer {
  name: "fc4_relu"
  type: "ReLU"
  bottom: "fc4_300"
  top: "fc4_300"
}
layer {
  name: "drop4"
  type: "Dropout"
  bottom: "fc4_300"
  top: "fc4_300"
  dropout_param {
    dropout_ratio: 0.4
  }
}
layer {
  name: "fc5_106"
  type: "InnerProduct"
  bottom: "fc4_300"
  top: "fc5_classes"
  inner_product_param {
    num_output: 106
    weight_filler {
      type: "xavier"
    }
  }
}
layer {
  name: "loss"
  type: "SoftmaxWithLoss"
  bottom: "fc5_classes"
  bottom: "label"
  top: "loss"
}
layer {
  name: "accuracy_1"
  type: "Accuracy"
  bottom: "fc5_classes"
  bottom: "label"
  top: "accuracy_1"
  include {
    phase: TEST
  }
  accuracy_param {
    top_k: 1
  }
}
layer {
  name: "accuracy_5"
  type: "Accuracy"
  bottom: "fc5_classes"
  bottom: "label"
  top: "accuracy_5"
  include {
    phase: TEST
  }
  accuracy_param {
    top_k: 5
  }
}
I0402 16:03:02.075819  5124 layer_factory.hpp:77] Creating layer data
I0402 16:03:02.076490  5124 net.cpp:100] Creating Layer data
I0402 16:03:02.076503  5124 net.cpp:408] data -> data
I0402 16:03:02.076517  5124 net.cpp:408] data -> label
I0402 16:03:02.078054  5228 db_lmdb.cpp:35] Opened lmdb ../local_data/lmdb/rtsd-r3/orig/test/lmdb
I0402 16:03:02.078251  5124 data_layer.cpp:41] output data size: 1024,3,48,48
I0402 16:03:02.120844  5124 net.cpp:150] Setting up data
I0402 16:03:02.120872  5124 net.cpp:157] Top shape: 1024 3 48 48 (7077888)
I0402 16:03:02.120877  5124 net.cpp:157] Top shape: 1024 (1024)
I0402 16:03:02.120880  5124 net.cpp:165] Memory required for data: 28315648
I0402 16:03:02.120887  5124 layer_factory.hpp:77] Creating layer label_data_1_split
I0402 16:03:02.120900  5124 net.cpp:100] Creating Layer label_data_1_split
I0402 16:03:02.120905  5124 net.cpp:434] label_data_1_split <- label
I0402 16:03:02.120913  5124 net.cpp:408] label_data_1_split -> label_data_1_split_0
I0402 16:03:02.120928  5124 net.cpp:408] label_data_1_split -> label_data_1_split_1
I0402 16:03:02.120936  5124 net.cpp:408] label_data_1_split -> label_data_1_split_2
I0402 16:03:02.121104  5124 net.cpp:150] Setting up label_data_1_split
I0402 16:03:02.121114  5124 net.cpp:157] Top shape: 1024 (1024)
I0402 16:03:02.121119  5124 net.cpp:157] Top shape: 1024 (1024)
I0402 16:03:02.121122  5124 net.cpp:157] Top shape: 1024 (1024)
I0402 16:03:02.121124  5124 net.cpp:165] Memory required for data: 28327936
I0402 16:03:02.121129  5124 layer_factory.hpp:77] Creating layer conv1
I0402 16:03:02.121142  5124 net.cpp:100] Creating Layer conv1
I0402 16:03:02.121147  5124 net.cpp:434] conv1 <- data
I0402 16:03:02.121155  5124 net.cpp:408] conv1 -> conv1
I0402 16:03:02.124125  5124 net.cpp:150] Setting up conv1
I0402 16:03:02.124157  5124 net.cpp:157] Top shape: 1024 100 42 42 (180633600)
I0402 16:03:02.124161  5124 net.cpp:165] Memory required for data: 750862336
I0402 16:03:02.124173  5124 layer_factory.hpp:77] Creating layer conv1_relu
I0402 16:03:02.124181  5124 net.cpp:100] Creating Layer conv1_relu
I0402 16:03:02.124186  5124 net.cpp:434] conv1_relu <- conv1
I0402 16:03:02.124191  5124 net.cpp:395] conv1_relu -> conv1 (in-place)
I0402 16:03:02.124419  5124 net.cpp:150] Setting up conv1_relu
I0402 16:03:02.124434  5124 net.cpp:157] Top shape: 1024 100 42 42 (180633600)
I0402 16:03:02.124438  5124 net.cpp:165] Memory required for data: 1473396736
I0402 16:03:02.124441  5124 layer_factory.hpp:77] Creating layer pool1
I0402 16:03:02.124451  5124 net.cpp:100] Creating Layer pool1
I0402 16:03:02.124457  5124 net.cpp:434] pool1 <- conv1
I0402 16:03:02.124462  5124 net.cpp:408] pool1 -> pool1
I0402 16:03:02.124517  5124 net.cpp:150] Setting up pool1
I0402 16:03:02.124526  5124 net.cpp:157] Top shape: 1024 100 21 21 (45158400)
I0402 16:03:02.124529  5124 net.cpp:165] Memory required for data: 1654030336
I0402 16:03:02.124532  5124 layer_factory.hpp:77] Creating layer conv2
I0402 16:03:02.124542  5124 net.cpp:100] Creating Layer conv2
I0402 16:03:02.124547  5124 net.cpp:434] conv2 <- pool1
I0402 16:03:02.124553  5124 net.cpp:408] conv2 -> conv2
I0402 16:03:02.129933  5124 net.cpp:150] Setting up conv2
I0402 16:03:02.129951  5124 net.cpp:157] Top shape: 1024 150 18 18 (49766400)
I0402 16:03:02.129956  5124 net.cpp:165] Memory required for data: 1853095936
I0402 16:03:02.129966  5124 layer_factory.hpp:77] Creating layer conv2_relu
I0402 16:03:02.129973  5124 net.cpp:100] Creating Layer conv2_relu
I0402 16:03:02.129977  5124 net.cpp:434] conv2_relu <- conv2
I0402 16:03:02.129984  5124 net.cpp:395] conv2_relu -> conv2 (in-place)
I0402 16:03:02.130959  5124 net.cpp:150] Setting up conv2_relu
I0402 16:03:02.130980  5124 net.cpp:157] Top shape: 1024 150 18 18 (49766400)
I0402 16:03:02.130983  5124 net.cpp:165] Memory required for data: 2052161536
I0402 16:03:02.130986  5124 layer_factory.hpp:77] Creating layer pool2
I0402 16:03:02.130995  5124 net.cpp:100] Creating Layer pool2
I0402 16:03:02.131002  5124 net.cpp:434] pool2 <- conv2
I0402 16:03:02.131012  5124 net.cpp:408] pool2 -> pool2
I0402 16:03:02.131083  5124 net.cpp:150] Setting up pool2
I0402 16:03:02.131095  5124 net.cpp:157] Top shape: 1024 150 9 9 (12441600)
I0402 16:03:02.131100  5124 net.cpp:165] Memory required for data: 2101927936
I0402 16:03:02.131103  5124 layer_factory.hpp:77] Creating layer conv3
I0402 16:03:02.131116  5124 net.cpp:100] Creating Layer conv3
I0402 16:03:02.131122  5124 net.cpp:434] conv3 <- pool2
I0402 16:03:02.131129  5124 net.cpp:408] conv3 -> conv3
I0402 16:03:02.137007  5124 net.cpp:150] Setting up conv3
I0402 16:03:02.137028  5124 net.cpp:157] Top shape: 1024 250 6 6 (9216000)
I0402 16:03:02.137032  5124 net.cpp:165] Memory required for data: 2138791936
I0402 16:03:02.137043  5124 layer_factory.hpp:77] Creating layer conv3_relu
I0402 16:03:02.137050  5124 net.cpp:100] Creating Layer conv3_relu
I0402 16:03:02.137054  5124 net.cpp:434] conv3_relu <- conv3
I0402 16:03:02.137059  5124 net.cpp:395] conv3_relu -> conv3 (in-place)
I0402 16:03:02.144708  5124 net.cpp:150] Setting up conv3_relu
I0402 16:03:02.144726  5124 net.cpp:157] Top shape: 1024 250 6 6 (9216000)
I0402 16:03:02.144731  5124 net.cpp:165] Memory required for data: 2175655936
I0402 16:03:02.144752  5124 layer_factory.hpp:77] Creating layer pool3
I0402 16:03:02.144760  5124 net.cpp:100] Creating Layer pool3
I0402 16:03:02.144764  5124 net.cpp:434] pool3 <- conv3
I0402 16:03:02.144773  5124 net.cpp:408] pool3 -> pool3
I0402 16:03:02.144829  5124 net.cpp:150] Setting up pool3
I0402 16:03:02.144840  5124 net.cpp:157] Top shape: 1024 250 3 3 (2304000)
I0402 16:03:02.144845  5124 net.cpp:165] Memory required for data: 2184871936
I0402 16:03:02.144847  5124 layer_factory.hpp:77] Creating layer fc4_300
I0402 16:03:02.144855  5124 net.cpp:100] Creating Layer fc4_300
I0402 16:03:02.144860  5124 net.cpp:434] fc4_300 <- pool3
I0402 16:03:02.144865  5124 net.cpp:408] fc4_300 -> fc4_300
I0402 16:03:02.155652  5124 net.cpp:150] Setting up fc4_300
I0402 16:03:02.155673  5124 net.cpp:157] Top shape: 1024 300 (307200)
I0402 16:03:02.155681  5124 net.cpp:165] Memory required for data: 2186100736
I0402 16:03:02.155689  5124 layer_factory.hpp:77] Creating layer fc4_relu
I0402 16:03:02.155696  5124 net.cpp:100] Creating Layer fc4_relu
I0402 16:03:02.155699  5124 net.cpp:434] fc4_relu <- fc4_300
I0402 16:03:02.155704  5124 net.cpp:395] fc4_relu -> fc4_300 (in-place)
I0402 16:03:02.155912  5124 net.cpp:150] Setting up fc4_relu
I0402 16:03:02.155927  5124 net.cpp:157] Top shape: 1024 300 (307200)
I0402 16:03:02.155932  5124 net.cpp:165] Memory required for data: 2187329536
I0402 16:03:02.155936  5124 layer_factory.hpp:77] Creating layer drop4
I0402 16:03:02.155942  5124 net.cpp:100] Creating Layer drop4
I0402 16:03:02.155948  5124 net.cpp:434] drop4 <- fc4_300
I0402 16:03:02.155953  5124 net.cpp:395] drop4 -> fc4_300 (in-place)
I0402 16:03:02.155998  5124 net.cpp:150] Setting up drop4
I0402 16:03:02.156007  5124 net.cpp:157] Top shape: 1024 300 (307200)
I0402 16:03:02.156009  5124 net.cpp:165] Memory required for data: 2188558336
I0402 16:03:02.156013  5124 layer_factory.hpp:77] Creating layer fc5_106
I0402 16:03:02.156019  5124 net.cpp:100] Creating Layer fc5_106
I0402 16:03:02.156023  5124 net.cpp:434] fc5_106 <- fc4_300
I0402 16:03:02.156028  5124 net.cpp:408] fc5_106 -> fc5_classes
I0402 16:03:02.156373  5124 net.cpp:150] Setting up fc5_106
I0402 16:03:02.156384  5124 net.cpp:157] Top shape: 1024 106 (108544)
I0402 16:03:02.156389  5124 net.cpp:165] Memory required for data: 2188992512
I0402 16:03:02.156399  5124 layer_factory.hpp:77] Creating layer fc5_classes_fc5_106_0_split
I0402 16:03:02.156410  5124 net.cpp:100] Creating Layer fc5_classes_fc5_106_0_split
I0402 16:03:02.156415  5124 net.cpp:434] fc5_classes_fc5_106_0_split <- fc5_classes
I0402 16:03:02.156421  5124 net.cpp:408] fc5_classes_fc5_106_0_split -> fc5_classes_fc5_106_0_split_0
I0402 16:03:02.156431  5124 net.cpp:408] fc5_classes_fc5_106_0_split -> fc5_classes_fc5_106_0_split_1
I0402 16:03:02.156442  5124 net.cpp:408] fc5_classes_fc5_106_0_split -> fc5_classes_fc5_106_0_split_2
I0402 16:03:02.156498  5124 net.cpp:150] Setting up fc5_classes_fc5_106_0_split
I0402 16:03:02.156507  5124 net.cpp:157] Top shape: 1024 106 (108544)
I0402 16:03:02.156510  5124 net.cpp:157] Top shape: 1024 106 (108544)
I0402 16:03:02.156514  5124 net.cpp:157] Top shape: 1024 106 (108544)
I0402 16:03:02.156517  5124 net.cpp:165] Memory required for data: 2190295040
I0402 16:03:02.156520  5124 layer_factory.hpp:77] Creating layer loss
I0402 16:03:02.156532  5124 net.cpp:100] Creating Layer loss
I0402 16:03:02.156536  5124 net.cpp:434] loss <- fc5_classes_fc5_106_0_split_0
I0402 16:03:02.156541  5124 net.cpp:434] loss <- label_data_1_split_0
I0402 16:03:02.156546  5124 net.cpp:408] loss -> loss
…
