…
I0411 04:10:06.466738 26209 net.cpp:322] The NetState phase (0) differed from the phase (1) specified by a rule in layer accuracy_5
I0411 04:10:06.466912 26209 net.cpp:58] Initializing net from parameters: 
state {
  phase: TRAIN
  level: 0
  stage: ""
}
layer {
  name: "data"
  type: "Data"
  top: "data"
  top: "label"
  include {
    phase: TRAIN
  }
  transform_param {
    scale: 0.0039215689
    mirror: false
    crop_size: 48
    mean_value: 122
    mean_value: 115
    mean_value: 129
  }
  data_param {
    source: "../local_data/lmdb/rtsd-r1/orig/train/lmdb"
    batch_size: 1024
    backend: LMDB
  }
}
layer {
  name: "conv1"
  type: "Convolution"
  bottom: "data"
  top: "conv1"
  convolution_param {
    num_output: 100
    pad: 0
    kernel_size: 7
    group: 1
    stride: 1
    weight_filler {
      type: "xavier"
    }
  }
}
layer {
  name: "conv1_prescale"
  type: "Scale"
  bottom: "conv1"
  top: "conv1"
  param {
    lr_mult: 0
    decay_mult: 0
  }
  scale_param {
    filler {
      value: 0.6666
    }
    bias_term: false
  }
}
layer {
  name: "conv1_sTanH"
  type: "TanH"
  bottom: "conv1"
  top: "conv1"
}
layer {
  name: "conv1_postscale"
  type: "Scale"
  bottom: "conv1"
  top: "conv1"
  param {
    lr_mult: 0
    decay_mult: 0
  }
  scale_param {
    filler {
      value: 1.7159
    }
    bias_term: false
  }
}
layer {
  name: "pool1"
  type: "Pooling"
  bottom: "conv1"
  top: "pool1"
  pooling_param {
    pool: MAX
    kernel_size: 2
    stride: 2
  }
}
layer {
  name: "conv2"
  type: "Convolution"
  bottom: "pool1"
  top: "conv2"
  convolution_param {
    num_output: 150
    pad: 0
    kernel_size: 4
    group: 1
    stride: 1
    weight_filler {
      type: "xavier"
    }
  }
}
layer {
  name: "conv2_prescale"
  type: "Scale"
  bottom: "conv2"
  top: "conv2"
  param {
    lr_mult: 0
    decay_mult: 0
  }
  scale_param {
    filler {
      value: 0.6666
    }
    bias_term: false
  }
}
layer {
  name: "conv2_sTanH"
  type: "TanH"
  bottom: "conv2"
  top: "conv2"
}
layer {
  name: "conv2_postscale"
  type: "Scale"
  bottom: "conv2"
  top: "conv2"
  param {
    lr_mult: 0
    decay_mult: 0
  }
  scale_param {
    filler {
      value: 1.7159
    }
    bias_term: false
  }
}
layer {
  name: "pool2"
  type: "Pooling"
  bottom: "conv2"
  top: "pool2"
  pooling_param {
    pool: MAX
    kernel_size: 2
    stride: 2
  }
}
layer {
  name: "conv3"
  type: "Convolution"
  bottom: "pool2"
  top: "conv3"
  convolution_param {
    num_output: 250
    pad: 0
    kernel_size: 4
    group: 1
    stride: 1
    weight_filler {
      type: "xavier"
    }
  }
}
layer {
  name: "conv3_prescale"
  type: "Scale"
  bottom: "conv3"
  top: "conv3"
  param {
    lr_mult: 0
    decay_mult: 0
  }
  scale_param {
    filler {
      value: 0.6666
    }
    bias_term: false
  }
}
layer {
  name: "conv3_sTanH"
  type: "TanH"
  bottom: "conv3"
  top: "conv3"
}
layer {
  name: "conv3_postscale"
  type: "Scale"
  bottom: "conv3"
  top: "conv3"
  param {
    lr_mult: 0
    decay_mult: 0
  }
  scale_param {
    filler {
      value: 1.7159
    }
    bias_term: false
  }
}
layer {
  name: "pool3"
  type: "Pooling"
  bottom: "conv3"
  top: "pool3"
  pooling_param {
    pool: MAX
    kernel_size: 2
    stride: 2
  }
}
layer {
  name: "fc4_300"
  type: "InnerProduct"
  bottom: "pool3"
  top: "fc4_300"
  inner_product_param {
    num_output: 300
    weight_filler {
      type: "xavier"
    }
  }
}
layer {
  name: "fc4_prescale"
  type: "Scale"
  bottom: "fc4_300"
  top: "fc4_300"
  param {
    lr_mult: 0
    decay_mult: 0
  }
  scale_param {
    filler {
      value: 0.6666
    }
    bias_term: false
  }
}
layer {
  name: "fc4_sTanH"
  type: "TanH"
  bottom: "fc4_300"
  top: "fc4_300"
}
layer {
  name: "fc4_postscale"
  type: "Scale"
  bottom: "fc4_300"
  top: "fc4_300"
  param {
    lr_mult: 0
    decay_mult: 0
  }
  scale_param {
    filler {
      value: 1.7159
    }
    bias_term: false
  }
}
layer {
  name: "fc5_67"
  type: "InnerProduct"
  bottom: "fc4_300"
  top: "fc5_classes"
  inner_product_param {
    num_output: 67
    weight_filler {
      type: "xavier"
    }
  }
}
layer {
  name: "loss"
  type: "SoftmaxWithLoss"
  bottom: "fc5_classes"
  bottom: "label"
  top: "loss"
}
I0411 04:10:06.467034 26209 layer_factory.hpp:77] Creating layer data
I0411 04:10:06.468593 26209 net.cpp:100] Creating Layer data
I0411 04:10:06.468613 26209 net.cpp:408] data -> data
I0411 04:10:06.468644 26209 net.cpp:408] data -> label
I0411 04:10:06.469684 26335 db_lmdb.cpp:35] Opened lmdb ../local_data/lmdb/rtsd-r1/orig/train/lmdb
I0411 04:10:06.490592 26209 data_layer.cpp:41] output data size: 1024,3,48,48
I0411 04:10:06.537869 26209 net.cpp:150] Setting up data
I0411 04:10:06.537902 26209 net.cpp:157] Top shape: 1024 3 48 48 (7077888)
I0411 04:10:06.537909 26209 net.cpp:157] Top shape: 1024 (1024)
I0411 04:10:06.537914 26209 net.cpp:165] Memory required for data: 28315648
I0411 04:10:06.537925 26209 layer_factory.hpp:77] Creating layer conv1
I0411 04:10:06.537950 26209 net.cpp:100] Creating Layer conv1
I0411 04:10:06.537961 26209 net.cpp:434] conv1 <- data
I0411 04:10:06.537976 26209 net.cpp:408] conv1 -> conv1
I0411 04:10:06.872406 26209 net.cpp:150] Setting up conv1
I0411 04:10:06.872439 26209 net.cpp:157] Top shape: 1024 100 42 42 (180633600)
I0411 04:10:06.872444 26209 net.cpp:165] Memory required for data: 750850048
I0411 04:10:06.872469 26209 layer_factory.hpp:77] Creating layer conv1_prescale
I0411 04:10:06.872491 26209 net.cpp:100] Creating Layer conv1_prescale
I0411 04:10:06.872498 26209 net.cpp:434] conv1_prescale <- conv1
I0411 04:10:06.872506 26209 net.cpp:395] conv1_prescale -> conv1 (in-place)
I0411 04:10:06.872643 26209 net.cpp:150] Setting up conv1_prescale
I0411 04:10:06.872654 26209 net.cpp:157] Top shape: 1024 100 42 42 (180633600)
I0411 04:10:06.872660 26209 net.cpp:165] Memory required for data: 1473384448
I0411 04:10:06.872668 26209 layer_factory.hpp:77] Creating layer conv1_sTanH
I0411 04:10:06.872676 26209 net.cpp:100] Creating Layer conv1_sTanH
I0411 04:10:06.872683 26209 net.cpp:434] conv1_sTanH <- conv1
I0411 04:10:06.872687 26209 net.cpp:395] conv1_sTanH -> conv1 (in-place)
I0411 04:10:06.872925 26209 net.cpp:150] Setting up conv1_sTanH
I0411 04:10:06.872941 26209 net.cpp:157] Top shape: 1024 100 42 42 (180633600)
I0411 04:10:06.872946 26209 net.cpp:165] Memory required for data: 2195918848
I0411 04:10:06.872949 26209 layer_factory.hpp:77] Creating layer conv1_postscale
I0411 04:10:06.872959 26209 net.cpp:100] Creating Layer conv1_postscale
I0411 04:10:06.872964 26209 net.cpp:434] conv1_postscale <- conv1
I0411 04:10:06.872972 26209 net.cpp:395] conv1_postscale -> conv1 (in-place)
I0411 04:10:06.873090 26209 net.cpp:150] Setting up conv1_postscale
I0411 04:10:06.873100 26209 net.cpp:157] Top shape: 1024 100 42 42 (180633600)
I0411 04:10:06.873106 26209 net.cpp:165] Memory required for data: 2918453248
I0411 04:10:06.873111 26209 layer_factory.hpp:77] Creating layer pool1
I0411 04:10:06.873118 26209 net.cpp:100] Creating Layer pool1
I0411 04:10:06.873124 26209 net.cpp:434] pool1 <- conv1
I0411 04:10:06.873131 26209 net.cpp:408] pool1 -> pool1
I0411 04:10:06.873185 26209 net.cpp:150] Setting up pool1
I0411 04:10:06.873195 26209 net.cpp:157] Top shape: 1024 100 21 21 (45158400)
I0411 04:10:06.873221 26209 net.cpp:165] Memory required for data: 3099086848
I0411 04:10:06.873226 26209 layer_factory.hpp:77] Creating layer conv2
I0411 04:10:06.873239 26209 net.cpp:100] Creating Layer conv2
I0411 04:10:06.873245 26209 net.cpp:434] conv2 <- pool1
I0411 04:10:06.873250 26209 net.cpp:408] conv2 -> conv2
I0411 04:10:06.880362 26209 net.cpp:150] Setting up conv2
I0411 04:10:06.880381 26209 net.cpp:157] Top shape: 1024 150 18 18 (49766400)
I0411 04:10:06.880385 26209 net.cpp:165] Memory required for data: 3298152448
I0411 04:10:06.880398 26209 layer_factory.hpp:77] Creating layer conv2_prescale
I0411 04:10:06.880409 26209 net.cpp:100] Creating Layer conv2_prescale
I0411 04:10:06.880412 26209 net.cpp:434] conv2_prescale <- conv2
I0411 04:10:06.880419 26209 net.cpp:395] conv2_prescale -> conv2 (in-place)
I0411 04:10:06.880551 26209 net.cpp:150] Setting up conv2_prescale
I0411 04:10:06.880563 26209 net.cpp:157] Top shape: 1024 150 18 18 (49766400)
I0411 04:10:06.880566 26209 net.cpp:165] Memory required for data: 3497218048
I0411 04:10:06.880573 26209 layer_factory.hpp:77] Creating layer conv2_sTanH
I0411 04:10:06.880580 26209 net.cpp:100] Creating Layer conv2_sTanH
I0411 04:10:06.880585 26209 net.cpp:434] conv2_sTanH <- conv2
I0411 04:10:06.880590 26209 net.cpp:395] conv2_sTanH -> conv2 (in-place)
I0411 04:10:06.886507 26209 net.cpp:150] Setting up conv2_sTanH
I0411 04:10:06.886529 26209 net.cpp:157] Top shape: 1024 150 18 18 (49766400)
I0411 04:10:06.886533 26209 net.cpp:165] Memory required for data: 3696283648
I0411 04:10:06.886538 26209 layer_factory.hpp:77] Creating layer conv2_postscale
I0411 04:10:06.886549 26209 net.cpp:100] Creating Layer conv2_postscale
I0411 04:10:06.886554 26209 net.cpp:434] conv2_postscale <- conv2
I0411 04:10:06.886561 26209 net.cpp:395] conv2_postscale -> conv2 (in-place)
I0411 04:10:06.886683 26209 net.cpp:150] Setting up conv2_postscale
I0411 04:10:06.886694 26209 net.cpp:157] Top shape: 1024 150 18 18 (49766400)
I0411 04:10:06.886698 26209 net.cpp:165] Memory required for data: 3895349248
I0411 04:10:06.886704 26209 layer_factory.hpp:77] Creating layer pool2
I0411 04:10:06.886713 26209 net.cpp:100] Creating Layer pool2
I0411 04:10:06.886716 26209 net.cpp:434] pool2 <- conv2
I0411 04:10:06.886723 26209 net.cpp:408] pool2 -> pool2
I0411 04:10:06.886771 26209 net.cpp:150] Setting up pool2
I0411 04:10:06.886780 26209 net.cpp:157] Top shape: 1024 150 9 9 (12441600)
I0411 04:10:06.886783 26209 net.cpp:165] Memory required for data: 3945115648
I0411 04:10:06.886787 26209 layer_factory.hpp:77] Creating layer conv3
I0411 04:10:06.886797 26209 net.cpp:100] Creating Layer conv3
I0411 04:10:06.886801 26209 net.cpp:434] conv3 <- pool2
I0411 04:10:06.886807 26209 net.cpp:408] conv3 -> conv3
I0411 04:10:06.898802 26209 net.cpp:150] Setting up conv3
I0411 04:10:06.898824 26209 net.cpp:157] Top shape: 1024 250 6 6 (9216000)
I0411 04:10:06.898829 26209 net.cpp:165] Memory required for data: 3981979648
I0411 04:10:06.898843 26209 layer_factory.hpp:77] Creating layer conv3_prescale
I0411 04:10:06.898856 26209 net.cpp:100] Creating Layer conv3_prescale
I0411 04:10:06.898862 26209 net.cpp:434] conv3_prescale <- conv3
I0411 04:10:06.898869 26209 net.cpp:395] conv3_prescale -> conv3 (in-place)
I0411 04:10:06.898998 26209 net.cpp:150] Setting up conv3_prescale
I0411 04:10:06.899009 26209 net.cpp:157] Top shape: 1024 250 6 6 (9216000)
I0411 04:10:06.899013 26209 net.cpp:165] Memory required for data: 4018843648
I0411 04:10:06.899019 26209 layer_factory.hpp:77] Creating layer conv3_sTanH
I0411 04:10:06.899027 26209 net.cpp:100] Creating Layer conv3_sTanH
I0411 04:10:06.899030 26209 net.cpp:434] conv3_sTanH <- conv3
I0411 04:10:06.899039 26209 net.cpp:395] conv3_sTanH -> conv3 (in-place)
I0411 04:10:06.900491 26209 net.cpp:150] Setting up conv3_sTanH
I0411 04:10:06.900512 26209 net.cpp:157] Top shape: 1024 250 6 6 (9216000)
I0411 04:10:06.900518 26209 net.cpp:165] Memory required for data: 4055707648
I0411 04:10:06.900522 26209 layer_factory.hpp:77] Creating layer conv3_postscale
I0411 04:10:06.900533 26209 net.cpp:100] Creating Layer conv3_postscale
I0411 04:10:06.900555 26209 net.cpp:434] conv3_postscale <- conv3
I0411 04:10:06.900564 26209 net.cpp:395] conv3_postscale -> conv3 (in-place)
I0411 04:10:06.900696 26209 net.cpp:150] Setting up conv3_postscale
I0411 04:10:06.900707 26209 net.cpp:157] Top shape: 1024 250 6 6 (9216000)
I0411 04:10:06.900713 26209 net.cpp:165] Memory required for data: 4092571648
I0411 04:10:06.900719 26209 layer_factory.hpp:77] Creating layer pool3
I0411 04:10:06.900728 26209 net.cpp:100] Creating Layer pool3
I0411 04:10:06.900734 26209 net.cpp:434] pool3 <- conv3
I0411 04:10:06.900740 26209 net.cpp:408] pool3 -> pool3
I0411 04:10:06.900791 26209 net.cpp:150] Setting up pool3
I0411 04:10:06.900801 26209 net.cpp:157] Top shape: 1024 250 3 3 (2304000)
I0411 04:10:06.900805 26209 net.cpp:165] Memory required for data: 4101787648
I0411 04:10:06.900809 26209 layer_factory.hpp:77] Creating layer fc4_300
I0411 04:10:06.900822 26209 net.cpp:100] Creating Layer fc4_300
I0411 04:10:06.900828 26209 net.cpp:434] fc4_300 <- pool3
I0411 04:10:06.900835 26209 net.cpp:408] fc4_300 -> fc4_300
I0411 04:10:06.907775 26209 net.cpp:150] Setting up fc4_300
I0411 04:10:06.907795 26209 net.cpp:157] Top shape: 1024 300 (307200)
I0411 04:10:06.907799 26209 net.cpp:165] Memory required for data: 4103016448
I0411 04:10:06.907809 26209 layer_factory.hpp:77] Creating layer fc4_prescale
I0411 04:10:06.907819 26209 net.cpp:100] Creating Layer fc4_prescale
I0411 04:10:06.907824 26209 net.cpp:434] fc4_prescale <- fc4_300
I0411 04:10:06.907835 26209 net.cpp:395] fc4_prescale -> fc4_300 (in-place)
I0411 04:10:06.907964 26209 net.cpp:150] Setting up fc4_prescale
I0411 04:10:06.907976 26209 net.cpp:157] Top shape: 1024 300 (307200)
I0411 04:10:06.907980 26209 net.cpp:165] Memory required for data: 4104245248
I0411 04:10:06.907986 26209 layer_factory.hpp:77] Creating layer fc4_sTanH
I0411 04:10:06.907994 26209 net.cpp:100] Creating Layer fc4_sTanH
I0411 04:10:06.907999 26209 net.cpp:434] fc4_sTanH <- fc4_300
I0411 04:10:06.908005 26209 net.cpp:395] fc4_sTanH -> fc4_300 (in-place)
I0411 04:10:06.908244 26209 net.cpp:150] Setting up fc4_sTanH
I0411 04:10:06.908258 26209 net.cpp:157] Top shape: 1024 300 (307200)
I0411 04:10:06.908262 26209 net.cpp:165] Memory required for data: 4105474048
I0411 04:10:06.908267 26209 layer_factory.hpp:77] Creating layer fc4_postscale
I0411 04:10:06.908277 26209 net.cpp:100] Creating Layer fc4_postscale
I0411 04:10:06.908282 26209 net.cpp:434] fc4_postscale <- fc4_300
I0411 04:10:06.908289 26209 net.cpp:395] fc4_postscale -> fc4_300 (in-place)
I0411 04:10:06.908421 26209 net.cpp:150] Setting up fc4_postscale
I0411 04:10:06.908432 26209 net.cpp:157] Top shape: 1024 300 (307200)
I0411 04:10:06.908435 26209 net.cpp:165] Memory required for data: 4106702848
I0411 04:10:06.908442 26209 layer_factory.hpp:77] Creating layer fc5_67
I0411 04:10:06.908452 26209 net.cpp:100] Creating Layer fc5_67
I0411 04:10:06.908457 26209 net.cpp:434] fc5_67 <- fc4_300
I0411 04:10:06.908465 26209 net.cpp:408] fc5_67 -> fc5_classes
I0411 04:10:06.910070 26209 net.cpp:150] Setting up fc5_67
I0411 04:10:06.910089 26209 net.cpp:157] Top shape: 1024 67 (68608)
I0411 04:10:06.910094 26209 net.cpp:165] Memory required for data: 4106977280
I0411 04:10:06.910106 26209 layer_factory.hpp:77] Creating layer loss
I0411 04:10:06.910118 26209 net.cpp:100] Creating Layer loss
I0411 04:10:06.910125 26209 net.cpp:434] loss <- fc5_classes
I0411 04:10:06.910130 26209 net.cpp:434] loss <- label
I0411 04:10:06.910138 26209 net.cpp:408] loss -> loss
I0411 04:10:06.910153 26209 layer_factory.hpp:77] Creating layer loss
…
I0411 04:10:06.911053 26209 solver.cpp:193] Creating test net (#0) specified by test_net file: ./Prototxt/experiment_8/rtsd-r1/orig/trial_5/test.prototxt
I0411 04:10:06.911270 26209 net.cpp:58] Initializing net from parameters: 
state {
  phase: TEST
}
layer {
  name: "data"
  type: "Data"
  top: "data"
  top: "label"
  include {
    phase: TEST
  }
  transform_param {
    scale: 0.0039215689
    mirror: false
    crop_size: 48
    mean_value: 113
    mean_value: 110
    mean_value: 132
  }
  data_param {
    source: "../local_data/lmdb/rtsd-r1/orig/test/lmdb"
    batch_size: 1024
    backend: LMDB
  }
}
layer {
  name: "conv1"
  type: "Convolution"
  bottom: "data"
  top: "conv1"
  convolution_param {
    num_output: 100
    pad: 0
    kernel_size: 7
    group: 1
    stride: 1
    weight_filler {
      type: "xavier"
    }
  }
}
layer {
  name: "conv1_prescale"
  type: "Scale"
  bottom: "conv1"
  top: "conv1"
  param {
    lr_mult: 0
    decay_mult: 0
  }
  scale_param {
    filler {
      value: 0.6666
    }
    bias_term: false
  }
}
layer {
  name: "conv1_sTanH"
  type: "TanH"
  bottom: "conv1"
  top: "conv1"
}
layer {
  name: "conv1_postscale"
  type: "Scale"
  bottom: "conv1"
  top: "conv1"
  param {
    lr_mult: 0
    decay_mult: 0
  }
  scale_param {
    filler {
      value: 1.7159
    }
    bias_term: false
  }
}
layer {
  name: "pool1"
  type: "Pooling"
  bottom: "conv1"
  top: "pool1"
  pooling_param {
    pool: MAX
    kernel_size: 2
    stride: 2
  }
}
layer {
  name: "conv2"
  type: "Convolution"
  bottom: "pool1"
  top: "conv2"
  convolution_param {
    num_output: 150
    pad: 0
    kernel_size: 4
    group: 1
    stride: 1
    weight_filler {
      type: "xavier"
    }
  }
}
layer {
  name: "conv2_prescale"
  type: "Scale"
  bottom: "conv2"
  top: "conv2"
  param {
    lr_mult: 0
    decay_mult: 0
  }
  scale_param {
    filler {
      value: 0.6666
    }
    bias_term: false
  }
}
layer {
  name: "conv2_sTanH"
  type: "TanH"
  bottom: "conv2"
  top: "conv2"
}
layer {
  name: "conv2_postscale"
  type: "Scale"
  bottom: "conv2"
  top: "conv2"
  param {
    lr_mult: 0
    decay_mult: 0
  }
  scale_param {
    filler {
      value: 1.7159
    }
    bias_term: false
  }
}
layer {
  name: "pool2"
  type: "Pooling"
  bottom: "conv2"
  top: "pool2"
  pooling_param {
    pool: MAX
    kernel_size: 2
    stride: 2
  }
}
layer {
  name: "conv3"
  type: "Convolution"
  bottom: "pool2"
  top: "conv3"
  convolution_param {
    num_output: 250
    pad: 0
    kernel_size: 4
    group: 1
    stride: 1
    weight_filler {
      type: "xavier"
    }
  }
}
layer {
  name: "conv3_prescale"
  type: "Scale"
  bottom: "conv3"
  top: "conv3"
  param {
    lr_mult: 0
    decay_mult: 0
  }
  scale_param {
    filler {
      value: 0.6666
    }
    bias_term: false
  }
}
layer {
  name: "conv3_sTanH"
  type: "TanH"
  bottom: "conv3"
  top: "conv3"
}
layer {
  name: "conv3_postscale"
  type: "Scale"
  bottom: "conv3"
  top: "conv3"
  param {
    lr_mult: 0
    decay_mult: 0
  }
  scale_param {
    filler {
      value: 1.7159
    }
    bias_term: false
  }
}
layer {
  name: "pool3"
  type: "Pooling"
  bottom: "conv3"
  top: "pool3"
  pooling_param {
    pool: MAX
    kernel_size: 2
    stride: 2
  }
}
layer {
  name: "fc4_300"
  type: "InnerProduct"
  bottom: "pool3"
  top: "fc4_300"
  inner_product_param {
    num_output: 300
    weight_filler {
      type: "xavier"
    }
  }
}
layer {
  name: "fc4_prescale"
  type: "Scale"
  bottom: "fc4_300"
  top: "fc4_300"
  param {
    lr_mult: 0
    decay_mult: 0
  }
  scale_param {
    filler {
      value: 0.6666
    }
    bias_term: false
  }
}
layer {
  name: "fc4_sTanH"
  type: "TanH"
  bottom: "fc4_300"
  top: "fc4_300"
}
layer {
  name: "fc4_postscale"
  type: "Scale"
  bottom: "fc4_300"
  top: "fc4_300"
  param {
    lr_mult: 0
    decay_mult: 0
  }
  scale_param {
    filler {
      value: 1.7159
    }
    bias_term: false
  }
}
layer {
  name: "fc5_67"
  type: "InnerProduct"
  bottom: "fc4_300"
  top: "fc5_classes"
  inner_product_param {
    num_output: 67
    weight_filler {
      type: "xavier"
    }
  }
}
layer {
  name: "loss"
  type: "SoftmaxWithLoss"
  bottom: "fc5_classes"
  bottom: "label"
  top: "loss"
}
layer {
  name: "accuracy_1"
  type: "Accuracy"
  bottom: "fc5_classes"
  bottom: "label"
  top: "accuracy_1"
  include {
    phase: TEST
  }
  accuracy_param {
    top_k: 1
  }
}
layer {
  name: "accuracy_5"
  type: "Accuracy"
  bottom: "fc5_classes"
  bottom: "label"
  top: "accuracy_5"
  include {
    phase: TEST
  }
  accuracy_param {
    top_k: 5
  }
}
I0411 04:10:06.911414 26209 layer_factory.hpp:77] Creating layer data
I0411 04:10:06.912263 26209 net.cpp:100] Creating Layer data
I0411 04:10:06.912281 26209 net.cpp:408] data -> data
I0411 04:10:06.912294 26209 net.cpp:408] data -> label
I0411 04:10:06.917532 26390 db_lmdb.cpp:35] Opened lmdb ../local_data/lmdb/rtsd-r1/orig/test/lmdb
I0411 04:10:06.917732 26209 data_layer.cpp:41] output data size: 1024,3,48,48
I0411 04:10:06.969797 26209 net.cpp:150] Setting up data
I0411 04:10:06.969825 26209 net.cpp:157] Top shape: 1024 3 48 48 (7077888)
I0411 04:10:06.969831 26209 net.cpp:157] Top shape: 1024 (1024)
I0411 04:10:06.969835 26209 net.cpp:165] Memory required for data: 28315648
I0411 04:10:06.969841 26209 layer_factory.hpp:77] Creating layer label_data_1_split
I0411 04:10:06.969856 26209 net.cpp:100] Creating Layer label_data_1_split
I0411 04:10:06.969861 26209 net.cpp:434] label_data_1_split <- label
I0411 04:10:06.969882 26209 net.cpp:408] label_data_1_split -> label_data_1_split_0
I0411 04:10:06.969898 26209 net.cpp:408] label_data_1_split -> label_data_1_split_1
I0411 04:10:06.969907 26209 net.cpp:408] label_data_1_split -> label_data_1_split_2
I0411 04:10:06.970088 26209 net.cpp:150] Setting up label_data_1_split
I0411 04:10:06.970098 26209 net.cpp:157] Top shape: 1024 (1024)
I0411 04:10:06.970103 26209 net.cpp:157] Top shape: 1024 (1024)
I0411 04:10:06.970105 26209 net.cpp:157] Top shape: 1024 (1024)
I0411 04:10:06.970108 26209 net.cpp:165] Memory required for data: 28327936
I0411 04:10:06.970113 26209 layer_factory.hpp:77] Creating layer conv1
I0411 04:10:06.970126 26209 net.cpp:100] Creating Layer conv1
I0411 04:10:06.970131 26209 net.cpp:434] conv1 <- data
I0411 04:10:06.970139 26209 net.cpp:408] conv1 -> conv1
I0411 04:10:06.974285 26209 net.cpp:150] Setting up conv1
I0411 04:10:06.974306 26209 net.cpp:157] Top shape: 1024 100 42 42 (180633600)
I0411 04:10:06.974334 26209 net.cpp:165] Memory required for data: 750862336
I0411 04:10:06.974351 26209 layer_factory.hpp:77] Creating layer conv1_prescale
I0411 04:10:06.974362 26209 net.cpp:100] Creating Layer conv1_prescale
I0411 04:10:06.974366 26209 net.cpp:434] conv1_prescale <- conv1
I0411 04:10:06.974375 26209 net.cpp:395] conv1_prescale -> conv1 (in-place)
I0411 04:10:06.974503 26209 net.cpp:150] Setting up conv1_prescale
I0411 04:10:06.974512 26209 net.cpp:157] Top shape: 1024 100 42 42 (180633600)
I0411 04:10:06.974516 26209 net.cpp:165] Memory required for data: 1473396736
I0411 04:10:06.974524 26209 layer_factory.hpp:77] Creating layer conv1_sTanH
I0411 04:10:06.974532 26209 net.cpp:100] Creating Layer conv1_sTanH
I0411 04:10:06.974537 26209 net.cpp:434] conv1_sTanH <- conv1
I0411 04:10:06.974546 26209 net.cpp:395] conv1_sTanH -> conv1 (in-place)
I0411 04:10:06.974772 26209 net.cpp:150] Setting up conv1_sTanH
I0411 04:10:06.974786 26209 net.cpp:157] Top shape: 1024 100 42 42 (180633600)
I0411 04:10:06.974791 26209 net.cpp:165] Memory required for data: 2195931136
I0411 04:10:06.974794 26209 layer_factory.hpp:77] Creating layer conv1_postscale
I0411 04:10:06.974803 26209 net.cpp:100] Creating Layer conv1_postscale
I0411 04:10:06.974808 26209 net.cpp:434] conv1_postscale <- conv1
I0411 04:10:06.974814 26209 net.cpp:395] conv1_postscale -> conv1 (in-place)
I0411 04:10:06.974942 26209 net.cpp:150] Setting up conv1_postscale
I0411 04:10:06.974952 26209 net.cpp:157] Top shape: 1024 100 42 42 (180633600)
I0411 04:10:06.974956 26209 net.cpp:165] Memory required for data: 2918465536
I0411 04:10:06.974961 26209 layer_factory.hpp:77] Creating layer pool1
I0411 04:10:06.974970 26209 net.cpp:100] Creating Layer pool1
I0411 04:10:06.974977 26209 net.cpp:434] pool1 <- conv1
I0411 04:10:06.974982 26209 net.cpp:408] pool1 -> pool1
I0411 04:10:06.975035 26209 net.cpp:150] Setting up pool1
I0411 04:10:06.975044 26209 net.cpp:157] Top shape: 1024 100 21 21 (45158400)
I0411 04:10:06.975047 26209 net.cpp:165] Memory required for data: 3099099136
I0411 04:10:06.975050 26209 layer_factory.hpp:77] Creating layer conv2
I0411 04:10:06.975061 26209 net.cpp:100] Creating Layer conv2
I0411 04:10:06.975066 26209 net.cpp:434] conv2 <- pool1
I0411 04:10:06.975072 26209 net.cpp:408] conv2 -> conv2
I0411 04:10:06.979176 26209 net.cpp:150] Setting up conv2
I0411 04:10:06.979194 26209 net.cpp:157] Top shape: 1024 150 18 18 (49766400)
I0411 04:10:06.979197 26209 net.cpp:165] Memory required for data: 3298164736
I0411 04:10:06.979210 26209 layer_factory.hpp:77] Creating layer conv2_prescale
I0411 04:10:06.979230 26209 net.cpp:100] Creating Layer conv2_prescale
I0411 04:10:06.979238 26209 net.cpp:434] conv2_prescale <- conv2
I0411 04:10:06.979243 26209 net.cpp:395] conv2_prescale -> conv2 (in-place)
I0411 04:10:06.979368 26209 net.cpp:150] Setting up conv2_prescale
I0411 04:10:06.979379 26209 net.cpp:157] Top shape: 1024 150 18 18 (49766400)
I0411 04:10:06.979384 26209 net.cpp:165] Memory required for data: 3497230336
I0411 04:10:06.979389 26209 layer_factory.hpp:77] Creating layer conv2_sTanH
I0411 04:10:06.979396 26209 net.cpp:100] Creating Layer conv2_sTanH
I0411 04:10:06.979399 26209 net.cpp:434] conv2_sTanH <- conv2
I0411 04:10:06.979408 26209 net.cpp:395] conv2_sTanH -> conv2 (in-place)
I0411 04:10:06.980258 26209 net.cpp:150] Setting up conv2_sTanH
I0411 04:10:06.980276 26209 net.cpp:157] Top shape: 1024 150 18 18 (49766400)
I0411 04:10:06.980281 26209 net.cpp:165] Memory required for data: 3696295936
I0411 04:10:06.980285 26209 layer_factory.hpp:77] Creating layer conv2_postscale
I0411 04:10:06.980294 26209 net.cpp:100] Creating Layer conv2_postscale
I0411 04:10:06.980299 26209 net.cpp:434] conv2_postscale <- conv2
I0411 04:10:06.980306 26209 net.cpp:395] conv2_postscale -> conv2 (in-place)
I0411 04:10:06.980422 26209 net.cpp:150] Setting up conv2_postscale
I0411 04:10:06.980433 26209 net.cpp:157] Top shape: 1024 150 18 18 (49766400)
I0411 04:10:06.980437 26209 net.cpp:165] Memory required for data: 3895361536
I0411 04:10:06.980443 26209 layer_factory.hpp:77] Creating layer pool2
I0411 04:10:06.980468 26209 net.cpp:100] Creating Layer pool2
I0411 04:10:06.980474 26209 net.cpp:434] pool2 <- conv2
I0411 04:10:06.980479 26209 net.cpp:408] pool2 -> pool2
I0411 04:10:06.980535 26209 net.cpp:150] Setting up pool2
I0411 04:10:06.980545 26209 net.cpp:157] Top shape: 1024 150 9 9 (12441600)
I0411 04:10:06.980547 26209 net.cpp:165] Memory required for data: 3945127936
I0411 04:10:06.980551 26209 layer_factory.hpp:77] Creating layer conv3
I0411 04:10:06.980572 26209 net.cpp:100] Creating Layer conv3
I0411 04:10:06.980579 26209 net.cpp:434] conv3 <- pool2
I0411 04:10:06.980589 26209 net.cpp:408] conv3 -> conv3
I0411 04:10:06.986388 26209 net.cpp:150] Setting up conv3
I0411 04:10:06.986407 26209 net.cpp:157] Top shape: 1024 250 6 6 (9216000)
I0411 04:10:06.986410 26209 net.cpp:165] Memory required for data: 3981991936
I0411 04:10:06.986425 26209 layer_factory.hpp:77] Creating layer conv3_prescale
I0411 04:10:06.986436 26209 net.cpp:100] Creating Layer conv3_prescale
I0411 04:10:06.986441 26209 net.cpp:434] conv3_prescale <- conv3
I0411 04:10:06.986449 26209 net.cpp:395] conv3_prescale -> conv3 (in-place)
I0411 04:10:06.986557 26209 net.cpp:150] Setting up conv3_prescale
I0411 04:10:06.986568 26209 net.cpp:157] Top shape: 1024 250 6 6 (9216000)
I0411 04:10:06.986574 26209 net.cpp:165] Memory required for data: 4018855936
I0411 04:10:06.986579 26209 layer_factory.hpp:77] Creating layer conv3_sTanH
I0411 04:10:06.986585 26209 net.cpp:100] Creating Layer conv3_sTanH
I0411 04:10:06.986588 26209 net.cpp:434] conv3_sTanH <- conv3
I0411 04:10:06.986593 26209 net.cpp:395] conv3_sTanH -> conv3 (in-place)
I0411 04:10:06.987397 26209 net.cpp:150] Setting up conv3_sTanH
I0411 04:10:06.987418 26209 net.cpp:157] Top shape: 1024 250 6 6 (9216000)
I0411 04:10:06.987423 26209 net.cpp:165] Memory required for data: 4055719936
I0411 04:10:06.987427 26209 layer_factory.hpp:77] Creating layer conv3_postscale
I0411 04:10:06.987435 26209 net.cpp:100] Creating Layer conv3_postscale
I0411 04:10:06.987439 26209 net.cpp:434] conv3_postscale <- conv3
I0411 04:10:06.987448 26209 net.cpp:395] conv3_postscale -> conv3 (in-place)
I0411 04:10:06.987560 26209 net.cpp:150] Setting up conv3_postscale
I0411 04:10:06.987572 26209 net.cpp:157] Top shape: 1024 250 6 6 (9216000)
I0411 04:10:06.987576 26209 net.cpp:165] Memory required for data: 4092583936
I0411 04:10:06.987581 26209 layer_factory.hpp:77] Creating layer pool3
I0411 04:10:06.987592 26209 net.cpp:100] Creating Layer pool3
I0411 04:10:06.987597 26209 net.cpp:434] pool3 <- conv3
I0411 04:10:06.987602 26209 net.cpp:408] pool3 -> pool3
I0411 04:10:06.987648 26209 net.cpp:150] Setting up pool3
I0411 04:10:06.987656 26209 net.cpp:157] Top shape: 1024 250 3 3 (2304000)
I0411 04:10:06.987658 26209 net.cpp:165] Memory required for data: 4101799936
I0411 04:10:06.987663 26209 layer_factory.hpp:77] Creating layer fc4_300
I0411 04:10:06.987668 26209 net.cpp:100] Creating Layer fc4_300
I0411 04:10:06.987673 26209 net.cpp:434] fc4_300 <- pool3
I0411 04:10:06.987679 26209 net.cpp:408] fc4_300 -> fc4_300
I0411 04:10:06.993053 26209 net.cpp:150] Setting up fc4_300
I0411 04:10:06.993069 26209 net.cpp:157] Top shape: 1024 300 (307200)
I0411 04:10:06.993073 26209 net.cpp:165] Memory required for data: 4103028736
I0411 04:10:06.993080 26209 layer_factory.hpp:77] Creating layer fc4_prescale
I0411 04:10:06.993091 26209 net.cpp:100] Creating Layer fc4_prescale
I0411 04:10:06.993096 26209 net.cpp:434] fc4_prescale <- fc4_300
I0411 04:10:06.993101 26209 net.cpp:395] fc4_prescale -> fc4_300 (in-place)
I0411 04:10:06.993197 26209 net.cpp:150] Setting up fc4_prescale
I0411 04:10:06.993206 26209 net.cpp:157] Top shape: 1024 300 (307200)
I0411 04:10:06.993209 26209 net.cpp:165] Memory required for data: 4104257536
I0411 04:10:06.993214 26209 layer_factory.hpp:77] Creating layer fc4_sTanH
I0411 04:10:06.993219 26209 net.cpp:100] Creating Layer fc4_sTanH
I0411 04:10:06.993223 26209 net.cpp:434] fc4_sTanH <- fc4_300
I0411 04:10:06.993227 26209 net.cpp:395] fc4_sTanH -> fc4_300 (in-place)
I0411 04:10:06.993445 26209 net.cpp:150] Setting up fc4_sTanH
I0411 04:10:06.993461 26209 net.cpp:157] Top shape: 1024 300 (307200)
I0411 04:10:06.993466 26209 net.cpp:165] Memory required for data: 4105486336
I0411 04:10:06.993470 26209 layer_factory.hpp:77] Creating layer fc4_postscale
I0411 04:10:06.993476 26209 net.cpp:100] Creating Layer fc4_postscale
I0411 04:10:06.993481 26209 net.cpp:434] fc4_postscale <- fc4_300
I0411 04:10:06.993486 26209 net.cpp:395] fc4_postscale -> fc4_300 (in-place)
I0411 04:10:06.993592 26209 net.cpp:150] Setting up fc4_postscale
I0411 04:10:06.993602 26209 net.cpp:157] Top shape: 1024 300 (307200)
I0411 04:10:06.993604 26209 net.cpp:165] Memory required for data: 4106715136
I0411 04:10:06.993609 26209 layer_factory.hpp:77] Creating layer fc5_67
I0411 04:10:06.993618 26209 net.cpp:100] Creating Layer fc5_67
I0411 04:10:06.993623 26209 net.cpp:434] fc5_67 <- fc4_300
I0411 04:10:06.993628 26209 net.cpp:408] fc5_67 -> fc5_classes
I0411 04:10:06.993883 26209 net.cpp:150] Setting up fc5_67
I0411 04:10:06.993892 26209 net.cpp:157] Top shape: 1024 67 (68608)
I0411 04:10:06.993896 26209 net.cpp:165] Memory required for data: 4106989568
I0411 04:10:06.993906 26209 layer_factory.hpp:77] Creating layer fc5_classes_fc5_67_0_split
I0411 04:10:06.993913 26209 net.cpp:100] Creating Layer fc5_classes_fc5_67_0_split
I0411 04:10:06.993916 26209 net.cpp:434] fc5_classes_fc5_67_0_split <- fc5_classes
I0411 04:10:06.993921 26209 net.cpp:408] fc5_classes_fc5_67_0_split -> fc5_classes_fc5_67_0_split_0
I0411 04:10:06.993928 26209 net.cpp:408] fc5_classes_fc5_67_0_split -> fc5_classes_fc5_67_0_split_1
I0411 04:10:06.993934 26209 net.cpp:408] fc5_classes_fc5_67_0_split -> fc5_classes_fc5_67_0_split_2
I0411 04:10:06.993989 26209 net.cpp:150] Setting up fc5_classes_fc5_67_0_split
I0411 04:10:06.993996 26209 net.cpp:157] Top shape: 1024 67 (68608)
I0411 04:10:06.994000 26209 net.cpp:157] Top shape: 1024 67 (68608)
I0411 04:10:06.994004 26209 net.cpp:157] Top shape: 1024 67 (68608)
I0411 04:10:06.994005 26209 net.cpp:165] Memory required for data: 4107812864
I0411 04:10:06.994009 26209 layer_factory.hpp:77] Creating layer loss
I0411 04:10:06.994016 26209 net.cpp:100] Creating Layer loss
I0411 04:10:06.994019 26209 net.cpp:434] loss <- fc5_classes_fc5_67_0_split_0
I0411 04:10:06.994024 26209 net.cpp:434] loss <- label_data_1_split_0
I0411 04:10:06.994030 26209 net.cpp:408] loss -> loss
…
