…
I0414 12:56:11.113674 18231 solver.cpp:93] Creating training net from train_net file: ./Prototxt/experiment_11/rtsd-r3/AHE/trial_3/train.prototxt
I0414 12:56:11.114200 18231 net.cpp:58] Initializing net from parameters: 
state {
  phase: TRAIN
  level: 0
  stage: ""
}
layer {
  name: "data"
  type: "Data"
  top: "data"
  top: "label"
  include {
    phase: TRAIN
  }
  transform_param {
    scale: 0.0039215689
    mirror: false
    crop_size: 48
    mean_value: 133
    mean_value: 126
    mean_value: 125
  }
  data_param {
    source: "../local_data/lmdb/rtsd-r3/AHE/train/lmdb"
    batch_size: 1024
    backend: LMDB
  }
}
layer {
  name: "conv1"
  type: "Convolution"
  bottom: "data"
  top: "conv1"
  convolution_param {
    num_output: 100
    pad: 0
    kernel_size: 7
    group: 1
    stride: 1
    weight_filler {
      type: "xavier"
    }
  }
}
layer {
  name: "conv1_prescale"
  type: "Scale"
  bottom: "conv1"
  top: "conv1"
  param {
    lr_mult: 0
    decay_mult: 0
  }
  scale_param {
    filler {
      value: 0.6666
    }
    bias_term: false
  }
}
layer {
  name: "conv1_sTanH"
  type: "TanH"
  bottom: "conv1"
  top: "conv1"
}
layer {
  name: "conv1_postscale"
  type: "Scale"
  bottom: "conv1"
  top: "conv1"
  param {
    lr_mult: 0
    decay_mult: 0
  }
  scale_param {
    filler {
      value: 1.7159
    }
    bias_term: false
  }
}
layer {
  name: "pool1"
  type: "Pooling"
  bottom: "conv1"
  top: "pool1"
  pooling_param {
    pool: MAX
    kernel_size: 2
    stride: 2
  }
}
layer {
  name: "conv2"
  type: "Convolution"
  bottom: "pool1"
  top: "conv2"
  convolution_param {
    num_output: 150
    pad: 0
    kernel_size: 4
    group: 1
    stride: 1
    weight_filler {
      type: "xavier"
    }
  }
}
layer {
  name: "conv2_prescale"
  type: "Scale"
  bottom: "conv2"
  top: "conv2"
  param {
    lr_mult: 0
    decay_mult: 0
  }
  scale_param {
    filler {
      value: 0.6666
    }
    bias_term: false
  }
}
layer {
  name: "conv2_sTanH"
  type: "TanH"
  bottom: "conv2"
  top: "conv2"
}
layer {
  name: "conv2_postscale"
  type: "Scale"
  bottom: "conv2"
  top: "conv2"
  param {
    lr_mult: 0
    decay_mult: 0
  }
  scale_param {
    filler {
      value: 1.7159
    }
    bias_term: false
  }
}
layer {
  name: "pool2"
  type: "Pooling"
  bottom: "conv2"
  top: "pool2"
  pooling_param {
    pool: MAX
    kernel_size: 2
    stride: 2
  }
}
layer {
  name: "conv3"
  type: "Convolution"
  bottom: "pool2"
  top: "conv3"
  convolution_param {
    num_output: 250
    pad: 0
    kernel_size: 4
    group: 1
    stride: 1
    weight_filler {
      type: "xavier"
    }
  }
}
layer {
  name: "conv3_prescale"
  type: "Scale"
  bottom: "conv3"
  top: "conv3"
  param {
    lr_mult: 0
    decay_mult: 0
  }
  scale_param {
    filler {
      value: 0.6666
    }
    bias_term: false
  }
}
layer {
  name: "conv3_sTanH"
  type: "TanH"
  bottom: "conv3"
  top: "conv3"
}
layer {
  name: "conv3_postscale"
  type: "Scale"
  bottom: "conv3"
  top: "conv3"
  param {
    lr_mult: 0
    decay_mult: 0
  }
  scale_param {
    filler {
      value: 1.7159
    }
    bias_term: false
  }
}
layer {
  name: "pool3"
  type: "Pooling"
  bottom: "conv3"
  top: "pool3"
  pooling_param {
    pool: MAX
    kernel_size: 2
    stride: 2
  }
}
layer {
  name: "fc4_300"
  type: "InnerProduct"
  bottom: "pool3"
  top: "fc4_300"
  inner_product_param {
    num_output: 300
    weight_filler {
      type: "xavier"
    }
  }
}
layer {
  name: "fc4_prescale"
  type: "Scale"
  bottom: "fc4_300"
  top: "fc4_300"
  param {
    lr_mult: 0
    decay_mult: 0
  }
  scale_param {
    filler {
      value: 0.6666
    }
    bias_term: false
  }
}
layer {
  name: "fc4_sTanH"
  type: "TanH"
  bottom: "fc4_300"
  top: "fc4_300"
}
layer {
  name: "fc4_postscale"
  type: "Scale"
  bottom: "fc4_300"
  top: "fc4_300"
  param {
    lr_mult: 0
    decay_mult: 0
  }
  scale_param {
    filler {
      value: 1.7159
    }
    bias_term: false
  }
}
layer {
  name: "fc5_106"
  type: "InnerProduct"
  bottom: "fc4_300"
  top: "fc5_classes"
  inner_product_param {
    num_output: 106
    weight_filler {
      type: "xavier"
    }
  }
}
layer {
  name: "softmax"
  type: "Softmax"
  bottom: "fc5_classes"
  top: "softmax"
}
layer {
  name: "loss"
  type: "MultinomialLogisticLoss"
  bottom: "softmax"
  bottom: "label"
  top: "loss"
}
layer {
  name: "accuracy_1"
  type: "Accuracy"
  bottom: "fc5_classes"
  bottom: "label"
  top: "accuracy_1"
  accuracy_param {
    top_k: 1
  }
}
layer {
  name: "accuracy_5"
  type: "Accuracy"
  bottom: "fc5_classes"
  bottom: "label"
  top: "accuracy_5"
  accuracy_param {
    top_k: 5
  }
}
layer {
  name: "silence"
  type: "Silence"
  bottom: "accuracy_1"
  bottom: "accuracy_5"
}
I0414 12:56:11.114367 18231 layer_factory.hpp:77] Creating layer data
I0414 12:56:11.115484 18231 net.cpp:100] Creating Layer data
I0414 12:56:11.115502 18231 net.cpp:408] data -> data
I0414 12:56:11.115525 18231 net.cpp:408] data -> label
I0414 12:56:11.137955 18344 db_lmdb.cpp:35] Opened lmdb ../local_data/lmdb/rtsd-r3/AHE/train/lmdb
I0414 12:56:11.160146 18231 data_layer.cpp:41] output data size: 1024,3,48,48
I0414 12:56:11.235329 18231 net.cpp:150] Setting up data
I0414 12:56:11.235373 18231 net.cpp:157] Top shape: 1024 3 48 48 (7077888)
I0414 12:56:11.235383 18231 net.cpp:157] Top shape: 1024 (1024)
I0414 12:56:11.235389 18231 net.cpp:165] Memory required for data: 28315648
I0414 12:56:11.235409 18231 layer_factory.hpp:77] Creating layer label_data_1_split
I0414 12:56:11.235431 18231 net.cpp:100] Creating Layer label_data_1_split
I0414 12:56:11.235445 18231 net.cpp:434] label_data_1_split <- label
I0414 12:56:11.235467 18231 net.cpp:408] label_data_1_split -> label_data_1_split_0
I0414 12:56:11.235487 18231 net.cpp:408] label_data_1_split -> label_data_1_split_1
I0414 12:56:11.235502 18231 net.cpp:408] label_data_1_split -> label_data_1_split_2
I0414 12:56:11.235608 18231 net.cpp:150] Setting up label_data_1_split
I0414 12:56:11.235622 18231 net.cpp:157] Top shape: 1024 (1024)
I0414 12:56:11.235631 18231 net.cpp:157] Top shape: 1024 (1024)
I0414 12:56:11.235641 18231 net.cpp:157] Top shape: 1024 (1024)
I0414 12:56:11.235647 18231 net.cpp:165] Memory required for data: 28327936
I0414 12:56:11.235653 18231 layer_factory.hpp:77] Creating layer conv1
I0414 12:56:11.235680 18231 net.cpp:100] Creating Layer conv1
I0414 12:56:11.235689 18231 net.cpp:434] conv1 <- data
I0414 12:56:11.235702 18231 net.cpp:408] conv1 -> conv1
I0414 12:56:11.660825 18231 net.cpp:150] Setting up conv1
I0414 12:56:11.660866 18231 net.cpp:157] Top shape: 1024 100 42 42 (180633600)
I0414 12:56:11.660873 18231 net.cpp:165] Memory required for data: 750862336
I0414 12:56:11.660904 18231 layer_factory.hpp:77] Creating layer conv1_prescale
I0414 12:56:11.660928 18231 net.cpp:100] Creating Layer conv1_prescale
I0414 12:56:11.660940 18231 net.cpp:434] conv1_prescale <- conv1
I0414 12:56:11.660954 18231 net.cpp:395] conv1_prescale -> conv1 (in-place)
I0414 12:56:11.661145 18231 net.cpp:150] Setting up conv1_prescale
I0414 12:56:11.661165 18231 net.cpp:157] Top shape: 1024 100 42 42 (180633600)
I0414 12:56:11.661175 18231 net.cpp:165] Memory required for data: 1473396736
I0414 12:56:11.661193 18231 layer_factory.hpp:77] Creating layer conv1_sTanH
I0414 12:56:11.661211 18231 net.cpp:100] Creating Layer conv1_sTanH
I0414 12:56:11.661221 18231 net.cpp:434] conv1_sTanH <- conv1
I0414 12:56:11.661232 18231 net.cpp:395] conv1_sTanH -> conv1 (in-place)
I0414 12:56:11.661583 18231 net.cpp:150] Setting up conv1_sTanH
I0414 12:56:11.661604 18231 net.cpp:157] Top shape: 1024 100 42 42 (180633600)
I0414 12:56:11.661643 18231 net.cpp:165] Memory required for data: 2195931136
I0414 12:56:11.661654 18231 layer_factory.hpp:77] Creating layer conv1_postscale
I0414 12:56:11.661670 18231 net.cpp:100] Creating Layer conv1_postscale
I0414 12:56:11.661679 18231 net.cpp:434] conv1_postscale <- conv1
I0414 12:56:11.661692 18231 net.cpp:395] conv1_postscale -> conv1 (in-place)
I0414 12:56:11.661864 18231 net.cpp:150] Setting up conv1_postscale
I0414 12:56:11.661880 18231 net.cpp:157] Top shape: 1024 100 42 42 (180633600)
I0414 12:56:11.661888 18231 net.cpp:165] Memory required for data: 2918465536
I0414 12:56:11.661900 18231 layer_factory.hpp:77] Creating layer pool1
I0414 12:56:11.661916 18231 net.cpp:100] Creating Layer pool1
I0414 12:56:11.661926 18231 net.cpp:434] pool1 <- conv1
I0414 12:56:11.661938 18231 net.cpp:408] pool1 -> pool1
I0414 12:56:11.662019 18231 net.cpp:150] Setting up pool1
I0414 12:56:11.662034 18231 net.cpp:157] Top shape: 1024 100 21 21 (45158400)
I0414 12:56:11.662045 18231 net.cpp:165] Memory required for data: 3099099136
I0414 12:56:11.662053 18231 layer_factory.hpp:77] Creating layer conv2
I0414 12:56:11.662073 18231 net.cpp:100] Creating Layer conv2
I0414 12:56:11.662082 18231 net.cpp:434] conv2 <- pool1
I0414 12:56:11.662096 18231 net.cpp:408] conv2 -> conv2
I0414 12:56:11.691756 18231 net.cpp:150] Setting up conv2
I0414 12:56:11.691794 18231 net.cpp:157] Top shape: 1024 150 18 18 (49766400)
I0414 12:56:11.691803 18231 net.cpp:165] Memory required for data: 3298164736
I0414 12:56:11.691825 18231 layer_factory.hpp:77] Creating layer conv2_prescale
I0414 12:56:11.691849 18231 net.cpp:100] Creating Layer conv2_prescale
I0414 12:56:11.691860 18231 net.cpp:434] conv2_prescale <- conv2
I0414 12:56:11.691874 18231 net.cpp:395] conv2_prescale -> conv2 (in-place)
I0414 12:56:11.692073 18231 net.cpp:150] Setting up conv2_prescale
I0414 12:56:11.692096 18231 net.cpp:157] Top shape: 1024 150 18 18 (49766400)
I0414 12:56:11.692106 18231 net.cpp:165] Memory required for data: 3497230336
I0414 12:56:11.692119 18231 layer_factory.hpp:77] Creating layer conv2_sTanH
I0414 12:56:11.692134 18231 net.cpp:100] Creating Layer conv2_sTanH
I0414 12:56:11.692143 18231 net.cpp:434] conv2_sTanH <- conv2
I0414 12:56:11.692157 18231 net.cpp:395] conv2_sTanH -> conv2 (in-place)
I0414 12:56:11.701688 18231 net.cpp:150] Setting up conv2_sTanH
I0414 12:56:11.701707 18231 net.cpp:157] Top shape: 1024 150 18 18 (49766400)
I0414 12:56:11.701712 18231 net.cpp:165] Memory required for data: 3696295936
I0414 12:56:11.701716 18231 layer_factory.hpp:77] Creating layer conv2_postscale
I0414 12:56:11.701726 18231 net.cpp:100] Creating Layer conv2_postscale
I0414 12:56:11.701732 18231 net.cpp:434] conv2_postscale <- conv2
I0414 12:56:11.701740 18231 net.cpp:395] conv2_postscale -> conv2 (in-place)
I0414 12:56:11.701858 18231 net.cpp:150] Setting up conv2_postscale
I0414 12:56:11.701869 18231 net.cpp:157] Top shape: 1024 150 18 18 (49766400)
I0414 12:56:11.701874 18231 net.cpp:165] Memory required for data: 3895361536
I0414 12:56:11.701881 18231 layer_factory.hpp:77] Creating layer pool2
I0414 12:56:11.701889 18231 net.cpp:100] Creating Layer pool2
I0414 12:56:11.701895 18231 net.cpp:434] pool2 <- conv2
I0414 12:56:11.701901 18231 net.cpp:408] pool2 -> pool2
I0414 12:56:11.701952 18231 net.cpp:150] Setting up pool2
I0414 12:56:11.701962 18231 net.cpp:157] Top shape: 1024 150 9 9 (12441600)
I0414 12:56:11.701967 18231 net.cpp:165] Memory required for data: 3945127936
I0414 12:56:11.701972 18231 layer_factory.hpp:77] Creating layer conv3
I0414 12:56:11.701983 18231 net.cpp:100] Creating Layer conv3
I0414 12:56:11.701988 18231 net.cpp:434] conv3 <- pool2
I0414 12:56:11.701994 18231 net.cpp:408] conv3 -> conv3
I0414 12:56:11.715960 18231 net.cpp:150] Setting up conv3
I0414 12:56:11.715982 18231 net.cpp:157] Top shape: 1024 250 6 6 (9216000)
I0414 12:56:11.715987 18231 net.cpp:165] Memory required for data: 3981991936
I0414 12:56:11.716001 18231 layer_factory.hpp:77] Creating layer conv3_prescale
I0414 12:56:11.716034 18231 net.cpp:100] Creating Layer conv3_prescale
I0414 12:56:11.716040 18231 net.cpp:434] conv3_prescale <- conv3
I0414 12:56:11.716048 18231 net.cpp:395] conv3_prescale -> conv3 (in-place)
I0414 12:56:11.716202 18231 net.cpp:150] Setting up conv3_prescale
I0414 12:56:11.716217 18231 net.cpp:157] Top shape: 1024 250 6 6 (9216000)
I0414 12:56:11.716222 18231 net.cpp:165] Memory required for data: 4018855936
I0414 12:56:11.716228 18231 layer_factory.hpp:77] Creating layer conv3_sTanH
I0414 12:56:11.716236 18231 net.cpp:100] Creating Layer conv3_sTanH
I0414 12:56:11.716243 18231 net.cpp:434] conv3_sTanH <- conv3
I0414 12:56:11.716249 18231 net.cpp:395] conv3_sTanH -> conv3 (in-place)
I0414 12:56:11.719070 18231 net.cpp:150] Setting up conv3_sTanH
I0414 12:56:11.719094 18231 net.cpp:157] Top shape: 1024 250 6 6 (9216000)
I0414 12:56:11.719099 18231 net.cpp:165] Memory required for data: 4055719936
I0414 12:56:11.719104 18231 layer_factory.hpp:77] Creating layer conv3_postscale
I0414 12:56:11.719115 18231 net.cpp:100] Creating Layer conv3_postscale
I0414 12:56:11.719121 18231 net.cpp:434] conv3_postscale <- conv3
I0414 12:56:11.719128 18231 net.cpp:395] conv3_postscale -> conv3 (in-place)
I0414 12:56:11.719249 18231 net.cpp:150] Setting up conv3_postscale
I0414 12:56:11.719260 18231 net.cpp:157] Top shape: 1024 250 6 6 (9216000)
I0414 12:56:11.719266 18231 net.cpp:165] Memory required for data: 4092583936
I0414 12:56:11.719272 18231 layer_factory.hpp:77] Creating layer pool3
I0414 12:56:11.719285 18231 net.cpp:100] Creating Layer pool3
I0414 12:56:11.719291 18231 net.cpp:434] pool3 <- conv3
I0414 12:56:11.719298 18231 net.cpp:408] pool3 -> pool3
I0414 12:56:11.719347 18231 net.cpp:150] Setting up pool3
I0414 12:56:11.719357 18231 net.cpp:157] Top shape: 1024 250 3 3 (2304000)
I0414 12:56:11.719362 18231 net.cpp:165] Memory required for data: 4101799936
I0414 12:56:11.719365 18231 layer_factory.hpp:77] Creating layer fc4_300
I0414 12:56:11.719373 18231 net.cpp:100] Creating Layer fc4_300
I0414 12:56:11.719378 18231 net.cpp:434] fc4_300 <- pool3
I0414 12:56:11.719384 18231 net.cpp:408] fc4_300 -> fc4_300
I0414 12:56:11.726107 18231 net.cpp:150] Setting up fc4_300
I0414 12:56:11.726131 18231 net.cpp:157] Top shape: 1024 300 (307200)
I0414 12:56:11.726135 18231 net.cpp:165] Memory required for data: 4103028736
I0414 12:56:11.726145 18231 layer_factory.hpp:77] Creating layer fc4_prescale
I0414 12:56:11.726157 18231 net.cpp:100] Creating Layer fc4_prescale
I0414 12:56:11.726164 18231 net.cpp:434] fc4_prescale <- fc4_300
I0414 12:56:11.726171 18231 net.cpp:395] fc4_prescale -> fc4_300 (in-place)
I0414 12:56:11.726279 18231 net.cpp:150] Setting up fc4_prescale
I0414 12:56:11.726289 18231 net.cpp:157] Top shape: 1024 300 (307200)
I0414 12:56:11.726295 18231 net.cpp:165] Memory required for data: 4104257536
I0414 12:56:11.726300 18231 layer_factory.hpp:77] Creating layer fc4_sTanH
I0414 12:56:11.726310 18231 net.cpp:100] Creating Layer fc4_sTanH
I0414 12:56:11.726315 18231 net.cpp:434] fc4_sTanH <- fc4_300
I0414 12:56:11.726320 18231 net.cpp:395] fc4_sTanH -> fc4_300 (in-place)
I0414 12:56:11.726562 18231 net.cpp:150] Setting up fc4_sTanH
I0414 12:56:11.726577 18231 net.cpp:157] Top shape: 1024 300 (307200)
I0414 12:56:11.726583 18231 net.cpp:165] Memory required for data: 4105486336
I0414 12:56:11.726588 18231 layer_factory.hpp:77] Creating layer fc4_postscale
I0414 12:56:11.726595 18231 net.cpp:100] Creating Layer fc4_postscale
I0414 12:56:11.726601 18231 net.cpp:434] fc4_postscale <- fc4_300
I0414 12:56:11.726608 18231 net.cpp:395] fc4_postscale -> fc4_300 (in-place)
I0414 12:56:11.726721 18231 net.cpp:150] Setting up fc4_postscale
I0414 12:56:11.726730 18231 net.cpp:157] Top shape: 1024 300 (307200)
I0414 12:56:11.726735 18231 net.cpp:165] Memory required for data: 4106715136
I0414 12:56:11.726742 18231 layer_factory.hpp:77] Creating layer fc5_106
I0414 12:56:11.726752 18231 net.cpp:100] Creating Layer fc5_106
I0414 12:56:11.726758 18231 net.cpp:434] fc5_106 <- fc4_300
I0414 12:56:11.726763 18231 net.cpp:408] fc5_106 -> fc5_classes
I0414 12:56:11.740921 18231 net.cpp:150] Setting up fc5_106
I0414 12:56:11.740952 18231 net.cpp:157] Top shape: 1024 106 (108544)
I0414 12:56:11.740957 18231 net.cpp:165] Memory required for data: 4107149312
I0414 12:56:11.740973 18231 layer_factory.hpp:77] Creating layer fc5_classes_fc5_106_0_split
I0414 12:56:11.740985 18231 net.cpp:100] Creating Layer fc5_classes_fc5_106_0_split
I0414 12:56:11.740991 18231 net.cpp:434] fc5_classes_fc5_106_0_split <- fc5_classes
I0414 12:56:11.740999 18231 net.cpp:408] fc5_classes_fc5_106_0_split -> fc5_classes_fc5_106_0_split_0
I0414 12:56:11.741013 18231 net.cpp:408] fc5_classes_fc5_106_0_split -> fc5_classes_fc5_106_0_split_1
I0414 12:56:11.741022 18231 net.cpp:408] fc5_classes_fc5_106_0_split -> fc5_classes_fc5_106_0_split_2
I0414 12:56:11.741086 18231 net.cpp:150] Setting up fc5_classes_fc5_106_0_split
I0414 12:56:11.741096 18231 net.cpp:157] Top shape: 1024 106 (108544)
I0414 12:56:11.741102 18231 net.cpp:157] Top shape: 1024 106 (108544)
I0414 12:56:11.741106 18231 net.cpp:157] Top shape: 1024 106 (108544)
I0414 12:56:11.741111 18231 net.cpp:165] Memory required for data: 4108451840
I0414 12:56:11.741116 18231 layer_factory.hpp:77] Creating layer softmax
I0414 12:56:11.741123 18231 net.cpp:100] Creating Layer softmax
I0414 12:56:11.741129 18231 net.cpp:434] softmax <- fc5_classes_fc5_106_0_split_0
I0414 12:56:11.741135 18231 net.cpp:408] softmax -> softmax
I0414 12:56:11.741478 18231 net.cpp:150] Setting up softmax
I0414 12:56:11.741494 18231 net.cpp:157] Top shape: 1024 106 (108544)
I0414 12:56:11.741500 18231 net.cpp:165] Memory required for data: 4108886016
I0414 12:56:11.741504 18231 layer_factory.hpp:77] Creating layer loss
I0414 12:56:11.741513 18231 net.cpp:100] Creating Layer loss
I0414 12:56:11.741518 18231 net.cpp:434] loss <- softmax
I0414 12:56:11.741524 18231 net.cpp:434] loss <- label_data_1_split_0
I0414 12:56:11.741533 18231 net.cpp:408] loss -> loss
…
