…
I0409 10:40:38.075531 30643 net.cpp:322] The NetState phase (0) differed from the phase (1) specified by a rule in layer accuracy_5
I0409 10:40:38.075626 30643 net.cpp:58] Initializing net from parameters: 
state {
  phase: TRAIN
  level: 0
  stage: ""
}
layer {
  name: "data"
  type: "Data"
  top: "data"
  top: "label"
  include {
    phase: TRAIN
  }
  transform_param {
    mirror: false
    crop_size: 48
    mean_value: 115
    mean_value: 108
    mean_value: 122
  }
  data_param {
    source: "../local_data/lmdb/rtsd-r1/imajust/train/lmdb"
    batch_size: 1024
    backend: LMDB
  }
}
layer {
  name: "conv1"
  type: "Convolution"
  bottom: "data"
  top: "conv1"
  convolution_param {
    num_output: 100
    pad: 0
    kernel_size: 7
    group: 1
    stride: 1
    weight_filler {
      type: "xavier"
    }
  }
}
layer {
  name: "conv1_relu"
  type: "ReLU"
  bottom: "conv1"
  top: "conv1"
}
layer {
  name: "pool1"
  type: "Pooling"
  bottom: "conv1"
  top: "pool1"
  pooling_param {
    pool: MAX
    kernel_size: 2
    stride: 2
  }
}
layer {
  name: "conv2"
  type: "Convolution"
  bottom: "pool1"
  top: "conv2"
  convolution_param {
    num_output: 150
    pad: 0
    kernel_size: 4
    group: 1
    stride: 1
    weight_filler {
      type: "xavier"
    }
  }
}
layer {
  name: "conv2_relu"
  type: "ReLU"
  bottom: "conv2"
  top: "conv2"
}
layer {
  name: "pool2"
  type: "Pooling"
  bottom: "conv2"
  top: "pool2"
  pooling_param {
    pool: MAX
    kernel_size: 2
    stride: 2
  }
}
layer {
  name: "conv3"
  type: "Convolution"
  bottom: "pool2"
  top: "conv3"
  convolution_param {
    num_output: 250
    pad: 0
    kernel_size: 4
    group: 1
    stride: 1
    weight_filler {
      type: "xavier"
    }
  }
}
layer {
  name: "conv3_relu"
  type: "ReLU"
  bottom: "conv3"
  top: "conv3"
}
layer {
  name: "pool3"
  type: "Pooling"
  bottom: "conv3"
  top: "pool3"
  pooling_param {
    pool: MAX
    kernel_size: 2
    stride: 2
  }
}
layer {
  name: "fc4_300"
  type: "InnerProduct"
  bottom: "pool3"
  top: "fc4_300"
  inner_product_param {
    num_output: 300
    weight_filler {
      type: "xavier"
    }
  }
}
layer {
  name: "fc4_relu"
  type: "ReLU"
  bottom: "fc4_300"
  top: "fc4_300"
}
layer {
  name: "drop4"
  type: "Dropout"
  bottom: "fc4_300"
  top: "fc4_300"
  dropout_param {
    dropout_ratio: 0.4
  }
}
layer {
  name: "fc5_67"
  type: "InnerProduct"
  bottom: "fc4_300"
  top: "fc5_classes"
  inner_product_param {
    num_output: 67
    weight_filler {
      type: "xavier"
    }
  }
}
layer {
  name: "loss"
  type: "SoftmaxWithLoss"
  bottom: "fc5_classes"
  bottom: "label"
  top: "loss"
}
I0409 10:40:38.075705 30643 layer_factory.hpp:77] Creating layer data
I0409 10:40:38.076773 30643 net.cpp:100] Creating Layer data
I0409 10:40:38.076800 30643 net.cpp:408] data -> data
I0409 10:40:38.076823 30643 net.cpp:408] data -> label
I0409 10:40:38.078567 30712 db_lmdb.cpp:35] Opened lmdb ../local_data/lmdb/rtsd-r1/imajust/train/lmdb
I0409 10:40:38.095525 30643 data_layer.cpp:41] output data size: 1024,3,48,48
I0409 10:40:38.139312 30643 net.cpp:150] Setting up data
I0409 10:40:38.139358 30643 net.cpp:157] Top shape: 1024 3 48 48 (7077888)
I0409 10:40:38.139391 30643 net.cpp:157] Top shape: 1024 (1024)
I0409 10:40:38.139395 30643 net.cpp:165] Memory required for data: 28315648
I0409 10:40:38.139406 30643 layer_factory.hpp:77] Creating layer conv1
I0409 10:40:38.139430 30643 net.cpp:100] Creating Layer conv1
I0409 10:40:38.139436 30643 net.cpp:434] conv1 <- data
I0409 10:40:38.139451 30643 net.cpp:408] conv1 -> conv1
I0409 10:40:38.499382 30643 net.cpp:150] Setting up conv1
I0409 10:40:38.499428 30643 net.cpp:157] Top shape: 1024 100 42 42 (180633600)
I0409 10:40:38.499433 30643 net.cpp:165] Memory required for data: 750850048
I0409 10:40:38.499456 30643 layer_factory.hpp:77] Creating layer conv1_relu
I0409 10:40:38.499470 30643 net.cpp:100] Creating Layer conv1_relu
I0409 10:40:38.499476 30643 net.cpp:434] conv1_relu <- conv1
I0409 10:40:38.499483 30643 net.cpp:395] conv1_relu -> conv1 (in-place)
I0409 10:40:38.499685 30643 net.cpp:150] Setting up conv1_relu
I0409 10:40:38.499696 30643 net.cpp:157] Top shape: 1024 100 42 42 (180633600)
I0409 10:40:38.499701 30643 net.cpp:165] Memory required for data: 1473384448
I0409 10:40:38.499704 30643 layer_factory.hpp:77] Creating layer pool1
I0409 10:40:38.499711 30643 net.cpp:100] Creating Layer pool1
I0409 10:40:38.499716 30643 net.cpp:434] pool1 <- conv1
I0409 10:40:38.499722 30643 net.cpp:408] pool1 -> pool1
I0409 10:40:38.499778 30643 net.cpp:150] Setting up pool1
I0409 10:40:38.499786 30643 net.cpp:157] Top shape: 1024 100 21 21 (45158400)
I0409 10:40:38.499789 30643 net.cpp:165] Memory required for data: 1654018048
I0409 10:40:38.499792 30643 layer_factory.hpp:77] Creating layer conv2
I0409 10:40:38.499804 30643 net.cpp:100] Creating Layer conv2
I0409 10:40:38.499809 30643 net.cpp:434] conv2 <- pool1
I0409 10:40:38.499814 30643 net.cpp:408] conv2 -> conv2
I0409 10:40:38.504148 30643 net.cpp:150] Setting up conv2
I0409 10:40:38.504174 30643 net.cpp:157] Top shape: 1024 150 18 18 (49766400)
I0409 10:40:38.504179 30643 net.cpp:165] Memory required for data: 1853083648
I0409 10:40:38.504190 30643 layer_factory.hpp:77] Creating layer conv2_relu
I0409 10:40:38.504199 30643 net.cpp:100] Creating Layer conv2_relu
I0409 10:40:38.504202 30643 net.cpp:434] conv2_relu <- conv2
I0409 10:40:38.504220 30643 net.cpp:395] conv2_relu -> conv2 (in-place)
I0409 10:40:38.504987 30643 net.cpp:150] Setting up conv2_relu
I0409 10:40:38.505003 30643 net.cpp:157] Top shape: 1024 150 18 18 (49766400)
I0409 10:40:38.505007 30643 net.cpp:165] Memory required for data: 2052149248
I0409 10:40:38.505010 30643 layer_factory.hpp:77] Creating layer pool2
I0409 10:40:38.505017 30643 net.cpp:100] Creating Layer pool2
I0409 10:40:38.505020 30643 net.cpp:434] pool2 <- conv2
I0409 10:40:38.505026 30643 net.cpp:408] pool2 -> pool2
I0409 10:40:38.505086 30643 net.cpp:150] Setting up pool2
I0409 10:40:38.505095 30643 net.cpp:157] Top shape: 1024 150 9 9 (12441600)
I0409 10:40:38.505098 30643 net.cpp:165] Memory required for data: 2101915648
I0409 10:40:38.505101 30643 layer_factory.hpp:77] Creating layer conv3
I0409 10:40:38.505111 30643 net.cpp:100] Creating Layer conv3
I0409 10:40:38.505115 30643 net.cpp:434] conv3 <- pool2
I0409 10:40:38.505120 30643 net.cpp:408] conv3 -> conv3
I0409 10:40:38.510677 30643 net.cpp:150] Setting up conv3
I0409 10:40:38.510707 30643 net.cpp:157] Top shape: 1024 250 6 6 (9216000)
I0409 10:40:38.510711 30643 net.cpp:165] Memory required for data: 2138779648
I0409 10:40:38.510737 30643 layer_factory.hpp:77] Creating layer conv3_relu
I0409 10:40:38.510751 30643 net.cpp:100] Creating Layer conv3_relu
I0409 10:40:38.510756 30643 net.cpp:434] conv3_relu <- conv3
I0409 10:40:38.510761 30643 net.cpp:395] conv3_relu -> conv3 (in-place)
I0409 10:40:38.511595 30643 net.cpp:150] Setting up conv3_relu
I0409 10:40:38.511611 30643 net.cpp:157] Top shape: 1024 250 6 6 (9216000)
I0409 10:40:38.511615 30643 net.cpp:165] Memory required for data: 2175643648
I0409 10:40:38.511618 30643 layer_factory.hpp:77] Creating layer pool3
I0409 10:40:38.511626 30643 net.cpp:100] Creating Layer pool3
I0409 10:40:38.511628 30643 net.cpp:434] pool3 <- conv3
I0409 10:40:38.511656 30643 net.cpp:408] pool3 -> pool3
I0409 10:40:38.511723 30643 net.cpp:150] Setting up pool3
I0409 10:40:38.511732 30643 net.cpp:157] Top shape: 1024 250 3 3 (2304000)
I0409 10:40:38.511735 30643 net.cpp:165] Memory required for data: 2184859648
I0409 10:40:38.511739 30643 layer_factory.hpp:77] Creating layer fc4_300
I0409 10:40:38.511745 30643 net.cpp:100] Creating Layer fc4_300
I0409 10:40:38.511749 30643 net.cpp:434] fc4_300 <- pool3
I0409 10:40:38.511754 30643 net.cpp:408] fc4_300 -> fc4_300
I0409 10:40:38.517115 30643 net.cpp:150] Setting up fc4_300
I0409 10:40:38.517145 30643 net.cpp:157] Top shape: 1024 300 (307200)
I0409 10:40:38.517148 30643 net.cpp:165] Memory required for data: 2186088448
I0409 10:40:38.517171 30643 layer_factory.hpp:77] Creating layer fc4_relu
I0409 10:40:38.517181 30643 net.cpp:100] Creating Layer fc4_relu
I0409 10:40:38.517186 30643 net.cpp:434] fc4_relu <- fc4_300
I0409 10:40:38.517194 30643 net.cpp:395] fc4_relu -> fc4_300 (in-place)
I0409 10:40:38.517421 30643 net.cpp:150] Setting up fc4_relu
I0409 10:40:38.517432 30643 net.cpp:157] Top shape: 1024 300 (307200)
I0409 10:40:38.517436 30643 net.cpp:165] Memory required for data: 2187317248
I0409 10:40:38.517441 30643 layer_factory.hpp:77] Creating layer drop4
I0409 10:40:38.517447 30643 net.cpp:100] Creating Layer drop4
I0409 10:40:38.517452 30643 net.cpp:434] drop4 <- fc4_300
I0409 10:40:38.517457 30643 net.cpp:395] drop4 -> fc4_300 (in-place)
I0409 10:40:38.517490 30643 net.cpp:150] Setting up drop4
I0409 10:40:38.517498 30643 net.cpp:157] Top shape: 1024 300 (307200)
I0409 10:40:38.517500 30643 net.cpp:165] Memory required for data: 2188546048
I0409 10:40:38.517503 30643 layer_factory.hpp:77] Creating layer fc5_67
I0409 10:40:38.517510 30643 net.cpp:100] Creating Layer fc5_67
I0409 10:40:38.517514 30643 net.cpp:434] fc5_67 <- fc4_300
I0409 10:40:38.517519 30643 net.cpp:408] fc5_67 -> fc5_classes
I0409 10:40:38.518867 30643 net.cpp:150] Setting up fc5_67
I0409 10:40:38.518882 30643 net.cpp:157] Top shape: 1024 67 (68608)
I0409 10:40:38.518885 30643 net.cpp:165] Memory required for data: 2188820480
I0409 10:40:38.518909 30643 layer_factory.hpp:77] Creating layer loss
I0409 10:40:38.518918 30643 net.cpp:100] Creating Layer loss
I0409 10:40:38.518923 30643 net.cpp:434] loss <- fc5_classes
I0409 10:40:38.518928 30643 net.cpp:434] loss <- label
I0409 10:40:38.518934 30643 net.cpp:408] loss -> loss
I0409 10:40:38.518949 30643 layer_factory.hpp:77] Creating layer loss
…
I0409 10:40:38.519632 30643 solver.cpp:193] Creating test net (#0) specified by test_net file: ./Prototxt/experiment_6/rtsd-r1/imajust/trial_5/test.prototxt
I0409 10:40:38.519779 30643 net.cpp:58] Initializing net from parameters: 
state {
  phase: TEST
}
layer {
  name: "data"
  type: "Data"
  top: "data"
  top: "label"
  include {
    phase: TEST
  }
  transform_param {
    mirror: false
    crop_size: 48
    mean_value: 109
    mean_value: 106
    mean_value: 126
  }
  data_param {
    source: "../local_data/lmdb/rtsd-r1/imajust/test/lmdb"
    batch_size: 1024
    backend: LMDB
  }
}
layer {
  name: "conv1"
  type: "Convolution"
  bottom: "data"
  top: "conv1"
  convolution_param {
    num_output: 100
    pad: 0
    kernel_size: 7
    group: 1
    stride: 1
    weight_filler {
      type: "xavier"
    }
  }
}
layer {
  name: "conv1_relu"
  type: "ReLU"
  bottom: "conv1"
  top: "conv1"
}
layer {
  name: "pool1"
  type: "Pooling"
  bottom: "conv1"
  top: "pool1"
  pooling_param {
    pool: MAX
    kernel_size: 2
    stride: 2
  }
}
layer {
  name: "conv2"
  type: "Convolution"
  bottom: "pool1"
  top: "conv2"
  convolution_param {
    num_output: 150
    pad: 0
    kernel_size: 4
    group: 1
    stride: 1
    weight_filler {
      type: "xavier"
    }
  }
}
layer {
  name: "conv2_relu"
  type: "ReLU"
  bottom: "conv2"
  top: "conv2"
}
layer {
  name: "pool2"
  type: "Pooling"
  bottom: "conv2"
  top: "pool2"
  pooling_param {
    pool: MAX
    kernel_size: 2
    stride: 2
  }
}
layer {
  name: "conv3"
  type: "Convolution"
  bottom: "pool2"
  top: "conv3"
  convolution_param {
    num_output: 250
    pad: 0
    kernel_size: 4
    group: 1
    stride: 1
    weight_filler {
      type: "xavier"
    }
  }
}
layer {
  name: "conv3_relu"
  type: "ReLU"
  bottom: "conv3"
  top: "conv3"
}
layer {
  name: "pool3"
  type: "Pooling"
  bottom: "conv3"
  top: "pool3"
  pooling_param {
    pool: MAX
    kernel_size: 2
    stride: 2
  }
}
layer {
  name: "fc4_300"
  type: "InnerProduct"
  bottom: "pool3"
  top: "fc4_300"
  inner_product_param {
    num_output: 300
    weight_filler {
      type: "xavier"
    }
  }
}
layer {
  name: "fc4_relu"
  type: "ReLU"
  bottom: "fc4_300"
  top: "fc4_300"
}
layer {
  name: "drop4"
  type: "Dropout"
  bottom: "fc4_300"
  top: "fc4_300"
  dropout_param {
    dropout_ratio: 0.4
  }
}
layer {
  name: "fc5_67"
  type: "InnerProduct"
  bottom: "fc4_300"
  top: "fc5_classes"
  inner_product_param {
    num_output: 67
    weight_filler {
      type: "xavier"
    }
  }
}
layer {
  name: "loss"
  type: "SoftmaxWithLoss"
  bottom: "fc5_classes"
  bottom: "label"
  top: "loss"
}
layer {
  name: "accuracy_1"
  type: "Accuracy"
  bottom: "fc5_classes"
  bottom: "label"
  top: "accuracy_1"
  include {
    phase: TEST
  }
  accuracy_param {
    top_k: 1
  }
}
layer {
  name: "accuracy_5"
  type: "Accuracy"
  bottom: "fc5_classes"
  bottom: "label"
  top: "accuracy_5"
  include {
    phase: TEST
  }
  accuracy_param {
    top_k: 5
  }
}
I0409 10:40:38.519865 30643 layer_factory.hpp:77] Creating layer data
I0409 10:40:38.520512 30643 net.cpp:100] Creating Layer data
I0409 10:40:38.520537 30643 net.cpp:408] data -> data
I0409 10:40:38.520550 30643 net.cpp:408] data -> label
I0409 10:40:38.522253 30723 db_lmdb.cpp:35] Opened lmdb ../local_data/lmdb/rtsd-r1/imajust/test/lmdb
I0409 10:40:38.522464 30643 data_layer.cpp:41] output data size: 1024,3,48,48
I0409 10:40:38.587278 30643 net.cpp:150] Setting up data
I0409 10:40:38.587308 30643 net.cpp:157] Top shape: 1024 3 48 48 (7077888)
I0409 10:40:38.587314 30643 net.cpp:157] Top shape: 1024 (1024)
I0409 10:40:38.587316 30643 net.cpp:165] Memory required for data: 28315648
I0409 10:40:38.587322 30643 layer_factory.hpp:77] Creating layer label_data_1_split
I0409 10:40:38.587342 30643 net.cpp:100] Creating Layer label_data_1_split
I0409 10:40:38.587347 30643 net.cpp:434] label_data_1_split <- label
I0409 10:40:38.587353 30643 net.cpp:408] label_data_1_split -> label_data_1_split_0
I0409 10:40:38.587364 30643 net.cpp:408] label_data_1_split -> label_data_1_split_1
I0409 10:40:38.587370 30643 net.cpp:408] label_data_1_split -> label_data_1_split_2
I0409 10:40:38.587546 30643 net.cpp:150] Setting up label_data_1_split
I0409 10:40:38.587558 30643 net.cpp:157] Top shape: 1024 (1024)
I0409 10:40:38.587561 30643 net.cpp:157] Top shape: 1024 (1024)
I0409 10:40:38.587565 30643 net.cpp:157] Top shape: 1024 (1024)
I0409 10:40:38.587568 30643 net.cpp:165] Memory required for data: 28327936
I0409 10:40:38.587570 30643 layer_factory.hpp:77] Creating layer conv1
I0409 10:40:38.587586 30643 net.cpp:100] Creating Layer conv1
I0409 10:40:38.587592 30643 net.cpp:434] conv1 <- data
I0409 10:40:38.587599 30643 net.cpp:408] conv1 -> conv1
I0409 10:40:38.589764 30643 net.cpp:150] Setting up conv1
I0409 10:40:38.589782 30643 net.cpp:157] Top shape: 1024 100 42 42 (180633600)
I0409 10:40:38.589787 30643 net.cpp:165] Memory required for data: 750862336
I0409 10:40:38.589798 30643 layer_factory.hpp:77] Creating layer conv1_relu
I0409 10:40:38.589810 30643 net.cpp:100] Creating Layer conv1_relu
I0409 10:40:38.589814 30643 net.cpp:434] conv1_relu <- conv1
I0409 10:40:38.589818 30643 net.cpp:395] conv1_relu -> conv1 (in-place)
I0409 10:40:38.590128 30643 net.cpp:150] Setting up conv1_relu
I0409 10:40:38.590142 30643 net.cpp:157] Top shape: 1024 100 42 42 (180633600)
I0409 10:40:38.590144 30643 net.cpp:165] Memory required for data: 1473396736
I0409 10:40:38.590148 30643 layer_factory.hpp:77] Creating layer pool1
I0409 10:40:38.590158 30643 net.cpp:100] Creating Layer pool1
I0409 10:40:38.590162 30643 net.cpp:434] pool1 <- conv1
I0409 10:40:38.590167 30643 net.cpp:408] pool1 -> pool1
I0409 10:40:38.592461 30643 net.cpp:150] Setting up pool1
I0409 10:40:38.592480 30643 net.cpp:157] Top shape: 1024 100 21 21 (45158400)
I0409 10:40:38.592483 30643 net.cpp:165] Memory required for data: 1654030336
I0409 10:40:38.592488 30643 layer_factory.hpp:77] Creating layer conv2
I0409 10:40:38.592502 30643 net.cpp:100] Creating Layer conv2
I0409 10:40:38.592507 30643 net.cpp:434] conv2 <- pool1
I0409 10:40:38.592517 30643 net.cpp:408] conv2 -> conv2
I0409 10:40:38.597259 30643 net.cpp:150] Setting up conv2
I0409 10:40:38.597280 30643 net.cpp:157] Top shape: 1024 150 18 18 (49766400)
I0409 10:40:38.597283 30643 net.cpp:165] Memory required for data: 1853095936
I0409 10:40:38.597296 30643 layer_factory.hpp:77] Creating layer conv2_relu
I0409 10:40:38.597303 30643 net.cpp:100] Creating Layer conv2_relu
I0409 10:40:38.597307 30643 net.cpp:434] conv2_relu <- conv2
I0409 10:40:38.597313 30643 net.cpp:395] conv2_relu -> conv2 (in-place)
I0409 10:40:38.598902 30643 net.cpp:150] Setting up conv2_relu
I0409 10:40:38.598918 30643 net.cpp:157] Top shape: 1024 150 18 18 (49766400)
I0409 10:40:38.598922 30643 net.cpp:165] Memory required for data: 2052161536
I0409 10:40:38.598925 30643 layer_factory.hpp:77] Creating layer pool2
I0409 10:40:38.598933 30643 net.cpp:100] Creating Layer pool2
I0409 10:40:38.598937 30643 net.cpp:434] pool2 <- conv2
I0409 10:40:38.598944 30643 net.cpp:408] pool2 -> pool2
I0409 10:40:38.599004 30643 net.cpp:150] Setting up pool2
I0409 10:40:38.599014 30643 net.cpp:157] Top shape: 1024 150 9 9 (12441600)
I0409 10:40:38.599017 30643 net.cpp:165] Memory required for data: 2101927936
I0409 10:40:38.599020 30643 layer_factory.hpp:77] Creating layer conv3
I0409 10:40:38.599031 30643 net.cpp:100] Creating Layer conv3
I0409 10:40:38.599037 30643 net.cpp:434] conv3 <- pool2
I0409 10:40:38.599043 30643 net.cpp:408] conv3 -> conv3
I0409 10:40:38.605363 30643 net.cpp:150] Setting up conv3
I0409 10:40:38.605392 30643 net.cpp:157] Top shape: 1024 250 6 6 (9216000)
I0409 10:40:38.605397 30643 net.cpp:165] Memory required for data: 2138791936
I0409 10:40:38.605412 30643 layer_factory.hpp:77] Creating layer conv3_relu
I0409 10:40:38.605432 30643 net.cpp:100] Creating Layer conv3_relu
I0409 10:40:38.605439 30643 net.cpp:434] conv3_relu <- conv3
I0409 10:40:38.605449 30643 net.cpp:395] conv3_relu -> conv3 (in-place)
I0409 10:40:38.607096 30643 net.cpp:150] Setting up conv3_relu
I0409 10:40:38.607115 30643 net.cpp:157] Top shape: 1024 250 6 6 (9216000)
I0409 10:40:38.607120 30643 net.cpp:165] Memory required for data: 2175655936
I0409 10:40:38.607141 30643 layer_factory.hpp:77] Creating layer pool3
I0409 10:40:38.607156 30643 net.cpp:100] Creating Layer pool3
I0409 10:40:38.607161 30643 net.cpp:434] pool3 <- conv3
I0409 10:40:38.607170 30643 net.cpp:408] pool3 -> pool3
I0409 10:40:38.607230 30643 net.cpp:150] Setting up pool3
I0409 10:40:38.607241 30643 net.cpp:157] Top shape: 1024 250 3 3 (2304000)
I0409 10:40:38.607244 30643 net.cpp:165] Memory required for data: 2184871936
I0409 10:40:38.607247 30643 layer_factory.hpp:77] Creating layer fc4_300
I0409 10:40:38.607255 30643 net.cpp:100] Creating Layer fc4_300
I0409 10:40:38.607259 30643 net.cpp:434] fc4_300 <- pool3
I0409 10:40:38.607264 30643 net.cpp:408] fc4_300 -> fc4_300
I0409 10:40:38.620296 30643 net.cpp:150] Setting up fc4_300
I0409 10:40:38.620328 30643 net.cpp:157] Top shape: 1024 300 (307200)
I0409 10:40:38.620332 30643 net.cpp:165] Memory required for data: 2186100736
I0409 10:40:38.620342 30643 layer_factory.hpp:77] Creating layer fc4_relu
I0409 10:40:38.620354 30643 net.cpp:100] Creating Layer fc4_relu
I0409 10:40:38.620358 30643 net.cpp:434] fc4_relu <- fc4_300
I0409 10:40:38.620365 30643 net.cpp:395] fc4_relu -> fc4_300 (in-place)
I0409 10:40:38.620623 30643 net.cpp:150] Setting up fc4_relu
I0409 10:40:38.620637 30643 net.cpp:157] Top shape: 1024 300 (307200)
I0409 10:40:38.620640 30643 net.cpp:165] Memory required for data: 2187329536
I0409 10:40:38.620643 30643 layer_factory.hpp:77] Creating layer drop4
I0409 10:40:38.620653 30643 net.cpp:100] Creating Layer drop4
I0409 10:40:38.620656 30643 net.cpp:434] drop4 <- fc4_300
I0409 10:40:38.620664 30643 net.cpp:395] drop4 -> fc4_300 (in-place)
I0409 10:40:38.620699 30643 net.cpp:150] Setting up drop4
I0409 10:40:38.620707 30643 net.cpp:157] Top shape: 1024 300 (307200)
I0409 10:40:38.620710 30643 net.cpp:165] Memory required for data: 2188558336
I0409 10:40:38.620713 30643 layer_factory.hpp:77] Creating layer fc5_67
I0409 10:40:38.620720 30643 net.cpp:100] Creating Layer fc5_67
I0409 10:40:38.620724 30643 net.cpp:434] fc5_67 <- fc4_300
I0409 10:40:38.620733 30643 net.cpp:408] fc5_67 -> fc5_classes
I0409 10:40:38.620998 30643 net.cpp:150] Setting up fc5_67
I0409 10:40:38.621008 30643 net.cpp:157] Top shape: 1024 67 (68608)
I0409 10:40:38.621011 30643 net.cpp:165] Memory required for data: 2188832768
I0409 10:40:38.621023 30643 layer_factory.hpp:77] Creating layer fc5_classes_fc5_67_0_split
I0409 10:40:38.621032 30643 net.cpp:100] Creating Layer fc5_classes_fc5_67_0_split
I0409 10:40:38.621038 30643 net.cpp:434] fc5_classes_fc5_67_0_split <- fc5_classes
I0409 10:40:38.621043 30643 net.cpp:408] fc5_classes_fc5_67_0_split -> fc5_classes_fc5_67_0_split_0
I0409 10:40:38.621050 30643 net.cpp:408] fc5_classes_fc5_67_0_split -> fc5_classes_fc5_67_0_split_1
I0409 10:40:38.621058 30643 net.cpp:408] fc5_classes_fc5_67_0_split -> fc5_classes_fc5_67_0_split_2
I0409 10:40:38.621111 30643 net.cpp:150] Setting up fc5_classes_fc5_67_0_split
I0409 10:40:38.621119 30643 net.cpp:157] Top shape: 1024 67 (68608)
I0409 10:40:38.621122 30643 net.cpp:157] Top shape: 1024 67 (68608)
I0409 10:40:38.621125 30643 net.cpp:157] Top shape: 1024 67 (68608)
I0409 10:40:38.621129 30643 net.cpp:165] Memory required for data: 2189656064
I0409 10:40:38.621131 30643 layer_factory.hpp:77] Creating layer loss
I0409 10:40:38.621140 30643 net.cpp:100] Creating Layer loss
I0409 10:40:38.621145 30643 net.cpp:434] loss <- fc5_classes_fc5_67_0_split_0
I0409 10:40:38.621150 30643 net.cpp:434] loss <- label_data_1_split_0
I0409 10:40:38.621155 30643 net.cpp:408] loss -> loss
…
