…
I0409 05:17:07.662803 21522 net.cpp:322] The NetState phase (0) differed from the phase (1) specified by a rule in layer accuracy_5
I0409 05:17:07.662991 21522 net.cpp:58] Initializing net from parameters: 
state {
  phase: TRAIN
  level: 0
  stage: ""
}
layer {
  name: "data"
  type: "Data"
  top: "data"
  top: "label"
  include {
    phase: TRAIN
  }
  transform_param {
    mirror: false
    crop_size: 48
    mean_value: 132
    mean_value: 132
    mean_value: 131
  }
  data_param {
    source: "../local_data/lmdb/rtsd-r1/CoNorm/train/lmdb"
    batch_size: 1024
    backend: LMDB
  }
}
layer {
  name: "conv1"
  type: "Convolution"
  bottom: "data"
  top: "conv1"
  convolution_param {
    num_output: 100
    pad: 0
    kernel_size: 7
    group: 1
    stride: 1
    weight_filler {
      type: "xavier"
    }
  }
}
layer {
  name: "conv1_relu"
  type: "ReLU"
  bottom: "conv1"
  top: "conv1"
}
layer {
  name: "pool1"
  type: "Pooling"
  bottom: "conv1"
  top: "pool1"
  pooling_param {
    pool: MAX
    kernel_size: 2
    stride: 2
  }
}
layer {
  name: "conv2"
  type: "Convolution"
  bottom: "pool1"
  top: "conv2"
  convolution_param {
    num_output: 150
    pad: 0
    kernel_size: 4
    group: 1
    stride: 1
    weight_filler {
      type: "xavier"
    }
  }
}
layer {
  name: "conv2_relu"
  type: "ReLU"
  bottom: "conv2"
  top: "conv2"
}
layer {
  name: "pool2"
  type: "Pooling"
  bottom: "conv2"
  top: "pool2"
  pooling_param {
    pool: MAX
    kernel_size: 2
    stride: 2
  }
}
layer {
  name: "conv3"
  type: "Convolution"
  bottom: "pool2"
  top: "conv3"
  convolution_param {
    num_output: 250
    pad: 0
    kernel_size: 4
    group: 1
    stride: 1
    weight_filler {
      type: "xavier"
    }
  }
}
layer {
  name: "conv3_relu"
  type: "ReLU"
  bottom: "conv3"
  top: "conv3"
}
layer {
  name: "pool3"
  type: "Pooling"
  bottom: "conv3"
  top: "pool3"
  pooling_param {
    pool: MAX
    kernel_size: 2
    stride: 2
  }
}
layer {
  name: "fc4_300"
  type: "InnerProduct"
  bottom: "pool3"
  top: "fc4_300"
  inner_product_param {
    num_output: 300
    weight_filler {
      type: "xavier"
    }
  }
}
layer {
  name: "fc4_relu"
  type: "ReLU"
  bottom: "fc4_300"
  top: "fc4_300"
}
layer {
  name: "drop4"
  type: "Dropout"
  bottom: "fc4_300"
  top: "fc4_300"
  dropout_param {
    dropout_ratio: 0.4
  }
}
layer {
  name: "fc5_67"
  type: "InnerProduct"
  bottom: "fc4_300"
  top: "fc5_classes"
  inner_product_param {
    num_output: 67
    weight_filler {
      type: "xavier"
    }
  }
}
layer {
  name: "loss"
  type: "SoftmaxWithLoss"
  bottom: "fc5_classes"
  bottom: "label"
  top: "loss"
}
I0409 05:17:07.663123 21522 layer_factory.hpp:77] Creating layer data
I0409 05:17:07.665179 21522 net.cpp:100] Creating Layer data
I0409 05:17:07.665205 21522 net.cpp:408] data -> data
I0409 05:17:07.665246 21522 net.cpp:408] data -> label
I0409 05:17:07.666707 21581 db_lmdb.cpp:35] Opened lmdb ../local_data/lmdb/rtsd-r1/CoNorm/train/lmdb
I0409 05:17:07.697641 21522 data_layer.cpp:41] output data size: 1024,3,48,48
I0409 05:17:07.763353 21522 net.cpp:150] Setting up data
I0409 05:17:07.763397 21522 net.cpp:157] Top shape: 1024 3 48 48 (7077888)
I0409 05:17:07.763437 21522 net.cpp:157] Top shape: 1024 (1024)
I0409 05:17:07.763442 21522 net.cpp:165] Memory required for data: 28315648
I0409 05:17:07.763455 21522 layer_factory.hpp:77] Creating layer conv1
I0409 05:17:07.763484 21522 net.cpp:100] Creating Layer conv1
I0409 05:17:07.763495 21522 net.cpp:434] conv1 <- data
I0409 05:17:07.763512 21522 net.cpp:408] conv1 -> conv1
I0409 05:17:08.090734 21522 net.cpp:150] Setting up conv1
I0409 05:17:08.090770 21522 net.cpp:157] Top shape: 1024 100 42 42 (180633600)
I0409 05:17:08.090776 21522 net.cpp:165] Memory required for data: 750850048
I0409 05:17:08.090802 21522 layer_factory.hpp:77] Creating layer conv1_relu
I0409 05:17:08.090818 21522 net.cpp:100] Creating Layer conv1_relu
I0409 05:17:08.090829 21522 net.cpp:434] conv1_relu <- conv1
I0409 05:17:08.090837 21522 net.cpp:395] conv1_relu -> conv1 (in-place)
I0409 05:17:08.091075 21522 net.cpp:150] Setting up conv1_relu
I0409 05:17:08.091091 21522 net.cpp:157] Top shape: 1024 100 42 42 (180633600)
I0409 05:17:08.091096 21522 net.cpp:165] Memory required for data: 1473384448
I0409 05:17:08.091100 21522 layer_factory.hpp:77] Creating layer pool1
I0409 05:17:08.091110 21522 net.cpp:100] Creating Layer pool1
I0409 05:17:08.091116 21522 net.cpp:434] pool1 <- conv1
I0409 05:17:08.091123 21522 net.cpp:408] pool1 -> pool1
I0409 05:17:08.091188 21522 net.cpp:150] Setting up pool1
I0409 05:17:08.091198 21522 net.cpp:157] Top shape: 1024 100 21 21 (45158400)
I0409 05:17:08.091203 21522 net.cpp:165] Memory required for data: 1654018048
I0409 05:17:08.091207 21522 layer_factory.hpp:77] Creating layer conv2
I0409 05:17:08.091222 21522 net.cpp:100] Creating Layer conv2
I0409 05:17:08.091228 21522 net.cpp:434] conv2 <- pool1
I0409 05:17:08.091233 21522 net.cpp:408] conv2 -> conv2
I0409 05:17:08.096487 21522 net.cpp:150] Setting up conv2
I0409 05:17:08.096508 21522 net.cpp:157] Top shape: 1024 150 18 18 (49766400)
I0409 05:17:08.096513 21522 net.cpp:165] Memory required for data: 1853083648
I0409 05:17:08.096525 21522 layer_factory.hpp:77] Creating layer conv2_relu
I0409 05:17:08.096534 21522 net.cpp:100] Creating Layer conv2_relu
I0409 05:17:08.096539 21522 net.cpp:434] conv2_relu <- conv2
I0409 05:17:08.096545 21522 net.cpp:395] conv2_relu -> conv2 (in-place)
I0409 05:17:08.097445 21522 net.cpp:150] Setting up conv2_relu
I0409 05:17:08.097465 21522 net.cpp:157] Top shape: 1024 150 18 18 (49766400)
I0409 05:17:08.097470 21522 net.cpp:165] Memory required for data: 2052149248
I0409 05:17:08.097474 21522 layer_factory.hpp:77] Creating layer pool2
I0409 05:17:08.097482 21522 net.cpp:100] Creating Layer pool2
I0409 05:17:08.097487 21522 net.cpp:434] pool2 <- conv2
I0409 05:17:08.097496 21522 net.cpp:408] pool2 -> pool2
I0409 05:17:08.097551 21522 net.cpp:150] Setting up pool2
I0409 05:17:08.097561 21522 net.cpp:157] Top shape: 1024 150 9 9 (12441600)
I0409 05:17:08.097566 21522 net.cpp:165] Memory required for data: 2101915648
I0409 05:17:08.097570 21522 layer_factory.hpp:77] Creating layer conv3
I0409 05:17:08.097580 21522 net.cpp:100] Creating Layer conv3
I0409 05:17:08.097586 21522 net.cpp:434] conv3 <- pool2
I0409 05:17:08.097594 21522 net.cpp:408] conv3 -> conv3
I0409 05:17:08.104354 21522 net.cpp:150] Setting up conv3
I0409 05:17:08.104377 21522 net.cpp:157] Top shape: 1024 250 6 6 (9216000)
I0409 05:17:08.104380 21522 net.cpp:165] Memory required for data: 2138779648
I0409 05:17:08.104393 21522 layer_factory.hpp:77] Creating layer conv3_relu
I0409 05:17:08.104403 21522 net.cpp:100] Creating Layer conv3_relu
I0409 05:17:08.104408 21522 net.cpp:434] conv3_relu <- conv3
I0409 05:17:08.104413 21522 net.cpp:395] conv3_relu -> conv3 (in-place)
I0409 05:17:08.105329 21522 net.cpp:150] Setting up conv3_relu
I0409 05:17:08.105350 21522 net.cpp:157] Top shape: 1024 250 6 6 (9216000)
I0409 05:17:08.105355 21522 net.cpp:165] Memory required for data: 2175643648
I0409 05:17:08.105360 21522 layer_factory.hpp:77] Creating layer pool3
I0409 05:17:08.105367 21522 net.cpp:100] Creating Layer pool3
I0409 05:17:08.105372 21522 net.cpp:434] pool3 <- conv3
I0409 05:17:08.105410 21522 net.cpp:408] pool3 -> pool3
I0409 05:17:08.105470 21522 net.cpp:150] Setting up pool3
I0409 05:17:08.105482 21522 net.cpp:157] Top shape: 1024 250 3 3 (2304000)
I0409 05:17:08.105486 21522 net.cpp:165] Memory required for data: 2184859648
I0409 05:17:08.105490 21522 layer_factory.hpp:77] Creating layer fc4_300
I0409 05:17:08.105499 21522 net.cpp:100] Creating Layer fc4_300
I0409 05:17:08.105505 21522 net.cpp:434] fc4_300 <- pool3
I0409 05:17:08.105512 21522 net.cpp:408] fc4_300 -> fc4_300
I0409 05:17:08.112100 21522 net.cpp:150] Setting up fc4_300
I0409 05:17:08.112121 21522 net.cpp:157] Top shape: 1024 300 (307200)
I0409 05:17:08.112125 21522 net.cpp:165] Memory required for data: 2186088448
I0409 05:17:08.112134 21522 layer_factory.hpp:77] Creating layer fc4_relu
I0409 05:17:08.112143 21522 net.cpp:100] Creating Layer fc4_relu
I0409 05:17:08.112146 21522 net.cpp:434] fc4_relu <- fc4_300
I0409 05:17:08.112155 21522 net.cpp:395] fc4_relu -> fc4_300 (in-place)
I0409 05:17:08.112383 21522 net.cpp:150] Setting up fc4_relu
I0409 05:17:08.112397 21522 net.cpp:157] Top shape: 1024 300 (307200)
I0409 05:17:08.112402 21522 net.cpp:165] Memory required for data: 2187317248
I0409 05:17:08.112406 21522 layer_factory.hpp:77] Creating layer drop4
I0409 05:17:08.112414 21522 net.cpp:100] Creating Layer drop4
I0409 05:17:08.112421 21522 net.cpp:434] drop4 <- fc4_300
I0409 05:17:08.112427 21522 net.cpp:395] drop4 -> fc4_300 (in-place)
I0409 05:17:08.112464 21522 net.cpp:150] Setting up drop4
I0409 05:17:08.112473 21522 net.cpp:157] Top shape: 1024 300 (307200)
I0409 05:17:08.112478 21522 net.cpp:165] Memory required for data: 2188546048
I0409 05:17:08.112481 21522 layer_factory.hpp:77] Creating layer fc5_67
I0409 05:17:08.112488 21522 net.cpp:100] Creating Layer fc5_67
I0409 05:17:08.112493 21522 net.cpp:434] fc5_67 <- fc4_300
I0409 05:17:08.112498 21522 net.cpp:408] fc5_67 -> fc5_classes
I0409 05:17:08.113905 21522 net.cpp:150] Setting up fc5_67
I0409 05:17:08.113924 21522 net.cpp:157] Top shape: 1024 67 (68608)
I0409 05:17:08.113929 21522 net.cpp:165] Memory required for data: 2188820480
I0409 05:17:08.113941 21522 layer_factory.hpp:77] Creating layer loss
I0409 05:17:08.113950 21522 net.cpp:100] Creating Layer loss
I0409 05:17:08.113955 21522 net.cpp:434] loss <- fc5_classes
I0409 05:17:08.113960 21522 net.cpp:434] loss <- label
I0409 05:17:08.113966 21522 net.cpp:408] loss -> loss
I0409 05:17:08.113981 21522 layer_factory.hpp:77] Creating layer loss
…
I0409 05:17:08.114760 21522 solver.cpp:193] Creating test net (#0) specified by test_net file: ./Prototxt/experiment_6/rtsd-r1/CoNorm/trial_3/test.prototxt
I0409 05:17:08.114930 21522 net.cpp:58] Initializing net from parameters: 
state {
  phase: TEST
}
layer {
  name: "data"
  type: "Data"
  top: "data"
  top: "label"
  include {
    phase: TEST
  }
  transform_param {
    mirror: false
    crop_size: 48
    mean_value: 133
    mean_value: 133
    mean_value: 132
  }
  data_param {
    source: "../local_data/lmdb/rtsd-r1/CoNorm/test/lmdb"
    batch_size: 1024
    backend: LMDB
  }
}
layer {
  name: "conv1"
  type: "Convolution"
  bottom: "data"
  top: "conv1"
  convolution_param {
    num_output: 100
    pad: 0
    kernel_size: 7
    group: 1
    stride: 1
    weight_filler {
      type: "xavier"
    }
  }
}
layer {
  name: "conv1_relu"
  type: "ReLU"
  bottom: "conv1"
  top: "conv1"
}
layer {
  name: "pool1"
  type: "Pooling"
  bottom: "conv1"
  top: "pool1"
  pooling_param {
    pool: MAX
    kernel_size: 2
    stride: 2
  }
}
layer {
  name: "conv2"
  type: "Convolution"
  bottom: "pool1"
  top: "conv2"
  convolution_param {
    num_output: 150
    pad: 0
    kernel_size: 4
    group: 1
    stride: 1
    weight_filler {
      type: "xavier"
    }
  }
}
layer {
  name: "conv2_relu"
  type: "ReLU"
  bottom: "conv2"
  top: "conv2"
}
layer {
  name: "pool2"
  type: "Pooling"
  bottom: "conv2"
  top: "pool2"
  pooling_param {
    pool: MAX
    kernel_size: 2
    stride: 2
  }
}
layer {
  name: "conv3"
  type: "Convolution"
  bottom: "pool2"
  top: "conv3"
  convolution_param {
    num_output: 250
    pad: 0
    kernel_size: 4
    group: 1
    stride: 1
    weight_filler {
      type: "xavier"
    }
  }
}
layer {
  name: "conv3_relu"
  type: "ReLU"
  bottom: "conv3"
  top: "conv3"
}
layer {
  name: "pool3"
  type: "Pooling"
  bottom: "conv3"
  top: "pool3"
  pooling_param {
    pool: MAX
    kernel_size: 2
    stride: 2
  }
}
layer {
  name: "fc4_300"
  type: "InnerProduct"
  bottom: "pool3"
  top: "fc4_300"
  inner_product_param {
    num_output: 300
    weight_filler {
      type: "xavier"
    }
  }
}
layer {
  name: "fc4_relu"
  type: "ReLU"
  bottom: "fc4_300"
  top: "fc4_300"
}
layer {
  name: "drop4"
  type: "Dropout"
  bottom: "fc4_300"
  top: "fc4_300"
  dropout_param {
    dropout_ratio: 0.4
  }
}
layer {
  name: "fc5_67"
  type: "InnerProduct"
  bottom: "fc4_300"
  top: "fc5_classes"
  inner_product_param {
    num_output: 67
    weight_filler {
      type: "xavier"
    }
  }
}
layer {
  name: "loss"
  type: "SoftmaxWithLoss"
  bottom: "fc5_classes"
  bottom: "label"
  top: "loss"
}
layer {
  name: "accuracy_1"
  type: "Accuracy"
  bottom: "fc5_classes"
  bottom: "label"
  top: "accuracy_1"
  include {
    phase: TEST
  }
  accuracy_param {
    top_k: 1
  }
}
layer {
  name: "accuracy_5"
  type: "Accuracy"
  bottom: "fc5_classes"
  bottom: "label"
  top: "accuracy_5"
  include {
    phase: TEST
  }
  accuracy_param {
    top_k: 5
  }
}
I0409 05:17:08.115031 21522 layer_factory.hpp:77] Creating layer data
I0409 05:17:08.115778 21522 net.cpp:100] Creating Layer data
I0409 05:17:08.115792 21522 net.cpp:408] data -> data
I0409 05:17:08.115804 21522 net.cpp:408] data -> label
I0409 05:17:08.117645 21595 db_lmdb.cpp:35] Opened lmdb ../local_data/lmdb/rtsd-r1/CoNorm/test/lmdb
I0409 05:17:08.117858 21522 data_layer.cpp:41] output data size: 1024,3,48,48
I0409 05:17:08.168068 21522 net.cpp:150] Setting up data
I0409 05:17:08.168103 21522 net.cpp:157] Top shape: 1024 3 48 48 (7077888)
I0409 05:17:08.168109 21522 net.cpp:157] Top shape: 1024 (1024)
I0409 05:17:08.168113 21522 net.cpp:165] Memory required for data: 28315648
I0409 05:17:08.168121 21522 layer_factory.hpp:77] Creating layer label_data_1_split
I0409 05:17:08.168139 21522 net.cpp:100] Creating Layer label_data_1_split
I0409 05:17:08.168146 21522 net.cpp:434] label_data_1_split <- label
I0409 05:17:08.168160 21522 net.cpp:408] label_data_1_split -> label_data_1_split_0
I0409 05:17:08.168176 21522 net.cpp:408] label_data_1_split -> label_data_1_split_1
I0409 05:17:08.168186 21522 net.cpp:408] label_data_1_split -> label_data_1_split_2
I0409 05:17:08.168386 21522 net.cpp:150] Setting up label_data_1_split
I0409 05:17:08.168406 21522 net.cpp:157] Top shape: 1024 (1024)
I0409 05:17:08.168411 21522 net.cpp:157] Top shape: 1024 (1024)
I0409 05:17:08.168416 21522 net.cpp:157] Top shape: 1024 (1024)
I0409 05:17:08.168419 21522 net.cpp:165] Memory required for data: 28327936
I0409 05:17:08.168424 21522 layer_factory.hpp:77] Creating layer conv1
I0409 05:17:08.168440 21522 net.cpp:100] Creating Layer conv1
I0409 05:17:08.168447 21522 net.cpp:434] conv1 <- data
I0409 05:17:08.168455 21522 net.cpp:408] conv1 -> conv1
I0409 05:17:08.172771 21522 net.cpp:150] Setting up conv1
I0409 05:17:08.172796 21522 net.cpp:157] Top shape: 1024 100 42 42 (180633600)
I0409 05:17:08.172801 21522 net.cpp:165] Memory required for data: 750862336
I0409 05:17:08.172817 21522 layer_factory.hpp:77] Creating layer conv1_relu
I0409 05:17:08.172829 21522 net.cpp:100] Creating Layer conv1_relu
I0409 05:17:08.172837 21522 net.cpp:434] conv1_relu <- conv1
I0409 05:17:08.172844 21522 net.cpp:395] conv1_relu -> conv1 (in-place)
I0409 05:17:08.173104 21522 net.cpp:150] Setting up conv1_relu
I0409 05:17:08.173117 21522 net.cpp:157] Top shape: 1024 100 42 42 (180633600)
I0409 05:17:08.173121 21522 net.cpp:165] Memory required for data: 1473396736
I0409 05:17:08.173126 21522 layer_factory.hpp:77] Creating layer pool1
I0409 05:17:08.173137 21522 net.cpp:100] Creating Layer pool1
I0409 05:17:08.173144 21522 net.cpp:434] pool1 <- conv1
I0409 05:17:08.173156 21522 net.cpp:408] pool1 -> pool1
I0409 05:17:08.173219 21522 net.cpp:150] Setting up pool1
I0409 05:17:08.173233 21522 net.cpp:157] Top shape: 1024 100 21 21 (45158400)
I0409 05:17:08.173240 21522 net.cpp:165] Memory required for data: 1654030336
I0409 05:17:08.173244 21522 layer_factory.hpp:77] Creating layer conv2
I0409 05:17:08.173257 21522 net.cpp:100] Creating Layer conv2
I0409 05:17:08.173264 21522 net.cpp:434] conv2 <- pool1
I0409 05:17:08.173270 21522 net.cpp:408] conv2 -> conv2
I0409 05:17:08.178108 21522 net.cpp:150] Setting up conv2
I0409 05:17:08.178129 21522 net.cpp:157] Top shape: 1024 150 18 18 (49766400)
I0409 05:17:08.178134 21522 net.cpp:165] Memory required for data: 1853095936
I0409 05:17:08.178146 21522 layer_factory.hpp:77] Creating layer conv2_relu
I0409 05:17:08.178158 21522 net.cpp:100] Creating Layer conv2_relu
I0409 05:17:08.178164 21522 net.cpp:434] conv2_relu <- conv2
I0409 05:17:08.178174 21522 net.cpp:395] conv2_relu -> conv2 (in-place)
I0409 05:17:08.179168 21522 net.cpp:150] Setting up conv2_relu
I0409 05:17:08.179190 21522 net.cpp:157] Top shape: 1024 150 18 18 (49766400)
I0409 05:17:08.179195 21522 net.cpp:165] Memory required for data: 2052161536
I0409 05:17:08.179201 21522 layer_factory.hpp:77] Creating layer pool2
I0409 05:17:08.179210 21522 net.cpp:100] Creating Layer pool2
I0409 05:17:08.179214 21522 net.cpp:434] pool2 <- conv2
I0409 05:17:08.179226 21522 net.cpp:408] pool2 -> pool2
I0409 05:17:08.179293 21522 net.cpp:150] Setting up pool2
I0409 05:17:08.179307 21522 net.cpp:157] Top shape: 1024 150 9 9 (12441600)
I0409 05:17:08.179312 21522 net.cpp:165] Memory required for data: 2101927936
I0409 05:17:08.179316 21522 layer_factory.hpp:77] Creating layer conv3
I0409 05:17:08.179342 21522 net.cpp:100] Creating Layer conv3
I0409 05:17:08.179348 21522 net.cpp:434] conv3 <- pool2
I0409 05:17:08.179356 21522 net.cpp:408] conv3 -> conv3
I0409 05:17:08.186313 21522 net.cpp:150] Setting up conv3
I0409 05:17:08.186336 21522 net.cpp:157] Top shape: 1024 250 6 6 (9216000)
I0409 05:17:08.186345 21522 net.cpp:165] Memory required for data: 2138791936
I0409 05:17:08.186358 21522 layer_factory.hpp:77] Creating layer conv3_relu
I0409 05:17:08.186370 21522 net.cpp:100] Creating Layer conv3_relu
I0409 05:17:08.186375 21522 net.cpp:434] conv3_relu <- conv3
I0409 05:17:08.186381 21522 net.cpp:395] conv3_relu -> conv3 (in-place)
I0409 05:17:08.187331 21522 net.cpp:150] Setting up conv3_relu
I0409 05:17:08.187350 21522 net.cpp:157] Top shape: 1024 250 6 6 (9216000)
I0409 05:17:08.187355 21522 net.cpp:165] Memory required for data: 2175655936
I0409 05:17:08.187379 21522 layer_factory.hpp:77] Creating layer pool3
I0409 05:17:08.187389 21522 net.cpp:100] Creating Layer pool3
I0409 05:17:08.187394 21522 net.cpp:434] pool3 <- conv3
I0409 05:17:08.187403 21522 net.cpp:408] pool3 -> pool3
I0409 05:17:08.187469 21522 net.cpp:150] Setting up pool3
I0409 05:17:08.187481 21522 net.cpp:157] Top shape: 1024 250 3 3 (2304000)
I0409 05:17:08.187485 21522 net.cpp:165] Memory required for data: 2184871936
I0409 05:17:08.187489 21522 layer_factory.hpp:77] Creating layer fc4_300
I0409 05:17:08.187500 21522 net.cpp:100] Creating Layer fc4_300
I0409 05:17:08.187506 21522 net.cpp:434] fc4_300 <- pool3
I0409 05:17:08.187513 21522 net.cpp:408] fc4_300 -> fc4_300
I0409 05:17:08.194120 21522 net.cpp:150] Setting up fc4_300
I0409 05:17:08.194139 21522 net.cpp:157] Top shape: 1024 300 (307200)
I0409 05:17:08.194144 21522 net.cpp:165] Memory required for data: 2186100736
I0409 05:17:08.194152 21522 layer_factory.hpp:77] Creating layer fc4_relu
I0409 05:17:08.194162 21522 net.cpp:100] Creating Layer fc4_relu
I0409 05:17:08.194167 21522 net.cpp:434] fc4_relu <- fc4_300
I0409 05:17:08.194174 21522 net.cpp:395] fc4_relu -> fc4_300 (in-place)
I0409 05:17:08.194417 21522 net.cpp:150] Setting up fc4_relu
I0409 05:17:08.194432 21522 net.cpp:157] Top shape: 1024 300 (307200)
I0409 05:17:08.194437 21522 net.cpp:165] Memory required for data: 2187329536
I0409 05:17:08.194440 21522 layer_factory.hpp:77] Creating layer drop4
I0409 05:17:08.194452 21522 net.cpp:100] Creating Layer drop4
I0409 05:17:08.194456 21522 net.cpp:434] drop4 <- fc4_300
I0409 05:17:08.194463 21522 net.cpp:395] drop4 -> fc4_300 (in-place)
I0409 05:17:08.194502 21522 net.cpp:150] Setting up drop4
I0409 05:17:08.194512 21522 net.cpp:157] Top shape: 1024 300 (307200)
I0409 05:17:08.194516 21522 net.cpp:165] Memory required for data: 2188558336
I0409 05:17:08.194520 21522 layer_factory.hpp:77] Creating layer fc5_67
I0409 05:17:08.194528 21522 net.cpp:100] Creating Layer fc5_67
I0409 05:17:08.194532 21522 net.cpp:434] fc5_67 <- fc4_300
I0409 05:17:08.194541 21522 net.cpp:408] fc5_67 -> fc5_classes
I0409 05:17:08.194860 21522 net.cpp:150] Setting up fc5_67
I0409 05:17:08.194871 21522 net.cpp:157] Top shape: 1024 67 (68608)
I0409 05:17:08.194875 21522 net.cpp:165] Memory required for data: 2188832768
I0409 05:17:08.194886 21522 layer_factory.hpp:77] Creating layer fc5_classes_fc5_67_0_split
I0409 05:17:08.194902 21522 net.cpp:100] Creating Layer fc5_classes_fc5_67_0_split
I0409 05:17:08.194906 21522 net.cpp:434] fc5_classes_fc5_67_0_split <- fc5_classes
I0409 05:17:08.194913 21522 net.cpp:408] fc5_classes_fc5_67_0_split -> fc5_classes_fc5_67_0_split_0
I0409 05:17:08.194922 21522 net.cpp:408] fc5_classes_fc5_67_0_split -> fc5_classes_fc5_67_0_split_1
I0409 05:17:08.194931 21522 net.cpp:408] fc5_classes_fc5_67_0_split -> fc5_classes_fc5_67_0_split_2
I0409 05:17:08.194996 21522 net.cpp:150] Setting up fc5_classes_fc5_67_0_split
I0409 05:17:08.195006 21522 net.cpp:157] Top shape: 1024 67 (68608)
I0409 05:17:08.195011 21522 net.cpp:157] Top shape: 1024 67 (68608)
I0409 05:17:08.195016 21522 net.cpp:157] Top shape: 1024 67 (68608)
I0409 05:17:08.195022 21522 net.cpp:165] Memory required for data: 2189656064
I0409 05:17:08.195026 21522 layer_factory.hpp:77] Creating layer loss
I0409 05:17:08.195037 21522 net.cpp:100] Creating Layer loss
I0409 05:17:08.195044 21522 net.cpp:434] loss <- fc5_classes_fc5_67_0_split_0
I0409 05:17:08.195050 21522 net.cpp:434] loss <- label_data_1_split_0
I0409 05:17:08.195056 21522 net.cpp:408] loss -> loss
…
