…
I0409 20:16:37.958554 32233 net.cpp:322] The NetState phase (0) differed from the phase (1) specified by a rule in layer accuracy_5
I0409 20:16:37.958673 32233 net.cpp:58] Initializing net from parameters: 
state {
  phase: TRAIN
  level: 0
  stage: ""
}
layer {
  name: "data"
  type: "Data"
  top: "data"
  top: "label"
  include {
    phase: TRAIN
  }
  transform_param {
    mirror: false
    crop_size: 48
    mean_value: 132
    mean_value: 132
    mean_value: 131
  }
  data_param {
    source: "../local_data/lmdb/rtsd-r1/CoNorm/train/lmdb"
    batch_size: 1024
    backend: LMDB
  }
}
layer {
  name: "conv1"
  type: "Convolution"
  bottom: "data"
  top: "conv1"
  convolution_param {
    num_output: 100
    pad: 0
    kernel_size: 7
    group: 1
    stride: 1
    weight_filler {
      type: "xavier"
    }
  }
}
layer {
  name: "conv1_sTanH"
  type: "TanH"
  bottom: "conv1"
  top: "conv1"
}
layer {
  name: "pool1"
  type: "Pooling"
  bottom: "conv1"
  top: "pool1"
  pooling_param {
    pool: MAX
    kernel_size: 2
    stride: 2
  }
}
layer {
  name: "conv2"
  type: "Convolution"
  bottom: "pool1"
  top: "conv2"
  convolution_param {
    num_output: 150
    pad: 0
    kernel_size: 4
    group: 1
    stride: 1
    weight_filler {
      type: "xavier"
    }
  }
}
layer {
  name: "conv2_sTanH"
  type: "TanH"
  bottom: "conv2"
  top: "conv2"
}
layer {
  name: "pool2"
  type: "Pooling"
  bottom: "conv2"
  top: "pool2"
  pooling_param {
    pool: MAX
    kernel_size: 2
    stride: 2
  }
}
layer {
  name: "conv3"
  type: "Convolution"
  bottom: "pool2"
  top: "conv3"
  convolution_param {
    num_output: 250
    pad: 0
    kernel_size: 4
    group: 1
    stride: 1
    weight_filler {
      type: "xavier"
    }
  }
}
layer {
  name: "conv3_sTanH"
  type: "TanH"
  bottom: "conv3"
  top: "conv3"
}
layer {
  name: "pool3"
  type: "Pooling"
  bottom: "conv3"
  top: "pool3"
  pooling_param {
    pool: MAX
    kernel_size: 2
    stride: 2
  }
}
layer {
  name: "fc4_300"
  type: "InnerProduct"
  bottom: "pool3"
  top: "fc4_300"
  inner_product_param {
    num_output: 300
    weight_filler {
      type: "xavier"
    }
  }
}
layer {
  name: "fc4_sTanH"
  type: "TanH"
  bottom: "fc4_300"
  top: "fc4_300"
}
layer {
  name: "drop4"
  type: "Dropout"
  bottom: "fc4_300"
  top: "fc4_300"
  dropout_param {
    dropout_ratio: 0.4
  }
}
layer {
  name: "fc5_67"
  type: "InnerProduct"
  bottom: "fc4_300"
  top: "fc5_classes"
  inner_product_param {
    num_output: 67
    weight_filler {
      type: "xavier"
    }
  }
}
layer {
  name: "loss"
  type: "SoftmaxWithLoss"
  bottom: "fc5_classes"
  bottom: "label"
  top: "loss"
}
I0409 20:16:37.958760 32233 layer_factory.hpp:77] Creating layer data
I0409 20:16:37.960041 32233 net.cpp:100] Creating Layer data
I0409 20:16:37.960064 32233 net.cpp:408] data -> data
I0409 20:16:37.960091 32233 net.cpp:408] data -> label
I0409 20:16:37.964092 32305 db_lmdb.cpp:35] Opened lmdb ../local_data/lmdb/rtsd-r1/CoNorm/train/lmdb
I0409 20:16:37.984364 32233 data_layer.cpp:41] output data size: 1024,3,48,48
I0409 20:16:38.043802 32233 net.cpp:150] Setting up data
I0409 20:16:38.043838 32233 net.cpp:157] Top shape: 1024 3 48 48 (7077888)
I0409 20:16:38.043874 32233 net.cpp:157] Top shape: 1024 (1024)
I0409 20:16:38.043884 32233 net.cpp:165] Memory required for data: 28315648
I0409 20:16:38.043895 32233 layer_factory.hpp:77] Creating layer conv1
I0409 20:16:38.043920 32233 net.cpp:100] Creating Layer conv1
I0409 20:16:38.043929 32233 net.cpp:434] conv1 <- data
I0409 20:16:38.043944 32233 net.cpp:408] conv1 -> conv1
I0409 20:16:38.344225 32233 net.cpp:150] Setting up conv1
I0409 20:16:38.344256 32233 net.cpp:157] Top shape: 1024 100 42 42 (180633600)
I0409 20:16:38.344260 32233 net.cpp:165] Memory required for data: 750850048
I0409 20:16:38.344282 32233 layer_factory.hpp:77] Creating layer conv1_sTanH
I0409 20:16:38.344295 32233 net.cpp:100] Creating Layer conv1_sTanH
I0409 20:16:38.344298 32233 net.cpp:434] conv1_sTanH <- conv1
I0409 20:16:38.344305 32233 net.cpp:395] conv1_sTanH -> conv1 (in-place)
I0409 20:16:38.344494 32233 net.cpp:150] Setting up conv1_sTanH
I0409 20:16:38.344506 32233 net.cpp:157] Top shape: 1024 100 42 42 (180633600)
I0409 20:16:38.344509 32233 net.cpp:165] Memory required for data: 1473384448
I0409 20:16:38.344513 32233 layer_factory.hpp:77] Creating layer pool1
I0409 20:16:38.344521 32233 net.cpp:100] Creating Layer pool1
I0409 20:16:38.344525 32233 net.cpp:434] pool1 <- conv1
I0409 20:16:38.344532 32233 net.cpp:408] pool1 -> pool1
I0409 20:16:38.344583 32233 net.cpp:150] Setting up pool1
I0409 20:16:38.344591 32233 net.cpp:157] Top shape: 1024 100 21 21 (45158400)
I0409 20:16:38.344594 32233 net.cpp:165] Memory required for data: 1654018048
I0409 20:16:38.344597 32233 layer_factory.hpp:77] Creating layer conv2
I0409 20:16:38.344609 32233 net.cpp:100] Creating Layer conv2
I0409 20:16:38.344614 32233 net.cpp:434] conv2 <- pool1
I0409 20:16:38.344619 32233 net.cpp:408] conv2 -> conv2
I0409 20:16:38.348915 32233 net.cpp:150] Setting up conv2
I0409 20:16:38.348932 32233 net.cpp:157] Top shape: 1024 150 18 18 (49766400)
I0409 20:16:38.348937 32233 net.cpp:165] Memory required for data: 1853083648
I0409 20:16:38.348947 32233 layer_factory.hpp:77] Creating layer conv2_sTanH
I0409 20:16:38.348953 32233 net.cpp:100] Creating Layer conv2_sTanH
I0409 20:16:38.348956 32233 net.cpp:434] conv2_sTanH <- conv2
I0409 20:16:38.348960 32233 net.cpp:395] conv2_sTanH -> conv2 (in-place)
I0409 20:16:38.349727 32233 net.cpp:150] Setting up conv2_sTanH
I0409 20:16:38.349742 32233 net.cpp:157] Top shape: 1024 150 18 18 (49766400)
I0409 20:16:38.349745 32233 net.cpp:165] Memory required for data: 2052149248
I0409 20:16:38.349750 32233 layer_factory.hpp:77] Creating layer pool2
I0409 20:16:38.349756 32233 net.cpp:100] Creating Layer pool2
I0409 20:16:38.349759 32233 net.cpp:434] pool2 <- conv2
I0409 20:16:38.349764 32233 net.cpp:408] pool2 -> pool2
I0409 20:16:38.349808 32233 net.cpp:150] Setting up pool2
I0409 20:16:38.349817 32233 net.cpp:157] Top shape: 1024 150 9 9 (12441600)
I0409 20:16:38.349819 32233 net.cpp:165] Memory required for data: 2101915648
I0409 20:16:38.349822 32233 layer_factory.hpp:77] Creating layer conv3
I0409 20:16:38.349830 32233 net.cpp:100] Creating Layer conv3
I0409 20:16:38.349834 32233 net.cpp:434] conv3 <- pool2
I0409 20:16:38.349838 32233 net.cpp:408] conv3 -> conv3
I0409 20:16:38.355348 32233 net.cpp:150] Setting up conv3
I0409 20:16:38.355365 32233 net.cpp:157] Top shape: 1024 250 6 6 (9216000)
I0409 20:16:38.355370 32233 net.cpp:165] Memory required for data: 2138779648
I0409 20:16:38.355379 32233 layer_factory.hpp:77] Creating layer conv3_sTanH
I0409 20:16:38.355386 32233 net.cpp:100] Creating Layer conv3_sTanH
I0409 20:16:38.355389 32233 net.cpp:434] conv3_sTanH <- conv3
I0409 20:16:38.355394 32233 net.cpp:395] conv3_sTanH -> conv3 (in-place)
I0409 20:16:38.356664 32233 net.cpp:150] Setting up conv3_sTanH
I0409 20:16:38.356680 32233 net.cpp:157] Top shape: 1024 250 6 6 (9216000)
I0409 20:16:38.356684 32233 net.cpp:165] Memory required for data: 2175643648
I0409 20:16:38.356688 32233 layer_factory.hpp:77] Creating layer pool3
I0409 20:16:38.356694 32233 net.cpp:100] Creating Layer pool3
I0409 20:16:38.356698 32233 net.cpp:434] pool3 <- conv3
I0409 20:16:38.356722 32233 net.cpp:408] pool3 -> pool3
I0409 20:16:38.356770 32233 net.cpp:150] Setting up pool3
I0409 20:16:38.356778 32233 net.cpp:157] Top shape: 1024 250 3 3 (2304000)
I0409 20:16:38.356781 32233 net.cpp:165] Memory required for data: 2184859648
I0409 20:16:38.356784 32233 layer_factory.hpp:77] Creating layer fc4_300
I0409 20:16:38.356791 32233 net.cpp:100] Creating Layer fc4_300
I0409 20:16:38.356794 32233 net.cpp:434] fc4_300 <- pool3
I0409 20:16:38.356798 32233 net.cpp:408] fc4_300 -> fc4_300
I0409 20:16:38.362356 32233 net.cpp:150] Setting up fc4_300
I0409 20:16:38.362372 32233 net.cpp:157] Top shape: 1024 300 (307200)
I0409 20:16:38.362376 32233 net.cpp:165] Memory required for data: 2186088448
I0409 20:16:38.362383 32233 layer_factory.hpp:77] Creating layer fc4_sTanH
I0409 20:16:38.362390 32233 net.cpp:100] Creating Layer fc4_sTanH
I0409 20:16:38.362393 32233 net.cpp:434] fc4_sTanH <- fc4_300
I0409 20:16:38.362398 32233 net.cpp:395] fc4_sTanH -> fc4_300 (in-place)
I0409 20:16:38.362574 32233 net.cpp:150] Setting up fc4_sTanH
I0409 20:16:38.362584 32233 net.cpp:157] Top shape: 1024 300 (307200)
I0409 20:16:38.362588 32233 net.cpp:165] Memory required for data: 2187317248
I0409 20:16:38.362591 32233 layer_factory.hpp:77] Creating layer drop4
I0409 20:16:38.362597 32233 net.cpp:100] Creating Layer drop4
I0409 20:16:38.362601 32233 net.cpp:434] drop4 <- fc4_300
I0409 20:16:38.362606 32233 net.cpp:395] drop4 -> fc4_300 (in-place)
I0409 20:16:38.362634 32233 net.cpp:150] Setting up drop4
I0409 20:16:38.362642 32233 net.cpp:157] Top shape: 1024 300 (307200)
I0409 20:16:38.362645 32233 net.cpp:165] Memory required for data: 2188546048
I0409 20:16:38.362648 32233 layer_factory.hpp:77] Creating layer fc5_67
I0409 20:16:38.362654 32233 net.cpp:100] Creating Layer fc5_67
I0409 20:16:38.362658 32233 net.cpp:434] fc5_67 <- fc4_300
I0409 20:16:38.362661 32233 net.cpp:408] fc5_67 -> fc5_classes
I0409 20:16:38.363970 32233 net.cpp:150] Setting up fc5_67
I0409 20:16:38.363984 32233 net.cpp:157] Top shape: 1024 67 (68608)
I0409 20:16:38.363987 32233 net.cpp:165] Memory required for data: 2188820480
I0409 20:16:38.363997 32233 layer_factory.hpp:77] Creating layer loss
I0409 20:16:38.364003 32233 net.cpp:100] Creating Layer loss
I0409 20:16:38.364007 32233 net.cpp:434] loss <- fc5_classes
I0409 20:16:38.364012 32233 net.cpp:434] loss <- label
I0409 20:16:38.364017 32233 net.cpp:408] loss -> loss
I0409 20:16:38.364029 32233 layer_factory.hpp:77] Creating layer loss
…
I0409 20:16:38.364657 32233 solver.cpp:193] Creating test net (#0) specified by test_net file: ./Prototxt/experiment_7/rtsd-r1/CoNorm/trial_2/test.prototxt
I0409 20:16:38.364783 32233 net.cpp:58] Initializing net from parameters: 
state {
  phase: TEST
}
layer {
  name: "data"
  type: "Data"
  top: "data"
  top: "label"
  include {
    phase: TEST
  }
  transform_param {
    mirror: false
    crop_size: 48
    mean_value: 133
    mean_value: 133
    mean_value: 132
  }
  data_param {
    source: "../local_data/lmdb/rtsd-r1/CoNorm/test/lmdb"
    batch_size: 1024
    backend: LMDB
  }
}
layer {
  name: "conv1"
  type: "Convolution"
  bottom: "data"
  top: "conv1"
  convolution_param {
    num_output: 100
    pad: 0
    kernel_size: 7
    group: 1
    stride: 1
    weight_filler {
      type: "xavier"
    }
  }
}
layer {
  name: "conv1_sTanH"
  type: "TanH"
  bottom: "conv1"
  top: "conv1"
}
layer {
  name: "pool1"
  type: "Pooling"
  bottom: "conv1"
  top: "pool1"
  pooling_param {
    pool: MAX
    kernel_size: 2
    stride: 2
  }
}
layer {
  name: "conv2"
  type: "Convolution"
  bottom: "pool1"
  top: "conv2"
  convolution_param {
    num_output: 150
    pad: 0
    kernel_size: 4
    group: 1
    stride: 1
    weight_filler {
      type: "xavier"
    }
  }
}
layer {
  name: "conv2_sTanH"
  type: "TanH"
  bottom: "conv2"
  top: "conv2"
}
layer {
  name: "pool2"
  type: "Pooling"
  bottom: "conv2"
  top: "pool2"
  pooling_param {
    pool: MAX
    kernel_size: 2
    stride: 2
  }
}
layer {
  name: "conv3"
  type: "Convolution"
  bottom: "pool2"
  top: "conv3"
  convolution_param {
    num_output: 250
    pad: 0
    kernel_size: 4
    group: 1
    stride: 1
    weight_filler {
      type: "xavier"
    }
  }
}
layer {
  name: "conv3_sTanH"
  type: "TanH"
  bottom: "conv3"
  top: "conv3"
}
layer {
  name: "pool3"
  type: "Pooling"
  bottom: "conv3"
  top: "pool3"
  pooling_param {
    pool: MAX
    kernel_size: 2
    stride: 2
  }
}
layer {
  name: "fc4_300"
  type: "InnerProduct"
  bottom: "pool3"
  top: "fc4_300"
  inner_product_param {
    num_output: 300
    weight_filler {
      type: "xavier"
    }
  }
}
layer {
  name: "fc4_sTanH"
  type: "TanH"
  bottom: "fc4_300"
  top: "fc4_300"
}
layer {
  name: "drop4"
  type: "Dropout"
  bottom: "fc4_300"
  top: "fc4_300"
  dropout_param {
    dropout_ratio: 0.4
  }
}
layer {
  name: "fc5_67"
  type: "InnerProduct"
  bottom: "fc4_300"
  top: "fc5_classes"
  inner_product_param {
    num_output: 67
    weight_filler {
      type: "xavier"
    }
  }
}
layer {
  name: "loss"
  type: "SoftmaxWithLoss"
  bottom: "fc5_classes"
  bottom: "label"
  top: "loss"
}
layer {
  name: "accuracy_1"
  type: "Accuracy"
  bottom: "fc5_classes"
  bottom: "label"
  top: "accuracy_1"
  include {
    phase: TEST
  }
  accuracy_param {
    top_k: 1
  }
}
layer {
  name: "accuracy_5"
  type: "Accuracy"
  bottom: "fc5_classes"
  bottom: "label"
  top: "accuracy_5"
  include {
    phase: TEST
  }
  accuracy_param {
    top_k: 5
  }
}
I0409 20:16:38.364864 32233 layer_factory.hpp:77] Creating layer data
I0409 20:16:38.365418 32233 net.cpp:100] Creating Layer data
I0409 20:16:38.365430 32233 net.cpp:408] data -> data
I0409 20:16:38.365439 32233 net.cpp:408] data -> label
I0409 20:16:38.369025 32331 db_lmdb.cpp:35] Opened lmdb ../local_data/lmdb/rtsd-r1/CoNorm/test/lmdb
I0409 20:16:38.369156 32233 data_layer.cpp:41] output data size: 1024,3,48,48
I0409 20:16:38.410378 32233 net.cpp:150] Setting up data
I0409 20:16:38.410408 32233 net.cpp:157] Top shape: 1024 3 48 48 (7077888)
I0409 20:16:38.410413 32233 net.cpp:157] Top shape: 1024 (1024)
I0409 20:16:38.410415 32233 net.cpp:165] Memory required for data: 28315648
I0409 20:16:38.410421 32233 layer_factory.hpp:77] Creating layer label_data_1_split
I0409 20:16:38.410435 32233 net.cpp:100] Creating Layer label_data_1_split
I0409 20:16:38.410440 32233 net.cpp:434] label_data_1_split <- label
I0409 20:16:38.410447 32233 net.cpp:408] label_data_1_split -> label_data_1_split_0
I0409 20:16:38.410457 32233 net.cpp:408] label_data_1_split -> label_data_1_split_1
I0409 20:16:38.410464 32233 net.cpp:408] label_data_1_split -> label_data_1_split_2
I0409 20:16:38.410557 32233 net.cpp:150] Setting up label_data_1_split
I0409 20:16:38.410564 32233 net.cpp:157] Top shape: 1024 (1024)
I0409 20:16:38.410568 32233 net.cpp:157] Top shape: 1024 (1024)
I0409 20:16:38.410573 32233 net.cpp:157] Top shape: 1024 (1024)
I0409 20:16:38.410575 32233 net.cpp:165] Memory required for data: 28327936
I0409 20:16:38.410579 32233 layer_factory.hpp:77] Creating layer conv1
I0409 20:16:38.410591 32233 net.cpp:100] Creating Layer conv1
I0409 20:16:38.410596 32233 net.cpp:434] conv1 <- data
I0409 20:16:38.410603 32233 net.cpp:408] conv1 -> conv1
I0409 20:16:38.414428 32233 net.cpp:150] Setting up conv1
I0409 20:16:38.414446 32233 net.cpp:157] Top shape: 1024 100 42 42 (180633600)
I0409 20:16:38.414450 32233 net.cpp:165] Memory required for data: 750862336
I0409 20:16:38.414463 32233 layer_factory.hpp:77] Creating layer conv1_sTanH
I0409 20:16:38.414469 32233 net.cpp:100] Creating Layer conv1_sTanH
I0409 20:16:38.414474 32233 net.cpp:434] conv1_sTanH <- conv1
I0409 20:16:38.414479 32233 net.cpp:395] conv1_sTanH -> conv1 (in-place)
I0409 20:16:38.414654 32233 net.cpp:150] Setting up conv1_sTanH
I0409 20:16:38.414665 32233 net.cpp:157] Top shape: 1024 100 42 42 (180633600)
I0409 20:16:38.414669 32233 net.cpp:165] Memory required for data: 1473396736
I0409 20:16:38.414672 32233 layer_factory.hpp:77] Creating layer pool1
I0409 20:16:38.414680 32233 net.cpp:100] Creating Layer pool1
I0409 20:16:38.414686 32233 net.cpp:434] pool1 <- conv1
I0409 20:16:38.414691 32233 net.cpp:408] pool1 -> pool1
I0409 20:16:38.414737 32233 net.cpp:150] Setting up pool1
I0409 20:16:38.414746 32233 net.cpp:157] Top shape: 1024 100 21 21 (45158400)
I0409 20:16:38.414748 32233 net.cpp:165] Memory required for data: 1654030336
I0409 20:16:38.414752 32233 layer_factory.hpp:77] Creating layer conv2
I0409 20:16:38.414760 32233 net.cpp:100] Creating Layer conv2
I0409 20:16:38.414765 32233 net.cpp:434] conv2 <- pool1
I0409 20:16:38.414770 32233 net.cpp:408] conv2 -> conv2
I0409 20:16:38.418776 32233 net.cpp:150] Setting up conv2
I0409 20:16:38.418792 32233 net.cpp:157] Top shape: 1024 150 18 18 (49766400)
I0409 20:16:38.418797 32233 net.cpp:165] Memory required for data: 1853095936
I0409 20:16:38.418805 32233 layer_factory.hpp:77] Creating layer conv2_sTanH
I0409 20:16:38.418812 32233 net.cpp:100] Creating Layer conv2_sTanH
I0409 20:16:38.418815 32233 net.cpp:434] conv2_sTanH <- conv2
I0409 20:16:38.418822 32233 net.cpp:395] conv2_sTanH -> conv2 (in-place)
I0409 20:16:38.419744 32233 net.cpp:150] Setting up conv2_sTanH
I0409 20:16:38.419759 32233 net.cpp:157] Top shape: 1024 150 18 18 (49766400)
I0409 20:16:38.419762 32233 net.cpp:165] Memory required for data: 2052161536
I0409 20:16:38.419766 32233 layer_factory.hpp:77] Creating layer pool2
I0409 20:16:38.419773 32233 net.cpp:100] Creating Layer pool2
I0409 20:16:38.419776 32233 net.cpp:434] pool2 <- conv2
I0409 20:16:38.419782 32233 net.cpp:408] pool2 -> pool2
I0409 20:16:38.419831 32233 net.cpp:150] Setting up pool2
I0409 20:16:38.419839 32233 net.cpp:157] Top shape: 1024 150 9 9 (12441600)
I0409 20:16:38.419842 32233 net.cpp:165] Memory required for data: 2101927936
I0409 20:16:38.419845 32233 layer_factory.hpp:77] Creating layer conv3
I0409 20:16:38.419855 32233 net.cpp:100] Creating Layer conv3
I0409 20:16:38.419860 32233 net.cpp:434] conv3 <- pool2
I0409 20:16:38.419865 32233 net.cpp:408] conv3 -> conv3
I0409 20:16:38.425947 32233 net.cpp:150] Setting up conv3
I0409 20:16:38.425966 32233 net.cpp:157] Top shape: 1024 250 6 6 (9216000)
I0409 20:16:38.425969 32233 net.cpp:165] Memory required for data: 2138791936
I0409 20:16:38.425981 32233 layer_factory.hpp:77] Creating layer conv3_sTanH
I0409 20:16:38.425988 32233 net.cpp:100] Creating Layer conv3_sTanH
I0409 20:16:38.425992 32233 net.cpp:434] conv3_sTanH <- conv3
I0409 20:16:38.425997 32233 net.cpp:395] conv3_sTanH -> conv3 (in-place)
I0409 20:16:38.426914 32233 net.cpp:150] Setting up conv3_sTanH
I0409 20:16:38.426929 32233 net.cpp:157] Top shape: 1024 250 6 6 (9216000)
I0409 20:16:38.426950 32233 net.cpp:165] Memory required for data: 2175655936
I0409 20:16:38.426954 32233 layer_factory.hpp:77] Creating layer pool3
I0409 20:16:38.426961 32233 net.cpp:100] Creating Layer pool3
I0409 20:16:38.426965 32233 net.cpp:434] pool3 <- conv3
I0409 20:16:38.426971 32233 net.cpp:408] pool3 -> pool3
I0409 20:16:38.427018 32233 net.cpp:150] Setting up pool3
I0409 20:16:38.427027 32233 net.cpp:157] Top shape: 1024 250 3 3 (2304000)
I0409 20:16:38.427031 32233 net.cpp:165] Memory required for data: 2184871936
I0409 20:16:38.427033 32233 layer_factory.hpp:77] Creating layer fc4_300
I0409 20:16:38.427040 32233 net.cpp:100] Creating Layer fc4_300
I0409 20:16:38.427045 32233 net.cpp:434] fc4_300 <- pool3
I0409 20:16:38.427050 32233 net.cpp:408] fc4_300 -> fc4_300
I0409 20:16:38.434253 32233 net.cpp:150] Setting up fc4_300
I0409 20:16:38.434269 32233 net.cpp:157] Top shape: 1024 300 (307200)
I0409 20:16:38.434273 32233 net.cpp:165] Memory required for data: 2186100736
I0409 20:16:38.434280 32233 layer_factory.hpp:77] Creating layer fc4_sTanH
I0409 20:16:38.434286 32233 net.cpp:100] Creating Layer fc4_sTanH
I0409 20:16:38.434290 32233 net.cpp:434] fc4_sTanH <- fc4_300
I0409 20:16:38.434295 32233 net.cpp:395] fc4_sTanH -> fc4_300 (in-place)
I0409 20:16:38.434478 32233 net.cpp:150] Setting up fc4_sTanH
I0409 20:16:38.434491 32233 net.cpp:157] Top shape: 1024 300 (307200)
I0409 20:16:38.434494 32233 net.cpp:165] Memory required for data: 2187329536
I0409 20:16:38.434497 32233 layer_factory.hpp:77] Creating layer drop4
I0409 20:16:38.434504 32233 net.cpp:100] Creating Layer drop4
I0409 20:16:38.434509 32233 net.cpp:434] drop4 <- fc4_300
I0409 20:16:38.434514 32233 net.cpp:395] drop4 -> fc4_300 (in-place)
I0409 20:16:38.434541 32233 net.cpp:150] Setting up drop4
I0409 20:16:38.434548 32233 net.cpp:157] Top shape: 1024 300 (307200)
I0409 20:16:38.434553 32233 net.cpp:165] Memory required for data: 2188558336
I0409 20:16:38.434557 32233 layer_factory.hpp:77] Creating layer fc5_67
I0409 20:16:38.434563 32233 net.cpp:100] Creating Layer fc5_67
I0409 20:16:38.434566 32233 net.cpp:434] fc5_67 <- fc4_300
I0409 20:16:38.434571 32233 net.cpp:408] fc5_67 -> fc5_classes
I0409 20:16:38.434814 32233 net.cpp:150] Setting up fc5_67
I0409 20:16:38.434823 32233 net.cpp:157] Top shape: 1024 67 (68608)
I0409 20:16:38.434826 32233 net.cpp:165] Memory required for data: 2188832768
I0409 20:16:38.434836 32233 layer_factory.hpp:77] Creating layer fc5_classes_fc5_67_0_split
I0409 20:16:38.434844 32233 net.cpp:100] Creating Layer fc5_classes_fc5_67_0_split
I0409 20:16:38.434847 32233 net.cpp:434] fc5_classes_fc5_67_0_split <- fc5_classes
I0409 20:16:38.434852 32233 net.cpp:408] fc5_classes_fc5_67_0_split -> fc5_classes_fc5_67_0_split_0
I0409 20:16:38.434859 32233 net.cpp:408] fc5_classes_fc5_67_0_split -> fc5_classes_fc5_67_0_split_1
I0409 20:16:38.434869 32233 net.cpp:408] fc5_classes_fc5_67_0_split -> fc5_classes_fc5_67_0_split_2
I0409 20:16:38.434916 32233 net.cpp:150] Setting up fc5_classes_fc5_67_0_split
I0409 20:16:38.434922 32233 net.cpp:157] Top shape: 1024 67 (68608)
I0409 20:16:38.434927 32233 net.cpp:157] Top shape: 1024 67 (68608)
I0409 20:16:38.434931 32233 net.cpp:157] Top shape: 1024 67 (68608)
I0409 20:16:38.434934 32233 net.cpp:165] Memory required for data: 2189656064
I0409 20:16:38.434937 32233 layer_factory.hpp:77] Creating layer loss
I0409 20:16:38.434945 32233 net.cpp:100] Creating Layer loss
I0409 20:16:38.434950 32233 net.cpp:434] loss <- fc5_classes_fc5_67_0_split_0
I0409 20:16:38.434954 32233 net.cpp:434] loss <- label_data_1_split_0
I0409 20:16:38.434959 32233 net.cpp:408] loss -> loss
…
