…
I0409 20:36:01.094535 23636 net.cpp:322] The NetState phase (0) differed from the phase (1) specified by a rule in layer accuracy_5
I0409 20:36:01.094635 23636 net.cpp:58] Initializing net from parameters: 
state {
  phase: TRAIN
  level: 0
  stage: ""
}
layer {
  name: "data"
  type: "Data"
  top: "data"
  top: "label"
  include {
    phase: TRAIN
  }
  transform_param {
    mirror: false
    crop_size: 48
    mean_value: 132
    mean_value: 132
    mean_value: 131
  }
  data_param {
    source: "../local_data/lmdb/rtsd-r1/CoNorm/train/lmdb"
    batch_size: 1024
    backend: LMDB
  }
}
layer {
  name: "conv1"
  type: "Convolution"
  bottom: "data"
  top: "conv1"
  convolution_param {
    num_output: 100
    pad: 0
    kernel_size: 7
    group: 1
    stride: 1
    weight_filler {
      type: "xavier"
    }
  }
}
layer {
  name: "conv1_sTanH"
  type: "TanH"
  bottom: "conv1"
  top: "conv1"
}
layer {
  name: "pool1"
  type: "Pooling"
  bottom: "conv1"
  top: "pool1"
  pooling_param {
    pool: MAX
    kernel_size: 2
    stride: 2
  }
}
layer {
  name: "conv2"
  type: "Convolution"
  bottom: "pool1"
  top: "conv2"
  convolution_param {
    num_output: 150
    pad: 0
    kernel_size: 4
    group: 1
    stride: 1
    weight_filler {
      type: "xavier"
    }
  }
}
layer {
  name: "conv2_sTanH"
  type: "TanH"
  bottom: "conv2"
  top: "conv2"
}
layer {
  name: "pool2"
  type: "Pooling"
  bottom: "conv2"
  top: "pool2"
  pooling_param {
    pool: MAX
    kernel_size: 2
    stride: 2
  }
}
layer {
  name: "conv3"
  type: "Convolution"
  bottom: "pool2"
  top: "conv3"
  convolution_param {
    num_output: 250
    pad: 0
    kernel_size: 4
    group: 1
    stride: 1
    weight_filler {
      type: "xavier"
    }
  }
}
layer {
  name: "conv3_sTanH"
  type: "TanH"
  bottom: "conv3"
  top: "conv3"
}
layer {
  name: "pool3"
  type: "Pooling"
  bottom: "conv3"
  top: "pool3"
  pooling_param {
    pool: MAX
    kernel_size: 2
    stride: 2
  }
}
layer {
  name: "fc4_300"
  type: "InnerProduct"
  bottom: "pool3"
  top: "fc4_300"
  inner_product_param {
    num_output: 300
    weight_filler {
      type: "xavier"
    }
  }
}
layer {
  name: "fc4_sTanH"
  type: "TanH"
  bottom: "fc4_300"
  top: "fc4_300"
}
layer {
  name: "drop4"
  type: "Dropout"
  bottom: "fc4_300"
  top: "fc4_300"
  dropout_param {
    dropout_ratio: 0.4
  }
}
layer {
  name: "fc5_67"
  type: "InnerProduct"
  bottom: "fc4_300"
  top: "fc5_classes"
  inner_product_param {
    num_output: 67
    weight_filler {
      type: "xavier"
    }
  }
}
layer {
  name: "loss"
  type: "SoftmaxWithLoss"
  bottom: "fc5_classes"
  bottom: "label"
  top: "loss"
}
I0409 20:36:01.094709 23636 layer_factory.hpp:77] Creating layer data
I0409 20:36:01.096041 23636 net.cpp:100] Creating Layer data
I0409 20:36:01.096060 23636 net.cpp:408] data -> data
I0409 20:36:01.096082 23636 net.cpp:408] data -> label
I0409 20:36:01.097379 23725 db_lmdb.cpp:35] Opened lmdb ../local_data/lmdb/rtsd-r1/CoNorm/train/lmdb
I0409 20:36:01.114032 23636 data_layer.cpp:41] output data size: 1024,3,48,48
I0409 20:36:01.161921 23636 net.cpp:150] Setting up data
I0409 20:36:01.161957 23636 net.cpp:157] Top shape: 1024 3 48 48 (7077888)
I0409 20:36:01.161991 23636 net.cpp:157] Top shape: 1024 (1024)
I0409 20:36:01.161996 23636 net.cpp:165] Memory required for data: 28315648
I0409 20:36:01.162006 23636 layer_factory.hpp:77] Creating layer conv1
I0409 20:36:01.162032 23636 net.cpp:100] Creating Layer conv1
I0409 20:36:01.162040 23636 net.cpp:434] conv1 <- data
I0409 20:36:01.162055 23636 net.cpp:408] conv1 -> conv1
I0409 20:36:01.440004 23636 net.cpp:150] Setting up conv1
I0409 20:36:01.440037 23636 net.cpp:157] Top shape: 1024 100 42 42 (180633600)
I0409 20:36:01.440042 23636 net.cpp:165] Memory required for data: 750850048
I0409 20:36:01.440063 23636 layer_factory.hpp:77] Creating layer conv1_sTanH
I0409 20:36:01.440078 23636 net.cpp:100] Creating Layer conv1_sTanH
I0409 20:36:01.440081 23636 net.cpp:434] conv1_sTanH <- conv1
I0409 20:36:01.440088 23636 net.cpp:395] conv1_sTanH -> conv1 (in-place)
I0409 20:36:01.440284 23636 net.cpp:150] Setting up conv1_sTanH
I0409 20:36:01.440299 23636 net.cpp:157] Top shape: 1024 100 42 42 (180633600)
I0409 20:36:01.440301 23636 net.cpp:165] Memory required for data: 1473384448
I0409 20:36:01.440305 23636 layer_factory.hpp:77] Creating layer pool1
I0409 20:36:01.440313 23636 net.cpp:100] Creating Layer pool1
I0409 20:36:01.440320 23636 net.cpp:434] pool1 <- conv1
I0409 20:36:01.440326 23636 net.cpp:408] pool1 -> pool1
I0409 20:36:01.440381 23636 net.cpp:150] Setting up pool1
I0409 20:36:01.440390 23636 net.cpp:157] Top shape: 1024 100 21 21 (45158400)
I0409 20:36:01.440393 23636 net.cpp:165] Memory required for data: 1654018048
I0409 20:36:01.440397 23636 layer_factory.hpp:77] Creating layer conv2
I0409 20:36:01.440409 23636 net.cpp:100] Creating Layer conv2
I0409 20:36:01.440414 23636 net.cpp:434] conv2 <- pool1
I0409 20:36:01.440419 23636 net.cpp:408] conv2 -> conv2
I0409 20:36:01.444768 23636 net.cpp:150] Setting up conv2
I0409 20:36:01.444787 23636 net.cpp:157] Top shape: 1024 150 18 18 (49766400)
I0409 20:36:01.444790 23636 net.cpp:165] Memory required for data: 1853083648
I0409 20:36:01.444800 23636 layer_factory.hpp:77] Creating layer conv2_sTanH
I0409 20:36:01.444808 23636 net.cpp:100] Creating Layer conv2_sTanH
I0409 20:36:01.444811 23636 net.cpp:434] conv2_sTanH <- conv2
I0409 20:36:01.444816 23636 net.cpp:395] conv2_sTanH -> conv2 (in-place)
I0409 20:36:01.445595 23636 net.cpp:150] Setting up conv2_sTanH
I0409 20:36:01.445613 23636 net.cpp:157] Top shape: 1024 150 18 18 (49766400)
I0409 20:36:01.445617 23636 net.cpp:165] Memory required for data: 2052149248
I0409 20:36:01.445621 23636 layer_factory.hpp:77] Creating layer pool2
I0409 20:36:01.445628 23636 net.cpp:100] Creating Layer pool2
I0409 20:36:01.445631 23636 net.cpp:434] pool2 <- conv2
I0409 20:36:01.445637 23636 net.cpp:408] pool2 -> pool2
I0409 20:36:01.445684 23636 net.cpp:150] Setting up pool2
I0409 20:36:01.445694 23636 net.cpp:157] Top shape: 1024 150 9 9 (12441600)
I0409 20:36:01.445698 23636 net.cpp:165] Memory required for data: 2101915648
I0409 20:36:01.445700 23636 layer_factory.hpp:77] Creating layer conv3
I0409 20:36:01.445709 23636 net.cpp:100] Creating Layer conv3
I0409 20:36:01.445713 23636 net.cpp:434] conv3 <- pool2
I0409 20:36:01.445719 23636 net.cpp:408] conv3 -> conv3
I0409 20:36:01.451159 23636 net.cpp:150] Setting up conv3
I0409 20:36:01.451176 23636 net.cpp:157] Top shape: 1024 250 6 6 (9216000)
I0409 20:36:01.451180 23636 net.cpp:165] Memory required for data: 2138779648
I0409 20:36:01.451190 23636 layer_factory.hpp:77] Creating layer conv3_sTanH
I0409 20:36:01.451198 23636 net.cpp:100] Creating Layer conv3_sTanH
I0409 20:36:01.451202 23636 net.cpp:434] conv3_sTanH <- conv3
I0409 20:36:01.451207 23636 net.cpp:395] conv3_sTanH -> conv3 (in-place)
I0409 20:36:01.452008 23636 net.cpp:150] Setting up conv3_sTanH
I0409 20:36:01.452026 23636 net.cpp:157] Top shape: 1024 250 6 6 (9216000)
I0409 20:36:01.452030 23636 net.cpp:165] Memory required for data: 2175643648
I0409 20:36:01.452033 23636 layer_factory.hpp:77] Creating layer pool3
I0409 20:36:01.452041 23636 net.cpp:100] Creating Layer pool3
I0409 20:36:01.452044 23636 net.cpp:434] pool3 <- conv3
I0409 20:36:01.452072 23636 net.cpp:408] pool3 -> pool3
I0409 20:36:01.452123 23636 net.cpp:150] Setting up pool3
I0409 20:36:01.452133 23636 net.cpp:157] Top shape: 1024 250 3 3 (2304000)
I0409 20:36:01.452137 23636 net.cpp:165] Memory required for data: 2184859648
I0409 20:36:01.452141 23636 layer_factory.hpp:77] Creating layer fc4_300
I0409 20:36:01.452147 23636 net.cpp:100] Creating Layer fc4_300
I0409 20:36:01.452152 23636 net.cpp:434] fc4_300 <- pool3
I0409 20:36:01.452157 23636 net.cpp:408] fc4_300 -> fc4_300
I0409 20:36:01.457551 23636 net.cpp:150] Setting up fc4_300
I0409 20:36:01.457569 23636 net.cpp:157] Top shape: 1024 300 (307200)
I0409 20:36:01.457573 23636 net.cpp:165] Memory required for data: 2186088448
I0409 20:36:01.457581 23636 layer_factory.hpp:77] Creating layer fc4_sTanH
I0409 20:36:01.457587 23636 net.cpp:100] Creating Layer fc4_sTanH
I0409 20:36:01.457590 23636 net.cpp:434] fc4_sTanH <- fc4_300
I0409 20:36:01.457595 23636 net.cpp:395] fc4_sTanH -> fc4_300 (in-place)
I0409 20:36:01.457777 23636 net.cpp:150] Setting up fc4_sTanH
I0409 20:36:01.457788 23636 net.cpp:157] Top shape: 1024 300 (307200)
I0409 20:36:01.457792 23636 net.cpp:165] Memory required for data: 2187317248
I0409 20:36:01.457795 23636 layer_factory.hpp:77] Creating layer drop4
I0409 20:36:01.457803 23636 net.cpp:100] Creating Layer drop4
I0409 20:36:01.457805 23636 net.cpp:434] drop4 <- fc4_300
I0409 20:36:01.457810 23636 net.cpp:395] drop4 -> fc4_300 (in-place)
I0409 20:36:01.457841 23636 net.cpp:150] Setting up drop4
I0409 20:36:01.457849 23636 net.cpp:157] Top shape: 1024 300 (307200)
I0409 20:36:01.457852 23636 net.cpp:165] Memory required for data: 2188546048
I0409 20:36:01.457855 23636 layer_factory.hpp:77] Creating layer fc5_67
I0409 20:36:01.457862 23636 net.cpp:100] Creating Layer fc5_67
I0409 20:36:01.457865 23636 net.cpp:434] fc5_67 <- fc4_300
I0409 20:36:01.457870 23636 net.cpp:408] fc5_67 -> fc5_classes
I0409 20:36:01.459126 23636 net.cpp:150] Setting up fc5_67
I0409 20:36:01.459142 23636 net.cpp:157] Top shape: 1024 67 (68608)
I0409 20:36:01.459146 23636 net.cpp:165] Memory required for data: 2188820480
I0409 20:36:01.459156 23636 layer_factory.hpp:77] Creating layer loss
I0409 20:36:01.459166 23636 net.cpp:100] Creating Layer loss
I0409 20:36:01.459169 23636 net.cpp:434] loss <- fc5_classes
I0409 20:36:01.459174 23636 net.cpp:434] loss <- label
I0409 20:36:01.459180 23636 net.cpp:408] loss -> loss
I0409 20:36:01.459192 23636 layer_factory.hpp:77] Creating layer loss
…
I0409 20:36:01.459852 23636 solver.cpp:193] Creating test net (#0) specified by test_net file: ./Prototxt/experiment_7/rtsd-r1/CoNorm/trial_2/test.prototxt
I0409 20:36:01.459992 23636 net.cpp:58] Initializing net from parameters: 
state {
  phase: TEST
}
layer {
  name: "data"
  type: "Data"
  top: "data"
  top: "label"
  include {
    phase: TEST
  }
  transform_param {
    mirror: false
    crop_size: 48
    mean_value: 133
    mean_value: 133
    mean_value: 132
  }
  data_param {
    source: "../local_data/lmdb/rtsd-r1/CoNorm/test/lmdb"
    batch_size: 1024
    backend: LMDB
  }
}
layer {
  name: "conv1"
  type: "Convolution"
  bottom: "data"
  top: "conv1"
  convolution_param {
    num_output: 100
    pad: 0
    kernel_size: 7
    group: 1
    stride: 1
    weight_filler {
      type: "xavier"
    }
  }
}
layer {
  name: "conv1_sTanH"
  type: "TanH"
  bottom: "conv1"
  top: "conv1"
}
layer {
  name: "pool1"
  type: "Pooling"
  bottom: "conv1"
  top: "pool1"
  pooling_param {
    pool: MAX
    kernel_size: 2
    stride: 2
  }
}
layer {
  name: "conv2"
  type: "Convolution"
  bottom: "pool1"
  top: "conv2"
  convolution_param {
    num_output: 150
    pad: 0
    kernel_size: 4
    group: 1
    stride: 1
    weight_filler {
      type: "xavier"
    }
  }
}
layer {
  name: "conv2_sTanH"
  type: "TanH"
  bottom: "conv2"
  top: "conv2"
}
layer {
  name: "pool2"
  type: "Pooling"
  bottom: "conv2"
  top: "pool2"
  pooling_param {
    pool: MAX
    kernel_size: 2
    stride: 2
  }
}
layer {
  name: "conv3"
  type: "Convolution"
  bottom: "pool2"
  top: "conv3"
  convolution_param {
    num_output: 250
    pad: 0
    kernel_size: 4
    group: 1
    stride: 1
    weight_filler {
      type: "xavier"
    }
  }
}
layer {
  name: "conv3_sTanH"
  type: "TanH"
  bottom: "conv3"
  top: "conv3"
}
layer {
  name: "pool3"
  type: "Pooling"
  bottom: "conv3"
  top: "pool3"
  pooling_param {
    pool: MAX
    kernel_size: 2
    stride: 2
  }
}
layer {
  name: "fc4_300"
  type: "InnerProduct"
  bottom: "pool3"
  top: "fc4_300"
  inner_product_param {
    num_output: 300
    weight_filler {
      type: "xavier"
    }
  }
}
layer {
  name: "fc4_sTanH"
  type: "TanH"
  bottom: "fc4_300"
  top: "fc4_300"
}
layer {
  name: "drop4"
  type: "Dropout"
  bottom: "fc4_300"
  top: "fc4_300"
  dropout_param {
    dropout_ratio: 0.4
  }
}
layer {
  name: "fc5_67"
  type: "InnerProduct"
  bottom: "fc4_300"
  top: "fc5_classes"
  inner_product_param {
    num_output: 67
    weight_filler {
      type: "xavier"
    }
  }
}
layer {
  name: "loss"
  type: "SoftmaxWithLoss"
  bottom: "fc5_classes"
  bottom: "label"
  top: "loss"
}
layer {
  name: "accuracy_1"
  type: "Accuracy"
  bottom: "fc5_classes"
  bottom: "label"
  top: "accuracy_1"
  include {
    phase: TEST
  }
  accuracy_param {
    top_k: 1
  }
}
layer {
  name: "accuracy_5"
  type: "Accuracy"
  bottom: "fc5_classes"
  bottom: "label"
  top: "accuracy_5"
  include {
    phase: TEST
  }
  accuracy_param {
    top_k: 5
  }
}
I0409 20:36:01.460078 23636 layer_factory.hpp:77] Creating layer data
I0409 20:36:01.460700 23636 net.cpp:100] Creating Layer data
I0409 20:36:01.460713 23636 net.cpp:408] data -> data
I0409 20:36:01.460726 23636 net.cpp:408] data -> label
I0409 20:36:01.461987 23752 db_lmdb.cpp:35] Opened lmdb ../local_data/lmdb/rtsd-r1/CoNorm/test/lmdb
I0409 20:36:01.462128 23636 data_layer.cpp:41] output data size: 1024,3,48,48
I0409 20:36:01.519517 23636 net.cpp:150] Setting up data
I0409 20:36:01.519559 23636 net.cpp:157] Top shape: 1024 3 48 48 (7077888)
I0409 20:36:01.519565 23636 net.cpp:157] Top shape: 1024 (1024)
I0409 20:36:01.519568 23636 net.cpp:165] Memory required for data: 28315648
I0409 20:36:01.519575 23636 layer_factory.hpp:77] Creating layer label_data_1_split
I0409 20:36:01.519592 23636 net.cpp:100] Creating Layer label_data_1_split
I0409 20:36:01.519595 23636 net.cpp:434] label_data_1_split <- label
I0409 20:36:01.519603 23636 net.cpp:408] label_data_1_split -> label_data_1_split_0
I0409 20:36:01.519615 23636 net.cpp:408] label_data_1_split -> label_data_1_split_1
I0409 20:36:01.519623 23636 net.cpp:408] label_data_1_split -> label_data_1_split_2
I0409 20:36:01.519778 23636 net.cpp:150] Setting up label_data_1_split
I0409 20:36:01.519789 23636 net.cpp:157] Top shape: 1024 (1024)
I0409 20:36:01.519793 23636 net.cpp:157] Top shape: 1024 (1024)
I0409 20:36:01.519798 23636 net.cpp:157] Top shape: 1024 (1024)
I0409 20:36:01.519800 23636 net.cpp:165] Memory required for data: 28327936
I0409 20:36:01.519804 23636 layer_factory.hpp:77] Creating layer conv1
I0409 20:36:01.519817 23636 net.cpp:100] Creating Layer conv1
I0409 20:36:01.519821 23636 net.cpp:434] conv1 <- data
I0409 20:36:01.519827 23636 net.cpp:408] conv1 -> conv1
I0409 20:36:01.523823 23636 net.cpp:150] Setting up conv1
I0409 20:36:01.523845 23636 net.cpp:157] Top shape: 1024 100 42 42 (180633600)
I0409 20:36:01.523849 23636 net.cpp:165] Memory required for data: 750862336
I0409 20:36:01.523864 23636 layer_factory.hpp:77] Creating layer conv1_sTanH
I0409 20:36:01.523875 23636 net.cpp:100] Creating Layer conv1_sTanH
I0409 20:36:01.523893 23636 net.cpp:434] conv1_sTanH <- conv1
I0409 20:36:01.523900 23636 net.cpp:395] conv1_sTanH -> conv1 (in-place)
I0409 20:36:01.524118 23636 net.cpp:150] Setting up conv1_sTanH
I0409 20:36:01.524132 23636 net.cpp:157] Top shape: 1024 100 42 42 (180633600)
I0409 20:36:01.524135 23636 net.cpp:165] Memory required for data: 1473396736
I0409 20:36:01.524138 23636 layer_factory.hpp:77] Creating layer pool1
I0409 20:36:01.524149 23636 net.cpp:100] Creating Layer pool1
I0409 20:36:01.524153 23636 net.cpp:434] pool1 <- conv1
I0409 20:36:01.524161 23636 net.cpp:408] pool1 -> pool1
I0409 20:36:01.524214 23636 net.cpp:150] Setting up pool1
I0409 20:36:01.524222 23636 net.cpp:157] Top shape: 1024 100 21 21 (45158400)
I0409 20:36:01.524226 23636 net.cpp:165] Memory required for data: 1654030336
I0409 20:36:01.524241 23636 layer_factory.hpp:77] Creating layer conv2
I0409 20:36:01.524253 23636 net.cpp:100] Creating Layer conv2
I0409 20:36:01.524260 23636 net.cpp:434] conv2 <- pool1
I0409 20:36:01.524265 23636 net.cpp:408] conv2 -> conv2
I0409 20:36:01.529634 23636 net.cpp:150] Setting up conv2
I0409 20:36:01.529654 23636 net.cpp:157] Top shape: 1024 150 18 18 (49766400)
I0409 20:36:01.529657 23636 net.cpp:165] Memory required for data: 1853095936
I0409 20:36:01.529669 23636 layer_factory.hpp:77] Creating layer conv2_sTanH
I0409 20:36:01.529675 23636 net.cpp:100] Creating Layer conv2_sTanH
I0409 20:36:01.529680 23636 net.cpp:434] conv2_sTanH <- conv2
I0409 20:36:01.529687 23636 net.cpp:395] conv2_sTanH -> conv2 (in-place)
I0409 20:36:01.530665 23636 net.cpp:150] Setting up conv2_sTanH
I0409 20:36:01.530685 23636 net.cpp:157] Top shape: 1024 150 18 18 (49766400)
I0409 20:36:01.530689 23636 net.cpp:165] Memory required for data: 2052161536
I0409 20:36:01.530692 23636 layer_factory.hpp:77] Creating layer pool2
I0409 20:36:01.530702 23636 net.cpp:100] Creating Layer pool2
I0409 20:36:01.530706 23636 net.cpp:434] pool2 <- conv2
I0409 20:36:01.530714 23636 net.cpp:408] pool2 -> pool2
I0409 20:36:01.530772 23636 net.cpp:150] Setting up pool2
I0409 20:36:01.530784 23636 net.cpp:157] Top shape: 1024 150 9 9 (12441600)
I0409 20:36:01.530787 23636 net.cpp:165] Memory required for data: 2101927936
I0409 20:36:01.530791 23636 layer_factory.hpp:77] Creating layer conv3
I0409 20:36:01.530804 23636 net.cpp:100] Creating Layer conv3
I0409 20:36:01.530808 23636 net.cpp:434] conv3 <- pool2
I0409 20:36:01.530814 23636 net.cpp:408] conv3 -> conv3
I0409 20:36:01.536674 23636 net.cpp:150] Setting up conv3
I0409 20:36:01.536695 23636 net.cpp:157] Top shape: 1024 250 6 6 (9216000)
I0409 20:36:01.536700 23636 net.cpp:165] Memory required for data: 2138791936
I0409 20:36:01.536712 23636 layer_factory.hpp:77] Creating layer conv3_sTanH
I0409 20:36:01.536723 23636 net.cpp:100] Creating Layer conv3_sTanH
I0409 20:36:01.536727 23636 net.cpp:434] conv3_sTanH <- conv3
I0409 20:36:01.536733 23636 net.cpp:395] conv3_sTanH -> conv3 (in-place)
I0409 20:36:01.538719 23636 net.cpp:150] Setting up conv3_sTanH
I0409 20:36:01.538738 23636 net.cpp:157] Top shape: 1024 250 6 6 (9216000)
I0409 20:36:01.538759 23636 net.cpp:165] Memory required for data: 2175655936
I0409 20:36:01.538764 23636 layer_factory.hpp:77] Creating layer pool3
I0409 20:36:01.538774 23636 net.cpp:100] Creating Layer pool3
I0409 20:36:01.538777 23636 net.cpp:434] pool3 <- conv3
I0409 20:36:01.538785 23636 net.cpp:408] pool3 -> pool3
I0409 20:36:01.538839 23636 net.cpp:150] Setting up pool3
I0409 20:36:01.538849 23636 net.cpp:157] Top shape: 1024 250 3 3 (2304000)
I0409 20:36:01.538852 23636 net.cpp:165] Memory required for data: 2184871936
I0409 20:36:01.538858 23636 layer_factory.hpp:77] Creating layer fc4_300
I0409 20:36:01.538869 23636 net.cpp:100] Creating Layer fc4_300
I0409 20:36:01.538874 23636 net.cpp:434] fc4_300 <- pool3
I0409 20:36:01.538879 23636 net.cpp:408] fc4_300 -> fc4_300
I0409 20:36:01.544536 23636 net.cpp:150] Setting up fc4_300
I0409 20:36:01.544553 23636 net.cpp:157] Top shape: 1024 300 (307200)
I0409 20:36:01.544558 23636 net.cpp:165] Memory required for data: 2186100736
I0409 20:36:01.544564 23636 layer_factory.hpp:77] Creating layer fc4_sTanH
I0409 20:36:01.544572 23636 net.cpp:100] Creating Layer fc4_sTanH
I0409 20:36:01.544577 23636 net.cpp:434] fc4_sTanH <- fc4_300
I0409 20:36:01.544582 23636 net.cpp:395] fc4_sTanH -> fc4_300 (in-place)
I0409 20:36:01.544790 23636 net.cpp:150] Setting up fc4_sTanH
I0409 20:36:01.544803 23636 net.cpp:157] Top shape: 1024 300 (307200)
I0409 20:36:01.544806 23636 net.cpp:165] Memory required for data: 2187329536
I0409 20:36:01.544811 23636 layer_factory.hpp:77] Creating layer drop4
I0409 20:36:01.544819 23636 net.cpp:100] Creating Layer drop4
I0409 20:36:01.544823 23636 net.cpp:434] drop4 <- fc4_300
I0409 20:36:01.544828 23636 net.cpp:395] drop4 -> fc4_300 (in-place)
I0409 20:36:01.544862 23636 net.cpp:150] Setting up drop4
I0409 20:36:01.544870 23636 net.cpp:157] Top shape: 1024 300 (307200)
I0409 20:36:01.544874 23636 net.cpp:165] Memory required for data: 2188558336
I0409 20:36:01.544878 23636 layer_factory.hpp:77] Creating layer fc5_67
I0409 20:36:01.544886 23636 net.cpp:100] Creating Layer fc5_67
I0409 20:36:01.544893 23636 net.cpp:434] fc5_67 <- fc4_300
I0409 20:36:01.544898 23636 net.cpp:408] fc5_67 -> fc5_classes
I0409 20:36:01.545163 23636 net.cpp:150] Setting up fc5_67
I0409 20:36:01.545173 23636 net.cpp:157] Top shape: 1024 67 (68608)
I0409 20:36:01.545176 23636 net.cpp:165] Memory required for data: 2188832768
I0409 20:36:01.545187 23636 layer_factory.hpp:77] Creating layer fc5_classes_fc5_67_0_split
I0409 20:36:01.545195 23636 net.cpp:100] Creating Layer fc5_classes_fc5_67_0_split
I0409 20:36:01.545199 23636 net.cpp:434] fc5_classes_fc5_67_0_split <- fc5_classes
I0409 20:36:01.545205 23636 net.cpp:408] fc5_classes_fc5_67_0_split -> fc5_classes_fc5_67_0_split_0
I0409 20:36:01.545212 23636 net.cpp:408] fc5_classes_fc5_67_0_split -> fc5_classes_fc5_67_0_split_1
I0409 20:36:01.545224 23636 net.cpp:408] fc5_classes_fc5_67_0_split -> fc5_classes_fc5_67_0_split_2
I0409 20:36:01.545279 23636 net.cpp:150] Setting up fc5_classes_fc5_67_0_split
I0409 20:36:01.545286 23636 net.cpp:157] Top shape: 1024 67 (68608)
I0409 20:36:01.545290 23636 net.cpp:157] Top shape: 1024 67 (68608)
I0409 20:36:01.545295 23636 net.cpp:157] Top shape: 1024 67 (68608)
I0409 20:36:01.545297 23636 net.cpp:165] Memory required for data: 2189656064
I0409 20:36:01.545300 23636 layer_factory.hpp:77] Creating layer loss
I0409 20:36:01.545310 23636 net.cpp:100] Creating Layer loss
I0409 20:36:01.545312 23636 net.cpp:434] loss <- fc5_classes_fc5_67_0_split_0
I0409 20:36:01.545318 23636 net.cpp:434] loss <- label_data_1_split_0
I0409 20:36:01.545323 23636 net.cpp:408] loss -> loss
…
