…
I0409 21:29:08.641630 16061 net.cpp:322] The NetState phase (0) differed from the phase (1) specified by a rule in layer accuracy_5
I0409 21:29:08.641719 16061 net.cpp:58] Initializing net from parameters: 
state {
  phase: TRAIN
  level: 0
  stage: ""
}
layer {
  name: "data"
  type: "Data"
  top: "data"
  top: "label"
  include {
    phase: TRAIN
  }
  transform_param {
    mirror: false
    crop_size: 48
    mean_value: 132
    mean_value: 132
    mean_value: 131
  }
  data_param {
    source: "../local_data/lmdb/rtsd-r1/CoNorm/train/lmdb"
    batch_size: 1024
    backend: LMDB
  }
}
layer {
  name: "conv1"
  type: "Convolution"
  bottom: "data"
  top: "conv1"
  convolution_param {
    num_output: 100
    pad: 0
    kernel_size: 7
    group: 1
    stride: 1
    weight_filler {
      type: "xavier"
    }
  }
}
layer {
  name: "conv1_sTanH"
  type: "TanH"
  bottom: "conv1"
  top: "conv1"
}
layer {
  name: "pool1"
  type: "Pooling"
  bottom: "conv1"
  top: "pool1"
  pooling_param {
    pool: MAX
    kernel_size: 2
    stride: 2
  }
}
layer {
  name: "conv2"
  type: "Convolution"
  bottom: "pool1"
  top: "conv2"
  convolution_param {
    num_output: 150
    pad: 0
    kernel_size: 4
    group: 1
    stride: 1
    weight_filler {
      type: "xavier"
    }
  }
}
layer {
  name: "conv2_sTanH"
  type: "TanH"
  bottom: "conv2"
  top: "conv2"
}
layer {
  name: "pool2"
  type: "Pooling"
  bottom: "conv2"
  top: "pool2"
  pooling_param {
    pool: MAX
    kernel_size: 2
    stride: 2
  }
}
layer {
  name: "conv3"
  type: "Convolution"
  bottom: "pool2"
  top: "conv3"
  convolution_param {
    num_output: 250
    pad: 0
    kernel_size: 4
    group: 1
    stride: 1
    weight_filler {
      type: "xavier"
    }
  }
}
layer {
  name: "conv3_sTanH"
  type: "TanH"
  bottom: "conv3"
  top: "conv3"
}
layer {
  name: "pool3"
  type: "Pooling"
  bottom: "conv3"
  top: "pool3"
  pooling_param {
    pool: MAX
    kernel_size: 2
    stride: 2
  }
}
layer {
  name: "fc4_300"
  type: "InnerProduct"
  bottom: "pool3"
  top: "fc4_300"
  inner_product_param {
    num_output: 300
    weight_filler {
      type: "xavier"
    }
  }
}
layer {
  name: "fc4_sTanH"
  type: "TanH"
  bottom: "fc4_300"
  top: "fc4_300"
}
layer {
  name: "drop4"
  type: "Dropout"
  bottom: "fc4_300"
  top: "fc4_300"
  dropout_param {
    dropout_ratio: 0.4
  }
}
layer {
  name: "fc5_67"
  type: "InnerProduct"
  bottom: "fc4_300"
  top: "fc5_classes"
  inner_product_param {
    num_output: 67
    weight_filler {
      type: "xavier"
    }
  }
}
layer {
  name: "loss"
  type: "SoftmaxWithLoss"
  bottom: "fc5_classes"
  bottom: "label"
  top: "loss"
}
I0409 21:29:08.641809 16061 layer_factory.hpp:77] Creating layer data
I0409 21:29:08.642918 16061 net.cpp:100] Creating Layer data
I0409 21:29:08.642945 16061 net.cpp:408] data -> data
I0409 21:29:08.642977 16061 net.cpp:408] data -> label
I0409 21:29:08.644440 16142 db_lmdb.cpp:35] Opened lmdb ../local_data/lmdb/rtsd-r1/CoNorm/train/lmdb
I0409 21:29:08.661330 16061 data_layer.cpp:41] output data size: 1024,3,48,48
I0409 21:29:08.704365 16061 net.cpp:150] Setting up data
I0409 21:29:08.704396 16061 net.cpp:157] Top shape: 1024 3 48 48 (7077888)
I0409 21:29:08.704428 16061 net.cpp:157] Top shape: 1024 (1024)
I0409 21:29:08.704432 16061 net.cpp:165] Memory required for data: 28315648
I0409 21:29:08.704442 16061 layer_factory.hpp:77] Creating layer conv1
I0409 21:29:08.704466 16061 net.cpp:100] Creating Layer conv1
I0409 21:29:08.704474 16061 net.cpp:434] conv1 <- data
I0409 21:29:08.704488 16061 net.cpp:408] conv1 -> conv1
I0409 21:29:08.984266 16061 net.cpp:150] Setting up conv1
I0409 21:29:08.984292 16061 net.cpp:157] Top shape: 1024 100 42 42 (180633600)
I0409 21:29:08.984297 16061 net.cpp:165] Memory required for data: 750850048
I0409 21:29:08.984318 16061 layer_factory.hpp:77] Creating layer conv1_sTanH
I0409 21:29:08.984330 16061 net.cpp:100] Creating Layer conv1_sTanH
I0409 21:29:08.984334 16061 net.cpp:434] conv1_sTanH <- conv1
I0409 21:29:08.984352 16061 net.cpp:395] conv1_sTanH -> conv1 (in-place)
I0409 21:29:08.984549 16061 net.cpp:150] Setting up conv1_sTanH
I0409 21:29:08.984561 16061 net.cpp:157] Top shape: 1024 100 42 42 (180633600)
I0409 21:29:08.984565 16061 net.cpp:165] Memory required for data: 1473384448
I0409 21:29:08.984570 16061 layer_factory.hpp:77] Creating layer pool1
I0409 21:29:08.984576 16061 net.cpp:100] Creating Layer pool1
I0409 21:29:08.984580 16061 net.cpp:434] pool1 <- conv1
I0409 21:29:08.984586 16061 net.cpp:408] pool1 -> pool1
I0409 21:29:08.984638 16061 net.cpp:150] Setting up pool1
I0409 21:29:08.984647 16061 net.cpp:157] Top shape: 1024 100 21 21 (45158400)
I0409 21:29:08.984652 16061 net.cpp:165] Memory required for data: 1654018048
I0409 21:29:08.984654 16061 layer_factory.hpp:77] Creating layer conv2
I0409 21:29:08.984669 16061 net.cpp:100] Creating Layer conv2
I0409 21:29:08.984674 16061 net.cpp:434] conv2 <- pool1
I0409 21:29:08.984680 16061 net.cpp:408] conv2 -> conv2
I0409 21:29:08.988999 16061 net.cpp:150] Setting up conv2
I0409 21:29:08.989017 16061 net.cpp:157] Top shape: 1024 150 18 18 (49766400)
I0409 21:29:08.989020 16061 net.cpp:165] Memory required for data: 1853083648
I0409 21:29:08.989029 16061 layer_factory.hpp:77] Creating layer conv2_sTanH
I0409 21:29:08.989037 16061 net.cpp:100] Creating Layer conv2_sTanH
I0409 21:29:08.989039 16061 net.cpp:434] conv2_sTanH <- conv2
I0409 21:29:08.989048 16061 net.cpp:395] conv2_sTanH -> conv2 (in-place)
I0409 21:29:08.989822 16061 net.cpp:150] Setting up conv2_sTanH
I0409 21:29:08.989838 16061 net.cpp:157] Top shape: 1024 150 18 18 (49766400)
I0409 21:29:08.989841 16061 net.cpp:165] Memory required for data: 2052149248
I0409 21:29:08.989845 16061 layer_factory.hpp:77] Creating layer pool2
I0409 21:29:08.989851 16061 net.cpp:100] Creating Layer pool2
I0409 21:29:08.989856 16061 net.cpp:434] pool2 <- conv2
I0409 21:29:08.989862 16061 net.cpp:408] pool2 -> pool2
I0409 21:29:08.989909 16061 net.cpp:150] Setting up pool2
I0409 21:29:08.989918 16061 net.cpp:157] Top shape: 1024 150 9 9 (12441600)
I0409 21:29:08.989922 16061 net.cpp:165] Memory required for data: 2101915648
I0409 21:29:08.989924 16061 layer_factory.hpp:77] Creating layer conv3
I0409 21:29:08.989934 16061 net.cpp:100] Creating Layer conv3
I0409 21:29:08.989938 16061 net.cpp:434] conv3 <- pool2
I0409 21:29:08.989943 16061 net.cpp:408] conv3 -> conv3
I0409 21:29:08.995239 16061 net.cpp:150] Setting up conv3
I0409 21:29:08.995255 16061 net.cpp:157] Top shape: 1024 250 6 6 (9216000)
I0409 21:29:08.995271 16061 net.cpp:165] Memory required for data: 2138779648
I0409 21:29:08.995280 16061 layer_factory.hpp:77] Creating layer conv3_sTanH
I0409 21:29:08.995290 16061 net.cpp:100] Creating Layer conv3_sTanH
I0409 21:29:08.995295 16061 net.cpp:434] conv3_sTanH <- conv3
I0409 21:29:08.995311 16061 net.cpp:395] conv3_sTanH -> conv3 (in-place)
I0409 21:29:08.996093 16061 net.cpp:150] Setting up conv3_sTanH
I0409 21:29:08.996109 16061 net.cpp:157] Top shape: 1024 250 6 6 (9216000)
I0409 21:29:08.996112 16061 net.cpp:165] Memory required for data: 2175643648
I0409 21:29:08.996116 16061 layer_factory.hpp:77] Creating layer pool3
I0409 21:29:08.996124 16061 net.cpp:100] Creating Layer pool3
I0409 21:29:08.996126 16061 net.cpp:434] pool3 <- conv3
I0409 21:29:08.996151 16061 net.cpp:408] pool3 -> pool3
I0409 21:29:08.996201 16061 net.cpp:150] Setting up pool3
I0409 21:29:08.996212 16061 net.cpp:157] Top shape: 1024 250 3 3 (2304000)
I0409 21:29:08.996214 16061 net.cpp:165] Memory required for data: 2184859648
I0409 21:29:08.996217 16061 layer_factory.hpp:77] Creating layer fc4_300
I0409 21:29:08.996227 16061 net.cpp:100] Creating Layer fc4_300
I0409 21:29:08.996229 16061 net.cpp:434] fc4_300 <- pool3
I0409 21:29:08.996234 16061 net.cpp:408] fc4_300 -> fc4_300
I0409 21:29:09.001355 16061 net.cpp:150] Setting up fc4_300
I0409 21:29:09.001370 16061 net.cpp:157] Top shape: 1024 300 (307200)
I0409 21:29:09.001386 16061 net.cpp:165] Memory required for data: 2186088448
I0409 21:29:09.001394 16061 layer_factory.hpp:77] Creating layer fc4_sTanH
I0409 21:29:09.001400 16061 net.cpp:100] Creating Layer fc4_sTanH
I0409 21:29:09.001405 16061 net.cpp:434] fc4_sTanH <- fc4_300
I0409 21:29:09.001408 16061 net.cpp:395] fc4_sTanH -> fc4_300 (in-place)
I0409 21:29:09.001608 16061 net.cpp:150] Setting up fc4_sTanH
I0409 21:29:09.001621 16061 net.cpp:157] Top shape: 1024 300 (307200)
I0409 21:29:09.001624 16061 net.cpp:165] Memory required for data: 2187317248
I0409 21:29:09.001628 16061 layer_factory.hpp:77] Creating layer drop4
I0409 21:29:09.001636 16061 net.cpp:100] Creating Layer drop4
I0409 21:29:09.001641 16061 net.cpp:434] drop4 <- fc4_300
I0409 21:29:09.001647 16061 net.cpp:395] drop4 -> fc4_300 (in-place)
I0409 21:29:09.001678 16061 net.cpp:150] Setting up drop4
I0409 21:29:09.001687 16061 net.cpp:157] Top shape: 1024 300 (307200)
I0409 21:29:09.001689 16061 net.cpp:165] Memory required for data: 2188546048
I0409 21:29:09.001693 16061 layer_factory.hpp:77] Creating layer fc5_67
I0409 21:29:09.001703 16061 net.cpp:100] Creating Layer fc5_67
I0409 21:29:09.001705 16061 net.cpp:434] fc5_67 <- fc4_300
I0409 21:29:09.001710 16061 net.cpp:408] fc5_67 -> fc5_classes
I0409 21:29:09.002887 16061 net.cpp:150] Setting up fc5_67
I0409 21:29:09.002902 16061 net.cpp:157] Top shape: 1024 67 (68608)
I0409 21:29:09.002918 16061 net.cpp:165] Memory required for data: 2188820480
I0409 21:29:09.002928 16061 layer_factory.hpp:77] Creating layer loss
I0409 21:29:09.002935 16061 net.cpp:100] Creating Layer loss
I0409 21:29:09.002938 16061 net.cpp:434] loss <- fc5_classes
I0409 21:29:09.002943 16061 net.cpp:434] loss <- label
I0409 21:29:09.002949 16061 net.cpp:408] loss -> loss
I0409 21:29:09.002961 16061 layer_factory.hpp:77] Creating layer loss
…
I0409 21:29:09.003635 16061 solver.cpp:193] Creating test net (#0) specified by test_net file: ./Prototxt/experiment_7/rtsd-r1/CoNorm/trial_2/test.prototxt
I0409 21:29:09.003760 16061 net.cpp:58] Initializing net from parameters: 
state {
  phase: TEST
}
layer {
  name: "data"
  type: "Data"
  top: "data"
  top: "label"
  include {
    phase: TEST
  }
  transform_param {
    mirror: false
    crop_size: 48
    mean_value: 133
    mean_value: 133
    mean_value: 132
  }
  data_param {
    source: "../local_data/lmdb/rtsd-r1/CoNorm/test/lmdb"
    batch_size: 1024
    backend: LMDB
  }
}
layer {
  name: "conv1"
  type: "Convolution"
  bottom: "data"
  top: "conv1"
  convolution_param {
    num_output: 100
    pad: 0
    kernel_size: 7
    group: 1
    stride: 1
    weight_filler {
      type: "xavier"
    }
  }
}
layer {
  name: "conv1_sTanH"
  type: "TanH"
  bottom: "conv1"
  top: "conv1"
}
layer {
  name: "pool1"
  type: "Pooling"
  bottom: "conv1"
  top: "pool1"
  pooling_param {
    pool: MAX
    kernel_size: 2
    stride: 2
  }
}
layer {
  name: "conv2"
  type: "Convolution"
  bottom: "pool1"
  top: "conv2"
  convolution_param {
    num_output: 150
    pad: 0
    kernel_size: 4
    group: 1
    stride: 1
    weight_filler {
      type: "xavier"
    }
  }
}
layer {
  name: "conv2_sTanH"
  type: "TanH"
  bottom: "conv2"
  top: "conv2"
}
layer {
  name: "pool2"
  type: "Pooling"
  bottom: "conv2"
  top: "pool2"
  pooling_param {
    pool: MAX
    kernel_size: 2
    stride: 2
  }
}
layer {
  name: "conv3"
  type: "Convolution"
  bottom: "pool2"
  top: "conv3"
  convolution_param {
    num_output: 250
    pad: 0
    kernel_size: 4
    group: 1
    stride: 1
    weight_filler {
      type: "xavier"
    }
  }
}
layer {
  name: "conv3_sTanH"
  type: "TanH"
  bottom: "conv3"
  top: "conv3"
}
layer {
  name: "pool3"
  type: "Pooling"
  bottom: "conv3"
  top: "pool3"
  pooling_param {
    pool: MAX
    kernel_size: 2
    stride: 2
  }
}
layer {
  name: "fc4_300"
  type: "InnerProduct"
  bottom: "pool3"
  top: "fc4_300"
  inner_product_param {
    num_output: 300
    weight_filler {
      type: "xavier"
    }
  }
}
layer {
  name: "fc4_sTanH"
  type: "TanH"
  bottom: "fc4_300"
  top: "fc4_300"
}
layer {
  name: "drop4"
  type: "Dropout"
  bottom: "fc4_300"
  top: "fc4_300"
  dropout_param {
    dropout_ratio: 0.4
  }
}
layer {
  name: "fc5_67"
  type: "InnerProduct"
  bottom: "fc4_300"
  top: "fc5_classes"
  inner_product_param {
    num_output: 67
    weight_filler {
      type: "xavier"
    }
  }
}
layer {
  name: "loss"
  type: "SoftmaxWithLoss"
  bottom: "fc5_classes"
  bottom: "label"
  top: "loss"
}
layer {
  name: "accuracy_1"
  type: "Accuracy"
  bottom: "fc5_classes"
  bottom: "label"
  top: "accuracy_1"
  include {
    phase: TEST
  }
  accuracy_param {
    top_k: 1
  }
}
layer {
  name: "accuracy_5"
  type: "Accuracy"
  bottom: "fc5_classes"
  bottom: "label"
  top: "accuracy_5"
  include {
    phase: TEST
  }
  accuracy_param {
    top_k: 5
  }
}
I0409 21:29:09.003882 16061 layer_factory.hpp:77] Creating layer data
I0409 21:29:09.004559 16061 net.cpp:100] Creating Layer data
I0409 21:29:09.004572 16061 net.cpp:408] data -> data
I0409 21:29:09.004582 16061 net.cpp:408] data -> label
I0409 21:29:09.006232 16167 db_lmdb.cpp:35] Opened lmdb ../local_data/lmdb/rtsd-r1/CoNorm/test/lmdb
I0409 21:29:09.006412 16061 data_layer.cpp:41] output data size: 1024,3,48,48
I0409 21:29:09.048683 16061 net.cpp:150] Setting up data
I0409 21:29:09.048712 16061 net.cpp:157] Top shape: 1024 3 48 48 (7077888)
I0409 21:29:09.048717 16061 net.cpp:157] Top shape: 1024 (1024)
I0409 21:29:09.048719 16061 net.cpp:165] Memory required for data: 28315648
I0409 21:29:09.048727 16061 layer_factory.hpp:77] Creating layer label_data_1_split
I0409 21:29:09.048758 16061 net.cpp:100] Creating Layer label_data_1_split
I0409 21:29:09.048763 16061 net.cpp:434] label_data_1_split <- label
I0409 21:29:09.048770 16061 net.cpp:408] label_data_1_split -> label_data_1_split_0
I0409 21:29:09.048782 16061 net.cpp:408] label_data_1_split -> label_data_1_split_1
I0409 21:29:09.048791 16061 net.cpp:408] label_data_1_split -> label_data_1_split_2
I0409 21:29:09.048904 16061 net.cpp:150] Setting up label_data_1_split
I0409 21:29:09.048914 16061 net.cpp:157] Top shape: 1024 (1024)
I0409 21:29:09.048918 16061 net.cpp:157] Top shape: 1024 (1024)
I0409 21:29:09.048921 16061 net.cpp:157] Top shape: 1024 (1024)
I0409 21:29:09.048924 16061 net.cpp:165] Memory required for data: 28327936
I0409 21:29:09.048928 16061 layer_factory.hpp:77] Creating layer conv1
I0409 21:29:09.048941 16061 net.cpp:100] Creating Layer conv1
I0409 21:29:09.048948 16061 net.cpp:434] conv1 <- data
I0409 21:29:09.048954 16061 net.cpp:408] conv1 -> conv1
I0409 21:29:09.056447 16061 net.cpp:150] Setting up conv1
I0409 21:29:09.056465 16061 net.cpp:157] Top shape: 1024 100 42 42 (180633600)
I0409 21:29:09.056469 16061 net.cpp:165] Memory required for data: 750862336
I0409 21:29:09.056483 16061 layer_factory.hpp:77] Creating layer conv1_sTanH
I0409 21:29:09.056489 16061 net.cpp:100] Creating Layer conv1_sTanH
I0409 21:29:09.056493 16061 net.cpp:434] conv1_sTanH <- conv1
I0409 21:29:09.056499 16061 net.cpp:395] conv1_sTanH -> conv1 (in-place)
I0409 21:29:09.056715 16061 net.cpp:150] Setting up conv1_sTanH
I0409 21:29:09.056727 16061 net.cpp:157] Top shape: 1024 100 42 42 (180633600)
I0409 21:29:09.056730 16061 net.cpp:165] Memory required for data: 1473396736
I0409 21:29:09.056735 16061 layer_factory.hpp:77] Creating layer pool1
I0409 21:29:09.056743 16061 net.cpp:100] Creating Layer pool1
I0409 21:29:09.056746 16061 net.cpp:434] pool1 <- conv1
I0409 21:29:09.056753 16061 net.cpp:408] pool1 -> pool1
I0409 21:29:09.056803 16061 net.cpp:150] Setting up pool1
I0409 21:29:09.056814 16061 net.cpp:157] Top shape: 1024 100 21 21 (45158400)
I0409 21:29:09.056818 16061 net.cpp:165] Memory required for data: 1654030336
I0409 21:29:09.056821 16061 layer_factory.hpp:77] Creating layer conv2
I0409 21:29:09.056830 16061 net.cpp:100] Creating Layer conv2
I0409 21:29:09.056835 16061 net.cpp:434] conv2 <- pool1
I0409 21:29:09.056841 16061 net.cpp:408] conv2 -> conv2
I0409 21:29:09.069038 16061 net.cpp:150] Setting up conv2
I0409 21:29:09.069062 16061 net.cpp:157] Top shape: 1024 150 18 18 (49766400)
I0409 21:29:09.069067 16061 net.cpp:165] Memory required for data: 1853095936
I0409 21:29:09.069077 16061 layer_factory.hpp:77] Creating layer conv2_sTanH
I0409 21:29:09.069085 16061 net.cpp:100] Creating Layer conv2_sTanH
I0409 21:29:09.069093 16061 net.cpp:434] conv2_sTanH <- conv2
I0409 21:29:09.069099 16061 net.cpp:395] conv2_sTanH -> conv2 (in-place)
I0409 21:29:09.069876 16061 net.cpp:150] Setting up conv2_sTanH
I0409 21:29:09.069891 16061 net.cpp:157] Top shape: 1024 150 18 18 (49766400)
I0409 21:29:09.069895 16061 net.cpp:165] Memory required for data: 2052161536
I0409 21:29:09.069900 16061 layer_factory.hpp:77] Creating layer pool2
I0409 21:29:09.069908 16061 net.cpp:100] Creating Layer pool2
I0409 21:29:09.069912 16061 net.cpp:434] pool2 <- conv2
I0409 21:29:09.069917 16061 net.cpp:408] pool2 -> pool2
I0409 21:29:09.069973 16061 net.cpp:150] Setting up pool2
I0409 21:29:09.069983 16061 net.cpp:157] Top shape: 1024 150 9 9 (12441600)
I0409 21:29:09.069986 16061 net.cpp:165] Memory required for data: 2101927936
I0409 21:29:09.069989 16061 layer_factory.hpp:77] Creating layer conv3
I0409 21:29:09.070001 16061 net.cpp:100] Creating Layer conv3
I0409 21:29:09.070008 16061 net.cpp:434] conv3 <- pool2
I0409 21:29:09.070015 16061 net.cpp:408] conv3 -> conv3
I0409 21:29:09.075577 16061 net.cpp:150] Setting up conv3
I0409 21:29:09.075595 16061 net.cpp:157] Top shape: 1024 250 6 6 (9216000)
I0409 21:29:09.075599 16061 net.cpp:165] Memory required for data: 2138791936
I0409 21:29:09.075609 16061 layer_factory.hpp:77] Creating layer conv3_sTanH
I0409 21:29:09.075618 16061 net.cpp:100] Creating Layer conv3_sTanH
I0409 21:29:09.075621 16061 net.cpp:434] conv3_sTanH <- conv3
I0409 21:29:09.075626 16061 net.cpp:395] conv3_sTanH -> conv3 (in-place)
I0409 21:29:09.076406 16061 net.cpp:150] Setting up conv3_sTanH
I0409 21:29:09.076421 16061 net.cpp:157] Top shape: 1024 250 6 6 (9216000)
I0409 21:29:09.076442 16061 net.cpp:165] Memory required for data: 2175655936
I0409 21:29:09.076447 16061 layer_factory.hpp:77] Creating layer pool3
I0409 21:29:09.076455 16061 net.cpp:100] Creating Layer pool3
I0409 21:29:09.076459 16061 net.cpp:434] pool3 <- conv3
I0409 21:29:09.076465 16061 net.cpp:408] pool3 -> pool3
I0409 21:29:09.076517 16061 net.cpp:150] Setting up pool3
I0409 21:29:09.076527 16061 net.cpp:157] Top shape: 1024 250 3 3 (2304000)
I0409 21:29:09.076530 16061 net.cpp:165] Memory required for data: 2184871936
I0409 21:29:09.076534 16061 layer_factory.hpp:77] Creating layer fc4_300
I0409 21:29:09.076540 16061 net.cpp:100] Creating Layer fc4_300
I0409 21:29:09.076545 16061 net.cpp:434] fc4_300 <- pool3
I0409 21:29:09.076558 16061 net.cpp:408] fc4_300 -> fc4_300
I0409 21:29:09.081918 16061 net.cpp:150] Setting up fc4_300
I0409 21:29:09.081935 16061 net.cpp:157] Top shape: 1024 300 (307200)
I0409 21:29:09.081938 16061 net.cpp:165] Memory required for data: 2186100736
I0409 21:29:09.081945 16061 layer_factory.hpp:77] Creating layer fc4_sTanH
I0409 21:29:09.081951 16061 net.cpp:100] Creating Layer fc4_sTanH
I0409 21:29:09.081956 16061 net.cpp:434] fc4_sTanH <- fc4_300
I0409 21:29:09.081964 16061 net.cpp:395] fc4_sTanH -> fc4_300 (in-place)
I0409 21:29:09.082157 16061 net.cpp:150] Setting up fc4_sTanH
I0409 21:29:09.082170 16061 net.cpp:157] Top shape: 1024 300 (307200)
I0409 21:29:09.082173 16061 net.cpp:165] Memory required for data: 2187329536
I0409 21:29:09.082176 16061 layer_factory.hpp:77] Creating layer drop4
I0409 21:29:09.082185 16061 net.cpp:100] Creating Layer drop4
I0409 21:29:09.082193 16061 net.cpp:434] drop4 <- fc4_300
I0409 21:29:09.082201 16061 net.cpp:395] drop4 -> fc4_300 (in-place)
I0409 21:29:09.082231 16061 net.cpp:150] Setting up drop4
I0409 21:29:09.082237 16061 net.cpp:157] Top shape: 1024 300 (307200)
I0409 21:29:09.082240 16061 net.cpp:165] Memory required for data: 2188558336
I0409 21:29:09.082244 16061 layer_factory.hpp:77] Creating layer fc5_67
I0409 21:29:09.082252 16061 net.cpp:100] Creating Layer fc5_67
I0409 21:29:09.082255 16061 net.cpp:434] fc5_67 <- fc4_300
I0409 21:29:09.082262 16061 net.cpp:408] fc5_67 -> fc5_classes
I0409 21:29:09.082515 16061 net.cpp:150] Setting up fc5_67
I0409 21:29:09.082523 16061 net.cpp:157] Top shape: 1024 67 (68608)
I0409 21:29:09.082526 16061 net.cpp:165] Memory required for data: 2188832768
I0409 21:29:09.082537 16061 layer_factory.hpp:77] Creating layer fc5_classes_fc5_67_0_split
I0409 21:29:09.082545 16061 net.cpp:100] Creating Layer fc5_classes_fc5_67_0_split
I0409 21:29:09.082548 16061 net.cpp:434] fc5_classes_fc5_67_0_split <- fc5_classes
I0409 21:29:09.082554 16061 net.cpp:408] fc5_classes_fc5_67_0_split -> fc5_classes_fc5_67_0_split_0
I0409 21:29:09.082561 16061 net.cpp:408] fc5_classes_fc5_67_0_split -> fc5_classes_fc5_67_0_split_1
I0409 21:29:09.082568 16061 net.cpp:408] fc5_classes_fc5_67_0_split -> fc5_classes_fc5_67_0_split_2
I0409 21:29:09.082623 16061 net.cpp:150] Setting up fc5_classes_fc5_67_0_split
I0409 21:29:09.082630 16061 net.cpp:157] Top shape: 1024 67 (68608)
I0409 21:29:09.082634 16061 net.cpp:157] Top shape: 1024 67 (68608)
I0409 21:29:09.082638 16061 net.cpp:157] Top shape: 1024 67 (68608)
I0409 21:29:09.082640 16061 net.cpp:165] Memory required for data: 2189656064
I0409 21:29:09.082643 16061 layer_factory.hpp:77] Creating layer loss
I0409 21:29:09.082653 16061 net.cpp:100] Creating Layer loss
I0409 21:29:09.082656 16061 net.cpp:434] loss <- fc5_classes_fc5_67_0_split_0
I0409 21:29:09.082661 16061 net.cpp:434] loss <- label_data_1_split_0
I0409 21:29:09.082666 16061 net.cpp:408] loss -> loss
…
