…
I0528 03:38:41.040789  4008 solver.cpp:81] Creating training net from train_net file: ./Prototxt/experiment_21/RTSD/AHE/trial_2/train.prototxt
I0528 03:38:41.041174  4008 net.cpp:58] Initializing net from parameters: 
state {
  phase: TRAIN
  level: 0
  stage: ""
}
layer {
  name: "data"
  type: "Data"
  top: "data"
  top: "label"
  include {
    phase: TRAIN
  }
  transform_param {
    scale: 0.0039215689
    mirror: false
    crop_size: 48
    mean_value: 133
    mean_value: 127
    mean_value: 126
  }
  data_param {
    source: "../local_data/lmdb/RTSD/AHE/train/lmdb"
    batch_size: 1024
    backend: LMDB
  }
}
layer {
  name: "conv1"
  type: "Convolution"
  bottom: "data"
  top: "conv1"
  convolution_param {
    num_output: 100
    pad: 0
    kernel_size: 7
    group: 1
    stride: 1
    weight_filler {
      type: "xavier"
    }
  }
}
layer {
  name: "conv1_relu"
  type: "ReLU"
  bottom: "conv1"
  top: "conv1"
}
layer {
  name: "pool1"
  type: "Pooling"
  bottom: "conv1"
  top: "pool1"
  pooling_param {
    pool: MAX
    kernel_size: 2
    stride: 2
  }
}
layer {
  name: "conv2"
  type: "Convolution"
  bottom: "pool1"
  top: "conv2"
  convolution_param {
    num_output: 150
    pad: 0
    kernel_size: 4
    group: 1
    stride: 1
    weight_filler {
      type: "xavier"
    }
  }
}
layer {
  name: "conv2_relu"
  type: "ReLU"
  bottom: "conv2"
  top: "conv2"
}
layer {
  name: "pool2"
  type: "Pooling"
  bottom: "conv2"
  top: "pool2"
  pooling_param {
    pool: MAX
    kernel_size: 2
    stride: 2
  }
}
layer {
  name: "conv3"
  type: "Convolution"
  bottom: "pool2"
  top: "conv3"
  convolution_param {
    num_output: 250
    pad: 0
    kernel_size: 4
    group: 1
    stride: 1
    weight_filler {
      type: "xavier"
    }
  }
}
layer {
  name: "conv3_relu"
  type: "ReLU"
  bottom: "conv3"
  top: "conv3"
}
layer {
  name: "pool3"
  type: "Pooling"
  bottom: "conv3"
  top: "pool3"
  pooling_param {
    pool: MAX
    kernel_size: 2
    stride: 2
  }
}
layer {
  name: "fc4_300"
  type: "InnerProduct"
  bottom: "pool3"
  top: "fc4_300"
  inner_product_param {
    num_output: 300
    weight_filler {
      type: "xavier"
    }
  }
}
layer {
  name: "fc4_relu"
  type: "ReLU"
  bottom: "fc4_300"
  top: "fc4_300"
}
layer {
  name: "fc5_116"
  type: "InnerProduct"
  bottom: "fc4_300"
  top: "fc5_classes"
  inner_product_param {
    num_output: 116
    weight_filler {
      type: "xavier"
    }
  }
}
layer {
  name: "softmax"
  type: "Softmax"
  bottom: "fc5_classes"
  top: "softmax"
}
layer {
  name: "loss"
  type: "MultinomialLogisticLoss"
  bottom: "softmax"
  bottom: "label"
  top: "loss"
}
layer {
  name: "accuracy_1"
  type: "Accuracy"
  bottom: "fc5_classes"
  bottom: "label"
  top: "accuracy_1"
  accuracy_param {
    top_k: 1
  }
}
layer {
  name: "accuracy_5"
  type: "Accuracy"
  bottom: "fc5_classes"
  bottom: "label"
  top: "accuracy_5"
  accuracy_param {
    top_k: 5
  }
}
layer {
  name: "silence"
  type: "Silence"
  bottom: "accuracy_1"
  bottom: "accuracy_5"
}
I0528 03:38:41.041270  4008 layer_factory.hpp:77] Creating layer data
I0528 03:38:41.042035  4008 net.cpp:100] Creating Layer data
I0528 03:38:41.042049  4008 net.cpp:408] data -> data
I0528 03:38:41.042069  4008 net.cpp:408] data -> label
I0528 03:38:41.043521  4069 db_lmdb.cpp:35] Opened lmdb ../local_data/lmdb/RTSD/AHE/train/lmdb
I0528 03:38:41.068557  4008 data_layer.cpp:41] output data size: 1024,3,48,48
I0528 03:38:41.112876  4008 net.cpp:150] Setting up data
I0528 03:38:41.112943  4008 net.cpp:157] Top shape: 1024 3 48 48 (7077888)
I0528 03:38:41.112951  4008 net.cpp:157] Top shape: 1024 (1024)
I0528 03:38:41.112954  4008 net.cpp:165] Memory required for data: 28315648
I0528 03:38:41.112963  4008 layer_factory.hpp:77] Creating layer label_data_1_split
I0528 03:38:41.112982  4008 net.cpp:100] Creating Layer label_data_1_split
I0528 03:38:41.112990  4008 net.cpp:434] label_data_1_split <- label
I0528 03:38:41.113008  4008 net.cpp:408] label_data_1_split -> label_data_1_split_0
I0528 03:38:41.113019  4008 net.cpp:408] label_data_1_split -> label_data_1_split_1
I0528 03:38:41.113026  4008 net.cpp:408] label_data_1_split -> label_data_1_split_2
I0528 03:38:41.113082  4008 net.cpp:150] Setting up label_data_1_split
I0528 03:38:41.113091  4008 net.cpp:157] Top shape: 1024 (1024)
I0528 03:38:41.113095  4008 net.cpp:157] Top shape: 1024 (1024)
I0528 03:38:41.113099  4008 net.cpp:157] Top shape: 1024 (1024)
I0528 03:38:41.113102  4008 net.cpp:165] Memory required for data: 28327936
I0528 03:38:41.113106  4008 layer_factory.hpp:77] Creating layer conv1
I0528 03:38:41.113126  4008 net.cpp:100] Creating Layer conv1
I0528 03:38:41.113131  4008 net.cpp:434] conv1 <- data
I0528 03:38:41.113137  4008 net.cpp:408] conv1 -> conv1
I0528 03:38:42.533807  4008 net.cpp:150] Setting up conv1
I0528 03:38:42.533834  4008 net.cpp:157] Top shape: 1024 100 42 42 (180633600)
I0528 03:38:42.533840  4008 net.cpp:165] Memory required for data: 750862336
I0528 03:38:42.533855  4008 layer_factory.hpp:77] Creating layer conv1_relu
I0528 03:38:42.533866  4008 net.cpp:100] Creating Layer conv1_relu
I0528 03:38:42.533871  4008 net.cpp:434] conv1_relu <- conv1
I0528 03:38:42.533877  4008 net.cpp:395] conv1_relu -> conv1 (in-place)
I0528 03:38:42.534016  4008 net.cpp:150] Setting up conv1_relu
I0528 03:38:42.534027  4008 net.cpp:157] Top shape: 1024 100 42 42 (180633600)
I0528 03:38:42.534032  4008 net.cpp:165] Memory required for data: 1473396736
I0528 03:38:42.534036  4008 layer_factory.hpp:77] Creating layer pool1
I0528 03:38:42.534045  4008 net.cpp:100] Creating Layer pool1
I0528 03:38:42.534049  4008 net.cpp:434] pool1 <- conv1
I0528 03:38:42.534054  4008 net.cpp:408] pool1 -> pool1
I0528 03:38:42.534093  4008 net.cpp:150] Setting up pool1
I0528 03:38:42.534101  4008 net.cpp:157] Top shape: 1024 100 21 21 (45158400)
I0528 03:38:42.534106  4008 net.cpp:165] Memory required for data: 1654030336
I0528 03:38:42.534109  4008 layer_factory.hpp:77] Creating layer conv2
I0528 03:38:42.534119  4008 net.cpp:100] Creating Layer conv2
I0528 03:38:42.534123  4008 net.cpp:434] conv2 <- pool1
I0528 03:38:42.534128  4008 net.cpp:408] conv2 -> conv2
I0528 03:38:42.538372  4008 net.cpp:150] Setting up conv2
I0528 03:38:42.538388  4008 net.cpp:157] Top shape: 1024 150 18 18 (49766400)
I0528 03:38:42.538393  4008 net.cpp:165] Memory required for data: 1853095936
I0528 03:38:42.538403  4008 layer_factory.hpp:77] Creating layer conv2_relu
I0528 03:38:42.538411  4008 net.cpp:100] Creating Layer conv2_relu
I0528 03:38:42.538416  4008 net.cpp:434] conv2_relu <- conv2
I0528 03:38:42.538424  4008 net.cpp:395] conv2_relu -> conv2 (in-place)
I0528 03:38:42.538558  4008 net.cpp:150] Setting up conv2_relu
I0528 03:38:42.538570  4008 net.cpp:157] Top shape: 1024 150 18 18 (49766400)
I0528 03:38:42.538576  4008 net.cpp:165] Memory required for data: 2052161536
I0528 03:38:42.538581  4008 layer_factory.hpp:77] Creating layer pool2
I0528 03:38:42.538589  4008 net.cpp:100] Creating Layer pool2
I0528 03:38:42.538594  4008 net.cpp:434] pool2 <- conv2
I0528 03:38:42.538600  4008 net.cpp:408] pool2 -> pool2
I0528 03:38:42.538640  4008 net.cpp:150] Setting up pool2
I0528 03:38:42.538651  4008 net.cpp:157] Top shape: 1024 150 9 9 (12441600)
I0528 03:38:42.538657  4008 net.cpp:165] Memory required for data: 2101927936
I0528 03:38:42.538661  4008 layer_factory.hpp:77] Creating layer conv3
I0528 03:38:42.538673  4008 net.cpp:100] Creating Layer conv3
I0528 03:38:42.538679  4008 net.cpp:434] conv3 <- pool2
I0528 03:38:42.538686  4008 net.cpp:408] conv3 -> conv3
I0528 03:38:42.545047  4008 net.cpp:150] Setting up conv3
I0528 03:38:42.545078  4008 net.cpp:157] Top shape: 1024 250 6 6 (9216000)
I0528 03:38:42.545083  4008 net.cpp:165] Memory required for data: 2138791936
I0528 03:38:42.545099  4008 layer_factory.hpp:77] Creating layer conv3_relu
I0528 03:38:42.545110  4008 net.cpp:100] Creating Layer conv3_relu
I0528 03:38:42.545116  4008 net.cpp:434] conv3_relu <- conv3
I0528 03:38:42.545123  4008 net.cpp:395] conv3_relu -> conv3 (in-place)
I0528 03:38:42.545509  4008 net.cpp:150] Setting up conv3_relu
I0528 03:38:42.545526  4008 net.cpp:157] Top shape: 1024 250 6 6 (9216000)
I0528 03:38:42.545532  4008 net.cpp:165] Memory required for data: 2175655936
I0528 03:38:42.545538  4008 layer_factory.hpp:77] Creating layer pool3
I0528 03:38:42.545550  4008 net.cpp:100] Creating Layer pool3
I0528 03:38:42.545554  4008 net.cpp:434] pool3 <- conv3
I0528 03:38:42.545562  4008 net.cpp:408] pool3 -> pool3
I0528 03:38:42.545599  4008 net.cpp:150] Setting up pool3
I0528 03:38:42.545610  4008 net.cpp:157] Top shape: 1024 250 3 3 (2304000)
I0528 03:38:42.545614  4008 net.cpp:165] Memory required for data: 2184871936
I0528 03:38:42.545619  4008 layer_factory.hpp:77] Creating layer fc4_300
I0528 03:38:42.545627  4008 net.cpp:100] Creating Layer fc4_300
I0528 03:38:42.545632  4008 net.cpp:434] fc4_300 <- pool3
I0528 03:38:42.545637  4008 net.cpp:408] fc4_300 -> fc4_300
I0528 03:38:42.550010  4008 net.cpp:150] Setting up fc4_300
I0528 03:38:42.550031  4008 net.cpp:157] Top shape: 1024 300 (307200)
I0528 03:38:42.550036  4008 net.cpp:165] Memory required for data: 2186100736
I0528 03:38:42.550043  4008 layer_factory.hpp:77] Creating layer fc4_relu
I0528 03:38:42.550051  4008 net.cpp:100] Creating Layer fc4_relu
I0528 03:38:42.550055  4008 net.cpp:434] fc4_relu <- fc4_300
I0528 03:38:42.550065  4008 net.cpp:395] fc4_relu -> fc4_300 (in-place)
I0528 03:38:42.550209  4008 net.cpp:150] Setting up fc4_relu
I0528 03:38:42.550222  4008 net.cpp:157] Top shape: 1024 300 (307200)
I0528 03:38:42.550227  4008 net.cpp:165] Memory required for data: 2187329536
I0528 03:38:42.550232  4008 layer_factory.hpp:77] Creating layer fc5_116
I0528 03:38:42.550241  4008 net.cpp:100] Creating Layer fc5_116
I0528 03:38:42.550246  4008 net.cpp:434] fc5_116 <- fc4_300
I0528 03:38:42.550252  4008 net.cpp:408] fc5_116 -> fc5_classes
I0528 03:38:42.551240  4008 net.cpp:150] Setting up fc5_116
I0528 03:38:42.551254  4008 net.cpp:157] Top shape: 1024 116 (118784)
I0528 03:38:42.551257  4008 net.cpp:165] Memory required for data: 2187804672
I0528 03:38:42.551266  4008 layer_factory.hpp:77] Creating layer fc5_classes_fc5_116_0_split
I0528 03:38:42.551275  4008 net.cpp:100] Creating Layer fc5_classes_fc5_116_0_split
I0528 03:38:42.551278  4008 net.cpp:434] fc5_classes_fc5_116_0_split <- fc5_classes
I0528 03:38:42.551285  4008 net.cpp:408] fc5_classes_fc5_116_0_split -> fc5_classes_fc5_116_0_split_0
I0528 03:38:42.551292  4008 net.cpp:408] fc5_classes_fc5_116_0_split -> fc5_classes_fc5_116_0_split_1
I0528 03:38:42.551297  4008 net.cpp:408] fc5_classes_fc5_116_0_split -> fc5_classes_fc5_116_0_split_2
I0528 03:38:42.551337  4008 net.cpp:150] Setting up fc5_classes_fc5_116_0_split
I0528 03:38:42.551344  4008 net.cpp:157] Top shape: 1024 116 (118784)
I0528 03:38:42.551348  4008 net.cpp:157] Top shape: 1024 116 (118784)
I0528 03:38:42.551352  4008 net.cpp:157] Top shape: 1024 116 (118784)
I0528 03:38:42.551357  4008 net.cpp:165] Memory required for data: 2189230080
I0528 03:38:42.551362  4008 layer_factory.hpp:77] Creating layer softmax
I0528 03:38:42.551369  4008 net.cpp:100] Creating Layer softmax
I0528 03:38:42.551373  4008 net.cpp:434] softmax <- fc5_classes_fc5_116_0_split_0
I0528 03:38:42.551378  4008 net.cpp:408] softmax -> softmax
I0528 03:38:42.551565  4008 net.cpp:150] Setting up softmax
I0528 03:38:42.551578  4008 net.cpp:157] Top shape: 1024 116 (118784)
I0528 03:38:42.551581  4008 net.cpp:165] Memory required for data: 2189705216
I0528 03:38:42.551585  4008 layer_factory.hpp:77] Creating layer loss
I0528 03:38:42.551595  4008 net.cpp:100] Creating Layer loss
I0528 03:38:42.551620  4008 net.cpp:434] loss <- softmax
I0528 03:38:42.551626  4008 net.cpp:434] loss <- label_data_1_split_0
I0528 03:38:42.551633  4008 net.cpp:408] loss -> loss
…
