…
I0506 22:40:28.320108 12279 solver.cpp:93] Creating training net from train_net file: ./Prototxt/experiment_14/RTSD/orig/trial_2/train.prototxt
I0506 22:40:28.320474 12279 net.cpp:58] Initializing net from parameters: 
state {
  phase: TRAIN
  level: 0
  stage: ""
}
layer {
  name: "data"
  type: "Data"
  top: "data"
  top: "label"
  include {
    phase: TRAIN
  }
  transform_param {
    scale: 0.0039215689
    mirror: false
    crop_size: 48
    mean_value: 119
    mean_value: 113
    mean_value: 113
  }
  data_param {
    source: "../local_data/lmdb/RTSD/orig/train/lmdb"
    batch_size: 512
    backend: LMDB
  }
}
layer {
  name: "conv1"
  type: "Convolution"
  bottom: "data"
  top: "conv1"
  convolution_param {
    num_output: 100
    pad: 0
    kernel_size: 7
    group: 1
    stride: 1
    weight_filler {
      type: "xavier"
    }
  }
}
layer {
  name: "conv1_relu"
  type: "ReLU"
  bottom: "conv1"
  top: "conv1"
}
layer {
  name: "pool1"
  type: "Pooling"
  bottom: "conv1"
  top: "pool1"
  pooling_param {
    pool: MAX
    kernel_size: 2
    stride: 2
  }
}
layer {
  name: "conv2"
  type: "Convolution"
  bottom: "pool1"
  top: "conv2"
  convolution_param {
    num_output: 150
    pad: 0
    kernel_size: 4
    group: 1
    stride: 1
    weight_filler {
      type: "xavier"
    }
  }
}
layer {
  name: "conv2_relu"
  type: "ReLU"
  bottom: "conv2"
  top: "conv2"
}
layer {
  name: "pool2"
  type: "Pooling"
  bottom: "conv2"
  top: "pool2"
  pooling_param {
    pool: MAX
    kernel_size: 2
    stride: 2
  }
}
layer {
  name: "conv3"
  type: "Convolution"
  bottom: "pool2"
  top: "conv3"
  convolution_param {
    num_output: 250
    pad: 0
    kernel_size: 4
    group: 1
    stride: 1
    weight_filler {
      type: "xavier"
    }
  }
}
layer {
  name: "conv3_relu"
  type: "ReLU"
  bottom: "conv3"
  top: "conv3"
}
layer {
  name: "pool3"
  type: "Pooling"
  bottom: "conv3"
  top: "pool3"
  pooling_param {
    pool: MAX
    kernel_size: 2
    stride: 2
  }
}
layer {
  name: "fc4_300"
  type: "InnerProduct"
  bottom: "pool3"
  top: "fc4_300"
  inner_product_param {
    num_output: 300
    weight_filler {
      type: "xavier"
    }
  }
}
layer {
  name: "fc4_relu"
  type: "ReLU"
  bottom: "fc4_300"
  top: "fc4_300"
}
layer {
  name: "fc5_116"
  type: "InnerProduct"
  bottom: "fc4_300"
  top: "fc5_classes"
  inner_product_param {
    num_output: 116
    weight_filler {
      type: "xavier"
    }
  }
}
layer {
  name: "softmax"
  type: "Softmax"
  bottom: "fc5_classes"
  top: "softmax"
}
layer {
  name: "loss"
  type: "MultinomialLogisticLoss"
  bottom: "softmax"
  bottom: "label"
  top: "loss"
}
layer {
  name: "accuracy_1"
  type: "Accuracy"
  bottom: "fc5_classes"
  bottom: "label"
  top: "accuracy_1"
  accuracy_param {
    top_k: 1
  }
}
layer {
  name: "accuracy_5"
  type: "Accuracy"
  bottom: "fc5_classes"
  bottom: "label"
  top: "accuracy_5"
  accuracy_param {
    top_k: 5
  }
}
layer {
  name: "silence"
  type: "Silence"
  bottom: "accuracy_1"
  bottom: "accuracy_5"
}
I0506 22:40:28.320601 12279 layer_factory.hpp:77] Creating layer data
I0506 22:40:28.321378 12279 net.cpp:100] Creating Layer data
I0506 22:40:28.321418 12279 net.cpp:408] data -> data
I0506 22:40:28.321454 12279 net.cpp:408] data -> label
I0506 22:40:28.331166 12400 db_lmdb.cpp:35] Opened lmdb ../local_data/lmdb/RTSD/orig/train/lmdb
I0506 22:40:28.349315 12279 data_layer.cpp:41] output data size: 512,3,48,48
I0506 22:40:28.414786 12279 net.cpp:150] Setting up data
I0506 22:40:28.414844 12279 net.cpp:157] Top shape: 512 3 48 48 (3538944)
I0506 22:40:28.414849 12279 net.cpp:157] Top shape: 512 (512)
I0506 22:40:28.414852 12279 net.cpp:165] Memory required for data: 14157824
I0506 22:40:28.414866 12279 layer_factory.hpp:77] Creating layer label_data_1_split
I0506 22:40:28.414881 12279 net.cpp:100] Creating Layer label_data_1_split
I0506 22:40:28.414891 12279 net.cpp:434] label_data_1_split <- label
I0506 22:40:28.414904 12279 net.cpp:408] label_data_1_split -> label_data_1_split_0
I0506 22:40:28.414919 12279 net.cpp:408] label_data_1_split -> label_data_1_split_1
I0506 22:40:28.414927 12279 net.cpp:408] label_data_1_split -> label_data_1_split_2
I0506 22:40:28.414994 12279 net.cpp:150] Setting up label_data_1_split
I0506 22:40:28.415004 12279 net.cpp:157] Top shape: 512 (512)
I0506 22:40:28.415009 12279 net.cpp:157] Top shape: 512 (512)
I0506 22:40:28.415012 12279 net.cpp:157] Top shape: 512 (512)
I0506 22:40:28.415015 12279 net.cpp:165] Memory required for data: 14163968
I0506 22:40:28.415019 12279 layer_factory.hpp:77] Creating layer conv1
I0506 22:40:28.415038 12279 net.cpp:100] Creating Layer conv1
I0506 22:40:28.415043 12279 net.cpp:434] conv1 <- data
I0506 22:40:28.415050 12279 net.cpp:408] conv1 -> conv1
I0506 22:40:28.877676 12279 net.cpp:150] Setting up conv1
I0506 22:40:28.877708 12279 net.cpp:157] Top shape: 512 100 42 42 (90316800)
I0506 22:40:28.877712 12279 net.cpp:165] Memory required for data: 375431168
I0506 22:40:28.877735 12279 layer_factory.hpp:77] Creating layer conv1_relu
I0506 22:40:28.877748 12279 net.cpp:100] Creating Layer conv1_relu
I0506 22:40:28.877754 12279 net.cpp:434] conv1_relu <- conv1
I0506 22:40:28.877761 12279 net.cpp:395] conv1_relu -> conv1 (in-place)
I0506 22:40:28.877975 12279 net.cpp:150] Setting up conv1_relu
I0506 22:40:28.877991 12279 net.cpp:157] Top shape: 512 100 42 42 (90316800)
I0506 22:40:28.877996 12279 net.cpp:165] Memory required for data: 736698368
I0506 22:40:28.878002 12279 layer_factory.hpp:77] Creating layer pool1
I0506 22:40:28.878015 12279 net.cpp:100] Creating Layer pool1
I0506 22:40:28.878021 12279 net.cpp:434] pool1 <- conv1
I0506 22:40:28.878026 12279 net.cpp:408] pool1 -> pool1
I0506 22:40:28.878089 12279 net.cpp:150] Setting up pool1
I0506 22:40:28.878099 12279 net.cpp:157] Top shape: 512 100 21 21 (22579200)
I0506 22:40:28.878103 12279 net.cpp:165] Memory required for data: 827015168
I0506 22:40:28.878108 12279 layer_factory.hpp:77] Creating layer conv2
I0506 22:40:28.878118 12279 net.cpp:100] Creating Layer conv2
I0506 22:40:28.878123 12279 net.cpp:434] conv2 <- pool1
I0506 22:40:28.878132 12279 net.cpp:408] conv2 -> conv2
I0506 22:40:28.886788 12279 net.cpp:150] Setting up conv2
I0506 22:40:28.886806 12279 net.cpp:157] Top shape: 512 150 18 18 (24883200)
I0506 22:40:28.886811 12279 net.cpp:165] Memory required for data: 926547968
I0506 22:40:28.886821 12279 layer_factory.hpp:77] Creating layer conv2_relu
I0506 22:40:28.886827 12279 net.cpp:100] Creating Layer conv2_relu
I0506 22:40:28.886831 12279 net.cpp:434] conv2_relu <- conv2
I0506 22:40:28.886839 12279 net.cpp:395] conv2_relu -> conv2 (in-place)
I0506 22:40:28.887892 12279 net.cpp:150] Setting up conv2_relu
I0506 22:40:28.887908 12279 net.cpp:157] Top shape: 512 150 18 18 (24883200)
I0506 22:40:28.887912 12279 net.cpp:165] Memory required for data: 1026080768
I0506 22:40:28.887917 12279 layer_factory.hpp:77] Creating layer pool2
I0506 22:40:28.887923 12279 net.cpp:100] Creating Layer pool2
I0506 22:40:28.887929 12279 net.cpp:434] pool2 <- conv2
I0506 22:40:28.887938 12279 net.cpp:408] pool2 -> pool2
I0506 22:40:28.887990 12279 net.cpp:150] Setting up pool2
I0506 22:40:28.888000 12279 net.cpp:157] Top shape: 512 150 9 9 (6220800)
I0506 22:40:28.888003 12279 net.cpp:165] Memory required for data: 1050963968
I0506 22:40:28.888007 12279 layer_factory.hpp:77] Creating layer conv3
I0506 22:40:28.888017 12279 net.cpp:100] Creating Layer conv3
I0506 22:40:28.888022 12279 net.cpp:434] conv3 <- pool2
I0506 22:40:28.888029 12279 net.cpp:408] conv3 -> conv3
I0506 22:40:28.894290 12279 net.cpp:150] Setting up conv3
I0506 22:40:28.894310 12279 net.cpp:157] Top shape: 512 250 6 6 (4608000)
I0506 22:40:28.894317 12279 net.cpp:165] Memory required for data: 1069395968
I0506 22:40:28.894327 12279 layer_factory.hpp:77] Creating layer conv3_relu
I0506 22:40:28.894336 12279 net.cpp:100] Creating Layer conv3_relu
I0506 22:40:28.894341 12279 net.cpp:434] conv3_relu <- conv3
I0506 22:40:28.894349 12279 net.cpp:395] conv3_relu -> conv3 (in-place)
I0506 22:40:28.896018 12279 net.cpp:150] Setting up conv3_relu
I0506 22:40:28.896034 12279 net.cpp:157] Top shape: 512 250 6 6 (4608000)
I0506 22:40:28.896039 12279 net.cpp:165] Memory required for data: 1087827968
I0506 22:40:28.896042 12279 layer_factory.hpp:77] Creating layer pool3
I0506 22:40:28.896049 12279 net.cpp:100] Creating Layer pool3
I0506 22:40:28.896056 12279 net.cpp:434] pool3 <- conv3
I0506 22:40:28.896062 12279 net.cpp:408] pool3 -> pool3
I0506 22:40:28.896113 12279 net.cpp:150] Setting up pool3
I0506 22:40:28.896122 12279 net.cpp:157] Top shape: 512 250 3 3 (1152000)
I0506 22:40:28.896126 12279 net.cpp:165] Memory required for data: 1092435968
I0506 22:40:28.896131 12279 layer_factory.hpp:77] Creating layer fc4_300
I0506 22:40:28.896137 12279 net.cpp:100] Creating Layer fc4_300
I0506 22:40:28.896142 12279 net.cpp:434] fc4_300 <- pool3
I0506 22:40:28.896148 12279 net.cpp:408] fc4_300 -> fc4_300
I0506 22:40:28.905647 12279 net.cpp:150] Setting up fc4_300
I0506 22:40:28.905668 12279 net.cpp:157] Top shape: 512 300 (153600)
I0506 22:40:28.905671 12279 net.cpp:165] Memory required for data: 1093050368
I0506 22:40:28.905679 12279 layer_factory.hpp:77] Creating layer fc4_relu
I0506 22:40:28.905685 12279 net.cpp:100] Creating Layer fc4_relu
I0506 22:40:28.905689 12279 net.cpp:434] fc4_relu <- fc4_300
I0506 22:40:28.905695 12279 net.cpp:395] fc4_relu -> fc4_300 (in-place)
I0506 22:40:28.905891 12279 net.cpp:150] Setting up fc4_relu
I0506 22:40:28.905905 12279 net.cpp:157] Top shape: 512 300 (153600)
I0506 22:40:28.905908 12279 net.cpp:165] Memory required for data: 1093664768
I0506 22:40:28.905912 12279 layer_factory.hpp:77] Creating layer fc5_116
I0506 22:40:28.905920 12279 net.cpp:100] Creating Layer fc5_116
I0506 22:40:28.905925 12279 net.cpp:434] fc5_116 <- fc4_300
I0506 22:40:28.905931 12279 net.cpp:408] fc5_116 -> fc5_classes
I0506 22:40:28.908229 12279 net.cpp:150] Setting up fc5_116
I0506 22:40:28.908247 12279 net.cpp:157] Top shape: 512 116 (59392)
I0506 22:40:28.908251 12279 net.cpp:165] Memory required for data: 1093902336
I0506 22:40:28.908262 12279 layer_factory.hpp:77] Creating layer fc5_classes_fc5_116_0_split
I0506 22:40:28.908272 12279 net.cpp:100] Creating Layer fc5_classes_fc5_116_0_split
I0506 22:40:28.908277 12279 net.cpp:434] fc5_classes_fc5_116_0_split <- fc5_classes
I0506 22:40:28.908284 12279 net.cpp:408] fc5_classes_fc5_116_0_split -> fc5_classes_fc5_116_0_split_0
I0506 22:40:28.908293 12279 net.cpp:408] fc5_classes_fc5_116_0_split -> fc5_classes_fc5_116_0_split_1
I0506 22:40:28.908300 12279 net.cpp:408] fc5_classes_fc5_116_0_split -> fc5_classes_fc5_116_0_split_2
I0506 22:40:28.908356 12279 net.cpp:150] Setting up fc5_classes_fc5_116_0_split
I0506 22:40:28.908363 12279 net.cpp:157] Top shape: 512 116 (59392)
I0506 22:40:28.908367 12279 net.cpp:157] Top shape: 512 116 (59392)
I0506 22:40:28.908371 12279 net.cpp:157] Top shape: 512 116 (59392)
I0506 22:40:28.908373 12279 net.cpp:165] Memory required for data: 1094615040
I0506 22:40:28.908377 12279 layer_factory.hpp:77] Creating layer softmax
I0506 22:40:28.908383 12279 net.cpp:100] Creating Layer softmax
I0506 22:40:28.908388 12279 net.cpp:434] softmax <- fc5_classes_fc5_116_0_split_0
I0506 22:40:28.908396 12279 net.cpp:408] softmax -> softmax
I0506 22:40:28.908655 12279 net.cpp:150] Setting up softmax
I0506 22:40:28.908668 12279 net.cpp:157] Top shape: 512 116 (59392)
I0506 22:40:28.908673 12279 net.cpp:165] Memory required for data: 1094852608
I0506 22:40:28.908676 12279 layer_factory.hpp:77] Creating layer loss
I0506 22:40:28.908687 12279 net.cpp:100] Creating Layer loss
I0506 22:40:28.908707 12279 net.cpp:434] loss <- softmax
I0506 22:40:28.908712 12279 net.cpp:434] loss <- label_data_1_split_0
I0506 22:40:28.908720 12279 net.cpp:408] loss -> loss
…
