…
I0414 04:19:50.000680 17287 solver.cpp:93] Creating training net from train_net file: ./Prototxt/experiment_10/rtsd-r1/orig/trial_1/train.prototxt
I0414 04:19:50.001087 17287 net.cpp:58] Initializing net from parameters: 
state {
  phase: TRAIN
  level: 0
  stage: ""
}
layer {
  name: "data"
  type: "Data"
  top: "data"
  top: "label"
  include {
    phase: TRAIN
  }
  transform_param {
    scale: 0.0039215689
    mirror: false
    crop_size: 48
    mean_value: 122
    mean_value: 115
    mean_value: 129
  }
  data_param {
    source: "../local_data/lmdb/rtsd-r1/orig/train/lmdb"
    batch_size: 1024
    backend: LMDB
  }
}
layer {
  name: "conv1"
  type: "Convolution"
  bottom: "data"
  top: "conv1"
  convolution_param {
    num_output: 100
    pad: 0
    kernel_size: 7
    group: 1
    stride: 1
    weight_filler {
      type: "xavier"
    }
  }
}
layer {
  name: "conv1_relu"
  type: "ReLU"
  bottom: "conv1"
  top: "conv1"
}
layer {
  name: "pool1"
  type: "Pooling"
  bottom: "conv1"
  top: "pool1"
  pooling_param {
    pool: MAX
    kernel_size: 2
    stride: 2
  }
}
layer {
  name: "conv2"
  type: "Convolution"
  bottom: "pool1"
  top: "conv2"
  convolution_param {
    num_output: 150
    pad: 0
    kernel_size: 4
    group: 1
    stride: 1
    weight_filler {
      type: "xavier"
    }
  }
}
layer {
  name: "conv2_relu"
  type: "ReLU"
  bottom: "conv2"
  top: "conv2"
}
layer {
  name: "pool2"
  type: "Pooling"
  bottom: "conv2"
  top: "pool2"
  pooling_param {
    pool: MAX
    kernel_size: 2
    stride: 2
  }
}
layer {
  name: "conv3"
  type: "Convolution"
  bottom: "pool2"
  top: "conv3"
  convolution_param {
    num_output: 250
    pad: 0
    kernel_size: 4
    group: 1
    stride: 1
    weight_filler {
      type: "xavier"
    }
  }
}
layer {
  name: "conv3_relu"
  type: "ReLU"
  bottom: "conv3"
  top: "conv3"
}
layer {
  name: "pool3"
  type: "Pooling"
  bottom: "conv3"
  top: "pool3"
  pooling_param {
    pool: MAX
    kernel_size: 2
    stride: 2
  }
}
layer {
  name: "fc4_300"
  type: "InnerProduct"
  bottom: "pool3"
  top: "fc4_300"
  inner_product_param {
    num_output: 300
    weight_filler {
      type: "xavier"
    }
  }
}
layer {
  name: "fc4_relu"
  type: "ReLU"
  bottom: "fc4_300"
  top: "fc4_300"
}
layer {
  name: "fc5_67"
  type: "InnerProduct"
  bottom: "fc4_300"
  top: "fc5_classes"
  inner_product_param {
    num_output: 67
    weight_filler {
      type: "xavier"
    }
  }
}
layer {
  name: "softmax"
  type: "Softmax"
  bottom: "fc5_classes"
  top: "softmax"
}
layer {
  name: "loss"
  type: "MultinomialLogisticLoss"
  bottom: "softmax"
  bottom: "label"
  top: "loss"
}
layer {
  name: "accuracy_1"
  type: "Accuracy"
  bottom: "fc5_classes"
  bottom: "label"
  top: "accuracy_1"
  accuracy_param {
    top_k: 1
  }
}
layer {
  name: "accuracy_5"
  type: "Accuracy"
  bottom: "fc5_classes"
  bottom: "label"
  top: "accuracy_5"
  accuracy_param {
    top_k: 5
  }
}
layer {
  name: "silence"
  type: "Silence"
  bottom: "accuracy_1"
  bottom: "accuracy_5"
}
I0414 04:19:50.001230 17287 layer_factory.hpp:77] Creating layer data
I0414 04:19:50.002744 17287 net.cpp:100] Creating Layer data
I0414 04:19:50.002768 17287 net.cpp:408] data -> data
I0414 04:19:50.002796 17287 net.cpp:408] data -> label
I0414 04:19:50.003757 17387 db_lmdb.cpp:35] Opened lmdb ../local_data/lmdb/rtsd-r1/orig/train/lmdb
I0414 04:19:50.026121 17287 data_layer.cpp:41] output data size: 1024,3,48,48
I0414 04:19:50.091722 17287 net.cpp:150] Setting up data
I0414 04:19:50.091779 17287 net.cpp:157] Top shape: 1024 3 48 48 (7077888)
I0414 04:19:50.091786 17287 net.cpp:157] Top shape: 1024 (1024)
I0414 04:19:50.091790 17287 net.cpp:165] Memory required for data: 28315648
I0414 04:19:50.091804 17287 layer_factory.hpp:77] Creating layer label_data_1_split
I0414 04:19:50.091820 17287 net.cpp:100] Creating Layer label_data_1_split
I0414 04:19:50.091830 17287 net.cpp:434] label_data_1_split <- label
I0414 04:19:50.091845 17287 net.cpp:408] label_data_1_split -> label_data_1_split_0
I0414 04:19:50.091859 17287 net.cpp:408] label_data_1_split -> label_data_1_split_1
I0414 04:19:50.091869 17287 net.cpp:408] label_data_1_split -> label_data_1_split_2
I0414 04:19:50.091962 17287 net.cpp:150] Setting up label_data_1_split
I0414 04:19:50.091974 17287 net.cpp:157] Top shape: 1024 (1024)
I0414 04:19:50.091979 17287 net.cpp:157] Top shape: 1024 (1024)
I0414 04:19:50.091984 17287 net.cpp:157] Top shape: 1024 (1024)
I0414 04:19:50.091989 17287 net.cpp:165] Memory required for data: 28327936
I0414 04:19:50.091992 17287 layer_factory.hpp:77] Creating layer conv1
I0414 04:19:50.092012 17287 net.cpp:100] Creating Layer conv1
I0414 04:19:50.092018 17287 net.cpp:434] conv1 <- data
I0414 04:19:50.092025 17287 net.cpp:408] conv1 -> conv1
I0414 04:19:50.540014 17287 net.cpp:150] Setting up conv1
I0414 04:19:50.540050 17287 net.cpp:157] Top shape: 1024 100 42 42 (180633600)
I0414 04:19:50.540055 17287 net.cpp:165] Memory required for data: 750862336
I0414 04:19:50.540086 17287 layer_factory.hpp:77] Creating layer conv1_relu
I0414 04:19:50.540102 17287 net.cpp:100] Creating Layer conv1_relu
I0414 04:19:50.540112 17287 net.cpp:434] conv1_relu <- conv1
I0414 04:19:50.540122 17287 net.cpp:395] conv1_relu -> conv1 (in-place)
I0414 04:19:50.540395 17287 net.cpp:150] Setting up conv1_relu
I0414 04:19:50.540411 17287 net.cpp:157] Top shape: 1024 100 42 42 (180633600)
I0414 04:19:50.540416 17287 net.cpp:165] Memory required for data: 1473396736
I0414 04:19:50.540422 17287 layer_factory.hpp:77] Creating layer pool1
I0414 04:19:50.540436 17287 net.cpp:100] Creating Layer pool1
I0414 04:19:50.540441 17287 net.cpp:434] pool1 <- conv1
I0414 04:19:50.540449 17287 net.cpp:408] pool1 -> pool1
I0414 04:19:50.540521 17287 net.cpp:150] Setting up pool1
I0414 04:19:50.540534 17287 net.cpp:157] Top shape: 1024 100 21 21 (45158400)
I0414 04:19:50.540540 17287 net.cpp:165] Memory required for data: 1654030336
I0414 04:19:50.540545 17287 layer_factory.hpp:77] Creating layer conv2
I0414 04:19:50.540562 17287 net.cpp:100] Creating Layer conv2
I0414 04:19:50.540570 17287 net.cpp:434] conv2 <- pool1
I0414 04:19:50.540580 17287 net.cpp:408] conv2 -> conv2
I0414 04:19:50.558856 17287 net.cpp:150] Setting up conv2
I0414 04:19:50.558888 17287 net.cpp:157] Top shape: 1024 150 18 18 (49766400)
I0414 04:19:50.558894 17287 net.cpp:165] Memory required for data: 1853095936
I0414 04:19:50.558912 17287 layer_factory.hpp:77] Creating layer conv2_relu
I0414 04:19:50.558924 17287 net.cpp:100] Creating Layer conv2_relu
I0414 04:19:50.558931 17287 net.cpp:434] conv2_relu <- conv2
I0414 04:19:50.558943 17287 net.cpp:395] conv2_relu -> conv2 (in-place)
I0414 04:19:50.560266 17287 net.cpp:150] Setting up conv2_relu
I0414 04:19:50.560287 17287 net.cpp:157] Top shape: 1024 150 18 18 (49766400)
I0414 04:19:50.560294 17287 net.cpp:165] Memory required for data: 2052161536
I0414 04:19:50.560300 17287 layer_factory.hpp:77] Creating layer pool2
I0414 04:19:50.560312 17287 net.cpp:100] Creating Layer pool2
I0414 04:19:50.560317 17287 net.cpp:434] pool2 <- conv2
I0414 04:19:50.560325 17287 net.cpp:408] pool2 -> pool2
I0414 04:19:50.560397 17287 net.cpp:150] Setting up pool2
I0414 04:19:50.560410 17287 net.cpp:157] Top shape: 1024 150 9 9 (12441600)
I0414 04:19:50.560417 17287 net.cpp:165] Memory required for data: 2101927936
I0414 04:19:50.560423 17287 layer_factory.hpp:77] Creating layer conv3
I0414 04:19:50.560444 17287 net.cpp:100] Creating Layer conv3
I0414 04:19:50.560452 17287 net.cpp:434] conv3 <- pool2
I0414 04:19:50.560464 17287 net.cpp:408] conv3 -> conv3
I0414 04:19:50.570484 17287 net.cpp:150] Setting up conv3
I0414 04:19:50.570514 17287 net.cpp:157] Top shape: 1024 250 6 6 (9216000)
I0414 04:19:50.570520 17287 net.cpp:165] Memory required for data: 2138791936
I0414 04:19:50.570539 17287 layer_factory.hpp:77] Creating layer conv3_relu
I0414 04:19:50.570555 17287 net.cpp:100] Creating Layer conv3_relu
I0414 04:19:50.570564 17287 net.cpp:434] conv3_relu <- conv3
I0414 04:19:50.570575 17287 net.cpp:395] conv3_relu -> conv3 (in-place)
I0414 04:19:50.575399 17287 net.cpp:150] Setting up conv3_relu
I0414 04:19:50.575422 17287 net.cpp:157] Top shape: 1024 250 6 6 (9216000)
I0414 04:19:50.575428 17287 net.cpp:165] Memory required for data: 2175655936
I0414 04:19:50.575433 17287 layer_factory.hpp:77] Creating layer pool3
I0414 04:19:50.575446 17287 net.cpp:100] Creating Layer pool3
I0414 04:19:50.575453 17287 net.cpp:434] pool3 <- conv3
I0414 04:19:50.575464 17287 net.cpp:408] pool3 -> pool3
I0414 04:19:50.575536 17287 net.cpp:150] Setting up pool3
I0414 04:19:50.575549 17287 net.cpp:157] Top shape: 1024 250 3 3 (2304000)
I0414 04:19:50.575556 17287 net.cpp:165] Memory required for data: 2184871936
I0414 04:19:50.575562 17287 layer_factory.hpp:77] Creating layer fc4_300
I0414 04:19:50.575575 17287 net.cpp:100] Creating Layer fc4_300
I0414 04:19:50.575584 17287 net.cpp:434] fc4_300 <- pool3
I0414 04:19:50.575594 17287 net.cpp:408] fc4_300 -> fc4_300
I0414 04:19:50.590306 17287 net.cpp:150] Setting up fc4_300
I0414 04:19:50.590327 17287 net.cpp:157] Top shape: 1024 300 (307200)
I0414 04:19:50.590333 17287 net.cpp:165] Memory required for data: 2186100736
I0414 04:19:50.590344 17287 layer_factory.hpp:77] Creating layer fc4_relu
I0414 04:19:50.590355 17287 net.cpp:100] Creating Layer fc4_relu
I0414 04:19:50.590360 17287 net.cpp:434] fc4_relu <- fc4_300
I0414 04:19:50.590374 17287 net.cpp:395] fc4_relu -> fc4_300 (in-place)
I0414 04:19:50.590649 17287 net.cpp:150] Setting up fc4_relu
I0414 04:19:50.590664 17287 net.cpp:157] Top shape: 1024 300 (307200)
I0414 04:19:50.590669 17287 net.cpp:165] Memory required for data: 2187329536
I0414 04:19:50.590674 17287 layer_factory.hpp:77] Creating layer fc5_67
I0414 04:19:50.590687 17287 net.cpp:100] Creating Layer fc5_67
I0414 04:19:50.590693 17287 net.cpp:434] fc5_67 <- fc4_300
I0414 04:19:50.590701 17287 net.cpp:408] fc5_67 -> fc5_classes
I0414 04:19:50.592653 17287 net.cpp:150] Setting up fc5_67
I0414 04:19:50.592674 17287 net.cpp:157] Top shape: 1024 67 (68608)
I0414 04:19:50.592679 17287 net.cpp:165] Memory required for data: 2187603968
I0414 04:19:50.592695 17287 layer_factory.hpp:77] Creating layer fc5_classes_fc5_67_0_split
I0414 04:19:50.592708 17287 net.cpp:100] Creating Layer fc5_classes_fc5_67_0_split
I0414 04:19:50.592716 17287 net.cpp:434] fc5_classes_fc5_67_0_split <- fc5_classes
I0414 04:19:50.592727 17287 net.cpp:408] fc5_classes_fc5_67_0_split -> fc5_classes_fc5_67_0_split_0
I0414 04:19:50.592741 17287 net.cpp:408] fc5_classes_fc5_67_0_split -> fc5_classes_fc5_67_0_split_1
I0414 04:19:50.592754 17287 net.cpp:408] fc5_classes_fc5_67_0_split -> fc5_classes_fc5_67_0_split_2
I0414 04:19:50.592831 17287 net.cpp:150] Setting up fc5_classes_fc5_67_0_split
I0414 04:19:50.592844 17287 net.cpp:157] Top shape: 1024 67 (68608)
I0414 04:19:50.592851 17287 net.cpp:157] Top shape: 1024 67 (68608)
I0414 04:19:50.592859 17287 net.cpp:157] Top shape: 1024 67 (68608)
I0414 04:19:50.592865 17287 net.cpp:165] Memory required for data: 2188427264
I0414 04:19:50.592870 17287 layer_factory.hpp:77] Creating layer softmax
I0414 04:19:50.592883 17287 net.cpp:100] Creating Layer softmax
I0414 04:19:50.592890 17287 net.cpp:434] softmax <- fc5_classes_fc5_67_0_split_0
I0414 04:19:50.592900 17287 net.cpp:408] softmax -> softmax
I0414 04:19:50.593269 17287 net.cpp:150] Setting up softmax
I0414 04:19:50.593287 17287 net.cpp:157] Top shape: 1024 67 (68608)
I0414 04:19:50.593294 17287 net.cpp:165] Memory required for data: 2188701696
I0414 04:19:50.593300 17287 layer_factory.hpp:77] Creating layer loss
I0414 04:19:50.593317 17287 net.cpp:100] Creating Layer loss
I0414 04:19:50.593344 17287 net.cpp:434] loss <- softmax
I0414 04:19:50.593354 17287 net.cpp:434] loss <- label_data_1_split_0
I0414 04:19:50.593365 17287 net.cpp:408] loss -> loss
…
