…
I0412 05:12:40.212000 29236 solver.cpp:93] Creating training net from train_net file: ./Prototxt/experiment_10/rtsd-r1/orig/trial_1/train.prototxt
I0412 05:12:40.212338 29236 net.cpp:58] Initializing net from parameters: 
state {
  phase: TRAIN
  level: 0
  stage: ""
}
layer {
  name: "data"
  type: "Data"
  top: "data"
  top: "label"
  include {
    phase: TRAIN
  }
  transform_param {
    scale: 0.0039215689
    mirror: false
    crop_size: 48
    mean_value: 122
    mean_value: 115
    mean_value: 129
  }
  data_param {
    source: "../local_data/lmdb/rtsd-r1/orig/train/lmdb"
    batch_size: 1024
    backend: LMDB
  }
}
layer {
  name: "conv1"
  type: "Convolution"
  bottom: "data"
  top: "conv1"
  convolution_param {
    num_output: 100
    pad: 0
    kernel_size: 7
    group: 1
    stride: 1
    weight_filler {
      type: "xavier"
    }
  }
}
layer {
  name: "conv1_relu"
  type: "ReLU"
  bottom: "conv1"
  top: "conv1"
}
layer {
  name: "pool1"
  type: "Pooling"
  bottom: "conv1"
  top: "pool1"
  pooling_param {
    pool: MAX
    kernel_size: 2
    stride: 2
  }
}
layer {
  name: "conv2"
  type: "Convolution"
  bottom: "pool1"
  top: "conv2"
  convolution_param {
    num_output: 150
    pad: 0
    kernel_size: 4
    group: 1
    stride: 1
    weight_filler {
      type: "xavier"
    }
  }
}
layer {
  name: "conv2_relu"
  type: "ReLU"
  bottom: "conv2"
  top: "conv2"
}
layer {
  name: "pool2"
  type: "Pooling"
  bottom: "conv2"
  top: "pool2"
  pooling_param {
    pool: MAX
    kernel_size: 2
    stride: 2
  }
}
layer {
  name: "conv3"
  type: "Convolution"
  bottom: "pool2"
  top: "conv3"
  convolution_param {
    num_output: 250
    pad: 0
    kernel_size: 4
    group: 1
    stride: 1
    weight_filler {
      type: "xavier"
    }
  }
}
layer {
  name: "conv3_relu"
  type: "ReLU"
  bottom: "conv3"
  top: "conv3"
}
layer {
  name: "pool3"
  type: "Pooling"
  bottom: "conv3"
  top: "pool3"
  pooling_param {
    pool: MAX
    kernel_size: 2
    stride: 2
  }
}
layer {
  name: "fc4_300"
  type: "InnerProduct"
  bottom: "pool3"
  top: "fc4_300"
  inner_product_param {
    num_output: 300
    weight_filler {
      type: "xavier"
    }
  }
}
layer {
  name: "fc4_relu"
  type: "ReLU"
  bottom: "fc4_300"
  top: "fc4_300"
}
layer {
  name: "drop4"
  type: "Dropout"
  bottom: "fc4_300"
  top: "fc4_300"
  dropout_param {
    dropout_ratio: 0.4
  }
}
layer {
  name: "fc5_67"
  type: "InnerProduct"
  bottom: "fc4_300"
  top: "fc5_classes"
  inner_product_param {
    num_output: 67
    weight_filler {
      type: "xavier"
    }
  }
}
layer {
  name: "softmax"
  type: "Softmax"
  bottom: "fc5_classes"
  top: "softmax"
}
layer {
  name: "loss"
  type: "MultinomialLogisticLoss"
  bottom: "softmax"
  bottom: "label"
  top: "loss"
}
layer {
  name: "accuracy_1"
  type: "Accuracy"
  bottom: "fc5_classes"
  bottom: "label"
  top: "accuracy_1"
  accuracy_param {
    top_k: 1
  }
}
layer {
  name: "accuracy_5"
  type: "Accuracy"
  bottom: "fc5_classes"
  bottom: "label"
  top: "accuracy_5"
  accuracy_param {
    top_k: 5
  }
}
I0412 05:12:40.212460 29236 layer_factory.hpp:77] Creating layer data
I0412 05:12:40.213544 29236 net.cpp:100] Creating Layer data
I0412 05:12:40.213560 29236 net.cpp:408] data -> data
I0412 05:12:40.213583 29236 net.cpp:408] data -> label
I0412 05:12:40.216130 29342 db_lmdb.cpp:35] Opened lmdb ../local_data/lmdb/rtsd-r1/orig/train/lmdb
I0412 05:12:40.237689 29236 data_layer.cpp:41] output data size: 1024,3,48,48
I0412 05:12:40.308791 29236 net.cpp:150] Setting up data
I0412 05:12:40.308821 29236 net.cpp:157] Top shape: 1024 3 48 48 (7077888)
I0412 05:12:40.308827 29236 net.cpp:157] Top shape: 1024 (1024)
I0412 05:12:40.308830 29236 net.cpp:165] Memory required for data: 28315648
I0412 05:12:40.308840 29236 layer_factory.hpp:77] Creating layer label_data_1_split
I0412 05:12:40.308856 29236 net.cpp:100] Creating Layer label_data_1_split
I0412 05:12:40.308862 29236 net.cpp:434] label_data_1_split <- label
I0412 05:12:40.308876 29236 net.cpp:408] label_data_1_split -> label_data_1_split_0
I0412 05:12:40.308892 29236 net.cpp:408] label_data_1_split -> label_data_1_split_1
I0412 05:12:40.308899 29236 net.cpp:408] label_data_1_split -> label_data_1_split_2
I0412 05:12:40.308969 29236 net.cpp:150] Setting up label_data_1_split
I0412 05:12:40.308977 29236 net.cpp:157] Top shape: 1024 (1024)
I0412 05:12:40.308980 29236 net.cpp:157] Top shape: 1024 (1024)
I0412 05:12:40.308984 29236 net.cpp:157] Top shape: 1024 (1024)
I0412 05:12:40.308987 29236 net.cpp:165] Memory required for data: 28327936
I0412 05:12:40.308990 29236 layer_factory.hpp:77] Creating layer conv1
I0412 05:12:40.309008 29236 net.cpp:100] Creating Layer conv1
I0412 05:12:40.309013 29236 net.cpp:434] conv1 <- data
I0412 05:12:40.309020 29236 net.cpp:408] conv1 -> conv1
I0412 05:12:40.652341 29236 net.cpp:150] Setting up conv1
I0412 05:12:40.652382 29236 net.cpp:157] Top shape: 1024 100 42 42 (180633600)
I0412 05:12:40.652386 29236 net.cpp:165] Memory required for data: 750862336
I0412 05:12:40.652408 29236 layer_factory.hpp:77] Creating layer conv1_relu
I0412 05:12:40.652423 29236 net.cpp:100] Creating Layer conv1_relu
I0412 05:12:40.652429 29236 net.cpp:434] conv1_relu <- conv1
I0412 05:12:40.652436 29236 net.cpp:395] conv1_relu -> conv1 (in-place)
I0412 05:12:40.652636 29236 net.cpp:150] Setting up conv1_relu
I0412 05:12:40.652649 29236 net.cpp:157] Top shape: 1024 100 42 42 (180633600)
I0412 05:12:40.652653 29236 net.cpp:165] Memory required for data: 1473396736
I0412 05:12:40.652657 29236 layer_factory.hpp:77] Creating layer pool1
I0412 05:12:40.652667 29236 net.cpp:100] Creating Layer pool1
I0412 05:12:40.652671 29236 net.cpp:434] pool1 <- conv1
I0412 05:12:40.652678 29236 net.cpp:408] pool1 -> pool1
I0412 05:12:40.652732 29236 net.cpp:150] Setting up pool1
I0412 05:12:40.652741 29236 net.cpp:157] Top shape: 1024 100 21 21 (45158400)
I0412 05:12:40.652745 29236 net.cpp:165] Memory required for data: 1654030336
I0412 05:12:40.652750 29236 layer_factory.hpp:77] Creating layer conv2
I0412 05:12:40.652760 29236 net.cpp:100] Creating Layer conv2
I0412 05:12:40.652765 29236 net.cpp:434] conv2 <- pool1
I0412 05:12:40.652770 29236 net.cpp:408] conv2 -> conv2
I0412 05:12:40.659984 29236 net.cpp:150] Setting up conv2
I0412 05:12:40.660004 29236 net.cpp:157] Top shape: 1024 150 18 18 (49766400)
I0412 05:12:40.660008 29236 net.cpp:165] Memory required for data: 1853095936
I0412 05:12:40.660019 29236 layer_factory.hpp:77] Creating layer conv2_relu
I0412 05:12:40.660027 29236 net.cpp:100] Creating Layer conv2_relu
I0412 05:12:40.660032 29236 net.cpp:434] conv2_relu <- conv2
I0412 05:12:40.660038 29236 net.cpp:395] conv2_relu -> conv2 (in-place)
I0412 05:12:40.660913 29236 net.cpp:150] Setting up conv2_relu
I0412 05:12:40.660929 29236 net.cpp:157] Top shape: 1024 150 18 18 (49766400)
I0412 05:12:40.660933 29236 net.cpp:165] Memory required for data: 2052161536
I0412 05:12:40.660936 29236 layer_factory.hpp:77] Creating layer pool2
I0412 05:12:40.660943 29236 net.cpp:100] Creating Layer pool2
I0412 05:12:40.660946 29236 net.cpp:434] pool2 <- conv2
I0412 05:12:40.660953 29236 net.cpp:408] pool2 -> pool2
I0412 05:12:40.661012 29236 net.cpp:150] Setting up pool2
I0412 05:12:40.661021 29236 net.cpp:157] Top shape: 1024 150 9 9 (12441600)
I0412 05:12:40.661026 29236 net.cpp:165] Memory required for data: 2101927936
I0412 05:12:40.661029 29236 layer_factory.hpp:77] Creating layer conv3
I0412 05:12:40.661039 29236 net.cpp:100] Creating Layer conv3
I0412 05:12:40.661044 29236 net.cpp:434] conv3 <- pool2
I0412 05:12:40.661069 29236 net.cpp:408] conv3 -> conv3
I0412 05:12:40.667779 29236 net.cpp:150] Setting up conv3
I0412 05:12:40.667798 29236 net.cpp:157] Top shape: 1024 250 6 6 (9216000)
I0412 05:12:40.667814 29236 net.cpp:165] Memory required for data: 2138791936
I0412 05:12:40.667824 29236 layer_factory.hpp:77] Creating layer conv3_relu
I0412 05:12:40.667831 29236 net.cpp:100] Creating Layer conv3_relu
I0412 05:12:40.667835 29236 net.cpp:434] conv3_relu <- conv3
I0412 05:12:40.667840 29236 net.cpp:395] conv3_relu -> conv3 (in-place)
I0412 05:12:40.668642 29236 net.cpp:150] Setting up conv3_relu
I0412 05:12:40.668658 29236 net.cpp:157] Top shape: 1024 250 6 6 (9216000)
I0412 05:12:40.668673 29236 net.cpp:165] Memory required for data: 2175655936
I0412 05:12:40.668678 29236 layer_factory.hpp:77] Creating layer pool3
I0412 05:12:40.668686 29236 net.cpp:100] Creating Layer pool3
I0412 05:12:40.668690 29236 net.cpp:434] pool3 <- conv3
I0412 05:12:40.668695 29236 net.cpp:408] pool3 -> pool3
I0412 05:12:40.668746 29236 net.cpp:150] Setting up pool3
I0412 05:12:40.668756 29236 net.cpp:157] Top shape: 1024 250 3 3 (2304000)
I0412 05:12:40.668759 29236 net.cpp:165] Memory required for data: 2184871936
I0412 05:12:40.668762 29236 layer_factory.hpp:77] Creating layer fc4_300
I0412 05:12:40.668771 29236 net.cpp:100] Creating Layer fc4_300
I0412 05:12:40.668776 29236 net.cpp:434] fc4_300 <- pool3
I0412 05:12:40.668781 29236 net.cpp:408] fc4_300 -> fc4_300
I0412 05:12:40.674336 29236 net.cpp:150] Setting up fc4_300
I0412 05:12:40.674353 29236 net.cpp:157] Top shape: 1024 300 (307200)
I0412 05:12:40.674357 29236 net.cpp:165] Memory required for data: 2186100736
I0412 05:12:40.674365 29236 layer_factory.hpp:77] Creating layer fc4_relu
I0412 05:12:40.674373 29236 net.cpp:100] Creating Layer fc4_relu
I0412 05:12:40.674378 29236 net.cpp:434] fc4_relu <- fc4_300
I0412 05:12:40.674386 29236 net.cpp:395] fc4_relu -> fc4_300 (in-place)
I0412 05:12:40.674579 29236 net.cpp:150] Setting up fc4_relu
I0412 05:12:40.674592 29236 net.cpp:157] Top shape: 1024 300 (307200)
I0412 05:12:40.674595 29236 net.cpp:165] Memory required for data: 2187329536
I0412 05:12:40.674599 29236 layer_factory.hpp:77] Creating layer drop4
I0412 05:12:40.674607 29236 net.cpp:100] Creating Layer drop4
I0412 05:12:40.674612 29236 net.cpp:434] drop4 <- fc4_300
I0412 05:12:40.674618 29236 net.cpp:395] drop4 -> fc4_300 (in-place)
I0412 05:12:40.674651 29236 net.cpp:150] Setting up drop4
I0412 05:12:40.674659 29236 net.cpp:157] Top shape: 1024 300 (307200)
I0412 05:12:40.674664 29236 net.cpp:165] Memory required for data: 2188558336
I0412 05:12:40.674666 29236 layer_factory.hpp:77] Creating layer fc5_67
I0412 05:12:40.674672 29236 net.cpp:100] Creating Layer fc5_67
I0412 05:12:40.674677 29236 net.cpp:434] fc5_67 <- fc4_300
I0412 05:12:40.674684 29236 net.cpp:408] fc5_67 -> fc5_classes
I0412 05:12:40.676440 29236 net.cpp:150] Setting up fc5_67
I0412 05:12:40.676455 29236 net.cpp:157] Top shape: 1024 67 (68608)
I0412 05:12:40.676460 29236 net.cpp:165] Memory required for data: 2188832768
I0412 05:12:40.676470 29236 layer_factory.hpp:77] Creating layer fc5_classes_fc5_67_0_split
I0412 05:12:40.676481 29236 net.cpp:100] Creating Layer fc5_classes_fc5_67_0_split
I0412 05:12:40.676486 29236 net.cpp:434] fc5_classes_fc5_67_0_split <- fc5_classes
I0412 05:12:40.676492 29236 net.cpp:408] fc5_classes_fc5_67_0_split -> fc5_classes_fc5_67_0_split_0
I0412 05:12:40.676502 29236 net.cpp:408] fc5_classes_fc5_67_0_split -> fc5_classes_fc5_67_0_split_1
I0412 05:12:40.676511 29236 net.cpp:408] fc5_classes_fc5_67_0_split -> fc5_classes_fc5_67_0_split_2
I0412 05:12:40.676568 29236 net.cpp:150] Setting up fc5_classes_fc5_67_0_split
I0412 05:12:40.676574 29236 net.cpp:157] Top shape: 1024 67 (68608)
I0412 05:12:40.676578 29236 net.cpp:157] Top shape: 1024 67 (68608)
I0412 05:12:40.676581 29236 net.cpp:157] Top shape: 1024 67 (68608)
I0412 05:12:40.676584 29236 net.cpp:165] Memory required for data: 2189656064
I0412 05:12:40.676587 29236 layer_factory.hpp:77] Creating layer softmax
I0412 05:12:40.676609 29236 net.cpp:100] Creating Layer softmax
I0412 05:12:40.676614 29236 net.cpp:434] softmax <- fc5_classes_fc5_67_0_split_0
I0412 05:12:40.676620 29236 net.cpp:408] softmax -> softmax
I0412 05:12:40.676880 29236 net.cpp:150] Setting up softmax
I0412 05:12:40.676894 29236 net.cpp:157] Top shape: 1024 67 (68608)
I0412 05:12:40.676898 29236 net.cpp:165] Memory required for data: 2189930496
I0412 05:12:40.676903 29236 layer_factory.hpp:77] Creating layer loss
I0412 05:12:40.676908 29236 net.cpp:100] Creating Layer loss
I0412 05:12:40.676913 29236 net.cpp:434] loss <- softmax
I0412 05:12:40.676918 29236 net.cpp:434] loss <- label_data_1_split_0
I0412 05:12:40.676923 29236 net.cpp:408] loss -> loss
…
