…
I0508 02:34:23.990948  1413 solver.cpp:93] Creating training net from train_net file: ./Prototxt/experiment_16/RTSD/CoNorm/trial_1/train.prototxt
I0508 02:34:23.991513  1413 net.cpp:58] Initializing net from parameters: 
state {
  phase: TRAIN
  level: 0
  stage: ""
}
layer {
  name: "data"
  type: "Data"
  top: "data"
  top: "label"
  include {
    phase: TRAIN
  }
  transform_param {
    scale: 0.0039215689
    mirror: false
    crop_size: 48
    mean_value: 135
    mean_value: 135
    mean_value: 134
  }
  data_param {
    source: "../local_data/lmdb/RTSD/CoNorm/train/lmdb"
    batch_size: 1024
    backend: LMDB
  }
}
layer {
  name: "conv1"
  type: "Convolution"
  bottom: "data"
  top: "conv1"
  convolution_param {
    num_output: 100
    pad: 0
    kernel_size: 7
    group: 1
    stride: 1
    weight_filler {
      type: "xavier"
    }
  }
}
layer {
  name: "conv1_relu"
  type: "ReLU"
  bottom: "conv1"
  top: "conv1"
}
layer {
  name: "pool1"
  type: "Pooling"
  bottom: "conv1"
  top: "pool1"
  pooling_param {
    pool: MAX
    kernel_size: 2
    stride: 2
  }
}
layer {
  name: "conv2"
  type: "Convolution"
  bottom: "pool1"
  top: "conv2"
  convolution_param {
    num_output: 150
    pad: 0
    kernel_size: 4
    group: 2
    stride: 1
    weight_filler {
      type: "xavier"
    }
  }
}
layer {
  name: "conv2_relu"
  type: "ReLU"
  bottom: "conv2"
  top: "conv2"
}
layer {
  name: "pool2"
  type: "Pooling"
  bottom: "conv2"
  top: "pool2"
  pooling_param {
    pool: MAX
    kernel_size: 2
    stride: 2
  }
}
layer {
  name: "conv3"
  type: "Convolution"
  bottom: "pool2"
  top: "conv3"
  convolution_param {
    num_output: 250
    pad: 0
    kernel_size: 4
    group: 2
    stride: 1
    weight_filler {
      type: "xavier"
    }
  }
}
layer {
  name: "conv3_relu"
  type: "ReLU"
  bottom: "conv3"
  top: "conv3"
}
layer {
  name: "pool3"
  type: "Pooling"
  bottom: "conv3"
  top: "pool3"
  pooling_param {
    pool: MAX
    kernel_size: 2
    stride: 2
  }
}
layer {
  name: "fc4_300"
  type: "InnerProduct"
  bottom: "pool3"
  top: "fc4_300"
  inner_product_param {
    num_output: 300
    weight_filler {
      type: "xavier"
    }
  }
}
layer {
  name: "fc4_relu"
  type: "ReLU"
  bottom: "fc4_300"
  top: "fc4_300"
}
layer {
  name: "fc5_116"
  type: "InnerProduct"
  bottom: "fc4_300"
  top: "fc5_classes"
  inner_product_param {
    num_output: 116
    weight_filler {
      type: "xavier"
    }
  }
}
layer {
  name: "softmax"
  type: "Softmax"
  bottom: "fc5_classes"
  top: "softmax"
}
layer {
  name: "loss"
  type: "MultinomialLogisticLoss"
  bottom: "softmax"
  bottom: "label"
  top: "loss"
}
layer {
  name: "accuracy_1"
  type: "Accuracy"
  bottom: "fc5_classes"
  bottom: "label"
  top: "accuracy_1"
  accuracy_param {
    top_k: 1
  }
}
layer {
  name: "accuracy_5"
  type: "Accuracy"
  bottom: "fc5_classes"
  bottom: "label"
  top: "accuracy_5"
  accuracy_param {
    top_k: 5
  }
}
layer {
  name: "silence"
  type: "Silence"
  bottom: "accuracy_1"
  bottom: "accuracy_5"
}
I0508 02:34:23.991710  1413 layer_factory.hpp:77] Creating layer data
I0508 02:34:23.993897  1413 net.cpp:100] Creating Layer data
I0508 02:34:23.993929  1413 net.cpp:408] data -> data
I0508 02:34:23.993969  1413 net.cpp:408] data -> label
I0508 02:34:24.416918  1536 db_lmdb.cpp:35] Opened lmdb ../local_data/lmdb/RTSD/CoNorm/train/lmdb
I0508 02:34:24.452541  1413 data_layer.cpp:41] output data size: 1024,3,48,48
I0508 02:34:24.534153  1413 net.cpp:150] Setting up data
I0508 02:34:24.534205  1413 net.cpp:157] Top shape: 1024 3 48 48 (7077888)
I0508 02:34:24.534211  1413 net.cpp:157] Top shape: 1024 (1024)
I0508 02:34:24.534215  1413 net.cpp:165] Memory required for data: 28315648
I0508 02:34:24.534226  1413 layer_factory.hpp:77] Creating layer label_data_1_split
I0508 02:34:24.534240  1413 net.cpp:100] Creating Layer label_data_1_split
I0508 02:34:24.534246  1413 net.cpp:434] label_data_1_split <- label
I0508 02:34:24.534265  1413 net.cpp:408] label_data_1_split -> label_data_1_split_0
I0508 02:34:24.534278  1413 net.cpp:408] label_data_1_split -> label_data_1_split_1
I0508 02:34:24.534286  1413 net.cpp:408] label_data_1_split -> label_data_1_split_2
I0508 02:34:24.534350  1413 net.cpp:150] Setting up label_data_1_split
I0508 02:34:24.534359  1413 net.cpp:157] Top shape: 1024 (1024)
I0508 02:34:24.534365  1413 net.cpp:157] Top shape: 1024 (1024)
I0508 02:34:24.534369  1413 net.cpp:157] Top shape: 1024 (1024)
I0508 02:34:24.534373  1413 net.cpp:165] Memory required for data: 28327936
I0508 02:34:24.534376  1413 layer_factory.hpp:77] Creating layer conv1
I0508 02:34:24.534399  1413 net.cpp:100] Creating Layer conv1
I0508 02:34:24.534404  1413 net.cpp:434] conv1 <- data
I0508 02:34:24.534412  1413 net.cpp:408] conv1 -> conv1
I0508 02:34:24.590678  1583 blocking_queue.cpp:50] Waiting for data
I0508 02:34:24.935163  1413 net.cpp:150] Setting up conv1
I0508 02:34:24.935194  1413 net.cpp:157] Top shape: 1024 100 42 42 (180633600)
I0508 02:34:24.935199  1413 net.cpp:165] Memory required for data: 750862336
I0508 02:34:24.935225  1413 layer_factory.hpp:77] Creating layer conv1_relu
I0508 02:34:24.935238  1413 net.cpp:100] Creating Layer conv1_relu
I0508 02:34:24.935245  1413 net.cpp:434] conv1_relu <- conv1
I0508 02:34:24.935251  1413 net.cpp:395] conv1_relu -> conv1 (in-place)
I0508 02:34:24.935484  1413 net.cpp:150] Setting up conv1_relu
I0508 02:34:24.935499  1413 net.cpp:157] Top shape: 1024 100 42 42 (180633600)
I0508 02:34:24.935503  1413 net.cpp:165] Memory required for data: 1473396736
I0508 02:34:24.935508  1413 layer_factory.hpp:77] Creating layer pool1
I0508 02:34:24.935519  1413 net.cpp:100] Creating Layer pool1
I0508 02:34:24.935524  1413 net.cpp:434] pool1 <- conv1
I0508 02:34:24.935530  1413 net.cpp:408] pool1 -> pool1
I0508 02:34:24.935593  1413 net.cpp:150] Setting up pool1
I0508 02:34:24.935602  1413 net.cpp:157] Top shape: 1024 100 21 21 (45158400)
I0508 02:34:24.935606  1413 net.cpp:165] Memory required for data: 1654030336
I0508 02:34:24.935611  1413 layer_factory.hpp:77] Creating layer conv2
I0508 02:34:24.935622  1413 net.cpp:100] Creating Layer conv2
I0508 02:34:24.935627  1413 net.cpp:434] conv2 <- pool1
I0508 02:34:24.935633  1413 net.cpp:408] conv2 -> conv2
I0508 02:34:24.950173  1413 net.cpp:150] Setting up conv2
I0508 02:34:24.950194  1413 net.cpp:157] Top shape: 1024 150 18 18 (49766400)
I0508 02:34:24.950201  1413 net.cpp:165] Memory required for data: 1853095936
I0508 02:34:24.950213  1413 layer_factory.hpp:77] Creating layer conv2_relu
I0508 02:34:24.950224  1413 net.cpp:100] Creating Layer conv2_relu
I0508 02:34:24.950230  1413 net.cpp:434] conv2_relu <- conv2
I0508 02:34:24.950237  1413 net.cpp:395] conv2_relu -> conv2 (in-place)
I0508 02:34:24.950448  1413 net.cpp:150] Setting up conv2_relu
I0508 02:34:24.950461  1413 net.cpp:157] Top shape: 1024 150 18 18 (49766400)
I0508 02:34:24.950466  1413 net.cpp:165] Memory required for data: 2052161536
I0508 02:34:24.950470  1413 layer_factory.hpp:77] Creating layer pool2
I0508 02:34:24.950479  1413 net.cpp:100] Creating Layer pool2
I0508 02:34:24.950484  1413 net.cpp:434] pool2 <- conv2
I0508 02:34:24.950490  1413 net.cpp:408] pool2 -> pool2
I0508 02:34:24.950546  1413 net.cpp:150] Setting up pool2
I0508 02:34:24.950556  1413 net.cpp:157] Top shape: 1024 150 9 9 (12441600)
I0508 02:34:24.950561  1413 net.cpp:165] Memory required for data: 2101927936
I0508 02:34:24.950563  1413 layer_factory.hpp:77] Creating layer conv3
I0508 02:34:24.950575  1413 net.cpp:100] Creating Layer conv3
I0508 02:34:24.950582  1413 net.cpp:434] conv3 <- pool2
I0508 02:34:24.950613  1413 net.cpp:408] conv3 -> conv3
I0508 02:34:24.958919  1413 net.cpp:150] Setting up conv3
I0508 02:34:24.958940  1413 net.cpp:157] Top shape: 1024 250 6 6 (9216000)
I0508 02:34:24.958947  1413 net.cpp:165] Memory required for data: 2138791936
I0508 02:34:24.958961  1413 layer_factory.hpp:77] Creating layer conv3_relu
I0508 02:34:24.958973  1413 net.cpp:100] Creating Layer conv3_relu
I0508 02:34:24.958981  1413 net.cpp:434] conv3_relu <- conv3
I0508 02:34:24.958988  1413 net.cpp:395] conv3_relu -> conv3 (in-place)
I0508 02:34:24.959228  1413 net.cpp:150] Setting up conv3_relu
I0508 02:34:24.959244  1413 net.cpp:157] Top shape: 1024 250 6 6 (9216000)
I0508 02:34:24.959249  1413 net.cpp:165] Memory required for data: 2175655936
I0508 02:34:24.959254  1413 layer_factory.hpp:77] Creating layer pool3
I0508 02:34:24.959261  1413 net.cpp:100] Creating Layer pool3
I0508 02:34:24.959266  1413 net.cpp:434] pool3 <- conv3
I0508 02:34:24.959275  1413 net.cpp:408] pool3 -> pool3
I0508 02:34:24.959332  1413 net.cpp:150] Setting up pool3
I0508 02:34:24.959345  1413 net.cpp:157] Top shape: 1024 250 3 3 (2304000)
I0508 02:34:24.959352  1413 net.cpp:165] Memory required for data: 2184871936
I0508 02:34:24.959355  1413 layer_factory.hpp:77] Creating layer fc4_300
I0508 02:34:24.959363  1413 net.cpp:100] Creating Layer fc4_300
I0508 02:34:24.959368  1413 net.cpp:434] fc4_300 <- pool3
I0508 02:34:24.959374  1413 net.cpp:408] fc4_300 -> fc4_300
I0508 02:34:24.978644  1413 net.cpp:150] Setting up fc4_300
I0508 02:34:24.978668  1413 net.cpp:157] Top shape: 1024 300 (307200)
I0508 02:34:24.978675  1413 net.cpp:165] Memory required for data: 2186100736
I0508 02:34:24.978684  1413 layer_factory.hpp:77] Creating layer fc4_relu
I0508 02:34:24.978695  1413 net.cpp:100] Creating Layer fc4_relu
I0508 02:34:24.978703  1413 net.cpp:434] fc4_relu <- fc4_300
I0508 02:34:24.978709  1413 net.cpp:395] fc4_relu -> fc4_300 (in-place)
I0508 02:34:24.985383  1413 net.cpp:150] Setting up fc4_relu
I0508 02:34:24.985411  1413 net.cpp:157] Top shape: 1024 300 (307200)
I0508 02:34:24.985419  1413 net.cpp:165] Memory required for data: 2187329536
I0508 02:34:24.985424  1413 layer_factory.hpp:77] Creating layer fc5_116
I0508 02:34:24.985435  1413 net.cpp:100] Creating Layer fc5_116
I0508 02:34:24.985440  1413 net.cpp:434] fc5_116 <- fc4_300
I0508 02:34:24.985450  1413 net.cpp:408] fc5_116 -> fc5_classes
I0508 02:34:24.987249  1413 net.cpp:150] Setting up fc5_116
I0508 02:34:24.987268  1413 net.cpp:157] Top shape: 1024 116 (118784)
I0508 02:34:24.987273  1413 net.cpp:165] Memory required for data: 2187804672
I0508 02:34:24.987289  1413 layer_factory.hpp:77] Creating layer fc5_classes_fc5_116_0_split
I0508 02:34:24.987303  1413 net.cpp:100] Creating Layer fc5_classes_fc5_116_0_split
I0508 02:34:24.987308  1413 net.cpp:434] fc5_classes_fc5_116_0_split <- fc5_classes
I0508 02:34:24.987318  1413 net.cpp:408] fc5_classes_fc5_116_0_split -> fc5_classes_fc5_116_0_split_0
I0508 02:34:24.987330  1413 net.cpp:408] fc5_classes_fc5_116_0_split -> fc5_classes_fc5_116_0_split_1
I0508 02:34:24.987340  1413 net.cpp:408] fc5_classes_fc5_116_0_split -> fc5_classes_fc5_116_0_split_2
I0508 02:34:24.987409  1413 net.cpp:150] Setting up fc5_classes_fc5_116_0_split
I0508 02:34:24.987421  1413 net.cpp:157] Top shape: 1024 116 (118784)
I0508 02:34:24.987426  1413 net.cpp:157] Top shape: 1024 116 (118784)
I0508 02:34:24.987431  1413 net.cpp:157] Top shape: 1024 116 (118784)
I0508 02:34:24.987433  1413 net.cpp:165] Memory required for data: 2189230080
I0508 02:34:24.987437  1413 layer_factory.hpp:77] Creating layer softmax
I0508 02:34:24.987448  1413 net.cpp:100] Creating Layer softmax
I0508 02:34:24.987452  1413 net.cpp:434] softmax <- fc5_classes_fc5_116_0_split_0
I0508 02:34:24.987459  1413 net.cpp:408] softmax -> softmax
I0508 02:34:24.987779  1413 net.cpp:150] Setting up softmax
I0508 02:34:24.987794  1413 net.cpp:157] Top shape: 1024 116 (118784)
I0508 02:34:24.987802  1413 net.cpp:165] Memory required for data: 2189705216
I0508 02:34:24.987823  1413 layer_factory.hpp:77] Creating layer loss
I0508 02:34:24.987838  1413 net.cpp:100] Creating Layer loss
I0508 02:34:24.987844  1413 net.cpp:434] loss <- softmax
I0508 02:34:24.987851  1413 net.cpp:434] loss <- label_data_1_split_0
I0508 02:34:24.987857  1413 net.cpp:408] loss -> loss
…
