…
I0411 14:49:39.203169 17632 net.cpp:322] The NetState phase (0) differed from the phase (1) specified by a rule in layer accuracy_5
I0411 14:49:39.203321 17632 net.cpp:58] Initializing net from parameters: 
state {
  phase: TRAIN
  level: 0
  stage: ""
}
layer {
  name: "data"
  type: "Data"
  top: "data"
  top: "label"
  include {
    phase: TRAIN
  }
  transform_param {
    scale: 0.0039215689
    mirror: false
    crop_size: 48
    mean_value: 132
    mean_value: 132
    mean_value: 131
  }
  data_param {
    source: "../local_data/lmdb/rtsd-r1/CoNorm/train/lmdb"
    batch_size: 1024
    backend: LMDB
  }
}
layer {
  name: "conv1"
  type: "Convolution"
  bottom: "data"
  top: "conv1"
  convolution_param {
    num_output: 100
    pad: 0
    kernel_size: 7
    group: 1
    stride: 1
    weight_filler {
      type: "xavier"
    }
  }
}
layer {
  name: "conv1_prescale"
  type: "Scale"
  bottom: "conv1"
  top: "conv1"
  param {
    lr_mult: 0
    decay_mult: 0
  }
  scale_param {
    filler {
      value: 0.6666
    }
    bias_term: false
  }
}
layer {
  name: "conv1_sTanH"
  type: "TanH"
  bottom: "conv1"
  top: "conv1"
}
layer {
  name: "conv1_postscale"
  type: "Scale"
  bottom: "conv1"
  top: "conv1"
  param {
    lr_mult: 0
    decay_mult: 0
  }
  scale_param {
    filler {
      value: 1.7159
    }
    bias_term: false
  }
}
layer {
  name: "pool1"
  type: "Pooling"
  bottom: "conv1"
  top: "pool1"
  pooling_param {
    pool: MAX
    kernel_size: 2
    stride: 2
  }
}
layer {
  name: "conv2"
  type: "Convolution"
  bottom: "pool1"
  top: "conv2"
  convolution_param {
    num_output: 150
    pad: 0
    kernel_size: 4
    group: 1
    stride: 1
    weight_filler {
      type: "xavier"
    }
  }
}
layer {
  name: "conv2_prescale"
  type: "Scale"
  bottom: "conv2"
  top: "conv2"
  param {
    lr_mult: 0
    decay_mult: 0
  }
  scale_param {
    filler {
      value: 0.6666
    }
    bias_term: false
  }
}
layer {
  name: "conv2_sTanH"
  type: "TanH"
  bottom: "conv2"
  top: "conv2"
}
layer {
  name: "conv2_postscale"
  type: "Scale"
  bottom: "conv2"
  top: "conv2"
  param {
    lr_mult: 0
    decay_mult: 0
  }
  scale_param {
    filler {
      value: 1.7159
    }
    bias_term: false
  }
}
layer {
  name: "pool2"
  type: "Pooling"
  bottom: "conv2"
  top: "pool2"
  pooling_param {
    pool: MAX
    kernel_size: 2
    stride: 2
  }
}
layer {
  name: "conv3"
  type: "Convolution"
  bottom: "pool2"
  top: "conv3"
  convolution_param {
    num_output: 250
    pad: 0
    kernel_size: 4
    group: 1
    stride: 1
    weight_filler {
      type: "xavier"
    }
  }
}
layer {
  name: "conv3_prescale"
  type: "Scale"
  bottom: "conv3"
  top: "conv3"
  param {
    lr_mult: 0
    decay_mult: 0
  }
  scale_param {
    filler {
      value: 0.6666
    }
    bias_term: false
  }
}
layer {
  name: "conv3_sTanH"
  type: "TanH"
  bottom: "conv3"
  top: "conv3"
}
layer {
  name: "conv3_postscale"
  type: "Scale"
  bottom: "conv3"
  top: "conv3"
  param {
    lr_mult: 0
    decay_mult: 0
  }
  scale_param {
    filler {
      value: 1.7159
    }
    bias_term: false
  }
}
layer {
  name: "pool3"
  type: "Pooling"
  bottom: "conv3"
  top: "pool3"
  pooling_param {
    pool: MAX
    kernel_size: 2
    stride: 2
  }
}
layer {
  name: "fc4_300"
  type: "InnerProduct"
  bottom: "pool3"
  top: "fc4_300"
  inner_product_param {
    num_output: 300
    weight_filler {
      type: "xavier"
    }
  }
}
layer {
  name: "fc4_prescale"
  type: "Scale"
  bottom: "fc4_300"
  top: "fc4_300"
  param {
    lr_mult: 0
    decay_mult: 0
  }
  scale_param {
    filler {
      value: 0.6666
    }
    bias_term: false
  }
}
layer {
  name: "fc4_sTanH"
  type: "TanH"
  bottom: "fc4_300"
  top: "fc4_300"
}
layer {
  name: "fc4_postscale"
  type: "Scale"
  bottom: "fc4_300"
  top: "fc4_300"
  param {
    lr_mult: 0
    decay_mult: 0
  }
  scale_param {
    filler {
      value: 1.7159
    }
    bias_term: false
  }
}
layer {
  name: "drop4"
  type: "Dropout"
  bottom: "fc4_300"
  top: "fc4_300"
  dropout_param {
    dropout_ratio: 0.1
  }
}
layer {
  name: "fc5_67"
  type: "InnerProduct"
  bottom: "fc4_300"
  top: "fc5_classes"
  inner_product_param {
    num_output: 67
    weight_filler {
      type: "xavier"
    }
  }
}
layer {
  name: "loss"
  type: "SoftmaxWithLoss"
  bottom: "fc5_classes"
  bottom: "label"
  top: "loss"
}
I0411 14:49:39.203434 17632 layer_factory.hpp:77] Creating layer data
I0411 14:49:39.204519 17632 net.cpp:100] Creating Layer data
I0411 14:49:39.204535 17632 net.cpp:408] data -> data
I0411 14:49:39.204560 17632 net.cpp:408] data -> label
I0411 14:49:39.206012 17729 db_lmdb.cpp:35] Opened lmdb ../local_data/lmdb/rtsd-r1/CoNorm/train/lmdb
I0411 14:49:39.224200 17632 data_layer.cpp:41] output data size: 1024,3,48,48
I0411 14:49:39.272290 17632 net.cpp:150] Setting up data
I0411 14:49:39.272320 17632 net.cpp:157] Top shape: 1024 3 48 48 (7077888)
I0411 14:49:39.272326 17632 net.cpp:157] Top shape: 1024 (1024)
I0411 14:49:39.272330 17632 net.cpp:165] Memory required for data: 28315648
I0411 14:49:39.272338 17632 layer_factory.hpp:77] Creating layer conv1
I0411 14:49:39.272362 17632 net.cpp:100] Creating Layer conv1
I0411 14:49:39.272370 17632 net.cpp:434] conv1 <- data
I0411 14:49:39.272382 17632 net.cpp:408] conv1 -> conv1
I0411 14:49:39.570516 17632 net.cpp:150] Setting up conv1
I0411 14:49:39.570544 17632 net.cpp:157] Top shape: 1024 100 42 42 (180633600)
I0411 14:49:39.570547 17632 net.cpp:165] Memory required for data: 750850048
I0411 14:49:39.570574 17632 layer_factory.hpp:77] Creating layer conv1_prescale
I0411 14:49:39.570588 17632 net.cpp:100] Creating Layer conv1_prescale
I0411 14:49:39.570605 17632 net.cpp:434] conv1_prescale <- conv1
I0411 14:49:39.570611 17632 net.cpp:395] conv1_prescale -> conv1 (in-place)
I0411 14:49:39.570716 17632 net.cpp:150] Setting up conv1_prescale
I0411 14:49:39.570726 17632 net.cpp:157] Top shape: 1024 100 42 42 (180633600)
I0411 14:49:39.570729 17632 net.cpp:165] Memory required for data: 1473384448
I0411 14:49:39.570735 17632 layer_factory.hpp:77] Creating layer conv1_sTanH
I0411 14:49:39.570741 17632 net.cpp:100] Creating Layer conv1_sTanH
I0411 14:49:39.570744 17632 net.cpp:434] conv1_sTanH <- conv1
I0411 14:49:39.570749 17632 net.cpp:395] conv1_sTanH -> conv1 (in-place)
I0411 14:49:39.570940 17632 net.cpp:150] Setting up conv1_sTanH
I0411 14:49:39.570952 17632 net.cpp:157] Top shape: 1024 100 42 42 (180633600)
I0411 14:49:39.570955 17632 net.cpp:165] Memory required for data: 2195918848
I0411 14:49:39.570958 17632 layer_factory.hpp:77] Creating layer conv1_postscale
I0411 14:49:39.570966 17632 net.cpp:100] Creating Layer conv1_postscale
I0411 14:49:39.570971 17632 net.cpp:434] conv1_postscale <- conv1
I0411 14:49:39.570976 17632 net.cpp:395] conv1_postscale -> conv1 (in-place)
I0411 14:49:39.571069 17632 net.cpp:150] Setting up conv1_postscale
I0411 14:49:39.571076 17632 net.cpp:157] Top shape: 1024 100 42 42 (180633600)
I0411 14:49:39.571079 17632 net.cpp:165] Memory required for data: 2918453248
I0411 14:49:39.571084 17632 layer_factory.hpp:77] Creating layer pool1
I0411 14:49:39.571090 17632 net.cpp:100] Creating Layer pool1
I0411 14:49:39.571095 17632 net.cpp:434] pool1 <- conv1
I0411 14:49:39.571100 17632 net.cpp:408] pool1 -> pool1
I0411 14:49:39.571171 17632 net.cpp:150] Setting up pool1
I0411 14:49:39.571180 17632 net.cpp:157] Top shape: 1024 100 21 21 (45158400)
I0411 14:49:39.571183 17632 net.cpp:165] Memory required for data: 3099086848
I0411 14:49:39.571187 17632 layer_factory.hpp:77] Creating layer conv2
I0411 14:49:39.571197 17632 net.cpp:100] Creating Layer conv2
I0411 14:49:39.571202 17632 net.cpp:434] conv2 <- pool1
I0411 14:49:39.571207 17632 net.cpp:408] conv2 -> conv2
I0411 14:49:39.576730 17632 net.cpp:150] Setting up conv2
I0411 14:49:39.576747 17632 net.cpp:157] Top shape: 1024 150 18 18 (49766400)
I0411 14:49:39.576750 17632 net.cpp:165] Memory required for data: 3298152448
I0411 14:49:39.576761 17632 layer_factory.hpp:77] Creating layer conv2_prescale
I0411 14:49:39.576768 17632 net.cpp:100] Creating Layer conv2_prescale
I0411 14:49:39.576771 17632 net.cpp:434] conv2_prescale <- conv2
I0411 14:49:39.576776 17632 net.cpp:395] conv2_prescale -> conv2 (in-place)
I0411 14:49:39.576879 17632 net.cpp:150] Setting up conv2_prescale
I0411 14:49:39.576887 17632 net.cpp:157] Top shape: 1024 150 18 18 (49766400)
I0411 14:49:39.576890 17632 net.cpp:165] Memory required for data: 3497218048
I0411 14:49:39.576895 17632 layer_factory.hpp:77] Creating layer conv2_sTanH
I0411 14:49:39.576902 17632 net.cpp:100] Creating Layer conv2_sTanH
I0411 14:49:39.576906 17632 net.cpp:434] conv2_sTanH <- conv2
I0411 14:49:39.576910 17632 net.cpp:395] conv2_sTanH -> conv2 (in-place)
I0411 14:49:39.577648 17632 net.cpp:150] Setting up conv2_sTanH
I0411 14:49:39.577663 17632 net.cpp:157] Top shape: 1024 150 18 18 (49766400)
I0411 14:49:39.577667 17632 net.cpp:165] Memory required for data: 3696283648
I0411 14:49:39.577671 17632 layer_factory.hpp:77] Creating layer conv2_postscale
I0411 14:49:39.577677 17632 net.cpp:100] Creating Layer conv2_postscale
I0411 14:49:39.577680 17632 net.cpp:434] conv2_postscale <- conv2
I0411 14:49:39.577687 17632 net.cpp:395] conv2_postscale -> conv2 (in-place)
I0411 14:49:39.577778 17632 net.cpp:150] Setting up conv2_postscale
I0411 14:49:39.577787 17632 net.cpp:157] Top shape: 1024 150 18 18 (49766400)
I0411 14:49:39.577790 17632 net.cpp:165] Memory required for data: 3895349248
I0411 14:49:39.577795 17632 layer_factory.hpp:77] Creating layer pool2
I0411 14:49:39.577801 17632 net.cpp:100] Creating Layer pool2
I0411 14:49:39.577805 17632 net.cpp:434] pool2 <- conv2
I0411 14:49:39.577810 17632 net.cpp:408] pool2 -> pool2
I0411 14:49:39.577847 17632 net.cpp:150] Setting up pool2
I0411 14:49:39.577854 17632 net.cpp:157] Top shape: 1024 150 9 9 (12441600)
I0411 14:49:39.577857 17632 net.cpp:165] Memory required for data: 3945115648
I0411 14:49:39.577860 17632 layer_factory.hpp:77] Creating layer conv3
I0411 14:49:39.577867 17632 net.cpp:100] Creating Layer conv3
I0411 14:49:39.577872 17632 net.cpp:434] conv3 <- pool2
I0411 14:49:39.577875 17632 net.cpp:408] conv3 -> conv3
I0411 14:49:39.583274 17632 net.cpp:150] Setting up conv3
I0411 14:49:39.583292 17632 net.cpp:157] Top shape: 1024 250 6 6 (9216000)
I0411 14:49:39.583295 17632 net.cpp:165] Memory required for data: 3981979648
I0411 14:49:39.583305 17632 layer_factory.hpp:77] Creating layer conv3_prescale
I0411 14:49:39.583312 17632 net.cpp:100] Creating Layer conv3_prescale
I0411 14:49:39.583317 17632 net.cpp:434] conv3_prescale <- conv3
I0411 14:49:39.583322 17632 net.cpp:395] conv3_prescale -> conv3 (in-place)
I0411 14:49:39.583411 17632 net.cpp:150] Setting up conv3_prescale
I0411 14:49:39.583420 17632 net.cpp:157] Top shape: 1024 250 6 6 (9216000)
I0411 14:49:39.583423 17632 net.cpp:165] Memory required for data: 4018843648
I0411 14:49:39.583428 17632 layer_factory.hpp:77] Creating layer conv3_sTanH
I0411 14:49:39.583433 17632 net.cpp:100] Creating Layer conv3_sTanH
I0411 14:49:39.583436 17632 net.cpp:434] conv3_sTanH <- conv3
I0411 14:49:39.583441 17632 net.cpp:395] conv3_sTanH -> conv3 (in-place)
I0411 14:49:39.584239 17632 net.cpp:150] Setting up conv3_sTanH
I0411 14:49:39.584254 17632 net.cpp:157] Top shape: 1024 250 6 6 (9216000)
I0411 14:49:39.584259 17632 net.cpp:165] Memory required for data: 4055707648
I0411 14:49:39.584273 17632 layer_factory.hpp:77] Creating layer conv3_postscale
I0411 14:49:39.584282 17632 net.cpp:100] Creating Layer conv3_postscale
I0411 14:49:39.584285 17632 net.cpp:434] conv3_postscale <- conv3
I0411 14:49:39.584290 17632 net.cpp:395] conv3_postscale -> conv3 (in-place)
I0411 14:49:39.584399 17632 net.cpp:150] Setting up conv3_postscale
I0411 14:49:39.584408 17632 net.cpp:157] Top shape: 1024 250 6 6 (9216000)
I0411 14:49:39.584411 17632 net.cpp:165] Memory required for data: 4092571648
I0411 14:49:39.584415 17632 layer_factory.hpp:77] Creating layer pool3
I0411 14:49:39.584421 17632 net.cpp:100] Creating Layer pool3
I0411 14:49:39.584425 17632 net.cpp:434] pool3 <- conv3
I0411 14:49:39.584430 17632 net.cpp:408] pool3 -> pool3
I0411 14:49:39.584466 17632 net.cpp:150] Setting up pool3
I0411 14:49:39.584475 17632 net.cpp:157] Top shape: 1024 250 3 3 (2304000)
I0411 14:49:39.584476 17632 net.cpp:165] Memory required for data: 4101787648
I0411 14:49:39.584481 17632 layer_factory.hpp:77] Creating layer fc4_300
I0411 14:49:39.584488 17632 net.cpp:100] Creating Layer fc4_300
I0411 14:49:39.584492 17632 net.cpp:434] fc4_300 <- pool3
I0411 14:49:39.584498 17632 net.cpp:408] fc4_300 -> fc4_300
I0411 14:49:39.589835 17632 net.cpp:150] Setting up fc4_300
I0411 14:49:39.589853 17632 net.cpp:157] Top shape: 1024 300 (307200)
I0411 14:49:39.589867 17632 net.cpp:165] Memory required for data: 4103016448
I0411 14:49:39.589874 17632 layer_factory.hpp:77] Creating layer fc4_prescale
I0411 14:49:39.589881 17632 net.cpp:100] Creating Layer fc4_prescale
I0411 14:49:39.589884 17632 net.cpp:434] fc4_prescale <- fc4_300
I0411 14:49:39.589890 17632 net.cpp:395] fc4_prescale -> fc4_300 (in-place)
I0411 14:49:39.589975 17632 net.cpp:150] Setting up fc4_prescale
I0411 14:49:39.589983 17632 net.cpp:157] Top shape: 1024 300 (307200)
I0411 14:49:39.589987 17632 net.cpp:165] Memory required for data: 4104245248
I0411 14:49:39.589990 17632 layer_factory.hpp:77] Creating layer fc4_sTanH
I0411 14:49:39.589995 17632 net.cpp:100] Creating Layer fc4_sTanH
I0411 14:49:39.589998 17632 net.cpp:434] fc4_sTanH <- fc4_300
I0411 14:49:39.590003 17632 net.cpp:395] fc4_sTanH -> fc4_300 (in-place)
I0411 14:49:39.590180 17632 net.cpp:150] Setting up fc4_sTanH
I0411 14:49:39.590191 17632 net.cpp:157] Top shape: 1024 300 (307200)
I0411 14:49:39.590194 17632 net.cpp:165] Memory required for data: 4105474048
I0411 14:49:39.590198 17632 layer_factory.hpp:77] Creating layer fc4_postscale
I0411 14:49:39.590204 17632 net.cpp:100] Creating Layer fc4_postscale
I0411 14:49:39.590207 17632 net.cpp:434] fc4_postscale <- fc4_300
I0411 14:49:39.590212 17632 net.cpp:395] fc4_postscale -> fc4_300 (in-place)
I0411 14:49:39.590304 17632 net.cpp:150] Setting up fc4_postscale
I0411 14:49:39.590312 17632 net.cpp:157] Top shape: 1024 300 (307200)
I0411 14:49:39.590314 17632 net.cpp:165] Memory required for data: 4106702848
I0411 14:49:39.590319 17632 layer_factory.hpp:77] Creating layer drop4
I0411 14:49:39.590325 17632 net.cpp:100] Creating Layer drop4
I0411 14:49:39.590328 17632 net.cpp:434] drop4 <- fc4_300
I0411 14:49:39.590332 17632 net.cpp:395] drop4 -> fc4_300 (in-place)
I0411 14:49:39.590358 17632 net.cpp:150] Setting up drop4
I0411 14:49:39.590364 17632 net.cpp:157] Top shape: 1024 300 (307200)
I0411 14:49:39.590368 17632 net.cpp:165] Memory required for data: 4107931648
I0411 14:49:39.590370 17632 layer_factory.hpp:77] Creating layer fc5_67
I0411 14:49:39.590375 17632 net.cpp:100] Creating Layer fc5_67
I0411 14:49:39.590378 17632 net.cpp:434] fc5_67 <- fc4_300
I0411 14:49:39.590384 17632 net.cpp:408] fc5_67 -> fc5_classes
I0411 14:49:39.591634 17632 net.cpp:150] Setting up fc5_67
I0411 14:49:39.591648 17632 net.cpp:157] Top shape: 1024 67 (68608)
I0411 14:49:39.591663 17632 net.cpp:165] Memory required for data: 4108206080
I0411 14:49:39.591673 17632 layer_factory.hpp:77] Creating layer loss
I0411 14:49:39.591681 17632 net.cpp:100] Creating Layer loss
I0411 14:49:39.591683 17632 net.cpp:434] loss <- fc5_classes
I0411 14:49:39.591701 17632 net.cpp:434] loss <- label
I0411 14:49:39.591707 17632 net.cpp:408] loss -> loss
I0411 14:49:39.591719 17632 layer_factory.hpp:77] Creating layer loss
…
I0411 14:49:39.592442 17632 solver.cpp:193] Creating test net (#0) specified by test_net file: ./Prototxt/experiment_9/rtsd-r1/CoNorm/trial_2/test.prototxt
I0411 14:49:39.592624 17632 net.cpp:58] Initializing net from parameters: 
state {
  phase: TEST
}
layer {
  name: "data"
  type: "Data"
  top: "data"
  top: "label"
  include {
    phase: TEST
  }
  transform_param {
    scale: 0.0039215689
    mirror: false
    crop_size: 48
    mean_value: 133
    mean_value: 133
    mean_value: 132
  }
  data_param {
    source: "../local_data/lmdb/rtsd-r1/CoNorm/test/lmdb"
    batch_size: 1024
    backend: LMDB
  }
}
layer {
  name: "conv1"
  type: "Convolution"
  bottom: "data"
  top: "conv1"
  convolution_param {
    num_output: 100
    pad: 0
    kernel_size: 7
    group: 1
    stride: 1
    weight_filler {
      type: "xavier"
    }
  }
}
layer {
  name: "conv1_prescale"
  type: "Scale"
  bottom: "conv1"
  top: "conv1"
  param {
    lr_mult: 0
    decay_mult: 0
  }
  scale_param {
    filler {
      value: 0.6666
    }
    bias_term: false
  }
}
layer {
  name: "conv1_sTanH"
  type: "TanH"
  bottom: "conv1"
  top: "conv1"
}
layer {
  name: "conv1_postscale"
  type: "Scale"
  bottom: "conv1"
  top: "conv1"
  param {
    lr_mult: 0
    decay_mult: 0
  }
  scale_param {
    filler {
      value: 1.7159
    }
    bias_term: false
  }
}
layer {
  name: "pool1"
  type: "Pooling"
  bottom: "conv1"
  top: "pool1"
  pooling_param {
    pool: MAX
    kernel_size: 2
    stride: 2
  }
}
layer {
  name: "conv2"
  type: "Convolution"
  bottom: "pool1"
  top: "conv2"
  convolution_param {
    num_output: 150
    pad: 0
    kernel_size: 4
    group: 1
    stride: 1
    weight_filler {
      type: "xavier"
    }
  }
}
layer {
  name: "conv2_prescale"
  type: "Scale"
  bottom: "conv2"
  top: "conv2"
  param {
    lr_mult: 0
    decay_mult: 0
  }
  scale_param {
    filler {
      value: 0.6666
    }
    bias_term: false
  }
}
layer {
  name: "conv2_sTanH"
  type: "TanH"
  bottom: "conv2"
  top: "conv2"
}
layer {
  name: "conv2_postscale"
  type: "Scale"
  bottom: "conv2"
  top: "conv2"
  param {
    lr_mult: 0
    decay_mult: 0
  }
  scale_param {
    filler {
      value: 1.7159
    }
    bias_term: false
  }
}
layer {
  name: "pool2"
  type: "Pooling"
  bottom: "conv2"
  top: "pool2"
  pooling_param {
    pool: MAX
    kernel_size: 2
    stride: 2
  }
}
layer {
  name: "conv3"
  type: "Convolution"
  bottom: "pool2"
  top: "conv3"
  convolution_param {
    num_output: 250
    pad: 0
    kernel_size: 4
    group: 1
    stride: 1
    weight_filler {
      type: "xavier"
    }
  }
}
layer {
  name: "conv3_prescale"
  type: "Scale"
  bottom: "conv3"
  top: "conv3"
  param {
    lr_mult: 0
    decay_mult: 0
  }
  scale_param {
    filler {
      value: 0.6666
    }
    bias_term: false
  }
}
layer {
  name: "conv3_sTanH"
  type: "TanH"
  bottom: "conv3"
  top: "conv3"
}
layer {
  name: "conv3_postscale"
  type: "Scale"
  bottom: "conv3"
  top: "conv3"
  param {
    lr_mult: 0
    decay_mult: 0
  }
  scale_param {
    filler {
      value: 1.7159
    }
    bias_term: false
  }
}
layer {
  name: "pool3"
  type: "Pooling"
  bottom: "conv3"
  top: "pool3"
  pooling_param {
    pool: MAX
    kernel_size: 2
    stride: 2
  }
}
layer {
  name: "fc4_300"
  type: "InnerProduct"
  bottom: "pool3"
  top: "fc4_300"
  inner_product_param {
    num_output: 300
    weight_filler {
      type: "xavier"
    }
  }
}
layer {
  name: "fc4_prescale"
  type: "Scale"
  bottom: "fc4_300"
  top: "fc4_300"
  param {
    lr_mult: 0
    decay_mult: 0
  }
  scale_param {
    filler {
      value: 0.6666
    }
    bias_term: false
  }
}
layer {
  name: "fc4_sTanH"
  type: "TanH"
  bottom: "fc4_300"
  top: "fc4_300"
}
layer {
  name: "fc4_postscale"
  type: "Scale"
  bottom: "fc4_300"
  top: "fc4_300"
  param {
    lr_mult: 0
    decay_mult: 0
  }
  scale_param {
    filler {
      value: 1.7159
    }
    bias_term: false
  }
}
layer {
  name: "drop4"
  type: "Dropout"
  bottom: "fc4_300"
  top: "fc4_300"
  dropout_param {
    dropout_ratio: 0.1
  }
}
layer {
  name: "fc5_67"
  type: "InnerProduct"
  bottom: "fc4_300"
  top: "fc5_classes"
  inner_product_param {
    num_output: 67
    weight_filler {
      type: "xavier"
    }
  }
}
layer {
  name: "loss"
  type: "SoftmaxWithLoss"
  bottom: "fc5_classes"
  bottom: "label"
  top: "loss"
}
layer {
  name: "accuracy_1"
  type: "Accuracy"
  bottom: "fc5_classes"
  bottom: "label"
  top: "accuracy_1"
  include {
    phase: TEST
  }
  accuracy_param {
    top_k: 1
  }
}
layer {
  name: "accuracy_5"
  type: "Accuracy"
  bottom: "fc5_classes"
  bottom: "label"
  top: "accuracy_5"
  include {
    phase: TEST
  }
  accuracy_param {
    top_k: 5
  }
}
I0411 14:49:39.592739 17632 layer_factory.hpp:77] Creating layer data
I0411 14:49:39.593302 17632 net.cpp:100] Creating Layer data
I0411 14:49:39.593313 17632 net.cpp:408] data -> data
I0411 14:49:39.593322 17632 net.cpp:408] data -> label
I0411 14:49:39.594528 17769 db_lmdb.cpp:35] Opened lmdb ../local_data/lmdb/rtsd-r1/CoNorm/test/lmdb
I0411 14:49:39.594702 17632 data_layer.cpp:41] output data size: 1024,3,48,48
I0411 14:49:39.636384 17632 net.cpp:150] Setting up data
I0411 14:49:39.636411 17632 net.cpp:157] Top shape: 1024 3 48 48 (7077888)
I0411 14:49:39.636417 17632 net.cpp:157] Top shape: 1024 (1024)
I0411 14:49:39.636420 17632 net.cpp:165] Memory required for data: 28315648
I0411 14:49:39.636427 17632 layer_factory.hpp:77] Creating layer label_data_1_split
I0411 14:49:39.636441 17632 net.cpp:100] Creating Layer label_data_1_split
I0411 14:49:39.636445 17632 net.cpp:434] label_data_1_split <- label
I0411 14:49:39.636452 17632 net.cpp:408] label_data_1_split -> label_data_1_split_0
I0411 14:49:39.636462 17632 net.cpp:408] label_data_1_split -> label_data_1_split_1
I0411 14:49:39.636489 17632 net.cpp:408] label_data_1_split -> label_data_1_split_2
I0411 14:49:39.636627 17632 net.cpp:150] Setting up label_data_1_split
I0411 14:49:39.636636 17632 net.cpp:157] Top shape: 1024 (1024)
I0411 14:49:39.636639 17632 net.cpp:157] Top shape: 1024 (1024)
I0411 14:49:39.636643 17632 net.cpp:157] Top shape: 1024 (1024)
I0411 14:49:39.636646 17632 net.cpp:165] Memory required for data: 28327936
I0411 14:49:39.636648 17632 layer_factory.hpp:77] Creating layer conv1
I0411 14:49:39.636662 17632 net.cpp:100] Creating Layer conv1
I0411 14:49:39.636665 17632 net.cpp:434] conv1 <- data
I0411 14:49:39.636670 17632 net.cpp:408] conv1 -> conv1
I0411 14:49:39.638725 17632 net.cpp:150] Setting up conv1
I0411 14:49:39.638741 17632 net.cpp:157] Top shape: 1024 100 42 42 (180633600)
I0411 14:49:39.638746 17632 net.cpp:165] Memory required for data: 750862336
I0411 14:49:39.638757 17632 layer_factory.hpp:77] Creating layer conv1_prescale
I0411 14:49:39.638768 17632 net.cpp:100] Creating Layer conv1_prescale
I0411 14:49:39.638773 17632 net.cpp:434] conv1_prescale <- conv1
I0411 14:49:39.638779 17632 net.cpp:395] conv1_prescale -> conv1 (in-place)
I0411 14:49:39.638880 17632 net.cpp:150] Setting up conv1_prescale
I0411 14:49:39.638888 17632 net.cpp:157] Top shape: 1024 100 42 42 (180633600)
I0411 14:49:39.638891 17632 net.cpp:165] Memory required for data: 1473396736
I0411 14:49:39.638898 17632 layer_factory.hpp:77] Creating layer conv1_sTanH
I0411 14:49:39.638906 17632 net.cpp:100] Creating Layer conv1_sTanH
I0411 14:49:39.638908 17632 net.cpp:434] conv1_sTanH <- conv1
I0411 14:49:39.638913 17632 net.cpp:395] conv1_sTanH -> conv1 (in-place)
I0411 14:49:39.639091 17632 net.cpp:150] Setting up conv1_sTanH
I0411 14:49:39.639101 17632 net.cpp:157] Top shape: 1024 100 42 42 (180633600)
I0411 14:49:39.639104 17632 net.cpp:165] Memory required for data: 2195931136
I0411 14:49:39.639107 17632 layer_factory.hpp:77] Creating layer conv1_postscale
I0411 14:49:39.639114 17632 net.cpp:100] Creating Layer conv1_postscale
I0411 14:49:39.639118 17632 net.cpp:434] conv1_postscale <- conv1
I0411 14:49:39.639123 17632 net.cpp:395] conv1_postscale -> conv1 (in-place)
I0411 14:49:39.639225 17632 net.cpp:150] Setting up conv1_postscale
I0411 14:49:39.639232 17632 net.cpp:157] Top shape: 1024 100 42 42 (180633600)
I0411 14:49:39.639235 17632 net.cpp:165] Memory required for data: 2918465536
I0411 14:49:39.639240 17632 layer_factory.hpp:77] Creating layer pool1
I0411 14:49:39.639246 17632 net.cpp:100] Creating Layer pool1
I0411 14:49:39.639250 17632 net.cpp:434] pool1 <- conv1
I0411 14:49:39.639253 17632 net.cpp:408] pool1 -> pool1
I0411 14:49:39.639293 17632 net.cpp:150] Setting up pool1
I0411 14:49:39.639300 17632 net.cpp:157] Top shape: 1024 100 21 21 (45158400)
I0411 14:49:39.639303 17632 net.cpp:165] Memory required for data: 3099099136
I0411 14:49:39.639307 17632 layer_factory.hpp:77] Creating layer conv2
I0411 14:49:39.639315 17632 net.cpp:100] Creating Layer conv2
I0411 14:49:39.639318 17632 net.cpp:434] conv2 <- pool1
I0411 14:49:39.639323 17632 net.cpp:408] conv2 -> conv2
I0411 14:49:39.656630 17632 net.cpp:150] Setting up conv2
I0411 14:49:39.656653 17632 net.cpp:157] Top shape: 1024 150 18 18 (49766400)
I0411 14:49:39.656657 17632 net.cpp:165] Memory required for data: 3298164736
I0411 14:49:39.656671 17632 layer_factory.hpp:77] Creating layer conv2_prescale
I0411 14:49:39.656682 17632 net.cpp:100] Creating Layer conv2_prescale
I0411 14:49:39.656685 17632 net.cpp:434] conv2_prescale <- conv2
I0411 14:49:39.656692 17632 net.cpp:395] conv2_prescale -> conv2 (in-place)
I0411 14:49:39.656817 17632 net.cpp:150] Setting up conv2_prescale
I0411 14:49:39.656826 17632 net.cpp:157] Top shape: 1024 150 18 18 (49766400)
I0411 14:49:39.656829 17632 net.cpp:165] Memory required for data: 3497230336
I0411 14:49:39.656833 17632 layer_factory.hpp:77] Creating layer conv2_sTanH
I0411 14:49:39.656839 17632 net.cpp:100] Creating Layer conv2_sTanH
I0411 14:49:39.656842 17632 net.cpp:434] conv2_sTanH <- conv2
I0411 14:49:39.656847 17632 net.cpp:395] conv2_sTanH -> conv2 (in-place)
I0411 14:49:39.658179 17632 net.cpp:150] Setting up conv2_sTanH
I0411 14:49:39.658200 17632 net.cpp:157] Top shape: 1024 150 18 18 (49766400)
I0411 14:49:39.658203 17632 net.cpp:165] Memory required for data: 3696295936
I0411 14:49:39.658207 17632 layer_factory.hpp:77] Creating layer conv2_postscale
I0411 14:49:39.658215 17632 net.cpp:100] Creating Layer conv2_postscale
I0411 14:49:39.658221 17632 net.cpp:434] conv2_postscale <- conv2
I0411 14:49:39.658226 17632 net.cpp:395] conv2_postscale -> conv2 (in-place)
I0411 14:49:39.658326 17632 net.cpp:150] Setting up conv2_postscale
I0411 14:49:39.658334 17632 net.cpp:157] Top shape: 1024 150 18 18 (49766400)
I0411 14:49:39.658337 17632 net.cpp:165] Memory required for data: 3895361536
I0411 14:49:39.658342 17632 layer_factory.hpp:77] Creating layer pool2
I0411 14:49:39.658349 17632 net.cpp:100] Creating Layer pool2
I0411 14:49:39.658352 17632 net.cpp:434] pool2 <- conv2
I0411 14:49:39.658357 17632 net.cpp:408] pool2 -> pool2
I0411 14:49:39.658401 17632 net.cpp:150] Setting up pool2
I0411 14:49:39.658411 17632 net.cpp:157] Top shape: 1024 150 9 9 (12441600)
I0411 14:49:39.658413 17632 net.cpp:165] Memory required for data: 3945127936
I0411 14:49:39.658416 17632 layer_factory.hpp:77] Creating layer conv3
I0411 14:49:39.658426 17632 net.cpp:100] Creating Layer conv3
I0411 14:49:39.658429 17632 net.cpp:434] conv3 <- pool2
I0411 14:49:39.658434 17632 net.cpp:408] conv3 -> conv3
I0411 14:49:39.664517 17632 net.cpp:150] Setting up conv3
I0411 14:49:39.664535 17632 net.cpp:157] Top shape: 1024 250 6 6 (9216000)
I0411 14:49:39.664539 17632 net.cpp:165] Memory required for data: 3981991936
I0411 14:49:39.664549 17632 layer_factory.hpp:77] Creating layer conv3_prescale
I0411 14:49:39.664557 17632 net.cpp:100] Creating Layer conv3_prescale
I0411 14:49:39.664563 17632 net.cpp:434] conv3_prescale <- conv3
I0411 14:49:39.664568 17632 net.cpp:395] conv3_prescale -> conv3 (in-place)
I0411 14:49:39.664662 17632 net.cpp:150] Setting up conv3_prescale
I0411 14:49:39.664670 17632 net.cpp:157] Top shape: 1024 250 6 6 (9216000)
I0411 14:49:39.664674 17632 net.cpp:165] Memory required for data: 4018855936
I0411 14:49:39.664679 17632 layer_factory.hpp:77] Creating layer conv3_sTanH
I0411 14:49:39.664683 17632 net.cpp:100] Creating Layer conv3_sTanH
I0411 14:49:39.664687 17632 net.cpp:434] conv3_sTanH <- conv3
I0411 14:49:39.664693 17632 net.cpp:395] conv3_sTanH -> conv3 (in-place)
I0411 14:49:39.665740 17632 net.cpp:150] Setting up conv3_sTanH
I0411 14:49:39.665756 17632 net.cpp:157] Top shape: 1024 250 6 6 (9216000)
I0411 14:49:39.665760 17632 net.cpp:165] Memory required for data: 4055719936
I0411 14:49:39.665763 17632 layer_factory.hpp:77] Creating layer conv3_postscale
I0411 14:49:39.665771 17632 net.cpp:100] Creating Layer conv3_postscale
I0411 14:49:39.665776 17632 net.cpp:434] conv3_postscale <- conv3
I0411 14:49:39.665781 17632 net.cpp:395] conv3_postscale -> conv3 (in-place)
I0411 14:49:39.665880 17632 net.cpp:150] Setting up conv3_postscale
I0411 14:49:39.665889 17632 net.cpp:157] Top shape: 1024 250 6 6 (9216000)
I0411 14:49:39.665892 17632 net.cpp:165] Memory required for data: 4092583936
I0411 14:49:39.665897 17632 layer_factory.hpp:77] Creating layer pool3
I0411 14:49:39.665905 17632 net.cpp:100] Creating Layer pool3
I0411 14:49:39.665910 17632 net.cpp:434] pool3 <- conv3
I0411 14:49:39.665915 17632 net.cpp:408] pool3 -> pool3
I0411 14:49:39.665952 17632 net.cpp:150] Setting up pool3
I0411 14:49:39.665961 17632 net.cpp:157] Top shape: 1024 250 3 3 (2304000)
I0411 14:49:39.665963 17632 net.cpp:165] Memory required for data: 4101799936
I0411 14:49:39.665966 17632 layer_factory.hpp:77] Creating layer fc4_300
I0411 14:49:39.665985 17632 net.cpp:100] Creating Layer fc4_300
I0411 14:49:39.665988 17632 net.cpp:434] fc4_300 <- pool3
I0411 14:49:39.665993 17632 net.cpp:408] fc4_300 -> fc4_300
I0411 14:49:39.673317 17632 net.cpp:150] Setting up fc4_300
I0411 14:49:39.673336 17632 net.cpp:157] Top shape: 1024 300 (307200)
I0411 14:49:39.673341 17632 net.cpp:165] Memory required for data: 4103028736
I0411 14:49:39.673364 17632 layer_factory.hpp:77] Creating layer fc4_prescale
I0411 14:49:39.673375 17632 net.cpp:100] Creating Layer fc4_prescale
I0411 14:49:39.673379 17632 net.cpp:434] fc4_prescale <- fc4_300
I0411 14:49:39.673385 17632 net.cpp:395] fc4_prescale -> fc4_300 (in-place)
I0411 14:49:39.673482 17632 net.cpp:150] Setting up fc4_prescale
I0411 14:49:39.673491 17632 net.cpp:157] Top shape: 1024 300 (307200)
I0411 14:49:39.673493 17632 net.cpp:165] Memory required for data: 4104257536
I0411 14:49:39.673498 17632 layer_factory.hpp:77] Creating layer fc4_sTanH
I0411 14:49:39.673504 17632 net.cpp:100] Creating Layer fc4_sTanH
I0411 14:49:39.673506 17632 net.cpp:434] fc4_sTanH <- fc4_300
I0411 14:49:39.673511 17632 net.cpp:395] fc4_sTanH -> fc4_300 (in-place)
I0411 14:49:39.673697 17632 net.cpp:150] Setting up fc4_sTanH
I0411 14:49:39.673709 17632 net.cpp:157] Top shape: 1024 300 (307200)
I0411 14:49:39.673712 17632 net.cpp:165] Memory required for data: 4105486336
I0411 14:49:39.673715 17632 layer_factory.hpp:77] Creating layer fc4_postscale
I0411 14:49:39.673722 17632 net.cpp:100] Creating Layer fc4_postscale
I0411 14:49:39.673725 17632 net.cpp:434] fc4_postscale <- fc4_300
I0411 14:49:39.673730 17632 net.cpp:395] fc4_postscale -> fc4_300 (in-place)
I0411 14:49:39.673827 17632 net.cpp:150] Setting up fc4_postscale
I0411 14:49:39.673835 17632 net.cpp:157] Top shape: 1024 300 (307200)
I0411 14:49:39.673837 17632 net.cpp:165] Memory required for data: 4106715136
I0411 14:49:39.673842 17632 layer_factory.hpp:77] Creating layer drop4
I0411 14:49:39.673848 17632 net.cpp:100] Creating Layer drop4
I0411 14:49:39.673851 17632 net.cpp:434] drop4 <- fc4_300
I0411 14:49:39.673856 17632 net.cpp:395] drop4 -> fc4_300 (in-place)
I0411 14:49:39.673880 17632 net.cpp:150] Setting up drop4
I0411 14:49:39.673887 17632 net.cpp:157] Top shape: 1024 300 (307200)
I0411 14:49:39.673889 17632 net.cpp:165] Memory required for data: 4107943936
I0411 14:49:39.673892 17632 layer_factory.hpp:77] Creating layer fc5_67
I0411 14:49:39.673898 17632 net.cpp:100] Creating Layer fc5_67
I0411 14:49:39.673902 17632 net.cpp:434] fc5_67 <- fc4_300
I0411 14:49:39.673905 17632 net.cpp:408] fc5_67 -> fc5_classes
I0411 14:49:39.674151 17632 net.cpp:150] Setting up fc5_67
I0411 14:49:39.674160 17632 net.cpp:157] Top shape: 1024 67 (68608)
I0411 14:49:39.674161 17632 net.cpp:165] Memory required for data: 4108218368
I0411 14:49:39.674171 17632 layer_factory.hpp:77] Creating layer fc5_classes_fc5_67_0_split
I0411 14:49:39.674180 17632 net.cpp:100] Creating Layer fc5_classes_fc5_67_0_split
I0411 14:49:39.674185 17632 net.cpp:434] fc5_classes_fc5_67_0_split <- fc5_classes
I0411 14:49:39.674190 17632 net.cpp:408] fc5_classes_fc5_67_0_split -> fc5_classes_fc5_67_0_split_0
I0411 14:49:39.674196 17632 net.cpp:408] fc5_classes_fc5_67_0_split -> fc5_classes_fc5_67_0_split_1
I0411 14:49:39.674202 17632 net.cpp:408] fc5_classes_fc5_67_0_split -> fc5_classes_fc5_67_0_split_2
I0411 14:49:39.674253 17632 net.cpp:150] Setting up fc5_classes_fc5_67_0_split
I0411 14:49:39.674259 17632 net.cpp:157] Top shape: 1024 67 (68608)
I0411 14:49:39.674263 17632 net.cpp:157] Top shape: 1024 67 (68608)
I0411 14:49:39.674266 17632 net.cpp:157] Top shape: 1024 67 (68608)
I0411 14:49:39.674269 17632 net.cpp:165] Memory required for data: 4109041664
I0411 14:49:39.674271 17632 layer_factory.hpp:77] Creating layer loss
I0411 14:49:39.674278 17632 net.cpp:100] Creating Layer loss
I0411 14:49:39.674280 17632 net.cpp:434] loss <- fc5_classes_fc5_67_0_split_0
I0411 14:49:39.674284 17632 net.cpp:434] loss <- label_data_1_split_0
I0411 14:49:39.674289 17632 net.cpp:408] loss -> loss
…
