…
I0412 04:57:53.907613  1215 solver.cpp:93] Creating training net from train_net file: ./Prototxt/experiment_10/rtsd-r1/CoNorm/trial_5/train.prototxt
I0412 04:57:53.907977  1215 net.cpp:58] Initializing net from parameters: 
state {
  phase: TRAIN
  level: 0
  stage: ""
}
layer {
  name: "data"
  type: "Data"
  top: "data"
  top: "label"
  include {
    phase: TRAIN
  }
  transform_param {
    scale: 0.0039215689
    mirror: false
    crop_size: 48
    mean_value: 132
    mean_value: 132
    mean_value: 131
  }
  data_param {
    source: "../local_data/lmdb/rtsd-r1/CoNorm/train/lmdb"
    batch_size: 1024
    backend: LMDB
  }
}
layer {
  name: "conv1"
  type: "Convolution"
  bottom: "data"
  top: "conv1"
  convolution_param {
    num_output: 100
    pad: 0
    kernel_size: 7
    group: 1
    stride: 1
    weight_filler {
      type: "xavier"
    }
  }
}
layer {
  name: "conv1_relu"
  type: "ReLU"
  bottom: "conv1"
  top: "conv1"
}
layer {
  name: "pool1"
  type: "Pooling"
  bottom: "conv1"
  top: "pool1"
  pooling_param {
    pool: MAX
    kernel_size: 2
    stride: 2
  }
}
layer {
  name: "conv2"
  type: "Convolution"
  bottom: "pool1"
  top: "conv2"
  convolution_param {
    num_output: 150
    pad: 0
    kernel_size: 4
    group: 1
    stride: 1
    weight_filler {
      type: "xavier"
    }
  }
}
layer {
  name: "conv2_relu"
  type: "ReLU"
  bottom: "conv2"
  top: "conv2"
}
layer {
  name: "pool2"
  type: "Pooling"
  bottom: "conv2"
  top: "pool2"
  pooling_param {
    pool: MAX
    kernel_size: 2
    stride: 2
  }
}
layer {
  name: "conv3"
  type: "Convolution"
  bottom: "pool2"
  top: "conv3"
  convolution_param {
    num_output: 250
    pad: 0
    kernel_size: 4
    group: 1
    stride: 1
    weight_filler {
      type: "xavier"
    }
  }
}
layer {
  name: "conv3_relu"
  type: "ReLU"
  bottom: "conv3"
  top: "conv3"
}
layer {
  name: "pool3"
  type: "Pooling"
  bottom: "conv3"
  top: "pool3"
  pooling_param {
    pool: MAX
    kernel_size: 2
    stride: 2
  }
}
layer {
  name: "fc4_300"
  type: "InnerProduct"
  bottom: "pool3"
  top: "fc4_300"
  inner_product_param {
    num_output: 300
    weight_filler {
      type: "xavier"
    }
  }
}
layer {
  name: "fc4_relu"
  type: "ReLU"
  bottom: "fc4_300"
  top: "fc4_300"
}
layer {
  name: "drop4"
  type: "Dropout"
  bottom: "fc4_300"
  top: "fc4_300"
  dropout_param {
    dropout_ratio: 0.4
  }
}
layer {
  name: "fc5_67"
  type: "InnerProduct"
  bottom: "fc4_300"
  top: "fc5_classes"
  inner_product_param {
    num_output: 67
    weight_filler {
      type: "xavier"
    }
  }
}
layer {
  name: "softmax"
  type: "Softmax"
  bottom: "fc5_classes"
  top: "softmax"
}
layer {
  name: "loss"
  type: "MultinomialLogisticLoss"
  bottom: "softmax"
  bottom: "label"
  top: "loss"
}
layer {
  name: "accuracy_1"
  type: "Accuracy"
  bottom: "fc5_classes"
  bottom: "label"
  top: "accuracy_1"
  accuracy_param {
    top_k: 1
  }
}
layer {
  name: "accuracy_5"
  type: "Accuracy"
  bottom: "fc5_classes"
  bottom: "label"
  top: "accuracy_5"
  accuracy_param {
    top_k: 5
  }
}
I0412 04:57:53.908095  1215 layer_factory.hpp:77] Creating layer data
I0412 04:57:53.909173  1215 net.cpp:100] Creating Layer data
I0412 04:57:53.909194  1215 net.cpp:408] data -> data
I0412 04:57:53.909219  1215 net.cpp:408] data -> label
I0412 04:57:53.911813  1342 db_lmdb.cpp:35] Opened lmdb ../local_data/lmdb/rtsd-r1/CoNorm/train/lmdb
I0412 04:57:53.933831  1215 data_layer.cpp:41] output data size: 1024,3,48,48
I0412 04:57:53.980697  1215 net.cpp:150] Setting up data
I0412 04:57:53.980726  1215 net.cpp:157] Top shape: 1024 3 48 48 (7077888)
I0412 04:57:53.980731  1215 net.cpp:157] Top shape: 1024 (1024)
I0412 04:57:53.980734  1215 net.cpp:165] Memory required for data: 28315648
I0412 04:57:53.980746  1215 layer_factory.hpp:77] Creating layer label_data_1_split
I0412 04:57:53.980761  1215 net.cpp:100] Creating Layer label_data_1_split
I0412 04:57:53.980767  1215 net.cpp:434] label_data_1_split <- label
I0412 04:57:53.980779  1215 net.cpp:408] label_data_1_split -> label_data_1_split_0
I0412 04:57:53.980811  1215 net.cpp:408] label_data_1_split -> label_data_1_split_1
I0412 04:57:53.980819  1215 net.cpp:408] label_data_1_split -> label_data_1_split_2
I0412 04:57:53.980893  1215 net.cpp:150] Setting up label_data_1_split
I0412 04:57:53.980902  1215 net.cpp:157] Top shape: 1024 (1024)
I0412 04:57:53.980906  1215 net.cpp:157] Top shape: 1024 (1024)
I0412 04:57:53.980909  1215 net.cpp:157] Top shape: 1024 (1024)
I0412 04:57:53.980912  1215 net.cpp:165] Memory required for data: 28327936
I0412 04:57:53.980916  1215 layer_factory.hpp:77] Creating layer conv1
I0412 04:57:53.980934  1215 net.cpp:100] Creating Layer conv1
I0412 04:57:53.980939  1215 net.cpp:434] conv1 <- data
I0412 04:57:53.980947  1215 net.cpp:408] conv1 -> conv1
I0412 04:57:54.308961  1215 net.cpp:150] Setting up conv1
I0412 04:57:54.308990  1215 net.cpp:157] Top shape: 1024 100 42 42 (180633600)
I0412 04:57:54.308993  1215 net.cpp:165] Memory required for data: 750862336
I0412 04:57:54.309016  1215 layer_factory.hpp:77] Creating layer conv1_relu
I0412 04:57:54.309029  1215 net.cpp:100] Creating Layer conv1_relu
I0412 04:57:54.309036  1215 net.cpp:434] conv1_relu <- conv1
I0412 04:57:54.309041  1215 net.cpp:395] conv1_relu -> conv1 (in-place)
I0412 04:57:54.309237  1215 net.cpp:150] Setting up conv1_relu
I0412 04:57:54.309250  1215 net.cpp:157] Top shape: 1024 100 42 42 (180633600)
I0412 04:57:54.309253  1215 net.cpp:165] Memory required for data: 1473396736
I0412 04:57:54.309257  1215 layer_factory.hpp:77] Creating layer pool1
I0412 04:57:54.309267  1215 net.cpp:100] Creating Layer pool1
I0412 04:57:54.309273  1215 net.cpp:434] pool1 <- conv1
I0412 04:57:54.309278  1215 net.cpp:408] pool1 -> pool1
I0412 04:57:54.309334  1215 net.cpp:150] Setting up pool1
I0412 04:57:54.309342  1215 net.cpp:157] Top shape: 1024 100 21 21 (45158400)
I0412 04:57:54.309345  1215 net.cpp:165] Memory required for data: 1654030336
I0412 04:57:54.309348  1215 layer_factory.hpp:77] Creating layer conv2
I0412 04:57:54.309360  1215 net.cpp:100] Creating Layer conv2
I0412 04:57:54.309365  1215 net.cpp:434] conv2 <- pool1
I0412 04:57:54.309370  1215 net.cpp:408] conv2 -> conv2
I0412 04:57:54.315486  1215 net.cpp:150] Setting up conv2
I0412 04:57:54.315505  1215 net.cpp:157] Top shape: 1024 150 18 18 (49766400)
I0412 04:57:54.315508  1215 net.cpp:165] Memory required for data: 1853095936
I0412 04:57:54.315518  1215 layer_factory.hpp:77] Creating layer conv2_relu
I0412 04:57:54.315526  1215 net.cpp:100] Creating Layer conv2_relu
I0412 04:57:54.315529  1215 net.cpp:434] conv2_relu <- conv2
I0412 04:57:54.315534  1215 net.cpp:395] conv2_relu -> conv2 (in-place)
I0412 04:57:54.316980  1215 net.cpp:150] Setting up conv2_relu
I0412 04:57:54.316999  1215 net.cpp:157] Top shape: 1024 150 18 18 (49766400)
I0412 04:57:54.317003  1215 net.cpp:165] Memory required for data: 2052161536
I0412 04:57:54.317006  1215 layer_factory.hpp:77] Creating layer pool2
I0412 04:57:54.317014  1215 net.cpp:100] Creating Layer pool2
I0412 04:57:54.317018  1215 net.cpp:434] pool2 <- conv2
I0412 04:57:54.317024  1215 net.cpp:408] pool2 -> pool2
I0412 04:57:54.317075  1215 net.cpp:150] Setting up pool2
I0412 04:57:54.317083  1215 net.cpp:157] Top shape: 1024 150 9 9 (12441600)
I0412 04:57:54.317087  1215 net.cpp:165] Memory required for data: 2101927936
I0412 04:57:54.317090  1215 layer_factory.hpp:77] Creating layer conv3
I0412 04:57:54.317101  1215 net.cpp:100] Creating Layer conv3
I0412 04:57:54.317106  1215 net.cpp:434] conv3 <- pool2
I0412 04:57:54.317133  1215 net.cpp:408] conv3 -> conv3
I0412 04:57:54.330286  1215 net.cpp:150] Setting up conv3
I0412 04:57:54.330305  1215 net.cpp:157] Top shape: 1024 250 6 6 (9216000)
I0412 04:57:54.330309  1215 net.cpp:165] Memory required for data: 2138791936
I0412 04:57:54.330320  1215 layer_factory.hpp:77] Creating layer conv3_relu
I0412 04:57:54.330328  1215 net.cpp:100] Creating Layer conv3_relu
I0412 04:57:54.330332  1215 net.cpp:434] conv3_relu <- conv3
I0412 04:57:54.330338  1215 net.cpp:395] conv3_relu -> conv3 (in-place)
I0412 04:57:54.333348  1215 net.cpp:150] Setting up conv3_relu
I0412 04:57:54.333366  1215 net.cpp:157] Top shape: 1024 250 6 6 (9216000)
I0412 04:57:54.333370  1215 net.cpp:165] Memory required for data: 2175655936
I0412 04:57:54.333374  1215 layer_factory.hpp:77] Creating layer pool3
I0412 04:57:54.333381  1215 net.cpp:100] Creating Layer pool3
I0412 04:57:54.333385  1215 net.cpp:434] pool3 <- conv3
I0412 04:57:54.333391  1215 net.cpp:408] pool3 -> pool3
I0412 04:57:54.333441  1215 net.cpp:150] Setting up pool3
I0412 04:57:54.333449  1215 net.cpp:157] Top shape: 1024 250 3 3 (2304000)
I0412 04:57:54.333452  1215 net.cpp:165] Memory required for data: 2184871936
I0412 04:57:54.333456  1215 layer_factory.hpp:77] Creating layer fc4_300
I0412 04:57:54.333462  1215 net.cpp:100] Creating Layer fc4_300
I0412 04:57:54.333465  1215 net.cpp:434] fc4_300 <- pool3
I0412 04:57:54.333477  1215 net.cpp:408] fc4_300 -> fc4_300
I0412 04:57:54.341900  1215 net.cpp:150] Setting up fc4_300
I0412 04:57:54.341919  1215 net.cpp:157] Top shape: 1024 300 (307200)
I0412 04:57:54.341923  1215 net.cpp:165] Memory required for data: 2186100736
I0412 04:57:54.341934  1215 layer_factory.hpp:77] Creating layer fc4_relu
I0412 04:57:54.341943  1215 net.cpp:100] Creating Layer fc4_relu
I0412 04:57:54.341948  1215 net.cpp:434] fc4_relu <- fc4_300
I0412 04:57:54.341953  1215 net.cpp:395] fc4_relu -> fc4_300 (in-place)
I0412 04:57:54.342133  1215 net.cpp:150] Setting up fc4_relu
I0412 04:57:54.342145  1215 net.cpp:157] Top shape: 1024 300 (307200)
I0412 04:57:54.342149  1215 net.cpp:165] Memory required for data: 2187329536
I0412 04:57:54.342152  1215 layer_factory.hpp:77] Creating layer drop4
I0412 04:57:54.342160  1215 net.cpp:100] Creating Layer drop4
I0412 04:57:54.342165  1215 net.cpp:434] drop4 <- fc4_300
I0412 04:57:54.342170  1215 net.cpp:395] drop4 -> fc4_300 (in-place)
I0412 04:57:54.342202  1215 net.cpp:150] Setting up drop4
I0412 04:57:54.342211  1215 net.cpp:157] Top shape: 1024 300 (307200)
I0412 04:57:54.342213  1215 net.cpp:165] Memory required for data: 2188558336
I0412 04:57:54.342216  1215 layer_factory.hpp:77] Creating layer fc5_67
I0412 04:57:54.342223  1215 net.cpp:100] Creating Layer fc5_67
I0412 04:57:54.342227  1215 net.cpp:434] fc5_67 <- fc4_300
I0412 04:57:54.342232  1215 net.cpp:408] fc5_67 -> fc5_classes
I0412 04:57:54.343626  1215 net.cpp:150] Setting up fc5_67
I0412 04:57:54.343642  1215 net.cpp:157] Top shape: 1024 67 (68608)
I0412 04:57:54.343647  1215 net.cpp:165] Memory required for data: 2188832768
I0412 04:57:54.343657  1215 layer_factory.hpp:77] Creating layer fc5_classes_fc5_67_0_split
I0412 04:57:54.343667  1215 net.cpp:100] Creating Layer fc5_classes_fc5_67_0_split
I0412 04:57:54.343672  1215 net.cpp:434] fc5_classes_fc5_67_0_split <- fc5_classes
I0412 04:57:54.343678  1215 net.cpp:408] fc5_classes_fc5_67_0_split -> fc5_classes_fc5_67_0_split_0
I0412 04:57:54.343686  1215 net.cpp:408] fc5_classes_fc5_67_0_split -> fc5_classes_fc5_67_0_split_1
I0412 04:57:54.343694  1215 net.cpp:408] fc5_classes_fc5_67_0_split -> fc5_classes_fc5_67_0_split_2
I0412 04:57:54.343745  1215 net.cpp:150] Setting up fc5_classes_fc5_67_0_split
I0412 04:57:54.343752  1215 net.cpp:157] Top shape: 1024 67 (68608)
I0412 04:57:54.343756  1215 net.cpp:157] Top shape: 1024 67 (68608)
I0412 04:57:54.343760  1215 net.cpp:157] Top shape: 1024 67 (68608)
I0412 04:57:54.343762  1215 net.cpp:165] Memory required for data: 2189656064
I0412 04:57:54.343765  1215 layer_factory.hpp:77] Creating layer softmax
I0412 04:57:54.343794  1215 net.cpp:100] Creating Layer softmax
I0412 04:57:54.343799  1215 net.cpp:434] softmax <- fc5_classes_fc5_67_0_split_0
I0412 04:57:54.343806  1215 net.cpp:408] softmax -> softmax
I0412 04:57:54.344071  1215 net.cpp:150] Setting up softmax
I0412 04:57:54.344086  1215 net.cpp:157] Top shape: 1024 67 (68608)
I0412 04:57:54.344089  1215 net.cpp:165] Memory required for data: 2189930496
I0412 04:57:54.344094  1215 layer_factory.hpp:77] Creating layer loss
I0412 04:57:54.344100  1215 net.cpp:100] Creating Layer loss
I0412 04:57:54.344105  1215 net.cpp:434] loss <- softmax
I0412 04:57:54.344110  1215 net.cpp:434] loss <- label_data_1_split_0
I0412 04:57:54.344115  1215 net.cpp:408] loss -> loss
…
