…
I0414 04:04:38.728340 31950 solver.cpp:93] Creating training net from train_net file: ./Prototxt/experiment_10/rtsd-r1/CoNorm/trial_5/train.prototxt
I0414 04:04:38.728730 31950 net.cpp:58] Initializing net from parameters: 
state {
  phase: TRAIN
  level: 0
  stage: ""
}
layer {
  name: "data"
  type: "Data"
  top: "data"
  top: "label"
  include {
    phase: TRAIN
  }
  transform_param {
    scale: 0.0039215689
    mirror: false
    crop_size: 48
    mean_value: 132
    mean_value: 132
    mean_value: 131
  }
  data_param {
    source: "../local_data/lmdb/rtsd-r1/CoNorm/train/lmdb"
    batch_size: 1024
    backend: LMDB
  }
}
layer {
  name: "conv1"
  type: "Convolution"
  bottom: "data"
  top: "conv1"
  convolution_param {
    num_output: 100
    pad: 0
    kernel_size: 7
    group: 1
    stride: 1
    weight_filler {
      type: "xavier"
    }
  }
}
layer {
  name: "conv1_relu"
  type: "ReLU"
  bottom: "conv1"
  top: "conv1"
}
layer {
  name: "pool1"
  type: "Pooling"
  bottom: "conv1"
  top: "pool1"
  pooling_param {
    pool: MAX
    kernel_size: 2
    stride: 2
  }
}
layer {
  name: "conv2"
  type: "Convolution"
  bottom: "pool1"
  top: "conv2"
  convolution_param {
    num_output: 150
    pad: 0
    kernel_size: 4
    group: 1
    stride: 1
    weight_filler {
      type: "xavier"
    }
  }
}
layer {
  name: "conv2_relu"
  type: "ReLU"
  bottom: "conv2"
  top: "conv2"
}
layer {
  name: "pool2"
  type: "Pooling"
  bottom: "conv2"
  top: "pool2"
  pooling_param {
    pool: MAX
    kernel_size: 2
    stride: 2
  }
}
layer {
  name: "conv3"
  type: "Convolution"
  bottom: "pool2"
  top: "conv3"
  convolution_param {
    num_output: 250
    pad: 0
    kernel_size: 4
    group: 1
    stride: 1
    weight_filler {
      type: "xavier"
    }
  }
}
layer {
  name: "conv3_relu"
  type: "ReLU"
  bottom: "conv3"
  top: "conv3"
}
layer {
  name: "pool3"
  type: "Pooling"
  bottom: "conv3"
  top: "pool3"
  pooling_param {
    pool: MAX
    kernel_size: 2
    stride: 2
  }
}
layer {
  name: "fc4_300"
  type: "InnerProduct"
  bottom: "pool3"
  top: "fc4_300"
  inner_product_param {
    num_output: 300
    weight_filler {
      type: "xavier"
    }
  }
}
layer {
  name: "fc4_relu"
  type: "ReLU"
  bottom: "fc4_300"
  top: "fc4_300"
}
layer {
  name: "fc5_67"
  type: "InnerProduct"
  bottom: "fc4_300"
  top: "fc5_classes"
  inner_product_param {
    num_output: 67
    weight_filler {
      type: "xavier"
    }
  }
}
layer {
  name: "softmax"
  type: "Softmax"
  bottom: "fc5_classes"
  top: "softmax"
}
layer {
  name: "loss"
  type: "MultinomialLogisticLoss"
  bottom: "softmax"
  bottom: "label"
  top: "loss"
}
layer {
  name: "accuracy_1"
  type: "Accuracy"
  bottom: "fc5_classes"
  bottom: "label"
  top: "accuracy_1"
  accuracy_param {
    top_k: 1
  }
}
layer {
  name: "accuracy_5"
  type: "Accuracy"
  bottom: "fc5_classes"
  bottom: "label"
  top: "accuracy_5"
  accuracy_param {
    top_k: 5
  }
}
layer {
  name: "silence"
  type: "Silence"
  bottom: "accuracy_1"
  bottom: "accuracy_5"
}
I0414 04:04:38.728849 31950 layer_factory.hpp:77] Creating layer data
I0414 04:04:38.729917 31950 net.cpp:100] Creating Layer data
I0414 04:04:38.729933 31950 net.cpp:408] data -> data
I0414 04:04:38.729959 31950 net.cpp:408] data -> label
I0414 04:04:38.731170 32052 db_lmdb.cpp:35] Opened lmdb ../local_data/lmdb/rtsd-r1/CoNorm/train/lmdb
I0414 04:04:38.748878 31950 data_layer.cpp:41] output data size: 1024,3,48,48
I0414 04:04:38.814322 31950 net.cpp:150] Setting up data
I0414 04:04:38.814374 31950 net.cpp:157] Top shape: 1024 3 48 48 (7077888)
I0414 04:04:38.814381 31950 net.cpp:157] Top shape: 1024 (1024)
I0414 04:04:38.814384 31950 net.cpp:165] Memory required for data: 28315648
I0414 04:04:38.814395 31950 layer_factory.hpp:77] Creating layer label_data_1_split
I0414 04:04:38.814411 31950 net.cpp:100] Creating Layer label_data_1_split
I0414 04:04:38.814419 31950 net.cpp:434] label_data_1_split <- label
I0414 04:04:38.814431 31950 net.cpp:408] label_data_1_split -> label_data_1_split_0
I0414 04:04:38.814445 31950 net.cpp:408] label_data_1_split -> label_data_1_split_1
I0414 04:04:38.814453 31950 net.cpp:408] label_data_1_split -> label_data_1_split_2
I0414 04:04:38.814515 31950 net.cpp:150] Setting up label_data_1_split
I0414 04:04:38.814524 31950 net.cpp:157] Top shape: 1024 (1024)
I0414 04:04:38.814528 31950 net.cpp:157] Top shape: 1024 (1024)
I0414 04:04:38.814532 31950 net.cpp:157] Top shape: 1024 (1024)
I0414 04:04:38.814535 31950 net.cpp:165] Memory required for data: 28327936
I0414 04:04:38.814539 31950 layer_factory.hpp:77] Creating layer conv1
I0414 04:04:38.814556 31950 net.cpp:100] Creating Layer conv1
I0414 04:04:38.814561 31950 net.cpp:434] conv1 <- data
I0414 04:04:38.814568 31950 net.cpp:408] conv1 -> conv1
I0414 04:04:39.248064 31950 net.cpp:150] Setting up conv1
I0414 04:04:39.248096 31950 net.cpp:157] Top shape: 1024 100 42 42 (180633600)
I0414 04:04:39.248101 31950 net.cpp:165] Memory required for data: 750862336
I0414 04:04:39.248127 31950 layer_factory.hpp:77] Creating layer conv1_relu
I0414 04:04:39.248143 31950 net.cpp:100] Creating Layer conv1_relu
I0414 04:04:39.248150 31950 net.cpp:434] conv1_relu <- conv1
I0414 04:04:39.248157 31950 net.cpp:395] conv1_relu -> conv1 (in-place)
I0414 04:04:39.248394 31950 net.cpp:150] Setting up conv1_relu
I0414 04:04:39.248409 31950 net.cpp:157] Top shape: 1024 100 42 42 (180633600)
I0414 04:04:39.248414 31950 net.cpp:165] Memory required for data: 1473396736
I0414 04:04:39.248420 31950 layer_factory.hpp:77] Creating layer pool1
I0414 04:04:39.248431 31950 net.cpp:100] Creating Layer pool1
I0414 04:04:39.248437 31950 net.cpp:434] pool1 <- conv1
I0414 04:04:39.248445 31950 net.cpp:408] pool1 -> pool1
I0414 04:04:39.248508 31950 net.cpp:150] Setting up pool1
I0414 04:04:39.248519 31950 net.cpp:157] Top shape: 1024 100 21 21 (45158400)
I0414 04:04:39.248525 31950 net.cpp:165] Memory required for data: 1654030336
I0414 04:04:39.248529 31950 layer_factory.hpp:77] Creating layer conv2
I0414 04:04:39.248541 31950 net.cpp:100] Creating Layer conv2
I0414 04:04:39.248548 31950 net.cpp:434] conv2 <- pool1
I0414 04:04:39.248554 31950 net.cpp:408] conv2 -> conv2
I0414 04:04:39.253815 31950 net.cpp:150] Setting up conv2
I0414 04:04:39.253835 31950 net.cpp:157] Top shape: 1024 150 18 18 (49766400)
I0414 04:04:39.253841 31950 net.cpp:165] Memory required for data: 1853095936
I0414 04:04:39.253854 31950 layer_factory.hpp:77] Creating layer conv2_relu
I0414 04:04:39.253865 31950 net.cpp:100] Creating Layer conv2_relu
I0414 04:04:39.253870 31950 net.cpp:434] conv2_relu <- conv2
I0414 04:04:39.253877 31950 net.cpp:395] conv2_relu -> conv2 (in-place)
I0414 04:04:39.254889 31950 net.cpp:150] Setting up conv2_relu
I0414 04:04:39.254909 31950 net.cpp:157] Top shape: 1024 150 18 18 (49766400)
I0414 04:04:39.254914 31950 net.cpp:165] Memory required for data: 2052161536
I0414 04:04:39.254920 31950 layer_factory.hpp:77] Creating layer pool2
I0414 04:04:39.254927 31950 net.cpp:100] Creating Layer pool2
I0414 04:04:39.254935 31950 net.cpp:434] pool2 <- conv2
I0414 04:04:39.254941 31950 net.cpp:408] pool2 -> pool2
I0414 04:04:39.254999 31950 net.cpp:150] Setting up pool2
I0414 04:04:39.255009 31950 net.cpp:157] Top shape: 1024 150 9 9 (12441600)
I0414 04:04:39.255015 31950 net.cpp:165] Memory required for data: 2101927936
I0414 04:04:39.255019 31950 layer_factory.hpp:77] Creating layer conv3
I0414 04:04:39.255031 31950 net.cpp:100] Creating Layer conv3
I0414 04:04:39.255038 31950 net.cpp:434] conv3 <- pool2
I0414 04:04:39.255044 31950 net.cpp:408] conv3 -> conv3
I0414 04:04:39.261948 31950 net.cpp:150] Setting up conv3
I0414 04:04:39.261968 31950 net.cpp:157] Top shape: 1024 250 6 6 (9216000)
I0414 04:04:39.261973 31950 net.cpp:165] Memory required for data: 2138791936
I0414 04:04:39.261986 31950 layer_factory.hpp:77] Creating layer conv3_relu
I0414 04:04:39.261994 31950 net.cpp:100] Creating Layer conv3_relu
I0414 04:04:39.261998 31950 net.cpp:434] conv3_relu <- conv3
I0414 04:04:39.262006 31950 net.cpp:395] conv3_relu -> conv3 (in-place)
I0414 04:04:39.265106 31950 net.cpp:150] Setting up conv3_relu
I0414 04:04:39.265125 31950 net.cpp:157] Top shape: 1024 250 6 6 (9216000)
I0414 04:04:39.265130 31950 net.cpp:165] Memory required for data: 2175655936
I0414 04:04:39.265135 31950 layer_factory.hpp:77] Creating layer pool3
I0414 04:04:39.265143 31950 net.cpp:100] Creating Layer pool3
I0414 04:04:39.265148 31950 net.cpp:434] pool3 <- conv3
I0414 04:04:39.265156 31950 net.cpp:408] pool3 -> pool3
I0414 04:04:39.265210 31950 net.cpp:150] Setting up pool3
I0414 04:04:39.265220 31950 net.cpp:157] Top shape: 1024 250 3 3 (2304000)
I0414 04:04:39.265224 31950 net.cpp:165] Memory required for data: 2184871936
I0414 04:04:39.265228 31950 layer_factory.hpp:77] Creating layer fc4_300
I0414 04:04:39.265240 31950 net.cpp:100] Creating Layer fc4_300
I0414 04:04:39.265246 31950 net.cpp:434] fc4_300 <- pool3
I0414 04:04:39.265252 31950 net.cpp:408] fc4_300 -> fc4_300
I0414 04:04:39.271960 31950 net.cpp:150] Setting up fc4_300
I0414 04:04:39.271978 31950 net.cpp:157] Top shape: 1024 300 (307200)
I0414 04:04:39.271983 31950 net.cpp:165] Memory required for data: 2186100736
I0414 04:04:39.271991 31950 layer_factory.hpp:77] Creating layer fc4_relu
I0414 04:04:39.271999 31950 net.cpp:100] Creating Layer fc4_relu
I0414 04:04:39.272006 31950 net.cpp:434] fc4_relu <- fc4_300
I0414 04:04:39.272012 31950 net.cpp:395] fc4_relu -> fc4_300 (in-place)
I0414 04:04:39.272239 31950 net.cpp:150] Setting up fc4_relu
I0414 04:04:39.272253 31950 net.cpp:157] Top shape: 1024 300 (307200)
I0414 04:04:39.272258 31950 net.cpp:165] Memory required for data: 2187329536
I0414 04:04:39.272263 31950 layer_factory.hpp:77] Creating layer fc5_67
I0414 04:04:39.272270 31950 net.cpp:100] Creating Layer fc5_67
I0414 04:04:39.272276 31950 net.cpp:434] fc5_67 <- fc4_300
I0414 04:04:39.272284 31950 net.cpp:408] fc5_67 -> fc5_classes
I0414 04:04:39.273977 31950 net.cpp:150] Setting up fc5_67
I0414 04:04:39.273995 31950 net.cpp:157] Top shape: 1024 67 (68608)
I0414 04:04:39.273999 31950 net.cpp:165] Memory required for data: 2187603968
I0414 04:04:39.274013 31950 layer_factory.hpp:77] Creating layer fc5_classes_fc5_67_0_split
I0414 04:04:39.274022 31950 net.cpp:100] Creating Layer fc5_classes_fc5_67_0_split
I0414 04:04:39.274026 31950 net.cpp:434] fc5_classes_fc5_67_0_split <- fc5_classes
I0414 04:04:39.274034 31950 net.cpp:408] fc5_classes_fc5_67_0_split -> fc5_classes_fc5_67_0_split_0
I0414 04:04:39.274044 31950 net.cpp:408] fc5_classes_fc5_67_0_split -> fc5_classes_fc5_67_0_split_1
I0414 04:04:39.274055 31950 net.cpp:408] fc5_classes_fc5_67_0_split -> fc5_classes_fc5_67_0_split_2
I0414 04:04:39.274116 31950 net.cpp:150] Setting up fc5_classes_fc5_67_0_split
I0414 04:04:39.274125 31950 net.cpp:157] Top shape: 1024 67 (68608)
I0414 04:04:39.274132 31950 net.cpp:157] Top shape: 1024 67 (68608)
I0414 04:04:39.274137 31950 net.cpp:157] Top shape: 1024 67 (68608)
I0414 04:04:39.274140 31950 net.cpp:165] Memory required for data: 2188427264
I0414 04:04:39.274144 31950 layer_factory.hpp:77] Creating layer softmax
I0414 04:04:39.274152 31950 net.cpp:100] Creating Layer softmax
I0414 04:04:39.274158 31950 net.cpp:434] softmax <- fc5_classes_fc5_67_0_split_0
I0414 04:04:39.274164 31950 net.cpp:408] softmax -> softmax
I0414 04:04:39.274469 31950 net.cpp:150] Setting up softmax
I0414 04:04:39.274484 31950 net.cpp:157] Top shape: 1024 67 (68608)
I0414 04:04:39.274489 31950 net.cpp:165] Memory required for data: 2188701696
I0414 04:04:39.274493 31950 layer_factory.hpp:77] Creating layer loss
I0414 04:04:39.274504 31950 net.cpp:100] Creating Layer loss
I0414 04:04:39.274526 31950 net.cpp:434] loss <- softmax
I0414 04:04:39.274534 31950 net.cpp:434] loss <- label_data_1_split_0
I0414 04:04:39.274544 31950 net.cpp:408] loss -> loss
…
