…
I0411 18:29:13.832653 15621 net.cpp:322] The NetState phase (0) differed from the phase (1) specified by a rule in layer accuracy_5
I0411 18:29:13.832803 15621 net.cpp:58] Initializing net from parameters: 
state {
  phase: TRAIN
  level: 0
  stage: ""
}
layer {
  name: "data"
  type: "Data"
  top: "data"
  top: "label"
  include {
    phase: TRAIN
  }
  transform_param {
    scale: 0.0039215689
    mirror: false
    crop_size: 48
    mean_value: 122
    mean_value: 115
    mean_value: 129
  }
  data_param {
    source: "../local_data/lmdb/rtsd-r1/orig/train/lmdb"
    batch_size: 1024
    backend: LMDB
  }
}
layer {
  name: "conv1"
  type: "Convolution"
  bottom: "data"
  top: "conv1"
  convolution_param {
    num_output: 100
    pad: 0
    kernel_size: 7
    group: 1
    stride: 1
    weight_filler {
      type: "xavier"
    }
  }
}
layer {
  name: "conv1_prescale"
  type: "Scale"
  bottom: "conv1"
  top: "conv1"
  param {
    lr_mult: 0
    decay_mult: 0
  }
  scale_param {
    filler {
      value: 0.6666
    }
    bias_term: false
  }
}
layer {
  name: "conv1_sTanH"
  type: "TanH"
  bottom: "conv1"
  top: "conv1"
}
layer {
  name: "conv1_postscale"
  type: "Scale"
  bottom: "conv1"
  top: "conv1"
  param {
    lr_mult: 0
    decay_mult: 0
  }
  scale_param {
    filler {
      value: 1.7159
    }
    bias_term: false
  }
}
layer {
  name: "pool1"
  type: "Pooling"
  bottom: "conv1"
  top: "pool1"
  pooling_param {
    pool: MAX
    kernel_size: 2
    stride: 2
  }
}
layer {
  name: "conv2"
  type: "Convolution"
  bottom: "pool1"
  top: "conv2"
  convolution_param {
    num_output: 150
    pad: 0
    kernel_size: 4
    group: 1
    stride: 1
    weight_filler {
      type: "xavier"
    }
  }
}
layer {
  name: "conv2_prescale"
  type: "Scale"
  bottom: "conv2"
  top: "conv2"
  param {
    lr_mult: 0
    decay_mult: 0
  }
  scale_param {
    filler {
      value: 0.6666
    }
    bias_term: false
  }
}
layer {
  name: "conv2_sTanH"
  type: "TanH"
  bottom: "conv2"
  top: "conv2"
}
layer {
  name: "conv2_postscale"
  type: "Scale"
  bottom: "conv2"
  top: "conv2"
  param {
    lr_mult: 0
    decay_mult: 0
  }
  scale_param {
    filler {
      value: 1.7159
    }
    bias_term: false
  }
}
layer {
  name: "pool2"
  type: "Pooling"
  bottom: "conv2"
  top: "pool2"
  pooling_param {
    pool: MAX
    kernel_size: 2
    stride: 2
  }
}
layer {
  name: "conv3"
  type: "Convolution"
  bottom: "pool2"
  top: "conv3"
  convolution_param {
    num_output: 250
    pad: 0
    kernel_size: 4
    group: 1
    stride: 1
    weight_filler {
      type: "xavier"
    }
  }
}
layer {
  name: "conv3_prescale"
  type: "Scale"
  bottom: "conv3"
  top: "conv3"
  param {
    lr_mult: 0
    decay_mult: 0
  }
  scale_param {
    filler {
      value: 0.6666
    }
    bias_term: false
  }
}
layer {
  name: "conv3_sTanH"
  type: "TanH"
  bottom: "conv3"
  top: "conv3"
}
layer {
  name: "conv3_postscale"
  type: "Scale"
  bottom: "conv3"
  top: "conv3"
  param {
    lr_mult: 0
    decay_mult: 0
  }
  scale_param {
    filler {
      value: 1.7159
    }
    bias_term: false
  }
}
layer {
  name: "pool3"
  type: "Pooling"
  bottom: "conv3"
  top: "pool3"
  pooling_param {
    pool: MAX
    kernel_size: 2
    stride: 2
  }
}
layer {
  name: "fc4_300"
  type: "InnerProduct"
  bottom: "pool3"
  top: "fc4_300"
  inner_product_param {
    num_output: 300
    weight_filler {
      type: "xavier"
    }
  }
}
layer {
  name: "fc4_prescale"
  type: "Scale"
  bottom: "fc4_300"
  top: "fc4_300"
  param {
    lr_mult: 0
    decay_mult: 0
  }
  scale_param {
    filler {
      value: 0.6666
    }
    bias_term: false
  }
}
layer {
  name: "fc4_sTanH"
  type: "TanH"
  bottom: "fc4_300"
  top: "fc4_300"
}
layer {
  name: "fc4_postscale"
  type: "Scale"
  bottom: "fc4_300"
  top: "fc4_300"
  param {
    lr_mult: 0
    decay_mult: 0
  }
  scale_param {
    filler {
      value: 1.7159
    }
    bias_term: false
  }
}
layer {
  name: "drop4"
  type: "Dropout"
  bottom: "fc4_300"
  top: "fc4_300"
  dropout_param {
    dropout_ratio: 0.1
  }
}
layer {
  name: "fc5_67"
  type: "InnerProduct"
  bottom: "fc4_300"
  top: "fc5_classes"
  inner_product_param {
    num_output: 67
    weight_filler {
      type: "xavier"
    }
  }
}
layer {
  name: "loss"
  type: "SoftmaxWithLoss"
  bottom: "fc5_classes"
  bottom: "label"
  top: "loss"
}
I0411 18:29:13.832907 15621 layer_factory.hpp:77] Creating layer data
I0411 18:29:13.833977 15621 net.cpp:100] Creating Layer data
I0411 18:29:13.833998 15621 net.cpp:408] data -> data
I0411 18:29:13.834022 15621 net.cpp:408] data -> label
I0411 18:29:13.836334 15741 db_lmdb.cpp:35] Opened lmdb ../local_data/lmdb/rtsd-r1/orig/train/lmdb
I0411 18:29:13.853404 15621 data_layer.cpp:41] output data size: 1024,3,48,48
I0411 18:29:13.903318 15621 net.cpp:150] Setting up data
I0411 18:29:13.903352 15621 net.cpp:157] Top shape: 1024 3 48 48 (7077888)
I0411 18:29:13.903357 15621 net.cpp:157] Top shape: 1024 (1024)
I0411 18:29:13.903360 15621 net.cpp:165] Memory required for data: 28315648
I0411 18:29:13.903370 15621 layer_factory.hpp:77] Creating layer conv1
I0411 18:29:13.903395 15621 net.cpp:100] Creating Layer conv1
I0411 18:29:13.903403 15621 net.cpp:434] conv1 <- data
I0411 18:29:13.903419 15621 net.cpp:408] conv1 -> conv1
I0411 18:29:14.254452 15621 net.cpp:150] Setting up conv1
I0411 18:29:14.254482 15621 net.cpp:157] Top shape: 1024 100 42 42 (180633600)
I0411 18:29:14.254485 15621 net.cpp:165] Memory required for data: 750850048
I0411 18:29:14.254508 15621 layer_factory.hpp:77] Creating layer conv1_prescale
I0411 18:29:14.254523 15621 net.cpp:100] Creating Layer conv1_prescale
I0411 18:29:14.254528 15621 net.cpp:434] conv1_prescale <- conv1
I0411 18:29:14.254537 15621 net.cpp:395] conv1_prescale -> conv1 (in-place)
I0411 18:29:14.254649 15621 net.cpp:150] Setting up conv1_prescale
I0411 18:29:14.254658 15621 net.cpp:157] Top shape: 1024 100 42 42 (180633600)
I0411 18:29:14.254662 15621 net.cpp:165] Memory required for data: 1473384448
I0411 18:29:14.254668 15621 layer_factory.hpp:77] Creating layer conv1_sTanH
I0411 18:29:14.254676 15621 net.cpp:100] Creating Layer conv1_sTanH
I0411 18:29:14.254680 15621 net.cpp:434] conv1_sTanH <- conv1
I0411 18:29:14.254685 15621 net.cpp:395] conv1_sTanH -> conv1 (in-place)
I0411 18:29:14.254880 15621 net.cpp:150] Setting up conv1_sTanH
I0411 18:29:14.254894 15621 net.cpp:157] Top shape: 1024 100 42 42 (180633600)
I0411 18:29:14.254899 15621 net.cpp:165] Memory required for data: 2195918848
I0411 18:29:14.254902 15621 layer_factory.hpp:77] Creating layer conv1_postscale
I0411 18:29:14.254910 15621 net.cpp:100] Creating Layer conv1_postscale
I0411 18:29:14.254916 15621 net.cpp:434] conv1_postscale <- conv1
I0411 18:29:14.254921 15621 net.cpp:395] conv1_postscale -> conv1 (in-place)
I0411 18:29:14.255017 15621 net.cpp:150] Setting up conv1_postscale
I0411 18:29:14.255025 15621 net.cpp:157] Top shape: 1024 100 42 42 (180633600)
I0411 18:29:14.255028 15621 net.cpp:165] Memory required for data: 2918453248
I0411 18:29:14.255033 15621 layer_factory.hpp:77] Creating layer pool1
I0411 18:29:14.255040 15621 net.cpp:100] Creating Layer pool1
I0411 18:29:14.255045 15621 net.cpp:434] pool1 <- conv1
I0411 18:29:14.255051 15621 net.cpp:408] pool1 -> pool1
I0411 18:29:14.255120 15621 net.cpp:150] Setting up pool1
I0411 18:29:14.255129 15621 net.cpp:157] Top shape: 1024 100 21 21 (45158400)
I0411 18:29:14.255132 15621 net.cpp:165] Memory required for data: 3099086848
I0411 18:29:14.255136 15621 layer_factory.hpp:77] Creating layer conv2
I0411 18:29:14.255146 15621 net.cpp:100] Creating Layer conv2
I0411 18:29:14.255151 15621 net.cpp:434] conv2 <- pool1
I0411 18:29:14.255156 15621 net.cpp:408] conv2 -> conv2
I0411 18:29:14.261739 15621 net.cpp:150] Setting up conv2
I0411 18:29:14.261757 15621 net.cpp:157] Top shape: 1024 150 18 18 (49766400)
I0411 18:29:14.261773 15621 net.cpp:165] Memory required for data: 3298152448
I0411 18:29:14.261785 15621 layer_factory.hpp:77] Creating layer conv2_prescale
I0411 18:29:14.261795 15621 net.cpp:100] Creating Layer conv2_prescale
I0411 18:29:14.261801 15621 net.cpp:434] conv2_prescale <- conv2
I0411 18:29:14.261806 15621 net.cpp:395] conv2_prescale -> conv2 (in-place)
I0411 18:29:14.261914 15621 net.cpp:150] Setting up conv2_prescale
I0411 18:29:14.261924 15621 net.cpp:157] Top shape: 1024 150 18 18 (49766400)
I0411 18:29:14.261927 15621 net.cpp:165] Memory required for data: 3497218048
I0411 18:29:14.261932 15621 layer_factory.hpp:77] Creating layer conv2_sTanH
I0411 18:29:14.261940 15621 net.cpp:100] Creating Layer conv2_sTanH
I0411 18:29:14.261945 15621 net.cpp:434] conv2_sTanH <- conv2
I0411 18:29:14.261950 15621 net.cpp:395] conv2_sTanH -> conv2 (in-place)
I0411 18:29:14.262775 15621 net.cpp:150] Setting up conv2_sTanH
I0411 18:29:14.262792 15621 net.cpp:157] Top shape: 1024 150 18 18 (49766400)
I0411 18:29:14.262801 15621 net.cpp:165] Memory required for data: 3696283648
I0411 18:29:14.262805 15621 layer_factory.hpp:77] Creating layer conv2_postscale
I0411 18:29:14.262814 15621 net.cpp:100] Creating Layer conv2_postscale
I0411 18:29:14.262818 15621 net.cpp:434] conv2_postscale <- conv2
I0411 18:29:14.262825 15621 net.cpp:395] conv2_postscale -> conv2 (in-place)
I0411 18:29:14.262918 15621 net.cpp:150] Setting up conv2_postscale
I0411 18:29:14.262928 15621 net.cpp:157] Top shape: 1024 150 18 18 (49766400)
I0411 18:29:14.262930 15621 net.cpp:165] Memory required for data: 3895349248
I0411 18:29:14.262935 15621 layer_factory.hpp:77] Creating layer pool2
I0411 18:29:14.262941 15621 net.cpp:100] Creating Layer pool2
I0411 18:29:14.262946 15621 net.cpp:434] pool2 <- conv2
I0411 18:29:14.262953 15621 net.cpp:408] pool2 -> pool2
I0411 18:29:14.262991 15621 net.cpp:150] Setting up pool2
I0411 18:29:14.263000 15621 net.cpp:157] Top shape: 1024 150 9 9 (12441600)
I0411 18:29:14.263002 15621 net.cpp:165] Memory required for data: 3945115648
I0411 18:29:14.263005 15621 layer_factory.hpp:77] Creating layer conv3
I0411 18:29:14.263013 15621 net.cpp:100] Creating Layer conv3
I0411 18:29:14.263018 15621 net.cpp:434] conv3 <- pool2
I0411 18:29:14.263023 15621 net.cpp:408] conv3 -> conv3
I0411 18:29:14.278863 15621 net.cpp:150] Setting up conv3
I0411 18:29:14.278885 15621 net.cpp:157] Top shape: 1024 250 6 6 (9216000)
I0411 18:29:14.278889 15621 net.cpp:165] Memory required for data: 3981979648
I0411 18:29:14.278900 15621 layer_factory.hpp:77] Creating layer conv3_prescale
I0411 18:29:14.278911 15621 net.cpp:100] Creating Layer conv3_prescale
I0411 18:29:14.278918 15621 net.cpp:434] conv3_prescale <- conv3
I0411 18:29:14.278923 15621 net.cpp:395] conv3_prescale -> conv3 (in-place)
I0411 18:29:14.279018 15621 net.cpp:150] Setting up conv3_prescale
I0411 18:29:14.279027 15621 net.cpp:157] Top shape: 1024 250 6 6 (9216000)
I0411 18:29:14.279031 15621 net.cpp:165] Memory required for data: 4018843648
I0411 18:29:14.279037 15621 layer_factory.hpp:77] Creating layer conv3_sTanH
I0411 18:29:14.279044 15621 net.cpp:100] Creating Layer conv3_sTanH
I0411 18:29:14.279049 15621 net.cpp:434] conv3_sTanH <- conv3
I0411 18:29:14.279054 15621 net.cpp:395] conv3_sTanH -> conv3 (in-place)
I0411 18:29:14.281003 15621 net.cpp:150] Setting up conv3_sTanH
I0411 18:29:14.281024 15621 net.cpp:157] Top shape: 1024 250 6 6 (9216000)
I0411 18:29:14.281029 15621 net.cpp:165] Memory required for data: 4055707648
I0411 18:29:14.281050 15621 layer_factory.hpp:77] Creating layer conv3_postscale
I0411 18:29:14.281061 15621 net.cpp:100] Creating Layer conv3_postscale
I0411 18:29:14.281067 15621 net.cpp:434] conv3_postscale <- conv3
I0411 18:29:14.281074 15621 net.cpp:395] conv3_postscale -> conv3 (in-place)
I0411 18:29:14.281177 15621 net.cpp:150] Setting up conv3_postscale
I0411 18:29:14.281185 15621 net.cpp:157] Top shape: 1024 250 6 6 (9216000)
I0411 18:29:14.281189 15621 net.cpp:165] Memory required for data: 4092571648
I0411 18:29:14.281195 15621 layer_factory.hpp:77] Creating layer pool3
I0411 18:29:14.281203 15621 net.cpp:100] Creating Layer pool3
I0411 18:29:14.281208 15621 net.cpp:434] pool3 <- conv3
I0411 18:29:14.281213 15621 net.cpp:408] pool3 -> pool3
I0411 18:29:14.281252 15621 net.cpp:150] Setting up pool3
I0411 18:29:14.281260 15621 net.cpp:157] Top shape: 1024 250 3 3 (2304000)
I0411 18:29:14.281263 15621 net.cpp:165] Memory required for data: 4101787648
I0411 18:29:14.281266 15621 layer_factory.hpp:77] Creating layer fc4_300
I0411 18:29:14.281275 15621 net.cpp:100] Creating Layer fc4_300
I0411 18:29:14.281280 15621 net.cpp:434] fc4_300 <- pool3
I0411 18:29:14.281286 15621 net.cpp:408] fc4_300 -> fc4_300
I0411 18:29:14.286741 15621 net.cpp:150] Setting up fc4_300
I0411 18:29:14.286759 15621 net.cpp:157] Top shape: 1024 300 (307200)
I0411 18:29:14.286763 15621 net.cpp:165] Memory required for data: 4103016448
I0411 18:29:14.286770 15621 layer_factory.hpp:77] Creating layer fc4_prescale
I0411 18:29:14.286779 15621 net.cpp:100] Creating Layer fc4_prescale
I0411 18:29:14.286785 15621 net.cpp:434] fc4_prescale <- fc4_300
I0411 18:29:14.286790 15621 net.cpp:395] fc4_prescale -> fc4_300 (in-place)
I0411 18:29:14.286880 15621 net.cpp:150] Setting up fc4_prescale
I0411 18:29:14.286888 15621 net.cpp:157] Top shape: 1024 300 (307200)
I0411 18:29:14.286891 15621 net.cpp:165] Memory required for data: 4104245248
I0411 18:29:14.286896 15621 layer_factory.hpp:77] Creating layer fc4_sTanH
I0411 18:29:14.286908 15621 net.cpp:100] Creating Layer fc4_sTanH
I0411 18:29:14.286913 15621 net.cpp:434] fc4_sTanH <- fc4_300
I0411 18:29:14.286917 15621 net.cpp:395] fc4_sTanH -> fc4_300 (in-place)
I0411 18:29:14.287104 15621 net.cpp:150] Setting up fc4_sTanH
I0411 18:29:14.287117 15621 net.cpp:157] Top shape: 1024 300 (307200)
I0411 18:29:14.287122 15621 net.cpp:165] Memory required for data: 4105474048
I0411 18:29:14.287124 15621 layer_factory.hpp:77] Creating layer fc4_postscale
I0411 18:29:14.287132 15621 net.cpp:100] Creating Layer fc4_postscale
I0411 18:29:14.287137 15621 net.cpp:434] fc4_postscale <- fc4_300
I0411 18:29:14.287142 15621 net.cpp:395] fc4_postscale -> fc4_300 (in-place)
I0411 18:29:14.287235 15621 net.cpp:150] Setting up fc4_postscale
I0411 18:29:14.287243 15621 net.cpp:157] Top shape: 1024 300 (307200)
I0411 18:29:14.287246 15621 net.cpp:165] Memory required for data: 4106702848
I0411 18:29:14.287251 15621 layer_factory.hpp:77] Creating layer drop4
I0411 18:29:14.287259 15621 net.cpp:100] Creating Layer drop4
I0411 18:29:14.287263 15621 net.cpp:434] drop4 <- fc4_300
I0411 18:29:14.287268 15621 net.cpp:395] drop4 -> fc4_300 (in-place)
I0411 18:29:14.287293 15621 net.cpp:150] Setting up drop4
I0411 18:29:14.287300 15621 net.cpp:157] Top shape: 1024 300 (307200)
I0411 18:29:14.287303 15621 net.cpp:165] Memory required for data: 4107931648
I0411 18:29:14.287307 15621 layer_factory.hpp:77] Creating layer fc5_67
I0411 18:29:14.287312 15621 net.cpp:100] Creating Layer fc5_67
I0411 18:29:14.287317 15621 net.cpp:434] fc5_67 <- fc4_300
I0411 18:29:14.287322 15621 net.cpp:408] fc5_67 -> fc5_classes
I0411 18:29:14.288586 15621 net.cpp:150] Setting up fc5_67
I0411 18:29:14.288604 15621 net.cpp:157] Top shape: 1024 67 (68608)
I0411 18:29:14.288607 15621 net.cpp:165] Memory required for data: 4108206080
I0411 18:29:14.288619 15621 layer_factory.hpp:77] Creating layer loss
I0411 18:29:14.288627 15621 net.cpp:100] Creating Layer loss
I0411 18:29:14.288630 15621 net.cpp:434] loss <- fc5_classes
I0411 18:29:14.288635 15621 net.cpp:434] loss <- label
I0411 18:29:14.288657 15621 net.cpp:408] loss -> loss
I0411 18:29:14.288673 15621 layer_factory.hpp:77] Creating layer loss
…
I0411 18:29:14.289436 15621 solver.cpp:193] Creating test net (#0) specified by test_net file: ./Prototxt/experiment_9/rtsd-r1/orig/trial_3/test.prototxt
I0411 18:29:14.289625 15621 net.cpp:58] Initializing net from parameters: 
state {
  phase: TEST
}
layer {
  name: "data"
  type: "Data"
  top: "data"
  top: "label"
  include {
    phase: TEST
  }
  transform_param {
    scale: 0.0039215689
    mirror: false
    crop_size: 48
    mean_value: 113
    mean_value: 110
    mean_value: 132
  }
  data_param {
    source: "../local_data/lmdb/rtsd-r1/orig/test/lmdb"
    batch_size: 1024
    backend: LMDB
  }
}
layer {
  name: "conv1"
  type: "Convolution"
  bottom: "data"
  top: "conv1"
  convolution_param {
    num_output: 100
    pad: 0
    kernel_size: 7
    group: 1
    stride: 1
    weight_filler {
      type: "xavier"
    }
  }
}
layer {
  name: "conv1_prescale"
  type: "Scale"
  bottom: "conv1"
  top: "conv1"
  param {
    lr_mult: 0
    decay_mult: 0
  }
  scale_param {
    filler {
      value: 0.6666
    }
    bias_term: false
  }
}
layer {
  name: "conv1_sTanH"
  type: "TanH"
  bottom: "conv1"
  top: "conv1"
}
layer {
  name: "conv1_postscale"
  type: "Scale"
  bottom: "conv1"
  top: "conv1"
  param {
    lr_mult: 0
    decay_mult: 0
  }
  scale_param {
    filler {
      value: 1.7159
    }
    bias_term: false
  }
}
layer {
  name: "pool1"
  type: "Pooling"
  bottom: "conv1"
  top: "pool1"
  pooling_param {
    pool: MAX
    kernel_size: 2
    stride: 2
  }
}
layer {
  name: "conv2"
  type: "Convolution"
  bottom: "pool1"
  top: "conv2"
  convolution_param {
    num_output: 150
    pad: 0
    kernel_size: 4
    group: 1
    stride: 1
    weight_filler {
      type: "xavier"
    }
  }
}
layer {
  name: "conv2_prescale"
  type: "Scale"
  bottom: "conv2"
  top: "conv2"
  param {
    lr_mult: 0
    decay_mult: 0
  }
  scale_param {
    filler {
      value: 0.6666
    }
    bias_term: false
  }
}
layer {
  name: "conv2_sTanH"
  type: "TanH"
  bottom: "conv2"
  top: "conv2"
}
layer {
  name: "conv2_postscale"
  type: "Scale"
  bottom: "conv2"
  top: "conv2"
  param {
    lr_mult: 0
    decay_mult: 0
  }
  scale_param {
    filler {
      value: 1.7159
    }
    bias_term: false
  }
}
layer {
  name: "pool2"
  type: "Pooling"
  bottom: "conv2"
  top: "pool2"
  pooling_param {
    pool: MAX
    kernel_size: 2
    stride: 2
  }
}
layer {
  name: "conv3"
  type: "Convolution"
  bottom: "pool2"
  top: "conv3"
  convolution_param {
    num_output: 250
    pad: 0
    kernel_size: 4
    group: 1
    stride: 1
    weight_filler {
      type: "xavier"
    }
  }
}
layer {
  name: "conv3_prescale"
  type: "Scale"
  bottom: "conv3"
  top: "conv3"
  param {
    lr_mult: 0
    decay_mult: 0
  }
  scale_param {
    filler {
      value: 0.6666
    }
    bias_term: false
  }
}
layer {
  name: "conv3_sTanH"
  type: "TanH"
  bottom: "conv3"
  top: "conv3"
}
layer {
  name: "conv3_postscale"
  type: "Scale"
  bottom: "conv3"
  top: "conv3"
  param {
    lr_mult: 0
    decay_mult: 0
  }
  scale_param {
    filler {
      value: 1.7159
    }
    bias_term: false
  }
}
layer {
  name: "pool3"
  type: "Pooling"
  bottom: "conv3"
  top: "pool3"
  pooling_param {
    pool: MAX
    kernel_size: 2
    stride: 2
  }
}
layer {
  name: "fc4_300"
  type: "InnerProduct"
  bottom: "pool3"
  top: "fc4_300"
  inner_product_param {
    num_output: 300
    weight_filler {
      type: "xavier"
    }
  }
}
layer {
  name: "fc4_prescale"
  type: "Scale"
  bottom: "fc4_300"
  top: "fc4_300"
  param {
    lr_mult: 0
    decay_mult: 0
  }
  scale_param {
    filler {
      value: 0.6666
    }
    bias_term: false
  }
}
layer {
  name: "fc4_sTanH"
  type: "TanH"
  bottom: "fc4_300"
  top: "fc4_300"
}
layer {
  name: "fc4_postscale"
  type: "Scale"
  bottom: "fc4_300"
  top: "fc4_300"
  param {
    lr_mult: 0
    decay_mult: 0
  }
  scale_param {
    filler {
      value: 1.7159
    }
    bias_term: false
  }
}
layer {
  name: "drop4"
  type: "Dropout"
  bottom: "fc4_300"
  top: "fc4_300"
  dropout_param {
    dropout_ratio: 0.1
  }
}
layer {
  name: "fc5_67"
  type: "InnerProduct"
  bottom: "fc4_300"
  top: "fc5_classes"
  inner_product_param {
    num_output: 67
    weight_filler {
      type: "xavier"
    }
  }
}
layer {
  name: "loss"
  type: "SoftmaxWithLoss"
  bottom: "fc5_classes"
  bottom: "label"
  top: "loss"
}
layer {
  name: "accuracy_1"
  type: "Accuracy"
  bottom: "fc5_classes"
  bottom: "label"
  top: "accuracy_1"
  include {
    phase: TEST
  }
  accuracy_param {
    top_k: 1
  }
}
layer {
  name: "accuracy_5"
  type: "Accuracy"
  bottom: "fc5_classes"
  bottom: "label"
  top: "accuracy_5"
  include {
    phase: TEST
  }
  accuracy_param {
    top_k: 5
  }
}
I0411 18:29:14.289746 15621 layer_factory.hpp:77] Creating layer data
I0411 18:29:14.290323 15621 net.cpp:100] Creating Layer data
I0411 18:29:14.290334 15621 net.cpp:408] data -> data
I0411 18:29:14.290344 15621 net.cpp:408] data -> label
I0411 18:29:14.291685 15790 db_lmdb.cpp:35] Opened lmdb ../local_data/lmdb/rtsd-r1/orig/test/lmdb
I0411 18:29:14.291851 15621 data_layer.cpp:41] output data size: 1024,3,48,48
I0411 18:29:14.349292 15621 net.cpp:150] Setting up data
I0411 18:29:14.349320 15621 net.cpp:157] Top shape: 1024 3 48 48 (7077888)
I0411 18:29:14.349326 15621 net.cpp:157] Top shape: 1024 (1024)
I0411 18:29:14.349329 15621 net.cpp:165] Memory required for data: 28315648
I0411 18:29:14.349335 15621 layer_factory.hpp:77] Creating layer label_data_1_split
I0411 18:29:14.349350 15621 net.cpp:100] Creating Layer label_data_1_split
I0411 18:29:14.349356 15621 net.cpp:434] label_data_1_split <- label
I0411 18:29:14.349365 15621 net.cpp:408] label_data_1_split -> label_data_1_split_0
I0411 18:29:14.349377 15621 net.cpp:408] label_data_1_split -> label_data_1_split_1
I0411 18:29:14.349402 15621 net.cpp:408] label_data_1_split -> label_data_1_split_2
I0411 18:29:14.349550 15621 net.cpp:150] Setting up label_data_1_split
I0411 18:29:14.349560 15621 net.cpp:157] Top shape: 1024 (1024)
I0411 18:29:14.349565 15621 net.cpp:157] Top shape: 1024 (1024)
I0411 18:29:14.349568 15621 net.cpp:157] Top shape: 1024 (1024)
I0411 18:29:14.349571 15621 net.cpp:165] Memory required for data: 28327936
I0411 18:29:14.349575 15621 layer_factory.hpp:77] Creating layer conv1
I0411 18:29:14.349588 15621 net.cpp:100] Creating Layer conv1
I0411 18:29:14.349593 15621 net.cpp:434] conv1 <- data
I0411 18:29:14.349599 15621 net.cpp:408] conv1 -> conv1
I0411 18:29:14.353379 15621 net.cpp:150] Setting up conv1
I0411 18:29:14.353397 15621 net.cpp:157] Top shape: 1024 100 42 42 (180633600)
I0411 18:29:14.353401 15621 net.cpp:165] Memory required for data: 750862336
I0411 18:29:14.353413 15621 layer_factory.hpp:77] Creating layer conv1_prescale
I0411 18:29:14.353423 15621 net.cpp:100] Creating Layer conv1_prescale
I0411 18:29:14.353427 15621 net.cpp:434] conv1_prescale <- conv1
I0411 18:29:14.353433 15621 net.cpp:395] conv1_prescale -> conv1 (in-place)
I0411 18:29:14.353538 15621 net.cpp:150] Setting up conv1_prescale
I0411 18:29:14.353549 15621 net.cpp:157] Top shape: 1024 100 42 42 (180633600)
I0411 18:29:14.353551 15621 net.cpp:165] Memory required for data: 1473396736
I0411 18:29:14.353557 15621 layer_factory.hpp:77] Creating layer conv1_sTanH
I0411 18:29:14.353566 15621 net.cpp:100] Creating Layer conv1_sTanH
I0411 18:29:14.353571 15621 net.cpp:434] conv1_sTanH <- conv1
I0411 18:29:14.353576 15621 net.cpp:395] conv1_sTanH -> conv1 (in-place)
I0411 18:29:14.353762 15621 net.cpp:150] Setting up conv1_sTanH
I0411 18:29:14.353775 15621 net.cpp:157] Top shape: 1024 100 42 42 (180633600)
I0411 18:29:14.353778 15621 net.cpp:165] Memory required for data: 2195931136
I0411 18:29:14.353782 15621 layer_factory.hpp:77] Creating layer conv1_postscale
I0411 18:29:14.353790 15621 net.cpp:100] Creating Layer conv1_postscale
I0411 18:29:14.353795 15621 net.cpp:434] conv1_postscale <- conv1
I0411 18:29:14.353801 15621 net.cpp:395] conv1_postscale -> conv1 (in-place)
I0411 18:29:14.353914 15621 net.cpp:150] Setting up conv1_postscale
I0411 18:29:14.353921 15621 net.cpp:157] Top shape: 1024 100 42 42 (180633600)
I0411 18:29:14.353924 15621 net.cpp:165] Memory required for data: 2918465536
I0411 18:29:14.353929 15621 layer_factory.hpp:77] Creating layer pool1
I0411 18:29:14.353940 15621 net.cpp:100] Creating Layer pool1
I0411 18:29:14.353945 15621 net.cpp:434] pool1 <- conv1
I0411 18:29:14.353950 15621 net.cpp:408] pool1 -> pool1
I0411 18:29:14.353993 15621 net.cpp:150] Setting up pool1
I0411 18:29:14.354001 15621 net.cpp:157] Top shape: 1024 100 21 21 (45158400)
I0411 18:29:14.354005 15621 net.cpp:165] Memory required for data: 3099099136
I0411 18:29:14.354008 15621 layer_factory.hpp:77] Creating layer conv2
I0411 18:29:14.354017 15621 net.cpp:100] Creating Layer conv2
I0411 18:29:14.354022 15621 net.cpp:434] conv2 <- pool1
I0411 18:29:14.354027 15621 net.cpp:408] conv2 -> conv2
I0411 18:29:14.374523 15621 net.cpp:150] Setting up conv2
I0411 18:29:14.374546 15621 net.cpp:157] Top shape: 1024 150 18 18 (49766400)
I0411 18:29:14.374552 15621 net.cpp:165] Memory required for data: 3298164736
I0411 18:29:14.374563 15621 layer_factory.hpp:77] Creating layer conv2_prescale
I0411 18:29:14.374580 15621 net.cpp:100] Creating Layer conv2_prescale
I0411 18:29:14.374586 15621 net.cpp:434] conv2_prescale <- conv2
I0411 18:29:14.374593 15621 net.cpp:395] conv2_prescale -> conv2 (in-place)
I0411 18:29:14.374706 15621 net.cpp:150] Setting up conv2_prescale
I0411 18:29:14.374716 15621 net.cpp:157] Top shape: 1024 150 18 18 (49766400)
I0411 18:29:14.374719 15621 net.cpp:165] Memory required for data: 3497230336
I0411 18:29:14.374735 15621 layer_factory.hpp:77] Creating layer conv2_sTanH
I0411 18:29:14.374743 15621 net.cpp:100] Creating Layer conv2_sTanH
I0411 18:29:14.374748 15621 net.cpp:434] conv2_sTanH <- conv2
I0411 18:29:14.374753 15621 net.cpp:395] conv2_sTanH -> conv2 (in-place)
I0411 18:29:14.378213 15621 net.cpp:150] Setting up conv2_sTanH
I0411 18:29:14.378237 15621 net.cpp:157] Top shape: 1024 150 18 18 (49766400)
I0411 18:29:14.378242 15621 net.cpp:165] Memory required for data: 3696295936
I0411 18:29:14.378247 15621 layer_factory.hpp:77] Creating layer conv2_postscale
I0411 18:29:14.378254 15621 net.cpp:100] Creating Layer conv2_postscale
I0411 18:29:14.378259 15621 net.cpp:434] conv2_postscale <- conv2
I0411 18:29:14.378270 15621 net.cpp:395] conv2_postscale -> conv2 (in-place)
I0411 18:29:14.378376 15621 net.cpp:150] Setting up conv2_postscale
I0411 18:29:14.378386 15621 net.cpp:157] Top shape: 1024 150 18 18 (49766400)
I0411 18:29:14.378391 15621 net.cpp:165] Memory required for data: 3895361536
I0411 18:29:14.378396 15621 layer_factory.hpp:77] Creating layer pool2
I0411 18:29:14.378407 15621 net.cpp:100] Creating Layer pool2
I0411 18:29:14.378412 15621 net.cpp:434] pool2 <- conv2
I0411 18:29:14.378418 15621 net.cpp:408] pool2 -> pool2
I0411 18:29:14.378471 15621 net.cpp:150] Setting up pool2
I0411 18:29:14.378482 15621 net.cpp:157] Top shape: 1024 150 9 9 (12441600)
I0411 18:29:14.378486 15621 net.cpp:165] Memory required for data: 3945127936
I0411 18:29:14.378489 15621 layer_factory.hpp:77] Creating layer conv3
I0411 18:29:14.378499 15621 net.cpp:100] Creating Layer conv3
I0411 18:29:14.378504 15621 net.cpp:434] conv3 <- pool2
I0411 18:29:14.378509 15621 net.cpp:408] conv3 -> conv3
I0411 18:29:14.386884 15621 net.cpp:150] Setting up conv3
I0411 18:29:14.386910 15621 net.cpp:157] Top shape: 1024 250 6 6 (9216000)
I0411 18:29:14.386914 15621 net.cpp:165] Memory required for data: 3981991936
I0411 18:29:14.386925 15621 layer_factory.hpp:77] Creating layer conv3_prescale
I0411 18:29:14.386935 15621 net.cpp:100] Creating Layer conv3_prescale
I0411 18:29:14.386941 15621 net.cpp:434] conv3_prescale <- conv3
I0411 18:29:14.386947 15621 net.cpp:395] conv3_prescale -> conv3 (in-place)
I0411 18:29:14.387045 15621 net.cpp:150] Setting up conv3_prescale
I0411 18:29:14.387054 15621 net.cpp:157] Top shape: 1024 250 6 6 (9216000)
I0411 18:29:14.387060 15621 net.cpp:165] Memory required for data: 4018855936
I0411 18:29:14.387065 15621 layer_factory.hpp:77] Creating layer conv3_sTanH
I0411 18:29:14.387071 15621 net.cpp:100] Creating Layer conv3_sTanH
I0411 18:29:14.387078 15621 net.cpp:434] conv3_sTanH <- conv3
I0411 18:29:14.387081 15621 net.cpp:395] conv3_sTanH -> conv3 (in-place)
I0411 18:29:14.388752 15621 net.cpp:150] Setting up conv3_sTanH
I0411 18:29:14.388772 15621 net.cpp:157] Top shape: 1024 250 6 6 (9216000)
I0411 18:29:14.388775 15621 net.cpp:165] Memory required for data: 4055719936
I0411 18:29:14.388779 15621 layer_factory.hpp:77] Creating layer conv3_postscale
I0411 18:29:14.388787 15621 net.cpp:100] Creating Layer conv3_postscale
I0411 18:29:14.388792 15621 net.cpp:434] conv3_postscale <- conv3
I0411 18:29:14.388797 15621 net.cpp:395] conv3_postscale -> conv3 (in-place)
I0411 18:29:14.388903 15621 net.cpp:150] Setting up conv3_postscale
I0411 18:29:14.388912 15621 net.cpp:157] Top shape: 1024 250 6 6 (9216000)
I0411 18:29:14.388916 15621 net.cpp:165] Memory required for data: 4092583936
I0411 18:29:14.388921 15621 layer_factory.hpp:77] Creating layer pool3
I0411 18:29:14.388933 15621 net.cpp:100] Creating Layer pool3
I0411 18:29:14.388938 15621 net.cpp:434] pool3 <- conv3
I0411 18:29:14.388944 15621 net.cpp:408] pool3 -> pool3
I0411 18:29:14.388986 15621 net.cpp:150] Setting up pool3
I0411 18:29:14.388994 15621 net.cpp:157] Top shape: 1024 250 3 3 (2304000)
I0411 18:29:14.388998 15621 net.cpp:165] Memory required for data: 4101799936
I0411 18:29:14.389000 15621 layer_factory.hpp:77] Creating layer fc4_300
I0411 18:29:14.389008 15621 net.cpp:100] Creating Layer fc4_300
I0411 18:29:14.389014 15621 net.cpp:434] fc4_300 <- pool3
I0411 18:29:14.389019 15621 net.cpp:408] fc4_300 -> fc4_300
I0411 18:29:14.395223 15621 net.cpp:150] Setting up fc4_300
I0411 18:29:14.395242 15621 net.cpp:157] Top shape: 1024 300 (307200)
I0411 18:29:14.395246 15621 net.cpp:165] Memory required for data: 4103028736
I0411 18:29:14.395272 15621 layer_factory.hpp:77] Creating layer fc4_prescale
I0411 18:29:14.395280 15621 net.cpp:100] Creating Layer fc4_prescale
I0411 18:29:14.395285 15621 net.cpp:434] fc4_prescale <- fc4_300
I0411 18:29:14.395292 15621 net.cpp:395] fc4_prescale -> fc4_300 (in-place)
I0411 18:29:14.395395 15621 net.cpp:150] Setting up fc4_prescale
I0411 18:29:14.395406 15621 net.cpp:157] Top shape: 1024 300 (307200)
I0411 18:29:14.395408 15621 net.cpp:165] Memory required for data: 4104257536
I0411 18:29:14.395417 15621 layer_factory.hpp:77] Creating layer fc4_sTanH
I0411 18:29:14.395424 15621 net.cpp:100] Creating Layer fc4_sTanH
I0411 18:29:14.395427 15621 net.cpp:434] fc4_sTanH <- fc4_300
I0411 18:29:14.395432 15621 net.cpp:395] fc4_sTanH -> fc4_300 (in-place)
I0411 18:29:14.395632 15621 net.cpp:150] Setting up fc4_sTanH
I0411 18:29:14.395644 15621 net.cpp:157] Top shape: 1024 300 (307200)
I0411 18:29:14.395648 15621 net.cpp:165] Memory required for data: 4105486336
I0411 18:29:14.395651 15621 layer_factory.hpp:77] Creating layer fc4_postscale
I0411 18:29:14.395658 15621 net.cpp:100] Creating Layer fc4_postscale
I0411 18:29:14.395663 15621 net.cpp:434] fc4_postscale <- fc4_300
I0411 18:29:14.395669 15621 net.cpp:395] fc4_postscale -> fc4_300 (in-place)
I0411 18:29:14.395766 15621 net.cpp:150] Setting up fc4_postscale
I0411 18:29:14.395774 15621 net.cpp:157] Top shape: 1024 300 (307200)
I0411 18:29:14.395777 15621 net.cpp:165] Memory required for data: 4106715136
I0411 18:29:14.395782 15621 layer_factory.hpp:77] Creating layer drop4
I0411 18:29:14.395790 15621 net.cpp:100] Creating Layer drop4
I0411 18:29:14.395798 15621 net.cpp:434] drop4 <- fc4_300
I0411 18:29:14.395803 15621 net.cpp:395] drop4 -> fc4_300 (in-place)
I0411 18:29:14.395828 15621 net.cpp:150] Setting up drop4
I0411 18:29:14.395835 15621 net.cpp:157] Top shape: 1024 300 (307200)
I0411 18:29:14.395838 15621 net.cpp:165] Memory required for data: 4107943936
I0411 18:29:14.395841 15621 layer_factory.hpp:77] Creating layer fc5_67
I0411 18:29:14.395848 15621 net.cpp:100] Creating Layer fc5_67
I0411 18:29:14.395853 15621 net.cpp:434] fc5_67 <- fc4_300
I0411 18:29:14.395859 15621 net.cpp:408] fc5_67 -> fc5_classes
I0411 18:29:14.396122 15621 net.cpp:150] Setting up fc5_67
I0411 18:29:14.396133 15621 net.cpp:157] Top shape: 1024 67 (68608)
I0411 18:29:14.396136 15621 net.cpp:165] Memory required for data: 4108218368
I0411 18:29:14.396147 15621 layer_factory.hpp:77] Creating layer fc5_classes_fc5_67_0_split
I0411 18:29:14.396154 15621 net.cpp:100] Creating Layer fc5_classes_fc5_67_0_split
I0411 18:29:14.396158 15621 net.cpp:434] fc5_classes_fc5_67_0_split <- fc5_classes
I0411 18:29:14.396163 15621 net.cpp:408] fc5_classes_fc5_67_0_split -> fc5_classes_fc5_67_0_split_0
I0411 18:29:14.396170 15621 net.cpp:408] fc5_classes_fc5_67_0_split -> fc5_classes_fc5_67_0_split_1
I0411 18:29:14.396178 15621 net.cpp:408] fc5_classes_fc5_67_0_split -> fc5_classes_fc5_67_0_split_2
I0411 18:29:14.396227 15621 net.cpp:150] Setting up fc5_classes_fc5_67_0_split
I0411 18:29:14.396235 15621 net.cpp:157] Top shape: 1024 67 (68608)
I0411 18:29:14.396239 15621 net.cpp:157] Top shape: 1024 67 (68608)
I0411 18:29:14.396244 15621 net.cpp:157] Top shape: 1024 67 (68608)
I0411 18:29:14.396246 15621 net.cpp:165] Memory required for data: 4109041664
I0411 18:29:14.396248 15621 layer_factory.hpp:77] Creating layer loss
I0411 18:29:14.396255 15621 net.cpp:100] Creating Layer loss
I0411 18:29:14.396258 15621 net.cpp:434] loss <- fc5_classes_fc5_67_0_split_0
I0411 18:29:14.396262 15621 net.cpp:434] loss <- label_data_1_split_0
I0411 18:29:14.396267 15621 net.cpp:408] loss -> loss
…
