…
I0528 02:31:11.915433  5444 solver.cpp:81] Creating training net from train_net file: ./Prototxt/experiment_21/RTSD/CoNorm/trial_3/train.prototxt
I0528 02:31:11.916122  5444 net.cpp:58] Initializing net from parameters: 
state {
  phase: TRAIN
  level: 0
  stage: ""
}
layer {
  name: "data"
  type: "Data"
  top: "data"
  top: "label"
  include {
    phase: TRAIN
  }
  transform_param {
    scale: 0.0039215689
    mirror: false
    crop_size: 48
    mean_value: 135
    mean_value: 135
    mean_value: 134
  }
  data_param {
    source: "../local_data/lmdb/RTSD/CoNorm/train/lmdb"
    batch_size: 1024
    backend: LMDB
  }
}
layer {
  name: "conv1"
  type: "Convolution"
  bottom: "data"
  top: "conv1"
  convolution_param {
    num_output: 100
    pad: 0
    kernel_size: 7
    group: 1
    stride: 1
    weight_filler {
      type: "xavier"
    }
  }
}
layer {
  name: "conv1_relu"
  type: "ReLU"
  bottom: "conv1"
  top: "conv1"
}
layer {
  name: "pool1"
  type: "Pooling"
  bottom: "conv1"
  top: "pool1"
  pooling_param {
    pool: MAX
    kernel_size: 2
    stride: 2
  }
}
layer {
  name: "conv2"
  type: "Convolution"
  bottom: "pool1"
  top: "conv2"
  convolution_param {
    num_output: 150
    pad: 0
    kernel_size: 4
    group: 1
    stride: 1
    weight_filler {
      type: "xavier"
    }
  }
}
layer {
  name: "conv2_relu"
  type: "ReLU"
  bottom: "conv2"
  top: "conv2"
}
layer {
  name: "pool2"
  type: "Pooling"
  bottom: "conv2"
  top: "pool2"
  pooling_param {
    pool: MAX
    kernel_size: 2
    stride: 2
  }
}
layer {
  name: "conv3"
  type: "Convolution"
  bottom: "pool2"
  top: "conv3"
  convolution_param {
    num_output: 250
    pad: 0
    kernel_size: 4
    group: 1
    stride: 1
    weight_filler {
      type: "xavier"
    }
  }
}
layer {
  name: "conv3_relu"
  type: "ReLU"
  bottom: "conv3"
  top: "conv3"
}
layer {
  name: "pool3"
  type: "Pooling"
  bottom: "conv3"
  top: "pool3"
  pooling_param {
    pool: MAX
    kernel_size: 2
    stride: 2
  }
}
layer {
  name: "fc4_300"
  type: "InnerProduct"
  bottom: "pool3"
  top: "fc4_300"
  inner_product_param {
    num_output: 300
    weight_filler {
      type: "xavier"
    }
  }
}
layer {
  name: "fc4_relu"
  type: "ReLU"
  bottom: "fc4_300"
  top: "fc4_300"
}
layer {
  name: "fc5_116"
  type: "InnerProduct"
  bottom: "fc4_300"
  top: "fc5_classes"
  inner_product_param {
    num_output: 116
    weight_filler {
      type: "xavier"
    }
  }
}
layer {
  name: "softmax"
  type: "Softmax"
  bottom: "fc5_classes"
  top: "softmax"
}
layer {
  name: "loss"
  type: "MultinomialLogisticLoss"
  bottom: "softmax"
  bottom: "label"
  top: "loss"
}
layer {
  name: "accuracy_1"
  type: "Accuracy"
  bottom: "fc5_classes"
  bottom: "label"
  top: "accuracy_1"
  accuracy_param {
    top_k: 1
  }
}
layer {
  name: "accuracy_5"
  type: "Accuracy"
  bottom: "fc5_classes"
  bottom: "label"
  top: "accuracy_5"
  accuracy_param {
    top_k: 5
  }
}
layer {
  name: "silence"
  type: "Silence"
  bottom: "accuracy_1"
  bottom: "accuracy_5"
}
I0528 02:31:11.916306  5444 layer_factory.hpp:77] Creating layer data
I0528 02:31:11.921077  5444 net.cpp:100] Creating Layer data
I0528 02:31:11.921094  5444 net.cpp:408] data -> data
I0528 02:31:11.921130  5444 net.cpp:408] data -> label
I0528 02:31:11.922201  5480 db_lmdb.cpp:35] Opened lmdb ../local_data/lmdb/RTSD/CoNorm/train/lmdb
I0528 02:31:11.942239  5444 data_layer.cpp:41] output data size: 1024,3,48,48
I0528 02:31:11.989748  5444 net.cpp:150] Setting up data
I0528 02:31:11.989799  5444 net.cpp:157] Top shape: 1024 3 48 48 (7077888)
I0528 02:31:11.989806  5444 net.cpp:157] Top shape: 1024 (1024)
I0528 02:31:11.989810  5444 net.cpp:165] Memory required for data: 28315648
I0528 02:31:11.989820  5444 layer_factory.hpp:77] Creating layer label_data_1_split
I0528 02:31:11.989835  5444 net.cpp:100] Creating Layer label_data_1_split
I0528 02:31:11.989843  5444 net.cpp:434] label_data_1_split <- label
I0528 02:31:11.989856  5444 net.cpp:408] label_data_1_split -> label_data_1_split_0
I0528 02:31:11.989866  5444 net.cpp:408] label_data_1_split -> label_data_1_split_1
I0528 02:31:11.989873  5444 net.cpp:408] label_data_1_split -> label_data_1_split_2
I0528 02:31:11.989925  5444 net.cpp:150] Setting up label_data_1_split
I0528 02:31:11.989935  5444 net.cpp:157] Top shape: 1024 (1024)
I0528 02:31:11.989940  5444 net.cpp:157] Top shape: 1024 (1024)
I0528 02:31:11.989945  5444 net.cpp:157] Top shape: 1024 (1024)
I0528 02:31:11.989949  5444 net.cpp:165] Memory required for data: 28327936
I0528 02:31:11.989954  5444 layer_factory.hpp:77] Creating layer conv1
I0528 02:31:11.989969  5444 net.cpp:100] Creating Layer conv1
I0528 02:31:11.989977  5444 net.cpp:434] conv1 <- data
I0528 02:31:11.989985  5444 net.cpp:408] conv1 -> conv1
I0528 02:31:12.293961  5444 net.cpp:150] Setting up conv1
I0528 02:31:12.293989  5444 net.cpp:157] Top shape: 1024 100 42 42 (180633600)
I0528 02:31:12.293994  5444 net.cpp:165] Memory required for data: 750862336
I0528 02:31:12.294009  5444 layer_factory.hpp:77] Creating layer conv1_relu
I0528 02:31:12.294020  5444 net.cpp:100] Creating Layer conv1_relu
I0528 02:31:12.294025  5444 net.cpp:434] conv1_relu <- conv1
I0528 02:31:12.294033  5444 net.cpp:395] conv1_relu -> conv1 (in-place)
I0528 02:31:12.294184  5444 net.cpp:150] Setting up conv1_relu
I0528 02:31:12.294196  5444 net.cpp:157] Top shape: 1024 100 42 42 (180633600)
I0528 02:31:12.294200  5444 net.cpp:165] Memory required for data: 1473396736
I0528 02:31:12.294206  5444 layer_factory.hpp:77] Creating layer pool1
I0528 02:31:12.294221  5444 net.cpp:100] Creating Layer pool1
I0528 02:31:12.294230  5444 net.cpp:434] pool1 <- conv1
I0528 02:31:12.294237  5444 net.cpp:408] pool1 -> pool1
I0528 02:31:12.294278  5444 net.cpp:150] Setting up pool1
I0528 02:31:12.294286  5444 net.cpp:157] Top shape: 1024 100 21 21 (45158400)
I0528 02:31:12.294291  5444 net.cpp:165] Memory required for data: 1654030336
I0528 02:31:12.294294  5444 layer_factory.hpp:77] Creating layer conv2
I0528 02:31:12.294304  5444 net.cpp:100] Creating Layer conv2
I0528 02:31:12.294312  5444 net.cpp:434] conv2 <- pool1
I0528 02:31:12.294317  5444 net.cpp:408] conv2 -> conv2
I0528 02:31:12.297219  5444 net.cpp:150] Setting up conv2
I0528 02:31:12.297235  5444 net.cpp:157] Top shape: 1024 150 18 18 (49766400)
I0528 02:31:12.297240  5444 net.cpp:165] Memory required for data: 1853095936
I0528 02:31:12.297250  5444 layer_factory.hpp:77] Creating layer conv2_relu
I0528 02:31:12.297257  5444 net.cpp:100] Creating Layer conv2_relu
I0528 02:31:12.297262  5444 net.cpp:434] conv2_relu <- conv2
I0528 02:31:12.297267  5444 net.cpp:395] conv2_relu -> conv2 (in-place)
I0528 02:31:12.297394  5444 net.cpp:150] Setting up conv2_relu
I0528 02:31:12.297405  5444 net.cpp:157] Top shape: 1024 150 18 18 (49766400)
I0528 02:31:12.297410  5444 net.cpp:165] Memory required for data: 2052161536
I0528 02:31:12.297416  5444 layer_factory.hpp:77] Creating layer pool2
I0528 02:31:12.297425  5444 net.cpp:100] Creating Layer pool2
I0528 02:31:12.297433  5444 net.cpp:434] pool2 <- conv2
I0528 02:31:12.297441  5444 net.cpp:408] pool2 -> pool2
I0528 02:31:12.297477  5444 net.cpp:150] Setting up pool2
I0528 02:31:12.297487  5444 net.cpp:157] Top shape: 1024 150 9 9 (12441600)
I0528 02:31:12.297490  5444 net.cpp:165] Memory required for data: 2101927936
I0528 02:31:12.297494  5444 layer_factory.hpp:77] Creating layer conv3
I0528 02:31:12.297502  5444 net.cpp:100] Creating Layer conv3
I0528 02:31:12.297508  5444 net.cpp:434] conv3 <- pool2
I0528 02:31:12.297514  5444 net.cpp:408] conv3 -> conv3
I0528 02:31:12.303537  5444 net.cpp:150] Setting up conv3
I0528 02:31:12.303555  5444 net.cpp:157] Top shape: 1024 250 6 6 (9216000)
I0528 02:31:12.303561  5444 net.cpp:165] Memory required for data: 2138791936
I0528 02:31:12.303571  5444 layer_factory.hpp:77] Creating layer conv3_relu
I0528 02:31:12.303582  5444 net.cpp:100] Creating Layer conv3_relu
I0528 02:31:12.303589  5444 net.cpp:434] conv3_relu <- conv3
I0528 02:31:12.303596  5444 net.cpp:395] conv3_relu -> conv3 (in-place)
I0528 02:31:12.303952  5444 net.cpp:150] Setting up conv3_relu
I0528 02:31:12.303969  5444 net.cpp:157] Top shape: 1024 250 6 6 (9216000)
I0528 02:31:12.303974  5444 net.cpp:165] Memory required for data: 2175655936
I0528 02:31:12.303980  5444 layer_factory.hpp:77] Creating layer pool3
I0528 02:31:12.303992  5444 net.cpp:100] Creating Layer pool3
I0528 02:31:12.303997  5444 net.cpp:434] pool3 <- conv3
I0528 02:31:12.304004  5444 net.cpp:408] pool3 -> pool3
I0528 02:31:12.304042  5444 net.cpp:150] Setting up pool3
I0528 02:31:12.304051  5444 net.cpp:157] Top shape: 1024 250 3 3 (2304000)
I0528 02:31:12.304056  5444 net.cpp:165] Memory required for data: 2184871936
I0528 02:31:12.304062  5444 layer_factory.hpp:77] Creating layer fc4_300
I0528 02:31:12.304072  5444 net.cpp:100] Creating Layer fc4_300
I0528 02:31:12.304081  5444 net.cpp:434] fc4_300 <- pool3
I0528 02:31:12.304088  5444 net.cpp:408] fc4_300 -> fc4_300
I0528 02:31:12.309209  5444 net.cpp:150] Setting up fc4_300
I0528 02:31:12.309227  5444 net.cpp:157] Top shape: 1024 300 (307200)
I0528 02:31:12.309233  5444 net.cpp:165] Memory required for data: 2186100736
I0528 02:31:12.309242  5444 layer_factory.hpp:77] Creating layer fc4_relu
I0528 02:31:12.309252  5444 net.cpp:100] Creating Layer fc4_relu
I0528 02:31:12.309258  5444 net.cpp:434] fc4_relu <- fc4_300
I0528 02:31:12.309264  5444 net.cpp:395] fc4_relu -> fc4_300 (in-place)
I0528 02:31:12.309401  5444 net.cpp:150] Setting up fc4_relu
I0528 02:31:12.309413  5444 net.cpp:157] Top shape: 1024 300 (307200)
I0528 02:31:12.309419  5444 net.cpp:165] Memory required for data: 2187329536
I0528 02:31:12.309427  5444 layer_factory.hpp:77] Creating layer fc5_116
I0528 02:31:12.309437  5444 net.cpp:100] Creating Layer fc5_116
I0528 02:31:12.309443  5444 net.cpp:434] fc5_116 <- fc4_300
I0528 02:31:12.309449  5444 net.cpp:408] fc5_116 -> fc5_classes
I0528 02:31:12.310394  5444 net.cpp:150] Setting up fc5_116
I0528 02:31:12.310408  5444 net.cpp:157] Top shape: 1024 116 (118784)
I0528 02:31:12.310413  5444 net.cpp:165] Memory required for data: 2187804672
I0528 02:31:12.310425  5444 layer_factory.hpp:77] Creating layer fc5_classes_fc5_116_0_split
I0528 02:31:12.310434  5444 net.cpp:100] Creating Layer fc5_classes_fc5_116_0_split
I0528 02:31:12.310441  5444 net.cpp:434] fc5_classes_fc5_116_0_split <- fc5_classes
I0528 02:31:12.310451  5444 net.cpp:408] fc5_classes_fc5_116_0_split -> fc5_classes_fc5_116_0_split_0
I0528 02:31:12.310459  5444 net.cpp:408] fc5_classes_fc5_116_0_split -> fc5_classes_fc5_116_0_split_1
I0528 02:31:12.310468  5444 net.cpp:408] fc5_classes_fc5_116_0_split -> fc5_classes_fc5_116_0_split_2
I0528 02:31:12.310506  5444 net.cpp:150] Setting up fc5_classes_fc5_116_0_split
I0528 02:31:12.310515  5444 net.cpp:157] Top shape: 1024 116 (118784)
I0528 02:31:12.310521  5444 net.cpp:157] Top shape: 1024 116 (118784)
I0528 02:31:12.310526  5444 net.cpp:157] Top shape: 1024 116 (118784)
I0528 02:31:12.310530  5444 net.cpp:165] Memory required for data: 2189230080
I0528 02:31:12.310535  5444 layer_factory.hpp:77] Creating layer softmax
I0528 02:31:12.310544  5444 net.cpp:100] Creating Layer softmax
I0528 02:31:12.310554  5444 net.cpp:434] softmax <- fc5_classes_fc5_116_0_split_0
I0528 02:31:12.310560  5444 net.cpp:408] softmax -> softmax
I0528 02:31:12.310745  5444 net.cpp:150] Setting up softmax
I0528 02:31:12.310760  5444 net.cpp:157] Top shape: 1024 116 (118784)
I0528 02:31:12.310767  5444 net.cpp:165] Memory required for data: 2189705216
I0528 02:31:12.310773  5444 layer_factory.hpp:77] Creating layer loss
I0528 02:31:12.310794  5444 net.cpp:100] Creating Layer loss
I0528 02:31:12.310801  5444 net.cpp:434] loss <- softmax
I0528 02:31:12.310807  5444 net.cpp:434] loss <- label_data_1_split_0
I0528 02:31:12.310817  5444 net.cpp:408] loss -> loss
…
