…
I0411 06:14:32.602289 15781 net.cpp:322] The NetState phase (0) differed from the phase (1) specified by a rule in layer accuracy_5
I0411 06:14:32.602440 15781 net.cpp:58] Initializing net from parameters: 
state {
  phase: TRAIN
  level: 0
  stage: ""
}
layer {
  name: "data"
  type: "Data"
  top: "data"
  top: "label"
  include {
    phase: TRAIN
  }
  transform_param {
    scale: 0.0039215689
    mirror: false
    crop_size: 48
    mean_value: 130
    mean_value: 123
    mean_value: 137
  }
  data_param {
    source: "../local_data/lmdb/rtsd-r1/histeq/train/lmdb"
    batch_size: 1024
    backend: LMDB
  }
}
layer {
  name: "conv1"
  type: "Convolution"
  bottom: "data"
  top: "conv1"
  convolution_param {
    num_output: 100
    pad: 0
    kernel_size: 7
    group: 1
    stride: 1
    weight_filler {
      type: "xavier"
    }
  }
}
layer {
  name: "conv1_prescale"
  type: "Scale"
  bottom: "conv1"
  top: "conv1"
  param {
    lr_mult: 0
    decay_mult: 0
  }
  scale_param {
    filler {
      value: 0.6666
    }
    bias_term: false
  }
}
layer {
  name: "conv1_sTanH"
  type: "TanH"
  bottom: "conv1"
  top: "conv1"
}
layer {
  name: "conv1_postscale"
  type: "Scale"
  bottom: "conv1"
  top: "conv1"
  param {
    lr_mult: 0
    decay_mult: 0
  }
  scale_param {
    filler {
      value: 1.7159
    }
    bias_term: false
  }
}
layer {
  name: "pool1"
  type: "Pooling"
  bottom: "conv1"
  top: "pool1"
  pooling_param {
    pool: MAX
    kernel_size: 2
    stride: 2
  }
}
layer {
  name: "conv2"
  type: "Convolution"
  bottom: "pool1"
  top: "conv2"
  convolution_param {
    num_output: 150
    pad: 0
    kernel_size: 4
    group: 1
    stride: 1
    weight_filler {
      type: "xavier"
    }
  }
}
layer {
  name: "conv2_prescale"
  type: "Scale"
  bottom: "conv2"
  top: "conv2"
  param {
    lr_mult: 0
    decay_mult: 0
  }
  scale_param {
    filler {
      value: 0.6666
    }
    bias_term: false
  }
}
layer {
  name: "conv2_sTanH"
  type: "TanH"
  bottom: "conv2"
  top: "conv2"
}
layer {
  name: "conv2_postscale"
  type: "Scale"
  bottom: "conv2"
  top: "conv2"
  param {
    lr_mult: 0
    decay_mult: 0
  }
  scale_param {
    filler {
      value: 1.7159
    }
    bias_term: false
  }
}
layer {
  name: "pool2"
  type: "Pooling"
  bottom: "conv2"
  top: "pool2"
  pooling_param {
    pool: MAX
    kernel_size: 2
    stride: 2
  }
}
layer {
  name: "conv3"
  type: "Convolution"
  bottom: "pool2"
  top: "conv3"
  convolution_param {
    num_output: 250
    pad: 0
    kernel_size: 4
    group: 1
    stride: 1
    weight_filler {
      type: "xavier"
    }
  }
}
layer {
  name: "conv3_prescale"
  type: "Scale"
  bottom: "conv3"
  top: "conv3"
  param {
    lr_mult: 0
    decay_mult: 0
  }
  scale_param {
    filler {
      value: 0.6666
    }
    bias_term: false
  }
}
layer {
  name: "conv3_sTanH"
  type: "TanH"
  bottom: "conv3"
  top: "conv3"
}
layer {
  name: "conv3_postscale"
  type: "Scale"
  bottom: "conv3"
  top: "conv3"
  param {
    lr_mult: 0
    decay_mult: 0
  }
  scale_param {
    filler {
      value: 1.7159
    }
    bias_term: false
  }
}
layer {
  name: "pool3"
  type: "Pooling"
  bottom: "conv3"
  top: "pool3"
  pooling_param {
    pool: MAX
    kernel_size: 2
    stride: 2
  }
}
layer {
  name: "fc4_300"
  type: "InnerProduct"
  bottom: "pool3"
  top: "fc4_300"
  inner_product_param {
    num_output: 300
    weight_filler {
      type: "xavier"
    }
  }
}
layer {
  name: "fc4_prescale"
  type: "Scale"
  bottom: "fc4_300"
  top: "fc4_300"
  param {
    lr_mult: 0
    decay_mult: 0
  }
  scale_param {
    filler {
      value: 0.6666
    }
    bias_term: false
  }
}
layer {
  name: "fc4_sTanH"
  type: "TanH"
  bottom: "fc4_300"
  top: "fc4_300"
}
layer {
  name: "fc4_postscale"
  type: "Scale"
  bottom: "fc4_300"
  top: "fc4_300"
  param {
    lr_mult: 0
    decay_mult: 0
  }
  scale_param {
    filler {
      value: 1.7159
    }
    bias_term: false
  }
}
layer {
  name: "fc5_67"
  type: "InnerProduct"
  bottom: "fc4_300"
  top: "fc5_classes"
  inner_product_param {
    num_output: 67
    weight_filler {
      type: "xavier"
    }
  }
}
layer {
  name: "loss"
  type: "SoftmaxWithLoss"
  bottom: "fc5_classes"
  bottom: "label"
  top: "loss"
}
I0411 06:14:32.602543 15781 layer_factory.hpp:77] Creating layer data
I0411 06:14:32.603576 15781 net.cpp:100] Creating Layer data
I0411 06:14:32.603591 15781 net.cpp:408] data -> data
I0411 06:14:32.603613 15781 net.cpp:408] data -> label
I0411 06:14:32.618265 15909 db_lmdb.cpp:35] Opened lmdb ../local_data/lmdb/rtsd-r1/histeq/train/lmdb
I0411 06:14:32.634644 15781 data_layer.cpp:41] output data size: 1024,3,48,48
I0411 06:14:32.679275 15781 net.cpp:150] Setting up data
I0411 06:14:32.679306 15781 net.cpp:157] Top shape: 1024 3 48 48 (7077888)
I0411 06:14:32.679312 15781 net.cpp:157] Top shape: 1024 (1024)
I0411 06:14:32.679314 15781 net.cpp:165] Memory required for data: 28315648
I0411 06:14:32.679324 15781 layer_factory.hpp:77] Creating layer conv1
I0411 06:14:32.679358 15781 net.cpp:100] Creating Layer conv1
I0411 06:14:32.679366 15781 net.cpp:434] conv1 <- data
I0411 06:14:32.679379 15781 net.cpp:408] conv1 -> conv1
I0411 06:14:32.950208 15781 net.cpp:150] Setting up conv1
I0411 06:14:32.950237 15781 net.cpp:157] Top shape: 1024 100 42 42 (180633600)
I0411 06:14:32.950240 15781 net.cpp:165] Memory required for data: 750850048
I0411 06:14:32.950261 15781 layer_factory.hpp:77] Creating layer conv1_prescale
I0411 06:14:32.950278 15781 net.cpp:100] Creating Layer conv1_prescale
I0411 06:14:32.950283 15781 net.cpp:434] conv1_prescale <- conv1
I0411 06:14:32.950290 15781 net.cpp:395] conv1_prescale -> conv1 (in-place)
I0411 06:14:32.950407 15781 net.cpp:150] Setting up conv1_prescale
I0411 06:14:32.950418 15781 net.cpp:157] Top shape: 1024 100 42 42 (180633600)
I0411 06:14:32.950422 15781 net.cpp:165] Memory required for data: 1473384448
I0411 06:14:32.950428 15781 layer_factory.hpp:77] Creating layer conv1_sTanH
I0411 06:14:32.950435 15781 net.cpp:100] Creating Layer conv1_sTanH
I0411 06:14:32.950438 15781 net.cpp:434] conv1_sTanH <- conv1
I0411 06:14:32.950444 15781 net.cpp:395] conv1_sTanH -> conv1 (in-place)
I0411 06:14:32.950646 15781 net.cpp:150] Setting up conv1_sTanH
I0411 06:14:32.950659 15781 net.cpp:157] Top shape: 1024 100 42 42 (180633600)
I0411 06:14:32.950662 15781 net.cpp:165] Memory required for data: 2195918848
I0411 06:14:32.950665 15781 layer_factory.hpp:77] Creating layer conv1_postscale
I0411 06:14:32.950675 15781 net.cpp:100] Creating Layer conv1_postscale
I0411 06:14:32.950680 15781 net.cpp:434] conv1_postscale <- conv1
I0411 06:14:32.950685 15781 net.cpp:395] conv1_postscale -> conv1 (in-place)
I0411 06:14:32.950783 15781 net.cpp:150] Setting up conv1_postscale
I0411 06:14:32.950793 15781 net.cpp:157] Top shape: 1024 100 42 42 (180633600)
I0411 06:14:32.950796 15781 net.cpp:165] Memory required for data: 2918453248
I0411 06:14:32.950801 15781 layer_factory.hpp:77] Creating layer pool1
I0411 06:14:32.950809 15781 net.cpp:100] Creating Layer pool1
I0411 06:14:32.950811 15781 net.cpp:434] pool1 <- conv1
I0411 06:14:32.950816 15781 net.cpp:408] pool1 -> pool1
I0411 06:14:32.950867 15781 net.cpp:150] Setting up pool1
I0411 06:14:32.950876 15781 net.cpp:157] Top shape: 1024 100 21 21 (45158400)
I0411 06:14:32.950898 15781 net.cpp:165] Memory required for data: 3099086848
I0411 06:14:32.950902 15781 layer_factory.hpp:77] Creating layer conv2
I0411 06:14:32.950914 15781 net.cpp:100] Creating Layer conv2
I0411 06:14:32.950919 15781 net.cpp:434] conv2 <- pool1
I0411 06:14:32.950927 15781 net.cpp:408] conv2 -> conv2
I0411 06:14:32.959395 15781 net.cpp:150] Setting up conv2
I0411 06:14:32.959413 15781 net.cpp:157] Top shape: 1024 150 18 18 (49766400)
I0411 06:14:32.959415 15781 net.cpp:165] Memory required for data: 3298152448
I0411 06:14:32.959425 15781 layer_factory.hpp:77] Creating layer conv2_prescale
I0411 06:14:32.959434 15781 net.cpp:100] Creating Layer conv2_prescale
I0411 06:14:32.959437 15781 net.cpp:434] conv2_prescale <- conv2
I0411 06:14:32.959444 15781 net.cpp:395] conv2_prescale -> conv2 (in-place)
I0411 06:14:32.959547 15781 net.cpp:150] Setting up conv2_prescale
I0411 06:14:32.959558 15781 net.cpp:157] Top shape: 1024 150 18 18 (49766400)
I0411 06:14:32.959560 15781 net.cpp:165] Memory required for data: 3497218048
I0411 06:14:32.959565 15781 layer_factory.hpp:77] Creating layer conv2_sTanH
I0411 06:14:32.959573 15781 net.cpp:100] Creating Layer conv2_sTanH
I0411 06:14:32.959578 15781 net.cpp:434] conv2_sTanH <- conv2
I0411 06:14:32.959583 15781 net.cpp:395] conv2_sTanH -> conv2 (in-place)
I0411 06:14:32.960714 15781 net.cpp:150] Setting up conv2_sTanH
I0411 06:14:32.960731 15781 net.cpp:157] Top shape: 1024 150 18 18 (49766400)
I0411 06:14:32.960733 15781 net.cpp:165] Memory required for data: 3696283648
I0411 06:14:32.960736 15781 layer_factory.hpp:77] Creating layer conv2_postscale
I0411 06:14:32.960744 15781 net.cpp:100] Creating Layer conv2_postscale
I0411 06:14:32.960747 15781 net.cpp:434] conv2_postscale <- conv2
I0411 06:14:32.960753 15781 net.cpp:395] conv2_postscale -> conv2 (in-place)
I0411 06:14:32.960849 15781 net.cpp:150] Setting up conv2_postscale
I0411 06:14:32.960856 15781 net.cpp:157] Top shape: 1024 150 18 18 (49766400)
I0411 06:14:32.960860 15781 net.cpp:165] Memory required for data: 3895349248
I0411 06:14:32.960865 15781 layer_factory.hpp:77] Creating layer pool2
I0411 06:14:32.960870 15781 net.cpp:100] Creating Layer pool2
I0411 06:14:32.960873 15781 net.cpp:434] pool2 <- conv2
I0411 06:14:32.960878 15781 net.cpp:408] pool2 -> pool2
I0411 06:14:32.960916 15781 net.cpp:150] Setting up pool2
I0411 06:14:32.960924 15781 net.cpp:157] Top shape: 1024 150 9 9 (12441600)
I0411 06:14:32.960927 15781 net.cpp:165] Memory required for data: 3945115648
I0411 06:14:32.960930 15781 layer_factory.hpp:77] Creating layer conv3
I0411 06:14:32.960938 15781 net.cpp:100] Creating Layer conv3
I0411 06:14:32.960942 15781 net.cpp:434] conv3 <- pool2
I0411 06:14:32.960947 15781 net.cpp:408] conv3 -> conv3
I0411 06:14:32.967018 15781 net.cpp:150] Setting up conv3
I0411 06:14:32.967036 15781 net.cpp:157] Top shape: 1024 250 6 6 (9216000)
I0411 06:14:32.967039 15781 net.cpp:165] Memory required for data: 3981979648
I0411 06:14:32.967049 15781 layer_factory.hpp:77] Creating layer conv3_prescale
I0411 06:14:32.967056 15781 net.cpp:100] Creating Layer conv3_prescale
I0411 06:14:32.967061 15781 net.cpp:434] conv3_prescale <- conv3
I0411 06:14:32.967067 15781 net.cpp:395] conv3_prescale -> conv3 (in-place)
I0411 06:14:32.967156 15781 net.cpp:150] Setting up conv3_prescale
I0411 06:14:32.967165 15781 net.cpp:157] Top shape: 1024 250 6 6 (9216000)
I0411 06:14:32.967169 15781 net.cpp:165] Memory required for data: 4018843648
I0411 06:14:32.967173 15781 layer_factory.hpp:77] Creating layer conv3_sTanH
I0411 06:14:32.967178 15781 net.cpp:100] Creating Layer conv3_sTanH
I0411 06:14:32.967181 15781 net.cpp:434] conv3_sTanH <- conv3
I0411 06:14:32.967185 15781 net.cpp:395] conv3_sTanH -> conv3 (in-place)
I0411 06:14:32.969151 15781 net.cpp:150] Setting up conv3_sTanH
I0411 06:14:32.969167 15781 net.cpp:157] Top shape: 1024 250 6 6 (9216000)
I0411 06:14:32.969171 15781 net.cpp:165] Memory required for data: 4055707648
I0411 06:14:32.969174 15781 layer_factory.hpp:77] Creating layer conv3_postscale
I0411 06:14:32.969194 15781 net.cpp:100] Creating Layer conv3_postscale
I0411 06:14:32.969198 15781 net.cpp:434] conv3_postscale <- conv3
I0411 06:14:32.969204 15781 net.cpp:395] conv3_postscale -> conv3 (in-place)
I0411 06:14:32.969300 15781 net.cpp:150] Setting up conv3_postscale
I0411 06:14:32.969310 15781 net.cpp:157] Top shape: 1024 250 6 6 (9216000)
I0411 06:14:32.969313 15781 net.cpp:165] Memory required for data: 4092571648
I0411 06:14:32.969317 15781 layer_factory.hpp:77] Creating layer pool3
I0411 06:14:32.969323 15781 net.cpp:100] Creating Layer pool3
I0411 06:14:32.969326 15781 net.cpp:434] pool3 <- conv3
I0411 06:14:32.969331 15781 net.cpp:408] pool3 -> pool3
I0411 06:14:32.969369 15781 net.cpp:150] Setting up pool3
I0411 06:14:32.969377 15781 net.cpp:157] Top shape: 1024 250 3 3 (2304000)
I0411 06:14:32.969379 15781 net.cpp:165] Memory required for data: 4101787648
I0411 06:14:32.969383 15781 layer_factory.hpp:77] Creating layer fc4_300
I0411 06:14:32.969391 15781 net.cpp:100] Creating Layer fc4_300
I0411 06:14:32.969396 15781 net.cpp:434] fc4_300 <- pool3
I0411 06:14:32.969403 15781 net.cpp:408] fc4_300 -> fc4_300
I0411 06:14:32.974745 15781 net.cpp:150] Setting up fc4_300
I0411 06:14:32.974761 15781 net.cpp:157] Top shape: 1024 300 (307200)
I0411 06:14:32.974776 15781 net.cpp:165] Memory required for data: 4103016448
I0411 06:14:32.974783 15781 layer_factory.hpp:77] Creating layer fc4_prescale
I0411 06:14:32.974791 15781 net.cpp:100] Creating Layer fc4_prescale
I0411 06:14:32.974793 15781 net.cpp:434] fc4_prescale <- fc4_300
I0411 06:14:32.974799 15781 net.cpp:395] fc4_prescale -> fc4_300 (in-place)
I0411 06:14:32.974884 15781 net.cpp:150] Setting up fc4_prescale
I0411 06:14:32.974894 15781 net.cpp:157] Top shape: 1024 300 (307200)
I0411 06:14:32.974896 15781 net.cpp:165] Memory required for data: 4104245248
I0411 06:14:32.974901 15781 layer_factory.hpp:77] Creating layer fc4_sTanH
I0411 06:14:32.974907 15781 net.cpp:100] Creating Layer fc4_sTanH
I0411 06:14:32.974910 15781 net.cpp:434] fc4_sTanH <- fc4_300
I0411 06:14:32.974915 15781 net.cpp:395] fc4_sTanH -> fc4_300 (in-place)
I0411 06:14:32.975095 15781 net.cpp:150] Setting up fc4_sTanH
I0411 06:14:32.975107 15781 net.cpp:157] Top shape: 1024 300 (307200)
I0411 06:14:32.975111 15781 net.cpp:165] Memory required for data: 4105474048
I0411 06:14:32.975113 15781 layer_factory.hpp:77] Creating layer fc4_postscale
I0411 06:14:32.975121 15781 net.cpp:100] Creating Layer fc4_postscale
I0411 06:14:32.975126 15781 net.cpp:434] fc4_postscale <- fc4_300
I0411 06:14:32.975131 15781 net.cpp:395] fc4_postscale -> fc4_300 (in-place)
I0411 06:14:32.975219 15781 net.cpp:150] Setting up fc4_postscale
I0411 06:14:32.975227 15781 net.cpp:157] Top shape: 1024 300 (307200)
I0411 06:14:32.975230 15781 net.cpp:165] Memory required for data: 4106702848
I0411 06:14:32.975235 15781 layer_factory.hpp:77] Creating layer fc5_67
I0411 06:14:32.975242 15781 net.cpp:100] Creating Layer fc5_67
I0411 06:14:32.975245 15781 net.cpp:434] fc5_67 <- fc4_300
I0411 06:14:32.975250 15781 net.cpp:408] fc5_67 -> fc5_classes
I0411 06:14:32.977749 15781 net.cpp:150] Setting up fc5_67
I0411 06:14:32.977764 15781 net.cpp:157] Top shape: 1024 67 (68608)
I0411 06:14:32.977780 15781 net.cpp:165] Memory required for data: 4106977280
I0411 06:14:32.977790 15781 layer_factory.hpp:77] Creating layer loss
I0411 06:14:32.977797 15781 net.cpp:100] Creating Layer loss
I0411 06:14:32.977800 15781 net.cpp:434] loss <- fc5_classes
I0411 06:14:32.977805 15781 net.cpp:434] loss <- label
I0411 06:14:32.977811 15781 net.cpp:408] loss -> loss
I0411 06:14:32.977823 15781 layer_factory.hpp:77] Creating layer loss
…
I0411 06:14:32.978538 15781 solver.cpp:193] Creating test net (#0) specified by test_net file: ./Prototxt/experiment_8/rtsd-r1/histeq/trial_2/test.prototxt
I0411 06:14:32.978714 15781 net.cpp:58] Initializing net from parameters: 
state {
  phase: TEST
}
layer {
  name: "data"
  type: "Data"
  top: "data"
  top: "label"
  include {
    phase: TEST
  }
  transform_param {
    scale: 0.0039215689
    mirror: false
    crop_size: 48
    mean_value: 124
    mean_value: 121
    mean_value: 142
  }
  data_param {
    source: "../local_data/lmdb/rtsd-r1/histeq/test/lmdb"
    batch_size: 1024
    backend: LMDB
  }
}
layer {
  name: "conv1"
  type: "Convolution"
  bottom: "data"
  top: "conv1"
  convolution_param {
    num_output: 100
    pad: 0
    kernel_size: 7
    group: 1
    stride: 1
    weight_filler {
      type: "xavier"
    }
  }
}
layer {
  name: "conv1_prescale"
  type: "Scale"
  bottom: "conv1"
  top: "conv1"
  param {
    lr_mult: 0
    decay_mult: 0
  }
  scale_param {
    filler {
      value: 0.6666
    }
    bias_term: false
  }
}
layer {
  name: "conv1_sTanH"
  type: "TanH"
  bottom: "conv1"
  top: "conv1"
}
layer {
  name: "conv1_postscale"
  type: "Scale"
  bottom: "conv1"
  top: "conv1"
  param {
    lr_mult: 0
    decay_mult: 0
  }
  scale_param {
    filler {
      value: 1.7159
    }
    bias_term: false
  }
}
layer {
  name: "pool1"
  type: "Pooling"
  bottom: "conv1"
  top: "pool1"
  pooling_param {
    pool: MAX
    kernel_size: 2
    stride: 2
  }
}
layer {
  name: "conv2"
  type: "Convolution"
  bottom: "pool1"
  top: "conv2"
  convolution_param {
    num_output: 150
    pad: 0
    kernel_size: 4
    group: 1
    stride: 1
    weight_filler {
      type: "xavier"
    }
  }
}
layer {
  name: "conv2_prescale"
  type: "Scale"
  bottom: "conv2"
  top: "conv2"
  param {
    lr_mult: 0
    decay_mult: 0
  }
  scale_param {
    filler {
      value: 0.6666
    }
    bias_term: false
  }
}
layer {
  name: "conv2_sTanH"
  type: "TanH"
  bottom: "conv2"
  top: "conv2"
}
layer {
  name: "conv2_postscale"
  type: "Scale"
  bottom: "conv2"
  top: "conv2"
  param {
    lr_mult: 0
    decay_mult: 0
  }
  scale_param {
    filler {
      value: 1.7159
    }
    bias_term: false
  }
}
layer {
  name: "pool2"
  type: "Pooling"
  bottom: "conv2"
  top: "pool2"
  pooling_param {
    pool: MAX
    kernel_size: 2
    stride: 2
  }
}
layer {
  name: "conv3"
  type: "Convolution"
  bottom: "pool2"
  top: "conv3"
  convolution_param {
    num_output: 250
    pad: 0
    kernel_size: 4
    group: 1
    stride: 1
    weight_filler {
      type: "xavier"
    }
  }
}
layer {
  name: "conv3_prescale"
  type: "Scale"
  bottom: "conv3"
  top: "conv3"
  param {
    lr_mult: 0
    decay_mult: 0
  }
  scale_param {
    filler {
      value: 0.6666
    }
    bias_term: false
  }
}
layer {
  name: "conv3_sTanH"
  type: "TanH"
  bottom: "conv3"
  top: "conv3"
}
layer {
  name: "conv3_postscale"
  type: "Scale"
  bottom: "conv3"
  top: "conv3"
  param {
    lr_mult: 0
    decay_mult: 0
  }
  scale_param {
    filler {
      value: 1.7159
    }
    bias_term: false
  }
}
layer {
  name: "pool3"
  type: "Pooling"
  bottom: "conv3"
  top: "pool3"
  pooling_param {
    pool: MAX
    kernel_size: 2
    stride: 2
  }
}
layer {
  name: "fc4_300"
  type: "InnerProduct"
  bottom: "pool3"
  top: "fc4_300"
  inner_product_param {
    num_output: 300
    weight_filler {
      type: "xavier"
    }
  }
}
layer {
  name: "fc4_prescale"
  type: "Scale"
  bottom: "fc4_300"
  top: "fc4_300"
  param {
    lr_mult: 0
    decay_mult: 0
  }
  scale_param {
    filler {
      value: 0.6666
    }
    bias_term: false
  }
}
layer {
  name: "fc4_sTanH"
  type: "TanH"
  bottom: "fc4_300"
  top: "fc4_300"
}
layer {
  name: "fc4_postscale"
  type: "Scale"
  bottom: "fc4_300"
  top: "fc4_300"
  param {
    lr_mult: 0
    decay_mult: 0
  }
  scale_param {
    filler {
      value: 1.7159
    }
    bias_term: false
  }
}
layer {
  name: "fc5_67"
  type: "InnerProduct"
  bottom: "fc4_300"
  top: "fc5_classes"
  inner_product_param {
    num_output: 67
    weight_filler {
      type: "xavier"
    }
  }
}
layer {
  name: "loss"
  type: "SoftmaxWithLoss"
  bottom: "fc5_classes"
  bottom: "label"
  top: "loss"
}
layer {
  name: "accuracy_1"
  type: "Accuracy"
  bottom: "fc5_classes"
  bottom: "label"
  top: "accuracy_1"
  include {
    phase: TEST
  }
  accuracy_param {
    top_k: 1
  }
}
layer {
  name: "accuracy_5"
  type: "Accuracy"
  bottom: "fc5_classes"
  bottom: "label"
  top: "accuracy_5"
  include {
    phase: TEST
  }
  accuracy_param {
    top_k: 5
  }
}
I0411 06:14:32.978822 15781 layer_factory.hpp:77] Creating layer data
I0411 06:14:32.979382 15781 net.cpp:100] Creating Layer data
I0411 06:14:32.979393 15781 net.cpp:408] data -> data
I0411 06:14:32.979401 15781 net.cpp:408] data -> label
I0411 06:14:32.983671 15944 db_lmdb.cpp:35] Opened lmdb ../local_data/lmdb/rtsd-r1/histeq/test/lmdb
I0411 06:14:32.983829 15781 data_layer.cpp:41] output data size: 1024,3,48,48
I0411 06:14:33.022743 15781 net.cpp:150] Setting up data
I0411 06:14:33.022771 15781 net.cpp:157] Top shape: 1024 3 48 48 (7077888)
I0411 06:14:33.022776 15781 net.cpp:157] Top shape: 1024 (1024)
I0411 06:14:33.022779 15781 net.cpp:165] Memory required for data: 28315648
I0411 06:14:33.022785 15781 layer_factory.hpp:77] Creating layer label_data_1_split
I0411 06:14:33.022800 15781 net.cpp:100] Creating Layer label_data_1_split
I0411 06:14:33.022804 15781 net.cpp:434] label_data_1_split <- label
I0411 06:14:33.022811 15781 net.cpp:408] label_data_1_split -> label_data_1_split_0
I0411 06:14:33.022820 15781 net.cpp:408] label_data_1_split -> label_data_1_split_1
I0411 06:14:33.022826 15781 net.cpp:408] label_data_1_split -> label_data_1_split_2
I0411 06:14:33.022912 15781 net.cpp:150] Setting up label_data_1_split
I0411 06:14:33.022920 15781 net.cpp:157] Top shape: 1024 (1024)
I0411 06:14:33.022924 15781 net.cpp:157] Top shape: 1024 (1024)
I0411 06:14:33.022928 15781 net.cpp:157] Top shape: 1024 (1024)
I0411 06:14:33.022930 15781 net.cpp:165] Memory required for data: 28327936
I0411 06:14:33.022933 15781 layer_factory.hpp:77] Creating layer conv1
I0411 06:14:33.022945 15781 net.cpp:100] Creating Layer conv1
I0411 06:14:33.022950 15781 net.cpp:434] conv1 <- data
I0411 06:14:33.022956 15781 net.cpp:408] conv1 -> conv1
I0411 06:14:33.024987 15781 net.cpp:150] Setting up conv1
I0411 06:14:33.025005 15781 net.cpp:157] Top shape: 1024 100 42 42 (180633600)
I0411 06:14:33.025027 15781 net.cpp:165] Memory required for data: 750862336
I0411 06:14:33.025039 15781 layer_factory.hpp:77] Creating layer conv1_prescale
I0411 06:14:33.025050 15781 net.cpp:100] Creating Layer conv1_prescale
I0411 06:14:33.025055 15781 net.cpp:434] conv1_prescale <- conv1
I0411 06:14:33.025061 15781 net.cpp:395] conv1_prescale -> conv1 (in-place)
I0411 06:14:33.025167 15781 net.cpp:150] Setting up conv1_prescale
I0411 06:14:33.025177 15781 net.cpp:157] Top shape: 1024 100 42 42 (180633600)
I0411 06:14:33.025180 15781 net.cpp:165] Memory required for data: 1473396736
I0411 06:14:33.025187 15781 layer_factory.hpp:77] Creating layer conv1_sTanH
I0411 06:14:33.025193 15781 net.cpp:100] Creating Layer conv1_sTanH
I0411 06:14:33.025198 15781 net.cpp:434] conv1_sTanH <- conv1
I0411 06:14:33.025203 15781 net.cpp:395] conv1_sTanH -> conv1 (in-place)
I0411 06:14:33.025390 15781 net.cpp:150] Setting up conv1_sTanH
I0411 06:14:33.025401 15781 net.cpp:157] Top shape: 1024 100 42 42 (180633600)
I0411 06:14:33.025404 15781 net.cpp:165] Memory required for data: 2195931136
I0411 06:14:33.025408 15781 layer_factory.hpp:77] Creating layer conv1_postscale
I0411 06:14:33.025414 15781 net.cpp:100] Creating Layer conv1_postscale
I0411 06:14:33.025418 15781 net.cpp:434] conv1_postscale <- conv1
I0411 06:14:33.025424 15781 net.cpp:395] conv1_postscale -> conv1 (in-place)
I0411 06:14:33.025537 15781 net.cpp:150] Setting up conv1_postscale
I0411 06:14:33.025547 15781 net.cpp:157] Top shape: 1024 100 42 42 (180633600)
I0411 06:14:33.025549 15781 net.cpp:165] Memory required for data: 2918465536
I0411 06:14:33.025554 15781 layer_factory.hpp:77] Creating layer pool1
I0411 06:14:33.025562 15781 net.cpp:100] Creating Layer pool1
I0411 06:14:33.025566 15781 net.cpp:434] pool1 <- conv1
I0411 06:14:33.025571 15781 net.cpp:408] pool1 -> pool1
I0411 06:14:33.025619 15781 net.cpp:150] Setting up pool1
I0411 06:14:33.025626 15781 net.cpp:157] Top shape: 1024 100 21 21 (45158400)
I0411 06:14:33.025638 15781 net.cpp:165] Memory required for data: 3099099136
I0411 06:14:33.025641 15781 layer_factory.hpp:77] Creating layer conv2
I0411 06:14:33.025650 15781 net.cpp:100] Creating Layer conv2
I0411 06:14:33.025655 15781 net.cpp:434] conv2 <- pool1
I0411 06:14:33.025660 15781 net.cpp:408] conv2 -> conv2
I0411 06:14:33.032783 15781 net.cpp:150] Setting up conv2
I0411 06:14:33.032804 15781 net.cpp:157] Top shape: 1024 150 18 18 (49766400)
I0411 06:14:33.032809 15781 net.cpp:165] Memory required for data: 3298164736
I0411 06:14:33.032820 15781 layer_factory.hpp:77] Creating layer conv2_prescale
I0411 06:14:33.032833 15781 net.cpp:100] Creating Layer conv2_prescale
I0411 06:14:33.032838 15781 net.cpp:434] conv2_prescale <- conv2
I0411 06:14:33.032845 15781 net.cpp:395] conv2_prescale -> conv2 (in-place)
I0411 06:14:33.032956 15781 net.cpp:150] Setting up conv2_prescale
I0411 06:14:33.032965 15781 net.cpp:157] Top shape: 1024 150 18 18 (49766400)
I0411 06:14:33.032968 15781 net.cpp:165] Memory required for data: 3497230336
I0411 06:14:33.032974 15781 layer_factory.hpp:77] Creating layer conv2_sTanH
I0411 06:14:33.032979 15781 net.cpp:100] Creating Layer conv2_sTanH
I0411 06:14:33.032985 15781 net.cpp:434] conv2_sTanH <- conv2
I0411 06:14:33.032989 15781 net.cpp:395] conv2_sTanH -> conv2 (in-place)
I0411 06:14:33.034847 15781 net.cpp:150] Setting up conv2_sTanH
I0411 06:14:33.034863 15781 net.cpp:157] Top shape: 1024 150 18 18 (49766400)
I0411 06:14:33.034868 15781 net.cpp:165] Memory required for data: 3696295936
I0411 06:14:33.034871 15781 layer_factory.hpp:77] Creating layer conv2_postscale
I0411 06:14:33.034879 15781 net.cpp:100] Creating Layer conv2_postscale
I0411 06:14:33.034883 15781 net.cpp:434] conv2_postscale <- conv2
I0411 06:14:33.034888 15781 net.cpp:395] conv2_postscale -> conv2 (in-place)
I0411 06:14:33.034988 15781 net.cpp:150] Setting up conv2_postscale
I0411 06:14:33.034997 15781 net.cpp:157] Top shape: 1024 150 18 18 (49766400)
I0411 06:14:33.035001 15781 net.cpp:165] Memory required for data: 3895361536
I0411 06:14:33.035024 15781 layer_factory.hpp:77] Creating layer pool2
I0411 06:14:33.035032 15781 net.cpp:100] Creating Layer pool2
I0411 06:14:33.035037 15781 net.cpp:434] pool2 <- conv2
I0411 06:14:33.035042 15781 net.cpp:408] pool2 -> pool2
I0411 06:14:33.035094 15781 net.cpp:150] Setting up pool2
I0411 06:14:33.035102 15781 net.cpp:157] Top shape: 1024 150 9 9 (12441600)
I0411 06:14:33.035105 15781 net.cpp:165] Memory required for data: 3945127936
I0411 06:14:33.035109 15781 layer_factory.hpp:77] Creating layer conv3
I0411 06:14:33.035117 15781 net.cpp:100] Creating Layer conv3
I0411 06:14:33.035122 15781 net.cpp:434] conv3 <- pool2
I0411 06:14:33.035130 15781 net.cpp:408] conv3 -> conv3
I0411 06:14:33.040915 15781 net.cpp:150] Setting up conv3
I0411 06:14:33.040935 15781 net.cpp:157] Top shape: 1024 250 6 6 (9216000)
I0411 06:14:33.040938 15781 net.cpp:165] Memory required for data: 3981991936
I0411 06:14:33.040949 15781 layer_factory.hpp:77] Creating layer conv3_prescale
I0411 06:14:33.040957 15781 net.cpp:100] Creating Layer conv3_prescale
I0411 06:14:33.040963 15781 net.cpp:434] conv3_prescale <- conv3
I0411 06:14:33.040969 15781 net.cpp:395] conv3_prescale -> conv3 (in-place)
I0411 06:14:33.041065 15781 net.cpp:150] Setting up conv3_prescale
I0411 06:14:33.041074 15781 net.cpp:157] Top shape: 1024 250 6 6 (9216000)
I0411 06:14:33.041077 15781 net.cpp:165] Memory required for data: 4018855936
I0411 06:14:33.041082 15781 layer_factory.hpp:77] Creating layer conv3_sTanH
I0411 06:14:33.041088 15781 net.cpp:100] Creating Layer conv3_sTanH
I0411 06:14:33.041091 15781 net.cpp:434] conv3_sTanH <- conv3
I0411 06:14:33.041096 15781 net.cpp:395] conv3_sTanH -> conv3 (in-place)
I0411 06:14:33.042065 15781 net.cpp:150] Setting up conv3_sTanH
I0411 06:14:33.042080 15781 net.cpp:157] Top shape: 1024 250 6 6 (9216000)
I0411 06:14:33.042084 15781 net.cpp:165] Memory required for data: 4055719936
I0411 06:14:33.042088 15781 layer_factory.hpp:77] Creating layer conv3_postscale
I0411 06:14:33.042095 15781 net.cpp:100] Creating Layer conv3_postscale
I0411 06:14:33.042098 15781 net.cpp:434] conv3_postscale <- conv3
I0411 06:14:33.042105 15781 net.cpp:395] conv3_postscale -> conv3 (in-place)
I0411 06:14:33.042204 15781 net.cpp:150] Setting up conv3_postscale
I0411 06:14:33.042213 15781 net.cpp:157] Top shape: 1024 250 6 6 (9216000)
I0411 06:14:33.042217 15781 net.cpp:165] Memory required for data: 4092583936
I0411 06:14:33.042222 15781 layer_factory.hpp:77] Creating layer pool3
I0411 06:14:33.042230 15781 net.cpp:100] Creating Layer pool3
I0411 06:14:33.042235 15781 net.cpp:434] pool3 <- conv3
I0411 06:14:33.042240 15781 net.cpp:408] pool3 -> pool3
I0411 06:14:33.042280 15781 net.cpp:150] Setting up pool3
I0411 06:14:33.042289 15781 net.cpp:157] Top shape: 1024 250 3 3 (2304000)
I0411 06:14:33.042291 15781 net.cpp:165] Memory required for data: 4101799936
I0411 06:14:33.042294 15781 layer_factory.hpp:77] Creating layer fc4_300
I0411 06:14:33.042301 15781 net.cpp:100] Creating Layer fc4_300
I0411 06:14:33.042304 15781 net.cpp:434] fc4_300 <- pool3
I0411 06:14:33.042309 15781 net.cpp:408] fc4_300 -> fc4_300
I0411 06:14:33.048997 15781 net.cpp:150] Setting up fc4_300
I0411 06:14:33.049013 15781 net.cpp:157] Top shape: 1024 300 (307200)
I0411 06:14:33.049016 15781 net.cpp:165] Memory required for data: 4103028736
I0411 06:14:33.049023 15781 layer_factory.hpp:77] Creating layer fc4_prescale
I0411 06:14:33.049031 15781 net.cpp:100] Creating Layer fc4_prescale
I0411 06:14:33.049034 15781 net.cpp:434] fc4_prescale <- fc4_300
I0411 06:14:33.049041 15781 net.cpp:395] fc4_prescale -> fc4_300 (in-place)
I0411 06:14:33.049134 15781 net.cpp:150] Setting up fc4_prescale
I0411 06:14:33.049142 15781 net.cpp:157] Top shape: 1024 300 (307200)
I0411 06:14:33.049146 15781 net.cpp:165] Memory required for data: 4104257536
I0411 06:14:33.049150 15781 layer_factory.hpp:77] Creating layer fc4_sTanH
I0411 06:14:33.049156 15781 net.cpp:100] Creating Layer fc4_sTanH
I0411 06:14:33.049160 15781 net.cpp:434] fc4_sTanH <- fc4_300
I0411 06:14:33.049163 15781 net.cpp:395] fc4_sTanH -> fc4_300 (in-place)
I0411 06:14:33.049368 15781 net.cpp:150] Setting up fc4_sTanH
I0411 06:14:33.049381 15781 net.cpp:157] Top shape: 1024 300 (307200)
I0411 06:14:33.049383 15781 net.cpp:165] Memory required for data: 4105486336
I0411 06:14:33.049387 15781 layer_factory.hpp:77] Creating layer fc4_postscale
I0411 06:14:33.049398 15781 net.cpp:100] Creating Layer fc4_postscale
I0411 06:14:33.049404 15781 net.cpp:434] fc4_postscale <- fc4_300
I0411 06:14:33.049409 15781 net.cpp:395] fc4_postscale -> fc4_300 (in-place)
I0411 06:14:33.049505 15781 net.cpp:150] Setting up fc4_postscale
I0411 06:14:33.049515 15781 net.cpp:157] Top shape: 1024 300 (307200)
I0411 06:14:33.049516 15781 net.cpp:165] Memory required for data: 4106715136
I0411 06:14:33.049521 15781 layer_factory.hpp:77] Creating layer fc5_67
I0411 06:14:33.049527 15781 net.cpp:100] Creating Layer fc5_67
I0411 06:14:33.049531 15781 net.cpp:434] fc5_67 <- fc4_300
I0411 06:14:33.049540 15781 net.cpp:408] fc5_67 -> fc5_classes
I0411 06:14:33.049788 15781 net.cpp:150] Setting up fc5_67
I0411 06:14:33.049798 15781 net.cpp:157] Top shape: 1024 67 (68608)
I0411 06:14:33.049800 15781 net.cpp:165] Memory required for data: 4106989568
I0411 06:14:33.049809 15781 layer_factory.hpp:77] Creating layer fc5_classes_fc5_67_0_split
I0411 06:14:33.049818 15781 net.cpp:100] Creating Layer fc5_classes_fc5_67_0_split
I0411 06:14:33.049823 15781 net.cpp:434] fc5_classes_fc5_67_0_split <- fc5_classes
I0411 06:14:33.049827 15781 net.cpp:408] fc5_classes_fc5_67_0_split -> fc5_classes_fc5_67_0_split_0
I0411 06:14:33.049834 15781 net.cpp:408] fc5_classes_fc5_67_0_split -> fc5_classes_fc5_67_0_split_1
I0411 06:14:33.049841 15781 net.cpp:408] fc5_classes_fc5_67_0_split -> fc5_classes_fc5_67_0_split_2
I0411 06:14:33.049895 15781 net.cpp:150] Setting up fc5_classes_fc5_67_0_split
I0411 06:14:33.049901 15781 net.cpp:157] Top shape: 1024 67 (68608)
I0411 06:14:33.049904 15781 net.cpp:157] Top shape: 1024 67 (68608)
I0411 06:14:33.049907 15781 net.cpp:157] Top shape: 1024 67 (68608)
I0411 06:14:33.049909 15781 net.cpp:165] Memory required for data: 4107812864
I0411 06:14:33.049912 15781 layer_factory.hpp:77] Creating layer loss
I0411 06:14:33.049919 15781 net.cpp:100] Creating Layer loss
I0411 06:14:33.049923 15781 net.cpp:434] loss <- fc5_classes_fc5_67_0_split_0
I0411 06:14:33.049928 15781 net.cpp:434] loss <- label_data_1_split_0
I0411 06:14:33.049932 15781 net.cpp:408] loss -> loss
…
