…
I0508 04:46:49.130838 10021 solver.cpp:93] Creating training net from train_net file: ./Prototxt/experiment_15/RTSD/CoNorm/trial_5/train.prototxt
I0508 04:46:49.131289 10021 net.cpp:58] Initializing net from parameters: 
state {
  phase: TRAIN
  level: 0
  stage: ""
}
layer {
  name: "data"
  type: "Data"
  top: "data"
  top: "label"
  include {
    phase: TRAIN
  }
  transform_param {
    scale: 0.0039215689
    mirror: false
    crop_size: 48
    mean_value: 135
    mean_value: 135
    mean_value: 134
  }
  data_param {
    source: "../local_data/lmdb/RTSD/CoNorm/train/lmdb"
    batch_size: 1024
    backend: LMDB
  }
}
layer {
  name: "conv1"
  type: "Convolution"
  bottom: "data"
  top: "conv1"
  convolution_param {
    num_output: 100
    pad: 0
    kernel_size: 7
    group: 1
    stride: 1
    weight_filler {
      type: "xavier"
    }
  }
}
layer {
  name: "conv1_prescale"
  type: "Scale"
  bottom: "conv1"
  top: "conv1"
  param {
    lr_mult: 0
    decay_mult: 0
  }
  scale_param {
    filler {
      value: 0.6666
    }
    bias_term: false
  }
}
layer {
  name: "conv1_sTanH"
  type: "TanH"
  bottom: "conv1"
  top: "conv1"
}
layer {
  name: "conv1_postscale"
  type: "Scale"
  bottom: "conv1"
  top: "conv1"
  param {
    lr_mult: 0
    decay_mult: 0
  }
  scale_param {
    filler {
      value: 1.7159
    }
    bias_term: false
  }
}
layer {
  name: "pool1"
  type: "Pooling"
  bottom: "conv1"
  top: "pool1"
  pooling_param {
    pool: MAX
    kernel_size: 2
    stride: 2
  }
}
layer {
  name: "conv2"
  type: "Convolution"
  bottom: "pool1"
  top: "conv2"
  convolution_param {
    num_output: 150
    pad: 0
    kernel_size: 4
    group: 2
    stride: 1
    weight_filler {
      type: "xavier"
    }
  }
}
layer {
  name: "conv2_prescale"
  type: "Scale"
  bottom: "conv2"
  top: "conv2"
  param {
    lr_mult: 0
    decay_mult: 0
  }
  scale_param {
    filler {
      value: 0.6666
    }
    bias_term: false
  }
}
layer {
  name: "conv2_sTanH"
  type: "TanH"
  bottom: "conv2"
  top: "conv2"
}
layer {
  name: "conv2_postscale"
  type: "Scale"
  bottom: "conv2"
  top: "conv2"
  param {
    lr_mult: 0
    decay_mult: 0
  }
  scale_param {
    filler {
      value: 1.7159
    }
    bias_term: false
  }
}
layer {
  name: "pool2"
  type: "Pooling"
  bottom: "conv2"
  top: "pool2"
  pooling_param {
    pool: MAX
    kernel_size: 2
    stride: 2
  }
}
layer {
  name: "conv3"
  type: "Convolution"
  bottom: "pool2"
  top: "conv3"
  convolution_param {
    num_output: 250
    pad: 0
    kernel_size: 4
    group: 2
    stride: 1
    weight_filler {
      type: "xavier"
    }
  }
}
layer {
  name: "conv3_prescale"
  type: "Scale"
  bottom: "conv3"
  top: "conv3"
  param {
    lr_mult: 0
    decay_mult: 0
  }
  scale_param {
    filler {
      value: 0.6666
    }
    bias_term: false
  }
}
layer {
  name: "conv3_sTanH"
  type: "TanH"
  bottom: "conv3"
  top: "conv3"
}
layer {
  name: "conv3_postscale"
  type: "Scale"
  bottom: "conv3"
  top: "conv3"
  param {
    lr_mult: 0
    decay_mult: 0
  }
  scale_param {
    filler {
      value: 1.7159
    }
    bias_term: false
  }
}
layer {
  name: "pool3"
  type: "Pooling"
  bottom: "conv3"
  top: "pool3"
  pooling_param {
    pool: MAX
    kernel_size: 2
    stride: 2
  }
}
layer {
  name: "fc4_300"
  type: "InnerProduct"
  bottom: "pool3"
  top: "fc4_300"
  inner_product_param {
    num_output: 300
    weight_filler {
      type: "xavier"
    }
  }
}
layer {
  name: "fc4_prescale"
  type: "Scale"
  bottom: "fc4_300"
  top: "fc4_300"
  param {
    lr_mult: 0
    decay_mult: 0
  }
  scale_param {
    filler {
      value: 0.6666
    }
    bias_term: false
  }
}
layer {
  name: "fc4_sTanH"
  type: "TanH"
  bottom: "fc4_300"
  top: "fc4_300"
}
layer {
  name: "fc4_postscale"
  type: "Scale"
  bottom: "fc4_300"
  top: "fc4_300"
  param {
    lr_mult: 0
    decay_mult: 0
  }
  scale_param {
    filler {
      value: 1.7159
    }
    bias_term: false
  }
}
layer {
  name: "fc5_116"
  type: "InnerProduct"
  bottom: "fc4_300"
  top: "fc5_classes"
  inner_product_param {
    num_output: 116
    weight_filler {
      type: "xavier"
    }
  }
}
layer {
  name: "softmax"
  type: "Softmax"
  bottom: "fc5_classes"
  top: "softmax"
}
layer {
  name: "loss"
  type: "MultinomialLogisticLoss"
  bottom: "softmax"
  bottom: "label"
  top: "loss"
}
layer {
  name: "accuracy_1"
  type: "Accuracy"
  bottom: "fc5_classes"
  bottom: "label"
  top: "accuracy_1"
  accuracy_param {
    top_k: 1
  }
}
layer {
  name: "accuracy_5"
  type: "Accuracy"
  bottom: "fc5_classes"
  bottom: "label"
  top: "accuracy_5"
  accuracy_param {
    top_k: 5
  }
}
layer {
  name: "silence"
  type: "Silence"
  bottom: "accuracy_1"
  bottom: "accuracy_5"
}
I0508 04:46:49.131443 10021 layer_factory.hpp:77] Creating layer data
I0508 04:46:49.132735 10021 net.cpp:100] Creating Layer data
I0508 04:46:49.132750 10021 net.cpp:408] data -> data
I0508 04:46:49.132773 10021 net.cpp:408] data -> label
I0508 04:46:49.137192 10147 db_lmdb.cpp:35] Opened lmdb ../local_data/lmdb/RTSD/CoNorm/train/lmdb
I0508 04:46:49.155804 10021 data_layer.cpp:41] output data size: 1024,3,48,48
I0508 04:46:49.224555 10021 net.cpp:150] Setting up data
I0508 04:46:49.224584 10021 net.cpp:157] Top shape: 1024 3 48 48 (7077888)
I0508 04:46:49.224589 10021 net.cpp:157] Top shape: 1024 (1024)
I0508 04:46:49.224592 10021 net.cpp:165] Memory required for data: 28315648
I0508 04:46:49.224603 10021 layer_factory.hpp:77] Creating layer label_data_1_split
I0508 04:46:49.224618 10021 net.cpp:100] Creating Layer label_data_1_split
I0508 04:46:49.224627 10021 net.cpp:434] label_data_1_split <- label
I0508 04:46:49.224640 10021 net.cpp:408] label_data_1_split -> label_data_1_split_0
I0508 04:46:49.224653 10021 net.cpp:408] label_data_1_split -> label_data_1_split_1
I0508 04:46:49.224661 10021 net.cpp:408] label_data_1_split -> label_data_1_split_2
I0508 04:46:49.224722 10021 net.cpp:150] Setting up label_data_1_split
I0508 04:46:49.224730 10021 net.cpp:157] Top shape: 1024 (1024)
I0508 04:46:49.224735 10021 net.cpp:157] Top shape: 1024 (1024)
I0508 04:46:49.224738 10021 net.cpp:157] Top shape: 1024 (1024)
I0508 04:46:49.224740 10021 net.cpp:165] Memory required for data: 28327936
I0508 04:46:49.224745 10021 layer_factory.hpp:77] Creating layer conv1
I0508 04:46:49.224761 10021 net.cpp:100] Creating Layer conv1
I0508 04:46:49.224766 10021 net.cpp:434] conv1 <- data
I0508 04:46:49.224771 10021 net.cpp:408] conv1 -> conv1
I0508 04:46:49.577740 10021 net.cpp:150] Setting up conv1
I0508 04:46:49.577767 10021 net.cpp:157] Top shape: 1024 100 42 42 (180633600)
I0508 04:46:49.577771 10021 net.cpp:165] Memory required for data: 750862336
I0508 04:46:49.577795 10021 layer_factory.hpp:77] Creating layer conv1_prescale
I0508 04:46:49.577808 10021 net.cpp:100] Creating Layer conv1_prescale
I0508 04:46:49.577812 10021 net.cpp:434] conv1_prescale <- conv1
I0508 04:46:49.577818 10021 net.cpp:395] conv1_prescale -> conv1 (in-place)
I0508 04:46:49.577926 10021 net.cpp:150] Setting up conv1_prescale
I0508 04:46:49.577935 10021 net.cpp:157] Top shape: 1024 100 42 42 (180633600)
I0508 04:46:49.577939 10021 net.cpp:165] Memory required for data: 1473396736
I0508 04:46:49.577945 10021 layer_factory.hpp:77] Creating layer conv1_sTanH
I0508 04:46:49.577955 10021 net.cpp:100] Creating Layer conv1_sTanH
I0508 04:46:49.577960 10021 net.cpp:434] conv1_sTanH <- conv1
I0508 04:46:49.577965 10021 net.cpp:395] conv1_sTanH -> conv1 (in-place)
I0508 04:46:49.578161 10021 net.cpp:150] Setting up conv1_sTanH
I0508 04:46:49.578173 10021 net.cpp:157] Top shape: 1024 100 42 42 (180633600)
I0508 04:46:49.578194 10021 net.cpp:165] Memory required for data: 2195931136
I0508 04:46:49.578198 10021 layer_factory.hpp:77] Creating layer conv1_postscale
I0508 04:46:49.578205 10021 net.cpp:100] Creating Layer conv1_postscale
I0508 04:46:49.578210 10021 net.cpp:434] conv1_postscale <- conv1
I0508 04:46:49.578217 10021 net.cpp:395] conv1_postscale -> conv1 (in-place)
I0508 04:46:49.578310 10021 net.cpp:150] Setting up conv1_postscale
I0508 04:46:49.578320 10021 net.cpp:157] Top shape: 1024 100 42 42 (180633600)
I0508 04:46:49.578322 10021 net.cpp:165] Memory required for data: 2918465536
I0508 04:46:49.578327 10021 layer_factory.hpp:77] Creating layer pool1
I0508 04:46:49.578335 10021 net.cpp:100] Creating Layer pool1
I0508 04:46:49.578337 10021 net.cpp:434] pool1 <- conv1
I0508 04:46:49.578343 10021 net.cpp:408] pool1 -> pool1
I0508 04:46:49.578389 10021 net.cpp:150] Setting up pool1
I0508 04:46:49.578398 10021 net.cpp:157] Top shape: 1024 100 21 21 (45158400)
I0508 04:46:49.578402 10021 net.cpp:165] Memory required for data: 3099099136
I0508 04:46:49.578404 10021 layer_factory.hpp:77] Creating layer conv2
I0508 04:46:49.578414 10021 net.cpp:100] Creating Layer conv2
I0508 04:46:49.578418 10021 net.cpp:434] conv2 <- pool1
I0508 04:46:49.578423 10021 net.cpp:408] conv2 -> conv2
I0508 04:46:49.590781 10021 net.cpp:150] Setting up conv2
I0508 04:46:49.590800 10021 net.cpp:157] Top shape: 1024 150 18 18 (49766400)
I0508 04:46:49.590803 10021 net.cpp:165] Memory required for data: 3298164736
I0508 04:46:49.590814 10021 layer_factory.hpp:77] Creating layer conv2_prescale
I0508 04:46:49.590826 10021 net.cpp:100] Creating Layer conv2_prescale
I0508 04:46:49.590828 10021 net.cpp:434] conv2_prescale <- conv2
I0508 04:46:49.590834 10021 net.cpp:395] conv2_prescale -> conv2 (in-place)
I0508 04:46:49.590932 10021 net.cpp:150] Setting up conv2_prescale
I0508 04:46:49.590942 10021 net.cpp:157] Top shape: 1024 150 18 18 (49766400)
I0508 04:46:49.590945 10021 net.cpp:165] Memory required for data: 3497230336
I0508 04:46:49.590950 10021 layer_factory.hpp:77] Creating layer conv2_sTanH
I0508 04:46:49.590955 10021 net.cpp:100] Creating Layer conv2_sTanH
I0508 04:46:49.590958 10021 net.cpp:434] conv2_sTanH <- conv2
I0508 04:46:49.590963 10021 net.cpp:395] conv2_sTanH -> conv2 (in-place)
I0508 04:46:49.591140 10021 net.cpp:150] Setting up conv2_sTanH
I0508 04:46:49.591151 10021 net.cpp:157] Top shape: 1024 150 18 18 (49766400)
I0508 04:46:49.591154 10021 net.cpp:165] Memory required for data: 3696295936
I0508 04:46:49.591157 10021 layer_factory.hpp:77] Creating layer conv2_postscale
I0508 04:46:49.591164 10021 net.cpp:100] Creating Layer conv2_postscale
I0508 04:46:49.591169 10021 net.cpp:434] conv2_postscale <- conv2
I0508 04:46:49.591174 10021 net.cpp:395] conv2_postscale -> conv2 (in-place)
I0508 04:46:49.591264 10021 net.cpp:150] Setting up conv2_postscale
I0508 04:46:49.591271 10021 net.cpp:157] Top shape: 1024 150 18 18 (49766400)
I0508 04:46:49.591274 10021 net.cpp:165] Memory required for data: 3895361536
I0508 04:46:49.591279 10021 layer_factory.hpp:77] Creating layer pool2
I0508 04:46:49.591285 10021 net.cpp:100] Creating Layer pool2
I0508 04:46:49.591290 10021 net.cpp:434] pool2 <- conv2
I0508 04:46:49.591295 10021 net.cpp:408] pool2 -> pool2
I0508 04:46:49.591334 10021 net.cpp:150] Setting up pool2
I0508 04:46:49.591342 10021 net.cpp:157] Top shape: 1024 150 9 9 (12441600)
I0508 04:46:49.591346 10021 net.cpp:165] Memory required for data: 3945127936
I0508 04:46:49.591348 10021 layer_factory.hpp:77] Creating layer conv3
I0508 04:46:49.591357 10021 net.cpp:100] Creating Layer conv3
I0508 04:46:49.591361 10021 net.cpp:434] conv3 <- pool2
I0508 04:46:49.591367 10021 net.cpp:408] conv3 -> conv3
I0508 04:46:49.622777 10021 net.cpp:150] Setting up conv3
I0508 04:46:49.622795 10021 net.cpp:157] Top shape: 1024 250 6 6 (9216000)
I0508 04:46:49.622800 10021 net.cpp:165] Memory required for data: 3981991936
I0508 04:46:49.622810 10021 layer_factory.hpp:77] Creating layer conv3_prescale
I0508 04:46:49.622833 10021 net.cpp:100] Creating Layer conv3_prescale
I0508 04:46:49.622836 10021 net.cpp:434] conv3_prescale <- conv3
I0508 04:46:49.622843 10021 net.cpp:395] conv3_prescale -> conv3 (in-place)
I0508 04:46:49.622936 10021 net.cpp:150] Setting up conv3_prescale
I0508 04:46:49.622946 10021 net.cpp:157] Top shape: 1024 250 6 6 (9216000)
I0508 04:46:49.622949 10021 net.cpp:165] Memory required for data: 4018855936
I0508 04:46:49.622954 10021 layer_factory.hpp:77] Creating layer conv3_sTanH
I0508 04:46:49.622962 10021 net.cpp:100] Creating Layer conv3_sTanH
I0508 04:46:49.622967 10021 net.cpp:434] conv3_sTanH <- conv3
I0508 04:46:49.622972 10021 net.cpp:395] conv3_sTanH -> conv3 (in-place)
I0508 04:46:49.623167 10021 net.cpp:150] Setting up conv3_sTanH
I0508 04:46:49.623178 10021 net.cpp:157] Top shape: 1024 250 6 6 (9216000)
I0508 04:46:49.623180 10021 net.cpp:165] Memory required for data: 4055719936
I0508 04:46:49.623183 10021 layer_factory.hpp:77] Creating layer conv3_postscale
I0508 04:46:49.623191 10021 net.cpp:100] Creating Layer conv3_postscale
I0508 04:46:49.623196 10021 net.cpp:434] conv3_postscale <- conv3
I0508 04:46:49.623201 10021 net.cpp:395] conv3_postscale -> conv3 (in-place)
I0508 04:46:49.623294 10021 net.cpp:150] Setting up conv3_postscale
I0508 04:46:49.623302 10021 net.cpp:157] Top shape: 1024 250 6 6 (9216000)
I0508 04:46:49.623306 10021 net.cpp:165] Memory required for data: 4092583936
I0508 04:46:49.623311 10021 layer_factory.hpp:77] Creating layer pool3
I0508 04:46:49.623319 10021 net.cpp:100] Creating Layer pool3
I0508 04:46:49.623324 10021 net.cpp:434] pool3 <- conv3
I0508 04:46:49.623329 10021 net.cpp:408] pool3 -> pool3
I0508 04:46:49.623370 10021 net.cpp:150] Setting up pool3
I0508 04:46:49.623378 10021 net.cpp:157] Top shape: 1024 250 3 3 (2304000)
I0508 04:46:49.623380 10021 net.cpp:165] Memory required for data: 4101799936
I0508 04:46:49.623383 10021 layer_factory.hpp:77] Creating layer fc4_300
I0508 04:46:49.623390 10021 net.cpp:100] Creating Layer fc4_300
I0508 04:46:49.623395 10021 net.cpp:434] fc4_300 <- pool3
I0508 04:46:49.623404 10021 net.cpp:408] fc4_300 -> fc4_300
I0508 04:46:49.635928 10021 net.cpp:150] Setting up fc4_300
I0508 04:46:49.635948 10021 net.cpp:157] Top shape: 1024 300 (307200)
I0508 04:46:49.635952 10021 net.cpp:165] Memory required for data: 4103028736
I0508 04:46:49.635959 10021 layer_factory.hpp:77] Creating layer fc4_prescale
I0508 04:46:49.635967 10021 net.cpp:100] Creating Layer fc4_prescale
I0508 04:46:49.635972 10021 net.cpp:434] fc4_prescale <- fc4_300
I0508 04:46:49.635979 10021 net.cpp:395] fc4_prescale -> fc4_300 (in-place)
I0508 04:46:49.636073 10021 net.cpp:150] Setting up fc4_prescale
I0508 04:46:49.636082 10021 net.cpp:157] Top shape: 1024 300 (307200)
I0508 04:46:49.636085 10021 net.cpp:165] Memory required for data: 4104257536
I0508 04:46:49.636090 10021 layer_factory.hpp:77] Creating layer fc4_sTanH
I0508 04:46:49.636095 10021 net.cpp:100] Creating Layer fc4_sTanH
I0508 04:46:49.636099 10021 net.cpp:434] fc4_sTanH <- fc4_300
I0508 04:46:49.636103 10021 net.cpp:395] fc4_sTanH -> fc4_300 (in-place)
I0508 04:46:49.639030 10021 net.cpp:150] Setting up fc4_sTanH
I0508 04:46:49.639050 10021 net.cpp:157] Top shape: 1024 300 (307200)
I0508 04:46:49.639053 10021 net.cpp:165] Memory required for data: 4105486336
I0508 04:46:49.639057 10021 layer_factory.hpp:77] Creating layer fc4_postscale
I0508 04:46:49.639065 10021 net.cpp:100] Creating Layer fc4_postscale
I0508 04:46:49.639070 10021 net.cpp:434] fc4_postscale <- fc4_300
I0508 04:46:49.639080 10021 net.cpp:395] fc4_postscale -> fc4_300 (in-place)
I0508 04:46:49.639186 10021 net.cpp:150] Setting up fc4_postscale
I0508 04:46:49.639195 10021 net.cpp:157] Top shape: 1024 300 (307200)
I0508 04:46:49.639199 10021 net.cpp:165] Memory required for data: 4106715136
I0508 04:46:49.639204 10021 layer_factory.hpp:77] Creating layer fc5_116
I0508 04:46:49.639214 10021 net.cpp:100] Creating Layer fc5_116
I0508 04:46:49.639219 10021 net.cpp:434] fc5_116 <- fc4_300
I0508 04:46:49.639225 10021 net.cpp:408] fc5_116 -> fc5_classes
I0508 04:46:49.641906 10021 net.cpp:150] Setting up fc5_116
I0508 04:46:49.641923 10021 net.cpp:157] Top shape: 1024 116 (118784)
I0508 04:46:49.641927 10021 net.cpp:165] Memory required for data: 4107190272
I0508 04:46:49.641939 10021 layer_factory.hpp:77] Creating layer fc5_classes_fc5_116_0_split
I0508 04:46:49.641949 10021 net.cpp:100] Creating Layer fc5_classes_fc5_116_0_split
I0508 04:46:49.641954 10021 net.cpp:434] fc5_classes_fc5_116_0_split <- fc5_classes
I0508 04:46:49.641960 10021 net.cpp:408] fc5_classes_fc5_116_0_split -> fc5_classes_fc5_116_0_split_0
I0508 04:46:49.641968 10021 net.cpp:408] fc5_classes_fc5_116_0_split -> fc5_classes_fc5_116_0_split_1
I0508 04:46:49.641975 10021 net.cpp:408] fc5_classes_fc5_116_0_split -> fc5_classes_fc5_116_0_split_2
I0508 04:46:49.642032 10021 net.cpp:150] Setting up fc5_classes_fc5_116_0_split
I0508 04:46:49.642040 10021 net.cpp:157] Top shape: 1024 116 (118784)
I0508 04:46:49.642045 10021 net.cpp:157] Top shape: 1024 116 (118784)
I0508 04:46:49.642048 10021 net.cpp:157] Top shape: 1024 116 (118784)
I0508 04:46:49.642051 10021 net.cpp:165] Memory required for data: 4108615680
I0508 04:46:49.642055 10021 layer_factory.hpp:77] Creating layer softmax
I0508 04:46:49.642060 10021 net.cpp:100] Creating Layer softmax
I0508 04:46:49.642066 10021 net.cpp:434] softmax <- fc5_classes_fc5_116_0_split_0
I0508 04:46:49.642071 10021 net.cpp:408] softmax -> softmax
I0508 04:46:49.642328 10021 net.cpp:150] Setting up softmax
I0508 04:46:49.642341 10021 net.cpp:157] Top shape: 1024 116 (118784)
I0508 04:46:49.642344 10021 net.cpp:165] Memory required for data: 4109090816
I0508 04:46:49.642349 10021 layer_factory.hpp:77] Creating layer loss
I0508 04:46:49.642356 10021 net.cpp:100] Creating Layer loss
I0508 04:46:49.642359 10021 net.cpp:434] loss <- softmax
I0508 04:46:49.642364 10021 net.cpp:434] loss <- label_data_1_split_0
I0508 04:46:49.642369 10021 net.cpp:408] loss -> loss
…
