…
I0414 03:48:05.055990  7011 solver.cpp:93] Creating training net from train_net file: ./Prototxt/experiment_11/rtsd-r1/CoNorm/trial_2/train.prototxt
I0414 03:48:05.056455  7011 net.cpp:58] Initializing net from parameters: 
state {
  phase: TRAIN
  level: 0
  stage: ""
}
layer {
  name: "data"
  type: "Data"
  top: "data"
  top: "label"
  include {
    phase: TRAIN
  }
  transform_param {
    scale: 0.0039215689
    mirror: false
    crop_size: 48
    mean_value: 132
    mean_value: 132
    mean_value: 131
  }
  data_param {
    source: "../local_data/lmdb/rtsd-r1/CoNorm/train/lmdb"
    batch_size: 1024
    backend: LMDB
  }
}
layer {
  name: "conv1"
  type: "Convolution"
  bottom: "data"
  top: "conv1"
  convolution_param {
    num_output: 100
    pad: 0
    kernel_size: 7
    group: 1
    stride: 1
    weight_filler {
      type: "xavier"
    }
  }
}
layer {
  name: "conv1_prescale"
  type: "Scale"
  bottom: "conv1"
  top: "conv1"
  param {
    lr_mult: 0
    decay_mult: 0
  }
  scale_param {
    filler {
      value: 0.6666
    }
    bias_term: false
  }
}
layer {
  name: "conv1_sTanH"
  type: "TanH"
  bottom: "conv1"
  top: "conv1"
}
layer {
  name: "conv1_postscale"
  type: "Scale"
  bottom: "conv1"
  top: "conv1"
  param {
    lr_mult: 0
    decay_mult: 0
  }
  scale_param {
    filler {
      value: 1.7159
    }
    bias_term: false
  }
}
layer {
  name: "pool1"
  type: "Pooling"
  bottom: "conv1"
  top: "pool1"
  pooling_param {
    pool: MAX
    kernel_size: 2
    stride: 2
  }
}
layer {
  name: "conv2"
  type: "Convolution"
  bottom: "pool1"
  top: "conv2"
  convolution_param {
    num_output: 150
    pad: 0
    kernel_size: 4
    group: 1
    stride: 1
    weight_filler {
      type: "xavier"
    }
  }
}
layer {
  name: "conv2_prescale"
  type: "Scale"
  bottom: "conv2"
  top: "conv2"
  param {
    lr_mult: 0
    decay_mult: 0
  }
  scale_param {
    filler {
      value: 0.6666
    }
    bias_term: false
  }
}
layer {
  name: "conv2_sTanH"
  type: "TanH"
  bottom: "conv2"
  top: "conv2"
}
layer {
  name: "conv2_postscale"
  type: "Scale"
  bottom: "conv2"
  top: "conv2"
  param {
    lr_mult: 0
    decay_mult: 0
  }
  scale_param {
    filler {
      value: 1.7159
    }
    bias_term: false
  }
}
layer {
  name: "pool2"
  type: "Pooling"
  bottom: "conv2"
  top: "pool2"
  pooling_param {
    pool: MAX
    kernel_size: 2
    stride: 2
  }
}
layer {
  name: "conv3"
  type: "Convolution"
  bottom: "pool2"
  top: "conv3"
  convolution_param {
    num_output: 250
    pad: 0
    kernel_size: 4
    group: 1
    stride: 1
    weight_filler {
      type: "xavier"
    }
  }
}
layer {
  name: "conv3_prescale"
  type: "Scale"
  bottom: "conv3"
  top: "conv3"
  param {
    lr_mult: 0
    decay_mult: 0
  }
  scale_param {
    filler {
      value: 0.6666
    }
    bias_term: false
  }
}
layer {
  name: "conv3_sTanH"
  type: "TanH"
  bottom: "conv3"
  top: "conv3"
}
layer {
  name: "conv3_postscale"
  type: "Scale"
  bottom: "conv3"
  top: "conv3"
  param {
    lr_mult: 0
    decay_mult: 0
  }
  scale_param {
    filler {
      value: 1.7159
    }
    bias_term: false
  }
}
layer {
  name: "pool3"
  type: "Pooling"
  bottom: "conv3"
  top: "pool3"
  pooling_param {
    pool: MAX
    kernel_size: 2
    stride: 2
  }
}
layer {
  name: "fc4_300"
  type: "InnerProduct"
  bottom: "pool3"
  top: "fc4_300"
  inner_product_param {
    num_output: 300
    weight_filler {
      type: "xavier"
    }
  }
}
layer {
  name: "fc4_prescale"
  type: "Scale"
  bottom: "fc4_300"
  top: "fc4_300"
  param {
    lr_mult: 0
    decay_mult: 0
  }
  scale_param {
    filler {
      value: 0.6666
    }
    bias_term: false
  }
}
layer {
  name: "fc4_sTanH"
  type: "TanH"
  bottom: "fc4_300"
  top: "fc4_300"
}
layer {
  name: "fc4_postscale"
  type: "Scale"
  bottom: "fc4_300"
  top: "fc4_300"
  param {
    lr_mult: 0
    decay_mult: 0
  }
  scale_param {
    filler {
      value: 1.7159
    }
    bias_term: false
  }
}
layer {
  name: "fc5_67"
  type: "InnerProduct"
  bottom: "fc4_300"
  top: "fc5_classes"
  inner_product_param {
    num_output: 67
    weight_filler {
      type: "xavier"
    }
  }
}
layer {
  name: "softmax"
  type: "Softmax"
  bottom: "fc5_classes"
  top: "softmax"
}
layer {
  name: "loss"
  type: "MultinomialLogisticLoss"
  bottom: "softmax"
  bottom: "label"
  top: "loss"
}
layer {
  name: "accuracy_1"
  type: "Accuracy"
  bottom: "fc5_classes"
  bottom: "label"
  top: "accuracy_1"
  accuracy_param {
    top_k: 1
  }
}
layer {
  name: "accuracy_5"
  type: "Accuracy"
  bottom: "fc5_classes"
  bottom: "label"
  top: "accuracy_5"
  accuracy_param {
    top_k: 5
  }
}
layer {
  name: "silence"
  type: "Silence"
  bottom: "accuracy_1"
  bottom: "accuracy_5"
}
I0414 03:48:05.056613  7011 layer_factory.hpp:77] Creating layer data
I0414 03:48:05.057683  7011 net.cpp:100] Creating Layer data
I0414 03:48:05.057700  7011 net.cpp:408] data -> data
I0414 03:48:05.057725  7011 net.cpp:408] data -> label
I0414 03:48:05.064074  7189 db_lmdb.cpp:35] Opened lmdb ../local_data/lmdb/rtsd-r1/CoNorm/train/lmdb
I0414 03:48:05.087169  7011 data_layer.cpp:41] output data size: 1024,3,48,48
I0414 03:48:05.149168  7011 net.cpp:150] Setting up data
I0414 03:48:05.149199  7011 net.cpp:157] Top shape: 1024 3 48 48 (7077888)
I0414 03:48:05.149204  7011 net.cpp:157] Top shape: 1024 (1024)
I0414 03:48:05.149206  7011 net.cpp:165] Memory required for data: 28315648
I0414 03:48:05.149217  7011 layer_factory.hpp:77] Creating layer label_data_1_split
I0414 03:48:05.149231  7011 net.cpp:100] Creating Layer label_data_1_split
I0414 03:48:05.149240  7011 net.cpp:434] label_data_1_split <- label
I0414 03:48:05.149255  7011 net.cpp:408] label_data_1_split -> label_data_1_split_0
I0414 03:48:05.149268  7011 net.cpp:408] label_data_1_split -> label_data_1_split_1
I0414 03:48:05.149276  7011 net.cpp:408] label_data_1_split -> label_data_1_split_2
I0414 03:48:05.149348  7011 net.cpp:150] Setting up label_data_1_split
I0414 03:48:05.149355  7011 net.cpp:157] Top shape: 1024 (1024)
I0414 03:48:05.149359  7011 net.cpp:157] Top shape: 1024 (1024)
I0414 03:48:05.149363  7011 net.cpp:157] Top shape: 1024 (1024)
I0414 03:48:05.149365  7011 net.cpp:165] Memory required for data: 28327936
I0414 03:48:05.149369  7011 layer_factory.hpp:77] Creating layer conv1
I0414 03:48:05.149386  7011 net.cpp:100] Creating Layer conv1
I0414 03:48:05.149392  7011 net.cpp:434] conv1 <- data
I0414 03:48:05.149399  7011 net.cpp:408] conv1 -> conv1
I0414 03:48:05.560163  7011 net.cpp:150] Setting up conv1
I0414 03:48:05.560202  7011 net.cpp:157] Top shape: 1024 100 42 42 (180633600)
I0414 03:48:05.560209  7011 net.cpp:165] Memory required for data: 750862336
I0414 03:48:05.560240  7011 layer_factory.hpp:77] Creating layer conv1_prescale
I0414 03:48:05.560258  7011 net.cpp:100] Creating Layer conv1_prescale
I0414 03:48:05.560268  7011 net.cpp:434] conv1_prescale <- conv1
I0414 03:48:05.560281  7011 net.cpp:395] conv1_prescale -> conv1 (in-place)
I0414 03:48:05.560431  7011 net.cpp:150] Setting up conv1_prescale
I0414 03:48:05.560446  7011 net.cpp:157] Top shape: 1024 100 42 42 (180633600)
I0414 03:48:05.560452  7011 net.cpp:165] Memory required for data: 1473396736
I0414 03:48:05.560463  7011 layer_factory.hpp:77] Creating layer conv1_sTanH
I0414 03:48:05.560477  7011 net.cpp:100] Creating Layer conv1_sTanH
I0414 03:48:05.560485  7011 net.cpp:434] conv1_sTanH <- conv1
I0414 03:48:05.560492  7011 net.cpp:395] conv1_sTanH -> conv1 (in-place)
I0414 03:48:05.560775  7011 net.cpp:150] Setting up conv1_sTanH
I0414 03:48:05.560819  7011 net.cpp:157] Top shape: 1024 100 42 42 (180633600)
I0414 03:48:05.560825  7011 net.cpp:165] Memory required for data: 2195931136
I0414 03:48:05.560832  7011 layer_factory.hpp:77] Creating layer conv1_postscale
I0414 03:48:05.560842  7011 net.cpp:100] Creating Layer conv1_postscale
I0414 03:48:05.560849  7011 net.cpp:434] conv1_postscale <- conv1
I0414 03:48:05.560858  7011 net.cpp:395] conv1_postscale -> conv1 (in-place)
I0414 03:48:05.560993  7011 net.cpp:150] Setting up conv1_postscale
I0414 03:48:05.561007  7011 net.cpp:157] Top shape: 1024 100 42 42 (180633600)
I0414 03:48:05.561012  7011 net.cpp:165] Memory required for data: 2918465536
I0414 03:48:05.561022  7011 layer_factory.hpp:77] Creating layer pool1
I0414 03:48:05.561033  7011 net.cpp:100] Creating Layer pool1
I0414 03:48:05.561039  7011 net.cpp:434] pool1 <- conv1
I0414 03:48:05.561048  7011 net.cpp:408] pool1 -> pool1
I0414 03:48:05.561115  7011 net.cpp:150] Setting up pool1
I0414 03:48:05.561127  7011 net.cpp:157] Top shape: 1024 100 21 21 (45158400)
I0414 03:48:05.561134  7011 net.cpp:165] Memory required for data: 3099099136
I0414 03:48:05.561139  7011 layer_factory.hpp:77] Creating layer conv2
I0414 03:48:05.561153  7011 net.cpp:100] Creating Layer conv2
I0414 03:48:05.561161  7011 net.cpp:434] conv2 <- pool1
I0414 03:48:05.561168  7011 net.cpp:408] conv2 -> conv2
I0414 03:48:05.580440  7011 net.cpp:150] Setting up conv2
I0414 03:48:05.580476  7011 net.cpp:157] Top shape: 1024 150 18 18 (49766400)
I0414 03:48:05.580482  7011 net.cpp:165] Memory required for data: 3298164736
I0414 03:48:05.580503  7011 layer_factory.hpp:77] Creating layer conv2_prescale
I0414 03:48:05.580529  7011 net.cpp:100] Creating Layer conv2_prescale
I0414 03:48:05.580539  7011 net.cpp:434] conv2_prescale <- conv2
I0414 03:48:05.580552  7011 net.cpp:395] conv2_prescale -> conv2 (in-place)
I0414 03:48:05.580703  7011 net.cpp:150] Setting up conv2_prescale
I0414 03:48:05.580716  7011 net.cpp:157] Top shape: 1024 150 18 18 (49766400)
I0414 03:48:05.580724  7011 net.cpp:165] Memory required for data: 3497230336
I0414 03:48:05.580731  7011 layer_factory.hpp:77] Creating layer conv2_sTanH
I0414 03:48:05.580742  7011 net.cpp:100] Creating Layer conv2_sTanH
I0414 03:48:05.580749  7011 net.cpp:434] conv2_sTanH <- conv2
I0414 03:48:05.580759  7011 net.cpp:395] conv2_sTanH -> conv2 (in-place)
I0414 03:48:05.581794  7011 net.cpp:150] Setting up conv2_sTanH
I0414 03:48:05.581815  7011 net.cpp:157] Top shape: 1024 150 18 18 (49766400)
I0414 03:48:05.581823  7011 net.cpp:165] Memory required for data: 3696295936
I0414 03:48:05.581830  7011 layer_factory.hpp:77] Creating layer conv2_postscale
I0414 03:48:05.581845  7011 net.cpp:100] Creating Layer conv2_postscale
I0414 03:48:05.581852  7011 net.cpp:434] conv2_postscale <- conv2
I0414 03:48:05.581863  7011 net.cpp:395] conv2_postscale -> conv2 (in-place)
I0414 03:48:05.581998  7011 net.cpp:150] Setting up conv2_postscale
I0414 03:48:05.582012  7011 net.cpp:157] Top shape: 1024 150 18 18 (49766400)
I0414 03:48:05.582020  7011 net.cpp:165] Memory required for data: 3895361536
I0414 03:48:05.582028  7011 layer_factory.hpp:77] Creating layer pool2
I0414 03:48:05.582041  7011 net.cpp:100] Creating Layer pool2
I0414 03:48:05.582048  7011 net.cpp:434] pool2 <- conv2
I0414 03:48:05.582059  7011 net.cpp:408] pool2 -> pool2
I0414 03:48:05.582124  7011 net.cpp:150] Setting up pool2
I0414 03:48:05.582136  7011 net.cpp:157] Top shape: 1024 150 9 9 (12441600)
I0414 03:48:05.582144  7011 net.cpp:165] Memory required for data: 3945127936
I0414 03:48:05.582151  7011 layer_factory.hpp:77] Creating layer conv3
I0414 03:48:05.582167  7011 net.cpp:100] Creating Layer conv3
I0414 03:48:05.582175  7011 net.cpp:434] conv3 <- pool2
I0414 03:48:05.582185  7011 net.cpp:408] conv3 -> conv3
I0414 03:48:05.591934  7011 net.cpp:150] Setting up conv3
I0414 03:48:05.591967  7011 net.cpp:157] Top shape: 1024 250 6 6 (9216000)
I0414 03:48:05.591972  7011 net.cpp:165] Memory required for data: 3981991936
I0414 03:48:05.591986  7011 layer_factory.hpp:77] Creating layer conv3_prescale
I0414 03:48:05.592015  7011 net.cpp:100] Creating Layer conv3_prescale
I0414 03:48:05.592023  7011 net.cpp:434] conv3_prescale <- conv3
I0414 03:48:05.592032  7011 net.cpp:395] conv3_prescale -> conv3 (in-place)
I0414 03:48:05.592136  7011 net.cpp:150] Setting up conv3_prescale
I0414 03:48:05.592145  7011 net.cpp:157] Top shape: 1024 250 6 6 (9216000)
I0414 03:48:05.592149  7011 net.cpp:165] Memory required for data: 4018855936
I0414 03:48:05.592154  7011 layer_factory.hpp:77] Creating layer conv3_sTanH
I0414 03:48:05.592160  7011 net.cpp:100] Creating Layer conv3_sTanH
I0414 03:48:05.592164  7011 net.cpp:434] conv3_sTanH <- conv3
I0414 03:48:05.592170  7011 net.cpp:395] conv3_sTanH -> conv3 (in-place)
I0414 03:48:05.595811  7011 net.cpp:150] Setting up conv3_sTanH
I0414 03:48:05.595829  7011 net.cpp:157] Top shape: 1024 250 6 6 (9216000)
I0414 03:48:05.595834  7011 net.cpp:165] Memory required for data: 4055719936
I0414 03:48:05.595837  7011 layer_factory.hpp:77] Creating layer conv3_postscale
I0414 03:48:05.595847  7011 net.cpp:100] Creating Layer conv3_postscale
I0414 03:48:05.595852  7011 net.cpp:434] conv3_postscale <- conv3
I0414 03:48:05.595859  7011 net.cpp:395] conv3_postscale -> conv3 (in-place)
I0414 03:48:05.595983  7011 net.cpp:150] Setting up conv3_postscale
I0414 03:48:05.595999  7011 net.cpp:157] Top shape: 1024 250 6 6 (9216000)
I0414 03:48:05.596001  7011 net.cpp:165] Memory required for data: 4092583936
I0414 03:48:05.596007  7011 layer_factory.hpp:77] Creating layer pool3
I0414 03:48:05.596019  7011 net.cpp:100] Creating Layer pool3
I0414 03:48:05.596024  7011 net.cpp:434] pool3 <- conv3
I0414 03:48:05.596029  7011 net.cpp:408] pool3 -> pool3
I0414 03:48:05.596074  7011 net.cpp:150] Setting up pool3
I0414 03:48:05.596081  7011 net.cpp:157] Top shape: 1024 250 3 3 (2304000)
I0414 03:48:05.596084  7011 net.cpp:165] Memory required for data: 4101799936
I0414 03:48:05.596088  7011 layer_factory.hpp:77] Creating layer fc4_300
I0414 03:48:05.596094  7011 net.cpp:100] Creating Layer fc4_300
I0414 03:48:05.596099  7011 net.cpp:434] fc4_300 <- pool3
I0414 03:48:05.596107  7011 net.cpp:408] fc4_300 -> fc4_300
I0414 03:48:05.602183  7011 net.cpp:150] Setting up fc4_300
I0414 03:48:05.602211  7011 net.cpp:157] Top shape: 1024 300 (307200)
I0414 03:48:05.602216  7011 net.cpp:165] Memory required for data: 4103028736
I0414 03:48:05.602224  7011 layer_factory.hpp:77] Creating layer fc4_prescale
I0414 03:48:05.602233  7011 net.cpp:100] Creating Layer fc4_prescale
I0414 03:48:05.602237  7011 net.cpp:434] fc4_prescale <- fc4_300
I0414 03:48:05.602246  7011 net.cpp:395] fc4_prescale -> fc4_300 (in-place)
I0414 03:48:05.602339  7011 net.cpp:150] Setting up fc4_prescale
I0414 03:48:05.602346  7011 net.cpp:157] Top shape: 1024 300 (307200)
I0414 03:48:05.602349  7011 net.cpp:165] Memory required for data: 4104257536
I0414 03:48:05.602355  7011 layer_factory.hpp:77] Creating layer fc4_sTanH
I0414 03:48:05.602360  7011 net.cpp:100] Creating Layer fc4_sTanH
I0414 03:48:05.602363  7011 net.cpp:434] fc4_sTanH <- fc4_300
I0414 03:48:05.602367  7011 net.cpp:395] fc4_sTanH -> fc4_300 (in-place)
I0414 03:48:05.602578  7011 net.cpp:150] Setting up fc4_sTanH
I0414 03:48:05.602592  7011 net.cpp:157] Top shape: 1024 300 (307200)
I0414 03:48:05.602596  7011 net.cpp:165] Memory required for data: 4105486336
I0414 03:48:05.602599  7011 layer_factory.hpp:77] Creating layer fc4_postscale
I0414 03:48:05.602605  7011 net.cpp:100] Creating Layer fc4_postscale
I0414 03:48:05.602609  7011 net.cpp:434] fc4_postscale <- fc4_300
I0414 03:48:05.602615  7011 net.cpp:395] fc4_postscale -> fc4_300 (in-place)
I0414 03:48:05.602715  7011 net.cpp:150] Setting up fc4_postscale
I0414 03:48:05.602723  7011 net.cpp:157] Top shape: 1024 300 (307200)
I0414 03:48:05.602726  7011 net.cpp:165] Memory required for data: 4106715136
I0414 03:48:05.602731  7011 layer_factory.hpp:77] Creating layer fc5_67
I0414 03:48:05.602738  7011 net.cpp:100] Creating Layer fc5_67
I0414 03:48:05.602742  7011 net.cpp:434] fc5_67 <- fc4_300
I0414 03:48:05.602747  7011 net.cpp:408] fc5_67 -> fc5_classes
I0414 03:48:05.604430  7011 net.cpp:150] Setting up fc5_67
I0414 03:48:05.604447  7011 net.cpp:157] Top shape: 1024 67 (68608)
I0414 03:48:05.604450  7011 net.cpp:165] Memory required for data: 4106989568
I0414 03:48:05.604462  7011 layer_factory.hpp:77] Creating layer fc5_classes_fc5_67_0_split
I0414 03:48:05.604470  7011 net.cpp:100] Creating Layer fc5_classes_fc5_67_0_split
I0414 03:48:05.604475  7011 net.cpp:434] fc5_classes_fc5_67_0_split <- fc5_classes
I0414 03:48:05.604481  7011 net.cpp:408] fc5_classes_fc5_67_0_split -> fc5_classes_fc5_67_0_split_0
I0414 03:48:05.604490  7011 net.cpp:408] fc5_classes_fc5_67_0_split -> fc5_classes_fc5_67_0_split_1
I0414 03:48:05.604496  7011 net.cpp:408] fc5_classes_fc5_67_0_split -> fc5_classes_fc5_67_0_split_2
I0414 03:48:05.604547  7011 net.cpp:150] Setting up fc5_classes_fc5_67_0_split
I0414 03:48:05.604557  7011 net.cpp:157] Top shape: 1024 67 (68608)
I0414 03:48:05.604559  7011 net.cpp:157] Top shape: 1024 67 (68608)
I0414 03:48:05.604562  7011 net.cpp:157] Top shape: 1024 67 (68608)
I0414 03:48:05.604565  7011 net.cpp:165] Memory required for data: 4107812864
I0414 03:48:05.604568  7011 layer_factory.hpp:77] Creating layer softmax
I0414 03:48:05.604574  7011 net.cpp:100] Creating Layer softmax
I0414 03:48:05.604578  7011 net.cpp:434] softmax <- fc5_classes_fc5_67_0_split_0
I0414 03:48:05.604588  7011 net.cpp:408] softmax -> softmax
I0414 03:48:05.604854  7011 net.cpp:150] Setting up softmax
I0414 03:48:05.604866  7011 net.cpp:157] Top shape: 1024 67 (68608)
I0414 03:48:05.604869  7011 net.cpp:165] Memory required for data: 4108087296
I0414 03:48:05.604872  7011 layer_factory.hpp:77] Creating layer loss
I0414 03:48:05.604878  7011 net.cpp:100] Creating Layer loss
I0414 03:48:05.604882  7011 net.cpp:434] loss <- softmax
I0414 03:48:05.604887  7011 net.cpp:434] loss <- label_data_1_split_0
I0414 03:48:05.604893  7011 net.cpp:408] loss -> loss
…
