…
I0414 03:32:32.038666 18223 solver.cpp:93] Creating training net from train_net file: ./Prototxt/experiment_11/rtsd-r1/CoNorm/trial_2/train.prototxt
I0414 03:32:32.039144 18223 net.cpp:58] Initializing net from parameters: 
state {
  phase: TRAIN
  level: 0
  stage: ""
}
layer {
  name: "data"
  type: "Data"
  top: "data"
  top: "label"
  include {
    phase: TRAIN
  }
  transform_param {
    scale: 0.0039215689
    mirror: false
    crop_size: 48
    mean_value: 132
    mean_value: 132
    mean_value: 131
  }
  data_param {
    source: "../local_data/lmdb/rtsd-r1/CoNorm/train/lmdb"
    batch_size: 1024
    backend: LMDB
  }
}
layer {
  name: "conv1"
  type: "Convolution"
  bottom: "data"
  top: "conv1"
  convolution_param {
    num_output: 100
    pad: 0
    kernel_size: 7
    group: 1
    stride: 1
    weight_filler {
      type: "xavier"
    }
  }
}
layer {
  name: "conv1_prescale"
  type: "Scale"
  bottom: "conv1"
  top: "conv1"
  param {
    lr_mult: 0
    decay_mult: 0
  }
  scale_param {
    filler {
      value: 0.6666
    }
    bias_term: false
  }
}
layer {
  name: "conv1_sTanH"
  type: "TanH"
  bottom: "conv1"
  top: "conv1"
}
layer {
  name: "conv1_postscale"
  type: "Scale"
  bottom: "conv1"
  top: "conv1"
  param {
    lr_mult: 0
    decay_mult: 0
  }
  scale_param {
    filler {
      value: 1.7159
    }
    bias_term: false
  }
}
layer {
  name: "pool1"
  type: "Pooling"
  bottom: "conv1"
  top: "pool1"
  pooling_param {
    pool: MAX
    kernel_size: 2
    stride: 2
  }
}
layer {
  name: "conv2"
  type: "Convolution"
  bottom: "pool1"
  top: "conv2"
  convolution_param {
    num_output: 150
    pad: 0
    kernel_size: 4
    group: 1
    stride: 1
    weight_filler {
      type: "xavier"
    }
  }
}
layer {
  name: "conv2_prescale"
  type: "Scale"
  bottom: "conv2"
  top: "conv2"
  param {
    lr_mult: 0
    decay_mult: 0
  }
  scale_param {
    filler {
      value: 0.6666
    }
    bias_term: false
  }
}
layer {
  name: "conv2_sTanH"
  type: "TanH"
  bottom: "conv2"
  top: "conv2"
}
layer {
  name: "conv2_postscale"
  type: "Scale"
  bottom: "conv2"
  top: "conv2"
  param {
    lr_mult: 0
    decay_mult: 0
  }
  scale_param {
    filler {
      value: 1.7159
    }
    bias_term: false
  }
}
layer {
  name: "pool2"
  type: "Pooling"
  bottom: "conv2"
  top: "pool2"
  pooling_param {
    pool: MAX
    kernel_size: 2
    stride: 2
  }
}
layer {
  name: "conv3"
  type: "Convolution"
  bottom: "pool2"
  top: "conv3"
  convolution_param {
    num_output: 250
    pad: 0
    kernel_size: 4
    group: 1
    stride: 1
    weight_filler {
      type: "xavier"
    }
  }
}
layer {
  name: "conv3_prescale"
  type: "Scale"
  bottom: "conv3"
  top: "conv3"
  param {
    lr_mult: 0
    decay_mult: 0
  }
  scale_param {
    filler {
      value: 0.6666
    }
    bias_term: false
  }
}
layer {
  name: "conv3_sTanH"
  type: "TanH"
  bottom: "conv3"
  top: "conv3"
}
layer {
  name: "conv3_postscale"
  type: "Scale"
  bottom: "conv3"
  top: "conv3"
  param {
    lr_mult: 0
    decay_mult: 0
  }
  scale_param {
    filler {
      value: 1.7159
    }
    bias_term: false
  }
}
layer {
  name: "pool3"
  type: "Pooling"
  bottom: "conv3"
  top: "pool3"
  pooling_param {
    pool: MAX
    kernel_size: 2
    stride: 2
  }
}
layer {
  name: "fc4_300"
  type: "InnerProduct"
  bottom: "pool3"
  top: "fc4_300"
  inner_product_param {
    num_output: 300
    weight_filler {
      type: "xavier"
    }
  }
}
layer {
  name: "fc4_prescale"
  type: "Scale"
  bottom: "fc4_300"
  top: "fc4_300"
  param {
    lr_mult: 0
    decay_mult: 0
  }
  scale_param {
    filler {
      value: 0.6666
    }
    bias_term: false
  }
}
layer {
  name: "fc4_sTanH"
  type: "TanH"
  bottom: "fc4_300"
  top: "fc4_300"
}
layer {
  name: "fc4_postscale"
  type: "Scale"
  bottom: "fc4_300"
  top: "fc4_300"
  param {
    lr_mult: 0
    decay_mult: 0
  }
  scale_param {
    filler {
      value: 1.7159
    }
    bias_term: false
  }
}
layer {
  name: "fc5_67"
  type: "InnerProduct"
  bottom: "fc4_300"
  top: "fc5_classes"
  inner_product_param {
    num_output: 67
    weight_filler {
      type: "xavier"
    }
  }
}
layer {
  name: "softmax"
  type: "Softmax"
  bottom: "fc5_classes"
  top: "softmax"
}
layer {
  name: "loss"
  type: "MultinomialLogisticLoss"
  bottom: "softmax"
  bottom: "label"
  top: "loss"
}
layer {
  name: "accuracy_1"
  type: "Accuracy"
  bottom: "fc5_classes"
  bottom: "label"
  top: "accuracy_1"
  accuracy_param {
    top_k: 1
  }
}
layer {
  name: "accuracy_5"
  type: "Accuracy"
  bottom: "fc5_classes"
  bottom: "label"
  top: "accuracy_5"
  accuracy_param {
    top_k: 5
  }
}
layer {
  name: "silence"
  type: "Silence"
  bottom: "accuracy_1"
  bottom: "accuracy_5"
}
I0414 03:32:32.039345 18223 layer_factory.hpp:77] Creating layer data
I0414 03:32:32.040529 18223 net.cpp:100] Creating Layer data
I0414 03:32:32.040545 18223 net.cpp:408] data -> data
I0414 03:32:32.040568 18223 net.cpp:408] data -> label
I0414 03:32:32.059283 18329 db_lmdb.cpp:35] Opened lmdb ../local_data/lmdb/rtsd-r1/CoNorm/train/lmdb
I0414 03:32:32.077482 18223 data_layer.cpp:41] output data size: 1024,3,48,48
I0414 03:32:32.137281 18223 net.cpp:150] Setting up data
I0414 03:32:32.137312 18223 net.cpp:157] Top shape: 1024 3 48 48 (7077888)
I0414 03:32:32.137317 18223 net.cpp:157] Top shape: 1024 (1024)
I0414 03:32:32.137320 18223 net.cpp:165] Memory required for data: 28315648
I0414 03:32:32.137331 18223 layer_factory.hpp:77] Creating layer label_data_1_split
I0414 03:32:32.137346 18223 net.cpp:100] Creating Layer label_data_1_split
I0414 03:32:32.137351 18223 net.cpp:434] label_data_1_split <- label
I0414 03:32:32.137363 18223 net.cpp:408] label_data_1_split -> label_data_1_split_0
I0414 03:32:32.137377 18223 net.cpp:408] label_data_1_split -> label_data_1_split_1
I0414 03:32:32.137385 18223 net.cpp:408] label_data_1_split -> label_data_1_split_2
I0414 03:32:32.137446 18223 net.cpp:150] Setting up label_data_1_split
I0414 03:32:32.137454 18223 net.cpp:157] Top shape: 1024 (1024)
I0414 03:32:32.137459 18223 net.cpp:157] Top shape: 1024 (1024)
I0414 03:32:32.137461 18223 net.cpp:157] Top shape: 1024 (1024)
I0414 03:32:32.137465 18223 net.cpp:165] Memory required for data: 28327936
I0414 03:32:32.137467 18223 layer_factory.hpp:77] Creating layer conv1
I0414 03:32:32.137485 18223 net.cpp:100] Creating Layer conv1
I0414 03:32:32.137490 18223 net.cpp:434] conv1 <- data
I0414 03:32:32.137495 18223 net.cpp:408] conv1 -> conv1
I0414 03:32:32.474920 18223 net.cpp:150] Setting up conv1
I0414 03:32:32.474949 18223 net.cpp:157] Top shape: 1024 100 42 42 (180633600)
I0414 03:32:32.474953 18223 net.cpp:165] Memory required for data: 750862336
I0414 03:32:32.474977 18223 layer_factory.hpp:77] Creating layer conv1_prescale
I0414 03:32:32.474990 18223 net.cpp:100] Creating Layer conv1_prescale
I0414 03:32:32.474997 18223 net.cpp:434] conv1_prescale <- conv1
I0414 03:32:32.475003 18223 net.cpp:395] conv1_prescale -> conv1 (in-place)
I0414 03:32:32.475131 18223 net.cpp:150] Setting up conv1_prescale
I0414 03:32:32.475144 18223 net.cpp:157] Top shape: 1024 100 42 42 (180633600)
I0414 03:32:32.475150 18223 net.cpp:165] Memory required for data: 1473396736
I0414 03:32:32.475162 18223 layer_factory.hpp:77] Creating layer conv1_sTanH
I0414 03:32:32.475173 18223 net.cpp:100] Creating Layer conv1_sTanH
I0414 03:32:32.475179 18223 net.cpp:434] conv1_sTanH <- conv1
I0414 03:32:32.475186 18223 net.cpp:395] conv1_sTanH -> conv1 (in-place)
I0414 03:32:32.475422 18223 net.cpp:150] Setting up conv1_sTanH
I0414 03:32:32.475458 18223 net.cpp:157] Top shape: 1024 100 42 42 (180633600)
I0414 03:32:32.475463 18223 net.cpp:165] Memory required for data: 2195931136
I0414 03:32:32.475467 18223 layer_factory.hpp:77] Creating layer conv1_postscale
I0414 03:32:32.475474 18223 net.cpp:100] Creating Layer conv1_postscale
I0414 03:32:32.475479 18223 net.cpp:434] conv1_postscale <- conv1
I0414 03:32:32.475484 18223 net.cpp:395] conv1_postscale -> conv1 (in-place)
I0414 03:32:32.475594 18223 net.cpp:150] Setting up conv1_postscale
I0414 03:32:32.475606 18223 net.cpp:157] Top shape: 1024 100 42 42 (180633600)
I0414 03:32:32.475612 18223 net.cpp:165] Memory required for data: 2918465536
I0414 03:32:32.475620 18223 layer_factory.hpp:77] Creating layer pool1
I0414 03:32:32.475631 18223 net.cpp:100] Creating Layer pool1
I0414 03:32:32.475636 18223 net.cpp:434] pool1 <- conv1
I0414 03:32:32.475643 18223 net.cpp:408] pool1 -> pool1
I0414 03:32:32.475709 18223 net.cpp:150] Setting up pool1
I0414 03:32:32.475720 18223 net.cpp:157] Top shape: 1024 100 21 21 (45158400)
I0414 03:32:32.475724 18223 net.cpp:165] Memory required for data: 3099099136
I0414 03:32:32.475728 18223 layer_factory.hpp:77] Creating layer conv2
I0414 03:32:32.475739 18223 net.cpp:100] Creating Layer conv2
I0414 03:32:32.475742 18223 net.cpp:434] conv2 <- pool1
I0414 03:32:32.475747 18223 net.cpp:408] conv2 -> conv2
I0414 03:32:32.484083 18223 net.cpp:150] Setting up conv2
I0414 03:32:32.484102 18223 net.cpp:157] Top shape: 1024 150 18 18 (49766400)
I0414 03:32:32.484107 18223 net.cpp:165] Memory required for data: 3298164736
I0414 03:32:32.484117 18223 layer_factory.hpp:77] Creating layer conv2_prescale
I0414 03:32:32.484128 18223 net.cpp:100] Creating Layer conv2_prescale
I0414 03:32:32.484133 18223 net.cpp:434] conv2_prescale <- conv2
I0414 03:32:32.484138 18223 net.cpp:395] conv2_prescale -> conv2 (in-place)
I0414 03:32:32.484246 18223 net.cpp:150] Setting up conv2_prescale
I0414 03:32:32.484256 18223 net.cpp:157] Top shape: 1024 150 18 18 (49766400)
I0414 03:32:32.484258 18223 net.cpp:165] Memory required for data: 3497230336
I0414 03:32:32.484263 18223 layer_factory.hpp:77] Creating layer conv2_sTanH
I0414 03:32:32.484268 18223 net.cpp:100] Creating Layer conv2_sTanH
I0414 03:32:32.484272 18223 net.cpp:434] conv2_sTanH <- conv2
I0414 03:32:32.484277 18223 net.cpp:395] conv2_sTanH -> conv2 (in-place)
I0414 03:32:32.485568 18223 net.cpp:150] Setting up conv2_sTanH
I0414 03:32:32.485587 18223 net.cpp:157] Top shape: 1024 150 18 18 (49766400)
I0414 03:32:32.485594 18223 net.cpp:165] Memory required for data: 3696295936
I0414 03:32:32.485599 18223 layer_factory.hpp:77] Creating layer conv2_postscale
I0414 03:32:32.485608 18223 net.cpp:100] Creating Layer conv2_postscale
I0414 03:32:32.485613 18223 net.cpp:434] conv2_postscale <- conv2
I0414 03:32:32.485621 18223 net.cpp:395] conv2_postscale -> conv2 (in-place)
I0414 03:32:32.485741 18223 net.cpp:150] Setting up conv2_postscale
I0414 03:32:32.485752 18223 net.cpp:157] Top shape: 1024 150 18 18 (49766400)
I0414 03:32:32.485759 18223 net.cpp:165] Memory required for data: 3895361536
I0414 03:32:32.485766 18223 layer_factory.hpp:77] Creating layer pool2
I0414 03:32:32.485775 18223 net.cpp:100] Creating Layer pool2
I0414 03:32:32.485781 18223 net.cpp:434] pool2 <- conv2
I0414 03:32:32.485788 18223 net.cpp:408] pool2 -> pool2
I0414 03:32:32.485836 18223 net.cpp:150] Setting up pool2
I0414 03:32:32.485846 18223 net.cpp:157] Top shape: 1024 150 9 9 (12441600)
I0414 03:32:32.485852 18223 net.cpp:165] Memory required for data: 3945127936
I0414 03:32:32.485857 18223 layer_factory.hpp:77] Creating layer conv3
I0414 03:32:32.485867 18223 net.cpp:100] Creating Layer conv3
I0414 03:32:32.485872 18223 net.cpp:434] conv3 <- pool2
I0414 03:32:32.485879 18223 net.cpp:408] conv3 -> conv3
I0414 03:32:32.497301 18223 net.cpp:150] Setting up conv3
I0414 03:32:32.497323 18223 net.cpp:157] Top shape: 1024 250 6 6 (9216000)
I0414 03:32:32.497328 18223 net.cpp:165] Memory required for data: 3981991936
I0414 03:32:32.497337 18223 layer_factory.hpp:77] Creating layer conv3_prescale
I0414 03:32:32.497364 18223 net.cpp:100] Creating Layer conv3_prescale
I0414 03:32:32.497369 18223 net.cpp:434] conv3_prescale <- conv3
I0414 03:32:32.497375 18223 net.cpp:395] conv3_prescale -> conv3 (in-place)
I0414 03:32:32.497468 18223 net.cpp:150] Setting up conv3_prescale
I0414 03:32:32.497478 18223 net.cpp:157] Top shape: 1024 250 6 6 (9216000)
I0414 03:32:32.497480 18223 net.cpp:165] Memory required for data: 4018855936
I0414 03:32:32.497485 18223 layer_factory.hpp:77] Creating layer conv3_sTanH
I0414 03:32:32.497493 18223 net.cpp:100] Creating Layer conv3_sTanH
I0414 03:32:32.497498 18223 net.cpp:434] conv3_sTanH <- conv3
I0414 03:32:32.497501 18223 net.cpp:395] conv3_sTanH -> conv3 (in-place)
I0414 03:32:32.504586 18223 net.cpp:150] Setting up conv3_sTanH
I0414 03:32:32.504606 18223 net.cpp:157] Top shape: 1024 250 6 6 (9216000)
I0414 03:32:32.504609 18223 net.cpp:165] Memory required for data: 4055719936
I0414 03:32:32.504613 18223 layer_factory.hpp:77] Creating layer conv3_postscale
I0414 03:32:32.504621 18223 net.cpp:100] Creating Layer conv3_postscale
I0414 03:32:32.504626 18223 net.cpp:434] conv3_postscale <- conv3
I0414 03:32:32.504631 18223 net.cpp:395] conv3_postscale -> conv3 (in-place)
I0414 03:32:32.504734 18223 net.cpp:150] Setting up conv3_postscale
I0414 03:32:32.504743 18223 net.cpp:157] Top shape: 1024 250 6 6 (9216000)
I0414 03:32:32.504746 18223 net.cpp:165] Memory required for data: 4092583936
I0414 03:32:32.504751 18223 layer_factory.hpp:77] Creating layer pool3
I0414 03:32:32.504761 18223 net.cpp:100] Creating Layer pool3
I0414 03:32:32.504766 18223 net.cpp:434] pool3 <- conv3
I0414 03:32:32.504771 18223 net.cpp:408] pool3 -> pool3
I0414 03:32:32.504811 18223 net.cpp:150] Setting up pool3
I0414 03:32:32.504817 18223 net.cpp:157] Top shape: 1024 250 3 3 (2304000)
I0414 03:32:32.504820 18223 net.cpp:165] Memory required for data: 4101799936
I0414 03:32:32.504822 18223 layer_factory.hpp:77] Creating layer fc4_300
I0414 03:32:32.504829 18223 net.cpp:100] Creating Layer fc4_300
I0414 03:32:32.504834 18223 net.cpp:434] fc4_300 <- pool3
I0414 03:32:32.504838 18223 net.cpp:408] fc4_300 -> fc4_300
I0414 03:32:32.516003 18223 net.cpp:150] Setting up fc4_300
I0414 03:32:32.516021 18223 net.cpp:157] Top shape: 1024 300 (307200)
I0414 03:32:32.516026 18223 net.cpp:165] Memory required for data: 4103028736
I0414 03:32:32.516032 18223 layer_factory.hpp:77] Creating layer fc4_prescale
I0414 03:32:32.516041 18223 net.cpp:100] Creating Layer fc4_prescale
I0414 03:32:32.516047 18223 net.cpp:434] fc4_prescale <- fc4_300
I0414 03:32:32.516052 18223 net.cpp:395] fc4_prescale -> fc4_300 (in-place)
I0414 03:32:32.516142 18223 net.cpp:150] Setting up fc4_prescale
I0414 03:32:32.516151 18223 net.cpp:157] Top shape: 1024 300 (307200)
I0414 03:32:32.516154 18223 net.cpp:165] Memory required for data: 4104257536
I0414 03:32:32.516158 18223 layer_factory.hpp:77] Creating layer fc4_sTanH
I0414 03:32:32.516165 18223 net.cpp:100] Creating Layer fc4_sTanH
I0414 03:32:32.516166 18223 net.cpp:434] fc4_sTanH <- fc4_300
I0414 03:32:32.516171 18223 net.cpp:395] fc4_sTanH -> fc4_300 (in-place)
I0414 03:32:32.516356 18223 net.cpp:150] Setting up fc4_sTanH
I0414 03:32:32.516372 18223 net.cpp:157] Top shape: 1024 300 (307200)
I0414 03:32:32.516377 18223 net.cpp:165] Memory required for data: 4105486336
I0414 03:32:32.516381 18223 layer_factory.hpp:77] Creating layer fc4_postscale
I0414 03:32:32.516388 18223 net.cpp:100] Creating Layer fc4_postscale
I0414 03:32:32.516392 18223 net.cpp:434] fc4_postscale <- fc4_300
I0414 03:32:32.516398 18223 net.cpp:395] fc4_postscale -> fc4_300 (in-place)
I0414 03:32:32.516491 18223 net.cpp:150] Setting up fc4_postscale
I0414 03:32:32.516499 18223 net.cpp:157] Top shape: 1024 300 (307200)
I0414 03:32:32.516502 18223 net.cpp:165] Memory required for data: 4106715136
I0414 03:32:32.516507 18223 layer_factory.hpp:77] Creating layer fc5_67
I0414 03:32:32.516513 18223 net.cpp:100] Creating Layer fc5_67
I0414 03:32:32.516517 18223 net.cpp:434] fc5_67 <- fc4_300
I0414 03:32:32.516522 18223 net.cpp:408] fc5_67 -> fc5_classes
I0414 03:32:32.518215 18223 net.cpp:150] Setting up fc5_67
I0414 03:32:32.518231 18223 net.cpp:157] Top shape: 1024 67 (68608)
I0414 03:32:32.518235 18223 net.cpp:165] Memory required for data: 4106989568
I0414 03:32:32.518247 18223 layer_factory.hpp:77] Creating layer fc5_classes_fc5_67_0_split
I0414 03:32:32.518255 18223 net.cpp:100] Creating Layer fc5_classes_fc5_67_0_split
I0414 03:32:32.518260 18223 net.cpp:434] fc5_classes_fc5_67_0_split <- fc5_classes
I0414 03:32:32.518267 18223 net.cpp:408] fc5_classes_fc5_67_0_split -> fc5_classes_fc5_67_0_split_0
I0414 03:32:32.518276 18223 net.cpp:408] fc5_classes_fc5_67_0_split -> fc5_classes_fc5_67_0_split_1
I0414 03:32:32.518290 18223 net.cpp:408] fc5_classes_fc5_67_0_split -> fc5_classes_fc5_67_0_split_2
I0414 03:32:32.518343 18223 net.cpp:150] Setting up fc5_classes_fc5_67_0_split
I0414 03:32:32.518352 18223 net.cpp:157] Top shape: 1024 67 (68608)
I0414 03:32:32.518354 18223 net.cpp:157] Top shape: 1024 67 (68608)
I0414 03:32:32.518357 18223 net.cpp:157] Top shape: 1024 67 (68608)
I0414 03:32:32.518360 18223 net.cpp:165] Memory required for data: 4107812864
I0414 03:32:32.518363 18223 layer_factory.hpp:77] Creating layer softmax
I0414 03:32:32.518370 18223 net.cpp:100] Creating Layer softmax
I0414 03:32:32.518375 18223 net.cpp:434] softmax <- fc5_classes_fc5_67_0_split_0
I0414 03:32:32.518379 18223 net.cpp:408] softmax -> softmax
I0414 03:32:32.518643 18223 net.cpp:150] Setting up softmax
I0414 03:32:32.518658 18223 net.cpp:157] Top shape: 1024 67 (68608)
I0414 03:32:32.518662 18223 net.cpp:165] Memory required for data: 4108087296
I0414 03:32:32.518666 18223 layer_factory.hpp:77] Creating layer loss
I0414 03:32:32.518672 18223 net.cpp:100] Creating Layer loss
I0414 03:32:32.518676 18223 net.cpp:434] loss <- softmax
I0414 03:32:32.518681 18223 net.cpp:434] loss <- label_data_1_split_0
I0414 03:32:32.518687 18223 net.cpp:408] loss -> loss
…
