…
I0417 16:32:10.617599 16596 solver.cpp:93] Creating training net from train_net file: ./Prototxt/experiment_11/rtsd-r1/CoNorm/trial_2/train.prototxt
I0417 16:32:10.618352 16596 net.cpp:58] Initializing net from parameters: 
state {
  phase: TRAIN
  level: 0
  stage: ""
}
layer {
  name: "data"
  type: "Data"
  top: "data"
  top: "label"
  include {
    phase: TRAIN
  }
  transform_param {
    scale: 0.0039215689
    mirror: false
    crop_size: 48
    mean_value: 132
    mean_value: 132
    mean_value: 131
  }
  data_param {
    source: "../local_data/lmdb/rtsd-r1/CoNorm/train/lmdb"
    batch_size: 1024
    backend: LMDB
  }
}
layer {
  name: "conv1"
  type: "Convolution"
  bottom: "data"
  top: "conv1"
  convolution_param {
    num_output: 100
    pad: 0
    kernel_size: 7
    group: 1
    stride: 1
    weight_filler {
      type: "xavier"
    }
  }
}
layer {
  name: "conv1_prescale"
  type: "Scale"
  bottom: "conv1"
  top: "conv1"
  param {
    lr_mult: 0
    decay_mult: 0
  }
  scale_param {
    filler {
      value: 0.6666
    }
    bias_term: false
  }
}
layer {
  name: "conv1_sTanH"
  type: "TanH"
  bottom: "conv1"
  top: "conv1"
}
layer {
  name: "conv1_postscale"
  type: "Scale"
  bottom: "conv1"
  top: "conv1"
  param {
    lr_mult: 0
    decay_mult: 0
  }
  scale_param {
    filler {
      value: 1.7159
    }
    bias_term: false
  }
}
layer {
  name: "pool1"
  type: "Pooling"
  bottom: "conv1"
  top: "pool1"
  pooling_param {
    pool: MAX
    kernel_size: 2
    stride: 2
  }
}
layer {
  name: "conv2"
  type: "Convolution"
  bottom: "pool1"
  top: "conv2"
  convolution_param {
    num_output: 150
    pad: 0
    kernel_size: 4
    group: 1
    stride: 1
    weight_filler {
      type: "xavier"
    }
  }
}
layer {
  name: "conv2_prescale"
  type: "Scale"
  bottom: "conv2"
  top: "conv2"
  param {
    lr_mult: 0
    decay_mult: 0
  }
  scale_param {
    filler {
      value: 0.6666
    }
    bias_term: false
  }
}
layer {
  name: "conv2_sTanH"
  type: "TanH"
  bottom: "conv2"
  top: "conv2"
}
layer {
  name: "conv2_postscale"
  type: "Scale"
  bottom: "conv2"
  top: "conv2"
  param {
    lr_mult: 0
    decay_mult: 0
  }
  scale_param {
    filler {
      value: 1.7159
    }
    bias_term: false
  }
}
layer {
  name: "pool2"
  type: "Pooling"
  bottom: "conv2"
  top: "pool2"
  pooling_param {
    pool: MAX
    kernel_size: 2
    stride: 2
  }
}
layer {
  name: "conv3"
  type: "Convolution"
  bottom: "pool2"
  top: "conv3"
  convolution_param {
    num_output: 250
    pad: 0
    kernel_size: 4
    group: 1
    stride: 1
    weight_filler {
      type: "xavier"
    }
  }
}
layer {
  name: "conv3_prescale"
  type: "Scale"
  bottom: "conv3"
  top: "conv3"
  param {
    lr_mult: 0
    decay_mult: 0
  }
  scale_param {
    filler {
      value: 0.6666
    }
    bias_term: false
  }
}
layer {
  name: "conv3_sTanH"
  type: "TanH"
  bottom: "conv3"
  top: "conv3"
}
layer {
  name: "conv3_postscale"
  type: "Scale"
  bottom: "conv3"
  top: "conv3"
  param {
    lr_mult: 0
    decay_mult: 0
  }
  scale_param {
    filler {
      value: 1.7159
    }
    bias_term: false
  }
}
layer {
  name: "pool3"
  type: "Pooling"
  bottom: "conv3"
  top: "pool3"
  pooling_param {
    pool: MAX
    kernel_size: 2
    stride: 2
  }
}
layer {
  name: "fc4_300"
  type: "InnerProduct"
  bottom: "pool3"
  top: "fc4_300"
  inner_product_param {
    num_output: 300
    weight_filler {
      type: "xavier"
    }
  }
}
layer {
  name: "fc4_prescale"
  type: "Scale"
  bottom: "fc4_300"
  top: "fc4_300"
  param {
    lr_mult: 0
    decay_mult: 0
  }
  scale_param {
    filler {
      value: 0.6666
    }
    bias_term: false
  }
}
layer {
  name: "fc4_sTanH"
  type: "TanH"
  bottom: "fc4_300"
  top: "fc4_300"
}
layer {
  name: "fc4_postscale"
  type: "Scale"
  bottom: "fc4_300"
  top: "fc4_300"
  param {
    lr_mult: 0
    decay_mult: 0
  }
  scale_param {
    filler {
      value: 1.7159
    }
    bias_term: false
  }
}
layer {
  name: "fc5_67"
  type: "InnerProduct"
  bottom: "fc4_300"
  top: "fc5_classes"
  inner_product_param {
    num_output: 67
    weight_filler {
      type: "xavier"
    }
  }
}
layer {
  name: "softmax"
  type: "Softmax"
  bottom: "fc5_classes"
  top: "softmax"
}
layer {
  name: "loss"
  type: "MultinomialLogisticLoss"
  bottom: "softmax"
  bottom: "label"
  top: "loss"
}
layer {
  name: "accuracy_1"
  type: "Accuracy"
  bottom: "fc5_classes"
  bottom: "label"
  top: "accuracy_1"
  accuracy_param {
    top_k: 1
  }
}
layer {
  name: "accuracy_5"
  type: "Accuracy"
  bottom: "fc5_classes"
  bottom: "label"
  top: "accuracy_5"
  accuracy_param {
    top_k: 5
  }
}
layer {
  name: "silence"
  type: "Silence"
  bottom: "accuracy_1"
  bottom: "accuracy_5"
}
I0417 16:32:10.618588 16596 layer_factory.hpp:77] Creating layer data
I0417 16:32:10.620206 16596 net.cpp:100] Creating Layer data
I0417 16:32:10.620234 16596 net.cpp:408] data -> data
I0417 16:32:10.620270 16596 net.cpp:408] data -> label
I0417 16:32:10.655550 16709 db_lmdb.cpp:35] Opened lmdb ../local_data/lmdb/rtsd-r1/CoNorm/train/lmdb
I0417 16:32:10.679973 16596 data_layer.cpp:41] output data size: 1024,3,48,48
I0417 16:32:10.746726 16596 net.cpp:150] Setting up data
I0417 16:32:10.746755 16596 net.cpp:157] Top shape: 1024 3 48 48 (7077888)
I0417 16:32:10.746760 16596 net.cpp:157] Top shape: 1024 (1024)
I0417 16:32:10.746763 16596 net.cpp:165] Memory required for data: 28315648
I0417 16:32:10.746774 16596 layer_factory.hpp:77] Creating layer label_data_1_split
I0417 16:32:10.746788 16596 net.cpp:100] Creating Layer label_data_1_split
I0417 16:32:10.746796 16596 net.cpp:434] label_data_1_split <- label
I0417 16:32:10.746812 16596 net.cpp:408] label_data_1_split -> label_data_1_split_0
I0417 16:32:10.746824 16596 net.cpp:408] label_data_1_split -> label_data_1_split_1
I0417 16:32:10.746832 16596 net.cpp:408] label_data_1_split -> label_data_1_split_2
I0417 16:32:10.746950 16596 net.cpp:150] Setting up label_data_1_split
I0417 16:32:10.746960 16596 net.cpp:157] Top shape: 1024 (1024)
I0417 16:32:10.746963 16596 net.cpp:157] Top shape: 1024 (1024)
I0417 16:32:10.746968 16596 net.cpp:157] Top shape: 1024 (1024)
I0417 16:32:10.746969 16596 net.cpp:165] Memory required for data: 28327936
I0417 16:32:10.746973 16596 layer_factory.hpp:77] Creating layer conv1
I0417 16:32:10.746992 16596 net.cpp:100] Creating Layer conv1
I0417 16:32:10.746997 16596 net.cpp:434] conv1 <- data
I0417 16:32:10.747004 16596 net.cpp:408] conv1 -> conv1
I0417 16:32:11.173566 16596 net.cpp:150] Setting up conv1
I0417 16:32:11.173594 16596 net.cpp:157] Top shape: 1024 100 42 42 (180633600)
I0417 16:32:11.173598 16596 net.cpp:165] Memory required for data: 750862336
I0417 16:32:11.173620 16596 layer_factory.hpp:77] Creating layer conv1_prescale
I0417 16:32:11.173633 16596 net.cpp:100] Creating Layer conv1_prescale
I0417 16:32:11.173638 16596 net.cpp:434] conv1_prescale <- conv1
I0417 16:32:11.173645 16596 net.cpp:395] conv1_prescale -> conv1 (in-place)
I0417 16:32:11.173753 16596 net.cpp:150] Setting up conv1_prescale
I0417 16:32:11.173761 16596 net.cpp:157] Top shape: 1024 100 42 42 (180633600)
I0417 16:32:11.173764 16596 net.cpp:165] Memory required for data: 1473396736
I0417 16:32:11.173771 16596 layer_factory.hpp:77] Creating layer conv1_sTanH
I0417 16:32:11.173781 16596 net.cpp:100] Creating Layer conv1_sTanH
I0417 16:32:11.173786 16596 net.cpp:434] conv1_sTanH <- conv1
I0417 16:32:11.173791 16596 net.cpp:395] conv1_sTanH -> conv1 (in-place)
I0417 16:32:11.173986 16596 net.cpp:150] Setting up conv1_sTanH
I0417 16:32:11.174021 16596 net.cpp:157] Top shape: 1024 100 42 42 (180633600)
I0417 16:32:11.174026 16596 net.cpp:165] Memory required for data: 2195931136
I0417 16:32:11.174029 16596 layer_factory.hpp:77] Creating layer conv1_postscale
I0417 16:32:11.174036 16596 net.cpp:100] Creating Layer conv1_postscale
I0417 16:32:11.174041 16596 net.cpp:434] conv1_postscale <- conv1
I0417 16:32:11.174047 16596 net.cpp:395] conv1_postscale -> conv1 (in-place)
I0417 16:32:11.174144 16596 net.cpp:150] Setting up conv1_postscale
I0417 16:32:11.174154 16596 net.cpp:157] Top shape: 1024 100 42 42 (180633600)
I0417 16:32:11.174156 16596 net.cpp:165] Memory required for data: 2918465536
I0417 16:32:11.174161 16596 layer_factory.hpp:77] Creating layer pool1
I0417 16:32:11.174170 16596 net.cpp:100] Creating Layer pool1
I0417 16:32:11.174175 16596 net.cpp:434] pool1 <- conv1
I0417 16:32:11.174180 16596 net.cpp:408] pool1 -> pool1
I0417 16:32:11.174226 16596 net.cpp:150] Setting up pool1
I0417 16:32:11.174235 16596 net.cpp:157] Top shape: 1024 100 21 21 (45158400)
I0417 16:32:11.174238 16596 net.cpp:165] Memory required for data: 3099099136
I0417 16:32:11.174242 16596 layer_factory.hpp:77] Creating layer conv2
I0417 16:32:11.174252 16596 net.cpp:100] Creating Layer conv2
I0417 16:32:11.174257 16596 net.cpp:434] conv2 <- pool1
I0417 16:32:11.174262 16596 net.cpp:408] conv2 -> conv2
I0417 16:32:11.191385 16596 net.cpp:150] Setting up conv2
I0417 16:32:11.191406 16596 net.cpp:157] Top shape: 1024 150 18 18 (49766400)
I0417 16:32:11.191409 16596 net.cpp:165] Memory required for data: 3298164736
I0417 16:32:11.191421 16596 layer_factory.hpp:77] Creating layer conv2_prescale
I0417 16:32:11.191432 16596 net.cpp:100] Creating Layer conv2_prescale
I0417 16:32:11.191437 16596 net.cpp:434] conv2_prescale <- conv2
I0417 16:32:11.191443 16596 net.cpp:395] conv2_prescale -> conv2 (in-place)
I0417 16:32:11.191557 16596 net.cpp:150] Setting up conv2_prescale
I0417 16:32:11.191567 16596 net.cpp:157] Top shape: 1024 150 18 18 (49766400)
I0417 16:32:11.191570 16596 net.cpp:165] Memory required for data: 3497230336
I0417 16:32:11.191576 16596 layer_factory.hpp:77] Creating layer conv2_sTanH
I0417 16:32:11.191581 16596 net.cpp:100] Creating Layer conv2_sTanH
I0417 16:32:11.191586 16596 net.cpp:434] conv2_sTanH <- conv2
I0417 16:32:11.191591 16596 net.cpp:395] conv2_sTanH -> conv2 (in-place)
I0417 16:32:11.192611 16596 net.cpp:150] Setting up conv2_sTanH
I0417 16:32:11.192628 16596 net.cpp:157] Top shape: 1024 150 18 18 (49766400)
I0417 16:32:11.192632 16596 net.cpp:165] Memory required for data: 3696295936
I0417 16:32:11.192636 16596 layer_factory.hpp:77] Creating layer conv2_postscale
I0417 16:32:11.192643 16596 net.cpp:100] Creating Layer conv2_postscale
I0417 16:32:11.192649 16596 net.cpp:434] conv2_postscale <- conv2
I0417 16:32:11.192656 16596 net.cpp:395] conv2_postscale -> conv2 (in-place)
I0417 16:32:11.192752 16596 net.cpp:150] Setting up conv2_postscale
I0417 16:32:11.192760 16596 net.cpp:157] Top shape: 1024 150 18 18 (49766400)
I0417 16:32:11.192764 16596 net.cpp:165] Memory required for data: 3895361536
I0417 16:32:11.192770 16596 layer_factory.hpp:77] Creating layer pool2
I0417 16:32:11.192777 16596 net.cpp:100] Creating Layer pool2
I0417 16:32:11.192782 16596 net.cpp:434] pool2 <- conv2
I0417 16:32:11.192787 16596 net.cpp:408] pool2 -> pool2
I0417 16:32:11.192829 16596 net.cpp:150] Setting up pool2
I0417 16:32:11.192838 16596 net.cpp:157] Top shape: 1024 150 9 9 (12441600)
I0417 16:32:11.192842 16596 net.cpp:165] Memory required for data: 3945127936
I0417 16:32:11.192844 16596 layer_factory.hpp:77] Creating layer conv3
I0417 16:32:11.192852 16596 net.cpp:100] Creating Layer conv3
I0417 16:32:11.192857 16596 net.cpp:434] conv3 <- pool2
I0417 16:32:11.192862 16596 net.cpp:408] conv3 -> conv3
I0417 16:32:11.199990 16596 net.cpp:150] Setting up conv3
I0417 16:32:11.200007 16596 net.cpp:157] Top shape: 1024 250 6 6 (9216000)
I0417 16:32:11.200011 16596 net.cpp:165] Memory required for data: 3981991936
I0417 16:32:11.200021 16596 layer_factory.hpp:77] Creating layer conv3_prescale
I0417 16:32:11.200048 16596 net.cpp:100] Creating Layer conv3_prescale
I0417 16:32:11.200054 16596 net.cpp:434] conv3_prescale <- conv3
I0417 16:32:11.200060 16596 net.cpp:395] conv3_prescale -> conv3 (in-place)
I0417 16:32:11.200156 16596 net.cpp:150] Setting up conv3_prescale
I0417 16:32:11.200165 16596 net.cpp:157] Top shape: 1024 250 6 6 (9216000)
I0417 16:32:11.200170 16596 net.cpp:165] Memory required for data: 4018855936
I0417 16:32:11.200175 16596 layer_factory.hpp:77] Creating layer conv3_sTanH
I0417 16:32:11.200181 16596 net.cpp:100] Creating Layer conv3_sTanH
I0417 16:32:11.200184 16596 net.cpp:434] conv3_sTanH <- conv3
I0417 16:32:11.200188 16596 net.cpp:395] conv3_sTanH -> conv3 (in-place)
I0417 16:32:11.201210 16596 net.cpp:150] Setting up conv3_sTanH
I0417 16:32:11.201225 16596 net.cpp:157] Top shape: 1024 250 6 6 (9216000)
I0417 16:32:11.201231 16596 net.cpp:165] Memory required for data: 4055719936
I0417 16:32:11.201234 16596 layer_factory.hpp:77] Creating layer conv3_postscale
I0417 16:32:11.201242 16596 net.cpp:100] Creating Layer conv3_postscale
I0417 16:32:11.201247 16596 net.cpp:434] conv3_postscale <- conv3
I0417 16:32:11.201253 16596 net.cpp:395] conv3_postscale -> conv3 (in-place)
I0417 16:32:11.201351 16596 net.cpp:150] Setting up conv3_postscale
I0417 16:32:11.201360 16596 net.cpp:157] Top shape: 1024 250 6 6 (9216000)
I0417 16:32:11.201365 16596 net.cpp:165] Memory required for data: 4092583936
I0417 16:32:11.201370 16596 layer_factory.hpp:77] Creating layer pool3
I0417 16:32:11.201380 16596 net.cpp:100] Creating Layer pool3
I0417 16:32:11.201385 16596 net.cpp:434] pool3 <- conv3
I0417 16:32:11.201390 16596 net.cpp:408] pool3 -> pool3
I0417 16:32:11.201429 16596 net.cpp:150] Setting up pool3
I0417 16:32:11.201437 16596 net.cpp:157] Top shape: 1024 250 3 3 (2304000)
I0417 16:32:11.201442 16596 net.cpp:165] Memory required for data: 4101799936
I0417 16:32:11.201444 16596 layer_factory.hpp:77] Creating layer fc4_300
I0417 16:32:11.201452 16596 net.cpp:100] Creating Layer fc4_300
I0417 16:32:11.201457 16596 net.cpp:434] fc4_300 <- pool3
I0417 16:32:11.201462 16596 net.cpp:408] fc4_300 -> fc4_300
I0417 16:32:11.207176 16596 net.cpp:150] Setting up fc4_300
I0417 16:32:11.207193 16596 net.cpp:157] Top shape: 1024 300 (307200)
I0417 16:32:11.207198 16596 net.cpp:165] Memory required for data: 4103028736
I0417 16:32:11.207206 16596 layer_factory.hpp:77] Creating layer fc4_prescale
I0417 16:32:11.207214 16596 net.cpp:100] Creating Layer fc4_prescale
I0417 16:32:11.207221 16596 net.cpp:434] fc4_prescale <- fc4_300
I0417 16:32:11.207226 16596 net.cpp:395] fc4_prescale -> fc4_300 (in-place)
I0417 16:32:11.207317 16596 net.cpp:150] Setting up fc4_prescale
I0417 16:32:11.207325 16596 net.cpp:157] Top shape: 1024 300 (307200)
I0417 16:32:11.207329 16596 net.cpp:165] Memory required for data: 4104257536
I0417 16:32:11.207334 16596 layer_factory.hpp:77] Creating layer fc4_sTanH
I0417 16:32:11.207341 16596 net.cpp:100] Creating Layer fc4_sTanH
I0417 16:32:11.207346 16596 net.cpp:434] fc4_sTanH <- fc4_300
I0417 16:32:11.207350 16596 net.cpp:395] fc4_sTanH -> fc4_300 (in-place)
I0417 16:32:11.207535 16596 net.cpp:150] Setting up fc4_sTanH
I0417 16:32:11.207545 16596 net.cpp:157] Top shape: 1024 300 (307200)
I0417 16:32:11.207550 16596 net.cpp:165] Memory required for data: 4105486336
I0417 16:32:11.207553 16596 layer_factory.hpp:77] Creating layer fc4_postscale
I0417 16:32:11.207561 16596 net.cpp:100] Creating Layer fc4_postscale
I0417 16:32:11.207566 16596 net.cpp:434] fc4_postscale <- fc4_300
I0417 16:32:11.207571 16596 net.cpp:395] fc4_postscale -> fc4_300 (in-place)
I0417 16:32:11.207662 16596 net.cpp:150] Setting up fc4_postscale
I0417 16:32:11.207670 16596 net.cpp:157] Top shape: 1024 300 (307200)
I0417 16:32:11.207674 16596 net.cpp:165] Memory required for data: 4106715136
I0417 16:32:11.207679 16596 layer_factory.hpp:77] Creating layer fc5_67
I0417 16:32:11.207686 16596 net.cpp:100] Creating Layer fc5_67
I0417 16:32:11.207691 16596 net.cpp:434] fc5_67 <- fc4_300
I0417 16:32:11.207696 16596 net.cpp:408] fc5_67 -> fc5_classes
I0417 16:32:11.209520 16596 net.cpp:150] Setting up fc5_67
I0417 16:32:11.209537 16596 net.cpp:157] Top shape: 1024 67 (68608)
I0417 16:32:11.209542 16596 net.cpp:165] Memory required for data: 4106989568
I0417 16:32:11.209558 16596 layer_factory.hpp:77] Creating layer fc5_classes_fc5_67_0_split
I0417 16:32:11.209568 16596 net.cpp:100] Creating Layer fc5_classes_fc5_67_0_split
I0417 16:32:11.209578 16596 net.cpp:434] fc5_classes_fc5_67_0_split <- fc5_classes
I0417 16:32:11.209589 16596 net.cpp:408] fc5_classes_fc5_67_0_split -> fc5_classes_fc5_67_0_split_0
I0417 16:32:11.209599 16596 net.cpp:408] fc5_classes_fc5_67_0_split -> fc5_classes_fc5_67_0_split_1
I0417 16:32:11.209609 16596 net.cpp:408] fc5_classes_fc5_67_0_split -> fc5_classes_fc5_67_0_split_2
I0417 16:32:11.209661 16596 net.cpp:150] Setting up fc5_classes_fc5_67_0_split
I0417 16:32:11.209668 16596 net.cpp:157] Top shape: 1024 67 (68608)
I0417 16:32:11.209672 16596 net.cpp:157] Top shape: 1024 67 (68608)
I0417 16:32:11.209676 16596 net.cpp:157] Top shape: 1024 67 (68608)
I0417 16:32:11.209678 16596 net.cpp:165] Memory required for data: 4107812864
I0417 16:32:11.209681 16596 layer_factory.hpp:77] Creating layer softmax
I0417 16:32:11.209689 16596 net.cpp:100] Creating Layer softmax
I0417 16:32:11.209694 16596 net.cpp:434] softmax <- fc5_classes_fc5_67_0_split_0
I0417 16:32:11.209699 16596 net.cpp:408] softmax -> softmax
I0417 16:32:11.209954 16596 net.cpp:150] Setting up softmax
I0417 16:32:11.209965 16596 net.cpp:157] Top shape: 1024 67 (68608)
I0417 16:32:11.209970 16596 net.cpp:165] Memory required for data: 4108087296
I0417 16:32:11.209975 16596 layer_factory.hpp:77] Creating layer loss
I0417 16:32:11.209980 16596 net.cpp:100] Creating Layer loss
I0417 16:32:11.209985 16596 net.cpp:434] loss <- softmax
I0417 16:32:11.209990 16596 net.cpp:434] loss <- label_data_1_split_0
I0417 16:32:11.209995 16596 net.cpp:408] loss -> loss
…
