…
I0414 05:04:21.354990 29866 solver.cpp:93] Creating training net from train_net file: ./Prototxt/experiment_11/rtsd-r1/orig/trial_5/train.prototxt
I0414 05:04:21.355463 29866 net.cpp:58] Initializing net from parameters: 
state {
  phase: TRAIN
  level: 0
  stage: ""
}
layer {
  name: "data"
  type: "Data"
  top: "data"
  top: "label"
  include {
    phase: TRAIN
  }
  transform_param {
    scale: 0.0039215689
    mirror: false
    crop_size: 48
    mean_value: 122
    mean_value: 115
    mean_value: 129
  }
  data_param {
    source: "../local_data/lmdb/rtsd-r1/orig/train/lmdb"
    batch_size: 1024
    backend: LMDB
  }
}
layer {
  name: "conv1"
  type: "Convolution"
  bottom: "data"
  top: "conv1"
  convolution_param {
    num_output: 100
    pad: 0
    kernel_size: 7
    group: 1
    stride: 1
    weight_filler {
      type: "xavier"
    }
  }
}
layer {
  name: "conv1_prescale"
  type: "Scale"
  bottom: "conv1"
  top: "conv1"
  param {
    lr_mult: 0
    decay_mult: 0
  }
  scale_param {
    filler {
      value: 0.6666
    }
    bias_term: false
  }
}
layer {
  name: "conv1_sTanH"
  type: "TanH"
  bottom: "conv1"
  top: "conv1"
}
layer {
  name: "conv1_postscale"
  type: "Scale"
  bottom: "conv1"
  top: "conv1"
  param {
    lr_mult: 0
    decay_mult: 0
  }
  scale_param {
    filler {
      value: 1.7159
    }
    bias_term: false
  }
}
layer {
  name: "pool1"
  type: "Pooling"
  bottom: "conv1"
  top: "pool1"
  pooling_param {
    pool: MAX
    kernel_size: 2
    stride: 2
  }
}
layer {
  name: "conv2"
  type: "Convolution"
  bottom: "pool1"
  top: "conv2"
  convolution_param {
    num_output: 150
    pad: 0
    kernel_size: 4
    group: 1
    stride: 1
    weight_filler {
      type: "xavier"
    }
  }
}
layer {
  name: "conv2_prescale"
  type: "Scale"
  bottom: "conv2"
  top: "conv2"
  param {
    lr_mult: 0
    decay_mult: 0
  }
  scale_param {
    filler {
      value: 0.6666
    }
    bias_term: false
  }
}
layer {
  name: "conv2_sTanH"
  type: "TanH"
  bottom: "conv2"
  top: "conv2"
}
layer {
  name: "conv2_postscale"
  type: "Scale"
  bottom: "conv2"
  top: "conv2"
  param {
    lr_mult: 0
    decay_mult: 0
  }
  scale_param {
    filler {
      value: 1.7159
    }
    bias_term: false
  }
}
layer {
  name: "pool2"
  type: "Pooling"
  bottom: "conv2"
  top: "pool2"
  pooling_param {
    pool: MAX
    kernel_size: 2
    stride: 2
  }
}
layer {
  name: "conv3"
  type: "Convolution"
  bottom: "pool2"
  top: "conv3"
  convolution_param {
    num_output: 250
    pad: 0
    kernel_size: 4
    group: 1
    stride: 1
    weight_filler {
      type: "xavier"
    }
  }
}
layer {
  name: "conv3_prescale"
  type: "Scale"
  bottom: "conv3"
  top: "conv3"
  param {
    lr_mult: 0
    decay_mult: 0
  }
  scale_param {
    filler {
      value: 0.6666
    }
    bias_term: false
  }
}
layer {
  name: "conv3_sTanH"
  type: "TanH"
  bottom: "conv3"
  top: "conv3"
}
layer {
  name: "conv3_postscale"
  type: "Scale"
  bottom: "conv3"
  top: "conv3"
  param {
    lr_mult: 0
    decay_mult: 0
  }
  scale_param {
    filler {
      value: 1.7159
    }
    bias_term: false
  }
}
layer {
  name: "pool3"
  type: "Pooling"
  bottom: "conv3"
  top: "pool3"
  pooling_param {
    pool: MAX
    kernel_size: 2
    stride: 2
  }
}
layer {
  name: "fc4_300"
  type: "InnerProduct"
  bottom: "pool3"
  top: "fc4_300"
  inner_product_param {
    num_output: 300
    weight_filler {
      type: "xavier"
    }
  }
}
layer {
  name: "fc4_prescale"
  type: "Scale"
  bottom: "fc4_300"
  top: "fc4_300"
  param {
    lr_mult: 0
    decay_mult: 0
  }
  scale_param {
    filler {
      value: 0.6666
    }
    bias_term: false
  }
}
layer {
  name: "fc4_sTanH"
  type: "TanH"
  bottom: "fc4_300"
  top: "fc4_300"
}
layer {
  name: "fc4_postscale"
  type: "Scale"
  bottom: "fc4_300"
  top: "fc4_300"
  param {
    lr_mult: 0
    decay_mult: 0
  }
  scale_param {
    filler {
      value: 1.7159
    }
    bias_term: false
  }
}
layer {
  name: "fc5_67"
  type: "InnerProduct"
  bottom: "fc4_300"
  top: "fc5_classes"
  inner_product_param {
    num_output: 67
    weight_filler {
      type: "xavier"
    }
  }
}
layer {
  name: "softmax"
  type: "Softmax"
  bottom: "fc5_classes"
  top: "softmax"
}
layer {
  name: "loss"
  type: "MultinomialLogisticLoss"
  bottom: "softmax"
  bottom: "label"
  top: "loss"
}
layer {
  name: "accuracy_1"
  type: "Accuracy"
  bottom: "fc5_classes"
  bottom: "label"
  top: "accuracy_1"
  accuracy_param {
    top_k: 1
  }
}
layer {
  name: "accuracy_5"
  type: "Accuracy"
  bottom: "fc5_classes"
  bottom: "label"
  top: "accuracy_5"
  accuracy_param {
    top_k: 5
  }
}
layer {
  name: "silence"
  type: "Silence"
  bottom: "accuracy_1"
  bottom: "accuracy_5"
}
I0414 05:04:21.355619 29866 layer_factory.hpp:77] Creating layer data
I0414 05:04:21.356917 29866 net.cpp:100] Creating Layer data
I0414 05:04:21.356933 29866 net.cpp:408] data -> data
I0414 05:04:21.356956 29866 net.cpp:408] data -> label
I0414 05:04:21.369606 29991 db_lmdb.cpp:35] Opened lmdb ../local_data/lmdb/rtsd-r1/orig/train/lmdb
I0414 05:04:21.386603 29866 data_layer.cpp:41] output data size: 1024,3,48,48
I0414 05:04:21.435452 29866 net.cpp:150] Setting up data
I0414 05:04:21.435482 29866 net.cpp:157] Top shape: 1024 3 48 48 (7077888)
I0414 05:04:21.435487 29866 net.cpp:157] Top shape: 1024 (1024)
I0414 05:04:21.435489 29866 net.cpp:165] Memory required for data: 28315648
I0414 05:04:21.435499 29866 layer_factory.hpp:77] Creating layer label_data_1_split
I0414 05:04:21.435513 29866 net.cpp:100] Creating Layer label_data_1_split
I0414 05:04:21.435519 29866 net.cpp:434] label_data_1_split <- label
I0414 05:04:21.435534 29866 net.cpp:408] label_data_1_split -> label_data_1_split_0
I0414 05:04:21.435546 29866 net.cpp:408] label_data_1_split -> label_data_1_split_1
I0414 05:04:21.435554 29866 net.cpp:408] label_data_1_split -> label_data_1_split_2
I0414 05:04:21.435659 29866 net.cpp:150] Setting up label_data_1_split
I0414 05:04:21.435670 29866 net.cpp:157] Top shape: 1024 (1024)
I0414 05:04:21.435674 29866 net.cpp:157] Top shape: 1024 (1024)
I0414 05:04:21.435678 29866 net.cpp:157] Top shape: 1024 (1024)
I0414 05:04:21.435680 29866 net.cpp:165] Memory required for data: 28327936
I0414 05:04:21.435683 29866 layer_factory.hpp:77] Creating layer conv1
I0414 05:04:21.435701 29866 net.cpp:100] Creating Layer conv1
I0414 05:04:21.435705 29866 net.cpp:434] conv1 <- data
I0414 05:04:21.435711 29866 net.cpp:408] conv1 -> conv1
I0414 05:04:21.879776 29866 net.cpp:150] Setting up conv1
I0414 05:04:21.879807 29866 net.cpp:157] Top shape: 1024 100 42 42 (180633600)
I0414 05:04:21.879812 29866 net.cpp:165] Memory required for data: 750862336
I0414 05:04:21.879834 29866 layer_factory.hpp:77] Creating layer conv1_prescale
I0414 05:04:21.879850 29866 net.cpp:100] Creating Layer conv1_prescale
I0414 05:04:21.879856 29866 net.cpp:434] conv1_prescale <- conv1
I0414 05:04:21.879863 29866 net.cpp:395] conv1_prescale -> conv1 (in-place)
I0414 05:04:21.879989 29866 net.cpp:150] Setting up conv1_prescale
I0414 05:04:21.880000 29866 net.cpp:157] Top shape: 1024 100 42 42 (180633600)
I0414 05:04:21.880003 29866 net.cpp:165] Memory required for data: 1473396736
I0414 05:04:21.880012 29866 layer_factory.hpp:77] Creating layer conv1_sTanH
I0414 05:04:21.880022 29866 net.cpp:100] Creating Layer conv1_sTanH
I0414 05:04:21.880024 29866 net.cpp:434] conv1_sTanH <- conv1
I0414 05:04:21.880029 29866 net.cpp:395] conv1_sTanH -> conv1 (in-place)
I0414 05:04:21.880235 29866 net.cpp:150] Setting up conv1_sTanH
I0414 05:04:21.880249 29866 net.cpp:157] Top shape: 1024 100 42 42 (180633600)
I0414 05:04:21.880275 29866 net.cpp:165] Memory required for data: 2195931136
I0414 05:04:21.880280 29866 layer_factory.hpp:77] Creating layer conv1_postscale
I0414 05:04:21.880286 29866 net.cpp:100] Creating Layer conv1_postscale
I0414 05:04:21.880290 29866 net.cpp:434] conv1_postscale <- conv1
I0414 05:04:21.880296 29866 net.cpp:395] conv1_postscale -> conv1 (in-place)
I0414 05:04:21.880403 29866 net.cpp:150] Setting up conv1_postscale
I0414 05:04:21.880412 29866 net.cpp:157] Top shape: 1024 100 42 42 (180633600)
I0414 05:04:21.880415 29866 net.cpp:165] Memory required for data: 2918465536
I0414 05:04:21.880420 29866 layer_factory.hpp:77] Creating layer pool1
I0414 05:04:21.880427 29866 net.cpp:100] Creating Layer pool1
I0414 05:04:21.880430 29866 net.cpp:434] pool1 <- conv1
I0414 05:04:21.880437 29866 net.cpp:408] pool1 -> pool1
I0414 05:04:21.880489 29866 net.cpp:150] Setting up pool1
I0414 05:04:21.880499 29866 net.cpp:157] Top shape: 1024 100 21 21 (45158400)
I0414 05:04:21.880502 29866 net.cpp:165] Memory required for data: 3099099136
I0414 05:04:21.880506 29866 layer_factory.hpp:77] Creating layer conv2
I0414 05:04:21.880517 29866 net.cpp:100] Creating Layer conv2
I0414 05:04:21.880522 29866 net.cpp:434] conv2 <- pool1
I0414 05:04:21.880527 29866 net.cpp:408] conv2 -> conv2
I0414 05:04:21.889214 29866 net.cpp:150] Setting up conv2
I0414 05:04:21.889237 29866 net.cpp:157] Top shape: 1024 150 18 18 (49766400)
I0414 05:04:21.889242 29866 net.cpp:165] Memory required for data: 3298164736
I0414 05:04:21.889256 29866 layer_factory.hpp:77] Creating layer conv2_prescale
I0414 05:04:21.889276 29866 net.cpp:100] Creating Layer conv2_prescale
I0414 05:04:21.889282 29866 net.cpp:434] conv2_prescale <- conv2
I0414 05:04:21.889291 29866 net.cpp:395] conv2_prescale -> conv2 (in-place)
I0414 05:04:21.889446 29866 net.cpp:150] Setting up conv2_prescale
I0414 05:04:21.889461 29866 net.cpp:157] Top shape: 1024 150 18 18 (49766400)
I0414 05:04:21.889467 29866 net.cpp:165] Memory required for data: 3497230336
I0414 05:04:21.889472 29866 layer_factory.hpp:77] Creating layer conv2_sTanH
I0414 05:04:21.889482 29866 net.cpp:100] Creating Layer conv2_sTanH
I0414 05:04:21.889487 29866 net.cpp:434] conv2_sTanH <- conv2
I0414 05:04:21.889493 29866 net.cpp:395] conv2_sTanH -> conv2 (in-place)
I0414 05:04:21.892822 29866 net.cpp:150] Setting up conv2_sTanH
I0414 05:04:21.892850 29866 net.cpp:157] Top shape: 1024 150 18 18 (49766400)
I0414 05:04:21.892858 29866 net.cpp:165] Memory required for data: 3696295936
I0414 05:04:21.892863 29866 layer_factory.hpp:77] Creating layer conv2_postscale
I0414 05:04:21.892874 29866 net.cpp:100] Creating Layer conv2_postscale
I0414 05:04:21.892884 29866 net.cpp:434] conv2_postscale <- conv2
I0414 05:04:21.892895 29866 net.cpp:395] conv2_postscale -> conv2 (in-place)
I0414 05:04:21.893060 29866 net.cpp:150] Setting up conv2_postscale
I0414 05:04:21.893074 29866 net.cpp:157] Top shape: 1024 150 18 18 (49766400)
I0414 05:04:21.893079 29866 net.cpp:165] Memory required for data: 3895361536
I0414 05:04:21.893087 29866 layer_factory.hpp:77] Creating layer pool2
I0414 05:04:21.893105 29866 net.cpp:100] Creating Layer pool2
I0414 05:04:21.893115 29866 net.cpp:434] pool2 <- conv2
I0414 05:04:21.893126 29866 net.cpp:408] pool2 -> pool2
I0414 05:04:21.893201 29866 net.cpp:150] Setting up pool2
I0414 05:04:21.893219 29866 net.cpp:157] Top shape: 1024 150 9 9 (12441600)
I0414 05:04:21.893227 29866 net.cpp:165] Memory required for data: 3945127936
I0414 05:04:21.893240 29866 layer_factory.hpp:77] Creating layer conv3
I0414 05:04:21.893262 29866 net.cpp:100] Creating Layer conv3
I0414 05:04:21.893270 29866 net.cpp:434] conv3 <- pool2
I0414 05:04:21.893280 29866 net.cpp:408] conv3 -> conv3
I0414 05:04:21.901521 29866 net.cpp:150] Setting up conv3
I0414 05:04:21.901545 29866 net.cpp:157] Top shape: 1024 250 6 6 (9216000)
I0414 05:04:21.901549 29866 net.cpp:165] Memory required for data: 3981991936
I0414 05:04:21.901564 29866 layer_factory.hpp:77] Creating layer conv3_prescale
I0414 05:04:21.901602 29866 net.cpp:100] Creating Layer conv3_prescale
I0414 05:04:21.901610 29866 net.cpp:434] conv3_prescale <- conv3
I0414 05:04:21.901618 29866 net.cpp:395] conv3_prescale -> conv3 (in-place)
I0414 05:04:21.901744 29866 net.cpp:150] Setting up conv3_prescale
I0414 05:04:21.901756 29866 net.cpp:157] Top shape: 1024 250 6 6 (9216000)
I0414 05:04:21.901760 29866 net.cpp:165] Memory required for data: 4018855936
I0414 05:04:21.901767 29866 layer_factory.hpp:77] Creating layer conv3_sTanH
I0414 05:04:21.901775 29866 net.cpp:100] Creating Layer conv3_sTanH
I0414 05:04:21.901780 29866 net.cpp:434] conv3_sTanH <- conv3
I0414 05:04:21.901787 29866 net.cpp:395] conv3_sTanH -> conv3 (in-place)
I0414 05:04:21.911288 29866 net.cpp:150] Setting up conv3_sTanH
I0414 05:04:21.911315 29866 net.cpp:157] Top shape: 1024 250 6 6 (9216000)
I0414 05:04:21.911319 29866 net.cpp:165] Memory required for data: 4055719936
I0414 05:04:21.911324 29866 layer_factory.hpp:77] Creating layer conv3_postscale
I0414 05:04:21.911336 29866 net.cpp:100] Creating Layer conv3_postscale
I0414 05:04:21.911342 29866 net.cpp:434] conv3_postscale <- conv3
I0414 05:04:21.911350 29866 net.cpp:395] conv3_postscale -> conv3 (in-place)
I0414 05:04:21.911483 29866 net.cpp:150] Setting up conv3_postscale
I0414 05:04:21.911491 29866 net.cpp:157] Top shape: 1024 250 6 6 (9216000)
I0414 05:04:21.911496 29866 net.cpp:165] Memory required for data: 4092583936
I0414 05:04:21.911502 29866 layer_factory.hpp:77] Creating layer pool3
I0414 05:04:21.911515 29866 net.cpp:100] Creating Layer pool3
I0414 05:04:21.911520 29866 net.cpp:434] pool3 <- conv3
I0414 05:04:21.911526 29866 net.cpp:408] pool3 -> pool3
I0414 05:04:21.911574 29866 net.cpp:150] Setting up pool3
I0414 05:04:21.911583 29866 net.cpp:157] Top shape: 1024 250 3 3 (2304000)
I0414 05:04:21.911587 29866 net.cpp:165] Memory required for data: 4101799936
I0414 05:04:21.911590 29866 layer_factory.hpp:77] Creating layer fc4_300
I0414 05:04:21.911599 29866 net.cpp:100] Creating Layer fc4_300
I0414 05:04:21.911604 29866 net.cpp:434] fc4_300 <- pool3
I0414 05:04:21.911609 29866 net.cpp:408] fc4_300 -> fc4_300
I0414 05:04:21.919497 29866 net.cpp:150] Setting up fc4_300
I0414 05:04:21.919515 29866 net.cpp:157] Top shape: 1024 300 (307200)
I0414 05:04:21.919519 29866 net.cpp:165] Memory required for data: 4103028736
I0414 05:04:21.919526 29866 layer_factory.hpp:77] Creating layer fc4_prescale
I0414 05:04:21.919534 29866 net.cpp:100] Creating Layer fc4_prescale
I0414 05:04:21.919538 29866 net.cpp:434] fc4_prescale <- fc4_300
I0414 05:04:21.919546 29866 net.cpp:395] fc4_prescale -> fc4_300 (in-place)
I0414 05:04:21.919646 29866 net.cpp:150] Setting up fc4_prescale
I0414 05:04:21.919654 29866 net.cpp:157] Top shape: 1024 300 (307200)
I0414 05:04:21.919657 29866 net.cpp:165] Memory required for data: 4104257536
I0414 05:04:21.919662 29866 layer_factory.hpp:77] Creating layer fc4_sTanH
I0414 05:04:21.919669 29866 net.cpp:100] Creating Layer fc4_sTanH
I0414 05:04:21.919674 29866 net.cpp:434] fc4_sTanH <- fc4_300
I0414 05:04:21.919678 29866 net.cpp:395] fc4_sTanH -> fc4_300 (in-place)
I0414 05:04:21.919898 29866 net.cpp:150] Setting up fc4_sTanH
I0414 05:04:21.919911 29866 net.cpp:157] Top shape: 1024 300 (307200)
I0414 05:04:21.919914 29866 net.cpp:165] Memory required for data: 4105486336
I0414 05:04:21.919919 29866 layer_factory.hpp:77] Creating layer fc4_postscale
I0414 05:04:21.919924 29866 net.cpp:100] Creating Layer fc4_postscale
I0414 05:04:21.919929 29866 net.cpp:434] fc4_postscale <- fc4_300
I0414 05:04:21.919937 29866 net.cpp:395] fc4_postscale -> fc4_300 (in-place)
I0414 05:04:21.920047 29866 net.cpp:150] Setting up fc4_postscale
I0414 05:04:21.920055 29866 net.cpp:157] Top shape: 1024 300 (307200)
I0414 05:04:21.920058 29866 net.cpp:165] Memory required for data: 4106715136
I0414 05:04:21.920063 29866 layer_factory.hpp:77] Creating layer fc5_67
I0414 05:04:21.920070 29866 net.cpp:100] Creating Layer fc5_67
I0414 05:04:21.920075 29866 net.cpp:434] fc5_67 <- fc4_300
I0414 05:04:21.920083 29866 net.cpp:408] fc5_67 -> fc5_classes
I0414 05:04:21.927142 29866 net.cpp:150] Setting up fc5_67
I0414 05:04:21.927160 29866 net.cpp:157] Top shape: 1024 67 (68608)
I0414 05:04:21.927165 29866 net.cpp:165] Memory required for data: 4106989568
I0414 05:04:21.927176 29866 layer_factory.hpp:77] Creating layer fc5_classes_fc5_67_0_split
I0414 05:04:21.927188 29866 net.cpp:100] Creating Layer fc5_classes_fc5_67_0_split
I0414 05:04:21.927194 29866 net.cpp:434] fc5_classes_fc5_67_0_split <- fc5_classes
I0414 05:04:21.927201 29866 net.cpp:408] fc5_classes_fc5_67_0_split -> fc5_classes_fc5_67_0_split_0
I0414 05:04:21.927208 29866 net.cpp:408] fc5_classes_fc5_67_0_split -> fc5_classes_fc5_67_0_split_1
I0414 05:04:21.927215 29866 net.cpp:408] fc5_classes_fc5_67_0_split -> fc5_classes_fc5_67_0_split_2
I0414 05:04:21.927271 29866 net.cpp:150] Setting up fc5_classes_fc5_67_0_split
I0414 05:04:21.927279 29866 net.cpp:157] Top shape: 1024 67 (68608)
I0414 05:04:21.927284 29866 net.cpp:157] Top shape: 1024 67 (68608)
I0414 05:04:21.927287 29866 net.cpp:157] Top shape: 1024 67 (68608)
I0414 05:04:21.927289 29866 net.cpp:165] Memory required for data: 4107812864
I0414 05:04:21.927292 29866 layer_factory.hpp:77] Creating layer softmax
I0414 05:04:21.927304 29866 net.cpp:100] Creating Layer softmax
I0414 05:04:21.927309 29866 net.cpp:434] softmax <- fc5_classes_fc5_67_0_split_0
I0414 05:04:21.927314 29866 net.cpp:408] softmax -> softmax
I0414 05:04:21.927616 29866 net.cpp:150] Setting up softmax
I0414 05:04:21.927631 29866 net.cpp:157] Top shape: 1024 67 (68608)
I0414 05:04:21.927634 29866 net.cpp:165] Memory required for data: 4108087296
I0414 05:04:21.927639 29866 layer_factory.hpp:77] Creating layer loss
I0414 05:04:21.927646 29866 net.cpp:100] Creating Layer loss
I0414 05:04:21.927651 29866 net.cpp:434] loss <- softmax
I0414 05:04:21.927656 29866 net.cpp:434] loss <- label_data_1_split_0
I0414 05:04:21.927661 29866 net.cpp:408] loss -> loss
…
