…
I0417 18:00:33.948220 26825 solver.cpp:93] Creating training net from train_net file: ./Prototxt/experiment_11/rtsd-r1/orig/trial_5/train.prototxt
I0417 18:00:33.949091 26825 net.cpp:58] Initializing net from parameters: 
state {
  phase: TRAIN
  level: 0
  stage: ""
}
layer {
  name: "data"
  type: "Data"
  top: "data"
  top: "label"
  include {
    phase: TRAIN
  }
  transform_param {
    scale: 0.0039215689
    mirror: false
    crop_size: 48
    mean_value: 122
    mean_value: 115
    mean_value: 129
  }
  data_param {
    source: "../local_data/lmdb/rtsd-r1/orig/train/lmdb"
    batch_size: 1024
    backend: LMDB
  }
}
layer {
  name: "conv1"
  type: "Convolution"
  bottom: "data"
  top: "conv1"
  convolution_param {
    num_output: 100
    pad: 0
    kernel_size: 7
    group: 1
    stride: 1
    weight_filler {
      type: "xavier"
    }
  }
}
layer {
  name: "conv1_prescale"
  type: "Scale"
  bottom: "conv1"
  top: "conv1"
  param {
    lr_mult: 0
    decay_mult: 0
  }
  scale_param {
    filler {
      value: 0.6666
    }
    bias_term: false
  }
}
layer {
  name: "conv1_sTanH"
  type: "TanH"
  bottom: "conv1"
  top: "conv1"
}
layer {
  name: "conv1_postscale"
  type: "Scale"
  bottom: "conv1"
  top: "conv1"
  param {
    lr_mult: 0
    decay_mult: 0
  }
  scale_param {
    filler {
      value: 1.7159
    }
    bias_term: false
  }
}
layer {
  name: "pool1"
  type: "Pooling"
  bottom: "conv1"
  top: "pool1"
  pooling_param {
    pool: MAX
    kernel_size: 2
    stride: 2
  }
}
layer {
  name: "conv2"
  type: "Convolution"
  bottom: "pool1"
  top: "conv2"
  convolution_param {
    num_output: 150
    pad: 0
    kernel_size: 4
    group: 1
    stride: 1
    weight_filler {
      type: "xavier"
    }
  }
}
layer {
  name: "conv2_prescale"
  type: "Scale"
  bottom: "conv2"
  top: "conv2"
  param {
    lr_mult: 0
    decay_mult: 0
  }
  scale_param {
    filler {
      value: 0.6666
    }
    bias_term: false
  }
}
layer {
  name: "conv2_sTanH"
  type: "TanH"
  bottom: "conv2"
  top: "conv2"
}
layer {
  name: "conv2_postscale"
  type: "Scale"
  bottom: "conv2"
  top: "conv2"
  param {
    lr_mult: 0
    decay_mult: 0
  }
  scale_param {
    filler {
      value: 1.7159
    }
    bias_term: false
  }
}
layer {
  name: "pool2"
  type: "Pooling"
  bottom: "conv2"
  top: "pool2"
  pooling_param {
    pool: MAX
    kernel_size: 2
    stride: 2
  }
}
layer {
  name: "conv3"
  type: "Convolution"
  bottom: "pool2"
  top: "conv3"
  convolution_param {
    num_output: 250
    pad: 0
    kernel_size: 4
    group: 1
    stride: 1
    weight_filler {
      type: "xavier"
    }
  }
}
layer {
  name: "conv3_prescale"
  type: "Scale"
  bottom: "conv3"
  top: "conv3"
  param {
    lr_mult: 0
    decay_mult: 0
  }
  scale_param {
    filler {
      value: 0.6666
    }
    bias_term: false
  }
}
layer {
  name: "conv3_sTanH"
  type: "TanH"
  bottom: "conv3"
  top: "conv3"
}
layer {
  name: "conv3_postscale"
  type: "Scale"
  bottom: "conv3"
  top: "conv3"
  param {
    lr_mult: 0
    decay_mult: 0
  }
  scale_param {
    filler {
      value: 1.7159
    }
    bias_term: false
  }
}
layer {
  name: "pool3"
  type: "Pooling"
  bottom: "conv3"
  top: "pool3"
  pooling_param {
    pool: MAX
    kernel_size: 2
    stride: 2
  }
}
layer {
  name: "fc4_300"
  type: "InnerProduct"
  bottom: "pool3"
  top: "fc4_300"
  inner_product_param {
    num_output: 300
    weight_filler {
      type: "xavier"
    }
  }
}
layer {
  name: "fc4_prescale"
  type: "Scale"
  bottom: "fc4_300"
  top: "fc4_300"
  param {
    lr_mult: 0
    decay_mult: 0
  }
  scale_param {
    filler {
      value: 0.6666
    }
    bias_term: false
  }
}
layer {
  name: "fc4_sTanH"
  type: "TanH"
  bottom: "fc4_300"
  top: "fc4_300"
}
layer {
  name: "fc4_postscale"
  type: "Scale"
  bottom: "fc4_300"
  top: "fc4_300"
  param {
    lr_mult: 0
    decay_mult: 0
  }
  scale_param {
    filler {
      value: 1.7159
    }
    bias_term: false
  }
}
layer {
  name: "fc5_67"
  type: "InnerProduct"
  bottom: "fc4_300"
  top: "fc5_classes"
  inner_product_param {
    num_output: 67
    weight_filler {
      type: "xavier"
    }
  }
}
layer {
  name: "softmax"
  type: "Softmax"
  bottom: "fc5_classes"
  top: "softmax"
}
layer {
  name: "loss"
  type: "MultinomialLogisticLoss"
  bottom: "softmax"
  bottom: "label"
  top: "loss"
}
layer {
  name: "accuracy_1"
  type: "Accuracy"
  bottom: "fc5_classes"
  bottom: "label"
  top: "accuracy_1"
  accuracy_param {
    top_k: 1
  }
}
layer {
  name: "accuracy_5"
  type: "Accuracy"
  bottom: "fc5_classes"
  bottom: "label"
  top: "accuracy_5"
  accuracy_param {
    top_k: 5
  }
}
layer {
  name: "silence"
  type: "Silence"
  bottom: "accuracy_1"
  bottom: "accuracy_5"
}
I0417 18:00:33.949376 26825 layer_factory.hpp:77] Creating layer data
I0417 18:00:33.951408 26825 net.cpp:100] Creating Layer data
I0417 18:00:33.951434 26825 net.cpp:408] data -> data
I0417 18:00:33.951473 26825 net.cpp:408] data -> label
I0417 18:00:33.957576 26946 db_lmdb.cpp:35] Opened lmdb ../local_data/lmdb/rtsd-r1/orig/train/lmdb
I0417 18:00:33.981151 26825 data_layer.cpp:41] output data size: 1024,3,48,48
I0417 18:00:34.050282 26825 net.cpp:150] Setting up data
I0417 18:00:34.050313 26825 net.cpp:157] Top shape: 1024 3 48 48 (7077888)
I0417 18:00:34.050320 26825 net.cpp:157] Top shape: 1024 (1024)
I0417 18:00:34.050324 26825 net.cpp:165] Memory required for data: 28315648
I0417 18:00:34.050338 26825 layer_factory.hpp:77] Creating layer label_data_1_split
I0417 18:00:34.050354 26825 net.cpp:100] Creating Layer label_data_1_split
I0417 18:00:34.050361 26825 net.cpp:434] label_data_1_split <- label
I0417 18:00:34.050379 26825 net.cpp:408] label_data_1_split -> label_data_1_split_0
I0417 18:00:34.050393 26825 net.cpp:408] label_data_1_split -> label_data_1_split_1
I0417 18:00:34.050402 26825 net.cpp:408] label_data_1_split -> label_data_1_split_2
I0417 18:00:34.050523 26825 net.cpp:150] Setting up label_data_1_split
I0417 18:00:34.050534 26825 net.cpp:157] Top shape: 1024 (1024)
I0417 18:00:34.050540 26825 net.cpp:157] Top shape: 1024 (1024)
I0417 18:00:34.050545 26825 net.cpp:157] Top shape: 1024 (1024)
I0417 18:00:34.050549 26825 net.cpp:165] Memory required for data: 28327936
I0417 18:00:34.050552 26825 layer_factory.hpp:77] Creating layer conv1
I0417 18:00:34.050575 26825 net.cpp:100] Creating Layer conv1
I0417 18:00:34.050582 26825 net.cpp:434] conv1 <- data
I0417 18:00:34.050590 26825 net.cpp:408] conv1 -> conv1
I0417 18:00:34.438032 26825 net.cpp:150] Setting up conv1
I0417 18:00:34.438060 26825 net.cpp:157] Top shape: 1024 100 42 42 (180633600)
I0417 18:00:34.438063 26825 net.cpp:165] Memory required for data: 750862336
I0417 18:00:34.438086 26825 layer_factory.hpp:77] Creating layer conv1_prescale
I0417 18:00:34.438100 26825 net.cpp:100] Creating Layer conv1_prescale
I0417 18:00:34.438107 26825 net.cpp:434] conv1_prescale <- conv1
I0417 18:00:34.438113 26825 net.cpp:395] conv1_prescale -> conv1 (in-place)
I0417 18:00:34.438220 26825 net.cpp:150] Setting up conv1_prescale
I0417 18:00:34.438230 26825 net.cpp:157] Top shape: 1024 100 42 42 (180633600)
I0417 18:00:34.438232 26825 net.cpp:165] Memory required for data: 1473396736
I0417 18:00:34.438238 26825 layer_factory.hpp:77] Creating layer conv1_sTanH
I0417 18:00:34.438248 26825 net.cpp:100] Creating Layer conv1_sTanH
I0417 18:00:34.438252 26825 net.cpp:434] conv1_sTanH <- conv1
I0417 18:00:34.438256 26825 net.cpp:395] conv1_sTanH -> conv1 (in-place)
I0417 18:00:34.438450 26825 net.cpp:150] Setting up conv1_sTanH
I0417 18:00:34.438462 26825 net.cpp:157] Top shape: 1024 100 42 42 (180633600)
I0417 18:00:34.438482 26825 net.cpp:165] Memory required for data: 2195931136
I0417 18:00:34.438486 26825 layer_factory.hpp:77] Creating layer conv1_postscale
I0417 18:00:34.438493 26825 net.cpp:100] Creating Layer conv1_postscale
I0417 18:00:34.438498 26825 net.cpp:434] conv1_postscale <- conv1
I0417 18:00:34.438503 26825 net.cpp:395] conv1_postscale -> conv1 (in-place)
I0417 18:00:34.438596 26825 net.cpp:150] Setting up conv1_postscale
I0417 18:00:34.438604 26825 net.cpp:157] Top shape: 1024 100 42 42 (180633600)
I0417 18:00:34.438607 26825 net.cpp:165] Memory required for data: 2918465536
I0417 18:00:34.438612 26825 layer_factory.hpp:77] Creating layer pool1
I0417 18:00:34.438621 26825 net.cpp:100] Creating Layer pool1
I0417 18:00:34.438624 26825 net.cpp:434] pool1 <- conv1
I0417 18:00:34.438629 26825 net.cpp:408] pool1 -> pool1
I0417 18:00:34.438674 26825 net.cpp:150] Setting up pool1
I0417 18:00:34.438681 26825 net.cpp:157] Top shape: 1024 100 21 21 (45158400)
I0417 18:00:34.438684 26825 net.cpp:165] Memory required for data: 3099099136
I0417 18:00:34.438688 26825 layer_factory.hpp:77] Creating layer conv2
I0417 18:00:34.438697 26825 net.cpp:100] Creating Layer conv2
I0417 18:00:34.438701 26825 net.cpp:434] conv2 <- pool1
I0417 18:00:34.438706 26825 net.cpp:408] conv2 -> conv2
I0417 18:00:34.444218 26825 net.cpp:150] Setting up conv2
I0417 18:00:34.444236 26825 net.cpp:157] Top shape: 1024 150 18 18 (49766400)
I0417 18:00:34.444241 26825 net.cpp:165] Memory required for data: 3298164736
I0417 18:00:34.444250 26825 layer_factory.hpp:77] Creating layer conv2_prescale
I0417 18:00:34.444262 26825 net.cpp:100] Creating Layer conv2_prescale
I0417 18:00:34.444267 26825 net.cpp:434] conv2_prescale <- conv2
I0417 18:00:34.444272 26825 net.cpp:395] conv2_prescale -> conv2 (in-place)
I0417 18:00:34.444380 26825 net.cpp:150] Setting up conv2_prescale
I0417 18:00:34.444389 26825 net.cpp:157] Top shape: 1024 150 18 18 (49766400)
I0417 18:00:34.444392 26825 net.cpp:165] Memory required for data: 3497230336
I0417 18:00:34.444396 26825 layer_factory.hpp:77] Creating layer conv2_sTanH
I0417 18:00:34.444401 26825 net.cpp:100] Creating Layer conv2_sTanH
I0417 18:00:34.444406 26825 net.cpp:434] conv2_sTanH <- conv2
I0417 18:00:34.444411 26825 net.cpp:395] conv2_sTanH -> conv2 (in-place)
I0417 18:00:34.446447 26825 net.cpp:150] Setting up conv2_sTanH
I0417 18:00:34.446465 26825 net.cpp:157] Top shape: 1024 150 18 18 (49766400)
I0417 18:00:34.446468 26825 net.cpp:165] Memory required for data: 3696295936
I0417 18:00:34.446472 26825 layer_factory.hpp:77] Creating layer conv2_postscale
I0417 18:00:34.446480 26825 net.cpp:100] Creating Layer conv2_postscale
I0417 18:00:34.446483 26825 net.cpp:434] conv2_postscale <- conv2
I0417 18:00:34.446490 26825 net.cpp:395] conv2_postscale -> conv2 (in-place)
I0417 18:00:34.446586 26825 net.cpp:150] Setting up conv2_postscale
I0417 18:00:34.446595 26825 net.cpp:157] Top shape: 1024 150 18 18 (49766400)
I0417 18:00:34.446599 26825 net.cpp:165] Memory required for data: 3895361536
I0417 18:00:34.446604 26825 layer_factory.hpp:77] Creating layer pool2
I0417 18:00:34.446610 26825 net.cpp:100] Creating Layer pool2
I0417 18:00:34.446614 26825 net.cpp:434] pool2 <- conv2
I0417 18:00:34.446619 26825 net.cpp:408] pool2 -> pool2
I0417 18:00:34.446660 26825 net.cpp:150] Setting up pool2
I0417 18:00:34.446667 26825 net.cpp:157] Top shape: 1024 150 9 9 (12441600)
I0417 18:00:34.446671 26825 net.cpp:165] Memory required for data: 3945127936
I0417 18:00:34.446674 26825 layer_factory.hpp:77] Creating layer conv3
I0417 18:00:34.446682 26825 net.cpp:100] Creating Layer conv3
I0417 18:00:34.446687 26825 net.cpp:434] conv3 <- pool2
I0417 18:00:34.446691 26825 net.cpp:408] conv3 -> conv3
I0417 18:00:34.454488 26825 net.cpp:150] Setting up conv3
I0417 18:00:34.454506 26825 net.cpp:157] Top shape: 1024 250 6 6 (9216000)
I0417 18:00:34.454510 26825 net.cpp:165] Memory required for data: 3981991936
I0417 18:00:34.454520 26825 layer_factory.hpp:77] Creating layer conv3_prescale
I0417 18:00:34.454550 26825 net.cpp:100] Creating Layer conv3_prescale
I0417 18:00:34.454556 26825 net.cpp:434] conv3_prescale <- conv3
I0417 18:00:34.454566 26825 net.cpp:395] conv3_prescale -> conv3 (in-place)
I0417 18:00:34.454660 26825 net.cpp:150] Setting up conv3_prescale
I0417 18:00:34.454669 26825 net.cpp:157] Top shape: 1024 250 6 6 (9216000)
I0417 18:00:34.454675 26825 net.cpp:165] Memory required for data: 4018855936
I0417 18:00:34.454684 26825 layer_factory.hpp:77] Creating layer conv3_sTanH
I0417 18:00:34.454691 26825 net.cpp:100] Creating Layer conv3_sTanH
I0417 18:00:34.454699 26825 net.cpp:434] conv3_sTanH <- conv3
I0417 18:00:34.454704 26825 net.cpp:395] conv3_sTanH -> conv3 (in-place)
I0417 18:00:34.456225 26825 net.cpp:150] Setting up conv3_sTanH
I0417 18:00:34.456243 26825 net.cpp:157] Top shape: 1024 250 6 6 (9216000)
I0417 18:00:34.456249 26825 net.cpp:165] Memory required for data: 4055719936
I0417 18:00:34.456257 26825 layer_factory.hpp:77] Creating layer conv3_postscale
I0417 18:00:34.456274 26825 net.cpp:100] Creating Layer conv3_postscale
I0417 18:00:34.456280 26825 net.cpp:434] conv3_postscale <- conv3
I0417 18:00:34.456288 26825 net.cpp:395] conv3_postscale -> conv3 (in-place)
I0417 18:00:34.456385 26825 net.cpp:150] Setting up conv3_postscale
I0417 18:00:34.456395 26825 net.cpp:157] Top shape: 1024 250 6 6 (9216000)
I0417 18:00:34.456401 26825 net.cpp:165] Memory required for data: 4092583936
I0417 18:00:34.456408 26825 layer_factory.hpp:77] Creating layer pool3
I0417 18:00:34.456421 26825 net.cpp:100] Creating Layer pool3
I0417 18:00:34.456426 26825 net.cpp:434] pool3 <- conv3
I0417 18:00:34.456432 26825 net.cpp:408] pool3 -> pool3
I0417 18:00:34.456475 26825 net.cpp:150] Setting up pool3
I0417 18:00:34.456482 26825 net.cpp:157] Top shape: 1024 250 3 3 (2304000)
I0417 18:00:34.456488 26825 net.cpp:165] Memory required for data: 4101799936
I0417 18:00:34.456492 26825 layer_factory.hpp:77] Creating layer fc4_300
I0417 18:00:34.456503 26825 net.cpp:100] Creating Layer fc4_300
I0417 18:00:34.456508 26825 net.cpp:434] fc4_300 <- pool3
I0417 18:00:34.456516 26825 net.cpp:408] fc4_300 -> fc4_300
I0417 18:00:34.463665 26825 net.cpp:150] Setting up fc4_300
I0417 18:00:34.463681 26825 net.cpp:157] Top shape: 1024 300 (307200)
I0417 18:00:34.463685 26825 net.cpp:165] Memory required for data: 4103028736
I0417 18:00:34.463695 26825 layer_factory.hpp:77] Creating layer fc4_prescale
I0417 18:00:34.463703 26825 net.cpp:100] Creating Layer fc4_prescale
I0417 18:00:34.463711 26825 net.cpp:434] fc4_prescale <- fc4_300
I0417 18:00:34.463718 26825 net.cpp:395] fc4_prescale -> fc4_300 (in-place)
I0417 18:00:34.463809 26825 net.cpp:150] Setting up fc4_prescale
I0417 18:00:34.463817 26825 net.cpp:157] Top shape: 1024 300 (307200)
I0417 18:00:34.463822 26825 net.cpp:165] Memory required for data: 4104257536
I0417 18:00:34.463830 26825 layer_factory.hpp:77] Creating layer fc4_sTanH
I0417 18:00:34.463838 26825 net.cpp:100] Creating Layer fc4_sTanH
I0417 18:00:34.463845 26825 net.cpp:434] fc4_sTanH <- fc4_300
I0417 18:00:34.463850 26825 net.cpp:395] fc4_sTanH -> fc4_300 (in-place)
I0417 18:00:34.464045 26825 net.cpp:150] Setting up fc4_sTanH
I0417 18:00:34.464056 26825 net.cpp:157] Top shape: 1024 300 (307200)
I0417 18:00:34.464061 26825 net.cpp:165] Memory required for data: 4105486336
I0417 18:00:34.464069 26825 layer_factory.hpp:77] Creating layer fc4_postscale
I0417 18:00:34.464076 26825 net.cpp:100] Creating Layer fc4_postscale
I0417 18:00:34.464083 26825 net.cpp:434] fc4_postscale <- fc4_300
I0417 18:00:34.464089 26825 net.cpp:395] fc4_postscale -> fc4_300 (in-place)
I0417 18:00:34.464187 26825 net.cpp:150] Setting up fc4_postscale
I0417 18:00:34.464195 26825 net.cpp:157] Top shape: 1024 300 (307200)
I0417 18:00:34.464200 26825 net.cpp:165] Memory required for data: 4106715136
I0417 18:00:34.464208 26825 layer_factory.hpp:77] Creating layer fc5_67
I0417 18:00:34.464216 26825 net.cpp:100] Creating Layer fc5_67
I0417 18:00:34.464220 26825 net.cpp:434] fc5_67 <- fc4_300
I0417 18:00:34.464226 26825 net.cpp:408] fc5_67 -> fc5_classes
I0417 18:00:34.465782 26825 net.cpp:150] Setting up fc5_67
I0417 18:00:34.465797 26825 net.cpp:157] Top shape: 1024 67 (68608)
I0417 18:00:34.465801 26825 net.cpp:165] Memory required for data: 4106989568
I0417 18:00:34.465811 26825 layer_factory.hpp:77] Creating layer fc5_classes_fc5_67_0_split
I0417 18:00:34.465817 26825 net.cpp:100] Creating Layer fc5_classes_fc5_67_0_split
I0417 18:00:34.465821 26825 net.cpp:434] fc5_classes_fc5_67_0_split <- fc5_classes
I0417 18:00:34.465827 26825 net.cpp:408] fc5_classes_fc5_67_0_split -> fc5_classes_fc5_67_0_split_0
I0417 18:00:34.465834 26825 net.cpp:408] fc5_classes_fc5_67_0_split -> fc5_classes_fc5_67_0_split_1
I0417 18:00:34.465840 26825 net.cpp:408] fc5_classes_fc5_67_0_split -> fc5_classes_fc5_67_0_split_2
I0417 18:00:34.465888 26825 net.cpp:150] Setting up fc5_classes_fc5_67_0_split
I0417 18:00:34.465894 26825 net.cpp:157] Top shape: 1024 67 (68608)
I0417 18:00:34.465898 26825 net.cpp:157] Top shape: 1024 67 (68608)
I0417 18:00:34.465901 26825 net.cpp:157] Top shape: 1024 67 (68608)
I0417 18:00:34.465903 26825 net.cpp:165] Memory required for data: 4107812864
I0417 18:00:34.465906 26825 layer_factory.hpp:77] Creating layer softmax
I0417 18:00:34.465912 26825 net.cpp:100] Creating Layer softmax
I0417 18:00:34.465915 26825 net.cpp:434] softmax <- fc5_classes_fc5_67_0_split_0
I0417 18:00:34.465920 26825 net.cpp:408] softmax -> softmax
I0417 18:00:34.466159 26825 net.cpp:150] Setting up softmax
I0417 18:00:34.466171 26825 net.cpp:157] Top shape: 1024 67 (68608)
I0417 18:00:34.466174 26825 net.cpp:165] Memory required for data: 4108087296
I0417 18:00:34.466178 26825 layer_factory.hpp:77] Creating layer loss
I0417 18:00:34.466187 26825 net.cpp:100] Creating Layer loss
I0417 18:00:34.466194 26825 net.cpp:434] loss <- softmax
I0417 18:00:34.466199 26825 net.cpp:434] loss <- label_data_1_split_0
I0417 18:00:34.466207 26825 net.cpp:408] loss -> loss
…
