…
I0508 03:28:30.040154 24883 solver.cpp:93] Creating training net from train_net file: ./Prototxt/experiment_16/RTSD/AHE/trial_1/train.prototxt
I0508 03:28:30.040633 24883 net.cpp:58] Initializing net from parameters: 
state {
  phase: TRAIN
  level: 0
  stage: ""
}
layer {
  name: "data"
  type: "Data"
  top: "data"
  top: "label"
  include {
    phase: TRAIN
  }
  transform_param {
    scale: 0.0039215689
    mirror: false
    crop_size: 48
    mean_value: 133
    mean_value: 127
    mean_value: 126
  }
  data_param {
    source: "../local_data/lmdb/RTSD/AHE/train/lmdb"
    batch_size: 1024
    backend: LMDB
  }
}
layer {
  name: "conv1"
  type: "Convolution"
  bottom: "data"
  top: "conv1"
  convolution_param {
    num_output: 100
    pad: 0
    kernel_size: 7
    group: 1
    stride: 1
    weight_filler {
      type: "xavier"
    }
  }
}
layer {
  name: "conv1_relu"
  type: "ReLU"
  bottom: "conv1"
  top: "conv1"
}
layer {
  name: "pool1"
  type: "Pooling"
  bottom: "conv1"
  top: "pool1"
  pooling_param {
    pool: MAX
    kernel_size: 2
    stride: 2
  }
}
layer {
  name: "conv2"
  type: "Convolution"
  bottom: "pool1"
  top: "conv2"
  convolution_param {
    num_output: 150
    pad: 0
    kernel_size: 4
    group: 2
    stride: 1
    weight_filler {
      type: "xavier"
    }
  }
}
layer {
  name: "conv2_relu"
  type: "ReLU"
  bottom: "conv2"
  top: "conv2"
}
layer {
  name: "pool2"
  type: "Pooling"
  bottom: "conv2"
  top: "pool2"
  pooling_param {
    pool: MAX
    kernel_size: 2
    stride: 2
  }
}
layer {
  name: "conv3"
  type: "Convolution"
  bottom: "pool2"
  top: "conv3"
  convolution_param {
    num_output: 250
    pad: 0
    kernel_size: 4
    group: 2
    stride: 1
    weight_filler {
      type: "xavier"
    }
  }
}
layer {
  name: "conv3_relu"
  type: "ReLU"
  bottom: "conv3"
  top: "conv3"
}
layer {
  name: "pool3"
  type: "Pooling"
  bottom: "conv3"
  top: "pool3"
  pooling_param {
    pool: MAX
    kernel_size: 2
    stride: 2
  }
}
layer {
  name: "fc4_300"
  type: "InnerProduct"
  bottom: "pool3"
  top: "fc4_300"
  inner_product_param {
    num_output: 300
    weight_filler {
      type: "xavier"
    }
  }
}
layer {
  name: "fc4_relu"
  type: "ReLU"
  bottom: "fc4_300"
  top: "fc4_300"
}
layer {
  name: "fc5_116"
  type: "InnerProduct"
  bottom: "fc4_300"
  top: "fc5_classes"
  inner_product_param {
    num_output: 116
    weight_filler {
      type: "xavier"
    }
  }
}
layer {
  name: "softmax"
  type: "Softmax"
  bottom: "fc5_classes"
  top: "softmax"
}
layer {
  name: "loss"
  type: "MultinomialLogisticLoss"
  bottom: "softmax"
  bottom: "label"
  top: "loss"
}
layer {
  name: "accuracy_1"
  type: "Accuracy"
  bottom: "fc5_classes"
  bottom: "label"
  top: "accuracy_1"
  accuracy_param {
    top_k: 1
  }
}
layer {
  name: "accuracy_5"
  type: "Accuracy"
  bottom: "fc5_classes"
  bottom: "label"
  top: "accuracy_5"
  accuracy_param {
    top_k: 5
  }
}
layer {
  name: "silence"
  type: "Silence"
  bottom: "accuracy_1"
  bottom: "accuracy_5"
}
I0508 03:28:30.040817 24883 layer_factory.hpp:77] Creating layer data
I0508 03:28:30.042467 24883 net.cpp:100] Creating Layer data
I0508 03:28:30.042498 24883 net.cpp:408] data -> data
I0508 03:28:30.042531 24883 net.cpp:408] data -> label
I0508 03:28:30.245287 25028 db_lmdb.cpp:35] Opened lmdb ../local_data/lmdb/RTSD/AHE/train/lmdb
I0508 03:28:30.278136 24883 data_layer.cpp:41] output data size: 1024,3,48,48
I0508 03:28:30.353415 24883 net.cpp:150] Setting up data
I0508 03:28:30.353463 24883 net.cpp:157] Top shape: 1024 3 48 48 (7077888)
I0508 03:28:30.353469 24883 net.cpp:157] Top shape: 1024 (1024)
I0508 03:28:30.353472 24883 net.cpp:165] Memory required for data: 28315648
I0508 03:28:30.353483 24883 layer_factory.hpp:77] Creating layer label_data_1_split
I0508 03:28:30.353497 24883 net.cpp:100] Creating Layer label_data_1_split
I0508 03:28:30.353507 24883 net.cpp:434] label_data_1_split <- label
I0508 03:28:30.353521 24883 net.cpp:408] label_data_1_split -> label_data_1_split_0
I0508 03:28:30.353534 24883 net.cpp:408] label_data_1_split -> label_data_1_split_1
I0508 03:28:30.353543 24883 net.cpp:408] label_data_1_split -> label_data_1_split_2
I0508 03:28:30.353636 24883 net.cpp:150] Setting up label_data_1_split
I0508 03:28:30.353646 24883 net.cpp:157] Top shape: 1024 (1024)
I0508 03:28:30.353649 24883 net.cpp:157] Top shape: 1024 (1024)
I0508 03:28:30.353653 24883 net.cpp:157] Top shape: 1024 (1024)
I0508 03:28:30.353655 24883 net.cpp:165] Memory required for data: 28327936
I0508 03:28:30.353660 24883 layer_factory.hpp:77] Creating layer conv1
I0508 03:28:30.353677 24883 net.cpp:100] Creating Layer conv1
I0508 03:28:30.353682 24883 net.cpp:434] conv1 <- data
I0508 03:28:30.353688 24883 net.cpp:408] conv1 -> conv1
I0508 03:28:30.490742 25053 blocking_queue.cpp:50] Waiting for data
I0508 03:28:30.790242 24883 net.cpp:150] Setting up conv1
I0508 03:28:30.790271 24883 net.cpp:157] Top shape: 1024 100 42 42 (180633600)
I0508 03:28:30.790277 24883 net.cpp:165] Memory required for data: 750862336
I0508 03:28:30.790302 24883 layer_factory.hpp:77] Creating layer conv1_relu
I0508 03:28:30.790315 24883 net.cpp:100] Creating Layer conv1_relu
I0508 03:28:30.790321 24883 net.cpp:434] conv1_relu <- conv1
I0508 03:28:30.790331 24883 net.cpp:395] conv1_relu -> conv1 (in-place)
I0508 03:28:30.790606 24883 net.cpp:150] Setting up conv1_relu
I0508 03:28:30.790622 24883 net.cpp:157] Top shape: 1024 100 42 42 (180633600)
I0508 03:28:30.790628 24883 net.cpp:165] Memory required for data: 1473396736
I0508 03:28:30.790632 24883 layer_factory.hpp:77] Creating layer pool1
I0508 03:28:30.790647 24883 net.cpp:100] Creating Layer pool1
I0508 03:28:30.790654 24883 net.cpp:434] pool1 <- conv1
I0508 03:28:30.790663 24883 net.cpp:408] pool1 -> pool1
I0508 03:28:30.790740 24883 net.cpp:150] Setting up pool1
I0508 03:28:30.790751 24883 net.cpp:157] Top shape: 1024 100 21 21 (45158400)
I0508 03:28:30.790756 24883 net.cpp:165] Memory required for data: 1654030336
I0508 03:28:30.790760 24883 layer_factory.hpp:77] Creating layer conv2
I0508 03:28:30.790773 24883 net.cpp:100] Creating Layer conv2
I0508 03:28:30.790779 24883 net.cpp:434] conv2 <- pool1
I0508 03:28:30.790788 24883 net.cpp:408] conv2 -> conv2
I0508 03:28:30.807772 24883 net.cpp:150] Setting up conv2
I0508 03:28:30.807801 24883 net.cpp:157] Top shape: 1024 150 18 18 (49766400)
I0508 03:28:30.807806 24883 net.cpp:165] Memory required for data: 1853095936
I0508 03:28:30.807821 24883 layer_factory.hpp:77] Creating layer conv2_relu
I0508 03:28:30.807833 24883 net.cpp:100] Creating Layer conv2_relu
I0508 03:28:30.807838 24883 net.cpp:434] conv2_relu <- conv2
I0508 03:28:30.807845 24883 net.cpp:395] conv2_relu -> conv2 (in-place)
I0508 03:28:30.808094 24883 net.cpp:150] Setting up conv2_relu
I0508 03:28:30.808109 24883 net.cpp:157] Top shape: 1024 150 18 18 (49766400)
I0508 03:28:30.808113 24883 net.cpp:165] Memory required for data: 2052161536
I0508 03:28:30.808117 24883 layer_factory.hpp:77] Creating layer pool2
I0508 03:28:30.808126 24883 net.cpp:100] Creating Layer pool2
I0508 03:28:30.808132 24883 net.cpp:434] pool2 <- conv2
I0508 03:28:30.808141 24883 net.cpp:408] pool2 -> pool2
I0508 03:28:30.808202 24883 net.cpp:150] Setting up pool2
I0508 03:28:30.808212 24883 net.cpp:157] Top shape: 1024 150 9 9 (12441600)
I0508 03:28:30.808218 24883 net.cpp:165] Memory required for data: 2101927936
I0508 03:28:30.808223 24883 layer_factory.hpp:77] Creating layer conv3
I0508 03:28:30.808238 24883 net.cpp:100] Creating Layer conv3
I0508 03:28:30.808243 24883 net.cpp:434] conv3 <- pool2
I0508 03:28:30.808279 24883 net.cpp:408] conv3 -> conv3
I0508 03:28:30.814162 24883 net.cpp:150] Setting up conv3
I0508 03:28:30.814182 24883 net.cpp:157] Top shape: 1024 250 6 6 (9216000)
I0508 03:28:30.814188 24883 net.cpp:165] Memory required for data: 2138791936
I0508 03:28:30.814201 24883 layer_factory.hpp:77] Creating layer conv3_relu
I0508 03:28:30.814210 24883 net.cpp:100] Creating Layer conv3_relu
I0508 03:28:30.814216 24883 net.cpp:434] conv3_relu <- conv3
I0508 03:28:30.814224 24883 net.cpp:395] conv3_relu -> conv3 (in-place)
I0508 03:28:30.814456 24883 net.cpp:150] Setting up conv3_relu
I0508 03:28:30.814472 24883 net.cpp:157] Top shape: 1024 250 6 6 (9216000)
I0508 03:28:30.814478 24883 net.cpp:165] Memory required for data: 2175655936
I0508 03:28:30.814482 24883 layer_factory.hpp:77] Creating layer pool3
I0508 03:28:30.814491 24883 net.cpp:100] Creating Layer pool3
I0508 03:28:30.814496 24883 net.cpp:434] pool3 <- conv3
I0508 03:28:30.814502 24883 net.cpp:408] pool3 -> pool3
I0508 03:28:30.814559 24883 net.cpp:150] Setting up pool3
I0508 03:28:30.814568 24883 net.cpp:157] Top shape: 1024 250 3 3 (2304000)
I0508 03:28:30.814573 24883 net.cpp:165] Memory required for data: 2184871936
I0508 03:28:30.814576 24883 layer_factory.hpp:77] Creating layer fc4_300
I0508 03:28:30.814584 24883 net.cpp:100] Creating Layer fc4_300
I0508 03:28:30.814590 24883 net.cpp:434] fc4_300 <- pool3
I0508 03:28:30.814597 24883 net.cpp:408] fc4_300 -> fc4_300
I0508 03:28:30.823164 24883 net.cpp:150] Setting up fc4_300
I0508 03:28:30.823187 24883 net.cpp:157] Top shape: 1024 300 (307200)
I0508 03:28:30.823191 24883 net.cpp:165] Memory required for data: 2186100736
I0508 03:28:30.823201 24883 layer_factory.hpp:77] Creating layer fc4_relu
I0508 03:28:30.823210 24883 net.cpp:100] Creating Layer fc4_relu
I0508 03:28:30.823215 24883 net.cpp:434] fc4_relu <- fc4_300
I0508 03:28:30.823222 24883 net.cpp:395] fc4_relu -> fc4_300 (in-place)
I0508 03:28:30.831275 24883 net.cpp:150] Setting up fc4_relu
I0508 03:28:30.831297 24883 net.cpp:157] Top shape: 1024 300 (307200)
I0508 03:28:30.831301 24883 net.cpp:165] Memory required for data: 2187329536
I0508 03:28:30.831305 24883 layer_factory.hpp:77] Creating layer fc5_116
I0508 03:28:30.831318 24883 net.cpp:100] Creating Layer fc5_116
I0508 03:28:30.831323 24883 net.cpp:434] fc5_116 <- fc4_300
I0508 03:28:30.831331 24883 net.cpp:408] fc5_116 -> fc5_classes
I0508 03:28:30.839190 24883 net.cpp:150] Setting up fc5_116
I0508 03:28:30.839211 24883 net.cpp:157] Top shape: 1024 116 (118784)
I0508 03:28:30.839216 24883 net.cpp:165] Memory required for data: 2187804672
I0508 03:28:30.839231 24883 layer_factory.hpp:77] Creating layer fc5_classes_fc5_116_0_split
I0508 03:28:30.839241 24883 net.cpp:100] Creating Layer fc5_classes_fc5_116_0_split
I0508 03:28:30.839246 24883 net.cpp:434] fc5_classes_fc5_116_0_split <- fc5_classes
I0508 03:28:30.839253 24883 net.cpp:408] fc5_classes_fc5_116_0_split -> fc5_classes_fc5_116_0_split_0
I0508 03:28:30.839262 24883 net.cpp:408] fc5_classes_fc5_116_0_split -> fc5_classes_fc5_116_0_split_1
I0508 03:28:30.839274 24883 net.cpp:408] fc5_classes_fc5_116_0_split -> fc5_classes_fc5_116_0_split_2
I0508 03:28:30.839341 24883 net.cpp:150] Setting up fc5_classes_fc5_116_0_split
I0508 03:28:30.839351 24883 net.cpp:157] Top shape: 1024 116 (118784)
I0508 03:28:30.839356 24883 net.cpp:157] Top shape: 1024 116 (118784)
I0508 03:28:30.839361 24883 net.cpp:157] Top shape: 1024 116 (118784)
I0508 03:28:30.839366 24883 net.cpp:165] Memory required for data: 2189230080
I0508 03:28:30.839370 24883 layer_factory.hpp:77] Creating layer softmax
I0508 03:28:30.839380 24883 net.cpp:100] Creating Layer softmax
I0508 03:28:30.839385 24883 net.cpp:434] softmax <- fc5_classes_fc5_116_0_split_0
I0508 03:28:30.839392 24883 net.cpp:408] softmax -> softmax
I0508 03:28:30.839706 24883 net.cpp:150] Setting up softmax
I0508 03:28:30.839726 24883 net.cpp:157] Top shape: 1024 116 (118784)
I0508 03:28:30.839732 24883 net.cpp:165] Memory required for data: 2189705216
I0508 03:28:30.839736 24883 layer_factory.hpp:77] Creating layer loss
I0508 03:28:30.839767 24883 net.cpp:100] Creating Layer loss
I0508 03:28:30.839774 24883 net.cpp:434] loss <- softmax
I0508 03:28:30.839781 24883 net.cpp:434] loss <- label_data_1_split_0
I0508 03:28:30.839787 24883 net.cpp:408] loss -> loss
…
