…
I0508 07:33:28.038528 17182 solver.cpp:93] Creating training net from train_net file: ./Prototxt/experiment_15/RTSD/histeq/trial_2/train.prototxt
I0508 07:33:28.038986 17182 net.cpp:58] Initializing net from parameters: 
state {
  phase: TRAIN
  level: 0
  stage: ""
}
layer {
  name: "data"
  type: "Data"
  top: "data"
  top: "label"
  include {
    phase: TRAIN
  }
  transform_param {
    scale: 0.0039215689
    mirror: false
    crop_size: 48
    mean_value: 134
    mean_value: 128
    mean_value: 128
  }
  data_param {
    source: "../local_data/lmdb/RTSD/histeq/train/lmdb"
    batch_size: 1024
    backend: LMDB
  }
}
layer {
  name: "conv1"
  type: "Convolution"
  bottom: "data"
  top: "conv1"
  convolution_param {
    num_output: 100
    pad: 0
    kernel_size: 7
    group: 1
    stride: 1
    weight_filler {
      type: "xavier"
    }
  }
}
layer {
  name: "conv1_prescale"
  type: "Scale"
  bottom: "conv1"
  top: "conv1"
  param {
    lr_mult: 0
    decay_mult: 0
  }
  scale_param {
    filler {
      value: 0.6666
    }
    bias_term: false
  }
}
layer {
  name: "conv1_sTanH"
  type: "TanH"
  bottom: "conv1"
  top: "conv1"
}
layer {
  name: "conv1_postscale"
  type: "Scale"
  bottom: "conv1"
  top: "conv1"
  param {
    lr_mult: 0
    decay_mult: 0
  }
  scale_param {
    filler {
      value: 1.7159
    }
    bias_term: false
  }
}
layer {
  name: "pool1"
  type: "Pooling"
  bottom: "conv1"
  top: "pool1"
  pooling_param {
    pool: MAX
    kernel_size: 2
    stride: 2
  }
}
layer {
  name: "conv2"
  type: "Convolution"
  bottom: "pool1"
  top: "conv2"
  convolution_param {
    num_output: 150
    pad: 0
    kernel_size: 4
    group: 2
    stride: 1
    weight_filler {
      type: "xavier"
    }
  }
}
layer {
  name: "conv2_prescale"
  type: "Scale"
  bottom: "conv2"
  top: "conv2"
  param {
    lr_mult: 0
    decay_mult: 0
  }
  scale_param {
    filler {
      value: 0.6666
    }
    bias_term: false
  }
}
layer {
  name: "conv2_sTanH"
  type: "TanH"
  bottom: "conv2"
  top: "conv2"
}
layer {
  name: "conv2_postscale"
  type: "Scale"
  bottom: "conv2"
  top: "conv2"
  param {
    lr_mult: 0
    decay_mult: 0
  }
  scale_param {
    filler {
      value: 1.7159
    }
    bias_term: false
  }
}
layer {
  name: "pool2"
  type: "Pooling"
  bottom: "conv2"
  top: "pool2"
  pooling_param {
    pool: MAX
    kernel_size: 2
    stride: 2
  }
}
layer {
  name: "conv3"
  type: "Convolution"
  bottom: "pool2"
  top: "conv3"
  convolution_param {
    num_output: 250
    pad: 0
    kernel_size: 4
    group: 2
    stride: 1
    weight_filler {
      type: "xavier"
    }
  }
}
layer {
  name: "conv3_prescale"
  type: "Scale"
  bottom: "conv3"
  top: "conv3"
  param {
    lr_mult: 0
    decay_mult: 0
  }
  scale_param {
    filler {
      value: 0.6666
    }
    bias_term: false
  }
}
layer {
  name: "conv3_sTanH"
  type: "TanH"
  bottom: "conv3"
  top: "conv3"
}
layer {
  name: "conv3_postscale"
  type: "Scale"
  bottom: "conv3"
  top: "conv3"
  param {
    lr_mult: 0
    decay_mult: 0
  }
  scale_param {
    filler {
      value: 1.7159
    }
    bias_term: false
  }
}
layer {
  name: "pool3"
  type: "Pooling"
  bottom: "conv3"
  top: "pool3"
  pooling_param {
    pool: MAX
    kernel_size: 2
    stride: 2
  }
}
layer {
  name: "fc4_300"
  type: "InnerProduct"
  bottom: "pool3"
  top: "fc4_300"
  inner_product_param {
    num_output: 300
    weight_filler {
      type: "xavier"
    }
  }
}
layer {
  name: "fc4_prescale"
  type: "Scale"
  bottom: "fc4_300"
  top: "fc4_300"
  param {
    lr_mult: 0
    decay_mult: 0
  }
  scale_param {
    filler {
      value: 0.6666
    }
    bias_term: false
  }
}
layer {
  name: "fc4_sTanH"
  type: "TanH"
  bottom: "fc4_300"
  top: "fc4_300"
}
layer {
  name: "fc4_postscale"
  type: "Scale"
  bottom: "fc4_300"
  top: "fc4_300"
  param {
    lr_mult: 0
    decay_mult: 0
  }
  scale_param {
    filler {
      value: 1.7159
    }
    bias_term: false
  }
}
layer {
  name: "fc5_116"
  type: "InnerProduct"
  bottom: "fc4_300"
  top: "fc5_classes"
  inner_product_param {
    num_output: 116
    weight_filler {
      type: "xavier"
    }
  }
}
layer {
  name: "softmax"
  type: "Softmax"
  bottom: "fc5_classes"
  top: "softmax"
}
layer {
  name: "loss"
  type: "MultinomialLogisticLoss"
  bottom: "softmax"
  bottom: "label"
  top: "loss"
}
layer {
  name: "accuracy_1"
  type: "Accuracy"
  bottom: "fc5_classes"
  bottom: "label"
  top: "accuracy_1"
  accuracy_param {
    top_k: 1
  }
}
layer {
  name: "accuracy_5"
  type: "Accuracy"
  bottom: "fc5_classes"
  bottom: "label"
  top: "accuracy_5"
  accuracy_param {
    top_k: 5
  }
}
layer {
  name: "silence"
  type: "Silence"
  bottom: "accuracy_1"
  bottom: "accuracy_5"
}
I0508 07:33:28.039146 17182 layer_factory.hpp:77] Creating layer data
I0508 07:33:28.040225 17182 net.cpp:100] Creating Layer data
I0508 07:33:28.040240 17182 net.cpp:408] data -> data
I0508 07:33:28.040263 17182 net.cpp:408] data -> label
I0508 07:33:28.044910 17304 db_lmdb.cpp:35] Opened lmdb ../local_data/lmdb/RTSD/histeq/train/lmdb
I0508 07:33:28.062474 17182 data_layer.cpp:41] output data size: 1024,3,48,48
I0508 07:33:28.128482 17182 net.cpp:150] Setting up data
I0508 07:33:28.128511 17182 net.cpp:157] Top shape: 1024 3 48 48 (7077888)
I0508 07:33:28.128517 17182 net.cpp:157] Top shape: 1024 (1024)
I0508 07:33:28.128520 17182 net.cpp:165] Memory required for data: 28315648
I0508 07:33:28.128531 17182 layer_factory.hpp:77] Creating layer label_data_1_split
I0508 07:33:28.128545 17182 net.cpp:100] Creating Layer label_data_1_split
I0508 07:33:28.128551 17182 net.cpp:434] label_data_1_split <- label
I0508 07:33:28.128563 17182 net.cpp:408] label_data_1_split -> label_data_1_split_0
I0508 07:33:28.128576 17182 net.cpp:408] label_data_1_split -> label_data_1_split_1
I0508 07:33:28.128585 17182 net.cpp:408] label_data_1_split -> label_data_1_split_2
I0508 07:33:28.128671 17182 net.cpp:150] Setting up label_data_1_split
I0508 07:33:28.128681 17182 net.cpp:157] Top shape: 1024 (1024)
I0508 07:33:28.128685 17182 net.cpp:157] Top shape: 1024 (1024)
I0508 07:33:28.128690 17182 net.cpp:157] Top shape: 1024 (1024)
I0508 07:33:28.128691 17182 net.cpp:165] Memory required for data: 28327936
I0508 07:33:28.128695 17182 layer_factory.hpp:77] Creating layer conv1
I0508 07:33:28.128712 17182 net.cpp:100] Creating Layer conv1
I0508 07:33:28.128717 17182 net.cpp:434] conv1 <- data
I0508 07:33:28.128724 17182 net.cpp:408] conv1 -> conv1
I0508 07:33:28.501127 17182 net.cpp:150] Setting up conv1
I0508 07:33:28.501158 17182 net.cpp:157] Top shape: 1024 100 42 42 (180633600)
I0508 07:33:28.501164 17182 net.cpp:165] Memory required for data: 750862336
I0508 07:33:28.501188 17182 layer_factory.hpp:77] Creating layer conv1_prescale
I0508 07:33:28.501202 17182 net.cpp:100] Creating Layer conv1_prescale
I0508 07:33:28.501211 17182 net.cpp:434] conv1_prescale <- conv1
I0508 07:33:28.501219 17182 net.cpp:395] conv1_prescale -> conv1 (in-place)
I0508 07:33:28.501348 17182 net.cpp:150] Setting up conv1_prescale
I0508 07:33:28.501358 17182 net.cpp:157] Top shape: 1024 100 42 42 (180633600)
I0508 07:33:28.501364 17182 net.cpp:165] Memory required for data: 1473396736
I0508 07:33:28.501374 17182 layer_factory.hpp:77] Creating layer conv1_sTanH
I0508 07:33:28.501384 17182 net.cpp:100] Creating Layer conv1_sTanH
I0508 07:33:28.501389 17182 net.cpp:434] conv1_sTanH <- conv1
I0508 07:33:28.501394 17182 net.cpp:395] conv1_sTanH -> conv1 (in-place)
I0508 07:33:28.501631 17182 net.cpp:150] Setting up conv1_sTanH
I0508 07:33:28.501646 17182 net.cpp:157] Top shape: 1024 100 42 42 (180633600)
I0508 07:33:28.501673 17182 net.cpp:165] Memory required for data: 2195931136
I0508 07:33:28.501678 17182 layer_factory.hpp:77] Creating layer conv1_postscale
I0508 07:33:28.501688 17182 net.cpp:100] Creating Layer conv1_postscale
I0508 07:33:28.501693 17182 net.cpp:434] conv1_postscale <- conv1
I0508 07:33:28.501699 17182 net.cpp:395] conv1_postscale -> conv1 (in-place)
I0508 07:33:28.501819 17182 net.cpp:150] Setting up conv1_postscale
I0508 07:33:28.501829 17182 net.cpp:157] Top shape: 1024 100 42 42 (180633600)
I0508 07:33:28.501833 17182 net.cpp:165] Memory required for data: 2918465536
I0508 07:33:28.501840 17182 layer_factory.hpp:77] Creating layer pool1
I0508 07:33:28.501850 17182 net.cpp:100] Creating Layer pool1
I0508 07:33:28.501855 17182 net.cpp:434] pool1 <- conv1
I0508 07:33:28.501862 17182 net.cpp:408] pool1 -> pool1
I0508 07:33:28.501919 17182 net.cpp:150] Setting up pool1
I0508 07:33:28.501929 17182 net.cpp:157] Top shape: 1024 100 21 21 (45158400)
I0508 07:33:28.501934 17182 net.cpp:165] Memory required for data: 3099099136
I0508 07:33:28.501937 17182 layer_factory.hpp:77] Creating layer conv2
I0508 07:33:28.501950 17182 net.cpp:100] Creating Layer conv2
I0508 07:33:28.501955 17182 net.cpp:434] conv2 <- pool1
I0508 07:33:28.501961 17182 net.cpp:408] conv2 -> conv2
I0508 07:33:28.508275 17182 net.cpp:150] Setting up conv2
I0508 07:33:28.508296 17182 net.cpp:157] Top shape: 1024 150 18 18 (49766400)
I0508 07:33:28.508301 17182 net.cpp:165] Memory required for data: 3298164736
I0508 07:33:28.508312 17182 layer_factory.hpp:77] Creating layer conv2_prescale
I0508 07:33:28.508325 17182 net.cpp:100] Creating Layer conv2_prescale
I0508 07:33:28.508332 17182 net.cpp:434] conv2_prescale <- conv2
I0508 07:33:28.508339 17182 net.cpp:395] conv2_prescale -> conv2 (in-place)
I0508 07:33:28.508461 17182 net.cpp:150] Setting up conv2_prescale
I0508 07:33:28.508472 17182 net.cpp:157] Top shape: 1024 150 18 18 (49766400)
I0508 07:33:28.508478 17182 net.cpp:165] Memory required for data: 3497230336
I0508 07:33:28.508484 17182 layer_factory.hpp:77] Creating layer conv2_sTanH
I0508 07:33:28.508491 17182 net.cpp:100] Creating Layer conv2_sTanH
I0508 07:33:28.508496 17182 net.cpp:434] conv2_sTanH <- conv2
I0508 07:33:28.508505 17182 net.cpp:395] conv2_sTanH -> conv2 (in-place)
I0508 07:33:28.508739 17182 net.cpp:150] Setting up conv2_sTanH
I0508 07:33:28.508754 17182 net.cpp:157] Top shape: 1024 150 18 18 (49766400)
I0508 07:33:28.508759 17182 net.cpp:165] Memory required for data: 3696295936
I0508 07:33:28.508764 17182 layer_factory.hpp:77] Creating layer conv2_postscale
I0508 07:33:28.508772 17182 net.cpp:100] Creating Layer conv2_postscale
I0508 07:33:28.508779 17182 net.cpp:434] conv2_postscale <- conv2
I0508 07:33:28.508786 17182 net.cpp:395] conv2_postscale -> conv2 (in-place)
I0508 07:33:28.508908 17182 net.cpp:150] Setting up conv2_postscale
I0508 07:33:28.508919 17182 net.cpp:157] Top shape: 1024 150 18 18 (49766400)
I0508 07:33:28.508922 17182 net.cpp:165] Memory required for data: 3895361536
I0508 07:33:28.508929 17182 layer_factory.hpp:77] Creating layer pool2
I0508 07:33:28.508937 17182 net.cpp:100] Creating Layer pool2
I0508 07:33:28.508944 17182 net.cpp:434] pool2 <- conv2
I0508 07:33:28.508949 17182 net.cpp:408] pool2 -> pool2
I0508 07:33:28.509002 17182 net.cpp:150] Setting up pool2
I0508 07:33:28.509012 17182 net.cpp:157] Top shape: 1024 150 9 9 (12441600)
I0508 07:33:28.509017 17182 net.cpp:165] Memory required for data: 3945127936
I0508 07:33:28.509021 17182 layer_factory.hpp:77] Creating layer conv3
I0508 07:33:28.509032 17182 net.cpp:100] Creating Layer conv3
I0508 07:33:28.509038 17182 net.cpp:434] conv3 <- pool2
I0508 07:33:28.509050 17182 net.cpp:408] conv3 -> conv3
I0508 07:33:28.528429 17182 net.cpp:150] Setting up conv3
I0508 07:33:28.528452 17182 net.cpp:157] Top shape: 1024 250 6 6 (9216000)
I0508 07:33:28.528460 17182 net.cpp:165] Memory required for data: 3981991936
I0508 07:33:28.528475 17182 layer_factory.hpp:77] Creating layer conv3_prescale
I0508 07:33:28.528501 17182 net.cpp:100] Creating Layer conv3_prescale
I0508 07:33:28.528508 17182 net.cpp:434] conv3_prescale <- conv3
I0508 07:33:28.528518 17182 net.cpp:395] conv3_prescale -> conv3 (in-place)
I0508 07:33:28.528645 17182 net.cpp:150] Setting up conv3_prescale
I0508 07:33:28.528656 17182 net.cpp:157] Top shape: 1024 250 6 6 (9216000)
I0508 07:33:28.528662 17182 net.cpp:165] Memory required for data: 4018855936
I0508 07:33:28.528668 17182 layer_factory.hpp:77] Creating layer conv3_sTanH
I0508 07:33:28.528676 17182 net.cpp:100] Creating Layer conv3_sTanH
I0508 07:33:28.528682 17182 net.cpp:434] conv3_sTanH <- conv3
I0508 07:33:28.528688 17182 net.cpp:395] conv3_sTanH -> conv3 (in-place)
I0508 07:33:28.528920 17182 net.cpp:150] Setting up conv3_sTanH
I0508 07:33:28.528934 17182 net.cpp:157] Top shape: 1024 250 6 6 (9216000)
I0508 07:33:28.528940 17182 net.cpp:165] Memory required for data: 4055719936
I0508 07:33:28.528944 17182 layer_factory.hpp:77] Creating layer conv3_postscale
I0508 07:33:28.528954 17182 net.cpp:100] Creating Layer conv3_postscale
I0508 07:33:28.528960 17182 net.cpp:434] conv3_postscale <- conv3
I0508 07:33:28.528967 17182 net.cpp:395] conv3_postscale -> conv3 (in-place)
I0508 07:33:28.529086 17182 net.cpp:150] Setting up conv3_postscale
I0508 07:33:28.529098 17182 net.cpp:157] Top shape: 1024 250 6 6 (9216000)
I0508 07:33:28.529103 17182 net.cpp:165] Memory required for data: 4092583936
I0508 07:33:28.529109 17182 layer_factory.hpp:77] Creating layer pool3
I0508 07:33:28.529124 17182 net.cpp:100] Creating Layer pool3
I0508 07:33:28.529129 17182 net.cpp:434] pool3 <- conv3
I0508 07:33:28.529136 17182 net.cpp:408] pool3 -> pool3
I0508 07:33:28.529188 17182 net.cpp:150] Setting up pool3
I0508 07:33:28.529198 17182 net.cpp:157] Top shape: 1024 250 3 3 (2304000)
I0508 07:33:28.529203 17182 net.cpp:165] Memory required for data: 4101799936
I0508 07:33:28.529207 17182 layer_factory.hpp:77] Creating layer fc4_300
I0508 07:33:28.529216 17182 net.cpp:100] Creating Layer fc4_300
I0508 07:33:28.529222 17182 net.cpp:434] fc4_300 <- pool3
I0508 07:33:28.529232 17182 net.cpp:408] fc4_300 -> fc4_300
I0508 07:33:28.536326 17182 net.cpp:150] Setting up fc4_300
I0508 07:33:28.536348 17182 net.cpp:157] Top shape: 1024 300 (307200)
I0508 07:33:28.536355 17182 net.cpp:165] Memory required for data: 4103028736
I0508 07:33:28.536363 17182 layer_factory.hpp:77] Creating layer fc4_prescale
I0508 07:33:28.536373 17182 net.cpp:100] Creating Layer fc4_prescale
I0508 07:33:28.536379 17182 net.cpp:434] fc4_prescale <- fc4_300
I0508 07:33:28.536388 17182 net.cpp:395] fc4_prescale -> fc4_300 (in-place)
I0508 07:33:28.536504 17182 net.cpp:150] Setting up fc4_prescale
I0508 07:33:28.536514 17182 net.cpp:157] Top shape: 1024 300 (307200)
I0508 07:33:28.536520 17182 net.cpp:165] Memory required for data: 4104257536
I0508 07:33:28.536525 17182 layer_factory.hpp:77] Creating layer fc4_sTanH
I0508 07:33:28.536532 17182 net.cpp:100] Creating Layer fc4_sTanH
I0508 07:33:28.536537 17182 net.cpp:434] fc4_sTanH <- fc4_300
I0508 07:33:28.536543 17182 net.cpp:395] fc4_sTanH -> fc4_300 (in-place)
I0508 07:33:28.539273 17182 net.cpp:150] Setting up fc4_sTanH
I0508 07:33:28.539297 17182 net.cpp:157] Top shape: 1024 300 (307200)
I0508 07:33:28.539304 17182 net.cpp:165] Memory required for data: 4105486336
I0508 07:33:28.539309 17182 layer_factory.hpp:77] Creating layer fc4_postscale
I0508 07:33:28.539319 17182 net.cpp:100] Creating Layer fc4_postscale
I0508 07:33:28.539326 17182 net.cpp:434] fc4_postscale <- fc4_300
I0508 07:33:28.539336 17182 net.cpp:395] fc4_postscale -> fc4_300 (in-place)
I0508 07:33:28.539471 17182 net.cpp:150] Setting up fc4_postscale
I0508 07:33:28.539482 17182 net.cpp:157] Top shape: 1024 300 (307200)
I0508 07:33:28.539486 17182 net.cpp:165] Memory required for data: 4106715136
I0508 07:33:28.539494 17182 layer_factory.hpp:77] Creating layer fc5_116
I0508 07:33:28.539505 17182 net.cpp:100] Creating Layer fc5_116
I0508 07:33:28.539511 17182 net.cpp:434] fc5_116 <- fc4_300
I0508 07:33:28.539520 17182 net.cpp:408] fc5_116 -> fc5_classes
I0508 07:33:28.541446 17182 net.cpp:150] Setting up fc5_116
I0508 07:33:28.541466 17182 net.cpp:157] Top shape: 1024 116 (118784)
I0508 07:33:28.541472 17182 net.cpp:165] Memory required for data: 4107190272
I0508 07:33:28.541487 17182 layer_factory.hpp:77] Creating layer fc5_classes_fc5_116_0_split
I0508 07:33:28.541498 17182 net.cpp:100] Creating Layer fc5_classes_fc5_116_0_split
I0508 07:33:28.541507 17182 net.cpp:434] fc5_classes_fc5_116_0_split <- fc5_classes
I0508 07:33:28.541515 17182 net.cpp:408] fc5_classes_fc5_116_0_split -> fc5_classes_fc5_116_0_split_0
I0508 07:33:28.541524 17182 net.cpp:408] fc5_classes_fc5_116_0_split -> fc5_classes_fc5_116_0_split_1
I0508 07:33:28.541534 17182 net.cpp:408] fc5_classes_fc5_116_0_split -> fc5_classes_fc5_116_0_split_2
I0508 07:33:28.541604 17182 net.cpp:150] Setting up fc5_classes_fc5_116_0_split
I0508 07:33:28.541613 17182 net.cpp:157] Top shape: 1024 116 (118784)
I0508 07:33:28.541618 17182 net.cpp:157] Top shape: 1024 116 (118784)
I0508 07:33:28.541625 17182 net.cpp:157] Top shape: 1024 116 (118784)
I0508 07:33:28.541627 17182 net.cpp:165] Memory required for data: 4108615680
I0508 07:33:28.541631 17182 layer_factory.hpp:77] Creating layer softmax
I0508 07:33:28.541638 17182 net.cpp:100] Creating Layer softmax
I0508 07:33:28.541645 17182 net.cpp:434] softmax <- fc5_classes_fc5_116_0_split_0
I0508 07:33:28.541651 17182 net.cpp:408] softmax -> softmax
I0508 07:33:28.541967 17182 net.cpp:150] Setting up softmax
I0508 07:33:28.541983 17182 net.cpp:157] Top shape: 1024 116 (118784)
I0508 07:33:28.541990 17182 net.cpp:165] Memory required for data: 4109090816
I0508 07:33:28.541993 17182 layer_factory.hpp:77] Creating layer loss
I0508 07:33:28.542003 17182 net.cpp:100] Creating Layer loss
I0508 07:33:28.542009 17182 net.cpp:434] loss <- softmax
I0508 07:33:28.542016 17182 net.cpp:434] loss <- label_data_1_split_0
I0508 07:33:28.542021 17182 net.cpp:408] loss -> loss
…
