…
I0410 01:45:55.348371 14753 net.cpp:322] The NetState phase (0) differed from the phase (1) specified by a rule in layer accuracy_5
I0410 01:45:55.348475 14753 net.cpp:58] Initializing net from parameters: 
state {
  phase: TRAIN
  level: 0
  stage: ""
}
layer {
  name: "data"
  type: "Data"
  top: "data"
  top: "label"
  include {
    phase: TRAIN
  }
  transform_param {
    mirror: false
    crop_size: 48
    mean_value: 130
    mean_value: 123
    mean_value: 137
  }
  data_param {
    source: "../local_data/lmdb/rtsd-r1/histeq/train/lmdb"
    batch_size: 1024
    backend: LMDB
  }
}
layer {
  name: "conv1"
  type: "Convolution"
  bottom: "data"
  top: "conv1"
  convolution_param {
    num_output: 100
    pad: 0
    kernel_size: 7
    group: 1
    stride: 1
    weight_filler {
      type: "xavier"
    }
  }
}
layer {
  name: "conv1_sTanH"
  type: "TanH"
  bottom: "conv1"
  top: "conv1"
}
layer {
  name: "pool1"
  type: "Pooling"
  bottom: "conv1"
  top: "pool1"
  pooling_param {
    pool: MAX
    kernel_size: 2
    stride: 2
  }
}
layer {
  name: "conv2"
  type: "Convolution"
  bottom: "pool1"
  top: "conv2"
  convolution_param {
    num_output: 150
    pad: 0
    kernel_size: 4
    group: 1
    stride: 1
    weight_filler {
      type: "xavier"
    }
  }
}
layer {
  name: "conv2_sTanH"
  type: "TanH"
  bottom: "conv2"
  top: "conv2"
}
layer {
  name: "pool2"
  type: "Pooling"
  bottom: "conv2"
  top: "pool2"
  pooling_param {
    pool: MAX
    kernel_size: 2
    stride: 2
  }
}
layer {
  name: "conv3"
  type: "Convolution"
  bottom: "pool2"
  top: "conv3"
  convolution_param {
    num_output: 250
    pad: 0
    kernel_size: 4
    group: 1
    stride: 1
    weight_filler {
      type: "xavier"
    }
  }
}
layer {
  name: "conv3_sTanH"
  type: "TanH"
  bottom: "conv3"
  top: "conv3"
}
layer {
  name: "pool3"
  type: "Pooling"
  bottom: "conv3"
  top: "pool3"
  pooling_param {
    pool: MAX
    kernel_size: 2
    stride: 2
  }
}
layer {
  name: "fc4_300"
  type: "InnerProduct"
  bottom: "pool3"
  top: "fc4_300"
  inner_product_param {
    num_output: 300
    weight_filler {
      type: "xavier"
    }
  }
}
layer {
  name: "fc4_sTanH"
  type: "TanH"
  bottom: "fc4_300"
  top: "fc4_300"
}
layer {
  name: "drop4"
  type: "Dropout"
  bottom: "fc4_300"
  top: "fc4_300"
  dropout_param {
    dropout_ratio: 0.4
  }
}
layer {
  name: "fc5_67"
  type: "InnerProduct"
  bottom: "fc4_300"
  top: "fc5_classes"
  inner_product_param {
    num_output: 67
    weight_filler {
      type: "xavier"
    }
  }
}
layer {
  name: "loss"
  type: "SoftmaxWithLoss"
  bottom: "fc5_classes"
  bottom: "label"
  top: "loss"
}
I0410 01:45:55.348572 14753 layer_factory.hpp:77] Creating layer data
I0410 01:45:55.349691 14753 net.cpp:100] Creating Layer data
I0410 01:45:55.349711 14753 net.cpp:408] data -> data
I0410 01:45:55.349740 14753 net.cpp:408] data -> label
I0410 01:45:55.351377 14830 db_lmdb.cpp:35] Opened lmdb ../local_data/lmdb/rtsd-r1/histeq/train/lmdb
I0410 01:45:55.367471 14753 data_layer.cpp:41] output data size: 1024,3,48,48
I0410 01:45:55.409999 14753 net.cpp:150] Setting up data
I0410 01:45:55.410034 14753 net.cpp:157] Top shape: 1024 3 48 48 (7077888)
I0410 01:45:55.410070 14753 net.cpp:157] Top shape: 1024 (1024)
I0410 01:45:55.410078 14753 net.cpp:165] Memory required for data: 28315648
I0410 01:45:55.410090 14753 layer_factory.hpp:77] Creating layer conv1
I0410 01:45:55.410118 14753 net.cpp:100] Creating Layer conv1
I0410 01:45:55.410127 14753 net.cpp:434] conv1 <- data
I0410 01:45:55.410145 14753 net.cpp:408] conv1 -> conv1
I0410 01:45:55.683751 14753 net.cpp:150] Setting up conv1
I0410 01:45:55.683784 14753 net.cpp:157] Top shape: 1024 100 42 42 (180633600)
I0410 01:45:55.683790 14753 net.cpp:165] Memory required for data: 750850048
I0410 01:45:55.683831 14753 layer_factory.hpp:77] Creating layer conv1_sTanH
I0410 01:45:55.683851 14753 net.cpp:100] Creating Layer conv1_sTanH
I0410 01:45:55.683858 14753 net.cpp:434] conv1_sTanH <- conv1
I0410 01:45:55.683868 14753 net.cpp:395] conv1_sTanH -> conv1 (in-place)
I0410 01:45:55.684080 14753 net.cpp:150] Setting up conv1_sTanH
I0410 01:45:55.684095 14753 net.cpp:157] Top shape: 1024 100 42 42 (180633600)
I0410 01:45:55.684101 14753 net.cpp:165] Memory required for data: 1473384448
I0410 01:45:55.684108 14753 layer_factory.hpp:77] Creating layer pool1
I0410 01:45:55.684118 14753 net.cpp:100] Creating Layer pool1
I0410 01:45:55.684125 14753 net.cpp:434] pool1 <- conv1
I0410 01:45:55.684135 14753 net.cpp:408] pool1 -> pool1
I0410 01:45:55.684196 14753 net.cpp:150] Setting up pool1
I0410 01:45:55.684208 14753 net.cpp:157] Top shape: 1024 100 21 21 (45158400)
I0410 01:45:55.684213 14753 net.cpp:165] Memory required for data: 1654018048
I0410 01:45:55.684219 14753 layer_factory.hpp:77] Creating layer conv2
I0410 01:45:55.684236 14753 net.cpp:100] Creating Layer conv2
I0410 01:45:55.684242 14753 net.cpp:434] conv2 <- pool1
I0410 01:45:55.684250 14753 net.cpp:408] conv2 -> conv2
I0410 01:45:55.691917 14753 net.cpp:150] Setting up conv2
I0410 01:45:55.691937 14753 net.cpp:157] Top shape: 1024 150 18 18 (49766400)
I0410 01:45:55.691944 14753 net.cpp:165] Memory required for data: 1853083648
I0410 01:45:55.691959 14753 layer_factory.hpp:77] Creating layer conv2_sTanH
I0410 01:45:55.691972 14753 net.cpp:100] Creating Layer conv2_sTanH
I0410 01:45:55.691979 14753 net.cpp:434] conv2_sTanH <- conv2
I0410 01:45:55.691988 14753 net.cpp:395] conv2_sTanH -> conv2 (in-place)
I0410 01:45:55.692734 14753 net.cpp:150] Setting up conv2_sTanH
I0410 01:45:55.692750 14753 net.cpp:157] Top shape: 1024 150 18 18 (49766400)
I0410 01:45:55.692756 14753 net.cpp:165] Memory required for data: 2052149248
I0410 01:45:55.692762 14753 layer_factory.hpp:77] Creating layer pool2
I0410 01:45:55.692772 14753 net.cpp:100] Creating Layer pool2
I0410 01:45:55.692780 14753 net.cpp:434] pool2 <- conv2
I0410 01:45:55.692790 14753 net.cpp:408] pool2 -> pool2
I0410 01:45:55.692842 14753 net.cpp:150] Setting up pool2
I0410 01:45:55.692852 14753 net.cpp:157] Top shape: 1024 150 9 9 (12441600)
I0410 01:45:55.692857 14753 net.cpp:165] Memory required for data: 2101915648
I0410 01:45:55.692863 14753 layer_factory.hpp:77] Creating layer conv3
I0410 01:45:55.692875 14753 net.cpp:100] Creating Layer conv3
I0410 01:45:55.692883 14753 net.cpp:434] conv3 <- pool2
I0410 01:45:55.692891 14753 net.cpp:408] conv3 -> conv3
I0410 01:45:55.698216 14753 net.cpp:150] Setting up conv3
I0410 01:45:55.698235 14753 net.cpp:157] Top shape: 1024 250 6 6 (9216000)
I0410 01:45:55.698240 14753 net.cpp:165] Memory required for data: 2138779648
I0410 01:45:55.698267 14753 layer_factory.hpp:77] Creating layer conv3_sTanH
I0410 01:45:55.698281 14753 net.cpp:100] Creating Layer conv3_sTanH
I0410 01:45:55.698288 14753 net.cpp:434] conv3_sTanH <- conv3
I0410 01:45:55.698297 14753 net.cpp:395] conv3_sTanH -> conv3 (in-place)
I0410 01:45:55.699074 14753 net.cpp:150] Setting up conv3_sTanH
I0410 01:45:55.699091 14753 net.cpp:157] Top shape: 1024 250 6 6 (9216000)
I0410 01:45:55.699096 14753 net.cpp:165] Memory required for data: 2175643648
I0410 01:45:55.699102 14753 layer_factory.hpp:77] Creating layer pool3
I0410 01:45:55.699115 14753 net.cpp:100] Creating Layer pool3
I0410 01:45:55.699122 14753 net.cpp:434] pool3 <- conv3
I0410 01:45:55.699162 14753 net.cpp:408] pool3 -> pool3
I0410 01:45:55.699218 14753 net.cpp:150] Setting up pool3
I0410 01:45:55.699229 14753 net.cpp:157] Top shape: 1024 250 3 3 (2304000)
I0410 01:45:55.699234 14753 net.cpp:165] Memory required for data: 2184859648
I0410 01:45:55.699240 14753 layer_factory.hpp:77] Creating layer fc4_300
I0410 01:45:55.699250 14753 net.cpp:100] Creating Layer fc4_300
I0410 01:45:55.699257 14753 net.cpp:434] fc4_300 <- pool3
I0410 01:45:55.699266 14753 net.cpp:408] fc4_300 -> fc4_300
I0410 01:45:55.704512 14753 net.cpp:150] Setting up fc4_300
I0410 01:45:55.704530 14753 net.cpp:157] Top shape: 1024 300 (307200)
I0410 01:45:55.704535 14753 net.cpp:165] Memory required for data: 2186088448
I0410 01:45:55.704557 14753 layer_factory.hpp:77] Creating layer fc4_sTanH
I0410 01:45:55.704569 14753 net.cpp:100] Creating Layer fc4_sTanH
I0410 01:45:55.704577 14753 net.cpp:434] fc4_sTanH <- fc4_300
I0410 01:45:55.704586 14753 net.cpp:395] fc4_sTanH -> fc4_300 (in-place)
I0410 01:45:55.704767 14753 net.cpp:150] Setting up fc4_sTanH
I0410 01:45:55.704780 14753 net.cpp:157] Top shape: 1024 300 (307200)
I0410 01:45:55.704785 14753 net.cpp:165] Memory required for data: 2187317248
I0410 01:45:55.704792 14753 layer_factory.hpp:77] Creating layer drop4
I0410 01:45:55.704802 14753 net.cpp:100] Creating Layer drop4
I0410 01:45:55.704808 14753 net.cpp:434] drop4 <- fc4_300
I0410 01:45:55.704818 14753 net.cpp:395] drop4 -> fc4_300 (in-place)
I0410 01:45:55.704855 14753 net.cpp:150] Setting up drop4
I0410 01:45:55.704865 14753 net.cpp:157] Top shape: 1024 300 (307200)
I0410 01:45:55.704870 14753 net.cpp:165] Memory required for data: 2188546048
I0410 01:45:55.704875 14753 layer_factory.hpp:77] Creating layer fc5_67
I0410 01:45:55.704885 14753 net.cpp:100] Creating Layer fc5_67
I0410 01:45:55.704892 14753 net.cpp:434] fc5_67 <- fc4_300
I0410 01:45:55.704901 14753 net.cpp:408] fc5_67 -> fc5_classes
I0410 01:45:55.706086 14753 net.cpp:150] Setting up fc5_67
I0410 01:45:55.706104 14753 net.cpp:157] Top shape: 1024 67 (68608)
I0410 01:45:55.706109 14753 net.cpp:165] Memory required for data: 2188820480
I0410 01:45:55.706123 14753 layer_factory.hpp:77] Creating layer loss
I0410 01:45:55.706135 14753 net.cpp:100] Creating Layer loss
I0410 01:45:55.706143 14753 net.cpp:434] loss <- fc5_classes
I0410 01:45:55.706151 14753 net.cpp:434] loss <- label
I0410 01:45:55.706161 14753 net.cpp:408] loss -> loss
I0410 01:45:55.706179 14753 layer_factory.hpp:77] Creating layer loss
…
I0410 01:45:55.706866 14753 solver.cpp:193] Creating test net (#0) specified by test_net file: ./Prototxt/experiment_7/rtsd-r1/histeq/trial_4/test.prototxt
I0410 01:45:55.707008 14753 net.cpp:58] Initializing net from parameters: 
state {
  phase: TEST
}
layer {
  name: "data"
  type: "Data"
  top: "data"
  top: "label"
  include {
    phase: TEST
  }
  transform_param {
    mirror: false
    crop_size: 48
    mean_value: 124
    mean_value: 121
    mean_value: 142
  }
  data_param {
    source: "../local_data/lmdb/rtsd-r1/histeq/test/lmdb"
    batch_size: 1024
    backend: LMDB
  }
}
layer {
  name: "conv1"
  type: "Convolution"
  bottom: "data"
  top: "conv1"
  convolution_param {
    num_output: 100
    pad: 0
    kernel_size: 7
    group: 1
    stride: 1
    weight_filler {
      type: "xavier"
    }
  }
}
layer {
  name: "conv1_sTanH"
  type: "TanH"
  bottom: "conv1"
  top: "conv1"
}
layer {
  name: "pool1"
  type: "Pooling"
  bottom: "conv1"
  top: "pool1"
  pooling_param {
    pool: MAX
    kernel_size: 2
    stride: 2
  }
}
layer {
  name: "conv2"
  type: "Convolution"
  bottom: "pool1"
  top: "conv2"
  convolution_param {
    num_output: 150
    pad: 0
    kernel_size: 4
    group: 1
    stride: 1
    weight_filler {
      type: "xavier"
    }
  }
}
layer {
  name: "conv2_sTanH"
  type: "TanH"
  bottom: "conv2"
  top: "conv2"
}
layer {
  name: "pool2"
  type: "Pooling"
  bottom: "conv2"
  top: "pool2"
  pooling_param {
    pool: MAX
    kernel_size: 2
    stride: 2
  }
}
layer {
  name: "conv3"
  type: "Convolution"
  bottom: "pool2"
  top: "conv3"
  convolution_param {
    num_output: 250
    pad: 0
    kernel_size: 4
    group: 1
    stride: 1
    weight_filler {
      type: "xavier"
    }
  }
}
layer {
  name: "conv3_sTanH"
  type: "TanH"
  bottom: "conv3"
  top: "conv3"
}
layer {
  name: "pool3"
  type: "Pooling"
  bottom: "conv3"
  top: "pool3"
  pooling_param {
    pool: MAX
    kernel_size: 2
    stride: 2
  }
}
layer {
  name: "fc4_300"
  type: "InnerProduct"
  bottom: "pool3"
  top: "fc4_300"
  inner_product_param {
    num_output: 300
    weight_filler {
      type: "xavier"
    }
  }
}
layer {
  name: "fc4_sTanH"
  type: "TanH"
  bottom: "fc4_300"
  top: "fc4_300"
}
layer {
  name: "drop4"
  type: "Dropout"
  bottom: "fc4_300"
  top: "fc4_300"
  dropout_param {
    dropout_ratio: 0.4
  }
}
layer {
  name: "fc5_67"
  type: "InnerProduct"
  bottom: "fc4_300"
  top: "fc5_classes"
  inner_product_param {
    num_output: 67
    weight_filler {
      type: "xavier"
    }
  }
}
layer {
  name: "loss"
  type: "SoftmaxWithLoss"
  bottom: "fc5_classes"
  bottom: "label"
  top: "loss"
}
layer {
  name: "accuracy_1"
  type: "Accuracy"
  bottom: "fc5_classes"
  bottom: "label"
  top: "accuracy_1"
  include {
    phase: TEST
  }
  accuracy_param {
    top_k: 1
  }
}
layer {
  name: "accuracy_5"
  type: "Accuracy"
  bottom: "fc5_classes"
  bottom: "label"
  top: "accuracy_5"
  include {
    phase: TEST
  }
  accuracy_param {
    top_k: 5
  }
}
I0410 01:45:55.707134 14753 layer_factory.hpp:77] Creating layer data
I0410 01:45:55.707734 14753 net.cpp:100] Creating Layer data
I0410 01:45:55.707747 14753 net.cpp:408] data -> data
I0410 01:45:55.707762 14753 net.cpp:408] data -> label
I0410 01:45:55.709026 14847 db_lmdb.cpp:35] Opened lmdb ../local_data/lmdb/rtsd-r1/histeq/test/lmdb
I0410 01:45:55.709167 14753 data_layer.cpp:41] output data size: 1024,3,48,48
I0410 01:45:55.751072 14753 net.cpp:150] Setting up data
I0410 01:45:55.751104 14753 net.cpp:157] Top shape: 1024 3 48 48 (7077888)
I0410 01:45:55.751113 14753 net.cpp:157] Top shape: 1024 (1024)
I0410 01:45:55.751118 14753 net.cpp:165] Memory required for data: 28315648
I0410 01:45:55.751127 14753 layer_factory.hpp:77] Creating layer label_data_1_split
I0410 01:45:55.751145 14753 net.cpp:100] Creating Layer label_data_1_split
I0410 01:45:55.751153 14753 net.cpp:434] label_data_1_split <- label
I0410 01:45:55.751165 14753 net.cpp:408] label_data_1_split -> label_data_1_split_0
I0410 01:45:55.751184 14753 net.cpp:408] label_data_1_split -> label_data_1_split_1
I0410 01:45:55.751195 14753 net.cpp:408] label_data_1_split -> label_data_1_split_2
I0410 01:45:55.751324 14753 net.cpp:150] Setting up label_data_1_split
I0410 01:45:55.751335 14753 net.cpp:157] Top shape: 1024 (1024)
I0410 01:45:55.751343 14753 net.cpp:157] Top shape: 1024 (1024)
I0410 01:45:55.751349 14753 net.cpp:157] Top shape: 1024 (1024)
I0410 01:45:55.751354 14753 net.cpp:165] Memory required for data: 28327936
I0410 01:45:55.751359 14753 layer_factory.hpp:77] Creating layer conv1
I0410 01:45:55.751377 14753 net.cpp:100] Creating Layer conv1
I0410 01:45:55.751384 14753 net.cpp:434] conv1 <- data
I0410 01:45:55.751394 14753 net.cpp:408] conv1 -> conv1
I0410 01:45:55.753303 14753 net.cpp:150] Setting up conv1
I0410 01:45:55.753320 14753 net.cpp:157] Top shape: 1024 100 42 42 (180633600)
I0410 01:45:55.753326 14753 net.cpp:165] Memory required for data: 750862336
I0410 01:45:55.753345 14753 layer_factory.hpp:77] Creating layer conv1_sTanH
I0410 01:45:55.753355 14753 net.cpp:100] Creating Layer conv1_sTanH
I0410 01:45:55.753363 14753 net.cpp:434] conv1_sTanH <- conv1
I0410 01:45:55.753373 14753 net.cpp:395] conv1_sTanH -> conv1 (in-place)
I0410 01:45:55.753559 14753 net.cpp:150] Setting up conv1_sTanH
I0410 01:45:55.753573 14753 net.cpp:157] Top shape: 1024 100 42 42 (180633600)
I0410 01:45:55.753578 14753 net.cpp:165] Memory required for data: 1473396736
I0410 01:45:55.753584 14753 layer_factory.hpp:77] Creating layer pool1
I0410 01:45:55.753597 14753 net.cpp:100] Creating Layer pool1
I0410 01:45:55.753604 14753 net.cpp:434] pool1 <- conv1
I0410 01:45:55.753613 14753 net.cpp:408] pool1 -> pool1
I0410 01:45:55.753667 14753 net.cpp:150] Setting up pool1
I0410 01:45:55.753679 14753 net.cpp:157] Top shape: 1024 100 21 21 (45158400)
I0410 01:45:55.753684 14753 net.cpp:165] Memory required for data: 1654030336
I0410 01:45:55.753689 14753 layer_factory.hpp:77] Creating layer conv2
I0410 01:45:55.753701 14753 net.cpp:100] Creating Layer conv2
I0410 01:45:55.753708 14753 net.cpp:434] conv2 <- pool1
I0410 01:45:55.753717 14753 net.cpp:408] conv2 -> conv2
I0410 01:45:55.770833 14753 net.cpp:150] Setting up conv2
I0410 01:45:55.770854 14753 net.cpp:157] Top shape: 1024 150 18 18 (49766400)
I0410 01:45:55.770860 14753 net.cpp:165] Memory required for data: 1853095936
I0410 01:45:55.770876 14753 layer_factory.hpp:77] Creating layer conv2_sTanH
I0410 01:45:55.770889 14753 net.cpp:100] Creating Layer conv2_sTanH
I0410 01:45:55.770900 14753 net.cpp:434] conv2_sTanH <- conv2
I0410 01:45:55.770908 14753 net.cpp:395] conv2_sTanH -> conv2 (in-place)
I0410 01:45:55.773613 14753 net.cpp:150] Setting up conv2_sTanH
I0410 01:45:55.773632 14753 net.cpp:157] Top shape: 1024 150 18 18 (49766400)
I0410 01:45:55.773636 14753 net.cpp:165] Memory required for data: 2052161536
I0410 01:45:55.773643 14753 layer_factory.hpp:77] Creating layer pool2
I0410 01:45:55.773655 14753 net.cpp:100] Creating Layer pool2
I0410 01:45:55.773663 14753 net.cpp:434] pool2 <- conv2
I0410 01:45:55.773674 14753 net.cpp:408] pool2 -> pool2
I0410 01:45:55.773731 14753 net.cpp:150] Setting up pool2
I0410 01:45:55.773743 14753 net.cpp:157] Top shape: 1024 150 9 9 (12441600)
I0410 01:45:55.773748 14753 net.cpp:165] Memory required for data: 2101927936
I0410 01:45:55.773753 14753 layer_factory.hpp:77] Creating layer conv3
I0410 01:45:55.773769 14753 net.cpp:100] Creating Layer conv3
I0410 01:45:55.773779 14753 net.cpp:434] conv3 <- pool2
I0410 01:45:55.773789 14753 net.cpp:408] conv3 -> conv3
I0410 01:45:55.779520 14753 net.cpp:150] Setting up conv3
I0410 01:45:55.779541 14753 net.cpp:157] Top shape: 1024 250 6 6 (9216000)
I0410 01:45:55.779547 14753 net.cpp:165] Memory required for data: 2138791936
I0410 01:45:55.779562 14753 layer_factory.hpp:77] Creating layer conv3_sTanH
I0410 01:45:55.779574 14753 net.cpp:100] Creating Layer conv3_sTanH
I0410 01:45:55.779582 14753 net.cpp:434] conv3_sTanH <- conv3
I0410 01:45:55.779592 14753 net.cpp:395] conv3_sTanH -> conv3 (in-place)
I0410 01:45:55.781898 14753 net.cpp:150] Setting up conv3_sTanH
I0410 01:45:55.781919 14753 net.cpp:157] Top shape: 1024 250 6 6 (9216000)
I0410 01:45:55.781949 14753 net.cpp:165] Memory required for data: 2175655936
I0410 01:45:55.781961 14753 layer_factory.hpp:77] Creating layer pool3
I0410 01:45:55.781973 14753 net.cpp:100] Creating Layer pool3
I0410 01:45:55.781980 14753 net.cpp:434] pool3 <- conv3
I0410 01:45:55.781991 14753 net.cpp:408] pool3 -> pool3
I0410 01:45:55.782047 14753 net.cpp:150] Setting up pool3
I0410 01:45:55.782058 14753 net.cpp:157] Top shape: 1024 250 3 3 (2304000)
I0410 01:45:55.782064 14753 net.cpp:165] Memory required for data: 2184871936
I0410 01:45:55.782069 14753 layer_factory.hpp:77] Creating layer fc4_300
I0410 01:45:55.782079 14753 net.cpp:100] Creating Layer fc4_300
I0410 01:45:55.782088 14753 net.cpp:434] fc4_300 <- pool3
I0410 01:45:55.782096 14753 net.cpp:408] fc4_300 -> fc4_300
I0410 01:45:55.787647 14753 net.cpp:150] Setting up fc4_300
I0410 01:45:55.787665 14753 net.cpp:157] Top shape: 1024 300 (307200)
I0410 01:45:55.787672 14753 net.cpp:165] Memory required for data: 2186100736
I0410 01:45:55.787683 14753 layer_factory.hpp:77] Creating layer fc4_sTanH
I0410 01:45:55.787695 14753 net.cpp:100] Creating Layer fc4_sTanH
I0410 01:45:55.787704 14753 net.cpp:434] fc4_sTanH <- fc4_300
I0410 01:45:55.787714 14753 net.cpp:395] fc4_sTanH -> fc4_300 (in-place)
I0410 01:45:55.787917 14753 net.cpp:150] Setting up fc4_sTanH
I0410 01:45:55.787931 14753 net.cpp:157] Top shape: 1024 300 (307200)
I0410 01:45:55.787936 14753 net.cpp:165] Memory required for data: 2187329536
I0410 01:45:55.787942 14753 layer_factory.hpp:77] Creating layer drop4
I0410 01:45:55.787953 14753 net.cpp:100] Creating Layer drop4
I0410 01:45:55.787973 14753 net.cpp:434] drop4 <- fc4_300
I0410 01:45:55.787982 14753 net.cpp:395] drop4 -> fc4_300 (in-place)
I0410 01:45:55.788020 14753 net.cpp:150] Setting up drop4
I0410 01:45:55.788030 14753 net.cpp:157] Top shape: 1024 300 (307200)
I0410 01:45:55.788035 14753 net.cpp:165] Memory required for data: 2188558336
I0410 01:45:55.788040 14753 layer_factory.hpp:77] Creating layer fc5_67
I0410 01:45:55.788049 14753 net.cpp:100] Creating Layer fc5_67
I0410 01:45:55.788058 14753 net.cpp:434] fc5_67 <- fc4_300
I0410 01:45:55.788070 14753 net.cpp:408] fc5_67 -> fc5_classes
I0410 01:45:55.788353 14753 net.cpp:150] Setting up fc5_67
I0410 01:45:55.788367 14753 net.cpp:157] Top shape: 1024 67 (68608)
I0410 01:45:55.788372 14753 net.cpp:165] Memory required for data: 2188832768
I0410 01:45:55.788388 14753 layer_factory.hpp:77] Creating layer fc5_classes_fc5_67_0_split
I0410 01:45:55.788399 14753 net.cpp:100] Creating Layer fc5_classes_fc5_67_0_split
I0410 01:45:55.788408 14753 net.cpp:434] fc5_classes_fc5_67_0_split <- fc5_classes
I0410 01:45:55.788416 14753 net.cpp:408] fc5_classes_fc5_67_0_split -> fc5_classes_fc5_67_0_split_0
I0410 01:45:55.788430 14753 net.cpp:408] fc5_classes_fc5_67_0_split -> fc5_classes_fc5_67_0_split_1
I0410 01:45:55.788442 14753 net.cpp:408] fc5_classes_fc5_67_0_split -> fc5_classes_fc5_67_0_split_2
I0410 01:45:55.788499 14753 net.cpp:150] Setting up fc5_classes_fc5_67_0_split
I0410 01:45:55.788509 14753 net.cpp:157] Top shape: 1024 67 (68608)
I0410 01:45:55.788516 14753 net.cpp:157] Top shape: 1024 67 (68608)
I0410 01:45:55.788522 14753 net.cpp:157] Top shape: 1024 67 (68608)
I0410 01:45:55.788532 14753 net.cpp:165] Memory required for data: 2189656064
I0410 01:45:55.788537 14753 layer_factory.hpp:77] Creating layer loss
I0410 01:45:55.788550 14753 net.cpp:100] Creating Layer loss
I0410 01:45:55.788558 14753 net.cpp:434] loss <- fc5_classes_fc5_67_0_split_0
I0410 01:45:55.788564 14753 net.cpp:434] loss <- label_data_1_split_0
I0410 01:45:55.788573 14753 net.cpp:408] loss -> loss
…
