…
I0416 00:36:38.045982 21612 solver.cpp:93] Creating training net from train_net file: ./Prototxt/experiment_12/rtsd-r3/imajust/trial_5/train.prototxt
I0416 00:36:38.064213 21612 net.cpp:58] Initializing net from parameters: 
state {
  phase: TRAIN
  level: 0
  stage: ""
}
layer {
  name: "data"
  type: "Data"
  top: "data"
  top: "label"
  include {
    phase: TRAIN
  }
  transform_param {
    scale: 0.0039215689
    mirror: false
    crop_size: 48
    mean_value: 118
    mean_value: 112
    mean_value: 112
  }
  data_param {
    source: "../local_data/lmdb/rtsd-r3/imajust/train/lmdb"
    batch_size: 1024
    backend: LMDB
  }
}
layer {
  name: "conv1"
  type: "Convolution"
  bottom: "data"
  top: "conv1"
  convolution_param {
    num_output: 100
    pad: 0
    kernel_size: 7
    group: 1
    stride: 1
    weight_filler {
      type: "xavier"
    }
  }
}
layer {
  name: "conv1_relu"
  type: "ReLU"
  bottom: "conv1"
  top: "conv1"
}
layer {
  name: "pool1"
  type: "Pooling"
  bottom: "conv1"
  top: "pool1"
  pooling_param {
    pool: MAX
    kernel_size: 2
    stride: 2
  }
}
layer {
  name: "conv2"
  type: "Convolution"
  bottom: "pool1"
  top: "conv2"
  convolution_param {
    num_output: 150
    pad: 0
    kernel_size: 4
    group: 1
    stride: 1
    weight_filler {
      type: "xavier"
    }
  }
}
layer {
  name: "conv2_relu"
  type: "ReLU"
  bottom: "conv2"
  top: "conv2"
}
layer {
  name: "pool2"
  type: "Pooling"
  bottom: "conv2"
  top: "pool2"
  pooling_param {
    pool: MAX
    kernel_size: 2
    stride: 2
  }
}
layer {
  name: "conv3"
  type: "Convolution"
  bottom: "pool2"
  top: "conv3"
  convolution_param {
    num_output: 250
    pad: 0
    kernel_size: 4
    group: 1
    stride: 1
    weight_filler {
      type: "xavier"
    }
  }
}
layer {
  name: "conv3_relu"
  type: "ReLU"
  bottom: "conv3"
  top: "conv3"
}
layer {
  name: "pool3"
  type: "Pooling"
  bottom: "conv3"
  top: "pool3"
  pooling_param {
    pool: MAX
    kernel_size: 2
    stride: 2
  }
}
layer {
  name: "fc4_300"
  type: "InnerProduct"
  bottom: "pool3"
  top: "fc4_300"
  inner_product_param {
    num_output: 300
    weight_filler {
      type: "xavier"
    }
  }
}
layer {
  name: "fc4_relu"
  type: "ReLU"
  bottom: "fc4_300"
  top: "fc4_300"
}
layer {
  name: "drop4"
  type: "Dropout"
  bottom: "fc4_300"
  top: "fc4_300"
  dropout_param {
    dropout_ratio: 0.5
  }
}
layer {
  name: "fc5_106"
  type: "InnerProduct"
  bottom: "fc4_300"
  top: "fc5_classes"
  inner_product_param {
    num_output: 106
    weight_filler {
      type: "xavier"
    }
  }
}
layer {
  name: "softmax"
  type: "Softmax"
  bottom: "fc5_classes"
  top: "softmax"
}
layer {
  name: "loss"
  type: "MultinomialLogisticLoss"
  bottom: "softmax"
  bottom: "label"
  top: "loss"
}
layer {
  name: "accuracy_1"
  type: "Accuracy"
  bottom: "fc5_classes"
  bottom: "label"
  top: "accuracy_1"
  accuracy_param {
    top_k: 1
  }
}
layer {
  name: "accuracy_5"
  type: "Accuracy"
  bottom: "fc5_classes"
  bottom: "label"
  top: "accuracy_5"
  accuracy_param {
    top_k: 5
  }
}
layer {
  name: "silence"
  type: "Silence"
  bottom: "accuracy_1"
  bottom: "accuracy_5"
}
I0416 00:36:38.064370 21612 layer_factory.hpp:77] Creating layer data
I0416 00:36:38.065944 21612 net.cpp:100] Creating Layer data
I0416 00:36:38.065963 21612 net.cpp:408] data -> data
I0416 00:36:38.065990 21612 net.cpp:408] data -> label
I0416 00:36:38.070544 21729 db_lmdb.cpp:35] Opened lmdb ../local_data/lmdb/rtsd-r3/imajust/train/lmdb
I0416 00:36:38.091706 21612 data_layer.cpp:41] output data size: 1024,3,48,48
I0416 00:36:38.173923 21612 net.cpp:150] Setting up data
I0416 00:36:38.173955 21612 net.cpp:157] Top shape: 1024 3 48 48 (7077888)
I0416 00:36:38.173962 21612 net.cpp:157] Top shape: 1024 (1024)
I0416 00:36:38.173965 21612 net.cpp:165] Memory required for data: 28315648
I0416 00:36:38.173979 21612 layer_factory.hpp:77] Creating layer label_data_1_split
I0416 00:36:38.173993 21612 net.cpp:100] Creating Layer label_data_1_split
I0416 00:36:38.174005 21612 net.cpp:434] label_data_1_split <- label
I0416 00:36:38.174027 21612 net.cpp:408] label_data_1_split -> label_data_1_split_0
I0416 00:36:38.174048 21612 net.cpp:408] label_data_1_split -> label_data_1_split_1
I0416 00:36:38.174063 21612 net.cpp:408] label_data_1_split -> label_data_1_split_2
I0416 00:36:38.174149 21612 net.cpp:150] Setting up label_data_1_split
I0416 00:36:38.174161 21612 net.cpp:157] Top shape: 1024 (1024)
I0416 00:36:38.174166 21612 net.cpp:157] Top shape: 1024 (1024)
I0416 00:36:38.174170 21612 net.cpp:157] Top shape: 1024 (1024)
I0416 00:36:38.174173 21612 net.cpp:165] Memory required for data: 28327936
I0416 00:36:38.174177 21612 layer_factory.hpp:77] Creating layer conv1
I0416 00:36:38.174197 21612 net.cpp:100] Creating Layer conv1
I0416 00:36:38.174203 21612 net.cpp:434] conv1 <- data
I0416 00:36:38.174209 21612 net.cpp:408] conv1 -> conv1
I0416 00:36:38.497464 21612 net.cpp:150] Setting up conv1
I0416 00:36:38.497493 21612 net.cpp:157] Top shape: 1024 100 42 42 (180633600)
I0416 00:36:38.497496 21612 net.cpp:165] Memory required for data: 750862336
I0416 00:36:38.497517 21612 layer_factory.hpp:77] Creating layer conv1_relu
I0416 00:36:38.497530 21612 net.cpp:100] Creating Layer conv1_relu
I0416 00:36:38.497535 21612 net.cpp:434] conv1_relu <- conv1
I0416 00:36:38.497541 21612 net.cpp:395] conv1_relu -> conv1 (in-place)
I0416 00:36:38.497736 21612 net.cpp:150] Setting up conv1_relu
I0416 00:36:38.497748 21612 net.cpp:157] Top shape: 1024 100 42 42 (180633600)
I0416 00:36:38.497752 21612 net.cpp:165] Memory required for data: 1473396736
I0416 00:36:38.497756 21612 layer_factory.hpp:77] Creating layer pool1
I0416 00:36:38.497766 21612 net.cpp:100] Creating Layer pool1
I0416 00:36:38.497771 21612 net.cpp:434] pool1 <- conv1
I0416 00:36:38.497776 21612 net.cpp:408] pool1 -> pool1
I0416 00:36:38.497828 21612 net.cpp:150] Setting up pool1
I0416 00:36:38.497834 21612 net.cpp:157] Top shape: 1024 100 21 21 (45158400)
I0416 00:36:38.497838 21612 net.cpp:165] Memory required for data: 1654030336
I0416 00:36:38.497840 21612 layer_factory.hpp:77] Creating layer conv2
I0416 00:36:38.497851 21612 net.cpp:100] Creating Layer conv2
I0416 00:36:38.497855 21612 net.cpp:434] conv2 <- pool1
I0416 00:36:38.497860 21612 net.cpp:408] conv2 -> conv2
I0416 00:36:38.504448 21612 net.cpp:150] Setting up conv2
I0416 00:36:38.504465 21612 net.cpp:157] Top shape: 1024 150 18 18 (49766400)
I0416 00:36:38.504469 21612 net.cpp:165] Memory required for data: 1853095936
I0416 00:36:38.504480 21612 layer_factory.hpp:77] Creating layer conv2_relu
I0416 00:36:38.504488 21612 net.cpp:100] Creating Layer conv2_relu
I0416 00:36:38.504492 21612 net.cpp:434] conv2_relu <- conv2
I0416 00:36:38.504498 21612 net.cpp:395] conv2_relu -> conv2 (in-place)
I0416 00:36:38.506330 21612 net.cpp:150] Setting up conv2_relu
I0416 00:36:38.506345 21612 net.cpp:157] Top shape: 1024 150 18 18 (49766400)
I0416 00:36:38.506350 21612 net.cpp:165] Memory required for data: 2052161536
I0416 00:36:38.506355 21612 layer_factory.hpp:77] Creating layer pool2
I0416 00:36:38.506361 21612 net.cpp:100] Creating Layer pool2
I0416 00:36:38.506366 21612 net.cpp:434] pool2 <- conv2
I0416 00:36:38.506371 21612 net.cpp:408] pool2 -> pool2
I0416 00:36:38.506417 21612 net.cpp:150] Setting up pool2
I0416 00:36:38.506425 21612 net.cpp:157] Top shape: 1024 150 9 9 (12441600)
I0416 00:36:38.506428 21612 net.cpp:165] Memory required for data: 2101927936
I0416 00:36:38.506431 21612 layer_factory.hpp:77] Creating layer conv3
I0416 00:36:38.506464 21612 net.cpp:100] Creating Layer conv3
I0416 00:36:38.506469 21612 net.cpp:434] conv3 <- pool2
I0416 00:36:38.506475 21612 net.cpp:408] conv3 -> conv3
I0416 00:36:38.513485 21612 net.cpp:150] Setting up conv3
I0416 00:36:38.513505 21612 net.cpp:157] Top shape: 1024 250 6 6 (9216000)
I0416 00:36:38.513509 21612 net.cpp:165] Memory required for data: 2138791936
I0416 00:36:38.513519 21612 layer_factory.hpp:77] Creating layer conv3_relu
I0416 00:36:38.513527 21612 net.cpp:100] Creating Layer conv3_relu
I0416 00:36:38.513531 21612 net.cpp:434] conv3_relu <- conv3
I0416 00:36:38.513537 21612 net.cpp:395] conv3_relu -> conv3 (in-place)
I0416 00:36:38.514283 21612 net.cpp:150] Setting up conv3_relu
I0416 00:36:38.514299 21612 net.cpp:157] Top shape: 1024 250 6 6 (9216000)
I0416 00:36:38.514304 21612 net.cpp:165] Memory required for data: 2175655936
I0416 00:36:38.514307 21612 layer_factory.hpp:77] Creating layer pool3
I0416 00:36:38.514314 21612 net.cpp:100] Creating Layer pool3
I0416 00:36:38.514319 21612 net.cpp:434] pool3 <- conv3
I0416 00:36:38.514324 21612 net.cpp:408] pool3 -> pool3
I0416 00:36:38.514372 21612 net.cpp:150] Setting up pool3
I0416 00:36:38.514380 21612 net.cpp:157] Top shape: 1024 250 3 3 (2304000)
I0416 00:36:38.514384 21612 net.cpp:165] Memory required for data: 2184871936
I0416 00:36:38.514386 21612 layer_factory.hpp:77] Creating layer fc4_300
I0416 00:36:38.514394 21612 net.cpp:100] Creating Layer fc4_300
I0416 00:36:38.514399 21612 net.cpp:434] fc4_300 <- pool3
I0416 00:36:38.514402 21612 net.cpp:408] fc4_300 -> fc4_300
I0416 00:36:38.519723 21612 net.cpp:150] Setting up fc4_300
I0416 00:36:38.519747 21612 net.cpp:157] Top shape: 1024 300 (307200)
I0416 00:36:38.519750 21612 net.cpp:165] Memory required for data: 2186100736
I0416 00:36:38.519759 21612 layer_factory.hpp:77] Creating layer fc4_relu
I0416 00:36:38.519767 21612 net.cpp:100] Creating Layer fc4_relu
I0416 00:36:38.519773 21612 net.cpp:434] fc4_relu <- fc4_300
I0416 00:36:38.519778 21612 net.cpp:395] fc4_relu -> fc4_300 (in-place)
I0416 00:36:38.519986 21612 net.cpp:150] Setting up fc4_relu
I0416 00:36:38.519997 21612 net.cpp:157] Top shape: 1024 300 (307200)
I0416 00:36:38.520000 21612 net.cpp:165] Memory required for data: 2187329536
I0416 00:36:38.520004 21612 layer_factory.hpp:77] Creating layer drop4
I0416 00:36:38.520011 21612 net.cpp:100] Creating Layer drop4
I0416 00:36:38.520016 21612 net.cpp:434] drop4 <- fc4_300
I0416 00:36:38.520021 21612 net.cpp:395] drop4 -> fc4_300 (in-place)
I0416 00:36:38.520052 21612 net.cpp:150] Setting up drop4
I0416 00:36:38.520059 21612 net.cpp:157] Top shape: 1024 300 (307200)
I0416 00:36:38.520062 21612 net.cpp:165] Memory required for data: 2188558336
I0416 00:36:38.520066 21612 layer_factory.hpp:77] Creating layer fc5_106
I0416 00:36:38.520072 21612 net.cpp:100] Creating Layer fc5_106
I0416 00:36:38.520076 21612 net.cpp:434] fc5_106 <- fc4_300
I0416 00:36:38.520081 21612 net.cpp:408] fc5_106 -> fc5_classes
I0416 00:36:38.521361 21612 net.cpp:150] Setting up fc5_106
I0416 00:36:38.521376 21612 net.cpp:157] Top shape: 1024 106 (108544)
I0416 00:36:38.521381 21612 net.cpp:165] Memory required for data: 2188992512
I0416 00:36:38.521391 21612 layer_factory.hpp:77] Creating layer fc5_classes_fc5_106_0_split
I0416 00:36:38.521400 21612 net.cpp:100] Creating Layer fc5_classes_fc5_106_0_split
I0416 00:36:38.521404 21612 net.cpp:434] fc5_classes_fc5_106_0_split <- fc5_classes
I0416 00:36:38.521409 21612 net.cpp:408] fc5_classes_fc5_106_0_split -> fc5_classes_fc5_106_0_split_0
I0416 00:36:38.521417 21612 net.cpp:408] fc5_classes_fc5_106_0_split -> fc5_classes_fc5_106_0_split_1
I0416 00:36:38.521425 21612 net.cpp:408] fc5_classes_fc5_106_0_split -> fc5_classes_fc5_106_0_split_2
I0416 00:36:38.521476 21612 net.cpp:150] Setting up fc5_classes_fc5_106_0_split
I0416 00:36:38.521482 21612 net.cpp:157] Top shape: 1024 106 (108544)
I0416 00:36:38.521486 21612 net.cpp:157] Top shape: 1024 106 (108544)
I0416 00:36:38.521489 21612 net.cpp:157] Top shape: 1024 106 (108544)
I0416 00:36:38.521492 21612 net.cpp:165] Memory required for data: 2190295040
I0416 00:36:38.521512 21612 layer_factory.hpp:77] Creating layer softmax
I0416 00:36:38.521522 21612 net.cpp:100] Creating Layer softmax
I0416 00:36:38.521528 21612 net.cpp:434] softmax <- fc5_classes_fc5_106_0_split_0
I0416 00:36:38.521533 21612 net.cpp:408] softmax -> softmax
I0416 00:36:38.521780 21612 net.cpp:150] Setting up softmax
I0416 00:36:38.521793 21612 net.cpp:157] Top shape: 1024 106 (108544)
I0416 00:36:38.521796 21612 net.cpp:165] Memory required for data: 2190729216
I0416 00:36:38.521800 21612 layer_factory.hpp:77] Creating layer loss
I0416 00:36:38.521806 21612 net.cpp:100] Creating Layer loss
I0416 00:36:38.521811 21612 net.cpp:434] loss <- softmax
I0416 00:36:38.521816 21612 net.cpp:434] loss <- label_data_1_split_0
I0416 00:36:38.521821 21612 net.cpp:408] loss -> loss
…
