…
I0411 21:34:06.238121 32371 net.cpp:322] The NetState phase (0) differed from the phase (1) specified by a rule in layer accuracy_5
I0411 21:34:06.238286 32371 net.cpp:58] Initializing net from parameters: 
state {
  phase: TRAIN
  level: 0
  stage: ""
}
layer {
  name: "data"
  type: "Data"
  top: "data"
  top: "label"
  include {
    phase: TRAIN
  }
  transform_param {
    scale: 0.0039215689
    mirror: false
    crop_size: 48
    mean_value: 132
    mean_value: 126
    mean_value: 140
  }
  data_param {
    source: "../local_data/lmdb/rtsd-r1/AHE/train/lmdb"
    batch_size: 1024
    backend: LMDB
  }
}
layer {
  name: "conv1"
  type: "Convolution"
  bottom: "data"
  top: "conv1"
  convolution_param {
    num_output: 100
    pad: 0
    kernel_size: 7
    group: 1
    stride: 1
    weight_filler {
      type: "xavier"
    }
  }
}
layer {
  name: "conv1_prescale"
  type: "Scale"
  bottom: "conv1"
  top: "conv1"
  param {
    lr_mult: 0
    decay_mult: 0
  }
  scale_param {
    filler {
      value: 0.6666
    }
    bias_term: false
  }
}
layer {
  name: "conv1_sTanH"
  type: "TanH"
  bottom: "conv1"
  top: "conv1"
}
layer {
  name: "conv1_postscale"
  type: "Scale"
  bottom: "conv1"
  top: "conv1"
  param {
    lr_mult: 0
    decay_mult: 0
  }
  scale_param {
    filler {
      value: 1.7159
    }
    bias_term: false
  }
}
layer {
  name: "pool1"
  type: "Pooling"
  bottom: "conv1"
  top: "pool1"
  pooling_param {
    pool: MAX
    kernel_size: 2
    stride: 2
  }
}
layer {
  name: "conv2"
  type: "Convolution"
  bottom: "pool1"
  top: "conv2"
  convolution_param {
    num_output: 150
    pad: 0
    kernel_size: 4
    group: 1
    stride: 1
    weight_filler {
      type: "xavier"
    }
  }
}
layer {
  name: "conv2_prescale"
  type: "Scale"
  bottom: "conv2"
  top: "conv2"
  param {
    lr_mult: 0
    decay_mult: 0
  }
  scale_param {
    filler {
      value: 0.6666
    }
    bias_term: false
  }
}
layer {
  name: "conv2_sTanH"
  type: "TanH"
  bottom: "conv2"
  top: "conv2"
}
layer {
  name: "conv2_postscale"
  type: "Scale"
  bottom: "conv2"
  top: "conv2"
  param {
    lr_mult: 0
    decay_mult: 0
  }
  scale_param {
    filler {
      value: 1.7159
    }
    bias_term: false
  }
}
layer {
  name: "pool2"
  type: "Pooling"
  bottom: "conv2"
  top: "pool2"
  pooling_param {
    pool: MAX
    kernel_size: 2
    stride: 2
  }
}
layer {
  name: "conv3"
  type: "Convolution"
  bottom: "pool2"
  top: "conv3"
  convolution_param {
    num_output: 250
    pad: 0
    kernel_size: 4
    group: 1
    stride: 1
    weight_filler {
      type: "xavier"
    }
  }
}
layer {
  name: "conv3_prescale"
  type: "Scale"
  bottom: "conv3"
  top: "conv3"
  param {
    lr_mult: 0
    decay_mult: 0
  }
  scale_param {
    filler {
      value: 0.6666
    }
    bias_term: false
  }
}
layer {
  name: "conv3_sTanH"
  type: "TanH"
  bottom: "conv3"
  top: "conv3"
}
layer {
  name: "conv3_postscale"
  type: "Scale"
  bottom: "conv3"
  top: "conv3"
  param {
    lr_mult: 0
    decay_mult: 0
  }
  scale_param {
    filler {
      value: 1.7159
    }
    bias_term: false
  }
}
layer {
  name: "pool3"
  type: "Pooling"
  bottom: "conv3"
  top: "pool3"
  pooling_param {
    pool: MAX
    kernel_size: 2
    stride: 2
  }
}
layer {
  name: "fc4_300"
  type: "InnerProduct"
  bottom: "pool3"
  top: "fc4_300"
  inner_product_param {
    num_output: 300
    weight_filler {
      type: "xavier"
    }
  }
}
layer {
  name: "fc4_prescale"
  type: "Scale"
  bottom: "fc4_300"
  top: "fc4_300"
  param {
    lr_mult: 0
    decay_mult: 0
  }
  scale_param {
    filler {
      value: 0.6666
    }
    bias_term: false
  }
}
layer {
  name: "fc4_sTanH"
  type: "TanH"
  bottom: "fc4_300"
  top: "fc4_300"
}
layer {
  name: "fc4_postscale"
  type: "Scale"
  bottom: "fc4_300"
  top: "fc4_300"
  param {
    lr_mult: 0
    decay_mult: 0
  }
  scale_param {
    filler {
      value: 1.7159
    }
    bias_term: false
  }
}
layer {
  name: "drop4"
  type: "Dropout"
  bottom: "fc4_300"
  top: "fc4_300"
  dropout_param {
    dropout_ratio: 0.1
  }
}
layer {
  name: "fc5_67"
  type: "InnerProduct"
  bottom: "fc4_300"
  top: "fc5_classes"
  inner_product_param {
    num_output: 67
    weight_filler {
      type: "xavier"
    }
  }
}
layer {
  name: "loss"
  type: "SoftmaxWithLoss"
  bottom: "fc5_classes"
  bottom: "label"
  top: "loss"
}
I0411 21:34:06.238416 32371 layer_factory.hpp:77] Creating layer data
I0411 21:34:06.239500 32371 net.cpp:100] Creating Layer data
I0411 21:34:06.239516 32371 net.cpp:408] data -> data
I0411 21:34:06.239539 32371 net.cpp:408] data -> label
I0411 21:34:06.245079 32503 db_lmdb.cpp:35] Opened lmdb ../local_data/lmdb/rtsd-r1/AHE/train/lmdb
I0411 21:34:06.268868 32371 data_layer.cpp:41] output data size: 1024,3,48,48
I0411 21:34:06.320804 32371 net.cpp:150] Setting up data
I0411 21:34:06.320837 32371 net.cpp:157] Top shape: 1024 3 48 48 (7077888)
I0411 21:34:06.320842 32371 net.cpp:157] Top shape: 1024 (1024)
I0411 21:34:06.320844 32371 net.cpp:165] Memory required for data: 28315648
I0411 21:34:06.320854 32371 layer_factory.hpp:77] Creating layer conv1
I0411 21:34:06.320878 32371 net.cpp:100] Creating Layer conv1
I0411 21:34:06.320884 32371 net.cpp:434] conv1 <- data
I0411 21:34:06.320897 32371 net.cpp:408] conv1 -> conv1
I0411 21:34:06.627171 32371 net.cpp:150] Setting up conv1
I0411 21:34:06.627202 32371 net.cpp:157] Top shape: 1024 100 42 42 (180633600)
I0411 21:34:06.627205 32371 net.cpp:165] Memory required for data: 750850048
I0411 21:34:06.627226 32371 layer_factory.hpp:77] Creating layer conv1_prescale
I0411 21:34:06.627251 32371 net.cpp:100] Creating Layer conv1_prescale
I0411 21:34:06.627270 32371 net.cpp:434] conv1_prescale <- conv1
I0411 21:34:06.627276 32371 net.cpp:395] conv1_prescale -> conv1 (in-place)
I0411 21:34:06.627390 32371 net.cpp:150] Setting up conv1_prescale
I0411 21:34:06.627400 32371 net.cpp:157] Top shape: 1024 100 42 42 (180633600)
I0411 21:34:06.627403 32371 net.cpp:165] Memory required for data: 1473384448
I0411 21:34:06.627410 32371 layer_factory.hpp:77] Creating layer conv1_sTanH
I0411 21:34:06.627419 32371 net.cpp:100] Creating Layer conv1_sTanH
I0411 21:34:06.627424 32371 net.cpp:434] conv1_sTanH <- conv1
I0411 21:34:06.627429 32371 net.cpp:395] conv1_sTanH -> conv1 (in-place)
I0411 21:34:06.627641 32371 net.cpp:150] Setting up conv1_sTanH
I0411 21:34:06.627655 32371 net.cpp:157] Top shape: 1024 100 42 42 (180633600)
I0411 21:34:06.627660 32371 net.cpp:165] Memory required for data: 2195918848
I0411 21:34:06.627663 32371 layer_factory.hpp:77] Creating layer conv1_postscale
I0411 21:34:06.627671 32371 net.cpp:100] Creating Layer conv1_postscale
I0411 21:34:06.627676 32371 net.cpp:434] conv1_postscale <- conv1
I0411 21:34:06.627681 32371 net.cpp:395] conv1_postscale -> conv1 (in-place)
I0411 21:34:06.627785 32371 net.cpp:150] Setting up conv1_postscale
I0411 21:34:06.627794 32371 net.cpp:157] Top shape: 1024 100 42 42 (180633600)
I0411 21:34:06.627797 32371 net.cpp:165] Memory required for data: 2918453248
I0411 21:34:06.627802 32371 layer_factory.hpp:77] Creating layer pool1
I0411 21:34:06.627810 32371 net.cpp:100] Creating Layer pool1
I0411 21:34:06.627813 32371 net.cpp:434] pool1 <- conv1
I0411 21:34:06.627820 32371 net.cpp:408] pool1 -> pool1
I0411 21:34:06.627871 32371 net.cpp:150] Setting up pool1
I0411 21:34:06.627912 32371 net.cpp:157] Top shape: 1024 100 21 21 (45158400)
I0411 21:34:06.627918 32371 net.cpp:165] Memory required for data: 3099086848
I0411 21:34:06.627920 32371 layer_factory.hpp:77] Creating layer conv2
I0411 21:34:06.627933 32371 net.cpp:100] Creating Layer conv2
I0411 21:34:06.627938 32371 net.cpp:434] conv2 <- pool1
I0411 21:34:06.627943 32371 net.cpp:408] conv2 -> conv2
I0411 21:34:06.632295 32371 net.cpp:150] Setting up conv2
I0411 21:34:06.632314 32371 net.cpp:157] Top shape: 1024 150 18 18 (49766400)
I0411 21:34:06.632319 32371 net.cpp:165] Memory required for data: 3298152448
I0411 21:34:06.632329 32371 layer_factory.hpp:77] Creating layer conv2_prescale
I0411 21:34:06.632344 32371 net.cpp:100] Creating Layer conv2_prescale
I0411 21:34:06.632349 32371 net.cpp:434] conv2_prescale <- conv2
I0411 21:34:06.632354 32371 net.cpp:395] conv2_prescale -> conv2 (in-place)
I0411 21:34:06.632467 32371 net.cpp:150] Setting up conv2_prescale
I0411 21:34:06.632477 32371 net.cpp:157] Top shape: 1024 150 18 18 (49766400)
I0411 21:34:06.632479 32371 net.cpp:165] Memory required for data: 3497218048
I0411 21:34:06.632485 32371 layer_factory.hpp:77] Creating layer conv2_sTanH
I0411 21:34:06.632493 32371 net.cpp:100] Creating Layer conv2_sTanH
I0411 21:34:06.632498 32371 net.cpp:434] conv2_sTanH <- conv2
I0411 21:34:06.632503 32371 net.cpp:395] conv2_sTanH -> conv2 (in-place)
I0411 21:34:06.633261 32371 net.cpp:150] Setting up conv2_sTanH
I0411 21:34:06.633291 32371 net.cpp:157] Top shape: 1024 150 18 18 (49766400)
I0411 21:34:06.633294 32371 net.cpp:165] Memory required for data: 3696283648
I0411 21:34:06.633297 32371 layer_factory.hpp:77] Creating layer conv2_postscale
I0411 21:34:06.633304 32371 net.cpp:100] Creating Layer conv2_postscale
I0411 21:34:06.633308 32371 net.cpp:434] conv2_postscale <- conv2
I0411 21:34:06.633314 32371 net.cpp:395] conv2_postscale -> conv2 (in-place)
I0411 21:34:06.633415 32371 net.cpp:150] Setting up conv2_postscale
I0411 21:34:06.633427 32371 net.cpp:157] Top shape: 1024 150 18 18 (49766400)
I0411 21:34:06.633431 32371 net.cpp:165] Memory required for data: 3895349248
I0411 21:34:06.633436 32371 layer_factory.hpp:77] Creating layer pool2
I0411 21:34:06.633442 32371 net.cpp:100] Creating Layer pool2
I0411 21:34:06.633445 32371 net.cpp:434] pool2 <- conv2
I0411 21:34:06.633450 32371 net.cpp:408] pool2 -> pool2
I0411 21:34:06.633492 32371 net.cpp:150] Setting up pool2
I0411 21:34:06.633500 32371 net.cpp:157] Top shape: 1024 150 9 9 (12441600)
I0411 21:34:06.633503 32371 net.cpp:165] Memory required for data: 3945115648
I0411 21:34:06.633507 32371 layer_factory.hpp:77] Creating layer conv3
I0411 21:34:06.633514 32371 net.cpp:100] Creating Layer conv3
I0411 21:34:06.633519 32371 net.cpp:434] conv3 <- pool2
I0411 21:34:06.633525 32371 net.cpp:408] conv3 -> conv3
I0411 21:34:06.639050 32371 net.cpp:150] Setting up conv3
I0411 21:34:06.639070 32371 net.cpp:157] Top shape: 1024 250 6 6 (9216000)
I0411 21:34:06.639073 32371 net.cpp:165] Memory required for data: 3981979648
I0411 21:34:06.639083 32371 layer_factory.hpp:77] Creating layer conv3_prescale
I0411 21:34:06.639092 32371 net.cpp:100] Creating Layer conv3_prescale
I0411 21:34:06.639096 32371 net.cpp:434] conv3_prescale <- conv3
I0411 21:34:06.639101 32371 net.cpp:395] conv3_prescale -> conv3 (in-place)
I0411 21:34:06.639200 32371 net.cpp:150] Setting up conv3_prescale
I0411 21:34:06.639209 32371 net.cpp:157] Top shape: 1024 250 6 6 (9216000)
I0411 21:34:06.639212 32371 net.cpp:165] Memory required for data: 4018843648
I0411 21:34:06.639216 32371 layer_factory.hpp:77] Creating layer conv3_sTanH
I0411 21:34:06.639222 32371 net.cpp:100] Creating Layer conv3_sTanH
I0411 21:34:06.639225 32371 net.cpp:434] conv3_sTanH <- conv3
I0411 21:34:06.639231 32371 net.cpp:395] conv3_sTanH -> conv3 (in-place)
I0411 21:34:06.640130 32371 net.cpp:150] Setting up conv3_sTanH
I0411 21:34:06.640147 32371 net.cpp:157] Top shape: 1024 250 6 6 (9216000)
I0411 21:34:06.640151 32371 net.cpp:165] Memory required for data: 4055707648
I0411 21:34:06.640169 32371 layer_factory.hpp:77] Creating layer conv3_postscale
I0411 21:34:06.640182 32371 net.cpp:100] Creating Layer conv3_postscale
I0411 21:34:06.640187 32371 net.cpp:434] conv3_postscale <- conv3
I0411 21:34:06.640192 32371 net.cpp:395] conv3_postscale -> conv3 (in-place)
I0411 21:34:06.640300 32371 net.cpp:150] Setting up conv3_postscale
I0411 21:34:06.640308 32371 net.cpp:157] Top shape: 1024 250 6 6 (9216000)
I0411 21:34:06.640311 32371 net.cpp:165] Memory required for data: 4092571648
I0411 21:34:06.640316 32371 layer_factory.hpp:77] Creating layer pool3
I0411 21:34:06.640322 32371 net.cpp:100] Creating Layer pool3
I0411 21:34:06.640326 32371 net.cpp:434] pool3 <- conv3
I0411 21:34:06.640333 32371 net.cpp:408] pool3 -> pool3
I0411 21:34:06.640374 32371 net.cpp:150] Setting up pool3
I0411 21:34:06.640388 32371 net.cpp:157] Top shape: 1024 250 3 3 (2304000)
I0411 21:34:06.640391 32371 net.cpp:165] Memory required for data: 4101787648
I0411 21:34:06.640393 32371 layer_factory.hpp:77] Creating layer fc4_300
I0411 21:34:06.640405 32371 net.cpp:100] Creating Layer fc4_300
I0411 21:34:06.640410 32371 net.cpp:434] fc4_300 <- pool3
I0411 21:34:06.640415 32371 net.cpp:408] fc4_300 -> fc4_300
I0411 21:34:06.645865 32371 net.cpp:150] Setting up fc4_300
I0411 21:34:06.645882 32371 net.cpp:157] Top shape: 1024 300 (307200)
I0411 21:34:06.645885 32371 net.cpp:165] Memory required for data: 4103016448
I0411 21:34:06.645891 32371 layer_factory.hpp:77] Creating layer fc4_prescale
I0411 21:34:06.645900 32371 net.cpp:100] Creating Layer fc4_prescale
I0411 21:34:06.645902 32371 net.cpp:434] fc4_prescale <- fc4_300
I0411 21:34:06.645910 32371 net.cpp:395] fc4_prescale -> fc4_300 (in-place)
I0411 21:34:06.645998 32371 net.cpp:150] Setting up fc4_prescale
I0411 21:34:06.646008 32371 net.cpp:157] Top shape: 1024 300 (307200)
I0411 21:34:06.646010 32371 net.cpp:165] Memory required for data: 4104245248
I0411 21:34:06.646014 32371 layer_factory.hpp:77] Creating layer fc4_sTanH
I0411 21:34:06.646021 32371 net.cpp:100] Creating Layer fc4_sTanH
I0411 21:34:06.646026 32371 net.cpp:434] fc4_sTanH <- fc4_300
I0411 21:34:06.646030 32371 net.cpp:395] fc4_sTanH -> fc4_300 (in-place)
I0411 21:34:06.646224 32371 net.cpp:150] Setting up fc4_sTanH
I0411 21:34:06.646236 32371 net.cpp:157] Top shape: 1024 300 (307200)
I0411 21:34:06.646241 32371 net.cpp:165] Memory required for data: 4105474048
I0411 21:34:06.646245 32371 layer_factory.hpp:77] Creating layer fc4_postscale
I0411 21:34:06.646252 32371 net.cpp:100] Creating Layer fc4_postscale
I0411 21:34:06.646257 32371 net.cpp:434] fc4_postscale <- fc4_300
I0411 21:34:06.646262 32371 net.cpp:395] fc4_postscale -> fc4_300 (in-place)
I0411 21:34:06.646360 32371 net.cpp:150] Setting up fc4_postscale
I0411 21:34:06.646369 32371 net.cpp:157] Top shape: 1024 300 (307200)
I0411 21:34:06.646373 32371 net.cpp:165] Memory required for data: 4106702848
I0411 21:34:06.646376 32371 layer_factory.hpp:77] Creating layer drop4
I0411 21:34:06.646384 32371 net.cpp:100] Creating Layer drop4
I0411 21:34:06.646387 32371 net.cpp:434] drop4 <- fc4_300
I0411 21:34:06.646394 32371 net.cpp:395] drop4 -> fc4_300 (in-place)
I0411 21:34:06.646420 32371 net.cpp:150] Setting up drop4
I0411 21:34:06.646427 32371 net.cpp:157] Top shape: 1024 300 (307200)
I0411 21:34:06.646430 32371 net.cpp:165] Memory required for data: 4107931648
I0411 21:34:06.646433 32371 layer_factory.hpp:77] Creating layer fc5_67
I0411 21:34:06.646441 32371 net.cpp:100] Creating Layer fc5_67
I0411 21:34:06.646445 32371 net.cpp:434] fc5_67 <- fc4_300
I0411 21:34:06.646450 32371 net.cpp:408] fc5_67 -> fc5_classes
I0411 21:34:06.648140 32371 net.cpp:150] Setting up fc5_67
I0411 21:34:06.648156 32371 net.cpp:157] Top shape: 1024 67 (68608)
I0411 21:34:06.648159 32371 net.cpp:165] Memory required for data: 4108206080
I0411 21:34:06.648171 32371 layer_factory.hpp:77] Creating layer loss
I0411 21:34:06.648180 32371 net.cpp:100] Creating Layer loss
I0411 21:34:06.648183 32371 net.cpp:434] loss <- fc5_classes
I0411 21:34:06.648187 32371 net.cpp:434] loss <- label
I0411 21:34:06.648208 32371 net.cpp:408] loss -> loss
I0411 21:34:06.648223 32371 layer_factory.hpp:77] Creating layer loss
…
I0411 21:34:06.649092 32371 solver.cpp:193] Creating test net (#0) specified by test_net file: ./Prototxt/experiment_9/rtsd-r1/AHE/trial_3/test.prototxt
I0411 21:34:06.649279 32371 net.cpp:58] Initializing net from parameters: 
state {
  phase: TEST
}
layer {
  name: "data"
  type: "Data"
  top: "data"
  top: "label"
  include {
    phase: TEST
  }
  transform_param {
    scale: 0.0039215689
    mirror: false
    crop_size: 48
    mean_value: 126
    mean_value: 124
    mean_value: 145
  }
  data_param {
    source: "../local_data/lmdb/rtsd-r1/AHE/test/lmdb"
    batch_size: 1024
    backend: LMDB
  }
}
layer {
  name: "conv1"
  type: "Convolution"
  bottom: "data"
  top: "conv1"
  convolution_param {
    num_output: 100
    pad: 0
    kernel_size: 7
    group: 1
    stride: 1
    weight_filler {
      type: "xavier"
    }
  }
}
layer {
  name: "conv1_prescale"
  type: "Scale"
  bottom: "conv1"
  top: "conv1"
  param {
    lr_mult: 0
    decay_mult: 0
  }
  scale_param {
    filler {
      value: 0.6666
    }
    bias_term: false
  }
}
layer {
  name: "conv1_sTanH"
  type: "TanH"
  bottom: "conv1"
  top: "conv1"
}
layer {
  name: "conv1_postscale"
  type: "Scale"
  bottom: "conv1"
  top: "conv1"
  param {
    lr_mult: 0
    decay_mult: 0
  }
  scale_param {
    filler {
      value: 1.7159
    }
    bias_term: false
  }
}
layer {
  name: "pool1"
  type: "Pooling"
  bottom: "conv1"
  top: "pool1"
  pooling_param {
    pool: MAX
    kernel_size: 2
    stride: 2
  }
}
layer {
  name: "conv2"
  type: "Convolution"
  bottom: "pool1"
  top: "conv2"
  convolution_param {
    num_output: 150
    pad: 0
    kernel_size: 4
    group: 1
    stride: 1
    weight_filler {
      type: "xavier"
    }
  }
}
layer {
  name: "conv2_prescale"
  type: "Scale"
  bottom: "conv2"
  top: "conv2"
  param {
    lr_mult: 0
    decay_mult: 0
  }
  scale_param {
    filler {
      value: 0.6666
    }
    bias_term: false
  }
}
layer {
  name: "conv2_sTanH"
  type: "TanH"
  bottom: "conv2"
  top: "conv2"
}
layer {
  name: "conv2_postscale"
  type: "Scale"
  bottom: "conv2"
  top: "conv2"
  param {
    lr_mult: 0
    decay_mult: 0
  }
  scale_param {
    filler {
      value: 1.7159
    }
    bias_term: false
  }
}
layer {
  name: "pool2"
  type: "Pooling"
  bottom: "conv2"
  top: "pool2"
  pooling_param {
    pool: MAX
    kernel_size: 2
    stride: 2
  }
}
layer {
  name: "conv3"
  type: "Convolution"
  bottom: "pool2"
  top: "conv3"
  convolution_param {
    num_output: 250
    pad: 0
    kernel_size: 4
    group: 1
    stride: 1
    weight_filler {
      type: "xavier"
    }
  }
}
layer {
  name: "conv3_prescale"
  type: "Scale"
  bottom: "conv3"
  top: "conv3"
  param {
    lr_mult: 0
    decay_mult: 0
  }
  scale_param {
    filler {
      value: 0.6666
    }
    bias_term: false
  }
}
layer {
  name: "conv3_sTanH"
  type: "TanH"
  bottom: "conv3"
  top: "conv3"
}
layer {
  name: "conv3_postscale"
  type: "Scale"
  bottom: "conv3"
  top: "conv3"
  param {
    lr_mult: 0
    decay_mult: 0
  }
  scale_param {
    filler {
      value: 1.7159
    }
    bias_term: false
  }
}
layer {
  name: "pool3"
  type: "Pooling"
  bottom: "conv3"
  top: "pool3"
  pooling_param {
    pool: MAX
    kernel_size: 2
    stride: 2
  }
}
layer {
  name: "fc4_300"
  type: "InnerProduct"
  bottom: "pool3"
  top: "fc4_300"
  inner_product_param {
    num_output: 300
    weight_filler {
      type: "xavier"
    }
  }
}
layer {
  name: "fc4_prescale"
  type: "Scale"
  bottom: "fc4_300"
  top: "fc4_300"
  param {
    lr_mult: 0
    decay_mult: 0
  }
  scale_param {
    filler {
      value: 0.6666
    }
    bias_term: false
  }
}
layer {
  name: "fc4_sTanH"
  type: "TanH"
  bottom: "fc4_300"
  top: "fc4_300"
}
layer {
  name: "fc4_postscale"
  type: "Scale"
  bottom: "fc4_300"
  top: "fc4_300"
  param {
    lr_mult: 0
    decay_mult: 0
  }
  scale_param {
    filler {
      value: 1.7159
    }
    bias_term: false
  }
}
layer {
  name: "drop4"
  type: "Dropout"
  bottom: "fc4_300"
  top: "fc4_300"
  dropout_param {
    dropout_ratio: 0.1
  }
}
layer {
  name: "fc5_67"
  type: "InnerProduct"
  bottom: "fc4_300"
  top: "fc5_classes"
  inner_product_param {
    num_output: 67
    weight_filler {
      type: "xavier"
    }
  }
}
layer {
  name: "loss"
  type: "SoftmaxWithLoss"
  bottom: "fc5_classes"
  bottom: "label"
  top: "loss"
}
layer {
  name: "accuracy_1"
  type: "Accuracy"
  bottom: "fc5_classes"
  bottom: "label"
  top: "accuracy_1"
  include {
    phase: TEST
  }
  accuracy_param {
    top_k: 1
  }
}
layer {
  name: "accuracy_5"
  type: "Accuracy"
  bottom: "fc5_classes"
  bottom: "label"
  top: "accuracy_5"
  include {
    phase: TEST
  }
  accuracy_param {
    top_k: 5
  }
}
I0411 21:34:06.649406 32371 layer_factory.hpp:77] Creating layer data
I0411 21:34:06.650064 32371 net.cpp:100] Creating Layer data
I0411 21:34:06.650076 32371 net.cpp:408] data -> data
I0411 21:34:06.650087 32371 net.cpp:408] data -> label
I0411 21:34:06.653450 32543 db_lmdb.cpp:35] Opened lmdb ../local_data/lmdb/rtsd-r1/AHE/test/lmdb
I0411 21:34:06.653626 32371 data_layer.cpp:41] output data size: 1024,3,48,48
I0411 21:34:06.705052 32371 net.cpp:150] Setting up data
I0411 21:34:06.705086 32371 net.cpp:157] Top shape: 1024 3 48 48 (7077888)
I0411 21:34:06.705094 32371 net.cpp:157] Top shape: 1024 (1024)
I0411 21:34:06.705101 32371 net.cpp:165] Memory required for data: 28315648
I0411 21:34:06.705111 32371 layer_factory.hpp:77] Creating layer label_data_1_split
I0411 21:34:06.705132 32371 net.cpp:100] Creating Layer label_data_1_split
I0411 21:34:06.705142 32371 net.cpp:434] label_data_1_split <- label
I0411 21:34:06.705157 32371 net.cpp:408] label_data_1_split -> label_data_1_split_0
I0411 21:34:06.705174 32371 net.cpp:408] label_data_1_split -> label_data_1_split_1
I0411 21:34:06.705186 32371 net.cpp:408] label_data_1_split -> label_data_1_split_2
I0411 21:34:06.705313 32371 net.cpp:150] Setting up label_data_1_split
I0411 21:34:06.705327 32371 net.cpp:157] Top shape: 1024 (1024)
I0411 21:34:06.705335 32371 net.cpp:157] Top shape: 1024 (1024)
I0411 21:34:06.705340 32371 net.cpp:157] Top shape: 1024 (1024)
I0411 21:34:06.705348 32371 net.cpp:165] Memory required for data: 28327936
I0411 21:34:06.705353 32371 layer_factory.hpp:77] Creating layer conv1
I0411 21:34:06.705368 32371 net.cpp:100] Creating Layer conv1
I0411 21:34:06.705374 32371 net.cpp:434] conv1 <- data
I0411 21:34:06.705385 32371 net.cpp:408] conv1 -> conv1
I0411 21:34:06.709776 32371 net.cpp:150] Setting up conv1
I0411 21:34:06.709796 32371 net.cpp:157] Top shape: 1024 100 42 42 (180633600)
I0411 21:34:06.709802 32371 net.cpp:165] Memory required for data: 750862336
I0411 21:34:06.709816 32371 layer_factory.hpp:77] Creating layer conv1_prescale
I0411 21:34:06.709827 32371 net.cpp:100] Creating Layer conv1_prescale
I0411 21:34:06.709832 32371 net.cpp:434] conv1_prescale <- conv1
I0411 21:34:06.709839 32371 net.cpp:395] conv1_prescale -> conv1 (in-place)
I0411 21:34:06.709951 32371 net.cpp:150] Setting up conv1_prescale
I0411 21:34:06.709960 32371 net.cpp:157] Top shape: 1024 100 42 42 (180633600)
I0411 21:34:06.709964 32371 net.cpp:165] Memory required for data: 1473396736
I0411 21:34:06.709970 32371 layer_factory.hpp:77] Creating layer conv1_sTanH
I0411 21:34:06.709980 32371 net.cpp:100] Creating Layer conv1_sTanH
I0411 21:34:06.709985 32371 net.cpp:434] conv1_sTanH <- conv1
I0411 21:34:06.709990 32371 net.cpp:395] conv1_sTanH -> conv1 (in-place)
I0411 21:34:06.710213 32371 net.cpp:150] Setting up conv1_sTanH
I0411 21:34:06.710233 32371 net.cpp:157] Top shape: 1024 100 42 42 (180633600)
I0411 21:34:06.710240 32371 net.cpp:165] Memory required for data: 2195931136
I0411 21:34:06.710245 32371 layer_factory.hpp:77] Creating layer conv1_postscale
I0411 21:34:06.710254 32371 net.cpp:100] Creating Layer conv1_postscale
I0411 21:34:06.710261 32371 net.cpp:434] conv1_postscale <- conv1
I0411 21:34:06.710273 32371 net.cpp:395] conv1_postscale -> conv1 (in-place)
I0411 21:34:06.710397 32371 net.cpp:150] Setting up conv1_postscale
I0411 21:34:06.710405 32371 net.cpp:157] Top shape: 1024 100 42 42 (180633600)
I0411 21:34:06.710408 32371 net.cpp:165] Memory required for data: 2918465536
I0411 21:34:06.710413 32371 layer_factory.hpp:77] Creating layer pool1
I0411 21:34:06.710420 32371 net.cpp:100] Creating Layer pool1
I0411 21:34:06.710425 32371 net.cpp:434] pool1 <- conv1
I0411 21:34:06.710433 32371 net.cpp:408] pool1 -> pool1
I0411 21:34:06.710475 32371 net.cpp:150] Setting up pool1
I0411 21:34:06.710485 32371 net.cpp:157] Top shape: 1024 100 21 21 (45158400)
I0411 21:34:06.710491 32371 net.cpp:165] Memory required for data: 3099099136
I0411 21:34:06.710496 32371 layer_factory.hpp:77] Creating layer conv2
I0411 21:34:06.710510 32371 net.cpp:100] Creating Layer conv2
I0411 21:34:06.710517 32371 net.cpp:434] conv2 <- pool1
I0411 21:34:06.710527 32371 net.cpp:408] conv2 -> conv2
I0411 21:34:06.716876 32371 net.cpp:150] Setting up conv2
I0411 21:34:06.716897 32371 net.cpp:157] Top shape: 1024 150 18 18 (49766400)
I0411 21:34:06.716900 32371 net.cpp:165] Memory required for data: 3298164736
I0411 21:34:06.716912 32371 layer_factory.hpp:77] Creating layer conv2_prescale
I0411 21:34:06.716924 32371 net.cpp:100] Creating Layer conv2_prescale
I0411 21:34:06.716930 32371 net.cpp:434] conv2_prescale <- conv2
I0411 21:34:06.716940 32371 net.cpp:395] conv2_prescale -> conv2 (in-place)
I0411 21:34:06.717074 32371 net.cpp:150] Setting up conv2_prescale
I0411 21:34:06.717087 32371 net.cpp:157] Top shape: 1024 150 18 18 (49766400)
I0411 21:34:06.717089 32371 net.cpp:165] Memory required for data: 3497230336
I0411 21:34:06.717094 32371 layer_factory.hpp:77] Creating layer conv2_sTanH
I0411 21:34:06.717100 32371 net.cpp:100] Creating Layer conv2_sTanH
I0411 21:34:06.717105 32371 net.cpp:434] conv2_sTanH <- conv2
I0411 21:34:06.717110 32371 net.cpp:395] conv2_sTanH -> conv2 (in-place)
I0411 21:34:06.719501 32371 net.cpp:150] Setting up conv2_sTanH
I0411 21:34:06.719517 32371 net.cpp:157] Top shape: 1024 150 18 18 (49766400)
I0411 21:34:06.719521 32371 net.cpp:165] Memory required for data: 3696295936
I0411 21:34:06.719524 32371 layer_factory.hpp:77] Creating layer conv2_postscale
I0411 21:34:06.719532 32371 net.cpp:100] Creating Layer conv2_postscale
I0411 21:34:06.719540 32371 net.cpp:434] conv2_postscale <- conv2
I0411 21:34:06.719547 32371 net.cpp:395] conv2_postscale -> conv2 (in-place)
I0411 21:34:06.719658 32371 net.cpp:150] Setting up conv2_postscale
I0411 21:34:06.719671 32371 net.cpp:157] Top shape: 1024 150 18 18 (49766400)
I0411 21:34:06.719674 32371 net.cpp:165] Memory required for data: 3895361536
I0411 21:34:06.719679 32371 layer_factory.hpp:77] Creating layer pool2
I0411 21:34:06.719686 32371 net.cpp:100] Creating Layer pool2
I0411 21:34:06.719689 32371 net.cpp:434] pool2 <- conv2
I0411 21:34:06.719696 32371 net.cpp:408] pool2 -> pool2
I0411 21:34:06.719744 32371 net.cpp:150] Setting up pool2
I0411 21:34:06.719756 32371 net.cpp:157] Top shape: 1024 150 9 9 (12441600)
I0411 21:34:06.719759 32371 net.cpp:165] Memory required for data: 3945127936
I0411 21:34:06.719763 32371 layer_factory.hpp:77] Creating layer conv3
I0411 21:34:06.719771 32371 net.cpp:100] Creating Layer conv3
I0411 21:34:06.719776 32371 net.cpp:434] conv3 <- pool2
I0411 21:34:06.719784 32371 net.cpp:408] conv3 -> conv3
I0411 21:34:06.727728 32371 net.cpp:150] Setting up conv3
I0411 21:34:06.727749 32371 net.cpp:157] Top shape: 1024 250 6 6 (9216000)
I0411 21:34:06.727753 32371 net.cpp:165] Memory required for data: 3981991936
I0411 21:34:06.727763 32371 layer_factory.hpp:77] Creating layer conv3_prescale
I0411 21:34:06.727773 32371 net.cpp:100] Creating Layer conv3_prescale
I0411 21:34:06.727777 32371 net.cpp:434] conv3_prescale <- conv3
I0411 21:34:06.727783 32371 net.cpp:395] conv3_prescale -> conv3 (in-place)
I0411 21:34:06.727900 32371 net.cpp:150] Setting up conv3_prescale
I0411 21:34:06.727913 32371 net.cpp:157] Top shape: 1024 250 6 6 (9216000)
I0411 21:34:06.727916 32371 net.cpp:165] Memory required for data: 4018855936
I0411 21:34:06.727921 32371 layer_factory.hpp:77] Creating layer conv3_sTanH
I0411 21:34:06.727927 32371 net.cpp:100] Creating Layer conv3_sTanH
I0411 21:34:06.727931 32371 net.cpp:434] conv3_sTanH <- conv3
I0411 21:34:06.727937 32371 net.cpp:395] conv3_sTanH -> conv3 (in-place)
I0411 21:34:06.730870 32371 net.cpp:150] Setting up conv3_sTanH
I0411 21:34:06.730890 32371 net.cpp:157] Top shape: 1024 250 6 6 (9216000)
I0411 21:34:06.730893 32371 net.cpp:165] Memory required for data: 4055719936
I0411 21:34:06.730897 32371 layer_factory.hpp:77] Creating layer conv3_postscale
I0411 21:34:06.730908 32371 net.cpp:100] Creating Layer conv3_postscale
I0411 21:34:06.730913 32371 net.cpp:434] conv3_postscale <- conv3
I0411 21:34:06.730919 32371 net.cpp:395] conv3_postscale -> conv3 (in-place)
I0411 21:34:06.731030 32371 net.cpp:150] Setting up conv3_postscale
I0411 21:34:06.731040 32371 net.cpp:157] Top shape: 1024 250 6 6 (9216000)
I0411 21:34:06.731042 32371 net.cpp:165] Memory required for data: 4092583936
I0411 21:34:06.731048 32371 layer_factory.hpp:77] Creating layer pool3
I0411 21:34:06.731058 32371 net.cpp:100] Creating Layer pool3
I0411 21:34:06.731063 32371 net.cpp:434] pool3 <- conv3
I0411 21:34:06.731070 32371 net.cpp:408] pool3 -> pool3
I0411 21:34:06.731117 32371 net.cpp:150] Setting up pool3
I0411 21:34:06.731125 32371 net.cpp:157] Top shape: 1024 250 3 3 (2304000)
I0411 21:34:06.731128 32371 net.cpp:165] Memory required for data: 4101799936
I0411 21:34:06.731132 32371 layer_factory.hpp:77] Creating layer fc4_300
I0411 21:34:06.731139 32371 net.cpp:100] Creating Layer fc4_300
I0411 21:34:06.731142 32371 net.cpp:434] fc4_300 <- pool3
I0411 21:34:06.731148 32371 net.cpp:408] fc4_300 -> fc4_300
I0411 21:34:06.736949 32371 net.cpp:150] Setting up fc4_300
I0411 21:34:06.736968 32371 net.cpp:157] Top shape: 1024 300 (307200)
I0411 21:34:06.736973 32371 net.cpp:165] Memory required for data: 4103028736
I0411 21:34:06.736996 32371 layer_factory.hpp:77] Creating layer fc4_prescale
I0411 21:34:06.737009 32371 net.cpp:100] Creating Layer fc4_prescale
I0411 21:34:06.737015 32371 net.cpp:434] fc4_prescale <- fc4_300
I0411 21:34:06.737021 32371 net.cpp:395] fc4_prescale -> fc4_300 (in-place)
I0411 21:34:06.737123 32371 net.cpp:150] Setting up fc4_prescale
I0411 21:34:06.737133 32371 net.cpp:157] Top shape: 1024 300 (307200)
I0411 21:34:06.737135 32371 net.cpp:165] Memory required for data: 4104257536
I0411 21:34:06.737139 32371 layer_factory.hpp:77] Creating layer fc4_sTanH
I0411 21:34:06.737145 32371 net.cpp:100] Creating Layer fc4_sTanH
I0411 21:34:06.737149 32371 net.cpp:434] fc4_sTanH <- fc4_300
I0411 21:34:06.737152 32371 net.cpp:395] fc4_sTanH -> fc4_300 (in-place)
I0411 21:34:06.737354 32371 net.cpp:150] Setting up fc4_sTanH
I0411 21:34:06.737367 32371 net.cpp:157] Top shape: 1024 300 (307200)
I0411 21:34:06.737370 32371 net.cpp:165] Memory required for data: 4105486336
I0411 21:34:06.737373 32371 layer_factory.hpp:77] Creating layer fc4_postscale
I0411 21:34:06.737380 32371 net.cpp:100] Creating Layer fc4_postscale
I0411 21:34:06.737383 32371 net.cpp:434] fc4_postscale <- fc4_300
I0411 21:34:06.737390 32371 net.cpp:395] fc4_postscale -> fc4_300 (in-place)
I0411 21:34:06.737495 32371 net.cpp:150] Setting up fc4_postscale
I0411 21:34:06.737504 32371 net.cpp:157] Top shape: 1024 300 (307200)
I0411 21:34:06.737506 32371 net.cpp:165] Memory required for data: 4106715136
I0411 21:34:06.737511 32371 layer_factory.hpp:77] Creating layer drop4
I0411 21:34:06.737519 32371 net.cpp:100] Creating Layer drop4
I0411 21:34:06.737521 32371 net.cpp:434] drop4 <- fc4_300
I0411 21:34:06.737529 32371 net.cpp:395] drop4 -> fc4_300 (in-place)
I0411 21:34:06.737555 32371 net.cpp:150] Setting up drop4
I0411 21:34:06.737563 32371 net.cpp:157] Top shape: 1024 300 (307200)
I0411 21:34:06.737566 32371 net.cpp:165] Memory required for data: 4107943936
I0411 21:34:06.737570 32371 layer_factory.hpp:77] Creating layer fc5_67
I0411 21:34:06.737574 32371 net.cpp:100] Creating Layer fc5_67
I0411 21:34:06.737577 32371 net.cpp:434] fc5_67 <- fc4_300
I0411 21:34:06.737582 32371 net.cpp:408] fc5_67 -> fc5_classes
I0411 21:34:06.737836 32371 net.cpp:150] Setting up fc5_67
I0411 21:34:06.737846 32371 net.cpp:157] Top shape: 1024 67 (68608)
I0411 21:34:06.737849 32371 net.cpp:165] Memory required for data: 4108218368
I0411 21:34:06.737860 32371 layer_factory.hpp:77] Creating layer fc5_classes_fc5_67_0_split
I0411 21:34:06.737869 32371 net.cpp:100] Creating Layer fc5_classes_fc5_67_0_split
I0411 21:34:06.737872 32371 net.cpp:434] fc5_classes_fc5_67_0_split <- fc5_classes
I0411 21:34:06.737877 32371 net.cpp:408] fc5_classes_fc5_67_0_split -> fc5_classes_fc5_67_0_split_0
I0411 21:34:06.737885 32371 net.cpp:408] fc5_classes_fc5_67_0_split -> fc5_classes_fc5_67_0_split_1
I0411 21:34:06.737891 32371 net.cpp:408] fc5_classes_fc5_67_0_split -> fc5_classes_fc5_67_0_split_2
I0411 21:34:06.737947 32371 net.cpp:150] Setting up fc5_classes_fc5_67_0_split
I0411 21:34:06.737954 32371 net.cpp:157] Top shape: 1024 67 (68608)
I0411 21:34:06.737958 32371 net.cpp:157] Top shape: 1024 67 (68608)
I0411 21:34:06.737963 32371 net.cpp:157] Top shape: 1024 67 (68608)
I0411 21:34:06.737967 32371 net.cpp:165] Memory required for data: 4109041664
I0411 21:34:06.737969 32371 layer_factory.hpp:77] Creating layer loss
I0411 21:34:06.737974 32371 net.cpp:100] Creating Layer loss
I0411 21:34:06.737977 32371 net.cpp:434] loss <- fc5_classes_fc5_67_0_split_0
I0411 21:34:06.737982 32371 net.cpp:434] loss <- label_data_1_split_0
I0411 21:34:06.737987 32371 net.cpp:408] loss -> loss
…
