…
I0415 02:40:42.730859 12511 solver.cpp:93] Creating training net from train_net file: ./Prototxt/experiment_10/rtsd-r3/imajust/trial_4/train.prototxt
I0415 02:40:42.743757 12511 net.cpp:58] Initializing net from parameters: 
state {
  phase: TRAIN
  level: 0
  stage: ""
}
layer {
  name: "data"
  type: "Data"
  top: "data"
  top: "label"
  include {
    phase: TRAIN
  }
  transform_param {
    scale: 0.0039215689
    mirror: false
    crop_size: 48
    mean_value: 118
    mean_value: 112
    mean_value: 112
  }
  data_param {
    source: "../local_data/lmdb/rtsd-r3/imajust/train/lmdb"
    batch_size: 1024
    backend: LMDB
  }
}
layer {
  name: "conv1"
  type: "Convolution"
  bottom: "data"
  top: "conv1"
  convolution_param {
    num_output: 100
    pad: 0
    kernel_size: 7
    group: 1
    stride: 1
    weight_filler {
      type: "xavier"
    }
  }
}
layer {
  name: "conv1_relu"
  type: "ReLU"
  bottom: "conv1"
  top: "conv1"
}
layer {
  name: "pool1"
  type: "Pooling"
  bottom: "conv1"
  top: "pool1"
  pooling_param {
    pool: MAX
    kernel_size: 2
    stride: 2
  }
}
layer {
  name: "conv2"
  type: "Convolution"
  bottom: "pool1"
  top: "conv2"
  convolution_param {
    num_output: 150
    pad: 0
    kernel_size: 4
    group: 1
    stride: 1
    weight_filler {
      type: "xavier"
    }
  }
}
layer {
  name: "conv2_relu"
  type: "ReLU"
  bottom: "conv2"
  top: "conv2"
}
layer {
  name: "pool2"
  type: "Pooling"
  bottom: "conv2"
  top: "pool2"
  pooling_param {
    pool: MAX
    kernel_size: 2
    stride: 2
  }
}
layer {
  name: "conv3"
  type: "Convolution"
  bottom: "pool2"
  top: "conv3"
  convolution_param {
    num_output: 250
    pad: 0
    kernel_size: 4
    group: 1
    stride: 1
    weight_filler {
      type: "xavier"
    }
  }
}
layer {
  name: "conv3_relu"
  type: "ReLU"
  bottom: "conv3"
  top: "conv3"
}
layer {
  name: "pool3"
  type: "Pooling"
  bottom: "conv3"
  top: "pool3"
  pooling_param {
    pool: MAX
    kernel_size: 2
    stride: 2
  }
}
layer {
  name: "fc4_300"
  type: "InnerProduct"
  bottom: "pool3"
  top: "fc4_300"
  inner_product_param {
    num_output: 300
    weight_filler {
      type: "xavier"
    }
  }
}
layer {
  name: "fc4_relu"
  type: "ReLU"
  bottom: "fc4_300"
  top: "fc4_300"
}
layer {
  name: "fc5_106"
  type: "InnerProduct"
  bottom: "fc4_300"
  top: "fc5_classes"
  inner_product_param {
    num_output: 106
    weight_filler {
      type: "xavier"
    }
  }
}
layer {
  name: "softmax"
  type: "Softmax"
  bottom: "fc5_classes"
  top: "softmax"
}
layer {
  name: "loss"
  type: "MultinomialLogisticLoss"
  bottom: "softmax"
  bottom: "label"
  top: "loss"
}
layer {
  name: "accuracy_1"
  type: "Accuracy"
  bottom: "fc5_classes"
  bottom: "label"
  top: "accuracy_1"
  accuracy_param {
    top_k: 1
  }
}
layer {
  name: "accuracy_5"
  type: "Accuracy"
  bottom: "fc5_classes"
  bottom: "label"
  top: "accuracy_5"
  accuracy_param {
    top_k: 5
  }
}
layer {
  name: "silence"
  type: "Silence"
  bottom: "accuracy_1"
  bottom: "accuracy_5"
}
I0415 02:40:42.743912 12511 layer_factory.hpp:77] Creating layer data
I0415 02:40:42.744988 12511 net.cpp:100] Creating Layer data
I0415 02:40:42.745003 12511 net.cpp:408] data -> data
I0415 02:40:42.745026 12511 net.cpp:408] data -> label
I0415 02:40:42.748383 12738 db_lmdb.cpp:35] Opened lmdb ../local_data/lmdb/rtsd-r3/imajust/train/lmdb
I0415 02:40:42.769016 12511 data_layer.cpp:41] output data size: 1024,3,48,48
I0415 02:40:42.834713 12511 net.cpp:150] Setting up data
I0415 02:40:42.834786 12511 net.cpp:157] Top shape: 1024 3 48 48 (7077888)
I0415 02:40:42.834796 12511 net.cpp:157] Top shape: 1024 (1024)
I0415 02:40:42.834801 12511 net.cpp:165] Memory required for data: 28315648
I0415 02:40:42.834818 12511 layer_factory.hpp:77] Creating layer label_data_1_split
I0415 02:40:42.834837 12511 net.cpp:100] Creating Layer label_data_1_split
I0415 02:40:42.834849 12511 net.cpp:434] label_data_1_split <- label
I0415 02:40:42.834873 12511 net.cpp:408] label_data_1_split -> label_data_1_split_0
I0415 02:40:42.834892 12511 net.cpp:408] label_data_1_split -> label_data_1_split_1
I0415 02:40:42.834905 12511 net.cpp:408] label_data_1_split -> label_data_1_split_2
I0415 02:40:42.834997 12511 net.cpp:150] Setting up label_data_1_split
I0415 02:40:42.835011 12511 net.cpp:157] Top shape: 1024 (1024)
I0415 02:40:42.835018 12511 net.cpp:157] Top shape: 1024 (1024)
I0415 02:40:42.835026 12511 net.cpp:157] Top shape: 1024 (1024)
I0415 02:40:42.835033 12511 net.cpp:165] Memory required for data: 28327936
I0415 02:40:42.835039 12511 layer_factory.hpp:77] Creating layer conv1
I0415 02:40:42.835065 12511 net.cpp:100] Creating Layer conv1
I0415 02:40:42.835074 12511 net.cpp:434] conv1 <- data
I0415 02:40:42.835088 12511 net.cpp:408] conv1 -> conv1
I0415 02:40:44.036839 12511 net.cpp:150] Setting up conv1
I0415 02:40:44.036867 12511 net.cpp:157] Top shape: 1024 100 42 42 (180633600)
I0415 02:40:44.036871 12511 net.cpp:165] Memory required for data: 750862336
I0415 02:40:44.036895 12511 layer_factory.hpp:77] Creating layer conv1_relu
I0415 02:40:44.036907 12511 net.cpp:100] Creating Layer conv1_relu
I0415 02:40:44.036916 12511 net.cpp:434] conv1_relu <- conv1
I0415 02:40:44.036921 12511 net.cpp:395] conv1_relu -> conv1 (in-place)
I0415 02:40:44.037117 12511 net.cpp:150] Setting up conv1_relu
I0415 02:40:44.037128 12511 net.cpp:157] Top shape: 1024 100 42 42 (180633600)
I0415 02:40:44.037132 12511 net.cpp:165] Memory required for data: 1473396736
I0415 02:40:44.037135 12511 layer_factory.hpp:77] Creating layer pool1
I0415 02:40:44.037147 12511 net.cpp:100] Creating Layer pool1
I0415 02:40:44.037151 12511 net.cpp:434] pool1 <- conv1
I0415 02:40:44.037156 12511 net.cpp:408] pool1 -> pool1
I0415 02:40:44.037211 12511 net.cpp:150] Setting up pool1
I0415 02:40:44.037220 12511 net.cpp:157] Top shape: 1024 100 21 21 (45158400)
I0415 02:40:44.037225 12511 net.cpp:165] Memory required for data: 1654030336
I0415 02:40:44.037228 12511 layer_factory.hpp:77] Creating layer conv2
I0415 02:40:44.037240 12511 net.cpp:100] Creating Layer conv2
I0415 02:40:44.037245 12511 net.cpp:434] conv2 <- pool1
I0415 02:40:44.037250 12511 net.cpp:408] conv2 -> conv2
I0415 02:40:44.045290 12511 net.cpp:150] Setting up conv2
I0415 02:40:44.045308 12511 net.cpp:157] Top shape: 1024 150 18 18 (49766400)
I0415 02:40:44.045312 12511 net.cpp:165] Memory required for data: 1853095936
I0415 02:40:44.045325 12511 layer_factory.hpp:77] Creating layer conv2_relu
I0415 02:40:44.045331 12511 net.cpp:100] Creating Layer conv2_relu
I0415 02:40:44.045336 12511 net.cpp:434] conv2_relu <- conv2
I0415 02:40:44.045341 12511 net.cpp:395] conv2_relu -> conv2 (in-place)
I0415 02:40:44.046164 12511 net.cpp:150] Setting up conv2_relu
I0415 02:40:44.046178 12511 net.cpp:157] Top shape: 1024 150 18 18 (49766400)
I0415 02:40:44.046182 12511 net.cpp:165] Memory required for data: 2052161536
I0415 02:40:44.046185 12511 layer_factory.hpp:77] Creating layer pool2
I0415 02:40:44.046193 12511 net.cpp:100] Creating Layer pool2
I0415 02:40:44.046197 12511 net.cpp:434] pool2 <- conv2
I0415 02:40:44.046202 12511 net.cpp:408] pool2 -> pool2
I0415 02:40:44.046250 12511 net.cpp:150] Setting up pool2
I0415 02:40:44.046259 12511 net.cpp:157] Top shape: 1024 150 9 9 (12441600)
I0415 02:40:44.046263 12511 net.cpp:165] Memory required for data: 2101927936
I0415 02:40:44.046267 12511 layer_factory.hpp:77] Creating layer conv3
I0415 02:40:44.046278 12511 net.cpp:100] Creating Layer conv3
I0415 02:40:44.046283 12511 net.cpp:434] conv3 <- pool2
I0415 02:40:44.046306 12511 net.cpp:408] conv3 -> conv3
I0415 02:40:44.052834 12511 net.cpp:150] Setting up conv3
I0415 02:40:44.052852 12511 net.cpp:157] Top shape: 1024 250 6 6 (9216000)
I0415 02:40:44.052856 12511 net.cpp:165] Memory required for data: 2138791936
I0415 02:40:44.052867 12511 layer_factory.hpp:77] Creating layer conv3_relu
I0415 02:40:44.052875 12511 net.cpp:100] Creating Layer conv3_relu
I0415 02:40:44.052880 12511 net.cpp:434] conv3_relu <- conv3
I0415 02:40:44.052884 12511 net.cpp:395] conv3_relu -> conv3 (in-place)
I0415 02:40:44.054093 12511 net.cpp:150] Setting up conv3_relu
I0415 02:40:44.054108 12511 net.cpp:157] Top shape: 1024 250 6 6 (9216000)
I0415 02:40:44.054112 12511 net.cpp:165] Memory required for data: 2175655936
I0415 02:40:44.054116 12511 layer_factory.hpp:77] Creating layer pool3
I0415 02:40:44.054123 12511 net.cpp:100] Creating Layer pool3
I0415 02:40:44.054127 12511 net.cpp:434] pool3 <- conv3
I0415 02:40:44.054133 12511 net.cpp:408] pool3 -> pool3
I0415 02:40:44.054179 12511 net.cpp:150] Setting up pool3
I0415 02:40:44.054188 12511 net.cpp:157] Top shape: 1024 250 3 3 (2304000)
I0415 02:40:44.054193 12511 net.cpp:165] Memory required for data: 2184871936
I0415 02:40:44.054196 12511 layer_factory.hpp:77] Creating layer fc4_300
I0415 02:40:44.054204 12511 net.cpp:100] Creating Layer fc4_300
I0415 02:40:44.054208 12511 net.cpp:434] fc4_300 <- pool3
I0415 02:40:44.054214 12511 net.cpp:408] fc4_300 -> fc4_300
I0415 02:40:44.060747 12511 net.cpp:150] Setting up fc4_300
I0415 02:40:44.060765 12511 net.cpp:157] Top shape: 1024 300 (307200)
I0415 02:40:44.060768 12511 net.cpp:165] Memory required for data: 2186100736
I0415 02:40:44.060775 12511 layer_factory.hpp:77] Creating layer fc4_relu
I0415 02:40:44.060782 12511 net.cpp:100] Creating Layer fc4_relu
I0415 02:40:44.060786 12511 net.cpp:434] fc4_relu <- fc4_300
I0415 02:40:44.060791 12511 net.cpp:395] fc4_relu -> fc4_300 (in-place)
I0415 02:40:44.060981 12511 net.cpp:150] Setting up fc4_relu
I0415 02:40:44.060992 12511 net.cpp:157] Top shape: 1024 300 (307200)
I0415 02:40:44.060997 12511 net.cpp:165] Memory required for data: 2187329536
I0415 02:40:44.060999 12511 layer_factory.hpp:77] Creating layer fc5_106
I0415 02:40:44.061007 12511 net.cpp:100] Creating Layer fc5_106
I0415 02:40:44.061012 12511 net.cpp:434] fc5_106 <- fc4_300
I0415 02:40:44.061017 12511 net.cpp:408] fc5_106 -> fc5_classes
I0415 02:40:44.064951 12511 net.cpp:150] Setting up fc5_106
I0415 02:40:44.064970 12511 net.cpp:157] Top shape: 1024 106 (108544)
I0415 02:40:44.064973 12511 net.cpp:165] Memory required for data: 2187763712
I0415 02:40:44.064985 12511 layer_factory.hpp:77] Creating layer fc5_classes_fc5_106_0_split
I0415 02:40:44.064992 12511 net.cpp:100] Creating Layer fc5_classes_fc5_106_0_split
I0415 02:40:44.064996 12511 net.cpp:434] fc5_classes_fc5_106_0_split <- fc5_classes
I0415 02:40:44.065002 12511 net.cpp:408] fc5_classes_fc5_106_0_split -> fc5_classes_fc5_106_0_split_0
I0415 02:40:44.065013 12511 net.cpp:408] fc5_classes_fc5_106_0_split -> fc5_classes_fc5_106_0_split_1
I0415 02:40:44.065021 12511 net.cpp:408] fc5_classes_fc5_106_0_split -> fc5_classes_fc5_106_0_split_2
I0415 02:40:44.065073 12511 net.cpp:150] Setting up fc5_classes_fc5_106_0_split
I0415 02:40:44.065080 12511 net.cpp:157] Top shape: 1024 106 (108544)
I0415 02:40:44.065086 12511 net.cpp:157] Top shape: 1024 106 (108544)
I0415 02:40:44.065090 12511 net.cpp:157] Top shape: 1024 106 (108544)
I0415 02:40:44.065093 12511 net.cpp:165] Memory required for data: 2189066240
I0415 02:40:44.065096 12511 layer_factory.hpp:77] Creating layer softmax
I0415 02:40:44.065104 12511 net.cpp:100] Creating Layer softmax
I0415 02:40:44.065109 12511 net.cpp:434] softmax <- fc5_classes_fc5_106_0_split_0
I0415 02:40:44.065114 12511 net.cpp:408] softmax -> softmax
I0415 02:40:44.065374 12511 net.cpp:150] Setting up softmax
I0415 02:40:44.065387 12511 net.cpp:157] Top shape: 1024 106 (108544)
I0415 02:40:44.065392 12511 net.cpp:165] Memory required for data: 2189500416
I0415 02:40:44.065395 12511 layer_factory.hpp:77] Creating layer loss
I0415 02:40:44.065423 12511 net.cpp:100] Creating Layer loss
I0415 02:40:44.065428 12511 net.cpp:434] loss <- softmax
I0415 02:40:44.065433 12511 net.cpp:434] loss <- label_data_1_split_0
I0415 02:40:44.065440 12511 net.cpp:408] loss -> loss
…
