…
I0508 07:10:14.109519 20919 solver.cpp:93] Creating training net from train_net file: ./Prototxt/experiment_15/RTSD/histeq/trial_1/train.prototxt
I0508 07:10:14.109974 20919 net.cpp:58] Initializing net from parameters: 
state {
  phase: TRAIN
  level: 0
  stage: ""
}
layer {
  name: "data"
  type: "Data"
  top: "data"
  top: "label"
  include {
    phase: TRAIN
  }
  transform_param {
    scale: 0.0039215689
    mirror: false
    crop_size: 48
    mean_value: 134
    mean_value: 128
    mean_value: 128
  }
  data_param {
    source: "../local_data/lmdb/RTSD/histeq/train/lmdb"
    batch_size: 1024
    backend: LMDB
  }
}
layer {
  name: "conv1"
  type: "Convolution"
  bottom: "data"
  top: "conv1"
  convolution_param {
    num_output: 100
    pad: 0
    kernel_size: 7
    group: 1
    stride: 1
    weight_filler {
      type: "xavier"
    }
  }
}
layer {
  name: "conv1_prescale"
  type: "Scale"
  bottom: "conv1"
  top: "conv1"
  param {
    lr_mult: 0
    decay_mult: 0
  }
  scale_param {
    filler {
      value: 0.6666
    }
    bias_term: false
  }
}
layer {
  name: "conv1_sTanH"
  type: "TanH"
  bottom: "conv1"
  top: "conv1"
}
layer {
  name: "conv1_postscale"
  type: "Scale"
  bottom: "conv1"
  top: "conv1"
  param {
    lr_mult: 0
    decay_mult: 0
  }
  scale_param {
    filler {
      value: 1.7159
    }
    bias_term: false
  }
}
layer {
  name: "pool1"
  type: "Pooling"
  bottom: "conv1"
  top: "pool1"
  pooling_param {
    pool: MAX
    kernel_size: 2
    stride: 2
  }
}
layer {
  name: "conv2"
  type: "Convolution"
  bottom: "pool1"
  top: "conv2"
  convolution_param {
    num_output: 150
    pad: 0
    kernel_size: 4
    group: 2
    stride: 1
    weight_filler {
      type: "xavier"
    }
  }
}
layer {
  name: "conv2_prescale"
  type: "Scale"
  bottom: "conv2"
  top: "conv2"
  param {
    lr_mult: 0
    decay_mult: 0
  }
  scale_param {
    filler {
      value: 0.6666
    }
    bias_term: false
  }
}
layer {
  name: "conv2_sTanH"
  type: "TanH"
  bottom: "conv2"
  top: "conv2"
}
layer {
  name: "conv2_postscale"
  type: "Scale"
  bottom: "conv2"
  top: "conv2"
  param {
    lr_mult: 0
    decay_mult: 0
  }
  scale_param {
    filler {
      value: 1.7159
    }
    bias_term: false
  }
}
layer {
  name: "pool2"
  type: "Pooling"
  bottom: "conv2"
  top: "pool2"
  pooling_param {
    pool: MAX
    kernel_size: 2
    stride: 2
  }
}
layer {
  name: "conv3"
  type: "Convolution"
  bottom: "pool2"
  top: "conv3"
  convolution_param {
    num_output: 250
    pad: 0
    kernel_size: 4
    group: 2
    stride: 1
    weight_filler {
      type: "xavier"
    }
  }
}
layer {
  name: "conv3_prescale"
  type: "Scale"
  bottom: "conv3"
  top: "conv3"
  param {
    lr_mult: 0
    decay_mult: 0
  }
  scale_param {
    filler {
      value: 0.6666
    }
    bias_term: false
  }
}
layer {
  name: "conv3_sTanH"
  type: "TanH"
  bottom: "conv3"
  top: "conv3"
}
layer {
  name: "conv3_postscale"
  type: "Scale"
  bottom: "conv3"
  top: "conv3"
  param {
    lr_mult: 0
    decay_mult: 0
  }
  scale_param {
    filler {
      value: 1.7159
    }
    bias_term: false
  }
}
layer {
  name: "pool3"
  type: "Pooling"
  bottom: "conv3"
  top: "pool3"
  pooling_param {
    pool: MAX
    kernel_size: 2
    stride: 2
  }
}
layer {
  name: "fc4_300"
  type: "InnerProduct"
  bottom: "pool3"
  top: "fc4_300"
  inner_product_param {
    num_output: 300
    weight_filler {
      type: "xavier"
    }
  }
}
layer {
  name: "fc4_prescale"
  type: "Scale"
  bottom: "fc4_300"
  top: "fc4_300"
  param {
    lr_mult: 0
    decay_mult: 0
  }
  scale_param {
    filler {
      value: 0.6666
    }
    bias_term: false
  }
}
layer {
  name: "fc4_sTanH"
  type: "TanH"
  bottom: "fc4_300"
  top: "fc4_300"
}
layer {
  name: "fc4_postscale"
  type: "Scale"
  bottom: "fc4_300"
  top: "fc4_300"
  param {
    lr_mult: 0
    decay_mult: 0
  }
  scale_param {
    filler {
      value: 1.7159
    }
    bias_term: false
  }
}
layer {
  name: "fc5_116"
  type: "InnerProduct"
  bottom: "fc4_300"
  top: "fc5_classes"
  inner_product_param {
    num_output: 116
    weight_filler {
      type: "xavier"
    }
  }
}
layer {
  name: "softmax"
  type: "Softmax"
  bottom: "fc5_classes"
  top: "softmax"
}
layer {
  name: "loss"
  type: "MultinomialLogisticLoss"
  bottom: "softmax"
  bottom: "label"
  top: "loss"
}
layer {
  name: "accuracy_1"
  type: "Accuracy"
  bottom: "fc5_classes"
  bottom: "label"
  top: "accuracy_1"
  accuracy_param {
    top_k: 1
  }
}
layer {
  name: "accuracy_5"
  type: "Accuracy"
  bottom: "fc5_classes"
  bottom: "label"
  top: "accuracy_5"
  accuracy_param {
    top_k: 5
  }
}
layer {
  name: "silence"
  type: "Silence"
  bottom: "accuracy_1"
  bottom: "accuracy_5"
}
I0508 07:10:14.110146 20919 layer_factory.hpp:77] Creating layer data
I0508 07:10:14.111250 20919 net.cpp:100] Creating Layer data
I0508 07:10:14.111265 20919 net.cpp:408] data -> data
I0508 07:10:14.111299 20919 net.cpp:408] data -> label
I0508 07:10:14.114817 21018 db_lmdb.cpp:35] Opened lmdb ../local_data/lmdb/RTSD/histeq/train/lmdb
I0508 07:10:14.132325 20919 data_layer.cpp:41] output data size: 1024,3,48,48
I0508 07:10:14.194314 20919 net.cpp:150] Setting up data
I0508 07:10:14.194341 20919 net.cpp:157] Top shape: 1024 3 48 48 (7077888)
I0508 07:10:14.194351 20919 net.cpp:157] Top shape: 1024 (1024)
I0508 07:10:14.194355 20919 net.cpp:165] Memory required for data: 28315648
I0508 07:10:14.194365 20919 layer_factory.hpp:77] Creating layer label_data_1_split
I0508 07:10:14.194380 20919 net.cpp:100] Creating Layer label_data_1_split
I0508 07:10:14.194384 20919 net.cpp:434] label_data_1_split <- label
I0508 07:10:14.194401 20919 net.cpp:408] label_data_1_split -> label_data_1_split_0
I0508 07:10:14.194412 20919 net.cpp:408] label_data_1_split -> label_data_1_split_1
I0508 07:10:14.194420 20919 net.cpp:408] label_data_1_split -> label_data_1_split_2
I0508 07:10:14.194545 20919 net.cpp:150] Setting up label_data_1_split
I0508 07:10:14.194555 20919 net.cpp:157] Top shape: 1024 (1024)
I0508 07:10:14.194557 20919 net.cpp:157] Top shape: 1024 (1024)
I0508 07:10:14.194561 20919 net.cpp:157] Top shape: 1024 (1024)
I0508 07:10:14.194564 20919 net.cpp:165] Memory required for data: 28327936
I0508 07:10:14.194567 20919 layer_factory.hpp:77] Creating layer conv1
I0508 07:10:14.194583 20919 net.cpp:100] Creating Layer conv1
I0508 07:10:14.194588 20919 net.cpp:434] conv1 <- data
I0508 07:10:14.194595 20919 net.cpp:408] conv1 -> conv1
I0508 07:10:14.532991 20919 net.cpp:150] Setting up conv1
I0508 07:10:14.533018 20919 net.cpp:157] Top shape: 1024 100 42 42 (180633600)
I0508 07:10:14.533022 20919 net.cpp:165] Memory required for data: 750862336
I0508 07:10:14.533043 20919 layer_factory.hpp:77] Creating layer conv1_prescale
I0508 07:10:14.533056 20919 net.cpp:100] Creating Layer conv1_prescale
I0508 07:10:14.533059 20919 net.cpp:434] conv1_prescale <- conv1
I0508 07:10:14.533066 20919 net.cpp:395] conv1_prescale -> conv1 (in-place)
I0508 07:10:14.533170 20919 net.cpp:150] Setting up conv1_prescale
I0508 07:10:14.533179 20919 net.cpp:157] Top shape: 1024 100 42 42 (180633600)
I0508 07:10:14.533182 20919 net.cpp:165] Memory required for data: 1473396736
I0508 07:10:14.533190 20919 layer_factory.hpp:77] Creating layer conv1_sTanH
I0508 07:10:14.533197 20919 net.cpp:100] Creating Layer conv1_sTanH
I0508 07:10:14.533201 20919 net.cpp:434] conv1_sTanH <- conv1
I0508 07:10:14.533206 20919 net.cpp:395] conv1_sTanH -> conv1 (in-place)
I0508 07:10:14.533393 20919 net.cpp:150] Setting up conv1_sTanH
I0508 07:10:14.533406 20919 net.cpp:157] Top shape: 1024 100 42 42 (180633600)
I0508 07:10:14.533424 20919 net.cpp:165] Memory required for data: 2195931136
I0508 07:10:14.533428 20919 layer_factory.hpp:77] Creating layer conv1_postscale
I0508 07:10:14.533437 20919 net.cpp:100] Creating Layer conv1_postscale
I0508 07:10:14.533439 20919 net.cpp:434] conv1_postscale <- conv1
I0508 07:10:14.533444 20919 net.cpp:395] conv1_postscale -> conv1 (in-place)
I0508 07:10:14.533538 20919 net.cpp:150] Setting up conv1_postscale
I0508 07:10:14.533546 20919 net.cpp:157] Top shape: 1024 100 42 42 (180633600)
I0508 07:10:14.533550 20919 net.cpp:165] Memory required for data: 2918465536
I0508 07:10:14.533555 20919 layer_factory.hpp:77] Creating layer pool1
I0508 07:10:14.533561 20919 net.cpp:100] Creating Layer pool1
I0508 07:10:14.533565 20919 net.cpp:434] pool1 <- conv1
I0508 07:10:14.533571 20919 net.cpp:408] pool1 -> pool1
I0508 07:10:14.533617 20919 net.cpp:150] Setting up pool1
I0508 07:10:14.533624 20919 net.cpp:157] Top shape: 1024 100 21 21 (45158400)
I0508 07:10:14.533627 20919 net.cpp:165] Memory required for data: 3099099136
I0508 07:10:14.533630 20919 layer_factory.hpp:77] Creating layer conv2
I0508 07:10:14.533639 20919 net.cpp:100] Creating Layer conv2
I0508 07:10:14.533644 20919 net.cpp:434] conv2 <- pool1
I0508 07:10:14.533649 20919 net.cpp:408] conv2 -> conv2
I0508 07:10:14.541981 20919 net.cpp:150] Setting up conv2
I0508 07:10:14.541998 20919 net.cpp:157] Top shape: 1024 150 18 18 (49766400)
I0508 07:10:14.542002 20919 net.cpp:165] Memory required for data: 3298164736
I0508 07:10:14.542012 20919 layer_factory.hpp:77] Creating layer conv2_prescale
I0508 07:10:14.542021 20919 net.cpp:100] Creating Layer conv2_prescale
I0508 07:10:14.542026 20919 net.cpp:434] conv2_prescale <- conv2
I0508 07:10:14.542031 20919 net.cpp:395] conv2_prescale -> conv2 (in-place)
I0508 07:10:14.542127 20919 net.cpp:150] Setting up conv2_prescale
I0508 07:10:14.542136 20919 net.cpp:157] Top shape: 1024 150 18 18 (49766400)
I0508 07:10:14.542140 20919 net.cpp:165] Memory required for data: 3497230336
I0508 07:10:14.542143 20919 layer_factory.hpp:77] Creating layer conv2_sTanH
I0508 07:10:14.542148 20919 net.cpp:100] Creating Layer conv2_sTanH
I0508 07:10:14.542151 20919 net.cpp:434] conv2_sTanH <- conv2
I0508 07:10:14.542155 20919 net.cpp:395] conv2_sTanH -> conv2 (in-place)
I0508 07:10:14.542325 20919 net.cpp:150] Setting up conv2_sTanH
I0508 07:10:14.542335 20919 net.cpp:157] Top shape: 1024 150 18 18 (49766400)
I0508 07:10:14.542338 20919 net.cpp:165] Memory required for data: 3696295936
I0508 07:10:14.542341 20919 layer_factory.hpp:77] Creating layer conv2_postscale
I0508 07:10:14.542348 20919 net.cpp:100] Creating Layer conv2_postscale
I0508 07:10:14.542353 20919 net.cpp:434] conv2_postscale <- conv2
I0508 07:10:14.542357 20919 net.cpp:395] conv2_postscale -> conv2 (in-place)
I0508 07:10:14.542448 20919 net.cpp:150] Setting up conv2_postscale
I0508 07:10:14.542455 20919 net.cpp:157] Top shape: 1024 150 18 18 (49766400)
I0508 07:10:14.542459 20919 net.cpp:165] Memory required for data: 3895361536
I0508 07:10:14.542462 20919 layer_factory.hpp:77] Creating layer pool2
I0508 07:10:14.542469 20919 net.cpp:100] Creating Layer pool2
I0508 07:10:14.542472 20919 net.cpp:434] pool2 <- conv2
I0508 07:10:14.542477 20919 net.cpp:408] pool2 -> pool2
I0508 07:10:14.542515 20919 net.cpp:150] Setting up pool2
I0508 07:10:14.542523 20919 net.cpp:157] Top shape: 1024 150 9 9 (12441600)
I0508 07:10:14.542526 20919 net.cpp:165] Memory required for data: 3945127936
I0508 07:10:14.542528 20919 layer_factory.hpp:77] Creating layer conv3
I0508 07:10:14.542536 20919 net.cpp:100] Creating Layer conv3
I0508 07:10:14.542541 20919 net.cpp:434] conv3 <- pool2
I0508 07:10:14.542546 20919 net.cpp:408] conv3 -> conv3
I0508 07:10:14.548383 20919 net.cpp:150] Setting up conv3
I0508 07:10:14.548399 20919 net.cpp:157] Top shape: 1024 250 6 6 (9216000)
I0508 07:10:14.548403 20919 net.cpp:165] Memory required for data: 3981991936
I0508 07:10:14.548413 20919 layer_factory.hpp:77] Creating layer conv3_prescale
I0508 07:10:14.548432 20919 net.cpp:100] Creating Layer conv3_prescale
I0508 07:10:14.548437 20919 net.cpp:434] conv3_prescale <- conv3
I0508 07:10:14.548442 20919 net.cpp:395] conv3_prescale -> conv3 (in-place)
I0508 07:10:14.548530 20919 net.cpp:150] Setting up conv3_prescale
I0508 07:10:14.548539 20919 net.cpp:157] Top shape: 1024 250 6 6 (9216000)
I0508 07:10:14.548542 20919 net.cpp:165] Memory required for data: 4018855936
I0508 07:10:14.548547 20919 layer_factory.hpp:77] Creating layer conv3_sTanH
I0508 07:10:14.548552 20919 net.cpp:100] Creating Layer conv3_sTanH
I0508 07:10:14.548554 20919 net.cpp:434] conv3_sTanH <- conv3
I0508 07:10:14.548559 20919 net.cpp:395] conv3_sTanH -> conv3 (in-place)
I0508 07:10:14.548732 20919 net.cpp:150] Setting up conv3_sTanH
I0508 07:10:14.548743 20919 net.cpp:157] Top shape: 1024 250 6 6 (9216000)
I0508 07:10:14.548746 20919 net.cpp:165] Memory required for data: 4055719936
I0508 07:10:14.548749 20919 layer_factory.hpp:77] Creating layer conv3_postscale
I0508 07:10:14.548755 20919 net.cpp:100] Creating Layer conv3_postscale
I0508 07:10:14.548759 20919 net.cpp:434] conv3_postscale <- conv3
I0508 07:10:14.548763 20919 net.cpp:395] conv3_postscale -> conv3 (in-place)
I0508 07:10:14.548851 20919 net.cpp:150] Setting up conv3_postscale
I0508 07:10:14.548857 20919 net.cpp:157] Top shape: 1024 250 6 6 (9216000)
I0508 07:10:14.548861 20919 net.cpp:165] Memory required for data: 4092583936
I0508 07:10:14.548866 20919 layer_factory.hpp:77] Creating layer pool3
I0508 07:10:14.548872 20919 net.cpp:100] Creating Layer pool3
I0508 07:10:14.548877 20919 net.cpp:434] pool3 <- conv3
I0508 07:10:14.548882 20919 net.cpp:408] pool3 -> pool3
I0508 07:10:14.548918 20919 net.cpp:150] Setting up pool3
I0508 07:10:14.548924 20919 net.cpp:157] Top shape: 1024 250 3 3 (2304000)
I0508 07:10:14.548928 20919 net.cpp:165] Memory required for data: 4101799936
I0508 07:10:14.548930 20919 layer_factory.hpp:77] Creating layer fc4_300
I0508 07:10:14.548938 20919 net.cpp:100] Creating Layer fc4_300
I0508 07:10:14.548940 20919 net.cpp:434] fc4_300 <- pool3
I0508 07:10:14.548949 20919 net.cpp:408] fc4_300 -> fc4_300
I0508 07:10:14.561748 20919 net.cpp:150] Setting up fc4_300
I0508 07:10:14.561764 20919 net.cpp:157] Top shape: 1024 300 (307200)
I0508 07:10:14.561780 20919 net.cpp:165] Memory required for data: 4103028736
I0508 07:10:14.561787 20919 layer_factory.hpp:77] Creating layer fc4_prescale
I0508 07:10:14.561794 20919 net.cpp:100] Creating Layer fc4_prescale
I0508 07:10:14.561799 20919 net.cpp:434] fc4_prescale <- fc4_300
I0508 07:10:14.561803 20919 net.cpp:395] fc4_prescale -> fc4_300 (in-place)
I0508 07:10:14.561892 20919 net.cpp:150] Setting up fc4_prescale
I0508 07:10:14.561902 20919 net.cpp:157] Top shape: 1024 300 (307200)
I0508 07:10:14.561904 20919 net.cpp:165] Memory required for data: 4104257536
I0508 07:10:14.561908 20919 layer_factory.hpp:77] Creating layer fc4_sTanH
I0508 07:10:14.561913 20919 net.cpp:100] Creating Layer fc4_sTanH
I0508 07:10:14.561916 20919 net.cpp:434] fc4_sTanH <- fc4_300
I0508 07:10:14.561921 20919 net.cpp:395] fc4_sTanH -> fc4_300 (in-place)
I0508 07:10:14.566534 20919 net.cpp:150] Setting up fc4_sTanH
I0508 07:10:14.566553 20919 net.cpp:157] Top shape: 1024 300 (307200)
I0508 07:10:14.566556 20919 net.cpp:165] Memory required for data: 4105486336
I0508 07:10:14.566560 20919 layer_factory.hpp:77] Creating layer fc4_postscale
I0508 07:10:14.566567 20919 net.cpp:100] Creating Layer fc4_postscale
I0508 07:10:14.566571 20919 net.cpp:434] fc4_postscale <- fc4_300
I0508 07:10:14.566576 20919 net.cpp:395] fc4_postscale -> fc4_300 (in-place)
I0508 07:10:14.566682 20919 net.cpp:150] Setting up fc4_postscale
I0508 07:10:14.566690 20919 net.cpp:157] Top shape: 1024 300 (307200)
I0508 07:10:14.566694 20919 net.cpp:165] Memory required for data: 4106715136
I0508 07:10:14.566699 20919 layer_factory.hpp:77] Creating layer fc5_116
I0508 07:10:14.566707 20919 net.cpp:100] Creating Layer fc5_116
I0508 07:10:14.566712 20919 net.cpp:434] fc5_116 <- fc4_300
I0508 07:10:14.566717 20919 net.cpp:408] fc5_116 -> fc5_classes
I0508 07:10:14.568389 20919 net.cpp:150] Setting up fc5_116
I0508 07:10:14.568405 20919 net.cpp:157] Top shape: 1024 116 (118784)
I0508 07:10:14.568408 20919 net.cpp:165] Memory required for data: 4107190272
I0508 07:10:14.568418 20919 layer_factory.hpp:77] Creating layer fc5_classes_fc5_116_0_split
I0508 07:10:14.568425 20919 net.cpp:100] Creating Layer fc5_classes_fc5_116_0_split
I0508 07:10:14.568429 20919 net.cpp:434] fc5_classes_fc5_116_0_split <- fc5_classes
I0508 07:10:14.568436 20919 net.cpp:408] fc5_classes_fc5_116_0_split -> fc5_classes_fc5_116_0_split_0
I0508 07:10:14.568444 20919 net.cpp:408] fc5_classes_fc5_116_0_split -> fc5_classes_fc5_116_0_split_1
I0508 07:10:14.568450 20919 net.cpp:408] fc5_classes_fc5_116_0_split -> fc5_classes_fc5_116_0_split_2
I0508 07:10:14.568507 20919 net.cpp:150] Setting up fc5_classes_fc5_116_0_split
I0508 07:10:14.568516 20919 net.cpp:157] Top shape: 1024 116 (118784)
I0508 07:10:14.568519 20919 net.cpp:157] Top shape: 1024 116 (118784)
I0508 07:10:14.568522 20919 net.cpp:157] Top shape: 1024 116 (118784)
I0508 07:10:14.568526 20919 net.cpp:165] Memory required for data: 4108615680
I0508 07:10:14.568528 20919 layer_factory.hpp:77] Creating layer softmax
I0508 07:10:14.568534 20919 net.cpp:100] Creating Layer softmax
I0508 07:10:14.568539 20919 net.cpp:434] softmax <- fc5_classes_fc5_116_0_split_0
I0508 07:10:14.568545 20919 net.cpp:408] softmax -> softmax
I0508 07:10:14.568796 20919 net.cpp:150] Setting up softmax
I0508 07:10:14.568807 20919 net.cpp:157] Top shape: 1024 116 (118784)
I0508 07:10:14.568810 20919 net.cpp:165] Memory required for data: 4109090816
I0508 07:10:14.568814 20919 layer_factory.hpp:77] Creating layer loss
I0508 07:10:14.568820 20919 net.cpp:100] Creating Layer loss
I0508 07:10:14.568825 20919 net.cpp:434] loss <- softmax
I0508 07:10:14.568828 20919 net.cpp:434] loss <- label_data_1_split_0
I0508 07:10:14.568835 20919 net.cpp:408] loss -> loss
…
