…
I0414 11:41:45.319011  3291 solver.cpp:93] Creating training net from train_net file: ./Prototxt/experiment_10/rtsd-r3/CoNorm/trial_4/train.prototxt
I0414 11:41:45.319432  3291 net.cpp:58] Initializing net from parameters: 
state {
  phase: TRAIN
  level: 0
  stage: ""
}
layer {
  name: "data"
  type: "Data"
  top: "data"
  top: "label"
  include {
    phase: TRAIN
  }
  transform_param {
    scale: 0.0039215689
    mirror: false
    crop_size: 48
    mean_value: 135
    mean_value: 134
    mean_value: 134
  }
  data_param {
    source: "../local_data/lmdb/rtsd-r3/CoNorm/train/lmdb"
    batch_size: 1024
    backend: LMDB
  }
}
layer {
  name: "conv1"
  type: "Convolution"
  bottom: "data"
  top: "conv1"
  convolution_param {
    num_output: 100
    pad: 0
    kernel_size: 7
    group: 1
    stride: 1
    weight_filler {
      type: "xavier"
    }
  }
}
layer {
  name: "conv1_relu"
  type: "ReLU"
  bottom: "conv1"
  top: "conv1"
}
layer {
  name: "pool1"
  type: "Pooling"
  bottom: "conv1"
  top: "pool1"
  pooling_param {
    pool: MAX
    kernel_size: 2
    stride: 2
  }
}
layer {
  name: "conv2"
  type: "Convolution"
  bottom: "pool1"
  top: "conv2"
  convolution_param {
    num_output: 150
    pad: 0
    kernel_size: 4
    group: 1
    stride: 1
    weight_filler {
      type: "xavier"
    }
  }
}
layer {
  name: "conv2_relu"
  type: "ReLU"
  bottom: "conv2"
  top: "conv2"
}
layer {
  name: "pool2"
  type: "Pooling"
  bottom: "conv2"
  top: "pool2"
  pooling_param {
    pool: MAX
    kernel_size: 2
    stride: 2
  }
}
layer {
  name: "conv3"
  type: "Convolution"
  bottom: "pool2"
  top: "conv3"
  convolution_param {
    num_output: 250
    pad: 0
    kernel_size: 4
    group: 1
    stride: 1
    weight_filler {
      type: "xavier"
    }
  }
}
layer {
  name: "conv3_relu"
  type: "ReLU"
  bottom: "conv3"
  top: "conv3"
}
layer {
  name: "pool3"
  type: "Pooling"
  bottom: "conv3"
  top: "pool3"
  pooling_param {
    pool: MAX
    kernel_size: 2
    stride: 2
  }
}
layer {
  name: "fc4_300"
  type: "InnerProduct"
  bottom: "pool3"
  top: "fc4_300"
  inner_product_param {
    num_output: 300
    weight_filler {
      type: "xavier"
    }
  }
}
layer {
  name: "fc4_relu"
  type: "ReLU"
  bottom: "fc4_300"
  top: "fc4_300"
}
layer {
  name: "fc5_106"
  type: "InnerProduct"
  bottom: "fc4_300"
  top: "fc5_classes"
  inner_product_param {
    num_output: 106
    weight_filler {
      type: "xavier"
    }
  }
}
layer {
  name: "softmax"
  type: "Softmax"
  bottom: "fc5_classes"
  top: "softmax"
}
layer {
  name: "loss"
  type: "MultinomialLogisticLoss"
  bottom: "softmax"
  bottom: "label"
  top: "loss"
}
layer {
  name: "accuracy_1"
  type: "Accuracy"
  bottom: "fc5_classes"
  bottom: "label"
  top: "accuracy_1"
  accuracy_param {
    top_k: 1
  }
}
layer {
  name: "accuracy_5"
  type: "Accuracy"
  bottom: "fc5_classes"
  bottom: "label"
  top: "accuracy_5"
  accuracy_param {
    top_k: 5
  }
}
layer {
  name: "silence"
  type: "Silence"
  bottom: "accuracy_1"
  bottom: "accuracy_5"
}
I0414 11:41:45.319588  3291 layer_factory.hpp:77] Creating layer data
I0414 11:41:45.320991  3291 net.cpp:100] Creating Layer data
I0414 11:41:45.321010  3291 net.cpp:408] data -> data
I0414 11:41:45.321038  3291 net.cpp:408] data -> label
I0414 11:41:45.323719  3412 db_lmdb.cpp:35] Opened lmdb ../local_data/lmdb/rtsd-r3/CoNorm/train/lmdb
I0414 11:41:45.346961  3291 data_layer.cpp:41] output data size: 1024,3,48,48
I0414 11:41:45.413481  3291 net.cpp:150] Setting up data
I0414 11:41:45.413538  3291 net.cpp:157] Top shape: 1024 3 48 48 (7077888)
I0414 11:41:45.413547  3291 net.cpp:157] Top shape: 1024 (1024)
I0414 11:41:45.413552  3291 net.cpp:165] Memory required for data: 28315648
I0414 11:41:45.413563  3291 layer_factory.hpp:77] Creating layer label_data_1_split
I0414 11:41:45.413578  3291 net.cpp:100] Creating Layer label_data_1_split
I0414 11:41:45.413589  3291 net.cpp:434] label_data_1_split <- label
I0414 11:41:45.413605  3291 net.cpp:408] label_data_1_split -> label_data_1_split_0
I0414 11:41:45.413620  3291 net.cpp:408] label_data_1_split -> label_data_1_split_1
I0414 11:41:45.413630  3291 net.cpp:408] label_data_1_split -> label_data_1_split_2
I0414 11:41:45.413710  3291 net.cpp:150] Setting up label_data_1_split
I0414 11:41:45.413720  3291 net.cpp:157] Top shape: 1024 (1024)
I0414 11:41:45.413727  3291 net.cpp:157] Top shape: 1024 (1024)
I0414 11:41:45.413731  3291 net.cpp:157] Top shape: 1024 (1024)
I0414 11:41:45.413734  3291 net.cpp:165] Memory required for data: 28327936
I0414 11:41:45.413738  3291 layer_factory.hpp:77] Creating layer conv1
I0414 11:41:45.413758  3291 net.cpp:100] Creating Layer conv1
I0414 11:41:45.413763  3291 net.cpp:434] conv1 <- data
I0414 11:41:45.413772  3291 net.cpp:408] conv1 -> conv1
I0414 11:41:45.883054  3291 net.cpp:150] Setting up conv1
I0414 11:41:45.883081  3291 net.cpp:157] Top shape: 1024 100 42 42 (180633600)
I0414 11:41:45.883085  3291 net.cpp:165] Memory required for data: 750862336
I0414 11:41:45.883107  3291 layer_factory.hpp:77] Creating layer conv1_relu
I0414 11:41:45.883117  3291 net.cpp:100] Creating Layer conv1_relu
I0414 11:41:45.883121  3291 net.cpp:434] conv1_relu <- conv1
I0414 11:41:45.883127  3291 net.cpp:395] conv1_relu -> conv1 (in-place)
I0414 11:41:45.883329  3291 net.cpp:150] Setting up conv1_relu
I0414 11:41:45.883342  3291 net.cpp:157] Top shape: 1024 100 42 42 (180633600)
I0414 11:41:45.883344  3291 net.cpp:165] Memory required for data: 1473396736
I0414 11:41:45.883348  3291 layer_factory.hpp:77] Creating layer pool1
I0414 11:41:45.883358  3291 net.cpp:100] Creating Layer pool1
I0414 11:41:45.883363  3291 net.cpp:434] pool1 <- conv1
I0414 11:41:45.883368  3291 net.cpp:408] pool1 -> pool1
I0414 11:41:45.883422  3291 net.cpp:150] Setting up pool1
I0414 11:41:45.883431  3291 net.cpp:157] Top shape: 1024 100 21 21 (45158400)
I0414 11:41:45.883435  3291 net.cpp:165] Memory required for data: 1654030336
I0414 11:41:45.883437  3291 layer_factory.hpp:77] Creating layer conv2
I0414 11:41:45.883447  3291 net.cpp:100] Creating Layer conv2
I0414 11:41:45.883452  3291 net.cpp:434] conv2 <- pool1
I0414 11:41:45.883457  3291 net.cpp:408] conv2 -> conv2
I0414 11:41:45.900435  3291 net.cpp:150] Setting up conv2
I0414 11:41:45.900454  3291 net.cpp:157] Top shape: 1024 150 18 18 (49766400)
I0414 11:41:45.900456  3291 net.cpp:165] Memory required for data: 1853095936
I0414 11:41:45.900466  3291 layer_factory.hpp:77] Creating layer conv2_relu
I0414 11:41:45.900473  3291 net.cpp:100] Creating Layer conv2_relu
I0414 11:41:45.900476  3291 net.cpp:434] conv2_relu <- conv2
I0414 11:41:45.900482  3291 net.cpp:395] conv2_relu -> conv2 (in-place)
I0414 11:41:45.902012  3291 net.cpp:150] Setting up conv2_relu
I0414 11:41:45.902036  3291 net.cpp:157] Top shape: 1024 150 18 18 (49766400)
I0414 11:41:45.902040  3291 net.cpp:165] Memory required for data: 2052161536
I0414 11:41:45.902045  3291 layer_factory.hpp:77] Creating layer pool2
I0414 11:41:45.902051  3291 net.cpp:100] Creating Layer pool2
I0414 11:41:45.902055  3291 net.cpp:434] pool2 <- conv2
I0414 11:41:45.902060  3291 net.cpp:408] pool2 -> pool2
I0414 11:41:45.902110  3291 net.cpp:150] Setting up pool2
I0414 11:41:45.902119  3291 net.cpp:157] Top shape: 1024 150 9 9 (12441600)
I0414 11:41:45.902122  3291 net.cpp:165] Memory required for data: 2101927936
I0414 11:41:45.902125  3291 layer_factory.hpp:77] Creating layer conv3
I0414 11:41:45.902134  3291 net.cpp:100] Creating Layer conv3
I0414 11:41:45.902138  3291 net.cpp:434] conv3 <- pool2
I0414 11:41:45.902143  3291 net.cpp:408] conv3 -> conv3
I0414 11:41:45.922338  3291 net.cpp:150] Setting up conv3
I0414 11:41:45.922356  3291 net.cpp:157] Top shape: 1024 250 6 6 (9216000)
I0414 11:41:45.922360  3291 net.cpp:165] Memory required for data: 2138791936
I0414 11:41:45.922369  3291 layer_factory.hpp:77] Creating layer conv3_relu
I0414 11:41:45.922376  3291 net.cpp:100] Creating Layer conv3_relu
I0414 11:41:45.922380  3291 net.cpp:434] conv3_relu <- conv3
I0414 11:41:45.922386  3291 net.cpp:395] conv3_relu -> conv3 (in-place)
I0414 11:41:45.926724  3291 net.cpp:150] Setting up conv3_relu
I0414 11:41:45.926743  3291 net.cpp:157] Top shape: 1024 250 6 6 (9216000)
I0414 11:41:45.926746  3291 net.cpp:165] Memory required for data: 2175655936
I0414 11:41:45.926749  3291 layer_factory.hpp:77] Creating layer pool3
I0414 11:41:45.926756  3291 net.cpp:100] Creating Layer pool3
I0414 11:41:45.926760  3291 net.cpp:434] pool3 <- conv3
I0414 11:41:45.926765  3291 net.cpp:408] pool3 -> pool3
I0414 11:41:45.926815  3291 net.cpp:150] Setting up pool3
I0414 11:41:45.926825  3291 net.cpp:157] Top shape: 1024 250 3 3 (2304000)
I0414 11:41:45.926827  3291 net.cpp:165] Memory required for data: 2184871936
I0414 11:41:45.926829  3291 layer_factory.hpp:77] Creating layer fc4_300
I0414 11:41:45.926836  3291 net.cpp:100] Creating Layer fc4_300
I0414 11:41:45.926839  3291 net.cpp:434] fc4_300 <- pool3
I0414 11:41:45.926844  3291 net.cpp:408] fc4_300 -> fc4_300
I0414 11:41:45.933202  3291 net.cpp:150] Setting up fc4_300
I0414 11:41:45.933220  3291 net.cpp:157] Top shape: 1024 300 (307200)
I0414 11:41:45.933223  3291 net.cpp:165] Memory required for data: 2186100736
I0414 11:41:45.933230  3291 layer_factory.hpp:77] Creating layer fc4_relu
I0414 11:41:45.933238  3291 net.cpp:100] Creating Layer fc4_relu
I0414 11:41:45.933240  3291 net.cpp:434] fc4_relu <- fc4_300
I0414 11:41:45.933245  3291 net.cpp:395] fc4_relu -> fc4_300 (in-place)
I0414 11:41:45.933439  3291 net.cpp:150] Setting up fc4_relu
I0414 11:41:45.933451  3291 net.cpp:157] Top shape: 1024 300 (307200)
I0414 11:41:45.933454  3291 net.cpp:165] Memory required for data: 2187329536
I0414 11:41:45.933459  3291 layer_factory.hpp:77] Creating layer fc5_106
I0414 11:41:45.933465  3291 net.cpp:100] Creating Layer fc5_106
I0414 11:41:45.933467  3291 net.cpp:434] fc5_106 <- fc4_300
I0414 11:41:45.933472  3291 net.cpp:408] fc5_106 -> fc5_classes
I0414 11:41:45.935561  3291 net.cpp:150] Setting up fc5_106
I0414 11:41:45.935576  3291 net.cpp:157] Top shape: 1024 106 (108544)
I0414 11:41:45.935580  3291 net.cpp:165] Memory required for data: 2187763712
I0414 11:41:45.935590  3291 layer_factory.hpp:77] Creating layer fc5_classes_fc5_106_0_split
I0414 11:41:45.935597  3291 net.cpp:100] Creating Layer fc5_classes_fc5_106_0_split
I0414 11:41:45.935600  3291 net.cpp:434] fc5_classes_fc5_106_0_split <- fc5_classes
I0414 11:41:45.935606  3291 net.cpp:408] fc5_classes_fc5_106_0_split -> fc5_classes_fc5_106_0_split_0
I0414 11:41:45.935613  3291 net.cpp:408] fc5_classes_fc5_106_0_split -> fc5_classes_fc5_106_0_split_1
I0414 11:41:45.935622  3291 net.cpp:408] fc5_classes_fc5_106_0_split -> fc5_classes_fc5_106_0_split_2
I0414 11:41:45.935673  3291 net.cpp:150] Setting up fc5_classes_fc5_106_0_split
I0414 11:41:45.935680  3291 net.cpp:157] Top shape: 1024 106 (108544)
I0414 11:41:45.935684  3291 net.cpp:157] Top shape: 1024 106 (108544)
I0414 11:41:45.935688  3291 net.cpp:157] Top shape: 1024 106 (108544)
I0414 11:41:45.935690  3291 net.cpp:165] Memory required for data: 2189066240
I0414 11:41:45.935693  3291 layer_factory.hpp:77] Creating layer softmax
I0414 11:41:45.935699  3291 net.cpp:100] Creating Layer softmax
I0414 11:41:45.935703  3291 net.cpp:434] softmax <- fc5_classes_fc5_106_0_split_0
I0414 11:41:45.935709  3291 net.cpp:408] softmax -> softmax
I0414 11:41:45.935977  3291 net.cpp:150] Setting up softmax
I0414 11:41:45.935989  3291 net.cpp:157] Top shape: 1024 106 (108544)
I0414 11:41:45.935993  3291 net.cpp:165] Memory required for data: 2189500416
I0414 11:41:45.935997  3291 layer_factory.hpp:77] Creating layer loss
I0414 11:41:45.936020  3291 net.cpp:100] Creating Layer loss
I0414 11:41:45.936025  3291 net.cpp:434] loss <- softmax
I0414 11:41:45.936030  3291 net.cpp:434] loss <- label_data_1_split_0
I0414 11:41:45.936035  3291 net.cpp:408] loss -> loss
…
