…
I0402 12:56:31.477627  9188 net.cpp:322] The NetState phase (0) differed from the phase (1) specified by a rule in layer accuracy_5
I0402 12:56:31.477741  9188 net.cpp:58] Initializing net from parameters: 
state {
  phase: TRAIN
  level: 0
  stage: ""
}
layer {
  name: "data"
  type: "Data"
  top: "data"
  top: "label"
  include {
    phase: TRAIN
  }
  transform_param {
    mirror: false
    crop_size: 48
    mean_value: 115
    mean_value: 108
    mean_value: 122
  }
  data_param {
    source: "../local_data/lmdb/rtsd-r1/imajust/train/lmdb"
    batch_size: 1024
    backend: LMDB
  }
}
layer {
  name: "conv1"
  type: "Convolution"
  bottom: "data"
  top: "conv1"
  convolution_param {
    num_output: 100
    pad: 0
    kernel_size: 7
    group: 1
    stride: 1
    weight_filler {
      type: "xavier"
    }
  }
}
layer {
  name: "conv1_relu"
  type: "ReLU"
  bottom: "conv1"
  top: "conv1"
}
layer {
  name: "pool1"
  type: "Pooling"
  bottom: "conv1"
  top: "pool1"
  pooling_param {
    pool: MAX
    kernel_size: 2
    stride: 2
  }
}
layer {
  name: "conv2"
  type: "Convolution"
  bottom: "pool1"
  top: "conv2"
  convolution_param {
    num_output: 150
    pad: 0
    kernel_size: 4
    group: 1
    stride: 1
    weight_filler {
      type: "xavier"
    }
  }
}
layer {
  name: "conv2_relu"
  type: "ReLU"
  bottom: "conv2"
  top: "conv2"
}
layer {
  name: "pool2"
  type: "Pooling"
  bottom: "conv2"
  top: "pool2"
  pooling_param {
    pool: MAX
    kernel_size: 2
    stride: 2
  }
}
layer {
  name: "conv3"
  type: "Convolution"
  bottom: "pool2"
  top: "conv3"
  convolution_param {
    num_output: 250
    pad: 0
    kernel_size: 4
    group: 1
    stride: 1
    weight_filler {
      type: "xavier"
    }
  }
}
layer {
  name: "conv3_relu"
  type: "ReLU"
  bottom: "conv3"
  top: "conv3"
}
layer {
  name: "pool3"
  type: "Pooling"
  bottom: "conv3"
  top: "pool3"
  pooling_param {
    pool: MAX
    kernel_size: 2
    stride: 2
  }
}
layer {
  name: "fc4_300"
  type: "InnerProduct"
  bottom: "pool3"
  top: "fc4_300"
  inner_product_param {
    num_output: 300
    weight_filler {
      type: "xavier"
    }
  }
}
layer {
  name: "fc4_relu"
  type: "ReLU"
  bottom: "fc4_300"
  top: "fc4_300"
}
layer {
  name: "drop4"
  type: "Dropout"
  bottom: "fc4_300"
  top: "fc4_300"
  dropout_param {
    dropout_ratio: 0.4
  }
}
layer {
  name: "fc5_67"
  type: "InnerProduct"
  bottom: "fc4_300"
  top: "fc5_classes"
  inner_product_param {
    num_output: 67
    weight_filler {
      type: "xavier"
    }
  }
}
layer {
  name: "loss"
  type: "SoftmaxWithLoss"
  bottom: "fc5_classes"
  bottom: "label"
  top: "loss"
}
I0402 12:56:31.477825  9188 layer_factory.hpp:77] Creating layer data
I0402 12:56:31.479120  9188 net.cpp:100] Creating Layer data
I0402 12:56:31.479138  9188 net.cpp:408] data -> data
I0402 12:56:31.479176  9188 net.cpp:408] data -> label
I0402 12:56:31.480610  9234 db_lmdb.cpp:35] Opened lmdb ../local_data/lmdb/rtsd-r1/imajust/train/lmdb
I0402 12:56:31.501126  9188 data_layer.cpp:41] output data size: 1024,3,48,48
I0402 12:56:31.561246  9188 net.cpp:150] Setting up data
I0402 12:56:31.561283  9188 net.cpp:157] Top shape: 1024 3 48 48 (7077888)
I0402 12:56:31.561290  9188 net.cpp:157] Top shape: 1024 (1024)
I0402 12:56:31.561318  9188 net.cpp:165] Memory required for data: 28315648
I0402 12:56:31.561331  9188 layer_factory.hpp:77] Creating layer conv1
I0402 12:56:31.561359  9188 net.cpp:100] Creating Layer conv1
I0402 12:56:31.561372  9188 net.cpp:434] conv1 <- data
I0402 12:56:31.561386  9188 net.cpp:408] conv1 -> conv1
I0402 12:56:31.869843  9188 net.cpp:150] Setting up conv1
I0402 12:56:31.869875  9188 net.cpp:157] Top shape: 1024 100 42 42 (180633600)
I0402 12:56:31.869879  9188 net.cpp:165] Memory required for data: 750850048
I0402 12:56:31.869902  9188 layer_factory.hpp:77] Creating layer conv1_relu
I0402 12:56:31.869915  9188 net.cpp:100] Creating Layer conv1_relu
I0402 12:56:31.869918  9188 net.cpp:434] conv1_relu <- conv1
I0402 12:56:31.869925  9188 net.cpp:395] conv1_relu -> conv1 (in-place)
I0402 12:56:31.870121  9188 net.cpp:150] Setting up conv1_relu
I0402 12:56:31.870133  9188 net.cpp:157] Top shape: 1024 100 42 42 (180633600)
I0402 12:56:31.870137  9188 net.cpp:165] Memory required for data: 1473384448
I0402 12:56:31.870141  9188 layer_factory.hpp:77] Creating layer pool1
I0402 12:56:31.870147  9188 net.cpp:100] Creating Layer pool1
I0402 12:56:31.870151  9188 net.cpp:434] pool1 <- conv1
I0402 12:56:31.870156  9188 net.cpp:408] pool1 -> pool1
I0402 12:56:31.870208  9188 net.cpp:150] Setting up pool1
I0402 12:56:31.870216  9188 net.cpp:157] Top shape: 1024 100 21 21 (45158400)
I0402 12:56:31.870219  9188 net.cpp:165] Memory required for data: 1654018048
I0402 12:56:31.870223  9188 layer_factory.hpp:77] Creating layer conv2
I0402 12:56:31.870234  9188 net.cpp:100] Creating Layer conv2
I0402 12:56:31.870237  9188 net.cpp:434] conv2 <- pool1
I0402 12:56:31.870242  9188 net.cpp:408] conv2 -> conv2
I0402 12:56:31.874441  9188 net.cpp:150] Setting up conv2
I0402 12:56:31.874469  9188 net.cpp:157] Top shape: 1024 150 18 18 (49766400)
I0402 12:56:31.874474  9188 net.cpp:165] Memory required for data: 1853083648
I0402 12:56:31.874483  9188 layer_factory.hpp:77] Creating layer conv2_relu
I0402 12:56:31.874490  9188 net.cpp:100] Creating Layer conv2_relu
I0402 12:56:31.874493  9188 net.cpp:434] conv2_relu <- conv2
I0402 12:56:31.874497  9188 net.cpp:395] conv2_relu -> conv2 (in-place)
I0402 12:56:31.875231  9188 net.cpp:150] Setting up conv2_relu
I0402 12:56:31.875247  9188 net.cpp:157] Top shape: 1024 150 18 18 (49766400)
I0402 12:56:31.875250  9188 net.cpp:165] Memory required for data: 2052149248
I0402 12:56:31.875254  9188 layer_factory.hpp:77] Creating layer pool2
I0402 12:56:31.875260  9188 net.cpp:100] Creating Layer pool2
I0402 12:56:31.875264  9188 net.cpp:434] pool2 <- conv2
I0402 12:56:31.875269  9188 net.cpp:408] pool2 -> pool2
I0402 12:56:31.875313  9188 net.cpp:150] Setting up pool2
I0402 12:56:31.875321  9188 net.cpp:157] Top shape: 1024 150 9 9 (12441600)
I0402 12:56:31.875324  9188 net.cpp:165] Memory required for data: 2101915648
I0402 12:56:31.875327  9188 layer_factory.hpp:77] Creating layer conv3
I0402 12:56:31.875336  9188 net.cpp:100] Creating Layer conv3
I0402 12:56:31.875339  9188 net.cpp:434] conv3 <- pool2
I0402 12:56:31.875344  9188 net.cpp:408] conv3 -> conv3
I0402 12:56:31.880765  9188 net.cpp:150] Setting up conv3
I0402 12:56:31.880782  9188 net.cpp:157] Top shape: 1024 250 6 6 (9216000)
I0402 12:56:31.880785  9188 net.cpp:165] Memory required for data: 2138779648
I0402 12:56:31.880795  9188 layer_factory.hpp:77] Creating layer conv3_relu
I0402 12:56:31.880802  9188 net.cpp:100] Creating Layer conv3_relu
I0402 12:56:31.880805  9188 net.cpp:434] conv3_relu <- conv3
I0402 12:56:31.880810  9188 net.cpp:395] conv3_relu -> conv3 (in-place)
I0402 12:56:31.881582  9188 net.cpp:150] Setting up conv3_relu
I0402 12:56:31.881608  9188 net.cpp:157] Top shape: 1024 250 6 6 (9216000)
I0402 12:56:31.881611  9188 net.cpp:165] Memory required for data: 2175643648
I0402 12:56:31.881614  9188 layer_factory.hpp:77] Creating layer pool3
I0402 12:56:31.881633  9188 net.cpp:100] Creating Layer pool3
I0402 12:56:31.881636  9188 net.cpp:434] pool3 <- conv3
I0402 12:56:31.881642  9188 net.cpp:408] pool3 -> pool3
I0402 12:56:31.881685  9188 net.cpp:150] Setting up pool3
I0402 12:56:31.881709  9188 net.cpp:157] Top shape: 1024 250 3 3 (2304000)
I0402 12:56:31.881713  9188 net.cpp:165] Memory required for data: 2184859648
I0402 12:56:31.881716  9188 layer_factory.hpp:77] Creating layer fc4_300
I0402 12:56:31.881723  9188 net.cpp:100] Creating Layer fc4_300
I0402 12:56:31.881727  9188 net.cpp:434] fc4_300 <- pool3
I0402 12:56:31.881732  9188 net.cpp:408] fc4_300 -> fc4_300
I0402 12:56:31.886991  9188 net.cpp:150] Setting up fc4_300
I0402 12:56:31.887008  9188 net.cpp:157] Top shape: 1024 300 (307200)
I0402 12:56:31.887012  9188 net.cpp:165] Memory required for data: 2186088448
I0402 12:56:31.887018  9188 layer_factory.hpp:77] Creating layer fc4_relu
I0402 12:56:31.887024  9188 net.cpp:100] Creating Layer fc4_relu
I0402 12:56:31.887027  9188 net.cpp:434] fc4_relu <- fc4_300
I0402 12:56:31.887032  9188 net.cpp:395] fc4_relu -> fc4_300 (in-place)
I0402 12:56:31.887212  9188 net.cpp:150] Setting up fc4_relu
I0402 12:56:31.887224  9188 net.cpp:157] Top shape: 1024 300 (307200)
I0402 12:56:31.887228  9188 net.cpp:165] Memory required for data: 2187317248
I0402 12:56:31.887230  9188 layer_factory.hpp:77] Creating layer drop4
I0402 12:56:31.887238  9188 net.cpp:100] Creating Layer drop4
I0402 12:56:31.887240  9188 net.cpp:434] drop4 <- fc4_300
I0402 12:56:31.887244  9188 net.cpp:395] drop4 -> fc4_300 (in-place)
I0402 12:56:31.887274  9188 net.cpp:150] Setting up drop4
I0402 12:56:31.887282  9188 net.cpp:157] Top shape: 1024 300 (307200)
I0402 12:56:31.887285  9188 net.cpp:165] Memory required for data: 2188546048
I0402 12:56:31.887289  9188 layer_factory.hpp:77] Creating layer fc5_67
I0402 12:56:31.887293  9188 net.cpp:100] Creating Layer fc5_67
I0402 12:56:31.887297  9188 net.cpp:434] fc5_67 <- fc4_300
I0402 12:56:31.887302  9188 net.cpp:408] fc5_67 -> fc5_classes
I0402 12:56:31.888496  9188 net.cpp:150] Setting up fc5_67
I0402 12:56:31.888511  9188 net.cpp:157] Top shape: 1024 67 (68608)
I0402 12:56:31.888514  9188 net.cpp:165] Memory required for data: 2188820480
I0402 12:56:31.888525  9188 layer_factory.hpp:77] Creating layer loss
I0402 12:56:31.888531  9188 net.cpp:100] Creating Layer loss
I0402 12:56:31.888535  9188 net.cpp:434] loss <- fc5_classes
I0402 12:56:31.888540  9188 net.cpp:434] loss <- label
I0402 12:56:31.888546  9188 net.cpp:408] loss -> loss
I0402 12:56:31.888558  9188 layer_factory.hpp:77] Creating layer loss
…
I0402 12:56:31.889174  9188 solver.cpp:193] Creating test net (#0) specified by test_net file: ./Prototxt/rtsd-r1/imajust/test.prototxt
I0402 12:56:31.889314  9188 net.cpp:58] Initializing net from parameters: 
state {
  phase: TEST
}
layer {
  name: "data"
  type: "Data"
  top: "data"
  top: "label"
  include {
    phase: TEST
  }
  transform_param {
    mirror: false
    crop_size: 48
    mean_value: 109
    mean_value: 106
    mean_value: 126
  }
  data_param {
    source: "../local_data/lmdb/rtsd-r1/imajust/test/lmdb"
    batch_size: 1024
    backend: LMDB
  }
}
layer {
  name: "conv1"
  type: "Convolution"
  bottom: "data"
  top: "conv1"
  convolution_param {
    num_output: 100
    pad: 0
    kernel_size: 7
    group: 1
    stride: 1
    weight_filler {
      type: "xavier"
    }
  }
}
layer {
  name: "conv1_relu"
  type: "ReLU"
  bottom: "conv1"
  top: "conv1"
}
layer {
  name: "pool1"
  type: "Pooling"
  bottom: "conv1"
  top: "pool1"
  pooling_param {
    pool: MAX
    kernel_size: 2
    stride: 2
  }
}
layer {
  name: "conv2"
  type: "Convolution"
  bottom: "pool1"
  top: "conv2"
  convolution_param {
    num_output: 150
    pad: 0
    kernel_size: 4
    group: 1
    stride: 1
    weight_filler {
      type: "xavier"
    }
  }
}
layer {
  name: "conv2_relu"
  type: "ReLU"
  bottom: "conv2"
  top: "conv2"
}
layer {
  name: "pool2"
  type: "Pooling"
  bottom: "conv2"
  top: "pool2"
  pooling_param {
    pool: MAX
    kernel_size: 2
    stride: 2
  }
}
layer {
  name: "conv3"
  type: "Convolution"
  bottom: "pool2"
  top: "conv3"
  convolution_param {
    num_output: 250
    pad: 0
    kernel_size: 4
    group: 1
    stride: 1
    weight_filler {
      type: "xavier"
    }
  }
}
layer {
  name: "conv3_relu"
  type: "ReLU"
  bottom: "conv3"
  top: "conv3"
}
layer {
  name: "pool3"
  type: "Pooling"
  bottom: "conv3"
  top: "pool3"
  pooling_param {
    pool: MAX
    kernel_size: 2
    stride: 2
  }
}
layer {
  name: "fc4_300"
  type: "InnerProduct"
  bottom: "pool3"
  top: "fc4_300"
  inner_product_param {
    num_output: 300
    weight_filler {
      type: "xavier"
    }
  }
}
layer {
  name: "fc4_relu"
  type: "ReLU"
  bottom: "fc4_300"
  top: "fc4_300"
}
layer {
  name: "drop4"
  type: "Dropout"
  bottom: "fc4_300"
  top: "fc4_300"
  dropout_param {
    dropout_ratio: 0.4
  }
}
layer {
  name: "fc5_67"
  type: "InnerProduct"
  bottom: "fc4_300"
  top: "fc5_classes"
  inner_product_param {
    num_output: 67
    weight_filler {
      type: "xavier"
    }
  }
}
layer {
  name: "loss"
  type: "SoftmaxWithLoss"
  bottom: "fc5_classes"
  bottom: "label"
  top: "loss"
}
layer {
  name: "accuracy_1"
  type: "Accuracy"
  bottom: "fc5_classes"
  bottom: "label"
  top: "accuracy_1"
  include {
    phase: TEST
  }
  accuracy_param {
    top_k: 1
  }
}
layer {
  name: "accuracy_5"
  type: "Accuracy"
  bottom: "fc5_classes"
  bottom: "label"
  top: "accuracy_5"
  include {
    phase: TEST
  }
  accuracy_param {
    top_k: 5
  }
}
I0402 12:56:31.889397  9188 layer_factory.hpp:77] Creating layer data
I0402 12:56:31.890014  9188 net.cpp:100] Creating Layer data
I0402 12:56:31.890027  9188 net.cpp:408] data -> data
I0402 12:56:31.890036  9188 net.cpp:408] data -> label
I0402 12:56:31.891201  9245 db_lmdb.cpp:35] Opened lmdb ../local_data/lmdb/rtsd-r1/imajust/test/lmdb
I0402 12:56:31.891440  9188 data_layer.cpp:41] output data size: 1024,3,48,48
I0402 12:56:31.931030  9188 net.cpp:150] Setting up data
I0402 12:56:31.931061  9188 net.cpp:157] Top shape: 1024 3 48 48 (7077888)
I0402 12:56:31.931066  9188 net.cpp:157] Top shape: 1024 (1024)
I0402 12:56:31.931068  9188 net.cpp:165] Memory required for data: 28315648
I0402 12:56:31.931076  9188 layer_factory.hpp:77] Creating layer label_data_1_split
I0402 12:56:31.931089  9188 net.cpp:100] Creating Layer label_data_1_split
I0402 12:56:31.931093  9188 net.cpp:434] label_data_1_split <- label
I0402 12:56:31.931100  9188 net.cpp:408] label_data_1_split -> label_data_1_split_0
I0402 12:56:31.931112  9188 net.cpp:408] label_data_1_split -> label_data_1_split_1
I0402 12:56:31.931118  9188 net.cpp:408] label_data_1_split -> label_data_1_split_2
I0402 12:56:31.931273  9188 net.cpp:150] Setting up label_data_1_split
I0402 12:56:31.931298  9188 net.cpp:157] Top shape: 1024 (1024)
I0402 12:56:31.931303  9188 net.cpp:157] Top shape: 1024 (1024)
I0402 12:56:31.931308  9188 net.cpp:157] Top shape: 1024 (1024)
I0402 12:56:31.931309  9188 net.cpp:165] Memory required for data: 28327936
I0402 12:56:31.931313  9188 layer_factory.hpp:77] Creating layer conv1
I0402 12:56:31.931325  9188 net.cpp:100] Creating Layer conv1
I0402 12:56:31.931332  9188 net.cpp:434] conv1 <- data
I0402 12:56:31.931337  9188 net.cpp:408] conv1 -> conv1
I0402 12:56:31.935225  9188 net.cpp:150] Setting up conv1
I0402 12:56:31.935243  9188 net.cpp:157] Top shape: 1024 100 42 42 (180633600)
I0402 12:56:31.935250  9188 net.cpp:165] Memory required for data: 750862336
I0402 12:56:31.935261  9188 layer_factory.hpp:77] Creating layer conv1_relu
I0402 12:56:31.935269  9188 net.cpp:100] Creating Layer conv1_relu
I0402 12:56:31.935273  9188 net.cpp:434] conv1_relu <- conv1
I0402 12:56:31.935278  9188 net.cpp:395] conv1_relu -> conv1 (in-place)
I0402 12:56:31.935459  9188 net.cpp:150] Setting up conv1_relu
I0402 12:56:31.935470  9188 net.cpp:157] Top shape: 1024 100 42 42 (180633600)
I0402 12:56:31.935474  9188 net.cpp:165] Memory required for data: 1473396736
I0402 12:56:31.935477  9188 layer_factory.hpp:77] Creating layer pool1
I0402 12:56:31.935487  9188 net.cpp:100] Creating Layer pool1
I0402 12:56:31.935489  9188 net.cpp:434] pool1 <- conv1
I0402 12:56:31.935495  9188 net.cpp:408] pool1 -> pool1
I0402 12:56:31.935541  9188 net.cpp:150] Setting up pool1
I0402 12:56:31.935550  9188 net.cpp:157] Top shape: 1024 100 21 21 (45158400)
I0402 12:56:31.935554  9188 net.cpp:165] Memory required for data: 1654030336
I0402 12:56:31.935556  9188 layer_factory.hpp:77] Creating layer conv2
I0402 12:56:31.935564  9188 net.cpp:100] Creating Layer conv2
I0402 12:56:31.935569  9188 net.cpp:434] conv2 <- pool1
I0402 12:56:31.935575  9188 net.cpp:408] conv2 -> conv2
I0402 12:56:31.939419  9188 net.cpp:150] Setting up conv2
I0402 12:56:31.939436  9188 net.cpp:157] Top shape: 1024 150 18 18 (49766400)
I0402 12:56:31.939440  9188 net.cpp:165] Memory required for data: 1853095936
I0402 12:56:31.939450  9188 layer_factory.hpp:77] Creating layer conv2_relu
I0402 12:56:31.939456  9188 net.cpp:100] Creating Layer conv2_relu
I0402 12:56:31.939460  9188 net.cpp:434] conv2_relu <- conv2
I0402 12:56:31.939465  9188 net.cpp:395] conv2_relu -> conv2 (in-place)
I0402 12:56:31.940227  9188 net.cpp:150] Setting up conv2_relu
I0402 12:56:31.940253  9188 net.cpp:157] Top shape: 1024 150 18 18 (49766400)
I0402 12:56:31.940256  9188 net.cpp:165] Memory required for data: 2052161536
I0402 12:56:31.940260  9188 layer_factory.hpp:77] Creating layer pool2
I0402 12:56:31.940266  9188 net.cpp:100] Creating Layer pool2
I0402 12:56:31.940270  9188 net.cpp:434] pool2 <- conv2
I0402 12:56:31.940276  9188 net.cpp:408] pool2 -> pool2
I0402 12:56:31.940325  9188 net.cpp:150] Setting up pool2
I0402 12:56:31.940335  9188 net.cpp:157] Top shape: 1024 150 9 9 (12441600)
I0402 12:56:31.940338  9188 net.cpp:165] Memory required for data: 2101927936
I0402 12:56:31.940341  9188 layer_factory.hpp:77] Creating layer conv3
I0402 12:56:31.940353  9188 net.cpp:100] Creating Layer conv3
I0402 12:56:31.940358  9188 net.cpp:434] conv3 <- pool2
I0402 12:56:31.940363  9188 net.cpp:408] conv3 -> conv3
I0402 12:56:31.945819  9188 net.cpp:150] Setting up conv3
I0402 12:56:31.945837  9188 net.cpp:157] Top shape: 1024 250 6 6 (9216000)
I0402 12:56:31.945840  9188 net.cpp:165] Memory required for data: 2138791936
I0402 12:56:31.945852  9188 layer_factory.hpp:77] Creating layer conv3_relu
I0402 12:56:31.945858  9188 net.cpp:100] Creating Layer conv3_relu
I0402 12:56:31.945861  9188 net.cpp:434] conv3_relu <- conv3
I0402 12:56:31.945866  9188 net.cpp:395] conv3_relu -> conv3 (in-place)
I0402 12:56:31.946617  9188 net.cpp:150] Setting up conv3_relu
I0402 12:56:31.946633  9188 net.cpp:157] Top shape: 1024 250 6 6 (9216000)
I0402 12:56:31.946636  9188 net.cpp:165] Memory required for data: 2175655936
I0402 12:56:31.946640  9188 layer_factory.hpp:77] Creating layer pool3
I0402 12:56:31.946663  9188 net.cpp:100] Creating Layer pool3
I0402 12:56:31.946668  9188 net.cpp:434] pool3 <- conv3
I0402 12:56:31.946674  9188 net.cpp:408] pool3 -> pool3
I0402 12:56:31.946722  9188 net.cpp:150] Setting up pool3
I0402 12:56:31.946732  9188 net.cpp:157] Top shape: 1024 250 3 3 (2304000)
I0402 12:56:31.946734  9188 net.cpp:165] Memory required for data: 2184871936
I0402 12:56:31.946738  9188 layer_factory.hpp:77] Creating layer fc4_300
I0402 12:56:31.946745  9188 net.cpp:100] Creating Layer fc4_300
I0402 12:56:31.946748  9188 net.cpp:434] fc4_300 <- pool3
I0402 12:56:31.946753  9188 net.cpp:408] fc4_300 -> fc4_300
I0402 12:56:31.952126  9188 net.cpp:150] Setting up fc4_300
I0402 12:56:31.952145  9188 net.cpp:157] Top shape: 1024 300 (307200)
I0402 12:56:31.952149  9188 net.cpp:165] Memory required for data: 2186100736
I0402 12:56:31.952157  9188 layer_factory.hpp:77] Creating layer fc4_relu
I0402 12:56:31.952164  9188 net.cpp:100] Creating Layer fc4_relu
I0402 12:56:31.952169  9188 net.cpp:434] fc4_relu <- fc4_300
I0402 12:56:31.952175  9188 net.cpp:395] fc4_relu -> fc4_300 (in-place)
I0402 12:56:31.952374  9188 net.cpp:150] Setting up fc4_relu
I0402 12:56:31.952388  9188 net.cpp:157] Top shape: 1024 300 (307200)
I0402 12:56:31.952390  9188 net.cpp:165] Memory required for data: 2187329536
I0402 12:56:31.952394  9188 layer_factory.hpp:77] Creating layer drop4
I0402 12:56:31.952400  9188 net.cpp:100] Creating Layer drop4
I0402 12:56:31.952404  9188 net.cpp:434] drop4 <- fc4_300
I0402 12:56:31.952409  9188 net.cpp:395] drop4 -> fc4_300 (in-place)
I0402 12:56:31.952438  9188 net.cpp:150] Setting up drop4
I0402 12:56:31.952445  9188 net.cpp:157] Top shape: 1024 300 (307200)
I0402 12:56:31.952448  9188 net.cpp:165] Memory required for data: 2188558336
I0402 12:56:31.952451  9188 layer_factory.hpp:77] Creating layer fc5_67
I0402 12:56:31.952456  9188 net.cpp:100] Creating Layer fc5_67
I0402 12:56:31.952461  9188 net.cpp:434] fc5_67 <- fc4_300
I0402 12:56:31.952466  9188 net.cpp:408] fc5_67 -> fc5_classes
I0402 12:56:31.952711  9188 net.cpp:150] Setting up fc5_67
I0402 12:56:31.952720  9188 net.cpp:157] Top shape: 1024 67 (68608)
I0402 12:56:31.952723  9188 net.cpp:165] Memory required for data: 2188832768
I0402 12:56:31.952733  9188 layer_factory.hpp:77] Creating layer fc5_classes_fc5_67_0_split
I0402 12:56:31.952756  9188 net.cpp:100] Creating Layer fc5_classes_fc5_67_0_split
I0402 12:56:31.952762  9188 net.cpp:434] fc5_classes_fc5_67_0_split <- fc5_classes
I0402 12:56:31.952769  9188 net.cpp:408] fc5_classes_fc5_67_0_split -> fc5_classes_fc5_67_0_split_0
I0402 12:56:31.952775  9188 net.cpp:408] fc5_classes_fc5_67_0_split -> fc5_classes_fc5_67_0_split_1
I0402 12:56:31.952783  9188 net.cpp:408] fc5_classes_fc5_67_0_split -> fc5_classes_fc5_67_0_split_2
I0402 12:56:31.952836  9188 net.cpp:150] Setting up fc5_classes_fc5_67_0_split
I0402 12:56:31.952847  9188 net.cpp:157] Top shape: 1024 67 (68608)
I0402 12:56:31.952860  9188 net.cpp:157] Top shape: 1024 67 (68608)
I0402 12:56:31.952863  9188 net.cpp:157] Top shape: 1024 67 (68608)
I0402 12:56:31.952867  9188 net.cpp:165] Memory required for data: 2189656064
I0402 12:56:31.952869  9188 layer_factory.hpp:77] Creating layer loss
I0402 12:56:31.952878  9188 net.cpp:100] Creating Layer loss
I0402 12:56:31.952883  9188 net.cpp:434] loss <- fc5_classes_fc5_67_0_split_0
I0402 12:56:31.952890  9188 net.cpp:434] loss <- label_data_1_split_0
I0402 12:56:31.952898  9188 net.cpp:408] loss -> loss
…
