…
I0326 14:47:17.301719  2096 net.cpp:322] The NetState phase (0) differed from the phase (1) specified by a rule in layer accuracy_5
I0326 14:47:17.301813  2096 net.cpp:58] Initializing net from parameters: 
state {
  phase: TRAIN
  level: 0
  stage: ""
}
layer {
  name: "data"
  type: "Data"
  top: "data"
  top: "label"
  include {
    phase: TRAIN
  }
  transform_param {
    mirror: false
    crop_size: 48
    mean_value: 132
    mean_value: 132
    mean_value: 131
  }
  data_param {
    source: "../local_data/lmdb/rtsd-r1/CoNorm/train/lmdb"
    batch_size: 512
    backend: LMDB
  }
}
layer {
  name: "conv1"
  type: "Convolution"
  bottom: "data"
  top: "conv1"
  convolution_param {
    num_output: 100
    pad: 0
    kernel_size: 7
    group: 1
    stride: 1
    weight_filler {
      type: "xavier"
    }
  }
}
layer {
  name: "conv1_relu"
  type: "ReLU"
  bottom: "conv1"
  top: "conv1"
}
layer {
  name: "pool1"
  type: "Pooling"
  bottom: "conv1"
  top: "pool1"
  pooling_param {
    pool: MAX
    kernel_size: 2
    stride: 2
  }
}
layer {
  name: "conv2"
  type: "Convolution"
  bottom: "pool1"
  top: "conv2"
  convolution_param {
    num_output: 150
    pad: 0
    kernel_size: 4
    group: 1
    stride: 1
    weight_filler {
      type: "xavier"
    }
  }
}
layer {
  name: "conv2_relu"
  type: "ReLU"
  bottom: "conv2"
  top: "conv2"
}
layer {
  name: "pool2"
  type: "Pooling"
  bottom: "conv2"
  top: "pool2"
  pooling_param {
    pool: MAX
    kernel_size: 2
    stride: 2
  }
}
layer {
  name: "conv3"
  type: "Convolution"
  bottom: "pool2"
  top: "conv3"
  convolution_param {
    num_output: 250
    pad: 0
    kernel_size: 4
    group: 1
    stride: 1
    weight_filler {
      type: "xavier"
    }
  }
}
layer {
  name: "conv3_relu"
  type: "ReLU"
  bottom: "conv3"
  top: "conv3"
}
layer {
  name: "pool3"
  type: "Pooling"
  bottom: "conv3"
  top: "pool3"
  pooling_param {
    pool: MAX
    kernel_size: 2
    stride: 2
  }
}
layer {
  name: "fc4_300"
  type: "InnerProduct"
  bottom: "pool3"
  top: "fc4_300"
  inner_product_param {
    num_output: 300
    weight_filler {
      type: "xavier"
    }
  }
}
layer {
  name: "fc4_relu"
  type: "ReLU"
  bottom: "fc4_300"
  top: "fc4_300"
}
layer {
  name: "drop4"
  type: "Dropout"
  bottom: "fc4_300"
  top: "fc4_300"
  dropout_param {
    dropout_ratio: 0.4
  }
}
layer {
  name: "fc5_67"
  type: "InnerProduct"
  bottom: "fc4_300"
  top: "fc5_classes"
  inner_product_param {
    num_output: 67
    weight_filler {
      type: "xavier"
    }
  }
}
layer {
  name: "loss"
  type: "SoftmaxWithLoss"
  bottom: "fc5_classes"
  bottom: "label"
  top: "loss"
}
I0326 14:47:17.301915  2096 layer_factory.hpp:77] Creating layer data
I0326 14:47:17.302955  2096 net.cpp:100] Creating Layer data
I0326 14:47:17.302973  2096 net.cpp:408] data -> data
I0326 14:47:17.302995  2096 net.cpp:408] data -> label
I0326 14:47:17.304666  2164 db_lmdb.cpp:35] Opened lmdb ../local_data/lmdb/rtsd-r1/CoNorm/train/lmdb
I0326 14:47:17.330032  2096 data_layer.cpp:41] output data size: 512,3,48,48
I0326 14:47:17.353178  2096 net.cpp:150] Setting up data
I0326 14:47:17.353209  2096 net.cpp:157] Top shape: 512 3 48 48 (3538944)
I0326 14:47:17.353214  2096 net.cpp:157] Top shape: 512 (512)
I0326 14:47:17.353216  2096 net.cpp:165] Memory required for data: 14157824
I0326 14:47:17.353250  2096 layer_factory.hpp:77] Creating layer conv1
I0326 14:47:17.353272  2096 net.cpp:100] Creating Layer conv1
I0326 14:47:17.353281  2096 net.cpp:434] conv1 <- data
I0326 14:47:17.353293  2096 net.cpp:408] conv1 -> conv1
I0326 14:47:17.781088  2096 net.cpp:150] Setting up conv1
I0326 14:47:17.781119  2096 net.cpp:157] Top shape: 512 100 42 42 (90316800)
I0326 14:47:17.781123  2096 net.cpp:165] Memory required for data: 375425024
I0326 14:47:17.781147  2096 layer_factory.hpp:77] Creating layer conv1_relu
I0326 14:47:17.781160  2096 net.cpp:100] Creating Layer conv1_relu
I0326 14:47:17.781165  2096 net.cpp:434] conv1_relu <- conv1
I0326 14:47:17.781172  2096 net.cpp:395] conv1_relu -> conv1 (in-place)
I0326 14:47:17.781694  2096 net.cpp:150] Setting up conv1_relu
I0326 14:47:17.781707  2096 net.cpp:157] Top shape: 512 100 42 42 (90316800)
I0326 14:47:17.781710  2096 net.cpp:165] Memory required for data: 736692224
I0326 14:47:17.781713  2096 layer_factory.hpp:77] Creating layer pool1
I0326 14:47:17.781720  2096 net.cpp:100] Creating Layer pool1
I0326 14:47:17.781726  2096 net.cpp:434] pool1 <- conv1
I0326 14:47:17.781733  2096 net.cpp:408] pool1 -> pool1
I0326 14:47:17.781785  2096 net.cpp:150] Setting up pool1
I0326 14:47:17.781792  2096 net.cpp:157] Top shape: 512 100 21 21 (22579200)
I0326 14:47:17.781795  2096 net.cpp:165] Memory required for data: 827009024
I0326 14:47:17.781798  2096 layer_factory.hpp:77] Creating layer conv2
I0326 14:47:17.781810  2096 net.cpp:100] Creating Layer conv2
I0326 14:47:17.781814  2096 net.cpp:434] conv2 <- pool1
I0326 14:47:17.781819  2096 net.cpp:408] conv2 -> conv2
I0326 14:47:17.789057  2096 net.cpp:150] Setting up conv2
I0326 14:47:17.789075  2096 net.cpp:157] Top shape: 512 150 18 18 (24883200)
I0326 14:47:17.789079  2096 net.cpp:165] Memory required for data: 926541824
I0326 14:47:17.789088  2096 layer_factory.hpp:77] Creating layer conv2_relu
I0326 14:47:17.789096  2096 net.cpp:100] Creating Layer conv2_relu
I0326 14:47:17.789103  2096 net.cpp:434] conv2_relu <- conv2
I0326 14:47:17.789108  2096 net.cpp:395] conv2_relu -> conv2 (in-place)
I0326 14:47:17.790673  2096 net.cpp:150] Setting up conv2_relu
I0326 14:47:17.790690  2096 net.cpp:157] Top shape: 512 150 18 18 (24883200)
I0326 14:47:17.790706  2096 net.cpp:165] Memory required for data: 1026074624
I0326 14:47:17.790711  2096 layer_factory.hpp:77] Creating layer pool2
I0326 14:47:17.790719  2096 net.cpp:100] Creating Layer pool2
I0326 14:47:17.790724  2096 net.cpp:434] pool2 <- conv2
I0326 14:47:17.790729  2096 net.cpp:408] pool2 -> pool2
I0326 14:47:17.790776  2096 net.cpp:150] Setting up pool2
I0326 14:47:17.790786  2096 net.cpp:157] Top shape: 512 150 9 9 (6220800)
I0326 14:47:17.790787  2096 net.cpp:165] Memory required for data: 1050957824
I0326 14:47:17.790791  2096 layer_factory.hpp:77] Creating layer conv3
I0326 14:47:17.790799  2096 net.cpp:100] Creating Layer conv3
I0326 14:47:17.790804  2096 net.cpp:434] conv3 <- pool2
I0326 14:47:17.790812  2096 net.cpp:408] conv3 -> conv3
I0326 14:47:17.799639  2096 net.cpp:150] Setting up conv3
I0326 14:47:17.799659  2096 net.cpp:157] Top shape: 512 250 6 6 (4608000)
I0326 14:47:17.799662  2096 net.cpp:165] Memory required for data: 1069389824
I0326 14:47:17.799671  2096 layer_factory.hpp:77] Creating layer conv3_relu
I0326 14:47:17.799684  2096 net.cpp:100] Creating Layer conv3_relu
I0326 14:47:17.799688  2096 net.cpp:434] conv3_relu <- conv3
I0326 14:47:17.799693  2096 net.cpp:395] conv3_relu -> conv3 (in-place)
I0326 14:47:17.801784  2096 net.cpp:150] Setting up conv3_relu
I0326 14:47:17.801800  2096 net.cpp:157] Top shape: 512 250 6 6 (4608000)
I0326 14:47:17.801803  2096 net.cpp:165] Memory required for data: 1087821824
I0326 14:47:17.801807  2096 layer_factory.hpp:77] Creating layer pool3
I0326 14:47:17.801815  2096 net.cpp:100] Creating Layer pool3
I0326 14:47:17.801820  2096 net.cpp:434] pool3 <- conv3
I0326 14:47:17.801826  2096 net.cpp:408] pool3 -> pool3
I0326 14:47:17.801877  2096 net.cpp:150] Setting up pool3
I0326 14:47:17.801900  2096 net.cpp:157] Top shape: 512 250 3 3 (1152000)
I0326 14:47:17.801905  2096 net.cpp:165] Memory required for data: 1092429824
I0326 14:47:17.801909  2096 layer_factory.hpp:77] Creating layer fc4_300
I0326 14:47:17.801918  2096 net.cpp:100] Creating Layer fc4_300
I0326 14:47:17.801923  2096 net.cpp:434] fc4_300 <- pool3
I0326 14:47:17.801928  2096 net.cpp:408] fc4_300 -> fc4_300
I0326 14:47:17.807289  2096 net.cpp:150] Setting up fc4_300
I0326 14:47:17.807306  2096 net.cpp:157] Top shape: 512 300 (153600)
I0326 14:47:17.807309  2096 net.cpp:165] Memory required for data: 1093044224
I0326 14:47:17.807315  2096 layer_factory.hpp:77] Creating layer fc4_relu
I0326 14:47:17.807323  2096 net.cpp:100] Creating Layer fc4_relu
I0326 14:47:17.807327  2096 net.cpp:434] fc4_relu <- fc4_300
I0326 14:47:17.807332  2096 net.cpp:395] fc4_relu -> fc4_300 (in-place)
I0326 14:47:17.807523  2096 net.cpp:150] Setting up fc4_relu
I0326 14:47:17.807534  2096 net.cpp:157] Top shape: 512 300 (153600)
I0326 14:47:17.807538  2096 net.cpp:165] Memory required for data: 1093658624
I0326 14:47:17.807541  2096 layer_factory.hpp:77] Creating layer drop4
I0326 14:47:17.807549  2096 net.cpp:100] Creating Layer drop4
I0326 14:47:17.807554  2096 net.cpp:434] drop4 <- fc4_300
I0326 14:47:17.807559  2096 net.cpp:395] drop4 -> fc4_300 (in-place)
I0326 14:47:17.807591  2096 net.cpp:150] Setting up drop4
I0326 14:47:17.807600  2096 net.cpp:157] Top shape: 512 300 (153600)
I0326 14:47:17.807602  2096 net.cpp:165] Memory required for data: 1094273024
I0326 14:47:17.807605  2096 layer_factory.hpp:77] Creating layer fc5_67
I0326 14:47:17.807611  2096 net.cpp:100] Creating Layer fc5_67
I0326 14:47:17.807615  2096 net.cpp:434] fc5_67 <- fc4_300
I0326 14:47:17.807621  2096 net.cpp:408] fc5_67 -> fc5_classes
I0326 14:47:17.808823  2096 net.cpp:150] Setting up fc5_67
I0326 14:47:17.808838  2096 net.cpp:157] Top shape: 512 67 (34304)
I0326 14:47:17.808841  2096 net.cpp:165] Memory required for data: 1094410240
I0326 14:47:17.808852  2096 layer_factory.hpp:77] Creating layer loss
I0326 14:47:17.808862  2096 net.cpp:100] Creating Layer loss
I0326 14:47:17.808867  2096 net.cpp:434] loss <- fc5_classes
I0326 14:47:17.808872  2096 net.cpp:434] loss <- label
I0326 14:47:17.808877  2096 net.cpp:408] loss -> loss
I0326 14:47:17.808889  2096 layer_factory.hpp:77] Creating layer loss
…
I0326 14:47:17.809505  2096 solver.cpp:193] Creating test net (#0) specified by test_net file: ./Prototxt/rtsd-r1/CoNorm/test.prototxt
I0326 14:47:17.809646  2096 net.cpp:58] Initializing net from parameters: 
state {
  phase: TEST
}
layer {
  name: "data"
  type: "Data"
  top: "data"
  top: "label"
  include {
    phase: TEST
  }
  transform_param {
    mirror: false
    crop_size: 48
    mean_value: 133
    mean_value: 133
    mean_value: 132
  }
  data_param {
    source: "../local_data/lmdb/rtsd-r1/CoNorm/test/lmdb"
    batch_size: 512
    backend: LMDB
  }
}
layer {
  name: "conv1"
  type: "Convolution"
  bottom: "data"
  top: "conv1"
  convolution_param {
    num_output: 100
    pad: 0
    kernel_size: 7
    group: 1
    stride: 1
    weight_filler {
      type: "xavier"
    }
  }
}
layer {
  name: "conv1_relu"
  type: "ReLU"
  bottom: "conv1"
  top: "conv1"
}
layer {
  name: "pool1"
  type: "Pooling"
  bottom: "conv1"
  top: "pool1"
  pooling_param {
    pool: MAX
    kernel_size: 2
    stride: 2
  }
}
layer {
  name: "conv2"
  type: "Convolution"
  bottom: "pool1"
  top: "conv2"
  convolution_param {
    num_output: 150
    pad: 0
    kernel_size: 4
    group: 1
    stride: 1
    weight_filler {
      type: "xavier"
    }
  }
}
layer {
  name: "conv2_relu"
  type: "ReLU"
  bottom: "conv2"
  top: "conv2"
}
layer {
  name: "pool2"
  type: "Pooling"
  bottom: "conv2"
  top: "pool2"
  pooling_param {
    pool: MAX
    kernel_size: 2
    stride: 2
  }
}
layer {
  name: "conv3"
  type: "Convolution"
  bottom: "pool2"
  top: "conv3"
  convolution_param {
    num_output: 250
    pad: 0
    kernel_size: 4
    group: 1
    stride: 1
    weight_filler {
      type: "xavier"
    }
  }
}
layer {
  name: "conv3_relu"
  type: "ReLU"
  bottom: "conv3"
  top: "conv3"
}
layer {
  name: "pool3"
  type: "Pooling"
  bottom: "conv3"
  top: "pool3"
  pooling_param {
    pool: MAX
    kernel_size: 2
    stride: 2
  }
}
layer {
  name: "fc4_300"
  type: "InnerProduct"
  bottom: "pool3"
  top: "fc4_300"
  inner_product_param {
    num_output: 300
    weight_filler {
      type: "xavier"
    }
  }
}
layer {
  name: "fc4_relu"
  type: "ReLU"
  bottom: "fc4_300"
  top: "fc4_300"
}
layer {
  name: "drop4"
  type: "Dropout"
  bottom: "fc4_300"
  top: "fc4_300"
  dropout_param {
    dropout_ratio: 0.4
  }
}
layer {
  name: "fc5_67"
  type: "InnerProduct"
  bottom: "fc4_300"
  top: "fc5_classes"
  inner_product_param {
    num_output: 67
    weight_filler {
      type: "xavier"
    }
  }
}
layer {
  name: "loss"
  type: "SoftmaxWithLoss"
  bottom: "fc5_classes"
  bottom: "label"
  top: "loss"
}
layer {
  name: "accuracy_1"
  type: "Accuracy"
  bottom: "fc5_classes"
  bottom: "label"
  top: "accuracy_1"
  include {
    phase: TEST
  }
  accuracy_param {
    top_k: 1
  }
}
layer {
  name: "accuracy_5"
  type: "Accuracy"
  bottom: "fc5_classes"
  bottom: "label"
  top: "accuracy_5"
  include {
    phase: TEST
  }
  accuracy_param {
    top_k: 5
  }
}
I0326 14:47:17.809739  2096 layer_factory.hpp:77] Creating layer data
I0326 14:47:17.810107  2096 net.cpp:100] Creating Layer data
I0326 14:47:17.810118  2096 net.cpp:408] data -> data
I0326 14:47:17.810128  2096 net.cpp:408] data -> label
I0326 14:47:17.812137  2189 db_lmdb.cpp:35] Opened lmdb ../local_data/lmdb/rtsd-r1/CoNorm/test/lmdb
I0326 14:47:17.812330  2096 data_layer.cpp:41] output data size: 512,3,48,48
I0326 14:47:17.837756  2096 net.cpp:150] Setting up data
I0326 14:47:17.837787  2096 net.cpp:157] Top shape: 512 3 48 48 (3538944)
I0326 14:47:17.837792  2096 net.cpp:157] Top shape: 512 (512)
I0326 14:47:17.837795  2096 net.cpp:165] Memory required for data: 14157824
I0326 14:47:17.837801  2096 layer_factory.hpp:77] Creating layer label_data_1_split
I0326 14:47:17.837815  2096 net.cpp:100] Creating Layer label_data_1_split
I0326 14:47:17.837821  2096 net.cpp:434] label_data_1_split <- label
I0326 14:47:17.837828  2096 net.cpp:408] label_data_1_split -> label_data_1_split_0
I0326 14:47:17.837842  2096 net.cpp:408] label_data_1_split -> label_data_1_split_1
I0326 14:47:17.837851  2096 net.cpp:408] label_data_1_split -> label_data_1_split_2
I0326 14:47:17.837939  2096 net.cpp:150] Setting up label_data_1_split
I0326 14:47:17.837947  2096 net.cpp:157] Top shape: 512 (512)
I0326 14:47:17.837970  2096 net.cpp:157] Top shape: 512 (512)
I0326 14:47:17.837975  2096 net.cpp:157] Top shape: 512 (512)
I0326 14:47:17.837977  2096 net.cpp:165] Memory required for data: 14163968
I0326 14:47:17.837980  2096 layer_factory.hpp:77] Creating layer conv1
I0326 14:47:17.837992  2096 net.cpp:100] Creating Layer conv1
I0326 14:47:17.837997  2096 net.cpp:434] conv1 <- data
I0326 14:47:17.838003  2096 net.cpp:408] conv1 -> conv1
I0326 14:47:17.845911  2096 net.cpp:150] Setting up conv1
I0326 14:47:17.845933  2096 net.cpp:157] Top shape: 512 100 42 42 (90316800)
I0326 14:47:17.845937  2096 net.cpp:165] Memory required for data: 375431168
I0326 14:47:17.845949  2096 layer_factory.hpp:77] Creating layer conv1_relu
I0326 14:47:17.845958  2096 net.cpp:100] Creating Layer conv1_relu
I0326 14:47:17.845962  2096 net.cpp:434] conv1_relu <- conv1
I0326 14:47:17.845970  2096 net.cpp:395] conv1_relu -> conv1 (in-place)
I0326 14:47:17.846694  2096 net.cpp:150] Setting up conv1_relu
I0326 14:47:17.846706  2096 net.cpp:157] Top shape: 512 100 42 42 (90316800)
I0326 14:47:17.846709  2096 net.cpp:165] Memory required for data: 736698368
I0326 14:47:17.846714  2096 layer_factory.hpp:77] Creating layer pool1
I0326 14:47:17.846725  2096 net.cpp:100] Creating Layer pool1
I0326 14:47:17.846729  2096 net.cpp:434] pool1 <- conv1
I0326 14:47:17.846735  2096 net.cpp:408] pool1 -> pool1
I0326 14:47:17.846786  2096 net.cpp:150] Setting up pool1
I0326 14:47:17.846796  2096 net.cpp:157] Top shape: 512 100 21 21 (22579200)
I0326 14:47:17.846798  2096 net.cpp:165] Memory required for data: 827015168
I0326 14:47:17.846801  2096 layer_factory.hpp:77] Creating layer conv2
I0326 14:47:17.846810  2096 net.cpp:100] Creating Layer conv2
I0326 14:47:17.846815  2096 net.cpp:434] conv2 <- pool1
I0326 14:47:17.846822  2096 net.cpp:408] conv2 -> conv2
I0326 14:47:17.853541  2096 net.cpp:150] Setting up conv2
I0326 14:47:17.853559  2096 net.cpp:157] Top shape: 512 150 18 18 (24883200)
I0326 14:47:17.853562  2096 net.cpp:165] Memory required for data: 926547968
I0326 14:47:17.853572  2096 layer_factory.hpp:77] Creating layer conv2_relu
I0326 14:47:17.853584  2096 net.cpp:100] Creating Layer conv2_relu
I0326 14:47:17.853588  2096 net.cpp:434] conv2_relu <- conv2
I0326 14:47:17.853593  2096 net.cpp:395] conv2_relu -> conv2 (in-place)
I0326 14:47:17.855665  2096 net.cpp:150] Setting up conv2_relu
I0326 14:47:17.855681  2096 net.cpp:157] Top shape: 512 150 18 18 (24883200)
I0326 14:47:17.855686  2096 net.cpp:165] Memory required for data: 1026080768
I0326 14:47:17.855690  2096 layer_factory.hpp:77] Creating layer pool2
I0326 14:47:17.855697  2096 net.cpp:100] Creating Layer pool2
I0326 14:47:17.855700  2096 net.cpp:434] pool2 <- conv2
I0326 14:47:17.855707  2096 net.cpp:408] pool2 -> pool2
I0326 14:47:17.855765  2096 net.cpp:150] Setting up pool2
I0326 14:47:17.855774  2096 net.cpp:157] Top shape: 512 150 9 9 (6220800)
I0326 14:47:17.855777  2096 net.cpp:165] Memory required for data: 1050963968
I0326 14:47:17.855780  2096 layer_factory.hpp:77] Creating layer conv3
I0326 14:47:17.855792  2096 net.cpp:100] Creating Layer conv3
I0326 14:47:17.855796  2096 net.cpp:434] conv3 <- pool2
I0326 14:47:17.855803  2096 net.cpp:408] conv3 -> conv3
I0326 14:47:17.864631  2096 net.cpp:150] Setting up conv3
I0326 14:47:17.864651  2096 net.cpp:157] Top shape: 512 250 6 6 (4608000)
I0326 14:47:17.864655  2096 net.cpp:165] Memory required for data: 1069395968
I0326 14:47:17.864666  2096 layer_factory.hpp:77] Creating layer conv3_relu
I0326 14:47:17.864676  2096 net.cpp:100] Creating Layer conv3_relu
I0326 14:47:17.864681  2096 net.cpp:434] conv3_relu <- conv3
I0326 14:47:17.864687  2096 net.cpp:395] conv3_relu -> conv3 (in-place)
I0326 14:47:17.875874  2096 net.cpp:150] Setting up conv3_relu
I0326 14:47:17.875895  2096 net.cpp:157] Top shape: 512 250 6 6 (4608000)
I0326 14:47:17.875897  2096 net.cpp:165] Memory required for data: 1087827968
I0326 14:47:17.875901  2096 layer_factory.hpp:77] Creating layer pool3
I0326 14:47:17.875908  2096 net.cpp:100] Creating Layer pool3
I0326 14:47:17.875929  2096 net.cpp:434] pool3 <- conv3
I0326 14:47:17.875936  2096 net.cpp:408] pool3 -> pool3
I0326 14:47:17.875991  2096 net.cpp:150] Setting up pool3
I0326 14:47:17.876001  2096 net.cpp:157] Top shape: 512 250 3 3 (1152000)
I0326 14:47:17.876004  2096 net.cpp:165] Memory required for data: 1092435968
I0326 14:47:17.876008  2096 layer_factory.hpp:77] Creating layer fc4_300
I0326 14:47:17.876016  2096 net.cpp:100] Creating Layer fc4_300
I0326 14:47:17.876021  2096 net.cpp:434] fc4_300 <- pool3
I0326 14:47:17.876026  2096 net.cpp:408] fc4_300 -> fc4_300
I0326 14:47:17.881799  2096 net.cpp:150] Setting up fc4_300
I0326 14:47:17.881819  2096 net.cpp:157] Top shape: 512 300 (153600)
I0326 14:47:17.881822  2096 net.cpp:165] Memory required for data: 1093050368
I0326 14:47:17.881829  2096 layer_factory.hpp:77] Creating layer fc4_relu
I0326 14:47:17.881836  2096 net.cpp:100] Creating Layer fc4_relu
I0326 14:47:17.881841  2096 net.cpp:434] fc4_relu <- fc4_300
I0326 14:47:17.881849  2096 net.cpp:395] fc4_relu -> fc4_300 (in-place)
I0326 14:47:17.882057  2096 net.cpp:150] Setting up fc4_relu
I0326 14:47:17.882069  2096 net.cpp:157] Top shape: 512 300 (153600)
I0326 14:47:17.882072  2096 net.cpp:165] Memory required for data: 1093664768
I0326 14:47:17.882076  2096 layer_factory.hpp:77] Creating layer drop4
I0326 14:47:17.882086  2096 net.cpp:100] Creating Layer drop4
I0326 14:47:17.882091  2096 net.cpp:434] drop4 <- fc4_300
I0326 14:47:17.882095  2096 net.cpp:395] drop4 -> fc4_300 (in-place)
I0326 14:47:17.882128  2096 net.cpp:150] Setting up drop4
I0326 14:47:17.882136  2096 net.cpp:157] Top shape: 512 300 (153600)
I0326 14:47:17.882139  2096 net.cpp:165] Memory required for data: 1094279168
I0326 14:47:17.882143  2096 layer_factory.hpp:77] Creating layer fc5_67
I0326 14:47:17.882148  2096 net.cpp:100] Creating Layer fc5_67
I0326 14:47:17.882153  2096 net.cpp:434] fc5_67 <- fc4_300
I0326 14:47:17.882161  2096 net.cpp:408] fc5_67 -> fc5_classes
I0326 14:47:17.882412  2096 net.cpp:150] Setting up fc5_67
I0326 14:47:17.882422  2096 net.cpp:157] Top shape: 512 67 (34304)
I0326 14:47:17.882426  2096 net.cpp:165] Memory required for data: 1094416384
I0326 14:47:17.882437  2096 layer_factory.hpp:77] Creating layer fc5_classes_fc5_67_0_split
I0326 14:47:17.882446  2096 net.cpp:100] Creating Layer fc5_classes_fc5_67_0_split
I0326 14:47:17.882449  2096 net.cpp:434] fc5_classes_fc5_67_0_split <- fc5_classes
I0326 14:47:17.882455  2096 net.cpp:408] fc5_classes_fc5_67_0_split -> fc5_classes_fc5_67_0_split_0
I0326 14:47:17.882464  2096 net.cpp:408] fc5_classes_fc5_67_0_split -> fc5_classes_fc5_67_0_split_1
I0326 14:47:17.882472  2096 net.cpp:408] fc5_classes_fc5_67_0_split -> fc5_classes_fc5_67_0_split_2
I0326 14:47:17.882525  2096 net.cpp:150] Setting up fc5_classes_fc5_67_0_split
I0326 14:47:17.882534  2096 net.cpp:157] Top shape: 512 67 (34304)
I0326 14:47:17.882536  2096 net.cpp:157] Top shape: 512 67 (34304)
I0326 14:47:17.882539  2096 net.cpp:157] Top shape: 512 67 (34304)
I0326 14:47:17.882542  2096 net.cpp:165] Memory required for data: 1094828032
I0326 14:47:17.882545  2096 layer_factory.hpp:77] Creating layer loss
I0326 14:47:17.882555  2096 net.cpp:100] Creating Layer loss
I0326 14:47:17.882560  2096 net.cpp:434] loss <- fc5_classes_fc5_67_0_split_0
I0326 14:47:17.882565  2096 net.cpp:434] loss <- label_data_1_split_0
I0326 14:47:17.882568  2096 net.cpp:408] loss -> loss
…
