…
I0410 02:00:46.349225 24316 net.cpp:322] The NetState phase (0) differed from the phase (1) specified by a rule in layer accuracy_5
I0410 02:00:46.349329 24316 net.cpp:58] Initializing net from parameters: 
state {
  phase: TRAIN
  level: 0
  stage: ""
}
layer {
  name: "data"
  type: "Data"
  top: "data"
  top: "label"
  include {
    phase: TRAIN
  }
  transform_param {
    mirror: false
    crop_size: 48
    mean_value: 130
    mean_value: 123
    mean_value: 137
  }
  data_param {
    source: "../local_data/lmdb/rtsd-r1/histeq/train/lmdb"
    batch_size: 1024
    backend: LMDB
  }
}
layer {
  name: "conv1"
  type: "Convolution"
  bottom: "data"
  top: "conv1"
  convolution_param {
    num_output: 100
    pad: 0
    kernel_size: 7
    group: 1
    stride: 1
    weight_filler {
      type: "xavier"
    }
  }
}
layer {
  name: "conv1_sTanH"
  type: "TanH"
  bottom: "conv1"
  top: "conv1"
}
layer {
  name: "pool1"
  type: "Pooling"
  bottom: "conv1"
  top: "pool1"
  pooling_param {
    pool: MAX
    kernel_size: 2
    stride: 2
  }
}
layer {
  name: "conv2"
  type: "Convolution"
  bottom: "pool1"
  top: "conv2"
  convolution_param {
    num_output: 150
    pad: 0
    kernel_size: 4
    group: 1
    stride: 1
    weight_filler {
      type: "xavier"
    }
  }
}
layer {
  name: "conv2_sTanH"
  type: "TanH"
  bottom: "conv2"
  top: "conv2"
}
layer {
  name: "pool2"
  type: "Pooling"
  bottom: "conv2"
  top: "pool2"
  pooling_param {
    pool: MAX
    kernel_size: 2
    stride: 2
  }
}
layer {
  name: "conv3"
  type: "Convolution"
  bottom: "pool2"
  top: "conv3"
  convolution_param {
    num_output: 250
    pad: 0
    kernel_size: 4
    group: 1
    stride: 1
    weight_filler {
      type: "xavier"
    }
  }
}
layer {
  name: "conv3_sTanH"
  type: "TanH"
  bottom: "conv3"
  top: "conv3"
}
layer {
  name: "pool3"
  type: "Pooling"
  bottom: "conv3"
  top: "pool3"
  pooling_param {
    pool: MAX
    kernel_size: 2
    stride: 2
  }
}
layer {
  name: "fc4_300"
  type: "InnerProduct"
  bottom: "pool3"
  top: "fc4_300"
  inner_product_param {
    num_output: 300
    weight_filler {
      type: "xavier"
    }
  }
}
layer {
  name: "fc4_sTanH"
  type: "TanH"
  bottom: "fc4_300"
  top: "fc4_300"
}
layer {
  name: "drop4"
  type: "Dropout"
  bottom: "fc4_300"
  top: "fc4_300"
  dropout_param {
    dropout_ratio: 0.4
  }
}
layer {
  name: "fc5_67"
  type: "InnerProduct"
  bottom: "fc4_300"
  top: "fc5_classes"
  inner_product_param {
    num_output: 67
    weight_filler {
      type: "xavier"
    }
  }
}
layer {
  name: "loss"
  type: "SoftmaxWithLoss"
  bottom: "fc5_classes"
  bottom: "label"
  top: "loss"
}
I0410 02:00:46.349406 24316 layer_factory.hpp:77] Creating layer data
I0410 02:00:46.350528 24316 net.cpp:100] Creating Layer data
I0410 02:00:46.350543 24316 net.cpp:408] data -> data
I0410 02:00:46.350566 24316 net.cpp:408] data -> label
I0410 02:00:46.352164 24402 db_lmdb.cpp:35] Opened lmdb ../local_data/lmdb/rtsd-r1/histeq/train/lmdb
I0410 02:00:46.369801 24316 data_layer.cpp:41] output data size: 1024,3,48,48
I0410 02:00:46.415613 24316 net.cpp:150] Setting up data
I0410 02:00:46.415647 24316 net.cpp:157] Top shape: 1024 3 48 48 (7077888)
I0410 02:00:46.415678 24316 net.cpp:157] Top shape: 1024 (1024)
I0410 02:00:46.415683 24316 net.cpp:165] Memory required for data: 28315648
I0410 02:00:46.415693 24316 layer_factory.hpp:77] Creating layer conv1
I0410 02:00:46.415714 24316 net.cpp:100] Creating Layer conv1
I0410 02:00:46.415722 24316 net.cpp:434] conv1 <- data
I0410 02:00:46.415735 24316 net.cpp:408] conv1 -> conv1
I0410 02:00:46.693538 24316 net.cpp:150] Setting up conv1
I0410 02:00:46.693578 24316 net.cpp:157] Top shape: 1024 100 42 42 (180633600)
I0410 02:00:46.693583 24316 net.cpp:165] Memory required for data: 750850048
I0410 02:00:46.693605 24316 layer_factory.hpp:77] Creating layer conv1_sTanH
I0410 02:00:46.693617 24316 net.cpp:100] Creating Layer conv1_sTanH
I0410 02:00:46.693624 24316 net.cpp:434] conv1_sTanH <- conv1
I0410 02:00:46.693629 24316 net.cpp:395] conv1_sTanH -> conv1 (in-place)
I0410 02:00:46.693823 24316 net.cpp:150] Setting up conv1_sTanH
I0410 02:00:46.693835 24316 net.cpp:157] Top shape: 1024 100 42 42 (180633600)
I0410 02:00:46.693838 24316 net.cpp:165] Memory required for data: 1473384448
I0410 02:00:46.693841 24316 layer_factory.hpp:77] Creating layer pool1
I0410 02:00:46.693848 24316 net.cpp:100] Creating Layer pool1
I0410 02:00:46.693851 24316 net.cpp:434] pool1 <- conv1
I0410 02:00:46.693857 24316 net.cpp:408] pool1 -> pool1
I0410 02:00:46.693908 24316 net.cpp:150] Setting up pool1
I0410 02:00:46.693917 24316 net.cpp:157] Top shape: 1024 100 21 21 (45158400)
I0410 02:00:46.693919 24316 net.cpp:165] Memory required for data: 1654018048
I0410 02:00:46.693922 24316 layer_factory.hpp:77] Creating layer conv2
I0410 02:00:46.693933 24316 net.cpp:100] Creating Layer conv2
I0410 02:00:46.693939 24316 net.cpp:434] conv2 <- pool1
I0410 02:00:46.693944 24316 net.cpp:408] conv2 -> conv2
I0410 02:00:46.699858 24316 net.cpp:150] Setting up conv2
I0410 02:00:46.699875 24316 net.cpp:157] Top shape: 1024 150 18 18 (49766400)
I0410 02:00:46.699888 24316 net.cpp:165] Memory required for data: 1853083648
I0410 02:00:46.699898 24316 layer_factory.hpp:77] Creating layer conv2_sTanH
I0410 02:00:46.699905 24316 net.cpp:100] Creating Layer conv2_sTanH
I0410 02:00:46.699908 24316 net.cpp:434] conv2_sTanH <- conv2
I0410 02:00:46.699913 24316 net.cpp:395] conv2_sTanH -> conv2 (in-place)
I0410 02:00:46.700781 24316 net.cpp:150] Setting up conv2_sTanH
I0410 02:00:46.700798 24316 net.cpp:157] Top shape: 1024 150 18 18 (49766400)
I0410 02:00:46.700800 24316 net.cpp:165] Memory required for data: 2052149248
I0410 02:00:46.700804 24316 layer_factory.hpp:77] Creating layer pool2
I0410 02:00:46.700810 24316 net.cpp:100] Creating Layer pool2
I0410 02:00:46.700814 24316 net.cpp:434] pool2 <- conv2
I0410 02:00:46.700819 24316 net.cpp:408] pool2 -> pool2
I0410 02:00:46.700865 24316 net.cpp:150] Setting up pool2
I0410 02:00:46.700872 24316 net.cpp:157] Top shape: 1024 150 9 9 (12441600)
I0410 02:00:46.700875 24316 net.cpp:165] Memory required for data: 2101915648
I0410 02:00:46.700878 24316 layer_factory.hpp:77] Creating layer conv3
I0410 02:00:46.700886 24316 net.cpp:100] Creating Layer conv3
I0410 02:00:46.700889 24316 net.cpp:434] conv3 <- pool2
I0410 02:00:46.700894 24316 net.cpp:408] conv3 -> conv3
I0410 02:00:46.706662 24316 net.cpp:150] Setting up conv3
I0410 02:00:46.706681 24316 net.cpp:157] Top shape: 1024 250 6 6 (9216000)
I0410 02:00:46.706683 24316 net.cpp:165] Memory required for data: 2138779648
I0410 02:00:46.706693 24316 layer_factory.hpp:77] Creating layer conv3_sTanH
I0410 02:00:46.706703 24316 net.cpp:100] Creating Layer conv3_sTanH
I0410 02:00:46.706707 24316 net.cpp:434] conv3_sTanH <- conv3
I0410 02:00:46.706712 24316 net.cpp:395] conv3_sTanH -> conv3 (in-place)
I0410 02:00:46.714445 24316 net.cpp:150] Setting up conv3_sTanH
I0410 02:00:46.714462 24316 net.cpp:157] Top shape: 1024 250 6 6 (9216000)
I0410 02:00:46.714465 24316 net.cpp:165] Memory required for data: 2175643648
I0410 02:00:46.714468 24316 layer_factory.hpp:77] Creating layer pool3
I0410 02:00:46.714476 24316 net.cpp:100] Creating Layer pool3
I0410 02:00:46.714480 24316 net.cpp:434] pool3 <- conv3
I0410 02:00:46.714507 24316 net.cpp:408] pool3 -> pool3
I0410 02:00:46.714560 24316 net.cpp:150] Setting up pool3
I0410 02:00:46.714568 24316 net.cpp:157] Top shape: 1024 250 3 3 (2304000)
I0410 02:00:46.714571 24316 net.cpp:165] Memory required for data: 2184859648
I0410 02:00:46.714574 24316 layer_factory.hpp:77] Creating layer fc4_300
I0410 02:00:46.714581 24316 net.cpp:100] Creating Layer fc4_300
I0410 02:00:46.714586 24316 net.cpp:434] fc4_300 <- pool3
I0410 02:00:46.714591 24316 net.cpp:408] fc4_300 -> fc4_300
I0410 02:00:46.726832 24316 net.cpp:150] Setting up fc4_300
I0410 02:00:46.726850 24316 net.cpp:157] Top shape: 1024 300 (307200)
I0410 02:00:46.726853 24316 net.cpp:165] Memory required for data: 2186088448
I0410 02:00:46.726861 24316 layer_factory.hpp:77] Creating layer fc4_sTanH
I0410 02:00:46.726867 24316 net.cpp:100] Creating Layer fc4_sTanH
I0410 02:00:46.726871 24316 net.cpp:434] fc4_sTanH <- fc4_300
I0410 02:00:46.726876 24316 net.cpp:395] fc4_sTanH -> fc4_300 (in-place)
I0410 02:00:46.727069 24316 net.cpp:150] Setting up fc4_sTanH
I0410 02:00:46.727080 24316 net.cpp:157] Top shape: 1024 300 (307200)
I0410 02:00:46.727083 24316 net.cpp:165] Memory required for data: 2187317248
I0410 02:00:46.727087 24316 layer_factory.hpp:77] Creating layer drop4
I0410 02:00:46.727093 24316 net.cpp:100] Creating Layer drop4
I0410 02:00:46.727097 24316 net.cpp:434] drop4 <- fc4_300
I0410 02:00:46.727102 24316 net.cpp:395] drop4 -> fc4_300 (in-place)
I0410 02:00:46.727134 24316 net.cpp:150] Setting up drop4
I0410 02:00:46.727143 24316 net.cpp:157] Top shape: 1024 300 (307200)
I0410 02:00:46.727144 24316 net.cpp:165] Memory required for data: 2188546048
I0410 02:00:46.727147 24316 layer_factory.hpp:77] Creating layer fc5_67
I0410 02:00:46.727154 24316 net.cpp:100] Creating Layer fc5_67
I0410 02:00:46.727156 24316 net.cpp:434] fc5_67 <- fc4_300
I0410 02:00:46.727164 24316 net.cpp:408] fc5_67 -> fc5_classes
I0410 02:00:46.728375 24316 net.cpp:150] Setting up fc5_67
I0410 02:00:46.728392 24316 net.cpp:157] Top shape: 1024 67 (68608)
I0410 02:00:46.728395 24316 net.cpp:165] Memory required for data: 2188820480
I0410 02:00:46.728405 24316 layer_factory.hpp:77] Creating layer loss
I0410 02:00:46.728415 24316 net.cpp:100] Creating Layer loss
I0410 02:00:46.728417 24316 net.cpp:434] loss <- fc5_classes
I0410 02:00:46.728422 24316 net.cpp:434] loss <- label
I0410 02:00:46.728430 24316 net.cpp:408] loss -> loss
I0410 02:00:46.728442 24316 layer_factory.hpp:77] Creating layer loss
…
I0410 02:00:46.729110 24316 solver.cpp:193] Creating test net (#0) specified by test_net file: ./Prototxt/experiment_7/rtsd-r1/histeq/trial_5/test.prototxt
I0410 02:00:46.729239 24316 net.cpp:58] Initializing net from parameters: 
state {
  phase: TEST
}
layer {
  name: "data"
  type: "Data"
  top: "data"
  top: "label"
  include {
    phase: TEST
  }
  transform_param {
    mirror: false
    crop_size: 48
    mean_value: 124
    mean_value: 121
    mean_value: 142
  }
  data_param {
    source: "../local_data/lmdb/rtsd-r1/histeq/test/lmdb"
    batch_size: 1024
    backend: LMDB
  }
}
layer {
  name: "conv1"
  type: "Convolution"
  bottom: "data"
  top: "conv1"
  convolution_param {
    num_output: 100
    pad: 0
    kernel_size: 7
    group: 1
    stride: 1
    weight_filler {
      type: "xavier"
    }
  }
}
layer {
  name: "conv1_sTanH"
  type: "TanH"
  bottom: "conv1"
  top: "conv1"
}
layer {
  name: "pool1"
  type: "Pooling"
  bottom: "conv1"
  top: "pool1"
  pooling_param {
    pool: MAX
    kernel_size: 2
    stride: 2
  }
}
layer {
  name: "conv2"
  type: "Convolution"
  bottom: "pool1"
  top: "conv2"
  convolution_param {
    num_output: 150
    pad: 0
    kernel_size: 4
    group: 1
    stride: 1
    weight_filler {
      type: "xavier"
    }
  }
}
layer {
  name: "conv2_sTanH"
  type: "TanH"
  bottom: "conv2"
  top: "conv2"
}
layer {
  name: "pool2"
  type: "Pooling"
  bottom: "conv2"
  top: "pool2"
  pooling_param {
    pool: MAX
    kernel_size: 2
    stride: 2
  }
}
layer {
  name: "conv3"
  type: "Convolution"
  bottom: "pool2"
  top: "conv3"
  convolution_param {
    num_output: 250
    pad: 0
    kernel_size: 4
    group: 1
    stride: 1
    weight_filler {
      type: "xavier"
    }
  }
}
layer {
  name: "conv3_sTanH"
  type: "TanH"
  bottom: "conv3"
  top: "conv3"
}
layer {
  name: "pool3"
  type: "Pooling"
  bottom: "conv3"
  top: "pool3"
  pooling_param {
    pool: MAX
    kernel_size: 2
    stride: 2
  }
}
layer {
  name: "fc4_300"
  type: "InnerProduct"
  bottom: "pool3"
  top: "fc4_300"
  inner_product_param {
    num_output: 300
    weight_filler {
      type: "xavier"
    }
  }
}
layer {
  name: "fc4_sTanH"
  type: "TanH"
  bottom: "fc4_300"
  top: "fc4_300"
}
layer {
  name: "drop4"
  type: "Dropout"
  bottom: "fc4_300"
  top: "fc4_300"
  dropout_param {
    dropout_ratio: 0.4
  }
}
layer {
  name: "fc5_67"
  type: "InnerProduct"
  bottom: "fc4_300"
  top: "fc5_classes"
  inner_product_param {
    num_output: 67
    weight_filler {
      type: "xavier"
    }
  }
}
layer {
  name: "loss"
  type: "SoftmaxWithLoss"
  bottom: "fc5_classes"
  bottom: "label"
  top: "loss"
}
layer {
  name: "accuracy_1"
  type: "Accuracy"
  bottom: "fc5_classes"
  bottom: "label"
  top: "accuracy_1"
  include {
    phase: TEST
  }
  accuracy_param {
    top_k: 1
  }
}
layer {
  name: "accuracy_5"
  type: "Accuracy"
  bottom: "fc5_classes"
  bottom: "label"
  top: "accuracy_5"
  include {
    phase: TEST
  }
  accuracy_param {
    top_k: 5
  }
}
I0410 02:00:46.729331 24316 layer_factory.hpp:77] Creating layer data
I0410 02:00:46.729997 24316 net.cpp:100] Creating Layer data
I0410 02:00:46.730008 24316 net.cpp:408] data -> data
I0410 02:00:46.730018 24316 net.cpp:408] data -> label
I0410 02:00:46.731390 24420 db_lmdb.cpp:35] Opened lmdb ../local_data/lmdb/rtsd-r1/histeq/test/lmdb
I0410 02:00:46.731539 24316 data_layer.cpp:41] output data size: 1024,3,48,48
I0410 02:00:46.773380 24316 net.cpp:150] Setting up data
I0410 02:00:46.773421 24316 net.cpp:157] Top shape: 1024 3 48 48 (7077888)
I0410 02:00:46.773425 24316 net.cpp:157] Top shape: 1024 (1024)
I0410 02:00:46.773428 24316 net.cpp:165] Memory required for data: 28315648
I0410 02:00:46.773434 24316 layer_factory.hpp:77] Creating layer label_data_1_split
I0410 02:00:46.773449 24316 net.cpp:100] Creating Layer label_data_1_split
I0410 02:00:46.773453 24316 net.cpp:434] label_data_1_split <- label
I0410 02:00:46.773463 24316 net.cpp:408] label_data_1_split -> label_data_1_split_0
I0410 02:00:46.773474 24316 net.cpp:408] label_data_1_split -> label_data_1_split_1
I0410 02:00:46.773480 24316 net.cpp:408] label_data_1_split -> label_data_1_split_2
I0410 02:00:46.773599 24316 net.cpp:150] Setting up label_data_1_split
I0410 02:00:46.773609 24316 net.cpp:157] Top shape: 1024 (1024)
I0410 02:00:46.773613 24316 net.cpp:157] Top shape: 1024 (1024)
I0410 02:00:46.773617 24316 net.cpp:157] Top shape: 1024 (1024)
I0410 02:00:46.773619 24316 net.cpp:165] Memory required for data: 28327936
I0410 02:00:46.773622 24316 layer_factory.hpp:77] Creating layer conv1
I0410 02:00:46.773643 24316 net.cpp:100] Creating Layer conv1
I0410 02:00:46.773648 24316 net.cpp:434] conv1 <- data
I0410 02:00:46.773654 24316 net.cpp:408] conv1 -> conv1
I0410 02:00:46.777632 24316 net.cpp:150] Setting up conv1
I0410 02:00:46.777652 24316 net.cpp:157] Top shape: 1024 100 42 42 (180633600)
I0410 02:00:46.777655 24316 net.cpp:165] Memory required for data: 750862336
I0410 02:00:46.777667 24316 layer_factory.hpp:77] Creating layer conv1_sTanH
I0410 02:00:46.777674 24316 net.cpp:100] Creating Layer conv1_sTanH
I0410 02:00:46.777678 24316 net.cpp:434] conv1_sTanH <- conv1
I0410 02:00:46.777683 24316 net.cpp:395] conv1_sTanH -> conv1 (in-place)
I0410 02:00:46.777901 24316 net.cpp:150] Setting up conv1_sTanH
I0410 02:00:46.777912 24316 net.cpp:157] Top shape: 1024 100 42 42 (180633600)
I0410 02:00:46.777915 24316 net.cpp:165] Memory required for data: 1473396736
I0410 02:00:46.777920 24316 layer_factory.hpp:77] Creating layer pool1
I0410 02:00:46.777928 24316 net.cpp:100] Creating Layer pool1
I0410 02:00:46.777931 24316 net.cpp:434] pool1 <- conv1
I0410 02:00:46.777938 24316 net.cpp:408] pool1 -> pool1
I0410 02:00:46.777987 24316 net.cpp:150] Setting up pool1
I0410 02:00:46.778002 24316 net.cpp:157] Top shape: 1024 100 21 21 (45158400)
I0410 02:00:46.778005 24316 net.cpp:165] Memory required for data: 1654030336
I0410 02:00:46.778009 24316 layer_factory.hpp:77] Creating layer conv2
I0410 02:00:46.778018 24316 net.cpp:100] Creating Layer conv2
I0410 02:00:46.778023 24316 net.cpp:434] conv2 <- pool1
I0410 02:00:46.778028 24316 net.cpp:408] conv2 -> conv2
I0410 02:00:46.781941 24316 net.cpp:150] Setting up conv2
I0410 02:00:46.781957 24316 net.cpp:157] Top shape: 1024 150 18 18 (49766400)
I0410 02:00:46.781972 24316 net.cpp:165] Memory required for data: 1853095936
I0410 02:00:46.781982 24316 layer_factory.hpp:77] Creating layer conv2_sTanH
I0410 02:00:46.781990 24316 net.cpp:100] Creating Layer conv2_sTanH
I0410 02:00:46.781992 24316 net.cpp:434] conv2_sTanH <- conv2
I0410 02:00:46.781999 24316 net.cpp:395] conv2_sTanH -> conv2 (in-place)
I0410 02:00:46.782814 24316 net.cpp:150] Setting up conv2_sTanH
I0410 02:00:46.782841 24316 net.cpp:157] Top shape: 1024 150 18 18 (49766400)
I0410 02:00:46.782856 24316 net.cpp:165] Memory required for data: 2052161536
I0410 02:00:46.782860 24316 layer_factory.hpp:77] Creating layer pool2
I0410 02:00:46.782868 24316 net.cpp:100] Creating Layer pool2
I0410 02:00:46.782871 24316 net.cpp:434] pool2 <- conv2
I0410 02:00:46.782878 24316 net.cpp:408] pool2 -> pool2
I0410 02:00:46.782932 24316 net.cpp:150] Setting up pool2
I0410 02:00:46.782941 24316 net.cpp:157] Top shape: 1024 150 9 9 (12441600)
I0410 02:00:46.782944 24316 net.cpp:165] Memory required for data: 2101927936
I0410 02:00:46.782948 24316 layer_factory.hpp:77] Creating layer conv3
I0410 02:00:46.782958 24316 net.cpp:100] Creating Layer conv3
I0410 02:00:46.782968 24316 net.cpp:434] conv3 <- pool2
I0410 02:00:46.782974 24316 net.cpp:408] conv3 -> conv3
I0410 02:00:46.788439 24316 net.cpp:150] Setting up conv3
I0410 02:00:46.788456 24316 net.cpp:157] Top shape: 1024 250 6 6 (9216000)
I0410 02:00:46.788475 24316 net.cpp:165] Memory required for data: 2138791936
I0410 02:00:46.788488 24316 layer_factory.hpp:77] Creating layer conv3_sTanH
I0410 02:00:46.788496 24316 net.cpp:100] Creating Layer conv3_sTanH
I0410 02:00:46.788498 24316 net.cpp:434] conv3_sTanH <- conv3
I0410 02:00:46.788504 24316 net.cpp:395] conv3_sTanH -> conv3 (in-place)
I0410 02:00:46.789299 24316 net.cpp:150] Setting up conv3_sTanH
I0410 02:00:46.789314 24316 net.cpp:157] Top shape: 1024 250 6 6 (9216000)
I0410 02:00:46.789335 24316 net.cpp:165] Memory required for data: 2175655936
I0410 02:00:46.789340 24316 layer_factory.hpp:77] Creating layer pool3
I0410 02:00:46.789346 24316 net.cpp:100] Creating Layer pool3
I0410 02:00:46.789350 24316 net.cpp:434] pool3 <- conv3
I0410 02:00:46.789357 24316 net.cpp:408] pool3 -> pool3
I0410 02:00:46.789410 24316 net.cpp:150] Setting up pool3
I0410 02:00:46.789418 24316 net.cpp:157] Top shape: 1024 250 3 3 (2304000)
I0410 02:00:46.789422 24316 net.cpp:165] Memory required for data: 2184871936
I0410 02:00:46.789424 24316 layer_factory.hpp:77] Creating layer fc4_300
I0410 02:00:46.789433 24316 net.cpp:100] Creating Layer fc4_300
I0410 02:00:46.789436 24316 net.cpp:434] fc4_300 <- pool3
I0410 02:00:46.789440 24316 net.cpp:408] fc4_300 -> fc4_300
I0410 02:00:46.794680 24316 net.cpp:150] Setting up fc4_300
I0410 02:00:46.794697 24316 net.cpp:157] Top shape: 1024 300 (307200)
I0410 02:00:46.794699 24316 net.cpp:165] Memory required for data: 2186100736
I0410 02:00:46.794706 24316 layer_factory.hpp:77] Creating layer fc4_sTanH
I0410 02:00:46.794713 24316 net.cpp:100] Creating Layer fc4_sTanH
I0410 02:00:46.794716 24316 net.cpp:434] fc4_sTanH <- fc4_300
I0410 02:00:46.794723 24316 net.cpp:395] fc4_sTanH -> fc4_300 (in-place)
I0410 02:00:46.794930 24316 net.cpp:150] Setting up fc4_sTanH
I0410 02:00:46.794941 24316 net.cpp:157] Top shape: 1024 300 (307200)
I0410 02:00:46.794945 24316 net.cpp:165] Memory required for data: 2187329536
I0410 02:00:46.794947 24316 layer_factory.hpp:77] Creating layer drop4
I0410 02:00:46.794956 24316 net.cpp:100] Creating Layer drop4
I0410 02:00:46.794960 24316 net.cpp:434] drop4 <- fc4_300
I0410 02:00:46.794965 24316 net.cpp:395] drop4 -> fc4_300 (in-place)
I0410 02:00:46.795001 24316 net.cpp:150] Setting up drop4
I0410 02:00:46.795009 24316 net.cpp:157] Top shape: 1024 300 (307200)
I0410 02:00:46.795011 24316 net.cpp:165] Memory required for data: 2188558336
I0410 02:00:46.795014 24316 layer_factory.hpp:77] Creating layer fc5_67
I0410 02:00:46.795023 24316 net.cpp:100] Creating Layer fc5_67
I0410 02:00:46.795027 24316 net.cpp:434] fc5_67 <- fc4_300
I0410 02:00:46.795032 24316 net.cpp:408] fc5_67 -> fc5_classes
I0410 02:00:46.795289 24316 net.cpp:150] Setting up fc5_67
I0410 02:00:46.795297 24316 net.cpp:157] Top shape: 1024 67 (68608)
I0410 02:00:46.795300 24316 net.cpp:165] Memory required for data: 2188832768
I0410 02:00:46.795308 24316 layer_factory.hpp:77] Creating layer fc5_classes_fc5_67_0_split
I0410 02:00:46.795316 24316 net.cpp:100] Creating Layer fc5_classes_fc5_67_0_split
I0410 02:00:46.795320 24316 net.cpp:434] fc5_classes_fc5_67_0_split <- fc5_classes
I0410 02:00:46.795325 24316 net.cpp:408] fc5_classes_fc5_67_0_split -> fc5_classes_fc5_67_0_split_0
I0410 02:00:46.795331 24316 net.cpp:408] fc5_classes_fc5_67_0_split -> fc5_classes_fc5_67_0_split_1
I0410 02:00:46.795338 24316 net.cpp:408] fc5_classes_fc5_67_0_split -> fc5_classes_fc5_67_0_split_2
I0410 02:00:46.795389 24316 net.cpp:150] Setting up fc5_classes_fc5_67_0_split
I0410 02:00:46.795397 24316 net.cpp:157] Top shape: 1024 67 (68608)
I0410 02:00:46.795400 24316 net.cpp:157] Top shape: 1024 67 (68608)
I0410 02:00:46.795403 24316 net.cpp:157] Top shape: 1024 67 (68608)
I0410 02:00:46.795405 24316 net.cpp:165] Memory required for data: 2189656064
I0410 02:00:46.795408 24316 layer_factory.hpp:77] Creating layer loss
I0410 02:00:46.795418 24316 net.cpp:100] Creating Layer loss
I0410 02:00:46.795420 24316 net.cpp:434] loss <- fc5_classes_fc5_67_0_split_0
I0410 02:00:46.795424 24316 net.cpp:434] loss <- label_data_1_split_0
I0410 02:00:46.795429 24316 net.cpp:408] loss -> loss
…
