…
I0402 02:05:48.331080 16384 net.cpp:322] The NetState phase (0) differed from the phase (1) specified by a rule in layer accuracy_5
I0402 02:05:48.331178 16384 net.cpp:58] Initializing net from parameters: 
state {
  phase: TRAIN
  level: 0
  stage: ""
}
layer {
  name: "data"
  type: "Data"
  top: "data"
  top: "label"
  include {
    phase: TRAIN
  }
  transform_param {
    mirror: false
    crop_size: 48
    mean_value: 132
    mean_value: 132
    mean_value: 131
  }
  data_param {
    source: "../local_data/lmdb/rtsd-r1/CoNorm/train/lmdb"
    batch_size: 512
    backend: LMDB
  }
}
layer {
  name: "conv1"
  type: "Convolution"
  bottom: "data"
  top: "conv1"
  convolution_param {
    num_output: 100
    pad: 0
    kernel_size: 7
    group: 1
    stride: 1
    weight_filler {
      type: "xavier"
    }
  }
}
layer {
  name: "conv1_relu"
  type: "ReLU"
  bottom: "conv1"
  top: "conv1"
}
layer {
  name: "pool1"
  type: "Pooling"
  bottom: "conv1"
  top: "pool1"
  pooling_param {
    pool: MAX
    kernel_size: 2
    stride: 2
  }
}
layer {
  name: "conv2"
  type: "Convolution"
  bottom: "pool1"
  top: "conv2"
  convolution_param {
    num_output: 150
    pad: 0
    kernel_size: 4
    group: 1
    stride: 1
    weight_filler {
      type: "xavier"
    }
  }
}
layer {
  name: "conv2_relu"
  type: "ReLU"
  bottom: "conv2"
  top: "conv2"
}
layer {
  name: "pool2"
  type: "Pooling"
  bottom: "conv2"
  top: "pool2"
  pooling_param {
    pool: MAX
    kernel_size: 2
    stride: 2
  }
}
layer {
  name: "conv3"
  type: "Convolution"
  bottom: "pool2"
  top: "conv3"
  convolution_param {
    num_output: 250
    pad: 0
    kernel_size: 4
    group: 1
    stride: 1
    weight_filler {
      type: "xavier"
    }
  }
}
layer {
  name: "conv3_relu"
  type: "ReLU"
  bottom: "conv3"
  top: "conv3"
}
layer {
  name: "pool3"
  type: "Pooling"
  bottom: "conv3"
  top: "pool3"
  pooling_param {
    pool: MAX
    kernel_size: 2
    stride: 2
  }
}
layer {
  name: "fc4_300"
  type: "InnerProduct"
  bottom: "pool3"
  top: "fc4_300"
  inner_product_param {
    num_output: 300
    weight_filler {
      type: "xavier"
    }
  }
}
layer {
  name: "fc4_relu"
  type: "ReLU"
  bottom: "fc4_300"
  top: "fc4_300"
}
layer {
  name: "drop4"
  type: "Dropout"
  bottom: "fc4_300"
  top: "fc4_300"
  dropout_param {
    dropout_ratio: 0.4
  }
}
layer {
  name: "fc5_67"
  type: "InnerProduct"
  bottom: "fc4_300"
  top: "fc5_classes"
  inner_product_param {
    num_output: 67
    weight_filler {
      type: "xavier"
    }
  }
}
layer {
  name: "loss"
  type: "SoftmaxWithLoss"
  bottom: "fc5_classes"
  bottom: "label"
  top: "loss"
}
I0402 02:05:48.331250 16384 layer_factory.hpp:77] Creating layer data
I0402 02:05:48.332011 16384 net.cpp:100] Creating Layer data
I0402 02:05:48.332027 16384 net.cpp:408] data -> data
I0402 02:05:48.332049 16384 net.cpp:408] data -> label
I0402 02:05:48.333312 16441 db_lmdb.cpp:35] Opened lmdb ../local_data/lmdb/rtsd-r1/CoNorm/train/lmdb
I0402 02:05:48.427832 16384 data_layer.cpp:41] output data size: 512,3,48,48
I0402 02:05:48.479252 16384 net.cpp:150] Setting up data
I0402 02:05:48.479296 16384 net.cpp:157] Top shape: 512 3 48 48 (3538944)
I0402 02:05:48.479301 16384 net.cpp:157] Top shape: 512 (512)
I0402 02:05:48.479305 16384 net.cpp:165] Memory required for data: 14157824
I0402 02:05:48.479346 16384 layer_factory.hpp:77] Creating layer conv1
I0402 02:05:48.479377 16384 net.cpp:100] Creating Layer conv1
I0402 02:05:48.479385 16384 net.cpp:434] conv1 <- data
I0402 02:05:48.479399 16384 net.cpp:408] conv1 -> conv1
I0402 02:05:48.924175 16384 net.cpp:150] Setting up conv1
I0402 02:05:48.924206 16384 net.cpp:157] Top shape: 512 100 42 42 (90316800)
I0402 02:05:48.924209 16384 net.cpp:165] Memory required for data: 375425024
I0402 02:05:48.924230 16384 layer_factory.hpp:77] Creating layer conv1_relu
I0402 02:05:48.924257 16384 net.cpp:100] Creating Layer conv1_relu
I0402 02:05:48.924263 16384 net.cpp:434] conv1_relu <- conv1
I0402 02:05:48.924268 16384 net.cpp:395] conv1_relu -> conv1 (in-place)
I0402 02:05:48.924464 16384 net.cpp:150] Setting up conv1_relu
I0402 02:05:48.924479 16384 net.cpp:157] Top shape: 512 100 42 42 (90316800)
I0402 02:05:48.924481 16384 net.cpp:165] Memory required for data: 736692224
I0402 02:05:48.924484 16384 layer_factory.hpp:77] Creating layer pool1
I0402 02:05:48.924492 16384 net.cpp:100] Creating Layer pool1
I0402 02:05:48.924495 16384 net.cpp:434] pool1 <- conv1
I0402 02:05:48.924500 16384 net.cpp:408] pool1 -> pool1
I0402 02:05:48.924553 16384 net.cpp:150] Setting up pool1
I0402 02:05:48.924562 16384 net.cpp:157] Top shape: 512 100 21 21 (22579200)
I0402 02:05:48.924566 16384 net.cpp:165] Memory required for data: 827009024
I0402 02:05:48.924568 16384 layer_factory.hpp:77] Creating layer conv2
I0402 02:05:48.924579 16384 net.cpp:100] Creating Layer conv2
I0402 02:05:48.924583 16384 net.cpp:434] conv2 <- pool1
I0402 02:05:48.924588 16384 net.cpp:408] conv2 -> conv2
I0402 02:05:48.931659 16384 net.cpp:150] Setting up conv2
I0402 02:05:48.931677 16384 net.cpp:157] Top shape: 512 150 18 18 (24883200)
I0402 02:05:48.931680 16384 net.cpp:165] Memory required for data: 926541824
I0402 02:05:48.931690 16384 layer_factory.hpp:77] Creating layer conv2_relu
I0402 02:05:48.931696 16384 net.cpp:100] Creating Layer conv2_relu
I0402 02:05:48.931699 16384 net.cpp:434] conv2_relu <- conv2
I0402 02:05:48.931704 16384 net.cpp:395] conv2_relu -> conv2 (in-place)
I0402 02:05:48.933260 16384 net.cpp:150] Setting up conv2_relu
I0402 02:05:48.933276 16384 net.cpp:157] Top shape: 512 150 18 18 (24883200)
I0402 02:05:48.933279 16384 net.cpp:165] Memory required for data: 1026074624
I0402 02:05:48.933284 16384 layer_factory.hpp:77] Creating layer pool2
I0402 02:05:48.933290 16384 net.cpp:100] Creating Layer pool2
I0402 02:05:48.933292 16384 net.cpp:434] pool2 <- conv2
I0402 02:05:48.933297 16384 net.cpp:408] pool2 -> pool2
I0402 02:05:48.933339 16384 net.cpp:150] Setting up pool2
I0402 02:05:48.933348 16384 net.cpp:157] Top shape: 512 150 9 9 (6220800)
I0402 02:05:48.933362 16384 net.cpp:165] Memory required for data: 1050957824
I0402 02:05:48.933365 16384 layer_factory.hpp:77] Creating layer conv3
I0402 02:05:48.933373 16384 net.cpp:100] Creating Layer conv3
I0402 02:05:48.933377 16384 net.cpp:434] conv3 <- pool2
I0402 02:05:48.933382 16384 net.cpp:408] conv3 -> conv3
I0402 02:05:48.942178 16384 net.cpp:150] Setting up conv3
I0402 02:05:48.942194 16384 net.cpp:157] Top shape: 512 250 6 6 (4608000)
I0402 02:05:48.942209 16384 net.cpp:165] Memory required for data: 1069389824
I0402 02:05:48.942219 16384 layer_factory.hpp:77] Creating layer conv3_relu
I0402 02:05:48.942227 16384 net.cpp:100] Creating Layer conv3_relu
I0402 02:05:48.942230 16384 net.cpp:434] conv3_relu <- conv3
I0402 02:05:48.942235 16384 net.cpp:395] conv3_relu -> conv3 (in-place)
I0402 02:05:48.946843 16384 net.cpp:150] Setting up conv3_relu
I0402 02:05:48.946862 16384 net.cpp:157] Top shape: 512 250 6 6 (4608000)
I0402 02:05:48.946877 16384 net.cpp:165] Memory required for data: 1087821824
I0402 02:05:48.946882 16384 layer_factory.hpp:77] Creating layer pool3
I0402 02:05:48.946888 16384 net.cpp:100] Creating Layer pool3
I0402 02:05:48.946892 16384 net.cpp:434] pool3 <- conv3
I0402 02:05:48.946898 16384 net.cpp:408] pool3 -> pool3
I0402 02:05:48.946945 16384 net.cpp:150] Setting up pool3
I0402 02:05:48.946974 16384 net.cpp:157] Top shape: 512 250 3 3 (1152000)
I0402 02:05:48.946979 16384 net.cpp:165] Memory required for data: 1092429824
I0402 02:05:48.946982 16384 layer_factory.hpp:77] Creating layer fc4_300
I0402 02:05:48.946988 16384 net.cpp:100] Creating Layer fc4_300
I0402 02:05:48.946992 16384 net.cpp:434] fc4_300 <- pool3
I0402 02:05:48.946997 16384 net.cpp:408] fc4_300 -> fc4_300
I0402 02:05:48.952405 16384 net.cpp:150] Setting up fc4_300
I0402 02:05:48.952424 16384 net.cpp:157] Top shape: 512 300 (153600)
I0402 02:05:48.952426 16384 net.cpp:165] Memory required for data: 1093044224
I0402 02:05:48.952433 16384 layer_factory.hpp:77] Creating layer fc4_relu
I0402 02:05:48.952440 16384 net.cpp:100] Creating Layer fc4_relu
I0402 02:05:48.952442 16384 net.cpp:434] fc4_relu <- fc4_300
I0402 02:05:48.952447 16384 net.cpp:395] fc4_relu -> fc4_300 (in-place)
I0402 02:05:48.952657 16384 net.cpp:150] Setting up fc4_relu
I0402 02:05:48.952672 16384 net.cpp:157] Top shape: 512 300 (153600)
I0402 02:05:48.952675 16384 net.cpp:165] Memory required for data: 1093658624
I0402 02:05:48.952678 16384 layer_factory.hpp:77] Creating layer drop4
I0402 02:05:48.952685 16384 net.cpp:100] Creating Layer drop4
I0402 02:05:48.952688 16384 net.cpp:434] drop4 <- fc4_300
I0402 02:05:48.952693 16384 net.cpp:395] drop4 -> fc4_300 (in-place)
I0402 02:05:48.952726 16384 net.cpp:150] Setting up drop4
I0402 02:05:48.952733 16384 net.cpp:157] Top shape: 512 300 (153600)
I0402 02:05:48.952736 16384 net.cpp:165] Memory required for data: 1094273024
I0402 02:05:48.952739 16384 layer_factory.hpp:77] Creating layer fc5_67
I0402 02:05:48.952745 16384 net.cpp:100] Creating Layer fc5_67
I0402 02:05:48.952749 16384 net.cpp:434] fc5_67 <- fc4_300
I0402 02:05:48.952754 16384 net.cpp:408] fc5_67 -> fc5_classes
I0402 02:05:48.953994 16384 net.cpp:150] Setting up fc5_67
I0402 02:05:48.954010 16384 net.cpp:157] Top shape: 512 67 (34304)
I0402 02:05:48.954013 16384 net.cpp:165] Memory required for data: 1094410240
I0402 02:05:48.954023 16384 layer_factory.hpp:77] Creating layer loss
I0402 02:05:48.954030 16384 net.cpp:100] Creating Layer loss
I0402 02:05:48.954032 16384 net.cpp:434] loss <- fc5_classes
I0402 02:05:48.954037 16384 net.cpp:434] loss <- label
I0402 02:05:48.954042 16384 net.cpp:408] loss -> loss
I0402 02:05:48.954054 16384 layer_factory.hpp:77] Creating layer loss
…
I0402 02:05:48.954677 16384 solver.cpp:193] Creating test net (#0) specified by test_net file: ./Prototxt/rtsd-r1/CoNorm/test.prototxt
I0402 02:05:48.954819 16384 net.cpp:58] Initializing net from parameters: 
state {
  phase: TEST
}
layer {
  name: "data"
  type: "Data"
  top: "data"
  top: "label"
  include {
    phase: TEST
  }
  transform_param {
    mirror: false
    crop_size: 48
    mean_value: 133
    mean_value: 133
    mean_value: 132
  }
  data_param {
    source: "../local_data/lmdb/rtsd-r1/CoNorm/test/lmdb"
    batch_size: 512
    backend: LMDB
  }
}
layer {
  name: "conv1"
  type: "Convolution"
  bottom: "data"
  top: "conv1"
  convolution_param {
    num_output: 100
    pad: 0
    kernel_size: 7
    group: 1
    stride: 1
    weight_filler {
      type: "xavier"
    }
  }
}
layer {
  name: "conv1_relu"
  type: "ReLU"
  bottom: "conv1"
  top: "conv1"
}
layer {
  name: "pool1"
  type: "Pooling"
  bottom: "conv1"
  top: "pool1"
  pooling_param {
    pool: MAX
    kernel_size: 2
    stride: 2
  }
}
layer {
  name: "conv2"
  type: "Convolution"
  bottom: "pool1"
  top: "conv2"
  convolution_param {
    num_output: 150
    pad: 0
    kernel_size: 4
    group: 1
    stride: 1
    weight_filler {
      type: "xavier"
    }
  }
}
layer {
  name: "conv2_relu"
  type: "ReLU"
  bottom: "conv2"
  top: "conv2"
}
layer {
  name: "pool2"
  type: "Pooling"
  bottom: "conv2"
  top: "pool2"
  pooling_param {
    pool: MAX
    kernel_size: 2
    stride: 2
  }
}
layer {
  name: "conv3"
  type: "Convolution"
  bottom: "pool2"
  top: "conv3"
  convolution_param {
    num_output: 250
    pad: 0
    kernel_size: 4
    group: 1
    stride: 1
    weight_filler {
      type: "xavier"
    }
  }
}
layer {
  name: "conv3_relu"
  type: "ReLU"
  bottom: "conv3"
  top: "conv3"
}
layer {
  name: "pool3"
  type: "Pooling"
  bottom: "conv3"
  top: "pool3"
  pooling_param {
    pool: MAX
    kernel_size: 2
    stride: 2
  }
}
layer {
  name: "fc4_300"
  type: "InnerProduct"
  bottom: "pool3"
  top: "fc4_300"
  inner_product_param {
    num_output: 300
    weight_filler {
      type: "xavier"
    }
  }
}
layer {
  name: "fc4_relu"
  type: "ReLU"
  bottom: "fc4_300"
  top: "fc4_300"
}
layer {
  name: "drop4"
  type: "Dropout"
  bottom: "fc4_300"
  top: "fc4_300"
  dropout_param {
    dropout_ratio: 0.4
  }
}
layer {
  name: "fc5_67"
  type: "InnerProduct"
  bottom: "fc4_300"
  top: "fc5_classes"
  inner_product_param {
    num_output: 67
    weight_filler {
      type: "xavier"
    }
  }
}
layer {
  name: "loss"
  type: "SoftmaxWithLoss"
  bottom: "fc5_classes"
  bottom: "label"
  top: "loss"
}
layer {
  name: "accuracy_1"
  type: "Accuracy"
  bottom: "fc5_classes"
  bottom: "label"
  top: "accuracy_1"
  include {
    phase: TEST
  }
  accuracy_param {
    top_k: 1
  }
}
layer {
  name: "accuracy_5"
  type: "Accuracy"
  bottom: "fc5_classes"
  bottom: "label"
  top: "accuracy_5"
  include {
    phase: TEST
  }
  accuracy_param {
    top_k: 5
  }
}
I0402 02:05:48.954912 16384 layer_factory.hpp:77] Creating layer data
I0402 02:05:48.955310 16384 net.cpp:100] Creating Layer data
I0402 02:05:48.955338 16384 net.cpp:408] data -> data
I0402 02:05:48.955351 16384 net.cpp:408] data -> label
I0402 02:05:48.956975 16455 db_lmdb.cpp:35] Opened lmdb ../local_data/lmdb/rtsd-r1/CoNorm/test/lmdb
I0402 02:05:48.957154 16384 data_layer.cpp:41] output data size: 512,3,48,48
I0402 02:05:48.982815 16384 net.cpp:150] Setting up data
I0402 02:05:48.982843 16384 net.cpp:157] Top shape: 512 3 48 48 (3538944)
I0402 02:05:48.982848 16384 net.cpp:157] Top shape: 512 (512)
I0402 02:05:48.982851 16384 net.cpp:165] Memory required for data: 14157824
I0402 02:05:48.982857 16384 layer_factory.hpp:77] Creating layer label_data_1_split
I0402 02:05:48.982872 16384 net.cpp:100] Creating Layer label_data_1_split
I0402 02:05:48.982875 16384 net.cpp:434] label_data_1_split <- label
I0402 02:05:48.982884 16384 net.cpp:408] label_data_1_split -> label_data_1_split_0
I0402 02:05:48.982895 16384 net.cpp:408] label_data_1_split -> label_data_1_split_1
I0402 02:05:48.982903 16384 net.cpp:408] label_data_1_split -> label_data_1_split_2
I0402 02:05:48.983031 16384 net.cpp:150] Setting up label_data_1_split
I0402 02:05:48.983058 16384 net.cpp:157] Top shape: 512 (512)
I0402 02:05:48.983062 16384 net.cpp:157] Top shape: 512 (512)
I0402 02:05:48.983067 16384 net.cpp:157] Top shape: 512 (512)
I0402 02:05:48.983068 16384 net.cpp:165] Memory required for data: 14163968
I0402 02:05:48.983072 16384 layer_factory.hpp:77] Creating layer conv1
I0402 02:05:48.983086 16384 net.cpp:100] Creating Layer conv1
I0402 02:05:48.983090 16384 net.cpp:434] conv1 <- data
I0402 02:05:48.983096 16384 net.cpp:408] conv1 -> conv1
I0402 02:05:48.993121 16384 net.cpp:150] Setting up conv1
I0402 02:05:48.993140 16384 net.cpp:157] Top shape: 512 100 42 42 (90316800)
I0402 02:05:48.993144 16384 net.cpp:165] Memory required for data: 375431168
I0402 02:05:48.993156 16384 layer_factory.hpp:77] Creating layer conv1_relu
I0402 02:05:48.993166 16384 net.cpp:100] Creating Layer conv1_relu
I0402 02:05:48.993170 16384 net.cpp:434] conv1_relu <- conv1
I0402 02:05:48.993186 16384 net.cpp:395] conv1_relu -> conv1 (in-place)
I0402 02:05:48.993396 16384 net.cpp:150] Setting up conv1_relu
I0402 02:05:48.993408 16384 net.cpp:157] Top shape: 512 100 42 42 (90316800)
I0402 02:05:48.993412 16384 net.cpp:165] Memory required for data: 736698368
I0402 02:05:48.993415 16384 layer_factory.hpp:77] Creating layer pool1
I0402 02:05:48.993425 16384 net.cpp:100] Creating Layer pool1
I0402 02:05:48.993429 16384 net.cpp:434] pool1 <- conv1
I0402 02:05:48.993434 16384 net.cpp:408] pool1 -> pool1
I0402 02:05:48.993484 16384 net.cpp:150] Setting up pool1
I0402 02:05:48.993492 16384 net.cpp:157] Top shape: 512 100 21 21 (22579200)
I0402 02:05:48.993495 16384 net.cpp:165] Memory required for data: 827015168
I0402 02:05:48.993499 16384 layer_factory.hpp:77] Creating layer conv2
I0402 02:05:48.993507 16384 net.cpp:100] Creating Layer conv2
I0402 02:05:48.993511 16384 net.cpp:434] conv2 <- pool1
I0402 02:05:48.993516 16384 net.cpp:408] conv2 -> conv2
I0402 02:05:48.998499 16384 net.cpp:150] Setting up conv2
I0402 02:05:48.998517 16384 net.cpp:157] Top shape: 512 150 18 18 (24883200)
I0402 02:05:48.998527 16384 net.cpp:165] Memory required for data: 926547968
I0402 02:05:48.998536 16384 layer_factory.hpp:77] Creating layer conv2_relu
I0402 02:05:48.998544 16384 net.cpp:100] Creating Layer conv2_relu
I0402 02:05:48.998548 16384 net.cpp:434] conv2_relu <- conv2
I0402 02:05:48.998553 16384 net.cpp:395] conv2_relu -> conv2 (in-place)
I0402 02:05:49.000619 16384 net.cpp:150] Setting up conv2_relu
I0402 02:05:49.000638 16384 net.cpp:157] Top shape: 512 150 18 18 (24883200)
I0402 02:05:49.000643 16384 net.cpp:165] Memory required for data: 1026080768
I0402 02:05:49.000646 16384 layer_factory.hpp:77] Creating layer pool2
I0402 02:05:49.000653 16384 net.cpp:100] Creating Layer pool2
I0402 02:05:49.000656 16384 net.cpp:434] pool2 <- conv2
I0402 02:05:49.000663 16384 net.cpp:408] pool2 -> pool2
I0402 02:05:49.000715 16384 net.cpp:150] Setting up pool2
I0402 02:05:49.000725 16384 net.cpp:157] Top shape: 512 150 9 9 (6220800)
I0402 02:05:49.000730 16384 net.cpp:165] Memory required for data: 1050963968
I0402 02:05:49.000732 16384 layer_factory.hpp:77] Creating layer conv3
I0402 02:05:49.000742 16384 net.cpp:100] Creating Layer conv3
I0402 02:05:49.000757 16384 net.cpp:434] conv3 <- pool2
I0402 02:05:49.000763 16384 net.cpp:408] conv3 -> conv3
I0402 02:05:49.009531 16384 net.cpp:150] Setting up conv3
I0402 02:05:49.009548 16384 net.cpp:157] Top shape: 512 250 6 6 (4608000)
I0402 02:05:49.009552 16384 net.cpp:165] Memory required for data: 1069395968
I0402 02:05:49.009563 16384 layer_factory.hpp:77] Creating layer conv3_relu
I0402 02:05:49.009569 16384 net.cpp:100] Creating Layer conv3_relu
I0402 02:05:49.009574 16384 net.cpp:434] conv3_relu <- conv3
I0402 02:05:49.009582 16384 net.cpp:395] conv3_relu -> conv3 (in-place)
I0402 02:05:49.011616 16384 net.cpp:150] Setting up conv3_relu
I0402 02:05:49.011632 16384 net.cpp:157] Top shape: 512 250 6 6 (4608000)
I0402 02:05:49.011636 16384 net.cpp:165] Memory required for data: 1087827968
I0402 02:05:49.011639 16384 layer_factory.hpp:77] Creating layer pool3
I0402 02:05:49.011658 16384 net.cpp:100] Creating Layer pool3
I0402 02:05:49.011677 16384 net.cpp:434] pool3 <- conv3
I0402 02:05:49.011684 16384 net.cpp:408] pool3 -> pool3
I0402 02:05:49.011735 16384 net.cpp:150] Setting up pool3
I0402 02:05:49.011744 16384 net.cpp:157] Top shape: 512 250 3 3 (1152000)
I0402 02:05:49.011746 16384 net.cpp:165] Memory required for data: 1092435968
I0402 02:05:49.011749 16384 layer_factory.hpp:77] Creating layer fc4_300
I0402 02:05:49.011756 16384 net.cpp:100] Creating Layer fc4_300
I0402 02:05:49.011759 16384 net.cpp:434] fc4_300 <- pool3
I0402 02:05:49.011766 16384 net.cpp:408] fc4_300 -> fc4_300
I0402 02:05:49.017206 16384 net.cpp:150] Setting up fc4_300
I0402 02:05:49.017222 16384 net.cpp:157] Top shape: 512 300 (153600)
I0402 02:05:49.017225 16384 net.cpp:165] Memory required for data: 1093050368
I0402 02:05:49.017232 16384 layer_factory.hpp:77] Creating layer fc4_relu
I0402 02:05:49.017238 16384 net.cpp:100] Creating Layer fc4_relu
I0402 02:05:49.017242 16384 net.cpp:434] fc4_relu <- fc4_300
I0402 02:05:49.017289 16384 net.cpp:395] fc4_relu -> fc4_300 (in-place)
I0402 02:05:49.017495 16384 net.cpp:150] Setting up fc4_relu
I0402 02:05:49.017508 16384 net.cpp:157] Top shape: 512 300 (153600)
I0402 02:05:49.017510 16384 net.cpp:165] Memory required for data: 1093664768
I0402 02:05:49.017513 16384 layer_factory.hpp:77] Creating layer drop4
I0402 02:05:49.017520 16384 net.cpp:100] Creating Layer drop4
I0402 02:05:49.017524 16384 net.cpp:434] drop4 <- fc4_300
I0402 02:05:49.017531 16384 net.cpp:395] drop4 -> fc4_300 (in-place)
I0402 02:05:49.017562 16384 net.cpp:150] Setting up drop4
I0402 02:05:49.017571 16384 net.cpp:157] Top shape: 512 300 (153600)
I0402 02:05:49.017575 16384 net.cpp:165] Memory required for data: 1094279168
I0402 02:05:49.017578 16384 layer_factory.hpp:77] Creating layer fc5_67
I0402 02:05:49.017588 16384 net.cpp:100] Creating Layer fc5_67
I0402 02:05:49.017591 16384 net.cpp:434] fc5_67 <- fc4_300
I0402 02:05:49.017596 16384 net.cpp:408] fc5_67 -> fc5_classes
I0402 02:05:49.017844 16384 net.cpp:150] Setting up fc5_67
I0402 02:05:49.017853 16384 net.cpp:157] Top shape: 512 67 (34304)
I0402 02:05:49.017856 16384 net.cpp:165] Memory required for data: 1094416384
I0402 02:05:49.017865 16384 layer_factory.hpp:77] Creating layer fc5_classes_fc5_67_0_split
I0402 02:05:49.017874 16384 net.cpp:100] Creating Layer fc5_classes_fc5_67_0_split
I0402 02:05:49.017884 16384 net.cpp:434] fc5_classes_fc5_67_0_split <- fc5_classes
I0402 02:05:49.017890 16384 net.cpp:408] fc5_classes_fc5_67_0_split -> fc5_classes_fc5_67_0_split_0
I0402 02:05:49.017899 16384 net.cpp:408] fc5_classes_fc5_67_0_split -> fc5_classes_fc5_67_0_split_1
I0402 02:05:49.017905 16384 net.cpp:408] fc5_classes_fc5_67_0_split -> fc5_classes_fc5_67_0_split_2
I0402 02:05:49.017957 16384 net.cpp:150] Setting up fc5_classes_fc5_67_0_split
I0402 02:05:49.017966 16384 net.cpp:157] Top shape: 512 67 (34304)
I0402 02:05:49.017968 16384 net.cpp:157] Top shape: 512 67 (34304)
I0402 02:05:49.017971 16384 net.cpp:157] Top shape: 512 67 (34304)
I0402 02:05:49.017974 16384 net.cpp:165] Memory required for data: 1094828032
I0402 02:05:49.017977 16384 layer_factory.hpp:77] Creating layer loss
I0402 02:05:49.017987 16384 net.cpp:100] Creating Layer loss
I0402 02:05:49.018002 16384 net.cpp:434] loss <- fc5_classes_fc5_67_0_split_0
I0402 02:05:49.018007 16384 net.cpp:434] loss <- label_data_1_split_0
I0402 02:05:49.018013 16384 net.cpp:408] loss -> loss
…
