…
I0412 09:23:33.348012 22769 solver.cpp:93] Creating training net from train_net file: ./Prototxt/experiment_10/rtsd-r1/imajust/trial_3/train.prototxt
I0412 09:23:33.348364 22769 net.cpp:58] Initializing net from parameters: 
state {
  phase: TRAIN
  level: 0
  stage: ""
}
layer {
  name: "data"
  type: "Data"
  top: "data"
  top: "label"
  include {
    phase: TRAIN
  }
  transform_param {
    scale: 0.0039215689
    mirror: false
    crop_size: 48
    mean_value: 115
    mean_value: 108
    mean_value: 122
  }
  data_param {
    source: "../local_data/lmdb/rtsd-r1/imajust/train/lmdb"
    batch_size: 1024
    backend: LMDB
  }
}
layer {
  name: "conv1"
  type: "Convolution"
  bottom: "data"
  top: "conv1"
  convolution_param {
    num_output: 100
    pad: 0
    kernel_size: 7
    group: 1
    stride: 1
    weight_filler {
      type: "xavier"
    }
  }
}
layer {
  name: "conv1_relu"
  type: "ReLU"
  bottom: "conv1"
  top: "conv1"
}
layer {
  name: "pool1"
  type: "Pooling"
  bottom: "conv1"
  top: "pool1"
  pooling_param {
    pool: MAX
    kernel_size: 2
    stride: 2
  }
}
layer {
  name: "conv2"
  type: "Convolution"
  bottom: "pool1"
  top: "conv2"
  convolution_param {
    num_output: 150
    pad: 0
    kernel_size: 4
    group: 1
    stride: 1
    weight_filler {
      type: "xavier"
    }
  }
}
layer {
  name: "conv2_relu"
  type: "ReLU"
  bottom: "conv2"
  top: "conv2"
}
layer {
  name: "pool2"
  type: "Pooling"
  bottom: "conv2"
  top: "pool2"
  pooling_param {
    pool: MAX
    kernel_size: 2
    stride: 2
  }
}
layer {
  name: "conv3"
  type: "Convolution"
  bottom: "pool2"
  top: "conv3"
  convolution_param {
    num_output: 250
    pad: 0
    kernel_size: 4
    group: 1
    stride: 1
    weight_filler {
      type: "xavier"
    }
  }
}
layer {
  name: "conv3_relu"
  type: "ReLU"
  bottom: "conv3"
  top: "conv3"
}
layer {
  name: "pool3"
  type: "Pooling"
  bottom: "conv3"
  top: "pool3"
  pooling_param {
    pool: MAX
    kernel_size: 2
    stride: 2
  }
}
layer {
  name: "fc4_300"
  type: "InnerProduct"
  bottom: "pool3"
  top: "fc4_300"
  inner_product_param {
    num_output: 300
    weight_filler {
      type: "xavier"
    }
  }
}
layer {
  name: "fc4_relu"
  type: "ReLU"
  bottom: "fc4_300"
  top: "fc4_300"
}
layer {
  name: "drop4"
  type: "Dropout"
  bottom: "fc4_300"
  top: "fc4_300"
  dropout_param {
    dropout_ratio: 0.4
  }
}
layer {
  name: "fc5_67"
  type: "InnerProduct"
  bottom: "fc4_300"
  top: "fc5_classes"
  inner_product_param {
    num_output: 67
    weight_filler {
      type: "xavier"
    }
  }
}
layer {
  name: "softmax"
  type: "Softmax"
  bottom: "fc5_classes"
  top: "softmax"
}
layer {
  name: "loss"
  type: "MultinomialLogisticLoss"
  bottom: "softmax"
  bottom: "label"
  top: "loss"
}
layer {
  name: "accuracy_1"
  type: "Accuracy"
  bottom: "fc5_classes"
  bottom: "label"
  top: "accuracy_1"
  accuracy_param {
    top_k: 1
  }
}
layer {
  name: "accuracy_5"
  type: "Accuracy"
  bottom: "fc5_classes"
  bottom: "label"
  top: "accuracy_5"
  accuracy_param {
    top_k: 5
  }
}
I0412 09:23:33.348489 22769 layer_factory.hpp:77] Creating layer data
I0412 09:23:33.349565 22769 net.cpp:100] Creating Layer data
I0412 09:23:33.349582 22769 net.cpp:408] data -> data
I0412 09:23:33.349608 22769 net.cpp:408] data -> label
I0412 09:23:33.355136 22896 db_lmdb.cpp:35] Opened lmdb ../local_data/lmdb/rtsd-r1/imajust/train/lmdb
I0412 09:23:33.378846 22769 data_layer.cpp:41] output data size: 1024,3,48,48
I0412 09:23:33.436651 22769 net.cpp:150] Setting up data
I0412 09:23:33.436691 22769 net.cpp:157] Top shape: 1024 3 48 48 (7077888)
I0412 09:23:33.436697 22769 net.cpp:157] Top shape: 1024 (1024)
I0412 09:23:33.436700 22769 net.cpp:165] Memory required for data: 28315648
I0412 09:23:33.436712 22769 layer_factory.hpp:77] Creating layer label_data_1_split
I0412 09:23:33.436728 22769 net.cpp:100] Creating Layer label_data_1_split
I0412 09:23:33.436733 22769 net.cpp:434] label_data_1_split <- label
I0412 09:23:33.436748 22769 net.cpp:408] label_data_1_split -> label_data_1_split_0
I0412 09:23:33.436761 22769 net.cpp:408] label_data_1_split -> label_data_1_split_1
I0412 09:23:33.436770 22769 net.cpp:408] label_data_1_split -> label_data_1_split_2
I0412 09:23:33.436867 22769 net.cpp:150] Setting up label_data_1_split
I0412 09:23:33.436877 22769 net.cpp:157] Top shape: 1024 (1024)
I0412 09:23:33.436880 22769 net.cpp:157] Top shape: 1024 (1024)
I0412 09:23:33.436885 22769 net.cpp:157] Top shape: 1024 (1024)
I0412 09:23:33.436887 22769 net.cpp:165] Memory required for data: 28327936
I0412 09:23:33.436892 22769 layer_factory.hpp:77] Creating layer conv1
I0412 09:23:33.436908 22769 net.cpp:100] Creating Layer conv1
I0412 09:23:33.436913 22769 net.cpp:434] conv1 <- data
I0412 09:23:33.436919 22769 net.cpp:408] conv1 -> conv1
I0412 09:23:33.727818 22769 net.cpp:150] Setting up conv1
I0412 09:23:33.727857 22769 net.cpp:157] Top shape: 1024 100 42 42 (180633600)
I0412 09:23:33.727861 22769 net.cpp:165] Memory required for data: 750862336
I0412 09:23:33.727893 22769 layer_factory.hpp:77] Creating layer conv1_relu
I0412 09:23:33.727907 22769 net.cpp:100] Creating Layer conv1_relu
I0412 09:23:33.727911 22769 net.cpp:434] conv1_relu <- conv1
I0412 09:23:33.727918 22769 net.cpp:395] conv1_relu -> conv1 (in-place)
I0412 09:23:33.728119 22769 net.cpp:150] Setting up conv1_relu
I0412 09:23:33.728132 22769 net.cpp:157] Top shape: 1024 100 42 42 (180633600)
I0412 09:23:33.728135 22769 net.cpp:165] Memory required for data: 1473396736
I0412 09:23:33.728139 22769 layer_factory.hpp:77] Creating layer pool1
I0412 09:23:33.728149 22769 net.cpp:100] Creating Layer pool1
I0412 09:23:33.728152 22769 net.cpp:434] pool1 <- conv1
I0412 09:23:33.728160 22769 net.cpp:408] pool1 -> pool1
I0412 09:23:33.728216 22769 net.cpp:150] Setting up pool1
I0412 09:23:33.728225 22769 net.cpp:157] Top shape: 1024 100 21 21 (45158400)
I0412 09:23:33.728227 22769 net.cpp:165] Memory required for data: 1654030336
I0412 09:23:33.728231 22769 layer_factory.hpp:77] Creating layer conv2
I0412 09:23:33.728242 22769 net.cpp:100] Creating Layer conv2
I0412 09:23:33.728247 22769 net.cpp:434] conv2 <- pool1
I0412 09:23:33.728253 22769 net.cpp:408] conv2 -> conv2
I0412 09:23:33.733952 22769 net.cpp:150] Setting up conv2
I0412 09:23:33.733970 22769 net.cpp:157] Top shape: 1024 150 18 18 (49766400)
I0412 09:23:33.733974 22769 net.cpp:165] Memory required for data: 1853095936
I0412 09:23:33.733984 22769 layer_factory.hpp:77] Creating layer conv2_relu
I0412 09:23:33.733994 22769 net.cpp:100] Creating Layer conv2_relu
I0412 09:23:33.733997 22769 net.cpp:434] conv2_relu <- conv2
I0412 09:23:33.734004 22769 net.cpp:395] conv2_relu -> conv2 (in-place)
I0412 09:23:33.735630 22769 net.cpp:150] Setting up conv2_relu
I0412 09:23:33.735646 22769 net.cpp:157] Top shape: 1024 150 18 18 (49766400)
I0412 09:23:33.735651 22769 net.cpp:165] Memory required for data: 2052161536
I0412 09:23:33.735654 22769 layer_factory.hpp:77] Creating layer pool2
I0412 09:23:33.735663 22769 net.cpp:100] Creating Layer pool2
I0412 09:23:33.735669 22769 net.cpp:434] pool2 <- conv2
I0412 09:23:33.735674 22769 net.cpp:408] pool2 -> pool2
I0412 09:23:33.735733 22769 net.cpp:150] Setting up pool2
I0412 09:23:33.735743 22769 net.cpp:157] Top shape: 1024 150 9 9 (12441600)
I0412 09:23:33.735745 22769 net.cpp:165] Memory required for data: 2101927936
I0412 09:23:33.735749 22769 layer_factory.hpp:77] Creating layer conv3
I0412 09:23:33.735760 22769 net.cpp:100] Creating Layer conv3
I0412 09:23:33.735765 22769 net.cpp:434] conv3 <- pool2
I0412 09:23:33.735795 22769 net.cpp:408] conv3 -> conv3
I0412 09:23:33.742038 22769 net.cpp:150] Setting up conv3
I0412 09:23:33.742059 22769 net.cpp:157] Top shape: 1024 250 6 6 (9216000)
I0412 09:23:33.742064 22769 net.cpp:165] Memory required for data: 2138791936
I0412 09:23:33.742074 22769 layer_factory.hpp:77] Creating layer conv3_relu
I0412 09:23:33.742084 22769 net.cpp:100] Creating Layer conv3_relu
I0412 09:23:33.742089 22769 net.cpp:434] conv3_relu <- conv3
I0412 09:23:33.742097 22769 net.cpp:395] conv3_relu -> conv3 (in-place)
I0412 09:23:33.743255 22769 net.cpp:150] Setting up conv3_relu
I0412 09:23:33.743273 22769 net.cpp:157] Top shape: 1024 250 6 6 (9216000)
I0412 09:23:33.743278 22769 net.cpp:165] Memory required for data: 2175655936
I0412 09:23:33.743281 22769 layer_factory.hpp:77] Creating layer pool3
I0412 09:23:33.743288 22769 net.cpp:100] Creating Layer pool3
I0412 09:23:33.743294 22769 net.cpp:434] pool3 <- conv3
I0412 09:23:33.743301 22769 net.cpp:408] pool3 -> pool3
I0412 09:23:33.743356 22769 net.cpp:150] Setting up pool3
I0412 09:23:33.743366 22769 net.cpp:157] Top shape: 1024 250 3 3 (2304000)
I0412 09:23:33.743367 22769 net.cpp:165] Memory required for data: 2184871936
I0412 09:23:33.743371 22769 layer_factory.hpp:77] Creating layer fc4_300
I0412 09:23:33.743381 22769 net.cpp:100] Creating Layer fc4_300
I0412 09:23:33.743386 22769 net.cpp:434] fc4_300 <- pool3
I0412 09:23:33.743391 22769 net.cpp:408] fc4_300 -> fc4_300
I0412 09:23:33.749505 22769 net.cpp:150] Setting up fc4_300
I0412 09:23:33.749521 22769 net.cpp:157] Top shape: 1024 300 (307200)
I0412 09:23:33.749526 22769 net.cpp:165] Memory required for data: 2186100736
I0412 09:23:33.749531 22769 layer_factory.hpp:77] Creating layer fc4_relu
I0412 09:23:33.749553 22769 net.cpp:100] Creating Layer fc4_relu
I0412 09:23:33.749559 22769 net.cpp:434] fc4_relu <- fc4_300
I0412 09:23:33.749565 22769 net.cpp:395] fc4_relu -> fc4_300 (in-place)
I0412 09:23:33.749760 22769 net.cpp:150] Setting up fc4_relu
I0412 09:23:33.749773 22769 net.cpp:157] Top shape: 1024 300 (307200)
I0412 09:23:33.749775 22769 net.cpp:165] Memory required for data: 2187329536
I0412 09:23:33.749779 22769 layer_factory.hpp:77] Creating layer drop4
I0412 09:23:33.749786 22769 net.cpp:100] Creating Layer drop4
I0412 09:23:33.749789 22769 net.cpp:434] drop4 <- fc4_300
I0412 09:23:33.749796 22769 net.cpp:395] drop4 -> fc4_300 (in-place)
I0412 09:23:33.749828 22769 net.cpp:150] Setting up drop4
I0412 09:23:33.749836 22769 net.cpp:157] Top shape: 1024 300 (307200)
I0412 09:23:33.749840 22769 net.cpp:165] Memory required for data: 2188558336
I0412 09:23:33.749843 22769 layer_factory.hpp:77] Creating layer fc5_67
I0412 09:23:33.749851 22769 net.cpp:100] Creating Layer fc5_67
I0412 09:23:33.749856 22769 net.cpp:434] fc5_67 <- fc4_300
I0412 09:23:33.749861 22769 net.cpp:408] fc5_67 -> fc5_classes
I0412 09:23:33.755683 22769 net.cpp:150] Setting up fc5_67
I0412 09:23:33.755702 22769 net.cpp:157] Top shape: 1024 67 (68608)
I0412 09:23:33.755705 22769 net.cpp:165] Memory required for data: 2188832768
I0412 09:23:33.755715 22769 layer_factory.hpp:77] Creating layer fc5_classes_fc5_67_0_split
I0412 09:23:33.755728 22769 net.cpp:100] Creating Layer fc5_classes_fc5_67_0_split
I0412 09:23:33.755733 22769 net.cpp:434] fc5_classes_fc5_67_0_split <- fc5_classes
I0412 09:23:33.755740 22769 net.cpp:408] fc5_classes_fc5_67_0_split -> fc5_classes_fc5_67_0_split_0
I0412 09:23:33.755749 22769 net.cpp:408] fc5_classes_fc5_67_0_split -> fc5_classes_fc5_67_0_split_1
I0412 09:23:33.755758 22769 net.cpp:408] fc5_classes_fc5_67_0_split -> fc5_classes_fc5_67_0_split_2
I0412 09:23:33.755812 22769 net.cpp:150] Setting up fc5_classes_fc5_67_0_split
I0412 09:23:33.755820 22769 net.cpp:157] Top shape: 1024 67 (68608)
I0412 09:23:33.755823 22769 net.cpp:157] Top shape: 1024 67 (68608)
I0412 09:23:33.755826 22769 net.cpp:157] Top shape: 1024 67 (68608)
I0412 09:23:33.755830 22769 net.cpp:165] Memory required for data: 2189656064
I0412 09:23:33.755832 22769 layer_factory.hpp:77] Creating layer softmax
I0412 09:23:33.755856 22769 net.cpp:100] Creating Layer softmax
I0412 09:23:33.755863 22769 net.cpp:434] softmax <- fc5_classes_fc5_67_0_split_0
I0412 09:23:33.755869 22769 net.cpp:408] softmax -> softmax
I0412 09:23:33.756152 22769 net.cpp:150] Setting up softmax
I0412 09:23:33.756166 22769 net.cpp:157] Top shape: 1024 67 (68608)
I0412 09:23:33.756170 22769 net.cpp:165] Memory required for data: 2189930496
I0412 09:23:33.756172 22769 layer_factory.hpp:77] Creating layer loss
I0412 09:23:33.756181 22769 net.cpp:100] Creating Layer loss
I0412 09:23:33.756187 22769 net.cpp:434] loss <- softmax
I0412 09:23:33.756191 22769 net.cpp:434] loss <- label_data_1_split_0
I0412 09:23:33.756196 22769 net.cpp:408] loss -> loss
…
