…
I0414 08:40:42.086405 18020 solver.cpp:93] Creating training net from train_net file: ./Prototxt/experiment_10/rtsd-r1/imajust/trial_3/train.prototxt
I0414 08:40:42.086794 18020 net.cpp:58] Initializing net from parameters: 
state {
  phase: TRAIN
  level: 0
  stage: ""
}
layer {
  name: "data"
  type: "Data"
  top: "data"
  top: "label"
  include {
    phase: TRAIN
  }
  transform_param {
    scale: 0.0039215689
    mirror: false
    crop_size: 48
    mean_value: 115
    mean_value: 108
    mean_value: 122
  }
  data_param {
    source: "../local_data/lmdb/rtsd-r1/imajust/train/lmdb"
    batch_size: 1024
    backend: LMDB
  }
}
layer {
  name: "conv1"
  type: "Convolution"
  bottom: "data"
  top: "conv1"
  convolution_param {
    num_output: 100
    pad: 0
    kernel_size: 7
    group: 1
    stride: 1
    weight_filler {
      type: "xavier"
    }
  }
}
layer {
  name: "conv1_relu"
  type: "ReLU"
  bottom: "conv1"
  top: "conv1"
}
layer {
  name: "pool1"
  type: "Pooling"
  bottom: "conv1"
  top: "pool1"
  pooling_param {
    pool: MAX
    kernel_size: 2
    stride: 2
  }
}
layer {
  name: "conv2"
  type: "Convolution"
  bottom: "pool1"
  top: "conv2"
  convolution_param {
    num_output: 150
    pad: 0
    kernel_size: 4
    group: 1
    stride: 1
    weight_filler {
      type: "xavier"
    }
  }
}
layer {
  name: "conv2_relu"
  type: "ReLU"
  bottom: "conv2"
  top: "conv2"
}
layer {
  name: "pool2"
  type: "Pooling"
  bottom: "conv2"
  top: "pool2"
  pooling_param {
    pool: MAX
    kernel_size: 2
    stride: 2
  }
}
layer {
  name: "conv3"
  type: "Convolution"
  bottom: "pool2"
  top: "conv3"
  convolution_param {
    num_output: 250
    pad: 0
    kernel_size: 4
    group: 1
    stride: 1
    weight_filler {
      type: "xavier"
    }
  }
}
layer {
  name: "conv3_relu"
  type: "ReLU"
  bottom: "conv3"
  top: "conv3"
}
layer {
  name: "pool3"
  type: "Pooling"
  bottom: "conv3"
  top: "pool3"
  pooling_param {
    pool: MAX
    kernel_size: 2
    stride: 2
  }
}
layer {
  name: "fc4_300"
  type: "InnerProduct"
  bottom: "pool3"
  top: "fc4_300"
  inner_product_param {
    num_output: 300
    weight_filler {
      type: "xavier"
    }
  }
}
layer {
  name: "fc4_relu"
  type: "ReLU"
  bottom: "fc4_300"
  top: "fc4_300"
}
layer {
  name: "fc5_67"
  type: "InnerProduct"
  bottom: "fc4_300"
  top: "fc5_classes"
  inner_product_param {
    num_output: 67
    weight_filler {
      type: "xavier"
    }
  }
}
layer {
  name: "softmax"
  type: "Softmax"
  bottom: "fc5_classes"
  top: "softmax"
}
layer {
  name: "loss"
  type: "MultinomialLogisticLoss"
  bottom: "softmax"
  bottom: "label"
  top: "loss"
}
layer {
  name: "accuracy_1"
  type: "Accuracy"
  bottom: "fc5_classes"
  bottom: "label"
  top: "accuracy_1"
  accuracy_param {
    top_k: 1
  }
}
layer {
  name: "accuracy_5"
  type: "Accuracy"
  bottom: "fc5_classes"
  bottom: "label"
  top: "accuracy_5"
  accuracy_param {
    top_k: 5
  }
}
layer {
  name: "silence"
  type: "Silence"
  bottom: "accuracy_1"
  bottom: "accuracy_5"
}
I0414 08:40:42.086935 18020 layer_factory.hpp:77] Creating layer data
I0414 08:40:42.088238 18020 net.cpp:100] Creating Layer data
I0414 08:40:42.088258 18020 net.cpp:408] data -> data
I0414 08:40:42.088282 18020 net.cpp:408] data -> label
I0414 08:40:42.091068 18134 db_lmdb.cpp:35] Opened lmdb ../local_data/lmdb/rtsd-r1/imajust/train/lmdb
I0414 08:40:42.111394 18020 data_layer.cpp:41] output data size: 1024,3,48,48
I0414 08:40:42.203181 18020 net.cpp:150] Setting up data
I0414 08:40:42.203233 18020 net.cpp:157] Top shape: 1024 3 48 48 (7077888)
I0414 08:40:42.203241 18020 net.cpp:157] Top shape: 1024 (1024)
I0414 08:40:42.203245 18020 net.cpp:165] Memory required for data: 28315648
I0414 08:40:42.203258 18020 layer_factory.hpp:77] Creating layer label_data_1_split
I0414 08:40:42.203274 18020 net.cpp:100] Creating Layer label_data_1_split
I0414 08:40:42.203281 18020 net.cpp:434] label_data_1_split <- label
I0414 08:40:42.203308 18020 net.cpp:408] label_data_1_split -> label_data_1_split_0
I0414 08:40:42.203321 18020 net.cpp:408] label_data_1_split -> label_data_1_split_1
I0414 08:40:42.203333 18020 net.cpp:408] label_data_1_split -> label_data_1_split_2
I0414 08:40:42.203413 18020 net.cpp:150] Setting up label_data_1_split
I0414 08:40:42.203423 18020 net.cpp:157] Top shape: 1024 (1024)
I0414 08:40:42.203428 18020 net.cpp:157] Top shape: 1024 (1024)
I0414 08:40:42.203433 18020 net.cpp:157] Top shape: 1024 (1024)
I0414 08:40:42.203435 18020 net.cpp:165] Memory required for data: 28327936
I0414 08:40:42.203439 18020 layer_factory.hpp:77] Creating layer conv1
I0414 08:40:42.203457 18020 net.cpp:100] Creating Layer conv1
I0414 08:40:42.203464 18020 net.cpp:434] conv1 <- data
I0414 08:40:42.203469 18020 net.cpp:408] conv1 -> conv1
I0414 08:40:42.687666 18020 net.cpp:150] Setting up conv1
I0414 08:40:42.687700 18020 net.cpp:157] Top shape: 1024 100 42 42 (180633600)
I0414 08:40:42.687705 18020 net.cpp:165] Memory required for data: 750862336
I0414 08:40:42.687731 18020 layer_factory.hpp:77] Creating layer conv1_relu
I0414 08:40:42.687744 18020 net.cpp:100] Creating Layer conv1_relu
I0414 08:40:42.687749 18020 net.cpp:434] conv1_relu <- conv1
I0414 08:40:42.687757 18020 net.cpp:395] conv1_relu -> conv1 (in-place)
I0414 08:40:42.688021 18020 net.cpp:150] Setting up conv1_relu
I0414 08:40:42.688038 18020 net.cpp:157] Top shape: 1024 100 42 42 (180633600)
I0414 08:40:42.688043 18020 net.cpp:165] Memory required for data: 1473396736
I0414 08:40:42.688047 18020 layer_factory.hpp:77] Creating layer pool1
I0414 08:40:42.688060 18020 net.cpp:100] Creating Layer pool1
I0414 08:40:42.688063 18020 net.cpp:434] pool1 <- conv1
I0414 08:40:42.688071 18020 net.cpp:408] pool1 -> pool1
I0414 08:40:42.688143 18020 net.cpp:150] Setting up pool1
I0414 08:40:42.688153 18020 net.cpp:157] Top shape: 1024 100 21 21 (45158400)
I0414 08:40:42.688158 18020 net.cpp:165] Memory required for data: 1654030336
I0414 08:40:42.688161 18020 layer_factory.hpp:77] Creating layer conv2
I0414 08:40:42.688174 18020 net.cpp:100] Creating Layer conv2
I0414 08:40:42.688180 18020 net.cpp:434] conv2 <- pool1
I0414 08:40:42.688187 18020 net.cpp:408] conv2 -> conv2
I0414 08:40:42.702867 18020 net.cpp:150] Setting up conv2
I0414 08:40:42.702903 18020 net.cpp:157] Top shape: 1024 150 18 18 (49766400)
I0414 08:40:42.702910 18020 net.cpp:165] Memory required for data: 1853095936
I0414 08:40:42.702929 18020 layer_factory.hpp:77] Creating layer conv2_relu
I0414 08:40:42.702942 18020 net.cpp:100] Creating Layer conv2_relu
I0414 08:40:42.702955 18020 net.cpp:434] conv2_relu <- conv2
I0414 08:40:42.702966 18020 net.cpp:395] conv2_relu -> conv2 (in-place)
I0414 08:40:42.710201 18020 net.cpp:150] Setting up conv2_relu
I0414 08:40:42.710228 18020 net.cpp:157] Top shape: 1024 150 18 18 (49766400)
I0414 08:40:42.710234 18020 net.cpp:165] Memory required for data: 2052161536
I0414 08:40:42.710239 18020 layer_factory.hpp:77] Creating layer pool2
I0414 08:40:42.710252 18020 net.cpp:100] Creating Layer pool2
I0414 08:40:42.710258 18020 net.cpp:434] pool2 <- conv2
I0414 08:40:42.710269 18020 net.cpp:408] pool2 -> pool2
I0414 08:40:42.710341 18020 net.cpp:150] Setting up pool2
I0414 08:40:42.710355 18020 net.cpp:157] Top shape: 1024 150 9 9 (12441600)
I0414 08:40:42.710362 18020 net.cpp:165] Memory required for data: 2101927936
I0414 08:40:42.710366 18020 layer_factory.hpp:77] Creating layer conv3
I0414 08:40:42.710383 18020 net.cpp:100] Creating Layer conv3
I0414 08:40:42.710391 18020 net.cpp:434] conv3 <- pool2
I0414 08:40:42.710423 18020 net.cpp:408] conv3 -> conv3
I0414 08:40:42.719763 18020 net.cpp:150] Setting up conv3
I0414 08:40:42.719789 18020 net.cpp:157] Top shape: 1024 250 6 6 (9216000)
I0414 08:40:42.719794 18020 net.cpp:165] Memory required for data: 2138791936
I0414 08:40:42.719808 18020 layer_factory.hpp:77] Creating layer conv3_relu
I0414 08:40:42.719822 18020 net.cpp:100] Creating Layer conv3_relu
I0414 08:40:42.719828 18020 net.cpp:434] conv3_relu <- conv3
I0414 08:40:42.719836 18020 net.cpp:395] conv3_relu -> conv3 (in-place)
I0414 08:40:42.732627 18020 net.cpp:150] Setting up conv3_relu
I0414 08:40:42.732653 18020 net.cpp:157] Top shape: 1024 250 6 6 (9216000)
I0414 08:40:42.732659 18020 net.cpp:165] Memory required for data: 2175655936
I0414 08:40:42.732666 18020 layer_factory.hpp:77] Creating layer pool3
I0414 08:40:42.732676 18020 net.cpp:100] Creating Layer pool3
I0414 08:40:42.732682 18020 net.cpp:434] pool3 <- conv3
I0414 08:40:42.732693 18020 net.cpp:408] pool3 -> pool3
I0414 08:40:42.732770 18020 net.cpp:150] Setting up pool3
I0414 08:40:42.732782 18020 net.cpp:157] Top shape: 1024 250 3 3 (2304000)
I0414 08:40:42.732789 18020 net.cpp:165] Memory required for data: 2184871936
I0414 08:40:42.732794 18020 layer_factory.hpp:77] Creating layer fc4_300
I0414 08:40:42.732805 18020 net.cpp:100] Creating Layer fc4_300
I0414 08:40:42.732815 18020 net.cpp:434] fc4_300 <- pool3
I0414 08:40:42.732822 18020 net.cpp:408] fc4_300 -> fc4_300
I0414 08:40:42.741909 18020 net.cpp:150] Setting up fc4_300
I0414 08:40:42.741935 18020 net.cpp:157] Top shape: 1024 300 (307200)
I0414 08:40:42.741940 18020 net.cpp:165] Memory required for data: 2186100736
I0414 08:40:42.741951 18020 layer_factory.hpp:77] Creating layer fc4_relu
I0414 08:40:42.741963 18020 net.cpp:100] Creating Layer fc4_relu
I0414 08:40:42.741969 18020 net.cpp:434] fc4_relu <- fc4_300
I0414 08:40:42.741977 18020 net.cpp:395] fc4_relu -> fc4_300 (in-place)
I0414 08:40:42.742267 18020 net.cpp:150] Setting up fc4_relu
I0414 08:40:42.742283 18020 net.cpp:157] Top shape: 1024 300 (307200)
I0414 08:40:42.742290 18020 net.cpp:165] Memory required for data: 2187329536
I0414 08:40:42.742295 18020 layer_factory.hpp:77] Creating layer fc5_67
I0414 08:40:42.742308 18020 net.cpp:100] Creating Layer fc5_67
I0414 08:40:42.742316 18020 net.cpp:434] fc5_67 <- fc4_300
I0414 08:40:42.742324 18020 net.cpp:408] fc5_67 -> fc5_classes
I0414 08:40:42.753242 18020 net.cpp:150] Setting up fc5_67
I0414 08:40:42.753264 18020 net.cpp:157] Top shape: 1024 67 (68608)
I0414 08:40:42.753269 18020 net.cpp:165] Memory required for data: 2187603968
I0414 08:40:42.753283 18020 layer_factory.hpp:77] Creating layer fc5_classes_fc5_67_0_split
I0414 08:40:42.753296 18020 net.cpp:100] Creating Layer fc5_classes_fc5_67_0_split
I0414 08:40:42.753303 18020 net.cpp:434] fc5_classes_fc5_67_0_split <- fc5_classes
I0414 08:40:42.753312 18020 net.cpp:408] fc5_classes_fc5_67_0_split -> fc5_classes_fc5_67_0_split_0
I0414 08:40:42.753327 18020 net.cpp:408] fc5_classes_fc5_67_0_split -> fc5_classes_fc5_67_0_split_1
I0414 08:40:42.753338 18020 net.cpp:408] fc5_classes_fc5_67_0_split -> fc5_classes_fc5_67_0_split_2
I0414 08:40:42.753417 18020 net.cpp:150] Setting up fc5_classes_fc5_67_0_split
I0414 08:40:42.753427 18020 net.cpp:157] Top shape: 1024 67 (68608)
I0414 08:40:42.753432 18020 net.cpp:157] Top shape: 1024 67 (68608)
I0414 08:40:42.753439 18020 net.cpp:157] Top shape: 1024 67 (68608)
I0414 08:40:42.753443 18020 net.cpp:165] Memory required for data: 2188427264
I0414 08:40:42.753448 18020 layer_factory.hpp:77] Creating layer softmax
I0414 08:40:42.753458 18020 net.cpp:100] Creating Layer softmax
I0414 08:40:42.753464 18020 net.cpp:434] softmax <- fc5_classes_fc5_67_0_split_0
I0414 08:40:42.753471 18020 net.cpp:408] softmax -> softmax
I0414 08:40:42.753844 18020 net.cpp:150] Setting up softmax
I0414 08:40:42.753861 18020 net.cpp:157] Top shape: 1024 67 (68608)
I0414 08:40:42.753865 18020 net.cpp:165] Memory required for data: 2188701696
I0414 08:40:42.753870 18020 layer_factory.hpp:77] Creating layer loss
I0414 08:40:42.753885 18020 net.cpp:100] Creating Layer loss
I0414 08:40:42.753908 18020 net.cpp:434] loss <- softmax
I0414 08:40:42.753918 18020 net.cpp:434] loss <- label_data_1_split_0
I0414 08:40:42.753927 18020 net.cpp:408] loss -> loss
…
