…
I0508 03:17:36.848017   440 solver.cpp:93] Creating training net from train_net file: ./Prototxt/experiment_16/RTSD/CoNorm/trial_5/train.prototxt
I0508 03:17:36.848563   440 net.cpp:58] Initializing net from parameters: 
state {
  phase: TRAIN
  level: 0
  stage: ""
}
layer {
  name: "data"
  type: "Data"
  top: "data"
  top: "label"
  include {
    phase: TRAIN
  }
  transform_param {
    scale: 0.0039215689
    mirror: false
    crop_size: 48
    mean_value: 135
    mean_value: 135
    mean_value: 134
  }
  data_param {
    source: "../local_data/lmdb/RTSD/CoNorm/train/lmdb"
    batch_size: 1024
    backend: LMDB
  }
}
layer {
  name: "conv1"
  type: "Convolution"
  bottom: "data"
  top: "conv1"
  convolution_param {
    num_output: 100
    pad: 0
    kernel_size: 7
    group: 1
    stride: 1
    weight_filler {
      type: "xavier"
    }
  }
}
layer {
  name: "conv1_relu"
  type: "ReLU"
  bottom: "conv1"
  top: "conv1"
}
layer {
  name: "pool1"
  type: "Pooling"
  bottom: "conv1"
  top: "pool1"
  pooling_param {
    pool: MAX
    kernel_size: 2
    stride: 2
  }
}
layer {
  name: "conv2"
  type: "Convolution"
  bottom: "pool1"
  top: "conv2"
  convolution_param {
    num_output: 150
    pad: 0
    kernel_size: 4
    group: 2
    stride: 1
    weight_filler {
      type: "xavier"
    }
  }
}
layer {
  name: "conv2_relu"
  type: "ReLU"
  bottom: "conv2"
  top: "conv2"
}
layer {
  name: "pool2"
  type: "Pooling"
  bottom: "conv2"
  top: "pool2"
  pooling_param {
    pool: MAX
    kernel_size: 2
    stride: 2
  }
}
layer {
  name: "conv3"
  type: "Convolution"
  bottom: "pool2"
  top: "conv3"
  convolution_param {
    num_output: 250
    pad: 0
    kernel_size: 4
    group: 2
    stride: 1
    weight_filler {
      type: "xavier"
    }
  }
}
layer {
  name: "conv3_relu"
  type: "ReLU"
  bottom: "conv3"
  top: "conv3"
}
layer {
  name: "pool3"
  type: "Pooling"
  bottom: "conv3"
  top: "pool3"
  pooling_param {
    pool: MAX
    kernel_size: 2
    stride: 2
  }
}
layer {
  name: "fc4_300"
  type: "InnerProduct"
  bottom: "pool3"
  top: "fc4_300"
  inner_product_param {
    num_output: 300
    weight_filler {
      type: "xavier"
    }
  }
}
layer {
  name: "fc4_relu"
  type: "ReLU"
  bottom: "fc4_300"
  top: "fc4_300"
}
layer {
  name: "fc5_116"
  type: "InnerProduct"
  bottom: "fc4_300"
  top: "fc5_classes"
  inner_product_param {
    num_output: 116
    weight_filler {
      type: "xavier"
    }
  }
}
layer {
  name: "softmax"
  type: "Softmax"
  bottom: "fc5_classes"
  top: "softmax"
}
layer {
  name: "loss"
  type: "MultinomialLogisticLoss"
  bottom: "softmax"
  bottom: "label"
  top: "loss"
}
layer {
  name: "accuracy_1"
  type: "Accuracy"
  bottom: "fc5_classes"
  bottom: "label"
  top: "accuracy_1"
  accuracy_param {
    top_k: 1
  }
}
layer {
  name: "accuracy_5"
  type: "Accuracy"
  bottom: "fc5_classes"
  bottom: "label"
  top: "accuracy_5"
  accuracy_param {
    top_k: 5
  }
}
layer {
  name: "silence"
  type: "Silence"
  bottom: "accuracy_1"
  bottom: "accuracy_5"
}
I0508 03:17:36.848749   440 layer_factory.hpp:77] Creating layer data
I0508 03:17:36.850500   440 net.cpp:100] Creating Layer data
I0508 03:17:36.850523   440 net.cpp:408] data -> data
I0508 03:17:36.850559   440 net.cpp:408] data -> label
I0508 03:17:36.851974   558 db_lmdb.cpp:35] Opened lmdb ../local_data/lmdb/RTSD/CoNorm/train/lmdb
I0508 03:17:36.879475   440 data_layer.cpp:41] output data size: 1024,3,48,48
I0508 03:17:36.955945   440 net.cpp:150] Setting up data
I0508 03:17:36.956004   440 net.cpp:157] Top shape: 1024 3 48 48 (7077888)
I0508 03:17:36.956012   440 net.cpp:157] Top shape: 1024 (1024)
I0508 03:17:36.956017   440 net.cpp:165] Memory required for data: 28315648
I0508 03:17:36.956028   440 layer_factory.hpp:77] Creating layer label_data_1_split
I0508 03:17:36.956045   440 net.cpp:100] Creating Layer label_data_1_split
I0508 03:17:36.956056   440 net.cpp:434] label_data_1_split <- label
I0508 03:17:36.956074   440 net.cpp:408] label_data_1_split -> label_data_1_split_0
I0508 03:17:36.956089   440 net.cpp:408] label_data_1_split -> label_data_1_split_1
I0508 03:17:36.956099   440 net.cpp:408] label_data_1_split -> label_data_1_split_2
I0508 03:17:36.956207   440 net.cpp:150] Setting up label_data_1_split
I0508 03:17:36.956218   440 net.cpp:157] Top shape: 1024 (1024)
I0508 03:17:36.956223   440 net.cpp:157] Top shape: 1024 (1024)
I0508 03:17:36.956228   440 net.cpp:157] Top shape: 1024 (1024)
I0508 03:17:36.956230   440 net.cpp:165] Memory required for data: 28327936
I0508 03:17:36.956235   440 layer_factory.hpp:77] Creating layer conv1
I0508 03:17:36.956254   440 net.cpp:100] Creating Layer conv1
I0508 03:17:36.956260   440 net.cpp:434] conv1 <- data
I0508 03:17:36.956269   440 net.cpp:408] conv1 -> conv1
I0508 03:17:37.377157   440 net.cpp:150] Setting up conv1
I0508 03:17:37.377184   440 net.cpp:157] Top shape: 1024 100 42 42 (180633600)
I0508 03:17:37.377188   440 net.cpp:165] Memory required for data: 750862336
I0508 03:17:37.377210   440 layer_factory.hpp:77] Creating layer conv1_relu
I0508 03:17:37.377221   440 net.cpp:100] Creating Layer conv1_relu
I0508 03:17:37.377225   440 net.cpp:434] conv1_relu <- conv1
I0508 03:17:37.377231   440 net.cpp:395] conv1_relu -> conv1 (in-place)
I0508 03:17:37.377429   440 net.cpp:150] Setting up conv1_relu
I0508 03:17:37.377440   440 net.cpp:157] Top shape: 1024 100 42 42 (180633600)
I0508 03:17:37.377444   440 net.cpp:165] Memory required for data: 1473396736
I0508 03:17:37.377447   440 layer_factory.hpp:77] Creating layer pool1
I0508 03:17:37.377457   440 net.cpp:100] Creating Layer pool1
I0508 03:17:37.377462   440 net.cpp:434] pool1 <- conv1
I0508 03:17:37.377468   440 net.cpp:408] pool1 -> pool1
I0508 03:17:37.377524   440 net.cpp:150] Setting up pool1
I0508 03:17:37.377533   440 net.cpp:157] Top shape: 1024 100 21 21 (45158400)
I0508 03:17:37.377537   440 net.cpp:165] Memory required for data: 1654030336
I0508 03:17:37.377539   440 layer_factory.hpp:77] Creating layer conv2
I0508 03:17:37.377550   440 net.cpp:100] Creating Layer conv2
I0508 03:17:37.377555   440 net.cpp:434] conv2 <- pool1
I0508 03:17:37.377560   440 net.cpp:408] conv2 -> conv2
I0508 03:17:37.388717   440 net.cpp:150] Setting up conv2
I0508 03:17:37.388734   440 net.cpp:157] Top shape: 1024 150 18 18 (49766400)
I0508 03:17:37.388738   440 net.cpp:165] Memory required for data: 1853095936
I0508 03:17:37.388748   440 layer_factory.hpp:77] Creating layer conv2_relu
I0508 03:17:37.388754   440 net.cpp:100] Creating Layer conv2_relu
I0508 03:17:37.388758   440 net.cpp:434] conv2_relu <- conv2
I0508 03:17:37.388763   440 net.cpp:395] conv2_relu -> conv2 (in-place)
I0508 03:17:37.388936   440 net.cpp:150] Setting up conv2_relu
I0508 03:17:37.388947   440 net.cpp:157] Top shape: 1024 150 18 18 (49766400)
I0508 03:17:37.388949   440 net.cpp:165] Memory required for data: 2052161536
I0508 03:17:37.388952   440 layer_factory.hpp:77] Creating layer pool2
I0508 03:17:37.388958   440 net.cpp:100] Creating Layer pool2
I0508 03:17:37.388962   440 net.cpp:434] pool2 <- conv2
I0508 03:17:37.388967   440 net.cpp:408] pool2 -> pool2
I0508 03:17:37.389010   440 net.cpp:150] Setting up pool2
I0508 03:17:37.389019   440 net.cpp:157] Top shape: 1024 150 9 9 (12441600)
I0508 03:17:37.389022   440 net.cpp:165] Memory required for data: 2101927936
I0508 03:17:37.389025   440 layer_factory.hpp:77] Creating layer conv3
I0508 03:17:37.389035   440 net.cpp:100] Creating Layer conv3
I0508 03:17:37.389039   440 net.cpp:434] conv3 <- pool2
I0508 03:17:37.389045   440 net.cpp:408] conv3 -> conv3
I0508 03:17:37.398602   440 net.cpp:150] Setting up conv3
I0508 03:17:37.398619   440 net.cpp:157] Top shape: 1024 250 6 6 (9216000)
I0508 03:17:37.398623   440 net.cpp:165] Memory required for data: 2138791936
I0508 03:17:37.398633   440 layer_factory.hpp:77] Creating layer conv3_relu
I0508 03:17:37.398639   440 net.cpp:100] Creating Layer conv3_relu
I0508 03:17:37.398643   440 net.cpp:434] conv3_relu <- conv3
I0508 03:17:37.398648   440 net.cpp:395] conv3_relu -> conv3 (in-place)
I0508 03:17:37.398823   440 net.cpp:150] Setting up conv3_relu
I0508 03:17:37.398834   440 net.cpp:157] Top shape: 1024 250 6 6 (9216000)
I0508 03:17:37.398838   440 net.cpp:165] Memory required for data: 2175655936
I0508 03:17:37.398841   440 layer_factory.hpp:77] Creating layer pool3
I0508 03:17:37.398847   440 net.cpp:100] Creating Layer pool3
I0508 03:17:37.398851   440 net.cpp:434] pool3 <- conv3
I0508 03:17:37.398856   440 net.cpp:408] pool3 -> pool3
I0508 03:17:37.398900   440 net.cpp:150] Setting up pool3
I0508 03:17:37.398908   440 net.cpp:157] Top shape: 1024 250 3 3 (2304000)
I0508 03:17:37.398911   440 net.cpp:165] Memory required for data: 2184871936
I0508 03:17:37.398914   440 layer_factory.hpp:77] Creating layer fc4_300
I0508 03:17:37.398921   440 net.cpp:100] Creating Layer fc4_300
I0508 03:17:37.398924   440 net.cpp:434] fc4_300 <- pool3
I0508 03:17:37.398929   440 net.cpp:408] fc4_300 -> fc4_300
I0508 03:17:37.407402   440 net.cpp:150] Setting up fc4_300
I0508 03:17:37.407420   440 net.cpp:157] Top shape: 1024 300 (307200)
I0508 03:17:37.407424   440 net.cpp:165] Memory required for data: 2186100736
I0508 03:17:37.407431   440 layer_factory.hpp:77] Creating layer fc4_relu
I0508 03:17:37.407438   440 net.cpp:100] Creating Layer fc4_relu
I0508 03:17:37.407443   440 net.cpp:434] fc4_relu <- fc4_300
I0508 03:17:37.407447   440 net.cpp:395] fc4_relu -> fc4_300 (in-place)
I0508 03:17:37.412142   440 net.cpp:150] Setting up fc4_relu
I0508 03:17:37.412159   440 net.cpp:157] Top shape: 1024 300 (307200)
I0508 03:17:37.412163   440 net.cpp:165] Memory required for data: 2187329536
I0508 03:17:37.412168   440 layer_factory.hpp:77] Creating layer fc5_116
I0508 03:17:37.412175   440 net.cpp:100] Creating Layer fc5_116
I0508 03:17:37.412179   440 net.cpp:434] fc5_116 <- fc4_300
I0508 03:17:37.412185   440 net.cpp:408] fc5_116 -> fc5_classes
I0508 03:17:37.416848   440 net.cpp:150] Setting up fc5_116
I0508 03:17:37.416867   440 net.cpp:157] Top shape: 1024 116 (118784)
I0508 03:17:37.416872   440 net.cpp:165] Memory required for data: 2187804672
I0508 03:17:37.416882   440 layer_factory.hpp:77] Creating layer fc5_classes_fc5_116_0_split
I0508 03:17:37.416890   440 net.cpp:100] Creating Layer fc5_classes_fc5_116_0_split
I0508 03:17:37.416894   440 net.cpp:434] fc5_classes_fc5_116_0_split <- fc5_classes
I0508 03:17:37.416900   440 net.cpp:408] fc5_classes_fc5_116_0_split -> fc5_classes_fc5_116_0_split_0
I0508 03:17:37.416909   440 net.cpp:408] fc5_classes_fc5_116_0_split -> fc5_classes_fc5_116_0_split_1
I0508 03:17:37.416918   440 net.cpp:408] fc5_classes_fc5_116_0_split -> fc5_classes_fc5_116_0_split_2
I0508 03:17:37.416977   440 net.cpp:150] Setting up fc5_classes_fc5_116_0_split
I0508 03:17:37.416985   440 net.cpp:157] Top shape: 1024 116 (118784)
I0508 03:17:37.416990   440 net.cpp:157] Top shape: 1024 116 (118784)
I0508 03:17:37.416993   440 net.cpp:157] Top shape: 1024 116 (118784)
I0508 03:17:37.416996   440 net.cpp:165] Memory required for data: 2189230080
I0508 03:17:37.416999   440 layer_factory.hpp:77] Creating layer softmax
I0508 03:17:37.417006   440 net.cpp:100] Creating Layer softmax
I0508 03:17:37.417009   440 net.cpp:434] softmax <- fc5_classes_fc5_116_0_split_0
I0508 03:17:37.417016   440 net.cpp:408] softmax -> softmax
I0508 03:17:37.417256   440 net.cpp:150] Setting up softmax
I0508 03:17:37.417269   440 net.cpp:157] Top shape: 1024 116 (118784)
I0508 03:17:37.417273   440 net.cpp:165] Memory required for data: 2189705216
I0508 03:17:37.417276   440 layer_factory.hpp:77] Creating layer loss
I0508 03:17:37.417300   440 net.cpp:100] Creating Layer loss
I0508 03:17:37.417304   440 net.cpp:434] loss <- softmax
I0508 03:17:37.417309   440 net.cpp:434] loss <- label_data_1_split_0
I0508 03:17:37.417315   440 net.cpp:408] loss -> loss
…
