…
I0417 18:11:47.418180  1968 solver.cpp:93] Creating training net from train_net file: ./Prototxt/experiment_11/rtsd-r1/AHE/trial_1/train.prototxt
I0417 18:11:47.418931  1968 net.cpp:58] Initializing net from parameters: 
state {
  phase: TRAIN
  level: 0
  stage: ""
}
layer {
  name: "data"
  type: "Data"
  top: "data"
  top: "label"
  include {
    phase: TRAIN
  }
  transform_param {
    scale: 0.0039215689
    mirror: false
    crop_size: 48
    mean_value: 132
    mean_value: 126
    mean_value: 140
  }
  data_param {
    source: "../local_data/lmdb/rtsd-r1/AHE/train/lmdb"
    batch_size: 1024
    backend: LMDB
  }
}
layer {
  name: "conv1"
  type: "Convolution"
  bottom: "data"
  top: "conv1"
  convolution_param {
    num_output: 100
    pad: 0
    kernel_size: 7
    group: 1
    stride: 1
    weight_filler {
      type: "xavier"
    }
  }
}
layer {
  name: "conv1_prescale"
  type: "Scale"
  bottom: "conv1"
  top: "conv1"
  param {
    lr_mult: 0
    decay_mult: 0
  }
  scale_param {
    filler {
      value: 0.6666
    }
    bias_term: false
  }
}
layer {
  name: "conv1_sTanH"
  type: "TanH"
  bottom: "conv1"
  top: "conv1"
}
layer {
  name: "conv1_postscale"
  type: "Scale"
  bottom: "conv1"
  top: "conv1"
  param {
    lr_mult: 0
    decay_mult: 0
  }
  scale_param {
    filler {
      value: 1.7159
    }
    bias_term: false
  }
}
layer {
  name: "pool1"
  type: "Pooling"
  bottom: "conv1"
  top: "pool1"
  pooling_param {
    pool: MAX
    kernel_size: 2
    stride: 2
  }
}
layer {
  name: "conv2"
  type: "Convolution"
  bottom: "pool1"
  top: "conv2"
  convolution_param {
    num_output: 150
    pad: 0
    kernel_size: 4
    group: 1
    stride: 1
    weight_filler {
      type: "xavier"
    }
  }
}
layer {
  name: "conv2_prescale"
  type: "Scale"
  bottom: "conv2"
  top: "conv2"
  param {
    lr_mult: 0
    decay_mult: 0
  }
  scale_param {
    filler {
      value: 0.6666
    }
    bias_term: false
  }
}
layer {
  name: "conv2_sTanH"
  type: "TanH"
  bottom: "conv2"
  top: "conv2"
}
layer {
  name: "conv2_postscale"
  type: "Scale"
  bottom: "conv2"
  top: "conv2"
  param {
    lr_mult: 0
    decay_mult: 0
  }
  scale_param {
    filler {
      value: 1.7159
    }
    bias_term: false
  }
}
layer {
  name: "pool2"
  type: "Pooling"
  bottom: "conv2"
  top: "pool2"
  pooling_param {
    pool: MAX
    kernel_size: 2
    stride: 2
  }
}
layer {
  name: "conv3"
  type: "Convolution"
  bottom: "pool2"
  top: "conv3"
  convolution_param {
    num_output: 250
    pad: 0
    kernel_size: 4
    group: 1
    stride: 1
    weight_filler {
      type: "xavier"
    }
  }
}
layer {
  name: "conv3_prescale"
  type: "Scale"
  bottom: "conv3"
  top: "conv3"
  param {
    lr_mult: 0
    decay_mult: 0
  }
  scale_param {
    filler {
      value: 0.6666
    }
    bias_term: false
  }
}
layer {
  name: "conv3_sTanH"
  type: "TanH"
  bottom: "conv3"
  top: "conv3"
}
layer {
  name: "conv3_postscale"
  type: "Scale"
  bottom: "conv3"
  top: "conv3"
  param {
    lr_mult: 0
    decay_mult: 0
  }
  scale_param {
    filler {
      value: 1.7159
    }
    bias_term: false
  }
}
layer {
  name: "pool3"
  type: "Pooling"
  bottom: "conv3"
  top: "pool3"
  pooling_param {
    pool: MAX
    kernel_size: 2
    stride: 2
  }
}
layer {
  name: "fc4_300"
  type: "InnerProduct"
  bottom: "pool3"
  top: "fc4_300"
  inner_product_param {
    num_output: 300
    weight_filler {
      type: "xavier"
    }
  }
}
layer {
  name: "fc4_prescale"
  type: "Scale"
  bottom: "fc4_300"
  top: "fc4_300"
  param {
    lr_mult: 0
    decay_mult: 0
  }
  scale_param {
    filler {
      value: 0.6666
    }
    bias_term: false
  }
}
layer {
  name: "fc4_sTanH"
  type: "TanH"
  bottom: "fc4_300"
  top: "fc4_300"
}
layer {
  name: "fc4_postscale"
  type: "Scale"
  bottom: "fc4_300"
  top: "fc4_300"
  param {
    lr_mult: 0
    decay_mult: 0
  }
  scale_param {
    filler {
      value: 1.7159
    }
    bias_term: false
  }
}
layer {
  name: "fc5_67"
  type: "InnerProduct"
  bottom: "fc4_300"
  top: "fc5_classes"
  inner_product_param {
    num_output: 67
    weight_filler {
      type: "xavier"
    }
  }
}
layer {
  name: "softmax"
  type: "Softmax"
  bottom: "fc5_classes"
  top: "softmax"
}
layer {
  name: "loss"
  type: "MultinomialLogisticLoss"
  bottom: "softmax"
  bottom: "label"
  top: "loss"
}
layer {
  name: "accuracy_1"
  type: "Accuracy"
  bottom: "fc5_classes"
  bottom: "label"
  top: "accuracy_1"
  accuracy_param {
    top_k: 1
  }
}
layer {
  name: "accuracy_5"
  type: "Accuracy"
  bottom: "fc5_classes"
  bottom: "label"
  top: "accuracy_5"
  accuracy_param {
    top_k: 5
  }
}
layer {
  name: "silence"
  type: "Silence"
  bottom: "accuracy_1"
  bottom: "accuracy_5"
}
I0417 18:11:47.419157  1968 layer_factory.hpp:77] Creating layer data
I0417 18:11:47.420833  1968 net.cpp:100] Creating Layer data
I0417 18:11:47.420855  1968 net.cpp:408] data -> data
I0417 18:11:47.420884  1968 net.cpp:408] data -> label
I0417 18:11:47.471591  2082 db_lmdb.cpp:35] Opened lmdb ../local_data/lmdb/rtsd-r1/AHE/train/lmdb
I0417 18:11:47.513276  1968 data_layer.cpp:41] output data size: 1024,3,48,48
I0417 18:11:47.578438  1968 net.cpp:150] Setting up data
I0417 18:11:47.578469  1968 net.cpp:157] Top shape: 1024 3 48 48 (7077888)
I0417 18:11:47.578475  1968 net.cpp:157] Top shape: 1024 (1024)
I0417 18:11:47.578480  1968 net.cpp:165] Memory required for data: 28315648
I0417 18:11:47.578490  1968 layer_factory.hpp:77] Creating layer label_data_1_split
I0417 18:11:47.578505  1968 net.cpp:100] Creating Layer label_data_1_split
I0417 18:11:47.578516  1968 net.cpp:434] label_data_1_split <- label
I0417 18:11:47.578528  1968 net.cpp:408] label_data_1_split -> label_data_1_split_0
I0417 18:11:47.578542  1968 net.cpp:408] label_data_1_split -> label_data_1_split_1
I0417 18:11:47.578554  1968 net.cpp:408] label_data_1_split -> label_data_1_split_2
I0417 18:11:47.578704  1968 net.cpp:150] Setting up label_data_1_split
I0417 18:11:47.578716  1968 net.cpp:157] Top shape: 1024 (1024)
I0417 18:11:47.578719  1968 net.cpp:157] Top shape: 1024 (1024)
I0417 18:11:47.578723  1968 net.cpp:157] Top shape: 1024 (1024)
I0417 18:11:47.578727  1968 net.cpp:165] Memory required for data: 28327936
I0417 18:11:47.578730  1968 layer_factory.hpp:77] Creating layer conv1
I0417 18:11:47.578750  1968 net.cpp:100] Creating Layer conv1
I0417 18:11:47.578757  1968 net.cpp:434] conv1 <- data
I0417 18:11:47.578764  1968 net.cpp:408] conv1 -> conv1
I0417 18:11:47.650992  2098 blocking_queue.cpp:50] Waiting for data
I0417 18:11:47.997925  1968 net.cpp:150] Setting up conv1
I0417 18:11:47.997966  1968 net.cpp:157] Top shape: 1024 100 42 42 (180633600)
I0417 18:11:47.997969  1968 net.cpp:165] Memory required for data: 750862336
I0417 18:11:47.997992  1968 layer_factory.hpp:77] Creating layer conv1_prescale
I0417 18:11:47.998005  1968 net.cpp:100] Creating Layer conv1_prescale
I0417 18:11:47.998011  1968 net.cpp:434] conv1_prescale <- conv1
I0417 18:11:47.998018  1968 net.cpp:395] conv1_prescale -> conv1 (in-place)
I0417 18:11:47.998126  1968 net.cpp:150] Setting up conv1_prescale
I0417 18:11:47.998136  1968 net.cpp:157] Top shape: 1024 100 42 42 (180633600)
I0417 18:11:47.998138  1968 net.cpp:165] Memory required for data: 1473396736
I0417 18:11:47.998144  1968 layer_factory.hpp:77] Creating layer conv1_sTanH
I0417 18:11:47.998153  1968 net.cpp:100] Creating Layer conv1_sTanH
I0417 18:11:47.998158  1968 net.cpp:434] conv1_sTanH <- conv1
I0417 18:11:47.998163  1968 net.cpp:395] conv1_sTanH -> conv1 (in-place)
I0417 18:11:47.998354  1968 net.cpp:150] Setting up conv1_sTanH
I0417 18:11:47.998389  1968 net.cpp:157] Top shape: 1024 100 42 42 (180633600)
I0417 18:11:47.998394  1968 net.cpp:165] Memory required for data: 2195931136
I0417 18:11:47.998396  1968 layer_factory.hpp:77] Creating layer conv1_postscale
I0417 18:11:47.998404  1968 net.cpp:100] Creating Layer conv1_postscale
I0417 18:11:47.998409  1968 net.cpp:434] conv1_postscale <- conv1
I0417 18:11:47.998414  1968 net.cpp:395] conv1_postscale -> conv1 (in-place)
I0417 18:11:47.998509  1968 net.cpp:150] Setting up conv1_postscale
I0417 18:11:47.998518  1968 net.cpp:157] Top shape: 1024 100 42 42 (180633600)
I0417 18:11:47.998520  1968 net.cpp:165] Memory required for data: 2918465536
I0417 18:11:47.998525  1968 layer_factory.hpp:77] Creating layer pool1
I0417 18:11:47.998533  1968 net.cpp:100] Creating Layer pool1
I0417 18:11:47.998538  1968 net.cpp:434] pool1 <- conv1
I0417 18:11:47.998543  1968 net.cpp:408] pool1 -> pool1
I0417 18:11:47.998589  1968 net.cpp:150] Setting up pool1
I0417 18:11:47.998597  1968 net.cpp:157] Top shape: 1024 100 21 21 (45158400)
I0417 18:11:47.998600  1968 net.cpp:165] Memory required for data: 3099099136
I0417 18:11:47.998603  1968 layer_factory.hpp:77] Creating layer conv2
I0417 18:11:47.998613  1968 net.cpp:100] Creating Layer conv2
I0417 18:11:47.998617  1968 net.cpp:434] conv2 <- pool1
I0417 18:11:47.998622  1968 net.cpp:408] conv2 -> conv2
I0417 18:11:48.012491  1968 net.cpp:150] Setting up conv2
I0417 18:11:48.012511  1968 net.cpp:157] Top shape: 1024 150 18 18 (49766400)
I0417 18:11:48.012513  1968 net.cpp:165] Memory required for data: 3298164736
I0417 18:11:48.012524  1968 layer_factory.hpp:77] Creating layer conv2_prescale
I0417 18:11:48.012536  1968 net.cpp:100] Creating Layer conv2_prescale
I0417 18:11:48.012539  1968 net.cpp:434] conv2_prescale <- conv2
I0417 18:11:48.012545  1968 net.cpp:395] conv2_prescale -> conv2 (in-place)
I0417 18:11:48.012663  1968 net.cpp:150] Setting up conv2_prescale
I0417 18:11:48.012673  1968 net.cpp:157] Top shape: 1024 150 18 18 (49766400)
I0417 18:11:48.012677  1968 net.cpp:165] Memory required for data: 3497230336
I0417 18:11:48.012682  1968 layer_factory.hpp:77] Creating layer conv2_sTanH
I0417 18:11:48.012691  1968 net.cpp:100] Creating Layer conv2_sTanH
I0417 18:11:48.012694  1968 net.cpp:434] conv2_sTanH <- conv2
I0417 18:11:48.012699  1968 net.cpp:395] conv2_sTanH -> conv2 (in-place)
I0417 18:11:48.016517  1968 net.cpp:150] Setting up conv2_sTanH
I0417 18:11:48.016535  1968 net.cpp:157] Top shape: 1024 150 18 18 (49766400)
I0417 18:11:48.016538  1968 net.cpp:165] Memory required for data: 3696295936
I0417 18:11:48.016542  1968 layer_factory.hpp:77] Creating layer conv2_postscale
I0417 18:11:48.016551  1968 net.cpp:100] Creating Layer conv2_postscale
I0417 18:11:48.016553  1968 net.cpp:434] conv2_postscale <- conv2
I0417 18:11:48.016561  1968 net.cpp:395] conv2_postscale -> conv2 (in-place)
I0417 18:11:48.016662  1968 net.cpp:150] Setting up conv2_postscale
I0417 18:11:48.016674  1968 net.cpp:157] Top shape: 1024 150 18 18 (49766400)
I0417 18:11:48.016676  1968 net.cpp:165] Memory required for data: 3895361536
I0417 18:11:48.016681  1968 layer_factory.hpp:77] Creating layer pool2
I0417 18:11:48.016690  1968 net.cpp:100] Creating Layer pool2
I0417 18:11:48.016693  1968 net.cpp:434] pool2 <- conv2
I0417 18:11:48.016700  1968 net.cpp:408] pool2 -> pool2
I0417 18:11:48.016744  1968 net.cpp:150] Setting up pool2
I0417 18:11:48.016752  1968 net.cpp:157] Top shape: 1024 150 9 9 (12441600)
I0417 18:11:48.016755  1968 net.cpp:165] Memory required for data: 3945127936
I0417 18:11:48.016758  1968 layer_factory.hpp:77] Creating layer conv3
I0417 18:11:48.016768  1968 net.cpp:100] Creating Layer conv3
I0417 18:11:48.016773  1968 net.cpp:434] conv3 <- pool2
I0417 18:11:48.016779  1968 net.cpp:408] conv3 -> conv3
I0417 18:11:48.022418  1968 net.cpp:150] Setting up conv3
I0417 18:11:48.022434  1968 net.cpp:157] Top shape: 1024 250 6 6 (9216000)
I0417 18:11:48.022439  1968 net.cpp:165] Memory required for data: 3981991936
I0417 18:11:48.022454  1968 layer_factory.hpp:77] Creating layer conv3_prescale
I0417 18:11:48.022480  1968 net.cpp:100] Creating Layer conv3_prescale
I0417 18:11:48.022485  1968 net.cpp:434] conv3_prescale <- conv3
I0417 18:11:48.022491  1968 net.cpp:395] conv3_prescale -> conv3 (in-place)
I0417 18:11:48.022591  1968 net.cpp:150] Setting up conv3_prescale
I0417 18:11:48.022600  1968 net.cpp:157] Top shape: 1024 250 6 6 (9216000)
I0417 18:11:48.022604  1968 net.cpp:165] Memory required for data: 4018855936
I0417 18:11:48.022609  1968 layer_factory.hpp:77] Creating layer conv3_sTanH
I0417 18:11:48.022616  1968 net.cpp:100] Creating Layer conv3_sTanH
I0417 18:11:48.022620  1968 net.cpp:434] conv3_sTanH <- conv3
I0417 18:11:48.022625  1968 net.cpp:395] conv3_sTanH -> conv3 (in-place)
I0417 18:11:48.023540  1968 net.cpp:150] Setting up conv3_sTanH
I0417 18:11:48.023556  1968 net.cpp:157] Top shape: 1024 250 6 6 (9216000)
I0417 18:11:48.023560  1968 net.cpp:165] Memory required for data: 4055719936
I0417 18:11:48.023562  1968 layer_factory.hpp:77] Creating layer conv3_postscale
I0417 18:11:48.023573  1968 net.cpp:100] Creating Layer conv3_postscale
I0417 18:11:48.023577  1968 net.cpp:434] conv3_postscale <- conv3
I0417 18:11:48.023584  1968 net.cpp:395] conv3_postscale -> conv3 (in-place)
I0417 18:11:48.023685  1968 net.cpp:150] Setting up conv3_postscale
I0417 18:11:48.023694  1968 net.cpp:157] Top shape: 1024 250 6 6 (9216000)
I0417 18:11:48.023696  1968 net.cpp:165] Memory required for data: 4092583936
I0417 18:11:48.023701  1968 layer_factory.hpp:77] Creating layer pool3
I0417 18:11:48.023713  1968 net.cpp:100] Creating Layer pool3
I0417 18:11:48.023717  1968 net.cpp:434] pool3 <- conv3
I0417 18:11:48.023722  1968 net.cpp:408] pool3 -> pool3
I0417 18:11:48.023761  1968 net.cpp:150] Setting up pool3
I0417 18:11:48.023767  1968 net.cpp:157] Top shape: 1024 250 3 3 (2304000)
I0417 18:11:48.023771  1968 net.cpp:165] Memory required for data: 4101799936
I0417 18:11:48.023773  1968 layer_factory.hpp:77] Creating layer fc4_300
I0417 18:11:48.023782  1968 net.cpp:100] Creating Layer fc4_300
I0417 18:11:48.023787  1968 net.cpp:434] fc4_300 <- pool3
I0417 18:11:48.023790  1968 net.cpp:408] fc4_300 -> fc4_300
I0417 18:11:48.029264  1968 net.cpp:150] Setting up fc4_300
I0417 18:11:48.029280  1968 net.cpp:157] Top shape: 1024 300 (307200)
I0417 18:11:48.029284  1968 net.cpp:165] Memory required for data: 4103028736
I0417 18:11:48.029290  1968 layer_factory.hpp:77] Creating layer fc4_prescale
I0417 18:11:48.029299  1968 net.cpp:100] Creating Layer fc4_prescale
I0417 18:11:48.029304  1968 net.cpp:434] fc4_prescale <- fc4_300
I0417 18:11:48.029309  1968 net.cpp:395] fc4_prescale -> fc4_300 (in-place)
I0417 18:11:48.029400  1968 net.cpp:150] Setting up fc4_prescale
I0417 18:11:48.029409  1968 net.cpp:157] Top shape: 1024 300 (307200)
I0417 18:11:48.029412  1968 net.cpp:165] Memory required for data: 4104257536
I0417 18:11:48.029422  1968 layer_factory.hpp:77] Creating layer fc4_sTanH
I0417 18:11:48.029428  1968 net.cpp:100] Creating Layer fc4_sTanH
I0417 18:11:48.029431  1968 net.cpp:434] fc4_sTanH <- fc4_300
I0417 18:11:48.029436  1968 net.cpp:395] fc4_sTanH -> fc4_300 (in-place)
I0417 18:11:48.029642  1968 net.cpp:150] Setting up fc4_sTanH
I0417 18:11:48.029654  1968 net.cpp:157] Top shape: 1024 300 (307200)
I0417 18:11:48.029659  1968 net.cpp:165] Memory required for data: 4105486336
I0417 18:11:48.029661  1968 layer_factory.hpp:77] Creating layer fc4_postscale
I0417 18:11:48.029670  1968 net.cpp:100] Creating Layer fc4_postscale
I0417 18:11:48.029673  1968 net.cpp:434] fc4_postscale <- fc4_300
I0417 18:11:48.029678  1968 net.cpp:395] fc4_postscale -> fc4_300 (in-place)
I0417 18:11:48.029779  1968 net.cpp:150] Setting up fc4_postscale
I0417 18:11:48.029786  1968 net.cpp:157] Top shape: 1024 300 (307200)
I0417 18:11:48.029789  1968 net.cpp:165] Memory required for data: 4106715136
I0417 18:11:48.029794  1968 layer_factory.hpp:77] Creating layer fc5_67
I0417 18:11:48.029800  1968 net.cpp:100] Creating Layer fc5_67
I0417 18:11:48.029804  1968 net.cpp:434] fc5_67 <- fc4_300
I0417 18:11:48.029825  1968 net.cpp:408] fc5_67 -> fc5_classes
I0417 18:11:48.032429  1968 net.cpp:150] Setting up fc5_67
I0417 18:11:48.032444  1968 net.cpp:157] Top shape: 1024 67 (68608)
I0417 18:11:48.032447  1968 net.cpp:165] Memory required for data: 4106989568
I0417 18:11:48.032459  1968 layer_factory.hpp:77] Creating layer fc5_classes_fc5_67_0_split
I0417 18:11:48.032467  1968 net.cpp:100] Creating Layer fc5_classes_fc5_67_0_split
I0417 18:11:48.032470  1968 net.cpp:434] fc5_classes_fc5_67_0_split <- fc5_classes
I0417 18:11:48.032476  1968 net.cpp:408] fc5_classes_fc5_67_0_split -> fc5_classes_fc5_67_0_split_0
I0417 18:11:48.032485  1968 net.cpp:408] fc5_classes_fc5_67_0_split -> fc5_classes_fc5_67_0_split_1
I0417 18:11:48.032491  1968 net.cpp:408] fc5_classes_fc5_67_0_split -> fc5_classes_fc5_67_0_split_2
I0417 18:11:48.032546  1968 net.cpp:150] Setting up fc5_classes_fc5_67_0_split
I0417 18:11:48.032553  1968 net.cpp:157] Top shape: 1024 67 (68608)
I0417 18:11:48.032557  1968 net.cpp:157] Top shape: 1024 67 (68608)
I0417 18:11:48.032559  1968 net.cpp:157] Top shape: 1024 67 (68608)
I0417 18:11:48.032562  1968 net.cpp:165] Memory required for data: 4107812864
I0417 18:11:48.032565  1968 layer_factory.hpp:77] Creating layer softmax
I0417 18:11:48.032570  1968 net.cpp:100] Creating Layer softmax
I0417 18:11:48.032573  1968 net.cpp:434] softmax <- fc5_classes_fc5_67_0_split_0
I0417 18:11:48.032578  1968 net.cpp:408] softmax -> softmax
I0417 18:11:48.032838  1968 net.cpp:150] Setting up softmax
I0417 18:11:48.032851  1968 net.cpp:157] Top shape: 1024 67 (68608)
I0417 18:11:48.032855  1968 net.cpp:165] Memory required for data: 4108087296
I0417 18:11:48.032857  1968 layer_factory.hpp:77] Creating layer loss
I0417 18:11:48.032863  1968 net.cpp:100] Creating Layer loss
I0417 18:11:48.032866  1968 net.cpp:434] loss <- softmax
I0417 18:11:48.032871  1968 net.cpp:434] loss <- label_data_1_split_0
I0417 18:11:48.032876  1968 net.cpp:408] loss -> loss
…
