…
I0414 05:13:56.203810 16952 solver.cpp:93] Creating training net from train_net file: ./Prototxt/experiment_11/rtsd-r1/AHE/trial_1/train.prototxt
I0414 05:13:56.204300 16952 net.cpp:58] Initializing net from parameters: 
state {
  phase: TRAIN
  level: 0
  stage: ""
}
layer {
  name: "data"
  type: "Data"
  top: "data"
  top: "label"
  include {
    phase: TRAIN
  }
  transform_param {
    scale: 0.0039215689
    mirror: false
    crop_size: 48
    mean_value: 132
    mean_value: 126
    mean_value: 140
  }
  data_param {
    source: "../local_data/lmdb/rtsd-r1/AHE/train/lmdb"
    batch_size: 1024
    backend: LMDB
  }
}
layer {
  name: "conv1"
  type: "Convolution"
  bottom: "data"
  top: "conv1"
  convolution_param {
    num_output: 100
    pad: 0
    kernel_size: 7
    group: 1
    stride: 1
    weight_filler {
      type: "xavier"
    }
  }
}
layer {
  name: "conv1_prescale"
  type: "Scale"
  bottom: "conv1"
  top: "conv1"
  param {
    lr_mult: 0
    decay_mult: 0
  }
  scale_param {
    filler {
      value: 0.6666
    }
    bias_term: false
  }
}
layer {
  name: "conv1_sTanH"
  type: "TanH"
  bottom: "conv1"
  top: "conv1"
}
layer {
  name: "conv1_postscale"
  type: "Scale"
  bottom: "conv1"
  top: "conv1"
  param {
    lr_mult: 0
    decay_mult: 0
  }
  scale_param {
    filler {
      value: 1.7159
    }
    bias_term: false
  }
}
layer {
  name: "pool1"
  type: "Pooling"
  bottom: "conv1"
  top: "pool1"
  pooling_param {
    pool: MAX
    kernel_size: 2
    stride: 2
  }
}
layer {
  name: "conv2"
  type: "Convolution"
  bottom: "pool1"
  top: "conv2"
  convolution_param {
    num_output: 150
    pad: 0
    kernel_size: 4
    group: 1
    stride: 1
    weight_filler {
      type: "xavier"
    }
  }
}
layer {
  name: "conv2_prescale"
  type: "Scale"
  bottom: "conv2"
  top: "conv2"
  param {
    lr_mult: 0
    decay_mult: 0
  }
  scale_param {
    filler {
      value: 0.6666
    }
    bias_term: false
  }
}
layer {
  name: "conv2_sTanH"
  type: "TanH"
  bottom: "conv2"
  top: "conv2"
}
layer {
  name: "conv2_postscale"
  type: "Scale"
  bottom: "conv2"
  top: "conv2"
  param {
    lr_mult: 0
    decay_mult: 0
  }
  scale_param {
    filler {
      value: 1.7159
    }
    bias_term: false
  }
}
layer {
  name: "pool2"
  type: "Pooling"
  bottom: "conv2"
  top: "pool2"
  pooling_param {
    pool: MAX
    kernel_size: 2
    stride: 2
  }
}
layer {
  name: "conv3"
  type: "Convolution"
  bottom: "pool2"
  top: "conv3"
  convolution_param {
    num_output: 250
    pad: 0
    kernel_size: 4
    group: 1
    stride: 1
    weight_filler {
      type: "xavier"
    }
  }
}
layer {
  name: "conv3_prescale"
  type: "Scale"
  bottom: "conv3"
  top: "conv3"
  param {
    lr_mult: 0
    decay_mult: 0
  }
  scale_param {
    filler {
      value: 0.6666
    }
    bias_term: false
  }
}
layer {
  name: "conv3_sTanH"
  type: "TanH"
  bottom: "conv3"
  top: "conv3"
}
layer {
  name: "conv3_postscale"
  type: "Scale"
  bottom: "conv3"
  top: "conv3"
  param {
    lr_mult: 0
    decay_mult: 0
  }
  scale_param {
    filler {
      value: 1.7159
    }
    bias_term: false
  }
}
layer {
  name: "pool3"
  type: "Pooling"
  bottom: "conv3"
  top: "pool3"
  pooling_param {
    pool: MAX
    kernel_size: 2
    stride: 2
  }
}
layer {
  name: "fc4_300"
  type: "InnerProduct"
  bottom: "pool3"
  top: "fc4_300"
  inner_product_param {
    num_output: 300
    weight_filler {
      type: "xavier"
    }
  }
}
layer {
  name: "fc4_prescale"
  type: "Scale"
  bottom: "fc4_300"
  top: "fc4_300"
  param {
    lr_mult: 0
    decay_mult: 0
  }
  scale_param {
    filler {
      value: 0.6666
    }
    bias_term: false
  }
}
layer {
  name: "fc4_sTanH"
  type: "TanH"
  bottom: "fc4_300"
  top: "fc4_300"
}
layer {
  name: "fc4_postscale"
  type: "Scale"
  bottom: "fc4_300"
  top: "fc4_300"
  param {
    lr_mult: 0
    decay_mult: 0
  }
  scale_param {
    filler {
      value: 1.7159
    }
    bias_term: false
  }
}
layer {
  name: "fc5_67"
  type: "InnerProduct"
  bottom: "fc4_300"
  top: "fc5_classes"
  inner_product_param {
    num_output: 67
    weight_filler {
      type: "xavier"
    }
  }
}
layer {
  name: "softmax"
  type: "Softmax"
  bottom: "fc5_classes"
  top: "softmax"
}
layer {
  name: "loss"
  type: "MultinomialLogisticLoss"
  bottom: "softmax"
  bottom: "label"
  top: "loss"
}
layer {
  name: "accuracy_1"
  type: "Accuracy"
  bottom: "fc5_classes"
  bottom: "label"
  top: "accuracy_1"
  accuracy_param {
    top_k: 1
  }
}
layer {
  name: "accuracy_5"
  type: "Accuracy"
  bottom: "fc5_classes"
  bottom: "label"
  top: "accuracy_5"
  accuracy_param {
    top_k: 5
  }
}
layer {
  name: "silence"
  type: "Silence"
  bottom: "accuracy_1"
  bottom: "accuracy_5"
}
I0414 05:13:56.204457 16952 layer_factory.hpp:77] Creating layer data
I0414 05:13:56.205744 16952 net.cpp:100] Creating Layer data
I0414 05:13:56.205760 16952 net.cpp:408] data -> data
I0414 05:13:56.205781 16952 net.cpp:408] data -> label
I0414 05:13:56.240695 17055 db_lmdb.cpp:35] Opened lmdb ../local_data/lmdb/rtsd-r1/AHE/train/lmdb
I0414 05:13:56.300587 16952 data_layer.cpp:41] output data size: 1024,3,48,48
I0414 05:13:56.364589 16952 net.cpp:150] Setting up data
I0414 05:13:56.364617 16952 net.cpp:157] Top shape: 1024 3 48 48 (7077888)
I0414 05:13:56.364622 16952 net.cpp:157] Top shape: 1024 (1024)
I0414 05:13:56.364625 16952 net.cpp:165] Memory required for data: 28315648
I0414 05:13:56.364636 16952 layer_factory.hpp:77] Creating layer label_data_1_split
I0414 05:13:56.364650 16952 net.cpp:100] Creating Layer label_data_1_split
I0414 05:13:56.364658 16952 net.cpp:434] label_data_1_split <- label
I0414 05:13:56.364671 16952 net.cpp:408] label_data_1_split -> label_data_1_split_0
I0414 05:13:56.364691 16952 net.cpp:408] label_data_1_split -> label_data_1_split_1
I0414 05:13:56.364701 16952 net.cpp:408] label_data_1_split -> label_data_1_split_2
I0414 05:13:56.364789 16952 net.cpp:150] Setting up label_data_1_split
I0414 05:13:56.364799 16952 net.cpp:157] Top shape: 1024 (1024)
I0414 05:13:56.364801 16952 net.cpp:157] Top shape: 1024 (1024)
I0414 05:13:56.364805 16952 net.cpp:157] Top shape: 1024 (1024)
I0414 05:13:56.364809 16952 net.cpp:165] Memory required for data: 28327936
I0414 05:13:56.364811 16952 layer_factory.hpp:77] Creating layer conv1
I0414 05:13:56.364827 16952 net.cpp:100] Creating Layer conv1
I0414 05:13:56.364833 16952 net.cpp:434] conv1 <- data
I0414 05:13:56.364838 16952 net.cpp:408] conv1 -> conv1
I0414 05:13:56.438587 17071 blocking_queue.cpp:50] Waiting for data
I0414 05:13:56.835165 16952 net.cpp:150] Setting up conv1
I0414 05:13:56.835192 16952 net.cpp:157] Top shape: 1024 100 42 42 (180633600)
I0414 05:13:56.835197 16952 net.cpp:165] Memory required for data: 750862336
I0414 05:13:56.835222 16952 layer_factory.hpp:77] Creating layer conv1_prescale
I0414 05:13:56.835239 16952 net.cpp:100] Creating Layer conv1_prescale
I0414 05:13:56.835247 16952 net.cpp:434] conv1_prescale <- conv1
I0414 05:13:56.835254 16952 net.cpp:395] conv1_prescale -> conv1 (in-place)
I0414 05:13:56.835382 16952 net.cpp:150] Setting up conv1_prescale
I0414 05:13:56.835392 16952 net.cpp:157] Top shape: 1024 100 42 42 (180633600)
I0414 05:13:56.835397 16952 net.cpp:165] Memory required for data: 1473396736
I0414 05:13:56.835405 16952 layer_factory.hpp:77] Creating layer conv1_sTanH
I0414 05:13:56.835417 16952 net.cpp:100] Creating Layer conv1_sTanH
I0414 05:13:56.835422 16952 net.cpp:434] conv1_sTanH <- conv1
I0414 05:13:56.835427 16952 net.cpp:395] conv1_sTanH -> conv1 (in-place)
I0414 05:13:56.835664 16952 net.cpp:150] Setting up conv1_sTanH
I0414 05:13:56.835700 16952 net.cpp:157] Top shape: 1024 100 42 42 (180633600)
I0414 05:13:56.835705 16952 net.cpp:165] Memory required for data: 2195931136
I0414 05:13:56.835710 16952 layer_factory.hpp:77] Creating layer conv1_postscale
I0414 05:13:56.835717 16952 net.cpp:100] Creating Layer conv1_postscale
I0414 05:13:56.835723 16952 net.cpp:434] conv1_postscale <- conv1
I0414 05:13:56.835729 16952 net.cpp:395] conv1_postscale -> conv1 (in-place)
I0414 05:13:56.835849 16952 net.cpp:150] Setting up conv1_postscale
I0414 05:13:56.835858 16952 net.cpp:157] Top shape: 1024 100 42 42 (180633600)
I0414 05:13:56.835862 16952 net.cpp:165] Memory required for data: 2918465536
I0414 05:13:56.835870 16952 layer_factory.hpp:77] Creating layer pool1
I0414 05:13:56.835885 16952 net.cpp:100] Creating Layer pool1
I0414 05:13:56.835889 16952 net.cpp:434] pool1 <- conv1
I0414 05:13:56.835896 16952 net.cpp:408] pool1 -> pool1
I0414 05:13:56.835952 16952 net.cpp:150] Setting up pool1
I0414 05:13:56.835961 16952 net.cpp:157] Top shape: 1024 100 21 21 (45158400)
I0414 05:13:56.835966 16952 net.cpp:165] Memory required for data: 3099099136
I0414 05:13:56.835970 16952 layer_factory.hpp:77] Creating layer conv2
I0414 05:13:56.835981 16952 net.cpp:100] Creating Layer conv2
I0414 05:13:56.835988 16952 net.cpp:434] conv2 <- pool1
I0414 05:13:56.835994 16952 net.cpp:408] conv2 -> conv2
I0414 05:13:56.846920 16952 net.cpp:150] Setting up conv2
I0414 05:13:56.846941 16952 net.cpp:157] Top shape: 1024 150 18 18 (49766400)
I0414 05:13:56.846947 16952 net.cpp:165] Memory required for data: 3298164736
I0414 05:13:56.846961 16952 layer_factory.hpp:77] Creating layer conv2_prescale
I0414 05:13:56.846973 16952 net.cpp:100] Creating Layer conv2_prescale
I0414 05:13:56.846981 16952 net.cpp:434] conv2_prescale <- conv2
I0414 05:13:56.846987 16952 net.cpp:395] conv2_prescale -> conv2 (in-place)
I0414 05:13:56.847112 16952 net.cpp:150] Setting up conv2_prescale
I0414 05:13:56.847123 16952 net.cpp:157] Top shape: 1024 150 18 18 (49766400)
I0414 05:13:56.847127 16952 net.cpp:165] Memory required for data: 3497230336
I0414 05:13:56.847133 16952 layer_factory.hpp:77] Creating layer conv2_sTanH
I0414 05:13:56.847142 16952 net.cpp:100] Creating Layer conv2_sTanH
I0414 05:13:56.847147 16952 net.cpp:434] conv2_sTanH <- conv2
I0414 05:13:56.847152 16952 net.cpp:395] conv2_sTanH -> conv2 (in-place)
I0414 05:13:56.850051 16952 net.cpp:150] Setting up conv2_sTanH
I0414 05:13:56.850071 16952 net.cpp:157] Top shape: 1024 150 18 18 (49766400)
I0414 05:13:56.850075 16952 net.cpp:165] Memory required for data: 3696295936
I0414 05:13:56.850080 16952 layer_factory.hpp:77] Creating layer conv2_postscale
I0414 05:13:56.850090 16952 net.cpp:100] Creating Layer conv2_postscale
I0414 05:13:56.850095 16952 net.cpp:434] conv2_postscale <- conv2
I0414 05:13:56.850102 16952 net.cpp:395] conv2_postscale -> conv2 (in-place)
I0414 05:13:56.850219 16952 net.cpp:150] Setting up conv2_postscale
I0414 05:13:56.850229 16952 net.cpp:157] Top shape: 1024 150 18 18 (49766400)
I0414 05:13:56.850234 16952 net.cpp:165] Memory required for data: 3895361536
I0414 05:13:56.850240 16952 layer_factory.hpp:77] Creating layer pool2
I0414 05:13:56.850250 16952 net.cpp:100] Creating Layer pool2
I0414 05:13:56.850255 16952 net.cpp:434] pool2 <- conv2
I0414 05:13:56.850260 16952 net.cpp:408] pool2 -> pool2
I0414 05:13:56.850311 16952 net.cpp:150] Setting up pool2
I0414 05:13:56.850322 16952 net.cpp:157] Top shape: 1024 150 9 9 (12441600)
I0414 05:13:56.850327 16952 net.cpp:165] Memory required for data: 3945127936
I0414 05:13:56.850329 16952 layer_factory.hpp:77] Creating layer conv3
I0414 05:13:56.850339 16952 net.cpp:100] Creating Layer conv3
I0414 05:13:56.850344 16952 net.cpp:434] conv3 <- pool2
I0414 05:13:56.850350 16952 net.cpp:408] conv3 -> conv3
I0414 05:13:56.857270 16952 net.cpp:150] Setting up conv3
I0414 05:13:56.857290 16952 net.cpp:157] Top shape: 1024 250 6 6 (9216000)
I0414 05:13:56.857295 16952 net.cpp:165] Memory required for data: 3981991936
I0414 05:13:56.857323 16952 layer_factory.hpp:77] Creating layer conv3_prescale
I0414 05:13:56.857336 16952 net.cpp:100] Creating Layer conv3_prescale
I0414 05:13:56.857342 16952 net.cpp:434] conv3_prescale <- conv3
I0414 05:13:56.857350 16952 net.cpp:395] conv3_prescale -> conv3 (in-place)
I0414 05:13:56.857472 16952 net.cpp:150] Setting up conv3_prescale
I0414 05:13:56.857482 16952 net.cpp:157] Top shape: 1024 250 6 6 (9216000)
I0414 05:13:56.857486 16952 net.cpp:165] Memory required for data: 4018855936
I0414 05:13:56.857491 16952 layer_factory.hpp:77] Creating layer conv3_sTanH
I0414 05:13:56.857501 16952 net.cpp:100] Creating Layer conv3_sTanH
I0414 05:13:56.857507 16952 net.cpp:434] conv3_sTanH <- conv3
I0414 05:13:56.857512 16952 net.cpp:395] conv3_sTanH -> conv3 (in-place)
I0414 05:13:56.863420 16952 net.cpp:150] Setting up conv3_sTanH
I0414 05:13:56.863445 16952 net.cpp:157] Top shape: 1024 250 6 6 (9216000)
I0414 05:13:56.863450 16952 net.cpp:165] Memory required for data: 4055719936
I0414 05:13:56.863454 16952 layer_factory.hpp:77] Creating layer conv3_postscale
I0414 05:13:56.863463 16952 net.cpp:100] Creating Layer conv3_postscale
I0414 05:13:56.863471 16952 net.cpp:434] conv3_postscale <- conv3
I0414 05:13:56.863479 16952 net.cpp:395] conv3_postscale -> conv3 (in-place)
I0414 05:13:56.863611 16952 net.cpp:150] Setting up conv3_postscale
I0414 05:13:56.863625 16952 net.cpp:157] Top shape: 1024 250 6 6 (9216000)
I0414 05:13:56.863627 16952 net.cpp:165] Memory required for data: 4092583936
I0414 05:13:56.863634 16952 layer_factory.hpp:77] Creating layer pool3
I0414 05:13:56.863647 16952 net.cpp:100] Creating Layer pool3
I0414 05:13:56.863654 16952 net.cpp:434] pool3 <- conv3
I0414 05:13:56.863662 16952 net.cpp:408] pool3 -> pool3
I0414 05:13:56.863711 16952 net.cpp:150] Setting up pool3
I0414 05:13:56.863723 16952 net.cpp:157] Top shape: 1024 250 3 3 (2304000)
I0414 05:13:56.863725 16952 net.cpp:165] Memory required for data: 4101799936
I0414 05:13:56.863729 16952 layer_factory.hpp:77] Creating layer fc4_300
I0414 05:13:56.863739 16952 net.cpp:100] Creating Layer fc4_300
I0414 05:13:56.863744 16952 net.cpp:434] fc4_300 <- pool3
I0414 05:13:56.863750 16952 net.cpp:408] fc4_300 -> fc4_300
I0414 05:13:56.870590 16952 net.cpp:150] Setting up fc4_300
I0414 05:13:56.870609 16952 net.cpp:157] Top shape: 1024 300 (307200)
I0414 05:13:56.870613 16952 net.cpp:165] Memory required for data: 4103028736
I0414 05:13:56.870621 16952 layer_factory.hpp:77] Creating layer fc4_prescale
I0414 05:13:56.870632 16952 net.cpp:100] Creating Layer fc4_prescale
I0414 05:13:56.870640 16952 net.cpp:434] fc4_prescale <- fc4_300
I0414 05:13:56.870645 16952 net.cpp:395] fc4_prescale -> fc4_300 (in-place)
I0414 05:13:56.870759 16952 net.cpp:150] Setting up fc4_prescale
I0414 05:13:56.870769 16952 net.cpp:157] Top shape: 1024 300 (307200)
I0414 05:13:56.870774 16952 net.cpp:165] Memory required for data: 4104257536
I0414 05:13:56.870779 16952 layer_factory.hpp:77] Creating layer fc4_sTanH
I0414 05:13:56.870787 16952 net.cpp:100] Creating Layer fc4_sTanH
I0414 05:13:56.870792 16952 net.cpp:434] fc4_sTanH <- fc4_300
I0414 05:13:56.870803 16952 net.cpp:395] fc4_sTanH -> fc4_300 (in-place)
I0414 05:13:56.871038 16952 net.cpp:150] Setting up fc4_sTanH
I0414 05:13:56.871050 16952 net.cpp:157] Top shape: 1024 300 (307200)
I0414 05:13:56.871055 16952 net.cpp:165] Memory required for data: 4105486336
I0414 05:13:56.871059 16952 layer_factory.hpp:77] Creating layer fc4_postscale
I0414 05:13:56.871069 16952 net.cpp:100] Creating Layer fc4_postscale
I0414 05:13:56.871074 16952 net.cpp:434] fc4_postscale <- fc4_300
I0414 05:13:56.871080 16952 net.cpp:395] fc4_postscale -> fc4_300 (in-place)
I0414 05:13:56.871206 16952 net.cpp:150] Setting up fc4_postscale
I0414 05:13:56.871214 16952 net.cpp:157] Top shape: 1024 300 (307200)
I0414 05:13:56.871219 16952 net.cpp:165] Memory required for data: 4106715136
I0414 05:13:56.871224 16952 layer_factory.hpp:77] Creating layer fc5_67
I0414 05:13:56.871232 16952 net.cpp:100] Creating Layer fc5_67
I0414 05:13:56.871237 16952 net.cpp:434] fc5_67 <- fc4_300
I0414 05:13:56.871266 16952 net.cpp:408] fc5_67 -> fc5_classes
I0414 05:13:56.872820 16952 net.cpp:150] Setting up fc5_67
I0414 05:13:56.872838 16952 net.cpp:157] Top shape: 1024 67 (68608)
I0414 05:13:56.872843 16952 net.cpp:165] Memory required for data: 4106989568
I0414 05:13:56.872854 16952 layer_factory.hpp:77] Creating layer fc5_classes_fc5_67_0_split
I0414 05:13:56.872867 16952 net.cpp:100] Creating Layer fc5_classes_fc5_67_0_split
I0414 05:13:56.872877 16952 net.cpp:434] fc5_classes_fc5_67_0_split <- fc5_classes
I0414 05:13:56.872889 16952 net.cpp:408] fc5_classes_fc5_67_0_split -> fc5_classes_fc5_67_0_split_0
I0414 05:13:56.872906 16952 net.cpp:408] fc5_classes_fc5_67_0_split -> fc5_classes_fc5_67_0_split_1
I0414 05:13:56.872920 16952 net.cpp:408] fc5_classes_fc5_67_0_split -> fc5_classes_fc5_67_0_split_2
I0414 05:13:56.873013 16952 net.cpp:150] Setting up fc5_classes_fc5_67_0_split
I0414 05:13:56.873024 16952 net.cpp:157] Top shape: 1024 67 (68608)
I0414 05:13:56.873029 16952 net.cpp:157] Top shape: 1024 67 (68608)
I0414 05:13:56.873033 16952 net.cpp:157] Top shape: 1024 67 (68608)
I0414 05:13:56.873035 16952 net.cpp:165] Memory required for data: 4107812864
I0414 05:13:56.873039 16952 layer_factory.hpp:77] Creating layer softmax
I0414 05:13:56.873050 16952 net.cpp:100] Creating Layer softmax
I0414 05:13:56.873059 16952 net.cpp:434] softmax <- fc5_classes_fc5_67_0_split_0
I0414 05:13:56.873066 16952 net.cpp:408] softmax -> softmax
I0414 05:13:56.873404 16952 net.cpp:150] Setting up softmax
I0414 05:13:56.873419 16952 net.cpp:157] Top shape: 1024 67 (68608)
I0414 05:13:56.873422 16952 net.cpp:165] Memory required for data: 4108087296
I0414 05:13:56.873426 16952 layer_factory.hpp:77] Creating layer loss
I0414 05:13:56.873436 16952 net.cpp:100] Creating Layer loss
I0414 05:13:56.873442 16952 net.cpp:434] loss <- softmax
I0414 05:13:56.873447 16952 net.cpp:434] loss <- label_data_1_split_0
I0414 05:13:56.873456 16952 net.cpp:408] loss -> loss
…
