…
I0412 09:38:18.346843 22776 solver.cpp:93] Creating training net from train_net file: ./Prototxt/experiment_10/rtsd-r1/imajust/trial_4/train.prototxt
I0412 09:38:18.347219 22776 net.cpp:58] Initializing net from parameters: 
state {
  phase: TRAIN
  level: 0
  stage: ""
}
layer {
  name: "data"
  type: "Data"
  top: "data"
  top: "label"
  include {
    phase: TRAIN
  }
  transform_param {
    scale: 0.0039215689
    mirror: false
    crop_size: 48
    mean_value: 115
    mean_value: 108
    mean_value: 122
  }
  data_param {
    source: "../local_data/lmdb/rtsd-r1/imajust/train/lmdb"
    batch_size: 1024
    backend: LMDB
  }
}
layer {
  name: "conv1"
  type: "Convolution"
  bottom: "data"
  top: "conv1"
  convolution_param {
    num_output: 100
    pad: 0
    kernel_size: 7
    group: 1
    stride: 1
    weight_filler {
      type: "xavier"
    }
  }
}
layer {
  name: "conv1_relu"
  type: "ReLU"
  bottom: "conv1"
  top: "conv1"
}
layer {
  name: "pool1"
  type: "Pooling"
  bottom: "conv1"
  top: "pool1"
  pooling_param {
    pool: MAX
    kernel_size: 2
    stride: 2
  }
}
layer {
  name: "conv2"
  type: "Convolution"
  bottom: "pool1"
  top: "conv2"
  convolution_param {
    num_output: 150
    pad: 0
    kernel_size: 4
    group: 1
    stride: 1
    weight_filler {
      type: "xavier"
    }
  }
}
layer {
  name: "conv2_relu"
  type: "ReLU"
  bottom: "conv2"
  top: "conv2"
}
layer {
  name: "pool2"
  type: "Pooling"
  bottom: "conv2"
  top: "pool2"
  pooling_param {
    pool: MAX
    kernel_size: 2
    stride: 2
  }
}
layer {
  name: "conv3"
  type: "Convolution"
  bottom: "pool2"
  top: "conv3"
  convolution_param {
    num_output: 250
    pad: 0
    kernel_size: 4
    group: 1
    stride: 1
    weight_filler {
      type: "xavier"
    }
  }
}
layer {
  name: "conv3_relu"
  type: "ReLU"
  bottom: "conv3"
  top: "conv3"
}
layer {
  name: "pool3"
  type: "Pooling"
  bottom: "conv3"
  top: "pool3"
  pooling_param {
    pool: MAX
    kernel_size: 2
    stride: 2
  }
}
layer {
  name: "fc4_300"
  type: "InnerProduct"
  bottom: "pool3"
  top: "fc4_300"
  inner_product_param {
    num_output: 300
    weight_filler {
      type: "xavier"
    }
  }
}
layer {
  name: "fc4_relu"
  type: "ReLU"
  bottom: "fc4_300"
  top: "fc4_300"
}
layer {
  name: "drop4"
  type: "Dropout"
  bottom: "fc4_300"
  top: "fc4_300"
  dropout_param {
    dropout_ratio: 0.4
  }
}
layer {
  name: "fc5_67"
  type: "InnerProduct"
  bottom: "fc4_300"
  top: "fc5_classes"
  inner_product_param {
    num_output: 67
    weight_filler {
      type: "xavier"
    }
  }
}
layer {
  name: "softmax"
  type: "Softmax"
  bottom: "fc5_classes"
  top: "softmax"
}
layer {
  name: "loss"
  type: "MultinomialLogisticLoss"
  bottom: "softmax"
  bottom: "label"
  top: "loss"
}
layer {
  name: "accuracy_1"
  type: "Accuracy"
  bottom: "fc5_classes"
  bottom: "label"
  top: "accuracy_1"
  accuracy_param {
    top_k: 1
  }
}
layer {
  name: "accuracy_5"
  type: "Accuracy"
  bottom: "fc5_classes"
  bottom: "label"
  top: "accuracy_5"
  accuracy_param {
    top_k: 5
  }
}
I0412 09:38:18.347362 22776 layer_factory.hpp:77] Creating layer data
I0412 09:38:18.348507 22776 net.cpp:100] Creating Layer data
I0412 09:38:18.348525 22776 net.cpp:408] data -> data
I0412 09:38:18.348546 22776 net.cpp:408] data -> label
I0412 09:38:18.352807 22884 db_lmdb.cpp:35] Opened lmdb ../local_data/lmdb/rtsd-r1/imajust/train/lmdb
I0412 09:38:18.377280 22776 data_layer.cpp:41] output data size: 1024,3,48,48
I0412 09:38:18.447232 22776 net.cpp:150] Setting up data
I0412 09:38:18.447265 22776 net.cpp:157] Top shape: 1024 3 48 48 (7077888)
I0412 09:38:18.447273 22776 net.cpp:157] Top shape: 1024 (1024)
I0412 09:38:18.447276 22776 net.cpp:165] Memory required for data: 28315648
I0412 09:38:18.447289 22776 layer_factory.hpp:77] Creating layer label_data_1_split
I0412 09:38:18.447306 22776 net.cpp:100] Creating Layer label_data_1_split
I0412 09:38:18.447315 22776 net.cpp:434] label_data_1_split <- label
I0412 09:38:18.447331 22776 net.cpp:408] label_data_1_split -> label_data_1_split_0
I0412 09:38:18.447345 22776 net.cpp:408] label_data_1_split -> label_data_1_split_1
I0412 09:38:18.447355 22776 net.cpp:408] label_data_1_split -> label_data_1_split_2
I0412 09:38:18.447517 22776 net.cpp:150] Setting up label_data_1_split
I0412 09:38:18.447530 22776 net.cpp:157] Top shape: 1024 (1024)
I0412 09:38:18.447535 22776 net.cpp:157] Top shape: 1024 (1024)
I0412 09:38:18.447540 22776 net.cpp:157] Top shape: 1024 (1024)
I0412 09:38:18.447542 22776 net.cpp:165] Memory required for data: 28327936
I0412 09:38:18.447546 22776 layer_factory.hpp:77] Creating layer conv1
I0412 09:38:18.447567 22776 net.cpp:100] Creating Layer conv1
I0412 09:38:18.447573 22776 net.cpp:434] conv1 <- data
I0412 09:38:18.447580 22776 net.cpp:408] conv1 -> conv1
I0412 09:38:18.792460 22776 net.cpp:150] Setting up conv1
I0412 09:38:18.792500 22776 net.cpp:157] Top shape: 1024 100 42 42 (180633600)
I0412 09:38:18.792505 22776 net.cpp:165] Memory required for data: 750862336
I0412 09:38:18.792526 22776 layer_factory.hpp:77] Creating layer conv1_relu
I0412 09:38:18.792538 22776 net.cpp:100] Creating Layer conv1_relu
I0412 09:38:18.792546 22776 net.cpp:434] conv1_relu <- conv1
I0412 09:38:18.792552 22776 net.cpp:395] conv1_relu -> conv1 (in-place)
I0412 09:38:18.792749 22776 net.cpp:150] Setting up conv1_relu
I0412 09:38:18.792762 22776 net.cpp:157] Top shape: 1024 100 42 42 (180633600)
I0412 09:38:18.792765 22776 net.cpp:165] Memory required for data: 1473396736
I0412 09:38:18.792768 22776 layer_factory.hpp:77] Creating layer pool1
I0412 09:38:18.792778 22776 net.cpp:100] Creating Layer pool1
I0412 09:38:18.792784 22776 net.cpp:434] pool1 <- conv1
I0412 09:38:18.792790 22776 net.cpp:408] pool1 -> pool1
I0412 09:38:18.792845 22776 net.cpp:150] Setting up pool1
I0412 09:38:18.792855 22776 net.cpp:157] Top shape: 1024 100 21 21 (45158400)
I0412 09:38:18.792858 22776 net.cpp:165] Memory required for data: 1654030336
I0412 09:38:18.792861 22776 layer_factory.hpp:77] Creating layer conv2
I0412 09:38:18.792872 22776 net.cpp:100] Creating Layer conv2
I0412 09:38:18.792878 22776 net.cpp:434] conv2 <- pool1
I0412 09:38:18.792887 22776 net.cpp:408] conv2 -> conv2
I0412 09:38:18.800112 22776 net.cpp:150] Setting up conv2
I0412 09:38:18.800130 22776 net.cpp:157] Top shape: 1024 150 18 18 (49766400)
I0412 09:38:18.800134 22776 net.cpp:165] Memory required for data: 1853095936
I0412 09:38:18.800144 22776 layer_factory.hpp:77] Creating layer conv2_relu
I0412 09:38:18.800153 22776 net.cpp:100] Creating Layer conv2_relu
I0412 09:38:18.800160 22776 net.cpp:434] conv2_relu <- conv2
I0412 09:38:18.800166 22776 net.cpp:395] conv2_relu -> conv2 (in-place)
I0412 09:38:18.801349 22776 net.cpp:150] Setting up conv2_relu
I0412 09:38:18.801367 22776 net.cpp:157] Top shape: 1024 150 18 18 (49766400)
I0412 09:38:18.801383 22776 net.cpp:165] Memory required for data: 2052161536
I0412 09:38:18.801386 22776 layer_factory.hpp:77] Creating layer pool2
I0412 09:38:18.801394 22776 net.cpp:100] Creating Layer pool2
I0412 09:38:18.801398 22776 net.cpp:434] pool2 <- conv2
I0412 09:38:18.801403 22776 net.cpp:408] pool2 -> pool2
I0412 09:38:18.801456 22776 net.cpp:150] Setting up pool2
I0412 09:38:18.801466 22776 net.cpp:157] Top shape: 1024 150 9 9 (12441600)
I0412 09:38:18.801470 22776 net.cpp:165] Memory required for data: 2101927936
I0412 09:38:18.801472 22776 layer_factory.hpp:77] Creating layer conv3
I0412 09:38:18.801484 22776 net.cpp:100] Creating Layer conv3
I0412 09:38:18.801491 22776 net.cpp:434] conv3 <- pool2
I0412 09:38:18.801518 22776 net.cpp:408] conv3 -> conv3
I0412 09:38:18.808506 22776 net.cpp:150] Setting up conv3
I0412 09:38:18.808523 22776 net.cpp:157] Top shape: 1024 250 6 6 (9216000)
I0412 09:38:18.808526 22776 net.cpp:165] Memory required for data: 2138791936
I0412 09:38:18.808538 22776 layer_factory.hpp:77] Creating layer conv3_relu
I0412 09:38:18.808545 22776 net.cpp:100] Creating Layer conv3_relu
I0412 09:38:18.808549 22776 net.cpp:434] conv3_relu <- conv3
I0412 09:38:18.808554 22776 net.cpp:395] conv3_relu -> conv3 (in-place)
I0412 09:38:18.809515 22776 net.cpp:150] Setting up conv3_relu
I0412 09:38:18.809532 22776 net.cpp:157] Top shape: 1024 250 6 6 (9216000)
I0412 09:38:18.809535 22776 net.cpp:165] Memory required for data: 2175655936
I0412 09:38:18.809540 22776 layer_factory.hpp:77] Creating layer pool3
I0412 09:38:18.809546 22776 net.cpp:100] Creating Layer pool3
I0412 09:38:18.809551 22776 net.cpp:434] pool3 <- conv3
I0412 09:38:18.809556 22776 net.cpp:408] pool3 -> pool3
I0412 09:38:18.809605 22776 net.cpp:150] Setting up pool3
I0412 09:38:18.809614 22776 net.cpp:157] Top shape: 1024 250 3 3 (2304000)
I0412 09:38:18.809617 22776 net.cpp:165] Memory required for data: 2184871936
I0412 09:38:18.809620 22776 layer_factory.hpp:77] Creating layer fc4_300
I0412 09:38:18.809628 22776 net.cpp:100] Creating Layer fc4_300
I0412 09:38:18.809633 22776 net.cpp:434] fc4_300 <- pool3
I0412 09:38:18.809638 22776 net.cpp:408] fc4_300 -> fc4_300
I0412 09:38:18.815481 22776 net.cpp:150] Setting up fc4_300
I0412 09:38:18.815497 22776 net.cpp:157] Top shape: 1024 300 (307200)
I0412 09:38:18.815501 22776 net.cpp:165] Memory required for data: 2186100736
I0412 09:38:18.815507 22776 layer_factory.hpp:77] Creating layer fc4_relu
I0412 09:38:18.815515 22776 net.cpp:100] Creating Layer fc4_relu
I0412 09:38:18.815517 22776 net.cpp:434] fc4_relu <- fc4_300
I0412 09:38:18.815524 22776 net.cpp:395] fc4_relu -> fc4_300 (in-place)
I0412 09:38:18.815726 22776 net.cpp:150] Setting up fc4_relu
I0412 09:38:18.815738 22776 net.cpp:157] Top shape: 1024 300 (307200)
I0412 09:38:18.815742 22776 net.cpp:165] Memory required for data: 2187329536
I0412 09:38:18.815745 22776 layer_factory.hpp:77] Creating layer drop4
I0412 09:38:18.815753 22776 net.cpp:100] Creating Layer drop4
I0412 09:38:18.815758 22776 net.cpp:434] drop4 <- fc4_300
I0412 09:38:18.815763 22776 net.cpp:395] drop4 -> fc4_300 (in-place)
I0412 09:38:18.815800 22776 net.cpp:150] Setting up drop4
I0412 09:38:18.815809 22776 net.cpp:157] Top shape: 1024 300 (307200)
I0412 09:38:18.815811 22776 net.cpp:165] Memory required for data: 2188558336
I0412 09:38:18.815814 22776 layer_factory.hpp:77] Creating layer fc5_67
I0412 09:38:18.815821 22776 net.cpp:100] Creating Layer fc5_67
I0412 09:38:18.815824 22776 net.cpp:434] fc5_67 <- fc4_300
I0412 09:38:18.815830 22776 net.cpp:408] fc5_67 -> fc5_classes
I0412 09:38:18.818711 22776 net.cpp:150] Setting up fc5_67
I0412 09:38:18.818728 22776 net.cpp:157] Top shape: 1024 67 (68608)
I0412 09:38:18.818732 22776 net.cpp:165] Memory required for data: 2188832768
I0412 09:38:18.818743 22776 layer_factory.hpp:77] Creating layer fc5_classes_fc5_67_0_split
I0412 09:38:18.818753 22776 net.cpp:100] Creating Layer fc5_classes_fc5_67_0_split
I0412 09:38:18.818755 22776 net.cpp:434] fc5_classes_fc5_67_0_split <- fc5_classes
I0412 09:38:18.818774 22776 net.cpp:408] fc5_classes_fc5_67_0_split -> fc5_classes_fc5_67_0_split_0
I0412 09:38:18.818786 22776 net.cpp:408] fc5_classes_fc5_67_0_split -> fc5_classes_fc5_67_0_split_1
I0412 09:38:18.818794 22776 net.cpp:408] fc5_classes_fc5_67_0_split -> fc5_classes_fc5_67_0_split_2
I0412 09:38:18.818852 22776 net.cpp:150] Setting up fc5_classes_fc5_67_0_split
I0412 09:38:18.818861 22776 net.cpp:157] Top shape: 1024 67 (68608)
I0412 09:38:18.818864 22776 net.cpp:157] Top shape: 1024 67 (68608)
I0412 09:38:18.818867 22776 net.cpp:157] Top shape: 1024 67 (68608)
I0412 09:38:18.818871 22776 net.cpp:165] Memory required for data: 2189656064
I0412 09:38:18.818873 22776 layer_factory.hpp:77] Creating layer softmax
I0412 09:38:18.818897 22776 net.cpp:100] Creating Layer softmax
I0412 09:38:18.818902 22776 net.cpp:434] softmax <- fc5_classes_fc5_67_0_split_0
I0412 09:38:18.818908 22776 net.cpp:408] softmax -> softmax
I0412 09:38:18.819181 22776 net.cpp:150] Setting up softmax
I0412 09:38:18.819196 22776 net.cpp:157] Top shape: 1024 67 (68608)
I0412 09:38:18.819201 22776 net.cpp:165] Memory required for data: 2189930496
I0412 09:38:18.819205 22776 layer_factory.hpp:77] Creating layer loss
I0412 09:38:18.819211 22776 net.cpp:100] Creating Layer loss
I0412 09:38:18.819216 22776 net.cpp:434] loss <- softmax
I0412 09:38:18.819221 22776 net.cpp:434] loss <- label_data_1_split_0
I0412 09:38:18.819227 22776 net.cpp:408] loss -> loss
…
