…
I0414 08:56:40.562619 30480 solver.cpp:93] Creating training net from train_net file: ./Prototxt/experiment_10/rtsd-r1/imajust/trial_4/train.prototxt
I0414 08:56:40.563025 30480 net.cpp:58] Initializing net from parameters: 
state {
  phase: TRAIN
  level: 0
  stage: ""
}
layer {
  name: "data"
  type: "Data"
  top: "data"
  top: "label"
  include {
    phase: TRAIN
  }
  transform_param {
    scale: 0.0039215689
    mirror: false
    crop_size: 48
    mean_value: 115
    mean_value: 108
    mean_value: 122
  }
  data_param {
    source: "../local_data/lmdb/rtsd-r1/imajust/train/lmdb"
    batch_size: 1024
    backend: LMDB
  }
}
layer {
  name: "conv1"
  type: "Convolution"
  bottom: "data"
  top: "conv1"
  convolution_param {
    num_output: 100
    pad: 0
    kernel_size: 7
    group: 1
    stride: 1
    weight_filler {
      type: "xavier"
    }
  }
}
layer {
  name: "conv1_relu"
  type: "ReLU"
  bottom: "conv1"
  top: "conv1"
}
layer {
  name: "pool1"
  type: "Pooling"
  bottom: "conv1"
  top: "pool1"
  pooling_param {
    pool: MAX
    kernel_size: 2
    stride: 2
  }
}
layer {
  name: "conv2"
  type: "Convolution"
  bottom: "pool1"
  top: "conv2"
  convolution_param {
    num_output: 150
    pad: 0
    kernel_size: 4
    group: 1
    stride: 1
    weight_filler {
      type: "xavier"
    }
  }
}
layer {
  name: "conv2_relu"
  type: "ReLU"
  bottom: "conv2"
  top: "conv2"
}
layer {
  name: "pool2"
  type: "Pooling"
  bottom: "conv2"
  top: "pool2"
  pooling_param {
    pool: MAX
    kernel_size: 2
    stride: 2
  }
}
layer {
  name: "conv3"
  type: "Convolution"
  bottom: "pool2"
  top: "conv3"
  convolution_param {
    num_output: 250
    pad: 0
    kernel_size: 4
    group: 1
    stride: 1
    weight_filler {
      type: "xavier"
    }
  }
}
layer {
  name: "conv3_relu"
  type: "ReLU"
  bottom: "conv3"
  top: "conv3"
}
layer {
  name: "pool3"
  type: "Pooling"
  bottom: "conv3"
  top: "pool3"
  pooling_param {
    pool: MAX
    kernel_size: 2
    stride: 2
  }
}
layer {
  name: "fc4_300"
  type: "InnerProduct"
  bottom: "pool3"
  top: "fc4_300"
  inner_product_param {
    num_output: 300
    weight_filler {
      type: "xavier"
    }
  }
}
layer {
  name: "fc4_relu"
  type: "ReLU"
  bottom: "fc4_300"
  top: "fc4_300"
}
layer {
  name: "fc5_67"
  type: "InnerProduct"
  bottom: "fc4_300"
  top: "fc5_classes"
  inner_product_param {
    num_output: 67
    weight_filler {
      type: "xavier"
    }
  }
}
layer {
  name: "softmax"
  type: "Softmax"
  bottom: "fc5_classes"
  top: "softmax"
}
layer {
  name: "loss"
  type: "MultinomialLogisticLoss"
  bottom: "softmax"
  bottom: "label"
  top: "loss"
}
layer {
  name: "accuracy_1"
  type: "Accuracy"
  bottom: "fc5_classes"
  bottom: "label"
  top: "accuracy_1"
  accuracy_param {
    top_k: 1
  }
}
layer {
  name: "accuracy_5"
  type: "Accuracy"
  bottom: "fc5_classes"
  bottom: "label"
  top: "accuracy_5"
  accuracy_param {
    top_k: 5
  }
}
layer {
  name: "silence"
  type: "Silence"
  bottom: "accuracy_1"
  bottom: "accuracy_5"
}
I0414 08:56:40.563170 30480 layer_factory.hpp:77] Creating layer data
I0414 08:56:40.564566 30480 net.cpp:100] Creating Layer data
I0414 08:56:40.564594 30480 net.cpp:408] data -> data
I0414 08:56:40.564623 30480 net.cpp:408] data -> label
I0414 08:56:40.650532 30597 db_lmdb.cpp:35] Opened lmdb ../local_data/lmdb/rtsd-r1/imajust/train/lmdb
I0414 08:56:40.698019 30480 data_layer.cpp:41] output data size: 1024,3,48,48
I0414 08:56:40.806524 30480 net.cpp:150] Setting up data
I0414 08:56:40.806586 30480 net.cpp:157] Top shape: 1024 3 48 48 (7077888)
I0414 08:56:40.806592 30480 net.cpp:157] Top shape: 1024 (1024)
I0414 08:56:40.806596 30480 net.cpp:165] Memory required for data: 28315648
I0414 08:56:40.806609 30480 layer_factory.hpp:77] Creating layer label_data_1_split
I0414 08:56:40.806625 30480 net.cpp:100] Creating Layer label_data_1_split
I0414 08:56:40.806632 30480 net.cpp:434] label_data_1_split <- label
I0414 08:56:40.806650 30480 net.cpp:408] label_data_1_split -> label_data_1_split_0
I0414 08:56:40.806666 30480 net.cpp:408] label_data_1_split -> label_data_1_split_1
I0414 08:56:40.806675 30480 net.cpp:408] label_data_1_split -> label_data_1_split_2
I0414 08:56:40.806787 30480 net.cpp:150] Setting up label_data_1_split
I0414 08:56:40.806798 30480 net.cpp:157] Top shape: 1024 (1024)
I0414 08:56:40.806802 30480 net.cpp:157] Top shape: 1024 (1024)
I0414 08:56:40.806807 30480 net.cpp:157] Top shape: 1024 (1024)
I0414 08:56:40.806810 30480 net.cpp:165] Memory required for data: 28327936
I0414 08:56:40.806814 30480 layer_factory.hpp:77] Creating layer conv1
I0414 08:56:40.806833 30480 net.cpp:100] Creating Layer conv1
I0414 08:56:40.806839 30480 net.cpp:434] conv1 <- data
I0414 08:56:40.806846 30480 net.cpp:408] conv1 -> conv1
I0414 08:56:41.290694 30480 net.cpp:150] Setting up conv1
I0414 08:56:41.290726 30480 net.cpp:157] Top shape: 1024 100 42 42 (180633600)
I0414 08:56:41.290730 30480 net.cpp:165] Memory required for data: 750862336
I0414 08:56:41.290755 30480 layer_factory.hpp:77] Creating layer conv1_relu
I0414 08:56:41.290768 30480 net.cpp:100] Creating Layer conv1_relu
I0414 08:56:41.290776 30480 net.cpp:434] conv1_relu <- conv1
I0414 08:56:41.290782 30480 net.cpp:395] conv1_relu -> conv1 (in-place)
I0414 08:56:41.291019 30480 net.cpp:150] Setting up conv1_relu
I0414 08:56:41.291033 30480 net.cpp:157] Top shape: 1024 100 42 42 (180633600)
I0414 08:56:41.291038 30480 net.cpp:165] Memory required for data: 1473396736
I0414 08:56:41.291041 30480 layer_factory.hpp:77] Creating layer pool1
I0414 08:56:41.291054 30480 net.cpp:100] Creating Layer pool1
I0414 08:56:41.291059 30480 net.cpp:434] pool1 <- conv1
I0414 08:56:41.291065 30480 net.cpp:408] pool1 -> pool1
I0414 08:56:41.291132 30480 net.cpp:150] Setting up pool1
I0414 08:56:41.291141 30480 net.cpp:157] Top shape: 1024 100 21 21 (45158400)
I0414 08:56:41.291147 30480 net.cpp:165] Memory required for data: 1654030336
I0414 08:56:41.291152 30480 layer_factory.hpp:77] Creating layer conv2
I0414 08:56:41.291163 30480 net.cpp:100] Creating Layer conv2
I0414 08:56:41.291169 30480 net.cpp:434] conv2 <- pool1
I0414 08:56:41.291177 30480 net.cpp:408] conv2 -> conv2
I0414 08:56:41.297473 30480 net.cpp:150] Setting up conv2
I0414 08:56:41.297492 30480 net.cpp:157] Top shape: 1024 150 18 18 (49766400)
I0414 08:56:41.297497 30480 net.cpp:165] Memory required for data: 1853095936
I0414 08:56:41.297508 30480 layer_factory.hpp:77] Creating layer conv2_relu
I0414 08:56:41.297518 30480 net.cpp:100] Creating Layer conv2_relu
I0414 08:56:41.297524 30480 net.cpp:434] conv2_relu <- conv2
I0414 08:56:41.297530 30480 net.cpp:395] conv2_relu -> conv2 (in-place)
I0414 08:56:41.298966 30480 net.cpp:150] Setting up conv2_relu
I0414 08:56:41.298985 30480 net.cpp:157] Top shape: 1024 150 18 18 (49766400)
I0414 08:56:41.298988 30480 net.cpp:165] Memory required for data: 2052161536
I0414 08:56:41.298992 30480 layer_factory.hpp:77] Creating layer pool2
I0414 08:56:41.299001 30480 net.cpp:100] Creating Layer pool2
I0414 08:56:41.299006 30480 net.cpp:434] pool2 <- conv2
I0414 08:56:41.299013 30480 net.cpp:408] pool2 -> pool2
I0414 08:56:41.299070 30480 net.cpp:150] Setting up pool2
I0414 08:56:41.299079 30480 net.cpp:157] Top shape: 1024 150 9 9 (12441600)
I0414 08:56:41.299082 30480 net.cpp:165] Memory required for data: 2101927936
I0414 08:56:41.299087 30480 layer_factory.hpp:77] Creating layer conv3
I0414 08:56:41.299098 30480 net.cpp:100] Creating Layer conv3
I0414 08:56:41.299101 30480 net.cpp:434] conv3 <- pool2
I0414 08:56:41.299132 30480 net.cpp:408] conv3 -> conv3
I0414 08:56:41.306265 30480 net.cpp:150] Setting up conv3
I0414 08:56:41.306287 30480 net.cpp:157] Top shape: 1024 250 6 6 (9216000)
I0414 08:56:41.306291 30480 net.cpp:165] Memory required for data: 2138791936
I0414 08:56:41.306303 30480 layer_factory.hpp:77] Creating layer conv3_relu
I0414 08:56:41.306311 30480 net.cpp:100] Creating Layer conv3_relu
I0414 08:56:41.306315 30480 net.cpp:434] conv3_relu <- conv3
I0414 08:56:41.306321 30480 net.cpp:395] conv3_relu -> conv3 (in-place)
I0414 08:56:41.314081 30480 net.cpp:150] Setting up conv3_relu
I0414 08:56:41.314105 30480 net.cpp:157] Top shape: 1024 250 6 6 (9216000)
I0414 08:56:41.314108 30480 net.cpp:165] Memory required for data: 2175655936
I0414 08:56:41.314113 30480 layer_factory.hpp:77] Creating layer pool3
I0414 08:56:41.314122 30480 net.cpp:100] Creating Layer pool3
I0414 08:56:41.314126 30480 net.cpp:434] pool3 <- conv3
I0414 08:56:41.314133 30480 net.cpp:408] pool3 -> pool3
I0414 08:56:41.314191 30480 net.cpp:150] Setting up pool3
I0414 08:56:41.314201 30480 net.cpp:157] Top shape: 1024 250 3 3 (2304000)
I0414 08:56:41.314205 30480 net.cpp:165] Memory required for data: 2184871936
I0414 08:56:41.314208 30480 layer_factory.hpp:77] Creating layer fc4_300
I0414 08:56:41.314216 30480 net.cpp:100] Creating Layer fc4_300
I0414 08:56:41.314223 30480 net.cpp:434] fc4_300 <- pool3
I0414 08:56:41.314229 30480 net.cpp:408] fc4_300 -> fc4_300
I0414 08:56:41.321454 30480 net.cpp:150] Setting up fc4_300
I0414 08:56:41.321472 30480 net.cpp:157] Top shape: 1024 300 (307200)
I0414 08:56:41.321476 30480 net.cpp:165] Memory required for data: 2186100736
I0414 08:56:41.321485 30480 layer_factory.hpp:77] Creating layer fc4_relu
I0414 08:56:41.321493 30480 net.cpp:100] Creating Layer fc4_relu
I0414 08:56:41.321497 30480 net.cpp:434] fc4_relu <- fc4_300
I0414 08:56:41.321503 30480 net.cpp:395] fc4_relu -> fc4_300 (in-place)
I0414 08:56:41.321730 30480 net.cpp:150] Setting up fc4_relu
I0414 08:56:41.321743 30480 net.cpp:157] Top shape: 1024 300 (307200)
I0414 08:56:41.321748 30480 net.cpp:165] Memory required for data: 2187329536
I0414 08:56:41.321753 30480 layer_factory.hpp:77] Creating layer fc5_67
I0414 08:56:41.321760 30480 net.cpp:100] Creating Layer fc5_67
I0414 08:56:41.321765 30480 net.cpp:434] fc5_67 <- fc4_300
I0414 08:56:41.321772 30480 net.cpp:408] fc5_67 -> fc5_classes
I0414 08:56:41.329680 30480 net.cpp:150] Setting up fc5_67
I0414 08:56:41.329700 30480 net.cpp:157] Top shape: 1024 67 (68608)
I0414 08:56:41.329705 30480 net.cpp:165] Memory required for data: 2187603968
I0414 08:56:41.329717 30480 layer_factory.hpp:77] Creating layer fc5_classes_fc5_67_0_split
I0414 08:56:41.329727 30480 net.cpp:100] Creating Layer fc5_classes_fc5_67_0_split
I0414 08:56:41.329731 30480 net.cpp:434] fc5_classes_fc5_67_0_split <- fc5_classes
I0414 08:56:41.329738 30480 net.cpp:408] fc5_classes_fc5_67_0_split -> fc5_classes_fc5_67_0_split_0
I0414 08:56:41.329751 30480 net.cpp:408] fc5_classes_fc5_67_0_split -> fc5_classes_fc5_67_0_split_1
I0414 08:56:41.329759 30480 net.cpp:408] fc5_classes_fc5_67_0_split -> fc5_classes_fc5_67_0_split_2
I0414 08:56:41.329820 30480 net.cpp:150] Setting up fc5_classes_fc5_67_0_split
I0414 08:56:41.329828 30480 net.cpp:157] Top shape: 1024 67 (68608)
I0414 08:56:41.329834 30480 net.cpp:157] Top shape: 1024 67 (68608)
I0414 08:56:41.329838 30480 net.cpp:157] Top shape: 1024 67 (68608)
I0414 08:56:41.329841 30480 net.cpp:165] Memory required for data: 2188427264
I0414 08:56:41.329844 30480 layer_factory.hpp:77] Creating layer softmax
I0414 08:56:41.329851 30480 net.cpp:100] Creating Layer softmax
I0414 08:56:41.329856 30480 net.cpp:434] softmax <- fc5_classes_fc5_67_0_split_0
I0414 08:56:41.329862 30480 net.cpp:408] softmax -> softmax
I0414 08:56:41.330164 30480 net.cpp:150] Setting up softmax
I0414 08:56:41.330179 30480 net.cpp:157] Top shape: 1024 67 (68608)
I0414 08:56:41.330184 30480 net.cpp:165] Memory required for data: 2188701696
I0414 08:56:41.330188 30480 layer_factory.hpp:77] Creating layer loss
I0414 08:56:41.330199 30480 net.cpp:100] Creating Layer loss
I0414 08:56:41.330221 30480 net.cpp:434] loss <- softmax
I0414 08:56:41.330229 30480 net.cpp:434] loss <- label_data_1_split_0
I0414 08:56:41.330237 30480 net.cpp:408] loss -> loss
…
