…
I0409 22:13:33.638895 24507 net.cpp:322] The NetState phase (0) differed from the phase (1) specified by a rule in layer accuracy_5
I0409 22:13:33.639006 24507 net.cpp:58] Initializing net from parameters: 
state {
  phase: TRAIN
  level: 0
  stage: ""
}
layer {
  name: "data"
  type: "Data"
  top: "data"
  top: "label"
  include {
    phase: TRAIN
  }
  transform_param {
    mirror: false
    crop_size: 48
    mean_value: 132
    mean_value: 132
    mean_value: 131
  }
  data_param {
    source: "../local_data/lmdb/rtsd-r1/CoNorm/train/lmdb"
    batch_size: 1024
    backend: LMDB
  }
}
layer {
  name: "conv1"
  type: "Convolution"
  bottom: "data"
  top: "conv1"
  convolution_param {
    num_output: 100
    pad: 0
    kernel_size: 7
    group: 1
    stride: 1
    weight_filler {
      type: "xavier"
    }
  }
}
layer {
  name: "conv1_sTanH"
  type: "TanH"
  bottom: "conv1"
  top: "conv1"
}
layer {
  name: "pool1"
  type: "Pooling"
  bottom: "conv1"
  top: "pool1"
  pooling_param {
    pool: MAX
    kernel_size: 2
    stride: 2
  }
}
layer {
  name: "conv2"
  type: "Convolution"
  bottom: "pool1"
  top: "conv2"
  convolution_param {
    num_output: 150
    pad: 0
    kernel_size: 4
    group: 1
    stride: 1
    weight_filler {
      type: "xavier"
    }
  }
}
layer {
  name: "conv2_sTanH"
  type: "TanH"
  bottom: "conv2"
  top: "conv2"
}
layer {
  name: "pool2"
  type: "Pooling"
  bottom: "conv2"
  top: "pool2"
  pooling_param {
    pool: MAX
    kernel_size: 2
    stride: 2
  }
}
layer {
  name: "conv3"
  type: "Convolution"
  bottom: "pool2"
  top: "conv3"
  convolution_param {
    num_output: 250
    pad: 0
    kernel_size: 4
    group: 1
    stride: 1
    weight_filler {
      type: "xavier"
    }
  }
}
layer {
  name: "conv3_sTanH"
  type: "TanH"
  bottom: "conv3"
  top: "conv3"
}
layer {
  name: "pool3"
  type: "Pooling"
  bottom: "conv3"
  top: "pool3"
  pooling_param {
    pool: MAX
    kernel_size: 2
    stride: 2
  }
}
layer {
  name: "fc4_300"
  type: "InnerProduct"
  bottom: "pool3"
  top: "fc4_300"
  inner_product_param {
    num_output: 300
    weight_filler {
      type: "xavier"
    }
  }
}
layer {
  name: "fc4_sTanH"
  type: "TanH"
  bottom: "fc4_300"
  top: "fc4_300"
}
layer {
  name: "drop4"
  type: "Dropout"
  bottom: "fc4_300"
  top: "fc4_300"
  dropout_param {
    dropout_ratio: 0.4
  }
}
layer {
  name: "fc5_67"
  type: "InnerProduct"
  bottom: "fc4_300"
  top: "fc5_classes"
  inner_product_param {
    num_output: 67
    weight_filler {
      type: "xavier"
    }
  }
}
layer {
  name: "loss"
  type: "SoftmaxWithLoss"
  bottom: "fc5_classes"
  bottom: "label"
  top: "loss"
}
I0409 22:13:33.639096 24507 layer_factory.hpp:77] Creating layer data
I0409 22:13:33.640403 24507 net.cpp:100] Creating Layer data
I0409 22:13:33.640421 24507 net.cpp:408] data -> data
I0409 22:13:33.640446 24507 net.cpp:408] data -> label
I0409 22:13:33.642467 24583 db_lmdb.cpp:35] Opened lmdb ../local_data/lmdb/rtsd-r1/CoNorm/train/lmdb
I0409 22:13:33.662868 24507 data_layer.cpp:41] output data size: 1024,3,48,48
I0409 22:13:33.723503 24507 net.cpp:150] Setting up data
I0409 22:13:33.723541 24507 net.cpp:157] Top shape: 1024 3 48 48 (7077888)
I0409 22:13:33.723579 24507 net.cpp:157] Top shape: 1024 (1024)
I0409 22:13:33.723583 24507 net.cpp:165] Memory required for data: 28315648
I0409 22:13:33.723594 24507 layer_factory.hpp:77] Creating layer conv1
I0409 22:13:33.723623 24507 net.cpp:100] Creating Layer conv1
I0409 22:13:33.723633 24507 net.cpp:434] conv1 <- data
I0409 22:13:33.723649 24507 net.cpp:408] conv1 -> conv1
I0409 22:13:34.047489 24507 net.cpp:150] Setting up conv1
I0409 22:13:34.047528 24507 net.cpp:157] Top shape: 1024 100 42 42 (180633600)
I0409 22:13:34.047533 24507 net.cpp:165] Memory required for data: 750850048
I0409 22:13:34.047559 24507 layer_factory.hpp:77] Creating layer conv1_sTanH
I0409 22:13:34.047574 24507 net.cpp:100] Creating Layer conv1_sTanH
I0409 22:13:34.047581 24507 net.cpp:434] conv1_sTanH <- conv1
I0409 22:13:34.047588 24507 net.cpp:395] conv1_sTanH -> conv1 (in-place)
I0409 22:13:34.047829 24507 net.cpp:150] Setting up conv1_sTanH
I0409 22:13:34.047844 24507 net.cpp:157] Top shape: 1024 100 42 42 (180633600)
I0409 22:13:34.047850 24507 net.cpp:165] Memory required for data: 1473384448
I0409 22:13:34.047854 24507 layer_factory.hpp:77] Creating layer pool1
I0409 22:13:34.047863 24507 net.cpp:100] Creating Layer pool1
I0409 22:13:34.047869 24507 net.cpp:434] pool1 <- conv1
I0409 22:13:34.047875 24507 net.cpp:408] pool1 -> pool1
I0409 22:13:34.047951 24507 net.cpp:150] Setting up pool1
I0409 22:13:34.047962 24507 net.cpp:157] Top shape: 1024 100 21 21 (45158400)
I0409 22:13:34.047967 24507 net.cpp:165] Memory required for data: 1654018048
I0409 22:13:34.047971 24507 layer_factory.hpp:77] Creating layer conv2
I0409 22:13:34.047986 24507 net.cpp:100] Creating Layer conv2
I0409 22:13:34.047991 24507 net.cpp:434] conv2 <- pool1
I0409 22:13:34.047996 24507 net.cpp:408] conv2 -> conv2
I0409 22:13:34.053321 24507 net.cpp:150] Setting up conv2
I0409 22:13:34.053342 24507 net.cpp:157] Top shape: 1024 150 18 18 (49766400)
I0409 22:13:34.053347 24507 net.cpp:165] Memory required for data: 1853083648
I0409 22:13:34.053359 24507 layer_factory.hpp:77] Creating layer conv2_sTanH
I0409 22:13:34.053369 24507 net.cpp:100] Creating Layer conv2_sTanH
I0409 22:13:34.053373 24507 net.cpp:434] conv2_sTanH <- conv2
I0409 22:13:34.053380 24507 net.cpp:395] conv2_sTanH -> conv2 (in-place)
I0409 22:13:34.054303 24507 net.cpp:150] Setting up conv2_sTanH
I0409 22:13:34.054327 24507 net.cpp:157] Top shape: 1024 150 18 18 (49766400)
I0409 22:13:34.054332 24507 net.cpp:165] Memory required for data: 2052149248
I0409 22:13:34.054335 24507 layer_factory.hpp:77] Creating layer pool2
I0409 22:13:34.054343 24507 net.cpp:100] Creating Layer pool2
I0409 22:13:34.054349 24507 net.cpp:434] pool2 <- conv2
I0409 22:13:34.054356 24507 net.cpp:408] pool2 -> pool2
I0409 22:13:34.054422 24507 net.cpp:150] Setting up pool2
I0409 22:13:34.054432 24507 net.cpp:157] Top shape: 1024 150 9 9 (12441600)
I0409 22:13:34.054437 24507 net.cpp:165] Memory required for data: 2101915648
I0409 22:13:34.054440 24507 layer_factory.hpp:77] Creating layer conv3
I0409 22:13:34.054452 24507 net.cpp:100] Creating Layer conv3
I0409 22:13:34.054458 24507 net.cpp:434] conv3 <- pool2
I0409 22:13:34.054466 24507 net.cpp:408] conv3 -> conv3
I0409 22:13:34.061277 24507 net.cpp:150] Setting up conv3
I0409 22:13:34.061302 24507 net.cpp:157] Top shape: 1024 250 6 6 (9216000)
I0409 22:13:34.061306 24507 net.cpp:165] Memory required for data: 2138779648
I0409 22:13:34.061318 24507 layer_factory.hpp:77] Creating layer conv3_sTanH
I0409 22:13:34.061329 24507 net.cpp:100] Creating Layer conv3_sTanH
I0409 22:13:34.061337 24507 net.cpp:434] conv3_sTanH <- conv3
I0409 22:13:34.061343 24507 net.cpp:395] conv3_sTanH -> conv3 (in-place)
I0409 22:13:34.062280 24507 net.cpp:150] Setting up conv3_sTanH
I0409 22:13:34.062300 24507 net.cpp:157] Top shape: 1024 250 6 6 (9216000)
I0409 22:13:34.062304 24507 net.cpp:165] Memory required for data: 2175643648
I0409 22:13:34.062309 24507 layer_factory.hpp:77] Creating layer pool3
I0409 22:13:34.062319 24507 net.cpp:100] Creating Layer pool3
I0409 22:13:34.062325 24507 net.cpp:434] pool3 <- conv3
I0409 22:13:34.062351 24507 net.cpp:408] pool3 -> pool3
I0409 22:13:34.062418 24507 net.cpp:150] Setting up pool3
I0409 22:13:34.062428 24507 net.cpp:157] Top shape: 1024 250 3 3 (2304000)
I0409 22:13:34.062433 24507 net.cpp:165] Memory required for data: 2184859648
I0409 22:13:34.062438 24507 layer_factory.hpp:77] Creating layer fc4_300
I0409 22:13:34.062445 24507 net.cpp:100] Creating Layer fc4_300
I0409 22:13:34.062450 24507 net.cpp:434] fc4_300 <- pool3
I0409 22:13:34.062463 24507 net.cpp:408] fc4_300 -> fc4_300
I0409 22:13:34.069048 24507 net.cpp:150] Setting up fc4_300
I0409 22:13:34.069069 24507 net.cpp:157] Top shape: 1024 300 (307200)
I0409 22:13:34.069072 24507 net.cpp:165] Memory required for data: 2186088448
I0409 22:13:34.069082 24507 layer_factory.hpp:77] Creating layer fc4_sTanH
I0409 22:13:34.069088 24507 net.cpp:100] Creating Layer fc4_sTanH
I0409 22:13:34.069092 24507 net.cpp:434] fc4_sTanH <- fc4_300
I0409 22:13:34.069108 24507 net.cpp:395] fc4_sTanH -> fc4_300 (in-place)
I0409 22:13:34.069351 24507 net.cpp:150] Setting up fc4_sTanH
I0409 22:13:34.069365 24507 net.cpp:157] Top shape: 1024 300 (307200)
I0409 22:13:34.069368 24507 net.cpp:165] Memory required for data: 2187317248
I0409 22:13:34.069372 24507 layer_factory.hpp:77] Creating layer drop4
I0409 22:13:34.069384 24507 net.cpp:100] Creating Layer drop4
I0409 22:13:34.069391 24507 net.cpp:434] drop4 <- fc4_300
I0409 22:13:34.069396 24507 net.cpp:395] drop4 -> fc4_300 (in-place)
I0409 22:13:34.069437 24507 net.cpp:150] Setting up drop4
I0409 22:13:34.069447 24507 net.cpp:157] Top shape: 1024 300 (307200)
I0409 22:13:34.069452 24507 net.cpp:165] Memory required for data: 2188546048
I0409 22:13:34.069455 24507 layer_factory.hpp:77] Creating layer fc5_67
I0409 22:13:34.069463 24507 net.cpp:100] Creating Layer fc5_67
I0409 22:13:34.069468 24507 net.cpp:434] fc5_67 <- fc4_300
I0409 22:13:34.069476 24507 net.cpp:408] fc5_67 -> fc5_classes
I0409 22:13:34.070909 24507 net.cpp:150] Setting up fc5_67
I0409 22:13:34.070929 24507 net.cpp:157] Top shape: 1024 67 (68608)
I0409 22:13:34.070935 24507 net.cpp:165] Memory required for data: 2188820480
I0409 22:13:34.070948 24507 layer_factory.hpp:77] Creating layer loss
I0409 22:13:34.070958 24507 net.cpp:100] Creating Layer loss
I0409 22:13:34.070965 24507 net.cpp:434] loss <- fc5_classes
I0409 22:13:34.070971 24507 net.cpp:434] loss <- label
I0409 22:13:34.070981 24507 net.cpp:408] loss -> loss
I0409 22:13:34.070997 24507 layer_factory.hpp:77] Creating layer loss
…
I0409 22:13:34.071813 24507 solver.cpp:193] Creating test net (#0) specified by test_net file: ./Prototxt/experiment_7/rtsd-r1/CoNorm/trial_5/test.prototxt
I0409 22:13:34.072027 24507 net.cpp:58] Initializing net from parameters: 
state {
  phase: TEST
}
layer {
  name: "data"
  type: "Data"
  top: "data"
  top: "label"
  include {
    phase: TEST
  }
  transform_param {
    mirror: false
    crop_size: 48
    mean_value: 133
    mean_value: 133
    mean_value: 132
  }
  data_param {
    source: "../local_data/lmdb/rtsd-r1/CoNorm/test/lmdb"
    batch_size: 1024
    backend: LMDB
  }
}
layer {
  name: "conv1"
  type: "Convolution"
  bottom: "data"
  top: "conv1"
  convolution_param {
    num_output: 100
    pad: 0
    kernel_size: 7
    group: 1
    stride: 1
    weight_filler {
      type: "xavier"
    }
  }
}
layer {
  name: "conv1_sTanH"
  type: "TanH"
  bottom: "conv1"
  top: "conv1"
}
layer {
  name: "pool1"
  type: "Pooling"
  bottom: "conv1"
  top: "pool1"
  pooling_param {
    pool: MAX
    kernel_size: 2
    stride: 2
  }
}
layer {
  name: "conv2"
  type: "Convolution"
  bottom: "pool1"
  top: "conv2"
  convolution_param {
    num_output: 150
    pad: 0
    kernel_size: 4
    group: 1
    stride: 1
    weight_filler {
      type: "xavier"
    }
  }
}
layer {
  name: "conv2_sTanH"
  type: "TanH"
  bottom: "conv2"
  top: "conv2"
}
layer {
  name: "pool2"
  type: "Pooling"
  bottom: "conv2"
  top: "pool2"
  pooling_param {
    pool: MAX
    kernel_size: 2
    stride: 2
  }
}
layer {
  name: "conv3"
  type: "Convolution"
  bottom: "pool2"
  top: "conv3"
  convolution_param {
    num_output: 250
    pad: 0
    kernel_size: 4
    group: 1
    stride: 1
    weight_filler {
      type: "xavier"
    }
  }
}
layer {
  name: "conv3_sTanH"
  type: "TanH"
  bottom: "conv3"
  top: "conv3"
}
layer {
  name: "pool3"
  type: "Pooling"
  bottom: "conv3"
  top: "pool3"
  pooling_param {
    pool: MAX
    kernel_size: 2
    stride: 2
  }
}
layer {
  name: "fc4_300"
  type: "InnerProduct"
  bottom: "pool3"
  top: "fc4_300"
  inner_product_param {
    num_output: 300
    weight_filler {
      type: "xavier"
    }
  }
}
layer {
  name: "fc4_sTanH"
  type: "TanH"
  bottom: "fc4_300"
  top: "fc4_300"
}
layer {
  name: "drop4"
  type: "Dropout"
  bottom: "fc4_300"
  top: "fc4_300"
  dropout_param {
    dropout_ratio: 0.4
  }
}
layer {
  name: "fc5_67"
  type: "InnerProduct"
  bottom: "fc4_300"
  top: "fc5_classes"
  inner_product_param {
    num_output: 67
    weight_filler {
      type: "xavier"
    }
  }
}
layer {
  name: "loss"
  type: "SoftmaxWithLoss"
  bottom: "fc5_classes"
  bottom: "label"
  top: "loss"
}
layer {
  name: "accuracy_1"
  type: "Accuracy"
  bottom: "fc5_classes"
  bottom: "label"
  top: "accuracy_1"
  include {
    phase: TEST
  }
  accuracy_param {
    top_k: 1
  }
}
layer {
  name: "accuracy_5"
  type: "Accuracy"
  bottom: "fc5_classes"
  bottom: "label"
  top: "accuracy_5"
  include {
    phase: TEST
  }
  accuracy_param {
    top_k: 5
  }
}
I0409 22:13:34.072146 24507 layer_factory.hpp:77] Creating layer data
I0409 22:13:34.073220 24507 net.cpp:100] Creating Layer data
I0409 22:13:34.073235 24507 net.cpp:408] data -> data
I0409 22:13:34.073248 24507 net.cpp:408] data -> label
I0409 22:13:34.074628 24603 db_lmdb.cpp:35] Opened lmdb ../local_data/lmdb/rtsd-r1/CoNorm/test/lmdb
I0409 22:13:34.074841 24507 data_layer.cpp:41] output data size: 1024,3,48,48
I0409 22:13:34.123850 24507 net.cpp:150] Setting up data
I0409 22:13:34.123896 24507 net.cpp:157] Top shape: 1024 3 48 48 (7077888)
I0409 22:13:34.123903 24507 net.cpp:157] Top shape: 1024 (1024)
I0409 22:13:34.123908 24507 net.cpp:165] Memory required for data: 28315648
I0409 22:13:34.123914 24507 layer_factory.hpp:77] Creating layer label_data_1_split
I0409 22:13:34.123930 24507 net.cpp:100] Creating Layer label_data_1_split
I0409 22:13:34.123935 24507 net.cpp:434] label_data_1_split <- label
I0409 22:13:34.123944 24507 net.cpp:408] label_data_1_split -> label_data_1_split_0
I0409 22:13:34.123957 24507 net.cpp:408] label_data_1_split -> label_data_1_split_1
I0409 22:13:34.123965 24507 net.cpp:408] label_data_1_split -> label_data_1_split_2
I0409 22:13:34.124193 24507 net.cpp:150] Setting up label_data_1_split
I0409 22:13:34.124207 24507 net.cpp:157] Top shape: 1024 (1024)
I0409 22:13:34.124212 24507 net.cpp:157] Top shape: 1024 (1024)
I0409 22:13:34.124215 24507 net.cpp:157] Top shape: 1024 (1024)
I0409 22:13:34.124218 24507 net.cpp:165] Memory required for data: 28327936
I0409 22:13:34.124222 24507 layer_factory.hpp:77] Creating layer conv1
I0409 22:13:34.124240 24507 net.cpp:100] Creating Layer conv1
I0409 22:13:34.124245 24507 net.cpp:434] conv1 <- data
I0409 22:13:34.124253 24507 net.cpp:408] conv1 -> conv1
I0409 22:13:34.126811 24507 net.cpp:150] Setting up conv1
I0409 22:13:34.126832 24507 net.cpp:157] Top shape: 1024 100 42 42 (180633600)
I0409 22:13:34.126842 24507 net.cpp:165] Memory required for data: 750862336
I0409 22:13:34.126855 24507 layer_factory.hpp:77] Creating layer conv1_sTanH
I0409 22:13:34.126864 24507 net.cpp:100] Creating Layer conv1_sTanH
I0409 22:13:34.126868 24507 net.cpp:434] conv1_sTanH <- conv1
I0409 22:13:34.126874 24507 net.cpp:395] conv1_sTanH -> conv1 (in-place)
I0409 22:13:34.127126 24507 net.cpp:150] Setting up conv1_sTanH
I0409 22:13:34.127141 24507 net.cpp:157] Top shape: 1024 100 42 42 (180633600)
I0409 22:13:34.127146 24507 net.cpp:165] Memory required for data: 1473396736
I0409 22:13:34.127149 24507 layer_factory.hpp:77] Creating layer pool1
I0409 22:13:34.127159 24507 net.cpp:100] Creating Layer pool1
I0409 22:13:34.127163 24507 net.cpp:434] pool1 <- conv1
I0409 22:13:34.127179 24507 net.cpp:408] pool1 -> pool1
I0409 22:13:34.127241 24507 net.cpp:150] Setting up pool1
I0409 22:13:34.127251 24507 net.cpp:157] Top shape: 1024 100 21 21 (45158400)
I0409 22:13:34.127255 24507 net.cpp:165] Memory required for data: 1654030336
I0409 22:13:34.127259 24507 layer_factory.hpp:77] Creating layer conv2
I0409 22:13:34.127270 24507 net.cpp:100] Creating Layer conv2
I0409 22:13:34.127279 24507 net.cpp:434] conv2 <- pool1
I0409 22:13:34.127285 24507 net.cpp:408] conv2 -> conv2
I0409 22:13:34.134428 24507 net.cpp:150] Setting up conv2
I0409 22:13:34.134451 24507 net.cpp:157] Top shape: 1024 150 18 18 (49766400)
I0409 22:13:34.134455 24507 net.cpp:165] Memory required for data: 1853095936
I0409 22:13:34.134469 24507 layer_factory.hpp:77] Creating layer conv2_sTanH
I0409 22:13:34.134479 24507 net.cpp:100] Creating Layer conv2_sTanH
I0409 22:13:34.134487 24507 net.cpp:434] conv2_sTanH <- conv2
I0409 22:13:34.134495 24507 net.cpp:395] conv2_sTanH -> conv2 (in-place)
I0409 22:13:34.135535 24507 net.cpp:150] Setting up conv2_sTanH
I0409 22:13:34.135555 24507 net.cpp:157] Top shape: 1024 150 18 18 (49766400)
I0409 22:13:34.135558 24507 net.cpp:165] Memory required for data: 2052161536
I0409 22:13:34.135563 24507 layer_factory.hpp:77] Creating layer pool2
I0409 22:13:34.135582 24507 net.cpp:100] Creating Layer pool2
I0409 22:13:34.135586 24507 net.cpp:434] pool2 <- conv2
I0409 22:13:34.135596 24507 net.cpp:408] pool2 -> pool2
I0409 22:13:34.135669 24507 net.cpp:150] Setting up pool2
I0409 22:13:34.135680 24507 net.cpp:157] Top shape: 1024 150 9 9 (12441600)
I0409 22:13:34.135684 24507 net.cpp:165] Memory required for data: 2101927936
I0409 22:13:34.135689 24507 layer_factory.hpp:77] Creating layer conv3
I0409 22:13:34.135702 24507 net.cpp:100] Creating Layer conv3
I0409 22:13:34.135709 24507 net.cpp:434] conv3 <- pool2
I0409 22:13:34.135717 24507 net.cpp:408] conv3 -> conv3
I0409 22:13:34.149387 24507 net.cpp:150] Setting up conv3
I0409 22:13:34.149416 24507 net.cpp:157] Top shape: 1024 250 6 6 (9216000)
I0409 22:13:34.149421 24507 net.cpp:165] Memory required for data: 2138791936
I0409 22:13:34.149436 24507 layer_factory.hpp:77] Creating layer conv3_sTanH
I0409 22:13:34.149447 24507 net.cpp:100] Creating Layer conv3_sTanH
I0409 22:13:34.149452 24507 net.cpp:434] conv3_sTanH <- conv3
I0409 22:13:34.149459 24507 net.cpp:395] conv3_sTanH -> conv3 (in-place)
I0409 22:13:34.152276 24507 net.cpp:150] Setting up conv3_sTanH
I0409 22:13:34.152298 24507 net.cpp:157] Top shape: 1024 250 6 6 (9216000)
I0409 22:13:34.152323 24507 net.cpp:165] Memory required for data: 2175655936
I0409 22:13:34.152328 24507 layer_factory.hpp:77] Creating layer pool3
I0409 22:13:34.152346 24507 net.cpp:100] Creating Layer pool3
I0409 22:13:34.152354 24507 net.cpp:434] pool3 <- conv3
I0409 22:13:34.152362 24507 net.cpp:408] pool3 -> pool3
I0409 22:13:34.152431 24507 net.cpp:150] Setting up pool3
I0409 22:13:34.152447 24507 net.cpp:157] Top shape: 1024 250 3 3 (2304000)
I0409 22:13:34.152453 24507 net.cpp:165] Memory required for data: 2184871936
I0409 22:13:34.152457 24507 layer_factory.hpp:77] Creating layer fc4_300
I0409 22:13:34.152467 24507 net.cpp:100] Creating Layer fc4_300
I0409 22:13:34.152472 24507 net.cpp:434] fc4_300 <- pool3
I0409 22:13:34.152477 24507 net.cpp:408] fc4_300 -> fc4_300
I0409 22:13:34.159412 24507 net.cpp:150] Setting up fc4_300
I0409 22:13:34.159431 24507 net.cpp:157] Top shape: 1024 300 (307200)
I0409 22:13:34.159436 24507 net.cpp:165] Memory required for data: 2186100736
I0409 22:13:34.159445 24507 layer_factory.hpp:77] Creating layer fc4_sTanH
I0409 22:13:34.159454 24507 net.cpp:100] Creating Layer fc4_sTanH
I0409 22:13:34.159461 24507 net.cpp:434] fc4_sTanH <- fc4_300
I0409 22:13:34.159467 24507 net.cpp:395] fc4_sTanH -> fc4_300 (in-place)
I0409 22:13:34.159713 24507 net.cpp:150] Setting up fc4_sTanH
I0409 22:13:34.159730 24507 net.cpp:157] Top shape: 1024 300 (307200)
I0409 22:13:34.159735 24507 net.cpp:165] Memory required for data: 2187329536
I0409 22:13:34.159739 24507 layer_factory.hpp:77] Creating layer drop4
I0409 22:13:34.159747 24507 net.cpp:100] Creating Layer drop4
I0409 22:13:34.159752 24507 net.cpp:434] drop4 <- fc4_300
I0409 22:13:34.159759 24507 net.cpp:395] drop4 -> fc4_300 (in-place)
I0409 22:13:34.159796 24507 net.cpp:150] Setting up drop4
I0409 22:13:34.159806 24507 net.cpp:157] Top shape: 1024 300 (307200)
I0409 22:13:34.159808 24507 net.cpp:165] Memory required for data: 2188558336
I0409 22:13:34.159812 24507 layer_factory.hpp:77] Creating layer fc5_67
I0409 22:13:34.159821 24507 net.cpp:100] Creating Layer fc5_67
I0409 22:13:34.159826 24507 net.cpp:434] fc5_67 <- fc4_300
I0409 22:13:34.159832 24507 net.cpp:408] fc5_67 -> fc5_classes
I0409 22:13:34.160177 24507 net.cpp:150] Setting up fc5_67
I0409 22:13:34.160190 24507 net.cpp:157] Top shape: 1024 67 (68608)
I0409 22:13:34.160193 24507 net.cpp:165] Memory required for data: 2188832768
I0409 22:13:34.160205 24507 layer_factory.hpp:77] Creating layer fc5_classes_fc5_67_0_split
I0409 22:13:34.160215 24507 net.cpp:100] Creating Layer fc5_classes_fc5_67_0_split
I0409 22:13:34.160220 24507 net.cpp:434] fc5_classes_fc5_67_0_split <- fc5_classes
I0409 22:13:34.160228 24507 net.cpp:408] fc5_classes_fc5_67_0_split -> fc5_classes_fc5_67_0_split_0
I0409 22:13:34.160239 24507 net.cpp:408] fc5_classes_fc5_67_0_split -> fc5_classes_fc5_67_0_split_1
I0409 22:13:34.160250 24507 net.cpp:408] fc5_classes_fc5_67_0_split -> fc5_classes_fc5_67_0_split_2
I0409 22:13:34.162463 24507 net.cpp:150] Setting up fc5_classes_fc5_67_0_split
I0409 22:13:34.162489 24507 net.cpp:157] Top shape: 1024 67 (68608)
I0409 22:13:34.162494 24507 net.cpp:157] Top shape: 1024 67 (68608)
I0409 22:13:34.162498 24507 net.cpp:157] Top shape: 1024 67 (68608)
I0409 22:13:34.162502 24507 net.cpp:165] Memory required for data: 2189656064
I0409 22:13:34.162506 24507 layer_factory.hpp:77] Creating layer loss
I0409 22:13:34.162523 24507 net.cpp:100] Creating Layer loss
I0409 22:13:34.162533 24507 net.cpp:434] loss <- fc5_classes_fc5_67_0_split_0
I0409 22:13:34.162539 24507 net.cpp:434] loss <- label_data_1_split_0
I0409 22:13:34.162545 24507 net.cpp:408] loss -> loss
…
