…
I0508 01:51:07.325687 12211 solver.cpp:93] Creating training net from train_net file: ./Prototxt/experiment_16/RTSD/orig/trial_2/train.prototxt
I0508 01:51:07.326026 12211 net.cpp:58] Initializing net from parameters: 
state {
  phase: TRAIN
  level: 0
  stage: ""
}
layer {
  name: "data"
  type: "Data"
  top: "data"
  top: "label"
  include {
    phase: TRAIN
  }
  transform_param {
    scale: 0.0039215689
    mirror: false
    crop_size: 48
    mean_value: 119
    mean_value: 113
    mean_value: 113
  }
  data_param {
    source: "../local_data/lmdb/RTSD/orig/train/lmdb"
    batch_size: 1024
    backend: LMDB
  }
}
layer {
  name: "conv1"
  type: "Convolution"
  bottom: "data"
  top: "conv1"
  convolution_param {
    num_output: 100
    pad: 0
    kernel_size: 7
    group: 1
    stride: 1
    weight_filler {
      type: "xavier"
    }
  }
}
layer {
  name: "conv1_relu"
  type: "ReLU"
  bottom: "conv1"
  top: "conv1"
}
layer {
  name: "pool1"
  type: "Pooling"
  bottom: "conv1"
  top: "pool1"
  pooling_param {
    pool: MAX
    kernel_size: 2
    stride: 2
  }
}
layer {
  name: "conv2"
  type: "Convolution"
  bottom: "pool1"
  top: "conv2"
  convolution_param {
    num_output: 150
    pad: 0
    kernel_size: 4
    group: 2
    stride: 1
    weight_filler {
      type: "xavier"
    }
  }
}
layer {
  name: "conv2_relu"
  type: "ReLU"
  bottom: "conv2"
  top: "conv2"
}
layer {
  name: "pool2"
  type: "Pooling"
  bottom: "conv2"
  top: "pool2"
  pooling_param {
    pool: MAX
    kernel_size: 2
    stride: 2
  }
}
layer {
  name: "conv3"
  type: "Convolution"
  bottom: "pool2"
  top: "conv3"
  convolution_param {
    num_output: 250
    pad: 0
    kernel_size: 4
    group: 2
    stride: 1
    weight_filler {
      type: "xavier"
    }
  }
}
layer {
  name: "conv3_relu"
  type: "ReLU"
  bottom: "conv3"
  top: "conv3"
}
layer {
  name: "pool3"
  type: "Pooling"
  bottom: "conv3"
  top: "pool3"
  pooling_param {
    pool: MAX
    kernel_size: 2
    stride: 2
  }
}
layer {
  name: "fc4_300"
  type: "InnerProduct"
  bottom: "pool3"
  top: "fc4_300"
  inner_product_param {
    num_output: 300
    weight_filler {
      type: "xavier"
    }
  }
}
layer {
  name: "fc4_relu"
  type: "ReLU"
  bottom: "fc4_300"
  top: "fc4_300"
}
layer {
  name: "fc5_116"
  type: "InnerProduct"
  bottom: "fc4_300"
  top: "fc5_classes"
  inner_product_param {
    num_output: 116
    weight_filler {
      type: "xavier"
    }
  }
}
layer {
  name: "softmax"
  type: "Softmax"
  bottom: "fc5_classes"
  top: "softmax"
}
layer {
  name: "loss"
  type: "MultinomialLogisticLoss"
  bottom: "softmax"
  bottom: "label"
  top: "loss"
}
layer {
  name: "accuracy_1"
  type: "Accuracy"
  bottom: "fc5_classes"
  bottom: "label"
  top: "accuracy_1"
  accuracy_param {
    top_k: 1
  }
}
layer {
  name: "accuracy_5"
  type: "Accuracy"
  bottom: "fc5_classes"
  bottom: "label"
  top: "accuracy_5"
  accuracy_param {
    top_k: 5
  }
}
layer {
  name: "silence"
  type: "Silence"
  bottom: "accuracy_1"
  bottom: "accuracy_5"
}
I0508 01:51:07.326145 12211 layer_factory.hpp:77] Creating layer data
I0508 01:51:07.327422 12211 net.cpp:100] Creating Layer data
I0508 01:51:07.327437 12211 net.cpp:408] data -> data
I0508 01:51:07.327460 12211 net.cpp:408] data -> label
I0508 01:51:07.335650 12327 db_lmdb.cpp:35] Opened lmdb ../local_data/lmdb/RTSD/orig/train/lmdb
I0508 01:51:07.355154 12211 data_layer.cpp:41] output data size: 1024,3,48,48
I0508 01:51:07.432798 12211 net.cpp:150] Setting up data
I0508 01:51:07.432853 12211 net.cpp:157] Top shape: 1024 3 48 48 (7077888)
I0508 01:51:07.432860 12211 net.cpp:157] Top shape: 1024 (1024)
I0508 01:51:07.432863 12211 net.cpp:165] Memory required for data: 28315648
I0508 01:51:07.432874 12211 layer_factory.hpp:77] Creating layer label_data_1_split
I0508 01:51:07.432888 12211 net.cpp:100] Creating Layer label_data_1_split
I0508 01:51:07.432896 12211 net.cpp:434] label_data_1_split <- label
I0508 01:51:07.432910 12211 net.cpp:408] label_data_1_split -> label_data_1_split_0
I0508 01:51:07.432922 12211 net.cpp:408] label_data_1_split -> label_data_1_split_1
I0508 01:51:07.432930 12211 net.cpp:408] label_data_1_split -> label_data_1_split_2
I0508 01:51:07.433019 12211 net.cpp:150] Setting up label_data_1_split
I0508 01:51:07.433028 12211 net.cpp:157] Top shape: 1024 (1024)
I0508 01:51:07.433032 12211 net.cpp:157] Top shape: 1024 (1024)
I0508 01:51:07.433035 12211 net.cpp:157] Top shape: 1024 (1024)
I0508 01:51:07.433038 12211 net.cpp:165] Memory required for data: 28327936
I0508 01:51:07.433042 12211 layer_factory.hpp:77] Creating layer conv1
I0508 01:51:07.433058 12211 net.cpp:100] Creating Layer conv1
I0508 01:51:07.433063 12211 net.cpp:434] conv1 <- data
I0508 01:51:07.433069 12211 net.cpp:408] conv1 -> conv1
I0508 01:51:07.788414 12211 net.cpp:150] Setting up conv1
I0508 01:51:07.788445 12211 net.cpp:157] Top shape: 1024 100 42 42 (180633600)
I0508 01:51:07.788450 12211 net.cpp:165] Memory required for data: 750862336
I0508 01:51:07.788473 12211 layer_factory.hpp:77] Creating layer conv1_relu
I0508 01:51:07.788486 12211 net.cpp:100] Creating Layer conv1_relu
I0508 01:51:07.788491 12211 net.cpp:434] conv1_relu <- conv1
I0508 01:51:07.788497 12211 net.cpp:395] conv1_relu -> conv1 (in-place)
I0508 01:51:07.788728 12211 net.cpp:150] Setting up conv1_relu
I0508 01:51:07.788740 12211 net.cpp:157] Top shape: 1024 100 42 42 (180633600)
I0508 01:51:07.788744 12211 net.cpp:165] Memory required for data: 1473396736
I0508 01:51:07.788748 12211 layer_factory.hpp:77] Creating layer pool1
I0508 01:51:07.788758 12211 net.cpp:100] Creating Layer pool1
I0508 01:51:07.788763 12211 net.cpp:434] pool1 <- conv1
I0508 01:51:07.788767 12211 net.cpp:408] pool1 -> pool1
I0508 01:51:07.788832 12211 net.cpp:150] Setting up pool1
I0508 01:51:07.788841 12211 net.cpp:157] Top shape: 1024 100 21 21 (45158400)
I0508 01:51:07.788846 12211 net.cpp:165] Memory required for data: 1654030336
I0508 01:51:07.788848 12211 layer_factory.hpp:77] Creating layer conv2
I0508 01:51:07.788861 12211 net.cpp:100] Creating Layer conv2
I0508 01:51:07.788864 12211 net.cpp:434] conv2 <- pool1
I0508 01:51:07.788871 12211 net.cpp:408] conv2 -> conv2
I0508 01:51:07.796792 12211 net.cpp:150] Setting up conv2
I0508 01:51:07.796813 12211 net.cpp:157] Top shape: 1024 150 18 18 (49766400)
I0508 01:51:07.796816 12211 net.cpp:165] Memory required for data: 1853095936
I0508 01:51:07.796828 12211 layer_factory.hpp:77] Creating layer conv2_relu
I0508 01:51:07.796838 12211 net.cpp:100] Creating Layer conv2_relu
I0508 01:51:07.796840 12211 net.cpp:434] conv2_relu <- conv2
I0508 01:51:07.796846 12211 net.cpp:395] conv2_relu -> conv2 (in-place)
I0508 01:51:07.797036 12211 net.cpp:150] Setting up conv2_relu
I0508 01:51:07.797049 12211 net.cpp:157] Top shape: 1024 150 18 18 (49766400)
I0508 01:51:07.797053 12211 net.cpp:165] Memory required for data: 2052161536
I0508 01:51:07.797056 12211 layer_factory.hpp:77] Creating layer pool2
I0508 01:51:07.797063 12211 net.cpp:100] Creating Layer pool2
I0508 01:51:07.797067 12211 net.cpp:434] pool2 <- conv2
I0508 01:51:07.797073 12211 net.cpp:408] pool2 -> pool2
I0508 01:51:07.797125 12211 net.cpp:150] Setting up pool2
I0508 01:51:07.797133 12211 net.cpp:157] Top shape: 1024 150 9 9 (12441600)
I0508 01:51:07.797137 12211 net.cpp:165] Memory required for data: 2101927936
I0508 01:51:07.797139 12211 layer_factory.hpp:77] Creating layer conv3
I0508 01:51:07.797152 12211 net.cpp:100] Creating Layer conv3
I0508 01:51:07.797157 12211 net.cpp:434] conv3 <- pool2
I0508 01:51:07.797164 12211 net.cpp:408] conv3 -> conv3
I0508 01:51:07.810104 12211 net.cpp:150] Setting up conv3
I0508 01:51:07.810123 12211 net.cpp:157] Top shape: 1024 250 6 6 (9216000)
I0508 01:51:07.810127 12211 net.cpp:165] Memory required for data: 2138791936
I0508 01:51:07.810138 12211 layer_factory.hpp:77] Creating layer conv3_relu
I0508 01:51:07.810148 12211 net.cpp:100] Creating Layer conv3_relu
I0508 01:51:07.810153 12211 net.cpp:434] conv3_relu <- conv3
I0508 01:51:07.810159 12211 net.cpp:395] conv3_relu -> conv3 (in-place)
I0508 01:51:07.810353 12211 net.cpp:150] Setting up conv3_relu
I0508 01:51:07.810364 12211 net.cpp:157] Top shape: 1024 250 6 6 (9216000)
I0508 01:51:07.810367 12211 net.cpp:165] Memory required for data: 2175655936
I0508 01:51:07.810371 12211 layer_factory.hpp:77] Creating layer pool3
I0508 01:51:07.810379 12211 net.cpp:100] Creating Layer pool3
I0508 01:51:07.810384 12211 net.cpp:434] pool3 <- conv3
I0508 01:51:07.810390 12211 net.cpp:408] pool3 -> pool3
I0508 01:51:07.810436 12211 net.cpp:150] Setting up pool3
I0508 01:51:07.810444 12211 net.cpp:157] Top shape: 1024 250 3 3 (2304000)
I0508 01:51:07.810448 12211 net.cpp:165] Memory required for data: 2184871936
I0508 01:51:07.810451 12211 layer_factory.hpp:77] Creating layer fc4_300
I0508 01:51:07.810458 12211 net.cpp:100] Creating Layer fc4_300
I0508 01:51:07.810463 12211 net.cpp:434] fc4_300 <- pool3
I0508 01:51:07.810467 12211 net.cpp:408] fc4_300 -> fc4_300
I0508 01:51:07.815935 12211 net.cpp:150] Setting up fc4_300
I0508 01:51:07.815953 12211 net.cpp:157] Top shape: 1024 300 (307200)
I0508 01:51:07.815955 12211 net.cpp:165] Memory required for data: 2186100736
I0508 01:51:07.815963 12211 layer_factory.hpp:77] Creating layer fc4_relu
I0508 01:51:07.815970 12211 net.cpp:100] Creating Layer fc4_relu
I0508 01:51:07.815979 12211 net.cpp:434] fc4_relu <- fc4_300
I0508 01:51:07.815984 12211 net.cpp:395] fc4_relu -> fc4_300 (in-place)
I0508 01:51:07.816685 12211 net.cpp:150] Setting up fc4_relu
I0508 01:51:07.816701 12211 net.cpp:157] Top shape: 1024 300 (307200)
I0508 01:51:07.816705 12211 net.cpp:165] Memory required for data: 2187329536
I0508 01:51:07.816709 12211 layer_factory.hpp:77] Creating layer fc5_116
I0508 01:51:07.816715 12211 net.cpp:100] Creating Layer fc5_116
I0508 01:51:07.816720 12211 net.cpp:434] fc5_116 <- fc4_300
I0508 01:51:07.816726 12211 net.cpp:408] fc5_116 -> fc5_classes
I0508 01:51:07.818056 12211 net.cpp:150] Setting up fc5_116
I0508 01:51:07.818071 12211 net.cpp:157] Top shape: 1024 116 (118784)
I0508 01:51:07.818074 12211 net.cpp:165] Memory required for data: 2187804672
I0508 01:51:07.818084 12211 layer_factory.hpp:77] Creating layer fc5_classes_fc5_116_0_split
I0508 01:51:07.818096 12211 net.cpp:100] Creating Layer fc5_classes_fc5_116_0_split
I0508 01:51:07.818100 12211 net.cpp:434] fc5_classes_fc5_116_0_split <- fc5_classes
I0508 01:51:07.818107 12211 net.cpp:408] fc5_classes_fc5_116_0_split -> fc5_classes_fc5_116_0_split_0
I0508 01:51:07.818117 12211 net.cpp:408] fc5_classes_fc5_116_0_split -> fc5_classes_fc5_116_0_split_1
I0508 01:51:07.818125 12211 net.cpp:408] fc5_classes_fc5_116_0_split -> fc5_classes_fc5_116_0_split_2
I0508 01:51:07.818178 12211 net.cpp:150] Setting up fc5_classes_fc5_116_0_split
I0508 01:51:07.818186 12211 net.cpp:157] Top shape: 1024 116 (118784)
I0508 01:51:07.818189 12211 net.cpp:157] Top shape: 1024 116 (118784)
I0508 01:51:07.818193 12211 net.cpp:157] Top shape: 1024 116 (118784)
I0508 01:51:07.818197 12211 net.cpp:165] Memory required for data: 2189230080
I0508 01:51:07.818199 12211 layer_factory.hpp:77] Creating layer softmax
I0508 01:51:07.818207 12211 net.cpp:100] Creating Layer softmax
I0508 01:51:07.818209 12211 net.cpp:434] softmax <- fc5_classes_fc5_116_0_split_0
I0508 01:51:07.818214 12211 net.cpp:408] softmax -> softmax
I0508 01:51:07.818476 12211 net.cpp:150] Setting up softmax
I0508 01:51:07.818488 12211 net.cpp:157] Top shape: 1024 116 (118784)
I0508 01:51:07.818491 12211 net.cpp:165] Memory required for data: 2189705216
I0508 01:51:07.818495 12211 layer_factory.hpp:77] Creating layer loss
I0508 01:51:07.818506 12211 net.cpp:100] Creating Layer loss
I0508 01:51:07.818526 12211 net.cpp:434] loss <- softmax
I0508 01:51:07.818531 12211 net.cpp:434] loss <- label_data_1_split_0
I0508 01:51:07.818538 12211 net.cpp:408] loss -> loss
…
