…
I0409 06:30:31.917387 16924 net.cpp:322] The NetState phase (0) differed from the phase (1) specified by a rule in layer accuracy_5
I0409 06:30:31.917569 16924 net.cpp:58] Initializing net from parameters: 
state {
  phase: TRAIN
  level: 0
  stage: ""
}
layer {
  name: "data"
  type: "Data"
  top: "data"
  top: "label"
  include {
    phase: TRAIN
  }
  transform_param {
    mirror: false
    crop_size: 48
    mean_value: 122
    mean_value: 115
    mean_value: 129
  }
  data_param {
    source: "../local_data/lmdb/rtsd-r1/orig/train/lmdb"
    batch_size: 1024
    backend: LMDB
  }
}
layer {
  name: "conv1"
  type: "Convolution"
  bottom: "data"
  top: "conv1"
  convolution_param {
    num_output: 100
    pad: 0
    kernel_size: 7
    group: 1
    stride: 1
    weight_filler {
      type: "xavier"
    }
  }
}
layer {
  name: "conv1_relu"
  type: "ReLU"
  bottom: "conv1"
  top: "conv1"
}
layer {
  name: "pool1"
  type: "Pooling"
  bottom: "conv1"
  top: "pool1"
  pooling_param {
    pool: MAX
    kernel_size: 2
    stride: 2
  }
}
layer {
  name: "conv2"
  type: "Convolution"
  bottom: "pool1"
  top: "conv2"
  convolution_param {
    num_output: 150
    pad: 0
    kernel_size: 4
    group: 1
    stride: 1
    weight_filler {
      type: "xavier"
    }
  }
}
layer {
  name: "conv2_relu"
  type: "ReLU"
  bottom: "conv2"
  top: "conv2"
}
layer {
  name: "pool2"
  type: "Pooling"
  bottom: "conv2"
  top: "pool2"
  pooling_param {
    pool: MAX
    kernel_size: 2
    stride: 2
  }
}
layer {
  name: "conv3"
  type: "Convolution"
  bottom: "pool2"
  top: "conv3"
  convolution_param {
    num_output: 250
    pad: 0
    kernel_size: 4
    group: 1
    stride: 1
    weight_filler {
      type: "xavier"
    }
  }
}
layer {
  name: "conv3_relu"
  type: "ReLU"
  bottom: "conv3"
  top: "conv3"
}
layer {
  name: "pool3"
  type: "Pooling"
  bottom: "conv3"
  top: "pool3"
  pooling_param {
    pool: MAX
    kernel_size: 2
    stride: 2
  }
}
layer {
  name: "fc4_300"
  type: "InnerProduct"
  bottom: "pool3"
  top: "fc4_300"
  inner_product_param {
    num_output: 300
    weight_filler {
      type: "xavier"
    }
  }
}
layer {
  name: "fc4_relu"
  type: "ReLU"
  bottom: "fc4_300"
  top: "fc4_300"
}
layer {
  name: "drop4"
  type: "Dropout"
  bottom: "fc4_300"
  top: "fc4_300"
  dropout_param {
    dropout_ratio: 0.4
  }
}
layer {
  name: "fc5_67"
  type: "InnerProduct"
  bottom: "fc4_300"
  top: "fc5_classes"
  inner_product_param {
    num_output: 67
    weight_filler {
      type: "xavier"
    }
  }
}
layer {
  name: "loss"
  type: "SoftmaxWithLoss"
  bottom: "fc5_classes"
  bottom: "label"
  top: "loss"
}
I0409 06:30:31.917704 16924 layer_factory.hpp:77] Creating layer data
I0409 06:30:31.919770 16924 net.cpp:100] Creating Layer data
I0409 06:30:31.919800 16924 net.cpp:408] data -> data
I0409 06:30:31.919838 16924 net.cpp:408] data -> label
I0409 06:30:31.921119 16992 db_lmdb.cpp:35] Opened lmdb ../local_data/lmdb/rtsd-r1/orig/train/lmdb
I0409 06:30:31.949532 16924 data_layer.cpp:41] output data size: 1024,3,48,48
I0409 06:30:32.013279 16924 net.cpp:150] Setting up data
I0409 06:30:32.013319 16924 net.cpp:157] Top shape: 1024 3 48 48 (7077888)
I0409 06:30:32.013326 16924 net.cpp:157] Top shape: 1024 (1024)
I0409 06:30:32.013358 16924 net.cpp:165] Memory required for data: 28315648
I0409 06:30:32.013371 16924 layer_factory.hpp:77] Creating layer conv1
I0409 06:30:32.013402 16924 net.cpp:100] Creating Layer conv1
I0409 06:30:32.013414 16924 net.cpp:434] conv1 <- data
I0409 06:30:32.013430 16924 net.cpp:408] conv1 -> conv1
I0409 06:30:32.358350 16924 net.cpp:150] Setting up conv1
I0409 06:30:32.358391 16924 net.cpp:157] Top shape: 1024 100 42 42 (180633600)
I0409 06:30:32.358397 16924 net.cpp:165] Memory required for data: 750850048
I0409 06:30:32.358423 16924 layer_factory.hpp:77] Creating layer conv1_relu
I0409 06:30:32.358439 16924 net.cpp:100] Creating Layer conv1_relu
I0409 06:30:32.358445 16924 net.cpp:434] conv1_relu <- conv1
I0409 06:30:32.358454 16924 net.cpp:395] conv1_relu -> conv1 (in-place)
I0409 06:30:32.358695 16924 net.cpp:150] Setting up conv1_relu
I0409 06:30:32.358711 16924 net.cpp:157] Top shape: 1024 100 42 42 (180633600)
I0409 06:30:32.358716 16924 net.cpp:165] Memory required for data: 1473384448
I0409 06:30:32.358722 16924 layer_factory.hpp:77] Creating layer pool1
I0409 06:30:32.358731 16924 net.cpp:100] Creating Layer pool1
I0409 06:30:32.358739 16924 net.cpp:434] pool1 <- conv1
I0409 06:30:32.358747 16924 net.cpp:408] pool1 -> pool1
I0409 06:30:32.358811 16924 net.cpp:150] Setting up pool1
I0409 06:30:32.358824 16924 net.cpp:157] Top shape: 1024 100 21 21 (45158400)
I0409 06:30:32.358829 16924 net.cpp:165] Memory required for data: 1654018048
I0409 06:30:32.358834 16924 layer_factory.hpp:77] Creating layer conv2
I0409 06:30:32.358849 16924 net.cpp:100] Creating Layer conv2
I0409 06:30:32.358855 16924 net.cpp:434] conv2 <- pool1
I0409 06:30:32.358862 16924 net.cpp:408] conv2 -> conv2
I0409 06:30:32.364109 16924 net.cpp:150] Setting up conv2
I0409 06:30:32.364131 16924 net.cpp:157] Top shape: 1024 150 18 18 (49766400)
I0409 06:30:32.364136 16924 net.cpp:165] Memory required for data: 1853083648
I0409 06:30:32.364151 16924 layer_factory.hpp:77] Creating layer conv2_relu
I0409 06:30:32.364161 16924 net.cpp:100] Creating Layer conv2_relu
I0409 06:30:32.364166 16924 net.cpp:434] conv2_relu <- conv2
I0409 06:30:32.364172 16924 net.cpp:395] conv2_relu -> conv2 (in-place)
I0409 06:30:32.365072 16924 net.cpp:150] Setting up conv2_relu
I0409 06:30:32.365093 16924 net.cpp:157] Top shape: 1024 150 18 18 (49766400)
I0409 06:30:32.365098 16924 net.cpp:165] Memory required for data: 2052149248
I0409 06:30:32.365103 16924 layer_factory.hpp:77] Creating layer pool2
I0409 06:30:32.365113 16924 net.cpp:100] Creating Layer pool2
I0409 06:30:32.365118 16924 net.cpp:434] pool2 <- conv2
I0409 06:30:32.365126 16924 net.cpp:408] pool2 -> pool2
I0409 06:30:32.365183 16924 net.cpp:150] Setting up pool2
I0409 06:30:32.365195 16924 net.cpp:157] Top shape: 1024 150 9 9 (12441600)
I0409 06:30:32.365200 16924 net.cpp:165] Memory required for data: 2101915648
I0409 06:30:32.365205 16924 layer_factory.hpp:77] Creating layer conv3
I0409 06:30:32.365216 16924 net.cpp:100] Creating Layer conv3
I0409 06:30:32.365224 16924 net.cpp:434] conv3 <- pool2
I0409 06:30:32.365231 16924 net.cpp:408] conv3 -> conv3
I0409 06:30:32.371953 16924 net.cpp:150] Setting up conv3
I0409 06:30:32.371975 16924 net.cpp:157] Top shape: 1024 250 6 6 (9216000)
I0409 06:30:32.371980 16924 net.cpp:165] Memory required for data: 2138779648
I0409 06:30:32.371994 16924 layer_factory.hpp:77] Creating layer conv3_relu
I0409 06:30:32.372005 16924 net.cpp:100] Creating Layer conv3_relu
I0409 06:30:32.372011 16924 net.cpp:434] conv3_relu <- conv3
I0409 06:30:32.372018 16924 net.cpp:395] conv3_relu -> conv3 (in-place)
I0409 06:30:32.372944 16924 net.cpp:150] Setting up conv3_relu
I0409 06:30:32.372963 16924 net.cpp:157] Top shape: 1024 250 6 6 (9216000)
I0409 06:30:32.372969 16924 net.cpp:165] Memory required for data: 2175643648
I0409 06:30:32.372974 16924 layer_factory.hpp:77] Creating layer pool3
I0409 06:30:32.372983 16924 net.cpp:100] Creating Layer pool3
I0409 06:30:32.372990 16924 net.cpp:434] pool3 <- conv3
I0409 06:30:32.372998 16924 net.cpp:408] pool3 -> pool3
I0409 06:30:32.373081 16924 net.cpp:150] Setting up pool3
I0409 06:30:32.373095 16924 net.cpp:157] Top shape: 1024 250 3 3 (2304000)
I0409 06:30:32.373100 16924 net.cpp:165] Memory required for data: 2184859648
I0409 06:30:32.373105 16924 layer_factory.hpp:77] Creating layer fc4_300
I0409 06:30:32.373113 16924 net.cpp:100] Creating Layer fc4_300
I0409 06:30:32.373119 16924 net.cpp:434] fc4_300 <- pool3
I0409 06:30:32.373126 16924 net.cpp:408] fc4_300 -> fc4_300
I0409 06:30:32.379736 16924 net.cpp:150] Setting up fc4_300
I0409 06:30:32.379756 16924 net.cpp:157] Top shape: 1024 300 (307200)
I0409 06:30:32.379761 16924 net.cpp:165] Memory required for data: 2186088448
I0409 06:30:32.379771 16924 layer_factory.hpp:77] Creating layer fc4_relu
I0409 06:30:32.379781 16924 net.cpp:100] Creating Layer fc4_relu
I0409 06:30:32.379786 16924 net.cpp:434] fc4_relu <- fc4_300
I0409 06:30:32.379793 16924 net.cpp:395] fc4_relu -> fc4_300 (in-place)
I0409 06:30:32.380028 16924 net.cpp:150] Setting up fc4_relu
I0409 06:30:32.380044 16924 net.cpp:157] Top shape: 1024 300 (307200)
I0409 06:30:32.380049 16924 net.cpp:165] Memory required for data: 2187317248
I0409 06:30:32.380054 16924 layer_factory.hpp:77] Creating layer drop4
I0409 06:30:32.380064 16924 net.cpp:100] Creating Layer drop4
I0409 06:30:32.380069 16924 net.cpp:434] drop4 <- fc4_300
I0409 06:30:32.380076 16924 net.cpp:395] drop4 -> fc4_300 (in-place)
I0409 06:30:32.380115 16924 net.cpp:150] Setting up drop4
I0409 06:30:32.380125 16924 net.cpp:157] Top shape: 1024 300 (307200)
I0409 06:30:32.380131 16924 net.cpp:165] Memory required for data: 2188546048
I0409 06:30:32.380136 16924 layer_factory.hpp:77] Creating layer fc5_67
I0409 06:30:32.380143 16924 net.cpp:100] Creating Layer fc5_67
I0409 06:30:32.380148 16924 net.cpp:434] fc5_67 <- fc4_300
I0409 06:30:32.380156 16924 net.cpp:408] fc5_67 -> fc5_classes
I0409 06:30:32.381582 16924 net.cpp:150] Setting up fc5_67
I0409 06:30:32.381602 16924 net.cpp:157] Top shape: 1024 67 (68608)
I0409 06:30:32.381606 16924 net.cpp:165] Memory required for data: 2188820480
I0409 06:30:32.381620 16924 layer_factory.hpp:77] Creating layer loss
I0409 06:30:32.381630 16924 net.cpp:100] Creating Layer loss
I0409 06:30:32.381635 16924 net.cpp:434] loss <- fc5_classes
I0409 06:30:32.381641 16924 net.cpp:434] loss <- label
I0409 06:30:32.381649 16924 net.cpp:408] loss -> loss
I0409 06:30:32.381665 16924 layer_factory.hpp:77] Creating layer loss
…
I0409 06:30:32.382454 16924 solver.cpp:193] Creating test net (#0) specified by test_net file: ./Prototxt/experiment_6/rtsd-r1/orig/trial_3/test.prototxt
I0409 06:30:32.382627 16924 net.cpp:58] Initializing net from parameters: 
state {
  phase: TEST
}
layer {
  name: "data"
  type: "Data"
  top: "data"
  top: "label"
  include {
    phase: TEST
  }
  transform_param {
    mirror: false
    crop_size: 48
    mean_value: 113
    mean_value: 110
    mean_value: 132
  }
  data_param {
    source: "../local_data/lmdb/rtsd-r1/orig/test/lmdb"
    batch_size: 1024
    backend: LMDB
  }
}
layer {
  name: "conv1"
  type: "Convolution"
  bottom: "data"
  top: "conv1"
  convolution_param {
    num_output: 100
    pad: 0
    kernel_size: 7
    group: 1
    stride: 1
    weight_filler {
      type: "xavier"
    }
  }
}
layer {
  name: "conv1_relu"
  type: "ReLU"
  bottom: "conv1"
  top: "conv1"
}
layer {
  name: "pool1"
  type: "Pooling"
  bottom: "conv1"
  top: "pool1"
  pooling_param {
    pool: MAX
    kernel_size: 2
    stride: 2
  }
}
layer {
  name: "conv2"
  type: "Convolution"
  bottom: "pool1"
  top: "conv2"
  convolution_param {
    num_output: 150
    pad: 0
    kernel_size: 4
    group: 1
    stride: 1
    weight_filler {
      type: "xavier"
    }
  }
}
layer {
  name: "conv2_relu"
  type: "ReLU"
  bottom: "conv2"
  top: "conv2"
}
layer {
  name: "pool2"
  type: "Pooling"
  bottom: "conv2"
  top: "pool2"
  pooling_param {
    pool: MAX
    kernel_size: 2
    stride: 2
  }
}
layer {
  name: "conv3"
  type: "Convolution"
  bottom: "pool2"
  top: "conv3"
  convolution_param {
    num_output: 250
    pad: 0
    kernel_size: 4
    group: 1
    stride: 1
    weight_filler {
      type: "xavier"
    }
  }
}
layer {
  name: "conv3_relu"
  type: "ReLU"
  bottom: "conv3"
  top: "conv3"
}
layer {
  name: "pool3"
  type: "Pooling"
  bottom: "conv3"
  top: "pool3"
  pooling_param {
    pool: MAX
    kernel_size: 2
    stride: 2
  }
}
layer {
  name: "fc4_300"
  type: "InnerProduct"
  bottom: "pool3"
  top: "fc4_300"
  inner_product_param {
    num_output: 300
    weight_filler {
      type: "xavier"
    }
  }
}
layer {
  name: "fc4_relu"
  type: "ReLU"
  bottom: "fc4_300"
  top: "fc4_300"
}
layer {
  name: "drop4"
  type: "Dropout"
  bottom: "fc4_300"
  top: "fc4_300"
  dropout_param {
    dropout_ratio: 0.4
  }
}
layer {
  name: "fc5_67"
  type: "InnerProduct"
  bottom: "fc4_300"
  top: "fc5_classes"
  inner_product_param {
    num_output: 67
    weight_filler {
      type: "xavier"
    }
  }
}
layer {
  name: "loss"
  type: "SoftmaxWithLoss"
  bottom: "fc5_classes"
  bottom: "label"
  top: "loss"
}
layer {
  name: "accuracy_1"
  type: "Accuracy"
  bottom: "fc5_classes"
  bottom: "label"
  top: "accuracy_1"
  include {
    phase: TEST
  }
  accuracy_param {
    top_k: 1
  }
}
layer {
  name: "accuracy_5"
  type: "Accuracy"
  bottom: "fc5_classes"
  bottom: "label"
  top: "accuracy_5"
  include {
    phase: TEST
  }
  accuracy_param {
    top_k: 5
  }
}
I0409 06:30:32.382730 16924 layer_factory.hpp:77] Creating layer data
I0409 06:30:32.383425 16924 net.cpp:100] Creating Layer data
I0409 06:30:32.383440 16924 net.cpp:408] data -> data
I0409 06:30:32.383451 16924 net.cpp:408] data -> label
I0409 06:30:32.385095 17004 db_lmdb.cpp:35] Opened lmdb ../local_data/lmdb/rtsd-r1/orig/test/lmdb
I0409 06:30:32.385303 16924 data_layer.cpp:41] output data size: 1024,3,48,48
I0409 06:30:32.442349 16924 net.cpp:150] Setting up data
I0409 06:30:32.442390 16924 net.cpp:157] Top shape: 1024 3 48 48 (7077888)
I0409 06:30:32.442400 16924 net.cpp:157] Top shape: 1024 (1024)
I0409 06:30:32.442407 16924 net.cpp:165] Memory required for data: 28315648
I0409 06:30:32.442417 16924 layer_factory.hpp:77] Creating layer label_data_1_split
I0409 06:30:32.442440 16924 net.cpp:100] Creating Layer label_data_1_split
I0409 06:30:32.442450 16924 net.cpp:434] label_data_1_split <- label
I0409 06:30:32.442462 16924 net.cpp:408] label_data_1_split -> label_data_1_split_0
I0409 06:30:32.442482 16924 net.cpp:408] label_data_1_split -> label_data_1_split_1
I0409 06:30:32.442497 16924 net.cpp:408] label_data_1_split -> label_data_1_split_2
I0409 06:30:32.442684 16924 net.cpp:150] Setting up label_data_1_split
I0409 06:30:32.442700 16924 net.cpp:157] Top shape: 1024 (1024)
I0409 06:30:32.442708 16924 net.cpp:157] Top shape: 1024 (1024)
I0409 06:30:32.442715 16924 net.cpp:157] Top shape: 1024 (1024)
I0409 06:30:32.442721 16924 net.cpp:165] Memory required for data: 28327936
I0409 06:30:32.442729 16924 layer_factory.hpp:77] Creating layer conv1
I0409 06:30:32.442749 16924 net.cpp:100] Creating Layer conv1
I0409 06:30:32.442759 16924 net.cpp:434] conv1 <- data
I0409 06:30:32.442770 16924 net.cpp:408] conv1 -> conv1
I0409 06:30:32.449390 16924 net.cpp:150] Setting up conv1
I0409 06:30:32.449421 16924 net.cpp:157] Top shape: 1024 100 42 42 (180633600)
I0409 06:30:32.449434 16924 net.cpp:165] Memory required for data: 750862336
I0409 06:30:32.449455 16924 layer_factory.hpp:77] Creating layer conv1_relu
I0409 06:30:32.449471 16924 net.cpp:100] Creating Layer conv1_relu
I0409 06:30:32.449481 16924 net.cpp:434] conv1_relu <- conv1
I0409 06:30:32.449491 16924 net.cpp:395] conv1_relu -> conv1 (in-place)
I0409 06:30:32.449796 16924 net.cpp:150] Setting up conv1_relu
I0409 06:30:32.449816 16924 net.cpp:157] Top shape: 1024 100 42 42 (180633600)
I0409 06:30:32.449825 16924 net.cpp:165] Memory required for data: 1473396736
I0409 06:30:32.449832 16924 layer_factory.hpp:77] Creating layer pool1
I0409 06:30:32.449848 16924 net.cpp:100] Creating Layer pool1
I0409 06:30:32.449857 16924 net.cpp:434] pool1 <- conv1
I0409 06:30:32.449870 16924 net.cpp:408] pool1 -> pool1
I0409 06:30:32.449950 16924 net.cpp:150] Setting up pool1
I0409 06:30:32.449965 16924 net.cpp:157] Top shape: 1024 100 21 21 (45158400)
I0409 06:30:32.449972 16924 net.cpp:165] Memory required for data: 1654030336
I0409 06:30:32.449980 16924 layer_factory.hpp:77] Creating layer conv2
I0409 06:30:32.449997 16924 net.cpp:100] Creating Layer conv2
I0409 06:30:32.450006 16924 net.cpp:434] conv2 <- pool1
I0409 06:30:32.450019 16924 net.cpp:408] conv2 -> conv2
I0409 06:30:32.458652 16924 net.cpp:150] Setting up conv2
I0409 06:30:32.458681 16924 net.cpp:157] Top shape: 1024 150 18 18 (49766400)
I0409 06:30:32.458690 16924 net.cpp:165] Memory required for data: 1853095936
I0409 06:30:32.458711 16924 layer_factory.hpp:77] Creating layer conv2_relu
I0409 06:30:32.458727 16924 net.cpp:100] Creating Layer conv2_relu
I0409 06:30:32.458736 16924 net.cpp:434] conv2_relu <- conv2
I0409 06:30:32.458747 16924 net.cpp:395] conv2_relu -> conv2 (in-place)
I0409 06:30:32.460009 16924 net.cpp:150] Setting up conv2_relu
I0409 06:30:32.460036 16924 net.cpp:157] Top shape: 1024 150 18 18 (49766400)
I0409 06:30:32.460044 16924 net.cpp:165] Memory required for data: 2052161536
I0409 06:30:32.460057 16924 layer_factory.hpp:77] Creating layer pool2
I0409 06:30:32.460069 16924 net.cpp:100] Creating Layer pool2
I0409 06:30:32.460078 16924 net.cpp:434] pool2 <- conv2
I0409 06:30:32.460091 16924 net.cpp:408] pool2 -> pool2
I0409 06:30:32.460180 16924 net.cpp:150] Setting up pool2
I0409 06:30:32.460196 16924 net.cpp:157] Top shape: 1024 150 9 9 (12441600)
I0409 06:30:32.460204 16924 net.cpp:165] Memory required for data: 2101927936
I0409 06:30:32.460211 16924 layer_factory.hpp:77] Creating layer conv3
I0409 06:30:32.460229 16924 net.cpp:100] Creating Layer conv3
I0409 06:30:32.460238 16924 net.cpp:434] conv3 <- pool2
I0409 06:30:32.460250 16924 net.cpp:408] conv3 -> conv3
I0409 06:30:32.469311 16924 net.cpp:150] Setting up conv3
I0409 06:30:32.469337 16924 net.cpp:157] Top shape: 1024 250 6 6 (9216000)
I0409 06:30:32.469344 16924 net.cpp:165] Memory required for data: 2138791936
I0409 06:30:32.469362 16924 layer_factory.hpp:77] Creating layer conv3_relu
I0409 06:30:32.469375 16924 net.cpp:100] Creating Layer conv3_relu
I0409 06:30:32.469385 16924 net.cpp:434] conv3_relu <- conv3
I0409 06:30:32.469398 16924 net.cpp:395] conv3_relu -> conv3 (in-place)
I0409 06:30:32.470751 16924 net.cpp:150] Setting up conv3_relu
I0409 06:30:32.470773 16924 net.cpp:157] Top shape: 1024 250 6 6 (9216000)
I0409 06:30:32.470782 16924 net.cpp:165] Memory required for data: 2175655936
I0409 06:30:32.470813 16924 layer_factory.hpp:77] Creating layer pool3
I0409 06:30:32.470829 16924 net.cpp:100] Creating Layer pool3
I0409 06:30:32.470836 16924 net.cpp:434] pool3 <- conv3
I0409 06:30:32.470849 16924 net.cpp:408] pool3 -> pool3
I0409 06:30:32.470927 16924 net.cpp:150] Setting up pool3
I0409 06:30:32.470947 16924 net.cpp:157] Top shape: 1024 250 3 3 (2304000)
I0409 06:30:32.470954 16924 net.cpp:165] Memory required for data: 2184871936
I0409 06:30:32.470962 16924 layer_factory.hpp:77] Creating layer fc4_300
I0409 06:30:32.470974 16924 net.cpp:100] Creating Layer fc4_300
I0409 06:30:32.470983 16924 net.cpp:434] fc4_300 <- pool3
I0409 06:30:32.470993 16924 net.cpp:408] fc4_300 -> fc4_300
I0409 06:30:32.479363 16924 net.cpp:150] Setting up fc4_300
I0409 06:30:32.479390 16924 net.cpp:157] Top shape: 1024 300 (307200)
I0409 06:30:32.479398 16924 net.cpp:165] Memory required for data: 2186100736
I0409 06:30:32.479410 16924 layer_factory.hpp:77] Creating layer fc4_relu
I0409 06:30:32.479423 16924 net.cpp:100] Creating Layer fc4_relu
I0409 06:30:32.479431 16924 net.cpp:434] fc4_relu <- fc4_300
I0409 06:30:32.479442 16924 net.cpp:395] fc4_relu -> fc4_300 (in-place)
I0409 06:30:32.479729 16924 net.cpp:150] Setting up fc4_relu
I0409 06:30:32.479746 16924 net.cpp:157] Top shape: 1024 300 (307200)
I0409 06:30:32.479753 16924 net.cpp:165] Memory required for data: 2187329536
I0409 06:30:32.479760 16924 layer_factory.hpp:77] Creating layer drop4
I0409 06:30:32.479773 16924 net.cpp:100] Creating Layer drop4
I0409 06:30:32.479780 16924 net.cpp:434] drop4 <- fc4_300
I0409 06:30:32.479790 16924 net.cpp:395] drop4 -> fc4_300 (in-place)
I0409 06:30:32.479835 16924 net.cpp:150] Setting up drop4
I0409 06:30:32.479846 16924 net.cpp:157] Top shape: 1024 300 (307200)
I0409 06:30:32.479854 16924 net.cpp:165] Memory required for data: 2188558336
I0409 06:30:32.479859 16924 layer_factory.hpp:77] Creating layer fc5_67
I0409 06:30:32.479876 16924 net.cpp:100] Creating Layer fc5_67
I0409 06:30:32.479893 16924 net.cpp:434] fc5_67 <- fc4_300
I0409 06:30:32.479903 16924 net.cpp:408] fc5_67 -> fc5_classes
I0409 06:30:32.480280 16924 net.cpp:150] Setting up fc5_67
I0409 06:30:32.480293 16924 net.cpp:157] Top shape: 1024 67 (68608)
I0409 06:30:32.480301 16924 net.cpp:165] Memory required for data: 2188832768
I0409 06:30:32.480316 16924 layer_factory.hpp:77] Creating layer fc5_classes_fc5_67_0_split
I0409 06:30:32.480329 16924 net.cpp:100] Creating Layer fc5_classes_fc5_67_0_split
I0409 06:30:32.480337 16924 net.cpp:434] fc5_classes_fc5_67_0_split <- fc5_classes
I0409 06:30:32.480348 16924 net.cpp:408] fc5_classes_fc5_67_0_split -> fc5_classes_fc5_67_0_split_0
I0409 06:30:32.480361 16924 net.cpp:408] fc5_classes_fc5_67_0_split -> fc5_classes_fc5_67_0_split_1
I0409 06:30:32.480376 16924 net.cpp:408] fc5_classes_fc5_67_0_split -> fc5_classes_fc5_67_0_split_2
I0409 06:30:32.480450 16924 net.cpp:150] Setting up fc5_classes_fc5_67_0_split
I0409 06:30:32.480464 16924 net.cpp:157] Top shape: 1024 67 (68608)
I0409 06:30:32.480474 16924 net.cpp:157] Top shape: 1024 67 (68608)
I0409 06:30:32.480481 16924 net.cpp:157] Top shape: 1024 67 (68608)
I0409 06:30:32.480489 16924 net.cpp:165] Memory required for data: 2189656064
I0409 06:30:32.480494 16924 layer_factory.hpp:77] Creating layer loss
I0409 06:30:32.480509 16924 net.cpp:100] Creating Layer loss
I0409 06:30:32.480517 16924 net.cpp:434] loss <- fc5_classes_fc5_67_0_split_0
I0409 06:30:32.480527 16924 net.cpp:434] loss <- label_data_1_split_0
I0409 06:30:32.480537 16924 net.cpp:408] loss -> loss
…
