…
I0507 00:28:38.197952  4945 solver.cpp:93] Creating training net from train_net file: ./Prototxt/experiment_14/RTSD/CoNorm/trial_1/train.prototxt
I0507 00:28:38.198323  4945 net.cpp:58] Initializing net from parameters: 
state {
  phase: TRAIN
  level: 0
  stage: ""
}
layer {
  name: "data"
  type: "Data"
  top: "data"
  top: "label"
  include {
    phase: TRAIN
  }
  transform_param {
    scale: 0.0039215689
    mirror: false
    crop_size: 48
    mean_value: 135
    mean_value: 135
    mean_value: 134
  }
  data_param {
    source: "../local_data/lmdb/RTSD/CoNorm/train/lmdb"
    batch_size: 512
    backend: LMDB
  }
}
layer {
  name: "conv1"
  type: "Convolution"
  bottom: "data"
  top: "conv1"
  convolution_param {
    num_output: 100
    pad: 0
    kernel_size: 7
    group: 1
    stride: 1
    weight_filler {
      type: "xavier"
    }
  }
}
layer {
  name: "conv1_relu"
  type: "ReLU"
  bottom: "conv1"
  top: "conv1"
}
layer {
  name: "pool1"
  type: "Pooling"
  bottom: "conv1"
  top: "pool1"
  pooling_param {
    pool: MAX
    kernel_size: 2
    stride: 2
  }
}
layer {
  name: "conv2"
  type: "Convolution"
  bottom: "pool1"
  top: "conv2"
  convolution_param {
    num_output: 150
    pad: 0
    kernel_size: 4
    group: 1
    stride: 1
    weight_filler {
      type: "xavier"
    }
  }
}
layer {
  name: "conv2_relu"
  type: "ReLU"
  bottom: "conv2"
  top: "conv2"
}
layer {
  name: "pool2"
  type: "Pooling"
  bottom: "conv2"
  top: "pool2"
  pooling_param {
    pool: MAX
    kernel_size: 2
    stride: 2
  }
}
layer {
  name: "conv3"
  type: "Convolution"
  bottom: "pool2"
  top: "conv3"
  convolution_param {
    num_output: 250
    pad: 0
    kernel_size: 4
    group: 1
    stride: 1
    weight_filler {
      type: "xavier"
    }
  }
}
layer {
  name: "conv3_relu"
  type: "ReLU"
  bottom: "conv3"
  top: "conv3"
}
layer {
  name: "pool3"
  type: "Pooling"
  bottom: "conv3"
  top: "pool3"
  pooling_param {
    pool: MAX
    kernel_size: 2
    stride: 2
  }
}
layer {
  name: "fc4_300"
  type: "InnerProduct"
  bottom: "pool3"
  top: "fc4_300"
  inner_product_param {
    num_output: 300
    weight_filler {
      type: "xavier"
    }
  }
}
layer {
  name: "fc4_relu"
  type: "ReLU"
  bottom: "fc4_300"
  top: "fc4_300"
}
layer {
  name: "fc5_116"
  type: "InnerProduct"
  bottom: "fc4_300"
  top: "fc5_classes"
  inner_product_param {
    num_output: 116
    weight_filler {
      type: "xavier"
    }
  }
}
layer {
  name: "softmax"
  type: "Softmax"
  bottom: "fc5_classes"
  top: "softmax"
}
layer {
  name: "loss"
  type: "MultinomialLogisticLoss"
  bottom: "softmax"
  bottom: "label"
  top: "loss"
}
layer {
  name: "accuracy_1"
  type: "Accuracy"
  bottom: "fc5_classes"
  bottom: "label"
  top: "accuracy_1"
  accuracy_param {
    top_k: 1
  }
}
layer {
  name: "accuracy_5"
  type: "Accuracy"
  bottom: "fc5_classes"
  bottom: "label"
  top: "accuracy_5"
  accuracy_param {
    top_k: 5
  }
}
layer {
  name: "silence"
  type: "Silence"
  bottom: "accuracy_1"
  bottom: "accuracy_5"
}
I0507 00:28:38.198457  4945 layer_factory.hpp:77] Creating layer data
I0507 00:28:38.199245  4945 net.cpp:100] Creating Layer data
I0507 00:28:38.199259  4945 net.cpp:408] data -> data
I0507 00:28:38.199282  4945 net.cpp:408] data -> label
I0507 00:28:38.205723  5111 db_lmdb.cpp:35] Opened lmdb ../local_data/lmdb/RTSD/CoNorm/train/lmdb
I0507 00:28:38.233131  4945 data_layer.cpp:41] output data size: 512,3,48,48
I0507 00:28:38.292856  4945 net.cpp:150] Setting up data
I0507 00:28:38.292901  4945 net.cpp:157] Top shape: 512 3 48 48 (3538944)
I0507 00:28:38.292906  4945 net.cpp:157] Top shape: 512 (512)
I0507 00:28:38.292909  4945 net.cpp:165] Memory required for data: 14157824
I0507 00:28:38.292920  4945 layer_factory.hpp:77] Creating layer label_data_1_split
I0507 00:28:38.292934  4945 net.cpp:100] Creating Layer label_data_1_split
I0507 00:28:38.292939  4945 net.cpp:434] label_data_1_split <- label
I0507 00:28:38.292955  4945 net.cpp:408] label_data_1_split -> label_data_1_split_0
I0507 00:28:38.292968  4945 net.cpp:408] label_data_1_split -> label_data_1_split_1
I0507 00:28:38.292975  4945 net.cpp:408] label_data_1_split -> label_data_1_split_2
I0507 00:28:38.293061  4945 net.cpp:150] Setting up label_data_1_split
I0507 00:28:38.293071  4945 net.cpp:157] Top shape: 512 (512)
I0507 00:28:38.293074  4945 net.cpp:157] Top shape: 512 (512)
I0507 00:28:38.293078  4945 net.cpp:157] Top shape: 512 (512)
I0507 00:28:38.293081  4945 net.cpp:165] Memory required for data: 14163968
I0507 00:28:38.293084  4945 layer_factory.hpp:77] Creating layer conv1
I0507 00:28:38.293100  4945 net.cpp:100] Creating Layer conv1
I0507 00:28:38.293105  4945 net.cpp:434] conv1 <- data
I0507 00:28:38.293112  4945 net.cpp:408] conv1 -> conv1
I0507 00:28:38.717048  4945 net.cpp:150] Setting up conv1
I0507 00:28:38.717077  4945 net.cpp:157] Top shape: 512 100 42 42 (90316800)
I0507 00:28:38.717082  4945 net.cpp:165] Memory required for data: 375431168
I0507 00:28:38.717104  4945 layer_factory.hpp:77] Creating layer conv1_relu
I0507 00:28:38.717116  4945 net.cpp:100] Creating Layer conv1_relu
I0507 00:28:38.717123  4945 net.cpp:434] conv1_relu <- conv1
I0507 00:28:38.717128  4945 net.cpp:395] conv1_relu -> conv1 (in-place)
I0507 00:28:38.717344  4945 net.cpp:150] Setting up conv1_relu
I0507 00:28:38.717357  4945 net.cpp:157] Top shape: 512 100 42 42 (90316800)
I0507 00:28:38.717361  4945 net.cpp:165] Memory required for data: 736698368
I0507 00:28:38.717365  4945 layer_factory.hpp:77] Creating layer pool1
I0507 00:28:38.717375  4945 net.cpp:100] Creating Layer pool1
I0507 00:28:38.717380  4945 net.cpp:434] pool1 <- conv1
I0507 00:28:38.717384  4945 net.cpp:408] pool1 -> pool1
I0507 00:28:38.717447  4945 net.cpp:150] Setting up pool1
I0507 00:28:38.717458  4945 net.cpp:157] Top shape: 512 100 21 21 (22579200)
I0507 00:28:38.717460  4945 net.cpp:165] Memory required for data: 827015168
I0507 00:28:38.717463  4945 layer_factory.hpp:77] Creating layer conv2
I0507 00:28:38.717475  4945 net.cpp:100] Creating Layer conv2
I0507 00:28:38.717479  4945 net.cpp:434] conv2 <- pool1
I0507 00:28:38.717486  4945 net.cpp:408] conv2 -> conv2
I0507 00:28:38.738368  4945 net.cpp:150] Setting up conv2
I0507 00:28:38.738392  4945 net.cpp:157] Top shape: 512 150 18 18 (24883200)
I0507 00:28:38.738397  4945 net.cpp:165] Memory required for data: 926547968
I0507 00:28:38.738410  4945 layer_factory.hpp:77] Creating layer conv2_relu
I0507 00:28:38.738421  4945 net.cpp:100] Creating Layer conv2_relu
I0507 00:28:38.738425  4945 net.cpp:434] conv2_relu <- conv2
I0507 00:28:38.738431  4945 net.cpp:395] conv2_relu -> conv2 (in-place)
I0507 00:28:38.740145  4945 net.cpp:150] Setting up conv2_relu
I0507 00:28:38.740166  4945 net.cpp:157] Top shape: 512 150 18 18 (24883200)
I0507 00:28:38.740170  4945 net.cpp:165] Memory required for data: 1026080768
I0507 00:28:38.740175  4945 layer_factory.hpp:77] Creating layer pool2
I0507 00:28:38.740182  4945 net.cpp:100] Creating Layer pool2
I0507 00:28:38.740186  4945 net.cpp:434] pool2 <- conv2
I0507 00:28:38.740193  4945 net.cpp:408] pool2 -> pool2
I0507 00:28:38.740250  4945 net.cpp:150] Setting up pool2
I0507 00:28:38.740262  4945 net.cpp:157] Top shape: 512 150 9 9 (6220800)
I0507 00:28:38.740264  4945 net.cpp:165] Memory required for data: 1050963968
I0507 00:28:38.740267  4945 layer_factory.hpp:77] Creating layer conv3
I0507 00:28:38.740279  4945 net.cpp:100] Creating Layer conv3
I0507 00:28:38.740284  4945 net.cpp:434] conv3 <- pool2
I0507 00:28:38.740291  4945 net.cpp:408] conv3 -> conv3
I0507 00:28:38.752557  4945 net.cpp:150] Setting up conv3
I0507 00:28:38.752583  4945 net.cpp:157] Top shape: 512 250 6 6 (4608000)
I0507 00:28:38.752586  4945 net.cpp:165] Memory required for data: 1069395968
I0507 00:28:38.752599  4945 layer_factory.hpp:77] Creating layer conv3_relu
I0507 00:28:38.752611  4945 net.cpp:100] Creating Layer conv3_relu
I0507 00:28:38.752617  4945 net.cpp:434] conv3_relu <- conv3
I0507 00:28:38.752624  4945 net.cpp:395] conv3_relu -> conv3 (in-place)
I0507 00:28:38.755946  4945 net.cpp:150] Setting up conv3_relu
I0507 00:28:38.755967  4945 net.cpp:157] Top shape: 512 250 6 6 (4608000)
I0507 00:28:38.755973  4945 net.cpp:165] Memory required for data: 1087827968
I0507 00:28:38.755977  4945 layer_factory.hpp:77] Creating layer pool3
I0507 00:28:38.755985  4945 net.cpp:100] Creating Layer pool3
I0507 00:28:38.755990  4945 net.cpp:434] pool3 <- conv3
I0507 00:28:38.755996  4945 net.cpp:408] pool3 -> pool3
I0507 00:28:38.756052  4945 net.cpp:150] Setting up pool3
I0507 00:28:38.756060  4945 net.cpp:157] Top shape: 512 250 3 3 (1152000)
I0507 00:28:38.756063  4945 net.cpp:165] Memory required for data: 1092435968
I0507 00:28:38.756067  4945 layer_factory.hpp:77] Creating layer fc4_300
I0507 00:28:38.756078  4945 net.cpp:100] Creating Layer fc4_300
I0507 00:28:38.756083  4945 net.cpp:434] fc4_300 <- pool3
I0507 00:28:38.756088  4945 net.cpp:408] fc4_300 -> fc4_300
I0507 00:28:38.766127  4945 net.cpp:150] Setting up fc4_300
I0507 00:28:38.766147  4945 net.cpp:157] Top shape: 512 300 (153600)
I0507 00:28:38.766151  4945 net.cpp:165] Memory required for data: 1093050368
I0507 00:28:38.766158  4945 layer_factory.hpp:77] Creating layer fc4_relu
I0507 00:28:38.766165  4945 net.cpp:100] Creating Layer fc4_relu
I0507 00:28:38.766170  4945 net.cpp:434] fc4_relu <- fc4_300
I0507 00:28:38.766177  4945 net.cpp:395] fc4_relu -> fc4_300 (in-place)
I0507 00:28:38.766381  4945 net.cpp:150] Setting up fc4_relu
I0507 00:28:38.766396  4945 net.cpp:157] Top shape: 512 300 (153600)
I0507 00:28:38.766398  4945 net.cpp:165] Memory required for data: 1093664768
I0507 00:28:38.766402  4945 layer_factory.hpp:77] Creating layer fc5_116
I0507 00:28:38.766410  4945 net.cpp:100] Creating Layer fc5_116
I0507 00:28:38.766415  4945 net.cpp:434] fc5_116 <- fc4_300
I0507 00:28:38.766422  4945 net.cpp:408] fc5_116 -> fc5_classes
I0507 00:28:38.769954  4945 net.cpp:150] Setting up fc5_116
I0507 00:28:38.769973  4945 net.cpp:157] Top shape: 512 116 (59392)
I0507 00:28:38.769976  4945 net.cpp:165] Memory required for data: 1093902336
I0507 00:28:38.769987  4945 layer_factory.hpp:77] Creating layer fc5_classes_fc5_116_0_split
I0507 00:28:38.769999  4945 net.cpp:100] Creating Layer fc5_classes_fc5_116_0_split
I0507 00:28:38.770004  4945 net.cpp:434] fc5_classes_fc5_116_0_split <- fc5_classes
I0507 00:28:38.770012  4945 net.cpp:408] fc5_classes_fc5_116_0_split -> fc5_classes_fc5_116_0_split_0
I0507 00:28:38.770020  4945 net.cpp:408] fc5_classes_fc5_116_0_split -> fc5_classes_fc5_116_0_split_1
I0507 00:28:38.770028  4945 net.cpp:408] fc5_classes_fc5_116_0_split -> fc5_classes_fc5_116_0_split_2
I0507 00:28:38.770086  4945 net.cpp:150] Setting up fc5_classes_fc5_116_0_split
I0507 00:28:38.770093  4945 net.cpp:157] Top shape: 512 116 (59392)
I0507 00:28:38.770097  4945 net.cpp:157] Top shape: 512 116 (59392)
I0507 00:28:38.770099  4945 net.cpp:157] Top shape: 512 116 (59392)
I0507 00:28:38.770102  4945 net.cpp:165] Memory required for data: 1094615040
I0507 00:28:38.770105  4945 layer_factory.hpp:77] Creating layer softmax
I0507 00:28:38.770112  4945 net.cpp:100] Creating Layer softmax
I0507 00:28:38.770115  4945 net.cpp:434] softmax <- fc5_classes_fc5_116_0_split_0
I0507 00:28:38.770122  4945 net.cpp:408] softmax -> softmax
I0507 00:28:38.770385  4945 net.cpp:150] Setting up softmax
I0507 00:28:38.770400  4945 net.cpp:157] Top shape: 512 116 (59392)
I0507 00:28:38.770402  4945 net.cpp:165] Memory required for data: 1094852608
I0507 00:28:38.770406  4945 layer_factory.hpp:77] Creating layer loss
I0507 00:28:38.770418  4945 net.cpp:100] Creating Layer loss
I0507 00:28:38.770440  4945 net.cpp:434] loss <- softmax
I0507 00:28:38.770447  4945 net.cpp:434] loss <- label_data_1_split_0
I0507 00:28:38.770452  4945 net.cpp:408] loss -> loss
…
