…
I0528 01:58:29.327605  9076 solver.cpp:81] Creating training net from train_net file: ./Prototxt/experiment_21/RTSD/CoNorm/trial_2/train.prototxt
I0528 01:58:29.327961  9076 net.cpp:58] Initializing net from parameters: 
state {
  phase: TRAIN
  level: 0
  stage: ""
}
layer {
  name: "data"
  type: "Data"
  top: "data"
  top: "label"
  include {
    phase: TRAIN
  }
  transform_param {
    scale: 0.0039215689
    mirror: false
    crop_size: 48
    mean_value: 135
    mean_value: 135
    mean_value: 134
  }
  data_param {
    source: "../local_data/lmdb/RTSD/CoNorm/train/lmdb"
    batch_size: 1024
    backend: LMDB
  }
}
layer {
  name: "conv1"
  type: "Convolution"
  bottom: "data"
  top: "conv1"
  convolution_param {
    num_output: 100
    pad: 0
    kernel_size: 7
    group: 1
    stride: 1
    weight_filler {
      type: "xavier"
    }
  }
}
layer {
  name: "conv1_relu"
  type: "ReLU"
  bottom: "conv1"
  top: "conv1"
}
layer {
  name: "pool1"
  type: "Pooling"
  bottom: "conv1"
  top: "pool1"
  pooling_param {
    pool: MAX
    kernel_size: 2
    stride: 2
  }
}
layer {
  name: "conv2"
  type: "Convolution"
  bottom: "pool1"
  top: "conv2"
  convolution_param {
    num_output: 150
    pad: 0
    kernel_size: 4
    group: 1
    stride: 1
    weight_filler {
      type: "xavier"
    }
  }
}
layer {
  name: "conv2_relu"
  type: "ReLU"
  bottom: "conv2"
  top: "conv2"
}
layer {
  name: "pool2"
  type: "Pooling"
  bottom: "conv2"
  top: "pool2"
  pooling_param {
    pool: MAX
    kernel_size: 2
    stride: 2
  }
}
layer {
  name: "conv3"
  type: "Convolution"
  bottom: "pool2"
  top: "conv3"
  convolution_param {
    num_output: 250
    pad: 0
    kernel_size: 4
    group: 1
    stride: 1
    weight_filler {
      type: "xavier"
    }
  }
}
layer {
  name: "conv3_relu"
  type: "ReLU"
  bottom: "conv3"
  top: "conv3"
}
layer {
  name: "pool3"
  type: "Pooling"
  bottom: "conv3"
  top: "pool3"
  pooling_param {
    pool: MAX
    kernel_size: 2
    stride: 2
  }
}
layer {
  name: "fc4_300"
  type: "InnerProduct"
  bottom: "pool3"
  top: "fc4_300"
  inner_product_param {
    num_output: 300
    weight_filler {
      type: "xavier"
    }
  }
}
layer {
  name: "fc4_relu"
  type: "ReLU"
  bottom: "fc4_300"
  top: "fc4_300"
}
layer {
  name: "fc5_116"
  type: "InnerProduct"
  bottom: "fc4_300"
  top: "fc5_classes"
  inner_product_param {
    num_output: 116
    weight_filler {
      type: "xavier"
    }
  }
}
layer {
  name: "softmax"
  type: "Softmax"
  bottom: "fc5_classes"
  top: "softmax"
}
layer {
  name: "loss"
  type: "MultinomialLogisticLoss"
  bottom: "softmax"
  bottom: "label"
  top: "loss"
}
layer {
  name: "accuracy_1"
  type: "Accuracy"
  bottom: "fc5_classes"
  bottom: "label"
  top: "accuracy_1"
  accuracy_param {
    top_k: 1
  }
}
layer {
  name: "accuracy_5"
  type: "Accuracy"
  bottom: "fc5_classes"
  bottom: "label"
  top: "accuracy_5"
  accuracy_param {
    top_k: 5
  }
}
layer {
  name: "silence"
  type: "Silence"
  bottom: "accuracy_1"
  bottom: "accuracy_5"
}
I0528 01:58:29.328083  9076 layer_factory.hpp:77] Creating layer data
I0528 01:58:29.363550  9076 net.cpp:100] Creating Layer data
I0528 01:58:29.363605  9076 net.cpp:408] data -> data
I0528 01:58:29.363644  9076 net.cpp:408] data -> label
I0528 01:58:29.366793  9118 db_lmdb.cpp:35] Opened lmdb ../local_data/lmdb/RTSD/CoNorm/train/lmdb
I0528 01:58:29.386286  9076 data_layer.cpp:41] output data size: 1024,3,48,48
I0528 01:58:29.434839  9076 net.cpp:150] Setting up data
I0528 01:58:29.434895  9076 net.cpp:157] Top shape: 1024 3 48 48 (7077888)
I0528 01:58:29.434906  9076 net.cpp:157] Top shape: 1024 (1024)
I0528 01:58:29.434913  9076 net.cpp:165] Memory required for data: 28315648
I0528 01:58:29.434926  9076 layer_factory.hpp:77] Creating layer label_data_1_split
I0528 01:58:29.434943  9076 net.cpp:100] Creating Layer label_data_1_split
I0528 01:58:29.434957  9076 net.cpp:434] label_data_1_split <- label
I0528 01:58:29.434978  9076 net.cpp:408] label_data_1_split -> label_data_1_split_0
I0528 01:58:29.434996  9076 net.cpp:408] label_data_1_split -> label_data_1_split_1
I0528 01:58:29.435015  9076 net.cpp:408] label_data_1_split -> label_data_1_split_2
I0528 01:58:29.435070  9076 net.cpp:150] Setting up label_data_1_split
I0528 01:58:29.435086  9076 net.cpp:157] Top shape: 1024 (1024)
I0528 01:58:29.435092  9076 net.cpp:157] Top shape: 1024 (1024)
I0528 01:58:29.435101  9076 net.cpp:157] Top shape: 1024 (1024)
I0528 01:58:29.435111  9076 net.cpp:165] Memory required for data: 28327936
I0528 01:58:29.435119  9076 layer_factory.hpp:77] Creating layer conv1
I0528 01:58:29.435143  9076 net.cpp:100] Creating Layer conv1
I0528 01:58:29.435154  9076 net.cpp:434] conv1 <- data
I0528 01:58:29.435164  9076 net.cpp:408] conv1 -> conv1
I0528 01:58:30.363975  9076 net.cpp:150] Setting up conv1
I0528 01:58:30.364007  9076 net.cpp:157] Top shape: 1024 100 42 42 (180633600)
I0528 01:58:30.364017  9076 net.cpp:165] Memory required for data: 750862336
I0528 01:58:30.364042  9076 layer_factory.hpp:77] Creating layer conv1_relu
I0528 01:58:30.364058  9076 net.cpp:100] Creating Layer conv1_relu
I0528 01:58:30.364074  9076 net.cpp:434] conv1_relu <- conv1
I0528 01:58:30.364086  9076 net.cpp:395] conv1_relu -> conv1 (in-place)
I0528 01:58:30.364249  9076 net.cpp:150] Setting up conv1_relu
I0528 01:58:30.364271  9076 net.cpp:157] Top shape: 1024 100 42 42 (180633600)
I0528 01:58:30.364281  9076 net.cpp:165] Memory required for data: 1473396736
I0528 01:58:30.364291  9076 layer_factory.hpp:77] Creating layer pool1
I0528 01:58:30.364306  9076 net.cpp:100] Creating Layer pool1
I0528 01:58:30.364318  9076 net.cpp:434] pool1 <- conv1
I0528 01:58:30.364329  9076 net.cpp:408] pool1 -> pool1
I0528 01:58:30.364382  9076 net.cpp:150] Setting up pool1
I0528 01:58:30.364393  9076 net.cpp:157] Top shape: 1024 100 21 21 (45158400)
I0528 01:58:30.364398  9076 net.cpp:165] Memory required for data: 1654030336
I0528 01:58:30.364406  9076 layer_factory.hpp:77] Creating layer conv2
I0528 01:58:30.364421  9076 net.cpp:100] Creating Layer conv2
I0528 01:58:30.364433  9076 net.cpp:434] conv2 <- pool1
I0528 01:58:30.364442  9076 net.cpp:408] conv2 -> conv2
I0528 01:58:30.367753  9076 net.cpp:150] Setting up conv2
I0528 01:58:30.367794  9076 net.cpp:157] Top shape: 1024 150 18 18 (49766400)
I0528 01:58:30.367804  9076 net.cpp:165] Memory required for data: 1853095936
I0528 01:58:30.367830  9076 layer_factory.hpp:77] Creating layer conv2_relu
I0528 01:58:30.367848  9076 net.cpp:100] Creating Layer conv2_relu
I0528 01:58:30.367868  9076 net.cpp:434] conv2_relu <- conv2
I0528 01:58:30.367897  9076 net.cpp:395] conv2_relu -> conv2 (in-place)
I0528 01:58:30.368103  9076 net.cpp:150] Setting up conv2_relu
I0528 01:58:30.368127  9076 net.cpp:157] Top shape: 1024 150 18 18 (49766400)
I0528 01:58:30.368141  9076 net.cpp:165] Memory required for data: 2052161536
I0528 01:58:30.368161  9076 layer_factory.hpp:77] Creating layer pool2
I0528 01:58:30.368181  9076 net.cpp:100] Creating Layer pool2
I0528 01:58:30.368201  9076 net.cpp:434] pool2 <- conv2
I0528 01:58:30.368217  9076 net.cpp:408] pool2 -> pool2
I0528 01:58:30.368297  9076 net.cpp:150] Setting up pool2
I0528 01:58:30.368316  9076 net.cpp:157] Top shape: 1024 150 9 9 (12441600)
I0528 01:58:30.368327  9076 net.cpp:165] Memory required for data: 2101927936
I0528 01:58:30.368341  9076 layer_factory.hpp:77] Creating layer conv3
I0528 01:58:30.368376  9076 net.cpp:100] Creating Layer conv3
I0528 01:58:30.368389  9076 net.cpp:434] conv3 <- pool2
I0528 01:58:30.368407  9076 net.cpp:408] conv3 -> conv3
I0528 01:58:30.375388  9076 net.cpp:150] Setting up conv3
I0528 01:58:30.375412  9076 net.cpp:157] Top shape: 1024 250 6 6 (9216000)
I0528 01:58:30.375424  9076 net.cpp:165] Memory required for data: 2138791936
I0528 01:58:30.375442  9076 layer_factory.hpp:77] Creating layer conv3_relu
I0528 01:58:30.375464  9076 net.cpp:100] Creating Layer conv3_relu
I0528 01:58:30.375473  9076 net.cpp:434] conv3_relu <- conv3
I0528 01:58:30.375488  9076 net.cpp:395] conv3_relu -> conv3 (in-place)
I0528 01:58:30.376018  9076 net.cpp:150] Setting up conv3_relu
I0528 01:58:30.376042  9076 net.cpp:157] Top shape: 1024 250 6 6 (9216000)
I0528 01:58:30.376057  9076 net.cpp:165] Memory required for data: 2175655936
I0528 01:58:30.376078  9076 layer_factory.hpp:77] Creating layer pool3
I0528 01:58:30.376098  9076 net.cpp:100] Creating Layer pool3
I0528 01:58:30.376113  9076 net.cpp:434] pool3 <- conv3
I0528 01:58:30.376132  9076 net.cpp:408] pool3 -> pool3
I0528 01:58:30.376202  9076 net.cpp:150] Setting up pool3
I0528 01:58:30.376221  9076 net.cpp:157] Top shape: 1024 250 3 3 (2304000)
I0528 01:58:30.376231  9076 net.cpp:165] Memory required for data: 2184871936
I0528 01:58:30.376248  9076 layer_factory.hpp:77] Creating layer fc4_300
I0528 01:58:30.376266  9076 net.cpp:100] Creating Layer fc4_300
I0528 01:58:30.376281  9076 net.cpp:434] fc4_300 <- pool3
I0528 01:58:30.376296  9076 net.cpp:408] fc4_300 -> fc4_300
I0528 01:58:30.381330  9076 net.cpp:150] Setting up fc4_300
I0528 01:58:30.381348  9076 net.cpp:157] Top shape: 1024 300 (307200)
I0528 01:58:30.381356  9076 net.cpp:165] Memory required for data: 2186100736
I0528 01:58:30.381367  9076 layer_factory.hpp:77] Creating layer fc4_relu
I0528 01:58:30.381378  9076 net.cpp:100] Creating Layer fc4_relu
I0528 01:58:30.381387  9076 net.cpp:434] fc4_relu <- fc4_300
I0528 01:58:30.381397  9076 net.cpp:395] fc4_relu -> fc4_300 (in-place)
I0528 01:58:30.381541  9076 net.cpp:150] Setting up fc4_relu
I0528 01:58:30.381553  9076 net.cpp:157] Top shape: 1024 300 (307200)
I0528 01:58:30.381561  9076 net.cpp:165] Memory required for data: 2187329536
I0528 01:58:30.381567  9076 layer_factory.hpp:77] Creating layer fc5_116
I0528 01:58:30.381578  9076 net.cpp:100] Creating Layer fc5_116
I0528 01:58:30.381587  9076 net.cpp:434] fc5_116 <- fc4_300
I0528 01:58:30.381595  9076 net.cpp:408] fc5_116 -> fc5_classes
I0528 01:58:30.382606  9076 net.cpp:150] Setting up fc5_116
I0528 01:58:30.382624  9076 net.cpp:157] Top shape: 1024 116 (118784)
I0528 01:58:30.382632  9076 net.cpp:165] Memory required for data: 2187804672
I0528 01:58:30.382647  9076 layer_factory.hpp:77] Creating layer fc5_classes_fc5_116_0_split
I0528 01:58:30.382658  9076 net.cpp:100] Creating Layer fc5_classes_fc5_116_0_split
I0528 01:58:30.382673  9076 net.cpp:434] fc5_classes_fc5_116_0_split <- fc5_classes
I0528 01:58:30.382684  9076 net.cpp:408] fc5_classes_fc5_116_0_split -> fc5_classes_fc5_116_0_split_0
I0528 01:58:30.382699  9076 net.cpp:408] fc5_classes_fc5_116_0_split -> fc5_classes_fc5_116_0_split_1
I0528 01:58:30.382710  9076 net.cpp:408] fc5_classes_fc5_116_0_split -> fc5_classes_fc5_116_0_split_2
I0528 01:58:30.382761  9076 net.cpp:150] Setting up fc5_classes_fc5_116_0_split
I0528 01:58:30.382773  9076 net.cpp:157] Top shape: 1024 116 (118784)
I0528 01:58:30.382781  9076 net.cpp:157] Top shape: 1024 116 (118784)
I0528 01:58:30.382788  9076 net.cpp:157] Top shape: 1024 116 (118784)
I0528 01:58:30.382794  9076 net.cpp:165] Memory required for data: 2189230080
I0528 01:58:30.382802  9076 layer_factory.hpp:77] Creating layer softmax
I0528 01:58:30.382813  9076 net.cpp:100] Creating Layer softmax
I0528 01:58:30.382823  9076 net.cpp:434] softmax <- fc5_classes_fc5_116_0_split_0
I0528 01:58:30.382835  9076 net.cpp:408] softmax -> softmax
I0528 01:58:30.383016  9076 net.cpp:150] Setting up softmax
I0528 01:58:30.383034  9076 net.cpp:157] Top shape: 1024 116 (118784)
I0528 01:58:30.383044  9076 net.cpp:165] Memory required for data: 2189705216
I0528 01:58:30.383054  9076 layer_factory.hpp:77] Creating layer loss
I0528 01:58:30.383085  9076 net.cpp:100] Creating Layer loss
I0528 01:58:30.383093  9076 net.cpp:434] loss <- softmax
I0528 01:58:30.383103  9076 net.cpp:434] loss <- label_data_1_split_0
I0528 01:58:30.383114  9076 net.cpp:408] loss -> loss
…
