…
I0411 03:16:43.481523 16627 net.cpp:322] The NetState phase (0) differed from the phase (1) specified by a rule in layer accuracy_5
I0411 03:16:43.481672 16627 net.cpp:58] Initializing net from parameters: 
state {
  phase: TRAIN
  level: 0
  stage: ""
}
layer {
  name: "data"
  type: "Data"
  top: "data"
  top: "label"
  include {
    phase: TRAIN
  }
  transform_param {
    scale: 0.0039215689
    mirror: false
    crop_size: 48
    mean_value: 122
    mean_value: 115
    mean_value: 129
  }
  data_param {
    source: "../local_data/lmdb/rtsd-r1/orig/train/lmdb"
    batch_size: 1024
    backend: LMDB
  }
}
layer {
  name: "conv1"
  type: "Convolution"
  bottom: "data"
  top: "conv1"
  convolution_param {
    num_output: 100
    pad: 0
    kernel_size: 7
    group: 1
    stride: 1
    weight_filler {
      type: "xavier"
    }
  }
}
layer {
  name: "conv1_prescale"
  type: "Scale"
  bottom: "conv1"
  top: "conv1"
  param {
    lr_mult: 0
    decay_mult: 0
  }
  scale_param {
    filler {
      value: 0.6666
    }
    bias_term: false
  }
}
layer {
  name: "conv1_sTanH"
  type: "TanH"
  bottom: "conv1"
  top: "conv1"
}
layer {
  name: "conv1_postscale"
  type: "Scale"
  bottom: "conv1"
  top: "conv1"
  param {
    lr_mult: 0
    decay_mult: 0
  }
  scale_param {
    filler {
      value: 1.7159
    }
    bias_term: false
  }
}
layer {
  name: "pool1"
  type: "Pooling"
  bottom: "conv1"
  top: "pool1"
  pooling_param {
    pool: MAX
    kernel_size: 2
    stride: 2
  }
}
layer {
  name: "conv2"
  type: "Convolution"
  bottom: "pool1"
  top: "conv2"
  convolution_param {
    num_output: 150
    pad: 0
    kernel_size: 4
    group: 1
    stride: 1
    weight_filler {
      type: "xavier"
    }
  }
}
layer {
  name: "conv2_prescale"
  type: "Scale"
  bottom: "conv2"
  top: "conv2"
  param {
    lr_mult: 0
    decay_mult: 0
  }
  scale_param {
    filler {
      value: 0.6666
    }
    bias_term: false
  }
}
layer {
  name: "conv2_sTanH"
  type: "TanH"
  bottom: "conv2"
  top: "conv2"
}
layer {
  name: "conv2_postscale"
  type: "Scale"
  bottom: "conv2"
  top: "conv2"
  param {
    lr_mult: 0
    decay_mult: 0
  }
  scale_param {
    filler {
      value: 1.7159
    }
    bias_term: false
  }
}
layer {
  name: "pool2"
  type: "Pooling"
  bottom: "conv2"
  top: "pool2"
  pooling_param {
    pool: MAX
    kernel_size: 2
    stride: 2
  }
}
layer {
  name: "conv3"
  type: "Convolution"
  bottom: "pool2"
  top: "conv3"
  convolution_param {
    num_output: 250
    pad: 0
    kernel_size: 4
    group: 1
    stride: 1
    weight_filler {
      type: "xavier"
    }
  }
}
layer {
  name: "conv3_prescale"
  type: "Scale"
  bottom: "conv3"
  top: "conv3"
  param {
    lr_mult: 0
    decay_mult: 0
  }
  scale_param {
    filler {
      value: 0.6666
    }
    bias_term: false
  }
}
layer {
  name: "conv3_sTanH"
  type: "TanH"
  bottom: "conv3"
  top: "conv3"
}
layer {
  name: "conv3_postscale"
  type: "Scale"
  bottom: "conv3"
  top: "conv3"
  param {
    lr_mult: 0
    decay_mult: 0
  }
  scale_param {
    filler {
      value: 1.7159
    }
    bias_term: false
  }
}
layer {
  name: "pool3"
  type: "Pooling"
  bottom: "conv3"
  top: "pool3"
  pooling_param {
    pool: MAX
    kernel_size: 2
    stride: 2
  }
}
layer {
  name: "fc4_300"
  type: "InnerProduct"
  bottom: "pool3"
  top: "fc4_300"
  inner_product_param {
    num_output: 300
    weight_filler {
      type: "xavier"
    }
  }
}
layer {
  name: "fc4_prescale"
  type: "Scale"
  bottom: "fc4_300"
  top: "fc4_300"
  param {
    lr_mult: 0
    decay_mult: 0
  }
  scale_param {
    filler {
      value: 0.6666
    }
    bias_term: false
  }
}
layer {
  name: "fc4_sTanH"
  type: "TanH"
  bottom: "fc4_300"
  top: "fc4_300"
}
layer {
  name: "fc4_postscale"
  type: "Scale"
  bottom: "fc4_300"
  top: "fc4_300"
  param {
    lr_mult: 0
    decay_mult: 0
  }
  scale_param {
    filler {
      value: 1.7159
    }
    bias_term: false
  }
}
layer {
  name: "fc5_67"
  type: "InnerProduct"
  bottom: "fc4_300"
  top: "fc5_classes"
  inner_product_param {
    num_output: 67
    weight_filler {
      type: "xavier"
    }
  }
}
layer {
  name: "loss"
  type: "SoftmaxWithLoss"
  bottom: "fc5_classes"
  bottom: "label"
  top: "loss"
}
I0411 03:16:43.481803 16627 layer_factory.hpp:77] Creating layer data
I0411 03:16:43.482956 16627 net.cpp:100] Creating Layer data
I0411 03:16:43.482971 16627 net.cpp:408] data -> data
I0411 03:16:43.482995 16627 net.cpp:408] data -> label
I0411 03:16:43.484197 16728 db_lmdb.cpp:35] Opened lmdb ../local_data/lmdb/rtsd-r1/orig/train/lmdb
I0411 03:16:43.500916 16627 data_layer.cpp:41] output data size: 1024,3,48,48
I0411 03:16:43.544713 16627 net.cpp:150] Setting up data
I0411 03:16:43.544757 16627 net.cpp:157] Top shape: 1024 3 48 48 (7077888)
I0411 03:16:43.544764 16627 net.cpp:157] Top shape: 1024 (1024)
I0411 03:16:43.544769 16627 net.cpp:165] Memory required for data: 28315648
I0411 03:16:43.544778 16627 layer_factory.hpp:77] Creating layer conv1
I0411 03:16:43.544801 16627 net.cpp:100] Creating Layer conv1
I0411 03:16:43.544807 16627 net.cpp:434] conv1 <- data
I0411 03:16:43.544823 16627 net.cpp:408] conv1 -> conv1
I0411 03:16:43.814458 16627 net.cpp:150] Setting up conv1
I0411 03:16:43.814496 16627 net.cpp:157] Top shape: 1024 100 42 42 (180633600)
I0411 03:16:43.814501 16627 net.cpp:165] Memory required for data: 750850048
I0411 03:16:43.814522 16627 layer_factory.hpp:77] Creating layer conv1_prescale
I0411 03:16:43.814535 16627 net.cpp:100] Creating Layer conv1_prescale
I0411 03:16:43.814553 16627 net.cpp:434] conv1_prescale <- conv1
I0411 03:16:43.814559 16627 net.cpp:395] conv1_prescale -> conv1 (in-place)
I0411 03:16:43.814671 16627 net.cpp:150] Setting up conv1_prescale
I0411 03:16:43.814680 16627 net.cpp:157] Top shape: 1024 100 42 42 (180633600)
I0411 03:16:43.814683 16627 net.cpp:165] Memory required for data: 1473384448
I0411 03:16:43.814690 16627 layer_factory.hpp:77] Creating layer conv1_sTanH
I0411 03:16:43.814697 16627 net.cpp:100] Creating Layer conv1_sTanH
I0411 03:16:43.814700 16627 net.cpp:434] conv1_sTanH <- conv1
I0411 03:16:43.814705 16627 net.cpp:395] conv1_sTanH -> conv1 (in-place)
I0411 03:16:43.814903 16627 net.cpp:150] Setting up conv1_sTanH
I0411 03:16:43.814918 16627 net.cpp:157] Top shape: 1024 100 42 42 (180633600)
I0411 03:16:43.814921 16627 net.cpp:165] Memory required for data: 2195918848
I0411 03:16:43.814925 16627 layer_factory.hpp:77] Creating layer conv1_postscale
I0411 03:16:43.814934 16627 net.cpp:100] Creating Layer conv1_postscale
I0411 03:16:43.814937 16627 net.cpp:434] conv1_postscale <- conv1
I0411 03:16:43.814942 16627 net.cpp:395] conv1_postscale -> conv1 (in-place)
I0411 03:16:43.815037 16627 net.cpp:150] Setting up conv1_postscale
I0411 03:16:43.815047 16627 net.cpp:157] Top shape: 1024 100 42 42 (180633600)
I0411 03:16:43.815049 16627 net.cpp:165] Memory required for data: 2918453248
I0411 03:16:43.815054 16627 layer_factory.hpp:77] Creating layer pool1
I0411 03:16:43.815062 16627 net.cpp:100] Creating Layer pool1
I0411 03:16:43.815065 16627 net.cpp:434] pool1 <- conv1
I0411 03:16:43.815073 16627 net.cpp:408] pool1 -> pool1
I0411 03:16:43.815119 16627 net.cpp:150] Setting up pool1
I0411 03:16:43.815129 16627 net.cpp:157] Top shape: 1024 100 21 21 (45158400)
I0411 03:16:43.815151 16627 net.cpp:165] Memory required for data: 3099086848
I0411 03:16:43.815155 16627 layer_factory.hpp:77] Creating layer conv2
I0411 03:16:43.815165 16627 net.cpp:100] Creating Layer conv2
I0411 03:16:43.815170 16627 net.cpp:434] conv2 <- pool1
I0411 03:16:43.815174 16627 net.cpp:408] conv2 -> conv2
I0411 03:16:43.822283 16627 net.cpp:150] Setting up conv2
I0411 03:16:43.822301 16627 net.cpp:157] Top shape: 1024 150 18 18 (49766400)
I0411 03:16:43.822305 16627 net.cpp:165] Memory required for data: 3298152448
I0411 03:16:43.822315 16627 layer_factory.hpp:77] Creating layer conv2_prescale
I0411 03:16:43.822324 16627 net.cpp:100] Creating Layer conv2_prescale
I0411 03:16:43.822327 16627 net.cpp:434] conv2_prescale <- conv2
I0411 03:16:43.822332 16627 net.cpp:395] conv2_prescale -> conv2 (in-place)
I0411 03:16:43.822443 16627 net.cpp:150] Setting up conv2_prescale
I0411 03:16:43.822451 16627 net.cpp:157] Top shape: 1024 150 18 18 (49766400)
I0411 03:16:43.822454 16627 net.cpp:165] Memory required for data: 3497218048
I0411 03:16:43.822459 16627 layer_factory.hpp:77] Creating layer conv2_sTanH
I0411 03:16:43.822466 16627 net.cpp:100] Creating Layer conv2_sTanH
I0411 03:16:43.822469 16627 net.cpp:434] conv2_sTanH <- conv2
I0411 03:16:43.822474 16627 net.cpp:395] conv2_sTanH -> conv2 (in-place)
I0411 03:16:43.823230 16627 net.cpp:150] Setting up conv2_sTanH
I0411 03:16:43.823256 16627 net.cpp:157] Top shape: 1024 150 18 18 (49766400)
I0411 03:16:43.823271 16627 net.cpp:165] Memory required for data: 3696283648
I0411 03:16:43.823276 16627 layer_factory.hpp:77] Creating layer conv2_postscale
I0411 03:16:43.823283 16627 net.cpp:100] Creating Layer conv2_postscale
I0411 03:16:43.823287 16627 net.cpp:434] conv2_postscale <- conv2
I0411 03:16:43.823292 16627 net.cpp:395] conv2_postscale -> conv2 (in-place)
I0411 03:16:43.823386 16627 net.cpp:150] Setting up conv2_postscale
I0411 03:16:43.823395 16627 net.cpp:157] Top shape: 1024 150 18 18 (49766400)
I0411 03:16:43.823398 16627 net.cpp:165] Memory required for data: 3895349248
I0411 03:16:43.823403 16627 layer_factory.hpp:77] Creating layer pool2
I0411 03:16:43.823410 16627 net.cpp:100] Creating Layer pool2
I0411 03:16:43.823413 16627 net.cpp:434] pool2 <- conv2
I0411 03:16:43.823418 16627 net.cpp:408] pool2 -> pool2
I0411 03:16:43.823457 16627 net.cpp:150] Setting up pool2
I0411 03:16:43.823463 16627 net.cpp:157] Top shape: 1024 150 9 9 (12441600)
I0411 03:16:43.823467 16627 net.cpp:165] Memory required for data: 3945115648
I0411 03:16:43.823470 16627 layer_factory.hpp:77] Creating layer conv3
I0411 03:16:43.823478 16627 net.cpp:100] Creating Layer conv3
I0411 03:16:43.823482 16627 net.cpp:434] conv3 <- pool2
I0411 03:16:43.823487 16627 net.cpp:408] conv3 -> conv3
I0411 03:16:43.828963 16627 net.cpp:150] Setting up conv3
I0411 03:16:43.828979 16627 net.cpp:157] Top shape: 1024 250 6 6 (9216000)
I0411 03:16:43.828995 16627 net.cpp:165] Memory required for data: 3981979648
I0411 03:16:43.829005 16627 layer_factory.hpp:77] Creating layer conv3_prescale
I0411 03:16:43.829013 16627 net.cpp:100] Creating Layer conv3_prescale
I0411 03:16:43.829017 16627 net.cpp:434] conv3_prescale <- conv3
I0411 03:16:43.829023 16627 net.cpp:395] conv3_prescale -> conv3 (in-place)
I0411 03:16:43.829118 16627 net.cpp:150] Setting up conv3_prescale
I0411 03:16:43.829128 16627 net.cpp:157] Top shape: 1024 250 6 6 (9216000)
I0411 03:16:43.829130 16627 net.cpp:165] Memory required for data: 4018843648
I0411 03:16:43.829135 16627 layer_factory.hpp:77] Creating layer conv3_sTanH
I0411 03:16:43.829141 16627 net.cpp:100] Creating Layer conv3_sTanH
I0411 03:16:43.829144 16627 net.cpp:434] conv3_sTanH <- conv3
I0411 03:16:43.829149 16627 net.cpp:395] conv3_sTanH -> conv3 (in-place)
I0411 03:16:43.830054 16627 net.cpp:150] Setting up conv3_sTanH
I0411 03:16:43.830068 16627 net.cpp:157] Top shape: 1024 250 6 6 (9216000)
I0411 03:16:43.830083 16627 net.cpp:165] Memory required for data: 4055707648
I0411 03:16:43.830086 16627 layer_factory.hpp:77] Creating layer conv3_postscale
I0411 03:16:43.830093 16627 net.cpp:100] Creating Layer conv3_postscale
I0411 03:16:43.830109 16627 net.cpp:434] conv3_postscale <- conv3
I0411 03:16:43.830129 16627 net.cpp:395] conv3_postscale -> conv3 (in-place)
I0411 03:16:43.830231 16627 net.cpp:150] Setting up conv3_postscale
I0411 03:16:43.830240 16627 net.cpp:157] Top shape: 1024 250 6 6 (9216000)
I0411 03:16:43.830243 16627 net.cpp:165] Memory required for data: 4092571648
I0411 03:16:43.830248 16627 layer_factory.hpp:77] Creating layer pool3
I0411 03:16:43.830256 16627 net.cpp:100] Creating Layer pool3
I0411 03:16:43.830260 16627 net.cpp:434] pool3 <- conv3
I0411 03:16:43.830265 16627 net.cpp:408] pool3 -> pool3
I0411 03:16:43.830304 16627 net.cpp:150] Setting up pool3
I0411 03:16:43.830312 16627 net.cpp:157] Top shape: 1024 250 3 3 (2304000)
I0411 03:16:43.830315 16627 net.cpp:165] Memory required for data: 4101787648
I0411 03:16:43.830318 16627 layer_factory.hpp:77] Creating layer fc4_300
I0411 03:16:43.830328 16627 net.cpp:100] Creating Layer fc4_300
I0411 03:16:43.830332 16627 net.cpp:434] fc4_300 <- pool3
I0411 03:16:43.830341 16627 net.cpp:408] fc4_300 -> fc4_300
I0411 03:16:43.835739 16627 net.cpp:150] Setting up fc4_300
I0411 03:16:43.835757 16627 net.cpp:157] Top shape: 1024 300 (307200)
I0411 03:16:43.835760 16627 net.cpp:165] Memory required for data: 4103016448
I0411 03:16:43.835767 16627 layer_factory.hpp:77] Creating layer fc4_prescale
I0411 03:16:43.835774 16627 net.cpp:100] Creating Layer fc4_prescale
I0411 03:16:43.835778 16627 net.cpp:434] fc4_prescale <- fc4_300
I0411 03:16:43.835786 16627 net.cpp:395] fc4_prescale -> fc4_300 (in-place)
I0411 03:16:43.835875 16627 net.cpp:150] Setting up fc4_prescale
I0411 03:16:43.835896 16627 net.cpp:157] Top shape: 1024 300 (307200)
I0411 03:16:43.835898 16627 net.cpp:165] Memory required for data: 4104245248
I0411 03:16:43.835903 16627 layer_factory.hpp:77] Creating layer fc4_sTanH
I0411 03:16:43.835909 16627 net.cpp:100] Creating Layer fc4_sTanH
I0411 03:16:43.835913 16627 net.cpp:434] fc4_sTanH <- fc4_300
I0411 03:16:43.835917 16627 net.cpp:395] fc4_sTanH -> fc4_300 (in-place)
I0411 03:16:43.836110 16627 net.cpp:150] Setting up fc4_sTanH
I0411 03:16:43.836123 16627 net.cpp:157] Top shape: 1024 300 (307200)
I0411 03:16:43.836127 16627 net.cpp:165] Memory required for data: 4105474048
I0411 03:16:43.836129 16627 layer_factory.hpp:77] Creating layer fc4_postscale
I0411 03:16:43.836136 16627 net.cpp:100] Creating Layer fc4_postscale
I0411 03:16:43.836143 16627 net.cpp:434] fc4_postscale <- fc4_300
I0411 03:16:43.836148 16627 net.cpp:395] fc4_postscale -> fc4_300 (in-place)
I0411 03:16:43.836246 16627 net.cpp:150] Setting up fc4_postscale
I0411 03:16:43.836256 16627 net.cpp:157] Top shape: 1024 300 (307200)
I0411 03:16:43.836259 16627 net.cpp:165] Memory required for data: 4106702848
I0411 03:16:43.836264 16627 layer_factory.hpp:77] Creating layer fc5_67
I0411 03:16:43.836271 16627 net.cpp:100] Creating Layer fc5_67
I0411 03:16:43.836273 16627 net.cpp:434] fc5_67 <- fc4_300
I0411 03:16:43.836279 16627 net.cpp:408] fc5_67 -> fc5_classes
I0411 03:16:43.837776 16627 net.cpp:150] Setting up fc5_67
I0411 03:16:43.837791 16627 net.cpp:157] Top shape: 1024 67 (68608)
I0411 03:16:43.837795 16627 net.cpp:165] Memory required for data: 4106977280
I0411 03:16:43.837805 16627 layer_factory.hpp:77] Creating layer loss
I0411 03:16:43.837811 16627 net.cpp:100] Creating Layer loss
I0411 03:16:43.837815 16627 net.cpp:434] loss <- fc5_classes
I0411 03:16:43.837819 16627 net.cpp:434] loss <- label
I0411 03:16:43.837827 16627 net.cpp:408] loss -> loss
I0411 03:16:43.837843 16627 layer_factory.hpp:77] Creating layer loss
…
I0411 03:16:43.838589 16627 solver.cpp:193] Creating test net (#0) specified by test_net file: ./Prototxt/experiment_8/rtsd-r1/orig/trial_2/test.prototxt
I0411 03:16:43.838767 16627 net.cpp:58] Initializing net from parameters: 
state {
  phase: TEST
}
layer {
  name: "data"
  type: "Data"
  top: "data"
  top: "label"
  include {
    phase: TEST
  }
  transform_param {
    scale: 0.0039215689
    mirror: false
    crop_size: 48
    mean_value: 113
    mean_value: 110
    mean_value: 132
  }
  data_param {
    source: "../local_data/lmdb/rtsd-r1/orig/test/lmdb"
    batch_size: 1024
    backend: LMDB
  }
}
layer {
  name: "conv1"
  type: "Convolution"
  bottom: "data"
  top: "conv1"
  convolution_param {
    num_output: 100
    pad: 0
    kernel_size: 7
    group: 1
    stride: 1
    weight_filler {
      type: "xavier"
    }
  }
}
layer {
  name: "conv1_prescale"
  type: "Scale"
  bottom: "conv1"
  top: "conv1"
  param {
    lr_mult: 0
    decay_mult: 0
  }
  scale_param {
    filler {
      value: 0.6666
    }
    bias_term: false
  }
}
layer {
  name: "conv1_sTanH"
  type: "TanH"
  bottom: "conv1"
  top: "conv1"
}
layer {
  name: "conv1_postscale"
  type: "Scale"
  bottom: "conv1"
  top: "conv1"
  param {
    lr_mult: 0
    decay_mult: 0
  }
  scale_param {
    filler {
      value: 1.7159
    }
    bias_term: false
  }
}
layer {
  name: "pool1"
  type: "Pooling"
  bottom: "conv1"
  top: "pool1"
  pooling_param {
    pool: MAX
    kernel_size: 2
    stride: 2
  }
}
layer {
  name: "conv2"
  type: "Convolution"
  bottom: "pool1"
  top: "conv2"
  convolution_param {
    num_output: 150
    pad: 0
    kernel_size: 4
    group: 1
    stride: 1
    weight_filler {
      type: "xavier"
    }
  }
}
layer {
  name: "conv2_prescale"
  type: "Scale"
  bottom: "conv2"
  top: "conv2"
  param {
    lr_mult: 0
    decay_mult: 0
  }
  scale_param {
    filler {
      value: 0.6666
    }
    bias_term: false
  }
}
layer {
  name: "conv2_sTanH"
  type: "TanH"
  bottom: "conv2"
  top: "conv2"
}
layer {
  name: "conv2_postscale"
  type: "Scale"
  bottom: "conv2"
  top: "conv2"
  param {
    lr_mult: 0
    decay_mult: 0
  }
  scale_param {
    filler {
      value: 1.7159
    }
    bias_term: false
  }
}
layer {
  name: "pool2"
  type: "Pooling"
  bottom: "conv2"
  top: "pool2"
  pooling_param {
    pool: MAX
    kernel_size: 2
    stride: 2
  }
}
layer {
  name: "conv3"
  type: "Convolution"
  bottom: "pool2"
  top: "conv3"
  convolution_param {
    num_output: 250
    pad: 0
    kernel_size: 4
    group: 1
    stride: 1
    weight_filler {
      type: "xavier"
    }
  }
}
layer {
  name: "conv3_prescale"
  type: "Scale"
  bottom: "conv3"
  top: "conv3"
  param {
    lr_mult: 0
    decay_mult: 0
  }
  scale_param {
    filler {
      value: 0.6666
    }
    bias_term: false
  }
}
layer {
  name: "conv3_sTanH"
  type: "TanH"
  bottom: "conv3"
  top: "conv3"
}
layer {
  name: "conv3_postscale"
  type: "Scale"
  bottom: "conv3"
  top: "conv3"
  param {
    lr_mult: 0
    decay_mult: 0
  }
  scale_param {
    filler {
      value: 1.7159
    }
    bias_term: false
  }
}
layer {
  name: "pool3"
  type: "Pooling"
  bottom: "conv3"
  top: "pool3"
  pooling_param {
    pool: MAX
    kernel_size: 2
    stride: 2
  }
}
layer {
  name: "fc4_300"
  type: "InnerProduct"
  bottom: "pool3"
  top: "fc4_300"
  inner_product_param {
    num_output: 300
    weight_filler {
      type: "xavier"
    }
  }
}
layer {
  name: "fc4_prescale"
  type: "Scale"
  bottom: "fc4_300"
  top: "fc4_300"
  param {
    lr_mult: 0
    decay_mult: 0
  }
  scale_param {
    filler {
      value: 0.6666
    }
    bias_term: false
  }
}
layer {
  name: "fc4_sTanH"
  type: "TanH"
  bottom: "fc4_300"
  top: "fc4_300"
}
layer {
  name: "fc4_postscale"
  type: "Scale"
  bottom: "fc4_300"
  top: "fc4_300"
  param {
    lr_mult: 0
    decay_mult: 0
  }
  scale_param {
    filler {
      value: 1.7159
    }
    bias_term: false
  }
}
layer {
  name: "fc5_67"
  type: "InnerProduct"
  bottom: "fc4_300"
  top: "fc5_classes"
  inner_product_param {
    num_output: 67
    weight_filler {
      type: "xavier"
    }
  }
}
layer {
  name: "loss"
  type: "SoftmaxWithLoss"
  bottom: "fc5_classes"
  bottom: "label"
  top: "loss"
}
layer {
  name: "accuracy_1"
  type: "Accuracy"
  bottom: "fc5_classes"
  bottom: "label"
  top: "accuracy_1"
  include {
    phase: TEST
  }
  accuracy_param {
    top_k: 1
  }
}
layer {
  name: "accuracy_5"
  type: "Accuracy"
  bottom: "fc5_classes"
  bottom: "label"
  top: "accuracy_5"
  include {
    phase: TEST
  }
  accuracy_param {
    top_k: 5
  }
}
I0411 03:16:43.838886 16627 layer_factory.hpp:77] Creating layer data
I0411 03:16:43.839550 16627 net.cpp:100] Creating Layer data
I0411 03:16:43.839561 16627 net.cpp:408] data -> data
I0411 03:16:43.839570 16627 net.cpp:408] data -> label
I0411 03:16:43.843047 16763 db_lmdb.cpp:35] Opened lmdb ../local_data/lmdb/rtsd-r1/orig/test/lmdb
I0411 03:16:43.843214 16627 data_layer.cpp:41] output data size: 1024,3,48,48
I0411 03:16:43.882338 16627 net.cpp:150] Setting up data
I0411 03:16:43.882364 16627 net.cpp:157] Top shape: 1024 3 48 48 (7077888)
I0411 03:16:43.882369 16627 net.cpp:157] Top shape: 1024 (1024)
I0411 03:16:43.882374 16627 net.cpp:165] Memory required for data: 28315648
I0411 03:16:43.882380 16627 layer_factory.hpp:77] Creating layer label_data_1_split
I0411 03:16:43.882393 16627 net.cpp:100] Creating Layer label_data_1_split
I0411 03:16:43.882397 16627 net.cpp:434] label_data_1_split <- label
I0411 03:16:43.882406 16627 net.cpp:408] label_data_1_split -> label_data_1_split_0
I0411 03:16:43.882418 16627 net.cpp:408] label_data_1_split -> label_data_1_split_1
I0411 03:16:43.882426 16627 net.cpp:408] label_data_1_split -> label_data_1_split_2
I0411 03:16:43.882532 16627 net.cpp:150] Setting up label_data_1_split
I0411 03:16:43.882549 16627 net.cpp:157] Top shape: 1024 (1024)
I0411 03:16:43.882552 16627 net.cpp:157] Top shape: 1024 (1024)
I0411 03:16:43.882556 16627 net.cpp:157] Top shape: 1024 (1024)
I0411 03:16:43.882558 16627 net.cpp:165] Memory required for data: 28327936
I0411 03:16:43.882562 16627 layer_factory.hpp:77] Creating layer conv1
I0411 03:16:43.882575 16627 net.cpp:100] Creating Layer conv1
I0411 03:16:43.882581 16627 net.cpp:434] conv1 <- data
I0411 03:16:43.882593 16627 net.cpp:408] conv1 -> conv1
I0411 03:16:43.885474 16627 net.cpp:150] Setting up conv1
I0411 03:16:43.885490 16627 net.cpp:157] Top shape: 1024 100 42 42 (180633600)
I0411 03:16:43.885514 16627 net.cpp:165] Memory required for data: 750862336
I0411 03:16:43.885526 16627 layer_factory.hpp:77] Creating layer conv1_prescale
I0411 03:16:43.885540 16627 net.cpp:100] Creating Layer conv1_prescale
I0411 03:16:43.885546 16627 net.cpp:434] conv1_prescale <- conv1
I0411 03:16:43.885551 16627 net.cpp:395] conv1_prescale -> conv1 (in-place)
I0411 03:16:43.885666 16627 net.cpp:150] Setting up conv1_prescale
I0411 03:16:43.885675 16627 net.cpp:157] Top shape: 1024 100 42 42 (180633600)
I0411 03:16:43.885679 16627 net.cpp:165] Memory required for data: 1473396736
I0411 03:16:43.885687 16627 layer_factory.hpp:77] Creating layer conv1_sTanH
I0411 03:16:43.885694 16627 net.cpp:100] Creating Layer conv1_sTanH
I0411 03:16:43.885699 16627 net.cpp:434] conv1_sTanH <- conv1
I0411 03:16:43.885704 16627 net.cpp:395] conv1_sTanH -> conv1 (in-place)
I0411 03:16:43.885907 16627 net.cpp:150] Setting up conv1_sTanH
I0411 03:16:43.885921 16627 net.cpp:157] Top shape: 1024 100 42 42 (180633600)
I0411 03:16:43.885924 16627 net.cpp:165] Memory required for data: 2195931136
I0411 03:16:43.885928 16627 layer_factory.hpp:77] Creating layer conv1_postscale
I0411 03:16:43.885936 16627 net.cpp:100] Creating Layer conv1_postscale
I0411 03:16:43.885938 16627 net.cpp:434] conv1_postscale <- conv1
I0411 03:16:43.885946 16627 net.cpp:395] conv1_postscale -> conv1 (in-place)
I0411 03:16:43.886065 16627 net.cpp:150] Setting up conv1_postscale
I0411 03:16:43.886075 16627 net.cpp:157] Top shape: 1024 100 42 42 (180633600)
I0411 03:16:43.886078 16627 net.cpp:165] Memory required for data: 2918465536
I0411 03:16:43.886083 16627 layer_factory.hpp:77] Creating layer pool1
I0411 03:16:43.886091 16627 net.cpp:100] Creating Layer pool1
I0411 03:16:43.886095 16627 net.cpp:434] pool1 <- conv1
I0411 03:16:43.886101 16627 net.cpp:408] pool1 -> pool1
I0411 03:16:43.886149 16627 net.cpp:150] Setting up pool1
I0411 03:16:43.886158 16627 net.cpp:157] Top shape: 1024 100 21 21 (45158400)
I0411 03:16:43.886162 16627 net.cpp:165] Memory required for data: 3099099136
I0411 03:16:43.886164 16627 layer_factory.hpp:77] Creating layer conv2
I0411 03:16:43.886173 16627 net.cpp:100] Creating Layer conv2
I0411 03:16:43.886178 16627 net.cpp:434] conv2 <- pool1
I0411 03:16:43.886184 16627 net.cpp:408] conv2 -> conv2
I0411 03:16:43.891578 16627 net.cpp:150] Setting up conv2
I0411 03:16:43.891597 16627 net.cpp:157] Top shape: 1024 150 18 18 (49766400)
I0411 03:16:43.891600 16627 net.cpp:165] Memory required for data: 3298164736
I0411 03:16:43.891610 16627 layer_factory.hpp:77] Creating layer conv2_prescale
I0411 03:16:43.891623 16627 net.cpp:100] Creating Layer conv2_prescale
I0411 03:16:43.891631 16627 net.cpp:434] conv2_prescale <- conv2
I0411 03:16:43.891638 16627 net.cpp:395] conv2_prescale -> conv2 (in-place)
I0411 03:16:43.891753 16627 net.cpp:150] Setting up conv2_prescale
I0411 03:16:43.891762 16627 net.cpp:157] Top shape: 1024 150 18 18 (49766400)
I0411 03:16:43.891765 16627 net.cpp:165] Memory required for data: 3497230336
I0411 03:16:43.891769 16627 layer_factory.hpp:77] Creating layer conv2_sTanH
I0411 03:16:43.891778 16627 net.cpp:100] Creating Layer conv2_sTanH
I0411 03:16:43.891782 16627 net.cpp:434] conv2_sTanH <- conv2
I0411 03:16:43.891794 16627 net.cpp:395] conv2_sTanH -> conv2 (in-place)
I0411 03:16:43.892786 16627 net.cpp:150] Setting up conv2_sTanH
I0411 03:16:43.892801 16627 net.cpp:157] Top shape: 1024 150 18 18 (49766400)
I0411 03:16:43.892804 16627 net.cpp:165] Memory required for data: 3696295936
I0411 03:16:43.892808 16627 layer_factory.hpp:77] Creating layer conv2_postscale
I0411 03:16:43.892818 16627 net.cpp:100] Creating Layer conv2_postscale
I0411 03:16:43.892822 16627 net.cpp:434] conv2_postscale <- conv2
I0411 03:16:43.892828 16627 net.cpp:395] conv2_postscale -> conv2 (in-place)
I0411 03:16:43.892940 16627 net.cpp:150] Setting up conv2_postscale
I0411 03:16:43.892949 16627 net.cpp:157] Top shape: 1024 150 18 18 (49766400)
I0411 03:16:43.892952 16627 net.cpp:165] Memory required for data: 3895361536
I0411 03:16:43.892959 16627 layer_factory.hpp:77] Creating layer pool2
I0411 03:16:43.892983 16627 net.cpp:100] Creating Layer pool2
I0411 03:16:43.892990 16627 net.cpp:434] pool2 <- conv2
I0411 03:16:43.892997 16627 net.cpp:408] pool2 -> pool2
I0411 03:16:43.893049 16627 net.cpp:150] Setting up pool2
I0411 03:16:43.893057 16627 net.cpp:157] Top shape: 1024 150 9 9 (12441600)
I0411 03:16:43.893060 16627 net.cpp:165] Memory required for data: 3945127936
I0411 03:16:43.893064 16627 layer_factory.hpp:77] Creating layer conv3
I0411 03:16:43.893074 16627 net.cpp:100] Creating Layer conv3
I0411 03:16:43.893079 16627 net.cpp:434] conv3 <- pool2
I0411 03:16:43.893085 16627 net.cpp:408] conv3 -> conv3
I0411 03:16:43.898936 16627 net.cpp:150] Setting up conv3
I0411 03:16:43.898954 16627 net.cpp:157] Top shape: 1024 250 6 6 (9216000)
I0411 03:16:43.898958 16627 net.cpp:165] Memory required for data: 3981991936
I0411 03:16:43.898974 16627 layer_factory.hpp:77] Creating layer conv3_prescale
I0411 03:16:43.898983 16627 net.cpp:100] Creating Layer conv3_prescale
I0411 03:16:43.898988 16627 net.cpp:434] conv3_prescale <- conv3
I0411 03:16:43.898995 16627 net.cpp:395] conv3_prescale -> conv3 (in-place)
I0411 03:16:43.899096 16627 net.cpp:150] Setting up conv3_prescale
I0411 03:16:43.899104 16627 net.cpp:157] Top shape: 1024 250 6 6 (9216000)
I0411 03:16:43.899107 16627 net.cpp:165] Memory required for data: 4018855936
I0411 03:16:43.899116 16627 layer_factory.hpp:77] Creating layer conv3_sTanH
I0411 03:16:43.899123 16627 net.cpp:100] Creating Layer conv3_sTanH
I0411 03:16:43.899127 16627 net.cpp:434] conv3_sTanH <- conv3
I0411 03:16:43.899132 16627 net.cpp:395] conv3_sTanH -> conv3 (in-place)
I0411 03:16:43.905589 16627 net.cpp:150] Setting up conv3_sTanH
I0411 03:16:43.905609 16627 net.cpp:157] Top shape: 1024 250 6 6 (9216000)
I0411 03:16:43.905622 16627 net.cpp:165] Memory required for data: 4055719936
I0411 03:16:43.905625 16627 layer_factory.hpp:77] Creating layer conv3_postscale
I0411 03:16:43.905635 16627 net.cpp:100] Creating Layer conv3_postscale
I0411 03:16:43.905642 16627 net.cpp:434] conv3_postscale <- conv3
I0411 03:16:43.905649 16627 net.cpp:395] conv3_postscale -> conv3 (in-place)
I0411 03:16:43.905757 16627 net.cpp:150] Setting up conv3_postscale
I0411 03:16:43.905766 16627 net.cpp:157] Top shape: 1024 250 6 6 (9216000)
I0411 03:16:43.905771 16627 net.cpp:165] Memory required for data: 4092583936
I0411 03:16:43.905776 16627 layer_factory.hpp:77] Creating layer pool3
I0411 03:16:43.905787 16627 net.cpp:100] Creating Layer pool3
I0411 03:16:43.905793 16627 net.cpp:434] pool3 <- conv3
I0411 03:16:43.905809 16627 net.cpp:408] pool3 -> pool3
I0411 03:16:43.905854 16627 net.cpp:150] Setting up pool3
I0411 03:16:43.905864 16627 net.cpp:157] Top shape: 1024 250 3 3 (2304000)
I0411 03:16:43.905866 16627 net.cpp:165] Memory required for data: 4101799936
I0411 03:16:43.905869 16627 layer_factory.hpp:77] Creating layer fc4_300
I0411 03:16:43.905879 16627 net.cpp:100] Creating Layer fc4_300
I0411 03:16:43.905881 16627 net.cpp:434] fc4_300 <- pool3
I0411 03:16:43.905887 16627 net.cpp:408] fc4_300 -> fc4_300
I0411 03:16:43.919028 16627 net.cpp:150] Setting up fc4_300
I0411 03:16:43.919049 16627 net.cpp:157] Top shape: 1024 300 (307200)
I0411 03:16:43.919052 16627 net.cpp:165] Memory required for data: 4103028736
I0411 03:16:43.919062 16627 layer_factory.hpp:77] Creating layer fc4_prescale
I0411 03:16:43.919073 16627 net.cpp:100] Creating Layer fc4_prescale
I0411 03:16:43.919080 16627 net.cpp:434] fc4_prescale <- fc4_300
I0411 03:16:43.919086 16627 net.cpp:395] fc4_prescale -> fc4_300 (in-place)
I0411 03:16:43.919185 16627 net.cpp:150] Setting up fc4_prescale
I0411 03:16:43.919194 16627 net.cpp:157] Top shape: 1024 300 (307200)
I0411 03:16:43.919198 16627 net.cpp:165] Memory required for data: 4104257536
I0411 03:16:43.919201 16627 layer_factory.hpp:77] Creating layer fc4_sTanH
I0411 03:16:43.919209 16627 net.cpp:100] Creating Layer fc4_sTanH
I0411 03:16:43.919211 16627 net.cpp:434] fc4_sTanH <- fc4_300
I0411 03:16:43.919216 16627 net.cpp:395] fc4_sTanH -> fc4_300 (in-place)
I0411 03:16:43.919448 16627 net.cpp:150] Setting up fc4_sTanH
I0411 03:16:43.919459 16627 net.cpp:157] Top shape: 1024 300 (307200)
I0411 03:16:43.919472 16627 net.cpp:165] Memory required for data: 4105486336
I0411 03:16:43.919476 16627 layer_factory.hpp:77] Creating layer fc4_postscale
I0411 03:16:43.919486 16627 net.cpp:100] Creating Layer fc4_postscale
I0411 03:16:43.919490 16627 net.cpp:434] fc4_postscale <- fc4_300
I0411 03:16:43.919497 16627 net.cpp:395] fc4_postscale -> fc4_300 (in-place)
I0411 03:16:43.919600 16627 net.cpp:150] Setting up fc4_postscale
I0411 03:16:43.919610 16627 net.cpp:157] Top shape: 1024 300 (307200)
I0411 03:16:43.919613 16627 net.cpp:165] Memory required for data: 4106715136
I0411 03:16:43.919618 16627 layer_factory.hpp:77] Creating layer fc5_67
I0411 03:16:43.919625 16627 net.cpp:100] Creating Layer fc5_67
I0411 03:16:43.919630 16627 net.cpp:434] fc5_67 <- fc4_300
I0411 03:16:43.919636 16627 net.cpp:408] fc5_67 -> fc5_classes
I0411 03:16:43.919906 16627 net.cpp:150] Setting up fc5_67
I0411 03:16:43.919919 16627 net.cpp:157] Top shape: 1024 67 (68608)
I0411 03:16:43.919921 16627 net.cpp:165] Memory required for data: 4106989568
I0411 03:16:43.919932 16627 layer_factory.hpp:77] Creating layer fc5_classes_fc5_67_0_split
I0411 03:16:43.919942 16627 net.cpp:100] Creating Layer fc5_classes_fc5_67_0_split
I0411 03:16:43.919946 16627 net.cpp:434] fc5_classes_fc5_67_0_split <- fc5_classes
I0411 03:16:43.919951 16627 net.cpp:408] fc5_classes_fc5_67_0_split -> fc5_classes_fc5_67_0_split_0
I0411 03:16:43.919960 16627 net.cpp:408] fc5_classes_fc5_67_0_split -> fc5_classes_fc5_67_0_split_1
I0411 03:16:43.919967 16627 net.cpp:408] fc5_classes_fc5_67_0_split -> fc5_classes_fc5_67_0_split_2
I0411 03:16:43.920024 16627 net.cpp:150] Setting up fc5_classes_fc5_67_0_split
I0411 03:16:43.920032 16627 net.cpp:157] Top shape: 1024 67 (68608)
I0411 03:16:43.920037 16627 net.cpp:157] Top shape: 1024 67 (68608)
I0411 03:16:43.920040 16627 net.cpp:157] Top shape: 1024 67 (68608)
I0411 03:16:43.920042 16627 net.cpp:165] Memory required for data: 4107812864
I0411 03:16:43.920045 16627 layer_factory.hpp:77] Creating layer loss
I0411 03:16:43.920053 16627 net.cpp:100] Creating Layer loss
I0411 03:16:43.920058 16627 net.cpp:434] loss <- fc5_classes_fc5_67_0_split_0
I0411 03:16:43.920065 16627 net.cpp:434] loss <- label_data_1_split_0
I0411 03:16:43.920070 16627 net.cpp:408] loss -> loss
…
