…
I0414 10:16:35.750005 14431 solver.cpp:93] Creating training net from train_net file: ./Prototxt/experiment_11/rtsd-r3/orig/trial_2/train.prototxt
I0414 10:16:35.750476 14431 net.cpp:58] Initializing net from parameters: 
state {
  phase: TRAIN
  level: 0
  stage: ""
}
layer {
  name: "data"
  type: "Data"
  top: "data"
  top: "label"
  include {
    phase: TRAIN
  }
  transform_param {
    scale: 0.0039215689
    mirror: false
    crop_size: 48
    mean_value: 120
    mean_value: 113
    mean_value: 112
  }
  data_param {
    source: "../local_data/lmdb/rtsd-r3/orig/train/lmdb"
    batch_size: 1024
    backend: LMDB
  }
}
layer {
  name: "conv1"
  type: "Convolution"
  bottom: "data"
  top: "conv1"
  convolution_param {
    num_output: 100
    pad: 0
    kernel_size: 7
    group: 1
    stride: 1
    weight_filler {
      type: "xavier"
    }
  }
}
layer {
  name: "conv1_prescale"
  type: "Scale"
  bottom: "conv1"
  top: "conv1"
  param {
    lr_mult: 0
    decay_mult: 0
  }
  scale_param {
    filler {
      value: 0.6666
    }
    bias_term: false
  }
}
layer {
  name: "conv1_sTanH"
  type: "TanH"
  bottom: "conv1"
  top: "conv1"
}
layer {
  name: "conv1_postscale"
  type: "Scale"
  bottom: "conv1"
  top: "conv1"
  param {
    lr_mult: 0
    decay_mult: 0
  }
  scale_param {
    filler {
      value: 1.7159
    }
    bias_term: false
  }
}
layer {
  name: "pool1"
  type: "Pooling"
  bottom: "conv1"
  top: "pool1"
  pooling_param {
    pool: MAX
    kernel_size: 2
    stride: 2
  }
}
layer {
  name: "conv2"
  type: "Convolution"
  bottom: "pool1"
  top: "conv2"
  convolution_param {
    num_output: 150
    pad: 0
    kernel_size: 4
    group: 1
    stride: 1
    weight_filler {
      type: "xavier"
    }
  }
}
layer {
  name: "conv2_prescale"
  type: "Scale"
  bottom: "conv2"
  top: "conv2"
  param {
    lr_mult: 0
    decay_mult: 0
  }
  scale_param {
    filler {
      value: 0.6666
    }
    bias_term: false
  }
}
layer {
  name: "conv2_sTanH"
  type: "TanH"
  bottom: "conv2"
  top: "conv2"
}
layer {
  name: "conv2_postscale"
  type: "Scale"
  bottom: "conv2"
  top: "conv2"
  param {
    lr_mult: 0
    decay_mult: 0
  }
  scale_param {
    filler {
      value: 1.7159
    }
    bias_term: false
  }
}
layer {
  name: "pool2"
  type: "Pooling"
  bottom: "conv2"
  top: "pool2"
  pooling_param {
    pool: MAX
    kernel_size: 2
    stride: 2
  }
}
layer {
  name: "conv3"
  type: "Convolution"
  bottom: "pool2"
  top: "conv3"
  convolution_param {
    num_output: 250
    pad: 0
    kernel_size: 4
    group: 1
    stride: 1
    weight_filler {
      type: "xavier"
    }
  }
}
layer {
  name: "conv3_prescale"
  type: "Scale"
  bottom: "conv3"
  top: "conv3"
  param {
    lr_mult: 0
    decay_mult: 0
  }
  scale_param {
    filler {
      value: 0.6666
    }
    bias_term: false
  }
}
layer {
  name: "conv3_sTanH"
  type: "TanH"
  bottom: "conv3"
  top: "conv3"
}
layer {
  name: "conv3_postscale"
  type: "Scale"
  bottom: "conv3"
  top: "conv3"
  param {
    lr_mult: 0
    decay_mult: 0
  }
  scale_param {
    filler {
      value: 1.7159
    }
    bias_term: false
  }
}
layer {
  name: "pool3"
  type: "Pooling"
  bottom: "conv3"
  top: "pool3"
  pooling_param {
    pool: MAX
    kernel_size: 2
    stride: 2
  }
}
layer {
  name: "fc4_300"
  type: "InnerProduct"
  bottom: "pool3"
  top: "fc4_300"
  inner_product_param {
    num_output: 300
    weight_filler {
      type: "xavier"
    }
  }
}
layer {
  name: "fc4_prescale"
  type: "Scale"
  bottom: "fc4_300"
  top: "fc4_300"
  param {
    lr_mult: 0
    decay_mult: 0
  }
  scale_param {
    filler {
      value: 0.6666
    }
    bias_term: false
  }
}
layer {
  name: "fc4_sTanH"
  type: "TanH"
  bottom: "fc4_300"
  top: "fc4_300"
}
layer {
  name: "fc4_postscale"
  type: "Scale"
  bottom: "fc4_300"
  top: "fc4_300"
  param {
    lr_mult: 0
    decay_mult: 0
  }
  scale_param {
    filler {
      value: 1.7159
    }
    bias_term: false
  }
}
layer {
  name: "fc5_106"
  type: "InnerProduct"
  bottom: "fc4_300"
  top: "fc5_classes"
  inner_product_param {
    num_output: 106
    weight_filler {
      type: "xavier"
    }
  }
}
layer {
  name: "softmax"
  type: "Softmax"
  bottom: "fc5_classes"
  top: "softmax"
}
layer {
  name: "loss"
  type: "MultinomialLogisticLoss"
  bottom: "softmax"
  bottom: "label"
  top: "loss"
}
layer {
  name: "accuracy_1"
  type: "Accuracy"
  bottom: "fc5_classes"
  bottom: "label"
  top: "accuracy_1"
  accuracy_param {
    top_k: 1
  }
}
layer {
  name: "accuracy_5"
  type: "Accuracy"
  bottom: "fc5_classes"
  bottom: "label"
  top: "accuracy_5"
  accuracy_param {
    top_k: 5
  }
}
layer {
  name: "silence"
  type: "Silence"
  bottom: "accuracy_1"
  bottom: "accuracy_5"
}
I0414 10:16:35.750630 14431 layer_factory.hpp:77] Creating layer data
I0414 10:16:35.751703 14431 net.cpp:100] Creating Layer data
I0414 10:16:35.751718 14431 net.cpp:408] data -> data
I0414 10:16:35.751744 14431 net.cpp:408] data -> label
I0414 10:16:35.754039 14536 db_lmdb.cpp:35] Opened lmdb ../local_data/lmdb/rtsd-r3/orig/train/lmdb
I0414 10:16:35.770979 14431 data_layer.cpp:41] output data size: 1024,3,48,48
I0414 10:16:35.830298 14431 net.cpp:150] Setting up data
I0414 10:16:35.830327 14431 net.cpp:157] Top shape: 1024 3 48 48 (7077888)
I0414 10:16:35.830332 14431 net.cpp:157] Top shape: 1024 (1024)
I0414 10:16:35.830335 14431 net.cpp:165] Memory required for data: 28315648
I0414 10:16:35.830345 14431 layer_factory.hpp:77] Creating layer label_data_1_split
I0414 10:16:35.830359 14431 net.cpp:100] Creating Layer label_data_1_split
I0414 10:16:35.830365 14431 net.cpp:434] label_data_1_split <- label
I0414 10:16:35.830380 14431 net.cpp:408] label_data_1_split -> label_data_1_split_0
I0414 10:16:35.830392 14431 net.cpp:408] label_data_1_split -> label_data_1_split_1
I0414 10:16:35.830400 14431 net.cpp:408] label_data_1_split -> label_data_1_split_2
I0414 10:16:35.830471 14431 net.cpp:150] Setting up label_data_1_split
I0414 10:16:35.830478 14431 net.cpp:157] Top shape: 1024 (1024)
I0414 10:16:35.830482 14431 net.cpp:157] Top shape: 1024 (1024)
I0414 10:16:35.830485 14431 net.cpp:157] Top shape: 1024 (1024)
I0414 10:16:35.830488 14431 net.cpp:165] Memory required for data: 28327936
I0414 10:16:35.830492 14431 layer_factory.hpp:77] Creating layer conv1
I0414 10:16:35.830507 14431 net.cpp:100] Creating Layer conv1
I0414 10:16:35.830513 14431 net.cpp:434] conv1 <- data
I0414 10:16:35.830518 14431 net.cpp:408] conv1 -> conv1
I0414 10:16:36.219974 14431 net.cpp:150] Setting up conv1
I0414 10:16:36.220001 14431 net.cpp:157] Top shape: 1024 100 42 42 (180633600)
I0414 10:16:36.220005 14431 net.cpp:165] Memory required for data: 750862336
I0414 10:16:36.220027 14431 layer_factory.hpp:77] Creating layer conv1_prescale
I0414 10:16:36.220041 14431 net.cpp:100] Creating Layer conv1_prescale
I0414 10:16:36.220046 14431 net.cpp:434] conv1_prescale <- conv1
I0414 10:16:36.220053 14431 net.cpp:395] conv1_prescale -> conv1 (in-place)
I0414 10:16:36.220158 14431 net.cpp:150] Setting up conv1_prescale
I0414 10:16:36.220166 14431 net.cpp:157] Top shape: 1024 100 42 42 (180633600)
I0414 10:16:36.220170 14431 net.cpp:165] Memory required for data: 1473396736
I0414 10:16:36.220176 14431 layer_factory.hpp:77] Creating layer conv1_sTanH
I0414 10:16:36.220185 14431 net.cpp:100] Creating Layer conv1_sTanH
I0414 10:16:36.220190 14431 net.cpp:434] conv1_sTanH <- conv1
I0414 10:16:36.220193 14431 net.cpp:395] conv1_sTanH -> conv1 (in-place)
I0414 10:16:36.220381 14431 net.cpp:150] Setting up conv1_sTanH
I0414 10:16:36.220392 14431 net.cpp:157] Top shape: 1024 100 42 42 (180633600)
I0414 10:16:36.220413 14431 net.cpp:165] Memory required for data: 2195931136
I0414 10:16:36.220418 14431 layer_factory.hpp:77] Creating layer conv1_postscale
I0414 10:16:36.220425 14431 net.cpp:100] Creating Layer conv1_postscale
I0414 10:16:36.220428 14431 net.cpp:434] conv1_postscale <- conv1
I0414 10:16:36.220433 14431 net.cpp:395] conv1_postscale -> conv1 (in-place)
I0414 10:16:36.220526 14431 net.cpp:150] Setting up conv1_postscale
I0414 10:16:36.220535 14431 net.cpp:157] Top shape: 1024 100 42 42 (180633600)
I0414 10:16:36.220537 14431 net.cpp:165] Memory required for data: 2918465536
I0414 10:16:36.220542 14431 layer_factory.hpp:77] Creating layer pool1
I0414 10:16:36.220549 14431 net.cpp:100] Creating Layer pool1
I0414 10:16:36.220554 14431 net.cpp:434] pool1 <- conv1
I0414 10:16:36.220558 14431 net.cpp:408] pool1 -> pool1
I0414 10:16:36.220602 14431 net.cpp:150] Setting up pool1
I0414 10:16:36.220610 14431 net.cpp:157] Top shape: 1024 100 21 21 (45158400)
I0414 10:16:36.220614 14431 net.cpp:165] Memory required for data: 3099099136
I0414 10:16:36.220618 14431 layer_factory.hpp:77] Creating layer conv2
I0414 10:16:36.220628 14431 net.cpp:100] Creating Layer conv2
I0414 10:16:36.220631 14431 net.cpp:434] conv2 <- pool1
I0414 10:16:36.220636 14431 net.cpp:408] conv2 -> conv2
I0414 10:16:36.227042 14431 net.cpp:150] Setting up conv2
I0414 10:16:36.227061 14431 net.cpp:157] Top shape: 1024 150 18 18 (49766400)
I0414 10:16:36.227064 14431 net.cpp:165] Memory required for data: 3298164736
I0414 10:16:36.227075 14431 layer_factory.hpp:77] Creating layer conv2_prescale
I0414 10:16:36.227087 14431 net.cpp:100] Creating Layer conv2_prescale
I0414 10:16:36.227092 14431 net.cpp:434] conv2_prescale <- conv2
I0414 10:16:36.227097 14431 net.cpp:395] conv2_prescale -> conv2 (in-place)
I0414 10:16:36.227198 14431 net.cpp:150] Setting up conv2_prescale
I0414 10:16:36.227206 14431 net.cpp:157] Top shape: 1024 150 18 18 (49766400)
I0414 10:16:36.227210 14431 net.cpp:165] Memory required for data: 3497230336
I0414 10:16:36.227215 14431 layer_factory.hpp:77] Creating layer conv2_sTanH
I0414 10:16:36.227221 14431 net.cpp:100] Creating Layer conv2_sTanH
I0414 10:16:36.227224 14431 net.cpp:434] conv2_sTanH <- conv2
I0414 10:16:36.227228 14431 net.cpp:395] conv2_sTanH -> conv2 (in-place)
I0414 10:16:36.245352 14431 net.cpp:150] Setting up conv2_sTanH
I0414 10:16:36.245370 14431 net.cpp:157] Top shape: 1024 150 18 18 (49766400)
I0414 10:16:36.245374 14431 net.cpp:165] Memory required for data: 3696295936
I0414 10:16:36.245378 14431 layer_factory.hpp:77] Creating layer conv2_postscale
I0414 10:16:36.245386 14431 net.cpp:100] Creating Layer conv2_postscale
I0414 10:16:36.245389 14431 net.cpp:434] conv2_postscale <- conv2
I0414 10:16:36.245395 14431 net.cpp:395] conv2_postscale -> conv2 (in-place)
I0414 10:16:36.245489 14431 net.cpp:150] Setting up conv2_postscale
I0414 10:16:36.245498 14431 net.cpp:157] Top shape: 1024 150 18 18 (49766400)
I0414 10:16:36.245501 14431 net.cpp:165] Memory required for data: 3895361536
I0414 10:16:36.245507 14431 layer_factory.hpp:77] Creating layer pool2
I0414 10:16:36.245514 14431 net.cpp:100] Creating Layer pool2
I0414 10:16:36.245518 14431 net.cpp:434] pool2 <- conv2
I0414 10:16:36.245523 14431 net.cpp:408] pool2 -> pool2
I0414 10:16:36.245561 14431 net.cpp:150] Setting up pool2
I0414 10:16:36.245569 14431 net.cpp:157] Top shape: 1024 150 9 9 (12441600)
I0414 10:16:36.245573 14431 net.cpp:165] Memory required for data: 3945127936
I0414 10:16:36.245576 14431 layer_factory.hpp:77] Creating layer conv3
I0414 10:16:36.245584 14431 net.cpp:100] Creating Layer conv3
I0414 10:16:36.245589 14431 net.cpp:434] conv3 <- pool2
I0414 10:16:36.245594 14431 net.cpp:408] conv3 -> conv3
I0414 10:16:36.251160 14431 net.cpp:150] Setting up conv3
I0414 10:16:36.251178 14431 net.cpp:157] Top shape: 1024 250 6 6 (9216000)
I0414 10:16:36.251181 14431 net.cpp:165] Memory required for data: 3981991936
I0414 10:16:36.251193 14431 layer_factory.hpp:77] Creating layer conv3_prescale
I0414 10:16:36.251215 14431 net.cpp:100] Creating Layer conv3_prescale
I0414 10:16:36.251220 14431 net.cpp:434] conv3_prescale <- conv3
I0414 10:16:36.251227 14431 net.cpp:395] conv3_prescale -> conv3 (in-place)
I0414 10:16:36.251323 14431 net.cpp:150] Setting up conv3_prescale
I0414 10:16:36.251332 14431 net.cpp:157] Top shape: 1024 250 6 6 (9216000)
I0414 10:16:36.251334 14431 net.cpp:165] Memory required for data: 4018855936
I0414 10:16:36.251339 14431 layer_factory.hpp:77] Creating layer conv3_sTanH
I0414 10:16:36.251346 14431 net.cpp:100] Creating Layer conv3_sTanH
I0414 10:16:36.251350 14431 net.cpp:434] conv3_sTanH <- conv3
I0414 10:16:36.251355 14431 net.cpp:395] conv3_sTanH -> conv3 (in-place)
I0414 10:16:36.255152 14431 net.cpp:150] Setting up conv3_sTanH
I0414 10:16:36.255170 14431 net.cpp:157] Top shape: 1024 250 6 6 (9216000)
I0414 10:16:36.255174 14431 net.cpp:165] Memory required for data: 4055719936
I0414 10:16:36.255177 14431 layer_factory.hpp:77] Creating layer conv3_postscale
I0414 10:16:36.255185 14431 net.cpp:100] Creating Layer conv3_postscale
I0414 10:16:36.255190 14431 net.cpp:434] conv3_postscale <- conv3
I0414 10:16:36.255198 14431 net.cpp:395] conv3_postscale -> conv3 (in-place)
I0414 10:16:36.255302 14431 net.cpp:150] Setting up conv3_postscale
I0414 10:16:36.255311 14431 net.cpp:157] Top shape: 1024 250 6 6 (9216000)
I0414 10:16:36.255313 14431 net.cpp:165] Memory required for data: 4092583936
I0414 10:16:36.255318 14431 layer_factory.hpp:77] Creating layer pool3
I0414 10:16:36.255329 14431 net.cpp:100] Creating Layer pool3
I0414 10:16:36.255334 14431 net.cpp:434] pool3 <- conv3
I0414 10:16:36.255339 14431 net.cpp:408] pool3 -> pool3
I0414 10:16:36.255386 14431 net.cpp:150] Setting up pool3
I0414 10:16:36.255394 14431 net.cpp:157] Top shape: 1024 250 3 3 (2304000)
I0414 10:16:36.255398 14431 net.cpp:165] Memory required for data: 4101799936
I0414 10:16:36.255400 14431 layer_factory.hpp:77] Creating layer fc4_300
I0414 10:16:36.255408 14431 net.cpp:100] Creating Layer fc4_300
I0414 10:16:36.255410 14431 net.cpp:434] fc4_300 <- pool3
I0414 10:16:36.255416 14431 net.cpp:408] fc4_300 -> fc4_300
I0414 10:16:36.260913 14431 net.cpp:150] Setting up fc4_300
I0414 10:16:36.260929 14431 net.cpp:157] Top shape: 1024 300 (307200)
I0414 10:16:36.260932 14431 net.cpp:165] Memory required for data: 4103028736
I0414 10:16:36.260939 14431 layer_factory.hpp:77] Creating layer fc4_prescale
I0414 10:16:36.260947 14431 net.cpp:100] Creating Layer fc4_prescale
I0414 10:16:36.260951 14431 net.cpp:434] fc4_prescale <- fc4_300
I0414 10:16:36.260958 14431 net.cpp:395] fc4_prescale -> fc4_300 (in-place)
I0414 10:16:36.261046 14431 net.cpp:150] Setting up fc4_prescale
I0414 10:16:36.261054 14431 net.cpp:157] Top shape: 1024 300 (307200)
I0414 10:16:36.261057 14431 net.cpp:165] Memory required for data: 4104257536
I0414 10:16:36.261061 14431 layer_factory.hpp:77] Creating layer fc4_sTanH
I0414 10:16:36.261068 14431 net.cpp:100] Creating Layer fc4_sTanH
I0414 10:16:36.261073 14431 net.cpp:434] fc4_sTanH <- fc4_300
I0414 10:16:36.261081 14431 net.cpp:395] fc4_sTanH -> fc4_300 (in-place)
I0414 10:16:36.261270 14431 net.cpp:150] Setting up fc4_sTanH
I0414 10:16:36.261281 14431 net.cpp:157] Top shape: 1024 300 (307200)
I0414 10:16:36.261284 14431 net.cpp:165] Memory required for data: 4105486336
I0414 10:16:36.261287 14431 layer_factory.hpp:77] Creating layer fc4_postscale
I0414 10:16:36.261296 14431 net.cpp:100] Creating Layer fc4_postscale
I0414 10:16:36.261301 14431 net.cpp:434] fc4_postscale <- fc4_300
I0414 10:16:36.261307 14431 net.cpp:395] fc4_postscale -> fc4_300 (in-place)
I0414 10:16:36.261405 14431 net.cpp:150] Setting up fc4_postscale
I0414 10:16:36.261414 14431 net.cpp:157] Top shape: 1024 300 (307200)
I0414 10:16:36.261416 14431 net.cpp:165] Memory required for data: 4106715136
I0414 10:16:36.261421 14431 layer_factory.hpp:77] Creating layer fc5_106
I0414 10:16:36.261430 14431 net.cpp:100] Creating Layer fc5_106
I0414 10:16:36.261435 14431 net.cpp:434] fc5_106 <- fc4_300
I0414 10:16:36.261440 14431 net.cpp:408] fc5_106 -> fc5_classes
I0414 10:16:36.266306 14431 net.cpp:150] Setting up fc5_106
I0414 10:16:36.266324 14431 net.cpp:157] Top shape: 1024 106 (108544)
I0414 10:16:36.266330 14431 net.cpp:165] Memory required for data: 4107149312
I0414 10:16:36.266341 14431 layer_factory.hpp:77] Creating layer fc5_classes_fc5_106_0_split
I0414 10:16:36.266350 14431 net.cpp:100] Creating Layer fc5_classes_fc5_106_0_split
I0414 10:16:36.266355 14431 net.cpp:434] fc5_classes_fc5_106_0_split <- fc5_classes
I0414 10:16:36.266361 14431 net.cpp:408] fc5_classes_fc5_106_0_split -> fc5_classes_fc5_106_0_split_0
I0414 10:16:36.266371 14431 net.cpp:408] fc5_classes_fc5_106_0_split -> fc5_classes_fc5_106_0_split_1
I0414 10:16:36.266378 14431 net.cpp:408] fc5_classes_fc5_106_0_split -> fc5_classes_fc5_106_0_split_2
I0414 10:16:36.266434 14431 net.cpp:150] Setting up fc5_classes_fc5_106_0_split
I0414 10:16:36.266443 14431 net.cpp:157] Top shape: 1024 106 (108544)
I0414 10:16:36.266446 14431 net.cpp:157] Top shape: 1024 106 (108544)
I0414 10:16:36.266450 14431 net.cpp:157] Top shape: 1024 106 (108544)
I0414 10:16:36.266453 14431 net.cpp:165] Memory required for data: 4108451840
I0414 10:16:36.266456 14431 layer_factory.hpp:77] Creating layer softmax
I0414 10:16:36.266463 14431 net.cpp:100] Creating Layer softmax
I0414 10:16:36.266466 14431 net.cpp:434] softmax <- fc5_classes_fc5_106_0_split_0
I0414 10:16:36.266471 14431 net.cpp:408] softmax -> softmax
I0414 10:16:36.266726 14431 net.cpp:150] Setting up softmax
I0414 10:16:36.266738 14431 net.cpp:157] Top shape: 1024 106 (108544)
I0414 10:16:36.266742 14431 net.cpp:165] Memory required for data: 4108886016
I0414 10:16:36.266746 14431 layer_factory.hpp:77] Creating layer loss
I0414 10:16:36.266752 14431 net.cpp:100] Creating Layer loss
I0414 10:16:36.266757 14431 net.cpp:434] loss <- softmax
I0414 10:16:36.266762 14431 net.cpp:434] loss <- label_data_1_split_0
I0414 10:16:36.266767 14431 net.cpp:408] loss -> loss
…
