…
I0414 16:10:10.066076 30013 solver.cpp:93] Creating training net from train_net file: ./Prototxt/experiment_10/rtsd-r3/orig/trial_5/train.prototxt
I0414 16:10:10.086472 30013 net.cpp:58] Initializing net from parameters: 
state {
  phase: TRAIN
  level: 0
  stage: ""
}
layer {
  name: "data"
  type: "Data"
  top: "data"
  top: "label"
  include {
    phase: TRAIN
  }
  transform_param {
    scale: 0.0039215689
    mirror: false
    crop_size: 48
    mean_value: 120
    mean_value: 113
    mean_value: 112
  }
  data_param {
    source: "../local_data/lmdb/rtsd-r3/orig/train/lmdb"
    batch_size: 1024
    backend: LMDB
  }
}
layer {
  name: "conv1"
  type: "Convolution"
  bottom: "data"
  top: "conv1"
  convolution_param {
    num_output: 100
    pad: 0
    kernel_size: 7
    group: 1
    stride: 1
    weight_filler {
      type: "xavier"
    }
  }
}
layer {
  name: "conv1_relu"
  type: "ReLU"
  bottom: "conv1"
  top: "conv1"
}
layer {
  name: "pool1"
  type: "Pooling"
  bottom: "conv1"
  top: "pool1"
  pooling_param {
    pool: MAX
    kernel_size: 2
    stride: 2
  }
}
layer {
  name: "conv2"
  type: "Convolution"
  bottom: "pool1"
  top: "conv2"
  convolution_param {
    num_output: 150
    pad: 0
    kernel_size: 4
    group: 1
    stride: 1
    weight_filler {
      type: "xavier"
    }
  }
}
layer {
  name: "conv2_relu"
  type: "ReLU"
  bottom: "conv2"
  top: "conv2"
}
layer {
  name: "pool2"
  type: "Pooling"
  bottom: "conv2"
  top: "pool2"
  pooling_param {
    pool: MAX
    kernel_size: 2
    stride: 2
  }
}
layer {
  name: "conv3"
  type: "Convolution"
  bottom: "pool2"
  top: "conv3"
  convolution_param {
    num_output: 250
    pad: 0
    kernel_size: 4
    group: 1
    stride: 1
    weight_filler {
      type: "xavier"
    }
  }
}
layer {
  name: "conv3_relu"
  type: "ReLU"
  bottom: "conv3"
  top: "conv3"
}
layer {
  name: "pool3"
  type: "Pooling"
  bottom: "conv3"
  top: "pool3"
  pooling_param {
    pool: MAX
    kernel_size: 2
    stride: 2
  }
}
layer {
  name: "fc4_300"
  type: "InnerProduct"
  bottom: "pool3"
  top: "fc4_300"
  inner_product_param {
    num_output: 300
    weight_filler {
      type: "xavier"
    }
  }
}
layer {
  name: "fc4_relu"
  type: "ReLU"
  bottom: "fc4_300"
  top: "fc4_300"
}
layer {
  name: "fc5_106"
  type: "InnerProduct"
  bottom: "fc4_300"
  top: "fc5_classes"
  inner_product_param {
    num_output: 106
    weight_filler {
      type: "xavier"
    }
  }
}
layer {
  name: "softmax"
  type: "Softmax"
  bottom: "fc5_classes"
  top: "softmax"
}
layer {
  name: "loss"
  type: "MultinomialLogisticLoss"
  bottom: "softmax"
  bottom: "label"
  top: "loss"
}
layer {
  name: "accuracy_1"
  type: "Accuracy"
  bottom: "fc5_classes"
  bottom: "label"
  top: "accuracy_1"
  accuracy_param {
    top_k: 1
  }
}
layer {
  name: "accuracy_5"
  type: "Accuracy"
  bottom: "fc5_classes"
  bottom: "label"
  top: "accuracy_5"
  accuracy_param {
    top_k: 5
  }
}
layer {
  name: "silence"
  type: "Silence"
  bottom: "accuracy_1"
  bottom: "accuracy_5"
}
I0414 16:10:10.086628 30013 layer_factory.hpp:77] Creating layer data
I0414 16:10:10.087705 30013 net.cpp:100] Creating Layer data
I0414 16:10:10.087720 30013 net.cpp:408] data -> data
I0414 16:10:10.087745 30013 net.cpp:408] data -> label
I0414 16:10:10.089153 30129 db_lmdb.cpp:35] Opened lmdb ../local_data/lmdb/rtsd-r3/orig/train/lmdb
I0414 16:10:10.106755 30013 data_layer.cpp:41] output data size: 1024,3,48,48
I0414 16:10:10.197458 30013 net.cpp:150] Setting up data
I0414 16:10:10.197510 30013 net.cpp:157] Top shape: 1024 3 48 48 (7077888)
I0414 16:10:10.197516 30013 net.cpp:157] Top shape: 1024 (1024)
I0414 16:10:10.197520 30013 net.cpp:165] Memory required for data: 28315648
I0414 16:10:10.197531 30013 layer_factory.hpp:77] Creating layer label_data_1_split
I0414 16:10:10.197546 30013 net.cpp:100] Creating Layer label_data_1_split
I0414 16:10:10.197556 30013 net.cpp:434] label_data_1_split <- label
I0414 16:10:10.197571 30013 net.cpp:408] label_data_1_split -> label_data_1_split_0
I0414 16:10:10.197582 30013 net.cpp:408] label_data_1_split -> label_data_1_split_1
I0414 16:10:10.197590 30013 net.cpp:408] label_data_1_split -> label_data_1_split_2
I0414 16:10:10.197666 30013 net.cpp:150] Setting up label_data_1_split
I0414 16:10:10.197676 30013 net.cpp:157] Top shape: 1024 (1024)
I0414 16:10:10.197681 30013 net.cpp:157] Top shape: 1024 (1024)
I0414 16:10:10.197685 30013 net.cpp:157] Top shape: 1024 (1024)
I0414 16:10:10.197688 30013 net.cpp:165] Memory required for data: 28327936
I0414 16:10:10.197691 30013 layer_factory.hpp:77] Creating layer conv1
I0414 16:10:10.197710 30013 net.cpp:100] Creating Layer conv1
I0414 16:10:10.197715 30013 net.cpp:434] conv1 <- data
I0414 16:10:10.197721 30013 net.cpp:408] conv1 -> conv1
I0414 16:10:10.704885 30013 net.cpp:150] Setting up conv1
I0414 16:10:10.704916 30013 net.cpp:157] Top shape: 1024 100 42 42 (180633600)
I0414 16:10:10.704921 30013 net.cpp:165] Memory required for data: 750862336
I0414 16:10:10.704946 30013 layer_factory.hpp:77] Creating layer conv1_relu
I0414 16:10:10.704958 30013 net.cpp:100] Creating Layer conv1_relu
I0414 16:10:10.704965 30013 net.cpp:434] conv1_relu <- conv1
I0414 16:10:10.704973 30013 net.cpp:395] conv1_relu -> conv1 (in-place)
I0414 16:10:10.705212 30013 net.cpp:150] Setting up conv1_relu
I0414 16:10:10.705225 30013 net.cpp:157] Top shape: 1024 100 42 42 (180633600)
I0414 16:10:10.705231 30013 net.cpp:165] Memory required for data: 1473396736
I0414 16:10:10.705235 30013 layer_factory.hpp:77] Creating layer pool1
I0414 16:10:10.705247 30013 net.cpp:100] Creating Layer pool1
I0414 16:10:10.705252 30013 net.cpp:434] pool1 <- conv1
I0414 16:10:10.705260 30013 net.cpp:408] pool1 -> pool1
I0414 16:10:10.705322 30013 net.cpp:150] Setting up pool1
I0414 16:10:10.705332 30013 net.cpp:157] Top shape: 1024 100 21 21 (45158400)
I0414 16:10:10.705338 30013 net.cpp:165] Memory required for data: 1654030336
I0414 16:10:10.705341 30013 layer_factory.hpp:77] Creating layer conv2
I0414 16:10:10.705353 30013 net.cpp:100] Creating Layer conv2
I0414 16:10:10.705359 30013 net.cpp:434] conv2 <- pool1
I0414 16:10:10.705365 30013 net.cpp:408] conv2 -> conv2
I0414 16:10:10.727927 30013 net.cpp:150] Setting up conv2
I0414 16:10:10.727953 30013 net.cpp:157] Top shape: 1024 150 18 18 (49766400)
I0414 16:10:10.727958 30013 net.cpp:165] Memory required for data: 1853095936
I0414 16:10:10.727973 30013 layer_factory.hpp:77] Creating layer conv2_relu
I0414 16:10:10.727985 30013 net.cpp:100] Creating Layer conv2_relu
I0414 16:10:10.727991 30013 net.cpp:434] conv2_relu <- conv2
I0414 16:10:10.727999 30013 net.cpp:395] conv2_relu -> conv2 (in-place)
I0414 16:10:10.729373 30013 net.cpp:150] Setting up conv2_relu
I0414 16:10:10.729393 30013 net.cpp:157] Top shape: 1024 150 18 18 (49766400)
I0414 16:10:10.729398 30013 net.cpp:165] Memory required for data: 2052161536
I0414 16:10:10.729401 30013 layer_factory.hpp:77] Creating layer pool2
I0414 16:10:10.729410 30013 net.cpp:100] Creating Layer pool2
I0414 16:10:10.729414 30013 net.cpp:434] pool2 <- conv2
I0414 16:10:10.729423 30013 net.cpp:408] pool2 -> pool2
I0414 16:10:10.729482 30013 net.cpp:150] Setting up pool2
I0414 16:10:10.729492 30013 net.cpp:157] Top shape: 1024 150 9 9 (12441600)
I0414 16:10:10.729498 30013 net.cpp:165] Memory required for data: 2101927936
I0414 16:10:10.729501 30013 layer_factory.hpp:77] Creating layer conv3
I0414 16:10:10.729516 30013 net.cpp:100] Creating Layer conv3
I0414 16:10:10.729522 30013 net.cpp:434] conv3 <- pool2
I0414 16:10:10.729528 30013 net.cpp:408] conv3 -> conv3
I0414 16:10:10.736881 30013 net.cpp:150] Setting up conv3
I0414 16:10:10.736904 30013 net.cpp:157] Top shape: 1024 250 6 6 (9216000)
I0414 16:10:10.736909 30013 net.cpp:165] Memory required for data: 2138791936
I0414 16:10:10.736922 30013 layer_factory.hpp:77] Creating layer conv3_relu
I0414 16:10:10.736932 30013 net.cpp:100] Creating Layer conv3_relu
I0414 16:10:10.736937 30013 net.cpp:434] conv3_relu <- conv3
I0414 16:10:10.736944 30013 net.cpp:395] conv3_relu -> conv3 (in-place)
I0414 16:10:10.751214 30013 net.cpp:150] Setting up conv3_relu
I0414 16:10:10.751237 30013 net.cpp:157] Top shape: 1024 250 6 6 (9216000)
I0414 16:10:10.751242 30013 net.cpp:165] Memory required for data: 2175655936
I0414 16:10:10.751247 30013 layer_factory.hpp:77] Creating layer pool3
I0414 16:10:10.751257 30013 net.cpp:100] Creating Layer pool3
I0414 16:10:10.751261 30013 net.cpp:434] pool3 <- conv3
I0414 16:10:10.751271 30013 net.cpp:408] pool3 -> pool3
I0414 16:10:10.751340 30013 net.cpp:150] Setting up pool3
I0414 16:10:10.751350 30013 net.cpp:157] Top shape: 1024 250 3 3 (2304000)
I0414 16:10:10.751355 30013 net.cpp:165] Memory required for data: 2184871936
I0414 16:10:10.751358 30013 layer_factory.hpp:77] Creating layer fc4_300
I0414 16:10:10.751370 30013 net.cpp:100] Creating Layer fc4_300
I0414 16:10:10.751376 30013 net.cpp:434] fc4_300 <- pool3
I0414 16:10:10.751384 30013 net.cpp:408] fc4_300 -> fc4_300
I0414 16:10:10.758303 30013 net.cpp:150] Setting up fc4_300
I0414 16:10:10.758323 30013 net.cpp:157] Top shape: 1024 300 (307200)
I0414 16:10:10.758327 30013 net.cpp:165] Memory required for data: 2186100736
I0414 16:10:10.758337 30013 layer_factory.hpp:77] Creating layer fc4_relu
I0414 16:10:10.758349 30013 net.cpp:100] Creating Layer fc4_relu
I0414 16:10:10.758355 30013 net.cpp:434] fc4_relu <- fc4_300
I0414 16:10:10.758361 30013 net.cpp:395] fc4_relu -> fc4_300 (in-place)
I0414 16:10:10.758599 30013 net.cpp:150] Setting up fc4_relu
I0414 16:10:10.758611 30013 net.cpp:157] Top shape: 1024 300 (307200)
I0414 16:10:10.758616 30013 net.cpp:165] Memory required for data: 2187329536
I0414 16:10:10.758620 30013 layer_factory.hpp:77] Creating layer fc5_106
I0414 16:10:10.758630 30013 net.cpp:100] Creating Layer fc5_106
I0414 16:10:10.758635 30013 net.cpp:434] fc5_106 <- fc4_300
I0414 16:10:10.758643 30013 net.cpp:408] fc5_106 -> fc5_classes
I0414 16:10:10.761816 30013 net.cpp:150] Setting up fc5_106
I0414 16:10:10.761837 30013 net.cpp:157] Top shape: 1024 106 (108544)
I0414 16:10:10.761842 30013 net.cpp:165] Memory required for data: 2187763712
I0414 16:10:10.761859 30013 layer_factory.hpp:77] Creating layer fc5_classes_fc5_106_0_split
I0414 16:10:10.761869 30013 net.cpp:100] Creating Layer fc5_classes_fc5_106_0_split
I0414 16:10:10.761876 30013 net.cpp:434] fc5_classes_fc5_106_0_split <- fc5_classes
I0414 16:10:10.761885 30013 net.cpp:408] fc5_classes_fc5_106_0_split -> fc5_classes_fc5_106_0_split_0
I0414 16:10:10.761898 30013 net.cpp:408] fc5_classes_fc5_106_0_split -> fc5_classes_fc5_106_0_split_1
I0414 16:10:10.761906 30013 net.cpp:408] fc5_classes_fc5_106_0_split -> fc5_classes_fc5_106_0_split_2
I0414 16:10:10.761976 30013 net.cpp:150] Setting up fc5_classes_fc5_106_0_split
I0414 16:10:10.761984 30013 net.cpp:157] Top shape: 1024 106 (108544)
I0414 16:10:10.761991 30013 net.cpp:157] Top shape: 1024 106 (108544)
I0414 16:10:10.761996 30013 net.cpp:157] Top shape: 1024 106 (108544)
I0414 16:10:10.762001 30013 net.cpp:165] Memory required for data: 2189066240
I0414 16:10:10.762004 30013 layer_factory.hpp:77] Creating layer softmax
I0414 16:10:10.762012 30013 net.cpp:100] Creating Layer softmax
I0414 16:10:10.762017 30013 net.cpp:434] softmax <- fc5_classes_fc5_106_0_split_0
I0414 16:10:10.762023 30013 net.cpp:408] softmax -> softmax
I0414 16:10:10.762351 30013 net.cpp:150] Setting up softmax
I0414 16:10:10.762364 30013 net.cpp:157] Top shape: 1024 106 (108544)
I0414 16:10:10.762370 30013 net.cpp:165] Memory required for data: 2189500416
I0414 16:10:10.762374 30013 layer_factory.hpp:77] Creating layer loss
I0414 16:10:10.762410 30013 net.cpp:100] Creating Layer loss
I0414 16:10:10.762418 30013 net.cpp:434] loss <- softmax
I0414 16:10:10.762423 30013 net.cpp:434] loss <- label_data_1_split_0
I0414 16:10:10.762431 30013 net.cpp:408] loss -> loss
…
