…
I0508 02:23:32.935019 10575 solver.cpp:93] Creating training net from train_net file: ./Prototxt/experiment_16/RTSD/orig/trial_5/train.prototxt
I0508 02:23:32.935375 10575 net.cpp:58] Initializing net from parameters: 
state {
  phase: TRAIN
  level: 0
  stage: ""
}
layer {
  name: "data"
  type: "Data"
  top: "data"
  top: "label"
  include {
    phase: TRAIN
  }
  transform_param {
    scale: 0.0039215689
    mirror: false
    crop_size: 48
    mean_value: 119
    mean_value: 113
    mean_value: 113
  }
  data_param {
    source: "../local_data/lmdb/RTSD/orig/train/lmdb"
    batch_size: 1024
    backend: LMDB
  }
}
layer {
  name: "conv1"
  type: "Convolution"
  bottom: "data"
  top: "conv1"
  convolution_param {
    num_output: 100
    pad: 0
    kernel_size: 7
    group: 1
    stride: 1
    weight_filler {
      type: "xavier"
    }
  }
}
layer {
  name: "conv1_relu"
  type: "ReLU"
  bottom: "conv1"
  top: "conv1"
}
layer {
  name: "pool1"
  type: "Pooling"
  bottom: "conv1"
  top: "pool1"
  pooling_param {
    pool: MAX
    kernel_size: 2
    stride: 2
  }
}
layer {
  name: "conv2"
  type: "Convolution"
  bottom: "pool1"
  top: "conv2"
  convolution_param {
    num_output: 150
    pad: 0
    kernel_size: 4
    group: 2
    stride: 1
    weight_filler {
      type: "xavier"
    }
  }
}
layer {
  name: "conv2_relu"
  type: "ReLU"
  bottom: "conv2"
  top: "conv2"
}
layer {
  name: "pool2"
  type: "Pooling"
  bottom: "conv2"
  top: "pool2"
  pooling_param {
    pool: MAX
    kernel_size: 2
    stride: 2
  }
}
layer {
  name: "conv3"
  type: "Convolution"
  bottom: "pool2"
  top: "conv3"
  convolution_param {
    num_output: 250
    pad: 0
    kernel_size: 4
    group: 2
    stride: 1
    weight_filler {
      type: "xavier"
    }
  }
}
layer {
  name: "conv3_relu"
  type: "ReLU"
  bottom: "conv3"
  top: "conv3"
}
layer {
  name: "pool3"
  type: "Pooling"
  bottom: "conv3"
  top: "pool3"
  pooling_param {
    pool: MAX
    kernel_size: 2
    stride: 2
  }
}
layer {
  name: "fc4_300"
  type: "InnerProduct"
  bottom: "pool3"
  top: "fc4_300"
  inner_product_param {
    num_output: 300
    weight_filler {
      type: "xavier"
    }
  }
}
layer {
  name: "fc4_relu"
  type: "ReLU"
  bottom: "fc4_300"
  top: "fc4_300"
}
layer {
  name: "fc5_116"
  type: "InnerProduct"
  bottom: "fc4_300"
  top: "fc5_classes"
  inner_product_param {
    num_output: 116
    weight_filler {
      type: "xavier"
    }
  }
}
layer {
  name: "softmax"
  type: "Softmax"
  bottom: "fc5_classes"
  top: "softmax"
}
layer {
  name: "loss"
  type: "MultinomialLogisticLoss"
  bottom: "softmax"
  bottom: "label"
  top: "loss"
}
layer {
  name: "accuracy_1"
  type: "Accuracy"
  bottom: "fc5_classes"
  bottom: "label"
  top: "accuracy_1"
  accuracy_param {
    top_k: 1
  }
}
layer {
  name: "accuracy_5"
  type: "Accuracy"
  bottom: "fc5_classes"
  bottom: "label"
  top: "accuracy_5"
  accuracy_param {
    top_k: 5
  }
}
layer {
  name: "silence"
  type: "Silence"
  bottom: "accuracy_1"
  bottom: "accuracy_5"
}
I0508 02:23:32.935490 10575 layer_factory.hpp:77] Creating layer data
I0508 02:23:32.936555 10575 net.cpp:100] Creating Layer data
I0508 02:23:32.936573 10575 net.cpp:408] data -> data
I0508 02:23:32.936595 10575 net.cpp:408] data -> label
I0508 02:23:32.948592 10694 db_lmdb.cpp:35] Opened lmdb ../local_data/lmdb/RTSD/orig/train/lmdb
I0508 02:23:32.966068 10575 data_layer.cpp:41] output data size: 1024,3,48,48
I0508 02:23:33.054735 10575 net.cpp:150] Setting up data
I0508 02:23:33.054790 10575 net.cpp:157] Top shape: 1024 3 48 48 (7077888)
I0508 02:23:33.054795 10575 net.cpp:157] Top shape: 1024 (1024)
I0508 02:23:33.054798 10575 net.cpp:165] Memory required for data: 28315648
I0508 02:23:33.054811 10575 layer_factory.hpp:77] Creating layer label_data_1_split
I0508 02:23:33.054824 10575 net.cpp:100] Creating Layer label_data_1_split
I0508 02:23:33.054831 10575 net.cpp:434] label_data_1_split <- label
I0508 02:23:33.054847 10575 net.cpp:408] label_data_1_split -> label_data_1_split_0
I0508 02:23:33.054864 10575 net.cpp:408] label_data_1_split -> label_data_1_split_1
I0508 02:23:33.054873 10575 net.cpp:408] label_data_1_split -> label_data_1_split_2
I0508 02:23:33.054971 10575 net.cpp:150] Setting up label_data_1_split
I0508 02:23:33.054980 10575 net.cpp:157] Top shape: 1024 (1024)
I0508 02:23:33.054985 10575 net.cpp:157] Top shape: 1024 (1024)
I0508 02:23:33.054988 10575 net.cpp:157] Top shape: 1024 (1024)
I0508 02:23:33.054991 10575 net.cpp:165] Memory required for data: 28327936
I0508 02:23:33.054994 10575 layer_factory.hpp:77] Creating layer conv1
I0508 02:23:33.055011 10575 net.cpp:100] Creating Layer conv1
I0508 02:23:33.055016 10575 net.cpp:434] conv1 <- data
I0508 02:23:33.055022 10575 net.cpp:408] conv1 -> conv1
I0508 02:23:33.485226 10575 net.cpp:150] Setting up conv1
I0508 02:23:33.485254 10575 net.cpp:157] Top shape: 1024 100 42 42 (180633600)
I0508 02:23:33.485258 10575 net.cpp:165] Memory required for data: 750862336
I0508 02:23:33.485280 10575 layer_factory.hpp:77] Creating layer conv1_relu
I0508 02:23:33.485291 10575 net.cpp:100] Creating Layer conv1_relu
I0508 02:23:33.485296 10575 net.cpp:434] conv1_relu <- conv1
I0508 02:23:33.485303 10575 net.cpp:395] conv1_relu -> conv1 (in-place)
I0508 02:23:33.485502 10575 net.cpp:150] Setting up conv1_relu
I0508 02:23:33.485513 10575 net.cpp:157] Top shape: 1024 100 42 42 (180633600)
I0508 02:23:33.485517 10575 net.cpp:165] Memory required for data: 1473396736
I0508 02:23:33.485520 10575 layer_factory.hpp:77] Creating layer pool1
I0508 02:23:33.485530 10575 net.cpp:100] Creating Layer pool1
I0508 02:23:33.485534 10575 net.cpp:434] pool1 <- conv1
I0508 02:23:33.485540 10575 net.cpp:408] pool1 -> pool1
I0508 02:23:33.485595 10575 net.cpp:150] Setting up pool1
I0508 02:23:33.485602 10575 net.cpp:157] Top shape: 1024 100 21 21 (45158400)
I0508 02:23:33.485606 10575 net.cpp:165] Memory required for data: 1654030336
I0508 02:23:33.485610 10575 layer_factory.hpp:77] Creating layer conv2
I0508 02:23:33.485620 10575 net.cpp:100] Creating Layer conv2
I0508 02:23:33.485625 10575 net.cpp:434] conv2 <- pool1
I0508 02:23:33.485628 10575 net.cpp:408] conv2 -> conv2
I0508 02:23:33.492357 10575 net.cpp:150] Setting up conv2
I0508 02:23:33.492374 10575 net.cpp:157] Top shape: 1024 150 18 18 (49766400)
I0508 02:23:33.492378 10575 net.cpp:165] Memory required for data: 1853095936
I0508 02:23:33.492388 10575 layer_factory.hpp:77] Creating layer conv2_relu
I0508 02:23:33.492394 10575 net.cpp:100] Creating Layer conv2_relu
I0508 02:23:33.492398 10575 net.cpp:434] conv2_relu <- conv2
I0508 02:23:33.492403 10575 net.cpp:395] conv2_relu -> conv2 (in-place)
I0508 02:23:33.492578 10575 net.cpp:150] Setting up conv2_relu
I0508 02:23:33.492590 10575 net.cpp:157] Top shape: 1024 150 18 18 (49766400)
I0508 02:23:33.492594 10575 net.cpp:165] Memory required for data: 2052161536
I0508 02:23:33.492597 10575 layer_factory.hpp:77] Creating layer pool2
I0508 02:23:33.492604 10575 net.cpp:100] Creating Layer pool2
I0508 02:23:33.492607 10575 net.cpp:434] pool2 <- conv2
I0508 02:23:33.492612 10575 net.cpp:408] pool2 -> pool2
I0508 02:23:33.492662 10575 net.cpp:150] Setting up pool2
I0508 02:23:33.492671 10575 net.cpp:157] Top shape: 1024 150 9 9 (12441600)
I0508 02:23:33.492674 10575 net.cpp:165] Memory required for data: 2101927936
I0508 02:23:33.492677 10575 layer_factory.hpp:77] Creating layer conv3
I0508 02:23:33.492688 10575 net.cpp:100] Creating Layer conv3
I0508 02:23:33.492693 10575 net.cpp:434] conv3 <- pool2
I0508 02:23:33.492699 10575 net.cpp:408] conv3 -> conv3
I0508 02:23:33.497895 10575 net.cpp:150] Setting up conv3
I0508 02:23:33.497911 10575 net.cpp:157] Top shape: 1024 250 6 6 (9216000)
I0508 02:23:33.497916 10575 net.cpp:165] Memory required for data: 2138791936
I0508 02:23:33.497927 10575 layer_factory.hpp:77] Creating layer conv3_relu
I0508 02:23:33.497936 10575 net.cpp:100] Creating Layer conv3_relu
I0508 02:23:33.497941 10575 net.cpp:434] conv3_relu <- conv3
I0508 02:23:33.497946 10575 net.cpp:395] conv3_relu -> conv3 (in-place)
I0508 02:23:33.498136 10575 net.cpp:150] Setting up conv3_relu
I0508 02:23:33.498148 10575 net.cpp:157] Top shape: 1024 250 6 6 (9216000)
I0508 02:23:33.498152 10575 net.cpp:165] Memory required for data: 2175655936
I0508 02:23:33.498155 10575 layer_factory.hpp:77] Creating layer pool3
I0508 02:23:33.498162 10575 net.cpp:100] Creating Layer pool3
I0508 02:23:33.498164 10575 net.cpp:434] pool3 <- conv3
I0508 02:23:33.498172 10575 net.cpp:408] pool3 -> pool3
I0508 02:23:33.498217 10575 net.cpp:150] Setting up pool3
I0508 02:23:33.498225 10575 net.cpp:157] Top shape: 1024 250 3 3 (2304000)
I0508 02:23:33.498230 10575 net.cpp:165] Memory required for data: 2184871936
I0508 02:23:33.498234 10575 layer_factory.hpp:77] Creating layer fc4_300
I0508 02:23:33.498240 10575 net.cpp:100] Creating Layer fc4_300
I0508 02:23:33.498245 10575 net.cpp:434] fc4_300 <- pool3
I0508 02:23:33.498250 10575 net.cpp:408] fc4_300 -> fc4_300
I0508 02:23:33.504230 10575 net.cpp:150] Setting up fc4_300
I0508 02:23:33.504247 10575 net.cpp:157] Top shape: 1024 300 (307200)
I0508 02:23:33.504251 10575 net.cpp:165] Memory required for data: 2186100736
I0508 02:23:33.504256 10575 layer_factory.hpp:77] Creating layer fc4_relu
I0508 02:23:33.504262 10575 net.cpp:100] Creating Layer fc4_relu
I0508 02:23:33.504266 10575 net.cpp:434] fc4_relu <- fc4_300
I0508 02:23:33.504271 10575 net.cpp:395] fc4_relu -> fc4_300 (in-place)
I0508 02:23:33.509600 10575 net.cpp:150] Setting up fc4_relu
I0508 02:23:33.509618 10575 net.cpp:157] Top shape: 1024 300 (307200)
I0508 02:23:33.509620 10575 net.cpp:165] Memory required for data: 2187329536
I0508 02:23:33.509624 10575 layer_factory.hpp:77] Creating layer fc5_116
I0508 02:23:33.509631 10575 net.cpp:100] Creating Layer fc5_116
I0508 02:23:33.509634 10575 net.cpp:434] fc5_116 <- fc4_300
I0508 02:23:33.509645 10575 net.cpp:408] fc5_116 -> fc5_classes
I0508 02:23:33.519834 10575 net.cpp:150] Setting up fc5_116
I0508 02:23:33.519850 10575 net.cpp:157] Top shape: 1024 116 (118784)
I0508 02:23:33.519853 10575 net.cpp:165] Memory required for data: 2187804672
I0508 02:23:33.519863 10575 layer_factory.hpp:77] Creating layer fc5_classes_fc5_116_0_split
I0508 02:23:33.519871 10575 net.cpp:100] Creating Layer fc5_classes_fc5_116_0_split
I0508 02:23:33.519875 10575 net.cpp:434] fc5_classes_fc5_116_0_split <- fc5_classes
I0508 02:23:33.519891 10575 net.cpp:408] fc5_classes_fc5_116_0_split -> fc5_classes_fc5_116_0_split_0
I0508 02:23:33.519901 10575 net.cpp:408] fc5_classes_fc5_116_0_split -> fc5_classes_fc5_116_0_split_1
I0508 02:23:33.519909 10575 net.cpp:408] fc5_classes_fc5_116_0_split -> fc5_classes_fc5_116_0_split_2
I0508 02:23:33.519966 10575 net.cpp:150] Setting up fc5_classes_fc5_116_0_split
I0508 02:23:33.519973 10575 net.cpp:157] Top shape: 1024 116 (118784)
I0508 02:23:33.519978 10575 net.cpp:157] Top shape: 1024 116 (118784)
I0508 02:23:33.519980 10575 net.cpp:157] Top shape: 1024 116 (118784)
I0508 02:23:33.519984 10575 net.cpp:165] Memory required for data: 2189230080
I0508 02:23:33.519986 10575 layer_factory.hpp:77] Creating layer softmax
I0508 02:23:33.519991 10575 net.cpp:100] Creating Layer softmax
I0508 02:23:33.519995 10575 net.cpp:434] softmax <- fc5_classes_fc5_116_0_split_0
I0508 02:23:33.520000 10575 net.cpp:408] softmax -> softmax
I0508 02:23:33.520254 10575 net.cpp:150] Setting up softmax
I0508 02:23:33.520267 10575 net.cpp:157] Top shape: 1024 116 (118784)
I0508 02:23:33.520269 10575 net.cpp:165] Memory required for data: 2189705216
I0508 02:23:33.520272 10575 layer_factory.hpp:77] Creating layer loss
I0508 02:23:33.520282 10575 net.cpp:100] Creating Layer loss
I0508 02:23:33.520298 10575 net.cpp:434] loss <- softmax
I0508 02:23:33.520303 10575 net.cpp:434] loss <- label_data_1_split_0
I0508 02:23:33.520308 10575 net.cpp:408] loss -> loss
…
