…
I0412 06:11:39.157264 21128 solver.cpp:93] Creating training net from train_net file: ./Prototxt/experiment_10/rtsd-r1/orig/trial_5/train.prototxt
I0412 06:11:39.157620 21128 net.cpp:58] Initializing net from parameters: 
state {
  phase: TRAIN
  level: 0
  stage: ""
}
layer {
  name: "data"
  type: "Data"
  top: "data"
  top: "label"
  include {
    phase: TRAIN
  }
  transform_param {
    scale: 0.0039215689
    mirror: false
    crop_size: 48
    mean_value: 122
    mean_value: 115
    mean_value: 129
  }
  data_param {
    source: "../local_data/lmdb/rtsd-r1/orig/train/lmdb"
    batch_size: 1024
    backend: LMDB
  }
}
layer {
  name: "conv1"
  type: "Convolution"
  bottom: "data"
  top: "conv1"
  convolution_param {
    num_output: 100
    pad: 0
    kernel_size: 7
    group: 1
    stride: 1
    weight_filler {
      type: "xavier"
    }
  }
}
layer {
  name: "conv1_relu"
  type: "ReLU"
  bottom: "conv1"
  top: "conv1"
}
layer {
  name: "pool1"
  type: "Pooling"
  bottom: "conv1"
  top: "pool1"
  pooling_param {
    pool: MAX
    kernel_size: 2
    stride: 2
  }
}
layer {
  name: "conv2"
  type: "Convolution"
  bottom: "pool1"
  top: "conv2"
  convolution_param {
    num_output: 150
    pad: 0
    kernel_size: 4
    group: 1
    stride: 1
    weight_filler {
      type: "xavier"
    }
  }
}
layer {
  name: "conv2_relu"
  type: "ReLU"
  bottom: "conv2"
  top: "conv2"
}
layer {
  name: "pool2"
  type: "Pooling"
  bottom: "conv2"
  top: "pool2"
  pooling_param {
    pool: MAX
    kernel_size: 2
    stride: 2
  }
}
layer {
  name: "conv3"
  type: "Convolution"
  bottom: "pool2"
  top: "conv3"
  convolution_param {
    num_output: 250
    pad: 0
    kernel_size: 4
    group: 1
    stride: 1
    weight_filler {
      type: "xavier"
    }
  }
}
layer {
  name: "conv3_relu"
  type: "ReLU"
  bottom: "conv3"
  top: "conv3"
}
layer {
  name: "pool3"
  type: "Pooling"
  bottom: "conv3"
  top: "pool3"
  pooling_param {
    pool: MAX
    kernel_size: 2
    stride: 2
  }
}
layer {
  name: "fc4_300"
  type: "InnerProduct"
  bottom: "pool3"
  top: "fc4_300"
  inner_product_param {
    num_output: 300
    weight_filler {
      type: "xavier"
    }
  }
}
layer {
  name: "fc4_relu"
  type: "ReLU"
  bottom: "fc4_300"
  top: "fc4_300"
}
layer {
  name: "drop4"
  type: "Dropout"
  bottom: "fc4_300"
  top: "fc4_300"
  dropout_param {
    dropout_ratio: 0.4
  }
}
layer {
  name: "fc5_67"
  type: "InnerProduct"
  bottom: "fc4_300"
  top: "fc5_classes"
  inner_product_param {
    num_output: 67
    weight_filler {
      type: "xavier"
    }
  }
}
layer {
  name: "softmax"
  type: "Softmax"
  bottom: "fc5_classes"
  top: "softmax"
}
layer {
  name: "loss"
  type: "MultinomialLogisticLoss"
  bottom: "softmax"
  bottom: "label"
  top: "loss"
}
layer {
  name: "accuracy_1"
  type: "Accuracy"
  bottom: "fc5_classes"
  bottom: "label"
  top: "accuracy_1"
  accuracy_param {
    top_k: 1
  }
}
layer {
  name: "accuracy_5"
  type: "Accuracy"
  bottom: "fc5_classes"
  bottom: "label"
  top: "accuracy_5"
  accuracy_param {
    top_k: 5
  }
}
I0412 06:11:39.157737 21128 layer_factory.hpp:77] Creating layer data
I0412 06:11:39.158785 21128 net.cpp:100] Creating Layer data
I0412 06:11:39.158802 21128 net.cpp:408] data -> data
I0412 06:11:39.158825 21128 net.cpp:408] data -> label
I0412 06:11:39.174885 21256 db_lmdb.cpp:35] Opened lmdb ../local_data/lmdb/rtsd-r1/orig/train/lmdb
I0412 06:11:39.193186 21128 data_layer.cpp:41] output data size: 1024,3,48,48
I0412 06:11:39.240988 21128 net.cpp:150] Setting up data
I0412 06:11:39.241029 21128 net.cpp:157] Top shape: 1024 3 48 48 (7077888)
I0412 06:11:39.241034 21128 net.cpp:157] Top shape: 1024 (1024)
I0412 06:11:39.241039 21128 net.cpp:165] Memory required for data: 28315648
I0412 06:11:39.241049 21128 layer_factory.hpp:77] Creating layer label_data_1_split
I0412 06:11:39.241062 21128 net.cpp:100] Creating Layer label_data_1_split
I0412 06:11:39.241068 21128 net.cpp:434] label_data_1_split <- label
I0412 06:11:39.241082 21128 net.cpp:408] label_data_1_split -> label_data_1_split_0
I0412 06:11:39.241096 21128 net.cpp:408] label_data_1_split -> label_data_1_split_1
I0412 06:11:39.241103 21128 net.cpp:408] label_data_1_split -> label_data_1_split_2
I0412 06:11:39.241165 21128 net.cpp:150] Setting up label_data_1_split
I0412 06:11:39.241173 21128 net.cpp:157] Top shape: 1024 (1024)
I0412 06:11:39.241178 21128 net.cpp:157] Top shape: 1024 (1024)
I0412 06:11:39.241180 21128 net.cpp:157] Top shape: 1024 (1024)
I0412 06:11:39.241183 21128 net.cpp:165] Memory required for data: 28327936
I0412 06:11:39.241186 21128 layer_factory.hpp:77] Creating layer conv1
I0412 06:11:39.241204 21128 net.cpp:100] Creating Layer conv1
I0412 06:11:39.241209 21128 net.cpp:434] conv1 <- data
I0412 06:11:39.241214 21128 net.cpp:408] conv1 -> conv1
I0412 06:11:39.551728 21128 net.cpp:150] Setting up conv1
I0412 06:11:39.551754 21128 net.cpp:157] Top shape: 1024 100 42 42 (180633600)
I0412 06:11:39.551759 21128 net.cpp:165] Memory required for data: 750862336
I0412 06:11:39.551780 21128 layer_factory.hpp:77] Creating layer conv1_relu
I0412 06:11:39.551792 21128 net.cpp:100] Creating Layer conv1_relu
I0412 06:11:39.551797 21128 net.cpp:434] conv1_relu <- conv1
I0412 06:11:39.551803 21128 net.cpp:395] conv1_relu -> conv1 (in-place)
I0412 06:11:39.552011 21128 net.cpp:150] Setting up conv1_relu
I0412 06:11:39.552024 21128 net.cpp:157] Top shape: 1024 100 42 42 (180633600)
I0412 06:11:39.552027 21128 net.cpp:165] Memory required for data: 1473396736
I0412 06:11:39.552031 21128 layer_factory.hpp:77] Creating layer pool1
I0412 06:11:39.552042 21128 net.cpp:100] Creating Layer pool1
I0412 06:11:39.552045 21128 net.cpp:434] pool1 <- conv1
I0412 06:11:39.552050 21128 net.cpp:408] pool1 -> pool1
I0412 06:11:39.552104 21128 net.cpp:150] Setting up pool1
I0412 06:11:39.552114 21128 net.cpp:157] Top shape: 1024 100 21 21 (45158400)
I0412 06:11:39.552116 21128 net.cpp:165] Memory required for data: 1654030336
I0412 06:11:39.552120 21128 layer_factory.hpp:77] Creating layer conv2
I0412 06:11:39.552131 21128 net.cpp:100] Creating Layer conv2
I0412 06:11:39.552135 21128 net.cpp:434] conv2 <- pool1
I0412 06:11:39.552141 21128 net.cpp:408] conv2 -> conv2
I0412 06:11:39.560375 21128 net.cpp:150] Setting up conv2
I0412 06:11:39.560391 21128 net.cpp:157] Top shape: 1024 150 18 18 (49766400)
I0412 06:11:39.560395 21128 net.cpp:165] Memory required for data: 1853095936
I0412 06:11:39.560405 21128 layer_factory.hpp:77] Creating layer conv2_relu
I0412 06:11:39.560411 21128 net.cpp:100] Creating Layer conv2_relu
I0412 06:11:39.560415 21128 net.cpp:434] conv2_relu <- conv2
I0412 06:11:39.560431 21128 net.cpp:395] conv2_relu -> conv2 (in-place)
I0412 06:11:39.564836 21128 net.cpp:150] Setting up conv2_relu
I0412 06:11:39.564853 21128 net.cpp:157] Top shape: 1024 150 18 18 (49766400)
I0412 06:11:39.564857 21128 net.cpp:165] Memory required for data: 2052161536
I0412 06:11:39.564862 21128 layer_factory.hpp:77] Creating layer pool2
I0412 06:11:39.564884 21128 net.cpp:100] Creating Layer pool2
I0412 06:11:39.564888 21128 net.cpp:434] pool2 <- conv2
I0412 06:11:39.564894 21128 net.cpp:408] pool2 -> pool2
I0412 06:11:39.564947 21128 net.cpp:150] Setting up pool2
I0412 06:11:39.564956 21128 net.cpp:157] Top shape: 1024 150 9 9 (12441600)
I0412 06:11:39.564960 21128 net.cpp:165] Memory required for data: 2101927936
I0412 06:11:39.564962 21128 layer_factory.hpp:77] Creating layer conv3
I0412 06:11:39.564972 21128 net.cpp:100] Creating Layer conv3
I0412 06:11:39.564978 21128 net.cpp:434] conv3 <- pool2
I0412 06:11:39.565003 21128 net.cpp:408] conv3 -> conv3
I0412 06:11:39.571900 21128 net.cpp:150] Setting up conv3
I0412 06:11:39.571919 21128 net.cpp:157] Top shape: 1024 250 6 6 (9216000)
I0412 06:11:39.571923 21128 net.cpp:165] Memory required for data: 2138791936
I0412 06:11:39.571933 21128 layer_factory.hpp:77] Creating layer conv3_relu
I0412 06:11:39.571940 21128 net.cpp:100] Creating Layer conv3_relu
I0412 06:11:39.571944 21128 net.cpp:434] conv3_relu <- conv3
I0412 06:11:39.571949 21128 net.cpp:395] conv3_relu -> conv3 (in-place)
I0412 06:11:39.574277 21128 net.cpp:150] Setting up conv3_relu
I0412 06:11:39.574301 21128 net.cpp:157] Top shape: 1024 250 6 6 (9216000)
I0412 06:11:39.574306 21128 net.cpp:165] Memory required for data: 2175655936
I0412 06:11:39.574308 21128 layer_factory.hpp:77] Creating layer pool3
I0412 06:11:39.574316 21128 net.cpp:100] Creating Layer pool3
I0412 06:11:39.574321 21128 net.cpp:434] pool3 <- conv3
I0412 06:11:39.574326 21128 net.cpp:408] pool3 -> pool3
I0412 06:11:39.574378 21128 net.cpp:150] Setting up pool3
I0412 06:11:39.574386 21128 net.cpp:157] Top shape: 1024 250 3 3 (2304000)
I0412 06:11:39.574389 21128 net.cpp:165] Memory required for data: 2184871936
I0412 06:11:39.574393 21128 layer_factory.hpp:77] Creating layer fc4_300
I0412 06:11:39.574400 21128 net.cpp:100] Creating Layer fc4_300
I0412 06:11:39.574404 21128 net.cpp:434] fc4_300 <- pool3
I0412 06:11:39.574410 21128 net.cpp:408] fc4_300 -> fc4_300
I0412 06:11:39.582777 21128 net.cpp:150] Setting up fc4_300
I0412 06:11:39.582797 21128 net.cpp:157] Top shape: 1024 300 (307200)
I0412 06:11:39.582800 21128 net.cpp:165] Memory required for data: 2186100736
I0412 06:11:39.582808 21128 layer_factory.hpp:77] Creating layer fc4_relu
I0412 06:11:39.582814 21128 net.cpp:100] Creating Layer fc4_relu
I0412 06:11:39.582818 21128 net.cpp:434] fc4_relu <- fc4_300
I0412 06:11:39.582823 21128 net.cpp:395] fc4_relu -> fc4_300 (in-place)
I0412 06:11:39.583012 21128 net.cpp:150] Setting up fc4_relu
I0412 06:11:39.583024 21128 net.cpp:157] Top shape: 1024 300 (307200)
I0412 06:11:39.583027 21128 net.cpp:165] Memory required for data: 2187329536
I0412 06:11:39.583030 21128 layer_factory.hpp:77] Creating layer drop4
I0412 06:11:39.583039 21128 net.cpp:100] Creating Layer drop4
I0412 06:11:39.583041 21128 net.cpp:434] drop4 <- fc4_300
I0412 06:11:39.583046 21128 net.cpp:395] drop4 -> fc4_300 (in-place)
I0412 06:11:39.583083 21128 net.cpp:150] Setting up drop4
I0412 06:11:39.583091 21128 net.cpp:157] Top shape: 1024 300 (307200)
I0412 06:11:39.583094 21128 net.cpp:165] Memory required for data: 2188558336
I0412 06:11:39.583097 21128 layer_factory.hpp:77] Creating layer fc5_67
I0412 06:11:39.583103 21128 net.cpp:100] Creating Layer fc5_67
I0412 06:11:39.583106 21128 net.cpp:434] fc5_67 <- fc4_300
I0412 06:11:39.583112 21128 net.cpp:408] fc5_67 -> fc5_classes
I0412 06:11:39.586218 21128 net.cpp:150] Setting up fc5_67
I0412 06:11:39.586236 21128 net.cpp:157] Top shape: 1024 67 (68608)
I0412 06:11:39.586241 21128 net.cpp:165] Memory required for data: 2188832768
I0412 06:11:39.586251 21128 layer_factory.hpp:77] Creating layer fc5_classes_fc5_67_0_split
I0412 06:11:39.586258 21128 net.cpp:100] Creating Layer fc5_classes_fc5_67_0_split
I0412 06:11:39.586262 21128 net.cpp:434] fc5_classes_fc5_67_0_split <- fc5_classes
I0412 06:11:39.586268 21128 net.cpp:408] fc5_classes_fc5_67_0_split -> fc5_classes_fc5_67_0_split_0
I0412 06:11:39.586277 21128 net.cpp:408] fc5_classes_fc5_67_0_split -> fc5_classes_fc5_67_0_split_1
I0412 06:11:39.586284 21128 net.cpp:408] fc5_classes_fc5_67_0_split -> fc5_classes_fc5_67_0_split_2
I0412 06:11:39.586334 21128 net.cpp:150] Setting up fc5_classes_fc5_67_0_split
I0412 06:11:39.586343 21128 net.cpp:157] Top shape: 1024 67 (68608)
I0412 06:11:39.586346 21128 net.cpp:157] Top shape: 1024 67 (68608)
I0412 06:11:39.586349 21128 net.cpp:157] Top shape: 1024 67 (68608)
I0412 06:11:39.586351 21128 net.cpp:165] Memory required for data: 2189656064
I0412 06:11:39.586355 21128 layer_factory.hpp:77] Creating layer softmax
I0412 06:11:39.586380 21128 net.cpp:100] Creating Layer softmax
I0412 06:11:39.586383 21128 net.cpp:434] softmax <- fc5_classes_fc5_67_0_split_0
I0412 06:11:39.586390 21128 net.cpp:408] softmax -> softmax
I0412 06:11:39.586642 21128 net.cpp:150] Setting up softmax
I0412 06:11:39.586654 21128 net.cpp:157] Top shape: 1024 67 (68608)
I0412 06:11:39.586658 21128 net.cpp:165] Memory required for data: 2189930496
I0412 06:11:39.586661 21128 layer_factory.hpp:77] Creating layer loss
I0412 06:11:39.586668 21128 net.cpp:100] Creating Layer loss
I0412 06:11:39.586671 21128 net.cpp:434] loss <- softmax
I0412 06:11:39.586675 21128 net.cpp:434] loss <- label_data_1_split_0
I0412 06:11:39.586680 21128 net.cpp:408] loss -> loss
…
