…
I0414 05:20:34.425367 20199 solver.cpp:93] Creating training net from train_net file: ./Prototxt/experiment_10/rtsd-r1/orig/trial_5/train.prototxt
I0414 05:20:34.425701 20199 net.cpp:58] Initializing net from parameters: 
state {
  phase: TRAIN
  level: 0
  stage: ""
}
layer {
  name: "data"
  type: "Data"
  top: "data"
  top: "label"
  include {
    phase: TRAIN
  }
  transform_param {
    scale: 0.0039215689
    mirror: false
    crop_size: 48
    mean_value: 122
    mean_value: 115
    mean_value: 129
  }
  data_param {
    source: "../local_data/lmdb/rtsd-r1/orig/train/lmdb"
    batch_size: 1024
    backend: LMDB
  }
}
layer {
  name: "conv1"
  type: "Convolution"
  bottom: "data"
  top: "conv1"
  convolution_param {
    num_output: 100
    pad: 0
    kernel_size: 7
    group: 1
    stride: 1
    weight_filler {
      type: "xavier"
    }
  }
}
layer {
  name: "conv1_relu"
  type: "ReLU"
  bottom: "conv1"
  top: "conv1"
}
layer {
  name: "pool1"
  type: "Pooling"
  bottom: "conv1"
  top: "pool1"
  pooling_param {
    pool: MAX
    kernel_size: 2
    stride: 2
  }
}
layer {
  name: "conv2"
  type: "Convolution"
  bottom: "pool1"
  top: "conv2"
  convolution_param {
    num_output: 150
    pad: 0
    kernel_size: 4
    group: 1
    stride: 1
    weight_filler {
      type: "xavier"
    }
  }
}
layer {
  name: "conv2_relu"
  type: "ReLU"
  bottom: "conv2"
  top: "conv2"
}
layer {
  name: "pool2"
  type: "Pooling"
  bottom: "conv2"
  top: "pool2"
  pooling_param {
    pool: MAX
    kernel_size: 2
    stride: 2
  }
}
layer {
  name: "conv3"
  type: "Convolution"
  bottom: "pool2"
  top: "conv3"
  convolution_param {
    num_output: 250
    pad: 0
    kernel_size: 4
    group: 1
    stride: 1
    weight_filler {
      type: "xavier"
    }
  }
}
layer {
  name: "conv3_relu"
  type: "ReLU"
  bottom: "conv3"
  top: "conv3"
}
layer {
  name: "pool3"
  type: "Pooling"
  bottom: "conv3"
  top: "pool3"
  pooling_param {
    pool: MAX
    kernel_size: 2
    stride: 2
  }
}
layer {
  name: "fc4_300"
  type: "InnerProduct"
  bottom: "pool3"
  top: "fc4_300"
  inner_product_param {
    num_output: 300
    weight_filler {
      type: "xavier"
    }
  }
}
layer {
  name: "fc4_relu"
  type: "ReLU"
  bottom: "fc4_300"
  top: "fc4_300"
}
layer {
  name: "fc5_67"
  type: "InnerProduct"
  bottom: "fc4_300"
  top: "fc5_classes"
  inner_product_param {
    num_output: 67
    weight_filler {
      type: "xavier"
    }
  }
}
layer {
  name: "softmax"
  type: "Softmax"
  bottom: "fc5_classes"
  top: "softmax"
}
layer {
  name: "loss"
  type: "MultinomialLogisticLoss"
  bottom: "softmax"
  bottom: "label"
  top: "loss"
}
layer {
  name: "accuracy_1"
  type: "Accuracy"
  bottom: "fc5_classes"
  bottom: "label"
  top: "accuracy_1"
  accuracy_param {
    top_k: 1
  }
}
layer {
  name: "accuracy_5"
  type: "Accuracy"
  bottom: "fc5_classes"
  bottom: "label"
  top: "accuracy_5"
  accuracy_param {
    top_k: 5
  }
}
layer {
  name: "silence"
  type: "Silence"
  bottom: "accuracy_1"
  bottom: "accuracy_5"
}
I0414 05:20:34.425815 20199 layer_factory.hpp:77] Creating layer data
I0414 05:20:34.426903 20199 net.cpp:100] Creating Layer data
I0414 05:20:34.426923 20199 net.cpp:408] data -> data
I0414 05:20:34.426946 20199 net.cpp:408] data -> label
I0414 05:20:34.428932 20295 db_lmdb.cpp:35] Opened lmdb ../local_data/lmdb/rtsd-r1/orig/train/lmdb
I0414 05:20:34.446351 20199 data_layer.cpp:41] output data size: 1024,3,48,48
I0414 05:20:34.521049 20199 net.cpp:150] Setting up data
I0414 05:20:34.521121 20199 net.cpp:157] Top shape: 1024 3 48 48 (7077888)
I0414 05:20:34.521133 20199 net.cpp:157] Top shape: 1024 (1024)
I0414 05:20:34.521139 20199 net.cpp:165] Memory required for data: 28315648
I0414 05:20:34.521158 20199 layer_factory.hpp:77] Creating layer label_data_1_split
I0414 05:20:34.521183 20199 net.cpp:100] Creating Layer label_data_1_split
I0414 05:20:34.521196 20199 net.cpp:434] label_data_1_split <- label
I0414 05:20:34.521219 20199 net.cpp:408] label_data_1_split -> label_data_1_split_0
I0414 05:20:34.521240 20199 net.cpp:408] label_data_1_split -> label_data_1_split_1
I0414 05:20:34.521255 20199 net.cpp:408] label_data_1_split -> label_data_1_split_2
I0414 05:20:34.521347 20199 net.cpp:150] Setting up label_data_1_split
I0414 05:20:34.521361 20199 net.cpp:157] Top shape: 1024 (1024)
I0414 05:20:34.521371 20199 net.cpp:157] Top shape: 1024 (1024)
I0414 05:20:34.521378 20199 net.cpp:157] Top shape: 1024 (1024)
I0414 05:20:34.521386 20199 net.cpp:165] Memory required for data: 28327936
I0414 05:20:34.521392 20199 layer_factory.hpp:77] Creating layer conv1
I0414 05:20:34.521425 20199 net.cpp:100] Creating Layer conv1
I0414 05:20:34.521435 20199 net.cpp:434] conv1 <- data
I0414 05:20:34.521445 20199 net.cpp:408] conv1 -> conv1
I0414 05:20:34.895975 20199 net.cpp:150] Setting up conv1
I0414 05:20:34.896005 20199 net.cpp:157] Top shape: 1024 100 42 42 (180633600)
I0414 05:20:34.896009 20199 net.cpp:165] Memory required for data: 750862336
I0414 05:20:34.896033 20199 layer_factory.hpp:77] Creating layer conv1_relu
I0414 05:20:34.896045 20199 net.cpp:100] Creating Layer conv1_relu
I0414 05:20:34.896051 20199 net.cpp:434] conv1_relu <- conv1
I0414 05:20:34.896059 20199 net.cpp:395] conv1_relu -> conv1 (in-place)
I0414 05:20:34.896272 20199 net.cpp:150] Setting up conv1_relu
I0414 05:20:34.896291 20199 net.cpp:157] Top shape: 1024 100 42 42 (180633600)
I0414 05:20:34.896297 20199 net.cpp:165] Memory required for data: 1473396736
I0414 05:20:34.896303 20199 layer_factory.hpp:77] Creating layer pool1
I0414 05:20:34.896318 20199 net.cpp:100] Creating Layer pool1
I0414 05:20:34.896325 20199 net.cpp:434] pool1 <- conv1
I0414 05:20:34.896335 20199 net.cpp:408] pool1 -> pool1
I0414 05:20:34.896406 20199 net.cpp:150] Setting up pool1
I0414 05:20:34.896419 20199 net.cpp:157] Top shape: 1024 100 21 21 (45158400)
I0414 05:20:34.896425 20199 net.cpp:165] Memory required for data: 1654030336
I0414 05:20:34.896430 20199 layer_factory.hpp:77] Creating layer conv2
I0414 05:20:34.896445 20199 net.cpp:100] Creating Layer conv2
I0414 05:20:34.896453 20199 net.cpp:434] conv2 <- pool1
I0414 05:20:34.896462 20199 net.cpp:408] conv2 -> conv2
I0414 05:20:34.905325 20199 net.cpp:150] Setting up conv2
I0414 05:20:34.905344 20199 net.cpp:157] Top shape: 1024 150 18 18 (49766400)
I0414 05:20:34.905346 20199 net.cpp:165] Memory required for data: 1853095936
I0414 05:20:34.905357 20199 layer_factory.hpp:77] Creating layer conv2_relu
I0414 05:20:34.905365 20199 net.cpp:100] Creating Layer conv2_relu
I0414 05:20:34.905370 20199 net.cpp:434] conv2_relu <- conv2
I0414 05:20:34.905375 20199 net.cpp:395] conv2_relu -> conv2 (in-place)
I0414 05:20:34.907212 20199 net.cpp:150] Setting up conv2_relu
I0414 05:20:34.907228 20199 net.cpp:157] Top shape: 1024 150 18 18 (49766400)
I0414 05:20:34.907232 20199 net.cpp:165] Memory required for data: 2052161536
I0414 05:20:34.907235 20199 layer_factory.hpp:77] Creating layer pool2
I0414 05:20:34.907243 20199 net.cpp:100] Creating Layer pool2
I0414 05:20:34.907249 20199 net.cpp:434] pool2 <- conv2
I0414 05:20:34.907255 20199 net.cpp:408] pool2 -> pool2
I0414 05:20:34.907305 20199 net.cpp:150] Setting up pool2
I0414 05:20:34.907312 20199 net.cpp:157] Top shape: 1024 150 9 9 (12441600)
I0414 05:20:34.907315 20199 net.cpp:165] Memory required for data: 2101927936
I0414 05:20:34.907320 20199 layer_factory.hpp:77] Creating layer conv3
I0414 05:20:34.907330 20199 net.cpp:100] Creating Layer conv3
I0414 05:20:34.907335 20199 net.cpp:434] conv3 <- pool2
I0414 05:20:34.907340 20199 net.cpp:408] conv3 -> conv3
I0414 05:20:34.915256 20199 net.cpp:150] Setting up conv3
I0414 05:20:34.915274 20199 net.cpp:157] Top shape: 1024 250 6 6 (9216000)
I0414 05:20:34.915278 20199 net.cpp:165] Memory required for data: 2138791936
I0414 05:20:34.915289 20199 layer_factory.hpp:77] Creating layer conv3_relu
I0414 05:20:34.915295 20199 net.cpp:100] Creating Layer conv3_relu
I0414 05:20:34.915302 20199 net.cpp:434] conv3_relu <- conv3
I0414 05:20:34.915307 20199 net.cpp:395] conv3_relu -> conv3 (in-place)
I0414 05:20:34.930764 20199 net.cpp:150] Setting up conv3_relu
I0414 05:20:34.930783 20199 net.cpp:157] Top shape: 1024 250 6 6 (9216000)
I0414 05:20:34.930785 20199 net.cpp:165] Memory required for data: 2175655936
I0414 05:20:34.930789 20199 layer_factory.hpp:77] Creating layer pool3
I0414 05:20:34.930797 20199 net.cpp:100] Creating Layer pool3
I0414 05:20:34.930801 20199 net.cpp:434] pool3 <- conv3
I0414 05:20:34.930807 20199 net.cpp:408] pool3 -> pool3
I0414 05:20:34.930856 20199 net.cpp:150] Setting up pool3
I0414 05:20:34.930865 20199 net.cpp:157] Top shape: 1024 250 3 3 (2304000)
I0414 05:20:34.930867 20199 net.cpp:165] Memory required for data: 2184871936
I0414 05:20:34.930871 20199 layer_factory.hpp:77] Creating layer fc4_300
I0414 05:20:34.930877 20199 net.cpp:100] Creating Layer fc4_300
I0414 05:20:34.930882 20199 net.cpp:434] fc4_300 <- pool3
I0414 05:20:34.930887 20199 net.cpp:408] fc4_300 -> fc4_300
I0414 05:20:34.937654 20199 net.cpp:150] Setting up fc4_300
I0414 05:20:34.937671 20199 net.cpp:157] Top shape: 1024 300 (307200)
I0414 05:20:34.937675 20199 net.cpp:165] Memory required for data: 2186100736
I0414 05:20:34.937682 20199 layer_factory.hpp:77] Creating layer fc4_relu
I0414 05:20:34.937688 20199 net.cpp:100] Creating Layer fc4_relu
I0414 05:20:34.937692 20199 net.cpp:434] fc4_relu <- fc4_300
I0414 05:20:34.937697 20199 net.cpp:395] fc4_relu -> fc4_300 (in-place)
I0414 05:20:34.937882 20199 net.cpp:150] Setting up fc4_relu
I0414 05:20:34.937897 20199 net.cpp:157] Top shape: 1024 300 (307200)
I0414 05:20:34.937903 20199 net.cpp:165] Memory required for data: 2187329536
I0414 05:20:34.937907 20199 layer_factory.hpp:77] Creating layer fc5_67
I0414 05:20:34.937914 20199 net.cpp:100] Creating Layer fc5_67
I0414 05:20:34.937919 20199 net.cpp:434] fc5_67 <- fc4_300
I0414 05:20:34.937925 20199 net.cpp:408] fc5_67 -> fc5_classes
I0414 05:20:34.946920 20199 net.cpp:150] Setting up fc5_67
I0414 05:20:34.946938 20199 net.cpp:157] Top shape: 1024 67 (68608)
I0414 05:20:34.946941 20199 net.cpp:165] Memory required for data: 2187603968
I0414 05:20:34.946951 20199 layer_factory.hpp:77] Creating layer fc5_classes_fc5_67_0_split
I0414 05:20:34.946959 20199 net.cpp:100] Creating Layer fc5_classes_fc5_67_0_split
I0414 05:20:34.946964 20199 net.cpp:434] fc5_classes_fc5_67_0_split <- fc5_classes
I0414 05:20:34.946969 20199 net.cpp:408] fc5_classes_fc5_67_0_split -> fc5_classes_fc5_67_0_split_0
I0414 05:20:34.946977 20199 net.cpp:408] fc5_classes_fc5_67_0_split -> fc5_classes_fc5_67_0_split_1
I0414 05:20:34.946987 20199 net.cpp:408] fc5_classes_fc5_67_0_split -> fc5_classes_fc5_67_0_split_2
I0414 05:20:34.947037 20199 net.cpp:150] Setting up fc5_classes_fc5_67_0_split
I0414 05:20:34.947044 20199 net.cpp:157] Top shape: 1024 67 (68608)
I0414 05:20:34.947048 20199 net.cpp:157] Top shape: 1024 67 (68608)
I0414 05:20:34.947052 20199 net.cpp:157] Top shape: 1024 67 (68608)
I0414 05:20:34.947054 20199 net.cpp:165] Memory required for data: 2188427264
I0414 05:20:34.947057 20199 layer_factory.hpp:77] Creating layer softmax
I0414 05:20:34.947063 20199 net.cpp:100] Creating Layer softmax
I0414 05:20:34.947067 20199 net.cpp:434] softmax <- fc5_classes_fc5_67_0_split_0
I0414 05:20:34.947073 20199 net.cpp:408] softmax -> softmax
I0414 05:20:34.947324 20199 net.cpp:150] Setting up softmax
I0414 05:20:34.947336 20199 net.cpp:157] Top shape: 1024 67 (68608)
I0414 05:20:34.947340 20199 net.cpp:165] Memory required for data: 2188701696
I0414 05:20:34.947343 20199 layer_factory.hpp:77] Creating layer loss
I0414 05:20:34.947351 20199 net.cpp:100] Creating Layer loss
I0414 05:20:34.947371 20199 net.cpp:434] loss <- softmax
I0414 05:20:34.947377 20199 net.cpp:434] loss <- label_data_1_split_0
I0414 05:20:34.947383 20199 net.cpp:408] loss -> loss
…
