…
I0414 07:22:12.388284 10773 solver.cpp:93] Creating training net from train_net file: ./Prototxt/experiment_10/rtsd-r1/histeq/trial_3/train.prototxt
I0414 07:22:12.388622 10773 net.cpp:58] Initializing net from parameters: 
state {
  phase: TRAIN
  level: 0
  stage: ""
}
layer {
  name: "data"
  type: "Data"
  top: "data"
  top: "label"
  include {
    phase: TRAIN
  }
  transform_param {
    scale: 0.0039215689
    mirror: false
    crop_size: 48
    mean_value: 130
    mean_value: 123
    mean_value: 137
  }
  data_param {
    source: "../local_data/lmdb/rtsd-r1/histeq/train/lmdb"
    batch_size: 1024
    backend: LMDB
  }
}
layer {
  name: "conv1"
  type: "Convolution"
  bottom: "data"
  top: "conv1"
  convolution_param {
    num_output: 100
    pad: 0
    kernel_size: 7
    group: 1
    stride: 1
    weight_filler {
      type: "xavier"
    }
  }
}
layer {
  name: "conv1_relu"
  type: "ReLU"
  bottom: "conv1"
  top: "conv1"
}
layer {
  name: "pool1"
  type: "Pooling"
  bottom: "conv1"
  top: "pool1"
  pooling_param {
    pool: MAX
    kernel_size: 2
    stride: 2
  }
}
layer {
  name: "conv2"
  type: "Convolution"
  bottom: "pool1"
  top: "conv2"
  convolution_param {
    num_output: 150
    pad: 0
    kernel_size: 4
    group: 1
    stride: 1
    weight_filler {
      type: "xavier"
    }
  }
}
layer {
  name: "conv2_relu"
  type: "ReLU"
  bottom: "conv2"
  top: "conv2"
}
layer {
  name: "pool2"
  type: "Pooling"
  bottom: "conv2"
  top: "pool2"
  pooling_param {
    pool: MAX
    kernel_size: 2
    stride: 2
  }
}
layer {
  name: "conv3"
  type: "Convolution"
  bottom: "pool2"
  top: "conv3"
  convolution_param {
    num_output: 250
    pad: 0
    kernel_size: 4
    group: 1
    stride: 1
    weight_filler {
      type: "xavier"
    }
  }
}
layer {
  name: "conv3_relu"
  type: "ReLU"
  bottom: "conv3"
  top: "conv3"
}
layer {
  name: "pool3"
  type: "Pooling"
  bottom: "conv3"
  top: "pool3"
  pooling_param {
    pool: MAX
    kernel_size: 2
    stride: 2
  }
}
layer {
  name: "fc4_300"
  type: "InnerProduct"
  bottom: "pool3"
  top: "fc4_300"
  inner_product_param {
    num_output: 300
    weight_filler {
      type: "xavier"
    }
  }
}
layer {
  name: "fc4_relu"
  type: "ReLU"
  bottom: "fc4_300"
  top: "fc4_300"
}
layer {
  name: "fc5_67"
  type: "InnerProduct"
  bottom: "fc4_300"
  top: "fc5_classes"
  inner_product_param {
    num_output: 67
    weight_filler {
      type: "xavier"
    }
  }
}
layer {
  name: "softmax"
  type: "Softmax"
  bottom: "fc5_classes"
  top: "softmax"
}
layer {
  name: "loss"
  type: "MultinomialLogisticLoss"
  bottom: "softmax"
  bottom: "label"
  top: "loss"
}
layer {
  name: "accuracy_1"
  type: "Accuracy"
  bottom: "fc5_classes"
  bottom: "label"
  top: "accuracy_1"
  accuracy_param {
    top_k: 1
  }
}
layer {
  name: "accuracy_5"
  type: "Accuracy"
  bottom: "fc5_classes"
  bottom: "label"
  top: "accuracy_5"
  accuracy_param {
    top_k: 5
  }
}
layer {
  name: "silence"
  type: "Silence"
  bottom: "accuracy_1"
  bottom: "accuracy_5"
}
I0414 07:22:12.388737 10773 layer_factory.hpp:77] Creating layer data
I0414 07:22:12.390007 10773 net.cpp:100] Creating Layer data
I0414 07:22:12.390022 10773 net.cpp:408] data -> data
I0414 07:22:12.390043 10773 net.cpp:408] data -> label
I0414 07:22:12.397646 10903 db_lmdb.cpp:35] Opened lmdb ../local_data/lmdb/rtsd-r1/histeq/train/lmdb
I0414 07:22:12.415863 10773 data_layer.cpp:41] output data size: 1024,3,48,48
I0414 07:22:12.475900 10773 net.cpp:150] Setting up data
I0414 07:22:12.475967 10773 net.cpp:157] Top shape: 1024 3 48 48 (7077888)
I0414 07:22:12.475976 10773 net.cpp:157] Top shape: 1024 (1024)
I0414 07:22:12.475980 10773 net.cpp:165] Memory required for data: 28315648
I0414 07:22:12.475993 10773 layer_factory.hpp:77] Creating layer label_data_1_split
I0414 07:22:12.476011 10773 net.cpp:100] Creating Layer label_data_1_split
I0414 07:22:12.476022 10773 net.cpp:434] label_data_1_split <- label
I0414 07:22:12.476039 10773 net.cpp:408] label_data_1_split -> label_data_1_split_0
I0414 07:22:12.476054 10773 net.cpp:408] label_data_1_split -> label_data_1_split_1
I0414 07:22:12.476064 10773 net.cpp:408] label_data_1_split -> label_data_1_split_2
I0414 07:22:12.476158 10773 net.cpp:150] Setting up label_data_1_split
I0414 07:22:12.476169 10773 net.cpp:157] Top shape: 1024 (1024)
I0414 07:22:12.476176 10773 net.cpp:157] Top shape: 1024 (1024)
I0414 07:22:12.476181 10773 net.cpp:157] Top shape: 1024 (1024)
I0414 07:22:12.476184 10773 net.cpp:165] Memory required for data: 28327936
I0414 07:22:12.476188 10773 layer_factory.hpp:77] Creating layer conv1
I0414 07:22:12.476210 10773 net.cpp:100] Creating Layer conv1
I0414 07:22:12.476217 10773 net.cpp:434] conv1 <- data
I0414 07:22:12.476225 10773 net.cpp:408] conv1 -> conv1
I0414 07:22:12.837649 10773 net.cpp:150] Setting up conv1
I0414 07:22:12.837678 10773 net.cpp:157] Top shape: 1024 100 42 42 (180633600)
I0414 07:22:12.837682 10773 net.cpp:165] Memory required for data: 750862336
I0414 07:22:12.837704 10773 layer_factory.hpp:77] Creating layer conv1_relu
I0414 07:22:12.837715 10773 net.cpp:100] Creating Layer conv1_relu
I0414 07:22:12.837719 10773 net.cpp:434] conv1_relu <- conv1
I0414 07:22:12.837725 10773 net.cpp:395] conv1_relu -> conv1 (in-place)
I0414 07:22:12.837918 10773 net.cpp:150] Setting up conv1_relu
I0414 07:22:12.837929 10773 net.cpp:157] Top shape: 1024 100 42 42 (180633600)
I0414 07:22:12.837932 10773 net.cpp:165] Memory required for data: 1473396736
I0414 07:22:12.837936 10773 layer_factory.hpp:77] Creating layer pool1
I0414 07:22:12.837946 10773 net.cpp:100] Creating Layer pool1
I0414 07:22:12.837949 10773 net.cpp:434] pool1 <- conv1
I0414 07:22:12.837954 10773 net.cpp:408] pool1 -> pool1
I0414 07:22:12.838008 10773 net.cpp:150] Setting up pool1
I0414 07:22:12.838016 10773 net.cpp:157] Top shape: 1024 100 21 21 (45158400)
I0414 07:22:12.838019 10773 net.cpp:165] Memory required for data: 1654030336
I0414 07:22:12.838023 10773 layer_factory.hpp:77] Creating layer conv2
I0414 07:22:12.838033 10773 net.cpp:100] Creating Layer conv2
I0414 07:22:12.838037 10773 net.cpp:434] conv2 <- pool1
I0414 07:22:12.838042 10773 net.cpp:408] conv2 -> conv2
I0414 07:22:12.847375 10773 net.cpp:150] Setting up conv2
I0414 07:22:12.847393 10773 net.cpp:157] Top shape: 1024 150 18 18 (49766400)
I0414 07:22:12.847396 10773 net.cpp:165] Memory required for data: 1853095936
I0414 07:22:12.847406 10773 layer_factory.hpp:77] Creating layer conv2_relu
I0414 07:22:12.847414 10773 net.cpp:100] Creating Layer conv2_relu
I0414 07:22:12.847417 10773 net.cpp:434] conv2_relu <- conv2
I0414 07:22:12.847422 10773 net.cpp:395] conv2_relu -> conv2 (in-place)
I0414 07:22:12.848572 10773 net.cpp:150] Setting up conv2_relu
I0414 07:22:12.848588 10773 net.cpp:157] Top shape: 1024 150 18 18 (49766400)
I0414 07:22:12.848592 10773 net.cpp:165] Memory required for data: 2052161536
I0414 07:22:12.848595 10773 layer_factory.hpp:77] Creating layer pool2
I0414 07:22:12.848603 10773 net.cpp:100] Creating Layer pool2
I0414 07:22:12.848605 10773 net.cpp:434] pool2 <- conv2
I0414 07:22:12.848611 10773 net.cpp:408] pool2 -> pool2
I0414 07:22:12.848659 10773 net.cpp:150] Setting up pool2
I0414 07:22:12.848668 10773 net.cpp:157] Top shape: 1024 150 9 9 (12441600)
I0414 07:22:12.848671 10773 net.cpp:165] Memory required for data: 2101927936
I0414 07:22:12.848675 10773 layer_factory.hpp:77] Creating layer conv3
I0414 07:22:12.848685 10773 net.cpp:100] Creating Layer conv3
I0414 07:22:12.848690 10773 net.cpp:434] conv3 <- pool2
I0414 07:22:12.848695 10773 net.cpp:408] conv3 -> conv3
I0414 07:22:12.854776 10773 net.cpp:150] Setting up conv3
I0414 07:22:12.854799 10773 net.cpp:157] Top shape: 1024 250 6 6 (9216000)
I0414 07:22:12.854801 10773 net.cpp:165] Memory required for data: 2138791936
I0414 07:22:12.854813 10773 layer_factory.hpp:77] Creating layer conv3_relu
I0414 07:22:12.854820 10773 net.cpp:100] Creating Layer conv3_relu
I0414 07:22:12.854825 10773 net.cpp:434] conv3_relu <- conv3
I0414 07:22:12.854830 10773 net.cpp:395] conv3_relu -> conv3 (in-place)
I0414 07:22:12.858180 10773 net.cpp:150] Setting up conv3_relu
I0414 07:22:12.858198 10773 net.cpp:157] Top shape: 1024 250 6 6 (9216000)
I0414 07:22:12.858202 10773 net.cpp:165] Memory required for data: 2175655936
I0414 07:22:12.858206 10773 layer_factory.hpp:77] Creating layer pool3
I0414 07:22:12.858214 10773 net.cpp:100] Creating Layer pool3
I0414 07:22:12.858217 10773 net.cpp:434] pool3 <- conv3
I0414 07:22:12.858223 10773 net.cpp:408] pool3 -> pool3
I0414 07:22:12.858273 10773 net.cpp:150] Setting up pool3
I0414 07:22:12.858283 10773 net.cpp:157] Top shape: 1024 250 3 3 (2304000)
I0414 07:22:12.858284 10773 net.cpp:165] Memory required for data: 2184871936
I0414 07:22:12.858288 10773 layer_factory.hpp:77] Creating layer fc4_300
I0414 07:22:12.858294 10773 net.cpp:100] Creating Layer fc4_300
I0414 07:22:12.858297 10773 net.cpp:434] fc4_300 <- pool3
I0414 07:22:12.858302 10773 net.cpp:408] fc4_300 -> fc4_300
I0414 07:22:12.864739 10773 net.cpp:150] Setting up fc4_300
I0414 07:22:12.864759 10773 net.cpp:157] Top shape: 1024 300 (307200)
I0414 07:22:12.864763 10773 net.cpp:165] Memory required for data: 2186100736
I0414 07:22:12.864771 10773 layer_factory.hpp:77] Creating layer fc4_relu
I0414 07:22:12.864778 10773 net.cpp:100] Creating Layer fc4_relu
I0414 07:22:12.864783 10773 net.cpp:434] fc4_relu <- fc4_300
I0414 07:22:12.864787 10773 net.cpp:395] fc4_relu -> fc4_300 (in-place)
I0414 07:22:12.864987 10773 net.cpp:150] Setting up fc4_relu
I0414 07:22:12.865000 10773 net.cpp:157] Top shape: 1024 300 (307200)
I0414 07:22:12.865002 10773 net.cpp:165] Memory required for data: 2187329536
I0414 07:22:12.865006 10773 layer_factory.hpp:77] Creating layer fc5_67
I0414 07:22:12.865012 10773 net.cpp:100] Creating Layer fc5_67
I0414 07:22:12.865015 10773 net.cpp:434] fc5_67 <- fc4_300
I0414 07:22:12.865020 10773 net.cpp:408] fc5_67 -> fc5_classes
I0414 07:22:12.866716 10773 net.cpp:150] Setting up fc5_67
I0414 07:22:12.866735 10773 net.cpp:157] Top shape: 1024 67 (68608)
I0414 07:22:12.866740 10773 net.cpp:165] Memory required for data: 2187603968
I0414 07:22:12.866756 10773 layer_factory.hpp:77] Creating layer fc5_classes_fc5_67_0_split
I0414 07:22:12.866770 10773 net.cpp:100] Creating Layer fc5_classes_fc5_67_0_split
I0414 07:22:12.866777 10773 net.cpp:434] fc5_classes_fc5_67_0_split <- fc5_classes
I0414 07:22:12.866786 10773 net.cpp:408] fc5_classes_fc5_67_0_split -> fc5_classes_fc5_67_0_split_0
I0414 07:22:12.866798 10773 net.cpp:408] fc5_classes_fc5_67_0_split -> fc5_classes_fc5_67_0_split_1
I0414 07:22:12.866811 10773 net.cpp:408] fc5_classes_fc5_67_0_split -> fc5_classes_fc5_67_0_split_2
I0414 07:22:12.866883 10773 net.cpp:150] Setting up fc5_classes_fc5_67_0_split
I0414 07:22:12.866897 10773 net.cpp:157] Top shape: 1024 67 (68608)
I0414 07:22:12.866904 10773 net.cpp:157] Top shape: 1024 67 (68608)
I0414 07:22:12.866909 10773 net.cpp:157] Top shape: 1024 67 (68608)
I0414 07:22:12.866912 10773 net.cpp:165] Memory required for data: 2188427264
I0414 07:22:12.866917 10773 layer_factory.hpp:77] Creating layer softmax
I0414 07:22:12.866925 10773 net.cpp:100] Creating Layer softmax
I0414 07:22:12.866930 10773 net.cpp:434] softmax <- fc5_classes_fc5_67_0_split_0
I0414 07:22:12.866938 10773 net.cpp:408] softmax -> softmax
I0414 07:22:12.867293 10773 net.cpp:150] Setting up softmax
I0414 07:22:12.867310 10773 net.cpp:157] Top shape: 1024 67 (68608)
I0414 07:22:12.867314 10773 net.cpp:165] Memory required for data: 2188701696
I0414 07:22:12.867319 10773 layer_factory.hpp:77] Creating layer loss
I0414 07:22:12.867332 10773 net.cpp:100] Creating Layer loss
I0414 07:22:12.867359 10773 net.cpp:434] loss <- softmax
I0414 07:22:12.867370 10773 net.cpp:434] loss <- label_data_1_split_0
I0414 07:22:12.867380 10773 net.cpp:408] loss -> loss
…
