…
I0412 08:09:44.984637 22204 solver.cpp:93] Creating training net from train_net file: ./Prototxt/experiment_10/rtsd-r1/histeq/trial_3/train.prototxt
I0412 08:09:44.985033 22204 net.cpp:58] Initializing net from parameters: 
state {
  phase: TRAIN
  level: 0
  stage: ""
}
layer {
  name: "data"
  type: "Data"
  top: "data"
  top: "label"
  include {
    phase: TRAIN
  }
  transform_param {
    scale: 0.0039215689
    mirror: false
    crop_size: 48
    mean_value: 130
    mean_value: 123
    mean_value: 137
  }
  data_param {
    source: "../local_data/lmdb/rtsd-r1/histeq/train/lmdb"
    batch_size: 1024
    backend: LMDB
  }
}
layer {
  name: "conv1"
  type: "Convolution"
  bottom: "data"
  top: "conv1"
  convolution_param {
    num_output: 100
    pad: 0
    kernel_size: 7
    group: 1
    stride: 1
    weight_filler {
      type: "xavier"
    }
  }
}
layer {
  name: "conv1_relu"
  type: "ReLU"
  bottom: "conv1"
  top: "conv1"
}
layer {
  name: "pool1"
  type: "Pooling"
  bottom: "conv1"
  top: "pool1"
  pooling_param {
    pool: MAX
    kernel_size: 2
    stride: 2
  }
}
layer {
  name: "conv2"
  type: "Convolution"
  bottom: "pool1"
  top: "conv2"
  convolution_param {
    num_output: 150
    pad: 0
    kernel_size: 4
    group: 1
    stride: 1
    weight_filler {
      type: "xavier"
    }
  }
}
layer {
  name: "conv2_relu"
  type: "ReLU"
  bottom: "conv2"
  top: "conv2"
}
layer {
  name: "pool2"
  type: "Pooling"
  bottom: "conv2"
  top: "pool2"
  pooling_param {
    pool: MAX
    kernel_size: 2
    stride: 2
  }
}
layer {
  name: "conv3"
  type: "Convolution"
  bottom: "pool2"
  top: "conv3"
  convolution_param {
    num_output: 250
    pad: 0
    kernel_size: 4
    group: 1
    stride: 1
    weight_filler {
      type: "xavier"
    }
  }
}
layer {
  name: "conv3_relu"
  type: "ReLU"
  bottom: "conv3"
  top: "conv3"
}
layer {
  name: "pool3"
  type: "Pooling"
  bottom: "conv3"
  top: "pool3"
  pooling_param {
    pool: MAX
    kernel_size: 2
    stride: 2
  }
}
layer {
  name: "fc4_300"
  type: "InnerProduct"
  bottom: "pool3"
  top: "fc4_300"
  inner_product_param {
    num_output: 300
    weight_filler {
      type: "xavier"
    }
  }
}
layer {
  name: "fc4_relu"
  type: "ReLU"
  bottom: "fc4_300"
  top: "fc4_300"
}
layer {
  name: "drop4"
  type: "Dropout"
  bottom: "fc4_300"
  top: "fc4_300"
  dropout_param {
    dropout_ratio: 0.4
  }
}
layer {
  name: "fc5_67"
  type: "InnerProduct"
  bottom: "fc4_300"
  top: "fc5_classes"
  inner_product_param {
    num_output: 67
    weight_filler {
      type: "xavier"
    }
  }
}
layer {
  name: "softmax"
  type: "Softmax"
  bottom: "fc5_classes"
  top: "softmax"
}
layer {
  name: "loss"
  type: "MultinomialLogisticLoss"
  bottom: "softmax"
  bottom: "label"
  top: "loss"
}
layer {
  name: "accuracy_1"
  type: "Accuracy"
  bottom: "fc5_classes"
  bottom: "label"
  top: "accuracy_1"
  accuracy_param {
    top_k: 1
  }
}
layer {
  name: "accuracy_5"
  type: "Accuracy"
  bottom: "fc5_classes"
  bottom: "label"
  top: "accuracy_5"
  accuracy_param {
    top_k: 5
  }
}
I0412 08:09:44.985180 22204 layer_factory.hpp:77] Creating layer data
I0412 08:09:44.986696 22204 net.cpp:100] Creating Layer data
I0412 08:09:44.986712 22204 net.cpp:408] data -> data
I0412 08:09:44.986740 22204 net.cpp:408] data -> label
I0412 08:09:44.991757 22329 db_lmdb.cpp:35] Opened lmdb ../local_data/lmdb/rtsd-r1/histeq/train/lmdb
I0412 08:09:45.011829 22204 data_layer.cpp:41] output data size: 1024,3,48,48
I0412 08:09:45.074713 22204 net.cpp:150] Setting up data
I0412 08:09:45.074744 22204 net.cpp:157] Top shape: 1024 3 48 48 (7077888)
I0412 08:09:45.074750 22204 net.cpp:157] Top shape: 1024 (1024)
I0412 08:09:45.074754 22204 net.cpp:165] Memory required for data: 28315648
I0412 08:09:45.074766 22204 layer_factory.hpp:77] Creating layer label_data_1_split
I0412 08:09:45.074781 22204 net.cpp:100] Creating Layer label_data_1_split
I0412 08:09:45.074790 22204 net.cpp:434] label_data_1_split <- label
I0412 08:09:45.074805 22204 net.cpp:408] label_data_1_split -> label_data_1_split_0
I0412 08:09:45.074820 22204 net.cpp:408] label_data_1_split -> label_data_1_split_1
I0412 08:09:45.074828 22204 net.cpp:408] label_data_1_split -> label_data_1_split_2
I0412 08:09:45.074932 22204 net.cpp:150] Setting up label_data_1_split
I0412 08:09:45.074942 22204 net.cpp:157] Top shape: 1024 (1024)
I0412 08:09:45.074947 22204 net.cpp:157] Top shape: 1024 (1024)
I0412 08:09:45.074951 22204 net.cpp:157] Top shape: 1024 (1024)
I0412 08:09:45.074954 22204 net.cpp:165] Memory required for data: 28327936
I0412 08:09:45.074959 22204 layer_factory.hpp:77] Creating layer conv1
I0412 08:09:45.074977 22204 net.cpp:100] Creating Layer conv1
I0412 08:09:45.074985 22204 net.cpp:434] conv1 <- data
I0412 08:09:45.075001 22204 net.cpp:408] conv1 -> conv1
I0412 08:09:45.419975 22204 net.cpp:150] Setting up conv1
I0412 08:09:45.420001 22204 net.cpp:157] Top shape: 1024 100 42 42 (180633600)
I0412 08:09:45.420006 22204 net.cpp:165] Memory required for data: 750862336
I0412 08:09:45.420027 22204 layer_factory.hpp:77] Creating layer conv1_relu
I0412 08:09:45.420039 22204 net.cpp:100] Creating Layer conv1_relu
I0412 08:09:45.420045 22204 net.cpp:434] conv1_relu <- conv1
I0412 08:09:45.420052 22204 net.cpp:395] conv1_relu -> conv1 (in-place)
I0412 08:09:45.420253 22204 net.cpp:150] Setting up conv1_relu
I0412 08:09:45.420264 22204 net.cpp:157] Top shape: 1024 100 42 42 (180633600)
I0412 08:09:45.420269 22204 net.cpp:165] Memory required for data: 1473396736
I0412 08:09:45.420272 22204 layer_factory.hpp:77] Creating layer pool1
I0412 08:09:45.420282 22204 net.cpp:100] Creating Layer pool1
I0412 08:09:45.420286 22204 net.cpp:434] pool1 <- conv1
I0412 08:09:45.420292 22204 net.cpp:408] pool1 -> pool1
I0412 08:09:45.420346 22204 net.cpp:150] Setting up pool1
I0412 08:09:45.420353 22204 net.cpp:157] Top shape: 1024 100 21 21 (45158400)
I0412 08:09:45.420356 22204 net.cpp:165] Memory required for data: 1654030336
I0412 08:09:45.420359 22204 layer_factory.hpp:77] Creating layer conv2
I0412 08:09:45.420370 22204 net.cpp:100] Creating Layer conv2
I0412 08:09:45.420374 22204 net.cpp:434] conv2 <- pool1
I0412 08:09:45.420379 22204 net.cpp:408] conv2 -> conv2
I0412 08:09:45.425655 22204 net.cpp:150] Setting up conv2
I0412 08:09:45.425670 22204 net.cpp:157] Top shape: 1024 150 18 18 (49766400)
I0412 08:09:45.425674 22204 net.cpp:165] Memory required for data: 1853095936
I0412 08:09:45.425683 22204 layer_factory.hpp:77] Creating layer conv2_relu
I0412 08:09:45.425691 22204 net.cpp:100] Creating Layer conv2_relu
I0412 08:09:45.425695 22204 net.cpp:434] conv2_relu <- conv2
I0412 08:09:45.425700 22204 net.cpp:395] conv2_relu -> conv2 (in-place)
I0412 08:09:45.426760 22204 net.cpp:150] Setting up conv2_relu
I0412 08:09:45.426776 22204 net.cpp:157] Top shape: 1024 150 18 18 (49766400)
I0412 08:09:45.426779 22204 net.cpp:165] Memory required for data: 2052161536
I0412 08:09:45.426782 22204 layer_factory.hpp:77] Creating layer pool2
I0412 08:09:45.426789 22204 net.cpp:100] Creating Layer pool2
I0412 08:09:45.426792 22204 net.cpp:434] pool2 <- conv2
I0412 08:09:45.426798 22204 net.cpp:408] pool2 -> pool2
I0412 08:09:45.426843 22204 net.cpp:150] Setting up pool2
I0412 08:09:45.426852 22204 net.cpp:157] Top shape: 1024 150 9 9 (12441600)
I0412 08:09:45.426856 22204 net.cpp:165] Memory required for data: 2101927936
I0412 08:09:45.426858 22204 layer_factory.hpp:77] Creating layer conv3
I0412 08:09:45.426867 22204 net.cpp:100] Creating Layer conv3
I0412 08:09:45.426872 22204 net.cpp:434] conv3 <- pool2
I0412 08:09:45.426894 22204 net.cpp:408] conv3 -> conv3
I0412 08:09:45.432775 22204 net.cpp:150] Setting up conv3
I0412 08:09:45.432792 22204 net.cpp:157] Top shape: 1024 250 6 6 (9216000)
I0412 08:09:45.432796 22204 net.cpp:165] Memory required for data: 2138791936
I0412 08:09:45.432817 22204 layer_factory.hpp:77] Creating layer conv3_relu
I0412 08:09:45.432826 22204 net.cpp:100] Creating Layer conv3_relu
I0412 08:09:45.432832 22204 net.cpp:434] conv3_relu <- conv3
I0412 08:09:45.432837 22204 net.cpp:395] conv3_relu -> conv3 (in-place)
I0412 08:09:45.434278 22204 net.cpp:150] Setting up conv3_relu
I0412 08:09:45.434291 22204 net.cpp:157] Top shape: 1024 250 6 6 (9216000)
I0412 08:09:45.434294 22204 net.cpp:165] Memory required for data: 2175655936
I0412 08:09:45.434298 22204 layer_factory.hpp:77] Creating layer pool3
I0412 08:09:45.434304 22204 net.cpp:100] Creating Layer pool3
I0412 08:09:45.434309 22204 net.cpp:434] pool3 <- conv3
I0412 08:09:45.434314 22204 net.cpp:408] pool3 -> pool3
I0412 08:09:45.434370 22204 net.cpp:150] Setting up pool3
I0412 08:09:45.434378 22204 net.cpp:157] Top shape: 1024 250 3 3 (2304000)
I0412 08:09:45.434381 22204 net.cpp:165] Memory required for data: 2184871936
I0412 08:09:45.434384 22204 layer_factory.hpp:77] Creating layer fc4_300
I0412 08:09:45.434391 22204 net.cpp:100] Creating Layer fc4_300
I0412 08:09:45.434396 22204 net.cpp:434] fc4_300 <- pool3
I0412 08:09:45.434401 22204 net.cpp:408] fc4_300 -> fc4_300
I0412 08:09:45.440096 22204 net.cpp:150] Setting up fc4_300
I0412 08:09:45.440111 22204 net.cpp:157] Top shape: 1024 300 (307200)
I0412 08:09:45.440114 22204 net.cpp:165] Memory required for data: 2186100736
I0412 08:09:45.440122 22204 layer_factory.hpp:77] Creating layer fc4_relu
I0412 08:09:45.440129 22204 net.cpp:100] Creating Layer fc4_relu
I0412 08:09:45.440131 22204 net.cpp:434] fc4_relu <- fc4_300
I0412 08:09:45.440136 22204 net.cpp:395] fc4_relu -> fc4_300 (in-place)
I0412 08:09:45.440320 22204 net.cpp:150] Setting up fc4_relu
I0412 08:09:45.440331 22204 net.cpp:157] Top shape: 1024 300 (307200)
I0412 08:09:45.440335 22204 net.cpp:165] Memory required for data: 2187329536
I0412 08:09:45.440337 22204 layer_factory.hpp:77] Creating layer drop4
I0412 08:09:45.440345 22204 net.cpp:100] Creating Layer drop4
I0412 08:09:45.440347 22204 net.cpp:434] drop4 <- fc4_300
I0412 08:09:45.440352 22204 net.cpp:395] drop4 -> fc4_300 (in-place)
I0412 08:09:45.440382 22204 net.cpp:150] Setting up drop4
I0412 08:09:45.440389 22204 net.cpp:157] Top shape: 1024 300 (307200)
I0412 08:09:45.440392 22204 net.cpp:165] Memory required for data: 2188558336
I0412 08:09:45.440395 22204 layer_factory.hpp:77] Creating layer fc5_67
I0412 08:09:45.440402 22204 net.cpp:100] Creating Layer fc5_67
I0412 08:09:45.440404 22204 net.cpp:434] fc5_67 <- fc4_300
I0412 08:09:45.440409 22204 net.cpp:408] fc5_67 -> fc5_classes
I0412 08:09:45.443249 22204 net.cpp:150] Setting up fc5_67
I0412 08:09:45.443262 22204 net.cpp:157] Top shape: 1024 67 (68608)
I0412 08:09:45.443277 22204 net.cpp:165] Memory required for data: 2188832768
I0412 08:09:45.443287 22204 layer_factory.hpp:77] Creating layer fc5_classes_fc5_67_0_split
I0412 08:09:45.443295 22204 net.cpp:100] Creating Layer fc5_classes_fc5_67_0_split
I0412 08:09:45.443297 22204 net.cpp:434] fc5_classes_fc5_67_0_split <- fc5_classes
I0412 08:09:45.443302 22204 net.cpp:408] fc5_classes_fc5_67_0_split -> fc5_classes_fc5_67_0_split_0
I0412 08:09:45.443310 22204 net.cpp:408] fc5_classes_fc5_67_0_split -> fc5_classes_fc5_67_0_split_1
I0412 08:09:45.443316 22204 net.cpp:408] fc5_classes_fc5_67_0_split -> fc5_classes_fc5_67_0_split_2
I0412 08:09:45.443368 22204 net.cpp:150] Setting up fc5_classes_fc5_67_0_split
I0412 08:09:45.443375 22204 net.cpp:157] Top shape: 1024 67 (68608)
I0412 08:09:45.443378 22204 net.cpp:157] Top shape: 1024 67 (68608)
I0412 08:09:45.443382 22204 net.cpp:157] Top shape: 1024 67 (68608)
I0412 08:09:45.443384 22204 net.cpp:165] Memory required for data: 2189656064
I0412 08:09:45.443387 22204 layer_factory.hpp:77] Creating layer softmax
I0412 08:09:45.443409 22204 net.cpp:100] Creating Layer softmax
I0412 08:09:45.443413 22204 net.cpp:434] softmax <- fc5_classes_fc5_67_0_split_0
I0412 08:09:45.443420 22204 net.cpp:408] softmax -> softmax
I0412 08:09:45.443670 22204 net.cpp:150] Setting up softmax
I0412 08:09:45.443681 22204 net.cpp:157] Top shape: 1024 67 (68608)
I0412 08:09:45.443684 22204 net.cpp:165] Memory required for data: 2189930496
I0412 08:09:45.443687 22204 layer_factory.hpp:77] Creating layer loss
I0412 08:09:45.443693 22204 net.cpp:100] Creating Layer loss
I0412 08:09:45.443696 22204 net.cpp:434] loss <- softmax
I0412 08:09:45.443701 22204 net.cpp:434] loss <- label_data_1_split_0
I0412 08:09:45.443706 22204 net.cpp:408] loss -> loss
…
