…
I0415 02:21:47.123505 27062 solver.cpp:93] Creating training net from train_net file: ./Prototxt/experiment_12/rtsd-r1/orig/trial_3/train.prototxt
I0415 02:21:47.137480 27062 net.cpp:58] Initializing net from parameters: 
state {
  phase: TRAIN
  level: 0
  stage: ""
}
layer {
  name: "data"
  type: "Data"
  top: "data"
  top: "label"
  include {
    phase: TRAIN
  }
  transform_param {
    scale: 0.0039215689
    mirror: false
    crop_size: 48
    mean_value: 122
    mean_value: 115
    mean_value: 129
  }
  data_param {
    source: "../local_data/lmdb/rtsd-r1/orig/train/lmdb"
    batch_size: 1024
    backend: LMDB
  }
}
layer {
  name: "conv1"
  type: "Convolution"
  bottom: "data"
  top: "conv1"
  convolution_param {
    num_output: 100
    pad: 0
    kernel_size: 7
    group: 1
    stride: 1
    weight_filler {
      type: "xavier"
    }
  }
}
layer {
  name: "conv1_relu"
  type: "ReLU"
  bottom: "conv1"
  top: "conv1"
}
layer {
  name: "pool1"
  type: "Pooling"
  bottom: "conv1"
  top: "pool1"
  pooling_param {
    pool: MAX
    kernel_size: 2
    stride: 2
  }
}
layer {
  name: "conv2"
  type: "Convolution"
  bottom: "pool1"
  top: "conv2"
  convolution_param {
    num_output: 150
    pad: 0
    kernel_size: 4
    group: 1
    stride: 1
    weight_filler {
      type: "xavier"
    }
  }
}
layer {
  name: "conv2_relu"
  type: "ReLU"
  bottom: "conv2"
  top: "conv2"
}
layer {
  name: "pool2"
  type: "Pooling"
  bottom: "conv2"
  top: "pool2"
  pooling_param {
    pool: MAX
    kernel_size: 2
    stride: 2
  }
}
layer {
  name: "conv3"
  type: "Convolution"
  bottom: "pool2"
  top: "conv3"
  convolution_param {
    num_output: 250
    pad: 0
    kernel_size: 4
    group: 1
    stride: 1
    weight_filler {
      type: "xavier"
    }
  }
}
layer {
  name: "conv3_relu"
  type: "ReLU"
  bottom: "conv3"
  top: "conv3"
}
layer {
  name: "pool3"
  type: "Pooling"
  bottom: "conv3"
  top: "pool3"
  pooling_param {
    pool: MAX
    kernel_size: 2
    stride: 2
  }
}
layer {
  name: "fc4_300"
  type: "InnerProduct"
  bottom: "pool3"
  top: "fc4_300"
  inner_product_param {
    num_output: 300
    weight_filler {
      type: "xavier"
    }
  }
}
layer {
  name: "fc4_relu"
  type: "ReLU"
  bottom: "fc4_300"
  top: "fc4_300"
}
layer {
  name: "drop4"
  type: "Dropout"
  bottom: "fc4_300"
  top: "fc4_300"
  dropout_param {
    dropout_ratio: 0.5
  }
}
layer {
  name: "fc5_67"
  type: "InnerProduct"
  bottom: "fc4_300"
  top: "fc5_classes"
  inner_product_param {
    num_output: 67
    weight_filler {
      type: "xavier"
    }
  }
}
layer {
  name: "softmax"
  type: "Softmax"
  bottom: "fc5_classes"
  top: "softmax"
}
layer {
  name: "loss"
  type: "MultinomialLogisticLoss"
  bottom: "softmax"
  bottom: "label"
  top: "loss"
}
layer {
  name: "accuracy_1"
  type: "Accuracy"
  bottom: "fc5_classes"
  bottom: "label"
  top: "accuracy_1"
  accuracy_param {
    top_k: 1
  }
}
layer {
  name: "accuracy_5"
  type: "Accuracy"
  bottom: "fc5_classes"
  bottom: "label"
  top: "accuracy_5"
  accuracy_param {
    top_k: 5
  }
}
layer {
  name: "silence"
  type: "Silence"
  bottom: "accuracy_1"
  bottom: "accuracy_5"
}
I0415 02:21:47.137658 27062 layer_factory.hpp:77] Creating layer data
I0415 02:21:47.138777 27062 net.cpp:100] Creating Layer data
I0415 02:21:47.138800 27062 net.cpp:408] data -> data
I0415 02:21:47.138833 27062 net.cpp:408] data -> label
I0415 02:21:47.143915 27284 db_lmdb.cpp:35] Opened lmdb ../local_data/lmdb/rtsd-r1/orig/train/lmdb
I0415 02:21:47.165529 27062 data_layer.cpp:41] output data size: 1024,3,48,48
I0415 02:21:47.222900 27062 net.cpp:150] Setting up data
I0415 02:21:47.222934 27062 net.cpp:157] Top shape: 1024 3 48 48 (7077888)
I0415 02:21:47.222944 27062 net.cpp:157] Top shape: 1024 (1024)
I0415 02:21:47.222947 27062 net.cpp:165] Memory required for data: 28315648
I0415 02:21:47.222961 27062 layer_factory.hpp:77] Creating layer label_data_1_split
I0415 02:21:47.222982 27062 net.cpp:100] Creating Layer label_data_1_split
I0415 02:21:47.222992 27062 net.cpp:434] label_data_1_split <- label
I0415 02:21:47.223012 27062 net.cpp:408] label_data_1_split -> label_data_1_split_0
I0415 02:21:47.223031 27062 net.cpp:408] label_data_1_split -> label_data_1_split_1
I0415 02:21:47.223042 27062 net.cpp:408] label_data_1_split -> label_data_1_split_2
I0415 02:21:47.223112 27062 net.cpp:150] Setting up label_data_1_split
I0415 02:21:47.223122 27062 net.cpp:157] Top shape: 1024 (1024)
I0415 02:21:47.223129 27062 net.cpp:157] Top shape: 1024 (1024)
I0415 02:21:47.223136 27062 net.cpp:157] Top shape: 1024 (1024)
I0415 02:21:47.223141 27062 net.cpp:165] Memory required for data: 28327936
I0415 02:21:47.223147 27062 layer_factory.hpp:77] Creating layer conv1
I0415 02:21:47.223167 27062 net.cpp:100] Creating Layer conv1
I0415 02:21:47.223173 27062 net.cpp:434] conv1 <- data
I0415 02:21:47.223183 27062 net.cpp:408] conv1 -> conv1
I0415 02:21:48.587477 27062 net.cpp:150] Setting up conv1
I0415 02:21:48.587517 27062 net.cpp:157] Top shape: 1024 100 42 42 (180633600)
I0415 02:21:48.587522 27062 net.cpp:165] Memory required for data: 750862336
I0415 02:21:48.587553 27062 layer_factory.hpp:77] Creating layer conv1_relu
I0415 02:21:48.587571 27062 net.cpp:100] Creating Layer conv1_relu
I0415 02:21:48.587579 27062 net.cpp:434] conv1_relu <- conv1
I0415 02:21:48.587590 27062 net.cpp:395] conv1_relu -> conv1 (in-place)
I0415 02:21:48.587839 27062 net.cpp:150] Setting up conv1_relu
I0415 02:21:48.587854 27062 net.cpp:157] Top shape: 1024 100 42 42 (180633600)
I0415 02:21:48.587859 27062 net.cpp:165] Memory required for data: 1473396736
I0415 02:21:48.587865 27062 layer_factory.hpp:77] Creating layer pool1
I0415 02:21:48.587899 27062 net.cpp:100] Creating Layer pool1
I0415 02:21:48.587909 27062 net.cpp:434] pool1 <- conv1
I0415 02:21:48.587919 27062 net.cpp:408] pool1 -> pool1
I0415 02:21:48.587993 27062 net.cpp:150] Setting up pool1
I0415 02:21:48.588006 27062 net.cpp:157] Top shape: 1024 100 21 21 (45158400)
I0415 02:21:48.588011 27062 net.cpp:165] Memory required for data: 1654030336
I0415 02:21:48.588016 27062 layer_factory.hpp:77] Creating layer conv2
I0415 02:21:48.588032 27062 net.cpp:100] Creating Layer conv2
I0415 02:21:48.588037 27062 net.cpp:434] conv2 <- pool1
I0415 02:21:48.588047 27062 net.cpp:408] conv2 -> conv2
I0415 02:21:48.594831 27062 net.cpp:150] Setting up conv2
I0415 02:21:48.594861 27062 net.cpp:157] Top shape: 1024 150 18 18 (49766400)
I0415 02:21:48.594866 27062 net.cpp:165] Memory required for data: 1853095936
I0415 02:21:48.594887 27062 layer_factory.hpp:77] Creating layer conv2_relu
I0415 02:21:48.594904 27062 net.cpp:100] Creating Layer conv2_relu
I0415 02:21:48.594911 27062 net.cpp:434] conv2_relu <- conv2
I0415 02:21:48.594925 27062 net.cpp:395] conv2_relu -> conv2 (in-place)
I0415 02:21:48.597494 27062 net.cpp:150] Setting up conv2_relu
I0415 02:21:48.597517 27062 net.cpp:157] Top shape: 1024 150 18 18 (49766400)
I0415 02:21:48.597523 27062 net.cpp:165] Memory required for data: 2052161536
I0415 02:21:48.597529 27062 layer_factory.hpp:77] Creating layer pool2
I0415 02:21:48.597543 27062 net.cpp:100] Creating Layer pool2
I0415 02:21:48.597553 27062 net.cpp:434] pool2 <- conv2
I0415 02:21:48.597566 27062 net.cpp:408] pool2 -> pool2
I0415 02:21:48.597640 27062 net.cpp:150] Setting up pool2
I0415 02:21:48.597654 27062 net.cpp:157] Top shape: 1024 150 9 9 (12441600)
I0415 02:21:48.597659 27062 net.cpp:165] Memory required for data: 2101927936
I0415 02:21:48.597664 27062 layer_factory.hpp:77] Creating layer conv3
I0415 02:21:48.597684 27062 net.cpp:100] Creating Layer conv3
I0415 02:21:48.597710 27062 net.cpp:434] conv3 <- pool2
I0415 02:21:48.597726 27062 net.cpp:408] conv3 -> conv3
I0415 02:21:48.613802 27062 net.cpp:150] Setting up conv3
I0415 02:21:48.613834 27062 net.cpp:157] Top shape: 1024 250 6 6 (9216000)
I0415 02:21:48.613840 27062 net.cpp:165] Memory required for data: 2138791936
I0415 02:21:48.613862 27062 layer_factory.hpp:77] Creating layer conv3_relu
I0415 02:21:48.613875 27062 net.cpp:100] Creating Layer conv3_relu
I0415 02:21:48.613884 27062 net.cpp:434] conv3_relu <- conv3
I0415 02:21:48.613895 27062 net.cpp:395] conv3_relu -> conv3 (in-place)
I0415 02:21:48.615422 27062 net.cpp:150] Setting up conv3_relu
I0415 02:21:48.615442 27062 net.cpp:157] Top shape: 1024 250 6 6 (9216000)
I0415 02:21:48.615448 27062 net.cpp:165] Memory required for data: 2175655936
I0415 02:21:48.615454 27062 layer_factory.hpp:77] Creating layer pool3
I0415 02:21:48.615465 27062 net.cpp:100] Creating Layer pool3
I0415 02:21:48.615473 27062 net.cpp:434] pool3 <- conv3
I0415 02:21:48.615483 27062 net.cpp:408] pool3 -> pool3
I0415 02:21:48.615543 27062 net.cpp:150] Setting up pool3
I0415 02:21:48.615555 27062 net.cpp:157] Top shape: 1024 250 3 3 (2304000)
I0415 02:21:48.615559 27062 net.cpp:165] Memory required for data: 2184871936
I0415 02:21:48.615564 27062 layer_factory.hpp:77] Creating layer fc4_300
I0415 02:21:48.615574 27062 net.cpp:100] Creating Layer fc4_300
I0415 02:21:48.615581 27062 net.cpp:434] fc4_300 <- pool3
I0415 02:21:48.615591 27062 net.cpp:408] fc4_300 -> fc4_300
I0415 02:21:48.621858 27062 net.cpp:150] Setting up fc4_300
I0415 02:21:48.621887 27062 net.cpp:157] Top shape: 1024 300 (307200)
I0415 02:21:48.621893 27062 net.cpp:165] Memory required for data: 2186100736
I0415 02:21:48.621907 27062 layer_factory.hpp:77] Creating layer fc4_relu
I0415 02:21:48.621920 27062 net.cpp:100] Creating Layer fc4_relu
I0415 02:21:48.621928 27062 net.cpp:434] fc4_relu <- fc4_300
I0415 02:21:48.621942 27062 net.cpp:395] fc4_relu -> fc4_300 (in-place)
I0415 02:21:48.622179 27062 net.cpp:150] Setting up fc4_relu
I0415 02:21:48.622192 27062 net.cpp:157] Top shape: 1024 300 (307200)
I0415 02:21:48.622197 27062 net.cpp:165] Memory required for data: 2187329536
I0415 02:21:48.622203 27062 layer_factory.hpp:77] Creating layer drop4
I0415 02:21:48.622215 27062 net.cpp:100] Creating Layer drop4
I0415 02:21:48.622221 27062 net.cpp:434] drop4 <- fc4_300
I0415 02:21:48.622229 27062 net.cpp:395] drop4 -> fc4_300 (in-place)
I0415 02:21:48.622269 27062 net.cpp:150] Setting up drop4
I0415 02:21:48.622279 27062 net.cpp:157] Top shape: 1024 300 (307200)
I0415 02:21:48.622284 27062 net.cpp:165] Memory required for data: 2188558336
I0415 02:21:48.622290 27062 layer_factory.hpp:77] Creating layer fc5_67
I0415 02:21:48.622300 27062 net.cpp:100] Creating Layer fc5_67
I0415 02:21:48.622308 27062 net.cpp:434] fc5_67 <- fc4_300
I0415 02:21:48.622315 27062 net.cpp:408] fc5_67 -> fc5_classes
I0415 02:21:48.624665 27062 net.cpp:150] Setting up fc5_67
I0415 02:21:48.624682 27062 net.cpp:157] Top shape: 1024 67 (68608)
I0415 02:21:48.624687 27062 net.cpp:165] Memory required for data: 2188832768
I0415 02:21:48.624706 27062 layer_factory.hpp:77] Creating layer fc5_classes_fc5_67_0_split
I0415 02:21:48.624719 27062 net.cpp:100] Creating Layer fc5_classes_fc5_67_0_split
I0415 02:21:48.624727 27062 net.cpp:434] fc5_classes_fc5_67_0_split <- fc5_classes
I0415 02:21:48.624737 27062 net.cpp:408] fc5_classes_fc5_67_0_split -> fc5_classes_fc5_67_0_split_0
I0415 02:21:48.624752 27062 net.cpp:408] fc5_classes_fc5_67_0_split -> fc5_classes_fc5_67_0_split_1
I0415 02:21:48.624763 27062 net.cpp:408] fc5_classes_fc5_67_0_split -> fc5_classes_fc5_67_0_split_2
I0415 02:21:48.624822 27062 net.cpp:150] Setting up fc5_classes_fc5_67_0_split
I0415 02:21:48.624832 27062 net.cpp:157] Top shape: 1024 67 (68608)
I0415 02:21:48.624838 27062 net.cpp:157] Top shape: 1024 67 (68608)
I0415 02:21:48.624845 27062 net.cpp:157] Top shape: 1024 67 (68608)
I0415 02:21:48.624850 27062 net.cpp:165] Memory required for data: 2189656064
I0415 02:21:48.624876 27062 layer_factory.hpp:77] Creating layer softmax
I0415 02:21:48.624891 27062 net.cpp:100] Creating Layer softmax
I0415 02:21:48.624900 27062 net.cpp:434] softmax <- fc5_classes_fc5_67_0_split_0
I0415 02:21:48.624909 27062 net.cpp:408] softmax -> softmax
I0415 02:21:48.625195 27062 net.cpp:150] Setting up softmax
I0415 02:21:48.625210 27062 net.cpp:157] Top shape: 1024 67 (68608)
I0415 02:21:48.625214 27062 net.cpp:165] Memory required for data: 2189930496
I0415 02:21:48.625221 27062 layer_factory.hpp:77] Creating layer loss
I0415 02:21:48.625229 27062 net.cpp:100] Creating Layer loss
I0415 02:21:48.625236 27062 net.cpp:434] loss <- softmax
I0415 02:21:48.625244 27062 net.cpp:434] loss <- label_data_1_split_0
I0415 02:21:48.625254 27062 net.cpp:408] loss -> loss
…
