…
I0417 16:54:02.451414  6208 solver.cpp:93] Creating training net from train_net file: ./Prototxt/experiment_11/rtsd-r1/CoNorm/trial_4/train.prototxt
I0417 16:54:02.452126  6208 net.cpp:58] Initializing net from parameters: 
state {
  phase: TRAIN
  level: 0
  stage: ""
}
layer {
  name: "data"
  type: "Data"
  top: "data"
  top: "label"
  include {
    phase: TRAIN
  }
  transform_param {
    scale: 0.0039215689
    mirror: false
    crop_size: 48
    mean_value: 132
    mean_value: 132
    mean_value: 131
  }
  data_param {
    source: "../local_data/lmdb/rtsd-r1/CoNorm/train/lmdb"
    batch_size: 1024
    backend: LMDB
  }
}
layer {
  name: "conv1"
  type: "Convolution"
  bottom: "data"
  top: "conv1"
  convolution_param {
    num_output: 100
    pad: 0
    kernel_size: 7
    group: 1
    stride: 1
    weight_filler {
      type: "xavier"
    }
  }
}
layer {
  name: "conv1_prescale"
  type: "Scale"
  bottom: "conv1"
  top: "conv1"
  param {
    lr_mult: 0
    decay_mult: 0
  }
  scale_param {
    filler {
      value: 0.6666
    }
    bias_term: false
  }
}
layer {
  name: "conv1_sTanH"
  type: "TanH"
  bottom: "conv1"
  top: "conv1"
}
layer {
  name: "conv1_postscale"
  type: "Scale"
  bottom: "conv1"
  top: "conv1"
  param {
    lr_mult: 0
    decay_mult: 0
  }
  scale_param {
    filler {
      value: 1.7159
    }
    bias_term: false
  }
}
layer {
  name: "pool1"
  type: "Pooling"
  bottom: "conv1"
  top: "pool1"
  pooling_param {
    pool: MAX
    kernel_size: 2
    stride: 2
  }
}
layer {
  name: "conv2"
  type: "Convolution"
  bottom: "pool1"
  top: "conv2"
  convolution_param {
    num_output: 150
    pad: 0
    kernel_size: 4
    group: 1
    stride: 1
    weight_filler {
      type: "xavier"
    }
  }
}
layer {
  name: "conv2_prescale"
  type: "Scale"
  bottom: "conv2"
  top: "conv2"
  param {
    lr_mult: 0
    decay_mult: 0
  }
  scale_param {
    filler {
      value: 0.6666
    }
    bias_term: false
  }
}
layer {
  name: "conv2_sTanH"
  type: "TanH"
  bottom: "conv2"
  top: "conv2"
}
layer {
  name: "conv2_postscale"
  type: "Scale"
  bottom: "conv2"
  top: "conv2"
  param {
    lr_mult: 0
    decay_mult: 0
  }
  scale_param {
    filler {
      value: 1.7159
    }
    bias_term: false
  }
}
layer {
  name: "pool2"
  type: "Pooling"
  bottom: "conv2"
  top: "pool2"
  pooling_param {
    pool: MAX
    kernel_size: 2
    stride: 2
  }
}
layer {
  name: "conv3"
  type: "Convolution"
  bottom: "pool2"
  top: "conv3"
  convolution_param {
    num_output: 250
    pad: 0
    kernel_size: 4
    group: 1
    stride: 1
    weight_filler {
      type: "xavier"
    }
  }
}
layer {
  name: "conv3_prescale"
  type: "Scale"
  bottom: "conv3"
  top: "conv3"
  param {
    lr_mult: 0
    decay_mult: 0
  }
  scale_param {
    filler {
      value: 0.6666
    }
    bias_term: false
  }
}
layer {
  name: "conv3_sTanH"
  type: "TanH"
  bottom: "conv3"
  top: "conv3"
}
layer {
  name: "conv3_postscale"
  type: "Scale"
  bottom: "conv3"
  top: "conv3"
  param {
    lr_mult: 0
    decay_mult: 0
  }
  scale_param {
    filler {
      value: 1.7159
    }
    bias_term: false
  }
}
layer {
  name: "pool3"
  type: "Pooling"
  bottom: "conv3"
  top: "pool3"
  pooling_param {
    pool: MAX
    kernel_size: 2
    stride: 2
  }
}
layer {
  name: "fc4_300"
  type: "InnerProduct"
  bottom: "pool3"
  top: "fc4_300"
  inner_product_param {
    num_output: 300
    weight_filler {
      type: "xavier"
    }
  }
}
layer {
  name: "fc4_prescale"
  type: "Scale"
  bottom: "fc4_300"
  top: "fc4_300"
  param {
    lr_mult: 0
    decay_mult: 0
  }
  scale_param {
    filler {
      value: 0.6666
    }
    bias_term: false
  }
}
layer {
  name: "fc4_sTanH"
  type: "TanH"
  bottom: "fc4_300"
  top: "fc4_300"
}
layer {
  name: "fc4_postscale"
  type: "Scale"
  bottom: "fc4_300"
  top: "fc4_300"
  param {
    lr_mult: 0
    decay_mult: 0
  }
  scale_param {
    filler {
      value: 1.7159
    }
    bias_term: false
  }
}
layer {
  name: "fc5_67"
  type: "InnerProduct"
  bottom: "fc4_300"
  top: "fc5_classes"
  inner_product_param {
    num_output: 67
    weight_filler {
      type: "xavier"
    }
  }
}
layer {
  name: "softmax"
  type: "Softmax"
  bottom: "fc5_classes"
  top: "softmax"
}
layer {
  name: "loss"
  type: "MultinomialLogisticLoss"
  bottom: "softmax"
  bottom: "label"
  top: "loss"
}
layer {
  name: "accuracy_1"
  type: "Accuracy"
  bottom: "fc5_classes"
  bottom: "label"
  top: "accuracy_1"
  accuracy_param {
    top_k: 1
  }
}
layer {
  name: "accuracy_5"
  type: "Accuracy"
  bottom: "fc5_classes"
  bottom: "label"
  top: "accuracy_5"
  accuracy_param {
    top_k: 5
  }
}
layer {
  name: "silence"
  type: "Silence"
  bottom: "accuracy_1"
  bottom: "accuracy_5"
}
I0417 16:54:02.452280  6208 layer_factory.hpp:77] Creating layer data
I0417 16:54:02.453336  6208 net.cpp:100] Creating Layer data
I0417 16:54:02.453351  6208 net.cpp:408] data -> data
I0417 16:54:02.453377  6208 net.cpp:408] data -> label
I0417 16:54:02.457828  6488 db_lmdb.cpp:35] Opened lmdb ../local_data/lmdb/rtsd-r1/CoNorm/train/lmdb
I0417 16:54:02.476970  6208 data_layer.cpp:41] output data size: 1024,3,48,48
I0417 16:54:02.553236  6208 net.cpp:150] Setting up data
I0417 16:54:02.553266  6208 net.cpp:157] Top shape: 1024 3 48 48 (7077888)
I0417 16:54:02.553272  6208 net.cpp:157] Top shape: 1024 (1024)
I0417 16:54:02.553275  6208 net.cpp:165] Memory required for data: 28315648
I0417 16:54:02.553287  6208 layer_factory.hpp:77] Creating layer label_data_1_split
I0417 16:54:02.553302  6208 net.cpp:100] Creating Layer label_data_1_split
I0417 16:54:02.553309  6208 net.cpp:434] label_data_1_split <- label
I0417 16:54:02.553323  6208 net.cpp:408] label_data_1_split -> label_data_1_split_0
I0417 16:54:02.553336  6208 net.cpp:408] label_data_1_split -> label_data_1_split_1
I0417 16:54:02.553345  6208 net.cpp:408] label_data_1_split -> label_data_1_split_2
I0417 16:54:02.553408  6208 net.cpp:150] Setting up label_data_1_split
I0417 16:54:02.553416  6208 net.cpp:157] Top shape: 1024 (1024)
I0417 16:54:02.553421  6208 net.cpp:157] Top shape: 1024 (1024)
I0417 16:54:02.553426  6208 net.cpp:157] Top shape: 1024 (1024)
I0417 16:54:02.553428  6208 net.cpp:165] Memory required for data: 28327936
I0417 16:54:02.553432  6208 layer_factory.hpp:77] Creating layer conv1
I0417 16:54:02.553450  6208 net.cpp:100] Creating Layer conv1
I0417 16:54:02.553457  6208 net.cpp:434] conv1 <- data
I0417 16:54:02.553463  6208 net.cpp:408] conv1 -> conv1
I0417 16:54:02.893719  6208 net.cpp:150] Setting up conv1
I0417 16:54:02.893748  6208 net.cpp:157] Top shape: 1024 100 42 42 (180633600)
I0417 16:54:02.893754  6208 net.cpp:165] Memory required for data: 750862336
I0417 16:54:02.893775  6208 layer_factory.hpp:77] Creating layer conv1_prescale
I0417 16:54:02.893790  6208 net.cpp:100] Creating Layer conv1_prescale
I0417 16:54:02.893796  6208 net.cpp:434] conv1_prescale <- conv1
I0417 16:54:02.893803  6208 net.cpp:395] conv1_prescale -> conv1 (in-place)
I0417 16:54:02.893911  6208 net.cpp:150] Setting up conv1_prescale
I0417 16:54:02.893921  6208 net.cpp:157] Top shape: 1024 100 42 42 (180633600)
I0417 16:54:02.893924  6208 net.cpp:165] Memory required for data: 1473396736
I0417 16:54:02.893934  6208 layer_factory.hpp:77] Creating layer conv1_sTanH
I0417 16:54:02.893944  6208 net.cpp:100] Creating Layer conv1_sTanH
I0417 16:54:02.893950  6208 net.cpp:434] conv1_sTanH <- conv1
I0417 16:54:02.893955  6208 net.cpp:395] conv1_sTanH -> conv1 (in-place)
I0417 16:54:02.894153  6208 net.cpp:150] Setting up conv1_sTanH
I0417 16:54:02.894184  6208 net.cpp:157] Top shape: 1024 100 42 42 (180633600)
I0417 16:54:02.894189  6208 net.cpp:165] Memory required for data: 2195931136
I0417 16:54:02.894193  6208 layer_factory.hpp:77] Creating layer conv1_postscale
I0417 16:54:02.894201  6208 net.cpp:100] Creating Layer conv1_postscale
I0417 16:54:02.894206  6208 net.cpp:434] conv1_postscale <- conv1
I0417 16:54:02.894212  6208 net.cpp:395] conv1_postscale -> conv1 (in-place)
I0417 16:54:02.894309  6208 net.cpp:150] Setting up conv1_postscale
I0417 16:54:02.894317  6208 net.cpp:157] Top shape: 1024 100 42 42 (180633600)
I0417 16:54:02.894320  6208 net.cpp:165] Memory required for data: 2918465536
I0417 16:54:02.894326  6208 layer_factory.hpp:77] Creating layer pool1
I0417 16:54:02.894335  6208 net.cpp:100] Creating Layer pool1
I0417 16:54:02.894337  6208 net.cpp:434] pool1 <- conv1
I0417 16:54:02.894345  6208 net.cpp:408] pool1 -> pool1
I0417 16:54:02.894392  6208 net.cpp:150] Setting up pool1
I0417 16:54:02.894400  6208 net.cpp:157] Top shape: 1024 100 21 21 (45158400)
I0417 16:54:02.894403  6208 net.cpp:165] Memory required for data: 3099099136
I0417 16:54:02.894407  6208 layer_factory.hpp:77] Creating layer conv2
I0417 16:54:02.894418  6208 net.cpp:100] Creating Layer conv2
I0417 16:54:02.894425  6208 net.cpp:434] conv2 <- pool1
I0417 16:54:02.894431  6208 net.cpp:408] conv2 -> conv2
I0417 16:54:02.903090  6208 net.cpp:150] Setting up conv2
I0417 16:54:02.903106  6208 net.cpp:157] Top shape: 1024 150 18 18 (49766400)
I0417 16:54:02.903111  6208 net.cpp:165] Memory required for data: 3298164736
I0417 16:54:02.903122  6208 layer_factory.hpp:77] Creating layer conv2_prescale
I0417 16:54:02.903136  6208 net.cpp:100] Creating Layer conv2_prescale
I0417 16:54:02.903141  6208 net.cpp:434] conv2_prescale <- conv2
I0417 16:54:02.903146  6208 net.cpp:395] conv2_prescale -> conv2 (in-place)
I0417 16:54:02.903264  6208 net.cpp:150] Setting up conv2_prescale
I0417 16:54:02.903275  6208 net.cpp:157] Top shape: 1024 150 18 18 (49766400)
I0417 16:54:02.903278  6208 net.cpp:165] Memory required for data: 3497230336
I0417 16:54:02.903285  6208 layer_factory.hpp:77] Creating layer conv2_sTanH
I0417 16:54:02.903291  6208 net.cpp:100] Creating Layer conv2_sTanH
I0417 16:54:02.903295  6208 net.cpp:434] conv2_sTanH <- conv2
I0417 16:54:02.903301  6208 net.cpp:395] conv2_sTanH -> conv2 (in-place)
I0417 16:54:02.905299  6208 net.cpp:150] Setting up conv2_sTanH
I0417 16:54:02.905318  6208 net.cpp:157] Top shape: 1024 150 18 18 (49766400)
I0417 16:54:02.905323  6208 net.cpp:165] Memory required for data: 3696295936
I0417 16:54:02.905326  6208 layer_factory.hpp:77] Creating layer conv2_postscale
I0417 16:54:02.905338  6208 net.cpp:100] Creating Layer conv2_postscale
I0417 16:54:02.905341  6208 net.cpp:434] conv2_postscale <- conv2
I0417 16:54:02.905349  6208 net.cpp:395] conv2_postscale -> conv2 (in-place)
I0417 16:54:02.905452  6208 net.cpp:150] Setting up conv2_postscale
I0417 16:54:02.905462  6208 net.cpp:157] Top shape: 1024 150 18 18 (49766400)
I0417 16:54:02.905465  6208 net.cpp:165] Memory required for data: 3895361536
I0417 16:54:02.905472  6208 layer_factory.hpp:77] Creating layer pool2
I0417 16:54:02.905478  6208 net.cpp:100] Creating Layer pool2
I0417 16:54:02.905484  6208 net.cpp:434] pool2 <- conv2
I0417 16:54:02.905491  6208 net.cpp:408] pool2 -> pool2
I0417 16:54:02.905539  6208 net.cpp:150] Setting up pool2
I0417 16:54:02.905549  6208 net.cpp:157] Top shape: 1024 150 9 9 (12441600)
I0417 16:54:02.905552  6208 net.cpp:165] Memory required for data: 3945127936
I0417 16:54:02.905556  6208 layer_factory.hpp:77] Creating layer conv3
I0417 16:54:02.905565  6208 net.cpp:100] Creating Layer conv3
I0417 16:54:02.905571  6208 net.cpp:434] conv3 <- pool2
I0417 16:54:02.905577  6208 net.cpp:408] conv3 -> conv3
I0417 16:54:02.915205  6208 net.cpp:150] Setting up conv3
I0417 16:54:02.915223  6208 net.cpp:157] Top shape: 1024 250 6 6 (9216000)
I0417 16:54:02.915228  6208 net.cpp:165] Memory required for data: 3981991936
I0417 16:54:02.915242  6208 layer_factory.hpp:77] Creating layer conv3_prescale
I0417 16:54:02.915264  6208 net.cpp:100] Creating Layer conv3_prescale
I0417 16:54:02.915272  6208 net.cpp:434] conv3_prescale <- conv3
I0417 16:54:02.915280  6208 net.cpp:395] conv3_prescale -> conv3 (in-place)
I0417 16:54:02.915381  6208 net.cpp:150] Setting up conv3_prescale
I0417 16:54:02.915392  6208 net.cpp:157] Top shape: 1024 250 6 6 (9216000)
I0417 16:54:02.915396  6208 net.cpp:165] Memory required for data: 4018855936
I0417 16:54:02.915401  6208 layer_factory.hpp:77] Creating layer conv3_sTanH
I0417 16:54:02.915408  6208 net.cpp:100] Creating Layer conv3_sTanH
I0417 16:54:02.915411  6208 net.cpp:434] conv3_sTanH <- conv3
I0417 16:54:02.915416  6208 net.cpp:395] conv3_sTanH -> conv3 (in-place)
I0417 16:54:02.923560  6208 net.cpp:150] Setting up conv3_sTanH
I0417 16:54:02.923581  6208 net.cpp:157] Top shape: 1024 250 6 6 (9216000)
I0417 16:54:02.923586  6208 net.cpp:165] Memory required for data: 4055719936
I0417 16:54:02.923590  6208 layer_factory.hpp:77] Creating layer conv3_postscale
I0417 16:54:02.923599  6208 net.cpp:100] Creating Layer conv3_postscale
I0417 16:54:02.923605  6208 net.cpp:434] conv3_postscale <- conv3
I0417 16:54:02.923614  6208 net.cpp:395] conv3_postscale -> conv3 (in-place)
I0417 16:54:02.923722  6208 net.cpp:150] Setting up conv3_postscale
I0417 16:54:02.923732  6208 net.cpp:157] Top shape: 1024 250 6 6 (9216000)
I0417 16:54:02.923735  6208 net.cpp:165] Memory required for data: 4092583936
I0417 16:54:02.923741  6208 layer_factory.hpp:77] Creating layer pool3
I0417 16:54:02.923753  6208 net.cpp:100] Creating Layer pool3
I0417 16:54:02.923758  6208 net.cpp:434] pool3 <- conv3
I0417 16:54:02.923765  6208 net.cpp:408] pool3 -> pool3
I0417 16:54:02.923810  6208 net.cpp:150] Setting up pool3
I0417 16:54:02.923818  6208 net.cpp:157] Top shape: 1024 250 3 3 (2304000)
I0417 16:54:02.923822  6208 net.cpp:165] Memory required for data: 4101799936
I0417 16:54:02.923826  6208 layer_factory.hpp:77] Creating layer fc4_300
I0417 16:54:02.923833  6208 net.cpp:100] Creating Layer fc4_300
I0417 16:54:02.923840  6208 net.cpp:434] fc4_300 <- pool3
I0417 16:54:02.923847  6208 net.cpp:408] fc4_300 -> fc4_300
I0417 16:54:02.946045  6208 net.cpp:150] Setting up fc4_300
I0417 16:54:02.946063  6208 net.cpp:157] Top shape: 1024 300 (307200)
I0417 16:54:02.946069  6208 net.cpp:165] Memory required for data: 4103028736
I0417 16:54:02.946075  6208 layer_factory.hpp:77] Creating layer fc4_prescale
I0417 16:54:02.946086  6208 net.cpp:100] Creating Layer fc4_prescale
I0417 16:54:02.946090  6208 net.cpp:434] fc4_prescale <- fc4_300
I0417 16:54:02.946096  6208 net.cpp:395] fc4_prescale -> fc4_300 (in-place)
I0417 16:54:02.946189  6208 net.cpp:150] Setting up fc4_prescale
I0417 16:54:02.946198  6208 net.cpp:157] Top shape: 1024 300 (307200)
I0417 16:54:02.946202  6208 net.cpp:165] Memory required for data: 4104257536
I0417 16:54:02.946208  6208 layer_factory.hpp:77] Creating layer fc4_sTanH
I0417 16:54:02.946213  6208 net.cpp:100] Creating Layer fc4_sTanH
I0417 16:54:02.946218  6208 net.cpp:434] fc4_sTanH <- fc4_300
I0417 16:54:02.946223  6208 net.cpp:395] fc4_sTanH -> fc4_300 (in-place)
I0417 16:54:02.946420  6208 net.cpp:150] Setting up fc4_sTanH
I0417 16:54:02.946434  6208 net.cpp:157] Top shape: 1024 300 (307200)
I0417 16:54:02.946437  6208 net.cpp:165] Memory required for data: 4105486336
I0417 16:54:02.946441  6208 layer_factory.hpp:77] Creating layer fc4_postscale
I0417 16:54:02.946449  6208 net.cpp:100] Creating Layer fc4_postscale
I0417 16:54:02.946452  6208 net.cpp:434] fc4_postscale <- fc4_300
I0417 16:54:02.946460  6208 net.cpp:395] fc4_postscale -> fc4_300 (in-place)
I0417 16:54:02.946573  6208 net.cpp:150] Setting up fc4_postscale
I0417 16:54:02.946584  6208 net.cpp:157] Top shape: 1024 300 (307200)
I0417 16:54:02.946588  6208 net.cpp:165] Memory required for data: 4106715136
I0417 16:54:02.946593  6208 layer_factory.hpp:77] Creating layer fc5_67
I0417 16:54:02.946602  6208 net.cpp:100] Creating Layer fc5_67
I0417 16:54:02.946609  6208 net.cpp:434] fc5_67 <- fc4_300
I0417 16:54:02.946614  6208 net.cpp:408] fc5_67 -> fc5_classes
I0417 16:54:02.953933  6208 net.cpp:150] Setting up fc5_67
I0417 16:54:02.953949  6208 net.cpp:157] Top shape: 1024 67 (68608)
I0417 16:54:02.953955  6208 net.cpp:165] Memory required for data: 4106989568
I0417 16:54:02.953968  6208 layer_factory.hpp:77] Creating layer fc5_classes_fc5_67_0_split
I0417 16:54:02.953977  6208 net.cpp:100] Creating Layer fc5_classes_fc5_67_0_split
I0417 16:54:02.953984  6208 net.cpp:434] fc5_classes_fc5_67_0_split <- fc5_classes
I0417 16:54:02.953992  6208 net.cpp:408] fc5_classes_fc5_67_0_split -> fc5_classes_fc5_67_0_split_0
I0417 16:54:02.954004  6208 net.cpp:408] fc5_classes_fc5_67_0_split -> fc5_classes_fc5_67_0_split_1
I0417 16:54:02.954012  6208 net.cpp:408] fc5_classes_fc5_67_0_split -> fc5_classes_fc5_67_0_split_2
I0417 16:54:02.954071  6208 net.cpp:150] Setting up fc5_classes_fc5_67_0_split
I0417 16:54:02.954078  6208 net.cpp:157] Top shape: 1024 67 (68608)
I0417 16:54:02.954082  6208 net.cpp:157] Top shape: 1024 67 (68608)
I0417 16:54:02.954087  6208 net.cpp:157] Top shape: 1024 67 (68608)
I0417 16:54:02.954090  6208 net.cpp:165] Memory required for data: 4107812864
I0417 16:54:02.954094  6208 layer_factory.hpp:77] Creating layer softmax
I0417 16:54:02.954100  6208 net.cpp:100] Creating Layer softmax
I0417 16:54:02.954104  6208 net.cpp:434] softmax <- fc5_classes_fc5_67_0_split_0
I0417 16:54:02.954113  6208 net.cpp:408] softmax -> softmax
I0417 16:54:02.954375  6208 net.cpp:150] Setting up softmax
I0417 16:54:02.954388  6208 net.cpp:157] Top shape: 1024 67 (68608)
I0417 16:54:02.954392  6208 net.cpp:165] Memory required for data: 4108087296
I0417 16:54:02.954396  6208 layer_factory.hpp:77] Creating layer loss
I0417 16:54:02.954403  6208 net.cpp:100] Creating Layer loss
I0417 16:54:02.954409  6208 net.cpp:434] loss <- softmax
I0417 16:54:02.954414  6208 net.cpp:434] loss <- label_data_1_split_0
I0417 16:54:02.954422  6208 net.cpp:408] loss -> loss
…
