…
I0414 04:07:08.806262 13473 solver.cpp:93] Creating training net from train_net file: ./Prototxt/experiment_11/rtsd-r1/CoNorm/trial_4/train.prototxt
I0414 04:07:08.806819 13473 net.cpp:58] Initializing net from parameters: 
state {
  phase: TRAIN
  level: 0
  stage: ""
}
layer {
  name: "data"
  type: "Data"
  top: "data"
  top: "label"
  include {
    phase: TRAIN
  }
  transform_param {
    scale: 0.0039215689
    mirror: false
    crop_size: 48
    mean_value: 132
    mean_value: 132
    mean_value: 131
  }
  data_param {
    source: "../local_data/lmdb/rtsd-r1/CoNorm/train/lmdb"
    batch_size: 1024
    backend: LMDB
  }
}
layer {
  name: "conv1"
  type: "Convolution"
  bottom: "data"
  top: "conv1"
  convolution_param {
    num_output: 100
    pad: 0
    kernel_size: 7
    group: 1
    stride: 1
    weight_filler {
      type: "xavier"
    }
  }
}
layer {
  name: "conv1_prescale"
  type: "Scale"
  bottom: "conv1"
  top: "conv1"
  param {
    lr_mult: 0
    decay_mult: 0
  }
  scale_param {
    filler {
      value: 0.6666
    }
    bias_term: false
  }
}
layer {
  name: "conv1_sTanH"
  type: "TanH"
  bottom: "conv1"
  top: "conv1"
}
layer {
  name: "conv1_postscale"
  type: "Scale"
  bottom: "conv1"
  top: "conv1"
  param {
    lr_mult: 0
    decay_mult: 0
  }
  scale_param {
    filler {
      value: 1.7159
    }
    bias_term: false
  }
}
layer {
  name: "pool1"
  type: "Pooling"
  bottom: "conv1"
  top: "pool1"
  pooling_param {
    pool: MAX
    kernel_size: 2
    stride: 2
  }
}
layer {
  name: "conv2"
  type: "Convolution"
  bottom: "pool1"
  top: "conv2"
  convolution_param {
    num_output: 150
    pad: 0
    kernel_size: 4
    group: 1
    stride: 1
    weight_filler {
      type: "xavier"
    }
  }
}
layer {
  name: "conv2_prescale"
  type: "Scale"
  bottom: "conv2"
  top: "conv2"
  param {
    lr_mult: 0
    decay_mult: 0
  }
  scale_param {
    filler {
      value: 0.6666
    }
    bias_term: false
  }
}
layer {
  name: "conv2_sTanH"
  type: "TanH"
  bottom: "conv2"
  top: "conv2"
}
layer {
  name: "conv2_postscale"
  type: "Scale"
  bottom: "conv2"
  top: "conv2"
  param {
    lr_mult: 0
    decay_mult: 0
  }
  scale_param {
    filler {
      value: 1.7159
    }
    bias_term: false
  }
}
layer {
  name: "pool2"
  type: "Pooling"
  bottom: "conv2"
  top: "pool2"
  pooling_param {
    pool: MAX
    kernel_size: 2
    stride: 2
  }
}
layer {
  name: "conv3"
  type: "Convolution"
  bottom: "pool2"
  top: "conv3"
  convolution_param {
    num_output: 250
    pad: 0
    kernel_size: 4
    group: 1
    stride: 1
    weight_filler {
      type: "xavier"
    }
  }
}
layer {
  name: "conv3_prescale"
  type: "Scale"
  bottom: "conv3"
  top: "conv3"
  param {
    lr_mult: 0
    decay_mult: 0
  }
  scale_param {
    filler {
      value: 0.6666
    }
    bias_term: false
  }
}
layer {
  name: "conv3_sTanH"
  type: "TanH"
  bottom: "conv3"
  top: "conv3"
}
layer {
  name: "conv3_postscale"
  type: "Scale"
  bottom: "conv3"
  top: "conv3"
  param {
    lr_mult: 0
    decay_mult: 0
  }
  scale_param {
    filler {
      value: 1.7159
    }
    bias_term: false
  }
}
layer {
  name: "pool3"
  type: "Pooling"
  bottom: "conv3"
  top: "pool3"
  pooling_param {
    pool: MAX
    kernel_size: 2
    stride: 2
  }
}
layer {
  name: "fc4_300"
  type: "InnerProduct"
  bottom: "pool3"
  top: "fc4_300"
  inner_product_param {
    num_output: 300
    weight_filler {
      type: "xavier"
    }
  }
}
layer {
  name: "fc4_prescale"
  type: "Scale"
  bottom: "fc4_300"
  top: "fc4_300"
  param {
    lr_mult: 0
    decay_mult: 0
  }
  scale_param {
    filler {
      value: 0.6666
    }
    bias_term: false
  }
}
layer {
  name: "fc4_sTanH"
  type: "TanH"
  bottom: "fc4_300"
  top: "fc4_300"
}
layer {
  name: "fc4_postscale"
  type: "Scale"
  bottom: "fc4_300"
  top: "fc4_300"
  param {
    lr_mult: 0
    decay_mult: 0
  }
  scale_param {
    filler {
      value: 1.7159
    }
    bias_term: false
  }
}
layer {
  name: "fc5_67"
  type: "InnerProduct"
  bottom: "fc4_300"
  top: "fc5_classes"
  inner_product_param {
    num_output: 67
    weight_filler {
      type: "xavier"
    }
  }
}
layer {
  name: "softmax"
  type: "Softmax"
  bottom: "fc5_classes"
  top: "softmax"
}
layer {
  name: "loss"
  type: "MultinomialLogisticLoss"
  bottom: "softmax"
  bottom: "label"
  top: "loss"
}
layer {
  name: "accuracy_1"
  type: "Accuracy"
  bottom: "fc5_classes"
  bottom: "label"
  top: "accuracy_1"
  accuracy_param {
    top_k: 1
  }
}
layer {
  name: "accuracy_5"
  type: "Accuracy"
  bottom: "fc5_classes"
  bottom: "label"
  top: "accuracy_5"
  accuracy_param {
    top_k: 5
  }
}
layer {
  name: "silence"
  type: "Silence"
  bottom: "accuracy_1"
  bottom: "accuracy_5"
}
I0414 04:07:08.807000 13473 layer_factory.hpp:77] Creating layer data
I0414 04:07:08.808287 13473 net.cpp:100] Creating Layer data
I0414 04:07:08.808306 13473 net.cpp:408] data -> data
I0414 04:07:08.808336 13473 net.cpp:408] data -> label
I0414 04:07:08.811291 13586 db_lmdb.cpp:35] Opened lmdb ../local_data/lmdb/rtsd-r1/CoNorm/train/lmdb
I0414 04:07:08.833488 13473 data_layer.cpp:41] output data size: 1024,3,48,48
I0414 04:07:08.899420 13473 net.cpp:150] Setting up data
I0414 04:07:08.899451 13473 net.cpp:157] Top shape: 1024 3 48 48 (7077888)
I0414 04:07:08.899457 13473 net.cpp:157] Top shape: 1024 (1024)
I0414 04:07:08.899461 13473 net.cpp:165] Memory required for data: 28315648
I0414 04:07:08.899471 13473 layer_factory.hpp:77] Creating layer label_data_1_split
I0414 04:07:08.899487 13473 net.cpp:100] Creating Layer label_data_1_split
I0414 04:07:08.899493 13473 net.cpp:434] label_data_1_split <- label
I0414 04:07:08.899510 13473 net.cpp:408] label_data_1_split -> label_data_1_split_0
I0414 04:07:08.899525 13473 net.cpp:408] label_data_1_split -> label_data_1_split_1
I0414 04:07:08.899535 13473 net.cpp:408] label_data_1_split -> label_data_1_split_2
I0414 04:07:08.899610 13473 net.cpp:150] Setting up label_data_1_split
I0414 04:07:08.899618 13473 net.cpp:157] Top shape: 1024 (1024)
I0414 04:07:08.899626 13473 net.cpp:157] Top shape: 1024 (1024)
I0414 04:07:08.899633 13473 net.cpp:157] Top shape: 1024 (1024)
I0414 04:07:08.899639 13473 net.cpp:165] Memory required for data: 28327936
I0414 04:07:08.899644 13473 layer_factory.hpp:77] Creating layer conv1
I0414 04:07:08.899667 13473 net.cpp:100] Creating Layer conv1
I0414 04:07:08.899672 13473 net.cpp:434] conv1 <- data
I0414 04:07:08.899682 13473 net.cpp:408] conv1 -> conv1
I0414 04:07:09.286634 13473 net.cpp:150] Setting up conv1
I0414 04:07:09.286662 13473 net.cpp:157] Top shape: 1024 100 42 42 (180633600)
I0414 04:07:09.286666 13473 net.cpp:165] Memory required for data: 750862336
I0414 04:07:09.286689 13473 layer_factory.hpp:77] Creating layer conv1_prescale
I0414 04:07:09.286702 13473 net.cpp:100] Creating Layer conv1_prescale
I0414 04:07:09.286707 13473 net.cpp:434] conv1_prescale <- conv1
I0414 04:07:09.286713 13473 net.cpp:395] conv1_prescale -> conv1 (in-place)
I0414 04:07:09.286818 13473 net.cpp:150] Setting up conv1_prescale
I0414 04:07:09.286828 13473 net.cpp:157] Top shape: 1024 100 42 42 (180633600)
I0414 04:07:09.286831 13473 net.cpp:165] Memory required for data: 1473396736
I0414 04:07:09.286839 13473 layer_factory.hpp:77] Creating layer conv1_sTanH
I0414 04:07:09.286847 13473 net.cpp:100] Creating Layer conv1_sTanH
I0414 04:07:09.286852 13473 net.cpp:434] conv1_sTanH <- conv1
I0414 04:07:09.286857 13473 net.cpp:395] conv1_sTanH -> conv1 (in-place)
I0414 04:07:09.287051 13473 net.cpp:150] Setting up conv1_sTanH
I0414 04:07:09.287086 13473 net.cpp:157] Top shape: 1024 100 42 42 (180633600)
I0414 04:07:09.287091 13473 net.cpp:165] Memory required for data: 2195931136
I0414 04:07:09.287093 13473 layer_factory.hpp:77] Creating layer conv1_postscale
I0414 04:07:09.287101 13473 net.cpp:100] Creating Layer conv1_postscale
I0414 04:07:09.287104 13473 net.cpp:434] conv1_postscale <- conv1
I0414 04:07:09.287111 13473 net.cpp:395] conv1_postscale -> conv1 (in-place)
I0414 04:07:09.287206 13473 net.cpp:150] Setting up conv1_postscale
I0414 04:07:09.287214 13473 net.cpp:157] Top shape: 1024 100 42 42 (180633600)
I0414 04:07:09.287219 13473 net.cpp:165] Memory required for data: 2918465536
I0414 04:07:09.287223 13473 layer_factory.hpp:77] Creating layer pool1
I0414 04:07:09.287230 13473 net.cpp:100] Creating Layer pool1
I0414 04:07:09.287233 13473 net.cpp:434] pool1 <- conv1
I0414 04:07:09.287238 13473 net.cpp:408] pool1 -> pool1
I0414 04:07:09.287284 13473 net.cpp:150] Setting up pool1
I0414 04:07:09.287292 13473 net.cpp:157] Top shape: 1024 100 21 21 (45158400)
I0414 04:07:09.287295 13473 net.cpp:165] Memory required for data: 3099099136
I0414 04:07:09.287298 13473 layer_factory.hpp:77] Creating layer conv2
I0414 04:07:09.287308 13473 net.cpp:100] Creating Layer conv2
I0414 04:07:09.287313 13473 net.cpp:434] conv2 <- pool1
I0414 04:07:09.287318 13473 net.cpp:408] conv2 -> conv2
I0414 04:07:09.309156 13473 net.cpp:150] Setting up conv2
I0414 04:07:09.309177 13473 net.cpp:157] Top shape: 1024 150 18 18 (49766400)
I0414 04:07:09.309182 13473 net.cpp:165] Memory required for data: 3298164736
I0414 04:07:09.309193 13473 layer_factory.hpp:77] Creating layer conv2_prescale
I0414 04:07:09.309207 13473 net.cpp:100] Creating Layer conv2_prescale
I0414 04:07:09.309214 13473 net.cpp:434] conv2_prescale <- conv2
I0414 04:07:09.309221 13473 net.cpp:395] conv2_prescale -> conv2 (in-place)
I0414 04:07:09.309329 13473 net.cpp:150] Setting up conv2_prescale
I0414 04:07:09.309339 13473 net.cpp:157] Top shape: 1024 150 18 18 (49766400)
I0414 04:07:09.309341 13473 net.cpp:165] Memory required for data: 3497230336
I0414 04:07:09.309346 13473 layer_factory.hpp:77] Creating layer conv2_sTanH
I0414 04:07:09.309352 13473 net.cpp:100] Creating Layer conv2_sTanH
I0414 04:07:09.309355 13473 net.cpp:434] conv2_sTanH <- conv2
I0414 04:07:09.309360 13473 net.cpp:395] conv2_sTanH -> conv2 (in-place)
I0414 04:07:09.310976 13473 net.cpp:150] Setting up conv2_sTanH
I0414 04:07:09.310994 13473 net.cpp:157] Top shape: 1024 150 18 18 (49766400)
I0414 04:07:09.310999 13473 net.cpp:165] Memory required for data: 3696295936
I0414 04:07:09.311003 13473 layer_factory.hpp:77] Creating layer conv2_postscale
I0414 04:07:09.311012 13473 net.cpp:100] Creating Layer conv2_postscale
I0414 04:07:09.311017 13473 net.cpp:434] conv2_postscale <- conv2
I0414 04:07:09.311022 13473 net.cpp:395] conv2_postscale -> conv2 (in-place)
I0414 04:07:09.311121 13473 net.cpp:150] Setting up conv2_postscale
I0414 04:07:09.311131 13473 net.cpp:157] Top shape: 1024 150 18 18 (49766400)
I0414 04:07:09.311133 13473 net.cpp:165] Memory required for data: 3895361536
I0414 04:07:09.311139 13473 layer_factory.hpp:77] Creating layer pool2
I0414 04:07:09.311146 13473 net.cpp:100] Creating Layer pool2
I0414 04:07:09.311151 13473 net.cpp:434] pool2 <- conv2
I0414 04:07:09.311157 13473 net.cpp:408] pool2 -> pool2
I0414 04:07:09.311200 13473 net.cpp:150] Setting up pool2
I0414 04:07:09.311208 13473 net.cpp:157] Top shape: 1024 150 9 9 (12441600)
I0414 04:07:09.311213 13473 net.cpp:165] Memory required for data: 3945127936
I0414 04:07:09.311215 13473 layer_factory.hpp:77] Creating layer conv3
I0414 04:07:09.311225 13473 net.cpp:100] Creating Layer conv3
I0414 04:07:09.311229 13473 net.cpp:434] conv3 <- pool2
I0414 04:07:09.311235 13473 net.cpp:408] conv3 -> conv3
I0414 04:07:09.317842 13473 net.cpp:150] Setting up conv3
I0414 04:07:09.317864 13473 net.cpp:157] Top shape: 1024 250 6 6 (9216000)
I0414 04:07:09.317869 13473 net.cpp:165] Memory required for data: 3981991936
I0414 04:07:09.317879 13473 layer_factory.hpp:77] Creating layer conv3_prescale
I0414 04:07:09.317905 13473 net.cpp:100] Creating Layer conv3_prescale
I0414 04:07:09.317911 13473 net.cpp:434] conv3_prescale <- conv3
I0414 04:07:09.317919 13473 net.cpp:395] conv3_prescale -> conv3 (in-place)
I0414 04:07:09.318022 13473 net.cpp:150] Setting up conv3_prescale
I0414 04:07:09.318032 13473 net.cpp:157] Top shape: 1024 250 6 6 (9216000)
I0414 04:07:09.318035 13473 net.cpp:165] Memory required for data: 4018855936
I0414 04:07:09.318040 13473 layer_factory.hpp:77] Creating layer conv3_sTanH
I0414 04:07:09.318047 13473 net.cpp:100] Creating Layer conv3_sTanH
I0414 04:07:09.318050 13473 net.cpp:434] conv3_sTanH <- conv3
I0414 04:07:09.318055 13473 net.cpp:395] conv3_sTanH -> conv3 (in-place)
I0414 04:07:09.321259 13473 net.cpp:150] Setting up conv3_sTanH
I0414 04:07:09.321277 13473 net.cpp:157] Top shape: 1024 250 6 6 (9216000)
I0414 04:07:09.321281 13473 net.cpp:165] Memory required for data: 4055719936
I0414 04:07:09.321285 13473 layer_factory.hpp:77] Creating layer conv3_postscale
I0414 04:07:09.321295 13473 net.cpp:100] Creating Layer conv3_postscale
I0414 04:07:09.321301 13473 net.cpp:434] conv3_postscale <- conv3
I0414 04:07:09.321306 13473 net.cpp:395] conv3_postscale -> conv3 (in-place)
I0414 04:07:09.321413 13473 net.cpp:150] Setting up conv3_postscale
I0414 04:07:09.321424 13473 net.cpp:157] Top shape: 1024 250 6 6 (9216000)
I0414 04:07:09.321427 13473 net.cpp:165] Memory required for data: 4092583936
I0414 04:07:09.321432 13473 layer_factory.hpp:77] Creating layer pool3
I0414 04:07:09.321444 13473 net.cpp:100] Creating Layer pool3
I0414 04:07:09.321449 13473 net.cpp:434] pool3 <- conv3
I0414 04:07:09.321455 13473 net.cpp:408] pool3 -> pool3
I0414 04:07:09.321498 13473 net.cpp:150] Setting up pool3
I0414 04:07:09.321506 13473 net.cpp:157] Top shape: 1024 250 3 3 (2304000)
I0414 04:07:09.321511 13473 net.cpp:165] Memory required for data: 4101799936
I0414 04:07:09.321513 13473 layer_factory.hpp:77] Creating layer fc4_300
I0414 04:07:09.321521 13473 net.cpp:100] Creating Layer fc4_300
I0414 04:07:09.321524 13473 net.cpp:434] fc4_300 <- pool3
I0414 04:07:09.321532 13473 net.cpp:408] fc4_300 -> fc4_300
I0414 04:07:09.329442 13473 net.cpp:150] Setting up fc4_300
I0414 04:07:09.329470 13473 net.cpp:157] Top shape: 1024 300 (307200)
I0414 04:07:09.329475 13473 net.cpp:165] Memory required for data: 4103028736
I0414 04:07:09.329488 13473 layer_factory.hpp:77] Creating layer fc4_prescale
I0414 04:07:09.329500 13473 net.cpp:100] Creating Layer fc4_prescale
I0414 04:07:09.329509 13473 net.cpp:434] fc4_prescale <- fc4_300
I0414 04:07:09.329521 13473 net.cpp:395] fc4_prescale -> fc4_300 (in-place)
I0414 04:07:09.329648 13473 net.cpp:150] Setting up fc4_prescale
I0414 04:07:09.329660 13473 net.cpp:157] Top shape: 1024 300 (307200)
I0414 04:07:09.329668 13473 net.cpp:165] Memory required for data: 4104257536
I0414 04:07:09.329675 13473 layer_factory.hpp:77] Creating layer fc4_sTanH
I0414 04:07:09.329684 13473 net.cpp:100] Creating Layer fc4_sTanH
I0414 04:07:09.329691 13473 net.cpp:434] fc4_sTanH <- fc4_300
I0414 04:07:09.329697 13473 net.cpp:395] fc4_sTanH -> fc4_300 (in-place)
I0414 04:07:09.329979 13473 net.cpp:150] Setting up fc4_sTanH
I0414 04:07:09.329998 13473 net.cpp:157] Top shape: 1024 300 (307200)
I0414 04:07:09.330005 13473 net.cpp:165] Memory required for data: 4105486336
I0414 04:07:09.330013 13473 layer_factory.hpp:77] Creating layer fc4_postscale
I0414 04:07:09.330024 13473 net.cpp:100] Creating Layer fc4_postscale
I0414 04:07:09.330031 13473 net.cpp:434] fc4_postscale <- fc4_300
I0414 04:07:09.330044 13473 net.cpp:395] fc4_postscale -> fc4_300 (in-place)
I0414 04:07:09.330175 13473 net.cpp:150] Setting up fc4_postscale
I0414 04:07:09.330189 13473 net.cpp:157] Top shape: 1024 300 (307200)
I0414 04:07:09.330198 13473 net.cpp:165] Memory required for data: 4106715136
I0414 04:07:09.330206 13473 layer_factory.hpp:77] Creating layer fc5_67
I0414 04:07:09.330219 13473 net.cpp:100] Creating Layer fc5_67
I0414 04:07:09.330226 13473 net.cpp:434] fc5_67 <- fc4_300
I0414 04:07:09.330236 13473 net.cpp:408] fc5_67 -> fc5_classes
I0414 04:07:09.332067 13473 net.cpp:150] Setting up fc5_67
I0414 04:07:09.332084 13473 net.cpp:157] Top shape: 1024 67 (68608)
I0414 04:07:09.332088 13473 net.cpp:165] Memory required for data: 4106989568
I0414 04:07:09.332100 13473 layer_factory.hpp:77] Creating layer fc5_classes_fc5_67_0_split
I0414 04:07:09.332110 13473 net.cpp:100] Creating Layer fc5_classes_fc5_67_0_split
I0414 04:07:09.332115 13473 net.cpp:434] fc5_classes_fc5_67_0_split <- fc5_classes
I0414 04:07:09.332123 13473 net.cpp:408] fc5_classes_fc5_67_0_split -> fc5_classes_fc5_67_0_split_0
I0414 04:07:09.332134 13473 net.cpp:408] fc5_classes_fc5_67_0_split -> fc5_classes_fc5_67_0_split_1
I0414 04:07:09.332141 13473 net.cpp:408] fc5_classes_fc5_67_0_split -> fc5_classes_fc5_67_0_split_2
I0414 04:07:09.332198 13473 net.cpp:150] Setting up fc5_classes_fc5_67_0_split
I0414 04:07:09.332207 13473 net.cpp:157] Top shape: 1024 67 (68608)
I0414 04:07:09.332211 13473 net.cpp:157] Top shape: 1024 67 (68608)
I0414 04:07:09.332216 13473 net.cpp:157] Top shape: 1024 67 (68608)
I0414 04:07:09.332217 13473 net.cpp:165] Memory required for data: 4107812864
I0414 04:07:09.332221 13473 layer_factory.hpp:77] Creating layer softmax
I0414 04:07:09.332227 13473 net.cpp:100] Creating Layer softmax
I0414 04:07:09.332231 13473 net.cpp:434] softmax <- fc5_classes_fc5_67_0_split_0
I0414 04:07:09.332239 13473 net.cpp:408] softmax -> softmax
I0414 04:07:09.332505 13473 net.cpp:150] Setting up softmax
I0414 04:07:09.332520 13473 net.cpp:157] Top shape: 1024 67 (68608)
I0414 04:07:09.332523 13473 net.cpp:165] Memory required for data: 4108087296
I0414 04:07:09.332527 13473 layer_factory.hpp:77] Creating layer loss
I0414 04:07:09.332535 13473 net.cpp:100] Creating Layer loss
I0414 04:07:09.332541 13473 net.cpp:434] loss <- softmax
I0414 04:07:09.332545 13473 net.cpp:434] loss <- label_data_1_split_0
I0414 04:07:09.332551 13473 net.cpp:408] loss -> loss
…
